…
I0428 20:38:44.169458  5158 net.cpp:296] The NetState phase (0) differed from the phase (1) specified by a rule in layer mnist
I0428 20:38:44.169488  5158 net.cpp:296] The NetState phase (0) differed from the phase (1) specified by a rule in layer accuracy
I0428 20:38:44.169571  5158 net.cpp:53] Initializing net from parameters: 
name: "LeNet"
state {
  phase: TRAIN
  level: 0
  stage: ""
}
layer {
  name: "mnist"
  type: "Data"
  top: "data"
  top: "label"
  include {
    phase: TRAIN
  }
  transform_param {
    scale: 0.00390625
  }
  data_param {
    source: "examples/mnist/mnist_train_lmdb"
    batch_size: 64
    backend: LMDB
  }
}
layer {
  name: "conv0"
  type: "Convolution"
  bottom: "data"
  top: "conv0"
  param {
    lr_mult: 1
  }
  param {
    lr_mult: 2
  }
  convolution_param {
    num_output: 100
    kernel_size: 5
    stride: 1
    weight_filler {
      type: "xavier"
    }
    bias_filler {
      type: "constant"
    }
  }
}
layer {
  name: "pool0"
  type: "Pooling"
  bottom: "conv0"
  top: "pool0"
  pooling_param {
    pool: MAX
    kernel_size: 2
    stride: 2
  }
}
layer {
  name: "conv1"
  type: "Convolution"
  bottom: "pool0"
  top: "conv1"
  param {
    lr_mult: 1
  }
  param {
    lr_mult: 2
  }
  convolution_param {
    num_output: 100
    kernel_size: 5
    stride: 1
    weight_filler {
      type: "xavier"
    }
    bias_filler {
      type: "constant"
    }
  }
}
layer {
  name: "pool1"
  type: "Pooling"
  bottom: "conv1"
  top: "pool1"
  pooling_param {
    pool: MAX
    kernel_size: 2
    stride: 2
  }
}
layer {
  name: "ip1"
  type: "InnerProduct"
  bottom: "pool1"
  top: "ip1"
  param {
    lr_mult: 1
  }
  param {
    lr_mult: 2
  }
  inner_product_param {
    num_output: 50
    weight_filler {
      type: "xavier"
    }
    bias_filler {
      type: "constant"
    }
  }
}
layer {
  name: "relu1"
  type: "ReLU"
  bottom: "ip1"
  top: "ip1"
}
layer {
  name: "ip2"
  type: "InnerProduct"
  bottom: "ip1"
  top: "ip2"
  param {
    lr_mult: 1
  }
  param {
    lr_mult: 2
  }
  inner_product_param {
    num_output: 10
    weight_filler {
      type: "xavier"
    }
    bias_filler {
      type: "constant"
    }
  }
}
layer {
  name: "relu2"
  type: "ReLU"
  bottom: "ip2"
  top: "ip2"
}
layer {
  name: "ip3"
  type: "InnerProduct"
  bottom: "ip2"
  top: "ip3"
  param {
    lr_mult: 1
  }
  param {
    lr_mult: 2
  }
  inner_product_param {
    num_output: 10
    weight_filler {
      type: "xavier"
    }
    bias_filler {
      type: "constant"
    }
  }
}
layer {
  name: "relu3"
  type: "ReLU"
  bottom: "ip3"
  top: "ip3"
}
layer {
  name: "loss"
  type: "SoftmaxWithLoss"
  bottom: "ip3"
  bottom: "label"
  top: "loss"
}
I0428 20:38:44.169637  5158 layer_factory.hpp:77] Creating layer mnist
I0428 20:38:44.169719  5158 db_lmdb.cpp:35] Opened lmdb examples/mnist/mnist_train_lmdb
I0428 20:38:44.169739  5158 net.cpp:86] Creating Layer mnist
I0428 20:38:44.169747  5158 net.cpp:382] mnist -> data
I0428 20:38:44.169776  5158 net.cpp:382] mnist -> label
I0428 20:38:44.170672  5158 data_layer.cpp:45] output data size: 64,1,28,28
I0428 20:38:44.172722  5158 net.cpp:124] Setting up mnist
I0428 20:38:44.172751  5158 net.cpp:131] Top shape: 64 1 28 28 (50176)
I0428 20:38:44.172756  5158 net.cpp:131] Top shape: 64 (64)
I0428 20:38:44.172760  5158 net.cpp:139] Memory required for data: 200960
I0428 20:38:44.172765  5158 layer_factory.hpp:77] Creating layer conv0
I0428 20:38:44.172857  5158 net.cpp:86] Creating Layer conv0
I0428 20:38:44.172878  5158 net.cpp:408] conv0 <- data
I0428 20:38:44.172889  5158 net.cpp:382] conv0 -> conv0
I0428 20:38:44.398056  5158 net.cpp:124] Setting up conv0
I0428 20:38:44.398097  5158 net.cpp:131] Top shape: 64 100 24 24 (3686400)
I0428 20:38:44.398115  5158 net.cpp:139] Memory required for data: 14946560
I0428 20:38:44.398130  5158 layer_factory.hpp:77] Creating layer pool0
I0428 20:38:44.398142  5158 net.cpp:86] Creating Layer pool0
I0428 20:38:44.398146  5158 net.cpp:408] pool0 <- conv0
I0428 20:38:44.398167  5158 net.cpp:382] pool0 -> pool0
I0428 20:38:44.398227  5158 net.cpp:124] Setting up pool0
I0428 20:38:44.398242  5158 net.cpp:131] Top shape: 64 100 12 12 (921600)
I0428 20:38:44.398246  5158 net.cpp:139] Memory required for data: 18632960
I0428 20:38:44.398248  5158 layer_factory.hpp:77] Creating layer conv1
I0428 20:38:44.398258  5158 net.cpp:86] Creating Layer conv1
I0428 20:38:44.398260  5158 net.cpp:408] conv1 <- pool0
I0428 20:38:44.398265  5158 net.cpp:382] conv1 -> conv1
I0428 20:38:44.402215  5158 net.cpp:124] Setting up conv1
I0428 20:38:44.402245  5158 net.cpp:131] Top shape: 64 100 8 8 (409600)
I0428 20:38:44.402248  5158 net.cpp:139] Memory required for data: 20271360
I0428 20:38:44.402256  5158 layer_factory.hpp:77] Creating layer pool1
I0428 20:38:44.402264  5158 net.cpp:86] Creating Layer pool1
I0428 20:38:44.402268  5158 net.cpp:408] pool1 <- conv1
I0428 20:38:44.402273  5158 net.cpp:382] pool1 -> pool1
I0428 20:38:44.402326  5158 net.cpp:124] Setting up pool1
I0428 20:38:44.402331  5158 net.cpp:131] Top shape: 64 100 4 4 (102400)
I0428 20:38:44.402334  5158 net.cpp:139] Memory required for data: 20680960
I0428 20:38:44.402338  5158 layer_factory.hpp:77] Creating layer ip1
I0428 20:38:44.402345  5158 net.cpp:86] Creating Layer ip1
I0428 20:38:44.402348  5158 net.cpp:408] ip1 <- pool1
I0428 20:38:44.402353  5158 net.cpp:382] ip1 -> ip1
I0428 20:38:44.402915  5158 net.cpp:124] Setting up ip1
I0428 20:38:44.402921  5158 net.cpp:131] Top shape: 64 50 (3200)
I0428 20:38:44.402940  5158 net.cpp:139] Memory required for data: 20693760
I0428 20:38:44.402945  5158 layer_factory.hpp:77] Creating layer relu1
I0428 20:38:44.402952  5158 net.cpp:86] Creating Layer relu1
I0428 20:38:44.402956  5158 net.cpp:408] relu1 <- ip1
I0428 20:38:44.402961  5158 net.cpp:369] relu1 -> ip1 (in-place)
I0428 20:38:44.403141  5158 net.cpp:124] Setting up relu1
I0428 20:38:44.403151  5158 net.cpp:131] Top shape: 64 50 (3200)
I0428 20:38:44.403153  5158 net.cpp:139] Memory required for data: 20706560
I0428 20:38:44.403156  5158 layer_factory.hpp:77] Creating layer ip2
I0428 20:38:44.403163  5158 net.cpp:86] Creating Layer ip2
I0428 20:38:44.403167  5158 net.cpp:408] ip2 <- ip1
I0428 20:38:44.403172  5158 net.cpp:382] ip2 -> ip2
I0428 20:38:44.403288  5158 net.cpp:124] Setting up ip2
I0428 20:38:44.403295  5158 net.cpp:131] Top shape: 64 10 (640)
I0428 20:38:44.403298  5158 net.cpp:139] Memory required for data: 20709120
I0428 20:38:44.403303  5158 layer_factory.hpp:77] Creating layer relu2
I0428 20:38:44.403311  5158 net.cpp:86] Creating Layer relu2
I0428 20:38:44.403314  5158 net.cpp:408] relu2 <- ip2
I0428 20:38:44.403318  5158 net.cpp:369] relu2 -> ip2 (in-place)
I0428 20:38:44.404057  5158 net.cpp:124] Setting up relu2
I0428 20:38:44.404085  5158 net.cpp:131] Top shape: 64 10 (640)
I0428 20:38:44.404088  5158 net.cpp:139] Memory required for data: 20711680
I0428 20:38:44.404093  5158 layer_factory.hpp:77] Creating layer ip3
I0428 20:38:44.404099  5158 net.cpp:86] Creating Layer ip3
I0428 20:38:44.404103  5158 net.cpp:408] ip3 <- ip2
I0428 20:38:44.404109  5158 net.cpp:382] ip3 -> ip3
I0428 20:38:44.404211  5158 net.cpp:124] Setting up ip3
I0428 20:38:44.404218  5158 net.cpp:131] Top shape: 64 10 (640)
I0428 20:38:44.404222  5158 net.cpp:139] Memory required for data: 20714240
I0428 20:38:44.404229  5158 layer_factory.hpp:77] Creating layer relu3
I0428 20:38:44.404233  5158 net.cpp:86] Creating Layer relu3
I0428 20:38:44.404237  5158 net.cpp:408] relu3 <- ip3
I0428 20:38:44.404255  5158 net.cpp:369] relu3 -> ip3 (in-place)
I0428 20:38:44.404429  5158 net.cpp:124] Setting up relu3
I0428 20:38:44.404438  5158 net.cpp:131] Top shape: 64 10 (640)
I0428 20:38:44.404441  5158 net.cpp:139] Memory required for data: 20716800
I0428 20:38:44.404444  5158 layer_factory.hpp:77] Creating layer loss
I0428 20:38:44.404453  5158 net.cpp:86] Creating Layer loss
I0428 20:38:44.404456  5158 net.cpp:408] loss <- ip3
I0428 20:38:44.404460  5158 net.cpp:408] loss <- label
I0428 20:38:44.404466  5158 net.cpp:382] loss -> loss
I0428 20:38:44.404480  5158 layer_factory.hpp:77] Creating layer loss
…
I0428 20:38:44.405277  5158 solver.cpp:173] Creating test net (#0) specified by net file: ECE595/mnist/train_test/var_everything2/lenet_train_test1669.prototxt
I0428 20:38:44.405318  5158 net.cpp:296] The NetState phase (1) differed from the phase (0) specified by a rule in layer mnist
I0428 20:38:44.405412  5158 net.cpp:53] Initializing net from parameters: 
name: "LeNet"
state {
  phase: TEST
}
layer {
  name: "mnist"
  type: "Data"
  top: "data"
  top: "label"
  include {
    phase: TEST
  }
  transform_param {
    scale: 0.00390625
  }
  data_param {
    source: "examples/mnist/mnist_test_lmdb"
    batch_size: 100
    backend: LMDB
  }
}
layer {
  name: "conv0"
  type: "Convolution"
  bottom: "data"
  top: "conv0"
  param {
    lr_mult: 1
  }
  param {
    lr_mult: 2
  }
  convolution_param {
    num_output: 100
    kernel_size: 5
    stride: 1
    weight_filler {
      type: "xavier"
    }
    bias_filler {
      type: "constant"
    }
  }
}
layer {
  name: "pool0"
  type: "Pooling"
  bottom: "conv0"
  top: "pool0"
  pooling_param {
    pool: MAX
    kernel_size: 2
    stride: 2
  }
}
layer {
  name: "conv1"
  type: "Convolution"
  bottom: "pool0"
  top: "conv1"
  param {
    lr_mult: 1
  }
  param {
    lr_mult: 2
  }
  convolution_param {
    num_output: 100
    kernel_size: 5
    stride: 1
    weight_filler {
      type: "xavier"
    }
    bias_filler {
      type: "constant"
    }
  }
}
layer {
  name: "pool1"
  type: "Pooling"
  bottom: "conv1"
  top: "pool1"
  pooling_param {
    pool: MAX
    kernel_size: 2
    stride: 2
  }
}
layer {
  name: "ip1"
  type: "InnerProduct"
  bottom: "pool1"
  top: "ip1"
  param {
    lr_mult: 1
  }
  param {
    lr_mult: 2
  }
  inner_product_param {
    num_output: 50
    weight_filler {
      type: "xavier"
    }
    bias_filler {
      type: "constant"
    }
  }
}
layer {
  name: "relu1"
  type: "ReLU"
  bottom: "ip1"
  top: "ip1"
}
layer {
  name: "ip2"
  type: "InnerProduct"
  bottom: "ip1"
  top: "ip2"
  param {
    lr_mult: 1
  }
  param {
    lr_mult: 2
  }
  inner_product_param {
    num_output: 10
    weight_filler {
      type: "xavier"
    }
    bias_filler {
      type: "constant"
    }
  }
}
layer {
  name: "relu2"
  type: "ReLU"
  bottom: "ip2"
  top: "ip2"
}
layer {
  name: "ip3"
  type: "InnerProduct"
  bottom: "ip2"
  top: "ip3"
  param {
    lr_mult: 1
  }
  param {
    lr_mult: 2
  }
  inner_product_param {
    num_output: 10
    weight_filler {
      type: "xavier"
    }
    bias_filler {
      type: "constant"
    }
  }
}
layer {
  name: "relu3"
  type: "ReLU"
  bottom: "ip3"
  top: "ip3"
}
layer {
  name: "accuracy"
  type: "Accuracy"
  bottom: "ip3"
  bottom: "label"
  top: "accuracy"
  include {
    phase: TEST
  }
}
layer {
  name: "loss"
  type: "SoftmaxWithLoss"
  bottom: "ip3"
  bottom: "label"
  top: "loss"
}
I0428 20:38:44.405508  5158 layer_factory.hpp:77] Creating layer mnist
I0428 20:38:44.405551  5158 db_lmdb.cpp:35] Opened lmdb examples/mnist/mnist_test_lmdb
I0428 20:38:44.405565  5158 net.cpp:86] Creating Layer mnist
I0428 20:38:44.405570  5158 net.cpp:382] mnist -> data
I0428 20:38:44.405577  5158 net.cpp:382] mnist -> label
I0428 20:38:44.405663  5158 data_layer.cpp:45] output data size: 100,1,28,28
I0428 20:38:44.407527  5158 net.cpp:124] Setting up mnist
I0428 20:38:44.407555  5158 net.cpp:131] Top shape: 100 1 28 28 (78400)
I0428 20:38:44.407560  5158 net.cpp:131] Top shape: 100 (100)
I0428 20:38:44.407563  5158 net.cpp:139] Memory required for data: 314000
I0428 20:38:44.407567  5158 layer_factory.hpp:77] Creating layer label_mnist_1_split
I0428 20:38:44.407573  5158 net.cpp:86] Creating Layer label_mnist_1_split
I0428 20:38:44.407577  5158 net.cpp:408] label_mnist_1_split <- label
I0428 20:38:44.407608  5158 net.cpp:382] label_mnist_1_split -> label_mnist_1_split_0
I0428 20:38:44.407615  5158 net.cpp:382] label_mnist_1_split -> label_mnist_1_split_1
I0428 20:38:44.407675  5158 net.cpp:124] Setting up label_mnist_1_split
I0428 20:38:44.407680  5158 net.cpp:131] Top shape: 100 (100)
I0428 20:38:44.407685  5158 net.cpp:131] Top shape: 100 (100)
I0428 20:38:44.407687  5158 net.cpp:139] Memory required for data: 314800
I0428 20:38:44.407691  5158 layer_factory.hpp:77] Creating layer conv0
I0428 20:38:44.407699  5158 net.cpp:86] Creating Layer conv0
I0428 20:38:44.407702  5158 net.cpp:408] conv0 <- data
I0428 20:38:44.407708  5158 net.cpp:382] conv0 -> conv0
I0428 20:38:44.409565  5158 net.cpp:124] Setting up conv0
I0428 20:38:44.409579  5158 net.cpp:131] Top shape: 100 100 24 24 (5760000)
I0428 20:38:44.409597  5158 net.cpp:139] Memory required for data: 23354800
I0428 20:38:44.409621  5158 layer_factory.hpp:77] Creating layer pool0
I0428 20:38:44.409629  5158 net.cpp:86] Creating Layer pool0
I0428 20:38:44.409632  5158 net.cpp:408] pool0 <- conv0
I0428 20:38:44.409637  5158 net.cpp:382] pool0 -> pool0
I0428 20:38:44.409675  5158 net.cpp:124] Setting up pool0
I0428 20:38:44.409680  5158 net.cpp:131] Top shape: 100 100 12 12 (1440000)
I0428 20:38:44.409683  5158 net.cpp:139] Memory required for data: 29114800
I0428 20:38:44.409685  5158 layer_factory.hpp:77] Creating layer conv1
I0428 20:38:44.409694  5158 net.cpp:86] Creating Layer conv1
I0428 20:38:44.409698  5158 net.cpp:408] conv1 <- pool0
I0428 20:38:44.409704  5158 net.cpp:382] conv1 -> conv1
I0428 20:38:44.412713  5158 net.cpp:124] Setting up conv1
I0428 20:38:44.412727  5158 net.cpp:131] Top shape: 100 100 8 8 (640000)
I0428 20:38:44.412731  5158 net.cpp:139] Memory required for data: 31674800
I0428 20:38:44.412740  5158 layer_factory.hpp:77] Creating layer pool1
I0428 20:38:44.412747  5158 net.cpp:86] Creating Layer pool1
I0428 20:38:44.412751  5158 net.cpp:408] pool1 <- conv1
I0428 20:38:44.412757  5158 net.cpp:382] pool1 -> pool1
I0428 20:38:44.412852  5158 net.cpp:124] Setting up pool1
I0428 20:38:44.412860  5158 net.cpp:131] Top shape: 100 100 4 4 (160000)
I0428 20:38:44.412863  5158 net.cpp:139] Memory required for data: 32314800
I0428 20:38:44.412866  5158 layer_factory.hpp:77] Creating layer ip1
I0428 20:38:44.412873  5158 net.cpp:86] Creating Layer ip1
I0428 20:38:44.412878  5158 net.cpp:408] ip1 <- pool1
I0428 20:38:44.412884  5158 net.cpp:382] ip1 -> ip1
I0428 20:38:44.413513  5158 net.cpp:124] Setting up ip1
I0428 20:38:44.413532  5158 net.cpp:131] Top shape: 100 50 (5000)
I0428 20:38:44.413537  5158 net.cpp:139] Memory required for data: 32334800
I0428 20:38:44.413544  5158 layer_factory.hpp:77] Creating layer relu1
I0428 20:38:44.413552  5158 net.cpp:86] Creating Layer relu1
I0428 20:38:44.413555  5158 net.cpp:408] relu1 <- ip1
I0428 20:38:44.413561  5158 net.cpp:369] relu1 -> ip1 (in-place)
I0428 20:38:44.413763  5158 net.cpp:124] Setting up relu1
I0428 20:38:44.413772  5158 net.cpp:131] Top shape: 100 50 (5000)
I0428 20:38:44.413775  5158 net.cpp:139] Memory required for data: 32354800
I0428 20:38:44.413779  5158 layer_factory.hpp:77] Creating layer ip2
I0428 20:38:44.413786  5158 net.cpp:86] Creating Layer ip2
I0428 20:38:44.413790  5158 net.cpp:408] ip2 <- ip1
I0428 20:38:44.413795  5158 net.cpp:382] ip2 -> ip2
I0428 20:38:44.413938  5158 net.cpp:124] Setting up ip2
I0428 20:38:44.413949  5158 net.cpp:131] Top shape: 100 10 (1000)
I0428 20:38:44.413952  5158 net.cpp:139] Memory required for data: 32358800
I0428 20:38:44.413957  5158 layer_factory.hpp:77] Creating layer relu2
I0428 20:38:44.413964  5158 net.cpp:86] Creating Layer relu2
I0428 20:38:44.413966  5158 net.cpp:408] relu2 <- ip2
I0428 20:38:44.413970  5158 net.cpp:369] relu2 -> ip2 (in-place)
I0428 20:38:44.414126  5158 net.cpp:124] Setting up relu2
I0428 20:38:44.414134  5158 net.cpp:131] Top shape: 100 10 (1000)
I0428 20:38:44.414137  5158 net.cpp:139] Memory required for data: 32362800
I0428 20:38:44.414141  5158 layer_factory.hpp:77] Creating layer ip3
I0428 20:38:44.414146  5158 net.cpp:86] Creating Layer ip3
I0428 20:38:44.414149  5158 net.cpp:408] ip3 <- ip2
I0428 20:38:44.414155  5158 net.cpp:382] ip3 -> ip3
I0428 20:38:44.414266  5158 net.cpp:124] Setting up ip3
I0428 20:38:44.414273  5158 net.cpp:131] Top shape: 100 10 (1000)
I0428 20:38:44.414276  5158 net.cpp:139] Memory required for data: 32366800
I0428 20:38:44.414284  5158 layer_factory.hpp:77] Creating layer relu3
I0428 20:38:44.414291  5158 net.cpp:86] Creating Layer relu3
I0428 20:38:44.414294  5158 net.cpp:408] relu3 <- ip3
I0428 20:38:44.414304  5158 net.cpp:369] relu3 -> ip3 (in-place)
I0428 20:38:44.415122  5158 net.cpp:124] Setting up relu3
I0428 20:38:44.415134  5158 net.cpp:131] Top shape: 100 10 (1000)
I0428 20:38:44.415138  5158 net.cpp:139] Memory required for data: 32370800
I0428 20:38:44.415141  5158 layer_factory.hpp:77] Creating layer ip3_relu3_0_split
I0428 20:38:44.415148  5158 net.cpp:86] Creating Layer ip3_relu3_0_split
I0428 20:38:44.415153  5158 net.cpp:408] ip3_relu3_0_split <- ip3
I0428 20:38:44.415158  5158 net.cpp:382] ip3_relu3_0_split -> ip3_relu3_0_split_0
I0428 20:38:44.415163  5158 net.cpp:382] ip3_relu3_0_split -> ip3_relu3_0_split_1
I0428 20:38:44.415201  5158 net.cpp:124] Setting up ip3_relu3_0_split
I0428 20:38:44.415207  5158 net.cpp:131] Top shape: 100 10 (1000)
I0428 20:38:44.415211  5158 net.cpp:131] Top shape: 100 10 (1000)
I0428 20:38:44.415215  5158 net.cpp:139] Memory required for data: 32378800
I0428 20:38:44.415217  5158 layer_factory.hpp:77] Creating layer accuracy
I0428 20:38:44.415221  5158 net.cpp:86] Creating Layer accuracy
I0428 20:38:44.415225  5158 net.cpp:408] accuracy <- ip3_relu3_0_split_0
I0428 20:38:44.415228  5158 net.cpp:408] accuracy <- label_mnist_1_split_0
I0428 20:38:44.415233  5158 net.cpp:382] accuracy -> accuracy
…
