…
I0428 20:13:41.838538 32503 net.cpp:296] The NetState phase (0) differed from the phase (1) specified by a rule in layer mnist
I0428 20:13:41.838568 32503 net.cpp:296] The NetState phase (0) differed from the phase (1) specified by a rule in layer accuracy
I0428 20:13:41.838649 32503 net.cpp:53] Initializing net from parameters: 
name: "LeNet"
state {
  phase: TRAIN
  level: 0
  stage: ""
}
layer {
  name: "mnist"
  type: "Data"
  top: "data"
  top: "label"
  include {
    phase: TRAIN
  }
  transform_param {
    scale: 0.00390625
  }
  data_param {
    source: "examples/mnist/mnist_train_lmdb"
    batch_size: 64
    backend: LMDB
  }
}
layer {
  name: "conv0"
  type: "Convolution"
  bottom: "data"
  top: "conv0"
  param {
    lr_mult: 1
  }
  param {
    lr_mult: 2
  }
  convolution_param {
    num_output: 25
    kernel_size: 5
    stride: 1
    weight_filler {
      type: "xavier"
    }
    bias_filler {
      type: "constant"
    }
  }
}
layer {
  name: "pool0"
  type: "Pooling"
  bottom: "conv0"
  top: "pool0"
  pooling_param {
    pool: MAX
    kernel_size: 2
    stride: 2
  }
}
layer {
  name: "conv1"
  type: "Convolution"
  bottom: "pool0"
  top: "conv1"
  param {
    lr_mult: 1
  }
  param {
    lr_mult: 2
  }
  convolution_param {
    num_output: 100
    kernel_size: 5
    stride: 1
    weight_filler {
      type: "xavier"
    }
    bias_filler {
      type: "constant"
    }
  }
}
layer {
  name: "pool1"
  type: "Pooling"
  bottom: "conv1"
  top: "pool1"
  pooling_param {
    pool: MAX
    kernel_size: 2
    stride: 2
  }
}
layer {
  name: "ip1"
  type: "InnerProduct"
  bottom: "pool1"
  top: "ip1"
  param {
    lr_mult: 1
  }
  param {
    lr_mult: 2
  }
  inner_product_param {
    num_output: 50
    weight_filler {
      type: "xavier"
    }
    bias_filler {
      type: "constant"
    }
  }
}
layer {
  name: "relu1"
  type: "ReLU"
  bottom: "ip1"
  top: "ip1"
}
layer {
  name: "ip2"
  type: "InnerProduct"
  bottom: "ip1"
  top: "ip2"
  param {
    lr_mult: 1
  }
  param {
    lr_mult: 2
  }
  inner_product_param {
    num_output: 25
    weight_filler {
      type: "xavier"
    }
    bias_filler {
      type: "constant"
    }
  }
}
layer {
  name: "relu2"
  type: "ReLU"
  bottom: "ip2"
  top: "ip2"
}
layer {
  name: "ip3"
  type: "InnerProduct"
  bottom: "ip2"
  top: "ip3"
  param {
    lr_mult: 1
  }
  param {
    lr_mult: 2
  }
  inner_product_param {
    num_output: 10
    weight_filler {
      type: "xavier"
    }
    bias_filler {
      type: "constant"
    }
  }
}
layer {
  name: "relu3"
  type: "ReLU"
  bottom: "ip3"
  top: "ip3"
}
layer {
  name: "loss"
  type: "SoftmaxWithLoss"
  bottom: "ip3"
  bottom: "label"
  top: "loss"
}
I0428 20:13:41.838716 32503 layer_factory.hpp:77] Creating layer mnist
I0428 20:13:41.838794 32503 db_lmdb.cpp:35] Opened lmdb examples/mnist/mnist_train_lmdb
I0428 20:13:41.838812 32503 net.cpp:86] Creating Layer mnist
I0428 20:13:41.838819 32503 net.cpp:382] mnist -> data
I0428 20:13:41.838836 32503 net.cpp:382] mnist -> label
I0428 20:13:41.839826 32503 data_layer.cpp:45] output data size: 64,1,28,28
I0428 20:13:41.842178 32503 net.cpp:124] Setting up mnist
I0428 20:13:41.842223 32503 net.cpp:131] Top shape: 64 1 28 28 (50176)
I0428 20:13:41.842228 32503 net.cpp:131] Top shape: 64 (64)
I0428 20:13:41.842231 32503 net.cpp:139] Memory required for data: 200960
I0428 20:13:41.842236 32503 layer_factory.hpp:77] Creating layer conv0
I0428 20:13:41.842249 32503 net.cpp:86] Creating Layer conv0
I0428 20:13:41.842267 32503 net.cpp:408] conv0 <- data
I0428 20:13:41.842278 32503 net.cpp:382] conv0 -> conv0
I0428 20:13:42.074650 32503 net.cpp:124] Setting up conv0
I0428 20:13:42.074692 32503 net.cpp:131] Top shape: 64 25 24 24 (921600)
I0428 20:13:42.074697 32503 net.cpp:139] Memory required for data: 3887360
I0428 20:13:42.074710 32503 layer_factory.hpp:77] Creating layer pool0
I0428 20:13:42.074723 32503 net.cpp:86] Creating Layer pool0
I0428 20:13:42.074726 32503 net.cpp:408] pool0 <- conv0
I0428 20:13:42.074731 32503 net.cpp:382] pool0 -> pool0
I0428 20:13:42.074790 32503 net.cpp:124] Setting up pool0
I0428 20:13:42.074796 32503 net.cpp:131] Top shape: 64 25 12 12 (230400)
I0428 20:13:42.074800 32503 net.cpp:139] Memory required for data: 4808960
I0428 20:13:42.074802 32503 layer_factory.hpp:77] Creating layer conv1
I0428 20:13:42.074813 32503 net.cpp:86] Creating Layer conv1
I0428 20:13:42.074816 32503 net.cpp:408] conv1 <- pool0
I0428 20:13:42.074821 32503 net.cpp:382] conv1 -> conv1
I0428 20:13:42.077055 32503 net.cpp:124] Setting up conv1
I0428 20:13:42.077080 32503 net.cpp:131] Top shape: 64 100 8 8 (409600)
I0428 20:13:42.077083 32503 net.cpp:139] Memory required for data: 6447360
I0428 20:13:42.077107 32503 layer_factory.hpp:77] Creating layer pool1
I0428 20:13:42.077114 32503 net.cpp:86] Creating Layer pool1
I0428 20:13:42.077118 32503 net.cpp:408] pool1 <- conv1
I0428 20:13:42.077123 32503 net.cpp:382] pool1 -> pool1
I0428 20:13:42.077172 32503 net.cpp:124] Setting up pool1
I0428 20:13:42.077178 32503 net.cpp:131] Top shape: 64 100 4 4 (102400)
I0428 20:13:42.077181 32503 net.cpp:139] Memory required for data: 6856960
I0428 20:13:42.077184 32503 layer_factory.hpp:77] Creating layer ip1
I0428 20:13:42.077191 32503 net.cpp:86] Creating Layer ip1
I0428 20:13:42.077194 32503 net.cpp:408] ip1 <- pool1
I0428 20:13:42.077199 32503 net.cpp:382] ip1 -> ip1
I0428 20:13:42.078605 32503 net.cpp:124] Setting up ip1
I0428 20:13:42.078619 32503 net.cpp:131] Top shape: 64 50 (3200)
I0428 20:13:42.078637 32503 net.cpp:139] Memory required for data: 6869760
I0428 20:13:42.078645 32503 layer_factory.hpp:77] Creating layer relu1
I0428 20:13:42.078652 32503 net.cpp:86] Creating Layer relu1
I0428 20:13:42.078655 32503 net.cpp:408] relu1 <- ip1
I0428 20:13:42.078660 32503 net.cpp:369] relu1 -> ip1 (in-place)
I0428 20:13:42.078821 32503 net.cpp:124] Setting up relu1
I0428 20:13:42.078830 32503 net.cpp:131] Top shape: 64 50 (3200)
I0428 20:13:42.078833 32503 net.cpp:139] Memory required for data: 6882560
I0428 20:13:42.078836 32503 layer_factory.hpp:77] Creating layer ip2
I0428 20:13:42.078843 32503 net.cpp:86] Creating Layer ip2
I0428 20:13:42.078845 32503 net.cpp:408] ip2 <- ip1
I0428 20:13:42.078850 32503 net.cpp:382] ip2 -> ip2
I0428 20:13:42.079895 32503 net.cpp:124] Setting up ip2
I0428 20:13:42.079906 32503 net.cpp:131] Top shape: 64 25 (1600)
I0428 20:13:42.079910 32503 net.cpp:139] Memory required for data: 6888960
I0428 20:13:42.079916 32503 layer_factory.hpp:77] Creating layer relu2
I0428 20:13:42.079922 32503 net.cpp:86] Creating Layer relu2
I0428 20:13:42.079926 32503 net.cpp:408] relu2 <- ip2
I0428 20:13:42.079931 32503 net.cpp:369] relu2 -> ip2 (in-place)
I0428 20:13:42.080631 32503 net.cpp:124] Setting up relu2
I0428 20:13:42.080642 32503 net.cpp:131] Top shape: 64 25 (1600)
I0428 20:13:42.080646 32503 net.cpp:139] Memory required for data: 6895360
I0428 20:13:42.080651 32503 layer_factory.hpp:77] Creating layer ip3
I0428 20:13:42.080658 32503 net.cpp:86] Creating Layer ip3
I0428 20:13:42.080662 32503 net.cpp:408] ip3 <- ip2
I0428 20:13:42.080667 32503 net.cpp:382] ip3 -> ip3
I0428 20:13:42.080760 32503 net.cpp:124] Setting up ip3
I0428 20:13:42.080767 32503 net.cpp:131] Top shape: 64 10 (640)
I0428 20:13:42.080770 32503 net.cpp:139] Memory required for data: 6897920
I0428 20:13:42.080777 32503 layer_factory.hpp:77] Creating layer relu3
I0428 20:13:42.080782 32503 net.cpp:86] Creating Layer relu3
I0428 20:13:42.080785 32503 net.cpp:408] relu3 <- ip3
I0428 20:13:42.080790 32503 net.cpp:369] relu3 -> ip3 (in-place)
I0428 20:13:42.080996 32503 net.cpp:124] Setting up relu3
I0428 20:13:42.081004 32503 net.cpp:131] Top shape: 64 10 (640)
I0428 20:13:42.081008 32503 net.cpp:139] Memory required for data: 6900480
I0428 20:13:42.081012 32503 layer_factory.hpp:77] Creating layer loss
I0428 20:13:42.081017 32503 net.cpp:86] Creating Layer loss
I0428 20:13:42.081020 32503 net.cpp:408] loss <- ip3
I0428 20:13:42.081025 32503 net.cpp:408] loss <- label
I0428 20:13:42.081030 32503 net.cpp:382] loss -> loss
I0428 20:13:42.081048 32503 layer_factory.hpp:77] Creating layer loss
…
I0428 20:13:42.081692 32503 solver.cpp:173] Creating test net (#0) specified by net file: ECE595/mnist/train_test/var_everything2/lenet_train_test1204.prototxt
I0428 20:13:42.081718 32503 net.cpp:296] The NetState phase (1) differed from the phase (0) specified by a rule in layer mnist
I0428 20:13:42.081805 32503 net.cpp:53] Initializing net from parameters: 
name: "LeNet"
state {
  phase: TEST
}
layer {
  name: "mnist"
  type: "Data"
  top: "data"
  top: "label"
  include {
    phase: TEST
  }
  transform_param {
    scale: 0.00390625
  }
  data_param {
    source: "examples/mnist/mnist_test_lmdb"
    batch_size: 100
    backend: LMDB
  }
}
layer {
  name: "conv0"
  type: "Convolution"
  bottom: "data"
  top: "conv0"
  param {
    lr_mult: 1
  }
  param {
    lr_mult: 2
  }
  convolution_param {
    num_output: 25
    kernel_size: 5
    stride: 1
    weight_filler {
      type: "xavier"
    }
    bias_filler {
      type: "constant"
    }
  }
}
layer {
  name: "pool0"
  type: "Pooling"
  bottom: "conv0"
  top: "pool0"
  pooling_param {
    pool: MAX
    kernel_size: 2
    stride: 2
  }
}
layer {
  name: "conv1"
  type: "Convolution"
  bottom: "pool0"
  top: "conv1"
  param {
    lr_mult: 1
  }
  param {
    lr_mult: 2
  }
  convolution_param {
    num_output: 100
    kernel_size: 5
    stride: 1
    weight_filler {
      type: "xavier"
    }
    bias_filler {
      type: "constant"
    }
  }
}
layer {
  name: "pool1"
  type: "Pooling"
  bottom: "conv1"
  top: "pool1"
  pooling_param {
    pool: MAX
    kernel_size: 2
    stride: 2
  }
}
layer {
  name: "ip1"
  type: "InnerProduct"
  bottom: "pool1"
  top: "ip1"
  param {
    lr_mult: 1
  }
  param {
    lr_mult: 2
  }
  inner_product_param {
    num_output: 50
    weight_filler {
      type: "xavier"
    }
    bias_filler {
      type: "constant"
    }
  }
}
layer {
  name: "relu1"
  type: "ReLU"
  bottom: "ip1"
  top: "ip1"
}
layer {
  name: "ip2"
  type: "InnerProduct"
  bottom: "ip1"
  top: "ip2"
  param {
    lr_mult: 1
  }
  param {
    lr_mult: 2
  }
  inner_product_param {
    num_output: 25
    weight_filler {
      type: "xavier"
    }
    bias_filler {
      type: "constant"
    }
  }
}
layer {
  name: "relu2"
  type: "ReLU"
  bottom: "ip2"
  top: "ip2"
}
layer {
  name: "ip3"
  type: "InnerProduct"
  bottom: "ip2"
  top: "ip3"
  param {
    lr_mult: 1
  }
  param {
    lr_mult: 2
  }
  inner_product_param {
    num_output: 10
    weight_filler {
      type: "xavier"
    }
    bias_filler {
      type: "constant"
    }
  }
}
layer {
  name: "relu3"
  type: "ReLU"
  bottom: "ip3"
  top: "ip3"
}
layer {
  name: "accuracy"
  type: "Accuracy"
  bottom: "ip3"
  bottom: "label"
  top: "accuracy"
  include {
    phase: TEST
  }
}
layer {
  name: "loss"
  type: "SoftmaxWithLoss"
  bottom: "ip3"
  bottom: "label"
  top: "loss"
}
I0428 20:13:42.081882 32503 layer_factory.hpp:77] Creating layer mnist
I0428 20:13:42.081925 32503 db_lmdb.cpp:35] Opened lmdb examples/mnist/mnist_test_lmdb
I0428 20:13:42.081938 32503 net.cpp:86] Creating Layer mnist
I0428 20:13:42.081941 32503 net.cpp:382] mnist -> data
I0428 20:13:42.081948 32503 net.cpp:382] mnist -> label
I0428 20:13:42.082027 32503 data_layer.cpp:45] output data size: 100,1,28,28
I0428 20:13:42.083155 32503 net.cpp:124] Setting up mnist
I0428 20:13:42.083168 32503 net.cpp:131] Top shape: 100 1 28 28 (78400)
I0428 20:13:42.083173 32503 net.cpp:131] Top shape: 100 (100)
I0428 20:13:42.083176 32503 net.cpp:139] Memory required for data: 314000
I0428 20:13:42.083180 32503 layer_factory.hpp:77] Creating layer label_mnist_1_split
I0428 20:13:42.083190 32503 net.cpp:86] Creating Layer label_mnist_1_split
I0428 20:13:42.083194 32503 net.cpp:408] label_mnist_1_split <- label
I0428 20:13:42.083199 32503 net.cpp:382] label_mnist_1_split -> label_mnist_1_split_0
I0428 20:13:42.083207 32503 net.cpp:382] label_mnist_1_split -> label_mnist_1_split_1
I0428 20:13:42.083300 32503 net.cpp:124] Setting up label_mnist_1_split
I0428 20:13:42.083308 32503 net.cpp:131] Top shape: 100 (100)
I0428 20:13:42.083312 32503 net.cpp:131] Top shape: 100 (100)
I0428 20:13:42.083315 32503 net.cpp:139] Memory required for data: 314800
I0428 20:13:42.083318 32503 layer_factory.hpp:77] Creating layer conv0
I0428 20:13:42.083326 32503 net.cpp:86] Creating Layer conv0
I0428 20:13:42.083329 32503 net.cpp:408] conv0 <- data
I0428 20:13:42.083334 32503 net.cpp:382] conv0 -> conv0
I0428 20:13:42.084995 32503 net.cpp:124] Setting up conv0
I0428 20:13:42.085024 32503 net.cpp:131] Top shape: 100 25 24 24 (1440000)
I0428 20:13:42.085028 32503 net.cpp:139] Memory required for data: 6074800
I0428 20:13:42.085036 32503 layer_factory.hpp:77] Creating layer pool0
I0428 20:13:42.085058 32503 net.cpp:86] Creating Layer pool0
I0428 20:13:42.085062 32503 net.cpp:408] pool0 <- conv0
I0428 20:13:42.085067 32503 net.cpp:382] pool0 -> pool0
I0428 20:13:42.085103 32503 net.cpp:124] Setting up pool0
I0428 20:13:42.085108 32503 net.cpp:131] Top shape: 100 25 12 12 (360000)
I0428 20:13:42.085111 32503 net.cpp:139] Memory required for data: 7514800
I0428 20:13:42.085114 32503 layer_factory.hpp:77] Creating layer conv1
I0428 20:13:42.085124 32503 net.cpp:86] Creating Layer conv1
I0428 20:13:42.085126 32503 net.cpp:408] conv1 <- pool0
I0428 20:13:42.085130 32503 net.cpp:382] conv1 -> conv1
I0428 20:13:42.087054 32503 net.cpp:124] Setting up conv1
I0428 20:13:42.087069 32503 net.cpp:131] Top shape: 100 100 8 8 (640000)
I0428 20:13:42.087072 32503 net.cpp:139] Memory required for data: 10074800
I0428 20:13:42.087081 32503 layer_factory.hpp:77] Creating layer pool1
I0428 20:13:42.087087 32503 net.cpp:86] Creating Layer pool1
I0428 20:13:42.087092 32503 net.cpp:408] pool1 <- conv1
I0428 20:13:42.087097 32503 net.cpp:382] pool1 -> pool1
I0428 20:13:42.087134 32503 net.cpp:124] Setting up pool1
I0428 20:13:42.087141 32503 net.cpp:131] Top shape: 100 100 4 4 (160000)
I0428 20:13:42.087146 32503 net.cpp:139] Memory required for data: 10714800
I0428 20:13:42.087148 32503 layer_factory.hpp:77] Creating layer ip1
I0428 20:13:42.087154 32503 net.cpp:86] Creating Layer ip1
I0428 20:13:42.087157 32503 net.cpp:408] ip1 <- pool1
I0428 20:13:42.087162 32503 net.cpp:382] ip1 -> ip1
I0428 20:13:42.087723 32503 net.cpp:124] Setting up ip1
I0428 20:13:42.087731 32503 net.cpp:131] Top shape: 100 50 (5000)
I0428 20:13:42.087744 32503 net.cpp:139] Memory required for data: 10734800
I0428 20:13:42.087752 32503 layer_factory.hpp:77] Creating layer relu1
I0428 20:13:42.087757 32503 net.cpp:86] Creating Layer relu1
I0428 20:13:42.087760 32503 net.cpp:408] relu1 <- ip1
I0428 20:13:42.087764 32503 net.cpp:369] relu1 -> ip1 (in-place)
I0428 20:13:42.087971 32503 net.cpp:124] Setting up relu1
I0428 20:13:42.087981 32503 net.cpp:131] Top shape: 100 50 (5000)
I0428 20:13:42.087985 32503 net.cpp:139] Memory required for data: 10754800
I0428 20:13:42.087988 32503 layer_factory.hpp:77] Creating layer ip2
I0428 20:13:42.087996 32503 net.cpp:86] Creating Layer ip2
I0428 20:13:42.087999 32503 net.cpp:408] ip2 <- ip1
I0428 20:13:42.088006 32503 net.cpp:382] ip2 -> ip2
I0428 20:13:42.088116 32503 net.cpp:124] Setting up ip2
I0428 20:13:42.088124 32503 net.cpp:131] Top shape: 100 25 (2500)
I0428 20:13:42.088129 32503 net.cpp:139] Memory required for data: 10764800
I0428 20:13:42.088135 32503 layer_factory.hpp:77] Creating layer relu2
I0428 20:13:42.088138 32503 net.cpp:86] Creating Layer relu2
I0428 20:13:42.088142 32503 net.cpp:408] relu2 <- ip2
I0428 20:13:42.088147 32503 net.cpp:369] relu2 -> ip2 (in-place)
I0428 20:13:42.088330 32503 net.cpp:124] Setting up relu2
I0428 20:13:42.088338 32503 net.cpp:131] Top shape: 100 25 (2500)
I0428 20:13:42.088341 32503 net.cpp:139] Memory required for data: 10774800
I0428 20:13:42.088346 32503 layer_factory.hpp:77] Creating layer ip3
I0428 20:13:42.088351 32503 net.cpp:86] Creating Layer ip3
I0428 20:13:42.088354 32503 net.cpp:408] ip3 <- ip2
I0428 20:13:42.088358 32503 net.cpp:382] ip3 -> ip3
I0428 20:13:42.088448 32503 net.cpp:124] Setting up ip3
I0428 20:13:42.088454 32503 net.cpp:131] Top shape: 100 10 (1000)
I0428 20:13:42.088457 32503 net.cpp:139] Memory required for data: 10778800
I0428 20:13:42.088464 32503 layer_factory.hpp:77] Creating layer relu3
I0428 20:13:42.088469 32503 net.cpp:86] Creating Layer relu3
I0428 20:13:42.088472 32503 net.cpp:408] relu3 <- ip3
I0428 20:13:42.088476 32503 net.cpp:369] relu3 -> ip3 (in-place)
I0428 20:13:42.089272 32503 net.cpp:124] Setting up relu3
I0428 20:13:42.089285 32503 net.cpp:131] Top shape: 100 10 (1000)
I0428 20:13:42.089292 32503 net.cpp:139] Memory required for data: 10782800
I0428 20:13:42.089294 32503 layer_factory.hpp:77] Creating layer ip3_relu3_0_split
I0428 20:13:42.089300 32503 net.cpp:86] Creating Layer ip3_relu3_0_split
I0428 20:13:42.089303 32503 net.cpp:408] ip3_relu3_0_split <- ip3
I0428 20:13:42.089308 32503 net.cpp:382] ip3_relu3_0_split -> ip3_relu3_0_split_0
I0428 20:13:42.089315 32503 net.cpp:382] ip3_relu3_0_split -> ip3_relu3_0_split_1
I0428 20:13:42.089357 32503 net.cpp:124] Setting up ip3_relu3_0_split
I0428 20:13:42.089365 32503 net.cpp:131] Top shape: 100 10 (1000)
I0428 20:13:42.089370 32503 net.cpp:131] Top shape: 100 10 (1000)
I0428 20:13:42.089372 32503 net.cpp:139] Memory required for data: 10790800
I0428 20:13:42.089375 32503 layer_factory.hpp:77] Creating layer accuracy
I0428 20:13:42.089380 32503 net.cpp:86] Creating Layer accuracy
I0428 20:13:42.089383 32503 net.cpp:408] accuracy <- ip3_relu3_0_split_0
I0428 20:13:42.089388 32503 net.cpp:408] accuracy <- label_mnist_1_split_0
I0428 20:13:42.089392 32503 net.cpp:382] accuracy -> accuracy
…
