…
I0428 20:28:26.203222  3351 net.cpp:296] The NetState phase (0) differed from the phase (1) specified by a rule in layer mnist
I0428 20:28:26.203248  3351 net.cpp:296] The NetState phase (0) differed from the phase (1) specified by a rule in layer accuracy
I0428 20:28:26.203362  3351 net.cpp:53] Initializing net from parameters: 
name: "LeNet"
state {
  phase: TRAIN
  level: 0
  stage: ""
}
layer {
  name: "mnist"
  type: "Data"
  top: "data"
  top: "label"
  include {
    phase: TRAIN
  }
  transform_param {
    scale: 0.00390625
  }
  data_param {
    source: "examples/mnist/mnist_train_lmdb"
    batch_size: 64
    backend: LMDB
  }
}
layer {
  name: "conv0"
  type: "Convolution"
  bottom: "data"
  top: "conv0"
  param {
    lr_mult: 1
  }
  param {
    lr_mult: 2
  }
  convolution_param {
    num_output: 100
    kernel_size: 5
    stride: 1
    weight_filler {
      type: "xavier"
    }
    bias_filler {
      type: "constant"
    }
  }
}
layer {
  name: "pool0"
  type: "Pooling"
  bottom: "conv0"
  top: "pool0"
  pooling_param {
    pool: MAX
    kernel_size: 2
    stride: 2
  }
}
layer {
  name: "conv1"
  type: "Convolution"
  bottom: "pool0"
  top: "conv1"
  param {
    lr_mult: 1
  }
  param {
    lr_mult: 2
  }
  convolution_param {
    num_output: 5
    kernel_size: 5
    stride: 1
    weight_filler {
      type: "xavier"
    }
    bias_filler {
      type: "constant"
    }
  }
}
layer {
  name: "pool1"
  type: "Pooling"
  bottom: "conv1"
  top: "pool1"
  pooling_param {
    pool: MAX
    kernel_size: 2
    stride: 2
  }
}
layer {
  name: "ip1"
  type: "InnerProduct"
  bottom: "pool1"
  top: "ip1"
  param {
    lr_mult: 1
  }
  param {
    lr_mult: 2
  }
  inner_product_param {
    num_output: 25
    weight_filler {
      type: "xavier"
    }
    bias_filler {
      type: "constant"
    }
  }
}
layer {
  name: "relu1"
  type: "ReLU"
  bottom: "ip1"
  top: "ip1"
}
layer {
  name: "ip2"
  type: "InnerProduct"
  bottom: "ip1"
  top: "ip2"
  param {
    lr_mult: 1
  }
  param {
    lr_mult: 2
  }
  inner_product_param {
    num_output: 10
    weight_filler {
      type: "xavier"
    }
    bias_filler {
      type: "constant"
    }
  }
}
layer {
  name: "relu2"
  type: "ReLU"
  bottom: "ip2"
  top: "ip2"
}
layer {
  name: "ip3"
  type: "InnerProduct"
  bottom: "ip2"
  top: "ip3"
  param {
    lr_mult: 1
  }
  param {
    lr_mult: 2
  }
  inner_product_param {
    num_output: 10
    weight_filler {
      type: "xavier"
    }
    bias_filler {
      type: "constant"
    }
  }
}
layer {
  name: "relu3"
  type: "ReLU"
  bottom: "ip3"
  top: "ip3"
}
layer {
  name: "loss"
  type: "SoftmaxWithLoss"
  bottom: "ip3"
  bottom: "label"
  top: "loss"
}
I0428 20:28:26.203479  3351 layer_factory.hpp:77] Creating layer mnist
I0428 20:28:26.203610  3351 db_lmdb.cpp:35] Opened lmdb examples/mnist/mnist_train_lmdb
I0428 20:28:26.203644  3351 net.cpp:86] Creating Layer mnist
I0428 20:28:26.203660  3351 net.cpp:382] mnist -> data
I0428 20:28:26.203691  3351 net.cpp:382] mnist -> label
I0428 20:28:26.204962  3351 data_layer.cpp:45] output data size: 64,1,28,28
I0428 20:28:26.207423  3351 net.cpp:124] Setting up mnist
I0428 20:28:26.207444  3351 net.cpp:131] Top shape: 64 1 28 28 (50176)
I0428 20:28:26.207454  3351 net.cpp:131] Top shape: 64 (64)
I0428 20:28:26.207460  3351 net.cpp:139] Memory required for data: 200960
I0428 20:28:26.207471  3351 layer_factory.hpp:77] Creating layer conv0
I0428 20:28:26.207495  3351 net.cpp:86] Creating Layer conv0
I0428 20:28:26.207522  3351 net.cpp:408] conv0 <- data
I0428 20:28:26.207545  3351 net.cpp:382] conv0 -> conv0
I0428 20:28:26.499207  3351 net.cpp:124] Setting up conv0
I0428 20:28:26.499238  3351 net.cpp:131] Top shape: 64 100 24 24 (3686400)
I0428 20:28:26.499245  3351 net.cpp:139] Memory required for data: 14946560
I0428 20:28:26.499269  3351 layer_factory.hpp:77] Creating layer pool0
I0428 20:28:26.499294  3351 net.cpp:86] Creating Layer pool0
I0428 20:28:26.499307  3351 net.cpp:408] pool0 <- conv0
I0428 20:28:26.499320  3351 net.cpp:382] pool0 -> pool0
I0428 20:28:26.499388  3351 net.cpp:124] Setting up pool0
I0428 20:28:26.499399  3351 net.cpp:131] Top shape: 64 100 12 12 (921600)
I0428 20:28:26.499405  3351 net.cpp:139] Memory required for data: 18632960
I0428 20:28:26.499411  3351 layer_factory.hpp:77] Creating layer conv1
I0428 20:28:26.499431  3351 net.cpp:86] Creating Layer conv1
I0428 20:28:26.499439  3351 net.cpp:408] conv1 <- pool0
I0428 20:28:26.499454  3351 net.cpp:382] conv1 -> conv1
I0428 20:28:26.502596  3351 net.cpp:124] Setting up conv1
I0428 20:28:26.502615  3351 net.cpp:131] Top shape: 64 5 8 8 (20480)
I0428 20:28:26.502622  3351 net.cpp:139] Memory required for data: 18714880
I0428 20:28:26.502638  3351 layer_factory.hpp:77] Creating layer pool1
I0428 20:28:26.502655  3351 net.cpp:86] Creating Layer pool1
I0428 20:28:26.502670  3351 net.cpp:408] pool1 <- conv1
I0428 20:28:26.502679  3351 net.cpp:382] pool1 -> pool1
I0428 20:28:26.502734  3351 net.cpp:124] Setting up pool1
I0428 20:28:26.502745  3351 net.cpp:131] Top shape: 64 5 4 4 (5120)
I0428 20:28:26.502751  3351 net.cpp:139] Memory required for data: 18735360
I0428 20:28:26.502758  3351 layer_factory.hpp:77] Creating layer ip1
I0428 20:28:26.502769  3351 net.cpp:86] Creating Layer ip1
I0428 20:28:26.502776  3351 net.cpp:408] ip1 <- pool1
I0428 20:28:26.502789  3351 net.cpp:382] ip1 -> ip1
I0428 20:28:26.502938  3351 net.cpp:124] Setting up ip1
I0428 20:28:26.502948  3351 net.cpp:131] Top shape: 64 25 (1600)
I0428 20:28:26.502954  3351 net.cpp:139] Memory required for data: 18741760
I0428 20:28:26.502969  3351 layer_factory.hpp:77] Creating layer relu1
I0428 20:28:26.502984  3351 net.cpp:86] Creating Layer relu1
I0428 20:28:26.502991  3351 net.cpp:408] relu1 <- ip1
I0428 20:28:26.503002  3351 net.cpp:369] relu1 -> ip1 (in-place)
I0428 20:28:26.503207  3351 net.cpp:124] Setting up relu1
I0428 20:28:26.503221  3351 net.cpp:131] Top shape: 64 25 (1600)
I0428 20:28:26.503226  3351 net.cpp:139] Memory required for data: 18748160
I0428 20:28:26.503232  3351 layer_factory.hpp:77] Creating layer ip2
I0428 20:28:26.503247  3351 net.cpp:86] Creating Layer ip2
I0428 20:28:26.503252  3351 net.cpp:408] ip2 <- ip1
I0428 20:28:26.503262  3351 net.cpp:382] ip2 -> ip2
I0428 20:28:26.503384  3351 net.cpp:124] Setting up ip2
I0428 20:28:26.503394  3351 net.cpp:131] Top shape: 64 10 (640)
I0428 20:28:26.503401  3351 net.cpp:139] Memory required for data: 18750720
I0428 20:28:26.503412  3351 layer_factory.hpp:77] Creating layer relu2
I0428 20:28:26.503422  3351 net.cpp:86] Creating Layer relu2
I0428 20:28:26.503429  3351 net.cpp:408] relu2 <- ip2
I0428 20:28:26.503440  3351 net.cpp:369] relu2 -> ip2 (in-place)
I0428 20:28:26.504294  3351 net.cpp:124] Setting up relu2
I0428 20:28:26.504310  3351 net.cpp:131] Top shape: 64 10 (640)
I0428 20:28:26.504317  3351 net.cpp:139] Memory required for data: 18753280
I0428 20:28:26.504323  3351 layer_factory.hpp:77] Creating layer ip3
I0428 20:28:26.504338  3351 net.cpp:86] Creating Layer ip3
I0428 20:28:26.504343  3351 net.cpp:408] ip3 <- ip2
I0428 20:28:26.504354  3351 net.cpp:382] ip3 -> ip3
I0428 20:28:26.504479  3351 net.cpp:124] Setting up ip3
I0428 20:28:26.504490  3351 net.cpp:131] Top shape: 64 10 (640)
I0428 20:28:26.504497  3351 net.cpp:139] Memory required for data: 18755840
I0428 20:28:26.504511  3351 layer_factory.hpp:77] Creating layer relu3
I0428 20:28:26.504524  3351 net.cpp:86] Creating Layer relu3
I0428 20:28:26.504531  3351 net.cpp:408] relu3 <- ip3
I0428 20:28:26.504539  3351 net.cpp:369] relu3 -> ip3 (in-place)
I0428 20:28:26.504752  3351 net.cpp:124] Setting up relu3
I0428 20:28:26.504765  3351 net.cpp:131] Top shape: 64 10 (640)
I0428 20:28:26.504771  3351 net.cpp:139] Memory required for data: 18758400
I0428 20:28:26.504777  3351 layer_factory.hpp:77] Creating layer loss
I0428 20:28:26.504791  3351 net.cpp:86] Creating Layer loss
I0428 20:28:26.504797  3351 net.cpp:408] loss <- ip3
I0428 20:28:26.504804  3351 net.cpp:408] loss <- label
I0428 20:28:26.504822  3351 net.cpp:382] loss -> loss
I0428 20:28:26.504849  3351 layer_factory.hpp:77] Creating layer loss
…
I0428 20:28:26.505651  3351 solver.cpp:173] Creating test net (#0) specified by net file: ECE595/mnist/train_test/var_everything2/lenet_train_test1505.prototxt
I0428 20:28:26.505691  3351 net.cpp:296] The NetState phase (1) differed from the phase (0) specified by a rule in layer mnist
I0428 20:28:26.505806  3351 net.cpp:53] Initializing net from parameters: 
name: "LeNet"
state {
  phase: TEST
}
layer {
  name: "mnist"
  type: "Data"
  top: "data"
  top: "label"
  include {
    phase: TEST
  }
  transform_param {
    scale: 0.00390625
  }
  data_param {
    source: "examples/mnist/mnist_test_lmdb"
    batch_size: 100
    backend: LMDB
  }
}
layer {
  name: "conv0"
  type: "Convolution"
  bottom: "data"
  top: "conv0"
  param {
    lr_mult: 1
  }
  param {
    lr_mult: 2
  }
  convolution_param {
    num_output: 100
    kernel_size: 5
    stride: 1
    weight_filler {
      type: "xavier"
    }
    bias_filler {
      type: "constant"
    }
  }
}
layer {
  name: "pool0"
  type: "Pooling"
  bottom: "conv0"
  top: "pool0"
  pooling_param {
    pool: MAX
    kernel_size: 2
    stride: 2
  }
}
layer {
  name: "conv1"
  type: "Convolution"
  bottom: "pool0"
  top: "conv1"
  param {
    lr_mult: 1
  }
  param {
    lr_mult: 2
  }
  convolution_param {
    num_output: 5
    kernel_size: 5
    stride: 1
    weight_filler {
      type: "xavier"
    }
    bias_filler {
      type: "constant"
    }
  }
}
layer {
  name: "pool1"
  type: "Pooling"
  bottom: "conv1"
  top: "pool1"
  pooling_param {
    pool: MAX
    kernel_size: 2
    stride: 2
  }
}
layer {
  name: "ip1"
  type: "InnerProduct"
  bottom: "pool1"
  top: "ip1"
  param {
    lr_mult: 1
  }
  param {
    lr_mult: 2
  }
  inner_product_param {
    num_output: 25
    weight_filler {
      type: "xavier"
    }
    bias_filler {
      type: "constant"
    }
  }
}
layer {
  name: "relu1"
  type: "ReLU"
  bottom: "ip1"
  top: "ip1"
}
layer {
  name: "ip2"
  type: "InnerProduct"
  bottom: "ip1"
  top: "ip2"
  param {
    lr_mult: 1
  }
  param {
    lr_mult: 2
  }
  inner_product_param {
    num_output: 10
    weight_filler {
      type: "xavier"
    }
    bias_filler {
      type: "constant"
    }
  }
}
layer {
  name: "relu2"
  type: "ReLU"
  bottom: "ip2"
  top: "ip2"
}
layer {
  name: "ip3"
  type: "InnerProduct"
  bottom: "ip2"
  top: "ip3"
  param {
    lr_mult: 1
  }
  param {
    lr_mult: 2
  }
  inner_product_param {
    num_output: 10
    weight_filler {
      type: "xavier"
    }
    bias_filler {
      type: "constant"
    }
  }
}
layer {
  name: "relu3"
  type: "ReLU"
  bottom: "ip3"
  top: "ip3"
}
layer {
  name: "accuracy"
  type: "Accuracy"
  bottom: "ip3"
  bottom: "label"
  top: "accuracy"
  include {
    phase: TEST
  }
}
layer {
  name: "loss"
  type: "SoftmaxWithLoss"
  bottom: "ip3"
  bottom: "label"
  top: "loss"
}
I0428 20:28:26.505946  3351 layer_factory.hpp:77] Creating layer mnist
I0428 20:28:26.506013  3351 db_lmdb.cpp:35] Opened lmdb examples/mnist/mnist_test_lmdb
I0428 20:28:26.506032  3351 net.cpp:86] Creating Layer mnist
I0428 20:28:26.506043  3351 net.cpp:382] mnist -> data
I0428 20:28:26.506057  3351 net.cpp:382] mnist -> label
I0428 20:28:26.506201  3351 data_layer.cpp:45] output data size: 100,1,28,28
I0428 20:28:26.508482  3351 net.cpp:124] Setting up mnist
I0428 20:28:26.508500  3351 net.cpp:131] Top shape: 100 1 28 28 (78400)
I0428 20:28:26.508509  3351 net.cpp:131] Top shape: 100 (100)
I0428 20:28:26.508515  3351 net.cpp:139] Memory required for data: 314000
I0428 20:28:26.508522  3351 layer_factory.hpp:77] Creating layer label_mnist_1_split
I0428 20:28:26.508533  3351 net.cpp:86] Creating Layer label_mnist_1_split
I0428 20:28:26.508540  3351 net.cpp:408] label_mnist_1_split <- label
I0428 20:28:26.508553  3351 net.cpp:382] label_mnist_1_split -> label_mnist_1_split_0
I0428 20:28:26.508565  3351 net.cpp:382] label_mnist_1_split -> label_mnist_1_split_1
I0428 20:28:26.508687  3351 net.cpp:124] Setting up label_mnist_1_split
I0428 20:28:26.508700  3351 net.cpp:131] Top shape: 100 (100)
I0428 20:28:26.508708  3351 net.cpp:131] Top shape: 100 (100)
I0428 20:28:26.508714  3351 net.cpp:139] Memory required for data: 314800
I0428 20:28:26.508721  3351 layer_factory.hpp:77] Creating layer conv0
I0428 20:28:26.508738  3351 net.cpp:86] Creating Layer conv0
I0428 20:28:26.508745  3351 net.cpp:408] conv0 <- data
I0428 20:28:26.508756  3351 net.cpp:382] conv0 -> conv0
I0428 20:28:26.510442  3351 net.cpp:124] Setting up conv0
I0428 20:28:26.510460  3351 net.cpp:131] Top shape: 100 100 24 24 (5760000)
I0428 20:28:26.510468  3351 net.cpp:139] Memory required for data: 23354800
I0428 20:28:26.510483  3351 layer_factory.hpp:77] Creating layer pool0
I0428 20:28:26.510496  3351 net.cpp:86] Creating Layer pool0
I0428 20:28:26.510505  3351 net.cpp:408] pool0 <- conv0
I0428 20:28:26.510514  3351 net.cpp:382] pool0 -> pool0
I0428 20:28:26.510563  3351 net.cpp:124] Setting up pool0
I0428 20:28:26.510573  3351 net.cpp:131] Top shape: 100 100 12 12 (1440000)
I0428 20:28:26.510578  3351 net.cpp:139] Memory required for data: 29114800
I0428 20:28:26.510584  3351 layer_factory.hpp:77] Creating layer conv1
I0428 20:28:26.510603  3351 net.cpp:86] Creating Layer conv1
I0428 20:28:26.510610  3351 net.cpp:408] conv1 <- pool0
I0428 20:28:26.510625  3351 net.cpp:382] conv1 -> conv1
I0428 20:28:26.512383  3351 net.cpp:124] Setting up conv1
I0428 20:28:26.512399  3351 net.cpp:131] Top shape: 100 5 8 8 (32000)
I0428 20:28:26.512406  3351 net.cpp:139] Memory required for data: 29242800
I0428 20:28:26.512423  3351 layer_factory.hpp:77] Creating layer pool1
I0428 20:28:26.512434  3351 net.cpp:86] Creating Layer pool1
I0428 20:28:26.512440  3351 net.cpp:408] pool1 <- conv1
I0428 20:28:26.512452  3351 net.cpp:382] pool1 -> pool1
I0428 20:28:26.512502  3351 net.cpp:124] Setting up pool1
I0428 20:28:26.512512  3351 net.cpp:131] Top shape: 100 5 4 4 (8000)
I0428 20:28:26.512517  3351 net.cpp:139] Memory required for data: 29274800
I0428 20:28:26.512523  3351 layer_factory.hpp:77] Creating layer ip1
I0428 20:28:26.512536  3351 net.cpp:86] Creating Layer ip1
I0428 20:28:26.512543  3351 net.cpp:408] ip1 <- pool1
I0428 20:28:26.512553  3351 net.cpp:382] ip1 -> ip1
I0428 20:28:26.512688  3351 net.cpp:124] Setting up ip1
I0428 20:28:26.512699  3351 net.cpp:131] Top shape: 100 25 (2500)
I0428 20:28:26.512718  3351 net.cpp:139] Memory required for data: 29284800
I0428 20:28:26.512738  3351 layer_factory.hpp:77] Creating layer relu1
I0428 20:28:26.512750  3351 net.cpp:86] Creating Layer relu1
I0428 20:28:26.512758  3351 net.cpp:408] relu1 <- ip1
I0428 20:28:26.512768  3351 net.cpp:369] relu1 -> ip1 (in-place)
I0428 20:28:26.512969  3351 net.cpp:124] Setting up relu1
I0428 20:28:26.512981  3351 net.cpp:131] Top shape: 100 25 (2500)
I0428 20:28:26.512986  3351 net.cpp:139] Memory required for data: 29294800
I0428 20:28:26.512992  3351 layer_factory.hpp:77] Creating layer ip2
I0428 20:28:26.513007  3351 net.cpp:86] Creating Layer ip2
I0428 20:28:26.513013  3351 net.cpp:408] ip2 <- ip1
I0428 20:28:26.513025  3351 net.cpp:382] ip2 -> ip2
I0428 20:28:26.513149  3351 net.cpp:124] Setting up ip2
I0428 20:28:26.513159  3351 net.cpp:131] Top shape: 100 10 (1000)
I0428 20:28:26.513165  3351 net.cpp:139] Memory required for data: 29298800
I0428 20:28:26.513175  3351 layer_factory.hpp:77] Creating layer relu2
I0428 20:28:26.513190  3351 net.cpp:86] Creating Layer relu2
I0428 20:28:26.513197  3351 net.cpp:408] relu2 <- ip2
I0428 20:28:26.513206  3351 net.cpp:369] relu2 -> ip2 (in-place)
I0428 20:28:26.513463  3351 net.cpp:124] Setting up relu2
I0428 20:28:26.513474  3351 net.cpp:131] Top shape: 100 10 (1000)
I0428 20:28:26.513480  3351 net.cpp:139] Memory required for data: 29302800
I0428 20:28:26.513486  3351 layer_factory.hpp:77] Creating layer ip3
I0428 20:28:26.513496  3351 net.cpp:86] Creating Layer ip3
I0428 20:28:26.513502  3351 net.cpp:408] ip3 <- ip2
I0428 20:28:26.513514  3351 net.cpp:382] ip3 -> ip3
I0428 20:28:26.513633  3351 net.cpp:124] Setting up ip3
I0428 20:28:26.513643  3351 net.cpp:131] Top shape: 100 10 (1000)
I0428 20:28:26.513658  3351 net.cpp:139] Memory required for data: 29306800
I0428 20:28:26.513675  3351 layer_factory.hpp:77] Creating layer relu3
I0428 20:28:26.513687  3351 net.cpp:86] Creating Layer relu3
I0428 20:28:26.513695  3351 net.cpp:408] relu3 <- ip3
I0428 20:28:26.513703  3351 net.cpp:369] relu3 -> ip3 (in-place)
I0428 20:28:26.514580  3351 net.cpp:124] Setting up relu3
I0428 20:28:26.514595  3351 net.cpp:131] Top shape: 100 10 (1000)
I0428 20:28:26.514601  3351 net.cpp:139] Memory required for data: 29310800
I0428 20:28:26.514608  3351 layer_factory.hpp:77] Creating layer ip3_relu3_0_split
I0428 20:28:26.514616  3351 net.cpp:86] Creating Layer ip3_relu3_0_split
I0428 20:28:26.514623  3351 net.cpp:408] ip3_relu3_0_split <- ip3
I0428 20:28:26.514634  3351 net.cpp:382] ip3_relu3_0_split -> ip3_relu3_0_split_0
I0428 20:28:26.514645  3351 net.cpp:382] ip3_relu3_0_split -> ip3_relu3_0_split_1
I0428 20:28:26.514696  3351 net.cpp:124] Setting up ip3_relu3_0_split
I0428 20:28:26.514706  3351 net.cpp:131] Top shape: 100 10 (1000)
I0428 20:28:26.514714  3351 net.cpp:131] Top shape: 100 10 (1000)
I0428 20:28:26.514719  3351 net.cpp:139] Memory required for data: 29318800
I0428 20:28:26.514725  3351 layer_factory.hpp:77] Creating layer accuracy
I0428 20:28:26.514735  3351 net.cpp:86] Creating Layer accuracy
I0428 20:28:26.514742  3351 net.cpp:408] accuracy <- ip3_relu3_0_split_0
I0428 20:28:26.514750  3351 net.cpp:408] accuracy <- label_mnist_1_split_0
I0428 20:28:26.514761  3351 net.cpp:382] accuracy -> accuracy
…
