…
I0428 19:57:07.604742 28600 net.cpp:296] The NetState phase (0) differed from the phase (1) specified by a rule in layer mnist
I0428 19:57:07.604760 28600 net.cpp:296] The NetState phase (0) differed from the phase (1) specified by a rule in layer accuracy
I0428 19:57:07.604884 28600 net.cpp:53] Initializing net from parameters: 
name: "LeNet"
state {
  phase: TRAIN
  level: 0
  stage: ""
}
layer {
  name: "mnist"
  type: "Data"
  top: "data"
  top: "label"
  include {
    phase: TRAIN
  }
  transform_param {
    scale: 0.00390625
  }
  data_param {
    source: "examples/mnist/mnist_train_lmdb"
    batch_size: 64
    backend: LMDB
  }
}
layer {
  name: "conv0"
  type: "Convolution"
  bottom: "data"
  top: "conv0"
  param {
    lr_mult: 1
  }
  param {
    lr_mult: 2
  }
  convolution_param {
    num_output: 10
    kernel_size: 5
    stride: 1
    weight_filler {
      type: "xavier"
    }
    bias_filler {
      type: "constant"
    }
  }
}
layer {
  name: "pool0"
  type: "Pooling"
  bottom: "conv0"
  top: "pool0"
  pooling_param {
    pool: MAX
    kernel_size: 2
    stride: 2
  }
}
layer {
  name: "conv1"
  type: "Convolution"
  bottom: "pool0"
  top: "conv1"
  param {
    lr_mult: 1
  }
  param {
    lr_mult: 2
  }
  convolution_param {
    num_output: 2
    kernel_size: 5
    stride: 1
    weight_filler {
      type: "xavier"
    }
    bias_filler {
      type: "constant"
    }
  }
}
layer {
  name: "pool1"
  type: "Pooling"
  bottom: "conv1"
  top: "pool1"
  pooling_param {
    pool: MAX
    kernel_size: 2
    stride: 2
  }
}
layer {
  name: "ip1"
  type: "InnerProduct"
  bottom: "pool1"
  top: "ip1"
  param {
    lr_mult: 1
  }
  param {
    lr_mult: 2
  }
  inner_product_param {
    num_output: 50
    weight_filler {
      type: "xavier"
    }
    bias_filler {
      type: "constant"
    }
  }
}
layer {
  name: "relu1"
  type: "ReLU"
  bottom: "ip1"
  top: "ip1"
}
layer {
  name: "ip2"
  type: "InnerProduct"
  bottom: "ip1"
  top: "ip2"
  param {
    lr_mult: 1
  }
  param {
    lr_mult: 2
  }
  inner_product_param {
    num_output: 50
    weight_filler {
      type: "xavier"
    }
    bias_filler {
      type: "constant"
    }
  }
}
layer {
  name: "relu2"
  type: "ReLU"
  bottom: "ip2"
  top: "ip2"
}
layer {
  name: "ip3"
  type: "InnerProduct"
  bottom: "ip2"
  top: "ip3"
  param {
    lr_mult: 1
  }
  param {
    lr_mult: 2
  }
  inner_product_param {
    num_output: 10
    weight_filler {
      type: "xavier"
    }
    bias_filler {
      type: "constant"
    }
  }
}
layer {
  name: "relu3"
  type: "ReLU"
  bottom: "ip3"
  top: "ip3"
}
layer {
  name: "loss"
  type: "SoftmaxWithLoss"
  bottom: "ip3"
  bottom: "label"
  top: "loss"
}
I0428 19:57:07.604967 28600 layer_factory.hpp:77] Creating layer mnist
I0428 19:57:07.605069 28600 db_lmdb.cpp:35] Opened lmdb examples/mnist/mnist_train_lmdb
I0428 19:57:07.605094 28600 net.cpp:86] Creating Layer mnist
I0428 19:57:07.605103 28600 net.cpp:382] mnist -> data
I0428 19:57:07.605124 28600 net.cpp:382] mnist -> label
I0428 19:57:07.606230 28600 data_layer.cpp:45] output data size: 64,1,28,28
I0428 19:57:07.608678 28600 net.cpp:124] Setting up mnist
I0428 19:57:07.608697 28600 net.cpp:131] Top shape: 64 1 28 28 (50176)
I0428 19:57:07.608705 28600 net.cpp:131] Top shape: 64 (64)
I0428 19:57:07.608707 28600 net.cpp:139] Memory required for data: 200960
I0428 19:57:07.608714 28600 layer_factory.hpp:77] Creating layer conv0
I0428 19:57:07.608731 28600 net.cpp:86] Creating Layer conv0
I0428 19:57:07.608750 28600 net.cpp:408] conv0 <- data
I0428 19:57:07.608763 28600 net.cpp:382] conv0 -> conv0
I0428 19:57:07.873934 28600 net.cpp:124] Setting up conv0
I0428 19:57:07.873965 28600 net.cpp:131] Top shape: 64 10 24 24 (368640)
I0428 19:57:07.873970 28600 net.cpp:139] Memory required for data: 1675520
I0428 19:57:07.874004 28600 layer_factory.hpp:77] Creating layer pool0
I0428 19:57:07.874020 28600 net.cpp:86] Creating Layer pool0
I0428 19:57:07.874027 28600 net.cpp:408] pool0 <- conv0
I0428 19:57:07.874035 28600 net.cpp:382] pool0 -> pool0
I0428 19:57:07.874089 28600 net.cpp:124] Setting up pool0
I0428 19:57:07.874099 28600 net.cpp:131] Top shape: 64 10 12 12 (92160)
I0428 19:57:07.874102 28600 net.cpp:139] Memory required for data: 2044160
I0428 19:57:07.874106 28600 layer_factory.hpp:77] Creating layer conv1
I0428 19:57:07.874120 28600 net.cpp:86] Creating Layer conv1
I0428 19:57:07.874126 28600 net.cpp:408] conv1 <- pool0
I0428 19:57:07.874133 28600 net.cpp:382] conv1 -> conv1
I0428 19:57:07.876660 28600 net.cpp:124] Setting up conv1
I0428 19:57:07.876677 28600 net.cpp:131] Top shape: 64 2 8 8 (8192)
I0428 19:57:07.876698 28600 net.cpp:139] Memory required for data: 2076928
I0428 19:57:07.876710 28600 layer_factory.hpp:77] Creating layer pool1
I0428 19:57:07.876723 28600 net.cpp:86] Creating Layer pool1
I0428 19:57:07.876729 28600 net.cpp:408] pool1 <- conv1
I0428 19:57:07.876735 28600 net.cpp:382] pool1 -> pool1
I0428 19:57:07.876793 28600 net.cpp:124] Setting up pool1
I0428 19:57:07.876802 28600 net.cpp:131] Top shape: 64 2 4 4 (2048)
I0428 19:57:07.876807 28600 net.cpp:139] Memory required for data: 2085120
I0428 19:57:07.876840 28600 layer_factory.hpp:77] Creating layer ip1
I0428 19:57:07.876850 28600 net.cpp:86] Creating Layer ip1
I0428 19:57:07.876858 28600 net.cpp:408] ip1 <- pool1
I0428 19:57:07.876881 28600 net.cpp:382] ip1 -> ip1
I0428 19:57:07.878154 28600 net.cpp:124] Setting up ip1
I0428 19:57:07.878170 28600 net.cpp:131] Top shape: 64 50 (3200)
I0428 19:57:07.878177 28600 net.cpp:139] Memory required for data: 2097920
I0428 19:57:07.878190 28600 layer_factory.hpp:77] Creating layer relu1
I0428 19:57:07.878199 28600 net.cpp:86] Creating Layer relu1
I0428 19:57:07.878206 28600 net.cpp:408] relu1 <- ip1
I0428 19:57:07.878212 28600 net.cpp:369] relu1 -> ip1 (in-place)
I0428 19:57:07.878445 28600 net.cpp:124] Setting up relu1
I0428 19:57:07.878456 28600 net.cpp:131] Top shape: 64 50 (3200)
I0428 19:57:07.878463 28600 net.cpp:139] Memory required for data: 2110720
I0428 19:57:07.878468 28600 layer_factory.hpp:77] Creating layer ip2
I0428 19:57:07.878494 28600 net.cpp:86] Creating Layer ip2
I0428 19:57:07.878499 28600 net.cpp:408] ip2 <- ip1
I0428 19:57:07.878507 28600 net.cpp:382] ip2 -> ip2
I0428 19:57:07.878650 28600 net.cpp:124] Setting up ip2
I0428 19:57:07.878659 28600 net.cpp:131] Top shape: 64 50 (3200)
I0428 19:57:07.878664 28600 net.cpp:139] Memory required for data: 2123520
I0428 19:57:07.878672 28600 layer_factory.hpp:77] Creating layer relu2
I0428 19:57:07.878682 28600 net.cpp:86] Creating Layer relu2
I0428 19:57:07.878689 28600 net.cpp:408] relu2 <- ip2
I0428 19:57:07.878695 28600 net.cpp:369] relu2 -> ip2 (in-place)
I0428 19:57:07.879779 28600 net.cpp:124] Setting up relu2
I0428 19:57:07.879796 28600 net.cpp:131] Top shape: 64 50 (3200)
I0428 19:57:07.879802 28600 net.cpp:139] Memory required for data: 2136320
I0428 19:57:07.879807 28600 layer_factory.hpp:77] Creating layer ip3
I0428 19:57:07.879832 28600 net.cpp:86] Creating Layer ip3
I0428 19:57:07.879839 28600 net.cpp:408] ip3 <- ip2
I0428 19:57:07.879848 28600 net.cpp:382] ip3 -> ip3
I0428 19:57:07.879995 28600 net.cpp:124] Setting up ip3
I0428 19:57:07.880007 28600 net.cpp:131] Top shape: 64 10 (640)
I0428 19:57:07.880012 28600 net.cpp:139] Memory required for data: 2138880
I0428 19:57:07.880024 28600 layer_factory.hpp:77] Creating layer relu3
I0428 19:57:07.880033 28600 net.cpp:86] Creating Layer relu3
I0428 19:57:07.880039 28600 net.cpp:408] relu3 <- ip3
I0428 19:57:07.880046 28600 net.cpp:369] relu3 -> ip3 (in-place)
I0428 19:57:07.880271 28600 net.cpp:124] Setting up relu3
I0428 19:57:07.880282 28600 net.cpp:131] Top shape: 64 10 (640)
I0428 19:57:07.880287 28600 net.cpp:139] Memory required for data: 2141440
I0428 19:57:07.880292 28600 layer_factory.hpp:77] Creating layer loss
I0428 19:57:07.880300 28600 net.cpp:86] Creating Layer loss
I0428 19:57:07.880306 28600 net.cpp:408] loss <- ip3
I0428 19:57:07.880311 28600 net.cpp:408] loss <- label
I0428 19:57:07.880318 28600 net.cpp:382] loss -> loss
I0428 19:57:07.880338 28600 layer_factory.hpp:77] Creating layer loss
…
I0428 19:57:07.881305 28600 solver.cpp:173] Creating test net (#0) specified by net file: ECE595/mnist/train_test/var_everything2/lenet_train_test779.prototxt
I0428 19:57:07.881345 28600 net.cpp:296] The NetState phase (1) differed from the phase (0) specified by a rule in layer mnist
I0428 19:57:07.881482 28600 net.cpp:53] Initializing net from parameters: 
name: "LeNet"
state {
  phase: TEST
}
layer {
  name: "mnist"
  type: "Data"
  top: "data"
  top: "label"
  include {
    phase: TEST
  }
  transform_param {
    scale: 0.00390625
  }
  data_param {
    source: "examples/mnist/mnist_test_lmdb"
    batch_size: 100
    backend: LMDB
  }
}
layer {
  name: "conv0"
  type: "Convolution"
  bottom: "data"
  top: "conv0"
  param {
    lr_mult: 1
  }
  param {
    lr_mult: 2
  }
  convolution_param {
    num_output: 10
    kernel_size: 5
    stride: 1
    weight_filler {
      type: "xavier"
    }
    bias_filler {
      type: "constant"
    }
  }
}
layer {
  name: "pool0"
  type: "Pooling"
  bottom: "conv0"
  top: "pool0"
  pooling_param {
    pool: MAX
    kernel_size: 2
    stride: 2
  }
}
layer {
  name: "conv1"
  type: "Convolution"
  bottom: "pool0"
  top: "conv1"
  param {
    lr_mult: 1
  }
  param {
    lr_mult: 2
  }
  convolution_param {
    num_output: 2
    kernel_size: 5
    stride: 1
    weight_filler {
      type: "xavier"
    }
    bias_filler {
      type: "constant"
    }
  }
}
layer {
  name: "pool1"
  type: "Pooling"
  bottom: "conv1"
  top: "pool1"
  pooling_param {
    pool: MAX
    kernel_size: 2
    stride: 2
  }
}
layer {
  name: "ip1"
  type: "InnerProduct"
  bottom: "pool1"
  top: "ip1"
  param {
    lr_mult: 1
  }
  param {
    lr_mult: 2
  }
  inner_product_param {
    num_output: 50
    weight_filler {
      type: "xavier"
    }
    bias_filler {
      type: "constant"
    }
  }
}
layer {
  name: "relu1"
  type: "ReLU"
  bottom: "ip1"
  top: "ip1"
}
layer {
  name: "ip2"
  type: "InnerProduct"
  bottom: "ip1"
  top: "ip2"
  param {
    lr_mult: 1
  }
  param {
    lr_mult: 2
  }
  inner_product_param {
    num_output: 50
    weight_filler {
      type: "xavier"
    }
    bias_filler {
      type: "constant"
    }
  }
}
layer {
  name: "relu2"
  type: "ReLU"
  bottom: "ip2"
  top: "ip2"
}
layer {
  name: "ip3"
  type: "InnerProduct"
  bottom: "ip2"
  top: "ip3"
  param {
    lr_mult: 1
  }
  param {
    lr_mult: 2
  }
  inner_product_param {
    num_output: 10
    weight_filler {
      type: "xavier"
    }
    bias_filler {
      type: "constant"
    }
  }
}
layer {
  name: "relu3"
  type: "ReLU"
  bottom: "ip3"
  top: "ip3"
}
layer {
  name: "accuracy"
  type: "Accuracy"
  bottom: "ip3"
  bottom: "label"
  top: "accuracy"
  include {
    phase: TEST
  }
}
layer {
  name: "loss"
  type: "SoftmaxWithLoss"
  bottom: "ip3"
  bottom: "label"
  top: "loss"
}
I0428 19:57:07.881603 28600 layer_factory.hpp:77] Creating layer mnist
I0428 19:57:07.881659 28600 db_lmdb.cpp:35] Opened lmdb examples/mnist/mnist_test_lmdb
I0428 19:57:07.881674 28600 net.cpp:86] Creating Layer mnist
I0428 19:57:07.881680 28600 net.cpp:382] mnist -> data
I0428 19:57:07.881690 28600 net.cpp:382] mnist -> label
I0428 19:57:07.881822 28600 data_layer.cpp:45] output data size: 100,1,28,28
I0428 19:57:07.884531 28600 net.cpp:124] Setting up mnist
I0428 19:57:07.884575 28600 net.cpp:131] Top shape: 100 1 28 28 (78400)
I0428 19:57:07.884583 28600 net.cpp:131] Top shape: 100 (100)
I0428 19:57:07.884588 28600 net.cpp:139] Memory required for data: 314000
I0428 19:57:07.884608 28600 layer_factory.hpp:77] Creating layer label_mnist_1_split
I0428 19:57:07.884618 28600 net.cpp:86] Creating Layer label_mnist_1_split
I0428 19:57:07.884624 28600 net.cpp:408] label_mnist_1_split <- label
I0428 19:57:07.884630 28600 net.cpp:382] label_mnist_1_split -> label_mnist_1_split_0
I0428 19:57:07.884640 28600 net.cpp:382] label_mnist_1_split -> label_mnist_1_split_1
I0428 19:57:07.884768 28600 net.cpp:124] Setting up label_mnist_1_split
I0428 19:57:07.884778 28600 net.cpp:131] Top shape: 100 (100)
I0428 19:57:07.884784 28600 net.cpp:131] Top shape: 100 (100)
I0428 19:57:07.884791 28600 net.cpp:139] Memory required for data: 314800
I0428 19:57:07.884796 28600 layer_factory.hpp:77] Creating layer conv0
I0428 19:57:07.884809 28600 net.cpp:86] Creating Layer conv0
I0428 19:57:07.884837 28600 net.cpp:408] conv0 <- data
I0428 19:57:07.884846 28600 net.cpp:382] conv0 -> conv0
I0428 19:57:07.886893 28600 net.cpp:124] Setting up conv0
I0428 19:57:07.886924 28600 net.cpp:131] Top shape: 100 10 24 24 (576000)
I0428 19:57:07.886929 28600 net.cpp:139] Memory required for data: 2618800
I0428 19:57:07.886957 28600 layer_factory.hpp:77] Creating layer pool0
I0428 19:57:07.886967 28600 net.cpp:86] Creating Layer pool0
I0428 19:57:07.886975 28600 net.cpp:408] pool0 <- conv0
I0428 19:57:07.886982 28600 net.cpp:382] pool0 -> pool0
I0428 19:57:07.887027 28600 net.cpp:124] Setting up pool0
I0428 19:57:07.887037 28600 net.cpp:131] Top shape: 100 10 12 12 (144000)
I0428 19:57:07.887042 28600 net.cpp:139] Memory required for data: 3194800
I0428 19:57:07.887048 28600 layer_factory.hpp:77] Creating layer conv1
I0428 19:57:07.887060 28600 net.cpp:86] Creating Layer conv1
I0428 19:57:07.887066 28600 net.cpp:408] conv1 <- pool0
I0428 19:57:07.887073 28600 net.cpp:382] conv1 -> conv1
I0428 19:57:07.889760 28600 net.cpp:124] Setting up conv1
I0428 19:57:07.889776 28600 net.cpp:131] Top shape: 100 2 8 8 (12800)
I0428 19:57:07.889782 28600 net.cpp:139] Memory required for data: 3246000
I0428 19:57:07.889809 28600 layer_factory.hpp:77] Creating layer pool1
I0428 19:57:07.889817 28600 net.cpp:86] Creating Layer pool1
I0428 19:57:07.889823 28600 net.cpp:408] pool1 <- conv1
I0428 19:57:07.889830 28600 net.cpp:382] pool1 -> pool1
I0428 19:57:07.889930 28600 net.cpp:124] Setting up pool1
I0428 19:57:07.889941 28600 net.cpp:131] Top shape: 100 2 4 4 (3200)
I0428 19:57:07.889947 28600 net.cpp:139] Memory required for data: 3258800
I0428 19:57:07.889952 28600 layer_factory.hpp:77] Creating layer ip1
I0428 19:57:07.889961 28600 net.cpp:86] Creating Layer ip1
I0428 19:57:07.889966 28600 net.cpp:408] ip1 <- pool1
I0428 19:57:07.889976 28600 net.cpp:382] ip1 -> ip1
I0428 19:57:07.890116 28600 net.cpp:124] Setting up ip1
I0428 19:57:07.890130 28600 net.cpp:131] Top shape: 100 50 (5000)
I0428 19:57:07.890148 28600 net.cpp:139] Memory required for data: 3278800
I0428 19:57:07.890159 28600 layer_factory.hpp:77] Creating layer relu1
I0428 19:57:07.890166 28600 net.cpp:86] Creating Layer relu1
I0428 19:57:07.890172 28600 net.cpp:408] relu1 <- ip1
I0428 19:57:07.890177 28600 net.cpp:369] relu1 -> ip1 (in-place)
I0428 19:57:07.890404 28600 net.cpp:124] Setting up relu1
I0428 19:57:07.890416 28600 net.cpp:131] Top shape: 100 50 (5000)
I0428 19:57:07.890422 28600 net.cpp:139] Memory required for data: 3298800
I0428 19:57:07.890427 28600 layer_factory.hpp:77] Creating layer ip2
I0428 19:57:07.890437 28600 net.cpp:86] Creating Layer ip2
I0428 19:57:07.890442 28600 net.cpp:408] ip2 <- ip1
I0428 19:57:07.890450 28600 net.cpp:382] ip2 -> ip2
I0428 19:57:07.890592 28600 net.cpp:124] Setting up ip2
I0428 19:57:07.890602 28600 net.cpp:131] Top shape: 100 50 (5000)
I0428 19:57:07.890606 28600 net.cpp:139] Memory required for data: 3318800
I0428 19:57:07.890614 28600 layer_factory.hpp:77] Creating layer relu2
I0428 19:57:07.890621 28600 net.cpp:86] Creating Layer relu2
I0428 19:57:07.890625 28600 net.cpp:408] relu2 <- ip2
I0428 19:57:07.890632 28600 net.cpp:369] relu2 -> ip2 (in-place)
I0428 19:57:07.890961 28600 net.cpp:124] Setting up relu2
I0428 19:57:07.890974 28600 net.cpp:131] Top shape: 100 50 (5000)
I0428 19:57:07.890995 28600 net.cpp:139] Memory required for data: 3338800
I0428 19:57:07.891000 28600 layer_factory.hpp:77] Creating layer ip3
I0428 19:57:07.891012 28600 net.cpp:86] Creating Layer ip3
I0428 19:57:07.891017 28600 net.cpp:408] ip3 <- ip2
I0428 19:57:07.891041 28600 net.cpp:382] ip3 -> ip3
I0428 19:57:07.891171 28600 net.cpp:124] Setting up ip3
I0428 19:57:07.891181 28600 net.cpp:131] Top shape: 100 10 (1000)
I0428 19:57:07.891186 28600 net.cpp:139] Memory required for data: 3342800
I0428 19:57:07.891198 28600 layer_factory.hpp:77] Creating layer relu3
I0428 19:57:07.891206 28600 net.cpp:86] Creating Layer relu3
I0428 19:57:07.891216 28600 net.cpp:408] relu3 <- ip3
I0428 19:57:07.891245 28600 net.cpp:369] relu3 -> ip3 (in-place)
I0428 19:57:07.892345 28600 net.cpp:124] Setting up relu3
I0428 19:57:07.892374 28600 net.cpp:131] Top shape: 100 10 (1000)
I0428 19:57:07.892379 28600 net.cpp:139] Memory required for data: 3346800
I0428 19:57:07.892385 28600 layer_factory.hpp:77] Creating layer ip3_relu3_0_split
I0428 19:57:07.892391 28600 net.cpp:86] Creating Layer ip3_relu3_0_split
I0428 19:57:07.892396 28600 net.cpp:408] ip3_relu3_0_split <- ip3
I0428 19:57:07.892405 28600 net.cpp:382] ip3_relu3_0_split -> ip3_relu3_0_split_0
I0428 19:57:07.892413 28600 net.cpp:382] ip3_relu3_0_split -> ip3_relu3_0_split_1
I0428 19:57:07.892462 28600 net.cpp:124] Setting up ip3_relu3_0_split
I0428 19:57:07.892469 28600 net.cpp:131] Top shape: 100 10 (1000)
I0428 19:57:07.892475 28600 net.cpp:131] Top shape: 100 10 (1000)
I0428 19:57:07.892480 28600 net.cpp:139] Memory required for data: 3354800
I0428 19:57:07.892496 28600 layer_factory.hpp:77] Creating layer accuracy
I0428 19:57:07.892504 28600 net.cpp:86] Creating Layer accuracy
I0428 19:57:07.892509 28600 net.cpp:408] accuracy <- ip3_relu3_0_split_0
I0428 19:57:07.892515 28600 net.cpp:408] accuracy <- label_mnist_1_split_0
I0428 19:57:07.892524 28600 net.cpp:382] accuracy -> accuracy
…
