…
I0428 19:43:12.835460 25290 net.cpp:296] The NetState phase (0) differed from the phase (1) specified by a rule in layer mnist
I0428 19:43:12.835479 25290 net.cpp:296] The NetState phase (0) differed from the phase (1) specified by a rule in layer accuracy
I0428 19:43:12.835562 25290 net.cpp:53] Initializing net from parameters: 
name: "LeNet"
state {
  phase: TRAIN
  level: 0
  stage: ""
}
layer {
  name: "mnist"
  type: "Data"
  top: "data"
  top: "label"
  include {
    phase: TRAIN
  }
  transform_param {
    scale: 0.00390625
  }
  data_param {
    source: "examples/mnist/mnist_train_lmdb"
    batch_size: 64
    backend: LMDB
  }
}
layer {
  name: "conv0"
  type: "Convolution"
  bottom: "data"
  top: "conv0"
  param {
    lr_mult: 1
  }
  param {
    lr_mult: 2
  }
  convolution_param {
    num_output: 2
    kernel_size: 5
    stride: 1
    weight_filler {
      type: "xavier"
    }
    bias_filler {
      type: "constant"
    }
  }
}
layer {
  name: "pool0"
  type: "Pooling"
  bottom: "conv0"
  top: "pool0"
  pooling_param {
    pool: MAX
    kernel_size: 2
    stride: 2
  }
}
layer {
  name: "conv1"
  type: "Convolution"
  bottom: "pool0"
  top: "conv1"
  param {
    lr_mult: 1
  }
  param {
    lr_mult: 2
  }
  convolution_param {
    num_output: 25
    kernel_size: 5
    stride: 1
    weight_filler {
      type: "xavier"
    }
    bias_filler {
      type: "constant"
    }
  }
}
layer {
  name: "pool1"
  type: "Pooling"
  bottom: "conv1"
  top: "pool1"
  pooling_param {
    pool: MAX
    kernel_size: 2
    stride: 2
  }
}
layer {
  name: "ip1"
  type: "InnerProduct"
  bottom: "pool1"
  top: "ip1"
  param {
    lr_mult: 1
  }
  param {
    lr_mult: 2
  }
  inner_product_param {
    num_output: 25
    weight_filler {
      type: "xavier"
    }
    bias_filler {
      type: "constant"
    }
  }
}
layer {
  name: "relu1"
  type: "ReLU"
  bottom: "ip1"
  top: "ip1"
}
layer {
  name: "ip2"
  type: "InnerProduct"
  bottom: "ip1"
  top: "ip2"
  param {
    lr_mult: 1
  }
  param {
    lr_mult: 2
  }
  inner_product_param {
    num_output: 25
    weight_filler {
      type: "xavier"
    }
    bias_filler {
      type: "constant"
    }
  }
}
layer {
  name: "relu2"
  type: "ReLU"
  bottom: "ip2"
  top: "ip2"
}
layer {
  name: "ip3"
  type: "InnerProduct"
  bottom: "ip2"
  top: "ip3"
  param {
    lr_mult: 1
  }
  param {
    lr_mult: 2
  }
  inner_product_param {
    num_output: 10
    weight_filler {
      type: "xavier"
    }
    bias_filler {
      type: "constant"
    }
  }
}
layer {
  name: "relu3"
  type: "ReLU"
  bottom: "ip3"
  top: "ip3"
}
layer {
  name: "loss"
  type: "SoftmaxWithLoss"
  bottom: "ip3"
  bottom: "label"
  top: "loss"
}
I0428 19:43:12.835657 25290 layer_factory.hpp:77] Creating layer mnist
I0428 19:43:12.835762 25290 db_lmdb.cpp:35] Opened lmdb examples/mnist/mnist_train_lmdb
I0428 19:43:12.835788 25290 net.cpp:86] Creating Layer mnist
I0428 19:43:12.835798 25290 net.cpp:382] mnist -> data
I0428 19:43:12.835821 25290 net.cpp:382] mnist -> label
I0428 19:43:12.836954 25290 data_layer.cpp:45] output data size: 64,1,28,28
I0428 19:43:12.839125 25290 net.cpp:124] Setting up mnist
I0428 19:43:12.839157 25290 net.cpp:131] Top shape: 64 1 28 28 (50176)
I0428 19:43:12.839179 25290 net.cpp:131] Top shape: 64 (64)
I0428 19:43:12.839184 25290 net.cpp:139] Memory required for data: 200960
I0428 19:43:12.839193 25290 layer_factory.hpp:77] Creating layer conv0
I0428 19:43:12.839210 25290 net.cpp:86] Creating Layer conv0
I0428 19:43:12.839231 25290 net.cpp:408] conv0 <- data
I0428 19:43:12.839246 25290 net.cpp:382] conv0 -> conv0
I0428 19:43:13.066828 25290 net.cpp:124] Setting up conv0
I0428 19:43:13.066859 25290 net.cpp:131] Top shape: 64 2 24 24 (73728)
I0428 19:43:13.066865 25290 net.cpp:139] Memory required for data: 495872
I0428 19:43:13.066884 25290 layer_factory.hpp:77] Creating layer pool0
I0428 19:43:13.066900 25290 net.cpp:86] Creating Layer pool0
I0428 19:43:13.066915 25290 net.cpp:408] pool0 <- conv0
I0428 19:43:13.066922 25290 net.cpp:382] pool0 -> pool0
I0428 19:43:13.066977 25290 net.cpp:124] Setting up pool0
I0428 19:43:13.066984 25290 net.cpp:131] Top shape: 64 2 12 12 (18432)
I0428 19:43:13.066989 25290 net.cpp:139] Memory required for data: 569600
I0428 19:43:13.066994 25290 layer_factory.hpp:77] Creating layer conv1
I0428 19:43:13.067008 25290 net.cpp:86] Creating Layer conv1
I0428 19:43:13.067015 25290 net.cpp:408] conv1 <- pool0
I0428 19:43:13.067023 25290 net.cpp:382] conv1 -> conv1
I0428 19:43:13.069787 25290 net.cpp:124] Setting up conv1
I0428 19:43:13.069802 25290 net.cpp:131] Top shape: 64 25 8 8 (102400)
I0428 19:43:13.069808 25290 net.cpp:139] Memory required for data: 979200
I0428 19:43:13.069838 25290 layer_factory.hpp:77] Creating layer pool1
I0428 19:43:13.069849 25290 net.cpp:86] Creating Layer pool1
I0428 19:43:13.069854 25290 net.cpp:408] pool1 <- conv1
I0428 19:43:13.069862 25290 net.cpp:382] pool1 -> pool1
I0428 19:43:13.069905 25290 net.cpp:124] Setting up pool1
I0428 19:43:13.069913 25290 net.cpp:131] Top shape: 64 25 4 4 (25600)
I0428 19:43:13.069918 25290 net.cpp:139] Memory required for data: 1081600
I0428 19:43:13.069924 25290 layer_factory.hpp:77] Creating layer ip1
I0428 19:43:13.069939 25290 net.cpp:86] Creating Layer ip1
I0428 19:43:13.069947 25290 net.cpp:408] ip1 <- pool1
I0428 19:43:13.069955 25290 net.cpp:382] ip1 -> ip1
I0428 19:43:13.070920 25290 net.cpp:124] Setting up ip1
I0428 19:43:13.070935 25290 net.cpp:131] Top shape: 64 25 (1600)
I0428 19:43:13.070940 25290 net.cpp:139] Memory required for data: 1088000
I0428 19:43:13.070953 25290 layer_factory.hpp:77] Creating layer relu1
I0428 19:43:13.070963 25290 net.cpp:86] Creating Layer relu1
I0428 19:43:13.070976 25290 net.cpp:408] relu1 <- ip1
I0428 19:43:13.070983 25290 net.cpp:369] relu1 -> ip1 (in-place)
I0428 19:43:13.071171 25290 net.cpp:124] Setting up relu1
I0428 19:43:13.071180 25290 net.cpp:131] Top shape: 64 25 (1600)
I0428 19:43:13.071185 25290 net.cpp:139] Memory required for data: 1094400
I0428 19:43:13.071190 25290 layer_factory.hpp:77] Creating layer ip2
I0428 19:43:13.071200 25290 net.cpp:86] Creating Layer ip2
I0428 19:43:13.071205 25290 net.cpp:408] ip2 <- ip1
I0428 19:43:13.071213 25290 net.cpp:382] ip2 -> ip2
I0428 19:43:13.071315 25290 net.cpp:124] Setting up ip2
I0428 19:43:13.071323 25290 net.cpp:131] Top shape: 64 25 (1600)
I0428 19:43:13.071328 25290 net.cpp:139] Memory required for data: 1100800
I0428 19:43:13.071337 25290 layer_factory.hpp:77] Creating layer relu2
I0428 19:43:13.071346 25290 net.cpp:86] Creating Layer relu2
I0428 19:43:13.071354 25290 net.cpp:408] relu2 <- ip2
I0428 19:43:13.071362 25290 net.cpp:369] relu2 -> ip2 (in-place)
I0428 19:43:13.072103 25290 net.cpp:124] Setting up relu2
I0428 19:43:13.072115 25290 net.cpp:131] Top shape: 64 25 (1600)
I0428 19:43:13.072121 25290 net.cpp:139] Memory required for data: 1107200
I0428 19:43:13.072127 25290 layer_factory.hpp:77] Creating layer ip3
I0428 19:43:13.072137 25290 net.cpp:86] Creating Layer ip3
I0428 19:43:13.072144 25290 net.cpp:408] ip3 <- ip2
I0428 19:43:13.072151 25290 net.cpp:382] ip3 -> ip3
I0428 19:43:13.072301 25290 net.cpp:124] Setting up ip3
I0428 19:43:13.072310 25290 net.cpp:131] Top shape: 64 10 (640)
I0428 19:43:13.072315 25290 net.cpp:139] Memory required for data: 1109760
I0428 19:43:13.072327 25290 layer_factory.hpp:77] Creating layer relu3
I0428 19:43:13.072336 25290 net.cpp:86] Creating Layer relu3
I0428 19:43:13.072342 25290 net.cpp:408] relu3 <- ip3
I0428 19:43:13.072350 25290 net.cpp:369] relu3 -> ip3 (in-place)
I0428 19:43:13.072525 25290 net.cpp:124] Setting up relu3
I0428 19:43:13.072533 25290 net.cpp:131] Top shape: 64 10 (640)
I0428 19:43:13.072538 25290 net.cpp:139] Memory required for data: 1112320
I0428 19:43:13.072543 25290 layer_factory.hpp:77] Creating layer loss
I0428 19:43:13.072552 25290 net.cpp:86] Creating Layer loss
I0428 19:43:13.072557 25290 net.cpp:408] loss <- ip3
I0428 19:43:13.072563 25290 net.cpp:408] loss <- label
I0428 19:43:13.072571 25290 net.cpp:382] loss -> loss
I0428 19:43:13.072592 25290 layer_factory.hpp:77] Creating layer loss
…
I0428 19:43:13.073377 25290 solver.cpp:173] Creating test net (#0) specified by net file: ECE595/mnist/train_test/var_everything2/lenet_train_test415.prototxt
I0428 19:43:13.073410 25290 net.cpp:296] The NetState phase (1) differed from the phase (0) specified by a rule in layer mnist
I0428 19:43:13.073504 25290 net.cpp:53] Initializing net from parameters: 
name: "LeNet"
state {
  phase: TEST
}
layer {
  name: "mnist"
  type: "Data"
  top: "data"
  top: "label"
  include {
    phase: TEST
  }
  transform_param {
    scale: 0.00390625
  }
  data_param {
    source: "examples/mnist/mnist_test_lmdb"
    batch_size: 100
    backend: LMDB
  }
}
layer {
  name: "conv0"
  type: "Convolution"
  bottom: "data"
  top: "conv0"
  param {
    lr_mult: 1
  }
  param {
    lr_mult: 2
  }
  convolution_param {
    num_output: 2
    kernel_size: 5
    stride: 1
    weight_filler {
      type: "xavier"
    }
    bias_filler {
      type: "constant"
    }
  }
}
layer {
  name: "pool0"
  type: "Pooling"
  bottom: "conv0"
  top: "pool0"
  pooling_param {
    pool: MAX
    kernel_size: 2
    stride: 2
  }
}
layer {
  name: "conv1"
  type: "Convolution"
  bottom: "pool0"
  top: "conv1"
  param {
    lr_mult: 1
  }
  param {
    lr_mult: 2
  }
  convolution_param {
    num_output: 25
    kernel_size: 5
    stride: 1
    weight_filler {
      type: "xavier"
    }
    bias_filler {
      type: "constant"
    }
  }
}
layer {
  name: "pool1"
  type: "Pooling"
  bottom: "conv1"
  top: "pool1"
  pooling_param {
    pool: MAX
    kernel_size: 2
    stride: 2
  }
}
layer {
  name: "ip1"
  type: "InnerProduct"
  bottom: "pool1"
  top: "ip1"
  param {
    lr_mult: 1
  }
  param {
    lr_mult: 2
  }
  inner_product_param {
    num_output: 25
    weight_filler {
      type: "xavier"
    }
    bias_filler {
      type: "constant"
    }
  }
}
layer {
  name: "relu1"
  type: "ReLU"
  bottom: "ip1"
  top: "ip1"
}
layer {
  name: "ip2"
  type: "InnerProduct"
  bottom: "ip1"
  top: "ip2"
  param {
    lr_mult: 1
  }
  param {
    lr_mult: 2
  }
  inner_product_param {
    num_output: 25
    weight_filler {
      type: "xavier"
    }
    bias_filler {
      type: "constant"
    }
  }
}
layer {
  name: "relu2"
  type: "ReLU"
  bottom: "ip2"
  top: "ip2"
}
layer {
  name: "ip3"
  type: "InnerProduct"
  bottom: "ip2"
  top: "ip3"
  param {
    lr_mult: 1
  }
  param {
    lr_mult: 2
  }
  inner_product_param {
    num_output: 10
    weight_filler {
      type: "xavier"
    }
    bias_filler {
      type: "constant"
    }
  }
}
layer {
  name: "relu3"
  type: "ReLU"
  bottom: "ip3"
  top: "ip3"
}
layer {
  name: "accuracy"
  type: "Accuracy"
  bottom: "ip3"
  bottom: "label"
  top: "accuracy"
  include {
    phase: TEST
  }
}
layer {
  name: "loss"
  type: "SoftmaxWithLoss"
  bottom: "ip3"
  bottom: "label"
  top: "loss"
}
I0428 19:43:13.073614 25290 layer_factory.hpp:77] Creating layer mnist
I0428 19:43:13.073671 25290 db_lmdb.cpp:35] Opened lmdb examples/mnist/mnist_test_lmdb
I0428 19:43:13.073688 25290 net.cpp:86] Creating Layer mnist
I0428 19:43:13.073696 25290 net.cpp:382] mnist -> data
I0428 19:43:13.073707 25290 net.cpp:382] mnist -> label
I0428 19:43:13.073823 25290 data_layer.cpp:45] output data size: 100,1,28,28
I0428 19:43:13.075865 25290 net.cpp:124] Setting up mnist
I0428 19:43:13.075896 25290 net.cpp:131] Top shape: 100 1 28 28 (78400)
I0428 19:43:13.075903 25290 net.cpp:131] Top shape: 100 (100)
I0428 19:43:13.075923 25290 net.cpp:139] Memory required for data: 314000
I0428 19:43:13.075928 25290 layer_factory.hpp:77] Creating layer label_mnist_1_split
I0428 19:43:13.075951 25290 net.cpp:86] Creating Layer label_mnist_1_split
I0428 19:43:13.075958 25290 net.cpp:408] label_mnist_1_split <- label
I0428 19:43:13.075964 25290 net.cpp:382] label_mnist_1_split -> label_mnist_1_split_0
I0428 19:43:13.075975 25290 net.cpp:382] label_mnist_1_split -> label_mnist_1_split_1
I0428 19:43:13.076047 25290 net.cpp:124] Setting up label_mnist_1_split
I0428 19:43:13.076056 25290 net.cpp:131] Top shape: 100 (100)
I0428 19:43:13.076061 25290 net.cpp:131] Top shape: 100 (100)
I0428 19:43:13.076066 25290 net.cpp:139] Memory required for data: 314800
I0428 19:43:13.076071 25290 layer_factory.hpp:77] Creating layer conv0
I0428 19:43:13.076083 25290 net.cpp:86] Creating Layer conv0
I0428 19:43:13.076089 25290 net.cpp:408] conv0 <- data
I0428 19:43:13.076098 25290 net.cpp:382] conv0 -> conv0
I0428 19:43:13.077674 25290 net.cpp:124] Setting up conv0
I0428 19:43:13.077690 25290 net.cpp:131] Top shape: 100 2 24 24 (115200)
I0428 19:43:13.077697 25290 net.cpp:139] Memory required for data: 775600
I0428 19:43:13.077741 25290 layer_factory.hpp:77] Creating layer pool0
I0428 19:43:13.077751 25290 net.cpp:86] Creating Layer pool0
I0428 19:43:13.077757 25290 net.cpp:408] pool0 <- conv0
I0428 19:43:13.077765 25290 net.cpp:382] pool0 -> pool0
I0428 19:43:13.077819 25290 net.cpp:124] Setting up pool0
I0428 19:43:13.077828 25290 net.cpp:131] Top shape: 100 2 12 12 (28800)
I0428 19:43:13.077833 25290 net.cpp:139] Memory required for data: 890800
I0428 19:43:13.077838 25290 layer_factory.hpp:77] Creating layer conv1
I0428 19:43:13.077852 25290 net.cpp:86] Creating Layer conv1
I0428 19:43:13.077858 25290 net.cpp:408] conv1 <- pool0
I0428 19:43:13.077867 25290 net.cpp:382] conv1 -> conv1
I0428 19:43:13.079409 25290 net.cpp:124] Setting up conv1
I0428 19:43:13.079424 25290 net.cpp:131] Top shape: 100 25 8 8 (160000)
I0428 19:43:13.079430 25290 net.cpp:139] Memory required for data: 1530800
I0428 19:43:13.079442 25290 layer_factory.hpp:77] Creating layer pool1
I0428 19:43:13.079452 25290 net.cpp:86] Creating Layer pool1
I0428 19:43:13.079458 25290 net.cpp:408] pool1 <- conv1
I0428 19:43:13.079466 25290 net.cpp:382] pool1 -> pool1
I0428 19:43:13.079509 25290 net.cpp:124] Setting up pool1
I0428 19:43:13.079517 25290 net.cpp:131] Top shape: 100 25 4 4 (40000)
I0428 19:43:13.079522 25290 net.cpp:139] Memory required for data: 1690800
I0428 19:43:13.079529 25290 layer_factory.hpp:77] Creating layer ip1
I0428 19:43:13.079545 25290 net.cpp:86] Creating Layer ip1
I0428 19:43:13.079551 25290 net.cpp:408] ip1 <- pool1
I0428 19:43:13.079560 25290 net.cpp:382] ip1 -> ip1
I0428 19:43:13.079793 25290 net.cpp:124] Setting up ip1
I0428 19:43:13.079803 25290 net.cpp:131] Top shape: 100 25 (2500)
I0428 19:43:13.079823 25290 net.cpp:139] Memory required for data: 1700800
I0428 19:43:13.079838 25290 layer_factory.hpp:77] Creating layer relu1
I0428 19:43:13.079848 25290 net.cpp:86] Creating Layer relu1
I0428 19:43:13.079854 25290 net.cpp:408] relu1 <- ip1
I0428 19:43:13.079861 25290 net.cpp:369] relu1 -> ip1 (in-place)
I0428 19:43:13.080068 25290 net.cpp:124] Setting up relu1
I0428 19:43:13.080078 25290 net.cpp:131] Top shape: 100 25 (2500)
I0428 19:43:13.080085 25290 net.cpp:139] Memory required for data: 1710800
I0428 19:43:13.080090 25290 layer_factory.hpp:77] Creating layer ip2
I0428 19:43:13.080102 25290 net.cpp:86] Creating Layer ip2
I0428 19:43:13.080109 25290 net.cpp:408] ip2 <- ip1
I0428 19:43:13.080119 25290 net.cpp:382] ip2 -> ip2
I0428 19:43:13.080260 25290 net.cpp:124] Setting up ip2
I0428 19:43:13.080267 25290 net.cpp:131] Top shape: 100 25 (2500)
I0428 19:43:13.080272 25290 net.cpp:139] Memory required for data: 1720800
I0428 19:43:13.080281 25290 layer_factory.hpp:77] Creating layer relu2
I0428 19:43:13.080288 25290 net.cpp:86] Creating Layer relu2
I0428 19:43:13.080293 25290 net.cpp:408] relu2 <- ip2
I0428 19:43:13.080301 25290 net.cpp:369] relu2 -> ip2 (in-place)
I0428 19:43:13.080514 25290 net.cpp:124] Setting up relu2
I0428 19:43:13.080524 25290 net.cpp:131] Top shape: 100 25 (2500)
I0428 19:43:13.080529 25290 net.cpp:139] Memory required for data: 1730800
I0428 19:43:13.080534 25290 layer_factory.hpp:77] Creating layer ip3
I0428 19:43:13.080543 25290 net.cpp:86] Creating Layer ip3
I0428 19:43:13.080549 25290 net.cpp:408] ip3 <- ip2
I0428 19:43:13.080559 25290 net.cpp:382] ip3 -> ip3
I0428 19:43:13.080670 25290 net.cpp:124] Setting up ip3
I0428 19:43:13.080679 25290 net.cpp:131] Top shape: 100 10 (1000)
I0428 19:43:13.080684 25290 net.cpp:139] Memory required for data: 1734800
I0428 19:43:13.080696 25290 layer_factory.hpp:77] Creating layer relu3
I0428 19:43:13.080739 25290 net.cpp:86] Creating Layer relu3
I0428 19:43:13.080744 25290 net.cpp:408] relu3 <- ip3
I0428 19:43:13.080767 25290 net.cpp:369] relu3 -> ip3 (in-place)
I0428 19:43:13.081624 25290 net.cpp:124] Setting up relu3
I0428 19:43:13.081637 25290 net.cpp:131] Top shape: 100 10 (1000)
I0428 19:43:13.081642 25290 net.cpp:139] Memory required for data: 1738800
I0428 19:43:13.081647 25290 layer_factory.hpp:77] Creating layer ip3_relu3_0_split
I0428 19:43:13.081655 25290 net.cpp:86] Creating Layer ip3_relu3_0_split
I0428 19:43:13.081660 25290 net.cpp:408] ip3_relu3_0_split <- ip3
I0428 19:43:13.081670 25290 net.cpp:382] ip3_relu3_0_split -> ip3_relu3_0_split_0
I0428 19:43:13.081679 25290 net.cpp:382] ip3_relu3_0_split -> ip3_relu3_0_split_1
I0428 19:43:13.081761 25290 net.cpp:124] Setting up ip3_relu3_0_split
I0428 19:43:13.081770 25290 net.cpp:131] Top shape: 100 10 (1000)
I0428 19:43:13.081776 25290 net.cpp:131] Top shape: 100 10 (1000)
I0428 19:43:13.081781 25290 net.cpp:139] Memory required for data: 1746800
I0428 19:43:13.081789 25290 layer_factory.hpp:77] Creating layer accuracy
I0428 19:43:13.081795 25290 net.cpp:86] Creating Layer accuracy
I0428 19:43:13.081800 25290 net.cpp:408] accuracy <- ip3_relu3_0_split_0
I0428 19:43:13.081825 25290 net.cpp:408] accuracy <- label_mnist_1_split_0
I0428 19:43:13.081835 25290 net.cpp:382] accuracy -> accuracy
…
