…
I0428 20:02:52.718250 30070 net.cpp:296] The NetState phase (0) differed from the phase (1) specified by a rule in layer mnist
I0428 20:02:52.718266 30070 net.cpp:296] The NetState phase (0) differed from the phase (1) specified by a rule in layer accuracy
I0428 20:02:52.718359 30070 net.cpp:53] Initializing net from parameters: 
name: "LeNet"
state {
  phase: TRAIN
  level: 0
  stage: ""
}
layer {
  name: "mnist"
  type: "Data"
  top: "data"
  top: "label"
  include {
    phase: TRAIN
  }
  transform_param {
    scale: 0.00390625
  }
  data_param {
    source: "examples/mnist/mnist_train_lmdb"
    batch_size: 64
    backend: LMDB
  }
}
layer {
  name: "conv0"
  type: "Convolution"
  bottom: "data"
  top: "conv0"
  param {
    lr_mult: 1
  }
  param {
    lr_mult: 2
  }
  convolution_param {
    num_output: 10
    kernel_size: 5
    stride: 1
    weight_filler {
      type: "xavier"
    }
    bias_filler {
      type: "constant"
    }
  }
}
layer {
  name: "pool0"
  type: "Pooling"
  bottom: "conv0"
  top: "pool0"
  pooling_param {
    pool: MAX
    kernel_size: 2
    stride: 2
  }
}
layer {
  name: "conv1"
  type: "Convolution"
  bottom: "pool0"
  top: "conv1"
  param {
    lr_mult: 1
  }
  param {
    lr_mult: 2
  }
  convolution_param {
    num_output: 100
    kernel_size: 5
    stride: 1
    weight_filler {
      type: "xavier"
    }
    bias_filler {
      type: "constant"
    }
  }
}
layer {
  name: "pool1"
  type: "Pooling"
  bottom: "conv1"
  top: "pool1"
  pooling_param {
    pool: MAX
    kernel_size: 2
    stride: 2
  }
}
layer {
  name: "ip1"
  type: "InnerProduct"
  bottom: "pool1"
  top: "ip1"
  param {
    lr_mult: 1
  }
  param {
    lr_mult: 2
  }
  inner_product_param {
    num_output: 10
    weight_filler {
      type: "xavier"
    }
    bias_filler {
      type: "constant"
    }
  }
}
layer {
  name: "relu1"
  type: "ReLU"
  bottom: "ip1"
  top: "ip1"
}
layer {
  name: "ip2"
  type: "InnerProduct"
  bottom: "ip1"
  top: "ip2"
  param {
    lr_mult: 1
  }
  param {
    lr_mult: 2
  }
  inner_product_param {
    num_output: 10
    weight_filler {
      type: "xavier"
    }
    bias_filler {
      type: "constant"
    }
  }
}
layer {
  name: "relu2"
  type: "ReLU"
  bottom: "ip2"
  top: "ip2"
}
layer {
  name: "loss"
  type: "SoftmaxWithLoss"
  bottom: "ip2"
  bottom: "label"
  top: "loss"
}
I0428 20:02:52.718436 30070 layer_factory.hpp:77] Creating layer mnist
I0428 20:02:52.718535 30070 db_lmdb.cpp:35] Opened lmdb examples/mnist/mnist_train_lmdb
I0428 20:02:52.718560 30070 net.cpp:86] Creating Layer mnist
I0428 20:02:52.718569 30070 net.cpp:382] mnist -> data
I0428 20:02:52.718591 30070 net.cpp:382] mnist -> label
I0428 20:02:52.719696 30070 data_layer.cpp:45] output data size: 64,1,28,28
I0428 20:02:52.722196 30070 net.cpp:124] Setting up mnist
I0428 20:02:52.722216 30070 net.cpp:131] Top shape: 64 1 28 28 (50176)
I0428 20:02:52.722223 30070 net.cpp:131] Top shape: 64 (64)
I0428 20:02:52.722226 30070 net.cpp:139] Memory required for data: 200960
I0428 20:02:52.722234 30070 layer_factory.hpp:77] Creating layer conv0
I0428 20:02:52.722249 30070 net.cpp:86] Creating Layer conv0
I0428 20:02:52.722255 30070 net.cpp:408] conv0 <- data
I0428 20:02:52.722267 30070 net.cpp:382] conv0 -> conv0
I0428 20:02:53.012666 30070 net.cpp:124] Setting up conv0
I0428 20:02:53.012699 30070 net.cpp:131] Top shape: 64 10 24 24 (368640)
I0428 20:02:53.012706 30070 net.cpp:139] Memory required for data: 1675520
I0428 20:02:53.012744 30070 layer_factory.hpp:77] Creating layer pool0
I0428 20:02:53.012760 30070 net.cpp:86] Creating Layer pool0
I0428 20:02:53.012765 30070 net.cpp:408] pool0 <- conv0
I0428 20:02:53.012773 30070 net.cpp:382] pool0 -> pool0
I0428 20:02:53.012835 30070 net.cpp:124] Setting up pool0
I0428 20:02:53.012843 30070 net.cpp:131] Top shape: 64 10 12 12 (92160)
I0428 20:02:53.012847 30070 net.cpp:139] Memory required for data: 2044160
I0428 20:02:53.012851 30070 layer_factory.hpp:77] Creating layer conv1
I0428 20:02:53.012864 30070 net.cpp:86] Creating Layer conv1
I0428 20:02:53.012868 30070 net.cpp:408] conv1 <- pool0
I0428 20:02:53.012874 30070 net.cpp:382] conv1 -> conv1
I0428 20:02:53.015182 30070 net.cpp:124] Setting up conv1
I0428 20:02:53.015200 30070 net.cpp:131] Top shape: 64 100 8 8 (409600)
I0428 20:02:53.015204 30070 net.cpp:139] Memory required for data: 3682560
I0428 20:02:53.015214 30070 layer_factory.hpp:77] Creating layer pool1
I0428 20:02:53.015223 30070 net.cpp:86] Creating Layer pool1
I0428 20:02:53.015228 30070 net.cpp:408] pool1 <- conv1
I0428 20:02:53.015233 30070 net.cpp:382] pool1 -> pool1
I0428 20:02:53.015277 30070 net.cpp:124] Setting up pool1
I0428 20:02:53.015283 30070 net.cpp:131] Top shape: 64 100 4 4 (102400)
I0428 20:02:53.015287 30070 net.cpp:139] Memory required for data: 4092160
I0428 20:02:53.015290 30070 layer_factory.hpp:77] Creating layer ip1
I0428 20:02:53.015300 30070 net.cpp:86] Creating Layer ip1
I0428 20:02:53.015302 30070 net.cpp:408] ip1 <- pool1
I0428 20:02:53.015308 30070 net.cpp:382] ip1 -> ip1
I0428 20:02:53.016495 30070 net.cpp:124] Setting up ip1
I0428 20:02:53.016510 30070 net.cpp:131] Top shape: 64 10 (640)
I0428 20:02:53.016515 30070 net.cpp:139] Memory required for data: 4094720
I0428 20:02:53.016525 30070 layer_factory.hpp:77] Creating layer relu1
I0428 20:02:53.016531 30070 net.cpp:86] Creating Layer relu1
I0428 20:02:53.016536 30070 net.cpp:408] relu1 <- ip1
I0428 20:02:53.016541 30070 net.cpp:369] relu1 -> ip1 (in-place)
I0428 20:02:53.016744 30070 net.cpp:124] Setting up relu1
I0428 20:02:53.016755 30070 net.cpp:131] Top shape: 64 10 (640)
I0428 20:02:53.016759 30070 net.cpp:139] Memory required for data: 4097280
I0428 20:02:53.016762 30070 layer_factory.hpp:77] Creating layer ip2
I0428 20:02:53.016770 30070 net.cpp:86] Creating Layer ip2
I0428 20:02:53.016774 30070 net.cpp:408] ip2 <- ip1
I0428 20:02:53.016780 30070 net.cpp:382] ip2 -> ip2
I0428 20:02:53.016903 30070 net.cpp:124] Setting up ip2
I0428 20:02:53.016912 30070 net.cpp:131] Top shape: 64 10 (640)
I0428 20:02:53.016916 30070 net.cpp:139] Memory required for data: 4099840
I0428 20:02:53.016923 30070 layer_factory.hpp:77] Creating layer relu2
I0428 20:02:53.016930 30070 net.cpp:86] Creating Layer relu2
I0428 20:02:53.016934 30070 net.cpp:408] relu2 <- ip2
I0428 20:02:53.016939 30070 net.cpp:369] relu2 -> ip2 (in-place)
I0428 20:02:53.017792 30070 net.cpp:124] Setting up relu2
I0428 20:02:53.017807 30070 net.cpp:131] Top shape: 64 10 (640)
I0428 20:02:53.017812 30070 net.cpp:139] Memory required for data: 4102400
I0428 20:02:53.017817 30070 layer_factory.hpp:77] Creating layer loss
I0428 20:02:53.017823 30070 net.cpp:86] Creating Layer loss
I0428 20:02:53.017827 30070 net.cpp:408] loss <- ip2
I0428 20:02:53.017833 30070 net.cpp:408] loss <- label
I0428 20:02:53.017839 30070 net.cpp:382] loss -> loss
I0428 20:02:53.017863 30070 layer_factory.hpp:77] Creating layer loss
…
I0428 20:02:53.018580 30070 solver.cpp:173] Creating test net (#0) specified by net file: ECE595/mnist/train_test/var_everything2/lenet_train_test939.prototxt
I0428 20:02:53.018610 30070 net.cpp:296] The NetState phase (1) differed from the phase (0) specified by a rule in layer mnist
I0428 20:02:53.018708 30070 net.cpp:53] Initializing net from parameters: 
name: "LeNet"
state {
  phase: TEST
}
layer {
  name: "mnist"
  type: "Data"
  top: "data"
  top: "label"
  include {
    phase: TEST
  }
  transform_param {
    scale: 0.00390625
  }
  data_param {
    source: "examples/mnist/mnist_test_lmdb"
    batch_size: 100
    backend: LMDB
  }
}
layer {
  name: "conv0"
  type: "Convolution"
  bottom: "data"
  top: "conv0"
  param {
    lr_mult: 1
  }
  param {
    lr_mult: 2
  }
  convolution_param {
    num_output: 10
    kernel_size: 5
    stride: 1
    weight_filler {
      type: "xavier"
    }
    bias_filler {
      type: "constant"
    }
  }
}
layer {
  name: "pool0"
  type: "Pooling"
  bottom: "conv0"
  top: "pool0"
  pooling_param {
    pool: MAX
    kernel_size: 2
    stride: 2
  }
}
layer {
  name: "conv1"
  type: "Convolution"
  bottom: "pool0"
  top: "conv1"
  param {
    lr_mult: 1
  }
  param {
    lr_mult: 2
  }
  convolution_param {
    num_output: 100
    kernel_size: 5
    stride: 1
    weight_filler {
      type: "xavier"
    }
    bias_filler {
      type: "constant"
    }
  }
}
layer {
  name: "pool1"
  type: "Pooling"
  bottom: "conv1"
  top: "pool1"
  pooling_param {
    pool: MAX
    kernel_size: 2
    stride: 2
  }
}
layer {
  name: "ip1"
  type: "InnerProduct"
  bottom: "pool1"
  top: "ip1"
  param {
    lr_mult: 1
  }
  param {
    lr_mult: 2
  }
  inner_product_param {
    num_output: 10
    weight_filler {
      type: "xavier"
    }
    bias_filler {
      type: "constant"
    }
  }
}
layer {
  name: "relu1"
  type: "ReLU"
  bottom: "ip1"
  top: "ip1"
}
layer {
  name: "ip2"
  type: "InnerProduct"
  bottom: "ip1"
  top: "ip2"
  param {
    lr_mult: 1
  }
  param {
    lr_mult: 2
  }
  inner_product_param {
    num_output: 10
    weight_filler {
      type: "xavier"
    }
    bias_filler {
      type: "constant"
    }
  }
}
layer {
  name: "relu2"
  type: "ReLU"
  bottom: "ip2"
  top: "ip2"
}
layer {
  name: "accuracy"
  type: "Accuracy"
  bottom: "ip2"
  bottom: "label"
  top: "accuracy"
  include {
    phase: TEST
  }
}
layer {
  name: "loss"
  type: "SoftmaxWithLoss"
  bottom: "ip2"
  bottom: "label"
  top: "loss"
}
I0428 20:02:53.018784 30070 layer_factory.hpp:77] Creating layer mnist
I0428 20:02:53.018839 30070 db_lmdb.cpp:35] Opened lmdb examples/mnist/mnist_test_lmdb
I0428 20:02:53.018857 30070 net.cpp:86] Creating Layer mnist
I0428 20:02:53.018862 30070 net.cpp:382] mnist -> data
I0428 20:02:53.018872 30070 net.cpp:382] mnist -> label
I0428 20:02:53.018973 30070 data_layer.cpp:45] output data size: 100,1,28,28
I0428 20:02:53.021160 30070 net.cpp:124] Setting up mnist
I0428 20:02:53.021176 30070 net.cpp:131] Top shape: 100 1 28 28 (78400)
I0428 20:02:53.021183 30070 net.cpp:131] Top shape: 100 (100)
I0428 20:02:53.021186 30070 net.cpp:139] Memory required for data: 314000
I0428 20:02:53.021191 30070 layer_factory.hpp:77] Creating layer label_mnist_1_split
I0428 20:02:53.021199 30070 net.cpp:86] Creating Layer label_mnist_1_split
I0428 20:02:53.021203 30070 net.cpp:408] label_mnist_1_split <- label
I0428 20:02:53.021209 30070 net.cpp:382] label_mnist_1_split -> label_mnist_1_split_0
I0428 20:02:53.021216 30070 net.cpp:382] label_mnist_1_split -> label_mnist_1_split_1
I0428 20:02:53.021281 30070 net.cpp:124] Setting up label_mnist_1_split
I0428 20:02:53.021288 30070 net.cpp:131] Top shape: 100 (100)
I0428 20:02:53.021292 30070 net.cpp:131] Top shape: 100 (100)
I0428 20:02:53.021296 30070 net.cpp:139] Memory required for data: 314800
I0428 20:02:53.021299 30070 layer_factory.hpp:77] Creating layer conv0
I0428 20:02:53.021309 30070 net.cpp:86] Creating Layer conv0
I0428 20:02:53.021313 30070 net.cpp:408] conv0 <- data
I0428 20:02:53.021319 30070 net.cpp:382] conv0 -> conv0
I0428 20:02:53.023011 30070 net.cpp:124] Setting up conv0
I0428 20:02:53.023030 30070 net.cpp:131] Top shape: 100 10 24 24 (576000)
I0428 20:02:53.023035 30070 net.cpp:139] Memory required for data: 2618800
I0428 20:02:53.023046 30070 layer_factory.hpp:77] Creating layer pool0
I0428 20:02:53.023054 30070 net.cpp:86] Creating Layer pool0
I0428 20:02:53.023061 30070 net.cpp:408] pool0 <- conv0
I0428 20:02:53.023067 30070 net.cpp:382] pool0 -> pool0
I0428 20:02:53.023114 30070 net.cpp:124] Setting up pool0
I0428 20:02:53.023120 30070 net.cpp:131] Top shape: 100 10 12 12 (144000)
I0428 20:02:53.023124 30070 net.cpp:139] Memory required for data: 3194800
I0428 20:02:53.023128 30070 layer_factory.hpp:77] Creating layer conv1
I0428 20:02:53.023141 30070 net.cpp:86] Creating Layer conv1
I0428 20:02:53.023149 30070 net.cpp:408] conv1 <- pool0
I0428 20:02:53.023155 30070 net.cpp:382] conv1 -> conv1
I0428 20:02:53.025019 30070 net.cpp:124] Setting up conv1
I0428 20:02:53.025038 30070 net.cpp:131] Top shape: 100 100 8 8 (640000)
I0428 20:02:53.025041 30070 net.cpp:139] Memory required for data: 5754800
I0428 20:02:53.025053 30070 layer_factory.hpp:77] Creating layer pool1
I0428 20:02:53.025061 30070 net.cpp:86] Creating Layer pool1
I0428 20:02:53.025068 30070 net.cpp:408] pool1 <- conv1
I0428 20:02:53.025074 30070 net.cpp:382] pool1 -> pool1
I0428 20:02:53.025125 30070 net.cpp:124] Setting up pool1
I0428 20:02:53.025132 30070 net.cpp:131] Top shape: 100 100 4 4 (160000)
I0428 20:02:53.025135 30070 net.cpp:139] Memory required for data: 6394800
I0428 20:02:53.025146 30070 layer_factory.hpp:77] Creating layer ip1
I0428 20:02:53.025154 30070 net.cpp:86] Creating Layer ip1
I0428 20:02:53.025158 30070 net.cpp:408] ip1 <- pool1
I0428 20:02:53.025163 30070 net.cpp:382] ip1 -> ip1
I0428 20:02:53.025389 30070 net.cpp:124] Setting up ip1
I0428 20:02:53.025399 30070 net.cpp:131] Top shape: 100 10 (1000)
I0428 20:02:53.025403 30070 net.cpp:139] Memory required for data: 6398800
I0428 20:02:53.025411 30070 layer_factory.hpp:77] Creating layer relu1
I0428 20:02:53.025418 30070 net.cpp:86] Creating Layer relu1
I0428 20:02:53.025421 30070 net.cpp:408] relu1 <- ip1
I0428 20:02:53.025427 30070 net.cpp:369] relu1 -> ip1 (in-place)
I0428 20:02:53.025670 30070 net.cpp:124] Setting up relu1
I0428 20:02:53.025687 30070 net.cpp:131] Top shape: 100 10 (1000)
I0428 20:02:53.025691 30070 net.cpp:139] Memory required for data: 6402800
I0428 20:02:53.025694 30070 layer_factory.hpp:77] Creating layer ip2
I0428 20:02:53.025703 30070 net.cpp:86] Creating Layer ip2
I0428 20:02:53.025707 30070 net.cpp:408] ip2 <- ip1
I0428 20:02:53.025713 30070 net.cpp:382] ip2 -> ip2
I0428 20:02:53.025861 30070 net.cpp:124] Setting up ip2
I0428 20:02:53.025869 30070 net.cpp:131] Top shape: 100 10 (1000)
I0428 20:02:53.025873 30070 net.cpp:139] Memory required for data: 6406800
I0428 20:02:53.025879 30070 layer_factory.hpp:77] Creating layer relu2
I0428 20:02:53.025887 30070 net.cpp:86] Creating Layer relu2
I0428 20:02:53.025890 30070 net.cpp:408] relu2 <- ip2
I0428 20:02:53.025895 30070 net.cpp:369] relu2 -> ip2 (in-place)
I0428 20:02:53.026082 30070 net.cpp:124] Setting up relu2
I0428 20:02:53.026090 30070 net.cpp:131] Top shape: 100 10 (1000)
I0428 20:02:53.026094 30070 net.cpp:139] Memory required for data: 6410800
I0428 20:02:53.026098 30070 layer_factory.hpp:77] Creating layer ip2_relu2_0_split
I0428 20:02:53.026105 30070 net.cpp:86] Creating Layer ip2_relu2_0_split
I0428 20:02:53.026109 30070 net.cpp:408] ip2_relu2_0_split <- ip2
I0428 20:02:53.026114 30070 net.cpp:382] ip2_relu2_0_split -> ip2_relu2_0_split_0
I0428 20:02:53.026134 30070 net.cpp:382] ip2_relu2_0_split -> ip2_relu2_0_split_1
I0428 20:02:53.026176 30070 net.cpp:124] Setting up ip2_relu2_0_split
I0428 20:02:53.026185 30070 net.cpp:131] Top shape: 100 10 (1000)
I0428 20:02:53.026188 30070 net.cpp:131] Top shape: 100 10 (1000)
I0428 20:02:53.026196 30070 net.cpp:139] Memory required for data: 6418800
I0428 20:02:53.026198 30070 layer_factory.hpp:77] Creating layer accuracy
I0428 20:02:53.026204 30070 net.cpp:86] Creating Layer accuracy
I0428 20:02:53.026208 30070 net.cpp:408] accuracy <- ip2_relu2_0_split_0
I0428 20:02:53.026212 30070 net.cpp:408] accuracy <- label_mnist_1_split_0
I0428 20:02:53.026219 30070 net.cpp:382] accuracy -> accuracy
…
