…
I0428 19:39:16.797220 24256 net.cpp:296] The NetState phase (0) differed from the phase (1) specified by a rule in layer mnist
I0428 19:39:16.797238 24256 net.cpp:296] The NetState phase (0) differed from the phase (1) specified by a rule in layer accuracy
I0428 19:39:16.797319 24256 net.cpp:53] Initializing net from parameters: 
name: "LeNet"
state {
  phase: TRAIN
  level: 0
  stage: ""
}
layer {
  name: "mnist"
  type: "Data"
  top: "data"
  top: "label"
  include {
    phase: TRAIN
  }
  transform_param {
    scale: 0.00390625
  }
  data_param {
    source: "examples/mnist/mnist_train_lmdb"
    batch_size: 64
    backend: LMDB
  }
}
layer {
  name: "conv0"
  type: "Convolution"
  bottom: "data"
  top: "conv0"
  param {
    lr_mult: 1
  }
  param {
    lr_mult: 2
  }
  convolution_param {
    num_output: 2
    kernel_size: 5
    stride: 1
    weight_filler {
      type: "xavier"
    }
    bias_filler {
      type: "constant"
    }
  }
}
layer {
  name: "pool0"
  type: "Pooling"
  bottom: "conv0"
  top: "pool0"
  pooling_param {
    pool: MAX
    kernel_size: 2
    stride: 2
  }
}
layer {
  name: "conv1"
  type: "Convolution"
  bottom: "pool0"
  top: "conv1"
  param {
    lr_mult: 1
  }
  param {
    lr_mult: 2
  }
  convolution_param {
    num_output: 2
    kernel_size: 5
    stride: 1
    weight_filler {
      type: "xavier"
    }
    bias_filler {
      type: "constant"
    }
  }
}
layer {
  name: "pool1"
  type: "Pooling"
  bottom: "conv1"
  top: "pool1"
  pooling_param {
    pool: MAX
    kernel_size: 2
    stride: 2
  }
}
layer {
  name: "ip1"
  type: "InnerProduct"
  bottom: "pool1"
  top: "ip1"
  param {
    lr_mult: 1
  }
  param {
    lr_mult: 2
  }
  inner_product_param {
    num_output: 25
    weight_filler {
      type: "xavier"
    }
    bias_filler {
      type: "constant"
    }
  }
}
layer {
  name: "relu1"
  type: "ReLU"
  bottom: "ip1"
  top: "ip1"
}
layer {
  name: "ip2"
  type: "InnerProduct"
  bottom: "ip1"
  top: "ip2"
  param {
    lr_mult: 1
  }
  param {
    lr_mult: 2
  }
  inner_product_param {
    num_output: 25
    weight_filler {
      type: "xavier"
    }
    bias_filler {
      type: "constant"
    }
  }
}
layer {
  name: "relu2"
  type: "ReLU"
  bottom: "ip2"
  top: "ip2"
}
layer {
  name: "ip3"
  type: "InnerProduct"
  bottom: "ip2"
  top: "ip3"
  param {
    lr_mult: 1
  }
  param {
    lr_mult: 2
  }
  inner_product_param {
    num_output: 10
    weight_filler {
      type: "xavier"
    }
    bias_filler {
      type: "constant"
    }
  }
}
layer {
  name: "relu3"
  type: "ReLU"
  bottom: "ip3"
  top: "ip3"
}
layer {
  name: "loss"
  type: "SoftmaxWithLoss"
  bottom: "ip3"
  bottom: "label"
  top: "loss"
}
I0428 19:39:16.797401 24256 layer_factory.hpp:77] Creating layer mnist
I0428 19:39:16.797502 24256 db_lmdb.cpp:35] Opened lmdb examples/mnist/mnist_train_lmdb
I0428 19:39:16.797524 24256 net.cpp:86] Creating Layer mnist
I0428 19:39:16.797534 24256 net.cpp:382] mnist -> data
I0428 19:39:16.797554 24256 net.cpp:382] mnist -> label
I0428 19:39:16.798557 24256 data_layer.cpp:45] output data size: 64,1,28,28
I0428 19:39:16.800875 24256 net.cpp:124] Setting up mnist
I0428 19:39:16.800891 24256 net.cpp:131] Top shape: 64 1 28 28 (50176)
I0428 19:39:16.800896 24256 net.cpp:131] Top shape: 64 (64)
I0428 19:39:16.800899 24256 net.cpp:139] Memory required for data: 200960
I0428 19:39:16.800905 24256 layer_factory.hpp:77] Creating layer conv0
I0428 19:39:16.800921 24256 net.cpp:86] Creating Layer conv0
I0428 19:39:16.800940 24256 net.cpp:408] conv0 <- data
I0428 19:39:16.800967 24256 net.cpp:382] conv0 -> conv0
I0428 19:39:17.031949 24256 net.cpp:124] Setting up conv0
I0428 19:39:17.031975 24256 net.cpp:131] Top shape: 64 2 24 24 (73728)
I0428 19:39:17.031978 24256 net.cpp:139] Memory required for data: 495872
I0428 19:39:17.031992 24256 layer_factory.hpp:77] Creating layer pool0
I0428 19:39:17.032019 24256 net.cpp:86] Creating Layer pool0
I0428 19:39:17.032023 24256 net.cpp:408] pool0 <- conv0
I0428 19:39:17.032028 24256 net.cpp:382] pool0 -> pool0
I0428 19:39:17.032089 24256 net.cpp:124] Setting up pool0
I0428 19:39:17.032095 24256 net.cpp:131] Top shape: 64 2 12 12 (18432)
I0428 19:39:17.032097 24256 net.cpp:139] Memory required for data: 569600
I0428 19:39:17.032100 24256 layer_factory.hpp:77] Creating layer conv1
I0428 19:39:17.032111 24256 net.cpp:86] Creating Layer conv1
I0428 19:39:17.032114 24256 net.cpp:408] conv1 <- pool0
I0428 19:39:17.032119 24256 net.cpp:382] conv1 -> conv1
I0428 19:39:17.034006 24256 net.cpp:124] Setting up conv1
I0428 19:39:17.034037 24256 net.cpp:131] Top shape: 64 2 8 8 (8192)
I0428 19:39:17.034041 24256 net.cpp:139] Memory required for data: 602368
I0428 19:39:17.034049 24256 layer_factory.hpp:77] Creating layer pool1
I0428 19:39:17.034057 24256 net.cpp:86] Creating Layer pool1
I0428 19:39:17.034061 24256 net.cpp:408] pool1 <- conv1
I0428 19:39:17.034066 24256 net.cpp:382] pool1 -> pool1
I0428 19:39:17.034104 24256 net.cpp:124] Setting up pool1
I0428 19:39:17.034111 24256 net.cpp:131] Top shape: 64 2 4 4 (2048)
I0428 19:39:17.034114 24256 net.cpp:139] Memory required for data: 610560
I0428 19:39:17.034117 24256 layer_factory.hpp:77] Creating layer ip1
I0428 19:39:17.034124 24256 net.cpp:86] Creating Layer ip1
I0428 19:39:17.034127 24256 net.cpp:408] ip1 <- pool1
I0428 19:39:17.034132 24256 net.cpp:382] ip1 -> ip1
I0428 19:39:17.034247 24256 net.cpp:124] Setting up ip1
I0428 19:39:17.034256 24256 net.cpp:131] Top shape: 64 25 (1600)
I0428 19:39:17.034260 24256 net.cpp:139] Memory required for data: 616960
I0428 19:39:17.034267 24256 layer_factory.hpp:77] Creating layer relu1
I0428 19:39:17.034278 24256 net.cpp:86] Creating Layer relu1
I0428 19:39:17.034282 24256 net.cpp:408] relu1 <- ip1
I0428 19:39:17.034287 24256 net.cpp:369] relu1 -> ip1 (in-place)
I0428 19:39:17.034466 24256 net.cpp:124] Setting up relu1
I0428 19:39:17.034474 24256 net.cpp:131] Top shape: 64 25 (1600)
I0428 19:39:17.034478 24256 net.cpp:139] Memory required for data: 623360
I0428 19:39:17.034482 24256 layer_factory.hpp:77] Creating layer ip2
I0428 19:39:17.034488 24256 net.cpp:86] Creating Layer ip2
I0428 19:39:17.034492 24256 net.cpp:408] ip2 <- ip1
I0428 19:39:17.034498 24256 net.cpp:382] ip2 -> ip2
I0428 19:39:17.034608 24256 net.cpp:124] Setting up ip2
I0428 19:39:17.034615 24256 net.cpp:131] Top shape: 64 25 (1600)
I0428 19:39:17.034620 24256 net.cpp:139] Memory required for data: 629760
I0428 19:39:17.034624 24256 layer_factory.hpp:77] Creating layer relu2
I0428 19:39:17.034631 24256 net.cpp:86] Creating Layer relu2
I0428 19:39:17.034633 24256 net.cpp:408] relu2 <- ip2
I0428 19:39:17.034637 24256 net.cpp:369] relu2 -> ip2 (in-place)
I0428 19:39:17.035432 24256 net.cpp:124] Setting up relu2
I0428 19:39:17.035444 24256 net.cpp:131] Top shape: 64 25 (1600)
I0428 19:39:17.035465 24256 net.cpp:139] Memory required for data: 636160
I0428 19:39:17.035467 24256 layer_factory.hpp:77] Creating layer ip3
I0428 19:39:17.035475 24256 net.cpp:86] Creating Layer ip3
I0428 19:39:17.035480 24256 net.cpp:408] ip3 <- ip2
I0428 19:39:17.035485 24256 net.cpp:382] ip3 -> ip3
I0428 19:39:17.035584 24256 net.cpp:124] Setting up ip3
I0428 19:39:17.035593 24256 net.cpp:131] Top shape: 64 10 (640)
I0428 19:39:17.035595 24256 net.cpp:139] Memory required for data: 638720
I0428 19:39:17.035604 24256 layer_factory.hpp:77] Creating layer relu3
I0428 19:39:17.035609 24256 net.cpp:86] Creating Layer relu3
I0428 19:39:17.035612 24256 net.cpp:408] relu3 <- ip3
I0428 19:39:17.035616 24256 net.cpp:369] relu3 -> ip3 (in-place)
I0428 19:39:17.035794 24256 net.cpp:124] Setting up relu3
I0428 19:39:17.035804 24256 net.cpp:131] Top shape: 64 10 (640)
I0428 19:39:17.035806 24256 net.cpp:139] Memory required for data: 641280
I0428 19:39:17.035809 24256 layer_factory.hpp:77] Creating layer loss
I0428 19:39:17.035815 24256 net.cpp:86] Creating Layer loss
I0428 19:39:17.035818 24256 net.cpp:408] loss <- ip3
I0428 19:39:17.035822 24256 net.cpp:408] loss <- label
I0428 19:39:17.035827 24256 net.cpp:382] loss -> loss
I0428 19:39:17.035845 24256 layer_factory.hpp:77] Creating layer loss
…
I0428 19:39:17.036551 24256 solver.cpp:173] Creating test net (#0) specified by net file: ECE595/mnist/train_test/var_everything2/lenet_train_test299.prototxt
I0428 19:39:17.036593 24256 net.cpp:296] The NetState phase (1) differed from the phase (0) specified by a rule in layer mnist
I0428 19:39:17.036696 24256 net.cpp:53] Initializing net from parameters: 
name: "LeNet"
state {
  phase: TEST
}
layer {
  name: "mnist"
  type: "Data"
  top: "data"
  top: "label"
  include {
    phase: TEST
  }
  transform_param {
    scale: 0.00390625
  }
  data_param {
    source: "examples/mnist/mnist_test_lmdb"
    batch_size: 100
    backend: LMDB
  }
}
layer {
  name: "conv0"
  type: "Convolution"
  bottom: "data"
  top: "conv0"
  param {
    lr_mult: 1
  }
  param {
    lr_mult: 2
  }
  convolution_param {
    num_output: 2
    kernel_size: 5
    stride: 1
    weight_filler {
      type: "xavier"
    }
    bias_filler {
      type: "constant"
    }
  }
}
layer {
  name: "pool0"
  type: "Pooling"
  bottom: "conv0"
  top: "pool0"
  pooling_param {
    pool: MAX
    kernel_size: 2
    stride: 2
  }
}
layer {
  name: "conv1"
  type: "Convolution"
  bottom: "pool0"
  top: "conv1"
  param {
    lr_mult: 1
  }
  param {
    lr_mult: 2
  }
  convolution_param {
    num_output: 2
    kernel_size: 5
    stride: 1
    weight_filler {
      type: "xavier"
    }
    bias_filler {
      type: "constant"
    }
  }
}
layer {
  name: "pool1"
  type: "Pooling"
  bottom: "conv1"
  top: "pool1"
  pooling_param {
    pool: MAX
    kernel_size: 2
    stride: 2
  }
}
layer {
  name: "ip1"
  type: "InnerProduct"
  bottom: "pool1"
  top: "ip1"
  param {
    lr_mult: 1
  }
  param {
    lr_mult: 2
  }
  inner_product_param {
    num_output: 25
    weight_filler {
      type: "xavier"
    }
    bias_filler {
      type: "constant"
    }
  }
}
layer {
  name: "relu1"
  type: "ReLU"
  bottom: "ip1"
  top: "ip1"
}
layer {
  name: "ip2"
  type: "InnerProduct"
  bottom: "ip1"
  top: "ip2"
  param {
    lr_mult: 1
  }
  param {
    lr_mult: 2
  }
  inner_product_param {
    num_output: 25
    weight_filler {
      type: "xavier"
    }
    bias_filler {
      type: "constant"
    }
  }
}
layer {
  name: "relu2"
  type: "ReLU"
  bottom: "ip2"
  top: "ip2"
}
layer {
  name: "ip3"
  type: "InnerProduct"
  bottom: "ip2"
  top: "ip3"
  param {
    lr_mult: 1
  }
  param {
    lr_mult: 2
  }
  inner_product_param {
    num_output: 10
    weight_filler {
      type: "xavier"
    }
    bias_filler {
      type: "constant"
    }
  }
}
layer {
  name: "relu3"
  type: "ReLU"
  bottom: "ip3"
  top: "ip3"
}
layer {
  name: "accuracy"
  type: "Accuracy"
  bottom: "ip3"
  bottom: "label"
  top: "accuracy"
  include {
    phase: TEST
  }
}
layer {
  name: "loss"
  type: "SoftmaxWithLoss"
  bottom: "ip3"
  bottom: "label"
  top: "loss"
}
I0428 19:39:17.036788 24256 layer_factory.hpp:77] Creating layer mnist
I0428 19:39:17.036851 24256 db_lmdb.cpp:35] Opened lmdb examples/mnist/mnist_test_lmdb
I0428 19:39:17.036864 24256 net.cpp:86] Creating Layer mnist
I0428 19:39:17.036870 24256 net.cpp:382] mnist -> data
I0428 19:39:17.036876 24256 net.cpp:382] mnist -> label
I0428 19:39:17.036981 24256 data_layer.cpp:45] output data size: 100,1,28,28
I0428 19:39:17.039002 24256 net.cpp:124] Setting up mnist
I0428 19:39:17.039047 24256 net.cpp:131] Top shape: 100 1 28 28 (78400)
I0428 19:39:17.039068 24256 net.cpp:131] Top shape: 100 (100)
I0428 19:39:17.039072 24256 net.cpp:139] Memory required for data: 314000
I0428 19:39:17.039075 24256 layer_factory.hpp:77] Creating layer label_mnist_1_split
I0428 19:39:17.039082 24256 net.cpp:86] Creating Layer label_mnist_1_split
I0428 19:39:17.039086 24256 net.cpp:408] label_mnist_1_split <- label
I0428 19:39:17.039090 24256 net.cpp:382] label_mnist_1_split -> label_mnist_1_split_0
I0428 19:39:17.039098 24256 net.cpp:382] label_mnist_1_split -> label_mnist_1_split_1
I0428 19:39:17.039146 24256 net.cpp:124] Setting up label_mnist_1_split
I0428 19:39:17.039151 24256 net.cpp:131] Top shape: 100 (100)
I0428 19:39:17.039155 24256 net.cpp:131] Top shape: 100 (100)
I0428 19:39:17.039158 24256 net.cpp:139] Memory required for data: 314800
I0428 19:39:17.039161 24256 layer_factory.hpp:77] Creating layer conv0
I0428 19:39:17.039170 24256 net.cpp:86] Creating Layer conv0
I0428 19:39:17.039173 24256 net.cpp:408] conv0 <- data
I0428 19:39:17.039180 24256 net.cpp:382] conv0 -> conv0
I0428 19:39:17.041018 24256 net.cpp:124] Setting up conv0
I0428 19:39:17.041046 24256 net.cpp:131] Top shape: 100 2 24 24 (115200)
I0428 19:39:17.041050 24256 net.cpp:139] Memory required for data: 775600
I0428 19:39:17.041070 24256 layer_factory.hpp:77] Creating layer pool0
I0428 19:39:17.041081 24256 net.cpp:86] Creating Layer pool0
I0428 19:39:17.041085 24256 net.cpp:408] pool0 <- conv0
I0428 19:39:17.041090 24256 net.cpp:382] pool0 -> pool0
I0428 19:39:17.041128 24256 net.cpp:124] Setting up pool0
I0428 19:39:17.041134 24256 net.cpp:131] Top shape: 100 2 12 12 (28800)
I0428 19:39:17.041137 24256 net.cpp:139] Memory required for data: 890800
I0428 19:39:17.041154 24256 layer_factory.hpp:77] Creating layer conv1
I0428 19:39:17.041163 24256 net.cpp:86] Creating Layer conv1
I0428 19:39:17.041167 24256 net.cpp:408] conv1 <- pool0
I0428 19:39:17.041172 24256 net.cpp:382] conv1 -> conv1
I0428 19:39:17.042778 24256 net.cpp:124] Setting up conv1
I0428 19:39:17.042807 24256 net.cpp:131] Top shape: 100 2 8 8 (12800)
I0428 19:39:17.042811 24256 net.cpp:139] Memory required for data: 942000
I0428 19:39:17.042820 24256 layer_factory.hpp:77] Creating layer pool1
I0428 19:39:17.042829 24256 net.cpp:86] Creating Layer pool1
I0428 19:39:17.042832 24256 net.cpp:408] pool1 <- conv1
I0428 19:39:17.042839 24256 net.cpp:382] pool1 -> pool1
I0428 19:39:17.042878 24256 net.cpp:124] Setting up pool1
I0428 19:39:17.042884 24256 net.cpp:131] Top shape: 100 2 4 4 (3200)
I0428 19:39:17.042893 24256 net.cpp:139] Memory required for data: 954800
I0428 19:39:17.042897 24256 layer_factory.hpp:77] Creating layer ip1
I0428 19:39:17.042904 24256 net.cpp:86] Creating Layer ip1
I0428 19:39:17.042908 24256 net.cpp:408] ip1 <- pool1
I0428 19:39:17.042913 24256 net.cpp:382] ip1 -> ip1
I0428 19:39:17.043020 24256 net.cpp:124] Setting up ip1
I0428 19:39:17.043028 24256 net.cpp:131] Top shape: 100 25 (2500)
I0428 19:39:17.043047 24256 net.cpp:139] Memory required for data: 964800
I0428 19:39:17.043056 24256 layer_factory.hpp:77] Creating layer relu1
I0428 19:39:17.043061 24256 net.cpp:86] Creating Layer relu1
I0428 19:39:17.043064 24256 net.cpp:408] relu1 <- ip1
I0428 19:39:17.043068 24256 net.cpp:369] relu1 -> ip1 (in-place)
I0428 19:39:17.043236 24256 net.cpp:124] Setting up relu1
I0428 19:39:17.043246 24256 net.cpp:131] Top shape: 100 25 (2500)
I0428 19:39:17.043249 24256 net.cpp:139] Memory required for data: 974800
I0428 19:39:17.043252 24256 layer_factory.hpp:77] Creating layer ip2
I0428 19:39:17.043259 24256 net.cpp:86] Creating Layer ip2
I0428 19:39:17.043263 24256 net.cpp:408] ip2 <- ip1
I0428 19:39:17.043269 24256 net.cpp:382] ip2 -> ip2
I0428 19:39:17.043390 24256 net.cpp:124] Setting up ip2
I0428 19:39:17.043398 24256 net.cpp:131] Top shape: 100 25 (2500)
I0428 19:39:17.043401 24256 net.cpp:139] Memory required for data: 984800
I0428 19:39:17.043406 24256 layer_factory.hpp:77] Creating layer relu2
I0428 19:39:17.043411 24256 net.cpp:86] Creating Layer relu2
I0428 19:39:17.043414 24256 net.cpp:408] relu2 <- ip2
I0428 19:39:17.043421 24256 net.cpp:369] relu2 -> ip2 (in-place)
I0428 19:39:17.043648 24256 net.cpp:124] Setting up relu2
I0428 19:39:17.043658 24256 net.cpp:131] Top shape: 100 25 (2500)
I0428 19:39:17.043661 24256 net.cpp:139] Memory required for data: 994800
I0428 19:39:17.043664 24256 layer_factory.hpp:77] Creating layer ip3
I0428 19:39:17.043670 24256 net.cpp:86] Creating Layer ip3
I0428 19:39:17.043689 24256 net.cpp:408] ip3 <- ip2
I0428 19:39:17.043694 24256 net.cpp:382] ip3 -> ip3
I0428 19:39:17.043818 24256 net.cpp:124] Setting up ip3
I0428 19:39:17.043826 24256 net.cpp:131] Top shape: 100 10 (1000)
I0428 19:39:17.043829 24256 net.cpp:139] Memory required for data: 998800
I0428 19:39:17.043838 24256 layer_factory.hpp:77] Creating layer relu3
I0428 19:39:17.043843 24256 net.cpp:86] Creating Layer relu3
I0428 19:39:17.043845 24256 net.cpp:408] relu3 <- ip3
I0428 19:39:17.043850 24256 net.cpp:369] relu3 -> ip3 (in-place)
I0428 19:39:17.044654 24256 net.cpp:124] Setting up relu3
I0428 19:39:17.044683 24256 net.cpp:131] Top shape: 100 10 (1000)
I0428 19:39:17.044687 24256 net.cpp:139] Memory required for data: 1002800
I0428 19:39:17.044690 24256 layer_factory.hpp:77] Creating layer ip3_relu3_0_split
I0428 19:39:17.044697 24256 net.cpp:86] Creating Layer ip3_relu3_0_split
I0428 19:39:17.044701 24256 net.cpp:408] ip3_relu3_0_split <- ip3
I0428 19:39:17.044706 24256 net.cpp:382] ip3_relu3_0_split -> ip3_relu3_0_split_0
I0428 19:39:17.044713 24256 net.cpp:382] ip3_relu3_0_split -> ip3_relu3_0_split_1
I0428 19:39:17.044777 24256 net.cpp:124] Setting up ip3_relu3_0_split
I0428 19:39:17.044785 24256 net.cpp:131] Top shape: 100 10 (1000)
I0428 19:39:17.044790 24256 net.cpp:131] Top shape: 100 10 (1000)
I0428 19:39:17.044792 24256 net.cpp:139] Memory required for data: 1010800
I0428 19:39:17.044795 24256 layer_factory.hpp:77] Creating layer accuracy
I0428 19:39:17.044800 24256 net.cpp:86] Creating Layer accuracy
I0428 19:39:17.044803 24256 net.cpp:408] accuracy <- ip3_relu3_0_split_0
I0428 19:39:17.044807 24256 net.cpp:408] accuracy <- label_mnist_1_split_0
I0428 19:39:17.044834 24256 net.cpp:382] accuracy -> accuracy
…
