…
I0428 19:28:51.181553 21837 net.cpp:296] The NetState phase (0) differed from the phase (1) specified by a rule in layer mnist
I0428 19:28:51.181568 21837 net.cpp:296] The NetState phase (0) differed from the phase (1) specified by a rule in layer accuracy
I0428 19:28:51.181643 21837 net.cpp:53] Initializing net from parameters: 
name: "LeNet"
state {
  phase: TRAIN
  level: 0
  stage: ""
}
layer {
  name: "mnist"
  type: "Data"
  top: "data"
  top: "label"
  include {
    phase: TRAIN
  }
  transform_param {
    scale: 0.00390625
  }
  data_param {
    source: "examples/mnist/mnist_train_lmdb"
    batch_size: 64
    backend: LMDB
  }
}
layer {
  name: "conv0"
  type: "Convolution"
  bottom: "data"
  top: "conv0"
  param {
    lr_mult: 1
  }
  param {
    lr_mult: 2
  }
  convolution_param {
    num_output: 2
    kernel_size: 5
    stride: 1
    weight_filler {
      type: "xavier"
    }
    bias_filler {
      type: "constant"
    }
  }
}
layer {
  name: "pool0"
  type: "Pooling"
  bottom: "conv0"
  top: "pool0"
  pooling_param {
    pool: MAX
    kernel_size: 2
    stride: 2
  }
}
layer {
  name: "ip1"
  type: "InnerProduct"
  bottom: "pool0"
  top: "ip1"
  param {
    lr_mult: 1
  }
  param {
    lr_mult: 2
  }
  inner_product_param {
    num_output: 10
    weight_filler {
      type: "xavier"
    }
    bias_filler {
      type: "constant"
    }
  }
}
layer {
  name: "relu1"
  type: "ReLU"
  bottom: "ip1"
  top: "ip1"
}
layer {
  name: "loss"
  type: "SoftmaxWithLoss"
  bottom: "ip1"
  bottom: "label"
  top: "loss"
}
I0428 19:28:51.181694 21837 layer_factory.hpp:77] Creating layer mnist
I0428 19:28:51.181782 21837 db_lmdb.cpp:35] Opened lmdb examples/mnist/mnist_train_lmdb
I0428 19:28:51.181803 21837 net.cpp:86] Creating Layer mnist
I0428 19:28:51.181810 21837 net.cpp:382] mnist -> data
I0428 19:28:51.181828 21837 net.cpp:382] mnist -> label
I0428 19:28:51.182853 21837 data_layer.cpp:45] output data size: 64,1,28,28
I0428 19:28:51.184953 21837 net.cpp:124] Setting up mnist
I0428 19:28:51.185004 21837 net.cpp:131] Top shape: 64 1 28 28 (50176)
I0428 19:28:51.185011 21837 net.cpp:131] Top shape: 64 (64)
I0428 19:28:51.185014 21837 net.cpp:139] Memory required for data: 200960
I0428 19:28:51.185020 21837 layer_factory.hpp:77] Creating layer conv0
I0428 19:28:51.185035 21837 net.cpp:86] Creating Layer conv0
I0428 19:28:51.185041 21837 net.cpp:408] conv0 <- data
I0428 19:28:51.185050 21837 net.cpp:382] conv0 -> conv0
I0428 19:28:51.419745 21837 net.cpp:124] Setting up conv0
I0428 19:28:51.419770 21837 net.cpp:131] Top shape: 64 2 24 24 (73728)
I0428 19:28:51.419775 21837 net.cpp:139] Memory required for data: 495872
I0428 19:28:51.419805 21837 layer_factory.hpp:77] Creating layer pool0
I0428 19:28:51.419819 21837 net.cpp:86] Creating Layer pool0
I0428 19:28:51.419824 21837 net.cpp:408] pool0 <- conv0
I0428 19:28:51.419829 21837 net.cpp:382] pool0 -> pool0
I0428 19:28:51.419873 21837 net.cpp:124] Setting up pool0
I0428 19:28:51.419880 21837 net.cpp:131] Top shape: 64 2 12 12 (18432)
I0428 19:28:51.419883 21837 net.cpp:139] Memory required for data: 569600
I0428 19:28:51.419886 21837 layer_factory.hpp:77] Creating layer ip1
I0428 19:28:51.419893 21837 net.cpp:86] Creating Layer ip1
I0428 19:28:51.419896 21837 net.cpp:408] ip1 <- pool0
I0428 19:28:51.419900 21837 net.cpp:382] ip1 -> ip1
I0428 19:28:51.420779 21837 net.cpp:124] Setting up ip1
I0428 19:28:51.420792 21837 net.cpp:131] Top shape: 64 10 (640)
I0428 19:28:51.420847 21837 net.cpp:139] Memory required for data: 572160
I0428 19:28:51.420872 21837 layer_factory.hpp:77] Creating layer relu1
I0428 19:28:51.420891 21837 net.cpp:86] Creating Layer relu1
I0428 19:28:51.420894 21837 net.cpp:408] relu1 <- ip1
I0428 19:28:51.420898 21837 net.cpp:369] relu1 -> ip1 (in-place)
I0428 19:28:51.421072 21837 net.cpp:124] Setting up relu1
I0428 19:28:51.421080 21837 net.cpp:131] Top shape: 64 10 (640)
I0428 19:28:51.421083 21837 net.cpp:139] Memory required for data: 574720
I0428 19:28:51.421087 21837 layer_factory.hpp:77] Creating layer loss
I0428 19:28:51.421092 21837 net.cpp:86] Creating Layer loss
I0428 19:28:51.421095 21837 net.cpp:408] loss <- ip1
I0428 19:28:51.421099 21837 net.cpp:408] loss <- label
I0428 19:28:51.421104 21837 net.cpp:382] loss -> loss
I0428 19:28:51.421118 21837 layer_factory.hpp:77] Creating layer loss
…
I0428 19:28:51.422266 21837 solver.cpp:173] Creating test net (#0) specified by net file: ECE595/mnist/train_test/var_everything2/lenet_train_test39.prototxt
I0428 19:28:51.422287 21837 net.cpp:296] The NetState phase (1) differed from the phase (0) specified by a rule in layer mnist
I0428 19:28:51.422346 21837 net.cpp:53] Initializing net from parameters: 
name: "LeNet"
state {
  phase: TEST
}
layer {
  name: "mnist"
  type: "Data"
  top: "data"
  top: "label"
  include {
    phase: TEST
  }
  transform_param {
    scale: 0.00390625
  }
  data_param {
    source: "examples/mnist/mnist_test_lmdb"
    batch_size: 100
    backend: LMDB
  }
}
layer {
  name: "conv0"
  type: "Convolution"
  bottom: "data"
  top: "conv0"
  param {
    lr_mult: 1
  }
  param {
    lr_mult: 2
  }
  convolution_param {
    num_output: 2
    kernel_size: 5
    stride: 1
    weight_filler {
      type: "xavier"
    }
    bias_filler {
      type: "constant"
    }
  }
}
layer {
  name: "pool0"
  type: "Pooling"
  bottom: "conv0"
  top: "pool0"
  pooling_param {
    pool: MAX
    kernel_size: 2
    stride: 2
  }
}
layer {
  name: "ip1"
  type: "InnerProduct"
  bottom: "pool0"
  top: "ip1"
  param {
    lr_mult: 1
  }
  param {
    lr_mult: 2
  }
  inner_product_param {
    num_output: 10
    weight_filler {
      type: "xavier"
    }
    bias_filler {
      type: "constant"
    }
  }
}
layer {
  name: "relu1"
  type: "ReLU"
  bottom: "ip1"
  top: "ip1"
}
layer {
  name: "accuracy"
  type: "Accuracy"
  bottom: "ip1"
  bottom: "label"
  top: "accuracy"
  include {
    phase: TEST
  }
}
layer {
  name: "loss"
  type: "SoftmaxWithLoss"
  bottom: "ip1"
  bottom: "label"
  top: "loss"
}
I0428 19:28:51.422412 21837 layer_factory.hpp:77] Creating layer mnist
I0428 19:28:51.422452 21837 db_lmdb.cpp:35] Opened lmdb examples/mnist/mnist_test_lmdb
I0428 19:28:51.422468 21837 net.cpp:86] Creating Layer mnist
I0428 19:28:51.422472 21837 net.cpp:382] mnist -> data
I0428 19:28:51.422479 21837 net.cpp:382] mnist -> label
I0428 19:28:51.422559 21837 data_layer.cpp:45] output data size: 100,1,28,28
I0428 19:28:51.424489 21837 net.cpp:124] Setting up mnist
I0428 19:28:51.424518 21837 net.cpp:131] Top shape: 100 1 28 28 (78400)
I0428 19:28:51.424523 21837 net.cpp:131] Top shape: 100 (100)
I0428 19:28:51.424526 21837 net.cpp:139] Memory required for data: 314000
I0428 19:28:51.424540 21837 layer_factory.hpp:77] Creating layer label_mnist_1_split
I0428 19:28:51.424546 21837 net.cpp:86] Creating Layer label_mnist_1_split
I0428 19:28:51.424549 21837 net.cpp:408] label_mnist_1_split <- label
I0428 19:28:51.424554 21837 net.cpp:382] label_mnist_1_split -> label_mnist_1_split_0
I0428 19:28:51.424561 21837 net.cpp:382] label_mnist_1_split -> label_mnist_1_split_1
I0428 19:28:51.424652 21837 net.cpp:124] Setting up label_mnist_1_split
I0428 19:28:51.424659 21837 net.cpp:131] Top shape: 100 (100)
I0428 19:28:51.424664 21837 net.cpp:131] Top shape: 100 (100)
I0428 19:28:51.424666 21837 net.cpp:139] Memory required for data: 314800
I0428 19:28:51.424669 21837 layer_factory.hpp:77] Creating layer conv0
I0428 19:28:51.424677 21837 net.cpp:86] Creating Layer conv0
I0428 19:28:51.424680 21837 net.cpp:408] conv0 <- data
I0428 19:28:51.424685 21837 net.cpp:382] conv0 -> conv0
I0428 19:28:51.426386 21837 net.cpp:124] Setting up conv0
I0428 19:28:51.426401 21837 net.cpp:131] Top shape: 100 2 24 24 (115200)
I0428 19:28:51.426405 21837 net.cpp:139] Memory required for data: 775600
I0428 19:28:51.426414 21837 layer_factory.hpp:77] Creating layer pool0
I0428 19:28:51.426420 21837 net.cpp:86] Creating Layer pool0
I0428 19:28:51.426424 21837 net.cpp:408] pool0 <- conv0
I0428 19:28:51.426429 21837 net.cpp:382] pool0 -> pool0
I0428 19:28:51.426463 21837 net.cpp:124] Setting up pool0
I0428 19:28:51.426470 21837 net.cpp:131] Top shape: 100 2 12 12 (28800)
I0428 19:28:51.426473 21837 net.cpp:139] Memory required for data: 890800
I0428 19:28:51.426476 21837 layer_factory.hpp:77] Creating layer ip1
I0428 19:28:51.426482 21837 net.cpp:86] Creating Layer ip1
I0428 19:28:51.426486 21837 net.cpp:408] ip1 <- pool0
I0428 19:28:51.426506 21837 net.cpp:382] ip1 -> ip1
I0428 19:28:51.426632 21837 net.cpp:124] Setting up ip1
I0428 19:28:51.426640 21837 net.cpp:131] Top shape: 100 10 (1000)
I0428 19:28:51.426643 21837 net.cpp:139] Memory required for data: 894800
I0428 19:28:51.426650 21837 layer_factory.hpp:77] Creating layer relu1
I0428 19:28:51.426656 21837 net.cpp:86] Creating Layer relu1
I0428 19:28:51.426658 21837 net.cpp:408] relu1 <- ip1
I0428 19:28:51.426662 21837 net.cpp:369] relu1 -> ip1 (in-place)
I0428 19:28:51.426842 21837 net.cpp:124] Setting up relu1
I0428 19:28:51.426853 21837 net.cpp:131] Top shape: 100 10 (1000)
I0428 19:28:51.426856 21837 net.cpp:139] Memory required for data: 898800
I0428 19:28:51.426859 21837 layer_factory.hpp:77] Creating layer ip1_relu1_0_split
I0428 19:28:51.426863 21837 net.cpp:86] Creating Layer ip1_relu1_0_split
I0428 19:28:51.426867 21837 net.cpp:408] ip1_relu1_0_split <- ip1
I0428 19:28:51.426870 21837 net.cpp:382] ip1_relu1_0_split -> ip1_relu1_0_split_0
I0428 19:28:51.426875 21837 net.cpp:382] ip1_relu1_0_split -> ip1_relu1_0_split_1
I0428 19:28:51.426910 21837 net.cpp:124] Setting up ip1_relu1_0_split
I0428 19:28:51.426916 21837 net.cpp:131] Top shape: 100 10 (1000)
I0428 19:28:51.426920 21837 net.cpp:131] Top shape: 100 10 (1000)
I0428 19:28:51.426923 21837 net.cpp:139] Memory required for data: 906800
I0428 19:28:51.426924 21837 layer_factory.hpp:77] Creating layer accuracy
I0428 19:28:51.426929 21837 net.cpp:86] Creating Layer accuracy
I0428 19:28:51.426933 21837 net.cpp:408] accuracy <- ip1_relu1_0_split_0
I0428 19:28:51.426939 21837 net.cpp:408] accuracy <- label_mnist_1_split_0
I0428 19:28:51.426942 21837 net.cpp:382] accuracy -> accuracy
…
