…
I0428 20:11:10.215768 32016 net.cpp:296] The NetState phase (0) differed from the phase (1) specified by a rule in layer mnist
I0428 20:11:10.215787 32016 net.cpp:296] The NetState phase (0) differed from the phase (1) specified by a rule in layer accuracy
I0428 20:11:10.215893 32016 net.cpp:53] Initializing net from parameters: 
name: "LeNet"
state {
  phase: TRAIN
  level: 0
  stage: ""
}
layer {
  name: "mnist"
  type: "Data"
  top: "data"
  top: "label"
  include {
    phase: TRAIN
  }
  transform_param {
    scale: 0.00390625
  }
  data_param {
    source: "examples/mnist/mnist_train_lmdb"
    batch_size: 64
    backend: LMDB
  }
}
layer {
  name: "conv0"
  type: "Convolution"
  bottom: "data"
  top: "conv0"
  param {
    lr_mult: 1
  }
  param {
    lr_mult: 2
  }
  convolution_param {
    num_output: 25
    kernel_size: 5
    stride: 1
    weight_filler {
      type: "xavier"
    }
    bias_filler {
      type: "constant"
    }
  }
}
layer {
  name: "pool0"
  type: "Pooling"
  bottom: "conv0"
  top: "pool0"
  pooling_param {
    pool: MAX
    kernel_size: 2
    stride: 2
  }
}
layer {
  name: "conv1"
  type: "Convolution"
  bottom: "pool0"
  top: "conv1"
  param {
    lr_mult: 1
  }
  param {
    lr_mult: 2
  }
  convolution_param {
    num_output: 50
    kernel_size: 5
    stride: 1
    weight_filler {
      type: "xavier"
    }
    bias_filler {
      type: "constant"
    }
  }
}
layer {
  name: "pool1"
  type: "Pooling"
  bottom: "conv1"
  top: "pool1"
  pooling_param {
    pool: MAX
    kernel_size: 2
    stride: 2
  }
}
layer {
  name: "ip1"
  type: "InnerProduct"
  bottom: "pool1"
  top: "ip1"
  param {
    lr_mult: 1
  }
  param {
    lr_mult: 2
  }
  inner_product_param {
    num_output: 25
    weight_filler {
      type: "xavier"
    }
    bias_filler {
      type: "constant"
    }
  }
}
layer {
  name: "relu1"
  type: "ReLU"
  bottom: "ip1"
  top: "ip1"
}
layer {
  name: "ip2"
  type: "InnerProduct"
  bottom: "ip1"
  top: "ip2"
  param {
    lr_mult: 1
  }
  param {
    lr_mult: 2
  }
  inner_product_param {
    num_output: 10
    weight_filler {
      type: "xavier"
    }
    bias_filler {
      type: "constant"
    }
  }
}
layer {
  name: "relu2"
  type: "ReLU"
  bottom: "ip2"
  top: "ip2"
}
layer {
  name: "ip3"
  type: "InnerProduct"
  bottom: "ip2"
  top: "ip3"
  param {
    lr_mult: 1
  }
  param {
    lr_mult: 2
  }
  inner_product_param {
    num_output: 10
    weight_filler {
      type: "xavier"
    }
    bias_filler {
      type: "constant"
    }
  }
}
layer {
  name: "relu3"
  type: "ReLU"
  bottom: "ip3"
  top: "ip3"
}
layer {
  name: "loss"
  type: "SoftmaxWithLoss"
  bottom: "ip3"
  bottom: "label"
  top: "loss"
}
I0428 20:11:10.215972 32016 layer_factory.hpp:77] Creating layer mnist
I0428 20:11:10.216069 32016 db_lmdb.cpp:35] Opened lmdb examples/mnist/mnist_train_lmdb
I0428 20:11:10.216092 32016 net.cpp:86] Creating Layer mnist
I0428 20:11:10.216101 32016 net.cpp:382] mnist -> data
I0428 20:11:10.216123 32016 net.cpp:382] mnist -> label
I0428 20:11:10.217238 32016 data_layer.cpp:45] output data size: 64,1,28,28
I0428 20:11:10.219691 32016 net.cpp:124] Setting up mnist
I0428 20:11:10.219709 32016 net.cpp:131] Top shape: 64 1 28 28 (50176)
I0428 20:11:10.219715 32016 net.cpp:131] Top shape: 64 (64)
I0428 20:11:10.219719 32016 net.cpp:139] Memory required for data: 200960
I0428 20:11:10.219727 32016 layer_factory.hpp:77] Creating layer conv0
I0428 20:11:10.219744 32016 net.cpp:86] Creating Layer conv0
I0428 20:11:10.219765 32016 net.cpp:408] conv0 <- data
I0428 20:11:10.219777 32016 net.cpp:382] conv0 -> conv0
I0428 20:11:10.508172 32016 net.cpp:124] Setting up conv0
I0428 20:11:10.508203 32016 net.cpp:131] Top shape: 64 25 24 24 (921600)
I0428 20:11:10.508208 32016 net.cpp:139] Memory required for data: 3887360
I0428 20:11:10.508227 32016 layer_factory.hpp:77] Creating layer pool0
I0428 20:11:10.508242 32016 net.cpp:86] Creating Layer pool0
I0428 20:11:10.508247 32016 net.cpp:408] pool0 <- conv0
I0428 20:11:10.508255 32016 net.cpp:382] pool0 -> pool0
I0428 20:11:10.508306 32016 net.cpp:124] Setting up pool0
I0428 20:11:10.508313 32016 net.cpp:131] Top shape: 64 25 12 12 (230400)
I0428 20:11:10.508317 32016 net.cpp:139] Memory required for data: 4808960
I0428 20:11:10.508321 32016 layer_factory.hpp:77] Creating layer conv1
I0428 20:11:10.508333 32016 net.cpp:86] Creating Layer conv1
I0428 20:11:10.508337 32016 net.cpp:408] conv1 <- pool0
I0428 20:11:10.508343 32016 net.cpp:382] conv1 -> conv1
I0428 20:11:10.510679 32016 net.cpp:124] Setting up conv1
I0428 20:11:10.510696 32016 net.cpp:131] Top shape: 64 50 8 8 (204800)
I0428 20:11:10.510701 32016 net.cpp:139] Memory required for data: 5628160
I0428 20:11:10.510711 32016 layer_factory.hpp:77] Creating layer pool1
I0428 20:11:10.510721 32016 net.cpp:86] Creating Layer pool1
I0428 20:11:10.510725 32016 net.cpp:408] pool1 <- conv1
I0428 20:11:10.510731 32016 net.cpp:382] pool1 -> pool1
I0428 20:11:10.510774 32016 net.cpp:124] Setting up pool1
I0428 20:11:10.510782 32016 net.cpp:131] Top shape: 64 50 4 4 (51200)
I0428 20:11:10.510785 32016 net.cpp:139] Memory required for data: 5832960
I0428 20:11:10.510788 32016 layer_factory.hpp:77] Creating layer ip1
I0428 20:11:10.510797 32016 net.cpp:86] Creating Layer ip1
I0428 20:11:10.510800 32016 net.cpp:408] ip1 <- pool1
I0428 20:11:10.510805 32016 net.cpp:382] ip1 -> ip1
I0428 20:11:10.511059 32016 net.cpp:124] Setting up ip1
I0428 20:11:10.511070 32016 net.cpp:131] Top shape: 64 25 (1600)
I0428 20:11:10.511073 32016 net.cpp:139] Memory required for data: 5839360
I0428 20:11:10.511082 32016 layer_factory.hpp:77] Creating layer relu1
I0428 20:11:10.511088 32016 net.cpp:86] Creating Layer relu1
I0428 20:11:10.511092 32016 net.cpp:408] relu1 <- ip1
I0428 20:11:10.511096 32016 net.cpp:369] relu1 -> ip1 (in-place)
I0428 20:11:10.511298 32016 net.cpp:124] Setting up relu1
I0428 20:11:10.511309 32016 net.cpp:131] Top shape: 64 25 (1600)
I0428 20:11:10.511313 32016 net.cpp:139] Memory required for data: 5845760
I0428 20:11:10.511317 32016 layer_factory.hpp:77] Creating layer ip2
I0428 20:11:10.511325 32016 net.cpp:86] Creating Layer ip2
I0428 20:11:10.511328 32016 net.cpp:408] ip2 <- ip1
I0428 20:11:10.511335 32016 net.cpp:382] ip2 -> ip2
I0428 20:11:10.511456 32016 net.cpp:124] Setting up ip2
I0428 20:11:10.511464 32016 net.cpp:131] Top shape: 64 10 (640)
I0428 20:11:10.511468 32016 net.cpp:139] Memory required for data: 5848320
I0428 20:11:10.511474 32016 layer_factory.hpp:77] Creating layer relu2
I0428 20:11:10.511483 32016 net.cpp:86] Creating Layer relu2
I0428 20:11:10.511487 32016 net.cpp:408] relu2 <- ip2
I0428 20:11:10.511492 32016 net.cpp:369] relu2 -> ip2 (in-place)
I0428 20:11:10.512338 32016 net.cpp:124] Setting up relu2
I0428 20:11:10.512353 32016 net.cpp:131] Top shape: 64 10 (640)
I0428 20:11:10.512358 32016 net.cpp:139] Memory required for data: 5850880
I0428 20:11:10.512362 32016 layer_factory.hpp:77] Creating layer ip3
I0428 20:11:10.512372 32016 net.cpp:86] Creating Layer ip3
I0428 20:11:10.512377 32016 net.cpp:408] ip3 <- ip2
I0428 20:11:10.512382 32016 net.cpp:382] ip3 -> ip3
I0428 20:11:10.512507 32016 net.cpp:124] Setting up ip3
I0428 20:11:10.512518 32016 net.cpp:131] Top shape: 64 10 (640)
I0428 20:11:10.512522 32016 net.cpp:139] Memory required for data: 5853440
I0428 20:11:10.512531 32016 layer_factory.hpp:77] Creating layer relu3
I0428 20:11:10.512538 32016 net.cpp:86] Creating Layer relu3
I0428 20:11:10.512542 32016 net.cpp:408] relu3 <- ip3
I0428 20:11:10.512547 32016 net.cpp:369] relu3 -> ip3 (in-place)
I0428 20:11:10.512753 32016 net.cpp:124] Setting up relu3
I0428 20:11:10.512764 32016 net.cpp:131] Top shape: 64 10 (640)
I0428 20:11:10.512768 32016 net.cpp:139] Memory required for data: 5856000
I0428 20:11:10.512771 32016 layer_factory.hpp:77] Creating layer loss
I0428 20:11:10.512778 32016 net.cpp:86] Creating Layer loss
I0428 20:11:10.512783 32016 net.cpp:408] loss <- ip3
I0428 20:11:10.512786 32016 net.cpp:408] loss <- label
I0428 20:11:10.512794 32016 net.cpp:382] loss -> loss
I0428 20:11:10.512820 32016 layer_factory.hpp:77] Creating layer loss
…
I0428 20:11:10.513581 32016 solver.cpp:173] Creating test net (#0) specified by net file: ECE595/mnist/train_test/var_everything2/lenet_train_test1152.prototxt
I0428 20:11:10.513614 32016 net.cpp:296] The NetState phase (1) differed from the phase (0) specified by a rule in layer mnist
I0428 20:11:10.513726 32016 net.cpp:53] Initializing net from parameters: 
name: "LeNet"
state {
  phase: TEST
}
layer {
  name: "mnist"
  type: "Data"
  top: "data"
  top: "label"
  include {
    phase: TEST
  }
  transform_param {
    scale: 0.00390625
  }
  data_param {
    source: "examples/mnist/mnist_test_lmdb"
    batch_size: 100
    backend: LMDB
  }
}
layer {
  name: "conv0"
  type: "Convolution"
  bottom: "data"
  top: "conv0"
  param {
    lr_mult: 1
  }
  param {
    lr_mult: 2
  }
  convolution_param {
    num_output: 25
    kernel_size: 5
    stride: 1
    weight_filler {
      type: "xavier"
    }
    bias_filler {
      type: "constant"
    }
  }
}
layer {
  name: "pool0"
  type: "Pooling"
  bottom: "conv0"
  top: "pool0"
  pooling_param {
    pool: MAX
    kernel_size: 2
    stride: 2
  }
}
layer {
  name: "conv1"
  type: "Convolution"
  bottom: "pool0"
  top: "conv1"
  param {
    lr_mult: 1
  }
  param {
    lr_mult: 2
  }
  convolution_param {
    num_output: 50
    kernel_size: 5
    stride: 1
    weight_filler {
      type: "xavier"
    }
    bias_filler {
      type: "constant"
    }
  }
}
layer {
  name: "pool1"
  type: "Pooling"
  bottom: "conv1"
  top: "pool1"
  pooling_param {
    pool: MAX
    kernel_size: 2
    stride: 2
  }
}
layer {
  name: "ip1"
  type: "InnerProduct"
  bottom: "pool1"
  top: "ip1"
  param {
    lr_mult: 1
  }
  param {
    lr_mult: 2
  }
  inner_product_param {
    num_output: 25
    weight_filler {
      type: "xavier"
    }
    bias_filler {
      type: "constant"
    }
  }
}
layer {
  name: "relu1"
  type: "ReLU"
  bottom: "ip1"
  top: "ip1"
}
layer {
  name: "ip2"
  type: "InnerProduct"
  bottom: "ip1"
  top: "ip2"
  param {
    lr_mult: 1
  }
  param {
    lr_mult: 2
  }
  inner_product_param {
    num_output: 10
    weight_filler {
      type: "xavier"
    }
    bias_filler {
      type: "constant"
    }
  }
}
layer {
  name: "relu2"
  type: "ReLU"
  bottom: "ip2"
  top: "ip2"
}
layer {
  name: "ip3"
  type: "InnerProduct"
  bottom: "ip2"
  top: "ip3"
  param {
    lr_mult: 1
  }
  param {
    lr_mult: 2
  }
  inner_product_param {
    num_output: 10
    weight_filler {
      type: "xavier"
    }
    bias_filler {
      type: "constant"
    }
  }
}
layer {
  name: "relu3"
  type: "ReLU"
  bottom: "ip3"
  top: "ip3"
}
layer {
  name: "accuracy"
  type: "Accuracy"
  bottom: "ip3"
  bottom: "label"
  top: "accuracy"
  include {
    phase: TEST
  }
}
layer {
  name: "loss"
  type: "SoftmaxWithLoss"
  bottom: "ip3"
  bottom: "label"
  top: "loss"
}
I0428 20:11:10.513826 32016 layer_factory.hpp:77] Creating layer mnist
I0428 20:11:10.513878 32016 db_lmdb.cpp:35] Opened lmdb examples/mnist/mnist_test_lmdb
I0428 20:11:10.513892 32016 net.cpp:86] Creating Layer mnist
I0428 20:11:10.513900 32016 net.cpp:382] mnist -> data
I0428 20:11:10.513908 32016 net.cpp:382] mnist -> label
I0428 20:11:10.514014 32016 data_layer.cpp:45] output data size: 100,1,28,28
I0428 20:11:10.516216 32016 net.cpp:124] Setting up mnist
I0428 20:11:10.516232 32016 net.cpp:131] Top shape: 100 1 28 28 (78400)
I0428 20:11:10.516237 32016 net.cpp:131] Top shape: 100 (100)
I0428 20:11:10.516242 32016 net.cpp:139] Memory required for data: 314000
I0428 20:11:10.516245 32016 layer_factory.hpp:77] Creating layer label_mnist_1_split
I0428 20:11:10.516273 32016 net.cpp:86] Creating Layer label_mnist_1_split
I0428 20:11:10.516278 32016 net.cpp:408] label_mnist_1_split <- label
I0428 20:11:10.516283 32016 net.cpp:382] label_mnist_1_split -> label_mnist_1_split_0
I0428 20:11:10.516290 32016 net.cpp:382] label_mnist_1_split -> label_mnist_1_split_1
I0428 20:11:10.516345 32016 net.cpp:124] Setting up label_mnist_1_split
I0428 20:11:10.516362 32016 net.cpp:131] Top shape: 100 (100)
I0428 20:11:10.516367 32016 net.cpp:131] Top shape: 100 (100)
I0428 20:11:10.516371 32016 net.cpp:139] Memory required for data: 314800
I0428 20:11:10.516374 32016 layer_factory.hpp:77] Creating layer conv0
I0428 20:11:10.516386 32016 net.cpp:86] Creating Layer conv0
I0428 20:11:10.516389 32016 net.cpp:408] conv0 <- data
I0428 20:11:10.516397 32016 net.cpp:382] conv0 -> conv0
I0428 20:11:10.518347 32016 net.cpp:124] Setting up conv0
I0428 20:11:10.518364 32016 net.cpp:131] Top shape: 100 25 24 24 (1440000)
I0428 20:11:10.518368 32016 net.cpp:139] Memory required for data: 6074800
I0428 20:11:10.518379 32016 layer_factory.hpp:77] Creating layer pool0
I0428 20:11:10.518388 32016 net.cpp:86] Creating Layer pool0
I0428 20:11:10.518391 32016 net.cpp:408] pool0 <- conv0
I0428 20:11:10.518399 32016 net.cpp:382] pool0 -> pool0
I0428 20:11:10.518442 32016 net.cpp:124] Setting up pool0
I0428 20:11:10.518450 32016 net.cpp:131] Top shape: 100 25 12 12 (360000)
I0428 20:11:10.518452 32016 net.cpp:139] Memory required for data: 7514800
I0428 20:11:10.518456 32016 layer_factory.hpp:77] Creating layer conv1
I0428 20:11:10.518468 32016 net.cpp:86] Creating Layer conv1
I0428 20:11:10.518472 32016 net.cpp:408] conv1 <- pool0
I0428 20:11:10.518478 32016 net.cpp:382] conv1 -> conv1
I0428 20:11:10.520498 32016 net.cpp:124] Setting up conv1
I0428 20:11:10.520514 32016 net.cpp:131] Top shape: 100 50 8 8 (320000)
I0428 20:11:10.520519 32016 net.cpp:139] Memory required for data: 8794800
I0428 20:11:10.520529 32016 layer_factory.hpp:77] Creating layer pool1
I0428 20:11:10.520537 32016 net.cpp:86] Creating Layer pool1
I0428 20:11:10.520541 32016 net.cpp:408] pool1 <- conv1
I0428 20:11:10.520548 32016 net.cpp:382] pool1 -> pool1
I0428 20:11:10.520592 32016 net.cpp:124] Setting up pool1
I0428 20:11:10.520604 32016 net.cpp:131] Top shape: 100 50 4 4 (80000)
I0428 20:11:10.520608 32016 net.cpp:139] Memory required for data: 9114800
I0428 20:11:10.520612 32016 layer_factory.hpp:77] Creating layer ip1
I0428 20:11:10.520620 32016 net.cpp:86] Creating Layer ip1
I0428 20:11:10.520624 32016 net.cpp:408] ip1 <- pool1
I0428 20:11:10.520630 32016 net.cpp:382] ip1 -> ip1
I0428 20:11:10.520897 32016 net.cpp:124] Setting up ip1
I0428 20:11:10.520908 32016 net.cpp:131] Top shape: 100 25 (2500)
I0428 20:11:10.520925 32016 net.cpp:139] Memory required for data: 9124800
I0428 20:11:10.520936 32016 layer_factory.hpp:77] Creating layer relu1
I0428 20:11:10.520942 32016 net.cpp:86] Creating Layer relu1
I0428 20:11:10.520946 32016 net.cpp:408] relu1 <- ip1
I0428 20:11:10.520951 32016 net.cpp:369] relu1 -> ip1 (in-place)
I0428 20:11:10.521148 32016 net.cpp:124] Setting up relu1
I0428 20:11:10.521159 32016 net.cpp:131] Top shape: 100 25 (2500)
I0428 20:11:10.521162 32016 net.cpp:139] Memory required for data: 9134800
I0428 20:11:10.521167 32016 layer_factory.hpp:77] Creating layer ip2
I0428 20:11:10.521175 32016 net.cpp:86] Creating Layer ip2
I0428 20:11:10.521179 32016 net.cpp:408] ip2 <- ip1
I0428 20:11:10.521186 32016 net.cpp:382] ip2 -> ip2
I0428 20:11:10.521329 32016 net.cpp:124] Setting up ip2
I0428 20:11:10.521338 32016 net.cpp:131] Top shape: 100 10 (1000)
I0428 20:11:10.521342 32016 net.cpp:139] Memory required for data: 9138800
I0428 20:11:10.521348 32016 layer_factory.hpp:77] Creating layer relu2
I0428 20:11:10.521354 32016 net.cpp:86] Creating Layer relu2
I0428 20:11:10.521358 32016 net.cpp:408] relu2 <- ip2
I0428 20:11:10.521363 32016 net.cpp:369] relu2 -> ip2 (in-place)
I0428 20:11:10.521582 32016 net.cpp:124] Setting up relu2
I0428 20:11:10.521594 32016 net.cpp:131] Top shape: 100 10 (1000)
I0428 20:11:10.521597 32016 net.cpp:139] Memory required for data: 9142800
I0428 20:11:10.521601 32016 layer_factory.hpp:77] Creating layer ip3
I0428 20:11:10.521610 32016 net.cpp:86] Creating Layer ip3
I0428 20:11:10.521615 32016 net.cpp:408] ip3 <- ip2
I0428 20:11:10.521620 32016 net.cpp:382] ip3 -> ip3
I0428 20:11:10.521737 32016 net.cpp:124] Setting up ip3
I0428 20:11:10.521746 32016 net.cpp:131] Top shape: 100 10 (1000)
I0428 20:11:10.521749 32016 net.cpp:139] Memory required for data: 9146800
I0428 20:11:10.521759 32016 layer_factory.hpp:77] Creating layer relu3
I0428 20:11:10.521764 32016 net.cpp:86] Creating Layer relu3
I0428 20:11:10.521769 32016 net.cpp:408] relu3 <- ip3
I0428 20:11:10.521775 32016 net.cpp:369] relu3 -> ip3 (in-place)
I0428 20:11:10.522750 32016 net.cpp:124] Setting up relu3
I0428 20:11:10.522764 32016 net.cpp:131] Top shape: 100 10 (1000)
I0428 20:11:10.522769 32016 net.cpp:139] Memory required for data: 9150800
I0428 20:11:10.522773 32016 layer_factory.hpp:77] Creating layer ip3_relu3_0_split
I0428 20:11:10.522781 32016 net.cpp:86] Creating Layer ip3_relu3_0_split
I0428 20:11:10.522785 32016 net.cpp:408] ip3_relu3_0_split <- ip3
I0428 20:11:10.522791 32016 net.cpp:382] ip3_relu3_0_split -> ip3_relu3_0_split_0
I0428 20:11:10.522799 32016 net.cpp:382] ip3_relu3_0_split -> ip3_relu3_0_split_1
I0428 20:11:10.522846 32016 net.cpp:124] Setting up ip3_relu3_0_split
I0428 20:11:10.522853 32016 net.cpp:131] Top shape: 100 10 (1000)
I0428 20:11:10.522858 32016 net.cpp:131] Top shape: 100 10 (1000)
I0428 20:11:10.522861 32016 net.cpp:139] Memory required for data: 9158800
I0428 20:11:10.522864 32016 layer_factory.hpp:77] Creating layer accuracy
I0428 20:11:10.522871 32016 net.cpp:86] Creating Layer accuracy
I0428 20:11:10.522876 32016 net.cpp:408] accuracy <- ip3_relu3_0_split_0
I0428 20:11:10.522879 32016 net.cpp:408] accuracy <- label_mnist_1_split_0
I0428 20:11:10.522886 32016 net.cpp:382] accuracy -> accuracy
…
