…
I0428 19:31:59.504587 22724 net.cpp:296] The NetState phase (0) differed from the phase (1) specified by a rule in layer mnist
I0428 19:31:59.504606 22724 net.cpp:296] The NetState phase (0) differed from the phase (1) specified by a rule in layer accuracy
I0428 19:31:59.504695 22724 net.cpp:53] Initializing net from parameters: 
name: "LeNet"
state {
  phase: TRAIN
  level: 0
  stage: ""
}
layer {
  name: "mnist"
  type: "Data"
  top: "data"
  top: "label"
  include {
    phase: TRAIN
  }
  transform_param {
    scale: 0.00390625
  }
  data_param {
    source: "examples/mnist/mnist_train_lmdb"
    batch_size: 64
    backend: LMDB
  }
}
layer {
  name: "conv0"
  type: "Convolution"
  bottom: "data"
  top: "conv0"
  param {
    lr_mult: 1
  }
  param {
    lr_mult: 2
  }
  convolution_param {
    num_output: 10
    kernel_size: 5
    stride: 1
    weight_filler {
      type: "xavier"
    }
    bias_filler {
      type: "constant"
    }
  }
}
layer {
  name: "pool0"
  type: "Pooling"
  bottom: "conv0"
  top: "pool0"
  pooling_param {
    pool: MAX
    kernel_size: 2
    stride: 2
  }
}
layer {
  name: "ip1"
  type: "InnerProduct"
  bottom: "pool0"
  top: "ip1"
  param {
    lr_mult: 1
  }
  param {
    lr_mult: 2
  }
  inner_product_param {
    num_output: 25
    weight_filler {
      type: "xavier"
    }
    bias_filler {
      type: "constant"
    }
  }
}
layer {
  name: "relu1"
  type: "ReLU"
  bottom: "ip1"
  top: "ip1"
}
layer {
  name: "ip2"
  type: "InnerProduct"
  bottom: "ip1"
  top: "ip2"
  param {
    lr_mult: 1
  }
  param {
    lr_mult: 2
  }
  inner_product_param {
    num_output: 10
    weight_filler {
      type: "xavier"
    }
    bias_filler {
      type: "constant"
    }
  }
}
layer {
  name: "relu2"
  type: "ReLU"
  bottom: "ip2"
  top: "ip2"
}
layer {
  name: "ip3"
  type: "InnerProduct"
  bottom: "ip2"
  top: "ip3"
  param {
    lr_mult: 1
  }
  param {
    lr_mult: 2
  }
  inner_product_param {
    num_output: 10
    weight_filler {
      type: "xavier"
    }
    bias_filler {
      type: "constant"
    }
  }
}
layer {
  name: "relu3"
  type: "ReLU"
  bottom: "ip3"
  top: "ip3"
}
layer {
  name: "loss"
  type: "SoftmaxWithLoss"
  bottom: "ip3"
  bottom: "label"
  top: "loss"
}
I0428 19:31:59.504770 22724 layer_factory.hpp:77] Creating layer mnist
I0428 19:31:59.504906 22724 db_lmdb.cpp:35] Opened lmdb examples/mnist/mnist_train_lmdb
I0428 19:31:59.504936 22724 net.cpp:86] Creating Layer mnist
I0428 19:31:59.504947 22724 net.cpp:382] mnist -> data
I0428 19:31:59.504971 22724 net.cpp:382] mnist -> label
I0428 19:31:59.506094 22724 data_layer.cpp:45] output data size: 64,1,28,28
I0428 19:31:59.508576 22724 net.cpp:124] Setting up mnist
I0428 19:31:59.508594 22724 net.cpp:131] Top shape: 64 1 28 28 (50176)
I0428 19:31:59.508600 22724 net.cpp:131] Top shape: 64 (64)
I0428 19:31:59.508605 22724 net.cpp:139] Memory required for data: 200960
I0428 19:31:59.508611 22724 layer_factory.hpp:77] Creating layer conv0
I0428 19:31:59.508654 22724 net.cpp:86] Creating Layer conv0
I0428 19:31:59.508661 22724 net.cpp:408] conv0 <- data
I0428 19:31:59.508672 22724 net.cpp:382] conv0 -> conv0
I0428 19:31:59.800403 22724 net.cpp:124] Setting up conv0
I0428 19:31:59.800436 22724 net.cpp:131] Top shape: 64 10 24 24 (368640)
I0428 19:31:59.800441 22724 net.cpp:139] Memory required for data: 1675520
I0428 19:31:59.800458 22724 layer_factory.hpp:77] Creating layer pool0
I0428 19:31:59.800473 22724 net.cpp:86] Creating Layer pool0
I0428 19:31:59.800499 22724 net.cpp:408] pool0 <- conv0
I0428 19:31:59.800508 22724 net.cpp:382] pool0 -> pool0
I0428 19:31:59.800565 22724 net.cpp:124] Setting up pool0
I0428 19:31:59.800575 22724 net.cpp:131] Top shape: 64 10 12 12 (92160)
I0428 19:31:59.800580 22724 net.cpp:139] Memory required for data: 2044160
I0428 19:31:59.800582 22724 layer_factory.hpp:77] Creating layer ip1
I0428 19:31:59.800592 22724 net.cpp:86] Creating Layer ip1
I0428 19:31:59.800595 22724 net.cpp:408] ip1 <- pool0
I0428 19:31:59.800601 22724 net.cpp:382] ip1 -> ip1
I0428 19:31:59.800977 22724 net.cpp:124] Setting up ip1
I0428 19:31:59.800987 22724 net.cpp:131] Top shape: 64 25 (1600)
I0428 19:31:59.800992 22724 net.cpp:139] Memory required for data: 2050560
I0428 19:31:59.801000 22724 layer_factory.hpp:77] Creating layer relu1
I0428 19:31:59.801008 22724 net.cpp:86] Creating Layer relu1
I0428 19:31:59.801013 22724 net.cpp:408] relu1 <- ip1
I0428 19:31:59.801018 22724 net.cpp:369] relu1 -> ip1 (in-place)
I0428 19:31:59.801213 22724 net.cpp:124] Setting up relu1
I0428 19:31:59.801223 22724 net.cpp:131] Top shape: 64 25 (1600)
I0428 19:31:59.801228 22724 net.cpp:139] Memory required for data: 2056960
I0428 19:31:59.801231 22724 layer_factory.hpp:77] Creating layer ip2
I0428 19:31:59.801239 22724 net.cpp:86] Creating Layer ip2
I0428 19:31:59.801242 22724 net.cpp:408] ip2 <- ip1
I0428 19:31:59.801249 22724 net.cpp:382] ip2 -> ip2
I0428 19:31:59.801367 22724 net.cpp:124] Setting up ip2
I0428 19:31:59.801379 22724 net.cpp:131] Top shape: 64 10 (640)
I0428 19:31:59.801384 22724 net.cpp:139] Memory required for data: 2059520
I0428 19:31:59.801396 22724 layer_factory.hpp:77] Creating layer relu2
I0428 19:31:59.801403 22724 net.cpp:86] Creating Layer relu2
I0428 19:31:59.801407 22724 net.cpp:408] relu2 <- ip2
I0428 19:31:59.801412 22724 net.cpp:369] relu2 -> ip2 (in-place)
I0428 19:31:59.802274 22724 net.cpp:124] Setting up relu2
I0428 19:31:59.802289 22724 net.cpp:131] Top shape: 64 10 (640)
I0428 19:31:59.802294 22724 net.cpp:139] Memory required for data: 2062080
I0428 19:31:59.802299 22724 layer_factory.hpp:77] Creating layer ip3
I0428 19:31:59.802306 22724 net.cpp:86] Creating Layer ip3
I0428 19:31:59.802310 22724 net.cpp:408] ip3 <- ip2
I0428 19:31:59.802317 22724 net.cpp:382] ip3 -> ip3
I0428 19:31:59.802436 22724 net.cpp:124] Setting up ip3
I0428 19:31:59.802446 22724 net.cpp:131] Top shape: 64 10 (640)
I0428 19:31:59.802450 22724 net.cpp:139] Memory required for data: 2064640
I0428 19:31:59.802458 22724 layer_factory.hpp:77] Creating layer relu3
I0428 19:31:59.802465 22724 net.cpp:86] Creating Layer relu3
I0428 19:31:59.802469 22724 net.cpp:408] relu3 <- ip3
I0428 19:31:59.802474 22724 net.cpp:369] relu3 -> ip3 (in-place)
I0428 19:31:59.802651 22724 net.cpp:124] Setting up relu3
I0428 19:31:59.802660 22724 net.cpp:131] Top shape: 64 10 (640)
I0428 19:31:59.802664 22724 net.cpp:139] Memory required for data: 2067200
I0428 19:31:59.802667 22724 layer_factory.hpp:77] Creating layer loss
I0428 19:31:59.802675 22724 net.cpp:86] Creating Layer loss
I0428 19:31:59.802678 22724 net.cpp:408] loss <- ip3
I0428 19:31:59.802682 22724 net.cpp:408] loss <- label
I0428 19:31:59.802690 22724 net.cpp:382] loss -> loss
I0428 19:31:59.802711 22724 layer_factory.hpp:77] Creating layer loss
…
I0428 19:31:59.803412 22724 solver.cpp:173] Creating test net (#0) specified by net file: ECE595/mnist/train_test/var_everything2/lenet_train_test139.prototxt
I0428 19:31:59.803443 22724 net.cpp:296] The NetState phase (1) differed from the phase (0) specified by a rule in layer mnist
I0428 19:31:59.803539 22724 net.cpp:53] Initializing net from parameters: 
name: "LeNet"
state {
  phase: TEST
}
layer {
  name: "mnist"
  type: "Data"
  top: "data"
  top: "label"
  include {
    phase: TEST
  }
  transform_param {
    scale: 0.00390625
  }
  data_param {
    source: "examples/mnist/mnist_test_lmdb"
    batch_size: 100
    backend: LMDB
  }
}
layer {
  name: "conv0"
  type: "Convolution"
  bottom: "data"
  top: "conv0"
  param {
    lr_mult: 1
  }
  param {
    lr_mult: 2
  }
  convolution_param {
    num_output: 10
    kernel_size: 5
    stride: 1
    weight_filler {
      type: "xavier"
    }
    bias_filler {
      type: "constant"
    }
  }
}
layer {
  name: "pool0"
  type: "Pooling"
  bottom: "conv0"
  top: "pool0"
  pooling_param {
    pool: MAX
    kernel_size: 2
    stride: 2
  }
}
layer {
  name: "ip1"
  type: "InnerProduct"
  bottom: "pool0"
  top: "ip1"
  param {
    lr_mult: 1
  }
  param {
    lr_mult: 2
  }
  inner_product_param {
    num_output: 25
    weight_filler {
      type: "xavier"
    }
    bias_filler {
      type: "constant"
    }
  }
}
layer {
  name: "relu1"
  type: "ReLU"
  bottom: "ip1"
  top: "ip1"
}
layer {
  name: "ip2"
  type: "InnerProduct"
  bottom: "ip1"
  top: "ip2"
  param {
    lr_mult: 1
  }
  param {
    lr_mult: 2
  }
  inner_product_param {
    num_output: 10
    weight_filler {
      type: "xavier"
    }
    bias_filler {
      type: "constant"
    }
  }
}
layer {
  name: "relu2"
  type: "ReLU"
  bottom: "ip2"
  top: "ip2"
}
layer {
  name: "ip3"
  type: "InnerProduct"
  bottom: "ip2"
  top: "ip3"
  param {
    lr_mult: 1
  }
  param {
    lr_mult: 2
  }
  inner_product_param {
    num_output: 10
    weight_filler {
      type: "xavier"
    }
    bias_filler {
      type: "constant"
    }
  }
}
layer {
  name: "relu3"
  type: "ReLU"
  bottom: "ip3"
  top: "ip3"
}
layer {
  name: "accuracy"
  type: "Accuracy"
  bottom: "ip3"
  bottom: "label"
  top: "accuracy"
  include {
    phase: TEST
  }
}
layer {
  name: "loss"
  type: "SoftmaxWithLoss"
  bottom: "ip3"
  bottom: "label"
  top: "loss"
}
I0428 19:31:59.803614 22724 layer_factory.hpp:77] Creating layer mnist
I0428 19:31:59.803668 22724 db_lmdb.cpp:35] Opened lmdb examples/mnist/mnist_test_lmdb
I0428 19:31:59.803689 22724 net.cpp:86] Creating Layer mnist
I0428 19:31:59.803694 22724 net.cpp:382] mnist -> data
I0428 19:31:59.803704 22724 net.cpp:382] mnist -> label
I0428 19:31:59.803802 22724 data_layer.cpp:45] output data size: 100,1,28,28
I0428 19:31:59.806016 22724 net.cpp:124] Setting up mnist
I0428 19:31:59.806032 22724 net.cpp:131] Top shape: 100 1 28 28 (78400)
I0428 19:31:59.806040 22724 net.cpp:131] Top shape: 100 (100)
I0428 19:31:59.806043 22724 net.cpp:139] Memory required for data: 314000
I0428 19:31:59.806047 22724 layer_factory.hpp:77] Creating layer label_mnist_1_split
I0428 19:31:59.806056 22724 net.cpp:86] Creating Layer label_mnist_1_split
I0428 19:31:59.806059 22724 net.cpp:408] label_mnist_1_split <- label
I0428 19:31:59.806066 22724 net.cpp:382] label_mnist_1_split -> label_mnist_1_split_0
I0428 19:31:59.806073 22724 net.cpp:382] label_mnist_1_split -> label_mnist_1_split_1
I0428 19:31:59.806118 22724 net.cpp:124] Setting up label_mnist_1_split
I0428 19:31:59.806123 22724 net.cpp:131] Top shape: 100 (100)
I0428 19:31:59.806128 22724 net.cpp:131] Top shape: 100 (100)
I0428 19:31:59.806131 22724 net.cpp:139] Memory required for data: 314800
I0428 19:31:59.806147 22724 layer_factory.hpp:77] Creating layer conv0
I0428 19:31:59.806159 22724 net.cpp:86] Creating Layer conv0
I0428 19:31:59.806162 22724 net.cpp:408] conv0 <- data
I0428 19:31:59.806169 22724 net.cpp:382] conv0 -> conv0
I0428 19:31:59.808022 22724 net.cpp:124] Setting up conv0
I0428 19:31:59.808042 22724 net.cpp:131] Top shape: 100 10 24 24 (576000)
I0428 19:31:59.808048 22724 net.cpp:139] Memory required for data: 2618800
I0428 19:31:59.808064 22724 layer_factory.hpp:77] Creating layer pool0
I0428 19:31:59.808076 22724 net.cpp:86] Creating Layer pool0
I0428 19:31:59.808082 22724 net.cpp:408] pool0 <- conv0
I0428 19:31:59.808089 22724 net.cpp:382] pool0 -> pool0
I0428 19:31:59.808132 22724 net.cpp:124] Setting up pool0
I0428 19:31:59.808141 22724 net.cpp:131] Top shape: 100 10 12 12 (144000)
I0428 19:31:59.808145 22724 net.cpp:139] Memory required for data: 3194800
I0428 19:31:59.808148 22724 layer_factory.hpp:77] Creating layer ip1
I0428 19:31:59.808156 22724 net.cpp:86] Creating Layer ip1
I0428 19:31:59.808159 22724 net.cpp:408] ip1 <- pool0
I0428 19:31:59.808166 22724 net.cpp:382] ip1 -> ip1
I0428 19:31:59.808523 22724 net.cpp:124] Setting up ip1
I0428 19:31:59.808532 22724 net.cpp:131] Top shape: 100 25 (2500)
I0428 19:31:59.808537 22724 net.cpp:139] Memory required for data: 3204800
I0428 19:31:59.808544 22724 layer_factory.hpp:77] Creating layer relu1
I0428 19:31:59.808553 22724 net.cpp:86] Creating Layer relu1
I0428 19:31:59.808558 22724 net.cpp:408] relu1 <- ip1
I0428 19:31:59.808567 22724 net.cpp:369] relu1 -> ip1 (in-place)
I0428 19:31:59.808914 22724 net.cpp:124] Setting up relu1
I0428 19:31:59.808925 22724 net.cpp:131] Top shape: 100 25 (2500)
I0428 19:31:59.808929 22724 net.cpp:139] Memory required for data: 3214800
I0428 19:31:59.808938 22724 layer_factory.hpp:77] Creating layer ip2
I0428 19:31:59.808946 22724 net.cpp:86] Creating Layer ip2
I0428 19:31:59.808949 22724 net.cpp:408] ip2 <- ip1
I0428 19:31:59.808961 22724 net.cpp:382] ip2 -> ip2
I0428 19:31:59.809077 22724 net.cpp:124] Setting up ip2
I0428 19:31:59.809084 22724 net.cpp:131] Top shape: 100 10 (1000)
I0428 19:31:59.809088 22724 net.cpp:139] Memory required for data: 3218800
I0428 19:31:59.809098 22724 layer_factory.hpp:77] Creating layer relu2
I0428 19:31:59.809103 22724 net.cpp:86] Creating Layer relu2
I0428 19:31:59.809113 22724 net.cpp:408] relu2 <- ip2
I0428 19:31:59.809118 22724 net.cpp:369] relu2 -> ip2 (in-place)
I0428 19:31:59.810045 22724 net.cpp:124] Setting up relu2
I0428 19:31:59.810060 22724 net.cpp:131] Top shape: 100 10 (1000)
I0428 19:31:59.810065 22724 net.cpp:139] Memory required for data: 3222800
I0428 19:31:59.810068 22724 layer_factory.hpp:77] Creating layer ip3
I0428 19:31:59.810078 22724 net.cpp:86] Creating Layer ip3
I0428 19:31:59.810082 22724 net.cpp:408] ip3 <- ip2
I0428 19:31:59.810088 22724 net.cpp:382] ip3 -> ip3
I0428 19:31:59.810220 22724 net.cpp:124] Setting up ip3
I0428 19:31:59.810231 22724 net.cpp:131] Top shape: 100 10 (1000)
I0428 19:31:59.810235 22724 net.cpp:139] Memory required for data: 3226800
I0428 19:31:59.810241 22724 layer_factory.hpp:77] Creating layer relu3
I0428 19:31:59.810247 22724 net.cpp:86] Creating Layer relu3
I0428 19:31:59.810251 22724 net.cpp:408] relu3 <- ip3
I0428 19:31:59.810256 22724 net.cpp:369] relu3 -> ip3 (in-place)
I0428 19:31:59.810431 22724 net.cpp:124] Setting up relu3
I0428 19:31:59.810441 22724 net.cpp:131] Top shape: 100 10 (1000)
I0428 19:31:59.810446 22724 net.cpp:139] Memory required for data: 3230800
I0428 19:31:59.810449 22724 layer_factory.hpp:77] Creating layer ip3_relu3_0_split
I0428 19:31:59.810456 22724 net.cpp:86] Creating Layer ip3_relu3_0_split
I0428 19:31:59.810459 22724 net.cpp:408] ip3_relu3_0_split <- ip3
I0428 19:31:59.810464 22724 net.cpp:382] ip3_relu3_0_split -> ip3_relu3_0_split_0
I0428 19:31:59.810472 22724 net.cpp:382] ip3_relu3_0_split -> ip3_relu3_0_split_1
I0428 19:31:59.810511 22724 net.cpp:124] Setting up ip3_relu3_0_split
I0428 19:31:59.810518 22724 net.cpp:131] Top shape: 100 10 (1000)
I0428 19:31:59.810521 22724 net.cpp:131] Top shape: 100 10 (1000)
I0428 19:31:59.810539 22724 net.cpp:139] Memory required for data: 3238800
I0428 19:31:59.810542 22724 layer_factory.hpp:77] Creating layer accuracy
I0428 19:31:59.810552 22724 net.cpp:86] Creating Layer accuracy
I0428 19:31:59.810557 22724 net.cpp:408] accuracy <- ip3_relu3_0_split_0
I0428 19:31:59.810561 22724 net.cpp:408] accuracy <- label_mnist_1_split_0
I0428 19:31:59.810575 22724 net.cpp:382] accuracy -> accuracy
…
