…
I0428 19:55:55.124817 28302 net.cpp:296] The NetState phase (0) differed from the phase (1) specified by a rule in layer mnist
I0428 19:55:55.124833 28302 net.cpp:296] The NetState phase (0) differed from the phase (1) specified by a rule in layer accuracy
I0428 19:55:55.124915 28302 net.cpp:53] Initializing net from parameters: 
name: "LeNet"
state {
  phase: TRAIN
  level: 0
  stage: ""
}
layer {
  name: "mnist"
  type: "Data"
  top: "data"
  top: "label"
  include {
    phase: TRAIN
  }
  transform_param {
    scale: 0.00390625
  }
  data_param {
    source: "examples/mnist/mnist_train_lmdb"
    batch_size: 64
    backend: LMDB
  }
}
layer {
  name: "conv0"
  type: "Convolution"
  bottom: "data"
  top: "conv0"
  param {
    lr_mult: 1
  }
  param {
    lr_mult: 2
  }
  convolution_param {
    num_output: 10
    kernel_size: 5
    stride: 1
    weight_filler {
      type: "xavier"
    }
    bias_filler {
      type: "constant"
    }
  }
}
layer {
  name: "pool0"
  type: "Pooling"
  bottom: "conv0"
  top: "pool0"
  pooling_param {
    pool: MAX
    kernel_size: 2
    stride: 2
  }
}
layer {
  name: "conv1"
  type: "Convolution"
  bottom: "pool0"
  top: "conv1"
  param {
    lr_mult: 1
  }
  param {
    lr_mult: 2
  }
  convolution_param {
    num_output: 2
    kernel_size: 5
    stride: 1
    weight_filler {
      type: "xavier"
    }
    bias_filler {
      type: "constant"
    }
  }
}
layer {
  name: "pool1"
  type: "Pooling"
  bottom: "conv1"
  top: "pool1"
  pooling_param {
    pool: MAX
    kernel_size: 2
    stride: 2
  }
}
layer {
  name: "ip1"
  type: "InnerProduct"
  bottom: "pool1"
  top: "ip1"
  param {
    lr_mult: 1
  }
  param {
    lr_mult: 2
  }
  inner_product_param {
    num_output: 10
    weight_filler {
      type: "xavier"
    }
    bias_filler {
      type: "constant"
    }
  }
}
layer {
  name: "relu1"
  type: "ReLU"
  bottom: "ip1"
  top: "ip1"
}
layer {
  name: "loss"
  type: "SoftmaxWithLoss"
  bottom: "ip1"
  bottom: "label"
  top: "loss"
}
I0428 19:55:55.124987 28302 layer_factory.hpp:77] Creating layer mnist
I0428 19:55:55.125088 28302 db_lmdb.cpp:35] Opened lmdb examples/mnist/mnist_train_lmdb
I0428 19:55:55.125113 28302 net.cpp:86] Creating Layer mnist
I0428 19:55:55.125120 28302 net.cpp:382] mnist -> data
I0428 19:55:55.125143 28302 net.cpp:382] mnist -> label
I0428 19:55:55.126226 28302 data_layer.cpp:45] output data size: 64,1,28,28
I0428 19:55:55.128895 28302 net.cpp:124] Setting up mnist
I0428 19:55:55.128912 28302 net.cpp:131] Top shape: 64 1 28 28 (50176)
I0428 19:55:55.128918 28302 net.cpp:131] Top shape: 64 (64)
I0428 19:55:55.128923 28302 net.cpp:139] Memory required for data: 200960
I0428 19:55:55.128931 28302 layer_factory.hpp:77] Creating layer conv0
I0428 19:55:55.128948 28302 net.cpp:86] Creating Layer conv0
I0428 19:55:55.128954 28302 net.cpp:408] conv0 <- data
I0428 19:55:55.128968 28302 net.cpp:382] conv0 -> conv0
I0428 19:55:55.421427 28302 net.cpp:124] Setting up conv0
I0428 19:55:55.421458 28302 net.cpp:131] Top shape: 64 10 24 24 (368640)
I0428 19:55:55.421463 28302 net.cpp:139] Memory required for data: 1675520
I0428 19:55:55.421480 28302 layer_factory.hpp:77] Creating layer pool0
I0428 19:55:55.421494 28302 net.cpp:86] Creating Layer pool0
I0428 19:55:55.421499 28302 net.cpp:408] pool0 <- conv0
I0428 19:55:55.421506 28302 net.cpp:382] pool0 -> pool0
I0428 19:55:55.421561 28302 net.cpp:124] Setting up pool0
I0428 19:55:55.421581 28302 net.cpp:131] Top shape: 64 10 12 12 (92160)
I0428 19:55:55.421603 28302 net.cpp:139] Memory required for data: 2044160
I0428 19:55:55.421607 28302 layer_factory.hpp:77] Creating layer conv1
I0428 19:55:55.421620 28302 net.cpp:86] Creating Layer conv1
I0428 19:55:55.421624 28302 net.cpp:408] conv1 <- pool0
I0428 19:55:55.421630 28302 net.cpp:382] conv1 -> conv1
I0428 19:55:55.423887 28302 net.cpp:124] Setting up conv1
I0428 19:55:55.423907 28302 net.cpp:131] Top shape: 64 2 8 8 (8192)
I0428 19:55:55.423910 28302 net.cpp:139] Memory required for data: 2076928
I0428 19:55:55.423921 28302 layer_factory.hpp:77] Creating layer pool1
I0428 19:55:55.423931 28302 net.cpp:86] Creating Layer pool1
I0428 19:55:55.423936 28302 net.cpp:408] pool1 <- conv1
I0428 19:55:55.423941 28302 net.cpp:382] pool1 -> pool1
I0428 19:55:55.423990 28302 net.cpp:124] Setting up pool1
I0428 19:55:55.423995 28302 net.cpp:131] Top shape: 64 2 4 4 (2048)
I0428 19:55:55.424000 28302 net.cpp:139] Memory required for data: 2085120
I0428 19:55:55.424003 28302 layer_factory.hpp:77] Creating layer ip1
I0428 19:55:55.424012 28302 net.cpp:86] Creating Layer ip1
I0428 19:55:55.424016 28302 net.cpp:408] ip1 <- pool1
I0428 19:55:55.424022 28302 net.cpp:382] ip1 -> ip1
I0428 19:55:55.424144 28302 net.cpp:124] Setting up ip1
I0428 19:55:55.424154 28302 net.cpp:131] Top shape: 64 10 (640)
I0428 19:55:55.424157 28302 net.cpp:139] Memory required for data: 2087680
I0428 19:55:55.424166 28302 layer_factory.hpp:77] Creating layer relu1
I0428 19:55:55.424172 28302 net.cpp:86] Creating Layer relu1
I0428 19:55:55.424176 28302 net.cpp:408] relu1 <- ip1
I0428 19:55:55.424182 28302 net.cpp:369] relu1 -> ip1 (in-place)
I0428 19:55:55.424387 28302 net.cpp:124] Setting up relu1
I0428 19:55:55.424399 28302 net.cpp:131] Top shape: 64 10 (640)
I0428 19:55:55.424403 28302 net.cpp:139] Memory required for data: 2090240
I0428 19:55:55.424407 28302 layer_factory.hpp:77] Creating layer loss
I0428 19:55:55.424414 28302 net.cpp:86] Creating Layer loss
I0428 19:55:55.424418 28302 net.cpp:408] loss <- ip1
I0428 19:55:55.424422 28302 net.cpp:408] loss <- label
I0428 19:55:55.424428 28302 net.cpp:382] loss -> loss
I0428 19:55:55.424448 28302 layer_factory.hpp:77] Creating layer loss
…
I0428 19:55:55.425806 28302 solver.cpp:173] Creating test net (#0) specified by net file: ECE595/mnist/train_test/var_everything2/lenet_train_test743.prototxt
I0428 19:55:55.425834 28302 net.cpp:296] The NetState phase (1) differed from the phase (0) specified by a rule in layer mnist
I0428 19:55:55.425922 28302 net.cpp:53] Initializing net from parameters: 
name: "LeNet"
state {
  phase: TEST
}
layer {
  name: "mnist"
  type: "Data"
  top: "data"
  top: "label"
  include {
    phase: TEST
  }
  transform_param {
    scale: 0.00390625
  }
  data_param {
    source: "examples/mnist/mnist_test_lmdb"
    batch_size: 100
    backend: LMDB
  }
}
layer {
  name: "conv0"
  type: "Convolution"
  bottom: "data"
  top: "conv0"
  param {
    lr_mult: 1
  }
  param {
    lr_mult: 2
  }
  convolution_param {
    num_output: 10
    kernel_size: 5
    stride: 1
    weight_filler {
      type: "xavier"
    }
    bias_filler {
      type: "constant"
    }
  }
}
layer {
  name: "pool0"
  type: "Pooling"
  bottom: "conv0"
  top: "pool0"
  pooling_param {
    pool: MAX
    kernel_size: 2
    stride: 2
  }
}
layer {
  name: "conv1"
  type: "Convolution"
  bottom: "pool0"
  top: "conv1"
  param {
    lr_mult: 1
  }
  param {
    lr_mult: 2
  }
  convolution_param {
    num_output: 2
    kernel_size: 5
    stride: 1
    weight_filler {
      type: "xavier"
    }
    bias_filler {
      type: "constant"
    }
  }
}
layer {
  name: "pool1"
  type: "Pooling"
  bottom: "conv1"
  top: "pool1"
  pooling_param {
    pool: MAX
    kernel_size: 2
    stride: 2
  }
}
layer {
  name: "ip1"
  type: "InnerProduct"
  bottom: "pool1"
  top: "ip1"
  param {
    lr_mult: 1
  }
  param {
    lr_mult: 2
  }
  inner_product_param {
    num_output: 10
    weight_filler {
      type: "xavier"
    }
    bias_filler {
      type: "constant"
    }
  }
}
layer {
  name: "relu1"
  type: "ReLU"
  bottom: "ip1"
  top: "ip1"
}
layer {
  name: "accuracy"
  type: "Accuracy"
  bottom: "ip1"
  bottom: "label"
  top: "accuracy"
  include {
    phase: TEST
  }
}
layer {
  name: "loss"
  type: "SoftmaxWithLoss"
  bottom: "ip1"
  bottom: "label"
  top: "loss"
}
I0428 19:55:55.426012 28302 layer_factory.hpp:77] Creating layer mnist
I0428 19:55:55.426064 28302 db_lmdb.cpp:35] Opened lmdb examples/mnist/mnist_test_lmdb
I0428 19:55:55.426079 28302 net.cpp:86] Creating Layer mnist
I0428 19:55:55.426086 28302 net.cpp:382] mnist -> data
I0428 19:55:55.426095 28302 net.cpp:382] mnist -> label
I0428 19:55:55.426203 28302 data_layer.cpp:45] output data size: 100,1,28,28
I0428 19:55:55.428380 28302 net.cpp:124] Setting up mnist
I0428 19:55:55.428396 28302 net.cpp:131] Top shape: 100 1 28 28 (78400)
I0428 19:55:55.428402 28302 net.cpp:131] Top shape: 100 (100)
I0428 19:55:55.428406 28302 net.cpp:139] Memory required for data: 314000
I0428 19:55:55.428411 28302 layer_factory.hpp:77] Creating layer label_mnist_1_split
I0428 19:55:55.428417 28302 net.cpp:86] Creating Layer label_mnist_1_split
I0428 19:55:55.428421 28302 net.cpp:408] label_mnist_1_split <- label
I0428 19:55:55.428454 28302 net.cpp:382] label_mnist_1_split -> label_mnist_1_split_0
I0428 19:55:55.428463 28302 net.cpp:382] label_mnist_1_split -> label_mnist_1_split_1
I0428 19:55:55.428519 28302 net.cpp:124] Setting up label_mnist_1_split
I0428 19:55:55.428529 28302 net.cpp:131] Top shape: 100 (100)
I0428 19:55:55.428534 28302 net.cpp:131] Top shape: 100 (100)
I0428 19:55:55.428537 28302 net.cpp:139] Memory required for data: 314800
I0428 19:55:55.428540 28302 layer_factory.hpp:77] Creating layer conv0
I0428 19:55:55.428551 28302 net.cpp:86] Creating Layer conv0
I0428 19:55:55.428555 28302 net.cpp:408] conv0 <- data
I0428 19:55:55.428561 28302 net.cpp:382] conv0 -> conv0
I0428 19:55:55.429672 28302 net.cpp:124] Setting up conv0
I0428 19:55:55.429687 28302 net.cpp:131] Top shape: 100 10 24 24 (576000)
I0428 19:55:55.429692 28302 net.cpp:139] Memory required for data: 2618800
I0428 19:55:55.429702 28302 layer_factory.hpp:77] Creating layer pool0
I0428 19:55:55.429713 28302 net.cpp:86] Creating Layer pool0
I0428 19:55:55.429718 28302 net.cpp:408] pool0 <- conv0
I0428 19:55:55.429723 28302 net.cpp:382] pool0 -> pool0
I0428 19:55:55.429767 28302 net.cpp:124] Setting up pool0
I0428 19:55:55.429774 28302 net.cpp:131] Top shape: 100 10 12 12 (144000)
I0428 19:55:55.429777 28302 net.cpp:139] Memory required for data: 3194800
I0428 19:55:55.429780 28302 layer_factory.hpp:77] Creating layer conv1
I0428 19:55:55.429790 28302 net.cpp:86] Creating Layer conv1
I0428 19:55:55.429795 28302 net.cpp:408] conv1 <- pool0
I0428 19:55:55.429801 28302 net.cpp:382] conv1 -> conv1
I0428 19:55:55.432112 28302 net.cpp:124] Setting up conv1
I0428 19:55:55.432127 28302 net.cpp:131] Top shape: 100 2 8 8 (12800)
I0428 19:55:55.432132 28302 net.cpp:139] Memory required for data: 3246000
I0428 19:55:55.432142 28302 layer_factory.hpp:77] Creating layer pool1
I0428 19:55:55.432152 28302 net.cpp:86] Creating Layer pool1
I0428 19:55:55.432168 28302 net.cpp:408] pool1 <- conv1
I0428 19:55:55.432173 28302 net.cpp:382] pool1 -> pool1
I0428 19:55:55.432277 28302 net.cpp:124] Setting up pool1
I0428 19:55:55.432286 28302 net.cpp:131] Top shape: 100 2 4 4 (3200)
I0428 19:55:55.432291 28302 net.cpp:139] Memory required for data: 3258800
I0428 19:55:55.432294 28302 layer_factory.hpp:77] Creating layer ip1
I0428 19:55:55.432302 28302 net.cpp:86] Creating Layer ip1
I0428 19:55:55.432307 28302 net.cpp:408] ip1 <- pool1
I0428 19:55:55.432312 28302 net.cpp:382] ip1 -> ip1
I0428 19:55:55.432433 28302 net.cpp:124] Setting up ip1
I0428 19:55:55.432443 28302 net.cpp:131] Top shape: 100 10 (1000)
I0428 19:55:55.432447 28302 net.cpp:139] Memory required for data: 3262800
I0428 19:55:55.432456 28302 layer_factory.hpp:77] Creating layer relu1
I0428 19:55:55.432464 28302 net.cpp:86] Creating Layer relu1
I0428 19:55:55.432468 28302 net.cpp:408] relu1 <- ip1
I0428 19:55:55.432473 28302 net.cpp:369] relu1 -> ip1 (in-place)
I0428 19:55:55.433454 28302 net.cpp:124] Setting up relu1
I0428 19:55:55.433468 28302 net.cpp:131] Top shape: 100 10 (1000)
I0428 19:55:55.433473 28302 net.cpp:139] Memory required for data: 3266800
I0428 19:55:55.433477 28302 layer_factory.hpp:77] Creating layer ip1_relu1_0_split
I0428 19:55:55.433486 28302 net.cpp:86] Creating Layer ip1_relu1_0_split
I0428 19:55:55.433490 28302 net.cpp:408] ip1_relu1_0_split <- ip1
I0428 19:55:55.433496 28302 net.cpp:382] ip1_relu1_0_split -> ip1_relu1_0_split_0
I0428 19:55:55.433504 28302 net.cpp:382] ip1_relu1_0_split -> ip1_relu1_0_split_1
I0428 19:55:55.433550 28302 net.cpp:124] Setting up ip1_relu1_0_split
I0428 19:55:55.433557 28302 net.cpp:131] Top shape: 100 10 (1000)
I0428 19:55:55.433562 28302 net.cpp:131] Top shape: 100 10 (1000)
I0428 19:55:55.433565 28302 net.cpp:139] Memory required for data: 3274800
I0428 19:55:55.433568 28302 layer_factory.hpp:77] Creating layer accuracy
I0428 19:55:55.433574 28302 net.cpp:86] Creating Layer accuracy
I0428 19:55:55.433578 28302 net.cpp:408] accuracy <- ip1_relu1_0_split_0
I0428 19:55:55.433583 28302 net.cpp:408] accuracy <- label_mnist_1_split_0
I0428 19:55:55.433593 28302 net.cpp:382] accuracy -> accuracy
…
