…
I0428 20:04:49.183451 30467 net.cpp:296] The NetState phase (0) differed from the phase (1) specified by a rule in layer mnist
I0428 20:04:49.183481 30467 net.cpp:296] The NetState phase (0) differed from the phase (1) specified by a rule in layer accuracy
I0428 20:04:49.183557 30467 net.cpp:53] Initializing net from parameters: 
name: "LeNet"
state {
  phase: TRAIN
  level: 0
  stage: ""
}
layer {
  name: "mnist"
  type: "Data"
  top: "data"
  top: "label"
  include {
    phase: TRAIN
  }
  transform_param {
    scale: 0.00390625
  }
  data_param {
    source: "examples/mnist/mnist_train_lmdb"
    batch_size: 64
    backend: LMDB
  }
}
layer {
  name: "conv0"
  type: "Convolution"
  bottom: "data"
  top: "conv0"
  param {
    lr_mult: 1
  }
  param {
    lr_mult: 2
  }
  convolution_param {
    num_output: 25
    kernel_size: 5
    stride: 1
    weight_filler {
      type: "xavier"
    }
    bias_filler {
      type: "constant"
    }
  }
}
layer {
  name: "pool0"
  type: "Pooling"
  bottom: "conv0"
  top: "pool0"
  pooling_param {
    pool: MAX
    kernel_size: 2
    stride: 2
  }
}
layer {
  name: "conv1"
  type: "Convolution"
  bottom: "pool0"
  top: "conv1"
  param {
    lr_mult: 1
  }
  param {
    lr_mult: 2
  }
  convolution_param {
    num_output: 2
    kernel_size: 5
    stride: 1
    weight_filler {
      type: "xavier"
    }
    bias_filler {
      type: "constant"
    }
  }
}
layer {
  name: "pool1"
  type: "Pooling"
  bottom: "conv1"
  top: "pool1"
  pooling_param {
    pool: MAX
    kernel_size: 2
    stride: 2
  }
}
layer {
  name: "ip1"
  type: "InnerProduct"
  bottom: "pool1"
  top: "ip1"
  param {
    lr_mult: 1
  }
  param {
    lr_mult: 2
  }
  inner_product_param {
    num_output: 25
    weight_filler {
      type: "xavier"
    }
    bias_filler {
      type: "constant"
    }
  }
}
layer {
  name: "relu1"
  type: "ReLU"
  bottom: "ip1"
  top: "ip1"
}
layer {
  name: "ip2"
  type: "InnerProduct"
  bottom: "ip1"
  top: "ip2"
  param {
    lr_mult: 1
  }
  param {
    lr_mult: 2
  }
  inner_product_param {
    num_output: 10
    weight_filler {
      type: "xavier"
    }
    bias_filler {
      type: "constant"
    }
  }
}
layer {
  name: "relu2"
  type: "ReLU"
  bottom: "ip2"
  top: "ip2"
}
layer {
  name: "loss"
  type: "SoftmaxWithLoss"
  bottom: "ip2"
  bottom: "label"
  top: "loss"
}
I0428 20:04:49.183631 30467 layer_factory.hpp:77] Creating layer mnist
I0428 20:04:49.183710 30467 db_lmdb.cpp:35] Opened lmdb examples/mnist/mnist_train_lmdb
I0428 20:04:49.183732 30467 net.cpp:86] Creating Layer mnist
I0428 20:04:49.183737 30467 net.cpp:382] mnist -> data
I0428 20:04:49.183756 30467 net.cpp:382] mnist -> label
I0428 20:04:49.184670 30467 data_layer.cpp:45] output data size: 64,1,28,28
I0428 20:04:49.186919 30467 net.cpp:124] Setting up mnist
I0428 20:04:49.186951 30467 net.cpp:131] Top shape: 64 1 28 28 (50176)
I0428 20:04:49.186956 30467 net.cpp:131] Top shape: 64 (64)
I0428 20:04:49.186959 30467 net.cpp:139] Memory required for data: 200960
I0428 20:04:49.186964 30467 layer_factory.hpp:77] Creating layer conv0
I0428 20:04:49.186977 30467 net.cpp:86] Creating Layer conv0
I0428 20:04:49.186982 30467 net.cpp:408] conv0 <- data
I0428 20:04:49.186991 30467 net.cpp:382] conv0 -> conv0
I0428 20:04:49.415773 30467 net.cpp:124] Setting up conv0
I0428 20:04:49.415801 30467 net.cpp:131] Top shape: 64 25 24 24 (921600)
I0428 20:04:49.415820 30467 net.cpp:139] Memory required for data: 3887360
I0428 20:04:49.415853 30467 layer_factory.hpp:77] Creating layer pool0
I0428 20:04:49.415880 30467 net.cpp:86] Creating Layer pool0
I0428 20:04:49.415884 30467 net.cpp:408] pool0 <- conv0
I0428 20:04:49.415889 30467 net.cpp:382] pool0 -> pool0
I0428 20:04:49.415932 30467 net.cpp:124] Setting up pool0
I0428 20:04:49.415937 30467 net.cpp:131] Top shape: 64 25 12 12 (230400)
I0428 20:04:49.415940 30467 net.cpp:139] Memory required for data: 4808960
I0428 20:04:49.415943 30467 layer_factory.hpp:77] Creating layer conv1
I0428 20:04:49.415954 30467 net.cpp:86] Creating Layer conv1
I0428 20:04:49.415957 30467 net.cpp:408] conv1 <- pool0
I0428 20:04:49.415961 30467 net.cpp:382] conv1 -> conv1
I0428 20:04:49.418728 30467 net.cpp:124] Setting up conv1
I0428 20:04:49.418741 30467 net.cpp:131] Top shape: 64 2 8 8 (8192)
I0428 20:04:49.418761 30467 net.cpp:139] Memory required for data: 4841728
I0428 20:04:49.418768 30467 layer_factory.hpp:77] Creating layer pool1
I0428 20:04:49.418776 30467 net.cpp:86] Creating Layer pool1
I0428 20:04:49.418778 30467 net.cpp:408] pool1 <- conv1
I0428 20:04:49.418783 30467 net.cpp:382] pool1 -> pool1
I0428 20:04:49.418817 30467 net.cpp:124] Setting up pool1
I0428 20:04:49.418822 30467 net.cpp:131] Top shape: 64 2 4 4 (2048)
I0428 20:04:49.418823 30467 net.cpp:139] Memory required for data: 4849920
I0428 20:04:49.418826 30467 layer_factory.hpp:77] Creating layer ip1
I0428 20:04:49.418833 30467 net.cpp:86] Creating Layer ip1
I0428 20:04:49.418836 30467 net.cpp:408] ip1 <- pool1
I0428 20:04:49.418840 30467 net.cpp:382] ip1 -> ip1
I0428 20:04:49.418931 30467 net.cpp:124] Setting up ip1
I0428 20:04:49.418937 30467 net.cpp:131] Top shape: 64 25 (1600)
I0428 20:04:49.418941 30467 net.cpp:139] Memory required for data: 4856320
I0428 20:04:49.418946 30467 layer_factory.hpp:77] Creating layer relu1
I0428 20:04:49.418951 30467 net.cpp:86] Creating Layer relu1
I0428 20:04:49.418954 30467 net.cpp:408] relu1 <- ip1
I0428 20:04:49.418958 30467 net.cpp:369] relu1 -> ip1 (in-place)
I0428 20:04:49.419126 30467 net.cpp:124] Setting up relu1
I0428 20:04:49.419134 30467 net.cpp:131] Top shape: 64 25 (1600)
I0428 20:04:49.419137 30467 net.cpp:139] Memory required for data: 4862720
I0428 20:04:49.419140 30467 layer_factory.hpp:77] Creating layer ip2
I0428 20:04:49.419147 30467 net.cpp:86] Creating Layer ip2
I0428 20:04:49.419149 30467 net.cpp:408] ip2 <- ip1
I0428 20:04:49.419153 30467 net.cpp:382] ip2 -> ip2
I0428 20:04:49.419242 30467 net.cpp:124] Setting up ip2
I0428 20:04:49.419250 30467 net.cpp:131] Top shape: 64 10 (640)
I0428 20:04:49.419252 30467 net.cpp:139] Memory required for data: 4865280
I0428 20:04:49.419257 30467 layer_factory.hpp:77] Creating layer relu2
I0428 20:04:49.419262 30467 net.cpp:86] Creating Layer relu2
I0428 20:04:49.419265 30467 net.cpp:408] relu2 <- ip2
I0428 20:04:49.419270 30467 net.cpp:369] relu2 -> ip2 (in-place)
I0428 20:04:49.420011 30467 net.cpp:124] Setting up relu2
I0428 20:04:49.420022 30467 net.cpp:131] Top shape: 64 10 (640)
I0428 20:04:49.420042 30467 net.cpp:139] Memory required for data: 4867840
I0428 20:04:49.420045 30467 layer_factory.hpp:77] Creating layer loss
I0428 20:04:49.420066 30467 net.cpp:86] Creating Layer loss
I0428 20:04:49.420069 30467 net.cpp:408] loss <- ip2
I0428 20:04:49.420073 30467 net.cpp:408] loss <- label
I0428 20:04:49.420079 30467 net.cpp:382] loss -> loss
I0428 20:04:49.420099 30467 layer_factory.hpp:77] Creating layer loss
…
I0428 20:04:49.420722 30467 solver.cpp:173] Creating test net (#0) specified by net file: ECE595/mnist/train_test/var_everything2/lenet_train_test982.prototxt
I0428 20:04:49.420747 30467 net.cpp:296] The NetState phase (1) differed from the phase (0) specified by a rule in layer mnist
I0428 20:04:49.420866 30467 net.cpp:53] Initializing net from parameters: 
name: "LeNet"
state {
  phase: TEST
}
layer {
  name: "mnist"
  type: "Data"
  top: "data"
  top: "label"
  include {
    phase: TEST
  }
  transform_param {
    scale: 0.00390625
  }
  data_param {
    source: "examples/mnist/mnist_test_lmdb"
    batch_size: 100
    backend: LMDB
  }
}
layer {
  name: "conv0"
  type: "Convolution"
  bottom: "data"
  top: "conv0"
  param {
    lr_mult: 1
  }
  param {
    lr_mult: 2
  }
  convolution_param {
    num_output: 25
    kernel_size: 5
    stride: 1
    weight_filler {
      type: "xavier"
    }
    bias_filler {
      type: "constant"
    }
  }
}
layer {
  name: "pool0"
  type: "Pooling"
  bottom: "conv0"
  top: "pool0"
  pooling_param {
    pool: MAX
    kernel_size: 2
    stride: 2
  }
}
layer {
  name: "conv1"
  type: "Convolution"
  bottom: "pool0"
  top: "conv1"
  param {
    lr_mult: 1
  }
  param {
    lr_mult: 2
  }
  convolution_param {
    num_output: 2
    kernel_size: 5
    stride: 1
    weight_filler {
      type: "xavier"
    }
    bias_filler {
      type: "constant"
    }
  }
}
layer {
  name: "pool1"
  type: "Pooling"
  bottom: "conv1"
  top: "pool1"
  pooling_param {
    pool: MAX
    kernel_size: 2
    stride: 2
  }
}
layer {
  name: "ip1"
  type: "InnerProduct"
  bottom: "pool1"
  top: "ip1"
  param {
    lr_mult: 1
  }
  param {
    lr_mult: 2
  }
  inner_product_param {
    num_output: 25
    weight_filler {
      type: "xavier"
    }
    bias_filler {
      type: "constant"
    }
  }
}
layer {
  name: "relu1"
  type: "ReLU"
  bottom: "ip1"
  top: "ip1"
}
layer {
  name: "ip2"
  type: "InnerProduct"
  bottom: "ip1"
  top: "ip2"
  param {
    lr_mult: 1
  }
  param {
    lr_mult: 2
  }
  inner_product_param {
    num_output: 10
    weight_filler {
      type: "xavier"
    }
    bias_filler {
      type: "constant"
    }
  }
}
layer {
  name: "relu2"
  type: "ReLU"
  bottom: "ip2"
  top: "ip2"
}
layer {
  name: "accuracy"
  type: "Accuracy"
  bottom: "ip2"
  bottom: "label"
  top: "accuracy"
  include {
    phase: TEST
  }
}
layer {
  name: "loss"
  type: "SoftmaxWithLoss"
  bottom: "ip2"
  bottom: "label"
  top: "loss"
}
I0428 20:04:49.420943 30467 layer_factory.hpp:77] Creating layer mnist
I0428 20:04:49.420985 30467 db_lmdb.cpp:35] Opened lmdb examples/mnist/mnist_test_lmdb
I0428 20:04:49.420997 30467 net.cpp:86] Creating Layer mnist
I0428 20:04:49.421002 30467 net.cpp:382] mnist -> data
I0428 20:04:49.421010 30467 net.cpp:382] mnist -> label
I0428 20:04:49.421092 30467 data_layer.cpp:45] output data size: 100,1,28,28
I0428 20:04:49.423055 30467 net.cpp:124] Setting up mnist
I0428 20:04:49.423084 30467 net.cpp:131] Top shape: 100 1 28 28 (78400)
I0428 20:04:49.423089 30467 net.cpp:131] Top shape: 100 (100)
I0428 20:04:49.423092 30467 net.cpp:139] Memory required for data: 314000
I0428 20:04:49.423096 30467 layer_factory.hpp:77] Creating layer label_mnist_1_split
I0428 20:04:49.423136 30467 net.cpp:86] Creating Layer label_mnist_1_split
I0428 20:04:49.423142 30467 net.cpp:408] label_mnist_1_split <- label
I0428 20:04:49.423147 30467 net.cpp:382] label_mnist_1_split -> label_mnist_1_split_0
I0428 20:04:49.423153 30467 net.cpp:382] label_mnist_1_split -> label_mnist_1_split_1
I0428 20:04:49.423197 30467 net.cpp:124] Setting up label_mnist_1_split
I0428 20:04:49.423213 30467 net.cpp:131] Top shape: 100 (100)
I0428 20:04:49.423218 30467 net.cpp:131] Top shape: 100 (100)
I0428 20:04:49.423220 30467 net.cpp:139] Memory required for data: 314800
I0428 20:04:49.423223 30467 layer_factory.hpp:77] Creating layer conv0
I0428 20:04:49.423233 30467 net.cpp:86] Creating Layer conv0
I0428 20:04:49.423238 30467 net.cpp:408] conv0 <- data
I0428 20:04:49.423259 30467 net.cpp:382] conv0 -> conv0
I0428 20:04:49.424948 30467 net.cpp:124] Setting up conv0
I0428 20:04:49.424978 30467 net.cpp:131] Top shape: 100 25 24 24 (1440000)
I0428 20:04:49.424983 30467 net.cpp:139] Memory required for data: 6074800
I0428 20:04:49.424991 30467 layer_factory.hpp:77] Creating layer pool0
I0428 20:04:49.424998 30467 net.cpp:86] Creating Layer pool0
I0428 20:04:49.425001 30467 net.cpp:408] pool0 <- conv0
I0428 20:04:49.425005 30467 net.cpp:382] pool0 -> pool0
I0428 20:04:49.425040 30467 net.cpp:124] Setting up pool0
I0428 20:04:49.425046 30467 net.cpp:131] Top shape: 100 25 12 12 (360000)
I0428 20:04:49.425050 30467 net.cpp:139] Memory required for data: 7514800
I0428 20:04:49.425052 30467 layer_factory.hpp:77] Creating layer conv1
I0428 20:04:49.425060 30467 net.cpp:86] Creating Layer conv1
I0428 20:04:49.425066 30467 net.cpp:408] conv1 <- pool0
I0428 20:04:49.425086 30467 net.cpp:382] conv1 -> conv1
I0428 20:04:49.427310 30467 net.cpp:124] Setting up conv1
I0428 20:04:49.427337 30467 net.cpp:131] Top shape: 100 2 8 8 (12800)
I0428 20:04:49.427341 30467 net.cpp:139] Memory required for data: 7566000
I0428 20:04:49.427351 30467 layer_factory.hpp:77] Creating layer pool1
I0428 20:04:49.427358 30467 net.cpp:86] Creating Layer pool1
I0428 20:04:49.427361 30467 net.cpp:408] pool1 <- conv1
I0428 20:04:49.427367 30467 net.cpp:382] pool1 -> pool1
I0428 20:04:49.427420 30467 net.cpp:124] Setting up pool1
I0428 20:04:49.427428 30467 net.cpp:131] Top shape: 100 2 4 4 (3200)
I0428 20:04:49.427431 30467 net.cpp:139] Memory required for data: 7578800
I0428 20:04:49.427434 30467 layer_factory.hpp:77] Creating layer ip1
I0428 20:04:49.427440 30467 net.cpp:86] Creating Layer ip1
I0428 20:04:49.427443 30467 net.cpp:408] ip1 <- pool1
I0428 20:04:49.427449 30467 net.cpp:382] ip1 -> ip1
I0428 20:04:49.427554 30467 net.cpp:124] Setting up ip1
I0428 20:04:49.427561 30467 net.cpp:131] Top shape: 100 25 (2500)
I0428 20:04:49.427564 30467 net.cpp:139] Memory required for data: 7588800
I0428 20:04:49.427572 30467 layer_factory.hpp:77] Creating layer relu1
I0428 20:04:49.427579 30467 net.cpp:86] Creating Layer relu1
I0428 20:04:49.427598 30467 net.cpp:408] relu1 <- ip1
I0428 20:04:49.427604 30467 net.cpp:369] relu1 -> ip1 (in-place)
I0428 20:04:49.427788 30467 net.cpp:124] Setting up relu1
I0428 20:04:49.427814 30467 net.cpp:131] Top shape: 100 25 (2500)
I0428 20:04:49.427826 30467 net.cpp:139] Memory required for data: 7598800
I0428 20:04:49.427845 30467 layer_factory.hpp:77] Creating layer ip2
I0428 20:04:49.427853 30467 net.cpp:86] Creating Layer ip2
I0428 20:04:49.427871 30467 net.cpp:408] ip2 <- ip1
I0428 20:04:49.427876 30467 net.cpp:382] ip2 -> ip2
I0428 20:04:49.427989 30467 net.cpp:124] Setting up ip2
I0428 20:04:49.427995 30467 net.cpp:131] Top shape: 100 10 (1000)
I0428 20:04:49.427999 30467 net.cpp:139] Memory required for data: 7602800
I0428 20:04:49.428004 30467 layer_factory.hpp:77] Creating layer relu2
I0428 20:04:49.428014 30467 net.cpp:86] Creating Layer relu2
I0428 20:04:49.428017 30467 net.cpp:408] relu2 <- ip2
I0428 20:04:49.428022 30467 net.cpp:369] relu2 -> ip2 (in-place)
I0428 20:04:49.428222 30467 net.cpp:124] Setting up relu2
I0428 20:04:49.428231 30467 net.cpp:131] Top shape: 100 10 (1000)
I0428 20:04:49.428233 30467 net.cpp:139] Memory required for data: 7606800
I0428 20:04:49.428236 30467 layer_factory.hpp:77] Creating layer ip2_relu2_0_split
I0428 20:04:49.428241 30467 net.cpp:86] Creating Layer ip2_relu2_0_split
I0428 20:04:49.428243 30467 net.cpp:408] ip2_relu2_0_split <- ip2
I0428 20:04:49.428248 30467 net.cpp:382] ip2_relu2_0_split -> ip2_relu2_0_split_0
I0428 20:04:49.428262 30467 net.cpp:382] ip2_relu2_0_split -> ip2_relu2_0_split_1
I0428 20:04:49.428309 30467 net.cpp:124] Setting up ip2_relu2_0_split
I0428 20:04:49.428316 30467 net.cpp:131] Top shape: 100 10 (1000)
I0428 20:04:49.428320 30467 net.cpp:131] Top shape: 100 10 (1000)
I0428 20:04:49.428323 30467 net.cpp:139] Memory required for data: 7614800
I0428 20:04:49.428325 30467 layer_factory.hpp:77] Creating layer accuracy
I0428 20:04:49.428330 30467 net.cpp:86] Creating Layer accuracy
I0428 20:04:49.428333 30467 net.cpp:408] accuracy <- ip2_relu2_0_split_0
I0428 20:04:49.428338 30467 net.cpp:408] accuracy <- label_mnist_1_split_0
I0428 20:04:49.428342 30467 net.cpp:382] accuracy -> accuracy
…
