…
I0428 19:28:01.388990 21510 net.cpp:296] The NetState phase (0) differed from the phase (1) specified by a rule in layer mnist
I0428 19:28:01.389004 21510 net.cpp:296] The NetState phase (0) differed from the phase (1) specified by a rule in layer accuracy
I0428 19:28:01.389070 21510 net.cpp:53] Initializing net from parameters: 
name: "LeNet"
state {
  phase: TRAIN
  level: 0
  stage: ""
}
layer {
  name: "mnist"
  type: "Data"
  top: "data"
  top: "label"
  include {
    phase: TRAIN
  }
  transform_param {
    scale: 0.00390625
  }
  data_param {
    source: "examples/mnist/mnist_train_lmdb"
    batch_size: 64
    backend: LMDB
  }
}
layer {
  name: "ip1"
  type: "InnerProduct"
  bottom: "data"
  top: "ip1"
  param {
    lr_mult: 1
  }
  param {
    lr_mult: 2
  }
  inner_product_param {
    num_output: 50
    weight_filler {
      type: "xavier"
    }
    bias_filler {
      type: "constant"
    }
  }
}
layer {
  name: "relu1"
  type: "ReLU"
  bottom: "ip1"
  top: "ip1"
}
layer {
  name: "ip2"
  type: "InnerProduct"
  bottom: "ip1"
  top: "ip2"
  param {
    lr_mult: 1
  }
  param {
    lr_mult: 2
  }
  inner_product_param {
    num_output: 10
    weight_filler {
      type: "xavier"
    }
    bias_filler {
      type: "constant"
    }
  }
}
layer {
  name: "relu2"
  type: "ReLU"
  bottom: "ip2"
  top: "ip2"
}
layer {
  name: "loss"
  type: "SoftmaxWithLoss"
  bottom: "ip2"
  bottom: "label"
  top: "loss"
}
I0428 19:28:01.389128 21510 layer_factory.hpp:77] Creating layer mnist
I0428 19:28:01.389233 21510 db_lmdb.cpp:35] Opened lmdb examples/mnist/mnist_train_lmdb
I0428 19:28:01.389258 21510 net.cpp:86] Creating Layer mnist
I0428 19:28:01.389269 21510 net.cpp:382] mnist -> data
I0428 19:28:01.389292 21510 net.cpp:382] mnist -> label
I0428 19:28:01.390391 21510 data_layer.cpp:45] output data size: 64,1,28,28
I0428 19:28:01.393069 21510 net.cpp:124] Setting up mnist
I0428 19:28:01.393086 21510 net.cpp:131] Top shape: 64 1 28 28 (50176)
I0428 19:28:01.393093 21510 net.cpp:131] Top shape: 64 (64)
I0428 19:28:01.393096 21510 net.cpp:139] Memory required for data: 200960
I0428 19:28:01.393103 21510 layer_factory.hpp:77] Creating layer ip1
I0428 19:28:01.393116 21510 net.cpp:86] Creating Layer ip1
I0428 19:28:01.393122 21510 net.cpp:408] ip1 <- data
I0428 19:28:01.393134 21510 net.cpp:382] ip1 -> ip1
I0428 19:28:01.393580 21510 net.cpp:124] Setting up ip1
I0428 19:28:01.393592 21510 net.cpp:131] Top shape: 64 50 (3200)
I0428 19:28:01.393596 21510 net.cpp:139] Memory required for data: 213760
I0428 19:28:01.393610 21510 layer_factory.hpp:77] Creating layer relu1
I0428 19:28:01.393618 21510 net.cpp:86] Creating Layer relu1
I0428 19:28:01.393622 21510 net.cpp:408] relu1 <- ip1
I0428 19:28:01.393628 21510 net.cpp:369] relu1 -> ip1 (in-place)
I0428 19:28:01.681607 21510 net.cpp:124] Setting up relu1
I0428 19:28:01.681638 21510 net.cpp:131] Top shape: 64 50 (3200)
I0428 19:28:01.681643 21510 net.cpp:139] Memory required for data: 226560
I0428 19:28:01.681650 21510 layer_factory.hpp:77] Creating layer ip2
I0428 19:28:01.681664 21510 net.cpp:86] Creating Layer ip2
I0428 19:28:01.681670 21510 net.cpp:408] ip2 <- ip1
I0428 19:28:01.681679 21510 net.cpp:382] ip2 -> ip2
I0428 19:28:01.682848 21510 net.cpp:124] Setting up ip2
I0428 19:28:01.682864 21510 net.cpp:131] Top shape: 64 10 (640)
I0428 19:28:01.682869 21510 net.cpp:139] Memory required for data: 229120
I0428 19:28:01.682881 21510 layer_factory.hpp:77] Creating layer relu2
I0428 19:28:01.682909 21510 net.cpp:86] Creating Layer relu2
I0428 19:28:01.682914 21510 net.cpp:408] relu2 <- ip2
I0428 19:28:01.682920 21510 net.cpp:369] relu2 -> ip2 (in-place)
I0428 19:28:01.683794 21510 net.cpp:124] Setting up relu2
I0428 19:28:01.683809 21510 net.cpp:131] Top shape: 64 10 (640)
I0428 19:28:01.683815 21510 net.cpp:139] Memory required for data: 231680
I0428 19:28:01.683818 21510 layer_factory.hpp:77] Creating layer loss
I0428 19:28:01.683826 21510 net.cpp:86] Creating Layer loss
I0428 19:28:01.683830 21510 net.cpp:408] loss <- ip2
I0428 19:28:01.683836 21510 net.cpp:408] loss <- label
I0428 19:28:01.683843 21510 net.cpp:382] loss -> loss
I0428 19:28:01.683867 21510 layer_factory.hpp:77] Creating layer loss
…
I0428 19:28:01.684470 21510 solver.cpp:173] Creating test net (#0) specified by net file: ECE595/mnist/train_test/var_everything2/lenet_train_test11.prototxt
I0428 19:28:01.684496 21510 net.cpp:296] The NetState phase (1) differed from the phase (0) specified by a rule in layer mnist
I0428 19:28:01.684568 21510 net.cpp:53] Initializing net from parameters: 
name: "LeNet"
state {
  phase: TEST
}
layer {
  name: "mnist"
  type: "Data"
  top: "data"
  top: "label"
  include {
    phase: TEST
  }
  transform_param {
    scale: 0.00390625
  }
  data_param {
    source: "examples/mnist/mnist_test_lmdb"
    batch_size: 100
    backend: LMDB
  }
}
layer {
  name: "ip1"
  type: "InnerProduct"
  bottom: "data"
  top: "ip1"
  param {
    lr_mult: 1
  }
  param {
    lr_mult: 2
  }
  inner_product_param {
    num_output: 50
    weight_filler {
      type: "xavier"
    }
    bias_filler {
      type: "constant"
    }
  }
}
layer {
  name: "relu1"
  type: "ReLU"
  bottom: "ip1"
  top: "ip1"
}
layer {
  name: "ip2"
  type: "InnerProduct"
  bottom: "ip1"
  top: "ip2"
  param {
    lr_mult: 1
  }
  param {
    lr_mult: 2
  }
  inner_product_param {
    num_output: 10
    weight_filler {
      type: "xavier"
    }
    bias_filler {
      type: "constant"
    }
  }
}
layer {
  name: "relu2"
  type: "ReLU"
  bottom: "ip2"
  top: "ip2"
}
layer {
  name: "accuracy"
  type: "Accuracy"
  bottom: "ip2"
  bottom: "label"
  top: "accuracy"
  include {
    phase: TEST
  }
}
layer {
  name: "loss"
  type: "SoftmaxWithLoss"
  bottom: "ip2"
  bottom: "label"
  top: "loss"
}
I0428 19:28:01.684628 21510 layer_factory.hpp:77] Creating layer mnist
I0428 19:28:01.684687 21510 db_lmdb.cpp:35] Opened lmdb examples/mnist/mnist_test_lmdb
I0428 19:28:01.684701 21510 net.cpp:86] Creating Layer mnist
I0428 19:28:01.684707 21510 net.cpp:382] mnist -> data
I0428 19:28:01.684717 21510 net.cpp:382] mnist -> label
I0428 19:28:01.684829 21510 data_layer.cpp:45] output data size: 100,1,28,28
I0428 19:28:01.687031 21510 net.cpp:124] Setting up mnist
I0428 19:28:01.687047 21510 net.cpp:131] Top shape: 100 1 28 28 (78400)
I0428 19:28:01.687052 21510 net.cpp:131] Top shape: 100 (100)
I0428 19:28:01.687057 21510 net.cpp:139] Memory required for data: 314000
I0428 19:28:01.687062 21510 layer_factory.hpp:77] Creating layer label_mnist_1_split
I0428 19:28:01.687074 21510 net.cpp:86] Creating Layer label_mnist_1_split
I0428 19:28:01.687078 21510 net.cpp:408] label_mnist_1_split <- label
I0428 19:28:01.687084 21510 net.cpp:382] label_mnist_1_split -> label_mnist_1_split_0
I0428 19:28:01.687105 21510 net.cpp:382] label_mnist_1_split -> label_mnist_1_split_1
I0428 19:28:01.687161 21510 net.cpp:124] Setting up label_mnist_1_split
I0428 19:28:01.687172 21510 net.cpp:131] Top shape: 100 (100)
I0428 19:28:01.687180 21510 net.cpp:131] Top shape: 100 (100)
I0428 19:28:01.687186 21510 net.cpp:139] Memory required for data: 314800
I0428 19:28:01.687191 21510 layer_factory.hpp:77] Creating layer ip1
I0428 19:28:01.687203 21510 net.cpp:86] Creating Layer ip1
I0428 19:28:01.687211 21510 net.cpp:408] ip1 <- data
I0428 19:28:01.687221 21510 net.cpp:382] ip1 -> ip1
I0428 19:28:01.687695 21510 net.cpp:124] Setting up ip1
I0428 19:28:01.687705 21510 net.cpp:131] Top shape: 100 50 (5000)
I0428 19:28:01.687710 21510 net.cpp:139] Memory required for data: 334800
I0428 19:28:01.687721 21510 layer_factory.hpp:77] Creating layer relu1
I0428 19:28:01.687726 21510 net.cpp:86] Creating Layer relu1
I0428 19:28:01.687731 21510 net.cpp:408] relu1 <- ip1
I0428 19:28:01.687736 21510 net.cpp:369] relu1 -> ip1 (in-place)
I0428 19:28:01.687938 21510 net.cpp:124] Setting up relu1
I0428 19:28:01.687949 21510 net.cpp:131] Top shape: 100 50 (5000)
I0428 19:28:01.687953 21510 net.cpp:139] Memory required for data: 354800
I0428 19:28:01.687958 21510 layer_factory.hpp:77] Creating layer ip2
I0428 19:28:01.687965 21510 net.cpp:86] Creating Layer ip2
I0428 19:28:01.687970 21510 net.cpp:408] ip2 <- ip1
I0428 19:28:01.687976 21510 net.cpp:382] ip2 -> ip2
I0428 19:28:01.688083 21510 net.cpp:124] Setting up ip2
I0428 19:28:01.688092 21510 net.cpp:131] Top shape: 100 10 (1000)
I0428 19:28:01.688097 21510 net.cpp:139] Memory required for data: 358800
I0428 19:28:01.688104 21510 layer_factory.hpp:77] Creating layer relu2
I0428 19:28:01.688109 21510 net.cpp:86] Creating Layer relu2
I0428 19:28:01.688113 21510 net.cpp:408] relu2 <- ip2
I0428 19:28:01.688122 21510 net.cpp:369] relu2 -> ip2 (in-place)
I0428 19:28:01.689088 21510 net.cpp:124] Setting up relu2
I0428 19:28:01.689105 21510 net.cpp:131] Top shape: 100 10 (1000)
I0428 19:28:01.689108 21510 net.cpp:139] Memory required for data: 362800
I0428 19:28:01.689113 21510 layer_factory.hpp:77] Creating layer ip2_relu2_0_split
I0428 19:28:01.689122 21510 net.cpp:86] Creating Layer ip2_relu2_0_split
I0428 19:28:01.689127 21510 net.cpp:408] ip2_relu2_0_split <- ip2
I0428 19:28:01.689133 21510 net.cpp:382] ip2_relu2_0_split -> ip2_relu2_0_split_0
I0428 19:28:01.689141 21510 net.cpp:382] ip2_relu2_0_split -> ip2_relu2_0_split_1
I0428 19:28:01.689189 21510 net.cpp:124] Setting up ip2_relu2_0_split
I0428 19:28:01.689195 21510 net.cpp:131] Top shape: 100 10 (1000)
I0428 19:28:01.689200 21510 net.cpp:131] Top shape: 100 10 (1000)
I0428 19:28:01.689203 21510 net.cpp:139] Memory required for data: 370800
I0428 19:28:01.689208 21510 layer_factory.hpp:77] Creating layer accuracy
I0428 19:28:01.689218 21510 net.cpp:86] Creating Layer accuracy
I0428 19:28:01.689223 21510 net.cpp:408] accuracy <- ip2_relu2_0_split_0
I0428 19:28:01.689227 21510 net.cpp:408] accuracy <- label_mnist_1_split_0
I0428 19:28:01.689234 21510 net.cpp:382] accuracy -> accuracy
…
