…
I0428 19:50:03.515856 26919 net.cpp:296] The NetState phase (0) differed from the phase (1) specified by a rule in layer mnist
I0428 19:50:03.515874 26919 net.cpp:296] The NetState phase (0) differed from the phase (1) specified by a rule in layer accuracy
I0428 19:50:03.515965 26919 net.cpp:53] Initializing net from parameters: 
name: "LeNet"
state {
  phase: TRAIN
  level: 0
  stage: ""
}
layer {
  name: "mnist"
  type: "Data"
  top: "data"
  top: "label"
  include {
    phase: TRAIN
  }
  transform_param {
    scale: 0.00390625
  }
  data_param {
    source: "examples/mnist/mnist_train_lmdb"
    batch_size: 64
    backend: LMDB
  }
}
layer {
  name: "conv0"
  type: "Convolution"
  bottom: "data"
  top: "conv0"
  param {
    lr_mult: 1
  }
  param {
    lr_mult: 2
  }
  convolution_param {
    num_output: 5
    kernel_size: 5
    stride: 1
    weight_filler {
      type: "xavier"
    }
    bias_filler {
      type: "constant"
    }
  }
}
layer {
  name: "pool0"
  type: "Pooling"
  bottom: "conv0"
  top: "pool0"
  pooling_param {
    pool: MAX
    kernel_size: 2
    stride: 2
  }
}
layer {
  name: "conv1"
  type: "Convolution"
  bottom: "pool0"
  top: "conv1"
  param {
    lr_mult: 1
  }
  param {
    lr_mult: 2
  }
  convolution_param {
    num_output: 10
    kernel_size: 5
    stride: 1
    weight_filler {
      type: "xavier"
    }
    bias_filler {
      type: "constant"
    }
  }
}
layer {
  name: "pool1"
  type: "Pooling"
  bottom: "conv1"
  top: "pool1"
  pooling_param {
    pool: MAX
    kernel_size: 2
    stride: 2
  }
}
layer {
  name: "ip1"
  type: "InnerProduct"
  bottom: "pool1"
  top: "ip1"
  param {
    lr_mult: 1
  }
  param {
    lr_mult: 2
  }
  inner_product_param {
    num_output: 25
    weight_filler {
      type: "xavier"
    }
    bias_filler {
      type: "constant"
    }
  }
}
layer {
  name: "relu1"
  type: "ReLU"
  bottom: "ip1"
  top: "ip1"
}
layer {
  name: "ip2"
  type: "InnerProduct"
  bottom: "ip1"
  top: "ip2"
  param {
    lr_mult: 1
  }
  param {
    lr_mult: 2
  }
  inner_product_param {
    num_output: 10
    weight_filler {
      type: "xavier"
    }
    bias_filler {
      type: "constant"
    }
  }
}
layer {
  name: "relu2"
  type: "ReLU"
  bottom: "ip2"
  top: "ip2"
}
layer {
  name: "loss"
  type: "SoftmaxWithLoss"
  bottom: "ip2"
  bottom: "label"
  top: "loss"
}
I0428 19:50:03.516041 26919 layer_factory.hpp:77] Creating layer mnist
I0428 19:50:03.516135 26919 db_lmdb.cpp:35] Opened lmdb examples/mnist/mnist_train_lmdb
I0428 19:50:03.516158 26919 net.cpp:86] Creating Layer mnist
I0428 19:50:03.516167 26919 net.cpp:382] mnist -> data
I0428 19:50:03.516188 26919 net.cpp:382] mnist -> label
I0428 19:50:03.517313 26919 data_layer.cpp:45] output data size: 64,1,28,28
I0428 19:50:03.519773 26919 net.cpp:124] Setting up mnist
I0428 19:50:03.519790 26919 net.cpp:131] Top shape: 64 1 28 28 (50176)
I0428 19:50:03.519796 26919 net.cpp:131] Top shape: 64 (64)
I0428 19:50:03.519800 26919 net.cpp:139] Memory required for data: 200960
I0428 19:50:03.519807 26919 layer_factory.hpp:77] Creating layer conv0
I0428 19:50:03.519824 26919 net.cpp:86] Creating Layer conv0
I0428 19:50:03.519830 26919 net.cpp:408] conv0 <- data
I0428 19:50:03.519843 26919 net.cpp:382] conv0 -> conv0
I0428 19:50:03.811524 26919 net.cpp:124] Setting up conv0
I0428 19:50:03.811556 26919 net.cpp:131] Top shape: 64 5 24 24 (184320)
I0428 19:50:03.811563 26919 net.cpp:139] Memory required for data: 938240
I0428 19:50:03.811601 26919 layer_factory.hpp:77] Creating layer pool0
I0428 19:50:03.811617 26919 net.cpp:86] Creating Layer pool0
I0428 19:50:03.811622 26919 net.cpp:408] pool0 <- conv0
I0428 19:50:03.811628 26919 net.cpp:382] pool0 -> pool0
I0428 19:50:03.811691 26919 net.cpp:124] Setting up pool0
I0428 19:50:03.811700 26919 net.cpp:131] Top shape: 64 5 12 12 (46080)
I0428 19:50:03.811703 26919 net.cpp:139] Memory required for data: 1122560
I0428 19:50:03.811707 26919 layer_factory.hpp:77] Creating layer conv1
I0428 19:50:03.811720 26919 net.cpp:86] Creating Layer conv1
I0428 19:50:03.811724 26919 net.cpp:408] conv1 <- pool0
I0428 19:50:03.811730 26919 net.cpp:382] conv1 -> conv1
I0428 19:50:03.814891 26919 net.cpp:124] Setting up conv1
I0428 19:50:03.814910 26919 net.cpp:131] Top shape: 64 10 8 8 (40960)
I0428 19:50:03.814915 26919 net.cpp:139] Memory required for data: 1286400
I0428 19:50:03.814925 26919 layer_factory.hpp:77] Creating layer pool1
I0428 19:50:03.814934 26919 net.cpp:86] Creating Layer pool1
I0428 19:50:03.814939 26919 net.cpp:408] pool1 <- conv1
I0428 19:50:03.814946 26919 net.cpp:382] pool1 -> pool1
I0428 19:50:03.814991 26919 net.cpp:124] Setting up pool1
I0428 19:50:03.814998 26919 net.cpp:131] Top shape: 64 10 4 4 (10240)
I0428 19:50:03.815001 26919 net.cpp:139] Memory required for data: 1327360
I0428 19:50:03.815006 26919 layer_factory.hpp:77] Creating layer ip1
I0428 19:50:03.815013 26919 net.cpp:86] Creating Layer ip1
I0428 19:50:03.815017 26919 net.cpp:408] ip1 <- pool1
I0428 19:50:03.815023 26919 net.cpp:382] ip1 -> ip1
I0428 19:50:03.815167 26919 net.cpp:124] Setting up ip1
I0428 19:50:03.815177 26919 net.cpp:131] Top shape: 64 25 (1600)
I0428 19:50:03.815181 26919 net.cpp:139] Memory required for data: 1333760
I0428 19:50:03.815189 26919 layer_factory.hpp:77] Creating layer relu1
I0428 19:50:03.815197 26919 net.cpp:86] Creating Layer relu1
I0428 19:50:03.815201 26919 net.cpp:408] relu1 <- ip1
I0428 19:50:03.815207 26919 net.cpp:369] relu1 -> ip1 (in-place)
I0428 19:50:03.815403 26919 net.cpp:124] Setting up relu1
I0428 19:50:03.815414 26919 net.cpp:131] Top shape: 64 25 (1600)
I0428 19:50:03.815418 26919 net.cpp:139] Memory required for data: 1340160
I0428 19:50:03.815423 26919 layer_factory.hpp:77] Creating layer ip2
I0428 19:50:03.815430 26919 net.cpp:86] Creating Layer ip2
I0428 19:50:03.815434 26919 net.cpp:408] ip2 <- ip1
I0428 19:50:03.815440 26919 net.cpp:382] ip2 -> ip2
I0428 19:50:03.815554 26919 net.cpp:124] Setting up ip2
I0428 19:50:03.815563 26919 net.cpp:131] Top shape: 64 10 (640)
I0428 19:50:03.815567 26919 net.cpp:139] Memory required for data: 1342720
I0428 19:50:03.815573 26919 layer_factory.hpp:77] Creating layer relu2
I0428 19:50:03.815582 26919 net.cpp:86] Creating Layer relu2
I0428 19:50:03.815584 26919 net.cpp:408] relu2 <- ip2
I0428 19:50:03.815589 26919 net.cpp:369] relu2 -> ip2 (in-place)
I0428 19:50:03.816434 26919 net.cpp:124] Setting up relu2
I0428 19:50:03.816449 26919 net.cpp:131] Top shape: 64 10 (640)
I0428 19:50:03.816453 26919 net.cpp:139] Memory required for data: 1345280
I0428 19:50:03.816457 26919 layer_factory.hpp:77] Creating layer loss
I0428 19:50:03.816465 26919 net.cpp:86] Creating Layer loss
I0428 19:50:03.816469 26919 net.cpp:408] loss <- ip2
I0428 19:50:03.816475 26919 net.cpp:408] loss <- label
I0428 19:50:03.816483 26919 net.cpp:382] loss -> loss
I0428 19:50:03.816505 26919 layer_factory.hpp:77] Creating layer loss
…
I0428 19:50:03.817284 26919 solver.cpp:173] Creating test net (#0) specified by net file: ECE595/mnist/train_test/var_everything2/lenet_train_test593.prototxt
I0428 19:50:03.817317 26919 net.cpp:296] The NetState phase (1) differed from the phase (0) specified by a rule in layer mnist
I0428 19:50:03.817422 26919 net.cpp:53] Initializing net from parameters: 
name: "LeNet"
state {
  phase: TEST
}
layer {
  name: "mnist"
  type: "Data"
  top: "data"
  top: "label"
  include {
    phase: TEST
  }
  transform_param {
    scale: 0.00390625
  }
  data_param {
    source: "examples/mnist/mnist_test_lmdb"
    batch_size: 100
    backend: LMDB
  }
}
layer {
  name: "conv0"
  type: "Convolution"
  bottom: "data"
  top: "conv0"
  param {
    lr_mult: 1
  }
  param {
    lr_mult: 2
  }
  convolution_param {
    num_output: 5
    kernel_size: 5
    stride: 1
    weight_filler {
      type: "xavier"
    }
    bias_filler {
      type: "constant"
    }
  }
}
layer {
  name: "pool0"
  type: "Pooling"
  bottom: "conv0"
  top: "pool0"
  pooling_param {
    pool: MAX
    kernel_size: 2
    stride: 2
  }
}
layer {
  name: "conv1"
  type: "Convolution"
  bottom: "pool0"
  top: "conv1"
  param {
    lr_mult: 1
  }
  param {
    lr_mult: 2
  }
  convolution_param {
    num_output: 10
    kernel_size: 5
    stride: 1
    weight_filler {
      type: "xavier"
    }
    bias_filler {
      type: "constant"
    }
  }
}
layer {
  name: "pool1"
  type: "Pooling"
  bottom: "conv1"
  top: "pool1"
  pooling_param {
    pool: MAX
    kernel_size: 2
    stride: 2
  }
}
layer {
  name: "ip1"
  type: "InnerProduct"
  bottom: "pool1"
  top: "ip1"
  param {
    lr_mult: 1
  }
  param {
    lr_mult: 2
  }
  inner_product_param {
    num_output: 25
    weight_filler {
      type: "xavier"
    }
    bias_filler {
      type: "constant"
    }
  }
}
layer {
  name: "relu1"
  type: "ReLU"
  bottom: "ip1"
  top: "ip1"
}
layer {
  name: "ip2"
  type: "InnerProduct"
  bottom: "ip1"
  top: "ip2"
  param {
    lr_mult: 1
  }
  param {
    lr_mult: 2
  }
  inner_product_param {
    num_output: 10
    weight_filler {
      type: "xavier"
    }
    bias_filler {
      type: "constant"
    }
  }
}
layer {
  name: "relu2"
  type: "ReLU"
  bottom: "ip2"
  top: "ip2"
}
layer {
  name: "accuracy"
  type: "Accuracy"
  bottom: "ip2"
  bottom: "label"
  top: "accuracy"
  include {
    phase: TEST
  }
}
layer {
  name: "loss"
  type: "SoftmaxWithLoss"
  bottom: "ip2"
  bottom: "label"
  top: "loss"
}
I0428 19:50:03.817497 26919 layer_factory.hpp:77] Creating layer mnist
I0428 19:50:03.817549 26919 db_lmdb.cpp:35] Opened lmdb examples/mnist/mnist_test_lmdb
I0428 19:50:03.817564 26919 net.cpp:86] Creating Layer mnist
I0428 19:50:03.817569 26919 net.cpp:382] mnist -> data
I0428 19:50:03.817579 26919 net.cpp:382] mnist -> label
I0428 19:50:03.817679 26919 data_layer.cpp:45] output data size: 100,1,28,28
I0428 19:50:03.820083 26919 net.cpp:124] Setting up mnist
I0428 19:50:03.820101 26919 net.cpp:131] Top shape: 100 1 28 28 (78400)
I0428 19:50:03.820106 26919 net.cpp:131] Top shape: 100 (100)
I0428 19:50:03.820111 26919 net.cpp:139] Memory required for data: 314000
I0428 19:50:03.820116 26919 layer_factory.hpp:77] Creating layer label_mnist_1_split
I0428 19:50:03.820149 26919 net.cpp:86] Creating Layer label_mnist_1_split
I0428 19:50:03.820157 26919 net.cpp:408] label_mnist_1_split <- label
I0428 19:50:03.820163 26919 net.cpp:382] label_mnist_1_split -> label_mnist_1_split_0
I0428 19:50:03.820175 26919 net.cpp:382] label_mnist_1_split -> label_mnist_1_split_1
I0428 19:50:03.820302 26919 net.cpp:124] Setting up label_mnist_1_split
I0428 19:50:03.820323 26919 net.cpp:131] Top shape: 100 (100)
I0428 19:50:03.820329 26919 net.cpp:131] Top shape: 100 (100)
I0428 19:50:03.820333 26919 net.cpp:139] Memory required for data: 314800
I0428 19:50:03.820336 26919 layer_factory.hpp:77] Creating layer conv0
I0428 19:50:03.820348 26919 net.cpp:86] Creating Layer conv0
I0428 19:50:03.820351 26919 net.cpp:408] conv0 <- data
I0428 19:50:03.820358 26919 net.cpp:382] conv0 -> conv0
I0428 19:50:03.822015 26919 net.cpp:124] Setting up conv0
I0428 19:50:03.822031 26919 net.cpp:131] Top shape: 100 5 24 24 (288000)
I0428 19:50:03.822036 26919 net.cpp:139] Memory required for data: 1466800
I0428 19:50:03.822047 26919 layer_factory.hpp:77] Creating layer pool0
I0428 19:50:03.822055 26919 net.cpp:86] Creating Layer pool0
I0428 19:50:03.822060 26919 net.cpp:408] pool0 <- conv0
I0428 19:50:03.822067 26919 net.cpp:382] pool0 -> pool0
I0428 19:50:03.822121 26919 net.cpp:124] Setting up pool0
I0428 19:50:03.822131 26919 net.cpp:131] Top shape: 100 5 12 12 (72000)
I0428 19:50:03.822135 26919 net.cpp:139] Memory required for data: 1754800
I0428 19:50:03.822139 26919 layer_factory.hpp:77] Creating layer conv1
I0428 19:50:03.822150 26919 net.cpp:86] Creating Layer conv1
I0428 19:50:03.822154 26919 net.cpp:408] conv1 <- pool0
I0428 19:50:03.822160 26919 net.cpp:382] conv1 -> conv1
I0428 19:50:03.824417 26919 net.cpp:124] Setting up conv1
I0428 19:50:03.824434 26919 net.cpp:131] Top shape: 100 10 8 8 (64000)
I0428 19:50:03.824440 26919 net.cpp:139] Memory required for data: 2010800
I0428 19:50:03.824450 26919 layer_factory.hpp:77] Creating layer pool1
I0428 19:50:03.824457 26919 net.cpp:86] Creating Layer pool1
I0428 19:50:03.824463 26919 net.cpp:408] pool1 <- conv1
I0428 19:50:03.824470 26919 net.cpp:382] pool1 -> pool1
I0428 19:50:03.824515 26919 net.cpp:124] Setting up pool1
I0428 19:50:03.824524 26919 net.cpp:131] Top shape: 100 10 4 4 (16000)
I0428 19:50:03.824528 26919 net.cpp:139] Memory required for data: 2074800
I0428 19:50:03.824532 26919 layer_factory.hpp:77] Creating layer ip1
I0428 19:50:03.824539 26919 net.cpp:86] Creating Layer ip1
I0428 19:50:03.824543 26919 net.cpp:408] ip1 <- pool1
I0428 19:50:03.824549 26919 net.cpp:382] ip1 -> ip1
I0428 19:50:03.824689 26919 net.cpp:124] Setting up ip1
I0428 19:50:03.824698 26919 net.cpp:131] Top shape: 100 25 (2500)
I0428 19:50:03.824703 26919 net.cpp:139] Memory required for data: 2084800
I0428 19:50:03.824712 26919 layer_factory.hpp:77] Creating layer relu1
I0428 19:50:03.824718 26919 net.cpp:86] Creating Layer relu1
I0428 19:50:03.824723 26919 net.cpp:408] relu1 <- ip1
I0428 19:50:03.824728 26919 net.cpp:369] relu1 -> ip1 (in-place)
I0428 19:50:03.824930 26919 net.cpp:124] Setting up relu1
I0428 19:50:03.824941 26919 net.cpp:131] Top shape: 100 25 (2500)
I0428 19:50:03.824946 26919 net.cpp:139] Memory required for data: 2094800
I0428 19:50:03.824950 26919 layer_factory.hpp:77] Creating layer ip2
I0428 19:50:03.824959 26919 net.cpp:86] Creating Layer ip2
I0428 19:50:03.824964 26919 net.cpp:408] ip2 <- ip1
I0428 19:50:03.824970 26919 net.cpp:382] ip2 -> ip2
I0428 19:50:03.825086 26919 net.cpp:124] Setting up ip2
I0428 19:50:03.825096 26919 net.cpp:131] Top shape: 100 10 (1000)
I0428 19:50:03.825100 26919 net.cpp:139] Memory required for data: 2098800
I0428 19:50:03.825108 26919 layer_factory.hpp:77] Creating layer relu2
I0428 19:50:03.825112 26919 net.cpp:86] Creating Layer relu2
I0428 19:50:03.825116 26919 net.cpp:408] relu2 <- ip2
I0428 19:50:03.825121 26919 net.cpp:369] relu2 -> ip2 (in-place)
I0428 19:50:03.825350 26919 net.cpp:124] Setting up relu2
I0428 19:50:03.825361 26919 net.cpp:131] Top shape: 100 10 (1000)
I0428 19:50:03.825366 26919 net.cpp:139] Memory required for data: 2102800
I0428 19:50:03.825369 26919 layer_factory.hpp:77] Creating layer ip2_relu2_0_split
I0428 19:50:03.825376 26919 net.cpp:86] Creating Layer ip2_relu2_0_split
I0428 19:50:03.825379 26919 net.cpp:408] ip2_relu2_0_split <- ip2
I0428 19:50:03.825384 26919 net.cpp:382] ip2_relu2_0_split -> ip2_relu2_0_split_0
I0428 19:50:03.825404 26919 net.cpp:382] ip2_relu2_0_split -> ip2_relu2_0_split_1
I0428 19:50:03.825460 26919 net.cpp:124] Setting up ip2_relu2_0_split
I0428 19:50:03.825469 26919 net.cpp:131] Top shape: 100 10 (1000)
I0428 19:50:03.825474 26919 net.cpp:131] Top shape: 100 10 (1000)
I0428 19:50:03.825479 26919 net.cpp:139] Memory required for data: 2110800
I0428 19:50:03.825485 26919 layer_factory.hpp:77] Creating layer accuracy
I0428 19:50:03.825495 26919 net.cpp:86] Creating Layer accuracy
I0428 19:50:03.825500 26919 net.cpp:408] accuracy <- ip2_relu2_0_split_0
I0428 19:50:03.825505 26919 net.cpp:408] accuracy <- label_mnist_1_split_0
I0428 19:50:03.825510 26919 net.cpp:382] accuracy -> accuracy
…
