…
I0428 19:52:41.467223 27567 net.cpp:296] The NetState phase (0) differed from the phase (1) specified by a rule in layer mnist
I0428 19:52:41.467237 27567 net.cpp:296] The NetState phase (0) differed from the phase (1) specified by a rule in layer accuracy
I0428 19:52:41.467308 27567 net.cpp:53] Initializing net from parameters: 
name: "LeNet"
state {
  phase: TRAIN
  level: 0
  stage: ""
}
layer {
  name: "mnist"
  type: "Data"
  top: "data"
  top: "label"
  include {
    phase: TRAIN
  }
  transform_param {
    scale: 0.00390625
  }
  data_param {
    source: "examples/mnist/mnist_train_lmdb"
    batch_size: 64
    backend: LMDB
  }
}
layer {
  name: "conv0"
  type: "Convolution"
  bottom: "data"
  top: "conv0"
  param {
    lr_mult: 1
  }
  param {
    lr_mult: 2
  }
  convolution_param {
    num_output: 5
    kernel_size: 5
    stride: 1
    weight_filler {
      type: "xavier"
    }
    bias_filler {
      type: "constant"
    }
  }
}
layer {
  name: "pool0"
  type: "Pooling"
  bottom: "conv0"
  top: "pool0"
  pooling_param {
    pool: MAX
    kernel_size: 2
    stride: 2
  }
}
layer {
  name: "conv1"
  type: "Convolution"
  bottom: "pool0"
  top: "conv1"
  param {
    lr_mult: 1
  }
  param {
    lr_mult: 2
  }
  convolution_param {
    num_output: 50
    kernel_size: 5
    stride: 1
    weight_filler {
      type: "xavier"
    }
    bias_filler {
      type: "constant"
    }
  }
}
layer {
  name: "pool1"
  type: "Pooling"
  bottom: "conv1"
  top: "pool1"
  pooling_param {
    pool: MAX
    kernel_size: 2
    stride: 2
  }
}
layer {
  name: "ip1"
  type: "InnerProduct"
  bottom: "pool1"
  top: "ip1"
  param {
    lr_mult: 1
  }
  param {
    lr_mult: 2
  }
  inner_product_param {
    num_output: 10
    weight_filler {
      type: "xavier"
    }
    bias_filler {
      type: "constant"
    }
  }
}
layer {
  name: "relu1"
  type: "ReLU"
  bottom: "ip1"
  top: "ip1"
}
layer {
  name: "ip2"
  type: "InnerProduct"
  bottom: "ip1"
  top: "ip2"
  param {
    lr_mult: 1
  }
  param {
    lr_mult: 2
  }
  inner_product_param {
    num_output: 10
    weight_filler {
      type: "xavier"
    }
    bias_filler {
      type: "constant"
    }
  }
}
layer {
  name: "relu2"
  type: "ReLU"
  bottom: "ip2"
  top: "ip2"
}
layer {
  name: "loss"
  type: "SoftmaxWithLoss"
  bottom: "ip2"
  bottom: "label"
  top: "loss"
}
I0428 19:52:41.467363 27567 layer_factory.hpp:77] Creating layer mnist
I0428 19:52:41.467448 27567 db_lmdb.cpp:35] Opened lmdb examples/mnist/mnist_train_lmdb
I0428 19:52:41.467468 27567 net.cpp:86] Creating Layer mnist
I0428 19:52:41.467473 27567 net.cpp:382] mnist -> data
I0428 19:52:41.467490 27567 net.cpp:382] mnist -> label
I0428 19:52:41.468394 27567 data_layer.cpp:45] output data size: 64,1,28,28
I0428 19:52:41.470597 27567 net.cpp:124] Setting up mnist
I0428 19:52:41.470628 27567 net.cpp:131] Top shape: 64 1 28 28 (50176)
I0428 19:52:41.470633 27567 net.cpp:131] Top shape: 64 (64)
I0428 19:52:41.470636 27567 net.cpp:139] Memory required for data: 200960
I0428 19:52:41.470643 27567 layer_factory.hpp:77] Creating layer conv0
I0428 19:52:41.470655 27567 net.cpp:86] Creating Layer conv0
I0428 19:52:41.470660 27567 net.cpp:408] conv0 <- data
I0428 19:52:41.470669 27567 net.cpp:382] conv0 -> conv0
I0428 19:52:41.707227 27567 net.cpp:124] Setting up conv0
I0428 19:52:41.707267 27567 net.cpp:131] Top shape: 64 5 24 24 (184320)
I0428 19:52:41.707271 27567 net.cpp:139] Memory required for data: 938240
I0428 19:52:41.707321 27567 layer_factory.hpp:77] Creating layer pool0
I0428 19:52:41.707350 27567 net.cpp:86] Creating Layer pool0
I0428 19:52:41.707353 27567 net.cpp:408] pool0 <- conv0
I0428 19:52:41.707358 27567 net.cpp:382] pool0 -> pool0
I0428 19:52:41.707404 27567 net.cpp:124] Setting up pool0
I0428 19:52:41.707415 27567 net.cpp:131] Top shape: 64 5 12 12 (46080)
I0428 19:52:41.707418 27567 net.cpp:139] Memory required for data: 1122560
I0428 19:52:41.707422 27567 layer_factory.hpp:77] Creating layer conv1
I0428 19:52:41.707432 27567 net.cpp:86] Creating Layer conv1
I0428 19:52:41.707434 27567 net.cpp:408] conv1 <- pool0
I0428 19:52:41.707439 27567 net.cpp:382] conv1 -> conv1
I0428 19:52:41.710413 27567 net.cpp:124] Setting up conv1
I0428 19:52:41.710444 27567 net.cpp:131] Top shape: 64 50 8 8 (204800)
I0428 19:52:41.710448 27567 net.cpp:139] Memory required for data: 1941760
I0428 19:52:41.710458 27567 layer_factory.hpp:77] Creating layer pool1
I0428 19:52:41.710466 27567 net.cpp:86] Creating Layer pool1
I0428 19:52:41.710469 27567 net.cpp:408] pool1 <- conv1
I0428 19:52:41.710474 27567 net.cpp:382] pool1 -> pool1
I0428 19:52:41.710554 27567 net.cpp:124] Setting up pool1
I0428 19:52:41.710578 27567 net.cpp:131] Top shape: 64 50 4 4 (51200)
I0428 19:52:41.710582 27567 net.cpp:139] Memory required for data: 2146560
I0428 19:52:41.710585 27567 layer_factory.hpp:77] Creating layer ip1
I0428 19:52:41.710592 27567 net.cpp:86] Creating Layer ip1
I0428 19:52:41.710595 27567 net.cpp:408] ip1 <- pool1
I0428 19:52:41.710600 27567 net.cpp:382] ip1 -> ip1
I0428 19:52:41.710743 27567 net.cpp:124] Setting up ip1
I0428 19:52:41.710750 27567 net.cpp:131] Top shape: 64 10 (640)
I0428 19:52:41.710753 27567 net.cpp:139] Memory required for data: 2149120
I0428 19:52:41.710762 27567 layer_factory.hpp:77] Creating layer relu1
I0428 19:52:41.710767 27567 net.cpp:86] Creating Layer relu1
I0428 19:52:41.710769 27567 net.cpp:408] relu1 <- ip1
I0428 19:52:41.710773 27567 net.cpp:369] relu1 -> ip1 (in-place)
I0428 19:52:41.710939 27567 net.cpp:124] Setting up relu1
I0428 19:52:41.710947 27567 net.cpp:131] Top shape: 64 10 (640)
I0428 19:52:41.710952 27567 net.cpp:139] Memory required for data: 2151680
I0428 19:52:41.710954 27567 layer_factory.hpp:77] Creating layer ip2
I0428 19:52:41.710960 27567 net.cpp:86] Creating Layer ip2
I0428 19:52:41.710964 27567 net.cpp:408] ip2 <- ip1
I0428 19:52:41.710968 27567 net.cpp:382] ip2 -> ip2
I0428 19:52:41.711086 27567 net.cpp:124] Setting up ip2
I0428 19:52:41.711091 27567 net.cpp:131] Top shape: 64 10 (640)
I0428 19:52:41.711096 27567 net.cpp:139] Memory required for data: 2154240
I0428 19:52:41.711099 27567 layer_factory.hpp:77] Creating layer relu2
I0428 19:52:41.711105 27567 net.cpp:86] Creating Layer relu2
I0428 19:52:41.711108 27567 net.cpp:408] relu2 <- ip2
I0428 19:52:41.711112 27567 net.cpp:369] relu2 -> ip2 (in-place)
I0428 19:52:41.711930 27567 net.cpp:124] Setting up relu2
I0428 19:52:41.711941 27567 net.cpp:131] Top shape: 64 10 (640)
I0428 19:52:41.711961 27567 net.cpp:139] Memory required for data: 2156800
I0428 19:52:41.711963 27567 layer_factory.hpp:77] Creating layer loss
I0428 19:52:41.711969 27567 net.cpp:86] Creating Layer loss
I0428 19:52:41.711973 27567 net.cpp:408] loss <- ip2
I0428 19:52:41.711978 27567 net.cpp:408] loss <- label
I0428 19:52:41.711983 27567 net.cpp:382] loss -> loss
I0428 19:52:41.712003 27567 layer_factory.hpp:77] Creating layer loss
…
I0428 19:52:41.712671 27567 solver.cpp:173] Creating test net (#0) specified by net file: ECE595/mnist/train_test/var_everything2/lenet_train_test668.prototxt
I0428 19:52:41.712713 27567 net.cpp:296] The NetState phase (1) differed from the phase (0) specified by a rule in layer mnist
I0428 19:52:41.712805 27567 net.cpp:53] Initializing net from parameters: 
name: "LeNet"
state {
  phase: TEST
}
layer {
  name: "mnist"
  type: "Data"
  top: "data"
  top: "label"
  include {
    phase: TEST
  }
  transform_param {
    scale: 0.00390625
  }
  data_param {
    source: "examples/mnist/mnist_test_lmdb"
    batch_size: 100
    backend: LMDB
  }
}
layer {
  name: "conv0"
  type: "Convolution"
  bottom: "data"
  top: "conv0"
  param {
    lr_mult: 1
  }
  param {
    lr_mult: 2
  }
  convolution_param {
    num_output: 5
    kernel_size: 5
    stride: 1
    weight_filler {
      type: "xavier"
    }
    bias_filler {
      type: "constant"
    }
  }
}
layer {
  name: "pool0"
  type: "Pooling"
  bottom: "conv0"
  top: "pool0"
  pooling_param {
    pool: MAX
    kernel_size: 2
    stride: 2
  }
}
layer {
  name: "conv1"
  type: "Convolution"
  bottom: "pool0"
  top: "conv1"
  param {
    lr_mult: 1
  }
  param {
    lr_mult: 2
  }
  convolution_param {
    num_output: 50
    kernel_size: 5
    stride: 1
    weight_filler {
      type: "xavier"
    }
    bias_filler {
      type: "constant"
    }
  }
}
layer {
  name: "pool1"
  type: "Pooling"
  bottom: "conv1"
  top: "pool1"
  pooling_param {
    pool: MAX
    kernel_size: 2
    stride: 2
  }
}
layer {
  name: "ip1"
  type: "InnerProduct"
  bottom: "pool1"
  top: "ip1"
  param {
    lr_mult: 1
  }
  param {
    lr_mult: 2
  }
  inner_product_param {
    num_output: 10
    weight_filler {
      type: "xavier"
    }
    bias_filler {
      type: "constant"
    }
  }
}
layer {
  name: "relu1"
  type: "ReLU"
  bottom: "ip1"
  top: "ip1"
}
layer {
  name: "ip2"
  type: "InnerProduct"
  bottom: "ip1"
  top: "ip2"
  param {
    lr_mult: 1
  }
  param {
    lr_mult: 2
  }
  inner_product_param {
    num_output: 10
    weight_filler {
      type: "xavier"
    }
    bias_filler {
      type: "constant"
    }
  }
}
layer {
  name: "relu2"
  type: "ReLU"
  bottom: "ip2"
  top: "ip2"
}
layer {
  name: "accuracy"
  type: "Accuracy"
  bottom: "ip2"
  bottom: "label"
  top: "accuracy"
  include {
    phase: TEST
  }
}
layer {
  name: "loss"
  type: "SoftmaxWithLoss"
  bottom: "ip2"
  bottom: "label"
  top: "loss"
}
I0428 19:52:41.712875 27567 layer_factory.hpp:77] Creating layer mnist
I0428 19:52:41.712935 27567 db_lmdb.cpp:35] Opened lmdb examples/mnist/mnist_test_lmdb
I0428 19:52:41.712947 27567 net.cpp:86] Creating Layer mnist
I0428 19:52:41.712952 27567 net.cpp:382] mnist -> data
I0428 19:52:41.712960 27567 net.cpp:382] mnist -> label
I0428 19:52:41.713078 27567 data_layer.cpp:45] output data size: 100,1,28,28
I0428 19:52:41.715248 27567 net.cpp:124] Setting up mnist
I0428 19:52:41.715277 27567 net.cpp:131] Top shape: 100 1 28 28 (78400)
I0428 19:52:41.715282 27567 net.cpp:131] Top shape: 100 (100)
I0428 19:52:41.715286 27567 net.cpp:139] Memory required for data: 314000
I0428 19:52:41.715289 27567 layer_factory.hpp:77] Creating layer label_mnist_1_split
I0428 19:52:41.715296 27567 net.cpp:86] Creating Layer label_mnist_1_split
I0428 19:52:41.715299 27567 net.cpp:408] label_mnist_1_split <- label
I0428 19:52:41.715304 27567 net.cpp:382] label_mnist_1_split -> label_mnist_1_split_0
I0428 19:52:41.715312 27567 net.cpp:382] label_mnist_1_split -> label_mnist_1_split_1
I0428 19:52:41.715404 27567 net.cpp:124] Setting up label_mnist_1_split
I0428 19:52:41.715423 27567 net.cpp:131] Top shape: 100 (100)
I0428 19:52:41.715427 27567 net.cpp:131] Top shape: 100 (100)
I0428 19:52:41.715430 27567 net.cpp:139] Memory required for data: 314800
I0428 19:52:41.715433 27567 layer_factory.hpp:77] Creating layer conv0
I0428 19:52:41.715442 27567 net.cpp:86] Creating Layer conv0
I0428 19:52:41.715445 27567 net.cpp:408] conv0 <- data
I0428 19:52:41.715451 27567 net.cpp:382] conv0 -> conv0
I0428 19:52:41.717308 27567 net.cpp:124] Setting up conv0
I0428 19:52:41.717337 27567 net.cpp:131] Top shape: 100 5 24 24 (288000)
I0428 19:52:41.717341 27567 net.cpp:139] Memory required for data: 1466800
I0428 19:52:41.717350 27567 layer_factory.hpp:77] Creating layer pool0
I0428 19:52:41.717357 27567 net.cpp:86] Creating Layer pool0
I0428 19:52:41.717360 27567 net.cpp:408] pool0 <- conv0
I0428 19:52:41.717365 27567 net.cpp:382] pool0 -> pool0
I0428 19:52:41.717399 27567 net.cpp:124] Setting up pool0
I0428 19:52:41.717406 27567 net.cpp:131] Top shape: 100 5 12 12 (72000)
I0428 19:52:41.717409 27567 net.cpp:139] Memory required for data: 1754800
I0428 19:52:41.717412 27567 layer_factory.hpp:77] Creating layer conv1
I0428 19:52:41.717420 27567 net.cpp:86] Creating Layer conv1
I0428 19:52:41.717424 27567 net.cpp:408] conv1 <- pool0
I0428 19:52:41.717429 27567 net.cpp:382] conv1 -> conv1
I0428 19:52:41.719120 27567 net.cpp:124] Setting up conv1
I0428 19:52:41.719149 27567 net.cpp:131] Top shape: 100 50 8 8 (320000)
I0428 19:52:41.719153 27567 net.cpp:139] Memory required for data: 3034800
I0428 19:52:41.719166 27567 layer_factory.hpp:77] Creating layer pool1
I0428 19:52:41.719172 27567 net.cpp:86] Creating Layer pool1
I0428 19:52:41.719175 27567 net.cpp:408] pool1 <- conv1
I0428 19:52:41.719180 27567 net.cpp:382] pool1 -> pool1
I0428 19:52:41.719223 27567 net.cpp:124] Setting up pool1
I0428 19:52:41.719228 27567 net.cpp:131] Top shape: 100 50 4 4 (80000)
I0428 19:52:41.719231 27567 net.cpp:139] Memory required for data: 3354800
I0428 19:52:41.719234 27567 layer_factory.hpp:77] Creating layer ip1
I0428 19:52:41.719240 27567 net.cpp:86] Creating Layer ip1
I0428 19:52:41.719245 27567 net.cpp:408] ip1 <- pool1
I0428 19:52:41.719251 27567 net.cpp:382] ip1 -> ip1
I0428 19:52:41.719429 27567 net.cpp:124] Setting up ip1
I0428 19:52:41.719439 27567 net.cpp:131] Top shape: 100 10 (1000)
I0428 19:52:41.719442 27567 net.cpp:139] Memory required for data: 3358800
I0428 19:52:41.719449 27567 layer_factory.hpp:77] Creating layer relu1
I0428 19:52:41.719456 27567 net.cpp:86] Creating Layer relu1
I0428 19:52:41.719460 27567 net.cpp:408] relu1 <- ip1
I0428 19:52:41.719475 27567 net.cpp:369] relu1 -> ip1 (in-place)
I0428 19:52:41.719640 27567 net.cpp:124] Setting up relu1
I0428 19:52:41.719651 27567 net.cpp:131] Top shape: 100 10 (1000)
I0428 19:52:41.719655 27567 net.cpp:139] Memory required for data: 3362800
I0428 19:52:41.719658 27567 layer_factory.hpp:77] Creating layer ip2
I0428 19:52:41.719666 27567 net.cpp:86] Creating Layer ip2
I0428 19:52:41.719671 27567 net.cpp:408] ip2 <- ip1
I0428 19:52:41.719681 27567 net.cpp:382] ip2 -> ip2
I0428 19:52:41.719782 27567 net.cpp:124] Setting up ip2
I0428 19:52:41.719789 27567 net.cpp:131] Top shape: 100 10 (1000)
I0428 19:52:41.719792 27567 net.cpp:139] Memory required for data: 3366800
I0428 19:52:41.719811 27567 layer_factory.hpp:77] Creating layer relu2
I0428 19:52:41.719820 27567 net.cpp:86] Creating Layer relu2
I0428 19:52:41.719827 27567 net.cpp:408] relu2 <- ip2
I0428 19:52:41.719832 27567 net.cpp:369] relu2 -> ip2 (in-place)
I0428 19:52:41.720005 27567 net.cpp:124] Setting up relu2
I0428 19:52:41.720013 27567 net.cpp:131] Top shape: 100 10 (1000)
I0428 19:52:41.720016 27567 net.cpp:139] Memory required for data: 3370800
I0428 19:52:41.720019 27567 layer_factory.hpp:77] Creating layer ip2_relu2_0_split
I0428 19:52:41.720026 27567 net.cpp:86] Creating Layer ip2_relu2_0_split
I0428 19:52:41.720029 27567 net.cpp:408] ip2_relu2_0_split <- ip2
I0428 19:52:41.720033 27567 net.cpp:382] ip2_relu2_0_split -> ip2_relu2_0_split_0
I0428 19:52:41.720065 27567 net.cpp:382] ip2_relu2_0_split -> ip2_relu2_0_split_1
I0428 19:52:41.720142 27567 net.cpp:124] Setting up ip2_relu2_0_split
I0428 19:52:41.720150 27567 net.cpp:131] Top shape: 100 10 (1000)
I0428 19:52:41.720155 27567 net.cpp:131] Top shape: 100 10 (1000)
I0428 19:52:41.720157 27567 net.cpp:139] Memory required for data: 3378800
I0428 19:52:41.720160 27567 layer_factory.hpp:77] Creating layer accuracy
I0428 19:52:41.720165 27567 net.cpp:86] Creating Layer accuracy
I0428 19:52:41.720170 27567 net.cpp:408] accuracy <- ip2_relu2_0_split_0
I0428 19:52:41.720175 27567 net.cpp:408] accuracy <- label_mnist_1_split_0
I0428 19:52:41.720180 27567 net.cpp:382] accuracy -> accuracy
…
