…
I0428 20:07:42.828758 31166 net.cpp:296] The NetState phase (0) differed from the phase (1) specified by a rule in layer mnist
I0428 20:07:42.828773 31166 net.cpp:296] The NetState phase (0) differed from the phase (1) specified by a rule in layer accuracy
I0428 20:07:42.828881 31166 net.cpp:53] Initializing net from parameters: 
name: "LeNet"
state {
  phase: TRAIN
  level: 0
  stage: ""
}
layer {
  name: "mnist"
  type: "Data"
  top: "data"
  top: "label"
  include {
    phase: TRAIN
  }
  transform_param {
    scale: 0.00390625
  }
  data_param {
    source: "examples/mnist/mnist_train_lmdb"
    batch_size: 64
    backend: LMDB
  }
}
layer {
  name: "conv0"
  type: "Convolution"
  bottom: "data"
  top: "conv0"
  param {
    lr_mult: 1
  }
  param {
    lr_mult: 2
  }
  convolution_param {
    num_output: 25
    kernel_size: 5
    stride: 1
    weight_filler {
      type: "xavier"
    }
    bias_filler {
      type: "constant"
    }
  }
}
layer {
  name: "pool0"
  type: "Pooling"
  bottom: "conv0"
  top: "pool0"
  pooling_param {
    pool: MAX
    kernel_size: 2
    stride: 2
  }
}
layer {
  name: "conv1"
  type: "Convolution"
  bottom: "pool0"
  top: "conv1"
  param {
    lr_mult: 1
  }
  param {
    lr_mult: 2
  }
  convolution_param {
    num_output: 10
    kernel_size: 5
    stride: 1
    weight_filler {
      type: "xavier"
    }
    bias_filler {
      type: "constant"
    }
  }
}
layer {
  name: "pool1"
  type: "Pooling"
  bottom: "conv1"
  top: "pool1"
  pooling_param {
    pool: MAX
    kernel_size: 2
    stride: 2
  }
}
layer {
  name: "ip1"
  type: "InnerProduct"
  bottom: "pool1"
  top: "ip1"
  param {
    lr_mult: 1
  }
  param {
    lr_mult: 2
  }
  inner_product_param {
    num_output: 50
    weight_filler {
      type: "xavier"
    }
    bias_filler {
      type: "constant"
    }
  }
}
layer {
  name: "relu1"
  type: "ReLU"
  bottom: "ip1"
  top: "ip1"
}
layer {
  name: "ip2"
  type: "InnerProduct"
  bottom: "ip1"
  top: "ip2"
  param {
    lr_mult: 1
  }
  param {
    lr_mult: 2
  }
  inner_product_param {
    num_output: 10
    weight_filler {
      type: "xavier"
    }
    bias_filler {
      type: "constant"
    }
  }
}
layer {
  name: "relu2"
  type: "ReLU"
  bottom: "ip2"
  top: "ip2"
}
layer {
  name: "loss"
  type: "SoftmaxWithLoss"
  bottom: "ip2"
  bottom: "label"
  top: "loss"
}
I0428 20:07:42.828963 31166 layer_factory.hpp:77] Creating layer mnist
I0428 20:07:42.829051 31166 db_lmdb.cpp:35] Opened lmdb examples/mnist/mnist_train_lmdb
I0428 20:07:42.829071 31166 net.cpp:86] Creating Layer mnist
I0428 20:07:42.829078 31166 net.cpp:382] mnist -> data
I0428 20:07:42.829097 31166 net.cpp:382] mnist -> label
I0428 20:07:42.830032 31166 data_layer.cpp:45] output data size: 64,1,28,28
I0428 20:07:42.832226 31166 net.cpp:124] Setting up mnist
I0428 20:07:42.832254 31166 net.cpp:131] Top shape: 64 1 28 28 (50176)
I0428 20:07:42.832259 31166 net.cpp:131] Top shape: 64 (64)
I0428 20:07:42.832262 31166 net.cpp:139] Memory required for data: 200960
I0428 20:07:42.832268 31166 layer_factory.hpp:77] Creating layer conv0
I0428 20:07:42.832306 31166 net.cpp:86] Creating Layer conv0
I0428 20:07:42.832312 31166 net.cpp:408] conv0 <- data
I0428 20:07:42.832324 31166 net.cpp:382] conv0 -> conv0
I0428 20:07:43.059377 31166 net.cpp:124] Setting up conv0
I0428 20:07:43.059403 31166 net.cpp:131] Top shape: 64 25 24 24 (921600)
I0428 20:07:43.059407 31166 net.cpp:139] Memory required for data: 3887360
I0428 20:07:43.059440 31166 layer_factory.hpp:77] Creating layer pool0
I0428 20:07:43.059453 31166 net.cpp:86] Creating Layer pool0
I0428 20:07:43.059456 31166 net.cpp:408] pool0 <- conv0
I0428 20:07:43.059478 31166 net.cpp:382] pool0 -> pool0
I0428 20:07:43.059535 31166 net.cpp:124] Setting up pool0
I0428 20:07:43.059541 31166 net.cpp:131] Top shape: 64 25 12 12 (230400)
I0428 20:07:43.059545 31166 net.cpp:139] Memory required for data: 4808960
I0428 20:07:43.059547 31166 layer_factory.hpp:77] Creating layer conv1
I0428 20:07:43.059557 31166 net.cpp:86] Creating Layer conv1
I0428 20:07:43.059561 31166 net.cpp:408] conv1 <- pool0
I0428 20:07:43.059566 31166 net.cpp:382] conv1 -> conv1
I0428 20:07:43.062479 31166 net.cpp:124] Setting up conv1
I0428 20:07:43.062507 31166 net.cpp:131] Top shape: 64 10 8 8 (40960)
I0428 20:07:43.062511 31166 net.cpp:139] Memory required for data: 4972800
I0428 20:07:43.062520 31166 layer_factory.hpp:77] Creating layer pool1
I0428 20:07:43.062526 31166 net.cpp:86] Creating Layer pool1
I0428 20:07:43.062530 31166 net.cpp:408] pool1 <- conv1
I0428 20:07:43.062535 31166 net.cpp:382] pool1 -> pool1
I0428 20:07:43.062584 31166 net.cpp:124] Setting up pool1
I0428 20:07:43.062590 31166 net.cpp:131] Top shape: 64 10 4 4 (10240)
I0428 20:07:43.062592 31166 net.cpp:139] Memory required for data: 5013760
I0428 20:07:43.062595 31166 layer_factory.hpp:77] Creating layer ip1
I0428 20:07:43.062602 31166 net.cpp:86] Creating Layer ip1
I0428 20:07:43.062605 31166 net.cpp:408] ip1 <- pool1
I0428 20:07:43.062609 31166 net.cpp:382] ip1 -> ip1
I0428 20:07:43.062746 31166 net.cpp:124] Setting up ip1
I0428 20:07:43.062753 31166 net.cpp:131] Top shape: 64 50 (3200)
I0428 20:07:43.062757 31166 net.cpp:139] Memory required for data: 5026560
I0428 20:07:43.062763 31166 layer_factory.hpp:77] Creating layer relu1
I0428 20:07:43.062769 31166 net.cpp:86] Creating Layer relu1
I0428 20:07:43.062788 31166 net.cpp:408] relu1 <- ip1
I0428 20:07:43.062793 31166 net.cpp:369] relu1 -> ip1 (in-place)
I0428 20:07:43.062948 31166 net.cpp:124] Setting up relu1
I0428 20:07:43.062957 31166 net.cpp:131] Top shape: 64 50 (3200)
I0428 20:07:43.062960 31166 net.cpp:139] Memory required for data: 5039360
I0428 20:07:43.062963 31166 layer_factory.hpp:77] Creating layer ip2
I0428 20:07:43.062969 31166 net.cpp:86] Creating Layer ip2
I0428 20:07:43.062973 31166 net.cpp:408] ip2 <- ip1
I0428 20:07:43.062978 31166 net.cpp:382] ip2 -> ip2
I0428 20:07:43.063066 31166 net.cpp:124] Setting up ip2
I0428 20:07:43.063073 31166 net.cpp:131] Top shape: 64 10 (640)
I0428 20:07:43.063076 31166 net.cpp:139] Memory required for data: 5041920
I0428 20:07:43.063081 31166 layer_factory.hpp:77] Creating layer relu2
I0428 20:07:43.063087 31166 net.cpp:86] Creating Layer relu2
I0428 20:07:43.063091 31166 net.cpp:408] relu2 <- ip2
I0428 20:07:43.063109 31166 net.cpp:369] relu2 -> ip2 (in-place)
I0428 20:07:43.063812 31166 net.cpp:124] Setting up relu2
I0428 20:07:43.063824 31166 net.cpp:131] Top shape: 64 10 (640)
I0428 20:07:43.063843 31166 net.cpp:139] Memory required for data: 5044480
I0428 20:07:43.063846 31166 layer_factory.hpp:77] Creating layer loss
I0428 20:07:43.063853 31166 net.cpp:86] Creating Layer loss
I0428 20:07:43.063855 31166 net.cpp:408] loss <- ip2
I0428 20:07:43.063860 31166 net.cpp:408] loss <- label
I0428 20:07:43.063881 31166 net.cpp:382] loss -> loss
I0428 20:07:43.063901 31166 layer_factory.hpp:77] Creating layer loss
…
I0428 20:07:43.064519 31166 solver.cpp:173] Creating test net (#0) specified by net file: ECE595/mnist/train_test/var_everything2/lenet_train_test1063.prototxt
I0428 20:07:43.064553 31166 net.cpp:296] The NetState phase (1) differed from the phase (0) specified by a rule in layer mnist
I0428 20:07:43.064633 31166 net.cpp:53] Initializing net from parameters: 
name: "LeNet"
state {
  phase: TEST
}
layer {
  name: "mnist"
  type: "Data"
  top: "data"
  top: "label"
  include {
    phase: TEST
  }
  transform_param {
    scale: 0.00390625
  }
  data_param {
    source: "examples/mnist/mnist_test_lmdb"
    batch_size: 100
    backend: LMDB
  }
}
layer {
  name: "conv0"
  type: "Convolution"
  bottom: "data"
  top: "conv0"
  param {
    lr_mult: 1
  }
  param {
    lr_mult: 2
  }
  convolution_param {
    num_output: 25
    kernel_size: 5
    stride: 1
    weight_filler {
      type: "xavier"
    }
    bias_filler {
      type: "constant"
    }
  }
}
layer {
  name: "pool0"
  type: "Pooling"
  bottom: "conv0"
  top: "pool0"
  pooling_param {
    pool: MAX
    kernel_size: 2
    stride: 2
  }
}
layer {
  name: "conv1"
  type: "Convolution"
  bottom: "pool0"
  top: "conv1"
  param {
    lr_mult: 1
  }
  param {
    lr_mult: 2
  }
  convolution_param {
    num_output: 10
    kernel_size: 5
    stride: 1
    weight_filler {
      type: "xavier"
    }
    bias_filler {
      type: "constant"
    }
  }
}
layer {
  name: "pool1"
  type: "Pooling"
  bottom: "conv1"
  top: "pool1"
  pooling_param {
    pool: MAX
    kernel_size: 2
    stride: 2
  }
}
layer {
  name: "ip1"
  type: "InnerProduct"
  bottom: "pool1"
  top: "ip1"
  param {
    lr_mult: 1
  }
  param {
    lr_mult: 2
  }
  inner_product_param {
    num_output: 50
    weight_filler {
      type: "xavier"
    }
    bias_filler {
      type: "constant"
    }
  }
}
layer {
  name: "relu1"
  type: "ReLU"
  bottom: "ip1"
  top: "ip1"
}
layer {
  name: "ip2"
  type: "InnerProduct"
  bottom: "ip1"
  top: "ip2"
  param {
    lr_mult: 1
  }
  param {
    lr_mult: 2
  }
  inner_product_param {
    num_output: 10
    weight_filler {
      type: "xavier"
    }
    bias_filler {
      type: "constant"
    }
  }
}
layer {
  name: "relu2"
  type: "ReLU"
  bottom: "ip2"
  top: "ip2"
}
layer {
  name: "accuracy"
  type: "Accuracy"
  bottom: "ip2"
  bottom: "label"
  top: "accuracy"
  include {
    phase: TEST
  }
}
layer {
  name: "loss"
  type: "SoftmaxWithLoss"
  bottom: "ip2"
  bottom: "label"
  top: "loss"
}
I0428 20:07:43.064692 31166 layer_factory.hpp:77] Creating layer mnist
I0428 20:07:43.064735 31166 db_lmdb.cpp:35] Opened lmdb examples/mnist/mnist_test_lmdb
I0428 20:07:43.064748 31166 net.cpp:86] Creating Layer mnist
I0428 20:07:43.064752 31166 net.cpp:382] mnist -> data
I0428 20:07:43.064759 31166 net.cpp:382] mnist -> label
I0428 20:07:43.064853 31166 data_layer.cpp:45] output data size: 100,1,28,28
I0428 20:07:43.066916 31166 net.cpp:124] Setting up mnist
I0428 20:07:43.066961 31166 net.cpp:131] Top shape: 100 1 28 28 (78400)
I0428 20:07:43.066965 31166 net.cpp:131] Top shape: 100 (100)
I0428 20:07:43.066968 31166 net.cpp:139] Memory required for data: 314000
I0428 20:07:43.066972 31166 layer_factory.hpp:77] Creating layer label_mnist_1_split
I0428 20:07:43.066998 31166 net.cpp:86] Creating Layer label_mnist_1_split
I0428 20:07:43.067003 31166 net.cpp:408] label_mnist_1_split <- label
I0428 20:07:43.067008 31166 net.cpp:382] label_mnist_1_split -> label_mnist_1_split_0
I0428 20:07:43.067014 31166 net.cpp:382] label_mnist_1_split -> label_mnist_1_split_1
I0428 20:07:43.067111 31166 net.cpp:124] Setting up label_mnist_1_split
I0428 20:07:43.067119 31166 net.cpp:131] Top shape: 100 (100)
I0428 20:07:43.067123 31166 net.cpp:131] Top shape: 100 (100)
I0428 20:07:43.067126 31166 net.cpp:139] Memory required for data: 314800
I0428 20:07:43.067145 31166 layer_factory.hpp:77] Creating layer conv0
I0428 20:07:43.067170 31166 net.cpp:86] Creating Layer conv0
I0428 20:07:43.067173 31166 net.cpp:408] conv0 <- data
I0428 20:07:43.067178 31166 net.cpp:382] conv0 -> conv0
I0428 20:07:43.068948 31166 net.cpp:124] Setting up conv0
I0428 20:07:43.068961 31166 net.cpp:131] Top shape: 100 25 24 24 (1440000)
I0428 20:07:43.068965 31166 net.cpp:139] Memory required for data: 6074800
I0428 20:07:43.068974 31166 layer_factory.hpp:77] Creating layer pool0
I0428 20:07:43.068981 31166 net.cpp:86] Creating Layer pool0
I0428 20:07:43.069000 31166 net.cpp:408] pool0 <- conv0
I0428 20:07:43.069005 31166 net.cpp:382] pool0 -> pool0
I0428 20:07:43.069041 31166 net.cpp:124] Setting up pool0
I0428 20:07:43.069046 31166 net.cpp:131] Top shape: 100 25 12 12 (360000)
I0428 20:07:43.069051 31166 net.cpp:139] Memory required for data: 7514800
I0428 20:07:43.069053 31166 layer_factory.hpp:77] Creating layer conv1
I0428 20:07:43.069061 31166 net.cpp:86] Creating Layer conv1
I0428 20:07:43.069064 31166 net.cpp:408] conv1 <- pool0
I0428 20:07:43.069069 31166 net.cpp:382] conv1 -> conv1
I0428 20:07:43.071173 31166 net.cpp:124] Setting up conv1
I0428 20:07:43.071202 31166 net.cpp:131] Top shape: 100 10 8 8 (64000)
I0428 20:07:43.071207 31166 net.cpp:139] Memory required for data: 7770800
I0428 20:07:43.071230 31166 layer_factory.hpp:77] Creating layer pool1
I0428 20:07:43.071236 31166 net.cpp:86] Creating Layer pool1
I0428 20:07:43.071240 31166 net.cpp:408] pool1 <- conv1
I0428 20:07:43.071245 31166 net.cpp:382] pool1 -> pool1
I0428 20:07:43.071300 31166 net.cpp:124] Setting up pool1
I0428 20:07:43.071305 31166 net.cpp:131] Top shape: 100 10 4 4 (16000)
I0428 20:07:43.071307 31166 net.cpp:139] Memory required for data: 7834800
I0428 20:07:43.071310 31166 layer_factory.hpp:77] Creating layer ip1
I0428 20:07:43.071317 31166 net.cpp:86] Creating Layer ip1
I0428 20:07:43.071321 31166 net.cpp:408] ip1 <- pool1
I0428 20:07:43.071326 31166 net.cpp:382] ip1 -> ip1
I0428 20:07:43.071470 31166 net.cpp:124] Setting up ip1
I0428 20:07:43.071477 31166 net.cpp:131] Top shape: 100 50 (5000)
I0428 20:07:43.071480 31166 net.cpp:139] Memory required for data: 7854800
I0428 20:07:43.071487 31166 layer_factory.hpp:77] Creating layer relu1
I0428 20:07:43.071492 31166 net.cpp:86] Creating Layer relu1
I0428 20:07:43.071496 31166 net.cpp:408] relu1 <- ip1
I0428 20:07:43.071499 31166 net.cpp:369] relu1 -> ip1 (in-place)
I0428 20:07:43.071770 31166 net.cpp:124] Setting up relu1
I0428 20:07:43.071796 31166 net.cpp:131] Top shape: 100 50 (5000)
I0428 20:07:43.071800 31166 net.cpp:139] Memory required for data: 7874800
I0428 20:07:43.071805 31166 layer_factory.hpp:77] Creating layer ip2
I0428 20:07:43.071812 31166 net.cpp:86] Creating Layer ip2
I0428 20:07:43.071816 31166 net.cpp:408] ip2 <- ip1
I0428 20:07:43.071822 31166 net.cpp:382] ip2 -> ip2
I0428 20:07:43.071933 31166 net.cpp:124] Setting up ip2
I0428 20:07:43.071940 31166 net.cpp:131] Top shape: 100 10 (1000)
I0428 20:07:43.071944 31166 net.cpp:139] Memory required for data: 7878800
I0428 20:07:43.071949 31166 layer_factory.hpp:77] Creating layer relu2
I0428 20:07:43.071954 31166 net.cpp:86] Creating Layer relu2
I0428 20:07:43.071959 31166 net.cpp:408] relu2 <- ip2
I0428 20:07:43.071964 31166 net.cpp:369] relu2 -> ip2 (in-place)
I0428 20:07:43.072150 31166 net.cpp:124] Setting up relu2
I0428 20:07:43.072172 31166 net.cpp:131] Top shape: 100 10 (1000)
I0428 20:07:43.072175 31166 net.cpp:139] Memory required for data: 7882800
I0428 20:07:43.072178 31166 layer_factory.hpp:77] Creating layer ip2_relu2_0_split
I0428 20:07:43.072182 31166 net.cpp:86] Creating Layer ip2_relu2_0_split
I0428 20:07:43.072185 31166 net.cpp:408] ip2_relu2_0_split <- ip2
I0428 20:07:43.072190 31166 net.cpp:382] ip2_relu2_0_split -> ip2_relu2_0_split_0
I0428 20:07:43.072206 31166 net.cpp:382] ip2_relu2_0_split -> ip2_relu2_0_split_1
I0428 20:07:43.072240 31166 net.cpp:124] Setting up ip2_relu2_0_split
I0428 20:07:43.072249 31166 net.cpp:131] Top shape: 100 10 (1000)
I0428 20:07:43.072254 31166 net.cpp:131] Top shape: 100 10 (1000)
I0428 20:07:43.072257 31166 net.cpp:139] Memory required for data: 7890800
I0428 20:07:43.072260 31166 layer_factory.hpp:77] Creating layer accuracy
I0428 20:07:43.072271 31166 net.cpp:86] Creating Layer accuracy
I0428 20:07:43.072274 31166 net.cpp:408] accuracy <- ip2_relu2_0_split_0
I0428 20:07:43.072279 31166 net.cpp:408] accuracy <- label_mnist_1_split_0
I0428 20:07:43.072284 31166 net.cpp:382] accuracy -> accuracy
…
