…
I0428 19:45:42.718312 25850 net.cpp:296] The NetState phase (0) differed from the phase (1) specified by a rule in layer mnist
I0428 19:45:42.718335 25850 net.cpp:296] The NetState phase (0) differed from the phase (1) specified by a rule in layer accuracy
I0428 19:45:42.718435 25850 net.cpp:53] Initializing net from parameters: 
name: "LeNet"
state {
  phase: TRAIN
  level: 0
  stage: ""
}
layer {
  name: "mnist"
  type: "Data"
  top: "data"
  top: "label"
  include {
    phase: TRAIN
  }
  transform_param {
    scale: 0.00390625
  }
  data_param {
    source: "examples/mnist/mnist_train_lmdb"
    batch_size: 64
    backend: LMDB
  }
}
layer {
  name: "conv0"
  type: "Convolution"
  bottom: "data"
  top: "conv0"
  param {
    lr_mult: 1
  }
  param {
    lr_mult: 2
  }
  convolution_param {
    num_output: 2
    kernel_size: 5
    stride: 1
    weight_filler {
      type: "xavier"
    }
    bias_filler {
      type: "constant"
    }
  }
}
layer {
  name: "pool0"
  type: "Pooling"
  bottom: "conv0"
  top: "pool0"
  pooling_param {
    pool: MAX
    kernel_size: 2
    stride: 2
  }
}
layer {
  name: "conv1"
  type: "Convolution"
  bottom: "pool0"
  top: "conv1"
  param {
    lr_mult: 1
  }
  param {
    lr_mult: 2
  }
  convolution_param {
    num_output: 100
    kernel_size: 5
    stride: 1
    weight_filler {
      type: "xavier"
    }
    bias_filler {
      type: "constant"
    }
  }
}
layer {
  name: "pool1"
  type: "Pooling"
  bottom: "conv1"
  top: "pool1"
  pooling_param {
    pool: MAX
    kernel_size: 2
    stride: 2
  }
}
layer {
  name: "ip1"
  type: "InnerProduct"
  bottom: "pool1"
  top: "ip1"
  param {
    lr_mult: 1
  }
  param {
    lr_mult: 2
  }
  inner_product_param {
    num_output: 50
    weight_filler {
      type: "xavier"
    }
    bias_filler {
      type: "constant"
    }
  }
}
layer {
  name: "relu1"
  type: "ReLU"
  bottom: "ip1"
  top: "ip1"
}
layer {
  name: "ip2"
  type: "InnerProduct"
  bottom: "ip1"
  top: "ip2"
  param {
    lr_mult: 1
  }
  param {
    lr_mult: 2
  }
  inner_product_param {
    num_output: 10
    weight_filler {
      type: "xavier"
    }
    bias_filler {
      type: "constant"
    }
  }
}
layer {
  name: "relu2"
  type: "ReLU"
  bottom: "ip2"
  top: "ip2"
}
layer {
  name: "loss"
  type: "SoftmaxWithLoss"
  bottom: "ip2"
  bottom: "label"
  top: "loss"
}
I0428 19:45:42.718542 25850 layer_factory.hpp:77] Creating layer mnist
I0428 19:45:42.718672 25850 db_lmdb.cpp:35] Opened lmdb examples/mnist/mnist_train_lmdb
I0428 19:45:42.718703 25850 net.cpp:86] Creating Layer mnist
I0428 19:45:42.718717 25850 net.cpp:382] mnist -> data
I0428 19:45:42.718746 25850 net.cpp:382] mnist -> label
I0428 19:45:42.719965 25850 data_layer.cpp:45] output data size: 64,1,28,28
I0428 19:45:42.722460 25850 net.cpp:124] Setting up mnist
I0428 19:45:42.722479 25850 net.cpp:131] Top shape: 64 1 28 28 (50176)
I0428 19:45:42.722491 25850 net.cpp:131] Top shape: 64 (64)
I0428 19:45:42.722497 25850 net.cpp:139] Memory required for data: 200960
I0428 19:45:42.722507 25850 layer_factory.hpp:77] Creating layer conv0
I0428 19:45:42.722532 25850 net.cpp:86] Creating Layer conv0
I0428 19:45:42.722543 25850 net.cpp:408] conv0 <- data
I0428 19:45:42.722563 25850 net.cpp:382] conv0 -> conv0
I0428 19:45:43.007999 25850 net.cpp:124] Setting up conv0
I0428 19:45:43.008029 25850 net.cpp:131] Top shape: 64 2 24 24 (73728)
I0428 19:45:43.008036 25850 net.cpp:139] Memory required for data: 495872
I0428 19:45:43.008081 25850 layer_factory.hpp:77] Creating layer pool0
I0428 19:45:43.008102 25850 net.cpp:86] Creating Layer pool0
I0428 19:45:43.008111 25850 net.cpp:408] pool0 <- conv0
I0428 19:45:43.008121 25850 net.cpp:382] pool0 -> pool0
I0428 19:45:43.008175 25850 net.cpp:124] Setting up pool0
I0428 19:45:43.008184 25850 net.cpp:131] Top shape: 64 2 12 12 (18432)
I0428 19:45:43.008190 25850 net.cpp:139] Memory required for data: 569600
I0428 19:45:43.008195 25850 layer_factory.hpp:77] Creating layer conv1
I0428 19:45:43.008211 25850 net.cpp:86] Creating Layer conv1
I0428 19:45:43.008219 25850 net.cpp:408] conv1 <- pool0
I0428 19:45:43.008229 25850 net.cpp:382] conv1 -> conv1
I0428 19:45:43.010987 25850 net.cpp:124] Setting up conv1
I0428 19:45:43.011003 25850 net.cpp:131] Top shape: 64 100 8 8 (409600)
I0428 19:45:43.011010 25850 net.cpp:139] Memory required for data: 2208000
I0428 19:45:43.011024 25850 layer_factory.hpp:77] Creating layer pool1
I0428 19:45:43.011036 25850 net.cpp:86] Creating Layer pool1
I0428 19:45:43.011042 25850 net.cpp:408] pool1 <- conv1
I0428 19:45:43.011051 25850 net.cpp:382] pool1 -> pool1
I0428 19:45:43.011096 25850 net.cpp:124] Setting up pool1
I0428 19:45:43.011106 25850 net.cpp:131] Top shape: 64 100 4 4 (102400)
I0428 19:45:43.011111 25850 net.cpp:139] Memory required for data: 2617600
I0428 19:45:43.011116 25850 layer_factory.hpp:77] Creating layer ip1
I0428 19:45:43.011127 25850 net.cpp:86] Creating Layer ip1
I0428 19:45:43.011133 25850 net.cpp:408] ip1 <- pool1
I0428 19:45:43.011142 25850 net.cpp:382] ip1 -> ip1
I0428 19:45:43.012562 25850 net.cpp:124] Setting up ip1
I0428 19:45:43.012576 25850 net.cpp:131] Top shape: 64 50 (3200)
I0428 19:45:43.012583 25850 net.cpp:139] Memory required for data: 2630400
I0428 19:45:43.012596 25850 layer_factory.hpp:77] Creating layer relu1
I0428 19:45:43.012606 25850 net.cpp:86] Creating Layer relu1
I0428 19:45:43.012612 25850 net.cpp:408] relu1 <- ip1
I0428 19:45:43.012620 25850 net.cpp:369] relu1 -> ip1 (in-place)
I0428 19:45:43.012809 25850 net.cpp:124] Setting up relu1
I0428 19:45:43.012827 25850 net.cpp:131] Top shape: 64 50 (3200)
I0428 19:45:43.012833 25850 net.cpp:139] Memory required for data: 2643200
I0428 19:45:43.012838 25850 layer_factory.hpp:77] Creating layer ip2
I0428 19:45:43.012850 25850 net.cpp:86] Creating Layer ip2
I0428 19:45:43.012856 25850 net.cpp:408] ip2 <- ip1
I0428 19:45:43.012863 25850 net.cpp:382] ip2 -> ip2
I0428 19:45:43.013022 25850 net.cpp:124] Setting up ip2
I0428 19:45:43.013032 25850 net.cpp:131] Top shape: 64 10 (640)
I0428 19:45:43.013038 25850 net.cpp:139] Memory required for data: 2645760
I0428 19:45:43.013049 25850 layer_factory.hpp:77] Creating layer relu2
I0428 19:45:43.013061 25850 net.cpp:86] Creating Layer relu2
I0428 19:45:43.013070 25850 net.cpp:408] relu2 <- ip2
I0428 19:45:43.013079 25850 net.cpp:369] relu2 -> ip2 (in-place)
I0428 19:45:43.013841 25850 net.cpp:124] Setting up relu2
I0428 19:45:43.013855 25850 net.cpp:131] Top shape: 64 10 (640)
I0428 19:45:43.013861 25850 net.cpp:139] Memory required for data: 2648320
I0428 19:45:43.013867 25850 layer_factory.hpp:77] Creating layer loss
I0428 19:45:43.013876 25850 net.cpp:86] Creating Layer loss
I0428 19:45:43.013882 25850 net.cpp:408] loss <- ip2
I0428 19:45:43.013890 25850 net.cpp:408] loss <- label
I0428 19:45:43.013898 25850 net.cpp:382] loss -> loss
I0428 19:45:43.013924 25850 layer_factory.hpp:77] Creating layer loss
…
I0428 19:45:43.014581 25850 solver.cpp:173] Creating test net (#0) specified by net file: ECE595/mnist/train_test/var_everything2/lenet_train_test477.prototxt
I0428 19:45:43.014613 25850 net.cpp:296] The NetState phase (1) differed from the phase (0) specified by a rule in layer mnist
I0428 19:45:43.014701 25850 net.cpp:53] Initializing net from parameters: 
name: "LeNet"
state {
  phase: TEST
}
layer {
  name: "mnist"
  type: "Data"
  top: "data"
  top: "label"
  include {
    phase: TEST
  }
  transform_param {
    scale: 0.00390625
  }
  data_param {
    source: "examples/mnist/mnist_test_lmdb"
    batch_size: 100
    backend: LMDB
  }
}
layer {
  name: "conv0"
  type: "Convolution"
  bottom: "data"
  top: "conv0"
  param {
    lr_mult: 1
  }
  param {
    lr_mult: 2
  }
  convolution_param {
    num_output: 2
    kernel_size: 5
    stride: 1
    weight_filler {
      type: "xavier"
    }
    bias_filler {
      type: "constant"
    }
  }
}
layer {
  name: "pool0"
  type: "Pooling"
  bottom: "conv0"
  top: "pool0"
  pooling_param {
    pool: MAX
    kernel_size: 2
    stride: 2
  }
}
layer {
  name: "conv1"
  type: "Convolution"
  bottom: "pool0"
  top: "conv1"
  param {
    lr_mult: 1
  }
  param {
    lr_mult: 2
  }
  convolution_param {
    num_output: 100
    kernel_size: 5
    stride: 1
    weight_filler {
      type: "xavier"
    }
    bias_filler {
      type: "constant"
    }
  }
}
layer {
  name: "pool1"
  type: "Pooling"
  bottom: "conv1"
  top: "pool1"
  pooling_param {
    pool: MAX
    kernel_size: 2
    stride: 2
  }
}
layer {
  name: "ip1"
  type: "InnerProduct"
  bottom: "pool1"
  top: "ip1"
  param {
    lr_mult: 1
  }
  param {
    lr_mult: 2
  }
  inner_product_param {
    num_output: 50
    weight_filler {
      type: "xavier"
    }
    bias_filler {
      type: "constant"
    }
  }
}
layer {
  name: "relu1"
  type: "ReLU"
  bottom: "ip1"
  top: "ip1"
}
layer {
  name: "ip2"
  type: "InnerProduct"
  bottom: "ip1"
  top: "ip2"
  param {
    lr_mult: 1
  }
  param {
    lr_mult: 2
  }
  inner_product_param {
    num_output: 10
    weight_filler {
      type: "xavier"
    }
    bias_filler {
      type: "constant"
    }
  }
}
layer {
  name: "relu2"
  type: "ReLU"
  bottom: "ip2"
  top: "ip2"
}
layer {
  name: "accuracy"
  type: "Accuracy"
  bottom: "ip2"
  bottom: "label"
  top: "accuracy"
  include {
    phase: TEST
  }
}
layer {
  name: "loss"
  type: "SoftmaxWithLoss"
  bottom: "ip2"
  bottom: "label"
  top: "loss"
}
I0428 19:45:43.014797 25850 layer_factory.hpp:77] Creating layer mnist
I0428 19:45:43.014853 25850 db_lmdb.cpp:35] Opened lmdb examples/mnist/mnist_test_lmdb
I0428 19:45:43.014875 25850 net.cpp:86] Creating Layer mnist
I0428 19:45:43.014883 25850 net.cpp:382] mnist -> data
I0428 19:45:43.014894 25850 net.cpp:382] mnist -> label
I0428 19:45:43.015012 25850 data_layer.cpp:45] output data size: 100,1,28,28
I0428 19:45:43.016172 25850 net.cpp:124] Setting up mnist
I0428 19:45:43.016187 25850 net.cpp:131] Top shape: 100 1 28 28 (78400)
I0428 19:45:43.016196 25850 net.cpp:131] Top shape: 100 (100)
I0428 19:45:43.016201 25850 net.cpp:139] Memory required for data: 314000
I0428 19:45:43.016206 25850 layer_factory.hpp:77] Creating layer label_mnist_1_split
I0428 19:45:43.016221 25850 net.cpp:86] Creating Layer label_mnist_1_split
I0428 19:45:43.016227 25850 net.cpp:408] label_mnist_1_split <- label
I0428 19:45:43.016235 25850 net.cpp:382] label_mnist_1_split -> label_mnist_1_split_0
I0428 19:45:43.016247 25850 net.cpp:382] label_mnist_1_split -> label_mnist_1_split_1
I0428 19:45:43.016332 25850 net.cpp:124] Setting up label_mnist_1_split
I0428 19:45:43.016350 25850 net.cpp:131] Top shape: 100 (100)
I0428 19:45:43.016357 25850 net.cpp:131] Top shape: 100 (100)
I0428 19:45:43.016362 25850 net.cpp:139] Memory required for data: 314800
I0428 19:45:43.016367 25850 layer_factory.hpp:77] Creating layer conv0
I0428 19:45:43.016381 25850 net.cpp:86] Creating Layer conv0
I0428 19:45:43.016388 25850 net.cpp:408] conv0 <- data
I0428 19:45:43.016397 25850 net.cpp:382] conv0 -> conv0
I0428 19:45:43.017880 25850 net.cpp:124] Setting up conv0
I0428 19:45:43.017895 25850 net.cpp:131] Top shape: 100 2 24 24 (115200)
I0428 19:45:43.017902 25850 net.cpp:139] Memory required for data: 775600
I0428 19:45:43.017917 25850 layer_factory.hpp:77] Creating layer pool0
I0428 19:45:43.017926 25850 net.cpp:86] Creating Layer pool0
I0428 19:45:43.017932 25850 net.cpp:408] pool0 <- conv0
I0428 19:45:43.017940 25850 net.cpp:382] pool0 -> pool0
I0428 19:45:43.017992 25850 net.cpp:124] Setting up pool0
I0428 19:45:43.018002 25850 net.cpp:131] Top shape: 100 2 12 12 (28800)
I0428 19:45:43.018007 25850 net.cpp:139] Memory required for data: 890800
I0428 19:45:43.018012 25850 layer_factory.hpp:77] Creating layer conv1
I0428 19:45:43.018024 25850 net.cpp:86] Creating Layer conv1
I0428 19:45:43.018033 25850 net.cpp:408] conv1 <- pool0
I0428 19:45:43.018043 25850 net.cpp:382] conv1 -> conv1
I0428 19:45:43.019433 25850 net.cpp:124] Setting up conv1
I0428 19:45:43.019448 25850 net.cpp:131] Top shape: 100 100 8 8 (640000)
I0428 19:45:43.019454 25850 net.cpp:139] Memory required for data: 3450800
I0428 19:45:43.019467 25850 layer_factory.hpp:77] Creating layer pool1
I0428 19:45:43.019476 25850 net.cpp:86] Creating Layer pool1
I0428 19:45:43.019484 25850 net.cpp:408] pool1 <- conv1
I0428 19:45:43.019492 25850 net.cpp:382] pool1 -> pool1
I0428 19:45:43.019533 25850 net.cpp:124] Setting up pool1
I0428 19:45:43.019542 25850 net.cpp:131] Top shape: 100 100 4 4 (160000)
I0428 19:45:43.019547 25850 net.cpp:139] Memory required for data: 4090800
I0428 19:45:43.019553 25850 layer_factory.hpp:77] Creating layer ip1
I0428 19:45:43.019563 25850 net.cpp:86] Creating Layer ip1
I0428 19:45:43.019568 25850 net.cpp:408] ip1 <- pool1
I0428 19:45:43.019577 25850 net.cpp:382] ip1 -> ip1
I0428 19:45:43.020161 25850 net.cpp:124] Setting up ip1
I0428 19:45:43.020171 25850 net.cpp:131] Top shape: 100 50 (5000)
I0428 19:45:43.020176 25850 net.cpp:139] Memory required for data: 4110800
I0428 19:45:43.020189 25850 layer_factory.hpp:77] Creating layer relu1
I0428 19:45:43.020196 25850 net.cpp:86] Creating Layer relu1
I0428 19:45:43.020201 25850 net.cpp:408] relu1 <- ip1
I0428 19:45:43.020210 25850 net.cpp:369] relu1 -> ip1 (in-place)
I0428 19:45:43.020419 25850 net.cpp:124] Setting up relu1
I0428 19:45:43.020434 25850 net.cpp:131] Top shape: 100 50 (5000)
I0428 19:45:43.020440 25850 net.cpp:139] Memory required for data: 4130800
I0428 19:45:43.020445 25850 layer_factory.hpp:77] Creating layer ip2
I0428 19:45:43.020457 25850 net.cpp:86] Creating Layer ip2
I0428 19:45:43.020462 25850 net.cpp:408] ip2 <- ip1
I0428 19:45:43.020478 25850 net.cpp:382] ip2 -> ip2
I0428 19:45:43.020587 25850 net.cpp:124] Setting up ip2
I0428 19:45:43.020597 25850 net.cpp:131] Top shape: 100 10 (1000)
I0428 19:45:43.020602 25850 net.cpp:139] Memory required for data: 4134800
I0428 19:45:43.020612 25850 layer_factory.hpp:77] Creating layer relu2
I0428 19:45:43.020618 25850 net.cpp:86] Creating Layer relu2
I0428 19:45:43.020624 25850 net.cpp:408] relu2 <- ip2
I0428 19:45:43.020632 25850 net.cpp:369] relu2 -> ip2 (in-place)
I0428 19:45:43.020800 25850 net.cpp:124] Setting up relu2
I0428 19:45:43.020836 25850 net.cpp:131] Top shape: 100 10 (1000)
I0428 19:45:43.020841 25850 net.cpp:139] Memory required for data: 4138800
I0428 19:45:43.020848 25850 layer_factory.hpp:77] Creating layer ip2_relu2_0_split
I0428 19:45:43.020858 25850 net.cpp:86] Creating Layer ip2_relu2_0_split
I0428 19:45:43.020882 25850 net.cpp:408] ip2_relu2_0_split <- ip2
I0428 19:45:43.020891 25850 net.cpp:382] ip2_relu2_0_split -> ip2_relu2_0_split_0
I0428 19:45:43.020912 25850 net.cpp:382] ip2_relu2_0_split -> ip2_relu2_0_split_1
I0428 19:45:43.020980 25850 net.cpp:124] Setting up ip2_relu2_0_split
I0428 19:45:43.020989 25850 net.cpp:131] Top shape: 100 10 (1000)
I0428 19:45:43.020997 25850 net.cpp:131] Top shape: 100 10 (1000)
I0428 19:45:43.021003 25850 net.cpp:139] Memory required for data: 4146800
I0428 19:45:43.021008 25850 layer_factory.hpp:77] Creating layer accuracy
I0428 19:45:43.021016 25850 net.cpp:86] Creating Layer accuracy
I0428 19:45:43.021026 25850 net.cpp:408] accuracy <- ip2_relu2_0_split_0
I0428 19:45:43.021034 25850 net.cpp:408] accuracy <- label_mnist_1_split_0
I0428 19:45:43.021042 25850 net.cpp:382] accuracy -> accuracy
…
