…
I0428 20:09:31.544142 31641 net.cpp:296] The NetState phase (0) differed from the phase (1) specified by a rule in layer mnist
I0428 20:09:31.544162 31641 net.cpp:296] The NetState phase (0) differed from the phase (1) specified by a rule in layer accuracy
I0428 20:09:31.544271 31641 net.cpp:53] Initializing net from parameters: 
name: "LeNet"
state {
  phase: TRAIN
  level: 0
  stage: ""
}
layer {
  name: "mnist"
  type: "Data"
  top: "data"
  top: "label"
  include {
    phase: TRAIN
  }
  transform_param {
    scale: 0.00390625
  }
  data_param {
    source: "examples/mnist/mnist_train_lmdb"
    batch_size: 64
    backend: LMDB
  }
}
layer {
  name: "conv0"
  type: "Convolution"
  bottom: "data"
  top: "conv0"
  param {
    lr_mult: 1
  }
  param {
    lr_mult: 2
  }
  convolution_param {
    num_output: 25
    kernel_size: 5
    stride: 1
    weight_filler {
      type: "xavier"
    }
    bias_filler {
      type: "constant"
    }
  }
}
layer {
  name: "pool0"
  type: "Pooling"
  bottom: "conv0"
  top: "pool0"
  pooling_param {
    pool: MAX
    kernel_size: 2
    stride: 2
  }
}
layer {
  name: "conv1"
  type: "Convolution"
  bottom: "pool0"
  top: "conv1"
  param {
    lr_mult: 1
  }
  param {
    lr_mult: 2
  }
  convolution_param {
    num_output: 25
    kernel_size: 5
    stride: 1
    weight_filler {
      type: "xavier"
    }
    bias_filler {
      type: "constant"
    }
  }
}
layer {
  name: "pool1"
  type: "Pooling"
  bottom: "conv1"
  top: "pool1"
  pooling_param {
    pool: MAX
    kernel_size: 2
    stride: 2
  }
}
layer {
  name: "ip1"
  type: "InnerProduct"
  bottom: "pool1"
  top: "ip1"
  param {
    lr_mult: 1
  }
  param {
    lr_mult: 2
  }
  inner_product_param {
    num_output: 10
    weight_filler {
      type: "xavier"
    }
    bias_filler {
      type: "constant"
    }
  }
}
layer {
  name: "relu1"
  type: "ReLU"
  bottom: "ip1"
  top: "ip1"
}
layer {
  name: "ip2"
  type: "InnerProduct"
  bottom: "ip1"
  top: "ip2"
  param {
    lr_mult: 1
  }
  param {
    lr_mult: 2
  }
  inner_product_param {
    num_output: 50
    weight_filler {
      type: "xavier"
    }
    bias_filler {
      type: "constant"
    }
  }
}
layer {
  name: "relu2"
  type: "ReLU"
  bottom: "ip2"
  top: "ip2"
}
layer {
  name: "ip3"
  type: "InnerProduct"
  bottom: "ip2"
  top: "ip3"
  param {
    lr_mult: 1
  }
  param {
    lr_mult: 2
  }
  inner_product_param {
    num_output: 10
    weight_filler {
      type: "xavier"
    }
    bias_filler {
      type: "constant"
    }
  }
}
layer {
  name: "relu3"
  type: "ReLU"
  bottom: "ip3"
  top: "ip3"
}
layer {
  name: "loss"
  type: "SoftmaxWithLoss"
  bottom: "ip3"
  bottom: "label"
  top: "loss"
}
I0428 20:09:31.544353 31641 layer_factory.hpp:77] Creating layer mnist
I0428 20:09:31.544452 31641 db_lmdb.cpp:35] Opened lmdb examples/mnist/mnist_train_lmdb
I0428 20:09:31.544476 31641 net.cpp:86] Creating Layer mnist
I0428 20:09:31.544486 31641 net.cpp:382] mnist -> data
I0428 20:09:31.544507 31641 net.cpp:382] mnist -> label
I0428 20:09:31.545608 31641 data_layer.cpp:45] output data size: 64,1,28,28
I0428 20:09:31.548082 31641 net.cpp:124] Setting up mnist
I0428 20:09:31.548099 31641 net.cpp:131] Top shape: 64 1 28 28 (50176)
I0428 20:09:31.548105 31641 net.cpp:131] Top shape: 64 (64)
I0428 20:09:31.548108 31641 net.cpp:139] Memory required for data: 200960
I0428 20:09:31.548115 31641 layer_factory.hpp:77] Creating layer conv0
I0428 20:09:31.548147 31641 net.cpp:86] Creating Layer conv0
I0428 20:09:31.548169 31641 net.cpp:408] conv0 <- data
I0428 20:09:31.548183 31641 net.cpp:382] conv0 -> conv0
I0428 20:09:31.836576 31641 net.cpp:124] Setting up conv0
I0428 20:09:31.836607 31641 net.cpp:131] Top shape: 64 25 24 24 (921600)
I0428 20:09:31.836612 31641 net.cpp:139] Memory required for data: 3887360
I0428 20:09:31.836632 31641 layer_factory.hpp:77] Creating layer pool0
I0428 20:09:31.836647 31641 net.cpp:86] Creating Layer pool0
I0428 20:09:31.836652 31641 net.cpp:408] pool0 <- conv0
I0428 20:09:31.836658 31641 net.cpp:382] pool0 -> pool0
I0428 20:09:31.836714 31641 net.cpp:124] Setting up pool0
I0428 20:09:31.836731 31641 net.cpp:131] Top shape: 64 25 12 12 (230400)
I0428 20:09:31.836735 31641 net.cpp:139] Memory required for data: 4808960
I0428 20:09:31.836738 31641 layer_factory.hpp:77] Creating layer conv1
I0428 20:09:31.836751 31641 net.cpp:86] Creating Layer conv1
I0428 20:09:31.836756 31641 net.cpp:408] conv1 <- pool0
I0428 20:09:31.836761 31641 net.cpp:382] conv1 -> conv1
I0428 20:09:31.840026 31641 net.cpp:124] Setting up conv1
I0428 20:09:31.840044 31641 net.cpp:131] Top shape: 64 25 8 8 (102400)
I0428 20:09:31.840049 31641 net.cpp:139] Memory required for data: 5218560
I0428 20:09:31.840060 31641 layer_factory.hpp:77] Creating layer pool1
I0428 20:09:31.840070 31641 net.cpp:86] Creating Layer pool1
I0428 20:09:31.840075 31641 net.cpp:408] pool1 <- conv1
I0428 20:09:31.840080 31641 net.cpp:382] pool1 -> pool1
I0428 20:09:31.840126 31641 net.cpp:124] Setting up pool1
I0428 20:09:31.840132 31641 net.cpp:131] Top shape: 64 25 4 4 (25600)
I0428 20:09:31.840137 31641 net.cpp:139] Memory required for data: 5320960
I0428 20:09:31.840139 31641 layer_factory.hpp:77] Creating layer ip1
I0428 20:09:31.840147 31641 net.cpp:86] Creating Layer ip1
I0428 20:09:31.840152 31641 net.cpp:408] ip1 <- pool1
I0428 20:09:31.840157 31641 net.cpp:382] ip1 -> ip1
I0428 20:09:31.841334 31641 net.cpp:124] Setting up ip1
I0428 20:09:31.841351 31641 net.cpp:131] Top shape: 64 10 (640)
I0428 20:09:31.841354 31641 net.cpp:139] Memory required for data: 5323520
I0428 20:09:31.841364 31641 layer_factory.hpp:77] Creating layer relu1
I0428 20:09:31.841372 31641 net.cpp:86] Creating Layer relu1
I0428 20:09:31.841377 31641 net.cpp:408] relu1 <- ip1
I0428 20:09:31.841382 31641 net.cpp:369] relu1 -> ip1 (in-place)
I0428 20:09:31.841583 31641 net.cpp:124] Setting up relu1
I0428 20:09:31.841594 31641 net.cpp:131] Top shape: 64 10 (640)
I0428 20:09:31.841611 31641 net.cpp:139] Memory required for data: 5326080
I0428 20:09:31.841615 31641 layer_factory.hpp:77] Creating layer ip2
I0428 20:09:31.841624 31641 net.cpp:86] Creating Layer ip2
I0428 20:09:31.841626 31641 net.cpp:408] ip2 <- ip1
I0428 20:09:31.841632 31641 net.cpp:382] ip2 -> ip2
I0428 20:09:31.841751 31641 net.cpp:124] Setting up ip2
I0428 20:09:31.841760 31641 net.cpp:131] Top shape: 64 50 (3200)
I0428 20:09:31.841764 31641 net.cpp:139] Memory required for data: 5338880
I0428 20:09:31.841770 31641 layer_factory.hpp:77] Creating layer relu2
I0428 20:09:31.841778 31641 net.cpp:86] Creating Layer relu2
I0428 20:09:31.841781 31641 net.cpp:408] relu2 <- ip2
I0428 20:09:31.841787 31641 net.cpp:369] relu2 -> ip2 (in-place)
I0428 20:09:31.842636 31641 net.cpp:124] Setting up relu2
I0428 20:09:31.842651 31641 net.cpp:131] Top shape: 64 50 (3200)
I0428 20:09:31.842667 31641 net.cpp:139] Memory required for data: 5351680
I0428 20:09:31.842672 31641 layer_factory.hpp:77] Creating layer ip3
I0428 20:09:31.842680 31641 net.cpp:86] Creating Layer ip3
I0428 20:09:31.842684 31641 net.cpp:408] ip3 <- ip2
I0428 20:09:31.842691 31641 net.cpp:382] ip3 -> ip3
I0428 20:09:31.842814 31641 net.cpp:124] Setting up ip3
I0428 20:09:31.842824 31641 net.cpp:131] Top shape: 64 10 (640)
I0428 20:09:31.842828 31641 net.cpp:139] Memory required for data: 5354240
I0428 20:09:31.842838 31641 layer_factory.hpp:77] Creating layer relu3
I0428 20:09:31.842844 31641 net.cpp:86] Creating Layer relu3
I0428 20:09:31.842847 31641 net.cpp:408] relu3 <- ip3
I0428 20:09:31.842852 31641 net.cpp:369] relu3 -> ip3 (in-place)
I0428 20:09:31.843049 31641 net.cpp:124] Setting up relu3
I0428 20:09:31.843060 31641 net.cpp:131] Top shape: 64 10 (640)
I0428 20:09:31.843063 31641 net.cpp:139] Memory required for data: 5356800
I0428 20:09:31.843067 31641 layer_factory.hpp:77] Creating layer loss
I0428 20:09:31.843075 31641 net.cpp:86] Creating Layer loss
I0428 20:09:31.843077 31641 net.cpp:408] loss <- ip3
I0428 20:09:31.843082 31641 net.cpp:408] loss <- label
I0428 20:09:31.843088 31641 net.cpp:382] loss -> loss
I0428 20:09:31.843109 31641 layer_factory.hpp:77] Creating layer loss
…
I0428 20:09:31.843845 31641 solver.cpp:173] Creating test net (#0) specified by net file: ECE595/mnist/train_test/var_everything2/lenet_train_test1111.prototxt
I0428 20:09:31.843878 31641 net.cpp:296] The NetState phase (1) differed from the phase (0) specified by a rule in layer mnist
I0428 20:09:31.843984 31641 net.cpp:53] Initializing net from parameters: 
name: "LeNet"
state {
  phase: TEST
}
layer {
  name: "mnist"
  type: "Data"
  top: "data"
  top: "label"
  include {
    phase: TEST
  }
  transform_param {
    scale: 0.00390625
  }
  data_param {
    source: "examples/mnist/mnist_test_lmdb"
    batch_size: 100
    backend: LMDB
  }
}
layer {
  name: "conv0"
  type: "Convolution"
  bottom: "data"
  top: "conv0"
  param {
    lr_mult: 1
  }
  param {
    lr_mult: 2
  }
  convolution_param {
    num_output: 25
    kernel_size: 5
    stride: 1
    weight_filler {
      type: "xavier"
    }
    bias_filler {
      type: "constant"
    }
  }
}
layer {
  name: "pool0"
  type: "Pooling"
  bottom: "conv0"
  top: "pool0"
  pooling_param {
    pool: MAX
    kernel_size: 2
    stride: 2
  }
}
layer {
  name: "conv1"
  type: "Convolution"
  bottom: "pool0"
  top: "conv1"
  param {
    lr_mult: 1
  }
  param {
    lr_mult: 2
  }
  convolution_param {
    num_output: 25
    kernel_size: 5
    stride: 1
    weight_filler {
      type: "xavier"
    }
    bias_filler {
      type: "constant"
    }
  }
}
layer {
  name: "pool1"
  type: "Pooling"
  bottom: "conv1"
  top: "pool1"
  pooling_param {
    pool: MAX
    kernel_size: 2
    stride: 2
  }
}
layer {
  name: "ip1"
  type: "InnerProduct"
  bottom: "pool1"
  top: "ip1"
  param {
    lr_mult: 1
  }
  param {
    lr_mult: 2
  }
  inner_product_param {
    num_output: 10
    weight_filler {
      type: "xavier"
    }
    bias_filler {
      type: "constant"
    }
  }
}
layer {
  name: "relu1"
  type: "ReLU"
  bottom: "ip1"
  top: "ip1"
}
layer {
  name: "ip2"
  type: "InnerProduct"
  bottom: "ip1"
  top: "ip2"
  param {
    lr_mult: 1
  }
  param {
    lr_mult: 2
  }
  inner_product_param {
    num_output: 50
    weight_filler {
      type: "xavier"
    }
    bias_filler {
      type: "constant"
    }
  }
}
layer {
  name: "relu2"
  type: "ReLU"
  bottom: "ip2"
  top: "ip2"
}
layer {
  name: "ip3"
  type: "InnerProduct"
  bottom: "ip2"
  top: "ip3"
  param {
    lr_mult: 1
  }
  param {
    lr_mult: 2
  }
  inner_product_param {
    num_output: 10
    weight_filler {
      type: "xavier"
    }
    bias_filler {
      type: "constant"
    }
  }
}
layer {
  name: "relu3"
  type: "ReLU"
  bottom: "ip3"
  top: "ip3"
}
layer {
  name: "accuracy"
  type: "Accuracy"
  bottom: "ip3"
  bottom: "label"
  top: "accuracy"
  include {
    phase: TEST
  }
}
layer {
  name: "loss"
  type: "SoftmaxWithLoss"
  bottom: "ip3"
  bottom: "label"
  top: "loss"
}
I0428 20:09:31.844079 31641 layer_factory.hpp:77] Creating layer mnist
I0428 20:09:31.844135 31641 db_lmdb.cpp:35] Opened lmdb examples/mnist/mnist_test_lmdb
I0428 20:09:31.844151 31641 net.cpp:86] Creating Layer mnist
I0428 20:09:31.844156 31641 net.cpp:382] mnist -> data
I0428 20:09:31.844166 31641 net.cpp:382] mnist -> label
I0428 20:09:31.844267 31641 data_layer.cpp:45] output data size: 100,1,28,28
I0428 20:09:31.846499 31641 net.cpp:124] Setting up mnist
I0428 20:09:31.846515 31641 net.cpp:131] Top shape: 100 1 28 28 (78400)
I0428 20:09:31.846523 31641 net.cpp:131] Top shape: 100 (100)
I0428 20:09:31.846525 31641 net.cpp:139] Memory required for data: 314000
I0428 20:09:31.846530 31641 layer_factory.hpp:77] Creating layer label_mnist_1_split
I0428 20:09:31.846539 31641 net.cpp:86] Creating Layer label_mnist_1_split
I0428 20:09:31.846542 31641 net.cpp:408] label_mnist_1_split <- label
I0428 20:09:31.846549 31641 net.cpp:382] label_mnist_1_split -> label_mnist_1_split_0
I0428 20:09:31.846559 31641 net.cpp:382] label_mnist_1_split -> label_mnist_1_split_1
I0428 20:09:31.846607 31641 net.cpp:124] Setting up label_mnist_1_split
I0428 20:09:31.846614 31641 net.cpp:131] Top shape: 100 (100)
I0428 20:09:31.846618 31641 net.cpp:131] Top shape: 100 (100)
I0428 20:09:31.846622 31641 net.cpp:139] Memory required for data: 314800
I0428 20:09:31.846626 31641 layer_factory.hpp:77] Creating layer conv0
I0428 20:09:31.846635 31641 net.cpp:86] Creating Layer conv0
I0428 20:09:31.846639 31641 net.cpp:408] conv0 <- data
I0428 20:09:31.846644 31641 net.cpp:382] conv0 -> conv0
I0428 20:09:31.848522 31641 net.cpp:124] Setting up conv0
I0428 20:09:31.848539 31641 net.cpp:131] Top shape: 100 25 24 24 (1440000)
I0428 20:09:31.848544 31641 net.cpp:139] Memory required for data: 6074800
I0428 20:09:31.848556 31641 layer_factory.hpp:77] Creating layer pool0
I0428 20:09:31.848563 31641 net.cpp:86] Creating Layer pool0
I0428 20:09:31.848567 31641 net.cpp:408] pool0 <- conv0
I0428 20:09:31.848573 31641 net.cpp:382] pool0 -> pool0
I0428 20:09:31.848618 31641 net.cpp:124] Setting up pool0
I0428 20:09:31.848624 31641 net.cpp:131] Top shape: 100 25 12 12 (360000)
I0428 20:09:31.848628 31641 net.cpp:139] Memory required for data: 7514800
I0428 20:09:31.848631 31641 layer_factory.hpp:77] Creating layer conv1
I0428 20:09:31.848641 31641 net.cpp:86] Creating Layer conv1
I0428 20:09:31.848644 31641 net.cpp:408] conv1 <- pool0
I0428 20:09:31.848650 31641 net.cpp:382] conv1 -> conv1
I0428 20:09:31.851171 31641 net.cpp:124] Setting up conv1
I0428 20:09:31.851187 31641 net.cpp:131] Top shape: 100 25 8 8 (160000)
I0428 20:09:31.851192 31641 net.cpp:139] Memory required for data: 8154800
I0428 20:09:31.851203 31641 layer_factory.hpp:77] Creating layer pool1
I0428 20:09:31.851210 31641 net.cpp:86] Creating Layer pool1
I0428 20:09:31.851215 31641 net.cpp:408] pool1 <- conv1
I0428 20:09:31.851222 31641 net.cpp:382] pool1 -> pool1
I0428 20:09:31.851272 31641 net.cpp:124] Setting up pool1
I0428 20:09:31.851280 31641 net.cpp:131] Top shape: 100 25 4 4 (40000)
I0428 20:09:31.851284 31641 net.cpp:139] Memory required for data: 8314800
I0428 20:09:31.851299 31641 layer_factory.hpp:77] Creating layer ip1
I0428 20:09:31.851305 31641 net.cpp:86] Creating Layer ip1
I0428 20:09:31.851310 31641 net.cpp:408] ip1 <- pool1
I0428 20:09:31.851320 31641 net.cpp:382] ip1 -> ip1
I0428 20:09:31.851466 31641 net.cpp:124] Setting up ip1
I0428 20:09:31.851475 31641 net.cpp:131] Top shape: 100 10 (1000)
I0428 20:09:31.851492 31641 net.cpp:139] Memory required for data: 8318800
I0428 20:09:31.851502 31641 layer_factory.hpp:77] Creating layer relu1
I0428 20:09:31.851510 31641 net.cpp:86] Creating Layer relu1
I0428 20:09:31.851513 31641 net.cpp:408] relu1 <- ip1
I0428 20:09:31.851518 31641 net.cpp:369] relu1 -> ip1 (in-place)
I0428 20:09:31.851714 31641 net.cpp:124] Setting up relu1
I0428 20:09:31.851725 31641 net.cpp:131] Top shape: 100 10 (1000)
I0428 20:09:31.851728 31641 net.cpp:139] Memory required for data: 8322800
I0428 20:09:31.851738 31641 layer_factory.hpp:77] Creating layer ip2
I0428 20:09:31.851747 31641 net.cpp:86] Creating Layer ip2
I0428 20:09:31.851750 31641 net.cpp:408] ip2 <- ip1
I0428 20:09:31.851757 31641 net.cpp:382] ip2 -> ip2
I0428 20:09:31.851892 31641 net.cpp:124] Setting up ip2
I0428 20:09:31.851902 31641 net.cpp:131] Top shape: 100 50 (5000)
I0428 20:09:31.851905 31641 net.cpp:139] Memory required for data: 8342800
I0428 20:09:31.851912 31641 layer_factory.hpp:77] Creating layer relu2
I0428 20:09:31.851917 31641 net.cpp:86] Creating Layer relu2
I0428 20:09:31.851922 31641 net.cpp:408] relu2 <- ip2
I0428 20:09:31.851927 31641 net.cpp:369] relu2 -> ip2 (in-place)
I0428 20:09:31.852118 31641 net.cpp:124] Setting up relu2
I0428 20:09:31.852128 31641 net.cpp:131] Top shape: 100 50 (5000)
I0428 20:09:31.852133 31641 net.cpp:139] Memory required for data: 8362800
I0428 20:09:31.852136 31641 layer_factory.hpp:77] Creating layer ip3
I0428 20:09:31.852143 31641 net.cpp:86] Creating Layer ip3
I0428 20:09:31.852146 31641 net.cpp:408] ip3 <- ip2
I0428 20:09:31.852152 31641 net.cpp:382] ip3 -> ip3
I0428 20:09:31.852284 31641 net.cpp:124] Setting up ip3
I0428 20:09:31.852293 31641 net.cpp:131] Top shape: 100 10 (1000)
I0428 20:09:31.852296 31641 net.cpp:139] Memory required for data: 8366800
I0428 20:09:31.852305 31641 layer_factory.hpp:77] Creating layer relu3
I0428 20:09:31.852310 31641 net.cpp:86] Creating Layer relu3
I0428 20:09:31.852314 31641 net.cpp:408] relu3 <- ip3
I0428 20:09:31.852319 31641 net.cpp:369] relu3 -> ip3 (in-place)
I0428 20:09:31.853240 31641 net.cpp:124] Setting up relu3
I0428 20:09:31.853255 31641 net.cpp:131] Top shape: 100 10 (1000)
I0428 20:09:31.853271 31641 net.cpp:139] Memory required for data: 8370800
I0428 20:09:31.853274 31641 layer_factory.hpp:77] Creating layer ip3_relu3_0_split
I0428 20:09:31.853282 31641 net.cpp:86] Creating Layer ip3_relu3_0_split
I0428 20:09:31.853286 31641 net.cpp:408] ip3_relu3_0_split <- ip3
I0428 20:09:31.853293 31641 net.cpp:382] ip3_relu3_0_split -> ip3_relu3_0_split_0
I0428 20:09:31.853301 31641 net.cpp:382] ip3_relu3_0_split -> ip3_relu3_0_split_1
I0428 20:09:31.853345 31641 net.cpp:124] Setting up ip3_relu3_0_split
I0428 20:09:31.853351 31641 net.cpp:131] Top shape: 100 10 (1000)
I0428 20:09:31.853358 31641 net.cpp:131] Top shape: 100 10 (1000)
I0428 20:09:31.853360 31641 net.cpp:139] Memory required for data: 8378800
I0428 20:09:31.853364 31641 layer_factory.hpp:77] Creating layer accuracy
I0428 20:09:31.853369 31641 net.cpp:86] Creating Layer accuracy
I0428 20:09:31.853374 31641 net.cpp:408] accuracy <- ip3_relu3_0_split_0
I0428 20:09:31.853379 31641 net.cpp:408] accuracy <- label_mnist_1_split_0
I0428 20:09:31.853384 31641 net.cpp:382] accuracy -> accuracy
…
