…
I0428 20:35:28.065454  4624 net.cpp:296] The NetState phase (0) differed from the phase (1) specified by a rule in layer mnist
I0428 20:35:28.065485  4624 net.cpp:296] The NetState phase (0) differed from the phase (1) specified by a rule in layer accuracy
I0428 20:35:28.065567  4624 net.cpp:53] Initializing net from parameters: 
name: "LeNet"
state {
  phase: TRAIN
  level: 0
  stage: ""
}
layer {
  name: "mnist"
  type: "Data"
  top: "data"
  top: "label"
  include {
    phase: TRAIN
  }
  transform_param {
    scale: 0.00390625
  }
  data_param {
    source: "examples/mnist/mnist_train_lmdb"
    batch_size: 64
    backend: LMDB
  }
}
layer {
  name: "conv0"
  type: "Convolution"
  bottom: "data"
  top: "conv0"
  param {
    lr_mult: 1
  }
  param {
    lr_mult: 2
  }
  convolution_param {
    num_output: 100
    kernel_size: 5
    stride: 1
    weight_filler {
      type: "xavier"
    }
    bias_filler {
      type: "constant"
    }
  }
}
layer {
  name: "pool0"
  type: "Pooling"
  bottom: "conv0"
  top: "pool0"
  pooling_param {
    pool: MAX
    kernel_size: 2
    stride: 2
  }
}
layer {
  name: "conv1"
  type: "Convolution"
  bottom: "pool0"
  top: "conv1"
  param {
    lr_mult: 1
  }
  param {
    lr_mult: 2
  }
  convolution_param {
    num_output: 50
    kernel_size: 5
    stride: 1
    weight_filler {
      type: "xavier"
    }
    bias_filler {
      type: "constant"
    }
  }
}
layer {
  name: "pool1"
  type: "Pooling"
  bottom: "conv1"
  top: "pool1"
  pooling_param {
    pool: MAX
    kernel_size: 2
    stride: 2
  }
}
layer {
  name: "ip1"
  type: "InnerProduct"
  bottom: "pool1"
  top: "ip1"
  param {
    lr_mult: 1
  }
  param {
    lr_mult: 2
  }
  inner_product_param {
    num_output: 25
    weight_filler {
      type: "xavier"
    }
    bias_filler {
      type: "constant"
    }
  }
}
layer {
  name: "relu1"
  type: "ReLU"
  bottom: "ip1"
  top: "ip1"
}
layer {
  name: "ip2"
  type: "InnerProduct"
  bottom: "ip1"
  top: "ip2"
  param {
    lr_mult: 1
  }
  param {
    lr_mult: 2
  }
  inner_product_param {
    num_output: 10
    weight_filler {
      type: "xavier"
    }
    bias_filler {
      type: "constant"
    }
  }
}
layer {
  name: "relu2"
  type: "ReLU"
  bottom: "ip2"
  top: "ip2"
}
layer {
  name: "ip3"
  type: "InnerProduct"
  bottom: "ip2"
  top: "ip3"
  param {
    lr_mult: 1
  }
  param {
    lr_mult: 2
  }
  inner_product_param {
    num_output: 10
    weight_filler {
      type: "xavier"
    }
    bias_filler {
      type: "constant"
    }
  }
}
layer {
  name: "relu3"
  type: "ReLU"
  bottom: "ip3"
  top: "ip3"
}
layer {
  name: "loss"
  type: "SoftmaxWithLoss"
  bottom: "ip3"
  bottom: "label"
  top: "loss"
}
I0428 20:35:28.065630  4624 layer_factory.hpp:77] Creating layer mnist
I0428 20:35:28.065712  4624 db_lmdb.cpp:35] Opened lmdb examples/mnist/mnist_train_lmdb
I0428 20:35:28.065735  4624 net.cpp:86] Creating Layer mnist
I0428 20:35:28.065742  4624 net.cpp:382] mnist -> data
I0428 20:35:28.065763  4624 net.cpp:382] mnist -> label
I0428 20:35:28.066659  4624 data_layer.cpp:45] output data size: 64,1,28,28
I0428 20:35:28.068858  4624 net.cpp:124] Setting up mnist
I0428 20:35:28.068873  4624 net.cpp:131] Top shape: 64 1 28 28 (50176)
I0428 20:35:28.068881  4624 net.cpp:131] Top shape: 64 (64)
I0428 20:35:28.068883  4624 net.cpp:139] Memory required for data: 200960
I0428 20:35:28.068889  4624 layer_factory.hpp:77] Creating layer conv0
I0428 20:35:28.068902  4624 net.cpp:86] Creating Layer conv0
I0428 20:35:28.068920  4624 net.cpp:408] conv0 <- data
I0428 20:35:28.068933  4624 net.cpp:382] conv0 -> conv0
I0428 20:35:28.301636  4624 net.cpp:124] Setting up conv0
I0428 20:35:28.301661  4624 net.cpp:131] Top shape: 64 100 24 24 (3686400)
I0428 20:35:28.301664  4624 net.cpp:139] Memory required for data: 14946560
I0428 20:35:28.301678  4624 layer_factory.hpp:77] Creating layer pool0
I0428 20:35:28.301692  4624 net.cpp:86] Creating Layer pool0
I0428 20:35:28.301695  4624 net.cpp:408] pool0 <- conv0
I0428 20:35:28.301715  4624 net.cpp:382] pool0 -> pool0
I0428 20:35:28.301764  4624 net.cpp:124] Setting up pool0
I0428 20:35:28.301771  4624 net.cpp:131] Top shape: 64 100 12 12 (921600)
I0428 20:35:28.301774  4624 net.cpp:139] Memory required for data: 18632960
I0428 20:35:28.301777  4624 layer_factory.hpp:77] Creating layer conv1
I0428 20:35:28.301789  4624 net.cpp:86] Creating Layer conv1
I0428 20:35:28.301792  4624 net.cpp:408] conv1 <- pool0
I0428 20:35:28.301796  4624 net.cpp:382] conv1 -> conv1
I0428 20:35:28.305418  4624 net.cpp:124] Setting up conv1
I0428 20:35:28.305449  4624 net.cpp:131] Top shape: 64 50 8 8 (204800)
I0428 20:35:28.305452  4624 net.cpp:139] Memory required for data: 19452160
I0428 20:35:28.305460  4624 layer_factory.hpp:77] Creating layer pool1
I0428 20:35:28.305469  4624 net.cpp:86] Creating Layer pool1
I0428 20:35:28.305472  4624 net.cpp:408] pool1 <- conv1
I0428 20:35:28.305495  4624 net.cpp:382] pool1 -> pool1
I0428 20:35:28.305531  4624 net.cpp:124] Setting up pool1
I0428 20:35:28.305538  4624 net.cpp:131] Top shape: 64 50 4 4 (51200)
I0428 20:35:28.305541  4624 net.cpp:139] Memory required for data: 19656960
I0428 20:35:28.305544  4624 layer_factory.hpp:77] Creating layer ip1
I0428 20:35:28.305557  4624 net.cpp:86] Creating Layer ip1
I0428 20:35:28.305563  4624 net.cpp:408] ip1 <- pool1
I0428 20:35:28.305567  4624 net.cpp:382] ip1 -> ip1
I0428 20:35:28.305806  4624 net.cpp:124] Setting up ip1
I0428 20:35:28.305814  4624 net.cpp:131] Top shape: 64 25 (1600)
I0428 20:35:28.305816  4624 net.cpp:139] Memory required for data: 19663360
I0428 20:35:28.305822  4624 layer_factory.hpp:77] Creating layer relu1
I0428 20:35:28.305829  4624 net.cpp:86] Creating Layer relu1
I0428 20:35:28.305842  4624 net.cpp:408] relu1 <- ip1
I0428 20:35:28.305848  4624 net.cpp:369] relu1 -> ip1 (in-place)
I0428 20:35:28.306028  4624 net.cpp:124] Setting up relu1
I0428 20:35:28.306037  4624 net.cpp:131] Top shape: 64 25 (1600)
I0428 20:35:28.306054  4624 net.cpp:139] Memory required for data: 19669760
I0428 20:35:28.306057  4624 layer_factory.hpp:77] Creating layer ip2
I0428 20:35:28.306064  4624 net.cpp:86] Creating Layer ip2
I0428 20:35:28.306067  4624 net.cpp:408] ip2 <- ip1
I0428 20:35:28.306071  4624 net.cpp:382] ip2 -> ip2
I0428 20:35:28.306160  4624 net.cpp:124] Setting up ip2
I0428 20:35:28.306167  4624 net.cpp:131] Top shape: 64 10 (640)
I0428 20:35:28.306170  4624 net.cpp:139] Memory required for data: 19672320
I0428 20:35:28.306174  4624 layer_factory.hpp:77] Creating layer relu2
I0428 20:35:28.306181  4624 net.cpp:86] Creating Layer relu2
I0428 20:35:28.306185  4624 net.cpp:408] relu2 <- ip2
I0428 20:35:28.306188  4624 net.cpp:369] relu2 -> ip2 (in-place)
I0428 20:35:28.306969  4624 net.cpp:124] Setting up relu2
I0428 20:35:28.306998  4624 net.cpp:131] Top shape: 64 10 (640)
I0428 20:35:28.307003  4624 net.cpp:139] Memory required for data: 19674880
I0428 20:35:28.307005  4624 layer_factory.hpp:77] Creating layer ip3
I0428 20:35:28.307013  4624 net.cpp:86] Creating Layer ip3
I0428 20:35:28.307015  4624 net.cpp:408] ip3 <- ip2
I0428 20:35:28.307021  4624 net.cpp:382] ip3 -> ip3
I0428 20:35:28.307118  4624 net.cpp:124] Setting up ip3
I0428 20:35:28.307126  4624 net.cpp:131] Top shape: 64 10 (640)
I0428 20:35:28.307128  4624 net.cpp:139] Memory required for data: 19677440
I0428 20:35:28.307137  4624 layer_factory.hpp:77] Creating layer relu3
I0428 20:35:28.307142  4624 net.cpp:86] Creating Layer relu3
I0428 20:35:28.307144  4624 net.cpp:408] relu3 <- ip3
I0428 20:35:28.307149  4624 net.cpp:369] relu3 -> ip3 (in-place)
I0428 20:35:28.307312  4624 net.cpp:124] Setting up relu3
I0428 20:35:28.307322  4624 net.cpp:131] Top shape: 64 10 (640)
I0428 20:35:28.307324  4624 net.cpp:139] Memory required for data: 19680000
I0428 20:35:28.307328  4624 layer_factory.hpp:77] Creating layer loss
I0428 20:35:28.307348  4624 net.cpp:86] Creating Layer loss
I0428 20:35:28.307350  4624 net.cpp:408] loss <- ip3
I0428 20:35:28.307354  4624 net.cpp:408] loss <- label
I0428 20:35:28.307359  4624 net.cpp:382] loss -> loss
I0428 20:35:28.307375  4624 layer_factory.hpp:77] Creating layer loss
…
I0428 20:35:28.308058  4624 solver.cpp:173] Creating test net (#0) specified by net file: ECE595/mnist/train_test/var_everything2/lenet_train_test1621.prototxt
I0428 20:35:28.308100  4624 net.cpp:296] The NetState phase (1) differed from the phase (0) specified by a rule in layer mnist
I0428 20:35:28.308203  4624 net.cpp:53] Initializing net from parameters: 
name: "LeNet"
state {
  phase: TEST
}
layer {
  name: "mnist"
  type: "Data"
  top: "data"
  top: "label"
  include {
    phase: TEST
  }
  transform_param {
    scale: 0.00390625
  }
  data_param {
    source: "examples/mnist/mnist_test_lmdb"
    batch_size: 100
    backend: LMDB
  }
}
layer {
  name: "conv0"
  type: "Convolution"
  bottom: "data"
  top: "conv0"
  param {
    lr_mult: 1
  }
  param {
    lr_mult: 2
  }
  convolution_param {
    num_output: 100
    kernel_size: 5
    stride: 1
    weight_filler {
      type: "xavier"
    }
    bias_filler {
      type: "constant"
    }
  }
}
layer {
  name: "pool0"
  type: "Pooling"
  bottom: "conv0"
  top: "pool0"
  pooling_param {
    pool: MAX
    kernel_size: 2
    stride: 2
  }
}
layer {
  name: "conv1"
  type: "Convolution"
  bottom: "pool0"
  top: "conv1"
  param {
    lr_mult: 1
  }
  param {
    lr_mult: 2
  }
  convolution_param {
    num_output: 50
    kernel_size: 5
    stride: 1
    weight_filler {
      type: "xavier"
    }
    bias_filler {
      type: "constant"
    }
  }
}
layer {
  name: "pool1"
  type: "Pooling"
  bottom: "conv1"
  top: "pool1"
  pooling_param {
    pool: MAX
    kernel_size: 2
    stride: 2
  }
}
layer {
  name: "ip1"
  type: "InnerProduct"
  bottom: "pool1"
  top: "ip1"
  param {
    lr_mult: 1
  }
  param {
    lr_mult: 2
  }
  inner_product_param {
    num_output: 25
    weight_filler {
      type: "xavier"
    }
    bias_filler {
      type: "constant"
    }
  }
}
layer {
  name: "relu1"
  type: "ReLU"
  bottom: "ip1"
  top: "ip1"
}
layer {
  name: "ip2"
  type: "InnerProduct"
  bottom: "ip1"
  top: "ip2"
  param {
    lr_mult: 1
  }
  param {
    lr_mult: 2
  }
  inner_product_param {
    num_output: 10
    weight_filler {
      type: "xavier"
    }
    bias_filler {
      type: "constant"
    }
  }
}
layer {
  name: "relu2"
  type: "ReLU"
  bottom: "ip2"
  top: "ip2"
}
layer {
  name: "ip3"
  type: "InnerProduct"
  bottom: "ip2"
  top: "ip3"
  param {
    lr_mult: 1
  }
  param {
    lr_mult: 2
  }
  inner_product_param {
    num_output: 10
    weight_filler {
      type: "xavier"
    }
    bias_filler {
      type: "constant"
    }
  }
}
layer {
  name: "relu3"
  type: "ReLU"
  bottom: "ip3"
  top: "ip3"
}
layer {
  name: "accuracy"
  type: "Accuracy"
  bottom: "ip3"
  bottom: "label"
  top: "accuracy"
  include {
    phase: TEST
  }
}
layer {
  name: "loss"
  type: "SoftmaxWithLoss"
  bottom: "ip3"
  bottom: "label"
  top: "loss"
}
I0428 20:35:28.308300  4624 layer_factory.hpp:77] Creating layer mnist
I0428 20:35:28.308342  4624 db_lmdb.cpp:35] Opened lmdb examples/mnist/mnist_test_lmdb
I0428 20:35:28.308354  4624 net.cpp:86] Creating Layer mnist
I0428 20:35:28.308359  4624 net.cpp:382] mnist -> data
I0428 20:35:28.308367  4624 net.cpp:382] mnist -> label
I0428 20:35:28.308452  4624 data_layer.cpp:45] output data size: 100,1,28,28
I0428 20:35:28.309644  4624 net.cpp:124] Setting up mnist
I0428 20:35:28.309672  4624 net.cpp:131] Top shape: 100 1 28 28 (78400)
I0428 20:35:28.309695  4624 net.cpp:131] Top shape: 100 (100)
I0428 20:35:28.309697  4624 net.cpp:139] Memory required for data: 314000
I0428 20:35:28.309701  4624 layer_factory.hpp:77] Creating layer label_mnist_1_split
I0428 20:35:28.309728  4624 net.cpp:86] Creating Layer label_mnist_1_split
I0428 20:35:28.309733  4624 net.cpp:408] label_mnist_1_split <- label
I0428 20:35:28.309754  4624 net.cpp:382] label_mnist_1_split -> label_mnist_1_split_0
I0428 20:35:28.309762  4624 net.cpp:382] label_mnist_1_split -> label_mnist_1_split_1
I0428 20:35:28.309809  4624 net.cpp:124] Setting up label_mnist_1_split
I0428 20:35:28.309816  4624 net.cpp:131] Top shape: 100 (100)
I0428 20:35:28.309820  4624 net.cpp:131] Top shape: 100 (100)
I0428 20:35:28.309823  4624 net.cpp:139] Memory required for data: 314800
I0428 20:35:28.309826  4624 layer_factory.hpp:77] Creating layer conv0
I0428 20:35:28.309835  4624 net.cpp:86] Creating Layer conv0
I0428 20:35:28.309839  4624 net.cpp:408] conv0 <- data
I0428 20:35:28.309845  4624 net.cpp:382] conv0 -> conv0
I0428 20:35:28.311491  4624 net.cpp:124] Setting up conv0
I0428 20:35:28.311522  4624 net.cpp:131] Top shape: 100 100 24 24 (5760000)
I0428 20:35:28.311525  4624 net.cpp:139] Memory required for data: 23354800
I0428 20:35:28.311544  4624 layer_factory.hpp:77] Creating layer pool0
I0428 20:35:28.311553  4624 net.cpp:86] Creating Layer pool0
I0428 20:35:28.311555  4624 net.cpp:408] pool0 <- conv0
I0428 20:35:28.311560  4624 net.cpp:382] pool0 -> pool0
I0428 20:35:28.311597  4624 net.cpp:124] Setting up pool0
I0428 20:35:28.311604  4624 net.cpp:131] Top shape: 100 100 12 12 (1440000)
I0428 20:35:28.311606  4624 net.cpp:139] Memory required for data: 29114800
I0428 20:35:28.311609  4624 layer_factory.hpp:77] Creating layer conv1
I0428 20:35:28.311619  4624 net.cpp:86] Creating Layer conv1
I0428 20:35:28.311621  4624 net.cpp:408] conv1 <- pool0
I0428 20:35:28.311628  4624 net.cpp:382] conv1 -> conv1
I0428 20:35:28.314888  4624 net.cpp:124] Setting up conv1
I0428 20:35:28.314900  4624 net.cpp:131] Top shape: 100 50 8 8 (320000)
I0428 20:35:28.314904  4624 net.cpp:139] Memory required for data: 30394800
I0428 20:35:28.314913  4624 layer_factory.hpp:77] Creating layer pool1
I0428 20:35:28.314919  4624 net.cpp:86] Creating Layer pool1
I0428 20:35:28.314923  4624 net.cpp:408] pool1 <- conv1
I0428 20:35:28.314929  4624 net.cpp:382] pool1 -> pool1
I0428 20:35:28.314977  4624 net.cpp:124] Setting up pool1
I0428 20:35:28.314996  4624 net.cpp:131] Top shape: 100 50 4 4 (80000)
I0428 20:35:28.314999  4624 net.cpp:139] Memory required for data: 30714800
I0428 20:35:28.315002  4624 layer_factory.hpp:77] Creating layer ip1
I0428 20:35:28.315008  4624 net.cpp:86] Creating Layer ip1
I0428 20:35:28.315011  4624 net.cpp:408] ip1 <- pool1
I0428 20:35:28.315017  4624 net.cpp:382] ip1 -> ip1
I0428 20:35:28.315239  4624 net.cpp:124] Setting up ip1
I0428 20:35:28.315258  4624 net.cpp:131] Top shape: 100 25 (2500)
I0428 20:35:28.315261  4624 net.cpp:139] Memory required for data: 30724800
I0428 20:35:28.315269  4624 layer_factory.hpp:77] Creating layer relu1
I0428 20:35:28.315274  4624 net.cpp:86] Creating Layer relu1
I0428 20:35:28.315279  4624 net.cpp:408] relu1 <- ip1
I0428 20:35:28.315284  4624 net.cpp:369] relu1 -> ip1 (in-place)
I0428 20:35:28.315441  4624 net.cpp:124] Setting up relu1
I0428 20:35:28.315450  4624 net.cpp:131] Top shape: 100 25 (2500)
I0428 20:35:28.315454  4624 net.cpp:139] Memory required for data: 30734800
I0428 20:35:28.315456  4624 layer_factory.hpp:77] Creating layer ip2
I0428 20:35:28.315464  4624 net.cpp:86] Creating Layer ip2
I0428 20:35:28.315467  4624 net.cpp:408] ip2 <- ip1
I0428 20:35:28.315472  4624 net.cpp:382] ip2 -> ip2
I0428 20:35:28.315585  4624 net.cpp:124] Setting up ip2
I0428 20:35:28.315593  4624 net.cpp:131] Top shape: 100 10 (1000)
I0428 20:35:28.315595  4624 net.cpp:139] Memory required for data: 30738800
I0428 20:35:28.315600  4624 layer_factory.hpp:77] Creating layer relu2
I0428 20:35:28.315605  4624 net.cpp:86] Creating Layer relu2
I0428 20:35:28.315608  4624 net.cpp:408] relu2 <- ip2
I0428 20:35:28.315623  4624 net.cpp:369] relu2 -> ip2 (in-place)
I0428 20:35:28.315821  4624 net.cpp:124] Setting up relu2
I0428 20:35:28.315830  4624 net.cpp:131] Top shape: 100 10 (1000)
I0428 20:35:28.315834  4624 net.cpp:139] Memory required for data: 30742800
I0428 20:35:28.315837  4624 layer_factory.hpp:77] Creating layer ip3
I0428 20:35:28.315843  4624 net.cpp:86] Creating Layer ip3
I0428 20:35:28.315846  4624 net.cpp:408] ip3 <- ip2
I0428 20:35:28.315851  4624 net.cpp:382] ip3 -> ip3
I0428 20:35:28.315963  4624 net.cpp:124] Setting up ip3
I0428 20:35:28.315970  4624 net.cpp:131] Top shape: 100 10 (1000)
I0428 20:35:28.315973  4624 net.cpp:139] Memory required for data: 30746800
I0428 20:35:28.315981  4624 layer_factory.hpp:77] Creating layer relu3
I0428 20:35:28.315987  4624 net.cpp:86] Creating Layer relu3
I0428 20:35:28.315990  4624 net.cpp:408] relu3 <- ip3
I0428 20:35:28.315994  4624 net.cpp:369] relu3 -> ip3 (in-place)
I0428 20:35:28.316920  4624 net.cpp:124] Setting up relu3
I0428 20:35:28.316933  4624 net.cpp:131] Top shape: 100 10 (1000)
I0428 20:35:28.316953  4624 net.cpp:139] Memory required for data: 30750800
I0428 20:35:28.316957  4624 layer_factory.hpp:77] Creating layer ip3_relu3_0_split
I0428 20:35:28.316964  4624 net.cpp:86] Creating Layer ip3_relu3_0_split
I0428 20:35:28.316967  4624 net.cpp:408] ip3_relu3_0_split <- ip3
I0428 20:35:28.316973  4624 net.cpp:382] ip3_relu3_0_split -> ip3_relu3_0_split_0
I0428 20:35:28.316979  4624 net.cpp:382] ip3_relu3_0_split -> ip3_relu3_0_split_1
I0428 20:35:28.317019  4624 net.cpp:124] Setting up ip3_relu3_0_split
I0428 20:35:28.317028  4624 net.cpp:131] Top shape: 100 10 (1000)
I0428 20:35:28.317031  4624 net.cpp:131] Top shape: 100 10 (1000)
I0428 20:35:28.317034  4624 net.cpp:139] Memory required for data: 30758800
I0428 20:35:28.317037  4624 layer_factory.hpp:77] Creating layer accuracy
I0428 20:35:28.317044  4624 net.cpp:86] Creating Layer accuracy
I0428 20:35:28.317047  4624 net.cpp:408] accuracy <- ip3_relu3_0_split_0
I0428 20:35:28.317051  4624 net.cpp:408] accuracy <- label_mnist_1_split_0
I0428 20:35:28.317056  4624 net.cpp:382] accuracy -> accuracy
…
