…
I0428 19:29:35.208803 22059 net.cpp:296] The NetState phase (0) differed from the phase (1) specified by a rule in layer mnist
I0428 19:29:35.208828 22059 net.cpp:296] The NetState phase (0) differed from the phase (1) specified by a rule in layer accuracy
I0428 19:29:35.208921 22059 net.cpp:53] Initializing net from parameters: 
name: "LeNet"
state {
  phase: TRAIN
  level: 0
  stage: ""
}
layer {
  name: "mnist"
  type: "Data"
  top: "data"
  top: "label"
  include {
    phase: TRAIN
  }
  transform_param {
    scale: 0.00390625
  }
  data_param {
    source: "examples/mnist/mnist_train_lmdb"
    batch_size: 64
    backend: LMDB
  }
}
layer {
  name: "conv0"
  type: "Convolution"
  bottom: "data"
  top: "conv0"
  param {
    lr_mult: 1
  }
  param {
    lr_mult: 2
  }
  convolution_param {
    num_output: 2
    kernel_size: 5
    stride: 1
    weight_filler {
      type: "xavier"
    }
    bias_filler {
      type: "constant"
    }
  }
}
layer {
  name: "pool0"
  type: "Pooling"
  bottom: "conv0"
  top: "pool0"
  pooling_param {
    pool: MAX
    kernel_size: 2
    stride: 2
  }
}
layer {
  name: "ip1"
  type: "InnerProduct"
  bottom: "pool0"
  top: "ip1"
  param {
    lr_mult: 1
  }
  param {
    lr_mult: 2
  }
  inner_product_param {
    num_output: 25
    weight_filler {
      type: "xavier"
    }
    bias_filler {
      type: "constant"
    }
  }
}
layer {
  name: "relu1"
  type: "ReLU"
  bottom: "ip1"
  top: "ip1"
}
layer {
  name: "ip2"
  type: "InnerProduct"
  bottom: "ip1"
  top: "ip2"
  param {
    lr_mult: 1
  }
  param {
    lr_mult: 2
  }
  inner_product_param {
    num_output: 25
    weight_filler {
      type: "xavier"
    }
    bias_filler {
      type: "constant"
    }
  }
}
layer {
  name: "relu2"
  type: "ReLU"
  bottom: "ip2"
  top: "ip2"
}
layer {
  name: "ip3"
  type: "InnerProduct"
  bottom: "ip2"
  top: "ip3"
  param {
    lr_mult: 1
  }
  param {
    lr_mult: 2
  }
  inner_product_param {
    num_output: 10
    weight_filler {
      type: "xavier"
    }
    bias_filler {
      type: "constant"
    }
  }
}
layer {
  name: "relu3"
  type: "ReLU"
  bottom: "ip3"
  top: "ip3"
}
layer {
  name: "loss"
  type: "SoftmaxWithLoss"
  bottom: "ip3"
  bottom: "label"
  top: "loss"
}
I0428 19:29:35.208999 22059 layer_factory.hpp:77] Creating layer mnist
I0428 19:29:35.209101 22059 db_lmdb.cpp:35] Opened lmdb examples/mnist/mnist_train_lmdb
I0428 19:29:35.209126 22059 net.cpp:86] Creating Layer mnist
I0428 19:29:35.209134 22059 net.cpp:382] mnist -> data
I0428 19:29:35.209156 22059 net.cpp:382] mnist -> label
I0428 19:29:35.210255 22059 data_layer.cpp:45] output data size: 64,1,28,28
I0428 19:29:35.212718 22059 net.cpp:124] Setting up mnist
I0428 19:29:35.212734 22059 net.cpp:131] Top shape: 64 1 28 28 (50176)
I0428 19:29:35.212743 22059 net.cpp:131] Top shape: 64 (64)
I0428 19:29:35.212745 22059 net.cpp:139] Memory required for data: 200960
I0428 19:29:35.212757 22059 layer_factory.hpp:77] Creating layer conv0
I0428 19:29:35.212772 22059 net.cpp:86] Creating Layer conv0
I0428 19:29:35.212779 22059 net.cpp:408] conv0 <- data
I0428 19:29:35.212791 22059 net.cpp:382] conv0 -> conv0
I0428 19:29:35.505692 22059 net.cpp:124] Setting up conv0
I0428 19:29:35.505722 22059 net.cpp:131] Top shape: 64 2 24 24 (73728)
I0428 19:29:35.505728 22059 net.cpp:139] Memory required for data: 495872
I0428 19:29:35.505744 22059 layer_factory.hpp:77] Creating layer pool0
I0428 19:29:35.505759 22059 net.cpp:86] Creating Layer pool0
I0428 19:29:35.505784 22059 net.cpp:408] pool0 <- conv0
I0428 19:29:35.505791 22059 net.cpp:382] pool0 -> pool0
I0428 19:29:35.505846 22059 net.cpp:124] Setting up pool0
I0428 19:29:35.505861 22059 net.cpp:131] Top shape: 64 2 12 12 (18432)
I0428 19:29:35.505866 22059 net.cpp:139] Memory required for data: 569600
I0428 19:29:35.505868 22059 layer_factory.hpp:77] Creating layer ip1
I0428 19:29:35.505877 22059 net.cpp:86] Creating Layer ip1
I0428 19:29:35.505882 22059 net.cpp:408] ip1 <- pool0
I0428 19:29:35.505887 22059 net.cpp:382] ip1 -> ip1
I0428 19:29:35.506991 22059 net.cpp:124] Setting up ip1
I0428 19:29:35.507006 22059 net.cpp:131] Top shape: 64 25 (1600)
I0428 19:29:35.507010 22059 net.cpp:139] Memory required for data: 576000
I0428 19:29:35.507019 22059 layer_factory.hpp:77] Creating layer relu1
I0428 19:29:35.507027 22059 net.cpp:86] Creating Layer relu1
I0428 19:29:35.507031 22059 net.cpp:408] relu1 <- ip1
I0428 19:29:35.507038 22059 net.cpp:369] relu1 -> ip1 (in-place)
I0428 19:29:35.507230 22059 net.cpp:124] Setting up relu1
I0428 19:29:35.507241 22059 net.cpp:131] Top shape: 64 25 (1600)
I0428 19:29:35.507244 22059 net.cpp:139] Memory required for data: 582400
I0428 19:29:35.507248 22059 layer_factory.hpp:77] Creating layer ip2
I0428 19:29:35.507256 22059 net.cpp:86] Creating Layer ip2
I0428 19:29:35.507258 22059 net.cpp:408] ip2 <- ip1
I0428 19:29:35.507264 22059 net.cpp:382] ip2 -> ip2
I0428 19:29:35.507374 22059 net.cpp:124] Setting up ip2
I0428 19:29:35.507381 22059 net.cpp:131] Top shape: 64 25 (1600)
I0428 19:29:35.507385 22059 net.cpp:139] Memory required for data: 588800
I0428 19:29:35.507393 22059 layer_factory.hpp:77] Creating layer relu2
I0428 19:29:35.507400 22059 net.cpp:86] Creating Layer relu2
I0428 19:29:35.507402 22059 net.cpp:408] relu2 <- ip2
I0428 19:29:35.507407 22059 net.cpp:369] relu2 -> ip2 (in-place)
I0428 19:29:35.508230 22059 net.cpp:124] Setting up relu2
I0428 19:29:35.508244 22059 net.cpp:131] Top shape: 64 25 (1600)
I0428 19:29:35.508249 22059 net.cpp:139] Memory required for data: 595200
I0428 19:29:35.508252 22059 layer_factory.hpp:77] Creating layer ip3
I0428 19:29:35.508260 22059 net.cpp:86] Creating Layer ip3
I0428 19:29:35.508263 22059 net.cpp:408] ip3 <- ip2
I0428 19:29:35.508270 22059 net.cpp:382] ip3 -> ip3
I0428 19:29:35.508384 22059 net.cpp:124] Setting up ip3
I0428 19:29:35.508393 22059 net.cpp:131] Top shape: 64 10 (640)
I0428 19:29:35.508396 22059 net.cpp:139] Memory required for data: 597760
I0428 19:29:35.508402 22059 layer_factory.hpp:77] Creating layer relu3
I0428 19:29:35.508409 22059 net.cpp:86] Creating Layer relu3
I0428 19:29:35.508414 22059 net.cpp:408] relu3 <- ip3
I0428 19:29:35.508417 22059 net.cpp:369] relu3 -> ip3 (in-place)
I0428 19:29:35.508594 22059 net.cpp:124] Setting up relu3
I0428 19:29:35.508602 22059 net.cpp:131] Top shape: 64 10 (640)
I0428 19:29:35.508606 22059 net.cpp:139] Memory required for data: 600320
I0428 19:29:35.508610 22059 layer_factory.hpp:77] Creating layer loss
I0428 19:29:35.508616 22059 net.cpp:86] Creating Layer loss
I0428 19:29:35.508620 22059 net.cpp:408] loss <- ip3
I0428 19:29:35.508625 22059 net.cpp:408] loss <- label
I0428 19:29:35.508630 22059 net.cpp:382] loss -> loss
I0428 19:29:35.508646 22059 layer_factory.hpp:77] Creating layer loss
…
I0428 19:29:35.509328 22059 solver.cpp:173] Creating test net (#0) specified by net file: ECE595/mnist/train_test/var_everything2/lenet_train_test63.prototxt
I0428 19:29:35.509356 22059 net.cpp:296] The NetState phase (1) differed from the phase (0) specified by a rule in layer mnist
I0428 19:29:35.509448 22059 net.cpp:53] Initializing net from parameters: 
name: "LeNet"
state {
  phase: TEST
}
layer {
  name: "mnist"
  type: "Data"
  top: "data"
  top: "label"
  include {
    phase: TEST
  }
  transform_param {
    scale: 0.00390625
  }
  data_param {
    source: "examples/mnist/mnist_test_lmdb"
    batch_size: 100
    backend: LMDB
  }
}
layer {
  name: "conv0"
  type: "Convolution"
  bottom: "data"
  top: "conv0"
  param {
    lr_mult: 1
  }
  param {
    lr_mult: 2
  }
  convolution_param {
    num_output: 2
    kernel_size: 5
    stride: 1
    weight_filler {
      type: "xavier"
    }
    bias_filler {
      type: "constant"
    }
  }
}
layer {
  name: "pool0"
  type: "Pooling"
  bottom: "conv0"
  top: "pool0"
  pooling_param {
    pool: MAX
    kernel_size: 2
    stride: 2
  }
}
layer {
  name: "ip1"
  type: "InnerProduct"
  bottom: "pool0"
  top: "ip1"
  param {
    lr_mult: 1
  }
  param {
    lr_mult: 2
  }
  inner_product_param {
    num_output: 25
    weight_filler {
      type: "xavier"
    }
    bias_filler {
      type: "constant"
    }
  }
}
layer {
  name: "relu1"
  type: "ReLU"
  bottom: "ip1"
  top: "ip1"
}
layer {
  name: "ip2"
  type: "InnerProduct"
  bottom: "ip1"
  top: "ip2"
  param {
    lr_mult: 1
  }
  param {
    lr_mult: 2
  }
  inner_product_param {
    num_output: 25
    weight_filler {
      type: "xavier"
    }
    bias_filler {
      type: "constant"
    }
  }
}
layer {
  name: "relu2"
  type: "ReLU"
  bottom: "ip2"
  top: "ip2"
}
layer {
  name: "ip3"
  type: "InnerProduct"
  bottom: "ip2"
  top: "ip3"
  param {
    lr_mult: 1
  }
  param {
    lr_mult: 2
  }
  inner_product_param {
    num_output: 10
    weight_filler {
      type: "xavier"
    }
    bias_filler {
      type: "constant"
    }
  }
}
layer {
  name: "relu3"
  type: "ReLU"
  bottom: "ip3"
  top: "ip3"
}
layer {
  name: "accuracy"
  type: "Accuracy"
  bottom: "ip3"
  bottom: "label"
  top: "accuracy"
  include {
    phase: TEST
  }
}
layer {
  name: "loss"
  type: "SoftmaxWithLoss"
  bottom: "ip3"
  bottom: "label"
  top: "loss"
}
I0428 19:29:35.509517 22059 layer_factory.hpp:77] Creating layer mnist
I0428 19:29:35.509567 22059 db_lmdb.cpp:35] Opened lmdb examples/mnist/mnist_test_lmdb
I0428 19:29:35.509580 22059 net.cpp:86] Creating Layer mnist
I0428 19:29:35.509587 22059 net.cpp:382] mnist -> data
I0428 19:29:35.509594 22059 net.cpp:382] mnist -> label
I0428 19:29:35.509687 22059 data_layer.cpp:45] output data size: 100,1,28,28
I0428 19:29:35.511924 22059 net.cpp:124] Setting up mnist
I0428 19:29:35.511940 22059 net.cpp:131] Top shape: 100 1 28 28 (78400)
I0428 19:29:35.511945 22059 net.cpp:131] Top shape: 100 (100)
I0428 19:29:35.511948 22059 net.cpp:139] Memory required for data: 314000
I0428 19:29:35.511952 22059 layer_factory.hpp:77] Creating layer label_mnist_1_split
I0428 19:29:35.511960 22059 net.cpp:86] Creating Layer label_mnist_1_split
I0428 19:29:35.511963 22059 net.cpp:408] label_mnist_1_split <- label
I0428 19:29:35.511968 22059 net.cpp:382] label_mnist_1_split -> label_mnist_1_split_0
I0428 19:29:35.511976 22059 net.cpp:382] label_mnist_1_split -> label_mnist_1_split_1
I0428 19:29:35.512042 22059 net.cpp:124] Setting up label_mnist_1_split
I0428 19:29:35.512049 22059 net.cpp:131] Top shape: 100 (100)
I0428 19:29:35.512053 22059 net.cpp:131] Top shape: 100 (100)
I0428 19:29:35.512056 22059 net.cpp:139] Memory required for data: 314800
I0428 19:29:35.512069 22059 layer_factory.hpp:77] Creating layer conv0
I0428 19:29:35.512079 22059 net.cpp:86] Creating Layer conv0
I0428 19:29:35.512084 22059 net.cpp:408] conv0 <- data
I0428 19:29:35.512089 22059 net.cpp:382] conv0 -> conv0
I0428 19:29:35.513927 22059 net.cpp:124] Setting up conv0
I0428 19:29:35.513943 22059 net.cpp:131] Top shape: 100 2 24 24 (115200)
I0428 19:29:35.513947 22059 net.cpp:139] Memory required for data: 775600
I0428 19:29:35.513957 22059 layer_factory.hpp:77] Creating layer pool0
I0428 19:29:35.513964 22059 net.cpp:86] Creating Layer pool0
I0428 19:29:35.513968 22059 net.cpp:408] pool0 <- conv0
I0428 19:29:35.513974 22059 net.cpp:382] pool0 -> pool0
I0428 19:29:35.514014 22059 net.cpp:124] Setting up pool0
I0428 19:29:35.514020 22059 net.cpp:131] Top shape: 100 2 12 12 (28800)
I0428 19:29:35.514024 22059 net.cpp:139] Memory required for data: 890800
I0428 19:29:35.514027 22059 layer_factory.hpp:77] Creating layer ip1
I0428 19:29:35.514034 22059 net.cpp:86] Creating Layer ip1
I0428 19:29:35.514039 22059 net.cpp:408] ip1 <- pool0
I0428 19:29:35.514044 22059 net.cpp:382] ip1 -> ip1
I0428 19:29:35.514188 22059 net.cpp:124] Setting up ip1
I0428 19:29:35.514195 22059 net.cpp:131] Top shape: 100 25 (2500)
I0428 19:29:35.514199 22059 net.cpp:139] Memory required for data: 900800
I0428 19:29:35.514206 22059 layer_factory.hpp:77] Creating layer relu1
I0428 19:29:35.514211 22059 net.cpp:86] Creating Layer relu1
I0428 19:29:35.514215 22059 net.cpp:408] relu1 <- ip1
I0428 19:29:35.514219 22059 net.cpp:369] relu1 -> ip1 (in-place)
I0428 19:29:35.514394 22059 net.cpp:124] Setting up relu1
I0428 19:29:35.514403 22059 net.cpp:131] Top shape: 100 25 (2500)
I0428 19:29:35.514406 22059 net.cpp:139] Memory required for data: 910800
I0428 19:29:35.514410 22059 layer_factory.hpp:77] Creating layer ip2
I0428 19:29:35.514416 22059 net.cpp:86] Creating Layer ip2
I0428 19:29:35.514420 22059 net.cpp:408] ip2 <- ip1
I0428 19:29:35.514425 22059 net.cpp:382] ip2 -> ip2
I0428 19:29:35.514533 22059 net.cpp:124] Setting up ip2
I0428 19:29:35.514541 22059 net.cpp:131] Top shape: 100 25 (2500)
I0428 19:29:35.514544 22059 net.cpp:139] Memory required for data: 920800
I0428 19:29:35.514552 22059 layer_factory.hpp:77] Creating layer relu2
I0428 19:29:35.514557 22059 net.cpp:86] Creating Layer relu2
I0428 19:29:35.514561 22059 net.cpp:408] relu2 <- ip2
I0428 19:29:35.514565 22059 net.cpp:369] relu2 -> ip2 (in-place)
I0428 19:29:35.515465 22059 net.cpp:124] Setting up relu2
I0428 19:29:35.515480 22059 net.cpp:131] Top shape: 100 25 (2500)
I0428 19:29:35.515483 22059 net.cpp:139] Memory required for data: 930800
I0428 19:29:35.515487 22059 layer_factory.hpp:77] Creating layer ip3
I0428 19:29:35.515496 22059 net.cpp:86] Creating Layer ip3
I0428 19:29:35.515499 22059 net.cpp:408] ip3 <- ip2
I0428 19:29:35.515506 22059 net.cpp:382] ip3 -> ip3
I0428 19:29:35.515650 22059 net.cpp:124] Setting up ip3
I0428 19:29:35.515661 22059 net.cpp:131] Top shape: 100 10 (1000)
I0428 19:29:35.515663 22059 net.cpp:139] Memory required for data: 934800
I0428 19:29:35.515671 22059 layer_factory.hpp:77] Creating layer relu3
I0428 19:29:35.515676 22059 net.cpp:86] Creating Layer relu3
I0428 19:29:35.515686 22059 net.cpp:408] relu3 <- ip3
I0428 19:29:35.515691 22059 net.cpp:369] relu3 -> ip3 (in-place)
I0428 19:29:35.515866 22059 net.cpp:124] Setting up relu3
I0428 19:29:35.515875 22059 net.cpp:131] Top shape: 100 10 (1000)
I0428 19:29:35.515879 22059 net.cpp:139] Memory required for data: 938800
I0428 19:29:35.515882 22059 layer_factory.hpp:77] Creating layer ip3_relu3_0_split
I0428 19:29:35.515894 22059 net.cpp:86] Creating Layer ip3_relu3_0_split
I0428 19:29:35.515898 22059 net.cpp:408] ip3_relu3_0_split <- ip3
I0428 19:29:35.515903 22059 net.cpp:382] ip3_relu3_0_split -> ip3_relu3_0_split_0
I0428 19:29:35.515914 22059 net.cpp:382] ip3_relu3_0_split -> ip3_relu3_0_split_1
I0428 19:29:35.515954 22059 net.cpp:124] Setting up ip3_relu3_0_split
I0428 19:29:35.515959 22059 net.cpp:131] Top shape: 100 10 (1000)
I0428 19:29:35.515962 22059 net.cpp:131] Top shape: 100 10 (1000)
I0428 19:29:35.515979 22059 net.cpp:139] Memory required for data: 946800
I0428 19:29:35.515982 22059 layer_factory.hpp:77] Creating layer accuracy
I0428 19:29:35.515995 22059 net.cpp:86] Creating Layer accuracy
I0428 19:29:35.515998 22059 net.cpp:408] accuracy <- ip3_relu3_0_split_0
I0428 19:29:35.516002 22059 net.cpp:408] accuracy <- label_mnist_1_split_0
I0428 19:29:35.516016 22059 net.cpp:382] accuracy -> accuracy
…
