…
I0428 20:11:48.436738 32143 net.cpp:296] The NetState phase (0) differed from the phase (1) specified by a rule in layer mnist
I0428 20:11:48.436756 32143 net.cpp:296] The NetState phase (0) differed from the phase (1) specified by a rule in layer accuracy
I0428 20:11:48.436867 32143 net.cpp:53] Initializing net from parameters: 
name: "LeNet"
state {
  phase: TRAIN
  level: 0
  stage: ""
}
layer {
  name: "mnist"
  type: "Data"
  top: "data"
  top: "label"
  include {
    phase: TRAIN
  }
  transform_param {
    scale: 0.00390625
  }
  data_param {
    source: "examples/mnist/mnist_train_lmdb"
    batch_size: 64
    backend: LMDB
  }
}
layer {
  name: "conv0"
  type: "Convolution"
  bottom: "data"
  top: "conv0"
  param {
    lr_mult: 1
  }
  param {
    lr_mult: 2
  }
  convolution_param {
    num_output: 25
    kernel_size: 5
    stride: 1
    weight_filler {
      type: "xavier"
    }
    bias_filler {
      type: "constant"
    }
  }
}
layer {
  name: "pool0"
  type: "Pooling"
  bottom: "conv0"
  top: "pool0"
  pooling_param {
    pool: MAX
    kernel_size: 2
    stride: 2
  }
}
layer {
  name: "conv1"
  type: "Convolution"
  bottom: "pool0"
  top: "conv1"
  param {
    lr_mult: 1
  }
  param {
    lr_mult: 2
  }
  convolution_param {
    num_output: 50
    kernel_size: 5
    stride: 1
    weight_filler {
      type: "xavier"
    }
    bias_filler {
      type: "constant"
    }
  }
}
layer {
  name: "pool1"
  type: "Pooling"
  bottom: "conv1"
  top: "pool1"
  pooling_param {
    pool: MAX
    kernel_size: 2
    stride: 2
  }
}
layer {
  name: "ip1"
  type: "InnerProduct"
  bottom: "pool1"
  top: "ip1"
  param {
    lr_mult: 1
  }
  param {
    lr_mult: 2
  }
  inner_product_param {
    num_output: 50
    weight_filler {
      type: "xavier"
    }
    bias_filler {
      type: "constant"
    }
  }
}
layer {
  name: "relu1"
  type: "ReLU"
  bottom: "ip1"
  top: "ip1"
}
layer {
  name: "ip2"
  type: "InnerProduct"
  bottom: "ip1"
  top: "ip2"
  param {
    lr_mult: 1
  }
  param {
    lr_mult: 2
  }
  inner_product_param {
    num_output: 50
    weight_filler {
      type: "xavier"
    }
    bias_filler {
      type: "constant"
    }
  }
}
layer {
  name: "relu2"
  type: "ReLU"
  bottom: "ip2"
  top: "ip2"
}
layer {
  name: "ip3"
  type: "InnerProduct"
  bottom: "ip2"
  top: "ip3"
  param {
    lr_mult: 1
  }
  param {
    lr_mult: 2
  }
  inner_product_param {
    num_output: 10
    weight_filler {
      type: "xavier"
    }
    bias_filler {
      type: "constant"
    }
  }
}
layer {
  name: "relu3"
  type: "ReLU"
  bottom: "ip3"
  top: "ip3"
}
layer {
  name: "loss"
  type: "SoftmaxWithLoss"
  bottom: "ip3"
  bottom: "label"
  top: "loss"
}
I0428 20:11:48.436954 32143 layer_factory.hpp:77] Creating layer mnist
I0428 20:11:48.437053 32143 db_lmdb.cpp:35] Opened lmdb examples/mnist/mnist_train_lmdb
I0428 20:11:48.437079 32143 net.cpp:86] Creating Layer mnist
I0428 20:11:48.437086 32143 net.cpp:382] mnist -> data
I0428 20:11:48.437109 32143 net.cpp:382] mnist -> label
I0428 20:11:48.438204 32143 data_layer.cpp:45] output data size: 64,1,28,28
I0428 20:11:48.440696 32143 net.cpp:124] Setting up mnist
I0428 20:11:48.440712 32143 net.cpp:131] Top shape: 64 1 28 28 (50176)
I0428 20:11:48.440721 32143 net.cpp:131] Top shape: 64 (64)
I0428 20:11:48.440723 32143 net.cpp:139] Memory required for data: 200960
I0428 20:11:48.440731 32143 layer_factory.hpp:77] Creating layer conv0
I0428 20:11:48.440747 32143 net.cpp:86] Creating Layer conv0
I0428 20:11:48.440768 32143 net.cpp:408] conv0 <- data
I0428 20:11:48.440783 32143 net.cpp:382] conv0 -> conv0
I0428 20:11:48.728682 32143 net.cpp:124] Setting up conv0
I0428 20:11:48.728714 32143 net.cpp:131] Top shape: 64 25 24 24 (921600)
I0428 20:11:48.728719 32143 net.cpp:139] Memory required for data: 3887360
I0428 20:11:48.728737 32143 layer_factory.hpp:77] Creating layer pool0
I0428 20:11:48.728751 32143 net.cpp:86] Creating Layer pool0
I0428 20:11:48.728757 32143 net.cpp:408] pool0 <- conv0
I0428 20:11:48.728763 32143 net.cpp:382] pool0 -> pool0
I0428 20:11:48.728824 32143 net.cpp:124] Setting up pool0
I0428 20:11:48.728833 32143 net.cpp:131] Top shape: 64 25 12 12 (230400)
I0428 20:11:48.728837 32143 net.cpp:139] Memory required for data: 4808960
I0428 20:11:48.728842 32143 layer_factory.hpp:77] Creating layer conv1
I0428 20:11:48.728854 32143 net.cpp:86] Creating Layer conv1
I0428 20:11:48.728860 32143 net.cpp:408] conv1 <- pool0
I0428 20:11:48.728866 32143 net.cpp:382] conv1 -> conv1
I0428 20:11:48.731215 32143 net.cpp:124] Setting up conv1
I0428 20:11:48.731232 32143 net.cpp:131] Top shape: 64 50 8 8 (204800)
I0428 20:11:48.731236 32143 net.cpp:139] Memory required for data: 5628160
I0428 20:11:48.731247 32143 layer_factory.hpp:77] Creating layer pool1
I0428 20:11:48.731256 32143 net.cpp:86] Creating Layer pool1
I0428 20:11:48.731261 32143 net.cpp:408] pool1 <- conv1
I0428 20:11:48.731266 32143 net.cpp:382] pool1 -> pool1
I0428 20:11:48.731313 32143 net.cpp:124] Setting up pool1
I0428 20:11:48.731322 32143 net.cpp:131] Top shape: 64 50 4 4 (51200)
I0428 20:11:48.731325 32143 net.cpp:139] Memory required for data: 5832960
I0428 20:11:48.731328 32143 layer_factory.hpp:77] Creating layer ip1
I0428 20:11:48.731338 32143 net.cpp:86] Creating Layer ip1
I0428 20:11:48.731340 32143 net.cpp:408] ip1 <- pool1
I0428 20:11:48.731346 32143 net.cpp:382] ip1 -> ip1
I0428 20:11:48.731739 32143 net.cpp:124] Setting up ip1
I0428 20:11:48.731747 32143 net.cpp:131] Top shape: 64 50 (3200)
I0428 20:11:48.731751 32143 net.cpp:139] Memory required for data: 5845760
I0428 20:11:48.731760 32143 layer_factory.hpp:77] Creating layer relu1
I0428 20:11:48.731765 32143 net.cpp:86] Creating Layer relu1
I0428 20:11:48.731770 32143 net.cpp:408] relu1 <- ip1
I0428 20:11:48.731775 32143 net.cpp:369] relu1 -> ip1 (in-place)
I0428 20:11:48.731973 32143 net.cpp:124] Setting up relu1
I0428 20:11:48.731983 32143 net.cpp:131] Top shape: 64 50 (3200)
I0428 20:11:48.731987 32143 net.cpp:139] Memory required for data: 5858560
I0428 20:11:48.731990 32143 layer_factory.hpp:77] Creating layer ip2
I0428 20:11:48.731998 32143 net.cpp:86] Creating Layer ip2
I0428 20:11:48.732002 32143 net.cpp:408] ip2 <- ip1
I0428 20:11:48.732007 32143 net.cpp:382] ip2 -> ip2
I0428 20:11:48.733160 32143 net.cpp:124] Setting up ip2
I0428 20:11:48.733175 32143 net.cpp:131] Top shape: 64 50 (3200)
I0428 20:11:48.733178 32143 net.cpp:139] Memory required for data: 5871360
I0428 20:11:48.733186 32143 layer_factory.hpp:77] Creating layer relu2
I0428 20:11:48.733194 32143 net.cpp:86] Creating Layer relu2
I0428 20:11:48.733198 32143 net.cpp:408] relu2 <- ip2
I0428 20:11:48.733207 32143 net.cpp:369] relu2 -> ip2 (in-place)
I0428 20:11:48.734060 32143 net.cpp:124] Setting up relu2
I0428 20:11:48.734074 32143 net.cpp:131] Top shape: 64 50 (3200)
I0428 20:11:48.734078 32143 net.cpp:139] Memory required for data: 5884160
I0428 20:11:48.734082 32143 layer_factory.hpp:77] Creating layer ip3
I0428 20:11:48.734091 32143 net.cpp:86] Creating Layer ip3
I0428 20:11:48.734094 32143 net.cpp:408] ip3 <- ip2
I0428 20:11:48.734102 32143 net.cpp:382] ip3 -> ip3
I0428 20:11:48.734221 32143 net.cpp:124] Setting up ip3
I0428 20:11:48.734230 32143 net.cpp:131] Top shape: 64 10 (640)
I0428 20:11:48.734233 32143 net.cpp:139] Memory required for data: 5886720
I0428 20:11:48.734244 32143 layer_factory.hpp:77] Creating layer relu3
I0428 20:11:48.734251 32143 net.cpp:86] Creating Layer relu3
I0428 20:11:48.734256 32143 net.cpp:408] relu3 <- ip3
I0428 20:11:48.734261 32143 net.cpp:369] relu3 -> ip3 (in-place)
I0428 20:11:48.734458 32143 net.cpp:124] Setting up relu3
I0428 20:11:48.734468 32143 net.cpp:131] Top shape: 64 10 (640)
I0428 20:11:48.734472 32143 net.cpp:139] Memory required for data: 5889280
I0428 20:11:48.734475 32143 layer_factory.hpp:77] Creating layer loss
I0428 20:11:48.734483 32143 net.cpp:86] Creating Layer loss
I0428 20:11:48.734495 32143 net.cpp:408] loss <- ip3
I0428 20:11:48.734500 32143 net.cpp:408] loss <- label
I0428 20:11:48.734506 32143 net.cpp:382] loss -> loss
I0428 20:11:48.734527 32143 layer_factory.hpp:77] Creating layer loss
…
I0428 20:11:48.735270 32143 solver.cpp:173] Creating test net (#0) specified by net file: ECE595/mnist/train_test/var_everything2/lenet_train_test1167.prototxt
I0428 20:11:48.735301 32143 net.cpp:296] The NetState phase (1) differed from the phase (0) specified by a rule in layer mnist
I0428 20:11:48.735406 32143 net.cpp:53] Initializing net from parameters: 
name: "LeNet"
state {
  phase: TEST
}
layer {
  name: "mnist"
  type: "Data"
  top: "data"
  top: "label"
  include {
    phase: TEST
  }
  transform_param {
    scale: 0.00390625
  }
  data_param {
    source: "examples/mnist/mnist_test_lmdb"
    batch_size: 100
    backend: LMDB
  }
}
layer {
  name: "conv0"
  type: "Convolution"
  bottom: "data"
  top: "conv0"
  param {
    lr_mult: 1
  }
  param {
    lr_mult: 2
  }
  convolution_param {
    num_output: 25
    kernel_size: 5
    stride: 1
    weight_filler {
      type: "xavier"
    }
    bias_filler {
      type: "constant"
    }
  }
}
layer {
  name: "pool0"
  type: "Pooling"
  bottom: "conv0"
  top: "pool0"
  pooling_param {
    pool: MAX
    kernel_size: 2
    stride: 2
  }
}
layer {
  name: "conv1"
  type: "Convolution"
  bottom: "pool0"
  top: "conv1"
  param {
    lr_mult: 1
  }
  param {
    lr_mult: 2
  }
  convolution_param {
    num_output: 50
    kernel_size: 5
    stride: 1
    weight_filler {
      type: "xavier"
    }
    bias_filler {
      type: "constant"
    }
  }
}
layer {
  name: "pool1"
  type: "Pooling"
  bottom: "conv1"
  top: "pool1"
  pooling_param {
    pool: MAX
    kernel_size: 2
    stride: 2
  }
}
layer {
  name: "ip1"
  type: "InnerProduct"
  bottom: "pool1"
  top: "ip1"
  param {
    lr_mult: 1
  }
  param {
    lr_mult: 2
  }
  inner_product_param {
    num_output: 50
    weight_filler {
      type: "xavier"
    }
    bias_filler {
      type: "constant"
    }
  }
}
layer {
  name: "relu1"
  type: "ReLU"
  bottom: "ip1"
  top: "ip1"
}
layer {
  name: "ip2"
  type: "InnerProduct"
  bottom: "ip1"
  top: "ip2"
  param {
    lr_mult: 1
  }
  param {
    lr_mult: 2
  }
  inner_product_param {
    num_output: 50
    weight_filler {
      type: "xavier"
    }
    bias_filler {
      type: "constant"
    }
  }
}
layer {
  name: "relu2"
  type: "ReLU"
  bottom: "ip2"
  top: "ip2"
}
layer {
  name: "ip3"
  type: "InnerProduct"
  bottom: "ip2"
  top: "ip3"
  param {
    lr_mult: 1
  }
  param {
    lr_mult: 2
  }
  inner_product_param {
    num_output: 10
    weight_filler {
      type: "xavier"
    }
    bias_filler {
      type: "constant"
    }
  }
}
layer {
  name: "relu3"
  type: "ReLU"
  bottom: "ip3"
  top: "ip3"
}
layer {
  name: "accuracy"
  type: "Accuracy"
  bottom: "ip3"
  bottom: "label"
  top: "accuracy"
  include {
    phase: TEST
  }
}
layer {
  name: "loss"
  type: "SoftmaxWithLoss"
  bottom: "ip3"
  bottom: "label"
  top: "loss"
}
I0428 20:11:48.735502 32143 layer_factory.hpp:77] Creating layer mnist
I0428 20:11:48.735554 32143 db_lmdb.cpp:35] Opened lmdb examples/mnist/mnist_test_lmdb
I0428 20:11:48.735569 32143 net.cpp:86] Creating Layer mnist
I0428 20:11:48.735574 32143 net.cpp:382] mnist -> data
I0428 20:11:48.735584 32143 net.cpp:382] mnist -> label
I0428 20:11:48.735685 32143 data_layer.cpp:45] output data size: 100,1,28,28
I0428 20:11:48.737886 32143 net.cpp:124] Setting up mnist
I0428 20:11:48.737902 32143 net.cpp:131] Top shape: 100 1 28 28 (78400)
I0428 20:11:48.737908 32143 net.cpp:131] Top shape: 100 (100)
I0428 20:11:48.737912 32143 net.cpp:139] Memory required for data: 314000
I0428 20:11:48.737917 32143 layer_factory.hpp:77] Creating layer label_mnist_1_split
I0428 20:11:48.737926 32143 net.cpp:86] Creating Layer label_mnist_1_split
I0428 20:11:48.737929 32143 net.cpp:408] label_mnist_1_split <- label
I0428 20:11:48.737936 32143 net.cpp:382] label_mnist_1_split -> label_mnist_1_split_0
I0428 20:11:48.737943 32143 net.cpp:382] label_mnist_1_split -> label_mnist_1_split_1
I0428 20:11:48.738001 32143 net.cpp:124] Setting up label_mnist_1_split
I0428 20:11:48.738019 32143 net.cpp:131] Top shape: 100 (100)
I0428 20:11:48.738023 32143 net.cpp:131] Top shape: 100 (100)
I0428 20:11:48.738028 32143 net.cpp:139] Memory required for data: 314800
I0428 20:11:48.738031 32143 layer_factory.hpp:77] Creating layer conv0
I0428 20:11:48.738041 32143 net.cpp:86] Creating Layer conv0
I0428 20:11:48.738046 32143 net.cpp:408] conv0 <- data
I0428 20:11:48.738052 32143 net.cpp:382] conv0 -> conv0
I0428 20:11:48.739953 32143 net.cpp:124] Setting up conv0
I0428 20:11:48.739969 32143 net.cpp:131] Top shape: 100 25 24 24 (1440000)
I0428 20:11:48.739974 32143 net.cpp:139] Memory required for data: 6074800
I0428 20:11:48.739984 32143 layer_factory.hpp:77] Creating layer pool0
I0428 20:11:48.739991 32143 net.cpp:86] Creating Layer pool0
I0428 20:11:48.739996 32143 net.cpp:408] pool0 <- conv0
I0428 20:11:48.740001 32143 net.cpp:382] pool0 -> pool0
I0428 20:11:48.740043 32143 net.cpp:124] Setting up pool0
I0428 20:11:48.740051 32143 net.cpp:131] Top shape: 100 25 12 12 (360000)
I0428 20:11:48.740056 32143 net.cpp:139] Memory required for data: 7514800
I0428 20:11:48.740059 32143 layer_factory.hpp:77] Creating layer conv1
I0428 20:11:48.740069 32143 net.cpp:86] Creating Layer conv1
I0428 20:11:48.740074 32143 net.cpp:408] conv1 <- pool0
I0428 20:11:48.740080 32143 net.cpp:382] conv1 -> conv1
I0428 20:11:48.741987 32143 net.cpp:124] Setting up conv1
I0428 20:11:48.742004 32143 net.cpp:131] Top shape: 100 50 8 8 (320000)
I0428 20:11:48.742009 32143 net.cpp:139] Memory required for data: 8794800
I0428 20:11:48.742019 32143 layer_factory.hpp:77] Creating layer pool1
I0428 20:11:48.742027 32143 net.cpp:86] Creating Layer pool1
I0428 20:11:48.742032 32143 net.cpp:408] pool1 <- conv1
I0428 20:11:48.742038 32143 net.cpp:382] pool1 -> pool1
I0428 20:11:48.742089 32143 net.cpp:124] Setting up pool1
I0428 20:11:48.742110 32143 net.cpp:131] Top shape: 100 50 4 4 (80000)
I0428 20:11:48.742115 32143 net.cpp:139] Memory required for data: 9114800
I0428 20:11:48.742127 32143 layer_factory.hpp:77] Creating layer ip1
I0428 20:11:48.742135 32143 net.cpp:86] Creating Layer ip1
I0428 20:11:48.742138 32143 net.cpp:408] ip1 <- pool1
I0428 20:11:48.742144 32143 net.cpp:382] ip1 -> ip1
I0428 20:11:48.742554 32143 net.cpp:124] Setting up ip1
I0428 20:11:48.742564 32143 net.cpp:131] Top shape: 100 50 (5000)
I0428 20:11:48.742579 32143 net.cpp:139] Memory required for data: 9134800
I0428 20:11:48.742589 32143 layer_factory.hpp:77] Creating layer relu1
I0428 20:11:48.742595 32143 net.cpp:86] Creating Layer relu1
I0428 20:11:48.742599 32143 net.cpp:408] relu1 <- ip1
I0428 20:11:48.742604 32143 net.cpp:369] relu1 -> ip1 (in-place)
I0428 20:11:48.742867 32143 net.cpp:124] Setting up relu1
I0428 20:11:48.742878 32143 net.cpp:131] Top shape: 100 50 (5000)
I0428 20:11:48.742883 32143 net.cpp:139] Memory required for data: 9154800
I0428 20:11:48.742887 32143 layer_factory.hpp:77] Creating layer ip2
I0428 20:11:48.742895 32143 net.cpp:86] Creating Layer ip2
I0428 20:11:48.742899 32143 net.cpp:408] ip2 <- ip1
I0428 20:11:48.742907 32143 net.cpp:382] ip2 -> ip2
I0428 20:11:48.743046 32143 net.cpp:124] Setting up ip2
I0428 20:11:48.743055 32143 net.cpp:131] Top shape: 100 50 (5000)
I0428 20:11:48.743060 32143 net.cpp:139] Memory required for data: 9174800
I0428 20:11:48.743067 32143 layer_factory.hpp:77] Creating layer relu2
I0428 20:11:48.743073 32143 net.cpp:86] Creating Layer relu2
I0428 20:11:48.743077 32143 net.cpp:408] relu2 <- ip2
I0428 20:11:48.743083 32143 net.cpp:369] relu2 -> ip2 (in-place)
I0428 20:11:48.743258 32143 net.cpp:124] Setting up relu2
I0428 20:11:48.743268 32143 net.cpp:131] Top shape: 100 50 (5000)
I0428 20:11:48.743271 32143 net.cpp:139] Memory required for data: 9194800
I0428 20:11:48.743275 32143 layer_factory.hpp:77] Creating layer ip3
I0428 20:11:48.743283 32143 net.cpp:86] Creating Layer ip3
I0428 20:11:48.743286 32143 net.cpp:408] ip3 <- ip2
I0428 20:11:48.743293 32143 net.cpp:382] ip3 -> ip3
I0428 20:11:48.743408 32143 net.cpp:124] Setting up ip3
I0428 20:11:48.743417 32143 net.cpp:131] Top shape: 100 10 (1000)
I0428 20:11:48.743420 32143 net.cpp:139] Memory required for data: 9198800
I0428 20:11:48.743429 32143 layer_factory.hpp:77] Creating layer relu3
I0428 20:11:48.743436 32143 net.cpp:86] Creating Layer relu3
I0428 20:11:48.743439 32143 net.cpp:408] relu3 <- ip3
I0428 20:11:48.743444 32143 net.cpp:369] relu3 -> ip3 (in-place)
I0428 20:11:48.744366 32143 net.cpp:124] Setting up relu3
I0428 20:11:48.744382 32143 net.cpp:131] Top shape: 100 10 (1000)
I0428 20:11:48.744386 32143 net.cpp:139] Memory required for data: 9202800
I0428 20:11:48.744390 32143 layer_factory.hpp:77] Creating layer ip3_relu3_0_split
I0428 20:11:48.744397 32143 net.cpp:86] Creating Layer ip3_relu3_0_split
I0428 20:11:48.744401 32143 net.cpp:408] ip3_relu3_0_split <- ip3
I0428 20:11:48.744408 32143 net.cpp:382] ip3_relu3_0_split -> ip3_relu3_0_split_0
I0428 20:11:48.744415 32143 net.cpp:382] ip3_relu3_0_split -> ip3_relu3_0_split_1
I0428 20:11:48.744472 32143 net.cpp:124] Setting up ip3_relu3_0_split
I0428 20:11:48.744480 32143 net.cpp:131] Top shape: 100 10 (1000)
I0428 20:11:48.744484 32143 net.cpp:131] Top shape: 100 10 (1000)
I0428 20:11:48.744488 32143 net.cpp:139] Memory required for data: 9210800
I0428 20:11:48.744491 32143 layer_factory.hpp:77] Creating layer accuracy
I0428 20:11:48.744498 32143 net.cpp:86] Creating Layer accuracy
I0428 20:11:48.744501 32143 net.cpp:408] accuracy <- ip3_relu3_0_split_0
I0428 20:11:48.744508 32143 net.cpp:408] accuracy <- label_mnist_1_split_0
I0428 20:11:48.744513 32143 net.cpp:382] accuracy -> accuracy
…
