…
I0428 20:21:18.248579  1729 net.cpp:296] The NetState phase (0) differed from the phase (1) specified by a rule in layer mnist
I0428 20:21:18.248598  1729 net.cpp:296] The NetState phase (0) differed from the phase (1) specified by a rule in layer accuracy
I0428 20:21:18.248702  1729 net.cpp:53] Initializing net from parameters: 
name: "LeNet"
state {
  phase: TRAIN
  level: 0
  stage: ""
}
layer {
  name: "mnist"
  type: "Data"
  top: "data"
  top: "label"
  include {
    phase: TRAIN
  }
  transform_param {
    scale: 0.00390625
  }
  data_param {
    source: "examples/mnist/mnist_train_lmdb"
    batch_size: 64
    backend: LMDB
  }
}
layer {
  name: "conv0"
  type: "Convolution"
  bottom: "data"
  top: "conv0"
  param {
    lr_mult: 1
  }
  param {
    lr_mult: 2
  }
  convolution_param {
    num_output: 50
    kernel_size: 5
    stride: 1
    weight_filler {
      type: "xavier"
    }
    bias_filler {
      type: "constant"
    }
  }
}
layer {
  name: "pool0"
  type: "Pooling"
  bottom: "conv0"
  top: "pool0"
  pooling_param {
    pool: MAX
    kernel_size: 2
    stride: 2
  }
}
layer {
  name: "conv1"
  type: "Convolution"
  bottom: "pool0"
  top: "conv1"
  param {
    lr_mult: 1
  }
  param {
    lr_mult: 2
  }
  convolution_param {
    num_output: 50
    kernel_size: 5
    stride: 1
    weight_filler {
      type: "xavier"
    }
    bias_filler {
      type: "constant"
    }
  }
}
layer {
  name: "pool1"
  type: "Pooling"
  bottom: "conv1"
  top: "pool1"
  pooling_param {
    pool: MAX
    kernel_size: 2
    stride: 2
  }
}
layer {
  name: "ip1"
  type: "InnerProduct"
  bottom: "pool1"
  top: "ip1"
  param {
    lr_mult: 1
  }
  param {
    lr_mult: 2
  }
  inner_product_param {
    num_output: 10
    weight_filler {
      type: "xavier"
    }
    bias_filler {
      type: "constant"
    }
  }
}
layer {
  name: "relu1"
  type: "ReLU"
  bottom: "ip1"
  top: "ip1"
}
layer {
  name: "ip2"
  type: "InnerProduct"
  bottom: "ip1"
  top: "ip2"
  param {
    lr_mult: 1
  }
  param {
    lr_mult: 2
  }
  inner_product_param {
    num_output: 25
    weight_filler {
      type: "xavier"
    }
    bias_filler {
      type: "constant"
    }
  }
}
layer {
  name: "relu2"
  type: "ReLU"
  bottom: "ip2"
  top: "ip2"
}
layer {
  name: "ip3"
  type: "InnerProduct"
  bottom: "ip2"
  top: "ip3"
  param {
    lr_mult: 1
  }
  param {
    lr_mult: 2
  }
  inner_product_param {
    num_output: 10
    weight_filler {
      type: "xavier"
    }
    bias_filler {
      type: "constant"
    }
  }
}
layer {
  name: "relu3"
  type: "ReLU"
  bottom: "ip3"
  top: "ip3"
}
layer {
  name: "loss"
  type: "SoftmaxWithLoss"
  bottom: "ip3"
  bottom: "label"
  top: "loss"
}
I0428 20:21:18.248785  1729 layer_factory.hpp:77] Creating layer mnist
I0428 20:21:18.248904  1729 db_lmdb.cpp:35] Opened lmdb examples/mnist/mnist_train_lmdb
I0428 20:21:18.248929  1729 net.cpp:86] Creating Layer mnist
I0428 20:21:18.248939  1729 net.cpp:382] mnist -> data
I0428 20:21:18.248961  1729 net.cpp:382] mnist -> label
I0428 20:21:18.250051  1729 data_layer.cpp:45] output data size: 64,1,28,28
I0428 20:21:18.252502  1729 net.cpp:124] Setting up mnist
I0428 20:21:18.252521  1729 net.cpp:131] Top shape: 64 1 28 28 (50176)
I0428 20:21:18.252527  1729 net.cpp:131] Top shape: 64 (64)
I0428 20:21:18.252532  1729 net.cpp:139] Memory required for data: 200960
I0428 20:21:18.252537  1729 layer_factory.hpp:77] Creating layer conv0
I0428 20:21:18.252555  1729 net.cpp:86] Creating Layer conv0
I0428 20:21:18.252575  1729 net.cpp:408] conv0 <- data
I0428 20:21:18.252590  1729 net.cpp:382] conv0 -> conv0
I0428 20:21:18.540715  1729 net.cpp:124] Setting up conv0
I0428 20:21:18.540743  1729 net.cpp:131] Top shape: 64 50 24 24 (1843200)
I0428 20:21:18.540748  1729 net.cpp:139] Memory required for data: 7573760
I0428 20:21:18.540766  1729 layer_factory.hpp:77] Creating layer pool0
I0428 20:21:18.540779  1729 net.cpp:86] Creating Layer pool0
I0428 20:21:18.540783  1729 net.cpp:408] pool0 <- conv0
I0428 20:21:18.540789  1729 net.cpp:382] pool0 -> pool0
I0428 20:21:18.540856  1729 net.cpp:124] Setting up pool0
I0428 20:21:18.540864  1729 net.cpp:131] Top shape: 64 50 12 12 (460800)
I0428 20:21:18.540877  1729 net.cpp:139] Memory required for data: 9416960
I0428 20:21:18.540881  1729 layer_factory.hpp:77] Creating layer conv1
I0428 20:21:18.540902  1729 net.cpp:86] Creating Layer conv1
I0428 20:21:18.540906  1729 net.cpp:408] conv1 <- pool0
I0428 20:21:18.540911  1729 net.cpp:382] conv1 -> conv1
I0428 20:21:18.543285  1729 net.cpp:124] Setting up conv1
I0428 20:21:18.543300  1729 net.cpp:131] Top shape: 64 50 8 8 (204800)
I0428 20:21:18.543304  1729 net.cpp:139] Memory required for data: 10236160
I0428 20:21:18.543313  1729 layer_factory.hpp:77] Creating layer pool1
I0428 20:21:18.543323  1729 net.cpp:86] Creating Layer pool1
I0428 20:21:18.543328  1729 net.cpp:408] pool1 <- conv1
I0428 20:21:18.543332  1729 net.cpp:382] pool1 -> pool1
I0428 20:21:18.543372  1729 net.cpp:124] Setting up pool1
I0428 20:21:18.543380  1729 net.cpp:131] Top shape: 64 50 4 4 (51200)
I0428 20:21:18.543383  1729 net.cpp:139] Memory required for data: 10440960
I0428 20:21:18.543386  1729 layer_factory.hpp:77] Creating layer ip1
I0428 20:21:18.543393  1729 net.cpp:86] Creating Layer ip1
I0428 20:21:18.543397  1729 net.cpp:408] ip1 <- pool1
I0428 20:21:18.543403  1729 net.cpp:382] ip1 -> ip1
I0428 20:21:18.544440  1729 net.cpp:124] Setting up ip1
I0428 20:21:18.544453  1729 net.cpp:131] Top shape: 64 10 (640)
I0428 20:21:18.544456  1729 net.cpp:139] Memory required for data: 10443520
I0428 20:21:18.544466  1729 layer_factory.hpp:77] Creating layer relu1
I0428 20:21:18.544472  1729 net.cpp:86] Creating Layer relu1
I0428 20:21:18.544476  1729 net.cpp:408] relu1 <- ip1
I0428 20:21:18.544481  1729 net.cpp:369] relu1 -> ip1 (in-place)
I0428 20:21:18.544672  1729 net.cpp:124] Setting up relu1
I0428 20:21:18.544682  1729 net.cpp:131] Top shape: 64 10 (640)
I0428 20:21:18.544684  1729 net.cpp:139] Memory required for data: 10446080
I0428 20:21:18.544688  1729 layer_factory.hpp:77] Creating layer ip2
I0428 20:21:18.544697  1729 net.cpp:86] Creating Layer ip2
I0428 20:21:18.544700  1729 net.cpp:408] ip2 <- ip1
I0428 20:21:18.544705  1729 net.cpp:382] ip2 -> ip2
I0428 20:21:18.544829  1729 net.cpp:124] Setting up ip2
I0428 20:21:18.544837  1729 net.cpp:131] Top shape: 64 25 (1600)
I0428 20:21:18.544847  1729 net.cpp:139] Memory required for data: 10452480
I0428 20:21:18.544853  1729 layer_factory.hpp:77] Creating layer relu2
I0428 20:21:18.544859  1729 net.cpp:86] Creating Layer relu2
I0428 20:21:18.544863  1729 net.cpp:408] relu2 <- ip2
I0428 20:21:18.544869  1729 net.cpp:369] relu2 -> ip2 (in-place)
I0428 20:21:18.545644  1729 net.cpp:124] Setting up relu2
I0428 20:21:18.545655  1729 net.cpp:131] Top shape: 64 25 (1600)
I0428 20:21:18.545660  1729 net.cpp:139] Memory required for data: 10458880
I0428 20:21:18.545662  1729 layer_factory.hpp:77] Creating layer ip3
I0428 20:21:18.545670  1729 net.cpp:86] Creating Layer ip3
I0428 20:21:18.545675  1729 net.cpp:408] ip3 <- ip2
I0428 20:21:18.545680  1729 net.cpp:382] ip3 -> ip3
I0428 20:21:18.545783  1729 net.cpp:124] Setting up ip3
I0428 20:21:18.545801  1729 net.cpp:131] Top shape: 64 10 (640)
I0428 20:21:18.545804  1729 net.cpp:139] Memory required for data: 10461440
I0428 20:21:18.545812  1729 layer_factory.hpp:77] Creating layer relu3
I0428 20:21:18.545819  1729 net.cpp:86] Creating Layer relu3
I0428 20:21:18.545825  1729 net.cpp:408] relu3 <- ip3
I0428 20:21:18.545828  1729 net.cpp:369] relu3 -> ip3 (in-place)
I0428 20:21:18.546020  1729 net.cpp:124] Setting up relu3
I0428 20:21:18.546028  1729 net.cpp:131] Top shape: 64 10 (640)
I0428 20:21:18.546031  1729 net.cpp:139] Memory required for data: 10464000
I0428 20:21:18.546035  1729 layer_factory.hpp:77] Creating layer loss
I0428 20:21:18.546041  1729 net.cpp:86] Creating Layer loss
I0428 20:21:18.546044  1729 net.cpp:408] loss <- ip3
I0428 20:21:18.546048  1729 net.cpp:408] loss <- label
I0428 20:21:18.546053  1729 net.cpp:382] loss -> loss
I0428 20:21:18.546073  1729 layer_factory.hpp:77] Creating layer loss
…
I0428 20:21:18.546743  1729 solver.cpp:173] Creating test net (#0) specified by net file: ECE595/mnist/train_test/var_everything2/lenet_train_test1381.prototxt
I0428 20:21:18.546771  1729 net.cpp:296] The NetState phase (1) differed from the phase (0) specified by a rule in layer mnist
I0428 20:21:18.546864  1729 net.cpp:53] Initializing net from parameters: 
name: "LeNet"
state {
  phase: TEST
}
layer {
  name: "mnist"
  type: "Data"
  top: "data"
  top: "label"
  include {
    phase: TEST
  }
  transform_param {
    scale: 0.00390625
  }
  data_param {
    source: "examples/mnist/mnist_test_lmdb"
    batch_size: 100
    backend: LMDB
  }
}
layer {
  name: "conv0"
  type: "Convolution"
  bottom: "data"
  top: "conv0"
  param {
    lr_mult: 1
  }
  param {
    lr_mult: 2
  }
  convolution_param {
    num_output: 50
    kernel_size: 5
    stride: 1
    weight_filler {
      type: "xavier"
    }
    bias_filler {
      type: "constant"
    }
  }
}
layer {
  name: "pool0"
  type: "Pooling"
  bottom: "conv0"
  top: "pool0"
  pooling_param {
    pool: MAX
    kernel_size: 2
    stride: 2
  }
}
layer {
  name: "conv1"
  type: "Convolution"
  bottom: "pool0"
  top: "conv1"
  param {
    lr_mult: 1
  }
  param {
    lr_mult: 2
  }
  convolution_param {
    num_output: 50
    kernel_size: 5
    stride: 1
    weight_filler {
      type: "xavier"
    }
    bias_filler {
      type: "constant"
    }
  }
}
layer {
  name: "pool1"
  type: "Pooling"
  bottom: "conv1"
  top: "pool1"
  pooling_param {
    pool: MAX
    kernel_size: 2
    stride: 2
  }
}
layer {
  name: "ip1"
  type: "InnerProduct"
  bottom: "pool1"
  top: "ip1"
  param {
    lr_mult: 1
  }
  param {
    lr_mult: 2
  }
  inner_product_param {
    num_output: 10
    weight_filler {
      type: "xavier"
    }
    bias_filler {
      type: "constant"
    }
  }
}
layer {
  name: "relu1"
  type: "ReLU"
  bottom: "ip1"
  top: "ip1"
}
layer {
  name: "ip2"
  type: "InnerProduct"
  bottom: "ip1"
  top: "ip2"
  param {
    lr_mult: 1
  }
  param {
    lr_mult: 2
  }
  inner_product_param {
    num_output: 25
    weight_filler {
      type: "xavier"
    }
    bias_filler {
      type: "constant"
    }
  }
}
layer {
  name: "relu2"
  type: "ReLU"
  bottom: "ip2"
  top: "ip2"
}
layer {
  name: "ip3"
  type: "InnerProduct"
  bottom: "ip2"
  top: "ip3"
  param {
    lr_mult: 1
  }
  param {
    lr_mult: 2
  }
  inner_product_param {
    num_output: 10
    weight_filler {
      type: "xavier"
    }
    bias_filler {
      type: "constant"
    }
  }
}
layer {
  name: "relu3"
  type: "ReLU"
  bottom: "ip3"
  top: "ip3"
}
layer {
  name: "accuracy"
  type: "Accuracy"
  bottom: "ip3"
  bottom: "label"
  top: "accuracy"
  include {
    phase: TEST
  }
}
layer {
  name: "loss"
  type: "SoftmaxWithLoss"
  bottom: "ip3"
  bottom: "label"
  top: "loss"
}
I0428 20:21:18.546948  1729 layer_factory.hpp:77] Creating layer mnist
I0428 20:21:18.546993  1729 db_lmdb.cpp:35] Opened lmdb examples/mnist/mnist_test_lmdb
I0428 20:21:18.547005  1729 net.cpp:86] Creating Layer mnist
I0428 20:21:18.547011  1729 net.cpp:382] mnist -> data
I0428 20:21:18.547019  1729 net.cpp:382] mnist -> label
I0428 20:21:18.547107  1729 data_layer.cpp:45] output data size: 100,1,28,28
I0428 20:21:18.549010  1729 net.cpp:124] Setting up mnist
I0428 20:21:18.549034  1729 net.cpp:131] Top shape: 100 1 28 28 (78400)
I0428 20:21:18.549039  1729 net.cpp:131] Top shape: 100 (100)
I0428 20:21:18.549042  1729 net.cpp:139] Memory required for data: 314000
I0428 20:21:18.549046  1729 layer_factory.hpp:77] Creating layer label_mnist_1_split
I0428 20:21:18.549057  1729 net.cpp:86] Creating Layer label_mnist_1_split
I0428 20:21:18.549059  1729 net.cpp:408] label_mnist_1_split <- label
I0428 20:21:18.549067  1729 net.cpp:382] label_mnist_1_split -> label_mnist_1_split_0
I0428 20:21:18.549073  1729 net.cpp:382] label_mnist_1_split -> label_mnist_1_split_1
I0428 20:21:18.549134  1729 net.cpp:124] Setting up label_mnist_1_split
I0428 20:21:18.549140  1729 net.cpp:131] Top shape: 100 (100)
I0428 20:21:18.549144  1729 net.cpp:131] Top shape: 100 (100)
I0428 20:21:18.549147  1729 net.cpp:139] Memory required for data: 314800
I0428 20:21:18.549150  1729 layer_factory.hpp:77] Creating layer conv0
I0428 20:21:18.549160  1729 net.cpp:86] Creating Layer conv0
I0428 20:21:18.549165  1729 net.cpp:408] conv0 <- data
I0428 20:21:18.549170  1729 net.cpp:382] conv0 -> conv0
I0428 20:21:18.550818  1729 net.cpp:124] Setting up conv0
I0428 20:21:18.550833  1729 net.cpp:131] Top shape: 100 50 24 24 (2880000)
I0428 20:21:18.550837  1729 net.cpp:139] Memory required for data: 11834800
I0428 20:21:18.550846  1729 layer_factory.hpp:77] Creating layer pool0
I0428 20:21:18.550855  1729 net.cpp:86] Creating Layer pool0
I0428 20:21:18.550858  1729 net.cpp:408] pool0 <- conv0
I0428 20:21:18.550863  1729 net.cpp:382] pool0 -> pool0
I0428 20:21:18.550935  1729 net.cpp:124] Setting up pool0
I0428 20:21:18.550942  1729 net.cpp:131] Top shape: 100 50 12 12 (720000)
I0428 20:21:18.550945  1729 net.cpp:139] Memory required for data: 14714800
I0428 20:21:18.550948  1729 layer_factory.hpp:77] Creating layer conv1
I0428 20:21:18.550958  1729 net.cpp:86] Creating Layer conv1
I0428 20:21:18.550962  1729 net.cpp:408] conv1 <- pool0
I0428 20:21:18.550969  1729 net.cpp:382] conv1 -> conv1
I0428 20:21:18.552841  1729 net.cpp:124] Setting up conv1
I0428 20:21:18.552856  1729 net.cpp:131] Top shape: 100 50 8 8 (320000)
I0428 20:21:18.552860  1729 net.cpp:139] Memory required for data: 15994800
I0428 20:21:18.552870  1729 layer_factory.hpp:77] Creating layer pool1
I0428 20:21:18.552877  1729 net.cpp:86] Creating Layer pool1
I0428 20:21:18.552881  1729 net.cpp:408] pool1 <- conv1
I0428 20:21:18.552886  1729 net.cpp:382] pool1 -> pool1
I0428 20:21:18.552924  1729 net.cpp:124] Setting up pool1
I0428 20:21:18.552932  1729 net.cpp:131] Top shape: 100 50 4 4 (80000)
I0428 20:21:18.552934  1729 net.cpp:139] Memory required for data: 16314800
I0428 20:21:18.552937  1729 layer_factory.hpp:77] Creating layer ip1
I0428 20:21:18.552944  1729 net.cpp:86] Creating Layer ip1
I0428 20:21:18.552947  1729 net.cpp:408] ip1 <- pool1
I0428 20:21:18.552953  1729 net.cpp:382] ip1 -> ip1
I0428 20:21:18.553110  1729 net.cpp:124] Setting up ip1
I0428 20:21:18.553117  1729 net.cpp:131] Top shape: 100 10 (1000)
I0428 20:21:18.553131  1729 net.cpp:139] Memory required for data: 16318800
I0428 20:21:18.553139  1729 layer_factory.hpp:77] Creating layer relu1
I0428 20:21:18.553158  1729 net.cpp:86] Creating Layer relu1
I0428 20:21:18.553160  1729 net.cpp:408] relu1 <- ip1
I0428 20:21:18.553165  1729 net.cpp:369] relu1 -> ip1 (in-place)
I0428 20:21:18.553395  1729 net.cpp:124] Setting up relu1
I0428 20:21:18.553405  1729 net.cpp:131] Top shape: 100 10 (1000)
I0428 20:21:18.553418  1729 net.cpp:139] Memory required for data: 16322800
I0428 20:21:18.553421  1729 layer_factory.hpp:77] Creating layer ip2
I0428 20:21:18.553431  1729 net.cpp:86] Creating Layer ip2
I0428 20:21:18.553434  1729 net.cpp:408] ip2 <- ip1
I0428 20:21:18.553441  1729 net.cpp:382] ip2 -> ip2
I0428 20:21:18.553552  1729 net.cpp:124] Setting up ip2
I0428 20:21:18.553560  1729 net.cpp:131] Top shape: 100 25 (2500)
I0428 20:21:18.553563  1729 net.cpp:139] Memory required for data: 16332800
I0428 20:21:18.553568  1729 layer_factory.hpp:77] Creating layer relu2
I0428 20:21:18.553573  1729 net.cpp:86] Creating Layer relu2
I0428 20:21:18.553581  1729 net.cpp:408] relu2 <- ip2
I0428 20:21:18.553586  1729 net.cpp:369] relu2 -> ip2 (in-place)
I0428 20:21:18.553768  1729 net.cpp:124] Setting up relu2
I0428 20:21:18.553776  1729 net.cpp:131] Top shape: 100 25 (2500)
I0428 20:21:18.553781  1729 net.cpp:139] Memory required for data: 16342800
I0428 20:21:18.553783  1729 layer_factory.hpp:77] Creating layer ip3
I0428 20:21:18.553788  1729 net.cpp:86] Creating Layer ip3
I0428 20:21:18.553791  1729 net.cpp:408] ip3 <- ip2
I0428 20:21:18.553798  1729 net.cpp:382] ip3 -> ip3
I0428 20:21:18.553912  1729 net.cpp:124] Setting up ip3
I0428 20:21:18.553918  1729 net.cpp:131] Top shape: 100 10 (1000)
I0428 20:21:18.553921  1729 net.cpp:139] Memory required for data: 16346800
I0428 20:21:18.553928  1729 layer_factory.hpp:77] Creating layer relu3
I0428 20:21:18.553933  1729 net.cpp:86] Creating Layer relu3
I0428 20:21:18.553936  1729 net.cpp:408] relu3 <- ip3
I0428 20:21:18.553941  1729 net.cpp:369] relu3 -> ip3 (in-place)
I0428 20:21:18.554692  1729 net.cpp:124] Setting up relu3
I0428 20:21:18.554704  1729 net.cpp:131] Top shape: 100 10 (1000)
I0428 20:21:18.554708  1729 net.cpp:139] Memory required for data: 16350800
I0428 20:21:18.554713  1729 layer_factory.hpp:77] Creating layer ip3_relu3_0_split
I0428 20:21:18.554718  1729 net.cpp:86] Creating Layer ip3_relu3_0_split
I0428 20:21:18.554721  1729 net.cpp:408] ip3_relu3_0_split <- ip3
I0428 20:21:18.554728  1729 net.cpp:382] ip3_relu3_0_split -> ip3_relu3_0_split_0
I0428 20:21:18.554735  1729 net.cpp:382] ip3_relu3_0_split -> ip3_relu3_0_split_1
I0428 20:21:18.554775  1729 net.cpp:124] Setting up ip3_relu3_0_split
I0428 20:21:18.554781  1729 net.cpp:131] Top shape: 100 10 (1000)
I0428 20:21:18.554785  1729 net.cpp:131] Top shape: 100 10 (1000)
I0428 20:21:18.554788  1729 net.cpp:139] Memory required for data: 16358800
I0428 20:21:18.554791  1729 layer_factory.hpp:77] Creating layer accuracy
I0428 20:21:18.554797  1729 net.cpp:86] Creating Layer accuracy
I0428 20:21:18.554800  1729 net.cpp:408] accuracy <- ip3_relu3_0_split_0
I0428 20:21:18.554805  1729 net.cpp:408] accuracy <- label_mnist_1_split_0
I0428 20:21:18.554810  1729 net.cpp:382] accuracy -> accuracy
…
