…
I0428 20:05:08.032444 30543 net.cpp:296] The NetState phase (0) differed from the phase (1) specified by a rule in layer mnist
I0428 20:05:08.032457 30543 net.cpp:296] The NetState phase (0) differed from the phase (1) specified by a rule in layer accuracy
I0428 20:05:08.032531 30543 net.cpp:53] Initializing net from parameters: 
name: "LeNet"
state {
  phase: TRAIN
  level: 0
  stage: ""
}
layer {
  name: "mnist"
  type: "Data"
  top: "data"
  top: "label"
  include {
    phase: TRAIN
  }
  transform_param {
    scale: 0.00390625
  }
  data_param {
    source: "examples/mnist/mnist_train_lmdb"
    batch_size: 64
    backend: LMDB
  }
}
layer {
  name: "conv0"
  type: "Convolution"
  bottom: "data"
  top: "conv0"
  param {
    lr_mult: 1
  }
  param {
    lr_mult: 2
  }
  convolution_param {
    num_output: 25
    kernel_size: 5
    stride: 1
    weight_filler {
      type: "xavier"
    }
    bias_filler {
      type: "constant"
    }
  }
}
layer {
  name: "pool0"
  type: "Pooling"
  bottom: "conv0"
  top: "pool0"
  pooling_param {
    pool: MAX
    kernel_size: 2
    stride: 2
  }
}
layer {
  name: "conv1"
  type: "Convolution"
  bottom: "pool0"
  top: "conv1"
  param {
    lr_mult: 1
  }
  param {
    lr_mult: 2
  }
  convolution_param {
    num_output: 2
    kernel_size: 5
    stride: 1
    weight_filler {
      type: "xavier"
    }
    bias_filler {
      type: "constant"
    }
  }
}
layer {
  name: "pool1"
  type: "Pooling"
  bottom: "conv1"
  top: "pool1"
  pooling_param {
    pool: MAX
    kernel_size: 2
    stride: 2
  }
}
layer {
  name: "ip1"
  type: "InnerProduct"
  bottom: "pool1"
  top: "ip1"
  param {
    lr_mult: 1
  }
  param {
    lr_mult: 2
  }
  inner_product_param {
    num_output: 10
    weight_filler {
      type: "xavier"
    }
    bias_filler {
      type: "constant"
    }
  }
}
layer {
  name: "relu1"
  type: "ReLU"
  bottom: "ip1"
  top: "ip1"
}
layer {
  name: "ip2"
  type: "InnerProduct"
  bottom: "ip1"
  top: "ip2"
  param {
    lr_mult: 1
  }
  param {
    lr_mult: 2
  }
  inner_product_param {
    num_output: 25
    weight_filler {
      type: "xavier"
    }
    bias_filler {
      type: "constant"
    }
  }
}
layer {
  name: "relu2"
  type: "ReLU"
  bottom: "ip2"
  top: "ip2"
}
layer {
  name: "ip3"
  type: "InnerProduct"
  bottom: "ip2"
  top: "ip3"
  param {
    lr_mult: 1
  }
  param {
    lr_mult: 2
  }
  inner_product_param {
    num_output: 10
    weight_filler {
      type: "xavier"
    }
    bias_filler {
      type: "constant"
    }
  }
}
layer {
  name: "relu3"
  type: "ReLU"
  bottom: "ip3"
  top: "ip3"
}
layer {
  name: "loss"
  type: "SoftmaxWithLoss"
  bottom: "ip3"
  bottom: "label"
  top: "loss"
}
I0428 20:05:08.032590 30543 layer_factory.hpp:77] Creating layer mnist
I0428 20:05:08.032670 30543 db_lmdb.cpp:35] Opened lmdb examples/mnist/mnist_train_lmdb
I0428 20:05:08.032690 30543 net.cpp:86] Creating Layer mnist
I0428 20:05:08.032696 30543 net.cpp:382] mnist -> data
I0428 20:05:08.032714 30543 net.cpp:382] mnist -> label
I0428 20:05:08.033746 30543 data_layer.cpp:45] output data size: 64,1,28,28
I0428 20:05:08.035883 30543 net.cpp:124] Setting up mnist
I0428 20:05:08.035912 30543 net.cpp:131] Top shape: 64 1 28 28 (50176)
I0428 20:05:08.035917 30543 net.cpp:131] Top shape: 64 (64)
I0428 20:05:08.035920 30543 net.cpp:139] Memory required for data: 200960
I0428 20:05:08.035926 30543 layer_factory.hpp:77] Creating layer conv0
I0428 20:05:08.035939 30543 net.cpp:86] Creating Layer conv0
I0428 20:05:08.035955 30543 net.cpp:408] conv0 <- data
I0428 20:05:08.035964 30543 net.cpp:382] conv0 -> conv0
I0428 20:05:08.265028 30543 net.cpp:124] Setting up conv0
I0428 20:05:08.265070 30543 net.cpp:131] Top shape: 64 25 24 24 (921600)
I0428 20:05:08.265075 30543 net.cpp:139] Memory required for data: 3887360
I0428 20:05:08.265090 30543 layer_factory.hpp:77] Creating layer pool0
I0428 20:05:08.265102 30543 net.cpp:86] Creating Layer pool0
I0428 20:05:08.265105 30543 net.cpp:408] pool0 <- conv0
I0428 20:05:08.265111 30543 net.cpp:382] pool0 -> pool0
I0428 20:05:08.265182 30543 net.cpp:124] Setting up pool0
I0428 20:05:08.265187 30543 net.cpp:131] Top shape: 64 25 12 12 (230400)
I0428 20:05:08.265192 30543 net.cpp:139] Memory required for data: 4808960
I0428 20:05:08.265193 30543 layer_factory.hpp:77] Creating layer conv1
I0428 20:05:08.265203 30543 net.cpp:86] Creating Layer conv1
I0428 20:05:08.265206 30543 net.cpp:408] conv1 <- pool0
I0428 20:05:08.265211 30543 net.cpp:382] conv1 -> conv1
I0428 20:05:08.267951 30543 net.cpp:124] Setting up conv1
I0428 20:05:08.267982 30543 net.cpp:131] Top shape: 64 2 8 8 (8192)
I0428 20:05:08.267985 30543 net.cpp:139] Memory required for data: 4841728
I0428 20:05:08.267993 30543 layer_factory.hpp:77] Creating layer pool1
I0428 20:05:08.268002 30543 net.cpp:86] Creating Layer pool1
I0428 20:05:08.268004 30543 net.cpp:408] pool1 <- conv1
I0428 20:05:08.268009 30543 net.cpp:382] pool1 -> pool1
I0428 20:05:08.268043 30543 net.cpp:124] Setting up pool1
I0428 20:05:08.268049 30543 net.cpp:131] Top shape: 64 2 4 4 (2048)
I0428 20:05:08.268051 30543 net.cpp:139] Memory required for data: 4849920
I0428 20:05:08.268054 30543 layer_factory.hpp:77] Creating layer ip1
I0428 20:05:08.268060 30543 net.cpp:86] Creating Layer ip1
I0428 20:05:08.268064 30543 net.cpp:408] ip1 <- pool1
I0428 20:05:08.268069 30543 net.cpp:382] ip1 -> ip1
I0428 20:05:08.268169 30543 net.cpp:124] Setting up ip1
I0428 20:05:08.268177 30543 net.cpp:131] Top shape: 64 10 (640)
I0428 20:05:08.268179 30543 net.cpp:139] Memory required for data: 4852480
I0428 20:05:08.268185 30543 layer_factory.hpp:77] Creating layer relu1
I0428 20:05:08.268190 30543 net.cpp:86] Creating Layer relu1
I0428 20:05:08.268193 30543 net.cpp:408] relu1 <- ip1
I0428 20:05:08.268198 30543 net.cpp:369] relu1 -> ip1 (in-place)
I0428 20:05:08.268373 30543 net.cpp:124] Setting up relu1
I0428 20:05:08.268381 30543 net.cpp:131] Top shape: 64 10 (640)
I0428 20:05:08.268384 30543 net.cpp:139] Memory required for data: 4855040
I0428 20:05:08.268388 30543 layer_factory.hpp:77] Creating layer ip2
I0428 20:05:08.268393 30543 net.cpp:86] Creating Layer ip2
I0428 20:05:08.268396 30543 net.cpp:408] ip2 <- ip1
I0428 20:05:08.268400 30543 net.cpp:382] ip2 -> ip2
I0428 20:05:08.268489 30543 net.cpp:124] Setting up ip2
I0428 20:05:08.268496 30543 net.cpp:131] Top shape: 64 25 (1600)
I0428 20:05:08.268498 30543 net.cpp:139] Memory required for data: 4861440
I0428 20:05:08.268503 30543 layer_factory.hpp:77] Creating layer relu2
I0428 20:05:08.268509 30543 net.cpp:86] Creating Layer relu2
I0428 20:05:08.268512 30543 net.cpp:408] relu2 <- ip2
I0428 20:05:08.268515 30543 net.cpp:369] relu2 -> ip2 (in-place)
I0428 20:05:08.269294 30543 net.cpp:124] Setting up relu2
I0428 20:05:08.269322 30543 net.cpp:131] Top shape: 64 25 (1600)
I0428 20:05:08.269326 30543 net.cpp:139] Memory required for data: 4867840
I0428 20:05:08.269330 30543 layer_factory.hpp:77] Creating layer ip3
I0428 20:05:08.269351 30543 net.cpp:86] Creating Layer ip3
I0428 20:05:08.269356 30543 net.cpp:408] ip3 <- ip2
I0428 20:05:08.269376 30543 net.cpp:382] ip3 -> ip3
I0428 20:05:08.269470 30543 net.cpp:124] Setting up ip3
I0428 20:05:08.269479 30543 net.cpp:131] Top shape: 64 10 (640)
I0428 20:05:08.269481 30543 net.cpp:139] Memory required for data: 4870400
I0428 20:05:08.269489 30543 layer_factory.hpp:77] Creating layer relu3
I0428 20:05:08.269493 30543 net.cpp:86] Creating Layer relu3
I0428 20:05:08.269496 30543 net.cpp:408] relu3 <- ip3
I0428 20:05:08.269500 30543 net.cpp:369] relu3 -> ip3 (in-place)
I0428 20:05:08.269680 30543 net.cpp:124] Setting up relu3
I0428 20:05:08.269688 30543 net.cpp:131] Top shape: 64 10 (640)
I0428 20:05:08.269691 30543 net.cpp:139] Memory required for data: 4872960
I0428 20:05:08.269695 30543 layer_factory.hpp:77] Creating layer loss
I0428 20:05:08.269700 30543 net.cpp:86] Creating Layer loss
I0428 20:05:08.269702 30543 net.cpp:408] loss <- ip3
I0428 20:05:08.269706 30543 net.cpp:408] loss <- label
I0428 20:05:08.269711 30543 net.cpp:382] loss -> loss
I0428 20:05:08.269726 30543 layer_factory.hpp:77] Creating layer loss
…
I0428 20:05:08.270314 30543 solver.cpp:173] Creating test net (#0) specified by net file: ECE595/mnist/train_test/var_everything2/lenet_train_test991.prototxt
I0428 20:05:08.270340 30543 net.cpp:296] The NetState phase (1) differed from the phase (0) specified by a rule in layer mnist
I0428 20:05:08.270424 30543 net.cpp:53] Initializing net from parameters: 
name: "LeNet"
state {
  phase: TEST
}
layer {
  name: "mnist"
  type: "Data"
  top: "data"
  top: "label"
  include {
    phase: TEST
  }
  transform_param {
    scale: 0.00390625
  }
  data_param {
    source: "examples/mnist/mnist_test_lmdb"
    batch_size: 100
    backend: LMDB
  }
}
layer {
  name: "conv0"
  type: "Convolution"
  bottom: "data"
  top: "conv0"
  param {
    lr_mult: 1
  }
  param {
    lr_mult: 2
  }
  convolution_param {
    num_output: 25
    kernel_size: 5
    stride: 1
    weight_filler {
      type: "xavier"
    }
    bias_filler {
      type: "constant"
    }
  }
}
layer {
  name: "pool0"
  type: "Pooling"
  bottom: "conv0"
  top: "pool0"
  pooling_param {
    pool: MAX
    kernel_size: 2
    stride: 2
  }
}
layer {
  name: "conv1"
  type: "Convolution"
  bottom: "pool0"
  top: "conv1"
  param {
    lr_mult: 1
  }
  param {
    lr_mult: 2
  }
  convolution_param {
    num_output: 2
    kernel_size: 5
    stride: 1
    weight_filler {
      type: "xavier"
    }
    bias_filler {
      type: "constant"
    }
  }
}
layer {
  name: "pool1"
  type: "Pooling"
  bottom: "conv1"
  top: "pool1"
  pooling_param {
    pool: MAX
    kernel_size: 2
    stride: 2
  }
}
layer {
  name: "ip1"
  type: "InnerProduct"
  bottom: "pool1"
  top: "ip1"
  param {
    lr_mult: 1
  }
  param {
    lr_mult: 2
  }
  inner_product_param {
    num_output: 10
    weight_filler {
      type: "xavier"
    }
    bias_filler {
      type: "constant"
    }
  }
}
layer {
  name: "relu1"
  type: "ReLU"
  bottom: "ip1"
  top: "ip1"
}
layer {
  name: "ip2"
  type: "InnerProduct"
  bottom: "ip1"
  top: "ip2"
  param {
    lr_mult: 1
  }
  param {
    lr_mult: 2
  }
  inner_product_param {
    num_output: 25
    weight_filler {
      type: "xavier"
    }
    bias_filler {
      type: "constant"
    }
  }
}
layer {
  name: "relu2"
  type: "ReLU"
  bottom: "ip2"
  top: "ip2"
}
layer {
  name: "ip3"
  type: "InnerProduct"
  bottom: "ip2"
  top: "ip3"
  param {
    lr_mult: 1
  }
  param {
    lr_mult: 2
  }
  inner_product_param {
    num_output: 10
    weight_filler {
      type: "xavier"
    }
    bias_filler {
      type: "constant"
    }
  }
}
layer {
  name: "relu3"
  type: "ReLU"
  bottom: "ip3"
  top: "ip3"
}
layer {
  name: "accuracy"
  type: "Accuracy"
  bottom: "ip3"
  bottom: "label"
  top: "accuracy"
  include {
    phase: TEST
  }
}
layer {
  name: "loss"
  type: "SoftmaxWithLoss"
  bottom: "ip3"
  bottom: "label"
  top: "loss"
}
I0428 20:05:08.270539 30543 layer_factory.hpp:77] Creating layer mnist
I0428 20:05:08.270581 30543 db_lmdb.cpp:35] Opened lmdb examples/mnist/mnist_test_lmdb
I0428 20:05:08.270609 30543 net.cpp:86] Creating Layer mnist
I0428 20:05:08.270614 30543 net.cpp:382] mnist -> data
I0428 20:05:08.270622 30543 net.cpp:382] mnist -> label
I0428 20:05:08.270709 30543 data_layer.cpp:45] output data size: 100,1,28,28
I0428 20:05:08.272843 30543 net.cpp:124] Setting up mnist
I0428 20:05:08.272872 30543 net.cpp:131] Top shape: 100 1 28 28 (78400)
I0428 20:05:08.272877 30543 net.cpp:131] Top shape: 100 (100)
I0428 20:05:08.272881 30543 net.cpp:139] Memory required for data: 314000
I0428 20:05:08.272886 30543 layer_factory.hpp:77] Creating layer label_mnist_1_split
I0428 20:05:08.272891 30543 net.cpp:86] Creating Layer label_mnist_1_split
I0428 20:05:08.272896 30543 net.cpp:408] label_mnist_1_split <- label
I0428 20:05:08.272899 30543 net.cpp:382] label_mnist_1_split -> label_mnist_1_split_0
I0428 20:05:08.272907 30543 net.cpp:382] label_mnist_1_split -> label_mnist_1_split_1
I0428 20:05:08.272975 30543 net.cpp:124] Setting up label_mnist_1_split
I0428 20:05:08.272980 30543 net.cpp:131] Top shape: 100 (100)
I0428 20:05:08.272984 30543 net.cpp:131] Top shape: 100 (100)
I0428 20:05:08.272987 30543 net.cpp:139] Memory required for data: 314800
I0428 20:05:08.272989 30543 layer_factory.hpp:77] Creating layer conv0
I0428 20:05:08.272997 30543 net.cpp:86] Creating Layer conv0
I0428 20:05:08.273000 30543 net.cpp:408] conv0 <- data
I0428 20:05:08.273005 30543 net.cpp:382] conv0 -> conv0
I0428 20:05:08.274755 30543 net.cpp:124] Setting up conv0
I0428 20:05:08.274767 30543 net.cpp:131] Top shape: 100 25 24 24 (1440000)
I0428 20:05:08.274771 30543 net.cpp:139] Memory required for data: 6074800
I0428 20:05:08.274780 30543 layer_factory.hpp:77] Creating layer pool0
I0428 20:05:08.274785 30543 net.cpp:86] Creating Layer pool0
I0428 20:05:08.274788 30543 net.cpp:408] pool0 <- conv0
I0428 20:05:08.274808 30543 net.cpp:382] pool0 -> pool0
I0428 20:05:08.274857 30543 net.cpp:124] Setting up pool0
I0428 20:05:08.274862 30543 net.cpp:131] Top shape: 100 25 12 12 (360000)
I0428 20:05:08.274864 30543 net.cpp:139] Memory required for data: 7514800
I0428 20:05:08.274868 30543 layer_factory.hpp:77] Creating layer conv1
I0428 20:05:08.274874 30543 net.cpp:86] Creating Layer conv1
I0428 20:05:08.274878 30543 net.cpp:408] conv1 <- pool0
I0428 20:05:08.274883 30543 net.cpp:382] conv1 -> conv1
I0428 20:05:08.277030 30543 net.cpp:124] Setting up conv1
I0428 20:05:08.277045 30543 net.cpp:131] Top shape: 100 2 8 8 (12800)
I0428 20:05:08.277050 30543 net.cpp:139] Memory required for data: 7566000
I0428 20:05:08.277060 30543 layer_factory.hpp:77] Creating layer pool1
I0428 20:05:08.277066 30543 net.cpp:86] Creating Layer pool1
I0428 20:05:08.277070 30543 net.cpp:408] pool1 <- conv1
I0428 20:05:08.277076 30543 net.cpp:382] pool1 -> pool1
I0428 20:05:08.277115 30543 net.cpp:124] Setting up pool1
I0428 20:05:08.277120 30543 net.cpp:131] Top shape: 100 2 4 4 (3200)
I0428 20:05:08.277123 30543 net.cpp:139] Memory required for data: 7578800
I0428 20:05:08.277127 30543 layer_factory.hpp:77] Creating layer ip1
I0428 20:05:08.277132 30543 net.cpp:86] Creating Layer ip1
I0428 20:05:08.277137 30543 net.cpp:408] ip1 <- pool1
I0428 20:05:08.277142 30543 net.cpp:382] ip1 -> ip1
I0428 20:05:08.277281 30543 net.cpp:124] Setting up ip1
I0428 20:05:08.277288 30543 net.cpp:131] Top shape: 100 10 (1000)
I0428 20:05:08.277302 30543 net.cpp:139] Memory required for data: 7582800
I0428 20:05:08.277309 30543 layer_factory.hpp:77] Creating layer relu1
I0428 20:05:08.277314 30543 net.cpp:86] Creating Layer relu1
I0428 20:05:08.277318 30543 net.cpp:408] relu1 <- ip1
I0428 20:05:08.277335 30543 net.cpp:369] relu1 -> ip1 (in-place)
I0428 20:05:08.277572 30543 net.cpp:124] Setting up relu1
I0428 20:05:08.277580 30543 net.cpp:131] Top shape: 100 10 (1000)
I0428 20:05:08.277583 30543 net.cpp:139] Memory required for data: 7586800
I0428 20:05:08.277586 30543 layer_factory.hpp:77] Creating layer ip2
I0428 20:05:08.277600 30543 net.cpp:86] Creating Layer ip2
I0428 20:05:08.277603 30543 net.cpp:408] ip2 <- ip1
I0428 20:05:08.277607 30543 net.cpp:382] ip2 -> ip2
I0428 20:05:08.277700 30543 net.cpp:124] Setting up ip2
I0428 20:05:08.277709 30543 net.cpp:131] Top shape: 100 25 (2500)
I0428 20:05:08.277710 30543 net.cpp:139] Memory required for data: 7596800
I0428 20:05:08.277715 30543 layer_factory.hpp:77] Creating layer relu2
I0428 20:05:08.277720 30543 net.cpp:86] Creating Layer relu2
I0428 20:05:08.277729 30543 net.cpp:408] relu2 <- ip2
I0428 20:05:08.277732 30543 net.cpp:369] relu2 -> ip2 (in-place)
I0428 20:05:08.277887 30543 net.cpp:124] Setting up relu2
I0428 20:05:08.277894 30543 net.cpp:131] Top shape: 100 25 (2500)
I0428 20:05:08.277897 30543 net.cpp:139] Memory required for data: 7606800
I0428 20:05:08.277900 30543 layer_factory.hpp:77] Creating layer ip3
I0428 20:05:08.277905 30543 net.cpp:86] Creating Layer ip3
I0428 20:05:08.277909 30543 net.cpp:408] ip3 <- ip2
I0428 20:05:08.277912 30543 net.cpp:382] ip3 -> ip3
I0428 20:05:08.277995 30543 net.cpp:124] Setting up ip3
I0428 20:05:08.278002 30543 net.cpp:131] Top shape: 100 10 (1000)
I0428 20:05:08.278004 30543 net.cpp:139] Memory required for data: 7610800
I0428 20:05:08.278012 30543 layer_factory.hpp:77] Creating layer relu3
I0428 20:05:08.278028 30543 net.cpp:86] Creating Layer relu3
I0428 20:05:08.278030 30543 net.cpp:408] relu3 <- ip3
I0428 20:05:08.278033 30543 net.cpp:369] relu3 -> ip3 (in-place)
I0428 20:05:08.278861 30543 net.cpp:124] Setting up relu3
I0428 20:05:08.278872 30543 net.cpp:131] Top shape: 100 10 (1000)
I0428 20:05:08.278875 30543 net.cpp:139] Memory required for data: 7614800
I0428 20:05:08.278878 30543 layer_factory.hpp:77] Creating layer ip3_relu3_0_split
I0428 20:05:08.278883 30543 net.cpp:86] Creating Layer ip3_relu3_0_split
I0428 20:05:08.278887 30543 net.cpp:408] ip3_relu3_0_split <- ip3
I0428 20:05:08.278892 30543 net.cpp:382] ip3_relu3_0_split -> ip3_relu3_0_split_0
I0428 20:05:08.278898 30543 net.cpp:382] ip3_relu3_0_split -> ip3_relu3_0_split_1
I0428 20:05:08.278950 30543 net.cpp:124] Setting up ip3_relu3_0_split
I0428 20:05:08.278955 30543 net.cpp:131] Top shape: 100 10 (1000)
I0428 20:05:08.278959 30543 net.cpp:131] Top shape: 100 10 (1000)
I0428 20:05:08.278961 30543 net.cpp:139] Memory required for data: 7622800
I0428 20:05:08.278971 30543 layer_factory.hpp:77] Creating layer accuracy
I0428 20:05:08.278975 30543 net.cpp:86] Creating Layer accuracy
I0428 20:05:08.278978 30543 net.cpp:408] accuracy <- ip3_relu3_0_split_0
I0428 20:05:08.278982 30543 net.cpp:408] accuracy <- label_mnist_1_split_0
I0428 20:05:08.278986 30543 net.cpp:382] accuracy -> accuracy
…
