…
I0428 20:16:09.912456   599 net.cpp:296] The NetState phase (0) differed from the phase (1) specified by a rule in layer mnist
I0428 20:16:09.912472   599 net.cpp:296] The NetState phase (0) differed from the phase (1) specified by a rule in layer accuracy
I0428 20:16:09.912549   599 net.cpp:53] Initializing net from parameters: 
name: "LeNet"
state {
  phase: TRAIN
  level: 0
  stage: ""
}
layer {
  name: "mnist"
  type: "Data"
  top: "data"
  top: "label"
  include {
    phase: TRAIN
  }
  transform_param {
    scale: 0.00390625
  }
  data_param {
    source: "examples/mnist/mnist_train_lmdb"
    batch_size: 64
    backend: LMDB
  }
}
layer {
  name: "conv0"
  type: "Convolution"
  bottom: "data"
  top: "conv0"
  param {
    lr_mult: 1
  }
  param {
    lr_mult: 2
  }
  convolution_param {
    num_output: 50
    kernel_size: 5
    stride: 1
    weight_filler {
      type: "xavier"
    }
    bias_filler {
      type: "constant"
    }
  }
}
layer {
  name: "pool0"
  type: "Pooling"
  bottom: "conv0"
  top: "pool0"
  pooling_param {
    pool: MAX
    kernel_size: 2
    stride: 2
  }
}
layer {
  name: "conv1"
  type: "Convolution"
  bottom: "pool0"
  top: "conv1"
  param {
    lr_mult: 1
  }
  param {
    lr_mult: 2
  }
  convolution_param {
    num_output: 5
    kernel_size: 5
    stride: 1
    weight_filler {
      type: "xavier"
    }
    bias_filler {
      type: "constant"
    }
  }
}
layer {
  name: "pool1"
  type: "Pooling"
  bottom: "conv1"
  top: "pool1"
  pooling_param {
    pool: MAX
    kernel_size: 2
    stride: 2
  }
}
layer {
  name: "ip1"
  type: "InnerProduct"
  bottom: "pool1"
  top: "ip1"
  param {
    lr_mult: 1
  }
  param {
    lr_mult: 2
  }
  inner_product_param {
    num_output: 10
    weight_filler {
      type: "xavier"
    }
    bias_filler {
      type: "constant"
    }
  }
}
layer {
  name: "relu1"
  type: "ReLU"
  bottom: "ip1"
  top: "ip1"
}
layer {
  name: "ip2"
  type: "InnerProduct"
  bottom: "ip1"
  top: "ip2"
  param {
    lr_mult: 1
  }
  param {
    lr_mult: 2
  }
  inner_product_param {
    num_output: 25
    weight_filler {
      type: "xavier"
    }
    bias_filler {
      type: "constant"
    }
  }
}
layer {
  name: "relu2"
  type: "ReLU"
  bottom: "ip2"
  top: "ip2"
}
layer {
  name: "ip3"
  type: "InnerProduct"
  bottom: "ip2"
  top: "ip3"
  param {
    lr_mult: 1
  }
  param {
    lr_mult: 2
  }
  inner_product_param {
    num_output: 10
    weight_filler {
      type: "xavier"
    }
    bias_filler {
      type: "constant"
    }
  }
}
layer {
  name: "relu3"
  type: "ReLU"
  bottom: "ip3"
  top: "ip3"
}
layer {
  name: "loss"
  type: "SoftmaxWithLoss"
  bottom: "ip3"
  bottom: "label"
  top: "loss"
}
I0428 20:16:09.912611   599 layer_factory.hpp:77] Creating layer mnist
I0428 20:16:09.912703   599 db_lmdb.cpp:35] Opened lmdb examples/mnist/mnist_train_lmdb
I0428 20:16:09.912724   599 net.cpp:86] Creating Layer mnist
I0428 20:16:09.912729   599 net.cpp:382] mnist -> data
I0428 20:16:09.912748   599 net.cpp:382] mnist -> label
I0428 20:16:09.913844   599 data_layer.cpp:45] output data size: 64,1,28,28
I0428 20:16:09.916245   599 net.cpp:124] Setting up mnist
I0428 20:16:09.916275   599 net.cpp:131] Top shape: 64 1 28 28 (50176)
I0428 20:16:09.916280   599 net.cpp:131] Top shape: 64 (64)
I0428 20:16:09.916285   599 net.cpp:139] Memory required for data: 200960
I0428 20:16:09.916291   599 layer_factory.hpp:77] Creating layer conv0
I0428 20:16:09.916304   599 net.cpp:86] Creating Layer conv0
I0428 20:16:09.916321   599 net.cpp:408] conv0 <- data
I0428 20:16:09.916332   599 net.cpp:382] conv0 -> conv0
I0428 20:16:10.144898   599 net.cpp:124] Setting up conv0
I0428 20:16:10.144958   599 net.cpp:131] Top shape: 64 50 24 24 (1843200)
I0428 20:16:10.144963   599 net.cpp:139] Memory required for data: 7573760
I0428 20:16:10.144979   599 layer_factory.hpp:77] Creating layer pool0
I0428 20:16:10.144992   599 net.cpp:86] Creating Layer pool0
I0428 20:16:10.144997   599 net.cpp:408] pool0 <- conv0
I0428 20:16:10.145004   599 net.cpp:382] pool0 -> pool0
I0428 20:16:10.145053   599 net.cpp:124] Setting up pool0
I0428 20:16:10.145059   599 net.cpp:131] Top shape: 64 50 12 12 (460800)
I0428 20:16:10.145063   599 net.cpp:139] Memory required for data: 9416960
I0428 20:16:10.145067   599 layer_factory.hpp:77] Creating layer conv1
I0428 20:16:10.145079   599 net.cpp:86] Creating Layer conv1
I0428 20:16:10.145083   599 net.cpp:408] conv1 <- pool0
I0428 20:16:10.145089   599 net.cpp:382] conv1 -> conv1
I0428 20:16:10.148054   599 net.cpp:124] Setting up conv1
I0428 20:16:10.148083   599 net.cpp:131] Top shape: 64 5 8 8 (20480)
I0428 20:16:10.148087   599 net.cpp:139] Memory required for data: 9498880
I0428 20:16:10.148098   599 layer_factory.hpp:77] Creating layer pool1
I0428 20:16:10.148106   599 net.cpp:86] Creating Layer pool1
I0428 20:16:10.148109   599 net.cpp:408] pool1 <- conv1
I0428 20:16:10.148115   599 net.cpp:382] pool1 -> pool1
I0428 20:16:10.148169   599 net.cpp:124] Setting up pool1
I0428 20:16:10.148175   599 net.cpp:131] Top shape: 64 5 4 4 (5120)
I0428 20:16:10.148177   599 net.cpp:139] Memory required for data: 9519360
I0428 20:16:10.148180   599 layer_factory.hpp:77] Creating layer ip1
I0428 20:16:10.148190   599 net.cpp:86] Creating Layer ip1
I0428 20:16:10.148195   599 net.cpp:408] ip1 <- pool1
I0428 20:16:10.148200   599 net.cpp:382] ip1 -> ip1
I0428 20:16:10.148319   599 net.cpp:124] Setting up ip1
I0428 20:16:10.148326   599 net.cpp:131] Top shape: 64 10 (640)
I0428 20:16:10.148329   599 net.cpp:139] Memory required for data: 9521920
I0428 20:16:10.148337   599 layer_factory.hpp:77] Creating layer relu1
I0428 20:16:10.148344   599 net.cpp:86] Creating Layer relu1
I0428 20:16:10.148349   599 net.cpp:408] relu1 <- ip1
I0428 20:16:10.148353   599 net.cpp:369] relu1 -> ip1 (in-place)
I0428 20:16:10.148528   599 net.cpp:124] Setting up relu1
I0428 20:16:10.148538   599 net.cpp:131] Top shape: 64 10 (640)
I0428 20:16:10.148542   599 net.cpp:139] Memory required for data: 9524480
I0428 20:16:10.148545   599 layer_factory.hpp:77] Creating layer ip2
I0428 20:16:10.148551   599 net.cpp:86] Creating Layer ip2
I0428 20:16:10.148555   599 net.cpp:408] ip2 <- ip1
I0428 20:16:10.148561   599 net.cpp:382] ip2 -> ip2
I0428 20:16:10.148653   599 net.cpp:124] Setting up ip2
I0428 20:16:10.148659   599 net.cpp:131] Top shape: 64 25 (1600)
I0428 20:16:10.148663   599 net.cpp:139] Memory required for data: 9530880
I0428 20:16:10.148669   599 layer_factory.hpp:77] Creating layer relu2
I0428 20:16:10.148675   599 net.cpp:86] Creating Layer relu2
I0428 20:16:10.148679   599 net.cpp:408] relu2 <- ip2
I0428 20:16:10.148682   599 net.cpp:369] relu2 -> ip2 (in-place)
I0428 20:16:10.149485   599 net.cpp:124] Setting up relu2
I0428 20:16:10.149513   599 net.cpp:131] Top shape: 64 25 (1600)
I0428 20:16:10.149518   599 net.cpp:139] Memory required for data: 9537280
I0428 20:16:10.149520   599 layer_factory.hpp:77] Creating layer ip3
I0428 20:16:10.149541   599 net.cpp:86] Creating Layer ip3
I0428 20:16:10.149545   599 net.cpp:408] ip3 <- ip2
I0428 20:16:10.149564   599 net.cpp:382] ip3 -> ip3
I0428 20:16:10.149682   599 net.cpp:124] Setting up ip3
I0428 20:16:10.149693   599 net.cpp:131] Top shape: 64 10 (640)
I0428 20:16:10.149695   599 net.cpp:139] Memory required for data: 9539840
I0428 20:16:10.149703   599 layer_factory.hpp:77] Creating layer relu3
I0428 20:16:10.149709   599 net.cpp:86] Creating Layer relu3
I0428 20:16:10.149714   599 net.cpp:408] relu3 <- ip3
I0428 20:16:10.149718   599 net.cpp:369] relu3 -> ip3 (in-place)
I0428 20:16:10.149909   599 net.cpp:124] Setting up relu3
I0428 20:16:10.149919   599 net.cpp:131] Top shape: 64 10 (640)
I0428 20:16:10.149922   599 net.cpp:139] Memory required for data: 9542400
I0428 20:16:10.149926   599 layer_factory.hpp:77] Creating layer loss
I0428 20:16:10.149937   599 net.cpp:86] Creating Layer loss
I0428 20:16:10.149941   599 net.cpp:408] loss <- ip3
I0428 20:16:10.149945   599 net.cpp:408] loss <- label
I0428 20:16:10.149950   599 net.cpp:382] loss -> loss
I0428 20:16:10.149963   599 layer_factory.hpp:77] Creating layer loss
…
I0428 20:16:10.150673   599 solver.cpp:173] Creating test net (#0) specified by net file: ECE595/mnist/train_test/var_everything2/lenet_train_test1264.prototxt
I0428 20:16:10.150717   599 net.cpp:296] The NetState phase (1) differed from the phase (0) specified by a rule in layer mnist
I0428 20:16:10.150841   599 net.cpp:53] Initializing net from parameters: 
name: "LeNet"
state {
  phase: TEST
}
layer {
  name: "mnist"
  type: "Data"
  top: "data"
  top: "label"
  include {
    phase: TEST
  }
  transform_param {
    scale: 0.00390625
  }
  data_param {
    source: "examples/mnist/mnist_test_lmdb"
    batch_size: 100
    backend: LMDB
  }
}
layer {
  name: "conv0"
  type: "Convolution"
  bottom: "data"
  top: "conv0"
  param {
    lr_mult: 1
  }
  param {
    lr_mult: 2
  }
  convolution_param {
    num_output: 50
    kernel_size: 5
    stride: 1
    weight_filler {
      type: "xavier"
    }
    bias_filler {
      type: "constant"
    }
  }
}
layer {
  name: "pool0"
  type: "Pooling"
  bottom: "conv0"
  top: "pool0"
  pooling_param {
    pool: MAX
    kernel_size: 2
    stride: 2
  }
}
layer {
  name: "conv1"
  type: "Convolution"
  bottom: "pool0"
  top: "conv1"
  param {
    lr_mult: 1
  }
  param {
    lr_mult: 2
  }
  convolution_param {
    num_output: 5
    kernel_size: 5
    stride: 1
    weight_filler {
      type: "xavier"
    }
    bias_filler {
      type: "constant"
    }
  }
}
layer {
  name: "pool1"
  type: "Pooling"
  bottom: "conv1"
  top: "pool1"
  pooling_param {
    pool: MAX
    kernel_size: 2
    stride: 2
  }
}
layer {
  name: "ip1"
  type: "InnerProduct"
  bottom: "pool1"
  top: "ip1"
  param {
    lr_mult: 1
  }
  param {
    lr_mult: 2
  }
  inner_product_param {
    num_output: 10
    weight_filler {
      type: "xavier"
    }
    bias_filler {
      type: "constant"
    }
  }
}
layer {
  name: "relu1"
  type: "ReLU"
  bottom: "ip1"
  top: "ip1"
}
layer {
  name: "ip2"
  type: "InnerProduct"
  bottom: "ip1"
  top: "ip2"
  param {
    lr_mult: 1
  }
  param {
    lr_mult: 2
  }
  inner_product_param {
    num_output: 25
    weight_filler {
      type: "xavier"
    }
    bias_filler {
      type: "constant"
    }
  }
}
layer {
  name: "relu2"
  type: "ReLU"
  bottom: "ip2"
  top: "ip2"
}
layer {
  name: "ip3"
  type: "InnerProduct"
  bottom: "ip2"
  top: "ip3"
  param {
    lr_mult: 1
  }
  param {
    lr_mult: 2
  }
  inner_product_param {
    num_output: 10
    weight_filler {
      type: "xavier"
    }
    bias_filler {
      type: "constant"
    }
  }
}
layer {
  name: "relu3"
  type: "ReLU"
  bottom: "ip3"
  top: "ip3"
}
layer {
  name: "accuracy"
  type: "Accuracy"
  bottom: "ip3"
  bottom: "label"
  top: "accuracy"
  include {
    phase: TEST
  }
}
layer {
  name: "loss"
  type: "SoftmaxWithLoss"
  bottom: "ip3"
  bottom: "label"
  top: "loss"
}
I0428 20:16:10.150921   599 layer_factory.hpp:77] Creating layer mnist
I0428 20:16:10.150965   599 db_lmdb.cpp:35] Opened lmdb examples/mnist/mnist_test_lmdb
I0428 20:16:10.150979   599 net.cpp:86] Creating Layer mnist
I0428 20:16:10.150984   599 net.cpp:382] mnist -> data
I0428 20:16:10.150992   599 net.cpp:382] mnist -> label
I0428 20:16:10.151075   599 data_layer.cpp:45] output data size: 100,1,28,28
I0428 20:16:10.153163   599 net.cpp:124] Setting up mnist
I0428 20:16:10.153193   599 net.cpp:131] Top shape: 100 1 28 28 (78400)
I0428 20:16:10.153198   599 net.cpp:131] Top shape: 100 (100)
I0428 20:16:10.153203   599 net.cpp:139] Memory required for data: 314000
I0428 20:16:10.153206   599 layer_factory.hpp:77] Creating layer label_mnist_1_split
I0428 20:16:10.153241   599 net.cpp:86] Creating Layer label_mnist_1_split
I0428 20:16:10.153245   599 net.cpp:408] label_mnist_1_split <- label
I0428 20:16:10.153270   599 net.cpp:382] label_mnist_1_split -> label_mnist_1_split_0
I0428 20:16:10.153278   599 net.cpp:382] label_mnist_1_split -> label_mnist_1_split_1
I0428 20:16:10.153323   599 net.cpp:124] Setting up label_mnist_1_split
I0428 20:16:10.153331   599 net.cpp:131] Top shape: 100 (100)
I0428 20:16:10.153334   599 net.cpp:131] Top shape: 100 (100)
I0428 20:16:10.153337   599 net.cpp:139] Memory required for data: 314800
I0428 20:16:10.153340   599 layer_factory.hpp:77] Creating layer conv0
I0428 20:16:10.153349   599 net.cpp:86] Creating Layer conv0
I0428 20:16:10.153353   599 net.cpp:408] conv0 <- data
I0428 20:16:10.153359   599 net.cpp:382] conv0 -> conv0
I0428 20:16:10.155194   599 net.cpp:124] Setting up conv0
I0428 20:16:10.155210   599 net.cpp:131] Top shape: 100 50 24 24 (2880000)
I0428 20:16:10.155213   599 net.cpp:139] Memory required for data: 11834800
I0428 20:16:10.155222   599 layer_factory.hpp:77] Creating layer pool0
I0428 20:16:10.155230   599 net.cpp:86] Creating Layer pool0
I0428 20:16:10.155233   599 net.cpp:408] pool0 <- conv0
I0428 20:16:10.155241   599 net.cpp:382] pool0 -> pool0
I0428 20:16:10.155278   599 net.cpp:124] Setting up pool0
I0428 20:16:10.155284   599 net.cpp:131] Top shape: 100 50 12 12 (720000)
I0428 20:16:10.155287   599 net.cpp:139] Memory required for data: 14714800
I0428 20:16:10.155290   599 layer_factory.hpp:77] Creating layer conv1
I0428 20:16:10.155302   599 net.cpp:86] Creating Layer conv1
I0428 20:16:10.155305   599 net.cpp:408] conv1 <- pool0
I0428 20:16:10.155311   599 net.cpp:382] conv1 -> conv1
I0428 20:16:10.157107   599 net.cpp:124] Setting up conv1
I0428 20:16:10.157124   599 net.cpp:131] Top shape: 100 5 8 8 (32000)
I0428 20:16:10.157129   599 net.cpp:139] Memory required for data: 14842800
I0428 20:16:10.157162   599 layer_factory.hpp:77] Creating layer pool1
I0428 20:16:10.157171   599 net.cpp:86] Creating Layer pool1
I0428 20:16:10.157176   599 net.cpp:408] pool1 <- conv1
I0428 20:16:10.157196   599 net.cpp:382] pool1 -> pool1
I0428 20:16:10.157235   599 net.cpp:124] Setting up pool1
I0428 20:16:10.157264   599 net.cpp:131] Top shape: 100 5 4 4 (8000)
I0428 20:16:10.157274   599 net.cpp:139] Memory required for data: 14874800
I0428 20:16:10.157277   599 layer_factory.hpp:77] Creating layer ip1
I0428 20:16:10.157284   599 net.cpp:86] Creating Layer ip1
I0428 20:16:10.157287   599 net.cpp:408] ip1 <- pool1
I0428 20:16:10.157301   599 net.cpp:382] ip1 -> ip1
I0428 20:16:10.157418   599 net.cpp:124] Setting up ip1
I0428 20:16:10.157426   599 net.cpp:131] Top shape: 100 10 (1000)
I0428 20:16:10.157443   599 net.cpp:139] Memory required for data: 14878800
I0428 20:16:10.157450   599 layer_factory.hpp:77] Creating layer relu1
I0428 20:16:10.157455   599 net.cpp:86] Creating Layer relu1
I0428 20:16:10.157459   599 net.cpp:408] relu1 <- ip1
I0428 20:16:10.157465   599 net.cpp:369] relu1 -> ip1 (in-place)
I0428 20:16:10.157654   599 net.cpp:124] Setting up relu1
I0428 20:16:10.157678   599 net.cpp:131] Top shape: 100 10 (1000)
I0428 20:16:10.157682   599 net.cpp:139] Memory required for data: 14882800
I0428 20:16:10.157686   599 layer_factory.hpp:77] Creating layer ip2
I0428 20:16:10.157696   599 net.cpp:86] Creating Layer ip2
I0428 20:16:10.157699   599 net.cpp:408] ip2 <- ip1
I0428 20:16:10.157704   599 net.cpp:382] ip2 -> ip2
I0428 20:16:10.157809   599 net.cpp:124] Setting up ip2
I0428 20:16:10.157819   599 net.cpp:131] Top shape: 100 25 (2500)
I0428 20:16:10.157821   599 net.cpp:139] Memory required for data: 14892800
I0428 20:16:10.157827   599 layer_factory.hpp:77] Creating layer relu2
I0428 20:16:10.157833   599 net.cpp:86] Creating Layer relu2
I0428 20:16:10.157837   599 net.cpp:408] relu2 <- ip2
I0428 20:16:10.157843   599 net.cpp:369] relu2 -> ip2 (in-place)
I0428 20:16:10.158077   599 net.cpp:124] Setting up relu2
I0428 20:16:10.158092   599 net.cpp:131] Top shape: 100 25 (2500)
I0428 20:16:10.158095   599 net.cpp:139] Memory required for data: 14902800
I0428 20:16:10.158099   599 layer_factory.hpp:77] Creating layer ip3
I0428 20:16:10.158120   599 net.cpp:86] Creating Layer ip3
I0428 20:16:10.158124   599 net.cpp:408] ip3 <- ip2
I0428 20:16:10.158129   599 net.cpp:382] ip3 -> ip3
I0428 20:16:10.158237   599 net.cpp:124] Setting up ip3
I0428 20:16:10.158244   599 net.cpp:131] Top shape: 100 10 (1000)
I0428 20:16:10.158248   599 net.cpp:139] Memory required for data: 14906800
I0428 20:16:10.158257   599 layer_factory.hpp:77] Creating layer relu3
I0428 20:16:10.158262   599 net.cpp:86] Creating Layer relu3
I0428 20:16:10.158267   599 net.cpp:408] relu3 <- ip3
I0428 20:16:10.158270   599 net.cpp:369] relu3 -> ip3 (in-place)
I0428 20:16:10.159142   599 net.cpp:124] Setting up relu3
I0428 20:16:10.159154   599 net.cpp:131] Top shape: 100 10 (1000)
I0428 20:16:10.159158   599 net.cpp:139] Memory required for data: 14910800
I0428 20:16:10.159162   599 layer_factory.hpp:77] Creating layer ip3_relu3_0_split
I0428 20:16:10.159170   599 net.cpp:86] Creating Layer ip3_relu3_0_split
I0428 20:16:10.159174   599 net.cpp:408] ip3_relu3_0_split <- ip3
I0428 20:16:10.159179   599 net.cpp:382] ip3_relu3_0_split -> ip3_relu3_0_split_0
I0428 20:16:10.159191   599 net.cpp:382] ip3_relu3_0_split -> ip3_relu3_0_split_1
I0428 20:16:10.159230   599 net.cpp:124] Setting up ip3_relu3_0_split
I0428 20:16:10.159236   599 net.cpp:131] Top shape: 100 10 (1000)
I0428 20:16:10.159241   599 net.cpp:131] Top shape: 100 10 (1000)
I0428 20:16:10.159245   599 net.cpp:139] Memory required for data: 14918800
I0428 20:16:10.159248   599 layer_factory.hpp:77] Creating layer accuracy
I0428 20:16:10.159255   599 net.cpp:86] Creating Layer accuracy
I0428 20:16:10.159258   599 net.cpp:408] accuracy <- ip3_relu3_0_split_0
I0428 20:16:10.159268   599 net.cpp:408] accuracy <- label_mnist_1_split_0
I0428 20:16:10.159288   599 net.cpp:382] accuracy -> accuracy
…
