…
I0428 19:37:18.286082 23797 net.cpp:296] The NetState phase (0) differed from the phase (1) specified by a rule in layer mnist
I0428 19:37:18.286104 23797 net.cpp:296] The NetState phase (0) differed from the phase (1) specified by a rule in layer accuracy
I0428 19:37:18.286202 23797 net.cpp:53] Initializing net from parameters: 
name: "LeNet"
state {
  phase: TRAIN
  level: 0
  stage: ""
}
layer {
  name: "mnist"
  type: "Data"
  top: "data"
  top: "label"
  include {
    phase: TRAIN
  }
  transform_param {
    scale: 0.00390625
  }
  data_param {
    source: "examples/mnist/mnist_train_lmdb"
    batch_size: 64
    backend: LMDB
  }
}
layer {
  name: "conv0"
  type: "Convolution"
  bottom: "data"
  top: "conv0"
  param {
    lr_mult: 1
  }
  param {
    lr_mult: 2
  }
  convolution_param {
    num_output: 100
    kernel_size: 5
    stride: 1
    weight_filler {
      type: "xavier"
    }
    bias_filler {
      type: "constant"
    }
  }
}
layer {
  name: "pool0"
  type: "Pooling"
  bottom: "conv0"
  top: "pool0"
  pooling_param {
    pool: MAX
    kernel_size: 2
    stride: 2
  }
}
layer {
  name: "ip1"
  type: "InnerProduct"
  bottom: "pool0"
  top: "ip1"
  param {
    lr_mult: 1
  }
  param {
    lr_mult: 2
  }
  inner_product_param {
    num_output: 25
    weight_filler {
      type: "xavier"
    }
    bias_filler {
      type: "constant"
    }
  }
}
layer {
  name: "relu1"
  type: "ReLU"
  bottom: "ip1"
  top: "ip1"
}
layer {
  name: "ip2"
  type: "InnerProduct"
  bottom: "ip1"
  top: "ip2"
  param {
    lr_mult: 1
  }
  param {
    lr_mult: 2
  }
  inner_product_param {
    num_output: 10
    weight_filler {
      type: "xavier"
    }
    bias_filler {
      type: "constant"
    }
  }
}
layer {
  name: "relu2"
  type: "ReLU"
  bottom: "ip2"
  top: "ip2"
}
layer {
  name: "ip3"
  type: "InnerProduct"
  bottom: "ip2"
  top: "ip3"
  param {
    lr_mult: 1
  }
  param {
    lr_mult: 2
  }
  inner_product_param {
    num_output: 10
    weight_filler {
      type: "xavier"
    }
    bias_filler {
      type: "constant"
    }
  }
}
layer {
  name: "relu3"
  type: "ReLU"
  bottom: "ip3"
  top: "ip3"
}
layer {
  name: "loss"
  type: "SoftmaxWithLoss"
  bottom: "ip3"
  bottom: "label"
  top: "loss"
}
I0428 19:37:18.286309 23797 layer_factory.hpp:77] Creating layer mnist
I0428 19:37:18.286448 23797 db_lmdb.cpp:35] Opened lmdb examples/mnist/mnist_train_lmdb
I0428 19:37:18.286483 23797 net.cpp:86] Creating Layer mnist
I0428 19:37:18.286494 23797 net.cpp:382] mnist -> data
I0428 19:37:18.286526 23797 net.cpp:382] mnist -> label
I0428 19:37:18.287752 23797 data_layer.cpp:45] output data size: 64,1,28,28
I0428 19:37:18.290244 23797 net.cpp:124] Setting up mnist
I0428 19:37:18.290264 23797 net.cpp:131] Top shape: 64 1 28 28 (50176)
I0428 19:37:18.290308 23797 net.cpp:131] Top shape: 64 (64)
I0428 19:37:18.290315 23797 net.cpp:139] Memory required for data: 200960
I0428 19:37:18.290326 23797 layer_factory.hpp:77] Creating layer conv0
I0428 19:37:18.290349 23797 net.cpp:86] Creating Layer conv0
I0428 19:37:18.290359 23797 net.cpp:408] conv0 <- data
I0428 19:37:18.290379 23797 net.cpp:382] conv0 -> conv0
I0428 19:37:18.582114 23797 net.cpp:124] Setting up conv0
I0428 19:37:18.582149 23797 net.cpp:131] Top shape: 64 100 24 24 (3686400)
I0428 19:37:18.582155 23797 net.cpp:139] Memory required for data: 14946560
I0428 19:37:18.582178 23797 layer_factory.hpp:77] Creating layer pool0
I0428 19:37:18.582198 23797 net.cpp:86] Creating Layer pool0
I0428 19:37:18.582228 23797 net.cpp:408] pool0 <- conv0
I0428 19:37:18.582240 23797 net.cpp:382] pool0 -> pool0
I0428 19:37:18.582309 23797 net.cpp:124] Setting up pool0
I0428 19:37:18.582319 23797 net.cpp:131] Top shape: 64 100 12 12 (921600)
I0428 19:37:18.582325 23797 net.cpp:139] Memory required for data: 18632960
I0428 19:37:18.582331 23797 layer_factory.hpp:77] Creating layer ip1
I0428 19:37:18.582345 23797 net.cpp:86] Creating Layer ip1
I0428 19:37:18.582352 23797 net.cpp:408] ip1 <- pool0
I0428 19:37:18.582362 23797 net.cpp:382] ip1 -> ip1
I0428 19:37:18.585764 23797 net.cpp:124] Setting up ip1
I0428 19:37:18.585783 23797 net.cpp:131] Top shape: 64 25 (1600)
I0428 19:37:18.585788 23797 net.cpp:139] Memory required for data: 18639360
I0428 19:37:18.585803 23797 layer_factory.hpp:77] Creating layer relu1
I0428 19:37:18.585816 23797 net.cpp:86] Creating Layer relu1
I0428 19:37:18.585824 23797 net.cpp:408] relu1 <- ip1
I0428 19:37:18.585832 23797 net.cpp:369] relu1 -> ip1 (in-place)
I0428 19:37:18.586028 23797 net.cpp:124] Setting up relu1
I0428 19:37:18.586040 23797 net.cpp:131] Top shape: 64 25 (1600)
I0428 19:37:18.586046 23797 net.cpp:139] Memory required for data: 18645760
I0428 19:37:18.586053 23797 layer_factory.hpp:77] Creating layer ip2
I0428 19:37:18.586066 23797 net.cpp:86] Creating Layer ip2
I0428 19:37:18.586071 23797 net.cpp:408] ip2 <- ip1
I0428 19:37:18.586081 23797 net.cpp:382] ip2 -> ip2
I0428 19:37:18.586199 23797 net.cpp:124] Setting up ip2
I0428 19:37:18.586210 23797 net.cpp:131] Top shape: 64 10 (640)
I0428 19:37:18.586215 23797 net.cpp:139] Memory required for data: 18648320
I0428 19:37:18.586228 23797 layer_factory.hpp:77] Creating layer relu2
I0428 19:37:18.586242 23797 net.cpp:86] Creating Layer relu2
I0428 19:37:18.586249 23797 net.cpp:408] relu2 <- ip2
I0428 19:37:18.586257 23797 net.cpp:369] relu2 -> ip2 (in-place)
I0428 19:37:18.587082 23797 net.cpp:124] Setting up relu2
I0428 19:37:18.587100 23797 net.cpp:131] Top shape: 64 10 (640)
I0428 19:37:18.587110 23797 net.cpp:139] Memory required for data: 18650880
I0428 19:37:18.587116 23797 layer_factory.hpp:77] Creating layer ip3
I0428 19:37:18.587133 23797 net.cpp:86] Creating Layer ip3
I0428 19:37:18.587141 23797 net.cpp:408] ip3 <- ip2
I0428 19:37:18.587152 23797 net.cpp:382] ip3 -> ip3
I0428 19:37:18.587275 23797 net.cpp:124] Setting up ip3
I0428 19:37:18.587285 23797 net.cpp:131] Top shape: 64 10 (640)
I0428 19:37:18.587291 23797 net.cpp:139] Memory required for data: 18653440
I0428 19:37:18.587302 23797 layer_factory.hpp:77] Creating layer relu3
I0428 19:37:18.587313 23797 net.cpp:86] Creating Layer relu3
I0428 19:37:18.587323 23797 net.cpp:408] relu3 <- ip3
I0428 19:37:18.587332 23797 net.cpp:369] relu3 -> ip3 (in-place)
I0428 19:37:18.587517 23797 net.cpp:124] Setting up relu3
I0428 19:37:18.587530 23797 net.cpp:131] Top shape: 64 10 (640)
I0428 19:37:18.587537 23797 net.cpp:139] Memory required for data: 18656000
I0428 19:37:18.587543 23797 layer_factory.hpp:77] Creating layer loss
I0428 19:37:18.587553 23797 net.cpp:86] Creating Layer loss
I0428 19:37:18.587559 23797 net.cpp:408] loss <- ip3
I0428 19:37:18.587566 23797 net.cpp:408] loss <- label
I0428 19:37:18.587576 23797 net.cpp:382] loss -> loss
I0428 19:37:18.587601 23797 layer_factory.hpp:77] Creating layer loss
…
I0428 19:37:18.588356 23797 solver.cpp:173] Creating test net (#0) specified by net file: ECE595/mnist/train_test/var_everything2/lenet_train_test256.prototxt
I0428 19:37:18.588393 23797 net.cpp:296] The NetState phase (1) differed from the phase (0) specified by a rule in layer mnist
I0428 19:37:18.588495 23797 net.cpp:53] Initializing net from parameters: 
name: "LeNet"
state {
  phase: TEST
}
layer {
  name: "mnist"
  type: "Data"
  top: "data"
  top: "label"
  include {
    phase: TEST
  }
  transform_param {
    scale: 0.00390625
  }
  data_param {
    source: "examples/mnist/mnist_test_lmdb"
    batch_size: 100
    backend: LMDB
  }
}
layer {
  name: "conv0"
  type: "Convolution"
  bottom: "data"
  top: "conv0"
  param {
    lr_mult: 1
  }
  param {
    lr_mult: 2
  }
  convolution_param {
    num_output: 100
    kernel_size: 5
    stride: 1
    weight_filler {
      type: "xavier"
    }
    bias_filler {
      type: "constant"
    }
  }
}
layer {
  name: "pool0"
  type: "Pooling"
  bottom: "conv0"
  top: "pool0"
  pooling_param {
    pool: MAX
    kernel_size: 2
    stride: 2
  }
}
layer {
  name: "ip1"
  type: "InnerProduct"
  bottom: "pool0"
  top: "ip1"
  param {
    lr_mult: 1
  }
  param {
    lr_mult: 2
  }
  inner_product_param {
    num_output: 25
    weight_filler {
      type: "xavier"
    }
    bias_filler {
      type: "constant"
    }
  }
}
layer {
  name: "relu1"
  type: "ReLU"
  bottom: "ip1"
  top: "ip1"
}
layer {
  name: "ip2"
  type: "InnerProduct"
  bottom: "ip1"
  top: "ip2"
  param {
    lr_mult: 1
  }
  param {
    lr_mult: 2
  }
  inner_product_param {
    num_output: 10
    weight_filler {
      type: "xavier"
    }
    bias_filler {
      type: "constant"
    }
  }
}
layer {
  name: "relu2"
  type: "ReLU"
  bottom: "ip2"
  top: "ip2"
}
layer {
  name: "ip3"
  type: "InnerProduct"
  bottom: "ip2"
  top: "ip3"
  param {
    lr_mult: 1
  }
  param {
    lr_mult: 2
  }
  inner_product_param {
    num_output: 10
    weight_filler {
      type: "xavier"
    }
    bias_filler {
      type: "constant"
    }
  }
}
layer {
  name: "relu3"
  type: "ReLU"
  bottom: "ip3"
  top: "ip3"
}
layer {
  name: "accuracy"
  type: "Accuracy"
  bottom: "ip3"
  bottom: "label"
  top: "accuracy"
  include {
    phase: TEST
  }
}
layer {
  name: "loss"
  type: "SoftmaxWithLoss"
  bottom: "ip3"
  bottom: "label"
  top: "loss"
}
I0428 19:37:18.588613 23797 layer_factory.hpp:77] Creating layer mnist
I0428 19:37:18.588680 23797 db_lmdb.cpp:35] Opened lmdb examples/mnist/mnist_test_lmdb
I0428 19:37:18.588702 23797 net.cpp:86] Creating Layer mnist
I0428 19:37:18.588711 23797 net.cpp:382] mnist -> data
I0428 19:37:18.588726 23797 net.cpp:382] mnist -> label
I0428 19:37:18.588876 23797 data_layer.cpp:45] output data size: 100,1,28,28
I0428 19:37:18.591341 23797 net.cpp:124] Setting up mnist
I0428 19:37:18.591369 23797 net.cpp:131] Top shape: 100 1 28 28 (78400)
I0428 19:37:18.591382 23797 net.cpp:131] Top shape: 100 (100)
I0428 19:37:18.591388 23797 net.cpp:139] Memory required for data: 314000
I0428 19:37:18.591394 23797 layer_factory.hpp:77] Creating layer label_mnist_1_split
I0428 19:37:18.591406 23797 net.cpp:86] Creating Layer label_mnist_1_split
I0428 19:37:18.591413 23797 net.cpp:408] label_mnist_1_split <- label
I0428 19:37:18.591421 23797 net.cpp:382] label_mnist_1_split -> label_mnist_1_split_0
I0428 19:37:18.591434 23797 net.cpp:382] label_mnist_1_split -> label_mnist_1_split_1
I0428 19:37:18.591552 23797 net.cpp:124] Setting up label_mnist_1_split
I0428 19:37:18.591562 23797 net.cpp:131] Top shape: 100 (100)
I0428 19:37:18.591569 23797 net.cpp:131] Top shape: 100 (100)
I0428 19:37:18.591575 23797 net.cpp:139] Memory required for data: 314800
I0428 19:37:18.591593 23797 layer_factory.hpp:77] Creating layer conv0
I0428 19:37:18.591611 23797 net.cpp:86] Creating Layer conv0
I0428 19:37:18.591619 23797 net.cpp:408] conv0 <- data
I0428 19:37:18.591631 23797 net.cpp:382] conv0 -> conv0
I0428 19:37:18.593384 23797 net.cpp:124] Setting up conv0
I0428 19:37:18.593413 23797 net.cpp:131] Top shape: 100 100 24 24 (5760000)
I0428 19:37:18.593420 23797 net.cpp:139] Memory required for data: 23354800
I0428 19:37:18.593448 23797 layer_factory.hpp:77] Creating layer pool0
I0428 19:37:18.593468 23797 net.cpp:86] Creating Layer pool0
I0428 19:37:18.593482 23797 net.cpp:408] pool0 <- conv0
I0428 19:37:18.593492 23797 net.cpp:382] pool0 -> pool0
I0428 19:37:18.593542 23797 net.cpp:124] Setting up pool0
I0428 19:37:18.593552 23797 net.cpp:131] Top shape: 100 100 12 12 (1440000)
I0428 19:37:18.593559 23797 net.cpp:139] Memory required for data: 29114800
I0428 19:37:18.593564 23797 layer_factory.hpp:77] Creating layer ip1
I0428 19:37:18.593578 23797 net.cpp:86] Creating Layer ip1
I0428 19:37:18.593586 23797 net.cpp:408] ip1 <- pool0
I0428 19:37:18.593595 23797 net.cpp:382] ip1 -> ip1
I0428 19:37:18.596031 23797 net.cpp:124] Setting up ip1
I0428 19:37:18.596042 23797 net.cpp:131] Top shape: 100 25 (2500)
I0428 19:37:18.596060 23797 net.cpp:139] Memory required for data: 29124800
I0428 19:37:18.596082 23797 layer_factory.hpp:77] Creating layer relu1
I0428 19:37:18.596092 23797 net.cpp:86] Creating Layer relu1
I0428 19:37:18.596099 23797 net.cpp:408] relu1 <- ip1
I0428 19:37:18.596109 23797 net.cpp:369] relu1 -> ip1 (in-place)
I0428 19:37:18.596307 23797 net.cpp:124] Setting up relu1
I0428 19:37:18.596318 23797 net.cpp:131] Top shape: 100 25 (2500)
I0428 19:37:18.596338 23797 net.cpp:139] Memory required for data: 29134800
I0428 19:37:18.596344 23797 layer_factory.hpp:77] Creating layer ip2
I0428 19:37:18.596357 23797 net.cpp:86] Creating Layer ip2
I0428 19:37:18.596367 23797 net.cpp:408] ip2 <- ip1
I0428 19:37:18.596379 23797 net.cpp:382] ip2 -> ip2
I0428 19:37:18.596508 23797 net.cpp:124] Setting up ip2
I0428 19:37:18.596518 23797 net.cpp:131] Top shape: 100 10 (1000)
I0428 19:37:18.596524 23797 net.cpp:139] Memory required for data: 29138800
I0428 19:37:18.596539 23797 layer_factory.hpp:77] Creating layer relu2
I0428 19:37:18.596550 23797 net.cpp:86] Creating Layer relu2
I0428 19:37:18.596556 23797 net.cpp:408] relu2 <- ip2
I0428 19:37:18.596565 23797 net.cpp:369] relu2 -> ip2 (in-place)
I0428 19:37:18.597506 23797 net.cpp:124] Setting up relu2
I0428 19:37:18.597522 23797 net.cpp:131] Top shape: 100 10 (1000)
I0428 19:37:18.597527 23797 net.cpp:139] Memory required for data: 29142800
I0428 19:37:18.597533 23797 layer_factory.hpp:77] Creating layer ip3
I0428 19:37:18.597550 23797 net.cpp:86] Creating Layer ip3
I0428 19:37:18.597558 23797 net.cpp:408] ip3 <- ip2
I0428 19:37:18.597570 23797 net.cpp:382] ip3 -> ip3
I0428 19:37:18.597694 23797 net.cpp:124] Setting up ip3
I0428 19:37:18.597704 23797 net.cpp:131] Top shape: 100 10 (1000)
I0428 19:37:18.597710 23797 net.cpp:139] Memory required for data: 29146800
I0428 19:37:18.597720 23797 layer_factory.hpp:77] Creating layer relu3
I0428 19:37:18.597730 23797 net.cpp:86] Creating Layer relu3
I0428 19:37:18.597740 23797 net.cpp:408] relu3 <- ip3
I0428 19:37:18.597748 23797 net.cpp:369] relu3 -> ip3 (in-place)
I0428 19:37:18.597931 23797 net.cpp:124] Setting up relu3
I0428 19:37:18.597942 23797 net.cpp:131] Top shape: 100 10 (1000)
I0428 19:37:18.597949 23797 net.cpp:139] Memory required for data: 29150800
I0428 19:37:18.597954 23797 layer_factory.hpp:77] Creating layer ip3_relu3_0_split
I0428 19:37:18.597964 23797 net.cpp:86] Creating Layer ip3_relu3_0_split
I0428 19:37:18.597970 23797 net.cpp:408] ip3_relu3_0_split <- ip3
I0428 19:37:18.597980 23797 net.cpp:382] ip3_relu3_0_split -> ip3_relu3_0_split_0
I0428 19:37:18.597992 23797 net.cpp:382] ip3_relu3_0_split -> ip3_relu3_0_split_1
I0428 19:37:18.598040 23797 net.cpp:124] Setting up ip3_relu3_0_split
I0428 19:37:18.598057 23797 net.cpp:131] Top shape: 100 10 (1000)
I0428 19:37:18.598075 23797 net.cpp:131] Top shape: 100 10 (1000)
I0428 19:37:18.598081 23797 net.cpp:139] Memory required for data: 29158800
I0428 19:37:18.598088 23797 layer_factory.hpp:77] Creating layer accuracy
I0428 19:37:18.598098 23797 net.cpp:86] Creating Layer accuracy
I0428 19:37:18.598104 23797 net.cpp:408] accuracy <- ip3_relu3_0_split_0
I0428 19:37:18.598112 23797 net.cpp:408] accuracy <- label_mnist_1_split_0
I0428 19:37:18.598120 23797 net.cpp:382] accuracy -> accuracy
…
