…
I0428 20:21:44.176972  1817 net.cpp:296] The NetState phase (0) differed from the phase (1) specified by a rule in layer mnist
I0428 20:21:44.177004  1817 net.cpp:296] The NetState phase (0) differed from the phase (1) specified by a rule in layer accuracy
I0428 20:21:44.177096  1817 net.cpp:53] Initializing net from parameters: 
name: "LeNet"
state {
  phase: TRAIN
  level: 0
  stage: ""
}
layer {
  name: "mnist"
  type: "Data"
  top: "data"
  top: "label"
  include {
    phase: TRAIN
  }
  transform_param {
    scale: 0.00390625
  }
  data_param {
    source: "examples/mnist/mnist_train_lmdb"
    batch_size: 64
    backend: LMDB
  }
}
layer {
  name: "conv0"
  type: "Convolution"
  bottom: "data"
  top: "conv0"
  param {
    lr_mult: 1
  }
  param {
    lr_mult: 2
  }
  convolution_param {
    num_output: 50
    kernel_size: 5
    stride: 1
    weight_filler {
      type: "xavier"
    }
    bias_filler {
      type: "constant"
    }
  }
}
layer {
  name: "pool0"
  type: "Pooling"
  bottom: "conv0"
  top: "pool0"
  pooling_param {
    pool: MAX
    kernel_size: 2
    stride: 2
  }
}
layer {
  name: "conv1"
  type: "Convolution"
  bottom: "pool0"
  top: "conv1"
  param {
    lr_mult: 1
  }
  param {
    lr_mult: 2
  }
  convolution_param {
    num_output: 50
    kernel_size: 5
    stride: 1
    weight_filler {
      type: "xavier"
    }
    bias_filler {
      type: "constant"
    }
  }
}
layer {
  name: "pool1"
  type: "Pooling"
  bottom: "conv1"
  top: "pool1"
  pooling_param {
    pool: MAX
    kernel_size: 2
    stride: 2
  }
}
layer {
  name: "ip1"
  type: "InnerProduct"
  bottom: "pool1"
  top: "ip1"
  param {
    lr_mult: 1
  }
  param {
    lr_mult: 2
  }
  inner_product_param {
    num_output: 25
    weight_filler {
      type: "xavier"
    }
    bias_filler {
      type: "constant"
    }
  }
}
layer {
  name: "relu1"
  type: "ReLU"
  bottom: "ip1"
  top: "ip1"
}
layer {
  name: "ip2"
  type: "InnerProduct"
  bottom: "ip1"
  top: "ip2"
  param {
    lr_mult: 1
  }
  param {
    lr_mult: 2
  }
  inner_product_param {
    num_output: 25
    weight_filler {
      type: "xavier"
    }
    bias_filler {
      type: "constant"
    }
  }
}
layer {
  name: "relu2"
  type: "ReLU"
  bottom: "ip2"
  top: "ip2"
}
layer {
  name: "ip3"
  type: "InnerProduct"
  bottom: "ip2"
  top: "ip3"
  param {
    lr_mult: 1
  }
  param {
    lr_mult: 2
  }
  inner_product_param {
    num_output: 10
    weight_filler {
      type: "xavier"
    }
    bias_filler {
      type: "constant"
    }
  }
}
layer {
  name: "relu3"
  type: "ReLU"
  bottom: "ip3"
  top: "ip3"
}
layer {
  name: "loss"
  type: "SoftmaxWithLoss"
  bottom: "ip3"
  bottom: "label"
  top: "loss"
}
I0428 20:21:44.177170  1817 layer_factory.hpp:77] Creating layer mnist
I0428 20:21:44.177292  1817 db_lmdb.cpp:35] Opened lmdb examples/mnist/mnist_train_lmdb
I0428 20:21:44.177315  1817 net.cpp:86] Creating Layer mnist
I0428 20:21:44.177322  1817 net.cpp:382] mnist -> data
I0428 20:21:44.177340  1817 net.cpp:382] mnist -> label
I0428 20:21:44.178283  1817 data_layer.cpp:45] output data size: 64,1,28,28
I0428 20:21:44.180536  1817 net.cpp:124] Setting up mnist
I0428 20:21:44.180568  1817 net.cpp:131] Top shape: 64 1 28 28 (50176)
I0428 20:21:44.180575  1817 net.cpp:131] Top shape: 64 (64)
I0428 20:21:44.180578  1817 net.cpp:139] Memory required for data: 200960
I0428 20:21:44.180585  1817 layer_factory.hpp:77] Creating layer conv0
I0428 20:21:44.180603  1817 net.cpp:86] Creating Layer conv0
I0428 20:21:44.180634  1817 net.cpp:408] conv0 <- data
I0428 20:21:44.180645  1817 net.cpp:382] conv0 -> conv0
I0428 20:21:44.421598  1817 net.cpp:124] Setting up conv0
I0428 20:21:44.421641  1817 net.cpp:131] Top shape: 64 50 24 24 (1843200)
I0428 20:21:44.421645  1817 net.cpp:139] Memory required for data: 7573760
I0428 20:21:44.421675  1817 layer_factory.hpp:77] Creating layer pool0
I0428 20:21:44.421689  1817 net.cpp:86] Creating Layer pool0
I0428 20:21:44.421694  1817 net.cpp:408] pool0 <- conv0
I0428 20:21:44.421713  1817 net.cpp:382] pool0 -> pool0
I0428 20:21:44.421779  1817 net.cpp:124] Setting up pool0
I0428 20:21:44.421792  1817 net.cpp:131] Top shape: 64 50 12 12 (460800)
I0428 20:21:44.421795  1817 net.cpp:139] Memory required for data: 9416960
I0428 20:21:44.421799  1817 layer_factory.hpp:77] Creating layer conv1
I0428 20:21:44.421809  1817 net.cpp:86] Creating Layer conv1
I0428 20:21:44.421813  1817 net.cpp:408] conv1 <- pool0
I0428 20:21:44.421818  1817 net.cpp:382] conv1 -> conv1
I0428 20:21:44.424173  1817 net.cpp:124] Setting up conv1
I0428 20:21:44.424204  1817 net.cpp:131] Top shape: 64 50 8 8 (204800)
I0428 20:21:44.424208  1817 net.cpp:139] Memory required for data: 10236160
I0428 20:21:44.424216  1817 layer_factory.hpp:77] Creating layer pool1
I0428 20:21:44.424240  1817 net.cpp:86] Creating Layer pool1
I0428 20:21:44.424243  1817 net.cpp:408] pool1 <- conv1
I0428 20:21:44.424249  1817 net.cpp:382] pool1 -> pool1
I0428 20:21:44.424300  1817 net.cpp:124] Setting up pool1
I0428 20:21:44.424306  1817 net.cpp:131] Top shape: 64 50 4 4 (51200)
I0428 20:21:44.424309  1817 net.cpp:139] Memory required for data: 10440960
I0428 20:21:44.424311  1817 layer_factory.hpp:77] Creating layer ip1
I0428 20:21:44.424319  1817 net.cpp:86] Creating Layer ip1
I0428 20:21:44.424322  1817 net.cpp:408] ip1 <- pool1
I0428 20:21:44.424327  1817 net.cpp:382] ip1 -> ip1
I0428 20:21:44.424540  1817 net.cpp:124] Setting up ip1
I0428 20:21:44.424546  1817 net.cpp:131] Top shape: 64 25 (1600)
I0428 20:21:44.424551  1817 net.cpp:139] Memory required for data: 10447360
I0428 20:21:44.424557  1817 layer_factory.hpp:77] Creating layer relu1
I0428 20:21:44.424563  1817 net.cpp:86] Creating Layer relu1
I0428 20:21:44.424567  1817 net.cpp:408] relu1 <- ip1
I0428 20:21:44.424571  1817 net.cpp:369] relu1 -> ip1 (in-place)
I0428 20:21:44.424760  1817 net.cpp:124] Setting up relu1
I0428 20:21:44.424770  1817 net.cpp:131] Top shape: 64 25 (1600)
I0428 20:21:44.424773  1817 net.cpp:139] Memory required for data: 10453760
I0428 20:21:44.424777  1817 layer_factory.hpp:77] Creating layer ip2
I0428 20:21:44.424783  1817 net.cpp:86] Creating Layer ip2
I0428 20:21:44.424787  1817 net.cpp:408] ip2 <- ip1
I0428 20:21:44.424793  1817 net.cpp:382] ip2 -> ip2
I0428 20:21:44.424938  1817 net.cpp:124] Setting up ip2
I0428 20:21:44.424947  1817 net.cpp:131] Top shape: 64 25 (1600)
I0428 20:21:44.424950  1817 net.cpp:139] Memory required for data: 10460160
I0428 20:21:44.424955  1817 layer_factory.hpp:77] Creating layer relu2
I0428 20:21:44.424964  1817 net.cpp:86] Creating Layer relu2
I0428 20:21:44.424968  1817 net.cpp:408] relu2 <- ip2
I0428 20:21:44.424971  1817 net.cpp:369] relu2 -> ip2 (in-place)
I0428 20:21:44.425761  1817 net.cpp:124] Setting up relu2
I0428 20:21:44.425772  1817 net.cpp:131] Top shape: 64 25 (1600)
I0428 20:21:44.425791  1817 net.cpp:139] Memory required for data: 10466560
I0428 20:21:44.425794  1817 layer_factory.hpp:77] Creating layer ip3
I0428 20:21:44.425801  1817 net.cpp:86] Creating Layer ip3
I0428 20:21:44.425804  1817 net.cpp:408] ip3 <- ip2
I0428 20:21:44.425812  1817 net.cpp:382] ip3 -> ip3
I0428 20:21:44.425912  1817 net.cpp:124] Setting up ip3
I0428 20:21:44.425920  1817 net.cpp:131] Top shape: 64 10 (640)
I0428 20:21:44.425922  1817 net.cpp:139] Memory required for data: 10469120
I0428 20:21:44.425930  1817 layer_factory.hpp:77] Creating layer relu3
I0428 20:21:44.425935  1817 net.cpp:86] Creating Layer relu3
I0428 20:21:44.425938  1817 net.cpp:408] relu3 <- ip3
I0428 20:21:44.425943  1817 net.cpp:369] relu3 -> ip3 (in-place)
I0428 20:21:44.426132  1817 net.cpp:124] Setting up relu3
I0428 20:21:44.426141  1817 net.cpp:131] Top shape: 64 10 (640)
I0428 20:21:44.426144  1817 net.cpp:139] Memory required for data: 10471680
I0428 20:21:44.426147  1817 layer_factory.hpp:77] Creating layer loss
I0428 20:21:44.426154  1817 net.cpp:86] Creating Layer loss
I0428 20:21:44.426157  1817 net.cpp:408] loss <- ip3
I0428 20:21:44.426162  1817 net.cpp:408] loss <- label
I0428 20:21:44.426167  1817 net.cpp:382] loss -> loss
I0428 20:21:44.426184  1817 layer_factory.hpp:77] Creating layer loss
…
I0428 20:21:44.426868  1817 solver.cpp:173] Creating test net (#0) specified by net file: ECE595/mnist/train_test/var_everything2/lenet_train_test1390.prototxt
I0428 20:21:44.426910  1817 net.cpp:296] The NetState phase (1) differed from the phase (0) specified by a rule in layer mnist
I0428 20:21:44.427008  1817 net.cpp:53] Initializing net from parameters: 
name: "LeNet"
state {
  phase: TEST
}
layer {
  name: "mnist"
  type: "Data"
  top: "data"
  top: "label"
  include {
    phase: TEST
  }
  transform_param {
    scale: 0.00390625
  }
  data_param {
    source: "examples/mnist/mnist_test_lmdb"
    batch_size: 100
    backend: LMDB
  }
}
layer {
  name: "conv0"
  type: "Convolution"
  bottom: "data"
  top: "conv0"
  param {
    lr_mult: 1
  }
  param {
    lr_mult: 2
  }
  convolution_param {
    num_output: 50
    kernel_size: 5
    stride: 1
    weight_filler {
      type: "xavier"
    }
    bias_filler {
      type: "constant"
    }
  }
}
layer {
  name: "pool0"
  type: "Pooling"
  bottom: "conv0"
  top: "pool0"
  pooling_param {
    pool: MAX
    kernel_size: 2
    stride: 2
  }
}
layer {
  name: "conv1"
  type: "Convolution"
  bottom: "pool0"
  top: "conv1"
  param {
    lr_mult: 1
  }
  param {
    lr_mult: 2
  }
  convolution_param {
    num_output: 50
    kernel_size: 5
    stride: 1
    weight_filler {
      type: "xavier"
    }
    bias_filler {
      type: "constant"
    }
  }
}
layer {
  name: "pool1"
  type: "Pooling"
  bottom: "conv1"
  top: "pool1"
  pooling_param {
    pool: MAX
    kernel_size: 2
    stride: 2
  }
}
layer {
  name: "ip1"
  type: "InnerProduct"
  bottom: "pool1"
  top: "ip1"
  param {
    lr_mult: 1
  }
  param {
    lr_mult: 2
  }
  inner_product_param {
    num_output: 25
    weight_filler {
      type: "xavier"
    }
    bias_filler {
      type: "constant"
    }
  }
}
layer {
  name: "relu1"
  type: "ReLU"
  bottom: "ip1"
  top: "ip1"
}
layer {
  name: "ip2"
  type: "InnerProduct"
  bottom: "ip1"
  top: "ip2"
  param {
    lr_mult: 1
  }
  param {
    lr_mult: 2
  }
  inner_product_param {
    num_output: 25
    weight_filler {
      type: "xavier"
    }
    bias_filler {
      type: "constant"
    }
  }
}
layer {
  name: "relu2"
  type: "ReLU"
  bottom: "ip2"
  top: "ip2"
}
layer {
  name: "ip3"
  type: "InnerProduct"
  bottom: "ip2"
  top: "ip3"
  param {
    lr_mult: 1
  }
  param {
    lr_mult: 2
  }
  inner_product_param {
    num_output: 10
    weight_filler {
      type: "xavier"
    }
    bias_filler {
      type: "constant"
    }
  }
}
layer {
  name: "relu3"
  type: "ReLU"
  bottom: "ip3"
  top: "ip3"
}
layer {
  name: "accuracy"
  type: "Accuracy"
  bottom: "ip3"
  bottom: "label"
  top: "accuracy"
  include {
    phase: TEST
  }
}
layer {
  name: "loss"
  type: "SoftmaxWithLoss"
  bottom: "ip3"
  bottom: "label"
  top: "loss"
}
I0428 20:21:44.427093  1817 layer_factory.hpp:77] Creating layer mnist
I0428 20:21:44.427137  1817 db_lmdb.cpp:35] Opened lmdb examples/mnist/mnist_test_lmdb
I0428 20:21:44.427152  1817 net.cpp:86] Creating Layer mnist
I0428 20:21:44.427157  1817 net.cpp:382] mnist -> data
I0428 20:21:44.427166  1817 net.cpp:382] mnist -> label
I0428 20:21:44.427284  1817 data_layer.cpp:45] output data size: 100,1,28,28
I0428 20:21:44.429488  1817 net.cpp:124] Setting up mnist
I0428 20:21:44.429517  1817 net.cpp:131] Top shape: 100 1 28 28 (78400)
I0428 20:21:44.429522  1817 net.cpp:131] Top shape: 100 (100)
I0428 20:21:44.429524  1817 net.cpp:139] Memory required for data: 314000
I0428 20:21:44.429528  1817 layer_factory.hpp:77] Creating layer label_mnist_1_split
I0428 20:21:44.429539  1817 net.cpp:86] Creating Layer label_mnist_1_split
I0428 20:21:44.429543  1817 net.cpp:408] label_mnist_1_split <- label
I0428 20:21:44.429548  1817 net.cpp:382] label_mnist_1_split -> label_mnist_1_split_0
I0428 20:21:44.429555  1817 net.cpp:382] label_mnist_1_split -> label_mnist_1_split_1
I0428 20:21:44.429636  1817 net.cpp:124] Setting up label_mnist_1_split
I0428 20:21:44.429646  1817 net.cpp:131] Top shape: 100 (100)
I0428 20:21:44.429648  1817 net.cpp:131] Top shape: 100 (100)
I0428 20:21:44.429651  1817 net.cpp:139] Memory required for data: 314800
I0428 20:21:44.429654  1817 layer_factory.hpp:77] Creating layer conv0
I0428 20:21:44.429666  1817 net.cpp:86] Creating Layer conv0
I0428 20:21:44.429668  1817 net.cpp:408] conv0 <- data
I0428 20:21:44.429674  1817 net.cpp:382] conv0 -> conv0
I0428 20:21:44.431366  1817 net.cpp:124] Setting up conv0
I0428 20:21:44.431380  1817 net.cpp:131] Top shape: 100 50 24 24 (2880000)
I0428 20:21:44.431399  1817 net.cpp:139] Memory required for data: 11834800
I0428 20:21:44.431408  1817 layer_factory.hpp:77] Creating layer pool0
I0428 20:21:44.431414  1817 net.cpp:86] Creating Layer pool0
I0428 20:21:44.431417  1817 net.cpp:408] pool0 <- conv0
I0428 20:21:44.431437  1817 net.cpp:382] pool0 -> pool0
I0428 20:21:44.431474  1817 net.cpp:124] Setting up pool0
I0428 20:21:44.431479  1817 net.cpp:131] Top shape: 100 50 12 12 (720000)
I0428 20:21:44.431483  1817 net.cpp:139] Memory required for data: 14714800
I0428 20:21:44.431485  1817 layer_factory.hpp:77] Creating layer conv1
I0428 20:21:44.431496  1817 net.cpp:86] Creating Layer conv1
I0428 20:21:44.431499  1817 net.cpp:408] conv1 <- pool0
I0428 20:21:44.431504  1817 net.cpp:382] conv1 -> conv1
I0428 20:21:44.433684  1817 net.cpp:124] Setting up conv1
I0428 20:21:44.433698  1817 net.cpp:131] Top shape: 100 50 8 8 (320000)
I0428 20:21:44.433701  1817 net.cpp:139] Memory required for data: 15994800
I0428 20:21:44.433725  1817 layer_factory.hpp:77] Creating layer pool1
I0428 20:21:44.433732  1817 net.cpp:86] Creating Layer pool1
I0428 20:21:44.433749  1817 net.cpp:408] pool1 <- conv1
I0428 20:21:44.433754  1817 net.cpp:382] pool1 -> pool1
I0428 20:21:44.433794  1817 net.cpp:124] Setting up pool1
I0428 20:21:44.433800  1817 net.cpp:131] Top shape: 100 50 4 4 (80000)
I0428 20:21:44.433804  1817 net.cpp:139] Memory required for data: 16314800
I0428 20:21:44.433806  1817 layer_factory.hpp:77] Creating layer ip1
I0428 20:21:44.433814  1817 net.cpp:86] Creating Layer ip1
I0428 20:21:44.433817  1817 net.cpp:408] ip1 <- pool1
I0428 20:21:44.433823  1817 net.cpp:382] ip1 -> ip1
I0428 20:21:44.434065  1817 net.cpp:124] Setting up ip1
I0428 20:21:44.434073  1817 net.cpp:131] Top shape: 100 25 (2500)
I0428 20:21:44.434087  1817 net.cpp:139] Memory required for data: 16324800
I0428 20:21:44.434094  1817 layer_factory.hpp:77] Creating layer relu1
I0428 20:21:44.434100  1817 net.cpp:86] Creating Layer relu1
I0428 20:21:44.434103  1817 net.cpp:408] relu1 <- ip1
I0428 20:21:44.434108  1817 net.cpp:369] relu1 -> ip1 (in-place)
I0428 20:21:44.434293  1817 net.cpp:124] Setting up relu1
I0428 20:21:44.434301  1817 net.cpp:131] Top shape: 100 25 (2500)
I0428 20:21:44.434304  1817 net.cpp:139] Memory required for data: 16334800
I0428 20:21:44.434307  1817 layer_factory.hpp:77] Creating layer ip2
I0428 20:21:44.434315  1817 net.cpp:86] Creating Layer ip2
I0428 20:21:44.434319  1817 net.cpp:408] ip2 <- ip1
I0428 20:21:44.434324  1817 net.cpp:382] ip2 -> ip2
I0428 20:21:44.434437  1817 net.cpp:124] Setting up ip2
I0428 20:21:44.434458  1817 net.cpp:131] Top shape: 100 25 (2500)
I0428 20:21:44.434460  1817 net.cpp:139] Memory required for data: 16344800
I0428 20:21:44.434465  1817 layer_factory.hpp:77] Creating layer relu2
I0428 20:21:44.434470  1817 net.cpp:86] Creating Layer relu2
I0428 20:21:44.434473  1817 net.cpp:408] relu2 <- ip2
I0428 20:21:44.434479  1817 net.cpp:369] relu2 -> ip2 (in-place)
I0428 20:21:44.434692  1817 net.cpp:124] Setting up relu2
I0428 20:21:44.434700  1817 net.cpp:131] Top shape: 100 25 (2500)
I0428 20:21:44.434703  1817 net.cpp:139] Memory required for data: 16354800
I0428 20:21:44.434707  1817 layer_factory.hpp:77] Creating layer ip3
I0428 20:21:44.434713  1817 net.cpp:86] Creating Layer ip3
I0428 20:21:44.434716  1817 net.cpp:408] ip3 <- ip2
I0428 20:21:44.434722  1817 net.cpp:382] ip3 -> ip3
I0428 20:21:44.434870  1817 net.cpp:124] Setting up ip3
I0428 20:21:44.434880  1817 net.cpp:131] Top shape: 100 10 (1000)
I0428 20:21:44.434883  1817 net.cpp:139] Memory required for data: 16358800
I0428 20:21:44.434890  1817 layer_factory.hpp:77] Creating layer relu3
I0428 20:21:44.434895  1817 net.cpp:86] Creating Layer relu3
I0428 20:21:44.434898  1817 net.cpp:408] relu3 <- ip3
I0428 20:21:44.434908  1817 net.cpp:369] relu3 -> ip3 (in-place)
I0428 20:21:44.435780  1817 net.cpp:124] Setting up relu3
I0428 20:21:44.435791  1817 net.cpp:131] Top shape: 100 10 (1000)
I0428 20:21:44.435807  1817 net.cpp:139] Memory required for data: 16362800
I0428 20:21:44.435811  1817 layer_factory.hpp:77] Creating layer ip3_relu3_0_split
I0428 20:21:44.435817  1817 net.cpp:86] Creating Layer ip3_relu3_0_split
I0428 20:21:44.435820  1817 net.cpp:408] ip3_relu3_0_split <- ip3
I0428 20:21:44.435827  1817 net.cpp:382] ip3_relu3_0_split -> ip3_relu3_0_split_0
I0428 20:21:44.435832  1817 net.cpp:382] ip3_relu3_0_split -> ip3_relu3_0_split_1
I0428 20:21:44.435887  1817 net.cpp:124] Setting up ip3_relu3_0_split
I0428 20:21:44.435894  1817 net.cpp:131] Top shape: 100 10 (1000)
I0428 20:21:44.435899  1817 net.cpp:131] Top shape: 100 10 (1000)
I0428 20:21:44.435905  1817 net.cpp:139] Memory required for data: 16370800
I0428 20:21:44.435909  1817 layer_factory.hpp:77] Creating layer accuracy
I0428 20:21:44.435914  1817 net.cpp:86] Creating Layer accuracy
I0428 20:21:44.435917  1817 net.cpp:408] accuracy <- ip3_relu3_0_split_0
I0428 20:21:44.435922  1817 net.cpp:408] accuracy <- label_mnist_1_split_0
I0428 20:21:44.435937  1817 net.cpp:382] accuracy -> accuracy
…
