…
I0428 20:04:51.232123 30475 net.cpp:296] The NetState phase (0) differed from the phase (1) specified by a rule in layer mnist
I0428 20:04:51.232137 30475 net.cpp:296] The NetState phase (0) differed from the phase (1) specified by a rule in layer accuracy
I0428 20:04:51.232210 30475 net.cpp:53] Initializing net from parameters: 
name: "LeNet"
state {
  phase: TRAIN
  level: 0
  stage: ""
}
layer {
  name: "mnist"
  type: "Data"
  top: "data"
  top: "label"
  include {
    phase: TRAIN
  }
  transform_param {
    scale: 0.00390625
  }
  data_param {
    source: "examples/mnist/mnist_train_lmdb"
    batch_size: 64
    backend: LMDB
  }
}
layer {
  name: "conv0"
  type: "Convolution"
  bottom: "data"
  top: "conv0"
  param {
    lr_mult: 1
  }
  param {
    lr_mult: 2
  }
  convolution_param {
    num_output: 25
    kernel_size: 5
    stride: 1
    weight_filler {
      type: "xavier"
    }
    bias_filler {
      type: "constant"
    }
  }
}
layer {
  name: "pool0"
  type: "Pooling"
  bottom: "conv0"
  top: "pool0"
  pooling_param {
    pool: MAX
    kernel_size: 2
    stride: 2
  }
}
layer {
  name: "conv1"
  type: "Convolution"
  bottom: "pool0"
  top: "conv1"
  param {
    lr_mult: 1
  }
  param {
    lr_mult: 2
  }
  convolution_param {
    num_output: 2
    kernel_size: 5
    stride: 1
    weight_filler {
      type: "xavier"
    }
    bias_filler {
      type: "constant"
    }
  }
}
layer {
  name: "pool1"
  type: "Pooling"
  bottom: "conv1"
  top: "pool1"
  pooling_param {
    pool: MAX
    kernel_size: 2
    stride: 2
  }
}
layer {
  name: "ip1"
  type: "InnerProduct"
  bottom: "pool1"
  top: "ip1"
  param {
    lr_mult: 1
  }
  param {
    lr_mult: 2
  }
  inner_product_param {
    num_output: 25
    weight_filler {
      type: "xavier"
    }
    bias_filler {
      type: "constant"
    }
  }
}
layer {
  name: "relu1"
  type: "ReLU"
  bottom: "ip1"
  top: "ip1"
}
layer {
  name: "ip2"
  type: "InnerProduct"
  bottom: "ip1"
  top: "ip2"
  param {
    lr_mult: 1
  }
  param {
    lr_mult: 2
  }
  inner_product_param {
    num_output: 10
    weight_filler {
      type: "xavier"
    }
    bias_filler {
      type: "constant"
    }
  }
}
layer {
  name: "relu2"
  type: "ReLU"
  bottom: "ip2"
  top: "ip2"
}
layer {
  name: "loss"
  type: "SoftmaxWithLoss"
  bottom: "ip2"
  bottom: "label"
  top: "loss"
}
I0428 20:04:51.232270 30475 layer_factory.hpp:77] Creating layer mnist
I0428 20:04:51.232352 30475 db_lmdb.cpp:35] Opened lmdb examples/mnist/mnist_train_lmdb
I0428 20:04:51.232385 30475 net.cpp:86] Creating Layer mnist
I0428 20:04:51.232393 30475 net.cpp:382] mnist -> data
I0428 20:04:51.232410 30475 net.cpp:382] mnist -> label
I0428 20:04:51.233456 30475 data_layer.cpp:45] output data size: 64,1,28,28
I0428 20:04:51.235895 30475 net.cpp:124] Setting up mnist
I0428 20:04:51.235909 30475 net.cpp:131] Top shape: 64 1 28 28 (50176)
I0428 20:04:51.235914 30475 net.cpp:131] Top shape: 64 (64)
I0428 20:04:51.235918 30475 net.cpp:139] Memory required for data: 200960
I0428 20:04:51.235922 30475 layer_factory.hpp:77] Creating layer conv0
I0428 20:04:51.235936 30475 net.cpp:86] Creating Layer conv0
I0428 20:04:51.235941 30475 net.cpp:408] conv0 <- data
I0428 20:04:51.235975 30475 net.cpp:382] conv0 -> conv0
I0428 20:04:51.471246 30475 net.cpp:124] Setting up conv0
I0428 20:04:51.471287 30475 net.cpp:131] Top shape: 64 25 24 24 (921600)
I0428 20:04:51.471290 30475 net.cpp:139] Memory required for data: 3887360
I0428 20:04:51.471354 30475 layer_factory.hpp:77] Creating layer pool0
I0428 20:04:51.471366 30475 net.cpp:86] Creating Layer pool0
I0428 20:04:51.471370 30475 net.cpp:408] pool0 <- conv0
I0428 20:04:51.471375 30475 net.cpp:382] pool0 -> pool0
I0428 20:04:51.471424 30475 net.cpp:124] Setting up pool0
I0428 20:04:51.471432 30475 net.cpp:131] Top shape: 64 25 12 12 (230400)
I0428 20:04:51.471436 30475 net.cpp:139] Memory required for data: 4808960
I0428 20:04:51.471437 30475 layer_factory.hpp:77] Creating layer conv1
I0428 20:04:51.471449 30475 net.cpp:86] Creating Layer conv1
I0428 20:04:51.471452 30475 net.cpp:408] conv1 <- pool0
I0428 20:04:51.471457 30475 net.cpp:382] conv1 -> conv1
I0428 20:04:51.474292 30475 net.cpp:124] Setting up conv1
I0428 20:04:51.474305 30475 net.cpp:131] Top shape: 64 2 8 8 (8192)
I0428 20:04:51.474325 30475 net.cpp:139] Memory required for data: 4841728
I0428 20:04:51.474349 30475 layer_factory.hpp:77] Creating layer pool1
I0428 20:04:51.474356 30475 net.cpp:86] Creating Layer pool1
I0428 20:04:51.474359 30475 net.cpp:408] pool1 <- conv1
I0428 20:04:51.474364 30475 net.cpp:382] pool1 -> pool1
I0428 20:04:51.474398 30475 net.cpp:124] Setting up pool1
I0428 20:04:51.474405 30475 net.cpp:131] Top shape: 64 2 4 4 (2048)
I0428 20:04:51.474407 30475 net.cpp:139] Memory required for data: 4849920
I0428 20:04:51.474411 30475 layer_factory.hpp:77] Creating layer ip1
I0428 20:04:51.474416 30475 net.cpp:86] Creating Layer ip1
I0428 20:04:51.474419 30475 net.cpp:408] ip1 <- pool1
I0428 20:04:51.474424 30475 net.cpp:382] ip1 -> ip1
I0428 20:04:51.474521 30475 net.cpp:124] Setting up ip1
I0428 20:04:51.474529 30475 net.cpp:131] Top shape: 64 25 (1600)
I0428 20:04:51.474531 30475 net.cpp:139] Memory required for data: 4856320
I0428 20:04:51.474539 30475 layer_factory.hpp:77] Creating layer relu1
I0428 20:04:51.474544 30475 net.cpp:86] Creating Layer relu1
I0428 20:04:51.474547 30475 net.cpp:408] relu1 <- ip1
I0428 20:04:51.474550 30475 net.cpp:369] relu1 -> ip1 (in-place)
I0428 20:04:51.474719 30475 net.cpp:124] Setting up relu1
I0428 20:04:51.474726 30475 net.cpp:131] Top shape: 64 25 (1600)
I0428 20:04:51.474730 30475 net.cpp:139] Memory required for data: 4862720
I0428 20:04:51.474732 30475 layer_factory.hpp:77] Creating layer ip2
I0428 20:04:51.474737 30475 net.cpp:86] Creating Layer ip2
I0428 20:04:51.474740 30475 net.cpp:408] ip2 <- ip1
I0428 20:04:51.474745 30475 net.cpp:382] ip2 -> ip2
I0428 20:04:51.474829 30475 net.cpp:124] Setting up ip2
I0428 20:04:51.474835 30475 net.cpp:131] Top shape: 64 10 (640)
I0428 20:04:51.474838 30475 net.cpp:139] Memory required for data: 4865280
I0428 20:04:51.474843 30475 layer_factory.hpp:77] Creating layer relu2
I0428 20:04:51.474849 30475 net.cpp:86] Creating Layer relu2
I0428 20:04:51.474853 30475 net.cpp:408] relu2 <- ip2
I0428 20:04:51.474856 30475 net.cpp:369] relu2 -> ip2 (in-place)
I0428 20:04:51.475664 30475 net.cpp:124] Setting up relu2
I0428 20:04:51.475692 30475 net.cpp:131] Top shape: 64 10 (640)
I0428 20:04:51.475695 30475 net.cpp:139] Memory required for data: 4867840
I0428 20:04:51.475699 30475 layer_factory.hpp:77] Creating layer loss
I0428 20:04:51.475706 30475 net.cpp:86] Creating Layer loss
I0428 20:04:51.475709 30475 net.cpp:408] loss <- ip2
I0428 20:04:51.475714 30475 net.cpp:408] loss <- label
I0428 20:04:51.475719 30475 net.cpp:382] loss -> loss
I0428 20:04:51.475735 30475 layer_factory.hpp:77] Creating layer loss
…
I0428 20:04:51.476356 30475 solver.cpp:173] Creating test net (#0) specified by net file: ECE595/mnist/train_test/var_everything2/lenet_train_test983.prototxt
I0428 20:04:51.476409 30475 net.cpp:296] The NetState phase (1) differed from the phase (0) specified by a rule in layer mnist
I0428 20:04:51.476487 30475 net.cpp:53] Initializing net from parameters: 
name: "LeNet"
state {
  phase: TEST
}
layer {
  name: "mnist"
  type: "Data"
  top: "data"
  top: "label"
  include {
    phase: TEST
  }
  transform_param {
    scale: 0.00390625
  }
  data_param {
    source: "examples/mnist/mnist_test_lmdb"
    batch_size: 100
    backend: LMDB
  }
}
layer {
  name: "conv0"
  type: "Convolution"
  bottom: "data"
  top: "conv0"
  param {
    lr_mult: 1
  }
  param {
    lr_mult: 2
  }
  convolution_param {
    num_output: 25
    kernel_size: 5
    stride: 1
    weight_filler {
      type: "xavier"
    }
    bias_filler {
      type: "constant"
    }
  }
}
layer {
  name: "pool0"
  type: "Pooling"
  bottom: "conv0"
  top: "pool0"
  pooling_param {
    pool: MAX
    kernel_size: 2
    stride: 2
  }
}
layer {
  name: "conv1"
  type: "Convolution"
  bottom: "pool0"
  top: "conv1"
  param {
    lr_mult: 1
  }
  param {
    lr_mult: 2
  }
  convolution_param {
    num_output: 2
    kernel_size: 5
    stride: 1
    weight_filler {
      type: "xavier"
    }
    bias_filler {
      type: "constant"
    }
  }
}
layer {
  name: "pool1"
  type: "Pooling"
  bottom: "conv1"
  top: "pool1"
  pooling_param {
    pool: MAX
    kernel_size: 2
    stride: 2
  }
}
layer {
  name: "ip1"
  type: "InnerProduct"
  bottom: "pool1"
  top: "ip1"
  param {
    lr_mult: 1
  }
  param {
    lr_mult: 2
  }
  inner_product_param {
    num_output: 25
    weight_filler {
      type: "xavier"
    }
    bias_filler {
      type: "constant"
    }
  }
}
layer {
  name: "relu1"
  type: "ReLU"
  bottom: "ip1"
  top: "ip1"
}
layer {
  name: "ip2"
  type: "InnerProduct"
  bottom: "ip1"
  top: "ip2"
  param {
    lr_mult: 1
  }
  param {
    lr_mult: 2
  }
  inner_product_param {
    num_output: 10
    weight_filler {
      type: "xavier"
    }
    bias_filler {
      type: "constant"
    }
  }
}
layer {
  name: "relu2"
  type: "ReLU"
  bottom: "ip2"
  top: "ip2"
}
layer {
  name: "accuracy"
  type: "Accuracy"
  bottom: "ip2"
  bottom: "label"
  top: "accuracy"
  include {
    phase: TEST
  }
}
layer {
  name: "loss"
  type: "SoftmaxWithLoss"
  bottom: "ip2"
  bottom: "label"
  top: "loss"
}
I0428 20:04:51.476563 30475 layer_factory.hpp:77] Creating layer mnist
I0428 20:04:51.476608 30475 db_lmdb.cpp:35] Opened lmdb examples/mnist/mnist_test_lmdb
I0428 20:04:51.476619 30475 net.cpp:86] Creating Layer mnist
I0428 20:04:51.476624 30475 net.cpp:382] mnist -> data
I0428 20:04:51.476631 30475 net.cpp:382] mnist -> label
I0428 20:04:51.476724 30475 data_layer.cpp:45] output data size: 100,1,28,28
I0428 20:04:51.478759 30475 net.cpp:124] Setting up mnist
I0428 20:04:51.478787 30475 net.cpp:131] Top shape: 100 1 28 28 (78400)
I0428 20:04:51.478792 30475 net.cpp:131] Top shape: 100 (100)
I0428 20:04:51.478796 30475 net.cpp:139] Memory required for data: 314000
I0428 20:04:51.478799 30475 layer_factory.hpp:77] Creating layer label_mnist_1_split
I0428 20:04:51.478806 30475 net.cpp:86] Creating Layer label_mnist_1_split
I0428 20:04:51.478808 30475 net.cpp:408] label_mnist_1_split <- label
I0428 20:04:51.478813 30475 net.cpp:382] label_mnist_1_split -> label_mnist_1_split_0
I0428 20:04:51.478819 30475 net.cpp:382] label_mnist_1_split -> label_mnist_1_split_1
I0428 20:04:51.478890 30475 net.cpp:124] Setting up label_mnist_1_split
I0428 20:04:51.478906 30475 net.cpp:131] Top shape: 100 (100)
I0428 20:04:51.478910 30475 net.cpp:131] Top shape: 100 (100)
I0428 20:04:51.478912 30475 net.cpp:139] Memory required for data: 314800
I0428 20:04:51.478915 30475 layer_factory.hpp:77] Creating layer conv0
I0428 20:04:51.478940 30475 net.cpp:86] Creating Layer conv0
I0428 20:04:51.478942 30475 net.cpp:408] conv0 <- data
I0428 20:04:51.478948 30475 net.cpp:382] conv0 -> conv0
I0428 20:04:51.480792 30475 net.cpp:124] Setting up conv0
I0428 20:04:51.480805 30475 net.cpp:131] Top shape: 100 25 24 24 (1440000)
I0428 20:04:51.480813 30475 net.cpp:139] Memory required for data: 6074800
I0428 20:04:51.480839 30475 layer_factory.hpp:77] Creating layer pool0
I0428 20:04:51.480861 30475 net.cpp:86] Creating Layer pool0
I0428 20:04:51.480865 30475 net.cpp:408] pool0 <- conv0
I0428 20:04:51.480870 30475 net.cpp:382] pool0 -> pool0
I0428 20:04:51.480940 30475 net.cpp:124] Setting up pool0
I0428 20:04:51.480950 30475 net.cpp:131] Top shape: 100 25 12 12 (360000)
I0428 20:04:51.480953 30475 net.cpp:139] Memory required for data: 7514800
I0428 20:04:51.480957 30475 layer_factory.hpp:77] Creating layer conv1
I0428 20:04:51.480967 30475 net.cpp:86] Creating Layer conv1
I0428 20:04:51.480970 30475 net.cpp:408] conv1 <- pool0
I0428 20:04:51.480976 30475 net.cpp:382] conv1 -> conv1
I0428 20:04:51.483268 30475 net.cpp:124] Setting up conv1
I0428 20:04:51.483283 30475 net.cpp:131] Top shape: 100 2 8 8 (12800)
I0428 20:04:51.483288 30475 net.cpp:139] Memory required for data: 7566000
I0428 20:04:51.483296 30475 layer_factory.hpp:77] Creating layer pool1
I0428 20:04:51.483314 30475 net.cpp:86] Creating Layer pool1
I0428 20:04:51.483319 30475 net.cpp:408] pool1 <- conv1
I0428 20:04:51.483330 30475 net.cpp:382] pool1 -> pool1
I0428 20:04:51.483368 30475 net.cpp:124] Setting up pool1
I0428 20:04:51.483373 30475 net.cpp:131] Top shape: 100 2 4 4 (3200)
I0428 20:04:51.483376 30475 net.cpp:139] Memory required for data: 7578800
I0428 20:04:51.483379 30475 layer_factory.hpp:77] Creating layer ip1
I0428 20:04:51.483386 30475 net.cpp:86] Creating Layer ip1
I0428 20:04:51.483395 30475 net.cpp:408] ip1 <- pool1
I0428 20:04:51.483399 30475 net.cpp:382] ip1 -> ip1
I0428 20:04:51.483531 30475 net.cpp:124] Setting up ip1
I0428 20:04:51.483539 30475 net.cpp:131] Top shape: 100 25 (2500)
I0428 20:04:51.483542 30475 net.cpp:139] Memory required for data: 7588800
I0428 20:04:51.483549 30475 layer_factory.hpp:77] Creating layer relu1
I0428 20:04:51.483554 30475 net.cpp:86] Creating Layer relu1
I0428 20:04:51.483557 30475 net.cpp:408] relu1 <- ip1
I0428 20:04:51.483561 30475 net.cpp:369] relu1 -> ip1 (in-place)
I0428 20:04:51.483804 30475 net.cpp:124] Setting up relu1
I0428 20:04:51.483813 30475 net.cpp:131] Top shape: 100 25 (2500)
I0428 20:04:51.483816 30475 net.cpp:139] Memory required for data: 7598800
I0428 20:04:51.483819 30475 layer_factory.hpp:77] Creating layer ip2
I0428 20:04:51.483832 30475 net.cpp:86] Creating Layer ip2
I0428 20:04:51.483835 30475 net.cpp:408] ip2 <- ip1
I0428 20:04:51.483841 30475 net.cpp:382] ip2 -> ip2
I0428 20:04:51.483955 30475 net.cpp:124] Setting up ip2
I0428 20:04:51.483963 30475 net.cpp:131] Top shape: 100 10 (1000)
I0428 20:04:51.483965 30475 net.cpp:139] Memory required for data: 7602800
I0428 20:04:51.483970 30475 layer_factory.hpp:77] Creating layer relu2
I0428 20:04:51.483974 30475 net.cpp:86] Creating Layer relu2
I0428 20:04:51.483978 30475 net.cpp:408] relu2 <- ip2
I0428 20:04:51.483981 30475 net.cpp:369] relu2 -> ip2 (in-place)
I0428 20:04:51.484148 30475 net.cpp:124] Setting up relu2
I0428 20:04:51.484156 30475 net.cpp:131] Top shape: 100 10 (1000)
I0428 20:04:51.484159 30475 net.cpp:139] Memory required for data: 7606800
I0428 20:04:51.484163 30475 layer_factory.hpp:77] Creating layer ip2_relu2_0_split
I0428 20:04:51.484189 30475 net.cpp:86] Creating Layer ip2_relu2_0_split
I0428 20:04:51.484191 30475 net.cpp:408] ip2_relu2_0_split <- ip2
I0428 20:04:51.484195 30475 net.cpp:382] ip2_relu2_0_split -> ip2_relu2_0_split_0
I0428 20:04:51.484226 30475 net.cpp:382] ip2_relu2_0_split -> ip2_relu2_0_split_1
I0428 20:04:51.484264 30475 net.cpp:124] Setting up ip2_relu2_0_split
I0428 20:04:51.484271 30475 net.cpp:131] Top shape: 100 10 (1000)
I0428 20:04:51.484273 30475 net.cpp:131] Top shape: 100 10 (1000)
I0428 20:04:51.484293 30475 net.cpp:139] Memory required for data: 7614800
I0428 20:04:51.484297 30475 layer_factory.hpp:77] Creating layer accuracy
I0428 20:04:51.484302 30475 net.cpp:86] Creating Layer accuracy
I0428 20:04:51.484307 30475 net.cpp:408] accuracy <- ip2_relu2_0_split_0
I0428 20:04:51.484310 30475 net.cpp:408] accuracy <- label_mnist_1_split_0
I0428 20:04:51.484315 30475 net.cpp:382] accuracy -> accuracy
…
