…
I0428 19:42:32.096252 25087 net.cpp:296] The NetState phase (0) differed from the phase (1) specified by a rule in layer mnist
I0428 19:42:32.096272 25087 net.cpp:296] The NetState phase (0) differed from the phase (1) specified by a rule in layer accuracy
I0428 19:42:32.096364 25087 net.cpp:53] Initializing net from parameters: 
name: "LeNet"
state {
  phase: TRAIN
  level: 0
  stage: ""
}
layer {
  name: "mnist"
  type: "Data"
  top: "data"
  top: "label"
  include {
    phase: TRAIN
  }
  transform_param {
    scale: 0.00390625
  }
  data_param {
    source: "examples/mnist/mnist_train_lmdb"
    batch_size: 64
    backend: LMDB
  }
}
layer {
  name: "conv0"
  type: "Convolution"
  bottom: "data"
  top: "conv0"
  param {
    lr_mult: 1
  }
  param {
    lr_mult: 2
  }
  convolution_param {
    num_output: 2
    kernel_size: 5
    stride: 1
    weight_filler {
      type: "xavier"
    }
    bias_filler {
      type: "constant"
    }
  }
}
layer {
  name: "pool0"
  type: "Pooling"
  bottom: "conv0"
  top: "pool0"
  pooling_param {
    pool: MAX
    kernel_size: 2
    stride: 2
  }
}
layer {
  name: "conv1"
  type: "Convolution"
  bottom: "pool0"
  top: "conv1"
  param {
    lr_mult: 1
  }
  param {
    lr_mult: 2
  }
  convolution_param {
    num_output: 25
    kernel_size: 5
    stride: 1
    weight_filler {
      type: "xavier"
    }
    bias_filler {
      type: "constant"
    }
  }
}
layer {
  name: "pool1"
  type: "Pooling"
  bottom: "conv1"
  top: "pool1"
  pooling_param {
    pool: MAX
    kernel_size: 2
    stride: 2
  }
}
layer {
  name: "ip1"
  type: "InnerProduct"
  bottom: "pool1"
  top: "ip1"
  param {
    lr_mult: 1
  }
  param {
    lr_mult: 2
  }
  inner_product_param {
    num_output: 25
    weight_filler {
      type: "xavier"
    }
    bias_filler {
      type: "constant"
    }
  }
}
layer {
  name: "relu1"
  type: "ReLU"
  bottom: "ip1"
  top: "ip1"
}
layer {
  name: "ip2"
  type: "InnerProduct"
  bottom: "ip1"
  top: "ip2"
  param {
    lr_mult: 1
  }
  param {
    lr_mult: 2
  }
  inner_product_param {
    num_output: 10
    weight_filler {
      type: "xavier"
    }
    bias_filler {
      type: "constant"
    }
  }
}
layer {
  name: "relu2"
  type: "ReLU"
  bottom: "ip2"
  top: "ip2"
}
layer {
  name: "loss"
  type: "SoftmaxWithLoss"
  bottom: "ip2"
  bottom: "label"
  top: "loss"
}
I0428 19:42:32.096441 25087 layer_factory.hpp:77] Creating layer mnist
I0428 19:42:32.096539 25087 db_lmdb.cpp:35] Opened lmdb examples/mnist/mnist_train_lmdb
I0428 19:42:32.096565 25087 net.cpp:86] Creating Layer mnist
I0428 19:42:32.096571 25087 net.cpp:382] mnist -> data
I0428 19:42:32.096596 25087 net.cpp:382] mnist -> label
I0428 19:42:32.097695 25087 data_layer.cpp:45] output data size: 64,1,28,28
I0428 19:42:32.100152 25087 net.cpp:124] Setting up mnist
I0428 19:42:32.100172 25087 net.cpp:131] Top shape: 64 1 28 28 (50176)
I0428 19:42:32.100178 25087 net.cpp:131] Top shape: 64 (64)
I0428 19:42:32.100181 25087 net.cpp:139] Memory required for data: 200960
I0428 19:42:32.100188 25087 layer_factory.hpp:77] Creating layer conv0
I0428 19:42:32.100224 25087 net.cpp:86] Creating Layer conv0
I0428 19:42:32.100229 25087 net.cpp:408] conv0 <- data
I0428 19:42:32.100240 25087 net.cpp:382] conv0 -> conv0
I0428 19:42:32.382875 25087 net.cpp:124] Setting up conv0
I0428 19:42:32.382902 25087 net.cpp:131] Top shape: 64 2 24 24 (73728)
I0428 19:42:32.382906 25087 net.cpp:139] Memory required for data: 495872
I0428 19:42:32.382941 25087 layer_factory.hpp:77] Creating layer pool0
I0428 19:42:32.382953 25087 net.cpp:86] Creating Layer pool0
I0428 19:42:32.382957 25087 net.cpp:408] pool0 <- conv0
I0428 19:42:32.382962 25087 net.cpp:382] pool0 -> pool0
I0428 19:42:32.383008 25087 net.cpp:124] Setting up pool0
I0428 19:42:32.383013 25087 net.cpp:131] Top shape: 64 2 12 12 (18432)
I0428 19:42:32.383016 25087 net.cpp:139] Memory required for data: 569600
I0428 19:42:32.383019 25087 layer_factory.hpp:77] Creating layer conv1
I0428 19:42:32.383030 25087 net.cpp:86] Creating Layer conv1
I0428 19:42:32.383033 25087 net.cpp:408] conv1 <- pool0
I0428 19:42:32.383038 25087 net.cpp:382] conv1 -> conv1
I0428 19:42:32.385634 25087 net.cpp:124] Setting up conv1
I0428 19:42:32.385648 25087 net.cpp:131] Top shape: 64 25 8 8 (102400)
I0428 19:42:32.385653 25087 net.cpp:139] Memory required for data: 979200
I0428 19:42:32.385660 25087 layer_factory.hpp:77] Creating layer pool1
I0428 19:42:32.385668 25087 net.cpp:86] Creating Layer pool1
I0428 19:42:32.385671 25087 net.cpp:408] pool1 <- conv1
I0428 19:42:32.385675 25087 net.cpp:382] pool1 -> pool1
I0428 19:42:32.385727 25087 net.cpp:124] Setting up pool1
I0428 19:42:32.385732 25087 net.cpp:131] Top shape: 64 25 4 4 (25600)
I0428 19:42:32.385735 25087 net.cpp:139] Memory required for data: 1081600
I0428 19:42:32.385738 25087 layer_factory.hpp:77] Creating layer ip1
I0428 19:42:32.385746 25087 net.cpp:86] Creating Layer ip1
I0428 19:42:32.385748 25087 net.cpp:408] ip1 <- pool1
I0428 19:42:32.385752 25087 net.cpp:382] ip1 -> ip1
I0428 19:42:32.386705 25087 net.cpp:124] Setting up ip1
I0428 19:42:32.386718 25087 net.cpp:131] Top shape: 64 25 (1600)
I0428 19:42:32.386736 25087 net.cpp:139] Memory required for data: 1088000
I0428 19:42:32.386744 25087 layer_factory.hpp:77] Creating layer relu1
I0428 19:42:32.386751 25087 net.cpp:86] Creating Layer relu1
I0428 19:42:32.386754 25087 net.cpp:408] relu1 <- ip1
I0428 19:42:32.386765 25087 net.cpp:369] relu1 -> ip1 (in-place)
I0428 19:42:32.386960 25087 net.cpp:124] Setting up relu1
I0428 19:42:32.386970 25087 net.cpp:131] Top shape: 64 25 (1600)
I0428 19:42:32.386973 25087 net.cpp:139] Memory required for data: 1094400
I0428 19:42:32.386976 25087 layer_factory.hpp:77] Creating layer ip2
I0428 19:42:32.386982 25087 net.cpp:86] Creating Layer ip2
I0428 19:42:32.386986 25087 net.cpp:408] ip2 <- ip1
I0428 19:42:32.386991 25087 net.cpp:382] ip2 -> ip2
I0428 19:42:32.387084 25087 net.cpp:124] Setting up ip2
I0428 19:42:32.387105 25087 net.cpp:131] Top shape: 64 10 (640)
I0428 19:42:32.387109 25087 net.cpp:139] Memory required for data: 1096960
I0428 19:42:32.387114 25087 layer_factory.hpp:77] Creating layer relu2
I0428 19:42:32.387118 25087 net.cpp:86] Creating Layer relu2
I0428 19:42:32.387121 25087 net.cpp:408] relu2 <- ip2
I0428 19:42:32.387125 25087 net.cpp:369] relu2 -> ip2 (in-place)
I0428 19:42:32.387821 25087 net.cpp:124] Setting up relu2
I0428 19:42:32.387833 25087 net.cpp:131] Top shape: 64 10 (640)
I0428 19:42:32.387836 25087 net.cpp:139] Memory required for data: 1099520
I0428 19:42:32.387840 25087 layer_factory.hpp:77] Creating layer loss
I0428 19:42:32.387846 25087 net.cpp:86] Creating Layer loss
I0428 19:42:32.387850 25087 net.cpp:408] loss <- ip2
I0428 19:42:32.387853 25087 net.cpp:408] loss <- label
I0428 19:42:32.387858 25087 net.cpp:382] loss -> loss
I0428 19:42:32.387892 25087 layer_factory.hpp:77] Creating layer loss
…
I0428 19:42:32.388509 25087 solver.cpp:173] Creating test net (#0) specified by net file: ECE595/mnist/train_test/var_everything2/lenet_train_test396.prototxt
I0428 19:42:32.388533 25087 net.cpp:296] The NetState phase (1) differed from the phase (0) specified by a rule in layer mnist
I0428 19:42:32.388617 25087 net.cpp:53] Initializing net from parameters: 
name: "LeNet"
state {
  phase: TEST
}
layer {
  name: "mnist"
  type: "Data"
  top: "data"
  top: "label"
  include {
    phase: TEST
  }
  transform_param {
    scale: 0.00390625
  }
  data_param {
    source: "examples/mnist/mnist_test_lmdb"
    batch_size: 100
    backend: LMDB
  }
}
layer {
  name: "conv0"
  type: "Convolution"
  bottom: "data"
  top: "conv0"
  param {
    lr_mult: 1
  }
  param {
    lr_mult: 2
  }
  convolution_param {
    num_output: 2
    kernel_size: 5
    stride: 1
    weight_filler {
      type: "xavier"
    }
    bias_filler {
      type: "constant"
    }
  }
}
layer {
  name: "pool0"
  type: "Pooling"
  bottom: "conv0"
  top: "pool0"
  pooling_param {
    pool: MAX
    kernel_size: 2
    stride: 2
  }
}
layer {
  name: "conv1"
  type: "Convolution"
  bottom: "pool0"
  top: "conv1"
  param {
    lr_mult: 1
  }
  param {
    lr_mult: 2
  }
  convolution_param {
    num_output: 25
    kernel_size: 5
    stride: 1
    weight_filler {
      type: "xavier"
    }
    bias_filler {
      type: "constant"
    }
  }
}
layer {
  name: "pool1"
  type: "Pooling"
  bottom: "conv1"
  top: "pool1"
  pooling_param {
    pool: MAX
    kernel_size: 2
    stride: 2
  }
}
layer {
  name: "ip1"
  type: "InnerProduct"
  bottom: "pool1"
  top: "ip1"
  param {
    lr_mult: 1
  }
  param {
    lr_mult: 2
  }
  inner_product_param {
    num_output: 25
    weight_filler {
      type: "xavier"
    }
    bias_filler {
      type: "constant"
    }
  }
}
layer {
  name: "relu1"
  type: "ReLU"
  bottom: "ip1"
  top: "ip1"
}
layer {
  name: "ip2"
  type: "InnerProduct"
  bottom: "ip1"
  top: "ip2"
  param {
    lr_mult: 1
  }
  param {
    lr_mult: 2
  }
  inner_product_param {
    num_output: 10
    weight_filler {
      type: "xavier"
    }
    bias_filler {
      type: "constant"
    }
  }
}
layer {
  name: "relu2"
  type: "ReLU"
  bottom: "ip2"
  top: "ip2"
}
layer {
  name: "accuracy"
  type: "Accuracy"
  bottom: "ip2"
  bottom: "label"
  top: "accuracy"
  include {
    phase: TEST
  }
}
layer {
  name: "loss"
  type: "SoftmaxWithLoss"
  bottom: "ip2"
  bottom: "label"
  top: "loss"
}
I0428 19:42:32.388682 25087 layer_factory.hpp:77] Creating layer mnist
I0428 19:42:32.388728 25087 db_lmdb.cpp:35] Opened lmdb examples/mnist/mnist_test_lmdb
I0428 19:42:32.388741 25087 net.cpp:86] Creating Layer mnist
I0428 19:42:32.388746 25087 net.cpp:382] mnist -> data
I0428 19:42:32.388753 25087 net.cpp:382] mnist -> label
I0428 19:42:32.388892 25087 data_layer.cpp:45] output data size: 100,1,28,28
I0428 19:42:32.390812 25087 net.cpp:124] Setting up mnist
I0428 19:42:32.390825 25087 net.cpp:131] Top shape: 100 1 28 28 (78400)
I0428 19:42:32.390830 25087 net.cpp:131] Top shape: 100 (100)
I0428 19:42:32.390831 25087 net.cpp:139] Memory required for data: 314000
I0428 19:42:32.390836 25087 layer_factory.hpp:77] Creating layer label_mnist_1_split
I0428 19:42:32.390844 25087 net.cpp:86] Creating Layer label_mnist_1_split
I0428 19:42:32.390848 25087 net.cpp:408] label_mnist_1_split <- label
I0428 19:42:32.390852 25087 net.cpp:382] label_mnist_1_split -> label_mnist_1_split_0
I0428 19:42:32.390887 25087 net.cpp:382] label_mnist_1_split -> label_mnist_1_split_1
I0428 19:42:32.390925 25087 net.cpp:124] Setting up label_mnist_1_split
I0428 19:42:32.390940 25087 net.cpp:131] Top shape: 100 (100)
I0428 19:42:32.390944 25087 net.cpp:131] Top shape: 100 (100)
I0428 19:42:32.390946 25087 net.cpp:139] Memory required for data: 314800
I0428 19:42:32.390949 25087 layer_factory.hpp:77] Creating layer conv0
I0428 19:42:32.390961 25087 net.cpp:86] Creating Layer conv0
I0428 19:42:32.390965 25087 net.cpp:408] conv0 <- data
I0428 19:42:32.390970 25087 net.cpp:382] conv0 -> conv0
I0428 19:42:32.392776 25087 net.cpp:124] Setting up conv0
I0428 19:42:32.392789 25087 net.cpp:131] Top shape: 100 2 24 24 (115200)
I0428 19:42:32.392793 25087 net.cpp:139] Memory required for data: 775600
I0428 19:42:32.392803 25087 layer_factory.hpp:77] Creating layer pool0
I0428 19:42:32.392817 25087 net.cpp:86] Creating Layer pool0
I0428 19:42:32.392819 25087 net.cpp:408] pool0 <- conv0
I0428 19:42:32.392841 25087 net.cpp:382] pool0 -> pool0
I0428 19:42:32.392894 25087 net.cpp:124] Setting up pool0
I0428 19:42:32.392900 25087 net.cpp:131] Top shape: 100 2 12 12 (28800)
I0428 19:42:32.392904 25087 net.cpp:139] Memory required for data: 890800
I0428 19:42:32.392906 25087 layer_factory.hpp:77] Creating layer conv1
I0428 19:42:32.392917 25087 net.cpp:86] Creating Layer conv1
I0428 19:42:32.392920 25087 net.cpp:408] conv1 <- pool0
I0428 19:42:32.392925 25087 net.cpp:382] conv1 -> conv1
I0428 19:42:32.394453 25087 net.cpp:124] Setting up conv1
I0428 19:42:32.394464 25087 net.cpp:131] Top shape: 100 25 8 8 (160000)
I0428 19:42:32.394469 25087 net.cpp:139] Memory required for data: 1530800
I0428 19:42:32.394477 25087 layer_factory.hpp:77] Creating layer pool1
I0428 19:42:32.394484 25087 net.cpp:86] Creating Layer pool1
I0428 19:42:32.394487 25087 net.cpp:408] pool1 <- conv1
I0428 19:42:32.394529 25087 net.cpp:382] pool1 -> pool1
I0428 19:42:32.394567 25087 net.cpp:124] Setting up pool1
I0428 19:42:32.394575 25087 net.cpp:131] Top shape: 100 25 4 4 (40000)
I0428 19:42:32.394579 25087 net.cpp:139] Memory required for data: 1690800
I0428 19:42:32.394587 25087 layer_factory.hpp:77] Creating layer ip1
I0428 19:42:32.394594 25087 net.cpp:86] Creating Layer ip1
I0428 19:42:32.394598 25087 net.cpp:408] ip1 <- pool1
I0428 19:42:32.394609 25087 net.cpp:382] ip1 -> ip1
I0428 19:42:32.394790 25087 net.cpp:124] Setting up ip1
I0428 19:42:32.394798 25087 net.cpp:131] Top shape: 100 25 (2500)
I0428 19:42:32.394800 25087 net.cpp:139] Memory required for data: 1700800
I0428 19:42:32.394807 25087 layer_factory.hpp:77] Creating layer relu1
I0428 19:42:32.394814 25087 net.cpp:86] Creating Layer relu1
I0428 19:42:32.394816 25087 net.cpp:408] relu1 <- ip1
I0428 19:42:32.394822 25087 net.cpp:369] relu1 -> ip1 (in-place)
I0428 19:42:32.394980 25087 net.cpp:124] Setting up relu1
I0428 19:42:32.394989 25087 net.cpp:131] Top shape: 100 25 (2500)
I0428 19:42:32.394994 25087 net.cpp:139] Memory required for data: 1710800
I0428 19:42:32.395004 25087 layer_factory.hpp:77] Creating layer ip2
I0428 19:42:32.395011 25087 net.cpp:86] Creating Layer ip2
I0428 19:42:32.395015 25087 net.cpp:408] ip2 <- ip1
I0428 19:42:32.395020 25087 net.cpp:382] ip2 -> ip2
I0428 19:42:32.395133 25087 net.cpp:124] Setting up ip2
I0428 19:42:32.395138 25087 net.cpp:131] Top shape: 100 10 (1000)
I0428 19:42:32.395143 25087 net.cpp:139] Memory required for data: 1714800
I0428 19:42:32.395148 25087 layer_factory.hpp:77] Creating layer relu2
I0428 19:42:32.395153 25087 net.cpp:86] Creating Layer relu2
I0428 19:42:32.395157 25087 net.cpp:408] relu2 <- ip2
I0428 19:42:32.395161 25087 net.cpp:369] relu2 -> ip2 (in-place)
I0428 19:42:32.395308 25087 net.cpp:124] Setting up relu2
I0428 19:42:32.395332 25087 net.cpp:131] Top shape: 100 10 (1000)
I0428 19:42:32.395335 25087 net.cpp:139] Memory required for data: 1718800
I0428 19:42:32.395339 25087 layer_factory.hpp:77] Creating layer ip2_relu2_0_split
I0428 19:42:32.395359 25087 net.cpp:86] Creating Layer ip2_relu2_0_split
I0428 19:42:32.395364 25087 net.cpp:408] ip2_relu2_0_split <- ip2
I0428 19:42:32.395367 25087 net.cpp:382] ip2_relu2_0_split -> ip2_relu2_0_split_0
I0428 19:42:32.395383 25087 net.cpp:382] ip2_relu2_0_split -> ip2_relu2_0_split_1
I0428 19:42:32.395437 25087 net.cpp:124] Setting up ip2_relu2_0_split
I0428 19:42:32.395442 25087 net.cpp:131] Top shape: 100 10 (1000)
I0428 19:42:32.395447 25087 net.cpp:131] Top shape: 100 10 (1000)
I0428 19:42:32.395457 25087 net.cpp:139] Memory required for data: 1726800
I0428 19:42:32.395460 25087 layer_factory.hpp:77] Creating layer accuracy
I0428 19:42:32.395465 25087 net.cpp:86] Creating Layer accuracy
I0428 19:42:32.395468 25087 net.cpp:408] accuracy <- ip2_relu2_0_split_0
I0428 19:42:32.395489 25087 net.cpp:408] accuracy <- label_mnist_1_split_0
I0428 19:42:32.395495 25087 net.cpp:382] accuracy -> accuracy
…
