…
I0428 19:48:13.726173 26428 net.cpp:296] The NetState phase (0) differed from the phase (1) specified by a rule in layer mnist
I0428 19:48:13.726188 26428 net.cpp:296] The NetState phase (0) differed from the phase (1) specified by a rule in layer accuracy
I0428 19:48:13.726270 26428 net.cpp:53] Initializing net from parameters: 
name: "LeNet"
state {
  phase: TRAIN
  level: 0
  stage: ""
}
layer {
  name: "mnist"
  type: "Data"
  top: "data"
  top: "label"
  include {
    phase: TRAIN
  }
  transform_param {
    scale: 0.00390625
  }
  data_param {
    source: "examples/mnist/mnist_train_lmdb"
    batch_size: 64
    backend: LMDB
  }
}
layer {
  name: "conv0"
  type: "Convolution"
  bottom: "data"
  top: "conv0"
  param {
    lr_mult: 1
  }
  param {
    lr_mult: 2
  }
  convolution_param {
    num_output: 5
    kernel_size: 5
    stride: 1
    weight_filler {
      type: "xavier"
    }
    bias_filler {
      type: "constant"
    }
  }
}
layer {
  name: "pool0"
  type: "Pooling"
  bottom: "conv0"
  top: "pool0"
  pooling_param {
    pool: MAX
    kernel_size: 2
    stride: 2
  }
}
layer {
  name: "conv1"
  type: "Convolution"
  bottom: "pool0"
  top: "conv1"
  param {
    lr_mult: 1
  }
  param {
    lr_mult: 2
  }
  convolution_param {
    num_output: 2
    kernel_size: 5
    stride: 1
    weight_filler {
      type: "xavier"
    }
    bias_filler {
      type: "constant"
    }
  }
}
layer {
  name: "pool1"
  type: "Pooling"
  bottom: "conv1"
  top: "pool1"
  pooling_param {
    pool: MAX
    kernel_size: 2
    stride: 2
  }
}
layer {
  name: "ip1"
  type: "InnerProduct"
  bottom: "pool1"
  top: "ip1"
  param {
    lr_mult: 1
  }
  param {
    lr_mult: 2
  }
  inner_product_param {
    num_output: 50
    weight_filler {
      type: "xavier"
    }
    bias_filler {
      type: "constant"
    }
  }
}
layer {
  name: "relu1"
  type: "ReLU"
  bottom: "ip1"
  top: "ip1"
}
layer {
  name: "ip2"
  type: "InnerProduct"
  bottom: "ip1"
  top: "ip2"
  param {
    lr_mult: 1
  }
  param {
    lr_mult: 2
  }
  inner_product_param {
    num_output: 10
    weight_filler {
      type: "xavier"
    }
    bias_filler {
      type: "constant"
    }
  }
}
layer {
  name: "relu2"
  type: "ReLU"
  bottom: "ip2"
  top: "ip2"
}
layer {
  name: "ip3"
  type: "InnerProduct"
  bottom: "ip2"
  top: "ip3"
  param {
    lr_mult: 1
  }
  param {
    lr_mult: 2
  }
  inner_product_param {
    num_output: 10
    weight_filler {
      type: "xavier"
    }
    bias_filler {
      type: "constant"
    }
  }
}
layer {
  name: "relu3"
  type: "ReLU"
  bottom: "ip3"
  top: "ip3"
}
layer {
  name: "loss"
  type: "SoftmaxWithLoss"
  bottom: "ip3"
  bottom: "label"
  top: "loss"
}
I0428 19:48:13.726336 26428 layer_factory.hpp:77] Creating layer mnist
I0428 19:48:13.726433 26428 db_lmdb.cpp:35] Opened lmdb examples/mnist/mnist_train_lmdb
I0428 19:48:13.726452 26428 net.cpp:86] Creating Layer mnist
I0428 19:48:13.726459 26428 net.cpp:382] mnist -> data
I0428 19:48:13.726480 26428 net.cpp:382] mnist -> label
I0428 19:48:13.727455 26428 data_layer.cpp:45] output data size: 64,1,28,28
I0428 19:48:13.729645 26428 net.cpp:124] Setting up mnist
I0428 19:48:13.729660 26428 net.cpp:131] Top shape: 64 1 28 28 (50176)
I0428 19:48:13.729668 26428 net.cpp:131] Top shape: 64 (64)
I0428 19:48:13.729671 26428 net.cpp:139] Memory required for data: 200960
I0428 19:48:13.729676 26428 layer_factory.hpp:77] Creating layer conv0
I0428 19:48:13.729689 26428 net.cpp:86] Creating Layer conv0
I0428 19:48:13.729707 26428 net.cpp:408] conv0 <- data
I0428 19:48:13.729718 26428 net.cpp:382] conv0 -> conv0
I0428 19:48:13.964871 26428 net.cpp:124] Setting up conv0
I0428 19:48:13.964913 26428 net.cpp:131] Top shape: 64 5 24 24 (184320)
I0428 19:48:13.964918 26428 net.cpp:139] Memory required for data: 938240
I0428 19:48:13.964932 26428 layer_factory.hpp:77] Creating layer pool0
I0428 19:48:13.964946 26428 net.cpp:86] Creating Layer pool0
I0428 19:48:13.964949 26428 net.cpp:408] pool0 <- conv0
I0428 19:48:13.964956 26428 net.cpp:382] pool0 -> pool0
I0428 19:48:13.965019 26428 net.cpp:124] Setting up pool0
I0428 19:48:13.965024 26428 net.cpp:131] Top shape: 64 5 12 12 (46080)
I0428 19:48:13.965028 26428 net.cpp:139] Memory required for data: 1122560
I0428 19:48:13.965030 26428 layer_factory.hpp:77] Creating layer conv1
I0428 19:48:13.965041 26428 net.cpp:86] Creating Layer conv1
I0428 19:48:13.965044 26428 net.cpp:408] conv1 <- pool0
I0428 19:48:13.965049 26428 net.cpp:382] conv1 -> conv1
I0428 19:48:13.966991 26428 net.cpp:124] Setting up conv1
I0428 19:48:13.967005 26428 net.cpp:131] Top shape: 64 2 8 8 (8192)
I0428 19:48:13.967010 26428 net.cpp:139] Memory required for data: 1155328
I0428 19:48:13.967018 26428 layer_factory.hpp:77] Creating layer pool1
I0428 19:48:13.967025 26428 net.cpp:86] Creating Layer pool1
I0428 19:48:13.967030 26428 net.cpp:408] pool1 <- conv1
I0428 19:48:13.967034 26428 net.cpp:382] pool1 -> pool1
I0428 19:48:13.967069 26428 net.cpp:124] Setting up pool1
I0428 19:48:13.967075 26428 net.cpp:131] Top shape: 64 2 4 4 (2048)
I0428 19:48:13.967078 26428 net.cpp:139] Memory required for data: 1163520
I0428 19:48:13.967082 26428 layer_factory.hpp:77] Creating layer ip1
I0428 19:48:13.967087 26428 net.cpp:86] Creating Layer ip1
I0428 19:48:13.967092 26428 net.cpp:408] ip1 <- pool1
I0428 19:48:13.967095 26428 net.cpp:382] ip1 -> ip1
I0428 19:48:13.968096 26428 net.cpp:124] Setting up ip1
I0428 19:48:13.968107 26428 net.cpp:131] Top shape: 64 50 (3200)
I0428 19:48:13.968111 26428 net.cpp:139] Memory required for data: 1176320
I0428 19:48:13.968119 26428 layer_factory.hpp:77] Creating layer relu1
I0428 19:48:13.968127 26428 net.cpp:86] Creating Layer relu1
I0428 19:48:13.968129 26428 net.cpp:408] relu1 <- ip1
I0428 19:48:13.968133 26428 net.cpp:369] relu1 -> ip1 (in-place)
I0428 19:48:13.968291 26428 net.cpp:124] Setting up relu1
I0428 19:48:13.968300 26428 net.cpp:131] Top shape: 64 50 (3200)
I0428 19:48:13.968303 26428 net.cpp:139] Memory required for data: 1189120
I0428 19:48:13.968307 26428 layer_factory.hpp:77] Creating layer ip2
I0428 19:48:13.968312 26428 net.cpp:86] Creating Layer ip2
I0428 19:48:13.968315 26428 net.cpp:408] ip2 <- ip1
I0428 19:48:13.968320 26428 net.cpp:382] ip2 -> ip2
I0428 19:48:13.968413 26428 net.cpp:124] Setting up ip2
I0428 19:48:13.968420 26428 net.cpp:131] Top shape: 64 10 (640)
I0428 19:48:13.968423 26428 net.cpp:139] Memory required for data: 1191680
I0428 19:48:13.968428 26428 layer_factory.hpp:77] Creating layer relu2
I0428 19:48:13.968435 26428 net.cpp:86] Creating Layer relu2
I0428 19:48:13.968437 26428 net.cpp:408] relu2 <- ip2
I0428 19:48:13.968441 26428 net.cpp:369] relu2 -> ip2 (in-place)
I0428 19:48:13.969301 26428 net.cpp:124] Setting up relu2
I0428 19:48:13.969329 26428 net.cpp:131] Top shape: 64 10 (640)
I0428 19:48:13.969332 26428 net.cpp:139] Memory required for data: 1194240
I0428 19:48:13.969336 26428 layer_factory.hpp:77] Creating layer ip3
I0428 19:48:13.969343 26428 net.cpp:86] Creating Layer ip3
I0428 19:48:13.969347 26428 net.cpp:408] ip3 <- ip2
I0428 19:48:13.969353 26428 net.cpp:382] ip3 -> ip3
I0428 19:48:13.969449 26428 net.cpp:124] Setting up ip3
I0428 19:48:13.969456 26428 net.cpp:131] Top shape: 64 10 (640)
I0428 19:48:13.969460 26428 net.cpp:139] Memory required for data: 1196800
I0428 19:48:13.969467 26428 layer_factory.hpp:77] Creating layer relu3
I0428 19:48:13.969472 26428 net.cpp:86] Creating Layer relu3
I0428 19:48:13.969475 26428 net.cpp:408] relu3 <- ip3
I0428 19:48:13.969480 26428 net.cpp:369] relu3 -> ip3 (in-place)
I0428 19:48:13.969635 26428 net.cpp:124] Setting up relu3
I0428 19:48:13.969645 26428 net.cpp:131] Top shape: 64 10 (640)
I0428 19:48:13.969647 26428 net.cpp:139] Memory required for data: 1199360
I0428 19:48:13.969650 26428 layer_factory.hpp:77] Creating layer loss
I0428 19:48:13.969655 26428 net.cpp:86] Creating Layer loss
I0428 19:48:13.969658 26428 net.cpp:408] loss <- ip3
I0428 19:48:13.969662 26428 net.cpp:408] loss <- label
I0428 19:48:13.969667 26428 net.cpp:382] loss -> loss
I0428 19:48:13.969686 26428 layer_factory.hpp:77] Creating layer loss
…
I0428 19:48:13.970362 26428 solver.cpp:173] Creating test net (#0) specified by net file: ECE595/mnist/train_test/var_everything2/lenet_train_test538.prototxt
I0428 19:48:13.970389 26428 net.cpp:296] The NetState phase (1) differed from the phase (0) specified by a rule in layer mnist
I0428 19:48:13.970494 26428 net.cpp:53] Initializing net from parameters: 
name: "LeNet"
state {
  phase: TEST
}
layer {
  name: "mnist"
  type: "Data"
  top: "data"
  top: "label"
  include {
    phase: TEST
  }
  transform_param {
    scale: 0.00390625
  }
  data_param {
    source: "examples/mnist/mnist_test_lmdb"
    batch_size: 100
    backend: LMDB
  }
}
layer {
  name: "conv0"
  type: "Convolution"
  bottom: "data"
  top: "conv0"
  param {
    lr_mult: 1
  }
  param {
    lr_mult: 2
  }
  convolution_param {
    num_output: 5
    kernel_size: 5
    stride: 1
    weight_filler {
      type: "xavier"
    }
    bias_filler {
      type: "constant"
    }
  }
}
layer {
  name: "pool0"
  type: "Pooling"
  bottom: "conv0"
  top: "pool0"
  pooling_param {
    pool: MAX
    kernel_size: 2
    stride: 2
  }
}
layer {
  name: "conv1"
  type: "Convolution"
  bottom: "pool0"
  top: "conv1"
  param {
    lr_mult: 1
  }
  param {
    lr_mult: 2
  }
  convolution_param {
    num_output: 2
    kernel_size: 5
    stride: 1
    weight_filler {
      type: "xavier"
    }
    bias_filler {
      type: "constant"
    }
  }
}
layer {
  name: "pool1"
  type: "Pooling"
  bottom: "conv1"
  top: "pool1"
  pooling_param {
    pool: MAX
    kernel_size: 2
    stride: 2
  }
}
layer {
  name: "ip1"
  type: "InnerProduct"
  bottom: "pool1"
  top: "ip1"
  param {
    lr_mult: 1
  }
  param {
    lr_mult: 2
  }
  inner_product_param {
    num_output: 50
    weight_filler {
      type: "xavier"
    }
    bias_filler {
      type: "constant"
    }
  }
}
layer {
  name: "relu1"
  type: "ReLU"
  bottom: "ip1"
  top: "ip1"
}
layer {
  name: "ip2"
  type: "InnerProduct"
  bottom: "ip1"
  top: "ip2"
  param {
    lr_mult: 1
  }
  param {
    lr_mult: 2
  }
  inner_product_param {
    num_output: 10
    weight_filler {
      type: "xavier"
    }
    bias_filler {
      type: "constant"
    }
  }
}
layer {
  name: "relu2"
  type: "ReLU"
  bottom: "ip2"
  top: "ip2"
}
layer {
  name: "ip3"
  type: "InnerProduct"
  bottom: "ip2"
  top: "ip3"
  param {
    lr_mult: 1
  }
  param {
    lr_mult: 2
  }
  inner_product_param {
    num_output: 10
    weight_filler {
      type: "xavier"
    }
    bias_filler {
      type: "constant"
    }
  }
}
layer {
  name: "relu3"
  type: "ReLU"
  bottom: "ip3"
  top: "ip3"
}
layer {
  name: "accuracy"
  type: "Accuracy"
  bottom: "ip3"
  bottom: "label"
  top: "accuracy"
  include {
    phase: TEST
  }
}
layer {
  name: "loss"
  type: "SoftmaxWithLoss"
  bottom: "ip3"
  bottom: "label"
  top: "loss"
}
I0428 19:48:13.970571 26428 layer_factory.hpp:77] Creating layer mnist
I0428 19:48:13.970613 26428 db_lmdb.cpp:35] Opened lmdb examples/mnist/mnist_test_lmdb
I0428 19:48:13.970625 26428 net.cpp:86] Creating Layer mnist
I0428 19:48:13.970629 26428 net.cpp:382] mnist -> data
I0428 19:48:13.970638 26428 net.cpp:382] mnist -> label
I0428 19:48:13.970715 26428 data_layer.cpp:45] output data size: 100,1,28,28
I0428 19:48:13.972653 26428 net.cpp:124] Setting up mnist
I0428 19:48:13.972666 26428 net.cpp:131] Top shape: 100 1 28 28 (78400)
I0428 19:48:13.972671 26428 net.cpp:131] Top shape: 100 (100)
I0428 19:48:13.972674 26428 net.cpp:139] Memory required for data: 314000
I0428 19:48:13.972677 26428 layer_factory.hpp:77] Creating layer label_mnist_1_split
I0428 19:48:13.972687 26428 net.cpp:86] Creating Layer label_mnist_1_split
I0428 19:48:13.972690 26428 net.cpp:408] label_mnist_1_split <- label
I0428 19:48:13.972695 26428 net.cpp:382] label_mnist_1_split -> label_mnist_1_split_0
I0428 19:48:13.972702 26428 net.cpp:382] label_mnist_1_split -> label_mnist_1_split_1
I0428 19:48:13.972789 26428 net.cpp:124] Setting up label_mnist_1_split
I0428 19:48:13.972807 26428 net.cpp:131] Top shape: 100 (100)
I0428 19:48:13.972834 26428 net.cpp:131] Top shape: 100 (100)
I0428 19:48:13.972837 26428 net.cpp:139] Memory required for data: 314800
I0428 19:48:13.972841 26428 layer_factory.hpp:77] Creating layer conv0
I0428 19:48:13.972848 26428 net.cpp:86] Creating Layer conv0
I0428 19:48:13.972851 26428 net.cpp:408] conv0 <- data
I0428 19:48:13.972856 26428 net.cpp:382] conv0 -> conv0
I0428 19:48:13.974488 26428 net.cpp:124] Setting up conv0
I0428 19:48:13.974516 26428 net.cpp:131] Top shape: 100 5 24 24 (288000)
I0428 19:48:13.974520 26428 net.cpp:139] Memory required for data: 1466800
I0428 19:48:13.974544 26428 layer_factory.hpp:77] Creating layer pool0
I0428 19:48:13.974550 26428 net.cpp:86] Creating Layer pool0
I0428 19:48:13.974553 26428 net.cpp:408] pool0 <- conv0
I0428 19:48:13.974557 26428 net.cpp:382] pool0 -> pool0
I0428 19:48:13.974591 26428 net.cpp:124] Setting up pool0
I0428 19:48:13.974597 26428 net.cpp:131] Top shape: 100 5 12 12 (72000)
I0428 19:48:13.974601 26428 net.cpp:139] Memory required for data: 1754800
I0428 19:48:13.974603 26428 layer_factory.hpp:77] Creating layer conv1
I0428 19:48:13.974611 26428 net.cpp:86] Creating Layer conv1
I0428 19:48:13.974614 26428 net.cpp:408] conv1 <- pool0
I0428 19:48:13.974618 26428 net.cpp:382] conv1 -> conv1
I0428 19:48:13.976713 26428 net.cpp:124] Setting up conv1
I0428 19:48:13.976755 26428 net.cpp:131] Top shape: 100 2 8 8 (12800)
I0428 19:48:13.976759 26428 net.cpp:139] Memory required for data: 1806000
I0428 19:48:13.976768 26428 layer_factory.hpp:77] Creating layer pool1
I0428 19:48:13.976788 26428 net.cpp:86] Creating Layer pool1
I0428 19:48:13.976793 26428 net.cpp:408] pool1 <- conv1
I0428 19:48:13.976796 26428 net.cpp:382] pool1 -> pool1
I0428 19:48:13.976886 26428 net.cpp:124] Setting up pool1
I0428 19:48:13.976893 26428 net.cpp:131] Top shape: 100 2 4 4 (3200)
I0428 19:48:13.976897 26428 net.cpp:139] Memory required for data: 1818800
I0428 19:48:13.976900 26428 layer_factory.hpp:77] Creating layer ip1
I0428 19:48:13.976907 26428 net.cpp:86] Creating Layer ip1
I0428 19:48:13.976910 26428 net.cpp:408] ip1 <- pool1
I0428 19:48:13.976915 26428 net.cpp:382] ip1 -> ip1
I0428 19:48:13.977088 26428 net.cpp:124] Setting up ip1
I0428 19:48:13.977097 26428 net.cpp:131] Top shape: 100 50 (5000)
I0428 19:48:13.977111 26428 net.cpp:139] Memory required for data: 1838800
I0428 19:48:13.977120 26428 layer_factory.hpp:77] Creating layer relu1
I0428 19:48:13.977125 26428 net.cpp:86] Creating Layer relu1
I0428 19:48:13.977128 26428 net.cpp:408] relu1 <- ip1
I0428 19:48:13.977133 26428 net.cpp:369] relu1 -> ip1 (in-place)
I0428 19:48:13.977324 26428 net.cpp:124] Setting up relu1
I0428 19:48:13.977332 26428 net.cpp:131] Top shape: 100 50 (5000)
I0428 19:48:13.977335 26428 net.cpp:139] Memory required for data: 1858800
I0428 19:48:13.977339 26428 layer_factory.hpp:77] Creating layer ip2
I0428 19:48:13.977345 26428 net.cpp:86] Creating Layer ip2
I0428 19:48:13.977349 26428 net.cpp:408] ip2 <- ip1
I0428 19:48:13.977354 26428 net.cpp:382] ip2 -> ip2
I0428 19:48:13.977450 26428 net.cpp:124] Setting up ip2
I0428 19:48:13.977458 26428 net.cpp:131] Top shape: 100 10 (1000)
I0428 19:48:13.977468 26428 net.cpp:139] Memory required for data: 1862800
I0428 19:48:13.977473 26428 layer_factory.hpp:77] Creating layer relu2
I0428 19:48:13.977478 26428 net.cpp:86] Creating Layer relu2
I0428 19:48:13.977496 26428 net.cpp:408] relu2 <- ip2
I0428 19:48:13.977517 26428 net.cpp:369] relu2 -> ip2 (in-place)
I0428 19:48:13.977658 26428 net.cpp:124] Setting up relu2
I0428 19:48:13.977664 26428 net.cpp:131] Top shape: 100 10 (1000)
I0428 19:48:13.977668 26428 net.cpp:139] Memory required for data: 1866800
I0428 19:48:13.977677 26428 layer_factory.hpp:77] Creating layer ip3
I0428 19:48:13.977682 26428 net.cpp:86] Creating Layer ip3
I0428 19:48:13.977685 26428 net.cpp:408] ip3 <- ip2
I0428 19:48:13.977690 26428 net.cpp:382] ip3 -> ip3
I0428 19:48:13.977777 26428 net.cpp:124] Setting up ip3
I0428 19:48:13.977784 26428 net.cpp:131] Top shape: 100 10 (1000)
I0428 19:48:13.977788 26428 net.cpp:139] Memory required for data: 1870800
I0428 19:48:13.977795 26428 layer_factory.hpp:77] Creating layer relu3
I0428 19:48:13.977807 26428 net.cpp:86] Creating Layer relu3
I0428 19:48:13.977823 26428 net.cpp:408] relu3 <- ip3
I0428 19:48:13.977828 26428 net.cpp:369] relu3 -> ip3 (in-place)
I0428 19:48:13.978637 26428 net.cpp:124] Setting up relu3
I0428 19:48:13.978649 26428 net.cpp:131] Top shape: 100 10 (1000)
I0428 19:48:13.978652 26428 net.cpp:139] Memory required for data: 1874800
I0428 19:48:13.978657 26428 layer_factory.hpp:77] Creating layer ip3_relu3_0_split
I0428 19:48:13.978662 26428 net.cpp:86] Creating Layer ip3_relu3_0_split
I0428 19:48:13.978664 26428 net.cpp:408] ip3_relu3_0_split <- ip3
I0428 19:48:13.978669 26428 net.cpp:382] ip3_relu3_0_split -> ip3_relu3_0_split_0
I0428 19:48:13.978675 26428 net.cpp:382] ip3_relu3_0_split -> ip3_relu3_0_split_1
I0428 19:48:13.978714 26428 net.cpp:124] Setting up ip3_relu3_0_split
I0428 19:48:13.978719 26428 net.cpp:131] Top shape: 100 10 (1000)
I0428 19:48:13.978723 26428 net.cpp:131] Top shape: 100 10 (1000)
I0428 19:48:13.978725 26428 net.cpp:139] Memory required for data: 1882800
I0428 19:48:13.978734 26428 layer_factory.hpp:77] Creating layer accuracy
I0428 19:48:13.978744 26428 net.cpp:86] Creating Layer accuracy
I0428 19:48:13.978747 26428 net.cpp:408] accuracy <- ip3_relu3_0_split_0
I0428 19:48:13.978751 26428 net.cpp:408] accuracy <- label_mnist_1_split_0
I0428 19:48:13.978755 26428 net.cpp:382] accuracy -> accuracy
…
