…
I0428 20:16:14.955307   615 net.cpp:296] The NetState phase (0) differed from the phase (1) specified by a rule in layer mnist
I0428 20:16:14.955327   615 net.cpp:296] The NetState phase (0) differed from the phase (1) specified by a rule in layer accuracy
I0428 20:16:14.955427   615 net.cpp:53] Initializing net from parameters: 
name: "LeNet"
state {
  phase: TRAIN
  level: 0
  stage: ""
}
layer {
  name: "mnist"
  type: "Data"
  top: "data"
  top: "label"
  include {
    phase: TRAIN
  }
  transform_param {
    scale: 0.00390625
  }
  data_param {
    source: "examples/mnist/mnist_train_lmdb"
    batch_size: 64
    backend: LMDB
  }
}
layer {
  name: "conv0"
  type: "Convolution"
  bottom: "data"
  top: "conv0"
  param {
    lr_mult: 1
  }
  param {
    lr_mult: 2
  }
  convolution_param {
    num_output: 50
    kernel_size: 5
    stride: 1
    weight_filler {
      type: "xavier"
    }
    bias_filler {
      type: "constant"
    }
  }
}
layer {
  name: "pool0"
  type: "Pooling"
  bottom: "conv0"
  top: "pool0"
  pooling_param {
    pool: MAX
    kernel_size: 2
    stride: 2
  }
}
layer {
  name: "conv1"
  type: "Convolution"
  bottom: "pool0"
  top: "conv1"
  param {
    lr_mult: 1
  }
  param {
    lr_mult: 2
  }
  convolution_param {
    num_output: 5
    kernel_size: 5
    stride: 1
    weight_filler {
      type: "xavier"
    }
    bias_filler {
      type: "constant"
    }
  }
}
layer {
  name: "pool1"
  type: "Pooling"
  bottom: "conv1"
  top: "pool1"
  pooling_param {
    pool: MAX
    kernel_size: 2
    stride: 2
  }
}
layer {
  name: "ip1"
  type: "InnerProduct"
  bottom: "pool1"
  top: "ip1"
  param {
    lr_mult: 1
  }
  param {
    lr_mult: 2
  }
  inner_product_param {
    num_output: 10
    weight_filler {
      type: "xavier"
    }
    bias_filler {
      type: "constant"
    }
  }
}
layer {
  name: "relu1"
  type: "ReLU"
  bottom: "ip1"
  top: "ip1"
}
layer {
  name: "ip2"
  type: "InnerProduct"
  bottom: "ip1"
  top: "ip2"
  param {
    lr_mult: 1
  }
  param {
    lr_mult: 2
  }
  inner_product_param {
    num_output: 50
    weight_filler {
      type: "xavier"
    }
    bias_filler {
      type: "constant"
    }
  }
}
layer {
  name: "relu2"
  type: "ReLU"
  bottom: "ip2"
  top: "ip2"
}
layer {
  name: "ip3"
  type: "InnerProduct"
  bottom: "ip2"
  top: "ip3"
  param {
    lr_mult: 1
  }
  param {
    lr_mult: 2
  }
  inner_product_param {
    num_output: 10
    weight_filler {
      type: "xavier"
    }
    bias_filler {
      type: "constant"
    }
  }
}
layer {
  name: "relu3"
  type: "ReLU"
  bottom: "ip3"
  top: "ip3"
}
layer {
  name: "loss"
  type: "SoftmaxWithLoss"
  bottom: "ip3"
  bottom: "label"
  top: "loss"
}
I0428 20:16:14.955507   615 layer_factory.hpp:77] Creating layer mnist
I0428 20:16:14.955605   615 db_lmdb.cpp:35] Opened lmdb examples/mnist/mnist_train_lmdb
I0428 20:16:14.955631   615 net.cpp:86] Creating Layer mnist
I0428 20:16:14.955638   615 net.cpp:382] mnist -> data
I0428 20:16:14.955659   615 net.cpp:382] mnist -> label
I0428 20:16:14.956744   615 data_layer.cpp:45] output data size: 64,1,28,28
I0428 20:16:14.959259   615 net.cpp:124] Setting up mnist
I0428 20:16:14.959278   615 net.cpp:131] Top shape: 64 1 28 28 (50176)
I0428 20:16:14.959285   615 net.cpp:131] Top shape: 64 (64)
I0428 20:16:14.959290   615 net.cpp:139] Memory required for data: 200960
I0428 20:16:14.959296   615 layer_factory.hpp:77] Creating layer conv0
I0428 20:16:14.959311   615 net.cpp:86] Creating Layer conv0
I0428 20:16:14.959332   615 net.cpp:408] conv0 <- data
I0428 20:16:14.959347   615 net.cpp:382] conv0 -> conv0
I0428 20:16:15.218821   615 net.cpp:124] Setting up conv0
I0428 20:16:15.218878   615 net.cpp:131] Top shape: 64 50 24 24 (1843200)
I0428 20:16:15.218883   615 net.cpp:139] Memory required for data: 7573760
I0428 20:16:15.218897   615 layer_factory.hpp:77] Creating layer pool0
I0428 20:16:15.218924   615 net.cpp:86] Creating Layer pool0
I0428 20:16:15.218928   615 net.cpp:408] pool0 <- conv0
I0428 20:16:15.218935   615 net.cpp:382] pool0 -> pool0
I0428 20:16:15.219002   615 net.cpp:124] Setting up pool0
I0428 20:16:15.219010   615 net.cpp:131] Top shape: 64 50 12 12 (460800)
I0428 20:16:15.219012   615 net.cpp:139] Memory required for data: 9416960
I0428 20:16:15.219017   615 layer_factory.hpp:77] Creating layer conv1
I0428 20:16:15.219025   615 net.cpp:86] Creating Layer conv1
I0428 20:16:15.219032   615 net.cpp:408] conv1 <- pool0
I0428 20:16:15.219035   615 net.cpp:382] conv1 -> conv1
I0428 20:16:15.221935   615 net.cpp:124] Setting up conv1
I0428 20:16:15.221982   615 net.cpp:131] Top shape: 64 5 8 8 (20480)
I0428 20:16:15.221985   615 net.cpp:139] Memory required for data: 9498880
I0428 20:16:15.221994   615 layer_factory.hpp:77] Creating layer pool1
I0428 20:16:15.222002   615 net.cpp:86] Creating Layer pool1
I0428 20:16:15.222021   615 net.cpp:408] pool1 <- conv1
I0428 20:16:15.222026   615 net.cpp:382] pool1 -> pool1
I0428 20:16:15.222064   615 net.cpp:124] Setting up pool1
I0428 20:16:15.222071   615 net.cpp:131] Top shape: 64 5 4 4 (5120)
I0428 20:16:15.222074   615 net.cpp:139] Memory required for data: 9519360
I0428 20:16:15.222077   615 layer_factory.hpp:77] Creating layer ip1
I0428 20:16:15.222085   615 net.cpp:86] Creating Layer ip1
I0428 20:16:15.222088   615 net.cpp:408] ip1 <- pool1
I0428 20:16:15.222093   615 net.cpp:382] ip1 -> ip1
I0428 20:16:15.222193   615 net.cpp:124] Setting up ip1
I0428 20:16:15.222200   615 net.cpp:131] Top shape: 64 10 (640)
I0428 20:16:15.222203   615 net.cpp:139] Memory required for data: 9521920
I0428 20:16:15.222211   615 layer_factory.hpp:77] Creating layer relu1
I0428 20:16:15.222218   615 net.cpp:86] Creating Layer relu1
I0428 20:16:15.222220   615 net.cpp:408] relu1 <- ip1
I0428 20:16:15.222225   615 net.cpp:369] relu1 -> ip1 (in-place)
I0428 20:16:15.222421   615 net.cpp:124] Setting up relu1
I0428 20:16:15.222429   615 net.cpp:131] Top shape: 64 10 (640)
I0428 20:16:15.222432   615 net.cpp:139] Memory required for data: 9524480
I0428 20:16:15.222435   615 layer_factory.hpp:77] Creating layer ip2
I0428 20:16:15.222441   615 net.cpp:86] Creating Layer ip2
I0428 20:16:15.222445   615 net.cpp:408] ip2 <- ip1
I0428 20:16:15.222450   615 net.cpp:382] ip2 -> ip2
I0428 20:16:15.222544   615 net.cpp:124] Setting up ip2
I0428 20:16:15.222550   615 net.cpp:131] Top shape: 64 50 (3200)
I0428 20:16:15.222553   615 net.cpp:139] Memory required for data: 9537280
I0428 20:16:15.222559   615 layer_factory.hpp:77] Creating layer relu2
I0428 20:16:15.222564   615 net.cpp:86] Creating Layer relu2
I0428 20:16:15.222568   615 net.cpp:408] relu2 <- ip2
I0428 20:16:15.222571   615 net.cpp:369] relu2 -> ip2 (in-place)
I0428 20:16:15.223294   615 net.cpp:124] Setting up relu2
I0428 20:16:15.223305   615 net.cpp:131] Top shape: 64 50 (3200)
I0428 20:16:15.223326   615 net.cpp:139] Memory required for data: 9550080
I0428 20:16:15.223330   615 layer_factory.hpp:77] Creating layer ip3
I0428 20:16:15.223336   615 net.cpp:86] Creating Layer ip3
I0428 20:16:15.223340   615 net.cpp:408] ip3 <- ip2
I0428 20:16:15.223345   615 net.cpp:382] ip3 -> ip3
I0428 20:16:15.223457   615 net.cpp:124] Setting up ip3
I0428 20:16:15.223464   615 net.cpp:131] Top shape: 64 10 (640)
I0428 20:16:15.223467   615 net.cpp:139] Memory required for data: 9552640
I0428 20:16:15.223475   615 layer_factory.hpp:77] Creating layer relu3
I0428 20:16:15.223480   615 net.cpp:86] Creating Layer relu3
I0428 20:16:15.223486   615 net.cpp:408] relu3 <- ip3
I0428 20:16:15.223491   615 net.cpp:369] relu3 -> ip3 (in-place)
I0428 20:16:15.223704   615 net.cpp:124] Setting up relu3
I0428 20:16:15.223713   615 net.cpp:131] Top shape: 64 10 (640)
I0428 20:16:15.223716   615 net.cpp:139] Memory required for data: 9555200
I0428 20:16:15.223721   615 layer_factory.hpp:77] Creating layer loss
I0428 20:16:15.223726   615 net.cpp:86] Creating Layer loss
I0428 20:16:15.223729   615 net.cpp:408] loss <- ip3
I0428 20:16:15.223734   615 net.cpp:408] loss <- label
I0428 20:16:15.223739   615 net.cpp:382] loss -> loss
I0428 20:16:15.223754   615 layer_factory.hpp:77] Creating layer loss
…
I0428 20:16:15.224519   615 solver.cpp:173] Creating test net (#0) specified by net file: ECE595/mnist/train_test/var_everything2/lenet_train_test1266.prototxt
I0428 20:16:15.224566   615 net.cpp:296] The NetState phase (1) differed from the phase (0) specified by a rule in layer mnist
I0428 20:16:15.224663   615 net.cpp:53] Initializing net from parameters: 
name: "LeNet"
state {
  phase: TEST
}
layer {
  name: "mnist"
  type: "Data"
  top: "data"
  top: "label"
  include {
    phase: TEST
  }
  transform_param {
    scale: 0.00390625
  }
  data_param {
    source: "examples/mnist/mnist_test_lmdb"
    batch_size: 100
    backend: LMDB
  }
}
layer {
  name: "conv0"
  type: "Convolution"
  bottom: "data"
  top: "conv0"
  param {
    lr_mult: 1
  }
  param {
    lr_mult: 2
  }
  convolution_param {
    num_output: 50
    kernel_size: 5
    stride: 1
    weight_filler {
      type: "xavier"
    }
    bias_filler {
      type: "constant"
    }
  }
}
layer {
  name: "pool0"
  type: "Pooling"
  bottom: "conv0"
  top: "pool0"
  pooling_param {
    pool: MAX
    kernel_size: 2
    stride: 2
  }
}
layer {
  name: "conv1"
  type: "Convolution"
  bottom: "pool0"
  top: "conv1"
  param {
    lr_mult: 1
  }
  param {
    lr_mult: 2
  }
  convolution_param {
    num_output: 5
    kernel_size: 5
    stride: 1
    weight_filler {
      type: "xavier"
    }
    bias_filler {
      type: "constant"
    }
  }
}
layer {
  name: "pool1"
  type: "Pooling"
  bottom: "conv1"
  top: "pool1"
  pooling_param {
    pool: MAX
    kernel_size: 2
    stride: 2
  }
}
layer {
  name: "ip1"
  type: "InnerProduct"
  bottom: "pool1"
  top: "ip1"
  param {
    lr_mult: 1
  }
  param {
    lr_mult: 2
  }
  inner_product_param {
    num_output: 10
    weight_filler {
      type: "xavier"
    }
    bias_filler {
      type: "constant"
    }
  }
}
layer {
  name: "relu1"
  type: "ReLU"
  bottom: "ip1"
  top: "ip1"
}
layer {
  name: "ip2"
  type: "InnerProduct"
  bottom: "ip1"
  top: "ip2"
  param {
    lr_mult: 1
  }
  param {
    lr_mult: 2
  }
  inner_product_param {
    num_output: 50
    weight_filler {
      type: "xavier"
    }
    bias_filler {
      type: "constant"
    }
  }
}
layer {
  name: "relu2"
  type: "ReLU"
  bottom: "ip2"
  top: "ip2"
}
layer {
  name: "ip3"
  type: "InnerProduct"
  bottom: "ip2"
  top: "ip3"
  param {
    lr_mult: 1
  }
  param {
    lr_mult: 2
  }
  inner_product_param {
    num_output: 10
    weight_filler {
      type: "xavier"
    }
    bias_filler {
      type: "constant"
    }
  }
}
layer {
  name: "relu3"
  type: "ReLU"
  bottom: "ip3"
  top: "ip3"
}
layer {
  name: "accuracy"
  type: "Accuracy"
  bottom: "ip3"
  bottom: "label"
  top: "accuracy"
  include {
    phase: TEST
  }
}
layer {
  name: "loss"
  type: "SoftmaxWithLoss"
  bottom: "ip3"
  bottom: "label"
  top: "loss"
}
I0428 20:16:15.224762   615 layer_factory.hpp:77] Creating layer mnist
I0428 20:16:15.224815   615 db_lmdb.cpp:35] Opened lmdb examples/mnist/mnist_test_lmdb
I0428 20:16:15.224843   615 net.cpp:86] Creating Layer mnist
I0428 20:16:15.224848   615 net.cpp:382] mnist -> data
I0428 20:16:15.224856   615 net.cpp:382] mnist -> label
I0428 20:16:15.224946   615 data_layer.cpp:45] output data size: 100,1,28,28
I0428 20:16:15.226902   615 net.cpp:124] Setting up mnist
I0428 20:16:15.226943   615 net.cpp:131] Top shape: 100 1 28 28 (78400)
I0428 20:16:15.226948   615 net.cpp:131] Top shape: 100 (100)
I0428 20:16:15.226969   615 net.cpp:139] Memory required for data: 314000
I0428 20:16:15.226972   615 layer_factory.hpp:77] Creating layer label_mnist_1_split
I0428 20:16:15.226979   615 net.cpp:86] Creating Layer label_mnist_1_split
I0428 20:16:15.226982   615 net.cpp:408] label_mnist_1_split <- label
I0428 20:16:15.226987   615 net.cpp:382] label_mnist_1_split -> label_mnist_1_split_0
I0428 20:16:15.227010   615 net.cpp:382] label_mnist_1_split -> label_mnist_1_split_1
I0428 20:16:15.227051   615 net.cpp:124] Setting up label_mnist_1_split
I0428 20:16:15.227058   615 net.cpp:131] Top shape: 100 (100)
I0428 20:16:15.227062   615 net.cpp:131] Top shape: 100 (100)
I0428 20:16:15.227066   615 net.cpp:139] Memory required for data: 314800
I0428 20:16:15.227068   615 layer_factory.hpp:77] Creating layer conv0
I0428 20:16:15.227092   615 net.cpp:86] Creating Layer conv0
I0428 20:16:15.227097   615 net.cpp:408] conv0 <- data
I0428 20:16:15.227102   615 net.cpp:382] conv0 -> conv0
I0428 20:16:15.228919   615 net.cpp:124] Setting up conv0
I0428 20:16:15.228948   615 net.cpp:131] Top shape: 100 50 24 24 (2880000)
I0428 20:16:15.228952   615 net.cpp:139] Memory required for data: 11834800
I0428 20:16:15.228961   615 layer_factory.hpp:77] Creating layer pool0
I0428 20:16:15.228968   615 net.cpp:86] Creating Layer pool0
I0428 20:16:15.228971   615 net.cpp:408] pool0 <- conv0
I0428 20:16:15.228991   615 net.cpp:382] pool0 -> pool0
I0428 20:16:15.229039   615 net.cpp:124] Setting up pool0
I0428 20:16:15.229046   615 net.cpp:131] Top shape: 100 50 12 12 (720000)
I0428 20:16:15.229049   615 net.cpp:139] Memory required for data: 14714800
I0428 20:16:15.229053   615 layer_factory.hpp:77] Creating layer conv1
I0428 20:16:15.229061   615 net.cpp:86] Creating Layer conv1
I0428 20:16:15.229064   615 net.cpp:408] conv1 <- pool0
I0428 20:16:15.229069   615 net.cpp:382] conv1 -> conv1
I0428 20:16:15.230808   615 net.cpp:124] Setting up conv1
I0428 20:16:15.230839   615 net.cpp:131] Top shape: 100 5 8 8 (32000)
I0428 20:16:15.230844   615 net.cpp:139] Memory required for data: 14842800
I0428 20:16:15.230854   615 layer_factory.hpp:77] Creating layer pool1
I0428 20:16:15.230860   615 net.cpp:86] Creating Layer pool1
I0428 20:16:15.230865   615 net.cpp:408] pool1 <- conv1
I0428 20:16:15.230870   615 net.cpp:382] pool1 -> pool1
I0428 20:16:15.230916   615 net.cpp:124] Setting up pool1
I0428 20:16:15.230922   615 net.cpp:131] Top shape: 100 5 4 4 (8000)
I0428 20:16:15.230926   615 net.cpp:139] Memory required for data: 14874800
I0428 20:16:15.230929   615 layer_factory.hpp:77] Creating layer ip1
I0428 20:16:15.230936   615 net.cpp:86] Creating Layer ip1
I0428 20:16:15.230939   615 net.cpp:408] ip1 <- pool1
I0428 20:16:15.230944   615 net.cpp:382] ip1 -> ip1
I0428 20:16:15.231047   615 net.cpp:124] Setting up ip1
I0428 20:16:15.231061   615 net.cpp:131] Top shape: 100 10 (1000)
I0428 20:16:15.231076   615 net.cpp:139] Memory required for data: 14878800
I0428 20:16:15.231093   615 layer_factory.hpp:77] Creating layer relu1
I0428 20:16:15.231098   615 net.cpp:86] Creating Layer relu1
I0428 20:16:15.231102   615 net.cpp:408] relu1 <- ip1
I0428 20:16:15.231107   615 net.cpp:369] relu1 -> ip1 (in-place)
I0428 20:16:15.231350   615 net.cpp:124] Setting up relu1
I0428 20:16:15.231360   615 net.cpp:131] Top shape: 100 10 (1000)
I0428 20:16:15.231384   615 net.cpp:139] Memory required for data: 14882800
I0428 20:16:15.231403   615 layer_factory.hpp:77] Creating layer ip2
I0428 20:16:15.231411   615 net.cpp:86] Creating Layer ip2
I0428 20:16:15.231416   615 net.cpp:408] ip2 <- ip1
I0428 20:16:15.231422   615 net.cpp:382] ip2 -> ip2
I0428 20:16:15.231528   615 net.cpp:124] Setting up ip2
I0428 20:16:15.231535   615 net.cpp:131] Top shape: 100 50 (5000)
I0428 20:16:15.231539   615 net.cpp:139] Memory required for data: 14902800
I0428 20:16:15.231544   615 layer_factory.hpp:77] Creating layer relu2
I0428 20:16:15.231549   615 net.cpp:86] Creating Layer relu2
I0428 20:16:15.231552   615 net.cpp:408] relu2 <- ip2
I0428 20:16:15.231557   615 net.cpp:369] relu2 -> ip2 (in-place)
I0428 20:16:15.231731   615 net.cpp:124] Setting up relu2
I0428 20:16:15.231740   615 net.cpp:131] Top shape: 100 50 (5000)
I0428 20:16:15.231744   615 net.cpp:139] Memory required for data: 14922800
I0428 20:16:15.231747   615 layer_factory.hpp:77] Creating layer ip3
I0428 20:16:15.231752   615 net.cpp:86] Creating Layer ip3
I0428 20:16:15.231756   615 net.cpp:408] ip3 <- ip2
I0428 20:16:15.231761   615 net.cpp:382] ip3 -> ip3
I0428 20:16:15.231906   615 net.cpp:124] Setting up ip3
I0428 20:16:15.231914   615 net.cpp:131] Top shape: 100 10 (1000)
I0428 20:16:15.231933   615 net.cpp:139] Memory required for data: 14926800
I0428 20:16:15.231941   615 layer_factory.hpp:77] Creating layer relu3
I0428 20:16:15.231948   615 net.cpp:86] Creating Layer relu3
I0428 20:16:15.231952   615 net.cpp:408] relu3 <- ip3
I0428 20:16:15.231961   615 net.cpp:369] relu3 -> ip3 (in-place)
I0428 20:16:15.232805   615 net.cpp:124] Setting up relu3
I0428 20:16:15.232839   615 net.cpp:131] Top shape: 100 10 (1000)
I0428 20:16:15.232843   615 net.cpp:139] Memory required for data: 14930800
I0428 20:16:15.232846   615 layer_factory.hpp:77] Creating layer ip3_relu3_0_split
I0428 20:16:15.232853   615 net.cpp:86] Creating Layer ip3_relu3_0_split
I0428 20:16:15.232857   615 net.cpp:408] ip3_relu3_0_split <- ip3
I0428 20:16:15.232862   615 net.cpp:382] ip3_relu3_0_split -> ip3_relu3_0_split_0
I0428 20:16:15.232884   615 net.cpp:382] ip3_relu3_0_split -> ip3_relu3_0_split_1
I0428 20:16:15.232926   615 net.cpp:124] Setting up ip3_relu3_0_split
I0428 20:16:15.232933   615 net.cpp:131] Top shape: 100 10 (1000)
I0428 20:16:15.232939   615 net.cpp:131] Top shape: 100 10 (1000)
I0428 20:16:15.232941   615 net.cpp:139] Memory required for data: 14938800
I0428 20:16:15.232944   615 layer_factory.hpp:77] Creating layer accuracy
I0428 20:16:15.232949   615 net.cpp:86] Creating Layer accuracy
I0428 20:16:15.232954   615 net.cpp:408] accuracy <- ip3_relu3_0_split_0
I0428 20:16:15.232959   615 net.cpp:408] accuracy <- label_mnist_1_split_0
I0428 20:16:15.232964   615 net.cpp:382] accuracy -> accuracy
…
