…
I0428 20:15:06.888062   364 net.cpp:296] The NetState phase (0) differed from the phase (1) specified by a rule in layer mnist
I0428 20:15:06.888082   364 net.cpp:296] The NetState phase (0) differed from the phase (1) specified by a rule in layer accuracy
I0428 20:15:06.888185   364 net.cpp:53] Initializing net from parameters: 
name: "LeNet"
state {
  phase: TRAIN
  level: 0
  stage: ""
}
layer {
  name: "mnist"
  type: "Data"
  top: "data"
  top: "label"
  include {
    phase: TRAIN
  }
  transform_param {
    scale: 0.00390625
  }
  data_param {
    source: "examples/mnist/mnist_train_lmdb"
    batch_size: 64
    backend: LMDB
  }
}
layer {
  name: "conv0"
  type: "Convolution"
  bottom: "data"
  top: "conv0"
  param {
    lr_mult: 1
  }
  param {
    lr_mult: 2
  }
  convolution_param {
    num_output: 50
    kernel_size: 5
    stride: 1
    weight_filler {
      type: "xavier"
    }
    bias_filler {
      type: "constant"
    }
  }
}
layer {
  name: "pool0"
  type: "Pooling"
  bottom: "conv0"
  top: "pool0"
  pooling_param {
    pool: MAX
    kernel_size: 2
    stride: 2
  }
}
layer {
  name: "conv1"
  type: "Convolution"
  bottom: "pool0"
  top: "conv1"
  param {
    lr_mult: 1
  }
  param {
    lr_mult: 2
  }
  convolution_param {
    num_output: 2
    kernel_size: 5
    stride: 1
    weight_filler {
      type: "xavier"
    }
    bias_filler {
      type: "constant"
    }
  }
}
layer {
  name: "pool1"
  type: "Pooling"
  bottom: "conv1"
  top: "pool1"
  pooling_param {
    pool: MAX
    kernel_size: 2
    stride: 2
  }
}
layer {
  name: "ip1"
  type: "InnerProduct"
  bottom: "pool1"
  top: "ip1"
  param {
    lr_mult: 1
  }
  param {
    lr_mult: 2
  }
  inner_product_param {
    num_output: 25
    weight_filler {
      type: "xavier"
    }
    bias_filler {
      type: "constant"
    }
  }
}
layer {
  name: "relu1"
  type: "ReLU"
  bottom: "ip1"
  top: "ip1"
}
layer {
  name: "ip2"
  type: "InnerProduct"
  bottom: "ip1"
  top: "ip2"
  param {
    lr_mult: 1
  }
  param {
    lr_mult: 2
  }
  inner_product_param {
    num_output: 50
    weight_filler {
      type: "xavier"
    }
    bias_filler {
      type: "constant"
    }
  }
}
layer {
  name: "relu2"
  type: "ReLU"
  bottom: "ip2"
  top: "ip2"
}
layer {
  name: "ip3"
  type: "InnerProduct"
  bottom: "ip2"
  top: "ip3"
  param {
    lr_mult: 1
  }
  param {
    lr_mult: 2
  }
  inner_product_param {
    num_output: 10
    weight_filler {
      type: "xavier"
    }
    bias_filler {
      type: "constant"
    }
  }
}
layer {
  name: "relu3"
  type: "ReLU"
  bottom: "ip3"
  top: "ip3"
}
layer {
  name: "loss"
  type: "SoftmaxWithLoss"
  bottom: "ip3"
  bottom: "label"
  top: "loss"
}
I0428 20:15:06.888265   364 layer_factory.hpp:77] Creating layer mnist
I0428 20:15:06.888370   364 db_lmdb.cpp:35] Opened lmdb examples/mnist/mnist_train_lmdb
I0428 20:15:06.888397   364 net.cpp:86] Creating Layer mnist
I0428 20:15:06.888406   364 net.cpp:382] mnist -> data
I0428 20:15:06.888429   364 net.cpp:382] mnist -> label
I0428 20:15:06.889580   364 data_layer.cpp:45] output data size: 64,1,28,28
I0428 20:15:06.892143   364 net.cpp:124] Setting up mnist
I0428 20:15:06.892161   364 net.cpp:131] Top shape: 64 1 28 28 (50176)
I0428 20:15:06.892168   364 net.cpp:131] Top shape: 64 (64)
I0428 20:15:06.892170   364 net.cpp:139] Memory required for data: 200960
I0428 20:15:06.892179   364 layer_factory.hpp:77] Creating layer conv0
I0428 20:15:06.892196   364 net.cpp:86] Creating Layer conv0
I0428 20:15:06.892218   364 net.cpp:408] conv0 <- data
I0428 20:15:06.892232   364 net.cpp:382] conv0 -> conv0
I0428 20:15:07.171242   364 net.cpp:124] Setting up conv0
I0428 20:15:07.171270   364 net.cpp:131] Top shape: 64 50 24 24 (1843200)
I0428 20:15:07.171274   364 net.cpp:139] Memory required for data: 7573760
I0428 20:15:07.171289   364 layer_factory.hpp:77] Creating layer pool0
I0428 20:15:07.171301   364 net.cpp:86] Creating Layer pool0
I0428 20:15:07.171305   364 net.cpp:408] pool0 <- conv0
I0428 20:15:07.171310   364 net.cpp:382] pool0 -> pool0
I0428 20:15:07.171370   364 net.cpp:124] Setting up pool0
I0428 20:15:07.171378   364 net.cpp:131] Top shape: 64 50 12 12 (460800)
I0428 20:15:07.171381   364 net.cpp:139] Memory required for data: 9416960
I0428 20:15:07.171385   364 layer_factory.hpp:77] Creating layer conv1
I0428 20:15:07.171396   364 net.cpp:86] Creating Layer conv1
I0428 20:15:07.171401   364 net.cpp:408] conv1 <- pool0
I0428 20:15:07.171406   364 net.cpp:382] conv1 -> conv1
I0428 20:15:07.173336   364 net.cpp:124] Setting up conv1
I0428 20:15:07.173355   364 net.cpp:131] Top shape: 64 2 8 8 (8192)
I0428 20:15:07.173362   364 net.cpp:139] Memory required for data: 9449728
I0428 20:15:07.173375   364 layer_factory.hpp:77] Creating layer pool1
I0428 20:15:07.173388   364 net.cpp:86] Creating Layer pool1
I0428 20:15:07.173393   364 net.cpp:408] pool1 <- conv1
I0428 20:15:07.173398   364 net.cpp:382] pool1 -> pool1
I0428 20:15:07.173435   364 net.cpp:124] Setting up pool1
I0428 20:15:07.173442   364 net.cpp:131] Top shape: 64 2 4 4 (2048)
I0428 20:15:07.173446   364 net.cpp:139] Memory required for data: 9457920
I0428 20:15:07.173449   364 layer_factory.hpp:77] Creating layer ip1
I0428 20:15:07.173456   364 net.cpp:86] Creating Layer ip1
I0428 20:15:07.173460   364 net.cpp:408] ip1 <- pool1
I0428 20:15:07.173465   364 net.cpp:382] ip1 -> ip1
I0428 20:15:07.173558   364 net.cpp:124] Setting up ip1
I0428 20:15:07.173565   364 net.cpp:131] Top shape: 64 25 (1600)
I0428 20:15:07.173568   364 net.cpp:139] Memory required for data: 9464320
I0428 20:15:07.173576   364 layer_factory.hpp:77] Creating layer relu1
I0428 20:15:07.173581   364 net.cpp:86] Creating Layer relu1
I0428 20:15:07.173584   364 net.cpp:408] relu1 <- ip1
I0428 20:15:07.173589   364 net.cpp:369] relu1 -> ip1 (in-place)
I0428 20:15:07.173766   364 net.cpp:124] Setting up relu1
I0428 20:15:07.173776   364 net.cpp:131] Top shape: 64 25 (1600)
I0428 20:15:07.173779   364 net.cpp:139] Memory required for data: 9470720
I0428 20:15:07.173782   364 layer_factory.hpp:77] Creating layer ip2
I0428 20:15:07.173789   364 net.cpp:86] Creating Layer ip2
I0428 20:15:07.173791   364 net.cpp:408] ip2 <- ip1
I0428 20:15:07.173796   364 net.cpp:382] ip2 -> ip2
I0428 20:15:07.173894   364 net.cpp:124] Setting up ip2
I0428 20:15:07.173902   364 net.cpp:131] Top shape: 64 50 (3200)
I0428 20:15:07.173904   364 net.cpp:139] Memory required for data: 9483520
I0428 20:15:07.173910   364 layer_factory.hpp:77] Creating layer relu2
I0428 20:15:07.173915   364 net.cpp:86] Creating Layer relu2
I0428 20:15:07.173918   364 net.cpp:408] relu2 <- ip2
I0428 20:15:07.173923   364 net.cpp:369] relu2 -> ip2 (in-place)
I0428 20:15:07.174685   364 net.cpp:124] Setting up relu2
I0428 20:15:07.174698   364 net.cpp:131] Top shape: 64 50 (3200)
I0428 20:15:07.174717   364 net.cpp:139] Memory required for data: 9496320
I0428 20:15:07.174721   364 layer_factory.hpp:77] Creating layer ip3
I0428 20:15:07.174728   364 net.cpp:86] Creating Layer ip3
I0428 20:15:07.174731   364 net.cpp:408] ip3 <- ip2
I0428 20:15:07.174736   364 net.cpp:382] ip3 -> ip3
I0428 20:15:07.174830   364 net.cpp:124] Setting up ip3
I0428 20:15:07.174839   364 net.cpp:131] Top shape: 64 10 (640)
I0428 20:15:07.174841   364 net.cpp:139] Memory required for data: 9498880
I0428 20:15:07.174849   364 layer_factory.hpp:77] Creating layer relu3
I0428 20:15:07.174854   364 net.cpp:86] Creating Layer relu3
I0428 20:15:07.174857   364 net.cpp:408] relu3 <- ip3
I0428 20:15:07.174861   364 net.cpp:369] relu3 -> ip3 (in-place)
I0428 20:15:07.175026   364 net.cpp:124] Setting up relu3
I0428 20:15:07.175035   364 net.cpp:131] Top shape: 64 10 (640)
I0428 20:15:07.175038   364 net.cpp:139] Memory required for data: 9501440
I0428 20:15:07.175041   364 layer_factory.hpp:77] Creating layer loss
I0428 20:15:07.175047   364 net.cpp:86] Creating Layer loss
I0428 20:15:07.175050   364 net.cpp:408] loss <- ip3
I0428 20:15:07.175053   364 net.cpp:408] loss <- label
I0428 20:15:07.175058   364 net.cpp:382] loss -> loss
I0428 20:15:07.175076   364 layer_factory.hpp:77] Creating layer loss
…
I0428 20:15:07.175707   364 solver.cpp:173] Creating test net (#0) specified by net file: ECE595/mnist/train_test/var_everything2/lenet_train_test1238.prototxt
I0428 20:15:07.175734   364 net.cpp:296] The NetState phase (1) differed from the phase (0) specified by a rule in layer mnist
I0428 20:15:07.175818   364 net.cpp:53] Initializing net from parameters: 
name: "LeNet"
state {
  phase: TEST
}
layer {
  name: "mnist"
  type: "Data"
  top: "data"
  top: "label"
  include {
    phase: TEST
  }
  transform_param {
    scale: 0.00390625
  }
  data_param {
    source: "examples/mnist/mnist_test_lmdb"
    batch_size: 100
    backend: LMDB
  }
}
layer {
  name: "conv0"
  type: "Convolution"
  bottom: "data"
  top: "conv0"
  param {
    lr_mult: 1
  }
  param {
    lr_mult: 2
  }
  convolution_param {
    num_output: 50
    kernel_size: 5
    stride: 1
    weight_filler {
      type: "xavier"
    }
    bias_filler {
      type: "constant"
    }
  }
}
layer {
  name: "pool0"
  type: "Pooling"
  bottom: "conv0"
  top: "pool0"
  pooling_param {
    pool: MAX
    kernel_size: 2
    stride: 2
  }
}
layer {
  name: "conv1"
  type: "Convolution"
  bottom: "pool0"
  top: "conv1"
  param {
    lr_mult: 1
  }
  param {
    lr_mult: 2
  }
  convolution_param {
    num_output: 2
    kernel_size: 5
    stride: 1
    weight_filler {
      type: "xavier"
    }
    bias_filler {
      type: "constant"
    }
  }
}
layer {
  name: "pool1"
  type: "Pooling"
  bottom: "conv1"
  top: "pool1"
  pooling_param {
    pool: MAX
    kernel_size: 2
    stride: 2
  }
}
layer {
  name: "ip1"
  type: "InnerProduct"
  bottom: "pool1"
  top: "ip1"
  param {
    lr_mult: 1
  }
  param {
    lr_mult: 2
  }
  inner_product_param {
    num_output: 25
    weight_filler {
      type: "xavier"
    }
    bias_filler {
      type: "constant"
    }
  }
}
layer {
  name: "relu1"
  type: "ReLU"
  bottom: "ip1"
  top: "ip1"
}
layer {
  name: "ip2"
  type: "InnerProduct"
  bottom: "ip1"
  top: "ip2"
  param {
    lr_mult: 1
  }
  param {
    lr_mult: 2
  }
  inner_product_param {
    num_output: 50
    weight_filler {
      type: "xavier"
    }
    bias_filler {
      type: "constant"
    }
  }
}
layer {
  name: "relu2"
  type: "ReLU"
  bottom: "ip2"
  top: "ip2"
}
layer {
  name: "ip3"
  type: "InnerProduct"
  bottom: "ip2"
  top: "ip3"
  param {
    lr_mult: 1
  }
  param {
    lr_mult: 2
  }
  inner_product_param {
    num_output: 10
    weight_filler {
      type: "xavier"
    }
    bias_filler {
      type: "constant"
    }
  }
}
layer {
  name: "relu3"
  type: "ReLU"
  bottom: "ip3"
  top: "ip3"
}
layer {
  name: "accuracy"
  type: "Accuracy"
  bottom: "ip3"
  bottom: "label"
  top: "accuracy"
  include {
    phase: TEST
  }
}
layer {
  name: "loss"
  type: "SoftmaxWithLoss"
  bottom: "ip3"
  bottom: "label"
  top: "loss"
}
I0428 20:15:07.175896   364 layer_factory.hpp:77] Creating layer mnist
I0428 20:15:07.175937   364 db_lmdb.cpp:35] Opened lmdb examples/mnist/mnist_test_lmdb
I0428 20:15:07.175950   364 net.cpp:86] Creating Layer mnist
I0428 20:15:07.175954   364 net.cpp:382] mnist -> data
I0428 20:15:07.175961   364 net.cpp:382] mnist -> label
I0428 20:15:07.176041   364 data_layer.cpp:45] output data size: 100,1,28,28
I0428 20:15:07.178130   364 net.cpp:124] Setting up mnist
I0428 20:15:07.178175   364 net.cpp:131] Top shape: 100 1 28 28 (78400)
I0428 20:15:07.178180   364 net.cpp:131] Top shape: 100 (100)
I0428 20:15:07.178184   364 net.cpp:139] Memory required for data: 314000
I0428 20:15:07.178186   364 layer_factory.hpp:77] Creating layer label_mnist_1_split
I0428 20:15:07.178194   364 net.cpp:86] Creating Layer label_mnist_1_split
I0428 20:15:07.178196   364 net.cpp:408] label_mnist_1_split <- label
I0428 20:15:07.178202   364 net.cpp:382] label_mnist_1_split -> label_mnist_1_split_0
I0428 20:15:07.178210   364 net.cpp:382] label_mnist_1_split -> label_mnist_1_split_1
I0428 20:15:07.178266   364 net.cpp:124] Setting up label_mnist_1_split
I0428 20:15:07.178273   364 net.cpp:131] Top shape: 100 (100)
I0428 20:15:07.178277   364 net.cpp:131] Top shape: 100 (100)
I0428 20:15:07.178279   364 net.cpp:139] Memory required for data: 314800
I0428 20:15:07.178282   364 layer_factory.hpp:77] Creating layer conv0
I0428 20:15:07.178292   364 net.cpp:86] Creating Layer conv0
I0428 20:15:07.178294   364 net.cpp:408] conv0 <- data
I0428 20:15:07.178299   364 net.cpp:382] conv0 -> conv0
I0428 20:15:07.180053   364 net.cpp:124] Setting up conv0
I0428 20:15:07.180083   364 net.cpp:131] Top shape: 100 50 24 24 (2880000)
I0428 20:15:07.180086   364 net.cpp:139] Memory required for data: 11834800
I0428 20:15:07.180095   364 layer_factory.hpp:77] Creating layer pool0
I0428 20:15:07.180102   364 net.cpp:86] Creating Layer pool0
I0428 20:15:07.180105   364 net.cpp:408] pool0 <- conv0
I0428 20:15:07.180110   364 net.cpp:382] pool0 -> pool0
I0428 20:15:07.180172   364 net.cpp:124] Setting up pool0
I0428 20:15:07.180188   364 net.cpp:131] Top shape: 100 50 12 12 (720000)
I0428 20:15:07.180191   364 net.cpp:139] Memory required for data: 14714800
I0428 20:15:07.180193   364 layer_factory.hpp:77] Creating layer conv1
I0428 20:15:07.180202   364 net.cpp:86] Creating Layer conv1
I0428 20:15:07.180205   364 net.cpp:408] conv1 <- pool0
I0428 20:15:07.180212   364 net.cpp:382] conv1 -> conv1
I0428 20:15:07.182468   364 net.cpp:124] Setting up conv1
I0428 20:15:07.182482   364 net.cpp:131] Top shape: 100 2 8 8 (12800)
I0428 20:15:07.182502   364 net.cpp:139] Memory required for data: 14766000
I0428 20:15:07.182509   364 layer_factory.hpp:77] Creating layer pool1
I0428 20:15:07.182516   364 net.cpp:86] Creating Layer pool1
I0428 20:15:07.182520   364 net.cpp:408] pool1 <- conv1
I0428 20:15:07.182526   364 net.cpp:382] pool1 -> pool1
I0428 20:15:07.182582   364 net.cpp:124] Setting up pool1
I0428 20:15:07.182588   364 net.cpp:131] Top shape: 100 2 4 4 (3200)
I0428 20:15:07.182591   364 net.cpp:139] Memory required for data: 14778800
I0428 20:15:07.182600   364 layer_factory.hpp:77] Creating layer ip1
I0428 20:15:07.182623   364 net.cpp:86] Creating Layer ip1
I0428 20:15:07.182626   364 net.cpp:408] ip1 <- pool1
I0428 20:15:07.182632   364 net.cpp:382] ip1 -> ip1
I0428 20:15:07.182770   364 net.cpp:124] Setting up ip1
I0428 20:15:07.182780   364 net.cpp:131] Top shape: 100 25 (2500)
I0428 20:15:07.182793   364 net.cpp:139] Memory required for data: 14788800
I0428 20:15:07.182801   364 layer_factory.hpp:77] Creating layer relu1
I0428 20:15:07.182807   364 net.cpp:86] Creating Layer relu1
I0428 20:15:07.182811   364 net.cpp:408] relu1 <- ip1
I0428 20:15:07.182814   364 net.cpp:369] relu1 -> ip1 (in-place)
I0428 20:15:07.183012   364 net.cpp:124] Setting up relu1
I0428 20:15:07.183023   364 net.cpp:131] Top shape: 100 25 (2500)
I0428 20:15:07.183046   364 net.cpp:139] Memory required for data: 14798800
I0428 20:15:07.183049   364 layer_factory.hpp:77] Creating layer ip2
I0428 20:15:07.183056   364 net.cpp:86] Creating Layer ip2
I0428 20:15:07.183060   364 net.cpp:408] ip2 <- ip1
I0428 20:15:07.183066   364 net.cpp:382] ip2 -> ip2
I0428 20:15:07.183176   364 net.cpp:124] Setting up ip2
I0428 20:15:07.183182   364 net.cpp:131] Top shape: 100 50 (5000)
I0428 20:15:07.183185   364 net.cpp:139] Memory required for data: 14818800
I0428 20:15:07.183192   364 layer_factory.hpp:77] Creating layer relu2
I0428 20:15:07.183197   364 net.cpp:86] Creating Layer relu2
I0428 20:15:07.183199   364 net.cpp:408] relu2 <- ip2
I0428 20:15:07.183204   364 net.cpp:369] relu2 -> ip2 (in-place)
I0428 20:15:07.183435   364 net.cpp:124] Setting up relu2
I0428 20:15:07.183445   364 net.cpp:131] Top shape: 100 50 (5000)
I0428 20:15:07.183450   364 net.cpp:139] Memory required for data: 14838800
I0428 20:15:07.183455   364 layer_factory.hpp:77] Creating layer ip3
I0428 20:15:07.183465   364 net.cpp:86] Creating Layer ip3
I0428 20:15:07.183471   364 net.cpp:408] ip3 <- ip2
I0428 20:15:07.183478   364 net.cpp:382] ip3 -> ip3
I0428 20:15:07.183603   364 net.cpp:124] Setting up ip3
I0428 20:15:07.183611   364 net.cpp:131] Top shape: 100 10 (1000)
I0428 20:15:07.183614   364 net.cpp:139] Memory required for data: 14842800
I0428 20:15:07.183624   364 layer_factory.hpp:77] Creating layer relu3
I0428 20:15:07.183629   364 net.cpp:86] Creating Layer relu3
I0428 20:15:07.183631   364 net.cpp:408] relu3 <- ip3
I0428 20:15:07.183640   364 net.cpp:369] relu3 -> ip3 (in-place)
I0428 20:15:07.184460   364 net.cpp:124] Setting up relu3
I0428 20:15:07.184473   364 net.cpp:131] Top shape: 100 10 (1000)
I0428 20:15:07.184491   364 net.cpp:139] Memory required for data: 14846800
I0428 20:15:07.184496   364 layer_factory.hpp:77] Creating layer ip3_relu3_0_split
I0428 20:15:07.184520   364 net.cpp:86] Creating Layer ip3_relu3_0_split
I0428 20:15:07.184528   364 net.cpp:408] ip3_relu3_0_split <- ip3
I0428 20:15:07.184533   364 net.cpp:382] ip3_relu3_0_split -> ip3_relu3_0_split_0
I0428 20:15:07.184538   364 net.cpp:382] ip3_relu3_0_split -> ip3_relu3_0_split_1
I0428 20:15:07.184609   364 net.cpp:124] Setting up ip3_relu3_0_split
I0428 20:15:07.184617   364 net.cpp:131] Top shape: 100 10 (1000)
I0428 20:15:07.184620   364 net.cpp:131] Top shape: 100 10 (1000)
I0428 20:15:07.184623   364 net.cpp:139] Memory required for data: 14854800
I0428 20:15:07.184626   364 layer_factory.hpp:77] Creating layer accuracy
I0428 20:15:07.184631   364 net.cpp:86] Creating Layer accuracy
I0428 20:15:07.184635   364 net.cpp:408] accuracy <- ip3_relu3_0_split_0
I0428 20:15:07.184639   364 net.cpp:408] accuracy <- label_mnist_1_split_0
I0428 20:15:07.184644   364 net.cpp:382] accuracy -> accuracy
…
