…
I0428 19:49:23.769213 26750 net.cpp:296] The NetState phase (0) differed from the phase (1) specified by a rule in layer mnist
I0428 19:49:23.769243 26750 net.cpp:296] The NetState phase (0) differed from the phase (1) specified by a rule in layer accuracy
I0428 19:49:23.769356 26750 net.cpp:53] Initializing net from parameters: 
name: "LeNet"
state {
  phase: TRAIN
  level: 0
  stage: ""
}
layer {
  name: "mnist"
  type: "Data"
  top: "data"
  top: "label"
  include {
    phase: TRAIN
  }
  transform_param {
    scale: 0.00390625
  }
  data_param {
    source: "examples/mnist/mnist_train_lmdb"
    batch_size: 64
    backend: LMDB
  }
}
layer {
  name: "conv0"
  type: "Convolution"
  bottom: "data"
  top: "conv0"
  param {
    lr_mult: 1
  }
  param {
    lr_mult: 2
  }
  convolution_param {
    num_output: 5
    kernel_size: 5
    stride: 1
    weight_filler {
      type: "xavier"
    }
    bias_filler {
      type: "constant"
    }
  }
}
layer {
  name: "pool0"
  type: "Pooling"
  bottom: "conv0"
  top: "pool0"
  pooling_param {
    pool: MAX
    kernel_size: 2
    stride: 2
  }
}
layer {
  name: "conv1"
  type: "Convolution"
  bottom: "pool0"
  top: "conv1"
  param {
    lr_mult: 1
  }
  param {
    lr_mult: 2
  }
  convolution_param {
    num_output: 5
    kernel_size: 5
    stride: 1
    weight_filler {
      type: "xavier"
    }
    bias_filler {
      type: "constant"
    }
  }
}
layer {
  name: "pool1"
  type: "Pooling"
  bottom: "conv1"
  top: "pool1"
  pooling_param {
    pool: MAX
    kernel_size: 2
    stride: 2
  }
}
layer {
  name: "ip1"
  type: "InnerProduct"
  bottom: "pool1"
  top: "ip1"
  param {
    lr_mult: 1
  }
  param {
    lr_mult: 2
  }
  inner_product_param {
    num_output: 25
    weight_filler {
      type: "xavier"
    }
    bias_filler {
      type: "constant"
    }
  }
}
layer {
  name: "relu1"
  type: "ReLU"
  bottom: "ip1"
  top: "ip1"
}
layer {
  name: "ip2"
  type: "InnerProduct"
  bottom: "ip1"
  top: "ip2"
  param {
    lr_mult: 1
  }
  param {
    lr_mult: 2
  }
  inner_product_param {
    num_output: 50
    weight_filler {
      type: "xavier"
    }
    bias_filler {
      type: "constant"
    }
  }
}
layer {
  name: "relu2"
  type: "ReLU"
  bottom: "ip2"
  top: "ip2"
}
layer {
  name: "ip3"
  type: "InnerProduct"
  bottom: "ip2"
  top: "ip3"
  param {
    lr_mult: 1
  }
  param {
    lr_mult: 2
  }
  inner_product_param {
    num_output: 10
    weight_filler {
      type: "xavier"
    }
    bias_filler {
      type: "constant"
    }
  }
}
layer {
  name: "relu3"
  type: "ReLU"
  bottom: "ip3"
  top: "ip3"
}
layer {
  name: "loss"
  type: "SoftmaxWithLoss"
  bottom: "ip3"
  bottom: "label"
  top: "loss"
}
I0428 19:49:23.769423 26750 layer_factory.hpp:77] Creating layer mnist
I0428 19:49:23.769503 26750 db_lmdb.cpp:35] Opened lmdb examples/mnist/mnist_train_lmdb
I0428 19:49:23.769525 26750 net.cpp:86] Creating Layer mnist
I0428 19:49:23.769531 26750 net.cpp:382] mnist -> data
I0428 19:49:23.769549 26750 net.cpp:382] mnist -> label
I0428 19:49:23.770455 26750 data_layer.cpp:45] output data size: 64,1,28,28
I0428 19:49:23.772639 26750 net.cpp:124] Setting up mnist
I0428 19:49:23.772682 26750 net.cpp:131] Top shape: 64 1 28 28 (50176)
I0428 19:49:23.772688 26750 net.cpp:131] Top shape: 64 (64)
I0428 19:49:23.772691 26750 net.cpp:139] Memory required for data: 200960
I0428 19:49:23.772697 26750 layer_factory.hpp:77] Creating layer conv0
I0428 19:49:23.772712 26750 net.cpp:86] Creating Layer conv0
I0428 19:49:23.772729 26750 net.cpp:408] conv0 <- data
I0428 19:49:23.772739 26750 net.cpp:382] conv0 -> conv0
I0428 19:49:24.005388 26750 net.cpp:124] Setting up conv0
I0428 19:49:24.005414 26750 net.cpp:131] Top shape: 64 5 24 24 (184320)
I0428 19:49:24.005417 26750 net.cpp:139] Memory required for data: 938240
I0428 19:49:24.005431 26750 layer_factory.hpp:77] Creating layer pool0
I0428 19:49:24.005444 26750 net.cpp:86] Creating Layer pool0
I0428 19:49:24.005447 26750 net.cpp:408] pool0 <- conv0
I0428 19:49:24.005453 26750 net.cpp:382] pool0 -> pool0
I0428 19:49:24.005512 26750 net.cpp:124] Setting up pool0
I0428 19:49:24.005517 26750 net.cpp:131] Top shape: 64 5 12 12 (46080)
I0428 19:49:24.005520 26750 net.cpp:139] Memory required for data: 1122560
I0428 19:49:24.005523 26750 layer_factory.hpp:77] Creating layer conv1
I0428 19:49:24.005533 26750 net.cpp:86] Creating Layer conv1
I0428 19:49:24.005537 26750 net.cpp:408] conv1 <- pool0
I0428 19:49:24.005542 26750 net.cpp:382] conv1 -> conv1
I0428 19:49:24.007339 26750 net.cpp:124] Setting up conv1
I0428 19:49:24.007369 26750 net.cpp:131] Top shape: 64 5 8 8 (20480)
I0428 19:49:24.007372 26750 net.cpp:139] Memory required for data: 1204480
I0428 19:49:24.007380 26750 layer_factory.hpp:77] Creating layer pool1
I0428 19:49:24.007388 26750 net.cpp:86] Creating Layer pool1
I0428 19:49:24.007392 26750 net.cpp:408] pool1 <- conv1
I0428 19:49:24.007397 26750 net.cpp:382] pool1 -> pool1
I0428 19:49:24.007432 26750 net.cpp:124] Setting up pool1
I0428 19:49:24.007437 26750 net.cpp:131] Top shape: 64 5 4 4 (5120)
I0428 19:49:24.007441 26750 net.cpp:139] Memory required for data: 1224960
I0428 19:49:24.007443 26750 layer_factory.hpp:77] Creating layer ip1
I0428 19:49:24.007450 26750 net.cpp:86] Creating Layer ip1
I0428 19:49:24.007453 26750 net.cpp:408] ip1 <- pool1
I0428 19:49:24.007458 26750 net.cpp:382] ip1 -> ip1
I0428 19:49:24.008435 26750 net.cpp:124] Setting up ip1
I0428 19:49:24.008445 26750 net.cpp:131] Top shape: 64 25 (1600)
I0428 19:49:24.008466 26750 net.cpp:139] Memory required for data: 1231360
I0428 19:49:24.008473 26750 layer_factory.hpp:77] Creating layer relu1
I0428 19:49:24.008479 26750 net.cpp:86] Creating Layer relu1
I0428 19:49:24.008483 26750 net.cpp:408] relu1 <- ip1
I0428 19:49:24.008487 26750 net.cpp:369] relu1 -> ip1 (in-place)
I0428 19:49:24.008653 26750 net.cpp:124] Setting up relu1
I0428 19:49:24.008666 26750 net.cpp:131] Top shape: 64 25 (1600)
I0428 19:49:24.008669 26750 net.cpp:139] Memory required for data: 1237760
I0428 19:49:24.008672 26750 layer_factory.hpp:77] Creating layer ip2
I0428 19:49:24.008678 26750 net.cpp:86] Creating Layer ip2
I0428 19:49:24.008682 26750 net.cpp:408] ip2 <- ip1
I0428 19:49:24.008687 26750 net.cpp:382] ip2 -> ip2
I0428 19:49:24.008796 26750 net.cpp:124] Setting up ip2
I0428 19:49:24.008803 26750 net.cpp:131] Top shape: 64 50 (3200)
I0428 19:49:24.008806 26750 net.cpp:139] Memory required for data: 1250560
I0428 19:49:24.008827 26750 layer_factory.hpp:77] Creating layer relu2
I0428 19:49:24.008849 26750 net.cpp:86] Creating Layer relu2
I0428 19:49:24.008852 26750 net.cpp:408] relu2 <- ip2
I0428 19:49:24.008857 26750 net.cpp:369] relu2 -> ip2 (in-place)
I0428 19:49:24.009641 26750 net.cpp:124] Setting up relu2
I0428 19:49:24.009654 26750 net.cpp:131] Top shape: 64 50 (3200)
I0428 19:49:24.009672 26750 net.cpp:139] Memory required for data: 1263360
I0428 19:49:24.009675 26750 layer_factory.hpp:77] Creating layer ip3
I0428 19:49:24.009682 26750 net.cpp:86] Creating Layer ip3
I0428 19:49:24.009686 26750 net.cpp:408] ip3 <- ip2
I0428 19:49:24.009691 26750 net.cpp:382] ip3 -> ip3
I0428 19:49:24.009802 26750 net.cpp:124] Setting up ip3
I0428 19:49:24.009810 26750 net.cpp:131] Top shape: 64 10 (640)
I0428 19:49:24.009814 26750 net.cpp:139] Memory required for data: 1265920
I0428 19:49:24.009820 26750 layer_factory.hpp:77] Creating layer relu3
I0428 19:49:24.009825 26750 net.cpp:86] Creating Layer relu3
I0428 19:49:24.009829 26750 net.cpp:408] relu3 <- ip3
I0428 19:49:24.009832 26750 net.cpp:369] relu3 -> ip3 (in-place)
I0428 19:49:24.009989 26750 net.cpp:124] Setting up relu3
I0428 19:49:24.009997 26750 net.cpp:131] Top shape: 64 10 (640)
I0428 19:49:24.010000 26750 net.cpp:139] Memory required for data: 1268480
I0428 19:49:24.010004 26750 layer_factory.hpp:77] Creating layer loss
I0428 19:49:24.010010 26750 net.cpp:86] Creating Layer loss
I0428 19:49:24.010027 26750 net.cpp:408] loss <- ip3
I0428 19:49:24.010031 26750 net.cpp:408] loss <- label
I0428 19:49:24.010037 26750 net.cpp:382] loss -> loss
I0428 19:49:24.010051 26750 layer_factory.hpp:77] Creating layer loss
…
I0428 19:49:24.010671 26750 solver.cpp:173] Creating test net (#0) specified by net file: ECE595/mnist/train_test/var_everything2/lenet_train_test573.prototxt
I0428 19:49:24.010712 26750 net.cpp:296] The NetState phase (1) differed from the phase (0) specified by a rule in layer mnist
I0428 19:49:24.010799 26750 net.cpp:53] Initializing net from parameters: 
name: "LeNet"
state {
  phase: TEST
}
layer {
  name: "mnist"
  type: "Data"
  top: "data"
  top: "label"
  include {
    phase: TEST
  }
  transform_param {
    scale: 0.00390625
  }
  data_param {
    source: "examples/mnist/mnist_test_lmdb"
    batch_size: 100
    backend: LMDB
  }
}
layer {
  name: "conv0"
  type: "Convolution"
  bottom: "data"
  top: "conv0"
  param {
    lr_mult: 1
  }
  param {
    lr_mult: 2
  }
  convolution_param {
    num_output: 5
    kernel_size: 5
    stride: 1
    weight_filler {
      type: "xavier"
    }
    bias_filler {
      type: "constant"
    }
  }
}
layer {
  name: "pool0"
  type: "Pooling"
  bottom: "conv0"
  top: "pool0"
  pooling_param {
    pool: MAX
    kernel_size: 2
    stride: 2
  }
}
layer {
  name: "conv1"
  type: "Convolution"
  bottom: "pool0"
  top: "conv1"
  param {
    lr_mult: 1
  }
  param {
    lr_mult: 2
  }
  convolution_param {
    num_output: 5
    kernel_size: 5
    stride: 1
    weight_filler {
      type: "xavier"
    }
    bias_filler {
      type: "constant"
    }
  }
}
layer {
  name: "pool1"
  type: "Pooling"
  bottom: "conv1"
  top: "pool1"
  pooling_param {
    pool: MAX
    kernel_size: 2
    stride: 2
  }
}
layer {
  name: "ip1"
  type: "InnerProduct"
  bottom: "pool1"
  top: "ip1"
  param {
    lr_mult: 1
  }
  param {
    lr_mult: 2
  }
  inner_product_param {
    num_output: 25
    weight_filler {
      type: "xavier"
    }
    bias_filler {
      type: "constant"
    }
  }
}
layer {
  name: "relu1"
  type: "ReLU"
  bottom: "ip1"
  top: "ip1"
}
layer {
  name: "ip2"
  type: "InnerProduct"
  bottom: "ip1"
  top: "ip2"
  param {
    lr_mult: 1
  }
  param {
    lr_mult: 2
  }
  inner_product_param {
    num_output: 50
    weight_filler {
      type: "xavier"
    }
    bias_filler {
      type: "constant"
    }
  }
}
layer {
  name: "relu2"
  type: "ReLU"
  bottom: "ip2"
  top: "ip2"
}
layer {
  name: "ip3"
  type: "InnerProduct"
  bottom: "ip2"
  top: "ip3"
  param {
    lr_mult: 1
  }
  param {
    lr_mult: 2
  }
  inner_product_param {
    num_output: 10
    weight_filler {
      type: "xavier"
    }
    bias_filler {
      type: "constant"
    }
  }
}
layer {
  name: "relu3"
  type: "ReLU"
  bottom: "ip3"
  top: "ip3"
}
layer {
  name: "accuracy"
  type: "Accuracy"
  bottom: "ip3"
  bottom: "label"
  top: "accuracy"
  include {
    phase: TEST
  }
}
layer {
  name: "loss"
  type: "SoftmaxWithLoss"
  bottom: "ip3"
  bottom: "label"
  top: "loss"
}
I0428 19:49:24.010872 26750 layer_factory.hpp:77] Creating layer mnist
I0428 19:49:24.010917 26750 db_lmdb.cpp:35] Opened lmdb examples/mnist/mnist_test_lmdb
I0428 19:49:24.010929 26750 net.cpp:86] Creating Layer mnist
I0428 19:49:24.010934 26750 net.cpp:382] mnist -> data
I0428 19:49:24.010941 26750 net.cpp:382] mnist -> label
I0428 19:49:24.011018 26750 data_layer.cpp:45] output data size: 100,1,28,28
I0428 19:49:24.012949 26750 net.cpp:124] Setting up mnist
I0428 19:49:24.012979 26750 net.cpp:131] Top shape: 100 1 28 28 (78400)
I0428 19:49:24.013000 26750 net.cpp:131] Top shape: 100 (100)
I0428 19:49:24.013002 26750 net.cpp:139] Memory required for data: 314000
I0428 19:49:24.013006 26750 layer_factory.hpp:77] Creating layer label_mnist_1_split
I0428 19:49:24.013012 26750 net.cpp:86] Creating Layer label_mnist_1_split
I0428 19:49:24.013016 26750 net.cpp:408] label_mnist_1_split <- label
I0428 19:49:24.013021 26750 net.cpp:382] label_mnist_1_split -> label_mnist_1_split_0
I0428 19:49:24.013027 26750 net.cpp:382] label_mnist_1_split -> label_mnist_1_split_1
I0428 19:49:24.013073 26750 net.cpp:124] Setting up label_mnist_1_split
I0428 19:49:24.013079 26750 net.cpp:131] Top shape: 100 (100)
I0428 19:49:24.013082 26750 net.cpp:131] Top shape: 100 (100)
I0428 19:49:24.013085 26750 net.cpp:139] Memory required for data: 314800
I0428 19:49:24.013088 26750 layer_factory.hpp:77] Creating layer conv0
I0428 19:49:24.013097 26750 net.cpp:86] Creating Layer conv0
I0428 19:49:24.013099 26750 net.cpp:408] conv0 <- data
I0428 19:49:24.013104 26750 net.cpp:382] conv0 -> conv0
I0428 19:49:24.014789 26750 net.cpp:124] Setting up conv0
I0428 19:49:24.014818 26750 net.cpp:131] Top shape: 100 5 24 24 (288000)
I0428 19:49:24.014822 26750 net.cpp:139] Memory required for data: 1466800
I0428 19:49:24.014832 26750 layer_factory.hpp:77] Creating layer pool0
I0428 19:49:24.014837 26750 net.cpp:86] Creating Layer pool0
I0428 19:49:24.014842 26750 net.cpp:408] pool0 <- conv0
I0428 19:49:24.014845 26750 net.cpp:382] pool0 -> pool0
I0428 19:49:24.014880 26750 net.cpp:124] Setting up pool0
I0428 19:49:24.014885 26750 net.cpp:131] Top shape: 100 5 12 12 (72000)
I0428 19:49:24.014889 26750 net.cpp:139] Memory required for data: 1754800
I0428 19:49:24.014891 26750 layer_factory.hpp:77] Creating layer conv1
I0428 19:49:24.014899 26750 net.cpp:86] Creating Layer conv1
I0428 19:49:24.014904 26750 net.cpp:408] conv1 <- pool0
I0428 19:49:24.014907 26750 net.cpp:382] conv1 -> conv1
I0428 19:49:24.017033 26750 net.cpp:124] Setting up conv1
I0428 19:49:24.017046 26750 net.cpp:131] Top shape: 100 5 8 8 (32000)
I0428 19:49:24.017067 26750 net.cpp:139] Memory required for data: 1882800
I0428 19:49:24.017076 26750 layer_factory.hpp:77] Creating layer pool1
I0428 19:49:24.017082 26750 net.cpp:86] Creating Layer pool1
I0428 19:49:24.017086 26750 net.cpp:408] pool1 <- conv1
I0428 19:49:24.017091 26750 net.cpp:382] pool1 -> pool1
I0428 19:49:24.017164 26750 net.cpp:124] Setting up pool1
I0428 19:49:24.017185 26750 net.cpp:131] Top shape: 100 5 4 4 (8000)
I0428 19:49:24.017189 26750 net.cpp:139] Memory required for data: 1914800
I0428 19:49:24.017191 26750 layer_factory.hpp:77] Creating layer ip1
I0428 19:49:24.017196 26750 net.cpp:86] Creating Layer ip1
I0428 19:49:24.017199 26750 net.cpp:408] ip1 <- pool1
I0428 19:49:24.017204 26750 net.cpp:382] ip1 -> ip1
I0428 19:49:24.017312 26750 net.cpp:124] Setting up ip1
I0428 19:49:24.017319 26750 net.cpp:131] Top shape: 100 25 (2500)
I0428 19:49:24.017339 26750 net.cpp:139] Memory required for data: 1924800
I0428 19:49:24.017348 26750 layer_factory.hpp:77] Creating layer relu1
I0428 19:49:24.017351 26750 net.cpp:86] Creating Layer relu1
I0428 19:49:24.017354 26750 net.cpp:408] relu1 <- ip1
I0428 19:49:24.017359 26750 net.cpp:369] relu1 -> ip1 (in-place)
I0428 19:49:24.017563 26750 net.cpp:124] Setting up relu1
I0428 19:49:24.017572 26750 net.cpp:131] Top shape: 100 25 (2500)
I0428 19:49:24.017575 26750 net.cpp:139] Memory required for data: 1934800
I0428 19:49:24.017578 26750 layer_factory.hpp:77] Creating layer ip2
I0428 19:49:24.017585 26750 net.cpp:86] Creating Layer ip2
I0428 19:49:24.017590 26750 net.cpp:408] ip2 <- ip1
I0428 19:49:24.017594 26750 net.cpp:382] ip2 -> ip2
I0428 19:49:24.017722 26750 net.cpp:124] Setting up ip2
I0428 19:49:24.017730 26750 net.cpp:131] Top shape: 100 50 (5000)
I0428 19:49:24.017735 26750 net.cpp:139] Memory required for data: 1954800
I0428 19:49:24.017740 26750 layer_factory.hpp:77] Creating layer relu2
I0428 19:49:24.017746 26750 net.cpp:86] Creating Layer relu2
I0428 19:49:24.017750 26750 net.cpp:408] relu2 <- ip2
I0428 19:49:24.017753 26750 net.cpp:369] relu2 -> ip2 (in-place)
I0428 19:49:24.017932 26750 net.cpp:124] Setting up relu2
I0428 19:49:24.017940 26750 net.cpp:131] Top shape: 100 50 (5000)
I0428 19:49:24.017943 26750 net.cpp:139] Memory required for data: 1974800
I0428 19:49:24.017947 26750 layer_factory.hpp:77] Creating layer ip3
I0428 19:49:24.017953 26750 net.cpp:86] Creating Layer ip3
I0428 19:49:24.017956 26750 net.cpp:408] ip3 <- ip2
I0428 19:49:24.017962 26750 net.cpp:382] ip3 -> ip3
I0428 19:49:24.018102 26750 net.cpp:124] Setting up ip3
I0428 19:49:24.018111 26750 net.cpp:131] Top shape: 100 10 (1000)
I0428 19:49:24.018115 26750 net.cpp:139] Memory required for data: 1978800
I0428 19:49:24.018121 26750 layer_factory.hpp:77] Creating layer relu3
I0428 19:49:24.018126 26750 net.cpp:86] Creating Layer relu3
I0428 19:49:24.018129 26750 net.cpp:408] relu3 <- ip3
I0428 19:49:24.018133 26750 net.cpp:369] relu3 -> ip3 (in-place)
I0428 19:49:24.018929 26750 net.cpp:124] Setting up relu3
I0428 19:49:24.018940 26750 net.cpp:131] Top shape: 100 10 (1000)
I0428 19:49:24.018960 26750 net.cpp:139] Memory required for data: 1982800
I0428 19:49:24.018963 26750 layer_factory.hpp:77] Creating layer ip3_relu3_0_split
I0428 19:49:24.018968 26750 net.cpp:86] Creating Layer ip3_relu3_0_split
I0428 19:49:24.018975 26750 net.cpp:408] ip3_relu3_0_split <- ip3
I0428 19:49:24.018986 26750 net.cpp:382] ip3_relu3_0_split -> ip3_relu3_0_split_0
I0428 19:49:24.018993 26750 net.cpp:382] ip3_relu3_0_split -> ip3_relu3_0_split_1
I0428 19:49:24.019037 26750 net.cpp:124] Setting up ip3_relu3_0_split
I0428 19:49:24.019042 26750 net.cpp:131] Top shape: 100 10 (1000)
I0428 19:49:24.019047 26750 net.cpp:131] Top shape: 100 10 (1000)
I0428 19:49:24.019049 26750 net.cpp:139] Memory required for data: 1990800
I0428 19:49:24.019052 26750 layer_factory.hpp:77] Creating layer accuracy
I0428 19:49:24.019062 26750 net.cpp:86] Creating Layer accuracy
I0428 19:49:24.019067 26750 net.cpp:408] accuracy <- ip3_relu3_0_split_0
I0428 19:49:24.019070 26750 net.cpp:408] accuracy <- label_mnist_1_split_0
I0428 19:49:24.019075 26750 net.cpp:382] accuracy -> accuracy
…
