…
I0428 20:21:00.767374  1675 net.cpp:296] The NetState phase (0) differed from the phase (1) specified by a rule in layer mnist
I0428 20:21:00.767387  1675 net.cpp:296] The NetState phase (0) differed from the phase (1) specified by a rule in layer accuracy
I0428 20:21:00.767458  1675 net.cpp:53] Initializing net from parameters: 
name: "LeNet"
state {
  phase: TRAIN
  level: 0
  stage: ""
}
layer {
  name: "mnist"
  type: "Data"
  top: "data"
  top: "label"
  include {
    phase: TRAIN
  }
  transform_param {
    scale: 0.00390625
  }
  data_param {
    source: "examples/mnist/mnist_train_lmdb"
    batch_size: 64
    backend: LMDB
  }
}
layer {
  name: "conv0"
  type: "Convolution"
  bottom: "data"
  top: "conv0"
  param {
    lr_mult: 1
  }
  param {
    lr_mult: 2
  }
  convolution_param {
    num_output: 50
    kernel_size: 5
    stride: 1
    weight_filler {
      type: "xavier"
    }
    bias_filler {
      type: "constant"
    }
  }
}
layer {
  name: "pool0"
  type: "Pooling"
  bottom: "conv0"
  top: "pool0"
  pooling_param {
    pool: MAX
    kernel_size: 2
    stride: 2
  }
}
layer {
  name: "conv1"
  type: "Convolution"
  bottom: "pool0"
  top: "conv1"
  param {
    lr_mult: 1
  }
  param {
    lr_mult: 2
  }
  convolution_param {
    num_output: 50
    kernel_size: 5
    stride: 1
    weight_filler {
      type: "xavier"
    }
    bias_filler {
      type: "constant"
    }
  }
}
layer {
  name: "pool1"
  type: "Pooling"
  bottom: "conv1"
  top: "pool1"
  pooling_param {
    pool: MAX
    kernel_size: 2
    stride: 2
  }
}
layer {
  name: "ip1"
  type: "InnerProduct"
  bottom: "pool1"
  top: "ip1"
  param {
    lr_mult: 1
  }
  param {
    lr_mult: 2
  }
  inner_product_param {
    num_output: 50
    weight_filler {
      type: "xavier"
    }
    bias_filler {
      type: "constant"
    }
  }
}
layer {
  name: "relu1"
  type: "ReLU"
  bottom: "ip1"
  top: "ip1"
}
layer {
  name: "ip2"
  type: "InnerProduct"
  bottom: "ip1"
  top: "ip2"
  param {
    lr_mult: 1
  }
  param {
    lr_mult: 2
  }
  inner_product_param {
    num_output: 10
    weight_filler {
      type: "xavier"
    }
    bias_filler {
      type: "constant"
    }
  }
}
layer {
  name: "relu2"
  type: "ReLU"
  bottom: "ip2"
  top: "ip2"
}
layer {
  name: "loss"
  type: "SoftmaxWithLoss"
  bottom: "ip2"
  bottom: "label"
  top: "loss"
}
I0428 20:21:00.767518  1675 layer_factory.hpp:77] Creating layer mnist
I0428 20:21:00.767596  1675 db_lmdb.cpp:35] Opened lmdb examples/mnist/mnist_train_lmdb
I0428 20:21:00.767616  1675 net.cpp:86] Creating Layer mnist
I0428 20:21:00.767622  1675 net.cpp:382] mnist -> data
I0428 20:21:00.767640  1675 net.cpp:382] mnist -> label
I0428 20:21:00.768600  1675 data_layer.cpp:45] output data size: 64,1,28,28
I0428 20:21:00.770872  1675 net.cpp:124] Setting up mnist
I0428 20:21:00.770902  1675 net.cpp:131] Top shape: 64 1 28 28 (50176)
I0428 20:21:00.770908  1675 net.cpp:131] Top shape: 64 (64)
I0428 20:21:00.770911  1675 net.cpp:139] Memory required for data: 200960
I0428 20:21:00.770917  1675 layer_factory.hpp:77] Creating layer conv0
I0428 20:21:00.770956  1675 net.cpp:86] Creating Layer conv0
I0428 20:21:00.770962  1675 net.cpp:408] conv0 <- data
I0428 20:21:00.770972  1675 net.cpp:382] conv0 -> conv0
I0428 20:21:00.995190  1675 net.cpp:124] Setting up conv0
I0428 20:21:00.995230  1675 net.cpp:131] Top shape: 64 50 24 24 (1843200)
I0428 20:21:00.995234  1675 net.cpp:139] Memory required for data: 7573760
I0428 20:21:00.995266  1675 layer_factory.hpp:77] Creating layer pool0
I0428 20:21:00.995295  1675 net.cpp:86] Creating Layer pool0
I0428 20:21:00.995298  1675 net.cpp:408] pool0 <- conv0
I0428 20:21:00.995303  1675 net.cpp:382] pool0 -> pool0
I0428 20:21:00.995349  1675 net.cpp:124] Setting up pool0
I0428 20:21:00.995362  1675 net.cpp:131] Top shape: 64 50 12 12 (460800)
I0428 20:21:00.995379  1675 net.cpp:139] Memory required for data: 9416960
I0428 20:21:00.995383  1675 layer_factory.hpp:77] Creating layer conv1
I0428 20:21:00.995393  1675 net.cpp:86] Creating Layer conv1
I0428 20:21:00.995395  1675 net.cpp:408] conv1 <- pool0
I0428 20:21:00.995400  1675 net.cpp:382] conv1 -> conv1
I0428 20:21:00.997696  1675 net.cpp:124] Setting up conv1
I0428 20:21:00.997709  1675 net.cpp:131] Top shape: 64 50 8 8 (204800)
I0428 20:21:00.997712  1675 net.cpp:139] Memory required for data: 10236160
I0428 20:21:00.997720  1675 layer_factory.hpp:77] Creating layer pool1
I0428 20:21:00.997727  1675 net.cpp:86] Creating Layer pool1
I0428 20:21:00.997730  1675 net.cpp:408] pool1 <- conv1
I0428 20:21:00.997735  1675 net.cpp:382] pool1 -> pool1
I0428 20:21:00.997783  1675 net.cpp:124] Setting up pool1
I0428 20:21:00.997788  1675 net.cpp:131] Top shape: 64 50 4 4 (51200)
I0428 20:21:00.997792  1675 net.cpp:139] Memory required for data: 10440960
I0428 20:21:00.997794  1675 layer_factory.hpp:77] Creating layer ip1
I0428 20:21:00.997800  1675 net.cpp:86] Creating Layer ip1
I0428 20:21:00.997803  1675 net.cpp:408] ip1 <- pool1
I0428 20:21:00.997808  1675 net.cpp:382] ip1 -> ip1
I0428 20:21:00.998149  1675 net.cpp:124] Setting up ip1
I0428 20:21:00.998157  1675 net.cpp:131] Top shape: 64 50 (3200)
I0428 20:21:00.998174  1675 net.cpp:139] Memory required for data: 10453760
I0428 20:21:00.998181  1675 layer_factory.hpp:77] Creating layer relu1
I0428 20:21:00.998186  1675 net.cpp:86] Creating Layer relu1
I0428 20:21:00.998189  1675 net.cpp:408] relu1 <- ip1
I0428 20:21:00.998193  1675 net.cpp:369] relu1 -> ip1 (in-place)
I0428 20:21:00.998381  1675 net.cpp:124] Setting up relu1
I0428 20:21:00.998390  1675 net.cpp:131] Top shape: 64 50 (3200)
I0428 20:21:00.998394  1675 net.cpp:139] Memory required for data: 10466560
I0428 20:21:00.998396  1675 layer_factory.hpp:77] Creating layer ip2
I0428 20:21:00.998404  1675 net.cpp:86] Creating Layer ip2
I0428 20:21:00.998406  1675 net.cpp:408] ip2 <- ip1
I0428 20:21:00.998411  1675 net.cpp:382] ip2 -> ip2
I0428 20:21:00.998512  1675 net.cpp:124] Setting up ip2
I0428 20:21:00.998519  1675 net.cpp:131] Top shape: 64 10 (640)
I0428 20:21:00.998522  1675 net.cpp:139] Memory required for data: 10469120
I0428 20:21:00.998528  1675 layer_factory.hpp:77] Creating layer relu2
I0428 20:21:00.998534  1675 net.cpp:86] Creating Layer relu2
I0428 20:21:00.998538  1675 net.cpp:408] relu2 <- ip2
I0428 20:21:00.998541  1675 net.cpp:369] relu2 -> ip2 (in-place)
I0428 20:21:00.999343  1675 net.cpp:124] Setting up relu2
I0428 20:21:00.999356  1675 net.cpp:131] Top shape: 64 10 (640)
I0428 20:21:00.999358  1675 net.cpp:139] Memory required for data: 10471680
I0428 20:21:00.999361  1675 layer_factory.hpp:77] Creating layer loss
I0428 20:21:00.999368  1675 net.cpp:86] Creating Layer loss
I0428 20:21:00.999372  1675 net.cpp:408] loss <- ip2
I0428 20:21:00.999375  1675 net.cpp:408] loss <- label
I0428 20:21:00.999380  1675 net.cpp:382] loss -> loss
I0428 20:21:00.999397  1675 layer_factory.hpp:77] Creating layer loss
…
I0428 20:21:01.000067  1675 solver.cpp:173] Creating test net (#0) specified by net file: ECE595/mnist/train_test/var_everything2/lenet_train_test1375.prototxt
I0428 20:21:01.000092  1675 net.cpp:296] The NetState phase (1) differed from the phase (0) specified by a rule in layer mnist
I0428 20:21:01.000175  1675 net.cpp:53] Initializing net from parameters: 
name: "LeNet"
state {
  phase: TEST
}
layer {
  name: "mnist"
  type: "Data"
  top: "data"
  top: "label"
  include {
    phase: TEST
  }
  transform_param {
    scale: 0.00390625
  }
  data_param {
    source: "examples/mnist/mnist_test_lmdb"
    batch_size: 100
    backend: LMDB
  }
}
layer {
  name: "conv0"
  type: "Convolution"
  bottom: "data"
  top: "conv0"
  param {
    lr_mult: 1
  }
  param {
    lr_mult: 2
  }
  convolution_param {
    num_output: 50
    kernel_size: 5
    stride: 1
    weight_filler {
      type: "xavier"
    }
    bias_filler {
      type: "constant"
    }
  }
}
layer {
  name: "pool0"
  type: "Pooling"
  bottom: "conv0"
  top: "pool0"
  pooling_param {
    pool: MAX
    kernel_size: 2
    stride: 2
  }
}
layer {
  name: "conv1"
  type: "Convolution"
  bottom: "pool0"
  top: "conv1"
  param {
    lr_mult: 1
  }
  param {
    lr_mult: 2
  }
  convolution_param {
    num_output: 50
    kernel_size: 5
    stride: 1
    weight_filler {
      type: "xavier"
    }
    bias_filler {
      type: "constant"
    }
  }
}
layer {
  name: "pool1"
  type: "Pooling"
  bottom: "conv1"
  top: "pool1"
  pooling_param {
    pool: MAX
    kernel_size: 2
    stride: 2
  }
}
layer {
  name: "ip1"
  type: "InnerProduct"
  bottom: "pool1"
  top: "ip1"
  param {
    lr_mult: 1
  }
  param {
    lr_mult: 2
  }
  inner_product_param {
    num_output: 50
    weight_filler {
      type: "xavier"
    }
    bias_filler {
      type: "constant"
    }
  }
}
layer {
  name: "relu1"
  type: "ReLU"
  bottom: "ip1"
  top: "ip1"
}
layer {
  name: "ip2"
  type: "InnerProduct"
  bottom: "ip1"
  top: "ip2"
  param {
    lr_mult: 1
  }
  param {
    lr_mult: 2
  }
  inner_product_param {
    num_output: 10
    weight_filler {
      type: "xavier"
    }
    bias_filler {
      type: "constant"
    }
  }
}
layer {
  name: "relu2"
  type: "ReLU"
  bottom: "ip2"
  top: "ip2"
}
layer {
  name: "accuracy"
  type: "Accuracy"
  bottom: "ip2"
  bottom: "label"
  top: "accuracy"
  include {
    phase: TEST
  }
}
layer {
  name: "loss"
  type: "SoftmaxWithLoss"
  bottom: "ip2"
  bottom: "label"
  top: "loss"
}
I0428 20:21:01.000241  1675 layer_factory.hpp:77] Creating layer mnist
I0428 20:21:01.000280  1675 db_lmdb.cpp:35] Opened lmdb examples/mnist/mnist_test_lmdb
I0428 20:21:01.000296  1675 net.cpp:86] Creating Layer mnist
I0428 20:21:01.000301  1675 net.cpp:382] mnist -> data
I0428 20:21:01.000308  1675 net.cpp:382] mnist -> label
I0428 20:21:01.000416  1675 data_layer.cpp:45] output data size: 100,1,28,28
I0428 20:21:01.002455  1675 net.cpp:124] Setting up mnist
I0428 20:21:01.002485  1675 net.cpp:131] Top shape: 100 1 28 28 (78400)
I0428 20:21:01.002493  1675 net.cpp:131] Top shape: 100 (100)
I0428 20:21:01.002496  1675 net.cpp:139] Memory required for data: 314000
I0428 20:21:01.002501  1675 layer_factory.hpp:77] Creating layer label_mnist_1_split
I0428 20:21:01.002511  1675 net.cpp:86] Creating Layer label_mnist_1_split
I0428 20:21:01.002516  1675 net.cpp:408] label_mnist_1_split <- label
I0428 20:21:01.002521  1675 net.cpp:382] label_mnist_1_split -> label_mnist_1_split_0
I0428 20:21:01.002526  1675 net.cpp:382] label_mnist_1_split -> label_mnist_1_split_1
I0428 20:21:01.002605  1675 net.cpp:124] Setting up label_mnist_1_split
I0428 20:21:01.002629  1675 net.cpp:131] Top shape: 100 (100)
I0428 20:21:01.002632  1675 net.cpp:131] Top shape: 100 (100)
I0428 20:21:01.002635  1675 net.cpp:139] Memory required for data: 314800
I0428 20:21:01.002638  1675 layer_factory.hpp:77] Creating layer conv0
I0428 20:21:01.002662  1675 net.cpp:86] Creating Layer conv0
I0428 20:21:01.002665  1675 net.cpp:408] conv0 <- data
I0428 20:21:01.002672  1675 net.cpp:382] conv0 -> conv0
I0428 20:21:01.004431  1675 net.cpp:124] Setting up conv0
I0428 20:21:01.004459  1675 net.cpp:131] Top shape: 100 50 24 24 (2880000)
I0428 20:21:01.004463  1675 net.cpp:139] Memory required for data: 11834800
I0428 20:21:01.004472  1675 layer_factory.hpp:77] Creating layer pool0
I0428 20:21:01.004479  1675 net.cpp:86] Creating Layer pool0
I0428 20:21:01.004483  1675 net.cpp:408] pool0 <- conv0
I0428 20:21:01.004487  1675 net.cpp:382] pool0 -> pool0
I0428 20:21:01.004523  1675 net.cpp:124] Setting up pool0
I0428 20:21:01.004528  1675 net.cpp:131] Top shape: 100 50 12 12 (720000)
I0428 20:21:01.004531  1675 net.cpp:139] Memory required for data: 14714800
I0428 20:21:01.004534  1675 layer_factory.hpp:77] Creating layer conv1
I0428 20:21:01.004544  1675 net.cpp:86] Creating Layer conv1
I0428 20:21:01.004547  1675 net.cpp:408] conv1 <- pool0
I0428 20:21:01.004554  1675 net.cpp:382] conv1 -> conv1
I0428 20:21:01.006695  1675 net.cpp:124] Setting up conv1
I0428 20:21:01.006723  1675 net.cpp:131] Top shape: 100 50 8 8 (320000)
I0428 20:21:01.006726  1675 net.cpp:139] Memory required for data: 15994800
I0428 20:21:01.006750  1675 layer_factory.hpp:77] Creating layer pool1
I0428 20:21:01.006757  1675 net.cpp:86] Creating Layer pool1
I0428 20:21:01.006760  1675 net.cpp:408] pool1 <- conv1
I0428 20:21:01.006767  1675 net.cpp:382] pool1 -> pool1
I0428 20:21:01.006819  1675 net.cpp:124] Setting up pool1
I0428 20:21:01.006824  1675 net.cpp:131] Top shape: 100 50 4 4 (80000)
I0428 20:21:01.006826  1675 net.cpp:139] Memory required for data: 16314800
I0428 20:21:01.006829  1675 layer_factory.hpp:77] Creating layer ip1
I0428 20:21:01.006837  1675 net.cpp:86] Creating Layer ip1
I0428 20:21:01.006840  1675 net.cpp:408] ip1 <- pool1
I0428 20:21:01.006845  1675 net.cpp:382] ip1 -> ip1
I0428 20:21:01.007237  1675 net.cpp:124] Setting up ip1
I0428 20:21:01.007247  1675 net.cpp:131] Top shape: 100 50 (5000)
I0428 20:21:01.007251  1675 net.cpp:139] Memory required for data: 16334800
I0428 20:21:01.007275  1675 layer_factory.hpp:77] Creating layer relu1
I0428 20:21:01.007280  1675 net.cpp:86] Creating Layer relu1
I0428 20:21:01.007284  1675 net.cpp:408] relu1 <- ip1
I0428 20:21:01.007289  1675 net.cpp:369] relu1 -> ip1 (in-place)
I0428 20:21:01.007477  1675 net.cpp:124] Setting up relu1
I0428 20:21:01.007484  1675 net.cpp:131] Top shape: 100 50 (5000)
I0428 20:21:01.007488  1675 net.cpp:139] Memory required for data: 16354800
I0428 20:21:01.007491  1675 layer_factory.hpp:77] Creating layer ip2
I0428 20:21:01.007498  1675 net.cpp:86] Creating Layer ip2
I0428 20:21:01.007501  1675 net.cpp:408] ip2 <- ip1
I0428 20:21:01.007508  1675 net.cpp:382] ip2 -> ip2
I0428 20:21:01.007617  1675 net.cpp:124] Setting up ip2
I0428 20:21:01.007624  1675 net.cpp:131] Top shape: 100 10 (1000)
I0428 20:21:01.007627  1675 net.cpp:139] Memory required for data: 16358800
I0428 20:21:01.007632  1675 layer_factory.hpp:77] Creating layer relu2
I0428 20:21:01.007637  1675 net.cpp:86] Creating Layer relu2
I0428 20:21:01.007639  1675 net.cpp:408] relu2 <- ip2
I0428 20:21:01.007644  1675 net.cpp:369] relu2 -> ip2 (in-place)
I0428 20:21:01.007860  1675 net.cpp:124] Setting up relu2
I0428 20:21:01.007869  1675 net.cpp:131] Top shape: 100 10 (1000)
I0428 20:21:01.007872  1675 net.cpp:139] Memory required for data: 16362800
I0428 20:21:01.007875  1675 layer_factory.hpp:77] Creating layer ip2_relu2_0_split
I0428 20:21:01.007880  1675 net.cpp:86] Creating Layer ip2_relu2_0_split
I0428 20:21:01.007884  1675 net.cpp:408] ip2_relu2_0_split <- ip2
I0428 20:21:01.007889  1675 net.cpp:382] ip2_relu2_0_split -> ip2_relu2_0_split_0
I0428 20:21:01.007905  1675 net.cpp:382] ip2_relu2_0_split -> ip2_relu2_0_split_1
I0428 20:21:01.007959  1675 net.cpp:124] Setting up ip2_relu2_0_split
I0428 20:21:01.007968  1675 net.cpp:131] Top shape: 100 10 (1000)
I0428 20:21:01.007973  1675 net.cpp:131] Top shape: 100 10 (1000)
I0428 20:21:01.007977  1675 net.cpp:139] Memory required for data: 16370800
I0428 20:21:01.007979  1675 layer_factory.hpp:77] Creating layer accuracy
I0428 20:21:01.007985  1675 net.cpp:86] Creating Layer accuracy
I0428 20:21:01.007988  1675 net.cpp:408] accuracy <- ip2_relu2_0_split_0
I0428 20:21:01.007993  1675 net.cpp:408] accuracy <- label_mnist_1_split_0
I0428 20:21:01.007997  1675 net.cpp:382] accuracy -> accuracy
…
