…
I0428 19:57:35.382316 28718 net.cpp:296] The NetState phase (0) differed from the phase (1) specified by a rule in layer mnist
I0428 19:57:35.382330 28718 net.cpp:296] The NetState phase (0) differed from the phase (1) specified by a rule in layer accuracy
I0428 19:57:35.382408 28718 net.cpp:53] Initializing net from parameters: 
name: "LeNet"
state {
  phase: TRAIN
  level: 0
  stage: ""
}
layer {
  name: "mnist"
  type: "Data"
  top: "data"
  top: "label"
  include {
    phase: TRAIN
  }
  transform_param {
    scale: 0.00390625
  }
  data_param {
    source: "examples/mnist/mnist_train_lmdb"
    batch_size: 64
    backend: LMDB
  }
}
layer {
  name: "conv0"
  type: "Convolution"
  bottom: "data"
  top: "conv0"
  param {
    lr_mult: 1
  }
  param {
    lr_mult: 2
  }
  convolution_param {
    num_output: 10
    kernel_size: 5
    stride: 1
    weight_filler {
      type: "xavier"
    }
    bias_filler {
      type: "constant"
    }
  }
}
layer {
  name: "pool0"
  type: "Pooling"
  bottom: "conv0"
  top: "pool0"
  pooling_param {
    pool: MAX
    kernel_size: 2
    stride: 2
  }
}
layer {
  name: "conv1"
  type: "Convolution"
  bottom: "pool0"
  top: "conv1"
  param {
    lr_mult: 1
  }
  param {
    lr_mult: 2
  }
  convolution_param {
    num_output: 5
    kernel_size: 5
    stride: 1
    weight_filler {
      type: "xavier"
    }
    bias_filler {
      type: "constant"
    }
  }
}
layer {
  name: "pool1"
  type: "Pooling"
  bottom: "conv1"
  top: "pool1"
  pooling_param {
    pool: MAX
    kernel_size: 2
    stride: 2
  }
}
layer {
  name: "ip1"
  type: "InnerProduct"
  bottom: "pool1"
  top: "ip1"
  param {
    lr_mult: 1
  }
  param {
    lr_mult: 2
  }
  inner_product_param {
    num_output: 10
    weight_filler {
      type: "xavier"
    }
    bias_filler {
      type: "constant"
    }
  }
}
layer {
  name: "relu1"
  type: "ReLU"
  bottom: "ip1"
  top: "ip1"
}
layer {
  name: "ip2"
  type: "InnerProduct"
  bottom: "ip1"
  top: "ip2"
  param {
    lr_mult: 1
  }
  param {
    lr_mult: 2
  }
  inner_product_param {
    num_output: 10
    weight_filler {
      type: "xavier"
    }
    bias_filler {
      type: "constant"
    }
  }
}
layer {
  name: "relu2"
  type: "ReLU"
  bottom: "ip2"
  top: "ip2"
}
layer {
  name: "ip3"
  type: "InnerProduct"
  bottom: "ip2"
  top: "ip3"
  param {
    lr_mult: 1
  }
  param {
    lr_mult: 2
  }
  inner_product_param {
    num_output: 10
    weight_filler {
      type: "xavier"
    }
    bias_filler {
      type: "constant"
    }
  }
}
layer {
  name: "relu3"
  type: "ReLU"
  bottom: "ip3"
  top: "ip3"
}
layer {
  name: "loss"
  type: "SoftmaxWithLoss"
  bottom: "ip3"
  bottom: "label"
  top: "loss"
}
I0428 19:57:35.382465 28718 layer_factory.hpp:77] Creating layer mnist
I0428 19:57:35.382546 28718 db_lmdb.cpp:35] Opened lmdb examples/mnist/mnist_train_lmdb
I0428 19:57:35.382565 28718 net.cpp:86] Creating Layer mnist
I0428 19:57:35.382571 28718 net.cpp:382] mnist -> data
I0428 19:57:35.382589 28718 net.cpp:382] mnist -> label
I0428 19:57:35.383507 28718 data_layer.cpp:45] output data size: 64,1,28,28
I0428 19:57:35.385706 28718 net.cpp:124] Setting up mnist
I0428 19:57:35.385754 28718 net.cpp:131] Top shape: 64 1 28 28 (50176)
I0428 19:57:35.385759 28718 net.cpp:131] Top shape: 64 (64)
I0428 19:57:35.385762 28718 net.cpp:139] Memory required for data: 200960
I0428 19:57:35.385769 28718 layer_factory.hpp:77] Creating layer conv0
I0428 19:57:35.385782 28718 net.cpp:86] Creating Layer conv0
I0428 19:57:35.385815 28718 net.cpp:408] conv0 <- data
I0428 19:57:35.385826 28718 net.cpp:382] conv0 -> conv0
I0428 19:57:35.619740 28718 net.cpp:124] Setting up conv0
I0428 19:57:35.619784 28718 net.cpp:131] Top shape: 64 10 24 24 (368640)
I0428 19:57:35.619789 28718 net.cpp:139] Memory required for data: 1675520
I0428 19:57:35.619804 28718 layer_factory.hpp:77] Creating layer pool0
I0428 19:57:35.619817 28718 net.cpp:86] Creating Layer pool0
I0428 19:57:35.619822 28718 net.cpp:408] pool0 <- conv0
I0428 19:57:35.619827 28718 net.cpp:382] pool0 -> pool0
I0428 19:57:35.619871 28718 net.cpp:124] Setting up pool0
I0428 19:57:35.619879 28718 net.cpp:131] Top shape: 64 10 12 12 (92160)
I0428 19:57:35.619881 28718 net.cpp:139] Memory required for data: 2044160
I0428 19:57:35.619884 28718 layer_factory.hpp:77] Creating layer conv1
I0428 19:57:35.619895 28718 net.cpp:86] Creating Layer conv1
I0428 19:57:35.619899 28718 net.cpp:408] conv1 <- pool0
I0428 19:57:35.619904 28718 net.cpp:382] conv1 -> conv1
I0428 19:57:35.622748 28718 net.cpp:124] Setting up conv1
I0428 19:57:35.622777 28718 net.cpp:131] Top shape: 64 5 8 8 (20480)
I0428 19:57:35.622781 28718 net.cpp:139] Memory required for data: 2126080
I0428 19:57:35.622792 28718 layer_factory.hpp:77] Creating layer pool1
I0428 19:57:35.622798 28718 net.cpp:86] Creating Layer pool1
I0428 19:57:35.622802 28718 net.cpp:408] pool1 <- conv1
I0428 19:57:35.622807 28718 net.cpp:382] pool1 -> pool1
I0428 19:57:35.622843 28718 net.cpp:124] Setting up pool1
I0428 19:57:35.622849 28718 net.cpp:131] Top shape: 64 5 4 4 (5120)
I0428 19:57:35.622851 28718 net.cpp:139] Memory required for data: 2146560
I0428 19:57:35.622854 28718 layer_factory.hpp:77] Creating layer ip1
I0428 19:57:35.622862 28718 net.cpp:86] Creating Layer ip1
I0428 19:57:35.622865 28718 net.cpp:408] ip1 <- pool1
I0428 19:57:35.622870 28718 net.cpp:382] ip1 -> ip1
I0428 19:57:35.622977 28718 net.cpp:124] Setting up ip1
I0428 19:57:35.622985 28718 net.cpp:131] Top shape: 64 10 (640)
I0428 19:57:35.622987 28718 net.cpp:139] Memory required for data: 2149120
I0428 19:57:35.622994 28718 layer_factory.hpp:77] Creating layer relu1
I0428 19:57:35.623001 28718 net.cpp:86] Creating Layer relu1
I0428 19:57:35.623005 28718 net.cpp:408] relu1 <- ip1
I0428 19:57:35.623009 28718 net.cpp:369] relu1 -> ip1 (in-place)
I0428 19:57:35.623191 28718 net.cpp:124] Setting up relu1
I0428 19:57:35.623199 28718 net.cpp:131] Top shape: 64 10 (640)
I0428 19:57:35.623203 28718 net.cpp:139] Memory required for data: 2151680
I0428 19:57:35.623206 28718 layer_factory.hpp:77] Creating layer ip2
I0428 19:57:35.623212 28718 net.cpp:86] Creating Layer ip2
I0428 19:57:35.623215 28718 net.cpp:408] ip2 <- ip1
I0428 19:57:35.623221 28718 net.cpp:382] ip2 -> ip2
I0428 19:57:35.623320 28718 net.cpp:124] Setting up ip2
I0428 19:57:35.623327 28718 net.cpp:131] Top shape: 64 10 (640)
I0428 19:57:35.623330 28718 net.cpp:139] Memory required for data: 2154240
I0428 19:57:35.623335 28718 layer_factory.hpp:77] Creating layer relu2
I0428 19:57:35.623340 28718 net.cpp:86] Creating Layer relu2
I0428 19:57:35.623343 28718 net.cpp:408] relu2 <- ip2
I0428 19:57:35.623347 28718 net.cpp:369] relu2 -> ip2 (in-place)
I0428 19:57:35.624131 28718 net.cpp:124] Setting up relu2
I0428 19:57:35.624143 28718 net.cpp:131] Top shape: 64 10 (640)
I0428 19:57:35.624163 28718 net.cpp:139] Memory required for data: 2156800
I0428 19:57:35.624166 28718 layer_factory.hpp:77] Creating layer ip3
I0428 19:57:35.624174 28718 net.cpp:86] Creating Layer ip3
I0428 19:57:35.624177 28718 net.cpp:408] ip3 <- ip2
I0428 19:57:35.624184 28718 net.cpp:382] ip3 -> ip3
I0428 19:57:35.624295 28718 net.cpp:124] Setting up ip3
I0428 19:57:35.624303 28718 net.cpp:131] Top shape: 64 10 (640)
I0428 19:57:35.624305 28718 net.cpp:139] Memory required for data: 2159360
I0428 19:57:35.624313 28718 layer_factory.hpp:77] Creating layer relu3
I0428 19:57:35.624318 28718 net.cpp:86] Creating Layer relu3
I0428 19:57:35.624321 28718 net.cpp:408] relu3 <- ip3
I0428 19:57:35.624326 28718 net.cpp:369] relu3 -> ip3 (in-place)
I0428 19:57:35.624511 28718 net.cpp:124] Setting up relu3
I0428 19:57:35.624519 28718 net.cpp:131] Top shape: 64 10 (640)
I0428 19:57:35.624522 28718 net.cpp:139] Memory required for data: 2161920
I0428 19:57:35.624526 28718 layer_factory.hpp:77] Creating layer loss
I0428 19:57:35.624531 28718 net.cpp:86] Creating Layer loss
I0428 19:57:35.624534 28718 net.cpp:408] loss <- ip3
I0428 19:57:35.624538 28718 net.cpp:408] loss <- label
I0428 19:57:35.624544 28718 net.cpp:382] loss -> loss
I0428 19:57:35.624575 28718 layer_factory.hpp:77] Creating layer loss
…
I0428 19:57:35.625319 28718 solver.cpp:173] Creating test net (#0) specified by net file: ECE595/mnist/train_test/var_everything2/lenet_train_test793.prototxt
I0428 19:57:35.625377 28718 net.cpp:296] The NetState phase (1) differed from the phase (0) specified by a rule in layer mnist
I0428 19:57:35.625484 28718 net.cpp:53] Initializing net from parameters: 
name: "LeNet"
state {
  phase: TEST
}
layer {
  name: "mnist"
  type: "Data"
  top: "data"
  top: "label"
  include {
    phase: TEST
  }
  transform_param {
    scale: 0.00390625
  }
  data_param {
    source: "examples/mnist/mnist_test_lmdb"
    batch_size: 100
    backend: LMDB
  }
}
layer {
  name: "conv0"
  type: "Convolution"
  bottom: "data"
  top: "conv0"
  param {
    lr_mult: 1
  }
  param {
    lr_mult: 2
  }
  convolution_param {
    num_output: 10
    kernel_size: 5
    stride: 1
    weight_filler {
      type: "xavier"
    }
    bias_filler {
      type: "constant"
    }
  }
}
layer {
  name: "pool0"
  type: "Pooling"
  bottom: "conv0"
  top: "pool0"
  pooling_param {
    pool: MAX
    kernel_size: 2
    stride: 2
  }
}
layer {
  name: "conv1"
  type: "Convolution"
  bottom: "pool0"
  top: "conv1"
  param {
    lr_mult: 1
  }
  param {
    lr_mult: 2
  }
  convolution_param {
    num_output: 5
    kernel_size: 5
    stride: 1
    weight_filler {
      type: "xavier"
    }
    bias_filler {
      type: "constant"
    }
  }
}
layer {
  name: "pool1"
  type: "Pooling"
  bottom: "conv1"
  top: "pool1"
  pooling_param {
    pool: MAX
    kernel_size: 2
    stride: 2
  }
}
layer {
  name: "ip1"
  type: "InnerProduct"
  bottom: "pool1"
  top: "ip1"
  param {
    lr_mult: 1
  }
  param {
    lr_mult: 2
  }
  inner_product_param {
    num_output: 10
    weight_filler {
      type: "xavier"
    }
    bias_filler {
      type: "constant"
    }
  }
}
layer {
  name: "relu1"
  type: "ReLU"
  bottom: "ip1"
  top: "ip1"
}
layer {
  name: "ip2"
  type: "InnerProduct"
  bottom: "ip1"
  top: "ip2"
  param {
    lr_mult: 1
  }
  param {
    lr_mult: 2
  }
  inner_product_param {
    num_output: 10
    weight_filler {
      type: "xavier"
    }
    bias_filler {
      type: "constant"
    }
  }
}
layer {
  name: "relu2"
  type: "ReLU"
  bottom: "ip2"
  top: "ip2"
}
layer {
  name: "ip3"
  type: "InnerProduct"
  bottom: "ip2"
  top: "ip3"
  param {
    lr_mult: 1
  }
  param {
    lr_mult: 2
  }
  inner_product_param {
    num_output: 10
    weight_filler {
      type: "xavier"
    }
    bias_filler {
      type: "constant"
    }
  }
}
layer {
  name: "relu3"
  type: "ReLU"
  bottom: "ip3"
  top: "ip3"
}
layer {
  name: "accuracy"
  type: "Accuracy"
  bottom: "ip3"
  bottom: "label"
  top: "accuracy"
  include {
    phase: TEST
  }
}
layer {
  name: "loss"
  type: "SoftmaxWithLoss"
  bottom: "ip3"
  bottom: "label"
  top: "loss"
}
I0428 19:57:35.625563 28718 layer_factory.hpp:77] Creating layer mnist
I0428 19:57:35.625605 28718 db_lmdb.cpp:35] Opened lmdb examples/mnist/mnist_test_lmdb
I0428 19:57:35.625619 28718 net.cpp:86] Creating Layer mnist
I0428 19:57:35.625623 28718 net.cpp:382] mnist -> data
I0428 19:57:35.625632 28718 net.cpp:382] mnist -> label
I0428 19:57:35.625713 28718 data_layer.cpp:45] output data size: 100,1,28,28
I0428 19:57:35.627692 28718 net.cpp:124] Setting up mnist
I0428 19:57:35.627732 28718 net.cpp:131] Top shape: 100 1 28 28 (78400)
I0428 19:57:35.627737 28718 net.cpp:131] Top shape: 100 (100)
I0428 19:57:35.627740 28718 net.cpp:139] Memory required for data: 314000
I0428 19:57:35.627743 28718 layer_factory.hpp:77] Creating layer label_mnist_1_split
I0428 19:57:35.627784 28718 net.cpp:86] Creating Layer label_mnist_1_split
I0428 19:57:35.627791 28718 net.cpp:408] label_mnist_1_split <- label
I0428 19:57:35.627796 28718 net.cpp:382] label_mnist_1_split -> label_mnist_1_split_0
I0428 19:57:35.627804 28718 net.cpp:382] label_mnist_1_split -> label_mnist_1_split_1
I0428 19:57:35.627846 28718 net.cpp:124] Setting up label_mnist_1_split
I0428 19:57:35.627853 28718 net.cpp:131] Top shape: 100 (100)
I0428 19:57:35.627857 28718 net.cpp:131] Top shape: 100 (100)
I0428 19:57:35.627861 28718 net.cpp:139] Memory required for data: 314800
I0428 19:57:35.627863 28718 layer_factory.hpp:77] Creating layer conv0
I0428 19:57:35.627873 28718 net.cpp:86] Creating Layer conv0
I0428 19:57:35.627876 28718 net.cpp:408] conv0 <- data
I0428 19:57:35.627882 28718 net.cpp:382] conv0 -> conv0
I0428 19:57:35.629694 28718 net.cpp:124] Setting up conv0
I0428 19:57:35.629724 28718 net.cpp:131] Top shape: 100 10 24 24 (576000)
I0428 19:57:35.629729 28718 net.cpp:139] Memory required for data: 2618800
I0428 19:57:35.629737 28718 layer_factory.hpp:77] Creating layer pool0
I0428 19:57:35.629745 28718 net.cpp:86] Creating Layer pool0
I0428 19:57:35.629750 28718 net.cpp:408] pool0 <- conv0
I0428 19:57:35.629755 28718 net.cpp:382] pool0 -> pool0
I0428 19:57:35.629806 28718 net.cpp:124] Setting up pool0
I0428 19:57:35.629812 28718 net.cpp:131] Top shape: 100 10 12 12 (144000)
I0428 19:57:35.629814 28718 net.cpp:139] Memory required for data: 3194800
I0428 19:57:35.629817 28718 layer_factory.hpp:77] Creating layer conv1
I0428 19:57:35.629827 28718 net.cpp:86] Creating Layer conv1
I0428 19:57:35.629830 28718 net.cpp:408] conv1 <- pool0
I0428 19:57:35.629837 28718 net.cpp:382] conv1 -> conv1
I0428 19:57:35.632062 28718 net.cpp:124] Setting up conv1
I0428 19:57:35.632091 28718 net.cpp:131] Top shape: 100 5 8 8 (32000)
I0428 19:57:35.632094 28718 net.cpp:139] Memory required for data: 3322800
I0428 19:57:35.632104 28718 layer_factory.hpp:77] Creating layer pool1
I0428 19:57:35.632112 28718 net.cpp:86] Creating Layer pool1
I0428 19:57:35.632117 28718 net.cpp:408] pool1 <- conv1
I0428 19:57:35.632122 28718 net.cpp:382] pool1 -> pool1
I0428 19:57:35.632160 28718 net.cpp:124] Setting up pool1
I0428 19:57:35.632185 28718 net.cpp:131] Top shape: 100 5 4 4 (8000)
I0428 19:57:35.632189 28718 net.cpp:139] Memory required for data: 3354800
I0428 19:57:35.632192 28718 layer_factory.hpp:77] Creating layer ip1
I0428 19:57:35.632200 28718 net.cpp:86] Creating Layer ip1
I0428 19:57:35.632202 28718 net.cpp:408] ip1 <- pool1
I0428 19:57:35.632207 28718 net.cpp:382] ip1 -> ip1
I0428 19:57:35.632355 28718 net.cpp:124] Setting up ip1
I0428 19:57:35.632364 28718 net.cpp:131] Top shape: 100 10 (1000)
I0428 19:57:35.632378 28718 net.cpp:139] Memory required for data: 3358800
I0428 19:57:35.632386 28718 layer_factory.hpp:77] Creating layer relu1
I0428 19:57:35.632393 28718 net.cpp:86] Creating Layer relu1
I0428 19:57:35.632397 28718 net.cpp:408] relu1 <- ip1
I0428 19:57:35.632402 28718 net.cpp:369] relu1 -> ip1 (in-place)
I0428 19:57:35.632644 28718 net.cpp:124] Setting up relu1
I0428 19:57:35.632654 28718 net.cpp:131] Top shape: 100 10 (1000)
I0428 19:57:35.632658 28718 net.cpp:139] Memory required for data: 3362800
I0428 19:57:35.632663 28718 layer_factory.hpp:77] Creating layer ip2
I0428 19:57:35.632670 28718 net.cpp:86] Creating Layer ip2
I0428 19:57:35.632674 28718 net.cpp:408] ip2 <- ip1
I0428 19:57:35.632680 28718 net.cpp:382] ip2 -> ip2
I0428 19:57:35.632797 28718 net.cpp:124] Setting up ip2
I0428 19:57:35.632803 28718 net.cpp:131] Top shape: 100 10 (1000)
I0428 19:57:35.632807 28718 net.cpp:139] Memory required for data: 3366800
I0428 19:57:35.632835 28718 layer_factory.hpp:77] Creating layer relu2
I0428 19:57:35.632841 28718 net.cpp:86] Creating Layer relu2
I0428 19:57:35.632844 28718 net.cpp:408] relu2 <- ip2
I0428 19:57:35.632850 28718 net.cpp:369] relu2 -> ip2 (in-place)
I0428 19:57:35.633031 28718 net.cpp:124] Setting up relu2
I0428 19:57:35.633040 28718 net.cpp:131] Top shape: 100 10 (1000)
I0428 19:57:35.633044 28718 net.cpp:139] Memory required for data: 3370800
I0428 19:57:35.633047 28718 layer_factory.hpp:77] Creating layer ip3
I0428 19:57:35.633054 28718 net.cpp:86] Creating Layer ip3
I0428 19:57:35.633056 28718 net.cpp:408] ip3 <- ip2
I0428 19:57:35.633064 28718 net.cpp:382] ip3 -> ip3
I0428 19:57:35.633185 28718 net.cpp:124] Setting up ip3
I0428 19:57:35.633205 28718 net.cpp:131] Top shape: 100 10 (1000)
I0428 19:57:35.633220 28718 net.cpp:139] Memory required for data: 3374800
I0428 19:57:35.633229 28718 layer_factory.hpp:77] Creating layer relu3
I0428 19:57:35.633234 28718 net.cpp:86] Creating Layer relu3
I0428 19:57:35.633239 28718 net.cpp:408] relu3 <- ip3
I0428 19:57:35.633244 28718 net.cpp:369] relu3 -> ip3 (in-place)
I0428 19:57:35.634114 28718 net.cpp:124] Setting up relu3
I0428 19:57:35.634126 28718 net.cpp:131] Top shape: 100 10 (1000)
I0428 19:57:35.634147 28718 net.cpp:139] Memory required for data: 3378800
I0428 19:57:35.634150 28718 layer_factory.hpp:77] Creating layer ip3_relu3_0_split
I0428 19:57:35.634155 28718 net.cpp:86] Creating Layer ip3_relu3_0_split
I0428 19:57:35.634160 28718 net.cpp:408] ip3_relu3_0_split <- ip3
I0428 19:57:35.634166 28718 net.cpp:382] ip3_relu3_0_split -> ip3_relu3_0_split_0
I0428 19:57:35.634172 28718 net.cpp:382] ip3_relu3_0_split -> ip3_relu3_0_split_1
I0428 19:57:35.634224 28718 net.cpp:124] Setting up ip3_relu3_0_split
I0428 19:57:35.634230 28718 net.cpp:131] Top shape: 100 10 (1000)
I0428 19:57:35.634233 28718 net.cpp:131] Top shape: 100 10 (1000)
I0428 19:57:35.634237 28718 net.cpp:139] Memory required for data: 3386800
I0428 19:57:35.634239 28718 layer_factory.hpp:77] Creating layer accuracy
I0428 19:57:35.634244 28718 net.cpp:86] Creating Layer accuracy
I0428 19:57:35.634254 28718 net.cpp:408] accuracy <- ip3_relu3_0_split_0
I0428 19:57:35.634258 28718 net.cpp:408] accuracy <- label_mnist_1_split_0
I0428 19:57:35.634263 28718 net.cpp:382] accuracy -> accuracy
…
