…
I0428 20:18:05.405902  1051 net.cpp:296] The NetState phase (0) differed from the phase (1) specified by a rule in layer mnist
I0428 20:18:05.405933  1051 net.cpp:296] The NetState phase (0) differed from the phase (1) specified by a rule in layer accuracy
I0428 20:18:05.406013  1051 net.cpp:53] Initializing net from parameters: 
name: "LeNet"
state {
  phase: TRAIN
  level: 0
  stage: ""
}
layer {
  name: "mnist"
  type: "Data"
  top: "data"
  top: "label"
  include {
    phase: TRAIN
  }
  transform_param {
    scale: 0.00390625
  }
  data_param {
    source: "examples/mnist/mnist_train_lmdb"
    batch_size: 64
    backend: LMDB
  }
}
layer {
  name: "conv0"
  type: "Convolution"
  bottom: "data"
  top: "conv0"
  param {
    lr_mult: 1
  }
  param {
    lr_mult: 2
  }
  convolution_param {
    num_output: 50
    kernel_size: 5
    stride: 1
    weight_filler {
      type: "xavier"
    }
    bias_filler {
      type: "constant"
    }
  }
}
layer {
  name: "pool0"
  type: "Pooling"
  bottom: "conv0"
  top: "pool0"
  pooling_param {
    pool: MAX
    kernel_size: 2
    stride: 2
  }
}
layer {
  name: "conv1"
  type: "Convolution"
  bottom: "pool0"
  top: "conv1"
  param {
    lr_mult: 1
  }
  param {
    lr_mult: 2
  }
  convolution_param {
    num_output: 10
    kernel_size: 5
    stride: 1
    weight_filler {
      type: "xavier"
    }
    bias_filler {
      type: "constant"
    }
  }
}
layer {
  name: "pool1"
  type: "Pooling"
  bottom: "conv1"
  top: "pool1"
  pooling_param {
    pool: MAX
    kernel_size: 2
    stride: 2
  }
}
layer {
  name: "ip1"
  type: "InnerProduct"
  bottom: "pool1"
  top: "ip1"
  param {
    lr_mult: 1
  }
  param {
    lr_mult: 2
  }
  inner_product_param {
    num_output: 25
    weight_filler {
      type: "xavier"
    }
    bias_filler {
      type: "constant"
    }
  }
}
layer {
  name: "relu1"
  type: "ReLU"
  bottom: "ip1"
  top: "ip1"
}
layer {
  name: "ip2"
  type: "InnerProduct"
  bottom: "ip1"
  top: "ip2"
  param {
    lr_mult: 1
  }
  param {
    lr_mult: 2
  }
  inner_product_param {
    num_output: 10
    weight_filler {
      type: "xavier"
    }
    bias_filler {
      type: "constant"
    }
  }
}
layer {
  name: "relu2"
  type: "ReLU"
  bottom: "ip2"
  top: "ip2"
}
layer {
  name: "ip3"
  type: "InnerProduct"
  bottom: "ip2"
  top: "ip3"
  param {
    lr_mult: 1
  }
  param {
    lr_mult: 2
  }
  inner_product_param {
    num_output: 10
    weight_filler {
      type: "xavier"
    }
    bias_filler {
      type: "constant"
    }
  }
}
layer {
  name: "relu3"
  type: "ReLU"
  bottom: "ip3"
  top: "ip3"
}
layer {
  name: "loss"
  type: "SoftmaxWithLoss"
  bottom: "ip3"
  bottom: "label"
  top: "loss"
}
I0428 20:18:05.406090  1051 layer_factory.hpp:77] Creating layer mnist
I0428 20:18:05.406177  1051 db_lmdb.cpp:35] Opened lmdb examples/mnist/mnist_train_lmdb
I0428 20:18:05.406195  1051 net.cpp:86] Creating Layer mnist
I0428 20:18:05.406201  1051 net.cpp:382] mnist -> data
I0428 20:18:05.406219  1051 net.cpp:382] mnist -> label
I0428 20:18:05.407229  1051 data_layer.cpp:45] output data size: 64,1,28,28
I0428 20:18:05.409493  1051 net.cpp:124] Setting up mnist
I0428 20:18:05.409524  1051 net.cpp:131] Top shape: 64 1 28 28 (50176)
I0428 20:18:05.409529  1051 net.cpp:131] Top shape: 64 (64)
I0428 20:18:05.409533  1051 net.cpp:139] Memory required for data: 200960
I0428 20:18:05.409538  1051 layer_factory.hpp:77] Creating layer conv0
I0428 20:18:05.409554  1051 net.cpp:86] Creating Layer conv0
I0428 20:18:05.409571  1051 net.cpp:408] conv0 <- data
I0428 20:18:05.409581  1051 net.cpp:382] conv0 -> conv0
I0428 20:18:05.635697  1051 net.cpp:124] Setting up conv0
I0428 20:18:05.635740  1051 net.cpp:131] Top shape: 64 50 24 24 (1843200)
I0428 20:18:05.635745  1051 net.cpp:139] Memory required for data: 7573760
I0428 20:18:05.635758  1051 layer_factory.hpp:77] Creating layer pool0
I0428 20:18:05.635787  1051 net.cpp:86] Creating Layer pool0
I0428 20:18:05.635790  1051 net.cpp:408] pool0 <- conv0
I0428 20:18:05.635795  1051 net.cpp:382] pool0 -> pool0
I0428 20:18:05.635841  1051 net.cpp:124] Setting up pool0
I0428 20:18:05.635848  1051 net.cpp:131] Top shape: 64 50 12 12 (460800)
I0428 20:18:05.635851  1051 net.cpp:139] Memory required for data: 9416960
I0428 20:18:05.635854  1051 layer_factory.hpp:77] Creating layer conv1
I0428 20:18:05.635865  1051 net.cpp:86] Creating Layer conv1
I0428 20:18:05.635869  1051 net.cpp:408] conv1 <- pool0
I0428 20:18:05.635874  1051 net.cpp:382] conv1 -> conv1
I0428 20:18:05.638762  1051 net.cpp:124] Setting up conv1
I0428 20:18:05.638792  1051 net.cpp:131] Top shape: 64 10 8 8 (40960)
I0428 20:18:05.638797  1051 net.cpp:139] Memory required for data: 9580800
I0428 20:18:05.638804  1051 layer_factory.hpp:77] Creating layer pool1
I0428 20:18:05.638813  1051 net.cpp:86] Creating Layer pool1
I0428 20:18:05.638815  1051 net.cpp:408] pool1 <- conv1
I0428 20:18:05.638835  1051 net.cpp:382] pool1 -> pool1
I0428 20:18:05.638872  1051 net.cpp:124] Setting up pool1
I0428 20:18:05.638880  1051 net.cpp:131] Top shape: 64 10 4 4 (10240)
I0428 20:18:05.638883  1051 net.cpp:139] Memory required for data: 9621760
I0428 20:18:05.638897  1051 layer_factory.hpp:77] Creating layer ip1
I0428 20:18:05.638903  1051 net.cpp:86] Creating Layer ip1
I0428 20:18:05.638907  1051 net.cpp:408] ip1 <- pool1
I0428 20:18:05.638911  1051 net.cpp:382] ip1 -> ip1
I0428 20:18:05.639046  1051 net.cpp:124] Setting up ip1
I0428 20:18:05.639053  1051 net.cpp:131] Top shape: 64 25 (1600)
I0428 20:18:05.639057  1051 net.cpp:139] Memory required for data: 9628160
I0428 20:18:05.639063  1051 layer_factory.hpp:77] Creating layer relu1
I0428 20:18:05.639070  1051 net.cpp:86] Creating Layer relu1
I0428 20:18:05.639072  1051 net.cpp:408] relu1 <- ip1
I0428 20:18:05.639076  1051 net.cpp:369] relu1 -> ip1 (in-place)
I0428 20:18:05.639268  1051 net.cpp:124] Setting up relu1
I0428 20:18:05.639277  1051 net.cpp:131] Top shape: 64 25 (1600)
I0428 20:18:05.639297  1051 net.cpp:139] Memory required for data: 9634560
I0428 20:18:05.639299  1051 layer_factory.hpp:77] Creating layer ip2
I0428 20:18:05.639305  1051 net.cpp:86] Creating Layer ip2
I0428 20:18:05.639308  1051 net.cpp:408] ip2 <- ip1
I0428 20:18:05.639313  1051 net.cpp:382] ip2 -> ip2
I0428 20:18:05.639400  1051 net.cpp:124] Setting up ip2
I0428 20:18:05.639407  1051 net.cpp:131] Top shape: 64 10 (640)
I0428 20:18:05.639410  1051 net.cpp:139] Memory required for data: 9637120
I0428 20:18:05.639416  1051 layer_factory.hpp:77] Creating layer relu2
I0428 20:18:05.639421  1051 net.cpp:86] Creating Layer relu2
I0428 20:18:05.639425  1051 net.cpp:408] relu2 <- ip2
I0428 20:18:05.639428  1051 net.cpp:369] relu2 -> ip2 (in-place)
I0428 20:18:05.640229  1051 net.cpp:124] Setting up relu2
I0428 20:18:05.640240  1051 net.cpp:131] Top shape: 64 10 (640)
I0428 20:18:05.640244  1051 net.cpp:139] Memory required for data: 9639680
I0428 20:18:05.640247  1051 layer_factory.hpp:77] Creating layer ip3
I0428 20:18:05.640254  1051 net.cpp:86] Creating Layer ip3
I0428 20:18:05.640257  1051 net.cpp:408] ip3 <- ip2
I0428 20:18:05.640262  1051 net.cpp:382] ip3 -> ip3
I0428 20:18:05.640368  1051 net.cpp:124] Setting up ip3
I0428 20:18:05.640377  1051 net.cpp:131] Top shape: 64 10 (640)
I0428 20:18:05.640379  1051 net.cpp:139] Memory required for data: 9642240
I0428 20:18:05.640388  1051 layer_factory.hpp:77] Creating layer relu3
I0428 20:18:05.640393  1051 net.cpp:86] Creating Layer relu3
I0428 20:18:05.640395  1051 net.cpp:408] relu3 <- ip3
I0428 20:18:05.640399  1051 net.cpp:369] relu3 -> ip3 (in-place)
I0428 20:18:05.640563  1051 net.cpp:124] Setting up relu3
I0428 20:18:05.640571  1051 net.cpp:131] Top shape: 64 10 (640)
I0428 20:18:05.640575  1051 net.cpp:139] Memory required for data: 9644800
I0428 20:18:05.640578  1051 layer_factory.hpp:77] Creating layer loss
I0428 20:18:05.640584  1051 net.cpp:86] Creating Layer loss
I0428 20:18:05.640588  1051 net.cpp:408] loss <- ip3
I0428 20:18:05.640591  1051 net.cpp:408] loss <- label
I0428 20:18:05.640597  1051 net.cpp:382] loss -> loss
I0428 20:18:05.640611  1051 layer_factory.hpp:77] Creating layer loss
…
I0428 20:18:05.641448  1051 solver.cpp:173] Creating test net (#0) specified by net file: ECE595/mnist/train_test/var_everything2/lenet_train_test1310.prototxt
I0428 20:18:05.641491  1051 net.cpp:296] The NetState phase (1) differed from the phase (0) specified by a rule in layer mnist
I0428 20:18:05.641582  1051 net.cpp:53] Initializing net from parameters: 
name: "LeNet"
state {
  phase: TEST
}
layer {
  name: "mnist"
  type: "Data"
  top: "data"
  top: "label"
  include {
    phase: TEST
  }
  transform_param {
    scale: 0.00390625
  }
  data_param {
    source: "examples/mnist/mnist_test_lmdb"
    batch_size: 100
    backend: LMDB
  }
}
layer {
  name: "conv0"
  type: "Convolution"
  bottom: "data"
  top: "conv0"
  param {
    lr_mult: 1
  }
  param {
    lr_mult: 2
  }
  convolution_param {
    num_output: 50
    kernel_size: 5
    stride: 1
    weight_filler {
      type: "xavier"
    }
    bias_filler {
      type: "constant"
    }
  }
}
layer {
  name: "pool0"
  type: "Pooling"
  bottom: "conv0"
  top: "pool0"
  pooling_param {
    pool: MAX
    kernel_size: 2
    stride: 2
  }
}
layer {
  name: "conv1"
  type: "Convolution"
  bottom: "pool0"
  top: "conv1"
  param {
    lr_mult: 1
  }
  param {
    lr_mult: 2
  }
  convolution_param {
    num_output: 10
    kernel_size: 5
    stride: 1
    weight_filler {
      type: "xavier"
    }
    bias_filler {
      type: "constant"
    }
  }
}
layer {
  name: "pool1"
  type: "Pooling"
  bottom: "conv1"
  top: "pool1"
  pooling_param {
    pool: MAX
    kernel_size: 2
    stride: 2
  }
}
layer {
  name: "ip1"
  type: "InnerProduct"
  bottom: "pool1"
  top: "ip1"
  param {
    lr_mult: 1
  }
  param {
    lr_mult: 2
  }
  inner_product_param {
    num_output: 25
    weight_filler {
      type: "xavier"
    }
    bias_filler {
      type: "constant"
    }
  }
}
layer {
  name: "relu1"
  type: "ReLU"
  bottom: "ip1"
  top: "ip1"
}
layer {
  name: "ip2"
  type: "InnerProduct"
  bottom: "ip1"
  top: "ip2"
  param {
    lr_mult: 1
  }
  param {
    lr_mult: 2
  }
  inner_product_param {
    num_output: 10
    weight_filler {
      type: "xavier"
    }
    bias_filler {
      type: "constant"
    }
  }
}
layer {
  name: "relu2"
  type: "ReLU"
  bottom: "ip2"
  top: "ip2"
}
layer {
  name: "ip3"
  type: "InnerProduct"
  bottom: "ip2"
  top: "ip3"
  param {
    lr_mult: 1
  }
  param {
    lr_mult: 2
  }
  inner_product_param {
    num_output: 10
    weight_filler {
      type: "xavier"
    }
    bias_filler {
      type: "constant"
    }
  }
}
layer {
  name: "relu3"
  type: "ReLU"
  bottom: "ip3"
  top: "ip3"
}
layer {
  name: "accuracy"
  type: "Accuracy"
  bottom: "ip3"
  bottom: "label"
  top: "accuracy"
  include {
    phase: TEST
  }
}
layer {
  name: "loss"
  type: "SoftmaxWithLoss"
  bottom: "ip3"
  bottom: "label"
  top: "loss"
}
I0428 20:18:05.641664  1051 layer_factory.hpp:77] Creating layer mnist
I0428 20:18:05.641736  1051 db_lmdb.cpp:35] Opened lmdb examples/mnist/mnist_test_lmdb
I0428 20:18:05.641752  1051 net.cpp:86] Creating Layer mnist
I0428 20:18:05.641757  1051 net.cpp:382] mnist -> data
I0428 20:18:05.641764  1051 net.cpp:382] mnist -> label
I0428 20:18:05.641844  1051 data_layer.cpp:45] output data size: 100,1,28,28
I0428 20:18:05.643887  1051 net.cpp:124] Setting up mnist
I0428 20:18:05.643916  1051 net.cpp:131] Top shape: 100 1 28 28 (78400)
I0428 20:18:05.643921  1051 net.cpp:131] Top shape: 100 (100)
I0428 20:18:05.643925  1051 net.cpp:139] Memory required for data: 314000
I0428 20:18:05.643929  1051 layer_factory.hpp:77] Creating layer label_mnist_1_split
I0428 20:18:05.643935  1051 net.cpp:86] Creating Layer label_mnist_1_split
I0428 20:18:05.643939  1051 net.cpp:408] label_mnist_1_split <- label
I0428 20:18:05.643944  1051 net.cpp:382] label_mnist_1_split -> label_mnist_1_split_0
I0428 20:18:05.643950  1051 net.cpp:382] label_mnist_1_split -> label_mnist_1_split_1
I0428 20:18:05.644058  1051 net.cpp:124] Setting up label_mnist_1_split
I0428 20:18:05.644067  1051 net.cpp:131] Top shape: 100 (100)
I0428 20:18:05.644069  1051 net.cpp:131] Top shape: 100 (100)
I0428 20:18:05.644073  1051 net.cpp:139] Memory required for data: 314800
I0428 20:18:05.644075  1051 layer_factory.hpp:77] Creating layer conv0
I0428 20:18:05.644083  1051 net.cpp:86] Creating Layer conv0
I0428 20:18:05.644086  1051 net.cpp:408] conv0 <- data
I0428 20:18:05.644091  1051 net.cpp:382] conv0 -> conv0
I0428 20:18:05.645705  1051 net.cpp:124] Setting up conv0
I0428 20:18:05.645720  1051 net.cpp:131] Top shape: 100 50 24 24 (2880000)
I0428 20:18:05.645722  1051 net.cpp:139] Memory required for data: 11834800
I0428 20:18:05.645747  1051 layer_factory.hpp:77] Creating layer pool0
I0428 20:18:05.645753  1051 net.cpp:86] Creating Layer pool0
I0428 20:18:05.645772  1051 net.cpp:408] pool0 <- conv0
I0428 20:18:05.645784  1051 net.cpp:382] pool0 -> pool0
I0428 20:18:05.645828  1051 net.cpp:124] Setting up pool0
I0428 20:18:05.645834  1051 net.cpp:131] Top shape: 100 50 12 12 (720000)
I0428 20:18:05.645838  1051 net.cpp:139] Memory required for data: 14714800
I0428 20:18:05.645841  1051 layer_factory.hpp:77] Creating layer conv1
I0428 20:18:05.645849  1051 net.cpp:86] Creating Layer conv1
I0428 20:18:05.645853  1051 net.cpp:408] conv1 <- pool0
I0428 20:18:05.645858  1051 net.cpp:382] conv1 -> conv1
I0428 20:18:05.647424  1051 net.cpp:124] Setting up conv1
I0428 20:18:05.647439  1051 net.cpp:131] Top shape: 100 10 8 8 (64000)
I0428 20:18:05.647442  1051 net.cpp:139] Memory required for data: 14970800
I0428 20:18:05.647451  1051 layer_factory.hpp:77] Creating layer pool1
I0428 20:18:05.647457  1051 net.cpp:86] Creating Layer pool1
I0428 20:18:05.647461  1051 net.cpp:408] pool1 <- conv1
I0428 20:18:05.647472  1051 net.cpp:382] pool1 -> pool1
I0428 20:18:05.647523  1051 net.cpp:124] Setting up pool1
I0428 20:18:05.647531  1051 net.cpp:131] Top shape: 100 10 4 4 (16000)
I0428 20:18:05.647534  1051 net.cpp:139] Memory required for data: 15034800
I0428 20:18:05.647537  1051 layer_factory.hpp:77] Creating layer ip1
I0428 20:18:05.647548  1051 net.cpp:86] Creating Layer ip1
I0428 20:18:05.647552  1051 net.cpp:408] ip1 <- pool1
I0428 20:18:05.647557  1051 net.cpp:382] ip1 -> ip1
I0428 20:18:05.647694  1051 net.cpp:124] Setting up ip1
I0428 20:18:05.647703  1051 net.cpp:131] Top shape: 100 25 (2500)
I0428 20:18:05.647717  1051 net.cpp:139] Memory required for data: 15044800
I0428 20:18:05.647727  1051 layer_factory.hpp:77] Creating layer relu1
I0428 20:18:05.647732  1051 net.cpp:86] Creating Layer relu1
I0428 20:18:05.647734  1051 net.cpp:408] relu1 <- ip1
I0428 20:18:05.647754  1051 net.cpp:369] relu1 -> ip1 (in-place)
I0428 20:18:05.648015  1051 net.cpp:124] Setting up relu1
I0428 20:18:05.648025  1051 net.cpp:131] Top shape: 100 25 (2500)
I0428 20:18:05.648030  1051 net.cpp:139] Memory required for data: 15054800
I0428 20:18:05.648032  1051 layer_factory.hpp:77] Creating layer ip2
I0428 20:18:05.648039  1051 net.cpp:86] Creating Layer ip2
I0428 20:18:05.648057  1051 net.cpp:408] ip2 <- ip1
I0428 20:18:05.648062  1051 net.cpp:382] ip2 -> ip2
I0428 20:18:05.648169  1051 net.cpp:124] Setting up ip2
I0428 20:18:05.648176  1051 net.cpp:131] Top shape: 100 10 (1000)
I0428 20:18:05.648180  1051 net.cpp:139] Memory required for data: 15058800
I0428 20:18:05.648186  1051 layer_factory.hpp:77] Creating layer relu2
I0428 20:18:05.648190  1051 net.cpp:86] Creating Layer relu2
I0428 20:18:05.648195  1051 net.cpp:408] relu2 <- ip2
I0428 20:18:05.648198  1051 net.cpp:369] relu2 -> ip2 (in-place)
I0428 20:18:05.648380  1051 net.cpp:124] Setting up relu2
I0428 20:18:05.648391  1051 net.cpp:131] Top shape: 100 10 (1000)
I0428 20:18:05.648394  1051 net.cpp:139] Memory required for data: 15062800
I0428 20:18:05.648397  1051 layer_factory.hpp:77] Creating layer ip3
I0428 20:18:05.648408  1051 net.cpp:86] Creating Layer ip3
I0428 20:18:05.648411  1051 net.cpp:408] ip3 <- ip2
I0428 20:18:05.648416  1051 net.cpp:382] ip3 -> ip3
I0428 20:18:05.648533  1051 net.cpp:124] Setting up ip3
I0428 20:18:05.648540  1051 net.cpp:131] Top shape: 100 10 (1000)
I0428 20:18:05.648543  1051 net.cpp:139] Memory required for data: 15066800
I0428 20:18:05.648550  1051 layer_factory.hpp:77] Creating layer relu3
I0428 20:18:05.648556  1051 net.cpp:86] Creating Layer relu3
I0428 20:18:05.648560  1051 net.cpp:408] relu3 <- ip3
I0428 20:18:05.648563  1051 net.cpp:369] relu3 -> ip3 (in-place)
I0428 20:18:05.649513  1051 net.cpp:124] Setting up relu3
I0428 20:18:05.649526  1051 net.cpp:131] Top shape: 100 10 (1000)
I0428 20:18:05.649530  1051 net.cpp:139] Memory required for data: 15070800
I0428 20:18:05.649533  1051 layer_factory.hpp:77] Creating layer ip3_relu3_0_split
I0428 20:18:05.649539  1051 net.cpp:86] Creating Layer ip3_relu3_0_split
I0428 20:18:05.649543  1051 net.cpp:408] ip3_relu3_0_split <- ip3
I0428 20:18:05.649547  1051 net.cpp:382] ip3_relu3_0_split -> ip3_relu3_0_split_0
I0428 20:18:05.649554  1051 net.cpp:382] ip3_relu3_0_split -> ip3_relu3_0_split_1
I0428 20:18:05.649591  1051 net.cpp:124] Setting up ip3_relu3_0_split
I0428 20:18:05.649598  1051 net.cpp:131] Top shape: 100 10 (1000)
I0428 20:18:05.649602  1051 net.cpp:131] Top shape: 100 10 (1000)
I0428 20:18:05.649605  1051 net.cpp:139] Memory required for data: 15078800
I0428 20:18:05.649607  1051 layer_factory.hpp:77] Creating layer accuracy
I0428 20:18:05.649612  1051 net.cpp:86] Creating Layer accuracy
I0428 20:18:05.649626  1051 net.cpp:408] accuracy <- ip3_relu3_0_split_0
I0428 20:18:05.649631  1051 net.cpp:408] accuracy <- label_mnist_1_split_0
I0428 20:18:05.649636  1051 net.cpp:382] accuracy -> accuracy
…
