…
I0428 20:33:54.614199  4387 net.cpp:296] The NetState phase (0) differed from the phase (1) specified by a rule in layer mnist
I0428 20:33:54.614226  4387 net.cpp:296] The NetState phase (0) differed from the phase (1) specified by a rule in layer accuracy
I0428 20:33:54.614372  4387 net.cpp:53] Initializing net from parameters: 
name: "LeNet"
state {
  phase: TRAIN
  level: 0
  stage: ""
}
layer {
  name: "mnist"
  type: "Data"
  top: "data"
  top: "label"
  include {
    phase: TRAIN
  }
  transform_param {
    scale: 0.00390625
  }
  data_param {
    source: "examples/mnist/mnist_train_lmdb"
    batch_size: 64
    backend: LMDB
  }
}
layer {
  name: "conv0"
  type: "Convolution"
  bottom: "data"
  top: "conv0"
  param {
    lr_mult: 1
  }
  param {
    lr_mult: 2
  }
  convolution_param {
    num_output: 100
    kernel_size: 5
    stride: 1
    weight_filler {
      type: "xavier"
    }
    bias_filler {
      type: "constant"
    }
  }
}
layer {
  name: "pool0"
  type: "Pooling"
  bottom: "conv0"
  top: "pool0"
  pooling_param {
    pool: MAX
    kernel_size: 2
    stride: 2
  }
}
layer {
  name: "conv1"
  type: "Convolution"
  bottom: "pool0"
  top: "conv1"
  param {
    lr_mult: 1
  }
  param {
    lr_mult: 2
  }
  convolution_param {
    num_output: 25
    kernel_size: 5
    stride: 1
    weight_filler {
      type: "xavier"
    }
    bias_filler {
      type: "constant"
    }
  }
}
layer {
  name: "pool1"
  type: "Pooling"
  bottom: "conv1"
  top: "pool1"
  pooling_param {
    pool: MAX
    kernel_size: 2
    stride: 2
  }
}
layer {
  name: "ip1"
  type: "InnerProduct"
  bottom: "pool1"
  top: "ip1"
  param {
    lr_mult: 1
  }
  param {
    lr_mult: 2
  }
  inner_product_param {
    num_output: 50
    weight_filler {
      type: "xavier"
    }
    bias_filler {
      type: "constant"
    }
  }
}
layer {
  name: "relu1"
  type: "ReLU"
  bottom: "ip1"
  top: "ip1"
}
layer {
  name: "ip2"
  type: "InnerProduct"
  bottom: "ip1"
  top: "ip2"
  param {
    lr_mult: 1
  }
  param {
    lr_mult: 2
  }
  inner_product_param {
    num_output: 50
    weight_filler {
      type: "xavier"
    }
    bias_filler {
      type: "constant"
    }
  }
}
layer {
  name: "relu2"
  type: "ReLU"
  bottom: "ip2"
  top: "ip2"
}
layer {
  name: "ip3"
  type: "InnerProduct"
  bottom: "ip2"
  top: "ip3"
  param {
    lr_mult: 1
  }
  param {
    lr_mult: 2
  }
  inner_product_param {
    num_output: 10
    weight_filler {
      type: "xavier"
    }
    bias_filler {
      type: "constant"
    }
  }
}
layer {
  name: "relu3"
  type: "ReLU"
  bottom: "ip3"
  top: "ip3"
}
layer {
  name: "loss"
  type: "SoftmaxWithLoss"
  bottom: "ip3"
  bottom: "label"
  top: "loss"
}
I0428 20:33:54.614478  4387 layer_factory.hpp:77] Creating layer mnist
I0428 20:33:54.614601  4387 db_lmdb.cpp:35] Opened lmdb examples/mnist/mnist_train_lmdb
I0428 20:33:54.614632  4387 net.cpp:86] Creating Layer mnist
I0428 20:33:54.614645  4387 net.cpp:382] mnist -> data
I0428 20:33:54.614673  4387 net.cpp:382] mnist -> label
I0428 20:33:54.616076  4387 data_layer.cpp:45] output data size: 64,1,28,28
I0428 20:33:54.619283  4387 net.cpp:124] Setting up mnist
I0428 20:33:54.619307  4387 net.cpp:131] Top shape: 64 1 28 28 (50176)
I0428 20:33:54.619318  4387 net.cpp:131] Top shape: 64 (64)
I0428 20:33:54.619323  4387 net.cpp:139] Memory required for data: 200960
I0428 20:33:54.619333  4387 layer_factory.hpp:77] Creating layer conv0
I0428 20:33:54.619352  4387 net.cpp:86] Creating Layer conv0
I0428 20:33:54.619379  4387 net.cpp:408] conv0 <- data
I0428 20:33:54.619402  4387 net.cpp:382] conv0 -> conv0
I0428 20:33:54.943286  4387 net.cpp:124] Setting up conv0
I0428 20:33:54.943334  4387 net.cpp:131] Top shape: 64 100 24 24 (3686400)
I0428 20:33:54.943339  4387 net.cpp:139] Memory required for data: 14946560
I0428 20:33:54.943361  4387 layer_factory.hpp:77] Creating layer pool0
I0428 20:33:54.943392  4387 net.cpp:86] Creating Layer pool0
I0428 20:33:54.943397  4387 net.cpp:408] pool0 <- conv0
I0428 20:33:54.943404  4387 net.cpp:382] pool0 -> pool0
I0428 20:33:54.943459  4387 net.cpp:124] Setting up pool0
I0428 20:33:54.943469  4387 net.cpp:131] Top shape: 64 100 12 12 (921600)
I0428 20:33:54.943472  4387 net.cpp:139] Memory required for data: 18632960
I0428 20:33:54.943477  4387 layer_factory.hpp:77] Creating layer conv1
I0428 20:33:54.943490  4387 net.cpp:86] Creating Layer conv1
I0428 20:33:54.943495  4387 net.cpp:408] conv1 <- pool0
I0428 20:33:54.943501  4387 net.cpp:382] conv1 -> conv1
I0428 20:33:54.946638  4387 net.cpp:124] Setting up conv1
I0428 20:33:54.946671  4387 net.cpp:131] Top shape: 64 25 8 8 (102400)
I0428 20:33:54.946676  4387 net.cpp:139] Memory required for data: 19042560
I0428 20:33:54.946687  4387 layer_factory.hpp:77] Creating layer pool1
I0428 20:33:54.946697  4387 net.cpp:86] Creating Layer pool1
I0428 20:33:54.946702  4387 net.cpp:408] pool1 <- conv1
I0428 20:33:54.946724  4387 net.cpp:382] pool1 -> pool1
I0428 20:33:54.946771  4387 net.cpp:124] Setting up pool1
I0428 20:33:54.946781  4387 net.cpp:131] Top shape: 64 25 4 4 (25600)
I0428 20:33:54.946785  4387 net.cpp:139] Memory required for data: 19144960
I0428 20:33:54.946789  4387 layer_factory.hpp:77] Creating layer ip1
I0428 20:33:54.946799  4387 net.cpp:86] Creating Layer ip1
I0428 20:33:54.946804  4387 net.cpp:408] ip1 <- pool1
I0428 20:33:54.946811  4387 net.cpp:382] ip1 -> ip1
I0428 20:33:54.947160  4387 net.cpp:124] Setting up ip1
I0428 20:33:54.947168  4387 net.cpp:131] Top shape: 64 50 (3200)
I0428 20:33:54.947183  4387 net.cpp:139] Memory required for data: 19157760
I0428 20:33:54.947193  4387 layer_factory.hpp:77] Creating layer relu1
I0428 20:33:54.947203  4387 net.cpp:86] Creating Layer relu1
I0428 20:33:54.947207  4387 net.cpp:408] relu1 <- ip1
I0428 20:33:54.947214  4387 net.cpp:369] relu1 -> ip1 (in-place)
I0428 20:33:54.947460  4387 net.cpp:124] Setting up relu1
I0428 20:33:54.947473  4387 net.cpp:131] Top shape: 64 50 (3200)
I0428 20:33:54.947477  4387 net.cpp:139] Memory required for data: 19170560
I0428 20:33:54.947481  4387 layer_factory.hpp:77] Creating layer ip2
I0428 20:33:54.947491  4387 net.cpp:86] Creating Layer ip2
I0428 20:33:54.947496  4387 net.cpp:408] ip2 <- ip1
I0428 20:33:54.947504  4387 net.cpp:382] ip2 -> ip2
I0428 20:33:54.947651  4387 net.cpp:124] Setting up ip2
I0428 20:33:54.947661  4387 net.cpp:131] Top shape: 64 50 (3200)
I0428 20:33:54.947665  4387 net.cpp:139] Memory required for data: 19183360
I0428 20:33:54.947674  4387 layer_factory.hpp:77] Creating layer relu2
I0428 20:33:54.947697  4387 net.cpp:86] Creating Layer relu2
I0428 20:33:54.947721  4387 net.cpp:408] relu2 <- ip2
I0428 20:33:54.947726  4387 net.cpp:369] relu2 -> ip2 (in-place)
I0428 20:33:54.948786  4387 net.cpp:124] Setting up relu2
I0428 20:33:54.948823  4387 net.cpp:131] Top shape: 64 50 (3200)
I0428 20:33:54.948829  4387 net.cpp:139] Memory required for data: 19196160
I0428 20:33:54.948849  4387 layer_factory.hpp:77] Creating layer ip3
I0428 20:33:54.948860  4387 net.cpp:86] Creating Layer ip3
I0428 20:33:54.948865  4387 net.cpp:408] ip3 <- ip2
I0428 20:33:54.948889  4387 net.cpp:382] ip3 -> ip3
I0428 20:33:54.949031  4387 net.cpp:124] Setting up ip3
I0428 20:33:54.949043  4387 net.cpp:131] Top shape: 64 10 (640)
I0428 20:33:54.949048  4387 net.cpp:139] Memory required for data: 19198720
I0428 20:33:54.949059  4387 layer_factory.hpp:77] Creating layer relu3
I0428 20:33:54.949066  4387 net.cpp:86] Creating Layer relu3
I0428 20:33:54.949071  4387 net.cpp:408] relu3 <- ip3
I0428 20:33:54.949095  4387 net.cpp:369] relu3 -> ip3 (in-place)
I0428 20:33:54.949314  4387 net.cpp:124] Setting up relu3
I0428 20:33:54.949327  4387 net.cpp:131] Top shape: 64 10 (640)
I0428 20:33:54.949332  4387 net.cpp:139] Memory required for data: 19201280
I0428 20:33:54.949337  4387 layer_factory.hpp:77] Creating layer loss
I0428 20:33:54.949345  4387 net.cpp:86] Creating Layer loss
I0428 20:33:54.949352  4387 net.cpp:408] loss <- ip3
I0428 20:33:54.949357  4387 net.cpp:408] loss <- label
I0428 20:33:54.949367  4387 net.cpp:382] loss -> loss
I0428 20:33:54.949389  4387 layer_factory.hpp:77] Creating layer loss
…
I0428 20:33:54.950397  4387 solver.cpp:173] Creating test net (#0) specified by net file: ECE595/mnist/train_test/var_everything2/lenet_train_test1596.prototxt
I0428 20:33:54.950453  4387 net.cpp:296] The NetState phase (1) differed from the phase (0) specified by a rule in layer mnist
I0428 20:33:54.950613  4387 net.cpp:53] Initializing net from parameters: 
name: "LeNet"
state {
  phase: TEST
}
layer {
  name: "mnist"
  type: "Data"
  top: "data"
  top: "label"
  include {
    phase: TEST
  }
  transform_param {
    scale: 0.00390625
  }
  data_param {
    source: "examples/mnist/mnist_test_lmdb"
    batch_size: 100
    backend: LMDB
  }
}
layer {
  name: "conv0"
  type: "Convolution"
  bottom: "data"
  top: "conv0"
  param {
    lr_mult: 1
  }
  param {
    lr_mult: 2
  }
  convolution_param {
    num_output: 100
    kernel_size: 5
    stride: 1
    weight_filler {
      type: "xavier"
    }
    bias_filler {
      type: "constant"
    }
  }
}
layer {
  name: "pool0"
  type: "Pooling"
  bottom: "conv0"
  top: "pool0"
  pooling_param {
    pool: MAX
    kernel_size: 2
    stride: 2
  }
}
layer {
  name: "conv1"
  type: "Convolution"
  bottom: "pool0"
  top: "conv1"
  param {
    lr_mult: 1
  }
  param {
    lr_mult: 2
  }
  convolution_param {
    num_output: 25
    kernel_size: 5
    stride: 1
    weight_filler {
      type: "xavier"
    }
    bias_filler {
      type: "constant"
    }
  }
}
layer {
  name: "pool1"
  type: "Pooling"
  bottom: "conv1"
  top: "pool1"
  pooling_param {
    pool: MAX
    kernel_size: 2
    stride: 2
  }
}
layer {
  name: "ip1"
  type: "InnerProduct"
  bottom: "pool1"
  top: "ip1"
  param {
    lr_mult: 1
  }
  param {
    lr_mult: 2
  }
  inner_product_param {
    num_output: 50
    weight_filler {
      type: "xavier"
    }
    bias_filler {
      type: "constant"
    }
  }
}
layer {
  name: "relu1"
  type: "ReLU"
  bottom: "ip1"
  top: "ip1"
}
layer {
  name: "ip2"
  type: "InnerProduct"
  bottom: "ip1"
  top: "ip2"
  param {
    lr_mult: 1
  }
  param {
    lr_mult: 2
  }
  inner_product_param {
    num_output: 50
    weight_filler {
      type: "xavier"
    }
    bias_filler {
      type: "constant"
    }
  }
}
layer {
  name: "relu2"
  type: "ReLU"
  bottom: "ip2"
  top: "ip2"
}
layer {
  name: "ip3"
  type: "InnerProduct"
  bottom: "ip2"
  top: "ip3"
  param {
    lr_mult: 1
  }
  param {
    lr_mult: 2
  }
  inner_product_param {
    num_output: 10
    weight_filler {
      type: "xavier"
    }
    bias_filler {
      type: "constant"
    }
  }
}
layer {
  name: "relu3"
  type: "ReLU"
  bottom: "ip3"
  top: "ip3"
}
layer {
  name: "accuracy"
  type: "Accuracy"
  bottom: "ip3"
  bottom: "label"
  top: "accuracy"
  include {
    phase: TEST
  }
}
layer {
  name: "loss"
  type: "SoftmaxWithLoss"
  bottom: "ip3"
  bottom: "label"
  top: "loss"
}
I0428 20:33:54.950726  4387 layer_factory.hpp:77] Creating layer mnist
I0428 20:33:54.950778  4387 db_lmdb.cpp:35] Opened lmdb examples/mnist/mnist_test_lmdb
I0428 20:33:54.950795  4387 net.cpp:86] Creating Layer mnist
I0428 20:33:54.950817  4387 net.cpp:382] mnist -> data
I0428 20:33:54.950829  4387 net.cpp:382] mnist -> label
I0428 20:33:54.950948  4387 data_layer.cpp:45] output data size: 100,1,28,28
I0428 20:33:54.953534  4387 net.cpp:124] Setting up mnist
I0428 20:33:54.953567  4387 net.cpp:131] Top shape: 100 1 28 28 (78400)
I0428 20:33:54.953589  4387 net.cpp:131] Top shape: 100 (100)
I0428 20:33:54.953593  4387 net.cpp:139] Memory required for data: 314000
I0428 20:33:54.953599  4387 layer_factory.hpp:77] Creating layer label_mnist_1_split
I0428 20:33:54.953613  4387 net.cpp:86] Creating Layer label_mnist_1_split
I0428 20:33:54.953618  4387 net.cpp:408] label_mnist_1_split <- label
I0428 20:33:54.953639  4387 net.cpp:382] label_mnist_1_split -> label_mnist_1_split_0
I0428 20:33:54.953662  4387 net.cpp:382] label_mnist_1_split -> label_mnist_1_split_1
I0428 20:33:54.953778  4387 net.cpp:124] Setting up label_mnist_1_split
I0428 20:33:54.953788  4387 net.cpp:131] Top shape: 100 (100)
I0428 20:33:54.953794  4387 net.cpp:131] Top shape: 100 (100)
I0428 20:33:54.953799  4387 net.cpp:139] Memory required for data: 314800
I0428 20:33:54.953804  4387 layer_factory.hpp:77] Creating layer conv0
I0428 20:33:54.953816  4387 net.cpp:86] Creating Layer conv0
I0428 20:33:54.953821  4387 net.cpp:408] conv0 <- data
I0428 20:33:54.953830  4387 net.cpp:382] conv0 -> conv0
I0428 20:33:54.955884  4387 net.cpp:124] Setting up conv0
I0428 20:33:54.955917  4387 net.cpp:131] Top shape: 100 100 24 24 (5760000)
I0428 20:33:54.955922  4387 net.cpp:139] Memory required for data: 23354800
I0428 20:33:54.955935  4387 layer_factory.hpp:77] Creating layer pool0
I0428 20:33:54.955945  4387 net.cpp:86] Creating Layer pool0
I0428 20:33:54.955965  4387 net.cpp:408] pool0 <- conv0
I0428 20:33:54.955973  4387 net.cpp:382] pool0 -> pool0
I0428 20:33:54.956024  4387 net.cpp:124] Setting up pool0
I0428 20:33:54.956034  4387 net.cpp:131] Top shape: 100 100 12 12 (1440000)
I0428 20:33:54.956054  4387 net.cpp:139] Memory required for data: 29114800
I0428 20:33:54.956059  4387 layer_factory.hpp:77] Creating layer conv1
I0428 20:33:54.956074  4387 net.cpp:86] Creating Layer conv1
I0428 20:33:54.956079  4387 net.cpp:408] conv1 <- pool0
I0428 20:33:54.956086  4387 net.cpp:382] conv1 -> conv1
I0428 20:33:54.958860  4387 net.cpp:124] Setting up conv1
I0428 20:33:54.958891  4387 net.cpp:131] Top shape: 100 25 8 8 (160000)
I0428 20:33:54.958897  4387 net.cpp:139] Memory required for data: 29754800
I0428 20:33:54.958909  4387 layer_factory.hpp:77] Creating layer pool1
I0428 20:33:54.958917  4387 net.cpp:86] Creating Layer pool1
I0428 20:33:54.958922  4387 net.cpp:408] pool1 <- conv1
I0428 20:33:54.958946  4387 net.cpp:382] pool1 -> pool1
I0428 20:33:54.959004  4387 net.cpp:124] Setting up pool1
I0428 20:33:54.959013  4387 net.cpp:131] Top shape: 100 25 4 4 (40000)
I0428 20:33:54.959017  4387 net.cpp:139] Memory required for data: 29914800
I0428 20:33:54.959023  4387 layer_factory.hpp:77] Creating layer ip1
I0428 20:33:54.959048  4387 net.cpp:86] Creating Layer ip1
I0428 20:33:54.959053  4387 net.cpp:408] ip1 <- pool1
I0428 20:33:54.959061  4387 net.cpp:382] ip1 -> ip1
I0428 20:33:54.959408  4387 net.cpp:124] Setting up ip1
I0428 20:33:54.959441  4387 net.cpp:131] Top shape: 100 50 (5000)
I0428 20:33:54.959462  4387 net.cpp:139] Memory required for data: 29934800
I0428 20:33:54.959473  4387 layer_factory.hpp:77] Creating layer relu1
I0428 20:33:54.959481  4387 net.cpp:86] Creating Layer relu1
I0428 20:33:54.959486  4387 net.cpp:408] relu1 <- ip1
I0428 20:33:54.959492  4387 net.cpp:369] relu1 -> ip1 (in-place)
I0428 20:33:54.959825  4387 net.cpp:124] Setting up relu1
I0428 20:33:54.959851  4387 net.cpp:131] Top shape: 100 50 (5000)
I0428 20:33:54.959856  4387 net.cpp:139] Memory required for data: 29954800
I0428 20:33:54.959861  4387 layer_factory.hpp:77] Creating layer ip2
I0428 20:33:54.959870  4387 net.cpp:86] Creating Layer ip2
I0428 20:33:54.959874  4387 net.cpp:408] ip2 <- ip1
I0428 20:33:54.959894  4387 net.cpp:382] ip2 -> ip2
I0428 20:33:54.960073  4387 net.cpp:124] Setting up ip2
I0428 20:33:54.960083  4387 net.cpp:131] Top shape: 100 50 (5000)
I0428 20:33:54.960089  4387 net.cpp:139] Memory required for data: 29974800
I0428 20:33:54.960098  4387 layer_factory.hpp:77] Creating layer relu2
I0428 20:33:54.960104  4387 net.cpp:86] Creating Layer relu2
I0428 20:33:54.960109  4387 net.cpp:408] relu2 <- ip2
I0428 20:33:54.960117  4387 net.cpp:369] relu2 -> ip2 (in-place)
I0428 20:33:54.960368  4387 net.cpp:124] Setting up relu2
I0428 20:33:54.960381  4387 net.cpp:131] Top shape: 100 50 (5000)
I0428 20:33:54.960386  4387 net.cpp:139] Memory required for data: 29994800
I0428 20:33:54.960391  4387 layer_factory.hpp:77] Creating layer ip3
I0428 20:33:54.960398  4387 net.cpp:86] Creating Layer ip3
I0428 20:33:54.960404  4387 net.cpp:408] ip3 <- ip2
I0428 20:33:54.960412  4387 net.cpp:382] ip3 -> ip3
I0428 20:33:54.960563  4387 net.cpp:124] Setting up ip3
I0428 20:33:54.960573  4387 net.cpp:131] Top shape: 100 10 (1000)
I0428 20:33:54.960577  4387 net.cpp:139] Memory required for data: 29998800
I0428 20:33:54.960588  4387 layer_factory.hpp:77] Creating layer relu3
I0428 20:33:54.960594  4387 net.cpp:86] Creating Layer relu3
I0428 20:33:54.960599  4387 net.cpp:408] relu3 <- ip3
I0428 20:33:54.960608  4387 net.cpp:369] relu3 -> ip3 (in-place)
I0428 20:33:54.961787  4387 net.cpp:124] Setting up relu3
I0428 20:33:54.961819  4387 net.cpp:131] Top shape: 100 10 (1000)
I0428 20:33:54.961824  4387 net.cpp:139] Memory required for data: 30002800
I0428 20:33:54.961829  4387 layer_factory.hpp:77] Creating layer ip3_relu3_0_split
I0428 20:33:54.961838  4387 net.cpp:86] Creating Layer ip3_relu3_0_split
I0428 20:33:54.961843  4387 net.cpp:408] ip3_relu3_0_split <- ip3
I0428 20:33:54.961851  4387 net.cpp:382] ip3_relu3_0_split -> ip3_relu3_0_split_0
I0428 20:33:54.961860  4387 net.cpp:382] ip3_relu3_0_split -> ip3_relu3_0_split_1
I0428 20:33:54.961912  4387 net.cpp:124] Setting up ip3_relu3_0_split
I0428 20:33:54.961925  4387 net.cpp:131] Top shape: 100 10 (1000)
I0428 20:33:54.961931  4387 net.cpp:131] Top shape: 100 10 (1000)
I0428 20:33:54.961937  4387 net.cpp:139] Memory required for data: 30010800
I0428 20:33:54.961941  4387 layer_factory.hpp:77] Creating layer accuracy
I0428 20:33:54.961951  4387 net.cpp:86] Creating Layer accuracy
I0428 20:33:54.961954  4387 net.cpp:408] accuracy <- ip3_relu3_0_split_0
I0428 20:33:54.961961  4387 net.cpp:408] accuracy <- label_mnist_1_split_0
I0428 20:33:54.961968  4387 net.cpp:382] accuracy -> accuracy
…
