…
I0428 19:39:18.722685 24264 net.cpp:296] The NetState phase (0) differed from the phase (1) specified by a rule in layer mnist
I0428 19:39:18.722704 24264 net.cpp:296] The NetState phase (0) differed from the phase (1) specified by a rule in layer accuracy
I0428 19:39:18.722792 24264 net.cpp:53] Initializing net from parameters: 
name: "LeNet"
state {
  phase: TRAIN
  level: 0
  stage: ""
}
layer {
  name: "mnist"
  type: "Data"
  top: "data"
  top: "label"
  include {
    phase: TRAIN
  }
  transform_param {
    scale: 0.00390625
  }
  data_param {
    source: "examples/mnist/mnist_train_lmdb"
    batch_size: 64
    backend: LMDB
  }
}
layer {
  name: "conv0"
  type: "Convolution"
  bottom: "data"
  top: "conv0"
  param {
    lr_mult: 1
  }
  param {
    lr_mult: 2
  }
  convolution_param {
    num_output: 2
    kernel_size: 5
    stride: 1
    weight_filler {
      type: "xavier"
    }
    bias_filler {
      type: "constant"
    }
  }
}
layer {
  name: "pool0"
  type: "Pooling"
  bottom: "conv0"
  top: "pool0"
  pooling_param {
    pool: MAX
    kernel_size: 2
    stride: 2
  }
}
layer {
  name: "conv1"
  type: "Convolution"
  bottom: "pool0"
  top: "conv1"
  param {
    lr_mult: 1
  }
  param {
    lr_mult: 2
  }
  convolution_param {
    num_output: 2
    kernel_size: 5
    stride: 1
    weight_filler {
      type: "xavier"
    }
    bias_filler {
      type: "constant"
    }
  }
}
layer {
  name: "pool1"
  type: "Pooling"
  bottom: "conv1"
  top: "pool1"
  pooling_param {
    pool: MAX
    kernel_size: 2
    stride: 2
  }
}
layer {
  name: "ip1"
  type: "InnerProduct"
  bottom: "pool1"
  top: "ip1"
  param {
    lr_mult: 1
  }
  param {
    lr_mult: 2
  }
  inner_product_param {
    num_output: 25
    weight_filler {
      type: "xavier"
    }
    bias_filler {
      type: "constant"
    }
  }
}
layer {
  name: "relu1"
  type: "ReLU"
  bottom: "ip1"
  top: "ip1"
}
layer {
  name: "ip2"
  type: "InnerProduct"
  bottom: "ip1"
  top: "ip2"
  param {
    lr_mult: 1
  }
  param {
    lr_mult: 2
  }
  inner_product_param {
    num_output: 50
    weight_filler {
      type: "xavier"
    }
    bias_filler {
      type: "constant"
    }
  }
}
layer {
  name: "relu2"
  type: "ReLU"
  bottom: "ip2"
  top: "ip2"
}
layer {
  name: "ip3"
  type: "InnerProduct"
  bottom: "ip2"
  top: "ip3"
  param {
    lr_mult: 1
  }
  param {
    lr_mult: 2
  }
  inner_product_param {
    num_output: 10
    weight_filler {
      type: "xavier"
    }
    bias_filler {
      type: "constant"
    }
  }
}
layer {
  name: "relu3"
  type: "ReLU"
  bottom: "ip3"
  top: "ip3"
}
layer {
  name: "loss"
  type: "SoftmaxWithLoss"
  bottom: "ip3"
  bottom: "label"
  top: "loss"
}
I0428 19:39:18.722895 24264 layer_factory.hpp:77] Creating layer mnist
I0428 19:39:18.722998 24264 db_lmdb.cpp:35] Opened lmdb examples/mnist/mnist_train_lmdb
I0428 19:39:18.723024 24264 net.cpp:86] Creating Layer mnist
I0428 19:39:18.723037 24264 net.cpp:382] mnist -> data
I0428 19:39:18.723060 24264 net.cpp:382] mnist -> label
I0428 19:39:18.724114 24264 data_layer.cpp:45] output data size: 64,1,28,28
I0428 19:39:18.726333 24264 net.cpp:124] Setting up mnist
I0428 19:39:18.726351 24264 net.cpp:131] Top shape: 64 1 28 28 (50176)
I0428 19:39:18.726357 24264 net.cpp:131] Top shape: 64 (64)
I0428 19:39:18.726362 24264 net.cpp:139] Memory required for data: 200960
I0428 19:39:18.726372 24264 layer_factory.hpp:77] Creating layer conv0
I0428 19:39:18.726404 24264 net.cpp:86] Creating Layer conv0
I0428 19:39:18.726424 24264 net.cpp:408] conv0 <- data
I0428 19:39:18.726441 24264 net.cpp:382] conv0 -> conv0
I0428 19:39:18.965826 24264 net.cpp:124] Setting up conv0
I0428 19:39:18.965854 24264 net.cpp:131] Top shape: 64 2 24 24 (73728)
I0428 19:39:18.965860 24264 net.cpp:139] Memory required for data: 495872
I0428 19:39:18.965898 24264 layer_factory.hpp:77] Creating layer pool0
I0428 19:39:18.965914 24264 net.cpp:86] Creating Layer pool0
I0428 19:39:18.965931 24264 net.cpp:408] pool0 <- conv0
I0428 19:39:18.965941 24264 net.cpp:382] pool0 -> pool0
I0428 19:39:18.966001 24264 net.cpp:124] Setting up pool0
I0428 19:39:18.966011 24264 net.cpp:131] Top shape: 64 2 12 12 (18432)
I0428 19:39:18.966017 24264 net.cpp:139] Memory required for data: 569600
I0428 19:39:18.966022 24264 layer_factory.hpp:77] Creating layer conv1
I0428 19:39:18.966038 24264 net.cpp:86] Creating Layer conv1
I0428 19:39:18.966045 24264 net.cpp:408] conv1 <- pool0
I0428 19:39:18.966055 24264 net.cpp:382] conv1 -> conv1
I0428 19:39:18.967970 24264 net.cpp:124] Setting up conv1
I0428 19:39:18.967988 24264 net.cpp:131] Top shape: 64 2 8 8 (8192)
I0428 19:39:18.967993 24264 net.cpp:139] Memory required for data: 602368
I0428 19:39:18.968006 24264 layer_factory.hpp:77] Creating layer pool1
I0428 19:39:18.968019 24264 net.cpp:86] Creating Layer pool1
I0428 19:39:18.968024 24264 net.cpp:408] pool1 <- conv1
I0428 19:39:18.968034 24264 net.cpp:382] pool1 -> pool1
I0428 19:39:18.968091 24264 net.cpp:124] Setting up pool1
I0428 19:39:18.968101 24264 net.cpp:131] Top shape: 64 2 4 4 (2048)
I0428 19:39:18.968106 24264 net.cpp:139] Memory required for data: 610560
I0428 19:39:18.968111 24264 layer_factory.hpp:77] Creating layer ip1
I0428 19:39:18.968122 24264 net.cpp:86] Creating Layer ip1
I0428 19:39:18.968127 24264 net.cpp:408] ip1 <- pool1
I0428 19:39:18.968135 24264 net.cpp:382] ip1 -> ip1
I0428 19:39:18.968251 24264 net.cpp:124] Setting up ip1
I0428 19:39:18.968261 24264 net.cpp:131] Top shape: 64 25 (1600)
I0428 19:39:18.968266 24264 net.cpp:139] Memory required for data: 616960
I0428 19:39:18.968276 24264 layer_factory.hpp:77] Creating layer relu1
I0428 19:39:18.968284 24264 net.cpp:86] Creating Layer relu1
I0428 19:39:18.968292 24264 net.cpp:408] relu1 <- ip1
I0428 19:39:18.968300 24264 net.cpp:369] relu1 -> ip1 (in-place)
I0428 19:39:18.968477 24264 net.cpp:124] Setting up relu1
I0428 19:39:18.968487 24264 net.cpp:131] Top shape: 64 25 (1600)
I0428 19:39:18.968492 24264 net.cpp:139] Memory required for data: 623360
I0428 19:39:18.968497 24264 layer_factory.hpp:77] Creating layer ip2
I0428 19:39:18.968508 24264 net.cpp:86] Creating Layer ip2
I0428 19:39:18.968513 24264 net.cpp:408] ip2 <- ip1
I0428 19:39:18.968520 24264 net.cpp:382] ip2 -> ip2
I0428 19:39:18.969507 24264 net.cpp:124] Setting up ip2
I0428 19:39:18.969521 24264 net.cpp:131] Top shape: 64 50 (3200)
I0428 19:39:18.969527 24264 net.cpp:139] Memory required for data: 636160
I0428 19:39:18.969535 24264 layer_factory.hpp:77] Creating layer relu2
I0428 19:39:18.969545 24264 net.cpp:86] Creating Layer relu2
I0428 19:39:18.969550 24264 net.cpp:408] relu2 <- ip2
I0428 19:39:18.969558 24264 net.cpp:369] relu2 -> ip2 (in-place)
I0428 19:39:18.970316 24264 net.cpp:124] Setting up relu2
I0428 19:39:18.970331 24264 net.cpp:131] Top shape: 64 50 (3200)
I0428 19:39:18.970337 24264 net.cpp:139] Memory required for data: 648960
I0428 19:39:18.970343 24264 layer_factory.hpp:77] Creating layer ip3
I0428 19:39:18.970353 24264 net.cpp:86] Creating Layer ip3
I0428 19:39:18.970360 24264 net.cpp:408] ip3 <- ip2
I0428 19:39:18.970369 24264 net.cpp:382] ip3 -> ip3
I0428 19:39:18.970525 24264 net.cpp:124] Setting up ip3
I0428 19:39:18.970535 24264 net.cpp:131] Top shape: 64 10 (640)
I0428 19:39:18.970540 24264 net.cpp:139] Memory required for data: 651520
I0428 19:39:18.970552 24264 layer_factory.hpp:77] Creating layer relu3
I0428 19:39:18.970563 24264 net.cpp:86] Creating Layer relu3
I0428 19:39:18.970571 24264 net.cpp:408] relu3 <- ip3
I0428 19:39:18.970577 24264 net.cpp:369] relu3 -> ip3 (in-place)
I0428 19:39:18.970744 24264 net.cpp:124] Setting up relu3
I0428 19:39:18.970768 24264 net.cpp:131] Top shape: 64 10 (640)
I0428 19:39:18.970773 24264 net.cpp:139] Memory required for data: 654080
I0428 19:39:18.970794 24264 layer_factory.hpp:77] Creating layer loss
I0428 19:39:18.970809 24264 net.cpp:86] Creating Layer loss
I0428 19:39:18.970818 24264 net.cpp:408] loss <- ip3
I0428 19:39:18.970824 24264 net.cpp:408] loss <- label
I0428 19:39:18.970834 24264 net.cpp:382] loss -> loss
I0428 19:39:18.970850 24264 layer_factory.hpp:77] Creating layer loss
…
I0428 19:39:18.971581 24264 solver.cpp:173] Creating test net (#0) specified by net file: ECE595/mnist/train_test/var_everything2/lenet_train_test300.prototxt
I0428 19:39:18.971616 24264 net.cpp:296] The NetState phase (1) differed from the phase (0) specified by a rule in layer mnist
I0428 19:39:18.971714 24264 net.cpp:53] Initializing net from parameters: 
name: "LeNet"
state {
  phase: TEST
}
layer {
  name: "mnist"
  type: "Data"
  top: "data"
  top: "label"
  include {
    phase: TEST
  }
  transform_param {
    scale: 0.00390625
  }
  data_param {
    source: "examples/mnist/mnist_test_lmdb"
    batch_size: 100
    backend: LMDB
  }
}
layer {
  name: "conv0"
  type: "Convolution"
  bottom: "data"
  top: "conv0"
  param {
    lr_mult: 1
  }
  param {
    lr_mult: 2
  }
  convolution_param {
    num_output: 2
    kernel_size: 5
    stride: 1
    weight_filler {
      type: "xavier"
    }
    bias_filler {
      type: "constant"
    }
  }
}
layer {
  name: "pool0"
  type: "Pooling"
  bottom: "conv0"
  top: "pool0"
  pooling_param {
    pool: MAX
    kernel_size: 2
    stride: 2
  }
}
layer {
  name: "conv1"
  type: "Convolution"
  bottom: "pool0"
  top: "conv1"
  param {
    lr_mult: 1
  }
  param {
    lr_mult: 2
  }
  convolution_param {
    num_output: 2
    kernel_size: 5
    stride: 1
    weight_filler {
      type: "xavier"
    }
    bias_filler {
      type: "constant"
    }
  }
}
layer {
  name: "pool1"
  type: "Pooling"
  bottom: "conv1"
  top: "pool1"
  pooling_param {
    pool: MAX
    kernel_size: 2
    stride: 2
  }
}
layer {
  name: "ip1"
  type: "InnerProduct"
  bottom: "pool1"
  top: "ip1"
  param {
    lr_mult: 1
  }
  param {
    lr_mult: 2
  }
  inner_product_param {
    num_output: 25
    weight_filler {
      type: "xavier"
    }
    bias_filler {
      type: "constant"
    }
  }
}
layer {
  name: "relu1"
  type: "ReLU"
  bottom: "ip1"
  top: "ip1"
}
layer {
  name: "ip2"
  type: "InnerProduct"
  bottom: "ip1"
  top: "ip2"
  param {
    lr_mult: 1
  }
  param {
    lr_mult: 2
  }
  inner_product_param {
    num_output: 50
    weight_filler {
      type: "xavier"
    }
    bias_filler {
      type: "constant"
    }
  }
}
layer {
  name: "relu2"
  type: "ReLU"
  bottom: "ip2"
  top: "ip2"
}
layer {
  name: "ip3"
  type: "InnerProduct"
  bottom: "ip2"
  top: "ip3"
  param {
    lr_mult: 1
  }
  param {
    lr_mult: 2
  }
  inner_product_param {
    num_output: 10
    weight_filler {
      type: "xavier"
    }
    bias_filler {
      type: "constant"
    }
  }
}
layer {
  name: "relu3"
  type: "ReLU"
  bottom: "ip3"
  top: "ip3"
}
layer {
  name: "accuracy"
  type: "Accuracy"
  bottom: "ip3"
  bottom: "label"
  top: "accuracy"
  include {
    phase: TEST
  }
}
layer {
  name: "loss"
  type: "SoftmaxWithLoss"
  bottom: "ip3"
  bottom: "label"
  top: "loss"
}
I0428 19:39:18.971856 24264 layer_factory.hpp:77] Creating layer mnist
I0428 19:39:18.971915 24264 db_lmdb.cpp:35] Opened lmdb examples/mnist/mnist_test_lmdb
I0428 19:39:18.971932 24264 net.cpp:86] Creating Layer mnist
I0428 19:39:18.971940 24264 net.cpp:382] mnist -> data
I0428 19:39:18.971951 24264 net.cpp:382] mnist -> label
I0428 19:39:18.972061 24264 data_layer.cpp:45] output data size: 100,1,28,28
I0428 19:39:18.974136 24264 net.cpp:124] Setting up mnist
I0428 19:39:18.974151 24264 net.cpp:131] Top shape: 100 1 28 28 (78400)
I0428 19:39:18.974160 24264 net.cpp:131] Top shape: 100 (100)
I0428 19:39:18.974180 24264 net.cpp:139] Memory required for data: 314000
I0428 19:39:18.974186 24264 layer_factory.hpp:77] Creating layer label_mnist_1_split
I0428 19:39:18.974207 24264 net.cpp:86] Creating Layer label_mnist_1_split
I0428 19:39:18.974212 24264 net.cpp:408] label_mnist_1_split <- label
I0428 19:39:18.974220 24264 net.cpp:382] label_mnist_1_split -> label_mnist_1_split_0
I0428 19:39:18.974231 24264 net.cpp:382] label_mnist_1_split -> label_mnist_1_split_1
I0428 19:39:18.974300 24264 net.cpp:124] Setting up label_mnist_1_split
I0428 19:39:18.974309 24264 net.cpp:131] Top shape: 100 (100)
I0428 19:39:18.974315 24264 net.cpp:131] Top shape: 100 (100)
I0428 19:39:18.974320 24264 net.cpp:139] Memory required for data: 314800
I0428 19:39:18.974325 24264 layer_factory.hpp:77] Creating layer conv0
I0428 19:39:18.974337 24264 net.cpp:86] Creating Layer conv0
I0428 19:39:18.974344 24264 net.cpp:408] conv0 <- data
I0428 19:39:18.974352 24264 net.cpp:382] conv0 -> conv0
I0428 19:39:18.975905 24264 net.cpp:124] Setting up conv0
I0428 19:39:18.975921 24264 net.cpp:131] Top shape: 100 2 24 24 (115200)
I0428 19:39:18.975926 24264 net.cpp:139] Memory required for data: 775600
I0428 19:39:18.975940 24264 layer_factory.hpp:77] Creating layer pool0
I0428 19:39:18.975950 24264 net.cpp:86] Creating Layer pool0
I0428 19:39:18.975956 24264 net.cpp:408] pool0 <- conv0
I0428 19:39:18.975965 24264 net.cpp:382] pool0 -> pool0
I0428 19:39:18.976006 24264 net.cpp:124] Setting up pool0
I0428 19:39:18.976014 24264 net.cpp:131] Top shape: 100 2 12 12 (28800)
I0428 19:39:18.976019 24264 net.cpp:139] Memory required for data: 890800
I0428 19:39:18.976024 24264 layer_factory.hpp:77] Creating layer conv1
I0428 19:39:18.976037 24264 net.cpp:86] Creating Layer conv1
I0428 19:39:18.976042 24264 net.cpp:408] conv1 <- pool0
I0428 19:39:18.976052 24264 net.cpp:382] conv1 -> conv1
I0428 19:39:18.977663 24264 net.cpp:124] Setting up conv1
I0428 19:39:18.977679 24264 net.cpp:131] Top shape: 100 2 8 8 (12800)
I0428 19:39:18.977684 24264 net.cpp:139] Memory required for data: 942000
I0428 19:39:18.977697 24264 layer_factory.hpp:77] Creating layer pool1
I0428 19:39:18.977707 24264 net.cpp:86] Creating Layer pool1
I0428 19:39:18.977715 24264 net.cpp:408] pool1 <- conv1
I0428 19:39:18.977723 24264 net.cpp:382] pool1 -> pool1
I0428 19:39:18.977787 24264 net.cpp:124] Setting up pool1
I0428 19:39:18.977795 24264 net.cpp:131] Top shape: 100 2 4 4 (3200)
I0428 19:39:18.977802 24264 net.cpp:139] Memory required for data: 954800
I0428 19:39:18.977807 24264 layer_factory.hpp:77] Creating layer ip1
I0428 19:39:18.977816 24264 net.cpp:86] Creating Layer ip1
I0428 19:39:18.977836 24264 net.cpp:408] ip1 <- pool1
I0428 19:39:18.977844 24264 net.cpp:382] ip1 -> ip1
I0428 19:39:18.977948 24264 net.cpp:124] Setting up ip1
I0428 19:39:18.977959 24264 net.cpp:131] Top shape: 100 25 (2500)
I0428 19:39:18.977977 24264 net.cpp:139] Memory required for data: 964800
I0428 19:39:18.977989 24264 layer_factory.hpp:77] Creating layer relu1
I0428 19:39:18.977998 24264 net.cpp:86] Creating Layer relu1
I0428 19:39:18.978004 24264 net.cpp:408] relu1 <- ip1
I0428 19:39:18.978013 24264 net.cpp:369] relu1 -> ip1 (in-place)
I0428 19:39:18.978180 24264 net.cpp:124] Setting up relu1
I0428 19:39:18.978190 24264 net.cpp:131] Top shape: 100 25 (2500)
I0428 19:39:18.978195 24264 net.cpp:139] Memory required for data: 974800
I0428 19:39:18.978201 24264 layer_factory.hpp:77] Creating layer ip2
I0428 19:39:18.978212 24264 net.cpp:86] Creating Layer ip2
I0428 19:39:18.978222 24264 net.cpp:408] ip2 <- ip1
I0428 19:39:18.978230 24264 net.cpp:382] ip2 -> ip2
I0428 19:39:18.978356 24264 net.cpp:124] Setting up ip2
I0428 19:39:18.978365 24264 net.cpp:131] Top shape: 100 50 (5000)
I0428 19:39:18.978374 24264 net.cpp:139] Memory required for data: 994800
I0428 19:39:18.978382 24264 layer_factory.hpp:77] Creating layer relu2
I0428 19:39:18.978390 24264 net.cpp:86] Creating Layer relu2
I0428 19:39:18.978396 24264 net.cpp:408] relu2 <- ip2
I0428 19:39:18.978404 24264 net.cpp:369] relu2 -> ip2 (in-place)
I0428 19:39:18.978575 24264 net.cpp:124] Setting up relu2
I0428 19:39:18.978585 24264 net.cpp:131] Top shape: 100 50 (5000)
I0428 19:39:18.978590 24264 net.cpp:139] Memory required for data: 1014800
I0428 19:39:18.978595 24264 layer_factory.hpp:77] Creating layer ip3
I0428 19:39:18.978603 24264 net.cpp:86] Creating Layer ip3
I0428 19:39:18.978608 24264 net.cpp:408] ip3 <- ip2
I0428 19:39:18.978616 24264 net.cpp:382] ip3 -> ip3
I0428 19:39:18.978770 24264 net.cpp:124] Setting up ip3
I0428 19:39:18.978780 24264 net.cpp:131] Top shape: 100 10 (1000)
I0428 19:39:18.978785 24264 net.cpp:139] Memory required for data: 1018800
I0428 19:39:18.978797 24264 layer_factory.hpp:77] Creating layer relu3
I0428 19:39:18.978804 24264 net.cpp:86] Creating Layer relu3
I0428 19:39:18.978811 24264 net.cpp:408] relu3 <- ip3
I0428 19:39:18.978817 24264 net.cpp:369] relu3 -> ip3 (in-place)
I0428 19:39:18.979619 24264 net.cpp:124] Setting up relu3
I0428 19:39:18.979634 24264 net.cpp:131] Top shape: 100 10 (1000)
I0428 19:39:18.979638 24264 net.cpp:139] Memory required for data: 1022800
I0428 19:39:18.979645 24264 layer_factory.hpp:77] Creating layer ip3_relu3_0_split
I0428 19:39:18.979652 24264 net.cpp:86] Creating Layer ip3_relu3_0_split
I0428 19:39:18.979657 24264 net.cpp:408] ip3_relu3_0_split <- ip3
I0428 19:39:18.979666 24264 net.cpp:382] ip3_relu3_0_split -> ip3_relu3_0_split_0
I0428 19:39:18.979676 24264 net.cpp:382] ip3_relu3_0_split -> ip3_relu3_0_split_1
I0428 19:39:18.979746 24264 net.cpp:124] Setting up ip3_relu3_0_split
I0428 19:39:18.979754 24264 net.cpp:131] Top shape: 100 10 (1000)
I0428 19:39:18.979761 24264 net.cpp:131] Top shape: 100 10 (1000)
I0428 19:39:18.979766 24264 net.cpp:139] Memory required for data: 1030800
I0428 19:39:18.979771 24264 layer_factory.hpp:77] Creating layer accuracy
I0428 19:39:18.979779 24264 net.cpp:86] Creating Layer accuracy
I0428 19:39:18.979784 24264 net.cpp:408] accuracy <- ip3_relu3_0_split_0
I0428 19:39:18.979792 24264 net.cpp:408] accuracy <- label_mnist_1_split_0
I0428 19:39:18.979799 24264 net.cpp:382] accuracy -> accuracy
…
