…
I0428 19:27:49.021217 21454 net.cpp:296] The NetState phase (0) differed from the phase (1) specified by a rule in layer mnist
I0428 19:27:49.021231 21454 net.cpp:296] The NetState phase (0) differed from the phase (1) specified by a rule in layer accuracy
I0428 19:27:49.021291 21454 net.cpp:53] Initializing net from parameters: 
name: "LeNet"
state {
  phase: TRAIN
  level: 0
  stage: ""
}
layer {
  name: "mnist"
  type: "Data"
  top: "data"
  top: "label"
  include {
    phase: TRAIN
  }
  transform_param {
    scale: 0.00390625
  }
  data_param {
    source: "examples/mnist/mnist_train_lmdb"
    batch_size: 64
    backend: LMDB
  }
}
layer {
  name: "ip1"
  type: "InnerProduct"
  bottom: "data"
  top: "ip1"
  param {
    lr_mult: 1
  }
  param {
    lr_mult: 2
  }
  inner_product_param {
    num_output: 10
    weight_filler {
      type: "xavier"
    }
    bias_filler {
      type: "constant"
    }
  }
}
layer {
  name: "relu1"
  type: "ReLU"
  bottom: "ip1"
  top: "ip1"
}
layer {
  name: "ip2"
  type: "InnerProduct"
  bottom: "ip1"
  top: "ip2"
  param {
    lr_mult: 1
  }
  param {
    lr_mult: 2
  }
  inner_product_param {
    num_output: 10
    weight_filler {
      type: "xavier"
    }
    bias_filler {
      type: "constant"
    }
  }
}
layer {
  name: "relu2"
  type: "ReLU"
  bottom: "ip2"
  top: "ip2"
}
layer {
  name: "loss"
  type: "SoftmaxWithLoss"
  bottom: "ip2"
  bottom: "label"
  top: "loss"
}
I0428 19:27:49.021344 21454 layer_factory.hpp:77] Creating layer mnist
I0428 19:27:49.021440 21454 db_lmdb.cpp:35] Opened lmdb examples/mnist/mnist_train_lmdb
I0428 19:27:49.021461 21454 net.cpp:86] Creating Layer mnist
I0428 19:27:49.021468 21454 net.cpp:382] mnist -> data
I0428 19:27:49.021489 21454 net.cpp:382] mnist -> label
I0428 19:27:49.022547 21454 data_layer.cpp:45] output data size: 64,1,28,28
I0428 19:27:49.024914 21454 net.cpp:124] Setting up mnist
I0428 19:27:49.024931 21454 net.cpp:131] Top shape: 64 1 28 28 (50176)
I0428 19:27:49.024937 21454 net.cpp:131] Top shape: 64 (64)
I0428 19:27:49.024941 21454 net.cpp:139] Memory required for data: 200960
I0428 19:27:49.024947 21454 layer_factory.hpp:77] Creating layer ip1
I0428 19:27:49.024957 21454 net.cpp:86] Creating Layer ip1
I0428 19:27:49.024962 21454 net.cpp:408] ip1 <- data
I0428 19:27:49.024972 21454 net.cpp:382] ip1 -> ip1
I0428 19:27:49.026201 21454 net.cpp:124] Setting up ip1
I0428 19:27:49.026214 21454 net.cpp:131] Top shape: 64 10 (640)
I0428 19:27:49.026218 21454 net.cpp:139] Memory required for data: 203520
I0428 19:27:49.026232 21454 layer_factory.hpp:77] Creating layer relu1
I0428 19:27:49.026242 21454 net.cpp:86] Creating Layer relu1
I0428 19:27:49.026247 21454 net.cpp:408] relu1 <- ip1
I0428 19:27:49.026252 21454 net.cpp:369] relu1 -> ip1 (in-place)
I0428 19:27:49.260283 21454 net.cpp:124] Setting up relu1
I0428 19:27:49.260311 21454 net.cpp:131] Top shape: 64 10 (640)
I0428 19:27:49.260314 21454 net.cpp:139] Memory required for data: 206080
I0428 19:27:49.260320 21454 layer_factory.hpp:77] Creating layer ip2
I0428 19:27:49.260331 21454 net.cpp:86] Creating Layer ip2
I0428 19:27:49.260335 21454 net.cpp:408] ip2 <- ip1
I0428 19:27:49.260342 21454 net.cpp:382] ip2 -> ip2
I0428 19:27:49.260490 21454 net.cpp:124] Setting up ip2
I0428 19:27:49.260499 21454 net.cpp:131] Top shape: 64 10 (640)
I0428 19:27:49.260501 21454 net.cpp:139] Memory required for data: 208640
I0428 19:27:49.260510 21454 layer_factory.hpp:77] Creating layer relu2
I0428 19:27:49.260534 21454 net.cpp:86] Creating Layer relu2
I0428 19:27:49.260537 21454 net.cpp:408] relu2 <- ip2
I0428 19:27:49.260541 21454 net.cpp:369] relu2 -> ip2 (in-place)
I0428 19:27:49.261340 21454 net.cpp:124] Setting up relu2
I0428 19:27:49.261353 21454 net.cpp:131] Top shape: 64 10 (640)
I0428 19:27:49.261373 21454 net.cpp:139] Memory required for data: 211200
I0428 19:27:49.261375 21454 layer_factory.hpp:77] Creating layer loss
I0428 19:27:49.261381 21454 net.cpp:86] Creating Layer loss
I0428 19:27:49.261384 21454 net.cpp:408] loss <- ip2
I0428 19:27:49.261389 21454 net.cpp:408] loss <- label
I0428 19:27:49.261394 21454 net.cpp:382] loss -> loss
I0428 19:27:49.261431 21454 layer_factory.hpp:77] Creating layer loss
…
I0428 19:27:49.263053 21454 solver.cpp:173] Creating test net (#0) specified by net file: ECE595/mnist/train_test/var_everything2/lenet_train_test4.prototxt
I0428 19:27:49.263072 21454 net.cpp:296] The NetState phase (1) differed from the phase (0) specified by a rule in layer mnist
I0428 19:27:49.263146 21454 net.cpp:53] Initializing net from parameters: 
name: "LeNet"
state {
  phase: TEST
}
layer {
  name: "mnist"
  type: "Data"
  top: "data"
  top: "label"
  include {
    phase: TEST
  }
  transform_param {
    scale: 0.00390625
  }
  data_param {
    source: "examples/mnist/mnist_test_lmdb"
    batch_size: 100
    backend: LMDB
  }
}
layer {
  name: "ip1"
  type: "InnerProduct"
  bottom: "data"
  top: "ip1"
  param {
    lr_mult: 1
  }
  param {
    lr_mult: 2
  }
  inner_product_param {
    num_output: 10
    weight_filler {
      type: "xavier"
    }
    bias_filler {
      type: "constant"
    }
  }
}
layer {
  name: "relu1"
  type: "ReLU"
  bottom: "ip1"
  top: "ip1"
}
layer {
  name: "ip2"
  type: "InnerProduct"
  bottom: "ip1"
  top: "ip2"
  param {
    lr_mult: 1
  }
  param {
    lr_mult: 2
  }
  inner_product_param {
    num_output: 10
    weight_filler {
      type: "xavier"
    }
    bias_filler {
      type: "constant"
    }
  }
}
layer {
  name: "relu2"
  type: "ReLU"
  bottom: "ip2"
  top: "ip2"
}
layer {
  name: "accuracy"
  type: "Accuracy"
  bottom: "ip2"
  bottom: "label"
  top: "accuracy"
  include {
    phase: TEST
  }
}
layer {
  name: "loss"
  type: "SoftmaxWithLoss"
  bottom: "ip2"
  bottom: "label"
  top: "loss"
}
I0428 19:27:49.263200 21454 layer_factory.hpp:77] Creating layer mnist
I0428 19:27:49.263262 21454 db_lmdb.cpp:35] Opened lmdb examples/mnist/mnist_test_lmdb
I0428 19:27:49.263274 21454 net.cpp:86] Creating Layer mnist
I0428 19:27:49.263278 21454 net.cpp:382] mnist -> data
I0428 19:27:49.263286 21454 net.cpp:382] mnist -> label
I0428 19:27:49.263371 21454 data_layer.cpp:45] output data size: 100,1,28,28
I0428 19:27:49.265668 21454 net.cpp:124] Setting up mnist
I0428 19:27:49.265712 21454 net.cpp:131] Top shape: 100 1 28 28 (78400)
I0428 19:27:49.265717 21454 net.cpp:131] Top shape: 100 (100)
I0428 19:27:49.265736 21454 net.cpp:139] Memory required for data: 314000
I0428 19:27:49.265740 21454 layer_factory.hpp:77] Creating layer label_mnist_1_split
I0428 19:27:49.265794 21454 net.cpp:86] Creating Layer label_mnist_1_split
I0428 19:27:49.265810 21454 net.cpp:408] label_mnist_1_split <- label
I0428 19:27:49.265815 21454 net.cpp:382] label_mnist_1_split -> label_mnist_1_split_0
I0428 19:27:49.265833 21454 net.cpp:382] label_mnist_1_split -> label_mnist_1_split_1
I0428 19:27:49.265913 21454 net.cpp:124] Setting up label_mnist_1_split
I0428 19:27:49.265920 21454 net.cpp:131] Top shape: 100 (100)
I0428 19:27:49.265923 21454 net.cpp:131] Top shape: 100 (100)
I0428 19:27:49.265926 21454 net.cpp:139] Memory required for data: 314800
I0428 19:27:49.265929 21454 layer_factory.hpp:77] Creating layer ip1
I0428 19:27:49.265936 21454 net.cpp:86] Creating Layer ip1
I0428 19:27:49.265939 21454 net.cpp:408] ip1 <- data
I0428 19:27:49.265944 21454 net.cpp:382] ip1 -> ip1
I0428 19:27:49.266106 21454 net.cpp:124] Setting up ip1
I0428 19:27:49.266114 21454 net.cpp:131] Top shape: 100 10 (1000)
I0428 19:27:49.266118 21454 net.cpp:139] Memory required for data: 318800
I0428 19:27:49.266126 21454 layer_factory.hpp:77] Creating layer relu1
I0428 19:27:49.266131 21454 net.cpp:86] Creating Layer relu1
I0428 19:27:49.266134 21454 net.cpp:408] relu1 <- ip1
I0428 19:27:49.266139 21454 net.cpp:369] relu1 -> ip1 (in-place)
I0428 19:27:49.266340 21454 net.cpp:124] Setting up relu1
I0428 19:27:49.266347 21454 net.cpp:131] Top shape: 100 10 (1000)
I0428 19:27:49.266351 21454 net.cpp:139] Memory required for data: 322800
I0428 19:27:49.266355 21454 layer_factory.hpp:77] Creating layer ip2
I0428 19:27:49.266360 21454 net.cpp:86] Creating Layer ip2
I0428 19:27:49.266365 21454 net.cpp:408] ip2 <- ip1
I0428 19:27:49.266368 21454 net.cpp:382] ip2 -> ip2
I0428 19:27:49.266459 21454 net.cpp:124] Setting up ip2
I0428 19:27:49.266466 21454 net.cpp:131] Top shape: 100 10 (1000)
I0428 19:27:49.266469 21454 net.cpp:139] Memory required for data: 326800
I0428 19:27:49.266476 21454 layer_factory.hpp:77] Creating layer relu2
I0428 19:27:49.266480 21454 net.cpp:86] Creating Layer relu2
I0428 19:27:49.266484 21454 net.cpp:408] relu2 <- ip2
I0428 19:27:49.266487 21454 net.cpp:369] relu2 -> ip2 (in-place)
I0428 19:27:49.267379 21454 net.cpp:124] Setting up relu2
I0428 19:27:49.267408 21454 net.cpp:131] Top shape: 100 10 (1000)
I0428 19:27:49.267412 21454 net.cpp:139] Memory required for data: 330800
I0428 19:27:49.267416 21454 layer_factory.hpp:77] Creating layer ip2_relu2_0_split
I0428 19:27:49.267421 21454 net.cpp:86] Creating Layer ip2_relu2_0_split
I0428 19:27:49.267426 21454 net.cpp:408] ip2_relu2_0_split <- ip2
I0428 19:27:49.267431 21454 net.cpp:382] ip2_relu2_0_split -> ip2_relu2_0_split_0
I0428 19:27:49.267437 21454 net.cpp:382] ip2_relu2_0_split -> ip2_relu2_0_split_1
I0428 19:27:49.267504 21454 net.cpp:124] Setting up ip2_relu2_0_split
I0428 19:27:49.267511 21454 net.cpp:131] Top shape: 100 10 (1000)
I0428 19:27:49.267515 21454 net.cpp:131] Top shape: 100 10 (1000)
I0428 19:27:49.267518 21454 net.cpp:139] Memory required for data: 338800
I0428 19:27:49.267521 21454 layer_factory.hpp:77] Creating layer accuracy
I0428 19:27:49.267526 21454 net.cpp:86] Creating Layer accuracy
I0428 19:27:49.267529 21454 net.cpp:408] accuracy <- ip2_relu2_0_split_0
I0428 19:27:49.267534 21454 net.cpp:408] accuracy <- label_mnist_1_split_0
I0428 19:27:49.267539 21454 net.cpp:382] accuracy -> accuracy
…
