…
I0428 20:23:56.026576  2333 net.cpp:296] The NetState phase (0) differed from the phase (1) specified by a rule in layer mnist
I0428 20:23:56.026595  2333 net.cpp:296] The NetState phase (0) differed from the phase (1) specified by a rule in layer accuracy
I0428 20:23:56.026700  2333 net.cpp:53] Initializing net from parameters: 
name: "LeNet"
state {
  phase: TRAIN
  level: 0
  stage: ""
}
layer {
  name: "mnist"
  type: "Data"
  top: "data"
  top: "label"
  include {
    phase: TRAIN
  }
  transform_param {
    scale: 0.00390625
  }
  data_param {
    source: "examples/mnist/mnist_train_lmdb"
    batch_size: 64
    backend: LMDB
  }
}
layer {
  name: "conv0"
  type: "Convolution"
  bottom: "data"
  top: "conv0"
  param {
    lr_mult: 1
  }
  param {
    lr_mult: 2
  }
  convolution_param {
    num_output: 50
    kernel_size: 5
    stride: 1
    weight_filler {
      type: "xavier"
    }
    bias_filler {
      type: "constant"
    }
  }
}
layer {
  name: "pool0"
  type: "Pooling"
  bottom: "conv0"
  top: "pool0"
  pooling_param {
    pool: MAX
    kernel_size: 2
    stride: 2
  }
}
layer {
  name: "conv1"
  type: "Convolution"
  bottom: "pool0"
  top: "conv1"
  param {
    lr_mult: 1
  }
  param {
    lr_mult: 2
  }
  convolution_param {
    num_output: 100
    kernel_size: 5
    stride: 1
    weight_filler {
      type: "xavier"
    }
    bias_filler {
      type: "constant"
    }
  }
}
layer {
  name: "pool1"
  type: "Pooling"
  bottom: "conv1"
  top: "pool1"
  pooling_param {
    pool: MAX
    kernel_size: 2
    stride: 2
  }
}
layer {
  name: "ip1"
  type: "InnerProduct"
  bottom: "pool1"
  top: "ip1"
  param {
    lr_mult: 1
  }
  param {
    lr_mult: 2
  }
  inner_product_param {
    num_output: 25
    weight_filler {
      type: "xavier"
    }
    bias_filler {
      type: "constant"
    }
  }
}
layer {
  name: "relu1"
  type: "ReLU"
  bottom: "ip1"
  top: "ip1"
}
layer {
  name: "ip2"
  type: "InnerProduct"
  bottom: "ip1"
  top: "ip2"
  param {
    lr_mult: 1
  }
  param {
    lr_mult: 2
  }
  inner_product_param {
    num_output: 25
    weight_filler {
      type: "xavier"
    }
    bias_filler {
      type: "constant"
    }
  }
}
layer {
  name: "relu2"
  type: "ReLU"
  bottom: "ip2"
  top: "ip2"
}
layer {
  name: "ip3"
  type: "InnerProduct"
  bottom: "ip2"
  top: "ip3"
  param {
    lr_mult: 1
  }
  param {
    lr_mult: 2
  }
  inner_product_param {
    num_output: 10
    weight_filler {
      type: "xavier"
    }
    bias_filler {
      type: "constant"
    }
  }
}
layer {
  name: "relu3"
  type: "ReLU"
  bottom: "ip3"
  top: "ip3"
}
layer {
  name: "loss"
  type: "SoftmaxWithLoss"
  bottom: "ip3"
  bottom: "label"
  top: "loss"
}
I0428 20:23:56.026779  2333 layer_factory.hpp:77] Creating layer mnist
I0428 20:23:56.026877  2333 db_lmdb.cpp:35] Opened lmdb examples/mnist/mnist_train_lmdb
I0428 20:23:56.026901  2333 net.cpp:86] Creating Layer mnist
I0428 20:23:56.026911  2333 net.cpp:382] mnist -> data
I0428 20:23:56.026932  2333 net.cpp:382] mnist -> label
I0428 20:23:56.028018  2333 data_layer.cpp:45] output data size: 64,1,28,28
I0428 20:23:56.030457  2333 net.cpp:124] Setting up mnist
I0428 20:23:56.030478  2333 net.cpp:131] Top shape: 64 1 28 28 (50176)
I0428 20:23:56.030484  2333 net.cpp:131] Top shape: 64 (64)
I0428 20:23:56.030488  2333 net.cpp:139] Memory required for data: 200960
I0428 20:23:56.030495  2333 layer_factory.hpp:77] Creating layer conv0
I0428 20:23:56.030513  2333 net.cpp:86] Creating Layer conv0
I0428 20:23:56.030534  2333 net.cpp:408] conv0 <- data
I0428 20:23:56.030547  2333 net.cpp:382] conv0 -> conv0
I0428 20:23:56.323544  2333 net.cpp:124] Setting up conv0
I0428 20:23:56.323572  2333 net.cpp:131] Top shape: 64 50 24 24 (1843200)
I0428 20:23:56.323577  2333 net.cpp:139] Memory required for data: 7573760
I0428 20:23:56.323596  2333 layer_factory.hpp:77] Creating layer pool0
I0428 20:23:56.323609  2333 net.cpp:86] Creating Layer pool0
I0428 20:23:56.323614  2333 net.cpp:408] pool0 <- conv0
I0428 20:23:56.323621  2333 net.cpp:382] pool0 -> pool0
I0428 20:23:56.323676  2333 net.cpp:124] Setting up pool0
I0428 20:23:56.323685  2333 net.cpp:131] Top shape: 64 50 12 12 (460800)
I0428 20:23:56.323689  2333 net.cpp:139] Memory required for data: 9416960
I0428 20:23:56.323693  2333 layer_factory.hpp:77] Creating layer conv1
I0428 20:23:56.323705  2333 net.cpp:86] Creating Layer conv1
I0428 20:23:56.323712  2333 net.cpp:408] conv1 <- pool0
I0428 20:23:56.323719  2333 net.cpp:382] conv1 -> conv1
I0428 20:23:56.327452  2333 net.cpp:124] Setting up conv1
I0428 20:23:56.327469  2333 net.cpp:131] Top shape: 64 100 8 8 (409600)
I0428 20:23:56.327473  2333 net.cpp:139] Memory required for data: 11055360
I0428 20:23:56.327483  2333 layer_factory.hpp:77] Creating layer pool1
I0428 20:23:56.327491  2333 net.cpp:86] Creating Layer pool1
I0428 20:23:56.327494  2333 net.cpp:408] pool1 <- conv1
I0428 20:23:56.327500  2333 net.cpp:382] pool1 -> pool1
I0428 20:23:56.327539  2333 net.cpp:124] Setting up pool1
I0428 20:23:56.327548  2333 net.cpp:131] Top shape: 64 100 4 4 (102400)
I0428 20:23:56.327550  2333 net.cpp:139] Memory required for data: 11464960
I0428 20:23:56.327554  2333 layer_factory.hpp:77] Creating layer ip1
I0428 20:23:56.327566  2333 net.cpp:86] Creating Layer ip1
I0428 20:23:56.327571  2333 net.cpp:408] ip1 <- pool1
I0428 20:23:56.327576  2333 net.cpp:382] ip1 -> ip1
I0428 20:23:56.327931  2333 net.cpp:124] Setting up ip1
I0428 20:23:56.327939  2333 net.cpp:131] Top shape: 64 25 (1600)
I0428 20:23:56.327942  2333 net.cpp:139] Memory required for data: 11471360
I0428 20:23:56.327950  2333 layer_factory.hpp:77] Creating layer relu1
I0428 20:23:56.327956  2333 net.cpp:86] Creating Layer relu1
I0428 20:23:56.327960  2333 net.cpp:408] relu1 <- ip1
I0428 20:23:56.327963  2333 net.cpp:369] relu1 -> ip1 (in-place)
I0428 20:23:56.328142  2333 net.cpp:124] Setting up relu1
I0428 20:23:56.328150  2333 net.cpp:131] Top shape: 64 25 (1600)
I0428 20:23:56.328155  2333 net.cpp:139] Memory required for data: 11477760
I0428 20:23:56.328157  2333 layer_factory.hpp:77] Creating layer ip2
I0428 20:23:56.328164  2333 net.cpp:86] Creating Layer ip2
I0428 20:23:56.328167  2333 net.cpp:408] ip2 <- ip1
I0428 20:23:56.328172  2333 net.cpp:382] ip2 -> ip2
I0428 20:23:56.328277  2333 net.cpp:124] Setting up ip2
I0428 20:23:56.328285  2333 net.cpp:131] Top shape: 64 25 (1600)
I0428 20:23:56.328289  2333 net.cpp:139] Memory required for data: 11484160
I0428 20:23:56.328294  2333 layer_factory.hpp:77] Creating layer relu2
I0428 20:23:56.328302  2333 net.cpp:86] Creating Layer relu2
I0428 20:23:56.328306  2333 net.cpp:408] relu2 <- ip2
I0428 20:23:56.328310  2333 net.cpp:369] relu2 -> ip2 (in-place)
I0428 20:23:56.329098  2333 net.cpp:124] Setting up relu2
I0428 20:23:56.329113  2333 net.cpp:131] Top shape: 64 25 (1600)
I0428 20:23:56.329116  2333 net.cpp:139] Memory required for data: 11490560
I0428 20:23:56.329120  2333 layer_factory.hpp:77] Creating layer ip3
I0428 20:23:56.329128  2333 net.cpp:86] Creating Layer ip3
I0428 20:23:56.329131  2333 net.cpp:408] ip3 <- ip2
I0428 20:23:56.329138  2333 net.cpp:382] ip3 -> ip3
I0428 20:23:56.329243  2333 net.cpp:124] Setting up ip3
I0428 20:23:56.329252  2333 net.cpp:131] Top shape: 64 10 (640)
I0428 20:23:56.329255  2333 net.cpp:139] Memory required for data: 11493120
I0428 20:23:56.329263  2333 layer_factory.hpp:77] Creating layer relu3
I0428 20:23:56.329269  2333 net.cpp:86] Creating Layer relu3
I0428 20:23:56.329272  2333 net.cpp:408] relu3 <- ip3
I0428 20:23:56.329277  2333 net.cpp:369] relu3 -> ip3 (in-place)
I0428 20:23:56.329458  2333 net.cpp:124] Setting up relu3
I0428 20:23:56.329468  2333 net.cpp:131] Top shape: 64 10 (640)
I0428 20:23:56.329471  2333 net.cpp:139] Memory required for data: 11495680
I0428 20:23:56.329475  2333 layer_factory.hpp:77] Creating layer loss
I0428 20:23:56.329481  2333 net.cpp:86] Creating Layer loss
I0428 20:23:56.329484  2333 net.cpp:408] loss <- ip3
I0428 20:23:56.329488  2333 net.cpp:408] loss <- label
I0428 20:23:56.329494  2333 net.cpp:382] loss -> loss
I0428 20:23:56.329512  2333 layer_factory.hpp:77] Creating layer loss
…
I0428 20:23:56.330193  2333 solver.cpp:173] Creating test net (#0) specified by net file: ECE595/mnist/train_test/var_everything2/lenet_train_test1429.prototxt
I0428 20:23:56.330222  2333 net.cpp:296] The NetState phase (1) differed from the phase (0) specified by a rule in layer mnist
I0428 20:23:56.330320  2333 net.cpp:53] Initializing net from parameters: 
name: "LeNet"
state {
  phase: TEST
}
layer {
  name: "mnist"
  type: "Data"
  top: "data"
  top: "label"
  include {
    phase: TEST
  }
  transform_param {
    scale: 0.00390625
  }
  data_param {
    source: "examples/mnist/mnist_test_lmdb"
    batch_size: 100
    backend: LMDB
  }
}
layer {
  name: "conv0"
  type: "Convolution"
  bottom: "data"
  top: "conv0"
  param {
    lr_mult: 1
  }
  param {
    lr_mult: 2
  }
  convolution_param {
    num_output: 50
    kernel_size: 5
    stride: 1
    weight_filler {
      type: "xavier"
    }
    bias_filler {
      type: "constant"
    }
  }
}
layer {
  name: "pool0"
  type: "Pooling"
  bottom: "conv0"
  top: "pool0"
  pooling_param {
    pool: MAX
    kernel_size: 2
    stride: 2
  }
}
layer {
  name: "conv1"
  type: "Convolution"
  bottom: "pool0"
  top: "conv1"
  param {
    lr_mult: 1
  }
  param {
    lr_mult: 2
  }
  convolution_param {
    num_output: 100
    kernel_size: 5
    stride: 1
    weight_filler {
      type: "xavier"
    }
    bias_filler {
      type: "constant"
    }
  }
}
layer {
  name: "pool1"
  type: "Pooling"
  bottom: "conv1"
  top: "pool1"
  pooling_param {
    pool: MAX
    kernel_size: 2
    stride: 2
  }
}
layer {
  name: "ip1"
  type: "InnerProduct"
  bottom: "pool1"
  top: "ip1"
  param {
    lr_mult: 1
  }
  param {
    lr_mult: 2
  }
  inner_product_param {
    num_output: 25
    weight_filler {
      type: "xavier"
    }
    bias_filler {
      type: "constant"
    }
  }
}
layer {
  name: "relu1"
  type: "ReLU"
  bottom: "ip1"
  top: "ip1"
}
layer {
  name: "ip2"
  type: "InnerProduct"
  bottom: "ip1"
  top: "ip2"
  param {
    lr_mult: 1
  }
  param {
    lr_mult: 2
  }
  inner_product_param {
    num_output: 25
    weight_filler {
      type: "xavier"
    }
    bias_filler {
      type: "constant"
    }
  }
}
layer {
  name: "relu2"
  type: "ReLU"
  bottom: "ip2"
  top: "ip2"
}
layer {
  name: "ip3"
  type: "InnerProduct"
  bottom: "ip2"
  top: "ip3"
  param {
    lr_mult: 1
  }
  param {
    lr_mult: 2
  }
  inner_product_param {
    num_output: 10
    weight_filler {
      type: "xavier"
    }
    bias_filler {
      type: "constant"
    }
  }
}
layer {
  name: "relu3"
  type: "ReLU"
  bottom: "ip3"
  top: "ip3"
}
layer {
  name: "accuracy"
  type: "Accuracy"
  bottom: "ip3"
  bottom: "label"
  top: "accuracy"
  include {
    phase: TEST
  }
}
layer {
  name: "loss"
  type: "SoftmaxWithLoss"
  bottom: "ip3"
  bottom: "label"
  top: "loss"
}
I0428 20:23:56.330405  2333 layer_factory.hpp:77] Creating layer mnist
I0428 20:23:56.330452  2333 db_lmdb.cpp:35] Opened lmdb examples/mnist/mnist_test_lmdb
I0428 20:23:56.330466  2333 net.cpp:86] Creating Layer mnist
I0428 20:23:56.330471  2333 net.cpp:382] mnist -> data
I0428 20:23:56.330479  2333 net.cpp:382] mnist -> label
I0428 20:23:56.330570  2333 data_layer.cpp:45] output data size: 100,1,28,28
I0428 20:23:56.331719  2333 net.cpp:124] Setting up mnist
I0428 20:23:56.331734  2333 net.cpp:131] Top shape: 100 1 28 28 (78400)
I0428 20:23:56.331739  2333 net.cpp:131] Top shape: 100 (100)
I0428 20:23:56.331743  2333 net.cpp:139] Memory required for data: 314000
I0428 20:23:56.331748  2333 layer_factory.hpp:77] Creating layer label_mnist_1_split
I0428 20:23:56.331769  2333 net.cpp:86] Creating Layer label_mnist_1_split
I0428 20:23:56.331773  2333 net.cpp:408] label_mnist_1_split <- label
I0428 20:23:56.331779  2333 net.cpp:382] label_mnist_1_split -> label_mnist_1_split_0
I0428 20:23:56.331786  2333 net.cpp:382] label_mnist_1_split -> label_mnist_1_split_1
I0428 20:23:56.331835  2333 net.cpp:124] Setting up label_mnist_1_split
I0428 20:23:56.331841  2333 net.cpp:131] Top shape: 100 (100)
I0428 20:23:56.331845  2333 net.cpp:131] Top shape: 100 (100)
I0428 20:23:56.331848  2333 net.cpp:139] Memory required for data: 314800
I0428 20:23:56.331852  2333 layer_factory.hpp:77] Creating layer conv0
I0428 20:23:56.331861  2333 net.cpp:86] Creating Layer conv0
I0428 20:23:56.331864  2333 net.cpp:408] conv0 <- data
I0428 20:23:56.331869  2333 net.cpp:382] conv0 -> conv0
I0428 20:23:56.333653  2333 net.cpp:124] Setting up conv0
I0428 20:23:56.333669  2333 net.cpp:131] Top shape: 100 50 24 24 (2880000)
I0428 20:23:56.333673  2333 net.cpp:139] Memory required for data: 11834800
I0428 20:23:56.333683  2333 layer_factory.hpp:77] Creating layer pool0
I0428 20:23:56.333690  2333 net.cpp:86] Creating Layer pool0
I0428 20:23:56.333694  2333 net.cpp:408] pool0 <- conv0
I0428 20:23:56.333699  2333 net.cpp:382] pool0 -> pool0
I0428 20:23:56.333751  2333 net.cpp:124] Setting up pool0
I0428 20:23:56.333760  2333 net.cpp:131] Top shape: 100 50 12 12 (720000)
I0428 20:23:56.333763  2333 net.cpp:139] Memory required for data: 14714800
I0428 20:23:56.333766  2333 layer_factory.hpp:77] Creating layer conv1
I0428 20:23:56.333775  2333 net.cpp:86] Creating Layer conv1
I0428 20:23:56.333780  2333 net.cpp:408] conv1 <- pool0
I0428 20:23:56.333786  2333 net.cpp:382] conv1 -> conv1
I0428 20:23:56.337047  2333 net.cpp:124] Setting up conv1
I0428 20:23:56.337064  2333 net.cpp:131] Top shape: 100 100 8 8 (640000)
I0428 20:23:56.337069  2333 net.cpp:139] Memory required for data: 17274800
I0428 20:23:56.337079  2333 layer_factory.hpp:77] Creating layer pool1
I0428 20:23:56.337085  2333 net.cpp:86] Creating Layer pool1
I0428 20:23:56.337088  2333 net.cpp:408] pool1 <- conv1
I0428 20:23:56.337095  2333 net.cpp:382] pool1 -> pool1
I0428 20:23:56.337139  2333 net.cpp:124] Setting up pool1
I0428 20:23:56.337146  2333 net.cpp:131] Top shape: 100 100 4 4 (160000)
I0428 20:23:56.337148  2333 net.cpp:139] Memory required for data: 17914800
I0428 20:23:56.337152  2333 layer_factory.hpp:77] Creating layer ip1
I0428 20:23:56.337157  2333 net.cpp:86] Creating Layer ip1
I0428 20:23:56.337160  2333 net.cpp:408] ip1 <- pool1
I0428 20:23:56.337165  2333 net.cpp:382] ip1 -> ip1
I0428 20:23:56.337512  2333 net.cpp:124] Setting up ip1
I0428 20:23:56.337532  2333 net.cpp:131] Top shape: 100 25 (2500)
I0428 20:23:56.337537  2333 net.cpp:139] Memory required for data: 17924800
I0428 20:23:56.337544  2333 layer_factory.hpp:77] Creating layer relu1
I0428 20:23:56.337549  2333 net.cpp:86] Creating Layer relu1
I0428 20:23:56.337553  2333 net.cpp:408] relu1 <- ip1
I0428 20:23:56.337558  2333 net.cpp:369] relu1 -> ip1 (in-place)
I0428 20:23:56.337723  2333 net.cpp:124] Setting up relu1
I0428 20:23:56.337731  2333 net.cpp:131] Top shape: 100 25 (2500)
I0428 20:23:56.337743  2333 net.cpp:139] Memory required for data: 17934800
I0428 20:23:56.337745  2333 layer_factory.hpp:77] Creating layer ip2
I0428 20:23:56.337752  2333 net.cpp:86] Creating Layer ip2
I0428 20:23:56.337756  2333 net.cpp:408] ip2 <- ip1
I0428 20:23:56.337761  2333 net.cpp:382] ip2 -> ip2
I0428 20:23:56.337868  2333 net.cpp:124] Setting up ip2
I0428 20:23:56.337875  2333 net.cpp:131] Top shape: 100 25 (2500)
I0428 20:23:56.337879  2333 net.cpp:139] Memory required for data: 17944800
I0428 20:23:56.337884  2333 layer_factory.hpp:77] Creating layer relu2
I0428 20:23:56.337889  2333 net.cpp:86] Creating Layer relu2
I0428 20:23:56.337893  2333 net.cpp:408] relu2 <- ip2
I0428 20:23:56.337898  2333 net.cpp:369] relu2 -> ip2 (in-place)
I0428 20:23:56.338096  2333 net.cpp:124] Setting up relu2
I0428 20:23:56.338105  2333 net.cpp:131] Top shape: 100 25 (2500)
I0428 20:23:56.338109  2333 net.cpp:139] Memory required for data: 17954800
I0428 20:23:56.338111  2333 layer_factory.hpp:77] Creating layer ip3
I0428 20:23:56.338117  2333 net.cpp:86] Creating Layer ip3
I0428 20:23:56.338120  2333 net.cpp:408] ip3 <- ip2
I0428 20:23:56.338125  2333 net.cpp:382] ip3 -> ip3
I0428 20:23:56.338243  2333 net.cpp:124] Setting up ip3
I0428 20:23:56.338250  2333 net.cpp:131] Top shape: 100 10 (1000)
I0428 20:23:56.338253  2333 net.cpp:139] Memory required for data: 17958800
I0428 20:23:56.338261  2333 layer_factory.hpp:77] Creating layer relu3
I0428 20:23:56.338266  2333 net.cpp:86] Creating Layer relu3
I0428 20:23:56.338269  2333 net.cpp:408] relu3 <- ip3
I0428 20:23:56.338274  2333 net.cpp:369] relu3 -> ip3 (in-place)
I0428 20:23:56.339076  2333 net.cpp:124] Setting up relu3
I0428 20:23:56.339088  2333 net.cpp:131] Top shape: 100 10 (1000)
I0428 20:23:56.339092  2333 net.cpp:139] Memory required for data: 17962800
I0428 20:23:56.339097  2333 layer_factory.hpp:77] Creating layer ip3_relu3_0_split
I0428 20:23:56.339108  2333 net.cpp:86] Creating Layer ip3_relu3_0_split
I0428 20:23:56.339112  2333 net.cpp:408] ip3_relu3_0_split <- ip3
I0428 20:23:56.339118  2333 net.cpp:382] ip3_relu3_0_split -> ip3_relu3_0_split_0
I0428 20:23:56.339124  2333 net.cpp:382] ip3_relu3_0_split -> ip3_relu3_0_split_1
I0428 20:23:56.339162  2333 net.cpp:124] Setting up ip3_relu3_0_split
I0428 20:23:56.339167  2333 net.cpp:131] Top shape: 100 10 (1000)
I0428 20:23:56.339171  2333 net.cpp:131] Top shape: 100 10 (1000)
I0428 20:23:56.339180  2333 net.cpp:139] Memory required for data: 17970800
I0428 20:23:56.339184  2333 layer_factory.hpp:77] Creating layer accuracy
I0428 20:23:56.339190  2333 net.cpp:86] Creating Layer accuracy
I0428 20:23:56.339192  2333 net.cpp:408] accuracy <- ip3_relu3_0_split_0
I0428 20:23:56.339196  2333 net.cpp:408] accuracy <- label_mnist_1_split_0
I0428 20:23:56.339201  2333 net.cpp:382] accuracy -> accuracy
…
