…
I0428 19:51:55.239151 27391 net.cpp:296] The NetState phase (0) differed from the phase (1) specified by a rule in layer mnist
I0428 19:51:55.239166 27391 net.cpp:296] The NetState phase (0) differed from the phase (1) specified by a rule in layer accuracy
I0428 19:51:55.239246 27391 net.cpp:53] Initializing net from parameters: 
name: "LeNet"
state {
  phase: TRAIN
  level: 0
  stage: ""
}
layer {
  name: "mnist"
  type: "Data"
  top: "data"
  top: "label"
  include {
    phase: TRAIN
  }
  transform_param {
    scale: 0.00390625
  }
  data_param {
    source: "examples/mnist/mnist_train_lmdb"
    batch_size: 64
    backend: LMDB
  }
}
layer {
  name: "conv0"
  type: "Convolution"
  bottom: "data"
  top: "conv0"
  param {
    lr_mult: 1
  }
  param {
    lr_mult: 2
  }
  convolution_param {
    num_output: 5
    kernel_size: 5
    stride: 1
    weight_filler {
      type: "xavier"
    }
    bias_filler {
      type: "constant"
    }
  }
}
layer {
  name: "pool0"
  type: "Pooling"
  bottom: "conv0"
  top: "pool0"
  pooling_param {
    pool: MAX
    kernel_size: 2
    stride: 2
  }
}
layer {
  name: "conv1"
  type: "Convolution"
  bottom: "pool0"
  top: "conv1"
  param {
    lr_mult: 1
  }
  param {
    lr_mult: 2
  }
  convolution_param {
    num_output: 25
    kernel_size: 5
    stride: 1
    weight_filler {
      type: "xavier"
    }
    bias_filler {
      type: "constant"
    }
  }
}
layer {
  name: "pool1"
  type: "Pooling"
  bottom: "conv1"
  top: "pool1"
  pooling_param {
    pool: MAX
    kernel_size: 2
    stride: 2
  }
}
layer {
  name: "ip1"
  type: "InnerProduct"
  bottom: "pool1"
  top: "ip1"
  param {
    lr_mult: 1
  }
  param {
    lr_mult: 2
  }
  inner_product_param {
    num_output: 25
    weight_filler {
      type: "xavier"
    }
    bias_filler {
      type: "constant"
    }
  }
}
layer {
  name: "relu1"
  type: "ReLU"
  bottom: "ip1"
  top: "ip1"
}
layer {
  name: "ip2"
  type: "InnerProduct"
  bottom: "ip1"
  top: "ip2"
  param {
    lr_mult: 1
  }
  param {
    lr_mult: 2
  }
  inner_product_param {
    num_output: 10
    weight_filler {
      type: "xavier"
    }
    bias_filler {
      type: "constant"
    }
  }
}
layer {
  name: "relu2"
  type: "ReLU"
  bottom: "ip2"
  top: "ip2"
}
layer {
  name: "ip3"
  type: "InnerProduct"
  bottom: "ip2"
  top: "ip3"
  param {
    lr_mult: 1
  }
  param {
    lr_mult: 2
  }
  inner_product_param {
    num_output: 10
    weight_filler {
      type: "xavier"
    }
    bias_filler {
      type: "constant"
    }
  }
}
layer {
  name: "relu3"
  type: "ReLU"
  bottom: "ip3"
  top: "ip3"
}
layer {
  name: "loss"
  type: "SoftmaxWithLoss"
  bottom: "ip3"
  bottom: "label"
  top: "loss"
}
I0428 19:51:55.239310 27391 layer_factory.hpp:77] Creating layer mnist
I0428 19:51:55.239390 27391 db_lmdb.cpp:35] Opened lmdb examples/mnist/mnist_train_lmdb
I0428 19:51:55.239409 27391 net.cpp:86] Creating Layer mnist
I0428 19:51:55.239415 27391 net.cpp:382] mnist -> data
I0428 19:51:55.239435 27391 net.cpp:382] mnist -> label
I0428 19:51:55.240345 27391 data_layer.cpp:45] output data size: 64,1,28,28
I0428 19:51:55.242501 27391 net.cpp:124] Setting up mnist
I0428 19:51:55.242548 27391 net.cpp:131] Top shape: 64 1 28 28 (50176)
I0428 19:51:55.242558 27391 net.cpp:131] Top shape: 64 (64)
I0428 19:51:55.242561 27391 net.cpp:139] Memory required for data: 200960
I0428 19:51:55.242568 27391 layer_factory.hpp:77] Creating layer conv0
I0428 19:51:55.242581 27391 net.cpp:86] Creating Layer conv0
I0428 19:51:55.242599 27391 net.cpp:408] conv0 <- data
I0428 19:51:55.242609 27391 net.cpp:382] conv0 -> conv0
I0428 19:51:55.466013 27391 net.cpp:124] Setting up conv0
I0428 19:51:55.466039 27391 net.cpp:131] Top shape: 64 5 24 24 (184320)
I0428 19:51:55.466043 27391 net.cpp:139] Memory required for data: 938240
I0428 19:51:55.466058 27391 layer_factory.hpp:77] Creating layer pool0
I0428 19:51:55.466068 27391 net.cpp:86] Creating Layer pool0
I0428 19:51:55.466073 27391 net.cpp:408] pool0 <- conv0
I0428 19:51:55.466078 27391 net.cpp:382] pool0 -> pool0
I0428 19:51:55.466120 27391 net.cpp:124] Setting up pool0
I0428 19:51:55.466142 27391 net.cpp:131] Top shape: 64 5 12 12 (46080)
I0428 19:51:55.466145 27391 net.cpp:139] Memory required for data: 1122560
I0428 19:51:55.466163 27391 layer_factory.hpp:77] Creating layer conv1
I0428 19:51:55.466188 27391 net.cpp:86] Creating Layer conv1
I0428 19:51:55.466192 27391 net.cpp:408] conv1 <- pool0
I0428 19:51:55.466197 27391 net.cpp:382] conv1 -> conv1
I0428 19:51:55.468881 27391 net.cpp:124] Setting up conv1
I0428 19:51:55.468911 27391 net.cpp:131] Top shape: 64 25 8 8 (102400)
I0428 19:51:55.468916 27391 net.cpp:139] Memory required for data: 1532160
I0428 19:51:55.468924 27391 layer_factory.hpp:77] Creating layer pool1
I0428 19:51:55.468932 27391 net.cpp:86] Creating Layer pool1
I0428 19:51:55.468935 27391 net.cpp:408] pool1 <- conv1
I0428 19:51:55.468940 27391 net.cpp:382] pool1 -> pool1
I0428 19:51:55.468979 27391 net.cpp:124] Setting up pool1
I0428 19:51:55.468986 27391 net.cpp:131] Top shape: 64 25 4 4 (25600)
I0428 19:51:55.468988 27391 net.cpp:139] Memory required for data: 1634560
I0428 19:51:55.468991 27391 layer_factory.hpp:77] Creating layer ip1
I0428 19:51:55.468999 27391 net.cpp:86] Creating Layer ip1
I0428 19:51:55.469002 27391 net.cpp:408] ip1 <- pool1
I0428 19:51:55.469007 27391 net.cpp:382] ip1 -> ip1
I0428 19:51:55.470003 27391 net.cpp:124] Setting up ip1
I0428 19:51:55.470015 27391 net.cpp:131] Top shape: 64 25 (1600)
I0428 19:51:55.470033 27391 net.cpp:139] Memory required for data: 1640960
I0428 19:51:55.470041 27391 layer_factory.hpp:77] Creating layer relu1
I0428 19:51:55.470047 27391 net.cpp:86] Creating Layer relu1
I0428 19:51:55.470052 27391 net.cpp:408] relu1 <- ip1
I0428 19:51:55.470055 27391 net.cpp:369] relu1 -> ip1 (in-place)
I0428 19:51:55.470222 27391 net.cpp:124] Setting up relu1
I0428 19:51:55.470232 27391 net.cpp:131] Top shape: 64 25 (1600)
I0428 19:51:55.470233 27391 net.cpp:139] Memory required for data: 1647360
I0428 19:51:55.470237 27391 layer_factory.hpp:77] Creating layer ip2
I0428 19:51:55.470243 27391 net.cpp:86] Creating Layer ip2
I0428 19:51:55.470247 27391 net.cpp:408] ip2 <- ip1
I0428 19:51:55.470250 27391 net.cpp:382] ip2 -> ip2
I0428 19:51:55.470343 27391 net.cpp:124] Setting up ip2
I0428 19:51:55.470350 27391 net.cpp:131] Top shape: 64 10 (640)
I0428 19:51:55.470353 27391 net.cpp:139] Memory required for data: 1649920
I0428 19:51:55.470358 27391 layer_factory.hpp:77] Creating layer relu2
I0428 19:51:55.470366 27391 net.cpp:86] Creating Layer relu2
I0428 19:51:55.470368 27391 net.cpp:408] relu2 <- ip2
I0428 19:51:55.470372 27391 net.cpp:369] relu2 -> ip2 (in-place)
I0428 19:51:55.471086 27391 net.cpp:124] Setting up relu2
I0428 19:51:55.471113 27391 net.cpp:131] Top shape: 64 10 (640)
I0428 19:51:55.471117 27391 net.cpp:139] Memory required for data: 1652480
I0428 19:51:55.471120 27391 layer_factory.hpp:77] Creating layer ip3
I0428 19:51:55.471127 27391 net.cpp:86] Creating Layer ip3
I0428 19:51:55.471129 27391 net.cpp:408] ip3 <- ip2
I0428 19:51:55.471135 27391 net.cpp:382] ip3 -> ip3
I0428 19:51:55.471232 27391 net.cpp:124] Setting up ip3
I0428 19:51:55.471240 27391 net.cpp:131] Top shape: 64 10 (640)
I0428 19:51:55.471242 27391 net.cpp:139] Memory required for data: 1655040
I0428 19:51:55.471249 27391 layer_factory.hpp:77] Creating layer relu3
I0428 19:51:55.471254 27391 net.cpp:86] Creating Layer relu3
I0428 19:51:55.471256 27391 net.cpp:408] relu3 <- ip3
I0428 19:51:55.471261 27391 net.cpp:369] relu3 -> ip3 (in-place)
I0428 19:51:55.471424 27391 net.cpp:124] Setting up relu3
I0428 19:51:55.471433 27391 net.cpp:131] Top shape: 64 10 (640)
I0428 19:51:55.471436 27391 net.cpp:139] Memory required for data: 1657600
I0428 19:51:55.471439 27391 layer_factory.hpp:77] Creating layer loss
I0428 19:51:55.471444 27391 net.cpp:86] Creating Layer loss
I0428 19:51:55.471448 27391 net.cpp:408] loss <- ip3
I0428 19:51:55.471452 27391 net.cpp:408] loss <- label
I0428 19:51:55.471457 27391 net.cpp:382] loss -> loss
I0428 19:51:55.471470 27391 layer_factory.hpp:77] Creating layer loss
…
I0428 19:51:55.472095 27391 solver.cpp:173] Creating test net (#0) specified by net file: ECE595/mnist/train_test/var_everything2/lenet_train_test647.prototxt
I0428 19:51:55.472151 27391 net.cpp:296] The NetState phase (1) differed from the phase (0) specified by a rule in layer mnist
I0428 19:51:55.472237 27391 net.cpp:53] Initializing net from parameters: 
name: "LeNet"
state {
  phase: TEST
}
layer {
  name: "mnist"
  type: "Data"
  top: "data"
  top: "label"
  include {
    phase: TEST
  }
  transform_param {
    scale: 0.00390625
  }
  data_param {
    source: "examples/mnist/mnist_test_lmdb"
    batch_size: 100
    backend: LMDB
  }
}
layer {
  name: "conv0"
  type: "Convolution"
  bottom: "data"
  top: "conv0"
  param {
    lr_mult: 1
  }
  param {
    lr_mult: 2
  }
  convolution_param {
    num_output: 5
    kernel_size: 5
    stride: 1
    weight_filler {
      type: "xavier"
    }
    bias_filler {
      type: "constant"
    }
  }
}
layer {
  name: "pool0"
  type: "Pooling"
  bottom: "conv0"
  top: "pool0"
  pooling_param {
    pool: MAX
    kernel_size: 2
    stride: 2
  }
}
layer {
  name: "conv1"
  type: "Convolution"
  bottom: "pool0"
  top: "conv1"
  param {
    lr_mult: 1
  }
  param {
    lr_mult: 2
  }
  convolution_param {
    num_output: 25
    kernel_size: 5
    stride: 1
    weight_filler {
      type: "xavier"
    }
    bias_filler {
      type: "constant"
    }
  }
}
layer {
  name: "pool1"
  type: "Pooling"
  bottom: "conv1"
  top: "pool1"
  pooling_param {
    pool: MAX
    kernel_size: 2
    stride: 2
  }
}
layer {
  name: "ip1"
  type: "InnerProduct"
  bottom: "pool1"
  top: "ip1"
  param {
    lr_mult: 1
  }
  param {
    lr_mult: 2
  }
  inner_product_param {
    num_output: 25
    weight_filler {
      type: "xavier"
    }
    bias_filler {
      type: "constant"
    }
  }
}
layer {
  name: "relu1"
  type: "ReLU"
  bottom: "ip1"
  top: "ip1"
}
layer {
  name: "ip2"
  type: "InnerProduct"
  bottom: "ip1"
  top: "ip2"
  param {
    lr_mult: 1
  }
  param {
    lr_mult: 2
  }
  inner_product_param {
    num_output: 10
    weight_filler {
      type: "xavier"
    }
    bias_filler {
      type: "constant"
    }
  }
}
layer {
  name: "relu2"
  type: "ReLU"
  bottom: "ip2"
  top: "ip2"
}
layer {
  name: "ip3"
  type: "InnerProduct"
  bottom: "ip2"
  top: "ip3"
  param {
    lr_mult: 1
  }
  param {
    lr_mult: 2
  }
  inner_product_param {
    num_output: 10
    weight_filler {
      type: "xavier"
    }
    bias_filler {
      type: "constant"
    }
  }
}
layer {
  name: "relu3"
  type: "ReLU"
  bottom: "ip3"
  top: "ip3"
}
layer {
  name: "accuracy"
  type: "Accuracy"
  bottom: "ip3"
  bottom: "label"
  top: "accuracy"
  include {
    phase: TEST
  }
}
layer {
  name: "loss"
  type: "SoftmaxWithLoss"
  bottom: "ip3"
  bottom: "label"
  top: "loss"
}
I0428 19:51:55.472316 27391 layer_factory.hpp:77] Creating layer mnist
I0428 19:51:55.472357 27391 db_lmdb.cpp:35] Opened lmdb examples/mnist/mnist_test_lmdb
I0428 19:51:55.472369 27391 net.cpp:86] Creating Layer mnist
I0428 19:51:55.472374 27391 net.cpp:382] mnist -> data
I0428 19:51:55.472380 27391 net.cpp:382] mnist -> label
I0428 19:51:55.472460 27391 data_layer.cpp:45] output data size: 100,1,28,28
I0428 19:51:55.474524 27391 net.cpp:124] Setting up mnist
I0428 19:51:55.474551 27391 net.cpp:131] Top shape: 100 1 28 28 (78400)
I0428 19:51:55.474571 27391 net.cpp:131] Top shape: 100 (100)
I0428 19:51:55.474575 27391 net.cpp:139] Memory required for data: 314000
I0428 19:51:55.474577 27391 layer_factory.hpp:77] Creating layer label_mnist_1_split
I0428 19:51:55.474608 27391 net.cpp:86] Creating Layer label_mnist_1_split
I0428 19:51:55.474613 27391 net.cpp:408] label_mnist_1_split <- label
I0428 19:51:55.474618 27391 net.cpp:382] label_mnist_1_split -> label_mnist_1_split_0
I0428 19:51:55.474624 27391 net.cpp:382] label_mnist_1_split -> label_mnist_1_split_1
I0428 19:51:55.474668 27391 net.cpp:124] Setting up label_mnist_1_split
I0428 19:51:55.474676 27391 net.cpp:131] Top shape: 100 (100)
I0428 19:51:55.474680 27391 net.cpp:131] Top shape: 100 (100)
I0428 19:51:55.474684 27391 net.cpp:139] Memory required for data: 314800
I0428 19:51:55.474685 27391 layer_factory.hpp:77] Creating layer conv0
I0428 19:51:55.474695 27391 net.cpp:86] Creating Layer conv0
I0428 19:51:55.474699 27391 net.cpp:408] conv0 <- data
I0428 19:51:55.474704 27391 net.cpp:382] conv0 -> conv0
I0428 19:51:55.476256 27391 net.cpp:124] Setting up conv0
I0428 19:51:55.476285 27391 net.cpp:131] Top shape: 100 5 24 24 (288000)
I0428 19:51:55.476289 27391 net.cpp:139] Memory required for data: 1466800
I0428 19:51:55.476300 27391 layer_factory.hpp:77] Creating layer pool0
I0428 19:51:55.476307 27391 net.cpp:86] Creating Layer pool0
I0428 19:51:55.476310 27391 net.cpp:408] pool0 <- conv0
I0428 19:51:55.476315 27391 net.cpp:382] pool0 -> pool0
I0428 19:51:55.476366 27391 net.cpp:124] Setting up pool0
I0428 19:51:55.476372 27391 net.cpp:131] Top shape: 100 5 12 12 (72000)
I0428 19:51:55.476375 27391 net.cpp:139] Memory required for data: 1754800
I0428 19:51:55.476377 27391 layer_factory.hpp:77] Creating layer conv1
I0428 19:51:55.476387 27391 net.cpp:86] Creating Layer conv1
I0428 19:51:55.476389 27391 net.cpp:408] conv1 <- pool0
I0428 19:51:55.476395 27391 net.cpp:382] conv1 -> conv1
I0428 19:51:55.478636 27391 net.cpp:124] Setting up conv1
I0428 19:51:55.478665 27391 net.cpp:131] Top shape: 100 25 8 8 (160000)
I0428 19:51:55.478669 27391 net.cpp:139] Memory required for data: 2394800
I0428 19:51:55.478678 27391 layer_factory.hpp:77] Creating layer pool1
I0428 19:51:55.478683 27391 net.cpp:86] Creating Layer pool1
I0428 19:51:55.478688 27391 net.cpp:408] pool1 <- conv1
I0428 19:51:55.478694 27391 net.cpp:382] pool1 -> pool1
I0428 19:51:55.478731 27391 net.cpp:124] Setting up pool1
I0428 19:51:55.478737 27391 net.cpp:131] Top shape: 100 25 4 4 (40000)
I0428 19:51:55.478740 27391 net.cpp:139] Memory required for data: 2554800
I0428 19:51:55.478744 27391 layer_factory.hpp:77] Creating layer ip1
I0428 19:51:55.478750 27391 net.cpp:86] Creating Layer ip1
I0428 19:51:55.478754 27391 net.cpp:408] ip1 <- pool1
I0428 19:51:55.478759 27391 net.cpp:382] ip1 -> ip1
I0428 19:51:55.478922 27391 net.cpp:124] Setting up ip1
I0428 19:51:55.478931 27391 net.cpp:131] Top shape: 100 25 (2500)
I0428 19:51:55.478943 27391 net.cpp:139] Memory required for data: 2564800
I0428 19:51:55.478951 27391 layer_factory.hpp:77] Creating layer relu1
I0428 19:51:55.478956 27391 net.cpp:86] Creating Layer relu1
I0428 19:51:55.478960 27391 net.cpp:408] relu1 <- ip1
I0428 19:51:55.478963 27391 net.cpp:369] relu1 -> ip1 (in-place)
I0428 19:51:55.479173 27391 net.cpp:124] Setting up relu1
I0428 19:51:55.479183 27391 net.cpp:131] Top shape: 100 25 (2500)
I0428 19:51:55.479187 27391 net.cpp:139] Memory required for data: 2574800
I0428 19:51:55.479189 27391 layer_factory.hpp:77] Creating layer ip2
I0428 19:51:55.479197 27391 net.cpp:86] Creating Layer ip2
I0428 19:51:55.479199 27391 net.cpp:408] ip2 <- ip1
I0428 19:51:55.479205 27391 net.cpp:382] ip2 -> ip2
I0428 19:51:55.479321 27391 net.cpp:124] Setting up ip2
I0428 19:51:55.479327 27391 net.cpp:131] Top shape: 100 10 (1000)
I0428 19:51:55.479331 27391 net.cpp:139] Memory required for data: 2578800
I0428 19:51:55.479336 27391 layer_factory.hpp:77] Creating layer relu2
I0428 19:51:55.479339 27391 net.cpp:86] Creating Layer relu2
I0428 19:51:55.479342 27391 net.cpp:408] relu2 <- ip2
I0428 19:51:55.479348 27391 net.cpp:369] relu2 -> ip2 (in-place)
I0428 19:51:55.479502 27391 net.cpp:124] Setting up relu2
I0428 19:51:55.479511 27391 net.cpp:131] Top shape: 100 10 (1000)
I0428 19:51:55.479514 27391 net.cpp:139] Memory required for data: 2582800
I0428 19:51:55.479517 27391 layer_factory.hpp:77] Creating layer ip3
I0428 19:51:55.479524 27391 net.cpp:86] Creating Layer ip3
I0428 19:51:55.479527 27391 net.cpp:408] ip3 <- ip2
I0428 19:51:55.479532 27391 net.cpp:382] ip3 -> ip3
I0428 19:51:55.479626 27391 net.cpp:124] Setting up ip3
I0428 19:51:55.479634 27391 net.cpp:131] Top shape: 100 10 (1000)
I0428 19:51:55.479636 27391 net.cpp:139] Memory required for data: 2586800
I0428 19:51:55.479643 27391 layer_factory.hpp:77] Creating layer relu3
I0428 19:51:55.479647 27391 net.cpp:86] Creating Layer relu3
I0428 19:51:55.479650 27391 net.cpp:408] relu3 <- ip3
I0428 19:51:55.479656 27391 net.cpp:369] relu3 -> ip3 (in-place)
I0428 19:51:55.480448 27391 net.cpp:124] Setting up relu3
I0428 19:51:55.480474 27391 net.cpp:131] Top shape: 100 10 (1000)
I0428 19:51:55.480479 27391 net.cpp:139] Memory required for data: 2590800
I0428 19:51:55.480481 27391 layer_factory.hpp:77] Creating layer ip3_relu3_0_split
I0428 19:51:55.480487 27391 net.cpp:86] Creating Layer ip3_relu3_0_split
I0428 19:51:55.480491 27391 net.cpp:408] ip3_relu3_0_split <- ip3
I0428 19:51:55.480496 27391 net.cpp:382] ip3_relu3_0_split -> ip3_relu3_0_split_0
I0428 19:51:55.480502 27391 net.cpp:382] ip3_relu3_0_split -> ip3_relu3_0_split_1
I0428 19:51:55.480545 27391 net.cpp:124] Setting up ip3_relu3_0_split
I0428 19:51:55.480550 27391 net.cpp:131] Top shape: 100 10 (1000)
I0428 19:51:55.480553 27391 net.cpp:131] Top shape: 100 10 (1000)
I0428 19:51:55.480556 27391 net.cpp:139] Memory required for data: 2598800
I0428 19:51:55.480558 27391 layer_factory.hpp:77] Creating layer accuracy
I0428 19:51:55.480563 27391 net.cpp:86] Creating Layer accuracy
I0428 19:51:55.480566 27391 net.cpp:408] accuracy <- ip3_relu3_0_split_0
I0428 19:51:55.480571 27391 net.cpp:408] accuracy <- label_mnist_1_split_0
I0428 19:51:55.480576 27391 net.cpp:382] accuracy -> accuracy
…
