…
I0428 20:18:48.158524  1239 net.cpp:296] The NetState phase (0) differed from the phase (1) specified by a rule in layer mnist
I0428 20:18:48.158540  1239 net.cpp:296] The NetState phase (0) differed from the phase (1) specified by a rule in layer accuracy
I0428 20:18:48.158622  1239 net.cpp:53] Initializing net from parameters: 
name: "LeNet"
state {
  phase: TRAIN
  level: 0
  stage: ""
}
layer {
  name: "mnist"
  type: "Data"
  top: "data"
  top: "label"
  include {
    phase: TRAIN
  }
  transform_param {
    scale: 0.00390625
  }
  data_param {
    source: "examples/mnist/mnist_train_lmdb"
    batch_size: 64
    backend: LMDB
  }
}
layer {
  name: "conv0"
  type: "Convolution"
  bottom: "data"
  top: "conv0"
  param {
    lr_mult: 1
  }
  param {
    lr_mult: 2
  }
  convolution_param {
    num_output: 50
    kernel_size: 5
    stride: 1
    weight_filler {
      type: "xavier"
    }
    bias_filler {
      type: "constant"
    }
  }
}
layer {
  name: "pool0"
  type: "Pooling"
  bottom: "conv0"
  top: "pool0"
  pooling_param {
    pool: MAX
    kernel_size: 2
    stride: 2
  }
}
layer {
  name: "conv1"
  type: "Convolution"
  bottom: "pool0"
  top: "conv1"
  param {
    lr_mult: 1
  }
  param {
    lr_mult: 2
  }
  convolution_param {
    num_output: 25
    kernel_size: 5
    stride: 1
    weight_filler {
      type: "xavier"
    }
    bias_filler {
      type: "constant"
    }
  }
}
layer {
  name: "pool1"
  type: "Pooling"
  bottom: "conv1"
  top: "pool1"
  pooling_param {
    pool: MAX
    kernel_size: 2
    stride: 2
  }
}
layer {
  name: "ip1"
  type: "InnerProduct"
  bottom: "pool1"
  top: "ip1"
  param {
    lr_mult: 1
  }
  param {
    lr_mult: 2
  }
  inner_product_param {
    num_output: 10
    weight_filler {
      type: "xavier"
    }
    bias_filler {
      type: "constant"
    }
  }
}
layer {
  name: "relu1"
  type: "ReLU"
  bottom: "ip1"
  top: "ip1"
}
layer {
  name: "loss"
  type: "SoftmaxWithLoss"
  bottom: "ip1"
  bottom: "label"
  top: "loss"
}
I0428 20:18:48.158691  1239 layer_factory.hpp:77] Creating layer mnist
I0428 20:18:48.158790  1239 db_lmdb.cpp:35] Opened lmdb examples/mnist/mnist_train_lmdb
I0428 20:18:48.158816  1239 net.cpp:86] Creating Layer mnist
I0428 20:18:48.158823  1239 net.cpp:382] mnist -> data
I0428 20:18:48.158845  1239 net.cpp:382] mnist -> label
I0428 20:18:48.159936  1239 data_layer.cpp:45] output data size: 64,1,28,28
I0428 20:18:48.162410  1239 net.cpp:124] Setting up mnist
I0428 20:18:48.162432  1239 net.cpp:131] Top shape: 64 1 28 28 (50176)
I0428 20:18:48.162438  1239 net.cpp:131] Top shape: 64 (64)
I0428 20:18:48.162442  1239 net.cpp:139] Memory required for data: 200960
I0428 20:18:48.162449  1239 layer_factory.hpp:77] Creating layer conv0
I0428 20:18:48.162468  1239 net.cpp:86] Creating Layer conv0
I0428 20:18:48.162474  1239 net.cpp:408] conv0 <- data
I0428 20:18:48.162487  1239 net.cpp:382] conv0 -> conv0
I0428 20:18:48.454295  1239 net.cpp:124] Setting up conv0
I0428 20:18:48.454324  1239 net.cpp:131] Top shape: 64 50 24 24 (1843200)
I0428 20:18:48.454329  1239 net.cpp:139] Memory required for data: 7573760
I0428 20:18:48.454346  1239 layer_factory.hpp:77] Creating layer pool0
I0428 20:18:48.454360  1239 net.cpp:86] Creating Layer pool0
I0428 20:18:48.454365  1239 net.cpp:408] pool0 <- conv0
I0428 20:18:48.454370  1239 net.cpp:382] pool0 -> pool0
I0428 20:18:48.454426  1239 net.cpp:124] Setting up pool0
I0428 20:18:48.454433  1239 net.cpp:131] Top shape: 64 50 12 12 (460800)
I0428 20:18:48.454453  1239 net.cpp:139] Memory required for data: 9416960
I0428 20:18:48.454458  1239 layer_factory.hpp:77] Creating layer conv1
I0428 20:18:48.454470  1239 net.cpp:86] Creating Layer conv1
I0428 20:18:48.454475  1239 net.cpp:408] conv1 <- pool0
I0428 20:18:48.454480  1239 net.cpp:382] conv1 -> conv1
I0428 20:18:48.456686  1239 net.cpp:124] Setting up conv1
I0428 20:18:48.456702  1239 net.cpp:131] Top shape: 64 25 8 8 (102400)
I0428 20:18:48.456707  1239 net.cpp:139] Memory required for data: 9826560
I0428 20:18:48.456715  1239 layer_factory.hpp:77] Creating layer pool1
I0428 20:18:48.456723  1239 net.cpp:86] Creating Layer pool1
I0428 20:18:48.456727  1239 net.cpp:408] pool1 <- conv1
I0428 20:18:48.456733  1239 net.cpp:382] pool1 -> pool1
I0428 20:18:48.456773  1239 net.cpp:124] Setting up pool1
I0428 20:18:48.456779  1239 net.cpp:131] Top shape: 64 25 4 4 (25600)
I0428 20:18:48.456784  1239 net.cpp:139] Memory required for data: 9928960
I0428 20:18:48.456787  1239 layer_factory.hpp:77] Creating layer ip1
I0428 20:18:48.456795  1239 net.cpp:86] Creating Layer ip1
I0428 20:18:48.456799  1239 net.cpp:408] ip1 <- pool1
I0428 20:18:48.456804  1239 net.cpp:382] ip1 -> ip1
I0428 20:18:48.456944  1239 net.cpp:124] Setting up ip1
I0428 20:18:48.456954  1239 net.cpp:131] Top shape: 64 10 (640)
I0428 20:18:48.456956  1239 net.cpp:139] Memory required for data: 9931520
I0428 20:18:48.456964  1239 layer_factory.hpp:77] Creating layer relu1
I0428 20:18:48.456971  1239 net.cpp:86] Creating Layer relu1
I0428 20:18:48.456974  1239 net.cpp:408] relu1 <- ip1
I0428 20:18:48.456979  1239 net.cpp:369] relu1 -> ip1 (in-place)
I0428 20:18:48.457157  1239 net.cpp:124] Setting up relu1
I0428 20:18:48.457167  1239 net.cpp:131] Top shape: 64 10 (640)
I0428 20:18:48.457170  1239 net.cpp:139] Memory required for data: 9934080
I0428 20:18:48.457173  1239 layer_factory.hpp:77] Creating layer loss
I0428 20:18:48.457180  1239 net.cpp:86] Creating Layer loss
I0428 20:18:48.457183  1239 net.cpp:408] loss <- ip1
I0428 20:18:48.457187  1239 net.cpp:408] loss <- label
I0428 20:18:48.457193  1239 net.cpp:382] loss -> loss
I0428 20:18:48.457212  1239 layer_factory.hpp:77] Creating layer loss
…
I0428 20:18:48.458436  1239 solver.cpp:173] Creating test net (#0) specified by net file: ECE595/mnist/train_test/var_everything2/lenet_train_test1327.prototxt
I0428 20:18:48.458461  1239 net.cpp:296] The NetState phase (1) differed from the phase (0) specified by a rule in layer mnist
I0428 20:18:48.458547  1239 net.cpp:53] Initializing net from parameters: 
name: "LeNet"
state {
  phase: TEST
}
layer {
  name: "mnist"
  type: "Data"
  top: "data"
  top: "label"
  include {
    phase: TEST
  }
  transform_param {
    scale: 0.00390625
  }
  data_param {
    source: "examples/mnist/mnist_test_lmdb"
    batch_size: 100
    backend: LMDB
  }
}
layer {
  name: "conv0"
  type: "Convolution"
  bottom: "data"
  top: "conv0"
  param {
    lr_mult: 1
  }
  param {
    lr_mult: 2
  }
  convolution_param {
    num_output: 50
    kernel_size: 5
    stride: 1
    weight_filler {
      type: "xavier"
    }
    bias_filler {
      type: "constant"
    }
  }
}
layer {
  name: "pool0"
  type: "Pooling"
  bottom: "conv0"
  top: "pool0"
  pooling_param {
    pool: MAX
    kernel_size: 2
    stride: 2
  }
}
layer {
  name: "conv1"
  type: "Convolution"
  bottom: "pool0"
  top: "conv1"
  param {
    lr_mult: 1
  }
  param {
    lr_mult: 2
  }
  convolution_param {
    num_output: 25
    kernel_size: 5
    stride: 1
    weight_filler {
      type: "xavier"
    }
    bias_filler {
      type: "constant"
    }
  }
}
layer {
  name: "pool1"
  type: "Pooling"
  bottom: "conv1"
  top: "pool1"
  pooling_param {
    pool: MAX
    kernel_size: 2
    stride: 2
  }
}
layer {
  name: "ip1"
  type: "InnerProduct"
  bottom: "pool1"
  top: "ip1"
  param {
    lr_mult: 1
  }
  param {
    lr_mult: 2
  }
  inner_product_param {
    num_output: 10
    weight_filler {
      type: "xavier"
    }
    bias_filler {
      type: "constant"
    }
  }
}
layer {
  name: "relu1"
  type: "ReLU"
  bottom: "ip1"
  top: "ip1"
}
layer {
  name: "accuracy"
  type: "Accuracy"
  bottom: "ip1"
  bottom: "label"
  top: "accuracy"
  include {
    phase: TEST
  }
}
layer {
  name: "loss"
  type: "SoftmaxWithLoss"
  bottom: "ip1"
  bottom: "label"
  top: "loss"
}
I0428 20:18:48.458623  1239 layer_factory.hpp:77] Creating layer mnist
I0428 20:18:48.458673  1239 db_lmdb.cpp:35] Opened lmdb examples/mnist/mnist_test_lmdb
I0428 20:18:48.458688  1239 net.cpp:86] Creating Layer mnist
I0428 20:18:48.458693  1239 net.cpp:382] mnist -> data
I0428 20:18:48.458700  1239 net.cpp:382] mnist -> label
I0428 20:18:48.458791  1239 data_layer.cpp:45] output data size: 100,1,28,28
I0428 20:18:48.460904  1239 net.cpp:124] Setting up mnist
I0428 20:18:48.460924  1239 net.cpp:131] Top shape: 100 1 28 28 (78400)
I0428 20:18:48.460934  1239 net.cpp:131] Top shape: 100 (100)
I0428 20:18:48.460939  1239 net.cpp:139] Memory required for data: 314000
I0428 20:18:48.460947  1239 layer_factory.hpp:77] Creating layer label_mnist_1_split
I0428 20:18:48.460961  1239 net.cpp:86] Creating Layer label_mnist_1_split
I0428 20:18:48.460968  1239 net.cpp:408] label_mnist_1_split <- label
I0428 20:18:48.460974  1239 net.cpp:382] label_mnist_1_split -> label_mnist_1_split_0
I0428 20:18:48.460984  1239 net.cpp:382] label_mnist_1_split -> label_mnist_1_split_1
I0428 20:18:48.461141  1239 net.cpp:124] Setting up label_mnist_1_split
I0428 20:18:48.461156  1239 net.cpp:131] Top shape: 100 (100)
I0428 20:18:48.461164  1239 net.cpp:131] Top shape: 100 (100)
I0428 20:18:48.461169  1239 net.cpp:139] Memory required for data: 314800
I0428 20:18:48.461175  1239 layer_factory.hpp:77] Creating layer conv0
I0428 20:18:48.461190  1239 net.cpp:86] Creating Layer conv0
I0428 20:18:48.461196  1239 net.cpp:408] conv0 <- data
I0428 20:18:48.461206  1239 net.cpp:382] conv0 -> conv0
I0428 20:18:48.462532  1239 net.cpp:124] Setting up conv0
I0428 20:18:48.462553  1239 net.cpp:131] Top shape: 100 50 24 24 (2880000)
I0428 20:18:48.462564  1239 net.cpp:139] Memory required for data: 11834800
I0428 20:18:48.462580  1239 layer_factory.hpp:77] Creating layer pool0
I0428 20:18:48.462599  1239 net.cpp:86] Creating Layer pool0
I0428 20:18:48.462605  1239 net.cpp:408] pool0 <- conv0
I0428 20:18:48.462613  1239 net.cpp:382] pool0 -> pool0
I0428 20:18:48.462671  1239 net.cpp:124] Setting up pool0
I0428 20:18:48.462683  1239 net.cpp:131] Top shape: 100 50 12 12 (720000)
I0428 20:18:48.462690  1239 net.cpp:139] Memory required for data: 14714800
I0428 20:18:48.462695  1239 layer_factory.hpp:77] Creating layer conv1
I0428 20:18:48.462710  1239 net.cpp:86] Creating Layer conv1
I0428 20:18:48.462721  1239 net.cpp:408] conv1 <- pool0
I0428 20:18:48.462731  1239 net.cpp:382] conv1 -> conv1
I0428 20:18:48.465363  1239 net.cpp:124] Setting up conv1
I0428 20:18:48.465384  1239 net.cpp:131] Top shape: 100 25 8 8 (160000)
I0428 20:18:48.465390  1239 net.cpp:139] Memory required for data: 15354800
I0428 20:18:48.465404  1239 layer_factory.hpp:77] Creating layer pool1
I0428 20:18:48.465415  1239 net.cpp:86] Creating Layer pool1
I0428 20:18:48.465436  1239 net.cpp:408] pool1 <- conv1
I0428 20:18:48.465447  1239 net.cpp:382] pool1 -> pool1
I0428 20:18:48.465504  1239 net.cpp:124] Setting up pool1
I0428 20:18:48.465518  1239 net.cpp:131] Top shape: 100 25 4 4 (40000)
I0428 20:18:48.465524  1239 net.cpp:139] Memory required for data: 15514800
I0428 20:18:48.465529  1239 layer_factory.hpp:77] Creating layer ip1
I0428 20:18:48.465540  1239 net.cpp:86] Creating Layer ip1
I0428 20:18:48.465546  1239 net.cpp:408] ip1 <- pool1
I0428 20:18:48.465555  1239 net.cpp:382] ip1 -> ip1
I0428 20:18:48.465751  1239 net.cpp:124] Setting up ip1
I0428 20:18:48.465770  1239 net.cpp:131] Top shape: 100 10 (1000)
I0428 20:18:48.465776  1239 net.cpp:139] Memory required for data: 15518800
I0428 20:18:48.465790  1239 layer_factory.hpp:77] Creating layer relu1
I0428 20:18:48.465800  1239 net.cpp:86] Creating Layer relu1
I0428 20:18:48.465806  1239 net.cpp:408] relu1 <- ip1
I0428 20:18:48.465813  1239 net.cpp:369] relu1 -> ip1 (in-place)
I0428 20:18:48.467015  1239 net.cpp:124] Setting up relu1
I0428 20:18:48.467032  1239 net.cpp:131] Top shape: 100 10 (1000)
I0428 20:18:48.467038  1239 net.cpp:139] Memory required for data: 15522800
I0428 20:18:48.467044  1239 layer_factory.hpp:77] Creating layer ip1_relu1_0_split
I0428 20:18:48.467056  1239 net.cpp:86] Creating Layer ip1_relu1_0_split
I0428 20:18:48.467061  1239 net.cpp:408] ip1_relu1_0_split <- ip1
I0428 20:18:48.467070  1239 net.cpp:382] ip1_relu1_0_split -> ip1_relu1_0_split_0
I0428 20:18:48.467082  1239 net.cpp:382] ip1_relu1_0_split -> ip1_relu1_0_split_1
I0428 20:18:48.467139  1239 net.cpp:124] Setting up ip1_relu1_0_split
I0428 20:18:48.467151  1239 net.cpp:131] Top shape: 100 10 (1000)
I0428 20:18:48.467159  1239 net.cpp:131] Top shape: 100 10 (1000)
I0428 20:18:48.467164  1239 net.cpp:139] Memory required for data: 15530800
I0428 20:18:48.467170  1239 layer_factory.hpp:77] Creating layer accuracy
I0428 20:18:48.467177  1239 net.cpp:86] Creating Layer accuracy
I0428 20:18:48.467183  1239 net.cpp:408] accuracy <- ip1_relu1_0_split_0
I0428 20:18:48.467191  1239 net.cpp:408] accuracy <- label_mnist_1_split_0
I0428 20:18:48.467200  1239 net.cpp:382] accuracy -> accuracy
…
