…
I0428 20:07:21.787937 31084 net.cpp:296] The NetState phase (0) differed from the phase (1) specified by a rule in layer mnist
I0428 20:07:21.787953 31084 net.cpp:296] The NetState phase (0) differed from the phase (1) specified by a rule in layer accuracy
I0428 20:07:21.788035 31084 net.cpp:53] Initializing net from parameters: 
name: "LeNet"
state {
  phase: TRAIN
  level: 0
  stage: ""
}
layer {
  name: "mnist"
  type: "Data"
  top: "data"
  top: "label"
  include {
    phase: TRAIN
  }
  transform_param {
    scale: 0.00390625
  }
  data_param {
    source: "examples/mnist/mnist_train_lmdb"
    batch_size: 64
    backend: LMDB
  }
}
layer {
  name: "conv0"
  type: "Convolution"
  bottom: "data"
  top: "conv0"
  param {
    lr_mult: 1
  }
  param {
    lr_mult: 2
  }
  convolution_param {
    num_output: 25
    kernel_size: 5
    stride: 1
    weight_filler {
      type: "xavier"
    }
    bias_filler {
      type: "constant"
    }
  }
}
layer {
  name: "pool0"
  type: "Pooling"
  bottom: "conv0"
  top: "pool0"
  pooling_param {
    pool: MAX
    kernel_size: 2
    stride: 2
  }
}
layer {
  name: "conv1"
  type: "Convolution"
  bottom: "pool0"
  top: "conv1"
  param {
    lr_mult: 1
  }
  param {
    lr_mult: 2
  }
  convolution_param {
    num_output: 10
    kernel_size: 5
    stride: 1
    weight_filler {
      type: "xavier"
    }
    bias_filler {
      type: "constant"
    }
  }
}
layer {
  name: "pool1"
  type: "Pooling"
  bottom: "conv1"
  top: "pool1"
  pooling_param {
    pool: MAX
    kernel_size: 2
    stride: 2
  }
}
layer {
  name: "ip1"
  type: "InnerProduct"
  bottom: "pool1"
  top: "ip1"
  param {
    lr_mult: 1
  }
  param {
    lr_mult: 2
  }
  inner_product_param {
    num_output: 10
    weight_filler {
      type: "xavier"
    }
    bias_filler {
      type: "constant"
    }
  }
}
layer {
  name: "relu1"
  type: "ReLU"
  bottom: "ip1"
  top: "ip1"
}
layer {
  name: "loss"
  type: "SoftmaxWithLoss"
  bottom: "ip1"
  bottom: "label"
  top: "loss"
}
I0428 20:07:21.788105 31084 layer_factory.hpp:77] Creating layer mnist
I0428 20:07:21.788200 31084 db_lmdb.cpp:35] Opened lmdb examples/mnist/mnist_train_lmdb
I0428 20:07:21.788225 31084 net.cpp:86] Creating Layer mnist
I0428 20:07:21.788233 31084 net.cpp:382] mnist -> data
I0428 20:07:21.788255 31084 net.cpp:382] mnist -> label
I0428 20:07:21.789348 31084 data_layer.cpp:45] output data size: 64,1,28,28
I0428 20:07:21.791815 31084 net.cpp:124] Setting up mnist
I0428 20:07:21.791834 31084 net.cpp:131] Top shape: 64 1 28 28 (50176)
I0428 20:07:21.791841 31084 net.cpp:131] Top shape: 64 (64)
I0428 20:07:21.791843 31084 net.cpp:139] Memory required for data: 200960
I0428 20:07:21.791851 31084 layer_factory.hpp:77] Creating layer conv0
I0428 20:07:21.791869 31084 net.cpp:86] Creating Layer conv0
I0428 20:07:21.791874 31084 net.cpp:408] conv0 <- data
I0428 20:07:21.791885 31084 net.cpp:382] conv0 -> conv0
I0428 20:07:22.079867 31084 net.cpp:124] Setting up conv0
I0428 20:07:22.079893 31084 net.cpp:131] Top shape: 64 25 24 24 (921600)
I0428 20:07:22.079898 31084 net.cpp:139] Memory required for data: 3887360
I0428 20:07:22.079913 31084 layer_factory.hpp:77] Creating layer pool0
I0428 20:07:22.079926 31084 net.cpp:86] Creating Layer pool0
I0428 20:07:22.079931 31084 net.cpp:408] pool0 <- conv0
I0428 20:07:22.079936 31084 net.cpp:382] pool0 -> pool0
I0428 20:07:22.079980 31084 net.cpp:124] Setting up pool0
I0428 20:07:22.079985 31084 net.cpp:131] Top shape: 64 25 12 12 (230400)
I0428 20:07:22.080004 31084 net.cpp:139] Memory required for data: 4808960
I0428 20:07:22.080008 31084 layer_factory.hpp:77] Creating layer conv1
I0428 20:07:22.080019 31084 net.cpp:86] Creating Layer conv1
I0428 20:07:22.080023 31084 net.cpp:408] conv1 <- pool0
I0428 20:07:22.080027 31084 net.cpp:382] conv1 -> conv1
I0428 20:07:22.082824 31084 net.cpp:124] Setting up conv1
I0428 20:07:22.082839 31084 net.cpp:131] Top shape: 64 10 8 8 (40960)
I0428 20:07:22.082842 31084 net.cpp:139] Memory required for data: 4972800
I0428 20:07:22.082851 31084 layer_factory.hpp:77] Creating layer pool1
I0428 20:07:22.082859 31084 net.cpp:86] Creating Layer pool1
I0428 20:07:22.082862 31084 net.cpp:408] pool1 <- conv1
I0428 20:07:22.082867 31084 net.cpp:382] pool1 -> pool1
I0428 20:07:22.082903 31084 net.cpp:124] Setting up pool1
I0428 20:07:22.082908 31084 net.cpp:131] Top shape: 64 10 4 4 (10240)
I0428 20:07:22.082911 31084 net.cpp:139] Memory required for data: 5013760
I0428 20:07:22.082914 31084 layer_factory.hpp:77] Creating layer ip1
I0428 20:07:22.082921 31084 net.cpp:86] Creating Layer ip1
I0428 20:07:22.082923 31084 net.cpp:408] ip1 <- pool1
I0428 20:07:22.082928 31084 net.cpp:382] ip1 -> ip1
I0428 20:07:22.083881 31084 net.cpp:124] Setting up ip1
I0428 20:07:22.083894 31084 net.cpp:131] Top shape: 64 10 (640)
I0428 20:07:22.083897 31084 net.cpp:139] Memory required for data: 5016320
I0428 20:07:22.083905 31084 layer_factory.hpp:77] Creating layer relu1
I0428 20:07:22.083911 31084 net.cpp:86] Creating Layer relu1
I0428 20:07:22.083915 31084 net.cpp:408] relu1 <- ip1
I0428 20:07:22.083920 31084 net.cpp:369] relu1 -> ip1 (in-place)
I0428 20:07:22.084085 31084 net.cpp:124] Setting up relu1
I0428 20:07:22.084095 31084 net.cpp:131] Top shape: 64 10 (640)
I0428 20:07:22.084097 31084 net.cpp:139] Memory required for data: 5018880
I0428 20:07:22.084100 31084 layer_factory.hpp:77] Creating layer loss
I0428 20:07:22.084106 31084 net.cpp:86] Creating Layer loss
I0428 20:07:22.084110 31084 net.cpp:408] loss <- ip1
I0428 20:07:22.084113 31084 net.cpp:408] loss <- label
I0428 20:07:22.084118 31084 net.cpp:382] loss -> loss
I0428 20:07:22.084136 31084 layer_factory.hpp:77] Creating layer loss
…
I0428 20:07:22.085392 31084 solver.cpp:173] Creating test net (#0) specified by net file: ECE595/mnist/train_test/var_everything2/lenet_train_test1053.prototxt
I0428 20:07:22.085417 31084 net.cpp:296] The NetState phase (1) differed from the phase (0) specified by a rule in layer mnist
I0428 20:07:22.085494 31084 net.cpp:53] Initializing net from parameters: 
name: "LeNet"
state {
  phase: TEST
}
layer {
  name: "mnist"
  type: "Data"
  top: "data"
  top: "label"
  include {
    phase: TEST
  }
  transform_param {
    scale: 0.00390625
  }
  data_param {
    source: "examples/mnist/mnist_test_lmdb"
    batch_size: 100
    backend: LMDB
  }
}
layer {
  name: "conv0"
  type: "Convolution"
  bottom: "data"
  top: "conv0"
  param {
    lr_mult: 1
  }
  param {
    lr_mult: 2
  }
  convolution_param {
    num_output: 25
    kernel_size: 5
    stride: 1
    weight_filler {
      type: "xavier"
    }
    bias_filler {
      type: "constant"
    }
  }
}
layer {
  name: "pool0"
  type: "Pooling"
  bottom: "conv0"
  top: "pool0"
  pooling_param {
    pool: MAX
    kernel_size: 2
    stride: 2
  }
}
layer {
  name: "conv1"
  type: "Convolution"
  bottom: "pool0"
  top: "conv1"
  param {
    lr_mult: 1
  }
  param {
    lr_mult: 2
  }
  convolution_param {
    num_output: 10
    kernel_size: 5
    stride: 1
    weight_filler {
      type: "xavier"
    }
    bias_filler {
      type: "constant"
    }
  }
}
layer {
  name: "pool1"
  type: "Pooling"
  bottom: "conv1"
  top: "pool1"
  pooling_param {
    pool: MAX
    kernel_size: 2
    stride: 2
  }
}
layer {
  name: "ip1"
  type: "InnerProduct"
  bottom: "pool1"
  top: "ip1"
  param {
    lr_mult: 1
  }
  param {
    lr_mult: 2
  }
  inner_product_param {
    num_output: 10
    weight_filler {
      type: "xavier"
    }
    bias_filler {
      type: "constant"
    }
  }
}
layer {
  name: "relu1"
  type: "ReLU"
  bottom: "ip1"
  top: "ip1"
}
layer {
  name: "accuracy"
  type: "Accuracy"
  bottom: "ip1"
  bottom: "label"
  top: "accuracy"
  include {
    phase: TEST
  }
}
layer {
  name: "loss"
  type: "SoftmaxWithLoss"
  bottom: "ip1"
  bottom: "label"
  top: "loss"
}
I0428 20:07:22.085582 31084 layer_factory.hpp:77] Creating layer mnist
I0428 20:07:22.085626 31084 db_lmdb.cpp:35] Opened lmdb examples/mnist/mnist_test_lmdb
I0428 20:07:22.085638 31084 net.cpp:86] Creating Layer mnist
I0428 20:07:22.085642 31084 net.cpp:382] mnist -> data
I0428 20:07:22.085650 31084 net.cpp:382] mnist -> label
I0428 20:07:22.085731 31084 data_layer.cpp:45] output data size: 100,1,28,28
I0428 20:07:22.087661 31084 net.cpp:124] Setting up mnist
I0428 20:07:22.087689 31084 net.cpp:131] Top shape: 100 1 28 28 (78400)
I0428 20:07:22.087695 31084 net.cpp:131] Top shape: 100 (100)
I0428 20:07:22.087698 31084 net.cpp:139] Memory required for data: 314000
I0428 20:07:22.087702 31084 layer_factory.hpp:77] Creating layer label_mnist_1_split
I0428 20:07:22.087710 31084 net.cpp:86] Creating Layer label_mnist_1_split
I0428 20:07:22.087713 31084 net.cpp:408] label_mnist_1_split <- label
I0428 20:07:22.087718 31084 net.cpp:382] label_mnist_1_split -> label_mnist_1_split_0
I0428 20:07:22.087726 31084 net.cpp:382] label_mnist_1_split -> label_mnist_1_split_1
I0428 20:07:22.087776 31084 net.cpp:124] Setting up label_mnist_1_split
I0428 20:07:22.087803 31084 net.cpp:131] Top shape: 100 (100)
I0428 20:07:22.087807 31084 net.cpp:131] Top shape: 100 (100)
I0428 20:07:22.087811 31084 net.cpp:139] Memory required for data: 314800
I0428 20:07:22.087815 31084 layer_factory.hpp:77] Creating layer conv0
I0428 20:07:22.087822 31084 net.cpp:86] Creating Layer conv0
I0428 20:07:22.087826 31084 net.cpp:408] conv0 <- data
I0428 20:07:22.087831 31084 net.cpp:382] conv0 -> conv0
I0428 20:07:22.088716 31084 net.cpp:124] Setting up conv0
I0428 20:07:22.088727 31084 net.cpp:131] Top shape: 100 25 24 24 (1440000)
I0428 20:07:22.088732 31084 net.cpp:139] Memory required for data: 6074800
I0428 20:07:22.088742 31084 layer_factory.hpp:77] Creating layer pool0
I0428 20:07:22.088747 31084 net.cpp:86] Creating Layer pool0
I0428 20:07:22.088750 31084 net.cpp:408] pool0 <- conv0
I0428 20:07:22.088755 31084 net.cpp:382] pool0 -> pool0
I0428 20:07:22.088793 31084 net.cpp:124] Setting up pool0
I0428 20:07:22.088798 31084 net.cpp:131] Top shape: 100 25 12 12 (360000)
I0428 20:07:22.088801 31084 net.cpp:139] Memory required for data: 7514800
I0428 20:07:22.088804 31084 layer_factory.hpp:77] Creating layer conv1
I0428 20:07:22.088820 31084 net.cpp:86] Creating Layer conv1
I0428 20:07:22.088824 31084 net.cpp:408] conv1 <- pool0
I0428 20:07:22.088830 31084 net.cpp:382] conv1 -> conv1
I0428 20:07:22.091033 31084 net.cpp:124] Setting up conv1
I0428 20:07:22.091065 31084 net.cpp:131] Top shape: 100 10 8 8 (64000)
I0428 20:07:22.091069 31084 net.cpp:139] Memory required for data: 7770800
I0428 20:07:22.091092 31084 layer_factory.hpp:77] Creating layer pool1
I0428 20:07:22.091099 31084 net.cpp:86] Creating Layer pool1
I0428 20:07:22.091127 31084 net.cpp:408] pool1 <- conv1
I0428 20:07:22.091135 31084 net.cpp:382] pool1 -> pool1
I0428 20:07:22.091176 31084 net.cpp:124] Setting up pool1
I0428 20:07:22.091192 31084 net.cpp:131] Top shape: 100 10 4 4 (16000)
I0428 20:07:22.091195 31084 net.cpp:139] Memory required for data: 7834800
I0428 20:07:22.091198 31084 layer_factory.hpp:77] Creating layer ip1
I0428 20:07:22.091205 31084 net.cpp:86] Creating Layer ip1
I0428 20:07:22.091208 31084 net.cpp:408] ip1 <- pool1
I0428 20:07:22.091214 31084 net.cpp:382] ip1 -> ip1
I0428 20:07:22.091330 31084 net.cpp:124] Setting up ip1
I0428 20:07:22.091338 31084 net.cpp:131] Top shape: 100 10 (1000)
I0428 20:07:22.091342 31084 net.cpp:139] Memory required for data: 7838800
I0428 20:07:22.091349 31084 layer_factory.hpp:77] Creating layer relu1
I0428 20:07:22.091354 31084 net.cpp:86] Creating Layer relu1
I0428 20:07:22.091357 31084 net.cpp:408] relu1 <- ip1
I0428 20:07:22.091362 31084 net.cpp:369] relu1 -> ip1 (in-place)
I0428 20:07:22.092243 31084 net.cpp:124] Setting up relu1
I0428 20:07:22.092254 31084 net.cpp:131] Top shape: 100 10 (1000)
I0428 20:07:22.092258 31084 net.cpp:139] Memory required for data: 7842800
I0428 20:07:22.092262 31084 layer_factory.hpp:77] Creating layer ip1_relu1_0_split
I0428 20:07:22.092269 31084 net.cpp:86] Creating Layer ip1_relu1_0_split
I0428 20:07:22.092273 31084 net.cpp:408] ip1_relu1_0_split <- ip1
I0428 20:07:22.092278 31084 net.cpp:382] ip1_relu1_0_split -> ip1_relu1_0_split_0
I0428 20:07:22.092285 31084 net.cpp:382] ip1_relu1_0_split -> ip1_relu1_0_split_1
I0428 20:07:22.092350 31084 net.cpp:124] Setting up ip1_relu1_0_split
I0428 20:07:22.092358 31084 net.cpp:131] Top shape: 100 10 (1000)
I0428 20:07:22.092362 31084 net.cpp:131] Top shape: 100 10 (1000)
I0428 20:07:22.092365 31084 net.cpp:139] Memory required for data: 7850800
I0428 20:07:22.092367 31084 layer_factory.hpp:77] Creating layer accuracy
I0428 20:07:22.092375 31084 net.cpp:86] Creating Layer accuracy
I0428 20:07:22.092378 31084 net.cpp:408] accuracy <- ip1_relu1_0_split_0
I0428 20:07:22.092383 31084 net.cpp:408] accuracy <- label_mnist_1_split_0
I0428 20:07:22.092387 31084 net.cpp:382] accuracy -> accuracy
…
