…
I0428 19:34:47.448592 23389 net.cpp:296] The NetState phase (0) differed from the phase (1) specified by a rule in layer mnist
I0428 19:34:47.448616 23389 net.cpp:296] The NetState phase (0) differed from the phase (1) specified by a rule in layer accuracy
I0428 19:34:47.448712 23389 net.cpp:53] Initializing net from parameters: 
name: "LeNet"
state {
  phase: TRAIN
  level: 0
  stage: ""
}
layer {
  name: "mnist"
  type: "Data"
  top: "data"
  top: "label"
  include {
    phase: TRAIN
  }
  transform_param {
    scale: 0.00390625
  }
  data_param {
    source: "examples/mnist/mnist_train_lmdb"
    batch_size: 64
    backend: LMDB
  }
}
layer {
  name: "conv0"
  type: "Convolution"
  bottom: "data"
  top: "conv0"
  param {
    lr_mult: 1
  }
  param {
    lr_mult: 2
  }
  convolution_param {
    num_output: 50
    kernel_size: 5
    stride: 1
    weight_filler {
      type: "xavier"
    }
    bias_filler {
      type: "constant"
    }
  }
}
layer {
  name: "pool0"
  type: "Pooling"
  bottom: "conv0"
  top: "pool0"
  pooling_param {
    pool: MAX
    kernel_size: 2
    stride: 2
  }
}
layer {
  name: "ip1"
  type: "InnerProduct"
  bottom: "pool0"
  top: "ip1"
  param {
    lr_mult: 1
  }
  param {
    lr_mult: 2
  }
  inner_product_param {
    num_output: 10
    weight_filler {
      type: "xavier"
    }
    bias_filler {
      type: "constant"
    }
  }
}
layer {
  name: "relu1"
  type: "ReLU"
  bottom: "ip1"
  top: "ip1"
}
layer {
  name: "ip2"
  type: "InnerProduct"
  bottom: "ip1"
  top: "ip2"
  param {
    lr_mult: 1
  }
  param {
    lr_mult: 2
  }
  inner_product_param {
    num_output: 25
    weight_filler {
      type: "xavier"
    }
    bias_filler {
      type: "constant"
    }
  }
}
layer {
  name: "relu2"
  type: "ReLU"
  bottom: "ip2"
  top: "ip2"
}
layer {
  name: "ip3"
  type: "InnerProduct"
  bottom: "ip2"
  top: "ip3"
  param {
    lr_mult: 1
  }
  param {
    lr_mult: 2
  }
  inner_product_param {
    num_output: 10
    weight_filler {
      type: "xavier"
    }
    bias_filler {
      type: "constant"
    }
  }
}
layer {
  name: "relu3"
  type: "ReLU"
  bottom: "ip3"
  top: "ip3"
}
layer {
  name: "loss"
  type: "SoftmaxWithLoss"
  bottom: "ip3"
  bottom: "label"
  top: "loss"
}
I0428 19:34:47.448832 23389 layer_factory.hpp:77] Creating layer mnist
I0428 19:34:47.448976 23389 db_lmdb.cpp:35] Opened lmdb examples/mnist/mnist_train_lmdb
I0428 19:34:47.449009 23389 net.cpp:86] Creating Layer mnist
I0428 19:34:47.449021 23389 net.cpp:382] mnist -> data
I0428 19:34:47.449055 23389 net.cpp:382] mnist -> label
I0428 19:34:47.450278 23389 data_layer.cpp:45] output data size: 64,1,28,28
I0428 19:34:47.452744 23389 net.cpp:124] Setting up mnist
I0428 19:34:47.452764 23389 net.cpp:131] Top shape: 64 1 28 28 (50176)
I0428 19:34:47.452775 23389 net.cpp:131] Top shape: 64 (64)
I0428 19:34:47.452780 23389 net.cpp:139] Memory required for data: 200960
I0428 19:34:47.452791 23389 layer_factory.hpp:77] Creating layer conv0
I0428 19:34:47.452826 23389 net.cpp:86] Creating Layer conv0
I0428 19:34:47.452837 23389 net.cpp:408] conv0 <- data
I0428 19:34:47.452857 23389 net.cpp:382] conv0 -> conv0
I0428 19:34:47.735752 23389 net.cpp:124] Setting up conv0
I0428 19:34:47.735781 23389 net.cpp:131] Top shape: 64 50 24 24 (1843200)
I0428 19:34:47.735787 23389 net.cpp:139] Memory required for data: 7573760
I0428 19:34:47.735807 23389 layer_factory.hpp:77] Creating layer pool0
I0428 19:34:47.735824 23389 net.cpp:86] Creating Layer pool0
I0428 19:34:47.735848 23389 net.cpp:408] pool0 <- conv0
I0428 19:34:47.735859 23389 net.cpp:382] pool0 -> pool0
I0428 19:34:47.735915 23389 net.cpp:124] Setting up pool0
I0428 19:34:47.735924 23389 net.cpp:131] Top shape: 64 50 12 12 (460800)
I0428 19:34:47.735929 23389 net.cpp:139] Memory required for data: 9416960
I0428 19:34:47.735934 23389 layer_factory.hpp:77] Creating layer ip1
I0428 19:34:47.735945 23389 net.cpp:86] Creating Layer ip1
I0428 19:34:47.735955 23389 net.cpp:408] ip1 <- pool0
I0428 19:34:47.735963 23389 net.cpp:382] ip1 -> ip1
I0428 19:34:47.737341 23389 net.cpp:124] Setting up ip1
I0428 19:34:47.737356 23389 net.cpp:131] Top shape: 64 10 (640)
I0428 19:34:47.737361 23389 net.cpp:139] Memory required for data: 9419520
I0428 19:34:47.737373 23389 layer_factory.hpp:77] Creating layer relu1
I0428 19:34:47.737383 23389 net.cpp:86] Creating Layer relu1
I0428 19:34:47.737388 23389 net.cpp:408] relu1 <- ip1
I0428 19:34:47.737396 23389 net.cpp:369] relu1 -> ip1 (in-place)
I0428 19:34:47.737568 23389 net.cpp:124] Setting up relu1
I0428 19:34:47.737578 23389 net.cpp:131] Top shape: 64 10 (640)
I0428 19:34:47.737583 23389 net.cpp:139] Memory required for data: 9422080
I0428 19:34:47.737588 23389 layer_factory.hpp:77] Creating layer ip2
I0428 19:34:47.737614 23389 net.cpp:86] Creating Layer ip2
I0428 19:34:47.737619 23389 net.cpp:408] ip2 <- ip1
I0428 19:34:47.737627 23389 net.cpp:382] ip2 -> ip2
I0428 19:34:47.737737 23389 net.cpp:124] Setting up ip2
I0428 19:34:47.737746 23389 net.cpp:131] Top shape: 64 25 (1600)
I0428 19:34:47.737762 23389 net.cpp:139] Memory required for data: 9428480
I0428 19:34:47.737776 23389 layer_factory.hpp:77] Creating layer relu2
I0428 19:34:47.737785 23389 net.cpp:86] Creating Layer relu2
I0428 19:34:47.737792 23389 net.cpp:408] relu2 <- ip2
I0428 19:34:47.737798 23389 net.cpp:369] relu2 -> ip2 (in-place)
I0428 19:34:47.738682 23389 net.cpp:124] Setting up relu2
I0428 19:34:47.738695 23389 net.cpp:131] Top shape: 64 25 (1600)
I0428 19:34:47.738701 23389 net.cpp:139] Memory required for data: 9434880
I0428 19:34:47.738706 23389 layer_factory.hpp:77] Creating layer ip3
I0428 19:34:47.738718 23389 net.cpp:86] Creating Layer ip3
I0428 19:34:47.738723 23389 net.cpp:408] ip3 <- ip2
I0428 19:34:47.738731 23389 net.cpp:382] ip3 -> ip3
I0428 19:34:47.738844 23389 net.cpp:124] Setting up ip3
I0428 19:34:47.738867 23389 net.cpp:131] Top shape: 64 10 (640)
I0428 19:34:47.738873 23389 net.cpp:139] Memory required for data: 9437440
I0428 19:34:47.738896 23389 layer_factory.hpp:77] Creating layer relu3
I0428 19:34:47.738906 23389 net.cpp:86] Creating Layer relu3
I0428 19:34:47.738914 23389 net.cpp:408] relu3 <- ip3
I0428 19:34:47.738935 23389 net.cpp:369] relu3 -> ip3 (in-place)
I0428 19:34:47.739109 23389 net.cpp:124] Setting up relu3
I0428 19:34:47.739118 23389 net.cpp:131] Top shape: 64 10 (640)
I0428 19:34:47.739123 23389 net.cpp:139] Memory required for data: 9440000
I0428 19:34:47.739128 23389 layer_factory.hpp:77] Creating layer loss
I0428 19:34:47.739137 23389 net.cpp:86] Creating Layer loss
I0428 19:34:47.739143 23389 net.cpp:408] loss <- ip3
I0428 19:34:47.739151 23389 net.cpp:408] loss <- label
I0428 19:34:47.739159 23389 net.cpp:382] loss -> loss
I0428 19:34:47.739182 23389 layer_factory.hpp:77] Creating layer loss
…
I0428 19:34:47.739890 23389 solver.cpp:173] Creating test net (#0) specified by net file: ECE595/mnist/train_test/var_everything2/lenet_train_test211.prototxt
I0428 19:34:47.739923 23389 net.cpp:296] The NetState phase (1) differed from the phase (0) specified by a rule in layer mnist
I0428 19:34:47.740057 23389 net.cpp:53] Initializing net from parameters: 
name: "LeNet"
state {
  phase: TEST
}
layer {
  name: "mnist"
  type: "Data"
  top: "data"
  top: "label"
  include {
    phase: TEST
  }
  transform_param {
    scale: 0.00390625
  }
  data_param {
    source: "examples/mnist/mnist_test_lmdb"
    batch_size: 100
    backend: LMDB
  }
}
layer {
  name: "conv0"
  type: "Convolution"
  bottom: "data"
  top: "conv0"
  param {
    lr_mult: 1
  }
  param {
    lr_mult: 2
  }
  convolution_param {
    num_output: 50
    kernel_size: 5
    stride: 1
    weight_filler {
      type: "xavier"
    }
    bias_filler {
      type: "constant"
    }
  }
}
layer {
  name: "pool0"
  type: "Pooling"
  bottom: "conv0"
  top: "pool0"
  pooling_param {
    pool: MAX
    kernel_size: 2
    stride: 2
  }
}
layer {
  name: "ip1"
  type: "InnerProduct"
  bottom: "pool0"
  top: "ip1"
  param {
    lr_mult: 1
  }
  param {
    lr_mult: 2
  }
  inner_product_param {
    num_output: 10
    weight_filler {
      type: "xavier"
    }
    bias_filler {
      type: "constant"
    }
  }
}
layer {
  name: "relu1"
  type: "ReLU"
  bottom: "ip1"
  top: "ip1"
}
layer {
  name: "ip2"
  type: "InnerProduct"
  bottom: "ip1"
  top: "ip2"
  param {
    lr_mult: 1
  }
  param {
    lr_mult: 2
  }
  inner_product_param {
    num_output: 25
    weight_filler {
      type: "xavier"
    }
    bias_filler {
      type: "constant"
    }
  }
}
layer {
  name: "relu2"
  type: "ReLU"
  bottom: "ip2"
  top: "ip2"
}
layer {
  name: "ip3"
  type: "InnerProduct"
  bottom: "ip2"
  top: "ip3"
  param {
    lr_mult: 1
  }
  param {
    lr_mult: 2
  }
  inner_product_param {
    num_output: 10
    weight_filler {
      type: "xavier"
    }
    bias_filler {
      type: "constant"
    }
  }
}
layer {
  name: "relu3"
  type: "ReLU"
  bottom: "ip3"
  top: "ip3"
}
layer {
  name: "accuracy"
  type: "Accuracy"
  bottom: "ip3"
  bottom: "label"
  top: "accuracy"
  include {
    phase: TEST
  }
}
layer {
  name: "loss"
  type: "SoftmaxWithLoss"
  bottom: "ip3"
  bottom: "label"
  top: "loss"
}
I0428 19:34:47.740169 23389 layer_factory.hpp:77] Creating layer mnist
I0428 19:34:47.740229 23389 db_lmdb.cpp:35] Opened lmdb examples/mnist/mnist_test_lmdb
I0428 19:34:47.740248 23389 net.cpp:86] Creating Layer mnist
I0428 19:34:47.740257 23389 net.cpp:382] mnist -> data
I0428 19:34:47.740283 23389 net.cpp:382] mnist -> label
I0428 19:34:47.740427 23389 data_layer.cpp:45] output data size: 100,1,28,28
I0428 19:34:47.741729 23389 net.cpp:124] Setting up mnist
I0428 19:34:47.741760 23389 net.cpp:131] Top shape: 100 1 28 28 (78400)
I0428 19:34:47.741766 23389 net.cpp:131] Top shape: 100 (100)
I0428 19:34:47.741771 23389 net.cpp:139] Memory required for data: 314000
I0428 19:34:47.741777 23389 layer_factory.hpp:77] Creating layer label_mnist_1_split
I0428 19:34:47.741806 23389 net.cpp:86] Creating Layer label_mnist_1_split
I0428 19:34:47.741812 23389 net.cpp:408] label_mnist_1_split <- label
I0428 19:34:47.741821 23389 net.cpp:382] label_mnist_1_split -> label_mnist_1_split_0
I0428 19:34:47.741845 23389 net.cpp:382] label_mnist_1_split -> label_mnist_1_split_1
I0428 19:34:47.741930 23389 net.cpp:124] Setting up label_mnist_1_split
I0428 19:34:47.741938 23389 net.cpp:131] Top shape: 100 (100)
I0428 19:34:47.741945 23389 net.cpp:131] Top shape: 100 (100)
I0428 19:34:47.741950 23389 net.cpp:139] Memory required for data: 314800
I0428 19:34:47.741967 23389 layer_factory.hpp:77] Creating layer conv0
I0428 19:34:47.741981 23389 net.cpp:86] Creating Layer conv0
I0428 19:34:47.741987 23389 net.cpp:408] conv0 <- data
I0428 19:34:47.741997 23389 net.cpp:382] conv0 -> conv0
I0428 19:34:47.743672 23389 net.cpp:124] Setting up conv0
I0428 19:34:47.743687 23389 net.cpp:131] Top shape: 100 50 24 24 (2880000)
I0428 19:34:47.743693 23389 net.cpp:139] Memory required for data: 11834800
I0428 19:34:47.743722 23389 layer_factory.hpp:77] Creating layer pool0
I0428 19:34:47.743732 23389 net.cpp:86] Creating Layer pool0
I0428 19:34:47.743738 23389 net.cpp:408] pool0 <- conv0
I0428 19:34:47.743746 23389 net.cpp:382] pool0 -> pool0
I0428 19:34:47.743787 23389 net.cpp:124] Setting up pool0
I0428 19:34:47.743795 23389 net.cpp:131] Top shape: 100 50 12 12 (720000)
I0428 19:34:47.743800 23389 net.cpp:139] Memory required for data: 14714800
I0428 19:34:47.743805 23389 layer_factory.hpp:77] Creating layer ip1
I0428 19:34:47.743816 23389 net.cpp:86] Creating Layer ip1
I0428 19:34:47.743821 23389 net.cpp:408] ip1 <- pool0
I0428 19:34:47.743844 23389 net.cpp:382] ip1 -> ip1
I0428 19:34:47.744405 23389 net.cpp:124] Setting up ip1
I0428 19:34:47.744415 23389 net.cpp:131] Top shape: 100 10 (1000)
I0428 19:34:47.744418 23389 net.cpp:139] Memory required for data: 14718800
I0428 19:34:47.744429 23389 layer_factory.hpp:77] Creating layer relu1
I0428 19:34:47.744438 23389 net.cpp:86] Creating Layer relu1
I0428 19:34:47.744443 23389 net.cpp:408] relu1 <- ip1
I0428 19:34:47.744451 23389 net.cpp:369] relu1 -> ip1 (in-place)
I0428 19:34:47.744619 23389 net.cpp:124] Setting up relu1
I0428 19:34:47.744629 23389 net.cpp:131] Top shape: 100 10 (1000)
I0428 19:34:47.744634 23389 net.cpp:139] Memory required for data: 14722800
I0428 19:34:47.744640 23389 layer_factory.hpp:77] Creating layer ip2
I0428 19:34:47.744649 23389 net.cpp:86] Creating Layer ip2
I0428 19:34:47.744654 23389 net.cpp:408] ip2 <- ip1
I0428 19:34:47.744678 23389 net.cpp:382] ip2 -> ip2
I0428 19:34:47.744803 23389 net.cpp:124] Setting up ip2
I0428 19:34:47.744834 23389 net.cpp:131] Top shape: 100 25 (2500)
I0428 19:34:47.744840 23389 net.cpp:139] Memory required for data: 14732800
I0428 19:34:47.744853 23389 layer_factory.hpp:77] Creating layer relu2
I0428 19:34:47.744861 23389 net.cpp:86] Creating Layer relu2
I0428 19:34:47.744866 23389 net.cpp:408] relu2 <- ip2
I0428 19:34:47.744874 23389 net.cpp:369] relu2 -> ip2 (in-place)
I0428 19:34:47.745730 23389 net.cpp:124] Setting up relu2
I0428 19:34:47.745743 23389 net.cpp:131] Top shape: 100 25 (2500)
I0428 19:34:47.745748 23389 net.cpp:139] Memory required for data: 14742800
I0428 19:34:47.745754 23389 layer_factory.hpp:77] Creating layer ip3
I0428 19:34:47.745765 23389 net.cpp:86] Creating Layer ip3
I0428 19:34:47.745770 23389 net.cpp:408] ip3 <- ip2
I0428 19:34:47.745779 23389 net.cpp:382] ip3 -> ip3
I0428 19:34:47.745934 23389 net.cpp:124] Setting up ip3
I0428 19:34:47.745944 23389 net.cpp:131] Top shape: 100 10 (1000)
I0428 19:34:47.745971 23389 net.cpp:139] Memory required for data: 14746800
I0428 19:34:47.745980 23389 layer_factory.hpp:77] Creating layer relu3
I0428 19:34:47.745987 23389 net.cpp:86] Creating Layer relu3
I0428 19:34:47.745993 23389 net.cpp:408] relu3 <- ip3
I0428 19:34:47.746001 23389 net.cpp:369] relu3 -> ip3 (in-place)
I0428 19:34:47.746194 23389 net.cpp:124] Setting up relu3
I0428 19:34:47.746206 23389 net.cpp:131] Top shape: 100 10 (1000)
I0428 19:34:47.746212 23389 net.cpp:139] Memory required for data: 14750800
I0428 19:34:47.746225 23389 layer_factory.hpp:77] Creating layer ip3_relu3_0_split
I0428 19:34:47.746248 23389 net.cpp:86] Creating Layer ip3_relu3_0_split
I0428 19:34:47.746254 23389 net.cpp:408] ip3_relu3_0_split <- ip3
I0428 19:34:47.746263 23389 net.cpp:382] ip3_relu3_0_split -> ip3_relu3_0_split_0
I0428 19:34:47.746273 23389 net.cpp:382] ip3_relu3_0_split -> ip3_relu3_0_split_1
I0428 19:34:47.746316 23389 net.cpp:124] Setting up ip3_relu3_0_split
I0428 19:34:47.746325 23389 net.cpp:131] Top shape: 100 10 (1000)
I0428 19:34:47.746345 23389 net.cpp:131] Top shape: 100 10 (1000)
I0428 19:34:47.746351 23389 net.cpp:139] Memory required for data: 14758800
I0428 19:34:47.746356 23389 layer_factory.hpp:77] Creating layer accuracy
I0428 19:34:47.746364 23389 net.cpp:86] Creating Layer accuracy
I0428 19:34:47.746371 23389 net.cpp:408] accuracy <- ip3_relu3_0_split_0
I0428 19:34:47.746378 23389 net.cpp:408] accuracy <- label_mnist_1_split_0
I0428 19:34:47.746387 23389 net.cpp:382] accuracy -> accuracy
…
