…
I0428 20:03:09.154832 30129 net.cpp:296] The NetState phase (0) differed from the phase (1) specified by a rule in layer mnist
I0428 20:03:09.154848 30129 net.cpp:296] The NetState phase (0) differed from the phase (1) specified by a rule in layer accuracy
I0428 20:03:09.154938 30129 net.cpp:53] Initializing net from parameters: 
name: "LeNet"
state {
  phase: TRAIN
  level: 0
  stage: ""
}
layer {
  name: "mnist"
  type: "Data"
  top: "data"
  top: "label"
  include {
    phase: TRAIN
  }
  transform_param {
    scale: 0.00390625
  }
  data_param {
    source: "examples/mnist/mnist_train_lmdb"
    batch_size: 64
    backend: LMDB
  }
}
layer {
  name: "conv0"
  type: "Convolution"
  bottom: "data"
  top: "conv0"
  param {
    lr_mult: 1
  }
  param {
    lr_mult: 2
  }
  convolution_param {
    num_output: 10
    kernel_size: 5
    stride: 1
    weight_filler {
      type: "xavier"
    }
    bias_filler {
      type: "constant"
    }
  }
}
layer {
  name: "pool0"
  type: "Pooling"
  bottom: "conv0"
  top: "pool0"
  pooling_param {
    pool: MAX
    kernel_size: 2
    stride: 2
  }
}
layer {
  name: "conv1"
  type: "Convolution"
  bottom: "pool0"
  top: "conv1"
  param {
    lr_mult: 1
  }
  param {
    lr_mult: 2
  }
  convolution_param {
    num_output: 100
    kernel_size: 5
    stride: 1
    weight_filler {
      type: "xavier"
    }
    bias_filler {
      type: "constant"
    }
  }
}
layer {
  name: "pool1"
  type: "Pooling"
  bottom: "conv1"
  top: "pool1"
  pooling_param {
    pool: MAX
    kernel_size: 2
    stride: 2
  }
}
layer {
  name: "ip1"
  type: "InnerProduct"
  bottom: "pool1"
  top: "ip1"
  param {
    lr_mult: 1
  }
  param {
    lr_mult: 2
  }
  inner_product_param {
    num_output: 50
    weight_filler {
      type: "xavier"
    }
    bias_filler {
      type: "constant"
    }
  }
}
layer {
  name: "relu1"
  type: "ReLU"
  bottom: "ip1"
  top: "ip1"
}
layer {
  name: "ip2"
  type: "InnerProduct"
  bottom: "ip1"
  top: "ip2"
  param {
    lr_mult: 1
  }
  param {
    lr_mult: 2
  }
  inner_product_param {
    num_output: 10
    weight_filler {
      type: "xavier"
    }
    bias_filler {
      type: "constant"
    }
  }
}
layer {
  name: "relu2"
  type: "ReLU"
  bottom: "ip2"
  top: "ip2"
}
layer {
  name: "loss"
  type: "SoftmaxWithLoss"
  bottom: "ip2"
  bottom: "label"
  top: "loss"
}
I0428 20:03:09.155014 30129 layer_factory.hpp:77] Creating layer mnist
I0428 20:03:09.155113 30129 db_lmdb.cpp:35] Opened lmdb examples/mnist/mnist_train_lmdb
I0428 20:03:09.155139 30129 net.cpp:86] Creating Layer mnist
I0428 20:03:09.155148 30129 net.cpp:382] mnist -> data
I0428 20:03:09.155170 30129 net.cpp:382] mnist -> label
I0428 20:03:09.156266 30129 data_layer.cpp:45] output data size: 64,1,28,28
I0428 20:03:09.158718 30129 net.cpp:124] Setting up mnist
I0428 20:03:09.158737 30129 net.cpp:131] Top shape: 64 1 28 28 (50176)
I0428 20:03:09.158743 30129 net.cpp:131] Top shape: 64 (64)
I0428 20:03:09.158746 30129 net.cpp:139] Memory required for data: 200960
I0428 20:03:09.158753 30129 layer_factory.hpp:77] Creating layer conv0
I0428 20:03:09.158771 30129 net.cpp:86] Creating Layer conv0
I0428 20:03:09.158776 30129 net.cpp:408] conv0 <- data
I0428 20:03:09.158787 30129 net.cpp:382] conv0 -> conv0
I0428 20:03:09.436231 30129 net.cpp:124] Setting up conv0
I0428 20:03:09.436261 30129 net.cpp:131] Top shape: 64 10 24 24 (368640)
I0428 20:03:09.436264 30129 net.cpp:139] Memory required for data: 1675520
I0428 20:03:09.436295 30129 layer_factory.hpp:77] Creating layer pool0
I0428 20:03:09.436308 30129 net.cpp:86] Creating Layer pool0
I0428 20:03:09.436311 30129 net.cpp:408] pool0 <- conv0
I0428 20:03:09.436316 30129 net.cpp:382] pool0 -> pool0
I0428 20:03:09.436362 30129 net.cpp:124] Setting up pool0
I0428 20:03:09.436367 30129 net.cpp:131] Top shape: 64 10 12 12 (92160)
I0428 20:03:09.436370 30129 net.cpp:139] Memory required for data: 2044160
I0428 20:03:09.436372 30129 layer_factory.hpp:77] Creating layer conv1
I0428 20:03:09.436386 30129 net.cpp:86] Creating Layer conv1
I0428 20:03:09.436391 30129 net.cpp:408] conv1 <- pool0
I0428 20:03:09.436395 30129 net.cpp:382] conv1 -> conv1
I0428 20:03:09.438498 30129 net.cpp:124] Setting up conv1
I0428 20:03:09.438526 30129 net.cpp:131] Top shape: 64 100 8 8 (409600)
I0428 20:03:09.438545 30129 net.cpp:139] Memory required for data: 3682560
I0428 20:03:09.438554 30129 layer_factory.hpp:77] Creating layer pool1
I0428 20:03:09.438560 30129 net.cpp:86] Creating Layer pool1
I0428 20:03:09.438565 30129 net.cpp:408] pool1 <- conv1
I0428 20:03:09.438570 30129 net.cpp:382] pool1 -> pool1
I0428 20:03:09.438621 30129 net.cpp:124] Setting up pool1
I0428 20:03:09.438627 30129 net.cpp:131] Top shape: 64 100 4 4 (102400)
I0428 20:03:09.438629 30129 net.cpp:139] Memory required for data: 4092160
I0428 20:03:09.438632 30129 layer_factory.hpp:77] Creating layer ip1
I0428 20:03:09.438640 30129 net.cpp:86] Creating Layer ip1
I0428 20:03:09.438643 30129 net.cpp:408] ip1 <- pool1
I0428 20:03:09.438648 30129 net.cpp:382] ip1 -> ip1
I0428 20:03:09.440102 30129 net.cpp:124] Setting up ip1
I0428 20:03:09.440114 30129 net.cpp:131] Top shape: 64 50 (3200)
I0428 20:03:09.440132 30129 net.cpp:139] Memory required for data: 4104960
I0428 20:03:09.440140 30129 layer_factory.hpp:77] Creating layer relu1
I0428 20:03:09.440147 30129 net.cpp:86] Creating Layer relu1
I0428 20:03:09.440150 30129 net.cpp:408] relu1 <- ip1
I0428 20:03:09.440156 30129 net.cpp:369] relu1 -> ip1 (in-place)
I0428 20:03:09.440342 30129 net.cpp:124] Setting up relu1
I0428 20:03:09.440351 30129 net.cpp:131] Top shape: 64 50 (3200)
I0428 20:03:09.440354 30129 net.cpp:139] Memory required for data: 4117760
I0428 20:03:09.440357 30129 layer_factory.hpp:77] Creating layer ip2
I0428 20:03:09.440363 30129 net.cpp:86] Creating Layer ip2
I0428 20:03:09.440366 30129 net.cpp:408] ip2 <- ip1
I0428 20:03:09.440372 30129 net.cpp:382] ip2 -> ip2
I0428 20:03:09.440474 30129 net.cpp:124] Setting up ip2
I0428 20:03:09.440480 30129 net.cpp:131] Top shape: 64 10 (640)
I0428 20:03:09.440484 30129 net.cpp:139] Memory required for data: 4120320
I0428 20:03:09.440488 30129 layer_factory.hpp:77] Creating layer relu2
I0428 20:03:09.440510 30129 net.cpp:86] Creating Layer relu2
I0428 20:03:09.440512 30129 net.cpp:408] relu2 <- ip2
I0428 20:03:09.440518 30129 net.cpp:369] relu2 -> ip2 (in-place)
I0428 20:03:09.441314 30129 net.cpp:124] Setting up relu2
I0428 20:03:09.441326 30129 net.cpp:131] Top shape: 64 10 (640)
I0428 20:03:09.441345 30129 net.cpp:139] Memory required for data: 4122880
I0428 20:03:09.441349 30129 layer_factory.hpp:77] Creating layer loss
I0428 20:03:09.441355 30129 net.cpp:86] Creating Layer loss
I0428 20:03:09.441359 30129 net.cpp:408] loss <- ip2
I0428 20:03:09.441362 30129 net.cpp:408] loss <- label
I0428 20:03:09.441370 30129 net.cpp:382] loss -> loss
I0428 20:03:09.441385 30129 layer_factory.hpp:77] Creating layer loss
…
I0428 20:03:09.442052 30129 solver.cpp:173] Creating test net (#0) specified by net file: ECE595/mnist/train_test/var_everything2/lenet_train_test945.prototxt
I0428 20:03:09.442077 30129 net.cpp:296] The NetState phase (1) differed from the phase (0) specified by a rule in layer mnist
I0428 20:03:09.442167 30129 net.cpp:53] Initializing net from parameters: 
name: "LeNet"
state {
  phase: TEST
}
layer {
  name: "mnist"
  type: "Data"
  top: "data"
  top: "label"
  include {
    phase: TEST
  }
  transform_param {
    scale: 0.00390625
  }
  data_param {
    source: "examples/mnist/mnist_test_lmdb"
    batch_size: 100
    backend: LMDB
  }
}
layer {
  name: "conv0"
  type: "Convolution"
  bottom: "data"
  top: "conv0"
  param {
    lr_mult: 1
  }
  param {
    lr_mult: 2
  }
  convolution_param {
    num_output: 10
    kernel_size: 5
    stride: 1
    weight_filler {
      type: "xavier"
    }
    bias_filler {
      type: "constant"
    }
  }
}
layer {
  name: "pool0"
  type: "Pooling"
  bottom: "conv0"
  top: "pool0"
  pooling_param {
    pool: MAX
    kernel_size: 2
    stride: 2
  }
}
layer {
  name: "conv1"
  type: "Convolution"
  bottom: "pool0"
  top: "conv1"
  param {
    lr_mult: 1
  }
  param {
    lr_mult: 2
  }
  convolution_param {
    num_output: 100
    kernel_size: 5
    stride: 1
    weight_filler {
      type: "xavier"
    }
    bias_filler {
      type: "constant"
    }
  }
}
layer {
  name: "pool1"
  type: "Pooling"
  bottom: "conv1"
  top: "pool1"
  pooling_param {
    pool: MAX
    kernel_size: 2
    stride: 2
  }
}
layer {
  name: "ip1"
  type: "InnerProduct"
  bottom: "pool1"
  top: "ip1"
  param {
    lr_mult: 1
  }
  param {
    lr_mult: 2
  }
  inner_product_param {
    num_output: 50
    weight_filler {
      type: "xavier"
    }
    bias_filler {
      type: "constant"
    }
  }
}
layer {
  name: "relu1"
  type: "ReLU"
  bottom: "ip1"
  top: "ip1"
}
layer {
  name: "ip2"
  type: "InnerProduct"
  bottom: "ip1"
  top: "ip2"
  param {
    lr_mult: 1
  }
  param {
    lr_mult: 2
  }
  inner_product_param {
    num_output: 10
    weight_filler {
      type: "xavier"
    }
    bias_filler {
      type: "constant"
    }
  }
}
layer {
  name: "relu2"
  type: "ReLU"
  bottom: "ip2"
  top: "ip2"
}
layer {
  name: "accuracy"
  type: "Accuracy"
  bottom: "ip2"
  bottom: "label"
  top: "accuracy"
  include {
    phase: TEST
  }
}
layer {
  name: "loss"
  type: "SoftmaxWithLoss"
  bottom: "ip2"
  bottom: "label"
  top: "loss"
}
I0428 20:03:09.442250 30129 layer_factory.hpp:77] Creating layer mnist
I0428 20:03:09.442308 30129 db_lmdb.cpp:35] Opened lmdb examples/mnist/mnist_test_lmdb
I0428 20:03:09.442320 30129 net.cpp:86] Creating Layer mnist
I0428 20:03:09.442325 30129 net.cpp:382] mnist -> data
I0428 20:03:09.442332 30129 net.cpp:382] mnist -> label
I0428 20:03:09.442433 30129 data_layer.cpp:45] output data size: 100,1,28,28
I0428 20:03:09.443789 30129 net.cpp:124] Setting up mnist
I0428 20:03:09.443817 30129 net.cpp:131] Top shape: 100 1 28 28 (78400)
I0428 20:03:09.443838 30129 net.cpp:131] Top shape: 100 (100)
I0428 20:03:09.443841 30129 net.cpp:139] Memory required for data: 314000
I0428 20:03:09.443845 30129 layer_factory.hpp:77] Creating layer label_mnist_1_split
I0428 20:03:09.443850 30129 net.cpp:86] Creating Layer label_mnist_1_split
I0428 20:03:09.443855 30129 net.cpp:408] label_mnist_1_split <- label
I0428 20:03:09.443858 30129 net.cpp:382] label_mnist_1_split -> label_mnist_1_split_0
I0428 20:03:09.443864 30129 net.cpp:382] label_mnist_1_split -> label_mnist_1_split_1
I0428 20:03:09.443970 30129 net.cpp:124] Setting up label_mnist_1_split
I0428 20:03:09.443979 30129 net.cpp:131] Top shape: 100 (100)
I0428 20:03:09.443982 30129 net.cpp:131] Top shape: 100 (100)
I0428 20:03:09.443985 30129 net.cpp:139] Memory required for data: 314800
I0428 20:03:09.443989 30129 layer_factory.hpp:77] Creating layer conv0
I0428 20:03:09.443997 30129 net.cpp:86] Creating Layer conv0
I0428 20:03:09.444000 30129 net.cpp:408] conv0 <- data
I0428 20:03:09.444006 30129 net.cpp:382] conv0 -> conv0
I0428 20:03:09.445812 30129 net.cpp:124] Setting up conv0
I0428 20:03:09.445842 30129 net.cpp:131] Top shape: 100 10 24 24 (576000)
I0428 20:03:09.445845 30129 net.cpp:139] Memory required for data: 2618800
I0428 20:03:09.445868 30129 layer_factory.hpp:77] Creating layer pool0
I0428 20:03:09.445875 30129 net.cpp:86] Creating Layer pool0
I0428 20:03:09.445878 30129 net.cpp:408] pool0 <- conv0
I0428 20:03:09.445883 30129 net.cpp:382] pool0 -> pool0
I0428 20:03:09.445935 30129 net.cpp:124] Setting up pool0
I0428 20:03:09.445940 30129 net.cpp:131] Top shape: 100 10 12 12 (144000)
I0428 20:03:09.445942 30129 net.cpp:139] Memory required for data: 3194800
I0428 20:03:09.445945 30129 layer_factory.hpp:77] Creating layer conv1
I0428 20:03:09.445955 30129 net.cpp:86] Creating Layer conv1
I0428 20:03:09.445957 30129 net.cpp:408] conv1 <- pool0
I0428 20:03:09.445963 30129 net.cpp:382] conv1 -> conv1
I0428 20:03:09.447722 30129 net.cpp:124] Setting up conv1
I0428 20:03:09.447736 30129 net.cpp:131] Top shape: 100 100 8 8 (640000)
I0428 20:03:09.447754 30129 net.cpp:139] Memory required for data: 5754800
I0428 20:03:09.447763 30129 layer_factory.hpp:77] Creating layer pool1
I0428 20:03:09.447769 30129 net.cpp:86] Creating Layer pool1
I0428 20:03:09.447773 30129 net.cpp:408] pool1 <- conv1
I0428 20:03:09.447795 30129 net.cpp:382] pool1 -> pool1
I0428 20:03:09.447832 30129 net.cpp:124] Setting up pool1
I0428 20:03:09.447839 30129 net.cpp:131] Top shape: 100 100 4 4 (160000)
I0428 20:03:09.447841 30129 net.cpp:139] Memory required for data: 6394800
I0428 20:03:09.447844 30129 layer_factory.hpp:77] Creating layer ip1
I0428 20:03:09.447866 30129 net.cpp:86] Creating Layer ip1
I0428 20:03:09.447885 30129 net.cpp:408] ip1 <- pool1
I0428 20:03:09.447891 30129 net.cpp:382] ip1 -> ip1
I0428 20:03:09.448559 30129 net.cpp:124] Setting up ip1
I0428 20:03:09.448567 30129 net.cpp:131] Top shape: 100 50 (5000)
I0428 20:03:09.448586 30129 net.cpp:139] Memory required for data: 6414800
I0428 20:03:09.448595 30129 layer_factory.hpp:77] Creating layer relu1
I0428 20:03:09.448599 30129 net.cpp:86] Creating Layer relu1
I0428 20:03:09.448603 30129 net.cpp:408] relu1 <- ip1
I0428 20:03:09.448607 30129 net.cpp:369] relu1 -> ip1 (in-place)
I0428 20:03:09.448911 30129 net.cpp:124] Setting up relu1
I0428 20:03:09.448921 30129 net.cpp:131] Top shape: 100 50 (5000)
I0428 20:03:09.448925 30129 net.cpp:139] Memory required for data: 6434800
I0428 20:03:09.448935 30129 layer_factory.hpp:77] Creating layer ip2
I0428 20:03:09.448943 30129 net.cpp:86] Creating Layer ip2
I0428 20:03:09.448948 30129 net.cpp:408] ip2 <- ip1
I0428 20:03:09.448954 30129 net.cpp:382] ip2 -> ip2
I0428 20:03:09.449067 30129 net.cpp:124] Setting up ip2
I0428 20:03:09.449075 30129 net.cpp:131] Top shape: 100 10 (1000)
I0428 20:03:09.449079 30129 net.cpp:139] Memory required for data: 6438800
I0428 20:03:09.449085 30129 layer_factory.hpp:77] Creating layer relu2
I0428 20:03:09.449091 30129 net.cpp:86] Creating Layer relu2
I0428 20:03:09.449095 30129 net.cpp:408] relu2 <- ip2
I0428 20:03:09.449100 30129 net.cpp:369] relu2 -> ip2 (in-place)
I0428 20:03:09.449303 30129 net.cpp:124] Setting up relu2
I0428 20:03:09.449312 30129 net.cpp:131] Top shape: 100 10 (1000)
I0428 20:03:09.449321 30129 net.cpp:139] Memory required for data: 6442800
I0428 20:03:09.449324 30129 layer_factory.hpp:77] Creating layer ip2_relu2_0_split
I0428 20:03:09.449329 30129 net.cpp:86] Creating Layer ip2_relu2_0_split
I0428 20:03:09.449332 30129 net.cpp:408] ip2_relu2_0_split <- ip2
I0428 20:03:09.449337 30129 net.cpp:382] ip2_relu2_0_split -> ip2_relu2_0_split_0
I0428 20:03:09.449352 30129 net.cpp:382] ip2_relu2_0_split -> ip2_relu2_0_split_1
I0428 20:03:09.449388 30129 net.cpp:124] Setting up ip2_relu2_0_split
I0428 20:03:09.449395 30129 net.cpp:131] Top shape: 100 10 (1000)
I0428 20:03:09.449399 30129 net.cpp:131] Top shape: 100 10 (1000)
I0428 20:03:09.449403 30129 net.cpp:139] Memory required for data: 6450800
I0428 20:03:09.449404 30129 layer_factory.hpp:77] Creating layer accuracy
I0428 20:03:09.449410 30129 net.cpp:86] Creating Layer accuracy
I0428 20:03:09.449414 30129 net.cpp:408] accuracy <- ip2_relu2_0_split_0
I0428 20:03:09.449417 30129 net.cpp:408] accuracy <- label_mnist_1_split_0
I0428 20:03:09.449421 30129 net.cpp:382] accuracy -> accuracy
…
