…
I0428 20:17:50.645411   999 net.cpp:296] The NetState phase (0) differed from the phase (1) specified by a rule in layer mnist
I0428 20:17:50.645437   999 net.cpp:296] The NetState phase (0) differed from the phase (1) specified by a rule in layer accuracy
I0428 20:17:50.645582   999 net.cpp:53] Initializing net from parameters: 
name: "LeNet"
state {
  phase: TRAIN
  level: 0
  stage: ""
}
layer {
  name: "mnist"
  type: "Data"
  top: "data"
  top: "label"
  include {
    phase: TRAIN
  }
  transform_param {
    scale: 0.00390625
  }
  data_param {
    source: "examples/mnist/mnist_train_lmdb"
    batch_size: 64
    backend: LMDB
  }
}
layer {
  name: "conv0"
  type: "Convolution"
  bottom: "data"
  top: "conv0"
  param {
    lr_mult: 1
  }
  param {
    lr_mult: 2
  }
  convolution_param {
    num_output: 50
    kernel_size: 5
    stride: 1
    weight_filler {
      type: "xavier"
    }
    bias_filler {
      type: "constant"
    }
  }
}
layer {
  name: "pool0"
  type: "Pooling"
  bottom: "conv0"
  top: "pool0"
  pooling_param {
    pool: MAX
    kernel_size: 2
    stride: 2
  }
}
layer {
  name: "conv1"
  type: "Convolution"
  bottom: "pool0"
  top: "conv1"
  param {
    lr_mult: 1
  }
  param {
    lr_mult: 2
  }
  convolution_param {
    num_output: 10
    kernel_size: 5
    stride: 1
    weight_filler {
      type: "xavier"
    }
    bias_filler {
      type: "constant"
    }
  }
}
layer {
  name: "pool1"
  type: "Pooling"
  bottom: "conv1"
  top: "pool1"
  pooling_param {
    pool: MAX
    kernel_size: 2
    stride: 2
  }
}
layer {
  name: "ip1"
  type: "InnerProduct"
  bottom: "pool1"
  top: "ip1"
  param {
    lr_mult: 1
  }
  param {
    lr_mult: 2
  }
  inner_product_param {
    num_output: 10
    weight_filler {
      type: "xavier"
    }
    bias_filler {
      type: "constant"
    }
  }
}
layer {
  name: "relu1"
  type: "ReLU"
  bottom: "ip1"
  top: "ip1"
}
layer {
  name: "ip2"
  type: "InnerProduct"
  bottom: "ip1"
  top: "ip2"
  param {
    lr_mult: 1
  }
  param {
    lr_mult: 2
  }
  inner_product_param {
    num_output: 25
    weight_filler {
      type: "xavier"
    }
    bias_filler {
      type: "constant"
    }
  }
}
layer {
  name: "relu2"
  type: "ReLU"
  bottom: "ip2"
  top: "ip2"
}
layer {
  name: "ip3"
  type: "InnerProduct"
  bottom: "ip2"
  top: "ip3"
  param {
    lr_mult: 1
  }
  param {
    lr_mult: 2
  }
  inner_product_param {
    num_output: 10
    weight_filler {
      type: "xavier"
    }
    bias_filler {
      type: "constant"
    }
  }
}
layer {
  name: "relu3"
  type: "ReLU"
  bottom: "ip3"
  top: "ip3"
}
layer {
  name: "loss"
  type: "SoftmaxWithLoss"
  bottom: "ip3"
  bottom: "label"
  top: "loss"
}
I0428 20:17:50.645687   999 layer_factory.hpp:77] Creating layer mnist
I0428 20:17:50.645807   999 db_lmdb.cpp:35] Opened lmdb examples/mnist/mnist_train_lmdb
I0428 20:17:50.645838   999 net.cpp:86] Creating Layer mnist
I0428 20:17:50.645849   999 net.cpp:382] mnist -> data
I0428 20:17:50.645877   999 net.cpp:382] mnist -> label
I0428 20:17:50.647287   999 data_layer.cpp:45] output data size: 64,1,28,28
I0428 20:17:50.650478   999 net.cpp:124] Setting up mnist
I0428 20:17:50.650501   999 net.cpp:131] Top shape: 64 1 28 28 (50176)
I0428 20:17:50.650509   999 net.cpp:131] Top shape: 64 (64)
I0428 20:17:50.650516   999 net.cpp:139] Memory required for data: 200960
I0428 20:17:50.650524   999 layer_factory.hpp:77] Creating layer conv0
I0428 20:17:50.650548   999 net.cpp:86] Creating Layer conv0
I0428 20:17:50.650574   999 net.cpp:408] conv0 <- data
I0428 20:17:50.650593   999 net.cpp:382] conv0 -> conv0
I0428 20:17:50.972049   999 net.cpp:124] Setting up conv0
I0428 20:17:50.972098   999 net.cpp:131] Top shape: 64 50 24 24 (1843200)
I0428 20:17:50.972103   999 net.cpp:139] Memory required for data: 7573760
I0428 20:17:50.972122   999 layer_factory.hpp:77] Creating layer pool0
I0428 20:17:50.972137   999 net.cpp:86] Creating Layer pool0
I0428 20:17:50.972158   999 net.cpp:408] pool0 <- conv0
I0428 20:17:50.972165   999 net.cpp:382] pool0 -> pool0
I0428 20:17:50.972221   999 net.cpp:124] Setting up pool0
I0428 20:17:50.972231   999 net.cpp:131] Top shape: 64 50 12 12 (460800)
I0428 20:17:50.972236   999 net.cpp:139] Memory required for data: 9416960
I0428 20:17:50.972240   999 layer_factory.hpp:77] Creating layer conv1
I0428 20:17:50.972254   999 net.cpp:86] Creating Layer conv1
I0428 20:17:50.972259   999 net.cpp:408] conv1 <- pool0
I0428 20:17:50.972265   999 net.cpp:382] conv1 -> conv1
I0428 20:17:50.975910   999 net.cpp:124] Setting up conv1
I0428 20:17:50.975942   999 net.cpp:131] Top shape: 64 10 8 8 (40960)
I0428 20:17:50.975947   999 net.cpp:139] Memory required for data: 9580800
I0428 20:17:50.975960   999 layer_factory.hpp:77] Creating layer pool1
I0428 20:17:50.975968   999 net.cpp:86] Creating Layer pool1
I0428 20:17:50.975973   999 net.cpp:408] pool1 <- conv1
I0428 20:17:50.975996   999 net.cpp:382] pool1 -> pool1
I0428 20:17:50.976053   999 net.cpp:124] Setting up pool1
I0428 20:17:50.976063   999 net.cpp:131] Top shape: 64 10 4 4 (10240)
I0428 20:17:50.976068   999 net.cpp:139] Memory required for data: 9621760
I0428 20:17:50.976073   999 layer_factory.hpp:77] Creating layer ip1
I0428 20:17:50.976081   999 net.cpp:86] Creating Layer ip1
I0428 20:17:50.976086   999 net.cpp:408] ip1 <- pool1
I0428 20:17:50.976092   999 net.cpp:382] ip1 -> ip1
I0428 20:17:50.976227   999 net.cpp:124] Setting up ip1
I0428 20:17:50.976236   999 net.cpp:131] Top shape: 64 10 (640)
I0428 20:17:50.976241   999 net.cpp:139] Memory required for data: 9624320
I0428 20:17:50.976251   999 layer_factory.hpp:77] Creating layer relu1
I0428 20:17:50.976258   999 net.cpp:86] Creating Layer relu1
I0428 20:17:50.976263   999 net.cpp:408] relu1 <- ip1
I0428 20:17:50.976269   999 net.cpp:369] relu1 -> ip1 (in-place)
I0428 20:17:50.976466   999 net.cpp:124] Setting up relu1
I0428 20:17:50.976478   999 net.cpp:131] Top shape: 64 10 (640)
I0428 20:17:50.976482   999 net.cpp:139] Memory required for data: 9626880
I0428 20:17:50.976487   999 layer_factory.hpp:77] Creating layer ip2
I0428 20:17:50.976495   999 net.cpp:86] Creating Layer ip2
I0428 20:17:50.976500   999 net.cpp:408] ip2 <- ip1
I0428 20:17:50.976506   999 net.cpp:382] ip2 -> ip2
I0428 20:17:50.976622   999 net.cpp:124] Setting up ip2
I0428 20:17:50.976632   999 net.cpp:131] Top shape: 64 25 (1600)
I0428 20:17:50.976637   999 net.cpp:139] Memory required for data: 9633280
I0428 20:17:50.976644   999 layer_factory.hpp:77] Creating layer relu2
I0428 20:17:50.976652   999 net.cpp:86] Creating Layer relu2
I0428 20:17:50.976656   999 net.cpp:408] relu2 <- ip2
I0428 20:17:50.976662   999 net.cpp:369] relu2 -> ip2 (in-place)
I0428 20:17:50.977715   999 net.cpp:124] Setting up relu2
I0428 20:17:50.977746   999 net.cpp:131] Top shape: 64 25 (1600)
I0428 20:17:50.977751   999 net.cpp:139] Memory required for data: 9639680
I0428 20:17:50.977756   999 layer_factory.hpp:77] Creating layer ip3
I0428 20:17:50.977766   999 net.cpp:86] Creating Layer ip3
I0428 20:17:50.977771   999 net.cpp:408] ip3 <- ip2
I0428 20:17:50.977778   999 net.cpp:382] ip3 -> ip3
I0428 20:17:50.977918   999 net.cpp:124] Setting up ip3
I0428 20:17:50.977929   999 net.cpp:131] Top shape: 64 10 (640)
I0428 20:17:50.977933   999 net.cpp:139] Memory required for data: 9642240
I0428 20:17:50.977946   999 layer_factory.hpp:77] Creating layer relu3
I0428 20:17:50.977952   999 net.cpp:86] Creating Layer relu3
I0428 20:17:50.977957   999 net.cpp:408] relu3 <- ip3
I0428 20:17:50.977963   999 net.cpp:369] relu3 -> ip3 (in-place)
I0428 20:17:50.978168   999 net.cpp:124] Setting up relu3
I0428 20:17:50.978194   999 net.cpp:131] Top shape: 64 10 (640)
I0428 20:17:50.978199   999 net.cpp:139] Memory required for data: 9644800
I0428 20:17:50.978204   999 layer_factory.hpp:77] Creating layer loss
I0428 20:17:50.978210   999 net.cpp:86] Creating Layer loss
I0428 20:17:50.978215   999 net.cpp:408] loss <- ip3
I0428 20:17:50.978220   999 net.cpp:408] loss <- label
I0428 20:17:50.978227   999 net.cpp:382] loss -> loss
I0428 20:17:50.978248   999 layer_factory.hpp:77] Creating layer loss
…
I0428 20:17:50.979212   999 solver.cpp:173] Creating test net (#0) specified by net file: ECE595/mnist/train_test/var_everything2/lenet_train_test1304.prototxt
I0428 20:17:50.979264   999 net.cpp:296] The NetState phase (1) differed from the phase (0) specified by a rule in layer mnist
I0428 20:17:50.979393   999 net.cpp:53] Initializing net from parameters: 
name: "LeNet"
state {
  phase: TEST
}
layer {
  name: "mnist"
  type: "Data"
  top: "data"
  top: "label"
  include {
    phase: TEST
  }
  transform_param {
    scale: 0.00390625
  }
  data_param {
    source: "examples/mnist/mnist_test_lmdb"
    batch_size: 100
    backend: LMDB
  }
}
layer {
  name: "conv0"
  type: "Convolution"
  bottom: "data"
  top: "conv0"
  param {
    lr_mult: 1
  }
  param {
    lr_mult: 2
  }
  convolution_param {
    num_output: 50
    kernel_size: 5
    stride: 1
    weight_filler {
      type: "xavier"
    }
    bias_filler {
      type: "constant"
    }
  }
}
layer {
  name: "pool0"
  type: "Pooling"
  bottom: "conv0"
  top: "pool0"
  pooling_param {
    pool: MAX
    kernel_size: 2
    stride: 2
  }
}
layer {
  name: "conv1"
  type: "Convolution"
  bottom: "pool0"
  top: "conv1"
  param {
    lr_mult: 1
  }
  param {
    lr_mult: 2
  }
  convolution_param {
    num_output: 10
    kernel_size: 5
    stride: 1
    weight_filler {
      type: "xavier"
    }
    bias_filler {
      type: "constant"
    }
  }
}
layer {
  name: "pool1"
  type: "Pooling"
  bottom: "conv1"
  top: "pool1"
  pooling_param {
    pool: MAX
    kernel_size: 2
    stride: 2
  }
}
layer {
  name: "ip1"
  type: "InnerProduct"
  bottom: "pool1"
  top: "ip1"
  param {
    lr_mult: 1
  }
  param {
    lr_mult: 2
  }
  inner_product_param {
    num_output: 10
    weight_filler {
      type: "xavier"
    }
    bias_filler {
      type: "constant"
    }
  }
}
layer {
  name: "relu1"
  type: "ReLU"
  bottom: "ip1"
  top: "ip1"
}
layer {
  name: "ip2"
  type: "InnerProduct"
  bottom: "ip1"
  top: "ip2"
  param {
    lr_mult: 1
  }
  param {
    lr_mult: 2
  }
  inner_product_param {
    num_output: 25
    weight_filler {
      type: "xavier"
    }
    bias_filler {
      type: "constant"
    }
  }
}
layer {
  name: "relu2"
  type: "ReLU"
  bottom: "ip2"
  top: "ip2"
}
layer {
  name: "ip3"
  type: "InnerProduct"
  bottom: "ip2"
  top: "ip3"
  param {
    lr_mult: 1
  }
  param {
    lr_mult: 2
  }
  inner_product_param {
    num_output: 10
    weight_filler {
      type: "xavier"
    }
    bias_filler {
      type: "constant"
    }
  }
}
layer {
  name: "relu3"
  type: "ReLU"
  bottom: "ip3"
  top: "ip3"
}
layer {
  name: "accuracy"
  type: "Accuracy"
  bottom: "ip3"
  bottom: "label"
  top: "accuracy"
  include {
    phase: TEST
  }
}
layer {
  name: "loss"
  type: "SoftmaxWithLoss"
  bottom: "ip3"
  bottom: "label"
  top: "loss"
}
I0428 20:17:50.979511   999 layer_factory.hpp:77] Creating layer mnist
I0428 20:17:50.979567   999 db_lmdb.cpp:35] Opened lmdb examples/mnist/mnist_test_lmdb
I0428 20:17:50.979581   999 net.cpp:86] Creating Layer mnist
I0428 20:17:50.979588   999 net.cpp:382] mnist -> data
I0428 20:17:50.979598   999 net.cpp:382] mnist -> label
I0428 20:17:50.979733   999 data_layer.cpp:45] output data size: 100,1,28,28
I0428 20:17:50.982477   999 net.cpp:124] Setting up mnist
I0428 20:17:50.982508   999 net.cpp:131] Top shape: 100 1 28 28 (78400)
I0428 20:17:50.982516   999 net.cpp:131] Top shape: 100 (100)
I0428 20:17:50.982520   999 net.cpp:139] Memory required for data: 314000
I0428 20:17:50.982525   999 layer_factory.hpp:77] Creating layer label_mnist_1_split
I0428 20:17:50.982558   999 net.cpp:86] Creating Layer label_mnist_1_split
I0428 20:17:50.982563   999 net.cpp:408] label_mnist_1_split <- label
I0428 20:17:50.982569   999 net.cpp:382] label_mnist_1_split -> label_mnist_1_split_0
I0428 20:17:50.982578   999 net.cpp:382] label_mnist_1_split -> label_mnist_1_split_1
I0428 20:17:50.982635   999 net.cpp:124] Setting up label_mnist_1_split
I0428 20:17:50.982643   999 net.cpp:131] Top shape: 100 (100)
I0428 20:17:50.982648   999 net.cpp:131] Top shape: 100 (100)
I0428 20:17:50.982653   999 net.cpp:139] Memory required for data: 314800
I0428 20:17:50.982657   999 layer_factory.hpp:77] Creating layer conv0
I0428 20:17:50.982668   999 net.cpp:86] Creating Layer conv0
I0428 20:17:50.982672   999 net.cpp:408] conv0 <- data
I0428 20:17:50.982679   999 net.cpp:382] conv0 -> conv0
I0428 20:17:50.984943   999 net.cpp:124] Setting up conv0
I0428 20:17:50.984961   999 net.cpp:131] Top shape: 100 50 24 24 (2880000)
I0428 20:17:50.984967   999 net.cpp:139] Memory required for data: 11834800
I0428 20:17:50.984980   999 layer_factory.hpp:77] Creating layer pool0
I0428 20:17:50.984989   999 net.cpp:86] Creating Layer pool0
I0428 20:17:50.984994   999 net.cpp:408] pool0 <- conv0
I0428 20:17:50.985002   999 net.cpp:382] pool0 -> pool0
I0428 20:17:50.985049   999 net.cpp:124] Setting up pool0
I0428 20:17:50.985057   999 net.cpp:131] Top shape: 100 50 12 12 (720000)
I0428 20:17:50.985062   999 net.cpp:139] Memory required for data: 14714800
I0428 20:17:50.985067   999 layer_factory.hpp:77] Creating layer conv1
I0428 20:17:50.985086   999 net.cpp:86] Creating Layer conv1
I0428 20:17:50.985091   999 net.cpp:408] conv1 <- pool0
I0428 20:17:50.985098   999 net.cpp:382] conv1 -> conv1
I0428 20:17:50.987376   999 net.cpp:124] Setting up conv1
I0428 20:17:50.987406   999 net.cpp:131] Top shape: 100 10 8 8 (64000)
I0428 20:17:50.987412   999 net.cpp:139] Memory required for data: 14970800
I0428 20:17:50.987440   999 layer_factory.hpp:77] Creating layer pool1
I0428 20:17:50.987448   999 net.cpp:86] Creating Layer pool1
I0428 20:17:50.987454   999 net.cpp:408] pool1 <- conv1
I0428 20:17:50.987462   999 net.cpp:382] pool1 -> pool1
I0428 20:17:50.987516   999 net.cpp:124] Setting up pool1
I0428 20:17:50.987537   999 net.cpp:131] Top shape: 100 10 4 4 (16000)
I0428 20:17:50.987542   999 net.cpp:139] Memory required for data: 15034800
I0428 20:17:50.987547   999 layer_factory.hpp:77] Creating layer ip1
I0428 20:17:50.987555   999 net.cpp:86] Creating Layer ip1
I0428 20:17:50.987568   999 net.cpp:408] ip1 <- pool1
I0428 20:17:50.987576   999 net.cpp:382] ip1 -> ip1
I0428 20:17:50.987716   999 net.cpp:124] Setting up ip1
I0428 20:17:50.987727   999 net.cpp:131] Top shape: 100 10 (1000)
I0428 20:17:50.987746   999 net.cpp:139] Memory required for data: 15038800
I0428 20:17:50.987764   999 layer_factory.hpp:77] Creating layer relu1
I0428 20:17:50.987787   999 net.cpp:86] Creating Layer relu1
I0428 20:17:50.987798   999 net.cpp:408] relu1 <- ip1
I0428 20:17:50.987804   999 net.cpp:369] relu1 -> ip1 (in-place)
I0428 20:17:50.988014   999 net.cpp:124] Setting up relu1
I0428 20:17:50.988026   999 net.cpp:131] Top shape: 100 10 (1000)
I0428 20:17:50.988031   999 net.cpp:139] Memory required for data: 15042800
I0428 20:17:50.988035   999 layer_factory.hpp:77] Creating layer ip2
I0428 20:17:50.988044   999 net.cpp:86] Creating Layer ip2
I0428 20:17:50.988056   999 net.cpp:408] ip2 <- ip1
I0428 20:17:50.988064   999 net.cpp:382] ip2 -> ip2
I0428 20:17:50.988180   999 net.cpp:124] Setting up ip2
I0428 20:17:50.988190   999 net.cpp:131] Top shape: 100 25 (2500)
I0428 20:17:50.988195   999 net.cpp:139] Memory required for data: 15052800
I0428 20:17:50.988209   999 layer_factory.hpp:77] Creating layer relu2
I0428 20:17:50.988215   999 net.cpp:86] Creating Layer relu2
I0428 20:17:50.988220   999 net.cpp:408] relu2 <- ip2
I0428 20:17:50.988226   999 net.cpp:369] relu2 -> ip2 (in-place)
I0428 20:17:50.988528   999 net.cpp:124] Setting up relu2
I0428 20:17:50.988539   999 net.cpp:131] Top shape: 100 25 (2500)
I0428 20:17:50.988544   999 net.cpp:139] Memory required for data: 15062800
I0428 20:17:50.988548   999 layer_factory.hpp:77] Creating layer ip3
I0428 20:17:50.988555   999 net.cpp:86] Creating Layer ip3
I0428 20:17:50.988566   999 net.cpp:408] ip3 <- ip2
I0428 20:17:50.988590   999 net.cpp:382] ip3 -> ip3
I0428 20:17:50.988719   999 net.cpp:124] Setting up ip3
I0428 20:17:50.988729   999 net.cpp:131] Top shape: 100 10 (1000)
I0428 20:17:50.988734   999 net.cpp:139] Memory required for data: 15066800
I0428 20:17:50.988744   999 layer_factory.hpp:77] Creating layer relu3
I0428 20:17:50.988750   999 net.cpp:86] Creating Layer relu3
I0428 20:17:50.988762   999 net.cpp:408] relu3 <- ip3
I0428 20:17:50.988770   999 net.cpp:369] relu3 -> ip3 (in-place)
I0428 20:17:50.989997   999 net.cpp:124] Setting up relu3
I0428 20:17:50.990015   999 net.cpp:131] Top shape: 100 10 (1000)
I0428 20:17:50.990020   999 net.cpp:139] Memory required for data: 15070800
I0428 20:17:50.990025   999 layer_factory.hpp:77] Creating layer ip3_relu3_0_split
I0428 20:17:50.990033   999 net.cpp:86] Creating Layer ip3_relu3_0_split
I0428 20:17:50.990038   999 net.cpp:408] ip3_relu3_0_split <- ip3
I0428 20:17:50.990047   999 net.cpp:382] ip3_relu3_0_split -> ip3_relu3_0_split_0
I0428 20:17:50.990056   999 net.cpp:382] ip3_relu3_0_split -> ip3_relu3_0_split_1
I0428 20:17:50.990106   999 net.cpp:124] Setting up ip3_relu3_0_split
I0428 20:17:50.990123   999 net.cpp:131] Top shape: 100 10 (1000)
I0428 20:17:50.990144   999 net.cpp:131] Top shape: 100 10 (1000)
I0428 20:17:50.990149   999 net.cpp:139] Memory required for data: 15078800
I0428 20:17:50.990152   999 layer_factory.hpp:77] Creating layer accuracy
I0428 20:17:50.990161   999 net.cpp:86] Creating Layer accuracy
I0428 20:17:50.990188   999 net.cpp:408] accuracy <- ip3_relu3_0_split_0
I0428 20:17:50.990195   999 net.cpp:408] accuracy <- label_mnist_1_split_0
I0428 20:17:50.990201   999 net.cpp:382] accuracy -> accuracy
…
