…
I0428 19:50:21.786262 26994 net.cpp:296] The NetState phase (0) differed from the phase (1) specified by a rule in layer mnist
I0428 19:50:21.786283 26994 net.cpp:296] The NetState phase (0) differed from the phase (1) specified by a rule in layer accuracy
I0428 19:50:21.786387 26994 net.cpp:53] Initializing net from parameters: 
name: "LeNet"
state {
  phase: TRAIN
  level: 0
  stage: ""
}
layer {
  name: "mnist"
  type: "Data"
  top: "data"
  top: "label"
  include {
    phase: TRAIN
  }
  transform_param {
    scale: 0.00390625
  }
  data_param {
    source: "examples/mnist/mnist_train_lmdb"
    batch_size: 64
    backend: LMDB
  }
}
layer {
  name: "conv0"
  type: "Convolution"
  bottom: "data"
  top: "conv0"
  param {
    lr_mult: 1
  }
  param {
    lr_mult: 2
  }
  convolution_param {
    num_output: 5
    kernel_size: 5
    stride: 1
    weight_filler {
      type: "xavier"
    }
    bias_filler {
      type: "constant"
    }
  }
}
layer {
  name: "pool0"
  type: "Pooling"
  bottom: "conv0"
  top: "pool0"
  pooling_param {
    pool: MAX
    kernel_size: 2
    stride: 2
  }
}
layer {
  name: "conv1"
  type: "Convolution"
  bottom: "pool0"
  top: "conv1"
  param {
    lr_mult: 1
  }
  param {
    lr_mult: 2
  }
  convolution_param {
    num_output: 10
    kernel_size: 5
    stride: 1
    weight_filler {
      type: "xavier"
    }
    bias_filler {
      type: "constant"
    }
  }
}
layer {
  name: "pool1"
  type: "Pooling"
  bottom: "conv1"
  top: "pool1"
  pooling_param {
    pool: MAX
    kernel_size: 2
    stride: 2
  }
}
layer {
  name: "ip1"
  type: "InnerProduct"
  bottom: "pool1"
  top: "ip1"
  param {
    lr_mult: 1
  }
  param {
    lr_mult: 2
  }
  inner_product_param {
    num_output: 10
    weight_filler {
      type: "xavier"
    }
    bias_filler {
      type: "constant"
    }
  }
}
layer {
  name: "relu1"
  type: "ReLU"
  bottom: "ip1"
  top: "ip1"
}
layer {
  name: "ip2"
  type: "InnerProduct"
  bottom: "ip1"
  top: "ip2"
  param {
    lr_mult: 1
  }
  param {
    lr_mult: 2
  }
  inner_product_param {
    num_output: 25
    weight_filler {
      type: "xavier"
    }
    bias_filler {
      type: "constant"
    }
  }
}
layer {
  name: "relu2"
  type: "ReLU"
  bottom: "ip2"
  top: "ip2"
}
layer {
  name: "ip3"
  type: "InnerProduct"
  bottom: "ip2"
  top: "ip3"
  param {
    lr_mult: 1
  }
  param {
    lr_mult: 2
  }
  inner_product_param {
    num_output: 10
    weight_filler {
      type: "xavier"
    }
    bias_filler {
      type: "constant"
    }
  }
}
layer {
  name: "relu3"
  type: "ReLU"
  bottom: "ip3"
  top: "ip3"
}
layer {
  name: "loss"
  type: "SoftmaxWithLoss"
  bottom: "ip3"
  bottom: "label"
  top: "loss"
}
I0428 19:50:21.786469 26994 layer_factory.hpp:77] Creating layer mnist
I0428 19:50:21.786567 26994 db_lmdb.cpp:35] Opened lmdb examples/mnist/mnist_train_lmdb
I0428 19:50:21.786590 26994 net.cpp:86] Creating Layer mnist
I0428 19:50:21.786597 26994 net.cpp:382] mnist -> data
I0428 19:50:21.786622 26994 net.cpp:382] mnist -> label
I0428 19:50:21.787725 26994 data_layer.cpp:45] output data size: 64,1,28,28
I0428 19:50:21.790153 26994 net.cpp:124] Setting up mnist
I0428 19:50:21.790170 26994 net.cpp:131] Top shape: 64 1 28 28 (50176)
I0428 19:50:21.790176 26994 net.cpp:131] Top shape: 64 (64)
I0428 19:50:21.790179 26994 net.cpp:139] Memory required for data: 200960
I0428 19:50:21.790187 26994 layer_factory.hpp:77] Creating layer conv0
I0428 19:50:21.790235 26994 net.cpp:86] Creating Layer conv0
I0428 19:50:21.790256 26994 net.cpp:408] conv0 <- data
I0428 19:50:21.790269 26994 net.cpp:382] conv0 -> conv0
I0428 19:50:22.083942 26994 net.cpp:124] Setting up conv0
I0428 19:50:22.083972 26994 net.cpp:131] Top shape: 64 5 24 24 (184320)
I0428 19:50:22.083978 26994 net.cpp:139] Memory required for data: 938240
I0428 19:50:22.083997 26994 layer_factory.hpp:77] Creating layer pool0
I0428 19:50:22.084012 26994 net.cpp:86] Creating Layer pool0
I0428 19:50:22.084017 26994 net.cpp:408] pool0 <- conv0
I0428 19:50:22.084023 26994 net.cpp:382] pool0 -> pool0
I0428 19:50:22.084079 26994 net.cpp:124] Setting up pool0
I0428 19:50:22.084089 26994 net.cpp:131] Top shape: 64 5 12 12 (46080)
I0428 19:50:22.084092 26994 net.cpp:139] Memory required for data: 1122560
I0428 19:50:22.084096 26994 layer_factory.hpp:77] Creating layer conv1
I0428 19:50:22.084108 26994 net.cpp:86] Creating Layer conv1
I0428 19:50:22.084112 26994 net.cpp:408] conv1 <- pool0
I0428 19:50:22.084118 26994 net.cpp:382] conv1 -> conv1
I0428 19:50:22.087294 26994 net.cpp:124] Setting up conv1
I0428 19:50:22.087313 26994 net.cpp:131] Top shape: 64 10 8 8 (40960)
I0428 19:50:22.087318 26994 net.cpp:139] Memory required for data: 1286400
I0428 19:50:22.087328 26994 layer_factory.hpp:77] Creating layer pool1
I0428 19:50:22.087337 26994 net.cpp:86] Creating Layer pool1
I0428 19:50:22.087342 26994 net.cpp:408] pool1 <- conv1
I0428 19:50:22.087348 26994 net.cpp:382] pool1 -> pool1
I0428 19:50:22.087393 26994 net.cpp:124] Setting up pool1
I0428 19:50:22.087402 26994 net.cpp:131] Top shape: 64 10 4 4 (10240)
I0428 19:50:22.087405 26994 net.cpp:139] Memory required for data: 1327360
I0428 19:50:22.087409 26994 layer_factory.hpp:77] Creating layer ip1
I0428 19:50:22.087417 26994 net.cpp:86] Creating Layer ip1
I0428 19:50:22.087421 26994 net.cpp:408] ip1 <- pool1
I0428 19:50:22.087427 26994 net.cpp:382] ip1 -> ip1
I0428 19:50:22.087553 26994 net.cpp:124] Setting up ip1
I0428 19:50:22.087563 26994 net.cpp:131] Top shape: 64 10 (640)
I0428 19:50:22.087566 26994 net.cpp:139] Memory required for data: 1329920
I0428 19:50:22.087574 26994 layer_factory.hpp:77] Creating layer relu1
I0428 19:50:22.087581 26994 net.cpp:86] Creating Layer relu1
I0428 19:50:22.087585 26994 net.cpp:408] relu1 <- ip1
I0428 19:50:22.087590 26994 net.cpp:369] relu1 -> ip1 (in-place)
I0428 19:50:22.087790 26994 net.cpp:124] Setting up relu1
I0428 19:50:22.087800 26994 net.cpp:131] Top shape: 64 10 (640)
I0428 19:50:22.087805 26994 net.cpp:139] Memory required for data: 1332480
I0428 19:50:22.087808 26994 layer_factory.hpp:77] Creating layer ip2
I0428 19:50:22.087816 26994 net.cpp:86] Creating Layer ip2
I0428 19:50:22.087821 26994 net.cpp:408] ip2 <- ip1
I0428 19:50:22.087826 26994 net.cpp:382] ip2 -> ip2
I0428 19:50:22.087941 26994 net.cpp:124] Setting up ip2
I0428 19:50:22.087950 26994 net.cpp:131] Top shape: 64 25 (1600)
I0428 19:50:22.087954 26994 net.cpp:139] Memory required for data: 1338880
I0428 19:50:22.087961 26994 layer_factory.hpp:77] Creating layer relu2
I0428 19:50:22.087967 26994 net.cpp:86] Creating Layer relu2
I0428 19:50:22.087971 26994 net.cpp:408] relu2 <- ip2
I0428 19:50:22.087976 26994 net.cpp:369] relu2 -> ip2 (in-place)
I0428 19:50:22.088829 26994 net.cpp:124] Setting up relu2
I0428 19:50:22.088843 26994 net.cpp:131] Top shape: 64 25 (1600)
I0428 19:50:22.088847 26994 net.cpp:139] Memory required for data: 1345280
I0428 19:50:22.088852 26994 layer_factory.hpp:77] Creating layer ip3
I0428 19:50:22.088860 26994 net.cpp:86] Creating Layer ip3
I0428 19:50:22.088865 26994 net.cpp:408] ip3 <- ip2
I0428 19:50:22.088871 26994 net.cpp:382] ip3 -> ip3
I0428 19:50:22.088989 26994 net.cpp:124] Setting up ip3
I0428 19:50:22.088999 26994 net.cpp:131] Top shape: 64 10 (640)
I0428 19:50:22.089004 26994 net.cpp:139] Memory required for data: 1347840
I0428 19:50:22.089013 26994 layer_factory.hpp:77] Creating layer relu3
I0428 19:50:22.089020 26994 net.cpp:86] Creating Layer relu3
I0428 19:50:22.089023 26994 net.cpp:408] relu3 <- ip3
I0428 19:50:22.089028 26994 net.cpp:369] relu3 -> ip3 (in-place)
I0428 19:50:22.089228 26994 net.cpp:124] Setting up relu3
I0428 19:50:22.089241 26994 net.cpp:131] Top shape: 64 10 (640)
I0428 19:50:22.089243 26994 net.cpp:139] Memory required for data: 1350400
I0428 19:50:22.089247 26994 layer_factory.hpp:77] Creating layer loss
I0428 19:50:22.089254 26994 net.cpp:86] Creating Layer loss
I0428 19:50:22.089258 26994 net.cpp:408] loss <- ip3
I0428 19:50:22.089263 26994 net.cpp:408] loss <- label
I0428 19:50:22.089269 26994 net.cpp:382] loss -> loss
I0428 19:50:22.089292 26994 layer_factory.hpp:77] Creating layer loss
…
I0428 19:50:22.090039 26994 solver.cpp:173] Creating test net (#0) specified by net file: ECE595/mnist/train_test/var_everything2/lenet_train_test602.prototxt
I0428 19:50:22.090071 26994 net.cpp:296] The NetState phase (1) differed from the phase (0) specified by a rule in layer mnist
I0428 19:50:22.090178 26994 net.cpp:53] Initializing net from parameters: 
name: "LeNet"
state {
  phase: TEST
}
layer {
  name: "mnist"
  type: "Data"
  top: "data"
  top: "label"
  include {
    phase: TEST
  }
  transform_param {
    scale: 0.00390625
  }
  data_param {
    source: "examples/mnist/mnist_test_lmdb"
    batch_size: 100
    backend: LMDB
  }
}
layer {
  name: "conv0"
  type: "Convolution"
  bottom: "data"
  top: "conv0"
  param {
    lr_mult: 1
  }
  param {
    lr_mult: 2
  }
  convolution_param {
    num_output: 5
    kernel_size: 5
    stride: 1
    weight_filler {
      type: "xavier"
    }
    bias_filler {
      type: "constant"
    }
  }
}
layer {
  name: "pool0"
  type: "Pooling"
  bottom: "conv0"
  top: "pool0"
  pooling_param {
    pool: MAX
    kernel_size: 2
    stride: 2
  }
}
layer {
  name: "conv1"
  type: "Convolution"
  bottom: "pool0"
  top: "conv1"
  param {
    lr_mult: 1
  }
  param {
    lr_mult: 2
  }
  convolution_param {
    num_output: 10
    kernel_size: 5
    stride: 1
    weight_filler {
      type: "xavier"
    }
    bias_filler {
      type: "constant"
    }
  }
}
layer {
  name: "pool1"
  type: "Pooling"
  bottom: "conv1"
  top: "pool1"
  pooling_param {
    pool: MAX
    kernel_size: 2
    stride: 2
  }
}
layer {
  name: "ip1"
  type: "InnerProduct"
  bottom: "pool1"
  top: "ip1"
  param {
    lr_mult: 1
  }
  param {
    lr_mult: 2
  }
  inner_product_param {
    num_output: 10
    weight_filler {
      type: "xavier"
    }
    bias_filler {
      type: "constant"
    }
  }
}
layer {
  name: "relu1"
  type: "ReLU"
  bottom: "ip1"
  top: "ip1"
}
layer {
  name: "ip2"
  type: "InnerProduct"
  bottom: "ip1"
  top: "ip2"
  param {
    lr_mult: 1
  }
  param {
    lr_mult: 2
  }
  inner_product_param {
    num_output: 25
    weight_filler {
      type: "xavier"
    }
    bias_filler {
      type: "constant"
    }
  }
}
layer {
  name: "relu2"
  type: "ReLU"
  bottom: "ip2"
  top: "ip2"
}
layer {
  name: "ip3"
  type: "InnerProduct"
  bottom: "ip2"
  top: "ip3"
  param {
    lr_mult: 1
  }
  param {
    lr_mult: 2
  }
  inner_product_param {
    num_output: 10
    weight_filler {
      type: "xavier"
    }
    bias_filler {
      type: "constant"
    }
  }
}
layer {
  name: "relu3"
  type: "ReLU"
  bottom: "ip3"
  top: "ip3"
}
layer {
  name: "accuracy"
  type: "Accuracy"
  bottom: "ip3"
  bottom: "label"
  top: "accuracy"
  include {
    phase: TEST
  }
}
layer {
  name: "loss"
  type: "SoftmaxWithLoss"
  bottom: "ip3"
  bottom: "label"
  top: "loss"
}
I0428 19:50:22.090271 26994 layer_factory.hpp:77] Creating layer mnist
I0428 19:50:22.090324 26994 db_lmdb.cpp:35] Opened lmdb examples/mnist/mnist_test_lmdb
I0428 19:50:22.090339 26994 net.cpp:86] Creating Layer mnist
I0428 19:50:22.090344 26994 net.cpp:382] mnist -> data
I0428 19:50:22.090354 26994 net.cpp:382] mnist -> label
I0428 19:50:22.090454 26994 data_layer.cpp:45] output data size: 100,1,28,28
I0428 19:50:22.092655 26994 net.cpp:124] Setting up mnist
I0428 19:50:22.092671 26994 net.cpp:131] Top shape: 100 1 28 28 (78400)
I0428 19:50:22.092679 26994 net.cpp:131] Top shape: 100 (100)
I0428 19:50:22.092682 26994 net.cpp:139] Memory required for data: 314000
I0428 19:50:22.092686 26994 layer_factory.hpp:77] Creating layer label_mnist_1_split
I0428 19:50:22.092694 26994 net.cpp:86] Creating Layer label_mnist_1_split
I0428 19:50:22.092699 26994 net.cpp:408] label_mnist_1_split <- label
I0428 19:50:22.092705 26994 net.cpp:382] label_mnist_1_split -> label_mnist_1_split_0
I0428 19:50:22.092712 26994 net.cpp:382] label_mnist_1_split -> label_mnist_1_split_1
I0428 19:50:22.092795 26994 net.cpp:124] Setting up label_mnist_1_split
I0428 19:50:22.092805 26994 net.cpp:131] Top shape: 100 (100)
I0428 19:50:22.092816 26994 net.cpp:131] Top shape: 100 (100)
I0428 19:50:22.092820 26994 net.cpp:139] Memory required for data: 314800
I0428 19:50:22.092824 26994 layer_factory.hpp:77] Creating layer conv0
I0428 19:50:22.092834 26994 net.cpp:86] Creating Layer conv0
I0428 19:50:22.092839 26994 net.cpp:408] conv0 <- data
I0428 19:50:22.092845 26994 net.cpp:382] conv0 -> conv0
I0428 19:50:22.094771 26994 net.cpp:124] Setting up conv0
I0428 19:50:22.094789 26994 net.cpp:131] Top shape: 100 5 24 24 (288000)
I0428 19:50:22.094792 26994 net.cpp:139] Memory required for data: 1466800
I0428 19:50:22.094805 26994 layer_factory.hpp:77] Creating layer pool0
I0428 19:50:22.094813 26994 net.cpp:86] Creating Layer pool0
I0428 19:50:22.094817 26994 net.cpp:408] pool0 <- conv0
I0428 19:50:22.094823 26994 net.cpp:382] pool0 -> pool0
I0428 19:50:22.094868 26994 net.cpp:124] Setting up pool0
I0428 19:50:22.094876 26994 net.cpp:131] Top shape: 100 5 12 12 (72000)
I0428 19:50:22.094879 26994 net.cpp:139] Memory required for data: 1754800
I0428 19:50:22.094882 26994 layer_factory.hpp:77] Creating layer conv1
I0428 19:50:22.094895 26994 net.cpp:86] Creating Layer conv1
I0428 19:50:22.094899 26994 net.cpp:408] conv1 <- pool0
I0428 19:50:22.094905 26994 net.cpp:382] conv1 -> conv1
I0428 19:50:22.097290 26994 net.cpp:124] Setting up conv1
I0428 19:50:22.097306 26994 net.cpp:131] Top shape: 100 10 8 8 (64000)
I0428 19:50:22.097311 26994 net.cpp:139] Memory required for data: 2010800
I0428 19:50:22.097321 26994 layer_factory.hpp:77] Creating layer pool1
I0428 19:50:22.097331 26994 net.cpp:86] Creating Layer pool1
I0428 19:50:22.097335 26994 net.cpp:408] pool1 <- conv1
I0428 19:50:22.097342 26994 net.cpp:382] pool1 -> pool1
I0428 19:50:22.097394 26994 net.cpp:124] Setting up pool1
I0428 19:50:22.097404 26994 net.cpp:131] Top shape: 100 10 4 4 (16000)
I0428 19:50:22.097409 26994 net.cpp:139] Memory required for data: 2074800
I0428 19:50:22.097412 26994 layer_factory.hpp:77] Creating layer ip1
I0428 19:50:22.097419 26994 net.cpp:86] Creating Layer ip1
I0428 19:50:22.097424 26994 net.cpp:408] ip1 <- pool1
I0428 19:50:22.097430 26994 net.cpp:382] ip1 -> ip1
I0428 19:50:22.097620 26994 net.cpp:124] Setting up ip1
I0428 19:50:22.097630 26994 net.cpp:131] Top shape: 100 10 (1000)
I0428 19:50:22.097645 26994 net.cpp:139] Memory required for data: 2078800
I0428 19:50:22.097656 26994 layer_factory.hpp:77] Creating layer relu1
I0428 19:50:22.097662 26994 net.cpp:86] Creating Layer relu1
I0428 19:50:22.097672 26994 net.cpp:408] relu1 <- ip1
I0428 19:50:22.097679 26994 net.cpp:369] relu1 -> ip1 (in-place)
I0428 19:50:22.097888 26994 net.cpp:124] Setting up relu1
I0428 19:50:22.097899 26994 net.cpp:131] Top shape: 100 10 (1000)
I0428 19:50:22.097904 26994 net.cpp:139] Memory required for data: 2082800
I0428 19:50:22.097908 26994 layer_factory.hpp:77] Creating layer ip2
I0428 19:50:22.097919 26994 net.cpp:86] Creating Layer ip2
I0428 19:50:22.097923 26994 net.cpp:408] ip2 <- ip1
I0428 19:50:22.097929 26994 net.cpp:382] ip2 -> ip2
I0428 19:50:22.098050 26994 net.cpp:124] Setting up ip2
I0428 19:50:22.098060 26994 net.cpp:131] Top shape: 100 25 (2500)
I0428 19:50:22.098064 26994 net.cpp:139] Memory required for data: 2092800
I0428 19:50:22.098071 26994 layer_factory.hpp:77] Creating layer relu2
I0428 19:50:22.098078 26994 net.cpp:86] Creating Layer relu2
I0428 19:50:22.098081 26994 net.cpp:408] relu2 <- ip2
I0428 19:50:22.098086 26994 net.cpp:369] relu2 -> ip2 (in-place)
I0428 19:50:22.098273 26994 net.cpp:124] Setting up relu2
I0428 19:50:22.098284 26994 net.cpp:131] Top shape: 100 25 (2500)
I0428 19:50:22.098287 26994 net.cpp:139] Memory required for data: 2102800
I0428 19:50:22.098299 26994 layer_factory.hpp:77] Creating layer ip3
I0428 19:50:22.098309 26994 net.cpp:86] Creating Layer ip3
I0428 19:50:22.098312 26994 net.cpp:408] ip3 <- ip2
I0428 19:50:22.098318 26994 net.cpp:382] ip3 -> ip3
I0428 19:50:22.098435 26994 net.cpp:124] Setting up ip3
I0428 19:50:22.098444 26994 net.cpp:131] Top shape: 100 10 (1000)
I0428 19:50:22.098448 26994 net.cpp:139] Memory required for data: 2106800
I0428 19:50:22.098459 26994 layer_factory.hpp:77] Creating layer relu3
I0428 19:50:22.098464 26994 net.cpp:86] Creating Layer relu3
I0428 19:50:22.098467 26994 net.cpp:408] relu3 <- ip3
I0428 19:50:22.098472 26994 net.cpp:369] relu3 -> ip3 (in-place)
I0428 19:50:22.099422 26994 net.cpp:124] Setting up relu3
I0428 19:50:22.099436 26994 net.cpp:131] Top shape: 100 10 (1000)
I0428 19:50:22.099442 26994 net.cpp:139] Memory required for data: 2110800
I0428 19:50:22.099447 26994 layer_factory.hpp:77] Creating layer ip3_relu3_0_split
I0428 19:50:22.099453 26994 net.cpp:86] Creating Layer ip3_relu3_0_split
I0428 19:50:22.099458 26994 net.cpp:408] ip3_relu3_0_split <- ip3
I0428 19:50:22.099464 26994 net.cpp:382] ip3_relu3_0_split -> ip3_relu3_0_split_0
I0428 19:50:22.099472 26994 net.cpp:382] ip3_relu3_0_split -> ip3_relu3_0_split_1
I0428 19:50:22.099516 26994 net.cpp:124] Setting up ip3_relu3_0_split
I0428 19:50:22.099524 26994 net.cpp:131] Top shape: 100 10 (1000)
I0428 19:50:22.099529 26994 net.cpp:131] Top shape: 100 10 (1000)
I0428 19:50:22.099532 26994 net.cpp:139] Memory required for data: 2118800
I0428 19:50:22.099535 26994 layer_factory.hpp:77] Creating layer accuracy
I0428 19:50:22.099547 26994 net.cpp:86] Creating Layer accuracy
I0428 19:50:22.099552 26994 net.cpp:408] accuracy <- ip3_relu3_0_split_0
I0428 19:50:22.099562 26994 net.cpp:408] accuracy <- label_mnist_1_split_0
I0428 19:50:22.099568 26994 net.cpp:382] accuracy -> accuracy
…
