…
I0428 20:30:28.270064  3725 net.cpp:296] The NetState phase (0) differed from the phase (1) specified by a rule in layer mnist
I0428 20:30:28.270083  3725 net.cpp:296] The NetState phase (0) differed from the phase (1) specified by a rule in layer accuracy
I0428 20:30:28.270180  3725 net.cpp:53] Initializing net from parameters: 
name: "LeNet"
state {
  phase: TRAIN
  level: 0
  stage: ""
}
layer {
  name: "mnist"
  type: "Data"
  top: "data"
  top: "label"
  include {
    phase: TRAIN
  }
  transform_param {
    scale: 0.00390625
  }
  data_param {
    source: "examples/mnist/mnist_train_lmdb"
    batch_size: 64
    backend: LMDB
  }
}
layer {
  name: "conv0"
  type: "Convolution"
  bottom: "data"
  top: "conv0"
  param {
    lr_mult: 1
  }
  param {
    lr_mult: 2
  }
  convolution_param {
    num_output: 100
    kernel_size: 5
    stride: 1
    weight_filler {
      type: "xavier"
    }
    bias_filler {
      type: "constant"
    }
  }
}
layer {
  name: "pool0"
  type: "Pooling"
  bottom: "conv0"
  top: "pool0"
  pooling_param {
    pool: MAX
    kernel_size: 2
    stride: 2
  }
}
layer {
  name: "conv1"
  type: "Convolution"
  bottom: "pool0"
  top: "conv1"
  param {
    lr_mult: 1
  }
  param {
    lr_mult: 2
  }
  convolution_param {
    num_output: 10
    kernel_size: 5
    stride: 1
    weight_filler {
      type: "xavier"
    }
    bias_filler {
      type: "constant"
    }
  }
}
layer {
  name: "pool1"
  type: "Pooling"
  bottom: "conv1"
  top: "pool1"
  pooling_param {
    pool: MAX
    kernel_size: 2
    stride: 2
  }
}
layer {
  name: "ip1"
  type: "InnerProduct"
  bottom: "pool1"
  top: "ip1"
  param {
    lr_mult: 1
  }
  param {
    lr_mult: 2
  }
  inner_product_param {
    num_output: 10
    weight_filler {
      type: "xavier"
    }
    bias_filler {
      type: "constant"
    }
  }
}
layer {
  name: "relu1"
  type: "ReLU"
  bottom: "ip1"
  top: "ip1"
}
layer {
  name: "ip2"
  type: "InnerProduct"
  bottom: "ip1"
  top: "ip2"
  param {
    lr_mult: 1
  }
  param {
    lr_mult: 2
  }
  inner_product_param {
    num_output: 50
    weight_filler {
      type: "xavier"
    }
    bias_filler {
      type: "constant"
    }
  }
}
layer {
  name: "relu2"
  type: "ReLU"
  bottom: "ip2"
  top: "ip2"
}
layer {
  name: "ip3"
  type: "InnerProduct"
  bottom: "ip2"
  top: "ip3"
  param {
    lr_mult: 1
  }
  param {
    lr_mult: 2
  }
  inner_product_param {
    num_output: 10
    weight_filler {
      type: "xavier"
    }
    bias_filler {
      type: "constant"
    }
  }
}
layer {
  name: "relu3"
  type: "ReLU"
  bottom: "ip3"
  top: "ip3"
}
layer {
  name: "loss"
  type: "SoftmaxWithLoss"
  bottom: "ip3"
  bottom: "label"
  top: "loss"
}
I0428 20:30:28.270254  3725 layer_factory.hpp:77] Creating layer mnist
I0428 20:30:28.270354  3725 db_lmdb.cpp:35] Opened lmdb examples/mnist/mnist_train_lmdb
I0428 20:30:28.270378  3725 net.cpp:86] Creating Layer mnist
I0428 20:30:28.270386  3725 net.cpp:382] mnist -> data
I0428 20:30:28.270408  3725 net.cpp:382] mnist -> label
I0428 20:30:28.271495  3725 data_layer.cpp:45] output data size: 64,1,28,28
I0428 20:30:28.273975  3725 net.cpp:124] Setting up mnist
I0428 20:30:28.273994  3725 net.cpp:131] Top shape: 64 1 28 28 (50176)
I0428 20:30:28.274000  3725 net.cpp:131] Top shape: 64 (64)
I0428 20:30:28.274004  3725 net.cpp:139] Memory required for data: 200960
I0428 20:30:28.274011  3725 layer_factory.hpp:77] Creating layer conv0
I0428 20:30:28.274027  3725 net.cpp:86] Creating Layer conv0
I0428 20:30:28.274050  3725 net.cpp:408] conv0 <- data
I0428 20:30:28.274062  3725 net.cpp:382] conv0 -> conv0
I0428 20:30:28.562927  3725 net.cpp:124] Setting up conv0
I0428 20:30:28.562957  3725 net.cpp:131] Top shape: 64 100 24 24 (3686400)
I0428 20:30:28.562960  3725 net.cpp:139] Memory required for data: 14946560
I0428 20:30:28.562976  3725 layer_factory.hpp:77] Creating layer pool0
I0428 20:30:28.562988  3725 net.cpp:86] Creating Layer pool0
I0428 20:30:28.562994  3725 net.cpp:408] pool0 <- conv0
I0428 20:30:28.562999  3725 net.cpp:382] pool0 -> pool0
I0428 20:30:28.563046  3725 net.cpp:124] Setting up pool0
I0428 20:30:28.563055  3725 net.cpp:131] Top shape: 64 100 12 12 (921600)
I0428 20:30:28.563058  3725 net.cpp:139] Memory required for data: 18632960
I0428 20:30:28.563061  3725 layer_factory.hpp:77] Creating layer conv1
I0428 20:30:28.563072  3725 net.cpp:86] Creating Layer conv1
I0428 20:30:28.563077  3725 net.cpp:408] conv1 <- pool0
I0428 20:30:28.563083  3725 net.cpp:382] conv1 -> conv1
I0428 20:30:28.565150  3725 net.cpp:124] Setting up conv1
I0428 20:30:28.565187  3725 net.cpp:131] Top shape: 64 10 8 8 (40960)
I0428 20:30:28.565208  3725 net.cpp:139] Memory required for data: 18796800
I0428 20:30:28.565217  3725 layer_factory.hpp:77] Creating layer pool1
I0428 20:30:28.565241  3725 net.cpp:86] Creating Layer pool1
I0428 20:30:28.565245  3725 net.cpp:408] pool1 <- conv1
I0428 20:30:28.565265  3725 net.cpp:382] pool1 -> pool1
I0428 20:30:28.565304  3725 net.cpp:124] Setting up pool1
I0428 20:30:28.565310  3725 net.cpp:131] Top shape: 64 10 4 4 (10240)
I0428 20:30:28.565312  3725 net.cpp:139] Memory required for data: 18837760
I0428 20:30:28.565315  3725 layer_factory.hpp:77] Creating layer ip1
I0428 20:30:28.565322  3725 net.cpp:86] Creating Layer ip1
I0428 20:30:28.565325  3725 net.cpp:408] ip1 <- pool1
I0428 20:30:28.565330  3725 net.cpp:382] ip1 -> ip1
I0428 20:30:28.565441  3725 net.cpp:124] Setting up ip1
I0428 20:30:28.565450  3725 net.cpp:131] Top shape: 64 10 (640)
I0428 20:30:28.565454  3725 net.cpp:139] Memory required for data: 18840320
I0428 20:30:28.565460  3725 layer_factory.hpp:77] Creating layer relu1
I0428 20:30:28.565466  3725 net.cpp:86] Creating Layer relu1
I0428 20:30:28.565469  3725 net.cpp:408] relu1 <- ip1
I0428 20:30:28.565474  3725 net.cpp:369] relu1 -> ip1 (in-place)
I0428 20:30:28.565649  3725 net.cpp:124] Setting up relu1
I0428 20:30:28.565659  3725 net.cpp:131] Top shape: 64 10 (640)
I0428 20:30:28.565662  3725 net.cpp:139] Memory required for data: 18842880
I0428 20:30:28.565665  3725 layer_factory.hpp:77] Creating layer ip2
I0428 20:30:28.565672  3725 net.cpp:86] Creating Layer ip2
I0428 20:30:28.565675  3725 net.cpp:408] ip2 <- ip1
I0428 20:30:28.565681  3725 net.cpp:382] ip2 -> ip2
I0428 20:30:28.565785  3725 net.cpp:124] Setting up ip2
I0428 20:30:28.565793  3725 net.cpp:131] Top shape: 64 50 (3200)
I0428 20:30:28.565796  3725 net.cpp:139] Memory required for data: 18855680
I0428 20:30:28.565801  3725 layer_factory.hpp:77] Creating layer relu2
I0428 20:30:28.565809  3725 net.cpp:86] Creating Layer relu2
I0428 20:30:28.565811  3725 net.cpp:408] relu2 <- ip2
I0428 20:30:28.565815  3725 net.cpp:369] relu2 -> ip2 (in-place)
I0428 20:30:28.566557  3725 net.cpp:124] Setting up relu2
I0428 20:30:28.566570  3725 net.cpp:131] Top shape: 64 50 (3200)
I0428 20:30:28.566575  3725 net.cpp:139] Memory required for data: 18868480
I0428 20:30:28.566578  3725 layer_factory.hpp:77] Creating layer ip3
I0428 20:30:28.566586  3725 net.cpp:86] Creating Layer ip3
I0428 20:30:28.566588  3725 net.cpp:408] ip3 <- ip2
I0428 20:30:28.566596  3725 net.cpp:382] ip3 -> ip3
I0428 20:30:28.566705  3725 net.cpp:124] Setting up ip3
I0428 20:30:28.566714  3725 net.cpp:131] Top shape: 64 10 (640)
I0428 20:30:28.566716  3725 net.cpp:139] Memory required for data: 18871040
I0428 20:30:28.566725  3725 layer_factory.hpp:77] Creating layer relu3
I0428 20:30:28.566730  3725 net.cpp:86] Creating Layer relu3
I0428 20:30:28.566732  3725 net.cpp:408] relu3 <- ip3
I0428 20:30:28.566737  3725 net.cpp:369] relu3 -> ip3 (in-place)
I0428 20:30:28.566949  3725 net.cpp:124] Setting up relu3
I0428 20:30:28.566958  3725 net.cpp:131] Top shape: 64 10 (640)
I0428 20:30:28.566962  3725 net.cpp:139] Memory required for data: 18873600
I0428 20:30:28.566965  3725 layer_factory.hpp:77] Creating layer loss
I0428 20:30:28.566972  3725 net.cpp:86] Creating Layer loss
I0428 20:30:28.566975  3725 net.cpp:408] loss <- ip3
I0428 20:30:28.566978  3725 net.cpp:408] loss <- label
I0428 20:30:28.566984  3725 net.cpp:382] loss -> loss
I0428 20:30:28.567001  3725 layer_factory.hpp:77] Creating layer loss
…
I0428 20:30:28.567646  3725 solver.cpp:173] Creating test net (#0) specified by net file: ECE595/mnist/train_test/var_everything2/lenet_train_test1539.prototxt
I0428 20:30:28.567674  3725 net.cpp:296] The NetState phase (1) differed from the phase (0) specified by a rule in layer mnist
I0428 20:30:28.567806  3725 net.cpp:53] Initializing net from parameters: 
name: "LeNet"
state {
  phase: TEST
}
layer {
  name: "mnist"
  type: "Data"
  top: "data"
  top: "label"
  include {
    phase: TEST
  }
  transform_param {
    scale: 0.00390625
  }
  data_param {
    source: "examples/mnist/mnist_test_lmdb"
    batch_size: 100
    backend: LMDB
  }
}
layer {
  name: "conv0"
  type: "Convolution"
  bottom: "data"
  top: "conv0"
  param {
    lr_mult: 1
  }
  param {
    lr_mult: 2
  }
  convolution_param {
    num_output: 100
    kernel_size: 5
    stride: 1
    weight_filler {
      type: "xavier"
    }
    bias_filler {
      type: "constant"
    }
  }
}
layer {
  name: "pool0"
  type: "Pooling"
  bottom: "conv0"
  top: "pool0"
  pooling_param {
    pool: MAX
    kernel_size: 2
    stride: 2
  }
}
layer {
  name: "conv1"
  type: "Convolution"
  bottom: "pool0"
  top: "conv1"
  param {
    lr_mult: 1
  }
  param {
    lr_mult: 2
  }
  convolution_param {
    num_output: 10
    kernel_size: 5
    stride: 1
    weight_filler {
      type: "xavier"
    }
    bias_filler {
      type: "constant"
    }
  }
}
layer {
  name: "pool1"
  type: "Pooling"
  bottom: "conv1"
  top: "pool1"
  pooling_param {
    pool: MAX
    kernel_size: 2
    stride: 2
  }
}
layer {
  name: "ip1"
  type: "InnerProduct"
  bottom: "pool1"
  top: "ip1"
  param {
    lr_mult: 1
  }
  param {
    lr_mult: 2
  }
  inner_product_param {
    num_output: 10
    weight_filler {
      type: "xavier"
    }
    bias_filler {
      type: "constant"
    }
  }
}
layer {
  name: "relu1"
  type: "ReLU"
  bottom: "ip1"
  top: "ip1"
}
layer {
  name: "ip2"
  type: "InnerProduct"
  bottom: "ip1"
  top: "ip2"
  param {
    lr_mult: 1
  }
  param {
    lr_mult: 2
  }
  inner_product_param {
    num_output: 50
    weight_filler {
      type: "xavier"
    }
    bias_filler {
      type: "constant"
    }
  }
}
layer {
  name: "relu2"
  type: "ReLU"
  bottom: "ip2"
  top: "ip2"
}
layer {
  name: "ip3"
  type: "InnerProduct"
  bottom: "ip2"
  top: "ip3"
  param {
    lr_mult: 1
  }
  param {
    lr_mult: 2
  }
  inner_product_param {
    num_output: 10
    weight_filler {
      type: "xavier"
    }
    bias_filler {
      type: "constant"
    }
  }
}
layer {
  name: "relu3"
  type: "ReLU"
  bottom: "ip3"
  top: "ip3"
}
layer {
  name: "accuracy"
  type: "Accuracy"
  bottom: "ip3"
  bottom: "label"
  top: "accuracy"
  include {
    phase: TEST
  }
}
layer {
  name: "loss"
  type: "SoftmaxWithLoss"
  bottom: "ip3"
  bottom: "label"
  top: "loss"
}
I0428 20:30:28.567894  3725 layer_factory.hpp:77] Creating layer mnist
I0428 20:30:28.567942  3725 db_lmdb.cpp:35] Opened lmdb examples/mnist/mnist_test_lmdb
I0428 20:30:28.567960  3725 net.cpp:86] Creating Layer mnist
I0428 20:30:28.567965  3725 net.cpp:382] mnist -> data
I0428 20:30:28.567977  3725 net.cpp:382] mnist -> label
I0428 20:30:28.568073  3725 data_layer.cpp:45] output data size: 100,1,28,28
I0428 20:30:28.570042  3725 net.cpp:124] Setting up mnist
I0428 20:30:28.570057  3725 net.cpp:131] Top shape: 100 1 28 28 (78400)
I0428 20:30:28.570062  3725 net.cpp:131] Top shape: 100 (100)
I0428 20:30:28.570065  3725 net.cpp:139] Memory required for data: 314000
I0428 20:30:28.570070  3725 layer_factory.hpp:77] Creating layer label_mnist_1_split
I0428 20:30:28.570081  3725 net.cpp:86] Creating Layer label_mnist_1_split
I0428 20:30:28.570088  3725 net.cpp:408] label_mnist_1_split <- label
I0428 20:30:28.570096  3725 net.cpp:382] label_mnist_1_split -> label_mnist_1_split_0
I0428 20:30:28.570102  3725 net.cpp:382] label_mnist_1_split -> label_mnist_1_split_1
I0428 20:30:28.570190  3725 net.cpp:124] Setting up label_mnist_1_split
I0428 20:30:28.570199  3725 net.cpp:131] Top shape: 100 (100)
I0428 20:30:28.570202  3725 net.cpp:131] Top shape: 100 (100)
I0428 20:30:28.570205  3725 net.cpp:139] Memory required for data: 314800
I0428 20:30:28.570209  3725 layer_factory.hpp:77] Creating layer conv0
I0428 20:30:28.570219  3725 net.cpp:86] Creating Layer conv0
I0428 20:30:28.570224  3725 net.cpp:408] conv0 <- data
I0428 20:30:28.570230  3725 net.cpp:382] conv0 -> conv0
I0428 20:30:28.571913  3725 net.cpp:124] Setting up conv0
I0428 20:30:28.571929  3725 net.cpp:131] Top shape: 100 100 24 24 (5760000)
I0428 20:30:28.571933  3725 net.cpp:139] Memory required for data: 23354800
I0428 20:30:28.571943  3725 layer_factory.hpp:77] Creating layer pool0
I0428 20:30:28.571949  3725 net.cpp:86] Creating Layer pool0
I0428 20:30:28.571952  3725 net.cpp:408] pool0 <- conv0
I0428 20:30:28.571959  3725 net.cpp:382] pool0 -> pool0
I0428 20:30:28.571995  3725 net.cpp:124] Setting up pool0
I0428 20:30:28.572000  3725 net.cpp:131] Top shape: 100 100 12 12 (1440000)
I0428 20:30:28.572003  3725 net.cpp:139] Memory required for data: 29114800
I0428 20:30:28.572006  3725 layer_factory.hpp:77] Creating layer conv1
I0428 20:30:28.572017  3725 net.cpp:86] Creating Layer conv1
I0428 20:30:28.572021  3725 net.cpp:408] conv1 <- pool0
I0428 20:30:28.572026  3725 net.cpp:382] conv1 -> conv1
I0428 20:30:28.573742  3725 net.cpp:124] Setting up conv1
I0428 20:30:28.573756  3725 net.cpp:131] Top shape: 100 10 8 8 (64000)
I0428 20:30:28.573761  3725 net.cpp:139] Memory required for data: 29370800
I0428 20:30:28.573770  3725 layer_factory.hpp:77] Creating layer pool1
I0428 20:30:28.573776  3725 net.cpp:86] Creating Layer pool1
I0428 20:30:28.573781  3725 net.cpp:408] pool1 <- conv1
I0428 20:30:28.573786  3725 net.cpp:382] pool1 -> pool1
I0428 20:30:28.573823  3725 net.cpp:124] Setting up pool1
I0428 20:30:28.573830  3725 net.cpp:131] Top shape: 100 10 4 4 (16000)
I0428 20:30:28.573833  3725 net.cpp:139] Memory required for data: 29434800
I0428 20:30:28.573837  3725 layer_factory.hpp:77] Creating layer ip1
I0428 20:30:28.573843  3725 net.cpp:86] Creating Layer ip1
I0428 20:30:28.573846  3725 net.cpp:408] ip1 <- pool1
I0428 20:30:28.573853  3725 net.cpp:382] ip1 -> ip1
I0428 20:30:28.574009  3725 net.cpp:124] Setting up ip1
I0428 20:30:28.574030  3725 net.cpp:131] Top shape: 100 10 (1000)
I0428 20:30:28.574039  3725 net.cpp:139] Memory required for data: 29438800
I0428 20:30:28.574048  3725 layer_factory.hpp:77] Creating layer relu1
I0428 20:30:28.574054  3725 net.cpp:86] Creating Layer relu1
I0428 20:30:28.574059  3725 net.cpp:408] relu1 <- ip1
I0428 20:30:28.574065  3725 net.cpp:369] relu1 -> ip1 (in-place)
I0428 20:30:28.574272  3725 net.cpp:124] Setting up relu1
I0428 20:30:28.574281  3725 net.cpp:131] Top shape: 100 10 (1000)
I0428 20:30:28.574285  3725 net.cpp:139] Memory required for data: 29442800
I0428 20:30:28.574288  3725 layer_factory.hpp:77] Creating layer ip2
I0428 20:30:28.574308  3725 net.cpp:86] Creating Layer ip2
I0428 20:30:28.574312  3725 net.cpp:408] ip2 <- ip1
I0428 20:30:28.574317  3725 net.cpp:382] ip2 -> ip2
I0428 20:30:28.574441  3725 net.cpp:124] Setting up ip2
I0428 20:30:28.574450  3725 net.cpp:131] Top shape: 100 50 (5000)
I0428 20:30:28.574452  3725 net.cpp:139] Memory required for data: 29462800
I0428 20:30:28.574458  3725 layer_factory.hpp:77] Creating layer relu2
I0428 20:30:28.574463  3725 net.cpp:86] Creating Layer relu2
I0428 20:30:28.574466  3725 net.cpp:408] relu2 <- ip2
I0428 20:30:28.574472  3725 net.cpp:369] relu2 -> ip2 (in-place)
I0428 20:30:28.574662  3725 net.cpp:124] Setting up relu2
I0428 20:30:28.574671  3725 net.cpp:131] Top shape: 100 50 (5000)
I0428 20:30:28.574674  3725 net.cpp:139] Memory required for data: 29482800
I0428 20:30:28.574677  3725 layer_factory.hpp:77] Creating layer ip3
I0428 20:30:28.574684  3725 net.cpp:86] Creating Layer ip3
I0428 20:30:28.574687  3725 net.cpp:408] ip3 <- ip2
I0428 20:30:28.574692  3725 net.cpp:382] ip3 -> ip3
I0428 20:30:28.574818  3725 net.cpp:124] Setting up ip3
I0428 20:30:28.574826  3725 net.cpp:131] Top shape: 100 10 (1000)
I0428 20:30:28.574828  3725 net.cpp:139] Memory required for data: 29486800
I0428 20:30:28.574837  3725 layer_factory.hpp:77] Creating layer relu3
I0428 20:30:28.574842  3725 net.cpp:86] Creating Layer relu3
I0428 20:30:28.574846  3725 net.cpp:408] relu3 <- ip3
I0428 20:30:28.574849  3725 net.cpp:369] relu3 -> ip3 (in-place)
I0428 20:30:28.575681  3725 net.cpp:124] Setting up relu3
I0428 20:30:28.575695  3725 net.cpp:131] Top shape: 100 10 (1000)
I0428 20:30:28.575698  3725 net.cpp:139] Memory required for data: 29490800
I0428 20:30:28.575702  3725 layer_factory.hpp:77] Creating layer ip3_relu3_0_split
I0428 20:30:28.575708  3725 net.cpp:86] Creating Layer ip3_relu3_0_split
I0428 20:30:28.575712  3725 net.cpp:408] ip3_relu3_0_split <- ip3
I0428 20:30:28.575717  3725 net.cpp:382] ip3_relu3_0_split -> ip3_relu3_0_split_0
I0428 20:30:28.575723  3725 net.cpp:382] ip3_relu3_0_split -> ip3_relu3_0_split_1
I0428 20:30:28.575763  3725 net.cpp:124] Setting up ip3_relu3_0_split
I0428 20:30:28.575768  3725 net.cpp:131] Top shape: 100 10 (1000)
I0428 20:30:28.575773  3725 net.cpp:131] Top shape: 100 10 (1000)
I0428 20:30:28.575775  3725 net.cpp:139] Memory required for data: 29498800
I0428 20:30:28.575778  3725 layer_factory.hpp:77] Creating layer accuracy
I0428 20:30:28.575784  3725 net.cpp:86] Creating Layer accuracy
I0428 20:30:28.575788  3725 net.cpp:408] accuracy <- ip3_relu3_0_split_0
I0428 20:30:28.575793  3725 net.cpp:408] accuracy <- label_mnist_1_split_0
I0428 20:30:28.575798  3725 net.cpp:382] accuracy -> accuracy
…
