…
I0428 19:58:13.661775 28920 net.cpp:296] The NetState phase (0) differed from the phase (1) specified by a rule in layer mnist
I0428 19:58:13.661808 28920 net.cpp:296] The NetState phase (0) differed from the phase (1) specified by a rule in layer accuracy
I0428 19:58:13.661900 28920 net.cpp:53] Initializing net from parameters: 
name: "LeNet"
state {
  phase: TRAIN
  level: 0
  stage: ""
}
layer {
  name: "mnist"
  type: "Data"
  top: "data"
  top: "label"
  include {
    phase: TRAIN
  }
  transform_param {
    scale: 0.00390625
  }
  data_param {
    source: "examples/mnist/mnist_train_lmdb"
    batch_size: 64
    backend: LMDB
  }
}
layer {
  name: "conv0"
  type: "Convolution"
  bottom: "data"
  top: "conv0"
  param {
    lr_mult: 1
  }
  param {
    lr_mult: 2
  }
  convolution_param {
    num_output: 10
    kernel_size: 5
    stride: 1
    weight_filler {
      type: "xavier"
    }
    bias_filler {
      type: "constant"
    }
  }
}
layer {
  name: "pool0"
  type: "Pooling"
  bottom: "conv0"
  top: "pool0"
  pooling_param {
    pool: MAX
    kernel_size: 2
    stride: 2
  }
}
layer {
  name: "conv1"
  type: "Convolution"
  bottom: "pool0"
  top: "conv1"
  param {
    lr_mult: 1
  }
  param {
    lr_mult: 2
  }
  convolution_param {
    num_output: 5
    kernel_size: 5
    stride: 1
    weight_filler {
      type: "xavier"
    }
    bias_filler {
      type: "constant"
    }
  }
}
layer {
  name: "pool1"
  type: "Pooling"
  bottom: "conv1"
  top: "pool1"
  pooling_param {
    pool: MAX
    kernel_size: 2
    stride: 2
  }
}
layer {
  name: "ip1"
  type: "InnerProduct"
  bottom: "pool1"
  top: "ip1"
  param {
    lr_mult: 1
  }
  param {
    lr_mult: 2
  }
  inner_product_param {
    num_output: 50
    weight_filler {
      type: "xavier"
    }
    bias_filler {
      type: "constant"
    }
  }
}
layer {
  name: "relu1"
  type: "ReLU"
  bottom: "ip1"
  top: "ip1"
}
layer {
  name: "ip2"
  type: "InnerProduct"
  bottom: "ip1"
  top: "ip2"
  param {
    lr_mult: 1
  }
  param {
    lr_mult: 2
  }
  inner_product_param {
    num_output: 10
    weight_filler {
      type: "xavier"
    }
    bias_filler {
      type: "constant"
    }
  }
}
layer {
  name: "relu2"
  type: "ReLU"
  bottom: "ip2"
  top: "ip2"
}
layer {
  name: "ip3"
  type: "InnerProduct"
  bottom: "ip2"
  top: "ip3"
  param {
    lr_mult: 1
  }
  param {
    lr_mult: 2
  }
  inner_product_param {
    num_output: 10
    weight_filler {
      type: "xavier"
    }
    bias_filler {
      type: "constant"
    }
  }
}
layer {
  name: "relu3"
  type: "ReLU"
  bottom: "ip3"
  top: "ip3"
}
layer {
  name: "loss"
  type: "SoftmaxWithLoss"
  bottom: "ip3"
  bottom: "label"
  top: "loss"
}
I0428 19:58:13.661968 28920 layer_factory.hpp:77] Creating layer mnist
I0428 19:58:13.662065 28920 db_lmdb.cpp:35] Opened lmdb examples/mnist/mnist_train_lmdb
I0428 19:58:13.662086 28920 net.cpp:86] Creating Layer mnist
I0428 19:58:13.662093 28920 net.cpp:382] mnist -> data
I0428 19:58:13.662111 28920 net.cpp:382] mnist -> label
I0428 19:58:13.663111 28920 data_layer.cpp:45] output data size: 64,1,28,28
I0428 19:58:13.665369 28920 net.cpp:124] Setting up mnist
I0428 19:58:13.665383 28920 net.cpp:131] Top shape: 64 1 28 28 (50176)
I0428 19:58:13.665390 28920 net.cpp:131] Top shape: 64 (64)
I0428 19:58:13.665391 28920 net.cpp:139] Memory required for data: 200960
I0428 19:58:13.665397 28920 layer_factory.hpp:77] Creating layer conv0
I0428 19:58:13.665410 28920 net.cpp:86] Creating Layer conv0
I0428 19:58:13.665427 28920 net.cpp:408] conv0 <- data
I0428 19:58:13.665436 28920 net.cpp:382] conv0 -> conv0
I0428 19:58:13.895612 28920 net.cpp:124] Setting up conv0
I0428 19:58:13.895638 28920 net.cpp:131] Top shape: 64 10 24 24 (368640)
I0428 19:58:13.895642 28920 net.cpp:139] Memory required for data: 1675520
I0428 19:58:13.895671 28920 layer_factory.hpp:77] Creating layer pool0
I0428 19:58:13.895699 28920 net.cpp:86] Creating Layer pool0
I0428 19:58:13.895707 28920 net.cpp:408] pool0 <- conv0
I0428 19:58:13.895712 28920 net.cpp:382] pool0 -> pool0
I0428 19:58:13.895756 28920 net.cpp:124] Setting up pool0
I0428 19:58:13.895762 28920 net.cpp:131] Top shape: 64 10 12 12 (92160)
I0428 19:58:13.895766 28920 net.cpp:139] Memory required for data: 2044160
I0428 19:58:13.895768 28920 layer_factory.hpp:77] Creating layer conv1
I0428 19:58:13.895778 28920 net.cpp:86] Creating Layer conv1
I0428 19:58:13.895781 28920 net.cpp:408] conv1 <- pool0
I0428 19:58:13.895787 28920 net.cpp:382] conv1 -> conv1
I0428 19:58:13.898536 28920 net.cpp:124] Setting up conv1
I0428 19:58:13.898550 28920 net.cpp:131] Top shape: 64 5 8 8 (20480)
I0428 19:58:13.898555 28920 net.cpp:139] Memory required for data: 2126080
I0428 19:58:13.898581 28920 layer_factory.hpp:77] Creating layer pool1
I0428 19:58:13.898591 28920 net.cpp:86] Creating Layer pool1
I0428 19:58:13.898597 28920 net.cpp:408] pool1 <- conv1
I0428 19:58:13.898602 28920 net.cpp:382] pool1 -> pool1
I0428 19:58:13.898636 28920 net.cpp:124] Setting up pool1
I0428 19:58:13.898643 28920 net.cpp:131] Top shape: 64 5 4 4 (5120)
I0428 19:58:13.898663 28920 net.cpp:139] Memory required for data: 2146560
I0428 19:58:13.898666 28920 layer_factory.hpp:77] Creating layer ip1
I0428 19:58:13.898674 28920 net.cpp:86] Creating Layer ip1
I0428 19:58:13.898676 28920 net.cpp:408] ip1 <- pool1
I0428 19:58:13.898681 28920 net.cpp:382] ip1 -> ip1
I0428 19:58:13.898805 28920 net.cpp:124] Setting up ip1
I0428 19:58:13.898813 28920 net.cpp:131] Top shape: 64 50 (3200)
I0428 19:58:13.898815 28920 net.cpp:139] Memory required for data: 2159360
I0428 19:58:13.898823 28920 layer_factory.hpp:77] Creating layer relu1
I0428 19:58:13.898828 28920 net.cpp:86] Creating Layer relu1
I0428 19:58:13.898831 28920 net.cpp:408] relu1 <- ip1
I0428 19:58:13.898835 28920 net.cpp:369] relu1 -> ip1 (in-place)
I0428 19:58:13.899008 28920 net.cpp:124] Setting up relu1
I0428 19:58:13.899016 28920 net.cpp:131] Top shape: 64 50 (3200)
I0428 19:58:13.899019 28920 net.cpp:139] Memory required for data: 2172160
I0428 19:58:13.899022 28920 layer_factory.hpp:77] Creating layer ip2
I0428 19:58:13.899029 28920 net.cpp:86] Creating Layer ip2
I0428 19:58:13.899031 28920 net.cpp:408] ip2 <- ip1
I0428 19:58:13.899035 28920 net.cpp:382] ip2 -> ip2
I0428 19:58:13.899127 28920 net.cpp:124] Setting up ip2
I0428 19:58:13.899134 28920 net.cpp:131] Top shape: 64 10 (640)
I0428 19:58:13.899137 28920 net.cpp:139] Memory required for data: 2174720
I0428 19:58:13.899142 28920 layer_factory.hpp:77] Creating layer relu2
I0428 19:58:13.899147 28920 net.cpp:86] Creating Layer relu2
I0428 19:58:13.899150 28920 net.cpp:408] relu2 <- ip2
I0428 19:58:13.899155 28920 net.cpp:369] relu2 -> ip2 (in-place)
I0428 19:58:13.899932 28920 net.cpp:124] Setting up relu2
I0428 19:58:13.899945 28920 net.cpp:131] Top shape: 64 10 (640)
I0428 19:58:13.899948 28920 net.cpp:139] Memory required for data: 2177280
I0428 19:58:13.899951 28920 layer_factory.hpp:77] Creating layer ip3
I0428 19:58:13.899958 28920 net.cpp:86] Creating Layer ip3
I0428 19:58:13.899961 28920 net.cpp:408] ip3 <- ip2
I0428 19:58:13.899967 28920 net.cpp:382] ip3 -> ip3
I0428 19:58:13.900075 28920 net.cpp:124] Setting up ip3
I0428 19:58:13.900082 28920 net.cpp:131] Top shape: 64 10 (640)
I0428 19:58:13.900085 28920 net.cpp:139] Memory required for data: 2179840
I0428 19:58:13.900092 28920 layer_factory.hpp:77] Creating layer relu3
I0428 19:58:13.900097 28920 net.cpp:86] Creating Layer relu3
I0428 19:58:13.900099 28920 net.cpp:408] relu3 <- ip3
I0428 19:58:13.900104 28920 net.cpp:369] relu3 -> ip3 (in-place)
I0428 19:58:13.900274 28920 net.cpp:124] Setting up relu3
I0428 19:58:13.900280 28920 net.cpp:131] Top shape: 64 10 (640)
I0428 19:58:13.900283 28920 net.cpp:139] Memory required for data: 2182400
I0428 19:58:13.900286 28920 layer_factory.hpp:77] Creating layer loss
I0428 19:58:13.900292 28920 net.cpp:86] Creating Layer loss
I0428 19:58:13.900295 28920 net.cpp:408] loss <- ip3
I0428 19:58:13.900298 28920 net.cpp:408] loss <- label
I0428 19:58:13.900303 28920 net.cpp:382] loss -> loss
I0428 19:58:13.900321 28920 layer_factory.hpp:77] Creating layer loss
…
I0428 19:58:13.901049 28920 solver.cpp:173] Creating test net (#0) specified by net file: ECE595/mnist/train_test/var_everything2/lenet_train_test812.prototxt
I0428 19:58:13.901094 28920 net.cpp:296] The NetState phase (1) differed from the phase (0) specified by a rule in layer mnist
I0428 19:58:13.901235 28920 net.cpp:53] Initializing net from parameters: 
name: "LeNet"
state {
  phase: TEST
}
layer {
  name: "mnist"
  type: "Data"
  top: "data"
  top: "label"
  include {
    phase: TEST
  }
  transform_param {
    scale: 0.00390625
  }
  data_param {
    source: "examples/mnist/mnist_test_lmdb"
    batch_size: 100
    backend: LMDB
  }
}
layer {
  name: "conv0"
  type: "Convolution"
  bottom: "data"
  top: "conv0"
  param {
    lr_mult: 1
  }
  param {
    lr_mult: 2
  }
  convolution_param {
    num_output: 10
    kernel_size: 5
    stride: 1
    weight_filler {
      type: "xavier"
    }
    bias_filler {
      type: "constant"
    }
  }
}
layer {
  name: "pool0"
  type: "Pooling"
  bottom: "conv0"
  top: "pool0"
  pooling_param {
    pool: MAX
    kernel_size: 2
    stride: 2
  }
}
layer {
  name: "conv1"
  type: "Convolution"
  bottom: "pool0"
  top: "conv1"
  param {
    lr_mult: 1
  }
  param {
    lr_mult: 2
  }
  convolution_param {
    num_output: 5
    kernel_size: 5
    stride: 1
    weight_filler {
      type: "xavier"
    }
    bias_filler {
      type: "constant"
    }
  }
}
layer {
  name: "pool1"
  type: "Pooling"
  bottom: "conv1"
  top: "pool1"
  pooling_param {
    pool: MAX
    kernel_size: 2
    stride: 2
  }
}
layer {
  name: "ip1"
  type: "InnerProduct"
  bottom: "pool1"
  top: "ip1"
  param {
    lr_mult: 1
  }
  param {
    lr_mult: 2
  }
  inner_product_param {
    num_output: 50
    weight_filler {
      type: "xavier"
    }
    bias_filler {
      type: "constant"
    }
  }
}
layer {
  name: "relu1"
  type: "ReLU"
  bottom: "ip1"
  top: "ip1"
}
layer {
  name: "ip2"
  type: "InnerProduct"
  bottom: "ip1"
  top: "ip2"
  param {
    lr_mult: 1
  }
  param {
    lr_mult: 2
  }
  inner_product_param {
    num_output: 10
    weight_filler {
      type: "xavier"
    }
    bias_filler {
      type: "constant"
    }
  }
}
layer {
  name: "relu2"
  type: "ReLU"
  bottom: "ip2"
  top: "ip2"
}
layer {
  name: "ip3"
  type: "InnerProduct"
  bottom: "ip2"
  top: "ip3"
  param {
    lr_mult: 1
  }
  param {
    lr_mult: 2
  }
  inner_product_param {
    num_output: 10
    weight_filler {
      type: "xavier"
    }
    bias_filler {
      type: "constant"
    }
  }
}
layer {
  name: "relu3"
  type: "ReLU"
  bottom: "ip3"
  top: "ip3"
}
layer {
  name: "accuracy"
  type: "Accuracy"
  bottom: "ip3"
  bottom: "label"
  top: "accuracy"
  include {
    phase: TEST
  }
}
layer {
  name: "loss"
  type: "SoftmaxWithLoss"
  bottom: "ip3"
  bottom: "label"
  top: "loss"
}
I0428 19:58:13.901314 28920 layer_factory.hpp:77] Creating layer mnist
I0428 19:58:13.901356 28920 db_lmdb.cpp:35] Opened lmdb examples/mnist/mnist_test_lmdb
I0428 19:58:13.901368 28920 net.cpp:86] Creating Layer mnist
I0428 19:58:13.901387 28920 net.cpp:382] mnist -> data
I0428 19:58:13.901394 28920 net.cpp:382] mnist -> label
I0428 19:58:13.901487 28920 data_layer.cpp:45] output data size: 100,1,28,28
I0428 19:58:13.903501 28920 net.cpp:124] Setting up mnist
I0428 19:58:13.903515 28920 net.cpp:131] Top shape: 100 1 28 28 (78400)
I0428 19:58:13.903535 28920 net.cpp:131] Top shape: 100 (100)
I0428 19:58:13.903538 28920 net.cpp:139] Memory required for data: 314000
I0428 19:58:13.903542 28920 layer_factory.hpp:77] Creating layer label_mnist_1_split
I0428 19:58:13.903553 28920 net.cpp:86] Creating Layer label_mnist_1_split
I0428 19:58:13.903556 28920 net.cpp:408] label_mnist_1_split <- label
I0428 19:58:13.903561 28920 net.cpp:382] label_mnist_1_split -> label_mnist_1_split_0
I0428 19:58:13.903568 28920 net.cpp:382] label_mnist_1_split -> label_mnist_1_split_1
I0428 19:58:13.903610 28920 net.cpp:124] Setting up label_mnist_1_split
I0428 19:58:13.903615 28920 net.cpp:131] Top shape: 100 (100)
I0428 19:58:13.903620 28920 net.cpp:131] Top shape: 100 (100)
I0428 19:58:13.903621 28920 net.cpp:139] Memory required for data: 314800
I0428 19:58:13.903625 28920 layer_factory.hpp:77] Creating layer conv0
I0428 19:58:13.903633 28920 net.cpp:86] Creating Layer conv0
I0428 19:58:13.903636 28920 net.cpp:408] conv0 <- data
I0428 19:58:13.903642 28920 net.cpp:382] conv0 -> conv0
I0428 19:58:13.905236 28920 net.cpp:124] Setting up conv0
I0428 19:58:13.905264 28920 net.cpp:131] Top shape: 100 10 24 24 (576000)
I0428 19:58:13.905268 28920 net.cpp:139] Memory required for data: 2618800
I0428 19:58:13.905278 28920 layer_factory.hpp:77] Creating layer pool0
I0428 19:58:13.905285 28920 net.cpp:86] Creating Layer pool0
I0428 19:58:13.905304 28920 net.cpp:408] pool0 <- conv0
I0428 19:58:13.905309 28920 net.cpp:382] pool0 -> pool0
I0428 19:58:13.905397 28920 net.cpp:124] Setting up pool0
I0428 19:58:13.905407 28920 net.cpp:131] Top shape: 100 10 12 12 (144000)
I0428 19:58:13.905411 28920 net.cpp:139] Memory required for data: 3194800
I0428 19:58:13.905416 28920 layer_factory.hpp:77] Creating layer conv1
I0428 19:58:13.905426 28920 net.cpp:86] Creating Layer conv1
I0428 19:58:13.905428 28920 net.cpp:408] conv1 <- pool0
I0428 19:58:13.905436 28920 net.cpp:382] conv1 -> conv1
I0428 19:58:13.907629 28920 net.cpp:124] Setting up conv1
I0428 19:58:13.907657 28920 net.cpp:131] Top shape: 100 5 8 8 (32000)
I0428 19:58:13.907661 28920 net.cpp:139] Memory required for data: 3322800
I0428 19:58:13.907670 28920 layer_factory.hpp:77] Creating layer pool1
I0428 19:58:13.907676 28920 net.cpp:86] Creating Layer pool1
I0428 19:58:13.907680 28920 net.cpp:408] pool1 <- conv1
I0428 19:58:13.907687 28920 net.cpp:382] pool1 -> pool1
I0428 19:58:13.907768 28920 net.cpp:124] Setting up pool1
I0428 19:58:13.907775 28920 net.cpp:131] Top shape: 100 5 4 4 (8000)
I0428 19:58:13.907778 28920 net.cpp:139] Memory required for data: 3354800
I0428 19:58:13.907781 28920 layer_factory.hpp:77] Creating layer ip1
I0428 19:58:13.907806 28920 net.cpp:86] Creating Layer ip1
I0428 19:58:13.907809 28920 net.cpp:408] ip1 <- pool1
I0428 19:58:13.907830 28920 net.cpp:382] ip1 -> ip1
I0428 19:58:13.907956 28920 net.cpp:124] Setting up ip1
I0428 19:58:13.907964 28920 net.cpp:131] Top shape: 100 50 (5000)
I0428 19:58:13.907979 28920 net.cpp:139] Memory required for data: 3374800
I0428 19:58:13.907986 28920 layer_factory.hpp:77] Creating layer relu1
I0428 19:58:13.907991 28920 net.cpp:86] Creating Layer relu1
I0428 19:58:13.907994 28920 net.cpp:408] relu1 <- ip1
I0428 19:58:13.908000 28920 net.cpp:369] relu1 -> ip1 (in-place)
I0428 19:58:13.908190 28920 net.cpp:124] Setting up relu1
I0428 19:58:13.908200 28920 net.cpp:131] Top shape: 100 50 (5000)
I0428 19:58:13.908202 28920 net.cpp:139] Memory required for data: 3394800
I0428 19:58:13.908205 28920 layer_factory.hpp:77] Creating layer ip2
I0428 19:58:13.908215 28920 net.cpp:86] Creating Layer ip2
I0428 19:58:13.908218 28920 net.cpp:408] ip2 <- ip1
I0428 19:58:13.908238 28920 net.cpp:382] ip2 -> ip2
I0428 19:58:13.908371 28920 net.cpp:124] Setting up ip2
I0428 19:58:13.908380 28920 net.cpp:131] Top shape: 100 10 (1000)
I0428 19:58:13.908385 28920 net.cpp:139] Memory required for data: 3398800
I0428 19:58:13.908390 28920 layer_factory.hpp:77] Creating layer relu2
I0428 19:58:13.908396 28920 net.cpp:86] Creating Layer relu2
I0428 19:58:13.908398 28920 net.cpp:408] relu2 <- ip2
I0428 19:58:13.908403 28920 net.cpp:369] relu2 -> ip2 (in-place)
I0428 19:58:13.908607 28920 net.cpp:124] Setting up relu2
I0428 19:58:13.908617 28920 net.cpp:131] Top shape: 100 10 (1000)
I0428 19:58:13.908622 28920 net.cpp:139] Memory required for data: 3402800
I0428 19:58:13.908624 28920 layer_factory.hpp:77] Creating layer ip3
I0428 19:58:13.908632 28920 net.cpp:86] Creating Layer ip3
I0428 19:58:13.908634 28920 net.cpp:408] ip3 <- ip2
I0428 19:58:13.908639 28920 net.cpp:382] ip3 -> ip3
I0428 19:58:13.908747 28920 net.cpp:124] Setting up ip3
I0428 19:58:13.908756 28920 net.cpp:131] Top shape: 100 10 (1000)
I0428 19:58:13.908759 28920 net.cpp:139] Memory required for data: 3406800
I0428 19:58:13.908767 28920 layer_factory.hpp:77] Creating layer relu3
I0428 19:58:13.908774 28920 net.cpp:86] Creating Layer relu3
I0428 19:58:13.908777 28920 net.cpp:408] relu3 <- ip3
I0428 19:58:13.908782 28920 net.cpp:369] relu3 -> ip3 (in-place)
I0428 19:58:13.909673 28920 net.cpp:124] Setting up relu3
I0428 19:58:13.909687 28920 net.cpp:131] Top shape: 100 10 (1000)
I0428 19:58:13.909692 28920 net.cpp:139] Memory required for data: 3410800
I0428 19:58:13.909695 28920 layer_factory.hpp:77] Creating layer ip3_relu3_0_split
I0428 19:58:13.909700 28920 net.cpp:86] Creating Layer ip3_relu3_0_split
I0428 19:58:13.909704 28920 net.cpp:408] ip3_relu3_0_split <- ip3
I0428 19:58:13.909709 28920 net.cpp:382] ip3_relu3_0_split -> ip3_relu3_0_split_0
I0428 19:58:13.909715 28920 net.cpp:382] ip3_relu3_0_split -> ip3_relu3_0_split_1
I0428 19:58:13.909757 28920 net.cpp:124] Setting up ip3_relu3_0_split
I0428 19:58:13.909762 28920 net.cpp:131] Top shape: 100 10 (1000)
I0428 19:58:13.909766 28920 net.cpp:131] Top shape: 100 10 (1000)
I0428 19:58:13.909770 28920 net.cpp:139] Memory required for data: 3418800
I0428 19:58:13.909772 28920 layer_factory.hpp:77] Creating layer accuracy
I0428 19:58:13.909778 28920 net.cpp:86] Creating Layer accuracy
I0428 19:58:13.909781 28920 net.cpp:408] accuracy <- ip3_relu3_0_split_0
I0428 19:58:13.909785 28920 net.cpp:408] accuracy <- label_mnist_1_split_0
I0428 19:58:13.909791 28920 net.cpp:382] accuracy -> accuracy
…
