…
I0428 20:10:20.744289 31817 net.cpp:296] The NetState phase (0) differed from the phase (1) specified by a rule in layer mnist
I0428 20:10:20.744316 31817 net.cpp:296] The NetState phase (0) differed from the phase (1) specified by a rule in layer accuracy
I0428 20:10:20.744380 31817 net.cpp:53] Initializing net from parameters: 
name: "LeNet"
state {
  phase: TRAIN
  level: 0
  stage: ""
}
layer {
  name: "mnist"
  type: "Data"
  top: "data"
  top: "label"
  include {
    phase: TRAIN
  }
  transform_param {
    scale: 0.00390625
  }
  data_param {
    source: "examples/mnist/mnist_train_lmdb"
    batch_size: 64
    backend: LMDB
  }
}
layer {
  name: "conv0"
  type: "Convolution"
  bottom: "data"
  top: "conv0"
  param {
    lr_mult: 1
  }
  param {
    lr_mult: 2
  }
  convolution_param {
    num_output: 25
    kernel_size: 5
    stride: 1
    weight_filler {
      type: "xavier"
    }
    bias_filler {
      type: "constant"
    }
  }
}
layer {
  name: "pool0"
  type: "Pooling"
  bottom: "conv0"
  top: "pool0"
  pooling_param {
    pool: MAX
    kernel_size: 2
    stride: 2
  }
}
layer {
  name: "conv1"
  type: "Convolution"
  bottom: "pool0"
  top: "conv1"
  param {
    lr_mult: 1
  }
  param {
    lr_mult: 2
  }
  convolution_param {
    num_output: 50
    kernel_size: 5
    stride: 1
    weight_filler {
      type: "xavier"
    }
    bias_filler {
      type: "constant"
    }
  }
}
layer {
  name: "pool1"
  type: "Pooling"
  bottom: "conv1"
  top: "pool1"
  pooling_param {
    pool: MAX
    kernel_size: 2
    stride: 2
  }
}
layer {
  name: "ip1"
  type: "InnerProduct"
  bottom: "pool1"
  top: "ip1"
  param {
    lr_mult: 1
  }
  param {
    lr_mult: 2
  }
  inner_product_param {
    num_output: 10
    weight_filler {
      type: "xavier"
    }
    bias_filler {
      type: "constant"
    }
  }
}
layer {
  name: "relu1"
  type: "ReLU"
  bottom: "ip1"
  top: "ip1"
}
layer {
  name: "loss"
  type: "SoftmaxWithLoss"
  bottom: "ip1"
  bottom: "label"
  top: "loss"
}
I0428 20:10:20.744436 31817 layer_factory.hpp:77] Creating layer mnist
I0428 20:10:20.744515 31817 db_lmdb.cpp:35] Opened lmdb examples/mnist/mnist_train_lmdb
I0428 20:10:20.744552 31817 net.cpp:86] Creating Layer mnist
I0428 20:10:20.744560 31817 net.cpp:382] mnist -> data
I0428 20:10:20.744582 31817 net.cpp:382] mnist -> label
I0428 20:10:20.745604 31817 data_layer.cpp:45] output data size: 64,1,28,28
I0428 20:10:20.747822 31817 net.cpp:124] Setting up mnist
I0428 20:10:20.747849 31817 net.cpp:131] Top shape: 64 1 28 28 (50176)
I0428 20:10:20.747856 31817 net.cpp:131] Top shape: 64 (64)
I0428 20:10:20.747859 31817 net.cpp:139] Memory required for data: 200960
I0428 20:10:20.747865 31817 layer_factory.hpp:77] Creating layer conv0
I0428 20:10:20.747880 31817 net.cpp:86] Creating Layer conv0
I0428 20:10:20.747885 31817 net.cpp:408] conv0 <- data
I0428 20:10:20.747895 31817 net.cpp:382] conv0 -> conv0
I0428 20:10:20.978174 31817 net.cpp:124] Setting up conv0
I0428 20:10:20.978200 31817 net.cpp:131] Top shape: 64 25 24 24 (921600)
I0428 20:10:20.978204 31817 net.cpp:139] Memory required for data: 3887360
I0428 20:10:20.978219 31817 layer_factory.hpp:77] Creating layer pool0
I0428 20:10:20.978230 31817 net.cpp:86] Creating Layer pool0
I0428 20:10:20.978235 31817 net.cpp:408] pool0 <- conv0
I0428 20:10:20.978240 31817 net.cpp:382] pool0 -> pool0
I0428 20:10:20.978302 31817 net.cpp:124] Setting up pool0
I0428 20:10:20.978308 31817 net.cpp:131] Top shape: 64 25 12 12 (230400)
I0428 20:10:20.978327 31817 net.cpp:139] Memory required for data: 4808960
I0428 20:10:20.978329 31817 layer_factory.hpp:77] Creating layer conv1
I0428 20:10:20.978340 31817 net.cpp:86] Creating Layer conv1
I0428 20:10:20.978343 31817 net.cpp:408] conv1 <- pool0
I0428 20:10:20.978349 31817 net.cpp:382] conv1 -> conv1
I0428 20:10:20.980432 31817 net.cpp:124] Setting up conv1
I0428 20:10:20.980463 31817 net.cpp:131] Top shape: 64 50 8 8 (204800)
I0428 20:10:20.980466 31817 net.cpp:139] Memory required for data: 5628160
I0428 20:10:20.980489 31817 layer_factory.hpp:77] Creating layer pool1
I0428 20:10:20.980497 31817 net.cpp:86] Creating Layer pool1
I0428 20:10:20.980500 31817 net.cpp:408] pool1 <- conv1
I0428 20:10:20.980505 31817 net.cpp:382] pool1 -> pool1
I0428 20:10:20.980577 31817 net.cpp:124] Setting up pool1
I0428 20:10:20.980583 31817 net.cpp:131] Top shape: 64 50 4 4 (51200)
I0428 20:10:20.980587 31817 net.cpp:139] Memory required for data: 5832960
I0428 20:10:20.980589 31817 layer_factory.hpp:77] Creating layer ip1
I0428 20:10:20.980595 31817 net.cpp:86] Creating Layer ip1
I0428 20:10:20.980598 31817 net.cpp:408] ip1 <- pool1
I0428 20:10:20.980603 31817 net.cpp:382] ip1 -> ip1
I0428 20:10:20.981704 31817 net.cpp:124] Setting up ip1
I0428 20:10:20.981734 31817 net.cpp:131] Top shape: 64 10 (640)
I0428 20:10:20.981737 31817 net.cpp:139] Memory required for data: 5835520
I0428 20:10:20.981745 31817 layer_factory.hpp:77] Creating layer relu1
I0428 20:10:20.981752 31817 net.cpp:86] Creating Layer relu1
I0428 20:10:20.981756 31817 net.cpp:408] relu1 <- ip1
I0428 20:10:20.981761 31817 net.cpp:369] relu1 -> ip1 (in-place)
I0428 20:10:20.981945 31817 net.cpp:124] Setting up relu1
I0428 20:10:20.981955 31817 net.cpp:131] Top shape: 64 10 (640)
I0428 20:10:20.981957 31817 net.cpp:139] Memory required for data: 5838080
I0428 20:10:20.981961 31817 layer_factory.hpp:77] Creating layer loss
I0428 20:10:20.981966 31817 net.cpp:86] Creating Layer loss
I0428 20:10:20.981969 31817 net.cpp:408] loss <- ip1
I0428 20:10:20.981973 31817 net.cpp:408] loss <- label
I0428 20:10:20.981979 31817 net.cpp:382] loss -> loss
I0428 20:10:20.981994 31817 layer_factory.hpp:77] Creating layer loss
…
I0428 20:10:20.983352 31817 solver.cpp:173] Creating test net (#0) specified by net file: ECE595/mnist/train_test/var_everything2/lenet_train_test1132.prototxt
I0428 20:10:20.983377 31817 net.cpp:296] The NetState phase (1) differed from the phase (0) specified by a rule in layer mnist
I0428 20:10:20.983481 31817 net.cpp:53] Initializing net from parameters: 
name: "LeNet"
state {
  phase: TEST
}
layer {
  name: "mnist"
  type: "Data"
  top: "data"
  top: "label"
  include {
    phase: TEST
  }
  transform_param {
    scale: 0.00390625
  }
  data_param {
    source: "examples/mnist/mnist_test_lmdb"
    batch_size: 100
    backend: LMDB
  }
}
layer {
  name: "conv0"
  type: "Convolution"
  bottom: "data"
  top: "conv0"
  param {
    lr_mult: 1
  }
  param {
    lr_mult: 2
  }
  convolution_param {
    num_output: 25
    kernel_size: 5
    stride: 1
    weight_filler {
      type: "xavier"
    }
    bias_filler {
      type: "constant"
    }
  }
}
layer {
  name: "pool0"
  type: "Pooling"
  bottom: "conv0"
  top: "pool0"
  pooling_param {
    pool: MAX
    kernel_size: 2
    stride: 2
  }
}
layer {
  name: "conv1"
  type: "Convolution"
  bottom: "pool0"
  top: "conv1"
  param {
    lr_mult: 1
  }
  param {
    lr_mult: 2
  }
  convolution_param {
    num_output: 50
    kernel_size: 5
    stride: 1
    weight_filler {
      type: "xavier"
    }
    bias_filler {
      type: "constant"
    }
  }
}
layer {
  name: "pool1"
  type: "Pooling"
  bottom: "conv1"
  top: "pool1"
  pooling_param {
    pool: MAX
    kernel_size: 2
    stride: 2
  }
}
layer {
  name: "ip1"
  type: "InnerProduct"
  bottom: "pool1"
  top: "ip1"
  param {
    lr_mult: 1
  }
  param {
    lr_mult: 2
  }
  inner_product_param {
    num_output: 10
    weight_filler {
      type: "xavier"
    }
    bias_filler {
      type: "constant"
    }
  }
}
layer {
  name: "relu1"
  type: "ReLU"
  bottom: "ip1"
  top: "ip1"
}
layer {
  name: "accuracy"
  type: "Accuracy"
  bottom: "ip1"
  bottom: "label"
  top: "accuracy"
  include {
    phase: TEST
  }
}
layer {
  name: "loss"
  type: "SoftmaxWithLoss"
  bottom: "ip1"
  bottom: "label"
  top: "loss"
}
I0428 20:10:20.983551 31817 layer_factory.hpp:77] Creating layer mnist
I0428 20:10:20.983623 31817 db_lmdb.cpp:35] Opened lmdb examples/mnist/mnist_test_lmdb
I0428 20:10:20.983635 31817 net.cpp:86] Creating Layer mnist
I0428 20:10:20.983640 31817 net.cpp:382] mnist -> data
I0428 20:10:20.983647 31817 net.cpp:382] mnist -> label
I0428 20:10:20.983727 31817 data_layer.cpp:45] output data size: 100,1,28,28
I0428 20:10:20.985805 31817 net.cpp:124] Setting up mnist
I0428 20:10:20.985833 31817 net.cpp:131] Top shape: 100 1 28 28 (78400)
I0428 20:10:20.985841 31817 net.cpp:131] Top shape: 100 (100)
I0428 20:10:20.985843 31817 net.cpp:139] Memory required for data: 314000
I0428 20:10:20.985847 31817 layer_factory.hpp:77] Creating layer label_mnist_1_split
I0428 20:10:20.985854 31817 net.cpp:86] Creating Layer label_mnist_1_split
I0428 20:10:20.985857 31817 net.cpp:408] label_mnist_1_split <- label
I0428 20:10:20.985862 31817 net.cpp:382] label_mnist_1_split -> label_mnist_1_split_0
I0428 20:10:20.985869 31817 net.cpp:382] label_mnist_1_split -> label_mnist_1_split_1
I0428 20:10:20.985915 31817 net.cpp:124] Setting up label_mnist_1_split
I0428 20:10:20.985921 31817 net.cpp:131] Top shape: 100 (100)
I0428 20:10:20.985924 31817 net.cpp:131] Top shape: 100 (100)
I0428 20:10:20.985927 31817 net.cpp:139] Memory required for data: 314800
I0428 20:10:20.985930 31817 layer_factory.hpp:77] Creating layer conv0
I0428 20:10:20.985939 31817 net.cpp:86] Creating Layer conv0
I0428 20:10:20.985942 31817 net.cpp:408] conv0 <- data
I0428 20:10:20.985947 31817 net.cpp:382] conv0 -> conv0
I0428 20:10:20.986917 31817 net.cpp:124] Setting up conv0
I0428 20:10:20.986929 31817 net.cpp:131] Top shape: 100 25 24 24 (1440000)
I0428 20:10:20.986932 31817 net.cpp:139] Memory required for data: 6074800
I0428 20:10:20.986941 31817 layer_factory.hpp:77] Creating layer pool0
I0428 20:10:20.986963 31817 net.cpp:86] Creating Layer pool0
I0428 20:10:20.986966 31817 net.cpp:408] pool0 <- conv0
I0428 20:10:20.986971 31817 net.cpp:382] pool0 -> pool0
I0428 20:10:20.987006 31817 net.cpp:124] Setting up pool0
I0428 20:10:20.987011 31817 net.cpp:131] Top shape: 100 25 12 12 (360000)
I0428 20:10:20.987015 31817 net.cpp:139] Memory required for data: 7514800
I0428 20:10:20.987017 31817 layer_factory.hpp:77] Creating layer conv1
I0428 20:10:20.987025 31817 net.cpp:86] Creating Layer conv1
I0428 20:10:20.987028 31817 net.cpp:408] conv1 <- pool0
I0428 20:10:20.987033 31817 net.cpp:382] conv1 -> conv1
I0428 20:10:20.988682 31817 net.cpp:124] Setting up conv1
I0428 20:10:20.988694 31817 net.cpp:131] Top shape: 100 50 8 8 (320000)
I0428 20:10:20.988698 31817 net.cpp:139] Memory required for data: 8794800
I0428 20:10:20.988706 31817 layer_factory.hpp:77] Creating layer pool1
I0428 20:10:20.988729 31817 net.cpp:86] Creating Layer pool1
I0428 20:10:20.988742 31817 net.cpp:408] pool1 <- conv1
I0428 20:10:20.988749 31817 net.cpp:382] pool1 -> pool1
I0428 20:10:20.988785 31817 net.cpp:124] Setting up pool1
I0428 20:10:20.988790 31817 net.cpp:131] Top shape: 100 50 4 4 (80000)
I0428 20:10:20.988793 31817 net.cpp:139] Memory required for data: 9114800
I0428 20:10:20.988796 31817 layer_factory.hpp:77] Creating layer ip1
I0428 20:10:20.988802 31817 net.cpp:86] Creating Layer ip1
I0428 20:10:20.988806 31817 net.cpp:408] ip1 <- pool1
I0428 20:10:20.988816 31817 net.cpp:382] ip1 -> ip1
I0428 20:10:20.989043 31817 net.cpp:124] Setting up ip1
I0428 20:10:20.989053 31817 net.cpp:131] Top shape: 100 10 (1000)
I0428 20:10:20.989058 31817 net.cpp:139] Memory required for data: 9118800
I0428 20:10:20.989065 31817 layer_factory.hpp:77] Creating layer relu1
I0428 20:10:20.989071 31817 net.cpp:86] Creating Layer relu1
I0428 20:10:20.989075 31817 net.cpp:408] relu1 <- ip1
I0428 20:10:20.989080 31817 net.cpp:369] relu1 -> ip1 (in-place)
I0428 20:10:20.989933 31817 net.cpp:124] Setting up relu1
I0428 20:10:20.989946 31817 net.cpp:131] Top shape: 100 10 (1000)
I0428 20:10:20.989949 31817 net.cpp:139] Memory required for data: 9122800
I0428 20:10:20.989953 31817 layer_factory.hpp:77] Creating layer ip1_relu1_0_split
I0428 20:10:20.989961 31817 net.cpp:86] Creating Layer ip1_relu1_0_split
I0428 20:10:20.989964 31817 net.cpp:408] ip1_relu1_0_split <- ip1
I0428 20:10:20.989970 31817 net.cpp:382] ip1_relu1_0_split -> ip1_relu1_0_split_0
I0428 20:10:20.989977 31817 net.cpp:382] ip1_relu1_0_split -> ip1_relu1_0_split_1
I0428 20:10:20.990036 31817 net.cpp:124] Setting up ip1_relu1_0_split
I0428 20:10:20.990042 31817 net.cpp:131] Top shape: 100 10 (1000)
I0428 20:10:20.990046 31817 net.cpp:131] Top shape: 100 10 (1000)
I0428 20:10:20.990049 31817 net.cpp:139] Memory required for data: 9130800
I0428 20:10:20.990052 31817 layer_factory.hpp:77] Creating layer accuracy
I0428 20:10:20.990057 31817 net.cpp:86] Creating Layer accuracy
I0428 20:10:20.990061 31817 net.cpp:408] accuracy <- ip1_relu1_0_split_0
I0428 20:10:20.990066 31817 net.cpp:408] accuracy <- label_mnist_1_split_0
I0428 20:10:20.990069 31817 net.cpp:382] accuracy -> accuracy
…
