…
I0428 19:31:34.226222 22611 net.cpp:296] The NetState phase (0) differed from the phase (1) specified by a rule in layer mnist
I0428 19:31:34.226236 22611 net.cpp:296] The NetState phase (0) differed from the phase (1) specified by a rule in layer accuracy
I0428 19:31:34.226317 22611 net.cpp:53] Initializing net from parameters: 
name: "LeNet"
state {
  phase: TRAIN
  level: 0
  stage: ""
}
layer {
  name: "mnist"
  type: "Data"
  top: "data"
  top: "label"
  include {
    phase: TRAIN
  }
  transform_param {
    scale: 0.00390625
  }
  data_param {
    source: "examples/mnist/mnist_train_lmdb"
    batch_size: 64
    backend: LMDB
  }
}
layer {
  name: "conv0"
  type: "Convolution"
  bottom: "data"
  top: "conv0"
  param {
    lr_mult: 1
  }
  param {
    lr_mult: 2
  }
  convolution_param {
    num_output: 10
    kernel_size: 5
    stride: 1
    weight_filler {
      type: "xavier"
    }
    bias_filler {
      type: "constant"
    }
  }
}
layer {
  name: "pool0"
  type: "Pooling"
  bottom: "conv0"
  top: "pool0"
  pooling_param {
    pool: MAX
    kernel_size: 2
    stride: 2
  }
}
layer {
  name: "ip1"
  type: "InnerProduct"
  bottom: "pool0"
  top: "ip1"
  param {
    lr_mult: 1
  }
  param {
    lr_mult: 2
  }
  inner_product_param {
    num_output: 50
    weight_filler {
      type: "xavier"
    }
    bias_filler {
      type: "constant"
    }
  }
}
layer {
  name: "relu1"
  type: "ReLU"
  bottom: "ip1"
  top: "ip1"
}
layer {
  name: "ip2"
  type: "InnerProduct"
  bottom: "ip1"
  top: "ip2"
  param {
    lr_mult: 1
  }
  param {
    lr_mult: 2
  }
  inner_product_param {
    num_output: 10
    weight_filler {
      type: "xavier"
    }
    bias_filler {
      type: "constant"
    }
  }
}
layer {
  name: "relu2"
  type: "ReLU"
  bottom: "ip2"
  top: "ip2"
}
layer {
  name: "loss"
  type: "SoftmaxWithLoss"
  bottom: "ip2"
  bottom: "label"
  top: "loss"
}
I0428 19:31:34.226387 22611 layer_factory.hpp:77] Creating layer mnist
I0428 19:31:34.226486 22611 db_lmdb.cpp:35] Opened lmdb examples/mnist/mnist_train_lmdb
I0428 19:31:34.226511 22611 net.cpp:86] Creating Layer mnist
I0428 19:31:34.226519 22611 net.cpp:382] mnist -> data
I0428 19:31:34.226543 22611 net.cpp:382] mnist -> label
I0428 19:31:34.227638 22611 data_layer.cpp:45] output data size: 64,1,28,28
I0428 19:31:34.230087 22611 net.cpp:124] Setting up mnist
I0428 19:31:34.230108 22611 net.cpp:131] Top shape: 64 1 28 28 (50176)
I0428 19:31:34.230118 22611 net.cpp:131] Top shape: 64 (64)
I0428 19:31:34.230121 22611 net.cpp:139] Memory required for data: 200960
I0428 19:31:34.230129 22611 layer_factory.hpp:77] Creating layer conv0
I0428 19:31:34.230145 22611 net.cpp:86] Creating Layer conv0
I0428 19:31:34.230152 22611 net.cpp:408] conv0 <- data
I0428 19:31:34.230165 22611 net.cpp:382] conv0 -> conv0
I0428 19:31:34.523864 22611 net.cpp:124] Setting up conv0
I0428 19:31:34.523895 22611 net.cpp:131] Top shape: 64 10 24 24 (368640)
I0428 19:31:34.523900 22611 net.cpp:139] Memory required for data: 1675520
I0428 19:31:34.523917 22611 layer_factory.hpp:77] Creating layer pool0
I0428 19:31:34.523938 22611 net.cpp:86] Creating Layer pool0
I0428 19:31:34.523946 22611 net.cpp:408] pool0 <- conv0
I0428 19:31:34.523953 22611 net.cpp:382] pool0 -> pool0
I0428 19:31:34.524013 22611 net.cpp:124] Setting up pool0
I0428 19:31:34.524020 22611 net.cpp:131] Top shape: 64 10 12 12 (92160)
I0428 19:31:34.524024 22611 net.cpp:139] Memory required for data: 2044160
I0428 19:31:34.524046 22611 layer_factory.hpp:77] Creating layer ip1
I0428 19:31:34.524058 22611 net.cpp:86] Creating Layer ip1
I0428 19:31:34.524062 22611 net.cpp:408] ip1 <- pool0
I0428 19:31:34.524068 22611 net.cpp:382] ip1 -> ip1
I0428 19:31:34.525626 22611 net.cpp:124] Setting up ip1
I0428 19:31:34.525642 22611 net.cpp:131] Top shape: 64 50 (3200)
I0428 19:31:34.525646 22611 net.cpp:139] Memory required for data: 2056960
I0428 19:31:34.525656 22611 layer_factory.hpp:77] Creating layer relu1
I0428 19:31:34.525670 22611 net.cpp:86] Creating Layer relu1
I0428 19:31:34.525676 22611 net.cpp:408] relu1 <- ip1
I0428 19:31:34.525681 22611 net.cpp:369] relu1 -> ip1 (in-place)
I0428 19:31:34.525880 22611 net.cpp:124] Setting up relu1
I0428 19:31:34.525890 22611 net.cpp:131] Top shape: 64 50 (3200)
I0428 19:31:34.525894 22611 net.cpp:139] Memory required for data: 2069760
I0428 19:31:34.525898 22611 layer_factory.hpp:77] Creating layer ip2
I0428 19:31:34.525907 22611 net.cpp:86] Creating Layer ip2
I0428 19:31:34.525910 22611 net.cpp:408] ip2 <- ip1
I0428 19:31:34.525916 22611 net.cpp:382] ip2 -> ip2
I0428 19:31:34.526034 22611 net.cpp:124] Setting up ip2
I0428 19:31:34.526042 22611 net.cpp:131] Top shape: 64 10 (640)
I0428 19:31:34.526046 22611 net.cpp:139] Memory required for data: 2072320
I0428 19:31:34.526056 22611 layer_factory.hpp:77] Creating layer relu2
I0428 19:31:34.526062 22611 net.cpp:86] Creating Layer relu2
I0428 19:31:34.526067 22611 net.cpp:408] relu2 <- ip2
I0428 19:31:34.526072 22611 net.cpp:369] relu2 -> ip2 (in-place)
I0428 19:31:34.526897 22611 net.cpp:124] Setting up relu2
I0428 19:31:34.526912 22611 net.cpp:131] Top shape: 64 10 (640)
I0428 19:31:34.526916 22611 net.cpp:139] Memory required for data: 2074880
I0428 19:31:34.526921 22611 layer_factory.hpp:77] Creating layer loss
I0428 19:31:34.526928 22611 net.cpp:86] Creating Layer loss
I0428 19:31:34.526932 22611 net.cpp:408] loss <- ip2
I0428 19:31:34.526938 22611 net.cpp:408] loss <- label
I0428 19:31:34.526944 22611 net.cpp:382] loss -> loss
I0428 19:31:34.526963 22611 layer_factory.hpp:77] Creating layer loss
…
I0428 19:31:34.527592 22611 solver.cpp:173] Creating test net (#0) specified by net file: ECE595/mnist/train_test/var_everything2/lenet_train_test126.prototxt
I0428 19:31:34.527621 22611 net.cpp:296] The NetState phase (1) differed from the phase (0) specified by a rule in layer mnist
I0428 19:31:34.527706 22611 net.cpp:53] Initializing net from parameters: 
name: "LeNet"
state {
  phase: TEST
}
layer {
  name: "mnist"
  type: "Data"
  top: "data"
  top: "label"
  include {
    phase: TEST
  }
  transform_param {
    scale: 0.00390625
  }
  data_param {
    source: "examples/mnist/mnist_test_lmdb"
    batch_size: 100
    backend: LMDB
  }
}
layer {
  name: "conv0"
  type: "Convolution"
  bottom: "data"
  top: "conv0"
  param {
    lr_mult: 1
  }
  param {
    lr_mult: 2
  }
  convolution_param {
    num_output: 10
    kernel_size: 5
    stride: 1
    weight_filler {
      type: "xavier"
    }
    bias_filler {
      type: "constant"
    }
  }
}
layer {
  name: "pool0"
  type: "Pooling"
  bottom: "conv0"
  top: "pool0"
  pooling_param {
    pool: MAX
    kernel_size: 2
    stride: 2
  }
}
layer {
  name: "ip1"
  type: "InnerProduct"
  bottom: "pool0"
  top: "ip1"
  param {
    lr_mult: 1
  }
  param {
    lr_mult: 2
  }
  inner_product_param {
    num_output: 50
    weight_filler {
      type: "xavier"
    }
    bias_filler {
      type: "constant"
    }
  }
}
layer {
  name: "relu1"
  type: "ReLU"
  bottom: "ip1"
  top: "ip1"
}
layer {
  name: "ip2"
  type: "InnerProduct"
  bottom: "ip1"
  top: "ip2"
  param {
    lr_mult: 1
  }
  param {
    lr_mult: 2
  }
  inner_product_param {
    num_output: 10
    weight_filler {
      type: "xavier"
    }
    bias_filler {
      type: "constant"
    }
  }
}
layer {
  name: "relu2"
  type: "ReLU"
  bottom: "ip2"
  top: "ip2"
}
layer {
  name: "accuracy"
  type: "Accuracy"
  bottom: "ip2"
  bottom: "label"
  top: "accuracy"
  include {
    phase: TEST
  }
}
layer {
  name: "loss"
  type: "SoftmaxWithLoss"
  bottom: "ip2"
  bottom: "label"
  top: "loss"
}
I0428 19:31:34.527788 22611 layer_factory.hpp:77] Creating layer mnist
I0428 19:31:34.527839 22611 db_lmdb.cpp:35] Opened lmdb examples/mnist/mnist_test_lmdb
I0428 19:31:34.527853 22611 net.cpp:86] Creating Layer mnist
I0428 19:31:34.527858 22611 net.cpp:382] mnist -> data
I0428 19:31:34.527868 22611 net.cpp:382] mnist -> label
I0428 19:31:34.527969 22611 data_layer.cpp:45] output data size: 100,1,28,28
I0428 19:31:34.529397 22611 net.cpp:124] Setting up mnist
I0428 19:31:34.529412 22611 net.cpp:131] Top shape: 100 1 28 28 (78400)
I0428 19:31:34.529418 22611 net.cpp:131] Top shape: 100 (100)
I0428 19:31:34.529423 22611 net.cpp:139] Memory required for data: 314000
I0428 19:31:34.529428 22611 layer_factory.hpp:77] Creating layer label_mnist_1_split
I0428 19:31:34.529436 22611 net.cpp:86] Creating Layer label_mnist_1_split
I0428 19:31:34.529440 22611 net.cpp:408] label_mnist_1_split <- label
I0428 19:31:34.529446 22611 net.cpp:382] label_mnist_1_split -> label_mnist_1_split_0
I0428 19:31:34.529453 22611 net.cpp:382] label_mnist_1_split -> label_mnist_1_split_1
I0428 19:31:34.529508 22611 net.cpp:124] Setting up label_mnist_1_split
I0428 19:31:34.529516 22611 net.cpp:131] Top shape: 100 (100)
I0428 19:31:34.529520 22611 net.cpp:131] Top shape: 100 (100)
I0428 19:31:34.529525 22611 net.cpp:139] Memory required for data: 314800
I0428 19:31:34.529527 22611 layer_factory.hpp:77] Creating layer conv0
I0428 19:31:34.529537 22611 net.cpp:86] Creating Layer conv0
I0428 19:31:34.529543 22611 net.cpp:408] conv0 <- data
I0428 19:31:34.529548 22611 net.cpp:382] conv0 -> conv0
I0428 19:31:34.531360 22611 net.cpp:124] Setting up conv0
I0428 19:31:34.531376 22611 net.cpp:131] Top shape: 100 10 24 24 (576000)
I0428 19:31:34.531381 22611 net.cpp:139] Memory required for data: 2618800
I0428 19:31:34.531393 22611 layer_factory.hpp:77] Creating layer pool0
I0428 19:31:34.531401 22611 net.cpp:86] Creating Layer pool0
I0428 19:31:34.531405 22611 net.cpp:408] pool0 <- conv0
I0428 19:31:34.531411 22611 net.cpp:382] pool0 -> pool0
I0428 19:31:34.531453 22611 net.cpp:124] Setting up pool0
I0428 19:31:34.531461 22611 net.cpp:131] Top shape: 100 10 12 12 (144000)
I0428 19:31:34.531464 22611 net.cpp:139] Memory required for data: 3194800
I0428 19:31:34.531468 22611 layer_factory.hpp:77] Creating layer ip1
I0428 19:31:34.531476 22611 net.cpp:86] Creating Layer ip1
I0428 19:31:34.531479 22611 net.cpp:408] ip1 <- pool0
I0428 19:31:34.531486 22611 net.cpp:382] ip1 -> ip1
I0428 19:31:34.532119 22611 net.cpp:124] Setting up ip1
I0428 19:31:34.532127 22611 net.cpp:131] Top shape: 100 50 (5000)
I0428 19:31:34.532131 22611 net.cpp:139] Memory required for data: 3214800
I0428 19:31:34.532140 22611 layer_factory.hpp:77] Creating layer relu1
I0428 19:31:34.532147 22611 net.cpp:86] Creating Layer relu1
I0428 19:31:34.532152 22611 net.cpp:408] relu1 <- ip1
I0428 19:31:34.532157 22611 net.cpp:369] relu1 -> ip1 (in-place)
I0428 19:31:34.532394 22611 net.cpp:124] Setting up relu1
I0428 19:31:34.532404 22611 net.cpp:131] Top shape: 100 50 (5000)
I0428 19:31:34.532428 22611 net.cpp:139] Memory required for data: 3234800
I0428 19:31:34.532431 22611 layer_factory.hpp:77] Creating layer ip2
I0428 19:31:34.532439 22611 net.cpp:86] Creating Layer ip2
I0428 19:31:34.532444 22611 net.cpp:408] ip2 <- ip1
I0428 19:31:34.532449 22611 net.cpp:382] ip2 -> ip2
I0428 19:31:34.532562 22611 net.cpp:124] Setting up ip2
I0428 19:31:34.532572 22611 net.cpp:131] Top shape: 100 10 (1000)
I0428 19:31:34.532575 22611 net.cpp:139] Memory required for data: 3238800
I0428 19:31:34.532583 22611 layer_factory.hpp:77] Creating layer relu2
I0428 19:31:34.532591 22611 net.cpp:86] Creating Layer relu2
I0428 19:31:34.532596 22611 net.cpp:408] relu2 <- ip2
I0428 19:31:34.532601 22611 net.cpp:369] relu2 -> ip2 (in-place)
I0428 19:31:34.532769 22611 net.cpp:124] Setting up relu2
I0428 19:31:34.532778 22611 net.cpp:131] Top shape: 100 10 (1000)
I0428 19:31:34.532783 22611 net.cpp:139] Memory required for data: 3242800
I0428 19:31:34.532786 22611 layer_factory.hpp:77] Creating layer ip2_relu2_0_split
I0428 19:31:34.532793 22611 net.cpp:86] Creating Layer ip2_relu2_0_split
I0428 19:31:34.532797 22611 net.cpp:408] ip2_relu2_0_split <- ip2
I0428 19:31:34.532804 22611 net.cpp:382] ip2_relu2_0_split -> ip2_relu2_0_split_0
I0428 19:31:34.532819 22611 net.cpp:382] ip2_relu2_0_split -> ip2_relu2_0_split_1
I0428 19:31:34.532860 22611 net.cpp:124] Setting up ip2_relu2_0_split
I0428 19:31:34.532867 22611 net.cpp:131] Top shape: 100 10 (1000)
I0428 19:31:34.532893 22611 net.cpp:131] Top shape: 100 10 (1000)
I0428 19:31:34.532897 22611 net.cpp:139] Memory required for data: 3250800
I0428 19:31:34.532909 22611 layer_factory.hpp:77] Creating layer accuracy
I0428 19:31:34.532915 22611 net.cpp:86] Creating Layer accuracy
I0428 19:31:34.532919 22611 net.cpp:408] accuracy <- ip2_relu2_0_split_0
I0428 19:31:34.532925 22611 net.cpp:408] accuracy <- label_mnist_1_split_0
I0428 19:31:34.532930 22611 net.cpp:382] accuracy -> accuracy
…
