…
I0428 19:29:27.815548 22025 net.cpp:296] The NetState phase (0) differed from the phase (1) specified by a rule in layer mnist
I0428 19:29:27.815562 22025 net.cpp:296] The NetState phase (0) differed from the phase (1) specified by a rule in layer accuracy
I0428 19:29:27.815646 22025 net.cpp:53] Initializing net from parameters: 
name: "LeNet"
state {
  phase: TRAIN
  level: 0
  stage: ""
}
layer {
  name: "mnist"
  type: "Data"
  top: "data"
  top: "label"
  include {
    phase: TRAIN
  }
  transform_param {
    scale: 0.00390625
  }
  data_param {
    source: "examples/mnist/mnist_train_lmdb"
    batch_size: 64
    backend: LMDB
  }
}
layer {
  name: "conv0"
  type: "Convolution"
  bottom: "data"
  top: "conv0"
  param {
    lr_mult: 1
  }
  param {
    lr_mult: 2
  }
  convolution_param {
    num_output: 2
    kernel_size: 5
    stride: 1
    weight_filler {
      type: "xavier"
    }
    bias_filler {
      type: "constant"
    }
  }
}
layer {
  name: "pool0"
  type: "Pooling"
  bottom: "conv0"
  top: "pool0"
  pooling_param {
    pool: MAX
    kernel_size: 2
    stride: 2
  }
}
layer {
  name: "ip1"
  type: "InnerProduct"
  bottom: "pool0"
  top: "ip1"
  param {
    lr_mult: 1
  }
  param {
    lr_mult: 2
  }
  inner_product_param {
    num_output: 10
    weight_filler {
      type: "xavier"
    }
    bias_filler {
      type: "constant"
    }
  }
}
layer {
  name: "relu1"
  type: "ReLU"
  bottom: "ip1"
  top: "ip1"
}
layer {
  name: "ip2"
  type: "InnerProduct"
  bottom: "ip1"
  top: "ip2"
  param {
    lr_mult: 1
  }
  param {
    lr_mult: 2
  }
  inner_product_param {
    num_output: 50
    weight_filler {
      type: "xavier"
    }
    bias_filler {
      type: "constant"
    }
  }
}
layer {
  name: "relu2"
  type: "ReLU"
  bottom: "ip2"
  top: "ip2"
}
layer {
  name: "ip3"
  type: "InnerProduct"
  bottom: "ip2"
  top: "ip3"
  param {
    lr_mult: 1
  }
  param {
    lr_mult: 2
  }
  inner_product_param {
    num_output: 10
    weight_filler {
      type: "xavier"
    }
    bias_filler {
      type: "constant"
    }
  }
}
layer {
  name: "relu3"
  type: "ReLU"
  bottom: "ip3"
  top: "ip3"
}
layer {
  name: "loss"
  type: "SoftmaxWithLoss"
  bottom: "ip3"
  bottom: "label"
  top: "loss"
}
I0428 19:29:27.815711 22025 layer_factory.hpp:77] Creating layer mnist
I0428 19:29:27.815809 22025 db_lmdb.cpp:35] Opened lmdb examples/mnist/mnist_train_lmdb
I0428 19:29:27.815836 22025 net.cpp:86] Creating Layer mnist
I0428 19:29:27.815846 22025 net.cpp:382] mnist -> data
I0428 19:29:27.815870 22025 net.cpp:382] mnist -> label
I0428 19:29:27.816967 22025 data_layer.cpp:45] output data size: 64,1,28,28
I0428 19:29:27.819425 22025 net.cpp:124] Setting up mnist
I0428 19:29:27.819444 22025 net.cpp:131] Top shape: 64 1 28 28 (50176)
I0428 19:29:27.819453 22025 net.cpp:131] Top shape: 64 (64)
I0428 19:29:27.819458 22025 net.cpp:139] Memory required for data: 200960
I0428 19:29:27.819464 22025 layer_factory.hpp:77] Creating layer conv0
I0428 19:29:27.819480 22025 net.cpp:86] Creating Layer conv0
I0428 19:29:27.819488 22025 net.cpp:408] conv0 <- data
I0428 19:29:27.819499 22025 net.cpp:382] conv0 -> conv0
I0428 19:29:28.103221 22025 net.cpp:124] Setting up conv0
I0428 19:29:28.103250 22025 net.cpp:131] Top shape: 64 2 24 24 (73728)
I0428 19:29:28.103253 22025 net.cpp:139] Memory required for data: 495872
I0428 19:29:28.103268 22025 layer_factory.hpp:77] Creating layer pool0
I0428 19:29:28.103282 22025 net.cpp:86] Creating Layer pool0
I0428 19:29:28.103305 22025 net.cpp:408] pool0 <- conv0
I0428 19:29:28.103312 22025 net.cpp:382] pool0 -> pool0
I0428 19:29:28.103358 22025 net.cpp:124] Setting up pool0
I0428 19:29:28.103366 22025 net.cpp:131] Top shape: 64 2 12 12 (18432)
I0428 19:29:28.103370 22025 net.cpp:139] Memory required for data: 569600
I0428 19:29:28.103374 22025 layer_factory.hpp:77] Creating layer ip1
I0428 19:29:28.103381 22025 net.cpp:86] Creating Layer ip1
I0428 19:29:28.103384 22025 net.cpp:408] ip1 <- pool0
I0428 19:29:28.103389 22025 net.cpp:382] ip1 -> ip1
I0428 19:29:28.104317 22025 net.cpp:124] Setting up ip1
I0428 19:29:28.104347 22025 net.cpp:131] Top shape: 64 10 (640)
I0428 19:29:28.104351 22025 net.cpp:139] Memory required for data: 572160
I0428 19:29:28.104359 22025 layer_factory.hpp:77] Creating layer relu1
I0428 19:29:28.104367 22025 net.cpp:86] Creating Layer relu1
I0428 19:29:28.104370 22025 net.cpp:408] relu1 <- ip1
I0428 19:29:28.104374 22025 net.cpp:369] relu1 -> ip1 (in-place)
I0428 19:29:28.104564 22025 net.cpp:124] Setting up relu1
I0428 19:29:28.104574 22025 net.cpp:131] Top shape: 64 10 (640)
I0428 19:29:28.104578 22025 net.cpp:139] Memory required for data: 574720
I0428 19:29:28.104581 22025 layer_factory.hpp:77] Creating layer ip2
I0428 19:29:28.104604 22025 net.cpp:86] Creating Layer ip2
I0428 19:29:28.104606 22025 net.cpp:408] ip2 <- ip1
I0428 19:29:28.104612 22025 net.cpp:382] ip2 -> ip2
I0428 19:29:28.104717 22025 net.cpp:124] Setting up ip2
I0428 19:29:28.104725 22025 net.cpp:131] Top shape: 64 50 (3200)
I0428 19:29:28.104728 22025 net.cpp:139] Memory required for data: 587520
I0428 19:29:28.104735 22025 layer_factory.hpp:77] Creating layer relu2
I0428 19:29:28.104740 22025 net.cpp:86] Creating Layer relu2
I0428 19:29:28.104743 22025 net.cpp:408] relu2 <- ip2
I0428 19:29:28.104748 22025 net.cpp:369] relu2 -> ip2 (in-place)
I0428 19:29:28.105607 22025 net.cpp:124] Setting up relu2
I0428 19:29:28.105620 22025 net.cpp:131] Top shape: 64 50 (3200)
I0428 19:29:28.105624 22025 net.cpp:139] Memory required for data: 600320
I0428 19:29:28.105628 22025 layer_factory.hpp:77] Creating layer ip3
I0428 19:29:28.105634 22025 net.cpp:86] Creating Layer ip3
I0428 19:29:28.105638 22025 net.cpp:408] ip3 <- ip2
I0428 19:29:28.105643 22025 net.cpp:382] ip3 -> ip3
I0428 19:29:28.105741 22025 net.cpp:124] Setting up ip3
I0428 19:29:28.105748 22025 net.cpp:131] Top shape: 64 10 (640)
I0428 19:29:28.105751 22025 net.cpp:139] Memory required for data: 602880
I0428 19:29:28.105757 22025 layer_factory.hpp:77] Creating layer relu3
I0428 19:29:28.105763 22025 net.cpp:86] Creating Layer relu3
I0428 19:29:28.105767 22025 net.cpp:408] relu3 <- ip3
I0428 19:29:28.105770 22025 net.cpp:369] relu3 -> ip3 (in-place)
I0428 19:29:28.105917 22025 net.cpp:124] Setting up relu3
I0428 19:29:28.105927 22025 net.cpp:131] Top shape: 64 10 (640)
I0428 19:29:28.105931 22025 net.cpp:139] Memory required for data: 605440
I0428 19:29:28.105934 22025 layer_factory.hpp:77] Creating layer loss
I0428 19:29:28.105940 22025 net.cpp:86] Creating Layer loss
I0428 19:29:28.105943 22025 net.cpp:408] loss <- ip3
I0428 19:29:28.105947 22025 net.cpp:408] loss <- label
I0428 19:29:28.105952 22025 net.cpp:382] loss -> loss
I0428 19:29:28.105970 22025 layer_factory.hpp:77] Creating layer loss
…
I0428 19:29:28.106576 22025 solver.cpp:173] Creating test net (#0) specified by net file: ECE595/mnist/train_test/var_everything2/lenet_train_test59.prototxt
I0428 19:29:28.106603 22025 net.cpp:296] The NetState phase (1) differed from the phase (0) specified by a rule in layer mnist
I0428 19:29:28.106688 22025 net.cpp:53] Initializing net from parameters: 
name: "LeNet"
state {
  phase: TEST
}
layer {
  name: "mnist"
  type: "Data"
  top: "data"
  top: "label"
  include {
    phase: TEST
  }
  transform_param {
    scale: 0.00390625
  }
  data_param {
    source: "examples/mnist/mnist_test_lmdb"
    batch_size: 100
    backend: LMDB
  }
}
layer {
  name: "conv0"
  type: "Convolution"
  bottom: "data"
  top: "conv0"
  param {
    lr_mult: 1
  }
  param {
    lr_mult: 2
  }
  convolution_param {
    num_output: 2
    kernel_size: 5
    stride: 1
    weight_filler {
      type: "xavier"
    }
    bias_filler {
      type: "constant"
    }
  }
}
layer {
  name: "pool0"
  type: "Pooling"
  bottom: "conv0"
  top: "pool0"
  pooling_param {
    pool: MAX
    kernel_size: 2
    stride: 2
  }
}
layer {
  name: "ip1"
  type: "InnerProduct"
  bottom: "pool0"
  top: "ip1"
  param {
    lr_mult: 1
  }
  param {
    lr_mult: 2
  }
  inner_product_param {
    num_output: 10
    weight_filler {
      type: "xavier"
    }
    bias_filler {
      type: "constant"
    }
  }
}
layer {
  name: "relu1"
  type: "ReLU"
  bottom: "ip1"
  top: "ip1"
}
layer {
  name: "ip2"
  type: "InnerProduct"
  bottom: "ip1"
  top: "ip2"
  param {
    lr_mult: 1
  }
  param {
    lr_mult: 2
  }
  inner_product_param {
    num_output: 50
    weight_filler {
      type: "xavier"
    }
    bias_filler {
      type: "constant"
    }
  }
}
layer {
  name: "relu2"
  type: "ReLU"
  bottom: "ip2"
  top: "ip2"
}
layer {
  name: "ip3"
  type: "InnerProduct"
  bottom: "ip2"
  top: "ip3"
  param {
    lr_mult: 1
  }
  param {
    lr_mult: 2
  }
  inner_product_param {
    num_output: 10
    weight_filler {
      type: "xavier"
    }
    bias_filler {
      type: "constant"
    }
  }
}
layer {
  name: "relu3"
  type: "ReLU"
  bottom: "ip3"
  top: "ip3"
}
layer {
  name: "accuracy"
  type: "Accuracy"
  bottom: "ip3"
  bottom: "label"
  top: "accuracy"
  include {
    phase: TEST
  }
}
layer {
  name: "loss"
  type: "SoftmaxWithLoss"
  bottom: "ip3"
  bottom: "label"
  top: "loss"
}
I0428 19:29:28.106778 22025 layer_factory.hpp:77] Creating layer mnist
I0428 19:29:28.106819 22025 db_lmdb.cpp:35] Opened lmdb examples/mnist/mnist_test_lmdb
I0428 19:29:28.106832 22025 net.cpp:86] Creating Layer mnist
I0428 19:29:28.106835 22025 net.cpp:382] mnist -> data
I0428 19:29:28.106842 22025 net.cpp:382] mnist -> label
I0428 19:29:28.106925 22025 data_layer.cpp:45] output data size: 100,1,28,28
I0428 19:29:28.108824 22025 net.cpp:124] Setting up mnist
I0428 19:29:28.108853 22025 net.cpp:131] Top shape: 100 1 28 28 (78400)
I0428 19:29:28.108858 22025 net.cpp:131] Top shape: 100 (100)
I0428 19:29:28.108861 22025 net.cpp:139] Memory required for data: 314000
I0428 19:29:28.108866 22025 layer_factory.hpp:77] Creating layer label_mnist_1_split
I0428 19:29:28.108892 22025 net.cpp:86] Creating Layer label_mnist_1_split
I0428 19:29:28.108896 22025 net.cpp:408] label_mnist_1_split <- label
I0428 19:29:28.108901 22025 net.cpp:382] label_mnist_1_split -> label_mnist_1_split_0
I0428 19:29:28.108908 22025 net.cpp:382] label_mnist_1_split -> label_mnist_1_split_1
I0428 19:29:28.108947 22025 net.cpp:124] Setting up label_mnist_1_split
I0428 19:29:28.108952 22025 net.cpp:131] Top shape: 100 (100)
I0428 19:29:28.108955 22025 net.cpp:131] Top shape: 100 (100)
I0428 19:29:28.108973 22025 net.cpp:139] Memory required for data: 314800
I0428 19:29:28.108985 22025 layer_factory.hpp:77] Creating layer conv0
I0428 19:29:28.108994 22025 net.cpp:86] Creating Layer conv0
I0428 19:29:28.108997 22025 net.cpp:408] conv0 <- data
I0428 19:29:28.109002 22025 net.cpp:382] conv0 -> conv0
I0428 19:29:28.110782 22025 net.cpp:124] Setting up conv0
I0428 19:29:28.110796 22025 net.cpp:131] Top shape: 100 2 24 24 (115200)
I0428 19:29:28.110801 22025 net.cpp:139] Memory required for data: 775600
I0428 19:29:28.110810 22025 layer_factory.hpp:77] Creating layer pool0
I0428 19:29:28.110816 22025 net.cpp:86] Creating Layer pool0
I0428 19:29:28.110821 22025 net.cpp:408] pool0 <- conv0
I0428 19:29:28.110824 22025 net.cpp:382] pool0 -> pool0
I0428 19:29:28.110859 22025 net.cpp:124] Setting up pool0
I0428 19:29:28.110864 22025 net.cpp:131] Top shape: 100 2 12 12 (28800)
I0428 19:29:28.110867 22025 net.cpp:139] Memory required for data: 890800
I0428 19:29:28.110870 22025 layer_factory.hpp:77] Creating layer ip1
I0428 19:29:28.110877 22025 net.cpp:86] Creating Layer ip1
I0428 19:29:28.110880 22025 net.cpp:408] ip1 <- pool0
I0428 19:29:28.110884 22025 net.cpp:382] ip1 -> ip1
I0428 19:29:28.110988 22025 net.cpp:124] Setting up ip1
I0428 19:29:28.110996 22025 net.cpp:131] Top shape: 100 10 (1000)
I0428 19:29:28.110999 22025 net.cpp:139] Memory required for data: 894800
I0428 19:29:28.111006 22025 layer_factory.hpp:77] Creating layer relu1
I0428 19:29:28.111011 22025 net.cpp:86] Creating Layer relu1
I0428 19:29:28.111013 22025 net.cpp:408] relu1 <- ip1
I0428 19:29:28.111018 22025 net.cpp:369] relu1 -> ip1 (in-place)
I0428 19:29:28.111171 22025 net.cpp:124] Setting up relu1
I0428 19:29:28.111181 22025 net.cpp:131] Top shape: 100 10 (1000)
I0428 19:29:28.111183 22025 net.cpp:139] Memory required for data: 898800
I0428 19:29:28.111186 22025 layer_factory.hpp:77] Creating layer ip2
I0428 19:29:28.111192 22025 net.cpp:86] Creating Layer ip2
I0428 19:29:28.111196 22025 net.cpp:408] ip2 <- ip1
I0428 19:29:28.111201 22025 net.cpp:382] ip2 -> ip2
I0428 19:29:28.111297 22025 net.cpp:124] Setting up ip2
I0428 19:29:28.111304 22025 net.cpp:131] Top shape: 100 50 (5000)
I0428 19:29:28.111307 22025 net.cpp:139] Memory required for data: 918800
I0428 19:29:28.111315 22025 layer_factory.hpp:77] Creating layer relu2
I0428 19:29:28.111318 22025 net.cpp:86] Creating Layer relu2
I0428 19:29:28.111322 22025 net.cpp:408] relu2 <- ip2
I0428 19:29:28.111326 22025 net.cpp:369] relu2 -> ip2 (in-place)
I0428 19:29:28.112238 22025 net.cpp:124] Setting up relu2
I0428 19:29:28.112251 22025 net.cpp:131] Top shape: 100 50 (5000)
I0428 19:29:28.112256 22025 net.cpp:139] Memory required for data: 938800
I0428 19:29:28.112259 22025 layer_factory.hpp:77] Creating layer ip3
I0428 19:29:28.112267 22025 net.cpp:86] Creating Layer ip3
I0428 19:29:28.112270 22025 net.cpp:408] ip3 <- ip2
I0428 19:29:28.112277 22025 net.cpp:382] ip3 -> ip3
I0428 19:29:28.112437 22025 net.cpp:124] Setting up ip3
I0428 19:29:28.112445 22025 net.cpp:131] Top shape: 100 10 (1000)
I0428 19:29:28.112448 22025 net.cpp:139] Memory required for data: 942800
I0428 19:29:28.112454 22025 layer_factory.hpp:77] Creating layer relu3
I0428 19:29:28.112458 22025 net.cpp:86] Creating Layer relu3
I0428 19:29:28.112462 22025 net.cpp:408] relu3 <- ip3
I0428 19:29:28.112467 22025 net.cpp:369] relu3 -> ip3 (in-place)
I0428 19:29:28.112614 22025 net.cpp:124] Setting up relu3
I0428 19:29:28.112623 22025 net.cpp:131] Top shape: 100 10 (1000)
I0428 19:29:28.112627 22025 net.cpp:139] Memory required for data: 946800
I0428 19:29:28.112629 22025 layer_factory.hpp:77] Creating layer ip3_relu3_0_split
I0428 19:29:28.112634 22025 net.cpp:86] Creating Layer ip3_relu3_0_split
I0428 19:29:28.112637 22025 net.cpp:408] ip3_relu3_0_split <- ip3
I0428 19:29:28.112642 22025 net.cpp:382] ip3_relu3_0_split -> ip3_relu3_0_split_0
I0428 19:29:28.112648 22025 net.cpp:382] ip3_relu3_0_split -> ip3_relu3_0_split_1
I0428 19:29:28.112681 22025 net.cpp:124] Setting up ip3_relu3_0_split
I0428 19:29:28.112686 22025 net.cpp:131] Top shape: 100 10 (1000)
I0428 19:29:28.112691 22025 net.cpp:131] Top shape: 100 10 (1000)
I0428 19:29:28.112704 22025 net.cpp:139] Memory required for data: 954800
I0428 19:29:28.112706 22025 layer_factory.hpp:77] Creating layer accuracy
I0428 19:29:28.112711 22025 net.cpp:86] Creating Layer accuracy
I0428 19:29:28.112715 22025 net.cpp:408] accuracy <- ip3_relu3_0_split_0
I0428 19:29:28.112720 22025 net.cpp:408] accuracy <- label_mnist_1_split_0
I0428 19:29:28.112725 22025 net.cpp:382] accuracy -> accuracy
…
