…
I0428 20:02:58.105978 30088 net.cpp:296] The NetState phase (0) differed from the phase (1) specified by a rule in layer mnist
I0428 20:02:58.105991 30088 net.cpp:296] The NetState phase (0) differed from the phase (1) specified by a rule in layer accuracy
I0428 20:02:58.106076 30088 net.cpp:53] Initializing net from parameters: 
name: "LeNet"
state {
  phase: TRAIN
  level: 0
  stage: ""
}
layer {
  name: "mnist"
  type: "Data"
  top: "data"
  top: "label"
  include {
    phase: TRAIN
  }
  transform_param {
    scale: 0.00390625
  }
  data_param {
    source: "examples/mnist/mnist_train_lmdb"
    batch_size: 64
    backend: LMDB
  }
}
layer {
  name: "conv0"
  type: "Convolution"
  bottom: "data"
  top: "conv0"
  param {
    lr_mult: 1
  }
  param {
    lr_mult: 2
  }
  convolution_param {
    num_output: 10
    kernel_size: 5
    stride: 1
    weight_filler {
      type: "xavier"
    }
    bias_filler {
      type: "constant"
    }
  }
}
layer {
  name: "pool0"
  type: "Pooling"
  bottom: "conv0"
  top: "pool0"
  pooling_param {
    pool: MAX
    kernel_size: 2
    stride: 2
  }
}
layer {
  name: "conv1"
  type: "Convolution"
  bottom: "pool0"
  top: "conv1"
  param {
    lr_mult: 1
  }
  param {
    lr_mult: 2
  }
  convolution_param {
    num_output: 100
    kernel_size: 5
    stride: 1
    weight_filler {
      type: "xavier"
    }
    bias_filler {
      type: "constant"
    }
  }
}
layer {
  name: "pool1"
  type: "Pooling"
  bottom: "conv1"
  top: "pool1"
  pooling_param {
    pool: MAX
    kernel_size: 2
    stride: 2
  }
}
layer {
  name: "ip1"
  type: "InnerProduct"
  bottom: "pool1"
  top: "ip1"
  param {
    lr_mult: 1
  }
  param {
    lr_mult: 2
  }
  inner_product_param {
    num_output: 10
    weight_filler {
      type: "xavier"
    }
    bias_filler {
      type: "constant"
    }
  }
}
layer {
  name: "relu1"
  type: "ReLU"
  bottom: "ip1"
  top: "ip1"
}
layer {
  name: "ip2"
  type: "InnerProduct"
  bottom: "ip1"
  top: "ip2"
  param {
    lr_mult: 1
  }
  param {
    lr_mult: 2
  }
  inner_product_param {
    num_output: 10
    weight_filler {
      type: "xavier"
    }
    bias_filler {
      type: "constant"
    }
  }
}
layer {
  name: "relu2"
  type: "ReLU"
  bottom: "ip2"
  top: "ip2"
}
layer {
  name: "loss"
  type: "SoftmaxWithLoss"
  bottom: "ip2"
  bottom: "label"
  top: "loss"
}
I0428 20:02:58.106155 30088 layer_factory.hpp:77] Creating layer mnist
I0428 20:02:58.106240 30088 db_lmdb.cpp:35] Opened lmdb examples/mnist/mnist_train_lmdb
I0428 20:02:58.106261 30088 net.cpp:86] Creating Layer mnist
I0428 20:02:58.106266 30088 net.cpp:382] mnist -> data
I0428 20:02:58.106287 30088 net.cpp:382] mnist -> label
I0428 20:02:58.107223 30088 data_layer.cpp:45] output data size: 64,1,28,28
I0428 20:02:58.109529 30088 net.cpp:124] Setting up mnist
I0428 20:02:58.109575 30088 net.cpp:131] Top shape: 64 1 28 28 (50176)
I0428 20:02:58.109581 30088 net.cpp:131] Top shape: 64 (64)
I0428 20:02:58.109585 30088 net.cpp:139] Memory required for data: 200960
I0428 20:02:58.109591 30088 layer_factory.hpp:77] Creating layer conv0
I0428 20:02:58.109603 30088 net.cpp:86] Creating Layer conv0
I0428 20:02:58.109608 30088 net.cpp:408] conv0 <- data
I0428 20:02:58.109617 30088 net.cpp:382] conv0 -> conv0
I0428 20:02:58.336033 30088 net.cpp:124] Setting up conv0
I0428 20:02:58.336060 30088 net.cpp:131] Top shape: 64 10 24 24 (368640)
I0428 20:02:58.336063 30088 net.cpp:139] Memory required for data: 1675520
I0428 20:02:58.336096 30088 layer_factory.hpp:77] Creating layer pool0
I0428 20:02:58.336107 30088 net.cpp:86] Creating Layer pool0
I0428 20:02:58.336112 30088 net.cpp:408] pool0 <- conv0
I0428 20:02:58.336132 30088 net.cpp:382] pool0 -> pool0
I0428 20:02:58.336176 30088 net.cpp:124] Setting up pool0
I0428 20:02:58.336181 30088 net.cpp:131] Top shape: 64 10 12 12 (92160)
I0428 20:02:58.336185 30088 net.cpp:139] Memory required for data: 2044160
I0428 20:02:58.336189 30088 layer_factory.hpp:77] Creating layer conv1
I0428 20:02:58.336199 30088 net.cpp:86] Creating Layer conv1
I0428 20:02:58.336201 30088 net.cpp:408] conv1 <- pool0
I0428 20:02:58.336205 30088 net.cpp:382] conv1 -> conv1
I0428 20:02:58.338186 30088 net.cpp:124] Setting up conv1
I0428 20:02:58.338217 30088 net.cpp:131] Top shape: 64 100 8 8 (409600)
I0428 20:02:58.338220 30088 net.cpp:139] Memory required for data: 3682560
I0428 20:02:58.338229 30088 layer_factory.hpp:77] Creating layer pool1
I0428 20:02:58.338238 30088 net.cpp:86] Creating Layer pool1
I0428 20:02:58.338241 30088 net.cpp:408] pool1 <- conv1
I0428 20:02:58.338246 30088 net.cpp:382] pool1 -> pool1
I0428 20:02:58.338284 30088 net.cpp:124] Setting up pool1
I0428 20:02:58.338289 30088 net.cpp:131] Top shape: 64 100 4 4 (102400)
I0428 20:02:58.338291 30088 net.cpp:139] Memory required for data: 4092160
I0428 20:02:58.338294 30088 layer_factory.hpp:77] Creating layer ip1
I0428 20:02:58.338301 30088 net.cpp:86] Creating Layer ip1
I0428 20:02:58.338304 30088 net.cpp:408] ip1 <- pool1
I0428 20:02:58.338310 30088 net.cpp:382] ip1 -> ip1
I0428 20:02:58.339370 30088 net.cpp:124] Setting up ip1
I0428 20:02:58.339382 30088 net.cpp:131] Top shape: 64 10 (640)
I0428 20:02:58.339402 30088 net.cpp:139] Memory required for data: 4094720
I0428 20:02:58.339411 30088 layer_factory.hpp:77] Creating layer relu1
I0428 20:02:58.339418 30088 net.cpp:86] Creating Layer relu1
I0428 20:02:58.339421 30088 net.cpp:408] relu1 <- ip1
I0428 20:02:58.339426 30088 net.cpp:369] relu1 -> ip1 (in-place)
I0428 20:02:58.339591 30088 net.cpp:124] Setting up relu1
I0428 20:02:58.339601 30088 net.cpp:131] Top shape: 64 10 (640)
I0428 20:02:58.339604 30088 net.cpp:139] Memory required for data: 4097280
I0428 20:02:58.339607 30088 layer_factory.hpp:77] Creating layer ip2
I0428 20:02:58.339614 30088 net.cpp:86] Creating Layer ip2
I0428 20:02:58.339633 30088 net.cpp:408] ip2 <- ip1
I0428 20:02:58.339638 30088 net.cpp:382] ip2 -> ip2
I0428 20:02:58.339725 30088 net.cpp:124] Setting up ip2
I0428 20:02:58.339732 30088 net.cpp:131] Top shape: 64 10 (640)
I0428 20:02:58.339735 30088 net.cpp:139] Memory required for data: 4099840
I0428 20:02:58.339741 30088 layer_factory.hpp:77] Creating layer relu2
I0428 20:02:58.339747 30088 net.cpp:86] Creating Layer relu2
I0428 20:02:58.339750 30088 net.cpp:408] relu2 <- ip2
I0428 20:02:58.339753 30088 net.cpp:369] relu2 -> ip2 (in-place)
I0428 20:02:58.340513 30088 net.cpp:124] Setting up relu2
I0428 20:02:58.340525 30088 net.cpp:131] Top shape: 64 10 (640)
I0428 20:02:58.340540 30088 net.cpp:139] Memory required for data: 4102400
I0428 20:02:58.340544 30088 layer_factory.hpp:77] Creating layer loss
I0428 20:02:58.340550 30088 net.cpp:86] Creating Layer loss
I0428 20:02:58.340553 30088 net.cpp:408] loss <- ip2
I0428 20:02:58.340557 30088 net.cpp:408] loss <- label
I0428 20:02:58.340562 30088 net.cpp:382] loss -> loss
I0428 20:02:58.340582 30088 layer_factory.hpp:77] Creating layer loss
…
I0428 20:02:58.341269 30088 solver.cpp:173] Creating test net (#0) specified by net file: ECE595/mnist/train_test/var_everything2/lenet_train_test941.prototxt
I0428 20:02:58.341308 30088 net.cpp:296] The NetState phase (1) differed from the phase (0) specified by a rule in layer mnist
I0428 20:02:58.341403 30088 net.cpp:53] Initializing net from parameters: 
name: "LeNet"
state {
  phase: TEST
}
layer {
  name: "mnist"
  type: "Data"
  top: "data"
  top: "label"
  include {
    phase: TEST
  }
  transform_param {
    scale: 0.00390625
  }
  data_param {
    source: "examples/mnist/mnist_test_lmdb"
    batch_size: 100
    backend: LMDB
  }
}
layer {
  name: "conv0"
  type: "Convolution"
  bottom: "data"
  top: "conv0"
  param {
    lr_mult: 1
  }
  param {
    lr_mult: 2
  }
  convolution_param {
    num_output: 10
    kernel_size: 5
    stride: 1
    weight_filler {
      type: "xavier"
    }
    bias_filler {
      type: "constant"
    }
  }
}
layer {
  name: "pool0"
  type: "Pooling"
  bottom: "conv0"
  top: "pool0"
  pooling_param {
    pool: MAX
    kernel_size: 2
    stride: 2
  }
}
layer {
  name: "conv1"
  type: "Convolution"
  bottom: "pool0"
  top: "conv1"
  param {
    lr_mult: 1
  }
  param {
    lr_mult: 2
  }
  convolution_param {
    num_output: 100
    kernel_size: 5
    stride: 1
    weight_filler {
      type: "xavier"
    }
    bias_filler {
      type: "constant"
    }
  }
}
layer {
  name: "pool1"
  type: "Pooling"
  bottom: "conv1"
  top: "pool1"
  pooling_param {
    pool: MAX
    kernel_size: 2
    stride: 2
  }
}
layer {
  name: "ip1"
  type: "InnerProduct"
  bottom: "pool1"
  top: "ip1"
  param {
    lr_mult: 1
  }
  param {
    lr_mult: 2
  }
  inner_product_param {
    num_output: 10
    weight_filler {
      type: "xavier"
    }
    bias_filler {
      type: "constant"
    }
  }
}
layer {
  name: "relu1"
  type: "ReLU"
  bottom: "ip1"
  top: "ip1"
}
layer {
  name: "ip2"
  type: "InnerProduct"
  bottom: "ip1"
  top: "ip2"
  param {
    lr_mult: 1
  }
  param {
    lr_mult: 2
  }
  inner_product_param {
    num_output: 10
    weight_filler {
      type: "xavier"
    }
    bias_filler {
      type: "constant"
    }
  }
}
layer {
  name: "relu2"
  type: "ReLU"
  bottom: "ip2"
  top: "ip2"
}
layer {
  name: "accuracy"
  type: "Accuracy"
  bottom: "ip2"
  bottom: "label"
  top: "accuracy"
  include {
    phase: TEST
  }
}
layer {
  name: "loss"
  type: "SoftmaxWithLoss"
  bottom: "ip2"
  bottom: "label"
  top: "loss"
}
I0428 20:02:58.341465 30088 layer_factory.hpp:77] Creating layer mnist
I0428 20:02:58.341508 30088 db_lmdb.cpp:35] Opened lmdb examples/mnist/mnist_test_lmdb
I0428 20:02:58.341521 30088 net.cpp:86] Creating Layer mnist
I0428 20:02:58.341526 30088 net.cpp:382] mnist -> data
I0428 20:02:58.341532 30088 net.cpp:382] mnist -> label
I0428 20:02:58.341614 30088 data_layer.cpp:45] output data size: 100,1,28,28
I0428 20:02:58.343742 30088 net.cpp:124] Setting up mnist
I0428 20:02:58.343771 30088 net.cpp:131] Top shape: 100 1 28 28 (78400)
I0428 20:02:58.343776 30088 net.cpp:131] Top shape: 100 (100)
I0428 20:02:58.343780 30088 net.cpp:139] Memory required for data: 314000
I0428 20:02:58.343783 30088 layer_factory.hpp:77] Creating layer label_mnist_1_split
I0428 20:02:58.343819 30088 net.cpp:86] Creating Layer label_mnist_1_split
I0428 20:02:58.343824 30088 net.cpp:408] label_mnist_1_split <- label
I0428 20:02:58.343829 30088 net.cpp:382] label_mnist_1_split -> label_mnist_1_split_0
I0428 20:02:58.343835 30088 net.cpp:382] label_mnist_1_split -> label_mnist_1_split_1
I0428 20:02:58.343920 30088 net.cpp:124] Setting up label_mnist_1_split
I0428 20:02:58.343927 30088 net.cpp:131] Top shape: 100 (100)
I0428 20:02:58.343930 30088 net.cpp:131] Top shape: 100 (100)
I0428 20:02:58.343933 30088 net.cpp:139] Memory required for data: 314800
I0428 20:02:58.343936 30088 layer_factory.hpp:77] Creating layer conv0
I0428 20:02:58.343945 30088 net.cpp:86] Creating Layer conv0
I0428 20:02:58.343947 30088 net.cpp:408] conv0 <- data
I0428 20:02:58.343951 30088 net.cpp:382] conv0 -> conv0
I0428 20:02:58.345777 30088 net.cpp:124] Setting up conv0
I0428 20:02:58.345791 30088 net.cpp:131] Top shape: 100 10 24 24 (576000)
I0428 20:02:58.345795 30088 net.cpp:139] Memory required for data: 2618800
I0428 20:02:58.345803 30088 layer_factory.hpp:77] Creating layer pool0
I0428 20:02:58.345809 30088 net.cpp:86] Creating Layer pool0
I0428 20:02:58.345813 30088 net.cpp:408] pool0 <- conv0
I0428 20:02:58.345818 30088 net.cpp:382] pool0 -> pool0
I0428 20:02:58.345850 30088 net.cpp:124] Setting up pool0
I0428 20:02:58.345854 30088 net.cpp:131] Top shape: 100 10 12 12 (144000)
I0428 20:02:58.345857 30088 net.cpp:139] Memory required for data: 3194800
I0428 20:02:58.345860 30088 layer_factory.hpp:77] Creating layer conv1
I0428 20:02:58.345867 30088 net.cpp:86] Creating Layer conv1
I0428 20:02:58.345870 30088 net.cpp:408] conv1 <- pool0
I0428 20:02:58.345875 30088 net.cpp:382] conv1 -> conv1
I0428 20:02:58.347571 30088 net.cpp:124] Setting up conv1
I0428 20:02:58.347585 30088 net.cpp:131] Top shape: 100 100 8 8 (640000)
I0428 20:02:58.347589 30088 net.cpp:139] Memory required for data: 5754800
I0428 20:02:58.347599 30088 layer_factory.hpp:77] Creating layer pool1
I0428 20:02:58.347604 30088 net.cpp:86] Creating Layer pool1
I0428 20:02:58.347609 30088 net.cpp:408] pool1 <- conv1
I0428 20:02:58.347615 30088 net.cpp:382] pool1 -> pool1
I0428 20:02:58.347654 30088 net.cpp:124] Setting up pool1
I0428 20:02:58.347661 30088 net.cpp:131] Top shape: 100 100 4 4 (160000)
I0428 20:02:58.347663 30088 net.cpp:139] Memory required for data: 6394800
I0428 20:02:58.347666 30088 layer_factory.hpp:77] Creating layer ip1
I0428 20:02:58.347681 30088 net.cpp:86] Creating Layer ip1
I0428 20:02:58.347683 30088 net.cpp:408] ip1 <- pool1
I0428 20:02:58.347689 30088 net.cpp:382] ip1 -> ip1
I0428 20:02:58.347903 30088 net.cpp:124] Setting up ip1
I0428 20:02:58.347911 30088 net.cpp:131] Top shape: 100 10 (1000)
I0428 20:02:58.347914 30088 net.cpp:139] Memory required for data: 6398800
I0428 20:02:58.347921 30088 layer_factory.hpp:77] Creating layer relu1
I0428 20:02:58.347926 30088 net.cpp:86] Creating Layer relu1
I0428 20:02:58.347937 30088 net.cpp:408] relu1 <- ip1
I0428 20:02:58.347941 30088 net.cpp:369] relu1 -> ip1 (in-place)
I0428 20:02:58.348134 30088 net.cpp:124] Setting up relu1
I0428 20:02:58.348142 30088 net.cpp:131] Top shape: 100 10 (1000)
I0428 20:02:58.348146 30088 net.cpp:139] Memory required for data: 6402800
I0428 20:02:58.348150 30088 layer_factory.hpp:77] Creating layer ip2
I0428 20:02:58.348157 30088 net.cpp:86] Creating Layer ip2
I0428 20:02:58.348160 30088 net.cpp:408] ip2 <- ip1
I0428 20:02:58.348166 30088 net.cpp:382] ip2 -> ip2
I0428 20:02:58.348268 30088 net.cpp:124] Setting up ip2
I0428 20:02:58.348275 30088 net.cpp:131] Top shape: 100 10 (1000)
I0428 20:02:58.348280 30088 net.cpp:139] Memory required for data: 6406800
I0428 20:02:58.348285 30088 layer_factory.hpp:77] Creating layer relu2
I0428 20:02:58.348290 30088 net.cpp:86] Creating Layer relu2
I0428 20:02:58.348294 30088 net.cpp:408] relu2 <- ip2
I0428 20:02:58.348297 30088 net.cpp:369] relu2 -> ip2 (in-place)
I0428 20:02:58.348469 30088 net.cpp:124] Setting up relu2
I0428 20:02:58.348479 30088 net.cpp:131] Top shape: 100 10 (1000)
I0428 20:02:58.348481 30088 net.cpp:139] Memory required for data: 6410800
I0428 20:02:58.348484 30088 layer_factory.hpp:77] Creating layer ip2_relu2_0_split
I0428 20:02:58.348489 30088 net.cpp:86] Creating Layer ip2_relu2_0_split
I0428 20:02:58.348491 30088 net.cpp:408] ip2_relu2_0_split <- ip2
I0428 20:02:58.348495 30088 net.cpp:382] ip2_relu2_0_split -> ip2_relu2_0_split_0
I0428 20:02:58.348512 30088 net.cpp:382] ip2_relu2_0_split -> ip2_relu2_0_split_1
I0428 20:02:58.348573 30088 net.cpp:124] Setting up ip2_relu2_0_split
I0428 20:02:58.348585 30088 net.cpp:131] Top shape: 100 10 (1000)
I0428 20:02:58.348589 30088 net.cpp:131] Top shape: 100 10 (1000)
I0428 20:02:58.348592 30088 net.cpp:139] Memory required for data: 6418800
I0428 20:02:58.348595 30088 layer_factory.hpp:77] Creating layer accuracy
I0428 20:02:58.348606 30088 net.cpp:86] Creating Layer accuracy
I0428 20:02:58.348610 30088 net.cpp:408] accuracy <- ip2_relu2_0_split_0
I0428 20:02:58.348614 30088 net.cpp:408] accuracy <- label_mnist_1_split_0
I0428 20:02:58.348618 30088 net.cpp:382] accuracy -> accuracy
…
