…
I0428 19:37:41.729041 23854 net.cpp:296] The NetState phase (0) differed from the phase (1) specified by a rule in layer mnist
I0428 19:37:41.729056 23854 net.cpp:296] The NetState phase (0) differed from the phase (1) specified by a rule in layer accuracy
I0428 19:37:41.729145 23854 net.cpp:53] Initializing net from parameters: 
name: "LeNet"
state {
  phase: TRAIN
  level: 0
  stage: ""
}
layer {
  name: "mnist"
  type: "Data"
  top: "data"
  top: "label"
  include {
    phase: TRAIN
  }
  transform_param {
    scale: 0.00390625
  }
  data_param {
    source: "examples/mnist/mnist_train_lmdb"
    batch_size: 64
    backend: LMDB
  }
}
layer {
  name: "conv0"
  type: "Convolution"
  bottom: "data"
  top: "conv0"
  param {
    lr_mult: 1
  }
  param {
    lr_mult: 2
  }
  convolution_param {
    num_output: 100
    kernel_size: 5
    stride: 1
    weight_filler {
      type: "xavier"
    }
    bias_filler {
      type: "constant"
    }
  }
}
layer {
  name: "pool0"
  type: "Pooling"
  bottom: "conv0"
  top: "pool0"
  pooling_param {
    pool: MAX
    kernel_size: 2
    stride: 2
  }
}
layer {
  name: "ip1"
  type: "InnerProduct"
  bottom: "pool0"
  top: "ip1"
  param {
    lr_mult: 1
  }
  param {
    lr_mult: 2
  }
  inner_product_param {
    num_output: 25
    weight_filler {
      type: "xavier"
    }
    bias_filler {
      type: "constant"
    }
  }
}
layer {
  name: "relu1"
  type: "ReLU"
  bottom: "ip1"
  top: "ip1"
}
layer {
  name: "ip2"
  type: "InnerProduct"
  bottom: "ip1"
  top: "ip2"
  param {
    lr_mult: 1
  }
  param {
    lr_mult: 2
  }
  inner_product_param {
    num_output: 50
    weight_filler {
      type: "xavier"
    }
    bias_filler {
      type: "constant"
    }
  }
}
layer {
  name: "relu2"
  type: "ReLU"
  bottom: "ip2"
  top: "ip2"
}
layer {
  name: "ip3"
  type: "InnerProduct"
  bottom: "ip2"
  top: "ip3"
  param {
    lr_mult: 1
  }
  param {
    lr_mult: 2
  }
  inner_product_param {
    num_output: 10
    weight_filler {
      type: "xavier"
    }
    bias_filler {
      type: "constant"
    }
  }
}
layer {
  name: "relu3"
  type: "ReLU"
  bottom: "ip3"
  top: "ip3"
}
layer {
  name: "loss"
  type: "SoftmaxWithLoss"
  bottom: "ip3"
  bottom: "label"
  top: "loss"
}
I0428 19:37:41.729220 23854 layer_factory.hpp:77] Creating layer mnist
I0428 19:37:41.729320 23854 db_lmdb.cpp:35] Opened lmdb examples/mnist/mnist_train_lmdb
I0428 19:37:41.729343 23854 net.cpp:86] Creating Layer mnist
I0428 19:37:41.729352 23854 net.cpp:382] mnist -> data
I0428 19:37:41.729374 23854 net.cpp:382] mnist -> label
I0428 19:37:41.730473 23854 data_layer.cpp:45] output data size: 64,1,28,28
I0428 19:37:41.732941 23854 net.cpp:124] Setting up mnist
I0428 19:37:41.732960 23854 net.cpp:131] Top shape: 64 1 28 28 (50176)
I0428 19:37:41.732969 23854 net.cpp:131] Top shape: 64 (64)
I0428 19:37:41.732971 23854 net.cpp:139] Memory required for data: 200960
I0428 19:37:41.732980 23854 layer_factory.hpp:77] Creating layer conv0
I0428 19:37:41.732995 23854 net.cpp:86] Creating Layer conv0
I0428 19:37:41.733000 23854 net.cpp:408] conv0 <- data
I0428 19:37:41.733013 23854 net.cpp:382] conv0 -> conv0
I0428 19:37:42.023767 23854 net.cpp:124] Setting up conv0
I0428 19:37:42.023799 23854 net.cpp:131] Top shape: 64 100 24 24 (3686400)
I0428 19:37:42.023805 23854 net.cpp:139] Memory required for data: 14946560
I0428 19:37:42.023823 23854 layer_factory.hpp:77] Creating layer pool0
I0428 19:37:42.023838 23854 net.cpp:86] Creating Layer pool0
I0428 19:37:42.023866 23854 net.cpp:408] pool0 <- conv0
I0428 19:37:42.023874 23854 net.cpp:382] pool0 -> pool0
I0428 19:37:42.023933 23854 net.cpp:124] Setting up pool0
I0428 19:37:42.023942 23854 net.cpp:131] Top shape: 64 100 12 12 (921600)
I0428 19:37:42.023947 23854 net.cpp:139] Memory required for data: 18632960
I0428 19:37:42.023950 23854 layer_factory.hpp:77] Creating layer ip1
I0428 19:37:42.023959 23854 net.cpp:86] Creating Layer ip1
I0428 19:37:42.023963 23854 net.cpp:408] ip1 <- pool0
I0428 19:37:42.023968 23854 net.cpp:382] ip1 -> ip1
I0428 19:37:42.027472 23854 net.cpp:124] Setting up ip1
I0428 19:37:42.027487 23854 net.cpp:131] Top shape: 64 25 (1600)
I0428 19:37:42.027492 23854 net.cpp:139] Memory required for data: 18639360
I0428 19:37:42.027501 23854 layer_factory.hpp:77] Creating layer relu1
I0428 19:37:42.027509 23854 net.cpp:86] Creating Layer relu1
I0428 19:37:42.027515 23854 net.cpp:408] relu1 <- ip1
I0428 19:37:42.027521 23854 net.cpp:369] relu1 -> ip1 (in-place)
I0428 19:37:42.027743 23854 net.cpp:124] Setting up relu1
I0428 19:37:42.027755 23854 net.cpp:131] Top shape: 64 25 (1600)
I0428 19:37:42.027760 23854 net.cpp:139] Memory required for data: 18645760
I0428 19:37:42.027763 23854 layer_factory.hpp:77] Creating layer ip2
I0428 19:37:42.027771 23854 net.cpp:86] Creating Layer ip2
I0428 19:37:42.027776 23854 net.cpp:408] ip2 <- ip1
I0428 19:37:42.027782 23854 net.cpp:382] ip2 -> ip2
I0428 19:37:42.027920 23854 net.cpp:124] Setting up ip2
I0428 19:37:42.027928 23854 net.cpp:131] Top shape: 64 50 (3200)
I0428 19:37:42.027932 23854 net.cpp:139] Memory required for data: 18658560
I0428 19:37:42.027941 23854 layer_factory.hpp:77] Creating layer relu2
I0428 19:37:42.027947 23854 net.cpp:86] Creating Layer relu2
I0428 19:37:42.027951 23854 net.cpp:408] relu2 <- ip2
I0428 19:37:42.027958 23854 net.cpp:369] relu2 -> ip2 (in-place)
I0428 19:37:42.028832 23854 net.cpp:124] Setting up relu2
I0428 19:37:42.028848 23854 net.cpp:131] Top shape: 64 50 (3200)
I0428 19:37:42.028852 23854 net.cpp:139] Memory required for data: 18671360
I0428 19:37:42.028856 23854 layer_factory.hpp:77] Creating layer ip3
I0428 19:37:42.028865 23854 net.cpp:86] Creating Layer ip3
I0428 19:37:42.028869 23854 net.cpp:408] ip3 <- ip2
I0428 19:37:42.028877 23854 net.cpp:382] ip3 -> ip3
I0428 19:37:42.029003 23854 net.cpp:124] Setting up ip3
I0428 19:37:42.029012 23854 net.cpp:131] Top shape: 64 10 (640)
I0428 19:37:42.029026 23854 net.cpp:139] Memory required for data: 18673920
I0428 19:37:42.029032 23854 layer_factory.hpp:77] Creating layer relu3
I0428 19:37:42.029040 23854 net.cpp:86] Creating Layer relu3
I0428 19:37:42.029043 23854 net.cpp:408] relu3 <- ip3
I0428 19:37:42.029050 23854 net.cpp:369] relu3 -> ip3 (in-place)
I0428 19:37:42.029240 23854 net.cpp:124] Setting up relu3
I0428 19:37:42.029251 23854 net.cpp:131] Top shape: 64 10 (640)
I0428 19:37:42.029255 23854 net.cpp:139] Memory required for data: 18676480
I0428 19:37:42.029258 23854 layer_factory.hpp:77] Creating layer loss
I0428 19:37:42.029266 23854 net.cpp:86] Creating Layer loss
I0428 19:37:42.029270 23854 net.cpp:408] loss <- ip3
I0428 19:37:42.029275 23854 net.cpp:408] loss <- label
I0428 19:37:42.029281 23854 net.cpp:382] loss -> loss
I0428 19:37:42.029301 23854 layer_factory.hpp:77] Creating layer loss
…
I0428 19:37:42.030025 23854 solver.cpp:173] Creating test net (#0) specified by net file: ECE595/mnist/train_test/var_everything2/lenet_train_test262.prototxt
I0428 19:37:42.030055 23854 net.cpp:296] The NetState phase (1) differed from the phase (0) specified by a rule in layer mnist
I0428 19:37:42.030149 23854 net.cpp:53] Initializing net from parameters: 
name: "LeNet"
state {
  phase: TEST
}
layer {
  name: "mnist"
  type: "Data"
  top: "data"
  top: "label"
  include {
    phase: TEST
  }
  transform_param {
    scale: 0.00390625
  }
  data_param {
    source: "examples/mnist/mnist_test_lmdb"
    batch_size: 100
    backend: LMDB
  }
}
layer {
  name: "conv0"
  type: "Convolution"
  bottom: "data"
  top: "conv0"
  param {
    lr_mult: 1
  }
  param {
    lr_mult: 2
  }
  convolution_param {
    num_output: 100
    kernel_size: 5
    stride: 1
    weight_filler {
      type: "xavier"
    }
    bias_filler {
      type: "constant"
    }
  }
}
layer {
  name: "pool0"
  type: "Pooling"
  bottom: "conv0"
  top: "pool0"
  pooling_param {
    pool: MAX
    kernel_size: 2
    stride: 2
  }
}
layer {
  name: "ip1"
  type: "InnerProduct"
  bottom: "pool0"
  top: "ip1"
  param {
    lr_mult: 1
  }
  param {
    lr_mult: 2
  }
  inner_product_param {
    num_output: 25
    weight_filler {
      type: "xavier"
    }
    bias_filler {
      type: "constant"
    }
  }
}
layer {
  name: "relu1"
  type: "ReLU"
  bottom: "ip1"
  top: "ip1"
}
layer {
  name: "ip2"
  type: "InnerProduct"
  bottom: "ip1"
  top: "ip2"
  param {
    lr_mult: 1
  }
  param {
    lr_mult: 2
  }
  inner_product_param {
    num_output: 50
    weight_filler {
      type: "xavier"
    }
    bias_filler {
      type: "constant"
    }
  }
}
layer {
  name: "relu2"
  type: "ReLU"
  bottom: "ip2"
  top: "ip2"
}
layer {
  name: "ip3"
  type: "InnerProduct"
  bottom: "ip2"
  top: "ip3"
  param {
    lr_mult: 1
  }
  param {
    lr_mult: 2
  }
  inner_product_param {
    num_output: 10
    weight_filler {
      type: "xavier"
    }
    bias_filler {
      type: "constant"
    }
  }
}
layer {
  name: "relu3"
  type: "ReLU"
  bottom: "ip3"
  top: "ip3"
}
layer {
  name: "accuracy"
  type: "Accuracy"
  bottom: "ip3"
  bottom: "label"
  top: "accuracy"
  include {
    phase: TEST
  }
}
layer {
  name: "loss"
  type: "SoftmaxWithLoss"
  bottom: "ip3"
  bottom: "label"
  top: "loss"
}
I0428 19:37:42.030228 23854 layer_factory.hpp:77] Creating layer mnist
I0428 19:37:42.030279 23854 db_lmdb.cpp:35] Opened lmdb examples/mnist/mnist_test_lmdb
I0428 19:37:42.030297 23854 net.cpp:86] Creating Layer mnist
I0428 19:37:42.030303 23854 net.cpp:382] mnist -> data
I0428 19:37:42.030313 23854 net.cpp:382] mnist -> label
I0428 19:37:42.030416 23854 data_layer.cpp:45] output data size: 100,1,28,28
I0428 19:37:42.032621 23854 net.cpp:124] Setting up mnist
I0428 19:37:42.032636 23854 net.cpp:131] Top shape: 100 1 28 28 (78400)
I0428 19:37:42.032642 23854 net.cpp:131] Top shape: 100 (100)
I0428 19:37:42.032646 23854 net.cpp:139] Memory required for data: 314000
I0428 19:37:42.032650 23854 layer_factory.hpp:77] Creating layer label_mnist_1_split
I0428 19:37:42.032676 23854 net.cpp:86] Creating Layer label_mnist_1_split
I0428 19:37:42.032682 23854 net.cpp:408] label_mnist_1_split <- label
I0428 19:37:42.032690 23854 net.cpp:382] label_mnist_1_split -> label_mnist_1_split_0
I0428 19:37:42.032698 23854 net.cpp:382] label_mnist_1_split -> label_mnist_1_split_1
I0428 19:37:42.032750 23854 net.cpp:124] Setting up label_mnist_1_split
I0428 19:37:42.032759 23854 net.cpp:131] Top shape: 100 (100)
I0428 19:37:42.032763 23854 net.cpp:131] Top shape: 100 (100)
I0428 19:37:42.032768 23854 net.cpp:139] Memory required for data: 314800
I0428 19:37:42.032783 23854 layer_factory.hpp:77] Creating layer conv0
I0428 19:37:42.032794 23854 net.cpp:86] Creating Layer conv0
I0428 19:37:42.032799 23854 net.cpp:408] conv0 <- data
I0428 19:37:42.032806 23854 net.cpp:382] conv0 -> conv0
I0428 19:37:42.034764 23854 net.cpp:124] Setting up conv0
I0428 19:37:42.034781 23854 net.cpp:131] Top shape: 100 100 24 24 (5760000)
I0428 19:37:42.034786 23854 net.cpp:139] Memory required for data: 23354800
I0428 19:37:42.034797 23854 layer_factory.hpp:77] Creating layer pool0
I0428 19:37:42.034804 23854 net.cpp:86] Creating Layer pool0
I0428 19:37:42.034809 23854 net.cpp:408] pool0 <- conv0
I0428 19:37:42.034816 23854 net.cpp:382] pool0 -> pool0
I0428 19:37:42.034860 23854 net.cpp:124] Setting up pool0
I0428 19:37:42.034868 23854 net.cpp:131] Top shape: 100 100 12 12 (1440000)
I0428 19:37:42.034870 23854 net.cpp:139] Memory required for data: 29114800
I0428 19:37:42.034873 23854 layer_factory.hpp:77] Creating layer ip1
I0428 19:37:42.034883 23854 net.cpp:86] Creating Layer ip1
I0428 19:37:42.034888 23854 net.cpp:408] ip1 <- pool0
I0428 19:37:42.034893 23854 net.cpp:382] ip1 -> ip1
I0428 19:37:42.037426 23854 net.cpp:124] Setting up ip1
I0428 19:37:42.037438 23854 net.cpp:131] Top shape: 100 25 (2500)
I0428 19:37:42.037443 23854 net.cpp:139] Memory required for data: 29124800
I0428 19:37:42.037451 23854 layer_factory.hpp:77] Creating layer relu1
I0428 19:37:42.037457 23854 net.cpp:86] Creating Layer relu1
I0428 19:37:42.037461 23854 net.cpp:408] relu1 <- ip1
I0428 19:37:42.037467 23854 net.cpp:369] relu1 -> ip1 (in-place)
I0428 19:37:42.037672 23854 net.cpp:124] Setting up relu1
I0428 19:37:42.037683 23854 net.cpp:131] Top shape: 100 25 (2500)
I0428 19:37:42.037688 23854 net.cpp:139] Memory required for data: 29134800
I0428 19:37:42.037693 23854 layer_factory.hpp:77] Creating layer ip2
I0428 19:37:42.037699 23854 net.cpp:86] Creating Layer ip2
I0428 19:37:42.037703 23854 net.cpp:408] ip2 <- ip1
I0428 19:37:42.037711 23854 net.cpp:382] ip2 -> ip2
I0428 19:37:42.037866 23854 net.cpp:124] Setting up ip2
I0428 19:37:42.037875 23854 net.cpp:131] Top shape: 100 50 (5000)
I0428 19:37:42.037878 23854 net.cpp:139] Memory required for data: 29154800
I0428 19:37:42.037889 23854 layer_factory.hpp:77] Creating layer relu2
I0428 19:37:42.037894 23854 net.cpp:86] Creating Layer relu2
I0428 19:37:42.037897 23854 net.cpp:408] relu2 <- ip2
I0428 19:37:42.037904 23854 net.cpp:369] relu2 -> ip2 (in-place)
I0428 19:37:42.038863 23854 net.cpp:124] Setting up relu2
I0428 19:37:42.038878 23854 net.cpp:131] Top shape: 100 50 (5000)
I0428 19:37:42.038882 23854 net.cpp:139] Memory required for data: 29174800
I0428 19:37:42.038887 23854 layer_factory.hpp:77] Creating layer ip3
I0428 19:37:42.038897 23854 net.cpp:86] Creating Layer ip3
I0428 19:37:42.038902 23854 net.cpp:408] ip3 <- ip2
I0428 19:37:42.038908 23854 net.cpp:382] ip3 -> ip3
I0428 19:37:42.039039 23854 net.cpp:124] Setting up ip3
I0428 19:37:42.039049 23854 net.cpp:131] Top shape: 100 10 (1000)
I0428 19:37:42.039053 23854 net.cpp:139] Memory required for data: 29178800
I0428 19:37:42.039059 23854 layer_factory.hpp:77] Creating layer relu3
I0428 19:37:42.039067 23854 net.cpp:86] Creating Layer relu3
I0428 19:37:42.039070 23854 net.cpp:408] relu3 <- ip3
I0428 19:37:42.039075 23854 net.cpp:369] relu3 -> ip3 (in-place)
I0428 19:37:42.039266 23854 net.cpp:124] Setting up relu3
I0428 19:37:42.039276 23854 net.cpp:131] Top shape: 100 10 (1000)
I0428 19:37:42.039280 23854 net.cpp:139] Memory required for data: 29182800
I0428 19:37:42.039284 23854 layer_factory.hpp:77] Creating layer ip3_relu3_0_split
I0428 19:37:42.039291 23854 net.cpp:86] Creating Layer ip3_relu3_0_split
I0428 19:37:42.039294 23854 net.cpp:408] ip3_relu3_0_split <- ip3
I0428 19:37:42.039299 23854 net.cpp:382] ip3_relu3_0_split -> ip3_relu3_0_split_0
I0428 19:37:42.039306 23854 net.cpp:382] ip3_relu3_0_split -> ip3_relu3_0_split_1
I0428 19:37:42.039351 23854 net.cpp:124] Setting up ip3_relu3_0_split
I0428 19:37:42.039361 23854 net.cpp:131] Top shape: 100 10 (1000)
I0428 19:37:42.039379 23854 net.cpp:131] Top shape: 100 10 (1000)
I0428 19:37:42.039383 23854 net.cpp:139] Memory required for data: 29190800
I0428 19:37:42.039386 23854 layer_factory.hpp:77] Creating layer accuracy
I0428 19:37:42.039392 23854 net.cpp:86] Creating Layer accuracy
I0428 19:37:42.039397 23854 net.cpp:408] accuracy <- ip3_relu3_0_split_0
I0428 19:37:42.039402 23854 net.cpp:408] accuracy <- label_mnist_1_split_0
I0428 19:37:42.039408 23854 net.cpp:382] accuracy -> accuracy
…
