…
I0428 19:39:06.780771 24214 net.cpp:296] The NetState phase (0) differed from the phase (1) specified by a rule in layer mnist
I0428 19:39:06.780804 24214 net.cpp:296] The NetState phase (0) differed from the phase (1) specified by a rule in layer accuracy
I0428 19:39:06.780895 24214 net.cpp:53] Initializing net from parameters: 
name: "LeNet"
state {
  phase: TRAIN
  level: 0
  stage: ""
}
layer {
  name: "mnist"
  type: "Data"
  top: "data"
  top: "label"
  include {
    phase: TRAIN
  }
  transform_param {
    scale: 0.00390625
  }
  data_param {
    source: "examples/mnist/mnist_train_lmdb"
    batch_size: 64
    backend: LMDB
  }
}
layer {
  name: "conv0"
  type: "Convolution"
  bottom: "data"
  top: "conv0"
  param {
    lr_mult: 1
  }
  param {
    lr_mult: 2
  }
  convolution_param {
    num_output: 2
    kernel_size: 5
    stride: 1
    weight_filler {
      type: "xavier"
    }
    bias_filler {
      type: "constant"
    }
  }
}
layer {
  name: "pool0"
  type: "Pooling"
  bottom: "conv0"
  top: "pool0"
  pooling_param {
    pool: MAX
    kernel_size: 2
    stride: 2
  }
}
layer {
  name: "conv1"
  type: "Convolution"
  bottom: "pool0"
  top: "conv1"
  param {
    lr_mult: 1
  }
  param {
    lr_mult: 2
  }
  convolution_param {
    num_output: 2
    kernel_size: 5
    stride: 1
    weight_filler {
      type: "xavier"
    }
    bias_filler {
      type: "constant"
    }
  }
}
layer {
  name: "pool1"
  type: "Pooling"
  bottom: "conv1"
  top: "pool1"
  pooling_param {
    pool: MAX
    kernel_size: 2
    stride: 2
  }
}
layer {
  name: "ip1"
  type: "InnerProduct"
  bottom: "pool1"
  top: "ip1"
  param {
    lr_mult: 1
  }
  param {
    lr_mult: 2
  }
  inner_product_param {
    num_output: 25
    weight_filler {
      type: "xavier"
    }
    bias_filler {
      type: "constant"
    }
  }
}
layer {
  name: "relu1"
  type: "ReLU"
  bottom: "ip1"
  top: "ip1"
}
layer {
  name: "ip2"
  type: "InnerProduct"
  bottom: "ip1"
  top: "ip2"
  param {
    lr_mult: 1
  }
  param {
    lr_mult: 2
  }
  inner_product_param {
    num_output: 10
    weight_filler {
      type: "xavier"
    }
    bias_filler {
      type: "constant"
    }
  }
}
layer {
  name: "relu2"
  type: "ReLU"
  bottom: "ip2"
  top: "ip2"
}
layer {
  name: "ip3"
  type: "InnerProduct"
  bottom: "ip2"
  top: "ip3"
  param {
    lr_mult: 1
  }
  param {
    lr_mult: 2
  }
  inner_product_param {
    num_output: 10
    weight_filler {
      type: "xavier"
    }
    bias_filler {
      type: "constant"
    }
  }
}
layer {
  name: "relu3"
  type: "ReLU"
  bottom: "ip3"
  top: "ip3"
}
layer {
  name: "loss"
  type: "SoftmaxWithLoss"
  bottom: "ip3"
  bottom: "label"
  top: "loss"
}
I0428 19:39:06.780962 24214 layer_factory.hpp:77] Creating layer mnist
I0428 19:39:06.781050 24214 db_lmdb.cpp:35] Opened lmdb examples/mnist/mnist_train_lmdb
I0428 19:39:06.781070 24214 net.cpp:86] Creating Layer mnist
I0428 19:39:06.781076 24214 net.cpp:382] mnist -> data
I0428 19:39:06.781097 24214 net.cpp:382] mnist -> label
I0428 19:39:06.782095 24214 data_layer.cpp:45] output data size: 64,1,28,28
I0428 19:39:06.784265 24214 net.cpp:124] Setting up mnist
I0428 19:39:06.784297 24214 net.cpp:131] Top shape: 64 1 28 28 (50176)
I0428 19:39:06.784303 24214 net.cpp:131] Top shape: 64 (64)
I0428 19:39:06.784307 24214 net.cpp:139] Memory required for data: 200960
I0428 19:39:06.784312 24214 layer_factory.hpp:77] Creating layer conv0
I0428 19:39:06.784327 24214 net.cpp:86] Creating Layer conv0
I0428 19:39:06.784344 24214 net.cpp:408] conv0 <- data
I0428 19:39:06.784355 24214 net.cpp:382] conv0 -> conv0
I0428 19:39:07.016304 24214 net.cpp:124] Setting up conv0
I0428 19:39:07.016331 24214 net.cpp:131] Top shape: 64 2 24 24 (73728)
I0428 19:39:07.016335 24214 net.cpp:139] Memory required for data: 495872
I0428 19:39:07.016350 24214 layer_factory.hpp:77] Creating layer pool0
I0428 19:39:07.016378 24214 net.cpp:86] Creating Layer pool0
I0428 19:39:07.016382 24214 net.cpp:408] pool0 <- conv0
I0428 19:39:07.016388 24214 net.cpp:382] pool0 -> pool0
I0428 19:39:07.016433 24214 net.cpp:124] Setting up pool0
I0428 19:39:07.016443 24214 net.cpp:131] Top shape: 64 2 12 12 (18432)
I0428 19:39:07.016446 24214 net.cpp:139] Memory required for data: 569600
I0428 19:39:07.016449 24214 layer_factory.hpp:77] Creating layer conv1
I0428 19:39:07.016460 24214 net.cpp:86] Creating Layer conv1
I0428 19:39:07.016463 24214 net.cpp:408] conv1 <- pool0
I0428 19:39:07.016469 24214 net.cpp:382] conv1 -> conv1
I0428 19:39:07.018441 24214 net.cpp:124] Setting up conv1
I0428 19:39:07.018457 24214 net.cpp:131] Top shape: 64 2 8 8 (8192)
I0428 19:39:07.018462 24214 net.cpp:139] Memory required for data: 602368
I0428 19:39:07.018471 24214 layer_factory.hpp:77] Creating layer pool1
I0428 19:39:07.018479 24214 net.cpp:86] Creating Layer pool1
I0428 19:39:07.018484 24214 net.cpp:408] pool1 <- conv1
I0428 19:39:07.018489 24214 net.cpp:382] pool1 -> pool1
I0428 19:39:07.018529 24214 net.cpp:124] Setting up pool1
I0428 19:39:07.018537 24214 net.cpp:131] Top shape: 64 2 4 4 (2048)
I0428 19:39:07.018542 24214 net.cpp:139] Memory required for data: 610560
I0428 19:39:07.018544 24214 layer_factory.hpp:77] Creating layer ip1
I0428 19:39:07.018553 24214 net.cpp:86] Creating Layer ip1
I0428 19:39:07.018556 24214 net.cpp:408] ip1 <- pool1
I0428 19:39:07.018561 24214 net.cpp:382] ip1 -> ip1
I0428 19:39:07.018698 24214 net.cpp:124] Setting up ip1
I0428 19:39:07.018705 24214 net.cpp:131] Top shape: 64 25 (1600)
I0428 19:39:07.018709 24214 net.cpp:139] Memory required for data: 616960
I0428 19:39:07.018717 24214 layer_factory.hpp:77] Creating layer relu1
I0428 19:39:07.018723 24214 net.cpp:86] Creating Layer relu1
I0428 19:39:07.018726 24214 net.cpp:408] relu1 <- ip1
I0428 19:39:07.018730 24214 net.cpp:369] relu1 -> ip1 (in-place)
I0428 19:39:07.018896 24214 net.cpp:124] Setting up relu1
I0428 19:39:07.018905 24214 net.cpp:131] Top shape: 64 25 (1600)
I0428 19:39:07.018908 24214 net.cpp:139] Memory required for data: 623360
I0428 19:39:07.018911 24214 layer_factory.hpp:77] Creating layer ip2
I0428 19:39:07.018918 24214 net.cpp:86] Creating Layer ip2
I0428 19:39:07.018921 24214 net.cpp:408] ip2 <- ip1
I0428 19:39:07.018926 24214 net.cpp:382] ip2 -> ip2
I0428 19:39:07.019021 24214 net.cpp:124] Setting up ip2
I0428 19:39:07.019027 24214 net.cpp:131] Top shape: 64 10 (640)
I0428 19:39:07.019031 24214 net.cpp:139] Memory required for data: 625920
I0428 19:39:07.019035 24214 layer_factory.hpp:77] Creating layer relu2
I0428 19:39:07.019042 24214 net.cpp:86] Creating Layer relu2
I0428 19:39:07.019045 24214 net.cpp:408] relu2 <- ip2
I0428 19:39:07.019049 24214 net.cpp:369] relu2 -> ip2 (in-place)
I0428 19:39:07.019788 24214 net.cpp:124] Setting up relu2
I0428 19:39:07.019800 24214 net.cpp:131] Top shape: 64 10 (640)
I0428 19:39:07.019804 24214 net.cpp:139] Memory required for data: 628480
I0428 19:39:07.019807 24214 layer_factory.hpp:77] Creating layer ip3
I0428 19:39:07.019815 24214 net.cpp:86] Creating Layer ip3
I0428 19:39:07.019819 24214 net.cpp:408] ip3 <- ip2
I0428 19:39:07.019824 24214 net.cpp:382] ip3 -> ip3
I0428 19:39:07.019956 24214 net.cpp:124] Setting up ip3
I0428 19:39:07.019964 24214 net.cpp:131] Top shape: 64 10 (640)
I0428 19:39:07.019968 24214 net.cpp:139] Memory required for data: 631040
I0428 19:39:07.019976 24214 layer_factory.hpp:77] Creating layer relu3
I0428 19:39:07.019982 24214 net.cpp:86] Creating Layer relu3
I0428 19:39:07.019985 24214 net.cpp:408] relu3 <- ip3
I0428 19:39:07.019989 24214 net.cpp:369] relu3 -> ip3 (in-place)
I0428 19:39:07.020185 24214 net.cpp:124] Setting up relu3
I0428 19:39:07.020195 24214 net.cpp:131] Top shape: 64 10 (640)
I0428 19:39:07.020200 24214 net.cpp:139] Memory required for data: 633600
I0428 19:39:07.020202 24214 layer_factory.hpp:77] Creating layer loss
I0428 19:39:07.020208 24214 net.cpp:86] Creating Layer loss
I0428 19:39:07.020212 24214 net.cpp:408] loss <- ip3
I0428 19:39:07.020217 24214 net.cpp:408] loss <- label
I0428 19:39:07.020237 24214 net.cpp:382] loss -> loss
I0428 19:39:07.020257 24214 layer_factory.hpp:77] Creating layer loss
…
I0428 19:39:07.020972 24214 solver.cpp:173] Creating test net (#0) specified by net file: ECE595/mnist/train_test/var_everything2/lenet_train_test294.prototxt
I0428 19:39:07.021003 24214 net.cpp:296] The NetState phase (1) differed from the phase (0) specified by a rule in layer mnist
I0428 19:39:07.021101 24214 net.cpp:53] Initializing net from parameters: 
name: "LeNet"
state {
  phase: TEST
}
layer {
  name: "mnist"
  type: "Data"
  top: "data"
  top: "label"
  include {
    phase: TEST
  }
  transform_param {
    scale: 0.00390625
  }
  data_param {
    source: "examples/mnist/mnist_test_lmdb"
    batch_size: 100
    backend: LMDB
  }
}
layer {
  name: "conv0"
  type: "Convolution"
  bottom: "data"
  top: "conv0"
  param {
    lr_mult: 1
  }
  param {
    lr_mult: 2
  }
  convolution_param {
    num_output: 2
    kernel_size: 5
    stride: 1
    weight_filler {
      type: "xavier"
    }
    bias_filler {
      type: "constant"
    }
  }
}
layer {
  name: "pool0"
  type: "Pooling"
  bottom: "conv0"
  top: "pool0"
  pooling_param {
    pool: MAX
    kernel_size: 2
    stride: 2
  }
}
layer {
  name: "conv1"
  type: "Convolution"
  bottom: "pool0"
  top: "conv1"
  param {
    lr_mult: 1
  }
  param {
    lr_mult: 2
  }
  convolution_param {
    num_output: 2
    kernel_size: 5
    stride: 1
    weight_filler {
      type: "xavier"
    }
    bias_filler {
      type: "constant"
    }
  }
}
layer {
  name: "pool1"
  type: "Pooling"
  bottom: "conv1"
  top: "pool1"
  pooling_param {
    pool: MAX
    kernel_size: 2
    stride: 2
  }
}
layer {
  name: "ip1"
  type: "InnerProduct"
  bottom: "pool1"
  top: "ip1"
  param {
    lr_mult: 1
  }
  param {
    lr_mult: 2
  }
  inner_product_param {
    num_output: 25
    weight_filler {
      type: "xavier"
    }
    bias_filler {
      type: "constant"
    }
  }
}
layer {
  name: "relu1"
  type: "ReLU"
  bottom: "ip1"
  top: "ip1"
}
layer {
  name: "ip2"
  type: "InnerProduct"
  bottom: "ip1"
  top: "ip2"
  param {
    lr_mult: 1
  }
  param {
    lr_mult: 2
  }
  inner_product_param {
    num_output: 10
    weight_filler {
      type: "xavier"
    }
    bias_filler {
      type: "constant"
    }
  }
}
layer {
  name: "relu2"
  type: "ReLU"
  bottom: "ip2"
  top: "ip2"
}
layer {
  name: "ip3"
  type: "InnerProduct"
  bottom: "ip2"
  top: "ip3"
  param {
    lr_mult: 1
  }
  param {
    lr_mult: 2
  }
  inner_product_param {
    num_output: 10
    weight_filler {
      type: "xavier"
    }
    bias_filler {
      type: "constant"
    }
  }
}
layer {
  name: "relu3"
  type: "ReLU"
  bottom: "ip3"
  top: "ip3"
}
layer {
  name: "accuracy"
  type: "Accuracy"
  bottom: "ip3"
  bottom: "label"
  top: "accuracy"
  include {
    phase: TEST
  }
}
layer {
  name: "loss"
  type: "SoftmaxWithLoss"
  bottom: "ip3"
  bottom: "label"
  top: "loss"
}
I0428 19:39:07.021211 24214 layer_factory.hpp:77] Creating layer mnist
I0428 19:39:07.021256 24214 db_lmdb.cpp:35] Opened lmdb examples/mnist/mnist_test_lmdb
I0428 19:39:07.021273 24214 net.cpp:86] Creating Layer mnist
I0428 19:39:07.021280 24214 net.cpp:382] mnist -> data
I0428 19:39:07.021287 24214 net.cpp:382] mnist -> label
I0428 19:39:07.021379 24214 data_layer.cpp:45] output data size: 100,1,28,28
I0428 19:39:07.023257 24214 net.cpp:124] Setting up mnist
I0428 19:39:07.023301 24214 net.cpp:131] Top shape: 100 1 28 28 (78400)
I0428 19:39:07.023308 24214 net.cpp:131] Top shape: 100 (100)
I0428 19:39:07.023311 24214 net.cpp:139] Memory required for data: 314000
I0428 19:39:07.023314 24214 layer_factory.hpp:77] Creating layer label_mnist_1_split
I0428 19:39:07.023335 24214 net.cpp:86] Creating Layer label_mnist_1_split
I0428 19:39:07.023340 24214 net.cpp:408] label_mnist_1_split <- label
I0428 19:39:07.023345 24214 net.cpp:382] label_mnist_1_split -> label_mnist_1_split_0
I0428 19:39:07.023352 24214 net.cpp:382] label_mnist_1_split -> label_mnist_1_split_1
I0428 19:39:07.023480 24214 net.cpp:124] Setting up label_mnist_1_split
I0428 19:39:07.023488 24214 net.cpp:131] Top shape: 100 (100)
I0428 19:39:07.023493 24214 net.cpp:131] Top shape: 100 (100)
I0428 19:39:07.023495 24214 net.cpp:139] Memory required for data: 314800
I0428 19:39:07.023499 24214 layer_factory.hpp:77] Creating layer conv0
I0428 19:39:07.023509 24214 net.cpp:86] Creating Layer conv0
I0428 19:39:07.023511 24214 net.cpp:408] conv0 <- data
I0428 19:39:07.023517 24214 net.cpp:382] conv0 -> conv0
I0428 19:39:07.025334 24214 net.cpp:124] Setting up conv0
I0428 19:39:07.025348 24214 net.cpp:131] Top shape: 100 2 24 24 (115200)
I0428 19:39:07.025352 24214 net.cpp:139] Memory required for data: 775600
I0428 19:39:07.025362 24214 layer_factory.hpp:77] Creating layer pool0
I0428 19:39:07.025367 24214 net.cpp:86] Creating Layer pool0
I0428 19:39:07.025372 24214 net.cpp:408] pool0 <- conv0
I0428 19:39:07.025377 24214 net.cpp:382] pool0 -> pool0
I0428 19:39:07.025411 24214 net.cpp:124] Setting up pool0
I0428 19:39:07.025416 24214 net.cpp:131] Top shape: 100 2 12 12 (28800)
I0428 19:39:07.025419 24214 net.cpp:139] Memory required for data: 890800
I0428 19:39:07.025424 24214 layer_factory.hpp:77] Creating layer conv1
I0428 19:39:07.025431 24214 net.cpp:86] Creating Layer conv1
I0428 19:39:07.025434 24214 net.cpp:408] conv1 <- pool0
I0428 19:39:07.025439 24214 net.cpp:382] conv1 -> conv1
I0428 19:39:07.026974 24214 net.cpp:124] Setting up conv1
I0428 19:39:07.026988 24214 net.cpp:131] Top shape: 100 2 8 8 (12800)
I0428 19:39:07.026993 24214 net.cpp:139] Memory required for data: 942000
I0428 19:39:07.027007 24214 layer_factory.hpp:77] Creating layer pool1
I0428 19:39:07.027014 24214 net.cpp:86] Creating Layer pool1
I0428 19:39:07.027019 24214 net.cpp:408] pool1 <- conv1
I0428 19:39:07.027024 24214 net.cpp:382] pool1 -> pool1
I0428 19:39:07.027060 24214 net.cpp:124] Setting up pool1
I0428 19:39:07.027072 24214 net.cpp:131] Top shape: 100 2 4 4 (3200)
I0428 19:39:07.027076 24214 net.cpp:139] Memory required for data: 954800
I0428 19:39:07.027078 24214 layer_factory.hpp:77] Creating layer ip1
I0428 19:39:07.027086 24214 net.cpp:86] Creating Layer ip1
I0428 19:39:07.027088 24214 net.cpp:408] ip1 <- pool1
I0428 19:39:07.027093 24214 net.cpp:382] ip1 -> ip1
I0428 19:39:07.027226 24214 net.cpp:124] Setting up ip1
I0428 19:39:07.027235 24214 net.cpp:131] Top shape: 100 25 (2500)
I0428 19:39:07.027251 24214 net.cpp:139] Memory required for data: 964800
I0428 19:39:07.027259 24214 layer_factory.hpp:77] Creating layer relu1
I0428 19:39:07.027264 24214 net.cpp:86] Creating Layer relu1
I0428 19:39:07.027268 24214 net.cpp:408] relu1 <- ip1
I0428 19:39:07.027274 24214 net.cpp:369] relu1 -> ip1 (in-place)
I0428 19:39:07.027492 24214 net.cpp:124] Setting up relu1
I0428 19:39:07.027501 24214 net.cpp:131] Top shape: 100 25 (2500)
I0428 19:39:07.027505 24214 net.cpp:139] Memory required for data: 974800
I0428 19:39:07.027508 24214 layer_factory.hpp:77] Creating layer ip2
I0428 19:39:07.027518 24214 net.cpp:86] Creating Layer ip2
I0428 19:39:07.027529 24214 net.cpp:408] ip2 <- ip1
I0428 19:39:07.027534 24214 net.cpp:382] ip2 -> ip2
I0428 19:39:07.027659 24214 net.cpp:124] Setting up ip2
I0428 19:39:07.027667 24214 net.cpp:131] Top shape: 100 10 (1000)
I0428 19:39:07.027671 24214 net.cpp:139] Memory required for data: 978800
I0428 19:39:07.027683 24214 layer_factory.hpp:77] Creating layer relu2
I0428 19:39:07.027698 24214 net.cpp:86] Creating Layer relu2
I0428 19:39:07.027700 24214 net.cpp:408] relu2 <- ip2
I0428 19:39:07.027706 24214 net.cpp:369] relu2 -> ip2 (in-place)
I0428 19:39:07.027896 24214 net.cpp:124] Setting up relu2
I0428 19:39:07.027904 24214 net.cpp:131] Top shape: 100 10 (1000)
I0428 19:39:07.027909 24214 net.cpp:139] Memory required for data: 982800
I0428 19:39:07.027911 24214 layer_factory.hpp:77] Creating layer ip3
I0428 19:39:07.027917 24214 net.cpp:86] Creating Layer ip3
I0428 19:39:07.027920 24214 net.cpp:408] ip3 <- ip2
I0428 19:39:07.027925 24214 net.cpp:382] ip3 -> ip3
I0428 19:39:07.028051 24214 net.cpp:124] Setting up ip3
I0428 19:39:07.028059 24214 net.cpp:131] Top shape: 100 10 (1000)
I0428 19:39:07.028061 24214 net.cpp:139] Memory required for data: 986800
I0428 19:39:07.028071 24214 layer_factory.hpp:77] Creating layer relu3
I0428 19:39:07.028075 24214 net.cpp:86] Creating Layer relu3
I0428 19:39:07.028079 24214 net.cpp:408] relu3 <- ip3
I0428 19:39:07.028082 24214 net.cpp:369] relu3 -> ip3 (in-place)
I0428 19:39:07.028990 24214 net.cpp:124] Setting up relu3
I0428 19:39:07.029005 24214 net.cpp:131] Top shape: 100 10 (1000)
I0428 19:39:07.029008 24214 net.cpp:139] Memory required for data: 990800
I0428 19:39:07.029012 24214 layer_factory.hpp:77] Creating layer ip3_relu3_0_split
I0428 19:39:07.029019 24214 net.cpp:86] Creating Layer ip3_relu3_0_split
I0428 19:39:07.029023 24214 net.cpp:408] ip3_relu3_0_split <- ip3
I0428 19:39:07.029028 24214 net.cpp:382] ip3_relu3_0_split -> ip3_relu3_0_split_0
I0428 19:39:07.029043 24214 net.cpp:382] ip3_relu3_0_split -> ip3_relu3_0_split_1
I0428 19:39:07.029088 24214 net.cpp:124] Setting up ip3_relu3_0_split
I0428 19:39:07.029093 24214 net.cpp:131] Top shape: 100 10 (1000)
I0428 19:39:07.029098 24214 net.cpp:131] Top shape: 100 10 (1000)
I0428 19:39:07.029103 24214 net.cpp:139] Memory required for data: 998800
I0428 19:39:07.029105 24214 layer_factory.hpp:77] Creating layer accuracy
I0428 19:39:07.029111 24214 net.cpp:86] Creating Layer accuracy
I0428 19:39:07.029115 24214 net.cpp:408] accuracy <- ip3_relu3_0_split_0
I0428 19:39:07.029120 24214 net.cpp:408] accuracy <- label_mnist_1_split_0
I0428 19:39:07.029126 24214 net.cpp:382] accuracy -> accuracy
…
