…
I0428 19:48:40.298502 26540 net.cpp:296] The NetState phase (0) differed from the phase (1) specified by a rule in layer mnist
I0428 19:48:40.298521 26540 net.cpp:296] The NetState phase (0) differed from the phase (1) specified by a rule in layer accuracy
I0428 19:48:40.298593 26540 net.cpp:53] Initializing net from parameters: 
name: "LeNet"
state {
  phase: TRAIN
  level: 0
  stage: ""
}
layer {
  name: "mnist"
  type: "Data"
  top: "data"
  top: "label"
  include {
    phase: TRAIN
  }
  transform_param {
    scale: 0.00390625
  }
  data_param {
    source: "examples/mnist/mnist_train_lmdb"
    batch_size: 64
    backend: LMDB
  }
}
layer {
  name: "conv0"
  type: "Convolution"
  bottom: "data"
  top: "conv0"
  param {
    lr_mult: 1
  }
  param {
    lr_mult: 2
  }
  convolution_param {
    num_output: 5
    kernel_size: 5
    stride: 1
    weight_filler {
      type: "xavier"
    }
    bias_filler {
      type: "constant"
    }
  }
}
layer {
  name: "pool0"
  type: "Pooling"
  bottom: "conv0"
  top: "pool0"
  pooling_param {
    pool: MAX
    kernel_size: 2
    stride: 2
  }
}
layer {
  name: "conv1"
  type: "Convolution"
  bottom: "pool0"
  top: "conv1"
  param {
    lr_mult: 1
  }
  param {
    lr_mult: 2
  }
  convolution_param {
    num_output: 5
    kernel_size: 5
    stride: 1
    weight_filler {
      type: "xavier"
    }
    bias_filler {
      type: "constant"
    }
  }
}
layer {
  name: "pool1"
  type: "Pooling"
  bottom: "conv1"
  top: "pool1"
  pooling_param {
    pool: MAX
    kernel_size: 2
    stride: 2
  }
}
layer {
  name: "ip1"
  type: "InnerProduct"
  bottom: "pool1"
  top: "ip1"
  param {
    lr_mult: 1
  }
  param {
    lr_mult: 2
  }
  inner_product_param {
    num_output: 10
    weight_filler {
      type: "xavier"
    }
    bias_filler {
      type: "constant"
    }
  }
}
layer {
  name: "relu1"
  type: "ReLU"
  bottom: "ip1"
  top: "ip1"
}
layer {
  name: "ip2"
  type: "InnerProduct"
  bottom: "ip1"
  top: "ip2"
  param {
    lr_mult: 1
  }
  param {
    lr_mult: 2
  }
  inner_product_param {
    num_output: 10
    weight_filler {
      type: "xavier"
    }
    bias_filler {
      type: "constant"
    }
  }
}
layer {
  name: "relu2"
  type: "ReLU"
  bottom: "ip2"
  top: "ip2"
}
layer {
  name: "loss"
  type: "SoftmaxWithLoss"
  bottom: "ip2"
  bottom: "label"
  top: "loss"
}
I0428 19:48:40.298676 26540 layer_factory.hpp:77] Creating layer mnist
I0428 19:48:40.298775 26540 db_lmdb.cpp:35] Opened lmdb examples/mnist/mnist_train_lmdb
I0428 19:48:40.298801 26540 net.cpp:86] Creating Layer mnist
I0428 19:48:40.298812 26540 net.cpp:382] mnist -> data
I0428 19:48:40.298836 26540 net.cpp:382] mnist -> label
I0428 19:48:40.299917 26540 data_layer.cpp:45] output data size: 64,1,28,28
I0428 19:48:40.302240 26540 net.cpp:124] Setting up mnist
I0428 19:48:40.302273 26540 net.cpp:131] Top shape: 64 1 28 28 (50176)
I0428 19:48:40.302281 26540 net.cpp:131] Top shape: 64 (64)
I0428 19:48:40.302285 26540 net.cpp:139] Memory required for data: 200960
I0428 19:48:40.302294 26540 layer_factory.hpp:77] Creating layer conv0
I0428 19:48:40.302314 26540 net.cpp:86] Creating Layer conv0
I0428 19:48:40.302323 26540 net.cpp:408] conv0 <- data
I0428 19:48:40.302340 26540 net.cpp:382] conv0 -> conv0
I0428 19:48:40.541350 26540 net.cpp:124] Setting up conv0
I0428 19:48:40.541379 26540 net.cpp:131] Top shape: 64 5 24 24 (184320)
I0428 19:48:40.541384 26540 net.cpp:139] Memory required for data: 938240
I0428 19:48:40.541448 26540 layer_factory.hpp:77] Creating layer pool0
I0428 19:48:40.541467 26540 net.cpp:86] Creating Layer pool0
I0428 19:48:40.541474 26540 net.cpp:408] pool0 <- conv0
I0428 19:48:40.541483 26540 net.cpp:382] pool0 -> pool0
I0428 19:48:40.541537 26540 net.cpp:124] Setting up pool0
I0428 19:48:40.541545 26540 net.cpp:131] Top shape: 64 5 12 12 (46080)
I0428 19:48:40.541550 26540 net.cpp:139] Memory required for data: 1122560
I0428 19:48:40.541555 26540 layer_factory.hpp:77] Creating layer conv1
I0428 19:48:40.541570 26540 net.cpp:86] Creating Layer conv1
I0428 19:48:40.541576 26540 net.cpp:408] conv1 <- pool0
I0428 19:48:40.541585 26540 net.cpp:382] conv1 -> conv1
I0428 19:48:40.543599 26540 net.cpp:124] Setting up conv1
I0428 19:48:40.543615 26540 net.cpp:131] Top shape: 64 5 8 8 (20480)
I0428 19:48:40.543635 26540 net.cpp:139] Memory required for data: 1204480
I0428 19:48:40.543663 26540 layer_factory.hpp:77] Creating layer pool1
I0428 19:48:40.543680 26540 net.cpp:86] Creating Layer pool1
I0428 19:48:40.543689 26540 net.cpp:408] pool1 <- conv1
I0428 19:48:40.543696 26540 net.cpp:382] pool1 -> pool1
I0428 19:48:40.543743 26540 net.cpp:124] Setting up pool1
I0428 19:48:40.543752 26540 net.cpp:131] Top shape: 64 5 4 4 (5120)
I0428 19:48:40.543757 26540 net.cpp:139] Memory required for data: 1224960
I0428 19:48:40.543763 26540 layer_factory.hpp:77] Creating layer ip1
I0428 19:48:40.543777 26540 net.cpp:86] Creating Layer ip1
I0428 19:48:40.543784 26540 net.cpp:408] ip1 <- pool1
I0428 19:48:40.543792 26540 net.cpp:382] ip1 -> ip1
I0428 19:48:40.543906 26540 net.cpp:124] Setting up ip1
I0428 19:48:40.543915 26540 net.cpp:131] Top shape: 64 10 (640)
I0428 19:48:40.543920 26540 net.cpp:139] Memory required for data: 1227520
I0428 19:48:40.543931 26540 layer_factory.hpp:77] Creating layer relu1
I0428 19:48:40.543941 26540 net.cpp:86] Creating Layer relu1
I0428 19:48:40.543948 26540 net.cpp:408] relu1 <- ip1
I0428 19:48:40.543957 26540 net.cpp:369] relu1 -> ip1 (in-place)
I0428 19:48:40.544148 26540 net.cpp:124] Setting up relu1
I0428 19:48:40.544159 26540 net.cpp:131] Top shape: 64 10 (640)
I0428 19:48:40.544164 26540 net.cpp:139] Memory required for data: 1230080
I0428 19:48:40.544169 26540 layer_factory.hpp:77] Creating layer ip2
I0428 19:48:40.544181 26540 net.cpp:86] Creating Layer ip2
I0428 19:48:40.544188 26540 net.cpp:408] ip2 <- ip1
I0428 19:48:40.544195 26540 net.cpp:382] ip2 -> ip2
I0428 19:48:40.544307 26540 net.cpp:124] Setting up ip2
I0428 19:48:40.544317 26540 net.cpp:131] Top shape: 64 10 (640)
I0428 19:48:40.544322 26540 net.cpp:139] Memory required for data: 1232640
I0428 19:48:40.544330 26540 layer_factory.hpp:77] Creating layer relu2
I0428 19:48:40.544342 26540 net.cpp:86] Creating Layer relu2
I0428 19:48:40.544348 26540 net.cpp:408] relu2 <- ip2
I0428 19:48:40.544356 26540 net.cpp:369] relu2 -> ip2 (in-place)
I0428 19:48:40.545155 26540 net.cpp:124] Setting up relu2
I0428 19:48:40.545169 26540 net.cpp:131] Top shape: 64 10 (640)
I0428 19:48:40.545176 26540 net.cpp:139] Memory required for data: 1235200
I0428 19:48:40.545181 26540 layer_factory.hpp:77] Creating layer loss
I0428 19:48:40.545188 26540 net.cpp:86] Creating Layer loss
I0428 19:48:40.545209 26540 net.cpp:408] loss <- ip2
I0428 19:48:40.545231 26540 net.cpp:408] loss <- label
I0428 19:48:40.545240 26540 net.cpp:382] loss -> loss
I0428 19:48:40.545266 26540 layer_factory.hpp:77] Creating layer loss
…
I0428 19:48:40.545948 26540 solver.cpp:173] Creating test net (#0) specified by net file: ECE595/mnist/train_test/var_everything2/lenet_train_test551.prototxt
I0428 19:48:40.545996 26540 net.cpp:296] The NetState phase (1) differed from the phase (0) specified by a rule in layer mnist
I0428 19:48:40.546094 26540 net.cpp:53] Initializing net from parameters: 
name: "LeNet"
state {
  phase: TEST
}
layer {
  name: "mnist"
  type: "Data"
  top: "data"
  top: "label"
  include {
    phase: TEST
  }
  transform_param {
    scale: 0.00390625
  }
  data_param {
    source: "examples/mnist/mnist_test_lmdb"
    batch_size: 100
    backend: LMDB
  }
}
layer {
  name: "conv0"
  type: "Convolution"
  bottom: "data"
  top: "conv0"
  param {
    lr_mult: 1
  }
  param {
    lr_mult: 2
  }
  convolution_param {
    num_output: 5
    kernel_size: 5
    stride: 1
    weight_filler {
      type: "xavier"
    }
    bias_filler {
      type: "constant"
    }
  }
}
layer {
  name: "pool0"
  type: "Pooling"
  bottom: "conv0"
  top: "pool0"
  pooling_param {
    pool: MAX
    kernel_size: 2
    stride: 2
  }
}
layer {
  name: "conv1"
  type: "Convolution"
  bottom: "pool0"
  top: "conv1"
  param {
    lr_mult: 1
  }
  param {
    lr_mult: 2
  }
  convolution_param {
    num_output: 5
    kernel_size: 5
    stride: 1
    weight_filler {
      type: "xavier"
    }
    bias_filler {
      type: "constant"
    }
  }
}
layer {
  name: "pool1"
  type: "Pooling"
  bottom: "conv1"
  top: "pool1"
  pooling_param {
    pool: MAX
    kernel_size: 2
    stride: 2
  }
}
layer {
  name: "ip1"
  type: "InnerProduct"
  bottom: "pool1"
  top: "ip1"
  param {
    lr_mult: 1
  }
  param {
    lr_mult: 2
  }
  inner_product_param {
    num_output: 10
    weight_filler {
      type: "xavier"
    }
    bias_filler {
      type: "constant"
    }
  }
}
layer {
  name: "relu1"
  type: "ReLU"
  bottom: "ip1"
  top: "ip1"
}
layer {
  name: "ip2"
  type: "InnerProduct"
  bottom: "ip1"
  top: "ip2"
  param {
    lr_mult: 1
  }
  param {
    lr_mult: 2
  }
  inner_product_param {
    num_output: 10
    weight_filler {
      type: "xavier"
    }
    bias_filler {
      type: "constant"
    }
  }
}
layer {
  name: "relu2"
  type: "ReLU"
  bottom: "ip2"
  top: "ip2"
}
layer {
  name: "accuracy"
  type: "Accuracy"
  bottom: "ip2"
  bottom: "label"
  top: "accuracy"
  include {
    phase: TEST
  }
}
layer {
  name: "loss"
  type: "SoftmaxWithLoss"
  bottom: "ip2"
  bottom: "label"
  top: "loss"
}
I0428 19:48:40.546198 26540 layer_factory.hpp:77] Creating layer mnist
I0428 19:48:40.546262 26540 db_lmdb.cpp:35] Opened lmdb examples/mnist/mnist_test_lmdb
I0428 19:48:40.546296 26540 net.cpp:86] Creating Layer mnist
I0428 19:48:40.546321 26540 net.cpp:382] mnist -> data
I0428 19:48:40.546334 26540 net.cpp:382] mnist -> label
I0428 19:48:40.546474 26540 data_layer.cpp:45] output data size: 100,1,28,28
I0428 19:48:40.548588 26540 net.cpp:124] Setting up mnist
I0428 19:48:40.548602 26540 net.cpp:131] Top shape: 100 1 28 28 (78400)
I0428 19:48:40.548610 26540 net.cpp:131] Top shape: 100 (100)
I0428 19:48:40.548615 26540 net.cpp:139] Memory required for data: 314000
I0428 19:48:40.548621 26540 layer_factory.hpp:77] Creating layer label_mnist_1_split
I0428 19:48:40.548638 26540 net.cpp:86] Creating Layer label_mnist_1_split
I0428 19:48:40.548645 26540 net.cpp:408] label_mnist_1_split <- label
I0428 19:48:40.548655 26540 net.cpp:382] label_mnist_1_split -> label_mnist_1_split_0
I0428 19:48:40.548665 26540 net.cpp:382] label_mnist_1_split -> label_mnist_1_split_1
I0428 19:48:40.548773 26540 net.cpp:124] Setting up label_mnist_1_split
I0428 19:48:40.548789 26540 net.cpp:131] Top shape: 100 (100)
I0428 19:48:40.548796 26540 net.cpp:131] Top shape: 100 (100)
I0428 19:48:40.548800 26540 net.cpp:139] Memory required for data: 314800
I0428 19:48:40.548805 26540 layer_factory.hpp:77] Creating layer conv0
I0428 19:48:40.548844 26540 net.cpp:86] Creating Layer conv0
I0428 19:48:40.548851 26540 net.cpp:408] conv0 <- data
I0428 19:48:40.548861 26540 net.cpp:382] conv0 -> conv0
I0428 19:48:40.550447 26540 net.cpp:124] Setting up conv0
I0428 19:48:40.550462 26540 net.cpp:131] Top shape: 100 5 24 24 (288000)
I0428 19:48:40.550467 26540 net.cpp:139] Memory required for data: 1466800
I0428 19:48:40.550484 26540 layer_factory.hpp:77] Creating layer pool0
I0428 19:48:40.550509 26540 net.cpp:86] Creating Layer pool0
I0428 19:48:40.550515 26540 net.cpp:408] pool0 <- conv0
I0428 19:48:40.550523 26540 net.cpp:382] pool0 -> pool0
I0428 19:48:40.550565 26540 net.cpp:124] Setting up pool0
I0428 19:48:40.550575 26540 net.cpp:131] Top shape: 100 5 12 12 (72000)
I0428 19:48:40.550578 26540 net.cpp:139] Memory required for data: 1754800
I0428 19:48:40.550583 26540 layer_factory.hpp:77] Creating layer conv1
I0428 19:48:40.550597 26540 net.cpp:86] Creating Layer conv1
I0428 19:48:40.550604 26540 net.cpp:408] conv1 <- pool0
I0428 19:48:40.550616 26540 net.cpp:382] conv1 -> conv1
I0428 19:48:40.552850 26540 net.cpp:124] Setting up conv1
I0428 19:48:40.552881 26540 net.cpp:131] Top shape: 100 5 8 8 (32000)
I0428 19:48:40.552886 26540 net.cpp:139] Memory required for data: 1882800
I0428 19:48:40.552917 26540 layer_factory.hpp:77] Creating layer pool1
I0428 19:48:40.552927 26540 net.cpp:86] Creating Layer pool1
I0428 19:48:40.552934 26540 net.cpp:408] pool1 <- conv1
I0428 19:48:40.552947 26540 net.cpp:382] pool1 -> pool1
I0428 19:48:40.552997 26540 net.cpp:124] Setting up pool1
I0428 19:48:40.553007 26540 net.cpp:131] Top shape: 100 5 4 4 (8000)
I0428 19:48:40.553012 26540 net.cpp:139] Memory required for data: 1914800
I0428 19:48:40.553019 26540 layer_factory.hpp:77] Creating layer ip1
I0428 19:48:40.553030 26540 net.cpp:86] Creating Layer ip1
I0428 19:48:40.553036 26540 net.cpp:408] ip1 <- pool1
I0428 19:48:40.553048 26540 net.cpp:382] ip1 -> ip1
I0428 19:48:40.553200 26540 net.cpp:124] Setting up ip1
I0428 19:48:40.553210 26540 net.cpp:131] Top shape: 100 10 (1000)
I0428 19:48:40.553215 26540 net.cpp:139] Memory required for data: 1918800
I0428 19:48:40.553226 26540 layer_factory.hpp:77] Creating layer relu1
I0428 19:48:40.553236 26540 net.cpp:86] Creating Layer relu1
I0428 19:48:40.553242 26540 net.cpp:408] relu1 <- ip1
I0428 19:48:40.553251 26540 net.cpp:369] relu1 -> ip1 (in-place)
I0428 19:48:40.553424 26540 net.cpp:124] Setting up relu1
I0428 19:48:40.553434 26540 net.cpp:131] Top shape: 100 10 (1000)
I0428 19:48:40.553439 26540 net.cpp:139] Memory required for data: 1922800
I0428 19:48:40.553445 26540 layer_factory.hpp:77] Creating layer ip2
I0428 19:48:40.553455 26540 net.cpp:86] Creating Layer ip2
I0428 19:48:40.553462 26540 net.cpp:408] ip2 <- ip1
I0428 19:48:40.553472 26540 net.cpp:382] ip2 -> ip2
I0428 19:48:40.553578 26540 net.cpp:124] Setting up ip2
I0428 19:48:40.553587 26540 net.cpp:131] Top shape: 100 10 (1000)
I0428 19:48:40.553601 26540 net.cpp:139] Memory required for data: 1926800
I0428 19:48:40.553611 26540 layer_factory.hpp:77] Creating layer relu2
I0428 19:48:40.553617 26540 net.cpp:86] Creating Layer relu2
I0428 19:48:40.553637 26540 net.cpp:408] relu2 <- ip2
I0428 19:48:40.553645 26540 net.cpp:369] relu2 -> ip2 (in-place)
I0428 19:48:40.553881 26540 net.cpp:124] Setting up relu2
I0428 19:48:40.553891 26540 net.cpp:131] Top shape: 100 10 (1000)
I0428 19:48:40.553896 26540 net.cpp:139] Memory required for data: 1930800
I0428 19:48:40.553917 26540 layer_factory.hpp:77] Creating layer ip2_relu2_0_split
I0428 19:48:40.553941 26540 net.cpp:86] Creating Layer ip2_relu2_0_split
I0428 19:48:40.553946 26540 net.cpp:408] ip2_relu2_0_split <- ip2
I0428 19:48:40.553956 26540 net.cpp:382] ip2_relu2_0_split -> ip2_relu2_0_split_0
I0428 19:48:40.553978 26540 net.cpp:382] ip2_relu2_0_split -> ip2_relu2_0_split_1
I0428 19:48:40.554026 26540 net.cpp:124] Setting up ip2_relu2_0_split
I0428 19:48:40.554036 26540 net.cpp:131] Top shape: 100 10 (1000)
I0428 19:48:40.554044 26540 net.cpp:131] Top shape: 100 10 (1000)
I0428 19:48:40.554050 26540 net.cpp:139] Memory required for data: 1938800
I0428 19:48:40.554055 26540 layer_factory.hpp:77] Creating layer accuracy
I0428 19:48:40.554067 26540 net.cpp:86] Creating Layer accuracy
I0428 19:48:40.554074 26540 net.cpp:408] accuracy <- ip2_relu2_0_split_0
I0428 19:48:40.554080 26540 net.cpp:408] accuracy <- label_mnist_1_split_0
I0428 19:48:40.554088 26540 net.cpp:382] accuracy -> accuracy
…
