…
I0428 20:12:36.219959 32279 net.cpp:296] The NetState phase (0) differed from the phase (1) specified by a rule in layer mnist
I0428 20:12:36.219980 32279 net.cpp:296] The NetState phase (0) differed from the phase (1) specified by a rule in layer accuracy
I0428 20:12:36.220084 32279 net.cpp:53] Initializing net from parameters: 
name: "LeNet"
state {
  phase: TRAIN
  level: 0
  stage: ""
}
layer {
  name: "mnist"
  type: "Data"
  top: "data"
  top: "label"
  include {
    phase: TRAIN
  }
  transform_param {
    scale: 0.00390625
  }
  data_param {
    source: "examples/mnist/mnist_train_lmdb"
    batch_size: 64
    backend: LMDB
  }
}
layer {
  name: "conv0"
  type: "Convolution"
  bottom: "data"
  top: "conv0"
  param {
    lr_mult: 1
  }
  param {
    lr_mult: 2
  }
  convolution_param {
    num_output: 25
    kernel_size: 5
    stride: 1
    weight_filler {
      type: "xavier"
    }
    bias_filler {
      type: "constant"
    }
  }
}
layer {
  name: "pool0"
  type: "Pooling"
  bottom: "conv0"
  top: "pool0"
  pooling_param {
    pool: MAX
    kernel_size: 2
    stride: 2
  }
}
layer {
  name: "conv1"
  type: "Convolution"
  bottom: "pool0"
  top: "conv1"
  param {
    lr_mult: 1
  }
  param {
    lr_mult: 2
  }
  convolution_param {
    num_output: 100
    kernel_size: 5
    stride: 1
    weight_filler {
      type: "xavier"
    }
    bias_filler {
      type: "constant"
    }
  }
}
layer {
  name: "pool1"
  type: "Pooling"
  bottom: "conv1"
  top: "pool1"
  pooling_param {
    pool: MAX
    kernel_size: 2
    stride: 2
  }
}
layer {
  name: "ip1"
  type: "InnerProduct"
  bottom: "pool1"
  top: "ip1"
  param {
    lr_mult: 1
  }
  param {
    lr_mult: 2
  }
  inner_product_param {
    num_output: 10
    weight_filler {
      type: "xavier"
    }
    bias_filler {
      type: "constant"
    }
  }
}
layer {
  name: "relu1"
  type: "ReLU"
  bottom: "ip1"
  top: "ip1"
}
layer {
  name: "ip2"
  type: "InnerProduct"
  bottom: "ip1"
  top: "ip2"
  param {
    lr_mult: 1
  }
  param {
    lr_mult: 2
  }
  inner_product_param {
    num_output: 10
    weight_filler {
      type: "xavier"
    }
    bias_filler {
      type: "constant"
    }
  }
}
layer {
  name: "relu2"
  type: "ReLU"
  bottom: "ip2"
  top: "ip2"
}
layer {
  name: "ip3"
  type: "InnerProduct"
  bottom: "ip2"
  top: "ip3"
  param {
    lr_mult: 1
  }
  param {
    lr_mult: 2
  }
  inner_product_param {
    num_output: 10
    weight_filler {
      type: "xavier"
    }
    bias_filler {
      type: "constant"
    }
  }
}
layer {
  name: "relu3"
  type: "ReLU"
  bottom: "ip3"
  top: "ip3"
}
layer {
  name: "loss"
  type: "SoftmaxWithLoss"
  bottom: "ip3"
  bottom: "label"
  top: "loss"
}
I0428 20:12:36.220161 32279 layer_factory.hpp:77] Creating layer mnist
I0428 20:12:36.220257 32279 db_lmdb.cpp:35] Opened lmdb examples/mnist/mnist_train_lmdb
I0428 20:12:36.220279 32279 net.cpp:86] Creating Layer mnist
I0428 20:12:36.220288 32279 net.cpp:382] mnist -> data
I0428 20:12:36.220309 32279 net.cpp:382] mnist -> label
I0428 20:12:36.221431 32279 data_layer.cpp:45] output data size: 64,1,28,28
I0428 20:12:36.223912 32279 net.cpp:124] Setting up mnist
I0428 20:12:36.223932 32279 net.cpp:131] Top shape: 64 1 28 28 (50176)
I0428 20:12:36.223937 32279 net.cpp:131] Top shape: 64 (64)
I0428 20:12:36.223940 32279 net.cpp:139] Memory required for data: 200960
I0428 20:12:36.223948 32279 layer_factory.hpp:77] Creating layer conv0
I0428 20:12:36.223964 32279 net.cpp:86] Creating Layer conv0
I0428 20:12:36.223987 32279 net.cpp:408] conv0 <- data
I0428 20:12:36.224001 32279 net.cpp:382] conv0 -> conv0
I0428 20:12:36.515564 32279 net.cpp:124] Setting up conv0
I0428 20:12:36.515595 32279 net.cpp:131] Top shape: 64 25 24 24 (921600)
I0428 20:12:36.515600 32279 net.cpp:139] Memory required for data: 3887360
I0428 20:12:36.515617 32279 layer_factory.hpp:77] Creating layer pool0
I0428 20:12:36.515631 32279 net.cpp:86] Creating Layer pool0
I0428 20:12:36.515636 32279 net.cpp:408] pool0 <- conv0
I0428 20:12:36.515642 32279 net.cpp:382] pool0 -> pool0
I0428 20:12:36.515692 32279 net.cpp:124] Setting up pool0
I0428 20:12:36.515702 32279 net.cpp:131] Top shape: 64 25 12 12 (230400)
I0428 20:12:36.515705 32279 net.cpp:139] Memory required for data: 4808960
I0428 20:12:36.515708 32279 layer_factory.hpp:77] Creating layer conv1
I0428 20:12:36.515722 32279 net.cpp:86] Creating Layer conv1
I0428 20:12:36.515727 32279 net.cpp:408] conv1 <- pool0
I0428 20:12:36.515733 32279 net.cpp:382] conv1 -> conv1
I0428 20:12:36.518232 32279 net.cpp:124] Setting up conv1
I0428 20:12:36.518249 32279 net.cpp:131] Top shape: 64 100 8 8 (409600)
I0428 20:12:36.518254 32279 net.cpp:139] Memory required for data: 6447360
I0428 20:12:36.518265 32279 layer_factory.hpp:77] Creating layer pool1
I0428 20:12:36.518272 32279 net.cpp:86] Creating Layer pool1
I0428 20:12:36.518276 32279 net.cpp:408] pool1 <- conv1
I0428 20:12:36.518282 32279 net.cpp:382] pool1 -> pool1
I0428 20:12:36.518323 32279 net.cpp:124] Setting up pool1
I0428 20:12:36.518332 32279 net.cpp:131] Top shape: 64 100 4 4 (102400)
I0428 20:12:36.518335 32279 net.cpp:139] Memory required for data: 6856960
I0428 20:12:36.518338 32279 layer_factory.hpp:77] Creating layer ip1
I0428 20:12:36.518348 32279 net.cpp:86] Creating Layer ip1
I0428 20:12:36.518354 32279 net.cpp:408] ip1 <- pool1
I0428 20:12:36.518360 32279 net.cpp:382] ip1 -> ip1
I0428 20:12:36.519546 32279 net.cpp:124] Setting up ip1
I0428 20:12:36.519562 32279 net.cpp:131] Top shape: 64 10 (640)
I0428 20:12:36.519565 32279 net.cpp:139] Memory required for data: 6859520
I0428 20:12:36.519577 32279 layer_factory.hpp:77] Creating layer relu1
I0428 20:12:36.519584 32279 net.cpp:86] Creating Layer relu1
I0428 20:12:36.519588 32279 net.cpp:408] relu1 <- ip1
I0428 20:12:36.519593 32279 net.cpp:369] relu1 -> ip1 (in-place)
I0428 20:12:36.519784 32279 net.cpp:124] Setting up relu1
I0428 20:12:36.519794 32279 net.cpp:131] Top shape: 64 10 (640)
I0428 20:12:36.519798 32279 net.cpp:139] Memory required for data: 6862080
I0428 20:12:36.519803 32279 layer_factory.hpp:77] Creating layer ip2
I0428 20:12:36.519809 32279 net.cpp:86] Creating Layer ip2
I0428 20:12:36.519816 32279 net.cpp:408] ip2 <- ip1
I0428 20:12:36.519824 32279 net.cpp:382] ip2 -> ip2
I0428 20:12:36.519932 32279 net.cpp:124] Setting up ip2
I0428 20:12:36.519939 32279 net.cpp:131] Top shape: 64 10 (640)
I0428 20:12:36.519942 32279 net.cpp:139] Memory required for data: 6864640
I0428 20:12:36.519948 32279 layer_factory.hpp:77] Creating layer relu2
I0428 20:12:36.519958 32279 net.cpp:86] Creating Layer relu2
I0428 20:12:36.519963 32279 net.cpp:408] relu2 <- ip2
I0428 20:12:36.519968 32279 net.cpp:369] relu2 -> ip2 (in-place)
I0428 20:12:36.520783 32279 net.cpp:124] Setting up relu2
I0428 20:12:36.520797 32279 net.cpp:131] Top shape: 64 10 (640)
I0428 20:12:36.520802 32279 net.cpp:139] Memory required for data: 6867200
I0428 20:12:36.520805 32279 layer_factory.hpp:77] Creating layer ip3
I0428 20:12:36.520822 32279 net.cpp:86] Creating Layer ip3
I0428 20:12:36.520836 32279 net.cpp:408] ip3 <- ip2
I0428 20:12:36.520843 32279 net.cpp:382] ip3 -> ip3
I0428 20:12:36.520970 32279 net.cpp:124] Setting up ip3
I0428 20:12:36.520983 32279 net.cpp:131] Top shape: 64 10 (640)
I0428 20:12:36.520987 32279 net.cpp:139] Memory required for data: 6869760
I0428 20:12:36.520997 32279 layer_factory.hpp:77] Creating layer relu3
I0428 20:12:36.521009 32279 net.cpp:86] Creating Layer relu3
I0428 20:12:36.521013 32279 net.cpp:408] relu3 <- ip3
I0428 20:12:36.521018 32279 net.cpp:369] relu3 -> ip3 (in-place)
I0428 20:12:36.521210 32279 net.cpp:124] Setting up relu3
I0428 20:12:36.521219 32279 net.cpp:131] Top shape: 64 10 (640)
I0428 20:12:36.521224 32279 net.cpp:139] Memory required for data: 6872320
I0428 20:12:36.521227 32279 layer_factory.hpp:77] Creating layer loss
I0428 20:12:36.521234 32279 net.cpp:86] Creating Layer loss
I0428 20:12:36.521239 32279 net.cpp:408] loss <- ip3
I0428 20:12:36.521244 32279 net.cpp:408] loss <- label
I0428 20:12:36.521250 32279 net.cpp:382] loss -> loss
I0428 20:12:36.521267 32279 layer_factory.hpp:77] Creating layer loss
…
I0428 20:12:36.521977 32279 solver.cpp:173] Creating test net (#0) specified by net file: ECE595/mnist/train_test/var_everything2/lenet_train_test1183.prototxt
I0428 20:12:36.522007 32279 net.cpp:296] The NetState phase (1) differed from the phase (0) specified by a rule in layer mnist
I0428 20:12:36.522110 32279 net.cpp:53] Initializing net from parameters: 
name: "LeNet"
state {
  phase: TEST
}
layer {
  name: "mnist"
  type: "Data"
  top: "data"
  top: "label"
  include {
    phase: TEST
  }
  transform_param {
    scale: 0.00390625
  }
  data_param {
    source: "examples/mnist/mnist_test_lmdb"
    batch_size: 100
    backend: LMDB
  }
}
layer {
  name: "conv0"
  type: "Convolution"
  bottom: "data"
  top: "conv0"
  param {
    lr_mult: 1
  }
  param {
    lr_mult: 2
  }
  convolution_param {
    num_output: 25
    kernel_size: 5
    stride: 1
    weight_filler {
      type: "xavier"
    }
    bias_filler {
      type: "constant"
    }
  }
}
layer {
  name: "pool0"
  type: "Pooling"
  bottom: "conv0"
  top: "pool0"
  pooling_param {
    pool: MAX
    kernel_size: 2
    stride: 2
  }
}
layer {
  name: "conv1"
  type: "Convolution"
  bottom: "pool0"
  top: "conv1"
  param {
    lr_mult: 1
  }
  param {
    lr_mult: 2
  }
  convolution_param {
    num_output: 100
    kernel_size: 5
    stride: 1
    weight_filler {
      type: "xavier"
    }
    bias_filler {
      type: "constant"
    }
  }
}
layer {
  name: "pool1"
  type: "Pooling"
  bottom: "conv1"
  top: "pool1"
  pooling_param {
    pool: MAX
    kernel_size: 2
    stride: 2
  }
}
layer {
  name: "ip1"
  type: "InnerProduct"
  bottom: "pool1"
  top: "ip1"
  param {
    lr_mult: 1
  }
  param {
    lr_mult: 2
  }
  inner_product_param {
    num_output: 10
    weight_filler {
      type: "xavier"
    }
    bias_filler {
      type: "constant"
    }
  }
}
layer {
  name: "relu1"
  type: "ReLU"
  bottom: "ip1"
  top: "ip1"
}
layer {
  name: "ip2"
  type: "InnerProduct"
  bottom: "ip1"
  top: "ip2"
  param {
    lr_mult: 1
  }
  param {
    lr_mult: 2
  }
  inner_product_param {
    num_output: 10
    weight_filler {
      type: "xavier"
    }
    bias_filler {
      type: "constant"
    }
  }
}
layer {
  name: "relu2"
  type: "ReLU"
  bottom: "ip2"
  top: "ip2"
}
layer {
  name: "ip3"
  type: "InnerProduct"
  bottom: "ip2"
  top: "ip3"
  param {
    lr_mult: 1
  }
  param {
    lr_mult: 2
  }
  inner_product_param {
    num_output: 10
    weight_filler {
      type: "xavier"
    }
    bias_filler {
      type: "constant"
    }
  }
}
layer {
  name: "relu3"
  type: "ReLU"
  bottom: "ip3"
  top: "ip3"
}
layer {
  name: "accuracy"
  type: "Accuracy"
  bottom: "ip3"
  bottom: "label"
  top: "accuracy"
  include {
    phase: TEST
  }
}
layer {
  name: "loss"
  type: "SoftmaxWithLoss"
  bottom: "ip3"
  bottom: "label"
  top: "loss"
}
I0428 20:12:36.522199 32279 layer_factory.hpp:77] Creating layer mnist
I0428 20:12:36.522248 32279 db_lmdb.cpp:35] Opened lmdb examples/mnist/mnist_test_lmdb
I0428 20:12:36.522263 32279 net.cpp:86] Creating Layer mnist
I0428 20:12:36.522269 32279 net.cpp:382] mnist -> data
I0428 20:12:36.522276 32279 net.cpp:382] mnist -> label
I0428 20:12:36.522372 32279 data_layer.cpp:45] output data size: 100,1,28,28
I0428 20:12:36.524708 32279 net.cpp:124] Setting up mnist
I0428 20:12:36.524722 32279 net.cpp:131] Top shape: 100 1 28 28 (78400)
I0428 20:12:36.524729 32279 net.cpp:131] Top shape: 100 (100)
I0428 20:12:36.524746 32279 net.cpp:139] Memory required for data: 314000
I0428 20:12:36.524750 32279 layer_factory.hpp:77] Creating layer label_mnist_1_split
I0428 20:12:36.524758 32279 net.cpp:86] Creating Layer label_mnist_1_split
I0428 20:12:36.524761 32279 net.cpp:408] label_mnist_1_split <- label
I0428 20:12:36.524767 32279 net.cpp:382] label_mnist_1_split -> label_mnist_1_split_0
I0428 20:12:36.524775 32279 net.cpp:382] label_mnist_1_split -> label_mnist_1_split_1
I0428 20:12:36.524901 32279 net.cpp:124] Setting up label_mnist_1_split
I0428 20:12:36.524912 32279 net.cpp:131] Top shape: 100 (100)
I0428 20:12:36.524916 32279 net.cpp:131] Top shape: 100 (100)
I0428 20:12:36.524920 32279 net.cpp:139] Memory required for data: 314800
I0428 20:12:36.524924 32279 layer_factory.hpp:77] Creating layer conv0
I0428 20:12:36.524933 32279 net.cpp:86] Creating Layer conv0
I0428 20:12:36.524937 32279 net.cpp:408] conv0 <- data
I0428 20:12:36.524943 32279 net.cpp:382] conv0 -> conv0
I0428 20:12:36.526579 32279 net.cpp:124] Setting up conv0
I0428 20:12:36.526597 32279 net.cpp:131] Top shape: 100 25 24 24 (1440000)
I0428 20:12:36.526602 32279 net.cpp:139] Memory required for data: 6074800
I0428 20:12:36.526612 32279 layer_factory.hpp:77] Creating layer pool0
I0428 20:12:36.526619 32279 net.cpp:86] Creating Layer pool0
I0428 20:12:36.526624 32279 net.cpp:408] pool0 <- conv0
I0428 20:12:36.526630 32279 net.cpp:382] pool0 -> pool0
I0428 20:12:36.526671 32279 net.cpp:124] Setting up pool0
I0428 20:12:36.526679 32279 net.cpp:131] Top shape: 100 25 12 12 (360000)
I0428 20:12:36.526682 32279 net.cpp:139] Memory required for data: 7514800
I0428 20:12:36.526686 32279 layer_factory.hpp:77] Creating layer conv1
I0428 20:12:36.526696 32279 net.cpp:86] Creating Layer conv1
I0428 20:12:36.526700 32279 net.cpp:408] conv1 <- pool0
I0428 20:12:36.526715 32279 net.cpp:382] conv1 -> conv1
I0428 20:12:36.528785 32279 net.cpp:124] Setting up conv1
I0428 20:12:36.528802 32279 net.cpp:131] Top shape: 100 100 8 8 (640000)
I0428 20:12:36.528807 32279 net.cpp:139] Memory required for data: 10074800
I0428 20:12:36.528836 32279 layer_factory.hpp:77] Creating layer pool1
I0428 20:12:36.528856 32279 net.cpp:86] Creating Layer pool1
I0428 20:12:36.528861 32279 net.cpp:408] pool1 <- conv1
I0428 20:12:36.528867 32279 net.cpp:382] pool1 -> pool1
I0428 20:12:36.528944 32279 net.cpp:124] Setting up pool1
I0428 20:12:36.528951 32279 net.cpp:131] Top shape: 100 100 4 4 (160000)
I0428 20:12:36.528955 32279 net.cpp:139] Memory required for data: 10714800
I0428 20:12:36.528959 32279 layer_factory.hpp:77] Creating layer ip1
I0428 20:12:36.528965 32279 net.cpp:86] Creating Layer ip1
I0428 20:12:36.528969 32279 net.cpp:408] ip1 <- pool1
I0428 20:12:36.528975 32279 net.cpp:382] ip1 -> ip1
I0428 20:12:36.529199 32279 net.cpp:124] Setting up ip1
I0428 20:12:36.529209 32279 net.cpp:131] Top shape: 100 10 (1000)
I0428 20:12:36.529234 32279 net.cpp:139] Memory required for data: 10718800
I0428 20:12:36.529242 32279 layer_factory.hpp:77] Creating layer relu1
I0428 20:12:36.529248 32279 net.cpp:86] Creating Layer relu1
I0428 20:12:36.529253 32279 net.cpp:408] relu1 <- ip1
I0428 20:12:36.529263 32279 net.cpp:369] relu1 -> ip1 (in-place)
I0428 20:12:36.529459 32279 net.cpp:124] Setting up relu1
I0428 20:12:36.529469 32279 net.cpp:131] Top shape: 100 10 (1000)
I0428 20:12:36.529472 32279 net.cpp:139] Memory required for data: 10722800
I0428 20:12:36.529476 32279 layer_factory.hpp:77] Creating layer ip2
I0428 20:12:36.529484 32279 net.cpp:86] Creating Layer ip2
I0428 20:12:36.529489 32279 net.cpp:408] ip2 <- ip1
I0428 20:12:36.529494 32279 net.cpp:382] ip2 -> ip2
I0428 20:12:36.529602 32279 net.cpp:124] Setting up ip2
I0428 20:12:36.529609 32279 net.cpp:131] Top shape: 100 10 (1000)
I0428 20:12:36.529613 32279 net.cpp:139] Memory required for data: 10726800
I0428 20:12:36.529618 32279 layer_factory.hpp:77] Creating layer relu2
I0428 20:12:36.529631 32279 net.cpp:86] Creating Layer relu2
I0428 20:12:36.529634 32279 net.cpp:408] relu2 <- ip2
I0428 20:12:36.529640 32279 net.cpp:369] relu2 -> ip2 (in-place)
I0428 20:12:36.529839 32279 net.cpp:124] Setting up relu2
I0428 20:12:36.529850 32279 net.cpp:131] Top shape: 100 10 (1000)
I0428 20:12:36.529855 32279 net.cpp:139] Memory required for data: 10730800
I0428 20:12:36.529858 32279 layer_factory.hpp:77] Creating layer ip3
I0428 20:12:36.529865 32279 net.cpp:86] Creating Layer ip3
I0428 20:12:36.529867 32279 net.cpp:408] ip3 <- ip2
I0428 20:12:36.529872 32279 net.cpp:382] ip3 -> ip3
I0428 20:12:36.529980 32279 net.cpp:124] Setting up ip3
I0428 20:12:36.529989 32279 net.cpp:131] Top shape: 100 10 (1000)
I0428 20:12:36.529992 32279 net.cpp:139] Memory required for data: 10734800
I0428 20:12:36.530001 32279 layer_factory.hpp:77] Creating layer relu3
I0428 20:12:36.530006 32279 net.cpp:86] Creating Layer relu3
I0428 20:12:36.530009 32279 net.cpp:408] relu3 <- ip3
I0428 20:12:36.530014 32279 net.cpp:369] relu3 -> ip3 (in-place)
I0428 20:12:36.530851 32279 net.cpp:124] Setting up relu3
I0428 20:12:36.530866 32279 net.cpp:131] Top shape: 100 10 (1000)
I0428 20:12:36.530870 32279 net.cpp:139] Memory required for data: 10738800
I0428 20:12:36.530874 32279 layer_factory.hpp:77] Creating layer ip3_relu3_0_split
I0428 20:12:36.530880 32279 net.cpp:86] Creating Layer ip3_relu3_0_split
I0428 20:12:36.530884 32279 net.cpp:408] ip3_relu3_0_split <- ip3
I0428 20:12:36.530890 32279 net.cpp:382] ip3_relu3_0_split -> ip3_relu3_0_split_0
I0428 20:12:36.530897 32279 net.cpp:382] ip3_relu3_0_split -> ip3_relu3_0_split_1
I0428 20:12:36.530938 32279 net.cpp:124] Setting up ip3_relu3_0_split
I0428 20:12:36.530946 32279 net.cpp:131] Top shape: 100 10 (1000)
I0428 20:12:36.530951 32279 net.cpp:131] Top shape: 100 10 (1000)
I0428 20:12:36.530953 32279 net.cpp:139] Memory required for data: 10746800
I0428 20:12:36.530957 32279 layer_factory.hpp:77] Creating layer accuracy
I0428 20:12:36.530962 32279 net.cpp:86] Creating Layer accuracy
I0428 20:12:36.530966 32279 net.cpp:408] accuracy <- ip3_relu3_0_split_0
I0428 20:12:36.530971 32279 net.cpp:408] accuracy <- label_mnist_1_split_0
I0428 20:12:36.530975 32279 net.cpp:382] accuracy -> accuracy
…
