…
I0428 19:28:10.062153 21550 net.cpp:296] The NetState phase (0) differed from the phase (1) specified by a rule in layer mnist
I0428 19:28:10.062170 21550 net.cpp:296] The NetState phase (0) differed from the phase (1) specified by a rule in layer accuracy
I0428 19:28:10.062242 21550 net.cpp:53] Initializing net from parameters: 
name: "LeNet"
state {
  phase: TRAIN
  level: 0
  stage: ""
}
layer {
  name: "mnist"
  type: "Data"
  top: "data"
  top: "label"
  include {
    phase: TRAIN
  }
  transform_param {
    scale: 0.00390625
  }
  data_param {
    source: "examples/mnist/mnist_train_lmdb"
    batch_size: 64
    backend: LMDB
  }
}
layer {
  name: "ip1"
  type: "InnerProduct"
  bottom: "data"
  top: "ip1"
  param {
    lr_mult: 1
  }
  param {
    lr_mult: 2
  }
  inner_product_param {
    num_output: 10
    weight_filler {
      type: "xavier"
    }
    bias_filler {
      type: "constant"
    }
  }
}
layer {
  name: "relu1"
  type: "ReLU"
  bottom: "ip1"
  top: "ip1"
}
layer {
  name: "ip2"
  type: "InnerProduct"
  bottom: "ip1"
  top: "ip2"
  param {
    lr_mult: 1
  }
  param {
    lr_mult: 2
  }
  inner_product_param {
    num_output: 25
    weight_filler {
      type: "xavier"
    }
    bias_filler {
      type: "constant"
    }
  }
}
layer {
  name: "relu2"
  type: "ReLU"
  bottom: "ip2"
  top: "ip2"
}
layer {
  name: "ip3"
  type: "InnerProduct"
  bottom: "ip2"
  top: "ip3"
  param {
    lr_mult: 1
  }
  param {
    lr_mult: 2
  }
  inner_product_param {
    num_output: 10
    weight_filler {
      type: "xavier"
    }
    bias_filler {
      type: "constant"
    }
  }
}
layer {
  name: "relu3"
  type: "ReLU"
  bottom: "ip3"
  top: "ip3"
}
layer {
  name: "loss"
  type: "SoftmaxWithLoss"
  bottom: "ip3"
  bottom: "label"
  top: "loss"
}
I0428 19:28:10.062312 21550 layer_factory.hpp:77] Creating layer mnist
I0428 19:28:10.062413 21550 db_lmdb.cpp:35] Opened lmdb examples/mnist/mnist_train_lmdb
I0428 19:28:10.062436 21550 net.cpp:86] Creating Layer mnist
I0428 19:28:10.062443 21550 net.cpp:382] mnist -> data
I0428 19:28:10.062467 21550 net.cpp:382] mnist -> label
I0428 19:28:10.063561 21550 data_layer.cpp:45] output data size: 64,1,28,28
I0428 19:28:10.066035 21550 net.cpp:124] Setting up mnist
I0428 19:28:10.066056 21550 net.cpp:131] Top shape: 64 1 28 28 (50176)
I0428 19:28:10.066061 21550 net.cpp:131] Top shape: 64 (64)
I0428 19:28:10.066066 21550 net.cpp:139] Memory required for data: 200960
I0428 19:28:10.066072 21550 layer_factory.hpp:77] Creating layer ip1
I0428 19:28:10.066084 21550 net.cpp:86] Creating Layer ip1
I0428 19:28:10.066090 21550 net.cpp:408] ip1 <- data
I0428 19:28:10.066102 21550 net.cpp:382] ip1 -> ip1
I0428 19:28:10.067356 21550 net.cpp:124] Setting up ip1
I0428 19:28:10.067371 21550 net.cpp:131] Top shape: 64 10 (640)
I0428 19:28:10.067375 21550 net.cpp:139] Memory required for data: 203520
I0428 19:28:10.067390 21550 layer_factory.hpp:77] Creating layer relu1
I0428 19:28:10.067399 21550 net.cpp:86] Creating Layer relu1
I0428 19:28:10.067405 21550 net.cpp:408] relu1 <- ip1
I0428 19:28:10.067411 21550 net.cpp:369] relu1 -> ip1 (in-place)
I0428 19:28:10.351749 21550 net.cpp:124] Setting up relu1
I0428 19:28:10.351778 21550 net.cpp:131] Top shape: 64 10 (640)
I0428 19:28:10.351783 21550 net.cpp:139] Memory required for data: 206080
I0428 19:28:10.351788 21550 layer_factory.hpp:77] Creating layer ip2
I0428 19:28:10.351802 21550 net.cpp:86] Creating Layer ip2
I0428 19:28:10.351822 21550 net.cpp:408] ip2 <- ip1
I0428 19:28:10.351833 21550 net.cpp:382] ip2 -> ip2
I0428 19:28:10.351953 21550 net.cpp:124] Setting up ip2
I0428 19:28:10.351963 21550 net.cpp:131] Top shape: 64 25 (1600)
I0428 19:28:10.351966 21550 net.cpp:139] Memory required for data: 212480
I0428 19:28:10.351976 21550 layer_factory.hpp:77] Creating layer relu2
I0428 19:28:10.351987 21550 net.cpp:86] Creating Layer relu2
I0428 19:28:10.351990 21550 net.cpp:408] relu2 <- ip2
I0428 19:28:10.351995 21550 net.cpp:369] relu2 -> ip2 (in-place)
I0428 19:28:10.352784 21550 net.cpp:124] Setting up relu2
I0428 19:28:10.352797 21550 net.cpp:131] Top shape: 64 25 (1600)
I0428 19:28:10.352802 21550 net.cpp:139] Memory required for data: 218880
I0428 19:28:10.352805 21550 layer_factory.hpp:77] Creating layer ip3
I0428 19:28:10.352821 21550 net.cpp:86] Creating Layer ip3
I0428 19:28:10.352825 21550 net.cpp:408] ip3 <- ip2
I0428 19:28:10.352833 21550 net.cpp:382] ip3 -> ip3
I0428 19:28:10.352951 21550 net.cpp:124] Setting up ip3
I0428 19:28:10.352959 21550 net.cpp:131] Top shape: 64 10 (640)
I0428 19:28:10.352962 21550 net.cpp:139] Memory required for data: 221440
I0428 19:28:10.352972 21550 layer_factory.hpp:77] Creating layer relu3
I0428 19:28:10.352977 21550 net.cpp:86] Creating Layer relu3
I0428 19:28:10.352982 21550 net.cpp:408] relu3 <- ip3
I0428 19:28:10.352985 21550 net.cpp:369] relu3 -> ip3 (in-place)
I0428 19:28:10.353143 21550 net.cpp:124] Setting up relu3
I0428 19:28:10.353152 21550 net.cpp:131] Top shape: 64 10 (640)
I0428 19:28:10.353155 21550 net.cpp:139] Memory required for data: 224000
I0428 19:28:10.353159 21550 layer_factory.hpp:77] Creating layer loss
I0428 19:28:10.353166 21550 net.cpp:86] Creating Layer loss
I0428 19:28:10.353169 21550 net.cpp:408] loss <- ip3
I0428 19:28:10.353174 21550 net.cpp:408] loss <- label
I0428 19:28:10.353179 21550 net.cpp:382] loss -> loss
I0428 19:28:10.353212 21550 layer_factory.hpp:77] Creating layer loss
…
I0428 19:28:10.354641 21550 solver.cpp:173] Creating test net (#0) specified by net file: ECE595/mnist/train_test/var_everything2/lenet_train_test16.prototxt
I0428 19:28:10.354663 21550 net.cpp:296] The NetState phase (1) differed from the phase (0) specified by a rule in layer mnist
I0428 19:28:10.354733 21550 net.cpp:53] Initializing net from parameters: 
name: "LeNet"
state {
  phase: TEST
}
layer {
  name: "mnist"
  type: "Data"
  top: "data"
  top: "label"
  include {
    phase: TEST
  }
  transform_param {
    scale: 0.00390625
  }
  data_param {
    source: "examples/mnist/mnist_test_lmdb"
    batch_size: 100
    backend: LMDB
  }
}
layer {
  name: "ip1"
  type: "InnerProduct"
  bottom: "data"
  top: "ip1"
  param {
    lr_mult: 1
  }
  param {
    lr_mult: 2
  }
  inner_product_param {
    num_output: 10
    weight_filler {
      type: "xavier"
    }
    bias_filler {
      type: "constant"
    }
  }
}
layer {
  name: "relu1"
  type: "ReLU"
  bottom: "ip1"
  top: "ip1"
}
layer {
  name: "ip2"
  type: "InnerProduct"
  bottom: "ip1"
  top: "ip2"
  param {
    lr_mult: 1
  }
  param {
    lr_mult: 2
  }
  inner_product_param {
    num_output: 25
    weight_filler {
      type: "xavier"
    }
    bias_filler {
      type: "constant"
    }
  }
}
layer {
  name: "relu2"
  type: "ReLU"
  bottom: "ip2"
  top: "ip2"
}
layer {
  name: "ip3"
  type: "InnerProduct"
  bottom: "ip2"
  top: "ip3"
  param {
    lr_mult: 1
  }
  param {
    lr_mult: 2
  }
  inner_product_param {
    num_output: 10
    weight_filler {
      type: "xavier"
    }
    bias_filler {
      type: "constant"
    }
  }
}
layer {
  name: "relu3"
  type: "ReLU"
  bottom: "ip3"
  top: "ip3"
}
layer {
  name: "accuracy"
  type: "Accuracy"
  bottom: "ip3"
  bottom: "label"
  top: "accuracy"
  include {
    phase: TEST
  }
}
layer {
  name: "loss"
  type: "SoftmaxWithLoss"
  bottom: "ip3"
  bottom: "label"
  top: "loss"
}
I0428 19:28:10.354804 21550 layer_factory.hpp:77] Creating layer mnist
I0428 19:28:10.354846 21550 db_lmdb.cpp:35] Opened lmdb examples/mnist/mnist_test_lmdb
I0428 19:28:10.354861 21550 net.cpp:86] Creating Layer mnist
I0428 19:28:10.354866 21550 net.cpp:382] mnist -> data
I0428 19:28:10.354872 21550 net.cpp:382] mnist -> label
I0428 19:28:10.354959 21550 data_layer.cpp:45] output data size: 100,1,28,28
I0428 19:28:10.356905 21550 net.cpp:124] Setting up mnist
I0428 19:28:10.356935 21550 net.cpp:131] Top shape: 100 1 28 28 (78400)
I0428 19:28:10.356940 21550 net.cpp:131] Top shape: 100 (100)
I0428 19:28:10.356945 21550 net.cpp:139] Memory required for data: 314000
I0428 19:28:10.356948 21550 layer_factory.hpp:77] Creating layer label_mnist_1_split
I0428 19:28:10.356961 21550 net.cpp:86] Creating Layer label_mnist_1_split
I0428 19:28:10.356963 21550 net.cpp:408] label_mnist_1_split <- label
I0428 19:28:10.356969 21550 net.cpp:382] label_mnist_1_split -> label_mnist_1_split_0
I0428 19:28:10.356976 21550 net.cpp:382] label_mnist_1_split -> label_mnist_1_split_1
I0428 19:28:10.357039 21550 net.cpp:124] Setting up label_mnist_1_split
I0428 19:28:10.357045 21550 net.cpp:131] Top shape: 100 (100)
I0428 19:28:10.357048 21550 net.cpp:131] Top shape: 100 (100)
I0428 19:28:10.357051 21550 net.cpp:139] Memory required for data: 314800
I0428 19:28:10.357055 21550 layer_factory.hpp:77] Creating layer ip1
I0428 19:28:10.357061 21550 net.cpp:86] Creating Layer ip1
I0428 19:28:10.357064 21550 net.cpp:408] ip1 <- data
I0428 19:28:10.357069 21550 net.cpp:382] ip1 -> ip1
I0428 19:28:10.357293 21550 net.cpp:124] Setting up ip1
I0428 19:28:10.357301 21550 net.cpp:131] Top shape: 100 10 (1000)
I0428 19:28:10.357306 21550 net.cpp:139] Memory required for data: 318800
I0428 19:28:10.357314 21550 layer_factory.hpp:77] Creating layer relu1
I0428 19:28:10.357321 21550 net.cpp:86] Creating Layer relu1
I0428 19:28:10.357323 21550 net.cpp:408] relu1 <- ip1
I0428 19:28:10.357328 21550 net.cpp:369] relu1 -> ip1 (in-place)
I0428 19:28:10.358126 21550 net.cpp:124] Setting up relu1
I0428 19:28:10.358140 21550 net.cpp:131] Top shape: 100 10 (1000)
I0428 19:28:10.358144 21550 net.cpp:139] Memory required for data: 322800
I0428 19:28:10.358147 21550 layer_factory.hpp:77] Creating layer ip2
I0428 19:28:10.358155 21550 net.cpp:86] Creating Layer ip2
I0428 19:28:10.358160 21550 net.cpp:408] ip2 <- ip1
I0428 19:28:10.358165 21550 net.cpp:382] ip2 -> ip2
I0428 19:28:10.358263 21550 net.cpp:124] Setting up ip2
I0428 19:28:10.358269 21550 net.cpp:131] Top shape: 100 25 (2500)
I0428 19:28:10.358273 21550 net.cpp:139] Memory required for data: 332800
I0428 19:28:10.358280 21550 layer_factory.hpp:77] Creating layer relu2
I0428 19:28:10.358285 21550 net.cpp:86] Creating Layer relu2
I0428 19:28:10.358289 21550 net.cpp:408] relu2 <- ip2
I0428 19:28:10.358294 21550 net.cpp:369] relu2 -> ip2 (in-place)
I0428 19:28:10.358444 21550 net.cpp:124] Setting up relu2
I0428 19:28:10.358453 21550 net.cpp:131] Top shape: 100 25 (2500)
I0428 19:28:10.358455 21550 net.cpp:139] Memory required for data: 342800
I0428 19:28:10.358458 21550 layer_factory.hpp:77] Creating layer ip3
I0428 19:28:10.358464 21550 net.cpp:86] Creating Layer ip3
I0428 19:28:10.358467 21550 net.cpp:408] ip3 <- ip2
I0428 19:28:10.358472 21550 net.cpp:382] ip3 -> ip3
I0428 19:28:10.358573 21550 net.cpp:124] Setting up ip3
I0428 19:28:10.358582 21550 net.cpp:131] Top shape: 100 10 (1000)
I0428 19:28:10.358584 21550 net.cpp:139] Memory required for data: 346800
I0428 19:28:10.358592 21550 layer_factory.hpp:77] Creating layer relu3
I0428 19:28:10.358597 21550 net.cpp:86] Creating Layer relu3
I0428 19:28:10.358599 21550 net.cpp:408] relu3 <- ip3
I0428 19:28:10.358604 21550 net.cpp:369] relu3 -> ip3 (in-place)
I0428 19:28:10.358747 21550 net.cpp:124] Setting up relu3
I0428 19:28:10.358754 21550 net.cpp:131] Top shape: 100 10 (1000)
I0428 19:28:10.358758 21550 net.cpp:139] Memory required for data: 350800
I0428 19:28:10.358762 21550 layer_factory.hpp:77] Creating layer ip3_relu3_0_split
I0428 19:28:10.358767 21550 net.cpp:86] Creating Layer ip3_relu3_0_split
I0428 19:28:10.358770 21550 net.cpp:408] ip3_relu3_0_split <- ip3
I0428 19:28:10.358775 21550 net.cpp:382] ip3_relu3_0_split -> ip3_relu3_0_split_0
I0428 19:28:10.358780 21550 net.cpp:382] ip3_relu3_0_split -> ip3_relu3_0_split_1
I0428 19:28:10.358814 21550 net.cpp:124] Setting up ip3_relu3_0_split
I0428 19:28:10.358819 21550 net.cpp:131] Top shape: 100 10 (1000)
I0428 19:28:10.358822 21550 net.cpp:131] Top shape: 100 10 (1000)
I0428 19:28:10.358824 21550 net.cpp:139] Memory required for data: 358800
I0428 19:28:10.358829 21550 layer_factory.hpp:77] Creating layer accuracy
I0428 19:28:10.358837 21550 net.cpp:86] Creating Layer accuracy
I0428 19:28:10.358840 21550 net.cpp:408] accuracy <- ip3_relu3_0_split_0
I0428 19:28:10.358844 21550 net.cpp:408] accuracy <- label_mnist_1_split_0
I0428 19:28:10.358850 21550 net.cpp:382] accuracy -> accuracy
…
