…
I0428 20:33:43.806295  4338 net.cpp:296] The NetState phase (0) differed from the phase (1) specified by a rule in layer mnist
I0428 20:33:43.806310  4338 net.cpp:296] The NetState phase (0) differed from the phase (1) specified by a rule in layer accuracy
I0428 20:33:43.806392  4338 net.cpp:53] Initializing net from parameters: 
name: "LeNet"
state {
  phase: TRAIN
  level: 0
  stage: ""
}
layer {
  name: "mnist"
  type: "Data"
  top: "data"
  top: "label"
  include {
    phase: TRAIN
  }
  transform_param {
    scale: 0.00390625
  }
  data_param {
    source: "examples/mnist/mnist_train_lmdb"
    batch_size: 64
    backend: LMDB
  }
}
layer {
  name: "conv0"
  type: "Convolution"
  bottom: "data"
  top: "conv0"
  param {
    lr_mult: 1
  }
  param {
    lr_mult: 2
  }
  convolution_param {
    num_output: 100
    kernel_size: 5
    stride: 1
    weight_filler {
      type: "xavier"
    }
    bias_filler {
      type: "constant"
    }
  }
}
layer {
  name: "pool0"
  type: "Pooling"
  bottom: "conv0"
  top: "pool0"
  pooling_param {
    pool: MAX
    kernel_size: 2
    stride: 2
  }
}
layer {
  name: "conv1"
  type: "Convolution"
  bottom: "pool0"
  top: "conv1"
  param {
    lr_mult: 1
  }
  param {
    lr_mult: 2
  }
  convolution_param {
    num_output: 25
    kernel_size: 5
    stride: 1
    weight_filler {
      type: "xavier"
    }
    bias_filler {
      type: "constant"
    }
  }
}
layer {
  name: "pool1"
  type: "Pooling"
  bottom: "conv1"
  top: "pool1"
  pooling_param {
    pool: MAX
    kernel_size: 2
    stride: 2
  }
}
layer {
  name: "ip1"
  type: "InnerProduct"
  bottom: "pool1"
  top: "ip1"
  param {
    lr_mult: 1
  }
  param {
    lr_mult: 2
  }
  inner_product_param {
    num_output: 50
    weight_filler {
      type: "xavier"
    }
    bias_filler {
      type: "constant"
    }
  }
}
layer {
  name: "relu1"
  type: "ReLU"
  bottom: "ip1"
  top: "ip1"
}
layer {
  name: "ip2"
  type: "InnerProduct"
  bottom: "ip1"
  top: "ip2"
  param {
    lr_mult: 1
  }
  param {
    lr_mult: 2
  }
  inner_product_param {
    num_output: 25
    weight_filler {
      type: "xavier"
    }
    bias_filler {
      type: "constant"
    }
  }
}
layer {
  name: "relu2"
  type: "ReLU"
  bottom: "ip2"
  top: "ip2"
}
layer {
  name: "ip3"
  type: "InnerProduct"
  bottom: "ip2"
  top: "ip3"
  param {
    lr_mult: 1
  }
  param {
    lr_mult: 2
  }
  inner_product_param {
    num_output: 10
    weight_filler {
      type: "xavier"
    }
    bias_filler {
      type: "constant"
    }
  }
}
layer {
  name: "relu3"
  type: "ReLU"
  bottom: "ip3"
  top: "ip3"
}
layer {
  name: "loss"
  type: "SoftmaxWithLoss"
  bottom: "ip3"
  bottom: "label"
  top: "loss"
}
I0428 20:33:43.806488  4338 layer_factory.hpp:77] Creating layer mnist
I0428 20:33:43.806576  4338 db_lmdb.cpp:35] Opened lmdb examples/mnist/mnist_train_lmdb
I0428 20:33:43.806596  4338 net.cpp:86] Creating Layer mnist
I0428 20:33:43.806604  4338 net.cpp:382] mnist -> data
I0428 20:33:43.806623  4338 net.cpp:382] mnist -> label
I0428 20:33:43.807667  4338 data_layer.cpp:45] output data size: 64,1,28,28
I0428 20:33:43.809862  4338 net.cpp:124] Setting up mnist
I0428 20:33:43.809876  4338 net.cpp:131] Top shape: 64 1 28 28 (50176)
I0428 20:33:43.809882  4338 net.cpp:131] Top shape: 64 (64)
I0428 20:33:43.809885  4338 net.cpp:139] Memory required for data: 200960
I0428 20:33:43.809890  4338 layer_factory.hpp:77] Creating layer conv0
I0428 20:33:43.809904  4338 net.cpp:86] Creating Layer conv0
I0428 20:33:43.809921  4338 net.cpp:408] conv0 <- data
I0428 20:33:43.809932  4338 net.cpp:382] conv0 -> conv0
I0428 20:33:44.038455  4338 net.cpp:124] Setting up conv0
I0428 20:33:44.038480  4338 net.cpp:131] Top shape: 64 100 24 24 (3686400)
I0428 20:33:44.038485  4338 net.cpp:139] Memory required for data: 14946560
I0428 20:33:44.038498  4338 layer_factory.hpp:77] Creating layer pool0
I0428 20:33:44.038511  4338 net.cpp:86] Creating Layer pool0
I0428 20:33:44.038514  4338 net.cpp:408] pool0 <- conv0
I0428 20:33:44.038519  4338 net.cpp:382] pool0 -> pool0
I0428 20:33:44.038579  4338 net.cpp:124] Setting up pool0
I0428 20:33:44.038585  4338 net.cpp:131] Top shape: 64 100 12 12 (921600)
I0428 20:33:44.038588  4338 net.cpp:139] Memory required for data: 18632960
I0428 20:33:44.038590  4338 layer_factory.hpp:77] Creating layer conv1
I0428 20:33:44.038600  4338 net.cpp:86] Creating Layer conv1
I0428 20:33:44.038604  4338 net.cpp:408] conv1 <- pool0
I0428 20:33:44.038609  4338 net.cpp:382] conv1 -> conv1
I0428 20:33:44.040874  4338 net.cpp:124] Setting up conv1
I0428 20:33:44.040902  4338 net.cpp:131] Top shape: 64 25 8 8 (102400)
I0428 20:33:44.040906  4338 net.cpp:139] Memory required for data: 19042560
I0428 20:33:44.040915  4338 layer_factory.hpp:77] Creating layer pool1
I0428 20:33:44.040922  4338 net.cpp:86] Creating Layer pool1
I0428 20:33:44.040926  4338 net.cpp:408] pool1 <- conv1
I0428 20:33:44.040930  4338 net.cpp:382] pool1 -> pool1
I0428 20:33:44.040966  4338 net.cpp:124] Setting up pool1
I0428 20:33:44.040972  4338 net.cpp:131] Top shape: 64 25 4 4 (25600)
I0428 20:33:44.040976  4338 net.cpp:139] Memory required for data: 19144960
I0428 20:33:44.040978  4338 layer_factory.hpp:77] Creating layer ip1
I0428 20:33:44.040984  4338 net.cpp:86] Creating Layer ip1
I0428 20:33:44.040987  4338 net.cpp:408] ip1 <- pool1
I0428 20:33:44.040992  4338 net.cpp:382] ip1 -> ip1
I0428 20:33:44.041215  4338 net.cpp:124] Setting up ip1
I0428 20:33:44.041224  4338 net.cpp:131] Top shape: 64 50 (3200)
I0428 20:33:44.041227  4338 net.cpp:139] Memory required for data: 19157760
I0428 20:33:44.041234  4338 layer_factory.hpp:77] Creating layer relu1
I0428 20:33:44.041240  4338 net.cpp:86] Creating Layer relu1
I0428 20:33:44.041244  4338 net.cpp:408] relu1 <- ip1
I0428 20:33:44.041249  4338 net.cpp:369] relu1 -> ip1 (in-place)
I0428 20:33:44.041445  4338 net.cpp:124] Setting up relu1
I0428 20:33:44.041452  4338 net.cpp:131] Top shape: 64 50 (3200)
I0428 20:33:44.041455  4338 net.cpp:139] Memory required for data: 19170560
I0428 20:33:44.041458  4338 layer_factory.hpp:77] Creating layer ip2
I0428 20:33:44.041465  4338 net.cpp:86] Creating Layer ip2
I0428 20:33:44.041468  4338 net.cpp:408] ip2 <- ip1
I0428 20:33:44.041472  4338 net.cpp:382] ip2 -> ip2
I0428 20:33:44.041571  4338 net.cpp:124] Setting up ip2
I0428 20:33:44.041579  4338 net.cpp:131] Top shape: 64 25 (1600)
I0428 20:33:44.041581  4338 net.cpp:139] Memory required for data: 19176960
I0428 20:33:44.041586  4338 layer_factory.hpp:77] Creating layer relu2
I0428 20:33:44.041592  4338 net.cpp:86] Creating Layer relu2
I0428 20:33:44.041595  4338 net.cpp:408] relu2 <- ip2
I0428 20:33:44.041599  4338 net.cpp:369] relu2 -> ip2 (in-place)
I0428 20:33:44.042343  4338 net.cpp:124] Setting up relu2
I0428 20:33:44.042356  4338 net.cpp:131] Top shape: 64 25 (1600)
I0428 20:33:44.042374  4338 net.cpp:139] Memory required for data: 19183360
I0428 20:33:44.042378  4338 layer_factory.hpp:77] Creating layer ip3
I0428 20:33:44.042385  4338 net.cpp:86] Creating Layer ip3
I0428 20:33:44.042388  4338 net.cpp:408] ip3 <- ip2
I0428 20:33:44.042393  4338 net.cpp:382] ip3 -> ip3
I0428 20:33:44.042517  4338 net.cpp:124] Setting up ip3
I0428 20:33:44.042526  4338 net.cpp:131] Top shape: 64 10 (640)
I0428 20:33:44.042528  4338 net.cpp:139] Memory required for data: 19185920
I0428 20:33:44.042536  4338 layer_factory.hpp:77] Creating layer relu3
I0428 20:33:44.042542  4338 net.cpp:86] Creating Layer relu3
I0428 20:33:44.042546  4338 net.cpp:408] relu3 <- ip3
I0428 20:33:44.042564  4338 net.cpp:369] relu3 -> ip3 (in-place)
I0428 20:33:44.042709  4338 net.cpp:124] Setting up relu3
I0428 20:33:44.042717  4338 net.cpp:131] Top shape: 64 10 (640)
I0428 20:33:44.042721  4338 net.cpp:139] Memory required for data: 19188480
I0428 20:33:44.042723  4338 layer_factory.hpp:77] Creating layer loss
I0428 20:33:44.042729  4338 net.cpp:86] Creating Layer loss
I0428 20:33:44.042732  4338 net.cpp:408] loss <- ip3
I0428 20:33:44.042737  4338 net.cpp:408] loss <- label
I0428 20:33:44.042742  4338 net.cpp:382] loss -> loss
I0428 20:33:44.042755  4338 layer_factory.hpp:77] Creating layer loss
…
I0428 20:33:44.043442  4338 solver.cpp:173] Creating test net (#0) specified by net file: ECE595/mnist/train_test/var_everything2/lenet_train_test1593.prototxt
I0428 20:33:44.043498  4338 net.cpp:296] The NetState phase (1) differed from the phase (0) specified by a rule in layer mnist
I0428 20:33:44.043599  4338 net.cpp:53] Initializing net from parameters: 
name: "LeNet"
state {
  phase: TEST
}
layer {
  name: "mnist"
  type: "Data"
  top: "data"
  top: "label"
  include {
    phase: TEST
  }
  transform_param {
    scale: 0.00390625
  }
  data_param {
    source: "examples/mnist/mnist_test_lmdb"
    batch_size: 100
    backend: LMDB
  }
}
layer {
  name: "conv0"
  type: "Convolution"
  bottom: "data"
  top: "conv0"
  param {
    lr_mult: 1
  }
  param {
    lr_mult: 2
  }
  convolution_param {
    num_output: 100
    kernel_size: 5
    stride: 1
    weight_filler {
      type: "xavier"
    }
    bias_filler {
      type: "constant"
    }
  }
}
layer {
  name: "pool0"
  type: "Pooling"
  bottom: "conv0"
  top: "pool0"
  pooling_param {
    pool: MAX
    kernel_size: 2
    stride: 2
  }
}
layer {
  name: "conv1"
  type: "Convolution"
  bottom: "pool0"
  top: "conv1"
  param {
    lr_mult: 1
  }
  param {
    lr_mult: 2
  }
  convolution_param {
    num_output: 25
    kernel_size: 5
    stride: 1
    weight_filler {
      type: "xavier"
    }
    bias_filler {
      type: "constant"
    }
  }
}
layer {
  name: "pool1"
  type: "Pooling"
  bottom: "conv1"
  top: "pool1"
  pooling_param {
    pool: MAX
    kernel_size: 2
    stride: 2
  }
}
layer {
  name: "ip1"
  type: "InnerProduct"
  bottom: "pool1"
  top: "ip1"
  param {
    lr_mult: 1
  }
  param {
    lr_mult: 2
  }
  inner_product_param {
    num_output: 50
    weight_filler {
      type: "xavier"
    }
    bias_filler {
      type: "constant"
    }
  }
}
layer {
  name: "relu1"
  type: "ReLU"
  bottom: "ip1"
  top: "ip1"
}
layer {
  name: "ip2"
  type: "InnerProduct"
  bottom: "ip1"
  top: "ip2"
  param {
    lr_mult: 1
  }
  param {
    lr_mult: 2
  }
  inner_product_param {
    num_output: 25
    weight_filler {
      type: "xavier"
    }
    bias_filler {
      type: "constant"
    }
  }
}
layer {
  name: "relu2"
  type: "ReLU"
  bottom: "ip2"
  top: "ip2"
}
layer {
  name: "ip3"
  type: "InnerProduct"
  bottom: "ip2"
  top: "ip3"
  param {
    lr_mult: 1
  }
  param {
    lr_mult: 2
  }
  inner_product_param {
    num_output: 10
    weight_filler {
      type: "xavier"
    }
    bias_filler {
      type: "constant"
    }
  }
}
layer {
  name: "relu3"
  type: "ReLU"
  bottom: "ip3"
  top: "ip3"
}
layer {
  name: "accuracy"
  type: "Accuracy"
  bottom: "ip3"
  bottom: "label"
  top: "accuracy"
  include {
    phase: TEST
  }
}
layer {
  name: "loss"
  type: "SoftmaxWithLoss"
  bottom: "ip3"
  bottom: "label"
  top: "loss"
}
I0428 20:33:44.043673  4338 layer_factory.hpp:77] Creating layer mnist
I0428 20:33:44.043717  4338 db_lmdb.cpp:35] Opened lmdb examples/mnist/mnist_test_lmdb
I0428 20:33:44.043730  4338 net.cpp:86] Creating Layer mnist
I0428 20:33:44.043735  4338 net.cpp:382] mnist -> data
I0428 20:33:44.043741  4338 net.cpp:382] mnist -> label
I0428 20:33:44.043835  4338 data_layer.cpp:45] output data size: 100,1,28,28
I0428 20:33:44.045941  4338 net.cpp:124] Setting up mnist
I0428 20:33:44.045955  4338 net.cpp:131] Top shape: 100 1 28 28 (78400)
I0428 20:33:44.045960  4338 net.cpp:131] Top shape: 100 (100)
I0428 20:33:44.045964  4338 net.cpp:139] Memory required for data: 314000
I0428 20:33:44.045967  4338 layer_factory.hpp:77] Creating layer label_mnist_1_split
I0428 20:33:44.045974  4338 net.cpp:86] Creating Layer label_mnist_1_split
I0428 20:33:44.045977  4338 net.cpp:408] label_mnist_1_split <- label
I0428 20:33:44.045982  4338 net.cpp:382] label_mnist_1_split -> label_mnist_1_split_0
I0428 20:33:44.045989  4338 net.cpp:382] label_mnist_1_split -> label_mnist_1_split_1
I0428 20:33:44.046053  4338 net.cpp:124] Setting up label_mnist_1_split
I0428 20:33:44.046058  4338 net.cpp:131] Top shape: 100 (100)
I0428 20:33:44.046062  4338 net.cpp:131] Top shape: 100 (100)
I0428 20:33:44.046064  4338 net.cpp:139] Memory required for data: 314800
I0428 20:33:44.046067  4338 layer_factory.hpp:77] Creating layer conv0
I0428 20:33:44.046075  4338 net.cpp:86] Creating Layer conv0
I0428 20:33:44.046078  4338 net.cpp:408] conv0 <- data
I0428 20:33:44.046083  4338 net.cpp:382] conv0 -> conv0
I0428 20:33:44.047863  4338 net.cpp:124] Setting up conv0
I0428 20:33:44.047878  4338 net.cpp:131] Top shape: 100 100 24 24 (5760000)
I0428 20:33:44.047880  4338 net.cpp:139] Memory required for data: 23354800
I0428 20:33:44.047889  4338 layer_factory.hpp:77] Creating layer pool0
I0428 20:33:44.047910  4338 net.cpp:86] Creating Layer pool0
I0428 20:33:44.047914  4338 net.cpp:408] pool0 <- conv0
I0428 20:33:44.047919  4338 net.cpp:382] pool0 -> pool0
I0428 20:33:44.047950  4338 net.cpp:124] Setting up pool0
I0428 20:33:44.047955  4338 net.cpp:131] Top shape: 100 100 12 12 (1440000)
I0428 20:33:44.047958  4338 net.cpp:139] Memory required for data: 29114800
I0428 20:33:44.047960  4338 layer_factory.hpp:77] Creating layer conv1
I0428 20:33:44.047968  4338 net.cpp:86] Creating Layer conv1
I0428 20:33:44.047971  4338 net.cpp:408] conv1 <- pool0
I0428 20:33:44.047976  4338 net.cpp:382] conv1 -> conv1
I0428 20:33:44.050015  4338 net.cpp:124] Setting up conv1
I0428 20:33:44.050046  4338 net.cpp:131] Top shape: 100 25 8 8 (160000)
I0428 20:33:44.050050  4338 net.cpp:139] Memory required for data: 29754800
I0428 20:33:44.050060  4338 layer_factory.hpp:77] Creating layer pool1
I0428 20:33:44.050081  4338 net.cpp:86] Creating Layer pool1
I0428 20:33:44.050083  4338 net.cpp:408] pool1 <- conv1
I0428 20:33:44.050088  4338 net.cpp:382] pool1 -> pool1
I0428 20:33:44.050154  4338 net.cpp:124] Setting up pool1
I0428 20:33:44.050160  4338 net.cpp:131] Top shape: 100 25 4 4 (40000)
I0428 20:33:44.050163  4338 net.cpp:139] Memory required for data: 29914800
I0428 20:33:44.050166  4338 layer_factory.hpp:77] Creating layer ip1
I0428 20:33:44.050173  4338 net.cpp:86] Creating Layer ip1
I0428 20:33:44.050175  4338 net.cpp:408] ip1 <- pool1
I0428 20:33:44.050180  4338 net.cpp:382] ip1 -> ip1
I0428 20:33:44.050384  4338 net.cpp:124] Setting up ip1
I0428 20:33:44.050420  4338 net.cpp:131] Top shape: 100 50 (5000)
I0428 20:33:44.050431  4338 net.cpp:139] Memory required for data: 29934800
I0428 20:33:44.050439  4338 layer_factory.hpp:77] Creating layer relu1
I0428 20:33:44.050444  4338 net.cpp:86] Creating Layer relu1
I0428 20:33:44.050447  4338 net.cpp:408] relu1 <- ip1
I0428 20:33:44.050452  4338 net.cpp:369] relu1 -> ip1 (in-place)
I0428 20:33:44.050619  4338 net.cpp:124] Setting up relu1
I0428 20:33:44.050628  4338 net.cpp:131] Top shape: 100 50 (5000)
I0428 20:33:44.050632  4338 net.cpp:139] Memory required for data: 29954800
I0428 20:33:44.050642  4338 layer_factory.hpp:77] Creating layer ip2
I0428 20:33:44.050649  4338 net.cpp:86] Creating Layer ip2
I0428 20:33:44.050653  4338 net.cpp:408] ip2 <- ip1
I0428 20:33:44.050657  4338 net.cpp:382] ip2 -> ip2
I0428 20:33:44.050760  4338 net.cpp:124] Setting up ip2
I0428 20:33:44.050767  4338 net.cpp:131] Top shape: 100 25 (2500)
I0428 20:33:44.050771  4338 net.cpp:139] Memory required for data: 29964800
I0428 20:33:44.050776  4338 layer_factory.hpp:77] Creating layer relu2
I0428 20:33:44.050781  4338 net.cpp:86] Creating Layer relu2
I0428 20:33:44.050804  4338 net.cpp:408] relu2 <- ip2
I0428 20:33:44.050814  4338 net.cpp:369] relu2 -> ip2 (in-place)
I0428 20:33:44.051049  4338 net.cpp:124] Setting up relu2
I0428 20:33:44.051074  4338 net.cpp:131] Top shape: 100 25 (2500)
I0428 20:33:44.051077  4338 net.cpp:139] Memory required for data: 29974800
I0428 20:33:44.051080  4338 layer_factory.hpp:77] Creating layer ip3
I0428 20:33:44.051085  4338 net.cpp:86] Creating Layer ip3
I0428 20:33:44.051090  4338 net.cpp:408] ip3 <- ip2
I0428 20:33:44.051093  4338 net.cpp:382] ip3 -> ip3
I0428 20:33:44.051249  4338 net.cpp:124] Setting up ip3
I0428 20:33:44.051256  4338 net.cpp:131] Top shape: 100 10 (1000)
I0428 20:33:44.051260  4338 net.cpp:139] Memory required for data: 29978800
I0428 20:33:44.051267  4338 layer_factory.hpp:77] Creating layer relu3
I0428 20:33:44.051273  4338 net.cpp:86] Creating Layer relu3
I0428 20:33:44.051276  4338 net.cpp:408] relu3 <- ip3
I0428 20:33:44.051280  4338 net.cpp:369] relu3 -> ip3 (in-place)
I0428 20:33:44.052040  4338 net.cpp:124] Setting up relu3
I0428 20:33:44.052052  4338 net.cpp:131] Top shape: 100 10 (1000)
I0428 20:33:44.052057  4338 net.cpp:139] Memory required for data: 29982800
I0428 20:33:44.052059  4338 layer_factory.hpp:77] Creating layer ip3_relu3_0_split
I0428 20:33:44.052065  4338 net.cpp:86] Creating Layer ip3_relu3_0_split
I0428 20:33:44.052068  4338 net.cpp:408] ip3_relu3_0_split <- ip3
I0428 20:33:44.052073  4338 net.cpp:382] ip3_relu3_0_split -> ip3_relu3_0_split_0
I0428 20:33:44.052080  4338 net.cpp:382] ip3_relu3_0_split -> ip3_relu3_0_split_1
I0428 20:33:44.052119  4338 net.cpp:124] Setting up ip3_relu3_0_split
I0428 20:33:44.052125  4338 net.cpp:131] Top shape: 100 10 (1000)
I0428 20:33:44.052129  4338 net.cpp:131] Top shape: 100 10 (1000)
I0428 20:33:44.052131  4338 net.cpp:139] Memory required for data: 29990800
I0428 20:33:44.052144  4338 layer_factory.hpp:77] Creating layer accuracy
I0428 20:33:44.052155  4338 net.cpp:86] Creating Layer accuracy
I0428 20:33:44.052157  4338 net.cpp:408] accuracy <- ip3_relu3_0_split_0
I0428 20:33:44.052161  4338 net.cpp:408] accuracy <- label_mnist_1_split_0
I0428 20:33:44.052165  4338 net.cpp:382] accuracy -> accuracy
…
