…
I0428 20:34:38.531241  4501 net.cpp:296] The NetState phase (0) differed from the phase (1) specified by a rule in layer mnist
I0428 20:34:38.531255  4501 net.cpp:296] The NetState phase (0) differed from the phase (1) specified by a rule in layer accuracy
I0428 20:34:38.531322  4501 net.cpp:53] Initializing net from parameters: 
name: "LeNet"
state {
  phase: TRAIN
  level: 0
  stage: ""
}
layer {
  name: "mnist"
  type: "Data"
  top: "data"
  top: "label"
  include {
    phase: TRAIN
  }
  transform_param {
    scale: 0.00390625
  }
  data_param {
    source: "examples/mnist/mnist_train_lmdb"
    batch_size: 64
    backend: LMDB
  }
}
layer {
  name: "conv0"
  type: "Convolution"
  bottom: "data"
  top: "conv0"
  param {
    lr_mult: 1
  }
  param {
    lr_mult: 2
  }
  convolution_param {
    num_output: 100
    kernel_size: 5
    stride: 1
    weight_filler {
      type: "xavier"
    }
    bias_filler {
      type: "constant"
    }
  }
}
layer {
  name: "pool0"
  type: "Pooling"
  bottom: "conv0"
  top: "pool0"
  pooling_param {
    pool: MAX
    kernel_size: 2
    stride: 2
  }
}
layer {
  name: "conv1"
  type: "Convolution"
  bottom: "pool0"
  top: "conv1"
  param {
    lr_mult: 1
  }
  param {
    lr_mult: 2
  }
  convolution_param {
    num_output: 50
    kernel_size: 5
    stride: 1
    weight_filler {
      type: "xavier"
    }
    bias_filler {
      type: "constant"
    }
  }
}
layer {
  name: "pool1"
  type: "Pooling"
  bottom: "conv1"
  top: "pool1"
  pooling_param {
    pool: MAX
    kernel_size: 2
    stride: 2
  }
}
layer {
  name: "ip1"
  type: "InnerProduct"
  bottom: "pool1"
  top: "ip1"
  param {
    lr_mult: 1
  }
  param {
    lr_mult: 2
  }
  inner_product_param {
    num_output: 50
    weight_filler {
      type: "xavier"
    }
    bias_filler {
      type: "constant"
    }
  }
}
layer {
  name: "relu1"
  type: "ReLU"
  bottom: "ip1"
  top: "ip1"
}
layer {
  name: "ip2"
  type: "InnerProduct"
  bottom: "ip1"
  top: "ip2"
  param {
    lr_mult: 1
  }
  param {
    lr_mult: 2
  }
  inner_product_param {
    num_output: 10
    weight_filler {
      type: "xavier"
    }
    bias_filler {
      type: "constant"
    }
  }
}
layer {
  name: "relu2"
  type: "ReLU"
  bottom: "ip2"
  top: "ip2"
}
layer {
  name: "loss"
  type: "SoftmaxWithLoss"
  bottom: "ip2"
  bottom: "label"
  top: "loss"
}
I0428 20:34:38.531375  4501 layer_factory.hpp:77] Creating layer mnist
I0428 20:34:38.531455  4501 db_lmdb.cpp:35] Opened lmdb examples/mnist/mnist_train_lmdb
I0428 20:34:38.531474  4501 net.cpp:86] Creating Layer mnist
I0428 20:34:38.531481  4501 net.cpp:382] mnist -> data
I0428 20:34:38.531499  4501 net.cpp:382] mnist -> label
I0428 20:34:38.532482  4501 data_layer.cpp:45] output data size: 64,1,28,28
I0428 20:34:38.534746  4501 net.cpp:124] Setting up mnist
I0428 20:34:38.534777  4501 net.cpp:131] Top shape: 64 1 28 28 (50176)
I0428 20:34:38.534783  4501 net.cpp:131] Top shape: 64 (64)
I0428 20:34:38.534786  4501 net.cpp:139] Memory required for data: 200960
I0428 20:34:38.534808  4501 layer_factory.hpp:77] Creating layer conv0
I0428 20:34:38.534821  4501 net.cpp:86] Creating Layer conv0
I0428 20:34:38.534826  4501 net.cpp:408] conv0 <- data
I0428 20:34:38.534837  4501 net.cpp:382] conv0 -> conv0
I0428 20:34:38.766955  4501 net.cpp:124] Setting up conv0
I0428 20:34:38.766981  4501 net.cpp:131] Top shape: 64 100 24 24 (3686400)
I0428 20:34:38.766985  4501 net.cpp:139] Memory required for data: 14946560
I0428 20:34:38.767019  4501 layer_factory.hpp:77] Creating layer pool0
I0428 20:34:38.767031  4501 net.cpp:86] Creating Layer pool0
I0428 20:34:38.767035  4501 net.cpp:408] pool0 <- conv0
I0428 20:34:38.767055  4501 net.cpp:382] pool0 -> pool0
I0428 20:34:38.767101  4501 net.cpp:124] Setting up pool0
I0428 20:34:38.767107  4501 net.cpp:131] Top shape: 64 100 12 12 (921600)
I0428 20:34:38.767109  4501 net.cpp:139] Memory required for data: 18632960
I0428 20:34:38.767112  4501 layer_factory.hpp:77] Creating layer conv1
I0428 20:34:38.767122  4501 net.cpp:86] Creating Layer conv1
I0428 20:34:38.767125  4501 net.cpp:408] conv1 <- pool0
I0428 20:34:38.767130  4501 net.cpp:382] conv1 -> conv1
I0428 20:34:38.770535  4501 net.cpp:124] Setting up conv1
I0428 20:34:38.770548  4501 net.cpp:131] Top shape: 64 50 8 8 (204800)
I0428 20:34:38.770568  4501 net.cpp:139] Memory required for data: 19452160
I0428 20:34:38.770576  4501 layer_factory.hpp:77] Creating layer pool1
I0428 20:34:38.770582  4501 net.cpp:86] Creating Layer pool1
I0428 20:34:38.770586  4501 net.cpp:408] pool1 <- conv1
I0428 20:34:38.770606  4501 net.cpp:382] pool1 -> pool1
I0428 20:34:38.770658  4501 net.cpp:124] Setting up pool1
I0428 20:34:38.770663  4501 net.cpp:131] Top shape: 64 50 4 4 (51200)
I0428 20:34:38.770665  4501 net.cpp:139] Memory required for data: 19656960
I0428 20:34:38.770668  4501 layer_factory.hpp:77] Creating layer ip1
I0428 20:34:38.770675  4501 net.cpp:86] Creating Layer ip1
I0428 20:34:38.770678  4501 net.cpp:408] ip1 <- pool1
I0428 20:34:38.770684  4501 net.cpp:382] ip1 -> ip1
I0428 20:34:38.771049  4501 net.cpp:124] Setting up ip1
I0428 20:34:38.771056  4501 net.cpp:131] Top shape: 64 50 (3200)
I0428 20:34:38.771075  4501 net.cpp:139] Memory required for data: 19669760
I0428 20:34:38.771081  4501 layer_factory.hpp:77] Creating layer relu1
I0428 20:34:38.771087  4501 net.cpp:86] Creating Layer relu1
I0428 20:34:38.771090  4501 net.cpp:408] relu1 <- ip1
I0428 20:34:38.771095  4501 net.cpp:369] relu1 -> ip1 (in-place)
I0428 20:34:38.771262  4501 net.cpp:124] Setting up relu1
I0428 20:34:38.771270  4501 net.cpp:131] Top shape: 64 50 (3200)
I0428 20:34:38.771273  4501 net.cpp:139] Memory required for data: 19682560
I0428 20:34:38.771275  4501 layer_factory.hpp:77] Creating layer ip2
I0428 20:34:38.771281  4501 net.cpp:86] Creating Layer ip2
I0428 20:34:38.771284  4501 net.cpp:408] ip2 <- ip1
I0428 20:34:38.771288  4501 net.cpp:382] ip2 -> ip2
I0428 20:34:38.771379  4501 net.cpp:124] Setting up ip2
I0428 20:34:38.771386  4501 net.cpp:131] Top shape: 64 10 (640)
I0428 20:34:38.771389  4501 net.cpp:139] Memory required for data: 19685120
I0428 20:34:38.771394  4501 layer_factory.hpp:77] Creating layer relu2
I0428 20:34:38.771399  4501 net.cpp:86] Creating Layer relu2
I0428 20:34:38.771401  4501 net.cpp:408] relu2 <- ip2
I0428 20:34:38.771405  4501 net.cpp:369] relu2 -> ip2 (in-place)
I0428 20:34:38.772163  4501 net.cpp:124] Setting up relu2
I0428 20:34:38.772174  4501 net.cpp:131] Top shape: 64 10 (640)
I0428 20:34:38.772193  4501 net.cpp:139] Memory required for data: 19687680
I0428 20:34:38.772197  4501 layer_factory.hpp:77] Creating layer loss
I0428 20:34:38.772203  4501 net.cpp:86] Creating Layer loss
I0428 20:34:38.772207  4501 net.cpp:408] loss <- ip2
I0428 20:34:38.772212  4501 net.cpp:408] loss <- label
I0428 20:34:38.772217  4501 net.cpp:382] loss -> loss
I0428 20:34:38.772235  4501 layer_factory.hpp:77] Creating layer loss
…
I0428 20:34:38.772920  4501 solver.cpp:173] Creating test net (#0) specified by net file: ECE595/mnist/train_test/var_everything2/lenet_train_test1608.prototxt
I0428 20:34:38.772979  4501 net.cpp:296] The NetState phase (1) differed from the phase (0) specified by a rule in layer mnist
I0428 20:34:38.773066  4501 net.cpp:53] Initializing net from parameters: 
name: "LeNet"
state {
  phase: TEST
}
layer {
  name: "mnist"
  type: "Data"
  top: "data"
  top: "label"
  include {
    phase: TEST
  }
  transform_param {
    scale: 0.00390625
  }
  data_param {
    source: "examples/mnist/mnist_test_lmdb"
    batch_size: 100
    backend: LMDB
  }
}
layer {
  name: "conv0"
  type: "Convolution"
  bottom: "data"
  top: "conv0"
  param {
    lr_mult: 1
  }
  param {
    lr_mult: 2
  }
  convolution_param {
    num_output: 100
    kernel_size: 5
    stride: 1
    weight_filler {
      type: "xavier"
    }
    bias_filler {
      type: "constant"
    }
  }
}
layer {
  name: "pool0"
  type: "Pooling"
  bottom: "conv0"
  top: "pool0"
  pooling_param {
    pool: MAX
    kernel_size: 2
    stride: 2
  }
}
layer {
  name: "conv1"
  type: "Convolution"
  bottom: "pool0"
  top: "conv1"
  param {
    lr_mult: 1
  }
  param {
    lr_mult: 2
  }
  convolution_param {
    num_output: 50
    kernel_size: 5
    stride: 1
    weight_filler {
      type: "xavier"
    }
    bias_filler {
      type: "constant"
    }
  }
}
layer {
  name: "pool1"
  type: "Pooling"
  bottom: "conv1"
  top: "pool1"
  pooling_param {
    pool: MAX
    kernel_size: 2
    stride: 2
  }
}
layer {
  name: "ip1"
  type: "InnerProduct"
  bottom: "pool1"
  top: "ip1"
  param {
    lr_mult: 1
  }
  param {
    lr_mult: 2
  }
  inner_product_param {
    num_output: 50
    weight_filler {
      type: "xavier"
    }
    bias_filler {
      type: "constant"
    }
  }
}
layer {
  name: "relu1"
  type: "ReLU"
  bottom: "ip1"
  top: "ip1"
}
layer {
  name: "ip2"
  type: "InnerProduct"
  bottom: "ip1"
  top: "ip2"
  param {
    lr_mult: 1
  }
  param {
    lr_mult: 2
  }
  inner_product_param {
    num_output: 10
    weight_filler {
      type: "xavier"
    }
    bias_filler {
      type: "constant"
    }
  }
}
layer {
  name: "relu2"
  type: "ReLU"
  bottom: "ip2"
  top: "ip2"
}
layer {
  name: "accuracy"
  type: "Accuracy"
  bottom: "ip2"
  bottom: "label"
  top: "accuracy"
  include {
    phase: TEST
  }
}
layer {
  name: "loss"
  type: "SoftmaxWithLoss"
  bottom: "ip2"
  bottom: "label"
  top: "loss"
}
I0428 20:34:38.773145  4501 layer_factory.hpp:77] Creating layer mnist
I0428 20:34:38.773219  4501 db_lmdb.cpp:35] Opened lmdb examples/mnist/mnist_test_lmdb
I0428 20:34:38.773234  4501 net.cpp:86] Creating Layer mnist
I0428 20:34:38.773239  4501 net.cpp:382] mnist -> data
I0428 20:34:38.773247  4501 net.cpp:382] mnist -> label
I0428 20:34:38.773349  4501 data_layer.cpp:45] output data size: 100,1,28,28
I0428 20:34:38.774497  4501 net.cpp:124] Setting up mnist
I0428 20:34:38.774524  4501 net.cpp:131] Top shape: 100 1 28 28 (78400)
I0428 20:34:38.774529  4501 net.cpp:131] Top shape: 100 (100)
I0428 20:34:38.774533  4501 net.cpp:139] Memory required for data: 314000
I0428 20:34:38.774536  4501 layer_factory.hpp:77] Creating layer label_mnist_1_split
I0428 20:34:38.774585  4501 net.cpp:86] Creating Layer label_mnist_1_split
I0428 20:34:38.774590  4501 net.cpp:408] label_mnist_1_split <- label
I0428 20:34:38.774595  4501 net.cpp:382] label_mnist_1_split -> label_mnist_1_split_0
I0428 20:34:38.774601  4501 net.cpp:382] label_mnist_1_split -> label_mnist_1_split_1
I0428 20:34:38.774657  4501 net.cpp:124] Setting up label_mnist_1_split
I0428 20:34:38.774662  4501 net.cpp:131] Top shape: 100 (100)
I0428 20:34:38.774667  4501 net.cpp:131] Top shape: 100 (100)
I0428 20:34:38.774668  4501 net.cpp:139] Memory required for data: 314800
I0428 20:34:38.774672  4501 layer_factory.hpp:77] Creating layer conv0
I0428 20:34:38.774695  4501 net.cpp:86] Creating Layer conv0
I0428 20:34:38.774698  4501 net.cpp:408] conv0 <- data
I0428 20:34:38.774703  4501 net.cpp:382] conv0 -> conv0
I0428 20:34:38.776541  4501 net.cpp:124] Setting up conv0
I0428 20:34:38.776554  4501 net.cpp:131] Top shape: 100 100 24 24 (5760000)
I0428 20:34:38.776558  4501 net.cpp:139] Memory required for data: 23354800
I0428 20:34:38.776567  4501 layer_factory.hpp:77] Creating layer pool0
I0428 20:34:38.776589  4501 net.cpp:86] Creating Layer pool0
I0428 20:34:38.776592  4501 net.cpp:408] pool0 <- conv0
I0428 20:34:38.776597  4501 net.cpp:382] pool0 -> pool0
I0428 20:34:38.776633  4501 net.cpp:124] Setting up pool0
I0428 20:34:38.776638  4501 net.cpp:131] Top shape: 100 100 12 12 (1440000)
I0428 20:34:38.776640  4501 net.cpp:139] Memory required for data: 29114800
I0428 20:34:38.776643  4501 layer_factory.hpp:77] Creating layer conv1
I0428 20:34:38.776650  4501 net.cpp:86] Creating Layer conv1
I0428 20:34:38.776654  4501 net.cpp:408] conv1 <- pool0
I0428 20:34:38.776659  4501 net.cpp:382] conv1 -> conv1
I0428 20:34:38.779808  4501 net.cpp:124] Setting up conv1
I0428 20:34:38.779820  4501 net.cpp:131] Top shape: 100 50 8 8 (320000)
I0428 20:34:38.779824  4501 net.cpp:139] Memory required for data: 30394800
I0428 20:34:38.779847  4501 layer_factory.hpp:77] Creating layer pool1
I0428 20:34:38.779855  4501 net.cpp:86] Creating Layer pool1
I0428 20:34:38.779872  4501 net.cpp:408] pool1 <- conv1
I0428 20:34:38.779878  4501 net.cpp:382] pool1 -> pool1
I0428 20:34:38.779914  4501 net.cpp:124] Setting up pool1
I0428 20:34:38.779919  4501 net.cpp:131] Top shape: 100 50 4 4 (80000)
I0428 20:34:38.779922  4501 net.cpp:139] Memory required for data: 30714800
I0428 20:34:38.779932  4501 layer_factory.hpp:77] Creating layer ip1
I0428 20:34:38.779938  4501 net.cpp:86] Creating Layer ip1
I0428 20:34:38.779942  4501 net.cpp:408] ip1 <- pool1
I0428 20:34:38.779947  4501 net.cpp:382] ip1 -> ip1
I0428 20:34:38.780267  4501 net.cpp:124] Setting up ip1
I0428 20:34:38.780275  4501 net.cpp:131] Top shape: 100 50 (5000)
I0428 20:34:38.780278  4501 net.cpp:139] Memory required for data: 30734800
I0428 20:34:38.780284  4501 layer_factory.hpp:77] Creating layer relu1
I0428 20:34:38.780308  4501 net.cpp:86] Creating Layer relu1
I0428 20:34:38.780310  4501 net.cpp:408] relu1 <- ip1
I0428 20:34:38.780315  4501 net.cpp:369] relu1 -> ip1 (in-place)
I0428 20:34:38.780473  4501 net.cpp:124] Setting up relu1
I0428 20:34:38.780481  4501 net.cpp:131] Top shape: 100 50 (5000)
I0428 20:34:38.780484  4501 net.cpp:139] Memory required for data: 30754800
I0428 20:34:38.780488  4501 layer_factory.hpp:77] Creating layer ip2
I0428 20:34:38.780505  4501 net.cpp:86] Creating Layer ip2
I0428 20:34:38.780508  4501 net.cpp:408] ip2 <- ip1
I0428 20:34:38.780514  4501 net.cpp:382] ip2 -> ip2
I0428 20:34:38.780613  4501 net.cpp:124] Setting up ip2
I0428 20:34:38.780637  4501 net.cpp:131] Top shape: 100 10 (1000)
I0428 20:34:38.780640  4501 net.cpp:139] Memory required for data: 30758800
I0428 20:34:38.780647  4501 layer_factory.hpp:77] Creating layer relu2
I0428 20:34:38.780650  4501 net.cpp:86] Creating Layer relu2
I0428 20:34:38.780653  4501 net.cpp:408] relu2 <- ip2
I0428 20:34:38.780659  4501 net.cpp:369] relu2 -> ip2 (in-place)
I0428 20:34:38.780839  4501 net.cpp:124] Setting up relu2
I0428 20:34:38.780849  4501 net.cpp:131] Top shape: 100 10 (1000)
I0428 20:34:38.780853  4501 net.cpp:139] Memory required for data: 30762800
I0428 20:34:38.780855  4501 layer_factory.hpp:77] Creating layer ip2_relu2_0_split
I0428 20:34:38.780860  4501 net.cpp:86] Creating Layer ip2_relu2_0_split
I0428 20:34:38.780864  4501 net.cpp:408] ip2_relu2_0_split <- ip2
I0428 20:34:38.780869  4501 net.cpp:382] ip2_relu2_0_split -> ip2_relu2_0_split_0
I0428 20:34:38.780907  4501 net.cpp:382] ip2_relu2_0_split -> ip2_relu2_0_split_1
I0428 20:34:38.780959  4501 net.cpp:124] Setting up ip2_relu2_0_split
I0428 20:34:38.780966  4501 net.cpp:131] Top shape: 100 10 (1000)
I0428 20:34:38.780969  4501 net.cpp:131] Top shape: 100 10 (1000)
I0428 20:34:38.780972  4501 net.cpp:139] Memory required for data: 30770800
I0428 20:34:38.780975  4501 layer_factory.hpp:77] Creating layer accuracy
I0428 20:34:38.780980  4501 net.cpp:86] Creating Layer accuracy
I0428 20:34:38.780989  4501 net.cpp:408] accuracy <- ip2_relu2_0_split_0
I0428 20:34:38.780993  4501 net.cpp:408] accuracy <- label_mnist_1_split_0
I0428 20:34:38.780997  4501 net.cpp:382] accuracy -> accuracy
…
