…
I0428 19:29:50.204685 22126 net.cpp:296] The NetState phase (0) differed from the phase (1) specified by a rule in layer mnist
I0428 19:29:50.204705 22126 net.cpp:296] The NetState phase (0) differed from the phase (1) specified by a rule in layer accuracy
I0428 19:29:50.204795 22126 net.cpp:53] Initializing net from parameters: 
name: "LeNet"
state {
  phase: TRAIN
  level: 0
  stage: ""
}
layer {
  name: "mnist"
  type: "Data"
  top: "data"
  top: "label"
  include {
    phase: TRAIN
  }
  transform_param {
    scale: 0.00390625
  }
  data_param {
    source: "examples/mnist/mnist_train_lmdb"
    batch_size: 64
    backend: LMDB
  }
}
layer {
  name: "conv0"
  type: "Convolution"
  bottom: "data"
  top: "conv0"
  param {
    lr_mult: 1
  }
  param {
    lr_mult: 2
  }
  convolution_param {
    num_output: 2
    kernel_size: 5
    stride: 1
    weight_filler {
      type: "xavier"
    }
    bias_filler {
      type: "constant"
    }
  }
}
layer {
  name: "pool0"
  type: "Pooling"
  bottom: "conv0"
  top: "pool0"
  pooling_param {
    pool: MAX
    kernel_size: 2
    stride: 2
  }
}
layer {
  name: "ip1"
  type: "InnerProduct"
  bottom: "pool0"
  top: "ip1"
  param {
    lr_mult: 1
  }
  param {
    lr_mult: 2
  }
  inner_product_param {
    num_output: 50
    weight_filler {
      type: "xavier"
    }
    bias_filler {
      type: "constant"
    }
  }
}
layer {
  name: "relu1"
  type: "ReLU"
  bottom: "ip1"
  top: "ip1"
}
layer {
  name: "ip2"
  type: "InnerProduct"
  bottom: "ip1"
  top: "ip2"
  param {
    lr_mult: 1
  }
  param {
    lr_mult: 2
  }
  inner_product_param {
    num_output: 10
    weight_filler {
      type: "xavier"
    }
    bias_filler {
      type: "constant"
    }
  }
}
layer {
  name: "relu2"
  type: "ReLU"
  bottom: "ip2"
  top: "ip2"
}
layer {
  name: "ip3"
  type: "InnerProduct"
  bottom: "ip2"
  top: "ip3"
  param {
    lr_mult: 1
  }
  param {
    lr_mult: 2
  }
  inner_product_param {
    num_output: 10
    weight_filler {
      type: "xavier"
    }
    bias_filler {
      type: "constant"
    }
  }
}
layer {
  name: "relu3"
  type: "ReLU"
  bottom: "ip3"
  top: "ip3"
}
layer {
  name: "loss"
  type: "SoftmaxWithLoss"
  bottom: "ip3"
  bottom: "label"
  top: "loss"
}
I0428 19:29:50.204879 22126 layer_factory.hpp:77] Creating layer mnist
I0428 19:29:50.204979 22126 db_lmdb.cpp:35] Opened lmdb examples/mnist/mnist_train_lmdb
I0428 19:29:50.205003 22126 net.cpp:86] Creating Layer mnist
I0428 19:29:50.205013 22126 net.cpp:382] mnist -> data
I0428 19:29:50.205034 22126 net.cpp:382] mnist -> label
I0428 19:29:50.206141 22126 data_layer.cpp:45] output data size: 64,1,28,28
I0428 19:29:50.208832 22126 net.cpp:124] Setting up mnist
I0428 19:29:50.208851 22126 net.cpp:131] Top shape: 64 1 28 28 (50176)
I0428 19:29:50.208858 22126 net.cpp:131] Top shape: 64 (64)
I0428 19:29:50.208860 22126 net.cpp:139] Memory required for data: 200960
I0428 19:29:50.208868 22126 layer_factory.hpp:77] Creating layer conv0
I0428 19:29:50.208886 22126 net.cpp:86] Creating Layer conv0
I0428 19:29:50.208892 22126 net.cpp:408] conv0 <- data
I0428 19:29:50.208906 22126 net.cpp:382] conv0 -> conv0
I0428 19:29:50.499709 22126 net.cpp:124] Setting up conv0
I0428 19:29:50.499742 22126 net.cpp:131] Top shape: 64 2 24 24 (73728)
I0428 19:29:50.499747 22126 net.cpp:139] Memory required for data: 495872
I0428 19:29:50.499764 22126 layer_factory.hpp:77] Creating layer pool0
I0428 19:29:50.499779 22126 net.cpp:86] Creating Layer pool0
I0428 19:29:50.499806 22126 net.cpp:408] pool0 <- conv0
I0428 19:29:50.499814 22126 net.cpp:382] pool0 -> pool0
I0428 19:29:50.499871 22126 net.cpp:124] Setting up pool0
I0428 19:29:50.499881 22126 net.cpp:131] Top shape: 64 2 12 12 (18432)
I0428 19:29:50.499884 22126 net.cpp:139] Memory required for data: 569600
I0428 19:29:50.499888 22126 layer_factory.hpp:77] Creating layer ip1
I0428 19:29:50.499897 22126 net.cpp:86] Creating Layer ip1
I0428 19:29:50.499902 22126 net.cpp:408] ip1 <- pool0
I0428 19:29:50.499907 22126 net.cpp:382] ip1 -> ip1
I0428 19:29:50.501099 22126 net.cpp:124] Setting up ip1
I0428 19:29:50.501116 22126 net.cpp:131] Top shape: 64 50 (3200)
I0428 19:29:50.501121 22126 net.cpp:139] Memory required for data: 582400
I0428 19:29:50.501130 22126 layer_factory.hpp:77] Creating layer relu1
I0428 19:29:50.501139 22126 net.cpp:86] Creating Layer relu1
I0428 19:29:50.501143 22126 net.cpp:408] relu1 <- ip1
I0428 19:29:50.501149 22126 net.cpp:369] relu1 -> ip1 (in-place)
I0428 19:29:50.501348 22126 net.cpp:124] Setting up relu1
I0428 19:29:50.501358 22126 net.cpp:131] Top shape: 64 50 (3200)
I0428 19:29:50.501363 22126 net.cpp:139] Memory required for data: 595200
I0428 19:29:50.501366 22126 layer_factory.hpp:77] Creating layer ip2
I0428 19:29:50.501374 22126 net.cpp:86] Creating Layer ip2
I0428 19:29:50.501379 22126 net.cpp:408] ip2 <- ip1
I0428 19:29:50.501384 22126 net.cpp:382] ip2 -> ip2
I0428 19:29:50.501495 22126 net.cpp:124] Setting up ip2
I0428 19:29:50.501503 22126 net.cpp:131] Top shape: 64 10 (640)
I0428 19:29:50.501507 22126 net.cpp:139] Memory required for data: 597760
I0428 19:29:50.501515 22126 layer_factory.hpp:77] Creating layer relu2
I0428 19:29:50.501521 22126 net.cpp:86] Creating Layer relu2
I0428 19:29:50.501525 22126 net.cpp:408] relu2 <- ip2
I0428 19:29:50.501530 22126 net.cpp:369] relu2 -> ip2 (in-place)
I0428 19:29:50.502382 22126 net.cpp:124] Setting up relu2
I0428 19:29:50.502398 22126 net.cpp:131] Top shape: 64 10 (640)
I0428 19:29:50.502401 22126 net.cpp:139] Memory required for data: 600320
I0428 19:29:50.502405 22126 layer_factory.hpp:77] Creating layer ip3
I0428 19:29:50.502414 22126 net.cpp:86] Creating Layer ip3
I0428 19:29:50.502418 22126 net.cpp:408] ip3 <- ip2
I0428 19:29:50.502424 22126 net.cpp:382] ip3 -> ip3
I0428 19:29:50.502537 22126 net.cpp:124] Setting up ip3
I0428 19:29:50.502545 22126 net.cpp:131] Top shape: 64 10 (640)
I0428 19:29:50.502549 22126 net.cpp:139] Memory required for data: 602880
I0428 19:29:50.502557 22126 layer_factory.hpp:77] Creating layer relu3
I0428 19:29:50.502563 22126 net.cpp:86] Creating Layer relu3
I0428 19:29:50.502568 22126 net.cpp:408] relu3 <- ip3
I0428 19:29:50.502573 22126 net.cpp:369] relu3 -> ip3 (in-place)
I0428 19:29:50.502750 22126 net.cpp:124] Setting up relu3
I0428 19:29:50.502760 22126 net.cpp:131] Top shape: 64 10 (640)
I0428 19:29:50.502764 22126 net.cpp:139] Memory required for data: 605440
I0428 19:29:50.502768 22126 layer_factory.hpp:77] Creating layer loss
I0428 19:29:50.502775 22126 net.cpp:86] Creating Layer loss
I0428 19:29:50.502779 22126 net.cpp:408] loss <- ip3
I0428 19:29:50.502784 22126 net.cpp:408] loss <- label
I0428 19:29:50.502790 22126 net.cpp:382] loss -> loss
I0428 19:29:50.502812 22126 layer_factory.hpp:77] Creating layer loss
…
I0428 19:29:50.503507 22126 solver.cpp:173] Creating test net (#0) specified by net file: ECE595/mnist/train_test/var_everything2/lenet_train_test71.prototxt
I0428 19:29:50.503537 22126 net.cpp:296] The NetState phase (1) differed from the phase (0) specified by a rule in layer mnist
I0428 19:29:50.503633 22126 net.cpp:53] Initializing net from parameters: 
name: "LeNet"
state {
  phase: TEST
}
layer {
  name: "mnist"
  type: "Data"
  top: "data"
  top: "label"
  include {
    phase: TEST
  }
  transform_param {
    scale: 0.00390625
  }
  data_param {
    source: "examples/mnist/mnist_test_lmdb"
    batch_size: 100
    backend: LMDB
  }
}
layer {
  name: "conv0"
  type: "Convolution"
  bottom: "data"
  top: "conv0"
  param {
    lr_mult: 1
  }
  param {
    lr_mult: 2
  }
  convolution_param {
    num_output: 2
    kernel_size: 5
    stride: 1
    weight_filler {
      type: "xavier"
    }
    bias_filler {
      type: "constant"
    }
  }
}
layer {
  name: "pool0"
  type: "Pooling"
  bottom: "conv0"
  top: "pool0"
  pooling_param {
    pool: MAX
    kernel_size: 2
    stride: 2
  }
}
layer {
  name: "ip1"
  type: "InnerProduct"
  bottom: "pool0"
  top: "ip1"
  param {
    lr_mult: 1
  }
  param {
    lr_mult: 2
  }
  inner_product_param {
    num_output: 50
    weight_filler {
      type: "xavier"
    }
    bias_filler {
      type: "constant"
    }
  }
}
layer {
  name: "relu1"
  type: "ReLU"
  bottom: "ip1"
  top: "ip1"
}
layer {
  name: "ip2"
  type: "InnerProduct"
  bottom: "ip1"
  top: "ip2"
  param {
    lr_mult: 1
  }
  param {
    lr_mult: 2
  }
  inner_product_param {
    num_output: 10
    weight_filler {
      type: "xavier"
    }
    bias_filler {
      type: "constant"
    }
  }
}
layer {
  name: "relu2"
  type: "ReLU"
  bottom: "ip2"
  top: "ip2"
}
layer {
  name: "ip3"
  type: "InnerProduct"
  bottom: "ip2"
  top: "ip3"
  param {
    lr_mult: 1
  }
  param {
    lr_mult: 2
  }
  inner_product_param {
    num_output: 10
    weight_filler {
      type: "xavier"
    }
    bias_filler {
      type: "constant"
    }
  }
}
layer {
  name: "relu3"
  type: "ReLU"
  bottom: "ip3"
  top: "ip3"
}
layer {
  name: "accuracy"
  type: "Accuracy"
  bottom: "ip3"
  bottom: "label"
  top: "accuracy"
  include {
    phase: TEST
  }
}
layer {
  name: "loss"
  type: "SoftmaxWithLoss"
  bottom: "ip3"
  bottom: "label"
  top: "loss"
}
I0428 19:29:50.503708 22126 layer_factory.hpp:77] Creating layer mnist
I0428 19:29:50.503764 22126 db_lmdb.cpp:35] Opened lmdb examples/mnist/mnist_test_lmdb
I0428 19:29:50.503779 22126 net.cpp:86] Creating Layer mnist
I0428 19:29:50.503785 22126 net.cpp:382] mnist -> data
I0428 19:29:50.503794 22126 net.cpp:382] mnist -> label
I0428 19:29:50.503895 22126 data_layer.cpp:45] output data size: 100,1,28,28
I0428 19:29:50.506067 22126 net.cpp:124] Setting up mnist
I0428 19:29:50.506084 22126 net.cpp:131] Top shape: 100 1 28 28 (78400)
I0428 19:29:50.506090 22126 net.cpp:131] Top shape: 100 (100)
I0428 19:29:50.506093 22126 net.cpp:139] Memory required for data: 314000
I0428 19:29:50.506098 22126 layer_factory.hpp:77] Creating layer label_mnist_1_split
I0428 19:29:50.506112 22126 net.cpp:86] Creating Layer label_mnist_1_split
I0428 19:29:50.506116 22126 net.cpp:408] label_mnist_1_split <- label
I0428 19:29:50.506122 22126 net.cpp:382] label_mnist_1_split -> label_mnist_1_split_0
I0428 19:29:50.506130 22126 net.cpp:382] label_mnist_1_split -> label_mnist_1_split_1
I0428 19:29:50.506186 22126 net.cpp:124] Setting up label_mnist_1_split
I0428 19:29:50.506192 22126 net.cpp:131] Top shape: 100 (100)
I0428 19:29:50.506196 22126 net.cpp:131] Top shape: 100 (100)
I0428 19:29:50.506199 22126 net.cpp:139] Memory required for data: 314800
I0428 19:29:50.506216 22126 layer_factory.hpp:77] Creating layer conv0
I0428 19:29:50.506227 22126 net.cpp:86] Creating Layer conv0
I0428 19:29:50.506230 22126 net.cpp:408] conv0 <- data
I0428 19:29:50.506237 22126 net.cpp:382] conv0 -> conv0
I0428 19:29:50.508031 22126 net.cpp:124] Setting up conv0
I0428 19:29:50.508049 22126 net.cpp:131] Top shape: 100 2 24 24 (115200)
I0428 19:29:50.508052 22126 net.cpp:139] Memory required for data: 775600
I0428 19:29:50.508064 22126 layer_factory.hpp:77] Creating layer pool0
I0428 19:29:50.508074 22126 net.cpp:86] Creating Layer pool0
I0428 19:29:50.508077 22126 net.cpp:408] pool0 <- conv0
I0428 19:29:50.508083 22126 net.cpp:382] pool0 -> pool0
I0428 19:29:50.508129 22126 net.cpp:124] Setting up pool0
I0428 19:29:50.508144 22126 net.cpp:131] Top shape: 100 2 12 12 (28800)
I0428 19:29:50.508148 22126 net.cpp:139] Memory required for data: 890800
I0428 19:29:50.508152 22126 layer_factory.hpp:77] Creating layer ip1
I0428 19:29:50.508162 22126 net.cpp:86] Creating Layer ip1
I0428 19:29:50.508165 22126 net.cpp:408] ip1 <- pool0
I0428 19:29:50.508170 22126 net.cpp:382] ip1 -> ip1
I0428 19:29:50.508386 22126 net.cpp:124] Setting up ip1
I0428 19:29:50.508395 22126 net.cpp:131] Top shape: 100 50 (5000)
I0428 19:29:50.508399 22126 net.cpp:139] Memory required for data: 910800
I0428 19:29:50.508407 22126 layer_factory.hpp:77] Creating layer relu1
I0428 19:29:50.508414 22126 net.cpp:86] Creating Layer relu1
I0428 19:29:50.508416 22126 net.cpp:408] relu1 <- ip1
I0428 19:29:50.508422 22126 net.cpp:369] relu1 -> ip1 (in-place)
I0428 19:29:50.508618 22126 net.cpp:124] Setting up relu1
I0428 19:29:50.508628 22126 net.cpp:131] Top shape: 100 50 (5000)
I0428 19:29:50.508632 22126 net.cpp:139] Memory required for data: 930800
I0428 19:29:50.508636 22126 layer_factory.hpp:77] Creating layer ip2
I0428 19:29:50.508643 22126 net.cpp:86] Creating Layer ip2
I0428 19:29:50.508647 22126 net.cpp:408] ip2 <- ip1
I0428 19:29:50.508654 22126 net.cpp:382] ip2 -> ip2
I0428 19:29:50.508774 22126 net.cpp:124] Setting up ip2
I0428 19:29:50.508785 22126 net.cpp:131] Top shape: 100 10 (1000)
I0428 19:29:50.508788 22126 net.cpp:139] Memory required for data: 934800
I0428 19:29:50.508797 22126 layer_factory.hpp:77] Creating layer relu2
I0428 19:29:50.508803 22126 net.cpp:86] Creating Layer relu2
I0428 19:29:50.508807 22126 net.cpp:408] relu2 <- ip2
I0428 19:29:50.508822 22126 net.cpp:369] relu2 -> ip2 (in-place)
I0428 19:29:50.509793 22126 net.cpp:124] Setting up relu2
I0428 19:29:50.509807 22126 net.cpp:131] Top shape: 100 10 (1000)
I0428 19:29:50.509811 22126 net.cpp:139] Memory required for data: 938800
I0428 19:29:50.509815 22126 layer_factory.hpp:77] Creating layer ip3
I0428 19:29:50.509826 22126 net.cpp:86] Creating Layer ip3
I0428 19:29:50.509830 22126 net.cpp:408] ip3 <- ip2
I0428 19:29:50.509838 22126 net.cpp:382] ip3 -> ip3
I0428 19:29:50.510000 22126 net.cpp:124] Setting up ip3
I0428 19:29:50.510010 22126 net.cpp:131] Top shape: 100 10 (1000)
I0428 19:29:50.510015 22126 net.cpp:139] Memory required for data: 942800
I0428 19:29:50.510020 22126 layer_factory.hpp:77] Creating layer relu3
I0428 19:29:50.510027 22126 net.cpp:86] Creating Layer relu3
I0428 19:29:50.510031 22126 net.cpp:408] relu3 <- ip3
I0428 19:29:50.510038 22126 net.cpp:369] relu3 -> ip3 (in-place)
I0428 19:29:50.510226 22126 net.cpp:124] Setting up relu3
I0428 19:29:50.510236 22126 net.cpp:131] Top shape: 100 10 (1000)
I0428 19:29:50.510239 22126 net.cpp:139] Memory required for data: 946800
I0428 19:29:50.510242 22126 layer_factory.hpp:77] Creating layer ip3_relu3_0_split
I0428 19:29:50.510248 22126 net.cpp:86] Creating Layer ip3_relu3_0_split
I0428 19:29:50.510253 22126 net.cpp:408] ip3_relu3_0_split <- ip3
I0428 19:29:50.510260 22126 net.cpp:382] ip3_relu3_0_split -> ip3_relu3_0_split_0
I0428 19:29:50.510267 22126 net.cpp:382] ip3_relu3_0_split -> ip3_relu3_0_split_1
I0428 19:29:50.510308 22126 net.cpp:124] Setting up ip3_relu3_0_split
I0428 19:29:50.510315 22126 net.cpp:131] Top shape: 100 10 (1000)
I0428 19:29:50.510320 22126 net.cpp:131] Top shape: 100 10 (1000)
I0428 19:29:50.510335 22126 net.cpp:139] Memory required for data: 954800
I0428 19:29:50.510339 22126 layer_factory.hpp:77] Creating layer accuracy
I0428 19:29:50.510347 22126 net.cpp:86] Creating Layer accuracy
I0428 19:29:50.510350 22126 net.cpp:408] accuracy <- ip3_relu3_0_split_0
I0428 19:29:50.510365 22126 net.cpp:408] accuracy <- label_mnist_1_split_0
I0428 19:29:50.510371 22126 net.cpp:382] accuracy -> accuracy
…
