…
I0428 20:02:47.104228 30054 net.cpp:296] The NetState phase (0) differed from the phase (1) specified by a rule in layer mnist
I0428 20:02:47.104257 30054 net.cpp:296] The NetState phase (0) differed from the phase (1) specified by a rule in layer accuracy
I0428 20:02:47.104321 30054 net.cpp:53] Initializing net from parameters: 
name: "LeNet"
state {
  phase: TRAIN
  level: 0
  stage: ""
}
layer {
  name: "mnist"
  type: "Data"
  top: "data"
  top: "label"
  include {
    phase: TRAIN
  }
  transform_param {
    scale: 0.00390625
  }
  data_param {
    source: "examples/mnist/mnist_train_lmdb"
    batch_size: 64
    backend: LMDB
  }
}
layer {
  name: "conv0"
  type: "Convolution"
  bottom: "data"
  top: "conv0"
  param {
    lr_mult: 1
  }
  param {
    lr_mult: 2
  }
  convolution_param {
    num_output: 10
    kernel_size: 5
    stride: 1
    weight_filler {
      type: "xavier"
    }
    bias_filler {
      type: "constant"
    }
  }
}
layer {
  name: "pool0"
  type: "Pooling"
  bottom: "conv0"
  top: "pool0"
  pooling_param {
    pool: MAX
    kernel_size: 2
    stride: 2
  }
}
layer {
  name: "conv1"
  type: "Convolution"
  bottom: "pool0"
  top: "conv1"
  param {
    lr_mult: 1
  }
  param {
    lr_mult: 2
  }
  convolution_param {
    num_output: 100
    kernel_size: 5
    stride: 1
    weight_filler {
      type: "xavier"
    }
    bias_filler {
      type: "constant"
    }
  }
}
layer {
  name: "pool1"
  type: "Pooling"
  bottom: "conv1"
  top: "pool1"
  pooling_param {
    pool: MAX
    kernel_size: 2
    stride: 2
  }
}
layer {
  name: "ip1"
  type: "InnerProduct"
  bottom: "pool1"
  top: "ip1"
  param {
    lr_mult: 1
  }
  param {
    lr_mult: 2
  }
  inner_product_param {
    num_output: 10
    weight_filler {
      type: "xavier"
    }
    bias_filler {
      type: "constant"
    }
  }
}
layer {
  name: "relu1"
  type: "ReLU"
  bottom: "ip1"
  top: "ip1"
}
layer {
  name: "loss"
  type: "SoftmaxWithLoss"
  bottom: "ip1"
  bottom: "label"
  top: "loss"
}
I0428 20:02:47.104372 30054 layer_factory.hpp:77] Creating layer mnist
I0428 20:02:47.104454 30054 db_lmdb.cpp:35] Opened lmdb examples/mnist/mnist_train_lmdb
I0428 20:02:47.104473 30054 net.cpp:86] Creating Layer mnist
I0428 20:02:47.104478 30054 net.cpp:382] mnist -> data
I0428 20:02:47.104497 30054 net.cpp:382] mnist -> label
I0428 20:02:47.105545 30054 data_layer.cpp:45] output data size: 64,1,28,28
I0428 20:02:47.107712 30054 net.cpp:124] Setting up mnist
I0428 20:02:47.107743 30054 net.cpp:131] Top shape: 64 1 28 28 (50176)
I0428 20:02:47.107748 30054 net.cpp:131] Top shape: 64 (64)
I0428 20:02:47.107753 30054 net.cpp:139] Memory required for data: 200960
I0428 20:02:47.107758 30054 layer_factory.hpp:77] Creating layer conv0
I0428 20:02:47.107770 30054 net.cpp:86] Creating Layer conv0
I0428 20:02:47.107774 30054 net.cpp:408] conv0 <- data
I0428 20:02:47.107784 30054 net.cpp:382] conv0 -> conv0
I0428 20:02:47.334753 30054 net.cpp:124] Setting up conv0
I0428 20:02:47.334779 30054 net.cpp:131] Top shape: 64 10 24 24 (368640)
I0428 20:02:47.334784 30054 net.cpp:139] Memory required for data: 1675520
I0428 20:02:47.334797 30054 layer_factory.hpp:77] Creating layer pool0
I0428 20:02:47.334808 30054 net.cpp:86] Creating Layer pool0
I0428 20:02:47.334812 30054 net.cpp:408] pool0 <- conv0
I0428 20:02:47.334817 30054 net.cpp:382] pool0 -> pool0
I0428 20:02:47.334875 30054 net.cpp:124] Setting up pool0
I0428 20:02:47.334882 30054 net.cpp:131] Top shape: 64 10 12 12 (92160)
I0428 20:02:47.334898 30054 net.cpp:139] Memory required for data: 2044160
I0428 20:02:47.334903 30054 layer_factory.hpp:77] Creating layer conv1
I0428 20:02:47.334913 30054 net.cpp:86] Creating Layer conv1
I0428 20:02:47.334916 30054 net.cpp:408] conv1 <- pool0
I0428 20:02:47.334920 30054 net.cpp:382] conv1 -> conv1
I0428 20:02:47.336920 30054 net.cpp:124] Setting up conv1
I0428 20:02:47.336951 30054 net.cpp:131] Top shape: 64 100 8 8 (409600)
I0428 20:02:47.336956 30054 net.cpp:139] Memory required for data: 3682560
I0428 20:02:47.336966 30054 layer_factory.hpp:77] Creating layer pool1
I0428 20:02:47.336973 30054 net.cpp:86] Creating Layer pool1
I0428 20:02:47.336977 30054 net.cpp:408] pool1 <- conv1
I0428 20:02:47.336982 30054 net.cpp:382] pool1 -> pool1
I0428 20:02:47.337018 30054 net.cpp:124] Setting up pool1
I0428 20:02:47.337023 30054 net.cpp:131] Top shape: 64 100 4 4 (102400)
I0428 20:02:47.337026 30054 net.cpp:139] Memory required for data: 4092160
I0428 20:02:47.337029 30054 layer_factory.hpp:77] Creating layer ip1
I0428 20:02:47.337036 30054 net.cpp:86] Creating Layer ip1
I0428 20:02:47.337039 30054 net.cpp:408] ip1 <- pool1
I0428 20:02:47.337044 30054 net.cpp:382] ip1 -> ip1
I0428 20:02:47.338100 30054 net.cpp:124] Setting up ip1
I0428 20:02:47.338114 30054 net.cpp:131] Top shape: 64 10 (640)
I0428 20:02:47.338132 30054 net.cpp:139] Memory required for data: 4094720
I0428 20:02:47.338140 30054 layer_factory.hpp:77] Creating layer relu1
I0428 20:02:47.338146 30054 net.cpp:86] Creating Layer relu1
I0428 20:02:47.338150 30054 net.cpp:408] relu1 <- ip1
I0428 20:02:47.338155 30054 net.cpp:369] relu1 -> ip1 (in-place)
I0428 20:02:47.338327 30054 net.cpp:124] Setting up relu1
I0428 20:02:47.338335 30054 net.cpp:131] Top shape: 64 10 (640)
I0428 20:02:47.338354 30054 net.cpp:139] Memory required for data: 4097280
I0428 20:02:47.338357 30054 layer_factory.hpp:77] Creating layer loss
I0428 20:02:47.338368 30054 net.cpp:86] Creating Layer loss
I0428 20:02:47.338371 30054 net.cpp:408] loss <- ip1
I0428 20:02:47.338376 30054 net.cpp:408] loss <- label
I0428 20:02:47.338380 30054 net.cpp:382] loss -> loss
I0428 20:02:47.338392 30054 layer_factory.hpp:77] Creating layer loss
…
I0428 20:02:47.339557 30054 solver.cpp:173] Creating test net (#0) specified by net file: ECE595/mnist/train_test/var_everything2/lenet_train_test937.prototxt
I0428 20:02:47.339581 30054 net.cpp:296] The NetState phase (1) differed from the phase (0) specified by a rule in layer mnist
I0428 20:02:47.339655 30054 net.cpp:53] Initializing net from parameters: 
name: "LeNet"
state {
  phase: TEST
}
layer {
  name: "mnist"
  type: "Data"
  top: "data"
  top: "label"
  include {
    phase: TEST
  }
  transform_param {
    scale: 0.00390625
  }
  data_param {
    source: "examples/mnist/mnist_test_lmdb"
    batch_size: 100
    backend: LMDB
  }
}
layer {
  name: "conv0"
  type: "Convolution"
  bottom: "data"
  top: "conv0"
  param {
    lr_mult: 1
  }
  param {
    lr_mult: 2
  }
  convolution_param {
    num_output: 10
    kernel_size: 5
    stride: 1
    weight_filler {
      type: "xavier"
    }
    bias_filler {
      type: "constant"
    }
  }
}
layer {
  name: "pool0"
  type: "Pooling"
  bottom: "conv0"
  top: "pool0"
  pooling_param {
    pool: MAX
    kernel_size: 2
    stride: 2
  }
}
layer {
  name: "conv1"
  type: "Convolution"
  bottom: "pool0"
  top: "conv1"
  param {
    lr_mult: 1
  }
  param {
    lr_mult: 2
  }
  convolution_param {
    num_output: 100
    kernel_size: 5
    stride: 1
    weight_filler {
      type: "xavier"
    }
    bias_filler {
      type: "constant"
    }
  }
}
layer {
  name: "pool1"
  type: "Pooling"
  bottom: "conv1"
  top: "pool1"
  pooling_param {
    pool: MAX
    kernel_size: 2
    stride: 2
  }
}
layer {
  name: "ip1"
  type: "InnerProduct"
  bottom: "pool1"
  top: "ip1"
  param {
    lr_mult: 1
  }
  param {
    lr_mult: 2
  }
  inner_product_param {
    num_output: 10
    weight_filler {
      type: "xavier"
    }
    bias_filler {
      type: "constant"
    }
  }
}
layer {
  name: "relu1"
  type: "ReLU"
  bottom: "ip1"
  top: "ip1"
}
layer {
  name: "accuracy"
  type: "Accuracy"
  bottom: "ip1"
  bottom: "label"
  top: "accuracy"
  include {
    phase: TEST
  }
}
layer {
  name: "loss"
  type: "SoftmaxWithLoss"
  bottom: "ip1"
  bottom: "label"
  top: "loss"
}
I0428 20:02:47.339723 30054 layer_factory.hpp:77] Creating layer mnist
I0428 20:02:47.339778 30054 db_lmdb.cpp:35] Opened lmdb examples/mnist/mnist_test_lmdb
I0428 20:02:47.339793 30054 net.cpp:86] Creating Layer mnist
I0428 20:02:47.339798 30054 net.cpp:382] mnist -> data
I0428 20:02:47.339805 30054 net.cpp:382] mnist -> label
I0428 20:02:47.339885 30054 data_layer.cpp:45] output data size: 100,1,28,28
I0428 20:02:47.341859 30054 net.cpp:124] Setting up mnist
I0428 20:02:47.341889 30054 net.cpp:131] Top shape: 100 1 28 28 (78400)
I0428 20:02:47.341894 30054 net.cpp:131] Top shape: 100 (100)
I0428 20:02:47.341898 30054 net.cpp:139] Memory required for data: 314000
I0428 20:02:47.341902 30054 layer_factory.hpp:77] Creating layer label_mnist_1_split
I0428 20:02:47.341908 30054 net.cpp:86] Creating Layer label_mnist_1_split
I0428 20:02:47.341912 30054 net.cpp:408] label_mnist_1_split <- label
I0428 20:02:47.341917 30054 net.cpp:382] label_mnist_1_split -> label_mnist_1_split_0
I0428 20:02:47.341922 30054 net.cpp:382] label_mnist_1_split -> label_mnist_1_split_1
I0428 20:02:47.341996 30054 net.cpp:124] Setting up label_mnist_1_split
I0428 20:02:47.342001 30054 net.cpp:131] Top shape: 100 (100)
I0428 20:02:47.342005 30054 net.cpp:131] Top shape: 100 (100)
I0428 20:02:47.342007 30054 net.cpp:139] Memory required for data: 314800
I0428 20:02:47.342025 30054 layer_factory.hpp:77] Creating layer conv0
I0428 20:02:47.342032 30054 net.cpp:86] Creating Layer conv0
I0428 20:02:47.342034 30054 net.cpp:408] conv0 <- data
I0428 20:02:47.342039 30054 net.cpp:382] conv0 -> conv0
I0428 20:02:47.342977 30054 net.cpp:124] Setting up conv0
I0428 20:02:47.342988 30054 net.cpp:131] Top shape: 100 10 24 24 (576000)
I0428 20:02:47.342991 30054 net.cpp:139] Memory required for data: 2618800
I0428 20:02:47.343000 30054 layer_factory.hpp:77] Creating layer pool0
I0428 20:02:47.343006 30054 net.cpp:86] Creating Layer pool0
I0428 20:02:47.343009 30054 net.cpp:408] pool0 <- conv0
I0428 20:02:47.343014 30054 net.cpp:382] pool0 -> pool0
I0428 20:02:47.343067 30054 net.cpp:124] Setting up pool0
I0428 20:02:47.343073 30054 net.cpp:131] Top shape: 100 10 12 12 (144000)
I0428 20:02:47.343076 30054 net.cpp:139] Memory required for data: 3194800
I0428 20:02:47.343080 30054 layer_factory.hpp:77] Creating layer conv1
I0428 20:02:47.343086 30054 net.cpp:86] Creating Layer conv1
I0428 20:02:47.343089 30054 net.cpp:408] conv1 <- pool0
I0428 20:02:47.343094 30054 net.cpp:382] conv1 -> conv1
I0428 20:02:47.344738 30054 net.cpp:124] Setting up conv1
I0428 20:02:47.344751 30054 net.cpp:131] Top shape: 100 100 8 8 (640000)
I0428 20:02:47.344763 30054 net.cpp:139] Memory required for data: 5754800
I0428 20:02:47.344770 30054 layer_factory.hpp:77] Creating layer pool1
I0428 20:02:47.344776 30054 net.cpp:86] Creating Layer pool1
I0428 20:02:47.344790 30054 net.cpp:408] pool1 <- conv1
I0428 20:02:47.344801 30054 net.cpp:382] pool1 -> pool1
I0428 20:02:47.344857 30054 net.cpp:124] Setting up pool1
I0428 20:02:47.344864 30054 net.cpp:131] Top shape: 100 100 4 4 (160000)
I0428 20:02:47.344867 30054 net.cpp:139] Memory required for data: 6394800
I0428 20:02:47.344871 30054 layer_factory.hpp:77] Creating layer ip1
I0428 20:02:47.344877 30054 net.cpp:86] Creating Layer ip1
I0428 20:02:47.344880 30054 net.cpp:408] ip1 <- pool1
I0428 20:02:47.344884 30054 net.cpp:382] ip1 -> ip1
I0428 20:02:47.345080 30054 net.cpp:124] Setting up ip1
I0428 20:02:47.345088 30054 net.cpp:131] Top shape: 100 10 (1000)
I0428 20:02:47.345091 30054 net.cpp:139] Memory required for data: 6398800
I0428 20:02:47.345098 30054 layer_factory.hpp:77] Creating layer relu1
I0428 20:02:47.345104 30054 net.cpp:86] Creating Layer relu1
I0428 20:02:47.345108 30054 net.cpp:408] relu1 <- ip1
I0428 20:02:47.345127 30054 net.cpp:369] relu1 -> ip1 (in-place)
I0428 20:02:47.345983 30054 net.cpp:124] Setting up relu1
I0428 20:02:47.345995 30054 net.cpp:131] Top shape: 100 10 (1000)
I0428 20:02:47.345999 30054 net.cpp:139] Memory required for data: 6402800
I0428 20:02:47.346001 30054 layer_factory.hpp:77] Creating layer ip1_relu1_0_split
I0428 20:02:47.346007 30054 net.cpp:86] Creating Layer ip1_relu1_0_split
I0428 20:02:47.346010 30054 net.cpp:408] ip1_relu1_0_split <- ip1
I0428 20:02:47.346026 30054 net.cpp:382] ip1_relu1_0_split -> ip1_relu1_0_split_0
I0428 20:02:47.346032 30054 net.cpp:382] ip1_relu1_0_split -> ip1_relu1_0_split_1
I0428 20:02:47.346071 30054 net.cpp:124] Setting up ip1_relu1_0_split
I0428 20:02:47.346077 30054 net.cpp:131] Top shape: 100 10 (1000)
I0428 20:02:47.346081 30054 net.cpp:131] Top shape: 100 10 (1000)
I0428 20:02:47.346083 30054 net.cpp:139] Memory required for data: 6410800
I0428 20:02:47.346086 30054 layer_factory.hpp:77] Creating layer accuracy
I0428 20:02:47.346091 30054 net.cpp:86] Creating Layer accuracy
I0428 20:02:47.346101 30054 net.cpp:408] accuracy <- ip1_relu1_0_split_0
I0428 20:02:47.346109 30054 net.cpp:408] accuracy <- label_mnist_1_split_0
I0428 20:02:47.346113 30054 net.cpp:382] accuracy -> accuracy
…
