…
I0428 19:57:45.517236 28798 net.cpp:296] The NetState phase (0) differed from the phase (1) specified by a rule in layer mnist
I0428 19:57:45.517256 28798 net.cpp:296] The NetState phase (0) differed from the phase (1) specified by a rule in layer accuracy
I0428 19:57:45.517361 28798 net.cpp:53] Initializing net from parameters: 
name: "LeNet"
state {
  phase: TRAIN
  level: 0
  stage: ""
}
layer {
  name: "mnist"
  type: "Data"
  top: "data"
  top: "label"
  include {
    phase: TRAIN
  }
  transform_param {
    scale: 0.00390625
  }
  data_param {
    source: "examples/mnist/mnist_train_lmdb"
    batch_size: 64
    backend: LMDB
  }
}
layer {
  name: "conv0"
  type: "Convolution"
  bottom: "data"
  top: "conv0"
  param {
    lr_mult: 1
  }
  param {
    lr_mult: 2
  }
  convolution_param {
    num_output: 10
    kernel_size: 5
    stride: 1
    weight_filler {
      type: "xavier"
    }
    bias_filler {
      type: "constant"
    }
  }
}
layer {
  name: "pool0"
  type: "Pooling"
  bottom: "conv0"
  top: "pool0"
  pooling_param {
    pool: MAX
    kernel_size: 2
    stride: 2
  }
}
layer {
  name: "conv1"
  type: "Convolution"
  bottom: "pool0"
  top: "conv1"
  param {
    lr_mult: 1
  }
  param {
    lr_mult: 2
  }
  convolution_param {
    num_output: 5
    kernel_size: 5
    stride: 1
    weight_filler {
      type: "xavier"
    }
    bias_filler {
      type: "constant"
    }
  }
}
layer {
  name: "pool1"
  type: "Pooling"
  bottom: "conv1"
  top: "pool1"
  pooling_param {
    pool: MAX
    kernel_size: 2
    stride: 2
  }
}
layer {
  name: "ip1"
  type: "InnerProduct"
  bottom: "pool1"
  top: "ip1"
  param {
    lr_mult: 1
  }
  param {
    lr_mult: 2
  }
  inner_product_param {
    num_output: 10
    weight_filler {
      type: "xavier"
    }
    bias_filler {
      type: "constant"
    }
  }
}
layer {
  name: "relu1"
  type: "ReLU"
  bottom: "ip1"
  top: "ip1"
}
layer {
  name: "ip2"
  type: "InnerProduct"
  bottom: "ip1"
  top: "ip2"
  param {
    lr_mult: 1
  }
  param {
    lr_mult: 2
  }
  inner_product_param {
    num_output: 50
    weight_filler {
      type: "xavier"
    }
    bias_filler {
      type: "constant"
    }
  }
}
layer {
  name: "relu2"
  type: "ReLU"
  bottom: "ip2"
  top: "ip2"
}
layer {
  name: "ip3"
  type: "InnerProduct"
  bottom: "ip2"
  top: "ip3"
  param {
    lr_mult: 1
  }
  param {
    lr_mult: 2
  }
  inner_product_param {
    num_output: 10
    weight_filler {
      type: "xavier"
    }
    bias_filler {
      type: "constant"
    }
  }
}
layer {
  name: "relu3"
  type: "ReLU"
  bottom: "ip3"
  top: "ip3"
}
layer {
  name: "loss"
  type: "SoftmaxWithLoss"
  bottom: "ip3"
  bottom: "label"
  top: "loss"
}
I0428 19:57:45.517442 28798 layer_factory.hpp:77] Creating layer mnist
I0428 19:57:45.517540 28798 db_lmdb.cpp:35] Opened lmdb examples/mnist/mnist_train_lmdb
I0428 19:57:45.517565 28798 net.cpp:86] Creating Layer mnist
I0428 19:57:45.517573 28798 net.cpp:382] mnist -> data
I0428 19:57:45.517596 28798 net.cpp:382] mnist -> label
I0428 19:57:45.518693 28798 data_layer.cpp:45] output data size: 64,1,28,28
I0428 19:57:45.521159 28798 net.cpp:124] Setting up mnist
I0428 19:57:45.521176 28798 net.cpp:131] Top shape: 64 1 28 28 (50176)
I0428 19:57:45.521183 28798 net.cpp:131] Top shape: 64 (64)
I0428 19:57:45.521186 28798 net.cpp:139] Memory required for data: 200960
I0428 19:57:45.521193 28798 layer_factory.hpp:77] Creating layer conv0
I0428 19:57:45.521234 28798 net.cpp:86] Creating Layer conv0
I0428 19:57:45.521261 28798 net.cpp:408] conv0 <- data
I0428 19:57:45.521275 28798 net.cpp:382] conv0 -> conv0
I0428 19:57:45.812914 28798 net.cpp:124] Setting up conv0
I0428 19:57:45.812945 28798 net.cpp:131] Top shape: 64 10 24 24 (368640)
I0428 19:57:45.812952 28798 net.cpp:139] Memory required for data: 1675520
I0428 19:57:45.812970 28798 layer_factory.hpp:77] Creating layer pool0
I0428 19:57:45.812984 28798 net.cpp:86] Creating Layer pool0
I0428 19:57:45.812989 28798 net.cpp:408] pool0 <- conv0
I0428 19:57:45.812996 28798 net.cpp:382] pool0 -> pool0
I0428 19:57:45.813053 28798 net.cpp:124] Setting up pool0
I0428 19:57:45.813063 28798 net.cpp:131] Top shape: 64 10 12 12 (92160)
I0428 19:57:45.813067 28798 net.cpp:139] Memory required for data: 2044160
I0428 19:57:45.813071 28798 layer_factory.hpp:77] Creating layer conv1
I0428 19:57:45.813084 28798 net.cpp:86] Creating Layer conv1
I0428 19:57:45.813088 28798 net.cpp:408] conv1 <- pool0
I0428 19:57:45.813094 28798 net.cpp:382] conv1 -> conv1
I0428 19:57:45.816231 28798 net.cpp:124] Setting up conv1
I0428 19:57:45.816248 28798 net.cpp:131] Top shape: 64 5 8 8 (20480)
I0428 19:57:45.816252 28798 net.cpp:139] Memory required for data: 2126080
I0428 19:57:45.816263 28798 layer_factory.hpp:77] Creating layer pool1
I0428 19:57:45.816272 28798 net.cpp:86] Creating Layer pool1
I0428 19:57:45.816278 28798 net.cpp:408] pool1 <- conv1
I0428 19:57:45.816284 28798 net.cpp:382] pool1 -> pool1
I0428 19:57:45.816329 28798 net.cpp:124] Setting up pool1
I0428 19:57:45.816335 28798 net.cpp:131] Top shape: 64 5 4 4 (5120)
I0428 19:57:45.816339 28798 net.cpp:139] Memory required for data: 2146560
I0428 19:57:45.816344 28798 layer_factory.hpp:77] Creating layer ip1
I0428 19:57:45.816351 28798 net.cpp:86] Creating Layer ip1
I0428 19:57:45.816355 28798 net.cpp:408] ip1 <- pool1
I0428 19:57:45.816364 28798 net.cpp:382] ip1 -> ip1
I0428 19:57:45.816488 28798 net.cpp:124] Setting up ip1
I0428 19:57:45.816498 28798 net.cpp:131] Top shape: 64 10 (640)
I0428 19:57:45.816501 28798 net.cpp:139] Memory required for data: 2149120
I0428 19:57:45.816510 28798 layer_factory.hpp:77] Creating layer relu1
I0428 19:57:45.816517 28798 net.cpp:86] Creating Layer relu1
I0428 19:57:45.816524 28798 net.cpp:408] relu1 <- ip1
I0428 19:57:45.816529 28798 net.cpp:369] relu1 -> ip1 (in-place)
I0428 19:57:45.816740 28798 net.cpp:124] Setting up relu1
I0428 19:57:45.816751 28798 net.cpp:131] Top shape: 64 10 (640)
I0428 19:57:45.816754 28798 net.cpp:139] Memory required for data: 2151680
I0428 19:57:45.816758 28798 layer_factory.hpp:77] Creating layer ip2
I0428 19:57:45.816768 28798 net.cpp:86] Creating Layer ip2
I0428 19:57:45.816772 28798 net.cpp:408] ip2 <- ip1
I0428 19:57:45.816777 28798 net.cpp:382] ip2 -> ip2
I0428 19:57:45.816915 28798 net.cpp:124] Setting up ip2
I0428 19:57:45.816926 28798 net.cpp:131] Top shape: 64 50 (3200)
I0428 19:57:45.816929 28798 net.cpp:139] Memory required for data: 2164480
I0428 19:57:45.816936 28798 layer_factory.hpp:77] Creating layer relu2
I0428 19:57:45.816946 28798 net.cpp:86] Creating Layer relu2
I0428 19:57:45.816949 28798 net.cpp:408] relu2 <- ip2
I0428 19:57:45.816954 28798 net.cpp:369] relu2 -> ip2 (in-place)
I0428 19:57:45.817814 28798 net.cpp:124] Setting up relu2
I0428 19:57:45.817829 28798 net.cpp:131] Top shape: 64 50 (3200)
I0428 19:57:45.817834 28798 net.cpp:139] Memory required for data: 2177280
I0428 19:57:45.817837 28798 layer_factory.hpp:77] Creating layer ip3
I0428 19:57:45.817847 28798 net.cpp:86] Creating Layer ip3
I0428 19:57:45.817852 28798 net.cpp:408] ip3 <- ip2
I0428 19:57:45.817859 28798 net.cpp:382] ip3 -> ip3
I0428 19:57:45.817988 28798 net.cpp:124] Setting up ip3
I0428 19:57:45.817999 28798 net.cpp:131] Top shape: 64 10 (640)
I0428 19:57:45.818003 28798 net.cpp:139] Memory required for data: 2179840
I0428 19:57:45.818012 28798 layer_factory.hpp:77] Creating layer relu3
I0428 19:57:45.818019 28798 net.cpp:86] Creating Layer relu3
I0428 19:57:45.818022 28798 net.cpp:408] relu3 <- ip3
I0428 19:57:45.818027 28798 net.cpp:369] relu3 -> ip3 (in-place)
I0428 19:57:45.818238 28798 net.cpp:124] Setting up relu3
I0428 19:57:45.818249 28798 net.cpp:131] Top shape: 64 10 (640)
I0428 19:57:45.818253 28798 net.cpp:139] Memory required for data: 2182400
I0428 19:57:45.818256 28798 layer_factory.hpp:77] Creating layer loss
I0428 19:57:45.818264 28798 net.cpp:86] Creating Layer loss
I0428 19:57:45.818267 28798 net.cpp:408] loss <- ip3
I0428 19:57:45.818271 28798 net.cpp:408] loss <- label
I0428 19:57:45.818281 28798 net.cpp:382] loss -> loss
I0428 19:57:45.818300 28798 layer_factory.hpp:77] Creating layer loss
…
I0428 19:57:45.819073 28798 solver.cpp:173] Creating test net (#0) specified by net file: ECE595/mnist/train_test/var_everything2/lenet_train_test798.prototxt
I0428 19:57:45.819106 28798 net.cpp:296] The NetState phase (1) differed from the phase (0) specified by a rule in layer mnist
I0428 19:57:45.819217 28798 net.cpp:53] Initializing net from parameters: 
name: "LeNet"
state {
  phase: TEST
}
layer {
  name: "mnist"
  type: "Data"
  top: "data"
  top: "label"
  include {
    phase: TEST
  }
  transform_param {
    scale: 0.00390625
  }
  data_param {
    source: "examples/mnist/mnist_test_lmdb"
    batch_size: 100
    backend: LMDB
  }
}
layer {
  name: "conv0"
  type: "Convolution"
  bottom: "data"
  top: "conv0"
  param {
    lr_mult: 1
  }
  param {
    lr_mult: 2
  }
  convolution_param {
    num_output: 10
    kernel_size: 5
    stride: 1
    weight_filler {
      type: "xavier"
    }
    bias_filler {
      type: "constant"
    }
  }
}
layer {
  name: "pool0"
  type: "Pooling"
  bottom: "conv0"
  top: "pool0"
  pooling_param {
    pool: MAX
    kernel_size: 2
    stride: 2
  }
}
layer {
  name: "conv1"
  type: "Convolution"
  bottom: "pool0"
  top: "conv1"
  param {
    lr_mult: 1
  }
  param {
    lr_mult: 2
  }
  convolution_param {
    num_output: 5
    kernel_size: 5
    stride: 1
    weight_filler {
      type: "xavier"
    }
    bias_filler {
      type: "constant"
    }
  }
}
layer {
  name: "pool1"
  type: "Pooling"
  bottom: "conv1"
  top: "pool1"
  pooling_param {
    pool: MAX
    kernel_size: 2
    stride: 2
  }
}
layer {
  name: "ip1"
  type: "InnerProduct"
  bottom: "pool1"
  top: "ip1"
  param {
    lr_mult: 1
  }
  param {
    lr_mult: 2
  }
  inner_product_param {
    num_output: 10
    weight_filler {
      type: "xavier"
    }
    bias_filler {
      type: "constant"
    }
  }
}
layer {
  name: "relu1"
  type: "ReLU"
  bottom: "ip1"
  top: "ip1"
}
layer {
  name: "ip2"
  type: "InnerProduct"
  bottom: "ip1"
  top: "ip2"
  param {
    lr_mult: 1
  }
  param {
    lr_mult: 2
  }
  inner_product_param {
    num_output: 50
    weight_filler {
      type: "xavier"
    }
    bias_filler {
      type: "constant"
    }
  }
}
layer {
  name: "relu2"
  type: "ReLU"
  bottom: "ip2"
  top: "ip2"
}
layer {
  name: "ip3"
  type: "InnerProduct"
  bottom: "ip2"
  top: "ip3"
  param {
    lr_mult: 1
  }
  param {
    lr_mult: 2
  }
  inner_product_param {
    num_output: 10
    weight_filler {
      type: "xavier"
    }
    bias_filler {
      type: "constant"
    }
  }
}
layer {
  name: "relu3"
  type: "ReLU"
  bottom: "ip3"
  top: "ip3"
}
layer {
  name: "accuracy"
  type: "Accuracy"
  bottom: "ip3"
  bottom: "label"
  top: "accuracy"
  include {
    phase: TEST
  }
}
layer {
  name: "loss"
  type: "SoftmaxWithLoss"
  bottom: "ip3"
  bottom: "label"
  top: "loss"
}
I0428 19:57:45.819315 28798 layer_factory.hpp:77] Creating layer mnist
I0428 19:57:45.819368 28798 db_lmdb.cpp:35] Opened lmdb examples/mnist/mnist_test_lmdb
I0428 19:57:45.819382 28798 net.cpp:86] Creating Layer mnist
I0428 19:57:45.819389 28798 net.cpp:382] mnist -> data
I0428 19:57:45.819398 28798 net.cpp:382] mnist -> label
I0428 19:57:45.819504 28798 data_layer.cpp:45] output data size: 100,1,28,28
I0428 19:57:45.821946 28798 net.cpp:124] Setting up mnist
I0428 19:57:45.821964 28798 net.cpp:131] Top shape: 100 1 28 28 (78400)
I0428 19:57:45.821983 28798 net.cpp:131] Top shape: 100 (100)
I0428 19:57:45.821987 28798 net.cpp:139] Memory required for data: 314000
I0428 19:57:45.821992 28798 layer_factory.hpp:77] Creating layer label_mnist_1_split
I0428 19:57:45.822000 28798 net.cpp:86] Creating Layer label_mnist_1_split
I0428 19:57:45.822005 28798 net.cpp:408] label_mnist_1_split <- label
I0428 19:57:45.822010 28798 net.cpp:382] label_mnist_1_split -> label_mnist_1_split_0
I0428 19:57:45.822017 28798 net.cpp:382] label_mnist_1_split -> label_mnist_1_split_1
I0428 19:57:45.822109 28798 net.cpp:124] Setting up label_mnist_1_split
I0428 19:57:45.822119 28798 net.cpp:131] Top shape: 100 (100)
I0428 19:57:45.822124 28798 net.cpp:131] Top shape: 100 (100)
I0428 19:57:45.822127 28798 net.cpp:139] Memory required for data: 314800
I0428 19:57:45.822131 28798 layer_factory.hpp:77] Creating layer conv0
I0428 19:57:45.822142 28798 net.cpp:86] Creating Layer conv0
I0428 19:57:45.822146 28798 net.cpp:408] conv0 <- data
I0428 19:57:45.822154 28798 net.cpp:382] conv0 -> conv0
I0428 19:57:45.824066 28798 net.cpp:124] Setting up conv0
I0428 19:57:45.824084 28798 net.cpp:131] Top shape: 100 10 24 24 (576000)
I0428 19:57:45.824087 28798 net.cpp:139] Memory required for data: 2618800
I0428 19:57:45.824098 28798 layer_factory.hpp:77] Creating layer pool0
I0428 19:57:45.824108 28798 net.cpp:86] Creating Layer pool0
I0428 19:57:45.824113 28798 net.cpp:408] pool0 <- conv0
I0428 19:57:45.824118 28798 net.cpp:382] pool0 -> pool0
I0428 19:57:45.824163 28798 net.cpp:124] Setting up pool0
I0428 19:57:45.824170 28798 net.cpp:131] Top shape: 100 10 12 12 (144000)
I0428 19:57:45.824174 28798 net.cpp:139] Memory required for data: 3194800
I0428 19:57:45.824177 28798 layer_factory.hpp:77] Creating layer conv1
I0428 19:57:45.824188 28798 net.cpp:86] Creating Layer conv1
I0428 19:57:45.824193 28798 net.cpp:408] conv1 <- pool0
I0428 19:57:45.824200 28798 net.cpp:382] conv1 -> conv1
I0428 19:57:45.826581 28798 net.cpp:124] Setting up conv1
I0428 19:57:45.826596 28798 net.cpp:131] Top shape: 100 5 8 8 (32000)
I0428 19:57:45.826601 28798 net.cpp:139] Memory required for data: 3322800
I0428 19:57:45.826611 28798 layer_factory.hpp:77] Creating layer pool1
I0428 19:57:45.826620 28798 net.cpp:86] Creating Layer pool1
I0428 19:57:45.826625 28798 net.cpp:408] pool1 <- conv1
I0428 19:57:45.826632 28798 net.cpp:382] pool1 -> pool1
I0428 19:57:45.826685 28798 net.cpp:124] Setting up pool1
I0428 19:57:45.826692 28798 net.cpp:131] Top shape: 100 5 4 4 (8000)
I0428 19:57:45.826695 28798 net.cpp:139] Memory required for data: 3354800
I0428 19:57:45.826699 28798 layer_factory.hpp:77] Creating layer ip1
I0428 19:57:45.826707 28798 net.cpp:86] Creating Layer ip1
I0428 19:57:45.826711 28798 net.cpp:408] ip1 <- pool1
I0428 19:57:45.826717 28798 net.cpp:382] ip1 -> ip1
I0428 19:57:45.826864 28798 net.cpp:124] Setting up ip1
I0428 19:57:45.826874 28798 net.cpp:131] Top shape: 100 10 (1000)
I0428 19:57:45.826890 28798 net.cpp:139] Memory required for data: 3358800
I0428 19:57:45.826901 28798 layer_factory.hpp:77] Creating layer relu1
I0428 19:57:45.826910 28798 net.cpp:86] Creating Layer relu1
I0428 19:57:45.826915 28798 net.cpp:408] relu1 <- ip1
I0428 19:57:45.826920 28798 net.cpp:369] relu1 -> ip1 (in-place)
I0428 19:57:45.827126 28798 net.cpp:124] Setting up relu1
I0428 19:57:45.827137 28798 net.cpp:131] Top shape: 100 10 (1000)
I0428 19:57:45.827142 28798 net.cpp:139] Memory required for data: 3362800
I0428 19:57:45.827145 28798 layer_factory.hpp:77] Creating layer ip2
I0428 19:57:45.827157 28798 net.cpp:86] Creating Layer ip2
I0428 19:57:45.827160 28798 net.cpp:408] ip2 <- ip1
I0428 19:57:45.827167 28798 net.cpp:382] ip2 -> ip2
I0428 19:57:45.827294 28798 net.cpp:124] Setting up ip2
I0428 19:57:45.827303 28798 net.cpp:131] Top shape: 100 50 (5000)
I0428 19:57:45.827307 28798 net.cpp:139] Memory required for data: 3382800
I0428 19:57:45.827313 28798 layer_factory.hpp:77] Creating layer relu2
I0428 19:57:45.827320 28798 net.cpp:86] Creating Layer relu2
I0428 19:57:45.827324 28798 net.cpp:408] relu2 <- ip2
I0428 19:57:45.827328 28798 net.cpp:369] relu2 -> ip2 (in-place)
I0428 19:57:45.827513 28798 net.cpp:124] Setting up relu2
I0428 19:57:45.827523 28798 net.cpp:131] Top shape: 100 50 (5000)
I0428 19:57:45.827527 28798 net.cpp:139] Memory required for data: 3402800
I0428 19:57:45.827530 28798 layer_factory.hpp:77] Creating layer ip3
I0428 19:57:45.827536 28798 net.cpp:86] Creating Layer ip3
I0428 19:57:45.827540 28798 net.cpp:408] ip3 <- ip2
I0428 19:57:45.827546 28798 net.cpp:382] ip3 -> ip3
I0428 19:57:45.827700 28798 net.cpp:124] Setting up ip3
I0428 19:57:45.827711 28798 net.cpp:131] Top shape: 100 10 (1000)
I0428 19:57:45.827715 28798 net.cpp:139] Memory required for data: 3406800
I0428 19:57:45.827724 28798 layer_factory.hpp:77] Creating layer relu3
I0428 19:57:45.827730 28798 net.cpp:86] Creating Layer relu3
I0428 19:57:45.827734 28798 net.cpp:408] relu3 <- ip3
I0428 19:57:45.827740 28798 net.cpp:369] relu3 -> ip3 (in-place)
I0428 19:57:45.828644 28798 net.cpp:124] Setting up relu3
I0428 19:57:45.828658 28798 net.cpp:131] Top shape: 100 10 (1000)
I0428 19:57:45.828663 28798 net.cpp:139] Memory required for data: 3410800
I0428 19:57:45.828668 28798 layer_factory.hpp:77] Creating layer ip3_relu3_0_split
I0428 19:57:45.828675 28798 net.cpp:86] Creating Layer ip3_relu3_0_split
I0428 19:57:45.828678 28798 net.cpp:408] ip3_relu3_0_split <- ip3
I0428 19:57:45.828686 28798 net.cpp:382] ip3_relu3_0_split -> ip3_relu3_0_split_0
I0428 19:57:45.828694 28798 net.cpp:382] ip3_relu3_0_split -> ip3_relu3_0_split_1
I0428 19:57:45.828740 28798 net.cpp:124] Setting up ip3_relu3_0_split
I0428 19:57:45.828747 28798 net.cpp:131] Top shape: 100 10 (1000)
I0428 19:57:45.828752 28798 net.cpp:131] Top shape: 100 10 (1000)
I0428 19:57:45.828755 28798 net.cpp:139] Memory required for data: 3418800
I0428 19:57:45.828759 28798 layer_factory.hpp:77] Creating layer accuracy
I0428 19:57:45.828766 28798 net.cpp:86] Creating Layer accuracy
I0428 19:57:45.828774 28798 net.cpp:408] accuracy <- ip3_relu3_0_split_0
I0428 19:57:45.828779 28798 net.cpp:408] accuracy <- label_mnist_1_split_0
I0428 19:57:45.828786 28798 net.cpp:382] accuracy -> accuracy
…
