…
I0428 20:05:42.643368 30675 net.cpp:296] The NetState phase (0) differed from the phase (1) specified by a rule in layer mnist
I0428 20:05:42.643394 30675 net.cpp:296] The NetState phase (0) differed from the phase (1) specified by a rule in layer accuracy
I0428 20:05:42.643539 30675 net.cpp:53] Initializing net from parameters: 
name: "LeNet"
state {
  phase: TRAIN
  level: 0
  stage: ""
}
layer {
  name: "mnist"
  type: "Data"
  top: "data"
  top: "label"
  include {
    phase: TRAIN
  }
  transform_param {
    scale: 0.00390625
  }
  data_param {
    source: "examples/mnist/mnist_train_lmdb"
    batch_size: 64
    backend: LMDB
  }
}
layer {
  name: "conv0"
  type: "Convolution"
  bottom: "data"
  top: "conv0"
  param {
    lr_mult: 1
  }
  param {
    lr_mult: 2
  }
  convolution_param {
    num_output: 25
    kernel_size: 5
    stride: 1
    weight_filler {
      type: "xavier"
    }
    bias_filler {
      type: "constant"
    }
  }
}
layer {
  name: "pool0"
  type: "Pooling"
  bottom: "conv0"
  top: "pool0"
  pooling_param {
    pool: MAX
    kernel_size: 2
    stride: 2
  }
}
layer {
  name: "conv1"
  type: "Convolution"
  bottom: "pool0"
  top: "conv1"
  param {
    lr_mult: 1
  }
  param {
    lr_mult: 2
  }
  convolution_param {
    num_output: 2
    kernel_size: 5
    stride: 1
    weight_filler {
      type: "xavier"
    }
    bias_filler {
      type: "constant"
    }
  }
}
layer {
  name: "pool1"
  type: "Pooling"
  bottom: "conv1"
  top: "pool1"
  pooling_param {
    pool: MAX
    kernel_size: 2
    stride: 2
  }
}
layer {
  name: "ip1"
  type: "InnerProduct"
  bottom: "pool1"
  top: "ip1"
  param {
    lr_mult: 1
  }
  param {
    lr_mult: 2
  }
  inner_product_param {
    num_output: 50
    weight_filler {
      type: "xavier"
    }
    bias_filler {
      type: "constant"
    }
  }
}
layer {
  name: "relu1"
  type: "ReLU"
  bottom: "ip1"
  top: "ip1"
}
layer {
  name: "ip2"
  type: "InnerProduct"
  bottom: "ip1"
  top: "ip2"
  param {
    lr_mult: 1
  }
  param {
    lr_mult: 2
  }
  inner_product_param {
    num_output: 10
    weight_filler {
      type: "xavier"
    }
    bias_filler {
      type: "constant"
    }
  }
}
layer {
  name: "relu2"
  type: "ReLU"
  bottom: "ip2"
  top: "ip2"
}
layer {
  name: "ip3"
  type: "InnerProduct"
  bottom: "ip2"
  top: "ip3"
  param {
    lr_mult: 1
  }
  param {
    lr_mult: 2
  }
  inner_product_param {
    num_output: 10
    weight_filler {
      type: "xavier"
    }
    bias_filler {
      type: "constant"
    }
  }
}
layer {
  name: "relu3"
  type: "ReLU"
  bottom: "ip3"
  top: "ip3"
}
layer {
  name: "loss"
  type: "SoftmaxWithLoss"
  bottom: "ip3"
  bottom: "label"
  top: "loss"
}
I0428 20:05:42.643646 30675 layer_factory.hpp:77] Creating layer mnist
I0428 20:05:42.643764 30675 db_lmdb.cpp:35] Opened lmdb examples/mnist/mnist_train_lmdb
I0428 20:05:42.643795 30675 net.cpp:86] Creating Layer mnist
I0428 20:05:42.643805 30675 net.cpp:382] mnist -> data
I0428 20:05:42.643833 30675 net.cpp:382] mnist -> label
I0428 20:05:42.645246 30675 data_layer.cpp:45] output data size: 64,1,28,28
I0428 20:05:42.648478 30675 net.cpp:124] Setting up mnist
I0428 20:05:42.648500 30675 net.cpp:131] Top shape: 64 1 28 28 (50176)
I0428 20:05:42.648509 30675 net.cpp:131] Top shape: 64 (64)
I0428 20:05:42.648514 30675 net.cpp:139] Memory required for data: 200960
I0428 20:05:42.648524 30675 layer_factory.hpp:77] Creating layer conv0
I0428 20:05:42.648545 30675 net.cpp:86] Creating Layer conv0
I0428 20:05:42.648571 30675 net.cpp:408] conv0 <- data
I0428 20:05:42.648586 30675 net.cpp:382] conv0 -> conv0
I0428 20:05:42.999918 30675 net.cpp:124] Setting up conv0
I0428 20:05:42.999951 30675 net.cpp:131] Top shape: 64 25 24 24 (921600)
I0428 20:05:42.999956 30675 net.cpp:139] Memory required for data: 3887360
I0428 20:05:42.999975 30675 layer_factory.hpp:77] Creating layer pool0
I0428 20:05:42.999991 30675 net.cpp:86] Creating Layer pool0
I0428 20:05:42.999996 30675 net.cpp:408] pool0 <- conv0
I0428 20:05:43.000007 30675 net.cpp:382] pool0 -> pool0
I0428 20:05:43.000063 30675 net.cpp:124] Setting up pool0
I0428 20:05:43.000072 30675 net.cpp:131] Top shape: 64 25 12 12 (230400)
I0428 20:05:43.000077 30675 net.cpp:139] Memory required for data: 4808960
I0428 20:05:43.000080 30675 layer_factory.hpp:77] Creating layer conv1
I0428 20:05:43.000094 30675 net.cpp:86] Creating Layer conv1
I0428 20:05:43.000099 30675 net.cpp:408] conv1 <- pool0
I0428 20:05:43.000107 30675 net.cpp:382] conv1 -> conv1
I0428 20:05:43.003476 30675 net.cpp:124] Setting up conv1
I0428 20:05:43.003495 30675 net.cpp:131] Top shape: 64 2 8 8 (8192)
I0428 20:05:43.003500 30675 net.cpp:139] Memory required for data: 4841728
I0428 20:05:43.003511 30675 layer_factory.hpp:77] Creating layer pool1
I0428 20:05:43.003521 30675 net.cpp:86] Creating Layer pool1
I0428 20:05:43.003525 30675 net.cpp:408] pool1 <- conv1
I0428 20:05:43.003532 30675 net.cpp:382] pool1 -> pool1
I0428 20:05:43.003578 30675 net.cpp:124] Setting up pool1
I0428 20:05:43.003587 30675 net.cpp:131] Top shape: 64 2 4 4 (2048)
I0428 20:05:43.003592 30675 net.cpp:139] Memory required for data: 4849920
I0428 20:05:43.003595 30675 layer_factory.hpp:77] Creating layer ip1
I0428 20:05:43.003604 30675 net.cpp:86] Creating Layer ip1
I0428 20:05:43.003608 30675 net.cpp:408] ip1 <- pool1
I0428 20:05:43.003615 30675 net.cpp:382] ip1 -> ip1
I0428 20:05:43.003752 30675 net.cpp:124] Setting up ip1
I0428 20:05:43.003762 30675 net.cpp:131] Top shape: 64 50 (3200)
I0428 20:05:43.003765 30675 net.cpp:139] Memory required for data: 4862720
I0428 20:05:43.003774 30675 layer_factory.hpp:77] Creating layer relu1
I0428 20:05:43.003784 30675 net.cpp:86] Creating Layer relu1
I0428 20:05:43.003788 30675 net.cpp:408] relu1 <- ip1
I0428 20:05:43.003794 30675 net.cpp:369] relu1 -> ip1 (in-place)
I0428 20:05:43.004006 30675 net.cpp:124] Setting up relu1
I0428 20:05:43.004016 30675 net.cpp:131] Top shape: 64 50 (3200)
I0428 20:05:43.004020 30675 net.cpp:139] Memory required for data: 4875520
I0428 20:05:43.004024 30675 layer_factory.hpp:77] Creating layer ip2
I0428 20:05:43.004032 30675 net.cpp:86] Creating Layer ip2
I0428 20:05:43.004036 30675 net.cpp:408] ip2 <- ip1
I0428 20:05:43.004042 30675 net.cpp:382] ip2 -> ip2
I0428 20:05:43.004174 30675 net.cpp:124] Setting up ip2
I0428 20:05:43.004182 30675 net.cpp:131] Top shape: 64 10 (640)
I0428 20:05:43.004186 30675 net.cpp:139] Memory required for data: 4878080
I0428 20:05:43.004194 30675 layer_factory.hpp:77] Creating layer relu2
I0428 20:05:43.004201 30675 net.cpp:86] Creating Layer relu2
I0428 20:05:43.004206 30675 net.cpp:408] relu2 <- ip2
I0428 20:05:43.004211 30675 net.cpp:369] relu2 -> ip2 (in-place)
I0428 20:05:43.006338 30675 net.cpp:124] Setting up relu2
I0428 20:05:43.006357 30675 net.cpp:131] Top shape: 64 10 (640)
I0428 20:05:43.006363 30675 net.cpp:139] Memory required for data: 4880640
I0428 20:05:43.006368 30675 layer_factory.hpp:77] Creating layer ip3
I0428 20:05:43.006377 30675 net.cpp:86] Creating Layer ip3
I0428 20:05:43.006382 30675 net.cpp:408] ip3 <- ip2
I0428 20:05:43.006391 30675 net.cpp:382] ip3 -> ip3
I0428 20:05:43.006525 30675 net.cpp:124] Setting up ip3
I0428 20:05:43.006534 30675 net.cpp:131] Top shape: 64 10 (640)
I0428 20:05:43.006538 30675 net.cpp:139] Memory required for data: 4883200
I0428 20:05:43.006549 30675 layer_factory.hpp:77] Creating layer relu3
I0428 20:05:43.006557 30675 net.cpp:86] Creating Layer relu3
I0428 20:05:43.006561 30675 net.cpp:408] relu3 <- ip3
I0428 20:05:43.006567 30675 net.cpp:369] relu3 -> ip3 (in-place)
I0428 20:05:43.006786 30675 net.cpp:124] Setting up relu3
I0428 20:05:43.006798 30675 net.cpp:131] Top shape: 64 10 (640)
I0428 20:05:43.006801 30675 net.cpp:139] Memory required for data: 4885760
I0428 20:05:43.006805 30675 layer_factory.hpp:77] Creating layer loss
I0428 20:05:43.006813 30675 net.cpp:86] Creating Layer loss
I0428 20:05:43.006817 30675 net.cpp:408] loss <- ip3
I0428 20:05:43.006822 30675 net.cpp:408] loss <- label
I0428 20:05:43.006829 30675 net.cpp:382] loss -> loss
I0428 20:05:43.006853 30675 layer_factory.hpp:77] Creating layer loss
…
I0428 20:05:43.007675 30675 solver.cpp:173] Creating test net (#0) specified by net file: ECE595/mnist/train_test/var_everything2/lenet_train_test1007.prototxt
I0428 20:05:43.007709 30675 net.cpp:296] The NetState phase (1) differed from the phase (0) specified by a rule in layer mnist
I0428 20:05:43.007824 30675 net.cpp:53] Initializing net from parameters: 
name: "LeNet"
state {
  phase: TEST
}
layer {
  name: "mnist"
  type: "Data"
  top: "data"
  top: "label"
  include {
    phase: TEST
  }
  transform_param {
    scale: 0.00390625
  }
  data_param {
    source: "examples/mnist/mnist_test_lmdb"
    batch_size: 100
    backend: LMDB
  }
}
layer {
  name: "conv0"
  type: "Convolution"
  bottom: "data"
  top: "conv0"
  param {
    lr_mult: 1
  }
  param {
    lr_mult: 2
  }
  convolution_param {
    num_output: 25
    kernel_size: 5
    stride: 1
    weight_filler {
      type: "xavier"
    }
    bias_filler {
      type: "constant"
    }
  }
}
layer {
  name: "pool0"
  type: "Pooling"
  bottom: "conv0"
  top: "pool0"
  pooling_param {
    pool: MAX
    kernel_size: 2
    stride: 2
  }
}
layer {
  name: "conv1"
  type: "Convolution"
  bottom: "pool0"
  top: "conv1"
  param {
    lr_mult: 1
  }
  param {
    lr_mult: 2
  }
  convolution_param {
    num_output: 2
    kernel_size: 5
    stride: 1
    weight_filler {
      type: "xavier"
    }
    bias_filler {
      type: "constant"
    }
  }
}
layer {
  name: "pool1"
  type: "Pooling"
  bottom: "conv1"
  top: "pool1"
  pooling_param {
    pool: MAX
    kernel_size: 2
    stride: 2
  }
}
layer {
  name: "ip1"
  type: "InnerProduct"
  bottom: "pool1"
  top: "ip1"
  param {
    lr_mult: 1
  }
  param {
    lr_mult: 2
  }
  inner_product_param {
    num_output: 50
    weight_filler {
      type: "xavier"
    }
    bias_filler {
      type: "constant"
    }
  }
}
layer {
  name: "relu1"
  type: "ReLU"
  bottom: "ip1"
  top: "ip1"
}
layer {
  name: "ip2"
  type: "InnerProduct"
  bottom: "ip1"
  top: "ip2"
  param {
    lr_mult: 1
  }
  param {
    lr_mult: 2
  }
  inner_product_param {
    num_output: 10
    weight_filler {
      type: "xavier"
    }
    bias_filler {
      type: "constant"
    }
  }
}
layer {
  name: "relu2"
  type: "ReLU"
  bottom: "ip2"
  top: "ip2"
}
layer {
  name: "ip3"
  type: "InnerProduct"
  bottom: "ip2"
  top: "ip3"
  param {
    lr_mult: 1
  }
  param {
    lr_mult: 2
  }
  inner_product_param {
    num_output: 10
    weight_filler {
      type: "xavier"
    }
    bias_filler {
      type: "constant"
    }
  }
}
layer {
  name: "relu3"
  type: "ReLU"
  bottom: "ip3"
  top: "ip3"
}
layer {
  name: "accuracy"
  type: "Accuracy"
  bottom: "ip3"
  bottom: "label"
  top: "accuracy"
  include {
    phase: TEST
  }
}
layer {
  name: "loss"
  type: "SoftmaxWithLoss"
  bottom: "ip3"
  bottom: "label"
  top: "loss"
}
I0428 20:05:43.007923 30675 layer_factory.hpp:77] Creating layer mnist
I0428 20:05:43.007978 30675 db_lmdb.cpp:35] Opened lmdb examples/mnist/mnist_test_lmdb
I0428 20:05:43.007993 30675 net.cpp:86] Creating Layer mnist
I0428 20:05:43.007999 30675 net.cpp:382] mnist -> data
I0428 20:05:43.008009 30675 net.cpp:382] mnist -> label
I0428 20:05:43.008124 30675 data_layer.cpp:45] output data size: 100,1,28,28
I0428 20:05:43.010713 30675 net.cpp:124] Setting up mnist
I0428 20:05:43.010730 30675 net.cpp:131] Top shape: 100 1 28 28 (78400)
I0428 20:05:43.010737 30675 net.cpp:131] Top shape: 100 (100)
I0428 20:05:43.010740 30675 net.cpp:139] Memory required for data: 314000
I0428 20:05:43.010746 30675 layer_factory.hpp:77] Creating layer label_mnist_1_split
I0428 20:05:43.010753 30675 net.cpp:86] Creating Layer label_mnist_1_split
I0428 20:05:43.010757 30675 net.cpp:408] label_mnist_1_split <- label
I0428 20:05:43.010766 30675 net.cpp:382] label_mnist_1_split -> label_mnist_1_split_0
I0428 20:05:43.010774 30675 net.cpp:382] label_mnist_1_split -> label_mnist_1_split_1
I0428 20:05:43.010857 30675 net.cpp:124] Setting up label_mnist_1_split
I0428 20:05:43.010876 30675 net.cpp:131] Top shape: 100 (100)
I0428 20:05:43.010881 30675 net.cpp:131] Top shape: 100 (100)
I0428 20:05:43.010885 30675 net.cpp:139] Memory required for data: 314800
I0428 20:05:43.010890 30675 layer_factory.hpp:77] Creating layer conv0
I0428 20:05:43.010901 30675 net.cpp:86] Creating Layer conv0
I0428 20:05:43.010907 30675 net.cpp:408] conv0 <- data
I0428 20:05:43.010915 30675 net.cpp:382] conv0 -> conv0
I0428 20:05:43.012992 30675 net.cpp:124] Setting up conv0
I0428 20:05:43.013010 30675 net.cpp:131] Top shape: 100 25 24 24 (1440000)
I0428 20:05:43.013020 30675 net.cpp:139] Memory required for data: 6074800
I0428 20:05:43.013031 30675 layer_factory.hpp:77] Creating layer pool0
I0428 20:05:43.013041 30675 net.cpp:86] Creating Layer pool0
I0428 20:05:43.013046 30675 net.cpp:408] pool0 <- conv0
I0428 20:05:43.013051 30675 net.cpp:382] pool0 -> pool0
I0428 20:05:43.013100 30675 net.cpp:124] Setting up pool0
I0428 20:05:43.013109 30675 net.cpp:131] Top shape: 100 25 12 12 (360000)
I0428 20:05:43.013113 30675 net.cpp:139] Memory required for data: 7514800
I0428 20:05:43.013118 30675 layer_factory.hpp:77] Creating layer conv1
I0428 20:05:43.013128 30675 net.cpp:86] Creating Layer conv1
I0428 20:05:43.013134 30675 net.cpp:408] conv1 <- pool0
I0428 20:05:43.013142 30675 net.cpp:382] conv1 -> conv1
I0428 20:05:43.015674 30675 net.cpp:124] Setting up conv1
I0428 20:05:43.015691 30675 net.cpp:131] Top shape: 100 2 8 8 (12800)
I0428 20:05:43.015697 30675 net.cpp:139] Memory required for data: 7566000
I0428 20:05:43.015709 30675 layer_factory.hpp:77] Creating layer pool1
I0428 20:05:43.015717 30675 net.cpp:86] Creating Layer pool1
I0428 20:05:43.015729 30675 net.cpp:408] pool1 <- conv1
I0428 20:05:43.015735 30675 net.cpp:382] pool1 -> pool1
I0428 20:05:43.015802 30675 net.cpp:124] Setting up pool1
I0428 20:05:43.015810 30675 net.cpp:131] Top shape: 100 2 4 4 (3200)
I0428 20:05:43.015815 30675 net.cpp:139] Memory required for data: 7578800
I0428 20:05:43.015818 30675 layer_factory.hpp:77] Creating layer ip1
I0428 20:05:43.015830 30675 net.cpp:86] Creating Layer ip1
I0428 20:05:43.015835 30675 net.cpp:408] ip1 <- pool1
I0428 20:05:43.015841 30675 net.cpp:382] ip1 -> ip1
I0428 20:05:43.016002 30675 net.cpp:124] Setting up ip1
I0428 20:05:43.016013 30675 net.cpp:131] Top shape: 100 50 (5000)
I0428 20:05:43.016037 30675 net.cpp:139] Memory required for data: 7598800
I0428 20:05:43.016047 30675 layer_factory.hpp:77] Creating layer relu1
I0428 20:05:43.016057 30675 net.cpp:86] Creating Layer relu1
I0428 20:05:43.016072 30675 net.cpp:408] relu1 <- ip1
I0428 20:05:43.016078 30675 net.cpp:369] relu1 -> ip1 (in-place)
I0428 20:05:43.016306 30675 net.cpp:124] Setting up relu1
I0428 20:05:43.016325 30675 net.cpp:131] Top shape: 100 50 (5000)
I0428 20:05:43.016332 30675 net.cpp:139] Memory required for data: 7618800
I0428 20:05:43.016337 30675 layer_factory.hpp:77] Creating layer ip2
I0428 20:05:43.016346 30675 net.cpp:86] Creating Layer ip2
I0428 20:05:43.016351 30675 net.cpp:408] ip2 <- ip1
I0428 20:05:43.016360 30675 net.cpp:382] ip2 -> ip2
I0428 20:05:43.016502 30675 net.cpp:124] Setting up ip2
I0428 20:05:43.016510 30675 net.cpp:131] Top shape: 100 10 (1000)
I0428 20:05:43.016515 30675 net.cpp:139] Memory required for data: 7622800
I0428 20:05:43.016522 30675 layer_factory.hpp:77] Creating layer relu2
I0428 20:05:43.016531 30675 net.cpp:86] Creating Layer relu2
I0428 20:05:43.016537 30675 net.cpp:408] relu2 <- ip2
I0428 20:05:43.016543 30675 net.cpp:369] relu2 -> ip2 (in-place)
I0428 20:05:43.016791 30675 net.cpp:124] Setting up relu2
I0428 20:05:43.016803 30675 net.cpp:131] Top shape: 100 10 (1000)
I0428 20:05:43.016806 30675 net.cpp:139] Memory required for data: 7626800
I0428 20:05:43.016819 30675 layer_factory.hpp:77] Creating layer ip3
I0428 20:05:43.016831 30675 net.cpp:86] Creating Layer ip3
I0428 20:05:43.016836 30675 net.cpp:408] ip3 <- ip2
I0428 20:05:43.016844 30675 net.cpp:382] ip3 -> ip3
I0428 20:05:43.016980 30675 net.cpp:124] Setting up ip3
I0428 20:05:43.016990 30675 net.cpp:131] Top shape: 100 10 (1000)
I0428 20:05:43.016994 30675 net.cpp:139] Memory required for data: 7630800
I0428 20:05:43.017005 30675 layer_factory.hpp:77] Creating layer relu3
I0428 20:05:43.017014 30675 net.cpp:86] Creating Layer relu3
I0428 20:05:43.017016 30675 net.cpp:408] relu3 <- ip3
I0428 20:05:43.017026 30675 net.cpp:369] relu3 -> ip3 (in-place)
I0428 20:05:43.018028 30675 net.cpp:124] Setting up relu3
I0428 20:05:43.018043 30675 net.cpp:131] Top shape: 100 10 (1000)
I0428 20:05:43.018056 30675 net.cpp:139] Memory required for data: 7634800
I0428 20:05:43.018061 30675 layer_factory.hpp:77] Creating layer ip3_relu3_0_split
I0428 20:05:43.018067 30675 net.cpp:86] Creating Layer ip3_relu3_0_split
I0428 20:05:43.018071 30675 net.cpp:408] ip3_relu3_0_split <- ip3
I0428 20:05:43.018080 30675 net.cpp:382] ip3_relu3_0_split -> ip3_relu3_0_split_0
I0428 20:05:43.018088 30675 net.cpp:382] ip3_relu3_0_split -> ip3_relu3_0_split_1
I0428 20:05:43.018136 30675 net.cpp:124] Setting up ip3_relu3_0_split
I0428 20:05:43.018146 30675 net.cpp:131] Top shape: 100 10 (1000)
I0428 20:05:43.018151 30675 net.cpp:131] Top shape: 100 10 (1000)
I0428 20:05:43.018154 30675 net.cpp:139] Memory required for data: 7642800
I0428 20:05:43.018157 30675 layer_factory.hpp:77] Creating layer accuracy
I0428 20:05:43.018170 30675 net.cpp:86] Creating Layer accuracy
I0428 20:05:43.018174 30675 net.cpp:408] accuracy <- ip3_relu3_0_split_0
I0428 20:05:43.018179 30675 net.cpp:408] accuracy <- label_mnist_1_split_0
I0428 20:05:43.018185 30675 net.cpp:382] accuracy -> accuracy
…
