…
I0428 19:32:31.718926 22857 net.cpp:296] The NetState phase (0) differed from the phase (1) specified by a rule in layer mnist
I0428 19:32:31.718943 22857 net.cpp:296] The NetState phase (0) differed from the phase (1) specified by a rule in layer accuracy
I0428 19:32:31.719033 22857 net.cpp:53] Initializing net from parameters: 
name: "LeNet"
state {
  phase: TRAIN
  level: 0
  stage: ""
}
layer {
  name: "mnist"
  type: "Data"
  top: "data"
  top: "label"
  include {
    phase: TRAIN
  }
  transform_param {
    scale: 0.00390625
  }
  data_param {
    source: "examples/mnist/mnist_train_lmdb"
    batch_size: 64
    backend: LMDB
  }
}
layer {
  name: "conv0"
  type: "Convolution"
  bottom: "data"
  top: "conv0"
  param {
    lr_mult: 1
  }
  param {
    lr_mult: 2
  }
  convolution_param {
    num_output: 10
    kernel_size: 5
    stride: 1
    weight_filler {
      type: "xavier"
    }
    bias_filler {
      type: "constant"
    }
  }
}
layer {
  name: "pool0"
  type: "Pooling"
  bottom: "conv0"
  top: "pool0"
  pooling_param {
    pool: MAX
    kernel_size: 2
    stride: 2
  }
}
layer {
  name: "ip1"
  type: "InnerProduct"
  bottom: "pool0"
  top: "ip1"
  param {
    lr_mult: 1
  }
  param {
    lr_mult: 2
  }
  inner_product_param {
    num_output: 50
    weight_filler {
      type: "xavier"
    }
    bias_filler {
      type: "constant"
    }
  }
}
layer {
  name: "relu1"
  type: "ReLU"
  bottom: "ip1"
  top: "ip1"
}
layer {
  name: "ip2"
  type: "InnerProduct"
  bottom: "ip1"
  top: "ip2"
  param {
    lr_mult: 1
  }
  param {
    lr_mult: 2
  }
  inner_product_param {
    num_output: 50
    weight_filler {
      type: "xavier"
    }
    bias_filler {
      type: "constant"
    }
  }
}
layer {
  name: "relu2"
  type: "ReLU"
  bottom: "ip2"
  top: "ip2"
}
layer {
  name: "ip3"
  type: "InnerProduct"
  bottom: "ip2"
  top: "ip3"
  param {
    lr_mult: 1
  }
  param {
    lr_mult: 2
  }
  inner_product_param {
    num_output: 10
    weight_filler {
      type: "xavier"
    }
    bias_filler {
      type: "constant"
    }
  }
}
layer {
  name: "relu3"
  type: "ReLU"
  bottom: "ip3"
  top: "ip3"
}
layer {
  name: "loss"
  type: "SoftmaxWithLoss"
  bottom: "ip3"
  bottom: "label"
  top: "loss"
}
I0428 19:32:31.719107 22857 layer_factory.hpp:77] Creating layer mnist
I0428 19:32:31.719205 22857 db_lmdb.cpp:35] Opened lmdb examples/mnist/mnist_train_lmdb
I0428 19:32:31.719228 22857 net.cpp:86] Creating Layer mnist
I0428 19:32:31.719238 22857 net.cpp:382] mnist -> data
I0428 19:32:31.719276 22857 net.cpp:382] mnist -> label
I0428 19:32:31.720367 22857 data_layer.cpp:45] output data size: 64,1,28,28
I0428 19:32:31.722836 22857 net.cpp:124] Setting up mnist
I0428 19:32:31.722853 22857 net.cpp:131] Top shape: 64 1 28 28 (50176)
I0428 19:32:31.722859 22857 net.cpp:131] Top shape: 64 (64)
I0428 19:32:31.722864 22857 net.cpp:139] Memory required for data: 200960
I0428 19:32:31.722872 22857 layer_factory.hpp:77] Creating layer conv0
I0428 19:32:31.722916 22857 net.cpp:86] Creating Layer conv0
I0428 19:32:31.722923 22857 net.cpp:408] conv0 <- data
I0428 19:32:31.722939 22857 net.cpp:382] conv0 -> conv0
I0428 19:32:32.010826 22857 net.cpp:124] Setting up conv0
I0428 19:32:32.010857 22857 net.cpp:131] Top shape: 64 10 24 24 (368640)
I0428 19:32:32.010862 22857 net.cpp:139] Memory required for data: 1675520
I0428 19:32:32.010880 22857 layer_factory.hpp:77] Creating layer pool0
I0428 19:32:32.010895 22857 net.cpp:86] Creating Layer pool0
I0428 19:32:32.010921 22857 net.cpp:408] pool0 <- conv0
I0428 19:32:32.010927 22857 net.cpp:382] pool0 -> pool0
I0428 19:32:32.010984 22857 net.cpp:124] Setting up pool0
I0428 19:32:32.010993 22857 net.cpp:131] Top shape: 64 10 12 12 (92160)
I0428 19:32:32.010998 22857 net.cpp:139] Memory required for data: 2044160
I0428 19:32:32.011001 22857 layer_factory.hpp:77] Creating layer ip1
I0428 19:32:32.011010 22857 net.cpp:86] Creating Layer ip1
I0428 19:32:32.011013 22857 net.cpp:408] ip1 <- pool0
I0428 19:32:32.011019 22857 net.cpp:382] ip1 -> ip1
I0428 19:32:32.012603 22857 net.cpp:124] Setting up ip1
I0428 19:32:32.012619 22857 net.cpp:131] Top shape: 64 50 (3200)
I0428 19:32:32.012624 22857 net.cpp:139] Memory required for data: 2056960
I0428 19:32:32.012632 22857 layer_factory.hpp:77] Creating layer relu1
I0428 19:32:32.012641 22857 net.cpp:86] Creating Layer relu1
I0428 19:32:32.012646 22857 net.cpp:408] relu1 <- ip1
I0428 19:32:32.012651 22857 net.cpp:369] relu1 -> ip1 (in-place)
I0428 19:32:32.012863 22857 net.cpp:124] Setting up relu1
I0428 19:32:32.012874 22857 net.cpp:131] Top shape: 64 50 (3200)
I0428 19:32:32.012878 22857 net.cpp:139] Memory required for data: 2069760
I0428 19:32:32.012882 22857 layer_factory.hpp:77] Creating layer ip2
I0428 19:32:32.012890 22857 net.cpp:86] Creating Layer ip2
I0428 19:32:32.012894 22857 net.cpp:408] ip2 <- ip1
I0428 19:32:32.012900 22857 net.cpp:382] ip2 -> ip2
I0428 19:32:32.014011 22857 net.cpp:124] Setting up ip2
I0428 19:32:32.014026 22857 net.cpp:131] Top shape: 64 50 (3200)
I0428 19:32:32.014030 22857 net.cpp:139] Memory required for data: 2082560
I0428 19:32:32.014040 22857 layer_factory.hpp:77] Creating layer relu2
I0428 19:32:32.014046 22857 net.cpp:86] Creating Layer relu2
I0428 19:32:32.014050 22857 net.cpp:408] relu2 <- ip2
I0428 19:32:32.014056 22857 net.cpp:369] relu2 -> ip2 (in-place)
I0428 19:32:32.014919 22857 net.cpp:124] Setting up relu2
I0428 19:32:32.014935 22857 net.cpp:131] Top shape: 64 50 (3200)
I0428 19:32:32.014938 22857 net.cpp:139] Memory required for data: 2095360
I0428 19:32:32.014943 22857 layer_factory.hpp:77] Creating layer ip3
I0428 19:32:32.014951 22857 net.cpp:86] Creating Layer ip3
I0428 19:32:32.014955 22857 net.cpp:408] ip3 <- ip2
I0428 19:32:32.014962 22857 net.cpp:382] ip3 -> ip3
I0428 19:32:32.015084 22857 net.cpp:124] Setting up ip3
I0428 19:32:32.015094 22857 net.cpp:131] Top shape: 64 10 (640)
I0428 19:32:32.015096 22857 net.cpp:139] Memory required for data: 2097920
I0428 19:32:32.015103 22857 layer_factory.hpp:77] Creating layer relu3
I0428 19:32:32.015111 22857 net.cpp:86] Creating Layer relu3
I0428 19:32:32.015115 22857 net.cpp:408] relu3 <- ip3
I0428 19:32:32.015121 22857 net.cpp:369] relu3 -> ip3 (in-place)
I0428 19:32:32.015297 22857 net.cpp:124] Setting up relu3
I0428 19:32:32.015306 22857 net.cpp:131] Top shape: 64 10 (640)
I0428 19:32:32.015311 22857 net.cpp:139] Memory required for data: 2100480
I0428 19:32:32.015314 22857 layer_factory.hpp:77] Creating layer loss
I0428 19:32:32.015321 22857 net.cpp:86] Creating Layer loss
I0428 19:32:32.015326 22857 net.cpp:408] loss <- ip3
I0428 19:32:32.015331 22857 net.cpp:408] loss <- label
I0428 19:32:32.015336 22857 net.cpp:382] loss -> loss
I0428 19:32:32.015357 22857 layer_factory.hpp:77] Creating layer loss
…
I0428 19:32:32.016062 22857 solver.cpp:173] Creating test net (#0) specified by net file: ECE595/mnist/train_test/var_everything2/lenet_train_test155.prototxt
I0428 19:32:32.016093 22857 net.cpp:296] The NetState phase (1) differed from the phase (0) specified by a rule in layer mnist
I0428 19:32:32.016188 22857 net.cpp:53] Initializing net from parameters: 
name: "LeNet"
state {
  phase: TEST
}
layer {
  name: "mnist"
  type: "Data"
  top: "data"
  top: "label"
  include {
    phase: TEST
  }
  transform_param {
    scale: 0.00390625
  }
  data_param {
    source: "examples/mnist/mnist_test_lmdb"
    batch_size: 100
    backend: LMDB
  }
}
layer {
  name: "conv0"
  type: "Convolution"
  bottom: "data"
  top: "conv0"
  param {
    lr_mult: 1
  }
  param {
    lr_mult: 2
  }
  convolution_param {
    num_output: 10
    kernel_size: 5
    stride: 1
    weight_filler {
      type: "xavier"
    }
    bias_filler {
      type: "constant"
    }
  }
}
layer {
  name: "pool0"
  type: "Pooling"
  bottom: "conv0"
  top: "pool0"
  pooling_param {
    pool: MAX
    kernel_size: 2
    stride: 2
  }
}
layer {
  name: "ip1"
  type: "InnerProduct"
  bottom: "pool0"
  top: "ip1"
  param {
    lr_mult: 1
  }
  param {
    lr_mult: 2
  }
  inner_product_param {
    num_output: 50
    weight_filler {
      type: "xavier"
    }
    bias_filler {
      type: "constant"
    }
  }
}
layer {
  name: "relu1"
  type: "ReLU"
  bottom: "ip1"
  top: "ip1"
}
layer {
  name: "ip2"
  type: "InnerProduct"
  bottom: "ip1"
  top: "ip2"
  param {
    lr_mult: 1
  }
  param {
    lr_mult: 2
  }
  inner_product_param {
    num_output: 50
    weight_filler {
      type: "xavier"
    }
    bias_filler {
      type: "constant"
    }
  }
}
layer {
  name: "relu2"
  type: "ReLU"
  bottom: "ip2"
  top: "ip2"
}
layer {
  name: "ip3"
  type: "InnerProduct"
  bottom: "ip2"
  top: "ip3"
  param {
    lr_mult: 1
  }
  param {
    lr_mult: 2
  }
  inner_product_param {
    num_output: 10
    weight_filler {
      type: "xavier"
    }
    bias_filler {
      type: "constant"
    }
  }
}
layer {
  name: "relu3"
  type: "ReLU"
  bottom: "ip3"
  top: "ip3"
}
layer {
  name: "accuracy"
  type: "Accuracy"
  bottom: "ip3"
  bottom: "label"
  top: "accuracy"
  include {
    phase: TEST
  }
}
layer {
  name: "loss"
  type: "SoftmaxWithLoss"
  bottom: "ip3"
  bottom: "label"
  top: "loss"
}
I0428 19:32:32.016263 22857 layer_factory.hpp:77] Creating layer mnist
I0428 19:32:32.016314 22857 db_lmdb.cpp:35] Opened lmdb examples/mnist/mnist_test_lmdb
I0428 19:32:32.016327 22857 net.cpp:86] Creating Layer mnist
I0428 19:32:32.016333 22857 net.cpp:382] mnist -> data
I0428 19:32:32.016342 22857 net.cpp:382] mnist -> label
I0428 19:32:32.016443 22857 data_layer.cpp:45] output data size: 100,1,28,28
I0428 19:32:32.017915 22857 net.cpp:124] Setting up mnist
I0428 19:32:32.017931 22857 net.cpp:131] Top shape: 100 1 28 28 (78400)
I0428 19:32:32.017937 22857 net.cpp:131] Top shape: 100 (100)
I0428 19:32:32.017941 22857 net.cpp:139] Memory required for data: 314000
I0428 19:32:32.017946 22857 layer_factory.hpp:77] Creating layer label_mnist_1_split
I0428 19:32:32.017958 22857 net.cpp:86] Creating Layer label_mnist_1_split
I0428 19:32:32.017962 22857 net.cpp:408] label_mnist_1_split <- label
I0428 19:32:32.017968 22857 net.cpp:382] label_mnist_1_split -> label_mnist_1_split_0
I0428 19:32:32.017976 22857 net.cpp:382] label_mnist_1_split -> label_mnist_1_split_1
I0428 19:32:32.018030 22857 net.cpp:124] Setting up label_mnist_1_split
I0428 19:32:32.018036 22857 net.cpp:131] Top shape: 100 (100)
I0428 19:32:32.018040 22857 net.cpp:131] Top shape: 100 (100)
I0428 19:32:32.018044 22857 net.cpp:139] Memory required for data: 314800
I0428 19:32:32.018059 22857 layer_factory.hpp:77] Creating layer conv0
I0428 19:32:32.018070 22857 net.cpp:86] Creating Layer conv0
I0428 19:32:32.018074 22857 net.cpp:408] conv0 <- data
I0428 19:32:32.018080 22857 net.cpp:382] conv0 -> conv0
I0428 19:32:32.019953 22857 net.cpp:124] Setting up conv0
I0428 19:32:32.019969 22857 net.cpp:131] Top shape: 100 10 24 24 (576000)
I0428 19:32:32.019974 22857 net.cpp:139] Memory required for data: 2618800
I0428 19:32:32.019985 22857 layer_factory.hpp:77] Creating layer pool0
I0428 19:32:32.019994 22857 net.cpp:86] Creating Layer pool0
I0428 19:32:32.019997 22857 net.cpp:408] pool0 <- conv0
I0428 19:32:32.020002 22857 net.cpp:382] pool0 -> pool0
I0428 19:32:32.020045 22857 net.cpp:124] Setting up pool0
I0428 19:32:32.020052 22857 net.cpp:131] Top shape: 100 10 12 12 (144000)
I0428 19:32:32.020056 22857 net.cpp:139] Memory required for data: 3194800
I0428 19:32:32.020058 22857 layer_factory.hpp:77] Creating layer ip1
I0428 19:32:32.020066 22857 net.cpp:86] Creating Layer ip1
I0428 19:32:32.020071 22857 net.cpp:408] ip1 <- pool0
I0428 19:32:32.020076 22857 net.cpp:382] ip1 -> ip1
I0428 19:32:32.020737 22857 net.cpp:124] Setting up ip1
I0428 19:32:32.020746 22857 net.cpp:131] Top shape: 100 50 (5000)
I0428 19:32:32.020750 22857 net.cpp:139] Memory required for data: 3214800
I0428 19:32:32.020759 22857 layer_factory.hpp:77] Creating layer relu1
I0428 19:32:32.020766 22857 net.cpp:86] Creating Layer relu1
I0428 19:32:32.020769 22857 net.cpp:408] relu1 <- ip1
I0428 19:32:32.020781 22857 net.cpp:369] relu1 -> ip1 (in-place)
I0428 19:32:32.020993 22857 net.cpp:124] Setting up relu1
I0428 19:32:32.021005 22857 net.cpp:131] Top shape: 100 50 (5000)
I0428 19:32:32.021009 22857 net.cpp:139] Memory required for data: 3234800
I0428 19:32:32.021013 22857 layer_factory.hpp:77] Creating layer ip2
I0428 19:32:32.021019 22857 net.cpp:86] Creating Layer ip2
I0428 19:32:32.021024 22857 net.cpp:408] ip2 <- ip1
I0428 19:32:32.021030 22857 net.cpp:382] ip2 -> ip2
I0428 19:32:32.021176 22857 net.cpp:124] Setting up ip2
I0428 19:32:32.021184 22857 net.cpp:131] Top shape: 100 50 (5000)
I0428 19:32:32.021188 22857 net.cpp:139] Memory required for data: 3254800
I0428 19:32:32.021196 22857 layer_factory.hpp:77] Creating layer relu2
I0428 19:32:32.021203 22857 net.cpp:86] Creating Layer relu2
I0428 19:32:32.021206 22857 net.cpp:408] relu2 <- ip2
I0428 19:32:32.021211 22857 net.cpp:369] relu2 -> ip2 (in-place)
I0428 19:32:32.022141 22857 net.cpp:124] Setting up relu2
I0428 19:32:32.022157 22857 net.cpp:131] Top shape: 100 50 (5000)
I0428 19:32:32.022162 22857 net.cpp:139] Memory required for data: 3274800
I0428 19:32:32.022166 22857 layer_factory.hpp:77] Creating layer ip3
I0428 19:32:32.022176 22857 net.cpp:86] Creating Layer ip3
I0428 19:32:32.022181 22857 net.cpp:408] ip3 <- ip2
I0428 19:32:32.022187 22857 net.cpp:382] ip3 -> ip3
I0428 19:32:32.022333 22857 net.cpp:124] Setting up ip3
I0428 19:32:32.022346 22857 net.cpp:131] Top shape: 100 10 (1000)
I0428 19:32:32.022351 22857 net.cpp:139] Memory required for data: 3278800
I0428 19:32:32.022357 22857 layer_factory.hpp:77] Creating layer relu3
I0428 19:32:32.022362 22857 net.cpp:86] Creating Layer relu3
I0428 19:32:32.022373 22857 net.cpp:408] relu3 <- ip3
I0428 19:32:32.022378 22857 net.cpp:369] relu3 -> ip3 (in-place)
I0428 19:32:32.022558 22857 net.cpp:124] Setting up relu3
I0428 19:32:32.022568 22857 net.cpp:131] Top shape: 100 10 (1000)
I0428 19:32:32.022572 22857 net.cpp:139] Memory required for data: 3282800
I0428 19:32:32.022575 22857 layer_factory.hpp:77] Creating layer ip3_relu3_0_split
I0428 19:32:32.022580 22857 net.cpp:86] Creating Layer ip3_relu3_0_split
I0428 19:32:32.022584 22857 net.cpp:408] ip3_relu3_0_split <- ip3
I0428 19:32:32.022590 22857 net.cpp:382] ip3_relu3_0_split -> ip3_relu3_0_split_0
I0428 19:32:32.022598 22857 net.cpp:382] ip3_relu3_0_split -> ip3_relu3_0_split_1
I0428 19:32:32.022639 22857 net.cpp:124] Setting up ip3_relu3_0_split
I0428 19:32:32.022644 22857 net.cpp:131] Top shape: 100 10 (1000)
I0428 19:32:32.022655 22857 net.cpp:131] Top shape: 100 10 (1000)
I0428 19:32:32.022672 22857 net.cpp:139] Memory required for data: 3290800
I0428 19:32:32.022682 22857 layer_factory.hpp:77] Creating layer accuracy
I0428 19:32:32.022688 22857 net.cpp:86] Creating Layer accuracy
I0428 19:32:32.022693 22857 net.cpp:408] accuracy <- ip3_relu3_0_split_0
I0428 19:32:32.022698 22857 net.cpp:408] accuracy <- label_mnist_1_split_0
I0428 19:32:32.022711 22857 net.cpp:382] accuracy -> accuracy
…
