…
I0428 20:02:04.226974 29865 net.cpp:296] The NetState phase (0) differed from the phase (1) specified by a rule in layer mnist
I0428 20:02:04.227005 29865 net.cpp:296] The NetState phase (0) differed from the phase (1) specified by a rule in layer accuracy
I0428 20:02:04.227087 29865 net.cpp:53] Initializing net from parameters: 
name: "LeNet"
state {
  phase: TRAIN
  level: 0
  stage: ""
}
layer {
  name: "mnist"
  type: "Data"
  top: "data"
  top: "label"
  include {
    phase: TRAIN
  }
  transform_param {
    scale: 0.00390625
  }
  data_param {
    source: "examples/mnist/mnist_train_lmdb"
    batch_size: 64
    backend: LMDB
  }
}
layer {
  name: "conv0"
  type: "Convolution"
  bottom: "data"
  top: "conv0"
  param {
    lr_mult: 1
  }
  param {
    lr_mult: 2
  }
  convolution_param {
    num_output: 10
    kernel_size: 5
    stride: 1
    weight_filler {
      type: "xavier"
    }
    bias_filler {
      type: "constant"
    }
  }
}
layer {
  name: "pool0"
  type: "Pooling"
  bottom: "conv0"
  top: "pool0"
  pooling_param {
    pool: MAX
    kernel_size: 2
    stride: 2
  }
}
layer {
  name: "conv1"
  type: "Convolution"
  bottom: "pool0"
  top: "conv1"
  param {
    lr_mult: 1
  }
  param {
    lr_mult: 2
  }
  convolution_param {
    num_output: 50
    kernel_size: 5
    stride: 1
    weight_filler {
      type: "xavier"
    }
    bias_filler {
      type: "constant"
    }
  }
}
layer {
  name: "pool1"
  type: "Pooling"
  bottom: "conv1"
  top: "pool1"
  pooling_param {
    pool: MAX
    kernel_size: 2
    stride: 2
  }
}
layer {
  name: "ip1"
  type: "InnerProduct"
  bottom: "pool1"
  top: "ip1"
  param {
    lr_mult: 1
  }
  param {
    lr_mult: 2
  }
  inner_product_param {
    num_output: 25
    weight_filler {
      type: "xavier"
    }
    bias_filler {
      type: "constant"
    }
  }
}
layer {
  name: "relu1"
  type: "ReLU"
  bottom: "ip1"
  top: "ip1"
}
layer {
  name: "ip2"
  type: "InnerProduct"
  bottom: "ip1"
  top: "ip2"
  param {
    lr_mult: 1
  }
  param {
    lr_mult: 2
  }
  inner_product_param {
    num_output: 10
    weight_filler {
      type: "xavier"
    }
    bias_filler {
      type: "constant"
    }
  }
}
layer {
  name: "relu2"
  type: "ReLU"
  bottom: "ip2"
  top: "ip2"
}
layer {
  name: "ip3"
  type: "InnerProduct"
  bottom: "ip2"
  top: "ip3"
  param {
    lr_mult: 1
  }
  param {
    lr_mult: 2
  }
  inner_product_param {
    num_output: 10
    weight_filler {
      type: "xavier"
    }
    bias_filler {
      type: "constant"
    }
  }
}
layer {
  name: "relu3"
  type: "ReLU"
  bottom: "ip3"
  top: "ip3"
}
layer {
  name: "loss"
  type: "SoftmaxWithLoss"
  bottom: "ip3"
  bottom: "label"
  top: "loss"
}
I0428 20:02:04.227150 29865 layer_factory.hpp:77] Creating layer mnist
I0428 20:02:04.227231 29865 db_lmdb.cpp:35] Opened lmdb examples/mnist/mnist_train_lmdb
I0428 20:02:04.227252 29865 net.cpp:86] Creating Layer mnist
I0428 20:02:04.227258 29865 net.cpp:382] mnist -> data
I0428 20:02:04.227277 29865 net.cpp:382] mnist -> label
I0428 20:02:04.228262 29865 data_layer.cpp:45] output data size: 64,1,28,28
I0428 20:02:04.230556 29865 net.cpp:124] Setting up mnist
I0428 20:02:04.230588 29865 net.cpp:131] Top shape: 64 1 28 28 (50176)
I0428 20:02:04.230594 29865 net.cpp:131] Top shape: 64 (64)
I0428 20:02:04.230597 29865 net.cpp:139] Memory required for data: 200960
I0428 20:02:04.230603 29865 layer_factory.hpp:77] Creating layer conv0
I0428 20:02:04.230617 29865 net.cpp:86] Creating Layer conv0
I0428 20:02:04.230633 29865 net.cpp:408] conv0 <- data
I0428 20:02:04.230643 29865 net.cpp:382] conv0 -> conv0
I0428 20:02:04.461400 29865 net.cpp:124] Setting up conv0
I0428 20:02:04.461443 29865 net.cpp:131] Top shape: 64 10 24 24 (368640)
I0428 20:02:04.461463 29865 net.cpp:139] Memory required for data: 1675520
I0428 20:02:04.461478 29865 layer_factory.hpp:77] Creating layer pool0
I0428 20:02:04.461493 29865 net.cpp:86] Creating Layer pool0
I0428 20:02:04.461496 29865 net.cpp:408] pool0 <- conv0
I0428 20:02:04.461500 29865 net.cpp:382] pool0 -> pool0
I0428 20:02:04.461562 29865 net.cpp:124] Setting up pool0
I0428 20:02:04.461567 29865 net.cpp:131] Top shape: 64 10 12 12 (92160)
I0428 20:02:04.461570 29865 net.cpp:139] Memory required for data: 2044160
I0428 20:02:04.461573 29865 layer_factory.hpp:77] Creating layer conv1
I0428 20:02:04.461585 29865 net.cpp:86] Creating Layer conv1
I0428 20:02:04.461587 29865 net.cpp:408] conv1 <- pool0
I0428 20:02:04.461592 29865 net.cpp:382] conv1 -> conv1
I0428 20:02:04.464404 29865 net.cpp:124] Setting up conv1
I0428 20:02:04.464433 29865 net.cpp:131] Top shape: 64 50 8 8 (204800)
I0428 20:02:04.464437 29865 net.cpp:139] Memory required for data: 2863360
I0428 20:02:04.464445 29865 layer_factory.hpp:77] Creating layer pool1
I0428 20:02:04.464452 29865 net.cpp:86] Creating Layer pool1
I0428 20:02:04.464455 29865 net.cpp:408] pool1 <- conv1
I0428 20:02:04.464460 29865 net.cpp:382] pool1 -> pool1
I0428 20:02:04.464511 29865 net.cpp:124] Setting up pool1
I0428 20:02:04.464516 29865 net.cpp:131] Top shape: 64 50 4 4 (51200)
I0428 20:02:04.464519 29865 net.cpp:139] Memory required for data: 3068160
I0428 20:02:04.464524 29865 layer_factory.hpp:77] Creating layer ip1
I0428 20:02:04.464530 29865 net.cpp:86] Creating Layer ip1
I0428 20:02:04.464534 29865 net.cpp:408] ip1 <- pool1
I0428 20:02:04.464539 29865 net.cpp:382] ip1 -> ip1
I0428 20:02:04.464772 29865 net.cpp:124] Setting up ip1
I0428 20:02:04.464781 29865 net.cpp:131] Top shape: 64 25 (1600)
I0428 20:02:04.464783 29865 net.cpp:139] Memory required for data: 3074560
I0428 20:02:04.464790 29865 layer_factory.hpp:77] Creating layer relu1
I0428 20:02:04.464797 29865 net.cpp:86] Creating Layer relu1
I0428 20:02:04.464800 29865 net.cpp:408] relu1 <- ip1
I0428 20:02:04.464804 29865 net.cpp:369] relu1 -> ip1 (in-place)
I0428 20:02:04.465045 29865 net.cpp:124] Setting up relu1
I0428 20:02:04.465054 29865 net.cpp:131] Top shape: 64 25 (1600)
I0428 20:02:04.465059 29865 net.cpp:139] Memory required for data: 3080960
I0428 20:02:04.465061 29865 layer_factory.hpp:77] Creating layer ip2
I0428 20:02:04.465068 29865 net.cpp:86] Creating Layer ip2
I0428 20:02:04.465071 29865 net.cpp:408] ip2 <- ip1
I0428 20:02:04.465076 29865 net.cpp:382] ip2 -> ip2
I0428 20:02:04.465195 29865 net.cpp:124] Setting up ip2
I0428 20:02:04.465203 29865 net.cpp:131] Top shape: 64 10 (640)
I0428 20:02:04.465205 29865 net.cpp:139] Memory required for data: 3083520
I0428 20:02:04.465210 29865 layer_factory.hpp:77] Creating layer relu2
I0428 20:02:04.465227 29865 net.cpp:86] Creating Layer relu2
I0428 20:02:04.465230 29865 net.cpp:408] relu2 <- ip2
I0428 20:02:04.465250 29865 net.cpp:369] relu2 -> ip2 (in-place)
I0428 20:02:04.466030 29865 net.cpp:124] Setting up relu2
I0428 20:02:04.466042 29865 net.cpp:131] Top shape: 64 10 (640)
I0428 20:02:04.466061 29865 net.cpp:139] Memory required for data: 3086080
I0428 20:02:04.466065 29865 layer_factory.hpp:77] Creating layer ip3
I0428 20:02:04.466073 29865 net.cpp:86] Creating Layer ip3
I0428 20:02:04.466091 29865 net.cpp:408] ip3 <- ip2
I0428 20:02:04.466096 29865 net.cpp:382] ip3 -> ip3
I0428 20:02:04.466212 29865 net.cpp:124] Setting up ip3
I0428 20:02:04.466219 29865 net.cpp:131] Top shape: 64 10 (640)
I0428 20:02:04.466223 29865 net.cpp:139] Memory required for data: 3088640
I0428 20:02:04.466229 29865 layer_factory.hpp:77] Creating layer relu3
I0428 20:02:04.466245 29865 net.cpp:86] Creating Layer relu3
I0428 20:02:04.466249 29865 net.cpp:408] relu3 <- ip3
I0428 20:02:04.466253 29865 net.cpp:369] relu3 -> ip3 (in-place)
I0428 20:02:04.466423 29865 net.cpp:124] Setting up relu3
I0428 20:02:04.466431 29865 net.cpp:131] Top shape: 64 10 (640)
I0428 20:02:04.466434 29865 net.cpp:139] Memory required for data: 3091200
I0428 20:02:04.466437 29865 layer_factory.hpp:77] Creating layer loss
I0428 20:02:04.466444 29865 net.cpp:86] Creating Layer loss
I0428 20:02:04.466446 29865 net.cpp:408] loss <- ip3
I0428 20:02:04.466450 29865 net.cpp:408] loss <- label
I0428 20:02:04.466456 29865 net.cpp:382] loss -> loss
I0428 20:02:04.466473 29865 layer_factory.hpp:77] Creating layer loss
…
I0428 20:02:04.467197 29865 solver.cpp:173] Creating test net (#0) specified by net file: ECE595/mnist/train_test/var_everything2/lenet_train_test919.prototxt
I0428 20:02:04.467238 29865 net.cpp:296] The NetState phase (1) differed from the phase (0) specified by a rule in layer mnist
I0428 20:02:04.467325 29865 net.cpp:53] Initializing net from parameters: 
name: "LeNet"
state {
  phase: TEST
}
layer {
  name: "mnist"
  type: "Data"
  top: "data"
  top: "label"
  include {
    phase: TEST
  }
  transform_param {
    scale: 0.00390625
  }
  data_param {
    source: "examples/mnist/mnist_test_lmdb"
    batch_size: 100
    backend: LMDB
  }
}
layer {
  name: "conv0"
  type: "Convolution"
  bottom: "data"
  top: "conv0"
  param {
    lr_mult: 1
  }
  param {
    lr_mult: 2
  }
  convolution_param {
    num_output: 10
    kernel_size: 5
    stride: 1
    weight_filler {
      type: "xavier"
    }
    bias_filler {
      type: "constant"
    }
  }
}
layer {
  name: "pool0"
  type: "Pooling"
  bottom: "conv0"
  top: "pool0"
  pooling_param {
    pool: MAX
    kernel_size: 2
    stride: 2
  }
}
layer {
  name: "conv1"
  type: "Convolution"
  bottom: "pool0"
  top: "conv1"
  param {
    lr_mult: 1
  }
  param {
    lr_mult: 2
  }
  convolution_param {
    num_output: 50
    kernel_size: 5
    stride: 1
    weight_filler {
      type: "xavier"
    }
    bias_filler {
      type: "constant"
    }
  }
}
layer {
  name: "pool1"
  type: "Pooling"
  bottom: "conv1"
  top: "pool1"
  pooling_param {
    pool: MAX
    kernel_size: 2
    stride: 2
  }
}
layer {
  name: "ip1"
  type: "InnerProduct"
  bottom: "pool1"
  top: "ip1"
  param {
    lr_mult: 1
  }
  param {
    lr_mult: 2
  }
  inner_product_param {
    num_output: 25
    weight_filler {
      type: "xavier"
    }
    bias_filler {
      type: "constant"
    }
  }
}
layer {
  name: "relu1"
  type: "ReLU"
  bottom: "ip1"
  top: "ip1"
}
layer {
  name: "ip2"
  type: "InnerProduct"
  bottom: "ip1"
  top: "ip2"
  param {
    lr_mult: 1
  }
  param {
    lr_mult: 2
  }
  inner_product_param {
    num_output: 10
    weight_filler {
      type: "xavier"
    }
    bias_filler {
      type: "constant"
    }
  }
}
layer {
  name: "relu2"
  type: "ReLU"
  bottom: "ip2"
  top: "ip2"
}
layer {
  name: "ip3"
  type: "InnerProduct"
  bottom: "ip2"
  top: "ip3"
  param {
    lr_mult: 1
  }
  param {
    lr_mult: 2
  }
  inner_product_param {
    num_output: 10
    weight_filler {
      type: "xavier"
    }
    bias_filler {
      type: "constant"
    }
  }
}
layer {
  name: "relu3"
  type: "ReLU"
  bottom: "ip3"
  top: "ip3"
}
layer {
  name: "accuracy"
  type: "Accuracy"
  bottom: "ip3"
  bottom: "label"
  top: "accuracy"
  include {
    phase: TEST
  }
}
layer {
  name: "loss"
  type: "SoftmaxWithLoss"
  bottom: "ip3"
  bottom: "label"
  top: "loss"
}
I0428 20:02:04.467420 29865 layer_factory.hpp:77] Creating layer mnist
I0428 20:02:04.467464 29865 db_lmdb.cpp:35] Opened lmdb examples/mnist/mnist_test_lmdb
I0428 20:02:04.467478 29865 net.cpp:86] Creating Layer mnist
I0428 20:02:04.467483 29865 net.cpp:382] mnist -> data
I0428 20:02:04.467489 29865 net.cpp:382] mnist -> label
I0428 20:02:04.467574 29865 data_layer.cpp:45] output data size: 100,1,28,28
I0428 20:02:04.469802 29865 net.cpp:124] Setting up mnist
I0428 20:02:04.469849 29865 net.cpp:131] Top shape: 100 1 28 28 (78400)
I0428 20:02:04.469854 29865 net.cpp:131] Top shape: 100 (100)
I0428 20:02:04.469857 29865 net.cpp:139] Memory required for data: 314000
I0428 20:02:04.469861 29865 layer_factory.hpp:77] Creating layer label_mnist_1_split
I0428 20:02:04.469887 29865 net.cpp:86] Creating Layer label_mnist_1_split
I0428 20:02:04.469890 29865 net.cpp:408] label_mnist_1_split <- label
I0428 20:02:04.469895 29865 net.cpp:382] label_mnist_1_split -> label_mnist_1_split_0
I0428 20:02:04.469902 29865 net.cpp:382] label_mnist_1_split -> label_mnist_1_split_1
I0428 20:02:04.470000 29865 net.cpp:124] Setting up label_mnist_1_split
I0428 20:02:04.470022 29865 net.cpp:131] Top shape: 100 (100)
I0428 20:02:04.470026 29865 net.cpp:131] Top shape: 100 (100)
I0428 20:02:04.470038 29865 net.cpp:139] Memory required for data: 314800
I0428 20:02:04.470041 29865 layer_factory.hpp:77] Creating layer conv0
I0428 20:02:04.470051 29865 net.cpp:86] Creating Layer conv0
I0428 20:02:04.470057 29865 net.cpp:408] conv0 <- data
I0428 20:02:04.470065 29865 net.cpp:382] conv0 -> conv0
I0428 20:02:04.471817 29865 net.cpp:124] Setting up conv0
I0428 20:02:04.471846 29865 net.cpp:131] Top shape: 100 10 24 24 (576000)
I0428 20:02:04.471849 29865 net.cpp:139] Memory required for data: 2618800
I0428 20:02:04.471858 29865 layer_factory.hpp:77] Creating layer pool0
I0428 20:02:04.471865 29865 net.cpp:86] Creating Layer pool0
I0428 20:02:04.471885 29865 net.cpp:408] pool0 <- conv0
I0428 20:02:04.471890 29865 net.cpp:382] pool0 -> pool0
I0428 20:02:04.471926 29865 net.cpp:124] Setting up pool0
I0428 20:02:04.471933 29865 net.cpp:131] Top shape: 100 10 12 12 (144000)
I0428 20:02:04.471935 29865 net.cpp:139] Memory required for data: 3194800
I0428 20:02:04.471940 29865 layer_factory.hpp:77] Creating layer conv1
I0428 20:02:04.471948 29865 net.cpp:86] Creating Layer conv1
I0428 20:02:04.471952 29865 net.cpp:408] conv1 <- pool0
I0428 20:02:04.471958 29865 net.cpp:382] conv1 -> conv1
I0428 20:02:04.473749 29865 net.cpp:124] Setting up conv1
I0428 20:02:04.473779 29865 net.cpp:131] Top shape: 100 50 8 8 (320000)
I0428 20:02:04.473799 29865 net.cpp:139] Memory required for data: 4474800
I0428 20:02:04.473809 29865 layer_factory.hpp:77] Creating layer pool1
I0428 20:02:04.473815 29865 net.cpp:86] Creating Layer pool1
I0428 20:02:04.473819 29865 net.cpp:408] pool1 <- conv1
I0428 20:02:04.473826 29865 net.cpp:382] pool1 -> pool1
I0428 20:02:04.473865 29865 net.cpp:124] Setting up pool1
I0428 20:02:04.473872 29865 net.cpp:131] Top shape: 100 50 4 4 (80000)
I0428 20:02:04.473876 29865 net.cpp:139] Memory required for data: 4794800
I0428 20:02:04.473879 29865 layer_factory.hpp:77] Creating layer ip1
I0428 20:02:04.473886 29865 net.cpp:86] Creating Layer ip1
I0428 20:02:04.473891 29865 net.cpp:408] ip1 <- pool1
I0428 20:02:04.473897 29865 net.cpp:382] ip1 -> ip1
I0428 20:02:04.474143 29865 net.cpp:124] Setting up ip1
I0428 20:02:04.474150 29865 net.cpp:131] Top shape: 100 25 (2500)
I0428 20:02:04.474164 29865 net.cpp:139] Memory required for data: 4804800
I0428 20:02:04.474187 29865 layer_factory.hpp:77] Creating layer relu1
I0428 20:02:04.474195 29865 net.cpp:86] Creating Layer relu1
I0428 20:02:04.474198 29865 net.cpp:408] relu1 <- ip1
I0428 20:02:04.474202 29865 net.cpp:369] relu1 -> ip1 (in-place)
I0428 20:02:04.474426 29865 net.cpp:124] Setting up relu1
I0428 20:02:04.474436 29865 net.cpp:131] Top shape: 100 25 (2500)
I0428 20:02:04.474438 29865 net.cpp:139] Memory required for data: 4814800
I0428 20:02:04.474442 29865 layer_factory.hpp:77] Creating layer ip2
I0428 20:02:04.474464 29865 net.cpp:86] Creating Layer ip2
I0428 20:02:04.474468 29865 net.cpp:408] ip2 <- ip1
I0428 20:02:04.474490 29865 net.cpp:382] ip2 -> ip2
I0428 20:02:04.474611 29865 net.cpp:124] Setting up ip2
I0428 20:02:04.474618 29865 net.cpp:131] Top shape: 100 10 (1000)
I0428 20:02:04.474622 29865 net.cpp:139] Memory required for data: 4818800
I0428 20:02:04.474628 29865 layer_factory.hpp:77] Creating layer relu2
I0428 20:02:04.474633 29865 net.cpp:86] Creating Layer relu2
I0428 20:02:04.474648 29865 net.cpp:408] relu2 <- ip2
I0428 20:02:04.474653 29865 net.cpp:369] relu2 -> ip2 (in-place)
I0428 20:02:04.474864 29865 net.cpp:124] Setting up relu2
I0428 20:02:04.474874 29865 net.cpp:131] Top shape: 100 10 (1000)
I0428 20:02:04.474876 29865 net.cpp:139] Memory required for data: 4822800
I0428 20:02:04.474880 29865 layer_factory.hpp:77] Creating layer ip3
I0428 20:02:04.474887 29865 net.cpp:86] Creating Layer ip3
I0428 20:02:04.474891 29865 net.cpp:408] ip3 <- ip2
I0428 20:02:04.474896 29865 net.cpp:382] ip3 -> ip3
I0428 20:02:04.475014 29865 net.cpp:124] Setting up ip3
I0428 20:02:04.475020 29865 net.cpp:131] Top shape: 100 10 (1000)
I0428 20:02:04.475023 29865 net.cpp:139] Memory required for data: 4826800
I0428 20:02:04.475031 29865 layer_factory.hpp:77] Creating layer relu3
I0428 20:02:04.475038 29865 net.cpp:86] Creating Layer relu3
I0428 20:02:04.475040 29865 net.cpp:408] relu3 <- ip3
I0428 20:02:04.475045 29865 net.cpp:369] relu3 -> ip3 (in-place)
I0428 20:02:04.476011 29865 net.cpp:124] Setting up relu3
I0428 20:02:04.476023 29865 net.cpp:131] Top shape: 100 10 (1000)
I0428 20:02:04.476043 29865 net.cpp:139] Memory required for data: 4830800
I0428 20:02:04.476047 29865 layer_factory.hpp:77] Creating layer ip3_relu3_0_split
I0428 20:02:04.476054 29865 net.cpp:86] Creating Layer ip3_relu3_0_split
I0428 20:02:04.476058 29865 net.cpp:408] ip3_relu3_0_split <- ip3
I0428 20:02:04.476063 29865 net.cpp:382] ip3_relu3_0_split -> ip3_relu3_0_split_0
I0428 20:02:04.476070 29865 net.cpp:382] ip3_relu3_0_split -> ip3_relu3_0_split_1
I0428 20:02:04.476110 29865 net.cpp:124] Setting up ip3_relu3_0_split
I0428 20:02:04.476117 29865 net.cpp:131] Top shape: 100 10 (1000)
I0428 20:02:04.476121 29865 net.cpp:131] Top shape: 100 10 (1000)
I0428 20:02:04.476125 29865 net.cpp:139] Memory required for data: 4838800
I0428 20:02:04.476128 29865 layer_factory.hpp:77] Creating layer accuracy
I0428 20:02:04.476132 29865 net.cpp:86] Creating Layer accuracy
I0428 20:02:04.476136 29865 net.cpp:408] accuracy <- ip3_relu3_0_split_0
I0428 20:02:04.476141 29865 net.cpp:408] accuracy <- label_mnist_1_split_0
I0428 20:02:04.476147 29865 net.cpp:382] accuracy -> accuracy
…
