…
I0428 19:33:53.643800 23225 net.cpp:296] The NetState phase (0) differed from the phase (1) specified by a rule in layer mnist
I0428 19:33:53.643816 23225 net.cpp:296] The NetState phase (0) differed from the phase (1) specified by a rule in layer accuracy
I0428 19:33:53.643903 23225 net.cpp:53] Initializing net from parameters: 
name: "LeNet"
state {
  phase: TRAIN
  level: 0
  stage: ""
}
layer {
  name: "mnist"
  type: "Data"
  top: "data"
  top: "label"
  include {
    phase: TRAIN
  }
  transform_param {
    scale: 0.00390625
  }
  data_param {
    source: "examples/mnist/mnist_train_lmdb"
    batch_size: 64
    backend: LMDB
  }
}
layer {
  name: "conv0"
  type: "Convolution"
  bottom: "data"
  top: "conv0"
  param {
    lr_mult: 1
  }
  param {
    lr_mult: 2
  }
  convolution_param {
    num_output: 25
    kernel_size: 5
    stride: 1
    weight_filler {
      type: "xavier"
    }
    bias_filler {
      type: "constant"
    }
  }
}
layer {
  name: "pool0"
  type: "Pooling"
  bottom: "conv0"
  top: "pool0"
  pooling_param {
    pool: MAX
    kernel_size: 2
    stride: 2
  }
}
layer {
  name: "ip1"
  type: "InnerProduct"
  bottom: "pool0"
  top: "ip1"
  param {
    lr_mult: 1
  }
  param {
    lr_mult: 2
  }
  inner_product_param {
    num_output: 50
    weight_filler {
      type: "xavier"
    }
    bias_filler {
      type: "constant"
    }
  }
}
layer {
  name: "relu1"
  type: "ReLU"
  bottom: "ip1"
  top: "ip1"
}
layer {
  name: "ip2"
  type: "InnerProduct"
  bottom: "ip1"
  top: "ip2"
  param {
    lr_mult: 1
  }
  param {
    lr_mult: 2
  }
  inner_product_param {
    num_output: 25
    weight_filler {
      type: "xavier"
    }
    bias_filler {
      type: "constant"
    }
  }
}
layer {
  name: "relu2"
  type: "ReLU"
  bottom: "ip2"
  top: "ip2"
}
layer {
  name: "ip3"
  type: "InnerProduct"
  bottom: "ip2"
  top: "ip3"
  param {
    lr_mult: 1
  }
  param {
    lr_mult: 2
  }
  inner_product_param {
    num_output: 10
    weight_filler {
      type: "xavier"
    }
    bias_filler {
      type: "constant"
    }
  }
}
layer {
  name: "relu3"
  type: "ReLU"
  bottom: "ip3"
  top: "ip3"
}
layer {
  name: "loss"
  type: "SoftmaxWithLoss"
  bottom: "ip3"
  bottom: "label"
  top: "loss"
}
I0428 19:33:53.643975 23225 layer_factory.hpp:77] Creating layer mnist
I0428 19:33:53.644071 23225 db_lmdb.cpp:35] Opened lmdb examples/mnist/mnist_train_lmdb
I0428 19:33:53.644095 23225 net.cpp:86] Creating Layer mnist
I0428 19:33:53.644103 23225 net.cpp:382] mnist -> data
I0428 19:33:53.644125 23225 net.cpp:382] mnist -> label
I0428 19:33:53.645258 23225 data_layer.cpp:45] output data size: 64,1,28,28
I0428 19:33:53.647716 23225 net.cpp:124] Setting up mnist
I0428 19:33:53.647735 23225 net.cpp:131] Top shape: 64 1 28 28 (50176)
I0428 19:33:53.647742 23225 net.cpp:131] Top shape: 64 (64)
I0428 19:33:53.647745 23225 net.cpp:139] Memory required for data: 200960
I0428 19:33:53.647752 23225 layer_factory.hpp:77] Creating layer conv0
I0428 19:33:53.647800 23225 net.cpp:86] Creating Layer conv0
I0428 19:33:53.647806 23225 net.cpp:408] conv0 <- data
I0428 19:33:53.647819 23225 net.cpp:382] conv0 -> conv0
I0428 19:33:53.937999 23225 net.cpp:124] Setting up conv0
I0428 19:33:53.938027 23225 net.cpp:131] Top shape: 64 25 24 24 (921600)
I0428 19:33:53.938032 23225 net.cpp:139] Memory required for data: 3887360
I0428 19:33:53.938050 23225 layer_factory.hpp:77] Creating layer pool0
I0428 19:33:53.938064 23225 net.cpp:86] Creating Layer pool0
I0428 19:33:53.938092 23225 net.cpp:408] pool0 <- conv0
I0428 19:33:53.938099 23225 net.cpp:382] pool0 -> pool0
I0428 19:33:53.938156 23225 net.cpp:124] Setting up pool0
I0428 19:33:53.938163 23225 net.cpp:131] Top shape: 64 25 12 12 (230400)
I0428 19:33:53.938168 23225 net.cpp:139] Memory required for data: 4808960
I0428 19:33:53.938171 23225 layer_factory.hpp:77] Creating layer ip1
I0428 19:33:53.938184 23225 net.cpp:86] Creating Layer ip1
I0428 19:33:53.938187 23225 net.cpp:408] ip1 <- pool0
I0428 19:33:53.938194 23225 net.cpp:382] ip1 -> ip1
I0428 19:33:53.940505 23225 net.cpp:124] Setting up ip1
I0428 19:33:53.940521 23225 net.cpp:131] Top shape: 64 50 (3200)
I0428 19:33:53.940524 23225 net.cpp:139] Memory required for data: 4821760
I0428 19:33:53.940534 23225 layer_factory.hpp:77] Creating layer relu1
I0428 19:33:53.940542 23225 net.cpp:86] Creating Layer relu1
I0428 19:33:53.940546 23225 net.cpp:408] relu1 <- ip1
I0428 19:33:53.940552 23225 net.cpp:369] relu1 -> ip1 (in-place)
I0428 19:33:53.940744 23225 net.cpp:124] Setting up relu1
I0428 19:33:53.940755 23225 net.cpp:131] Top shape: 64 50 (3200)
I0428 19:33:53.940758 23225 net.cpp:139] Memory required for data: 4834560
I0428 19:33:53.940762 23225 layer_factory.hpp:77] Creating layer ip2
I0428 19:33:53.940770 23225 net.cpp:86] Creating Layer ip2
I0428 19:33:53.940773 23225 net.cpp:408] ip2 <- ip1
I0428 19:33:53.940779 23225 net.cpp:382] ip2 -> ip2
I0428 19:33:53.941884 23225 net.cpp:124] Setting up ip2
I0428 19:33:53.941898 23225 net.cpp:131] Top shape: 64 25 (1600)
I0428 19:33:53.941903 23225 net.cpp:139] Memory required for data: 4840960
I0428 19:33:53.941913 23225 layer_factory.hpp:77] Creating layer relu2
I0428 19:33:53.941920 23225 net.cpp:86] Creating Layer relu2
I0428 19:33:53.941923 23225 net.cpp:408] relu2 <- ip2
I0428 19:33:53.941929 23225 net.cpp:369] relu2 -> ip2 (in-place)
I0428 19:33:53.942781 23225 net.cpp:124] Setting up relu2
I0428 19:33:53.942795 23225 net.cpp:131] Top shape: 64 25 (1600)
I0428 19:33:53.942800 23225 net.cpp:139] Memory required for data: 4847360
I0428 19:33:53.942804 23225 layer_factory.hpp:77] Creating layer ip3
I0428 19:33:53.942812 23225 net.cpp:86] Creating Layer ip3
I0428 19:33:53.942816 23225 net.cpp:408] ip3 <- ip2
I0428 19:33:53.942822 23225 net.cpp:382] ip3 -> ip3
I0428 19:33:53.942932 23225 net.cpp:124] Setting up ip3
I0428 19:33:53.942941 23225 net.cpp:131] Top shape: 64 10 (640)
I0428 19:33:53.942945 23225 net.cpp:139] Memory required for data: 4849920
I0428 19:33:53.942952 23225 layer_factory.hpp:77] Creating layer relu3
I0428 19:33:53.942960 23225 net.cpp:86] Creating Layer relu3
I0428 19:33:53.942963 23225 net.cpp:408] relu3 <- ip3
I0428 19:33:53.942968 23225 net.cpp:369] relu3 -> ip3 (in-place)
I0428 19:33:53.943138 23225 net.cpp:124] Setting up relu3
I0428 19:33:53.943148 23225 net.cpp:131] Top shape: 64 10 (640)
I0428 19:33:53.943152 23225 net.cpp:139] Memory required for data: 4852480
I0428 19:33:53.943156 23225 layer_factory.hpp:77] Creating layer loss
I0428 19:33:53.943163 23225 net.cpp:86] Creating Layer loss
I0428 19:33:53.943166 23225 net.cpp:408] loss <- ip3
I0428 19:33:53.943171 23225 net.cpp:408] loss <- label
I0428 19:33:53.943177 23225 net.cpp:382] loss -> loss
I0428 19:33:53.943198 23225 layer_factory.hpp:77] Creating layer loss
…
I0428 19:33:53.943892 23225 solver.cpp:173] Creating test net (#0) specified by net file: ECE595/mnist/train_test/var_everything2/lenet_train_test191.prototxt
I0428 19:33:53.943922 23225 net.cpp:296] The NetState phase (1) differed from the phase (0) specified by a rule in layer mnist
I0428 19:33:53.944013 23225 net.cpp:53] Initializing net from parameters: 
name: "LeNet"
state {
  phase: TEST
}
layer {
  name: "mnist"
  type: "Data"
  top: "data"
  top: "label"
  include {
    phase: TEST
  }
  transform_param {
    scale: 0.00390625
  }
  data_param {
    source: "examples/mnist/mnist_test_lmdb"
    batch_size: 100
    backend: LMDB
  }
}
layer {
  name: "conv0"
  type: "Convolution"
  bottom: "data"
  top: "conv0"
  param {
    lr_mult: 1
  }
  param {
    lr_mult: 2
  }
  convolution_param {
    num_output: 25
    kernel_size: 5
    stride: 1
    weight_filler {
      type: "xavier"
    }
    bias_filler {
      type: "constant"
    }
  }
}
layer {
  name: "pool0"
  type: "Pooling"
  bottom: "conv0"
  top: "pool0"
  pooling_param {
    pool: MAX
    kernel_size: 2
    stride: 2
  }
}
layer {
  name: "ip1"
  type: "InnerProduct"
  bottom: "pool0"
  top: "ip1"
  param {
    lr_mult: 1
  }
  param {
    lr_mult: 2
  }
  inner_product_param {
    num_output: 50
    weight_filler {
      type: "xavier"
    }
    bias_filler {
      type: "constant"
    }
  }
}
layer {
  name: "relu1"
  type: "ReLU"
  bottom: "ip1"
  top: "ip1"
}
layer {
  name: "ip2"
  type: "InnerProduct"
  bottom: "ip1"
  top: "ip2"
  param {
    lr_mult: 1
  }
  param {
    lr_mult: 2
  }
  inner_product_param {
    num_output: 25
    weight_filler {
      type: "xavier"
    }
    bias_filler {
      type: "constant"
    }
  }
}
layer {
  name: "relu2"
  type: "ReLU"
  bottom: "ip2"
  top: "ip2"
}
layer {
  name: "ip3"
  type: "InnerProduct"
  bottom: "ip2"
  top: "ip3"
  param {
    lr_mult: 1
  }
  param {
    lr_mult: 2
  }
  inner_product_param {
    num_output: 10
    weight_filler {
      type: "xavier"
    }
    bias_filler {
      type: "constant"
    }
  }
}
layer {
  name: "relu3"
  type: "ReLU"
  bottom: "ip3"
  top: "ip3"
}
layer {
  name: "accuracy"
  type: "Accuracy"
  bottom: "ip3"
  bottom: "label"
  top: "accuracy"
  include {
    phase: TEST
  }
}
layer {
  name: "loss"
  type: "SoftmaxWithLoss"
  bottom: "ip3"
  bottom: "label"
  top: "loss"
}
I0428 19:33:53.944084 23225 layer_factory.hpp:77] Creating layer mnist
I0428 19:33:53.944134 23225 db_lmdb.cpp:35] Opened lmdb examples/mnist/mnist_test_lmdb
I0428 19:33:53.944147 23225 net.cpp:86] Creating Layer mnist
I0428 19:33:53.944154 23225 net.cpp:382] mnist -> data
I0428 19:33:53.944162 23225 net.cpp:382] mnist -> label
I0428 19:33:53.944259 23225 data_layer.cpp:45] output data size: 100,1,28,28
I0428 19:33:53.945698 23225 net.cpp:124] Setting up mnist
I0428 19:33:53.945713 23225 net.cpp:131] Top shape: 100 1 28 28 (78400)
I0428 19:33:53.945719 23225 net.cpp:131] Top shape: 100 (100)
I0428 19:33:53.945724 23225 net.cpp:139] Memory required for data: 314000
I0428 19:33:53.945727 23225 layer_factory.hpp:77] Creating layer label_mnist_1_split
I0428 19:33:53.945739 23225 net.cpp:86] Creating Layer label_mnist_1_split
I0428 19:33:53.945744 23225 net.cpp:408] label_mnist_1_split <- label
I0428 19:33:53.945749 23225 net.cpp:382] label_mnist_1_split -> label_mnist_1_split_0
I0428 19:33:53.945757 23225 net.cpp:382] label_mnist_1_split -> label_mnist_1_split_1
I0428 19:33:53.945814 23225 net.cpp:124] Setting up label_mnist_1_split
I0428 19:33:53.945822 23225 net.cpp:131] Top shape: 100 (100)
I0428 19:33:53.945825 23225 net.cpp:131] Top shape: 100 (100)
I0428 19:33:53.945829 23225 net.cpp:139] Memory required for data: 314800
I0428 19:33:53.945843 23225 layer_factory.hpp:77] Creating layer conv0
I0428 19:33:53.945854 23225 net.cpp:86] Creating Layer conv0
I0428 19:33:53.945858 23225 net.cpp:408] conv0 <- data
I0428 19:33:53.945864 23225 net.cpp:382] conv0 -> conv0
I0428 19:33:53.947710 23225 net.cpp:124] Setting up conv0
I0428 19:33:53.947727 23225 net.cpp:131] Top shape: 100 25 24 24 (1440000)
I0428 19:33:53.947731 23225 net.cpp:139] Memory required for data: 6074800
I0428 19:33:53.947742 23225 layer_factory.hpp:77] Creating layer pool0
I0428 19:33:53.947751 23225 net.cpp:86] Creating Layer pool0
I0428 19:33:53.947754 23225 net.cpp:408] pool0 <- conv0
I0428 19:33:53.947762 23225 net.cpp:382] pool0 -> pool0
I0428 19:33:53.947801 23225 net.cpp:124] Setting up pool0
I0428 19:33:53.947808 23225 net.cpp:131] Top shape: 100 25 12 12 (360000)
I0428 19:33:53.947810 23225 net.cpp:139] Memory required for data: 7514800
I0428 19:33:53.947814 23225 layer_factory.hpp:77] Creating layer ip1
I0428 19:33:53.947823 23225 net.cpp:86] Creating Layer ip1
I0428 19:33:53.947825 23225 net.cpp:408] ip1 <- pool0
I0428 19:33:53.947831 23225 net.cpp:382] ip1 -> ip1
I0428 19:33:53.950109 23225 net.cpp:124] Setting up ip1
I0428 19:33:53.950125 23225 net.cpp:131] Top shape: 100 50 (5000)
I0428 19:33:53.950129 23225 net.cpp:139] Memory required for data: 7534800
I0428 19:33:53.950148 23225 layer_factory.hpp:77] Creating layer relu1
I0428 19:33:53.950155 23225 net.cpp:86] Creating Layer relu1
I0428 19:33:53.950160 23225 net.cpp:408] relu1 <- ip1
I0428 19:33:53.950165 23225 net.cpp:369] relu1 -> ip1 (in-place)
I0428 19:33:53.950356 23225 net.cpp:124] Setting up relu1
I0428 19:33:53.950366 23225 net.cpp:131] Top shape: 100 50 (5000)
I0428 19:33:53.950371 23225 net.cpp:139] Memory required for data: 7554800
I0428 19:33:53.950374 23225 layer_factory.hpp:77] Creating layer ip2
I0428 19:33:53.950381 23225 net.cpp:86] Creating Layer ip2
I0428 19:33:53.950384 23225 net.cpp:408] ip2 <- ip1
I0428 19:33:53.950403 23225 net.cpp:382] ip2 -> ip2
I0428 19:33:53.950528 23225 net.cpp:124] Setting up ip2
I0428 19:33:53.950538 23225 net.cpp:131] Top shape: 100 25 (2500)
I0428 19:33:53.950541 23225 net.cpp:139] Memory required for data: 7564800
I0428 19:33:53.950551 23225 layer_factory.hpp:77] Creating layer relu2
I0428 19:33:53.950563 23225 net.cpp:86] Creating Layer relu2
I0428 19:33:53.950569 23225 net.cpp:408] relu2 <- ip2
I0428 19:33:53.950578 23225 net.cpp:369] relu2 -> ip2 (in-place)
I0428 19:33:53.951493 23225 net.cpp:124] Setting up relu2
I0428 19:33:53.951508 23225 net.cpp:131] Top shape: 100 25 (2500)
I0428 19:33:53.951511 23225 net.cpp:139] Memory required for data: 7574800
I0428 19:33:53.951515 23225 layer_factory.hpp:77] Creating layer ip3
I0428 19:33:53.951524 23225 net.cpp:86] Creating Layer ip3
I0428 19:33:53.951529 23225 net.cpp:408] ip3 <- ip2
I0428 19:33:53.951535 23225 net.cpp:382] ip3 -> ip3
I0428 19:33:53.951664 23225 net.cpp:124] Setting up ip3
I0428 19:33:53.951673 23225 net.cpp:131] Top shape: 100 10 (1000)
I0428 19:33:53.951678 23225 net.cpp:139] Memory required for data: 7578800
I0428 19:33:53.951684 23225 layer_factory.hpp:77] Creating layer relu3
I0428 19:33:53.951689 23225 net.cpp:86] Creating Layer relu3
I0428 19:33:53.951694 23225 net.cpp:408] relu3 <- ip3
I0428 19:33:53.951699 23225 net.cpp:369] relu3 -> ip3 (in-place)
I0428 19:33:53.951874 23225 net.cpp:124] Setting up relu3
I0428 19:33:53.951882 23225 net.cpp:131] Top shape: 100 10 (1000)
I0428 19:33:53.951886 23225 net.cpp:139] Memory required for data: 7582800
I0428 19:33:53.951890 23225 layer_factory.hpp:77] Creating layer ip3_relu3_0_split
I0428 19:33:53.951903 23225 net.cpp:86] Creating Layer ip3_relu3_0_split
I0428 19:33:53.951906 23225 net.cpp:408] ip3_relu3_0_split <- ip3
I0428 19:33:53.951918 23225 net.cpp:382] ip3_relu3_0_split -> ip3_relu3_0_split_0
I0428 19:33:53.951925 23225 net.cpp:382] ip3_relu3_0_split -> ip3_relu3_0_split_1
I0428 19:33:53.951963 23225 net.cpp:124] Setting up ip3_relu3_0_split
I0428 19:33:53.951969 23225 net.cpp:131] Top shape: 100 10 (1000)
I0428 19:33:53.951974 23225 net.cpp:131] Top shape: 100 10 (1000)
I0428 19:33:53.951990 23225 net.cpp:139] Memory required for data: 7590800
I0428 19:33:53.951995 23225 layer_factory.hpp:77] Creating layer accuracy
I0428 19:33:53.952002 23225 net.cpp:86] Creating Layer accuracy
I0428 19:33:53.952008 23225 net.cpp:408] accuracy <- ip3_relu3_0_split_0
I0428 19:33:53.952016 23225 net.cpp:408] accuracy <- label_mnist_1_split_0
I0428 19:33:53.952023 23225 net.cpp:382] accuracy -> accuracy
…
