…
I0428 19:53:40.359148 27819 net.cpp:296] The NetState phase (0) differed from the phase (1) specified by a rule in layer mnist
I0428 19:53:40.359180 27819 net.cpp:296] The NetState phase (0) differed from the phase (1) specified by a rule in layer accuracy
I0428 19:53:40.359267 27819 net.cpp:53] Initializing net from parameters: 
name: "LeNet"
state {
  phase: TRAIN
  level: 0
  stage: ""
}
layer {
  name: "mnist"
  type: "Data"
  top: "data"
  top: "label"
  include {
    phase: TRAIN
  }
  transform_param {
    scale: 0.00390625
  }
  data_param {
    source: "examples/mnist/mnist_train_lmdb"
    batch_size: 64
    backend: LMDB
  }
}
layer {
  name: "conv0"
  type: "Convolution"
  bottom: "data"
  top: "conv0"
  param {
    lr_mult: 1
  }
  param {
    lr_mult: 2
  }
  convolution_param {
    num_output: 5
    kernel_size: 5
    stride: 1
    weight_filler {
      type: "xavier"
    }
    bias_filler {
      type: "constant"
    }
  }
}
layer {
  name: "pool0"
  type: "Pooling"
  bottom: "conv0"
  top: "pool0"
  pooling_param {
    pool: MAX
    kernel_size: 2
    stride: 2
  }
}
layer {
  name: "conv1"
  type: "Convolution"
  bottom: "pool0"
  top: "conv1"
  param {
    lr_mult: 1
  }
  param {
    lr_mult: 2
  }
  convolution_param {
    num_output: 50
    kernel_size: 5
    stride: 1
    weight_filler {
      type: "xavier"
    }
    bias_filler {
      type: "constant"
    }
  }
}
layer {
  name: "pool1"
  type: "Pooling"
  bottom: "conv1"
  top: "pool1"
  pooling_param {
    pool: MAX
    kernel_size: 2
    stride: 2
  }
}
layer {
  name: "ip1"
  type: "InnerProduct"
  bottom: "pool1"
  top: "ip1"
  param {
    lr_mult: 1
  }
  param {
    lr_mult: 2
  }
  inner_product_param {
    num_output: 50
    weight_filler {
      type: "xavier"
    }
    bias_filler {
      type: "constant"
    }
  }
}
layer {
  name: "relu1"
  type: "ReLU"
  bottom: "ip1"
  top: "ip1"
}
layer {
  name: "ip2"
  type: "InnerProduct"
  bottom: "ip1"
  top: "ip2"
  param {
    lr_mult: 1
  }
  param {
    lr_mult: 2
  }
  inner_product_param {
    num_output: 10
    weight_filler {
      type: "xavier"
    }
    bias_filler {
      type: "constant"
    }
  }
}
layer {
  name: "relu2"
  type: "ReLU"
  bottom: "ip2"
  top: "ip2"
}
layer {
  name: "ip3"
  type: "InnerProduct"
  bottom: "ip2"
  top: "ip3"
  param {
    lr_mult: 1
  }
  param {
    lr_mult: 2
  }
  inner_product_param {
    num_output: 10
    weight_filler {
      type: "xavier"
    }
    bias_filler {
      type: "constant"
    }
  }
}
layer {
  name: "relu3"
  type: "ReLU"
  bottom: "ip3"
  top: "ip3"
}
layer {
  name: "loss"
  type: "SoftmaxWithLoss"
  bottom: "ip3"
  bottom: "label"
  top: "loss"
}
I0428 19:53:40.359334 27819 layer_factory.hpp:77] Creating layer mnist
I0428 19:53:40.359417 27819 db_lmdb.cpp:35] Opened lmdb examples/mnist/mnist_train_lmdb
I0428 19:53:40.359438 27819 net.cpp:86] Creating Layer mnist
I0428 19:53:40.359446 27819 net.cpp:382] mnist -> data
I0428 19:53:40.359467 27819 net.cpp:382] mnist -> label
I0428 19:53:40.360483 27819 data_layer.cpp:45] output data size: 64,1,28,28
I0428 19:53:40.362799 27819 net.cpp:124] Setting up mnist
I0428 19:53:40.362829 27819 net.cpp:131] Top shape: 64 1 28 28 (50176)
I0428 19:53:40.362838 27819 net.cpp:131] Top shape: 64 (64)
I0428 19:53:40.362840 27819 net.cpp:139] Memory required for data: 200960
I0428 19:53:40.362846 27819 layer_factory.hpp:77] Creating layer conv0
I0428 19:53:40.362860 27819 net.cpp:86] Creating Layer conv0
I0428 19:53:40.362877 27819 net.cpp:408] conv0 <- data
I0428 19:53:40.362890 27819 net.cpp:382] conv0 -> conv0
I0428 19:53:40.595304 27819 net.cpp:124] Setting up conv0
I0428 19:53:40.595329 27819 net.cpp:131] Top shape: 64 5 24 24 (184320)
I0428 19:53:40.595333 27819 net.cpp:139] Memory required for data: 938240
I0428 19:53:40.595347 27819 layer_factory.hpp:77] Creating layer pool0
I0428 19:53:40.595360 27819 net.cpp:86] Creating Layer pool0
I0428 19:53:40.595365 27819 net.cpp:408] pool0 <- conv0
I0428 19:53:40.595369 27819 net.cpp:382] pool0 -> pool0
I0428 19:53:40.595427 27819 net.cpp:124] Setting up pool0
I0428 19:53:40.595432 27819 net.cpp:131] Top shape: 64 5 12 12 (46080)
I0428 19:53:40.595435 27819 net.cpp:139] Memory required for data: 1122560
I0428 19:53:40.595438 27819 layer_factory.hpp:77] Creating layer conv1
I0428 19:53:40.595448 27819 net.cpp:86] Creating Layer conv1
I0428 19:53:40.595451 27819 net.cpp:408] conv1 <- pool0
I0428 19:53:40.595455 27819 net.cpp:382] conv1 -> conv1
I0428 19:53:40.598239 27819 net.cpp:124] Setting up conv1
I0428 19:53:40.598269 27819 net.cpp:131] Top shape: 64 50 8 8 (204800)
I0428 19:53:40.598274 27819 net.cpp:139] Memory required for data: 1941760
I0428 19:53:40.598282 27819 layer_factory.hpp:77] Creating layer pool1
I0428 19:53:40.598290 27819 net.cpp:86] Creating Layer pool1
I0428 19:53:40.598294 27819 net.cpp:408] pool1 <- conv1
I0428 19:53:40.598299 27819 net.cpp:382] pool1 -> pool1
I0428 19:53:40.598351 27819 net.cpp:124] Setting up pool1
I0428 19:53:40.598357 27819 net.cpp:131] Top shape: 64 50 4 4 (51200)
I0428 19:53:40.598361 27819 net.cpp:139] Memory required for data: 2146560
I0428 19:53:40.598363 27819 layer_factory.hpp:77] Creating layer ip1
I0428 19:53:40.598371 27819 net.cpp:86] Creating Layer ip1
I0428 19:53:40.598387 27819 net.cpp:408] ip1 <- pool1
I0428 19:53:40.598392 27819 net.cpp:382] ip1 -> ip1
I0428 19:53:40.598748 27819 net.cpp:124] Setting up ip1
I0428 19:53:40.598755 27819 net.cpp:131] Top shape: 64 50 (3200)
I0428 19:53:40.598774 27819 net.cpp:139] Memory required for data: 2159360
I0428 19:53:40.598781 27819 layer_factory.hpp:77] Creating layer relu1
I0428 19:53:40.598800 27819 net.cpp:86] Creating Layer relu1
I0428 19:53:40.598804 27819 net.cpp:408] relu1 <- ip1
I0428 19:53:40.598809 27819 net.cpp:369] relu1 -> ip1 (in-place)
I0428 19:53:40.598971 27819 net.cpp:124] Setting up relu1
I0428 19:53:40.598979 27819 net.cpp:131] Top shape: 64 50 (3200)
I0428 19:53:40.598983 27819 net.cpp:139] Memory required for data: 2172160
I0428 19:53:40.598985 27819 layer_factory.hpp:77] Creating layer ip2
I0428 19:53:40.598991 27819 net.cpp:86] Creating Layer ip2
I0428 19:53:40.598994 27819 net.cpp:408] ip2 <- ip1
I0428 19:53:40.598999 27819 net.cpp:382] ip2 -> ip2
I0428 19:53:40.599086 27819 net.cpp:124] Setting up ip2
I0428 19:53:40.599092 27819 net.cpp:131] Top shape: 64 10 (640)
I0428 19:53:40.599095 27819 net.cpp:139] Memory required for data: 2174720
I0428 19:53:40.599100 27819 layer_factory.hpp:77] Creating layer relu2
I0428 19:53:40.599105 27819 net.cpp:86] Creating Layer relu2
I0428 19:53:40.599108 27819 net.cpp:408] relu2 <- ip2
I0428 19:53:40.599112 27819 net.cpp:369] relu2 -> ip2 (in-place)
I0428 19:53:40.599887 27819 net.cpp:124] Setting up relu2
I0428 19:53:40.599898 27819 net.cpp:131] Top shape: 64 10 (640)
I0428 19:53:40.599917 27819 net.cpp:139] Memory required for data: 2177280
I0428 19:53:40.599921 27819 layer_factory.hpp:77] Creating layer ip3
I0428 19:53:40.599927 27819 net.cpp:86] Creating Layer ip3
I0428 19:53:40.599931 27819 net.cpp:408] ip3 <- ip2
I0428 19:53:40.599936 27819 net.cpp:382] ip3 -> ip3
I0428 19:53:40.600026 27819 net.cpp:124] Setting up ip3
I0428 19:53:40.600034 27819 net.cpp:131] Top shape: 64 10 (640)
I0428 19:53:40.600036 27819 net.cpp:139] Memory required for data: 2179840
I0428 19:53:40.600044 27819 layer_factory.hpp:77] Creating layer relu3
I0428 19:53:40.600049 27819 net.cpp:86] Creating Layer relu3
I0428 19:53:40.600052 27819 net.cpp:408] relu3 <- ip3
I0428 19:53:40.600055 27819 net.cpp:369] relu3 -> ip3 (in-place)
I0428 19:53:40.600225 27819 net.cpp:124] Setting up relu3
I0428 19:53:40.600234 27819 net.cpp:131] Top shape: 64 10 (640)
I0428 19:53:40.600237 27819 net.cpp:139] Memory required for data: 2182400
I0428 19:53:40.600240 27819 layer_factory.hpp:77] Creating layer loss
I0428 19:53:40.600246 27819 net.cpp:86] Creating Layer loss
I0428 19:53:40.600250 27819 net.cpp:408] loss <- ip3
I0428 19:53:40.600253 27819 net.cpp:408] loss <- label
I0428 19:53:40.600258 27819 net.cpp:382] loss -> loss
I0428 19:53:40.600275 27819 layer_factory.hpp:77] Creating layer loss
…
I0428 19:53:40.600976 27819 solver.cpp:173] Creating test net (#0) specified by net file: ECE595/mnist/train_test/var_everything2/lenet_train_test693.prototxt
I0428 19:53:40.601021 27819 net.cpp:296] The NetState phase (1) differed from the phase (0) specified by a rule in layer mnist
I0428 19:53:40.601127 27819 net.cpp:53] Initializing net from parameters: 
name: "LeNet"
state {
  phase: TEST
}
layer {
  name: "mnist"
  type: "Data"
  top: "data"
  top: "label"
  include {
    phase: TEST
  }
  transform_param {
    scale: 0.00390625
  }
  data_param {
    source: "examples/mnist/mnist_test_lmdb"
    batch_size: 100
    backend: LMDB
  }
}
layer {
  name: "conv0"
  type: "Convolution"
  bottom: "data"
  top: "conv0"
  param {
    lr_mult: 1
  }
  param {
    lr_mult: 2
  }
  convolution_param {
    num_output: 5
    kernel_size: 5
    stride: 1
    weight_filler {
      type: "xavier"
    }
    bias_filler {
      type: "constant"
    }
  }
}
layer {
  name: "pool0"
  type: "Pooling"
  bottom: "conv0"
  top: "pool0"
  pooling_param {
    pool: MAX
    kernel_size: 2
    stride: 2
  }
}
layer {
  name: "conv1"
  type: "Convolution"
  bottom: "pool0"
  top: "conv1"
  param {
    lr_mult: 1
  }
  param {
    lr_mult: 2
  }
  convolution_param {
    num_output: 50
    kernel_size: 5
    stride: 1
    weight_filler {
      type: "xavier"
    }
    bias_filler {
      type: "constant"
    }
  }
}
layer {
  name: "pool1"
  type: "Pooling"
  bottom: "conv1"
  top: "pool1"
  pooling_param {
    pool: MAX
    kernel_size: 2
    stride: 2
  }
}
layer {
  name: "ip1"
  type: "InnerProduct"
  bottom: "pool1"
  top: "ip1"
  param {
    lr_mult: 1
  }
  param {
    lr_mult: 2
  }
  inner_product_param {
    num_output: 50
    weight_filler {
      type: "xavier"
    }
    bias_filler {
      type: "constant"
    }
  }
}
layer {
  name: "relu1"
  type: "ReLU"
  bottom: "ip1"
  top: "ip1"
}
layer {
  name: "ip2"
  type: "InnerProduct"
  bottom: "ip1"
  top: "ip2"
  param {
    lr_mult: 1
  }
  param {
    lr_mult: 2
  }
  inner_product_param {
    num_output: 10
    weight_filler {
      type: "xavier"
    }
    bias_filler {
      type: "constant"
    }
  }
}
layer {
  name: "relu2"
  type: "ReLU"
  bottom: "ip2"
  top: "ip2"
}
layer {
  name: "ip3"
  type: "InnerProduct"
  bottom: "ip2"
  top: "ip3"
  param {
    lr_mult: 1
  }
  param {
    lr_mult: 2
  }
  inner_product_param {
    num_output: 10
    weight_filler {
      type: "xavier"
    }
    bias_filler {
      type: "constant"
    }
  }
}
layer {
  name: "relu3"
  type: "ReLU"
  bottom: "ip3"
  top: "ip3"
}
layer {
  name: "accuracy"
  type: "Accuracy"
  bottom: "ip3"
  bottom: "label"
  top: "accuracy"
  include {
    phase: TEST
  }
}
layer {
  name: "loss"
  type: "SoftmaxWithLoss"
  bottom: "ip3"
  bottom: "label"
  top: "loss"
}
I0428 19:53:40.601204 27819 layer_factory.hpp:77] Creating layer mnist
I0428 19:53:40.601249 27819 db_lmdb.cpp:35] Opened lmdb examples/mnist/mnist_test_lmdb
I0428 19:53:40.601263 27819 net.cpp:86] Creating Layer mnist
I0428 19:53:40.601269 27819 net.cpp:382] mnist -> data
I0428 19:53:40.601275 27819 net.cpp:382] mnist -> label
I0428 19:53:40.601369 27819 data_layer.cpp:45] output data size: 100,1,28,28
I0428 19:53:40.603359 27819 net.cpp:124] Setting up mnist
I0428 19:53:40.603389 27819 net.cpp:131] Top shape: 100 1 28 28 (78400)
I0428 19:53:40.603394 27819 net.cpp:131] Top shape: 100 (100)
I0428 19:53:40.603396 27819 net.cpp:139] Memory required for data: 314000
I0428 19:53:40.603400 27819 layer_factory.hpp:77] Creating layer label_mnist_1_split
I0428 19:53:40.603446 27819 net.cpp:86] Creating Layer label_mnist_1_split
I0428 19:53:40.603449 27819 net.cpp:408] label_mnist_1_split <- label
I0428 19:53:40.603454 27819 net.cpp:382] label_mnist_1_split -> label_mnist_1_split_0
I0428 19:53:40.603461 27819 net.cpp:382] label_mnist_1_split -> label_mnist_1_split_1
I0428 19:53:40.603504 27819 net.cpp:124] Setting up label_mnist_1_split
I0428 19:53:40.603509 27819 net.cpp:131] Top shape: 100 (100)
I0428 19:53:40.603513 27819 net.cpp:131] Top shape: 100 (100)
I0428 19:53:40.603515 27819 net.cpp:139] Memory required for data: 314800
I0428 19:53:40.603518 27819 layer_factory.hpp:77] Creating layer conv0
I0428 19:53:40.603526 27819 net.cpp:86] Creating Layer conv0
I0428 19:53:40.603529 27819 net.cpp:408] conv0 <- data
I0428 19:53:40.603534 27819 net.cpp:382] conv0 -> conv0
I0428 19:53:40.605269 27819 net.cpp:124] Setting up conv0
I0428 19:53:40.605283 27819 net.cpp:131] Top shape: 100 5 24 24 (288000)
I0428 19:53:40.605288 27819 net.cpp:139] Memory required for data: 1466800
I0428 19:53:40.605295 27819 layer_factory.hpp:77] Creating layer pool0
I0428 19:53:40.605301 27819 net.cpp:86] Creating Layer pool0
I0428 19:53:40.605320 27819 net.cpp:408] pool0 <- conv0
I0428 19:53:40.605325 27819 net.cpp:382] pool0 -> pool0
I0428 19:53:40.605360 27819 net.cpp:124] Setting up pool0
I0428 19:53:40.605365 27819 net.cpp:131] Top shape: 100 5 12 12 (72000)
I0428 19:53:40.605367 27819 net.cpp:139] Memory required for data: 1754800
I0428 19:53:40.605370 27819 layer_factory.hpp:77] Creating layer conv1
I0428 19:53:40.605379 27819 net.cpp:86] Creating Layer conv1
I0428 19:53:40.605382 27819 net.cpp:408] conv1 <- pool0
I0428 19:53:40.605387 27819 net.cpp:382] conv1 -> conv1
I0428 19:53:40.606907 27819 net.cpp:124] Setting up conv1
I0428 19:53:40.606920 27819 net.cpp:131] Top shape: 100 50 8 8 (320000)
I0428 19:53:40.606925 27819 net.cpp:139] Memory required for data: 3034800
I0428 19:53:40.606969 27819 layer_factory.hpp:77] Creating layer pool1
I0428 19:53:40.606981 27819 net.cpp:86] Creating Layer pool1
I0428 19:53:40.606986 27819 net.cpp:408] pool1 <- conv1
I0428 19:53:40.606990 27819 net.cpp:382] pool1 -> pool1
I0428 19:53:40.607025 27819 net.cpp:124] Setting up pool1
I0428 19:53:40.607031 27819 net.cpp:131] Top shape: 100 50 4 4 (80000)
I0428 19:53:40.607034 27819 net.cpp:139] Memory required for data: 3354800
I0428 19:53:40.607038 27819 layer_factory.hpp:77] Creating layer ip1
I0428 19:53:40.607043 27819 net.cpp:86] Creating Layer ip1
I0428 19:53:40.607048 27819 net.cpp:408] ip1 <- pool1
I0428 19:53:40.607059 27819 net.cpp:382] ip1 -> ip1
I0428 19:53:40.607436 27819 net.cpp:124] Setting up ip1
I0428 19:53:40.607445 27819 net.cpp:131] Top shape: 100 50 (5000)
I0428 19:53:40.607465 27819 net.cpp:139] Memory required for data: 3374800
I0428 19:53:40.607472 27819 layer_factory.hpp:77] Creating layer relu1
I0428 19:53:40.607477 27819 net.cpp:86] Creating Layer relu1
I0428 19:53:40.607481 27819 net.cpp:408] relu1 <- ip1
I0428 19:53:40.607486 27819 net.cpp:369] relu1 -> ip1 (in-place)
I0428 19:53:40.607650 27819 net.cpp:124] Setting up relu1
I0428 19:53:40.607657 27819 net.cpp:131] Top shape: 100 50 (5000)
I0428 19:53:40.607667 27819 net.cpp:139] Memory required for data: 3394800
I0428 19:53:40.607671 27819 layer_factory.hpp:77] Creating layer ip2
I0428 19:53:40.607677 27819 net.cpp:86] Creating Layer ip2
I0428 19:53:40.607681 27819 net.cpp:408] ip2 <- ip1
I0428 19:53:40.607686 27819 net.cpp:382] ip2 -> ip2
I0428 19:53:40.607782 27819 net.cpp:124] Setting up ip2
I0428 19:53:40.607789 27819 net.cpp:131] Top shape: 100 10 (1000)
I0428 19:53:40.607792 27819 net.cpp:139] Memory required for data: 3398800
I0428 19:53:40.607797 27819 layer_factory.hpp:77] Creating layer relu2
I0428 19:53:40.607801 27819 net.cpp:86] Creating Layer relu2
I0428 19:53:40.607805 27819 net.cpp:408] relu2 <- ip2
I0428 19:53:40.607808 27819 net.cpp:369] relu2 -> ip2 (in-place)
I0428 19:53:40.608077 27819 net.cpp:124] Setting up relu2
I0428 19:53:40.608085 27819 net.cpp:131] Top shape: 100 10 (1000)
I0428 19:53:40.608088 27819 net.cpp:139] Memory required for data: 3402800
I0428 19:53:40.608091 27819 layer_factory.hpp:77] Creating layer ip3
I0428 19:53:40.608096 27819 net.cpp:86] Creating Layer ip3
I0428 19:53:40.608099 27819 net.cpp:408] ip3 <- ip2
I0428 19:53:40.608104 27819 net.cpp:382] ip3 -> ip3
I0428 19:53:40.608206 27819 net.cpp:124] Setting up ip3
I0428 19:53:40.608213 27819 net.cpp:131] Top shape: 100 10 (1000)
I0428 19:53:40.608217 27819 net.cpp:139] Memory required for data: 3406800
I0428 19:53:40.608224 27819 layer_factory.hpp:77] Creating layer relu3
I0428 19:53:40.608229 27819 net.cpp:86] Creating Layer relu3
I0428 19:53:40.608238 27819 net.cpp:408] relu3 <- ip3
I0428 19:53:40.608243 27819 net.cpp:369] relu3 -> ip3 (in-place)
I0428 19:53:40.609079 27819 net.cpp:124] Setting up relu3
I0428 19:53:40.609092 27819 net.cpp:131] Top shape: 100 10 (1000)
I0428 19:53:40.609097 27819 net.cpp:139] Memory required for data: 3410800
I0428 19:53:40.609100 27819 layer_factory.hpp:77] Creating layer ip3_relu3_0_split
I0428 19:53:40.609105 27819 net.cpp:86] Creating Layer ip3_relu3_0_split
I0428 19:53:40.609108 27819 net.cpp:408] ip3_relu3_0_split <- ip3
I0428 19:53:40.609113 27819 net.cpp:382] ip3_relu3_0_split -> ip3_relu3_0_split_0
I0428 19:53:40.609119 27819 net.cpp:382] ip3_relu3_0_split -> ip3_relu3_0_split_1
I0428 19:53:40.609205 27819 net.cpp:124] Setting up ip3_relu3_0_split
I0428 19:53:40.609212 27819 net.cpp:131] Top shape: 100 10 (1000)
I0428 19:53:40.609216 27819 net.cpp:131] Top shape: 100 10 (1000)
I0428 19:53:40.609218 27819 net.cpp:139] Memory required for data: 3418800
I0428 19:53:40.609221 27819 layer_factory.hpp:77] Creating layer accuracy
I0428 19:53:40.609233 27819 net.cpp:86] Creating Layer accuracy
I0428 19:53:40.609237 27819 net.cpp:408] accuracy <- ip3_relu3_0_split_0
I0428 19:53:40.609241 27819 net.cpp:408] accuracy <- label_mnist_1_split_0
I0428 19:53:40.609246 27819 net.cpp:382] accuracy -> accuracy
…
