…
I0428 19:28:26.320597 21624 net.cpp:296] The NetState phase (0) differed from the phase (1) specified by a rule in layer mnist
I0428 19:28:26.320618 21624 net.cpp:296] The NetState phase (0) differed from the phase (1) specified by a rule in layer accuracy
I0428 19:28:26.320701 21624 net.cpp:53] Initializing net from parameters: 
name: "LeNet"
state {
  phase: TRAIN
  level: 0
  stage: ""
}
layer {
  name: "mnist"
  type: "Data"
  top: "data"
  top: "label"
  include {
    phase: TRAIN
  }
  transform_param {
    scale: 0.00390625
  }
  data_param {
    source: "examples/mnist/mnist_train_lmdb"
    batch_size: 64
    backend: LMDB
  }
}
layer {
  name: "ip1"
  type: "InnerProduct"
  bottom: "data"
  top: "ip1"
  param {
    lr_mult: 1
  }
  param {
    lr_mult: 2
  }
  inner_product_param {
    num_output: 25
    weight_filler {
      type: "xavier"
    }
    bias_filler {
      type: "constant"
    }
  }
}
layer {
  name: "relu1"
  type: "ReLU"
  bottom: "ip1"
  top: "ip1"
}
layer {
  name: "ip2"
  type: "InnerProduct"
  bottom: "ip1"
  top: "ip2"
  param {
    lr_mult: 1
  }
  param {
    lr_mult: 2
  }
  inner_product_param {
    num_output: 25
    weight_filler {
      type: "xavier"
    }
    bias_filler {
      type: "constant"
    }
  }
}
layer {
  name: "relu2"
  type: "ReLU"
  bottom: "ip2"
  top: "ip2"
}
layer {
  name: "ip3"
  type: "InnerProduct"
  bottom: "ip2"
  top: "ip3"
  param {
    lr_mult: 1
  }
  param {
    lr_mult: 2
  }
  inner_product_param {
    num_output: 10
    weight_filler {
      type: "xavier"
    }
    bias_filler {
      type: "constant"
    }
  }
}
layer {
  name: "relu3"
  type: "ReLU"
  bottom: "ip3"
  top: "ip3"
}
layer {
  name: "loss"
  type: "SoftmaxWithLoss"
  bottom: "ip3"
  bottom: "label"
  top: "loss"
}
I0428 19:28:26.320796 21624 layer_factory.hpp:77] Creating layer mnist
I0428 19:28:26.320932 21624 db_lmdb.cpp:35] Opened lmdb examples/mnist/mnist_train_lmdb
I0428 19:28:26.320967 21624 net.cpp:86] Creating Layer mnist
I0428 19:28:26.320979 21624 net.cpp:382] mnist -> data
I0428 19:28:26.321009 21624 net.cpp:382] mnist -> label
I0428 19:28:26.322197 21624 data_layer.cpp:45] output data size: 64,1,28,28
I0428 19:28:26.324677 21624 net.cpp:124] Setting up mnist
I0428 19:28:26.324698 21624 net.cpp:131] Top shape: 64 1 28 28 (50176)
I0428 19:28:26.324708 21624 net.cpp:131] Top shape: 64 (64)
I0428 19:28:26.324714 21624 net.cpp:139] Memory required for data: 200960
I0428 19:28:26.324725 21624 layer_factory.hpp:77] Creating layer ip1
I0428 19:28:26.324743 21624 net.cpp:86] Creating Layer ip1
I0428 19:28:26.324755 21624 net.cpp:408] ip1 <- data
I0428 19:28:26.324774 21624 net.cpp:382] ip1 -> ip1
I0428 19:28:26.325132 21624 net.cpp:124] Setting up ip1
I0428 19:28:26.325145 21624 net.cpp:131] Top shape: 64 25 (1600)
I0428 19:28:26.325151 21624 net.cpp:139] Memory required for data: 207360
I0428 19:28:26.325172 21624 layer_factory.hpp:77] Creating layer relu1
I0428 19:28:26.325189 21624 net.cpp:86] Creating Layer relu1
I0428 19:28:26.325197 21624 net.cpp:408] relu1 <- ip1
I0428 19:28:26.325206 21624 net.cpp:369] relu1 -> ip1 (in-place)
I0428 19:28:26.607604 21624 net.cpp:124] Setting up relu1
I0428 19:28:26.607633 21624 net.cpp:131] Top shape: 64 25 (1600)
I0428 19:28:26.607638 21624 net.cpp:139] Memory required for data: 213760
I0428 19:28:26.607645 21624 layer_factory.hpp:77] Creating layer ip2
I0428 19:28:26.607662 21624 net.cpp:86] Creating Layer ip2
I0428 19:28:26.607686 21624 net.cpp:408] ip2 <- ip1
I0428 19:28:26.607698 21624 net.cpp:382] ip2 -> ip2
I0428 19:28:26.608738 21624 net.cpp:124] Setting up ip2
I0428 19:28:26.608753 21624 net.cpp:131] Top shape: 64 25 (1600)
I0428 19:28:26.608759 21624 net.cpp:139] Memory required for data: 220160
I0428 19:28:26.608775 21624 layer_factory.hpp:77] Creating layer relu2
I0428 19:28:26.608793 21624 net.cpp:86] Creating Layer relu2
I0428 19:28:26.608798 21624 net.cpp:408] relu2 <- ip2
I0428 19:28:26.608808 21624 net.cpp:369] relu2 -> ip2 (in-place)
I0428 19:28:26.609650 21624 net.cpp:124] Setting up relu2
I0428 19:28:26.609665 21624 net.cpp:131] Top shape: 64 25 (1600)
I0428 19:28:26.609671 21624 net.cpp:139] Memory required for data: 226560
I0428 19:28:26.609676 21624 layer_factory.hpp:77] Creating layer ip3
I0428 19:28:26.609688 21624 net.cpp:86] Creating Layer ip3
I0428 19:28:26.609694 21624 net.cpp:408] ip3 <- ip2
I0428 19:28:26.609702 21624 net.cpp:382] ip3 -> ip3
I0428 19:28:26.609807 21624 net.cpp:124] Setting up ip3
I0428 19:28:26.609817 21624 net.cpp:131] Top shape: 64 10 (640)
I0428 19:28:26.609822 21624 net.cpp:139] Memory required for data: 229120
I0428 19:28:26.609834 21624 layer_factory.hpp:77] Creating layer relu3
I0428 19:28:26.609845 21624 net.cpp:86] Creating Layer relu3
I0428 19:28:26.609851 21624 net.cpp:408] relu3 <- ip3
I0428 19:28:26.609858 21624 net.cpp:369] relu3 -> ip3 (in-place)
I0428 19:28:26.610013 21624 net.cpp:124] Setting up relu3
I0428 19:28:26.610023 21624 net.cpp:131] Top shape: 64 10 (640)
I0428 19:28:26.610028 21624 net.cpp:139] Memory required for data: 231680
I0428 19:28:26.610033 21624 layer_factory.hpp:77] Creating layer loss
I0428 19:28:26.610043 21624 net.cpp:86] Creating Layer loss
I0428 19:28:26.610047 21624 net.cpp:408] loss <- ip3
I0428 19:28:26.610054 21624 net.cpp:408] loss <- label
I0428 19:28:26.610062 21624 net.cpp:382] loss -> loss
I0428 19:28:26.610086 21624 layer_factory.hpp:77] Creating layer loss
…
I0428 19:28:26.610690 21624 solver.cpp:173] Creating test net (#0) specified by net file: ECE595/mnist/train_test/var_everything2/lenet_train_test25.prototxt
I0428 19:28:26.610718 21624 net.cpp:296] The NetState phase (1) differed from the phase (0) specified by a rule in layer mnist
I0428 19:28:26.610790 21624 net.cpp:53] Initializing net from parameters: 
name: "LeNet"
state {
  phase: TEST
}
layer {
  name: "mnist"
  type: "Data"
  top: "data"
  top: "label"
  include {
    phase: TEST
  }
  transform_param {
    scale: 0.00390625
  }
  data_param {
    source: "examples/mnist/mnist_test_lmdb"
    batch_size: 100
    backend: LMDB
  }
}
layer {
  name: "ip1"
  type: "InnerProduct"
  bottom: "data"
  top: "ip1"
  param {
    lr_mult: 1
  }
  param {
    lr_mult: 2
  }
  inner_product_param {
    num_output: 25
    weight_filler {
      type: "xavier"
    }
    bias_filler {
      type: "constant"
    }
  }
}
layer {
  name: "relu1"
  type: "ReLU"
  bottom: "ip1"
  top: "ip1"
}
layer {
  name: "ip2"
  type: "InnerProduct"
  bottom: "ip1"
  top: "ip2"
  param {
    lr_mult: 1
  }
  param {
    lr_mult: 2
  }
  inner_product_param {
    num_output: 25
    weight_filler {
      type: "xavier"
    }
    bias_filler {
      type: "constant"
    }
  }
}
layer {
  name: "relu2"
  type: "ReLU"
  bottom: "ip2"
  top: "ip2"
}
layer {
  name: "ip3"
  type: "InnerProduct"
  bottom: "ip2"
  top: "ip3"
  param {
    lr_mult: 1
  }
  param {
    lr_mult: 2
  }
  inner_product_param {
    num_output: 10
    weight_filler {
      type: "xavier"
    }
    bias_filler {
      type: "constant"
    }
  }
}
layer {
  name: "relu3"
  type: "ReLU"
  bottom: "ip3"
  top: "ip3"
}
layer {
  name: "accuracy"
  type: "Accuracy"
  bottom: "ip3"
  bottom: "label"
  top: "accuracy"
  include {
    phase: TEST
  }
}
layer {
  name: "loss"
  type: "SoftmaxWithLoss"
  bottom: "ip3"
  bottom: "label"
  top: "loss"
}
I0428 19:28:26.610885 21624 layer_factory.hpp:77] Creating layer mnist
I0428 19:28:26.610944 21624 db_lmdb.cpp:35] Opened lmdb examples/mnist/mnist_test_lmdb
I0428 19:28:26.610961 21624 net.cpp:86] Creating Layer mnist
I0428 19:28:26.610968 21624 net.cpp:382] mnist -> data
I0428 19:28:26.610980 21624 net.cpp:382] mnist -> label
I0428 19:28:26.611098 21624 data_layer.cpp:45] output data size: 100,1,28,28
I0428 19:28:26.613046 21624 net.cpp:124] Setting up mnist
I0428 19:28:26.613061 21624 net.cpp:131] Top shape: 100 1 28 28 (78400)
I0428 19:28:26.613070 21624 net.cpp:131] Top shape: 100 (100)
I0428 19:28:26.613075 21624 net.cpp:139] Memory required for data: 314000
I0428 19:28:26.613081 21624 layer_factory.hpp:77] Creating layer label_mnist_1_split
I0428 19:28:26.613095 21624 net.cpp:86] Creating Layer label_mnist_1_split
I0428 19:28:26.613101 21624 net.cpp:408] label_mnist_1_split <- label
I0428 19:28:26.613109 21624 net.cpp:382] label_mnist_1_split -> label_mnist_1_split_0
I0428 19:28:26.613121 21624 net.cpp:382] label_mnist_1_split -> label_mnist_1_split_1
I0428 19:28:26.613191 21624 net.cpp:124] Setting up label_mnist_1_split
I0428 19:28:26.613200 21624 net.cpp:131] Top shape: 100 (100)
I0428 19:28:26.613206 21624 net.cpp:131] Top shape: 100 (100)
I0428 19:28:26.613211 21624 net.cpp:139] Memory required for data: 314800
I0428 19:28:26.613216 21624 layer_factory.hpp:77] Creating layer ip1
I0428 19:28:26.613227 21624 net.cpp:86] Creating Layer ip1
I0428 19:28:26.613232 21624 net.cpp:408] ip1 <- data
I0428 19:28:26.613240 21624 net.cpp:382] ip1 -> ip1
I0428 19:28:26.613500 21624 net.cpp:124] Setting up ip1
I0428 19:28:26.613510 21624 net.cpp:131] Top shape: 100 25 (2500)
I0428 19:28:26.613517 21624 net.cpp:139] Memory required for data: 324800
I0428 19:28:26.613530 21624 layer_factory.hpp:77] Creating layer relu1
I0428 19:28:26.613538 21624 net.cpp:86] Creating Layer relu1
I0428 19:28:26.613560 21624 net.cpp:408] relu1 <- ip1
I0428 19:28:26.613569 21624 net.cpp:369] relu1 -> ip1 (in-place)
I0428 19:28:26.614478 21624 net.cpp:124] Setting up relu1
I0428 19:28:26.614493 21624 net.cpp:131] Top shape: 100 25 (2500)
I0428 19:28:26.614498 21624 net.cpp:139] Memory required for data: 334800
I0428 19:28:26.614504 21624 layer_factory.hpp:77] Creating layer ip2
I0428 19:28:26.614516 21624 net.cpp:86] Creating Layer ip2
I0428 19:28:26.614521 21624 net.cpp:408] ip2 <- ip1
I0428 19:28:26.614529 21624 net.cpp:382] ip2 -> ip2
I0428 19:28:26.614630 21624 net.cpp:124] Setting up ip2
I0428 19:28:26.614640 21624 net.cpp:131] Top shape: 100 25 (2500)
I0428 19:28:26.614645 21624 net.cpp:139] Memory required for data: 344800
I0428 19:28:26.614657 21624 layer_factory.hpp:77] Creating layer relu2
I0428 19:28:26.614665 21624 net.cpp:86] Creating Layer relu2
I0428 19:28:26.614672 21624 net.cpp:408] relu2 <- ip2
I0428 19:28:26.614681 21624 net.cpp:369] relu2 -> ip2 (in-place)
I0428 19:28:26.614838 21624 net.cpp:124] Setting up relu2
I0428 19:28:26.614848 21624 net.cpp:131] Top shape: 100 25 (2500)
I0428 19:28:26.614853 21624 net.cpp:139] Memory required for data: 354800
I0428 19:28:26.614858 21624 layer_factory.hpp:77] Creating layer ip3
I0428 19:28:26.614867 21624 net.cpp:86] Creating Layer ip3
I0428 19:28:26.614872 21624 net.cpp:408] ip3 <- ip2
I0428 19:28:26.614881 21624 net.cpp:382] ip3 -> ip3
I0428 19:28:26.614989 21624 net.cpp:124] Setting up ip3
I0428 19:28:26.614997 21624 net.cpp:131] Top shape: 100 10 (1000)
I0428 19:28:26.615002 21624 net.cpp:139] Memory required for data: 358800
I0428 19:28:26.615015 21624 layer_factory.hpp:77] Creating layer relu3
I0428 19:28:26.615022 21624 net.cpp:86] Creating Layer relu3
I0428 19:28:26.615027 21624 net.cpp:408] relu3 <- ip3
I0428 19:28:26.615034 21624 net.cpp:369] relu3 -> ip3 (in-place)
I0428 19:28:26.615186 21624 net.cpp:124] Setting up relu3
I0428 19:28:26.615196 21624 net.cpp:131] Top shape: 100 10 (1000)
I0428 19:28:26.615201 21624 net.cpp:139] Memory required for data: 362800
I0428 19:28:26.615206 21624 layer_factory.hpp:77] Creating layer ip3_relu3_0_split
I0428 19:28:26.615216 21624 net.cpp:86] Creating Layer ip3_relu3_0_split
I0428 19:28:26.615222 21624 net.cpp:408] ip3_relu3_0_split <- ip3
I0428 19:28:26.615231 21624 net.cpp:382] ip3_relu3_0_split -> ip3_relu3_0_split_0
I0428 19:28:26.615239 21624 net.cpp:382] ip3_relu3_0_split -> ip3_relu3_0_split_1
I0428 19:28:26.615329 21624 net.cpp:124] Setting up ip3_relu3_0_split
I0428 19:28:26.615337 21624 net.cpp:131] Top shape: 100 10 (1000)
I0428 19:28:26.615345 21624 net.cpp:131] Top shape: 100 10 (1000)
I0428 19:28:26.615350 21624 net.cpp:139] Memory required for data: 370800
I0428 19:28:26.615355 21624 layer_factory.hpp:77] Creating layer accuracy
I0428 19:28:26.615367 21624 net.cpp:86] Creating Layer accuracy
I0428 19:28:26.615373 21624 net.cpp:408] accuracy <- ip3_relu3_0_split_0
I0428 19:28:26.615381 21624 net.cpp:408] accuracy <- label_mnist_1_split_0
I0428 19:28:26.615388 21624 net.cpp:382] accuracy -> accuracy
…
