…
I0428 20:11:45.987025 32135 net.cpp:296] The NetState phase (0) differed from the phase (1) specified by a rule in layer mnist
I0428 20:11:45.987056 32135 net.cpp:296] The NetState phase (0) differed from the phase (1) specified by a rule in layer accuracy
I0428 20:11:45.987139 32135 net.cpp:53] Initializing net from parameters: 
name: "LeNet"
state {
  phase: TRAIN
  level: 0
  stage: ""
}
layer {
  name: "mnist"
  type: "Data"
  top: "data"
  top: "label"
  include {
    phase: TRAIN
  }
  transform_param {
    scale: 0.00390625
  }
  data_param {
    source: "examples/mnist/mnist_train_lmdb"
    batch_size: 64
    backend: LMDB
  }
}
layer {
  name: "conv0"
  type: "Convolution"
  bottom: "data"
  top: "conv0"
  param {
    lr_mult: 1
  }
  param {
    lr_mult: 2
  }
  convolution_param {
    num_output: 25
    kernel_size: 5
    stride: 1
    weight_filler {
      type: "xavier"
    }
    bias_filler {
      type: "constant"
    }
  }
}
layer {
  name: "pool0"
  type: "Pooling"
  bottom: "conv0"
  top: "pool0"
  pooling_param {
    pool: MAX
    kernel_size: 2
    stride: 2
  }
}
layer {
  name: "conv1"
  type: "Convolution"
  bottom: "pool0"
  top: "conv1"
  param {
    lr_mult: 1
  }
  param {
    lr_mult: 2
  }
  convolution_param {
    num_output: 50
    kernel_size: 5
    stride: 1
    weight_filler {
      type: "xavier"
    }
    bias_filler {
      type: "constant"
    }
  }
}
layer {
  name: "pool1"
  type: "Pooling"
  bottom: "conv1"
  top: "pool1"
  pooling_param {
    pool: MAX
    kernel_size: 2
    stride: 2
  }
}
layer {
  name: "ip1"
  type: "InnerProduct"
  bottom: "pool1"
  top: "ip1"
  param {
    lr_mult: 1
  }
  param {
    lr_mult: 2
  }
  inner_product_param {
    num_output: 50
    weight_filler {
      type: "xavier"
    }
    bias_filler {
      type: "constant"
    }
  }
}
layer {
  name: "relu1"
  type: "ReLU"
  bottom: "ip1"
  top: "ip1"
}
layer {
  name: "ip2"
  type: "InnerProduct"
  bottom: "ip1"
  top: "ip2"
  param {
    lr_mult: 1
  }
  param {
    lr_mult: 2
  }
  inner_product_param {
    num_output: 25
    weight_filler {
      type: "xavier"
    }
    bias_filler {
      type: "constant"
    }
  }
}
layer {
  name: "relu2"
  type: "ReLU"
  bottom: "ip2"
  top: "ip2"
}
layer {
  name: "ip3"
  type: "InnerProduct"
  bottom: "ip2"
  top: "ip3"
  param {
    lr_mult: 1
  }
  param {
    lr_mult: 2
  }
  inner_product_param {
    num_output: 10
    weight_filler {
      type: "xavier"
    }
    bias_filler {
      type: "constant"
    }
  }
}
layer {
  name: "relu3"
  type: "ReLU"
  bottom: "ip3"
  top: "ip3"
}
layer {
  name: "loss"
  type: "SoftmaxWithLoss"
  bottom: "ip3"
  bottom: "label"
  top: "loss"
}
I0428 20:11:45.987218 32135 layer_factory.hpp:77] Creating layer mnist
I0428 20:11:45.987298 32135 db_lmdb.cpp:35] Opened lmdb examples/mnist/mnist_train_lmdb
I0428 20:11:45.987318 32135 net.cpp:86] Creating Layer mnist
I0428 20:11:45.987323 32135 net.cpp:382] mnist -> data
I0428 20:11:45.987342 32135 net.cpp:382] mnist -> label
I0428 20:11:45.988248 32135 data_layer.cpp:45] output data size: 64,1,28,28
I0428 20:11:45.990464 32135 net.cpp:124] Setting up mnist
I0428 20:11:45.990510 32135 net.cpp:131] Top shape: 64 1 28 28 (50176)
I0428 20:11:45.990530 32135 net.cpp:131] Top shape: 64 (64)
I0428 20:11:45.990533 32135 net.cpp:139] Memory required for data: 200960
I0428 20:11:45.990540 32135 layer_factory.hpp:77] Creating layer conv0
I0428 20:11:45.990553 32135 net.cpp:86] Creating Layer conv0
I0428 20:11:45.990571 32135 net.cpp:408] conv0 <- data
I0428 20:11:45.990582 32135 net.cpp:382] conv0 -> conv0
I0428 20:11:46.208654 32135 net.cpp:124] Setting up conv0
I0428 20:11:46.208698 32135 net.cpp:131] Top shape: 64 25 24 24 (921600)
I0428 20:11:46.208701 32135 net.cpp:139] Memory required for data: 3887360
I0428 20:11:46.208715 32135 layer_factory.hpp:77] Creating layer pool0
I0428 20:11:46.208745 32135 net.cpp:86] Creating Layer pool0
I0428 20:11:46.208748 32135 net.cpp:408] pool0 <- conv0
I0428 20:11:46.208753 32135 net.cpp:382] pool0 -> pool0
I0428 20:11:46.208796 32135 net.cpp:124] Setting up pool0
I0428 20:11:46.208803 32135 net.cpp:131] Top shape: 64 25 12 12 (230400)
I0428 20:11:46.208806 32135 net.cpp:139] Memory required for data: 4808960
I0428 20:11:46.208814 32135 layer_factory.hpp:77] Creating layer conv1
I0428 20:11:46.208844 32135 net.cpp:86] Creating Layer conv1
I0428 20:11:46.208851 32135 net.cpp:408] conv1 <- pool0
I0428 20:11:46.208858 32135 net.cpp:382] conv1 -> conv1
I0428 20:11:46.210783 32135 net.cpp:124] Setting up conv1
I0428 20:11:46.210798 32135 net.cpp:131] Top shape: 64 50 8 8 (204800)
I0428 20:11:46.210817 32135 net.cpp:139] Memory required for data: 5628160
I0428 20:11:46.210826 32135 layer_factory.hpp:77] Creating layer pool1
I0428 20:11:46.210835 32135 net.cpp:86] Creating Layer pool1
I0428 20:11:46.210839 32135 net.cpp:408] pool1 <- conv1
I0428 20:11:46.210844 32135 net.cpp:382] pool1 -> pool1
I0428 20:11:46.210885 32135 net.cpp:124] Setting up pool1
I0428 20:11:46.210892 32135 net.cpp:131] Top shape: 64 50 4 4 (51200)
I0428 20:11:46.210896 32135 net.cpp:139] Memory required for data: 5832960
I0428 20:11:46.210898 32135 layer_factory.hpp:77] Creating layer ip1
I0428 20:11:46.210906 32135 net.cpp:86] Creating Layer ip1
I0428 20:11:46.210912 32135 net.cpp:408] ip1 <- pool1
I0428 20:11:46.210917 32135 net.cpp:382] ip1 -> ip1
I0428 20:11:46.211282 32135 net.cpp:124] Setting up ip1
I0428 20:11:46.211288 32135 net.cpp:131] Top shape: 64 50 (3200)
I0428 20:11:46.211307 32135 net.cpp:139] Memory required for data: 5845760
I0428 20:11:46.211313 32135 layer_factory.hpp:77] Creating layer relu1
I0428 20:11:46.211319 32135 net.cpp:86] Creating Layer relu1
I0428 20:11:46.211323 32135 net.cpp:408] relu1 <- ip1
I0428 20:11:46.211328 32135 net.cpp:369] relu1 -> ip1 (in-place)
I0428 20:11:46.211506 32135 net.cpp:124] Setting up relu1
I0428 20:11:46.211531 32135 net.cpp:131] Top shape: 64 50 (3200)
I0428 20:11:46.211534 32135 net.cpp:139] Memory required for data: 5858560
I0428 20:11:46.211537 32135 layer_factory.hpp:77] Creating layer ip2
I0428 20:11:46.211544 32135 net.cpp:86] Creating Layer ip2
I0428 20:11:46.211547 32135 net.cpp:408] ip2 <- ip1
I0428 20:11:46.211551 32135 net.cpp:382] ip2 -> ip2
I0428 20:11:46.212533 32135 net.cpp:124] Setting up ip2
I0428 20:11:46.212545 32135 net.cpp:131] Top shape: 64 25 (1600)
I0428 20:11:46.212565 32135 net.cpp:139] Memory required for data: 5864960
I0428 20:11:46.212571 32135 layer_factory.hpp:77] Creating layer relu2
I0428 20:11:46.212595 32135 net.cpp:86] Creating Layer relu2
I0428 20:11:46.212599 32135 net.cpp:408] relu2 <- ip2
I0428 20:11:46.212604 32135 net.cpp:369] relu2 -> ip2 (in-place)
I0428 20:11:46.213434 32135 net.cpp:124] Setting up relu2
I0428 20:11:46.213446 32135 net.cpp:131] Top shape: 64 25 (1600)
I0428 20:11:46.213467 32135 net.cpp:139] Memory required for data: 5871360
I0428 20:11:46.213470 32135 layer_factory.hpp:77] Creating layer ip3
I0428 20:11:46.213493 32135 net.cpp:86] Creating Layer ip3
I0428 20:11:46.213496 32135 net.cpp:408] ip3 <- ip2
I0428 20:11:46.213502 32135 net.cpp:382] ip3 -> ip3
I0428 20:11:46.213600 32135 net.cpp:124] Setting up ip3
I0428 20:11:46.213608 32135 net.cpp:131] Top shape: 64 10 (640)
I0428 20:11:46.213610 32135 net.cpp:139] Memory required for data: 5873920
I0428 20:11:46.213618 32135 layer_factory.hpp:77] Creating layer relu3
I0428 20:11:46.213626 32135 net.cpp:86] Creating Layer relu3
I0428 20:11:46.213629 32135 net.cpp:408] relu3 <- ip3
I0428 20:11:46.213632 32135 net.cpp:369] relu3 -> ip3 (in-place)
I0428 20:11:46.213816 32135 net.cpp:124] Setting up relu3
I0428 20:11:46.213825 32135 net.cpp:131] Top shape: 64 10 (640)
I0428 20:11:46.213829 32135 net.cpp:139] Memory required for data: 5876480
I0428 20:11:46.213831 32135 layer_factory.hpp:77] Creating layer loss
I0428 20:11:46.213837 32135 net.cpp:86] Creating Layer loss
I0428 20:11:46.213840 32135 net.cpp:408] loss <- ip3
I0428 20:11:46.213845 32135 net.cpp:408] loss <- label
I0428 20:11:46.213850 32135 net.cpp:382] loss -> loss
I0428 20:11:46.213868 32135 layer_factory.hpp:77] Creating layer loss
…
I0428 20:11:46.214596 32135 solver.cpp:173] Creating test net (#0) specified by net file: ECE595/mnist/train_test/var_everything2/lenet_train_test1166.prototxt
I0428 20:11:46.214623 32135 net.cpp:296] The NetState phase (1) differed from the phase (0) specified by a rule in layer mnist
I0428 20:11:46.214731 32135 net.cpp:53] Initializing net from parameters: 
name: "LeNet"
state {
  phase: TEST
}
layer {
  name: "mnist"
  type: "Data"
  top: "data"
  top: "label"
  include {
    phase: TEST
  }
  transform_param {
    scale: 0.00390625
  }
  data_param {
    source: "examples/mnist/mnist_test_lmdb"
    batch_size: 100
    backend: LMDB
  }
}
layer {
  name: "conv0"
  type: "Convolution"
  bottom: "data"
  top: "conv0"
  param {
    lr_mult: 1
  }
  param {
    lr_mult: 2
  }
  convolution_param {
    num_output: 25
    kernel_size: 5
    stride: 1
    weight_filler {
      type: "xavier"
    }
    bias_filler {
      type: "constant"
    }
  }
}
layer {
  name: "pool0"
  type: "Pooling"
  bottom: "conv0"
  top: "pool0"
  pooling_param {
    pool: MAX
    kernel_size: 2
    stride: 2
  }
}
layer {
  name: "conv1"
  type: "Convolution"
  bottom: "pool0"
  top: "conv1"
  param {
    lr_mult: 1
  }
  param {
    lr_mult: 2
  }
  convolution_param {
    num_output: 50
    kernel_size: 5
    stride: 1
    weight_filler {
      type: "xavier"
    }
    bias_filler {
      type: "constant"
    }
  }
}
layer {
  name: "pool1"
  type: "Pooling"
  bottom: "conv1"
  top: "pool1"
  pooling_param {
    pool: MAX
    kernel_size: 2
    stride: 2
  }
}
layer {
  name: "ip1"
  type: "InnerProduct"
  bottom: "pool1"
  top: "ip1"
  param {
    lr_mult: 1
  }
  param {
    lr_mult: 2
  }
  inner_product_param {
    num_output: 50
    weight_filler {
      type: "xavier"
    }
    bias_filler {
      type: "constant"
    }
  }
}
layer {
  name: "relu1"
  type: "ReLU"
  bottom: "ip1"
  top: "ip1"
}
layer {
  name: "ip2"
  type: "InnerProduct"
  bottom: "ip1"
  top: "ip2"
  param {
    lr_mult: 1
  }
  param {
    lr_mult: 2
  }
  inner_product_param {
    num_output: 25
    weight_filler {
      type: "xavier"
    }
    bias_filler {
      type: "constant"
    }
  }
}
layer {
  name: "relu2"
  type: "ReLU"
  bottom: "ip2"
  top: "ip2"
}
layer {
  name: "ip3"
  type: "InnerProduct"
  bottom: "ip2"
  top: "ip3"
  param {
    lr_mult: 1
  }
  param {
    lr_mult: 2
  }
  inner_product_param {
    num_output: 10
    weight_filler {
      type: "xavier"
    }
    bias_filler {
      type: "constant"
    }
  }
}
layer {
  name: "relu3"
  type: "ReLU"
  bottom: "ip3"
  top: "ip3"
}
layer {
  name: "accuracy"
  type: "Accuracy"
  bottom: "ip3"
  bottom: "label"
  top: "accuracy"
  include {
    phase: TEST
  }
}
layer {
  name: "loss"
  type: "SoftmaxWithLoss"
  bottom: "ip3"
  bottom: "label"
  top: "loss"
}
I0428 20:11:46.214839 32135 layer_factory.hpp:77] Creating layer mnist
I0428 20:11:46.214882 32135 db_lmdb.cpp:35] Opened lmdb examples/mnist/mnist_test_lmdb
I0428 20:11:46.214895 32135 net.cpp:86] Creating Layer mnist
I0428 20:11:46.214900 32135 net.cpp:382] mnist -> data
I0428 20:11:46.214907 32135 net.cpp:382] mnist -> label
I0428 20:11:46.214989 32135 data_layer.cpp:45] output data size: 100,1,28,28
I0428 20:11:46.217257 32135 net.cpp:124] Setting up mnist
I0428 20:11:46.217286 32135 net.cpp:131] Top shape: 100 1 28 28 (78400)
I0428 20:11:46.217305 32135 net.cpp:131] Top shape: 100 (100)
I0428 20:11:46.217308 32135 net.cpp:139] Memory required for data: 314000
I0428 20:11:46.217313 32135 layer_factory.hpp:77] Creating layer label_mnist_1_split
I0428 20:11:46.217319 32135 net.cpp:86] Creating Layer label_mnist_1_split
I0428 20:11:46.217321 32135 net.cpp:408] label_mnist_1_split <- label
I0428 20:11:46.217326 32135 net.cpp:382] label_mnist_1_split -> label_mnist_1_split_0
I0428 20:11:46.217332 32135 net.cpp:382] label_mnist_1_split -> label_mnist_1_split_1
I0428 20:11:46.217412 32135 net.cpp:124] Setting up label_mnist_1_split
I0428 20:11:46.217435 32135 net.cpp:131] Top shape: 100 (100)
I0428 20:11:46.217438 32135 net.cpp:131] Top shape: 100 (100)
I0428 20:11:46.217442 32135 net.cpp:139] Memory required for data: 314800
I0428 20:11:46.217444 32135 layer_factory.hpp:77] Creating layer conv0
I0428 20:11:46.217453 32135 net.cpp:86] Creating Layer conv0
I0428 20:11:46.217458 32135 net.cpp:408] conv0 <- data
I0428 20:11:46.217463 32135 net.cpp:382] conv0 -> conv0
I0428 20:11:46.219012 32135 net.cpp:124] Setting up conv0
I0428 20:11:46.219027 32135 net.cpp:131] Top shape: 100 25 24 24 (1440000)
I0428 20:11:46.219029 32135 net.cpp:139] Memory required for data: 6074800
I0428 20:11:46.219054 32135 layer_factory.hpp:77] Creating layer pool0
I0428 20:11:46.219061 32135 net.cpp:86] Creating Layer pool0
I0428 20:11:46.219065 32135 net.cpp:408] pool0 <- conv0
I0428 20:11:46.219069 32135 net.cpp:382] pool0 -> pool0
I0428 20:11:46.219110 32135 net.cpp:124] Setting up pool0
I0428 20:11:46.219117 32135 net.cpp:131] Top shape: 100 25 12 12 (360000)
I0428 20:11:46.219120 32135 net.cpp:139] Memory required for data: 7514800
I0428 20:11:46.219123 32135 layer_factory.hpp:77] Creating layer conv1
I0428 20:11:46.219148 32135 net.cpp:86] Creating Layer conv1
I0428 20:11:46.219151 32135 net.cpp:408] conv1 <- pool0
I0428 20:11:46.219157 32135 net.cpp:382] conv1 -> conv1
I0428 20:11:46.220923 32135 net.cpp:124] Setting up conv1
I0428 20:11:46.220938 32135 net.cpp:131] Top shape: 100 50 8 8 (320000)
I0428 20:11:46.220942 32135 net.cpp:139] Memory required for data: 8794800
I0428 20:11:46.220950 32135 layer_factory.hpp:77] Creating layer pool1
I0428 20:11:46.220957 32135 net.cpp:86] Creating Layer pool1
I0428 20:11:46.220960 32135 net.cpp:408] pool1 <- conv1
I0428 20:11:46.220968 32135 net.cpp:382] pool1 -> pool1
I0428 20:11:46.221035 32135 net.cpp:124] Setting up pool1
I0428 20:11:46.221043 32135 net.cpp:131] Top shape: 100 50 4 4 (80000)
I0428 20:11:46.221046 32135 net.cpp:139] Memory required for data: 9114800
I0428 20:11:46.221050 32135 layer_factory.hpp:77] Creating layer ip1
I0428 20:11:46.221057 32135 net.cpp:86] Creating Layer ip1
I0428 20:11:46.221061 32135 net.cpp:408] ip1 <- pool1
I0428 20:11:46.221066 32135 net.cpp:382] ip1 -> ip1
I0428 20:11:46.221463 32135 net.cpp:124] Setting up ip1
I0428 20:11:46.221472 32135 net.cpp:131] Top shape: 100 50 (5000)
I0428 20:11:46.221483 32135 net.cpp:139] Memory required for data: 9134800
I0428 20:11:46.221491 32135 layer_factory.hpp:77] Creating layer relu1
I0428 20:11:46.221503 32135 net.cpp:86] Creating Layer relu1
I0428 20:11:46.221508 32135 net.cpp:408] relu1 <- ip1
I0428 20:11:46.221513 32135 net.cpp:369] relu1 -> ip1 (in-place)
I0428 20:11:46.221668 32135 net.cpp:124] Setting up relu1
I0428 20:11:46.221678 32135 net.cpp:131] Top shape: 100 50 (5000)
I0428 20:11:46.221680 32135 net.cpp:139] Memory required for data: 9154800
I0428 20:11:46.221683 32135 layer_factory.hpp:77] Creating layer ip2
I0428 20:11:46.221705 32135 net.cpp:86] Creating Layer ip2
I0428 20:11:46.221709 32135 net.cpp:408] ip2 <- ip1
I0428 20:11:46.221714 32135 net.cpp:382] ip2 -> ip2
I0428 20:11:46.221823 32135 net.cpp:124] Setting up ip2
I0428 20:11:46.221832 32135 net.cpp:131] Top shape: 100 25 (2500)
I0428 20:11:46.221834 32135 net.cpp:139] Memory required for data: 9164800
I0428 20:11:46.221839 32135 layer_factory.hpp:77] Creating layer relu2
I0428 20:11:46.221843 32135 net.cpp:86] Creating Layer relu2
I0428 20:11:46.221846 32135 net.cpp:408] relu2 <- ip2
I0428 20:11:46.221853 32135 net.cpp:369] relu2 -> ip2 (in-place)
I0428 20:11:46.222025 32135 net.cpp:124] Setting up relu2
I0428 20:11:46.222033 32135 net.cpp:131] Top shape: 100 25 (2500)
I0428 20:11:46.222038 32135 net.cpp:139] Memory required for data: 9174800
I0428 20:11:46.222040 32135 layer_factory.hpp:77] Creating layer ip3
I0428 20:11:46.222048 32135 net.cpp:86] Creating Layer ip3
I0428 20:11:46.222050 32135 net.cpp:408] ip3 <- ip2
I0428 20:11:46.222062 32135 net.cpp:382] ip3 -> ip3
I0428 20:11:46.222164 32135 net.cpp:124] Setting up ip3
I0428 20:11:46.222172 32135 net.cpp:131] Top shape: 100 10 (1000)
I0428 20:11:46.222175 32135 net.cpp:139] Memory required for data: 9178800
I0428 20:11:46.222182 32135 layer_factory.hpp:77] Creating layer relu3
I0428 20:11:46.222187 32135 net.cpp:86] Creating Layer relu3
I0428 20:11:46.222189 32135 net.cpp:408] relu3 <- ip3
I0428 20:11:46.222194 32135 net.cpp:369] relu3 -> ip3 (in-place)
I0428 20:11:46.223024 32135 net.cpp:124] Setting up relu3
I0428 20:11:46.223037 32135 net.cpp:131] Top shape: 100 10 (1000)
I0428 20:11:46.223039 32135 net.cpp:139] Memory required for data: 9182800
I0428 20:11:46.223042 32135 layer_factory.hpp:77] Creating layer ip3_relu3_0_split
I0428 20:11:46.223049 32135 net.cpp:86] Creating Layer ip3_relu3_0_split
I0428 20:11:46.223052 32135 net.cpp:408] ip3_relu3_0_split <- ip3
I0428 20:11:46.223057 32135 net.cpp:382] ip3_relu3_0_split -> ip3_relu3_0_split_0
I0428 20:11:46.223063 32135 net.cpp:382] ip3_relu3_0_split -> ip3_relu3_0_split_1
I0428 20:11:46.223134 32135 net.cpp:124] Setting up ip3_relu3_0_split
I0428 20:11:46.223140 32135 net.cpp:131] Top shape: 100 10 (1000)
I0428 20:11:46.223145 32135 net.cpp:131] Top shape: 100 10 (1000)
I0428 20:11:46.223146 32135 net.cpp:139] Memory required for data: 9190800
I0428 20:11:46.223150 32135 layer_factory.hpp:77] Creating layer accuracy
I0428 20:11:46.223168 32135 net.cpp:86] Creating Layer accuracy
I0428 20:11:46.223178 32135 net.cpp:408] accuracy <- ip3_relu3_0_split_0
I0428 20:11:46.223187 32135 net.cpp:408] accuracy <- label_mnist_1_split_0
I0428 20:11:46.223193 32135 net.cpp:382] accuracy -> accuracy
…
