…
I0428 19:42:08.883935 24995 net.cpp:296] The NetState phase (0) differed from the phase (1) specified by a rule in layer mnist
I0428 19:42:08.883955 24995 net.cpp:296] The NetState phase (0) differed from the phase (1) specified by a rule in layer accuracy
I0428 19:42:08.884060 24995 net.cpp:53] Initializing net from parameters: 
name: "LeNet"
state {
  phase: TRAIN
  level: 0
  stage: ""
}
layer {
  name: "mnist"
  type: "Data"
  top: "data"
  top: "label"
  include {
    phase: TRAIN
  }
  transform_param {
    scale: 0.00390625
  }
  data_param {
    source: "examples/mnist/mnist_train_lmdb"
    batch_size: 64
    backend: LMDB
  }
}
layer {
  name: "conv0"
  type: "Convolution"
  bottom: "data"
  top: "conv0"
  param {
    lr_mult: 1
  }
  param {
    lr_mult: 2
  }
  convolution_param {
    num_output: 2
    kernel_size: 5
    stride: 1
    weight_filler {
      type: "xavier"
    }
    bias_filler {
      type: "constant"
    }
  }
}
layer {
  name: "pool0"
  type: "Pooling"
  bottom: "conv0"
  top: "pool0"
  pooling_param {
    pool: MAX
    kernel_size: 2
    stride: 2
  }
}
layer {
  name: "conv1"
  type: "Convolution"
  bottom: "pool0"
  top: "conv1"
  param {
    lr_mult: 1
  }
  param {
    lr_mult: 2
  }
  convolution_param {
    num_output: 10
    kernel_size: 5
    stride: 1
    weight_filler {
      type: "xavier"
    }
    bias_filler {
      type: "constant"
    }
  }
}
layer {
  name: "pool1"
  type: "Pooling"
  bottom: "conv1"
  top: "pool1"
  pooling_param {
    pool: MAX
    kernel_size: 2
    stride: 2
  }
}
layer {
  name: "ip1"
  type: "InnerProduct"
  bottom: "pool1"
  top: "ip1"
  param {
    lr_mult: 1
  }
  param {
    lr_mult: 2
  }
  inner_product_param {
    num_output: 50
    weight_filler {
      type: "xavier"
    }
    bias_filler {
      type: "constant"
    }
  }
}
layer {
  name: "relu1"
  type: "ReLU"
  bottom: "ip1"
  top: "ip1"
}
layer {
  name: "ip2"
  type: "InnerProduct"
  bottom: "ip1"
  top: "ip2"
  param {
    lr_mult: 1
  }
  param {
    lr_mult: 2
  }
  inner_product_param {
    num_output: 25
    weight_filler {
      type: "xavier"
    }
    bias_filler {
      type: "constant"
    }
  }
}
layer {
  name: "relu2"
  type: "ReLU"
  bottom: "ip2"
  top: "ip2"
}
layer {
  name: "ip3"
  type: "InnerProduct"
  bottom: "ip2"
  top: "ip3"
  param {
    lr_mult: 1
  }
  param {
    lr_mult: 2
  }
  inner_product_param {
    num_output: 10
    weight_filler {
      type: "xavier"
    }
    bias_filler {
      type: "constant"
    }
  }
}
layer {
  name: "relu3"
  type: "ReLU"
  bottom: "ip3"
  top: "ip3"
}
layer {
  name: "loss"
  type: "SoftmaxWithLoss"
  bottom: "ip3"
  bottom: "label"
  top: "loss"
}
I0428 19:42:08.884140 24995 layer_factory.hpp:77] Creating layer mnist
I0428 19:42:08.884239 24995 db_lmdb.cpp:35] Opened lmdb examples/mnist/mnist_train_lmdb
I0428 19:42:08.884265 24995 net.cpp:86] Creating Layer mnist
I0428 19:42:08.884276 24995 net.cpp:382] mnist -> data
I0428 19:42:08.884302 24995 net.cpp:382] mnist -> label
I0428 19:42:08.885401 24995 data_layer.cpp:45] output data size: 64,1,28,28
I0428 19:42:08.887861 24995 net.cpp:124] Setting up mnist
I0428 19:42:08.887877 24995 net.cpp:131] Top shape: 64 1 28 28 (50176)
I0428 19:42:08.887883 24995 net.cpp:131] Top shape: 64 (64)
I0428 19:42:08.887887 24995 net.cpp:139] Memory required for data: 200960
I0428 19:42:08.887894 24995 layer_factory.hpp:77] Creating layer conv0
I0428 19:42:08.887943 24995 net.cpp:86] Creating Layer conv0
I0428 19:42:08.887965 24995 net.cpp:408] conv0 <- data
I0428 19:42:08.887980 24995 net.cpp:382] conv0 -> conv0
I0428 19:42:09.179031 24995 net.cpp:124] Setting up conv0
I0428 19:42:09.179062 24995 net.cpp:131] Top shape: 64 2 24 24 (73728)
I0428 19:42:09.179066 24995 net.cpp:139] Memory required for data: 495872
I0428 19:42:09.179083 24995 layer_factory.hpp:77] Creating layer pool0
I0428 19:42:09.179100 24995 net.cpp:86] Creating Layer pool0
I0428 19:42:09.179105 24995 net.cpp:408] pool0 <- conv0
I0428 19:42:09.179111 24995 net.cpp:382] pool0 -> pool0
I0428 19:42:09.179163 24995 net.cpp:124] Setting up pool0
I0428 19:42:09.179170 24995 net.cpp:131] Top shape: 64 2 12 12 (18432)
I0428 19:42:09.179173 24995 net.cpp:139] Memory required for data: 569600
I0428 19:42:09.179177 24995 layer_factory.hpp:77] Creating layer conv1
I0428 19:42:09.179189 24995 net.cpp:86] Creating Layer conv1
I0428 19:42:09.179193 24995 net.cpp:408] conv1 <- pool0
I0428 19:42:09.179198 24995 net.cpp:382] conv1 -> conv1
I0428 19:42:09.181259 24995 net.cpp:124] Setting up conv1
I0428 19:42:09.181277 24995 net.cpp:131] Top shape: 64 10 8 8 (40960)
I0428 19:42:09.181282 24995 net.cpp:139] Memory required for data: 733440
I0428 19:42:09.181291 24995 layer_factory.hpp:77] Creating layer pool1
I0428 19:42:09.181299 24995 net.cpp:86] Creating Layer pool1
I0428 19:42:09.181303 24995 net.cpp:408] pool1 <- conv1
I0428 19:42:09.181309 24995 net.cpp:382] pool1 -> pool1
I0428 19:42:09.181352 24995 net.cpp:124] Setting up pool1
I0428 19:42:09.181358 24995 net.cpp:131] Top shape: 64 10 4 4 (10240)
I0428 19:42:09.181361 24995 net.cpp:139] Memory required for data: 774400
I0428 19:42:09.181365 24995 layer_factory.hpp:77] Creating layer ip1
I0428 19:42:09.181373 24995 net.cpp:86] Creating Layer ip1
I0428 19:42:09.181376 24995 net.cpp:408] ip1 <- pool1
I0428 19:42:09.181381 24995 net.cpp:382] ip1 -> ip1
I0428 19:42:09.182473 24995 net.cpp:124] Setting up ip1
I0428 19:42:09.182488 24995 net.cpp:131] Top shape: 64 50 (3200)
I0428 19:42:09.182492 24995 net.cpp:139] Memory required for data: 787200
I0428 19:42:09.182502 24995 layer_factory.hpp:77] Creating layer relu1
I0428 19:42:09.182508 24995 net.cpp:86] Creating Layer relu1
I0428 19:42:09.182512 24995 net.cpp:408] relu1 <- ip1
I0428 19:42:09.182518 24995 net.cpp:369] relu1 -> ip1 (in-place)
I0428 19:42:09.182711 24995 net.cpp:124] Setting up relu1
I0428 19:42:09.182723 24995 net.cpp:131] Top shape: 64 50 (3200)
I0428 19:42:09.182726 24995 net.cpp:139] Memory required for data: 800000
I0428 19:42:09.182730 24995 layer_factory.hpp:77] Creating layer ip2
I0428 19:42:09.182739 24995 net.cpp:86] Creating Layer ip2
I0428 19:42:09.182741 24995 net.cpp:408] ip2 <- ip1
I0428 19:42:09.182747 24995 net.cpp:382] ip2 -> ip2
I0428 19:42:09.183789 24995 net.cpp:124] Setting up ip2
I0428 19:42:09.183804 24995 net.cpp:131] Top shape: 64 25 (1600)
I0428 19:42:09.183807 24995 net.cpp:139] Memory required for data: 806400
I0428 19:42:09.183815 24995 layer_factory.hpp:77] Creating layer relu2
I0428 19:42:09.183822 24995 net.cpp:86] Creating Layer relu2
I0428 19:42:09.183825 24995 net.cpp:408] relu2 <- ip2
I0428 19:42:09.183831 24995 net.cpp:369] relu2 -> ip2 (in-place)
I0428 19:42:09.184653 24995 net.cpp:124] Setting up relu2
I0428 19:42:09.184669 24995 net.cpp:131] Top shape: 64 25 (1600)
I0428 19:42:09.184672 24995 net.cpp:139] Memory required for data: 812800
I0428 19:42:09.184676 24995 layer_factory.hpp:77] Creating layer ip3
I0428 19:42:09.184685 24995 net.cpp:86] Creating Layer ip3
I0428 19:42:09.184689 24995 net.cpp:408] ip3 <- ip2
I0428 19:42:09.184695 24995 net.cpp:382] ip3 -> ip3
I0428 19:42:09.184808 24995 net.cpp:124] Setting up ip3
I0428 19:42:09.184824 24995 net.cpp:131] Top shape: 64 10 (640)
I0428 19:42:09.184828 24995 net.cpp:139] Memory required for data: 815360
I0428 19:42:09.184839 24995 layer_factory.hpp:77] Creating layer relu3
I0428 19:42:09.184844 24995 net.cpp:86] Creating Layer relu3
I0428 19:42:09.184847 24995 net.cpp:408] relu3 <- ip3
I0428 19:42:09.184852 24995 net.cpp:369] relu3 -> ip3 (in-place)
I0428 19:42:09.185042 24995 net.cpp:124] Setting up relu3
I0428 19:42:09.185052 24995 net.cpp:131] Top shape: 64 10 (640)
I0428 19:42:09.185056 24995 net.cpp:139] Memory required for data: 817920
I0428 19:42:09.185060 24995 layer_factory.hpp:77] Creating layer loss
I0428 19:42:09.185067 24995 net.cpp:86] Creating Layer loss
I0428 19:42:09.185070 24995 net.cpp:408] loss <- ip3
I0428 19:42:09.185075 24995 net.cpp:408] loss <- label
I0428 19:42:09.185081 24995 net.cpp:382] loss -> loss
I0428 19:42:09.185101 24995 layer_factory.hpp:77] Creating layer loss
…
I0428 19:42:09.185814 24995 solver.cpp:173] Creating test net (#0) specified by net file: ECE595/mnist/train_test/var_everything2/lenet_train_test385.prototxt
I0428 19:42:09.185844 24995 net.cpp:296] The NetState phase (1) differed from the phase (0) specified by a rule in layer mnist
I0428 19:42:09.185950 24995 net.cpp:53] Initializing net from parameters: 
name: "LeNet"
state {
  phase: TEST
}
layer {
  name: "mnist"
  type: "Data"
  top: "data"
  top: "label"
  include {
    phase: TEST
  }
  transform_param {
    scale: 0.00390625
  }
  data_param {
    source: "examples/mnist/mnist_test_lmdb"
    batch_size: 100
    backend: LMDB
  }
}
layer {
  name: "conv0"
  type: "Convolution"
  bottom: "data"
  top: "conv0"
  param {
    lr_mult: 1
  }
  param {
    lr_mult: 2
  }
  convolution_param {
    num_output: 2
    kernel_size: 5
    stride: 1
    weight_filler {
      type: "xavier"
    }
    bias_filler {
      type: "constant"
    }
  }
}
layer {
  name: "pool0"
  type: "Pooling"
  bottom: "conv0"
  top: "pool0"
  pooling_param {
    pool: MAX
    kernel_size: 2
    stride: 2
  }
}
layer {
  name: "conv1"
  type: "Convolution"
  bottom: "pool0"
  top: "conv1"
  param {
    lr_mult: 1
  }
  param {
    lr_mult: 2
  }
  convolution_param {
    num_output: 10
    kernel_size: 5
    stride: 1
    weight_filler {
      type: "xavier"
    }
    bias_filler {
      type: "constant"
    }
  }
}
layer {
  name: "pool1"
  type: "Pooling"
  bottom: "conv1"
  top: "pool1"
  pooling_param {
    pool: MAX
    kernel_size: 2
    stride: 2
  }
}
layer {
  name: "ip1"
  type: "InnerProduct"
  bottom: "pool1"
  top: "ip1"
  param {
    lr_mult: 1
  }
  param {
    lr_mult: 2
  }
  inner_product_param {
    num_output: 50
    weight_filler {
      type: "xavier"
    }
    bias_filler {
      type: "constant"
    }
  }
}
layer {
  name: "relu1"
  type: "ReLU"
  bottom: "ip1"
  top: "ip1"
}
layer {
  name: "ip2"
  type: "InnerProduct"
  bottom: "ip1"
  top: "ip2"
  param {
    lr_mult: 1
  }
  param {
    lr_mult: 2
  }
  inner_product_param {
    num_output: 25
    weight_filler {
      type: "xavier"
    }
    bias_filler {
      type: "constant"
    }
  }
}
layer {
  name: "relu2"
  type: "ReLU"
  bottom: "ip2"
  top: "ip2"
}
layer {
  name: "ip3"
  type: "InnerProduct"
  bottom: "ip2"
  top: "ip3"
  param {
    lr_mult: 1
  }
  param {
    lr_mult: 2
  }
  inner_product_param {
    num_output: 10
    weight_filler {
      type: "xavier"
    }
    bias_filler {
      type: "constant"
    }
  }
}
layer {
  name: "relu3"
  type: "ReLU"
  bottom: "ip3"
  top: "ip3"
}
layer {
  name: "accuracy"
  type: "Accuracy"
  bottom: "ip3"
  bottom: "label"
  top: "accuracy"
  include {
    phase: TEST
  }
}
layer {
  name: "loss"
  type: "SoftmaxWithLoss"
  bottom: "ip3"
  bottom: "label"
  top: "loss"
}
I0428 19:42:09.186058 24995 layer_factory.hpp:77] Creating layer mnist
I0428 19:42:09.186110 24995 db_lmdb.cpp:35] Opened lmdb examples/mnist/mnist_test_lmdb
I0428 19:42:09.186125 24995 net.cpp:86] Creating Layer mnist
I0428 19:42:09.186130 24995 net.cpp:382] mnist -> data
I0428 19:42:09.186138 24995 net.cpp:382] mnist -> label
I0428 19:42:09.186239 24995 data_layer.cpp:45] output data size: 100,1,28,28
I0428 19:42:09.188335 24995 net.cpp:124] Setting up mnist
I0428 19:42:09.188350 24995 net.cpp:131] Top shape: 100 1 28 28 (78400)
I0428 19:42:09.188356 24995 net.cpp:131] Top shape: 100 (100)
I0428 19:42:09.188359 24995 net.cpp:139] Memory required for data: 314000
I0428 19:42:09.188364 24995 layer_factory.hpp:77] Creating layer label_mnist_1_split
I0428 19:42:09.188405 24995 net.cpp:86] Creating Layer label_mnist_1_split
I0428 19:42:09.188410 24995 net.cpp:408] label_mnist_1_split <- label
I0428 19:42:09.188416 24995 net.cpp:382] label_mnist_1_split -> label_mnist_1_split_0
I0428 19:42:09.188423 24995 net.cpp:382] label_mnist_1_split -> label_mnist_1_split_1
I0428 19:42:09.188540 24995 net.cpp:124] Setting up label_mnist_1_split
I0428 19:42:09.188549 24995 net.cpp:131] Top shape: 100 (100)
I0428 19:42:09.188554 24995 net.cpp:131] Top shape: 100 (100)
I0428 19:42:09.188556 24995 net.cpp:139] Memory required for data: 314800
I0428 19:42:09.188560 24995 layer_factory.hpp:77] Creating layer conv0
I0428 19:42:09.188570 24995 net.cpp:86] Creating Layer conv0
I0428 19:42:09.188575 24995 net.cpp:408] conv0 <- data
I0428 19:42:09.188581 24995 net.cpp:382] conv0 -> conv0
I0428 19:42:09.190379 24995 net.cpp:124] Setting up conv0
I0428 19:42:09.190394 24995 net.cpp:131] Top shape: 100 2 24 24 (115200)
I0428 19:42:09.190399 24995 net.cpp:139] Memory required for data: 775600
I0428 19:42:09.190410 24995 layer_factory.hpp:77] Creating layer pool0
I0428 19:42:09.190418 24995 net.cpp:86] Creating Layer pool0
I0428 19:42:09.190421 24995 net.cpp:408] pool0 <- conv0
I0428 19:42:09.190426 24995 net.cpp:382] pool0 -> pool0
I0428 19:42:09.190467 24995 net.cpp:124] Setting up pool0
I0428 19:42:09.190474 24995 net.cpp:131] Top shape: 100 2 12 12 (28800)
I0428 19:42:09.190477 24995 net.cpp:139] Memory required for data: 890800
I0428 19:42:09.190480 24995 layer_factory.hpp:77] Creating layer conv1
I0428 19:42:09.190490 24995 net.cpp:86] Creating Layer conv1
I0428 19:42:09.190493 24995 net.cpp:408] conv1 <- pool0
I0428 19:42:09.190500 24995 net.cpp:382] conv1 -> conv1
I0428 19:42:09.192159 24995 net.cpp:124] Setting up conv1
I0428 19:42:09.192174 24995 net.cpp:131] Top shape: 100 10 8 8 (64000)
I0428 19:42:09.192179 24995 net.cpp:139] Memory required for data: 1146800
I0428 19:42:09.192190 24995 layer_factory.hpp:77] Creating layer pool1
I0428 19:42:09.192204 24995 net.cpp:86] Creating Layer pool1
I0428 19:42:09.192209 24995 net.cpp:408] pool1 <- conv1
I0428 19:42:09.192215 24995 net.cpp:382] pool1 -> pool1
I0428 19:42:09.192256 24995 net.cpp:124] Setting up pool1
I0428 19:42:09.192268 24995 net.cpp:131] Top shape: 100 10 4 4 (16000)
I0428 19:42:09.192271 24995 net.cpp:139] Memory required for data: 1210800
I0428 19:42:09.192275 24995 layer_factory.hpp:77] Creating layer ip1
I0428 19:42:09.192289 24995 net.cpp:86] Creating Layer ip1
I0428 19:42:09.192293 24995 net.cpp:408] ip1 <- pool1
I0428 19:42:09.192304 24995 net.cpp:382] ip1 -> ip1
I0428 19:42:09.192466 24995 net.cpp:124] Setting up ip1
I0428 19:42:09.192476 24995 net.cpp:131] Top shape: 100 50 (5000)
I0428 19:42:09.192493 24995 net.cpp:139] Memory required for data: 1230800
I0428 19:42:09.192502 24995 layer_factory.hpp:77] Creating layer relu1
I0428 19:42:09.192508 24995 net.cpp:86] Creating Layer relu1
I0428 19:42:09.192512 24995 net.cpp:408] relu1 <- ip1
I0428 19:42:09.192517 24995 net.cpp:369] relu1 -> ip1 (in-place)
I0428 19:42:09.192698 24995 net.cpp:124] Setting up relu1
I0428 19:42:09.192708 24995 net.cpp:131] Top shape: 100 50 (5000)
I0428 19:42:09.192711 24995 net.cpp:139] Memory required for data: 1250800
I0428 19:42:09.192715 24995 layer_factory.hpp:77] Creating layer ip2
I0428 19:42:09.192723 24995 net.cpp:86] Creating Layer ip2
I0428 19:42:09.192728 24995 net.cpp:408] ip2 <- ip1
I0428 19:42:09.192734 24995 net.cpp:382] ip2 -> ip2
I0428 19:42:09.192867 24995 net.cpp:124] Setting up ip2
I0428 19:42:09.192875 24995 net.cpp:131] Top shape: 100 25 (2500)
I0428 19:42:09.192878 24995 net.cpp:139] Memory required for data: 1260800
I0428 19:42:09.192884 24995 layer_factory.hpp:77] Creating layer relu2
I0428 19:42:09.192889 24995 net.cpp:86] Creating Layer relu2
I0428 19:42:09.192893 24995 net.cpp:408] relu2 <- ip2
I0428 19:42:09.192898 24995 net.cpp:369] relu2 -> ip2 (in-place)
I0428 19:42:09.193079 24995 net.cpp:124] Setting up relu2
I0428 19:42:09.193089 24995 net.cpp:131] Top shape: 100 25 (2500)
I0428 19:42:09.193092 24995 net.cpp:139] Memory required for data: 1270800
I0428 19:42:09.193096 24995 layer_factory.hpp:77] Creating layer ip3
I0428 19:42:09.193102 24995 net.cpp:86] Creating Layer ip3
I0428 19:42:09.193114 24995 net.cpp:408] ip3 <- ip2
I0428 19:42:09.193120 24995 net.cpp:382] ip3 -> ip3
I0428 19:42:09.193280 24995 net.cpp:124] Setting up ip3
I0428 19:42:09.193289 24995 net.cpp:131] Top shape: 100 10 (1000)
I0428 19:42:09.193292 24995 net.cpp:139] Memory required for data: 1274800
I0428 19:42:09.193300 24995 layer_factory.hpp:77] Creating layer relu3
I0428 19:42:09.193307 24995 net.cpp:86] Creating Layer relu3
I0428 19:42:09.193310 24995 net.cpp:408] relu3 <- ip3
I0428 19:42:09.193315 24995 net.cpp:369] relu3 -> ip3 (in-place)
I0428 19:42:09.194208 24995 net.cpp:124] Setting up relu3
I0428 19:42:09.194222 24995 net.cpp:131] Top shape: 100 10 (1000)
I0428 19:42:09.194226 24995 net.cpp:139] Memory required for data: 1278800
I0428 19:42:09.194231 24995 layer_factory.hpp:77] Creating layer ip3_relu3_0_split
I0428 19:42:09.194236 24995 net.cpp:86] Creating Layer ip3_relu3_0_split
I0428 19:42:09.194253 24995 net.cpp:408] ip3_relu3_0_split <- ip3
I0428 19:42:09.194260 24995 net.cpp:382] ip3_relu3_0_split -> ip3_relu3_0_split_0
I0428 19:42:09.194267 24995 net.cpp:382] ip3_relu3_0_split -> ip3_relu3_0_split_1
I0428 19:42:09.194311 24995 net.cpp:124] Setting up ip3_relu3_0_split
I0428 19:42:09.194319 24995 net.cpp:131] Top shape: 100 10 (1000)
I0428 19:42:09.194324 24995 net.cpp:131] Top shape: 100 10 (1000)
I0428 19:42:09.194326 24995 net.cpp:139] Memory required for data: 1286800
I0428 19:42:09.194329 24995 layer_factory.hpp:77] Creating layer accuracy
I0428 19:42:09.194335 24995 net.cpp:86] Creating Layer accuracy
I0428 19:42:09.194339 24995 net.cpp:408] accuracy <- ip3_relu3_0_split_0
I0428 19:42:09.194344 24995 net.cpp:408] accuracy <- label_mnist_1_split_0
I0428 19:42:09.194356 24995 net.cpp:382] accuracy -> accuracy
…
