…
I0428 20:28:01.145031  3279 net.cpp:296] The NetState phase (0) differed from the phase (1) specified by a rule in layer mnist
I0428 20:28:01.145052  3279 net.cpp:296] The NetState phase (0) differed from the phase (1) specified by a rule in layer accuracy
I0428 20:28:01.145154  3279 net.cpp:53] Initializing net from parameters: 
name: "LeNet"
state {
  phase: TRAIN
  level: 0
  stage: ""
}
layer {
  name: "mnist"
  type: "Data"
  top: "data"
  top: "label"
  include {
    phase: TRAIN
  }
  transform_param {
    scale: 0.00390625
  }
  data_param {
    source: "examples/mnist/mnist_train_lmdb"
    batch_size: 64
    backend: LMDB
  }
}
layer {
  name: "conv0"
  type: "Convolution"
  bottom: "data"
  top: "conv0"
  param {
    lr_mult: 1
  }
  param {
    lr_mult: 2
  }
  convolution_param {
    num_output: 100
    kernel_size: 5
    stride: 1
    weight_filler {
      type: "xavier"
    }
    bias_filler {
      type: "constant"
    }
  }
}
layer {
  name: "pool0"
  type: "Pooling"
  bottom: "conv0"
  top: "pool0"
  pooling_param {
    pool: MAX
    kernel_size: 2
    stride: 2
  }
}
layer {
  name: "conv1"
  type: "Convolution"
  bottom: "pool0"
  top: "conv1"
  param {
    lr_mult: 1
  }
  param {
    lr_mult: 2
  }
  convolution_param {
    num_output: 5
    kernel_size: 5
    stride: 1
    weight_filler {
      type: "xavier"
    }
    bias_filler {
      type: "constant"
    }
  }
}
layer {
  name: "pool1"
  type: "Pooling"
  bottom: "conv1"
  top: "pool1"
  pooling_param {
    pool: MAX
    kernel_size: 2
    stride: 2
  }
}
layer {
  name: "ip1"
  type: "InnerProduct"
  bottom: "pool1"
  top: "ip1"
  param {
    lr_mult: 1
  }
  param {
    lr_mult: 2
  }
  inner_product_param {
    num_output: 10
    weight_filler {
      type: "xavier"
    }
    bias_filler {
      type: "constant"
    }
  }
}
layer {
  name: "relu1"
  type: "ReLU"
  bottom: "ip1"
  top: "ip1"
}
layer {
  name: "ip2"
  type: "InnerProduct"
  bottom: "ip1"
  top: "ip2"
  param {
    lr_mult: 1
  }
  param {
    lr_mult: 2
  }
  inner_product_param {
    num_output: 25
    weight_filler {
      type: "xavier"
    }
    bias_filler {
      type: "constant"
    }
  }
}
layer {
  name: "relu2"
  type: "ReLU"
  bottom: "ip2"
  top: "ip2"
}
layer {
  name: "ip3"
  type: "InnerProduct"
  bottom: "ip2"
  top: "ip3"
  param {
    lr_mult: 1
  }
  param {
    lr_mult: 2
  }
  inner_product_param {
    num_output: 10
    weight_filler {
      type: "xavier"
    }
    bias_filler {
      type: "constant"
    }
  }
}
layer {
  name: "relu3"
  type: "ReLU"
  bottom: "ip3"
  top: "ip3"
}
layer {
  name: "loss"
  type: "SoftmaxWithLoss"
  bottom: "ip3"
  bottom: "label"
  top: "loss"
}
I0428 20:28:01.145234  3279 layer_factory.hpp:77] Creating layer mnist
I0428 20:28:01.145332  3279 db_lmdb.cpp:35] Opened lmdb examples/mnist/mnist_train_lmdb
I0428 20:28:01.145356  3279 net.cpp:86] Creating Layer mnist
I0428 20:28:01.145365  3279 net.cpp:382] mnist -> data
I0428 20:28:01.145387  3279 net.cpp:382] mnist -> label
I0428 20:28:01.146523  3279 data_layer.cpp:45] output data size: 64,1,28,28
I0428 20:28:01.149128  3279 net.cpp:124] Setting up mnist
I0428 20:28:01.149147  3279 net.cpp:131] Top shape: 64 1 28 28 (50176)
I0428 20:28:01.149153  3279 net.cpp:131] Top shape: 64 (64)
I0428 20:28:01.149157  3279 net.cpp:139] Memory required for data: 200960
I0428 20:28:01.149163  3279 layer_factory.hpp:77] Creating layer conv0
I0428 20:28:01.149212  3279 net.cpp:86] Creating Layer conv0
I0428 20:28:01.149233  3279 net.cpp:408] conv0 <- data
I0428 20:28:01.149247  3279 net.cpp:382] conv0 -> conv0
I0428 20:28:01.395573  3279 net.cpp:124] Setting up conv0
I0428 20:28:01.395614  3279 net.cpp:131] Top shape: 64 100 24 24 (3686400)
I0428 20:28:01.395618  3279 net.cpp:139] Memory required for data: 14946560
I0428 20:28:01.395633  3279 layer_factory.hpp:77] Creating layer pool0
I0428 20:28:01.395645  3279 net.cpp:86] Creating Layer pool0
I0428 20:28:01.395649  3279 net.cpp:408] pool0 <- conv0
I0428 20:28:01.395654  3279 net.cpp:382] pool0 -> pool0
I0428 20:28:01.395699  3279 net.cpp:124] Setting up pool0
I0428 20:28:01.395704  3279 net.cpp:131] Top shape: 64 100 12 12 (921600)
I0428 20:28:01.395705  3279 net.cpp:139] Memory required for data: 18632960
I0428 20:28:01.395709  3279 layer_factory.hpp:77] Creating layer conv1
I0428 20:28:01.395720  3279 net.cpp:86] Creating Layer conv1
I0428 20:28:01.395722  3279 net.cpp:408] conv1 <- pool0
I0428 20:28:01.395726  3279 net.cpp:382] conv1 -> conv1
I0428 20:28:01.398519  3279 net.cpp:124] Setting up conv1
I0428 20:28:01.398548  3279 net.cpp:131] Top shape: 64 5 8 8 (20480)
I0428 20:28:01.398552  3279 net.cpp:139] Memory required for data: 18714880
I0428 20:28:01.398574  3279 layer_factory.hpp:77] Creating layer pool1
I0428 20:28:01.398582  3279 net.cpp:86] Creating Layer pool1
I0428 20:28:01.398586  3279 net.cpp:408] pool1 <- conv1
I0428 20:28:01.398591  3279 net.cpp:382] pool1 -> pool1
I0428 20:28:01.398623  3279 net.cpp:124] Setting up pool1
I0428 20:28:01.398628  3279 net.cpp:131] Top shape: 64 5 4 4 (5120)
I0428 20:28:01.398632  3279 net.cpp:139] Memory required for data: 18735360
I0428 20:28:01.398634  3279 layer_factory.hpp:77] Creating layer ip1
I0428 20:28:01.398640  3279 net.cpp:86] Creating Layer ip1
I0428 20:28:01.398644  3279 net.cpp:408] ip1 <- pool1
I0428 20:28:01.398651  3279 net.cpp:382] ip1 -> ip1
I0428 20:28:01.398743  3279 net.cpp:124] Setting up ip1
I0428 20:28:01.398751  3279 net.cpp:131] Top shape: 64 10 (640)
I0428 20:28:01.398753  3279 net.cpp:139] Memory required for data: 18737920
I0428 20:28:01.398761  3279 layer_factory.hpp:77] Creating layer relu1
I0428 20:28:01.398766  3279 net.cpp:86] Creating Layer relu1
I0428 20:28:01.398768  3279 net.cpp:408] relu1 <- ip1
I0428 20:28:01.398772  3279 net.cpp:369] relu1 -> ip1 (in-place)
I0428 20:28:01.398918  3279 net.cpp:124] Setting up relu1
I0428 20:28:01.398926  3279 net.cpp:131] Top shape: 64 10 (640)
I0428 20:28:01.398929  3279 net.cpp:139] Memory required for data: 18740480
I0428 20:28:01.398932  3279 layer_factory.hpp:77] Creating layer ip2
I0428 20:28:01.398937  3279 net.cpp:86] Creating Layer ip2
I0428 20:28:01.398941  3279 net.cpp:408] ip2 <- ip1
I0428 20:28:01.398944  3279 net.cpp:382] ip2 -> ip2
I0428 20:28:01.399027  3279 net.cpp:124] Setting up ip2
I0428 20:28:01.399034  3279 net.cpp:131] Top shape: 64 25 (1600)
I0428 20:28:01.399052  3279 net.cpp:139] Memory required for data: 18746880
I0428 20:28:01.399058  3279 layer_factory.hpp:77] Creating layer relu2
I0428 20:28:01.399063  3279 net.cpp:86] Creating Layer relu2
I0428 20:28:01.399066  3279 net.cpp:408] relu2 <- ip2
I0428 20:28:01.399070  3279 net.cpp:369] relu2 -> ip2 (in-place)
I0428 20:28:01.399837  3279 net.cpp:124] Setting up relu2
I0428 20:28:01.399850  3279 net.cpp:131] Top shape: 64 25 (1600)
I0428 20:28:01.399869  3279 net.cpp:139] Memory required for data: 18753280
I0428 20:28:01.399873  3279 layer_factory.hpp:77] Creating layer ip3
I0428 20:28:01.399879  3279 net.cpp:86] Creating Layer ip3
I0428 20:28:01.399884  3279 net.cpp:408] ip3 <- ip2
I0428 20:28:01.399889  3279 net.cpp:382] ip3 -> ip3
I0428 20:28:01.399981  3279 net.cpp:124] Setting up ip3
I0428 20:28:01.399988  3279 net.cpp:131] Top shape: 64 10 (640)
I0428 20:28:01.399991  3279 net.cpp:139] Memory required for data: 18755840
I0428 20:28:01.399998  3279 layer_factory.hpp:77] Creating layer relu3
I0428 20:28:01.400003  3279 net.cpp:86] Creating Layer relu3
I0428 20:28:01.400005  3279 net.cpp:408] relu3 <- ip3
I0428 20:28:01.400009  3279 net.cpp:369] relu3 -> ip3 (in-place)
I0428 20:28:01.400177  3279 net.cpp:124] Setting up relu3
I0428 20:28:01.400185  3279 net.cpp:131] Top shape: 64 10 (640)
I0428 20:28:01.400189  3279 net.cpp:139] Memory required for data: 18758400
I0428 20:28:01.400192  3279 layer_factory.hpp:77] Creating layer loss
I0428 20:28:01.400202  3279 net.cpp:86] Creating Layer loss
I0428 20:28:01.400207  3279 net.cpp:408] loss <- ip3
I0428 20:28:01.400210  3279 net.cpp:408] loss <- label
I0428 20:28:01.400215  3279 net.cpp:382] loss -> loss
I0428 20:28:01.400233  3279 layer_factory.hpp:77] Creating layer loss
…
I0428 20:28:01.400885  3279 solver.cpp:173] Creating test net (#0) specified by net file: ECE595/mnist/train_test/var_everything2/lenet_train_test1498.prototxt
I0428 20:28:01.400957  3279 net.cpp:296] The NetState phase (1) differed from the phase (0) specified by a rule in layer mnist
I0428 20:28:01.401059  3279 net.cpp:53] Initializing net from parameters: 
name: "LeNet"
state {
  phase: TEST
}
layer {
  name: "mnist"
  type: "Data"
  top: "data"
  top: "label"
  include {
    phase: TEST
  }
  transform_param {
    scale: 0.00390625
  }
  data_param {
    source: "examples/mnist/mnist_test_lmdb"
    batch_size: 100
    backend: LMDB
  }
}
layer {
  name: "conv0"
  type: "Convolution"
  bottom: "data"
  top: "conv0"
  param {
    lr_mult: 1
  }
  param {
    lr_mult: 2
  }
  convolution_param {
    num_output: 100
    kernel_size: 5
    stride: 1
    weight_filler {
      type: "xavier"
    }
    bias_filler {
      type: "constant"
    }
  }
}
layer {
  name: "pool0"
  type: "Pooling"
  bottom: "conv0"
  top: "pool0"
  pooling_param {
    pool: MAX
    kernel_size: 2
    stride: 2
  }
}
layer {
  name: "conv1"
  type: "Convolution"
  bottom: "pool0"
  top: "conv1"
  param {
    lr_mult: 1
  }
  param {
    lr_mult: 2
  }
  convolution_param {
    num_output: 5
    kernel_size: 5
    stride: 1
    weight_filler {
      type: "xavier"
    }
    bias_filler {
      type: "constant"
    }
  }
}
layer {
  name: "pool1"
  type: "Pooling"
  bottom: "conv1"
  top: "pool1"
  pooling_param {
    pool: MAX
    kernel_size: 2
    stride: 2
  }
}
layer {
  name: "ip1"
  type: "InnerProduct"
  bottom: "pool1"
  top: "ip1"
  param {
    lr_mult: 1
  }
  param {
    lr_mult: 2
  }
  inner_product_param {
    num_output: 10
    weight_filler {
      type: "xavier"
    }
    bias_filler {
      type: "constant"
    }
  }
}
layer {
  name: "relu1"
  type: "ReLU"
  bottom: "ip1"
  top: "ip1"
}
layer {
  name: "ip2"
  type: "InnerProduct"
  bottom: "ip1"
  top: "ip2"
  param {
    lr_mult: 1
  }
  param {
    lr_mult: 2
  }
  inner_product_param {
    num_output: 25
    weight_filler {
      type: "xavier"
    }
    bias_filler {
      type: "constant"
    }
  }
}
layer {
  name: "relu2"
  type: "ReLU"
  bottom: "ip2"
  top: "ip2"
}
layer {
  name: "ip3"
  type: "InnerProduct"
  bottom: "ip2"
  top: "ip3"
  param {
    lr_mult: 1
  }
  param {
    lr_mult: 2
  }
  inner_product_param {
    num_output: 10
    weight_filler {
      type: "xavier"
    }
    bias_filler {
      type: "constant"
    }
  }
}
layer {
  name: "relu3"
  type: "ReLU"
  bottom: "ip3"
  top: "ip3"
}
layer {
  name: "accuracy"
  type: "Accuracy"
  bottom: "ip3"
  bottom: "label"
  top: "accuracy"
  include {
    phase: TEST
  }
}
layer {
  name: "loss"
  type: "SoftmaxWithLoss"
  bottom: "ip3"
  bottom: "label"
  top: "loss"
}
I0428 20:28:01.401144  3279 layer_factory.hpp:77] Creating layer mnist
I0428 20:28:01.401198  3279 db_lmdb.cpp:35] Opened lmdb examples/mnist/mnist_test_lmdb
I0428 20:28:01.401226  3279 net.cpp:86] Creating Layer mnist
I0428 20:28:01.401229  3279 net.cpp:382] mnist -> data
I0428 20:28:01.401248  3279 net.cpp:382] mnist -> label
I0428 20:28:01.401331  3279 data_layer.cpp:45] output data size: 100,1,28,28
I0428 20:28:01.403261  3279 net.cpp:124] Setting up mnist
I0428 20:28:01.403306  3279 net.cpp:131] Top shape: 100 1 28 28 (78400)
I0428 20:28:01.403311  3279 net.cpp:131] Top shape: 100 (100)
I0428 20:28:01.403328  3279 net.cpp:139] Memory required for data: 314000
I0428 20:28:01.403332  3279 layer_factory.hpp:77] Creating layer label_mnist_1_split
I0428 20:28:01.403355  3279 net.cpp:86] Creating Layer label_mnist_1_split
I0428 20:28:01.403359  3279 net.cpp:408] label_mnist_1_split <- label
I0428 20:28:01.403364  3279 net.cpp:382] label_mnist_1_split -> label_mnist_1_split_0
I0428 20:28:01.403370  3279 net.cpp:382] label_mnist_1_split -> label_mnist_1_split_1
I0428 20:28:01.403426  3279 net.cpp:124] Setting up label_mnist_1_split
I0428 20:28:01.403441  3279 net.cpp:131] Top shape: 100 (100)
I0428 20:28:01.403445  3279 net.cpp:131] Top shape: 100 (100)
I0428 20:28:01.403448  3279 net.cpp:139] Memory required for data: 314800
I0428 20:28:01.403451  3279 layer_factory.hpp:77] Creating layer conv0
I0428 20:28:01.403460  3279 net.cpp:86] Creating Layer conv0
I0428 20:28:01.403462  3279 net.cpp:408] conv0 <- data
I0428 20:28:01.403467  3279 net.cpp:382] conv0 -> conv0
I0428 20:28:01.405047  3279 net.cpp:124] Setting up conv0
I0428 20:28:01.405078  3279 net.cpp:131] Top shape: 100 100 24 24 (5760000)
I0428 20:28:01.405082  3279 net.cpp:139] Memory required for data: 23354800
I0428 20:28:01.405092  3279 layer_factory.hpp:77] Creating layer pool0
I0428 20:28:01.405099  3279 net.cpp:86] Creating Layer pool0
I0428 20:28:01.405103  3279 net.cpp:408] pool0 <- conv0
I0428 20:28:01.405108  3279 net.cpp:382] pool0 -> pool0
I0428 20:28:01.405185  3279 net.cpp:124] Setting up pool0
I0428 20:28:01.405211  3279 net.cpp:131] Top shape: 100 100 12 12 (1440000)
I0428 20:28:01.405216  3279 net.cpp:139] Memory required for data: 29114800
I0428 20:28:01.405221  3279 layer_factory.hpp:77] Creating layer conv1
I0428 20:28:01.405233  3279 net.cpp:86] Creating Layer conv1
I0428 20:28:01.405241  3279 net.cpp:408] conv1 <- pool0
I0428 20:28:01.405248  3279 net.cpp:382] conv1 -> conv1
I0428 20:28:01.406930  3279 net.cpp:124] Setting up conv1
I0428 20:28:01.406963  3279 net.cpp:131] Top shape: 100 5 8 8 (32000)
I0428 20:28:01.406970  3279 net.cpp:139] Memory required for data: 29242800
I0428 20:28:01.406982  3279 layer_factory.hpp:77] Creating layer pool1
I0428 20:28:01.407007  3279 net.cpp:86] Creating Layer pool1
I0428 20:28:01.407012  3279 net.cpp:408] pool1 <- conv1
I0428 20:28:01.407022  3279 net.cpp:382] pool1 -> pool1
I0428 20:28:01.407061  3279 net.cpp:124] Setting up pool1
I0428 20:28:01.407075  3279 net.cpp:131] Top shape: 100 5 4 4 (8000)
I0428 20:28:01.407079  3279 net.cpp:139] Memory required for data: 29274800
I0428 20:28:01.407083  3279 layer_factory.hpp:77] Creating layer ip1
I0428 20:28:01.407088  3279 net.cpp:86] Creating Layer ip1
I0428 20:28:01.407093  3279 net.cpp:408] ip1 <- pool1
I0428 20:28:01.407099  3279 net.cpp:382] ip1 -> ip1
I0428 20:28:01.407207  3279 net.cpp:124] Setting up ip1
I0428 20:28:01.407214  3279 net.cpp:131] Top shape: 100 10 (1000)
I0428 20:28:01.407227  3279 net.cpp:139] Memory required for data: 29278800
I0428 20:28:01.407235  3279 layer_factory.hpp:77] Creating layer relu1
I0428 20:28:01.407240  3279 net.cpp:86] Creating Layer relu1
I0428 20:28:01.407244  3279 net.cpp:408] relu1 <- ip1
I0428 20:28:01.407248  3279 net.cpp:369] relu1 -> ip1 (in-place)
I0428 20:28:01.407408  3279 net.cpp:124] Setting up relu1
I0428 20:28:01.407416  3279 net.cpp:131] Top shape: 100 10 (1000)
I0428 20:28:01.407419  3279 net.cpp:139] Memory required for data: 29282800
I0428 20:28:01.407423  3279 layer_factory.hpp:77] Creating layer ip2
I0428 20:28:01.407429  3279 net.cpp:86] Creating Layer ip2
I0428 20:28:01.407433  3279 net.cpp:408] ip2 <- ip1
I0428 20:28:01.407438  3279 net.cpp:382] ip2 -> ip2
I0428 20:28:01.407536  3279 net.cpp:124] Setting up ip2
I0428 20:28:01.407543  3279 net.cpp:131] Top shape: 100 25 (2500)
I0428 20:28:01.407546  3279 net.cpp:139] Memory required for data: 29292800
I0428 20:28:01.407552  3279 layer_factory.hpp:77] Creating layer relu2
I0428 20:28:01.407555  3279 net.cpp:86] Creating Layer relu2
I0428 20:28:01.407558  3279 net.cpp:408] relu2 <- ip2
I0428 20:28:01.407564  3279 net.cpp:369] relu2 -> ip2 (in-place)
I0428 20:28:01.407774  3279 net.cpp:124] Setting up relu2
I0428 20:28:01.407799  3279 net.cpp:131] Top shape: 100 25 (2500)
I0428 20:28:01.407802  3279 net.cpp:139] Memory required for data: 29302800
I0428 20:28:01.407806  3279 layer_factory.hpp:77] Creating layer ip3
I0428 20:28:01.407812  3279 net.cpp:86] Creating Layer ip3
I0428 20:28:01.407815  3279 net.cpp:408] ip3 <- ip2
I0428 20:28:01.407821  3279 net.cpp:382] ip3 -> ip3
I0428 20:28:01.408021  3279 net.cpp:124] Setting up ip3
I0428 20:28:01.408031  3279 net.cpp:131] Top shape: 100 10 (1000)
I0428 20:28:01.408035  3279 net.cpp:139] Memory required for data: 29306800
I0428 20:28:01.408043  3279 layer_factory.hpp:77] Creating layer relu3
I0428 20:28:01.408048  3279 net.cpp:86] Creating Layer relu3
I0428 20:28:01.408051  3279 net.cpp:408] relu3 <- ip3
I0428 20:28:01.408057  3279 net.cpp:369] relu3 -> ip3 (in-place)
I0428 20:28:01.408910  3279 net.cpp:124] Setting up relu3
I0428 20:28:01.408923  3279 net.cpp:131] Top shape: 100 10 (1000)
I0428 20:28:01.408926  3279 net.cpp:139] Memory required for data: 29310800
I0428 20:28:01.408929  3279 layer_factory.hpp:77] Creating layer ip3_relu3_0_split
I0428 20:28:01.408936  3279 net.cpp:86] Creating Layer ip3_relu3_0_split
I0428 20:28:01.408939  3279 net.cpp:408] ip3_relu3_0_split <- ip3
I0428 20:28:01.408944  3279 net.cpp:382] ip3_relu3_0_split -> ip3_relu3_0_split_0
I0428 20:28:01.408951  3279 net.cpp:382] ip3_relu3_0_split -> ip3_relu3_0_split_1
I0428 20:28:01.409003  3279 net.cpp:124] Setting up ip3_relu3_0_split
I0428 20:28:01.409011  3279 net.cpp:131] Top shape: 100 10 (1000)
I0428 20:28:01.409015  3279 net.cpp:131] Top shape: 100 10 (1000)
I0428 20:28:01.409018  3279 net.cpp:139] Memory required for data: 29318800
I0428 20:28:01.409021  3279 layer_factory.hpp:77] Creating layer accuracy
I0428 20:28:01.409026  3279 net.cpp:86] Creating Layer accuracy
I0428 20:28:01.409029  3279 net.cpp:408] accuracy <- ip3_relu3_0_split_0
I0428 20:28:01.409034  3279 net.cpp:408] accuracy <- label_mnist_1_split_0
I0428 20:28:01.409040  3279 net.cpp:382] accuracy -> accuracy
…
