…
I0428 20:14:39.575740 32721 net.cpp:296] The NetState phase (0) differed from the phase (1) specified by a rule in layer mnist
I0428 20:14:39.575759 32721 net.cpp:296] The NetState phase (0) differed from the phase (1) specified by a rule in layer accuracy
I0428 20:14:39.575860 32721 net.cpp:53] Initializing net from parameters: 
name: "LeNet"
state {
  phase: TRAIN
  level: 0
  stage: ""
}
layer {
  name: "mnist"
  type: "Data"
  top: "data"
  top: "label"
  include {
    phase: TRAIN
  }
  transform_param {
    scale: 0.00390625
  }
  data_param {
    source: "examples/mnist/mnist_train_lmdb"
    batch_size: 64
    backend: LMDB
  }
}
layer {
  name: "conv0"
  type: "Convolution"
  bottom: "data"
  top: "conv0"
  param {
    lr_mult: 1
  }
  param {
    lr_mult: 2
  }
  convolution_param {
    num_output: 50
    kernel_size: 5
    stride: 1
    weight_filler {
      type: "xavier"
    }
    bias_filler {
      type: "constant"
    }
  }
}
layer {
  name: "pool0"
  type: "Pooling"
  bottom: "conv0"
  top: "pool0"
  pooling_param {
    pool: MAX
    kernel_size: 2
    stride: 2
  }
}
layer {
  name: "conv1"
  type: "Convolution"
  bottom: "pool0"
  top: "conv1"
  param {
    lr_mult: 1
  }
  param {
    lr_mult: 2
  }
  convolution_param {
    num_output: 2
    kernel_size: 5
    stride: 1
    weight_filler {
      type: "xavier"
    }
    bias_filler {
      type: "constant"
    }
  }
}
layer {
  name: "pool1"
  type: "Pooling"
  bottom: "conv1"
  top: "pool1"
  pooling_param {
    pool: MAX
    kernel_size: 2
    stride: 2
  }
}
layer {
  name: "ip1"
  type: "InnerProduct"
  bottom: "pool1"
  top: "ip1"
  param {
    lr_mult: 1
  }
  param {
    lr_mult: 2
  }
  inner_product_param {
    num_output: 10
    weight_filler {
      type: "xavier"
    }
    bias_filler {
      type: "constant"
    }
  }
}
layer {
  name: "relu1"
  type: "ReLU"
  bottom: "ip1"
  top: "ip1"
}
layer {
  name: "ip2"
  type: "InnerProduct"
  bottom: "ip1"
  top: "ip2"
  param {
    lr_mult: 1
  }
  param {
    lr_mult: 2
  }
  inner_product_param {
    num_output: 50
    weight_filler {
      type: "xavier"
    }
    bias_filler {
      type: "constant"
    }
  }
}
layer {
  name: "relu2"
  type: "ReLU"
  bottom: "ip2"
  top: "ip2"
}
layer {
  name: "ip3"
  type: "InnerProduct"
  bottom: "ip2"
  top: "ip3"
  param {
    lr_mult: 1
  }
  param {
    lr_mult: 2
  }
  inner_product_param {
    num_output: 10
    weight_filler {
      type: "xavier"
    }
    bias_filler {
      type: "constant"
    }
  }
}
layer {
  name: "relu3"
  type: "ReLU"
  bottom: "ip3"
  top: "ip3"
}
layer {
  name: "loss"
  type: "SoftmaxWithLoss"
  bottom: "ip3"
  bottom: "label"
  top: "loss"
}
I0428 20:14:39.575934 32721 layer_factory.hpp:77] Creating layer mnist
I0428 20:14:39.576031 32721 db_lmdb.cpp:35] Opened lmdb examples/mnist/mnist_train_lmdb
I0428 20:14:39.576055 32721 net.cpp:86] Creating Layer mnist
I0428 20:14:39.576062 32721 net.cpp:382] mnist -> data
I0428 20:14:39.576086 32721 net.cpp:382] mnist -> label
I0428 20:14:39.577179 32721 data_layer.cpp:45] output data size: 64,1,28,28
I0428 20:14:39.579612 32721 net.cpp:124] Setting up mnist
I0428 20:14:39.579630 32721 net.cpp:131] Top shape: 64 1 28 28 (50176)
I0428 20:14:39.579638 32721 net.cpp:131] Top shape: 64 (64)
I0428 20:14:39.579641 32721 net.cpp:139] Memory required for data: 200960
I0428 20:14:39.579648 32721 layer_factory.hpp:77] Creating layer conv0
I0428 20:14:39.579664 32721 net.cpp:86] Creating Layer conv0
I0428 20:14:39.579685 32721 net.cpp:408] conv0 <- data
I0428 20:14:39.579697 32721 net.cpp:382] conv0 -> conv0
I0428 20:14:39.866586 32721 net.cpp:124] Setting up conv0
I0428 20:14:39.866617 32721 net.cpp:131] Top shape: 64 50 24 24 (1843200)
I0428 20:14:39.866621 32721 net.cpp:139] Memory required for data: 7573760
I0428 20:14:39.866637 32721 layer_factory.hpp:77] Creating layer pool0
I0428 20:14:39.866650 32721 net.cpp:86] Creating Layer pool0
I0428 20:14:39.866655 32721 net.cpp:408] pool0 <- conv0
I0428 20:14:39.866660 32721 net.cpp:382] pool0 -> pool0
I0428 20:14:39.866711 32721 net.cpp:124] Setting up pool0
I0428 20:14:39.866717 32721 net.cpp:131] Top shape: 64 50 12 12 (460800)
I0428 20:14:39.866720 32721 net.cpp:139] Memory required for data: 9416960
I0428 20:14:39.866724 32721 layer_factory.hpp:77] Creating layer conv1
I0428 20:14:39.866736 32721 net.cpp:86] Creating Layer conv1
I0428 20:14:39.866739 32721 net.cpp:408] conv1 <- pool0
I0428 20:14:39.866746 32721 net.cpp:382] conv1 -> conv1
I0428 20:14:39.868661 32721 net.cpp:124] Setting up conv1
I0428 20:14:39.868676 32721 net.cpp:131] Top shape: 64 2 8 8 (8192)
I0428 20:14:39.868681 32721 net.cpp:139] Memory required for data: 9449728
I0428 20:14:39.868690 32721 layer_factory.hpp:77] Creating layer pool1
I0428 20:14:39.868700 32721 net.cpp:86] Creating Layer pool1
I0428 20:14:39.868703 32721 net.cpp:408] pool1 <- conv1
I0428 20:14:39.868708 32721 net.cpp:382] pool1 -> pool1
I0428 20:14:39.868748 32721 net.cpp:124] Setting up pool1
I0428 20:14:39.868754 32721 net.cpp:131] Top shape: 64 2 4 4 (2048)
I0428 20:14:39.868757 32721 net.cpp:139] Memory required for data: 9457920
I0428 20:14:39.868760 32721 layer_factory.hpp:77] Creating layer ip1
I0428 20:14:39.868769 32721 net.cpp:86] Creating Layer ip1
I0428 20:14:39.868772 32721 net.cpp:408] ip1 <- pool1
I0428 20:14:39.868778 32721 net.cpp:382] ip1 -> ip1
I0428 20:14:39.868896 32721 net.cpp:124] Setting up ip1
I0428 20:14:39.868906 32721 net.cpp:131] Top shape: 64 10 (640)
I0428 20:14:39.868908 32721 net.cpp:139] Memory required for data: 9460480
I0428 20:14:39.868916 32721 layer_factory.hpp:77] Creating layer relu1
I0428 20:14:39.868922 32721 net.cpp:86] Creating Layer relu1
I0428 20:14:39.868927 32721 net.cpp:408] relu1 <- ip1
I0428 20:14:39.868932 32721 net.cpp:369] relu1 -> ip1 (in-place)
I0428 20:14:39.869117 32721 net.cpp:124] Setting up relu1
I0428 20:14:39.869124 32721 net.cpp:131] Top shape: 64 10 (640)
I0428 20:14:39.869128 32721 net.cpp:139] Memory required for data: 9463040
I0428 20:14:39.869132 32721 layer_factory.hpp:77] Creating layer ip2
I0428 20:14:39.869138 32721 net.cpp:86] Creating Layer ip2
I0428 20:14:39.869143 32721 net.cpp:408] ip2 <- ip1
I0428 20:14:39.869148 32721 net.cpp:382] ip2 -> ip2
I0428 20:14:39.869247 32721 net.cpp:124] Setting up ip2
I0428 20:14:39.869256 32721 net.cpp:131] Top shape: 64 50 (3200)
I0428 20:14:39.869258 32721 net.cpp:139] Memory required for data: 9475840
I0428 20:14:39.869263 32721 layer_factory.hpp:77] Creating layer relu2
I0428 20:14:39.869269 32721 net.cpp:86] Creating Layer relu2
I0428 20:14:39.869272 32721 net.cpp:408] relu2 <- ip2
I0428 20:14:39.869278 32721 net.cpp:369] relu2 -> ip2 (in-place)
I0428 20:14:39.870054 32721 net.cpp:124] Setting up relu2
I0428 20:14:39.870067 32721 net.cpp:131] Top shape: 64 50 (3200)
I0428 20:14:39.870071 32721 net.cpp:139] Memory required for data: 9488640
I0428 20:14:39.870074 32721 layer_factory.hpp:77] Creating layer ip3
I0428 20:14:39.870084 32721 net.cpp:86] Creating Layer ip3
I0428 20:14:39.870086 32721 net.cpp:408] ip3 <- ip2
I0428 20:14:39.870091 32721 net.cpp:382] ip3 -> ip3
I0428 20:14:39.870195 32721 net.cpp:124] Setting up ip3
I0428 20:14:39.870203 32721 net.cpp:131] Top shape: 64 10 (640)
I0428 20:14:39.870206 32721 net.cpp:139] Memory required for data: 9491200
I0428 20:14:39.870213 32721 layer_factory.hpp:77] Creating layer relu3
I0428 20:14:39.870220 32721 net.cpp:86] Creating Layer relu3
I0428 20:14:39.870224 32721 net.cpp:408] relu3 <- ip3
I0428 20:14:39.870229 32721 net.cpp:369] relu3 -> ip3 (in-place)
I0428 20:14:39.870398 32721 net.cpp:124] Setting up relu3
I0428 20:14:39.870407 32721 net.cpp:131] Top shape: 64 10 (640)
I0428 20:14:39.870410 32721 net.cpp:139] Memory required for data: 9493760
I0428 20:14:39.870414 32721 layer_factory.hpp:77] Creating layer loss
I0428 20:14:39.870420 32721 net.cpp:86] Creating Layer loss
I0428 20:14:39.870424 32721 net.cpp:408] loss <- ip3
I0428 20:14:39.870429 32721 net.cpp:408] loss <- label
I0428 20:14:39.870435 32721 net.cpp:382] loss -> loss
I0428 20:14:39.870452 32721 layer_factory.hpp:77] Creating layer loss
…
I0428 20:14:39.871105 32721 solver.cpp:173] Creating test net (#0) specified by net file: ECE595/mnist/train_test/var_everything2/lenet_train_test1227.prototxt
I0428 20:14:39.871148 32721 net.cpp:296] The NetState phase (1) differed from the phase (0) specified by a rule in layer mnist
I0428 20:14:39.871258 32721 net.cpp:53] Initializing net from parameters: 
name: "LeNet"
state {
  phase: TEST
}
layer {
  name: "mnist"
  type: "Data"
  top: "data"
  top: "label"
  include {
    phase: TEST
  }
  transform_param {
    scale: 0.00390625
  }
  data_param {
    source: "examples/mnist/mnist_test_lmdb"
    batch_size: 100
    backend: LMDB
  }
}
layer {
  name: "conv0"
  type: "Convolution"
  bottom: "data"
  top: "conv0"
  param {
    lr_mult: 1
  }
  param {
    lr_mult: 2
  }
  convolution_param {
    num_output: 50
    kernel_size: 5
    stride: 1
    weight_filler {
      type: "xavier"
    }
    bias_filler {
      type: "constant"
    }
  }
}
layer {
  name: "pool0"
  type: "Pooling"
  bottom: "conv0"
  top: "pool0"
  pooling_param {
    pool: MAX
    kernel_size: 2
    stride: 2
  }
}
layer {
  name: "conv1"
  type: "Convolution"
  bottom: "pool0"
  top: "conv1"
  param {
    lr_mult: 1
  }
  param {
    lr_mult: 2
  }
  convolution_param {
    num_output: 2
    kernel_size: 5
    stride: 1
    weight_filler {
      type: "xavier"
    }
    bias_filler {
      type: "constant"
    }
  }
}
layer {
  name: "pool1"
  type: "Pooling"
  bottom: "conv1"
  top: "pool1"
  pooling_param {
    pool: MAX
    kernel_size: 2
    stride: 2
  }
}
layer {
  name: "ip1"
  type: "InnerProduct"
  bottom: "pool1"
  top: "ip1"
  param {
    lr_mult: 1
  }
  param {
    lr_mult: 2
  }
  inner_product_param {
    num_output: 10
    weight_filler {
      type: "xavier"
    }
    bias_filler {
      type: "constant"
    }
  }
}
layer {
  name: "relu1"
  type: "ReLU"
  bottom: "ip1"
  top: "ip1"
}
layer {
  name: "ip2"
  type: "InnerProduct"
  bottom: "ip1"
  top: "ip2"
  param {
    lr_mult: 1
  }
  param {
    lr_mult: 2
  }
  inner_product_param {
    num_output: 50
    weight_filler {
      type: "xavier"
    }
    bias_filler {
      type: "constant"
    }
  }
}
layer {
  name: "relu2"
  type: "ReLU"
  bottom: "ip2"
  top: "ip2"
}
layer {
  name: "ip3"
  type: "InnerProduct"
  bottom: "ip2"
  top: "ip3"
  param {
    lr_mult: 1
  }
  param {
    lr_mult: 2
  }
  inner_product_param {
    num_output: 10
    weight_filler {
      type: "xavier"
    }
    bias_filler {
      type: "constant"
    }
  }
}
layer {
  name: "relu3"
  type: "ReLU"
  bottom: "ip3"
  top: "ip3"
}
layer {
  name: "accuracy"
  type: "Accuracy"
  bottom: "ip3"
  bottom: "label"
  top: "accuracy"
  include {
    phase: TEST
  }
}
layer {
  name: "loss"
  type: "SoftmaxWithLoss"
  bottom: "ip3"
  bottom: "label"
  top: "loss"
}
I0428 20:14:39.871340 32721 layer_factory.hpp:77] Creating layer mnist
I0428 20:14:39.871383 32721 db_lmdb.cpp:35] Opened lmdb examples/mnist/mnist_test_lmdb
I0428 20:14:39.871395 32721 net.cpp:86] Creating Layer mnist
I0428 20:14:39.871402 32721 net.cpp:382] mnist -> data
I0428 20:14:39.871409 32721 net.cpp:382] mnist -> label
I0428 20:14:39.871497 32721 data_layer.cpp:45] output data size: 100,1,28,28
I0428 20:14:39.873385 32721 net.cpp:124] Setting up mnist
I0428 20:14:39.873399 32721 net.cpp:131] Top shape: 100 1 28 28 (78400)
I0428 20:14:39.873404 32721 net.cpp:131] Top shape: 100 (100)
I0428 20:14:39.873407 32721 net.cpp:139] Memory required for data: 314000
I0428 20:14:39.873411 32721 layer_factory.hpp:77] Creating layer label_mnist_1_split
I0428 20:14:39.873420 32721 net.cpp:86] Creating Layer label_mnist_1_split
I0428 20:14:39.873425 32721 net.cpp:408] label_mnist_1_split <- label
I0428 20:14:39.873455 32721 net.cpp:382] label_mnist_1_split -> label_mnist_1_split_0
I0428 20:14:39.873464 32721 net.cpp:382] label_mnist_1_split -> label_mnist_1_split_1
I0428 20:14:39.873510 32721 net.cpp:124] Setting up label_mnist_1_split
I0428 20:14:39.873517 32721 net.cpp:131] Top shape: 100 (100)
I0428 20:14:39.873522 32721 net.cpp:131] Top shape: 100 (100)
I0428 20:14:39.873524 32721 net.cpp:139] Memory required for data: 314800
I0428 20:14:39.873528 32721 layer_factory.hpp:77] Creating layer conv0
I0428 20:14:39.873538 32721 net.cpp:86] Creating Layer conv0
I0428 20:14:39.873540 32721 net.cpp:408] conv0 <- data
I0428 20:14:39.873545 32721 net.cpp:382] conv0 -> conv0
I0428 20:14:39.875226 32721 net.cpp:124] Setting up conv0
I0428 20:14:39.875239 32721 net.cpp:131] Top shape: 100 50 24 24 (2880000)
I0428 20:14:39.875243 32721 net.cpp:139] Memory required for data: 11834800
I0428 20:14:39.875252 32721 layer_factory.hpp:77] Creating layer pool0
I0428 20:14:39.875260 32721 net.cpp:86] Creating Layer pool0
I0428 20:14:39.875264 32721 net.cpp:408] pool0 <- conv0
I0428 20:14:39.875269 32721 net.cpp:382] pool0 -> pool0
I0428 20:14:39.875305 32721 net.cpp:124] Setting up pool0
I0428 20:14:39.875311 32721 net.cpp:131] Top shape: 100 50 12 12 (720000)
I0428 20:14:39.875314 32721 net.cpp:139] Memory required for data: 14714800
I0428 20:14:39.875316 32721 layer_factory.hpp:77] Creating layer conv1
I0428 20:14:39.875326 32721 net.cpp:86] Creating Layer conv1
I0428 20:14:39.875329 32721 net.cpp:408] conv1 <- pool0
I0428 20:14:39.875336 32721 net.cpp:382] conv1 -> conv1
I0428 20:14:39.876791 32721 net.cpp:124] Setting up conv1
I0428 20:14:39.876804 32721 net.cpp:131] Top shape: 100 2 8 8 (12800)
I0428 20:14:39.876813 32721 net.cpp:139] Memory required for data: 14766000
I0428 20:14:39.876845 32721 layer_factory.hpp:77] Creating layer pool1
I0428 20:14:39.876854 32721 net.cpp:86] Creating Layer pool1
I0428 20:14:39.876858 32721 net.cpp:408] pool1 <- conv1
I0428 20:14:39.876879 32721 net.cpp:382] pool1 -> pool1
I0428 20:14:39.876934 32721 net.cpp:124] Setting up pool1
I0428 20:14:39.876945 32721 net.cpp:131] Top shape: 100 2 4 4 (3200)
I0428 20:14:39.876955 32721 net.cpp:139] Memory required for data: 14778800
I0428 20:14:39.876957 32721 layer_factory.hpp:77] Creating layer ip1
I0428 20:14:39.876967 32721 net.cpp:86] Creating Layer ip1
I0428 20:14:39.876971 32721 net.cpp:408] ip1 <- pool1
I0428 20:14:39.876977 32721 net.cpp:382] ip1 -> ip1
I0428 20:14:39.877076 32721 net.cpp:124] Setting up ip1
I0428 20:14:39.877084 32721 net.cpp:131] Top shape: 100 10 (1000)
I0428 20:14:39.877097 32721 net.cpp:139] Memory required for data: 14782800
I0428 20:14:39.877106 32721 layer_factory.hpp:77] Creating layer relu1
I0428 20:14:39.877113 32721 net.cpp:86] Creating Layer relu1
I0428 20:14:39.877116 32721 net.cpp:408] relu1 <- ip1
I0428 20:14:39.877121 32721 net.cpp:369] relu1 -> ip1 (in-place)
I0428 20:14:39.877321 32721 net.cpp:124] Setting up relu1
I0428 20:14:39.877331 32721 net.cpp:131] Top shape: 100 10 (1000)
I0428 20:14:39.877351 32721 net.cpp:139] Memory required for data: 14786800
I0428 20:14:39.877354 32721 layer_factory.hpp:77] Creating layer ip2
I0428 20:14:39.877369 32721 net.cpp:86] Creating Layer ip2
I0428 20:14:39.877373 32721 net.cpp:408] ip2 <- ip1
I0428 20:14:39.877379 32721 net.cpp:382] ip2 -> ip2
I0428 20:14:39.877498 32721 net.cpp:124] Setting up ip2
I0428 20:14:39.877511 32721 net.cpp:131] Top shape: 100 50 (5000)
I0428 20:14:39.877514 32721 net.cpp:139] Memory required for data: 14806800
I0428 20:14:39.877521 32721 layer_factory.hpp:77] Creating layer relu2
I0428 20:14:39.877526 32721 net.cpp:86] Creating Layer relu2
I0428 20:14:39.877529 32721 net.cpp:408] relu2 <- ip2
I0428 20:14:39.877534 32721 net.cpp:369] relu2 -> ip2 (in-place)
I0428 20:14:39.877698 32721 net.cpp:124] Setting up relu2
I0428 20:14:39.877723 32721 net.cpp:131] Top shape: 100 50 (5000)
I0428 20:14:39.877727 32721 net.cpp:139] Memory required for data: 14826800
I0428 20:14:39.877744 32721 layer_factory.hpp:77] Creating layer ip3
I0428 20:14:39.877758 32721 net.cpp:86] Creating Layer ip3
I0428 20:14:39.877768 32721 net.cpp:408] ip3 <- ip2
I0428 20:14:39.877775 32721 net.cpp:382] ip3 -> ip3
I0428 20:14:39.877887 32721 net.cpp:124] Setting up ip3
I0428 20:14:39.877893 32721 net.cpp:131] Top shape: 100 10 (1000)
I0428 20:14:39.877897 32721 net.cpp:139] Memory required for data: 14830800
I0428 20:14:39.877904 32721 layer_factory.hpp:77] Creating layer relu3
I0428 20:14:39.877909 32721 net.cpp:86] Creating Layer relu3
I0428 20:14:39.877912 32721 net.cpp:408] relu3 <- ip3
I0428 20:14:39.877919 32721 net.cpp:369] relu3 -> ip3 (in-place)
I0428 20:14:39.878727 32721 net.cpp:124] Setting up relu3
I0428 20:14:39.878739 32721 net.cpp:131] Top shape: 100 10 (1000)
I0428 20:14:39.878759 32721 net.cpp:139] Memory required for data: 14834800
I0428 20:14:39.878762 32721 layer_factory.hpp:77] Creating layer ip3_relu3_0_split
I0428 20:14:39.878773 32721 net.cpp:86] Creating Layer ip3_relu3_0_split
I0428 20:14:39.878777 32721 net.cpp:408] ip3_relu3_0_split <- ip3
I0428 20:14:39.878783 32721 net.cpp:382] ip3_relu3_0_split -> ip3_relu3_0_split_0
I0428 20:14:39.878790 32721 net.cpp:382] ip3_relu3_0_split -> ip3_relu3_0_split_1
I0428 20:14:39.878842 32721 net.cpp:124] Setting up ip3_relu3_0_split
I0428 20:14:39.878847 32721 net.cpp:131] Top shape: 100 10 (1000)
I0428 20:14:39.878851 32721 net.cpp:131] Top shape: 100 10 (1000)
I0428 20:14:39.878854 32721 net.cpp:139] Memory required for data: 14842800
I0428 20:14:39.878857 32721 layer_factory.hpp:77] Creating layer accuracy
I0428 20:14:39.878865 32721 net.cpp:86] Creating Layer accuracy
I0428 20:14:39.878867 32721 net.cpp:408] accuracy <- ip3_relu3_0_split_0
I0428 20:14:39.878872 32721 net.cpp:408] accuracy <- label_mnist_1_split_0
I0428 20:14:39.878877 32721 net.cpp:382] accuracy -> accuracy
…
