…
I0428 19:36:27.196775 23686 net.cpp:296] The NetState phase (0) differed from the phase (1) specified by a rule in layer mnist
I0428 19:36:27.196790 23686 net.cpp:296] The NetState phase (0) differed from the phase (1) specified by a rule in layer accuracy
I0428 19:36:27.196874 23686 net.cpp:53] Initializing net from parameters: 
name: "LeNet"
state {
  phase: TRAIN
  level: 0
  stage: ""
}
layer {
  name: "mnist"
  type: "Data"
  top: "data"
  top: "label"
  include {
    phase: TRAIN
  }
  transform_param {
    scale: 0.00390625
  }
  data_param {
    source: "examples/mnist/mnist_train_lmdb"
    batch_size: 64
    backend: LMDB
  }
}
layer {
  name: "conv0"
  type: "Convolution"
  bottom: "data"
  top: "conv0"
  param {
    lr_mult: 1
  }
  param {
    lr_mult: 2
  }
  convolution_param {
    num_output: 100
    kernel_size: 5
    stride: 1
    weight_filler {
      type: "xavier"
    }
    bias_filler {
      type: "constant"
    }
  }
}
layer {
  name: "pool0"
  type: "Pooling"
  bottom: "conv0"
  top: "pool0"
  pooling_param {
    pool: MAX
    kernel_size: 2
    stride: 2
  }
}
layer {
  name: "ip1"
  type: "InnerProduct"
  bottom: "pool0"
  top: "ip1"
  param {
    lr_mult: 1
  }
  param {
    lr_mult: 2
  }
  inner_product_param {
    num_output: 50
    weight_filler {
      type: "xavier"
    }
    bias_filler {
      type: "constant"
    }
  }
}
layer {
  name: "relu1"
  type: "ReLU"
  bottom: "ip1"
  top: "ip1"
}
layer {
  name: "ip2"
  type: "InnerProduct"
  bottom: "ip1"
  top: "ip2"
  param {
    lr_mult: 1
  }
  param {
    lr_mult: 2
  }
  inner_product_param {
    num_output: 10
    weight_filler {
      type: "xavier"
    }
    bias_filler {
      type: "constant"
    }
  }
}
layer {
  name: "relu2"
  type: "ReLU"
  bottom: "ip2"
  top: "ip2"
}
layer {
  name: "loss"
  type: "SoftmaxWithLoss"
  bottom: "ip2"
  bottom: "label"
  top: "loss"
}
I0428 19:36:27.196949 23686 layer_factory.hpp:77] Creating layer mnist
I0428 19:36:27.197046 23686 db_lmdb.cpp:35] Opened lmdb examples/mnist/mnist_train_lmdb
I0428 19:36:27.197068 23686 net.cpp:86] Creating Layer mnist
I0428 19:36:27.197075 23686 net.cpp:382] mnist -> data
I0428 19:36:27.197098 23686 net.cpp:382] mnist -> label
I0428 19:36:27.198176 23686 data_layer.cpp:45] output data size: 64,1,28,28
I0428 19:36:27.200616 23686 net.cpp:124] Setting up mnist
I0428 19:36:27.200634 23686 net.cpp:131] Top shape: 64 1 28 28 (50176)
I0428 19:36:27.200640 23686 net.cpp:131] Top shape: 64 (64)
I0428 19:36:27.200644 23686 net.cpp:139] Memory required for data: 200960
I0428 19:36:27.200652 23686 layer_factory.hpp:77] Creating layer conv0
I0428 19:36:27.200669 23686 net.cpp:86] Creating Layer conv0
I0428 19:36:27.200675 23686 net.cpp:408] conv0 <- data
I0428 19:36:27.200685 23686 net.cpp:382] conv0 -> conv0
I0428 19:36:27.486436 23686 net.cpp:124] Setting up conv0
I0428 19:36:27.486466 23686 net.cpp:131] Top shape: 64 100 24 24 (3686400)
I0428 19:36:27.486471 23686 net.cpp:139] Memory required for data: 14946560
I0428 19:36:27.486488 23686 layer_factory.hpp:77] Creating layer pool0
I0428 19:36:27.486502 23686 net.cpp:86] Creating Layer pool0
I0428 19:36:27.486506 23686 net.cpp:408] pool0 <- conv0
I0428 19:36:27.486513 23686 net.cpp:382] pool0 -> pool0
I0428 19:36:27.486567 23686 net.cpp:124] Setting up pool0
I0428 19:36:27.486573 23686 net.cpp:131] Top shape: 64 100 12 12 (921600)
I0428 19:36:27.486577 23686 net.cpp:139] Memory required for data: 18632960
I0428 19:36:27.486598 23686 layer_factory.hpp:77] Creating layer ip1
I0428 19:36:27.486606 23686 net.cpp:86] Creating Layer ip1
I0428 19:36:27.486610 23686 net.cpp:408] ip1 <- pool0
I0428 19:36:27.486616 23686 net.cpp:382] ip1 -> ip1
I0428 19:36:27.492377 23686 net.cpp:124] Setting up ip1
I0428 19:36:27.492393 23686 net.cpp:131] Top shape: 64 50 (3200)
I0428 19:36:27.492396 23686 net.cpp:139] Memory required for data: 18645760
I0428 19:36:27.492405 23686 layer_factory.hpp:77] Creating layer relu1
I0428 19:36:27.492413 23686 net.cpp:86] Creating Layer relu1
I0428 19:36:27.492418 23686 net.cpp:408] relu1 <- ip1
I0428 19:36:27.492424 23686 net.cpp:369] relu1 -> ip1 (in-place)
I0428 19:36:27.492614 23686 net.cpp:124] Setting up relu1
I0428 19:36:27.492624 23686 net.cpp:131] Top shape: 64 50 (3200)
I0428 19:36:27.492627 23686 net.cpp:139] Memory required for data: 18658560
I0428 19:36:27.492631 23686 layer_factory.hpp:77] Creating layer ip2
I0428 19:36:27.492638 23686 net.cpp:86] Creating Layer ip2
I0428 19:36:27.492641 23686 net.cpp:408] ip2 <- ip1
I0428 19:36:27.492647 23686 net.cpp:382] ip2 -> ip2
I0428 19:36:27.492751 23686 net.cpp:124] Setting up ip2
I0428 19:36:27.492759 23686 net.cpp:131] Top shape: 64 10 (640)
I0428 19:36:27.492763 23686 net.cpp:139] Memory required for data: 18661120
I0428 19:36:27.492770 23686 layer_factory.hpp:77] Creating layer relu2
I0428 19:36:27.492776 23686 net.cpp:86] Creating Layer relu2
I0428 19:36:27.492779 23686 net.cpp:408] relu2 <- ip2
I0428 19:36:27.492784 23686 net.cpp:369] relu2 -> ip2 (in-place)
I0428 19:36:27.493578 23686 net.cpp:124] Setting up relu2
I0428 19:36:27.493593 23686 net.cpp:131] Top shape: 64 10 (640)
I0428 19:36:27.493597 23686 net.cpp:139] Memory required for data: 18663680
I0428 19:36:27.493602 23686 layer_factory.hpp:77] Creating layer loss
I0428 19:36:27.493608 23686 net.cpp:86] Creating Layer loss
I0428 19:36:27.493613 23686 net.cpp:408] loss <- ip2
I0428 19:36:27.493618 23686 net.cpp:408] loss <- label
I0428 19:36:27.493623 23686 net.cpp:382] loss -> loss
I0428 19:36:27.493639 23686 layer_factory.hpp:77] Creating layer loss
…
I0428 19:36:27.494226 23686 solver.cpp:173] Creating test net (#0) specified by net file: ECE595/mnist/train_test/var_everything2/lenet_train_test243.prototxt
I0428 19:36:27.494253 23686 net.cpp:296] The NetState phase (1) differed from the phase (0) specified by a rule in layer mnist
I0428 19:36:27.494333 23686 net.cpp:53] Initializing net from parameters: 
name: "LeNet"
state {
  phase: TEST
}
layer {
  name: "mnist"
  type: "Data"
  top: "data"
  top: "label"
  include {
    phase: TEST
  }
  transform_param {
    scale: 0.00390625
  }
  data_param {
    source: "examples/mnist/mnist_test_lmdb"
    batch_size: 100
    backend: LMDB
  }
}
layer {
  name: "conv0"
  type: "Convolution"
  bottom: "data"
  top: "conv0"
  param {
    lr_mult: 1
  }
  param {
    lr_mult: 2
  }
  convolution_param {
    num_output: 100
    kernel_size: 5
    stride: 1
    weight_filler {
      type: "xavier"
    }
    bias_filler {
      type: "constant"
    }
  }
}
layer {
  name: "pool0"
  type: "Pooling"
  bottom: "conv0"
  top: "pool0"
  pooling_param {
    pool: MAX
    kernel_size: 2
    stride: 2
  }
}
layer {
  name: "ip1"
  type: "InnerProduct"
  bottom: "pool0"
  top: "ip1"
  param {
    lr_mult: 1
  }
  param {
    lr_mult: 2
  }
  inner_product_param {
    num_output: 50
    weight_filler {
      type: "xavier"
    }
    bias_filler {
      type: "constant"
    }
  }
}
layer {
  name: "relu1"
  type: "ReLU"
  bottom: "ip1"
  top: "ip1"
}
layer {
  name: "ip2"
  type: "InnerProduct"
  bottom: "ip1"
  top: "ip2"
  param {
    lr_mult: 1
  }
  param {
    lr_mult: 2
  }
  inner_product_param {
    num_output: 10
    weight_filler {
      type: "xavier"
    }
    bias_filler {
      type: "constant"
    }
  }
}
layer {
  name: "relu2"
  type: "ReLU"
  bottom: "ip2"
  top: "ip2"
}
layer {
  name: "accuracy"
  type: "Accuracy"
  bottom: "ip2"
  bottom: "label"
  top: "accuracy"
  include {
    phase: TEST
  }
}
layer {
  name: "loss"
  type: "SoftmaxWithLoss"
  bottom: "ip2"
  bottom: "label"
  top: "loss"
}
I0428 19:36:27.494407 23686 layer_factory.hpp:77] Creating layer mnist
I0428 19:36:27.494454 23686 db_lmdb.cpp:35] Opened lmdb examples/mnist/mnist_test_lmdb
I0428 19:36:27.494467 23686 net.cpp:86] Creating Layer mnist
I0428 19:36:27.494473 23686 net.cpp:382] mnist -> data
I0428 19:36:27.494482 23686 net.cpp:382] mnist -> label
I0428 19:36:27.494573 23686 data_layer.cpp:45] output data size: 100,1,28,28
I0428 19:36:27.496592 23686 net.cpp:124] Setting up mnist
I0428 19:36:27.496605 23686 net.cpp:131] Top shape: 100 1 28 28 (78400)
I0428 19:36:27.496611 23686 net.cpp:131] Top shape: 100 (100)
I0428 19:36:27.496615 23686 net.cpp:139] Memory required for data: 314000
I0428 19:36:27.496619 23686 layer_factory.hpp:77] Creating layer label_mnist_1_split
I0428 19:36:27.496626 23686 net.cpp:86] Creating Layer label_mnist_1_split
I0428 19:36:27.496630 23686 net.cpp:408] label_mnist_1_split <- label
I0428 19:36:27.496636 23686 net.cpp:382] label_mnist_1_split -> label_mnist_1_split_0
I0428 19:36:27.496644 23686 net.cpp:382] label_mnist_1_split -> label_mnist_1_split_1
I0428 19:36:27.496702 23686 net.cpp:124] Setting up label_mnist_1_split
I0428 19:36:27.496708 23686 net.cpp:131] Top shape: 100 (100)
I0428 19:36:27.496712 23686 net.cpp:131] Top shape: 100 (100)
I0428 19:36:27.496716 23686 net.cpp:139] Memory required for data: 314800
I0428 19:36:27.496718 23686 layer_factory.hpp:77] Creating layer conv0
I0428 19:36:27.496728 23686 net.cpp:86] Creating Layer conv0
I0428 19:36:27.496732 23686 net.cpp:408] conv0 <- data
I0428 19:36:27.496737 23686 net.cpp:382] conv0 -> conv0
I0428 19:36:27.498579 23686 net.cpp:124] Setting up conv0
I0428 19:36:27.498594 23686 net.cpp:131] Top shape: 100 100 24 24 (5760000)
I0428 19:36:27.498600 23686 net.cpp:139] Memory required for data: 23354800
I0428 19:36:27.498610 23686 layer_factory.hpp:77] Creating layer pool0
I0428 19:36:27.498616 23686 net.cpp:86] Creating Layer pool0
I0428 19:36:27.498620 23686 net.cpp:408] pool0 <- conv0
I0428 19:36:27.498625 23686 net.cpp:382] pool0 -> pool0
I0428 19:36:27.498664 23686 net.cpp:124] Setting up pool0
I0428 19:36:27.498670 23686 net.cpp:131] Top shape: 100 100 12 12 (1440000)
I0428 19:36:27.498673 23686 net.cpp:139] Memory required for data: 29114800
I0428 19:36:27.498677 23686 layer_factory.hpp:77] Creating layer ip1
I0428 19:36:27.498685 23686 net.cpp:86] Creating Layer ip1
I0428 19:36:27.498689 23686 net.cpp:408] ip1 <- pool0
I0428 19:36:27.498694 23686 net.cpp:382] ip1 -> ip1
I0428 19:36:27.504199 23686 net.cpp:124] Setting up ip1
I0428 19:36:27.504214 23686 net.cpp:131] Top shape: 100 50 (5000)
I0428 19:36:27.504217 23686 net.cpp:139] Memory required for data: 29134800
I0428 19:36:27.504225 23686 layer_factory.hpp:77] Creating layer relu1
I0428 19:36:27.504231 23686 net.cpp:86] Creating Layer relu1
I0428 19:36:27.504235 23686 net.cpp:408] relu1 <- ip1
I0428 19:36:27.504240 23686 net.cpp:369] relu1 -> ip1 (in-place)
I0428 19:36:27.504418 23686 net.cpp:124] Setting up relu1
I0428 19:36:27.504427 23686 net.cpp:131] Top shape: 100 50 (5000)
I0428 19:36:27.504441 23686 net.cpp:139] Memory required for data: 29154800
I0428 19:36:27.504446 23686 layer_factory.hpp:77] Creating layer ip2
I0428 19:36:27.504451 23686 net.cpp:86] Creating Layer ip2
I0428 19:36:27.504456 23686 net.cpp:408] ip2 <- ip1
I0428 19:36:27.504462 23686 net.cpp:382] ip2 -> ip2
I0428 19:36:27.504568 23686 net.cpp:124] Setting up ip2
I0428 19:36:27.504576 23686 net.cpp:131] Top shape: 100 10 (1000)
I0428 19:36:27.504580 23686 net.cpp:139] Memory required for data: 29158800
I0428 19:36:27.504587 23686 layer_factory.hpp:77] Creating layer relu2
I0428 19:36:27.504592 23686 net.cpp:86] Creating Layer relu2
I0428 19:36:27.504595 23686 net.cpp:408] relu2 <- ip2
I0428 19:36:27.504600 23686 net.cpp:369] relu2 -> ip2 (in-place)
I0428 19:36:27.504758 23686 net.cpp:124] Setting up relu2
I0428 19:36:27.504766 23686 net.cpp:131] Top shape: 100 10 (1000)
I0428 19:36:27.504770 23686 net.cpp:139] Memory required for data: 29162800
I0428 19:36:27.504772 23686 layer_factory.hpp:77] Creating layer ip2_relu2_0_split
I0428 19:36:27.504778 23686 net.cpp:86] Creating Layer ip2_relu2_0_split
I0428 19:36:27.504782 23686 net.cpp:408] ip2_relu2_0_split <- ip2
I0428 19:36:27.504787 23686 net.cpp:382] ip2_relu2_0_split -> ip2_relu2_0_split_0
I0428 19:36:27.504793 23686 net.cpp:382] ip2_relu2_0_split -> ip2_relu2_0_split_1
I0428 19:36:27.504834 23686 net.cpp:124] Setting up ip2_relu2_0_split
I0428 19:36:27.504843 23686 net.cpp:131] Top shape: 100 10 (1000)
I0428 19:36:27.504848 23686 net.cpp:131] Top shape: 100 10 (1000)
I0428 19:36:27.504850 23686 net.cpp:139] Memory required for data: 29170800
I0428 19:36:27.504854 23686 layer_factory.hpp:77] Creating layer accuracy
I0428 19:36:27.504859 23686 net.cpp:86] Creating Layer accuracy
I0428 19:36:27.504863 23686 net.cpp:408] accuracy <- ip2_relu2_0_split_0
I0428 19:36:27.504868 23686 net.cpp:408] accuracy <- label_mnist_1_split_0
I0428 19:36:27.504873 23686 net.cpp:382] accuracy -> accuracy
…
