…
I0428 20:32:53.819403  4212 net.cpp:296] The NetState phase (0) differed from the phase (1) specified by a rule in layer mnist
I0428 20:32:53.819419  4212 net.cpp:296] The NetState phase (0) differed from the phase (1) specified by a rule in layer accuracy
I0428 20:32:53.819495  4212 net.cpp:53] Initializing net from parameters: 
name: "LeNet"
state {
  phase: TRAIN
  level: 0
  stage: ""
}
layer {
  name: "mnist"
  type: "Data"
  top: "data"
  top: "label"
  include {
    phase: TRAIN
  }
  transform_param {
    scale: 0.00390625
  }
  data_param {
    source: "examples/mnist/mnist_train_lmdb"
    batch_size: 64
    backend: LMDB
  }
}
layer {
  name: "conv0"
  type: "Convolution"
  bottom: "data"
  top: "conv0"
  param {
    lr_mult: 1
  }
  param {
    lr_mult: 2
  }
  convolution_param {
    num_output: 100
    kernel_size: 5
    stride: 1
    weight_filler {
      type: "xavier"
    }
    bias_filler {
      type: "constant"
    }
  }
}
layer {
  name: "pool0"
  type: "Pooling"
  bottom: "conv0"
  top: "pool0"
  pooling_param {
    pool: MAX
    kernel_size: 2
    stride: 2
  }
}
layer {
  name: "conv1"
  type: "Convolution"
  bottom: "pool0"
  top: "conv1"
  param {
    lr_mult: 1
  }
  param {
    lr_mult: 2
  }
  convolution_param {
    num_output: 25
    kernel_size: 5
    stride: 1
    weight_filler {
      type: "xavier"
    }
    bias_filler {
      type: "constant"
    }
  }
}
layer {
  name: "pool1"
  type: "Pooling"
  bottom: "conv1"
  top: "pool1"
  pooling_param {
    pool: MAX
    kernel_size: 2
    stride: 2
  }
}
layer {
  name: "ip1"
  type: "InnerProduct"
  bottom: "pool1"
  top: "ip1"
  param {
    lr_mult: 1
  }
  param {
    lr_mult: 2
  }
  inner_product_param {
    num_output: 10
    weight_filler {
      type: "xavier"
    }
    bias_filler {
      type: "constant"
    }
  }
}
layer {
  name: "relu1"
  type: "ReLU"
  bottom: "ip1"
  top: "ip1"
}
layer {
  name: "ip2"
  type: "InnerProduct"
  bottom: "ip1"
  top: "ip2"
  param {
    lr_mult: 1
  }
  param {
    lr_mult: 2
  }
  inner_product_param {
    num_output: 50
    weight_filler {
      type: "xavier"
    }
    bias_filler {
      type: "constant"
    }
  }
}
layer {
  name: "relu2"
  type: "ReLU"
  bottom: "ip2"
  top: "ip2"
}
layer {
  name: "ip3"
  type: "InnerProduct"
  bottom: "ip2"
  top: "ip3"
  param {
    lr_mult: 1
  }
  param {
    lr_mult: 2
  }
  inner_product_param {
    num_output: 10
    weight_filler {
      type: "xavier"
    }
    bias_filler {
      type: "constant"
    }
  }
}
layer {
  name: "relu3"
  type: "ReLU"
  bottom: "ip3"
  top: "ip3"
}
layer {
  name: "loss"
  type: "SoftmaxWithLoss"
  bottom: "ip3"
  bottom: "label"
  top: "loss"
}
I0428 20:32:53.819555  4212 layer_factory.hpp:77] Creating layer mnist
I0428 20:32:53.819636  4212 db_lmdb.cpp:35] Opened lmdb examples/mnist/mnist_train_lmdb
I0428 20:32:53.819655  4212 net.cpp:86] Creating Layer mnist
I0428 20:32:53.819663  4212 net.cpp:382] mnist -> data
I0428 20:32:53.819682  4212 net.cpp:382] mnist -> label
I0428 20:32:53.820685  4212 data_layer.cpp:45] output data size: 64,1,28,28
I0428 20:32:53.823166  4212 net.cpp:124] Setting up mnist
I0428 20:32:53.823212  4212 net.cpp:131] Top shape: 64 1 28 28 (50176)
I0428 20:32:53.823218  4212 net.cpp:131] Top shape: 64 (64)
I0428 20:32:53.823222  4212 net.cpp:139] Memory required for data: 200960
I0428 20:32:53.823230  4212 layer_factory.hpp:77] Creating layer conv0
I0428 20:32:53.823243  4212 net.cpp:86] Creating Layer conv0
I0428 20:32:53.823261  4212 net.cpp:408] conv0 <- data
I0428 20:32:53.823272  4212 net.cpp:382] conv0 -> conv0
I0428 20:32:54.060963  4212 net.cpp:124] Setting up conv0
I0428 20:32:54.061007  4212 net.cpp:131] Top shape: 64 100 24 24 (3686400)
I0428 20:32:54.061012  4212 net.cpp:139] Memory required for data: 14946560
I0428 20:32:54.061029  4212 layer_factory.hpp:77] Creating layer pool0
I0428 20:32:54.061043  4212 net.cpp:86] Creating Layer pool0
I0428 20:32:54.061048  4212 net.cpp:408] pool0 <- conv0
I0428 20:32:54.061070  4212 net.cpp:382] pool0 -> pool0
I0428 20:32:54.061133  4212 net.cpp:124] Setting up pool0
I0428 20:32:54.061156  4212 net.cpp:131] Top shape: 64 100 12 12 (921600)
I0428 20:32:54.061161  4212 net.cpp:139] Memory required for data: 18632960
I0428 20:32:54.061164  4212 layer_factory.hpp:77] Creating layer conv1
I0428 20:32:54.061175  4212 net.cpp:86] Creating Layer conv1
I0428 20:32:54.061179  4212 net.cpp:408] conv1 <- pool0
I0428 20:32:54.061185  4212 net.cpp:382] conv1 -> conv1
I0428 20:32:54.063618  4212 net.cpp:124] Setting up conv1
I0428 20:32:54.063649  4212 net.cpp:131] Top shape: 64 25 8 8 (102400)
I0428 20:32:54.063653  4212 net.cpp:139] Memory required for data: 19042560
I0428 20:32:54.063663  4212 layer_factory.hpp:77] Creating layer pool1
I0428 20:32:54.063671  4212 net.cpp:86] Creating Layer pool1
I0428 20:32:54.063676  4212 net.cpp:408] pool1 <- conv1
I0428 20:32:54.063681  4212 net.cpp:382] pool1 -> pool1
I0428 20:32:54.063736  4212 net.cpp:124] Setting up pool1
I0428 20:32:54.063750  4212 net.cpp:131] Top shape: 64 25 4 4 (25600)
I0428 20:32:54.063753  4212 net.cpp:139] Memory required for data: 19144960
I0428 20:32:54.063757  4212 layer_factory.hpp:77] Creating layer ip1
I0428 20:32:54.063766  4212 net.cpp:86] Creating Layer ip1
I0428 20:32:54.063769  4212 net.cpp:408] ip1 <- pool1
I0428 20:32:54.063774  4212 net.cpp:382] ip1 -> ip1
I0428 20:32:54.063896  4212 net.cpp:124] Setting up ip1
I0428 20:32:54.063905  4212 net.cpp:131] Top shape: 64 10 (640)
I0428 20:32:54.063910  4212 net.cpp:139] Memory required for data: 19147520
I0428 20:32:54.063917  4212 layer_factory.hpp:77] Creating layer relu1
I0428 20:32:54.063925  4212 net.cpp:86] Creating Layer relu1
I0428 20:32:54.063930  4212 net.cpp:408] relu1 <- ip1
I0428 20:32:54.063935  4212 net.cpp:369] relu1 -> ip1 (in-place)
I0428 20:32:54.064139  4212 net.cpp:124] Setting up relu1
I0428 20:32:54.064149  4212 net.cpp:131] Top shape: 64 10 (640)
I0428 20:32:54.064153  4212 net.cpp:139] Memory required for data: 19150080
I0428 20:32:54.064157  4212 layer_factory.hpp:77] Creating layer ip2
I0428 20:32:54.064164  4212 net.cpp:86] Creating Layer ip2
I0428 20:32:54.064169  4212 net.cpp:408] ip2 <- ip1
I0428 20:32:54.064175  4212 net.cpp:382] ip2 -> ip2
I0428 20:32:54.064275  4212 net.cpp:124] Setting up ip2
I0428 20:32:54.064283  4212 net.cpp:131] Top shape: 64 50 (3200)
I0428 20:32:54.064288  4212 net.cpp:139] Memory required for data: 19162880
I0428 20:32:54.064294  4212 layer_factory.hpp:77] Creating layer relu2
I0428 20:32:54.064302  4212 net.cpp:86] Creating Layer relu2
I0428 20:32:54.064306  4212 net.cpp:408] relu2 <- ip2
I0428 20:32:54.064312  4212 net.cpp:369] relu2 -> ip2 (in-place)
I0428 20:32:54.065138  4212 net.cpp:124] Setting up relu2
I0428 20:32:54.065167  4212 net.cpp:131] Top shape: 64 50 (3200)
I0428 20:32:54.065171  4212 net.cpp:139] Memory required for data: 19175680
I0428 20:32:54.065191  4212 layer_factory.hpp:77] Creating layer ip3
I0428 20:32:54.065215  4212 net.cpp:86] Creating Layer ip3
I0428 20:32:54.065220  4212 net.cpp:408] ip3 <- ip2
I0428 20:32:54.065227  4212 net.cpp:382] ip3 -> ip3
I0428 20:32:54.065332  4212 net.cpp:124] Setting up ip3
I0428 20:32:54.065342  4212 net.cpp:131] Top shape: 64 10 (640)
I0428 20:32:54.065346  4212 net.cpp:139] Memory required for data: 19178240
I0428 20:32:54.065356  4212 layer_factory.hpp:77] Creating layer relu3
I0428 20:32:54.065362  4212 net.cpp:86] Creating Layer relu3
I0428 20:32:54.065367  4212 net.cpp:408] relu3 <- ip3
I0428 20:32:54.065372  4212 net.cpp:369] relu3 -> ip3 (in-place)
I0428 20:32:54.065570  4212 net.cpp:124] Setting up relu3
I0428 20:32:54.065579  4212 net.cpp:131] Top shape: 64 10 (640)
I0428 20:32:54.065583  4212 net.cpp:139] Memory required for data: 19180800
I0428 20:32:54.065587  4212 layer_factory.hpp:77] Creating layer loss
I0428 20:32:54.065594  4212 net.cpp:86] Creating Layer loss
I0428 20:32:54.065598  4212 net.cpp:408] loss <- ip3
I0428 20:32:54.065603  4212 net.cpp:408] loss <- label
I0428 20:32:54.065609  4212 net.cpp:382] loss -> loss
I0428 20:32:54.065627  4212 layer_factory.hpp:77] Creating layer loss
…
I0428 20:32:54.066351  4212 solver.cpp:173] Creating test net (#0) specified by net file: ECE595/mnist/train_test/var_everything2/lenet_train_test1579.prototxt
I0428 20:32:54.066395  4212 net.cpp:296] The NetState phase (1) differed from the phase (0) specified by a rule in layer mnist
I0428 20:32:54.066490  4212 net.cpp:53] Initializing net from parameters: 
name: "LeNet"
state {
  phase: TEST
}
layer {
  name: "mnist"
  type: "Data"
  top: "data"
  top: "label"
  include {
    phase: TEST
  }
  transform_param {
    scale: 0.00390625
  }
  data_param {
    source: "examples/mnist/mnist_test_lmdb"
    batch_size: 100
    backend: LMDB
  }
}
layer {
  name: "conv0"
  type: "Convolution"
  bottom: "data"
  top: "conv0"
  param {
    lr_mult: 1
  }
  param {
    lr_mult: 2
  }
  convolution_param {
    num_output: 100
    kernel_size: 5
    stride: 1
    weight_filler {
      type: "xavier"
    }
    bias_filler {
      type: "constant"
    }
  }
}
layer {
  name: "pool0"
  type: "Pooling"
  bottom: "conv0"
  top: "pool0"
  pooling_param {
    pool: MAX
    kernel_size: 2
    stride: 2
  }
}
layer {
  name: "conv1"
  type: "Convolution"
  bottom: "pool0"
  top: "conv1"
  param {
    lr_mult: 1
  }
  param {
    lr_mult: 2
  }
  convolution_param {
    num_output: 25
    kernel_size: 5
    stride: 1
    weight_filler {
      type: "xavier"
    }
    bias_filler {
      type: "constant"
    }
  }
}
layer {
  name: "pool1"
  type: "Pooling"
  bottom: "conv1"
  top: "pool1"
  pooling_param {
    pool: MAX
    kernel_size: 2
    stride: 2
  }
}
layer {
  name: "ip1"
  type: "InnerProduct"
  bottom: "pool1"
  top: "ip1"
  param {
    lr_mult: 1
  }
  param {
    lr_mult: 2
  }
  inner_product_param {
    num_output: 10
    weight_filler {
      type: "xavier"
    }
    bias_filler {
      type: "constant"
    }
  }
}
layer {
  name: "relu1"
  type: "ReLU"
  bottom: "ip1"
  top: "ip1"
}
layer {
  name: "ip2"
  type: "InnerProduct"
  bottom: "ip1"
  top: "ip2"
  param {
    lr_mult: 1
  }
  param {
    lr_mult: 2
  }
  inner_product_param {
    num_output: 50
    weight_filler {
      type: "xavier"
    }
    bias_filler {
      type: "constant"
    }
  }
}
layer {
  name: "relu2"
  type: "ReLU"
  bottom: "ip2"
  top: "ip2"
}
layer {
  name: "ip3"
  type: "InnerProduct"
  bottom: "ip2"
  top: "ip3"
  param {
    lr_mult: 1
  }
  param {
    lr_mult: 2
  }
  inner_product_param {
    num_output: 10
    weight_filler {
      type: "xavier"
    }
    bias_filler {
      type: "constant"
    }
  }
}
layer {
  name: "relu3"
  type: "ReLU"
  bottom: "ip3"
  top: "ip3"
}
layer {
  name: "accuracy"
  type: "Accuracy"
  bottom: "ip3"
  bottom: "label"
  top: "accuracy"
  include {
    phase: TEST
  }
}
layer {
  name: "loss"
  type: "SoftmaxWithLoss"
  bottom: "ip3"
  bottom: "label"
  top: "loss"
}
I0428 20:32:54.066588  4212 layer_factory.hpp:77] Creating layer mnist
I0428 20:32:54.066664  4212 db_lmdb.cpp:35] Opened lmdb examples/mnist/mnist_test_lmdb
I0428 20:32:54.066679  4212 net.cpp:86] Creating Layer mnist
I0428 20:32:54.066684  4212 net.cpp:382] mnist -> data
I0428 20:32:54.066692  4212 net.cpp:382] mnist -> label
I0428 20:32:54.066792  4212 data_layer.cpp:45] output data size: 100,1,28,28
I0428 20:32:54.068894  4212 net.cpp:124] Setting up mnist
I0428 20:32:54.068923  4212 net.cpp:131] Top shape: 100 1 28 28 (78400)
I0428 20:32:54.068929  4212 net.cpp:131] Top shape: 100 (100)
I0428 20:32:54.068933  4212 net.cpp:139] Memory required for data: 314000
I0428 20:32:54.068938  4212 layer_factory.hpp:77] Creating layer label_mnist_1_split
I0428 20:32:54.068946  4212 net.cpp:86] Creating Layer label_mnist_1_split
I0428 20:32:54.068950  4212 net.cpp:408] label_mnist_1_split <- label
I0428 20:32:54.068956  4212 net.cpp:382] label_mnist_1_split -> label_mnist_1_split_0
I0428 20:32:54.068980  4212 net.cpp:382] label_mnist_1_split -> label_mnist_1_split_1
I0428 20:32:54.069085  4212 net.cpp:124] Setting up label_mnist_1_split
I0428 20:32:54.069095  4212 net.cpp:131] Top shape: 100 (100)
I0428 20:32:54.069100  4212 net.cpp:131] Top shape: 100 (100)
I0428 20:32:54.069104  4212 net.cpp:139] Memory required for data: 314800
I0428 20:32:54.069109  4212 layer_factory.hpp:77] Creating layer conv0
I0428 20:32:54.069134  4212 net.cpp:86] Creating Layer conv0
I0428 20:32:54.069139  4212 net.cpp:408] conv0 <- data
I0428 20:32:54.069144  4212 net.cpp:382] conv0 -> conv0
I0428 20:32:54.070791  4212 net.cpp:124] Setting up conv0
I0428 20:32:54.070806  4212 net.cpp:131] Top shape: 100 100 24 24 (5760000)
I0428 20:32:54.070811  4212 net.cpp:139] Memory required for data: 23354800
I0428 20:32:54.070822  4212 layer_factory.hpp:77] Creating layer pool0
I0428 20:32:54.070830  4212 net.cpp:86] Creating Layer pool0
I0428 20:32:54.070834  4212 net.cpp:408] pool0 <- conv0
I0428 20:32:54.070840  4212 net.cpp:382] pool0 -> pool0
I0428 20:32:54.070878  4212 net.cpp:124] Setting up pool0
I0428 20:32:54.070885  4212 net.cpp:131] Top shape: 100 100 12 12 (1440000)
I0428 20:32:54.070889  4212 net.cpp:139] Memory required for data: 29114800
I0428 20:32:54.070894  4212 layer_factory.hpp:77] Creating layer conv1
I0428 20:32:54.070904  4212 net.cpp:86] Creating Layer conv1
I0428 20:32:54.070909  4212 net.cpp:408] conv1 <- pool0
I0428 20:32:54.070914  4212 net.cpp:382] conv1 -> conv1
I0428 20:32:54.073007  4212 net.cpp:124] Setting up conv1
I0428 20:32:54.073032  4212 net.cpp:131] Top shape: 100 25 8 8 (160000)
I0428 20:32:54.073055  4212 net.cpp:139] Memory required for data: 29754800
I0428 20:32:54.073065  4212 layer_factory.hpp:77] Creating layer pool1
I0428 20:32:54.073073  4212 net.cpp:86] Creating Layer pool1
I0428 20:32:54.073078  4212 net.cpp:408] pool1 <- conv1
I0428 20:32:54.073084  4212 net.cpp:382] pool1 -> pool1
I0428 20:32:54.073169  4212 net.cpp:124] Setting up pool1
I0428 20:32:54.073194  4212 net.cpp:131] Top shape: 100 25 4 4 (40000)
I0428 20:32:54.073199  4212 net.cpp:139] Memory required for data: 29914800
I0428 20:32:54.073201  4212 layer_factory.hpp:77] Creating layer ip1
I0428 20:32:54.073210  4212 net.cpp:86] Creating Layer ip1
I0428 20:32:54.073215  4212 net.cpp:408] ip1 <- pool1
I0428 20:32:54.073220  4212 net.cpp:382] ip1 -> ip1
I0428 20:32:54.073345  4212 net.cpp:124] Setting up ip1
I0428 20:32:54.073365  4212 net.cpp:131] Top shape: 100 10 (1000)
I0428 20:32:54.073370  4212 net.cpp:139] Memory required for data: 29918800
I0428 20:32:54.073379  4212 layer_factory.hpp:77] Creating layer relu1
I0428 20:32:54.073386  4212 net.cpp:86] Creating Layer relu1
I0428 20:32:54.073400  4212 net.cpp:408] relu1 <- ip1
I0428 20:32:54.073406  4212 net.cpp:369] relu1 -> ip1 (in-place)
I0428 20:32:54.073587  4212 net.cpp:124] Setting up relu1
I0428 20:32:54.073596  4212 net.cpp:131] Top shape: 100 10 (1000)
I0428 20:32:54.073601  4212 net.cpp:139] Memory required for data: 29922800
I0428 20:32:54.073604  4212 layer_factory.hpp:77] Creating layer ip2
I0428 20:32:54.073629  4212 net.cpp:86] Creating Layer ip2
I0428 20:32:54.073633  4212 net.cpp:408] ip2 <- ip1
I0428 20:32:54.073639  4212 net.cpp:382] ip2 -> ip2
I0428 20:32:54.073770  4212 net.cpp:124] Setting up ip2
I0428 20:32:54.073777  4212 net.cpp:131] Top shape: 100 50 (5000)
I0428 20:32:54.073781  4212 net.cpp:139] Memory required for data: 29942800
I0428 20:32:54.073787  4212 layer_factory.hpp:77] Creating layer relu2
I0428 20:32:54.073794  4212 net.cpp:86] Creating Layer relu2
I0428 20:32:54.073798  4212 net.cpp:408] relu2 <- ip2
I0428 20:32:54.073803  4212 net.cpp:369] relu2 -> ip2 (in-place)
I0428 20:32:54.074048  4212 net.cpp:124] Setting up relu2
I0428 20:32:54.074059  4212 net.cpp:131] Top shape: 100 50 (5000)
I0428 20:32:54.074062  4212 net.cpp:139] Memory required for data: 29962800
I0428 20:32:54.074066  4212 layer_factory.hpp:77] Creating layer ip3
I0428 20:32:54.074074  4212 net.cpp:86] Creating Layer ip3
I0428 20:32:54.074077  4212 net.cpp:408] ip3 <- ip2
I0428 20:32:54.074086  4212 net.cpp:382] ip3 -> ip3
I0428 20:32:54.074214  4212 net.cpp:124] Setting up ip3
I0428 20:32:54.074223  4212 net.cpp:131] Top shape: 100 10 (1000)
I0428 20:32:54.074229  4212 net.cpp:139] Memory required for data: 29966800
I0428 20:32:54.074237  4212 layer_factory.hpp:77] Creating layer relu3
I0428 20:32:54.074244  4212 net.cpp:86] Creating Layer relu3
I0428 20:32:54.074247  4212 net.cpp:408] relu3 <- ip3
I0428 20:32:54.074251  4212 net.cpp:369] relu3 -> ip3 (in-place)
I0428 20:32:54.075109  4212 net.cpp:124] Setting up relu3
I0428 20:32:54.075131  4212 net.cpp:131] Top shape: 100 10 (1000)
I0428 20:32:54.075135  4212 net.cpp:139] Memory required for data: 29970800
I0428 20:32:54.075155  4212 layer_factory.hpp:77] Creating layer ip3_relu3_0_split
I0428 20:32:54.075160  4212 net.cpp:86] Creating Layer ip3_relu3_0_split
I0428 20:32:54.075165  4212 net.cpp:408] ip3_relu3_0_split <- ip3
I0428 20:32:54.075182  4212 net.cpp:382] ip3_relu3_0_split -> ip3_relu3_0_split_0
I0428 20:32:54.075189  4212 net.cpp:382] ip3_relu3_0_split -> ip3_relu3_0_split_1
I0428 20:32:54.075242  4212 net.cpp:124] Setting up ip3_relu3_0_split
I0428 20:32:54.075250  4212 net.cpp:131] Top shape: 100 10 (1000)
I0428 20:32:54.075255  4212 net.cpp:131] Top shape: 100 10 (1000)
I0428 20:32:54.075259  4212 net.cpp:139] Memory required for data: 29978800
I0428 20:32:54.075263  4212 layer_factory.hpp:77] Creating layer accuracy
I0428 20:32:54.075269  4212 net.cpp:86] Creating Layer accuracy
I0428 20:32:54.075273  4212 net.cpp:408] accuracy <- ip3_relu3_0_split_0
I0428 20:32:54.075278  4212 net.cpp:408] accuracy <- label_mnist_1_split_0
I0428 20:32:54.075294  4212 net.cpp:382] accuracy -> accuracy
…
