…
I0428 19:41:58.697253 24955 net.cpp:296] The NetState phase (0) differed from the phase (1) specified by a rule in layer mnist
I0428 19:41:58.697273 24955 net.cpp:296] The NetState phase (0) differed from the phase (1) specified by a rule in layer accuracy
I0428 19:41:58.697377 24955 net.cpp:53] Initializing net from parameters: 
name: "LeNet"
state {
  phase: TRAIN
  level: 0
  stage: ""
}
layer {
  name: "mnist"
  type: "Data"
  top: "data"
  top: "label"
  include {
    phase: TRAIN
  }
  transform_param {
    scale: 0.00390625
  }
  data_param {
    source: "examples/mnist/mnist_train_lmdb"
    batch_size: 64
    backend: LMDB
  }
}
layer {
  name: "conv0"
  type: "Convolution"
  bottom: "data"
  top: "conv0"
  param {
    lr_mult: 1
  }
  param {
    lr_mult: 2
  }
  convolution_param {
    num_output: 2
    kernel_size: 5
    stride: 1
    weight_filler {
      type: "xavier"
    }
    bias_filler {
      type: "constant"
    }
  }
}
layer {
  name: "pool0"
  type: "Pooling"
  bottom: "conv0"
  top: "pool0"
  pooling_param {
    pool: MAX
    kernel_size: 2
    stride: 2
  }
}
layer {
  name: "conv1"
  type: "Convolution"
  bottom: "pool0"
  top: "conv1"
  param {
    lr_mult: 1
  }
  param {
    lr_mult: 2
  }
  convolution_param {
    num_output: 10
    kernel_size: 5
    stride: 1
    weight_filler {
      type: "xavier"
    }
    bias_filler {
      type: "constant"
    }
  }
}
layer {
  name: "pool1"
  type: "Pooling"
  bottom: "conv1"
  top: "pool1"
  pooling_param {
    pool: MAX
    kernel_size: 2
    stride: 2
  }
}
layer {
  name: "ip1"
  type: "InnerProduct"
  bottom: "pool1"
  top: "ip1"
  param {
    lr_mult: 1
  }
  param {
    lr_mult: 2
  }
  inner_product_param {
    num_output: 25
    weight_filler {
      type: "xavier"
    }
    bias_filler {
      type: "constant"
    }
  }
}
layer {
  name: "relu1"
  type: "ReLU"
  bottom: "ip1"
  top: "ip1"
}
layer {
  name: "ip2"
  type: "InnerProduct"
  bottom: "ip1"
  top: "ip2"
  param {
    lr_mult: 1
  }
  param {
    lr_mult: 2
  }
  inner_product_param {
    num_output: 50
    weight_filler {
      type: "xavier"
    }
    bias_filler {
      type: "constant"
    }
  }
}
layer {
  name: "relu2"
  type: "ReLU"
  bottom: "ip2"
  top: "ip2"
}
layer {
  name: "ip3"
  type: "InnerProduct"
  bottom: "ip2"
  top: "ip3"
  param {
    lr_mult: 1
  }
  param {
    lr_mult: 2
  }
  inner_product_param {
    num_output: 10
    weight_filler {
      type: "xavier"
    }
    bias_filler {
      type: "constant"
    }
  }
}
layer {
  name: "relu3"
  type: "ReLU"
  bottom: "ip3"
  top: "ip3"
}
layer {
  name: "loss"
  type: "SoftmaxWithLoss"
  bottom: "ip3"
  bottom: "label"
  top: "loss"
}
I0428 19:41:58.697458 24955 layer_factory.hpp:77] Creating layer mnist
I0428 19:41:58.697559 24955 db_lmdb.cpp:35] Opened lmdb examples/mnist/mnist_train_lmdb
I0428 19:41:58.697583 24955 net.cpp:86] Creating Layer mnist
I0428 19:41:58.697592 24955 net.cpp:382] mnist -> data
I0428 19:41:58.697615 24955 net.cpp:382] mnist -> label
I0428 19:41:58.698714 24955 data_layer.cpp:45] output data size: 64,1,28,28
I0428 19:41:58.701391 24955 net.cpp:124] Setting up mnist
I0428 19:41:58.701411 24955 net.cpp:131] Top shape: 64 1 28 28 (50176)
I0428 19:41:58.701417 24955 net.cpp:131] Top shape: 64 (64)
I0428 19:41:58.701421 24955 net.cpp:139] Memory required for data: 200960
I0428 19:41:58.701427 24955 layer_factory.hpp:77] Creating layer conv0
I0428 19:41:58.701472 24955 net.cpp:86] Creating Layer conv0
I0428 19:41:58.701495 24955 net.cpp:408] conv0 <- data
I0428 19:41:58.701508 24955 net.cpp:382] conv0 -> conv0
I0428 19:41:58.991958 24955 net.cpp:124] Setting up conv0
I0428 19:41:58.991991 24955 net.cpp:131] Top shape: 64 2 24 24 (73728)
I0428 19:41:58.991996 24955 net.cpp:139] Memory required for data: 495872
I0428 19:41:58.992012 24955 layer_factory.hpp:77] Creating layer pool0
I0428 19:41:58.992027 24955 net.cpp:86] Creating Layer pool0
I0428 19:41:58.992033 24955 net.cpp:408] pool0 <- conv0
I0428 19:41:58.992039 24955 net.cpp:382] pool0 -> pool0
I0428 19:41:58.992094 24955 net.cpp:124] Setting up pool0
I0428 19:41:58.992101 24955 net.cpp:131] Top shape: 64 2 12 12 (18432)
I0428 19:41:58.992105 24955 net.cpp:139] Memory required for data: 569600
I0428 19:41:58.992108 24955 layer_factory.hpp:77] Creating layer conv1
I0428 19:41:58.992121 24955 net.cpp:86] Creating Layer conv1
I0428 19:41:58.992125 24955 net.cpp:408] conv1 <- pool0
I0428 19:41:58.992131 24955 net.cpp:382] conv1 -> conv1
I0428 19:41:58.994266 24955 net.cpp:124] Setting up conv1
I0428 19:41:58.994283 24955 net.cpp:131] Top shape: 64 10 8 8 (40960)
I0428 19:41:58.994288 24955 net.cpp:139] Memory required for data: 733440
I0428 19:41:58.994298 24955 layer_factory.hpp:77] Creating layer pool1
I0428 19:41:58.994307 24955 net.cpp:86] Creating Layer pool1
I0428 19:41:58.994313 24955 net.cpp:408] pool1 <- conv1
I0428 19:41:58.994319 24955 net.cpp:382] pool1 -> pool1
I0428 19:41:58.994364 24955 net.cpp:124] Setting up pool1
I0428 19:41:58.994370 24955 net.cpp:131] Top shape: 64 10 4 4 (10240)
I0428 19:41:58.994374 24955 net.cpp:139] Memory required for data: 774400
I0428 19:41:58.994376 24955 layer_factory.hpp:77] Creating layer ip1
I0428 19:41:58.994385 24955 net.cpp:86] Creating Layer ip1
I0428 19:41:58.994390 24955 net.cpp:408] ip1 <- pool1
I0428 19:41:58.994395 24955 net.cpp:382] ip1 -> ip1
I0428 19:41:58.995507 24955 net.cpp:124] Setting up ip1
I0428 19:41:58.995522 24955 net.cpp:131] Top shape: 64 25 (1600)
I0428 19:41:58.995525 24955 net.cpp:139] Memory required for data: 780800
I0428 19:41:58.995535 24955 layer_factory.hpp:77] Creating layer relu1
I0428 19:41:58.995543 24955 net.cpp:86] Creating Layer relu1
I0428 19:41:58.995548 24955 net.cpp:408] relu1 <- ip1
I0428 19:41:58.995553 24955 net.cpp:369] relu1 -> ip1 (in-place)
I0428 19:41:58.995760 24955 net.cpp:124] Setting up relu1
I0428 19:41:58.995771 24955 net.cpp:131] Top shape: 64 25 (1600)
I0428 19:41:58.995775 24955 net.cpp:139] Memory required for data: 787200
I0428 19:41:58.995779 24955 layer_factory.hpp:77] Creating layer ip2
I0428 19:41:58.995787 24955 net.cpp:86] Creating Layer ip2
I0428 19:41:58.995791 24955 net.cpp:408] ip2 <- ip1
I0428 19:41:58.995797 24955 net.cpp:382] ip2 -> ip2
I0428 19:41:58.995920 24955 net.cpp:124] Setting up ip2
I0428 19:41:58.995929 24955 net.cpp:131] Top shape: 64 50 (3200)
I0428 19:41:58.995932 24955 net.cpp:139] Memory required for data: 800000
I0428 19:41:58.995939 24955 layer_factory.hpp:77] Creating layer relu2
I0428 19:41:58.995946 24955 net.cpp:86] Creating Layer relu2
I0428 19:41:58.995949 24955 net.cpp:408] relu2 <- ip2
I0428 19:41:58.995954 24955 net.cpp:369] relu2 -> ip2 (in-place)
I0428 19:41:58.996807 24955 net.cpp:124] Setting up relu2
I0428 19:41:58.996829 24955 net.cpp:131] Top shape: 64 50 (3200)
I0428 19:41:58.996834 24955 net.cpp:139] Memory required for data: 812800
I0428 19:41:58.996837 24955 layer_factory.hpp:77] Creating layer ip3
I0428 19:41:58.996846 24955 net.cpp:86] Creating Layer ip3
I0428 19:41:58.996850 24955 net.cpp:408] ip3 <- ip2
I0428 19:41:58.996856 24955 net.cpp:382] ip3 -> ip3
I0428 19:41:58.996979 24955 net.cpp:124] Setting up ip3
I0428 19:41:58.996989 24955 net.cpp:131] Top shape: 64 10 (640)
I0428 19:41:58.996994 24955 net.cpp:139] Memory required for data: 815360
I0428 19:41:58.997004 24955 layer_factory.hpp:77] Creating layer relu3
I0428 19:41:58.997009 24955 net.cpp:86] Creating Layer relu3
I0428 19:41:58.997014 24955 net.cpp:408] relu3 <- ip3
I0428 19:41:58.997018 24955 net.cpp:369] relu3 -> ip3 (in-place)
I0428 19:41:58.997215 24955 net.cpp:124] Setting up relu3
I0428 19:41:58.997226 24955 net.cpp:131] Top shape: 64 10 (640)
I0428 19:41:58.997231 24955 net.cpp:139] Memory required for data: 817920
I0428 19:41:58.997234 24955 layer_factory.hpp:77] Creating layer loss
I0428 19:41:58.997241 24955 net.cpp:86] Creating Layer loss
I0428 19:41:58.997246 24955 net.cpp:408] loss <- ip3
I0428 19:41:58.997251 24955 net.cpp:408] loss <- label
I0428 19:41:58.997256 24955 net.cpp:382] loss -> loss
I0428 19:41:58.997273 24955 layer_factory.hpp:77] Creating layer loss
…
I0428 19:41:58.998018 24955 solver.cpp:173] Creating test net (#0) specified by net file: ECE595/mnist/train_test/var_everything2/lenet_train_test380.prototxt
I0428 19:41:58.998050 24955 net.cpp:296] The NetState phase (1) differed from the phase (0) specified by a rule in layer mnist
I0428 19:41:58.998158 24955 net.cpp:53] Initializing net from parameters: 
name: "LeNet"
state {
  phase: TEST
}
layer {
  name: "mnist"
  type: "Data"
  top: "data"
  top: "label"
  include {
    phase: TEST
  }
  transform_param {
    scale: 0.00390625
  }
  data_param {
    source: "examples/mnist/mnist_test_lmdb"
    batch_size: 100
    backend: LMDB
  }
}
layer {
  name: "conv0"
  type: "Convolution"
  bottom: "data"
  top: "conv0"
  param {
    lr_mult: 1
  }
  param {
    lr_mult: 2
  }
  convolution_param {
    num_output: 2
    kernel_size: 5
    stride: 1
    weight_filler {
      type: "xavier"
    }
    bias_filler {
      type: "constant"
    }
  }
}
layer {
  name: "pool0"
  type: "Pooling"
  bottom: "conv0"
  top: "pool0"
  pooling_param {
    pool: MAX
    kernel_size: 2
    stride: 2
  }
}
layer {
  name: "conv1"
  type: "Convolution"
  bottom: "pool0"
  top: "conv1"
  param {
    lr_mult: 1
  }
  param {
    lr_mult: 2
  }
  convolution_param {
    num_output: 10
    kernel_size: 5
    stride: 1
    weight_filler {
      type: "xavier"
    }
    bias_filler {
      type: "constant"
    }
  }
}
layer {
  name: "pool1"
  type: "Pooling"
  bottom: "conv1"
  top: "pool1"
  pooling_param {
    pool: MAX
    kernel_size: 2
    stride: 2
  }
}
layer {
  name: "ip1"
  type: "InnerProduct"
  bottom: "pool1"
  top: "ip1"
  param {
    lr_mult: 1
  }
  param {
    lr_mult: 2
  }
  inner_product_param {
    num_output: 25
    weight_filler {
      type: "xavier"
    }
    bias_filler {
      type: "constant"
    }
  }
}
layer {
  name: "relu1"
  type: "ReLU"
  bottom: "ip1"
  top: "ip1"
}
layer {
  name: "ip2"
  type: "InnerProduct"
  bottom: "ip1"
  top: "ip2"
  param {
    lr_mult: 1
  }
  param {
    lr_mult: 2
  }
  inner_product_param {
    num_output: 50
    weight_filler {
      type: "xavier"
    }
    bias_filler {
      type: "constant"
    }
  }
}
layer {
  name: "relu2"
  type: "ReLU"
  bottom: "ip2"
  top: "ip2"
}
layer {
  name: "ip3"
  type: "InnerProduct"
  bottom: "ip2"
  top: "ip3"
  param {
    lr_mult: 1
  }
  param {
    lr_mult: 2
  }
  inner_product_param {
    num_output: 10
    weight_filler {
      type: "xavier"
    }
    bias_filler {
      type: "constant"
    }
  }
}
layer {
  name: "relu3"
  type: "ReLU"
  bottom: "ip3"
  top: "ip3"
}
layer {
  name: "accuracy"
  type: "Accuracy"
  bottom: "ip3"
  bottom: "label"
  top: "accuracy"
  include {
    phase: TEST
  }
}
layer {
  name: "loss"
  type: "SoftmaxWithLoss"
  bottom: "ip3"
  bottom: "label"
  top: "loss"
}
I0428 19:41:58.998253 24955 layer_factory.hpp:77] Creating layer mnist
I0428 19:41:58.998307 24955 db_lmdb.cpp:35] Opened lmdb examples/mnist/mnist_test_lmdb
I0428 19:41:58.998322 24955 net.cpp:86] Creating Layer mnist
I0428 19:41:58.998327 24955 net.cpp:382] mnist -> data
I0428 19:41:58.998337 24955 net.cpp:382] mnist -> label
I0428 19:41:58.998437 24955 data_layer.cpp:45] output data size: 100,1,28,28
I0428 19:41:59.000633 24955 net.cpp:124] Setting up mnist
I0428 19:41:59.000648 24955 net.cpp:131] Top shape: 100 1 28 28 (78400)
I0428 19:41:59.000654 24955 net.cpp:131] Top shape: 100 (100)
I0428 19:41:59.000658 24955 net.cpp:139] Memory required for data: 314000
I0428 19:41:59.000663 24955 layer_factory.hpp:77] Creating layer label_mnist_1_split
I0428 19:41:59.000671 24955 net.cpp:86] Creating Layer label_mnist_1_split
I0428 19:41:59.000675 24955 net.cpp:408] label_mnist_1_split <- label
I0428 19:41:59.000680 24955 net.cpp:382] label_mnist_1_split -> label_mnist_1_split_0
I0428 19:41:59.000689 24955 net.cpp:382] label_mnist_1_split -> label_mnist_1_split_1
I0428 19:41:59.000742 24955 net.cpp:124] Setting up label_mnist_1_split
I0428 19:41:59.000749 24955 net.cpp:131] Top shape: 100 (100)
I0428 19:41:59.000753 24955 net.cpp:131] Top shape: 100 (100)
I0428 19:41:59.000756 24955 net.cpp:139] Memory required for data: 314800
I0428 19:41:59.000761 24955 layer_factory.hpp:77] Creating layer conv0
I0428 19:41:59.000771 24955 net.cpp:86] Creating Layer conv0
I0428 19:41:59.000773 24955 net.cpp:408] conv0 <- data
I0428 19:41:59.000779 24955 net.cpp:382] conv0 -> conv0
I0428 19:41:59.002790 24955 net.cpp:124] Setting up conv0
I0428 19:41:59.002809 24955 net.cpp:131] Top shape: 100 2 24 24 (115200)
I0428 19:41:59.002813 24955 net.cpp:139] Memory required for data: 775600
I0428 19:41:59.002825 24955 layer_factory.hpp:77] Creating layer pool0
I0428 19:41:59.002831 24955 net.cpp:86] Creating Layer pool0
I0428 19:41:59.002837 24955 net.cpp:408] pool0 <- conv0
I0428 19:41:59.002843 24955 net.cpp:382] pool0 -> pool0
I0428 19:41:59.002887 24955 net.cpp:124] Setting up pool0
I0428 19:41:59.002894 24955 net.cpp:131] Top shape: 100 2 12 12 (28800)
I0428 19:41:59.002898 24955 net.cpp:139] Memory required for data: 890800
I0428 19:41:59.002902 24955 layer_factory.hpp:77] Creating layer conv1
I0428 19:41:59.002913 24955 net.cpp:86] Creating Layer conv1
I0428 19:41:59.002917 24955 net.cpp:408] conv1 <- pool0
I0428 19:41:59.002923 24955 net.cpp:382] conv1 -> conv1
I0428 19:41:59.004667 24955 net.cpp:124] Setting up conv1
I0428 19:41:59.004683 24955 net.cpp:131] Top shape: 100 10 8 8 (64000)
I0428 19:41:59.004688 24955 net.cpp:139] Memory required for data: 1146800
I0428 19:41:59.004698 24955 layer_factory.hpp:77] Creating layer pool1
I0428 19:41:59.004707 24955 net.cpp:86] Creating Layer pool1
I0428 19:41:59.004712 24955 net.cpp:408] pool1 <- conv1
I0428 19:41:59.004719 24955 net.cpp:382] pool1 -> pool1
I0428 19:41:59.004763 24955 net.cpp:124] Setting up pool1
I0428 19:41:59.004770 24955 net.cpp:131] Top shape: 100 10 4 4 (16000)
I0428 19:41:59.004773 24955 net.cpp:139] Memory required for data: 1210800
I0428 19:41:59.004777 24955 layer_factory.hpp:77] Creating layer ip1
I0428 19:41:59.004784 24955 net.cpp:86] Creating Layer ip1
I0428 19:41:59.004788 24955 net.cpp:408] ip1 <- pool1
I0428 19:41:59.004799 24955 net.cpp:382] ip1 -> ip1
I0428 19:41:59.004958 24955 net.cpp:124] Setting up ip1
I0428 19:41:59.004969 24955 net.cpp:131] Top shape: 100 25 (2500)
I0428 19:41:59.004986 24955 net.cpp:139] Memory required for data: 1220800
I0428 19:41:59.004995 24955 layer_factory.hpp:77] Creating layer relu1
I0428 19:41:59.005003 24955 net.cpp:86] Creating Layer relu1
I0428 19:41:59.005015 24955 net.cpp:408] relu1 <- ip1
I0428 19:41:59.005023 24955 net.cpp:369] relu1 -> ip1 (in-place)
I0428 19:41:59.005214 24955 net.cpp:124] Setting up relu1
I0428 19:41:59.005225 24955 net.cpp:131] Top shape: 100 25 (2500)
I0428 19:41:59.005229 24955 net.cpp:139] Memory required for data: 1230800
I0428 19:41:59.005234 24955 layer_factory.hpp:77] Creating layer ip2
I0428 19:41:59.005244 24955 net.cpp:86] Creating Layer ip2
I0428 19:41:59.005249 24955 net.cpp:408] ip2 <- ip1
I0428 19:41:59.005270 24955 net.cpp:382] ip2 -> ip2
I0428 19:41:59.005408 24955 net.cpp:124] Setting up ip2
I0428 19:41:59.005416 24955 net.cpp:131] Top shape: 100 50 (5000)
I0428 19:41:59.005420 24955 net.cpp:139] Memory required for data: 1250800
I0428 19:41:59.005434 24955 layer_factory.hpp:77] Creating layer relu2
I0428 19:41:59.005441 24955 net.cpp:86] Creating Layer relu2
I0428 19:41:59.005445 24955 net.cpp:408] relu2 <- ip2
I0428 19:41:59.005450 24955 net.cpp:369] relu2 -> ip2 (in-place)
I0428 19:41:59.005692 24955 net.cpp:124] Setting up relu2
I0428 19:41:59.005703 24955 net.cpp:131] Top shape: 100 50 (5000)
I0428 19:41:59.005709 24955 net.cpp:139] Memory required for data: 1270800
I0428 19:41:59.005713 24955 layer_factory.hpp:77] Creating layer ip3
I0428 19:41:59.005719 24955 net.cpp:86] Creating Layer ip3
I0428 19:41:59.005723 24955 net.cpp:408] ip3 <- ip2
I0428 19:41:59.005730 24955 net.cpp:382] ip3 -> ip3
I0428 19:41:59.005880 24955 net.cpp:124] Setting up ip3
I0428 19:41:59.005890 24955 net.cpp:131] Top shape: 100 10 (1000)
I0428 19:41:59.005893 24955 net.cpp:139] Memory required for data: 1274800
I0428 19:41:59.005903 24955 layer_factory.hpp:77] Creating layer relu3
I0428 19:41:59.005910 24955 net.cpp:86] Creating Layer relu3
I0428 19:41:59.005914 24955 net.cpp:408] relu3 <- ip3
I0428 19:41:59.005918 24955 net.cpp:369] relu3 -> ip3 (in-place)
I0428 19:41:59.006852 24955 net.cpp:124] Setting up relu3
I0428 19:41:59.006867 24955 net.cpp:131] Top shape: 100 10 (1000)
I0428 19:41:59.006871 24955 net.cpp:139] Memory required for data: 1278800
I0428 19:41:59.006875 24955 layer_factory.hpp:77] Creating layer ip3_relu3_0_split
I0428 19:41:59.006881 24955 net.cpp:86] Creating Layer ip3_relu3_0_split
I0428 19:41:59.006886 24955 net.cpp:408] ip3_relu3_0_split <- ip3
I0428 19:41:59.006891 24955 net.cpp:382] ip3_relu3_0_split -> ip3_relu3_0_split_0
I0428 19:41:59.006901 24955 net.cpp:382] ip3_relu3_0_split -> ip3_relu3_0_split_1
I0428 19:41:59.006963 24955 net.cpp:124] Setting up ip3_relu3_0_split
I0428 19:41:59.006976 24955 net.cpp:131] Top shape: 100 10 (1000)
I0428 19:41:59.006981 24955 net.cpp:131] Top shape: 100 10 (1000)
I0428 19:41:59.006984 24955 net.cpp:139] Memory required for data: 1286800
I0428 19:41:59.006988 24955 layer_factory.hpp:77] Creating layer accuracy
I0428 19:41:59.006995 24955 net.cpp:86] Creating Layer accuracy
I0428 19:41:59.006999 24955 net.cpp:408] accuracy <- ip3_relu3_0_split_0
I0428 19:41:59.007004 24955 net.cpp:408] accuracy <- label_mnist_1_split_0
I0428 19:41:59.007009 24955 net.cpp:382] accuracy -> accuracy
…
