…
I0428 19:46:06.456804 25942 net.cpp:296] The NetState phase (0) differed from the phase (1) specified by a rule in layer mnist
I0428 19:46:06.456833 25942 net.cpp:296] The NetState phase (0) differed from the phase (1) specified by a rule in layer accuracy
I0428 19:46:06.456936 25942 net.cpp:53] Initializing net from parameters: 
name: "LeNet"
state {
  phase: TRAIN
  level: 0
  stage: ""
}
layer {
  name: "mnist"
  type: "Data"
  top: "data"
  top: "label"
  include {
    phase: TRAIN
  }
  transform_param {
    scale: 0.00390625
  }
  data_param {
    source: "examples/mnist/mnist_train_lmdb"
    batch_size: 64
    backend: LMDB
  }
}
layer {
  name: "conv0"
  type: "Convolution"
  bottom: "data"
  top: "conv0"
  param {
    lr_mult: 1
  }
  param {
    lr_mult: 2
  }
  convolution_param {
    num_output: 2
    kernel_size: 5
    stride: 1
    weight_filler {
      type: "xavier"
    }
    bias_filler {
      type: "constant"
    }
  }
}
layer {
  name: "pool0"
  type: "Pooling"
  bottom: "conv0"
  top: "pool0"
  pooling_param {
    pool: MAX
    kernel_size: 2
    stride: 2
  }
}
layer {
  name: "conv1"
  type: "Convolution"
  bottom: "pool0"
  top: "conv1"
  param {
    lr_mult: 1
  }
  param {
    lr_mult: 2
  }
  convolution_param {
    num_output: 100
    kernel_size: 5
    stride: 1
    weight_filler {
      type: "xavier"
    }
    bias_filler {
      type: "constant"
    }
  }
}
layer {
  name: "pool1"
  type: "Pooling"
  bottom: "conv1"
  top: "pool1"
  pooling_param {
    pool: MAX
    kernel_size: 2
    stride: 2
  }
}
layer {
  name: "ip1"
  type: "InnerProduct"
  bottom: "pool1"
  top: "ip1"
  param {
    lr_mult: 1
  }
  param {
    lr_mult: 2
  }
  inner_product_param {
    num_output: 10
    weight_filler {
      type: "xavier"
    }
    bias_filler {
      type: "constant"
    }
  }
}
layer {
  name: "relu1"
  type: "ReLU"
  bottom: "ip1"
  top: "ip1"
}
layer {
  name: "ip2"
  type: "InnerProduct"
  bottom: "ip1"
  top: "ip2"
  param {
    lr_mult: 1
  }
  param {
    lr_mult: 2
  }
  inner_product_param {
    num_output: 25
    weight_filler {
      type: "xavier"
    }
    bias_filler {
      type: "constant"
    }
  }
}
layer {
  name: "relu2"
  type: "ReLU"
  bottom: "ip2"
  top: "ip2"
}
layer {
  name: "ip3"
  type: "InnerProduct"
  bottom: "ip2"
  top: "ip3"
  param {
    lr_mult: 1
  }
  param {
    lr_mult: 2
  }
  inner_product_param {
    num_output: 10
    weight_filler {
      type: "xavier"
    }
    bias_filler {
      type: "constant"
    }
  }
}
layer {
  name: "relu3"
  type: "ReLU"
  bottom: "ip3"
  top: "ip3"
}
layer {
  name: "loss"
  type: "SoftmaxWithLoss"
  bottom: "ip3"
  bottom: "label"
  top: "loss"
}
I0428 19:46:06.457016 25942 layer_factory.hpp:77] Creating layer mnist
I0428 19:46:06.457118 25942 db_lmdb.cpp:35] Opened lmdb examples/mnist/mnist_train_lmdb
I0428 19:46:06.457151 25942 net.cpp:86] Creating Layer mnist
I0428 19:46:06.457160 25942 net.cpp:382] mnist -> data
I0428 19:46:06.457183 25942 net.cpp:382] mnist -> label
I0428 19:46:06.458294 25942 data_layer.cpp:45] output data size: 64,1,28,28
I0428 19:46:06.460763 25942 net.cpp:124] Setting up mnist
I0428 19:46:06.460780 25942 net.cpp:131] Top shape: 64 1 28 28 (50176)
I0428 19:46:06.460788 25942 net.cpp:131] Top shape: 64 (64)
I0428 19:46:06.460791 25942 net.cpp:139] Memory required for data: 200960
I0428 19:46:06.460798 25942 layer_factory.hpp:77] Creating layer conv0
I0428 19:46:06.460832 25942 net.cpp:86] Creating Layer conv0
I0428 19:46:06.460853 25942 net.cpp:408] conv0 <- data
I0428 19:46:06.460866 25942 net.cpp:382] conv0 -> conv0
I0428 19:46:06.747665 25942 net.cpp:124] Setting up conv0
I0428 19:46:06.747697 25942 net.cpp:131] Top shape: 64 2 24 24 (73728)
I0428 19:46:06.747702 25942 net.cpp:139] Memory required for data: 495872
I0428 19:46:06.747720 25942 layer_factory.hpp:77] Creating layer pool0
I0428 19:46:06.747735 25942 net.cpp:86] Creating Layer pool0
I0428 19:46:06.747740 25942 net.cpp:408] pool0 <- conv0
I0428 19:46:06.747746 25942 net.cpp:382] pool0 -> pool0
I0428 19:46:06.747802 25942 net.cpp:124] Setting up pool0
I0428 19:46:06.747809 25942 net.cpp:131] Top shape: 64 2 12 12 (18432)
I0428 19:46:06.747813 25942 net.cpp:139] Memory required for data: 569600
I0428 19:46:06.747817 25942 layer_factory.hpp:77] Creating layer conv1
I0428 19:46:06.747829 25942 net.cpp:86] Creating Layer conv1
I0428 19:46:06.747835 25942 net.cpp:408] conv1 <- pool0
I0428 19:46:06.747841 25942 net.cpp:382] conv1 -> conv1
I0428 19:46:06.750973 25942 net.cpp:124] Setting up conv1
I0428 19:46:06.750990 25942 net.cpp:131] Top shape: 64 100 8 8 (409600)
I0428 19:46:06.750995 25942 net.cpp:139] Memory required for data: 2208000
I0428 19:46:06.751006 25942 layer_factory.hpp:77] Creating layer pool1
I0428 19:46:06.751014 25942 net.cpp:86] Creating Layer pool1
I0428 19:46:06.751019 25942 net.cpp:408] pool1 <- conv1
I0428 19:46:06.751025 25942 net.cpp:382] pool1 -> pool1
I0428 19:46:06.751067 25942 net.cpp:124] Setting up pool1
I0428 19:46:06.751082 25942 net.cpp:131] Top shape: 64 100 4 4 (102400)
I0428 19:46:06.751086 25942 net.cpp:139] Memory required for data: 2617600
I0428 19:46:06.751090 25942 layer_factory.hpp:77] Creating layer ip1
I0428 19:46:06.751097 25942 net.cpp:86] Creating Layer ip1
I0428 19:46:06.751101 25942 net.cpp:408] ip1 <- pool1
I0428 19:46:06.751107 25942 net.cpp:382] ip1 -> ip1
I0428 19:46:06.751332 25942 net.cpp:124] Setting up ip1
I0428 19:46:06.751340 25942 net.cpp:131] Top shape: 64 10 (640)
I0428 19:46:06.751344 25942 net.cpp:139] Memory required for data: 2620160
I0428 19:46:06.751353 25942 layer_factory.hpp:77] Creating layer relu1
I0428 19:46:06.751359 25942 net.cpp:86] Creating Layer relu1
I0428 19:46:06.751363 25942 net.cpp:408] relu1 <- ip1
I0428 19:46:06.751368 25942 net.cpp:369] relu1 -> ip1 (in-place)
I0428 19:46:06.751564 25942 net.cpp:124] Setting up relu1
I0428 19:46:06.751574 25942 net.cpp:131] Top shape: 64 10 (640)
I0428 19:46:06.751577 25942 net.cpp:139] Memory required for data: 2622720
I0428 19:46:06.751581 25942 layer_factory.hpp:77] Creating layer ip2
I0428 19:46:06.751590 25942 net.cpp:86] Creating Layer ip2
I0428 19:46:06.751593 25942 net.cpp:408] ip2 <- ip1
I0428 19:46:06.751600 25942 net.cpp:382] ip2 -> ip2
I0428 19:46:06.751713 25942 net.cpp:124] Setting up ip2
I0428 19:46:06.751719 25942 net.cpp:131] Top shape: 64 25 (1600)
I0428 19:46:06.751724 25942 net.cpp:139] Memory required for data: 2629120
I0428 19:46:06.751730 25942 layer_factory.hpp:77] Creating layer relu2
I0428 19:46:06.751737 25942 net.cpp:86] Creating Layer relu2
I0428 19:46:06.751741 25942 net.cpp:408] relu2 <- ip2
I0428 19:46:06.751745 25942 net.cpp:369] relu2 -> ip2 (in-place)
I0428 19:46:06.752585 25942 net.cpp:124] Setting up relu2
I0428 19:46:06.752600 25942 net.cpp:131] Top shape: 64 25 (1600)
I0428 19:46:06.752605 25942 net.cpp:139] Memory required for data: 2635520
I0428 19:46:06.752609 25942 layer_factory.hpp:77] Creating layer ip3
I0428 19:46:06.752619 25942 net.cpp:86] Creating Layer ip3
I0428 19:46:06.752622 25942 net.cpp:408] ip3 <- ip2
I0428 19:46:06.752629 25942 net.cpp:382] ip3 -> ip3
I0428 19:46:06.752744 25942 net.cpp:124] Setting up ip3
I0428 19:46:06.752753 25942 net.cpp:131] Top shape: 64 10 (640)
I0428 19:46:06.752756 25942 net.cpp:139] Memory required for data: 2638080
I0428 19:46:06.752766 25942 layer_factory.hpp:77] Creating layer relu3
I0428 19:46:06.752773 25942 net.cpp:86] Creating Layer relu3
I0428 19:46:06.752775 25942 net.cpp:408] relu3 <- ip3
I0428 19:46:06.752781 25942 net.cpp:369] relu3 -> ip3 (in-place)
I0428 19:46:06.752985 25942 net.cpp:124] Setting up relu3
I0428 19:46:06.752996 25942 net.cpp:131] Top shape: 64 10 (640)
I0428 19:46:06.753000 25942 net.cpp:139] Memory required for data: 2640640
I0428 19:46:06.753003 25942 layer_factory.hpp:77] Creating layer loss
I0428 19:46:06.753011 25942 net.cpp:86] Creating Layer loss
I0428 19:46:06.753015 25942 net.cpp:408] loss <- ip3
I0428 19:46:06.753020 25942 net.cpp:408] loss <- label
I0428 19:46:06.753026 25942 net.cpp:382] loss -> loss
I0428 19:46:06.753042 25942 layer_factory.hpp:77] Creating layer loss
…
I0428 19:46:06.753783 25942 solver.cpp:173] Creating test net (#0) specified by net file: ECE595/mnist/train_test/var_everything2/lenet_train_test485.prototxt
I0428 19:46:06.753815 25942 net.cpp:296] The NetState phase (1) differed from the phase (0) specified by a rule in layer mnist
I0428 19:46:06.753924 25942 net.cpp:53] Initializing net from parameters: 
name: "LeNet"
state {
  phase: TEST
}
layer {
  name: "mnist"
  type: "Data"
  top: "data"
  top: "label"
  include {
    phase: TEST
  }
  transform_param {
    scale: 0.00390625
  }
  data_param {
    source: "examples/mnist/mnist_test_lmdb"
    batch_size: 100
    backend: LMDB
  }
}
layer {
  name: "conv0"
  type: "Convolution"
  bottom: "data"
  top: "conv0"
  param {
    lr_mult: 1
  }
  param {
    lr_mult: 2
  }
  convolution_param {
    num_output: 2
    kernel_size: 5
    stride: 1
    weight_filler {
      type: "xavier"
    }
    bias_filler {
      type: "constant"
    }
  }
}
layer {
  name: "pool0"
  type: "Pooling"
  bottom: "conv0"
  top: "pool0"
  pooling_param {
    pool: MAX
    kernel_size: 2
    stride: 2
  }
}
layer {
  name: "conv1"
  type: "Convolution"
  bottom: "pool0"
  top: "conv1"
  param {
    lr_mult: 1
  }
  param {
    lr_mult: 2
  }
  convolution_param {
    num_output: 100
    kernel_size: 5
    stride: 1
    weight_filler {
      type: "xavier"
    }
    bias_filler {
      type: "constant"
    }
  }
}
layer {
  name: "pool1"
  type: "Pooling"
  bottom: "conv1"
  top: "pool1"
  pooling_param {
    pool: MAX
    kernel_size: 2
    stride: 2
  }
}
layer {
  name: "ip1"
  type: "InnerProduct"
  bottom: "pool1"
  top: "ip1"
  param {
    lr_mult: 1
  }
  param {
    lr_mult: 2
  }
  inner_product_param {
    num_output: 10
    weight_filler {
      type: "xavier"
    }
    bias_filler {
      type: "constant"
    }
  }
}
layer {
  name: "relu1"
  type: "ReLU"
  bottom: "ip1"
  top: "ip1"
}
layer {
  name: "ip2"
  type: "InnerProduct"
  bottom: "ip1"
  top: "ip2"
  param {
    lr_mult: 1
  }
  param {
    lr_mult: 2
  }
  inner_product_param {
    num_output: 25
    weight_filler {
      type: "xavier"
    }
    bias_filler {
      type: "constant"
    }
  }
}
layer {
  name: "relu2"
  type: "ReLU"
  bottom: "ip2"
  top: "ip2"
}
layer {
  name: "ip3"
  type: "InnerProduct"
  bottom: "ip2"
  top: "ip3"
  param {
    lr_mult: 1
  }
  param {
    lr_mult: 2
  }
  inner_product_param {
    num_output: 10
    weight_filler {
      type: "xavier"
    }
    bias_filler {
      type: "constant"
    }
  }
}
layer {
  name: "relu3"
  type: "ReLU"
  bottom: "ip3"
  top: "ip3"
}
layer {
  name: "accuracy"
  type: "Accuracy"
  bottom: "ip3"
  bottom: "label"
  top: "accuracy"
  include {
    phase: TEST
  }
}
layer {
  name: "loss"
  type: "SoftmaxWithLoss"
  bottom: "ip3"
  bottom: "label"
  top: "loss"
}
I0428 19:46:06.754024 25942 layer_factory.hpp:77] Creating layer mnist
I0428 19:46:06.754076 25942 db_lmdb.cpp:35] Opened lmdb examples/mnist/mnist_test_lmdb
I0428 19:46:06.754088 25942 net.cpp:86] Creating Layer mnist
I0428 19:46:06.754094 25942 net.cpp:382] mnist -> data
I0428 19:46:06.754103 25942 net.cpp:382] mnist -> label
I0428 19:46:06.754202 25942 data_layer.cpp:45] output data size: 100,1,28,28
I0428 19:46:06.756379 25942 net.cpp:124] Setting up mnist
I0428 19:46:06.756395 25942 net.cpp:131] Top shape: 100 1 28 28 (78400)
I0428 19:46:06.756400 25942 net.cpp:131] Top shape: 100 (100)
I0428 19:46:06.756404 25942 net.cpp:139] Memory required for data: 314000
I0428 19:46:06.756412 25942 layer_factory.hpp:77] Creating layer label_mnist_1_split
I0428 19:46:06.756420 25942 net.cpp:86] Creating Layer label_mnist_1_split
I0428 19:46:06.756424 25942 net.cpp:408] label_mnist_1_split <- label
I0428 19:46:06.756430 25942 net.cpp:382] label_mnist_1_split -> label_mnist_1_split_0
I0428 19:46:06.756438 25942 net.cpp:382] label_mnist_1_split -> label_mnist_1_split_1
I0428 19:46:06.756505 25942 net.cpp:124] Setting up label_mnist_1_split
I0428 19:46:06.756511 25942 net.cpp:131] Top shape: 100 (100)
I0428 19:46:06.756516 25942 net.cpp:131] Top shape: 100 (100)
I0428 19:46:06.756520 25942 net.cpp:139] Memory required for data: 314800
I0428 19:46:06.756522 25942 layer_factory.hpp:77] Creating layer conv0
I0428 19:46:06.756533 25942 net.cpp:86] Creating Layer conv0
I0428 19:46:06.756537 25942 net.cpp:408] conv0 <- data
I0428 19:46:06.756544 25942 net.cpp:382] conv0 -> conv0
I0428 19:46:06.758406 25942 net.cpp:124] Setting up conv0
I0428 19:46:06.758422 25942 net.cpp:131] Top shape: 100 2 24 24 (115200)
I0428 19:46:06.758427 25942 net.cpp:139] Memory required for data: 775600
I0428 19:46:06.758438 25942 layer_factory.hpp:77] Creating layer pool0
I0428 19:46:06.758447 25942 net.cpp:86] Creating Layer pool0
I0428 19:46:06.758452 25942 net.cpp:408] pool0 <- conv0
I0428 19:46:06.758458 25942 net.cpp:382] pool0 -> pool0
I0428 19:46:06.758504 25942 net.cpp:124] Setting up pool0
I0428 19:46:06.758510 25942 net.cpp:131] Top shape: 100 2 12 12 (28800)
I0428 19:46:06.758514 25942 net.cpp:139] Memory required for data: 890800
I0428 19:46:06.758517 25942 layer_factory.hpp:77] Creating layer conv1
I0428 19:46:06.758528 25942 net.cpp:86] Creating Layer conv1
I0428 19:46:06.758533 25942 net.cpp:408] conv1 <- pool0
I0428 19:46:06.758539 25942 net.cpp:382] conv1 -> conv1
I0428 19:46:06.760332 25942 net.cpp:124] Setting up conv1
I0428 19:46:06.760349 25942 net.cpp:131] Top shape: 100 100 8 8 (640000)
I0428 19:46:06.760362 25942 net.cpp:139] Memory required for data: 3450800
I0428 19:46:06.760373 25942 layer_factory.hpp:77] Creating layer pool1
I0428 19:46:06.760381 25942 net.cpp:86] Creating Layer pool1
I0428 19:46:06.760391 25942 net.cpp:408] pool1 <- conv1
I0428 19:46:06.760397 25942 net.cpp:382] pool1 -> pool1
I0428 19:46:06.760442 25942 net.cpp:124] Setting up pool1
I0428 19:46:06.760460 25942 net.cpp:131] Top shape: 100 100 4 4 (160000)
I0428 19:46:06.760464 25942 net.cpp:139] Memory required for data: 4090800
I0428 19:46:06.760468 25942 layer_factory.hpp:77] Creating layer ip1
I0428 19:46:06.760474 25942 net.cpp:86] Creating Layer ip1
I0428 19:46:06.760484 25942 net.cpp:408] ip1 <- pool1
I0428 19:46:06.760491 25942 net.cpp:382] ip1 -> ip1
I0428 19:46:06.760717 25942 net.cpp:124] Setting up ip1
I0428 19:46:06.760726 25942 net.cpp:131] Top shape: 100 10 (1000)
I0428 19:46:06.760741 25942 net.cpp:139] Memory required for data: 4094800
I0428 19:46:06.760751 25942 layer_factory.hpp:77] Creating layer relu1
I0428 19:46:06.760758 25942 net.cpp:86] Creating Layer relu1
I0428 19:46:06.760762 25942 net.cpp:408] relu1 <- ip1
I0428 19:46:06.760767 25942 net.cpp:369] relu1 -> ip1 (in-place)
I0428 19:46:06.760975 25942 net.cpp:124] Setting up relu1
I0428 19:46:06.760985 25942 net.cpp:131] Top shape: 100 10 (1000)
I0428 19:46:06.760989 25942 net.cpp:139] Memory required for data: 4098800
I0428 19:46:06.760994 25942 layer_factory.hpp:77] Creating layer ip2
I0428 19:46:06.761003 25942 net.cpp:86] Creating Layer ip2
I0428 19:46:06.761008 25942 net.cpp:408] ip2 <- ip1
I0428 19:46:06.761023 25942 net.cpp:382] ip2 -> ip2
I0428 19:46:06.761139 25942 net.cpp:124] Setting up ip2
I0428 19:46:06.761148 25942 net.cpp:131] Top shape: 100 25 (2500)
I0428 19:46:06.761152 25942 net.cpp:139] Memory required for data: 4108800
I0428 19:46:06.761157 25942 layer_factory.hpp:77] Creating layer relu2
I0428 19:46:06.761165 25942 net.cpp:86] Creating Layer relu2
I0428 19:46:06.761168 25942 net.cpp:408] relu2 <- ip2
I0428 19:46:06.761173 25942 net.cpp:369] relu2 -> ip2 (in-place)
I0428 19:46:06.761422 25942 net.cpp:124] Setting up relu2
I0428 19:46:06.761432 25942 net.cpp:131] Top shape: 100 25 (2500)
I0428 19:46:06.761435 25942 net.cpp:139] Memory required for data: 4118800
I0428 19:46:06.761440 25942 layer_factory.hpp:77] Creating layer ip3
I0428 19:46:06.761446 25942 net.cpp:86] Creating Layer ip3
I0428 19:46:06.761451 25942 net.cpp:408] ip3 <- ip2
I0428 19:46:06.761457 25942 net.cpp:382] ip3 -> ip3
I0428 19:46:06.761611 25942 net.cpp:124] Setting up ip3
I0428 19:46:06.761620 25942 net.cpp:131] Top shape: 100 10 (1000)
I0428 19:46:06.761625 25942 net.cpp:139] Memory required for data: 4122800
I0428 19:46:06.761633 25942 layer_factory.hpp:77] Creating layer relu3
I0428 19:46:06.761638 25942 net.cpp:86] Creating Layer relu3
I0428 19:46:06.761642 25942 net.cpp:408] relu3 <- ip3
I0428 19:46:06.761647 25942 net.cpp:369] relu3 -> ip3 (in-place)
I0428 19:46:06.762583 25942 net.cpp:124] Setting up relu3
I0428 19:46:06.762596 25942 net.cpp:131] Top shape: 100 10 (1000)
I0428 19:46:06.762600 25942 net.cpp:139] Memory required for data: 4126800
I0428 19:46:06.762604 25942 layer_factory.hpp:77] Creating layer ip3_relu3_0_split
I0428 19:46:06.762610 25942 net.cpp:86] Creating Layer ip3_relu3_0_split
I0428 19:46:06.762614 25942 net.cpp:408] ip3_relu3_0_split <- ip3
I0428 19:46:06.762621 25942 net.cpp:382] ip3_relu3_0_split -> ip3_relu3_0_split_0
I0428 19:46:06.762629 25942 net.cpp:382] ip3_relu3_0_split -> ip3_relu3_0_split_1
I0428 19:46:06.762689 25942 net.cpp:124] Setting up ip3_relu3_0_split
I0428 19:46:06.762698 25942 net.cpp:131] Top shape: 100 10 (1000)
I0428 19:46:06.762703 25942 net.cpp:131] Top shape: 100 10 (1000)
I0428 19:46:06.762706 25942 net.cpp:139] Memory required for data: 4134800
I0428 19:46:06.762711 25942 layer_factory.hpp:77] Creating layer accuracy
I0428 19:46:06.762717 25942 net.cpp:86] Creating Layer accuracy
I0428 19:46:06.762727 25942 net.cpp:408] accuracy <- ip3_relu3_0_split_0
I0428 19:46:06.762732 25942 net.cpp:408] accuracy <- label_mnist_1_split_0
I0428 19:46:06.762743 25942 net.cpp:382] accuracy -> accuracy
…
