…
I0428 19:56:01.053513 28326 net.cpp:296] The NetState phase (0) differed from the phase (1) specified by a rule in layer mnist
I0428 19:56:01.053550 28326 net.cpp:296] The NetState phase (0) differed from the phase (1) specified by a rule in layer accuracy
I0428 19:56:01.053685 28326 net.cpp:53] Initializing net from parameters: 
name: "LeNet"
state {
  phase: TRAIN
  level: 0
  stage: ""
}
layer {
  name: "mnist"
  type: "Data"
  top: "data"
  top: "label"
  include {
    phase: TRAIN
  }
  transform_param {
    scale: 0.00390625
  }
  data_param {
    source: "examples/mnist/mnist_train_lmdb"
    batch_size: 64
    backend: LMDB
  }
}
layer {
  name: "conv0"
  type: "Convolution"
  bottom: "data"
  top: "conv0"
  param {
    lr_mult: 1
  }
  param {
    lr_mult: 2
  }
  convolution_param {
    num_output: 10
    kernel_size: 5
    stride: 1
    weight_filler {
      type: "xavier"
    }
    bias_filler {
      type: "constant"
    }
  }
}
layer {
  name: "pool0"
  type: "Pooling"
  bottom: "conv0"
  top: "pool0"
  pooling_param {
    pool: MAX
    kernel_size: 2
    stride: 2
  }
}
layer {
  name: "conv1"
  type: "Convolution"
  bottom: "pool0"
  top: "conv1"
  param {
    lr_mult: 1
  }
  param {
    lr_mult: 2
  }
  convolution_param {
    num_output: 2
    kernel_size: 5
    stride: 1
    weight_filler {
      type: "xavier"
    }
    bias_filler {
      type: "constant"
    }
  }
}
layer {
  name: "pool1"
  type: "Pooling"
  bottom: "conv1"
  top: "pool1"
  pooling_param {
    pool: MAX
    kernel_size: 2
    stride: 2
  }
}
layer {
  name: "ip1"
  type: "InnerProduct"
  bottom: "pool1"
  top: "ip1"
  param {
    lr_mult: 1
  }
  param {
    lr_mult: 2
  }
  inner_product_param {
    num_output: 10
    weight_filler {
      type: "xavier"
    }
    bias_filler {
      type: "constant"
    }
  }
}
layer {
  name: "relu1"
  type: "ReLU"
  bottom: "ip1"
  top: "ip1"
}
layer {
  name: "ip2"
  type: "InnerProduct"
  bottom: "ip1"
  top: "ip2"
  param {
    lr_mult: 1
  }
  param {
    lr_mult: 2
  }
  inner_product_param {
    num_output: 10
    weight_filler {
      type: "xavier"
    }
    bias_filler {
      type: "constant"
    }
  }
}
layer {
  name: "relu2"
  type: "ReLU"
  bottom: "ip2"
  top: "ip2"
}
layer {
  name: "loss"
  type: "SoftmaxWithLoss"
  bottom: "ip2"
  bottom: "label"
  top: "loss"
}
I0428 19:56:01.053781 28326 layer_factory.hpp:77] Creating layer mnist
I0428 19:56:01.053900 28326 db_lmdb.cpp:35] Opened lmdb examples/mnist/mnist_train_lmdb
I0428 19:56:01.053930 28326 net.cpp:86] Creating Layer mnist
I0428 19:56:01.053958 28326 net.cpp:382] mnist -> data
I0428 19:56:01.053983 28326 net.cpp:382] mnist -> label
I0428 19:56:01.055423 28326 data_layer.cpp:45] output data size: 64,1,28,28
I0428 19:56:01.057991 28326 net.cpp:124] Setting up mnist
I0428 19:56:01.058025 28326 net.cpp:131] Top shape: 64 1 28 28 (50176)
I0428 19:56:01.058035 28326 net.cpp:131] Top shape: 64 (64)
I0428 19:56:01.058040 28326 net.cpp:139] Memory required for data: 200960
I0428 19:56:01.058048 28326 layer_factory.hpp:77] Creating layer conv0
I0428 19:56:01.058066 28326 net.cpp:86] Creating Layer conv0
I0428 19:56:01.058073 28326 net.cpp:408] conv0 <- data
I0428 19:56:01.058087 28326 net.cpp:382] conv0 -> conv0
I0428 19:56:01.281718 28326 net.cpp:124] Setting up conv0
I0428 19:56:01.281743 28326 net.cpp:131] Top shape: 64 10 24 24 (368640)
I0428 19:56:01.281745 28326 net.cpp:139] Memory required for data: 1675520
I0428 19:56:01.281776 28326 layer_factory.hpp:77] Creating layer pool0
I0428 19:56:01.281790 28326 net.cpp:86] Creating Layer pool0
I0428 19:56:01.281792 28326 net.cpp:408] pool0 <- conv0
I0428 19:56:01.281800 28326 net.cpp:382] pool0 -> pool0
I0428 19:56:01.281854 28326 net.cpp:124] Setting up pool0
I0428 19:56:01.281862 28326 net.cpp:131] Top shape: 64 10 12 12 (92160)
I0428 19:56:01.281867 28326 net.cpp:139] Memory required for data: 2044160
I0428 19:56:01.281872 28326 layer_factory.hpp:77] Creating layer conv1
I0428 19:56:01.281885 28326 net.cpp:86] Creating Layer conv1
I0428 19:56:01.281889 28326 net.cpp:408] conv1 <- pool0
I0428 19:56:01.281898 28326 net.cpp:382] conv1 -> conv1
I0428 19:56:01.284171 28326 net.cpp:124] Setting up conv1
I0428 19:56:01.284201 28326 net.cpp:131] Top shape: 64 2 8 8 (8192)
I0428 19:56:01.284204 28326 net.cpp:139] Memory required for data: 2076928
I0428 19:56:01.284214 28326 layer_factory.hpp:77] Creating layer pool1
I0428 19:56:01.284220 28326 net.cpp:86] Creating Layer pool1
I0428 19:56:01.284240 28326 net.cpp:408] pool1 <- conv1
I0428 19:56:01.284246 28326 net.cpp:382] pool1 -> pool1
I0428 19:56:01.284299 28326 net.cpp:124] Setting up pool1
I0428 19:56:01.284325 28326 net.cpp:131] Top shape: 64 2 4 4 (2048)
I0428 19:56:01.284330 28326 net.cpp:139] Memory required for data: 2085120
I0428 19:56:01.284337 28326 layer_factory.hpp:77] Creating layer ip1
I0428 19:56:01.284346 28326 net.cpp:86] Creating Layer ip1
I0428 19:56:01.284353 28326 net.cpp:408] ip1 <- pool1
I0428 19:56:01.284360 28326 net.cpp:382] ip1 -> ip1
I0428 19:56:01.284492 28326 net.cpp:124] Setting up ip1
I0428 19:56:01.284503 28326 net.cpp:131] Top shape: 64 10 (640)
I0428 19:56:01.284508 28326 net.cpp:139] Memory required for data: 2087680
I0428 19:56:01.284520 28326 layer_factory.hpp:77] Creating layer relu1
I0428 19:56:01.284528 28326 net.cpp:86] Creating Layer relu1
I0428 19:56:01.284551 28326 net.cpp:408] relu1 <- ip1
I0428 19:56:01.284559 28326 net.cpp:369] relu1 -> ip1 (in-place)
I0428 19:56:01.284806 28326 net.cpp:124] Setting up relu1
I0428 19:56:01.284843 28326 net.cpp:131] Top shape: 64 10 (640)
I0428 19:56:01.284849 28326 net.cpp:139] Memory required for data: 2090240
I0428 19:56:01.284854 28326 layer_factory.hpp:77] Creating layer ip2
I0428 19:56:01.284878 28326 net.cpp:86] Creating Layer ip2
I0428 19:56:01.284883 28326 net.cpp:408] ip2 <- ip1
I0428 19:56:01.284905 28326 net.cpp:382] ip2 -> ip2
I0428 19:56:01.285040 28326 net.cpp:124] Setting up ip2
I0428 19:56:01.285053 28326 net.cpp:131] Top shape: 64 10 (640)
I0428 19:56:01.285058 28326 net.cpp:139] Memory required for data: 2092800
I0428 19:56:01.285066 28326 layer_factory.hpp:77] Creating layer relu2
I0428 19:56:01.285078 28326 net.cpp:86] Creating Layer relu2
I0428 19:56:01.285082 28326 net.cpp:408] relu2 <- ip2
I0428 19:56:01.285089 28326 net.cpp:369] relu2 -> ip2 (in-place)
I0428 19:56:01.286201 28326 net.cpp:124] Setting up relu2
I0428 19:56:01.286231 28326 net.cpp:131] Top shape: 64 10 (640)
I0428 19:56:01.286237 28326 net.cpp:139] Memory required for data: 2095360
I0428 19:56:01.286242 28326 layer_factory.hpp:77] Creating layer loss
I0428 19:56:01.286250 28326 net.cpp:86] Creating Layer loss
I0428 19:56:01.286255 28326 net.cpp:408] loss <- ip2
I0428 19:56:01.286278 28326 net.cpp:408] loss <- label
I0428 19:56:01.286285 28326 net.cpp:382] loss -> loss
I0428 19:56:01.286311 28326 layer_factory.hpp:77] Creating layer loss
…
I0428 19:56:01.287319 28326 solver.cpp:173] Creating test net (#0) specified by net file: ECE595/mnist/train_test/var_everything2/lenet_train_test746.prototxt
I0428 19:56:01.287386 28326 net.cpp:296] The NetState phase (1) differed from the phase (0) specified by a rule in layer mnist
I0428 19:56:01.287513 28326 net.cpp:53] Initializing net from parameters: 
name: "LeNet"
state {
  phase: TEST
}
layer {
  name: "mnist"
  type: "Data"
  top: "data"
  top: "label"
  include {
    phase: TEST
  }
  transform_param {
    scale: 0.00390625
  }
  data_param {
    source: "examples/mnist/mnist_test_lmdb"
    batch_size: 100
    backend: LMDB
  }
}
layer {
  name: "conv0"
  type: "Convolution"
  bottom: "data"
  top: "conv0"
  param {
    lr_mult: 1
  }
  param {
    lr_mult: 2
  }
  convolution_param {
    num_output: 10
    kernel_size: 5
    stride: 1
    weight_filler {
      type: "xavier"
    }
    bias_filler {
      type: "constant"
    }
  }
}
layer {
  name: "pool0"
  type: "Pooling"
  bottom: "conv0"
  top: "pool0"
  pooling_param {
    pool: MAX
    kernel_size: 2
    stride: 2
  }
}
layer {
  name: "conv1"
  type: "Convolution"
  bottom: "pool0"
  top: "conv1"
  param {
    lr_mult: 1
  }
  param {
    lr_mult: 2
  }
  convolution_param {
    num_output: 2
    kernel_size: 5
    stride: 1
    weight_filler {
      type: "xavier"
    }
    bias_filler {
      type: "constant"
    }
  }
}
layer {
  name: "pool1"
  type: "Pooling"
  bottom: "conv1"
  top: "pool1"
  pooling_param {
    pool: MAX
    kernel_size: 2
    stride: 2
  }
}
layer {
  name: "ip1"
  type: "InnerProduct"
  bottom: "pool1"
  top: "ip1"
  param {
    lr_mult: 1
  }
  param {
    lr_mult: 2
  }
  inner_product_param {
    num_output: 10
    weight_filler {
      type: "xavier"
    }
    bias_filler {
      type: "constant"
    }
  }
}
layer {
  name: "relu1"
  type: "ReLU"
  bottom: "ip1"
  top: "ip1"
}
layer {
  name: "ip2"
  type: "InnerProduct"
  bottom: "ip1"
  top: "ip2"
  param {
    lr_mult: 1
  }
  param {
    lr_mult: 2
  }
  inner_product_param {
    num_output: 10
    weight_filler {
      type: "xavier"
    }
    bias_filler {
      type: "constant"
    }
  }
}
layer {
  name: "relu2"
  type: "ReLU"
  bottom: "ip2"
  top: "ip2"
}
layer {
  name: "accuracy"
  type: "Accuracy"
  bottom: "ip2"
  bottom: "label"
  top: "accuracy"
  include {
    phase: TEST
  }
}
layer {
  name: "loss"
  type: "SoftmaxWithLoss"
  bottom: "ip2"
  bottom: "label"
  top: "loss"
}
I0428 19:56:01.287621 28326 layer_factory.hpp:77] Creating layer mnist
I0428 19:56:01.287673 28326 db_lmdb.cpp:35] Opened lmdb examples/mnist/mnist_test_lmdb
I0428 19:56:01.287701 28326 net.cpp:86] Creating Layer mnist
I0428 19:56:01.287709 28326 net.cpp:382] mnist -> data
I0428 19:56:01.287721 28326 net.cpp:382] mnist -> label
I0428 19:56:01.287884 28326 data_layer.cpp:45] output data size: 100,1,28,28
I0428 19:56:01.290591 28326 net.cpp:124] Setting up mnist
I0428 19:56:01.290637 28326 net.cpp:131] Top shape: 100 1 28 28 (78400)
I0428 19:56:01.290642 28326 net.cpp:131] Top shape: 100 (100)
I0428 19:56:01.290645 28326 net.cpp:139] Memory required for data: 314000
I0428 19:56:01.290649 28326 layer_factory.hpp:77] Creating layer label_mnist_1_split
I0428 19:56:01.290675 28326 net.cpp:86] Creating Layer label_mnist_1_split
I0428 19:56:01.290679 28326 net.cpp:408] label_mnist_1_split <- label
I0428 19:56:01.290700 28326 net.cpp:382] label_mnist_1_split -> label_mnist_1_split_0
I0428 19:56:01.290712 28326 net.cpp:382] label_mnist_1_split -> label_mnist_1_split_1
I0428 19:56:01.290858 28326 net.cpp:124] Setting up label_mnist_1_split
I0428 19:56:01.290882 28326 net.cpp:131] Top shape: 100 (100)
I0428 19:56:01.290889 28326 net.cpp:131] Top shape: 100 (100)
I0428 19:56:01.290895 28326 net.cpp:139] Memory required for data: 314800
I0428 19:56:01.290900 28326 layer_factory.hpp:77] Creating layer conv0
I0428 19:56:01.290915 28326 net.cpp:86] Creating Layer conv0
I0428 19:56:01.290920 28326 net.cpp:408] conv0 <- data
I0428 19:56:01.290930 28326 net.cpp:382] conv0 -> conv0
I0428 19:56:01.293085 28326 net.cpp:124] Setting up conv0
I0428 19:56:01.293114 28326 net.cpp:131] Top shape: 100 10 24 24 (576000)
I0428 19:56:01.293124 28326 net.cpp:139] Memory required for data: 2618800
I0428 19:56:01.293133 28326 layer_factory.hpp:77] Creating layer pool0
I0428 19:56:01.293140 28326 net.cpp:86] Creating Layer pool0
I0428 19:56:01.293143 28326 net.cpp:408] pool0 <- conv0
I0428 19:56:01.293148 28326 net.cpp:382] pool0 -> pool0
I0428 19:56:01.293202 28326 net.cpp:124] Setting up pool0
I0428 19:56:01.293220 28326 net.cpp:131] Top shape: 100 10 12 12 (144000)
I0428 19:56:01.293225 28326 net.cpp:139] Memory required for data: 3194800
I0428 19:56:01.293228 28326 layer_factory.hpp:77] Creating layer conv1
I0428 19:56:01.293247 28326 net.cpp:86] Creating Layer conv1
I0428 19:56:01.293253 28326 net.cpp:408] conv1 <- pool0
I0428 19:56:01.293262 28326 net.cpp:382] conv1 -> conv1
I0428 19:56:01.295822 28326 net.cpp:124] Setting up conv1
I0428 19:56:01.295850 28326 net.cpp:131] Top shape: 100 2 8 8 (12800)
I0428 19:56:01.295868 28326 net.cpp:139] Memory required for data: 3246000
I0428 19:56:01.295877 28326 layer_factory.hpp:77] Creating layer pool1
I0428 19:56:01.295886 28326 net.cpp:86] Creating Layer pool1
I0428 19:56:01.295888 28326 net.cpp:408] pool1 <- conv1
I0428 19:56:01.295893 28326 net.cpp:382] pool1 -> pool1
I0428 19:56:01.295958 28326 net.cpp:124] Setting up pool1
I0428 19:56:01.295976 28326 net.cpp:131] Top shape: 100 2 4 4 (3200)
I0428 19:56:01.295981 28326 net.cpp:139] Memory required for data: 3258800
I0428 19:56:01.295986 28326 layer_factory.hpp:77] Creating layer ip1
I0428 19:56:01.295995 28326 net.cpp:86] Creating Layer ip1
I0428 19:56:01.296000 28326 net.cpp:408] ip1 <- pool1
I0428 19:56:01.296010 28326 net.cpp:382] ip1 -> ip1
I0428 19:56:01.296174 28326 net.cpp:124] Setting up ip1
I0428 19:56:01.296185 28326 net.cpp:131] Top shape: 100 10 (1000)
I0428 19:56:01.296190 28326 net.cpp:139] Memory required for data: 3262800
I0428 19:56:01.296201 28326 layer_factory.hpp:77] Creating layer relu1
I0428 19:56:01.296210 28326 net.cpp:86] Creating Layer relu1
I0428 19:56:01.296214 28326 net.cpp:408] relu1 <- ip1
I0428 19:56:01.296222 28326 net.cpp:369] relu1 -> ip1 (in-place)
I0428 19:56:01.296519 28326 net.cpp:124] Setting up relu1
I0428 19:56:01.296545 28326 net.cpp:131] Top shape: 100 10 (1000)
I0428 19:56:01.296564 28326 net.cpp:139] Memory required for data: 3266800
I0428 19:56:01.296569 28326 layer_factory.hpp:77] Creating layer ip2
I0428 19:56:01.296581 28326 net.cpp:86] Creating Layer ip2
I0428 19:56:01.296586 28326 net.cpp:408] ip2 <- ip1
I0428 19:56:01.296594 28326 net.cpp:382] ip2 -> ip2
I0428 19:56:01.296797 28326 net.cpp:124] Setting up ip2
I0428 19:56:01.296818 28326 net.cpp:131] Top shape: 100 10 (1000)
I0428 19:56:01.296826 28326 net.cpp:139] Memory required for data: 3270800
I0428 19:56:01.296836 28326 layer_factory.hpp:77] Creating layer relu2
I0428 19:56:01.296847 28326 net.cpp:86] Creating Layer relu2
I0428 19:56:01.296854 28326 net.cpp:408] relu2 <- ip2
I0428 19:56:01.296861 28326 net.cpp:369] relu2 -> ip2 (in-place)
I0428 19:56:01.297148 28326 net.cpp:124] Setting up relu2
I0428 19:56:01.297174 28326 net.cpp:131] Top shape: 100 10 (1000)
I0428 19:56:01.297179 28326 net.cpp:139] Memory required for data: 3274800
I0428 19:56:01.297199 28326 layer_factory.hpp:77] Creating layer ip2_relu2_0_split
I0428 19:56:01.297209 28326 net.cpp:86] Creating Layer ip2_relu2_0_split
I0428 19:56:01.297214 28326 net.cpp:408] ip2_relu2_0_split <- ip2
I0428 19:56:01.297220 28326 net.cpp:382] ip2_relu2_0_split -> ip2_relu2_0_split_0
I0428 19:56:01.297240 28326 net.cpp:382] ip2_relu2_0_split -> ip2_relu2_0_split_1
I0428 19:56:01.297291 28326 net.cpp:124] Setting up ip2_relu2_0_split
I0428 19:56:01.297309 28326 net.cpp:131] Top shape: 100 10 (1000)
I0428 19:56:01.297315 28326 net.cpp:131] Top shape: 100 10 (1000)
I0428 19:56:01.297319 28326 net.cpp:139] Memory required for data: 3282800
I0428 19:56:01.297333 28326 layer_factory.hpp:77] Creating layer accuracy
I0428 19:56:01.297339 28326 net.cpp:86] Creating Layer accuracy
I0428 19:56:01.297345 28326 net.cpp:408] accuracy <- ip2_relu2_0_split_0
I0428 19:56:01.297351 28326 net.cpp:408] accuracy <- label_mnist_1_split_0
I0428 19:56:01.297359 28326 net.cpp:382] accuracy -> accuracy
…
