…
I0428 20:08:31.069533 31400 net.cpp:296] The NetState phase (0) differed from the phase (1) specified by a rule in layer mnist
I0428 20:08:31.069555 31400 net.cpp:296] The NetState phase (0) differed from the phase (1) specified by a rule in layer accuracy
I0428 20:08:31.069643 31400 net.cpp:53] Initializing net from parameters: 
name: "LeNet"
state {
  phase: TRAIN
  level: 0
  stage: ""
}
layer {
  name: "mnist"
  type: "Data"
  top: "data"
  top: "label"
  include {
    phase: TRAIN
  }
  transform_param {
    scale: 0.00390625
  }
  data_param {
    source: "examples/mnist/mnist_train_lmdb"
    batch_size: 64
    backend: LMDB
  }
}
layer {
  name: "conv0"
  type: "Convolution"
  bottom: "data"
  top: "conv0"
  param {
    lr_mult: 1
  }
  param {
    lr_mult: 2
  }
  convolution_param {
    num_output: 25
    kernel_size: 5
    stride: 1
    weight_filler {
      type: "xavier"
    }
    bias_filler {
      type: "constant"
    }
  }
}
layer {
  name: "pool0"
  type: "Pooling"
  bottom: "conv0"
  top: "pool0"
  pooling_param {
    pool: MAX
    kernel_size: 2
    stride: 2
  }
}
layer {
  name: "conv1"
  type: "Convolution"
  bottom: "pool0"
  top: "conv1"
  param {
    lr_mult: 1
  }
  param {
    lr_mult: 2
  }
  convolution_param {
    num_output: 10
    kernel_size: 5
    stride: 1
    weight_filler {
      type: "xavier"
    }
    bias_filler {
      type: "constant"
    }
  }
}
layer {
  name: "pool1"
  type: "Pooling"
  bottom: "conv1"
  top: "pool1"
  pooling_param {
    pool: MAX
    kernel_size: 2
    stride: 2
  }
}
layer {
  name: "ip1"
  type: "InnerProduct"
  bottom: "pool1"
  top: "ip1"
  param {
    lr_mult: 1
  }
  param {
    lr_mult: 2
  }
  inner_product_param {
    num_output: 50
    weight_filler {
      type: "xavier"
    }
    bias_filler {
      type: "constant"
    }
  }
}
layer {
  name: "relu1"
  type: "ReLU"
  bottom: "ip1"
  top: "ip1"
}
layer {
  name: "ip2"
  type: "InnerProduct"
  bottom: "ip1"
  top: "ip2"
  param {
    lr_mult: 1
  }
  param {
    lr_mult: 2
  }
  inner_product_param {
    num_output: 10
    weight_filler {
      type: "xavier"
    }
    bias_filler {
      type: "constant"
    }
  }
}
layer {
  name: "relu2"
  type: "ReLU"
  bottom: "ip2"
  top: "ip2"
}
layer {
  name: "ip3"
  type: "InnerProduct"
  bottom: "ip2"
  top: "ip3"
  param {
    lr_mult: 1
  }
  param {
    lr_mult: 2
  }
  inner_product_param {
    num_output: 10
    weight_filler {
      type: "xavier"
    }
    bias_filler {
      type: "constant"
    }
  }
}
layer {
  name: "relu3"
  type: "ReLU"
  bottom: "ip3"
  top: "ip3"
}
layer {
  name: "loss"
  type: "SoftmaxWithLoss"
  bottom: "ip3"
  bottom: "label"
  top: "loss"
}
I0428 20:08:31.069732 31400 layer_factory.hpp:77] Creating layer mnist
I0428 20:08:31.069838 31400 db_lmdb.cpp:35] Opened lmdb examples/mnist/mnist_train_lmdb
I0428 20:08:31.069864 31400 net.cpp:86] Creating Layer mnist
I0428 20:08:31.069875 31400 net.cpp:382] mnist -> data
I0428 20:08:31.069898 31400 net.cpp:382] mnist -> label
I0428 20:08:31.070979 31400 data_layer.cpp:45] output data size: 64,1,28,28
I0428 20:08:31.073185 31400 net.cpp:124] Setting up mnist
I0428 20:08:31.073202 31400 net.cpp:131] Top shape: 64 1 28 28 (50176)
I0428 20:08:31.073211 31400 net.cpp:131] Top shape: 64 (64)
I0428 20:08:31.073216 31400 net.cpp:139] Memory required for data: 200960
I0428 20:08:31.073225 31400 layer_factory.hpp:77] Creating layer conv0
I0428 20:08:31.073262 31400 net.cpp:86] Creating Layer conv0
I0428 20:08:31.073283 31400 net.cpp:408] conv0 <- data
I0428 20:08:31.073319 31400 net.cpp:382] conv0 -> conv0
I0428 20:08:31.306934 31400 net.cpp:124] Setting up conv0
I0428 20:08:31.306982 31400 net.cpp:131] Top shape: 64 25 24 24 (921600)
I0428 20:08:31.306988 31400 net.cpp:139] Memory required for data: 3887360
I0428 20:08:31.307010 31400 layer_factory.hpp:77] Creating layer pool0
I0428 20:08:31.307029 31400 net.cpp:86] Creating Layer pool0
I0428 20:08:31.307039 31400 net.cpp:408] pool0 <- conv0
I0428 20:08:31.307049 31400 net.cpp:382] pool0 -> pool0
I0428 20:08:31.307119 31400 net.cpp:124] Setting up pool0
I0428 20:08:31.307128 31400 net.cpp:131] Top shape: 64 25 12 12 (230400)
I0428 20:08:31.307134 31400 net.cpp:139] Memory required for data: 4808960
I0428 20:08:31.307139 31400 layer_factory.hpp:77] Creating layer conv1
I0428 20:08:31.307155 31400 net.cpp:86] Creating Layer conv1
I0428 20:08:31.307162 31400 net.cpp:408] conv1 <- pool0
I0428 20:08:31.307171 31400 net.cpp:382] conv1 -> conv1
I0428 20:08:31.310071 31400 net.cpp:124] Setting up conv1
I0428 20:08:31.310087 31400 net.cpp:131] Top shape: 64 10 8 8 (40960)
I0428 20:08:31.310094 31400 net.cpp:139] Memory required for data: 4972800
I0428 20:08:31.310124 31400 layer_factory.hpp:77] Creating layer pool1
I0428 20:08:31.310135 31400 net.cpp:86] Creating Layer pool1
I0428 20:08:31.310147 31400 net.cpp:408] pool1 <- conv1
I0428 20:08:31.310154 31400 net.cpp:382] pool1 -> pool1
I0428 20:08:31.310199 31400 net.cpp:124] Setting up pool1
I0428 20:08:31.310206 31400 net.cpp:131] Top shape: 64 10 4 4 (10240)
I0428 20:08:31.310227 31400 net.cpp:139] Memory required for data: 5013760
I0428 20:08:31.310232 31400 layer_factory.hpp:77] Creating layer ip1
I0428 20:08:31.310243 31400 net.cpp:86] Creating Layer ip1
I0428 20:08:31.310252 31400 net.cpp:408] ip1 <- pool1
I0428 20:08:31.310262 31400 net.cpp:382] ip1 -> ip1
I0428 20:08:31.310425 31400 net.cpp:124] Setting up ip1
I0428 20:08:31.310434 31400 net.cpp:131] Top shape: 64 50 (3200)
I0428 20:08:31.310439 31400 net.cpp:139] Memory required for data: 5026560
I0428 20:08:31.310451 31400 layer_factory.hpp:77] Creating layer relu1
I0428 20:08:31.310461 31400 net.cpp:86] Creating Layer relu1
I0428 20:08:31.310467 31400 net.cpp:408] relu1 <- ip1
I0428 20:08:31.310475 31400 net.cpp:369] relu1 -> ip1 (in-place)
I0428 20:08:31.310657 31400 net.cpp:124] Setting up relu1
I0428 20:08:31.310665 31400 net.cpp:131] Top shape: 64 50 (3200)
I0428 20:08:31.310670 31400 net.cpp:139] Memory required for data: 5039360
I0428 20:08:31.310675 31400 layer_factory.hpp:77] Creating layer ip2
I0428 20:08:31.310686 31400 net.cpp:86] Creating Layer ip2
I0428 20:08:31.310691 31400 net.cpp:408] ip2 <- ip1
I0428 20:08:31.310699 31400 net.cpp:382] ip2 -> ip2
I0428 20:08:31.310801 31400 net.cpp:124] Setting up ip2
I0428 20:08:31.310809 31400 net.cpp:131] Top shape: 64 10 (640)
I0428 20:08:31.310813 31400 net.cpp:139] Memory required for data: 5041920
I0428 20:08:31.310822 31400 layer_factory.hpp:77] Creating layer relu2
I0428 20:08:31.310833 31400 net.cpp:86] Creating Layer relu2
I0428 20:08:31.310838 31400 net.cpp:408] relu2 <- ip2
I0428 20:08:31.310845 31400 net.cpp:369] relu2 -> ip2 (in-place)
I0428 20:08:31.311645 31400 net.cpp:124] Setting up relu2
I0428 20:08:31.311657 31400 net.cpp:131] Top shape: 64 10 (640)
I0428 20:08:31.311662 31400 net.cpp:139] Memory required for data: 5044480
I0428 20:08:31.311668 31400 layer_factory.hpp:77] Creating layer ip3
I0428 20:08:31.311681 31400 net.cpp:86] Creating Layer ip3
I0428 20:08:31.311687 31400 net.cpp:408] ip3 <- ip2
I0428 20:08:31.311697 31400 net.cpp:382] ip3 -> ip3
I0428 20:08:31.311800 31400 net.cpp:124] Setting up ip3
I0428 20:08:31.311808 31400 net.cpp:131] Top shape: 64 10 (640)
I0428 20:08:31.311813 31400 net.cpp:139] Memory required for data: 5047040
I0428 20:08:31.311825 31400 layer_factory.hpp:77] Creating layer relu3
I0428 20:08:31.311835 31400 net.cpp:86] Creating Layer relu3
I0428 20:08:31.311841 31400 net.cpp:408] relu3 <- ip3
I0428 20:08:31.311846 31400 net.cpp:369] relu3 -> ip3 (in-place)
I0428 20:08:31.312034 31400 net.cpp:124] Setting up relu3
I0428 20:08:31.312044 31400 net.cpp:131] Top shape: 64 10 (640)
I0428 20:08:31.312049 31400 net.cpp:139] Memory required for data: 5049600
I0428 20:08:31.312055 31400 layer_factory.hpp:77] Creating layer loss
I0428 20:08:31.312063 31400 net.cpp:86] Creating Layer loss
I0428 20:08:31.312068 31400 net.cpp:408] loss <- ip3
I0428 20:08:31.312074 31400 net.cpp:408] loss <- label
I0428 20:08:31.312084 31400 net.cpp:382] loss -> loss
I0428 20:08:31.312103 31400 layer_factory.hpp:77] Creating layer loss
…
I0428 20:08:31.312950 31400 solver.cpp:173] Creating test net (#0) specified by net file: ECE595/mnist/train_test/var_everything2/lenet_train_test1085.prototxt
I0428 20:08:31.312985 31400 net.cpp:296] The NetState phase (1) differed from the phase (0) specified by a rule in layer mnist
I0428 20:08:31.313087 31400 net.cpp:53] Initializing net from parameters: 
name: "LeNet"
state {
  phase: TEST
}
layer {
  name: "mnist"
  type: "Data"
  top: "data"
  top: "label"
  include {
    phase: TEST
  }
  transform_param {
    scale: 0.00390625
  }
  data_param {
    source: "examples/mnist/mnist_test_lmdb"
    batch_size: 100
    backend: LMDB
  }
}
layer {
  name: "conv0"
  type: "Convolution"
  bottom: "data"
  top: "conv0"
  param {
    lr_mult: 1
  }
  param {
    lr_mult: 2
  }
  convolution_param {
    num_output: 25
    kernel_size: 5
    stride: 1
    weight_filler {
      type: "xavier"
    }
    bias_filler {
      type: "constant"
    }
  }
}
layer {
  name: "pool0"
  type: "Pooling"
  bottom: "conv0"
  top: "pool0"
  pooling_param {
    pool: MAX
    kernel_size: 2
    stride: 2
  }
}
layer {
  name: "conv1"
  type: "Convolution"
  bottom: "pool0"
  top: "conv1"
  param {
    lr_mult: 1
  }
  param {
    lr_mult: 2
  }
  convolution_param {
    num_output: 10
    kernel_size: 5
    stride: 1
    weight_filler {
      type: "xavier"
    }
    bias_filler {
      type: "constant"
    }
  }
}
layer {
  name: "pool1"
  type: "Pooling"
  bottom: "conv1"
  top: "pool1"
  pooling_param {
    pool: MAX
    kernel_size: 2
    stride: 2
  }
}
layer {
  name: "ip1"
  type: "InnerProduct"
  bottom: "pool1"
  top: "ip1"
  param {
    lr_mult: 1
  }
  param {
    lr_mult: 2
  }
  inner_product_param {
    num_output: 50
    weight_filler {
      type: "xavier"
    }
    bias_filler {
      type: "constant"
    }
  }
}
layer {
  name: "relu1"
  type: "ReLU"
  bottom: "ip1"
  top: "ip1"
}
layer {
  name: "ip2"
  type: "InnerProduct"
  bottom: "ip1"
  top: "ip2"
  param {
    lr_mult: 1
  }
  param {
    lr_mult: 2
  }
  inner_product_param {
    num_output: 10
    weight_filler {
      type: "xavier"
    }
    bias_filler {
      type: "constant"
    }
  }
}
layer {
  name: "relu2"
  type: "ReLU"
  bottom: "ip2"
  top: "ip2"
}
layer {
  name: "ip3"
  type: "InnerProduct"
  bottom: "ip2"
  top: "ip3"
  param {
    lr_mult: 1
  }
  param {
    lr_mult: 2
  }
  inner_product_param {
    num_output: 10
    weight_filler {
      type: "xavier"
    }
    bias_filler {
      type: "constant"
    }
  }
}
layer {
  name: "relu3"
  type: "ReLU"
  bottom: "ip3"
  top: "ip3"
}
layer {
  name: "accuracy"
  type: "Accuracy"
  bottom: "ip3"
  bottom: "label"
  top: "accuracy"
  include {
    phase: TEST
  }
}
layer {
  name: "loss"
  type: "SoftmaxWithLoss"
  bottom: "ip3"
  bottom: "label"
  top: "loss"
}
I0428 20:08:31.313243 31400 layer_factory.hpp:77] Creating layer mnist
I0428 20:08:31.313333 31400 db_lmdb.cpp:35] Opened lmdb examples/mnist/mnist_test_lmdb
I0428 20:08:31.313350 31400 net.cpp:86] Creating Layer mnist
I0428 20:08:31.313357 31400 net.cpp:382] mnist -> data
I0428 20:08:31.313369 31400 net.cpp:382] mnist -> label
I0428 20:08:31.313506 31400 data_layer.cpp:45] output data size: 100,1,28,28
I0428 20:08:31.315681 31400 net.cpp:124] Setting up mnist
I0428 20:08:31.315712 31400 net.cpp:131] Top shape: 100 1 28 28 (78400)
I0428 20:08:31.315722 31400 net.cpp:131] Top shape: 100 (100)
I0428 20:08:31.315727 31400 net.cpp:139] Memory required for data: 314000
I0428 20:08:31.315733 31400 layer_factory.hpp:77] Creating layer label_mnist_1_split
I0428 20:08:31.315757 31400 net.cpp:86] Creating Layer label_mnist_1_split
I0428 20:08:31.315763 31400 net.cpp:408] label_mnist_1_split <- label
I0428 20:08:31.315770 31400 net.cpp:382] label_mnist_1_split -> label_mnist_1_split_0
I0428 20:08:31.315781 31400 net.cpp:382] label_mnist_1_split -> label_mnist_1_split_1
I0428 20:08:31.315891 31400 net.cpp:124] Setting up label_mnist_1_split
I0428 20:08:31.315901 31400 net.cpp:131] Top shape: 100 (100)
I0428 20:08:31.315908 31400 net.cpp:131] Top shape: 100 (100)
I0428 20:08:31.315913 31400 net.cpp:139] Memory required for data: 314800
I0428 20:08:31.315918 31400 layer_factory.hpp:77] Creating layer conv0
I0428 20:08:31.315933 31400 net.cpp:86] Creating Layer conv0
I0428 20:08:31.315940 31400 net.cpp:408] conv0 <- data
I0428 20:08:31.315953 31400 net.cpp:382] conv0 -> conv0
I0428 20:08:31.317634 31400 net.cpp:124] Setting up conv0
I0428 20:08:31.317651 31400 net.cpp:131] Top shape: 100 25 24 24 (1440000)
I0428 20:08:31.317656 31400 net.cpp:139] Memory required for data: 6074800
I0428 20:08:31.317669 31400 layer_factory.hpp:77] Creating layer pool0
I0428 20:08:31.317680 31400 net.cpp:86] Creating Layer pool0
I0428 20:08:31.317687 31400 net.cpp:408] pool0 <- conv0
I0428 20:08:31.317694 31400 net.cpp:382] pool0 -> pool0
I0428 20:08:31.317737 31400 net.cpp:124] Setting up pool0
I0428 20:08:31.317745 31400 net.cpp:131] Top shape: 100 25 12 12 (360000)
I0428 20:08:31.317750 31400 net.cpp:139] Memory required for data: 7514800
I0428 20:08:31.317755 31400 layer_factory.hpp:77] Creating layer conv1
I0428 20:08:31.317770 31400 net.cpp:86] Creating Layer conv1
I0428 20:08:31.317775 31400 net.cpp:408] conv1 <- pool0
I0428 20:08:31.317785 31400 net.cpp:382] conv1 -> conv1
I0428 20:08:31.320003 31400 net.cpp:124] Setting up conv1
I0428 20:08:31.320039 31400 net.cpp:131] Top shape: 100 10 8 8 (64000)
I0428 20:08:31.320046 31400 net.cpp:139] Memory required for data: 7770800
I0428 20:08:31.320060 31400 layer_factory.hpp:77] Creating layer pool1
I0428 20:08:31.320072 31400 net.cpp:86] Creating Layer pool1
I0428 20:08:31.320089 31400 net.cpp:408] pool1 <- conv1
I0428 20:08:31.320099 31400 net.cpp:382] pool1 -> pool1
I0428 20:08:31.320145 31400 net.cpp:124] Setting up pool1
I0428 20:08:31.320154 31400 net.cpp:131] Top shape: 100 10 4 4 (16000)
I0428 20:08:31.320166 31400 net.cpp:139] Memory required for data: 7834800
I0428 20:08:31.320173 31400 layer_factory.hpp:77] Creating layer ip1
I0428 20:08:31.320195 31400 net.cpp:86] Creating Layer ip1
I0428 20:08:31.320201 31400 net.cpp:408] ip1 <- pool1
I0428 20:08:31.320209 31400 net.cpp:382] ip1 -> ip1
I0428 20:08:31.320406 31400 net.cpp:124] Setting up ip1
I0428 20:08:31.320415 31400 net.cpp:131] Top shape: 100 50 (5000)
I0428 20:08:31.320430 31400 net.cpp:139] Memory required for data: 7854800
I0428 20:08:31.320442 31400 layer_factory.hpp:77] Creating layer relu1
I0428 20:08:31.320453 31400 net.cpp:86] Creating Layer relu1
I0428 20:08:31.320461 31400 net.cpp:408] relu1 <- ip1
I0428 20:08:31.320468 31400 net.cpp:369] relu1 -> ip1 (in-place)
I0428 20:08:31.320636 31400 net.cpp:124] Setting up relu1
I0428 20:08:31.320646 31400 net.cpp:131] Top shape: 100 50 (5000)
I0428 20:08:31.320650 31400 net.cpp:139] Memory required for data: 7874800
I0428 20:08:31.320657 31400 layer_factory.hpp:77] Creating layer ip2
I0428 20:08:31.320669 31400 net.cpp:86] Creating Layer ip2
I0428 20:08:31.320677 31400 net.cpp:408] ip2 <- ip1
I0428 20:08:31.320686 31400 net.cpp:382] ip2 -> ip2
I0428 20:08:31.320847 31400 net.cpp:124] Setting up ip2
I0428 20:08:31.320857 31400 net.cpp:131] Top shape: 100 10 (1000)
I0428 20:08:31.320861 31400 net.cpp:139] Memory required for data: 7878800
I0428 20:08:31.320885 31400 layer_factory.hpp:77] Creating layer relu2
I0428 20:08:31.320894 31400 net.cpp:86] Creating Layer relu2
I0428 20:08:31.320899 31400 net.cpp:408] relu2 <- ip2
I0428 20:08:31.320905 31400 net.cpp:369] relu2 -> ip2 (in-place)
I0428 20:08:31.321141 31400 net.cpp:124] Setting up relu2
I0428 20:08:31.321151 31400 net.cpp:131] Top shape: 100 10 (1000)
I0428 20:08:31.321157 31400 net.cpp:139] Memory required for data: 7882800
I0428 20:08:31.321162 31400 layer_factory.hpp:77] Creating layer ip3
I0428 20:08:31.321172 31400 net.cpp:86] Creating Layer ip3
I0428 20:08:31.321192 31400 net.cpp:408] ip3 <- ip2
I0428 20:08:31.321202 31400 net.cpp:382] ip3 -> ip3
I0428 20:08:31.321349 31400 net.cpp:124] Setting up ip3
I0428 20:08:31.321359 31400 net.cpp:131] Top shape: 100 10 (1000)
I0428 20:08:31.321364 31400 net.cpp:139] Memory required for data: 7886800
I0428 20:08:31.321377 31400 layer_factory.hpp:77] Creating layer relu3
I0428 20:08:31.321386 31400 net.cpp:86] Creating Layer relu3
I0428 20:08:31.321393 31400 net.cpp:408] relu3 <- ip3
I0428 20:08:31.321403 31400 net.cpp:369] relu3 -> ip3 (in-place)
I0428 20:08:31.322136 31400 net.cpp:124] Setting up relu3
I0428 20:08:31.322150 31400 net.cpp:131] Top shape: 100 10 (1000)
I0428 20:08:31.322157 31400 net.cpp:139] Memory required for data: 7890800
I0428 20:08:31.322162 31400 layer_factory.hpp:77] Creating layer ip3_relu3_0_split
I0428 20:08:31.322170 31400 net.cpp:86] Creating Layer ip3_relu3_0_split
I0428 20:08:31.322175 31400 net.cpp:408] ip3_relu3_0_split <- ip3
I0428 20:08:31.322185 31400 net.cpp:382] ip3_relu3_0_split -> ip3_relu3_0_split_0
I0428 20:08:31.322194 31400 net.cpp:382] ip3_relu3_0_split -> ip3_relu3_0_split_1
I0428 20:08:31.322257 31400 net.cpp:124] Setting up ip3_relu3_0_split
I0428 20:08:31.322288 31400 net.cpp:131] Top shape: 100 10 (1000)
I0428 20:08:31.322294 31400 net.cpp:131] Top shape: 100 10 (1000)
I0428 20:08:31.322299 31400 net.cpp:139] Memory required for data: 7898800
I0428 20:08:31.322304 31400 layer_factory.hpp:77] Creating layer accuracy
I0428 20:08:31.322315 31400 net.cpp:86] Creating Layer accuracy
I0428 20:08:31.322320 31400 net.cpp:408] accuracy <- ip3_relu3_0_split_0
I0428 20:08:31.322327 31400 net.cpp:408] accuracy <- label_mnist_1_split_0
I0428 20:08:31.322336 31400 net.cpp:382] accuracy -> accuracy
…
