…
I0428 19:35:38.959722 23542 net.cpp:296] The NetState phase (0) differed from the phase (1) specified by a rule in layer mnist
I0428 19:35:38.959738 23542 net.cpp:296] The NetState phase (0) differed from the phase (1) specified by a rule in layer accuracy
I0428 19:35:38.959803 23542 net.cpp:53] Initializing net from parameters: 
name: "LeNet"
state {
  phase: TRAIN
  level: 0
  stage: ""
}
layer {
  name: "mnist"
  type: "Data"
  top: "data"
  top: "label"
  include {
    phase: TRAIN
  }
  transform_param {
    scale: 0.00390625
  }
  data_param {
    source: "examples/mnist/mnist_train_lmdb"
    batch_size: 64
    backend: LMDB
  }
}
layer {
  name: "conv0"
  type: "Convolution"
  bottom: "data"
  top: "conv0"
  param {
    lr_mult: 1
  }
  param {
    lr_mult: 2
  }
  convolution_param {
    num_output: 50
    kernel_size: 5
    stride: 1
    weight_filler {
      type: "xavier"
    }
    bias_filler {
      type: "constant"
    }
  }
}
layer {
  name: "pool0"
  type: "Pooling"
  bottom: "conv0"
  top: "pool0"
  pooling_param {
    pool: MAX
    kernel_size: 2
    stride: 2
  }
}
layer {
  name: "ip1"
  type: "InnerProduct"
  bottom: "pool0"
  top: "ip1"
  param {
    lr_mult: 1
  }
  param {
    lr_mult: 2
  }
  inner_product_param {
    num_output: 50
    weight_filler {
      type: "xavier"
    }
    bias_filler {
      type: "constant"
    }
  }
}
layer {
  name: "relu1"
  type: "ReLU"
  bottom: "ip1"
  top: "ip1"
}
layer {
  name: "ip2"
  type: "InnerProduct"
  bottom: "ip1"
  top: "ip2"
  param {
    lr_mult: 1
  }
  param {
    lr_mult: 2
  }
  inner_product_param {
    num_output: 25
    weight_filler {
      type: "xavier"
    }
    bias_filler {
      type: "constant"
    }
  }
}
layer {
  name: "relu2"
  type: "ReLU"
  bottom: "ip2"
  top: "ip2"
}
layer {
  name: "ip3"
  type: "InnerProduct"
  bottom: "ip2"
  top: "ip3"
  param {
    lr_mult: 1
  }
  param {
    lr_mult: 2
  }
  inner_product_param {
    num_output: 10
    weight_filler {
      type: "xavier"
    }
    bias_filler {
      type: "constant"
    }
  }
}
layer {
  name: "relu3"
  type: "ReLU"
  bottom: "ip3"
  top: "ip3"
}
layer {
  name: "loss"
  type: "SoftmaxWithLoss"
  bottom: "ip3"
  bottom: "label"
  top: "loss"
}
I0428 19:35:38.959862 23542 layer_factory.hpp:77] Creating layer mnist
I0428 19:35:38.959944 23542 db_lmdb.cpp:35] Opened lmdb examples/mnist/mnist_train_lmdb
I0428 19:35:38.959962 23542 net.cpp:86] Creating Layer mnist
I0428 19:35:38.959969 23542 net.cpp:382] mnist -> data
I0428 19:35:38.959986 23542 net.cpp:382] mnist -> label
I0428 19:35:38.960930 23542 data_layer.cpp:45] output data size: 64,1,28,28
I0428 19:35:38.963290 23542 net.cpp:124] Setting up mnist
I0428 19:35:38.963320 23542 net.cpp:131] Top shape: 64 1 28 28 (50176)
I0428 19:35:38.963325 23542 net.cpp:131] Top shape: 64 (64)
I0428 19:35:38.963328 23542 net.cpp:139] Memory required for data: 200960
I0428 19:35:38.963335 23542 layer_factory.hpp:77] Creating layer conv0
I0428 19:35:38.963379 23542 net.cpp:86] Creating Layer conv0
I0428 19:35:38.963384 23542 net.cpp:408] conv0 <- data
I0428 19:35:38.963394 23542 net.cpp:382] conv0 -> conv0
I0428 19:35:39.198891 23542 net.cpp:124] Setting up conv0
I0428 19:35:39.198933 23542 net.cpp:131] Top shape: 64 50 24 24 (1843200)
I0428 19:35:39.198937 23542 net.cpp:139] Memory required for data: 7573760
I0428 19:35:39.198952 23542 layer_factory.hpp:77] Creating layer pool0
I0428 19:35:39.198978 23542 net.cpp:86] Creating Layer pool0
I0428 19:35:39.199018 23542 net.cpp:408] pool0 <- conv0
I0428 19:35:39.199023 23542 net.cpp:382] pool0 -> pool0
I0428 19:35:39.199074 23542 net.cpp:124] Setting up pool0
I0428 19:35:39.199082 23542 net.cpp:131] Top shape: 64 50 12 12 (460800)
I0428 19:35:39.199086 23542 net.cpp:139] Memory required for data: 9416960
I0428 19:35:39.199090 23542 layer_factory.hpp:77] Creating layer ip1
I0428 19:35:39.199100 23542 net.cpp:86] Creating Layer ip1
I0428 19:35:39.199103 23542 net.cpp:408] ip1 <- pool0
I0428 19:35:39.199108 23542 net.cpp:382] ip1 -> ip1
I0428 19:35:39.202213 23542 net.cpp:124] Setting up ip1
I0428 19:35:39.202224 23542 net.cpp:131] Top shape: 64 50 (3200)
I0428 19:35:39.202244 23542 net.cpp:139] Memory required for data: 9429760
I0428 19:35:39.202251 23542 layer_factory.hpp:77] Creating layer relu1
I0428 19:35:39.202258 23542 net.cpp:86] Creating Layer relu1
I0428 19:35:39.202262 23542 net.cpp:408] relu1 <- ip1
I0428 19:35:39.202266 23542 net.cpp:369] relu1 -> ip1 (in-place)
I0428 19:35:39.202446 23542 net.cpp:124] Setting up relu1
I0428 19:35:39.202456 23542 net.cpp:131] Top shape: 64 50 (3200)
I0428 19:35:39.202460 23542 net.cpp:139] Memory required for data: 9442560
I0428 19:35:39.202463 23542 layer_factory.hpp:77] Creating layer ip2
I0428 19:35:39.202469 23542 net.cpp:86] Creating Layer ip2
I0428 19:35:39.202472 23542 net.cpp:408] ip2 <- ip1
I0428 19:35:39.202477 23542 net.cpp:382] ip2 -> ip2
I0428 19:35:39.202590 23542 net.cpp:124] Setting up ip2
I0428 19:35:39.202597 23542 net.cpp:131] Top shape: 64 25 (1600)
I0428 19:35:39.202600 23542 net.cpp:139] Memory required for data: 9448960
I0428 19:35:39.202607 23542 layer_factory.hpp:77] Creating layer relu2
I0428 19:35:39.202612 23542 net.cpp:86] Creating Layer relu2
I0428 19:35:39.202615 23542 net.cpp:408] relu2 <- ip2
I0428 19:35:39.202620 23542 net.cpp:369] relu2 -> ip2 (in-place)
I0428 19:35:39.203383 23542 net.cpp:124] Setting up relu2
I0428 19:35:39.203397 23542 net.cpp:131] Top shape: 64 25 (1600)
I0428 19:35:39.203416 23542 net.cpp:139] Memory required for data: 9455360
I0428 19:35:39.203420 23542 layer_factory.hpp:77] Creating layer ip3
I0428 19:35:39.203428 23542 net.cpp:86] Creating Layer ip3
I0428 19:35:39.203431 23542 net.cpp:408] ip3 <- ip2
I0428 19:35:39.203438 23542 net.cpp:382] ip3 -> ip3
I0428 19:35:39.203536 23542 net.cpp:124] Setting up ip3
I0428 19:35:39.203543 23542 net.cpp:131] Top shape: 64 10 (640)
I0428 19:35:39.203547 23542 net.cpp:139] Memory required for data: 9457920
I0428 19:35:39.203552 23542 layer_factory.hpp:77] Creating layer relu3
I0428 19:35:39.203559 23542 net.cpp:86] Creating Layer relu3
I0428 19:35:39.203562 23542 net.cpp:408] relu3 <- ip3
I0428 19:35:39.203567 23542 net.cpp:369] relu3 -> ip3 (in-place)
I0428 19:35:39.203734 23542 net.cpp:124] Setting up relu3
I0428 19:35:39.203742 23542 net.cpp:131] Top shape: 64 10 (640)
I0428 19:35:39.203745 23542 net.cpp:139] Memory required for data: 9460480
I0428 19:35:39.203748 23542 layer_factory.hpp:77] Creating layer loss
I0428 19:35:39.203754 23542 net.cpp:86] Creating Layer loss
I0428 19:35:39.203758 23542 net.cpp:408] loss <- ip3
I0428 19:35:39.203761 23542 net.cpp:408] loss <- label
I0428 19:35:39.203766 23542 net.cpp:382] loss -> loss
I0428 19:35:39.203783 23542 layer_factory.hpp:77] Creating layer loss
…
I0428 19:35:39.204377 23542 solver.cpp:173] Creating test net (#0) specified by net file: ECE595/mnist/train_test/var_everything2/lenet_train_test229.prototxt
I0428 19:35:39.204404 23542 net.cpp:296] The NetState phase (1) differed from the phase (0) specified by a rule in layer mnist
I0428 19:35:39.204485 23542 net.cpp:53] Initializing net from parameters: 
name: "LeNet"
state {
  phase: TEST
}
layer {
  name: "mnist"
  type: "Data"
  top: "data"
  top: "label"
  include {
    phase: TEST
  }
  transform_param {
    scale: 0.00390625
  }
  data_param {
    source: "examples/mnist/mnist_test_lmdb"
    batch_size: 100
    backend: LMDB
  }
}
layer {
  name: "conv0"
  type: "Convolution"
  bottom: "data"
  top: "conv0"
  param {
    lr_mult: 1
  }
  param {
    lr_mult: 2
  }
  convolution_param {
    num_output: 50
    kernel_size: 5
    stride: 1
    weight_filler {
      type: "xavier"
    }
    bias_filler {
      type: "constant"
    }
  }
}
layer {
  name: "pool0"
  type: "Pooling"
  bottom: "conv0"
  top: "pool0"
  pooling_param {
    pool: MAX
    kernel_size: 2
    stride: 2
  }
}
layer {
  name: "ip1"
  type: "InnerProduct"
  bottom: "pool0"
  top: "ip1"
  param {
    lr_mult: 1
  }
  param {
    lr_mult: 2
  }
  inner_product_param {
    num_output: 50
    weight_filler {
      type: "xavier"
    }
    bias_filler {
      type: "constant"
    }
  }
}
layer {
  name: "relu1"
  type: "ReLU"
  bottom: "ip1"
  top: "ip1"
}
layer {
  name: "ip2"
  type: "InnerProduct"
  bottom: "ip1"
  top: "ip2"
  param {
    lr_mult: 1
  }
  param {
    lr_mult: 2
  }
  inner_product_param {
    num_output: 25
    weight_filler {
      type: "xavier"
    }
    bias_filler {
      type: "constant"
    }
  }
}
layer {
  name: "relu2"
  type: "ReLU"
  bottom: "ip2"
  top: "ip2"
}
layer {
  name: "ip3"
  type: "InnerProduct"
  bottom: "ip2"
  top: "ip3"
  param {
    lr_mult: 1
  }
  param {
    lr_mult: 2
  }
  inner_product_param {
    num_output: 10
    weight_filler {
      type: "xavier"
    }
    bias_filler {
      type: "constant"
    }
  }
}
layer {
  name: "relu3"
  type: "ReLU"
  bottom: "ip3"
  top: "ip3"
}
layer {
  name: "accuracy"
  type: "Accuracy"
  bottom: "ip3"
  bottom: "label"
  top: "accuracy"
  include {
    phase: TEST
  }
}
layer {
  name: "loss"
  type: "SoftmaxWithLoss"
  bottom: "ip3"
  bottom: "label"
  top: "loss"
}
I0428 19:35:39.204548 23542 layer_factory.hpp:77] Creating layer mnist
I0428 19:35:39.204593 23542 db_lmdb.cpp:35] Opened lmdb examples/mnist/mnist_test_lmdb
I0428 19:35:39.204605 23542 net.cpp:86] Creating Layer mnist
I0428 19:35:39.204624 23542 net.cpp:382] mnist -> data
I0428 19:35:39.204632 23542 net.cpp:382] mnist -> label
I0428 19:35:39.204722 23542 data_layer.cpp:45] output data size: 100,1,28,28
I0428 19:35:39.206867 23542 net.cpp:124] Setting up mnist
I0428 19:35:39.206897 23542 net.cpp:131] Top shape: 100 1 28 28 (78400)
I0428 19:35:39.206902 23542 net.cpp:131] Top shape: 100 (100)
I0428 19:35:39.206907 23542 net.cpp:139] Memory required for data: 314000
I0428 19:35:39.206910 23542 layer_factory.hpp:77] Creating layer label_mnist_1_split
I0428 19:35:39.206943 23542 net.cpp:86] Creating Layer label_mnist_1_split
I0428 19:35:39.206948 23542 net.cpp:408] label_mnist_1_split <- label
I0428 19:35:39.206953 23542 net.cpp:382] label_mnist_1_split -> label_mnist_1_split_0
I0428 19:35:39.206959 23542 net.cpp:382] label_mnist_1_split -> label_mnist_1_split_1
I0428 19:35:39.207003 23542 net.cpp:124] Setting up label_mnist_1_split
I0428 19:35:39.207010 23542 net.cpp:131] Top shape: 100 (100)
I0428 19:35:39.207013 23542 net.cpp:131] Top shape: 100 (100)
I0428 19:35:39.207016 23542 net.cpp:139] Memory required for data: 314800
I0428 19:35:39.207029 23542 layer_factory.hpp:77] Creating layer conv0
I0428 19:35:39.207038 23542 net.cpp:86] Creating Layer conv0
I0428 19:35:39.207042 23542 net.cpp:408] conv0 <- data
I0428 19:35:39.207047 23542 net.cpp:382] conv0 -> conv0
I0428 19:35:39.208806 23542 net.cpp:124] Setting up conv0
I0428 19:35:39.208842 23542 net.cpp:131] Top shape: 100 50 24 24 (2880000)
I0428 19:35:39.208845 23542 net.cpp:139] Memory required for data: 11834800
I0428 19:35:39.208855 23542 layer_factory.hpp:77] Creating layer pool0
I0428 19:35:39.208861 23542 net.cpp:86] Creating Layer pool0
I0428 19:35:39.208865 23542 net.cpp:408] pool0 <- conv0
I0428 19:35:39.208885 23542 net.cpp:382] pool0 -> pool0
I0428 19:35:39.208940 23542 net.cpp:124] Setting up pool0
I0428 19:35:39.208945 23542 net.cpp:131] Top shape: 100 50 12 12 (720000)
I0428 19:35:39.208948 23542 net.cpp:139] Memory required for data: 14714800
I0428 19:35:39.208951 23542 layer_factory.hpp:77] Creating layer ip1
I0428 19:35:39.208958 23542 net.cpp:86] Creating Layer ip1
I0428 19:35:39.208962 23542 net.cpp:408] ip1 <- pool0
I0428 19:35:39.208967 23542 net.cpp:382] ip1 -> ip1
I0428 19:35:39.211192 23542 net.cpp:124] Setting up ip1
I0428 19:35:39.211200 23542 net.cpp:131] Top shape: 100 50 (5000)
I0428 19:35:39.211203 23542 net.cpp:139] Memory required for data: 14734800
I0428 19:35:39.211210 23542 layer_factory.hpp:77] Creating layer relu1
I0428 19:35:39.211215 23542 net.cpp:86] Creating Layer relu1
I0428 19:35:39.211218 23542 net.cpp:408] relu1 <- ip1
I0428 19:35:39.211221 23542 net.cpp:369] relu1 -> ip1 (in-place)
I0428 19:35:39.211405 23542 net.cpp:124] Setting up relu1
I0428 19:35:39.211414 23542 net.cpp:131] Top shape: 100 50 (5000)
I0428 19:35:39.211417 23542 net.cpp:139] Memory required for data: 14754800
I0428 19:35:39.211422 23542 layer_factory.hpp:77] Creating layer ip2
I0428 19:35:39.211427 23542 net.cpp:86] Creating Layer ip2
I0428 19:35:39.211431 23542 net.cpp:408] ip2 <- ip1
I0428 19:35:39.211436 23542 net.cpp:382] ip2 -> ip2
I0428 19:35:39.211539 23542 net.cpp:124] Setting up ip2
I0428 19:35:39.211546 23542 net.cpp:131] Top shape: 100 25 (2500)
I0428 19:35:39.211550 23542 net.cpp:139] Memory required for data: 14764800
I0428 19:35:39.211557 23542 layer_factory.hpp:77] Creating layer relu2
I0428 19:35:39.211561 23542 net.cpp:86] Creating Layer relu2
I0428 19:35:39.211565 23542 net.cpp:408] relu2 <- ip2
I0428 19:35:39.211570 23542 net.cpp:369] relu2 -> ip2 (in-place)
I0428 19:35:39.212414 23542 net.cpp:124] Setting up relu2
I0428 19:35:39.212427 23542 net.cpp:131] Top shape: 100 25 (2500)
I0428 19:35:39.212430 23542 net.cpp:139] Memory required for data: 14774800
I0428 19:35:39.212435 23542 layer_factory.hpp:77] Creating layer ip3
I0428 19:35:39.212442 23542 net.cpp:86] Creating Layer ip3
I0428 19:35:39.212447 23542 net.cpp:408] ip3 <- ip2
I0428 19:35:39.212460 23542 net.cpp:382] ip3 -> ip3
I0428 19:35:39.212574 23542 net.cpp:124] Setting up ip3
I0428 19:35:39.212581 23542 net.cpp:131] Top shape: 100 10 (1000)
I0428 19:35:39.212585 23542 net.cpp:139] Memory required for data: 14778800
I0428 19:35:39.212590 23542 layer_factory.hpp:77] Creating layer relu3
I0428 19:35:39.212601 23542 net.cpp:86] Creating Layer relu3
I0428 19:35:39.212605 23542 net.cpp:408] relu3 <- ip3
I0428 19:35:39.212610 23542 net.cpp:369] relu3 -> ip3 (in-place)
I0428 19:35:39.212774 23542 net.cpp:124] Setting up relu3
I0428 19:35:39.212782 23542 net.cpp:131] Top shape: 100 10 (1000)
I0428 19:35:39.212791 23542 net.cpp:139] Memory required for data: 14782800
I0428 19:35:39.212795 23542 layer_factory.hpp:77] Creating layer ip3_relu3_0_split
I0428 19:35:39.212800 23542 net.cpp:86] Creating Layer ip3_relu3_0_split
I0428 19:35:39.212803 23542 net.cpp:408] ip3_relu3_0_split <- ip3
I0428 19:35:39.212808 23542 net.cpp:382] ip3_relu3_0_split -> ip3_relu3_0_split_0
I0428 19:35:39.212836 23542 net.cpp:382] ip3_relu3_0_split -> ip3_relu3_0_split_1
I0428 19:35:39.212888 23542 net.cpp:124] Setting up ip3_relu3_0_split
I0428 19:35:39.212894 23542 net.cpp:131] Top shape: 100 10 (1000)
I0428 19:35:39.212924 23542 net.cpp:131] Top shape: 100 10 (1000)
I0428 19:35:39.212927 23542 net.cpp:139] Memory required for data: 14790800
I0428 19:35:39.212930 23542 layer_factory.hpp:77] Creating layer accuracy
I0428 19:35:39.212936 23542 net.cpp:86] Creating Layer accuracy
I0428 19:35:39.212944 23542 net.cpp:408] accuracy <- ip3_relu3_0_split_0
I0428 19:35:39.212949 23542 net.cpp:408] accuracy <- label_mnist_1_split_0
I0428 19:35:39.212960 23542 net.cpp:382] accuracy -> accuracy
…
