…
I0428 19:34:41.680528 23373 net.cpp:296] The NetState phase (0) differed from the phase (1) specified by a rule in layer mnist
I0428 19:34:41.680544 23373 net.cpp:296] The NetState phase (0) differed from the phase (1) specified by a rule in layer accuracy
I0428 19:34:41.680632 23373 net.cpp:53] Initializing net from parameters: 
name: "LeNet"
state {
  phase: TRAIN
  level: 0
  stage: ""
}
layer {
  name: "mnist"
  type: "Data"
  top: "data"
  top: "label"
  include {
    phase: TRAIN
  }
  transform_param {
    scale: 0.00390625
  }
  data_param {
    source: "examples/mnist/mnist_train_lmdb"
    batch_size: 64
    backend: LMDB
  }
}
layer {
  name: "conv0"
  type: "Convolution"
  bottom: "data"
  top: "conv0"
  param {
    lr_mult: 1
  }
  param {
    lr_mult: 2
  }
  convolution_param {
    num_output: 50
    kernel_size: 5
    stride: 1
    weight_filler {
      type: "xavier"
    }
    bias_filler {
      type: "constant"
    }
  }
}
layer {
  name: "pool0"
  type: "Pooling"
  bottom: "conv0"
  top: "pool0"
  pooling_param {
    pool: MAX
    kernel_size: 2
    stride: 2
  }
}
layer {
  name: "ip1"
  type: "InnerProduct"
  bottom: "pool0"
  top: "ip1"
  param {
    lr_mult: 1
  }
  param {
    lr_mult: 2
  }
  inner_product_param {
    num_output: 10
    weight_filler {
      type: "xavier"
    }
    bias_filler {
      type: "constant"
    }
  }
}
layer {
  name: "relu1"
  type: "ReLU"
  bottom: "ip1"
  top: "ip1"
}
layer {
  name: "ip2"
  type: "InnerProduct"
  bottom: "ip1"
  top: "ip2"
  param {
    lr_mult: 1
  }
  param {
    lr_mult: 2
  }
  inner_product_param {
    num_output: 10
    weight_filler {
      type: "xavier"
    }
    bias_filler {
      type: "constant"
    }
  }
}
layer {
  name: "relu2"
  type: "ReLU"
  bottom: "ip2"
  top: "ip2"
}
layer {
  name: "ip3"
  type: "InnerProduct"
  bottom: "ip2"
  top: "ip3"
  param {
    lr_mult: 1
  }
  param {
    lr_mult: 2
  }
  inner_product_param {
    num_output: 10
    weight_filler {
      type: "xavier"
    }
    bias_filler {
      type: "constant"
    }
  }
}
layer {
  name: "relu3"
  type: "ReLU"
  bottom: "ip3"
  top: "ip3"
}
layer {
  name: "loss"
  type: "SoftmaxWithLoss"
  bottom: "ip3"
  bottom: "label"
  top: "loss"
}
I0428 19:34:41.680707 23373 layer_factory.hpp:77] Creating layer mnist
I0428 19:34:41.680809 23373 db_lmdb.cpp:35] Opened lmdb examples/mnist/mnist_train_lmdb
I0428 19:34:41.680850 23373 net.cpp:86] Creating Layer mnist
I0428 19:34:41.680861 23373 net.cpp:382] mnist -> data
I0428 19:34:41.680891 23373 net.cpp:382] mnist -> label
I0428 19:34:41.681988 23373 data_layer.cpp:45] output data size: 64,1,28,28
I0428 19:34:41.684438 23373 net.cpp:124] Setting up mnist
I0428 19:34:41.684456 23373 net.cpp:131] Top shape: 64 1 28 28 (50176)
I0428 19:34:41.684464 23373 net.cpp:131] Top shape: 64 (64)
I0428 19:34:41.684468 23373 net.cpp:139] Memory required for data: 200960
I0428 19:34:41.684474 23373 layer_factory.hpp:77] Creating layer conv0
I0428 19:34:41.684490 23373 net.cpp:86] Creating Layer conv0
I0428 19:34:41.684496 23373 net.cpp:408] conv0 <- data
I0428 19:34:41.684509 23373 net.cpp:382] conv0 -> conv0
I0428 19:34:41.976176 23373 net.cpp:124] Setting up conv0
I0428 19:34:41.976207 23373 net.cpp:131] Top shape: 64 50 24 24 (1843200)
I0428 19:34:41.976212 23373 net.cpp:139] Memory required for data: 7573760
I0428 19:34:41.976231 23373 layer_factory.hpp:77] Creating layer pool0
I0428 19:34:41.976245 23373 net.cpp:86] Creating Layer pool0
I0428 19:34:41.976274 23373 net.cpp:408] pool0 <- conv0
I0428 19:34:41.976280 23373 net.cpp:382] pool0 -> pool0
I0428 19:34:41.976336 23373 net.cpp:124] Setting up pool0
I0428 19:34:41.976346 23373 net.cpp:131] Top shape: 64 50 12 12 (460800)
I0428 19:34:41.976351 23373 net.cpp:139] Memory required for data: 9416960
I0428 19:34:41.976354 23373 layer_factory.hpp:77] Creating layer ip1
I0428 19:34:41.976363 23373 net.cpp:86] Creating Layer ip1
I0428 19:34:41.976366 23373 net.cpp:408] ip1 <- pool0
I0428 19:34:41.976372 23373 net.cpp:382] ip1 -> ip1
I0428 19:34:41.977942 23373 net.cpp:124] Setting up ip1
I0428 19:34:41.977958 23373 net.cpp:131] Top shape: 64 10 (640)
I0428 19:34:41.977962 23373 net.cpp:139] Memory required for data: 9419520
I0428 19:34:41.977972 23373 layer_factory.hpp:77] Creating layer relu1
I0428 19:34:41.977980 23373 net.cpp:86] Creating Layer relu1
I0428 19:34:41.977984 23373 net.cpp:408] relu1 <- ip1
I0428 19:34:41.977990 23373 net.cpp:369] relu1 -> ip1 (in-place)
I0428 19:34:41.978193 23373 net.cpp:124] Setting up relu1
I0428 19:34:41.978204 23373 net.cpp:131] Top shape: 64 10 (640)
I0428 19:34:41.978207 23373 net.cpp:139] Memory required for data: 9422080
I0428 19:34:41.978211 23373 layer_factory.hpp:77] Creating layer ip2
I0428 19:34:41.978219 23373 net.cpp:86] Creating Layer ip2
I0428 19:34:41.978224 23373 net.cpp:408] ip2 <- ip1
I0428 19:34:41.978229 23373 net.cpp:382] ip2 -> ip2
I0428 19:34:41.978335 23373 net.cpp:124] Setting up ip2
I0428 19:34:41.978343 23373 net.cpp:131] Top shape: 64 10 (640)
I0428 19:34:41.978348 23373 net.cpp:139] Memory required for data: 9424640
I0428 19:34:41.978356 23373 layer_factory.hpp:77] Creating layer relu2
I0428 19:34:41.978361 23373 net.cpp:86] Creating Layer relu2
I0428 19:34:41.978365 23373 net.cpp:408] relu2 <- ip2
I0428 19:34:41.978370 23373 net.cpp:369] relu2 -> ip2 (in-place)
I0428 19:34:41.979221 23373 net.cpp:124] Setting up relu2
I0428 19:34:41.979236 23373 net.cpp:131] Top shape: 64 10 (640)
I0428 19:34:41.979240 23373 net.cpp:139] Memory required for data: 9427200
I0428 19:34:41.979245 23373 layer_factory.hpp:77] Creating layer ip3
I0428 19:34:41.979254 23373 net.cpp:86] Creating Layer ip3
I0428 19:34:41.979257 23373 net.cpp:408] ip3 <- ip2
I0428 19:34:41.979264 23373 net.cpp:382] ip3 -> ip3
I0428 19:34:41.979377 23373 net.cpp:124] Setting up ip3
I0428 19:34:41.979384 23373 net.cpp:131] Top shape: 64 10 (640)
I0428 19:34:41.979387 23373 net.cpp:139] Memory required for data: 9429760
I0428 19:34:41.979394 23373 layer_factory.hpp:77] Creating layer relu3
I0428 19:34:41.979401 23373 net.cpp:86] Creating Layer relu3
I0428 19:34:41.979405 23373 net.cpp:408] relu3 <- ip3
I0428 19:34:41.979410 23373 net.cpp:369] relu3 -> ip3 (in-place)
I0428 19:34:41.979589 23373 net.cpp:124] Setting up relu3
I0428 19:34:41.979598 23373 net.cpp:131] Top shape: 64 10 (640)
I0428 19:34:41.979601 23373 net.cpp:139] Memory required for data: 9432320
I0428 19:34:41.979605 23373 layer_factory.hpp:77] Creating layer loss
I0428 19:34:41.979611 23373 net.cpp:86] Creating Layer loss
I0428 19:34:41.979615 23373 net.cpp:408] loss <- ip3
I0428 19:34:41.979620 23373 net.cpp:408] loss <- label
I0428 19:34:41.979626 23373 net.cpp:382] loss -> loss
I0428 19:34:41.979646 23373 layer_factory.hpp:77] Creating layer loss
…
I0428 19:34:41.980341 23373 solver.cpp:173] Creating test net (#0) specified by net file: ECE595/mnist/train_test/var_everything2/lenet_train_test209.prototxt
I0428 19:34:41.980370 23373 net.cpp:296] The NetState phase (1) differed from the phase (0) specified by a rule in layer mnist
I0428 19:34:41.980464 23373 net.cpp:53] Initializing net from parameters: 
name: "LeNet"
state {
  phase: TEST
}
layer {
  name: "mnist"
  type: "Data"
  top: "data"
  top: "label"
  include {
    phase: TEST
  }
  transform_param {
    scale: 0.00390625
  }
  data_param {
    source: "examples/mnist/mnist_test_lmdb"
    batch_size: 100
    backend: LMDB
  }
}
layer {
  name: "conv0"
  type: "Convolution"
  bottom: "data"
  top: "conv0"
  param {
    lr_mult: 1
  }
  param {
    lr_mult: 2
  }
  convolution_param {
    num_output: 50
    kernel_size: 5
    stride: 1
    weight_filler {
      type: "xavier"
    }
    bias_filler {
      type: "constant"
    }
  }
}
layer {
  name: "pool0"
  type: "Pooling"
  bottom: "conv0"
  top: "pool0"
  pooling_param {
    pool: MAX
    kernel_size: 2
    stride: 2
  }
}
layer {
  name: "ip1"
  type: "InnerProduct"
  bottom: "pool0"
  top: "ip1"
  param {
    lr_mult: 1
  }
  param {
    lr_mult: 2
  }
  inner_product_param {
    num_output: 10
    weight_filler {
      type: "xavier"
    }
    bias_filler {
      type: "constant"
    }
  }
}
layer {
  name: "relu1"
  type: "ReLU"
  bottom: "ip1"
  top: "ip1"
}
layer {
  name: "ip2"
  type: "InnerProduct"
  bottom: "ip1"
  top: "ip2"
  param {
    lr_mult: 1
  }
  param {
    lr_mult: 2
  }
  inner_product_param {
    num_output: 10
    weight_filler {
      type: "xavier"
    }
    bias_filler {
      type: "constant"
    }
  }
}
layer {
  name: "relu2"
  type: "ReLU"
  bottom: "ip2"
  top: "ip2"
}
layer {
  name: "ip3"
  type: "InnerProduct"
  bottom: "ip2"
  top: "ip3"
  param {
    lr_mult: 1
  }
  param {
    lr_mult: 2
  }
  inner_product_param {
    num_output: 10
    weight_filler {
      type: "xavier"
    }
    bias_filler {
      type: "constant"
    }
  }
}
layer {
  name: "relu3"
  type: "ReLU"
  bottom: "ip3"
  top: "ip3"
}
layer {
  name: "accuracy"
  type: "Accuracy"
  bottom: "ip3"
  bottom: "label"
  top: "accuracy"
  include {
    phase: TEST
  }
}
layer {
  name: "loss"
  type: "SoftmaxWithLoss"
  bottom: "ip3"
  bottom: "label"
  top: "loss"
}
I0428 19:34:41.980538 23373 layer_factory.hpp:77] Creating layer mnist
I0428 19:34:41.980592 23373 db_lmdb.cpp:35] Opened lmdb examples/mnist/mnist_test_lmdb
I0428 19:34:41.980607 23373 net.cpp:86] Creating Layer mnist
I0428 19:34:41.980612 23373 net.cpp:382] mnist -> data
I0428 19:34:41.980620 23373 net.cpp:382] mnist -> label
I0428 19:34:41.980720 23373 data_layer.cpp:45] output data size: 100,1,28,28
I0428 19:34:41.981966 23373 net.cpp:124] Setting up mnist
I0428 19:34:41.981981 23373 net.cpp:131] Top shape: 100 1 28 28 (78400)
I0428 19:34:41.981987 23373 net.cpp:131] Top shape: 100 (100)
I0428 19:34:41.981990 23373 net.cpp:139] Memory required for data: 314000
I0428 19:34:41.981995 23373 layer_factory.hpp:77] Creating layer label_mnist_1_split
I0428 19:34:41.982007 23373 net.cpp:86] Creating Layer label_mnist_1_split
I0428 19:34:41.982013 23373 net.cpp:408] label_mnist_1_split <- label
I0428 19:34:41.982019 23373 net.cpp:382] label_mnist_1_split -> label_mnist_1_split_0
I0428 19:34:41.982028 23373 net.cpp:382] label_mnist_1_split -> label_mnist_1_split_1
I0428 19:34:41.982132 23373 net.cpp:124] Setting up label_mnist_1_split
I0428 19:34:41.982141 23373 net.cpp:131] Top shape: 100 (100)
I0428 19:34:41.982146 23373 net.cpp:131] Top shape: 100 (100)
I0428 19:34:41.982149 23373 net.cpp:139] Memory required for data: 314800
I0428 19:34:41.982165 23373 layer_factory.hpp:77] Creating layer conv0
I0428 19:34:41.982177 23373 net.cpp:86] Creating Layer conv0
I0428 19:34:41.982180 23373 net.cpp:408] conv0 <- data
I0428 19:34:41.982187 23373 net.cpp:382] conv0 -> conv0
I0428 19:34:41.983937 23373 net.cpp:124] Setting up conv0
I0428 19:34:41.983953 23373 net.cpp:131] Top shape: 100 50 24 24 (2880000)
I0428 19:34:41.983958 23373 net.cpp:139] Memory required for data: 11834800
I0428 19:34:41.983968 23373 layer_factory.hpp:77] Creating layer pool0
I0428 19:34:41.983976 23373 net.cpp:86] Creating Layer pool0
I0428 19:34:41.983980 23373 net.cpp:408] pool0 <- conv0
I0428 19:34:41.983986 23373 net.cpp:382] pool0 -> pool0
I0428 19:34:41.984028 23373 net.cpp:124] Setting up pool0
I0428 19:34:41.984035 23373 net.cpp:131] Top shape: 100 50 12 12 (720000)
I0428 19:34:41.984038 23373 net.cpp:139] Memory required for data: 14714800
I0428 19:34:41.984041 23373 layer_factory.hpp:77] Creating layer ip1
I0428 19:34:41.984050 23373 net.cpp:86] Creating Layer ip1
I0428 19:34:41.984053 23373 net.cpp:408] ip1 <- pool0
I0428 19:34:41.984058 23373 net.cpp:382] ip1 -> ip1
I0428 19:34:41.984658 23373 net.cpp:124] Setting up ip1
I0428 19:34:41.984668 23373 net.cpp:131] Top shape: 100 10 (1000)
I0428 19:34:41.984673 23373 net.cpp:139] Memory required for data: 14718800
I0428 19:34:41.984681 23373 layer_factory.hpp:77] Creating layer relu1
I0428 19:34:41.984686 23373 net.cpp:86] Creating Layer relu1
I0428 19:34:41.984690 23373 net.cpp:408] relu1 <- ip1
I0428 19:34:41.984696 23373 net.cpp:369] relu1 -> ip1 (in-place)
I0428 19:34:41.984895 23373 net.cpp:124] Setting up relu1
I0428 19:34:41.984906 23373 net.cpp:131] Top shape: 100 10 (1000)
I0428 19:34:41.984911 23373 net.cpp:139] Memory required for data: 14722800
I0428 19:34:41.984915 23373 layer_factory.hpp:77] Creating layer ip2
I0428 19:34:41.984921 23373 net.cpp:86] Creating Layer ip2
I0428 19:34:41.984925 23373 net.cpp:408] ip2 <- ip1
I0428 19:34:41.984931 23373 net.cpp:382] ip2 -> ip2
I0428 19:34:41.985043 23373 net.cpp:124] Setting up ip2
I0428 19:34:41.985050 23373 net.cpp:131] Top shape: 100 10 (1000)
I0428 19:34:41.985054 23373 net.cpp:139] Memory required for data: 14726800
I0428 19:34:41.985062 23373 layer_factory.hpp:77] Creating layer relu2
I0428 19:34:41.985069 23373 net.cpp:86] Creating Layer relu2
I0428 19:34:41.985074 23373 net.cpp:408] relu2 <- ip2
I0428 19:34:41.985080 23373 net.cpp:369] relu2 -> ip2 (in-place)
I0428 19:34:41.985983 23373 net.cpp:124] Setting up relu2
I0428 19:34:41.985997 23373 net.cpp:131] Top shape: 100 10 (1000)
I0428 19:34:41.986002 23373 net.cpp:139] Memory required for data: 14730800
I0428 19:34:41.986006 23373 layer_factory.hpp:77] Creating layer ip3
I0428 19:34:41.986016 23373 net.cpp:86] Creating Layer ip3
I0428 19:34:41.986021 23373 net.cpp:408] ip3 <- ip2
I0428 19:34:41.986028 23373 net.cpp:382] ip3 -> ip3
I0428 19:34:41.986196 23373 net.cpp:124] Setting up ip3
I0428 19:34:41.986207 23373 net.cpp:131] Top shape: 100 10 (1000)
I0428 19:34:41.986210 23373 net.cpp:139] Memory required for data: 14734800
I0428 19:34:41.986217 23373 layer_factory.hpp:77] Creating layer relu3
I0428 19:34:41.986224 23373 net.cpp:86] Creating Layer relu3
I0428 19:34:41.986228 23373 net.cpp:408] relu3 <- ip3
I0428 19:34:41.986233 23373 net.cpp:369] relu3 -> ip3 (in-place)
I0428 19:34:41.986425 23373 net.cpp:124] Setting up relu3
I0428 19:34:41.986435 23373 net.cpp:131] Top shape: 100 10 (1000)
I0428 19:34:41.986439 23373 net.cpp:139] Memory required for data: 14738800
I0428 19:34:41.986443 23373 layer_factory.hpp:77] Creating layer ip3_relu3_0_split
I0428 19:34:41.986450 23373 net.cpp:86] Creating Layer ip3_relu3_0_split
I0428 19:34:41.986454 23373 net.cpp:408] ip3_relu3_0_split <- ip3
I0428 19:34:41.986461 23373 net.cpp:382] ip3_relu3_0_split -> ip3_relu3_0_split_0
I0428 19:34:41.986469 23373 net.cpp:382] ip3_relu3_0_split -> ip3_relu3_0_split_1
I0428 19:34:41.986510 23373 net.cpp:124] Setting up ip3_relu3_0_split
I0428 19:34:41.986517 23373 net.cpp:131] Top shape: 100 10 (1000)
I0428 19:34:41.986522 23373 net.cpp:131] Top shape: 100 10 (1000)
I0428 19:34:41.986536 23373 net.cpp:139] Memory required for data: 14746800
I0428 19:34:41.986541 23373 layer_factory.hpp:77] Creating layer accuracy
I0428 19:34:41.986548 23373 net.cpp:86] Creating Layer accuracy
I0428 19:34:41.986552 23373 net.cpp:408] accuracy <- ip3_relu3_0_split_0
I0428 19:34:41.986557 23373 net.cpp:408] accuracy <- label_mnist_1_split_0
I0428 19:34:41.986563 23373 net.cpp:382] accuracy -> accuracy
…
