…
I0428 20:02:49.857982 30062 net.cpp:296] The NetState phase (0) differed from the phase (1) specified by a rule in layer mnist
I0428 20:02:49.858001 30062 net.cpp:296] The NetState phase (0) differed from the phase (1) specified by a rule in layer accuracy
I0428 20:02:49.858083 30062 net.cpp:53] Initializing net from parameters: 
name: "LeNet"
state {
  phase: TRAIN
  level: 0
  stage: ""
}
layer {
  name: "mnist"
  type: "Data"
  top: "data"
  top: "label"
  include {
    phase: TRAIN
  }
  transform_param {
    scale: 0.00390625
  }
  data_param {
    source: "examples/mnist/mnist_train_lmdb"
    batch_size: 64
    backend: LMDB
  }
}
layer {
  name: "conv0"
  type: "Convolution"
  bottom: "data"
  top: "conv0"
  param {
    lr_mult: 1
  }
  param {
    lr_mult: 2
  }
  convolution_param {
    num_output: 10
    kernel_size: 5
    stride: 1
    weight_filler {
      type: "xavier"
    }
    bias_filler {
      type: "constant"
    }
  }
}
layer {
  name: "pool0"
  type: "Pooling"
  bottom: "conv0"
  top: "pool0"
  pooling_param {
    pool: MAX
    kernel_size: 2
    stride: 2
  }
}
layer {
  name: "conv1"
  type: "Convolution"
  bottom: "pool0"
  top: "conv1"
  param {
    lr_mult: 1
  }
  param {
    lr_mult: 2
  }
  convolution_param {
    num_output: 100
    kernel_size: 5
    stride: 1
    weight_filler {
      type: "xavier"
    }
    bias_filler {
      type: "constant"
    }
  }
}
layer {
  name: "pool1"
  type: "Pooling"
  bottom: "conv1"
  top: "pool1"
  pooling_param {
    pool: MAX
    kernel_size: 2
    stride: 2
  }
}
layer {
  name: "ip1"
  type: "InnerProduct"
  bottom: "pool1"
  top: "ip1"
  param {
    lr_mult: 1
  }
  param {
    lr_mult: 2
  }
  inner_product_param {
    num_output: 10
    weight_filler {
      type: "xavier"
    }
    bias_filler {
      type: "constant"
    }
  }
}
layer {
  name: "relu1"
  type: "ReLU"
  bottom: "ip1"
  top: "ip1"
}
layer {
  name: "loss"
  type: "SoftmaxWithLoss"
  bottom: "ip1"
  bottom: "label"
  top: "loss"
}
I0428 20:02:49.858152 30062 layer_factory.hpp:77] Creating layer mnist
I0428 20:02:49.858258 30062 db_lmdb.cpp:35] Opened lmdb examples/mnist/mnist_train_lmdb
I0428 20:02:49.858283 30062 net.cpp:86] Creating Layer mnist
I0428 20:02:49.858290 30062 net.cpp:382] mnist -> data
I0428 20:02:49.858314 30062 net.cpp:382] mnist -> label
I0428 20:02:49.859416 30062 data_layer.cpp:45] output data size: 64,1,28,28
I0428 20:02:49.861874 30062 net.cpp:124] Setting up mnist
I0428 20:02:49.861893 30062 net.cpp:131] Top shape: 64 1 28 28 (50176)
I0428 20:02:49.861901 30062 net.cpp:131] Top shape: 64 (64)
I0428 20:02:49.861903 30062 net.cpp:139] Memory required for data: 200960
I0428 20:02:49.861910 30062 layer_factory.hpp:77] Creating layer conv0
I0428 20:02:49.861928 30062 net.cpp:86] Creating Layer conv0
I0428 20:02:49.861934 30062 net.cpp:408] conv0 <- data
I0428 20:02:49.861946 30062 net.cpp:382] conv0 -> conv0
I0428 20:02:50.138293 30062 net.cpp:124] Setting up conv0
I0428 20:02:50.138320 30062 net.cpp:131] Top shape: 64 10 24 24 (368640)
I0428 20:02:50.138324 30062 net.cpp:139] Memory required for data: 1675520
I0428 20:02:50.138356 30062 layer_factory.hpp:77] Creating layer pool0
I0428 20:02:50.138368 30062 net.cpp:86] Creating Layer pool0
I0428 20:02:50.138373 30062 net.cpp:408] pool0 <- conv0
I0428 20:02:50.138378 30062 net.cpp:382] pool0 -> pool0
I0428 20:02:50.138423 30062 net.cpp:124] Setting up pool0
I0428 20:02:50.138430 30062 net.cpp:131] Top shape: 64 10 12 12 (92160)
I0428 20:02:50.138451 30062 net.cpp:139] Memory required for data: 2044160
I0428 20:02:50.138454 30062 layer_factory.hpp:77] Creating layer conv1
I0428 20:02:50.138465 30062 net.cpp:86] Creating Layer conv1
I0428 20:02:50.138468 30062 net.cpp:408] conv1 <- pool0
I0428 20:02:50.138473 30062 net.cpp:382] conv1 -> conv1
I0428 20:02:50.140604 30062 net.cpp:124] Setting up conv1
I0428 20:02:50.140619 30062 net.cpp:131] Top shape: 64 100 8 8 (409600)
I0428 20:02:50.140622 30062 net.cpp:139] Memory required for data: 3682560
I0428 20:02:50.140646 30062 layer_factory.hpp:77] Creating layer pool1
I0428 20:02:50.140655 30062 net.cpp:86] Creating Layer pool1
I0428 20:02:50.140660 30062 net.cpp:408] pool1 <- conv1
I0428 20:02:50.140664 30062 net.cpp:382] pool1 -> pool1
I0428 20:02:50.140702 30062 net.cpp:124] Setting up pool1
I0428 20:02:50.140709 30062 net.cpp:131] Top shape: 64 100 4 4 (102400)
I0428 20:02:50.140712 30062 net.cpp:139] Memory required for data: 4092160
I0428 20:02:50.140715 30062 layer_factory.hpp:77] Creating layer ip1
I0428 20:02:50.140722 30062 net.cpp:86] Creating Layer ip1
I0428 20:02:50.140727 30062 net.cpp:408] ip1 <- pool1
I0428 20:02:50.140730 30062 net.cpp:382] ip1 -> ip1
I0428 20:02:50.141836 30062 net.cpp:124] Setting up ip1
I0428 20:02:50.141850 30062 net.cpp:131] Top shape: 64 10 (640)
I0428 20:02:50.141855 30062 net.cpp:139] Memory required for data: 4094720
I0428 20:02:50.141863 30062 layer_factory.hpp:77] Creating layer relu1
I0428 20:02:50.141870 30062 net.cpp:86] Creating Layer relu1
I0428 20:02:50.141873 30062 net.cpp:408] relu1 <- ip1
I0428 20:02:50.141877 30062 net.cpp:369] relu1 -> ip1 (in-place)
I0428 20:02:50.142048 30062 net.cpp:124] Setting up relu1
I0428 20:02:50.142072 30062 net.cpp:131] Top shape: 64 10 (640)
I0428 20:02:50.142076 30062 net.cpp:139] Memory required for data: 4097280
I0428 20:02:50.142078 30062 layer_factory.hpp:77] Creating layer loss
I0428 20:02:50.142084 30062 net.cpp:86] Creating Layer loss
I0428 20:02:50.142088 30062 net.cpp:408] loss <- ip1
I0428 20:02:50.142091 30062 net.cpp:408] loss <- label
I0428 20:02:50.142096 30062 net.cpp:382] loss -> loss
I0428 20:02:50.142127 30062 layer_factory.hpp:77] Creating layer loss
…
I0428 20:02:50.143376 30062 solver.cpp:173] Creating test net (#0) specified by net file: ECE595/mnist/train_test/var_everything2/lenet_train_test938.prototxt
I0428 20:02:50.143401 30062 net.cpp:296] The NetState phase (1) differed from the phase (0) specified by a rule in layer mnist
I0428 20:02:50.143474 30062 net.cpp:53] Initializing net from parameters: 
name: "LeNet"
state {
  phase: TEST
}
layer {
  name: "mnist"
  type: "Data"
  top: "data"
  top: "label"
  include {
    phase: TEST
  }
  transform_param {
    scale: 0.00390625
  }
  data_param {
    source: "examples/mnist/mnist_test_lmdb"
    batch_size: 100
    backend: LMDB
  }
}
layer {
  name: "conv0"
  type: "Convolution"
  bottom: "data"
  top: "conv0"
  param {
    lr_mult: 1
  }
  param {
    lr_mult: 2
  }
  convolution_param {
    num_output: 10
    kernel_size: 5
    stride: 1
    weight_filler {
      type: "xavier"
    }
    bias_filler {
      type: "constant"
    }
  }
}
layer {
  name: "pool0"
  type: "Pooling"
  bottom: "conv0"
  top: "pool0"
  pooling_param {
    pool: MAX
    kernel_size: 2
    stride: 2
  }
}
layer {
  name: "conv1"
  type: "Convolution"
  bottom: "pool0"
  top: "conv1"
  param {
    lr_mult: 1
  }
  param {
    lr_mult: 2
  }
  convolution_param {
    num_output: 100
    kernel_size: 5
    stride: 1
    weight_filler {
      type: "xavier"
    }
    bias_filler {
      type: "constant"
    }
  }
}
layer {
  name: "pool1"
  type: "Pooling"
  bottom: "conv1"
  top: "pool1"
  pooling_param {
    pool: MAX
    kernel_size: 2
    stride: 2
  }
}
layer {
  name: "ip1"
  type: "InnerProduct"
  bottom: "pool1"
  top: "ip1"
  param {
    lr_mult: 1
  }
  param {
    lr_mult: 2
  }
  inner_product_param {
    num_output: 10
    weight_filler {
      type: "xavier"
    }
    bias_filler {
      type: "constant"
    }
  }
}
layer {
  name: "relu1"
  type: "ReLU"
  bottom: "ip1"
  top: "ip1"
}
layer {
  name: "accuracy"
  type: "Accuracy"
  bottom: "ip1"
  bottom: "label"
  top: "accuracy"
  include {
    phase: TEST
  }
}
layer {
  name: "loss"
  type: "SoftmaxWithLoss"
  bottom: "ip1"
  bottom: "label"
  top: "loss"
}
I0428 20:02:50.143548 30062 layer_factory.hpp:77] Creating layer mnist
I0428 20:02:50.143625 30062 db_lmdb.cpp:35] Opened lmdb examples/mnist/mnist_test_lmdb
I0428 20:02:50.143640 30062 net.cpp:86] Creating Layer mnist
I0428 20:02:50.143645 30062 net.cpp:382] mnist -> data
I0428 20:02:50.143653 30062 net.cpp:382] mnist -> label
I0428 20:02:50.143746 30062 data_layer.cpp:45] output data size: 100,1,28,28
I0428 20:02:50.145803 30062 net.cpp:124] Setting up mnist
I0428 20:02:50.145817 30062 net.cpp:131] Top shape: 100 1 28 28 (78400)
I0428 20:02:50.145823 30062 net.cpp:131] Top shape: 100 (100)
I0428 20:02:50.145825 30062 net.cpp:139] Memory required for data: 314000
I0428 20:02:50.145829 30062 layer_factory.hpp:77] Creating layer label_mnist_1_split
I0428 20:02:50.145838 30062 net.cpp:86] Creating Layer label_mnist_1_split
I0428 20:02:50.145843 30062 net.cpp:408] label_mnist_1_split <- label
I0428 20:02:50.145848 30062 net.cpp:382] label_mnist_1_split -> label_mnist_1_split_0
I0428 20:02:50.145855 30062 net.cpp:382] label_mnist_1_split -> label_mnist_1_split_1
I0428 20:02:50.145947 30062 net.cpp:124] Setting up label_mnist_1_split
I0428 20:02:50.145956 30062 net.cpp:131] Top shape: 100 (100)
I0428 20:02:50.145959 30062 net.cpp:131] Top shape: 100 (100)
I0428 20:02:50.145962 30062 net.cpp:139] Memory required for data: 314800
I0428 20:02:50.145965 30062 layer_factory.hpp:77] Creating layer conv0
I0428 20:02:50.145975 30062 net.cpp:86] Creating Layer conv0
I0428 20:02:50.145978 30062 net.cpp:408] conv0 <- data
I0428 20:02:50.145984 30062 net.cpp:382] conv0 -> conv0
I0428 20:02:50.146891 30062 net.cpp:124] Setting up conv0
I0428 20:02:50.146903 30062 net.cpp:131] Top shape: 100 10 24 24 (576000)
I0428 20:02:50.146908 30062 net.cpp:139] Memory required for data: 2618800
I0428 20:02:50.146931 30062 layer_factory.hpp:77] Creating layer pool0
I0428 20:02:50.146939 30062 net.cpp:86] Creating Layer pool0
I0428 20:02:50.146942 30062 net.cpp:408] pool0 <- conv0
I0428 20:02:50.146948 30062 net.cpp:382] pool0 -> pool0
I0428 20:02:50.146983 30062 net.cpp:124] Setting up pool0
I0428 20:02:50.146991 30062 net.cpp:131] Top shape: 100 10 12 12 (144000)
I0428 20:02:50.146994 30062 net.cpp:139] Memory required for data: 3194800
I0428 20:02:50.146996 30062 layer_factory.hpp:77] Creating layer conv1
I0428 20:02:50.147006 30062 net.cpp:86] Creating Layer conv1
I0428 20:02:50.147020 30062 net.cpp:408] conv1 <- pool0
I0428 20:02:50.147027 30062 net.cpp:382] conv1 -> conv1
I0428 20:02:50.148849 30062 net.cpp:124] Setting up conv1
I0428 20:02:50.148861 30062 net.cpp:131] Top shape: 100 100 8 8 (640000)
I0428 20:02:50.148865 30062 net.cpp:139] Memory required for data: 5754800
I0428 20:02:50.148890 30062 layer_factory.hpp:77] Creating layer pool1
I0428 20:02:50.148896 30062 net.cpp:86] Creating Layer pool1
I0428 20:02:50.148911 30062 net.cpp:408] pool1 <- conv1
I0428 20:02:50.148917 30062 net.cpp:382] pool1 -> pool1
I0428 20:02:50.148983 30062 net.cpp:124] Setting up pool1
I0428 20:02:50.148989 30062 net.cpp:131] Top shape: 100 100 4 4 (160000)
I0428 20:02:50.148993 30062 net.cpp:139] Memory required for data: 6394800
I0428 20:02:50.148998 30062 layer_factory.hpp:77] Creating layer ip1
I0428 20:02:50.149011 30062 net.cpp:86] Creating Layer ip1
I0428 20:02:50.149016 30062 net.cpp:408] ip1 <- pool1
I0428 20:02:50.149024 30062 net.cpp:382] ip1 -> ip1
I0428 20:02:50.149233 30062 net.cpp:124] Setting up ip1
I0428 20:02:50.149243 30062 net.cpp:131] Top shape: 100 10 (1000)
I0428 20:02:50.149260 30062 net.cpp:139] Memory required for data: 6398800
I0428 20:02:50.149268 30062 layer_factory.hpp:77] Creating layer relu1
I0428 20:02:50.149274 30062 net.cpp:86] Creating Layer relu1
I0428 20:02:50.149283 30062 net.cpp:408] relu1 <- ip1
I0428 20:02:50.149287 30062 net.cpp:369] relu1 -> ip1 (in-place)
I0428 20:02:50.150061 30062 net.cpp:124] Setting up relu1
I0428 20:02:50.150074 30062 net.cpp:131] Top shape: 100 10 (1000)
I0428 20:02:50.150079 30062 net.cpp:139] Memory required for data: 6402800
I0428 20:02:50.150081 30062 layer_factory.hpp:77] Creating layer ip1_relu1_0_split
I0428 20:02:50.150091 30062 net.cpp:86] Creating Layer ip1_relu1_0_split
I0428 20:02:50.150095 30062 net.cpp:408] ip1_relu1_0_split <- ip1
I0428 20:02:50.150099 30062 net.cpp:382] ip1_relu1_0_split -> ip1_relu1_0_split_0
I0428 20:02:50.150108 30062 net.cpp:382] ip1_relu1_0_split -> ip1_relu1_0_split_1
I0428 20:02:50.150151 30062 net.cpp:124] Setting up ip1_relu1_0_split
I0428 20:02:50.150157 30062 net.cpp:131] Top shape: 100 10 (1000)
I0428 20:02:50.150161 30062 net.cpp:131] Top shape: 100 10 (1000)
I0428 20:02:50.150164 30062 net.cpp:139] Memory required for data: 6410800
I0428 20:02:50.150167 30062 layer_factory.hpp:77] Creating layer accuracy
I0428 20:02:50.150173 30062 net.cpp:86] Creating Layer accuracy
I0428 20:02:50.150177 30062 net.cpp:408] accuracy <- ip1_relu1_0_split_0
I0428 20:02:50.150180 30062 net.cpp:408] accuracy <- label_mnist_1_split_0
I0428 20:02:50.150185 30062 net.cpp:382] accuracy -> accuracy
…
