…
I0428 19:27:42.129253 21373 net.cpp:296] The NetState phase (0) differed from the phase (1) specified by a rule in layer mnist
I0428 19:27:42.129266 21373 net.cpp:296] The NetState phase (0) differed from the phase (1) specified by a rule in layer accuracy
I0428 19:27:42.129317 21373 net.cpp:53] Initializing net from parameters: 
name: "LeNet"
state {
  phase: TRAIN
  level: 0
  stage: ""
}
layer {
  name: "mnist"
  type: "Data"
  top: "data"
  top: "label"
  include {
    phase: TRAIN
  }
  transform_param {
    scale: 0.00390625
  }
  data_param {
    source: "examples/mnist/mnist_train_lmdb"
    batch_size: 64
    backend: LMDB
  }
}
layer {
  name: "ip1"
  type: "InnerProduct"
  bottom: "data"
  top: "ip1"
  param {
    lr_mult: 1
  }
  param {
    lr_mult: 2
  }
  inner_product_param {
    num_output: 10
    weight_filler {
      type: "xavier"
    }
    bias_filler {
      type: "constant"
    }
  }
}
layer {
  name: "relu1"
  type: "ReLU"
  bottom: "ip1"
  top: "ip1"
}
layer {
  name: "loss"
  type: "SoftmaxWithLoss"
  bottom: "ip1"
  bottom: "label"
  top: "loss"
}
I0428 19:27:42.129371 21373 layer_factory.hpp:77] Creating layer mnist
I0428 19:27:42.129473 21373 db_lmdb.cpp:35] Opened lmdb examples/mnist/mnist_train_lmdb
I0428 19:27:42.129495 21373 net.cpp:86] Creating Layer mnist
I0428 19:27:42.129504 21373 net.cpp:382] mnist -> data
I0428 19:27:42.129526 21373 net.cpp:382] mnist -> label
I0428 19:27:42.130617 21373 data_layer.cpp:45] output data size: 64,1,28,28
I0428 19:27:42.133075 21373 net.cpp:124] Setting up mnist
I0428 19:27:42.133093 21373 net.cpp:131] Top shape: 64 1 28 28 (50176)
I0428 19:27:42.133100 21373 net.cpp:131] Top shape: 64 (64)
I0428 19:27:42.133105 21373 net.cpp:139] Memory required for data: 200960
I0428 19:27:42.133111 21373 layer_factory.hpp:77] Creating layer ip1
I0428 19:27:42.133121 21373 net.cpp:86] Creating Layer ip1
I0428 19:27:42.133126 21373 net.cpp:408] ip1 <- data
I0428 19:27:42.133136 21373 net.cpp:382] ip1 -> ip1
I0428 19:27:42.134454 21373 net.cpp:124] Setting up ip1
I0428 19:27:42.134469 21373 net.cpp:131] Top shape: 64 10 (640)
I0428 19:27:42.134474 21373 net.cpp:139] Memory required for data: 203520
I0428 19:27:42.134490 21373 layer_factory.hpp:77] Creating layer relu1
I0428 19:27:42.134498 21373 net.cpp:86] Creating Layer relu1
I0428 19:27:42.134502 21373 net.cpp:408] relu1 <- ip1
I0428 19:27:42.134507 21373 net.cpp:369] relu1 -> ip1 (in-place)
I0428 19:27:42.388187 21373 net.cpp:124] Setting up relu1
I0428 19:27:42.388213 21373 net.cpp:131] Top shape: 64 10 (640)
I0428 19:27:42.388217 21373 net.cpp:139] Memory required for data: 206080
I0428 19:27:42.388222 21373 layer_factory.hpp:77] Creating layer loss
I0428 19:27:42.388236 21373 net.cpp:86] Creating Layer loss
I0428 19:27:42.388240 21373 net.cpp:408] loss <- ip1
I0428 19:27:42.388247 21373 net.cpp:408] loss <- label
I0428 19:27:42.388252 21373 net.cpp:382] loss -> loss
I0428 19:27:42.388283 21373 layer_factory.hpp:77] Creating layer loss
…
I0428 19:27:42.390275 21373 solver.cpp:173] Creating test net (#0) specified by net file: ECE595/mnist/train_test/var_everything2/lenet_train_test0.prototxt
I0428 19:27:42.390295 21373 net.cpp:296] The NetState phase (1) differed from the phase (0) specified by a rule in layer mnist
I0428 19:27:42.390346 21373 net.cpp:53] Initializing net from parameters: 
name: "LeNet"
state {
  phase: TEST
}
layer {
  name: "mnist"
  type: "Data"
  top: "data"
  top: "label"
  include {
    phase: TEST
  }
  transform_param {
    scale: 0.00390625
  }
  data_param {
    source: "examples/mnist/mnist_test_lmdb"
    batch_size: 100
    backend: LMDB
  }
}
layer {
  name: "ip1"
  type: "InnerProduct"
  bottom: "data"
  top: "ip1"
  param {
    lr_mult: 1
  }
  param {
    lr_mult: 2
  }
  inner_product_param {
    num_output: 10
    weight_filler {
      type: "xavier"
    }
    bias_filler {
      type: "constant"
    }
  }
}
layer {
  name: "relu1"
  type: "ReLU"
  bottom: "ip1"
  top: "ip1"
}
layer {
  name: "accuracy"
  type: "Accuracy"
  bottom: "ip1"
  bottom: "label"
  top: "accuracy"
  include {
    phase: TEST
  }
}
layer {
  name: "loss"
  type: "SoftmaxWithLoss"
  bottom: "ip1"
  bottom: "label"
  top: "loss"
}
I0428 19:27:42.390390 21373 layer_factory.hpp:77] Creating layer mnist
I0428 19:27:42.390436 21373 db_lmdb.cpp:35] Opened lmdb examples/mnist/mnist_test_lmdb
I0428 19:27:42.390450 21373 net.cpp:86] Creating Layer mnist
I0428 19:27:42.390455 21373 net.cpp:382] mnist -> data
I0428 19:27:42.390461 21373 net.cpp:382] mnist -> label
I0428 19:27:42.390544 21373 data_layer.cpp:45] output data size: 100,1,28,28
I0428 19:27:42.392474 21373 net.cpp:124] Setting up mnist
I0428 19:27:42.392503 21373 net.cpp:131] Top shape: 100 1 28 28 (78400)
I0428 19:27:42.392509 21373 net.cpp:131] Top shape: 100 (100)
I0428 19:27:42.392513 21373 net.cpp:139] Memory required for data: 314000
I0428 19:27:42.392515 21373 layer_factory.hpp:77] Creating layer label_mnist_1_split
I0428 19:27:42.392557 21373 net.cpp:86] Creating Layer label_mnist_1_split
I0428 19:27:42.392561 21373 net.cpp:408] label_mnist_1_split <- label
I0428 19:27:42.392566 21373 net.cpp:382] label_mnist_1_split -> label_mnist_1_split_0
I0428 19:27:42.392573 21373 net.cpp:382] label_mnist_1_split -> label_mnist_1_split_1
I0428 19:27:42.392613 21373 net.cpp:124] Setting up label_mnist_1_split
I0428 19:27:42.392621 21373 net.cpp:131] Top shape: 100 (100)
I0428 19:27:42.392623 21373 net.cpp:131] Top shape: 100 (100)
I0428 19:27:42.392627 21373 net.cpp:139] Memory required for data: 314800
I0428 19:27:42.392629 21373 layer_factory.hpp:77] Creating layer ip1
I0428 19:27:42.392637 21373 net.cpp:86] Creating Layer ip1
I0428 19:27:42.392639 21373 net.cpp:408] ip1 <- data
I0428 19:27:42.392643 21373 net.cpp:382] ip1 -> ip1
I0428 19:27:42.392916 21373 net.cpp:124] Setting up ip1
I0428 19:27:42.392928 21373 net.cpp:131] Top shape: 100 10 (1000)
I0428 19:27:42.392932 21373 net.cpp:139] Memory required for data: 318800
I0428 19:27:42.392942 21373 layer_factory.hpp:77] Creating layer relu1
I0428 19:27:42.392948 21373 net.cpp:86] Creating Layer relu1
I0428 19:27:42.392952 21373 net.cpp:408] relu1 <- ip1
I0428 19:27:42.392956 21373 net.cpp:369] relu1 -> ip1 (in-place)
I0428 19:27:42.393191 21373 net.cpp:124] Setting up relu1
I0428 19:27:42.393199 21373 net.cpp:131] Top shape: 100 10 (1000)
I0428 19:27:42.393203 21373 net.cpp:139] Memory required for data: 322800
I0428 19:27:42.393205 21373 layer_factory.hpp:77] Creating layer ip1_relu1_0_split
I0428 19:27:42.393210 21373 net.cpp:86] Creating Layer ip1_relu1_0_split
I0428 19:27:42.393213 21373 net.cpp:408] ip1_relu1_0_split <- ip1
I0428 19:27:42.393218 21373 net.cpp:382] ip1_relu1_0_split -> ip1_relu1_0_split_0
I0428 19:27:42.393223 21373 net.cpp:382] ip1_relu1_0_split -> ip1_relu1_0_split_1
I0428 19:27:42.393254 21373 net.cpp:124] Setting up ip1_relu1_0_split
I0428 19:27:42.393270 21373 net.cpp:131] Top shape: 100 10 (1000)
I0428 19:27:42.393273 21373 net.cpp:131] Top shape: 100 10 (1000)
I0428 19:27:42.393276 21373 net.cpp:139] Memory required for data: 330800
I0428 19:27:42.393280 21373 layer_factory.hpp:77] Creating layer accuracy
I0428 19:27:42.393283 21373 net.cpp:86] Creating Layer accuracy
I0428 19:27:42.393286 21373 net.cpp:408] accuracy <- ip1_relu1_0_split_0
I0428 19:27:42.393290 21373 net.cpp:408] accuracy <- label_mnist_1_split_0
I0428 19:27:42.393295 21373 net.cpp:382] accuracy -> accuracy
…
