…
I0428 19:56:26.899029 28435 net.cpp:296] The NetState phase (0) differed from the phase (1) specified by a rule in layer mnist
I0428 19:56:26.899042 28435 net.cpp:296] The NetState phase (0) differed from the phase (1) specified by a rule in layer accuracy
I0428 19:56:26.899117 28435 net.cpp:53] Initializing net from parameters: 
name: "LeNet"
state {
  phase: TRAIN
  level: 0
  stage: ""
}
layer {
  name: "mnist"
  type: "Data"
  top: "data"
  top: "label"
  include {
    phase: TRAIN
  }
  transform_param {
    scale: 0.00390625
  }
  data_param {
    source: "examples/mnist/mnist_train_lmdb"
    batch_size: 64
    backend: LMDB
  }
}
layer {
  name: "conv0"
  type: "Convolution"
  bottom: "data"
  top: "conv0"
  param {
    lr_mult: 1
  }
  param {
    lr_mult: 2
  }
  convolution_param {
    num_output: 10
    kernel_size: 5
    stride: 1
    weight_filler {
      type: "xavier"
    }
    bias_filler {
      type: "constant"
    }
  }
}
layer {
  name: "pool0"
  type: "Pooling"
  bottom: "conv0"
  top: "pool0"
  pooling_param {
    pool: MAX
    kernel_size: 2
    stride: 2
  }
}
layer {
  name: "conv1"
  type: "Convolution"
  bottom: "pool0"
  top: "conv1"
  param {
    lr_mult: 1
  }
  param {
    lr_mult: 2
  }
  convolution_param {
    num_output: 2
    kernel_size: 5
    stride: 1
    weight_filler {
      type: "xavier"
    }
    bias_filler {
      type: "constant"
    }
  }
}
layer {
  name: "pool1"
  type: "Pooling"
  bottom: "conv1"
  top: "pool1"
  pooling_param {
    pool: MAX
    kernel_size: 2
    stride: 2
  }
}
layer {
  name: "ip1"
  type: "InnerProduct"
  bottom: "pool1"
  top: "ip1"
  param {
    lr_mult: 1
  }
  param {
    lr_mult: 2
  }
  inner_product_param {
    num_output: 10
    weight_filler {
      type: "xavier"
    }
    bias_filler {
      type: "constant"
    }
  }
}
layer {
  name: "relu1"
  type: "ReLU"
  bottom: "ip1"
  top: "ip1"
}
layer {
  name: "ip2"
  type: "InnerProduct"
  bottom: "ip1"
  top: "ip2"
  param {
    lr_mult: 1
  }
  param {
    lr_mult: 2
  }
  inner_product_param {
    num_output: 50
    weight_filler {
      type: "xavier"
    }
    bias_filler {
      type: "constant"
    }
  }
}
layer {
  name: "relu2"
  type: "ReLU"
  bottom: "ip2"
  top: "ip2"
}
layer {
  name: "ip3"
  type: "InnerProduct"
  bottom: "ip2"
  top: "ip3"
  param {
    lr_mult: 1
  }
  param {
    lr_mult: 2
  }
  inner_product_param {
    num_output: 10
    weight_filler {
      type: "xavier"
    }
    bias_filler {
      type: "constant"
    }
  }
}
layer {
  name: "relu3"
  type: "ReLU"
  bottom: "ip3"
  top: "ip3"
}
layer {
  name: "loss"
  type: "SoftmaxWithLoss"
  bottom: "ip3"
  bottom: "label"
  top: "loss"
}
I0428 19:56:26.899176 28435 layer_factory.hpp:77] Creating layer mnist
I0428 19:56:26.899256 28435 db_lmdb.cpp:35] Opened lmdb examples/mnist/mnist_train_lmdb
I0428 19:56:26.899291 28435 net.cpp:86] Creating Layer mnist
I0428 19:56:26.899297 28435 net.cpp:382] mnist -> data
I0428 19:56:26.899317 28435 net.cpp:382] mnist -> label
I0428 19:56:26.900213 28435 data_layer.cpp:45] output data size: 64,1,28,28
I0428 19:56:26.902456 28435 net.cpp:124] Setting up mnist
I0428 19:56:26.902485 28435 net.cpp:131] Top shape: 64 1 28 28 (50176)
I0428 19:56:26.902490 28435 net.cpp:131] Top shape: 64 (64)
I0428 19:56:26.902493 28435 net.cpp:139] Memory required for data: 200960
I0428 19:56:26.902499 28435 layer_factory.hpp:77] Creating layer conv0
I0428 19:56:26.902511 28435 net.cpp:86] Creating Layer conv0
I0428 19:56:26.902561 28435 net.cpp:408] conv0 <- data
I0428 19:56:26.902571 28435 net.cpp:382] conv0 -> conv0
I0428 19:56:27.134223 28435 net.cpp:124] Setting up conv0
I0428 19:56:27.134264 28435 net.cpp:131] Top shape: 64 10 24 24 (368640)
I0428 19:56:27.134268 28435 net.cpp:139] Memory required for data: 1675520
I0428 19:56:27.134282 28435 layer_factory.hpp:77] Creating layer pool0
I0428 19:56:27.134294 28435 net.cpp:86] Creating Layer pool0
I0428 19:56:27.134299 28435 net.cpp:408] pool0 <- conv0
I0428 19:56:27.134304 28435 net.cpp:382] pool0 -> pool0
I0428 19:56:27.134366 28435 net.cpp:124] Setting up pool0
I0428 19:56:27.134371 28435 net.cpp:131] Top shape: 64 10 12 12 (92160)
I0428 19:56:27.134374 28435 net.cpp:139] Memory required for data: 2044160
I0428 19:56:27.134377 28435 layer_factory.hpp:77] Creating layer conv1
I0428 19:56:27.134387 28435 net.cpp:86] Creating Layer conv1
I0428 19:56:27.134392 28435 net.cpp:408] conv1 <- pool0
I0428 19:56:27.134395 28435 net.cpp:382] conv1 -> conv1
I0428 19:56:27.136267 28435 net.cpp:124] Setting up conv1
I0428 19:56:27.136296 28435 net.cpp:131] Top shape: 64 2 8 8 (8192)
I0428 19:56:27.136301 28435 net.cpp:139] Memory required for data: 2076928
I0428 19:56:27.136308 28435 layer_factory.hpp:77] Creating layer pool1
I0428 19:56:27.136315 28435 net.cpp:86] Creating Layer pool1
I0428 19:56:27.136319 28435 net.cpp:408] pool1 <- conv1
I0428 19:56:27.136324 28435 net.cpp:382] pool1 -> pool1
I0428 19:56:27.136392 28435 net.cpp:124] Setting up pool1
I0428 19:56:27.136397 28435 net.cpp:131] Top shape: 64 2 4 4 (2048)
I0428 19:56:27.136400 28435 net.cpp:139] Memory required for data: 2085120
I0428 19:56:27.136404 28435 layer_factory.hpp:77] Creating layer ip1
I0428 19:56:27.136410 28435 net.cpp:86] Creating Layer ip1
I0428 19:56:27.136414 28435 net.cpp:408] ip1 <- pool1
I0428 19:56:27.136418 28435 net.cpp:382] ip1 -> ip1
I0428 19:56:27.136523 28435 net.cpp:124] Setting up ip1
I0428 19:56:27.136530 28435 net.cpp:131] Top shape: 64 10 (640)
I0428 19:56:27.136533 28435 net.cpp:139] Memory required for data: 2087680
I0428 19:56:27.136540 28435 layer_factory.hpp:77] Creating layer relu1
I0428 19:56:27.136545 28435 net.cpp:86] Creating Layer relu1
I0428 19:56:27.136549 28435 net.cpp:408] relu1 <- ip1
I0428 19:56:27.136554 28435 net.cpp:369] relu1 -> ip1 (in-place)
I0428 19:56:27.136725 28435 net.cpp:124] Setting up relu1
I0428 19:56:27.136734 28435 net.cpp:131] Top shape: 64 10 (640)
I0428 19:56:27.136736 28435 net.cpp:139] Memory required for data: 2090240
I0428 19:56:27.136739 28435 layer_factory.hpp:77] Creating layer ip2
I0428 19:56:27.136745 28435 net.cpp:86] Creating Layer ip2
I0428 19:56:27.136749 28435 net.cpp:408] ip2 <- ip1
I0428 19:56:27.136754 28435 net.cpp:382] ip2 -> ip2
I0428 19:56:27.136883 28435 net.cpp:124] Setting up ip2
I0428 19:56:27.136891 28435 net.cpp:131] Top shape: 64 50 (3200)
I0428 19:56:27.136894 28435 net.cpp:139] Memory required for data: 2103040
I0428 19:56:27.136900 28435 layer_factory.hpp:77] Creating layer relu2
I0428 19:56:27.136906 28435 net.cpp:86] Creating Layer relu2
I0428 19:56:27.136909 28435 net.cpp:408] relu2 <- ip2
I0428 19:56:27.136914 28435 net.cpp:369] relu2 -> ip2 (in-place)
I0428 19:56:27.137677 28435 net.cpp:124] Setting up relu2
I0428 19:56:27.137689 28435 net.cpp:131] Top shape: 64 50 (3200)
I0428 19:56:27.137708 28435 net.cpp:139] Memory required for data: 2115840
I0428 19:56:27.137712 28435 layer_factory.hpp:77] Creating layer ip3
I0428 19:56:27.137734 28435 net.cpp:86] Creating Layer ip3
I0428 19:56:27.137738 28435 net.cpp:408] ip3 <- ip2
I0428 19:56:27.137743 28435 net.cpp:382] ip3 -> ip3
I0428 19:56:27.137852 28435 net.cpp:124] Setting up ip3
I0428 19:56:27.137861 28435 net.cpp:131] Top shape: 64 10 (640)
I0428 19:56:27.137863 28435 net.cpp:139] Memory required for data: 2118400
I0428 19:56:27.137871 28435 layer_factory.hpp:77] Creating layer relu3
I0428 19:56:27.137876 28435 net.cpp:86] Creating Layer relu3
I0428 19:56:27.137879 28435 net.cpp:408] relu3 <- ip3
I0428 19:56:27.137883 28435 net.cpp:369] relu3 -> ip3 (in-place)
I0428 19:56:27.138072 28435 net.cpp:124] Setting up relu3
I0428 19:56:27.138079 28435 net.cpp:131] Top shape: 64 10 (640)
I0428 19:56:27.138082 28435 net.cpp:139] Memory required for data: 2120960
I0428 19:56:27.138085 28435 layer_factory.hpp:77] Creating layer loss
I0428 19:56:27.138092 28435 net.cpp:86] Creating Layer loss
I0428 19:56:27.138094 28435 net.cpp:408] loss <- ip3
I0428 19:56:27.138098 28435 net.cpp:408] loss <- label
I0428 19:56:27.138103 28435 net.cpp:382] loss -> loss
I0428 19:56:27.138120 28435 layer_factory.hpp:77] Creating layer loss
…
I0428 19:56:27.138769 28435 solver.cpp:173] Creating test net (#0) specified by net file: ECE595/mnist/train_test/var_everything2/lenet_train_test759.prototxt
I0428 19:56:27.138828 28435 net.cpp:296] The NetState phase (1) differed from the phase (0) specified by a rule in layer mnist
I0428 19:56:27.138931 28435 net.cpp:53] Initializing net from parameters: 
name: "LeNet"
state {
  phase: TEST
}
layer {
  name: "mnist"
  type: "Data"
  top: "data"
  top: "label"
  include {
    phase: TEST
  }
  transform_param {
    scale: 0.00390625
  }
  data_param {
    source: "examples/mnist/mnist_test_lmdb"
    batch_size: 100
    backend: LMDB
  }
}
layer {
  name: "conv0"
  type: "Convolution"
  bottom: "data"
  top: "conv0"
  param {
    lr_mult: 1
  }
  param {
    lr_mult: 2
  }
  convolution_param {
    num_output: 10
    kernel_size: 5
    stride: 1
    weight_filler {
      type: "xavier"
    }
    bias_filler {
      type: "constant"
    }
  }
}
layer {
  name: "pool0"
  type: "Pooling"
  bottom: "conv0"
  top: "pool0"
  pooling_param {
    pool: MAX
    kernel_size: 2
    stride: 2
  }
}
layer {
  name: "conv1"
  type: "Convolution"
  bottom: "pool0"
  top: "conv1"
  param {
    lr_mult: 1
  }
  param {
    lr_mult: 2
  }
  convolution_param {
    num_output: 2
    kernel_size: 5
    stride: 1
    weight_filler {
      type: "xavier"
    }
    bias_filler {
      type: "constant"
    }
  }
}
layer {
  name: "pool1"
  type: "Pooling"
  bottom: "conv1"
  top: "pool1"
  pooling_param {
    pool: MAX
    kernel_size: 2
    stride: 2
  }
}
layer {
  name: "ip1"
  type: "InnerProduct"
  bottom: "pool1"
  top: "ip1"
  param {
    lr_mult: 1
  }
  param {
    lr_mult: 2
  }
  inner_product_param {
    num_output: 10
    weight_filler {
      type: "xavier"
    }
    bias_filler {
      type: "constant"
    }
  }
}
layer {
  name: "relu1"
  type: "ReLU"
  bottom: "ip1"
  top: "ip1"
}
layer {
  name: "ip2"
  type: "InnerProduct"
  bottom: "ip1"
  top: "ip2"
  param {
    lr_mult: 1
  }
  param {
    lr_mult: 2
  }
  inner_product_param {
    num_output: 50
    weight_filler {
      type: "xavier"
    }
    bias_filler {
      type: "constant"
    }
  }
}
layer {
  name: "relu2"
  type: "ReLU"
  bottom: "ip2"
  top: "ip2"
}
layer {
  name: "ip3"
  type: "InnerProduct"
  bottom: "ip2"
  top: "ip3"
  param {
    lr_mult: 1
  }
  param {
    lr_mult: 2
  }
  inner_product_param {
    num_output: 10
    weight_filler {
      type: "xavier"
    }
    bias_filler {
      type: "constant"
    }
  }
}
layer {
  name: "relu3"
  type: "ReLU"
  bottom: "ip3"
  top: "ip3"
}
layer {
  name: "accuracy"
  type: "Accuracy"
  bottom: "ip3"
  bottom: "label"
  top: "accuracy"
  include {
    phase: TEST
  }
}
layer {
  name: "loss"
  type: "SoftmaxWithLoss"
  bottom: "ip3"
  bottom: "label"
  top: "loss"
}
I0428 19:56:27.139005 28435 layer_factory.hpp:77] Creating layer mnist
I0428 19:56:27.139047 28435 db_lmdb.cpp:35] Opened lmdb examples/mnist/mnist_test_lmdb
I0428 19:56:27.139060 28435 net.cpp:86] Creating Layer mnist
I0428 19:56:27.139065 28435 net.cpp:382] mnist -> data
I0428 19:56:27.139071 28435 net.cpp:382] mnist -> label
I0428 19:56:27.139168 28435 data_layer.cpp:45] output data size: 100,1,28,28
I0428 19:56:27.141477 28435 net.cpp:124] Setting up mnist
I0428 19:56:27.141505 28435 net.cpp:131] Top shape: 100 1 28 28 (78400)
I0428 19:56:27.141510 28435 net.cpp:131] Top shape: 100 (100)
I0428 19:56:27.141513 28435 net.cpp:139] Memory required for data: 314000
I0428 19:56:27.141516 28435 layer_factory.hpp:77] Creating layer label_mnist_1_split
I0428 19:56:27.141527 28435 net.cpp:86] Creating Layer label_mnist_1_split
I0428 19:56:27.141531 28435 net.cpp:408] label_mnist_1_split <- label
I0428 19:56:27.141535 28435 net.cpp:382] label_mnist_1_split -> label_mnist_1_split_0
I0428 19:56:27.141541 28435 net.cpp:382] label_mnist_1_split -> label_mnist_1_split_1
I0428 19:56:27.141574 28435 net.cpp:124] Setting up label_mnist_1_split
I0428 19:56:27.141579 28435 net.cpp:131] Top shape: 100 (100)
I0428 19:56:27.141582 28435 net.cpp:131] Top shape: 100 (100)
I0428 19:56:27.141587 28435 net.cpp:139] Memory required for data: 314800
I0428 19:56:27.141588 28435 layer_factory.hpp:77] Creating layer conv0
I0428 19:56:27.141597 28435 net.cpp:86] Creating Layer conv0
I0428 19:56:27.141598 28435 net.cpp:408] conv0 <- data
I0428 19:56:27.141603 28435 net.cpp:382] conv0 -> conv0
I0428 19:56:27.143256 28435 net.cpp:124] Setting up conv0
I0428 19:56:27.143270 28435 net.cpp:131] Top shape: 100 10 24 24 (576000)
I0428 19:56:27.143273 28435 net.cpp:139] Memory required for data: 2618800
I0428 19:56:27.143281 28435 layer_factory.hpp:77] Creating layer pool0
I0428 19:56:27.143287 28435 net.cpp:86] Creating Layer pool0
I0428 19:56:27.143291 28435 net.cpp:408] pool0 <- conv0
I0428 19:56:27.143296 28435 net.cpp:382] pool0 -> pool0
I0428 19:56:27.143328 28435 net.cpp:124] Setting up pool0
I0428 19:56:27.143332 28435 net.cpp:131] Top shape: 100 10 12 12 (144000)
I0428 19:56:27.143335 28435 net.cpp:139] Memory required for data: 3194800
I0428 19:56:27.143338 28435 layer_factory.hpp:77] Creating layer conv1
I0428 19:56:27.143345 28435 net.cpp:86] Creating Layer conv1
I0428 19:56:27.143348 28435 net.cpp:408] conv1 <- pool0
I0428 19:56:27.143353 28435 net.cpp:382] conv1 -> conv1
I0428 19:56:27.145491 28435 net.cpp:124] Setting up conv1
I0428 19:56:27.145503 28435 net.cpp:131] Top shape: 100 2 8 8 (12800)
I0428 19:56:27.145508 28435 net.cpp:139] Memory required for data: 3246000
I0428 19:56:27.145516 28435 layer_factory.hpp:77] Creating layer pool1
I0428 19:56:27.145522 28435 net.cpp:86] Creating Layer pool1
I0428 19:56:27.145540 28435 net.cpp:408] pool1 <- conv1
I0428 19:56:27.145545 28435 net.cpp:382] pool1 -> pool1
I0428 19:56:27.145579 28435 net.cpp:124] Setting up pool1
I0428 19:56:27.145584 28435 net.cpp:131] Top shape: 100 2 4 4 (3200)
I0428 19:56:27.145587 28435 net.cpp:139] Memory required for data: 3258800
I0428 19:56:27.145591 28435 layer_factory.hpp:77] Creating layer ip1
I0428 19:56:27.145596 28435 net.cpp:86] Creating Layer ip1
I0428 19:56:27.145598 28435 net.cpp:408] ip1 <- pool1
I0428 19:56:27.145603 28435 net.cpp:382] ip1 -> ip1
I0428 19:56:27.145694 28435 net.cpp:124] Setting up ip1
I0428 19:56:27.145700 28435 net.cpp:131] Top shape: 100 10 (1000)
I0428 19:56:27.145714 28435 net.cpp:139] Memory required for data: 3262800
I0428 19:56:27.145720 28435 layer_factory.hpp:77] Creating layer relu1
I0428 19:56:27.145741 28435 net.cpp:86] Creating Layer relu1
I0428 19:56:27.145745 28435 net.cpp:408] relu1 <- ip1
I0428 19:56:27.145750 28435 net.cpp:369] relu1 -> ip1 (in-place)
I0428 19:56:27.145918 28435 net.cpp:124] Setting up relu1
I0428 19:56:27.145927 28435 net.cpp:131] Top shape: 100 10 (1000)
I0428 19:56:27.145931 28435 net.cpp:139] Memory required for data: 3266800
I0428 19:56:27.145933 28435 layer_factory.hpp:77] Creating layer ip2
I0428 19:56:27.145941 28435 net.cpp:86] Creating Layer ip2
I0428 19:56:27.145943 28435 net.cpp:408] ip2 <- ip1
I0428 19:56:27.145948 28435 net.cpp:382] ip2 -> ip2
I0428 19:56:27.146039 28435 net.cpp:124] Setting up ip2
I0428 19:56:27.146046 28435 net.cpp:131] Top shape: 100 50 (5000)
I0428 19:56:27.146049 28435 net.cpp:139] Memory required for data: 3286800
I0428 19:56:27.146054 28435 layer_factory.hpp:77] Creating layer relu2
I0428 19:56:27.146059 28435 net.cpp:86] Creating Layer relu2
I0428 19:56:27.146070 28435 net.cpp:408] relu2 <- ip2
I0428 19:56:27.146075 28435 net.cpp:369] relu2 -> ip2 (in-place)
I0428 19:56:27.146230 28435 net.cpp:124] Setting up relu2
I0428 19:56:27.146239 28435 net.cpp:131] Top shape: 100 50 (5000)
I0428 19:56:27.146241 28435 net.cpp:139] Memory required for data: 3306800
I0428 19:56:27.146245 28435 layer_factory.hpp:77] Creating layer ip3
I0428 19:56:27.146250 28435 net.cpp:86] Creating Layer ip3
I0428 19:56:27.146260 28435 net.cpp:408] ip3 <- ip2
I0428 19:56:27.146265 28435 net.cpp:382] ip3 -> ip3
I0428 19:56:27.146365 28435 net.cpp:124] Setting up ip3
I0428 19:56:27.146373 28435 net.cpp:131] Top shape: 100 10 (1000)
I0428 19:56:27.146375 28435 net.cpp:139] Memory required for data: 3310800
I0428 19:56:27.146383 28435 layer_factory.hpp:77] Creating layer relu3
I0428 19:56:27.146387 28435 net.cpp:86] Creating Layer relu3
I0428 19:56:27.146390 28435 net.cpp:408] relu3 <- ip3
I0428 19:56:27.146394 28435 net.cpp:369] relu3 -> ip3 (in-place)
I0428 19:56:27.147264 28435 net.cpp:124] Setting up relu3
I0428 19:56:27.147275 28435 net.cpp:131] Top shape: 100 10 (1000)
I0428 19:56:27.147279 28435 net.cpp:139] Memory required for data: 3314800
I0428 19:56:27.147284 28435 layer_factory.hpp:77] Creating layer ip3_relu3_0_split
I0428 19:56:27.147289 28435 net.cpp:86] Creating Layer ip3_relu3_0_split
I0428 19:56:27.147292 28435 net.cpp:408] ip3_relu3_0_split <- ip3
I0428 19:56:27.147297 28435 net.cpp:382] ip3_relu3_0_split -> ip3_relu3_0_split_0
I0428 19:56:27.147305 28435 net.cpp:382] ip3_relu3_0_split -> ip3_relu3_0_split_1
I0428 19:56:27.147346 28435 net.cpp:124] Setting up ip3_relu3_0_split
I0428 19:56:27.147351 28435 net.cpp:131] Top shape: 100 10 (1000)
I0428 19:56:27.147354 28435 net.cpp:131] Top shape: 100 10 (1000)
I0428 19:56:27.147357 28435 net.cpp:139] Memory required for data: 3322800
I0428 19:56:27.147361 28435 layer_factory.hpp:77] Creating layer accuracy
I0428 19:56:27.147366 28435 net.cpp:86] Creating Layer accuracy
I0428 19:56:27.147370 28435 net.cpp:408] accuracy <- ip3_relu3_0_split_0
I0428 19:56:27.147374 28435 net.cpp:408] accuracy <- label_mnist_1_split_0
I0428 19:56:27.147379 28435 net.cpp:382] accuracy -> accuracy
…
