…
I0428 20:33:47.377614  4371 net.cpp:296] The NetState phase (0) differed from the phase (1) specified by a rule in layer mnist
I0428 20:33:47.377660  4371 net.cpp:296] The NetState phase (0) differed from the phase (1) specified by a rule in layer accuracy
I0428 20:33:47.377738  4371 net.cpp:53] Initializing net from parameters: 
name: "LeNet"
state {
  phase: TRAIN
  level: 0
  stage: ""
}
layer {
  name: "mnist"
  type: "Data"
  top: "data"
  top: "label"
  include {
    phase: TRAIN
  }
  transform_param {
    scale: 0.00390625
  }
  data_param {
    source: "examples/mnist/mnist_train_lmdb"
    batch_size: 64
    backend: LMDB
  }
}
layer {
  name: "conv0"
  type: "Convolution"
  bottom: "data"
  top: "conv0"
  param {
    lr_mult: 1
  }
  param {
    lr_mult: 2
  }
  convolution_param {
    num_output: 100
    kernel_size: 5
    stride: 1
    weight_filler {
      type: "xavier"
    }
    bias_filler {
      type: "constant"
    }
  }
}
layer {
  name: "pool0"
  type: "Pooling"
  bottom: "conv0"
  top: "pool0"
  pooling_param {
    pool: MAX
    kernel_size: 2
    stride: 2
  }
}
layer {
  name: "conv1"
  type: "Convolution"
  bottom: "pool0"
  top: "conv1"
  param {
    lr_mult: 1
  }
  param {
    lr_mult: 2
  }
  convolution_param {
    num_output: 25
    kernel_size: 5
    stride: 1
    weight_filler {
      type: "xavier"
    }
    bias_filler {
      type: "constant"
    }
  }
}
layer {
  name: "pool1"
  type: "Pooling"
  bottom: "conv1"
  top: "pool1"
  pooling_param {
    pool: MAX
    kernel_size: 2
    stride: 2
  }
}
layer {
  name: "ip1"
  type: "InnerProduct"
  bottom: "pool1"
  top: "ip1"
  param {
    lr_mult: 1
  }
  param {
    lr_mult: 2
  }
  inner_product_param {
    num_output: 50
    weight_filler {
      type: "xavier"
    }
    bias_filler {
      type: "constant"
    }
  }
}
layer {
  name: "relu1"
  type: "ReLU"
  bottom: "ip1"
  top: "ip1"
}
layer {
  name: "ip2"
  type: "InnerProduct"
  bottom: "ip1"
  top: "ip2"
  param {
    lr_mult: 1
  }
  param {
    lr_mult: 2
  }
  inner_product_param {
    num_output: 25
    weight_filler {
      type: "xavier"
    }
    bias_filler {
      type: "constant"
    }
  }
}
layer {
  name: "relu2"
  type: "ReLU"
  bottom: "ip2"
  top: "ip2"
}
layer {
  name: "ip3"
  type: "InnerProduct"
  bottom: "ip2"
  top: "ip3"
  param {
    lr_mult: 1
  }
  param {
    lr_mult: 2
  }
  inner_product_param {
    num_output: 10
    weight_filler {
      type: "xavier"
    }
    bias_filler {
      type: "constant"
    }
  }
}
layer {
  name: "relu3"
  type: "ReLU"
  bottom: "ip3"
  top: "ip3"
}
layer {
  name: "loss"
  type: "SoftmaxWithLoss"
  bottom: "ip3"
  bottom: "label"
  top: "loss"
}
I0428 20:33:47.377801  4371 layer_factory.hpp:77] Creating layer mnist
I0428 20:33:47.377881  4371 db_lmdb.cpp:35] Opened lmdb examples/mnist/mnist_train_lmdb
I0428 20:33:47.377898  4371 net.cpp:86] Creating Layer mnist
I0428 20:33:47.377907  4371 net.cpp:382] mnist -> data
I0428 20:33:47.377923  4371 net.cpp:382] mnist -> label
I0428 20:33:47.378979  4371 data_layer.cpp:45] output data size: 64,1,28,28
I0428 20:33:47.381196  4371 net.cpp:124] Setting up mnist
I0428 20:33:47.381225  4371 net.cpp:131] Top shape: 64 1 28 28 (50176)
I0428 20:33:47.381230  4371 net.cpp:131] Top shape: 64 (64)
I0428 20:33:47.381233  4371 net.cpp:139] Memory required for data: 200960
I0428 20:33:47.381238  4371 layer_factory.hpp:77] Creating layer conv0
I0428 20:33:47.381252  4371 net.cpp:86] Creating Layer conv0
I0428 20:33:47.381268  4371 net.cpp:408] conv0 <- data
I0428 20:33:47.381279  4371 net.cpp:382] conv0 -> conv0
I0428 20:33:47.614105  4371 net.cpp:124] Setting up conv0
I0428 20:33:47.614146  4371 net.cpp:131] Top shape: 64 100 24 24 (3686400)
I0428 20:33:47.614151  4371 net.cpp:139] Memory required for data: 14946560
I0428 20:33:47.614164  4371 layer_factory.hpp:77] Creating layer pool0
I0428 20:33:47.614176  4371 net.cpp:86] Creating Layer pool0
I0428 20:33:47.614181  4371 net.cpp:408] pool0 <- conv0
I0428 20:33:47.614186  4371 net.cpp:382] pool0 -> pool0
I0428 20:33:47.614245  4371 net.cpp:124] Setting up pool0
I0428 20:33:47.614251  4371 net.cpp:131] Top shape: 64 100 12 12 (921600)
I0428 20:33:47.614254  4371 net.cpp:139] Memory required for data: 18632960
I0428 20:33:47.614258  4371 layer_factory.hpp:77] Creating layer conv1
I0428 20:33:47.614267  4371 net.cpp:86] Creating Layer conv1
I0428 20:33:47.614270  4371 net.cpp:408] conv1 <- pool0
I0428 20:33:47.614275  4371 net.cpp:382] conv1 -> conv1
I0428 20:33:47.616453  4371 net.cpp:124] Setting up conv1
I0428 20:33:47.616483  4371 net.cpp:131] Top shape: 64 25 8 8 (102400)
I0428 20:33:47.616487  4371 net.cpp:139] Memory required for data: 19042560
I0428 20:33:47.616495  4371 layer_factory.hpp:77] Creating layer pool1
I0428 20:33:47.616503  4371 net.cpp:86] Creating Layer pool1
I0428 20:33:47.616521  4371 net.cpp:408] pool1 <- conv1
I0428 20:33:47.616526  4371 net.cpp:382] pool1 -> pool1
I0428 20:33:47.616561  4371 net.cpp:124] Setting up pool1
I0428 20:33:47.616569  4371 net.cpp:131] Top shape: 64 25 4 4 (25600)
I0428 20:33:47.616571  4371 net.cpp:139] Memory required for data: 19144960
I0428 20:33:47.616574  4371 layer_factory.hpp:77] Creating layer ip1
I0428 20:33:47.616580  4371 net.cpp:86] Creating Layer ip1
I0428 20:33:47.616583  4371 net.cpp:408] ip1 <- pool1
I0428 20:33:47.616588  4371 net.cpp:382] ip1 -> ip1
I0428 20:33:47.616792  4371 net.cpp:124] Setting up ip1
I0428 20:33:47.616801  4371 net.cpp:131] Top shape: 64 50 (3200)
I0428 20:33:47.616803  4371 net.cpp:139] Memory required for data: 19157760
I0428 20:33:47.616832  4371 layer_factory.hpp:77] Creating layer relu1
I0428 20:33:47.616838  4371 net.cpp:86] Creating Layer relu1
I0428 20:33:47.616858  4371 net.cpp:408] relu1 <- ip1
I0428 20:33:47.616863  4371 net.cpp:369] relu1 -> ip1 (in-place)
I0428 20:33:47.617055  4371 net.cpp:124] Setting up relu1
I0428 20:33:47.617065  4371 net.cpp:131] Top shape: 64 50 (3200)
I0428 20:33:47.617069  4371 net.cpp:139] Memory required for data: 19170560
I0428 20:33:47.617071  4371 layer_factory.hpp:77] Creating layer ip2
I0428 20:33:47.617079  4371 net.cpp:86] Creating Layer ip2
I0428 20:33:47.617081  4371 net.cpp:408] ip2 <- ip1
I0428 20:33:47.617086  4371 net.cpp:382] ip2 -> ip2
I0428 20:33:47.617228  4371 net.cpp:124] Setting up ip2
I0428 20:33:47.617234  4371 net.cpp:131] Top shape: 64 25 (1600)
I0428 20:33:47.617251  4371 net.cpp:139] Memory required for data: 19176960
I0428 20:33:47.617257  4371 layer_factory.hpp:77] Creating layer relu2
I0428 20:33:47.617262  4371 net.cpp:86] Creating Layer relu2
I0428 20:33:47.617265  4371 net.cpp:408] relu2 <- ip2
I0428 20:33:47.617269  4371 net.cpp:369] relu2 -> ip2 (in-place)
I0428 20:33:47.617998  4371 net.cpp:124] Setting up relu2
I0428 20:33:47.618010  4371 net.cpp:131] Top shape: 64 25 (1600)
I0428 20:33:47.618029  4371 net.cpp:139] Memory required for data: 19183360
I0428 20:33:47.618033  4371 layer_factory.hpp:77] Creating layer ip3
I0428 20:33:47.618039  4371 net.cpp:86] Creating Layer ip3
I0428 20:33:47.618043  4371 net.cpp:408] ip3 <- ip2
I0428 20:33:47.618048  4371 net.cpp:382] ip3 -> ip3
I0428 20:33:47.618162  4371 net.cpp:124] Setting up ip3
I0428 20:33:47.618170  4371 net.cpp:131] Top shape: 64 10 (640)
I0428 20:33:47.618173  4371 net.cpp:139] Memory required for data: 19185920
I0428 20:33:47.618180  4371 layer_factory.hpp:77] Creating layer relu3
I0428 20:33:47.618185  4371 net.cpp:86] Creating Layer relu3
I0428 20:33:47.618188  4371 net.cpp:408] relu3 <- ip3
I0428 20:33:47.618207  4371 net.cpp:369] relu3 -> ip3 (in-place)
I0428 20:33:47.618357  4371 net.cpp:124] Setting up relu3
I0428 20:33:47.618366  4371 net.cpp:131] Top shape: 64 10 (640)
I0428 20:33:47.618369  4371 net.cpp:139] Memory required for data: 19188480
I0428 20:33:47.618373  4371 layer_factory.hpp:77] Creating layer loss
I0428 20:33:47.618379  4371 net.cpp:86] Creating Layer loss
I0428 20:33:47.618382  4371 net.cpp:408] loss <- ip3
I0428 20:33:47.618386  4371 net.cpp:408] loss <- label
I0428 20:33:47.618391  4371 net.cpp:382] loss -> loss
I0428 20:33:47.618405  4371 layer_factory.hpp:77] Creating layer loss
…
I0428 20:33:47.619040  4371 solver.cpp:173] Creating test net (#0) specified by net file: ECE595/mnist/train_test/var_everything2/lenet_train_test1594.prototxt
I0428 20:33:47.619096  4371 net.cpp:296] The NetState phase (1) differed from the phase (0) specified by a rule in layer mnist
I0428 20:33:47.619184  4371 net.cpp:53] Initializing net from parameters: 
name: "LeNet"
state {
  phase: TEST
}
layer {
  name: "mnist"
  type: "Data"
  top: "data"
  top: "label"
  include {
    phase: TEST
  }
  transform_param {
    scale: 0.00390625
  }
  data_param {
    source: "examples/mnist/mnist_test_lmdb"
    batch_size: 100
    backend: LMDB
  }
}
layer {
  name: "conv0"
  type: "Convolution"
  bottom: "data"
  top: "conv0"
  param {
    lr_mult: 1
  }
  param {
    lr_mult: 2
  }
  convolution_param {
    num_output: 100
    kernel_size: 5
    stride: 1
    weight_filler {
      type: "xavier"
    }
    bias_filler {
      type: "constant"
    }
  }
}
layer {
  name: "pool0"
  type: "Pooling"
  bottom: "conv0"
  top: "pool0"
  pooling_param {
    pool: MAX
    kernel_size: 2
    stride: 2
  }
}
layer {
  name: "conv1"
  type: "Convolution"
  bottom: "pool0"
  top: "conv1"
  param {
    lr_mult: 1
  }
  param {
    lr_mult: 2
  }
  convolution_param {
    num_output: 25
    kernel_size: 5
    stride: 1
    weight_filler {
      type: "xavier"
    }
    bias_filler {
      type: "constant"
    }
  }
}
layer {
  name: "pool1"
  type: "Pooling"
  bottom: "conv1"
  top: "pool1"
  pooling_param {
    pool: MAX
    kernel_size: 2
    stride: 2
  }
}
layer {
  name: "ip1"
  type: "InnerProduct"
  bottom: "pool1"
  top: "ip1"
  param {
    lr_mult: 1
  }
  param {
    lr_mult: 2
  }
  inner_product_param {
    num_output: 50
    weight_filler {
      type: "xavier"
    }
    bias_filler {
      type: "constant"
    }
  }
}
layer {
  name: "relu1"
  type: "ReLU"
  bottom: "ip1"
  top: "ip1"
}
layer {
  name: "ip2"
  type: "InnerProduct"
  bottom: "ip1"
  top: "ip2"
  param {
    lr_mult: 1
  }
  param {
    lr_mult: 2
  }
  inner_product_param {
    num_output: 25
    weight_filler {
      type: "xavier"
    }
    bias_filler {
      type: "constant"
    }
  }
}
layer {
  name: "relu2"
  type: "ReLU"
  bottom: "ip2"
  top: "ip2"
}
layer {
  name: "ip3"
  type: "InnerProduct"
  bottom: "ip2"
  top: "ip3"
  param {
    lr_mult: 1
  }
  param {
    lr_mult: 2
  }
  inner_product_param {
    num_output: 10
    weight_filler {
      type: "xavier"
    }
    bias_filler {
      type: "constant"
    }
  }
}
layer {
  name: "relu3"
  type: "ReLU"
  bottom: "ip3"
  top: "ip3"
}
layer {
  name: "accuracy"
  type: "Accuracy"
  bottom: "ip3"
  bottom: "label"
  top: "accuracy"
  include {
    phase: TEST
  }
}
layer {
  name: "loss"
  type: "SoftmaxWithLoss"
  bottom: "ip3"
  bottom: "label"
  top: "loss"
}
I0428 20:33:47.619292  4371 layer_factory.hpp:77] Creating layer mnist
I0428 20:33:47.619334  4371 db_lmdb.cpp:35] Opened lmdb examples/mnist/mnist_test_lmdb
I0428 20:33:47.619345  4371 net.cpp:86] Creating Layer mnist
I0428 20:33:47.619350  4371 net.cpp:382] mnist -> data
I0428 20:33:47.619357  4371 net.cpp:382] mnist -> label
I0428 20:33:47.619438  4371 data_layer.cpp:45] output data size: 100,1,28,28
I0428 20:33:47.621536  4371 net.cpp:124] Setting up mnist
I0428 20:33:47.621564  4371 net.cpp:131] Top shape: 100 1 28 28 (78400)
I0428 20:33:47.621569  4371 net.cpp:131] Top shape: 100 (100)
I0428 20:33:47.621573  4371 net.cpp:139] Memory required for data: 314000
I0428 20:33:47.621577  4371 layer_factory.hpp:77] Creating layer label_mnist_1_split
I0428 20:33:47.621583  4371 net.cpp:86] Creating Layer label_mnist_1_split
I0428 20:33:47.621587  4371 net.cpp:408] label_mnist_1_split <- label
I0428 20:33:47.621592  4371 net.cpp:382] label_mnist_1_split -> label_mnist_1_split_0
I0428 20:33:47.621598  4371 net.cpp:382] label_mnist_1_split -> label_mnist_1_split_1
I0428 20:33:47.621635  4371 net.cpp:124] Setting up label_mnist_1_split
I0428 20:33:47.621641  4371 net.cpp:131] Top shape: 100 (100)
I0428 20:33:47.621645  4371 net.cpp:131] Top shape: 100 (100)
I0428 20:33:47.621662  4371 net.cpp:139] Memory required for data: 314800
I0428 20:33:47.621665  4371 layer_factory.hpp:77] Creating layer conv0
I0428 20:33:47.621672  4371 net.cpp:86] Creating Layer conv0
I0428 20:33:47.621675  4371 net.cpp:408] conv0 <- data
I0428 20:33:47.621680  4371 net.cpp:382] conv0 -> conv0
I0428 20:33:47.623438  4371 net.cpp:124] Setting up conv0
I0428 20:33:47.623451  4371 net.cpp:131] Top shape: 100 100 24 24 (5760000)
I0428 20:33:47.623455  4371 net.cpp:139] Memory required for data: 23354800
I0428 20:33:47.623463  4371 layer_factory.hpp:77] Creating layer pool0
I0428 20:33:47.623484  4371 net.cpp:86] Creating Layer pool0
I0428 20:33:47.623487  4371 net.cpp:408] pool0 <- conv0
I0428 20:33:47.623492  4371 net.cpp:382] pool0 -> pool0
I0428 20:33:47.623524  4371 net.cpp:124] Setting up pool0
I0428 20:33:47.623529  4371 net.cpp:131] Top shape: 100 100 12 12 (1440000)
I0428 20:33:47.623533  4371 net.cpp:139] Memory required for data: 29114800
I0428 20:33:47.623549  4371 layer_factory.hpp:77] Creating layer conv1
I0428 20:33:47.623558  4371 net.cpp:86] Creating Layer conv1
I0428 20:33:47.623560  4371 net.cpp:408] conv1 <- pool0
I0428 20:33:47.623565  4371 net.cpp:382] conv1 -> conv1
I0428 20:33:47.625567  4371 net.cpp:124] Setting up conv1
I0428 20:33:47.625581  4371 net.cpp:131] Top shape: 100 25 8 8 (160000)
I0428 20:33:47.625586  4371 net.cpp:139] Memory required for data: 29754800
I0428 20:33:47.625594  4371 layer_factory.hpp:77] Creating layer pool1
I0428 20:33:47.625602  4371 net.cpp:86] Creating Layer pool1
I0428 20:33:47.625604  4371 net.cpp:408] pool1 <- conv1
I0428 20:33:47.625617  4371 net.cpp:382] pool1 -> pool1
I0428 20:33:47.625653  4371 net.cpp:124] Setting up pool1
I0428 20:33:47.625659  4371 net.cpp:131] Top shape: 100 25 4 4 (40000)
I0428 20:33:47.625669  4371 net.cpp:139] Memory required for data: 29914800
I0428 20:33:47.625671  4371 layer_factory.hpp:77] Creating layer ip1
I0428 20:33:47.625677  4371 net.cpp:86] Creating Layer ip1
I0428 20:33:47.625689  4371 net.cpp:408] ip1 <- pool1
I0428 20:33:47.625694  4371 net.cpp:382] ip1 -> ip1
I0428 20:33:47.625948  4371 net.cpp:124] Setting up ip1
I0428 20:33:47.625967  4371 net.cpp:131] Top shape: 100 50 (5000)
I0428 20:33:47.625972  4371 net.cpp:139] Memory required for data: 29934800
I0428 20:33:47.625978  4371 layer_factory.hpp:77] Creating layer relu1
I0428 20:33:47.625983  4371 net.cpp:86] Creating Layer relu1
I0428 20:33:47.625986  4371 net.cpp:408] relu1 <- ip1
I0428 20:33:47.625991  4371 net.cpp:369] relu1 -> ip1 (in-place)
I0428 20:33:47.626155  4371 net.cpp:124] Setting up relu1
I0428 20:33:47.626164  4371 net.cpp:131] Top shape: 100 50 (5000)
I0428 20:33:47.626168  4371 net.cpp:139] Memory required for data: 29954800
I0428 20:33:47.626176  4371 layer_factory.hpp:77] Creating layer ip2
I0428 20:33:47.626183  4371 net.cpp:86] Creating Layer ip2
I0428 20:33:47.626197  4371 net.cpp:408] ip2 <- ip1
I0428 20:33:47.626207  4371 net.cpp:382] ip2 -> ip2
I0428 20:33:47.626320  4371 net.cpp:124] Setting up ip2
I0428 20:33:47.626327  4371 net.cpp:131] Top shape: 100 25 (2500)
I0428 20:33:47.626330  4371 net.cpp:139] Memory required for data: 29964800
I0428 20:33:47.626335  4371 layer_factory.hpp:77] Creating layer relu2
I0428 20:33:47.626344  4371 net.cpp:86] Creating Layer relu2
I0428 20:33:47.626348  4371 net.cpp:408] relu2 <- ip2
I0428 20:33:47.626351  4371 net.cpp:369] relu2 -> ip2 (in-place)
I0428 20:33:47.626524  4371 net.cpp:124] Setting up relu2
I0428 20:33:47.626533  4371 net.cpp:131] Top shape: 100 25 (2500)
I0428 20:33:47.626536  4371 net.cpp:139] Memory required for data: 29974800
I0428 20:33:47.626540  4371 layer_factory.hpp:77] Creating layer ip3
I0428 20:33:47.626545  4371 net.cpp:86] Creating Layer ip3
I0428 20:33:47.626549  4371 net.cpp:408] ip3 <- ip2
I0428 20:33:47.626554  4371 net.cpp:382] ip3 -> ip3
I0428 20:33:47.626690  4371 net.cpp:124] Setting up ip3
I0428 20:33:47.626698  4371 net.cpp:131] Top shape: 100 10 (1000)
I0428 20:33:47.626701  4371 net.cpp:139] Memory required for data: 29978800
I0428 20:33:47.626709  4371 layer_factory.hpp:77] Creating layer relu3
I0428 20:33:47.626713  4371 net.cpp:86] Creating Layer relu3
I0428 20:33:47.626716  4371 net.cpp:408] relu3 <- ip3
I0428 20:33:47.626721  4371 net.cpp:369] relu3 -> ip3 (in-place)
I0428 20:33:47.627607  4371 net.cpp:124] Setting up relu3
I0428 20:33:47.627619  4371 net.cpp:131] Top shape: 100 10 (1000)
I0428 20:33:47.627622  4371 net.cpp:139] Memory required for data: 29982800
I0428 20:33:47.627636  4371 layer_factory.hpp:77] Creating layer ip3_relu3_0_split
I0428 20:33:47.627641  4371 net.cpp:86] Creating Layer ip3_relu3_0_split
I0428 20:33:47.627645  4371 net.cpp:408] ip3_relu3_0_split <- ip3
I0428 20:33:47.627656  4371 net.cpp:382] ip3_relu3_0_split -> ip3_relu3_0_split_0
I0428 20:33:47.627676  4371 net.cpp:382] ip3_relu3_0_split -> ip3_relu3_0_split_1
I0428 20:33:47.627712  4371 net.cpp:124] Setting up ip3_relu3_0_split
I0428 20:33:47.627717  4371 net.cpp:131] Top shape: 100 10 (1000)
I0428 20:33:47.627720  4371 net.cpp:131] Top shape: 100 10 (1000)
I0428 20:33:47.627723  4371 net.cpp:139] Memory required for data: 29990800
I0428 20:33:47.627727  4371 layer_factory.hpp:77] Creating layer accuracy
I0428 20:33:47.627730  4371 net.cpp:86] Creating Layer accuracy
I0428 20:33:47.627733  4371 net.cpp:408] accuracy <- ip3_relu3_0_split_0
I0428 20:33:47.627737  4371 net.cpp:408] accuracy <- label_mnist_1_split_0
I0428 20:33:47.627748  4371 net.cpp:382] accuracy -> accuracy
…
