…
I0428 19:37:53.902843 23935 net.cpp:296] The NetState phase (0) differed from the phase (1) specified by a rule in layer mnist
I0428 19:37:53.902861 23935 net.cpp:296] The NetState phase (0) differed from the phase (1) specified by a rule in layer accuracy
I0428 19:37:53.902948 23935 net.cpp:53] Initializing net from parameters: 
name: "LeNet"
state {
  phase: TRAIN
  level: 0
  stage: ""
}
layer {
  name: "mnist"
  type: "Data"
  top: "data"
  top: "label"
  include {
    phase: TRAIN
  }
  transform_param {
    scale: 0.00390625
  }
  data_param {
    source: "examples/mnist/mnist_train_lmdb"
    batch_size: 64
    backend: LMDB
  }
}
layer {
  name: "conv0"
  type: "Convolution"
  bottom: "data"
  top: "conv0"
  param {
    lr_mult: 1
  }
  param {
    lr_mult: 2
  }
  convolution_param {
    num_output: 100
    kernel_size: 5
    stride: 1
    weight_filler {
      type: "xavier"
    }
    bias_filler {
      type: "constant"
    }
  }
}
layer {
  name: "pool0"
  type: "Pooling"
  bottom: "conv0"
  top: "pool0"
  pooling_param {
    pool: MAX
    kernel_size: 2
    stride: 2
  }
}
layer {
  name: "ip1"
  type: "InnerProduct"
  bottom: "pool0"
  top: "ip1"
  param {
    lr_mult: 1
  }
  param {
    lr_mult: 2
  }
  inner_product_param {
    num_output: 50
    weight_filler {
      type: "xavier"
    }
    bias_filler {
      type: "constant"
    }
  }
}
layer {
  name: "relu1"
  type: "ReLU"
  bottom: "ip1"
  top: "ip1"
}
layer {
  name: "ip2"
  type: "InnerProduct"
  bottom: "ip1"
  top: "ip2"
  param {
    lr_mult: 1
  }
  param {
    lr_mult: 2
  }
  inner_product_param {
    num_output: 10
    weight_filler {
      type: "xavier"
    }
    bias_filler {
      type: "constant"
    }
  }
}
layer {
  name: "relu2"
  type: "ReLU"
  bottom: "ip2"
  top: "ip2"
}
layer {
  name: "ip3"
  type: "InnerProduct"
  bottom: "ip2"
  top: "ip3"
  param {
    lr_mult: 1
  }
  param {
    lr_mult: 2
  }
  inner_product_param {
    num_output: 10
    weight_filler {
      type: "xavier"
    }
    bias_filler {
      type: "constant"
    }
  }
}
layer {
  name: "relu3"
  type: "ReLU"
  bottom: "ip3"
  top: "ip3"
}
layer {
  name: "loss"
  type: "SoftmaxWithLoss"
  bottom: "ip3"
  bottom: "label"
  top: "loss"
}
I0428 19:37:53.903023 23935 layer_factory.hpp:77] Creating layer mnist
I0428 19:37:53.903127 23935 db_lmdb.cpp:35] Opened lmdb examples/mnist/mnist_train_lmdb
I0428 19:37:53.903152 23935 net.cpp:86] Creating Layer mnist
I0428 19:37:53.903163 23935 net.cpp:382] mnist -> data
I0428 19:37:53.903185 23935 net.cpp:382] mnist -> label
I0428 19:37:53.904276 23935 data_layer.cpp:45] output data size: 64,1,28,28
I0428 19:37:53.906744 23935 net.cpp:124] Setting up mnist
I0428 19:37:53.906761 23935 net.cpp:131] Top shape: 64 1 28 28 (50176)
I0428 19:37:53.906767 23935 net.cpp:131] Top shape: 64 (64)
I0428 19:37:53.906771 23935 net.cpp:139] Memory required for data: 200960
I0428 19:37:53.906779 23935 layer_factory.hpp:77] Creating layer conv0
I0428 19:37:53.906816 23935 net.cpp:86] Creating Layer conv0
I0428 19:37:53.906826 23935 net.cpp:408] conv0 <- data
I0428 19:37:53.906839 23935 net.cpp:382] conv0 -> conv0
I0428 19:37:54.199676 23935 net.cpp:124] Setting up conv0
I0428 19:37:54.199708 23935 net.cpp:131] Top shape: 64 100 24 24 (3686400)
I0428 19:37:54.199713 23935 net.cpp:139] Memory required for data: 14946560
I0428 19:37:54.199731 23935 layer_factory.hpp:77] Creating layer pool0
I0428 19:37:54.199746 23935 net.cpp:86] Creating Layer pool0
I0428 19:37:54.199774 23935 net.cpp:408] pool0 <- conv0
I0428 19:37:54.199784 23935 net.cpp:382] pool0 -> pool0
I0428 19:37:54.199842 23935 net.cpp:124] Setting up pool0
I0428 19:37:54.199851 23935 net.cpp:131] Top shape: 64 100 12 12 (921600)
I0428 19:37:54.199856 23935 net.cpp:139] Memory required for data: 18632960
I0428 19:37:54.199859 23935 layer_factory.hpp:77] Creating layer ip1
I0428 19:37:54.199868 23935 net.cpp:86] Creating Layer ip1
I0428 19:37:54.199872 23935 net.cpp:408] ip1 <- pool0
I0428 19:37:54.199878 23935 net.cpp:382] ip1 -> ip1
I0428 19:37:54.206030 23935 net.cpp:124] Setting up ip1
I0428 19:37:54.206046 23935 net.cpp:131] Top shape: 64 50 (3200)
I0428 19:37:54.206050 23935 net.cpp:139] Memory required for data: 18645760
I0428 19:37:54.206060 23935 layer_factory.hpp:77] Creating layer relu1
I0428 19:37:54.206068 23935 net.cpp:86] Creating Layer relu1
I0428 19:37:54.206073 23935 net.cpp:408] relu1 <- ip1
I0428 19:37:54.206079 23935 net.cpp:369] relu1 -> ip1 (in-place)
I0428 19:37:54.206288 23935 net.cpp:124] Setting up relu1
I0428 19:37:54.206300 23935 net.cpp:131] Top shape: 64 50 (3200)
I0428 19:37:54.206303 23935 net.cpp:139] Memory required for data: 18658560
I0428 19:37:54.206307 23935 layer_factory.hpp:77] Creating layer ip2
I0428 19:37:54.206315 23935 net.cpp:86] Creating Layer ip2
I0428 19:37:54.206320 23935 net.cpp:408] ip2 <- ip1
I0428 19:37:54.206326 23935 net.cpp:382] ip2 -> ip2
I0428 19:37:54.206442 23935 net.cpp:124] Setting up ip2
I0428 19:37:54.206451 23935 net.cpp:131] Top shape: 64 10 (640)
I0428 19:37:54.206455 23935 net.cpp:139] Memory required for data: 18661120
I0428 19:37:54.206465 23935 layer_factory.hpp:77] Creating layer relu2
I0428 19:37:54.206470 23935 net.cpp:86] Creating Layer relu2
I0428 19:37:54.206473 23935 net.cpp:408] relu2 <- ip2
I0428 19:37:54.206480 23935 net.cpp:369] relu2 -> ip2 (in-place)
I0428 19:37:54.207339 23935 net.cpp:124] Setting up relu2
I0428 19:37:54.207353 23935 net.cpp:131] Top shape: 64 10 (640)
I0428 19:37:54.207357 23935 net.cpp:139] Memory required for data: 18663680
I0428 19:37:54.207362 23935 layer_factory.hpp:77] Creating layer ip3
I0428 19:37:54.207370 23935 net.cpp:86] Creating Layer ip3
I0428 19:37:54.207375 23935 net.cpp:408] ip3 <- ip2
I0428 19:37:54.207381 23935 net.cpp:382] ip3 -> ip3
I0428 19:37:54.207496 23935 net.cpp:124] Setting up ip3
I0428 19:37:54.207505 23935 net.cpp:131] Top shape: 64 10 (640)
I0428 19:37:54.207509 23935 net.cpp:139] Memory required for data: 18666240
I0428 19:37:54.207516 23935 layer_factory.hpp:77] Creating layer relu3
I0428 19:37:54.207523 23935 net.cpp:86] Creating Layer relu3
I0428 19:37:54.207527 23935 net.cpp:408] relu3 <- ip3
I0428 19:37:54.207532 23935 net.cpp:369] relu3 -> ip3 (in-place)
I0428 19:37:54.207710 23935 net.cpp:124] Setting up relu3
I0428 19:37:54.207721 23935 net.cpp:131] Top shape: 64 10 (640)
I0428 19:37:54.207726 23935 net.cpp:139] Memory required for data: 18668800
I0428 19:37:54.207729 23935 layer_factory.hpp:77] Creating layer loss
I0428 19:37:54.207736 23935 net.cpp:86] Creating Layer loss
I0428 19:37:54.207741 23935 net.cpp:408] loss <- ip3
I0428 19:37:54.207744 23935 net.cpp:408] loss <- label
I0428 19:37:54.207751 23935 net.cpp:382] loss -> loss
I0428 19:37:54.207768 23935 layer_factory.hpp:77] Creating layer loss
…
I0428 19:37:54.208464 23935 solver.cpp:173] Creating test net (#0) specified by net file: ECE595/mnist/train_test/var_everything2/lenet_train_test265.prototxt
I0428 19:37:54.208493 23935 net.cpp:296] The NetState phase (1) differed from the phase (0) specified by a rule in layer mnist
I0428 19:37:54.208588 23935 net.cpp:53] Initializing net from parameters: 
name: "LeNet"
state {
  phase: TEST
}
layer {
  name: "mnist"
  type: "Data"
  top: "data"
  top: "label"
  include {
    phase: TEST
  }
  transform_param {
    scale: 0.00390625
  }
  data_param {
    source: "examples/mnist/mnist_test_lmdb"
    batch_size: 100
    backend: LMDB
  }
}
layer {
  name: "conv0"
  type: "Convolution"
  bottom: "data"
  top: "conv0"
  param {
    lr_mult: 1
  }
  param {
    lr_mult: 2
  }
  convolution_param {
    num_output: 100
    kernel_size: 5
    stride: 1
    weight_filler {
      type: "xavier"
    }
    bias_filler {
      type: "constant"
    }
  }
}
layer {
  name: "pool0"
  type: "Pooling"
  bottom: "conv0"
  top: "pool0"
  pooling_param {
    pool: MAX
    kernel_size: 2
    stride: 2
  }
}
layer {
  name: "ip1"
  type: "InnerProduct"
  bottom: "pool0"
  top: "ip1"
  param {
    lr_mult: 1
  }
  param {
    lr_mult: 2
  }
  inner_product_param {
    num_output: 50
    weight_filler {
      type: "xavier"
    }
    bias_filler {
      type: "constant"
    }
  }
}
layer {
  name: "relu1"
  type: "ReLU"
  bottom: "ip1"
  top: "ip1"
}
layer {
  name: "ip2"
  type: "InnerProduct"
  bottom: "ip1"
  top: "ip2"
  param {
    lr_mult: 1
  }
  param {
    lr_mult: 2
  }
  inner_product_param {
    num_output: 10
    weight_filler {
      type: "xavier"
    }
    bias_filler {
      type: "constant"
    }
  }
}
layer {
  name: "relu2"
  type: "ReLU"
  bottom: "ip2"
  top: "ip2"
}
layer {
  name: "ip3"
  type: "InnerProduct"
  bottom: "ip2"
  top: "ip3"
  param {
    lr_mult: 1
  }
  param {
    lr_mult: 2
  }
  inner_product_param {
    num_output: 10
    weight_filler {
      type: "xavier"
    }
    bias_filler {
      type: "constant"
    }
  }
}
layer {
  name: "relu3"
  type: "ReLU"
  bottom: "ip3"
  top: "ip3"
}
layer {
  name: "accuracy"
  type: "Accuracy"
  bottom: "ip3"
  bottom: "label"
  top: "accuracy"
  include {
    phase: TEST
  }
}
layer {
  name: "loss"
  type: "SoftmaxWithLoss"
  bottom: "ip3"
  bottom: "label"
  top: "loss"
}
I0428 19:37:54.208662 23935 layer_factory.hpp:77] Creating layer mnist
I0428 19:37:54.208714 23935 db_lmdb.cpp:35] Opened lmdb examples/mnist/mnist_test_lmdb
I0428 19:37:54.208727 23935 net.cpp:86] Creating Layer mnist
I0428 19:37:54.208734 23935 net.cpp:382] mnist -> data
I0428 19:37:54.208742 23935 net.cpp:382] mnist -> label
I0428 19:37:54.208849 23935 data_layer.cpp:45] output data size: 100,1,28,28
I0428 19:37:54.211030 23935 net.cpp:124] Setting up mnist
I0428 19:37:54.211045 23935 net.cpp:131] Top shape: 100 1 28 28 (78400)
I0428 19:37:54.211051 23935 net.cpp:131] Top shape: 100 (100)
I0428 19:37:54.211055 23935 net.cpp:139] Memory required for data: 314000
I0428 19:37:54.211060 23935 layer_factory.hpp:77] Creating layer label_mnist_1_split
I0428 19:37:54.211067 23935 net.cpp:86] Creating Layer label_mnist_1_split
I0428 19:37:54.211071 23935 net.cpp:408] label_mnist_1_split <- label
I0428 19:37:54.211078 23935 net.cpp:382] label_mnist_1_split -> label_mnist_1_split_0
I0428 19:37:54.211086 23935 net.cpp:382] label_mnist_1_split -> label_mnist_1_split_1
I0428 19:37:54.211215 23935 net.cpp:124] Setting up label_mnist_1_split
I0428 19:37:54.211225 23935 net.cpp:131] Top shape: 100 (100)
I0428 19:37:54.211230 23935 net.cpp:131] Top shape: 100 (100)
I0428 19:37:54.211233 23935 net.cpp:139] Memory required for data: 314800
I0428 19:37:54.211251 23935 layer_factory.hpp:77] Creating layer conv0
I0428 19:37:54.211262 23935 net.cpp:86] Creating Layer conv0
I0428 19:37:54.211266 23935 net.cpp:408] conv0 <- data
I0428 19:37:54.211272 23935 net.cpp:382] conv0 -> conv0
I0428 19:37:54.212985 23935 net.cpp:124] Setting up conv0
I0428 19:37:54.213001 23935 net.cpp:131] Top shape: 100 100 24 24 (5760000)
I0428 19:37:54.213006 23935 net.cpp:139] Memory required for data: 23354800
I0428 19:37:54.213017 23935 layer_factory.hpp:77] Creating layer pool0
I0428 19:37:54.213026 23935 net.cpp:86] Creating Layer pool0
I0428 19:37:54.213030 23935 net.cpp:408] pool0 <- conv0
I0428 19:37:54.213037 23935 net.cpp:382] pool0 -> pool0
I0428 19:37:54.213080 23935 net.cpp:124] Setting up pool0
I0428 19:37:54.213088 23935 net.cpp:131] Top shape: 100 100 12 12 (1440000)
I0428 19:37:54.213091 23935 net.cpp:139] Memory required for data: 29114800
I0428 19:37:54.213094 23935 layer_factory.hpp:77] Creating layer ip1
I0428 19:37:54.213102 23935 net.cpp:86] Creating Layer ip1
I0428 19:37:54.213107 23935 net.cpp:408] ip1 <- pool0
I0428 19:37:54.213114 23935 net.cpp:382] ip1 -> ip1
I0428 19:37:54.219277 23935 net.cpp:124] Setting up ip1
I0428 19:37:54.219292 23935 net.cpp:131] Top shape: 100 50 (5000)
I0428 19:37:54.219297 23935 net.cpp:139] Memory required for data: 29134800
I0428 19:37:54.219307 23935 layer_factory.hpp:77] Creating layer relu1
I0428 19:37:54.219313 23935 net.cpp:86] Creating Layer relu1
I0428 19:37:54.219318 23935 net.cpp:408] relu1 <- ip1
I0428 19:37:54.219326 23935 net.cpp:369] relu1 -> ip1 (in-place)
I0428 19:37:54.219522 23935 net.cpp:124] Setting up relu1
I0428 19:37:54.219533 23935 net.cpp:131] Top shape: 100 50 (5000)
I0428 19:37:54.219537 23935 net.cpp:139] Memory required for data: 29154800
I0428 19:37:54.219542 23935 layer_factory.hpp:77] Creating layer ip2
I0428 19:37:54.219548 23935 net.cpp:86] Creating Layer ip2
I0428 19:37:54.219552 23935 net.cpp:408] ip2 <- ip1
I0428 19:37:54.219558 23935 net.cpp:382] ip2 -> ip2
I0428 19:37:54.219681 23935 net.cpp:124] Setting up ip2
I0428 19:37:54.219689 23935 net.cpp:131] Top shape: 100 10 (1000)
I0428 19:37:54.219693 23935 net.cpp:139] Memory required for data: 29158800
I0428 19:37:54.219702 23935 layer_factory.hpp:77] Creating layer relu2
I0428 19:37:54.219707 23935 net.cpp:86] Creating Layer relu2
I0428 19:37:54.219712 23935 net.cpp:408] relu2 <- ip2
I0428 19:37:54.219717 23935 net.cpp:369] relu2 -> ip2 (in-place)
I0428 19:37:54.220577 23935 net.cpp:124] Setting up relu2
I0428 19:37:54.220592 23935 net.cpp:131] Top shape: 100 10 (1000)
I0428 19:37:54.220597 23935 net.cpp:139] Memory required for data: 29162800
I0428 19:37:54.220602 23935 layer_factory.hpp:77] Creating layer ip3
I0428 19:37:54.220610 23935 net.cpp:86] Creating Layer ip3
I0428 19:37:54.220614 23935 net.cpp:408] ip3 <- ip2
I0428 19:37:54.220621 23935 net.cpp:382] ip3 -> ip3
I0428 19:37:54.220742 23935 net.cpp:124] Setting up ip3
I0428 19:37:54.220752 23935 net.cpp:131] Top shape: 100 10 (1000)
I0428 19:37:54.220757 23935 net.cpp:139] Memory required for data: 29166800
I0428 19:37:54.220763 23935 layer_factory.hpp:77] Creating layer relu3
I0428 19:37:54.220768 23935 net.cpp:86] Creating Layer relu3
I0428 19:37:54.220772 23935 net.cpp:408] relu3 <- ip3
I0428 19:37:54.220777 23935 net.cpp:369] relu3 -> ip3 (in-place)
I0428 19:37:54.220966 23935 net.cpp:124] Setting up relu3
I0428 19:37:54.220978 23935 net.cpp:131] Top shape: 100 10 (1000)
I0428 19:37:54.220983 23935 net.cpp:139] Memory required for data: 29170800
I0428 19:37:54.220986 23935 layer_factory.hpp:77] Creating layer ip3_relu3_0_split
I0428 19:37:54.220993 23935 net.cpp:86] Creating Layer ip3_relu3_0_split
I0428 19:37:54.220996 23935 net.cpp:408] ip3_relu3_0_split <- ip3
I0428 19:37:54.221001 23935 net.cpp:382] ip3_relu3_0_split -> ip3_relu3_0_split_0
I0428 19:37:54.221009 23935 net.cpp:382] ip3_relu3_0_split -> ip3_relu3_0_split_1
I0428 19:37:54.221050 23935 net.cpp:124] Setting up ip3_relu3_0_split
I0428 19:37:54.221057 23935 net.cpp:131] Top shape: 100 10 (1000)
I0428 19:37:54.221074 23935 net.cpp:131] Top shape: 100 10 (1000)
I0428 19:37:54.221079 23935 net.cpp:139] Memory required for data: 29178800
I0428 19:37:54.221082 23935 layer_factory.hpp:77] Creating layer accuracy
I0428 19:37:54.221089 23935 net.cpp:86] Creating Layer accuracy
I0428 19:37:54.221093 23935 net.cpp:408] accuracy <- ip3_relu3_0_split_0
I0428 19:37:54.221098 23935 net.cpp:408] accuracy <- label_mnist_1_split_0
I0428 19:37:54.221103 23935 net.cpp:382] accuracy -> accuracy
…
