…
I0428 20:01:06.464114 29651 net.cpp:296] The NetState phase (0) differed from the phase (1) specified by a rule in layer mnist
I0428 20:01:06.464130 29651 net.cpp:296] The NetState phase (0) differed from the phase (1) specified by a rule in layer accuracy
I0428 20:01:06.464212 29651 net.cpp:53] Initializing net from parameters: 
name: "LeNet"
state {
  phase: TRAIN
  level: 0
  stage: ""
}
layer {
  name: "mnist"
  type: "Data"
  top: "data"
  top: "label"
  include {
    phase: TRAIN
  }
  transform_param {
    scale: 0.00390625
  }
  data_param {
    source: "examples/mnist/mnist_train_lmdb"
    batch_size: 64
    backend: LMDB
  }
}
layer {
  name: "conv0"
  type: "Convolution"
  bottom: "data"
  top: "conv0"
  param {
    lr_mult: 1
  }
  param {
    lr_mult: 2
  }
  convolution_param {
    num_output: 10
    kernel_size: 5
    stride: 1
    weight_filler {
      type: "xavier"
    }
    bias_filler {
      type: "constant"
    }
  }
}
layer {
  name: "pool0"
  type: "Pooling"
  bottom: "conv0"
  top: "pool0"
  pooling_param {
    pool: MAX
    kernel_size: 2
    stride: 2
  }
}
layer {
  name: "conv1"
  type: "Convolution"
  bottom: "pool0"
  top: "conv1"
  param {
    lr_mult: 1
  }
  param {
    lr_mult: 2
  }
  convolution_param {
    num_output: 25
    kernel_size: 5
    stride: 1
    weight_filler {
      type: "xavier"
    }
    bias_filler {
      type: "constant"
    }
  }
}
layer {
  name: "pool1"
  type: "Pooling"
  bottom: "conv1"
  top: "pool1"
  pooling_param {
    pool: MAX
    kernel_size: 2
    stride: 2
  }
}
layer {
  name: "ip1"
  type: "InnerProduct"
  bottom: "pool1"
  top: "ip1"
  param {
    lr_mult: 1
  }
  param {
    lr_mult: 2
  }
  inner_product_param {
    num_output: 50
    weight_filler {
      type: "xavier"
    }
    bias_filler {
      type: "constant"
    }
  }
}
layer {
  name: "relu1"
  type: "ReLU"
  bottom: "ip1"
  top: "ip1"
}
layer {
  name: "ip2"
  type: "InnerProduct"
  bottom: "ip1"
  top: "ip2"
  param {
    lr_mult: 1
  }
  param {
    lr_mult: 2
  }
  inner_product_param {
    num_output: 50
    weight_filler {
      type: "xavier"
    }
    bias_filler {
      type: "constant"
    }
  }
}
layer {
  name: "relu2"
  type: "ReLU"
  bottom: "ip2"
  top: "ip2"
}
layer {
  name: "ip3"
  type: "InnerProduct"
  bottom: "ip2"
  top: "ip3"
  param {
    lr_mult: 1
  }
  param {
    lr_mult: 2
  }
  inner_product_param {
    num_output: 10
    weight_filler {
      type: "xavier"
    }
    bias_filler {
      type: "constant"
    }
  }
}
layer {
  name: "relu3"
  type: "ReLU"
  bottom: "ip3"
  top: "ip3"
}
layer {
  name: "loss"
  type: "SoftmaxWithLoss"
  bottom: "ip3"
  bottom: "label"
  top: "loss"
}
I0428 20:01:06.464290 29651 layer_factory.hpp:77] Creating layer mnist
I0428 20:01:06.464368 29651 db_lmdb.cpp:35] Opened lmdb examples/mnist/mnist_train_lmdb
I0428 20:01:06.464387 29651 net.cpp:86] Creating Layer mnist
I0428 20:01:06.464395 29651 net.cpp:382] mnist -> data
I0428 20:01:06.464412 29651 net.cpp:382] mnist -> label
I0428 20:01:06.465443 29651 data_layer.cpp:45] output data size: 64,1,28,28
I0428 20:01:06.467797 29651 net.cpp:124] Setting up mnist
I0428 20:01:06.467810 29651 net.cpp:131] Top shape: 64 1 28 28 (50176)
I0428 20:01:06.467815 29651 net.cpp:131] Top shape: 64 (64)
I0428 20:01:06.467818 29651 net.cpp:139] Memory required for data: 200960
I0428 20:01:06.467823 29651 layer_factory.hpp:77] Creating layer conv0
I0428 20:01:06.467864 29651 net.cpp:86] Creating Layer conv0
I0428 20:01:06.467881 29651 net.cpp:408] conv0 <- data
I0428 20:01:06.467892 29651 net.cpp:382] conv0 -> conv0
I0428 20:01:06.699764 29651 net.cpp:124] Setting up conv0
I0428 20:01:06.699790 29651 net.cpp:131] Top shape: 64 10 24 24 (368640)
I0428 20:01:06.699795 29651 net.cpp:139] Memory required for data: 1675520
I0428 20:01:06.699810 29651 layer_factory.hpp:77] Creating layer pool0
I0428 20:01:06.699821 29651 net.cpp:86] Creating Layer pool0
I0428 20:01:06.699826 29651 net.cpp:408] pool0 <- conv0
I0428 20:01:06.699831 29651 net.cpp:382] pool0 -> pool0
I0428 20:01:06.699892 29651 net.cpp:124] Setting up pool0
I0428 20:01:06.699898 29651 net.cpp:131] Top shape: 64 10 12 12 (92160)
I0428 20:01:06.699900 29651 net.cpp:139] Memory required for data: 2044160
I0428 20:01:06.699903 29651 layer_factory.hpp:77] Creating layer conv1
I0428 20:01:06.699913 29651 net.cpp:86] Creating Layer conv1
I0428 20:01:06.699918 29651 net.cpp:408] conv1 <- pool0
I0428 20:01:06.699921 29651 net.cpp:382] conv1 -> conv1
I0428 20:01:06.702713 29651 net.cpp:124] Setting up conv1
I0428 20:01:06.702744 29651 net.cpp:131] Top shape: 64 25 8 8 (102400)
I0428 20:01:06.702746 29651 net.cpp:139] Memory required for data: 2453760
I0428 20:01:06.702756 29651 layer_factory.hpp:77] Creating layer pool1
I0428 20:01:06.702764 29651 net.cpp:86] Creating Layer pool1
I0428 20:01:06.702769 29651 net.cpp:408] pool1 <- conv1
I0428 20:01:06.702774 29651 net.cpp:382] pool1 -> pool1
I0428 20:01:06.702812 29651 net.cpp:124] Setting up pool1
I0428 20:01:06.702818 29651 net.cpp:131] Top shape: 64 25 4 4 (25600)
I0428 20:01:06.702821 29651 net.cpp:139] Memory required for data: 2556160
I0428 20:01:06.702823 29651 layer_factory.hpp:77] Creating layer ip1
I0428 20:01:06.702836 29651 net.cpp:86] Creating Layer ip1
I0428 20:01:06.702838 29651 net.cpp:408] ip1 <- pool1
I0428 20:01:06.702842 29651 net.cpp:382] ip1 -> ip1
I0428 20:01:06.703058 29651 net.cpp:124] Setting up ip1
I0428 20:01:06.703065 29651 net.cpp:131] Top shape: 64 50 (3200)
I0428 20:01:06.703068 29651 net.cpp:139] Memory required for data: 2568960
I0428 20:01:06.703075 29651 layer_factory.hpp:77] Creating layer relu1
I0428 20:01:06.703080 29651 net.cpp:86] Creating Layer relu1
I0428 20:01:06.703083 29651 net.cpp:408] relu1 <- ip1
I0428 20:01:06.703088 29651 net.cpp:369] relu1 -> ip1 (in-place)
I0428 20:01:06.703243 29651 net.cpp:124] Setting up relu1
I0428 20:01:06.703251 29651 net.cpp:131] Top shape: 64 50 (3200)
I0428 20:01:06.703254 29651 net.cpp:139] Memory required for data: 2581760
I0428 20:01:06.703258 29651 layer_factory.hpp:77] Creating layer ip2
I0428 20:01:06.703264 29651 net.cpp:86] Creating Layer ip2
I0428 20:01:06.703268 29651 net.cpp:408] ip2 <- ip1
I0428 20:01:06.703271 29651 net.cpp:382] ip2 -> ip2
I0428 20:01:06.704264 29651 net.cpp:124] Setting up ip2
I0428 20:01:06.704277 29651 net.cpp:131] Top shape: 64 50 (3200)
I0428 20:01:06.704295 29651 net.cpp:139] Memory required for data: 2594560
I0428 20:01:06.704301 29651 layer_factory.hpp:77] Creating layer relu2
I0428 20:01:06.704308 29651 net.cpp:86] Creating Layer relu2
I0428 20:01:06.704311 29651 net.cpp:408] relu2 <- ip2
I0428 20:01:06.704318 29651 net.cpp:369] relu2 -> ip2 (in-place)
I0428 20:01:06.705152 29651 net.cpp:124] Setting up relu2
I0428 20:01:06.705164 29651 net.cpp:131] Top shape: 64 50 (3200)
I0428 20:01:06.705168 29651 net.cpp:139] Memory required for data: 2607360
I0428 20:01:06.705171 29651 layer_factory.hpp:77] Creating layer ip3
I0428 20:01:06.705179 29651 net.cpp:86] Creating Layer ip3
I0428 20:01:06.705183 29651 net.cpp:408] ip3 <- ip2
I0428 20:01:06.705188 29651 net.cpp:382] ip3 -> ip3
I0428 20:01:06.705293 29651 net.cpp:124] Setting up ip3
I0428 20:01:06.705302 29651 net.cpp:131] Top shape: 64 10 (640)
I0428 20:01:06.705305 29651 net.cpp:139] Memory required for data: 2609920
I0428 20:01:06.705327 29651 layer_factory.hpp:77] Creating layer relu3
I0428 20:01:06.705334 29651 net.cpp:86] Creating Layer relu3
I0428 20:01:06.705338 29651 net.cpp:408] relu3 <- ip3
I0428 20:01:06.705340 29651 net.cpp:369] relu3 -> ip3 (in-place)
I0428 20:01:06.705507 29651 net.cpp:124] Setting up relu3
I0428 20:01:06.705515 29651 net.cpp:131] Top shape: 64 10 (640)
I0428 20:01:06.705518 29651 net.cpp:139] Memory required for data: 2612480
I0428 20:01:06.705521 29651 layer_factory.hpp:77] Creating layer loss
I0428 20:01:06.705529 29651 net.cpp:86] Creating Layer loss
I0428 20:01:06.705533 29651 net.cpp:408] loss <- ip3
I0428 20:01:06.705536 29651 net.cpp:408] loss <- label
I0428 20:01:06.705543 29651 net.cpp:382] loss -> loss
I0428 20:01:06.705559 29651 layer_factory.hpp:77] Creating layer loss
…
I0428 20:01:06.706264 29651 solver.cpp:173] Creating test net (#0) specified by net file: ECE595/mnist/train_test/var_everything2/lenet_train_test894.prototxt
I0428 20:01:06.706306 29651 net.cpp:296] The NetState phase (1) differed from the phase (0) specified by a rule in layer mnist
I0428 20:01:06.706409 29651 net.cpp:53] Initializing net from parameters: 
name: "LeNet"
state {
  phase: TEST
}
layer {
  name: "mnist"
  type: "Data"
  top: "data"
  top: "label"
  include {
    phase: TEST
  }
  transform_param {
    scale: 0.00390625
  }
  data_param {
    source: "examples/mnist/mnist_test_lmdb"
    batch_size: 100
    backend: LMDB
  }
}
layer {
  name: "conv0"
  type: "Convolution"
  bottom: "data"
  top: "conv0"
  param {
    lr_mult: 1
  }
  param {
    lr_mult: 2
  }
  convolution_param {
    num_output: 10
    kernel_size: 5
    stride: 1
    weight_filler {
      type: "xavier"
    }
    bias_filler {
      type: "constant"
    }
  }
}
layer {
  name: "pool0"
  type: "Pooling"
  bottom: "conv0"
  top: "pool0"
  pooling_param {
    pool: MAX
    kernel_size: 2
    stride: 2
  }
}
layer {
  name: "conv1"
  type: "Convolution"
  bottom: "pool0"
  top: "conv1"
  param {
    lr_mult: 1
  }
  param {
    lr_mult: 2
  }
  convolution_param {
    num_output: 25
    kernel_size: 5
    stride: 1
    weight_filler {
      type: "xavier"
    }
    bias_filler {
      type: "constant"
    }
  }
}
layer {
  name: "pool1"
  type: "Pooling"
  bottom: "conv1"
  top: "pool1"
  pooling_param {
    pool: MAX
    kernel_size: 2
    stride: 2
  }
}
layer {
  name: "ip1"
  type: "InnerProduct"
  bottom: "pool1"
  top: "ip1"
  param {
    lr_mult: 1
  }
  param {
    lr_mult: 2
  }
  inner_product_param {
    num_output: 50
    weight_filler {
      type: "xavier"
    }
    bias_filler {
      type: "constant"
    }
  }
}
layer {
  name: "relu1"
  type: "ReLU"
  bottom: "ip1"
  top: "ip1"
}
layer {
  name: "ip2"
  type: "InnerProduct"
  bottom: "ip1"
  top: "ip2"
  param {
    lr_mult: 1
  }
  param {
    lr_mult: 2
  }
  inner_product_param {
    num_output: 50
    weight_filler {
      type: "xavier"
    }
    bias_filler {
      type: "constant"
    }
  }
}
layer {
  name: "relu2"
  type: "ReLU"
  bottom: "ip2"
  top: "ip2"
}
layer {
  name: "ip3"
  type: "InnerProduct"
  bottom: "ip2"
  top: "ip3"
  param {
    lr_mult: 1
  }
  param {
    lr_mult: 2
  }
  inner_product_param {
    num_output: 10
    weight_filler {
      type: "xavier"
    }
    bias_filler {
      type: "constant"
    }
  }
}
layer {
  name: "relu3"
  type: "ReLU"
  bottom: "ip3"
  top: "ip3"
}
layer {
  name: "accuracy"
  type: "Accuracy"
  bottom: "ip3"
  bottom: "label"
  top: "accuracy"
  include {
    phase: TEST
  }
}
layer {
  name: "loss"
  type: "SoftmaxWithLoss"
  bottom: "ip3"
  bottom: "label"
  top: "loss"
}
I0428 20:01:06.706488 29651 layer_factory.hpp:77] Creating layer mnist
I0428 20:01:06.706531 29651 db_lmdb.cpp:35] Opened lmdb examples/mnist/mnist_test_lmdb
I0428 20:01:06.706542 29651 net.cpp:86] Creating Layer mnist
I0428 20:01:06.706547 29651 net.cpp:382] mnist -> data
I0428 20:01:06.706554 29651 net.cpp:382] mnist -> label
I0428 20:01:06.706636 29651 data_layer.cpp:45] output data size: 100,1,28,28
I0428 20:01:06.708492 29651 net.cpp:124] Setting up mnist
I0428 20:01:06.708504 29651 net.cpp:131] Top shape: 100 1 28 28 (78400)
I0428 20:01:06.708509 29651 net.cpp:131] Top shape: 100 (100)
I0428 20:01:06.708513 29651 net.cpp:139] Memory required for data: 314000
I0428 20:01:06.708515 29651 layer_factory.hpp:77] Creating layer label_mnist_1_split
I0428 20:01:06.708552 29651 net.cpp:86] Creating Layer label_mnist_1_split
I0428 20:01:06.708556 29651 net.cpp:408] label_mnist_1_split <- label
I0428 20:01:06.708582 29651 net.cpp:382] label_mnist_1_split -> label_mnist_1_split_0
I0428 20:01:06.708588 29651 net.cpp:382] label_mnist_1_split -> label_mnist_1_split_1
I0428 20:01:06.708643 29651 net.cpp:124] Setting up label_mnist_1_split
I0428 20:01:06.708657 29651 net.cpp:131] Top shape: 100 (100)
I0428 20:01:06.708662 29651 net.cpp:131] Top shape: 100 (100)
I0428 20:01:06.708664 29651 net.cpp:139] Memory required for data: 314800
I0428 20:01:06.708667 29651 layer_factory.hpp:77] Creating layer conv0
I0428 20:01:06.708676 29651 net.cpp:86] Creating Layer conv0
I0428 20:01:06.708679 29651 net.cpp:408] conv0 <- data
I0428 20:01:06.708684 29651 net.cpp:382] conv0 -> conv0
I0428 20:01:06.710551 29651 net.cpp:124] Setting up conv0
I0428 20:01:06.710563 29651 net.cpp:131] Top shape: 100 10 24 24 (576000)
I0428 20:01:06.710567 29651 net.cpp:139] Memory required for data: 2618800
I0428 20:01:06.710577 29651 layer_factory.hpp:77] Creating layer pool0
I0428 20:01:06.710583 29651 net.cpp:86] Creating Layer pool0
I0428 20:01:06.710587 29651 net.cpp:408] pool0 <- conv0
I0428 20:01:06.710592 29651 net.cpp:382] pool0 -> pool0
I0428 20:01:06.710628 29651 net.cpp:124] Setting up pool0
I0428 20:01:06.710633 29651 net.cpp:131] Top shape: 100 10 12 12 (144000)
I0428 20:01:06.710635 29651 net.cpp:139] Memory required for data: 3194800
I0428 20:01:06.710638 29651 layer_factory.hpp:77] Creating layer conv1
I0428 20:01:06.710646 29651 net.cpp:86] Creating Layer conv1
I0428 20:01:06.710649 29651 net.cpp:408] conv1 <- pool0
I0428 20:01:06.710655 29651 net.cpp:382] conv1 -> conv1
I0428 20:01:06.712832 29651 net.cpp:124] Setting up conv1
I0428 20:01:06.712846 29651 net.cpp:131] Top shape: 100 25 8 8 (160000)
I0428 20:01:06.712851 29651 net.cpp:139] Memory required for data: 3834800
I0428 20:01:06.712860 29651 layer_factory.hpp:77] Creating layer pool1
I0428 20:01:06.712882 29651 net.cpp:86] Creating Layer pool1
I0428 20:01:06.712885 29651 net.cpp:408] pool1 <- conv1
I0428 20:01:06.712890 29651 net.cpp:382] pool1 -> pool1
I0428 20:01:06.712930 29651 net.cpp:124] Setting up pool1
I0428 20:01:06.712936 29651 net.cpp:131] Top shape: 100 25 4 4 (40000)
I0428 20:01:06.712939 29651 net.cpp:139] Memory required for data: 3994800
I0428 20:01:06.712942 29651 layer_factory.hpp:77] Creating layer ip1
I0428 20:01:06.712949 29651 net.cpp:86] Creating Layer ip1
I0428 20:01:06.712959 29651 net.cpp:408] ip1 <- pool1
I0428 20:01:06.712965 29651 net.cpp:382] ip1 -> ip1
I0428 20:01:06.713212 29651 net.cpp:124] Setting up ip1
I0428 20:01:06.713220 29651 net.cpp:131] Top shape: 100 50 (5000)
I0428 20:01:06.713233 29651 net.cpp:139] Memory required for data: 4014800
I0428 20:01:06.713240 29651 layer_factory.hpp:77] Creating layer relu1
I0428 20:01:06.713248 29651 net.cpp:86] Creating Layer relu1
I0428 20:01:06.713250 29651 net.cpp:408] relu1 <- ip1
I0428 20:01:06.713255 29651 net.cpp:369] relu1 -> ip1 (in-place)
I0428 20:01:06.713485 29651 net.cpp:124] Setting up relu1
I0428 20:01:06.713495 29651 net.cpp:131] Top shape: 100 50 (5000)
I0428 20:01:06.713513 29651 net.cpp:139] Memory required for data: 4034800
I0428 20:01:06.713516 29651 layer_factory.hpp:77] Creating layer ip2
I0428 20:01:06.713523 29651 net.cpp:86] Creating Layer ip2
I0428 20:01:06.713531 29651 net.cpp:408] ip2 <- ip1
I0428 20:01:06.713537 29651 net.cpp:382] ip2 -> ip2
I0428 20:01:06.713654 29651 net.cpp:124] Setting up ip2
I0428 20:01:06.713660 29651 net.cpp:131] Top shape: 100 50 (5000)
I0428 20:01:06.713663 29651 net.cpp:139] Memory required for data: 4054800
I0428 20:01:06.713670 29651 layer_factory.hpp:77] Creating layer relu2
I0428 20:01:06.713675 29651 net.cpp:86] Creating Layer relu2
I0428 20:01:06.713678 29651 net.cpp:408] relu2 <- ip2
I0428 20:01:06.713682 29651 net.cpp:369] relu2 -> ip2 (in-place)
I0428 20:01:06.713843 29651 net.cpp:124] Setting up relu2
I0428 20:01:06.713851 29651 net.cpp:131] Top shape: 100 50 (5000)
I0428 20:01:06.713855 29651 net.cpp:139] Memory required for data: 4074800
I0428 20:01:06.713857 29651 layer_factory.hpp:77] Creating layer ip3
I0428 20:01:06.713865 29651 net.cpp:86] Creating Layer ip3
I0428 20:01:06.713870 29651 net.cpp:408] ip3 <- ip2
I0428 20:01:06.713876 29651 net.cpp:382] ip3 -> ip3
I0428 20:01:06.713994 29651 net.cpp:124] Setting up ip3
I0428 20:01:06.714004 29651 net.cpp:131] Top shape: 100 10 (1000)
I0428 20:01:06.714006 29651 net.cpp:139] Memory required for data: 4078800
I0428 20:01:06.714013 29651 layer_factory.hpp:77] Creating layer relu3
I0428 20:01:06.714018 29651 net.cpp:86] Creating Layer relu3
I0428 20:01:06.714022 29651 net.cpp:408] relu3 <- ip3
I0428 20:01:06.714035 29651 net.cpp:369] relu3 -> ip3 (in-place)
I0428 20:01:06.714848 29651 net.cpp:124] Setting up relu3
I0428 20:01:06.714860 29651 net.cpp:131] Top shape: 100 10 (1000)
I0428 20:01:06.714864 29651 net.cpp:139] Memory required for data: 4082800
I0428 20:01:06.714867 29651 layer_factory.hpp:77] Creating layer ip3_relu3_0_split
I0428 20:01:06.714872 29651 net.cpp:86] Creating Layer ip3_relu3_0_split
I0428 20:01:06.714875 29651 net.cpp:408] ip3_relu3_0_split <- ip3
I0428 20:01:06.714897 29651 net.cpp:382] ip3_relu3_0_split -> ip3_relu3_0_split_0
I0428 20:01:06.714920 29651 net.cpp:382] ip3_relu3_0_split -> ip3_relu3_0_split_1
I0428 20:01:06.715026 29651 net.cpp:124] Setting up ip3_relu3_0_split
I0428 20:01:06.715039 29651 net.cpp:131] Top shape: 100 10 (1000)
I0428 20:01:06.715050 29651 net.cpp:131] Top shape: 100 10 (1000)
I0428 20:01:06.715054 29651 net.cpp:139] Memory required for data: 4090800
I0428 20:01:06.715056 29651 layer_factory.hpp:77] Creating layer accuracy
I0428 20:01:06.715062 29651 net.cpp:86] Creating Layer accuracy
I0428 20:01:06.715066 29651 net.cpp:408] accuracy <- ip3_relu3_0_split_0
I0428 20:01:06.715070 29651 net.cpp:408] accuracy <- label_mnist_1_split_0
I0428 20:01:06.715075 29651 net.cpp:382] accuracy -> accuracy
…
