…
I0428 20:18:45.535194  1231 net.cpp:296] The NetState phase (0) differed from the phase (1) specified by a rule in layer mnist
I0428 20:18:45.535210  1231 net.cpp:296] The NetState phase (0) differed from the phase (1) specified by a rule in layer accuracy
I0428 20:18:45.535290  1231 net.cpp:53] Initializing net from parameters: 
name: "LeNet"
state {
  phase: TRAIN
  level: 0
  stage: ""
}
layer {
  name: "mnist"
  type: "Data"
  top: "data"
  top: "label"
  include {
    phase: TRAIN
  }
  transform_param {
    scale: 0.00390625
  }
  data_param {
    source: "examples/mnist/mnist_train_lmdb"
    batch_size: 64
    backend: LMDB
  }
}
layer {
  name: "conv0"
  type: "Convolution"
  bottom: "data"
  top: "conv0"
  param {
    lr_mult: 1
  }
  param {
    lr_mult: 2
  }
  convolution_param {
    num_output: 50
    kernel_size: 5
    stride: 1
    weight_filler {
      type: "xavier"
    }
    bias_filler {
      type: "constant"
    }
  }
}
layer {
  name: "pool0"
  type: "Pooling"
  bottom: "conv0"
  top: "pool0"
  pooling_param {
    pool: MAX
    kernel_size: 2
    stride: 2
  }
}
layer {
  name: "conv1"
  type: "Convolution"
  bottom: "pool0"
  top: "conv1"
  param {
    lr_mult: 1
  }
  param {
    lr_mult: 2
  }
  convolution_param {
    num_output: 25
    kernel_size: 5
    stride: 1
    weight_filler {
      type: "xavier"
    }
    bias_filler {
      type: "constant"
    }
  }
}
layer {
  name: "pool1"
  type: "Pooling"
  bottom: "conv1"
  top: "pool1"
  pooling_param {
    pool: MAX
    kernel_size: 2
    stride: 2
  }
}
layer {
  name: "ip1"
  type: "InnerProduct"
  bottom: "pool1"
  top: "ip1"
  param {
    lr_mult: 1
  }
  param {
    lr_mult: 2
  }
  inner_product_param {
    num_output: 10
    weight_filler {
      type: "xavier"
    }
    bias_filler {
      type: "constant"
    }
  }
}
layer {
  name: "relu1"
  type: "ReLU"
  bottom: "ip1"
  top: "ip1"
}
layer {
  name: "loss"
  type: "SoftmaxWithLoss"
  bottom: "ip1"
  bottom: "label"
  top: "loss"
}
I0428 20:18:45.535358  1231 layer_factory.hpp:77] Creating layer mnist
I0428 20:18:45.535454  1231 db_lmdb.cpp:35] Opened lmdb examples/mnist/mnist_train_lmdb
I0428 20:18:45.535476  1231 net.cpp:86] Creating Layer mnist
I0428 20:18:45.535483  1231 net.cpp:382] mnist -> data
I0428 20:18:45.535506  1231 net.cpp:382] mnist -> label
I0428 20:18:45.536561  1231 data_layer.cpp:45] output data size: 64,1,28,28
I0428 20:18:45.538965  1231 net.cpp:124] Setting up mnist
I0428 20:18:45.538992  1231 net.cpp:131] Top shape: 64 1 28 28 (50176)
I0428 20:18:45.539000  1231 net.cpp:131] Top shape: 64 (64)
I0428 20:18:45.539002  1231 net.cpp:139] Memory required for data: 200960
I0428 20:18:45.539010  1231 layer_factory.hpp:77] Creating layer conv0
I0428 20:18:45.539026  1231 net.cpp:86] Creating Layer conv0
I0428 20:18:45.539032  1231 net.cpp:408] conv0 <- data
I0428 20:18:45.539043  1231 net.cpp:382] conv0 -> conv0
I0428 20:18:45.826850  1231 net.cpp:124] Setting up conv0
I0428 20:18:45.826884  1231 net.cpp:131] Top shape: 64 50 24 24 (1843200)
I0428 20:18:45.826889  1231 net.cpp:139] Memory required for data: 7573760
I0428 20:18:45.826907  1231 layer_factory.hpp:77] Creating layer pool0
I0428 20:18:45.826921  1231 net.cpp:86] Creating Layer pool0
I0428 20:18:45.826926  1231 net.cpp:408] pool0 <- conv0
I0428 20:18:45.826932  1231 net.cpp:382] pool0 -> pool0
I0428 20:18:45.826989  1231 net.cpp:124] Setting up pool0
I0428 20:18:45.826997  1231 net.cpp:131] Top shape: 64 50 12 12 (460800)
I0428 20:18:45.827021  1231 net.cpp:139] Memory required for data: 9416960
I0428 20:18:45.827025  1231 layer_factory.hpp:77] Creating layer conv1
I0428 20:18:45.827039  1231 net.cpp:86] Creating Layer conv1
I0428 20:18:45.827044  1231 net.cpp:408] conv1 <- pool0
I0428 20:18:45.827049  1231 net.cpp:382] conv1 -> conv1
I0428 20:18:45.829404  1231 net.cpp:124] Setting up conv1
I0428 20:18:45.829422  1231 net.cpp:131] Top shape: 64 25 8 8 (102400)
I0428 20:18:45.829427  1231 net.cpp:139] Memory required for data: 9826560
I0428 20:18:45.829437  1231 layer_factory.hpp:77] Creating layer pool1
I0428 20:18:45.829447  1231 net.cpp:86] Creating Layer pool1
I0428 20:18:45.829452  1231 net.cpp:408] pool1 <- conv1
I0428 20:18:45.829457  1231 net.cpp:382] pool1 -> pool1
I0428 20:18:45.829501  1231 net.cpp:124] Setting up pool1
I0428 20:18:45.829507  1231 net.cpp:131] Top shape: 64 25 4 4 (25600)
I0428 20:18:45.829511  1231 net.cpp:139] Memory required for data: 9928960
I0428 20:18:45.829514  1231 layer_factory.hpp:77] Creating layer ip1
I0428 20:18:45.829522  1231 net.cpp:86] Creating Layer ip1
I0428 20:18:45.829526  1231 net.cpp:408] ip1 <- pool1
I0428 20:18:45.829532  1231 net.cpp:382] ip1 -> ip1
I0428 20:18:45.829674  1231 net.cpp:124] Setting up ip1
I0428 20:18:45.829681  1231 net.cpp:131] Top shape: 64 10 (640)
I0428 20:18:45.829685  1231 net.cpp:139] Memory required for data: 9931520
I0428 20:18:45.829694  1231 layer_factory.hpp:77] Creating layer relu1
I0428 20:18:45.829700  1231 net.cpp:86] Creating Layer relu1
I0428 20:18:45.829704  1231 net.cpp:408] relu1 <- ip1
I0428 20:18:45.829710  1231 net.cpp:369] relu1 -> ip1 (in-place)
I0428 20:18:45.829908  1231 net.cpp:124] Setting up relu1
I0428 20:18:45.829918  1231 net.cpp:131] Top shape: 64 10 (640)
I0428 20:18:45.829922  1231 net.cpp:139] Memory required for data: 9934080
I0428 20:18:45.829926  1231 layer_factory.hpp:77] Creating layer loss
I0428 20:18:45.829932  1231 net.cpp:86] Creating Layer loss
I0428 20:18:45.829936  1231 net.cpp:408] loss <- ip1
I0428 20:18:45.829941  1231 net.cpp:408] loss <- label
I0428 20:18:45.829947  1231 net.cpp:382] loss -> loss
I0428 20:18:45.829963  1231 layer_factory.hpp:77] Creating layer loss
…
I0428 20:18:45.831284  1231 solver.cpp:173] Creating test net (#0) specified by net file: ECE595/mnist/train_test/var_everything2/lenet_train_test1326.prototxt
I0428 20:18:45.831312  1231 net.cpp:296] The NetState phase (1) differed from the phase (0) specified by a rule in layer mnist
I0428 20:18:45.831401  1231 net.cpp:53] Initializing net from parameters: 
name: "LeNet"
state {
  phase: TEST
}
layer {
  name: "mnist"
  type: "Data"
  top: "data"
  top: "label"
  include {
    phase: TEST
  }
  transform_param {
    scale: 0.00390625
  }
  data_param {
    source: "examples/mnist/mnist_test_lmdb"
    batch_size: 100
    backend: LMDB
  }
}
layer {
  name: "conv0"
  type: "Convolution"
  bottom: "data"
  top: "conv0"
  param {
    lr_mult: 1
  }
  param {
    lr_mult: 2
  }
  convolution_param {
    num_output: 50
    kernel_size: 5
    stride: 1
    weight_filler {
      type: "xavier"
    }
    bias_filler {
      type: "constant"
    }
  }
}
layer {
  name: "pool0"
  type: "Pooling"
  bottom: "conv0"
  top: "pool0"
  pooling_param {
    pool: MAX
    kernel_size: 2
    stride: 2
  }
}
layer {
  name: "conv1"
  type: "Convolution"
  bottom: "pool0"
  top: "conv1"
  param {
    lr_mult: 1
  }
  param {
    lr_mult: 2
  }
  convolution_param {
    num_output: 25
    kernel_size: 5
    stride: 1
    weight_filler {
      type: "xavier"
    }
    bias_filler {
      type: "constant"
    }
  }
}
layer {
  name: "pool1"
  type: "Pooling"
  bottom: "conv1"
  top: "pool1"
  pooling_param {
    pool: MAX
    kernel_size: 2
    stride: 2
  }
}
layer {
  name: "ip1"
  type: "InnerProduct"
  bottom: "pool1"
  top: "ip1"
  param {
    lr_mult: 1
  }
  param {
    lr_mult: 2
  }
  inner_product_param {
    num_output: 10
    weight_filler {
      type: "xavier"
    }
    bias_filler {
      type: "constant"
    }
  }
}
layer {
  name: "relu1"
  type: "ReLU"
  bottom: "ip1"
  top: "ip1"
}
layer {
  name: "accuracy"
  type: "Accuracy"
  bottom: "ip1"
  bottom: "label"
  top: "accuracy"
  include {
    phase: TEST
  }
}
layer {
  name: "loss"
  type: "SoftmaxWithLoss"
  bottom: "ip1"
  bottom: "label"
  top: "loss"
}
I0428 20:18:45.831490  1231 layer_factory.hpp:77] Creating layer mnist
I0428 20:18:45.831542  1231 db_lmdb.cpp:35] Opened lmdb examples/mnist/mnist_test_lmdb
I0428 20:18:45.831557  1231 net.cpp:86] Creating Layer mnist
I0428 20:18:45.831564  1231 net.cpp:382] mnist -> data
I0428 20:18:45.831573  1231 net.cpp:382] mnist -> label
I0428 20:18:45.831676  1231 data_layer.cpp:45] output data size: 100,1,28,28
I0428 20:18:45.833889  1231 net.cpp:124] Setting up mnist
I0428 20:18:45.833904  1231 net.cpp:131] Top shape: 100 1 28 28 (78400)
I0428 20:18:45.833910  1231 net.cpp:131] Top shape: 100 (100)
I0428 20:18:45.833914  1231 net.cpp:139] Memory required for data: 314000
I0428 20:18:45.833917  1231 layer_factory.hpp:77] Creating layer label_mnist_1_split
I0428 20:18:45.833925  1231 net.cpp:86] Creating Layer label_mnist_1_split
I0428 20:18:45.833930  1231 net.cpp:408] label_mnist_1_split <- label
I0428 20:18:45.833936  1231 net.cpp:382] label_mnist_1_split -> label_mnist_1_split_0
I0428 20:18:45.833945  1231 net.cpp:382] label_mnist_1_split -> label_mnist_1_split_1
I0428 20:18:45.833995  1231 net.cpp:124] Setting up label_mnist_1_split
I0428 20:18:45.834002  1231 net.cpp:131] Top shape: 100 (100)
I0428 20:18:45.834007  1231 net.cpp:131] Top shape: 100 (100)
I0428 20:18:45.834009  1231 net.cpp:139] Memory required for data: 314800
I0428 20:18:45.834013  1231 layer_factory.hpp:77] Creating layer conv0
I0428 20:18:45.834024  1231 net.cpp:86] Creating Layer conv0
I0428 20:18:45.834028  1231 net.cpp:408] conv0 <- data
I0428 20:18:45.834034  1231 net.cpp:382] conv0 -> conv0
I0428 20:18:45.835168  1231 net.cpp:124] Setting up conv0
I0428 20:18:45.835183  1231 net.cpp:131] Top shape: 100 50 24 24 (2880000)
I0428 20:18:45.835187  1231 net.cpp:139] Memory required for data: 11834800
I0428 20:18:45.835197  1231 layer_factory.hpp:77] Creating layer pool0
I0428 20:18:45.835206  1231 net.cpp:86] Creating Layer pool0
I0428 20:18:45.835211  1231 net.cpp:408] pool0 <- conv0
I0428 20:18:45.835216  1231 net.cpp:382] pool0 -> pool0
I0428 20:18:45.835261  1231 net.cpp:124] Setting up pool0
I0428 20:18:45.835269  1231 net.cpp:131] Top shape: 100 50 12 12 (720000)
I0428 20:18:45.835273  1231 net.cpp:139] Memory required for data: 14714800
I0428 20:18:45.835276  1231 layer_factory.hpp:77] Creating layer conv1
I0428 20:18:45.835288  1231 net.cpp:86] Creating Layer conv1
I0428 20:18:45.835290  1231 net.cpp:408] conv1 <- pool0
I0428 20:18:45.835297  1231 net.cpp:382] conv1 -> conv1
I0428 20:18:45.837254  1231 net.cpp:124] Setting up conv1
I0428 20:18:45.837270  1231 net.cpp:131] Top shape: 100 25 8 8 (160000)
I0428 20:18:45.837275  1231 net.cpp:139] Memory required for data: 15354800
I0428 20:18:45.837285  1231 layer_factory.hpp:77] Creating layer pool1
I0428 20:18:45.837294  1231 net.cpp:86] Creating Layer pool1
I0428 20:18:45.837311  1231 net.cpp:408] pool1 <- conv1
I0428 20:18:45.837318  1231 net.cpp:382] pool1 -> pool1
I0428 20:18:45.837364  1231 net.cpp:124] Setting up pool1
I0428 20:18:45.837370  1231 net.cpp:131] Top shape: 100 25 4 4 (40000)
I0428 20:18:45.837374  1231 net.cpp:139] Memory required for data: 15514800
I0428 20:18:45.837386  1231 layer_factory.hpp:77] Creating layer ip1
I0428 20:18:45.837395  1231 net.cpp:86] Creating Layer ip1
I0428 20:18:45.837399  1231 net.cpp:408] ip1 <- pool1
I0428 20:18:45.837405  1231 net.cpp:382] ip1 -> ip1
I0428 20:18:45.837550  1231 net.cpp:124] Setting up ip1
I0428 20:18:45.837560  1231 net.cpp:131] Top shape: 100 10 (1000)
I0428 20:18:45.837563  1231 net.cpp:139] Memory required for data: 15518800
I0428 20:18:45.837573  1231 layer_factory.hpp:77] Creating layer relu1
I0428 20:18:45.837580  1231 net.cpp:86] Creating Layer relu1
I0428 20:18:45.837584  1231 net.cpp:408] relu1 <- ip1
I0428 20:18:45.837589  1231 net.cpp:369] relu1 -> ip1 (in-place)
I0428 20:18:45.838531  1231 net.cpp:124] Setting up relu1
I0428 20:18:45.838546  1231 net.cpp:131] Top shape: 100 10 (1000)
I0428 20:18:45.838551  1231 net.cpp:139] Memory required for data: 15522800
I0428 20:18:45.838554  1231 layer_factory.hpp:77] Creating layer ip1_relu1_0_split
I0428 20:18:45.838563  1231 net.cpp:86] Creating Layer ip1_relu1_0_split
I0428 20:18:45.838567  1231 net.cpp:408] ip1_relu1_0_split <- ip1
I0428 20:18:45.838573  1231 net.cpp:382] ip1_relu1_0_split -> ip1_relu1_0_split_0
I0428 20:18:45.838580  1231 net.cpp:382] ip1_relu1_0_split -> ip1_relu1_0_split_1
I0428 20:18:45.838627  1231 net.cpp:124] Setting up ip1_relu1_0_split
I0428 20:18:45.838635  1231 net.cpp:131] Top shape: 100 10 (1000)
I0428 20:18:45.838640  1231 net.cpp:131] Top shape: 100 10 (1000)
I0428 20:18:45.838644  1231 net.cpp:139] Memory required for data: 15530800
I0428 20:18:45.838649  1231 layer_factory.hpp:77] Creating layer accuracy
I0428 20:18:45.838654  1231 net.cpp:86] Creating Layer accuracy
I0428 20:18:45.838659  1231 net.cpp:408] accuracy <- ip1_relu1_0_split_0
I0428 20:18:45.838662  1231 net.cpp:408] accuracy <- label_mnist_1_split_0
I0428 20:18:45.838670  1231 net.cpp:382] accuracy -> accuracy
…
