…
I0428 19:46:24.033871 25993 net.cpp:296] The NetState phase (0) differed from the phase (1) specified by a rule in layer mnist
I0428 19:46:24.033890 25993 net.cpp:296] The NetState phase (0) differed from the phase (1) specified by a rule in layer accuracy
I0428 19:46:24.033987 25993 net.cpp:53] Initializing net from parameters: 
name: "LeNet"
state {
  phase: TRAIN
  level: 0
  stage: ""
}
layer {
  name: "mnist"
  type: "Data"
  top: "data"
  top: "label"
  include {
    phase: TRAIN
  }
  transform_param {
    scale: 0.00390625
  }
  data_param {
    source: "examples/mnist/mnist_train_lmdb"
    batch_size: 64
    backend: LMDB
  }
}
layer {
  name: "conv0"
  type: "Convolution"
  bottom: "data"
  top: "conv0"
  param {
    lr_mult: 1
  }
  param {
    lr_mult: 2
  }
  convolution_param {
    num_output: 2
    kernel_size: 5
    stride: 1
    weight_filler {
      type: "xavier"
    }
    bias_filler {
      type: "constant"
    }
  }
}
layer {
  name: "pool0"
  type: "Pooling"
  bottom: "conv0"
  top: "pool0"
  pooling_param {
    pool: MAX
    kernel_size: 2
    stride: 2
  }
}
layer {
  name: "conv1"
  type: "Convolution"
  bottom: "pool0"
  top: "conv1"
  param {
    lr_mult: 1
  }
  param {
    lr_mult: 2
  }
  convolution_param {
    num_output: 100
    kernel_size: 5
    stride: 1
    weight_filler {
      type: "xavier"
    }
    bias_filler {
      type: "constant"
    }
  }
}
layer {
  name: "pool1"
  type: "Pooling"
  bottom: "conv1"
  top: "pool1"
  pooling_param {
    pool: MAX
    kernel_size: 2
    stride: 2
  }
}
layer {
  name: "ip1"
  type: "InnerProduct"
  bottom: "pool1"
  top: "ip1"
  param {
    lr_mult: 1
  }
  param {
    lr_mult: 2
  }
  inner_product_param {
    num_output: 25
    weight_filler {
      type: "xavier"
    }
    bias_filler {
      type: "constant"
    }
  }
}
layer {
  name: "relu1"
  type: "ReLU"
  bottom: "ip1"
  top: "ip1"
}
layer {
  name: "ip2"
  type: "InnerProduct"
  bottom: "ip1"
  top: "ip2"
  param {
    lr_mult: 1
  }
  param {
    lr_mult: 2
  }
  inner_product_param {
    num_output: 10
    weight_filler {
      type: "xavier"
    }
    bias_filler {
      type: "constant"
    }
  }
}
layer {
  name: "relu2"
  type: "ReLU"
  bottom: "ip2"
  top: "ip2"
}
layer {
  name: "ip3"
  type: "InnerProduct"
  bottom: "ip2"
  top: "ip3"
  param {
    lr_mult: 1
  }
  param {
    lr_mult: 2
  }
  inner_product_param {
    num_output: 10
    weight_filler {
      type: "xavier"
    }
    bias_filler {
      type: "constant"
    }
  }
}
layer {
  name: "relu3"
  type: "ReLU"
  bottom: "ip3"
  top: "ip3"
}
layer {
  name: "loss"
  type: "SoftmaxWithLoss"
  bottom: "ip3"
  bottom: "label"
  top: "loss"
}
I0428 19:46:24.034060 25993 layer_factory.hpp:77] Creating layer mnist
I0428 19:46:24.034157 25993 db_lmdb.cpp:35] Opened lmdb examples/mnist/mnist_train_lmdb
I0428 19:46:24.034180 25993 net.cpp:86] Creating Layer mnist
I0428 19:46:24.034188 25993 net.cpp:382] mnist -> data
I0428 19:46:24.034210 25993 net.cpp:382] mnist -> label
I0428 19:46:24.035298 25993 data_layer.cpp:45] output data size: 64,1,28,28
I0428 19:46:24.037765 25993 net.cpp:124] Setting up mnist
I0428 19:46:24.037783 25993 net.cpp:131] Top shape: 64 1 28 28 (50176)
I0428 19:46:24.037789 25993 net.cpp:131] Top shape: 64 (64)
I0428 19:46:24.037793 25993 net.cpp:139] Memory required for data: 200960
I0428 19:46:24.037801 25993 layer_factory.hpp:77] Creating layer conv0
I0428 19:46:24.037817 25993 net.cpp:86] Creating Layer conv0
I0428 19:46:24.037837 25993 net.cpp:408] conv0 <- data
I0428 19:46:24.037848 25993 net.cpp:382] conv0 -> conv0
I0428 19:46:24.327801 25993 net.cpp:124] Setting up conv0
I0428 19:46:24.327834 25993 net.cpp:131] Top shape: 64 2 24 24 (73728)
I0428 19:46:24.327841 25993 net.cpp:139] Memory required for data: 495872
I0428 19:46:24.327858 25993 layer_factory.hpp:77] Creating layer pool0
I0428 19:46:24.327874 25993 net.cpp:86] Creating Layer pool0
I0428 19:46:24.327879 25993 net.cpp:408] pool0 <- conv0
I0428 19:46:24.327886 25993 net.cpp:382] pool0 -> pool0
I0428 19:46:24.327944 25993 net.cpp:124] Setting up pool0
I0428 19:46:24.327953 25993 net.cpp:131] Top shape: 64 2 12 12 (18432)
I0428 19:46:24.327957 25993 net.cpp:139] Memory required for data: 569600
I0428 19:46:24.327960 25993 layer_factory.hpp:77] Creating layer conv1
I0428 19:46:24.327973 25993 net.cpp:86] Creating Layer conv1
I0428 19:46:24.327980 25993 net.cpp:408] conv1 <- pool0
I0428 19:46:24.327986 25993 net.cpp:382] conv1 -> conv1
I0428 19:46:24.331167 25993 net.cpp:124] Setting up conv1
I0428 19:46:24.331185 25993 net.cpp:131] Top shape: 64 100 8 8 (409600)
I0428 19:46:24.331190 25993 net.cpp:139] Memory required for data: 2208000
I0428 19:46:24.331202 25993 layer_factory.hpp:77] Creating layer pool1
I0428 19:46:24.331212 25993 net.cpp:86] Creating Layer pool1
I0428 19:46:24.331218 25993 net.cpp:408] pool1 <- conv1
I0428 19:46:24.331226 25993 net.cpp:382] pool1 -> pool1
I0428 19:46:24.331274 25993 net.cpp:124] Setting up pool1
I0428 19:46:24.331280 25993 net.cpp:131] Top shape: 64 100 4 4 (102400)
I0428 19:46:24.331284 25993 net.cpp:139] Memory required for data: 2617600
I0428 19:46:24.331287 25993 layer_factory.hpp:77] Creating layer ip1
I0428 19:46:24.331297 25993 net.cpp:86] Creating Layer ip1
I0428 19:46:24.331307 25993 net.cpp:408] ip1 <- pool1
I0428 19:46:24.331313 25993 net.cpp:382] ip1 -> ip1
I0428 19:46:24.331708 25993 net.cpp:124] Setting up ip1
I0428 19:46:24.331717 25993 net.cpp:131] Top shape: 64 25 (1600)
I0428 19:46:24.331720 25993 net.cpp:139] Memory required for data: 2624000
I0428 19:46:24.331729 25993 layer_factory.hpp:77] Creating layer relu1
I0428 19:46:24.331737 25993 net.cpp:86] Creating Layer relu1
I0428 19:46:24.331742 25993 net.cpp:408] relu1 <- ip1
I0428 19:46:24.331746 25993 net.cpp:369] relu1 -> ip1 (in-place)
I0428 19:46:24.331953 25993 net.cpp:124] Setting up relu1
I0428 19:46:24.331964 25993 net.cpp:131] Top shape: 64 25 (1600)
I0428 19:46:24.331969 25993 net.cpp:139] Memory required for data: 2630400
I0428 19:46:24.331971 25993 layer_factory.hpp:77] Creating layer ip2
I0428 19:46:24.331981 25993 net.cpp:86] Creating Layer ip2
I0428 19:46:24.331984 25993 net.cpp:408] ip2 <- ip1
I0428 19:46:24.331991 25993 net.cpp:382] ip2 -> ip2
I0428 19:46:24.332108 25993 net.cpp:124] Setting up ip2
I0428 19:46:24.332118 25993 net.cpp:131] Top shape: 64 10 (640)
I0428 19:46:24.332121 25993 net.cpp:139] Memory required for data: 2632960
I0428 19:46:24.332129 25993 layer_factory.hpp:77] Creating layer relu2
I0428 19:46:24.332136 25993 net.cpp:86] Creating Layer relu2
I0428 19:46:24.332139 25993 net.cpp:408] relu2 <- ip2
I0428 19:46:24.332144 25993 net.cpp:369] relu2 -> ip2 (in-place)
I0428 19:46:24.333005 25993 net.cpp:124] Setting up relu2
I0428 19:46:24.333021 25993 net.cpp:131] Top shape: 64 10 (640)
I0428 19:46:24.333026 25993 net.cpp:139] Memory required for data: 2635520
I0428 19:46:24.333030 25993 layer_factory.hpp:77] Creating layer ip3
I0428 19:46:24.333040 25993 net.cpp:86] Creating Layer ip3
I0428 19:46:24.333045 25993 net.cpp:408] ip3 <- ip2
I0428 19:46:24.333051 25993 net.cpp:382] ip3 -> ip3
I0428 19:46:24.333176 25993 net.cpp:124] Setting up ip3
I0428 19:46:24.333185 25993 net.cpp:131] Top shape: 64 10 (640)
I0428 19:46:24.333189 25993 net.cpp:139] Memory required for data: 2638080
I0428 19:46:24.333197 25993 layer_factory.hpp:77] Creating layer relu3
I0428 19:46:24.333204 25993 net.cpp:86] Creating Layer relu3
I0428 19:46:24.333207 25993 net.cpp:408] relu3 <- ip3
I0428 19:46:24.333214 25993 net.cpp:369] relu3 -> ip3 (in-place)
I0428 19:46:24.333423 25993 net.cpp:124] Setting up relu3
I0428 19:46:24.333434 25993 net.cpp:131] Top shape: 64 10 (640)
I0428 19:46:24.333438 25993 net.cpp:139] Memory required for data: 2640640
I0428 19:46:24.333442 25993 layer_factory.hpp:77] Creating layer loss
I0428 19:46:24.333449 25993 net.cpp:86] Creating Layer loss
I0428 19:46:24.333452 25993 net.cpp:408] loss <- ip3
I0428 19:46:24.333457 25993 net.cpp:408] loss <- label
I0428 19:46:24.333465 25993 net.cpp:382] loss -> loss
I0428 19:46:24.333485 25993 layer_factory.hpp:77] Creating layer loss
…
I0428 19:46:24.334244 25993 solver.cpp:173] Creating test net (#0) specified by net file: ECE595/mnist/train_test/var_everything2/lenet_train_test491.prototxt
I0428 19:46:24.334277 25993 net.cpp:296] The NetState phase (1) differed from the phase (0) specified by a rule in layer mnist
I0428 19:46:24.334388 25993 net.cpp:53] Initializing net from parameters: 
name: "LeNet"
state {
  phase: TEST
}
layer {
  name: "mnist"
  type: "Data"
  top: "data"
  top: "label"
  include {
    phase: TEST
  }
  transform_param {
    scale: 0.00390625
  }
  data_param {
    source: "examples/mnist/mnist_test_lmdb"
    batch_size: 100
    backend: LMDB
  }
}
layer {
  name: "conv0"
  type: "Convolution"
  bottom: "data"
  top: "conv0"
  param {
    lr_mult: 1
  }
  param {
    lr_mult: 2
  }
  convolution_param {
    num_output: 2
    kernel_size: 5
    stride: 1
    weight_filler {
      type: "xavier"
    }
    bias_filler {
      type: "constant"
    }
  }
}
layer {
  name: "pool0"
  type: "Pooling"
  bottom: "conv0"
  top: "pool0"
  pooling_param {
    pool: MAX
    kernel_size: 2
    stride: 2
  }
}
layer {
  name: "conv1"
  type: "Convolution"
  bottom: "pool0"
  top: "conv1"
  param {
    lr_mult: 1
  }
  param {
    lr_mult: 2
  }
  convolution_param {
    num_output: 100
    kernel_size: 5
    stride: 1
    weight_filler {
      type: "xavier"
    }
    bias_filler {
      type: "constant"
    }
  }
}
layer {
  name: "pool1"
  type: "Pooling"
  bottom: "conv1"
  top: "pool1"
  pooling_param {
    pool: MAX
    kernel_size: 2
    stride: 2
  }
}
layer {
  name: "ip1"
  type: "InnerProduct"
  bottom: "pool1"
  top: "ip1"
  param {
    lr_mult: 1
  }
  param {
    lr_mult: 2
  }
  inner_product_param {
    num_output: 25
    weight_filler {
      type: "xavier"
    }
    bias_filler {
      type: "constant"
    }
  }
}
layer {
  name: "relu1"
  type: "ReLU"
  bottom: "ip1"
  top: "ip1"
}
layer {
  name: "ip2"
  type: "InnerProduct"
  bottom: "ip1"
  top: "ip2"
  param {
    lr_mult: 1
  }
  param {
    lr_mult: 2
  }
  inner_product_param {
    num_output: 10
    weight_filler {
      type: "xavier"
    }
    bias_filler {
      type: "constant"
    }
  }
}
layer {
  name: "relu2"
  type: "ReLU"
  bottom: "ip2"
  top: "ip2"
}
layer {
  name: "ip3"
  type: "InnerProduct"
  bottom: "ip2"
  top: "ip3"
  param {
    lr_mult: 1
  }
  param {
    lr_mult: 2
  }
  inner_product_param {
    num_output: 10
    weight_filler {
      type: "xavier"
    }
    bias_filler {
      type: "constant"
    }
  }
}
layer {
  name: "relu3"
  type: "ReLU"
  bottom: "ip3"
  top: "ip3"
}
layer {
  name: "accuracy"
  type: "Accuracy"
  bottom: "ip3"
  bottom: "label"
  top: "accuracy"
  include {
    phase: TEST
  }
}
layer {
  name: "loss"
  type: "SoftmaxWithLoss"
  bottom: "ip3"
  bottom: "label"
  top: "loss"
}
I0428 19:46:24.334486 25993 layer_factory.hpp:77] Creating layer mnist
I0428 19:46:24.334543 25993 db_lmdb.cpp:35] Opened lmdb examples/mnist/mnist_test_lmdb
I0428 19:46:24.334563 25993 net.cpp:86] Creating Layer mnist
I0428 19:46:24.334569 25993 net.cpp:382] mnist -> data
I0428 19:46:24.334578 25993 net.cpp:382] mnist -> label
I0428 19:46:24.334682 25993 data_layer.cpp:45] output data size: 100,1,28,28
I0428 19:46:24.336880 25993 net.cpp:124] Setting up mnist
I0428 19:46:24.336916 25993 net.cpp:131] Top shape: 100 1 28 28 (78400)
I0428 19:46:24.336923 25993 net.cpp:131] Top shape: 100 (100)
I0428 19:46:24.336927 25993 net.cpp:139] Memory required for data: 314000
I0428 19:46:24.336931 25993 layer_factory.hpp:77] Creating layer label_mnist_1_split
I0428 19:46:24.336940 25993 net.cpp:86] Creating Layer label_mnist_1_split
I0428 19:46:24.336943 25993 net.cpp:408] label_mnist_1_split <- label
I0428 19:46:24.336949 25993 net.cpp:382] label_mnist_1_split -> label_mnist_1_split_0
I0428 19:46:24.336957 25993 net.cpp:382] label_mnist_1_split -> label_mnist_1_split_1
I0428 19:46:24.337049 25993 net.cpp:124] Setting up label_mnist_1_split
I0428 19:46:24.337059 25993 net.cpp:131] Top shape: 100 (100)
I0428 19:46:24.337064 25993 net.cpp:131] Top shape: 100 (100)
I0428 19:46:24.337067 25993 net.cpp:139] Memory required for data: 314800
I0428 19:46:24.337070 25993 layer_factory.hpp:77] Creating layer conv0
I0428 19:46:24.337081 25993 net.cpp:86] Creating Layer conv0
I0428 19:46:24.337088 25993 net.cpp:408] conv0 <- data
I0428 19:46:24.337095 25993 net.cpp:382] conv0 -> conv0
I0428 19:46:24.339038 25993 net.cpp:124] Setting up conv0
I0428 19:46:24.339056 25993 net.cpp:131] Top shape: 100 2 24 24 (115200)
I0428 19:46:24.339059 25993 net.cpp:139] Memory required for data: 775600
I0428 19:46:24.339071 25993 layer_factory.hpp:77] Creating layer pool0
I0428 19:46:24.339082 25993 net.cpp:86] Creating Layer pool0
I0428 19:46:24.339085 25993 net.cpp:408] pool0 <- conv0
I0428 19:46:24.339092 25993 net.cpp:382] pool0 -> pool0
I0428 19:46:24.339143 25993 net.cpp:124] Setting up pool0
I0428 19:46:24.339150 25993 net.cpp:131] Top shape: 100 2 12 12 (28800)
I0428 19:46:24.339154 25993 net.cpp:139] Memory required for data: 890800
I0428 19:46:24.339157 25993 layer_factory.hpp:77] Creating layer conv1
I0428 19:46:24.339169 25993 net.cpp:86] Creating Layer conv1
I0428 19:46:24.339172 25993 net.cpp:408] conv1 <- pool0
I0428 19:46:24.339179 25993 net.cpp:382] conv1 -> conv1
I0428 19:46:24.341027 25993 net.cpp:124] Setting up conv1
I0428 19:46:24.341047 25993 net.cpp:131] Top shape: 100 100 8 8 (640000)
I0428 19:46:24.341050 25993 net.cpp:139] Memory required for data: 3450800
I0428 19:46:24.341061 25993 layer_factory.hpp:77] Creating layer pool1
I0428 19:46:24.341069 25993 net.cpp:86] Creating Layer pool1
I0428 19:46:24.341073 25993 net.cpp:408] pool1 <- conv1
I0428 19:46:24.341080 25993 net.cpp:382] pool1 -> pool1
I0428 19:46:24.341126 25993 net.cpp:124] Setting up pool1
I0428 19:46:24.341135 25993 net.cpp:131] Top shape: 100 100 4 4 (160000)
I0428 19:46:24.341138 25993 net.cpp:139] Memory required for data: 4090800
I0428 19:46:24.341141 25993 layer_factory.hpp:77] Creating layer ip1
I0428 19:46:24.341150 25993 net.cpp:86] Creating Layer ip1
I0428 19:46:24.341157 25993 net.cpp:408] ip1 <- pool1
I0428 19:46:24.341166 25993 net.cpp:382] ip1 -> ip1
I0428 19:46:24.341593 25993 net.cpp:124] Setting up ip1
I0428 19:46:24.341604 25993 net.cpp:131] Top shape: 100 25 (2500)
I0428 19:46:24.341622 25993 net.cpp:139] Memory required for data: 4100800
I0428 19:46:24.341631 25993 layer_factory.hpp:77] Creating layer relu1
I0428 19:46:24.341637 25993 net.cpp:86] Creating Layer relu1
I0428 19:46:24.341641 25993 net.cpp:408] relu1 <- ip1
I0428 19:46:24.341646 25993 net.cpp:369] relu1 -> ip1 (in-place)
I0428 19:46:24.341847 25993 net.cpp:124] Setting up relu1
I0428 19:46:24.341861 25993 net.cpp:131] Top shape: 100 25 (2500)
I0428 19:46:24.341866 25993 net.cpp:139] Memory required for data: 4110800
I0428 19:46:24.341871 25993 layer_factory.hpp:77] Creating layer ip2
I0428 19:46:24.341878 25993 net.cpp:86] Creating Layer ip2
I0428 19:46:24.341883 25993 net.cpp:408] ip2 <- ip1
I0428 19:46:24.341891 25993 net.cpp:382] ip2 -> ip2
I0428 19:46:24.342015 25993 net.cpp:124] Setting up ip2
I0428 19:46:24.342023 25993 net.cpp:131] Top shape: 100 10 (1000)
I0428 19:46:24.342026 25993 net.cpp:139] Memory required for data: 4114800
I0428 19:46:24.342033 25993 layer_factory.hpp:77] Creating layer relu2
I0428 19:46:24.342039 25993 net.cpp:86] Creating Layer relu2
I0428 19:46:24.342043 25993 net.cpp:408] relu2 <- ip2
I0428 19:46:24.342049 25993 net.cpp:369] relu2 -> ip2 (in-place)
I0428 19:46:24.342242 25993 net.cpp:124] Setting up relu2
I0428 19:46:24.342254 25993 net.cpp:131] Top shape: 100 10 (1000)
I0428 19:46:24.342258 25993 net.cpp:139] Memory required for data: 4118800
I0428 19:46:24.342262 25993 layer_factory.hpp:77] Creating layer ip3
I0428 19:46:24.342269 25993 net.cpp:86] Creating Layer ip3
I0428 19:46:24.342272 25993 net.cpp:408] ip3 <- ip2
I0428 19:46:24.342279 25993 net.cpp:382] ip3 -> ip3
I0428 19:46:24.342402 25993 net.cpp:124] Setting up ip3
I0428 19:46:24.342411 25993 net.cpp:131] Top shape: 100 10 (1000)
I0428 19:46:24.342414 25993 net.cpp:139] Memory required for data: 4122800
I0428 19:46:24.342422 25993 layer_factory.hpp:77] Creating layer relu3
I0428 19:46:24.342428 25993 net.cpp:86] Creating Layer relu3
I0428 19:46:24.342432 25993 net.cpp:408] relu3 <- ip3
I0428 19:46:24.342437 25993 net.cpp:369] relu3 -> ip3 (in-place)
I0428 19:46:24.343391 25993 net.cpp:124] Setting up relu3
I0428 19:46:24.343406 25993 net.cpp:131] Top shape: 100 10 (1000)
I0428 19:46:24.343410 25993 net.cpp:139] Memory required for data: 4126800
I0428 19:46:24.343415 25993 layer_factory.hpp:77] Creating layer ip3_relu3_0_split
I0428 19:46:24.343423 25993 net.cpp:86] Creating Layer ip3_relu3_0_split
I0428 19:46:24.343427 25993 net.cpp:408] ip3_relu3_0_split <- ip3
I0428 19:46:24.343433 25993 net.cpp:382] ip3_relu3_0_split -> ip3_relu3_0_split_0
I0428 19:46:24.343441 25993 net.cpp:382] ip3_relu3_0_split -> ip3_relu3_0_split_1
I0428 19:46:24.343488 25993 net.cpp:124] Setting up ip3_relu3_0_split
I0428 19:46:24.343497 25993 net.cpp:131] Top shape: 100 10 (1000)
I0428 19:46:24.343502 25993 net.cpp:131] Top shape: 100 10 (1000)
I0428 19:46:24.343505 25993 net.cpp:139] Memory required for data: 4134800
I0428 19:46:24.343510 25993 layer_factory.hpp:77] Creating layer accuracy
I0428 19:46:24.343516 25993 net.cpp:86] Creating Layer accuracy
I0428 19:46:24.343519 25993 net.cpp:408] accuracy <- ip3_relu3_0_split_0
I0428 19:46:24.343524 25993 net.cpp:408] accuracy <- label_mnist_1_split_0
I0428 19:46:24.343530 25993 net.cpp:382] accuracy -> accuracy
…
