…
I0428 19:41:01.834718 24721 net.cpp:296] The NetState phase (0) differed from the phase (1) specified by a rule in layer mnist
I0428 19:41:01.834730 24721 net.cpp:296] The NetState phase (0) differed from the phase (1) specified by a rule in layer accuracy
I0428 19:41:01.834795 24721 net.cpp:53] Initializing net from parameters: 
name: "LeNet"
state {
  phase: TRAIN
  level: 0
  stage: ""
}
layer {
  name: "mnist"
  type: "Data"
  top: "data"
  top: "label"
  include {
    phase: TRAIN
  }
  transform_param {
    scale: 0.00390625
  }
  data_param {
    source: "examples/mnist/mnist_train_lmdb"
    batch_size: 64
    backend: LMDB
  }
}
layer {
  name: "conv0"
  type: "Convolution"
  bottom: "data"
  top: "conv0"
  param {
    lr_mult: 1
  }
  param {
    lr_mult: 2
  }
  convolution_param {
    num_output: 2
    kernel_size: 5
    stride: 1
    weight_filler {
      type: "xavier"
    }
    bias_filler {
      type: "constant"
    }
  }
}
layer {
  name: "pool0"
  type: "Pooling"
  bottom: "conv0"
  top: "pool0"
  pooling_param {
    pool: MAX
    kernel_size: 2
    stride: 2
  }
}
layer {
  name: "conv1"
  type: "Convolution"
  bottom: "pool0"
  top: "conv1"
  param {
    lr_mult: 1
  }
  param {
    lr_mult: 2
  }
  convolution_param {
    num_output: 10
    kernel_size: 5
    stride: 1
    weight_filler {
      type: "xavier"
    }
    bias_filler {
      type: "constant"
    }
  }
}
layer {
  name: "pool1"
  type: "Pooling"
  bottom: "conv1"
  top: "pool1"
  pooling_param {
    pool: MAX
    kernel_size: 2
    stride: 2
  }
}
layer {
  name: "ip1"
  type: "InnerProduct"
  bottom: "pool1"
  top: "ip1"
  param {
    lr_mult: 1
  }
  param {
    lr_mult: 2
  }
  inner_product_param {
    num_output: 10
    weight_filler {
      type: "xavier"
    }
    bias_filler {
      type: "constant"
    }
  }
}
layer {
  name: "relu1"
  type: "ReLU"
  bottom: "ip1"
  top: "ip1"
}
layer {
  name: "loss"
  type: "SoftmaxWithLoss"
  bottom: "ip1"
  bottom: "label"
  top: "loss"
}
I0428 19:41:01.834851 24721 layer_factory.hpp:77] Creating layer mnist
I0428 19:41:01.834936 24721 db_lmdb.cpp:35] Opened lmdb examples/mnist/mnist_train_lmdb
I0428 19:41:01.834959 24721 net.cpp:86] Creating Layer mnist
I0428 19:41:01.834965 24721 net.cpp:382] mnist -> data
I0428 19:41:01.834983 24721 net.cpp:382] mnist -> label
I0428 19:41:01.835974 24721 data_layer.cpp:45] output data size: 64,1,28,28
I0428 19:41:01.838309 24721 net.cpp:124] Setting up mnist
I0428 19:41:01.838323 24721 net.cpp:131] Top shape: 64 1 28 28 (50176)
I0428 19:41:01.838328 24721 net.cpp:131] Top shape: 64 (64)
I0428 19:41:01.838330 24721 net.cpp:139] Memory required for data: 200960
I0428 19:41:01.838336 24721 layer_factory.hpp:77] Creating layer conv0
I0428 19:41:01.838351 24721 net.cpp:86] Creating Layer conv0
I0428 19:41:01.838354 24721 net.cpp:408] conv0 <- data
I0428 19:41:01.838366 24721 net.cpp:382] conv0 -> conv0
I0428 19:41:02.072481 24721 net.cpp:124] Setting up conv0
I0428 19:41:02.072525 24721 net.cpp:131] Top shape: 64 2 24 24 (73728)
I0428 19:41:02.072531 24721 net.cpp:139] Memory required for data: 495872
I0428 19:41:02.072546 24721 layer_factory.hpp:77] Creating layer pool0
I0428 19:41:02.072573 24721 net.cpp:86] Creating Layer pool0
I0428 19:41:02.072578 24721 net.cpp:408] pool0 <- conv0
I0428 19:41:02.072583 24721 net.cpp:382] pool0 -> pool0
I0428 19:41:02.072631 24721 net.cpp:124] Setting up pool0
I0428 19:41:02.072638 24721 net.cpp:131] Top shape: 64 2 12 12 (18432)
I0428 19:41:02.072655 24721 net.cpp:139] Memory required for data: 569600
I0428 19:41:02.072659 24721 layer_factory.hpp:77] Creating layer conv1
I0428 19:41:02.072670 24721 net.cpp:86] Creating Layer conv1
I0428 19:41:02.072674 24721 net.cpp:408] conv1 <- pool0
I0428 19:41:02.072679 24721 net.cpp:382] conv1 -> conv1
I0428 19:41:02.074812 24721 net.cpp:124] Setting up conv1
I0428 19:41:02.074841 24721 net.cpp:131] Top shape: 64 10 8 8 (40960)
I0428 19:41:02.074846 24721 net.cpp:139] Memory required for data: 733440
I0428 19:41:02.074870 24721 layer_factory.hpp:77] Creating layer pool1
I0428 19:41:02.074878 24721 net.cpp:86] Creating Layer pool1
I0428 19:41:02.074882 24721 net.cpp:408] pool1 <- conv1
I0428 19:41:02.074901 24721 net.cpp:382] pool1 -> pool1
I0428 19:41:02.074936 24721 net.cpp:124] Setting up pool1
I0428 19:41:02.074944 24721 net.cpp:131] Top shape: 64 10 4 4 (10240)
I0428 19:41:02.074946 24721 net.cpp:139] Memory required for data: 774400
I0428 19:41:02.074949 24721 layer_factory.hpp:77] Creating layer ip1
I0428 19:41:02.074961 24721 net.cpp:86] Creating Layer ip1
I0428 19:41:02.074967 24721 net.cpp:408] ip1 <- pool1
I0428 19:41:02.074971 24721 net.cpp:382] ip1 -> ip1
I0428 19:41:02.075958 24721 net.cpp:124] Setting up ip1
I0428 19:41:02.075987 24721 net.cpp:131] Top shape: 64 10 (640)
I0428 19:41:02.075991 24721 net.cpp:139] Memory required for data: 776960
I0428 19:41:02.076000 24721 layer_factory.hpp:77] Creating layer relu1
I0428 19:41:02.076006 24721 net.cpp:86] Creating Layer relu1
I0428 19:41:02.076010 24721 net.cpp:408] relu1 <- ip1
I0428 19:41:02.076015 24721 net.cpp:369] relu1 -> ip1 (in-place)
I0428 19:41:02.076220 24721 net.cpp:124] Setting up relu1
I0428 19:41:02.076230 24721 net.cpp:131] Top shape: 64 10 (640)
I0428 19:41:02.076233 24721 net.cpp:139] Memory required for data: 779520
I0428 19:41:02.076236 24721 layer_factory.hpp:77] Creating layer loss
I0428 19:41:02.076242 24721 net.cpp:86] Creating Layer loss
I0428 19:41:02.076246 24721 net.cpp:408] loss <- ip1
I0428 19:41:02.076249 24721 net.cpp:408] loss <- label
I0428 19:41:02.076254 24721 net.cpp:382] loss -> loss
I0428 19:41:02.076273 24721 layer_factory.hpp:77] Creating layer loss
…
I0428 19:41:02.077541 24721 solver.cpp:173] Creating test net (#0) specified by net file: ECE595/mnist/train_test/var_everything2/lenet_train_test352.prototxt
I0428 19:41:02.077597 24721 net.cpp:296] The NetState phase (1) differed from the phase (0) specified by a rule in layer mnist
I0428 19:41:02.077668 24721 net.cpp:53] Initializing net from parameters: 
name: "LeNet"
state {
  phase: TEST
}
layer {
  name: "mnist"
  type: "Data"
  top: "data"
  top: "label"
  include {
    phase: TEST
  }
  transform_param {
    scale: 0.00390625
  }
  data_param {
    source: "examples/mnist/mnist_test_lmdb"
    batch_size: 100
    backend: LMDB
  }
}
layer {
  name: "conv0"
  type: "Convolution"
  bottom: "data"
  top: "conv0"
  param {
    lr_mult: 1
  }
  param {
    lr_mult: 2
  }
  convolution_param {
    num_output: 2
    kernel_size: 5
    stride: 1
    weight_filler {
      type: "xavier"
    }
    bias_filler {
      type: "constant"
    }
  }
}
layer {
  name: "pool0"
  type: "Pooling"
  bottom: "conv0"
  top: "pool0"
  pooling_param {
    pool: MAX
    kernel_size: 2
    stride: 2
  }
}
layer {
  name: "conv1"
  type: "Convolution"
  bottom: "pool0"
  top: "conv1"
  param {
    lr_mult: 1
  }
  param {
    lr_mult: 2
  }
  convolution_param {
    num_output: 10
    kernel_size: 5
    stride: 1
    weight_filler {
      type: "xavier"
    }
    bias_filler {
      type: "constant"
    }
  }
}
layer {
  name: "pool1"
  type: "Pooling"
  bottom: "conv1"
  top: "pool1"
  pooling_param {
    pool: MAX
    kernel_size: 2
    stride: 2
  }
}
layer {
  name: "ip1"
  type: "InnerProduct"
  bottom: "pool1"
  top: "ip1"
  param {
    lr_mult: 1
  }
  param {
    lr_mult: 2
  }
  inner_product_param {
    num_output: 10
    weight_filler {
      type: "xavier"
    }
    bias_filler {
      type: "constant"
    }
  }
}
layer {
  name: "relu1"
  type: "ReLU"
  bottom: "ip1"
  top: "ip1"
}
layer {
  name: "accuracy"
  type: "Accuracy"
  bottom: "ip1"
  bottom: "label"
  top: "accuracy"
  include {
    phase: TEST
  }
}
layer {
  name: "loss"
  type: "SoftmaxWithLoss"
  bottom: "ip1"
  bottom: "label"
  top: "loss"
}
I0428 19:41:02.077736 24721 layer_factory.hpp:77] Creating layer mnist
I0428 19:41:02.077780 24721 db_lmdb.cpp:35] Opened lmdb examples/mnist/mnist_test_lmdb
I0428 19:41:02.077790 24721 net.cpp:86] Creating Layer mnist
I0428 19:41:02.077795 24721 net.cpp:382] mnist -> data
I0428 19:41:02.077802 24721 net.cpp:382] mnist -> label
I0428 19:41:02.077919 24721 data_layer.cpp:45] output data size: 100,1,28,28
I0428 19:41:02.080020 24721 net.cpp:124] Setting up mnist
I0428 19:41:02.080032 24721 net.cpp:131] Top shape: 100 1 28 28 (78400)
I0428 19:41:02.080055 24721 net.cpp:131] Top shape: 100 (100)
I0428 19:41:02.080059 24721 net.cpp:139] Memory required for data: 314000
I0428 19:41:02.080062 24721 layer_factory.hpp:77] Creating layer label_mnist_1_split
I0428 19:41:02.080072 24721 net.cpp:86] Creating Layer label_mnist_1_split
I0428 19:41:02.080075 24721 net.cpp:408] label_mnist_1_split <- label
I0428 19:41:02.080080 24721 net.cpp:382] label_mnist_1_split -> label_mnist_1_split_0
I0428 19:41:02.080086 24721 net.cpp:382] label_mnist_1_split -> label_mnist_1_split_1
I0428 19:41:02.080127 24721 net.cpp:124] Setting up label_mnist_1_split
I0428 19:41:02.080133 24721 net.cpp:131] Top shape: 100 (100)
I0428 19:41:02.080137 24721 net.cpp:131] Top shape: 100 (100)
I0428 19:41:02.080140 24721 net.cpp:139] Memory required for data: 314800
I0428 19:41:02.080143 24721 layer_factory.hpp:77] Creating layer conv0
I0428 19:41:02.080152 24721 net.cpp:86] Creating Layer conv0
I0428 19:41:02.080154 24721 net.cpp:408] conv0 <- data
I0428 19:41:02.080159 24721 net.cpp:382] conv0 -> conv0
I0428 19:41:02.081218 24721 net.cpp:124] Setting up conv0
I0428 19:41:02.081229 24721 net.cpp:131] Top shape: 100 2 24 24 (115200)
I0428 19:41:02.081249 24721 net.cpp:139] Memory required for data: 775600
I0428 19:41:02.081259 24721 layer_factory.hpp:77] Creating layer pool0
I0428 19:41:02.081264 24721 net.cpp:86] Creating Layer pool0
I0428 19:41:02.081267 24721 net.cpp:408] pool0 <- conv0
I0428 19:41:02.081271 24721 net.cpp:382] pool0 -> pool0
I0428 19:41:02.081305 24721 net.cpp:124] Setting up pool0
I0428 19:41:02.081311 24721 net.cpp:131] Top shape: 100 2 12 12 (28800)
I0428 19:41:02.081315 24721 net.cpp:139] Memory required for data: 890800
I0428 19:41:02.081317 24721 layer_factory.hpp:77] Creating layer conv1
I0428 19:41:02.081324 24721 net.cpp:86] Creating Layer conv1
I0428 19:41:02.081329 24721 net.cpp:408] conv1 <- pool0
I0428 19:41:02.081333 24721 net.cpp:382] conv1 -> conv1
I0428 19:41:02.082962 24721 net.cpp:124] Setting up conv1
I0428 19:41:02.082976 24721 net.cpp:131] Top shape: 100 10 8 8 (64000)
I0428 19:41:02.082996 24721 net.cpp:139] Memory required for data: 1146800
I0428 19:41:02.083005 24721 layer_factory.hpp:77] Creating layer pool1
I0428 19:41:02.083011 24721 net.cpp:86] Creating Layer pool1
I0428 19:41:02.083025 24721 net.cpp:408] pool1 <- conv1
I0428 19:41:02.083031 24721 net.cpp:382] pool1 -> pool1
I0428 19:41:02.083067 24721 net.cpp:124] Setting up pool1
I0428 19:41:02.083075 24721 net.cpp:131] Top shape: 100 10 4 4 (16000)
I0428 19:41:02.083077 24721 net.cpp:139] Memory required for data: 1210800
I0428 19:41:02.083081 24721 layer_factory.hpp:77] Creating layer ip1
I0428 19:41:02.083086 24721 net.cpp:86] Creating Layer ip1
I0428 19:41:02.083089 24721 net.cpp:408] ip1 <- pool1
I0428 19:41:02.083094 24721 net.cpp:382] ip1 -> ip1
I0428 19:41:02.083196 24721 net.cpp:124] Setting up ip1
I0428 19:41:02.083204 24721 net.cpp:131] Top shape: 100 10 (1000)
I0428 19:41:02.083207 24721 net.cpp:139] Memory required for data: 1214800
I0428 19:41:02.083214 24721 layer_factory.hpp:77] Creating layer relu1
I0428 19:41:02.083220 24721 net.cpp:86] Creating Layer relu1
I0428 19:41:02.083222 24721 net.cpp:408] relu1 <- ip1
I0428 19:41:02.083226 24721 net.cpp:369] relu1 -> ip1 (in-place)
I0428 19:41:02.084137 24721 net.cpp:124] Setting up relu1
I0428 19:41:02.084156 24721 net.cpp:131] Top shape: 100 10 (1000)
I0428 19:41:02.084177 24721 net.cpp:139] Memory required for data: 1218800
I0428 19:41:02.084180 24721 layer_factory.hpp:77] Creating layer ip1_relu1_0_split
I0428 19:41:02.084187 24721 net.cpp:86] Creating Layer ip1_relu1_0_split
I0428 19:41:02.084190 24721 net.cpp:408] ip1_relu1_0_split <- ip1
I0428 19:41:02.084195 24721 net.cpp:382] ip1_relu1_0_split -> ip1_relu1_0_split_0
I0428 19:41:02.084202 24721 net.cpp:382] ip1_relu1_0_split -> ip1_relu1_0_split_1
I0428 19:41:02.084269 24721 net.cpp:124] Setting up ip1_relu1_0_split
I0428 19:41:02.084290 24721 net.cpp:131] Top shape: 100 10 (1000)
I0428 19:41:02.084295 24721 net.cpp:131] Top shape: 100 10 (1000)
I0428 19:41:02.084298 24721 net.cpp:139] Memory required for data: 1226800
I0428 19:41:02.084301 24721 layer_factory.hpp:77] Creating layer accuracy
I0428 19:41:02.084306 24721 net.cpp:86] Creating Layer accuracy
I0428 19:41:02.084309 24721 net.cpp:408] accuracy <- ip1_relu1_0_split_0
I0428 19:41:02.084313 24721 net.cpp:408] accuracy <- label_mnist_1_split_0
I0428 19:41:02.084318 24721 net.cpp:382] accuracy -> accuracy
…
