…
I0428 19:45:54.594907 25910 net.cpp:296] The NetState phase (0) differed from the phase (1) specified by a rule in layer mnist
I0428 19:45:54.594925 25910 net.cpp:296] The NetState phase (0) differed from the phase (1) specified by a rule in layer accuracy
I0428 19:45:54.595021 25910 net.cpp:53] Initializing net from parameters: 
name: "LeNet"
state {
  phase: TRAIN
  level: 0
  stage: ""
}
layer {
  name: "mnist"
  type: "Data"
  top: "data"
  top: "label"
  include {
    phase: TRAIN
  }
  transform_param {
    scale: 0.00390625
  }
  data_param {
    source: "examples/mnist/mnist_train_lmdb"
    batch_size: 64
    backend: LMDB
  }
}
layer {
  name: "conv0"
  type: "Convolution"
  bottom: "data"
  top: "conv0"
  param {
    lr_mult: 1
  }
  param {
    lr_mult: 2
  }
  convolution_param {
    num_output: 2
    kernel_size: 5
    stride: 1
    weight_filler {
      type: "xavier"
    }
    bias_filler {
      type: "constant"
    }
  }
}
layer {
  name: "pool0"
  type: "Pooling"
  bottom: "conv0"
  top: "pool0"
  pooling_param {
    pool: MAX
    kernel_size: 2
    stride: 2
  }
}
layer {
  name: "conv1"
  type: "Convolution"
  bottom: "pool0"
  top: "conv1"
  param {
    lr_mult: 1
  }
  param {
    lr_mult: 2
  }
  convolution_param {
    num_output: 100
    kernel_size: 5
    stride: 1
    weight_filler {
      type: "xavier"
    }
    bias_filler {
      type: "constant"
    }
  }
}
layer {
  name: "pool1"
  type: "Pooling"
  bottom: "conv1"
  top: "pool1"
  pooling_param {
    pool: MAX
    kernel_size: 2
    stride: 2
  }
}
layer {
  name: "ip1"
  type: "InnerProduct"
  bottom: "pool1"
  top: "ip1"
  param {
    lr_mult: 1
  }
  param {
    lr_mult: 2
  }
  inner_product_param {
    num_output: 10
    weight_filler {
      type: "xavier"
    }
    bias_filler {
      type: "constant"
    }
  }
}
layer {
  name: "relu1"
  type: "ReLU"
  bottom: "ip1"
  top: "ip1"
}
layer {
  name: "ip2"
  type: "InnerProduct"
  bottom: "ip1"
  top: "ip2"
  param {
    lr_mult: 1
  }
  param {
    lr_mult: 2
  }
  inner_product_param {
    num_output: 10
    weight_filler {
      type: "xavier"
    }
    bias_filler {
      type: "constant"
    }
  }
}
layer {
  name: "relu2"
  type: "ReLU"
  bottom: "ip2"
  top: "ip2"
}
layer {
  name: "ip3"
  type: "InnerProduct"
  bottom: "ip2"
  top: "ip3"
  param {
    lr_mult: 1
  }
  param {
    lr_mult: 2
  }
  inner_product_param {
    num_output: 10
    weight_filler {
      type: "xavier"
    }
    bias_filler {
      type: "constant"
    }
  }
}
layer {
  name: "relu3"
  type: "ReLU"
  bottom: "ip3"
  top: "ip3"
}
layer {
  name: "loss"
  type: "SoftmaxWithLoss"
  bottom: "ip3"
  bottom: "label"
  top: "loss"
}
I0428 19:45:54.595095 25910 layer_factory.hpp:77] Creating layer mnist
I0428 19:45:54.595198 25910 db_lmdb.cpp:35] Opened lmdb examples/mnist/mnist_train_lmdb
I0428 19:45:54.595221 25910 net.cpp:86] Creating Layer mnist
I0428 19:45:54.595229 25910 net.cpp:382] mnist -> data
I0428 19:45:54.595252 25910 net.cpp:382] mnist -> label
I0428 19:45:54.596356 25910 data_layer.cpp:45] output data size: 64,1,28,28
I0428 19:45:54.598810 25910 net.cpp:124] Setting up mnist
I0428 19:45:54.598829 25910 net.cpp:131] Top shape: 64 1 28 28 (50176)
I0428 19:45:54.598834 25910 net.cpp:131] Top shape: 64 (64)
I0428 19:45:54.598839 25910 net.cpp:139] Memory required for data: 200960
I0428 19:45:54.598846 25910 layer_factory.hpp:77] Creating layer conv0
I0428 19:45:54.598861 25910 net.cpp:86] Creating Layer conv0
I0428 19:45:54.598883 25910 net.cpp:408] conv0 <- data
I0428 19:45:54.598896 25910 net.cpp:382] conv0 -> conv0
I0428 19:45:54.889818 25910 net.cpp:124] Setting up conv0
I0428 19:45:54.889849 25910 net.cpp:131] Top shape: 64 2 24 24 (73728)
I0428 19:45:54.889855 25910 net.cpp:139] Memory required for data: 495872
I0428 19:45:54.889873 25910 layer_factory.hpp:77] Creating layer pool0
I0428 19:45:54.889889 25910 net.cpp:86] Creating Layer pool0
I0428 19:45:54.889894 25910 net.cpp:408] pool0 <- conv0
I0428 19:45:54.889899 25910 net.cpp:382] pool0 -> pool0
I0428 19:45:54.889953 25910 net.cpp:124] Setting up pool0
I0428 19:45:54.889961 25910 net.cpp:131] Top shape: 64 2 12 12 (18432)
I0428 19:45:54.889964 25910 net.cpp:139] Memory required for data: 569600
I0428 19:45:54.889968 25910 layer_factory.hpp:77] Creating layer conv1
I0428 19:45:54.889981 25910 net.cpp:86] Creating Layer conv1
I0428 19:45:54.889986 25910 net.cpp:408] conv1 <- pool0
I0428 19:45:54.889991 25910 net.cpp:382] conv1 -> conv1
I0428 19:45:54.893141 25910 net.cpp:124] Setting up conv1
I0428 19:45:54.893158 25910 net.cpp:131] Top shape: 64 100 8 8 (409600)
I0428 19:45:54.893162 25910 net.cpp:139] Memory required for data: 2208000
I0428 19:45:54.893172 25910 layer_factory.hpp:77] Creating layer pool1
I0428 19:45:54.893182 25910 net.cpp:86] Creating Layer pool1
I0428 19:45:54.893187 25910 net.cpp:408] pool1 <- conv1
I0428 19:45:54.893193 25910 net.cpp:382] pool1 -> pool1
I0428 19:45:54.893237 25910 net.cpp:124] Setting up pool1
I0428 19:45:54.893244 25910 net.cpp:131] Top shape: 64 100 4 4 (102400)
I0428 19:45:54.893247 25910 net.cpp:139] Memory required for data: 2617600
I0428 19:45:54.893251 25910 layer_factory.hpp:77] Creating layer ip1
I0428 19:45:54.893260 25910 net.cpp:86] Creating Layer ip1
I0428 19:45:54.893263 25910 net.cpp:408] ip1 <- pool1
I0428 19:45:54.893268 25910 net.cpp:382] ip1 -> ip1
I0428 19:45:54.893486 25910 net.cpp:124] Setting up ip1
I0428 19:45:54.893496 25910 net.cpp:131] Top shape: 64 10 (640)
I0428 19:45:54.893501 25910 net.cpp:139] Memory required for data: 2620160
I0428 19:45:54.893508 25910 layer_factory.hpp:77] Creating layer relu1
I0428 19:45:54.893515 25910 net.cpp:86] Creating Layer relu1
I0428 19:45:54.893518 25910 net.cpp:408] relu1 <- ip1
I0428 19:45:54.893523 25910 net.cpp:369] relu1 -> ip1 (in-place)
I0428 19:45:54.893719 25910 net.cpp:124] Setting up relu1
I0428 19:45:54.893729 25910 net.cpp:131] Top shape: 64 10 (640)
I0428 19:45:54.893733 25910 net.cpp:139] Memory required for data: 2622720
I0428 19:45:54.893738 25910 layer_factory.hpp:77] Creating layer ip2
I0428 19:45:54.893745 25910 net.cpp:86] Creating Layer ip2
I0428 19:45:54.893748 25910 net.cpp:408] ip2 <- ip1
I0428 19:45:54.893754 25910 net.cpp:382] ip2 -> ip2
I0428 19:45:54.893864 25910 net.cpp:124] Setting up ip2
I0428 19:45:54.893872 25910 net.cpp:131] Top shape: 64 10 (640)
I0428 19:45:54.893877 25910 net.cpp:139] Memory required for data: 2625280
I0428 19:45:54.893883 25910 layer_factory.hpp:77] Creating layer relu2
I0428 19:45:54.893890 25910 net.cpp:86] Creating Layer relu2
I0428 19:45:54.893893 25910 net.cpp:408] relu2 <- ip2
I0428 19:45:54.893898 25910 net.cpp:369] relu2 -> ip2 (in-place)
I0428 19:45:54.894749 25910 net.cpp:124] Setting up relu2
I0428 19:45:54.894764 25910 net.cpp:131] Top shape: 64 10 (640)
I0428 19:45:54.894768 25910 net.cpp:139] Memory required for data: 2627840
I0428 19:45:54.894773 25910 layer_factory.hpp:77] Creating layer ip3
I0428 19:45:54.894781 25910 net.cpp:86] Creating Layer ip3
I0428 19:45:54.894785 25910 net.cpp:408] ip3 <- ip2
I0428 19:45:54.894793 25910 net.cpp:382] ip3 -> ip3
I0428 19:45:54.894911 25910 net.cpp:124] Setting up ip3
I0428 19:45:54.894920 25910 net.cpp:131] Top shape: 64 10 (640)
I0428 19:45:54.894923 25910 net.cpp:139] Memory required for data: 2630400
I0428 19:45:54.894933 25910 layer_factory.hpp:77] Creating layer relu3
I0428 19:45:54.894939 25910 net.cpp:86] Creating Layer relu3
I0428 19:45:54.894943 25910 net.cpp:408] relu3 <- ip3
I0428 19:45:54.894948 25910 net.cpp:369] relu3 -> ip3 (in-place)
I0428 19:45:54.895149 25910 net.cpp:124] Setting up relu3
I0428 19:45:54.895160 25910 net.cpp:131] Top shape: 64 10 (640)
I0428 19:45:54.895164 25910 net.cpp:139] Memory required for data: 2632960
I0428 19:45:54.895167 25910 layer_factory.hpp:77] Creating layer loss
I0428 19:45:54.895174 25910 net.cpp:86] Creating Layer loss
I0428 19:45:54.895179 25910 net.cpp:408] loss <- ip3
I0428 19:45:54.895184 25910 net.cpp:408] loss <- label
I0428 19:45:54.895191 25910 net.cpp:382] loss -> loss
I0428 19:45:54.895211 25910 layer_factory.hpp:77] Creating layer loss
…
I0428 19:45:54.895982 25910 solver.cpp:173] Creating test net (#0) specified by net file: ECE595/mnist/train_test/var_everything2/lenet_train_test481.prototxt
I0428 19:45:54.896013 25910 net.cpp:296] The NetState phase (1) differed from the phase (0) specified by a rule in layer mnist
I0428 19:45:54.896122 25910 net.cpp:53] Initializing net from parameters: 
name: "LeNet"
state {
  phase: TEST
}
layer {
  name: "mnist"
  type: "Data"
  top: "data"
  top: "label"
  include {
    phase: TEST
  }
  transform_param {
    scale: 0.00390625
  }
  data_param {
    source: "examples/mnist/mnist_test_lmdb"
    batch_size: 100
    backend: LMDB
  }
}
layer {
  name: "conv0"
  type: "Convolution"
  bottom: "data"
  top: "conv0"
  param {
    lr_mult: 1
  }
  param {
    lr_mult: 2
  }
  convolution_param {
    num_output: 2
    kernel_size: 5
    stride: 1
    weight_filler {
      type: "xavier"
    }
    bias_filler {
      type: "constant"
    }
  }
}
layer {
  name: "pool0"
  type: "Pooling"
  bottom: "conv0"
  top: "pool0"
  pooling_param {
    pool: MAX
    kernel_size: 2
    stride: 2
  }
}
layer {
  name: "conv1"
  type: "Convolution"
  bottom: "pool0"
  top: "conv1"
  param {
    lr_mult: 1
  }
  param {
    lr_mult: 2
  }
  convolution_param {
    num_output: 100
    kernel_size: 5
    stride: 1
    weight_filler {
      type: "xavier"
    }
    bias_filler {
      type: "constant"
    }
  }
}
layer {
  name: "pool1"
  type: "Pooling"
  bottom: "conv1"
  top: "pool1"
  pooling_param {
    pool: MAX
    kernel_size: 2
    stride: 2
  }
}
layer {
  name: "ip1"
  type: "InnerProduct"
  bottom: "pool1"
  top: "ip1"
  param {
    lr_mult: 1
  }
  param {
    lr_mult: 2
  }
  inner_product_param {
    num_output: 10
    weight_filler {
      type: "xavier"
    }
    bias_filler {
      type: "constant"
    }
  }
}
layer {
  name: "relu1"
  type: "ReLU"
  bottom: "ip1"
  top: "ip1"
}
layer {
  name: "ip2"
  type: "InnerProduct"
  bottom: "ip1"
  top: "ip2"
  param {
    lr_mult: 1
  }
  param {
    lr_mult: 2
  }
  inner_product_param {
    num_output: 10
    weight_filler {
      type: "xavier"
    }
    bias_filler {
      type: "constant"
    }
  }
}
layer {
  name: "relu2"
  type: "ReLU"
  bottom: "ip2"
  top: "ip2"
}
layer {
  name: "ip3"
  type: "InnerProduct"
  bottom: "ip2"
  top: "ip3"
  param {
    lr_mult: 1
  }
  param {
    lr_mult: 2
  }
  inner_product_param {
    num_output: 10
    weight_filler {
      type: "xavier"
    }
    bias_filler {
      type: "constant"
    }
  }
}
layer {
  name: "relu3"
  type: "ReLU"
  bottom: "ip3"
  top: "ip3"
}
layer {
  name: "accuracy"
  type: "Accuracy"
  bottom: "ip3"
  bottom: "label"
  top: "accuracy"
  include {
    phase: TEST
  }
}
layer {
  name: "loss"
  type: "SoftmaxWithLoss"
  bottom: "ip3"
  bottom: "label"
  top: "loss"
}
I0428 19:45:54.896222 25910 layer_factory.hpp:77] Creating layer mnist
I0428 19:45:54.896275 25910 db_lmdb.cpp:35] Opened lmdb examples/mnist/mnist_test_lmdb
I0428 19:45:54.896291 25910 net.cpp:86] Creating Layer mnist
I0428 19:45:54.896296 25910 net.cpp:382] mnist -> data
I0428 19:45:54.896306 25910 net.cpp:382] mnist -> label
I0428 19:45:54.896407 25910 data_layer.cpp:45] output data size: 100,1,28,28
I0428 19:45:54.898604 25910 net.cpp:124] Setting up mnist
I0428 19:45:54.898638 25910 net.cpp:131] Top shape: 100 1 28 28 (78400)
I0428 19:45:54.898645 25910 net.cpp:131] Top shape: 100 (100)
I0428 19:45:54.898648 25910 net.cpp:139] Memory required for data: 314000
I0428 19:45:54.898653 25910 layer_factory.hpp:77] Creating layer label_mnist_1_split
I0428 19:45:54.898660 25910 net.cpp:86] Creating Layer label_mnist_1_split
I0428 19:45:54.898664 25910 net.cpp:408] label_mnist_1_split <- label
I0428 19:45:54.898669 25910 net.cpp:382] label_mnist_1_split -> label_mnist_1_split_0
I0428 19:45:54.898677 25910 net.cpp:382] label_mnist_1_split -> label_mnist_1_split_1
I0428 19:45:54.898782 25910 net.cpp:124] Setting up label_mnist_1_split
I0428 19:45:54.898792 25910 net.cpp:131] Top shape: 100 (100)
I0428 19:45:54.898795 25910 net.cpp:131] Top shape: 100 (100)
I0428 19:45:54.898798 25910 net.cpp:139] Memory required for data: 314800
I0428 19:45:54.898802 25910 layer_factory.hpp:77] Creating layer conv0
I0428 19:45:54.898813 25910 net.cpp:86] Creating Layer conv0
I0428 19:45:54.898816 25910 net.cpp:408] conv0 <- data
I0428 19:45:54.898824 25910 net.cpp:382] conv0 -> conv0
I0428 19:45:54.900745 25910 net.cpp:124] Setting up conv0
I0428 19:45:54.900761 25910 net.cpp:131] Top shape: 100 2 24 24 (115200)
I0428 19:45:54.900765 25910 net.cpp:139] Memory required for data: 775600
I0428 19:45:54.900776 25910 layer_factory.hpp:77] Creating layer pool0
I0428 19:45:54.900789 25910 net.cpp:86] Creating Layer pool0
I0428 19:45:54.900792 25910 net.cpp:408] pool0 <- conv0
I0428 19:45:54.900799 25910 net.cpp:382] pool0 -> pool0
I0428 19:45:54.900852 25910 net.cpp:124] Setting up pool0
I0428 19:45:54.900861 25910 net.cpp:131] Top shape: 100 2 12 12 (28800)
I0428 19:45:54.900864 25910 net.cpp:139] Memory required for data: 890800
I0428 19:45:54.900867 25910 layer_factory.hpp:77] Creating layer conv1
I0428 19:45:54.900879 25910 net.cpp:86] Creating Layer conv1
I0428 19:45:54.900883 25910 net.cpp:408] conv1 <- pool0
I0428 19:45:54.900892 25910 net.cpp:382] conv1 -> conv1
I0428 19:45:54.902693 25910 net.cpp:124] Setting up conv1
I0428 19:45:54.902710 25910 net.cpp:131] Top shape: 100 100 8 8 (640000)
I0428 19:45:54.902714 25910 net.cpp:139] Memory required for data: 3450800
I0428 19:45:54.902725 25910 layer_factory.hpp:77] Creating layer pool1
I0428 19:45:54.902732 25910 net.cpp:86] Creating Layer pool1
I0428 19:45:54.902736 25910 net.cpp:408] pool1 <- conv1
I0428 19:45:54.902742 25910 net.cpp:382] pool1 -> pool1
I0428 19:45:54.902788 25910 net.cpp:124] Setting up pool1
I0428 19:45:54.902797 25910 net.cpp:131] Top shape: 100 100 4 4 (160000)
I0428 19:45:54.902801 25910 net.cpp:139] Memory required for data: 4090800
I0428 19:45:54.902803 25910 layer_factory.hpp:77] Creating layer ip1
I0428 19:45:54.902812 25910 net.cpp:86] Creating Layer ip1
I0428 19:45:54.902815 25910 net.cpp:408] ip1 <- pool1
I0428 19:45:54.902822 25910 net.cpp:382] ip1 -> ip1
I0428 19:45:54.903045 25910 net.cpp:124] Setting up ip1
I0428 19:45:54.903055 25910 net.cpp:131] Top shape: 100 10 (1000)
I0428 19:45:54.903072 25910 net.cpp:139] Memory required for data: 4094800
I0428 19:45:54.903082 25910 layer_factory.hpp:77] Creating layer relu1
I0428 19:45:54.903090 25910 net.cpp:86] Creating Layer relu1
I0428 19:45:54.903095 25910 net.cpp:408] relu1 <- ip1
I0428 19:45:54.903100 25910 net.cpp:369] relu1 -> ip1 (in-place)
I0428 19:45:54.903362 25910 net.cpp:124] Setting up relu1
I0428 19:45:54.903373 25910 net.cpp:131] Top shape: 100 10 (1000)
I0428 19:45:54.903378 25910 net.cpp:139] Memory required for data: 4098800
I0428 19:45:54.903380 25910 layer_factory.hpp:77] Creating layer ip2
I0428 19:45:54.903389 25910 net.cpp:86] Creating Layer ip2
I0428 19:45:54.903393 25910 net.cpp:408] ip2 <- ip1
I0428 19:45:54.903400 25910 net.cpp:382] ip2 -> ip2
I0428 19:45:54.903537 25910 net.cpp:124] Setting up ip2
I0428 19:45:54.903545 25910 net.cpp:131] Top shape: 100 10 (1000)
I0428 19:45:54.903548 25910 net.cpp:139] Memory required for data: 4102800
I0428 19:45:54.903555 25910 layer_factory.hpp:77] Creating layer relu2
I0428 19:45:54.903561 25910 net.cpp:86] Creating Layer relu2
I0428 19:45:54.903565 25910 net.cpp:408] relu2 <- ip2
I0428 19:45:54.903570 25910 net.cpp:369] relu2 -> ip2 (in-place)
I0428 19:45:54.903761 25910 net.cpp:124] Setting up relu2
I0428 19:45:54.903772 25910 net.cpp:131] Top shape: 100 10 (1000)
I0428 19:45:54.903775 25910 net.cpp:139] Memory required for data: 4106800
I0428 19:45:54.903779 25910 layer_factory.hpp:77] Creating layer ip3
I0428 19:45:54.903789 25910 net.cpp:86] Creating Layer ip3
I0428 19:45:54.903792 25910 net.cpp:408] ip3 <- ip2
I0428 19:45:54.903798 25910 net.cpp:382] ip3 -> ip3
I0428 19:45:54.903916 25910 net.cpp:124] Setting up ip3
I0428 19:45:54.903924 25910 net.cpp:131] Top shape: 100 10 (1000)
I0428 19:45:54.903928 25910 net.cpp:139] Memory required for data: 4110800
I0428 19:45:54.903936 25910 layer_factory.hpp:77] Creating layer relu3
I0428 19:45:54.903941 25910 net.cpp:86] Creating Layer relu3
I0428 19:45:54.903945 25910 net.cpp:408] relu3 <- ip3
I0428 19:45:54.903950 25910 net.cpp:369] relu3 -> ip3 (in-place)
I0428 19:45:54.904891 25910 net.cpp:124] Setting up relu3
I0428 19:45:54.904906 25910 net.cpp:131] Top shape: 100 10 (1000)
I0428 19:45:54.904909 25910 net.cpp:139] Memory required for data: 4114800
I0428 19:45:54.904913 25910 layer_factory.hpp:77] Creating layer ip3_relu3_0_split
I0428 19:45:54.904919 25910 net.cpp:86] Creating Layer ip3_relu3_0_split
I0428 19:45:54.904923 25910 net.cpp:408] ip3_relu3_0_split <- ip3
I0428 19:45:54.904932 25910 net.cpp:382] ip3_relu3_0_split -> ip3_relu3_0_split_0
I0428 19:45:54.904938 25910 net.cpp:382] ip3_relu3_0_split -> ip3_relu3_0_split_1
I0428 19:45:54.904983 25910 net.cpp:124] Setting up ip3_relu3_0_split
I0428 19:45:54.904991 25910 net.cpp:131] Top shape: 100 10 (1000)
I0428 19:45:54.904995 25910 net.cpp:131] Top shape: 100 10 (1000)
I0428 19:45:54.904999 25910 net.cpp:139] Memory required for data: 4122800
I0428 19:45:54.905002 25910 layer_factory.hpp:77] Creating layer accuracy
I0428 19:45:54.905009 25910 net.cpp:86] Creating Layer accuracy
I0428 19:45:54.905011 25910 net.cpp:408] accuracy <- ip3_relu3_0_split_0
I0428 19:45:54.905017 25910 net.cpp:408] accuracy <- label_mnist_1_split_0
I0428 19:45:54.905022 25910 net.cpp:382] accuracy -> accuracy
…
