…
I0428 20:11:02.373364 31990 net.cpp:296] The NetState phase (0) differed from the phase (1) specified by a rule in layer mnist
I0428 20:11:02.373394 31990 net.cpp:296] The NetState phase (0) differed from the phase (1) specified by a rule in layer accuracy
I0428 20:11:02.373522 31990 net.cpp:53] Initializing net from parameters: 
name: "LeNet"
state {
  phase: TRAIN
  level: 0
  stage: ""
}
layer {
  name: "mnist"
  type: "Data"
  top: "data"
  top: "label"
  include {
    phase: TRAIN
  }
  transform_param {
    scale: 0.00390625
  }
  data_param {
    source: "examples/mnist/mnist_train_lmdb"
    batch_size: 64
    backend: LMDB
  }
}
layer {
  name: "conv0"
  type: "Convolution"
  bottom: "data"
  top: "conv0"
  param {
    lr_mult: 1
  }
  param {
    lr_mult: 2
  }
  convolution_param {
    num_output: 25
    kernel_size: 5
    stride: 1
    weight_filler {
      type: "xavier"
    }
    bias_filler {
      type: "constant"
    }
  }
}
layer {
  name: "pool0"
  type: "Pooling"
  bottom: "conv0"
  top: "pool0"
  pooling_param {
    pool: MAX
    kernel_size: 2
    stride: 2
  }
}
layer {
  name: "conv1"
  type: "Convolution"
  bottom: "pool0"
  top: "conv1"
  param {
    lr_mult: 1
  }
  param {
    lr_mult: 2
  }
  convolution_param {
    num_output: 50
    kernel_size: 5
    stride: 1
    weight_filler {
      type: "xavier"
    }
    bias_filler {
      type: "constant"
    }
  }
}
layer {
  name: "pool1"
  type: "Pooling"
  bottom: "conv1"
  top: "pool1"
  pooling_param {
    pool: MAX
    kernel_size: 2
    stride: 2
  }
}
layer {
  name: "ip1"
  type: "InnerProduct"
  bottom: "pool1"
  top: "ip1"
  param {
    lr_mult: 1
  }
  param {
    lr_mult: 2
  }
  inner_product_param {
    num_output: 10
    weight_filler {
      type: "xavier"
    }
    bias_filler {
      type: "constant"
    }
  }
}
layer {
  name: "relu1"
  type: "ReLU"
  bottom: "ip1"
  top: "ip1"
}
layer {
  name: "ip2"
  type: "InnerProduct"
  bottom: "ip1"
  top: "ip2"
  param {
    lr_mult: 1
  }
  param {
    lr_mult: 2
  }
  inner_product_param {
    num_output: 50
    weight_filler {
      type: "xavier"
    }
    bias_filler {
      type: "constant"
    }
  }
}
layer {
  name: "relu2"
  type: "ReLU"
  bottom: "ip2"
  top: "ip2"
}
layer {
  name: "ip3"
  type: "InnerProduct"
  bottom: "ip2"
  top: "ip3"
  param {
    lr_mult: 1
  }
  param {
    lr_mult: 2
  }
  inner_product_param {
    num_output: 10
    weight_filler {
      type: "xavier"
    }
    bias_filler {
      type: "constant"
    }
  }
}
layer {
  name: "relu3"
  type: "ReLU"
  bottom: "ip3"
  top: "ip3"
}
layer {
  name: "loss"
  type: "SoftmaxWithLoss"
  bottom: "ip3"
  bottom: "label"
  top: "loss"
}
I0428 20:11:02.373587 31990 layer_factory.hpp:77] Creating layer mnist
I0428 20:11:02.373673 31990 db_lmdb.cpp:35] Opened lmdb examples/mnist/mnist_train_lmdb
I0428 20:11:02.373692 31990 net.cpp:86] Creating Layer mnist
I0428 20:11:02.373699 31990 net.cpp:382] mnist -> data
I0428 20:11:02.373718 31990 net.cpp:382] mnist -> label
I0428 20:11:02.374619 31990 data_layer.cpp:45] output data size: 64,1,28,28
I0428 20:11:02.376796 31990 net.cpp:124] Setting up mnist
I0428 20:11:02.376847 31990 net.cpp:131] Top shape: 64 1 28 28 (50176)
I0428 20:11:02.376868 31990 net.cpp:131] Top shape: 64 (64)
I0428 20:11:02.376870 31990 net.cpp:139] Memory required for data: 200960
I0428 20:11:02.376891 31990 layer_factory.hpp:77] Creating layer conv0
I0428 20:11:02.376935 31990 net.cpp:86] Creating Layer conv0
I0428 20:11:02.376955 31990 net.cpp:408] conv0 <- data
I0428 20:11:02.376968 31990 net.cpp:382] conv0 -> conv0
I0428 20:11:02.607604 31990 net.cpp:124] Setting up conv0
I0428 20:11:02.607628 31990 net.cpp:131] Top shape: 64 25 24 24 (921600)
I0428 20:11:02.607632 31990 net.cpp:139] Memory required for data: 3887360
I0428 20:11:02.607646 31990 layer_factory.hpp:77] Creating layer pool0
I0428 20:11:02.607658 31990 net.cpp:86] Creating Layer pool0
I0428 20:11:02.607662 31990 net.cpp:408] pool0 <- conv0
I0428 20:11:02.607667 31990 net.cpp:382] pool0 -> pool0
I0428 20:11:02.607739 31990 net.cpp:124] Setting up pool0
I0428 20:11:02.607744 31990 net.cpp:131] Top shape: 64 25 12 12 (230400)
I0428 20:11:02.607748 31990 net.cpp:139] Memory required for data: 4808960
I0428 20:11:02.607750 31990 layer_factory.hpp:77] Creating layer conv1
I0428 20:11:02.607761 31990 net.cpp:86] Creating Layer conv1
I0428 20:11:02.607764 31990 net.cpp:408] conv1 <- pool0
I0428 20:11:02.607769 31990 net.cpp:382] conv1 -> conv1
I0428 20:11:02.609736 31990 net.cpp:124] Setting up conv1
I0428 20:11:02.609766 31990 net.cpp:131] Top shape: 64 50 8 8 (204800)
I0428 20:11:02.609771 31990 net.cpp:139] Memory required for data: 5628160
I0428 20:11:02.609778 31990 layer_factory.hpp:77] Creating layer pool1
I0428 20:11:02.609786 31990 net.cpp:86] Creating Layer pool1
I0428 20:11:02.609789 31990 net.cpp:408] pool1 <- conv1
I0428 20:11:02.609794 31990 net.cpp:382] pool1 -> pool1
I0428 20:11:02.609829 31990 net.cpp:124] Setting up pool1
I0428 20:11:02.609834 31990 net.cpp:131] Top shape: 64 50 4 4 (51200)
I0428 20:11:02.609838 31990 net.cpp:139] Memory required for data: 5832960
I0428 20:11:02.609840 31990 layer_factory.hpp:77] Creating layer ip1
I0428 20:11:02.609846 31990 net.cpp:86] Creating Layer ip1
I0428 20:11:02.609849 31990 net.cpp:408] ip1 <- pool1
I0428 20:11:02.609854 31990 net.cpp:382] ip1 -> ip1
I0428 20:11:02.610869 31990 net.cpp:124] Setting up ip1
I0428 20:11:02.610882 31990 net.cpp:131] Top shape: 64 10 (640)
I0428 20:11:02.610899 31990 net.cpp:139] Memory required for data: 5835520
I0428 20:11:02.610908 31990 layer_factory.hpp:77] Creating layer relu1
I0428 20:11:02.610913 31990 net.cpp:86] Creating Layer relu1
I0428 20:11:02.610916 31990 net.cpp:408] relu1 <- ip1
I0428 20:11:02.610921 31990 net.cpp:369] relu1 -> ip1 (in-place)
I0428 20:11:02.611100 31990 net.cpp:124] Setting up relu1
I0428 20:11:02.611109 31990 net.cpp:131] Top shape: 64 10 (640)
I0428 20:11:02.611112 31990 net.cpp:139] Memory required for data: 5838080
I0428 20:11:02.611115 31990 layer_factory.hpp:77] Creating layer ip2
I0428 20:11:02.611122 31990 net.cpp:86] Creating Layer ip2
I0428 20:11:02.611125 31990 net.cpp:408] ip2 <- ip1
I0428 20:11:02.611130 31990 net.cpp:382] ip2 -> ip2
I0428 20:11:02.611225 31990 net.cpp:124] Setting up ip2
I0428 20:11:02.611232 31990 net.cpp:131] Top shape: 64 50 (3200)
I0428 20:11:02.611235 31990 net.cpp:139] Memory required for data: 5850880
I0428 20:11:02.611240 31990 layer_factory.hpp:77] Creating layer relu2
I0428 20:11:02.611246 31990 net.cpp:86] Creating Layer relu2
I0428 20:11:02.611249 31990 net.cpp:408] relu2 <- ip2
I0428 20:11:02.611253 31990 net.cpp:369] relu2 -> ip2 (in-place)
I0428 20:11:02.611966 31990 net.cpp:124] Setting up relu2
I0428 20:11:02.611979 31990 net.cpp:131] Top shape: 64 50 (3200)
I0428 20:11:02.611996 31990 net.cpp:139] Memory required for data: 5863680
I0428 20:11:02.612000 31990 layer_factory.hpp:77] Creating layer ip3
I0428 20:11:02.612006 31990 net.cpp:86] Creating Layer ip3
I0428 20:11:02.612010 31990 net.cpp:408] ip3 <- ip2
I0428 20:11:02.612015 31990 net.cpp:382] ip3 -> ip3
I0428 20:11:02.612109 31990 net.cpp:124] Setting up ip3
I0428 20:11:02.612133 31990 net.cpp:131] Top shape: 64 10 (640)
I0428 20:11:02.612135 31990 net.cpp:139] Memory required for data: 5866240
I0428 20:11:02.612143 31990 layer_factory.hpp:77] Creating layer relu3
I0428 20:11:02.612148 31990 net.cpp:86] Creating Layer relu3
I0428 20:11:02.612150 31990 net.cpp:408] relu3 <- ip3
I0428 20:11:02.612154 31990 net.cpp:369] relu3 -> ip3 (in-place)
I0428 20:11:02.612310 31990 net.cpp:124] Setting up relu3
I0428 20:11:02.612318 31990 net.cpp:131] Top shape: 64 10 (640)
I0428 20:11:02.612321 31990 net.cpp:139] Memory required for data: 5868800
I0428 20:11:02.612324 31990 layer_factory.hpp:77] Creating layer loss
I0428 20:11:02.612330 31990 net.cpp:86] Creating Layer loss
I0428 20:11:02.612334 31990 net.cpp:408] loss <- ip3
I0428 20:11:02.612336 31990 net.cpp:408] loss <- label
I0428 20:11:02.612341 31990 net.cpp:382] loss -> loss
I0428 20:11:02.612355 31990 layer_factory.hpp:77] Creating layer loss
…
I0428 20:11:02.613028 31990 solver.cpp:173] Creating test net (#0) specified by net file: ECE595/mnist/train_test/var_everything2/lenet_train_test1149.prototxt
I0428 20:11:02.613070 31990 net.cpp:296] The NetState phase (1) differed from the phase (0) specified by a rule in layer mnist
I0428 20:11:02.613176 31990 net.cpp:53] Initializing net from parameters: 
name: "LeNet"
state {
  phase: TEST
}
layer {
  name: "mnist"
  type: "Data"
  top: "data"
  top: "label"
  include {
    phase: TEST
  }
  transform_param {
    scale: 0.00390625
  }
  data_param {
    source: "examples/mnist/mnist_test_lmdb"
    batch_size: 100
    backend: LMDB
  }
}
layer {
  name: "conv0"
  type: "Convolution"
  bottom: "data"
  top: "conv0"
  param {
    lr_mult: 1
  }
  param {
    lr_mult: 2
  }
  convolution_param {
    num_output: 25
    kernel_size: 5
    stride: 1
    weight_filler {
      type: "xavier"
    }
    bias_filler {
      type: "constant"
    }
  }
}
layer {
  name: "pool0"
  type: "Pooling"
  bottom: "conv0"
  top: "pool0"
  pooling_param {
    pool: MAX
    kernel_size: 2
    stride: 2
  }
}
layer {
  name: "conv1"
  type: "Convolution"
  bottom: "pool0"
  top: "conv1"
  param {
    lr_mult: 1
  }
  param {
    lr_mult: 2
  }
  convolution_param {
    num_output: 50
    kernel_size: 5
    stride: 1
    weight_filler {
      type: "xavier"
    }
    bias_filler {
      type: "constant"
    }
  }
}
layer {
  name: "pool1"
  type: "Pooling"
  bottom: "conv1"
  top: "pool1"
  pooling_param {
    pool: MAX
    kernel_size: 2
    stride: 2
  }
}
layer {
  name: "ip1"
  type: "InnerProduct"
  bottom: "pool1"
  top: "ip1"
  param {
    lr_mult: 1
  }
  param {
    lr_mult: 2
  }
  inner_product_param {
    num_output: 10
    weight_filler {
      type: "xavier"
    }
    bias_filler {
      type: "constant"
    }
  }
}
layer {
  name: "relu1"
  type: "ReLU"
  bottom: "ip1"
  top: "ip1"
}
layer {
  name: "ip2"
  type: "InnerProduct"
  bottom: "ip1"
  top: "ip2"
  param {
    lr_mult: 1
  }
  param {
    lr_mult: 2
  }
  inner_product_param {
    num_output: 50
    weight_filler {
      type: "xavier"
    }
    bias_filler {
      type: "constant"
    }
  }
}
layer {
  name: "relu2"
  type: "ReLU"
  bottom: "ip2"
  top: "ip2"
}
layer {
  name: "ip3"
  type: "InnerProduct"
  bottom: "ip2"
  top: "ip3"
  param {
    lr_mult: 1
  }
  param {
    lr_mult: 2
  }
  inner_product_param {
    num_output: 10
    weight_filler {
      type: "xavier"
    }
    bias_filler {
      type: "constant"
    }
  }
}
layer {
  name: "relu3"
  type: "ReLU"
  bottom: "ip3"
  top: "ip3"
}
layer {
  name: "accuracy"
  type: "Accuracy"
  bottom: "ip3"
  bottom: "label"
  top: "accuracy"
  include {
    phase: TEST
  }
}
layer {
  name: "loss"
  type: "SoftmaxWithLoss"
  bottom: "ip3"
  bottom: "label"
  top: "loss"
}
I0428 20:11:02.613296 31990 layer_factory.hpp:77] Creating layer mnist
I0428 20:11:02.613338 31990 db_lmdb.cpp:35] Opened lmdb examples/mnist/mnist_test_lmdb
I0428 20:11:02.613353 31990 net.cpp:86] Creating Layer mnist
I0428 20:11:02.613358 31990 net.cpp:382] mnist -> data
I0428 20:11:02.613365 31990 net.cpp:382] mnist -> label
I0428 20:11:02.613445 31990 data_layer.cpp:45] output data size: 100,1,28,28
I0428 20:11:02.615298 31990 net.cpp:124] Setting up mnist
I0428 20:11:02.615326 31990 net.cpp:131] Top shape: 100 1 28 28 (78400)
I0428 20:11:02.615346 31990 net.cpp:131] Top shape: 100 (100)
I0428 20:11:02.615350 31990 net.cpp:139] Memory required for data: 314000
I0428 20:11:02.615352 31990 layer_factory.hpp:77] Creating layer label_mnist_1_split
I0428 20:11:02.615360 31990 net.cpp:86] Creating Layer label_mnist_1_split
I0428 20:11:02.615362 31990 net.cpp:408] label_mnist_1_split <- label
I0428 20:11:02.615367 31990 net.cpp:382] label_mnist_1_split -> label_mnist_1_split_0
I0428 20:11:02.615373 31990 net.cpp:382] label_mnist_1_split -> label_mnist_1_split_1
I0428 20:11:02.615417 31990 net.cpp:124] Setting up label_mnist_1_split
I0428 20:11:02.615422 31990 net.cpp:131] Top shape: 100 (100)
I0428 20:11:02.615427 31990 net.cpp:131] Top shape: 100 (100)
I0428 20:11:02.615428 31990 net.cpp:139] Memory required for data: 314800
I0428 20:11:02.615432 31990 layer_factory.hpp:77] Creating layer conv0
I0428 20:11:02.615455 31990 net.cpp:86] Creating Layer conv0
I0428 20:11:02.615458 31990 net.cpp:408] conv0 <- data
I0428 20:11:02.615463 31990 net.cpp:382] conv0 -> conv0
I0428 20:11:02.617244 31990 net.cpp:124] Setting up conv0
I0428 20:11:02.617275 31990 net.cpp:131] Top shape: 100 25 24 24 (1440000)
I0428 20:11:02.617280 31990 net.cpp:139] Memory required for data: 6074800
I0428 20:11:02.617290 31990 layer_factory.hpp:77] Creating layer pool0
I0428 20:11:02.617295 31990 net.cpp:86] Creating Layer pool0
I0428 20:11:02.617300 31990 net.cpp:408] pool0 <- conv0
I0428 20:11:02.617303 31990 net.cpp:382] pool0 -> pool0
I0428 20:11:02.617344 31990 net.cpp:124] Setting up pool0
I0428 20:11:02.617349 31990 net.cpp:131] Top shape: 100 25 12 12 (360000)
I0428 20:11:02.617352 31990 net.cpp:139] Memory required for data: 7514800
I0428 20:11:02.617355 31990 layer_factory.hpp:77] Creating layer conv1
I0428 20:11:02.617364 31990 net.cpp:86] Creating Layer conv1
I0428 20:11:02.617369 31990 net.cpp:408] conv1 <- pool0
I0428 20:11:02.617374 31990 net.cpp:382] conv1 -> conv1
I0428 20:11:02.619163 31990 net.cpp:124] Setting up conv1
I0428 20:11:02.619192 31990 net.cpp:131] Top shape: 100 50 8 8 (320000)
I0428 20:11:02.619196 31990 net.cpp:139] Memory required for data: 8794800
I0428 20:11:02.619204 31990 layer_factory.hpp:77] Creating layer pool1
I0428 20:11:02.619212 31990 net.cpp:86] Creating Layer pool1
I0428 20:11:02.619216 31990 net.cpp:408] pool1 <- conv1
I0428 20:11:02.619223 31990 net.cpp:382] pool1 -> pool1
I0428 20:11:02.619259 31990 net.cpp:124] Setting up pool1
I0428 20:11:02.619266 31990 net.cpp:131] Top shape: 100 50 4 4 (80000)
I0428 20:11:02.619269 31990 net.cpp:139] Memory required for data: 9114800
I0428 20:11:02.619272 31990 layer_factory.hpp:77] Creating layer ip1
I0428 20:11:02.619278 31990 net.cpp:86] Creating Layer ip1
I0428 20:11:02.619287 31990 net.cpp:408] ip1 <- pool1
I0428 20:11:02.619293 31990 net.cpp:382] ip1 -> ip1
I0428 20:11:02.619436 31990 net.cpp:124] Setting up ip1
I0428 20:11:02.619444 31990 net.cpp:131] Top shape: 100 10 (1000)
I0428 20:11:02.619457 31990 net.cpp:139] Memory required for data: 9118800
I0428 20:11:02.619465 31990 layer_factory.hpp:77] Creating layer relu1
I0428 20:11:02.619472 31990 net.cpp:86] Creating Layer relu1
I0428 20:11:02.619475 31990 net.cpp:408] relu1 <- ip1
I0428 20:11:02.619482 31990 net.cpp:369] relu1 -> ip1 (in-place)
I0428 20:11:02.619673 31990 net.cpp:124] Setting up relu1
I0428 20:11:02.619683 31990 net.cpp:131] Top shape: 100 10 (1000)
I0428 20:11:02.619686 31990 net.cpp:139] Memory required for data: 9122800
I0428 20:11:02.619689 31990 layer_factory.hpp:77] Creating layer ip2
I0428 20:11:02.619696 31990 net.cpp:86] Creating Layer ip2
I0428 20:11:02.619699 31990 net.cpp:408] ip2 <- ip1
I0428 20:11:02.619704 31990 net.cpp:382] ip2 -> ip2
I0428 20:11:02.619840 31990 net.cpp:124] Setting up ip2
I0428 20:11:02.619848 31990 net.cpp:131] Top shape: 100 50 (5000)
I0428 20:11:02.619851 31990 net.cpp:139] Memory required for data: 9142800
I0428 20:11:02.619856 31990 layer_factory.hpp:77] Creating layer relu2
I0428 20:11:02.619863 31990 net.cpp:86] Creating Layer relu2
I0428 20:11:02.619865 31990 net.cpp:408] relu2 <- ip2
I0428 20:11:02.619870 31990 net.cpp:369] relu2 -> ip2 (in-place)
I0428 20:11:02.620105 31990 net.cpp:124] Setting up relu2
I0428 20:11:02.620115 31990 net.cpp:131] Top shape: 100 50 (5000)
I0428 20:11:02.620117 31990 net.cpp:139] Memory required for data: 9162800
I0428 20:11:02.620121 31990 layer_factory.hpp:77] Creating layer ip3
I0428 20:11:02.620126 31990 net.cpp:86] Creating Layer ip3
I0428 20:11:02.620129 31990 net.cpp:408] ip3 <- ip2
I0428 20:11:02.620137 31990 net.cpp:382] ip3 -> ip3
I0428 20:11:02.620259 31990 net.cpp:124] Setting up ip3
I0428 20:11:02.620265 31990 net.cpp:131] Top shape: 100 10 (1000)
I0428 20:11:02.620268 31990 net.cpp:139] Memory required for data: 9166800
I0428 20:11:02.620275 31990 layer_factory.hpp:77] Creating layer relu3
I0428 20:11:02.620281 31990 net.cpp:86] Creating Layer relu3
I0428 20:11:02.620285 31990 net.cpp:408] relu3 <- ip3
I0428 20:11:02.620290 31990 net.cpp:369] relu3 -> ip3 (in-place)
I0428 20:11:02.621129 31990 net.cpp:124] Setting up relu3
I0428 20:11:02.621141 31990 net.cpp:131] Top shape: 100 10 (1000)
I0428 20:11:02.621145 31990 net.cpp:139] Memory required for data: 9170800
I0428 20:11:02.621148 31990 layer_factory.hpp:77] Creating layer ip3_relu3_0_split
I0428 20:11:02.621155 31990 net.cpp:86] Creating Layer ip3_relu3_0_split
I0428 20:11:02.621160 31990 net.cpp:408] ip3_relu3_0_split <- ip3
I0428 20:11:02.621165 31990 net.cpp:382] ip3_relu3_0_split -> ip3_relu3_0_split_0
I0428 20:11:02.621171 31990 net.cpp:382] ip3_relu3_0_split -> ip3_relu3_0_split_1
I0428 20:11:02.621217 31990 net.cpp:124] Setting up ip3_relu3_0_split
I0428 20:11:02.621224 31990 net.cpp:131] Top shape: 100 10 (1000)
I0428 20:11:02.621228 31990 net.cpp:131] Top shape: 100 10 (1000)
I0428 20:11:02.621232 31990 net.cpp:139] Memory required for data: 9178800
I0428 20:11:02.621249 31990 layer_factory.hpp:77] Creating layer accuracy
I0428 20:11:02.621254 31990 net.cpp:86] Creating Layer accuracy
I0428 20:11:02.621258 31990 net.cpp:408] accuracy <- ip3_relu3_0_split_0
I0428 20:11:02.621261 31990 net.cpp:408] accuracy <- label_mnist_1_split_0
I0428 20:11:02.621268 31990 net.cpp:382] accuracy -> accuracy
…
