…
I0428 20:09:38.398253 31669 net.cpp:296] The NetState phase (0) differed from the phase (1) specified by a rule in layer mnist
I0428 20:09:38.398273 31669 net.cpp:296] The NetState phase (0) differed from the phase (1) specified by a rule in layer accuracy
I0428 20:09:38.398373 31669 net.cpp:53] Initializing net from parameters: 
name: "LeNet"
state {
  phase: TRAIN
  level: 0
  stage: ""
}
layer {
  name: "mnist"
  type: "Data"
  top: "data"
  top: "label"
  include {
    phase: TRAIN
  }
  transform_param {
    scale: 0.00390625
  }
  data_param {
    source: "examples/mnist/mnist_train_lmdb"
    batch_size: 64
    backend: LMDB
  }
}
layer {
  name: "conv0"
  type: "Convolution"
  bottom: "data"
  top: "conv0"
  param {
    lr_mult: 1
  }
  param {
    lr_mult: 2
  }
  convolution_param {
    num_output: 25
    kernel_size: 5
    stride: 1
    weight_filler {
      type: "xavier"
    }
    bias_filler {
      type: "constant"
    }
  }
}
layer {
  name: "pool0"
  type: "Pooling"
  bottom: "conv0"
  top: "pool0"
  pooling_param {
    pool: MAX
    kernel_size: 2
    stride: 2
  }
}
layer {
  name: "conv1"
  type: "Convolution"
  bottom: "pool0"
  top: "conv1"
  param {
    lr_mult: 1
  }
  param {
    lr_mult: 2
  }
  convolution_param {
    num_output: 25
    kernel_size: 5
    stride: 1
    weight_filler {
      type: "xavier"
    }
    bias_filler {
      type: "constant"
    }
  }
}
layer {
  name: "pool1"
  type: "Pooling"
  bottom: "conv1"
  top: "pool1"
  pooling_param {
    pool: MAX
    kernel_size: 2
    stride: 2
  }
}
layer {
  name: "ip1"
  type: "InnerProduct"
  bottom: "pool1"
  top: "ip1"
  param {
    lr_mult: 1
  }
  param {
    lr_mult: 2
  }
  inner_product_param {
    num_output: 25
    weight_filler {
      type: "xavier"
    }
    bias_filler {
      type: "constant"
    }
  }
}
layer {
  name: "relu1"
  type: "ReLU"
  bottom: "ip1"
  top: "ip1"
}
layer {
  name: "ip2"
  type: "InnerProduct"
  bottom: "ip1"
  top: "ip2"
  param {
    lr_mult: 1
  }
  param {
    lr_mult: 2
  }
  inner_product_param {
    num_output: 10
    weight_filler {
      type: "xavier"
    }
    bias_filler {
      type: "constant"
    }
  }
}
layer {
  name: "relu2"
  type: "ReLU"
  bottom: "ip2"
  top: "ip2"
}
layer {
  name: "ip3"
  type: "InnerProduct"
  bottom: "ip2"
  top: "ip3"
  param {
    lr_mult: 1
  }
  param {
    lr_mult: 2
  }
  inner_product_param {
    num_output: 10
    weight_filler {
      type: "xavier"
    }
    bias_filler {
      type: "constant"
    }
  }
}
layer {
  name: "relu3"
  type: "ReLU"
  bottom: "ip3"
  top: "ip3"
}
layer {
  name: "loss"
  type: "SoftmaxWithLoss"
  bottom: "ip3"
  bottom: "label"
  top: "loss"
}
I0428 20:09:38.398453 31669 layer_factory.hpp:77] Creating layer mnist
I0428 20:09:38.398548 31669 db_lmdb.cpp:35] Opened lmdb examples/mnist/mnist_train_lmdb
I0428 20:09:38.398571 31669 net.cpp:86] Creating Layer mnist
I0428 20:09:38.398581 31669 net.cpp:382] mnist -> data
I0428 20:09:38.398602 31669 net.cpp:382] mnist -> label
I0428 20:09:38.399688 31669 data_layer.cpp:45] output data size: 64,1,28,28
I0428 20:09:38.402197 31669 net.cpp:124] Setting up mnist
I0428 20:09:38.402215 31669 net.cpp:131] Top shape: 64 1 28 28 (50176)
I0428 20:09:38.402222 31669 net.cpp:131] Top shape: 64 (64)
I0428 20:09:38.402225 31669 net.cpp:139] Memory required for data: 200960
I0428 20:09:38.402232 31669 layer_factory.hpp:77] Creating layer conv0
I0428 20:09:38.402276 31669 net.cpp:86] Creating Layer conv0
I0428 20:09:38.402299 31669 net.cpp:408] conv0 <- data
I0428 20:09:38.402314 31669 net.cpp:382] conv0 -> conv0
I0428 20:09:38.692764 31669 net.cpp:124] Setting up conv0
I0428 20:09:38.692795 31669 net.cpp:131] Top shape: 64 25 24 24 (921600)
I0428 20:09:38.692800 31669 net.cpp:139] Memory required for data: 3887360
I0428 20:09:38.692829 31669 layer_factory.hpp:77] Creating layer pool0
I0428 20:09:38.692844 31669 net.cpp:86] Creating Layer pool0
I0428 20:09:38.692849 31669 net.cpp:408] pool0 <- conv0
I0428 20:09:38.692858 31669 net.cpp:382] pool0 -> pool0
I0428 20:09:38.692920 31669 net.cpp:124] Setting up pool0
I0428 20:09:38.692929 31669 net.cpp:131] Top shape: 64 25 12 12 (230400)
I0428 20:09:38.692934 31669 net.cpp:139] Memory required for data: 4808960
I0428 20:09:38.692937 31669 layer_factory.hpp:77] Creating layer conv1
I0428 20:09:38.692950 31669 net.cpp:86] Creating Layer conv1
I0428 20:09:38.692955 31669 net.cpp:408] conv1 <- pool0
I0428 20:09:38.692961 31669 net.cpp:382] conv1 -> conv1
I0428 20:09:38.696228 31669 net.cpp:124] Setting up conv1
I0428 20:09:38.696245 31669 net.cpp:131] Top shape: 64 25 8 8 (102400)
I0428 20:09:38.696250 31669 net.cpp:139] Memory required for data: 5218560
I0428 20:09:38.696260 31669 layer_factory.hpp:77] Creating layer pool1
I0428 20:09:38.696269 31669 net.cpp:86] Creating Layer pool1
I0428 20:09:38.696275 31669 net.cpp:408] pool1 <- conv1
I0428 20:09:38.696281 31669 net.cpp:382] pool1 -> pool1
I0428 20:09:38.696331 31669 net.cpp:124] Setting up pool1
I0428 20:09:38.696348 31669 net.cpp:131] Top shape: 64 25 4 4 (25600)
I0428 20:09:38.696352 31669 net.cpp:139] Memory required for data: 5320960
I0428 20:09:38.696355 31669 layer_factory.hpp:77] Creating layer ip1
I0428 20:09:38.696363 31669 net.cpp:86] Creating Layer ip1
I0428 20:09:38.696367 31669 net.cpp:408] ip1 <- pool1
I0428 20:09:38.696373 31669 net.cpp:382] ip1 -> ip1
I0428 20:09:38.696555 31669 net.cpp:124] Setting up ip1
I0428 20:09:38.696564 31669 net.cpp:131] Top shape: 64 25 (1600)
I0428 20:09:38.696568 31669 net.cpp:139] Memory required for data: 5327360
I0428 20:09:38.696576 31669 layer_factory.hpp:77] Creating layer relu1
I0428 20:09:38.696583 31669 net.cpp:86] Creating Layer relu1
I0428 20:09:38.696588 31669 net.cpp:408] relu1 <- ip1
I0428 20:09:38.696593 31669 net.cpp:369] relu1 -> ip1 (in-place)
I0428 20:09:38.696794 31669 net.cpp:124] Setting up relu1
I0428 20:09:38.696805 31669 net.cpp:131] Top shape: 64 25 (1600)
I0428 20:09:38.696815 31669 net.cpp:139] Memory required for data: 5333760
I0428 20:09:38.696830 31669 layer_factory.hpp:77] Creating layer ip2
I0428 20:09:38.696851 31669 net.cpp:86] Creating Layer ip2
I0428 20:09:38.696858 31669 net.cpp:408] ip2 <- ip1
I0428 20:09:38.696868 31669 net.cpp:382] ip2 -> ip2
I0428 20:09:38.696997 31669 net.cpp:124] Setting up ip2
I0428 20:09:38.697006 31669 net.cpp:131] Top shape: 64 10 (640)
I0428 20:09:38.697010 31669 net.cpp:139] Memory required for data: 5336320
I0428 20:09:38.697017 31669 layer_factory.hpp:77] Creating layer relu2
I0428 20:09:38.697024 31669 net.cpp:86] Creating Layer relu2
I0428 20:09:38.697028 31669 net.cpp:408] relu2 <- ip2
I0428 20:09:38.697033 31669 net.cpp:369] relu2 -> ip2 (in-place)
I0428 20:09:38.697883 31669 net.cpp:124] Setting up relu2
I0428 20:09:38.697898 31669 net.cpp:131] Top shape: 64 10 (640)
I0428 20:09:38.697903 31669 net.cpp:139] Memory required for data: 5338880
I0428 20:09:38.697907 31669 layer_factory.hpp:77] Creating layer ip3
I0428 20:09:38.697916 31669 net.cpp:86] Creating Layer ip3
I0428 20:09:38.697919 31669 net.cpp:408] ip3 <- ip2
I0428 20:09:38.697926 31669 net.cpp:382] ip3 -> ip3
I0428 20:09:38.698043 31669 net.cpp:124] Setting up ip3
I0428 20:09:38.698052 31669 net.cpp:131] Top shape: 64 10 (640)
I0428 20:09:38.698056 31669 net.cpp:139] Memory required for data: 5341440
I0428 20:09:38.698065 31669 layer_factory.hpp:77] Creating layer relu3
I0428 20:09:38.698071 31669 net.cpp:86] Creating Layer relu3
I0428 20:09:38.698076 31669 net.cpp:408] relu3 <- ip3
I0428 20:09:38.698081 31669 net.cpp:369] relu3 -> ip3 (in-place)
I0428 20:09:38.698279 31669 net.cpp:124] Setting up relu3
I0428 20:09:38.698289 31669 net.cpp:131] Top shape: 64 10 (640)
I0428 20:09:38.698293 31669 net.cpp:139] Memory required for data: 5344000
I0428 20:09:38.698297 31669 layer_factory.hpp:77] Creating layer loss
I0428 20:09:38.698303 31669 net.cpp:86] Creating Layer loss
I0428 20:09:38.698307 31669 net.cpp:408] loss <- ip3
I0428 20:09:38.698312 31669 net.cpp:408] loss <- label
I0428 20:09:38.698318 31669 net.cpp:382] loss -> loss
I0428 20:09:38.698335 31669 layer_factory.hpp:77] Creating layer loss
…
I0428 20:09:38.699069 31669 solver.cpp:173] Creating test net (#0) specified by net file: ECE595/mnist/train_test/var_everything2/lenet_train_test1114.prototxt
I0428 20:09:38.699100 31669 net.cpp:296] The NetState phase (1) differed from the phase (0) specified by a rule in layer mnist
I0428 20:09:38.699208 31669 net.cpp:53] Initializing net from parameters: 
name: "LeNet"
state {
  phase: TEST
}
layer {
  name: "mnist"
  type: "Data"
  top: "data"
  top: "label"
  include {
    phase: TEST
  }
  transform_param {
    scale: 0.00390625
  }
  data_param {
    source: "examples/mnist/mnist_test_lmdb"
    batch_size: 100
    backend: LMDB
  }
}
layer {
  name: "conv0"
  type: "Convolution"
  bottom: "data"
  top: "conv0"
  param {
    lr_mult: 1
  }
  param {
    lr_mult: 2
  }
  convolution_param {
    num_output: 25
    kernel_size: 5
    stride: 1
    weight_filler {
      type: "xavier"
    }
    bias_filler {
      type: "constant"
    }
  }
}
layer {
  name: "pool0"
  type: "Pooling"
  bottom: "conv0"
  top: "pool0"
  pooling_param {
    pool: MAX
    kernel_size: 2
    stride: 2
  }
}
layer {
  name: "conv1"
  type: "Convolution"
  bottom: "pool0"
  top: "conv1"
  param {
    lr_mult: 1
  }
  param {
    lr_mult: 2
  }
  convolution_param {
    num_output: 25
    kernel_size: 5
    stride: 1
    weight_filler {
      type: "xavier"
    }
    bias_filler {
      type: "constant"
    }
  }
}
layer {
  name: "pool1"
  type: "Pooling"
  bottom: "conv1"
  top: "pool1"
  pooling_param {
    pool: MAX
    kernel_size: 2
    stride: 2
  }
}
layer {
  name: "ip1"
  type: "InnerProduct"
  bottom: "pool1"
  top: "ip1"
  param {
    lr_mult: 1
  }
  param {
    lr_mult: 2
  }
  inner_product_param {
    num_output: 25
    weight_filler {
      type: "xavier"
    }
    bias_filler {
      type: "constant"
    }
  }
}
layer {
  name: "relu1"
  type: "ReLU"
  bottom: "ip1"
  top: "ip1"
}
layer {
  name: "ip2"
  type: "InnerProduct"
  bottom: "ip1"
  top: "ip2"
  param {
    lr_mult: 1
  }
  param {
    lr_mult: 2
  }
  inner_product_param {
    num_output: 10
    weight_filler {
      type: "xavier"
    }
    bias_filler {
      type: "constant"
    }
  }
}
layer {
  name: "relu2"
  type: "ReLU"
  bottom: "ip2"
  top: "ip2"
}
layer {
  name: "ip3"
  type: "InnerProduct"
  bottom: "ip2"
  top: "ip3"
  param {
    lr_mult: 1
  }
  param {
    lr_mult: 2
  }
  inner_product_param {
    num_output: 10
    weight_filler {
      type: "xavier"
    }
    bias_filler {
      type: "constant"
    }
  }
}
layer {
  name: "relu3"
  type: "ReLU"
  bottom: "ip3"
  top: "ip3"
}
layer {
  name: "accuracy"
  type: "Accuracy"
  bottom: "ip3"
  bottom: "label"
  top: "accuracy"
  include {
    phase: TEST
  }
}
layer {
  name: "loss"
  type: "SoftmaxWithLoss"
  bottom: "ip3"
  bottom: "label"
  top: "loss"
}
I0428 20:09:38.699300 31669 layer_factory.hpp:77] Creating layer mnist
I0428 20:09:38.699349 31669 db_lmdb.cpp:35] Opened lmdb examples/mnist/mnist_test_lmdb
I0428 20:09:38.699365 31669 net.cpp:86] Creating Layer mnist
I0428 20:09:38.699371 31669 net.cpp:382] mnist -> data
I0428 20:09:38.699380 31669 net.cpp:382] mnist -> label
I0428 20:09:38.699479 31669 data_layer.cpp:45] output data size: 100,1,28,28
I0428 20:09:38.701700 31669 net.cpp:124] Setting up mnist
I0428 20:09:38.701716 31669 net.cpp:131] Top shape: 100 1 28 28 (78400)
I0428 20:09:38.701722 31669 net.cpp:131] Top shape: 100 (100)
I0428 20:09:38.701726 31669 net.cpp:139] Memory required for data: 314000
I0428 20:09:38.701731 31669 layer_factory.hpp:77] Creating layer label_mnist_1_split
I0428 20:09:38.701740 31669 net.cpp:86] Creating Layer label_mnist_1_split
I0428 20:09:38.701743 31669 net.cpp:408] label_mnist_1_split <- label
I0428 20:09:38.701750 31669 net.cpp:382] label_mnist_1_split -> label_mnist_1_split_0
I0428 20:09:38.701757 31669 net.cpp:382] label_mnist_1_split -> label_mnist_1_split_1
I0428 20:09:38.701824 31669 net.cpp:124] Setting up label_mnist_1_split
I0428 20:09:38.701833 31669 net.cpp:131] Top shape: 100 (100)
I0428 20:09:38.701836 31669 net.cpp:131] Top shape: 100 (100)
I0428 20:09:38.701840 31669 net.cpp:139] Memory required for data: 314800
I0428 20:09:38.701843 31669 layer_factory.hpp:77] Creating layer conv0
I0428 20:09:38.701853 31669 net.cpp:86] Creating Layer conv0
I0428 20:09:38.701858 31669 net.cpp:408] conv0 <- data
I0428 20:09:38.701864 31669 net.cpp:382] conv0 -> conv0
I0428 20:09:38.703804 31669 net.cpp:124] Setting up conv0
I0428 20:09:38.703824 31669 net.cpp:131] Top shape: 100 25 24 24 (1440000)
I0428 20:09:38.703829 31669 net.cpp:139] Memory required for data: 6074800
I0428 20:09:38.703840 31669 layer_factory.hpp:77] Creating layer pool0
I0428 20:09:38.703846 31669 net.cpp:86] Creating Layer pool0
I0428 20:09:38.703850 31669 net.cpp:408] pool0 <- conv0
I0428 20:09:38.703856 31669 net.cpp:382] pool0 -> pool0
I0428 20:09:38.703899 31669 net.cpp:124] Setting up pool0
I0428 20:09:38.703908 31669 net.cpp:131] Top shape: 100 25 12 12 (360000)
I0428 20:09:38.703912 31669 net.cpp:139] Memory required for data: 7514800
I0428 20:09:38.703915 31669 layer_factory.hpp:77] Creating layer conv1
I0428 20:09:38.703925 31669 net.cpp:86] Creating Layer conv1
I0428 20:09:38.703933 31669 net.cpp:408] conv1 <- pool0
I0428 20:09:38.703938 31669 net.cpp:382] conv1 -> conv1
I0428 20:09:38.706343 31669 net.cpp:124] Setting up conv1
I0428 20:09:38.706359 31669 net.cpp:131] Top shape: 100 25 8 8 (160000)
I0428 20:09:38.706364 31669 net.cpp:139] Memory required for data: 8154800
I0428 20:09:38.706375 31669 layer_factory.hpp:77] Creating layer pool1
I0428 20:09:38.706382 31669 net.cpp:86] Creating Layer pool1
I0428 20:09:38.706387 31669 net.cpp:408] pool1 <- conv1
I0428 20:09:38.706393 31669 net.cpp:382] pool1 -> pool1
I0428 20:09:38.706441 31669 net.cpp:124] Setting up pool1
I0428 20:09:38.706449 31669 net.cpp:131] Top shape: 100 25 4 4 (40000)
I0428 20:09:38.706454 31669 net.cpp:139] Memory required for data: 8314800
I0428 20:09:38.706456 31669 layer_factory.hpp:77] Creating layer ip1
I0428 20:09:38.706465 31669 net.cpp:86] Creating Layer ip1
I0428 20:09:38.706468 31669 net.cpp:408] ip1 <- pool1
I0428 20:09:38.706473 31669 net.cpp:382] ip1 -> ip1
I0428 20:09:38.706692 31669 net.cpp:124] Setting up ip1
I0428 20:09:38.706704 31669 net.cpp:131] Top shape: 100 25 (2500)
I0428 20:09:38.706722 31669 net.cpp:139] Memory required for data: 8324800
I0428 20:09:38.706730 31669 layer_factory.hpp:77] Creating layer relu1
I0428 20:09:38.706737 31669 net.cpp:86] Creating Layer relu1
I0428 20:09:38.706740 31669 net.cpp:408] relu1 <- ip1
I0428 20:09:38.706745 31669 net.cpp:369] relu1 -> ip1 (in-place)
I0428 20:09:38.706938 31669 net.cpp:124] Setting up relu1
I0428 20:09:38.706948 31669 net.cpp:131] Top shape: 100 25 (2500)
I0428 20:09:38.706953 31669 net.cpp:139] Memory required for data: 8334800
I0428 20:09:38.706956 31669 layer_factory.hpp:77] Creating layer ip2
I0428 20:09:38.706964 31669 net.cpp:86] Creating Layer ip2
I0428 20:09:38.706969 31669 net.cpp:408] ip2 <- ip1
I0428 20:09:38.706975 31669 net.cpp:382] ip2 -> ip2
I0428 20:09:38.707088 31669 net.cpp:124] Setting up ip2
I0428 20:09:38.707098 31669 net.cpp:131] Top shape: 100 10 (1000)
I0428 20:09:38.707101 31669 net.cpp:139] Memory required for data: 8338800
I0428 20:09:38.707108 31669 layer_factory.hpp:77] Creating layer relu2
I0428 20:09:38.707113 31669 net.cpp:86] Creating Layer relu2
I0428 20:09:38.707118 31669 net.cpp:408] relu2 <- ip2
I0428 20:09:38.707123 31669 net.cpp:369] relu2 -> ip2 (in-place)
I0428 20:09:38.707294 31669 net.cpp:124] Setting up relu2
I0428 20:09:38.707307 31669 net.cpp:131] Top shape: 100 10 (1000)
I0428 20:09:38.707311 31669 net.cpp:139] Memory required for data: 8342800
I0428 20:09:38.707315 31669 layer_factory.hpp:77] Creating layer ip3
I0428 20:09:38.707321 31669 net.cpp:86] Creating Layer ip3
I0428 20:09:38.707325 31669 net.cpp:408] ip3 <- ip2
I0428 20:09:38.707331 31669 net.cpp:382] ip3 -> ip3
I0428 20:09:38.707453 31669 net.cpp:124] Setting up ip3
I0428 20:09:38.707460 31669 net.cpp:131] Top shape: 100 10 (1000)
I0428 20:09:38.707464 31669 net.cpp:139] Memory required for data: 8346800
I0428 20:09:38.707473 31669 layer_factory.hpp:77] Creating layer relu3
I0428 20:09:38.707479 31669 net.cpp:86] Creating Layer relu3
I0428 20:09:38.707482 31669 net.cpp:408] relu3 <- ip3
I0428 20:09:38.707487 31669 net.cpp:369] relu3 -> ip3 (in-place)
I0428 20:09:38.708374 31669 net.cpp:124] Setting up relu3
I0428 20:09:38.708387 31669 net.cpp:131] Top shape: 100 10 (1000)
I0428 20:09:38.708391 31669 net.cpp:139] Memory required for data: 8350800
I0428 20:09:38.708395 31669 layer_factory.hpp:77] Creating layer ip3_relu3_0_split
I0428 20:09:38.708401 31669 net.cpp:86] Creating Layer ip3_relu3_0_split
I0428 20:09:38.708405 31669 net.cpp:408] ip3_relu3_0_split <- ip3
I0428 20:09:38.708411 31669 net.cpp:382] ip3_relu3_0_split -> ip3_relu3_0_split_0
I0428 20:09:38.708420 31669 net.cpp:382] ip3_relu3_0_split -> ip3_relu3_0_split_1
I0428 20:09:38.708462 31669 net.cpp:124] Setting up ip3_relu3_0_split
I0428 20:09:38.708469 31669 net.cpp:131] Top shape: 100 10 (1000)
I0428 20:09:38.708474 31669 net.cpp:131] Top shape: 100 10 (1000)
I0428 20:09:38.708477 31669 net.cpp:139] Memory required for data: 8358800
I0428 20:09:38.708482 31669 layer_factory.hpp:77] Creating layer accuracy
I0428 20:09:38.708487 31669 net.cpp:86] Creating Layer accuracy
I0428 20:09:38.708492 31669 net.cpp:408] accuracy <- ip3_relu3_0_split_0
I0428 20:09:38.708498 31669 net.cpp:408] accuracy <- label_mnist_1_split_0
I0428 20:09:38.708503 31669 net.cpp:382] accuracy -> accuracy
…
