…
I0428 20:04:09.226852 30328 net.cpp:296] The NetState phase (0) differed from the phase (1) specified by a rule in layer mnist
I0428 20:04:09.226866 30328 net.cpp:296] The NetState phase (0) differed from the phase (1) specified by a rule in layer accuracy
I0428 20:04:09.226940 30328 net.cpp:53] Initializing net from parameters: 
name: "LeNet"
state {
  phase: TRAIN
  level: 0
  stage: ""
}
layer {
  name: "mnist"
  type: "Data"
  top: "data"
  top: "label"
  include {
    phase: TRAIN
  }
  transform_param {
    scale: 0.00390625
  }
  data_param {
    source: "examples/mnist/mnist_train_lmdb"
    batch_size: 64
    backend: LMDB
  }
}
layer {
  name: "conv0"
  type: "Convolution"
  bottom: "data"
  top: "conv0"
  param {
    lr_mult: 1
  }
  param {
    lr_mult: 2
  }
  convolution_param {
    num_output: 10
    kernel_size: 5
    stride: 1
    weight_filler {
      type: "xavier"
    }
    bias_filler {
      type: "constant"
    }
  }
}
layer {
  name: "pool0"
  type: "Pooling"
  bottom: "conv0"
  top: "pool0"
  pooling_param {
    pool: MAX
    kernel_size: 2
    stride: 2
  }
}
layer {
  name: "conv1"
  type: "Convolution"
  bottom: "pool0"
  top: "conv1"
  param {
    lr_mult: 1
  }
  param {
    lr_mult: 2
  }
  convolution_param {
    num_output: 100
    kernel_size: 5
    stride: 1
    weight_filler {
      type: "xavier"
    }
    bias_filler {
      type: "constant"
    }
  }
}
layer {
  name: "pool1"
  type: "Pooling"
  bottom: "conv1"
  top: "pool1"
  pooling_param {
    pool: MAX
    kernel_size: 2
    stride: 2
  }
}
layer {
  name: "ip1"
  type: "InnerProduct"
  bottom: "pool1"
  top: "ip1"
  param {
    lr_mult: 1
  }
  param {
    lr_mult: 2
  }
  inner_product_param {
    num_output: 50
    weight_filler {
      type: "xavier"
    }
    bias_filler {
      type: "constant"
    }
  }
}
layer {
  name: "relu1"
  type: "ReLU"
  bottom: "ip1"
  top: "ip1"
}
layer {
  name: "ip2"
  type: "InnerProduct"
  bottom: "ip1"
  top: "ip2"
  param {
    lr_mult: 1
  }
  param {
    lr_mult: 2
  }
  inner_product_param {
    num_output: 10
    weight_filler {
      type: "xavier"
    }
    bias_filler {
      type: "constant"
    }
  }
}
layer {
  name: "relu2"
  type: "ReLU"
  bottom: "ip2"
  top: "ip2"
}
layer {
  name: "ip3"
  type: "InnerProduct"
  bottom: "ip2"
  top: "ip3"
  param {
    lr_mult: 1
  }
  param {
    lr_mult: 2
  }
  inner_product_param {
    num_output: 10
    weight_filler {
      type: "xavier"
    }
    bias_filler {
      type: "constant"
    }
  }
}
layer {
  name: "relu3"
  type: "ReLU"
  bottom: "ip3"
  top: "ip3"
}
layer {
  name: "loss"
  type: "SoftmaxWithLoss"
  bottom: "ip3"
  bottom: "label"
  top: "loss"
}
I0428 20:04:09.226999 30328 layer_factory.hpp:77] Creating layer mnist
I0428 20:04:09.227080 30328 db_lmdb.cpp:35] Opened lmdb examples/mnist/mnist_train_lmdb
I0428 20:04:09.227099 30328 net.cpp:86] Creating Layer mnist
I0428 20:04:09.227105 30328 net.cpp:382] mnist -> data
I0428 20:04:09.227123 30328 net.cpp:382] mnist -> label
I0428 20:04:09.228171 30328 data_layer.cpp:45] output data size: 64,1,28,28
I0428 20:04:09.230453 30328 net.cpp:124] Setting up mnist
I0428 20:04:09.230497 30328 net.cpp:131] Top shape: 64 1 28 28 (50176)
I0428 20:04:09.230502 30328 net.cpp:131] Top shape: 64 (64)
I0428 20:04:09.230505 30328 net.cpp:139] Memory required for data: 200960
I0428 20:04:09.230511 30328 layer_factory.hpp:77] Creating layer conv0
I0428 20:04:09.230525 30328 net.cpp:86] Creating Layer conv0
I0428 20:04:09.230541 30328 net.cpp:408] conv0 <- data
I0428 20:04:09.230551 30328 net.cpp:382] conv0 -> conv0
I0428 20:04:09.463570 30328 net.cpp:124] Setting up conv0
I0428 20:04:09.463614 30328 net.cpp:131] Top shape: 64 10 24 24 (368640)
I0428 20:04:09.463618 30328 net.cpp:139] Memory required for data: 1675520
I0428 20:04:09.463634 30328 layer_factory.hpp:77] Creating layer pool0
I0428 20:04:09.463647 30328 net.cpp:86] Creating Layer pool0
I0428 20:04:09.463651 30328 net.cpp:408] pool0 <- conv0
I0428 20:04:09.463671 30328 net.cpp:382] pool0 -> pool0
I0428 20:04:09.463718 30328 net.cpp:124] Setting up pool0
I0428 20:04:09.463723 30328 net.cpp:131] Top shape: 64 10 12 12 (92160)
I0428 20:04:09.463726 30328 net.cpp:139] Memory required for data: 2044160
I0428 20:04:09.463729 30328 layer_factory.hpp:77] Creating layer conv1
I0428 20:04:09.463740 30328 net.cpp:86] Creating Layer conv1
I0428 20:04:09.463743 30328 net.cpp:408] conv1 <- pool0
I0428 20:04:09.463748 30328 net.cpp:382] conv1 -> conv1
I0428 20:04:09.465847 30328 net.cpp:124] Setting up conv1
I0428 20:04:09.465878 30328 net.cpp:131] Top shape: 64 100 8 8 (409600)
I0428 20:04:09.465883 30328 net.cpp:139] Memory required for data: 3682560
I0428 20:04:09.465891 30328 layer_factory.hpp:77] Creating layer pool1
I0428 20:04:09.465914 30328 net.cpp:86] Creating Layer pool1
I0428 20:04:09.465917 30328 net.cpp:408] pool1 <- conv1
I0428 20:04:09.465937 30328 net.cpp:382] pool1 -> pool1
I0428 20:04:09.465989 30328 net.cpp:124] Setting up pool1
I0428 20:04:09.465997 30328 net.cpp:131] Top shape: 64 100 4 4 (102400)
I0428 20:04:09.466001 30328 net.cpp:139] Memory required for data: 4092160
I0428 20:04:09.466003 30328 layer_factory.hpp:77] Creating layer ip1
I0428 20:04:09.466012 30328 net.cpp:86] Creating Layer ip1
I0428 20:04:09.466014 30328 net.cpp:408] ip1 <- pool1
I0428 20:04:09.466018 30328 net.cpp:382] ip1 -> ip1
I0428 20:04:09.467536 30328 net.cpp:124] Setting up ip1
I0428 20:04:09.467548 30328 net.cpp:131] Top shape: 64 50 (3200)
I0428 20:04:09.467553 30328 net.cpp:139] Memory required for data: 4104960
I0428 20:04:09.467561 30328 layer_factory.hpp:77] Creating layer relu1
I0428 20:04:09.467567 30328 net.cpp:86] Creating Layer relu1
I0428 20:04:09.467571 30328 net.cpp:408] relu1 <- ip1
I0428 20:04:09.467576 30328 net.cpp:369] relu1 -> ip1 (in-place)
I0428 20:04:09.467754 30328 net.cpp:124] Setting up relu1
I0428 20:04:09.467763 30328 net.cpp:131] Top shape: 64 50 (3200)
I0428 20:04:09.467767 30328 net.cpp:139] Memory required for data: 4117760
I0428 20:04:09.467770 30328 layer_factory.hpp:77] Creating layer ip2
I0428 20:04:09.467777 30328 net.cpp:86] Creating Layer ip2
I0428 20:04:09.467779 30328 net.cpp:408] ip2 <- ip1
I0428 20:04:09.467784 30328 net.cpp:382] ip2 -> ip2
I0428 20:04:09.467897 30328 net.cpp:124] Setting up ip2
I0428 20:04:09.467921 30328 net.cpp:131] Top shape: 64 10 (640)
I0428 20:04:09.467924 30328 net.cpp:139] Memory required for data: 4120320
I0428 20:04:09.467931 30328 layer_factory.hpp:77] Creating layer relu2
I0428 20:04:09.467937 30328 net.cpp:86] Creating Layer relu2
I0428 20:04:09.467941 30328 net.cpp:408] relu2 <- ip2
I0428 20:04:09.467944 30328 net.cpp:369] relu2 -> ip2 (in-place)
I0428 20:04:09.468709 30328 net.cpp:124] Setting up relu2
I0428 20:04:09.468737 30328 net.cpp:131] Top shape: 64 10 (640)
I0428 20:04:09.468740 30328 net.cpp:139] Memory required for data: 4122880
I0428 20:04:09.468744 30328 layer_factory.hpp:77] Creating layer ip3
I0428 20:04:09.468751 30328 net.cpp:86] Creating Layer ip3
I0428 20:04:09.468755 30328 net.cpp:408] ip3 <- ip2
I0428 20:04:09.468760 30328 net.cpp:382] ip3 -> ip3
I0428 20:04:09.468883 30328 net.cpp:124] Setting up ip3
I0428 20:04:09.468891 30328 net.cpp:131] Top shape: 64 10 (640)
I0428 20:04:09.468894 30328 net.cpp:139] Memory required for data: 4125440
I0428 20:04:09.468902 30328 layer_factory.hpp:77] Creating layer relu3
I0428 20:04:09.468909 30328 net.cpp:86] Creating Layer relu3
I0428 20:04:09.468912 30328 net.cpp:408] relu3 <- ip3
I0428 20:04:09.468916 30328 net.cpp:369] relu3 -> ip3 (in-place)
I0428 20:04:09.469116 30328 net.cpp:124] Setting up relu3
I0428 20:04:09.469125 30328 net.cpp:131] Top shape: 64 10 (640)
I0428 20:04:09.469130 30328 net.cpp:139] Memory required for data: 4128000
I0428 20:04:09.469132 30328 layer_factory.hpp:77] Creating layer loss
I0428 20:04:09.469144 30328 net.cpp:86] Creating Layer loss
I0428 20:04:09.469148 30328 net.cpp:408] loss <- ip3
I0428 20:04:09.469166 30328 net.cpp:408] loss <- label
I0428 20:04:09.469172 30328 net.cpp:382] loss -> loss
I0428 20:04:09.469189 30328 layer_factory.hpp:77] Creating layer loss
…
I0428 20:04:09.469841 30328 solver.cpp:173] Creating test net (#0) specified by net file: ECE595/mnist/train_test/var_everything2/lenet_train_test966.prototxt
I0428 20:04:09.469866 30328 net.cpp:296] The NetState phase (1) differed from the phase (0) specified by a rule in layer mnist
I0428 20:04:09.469990 30328 net.cpp:53] Initializing net from parameters: 
name: "LeNet"
state {
  phase: TEST
}
layer {
  name: "mnist"
  type: "Data"
  top: "data"
  top: "label"
  include {
    phase: TEST
  }
  transform_param {
    scale: 0.00390625
  }
  data_param {
    source: "examples/mnist/mnist_test_lmdb"
    batch_size: 100
    backend: LMDB
  }
}
layer {
  name: "conv0"
  type: "Convolution"
  bottom: "data"
  top: "conv0"
  param {
    lr_mult: 1
  }
  param {
    lr_mult: 2
  }
  convolution_param {
    num_output: 10
    kernel_size: 5
    stride: 1
    weight_filler {
      type: "xavier"
    }
    bias_filler {
      type: "constant"
    }
  }
}
layer {
  name: "pool0"
  type: "Pooling"
  bottom: "conv0"
  top: "pool0"
  pooling_param {
    pool: MAX
    kernel_size: 2
    stride: 2
  }
}
layer {
  name: "conv1"
  type: "Convolution"
  bottom: "pool0"
  top: "conv1"
  param {
    lr_mult: 1
  }
  param {
    lr_mult: 2
  }
  convolution_param {
    num_output: 100
    kernel_size: 5
    stride: 1
    weight_filler {
      type: "xavier"
    }
    bias_filler {
      type: "constant"
    }
  }
}
layer {
  name: "pool1"
  type: "Pooling"
  bottom: "conv1"
  top: "pool1"
  pooling_param {
    pool: MAX
    kernel_size: 2
    stride: 2
  }
}
layer {
  name: "ip1"
  type: "InnerProduct"
  bottom: "pool1"
  top: "ip1"
  param {
    lr_mult: 1
  }
  param {
    lr_mult: 2
  }
  inner_product_param {
    num_output: 50
    weight_filler {
      type: "xavier"
    }
    bias_filler {
      type: "constant"
    }
  }
}
layer {
  name: "relu1"
  type: "ReLU"
  bottom: "ip1"
  top: "ip1"
}
layer {
  name: "ip2"
  type: "InnerProduct"
  bottom: "ip1"
  top: "ip2"
  param {
    lr_mult: 1
  }
  param {
    lr_mult: 2
  }
  inner_product_param {
    num_output: 10
    weight_filler {
      type: "xavier"
    }
    bias_filler {
      type: "constant"
    }
  }
}
layer {
  name: "relu2"
  type: "ReLU"
  bottom: "ip2"
  top: "ip2"
}
layer {
  name: "ip3"
  type: "InnerProduct"
  bottom: "ip2"
  top: "ip3"
  param {
    lr_mult: 1
  }
  param {
    lr_mult: 2
  }
  inner_product_param {
    num_output: 10
    weight_filler {
      type: "xavier"
    }
    bias_filler {
      type: "constant"
    }
  }
}
layer {
  name: "relu3"
  type: "ReLU"
  bottom: "ip3"
  top: "ip3"
}
layer {
  name: "accuracy"
  type: "Accuracy"
  bottom: "ip3"
  bottom: "label"
  top: "accuracy"
  include {
    phase: TEST
  }
}
layer {
  name: "loss"
  type: "SoftmaxWithLoss"
  bottom: "ip3"
  bottom: "label"
  top: "loss"
}
I0428 20:04:09.470108 30328 layer_factory.hpp:77] Creating layer mnist
I0428 20:04:09.470154 30328 db_lmdb.cpp:35] Opened lmdb examples/mnist/mnist_test_lmdb
I0428 20:04:09.470166 30328 net.cpp:86] Creating Layer mnist
I0428 20:04:09.470172 30328 net.cpp:382] mnist -> data
I0428 20:04:09.470180 30328 net.cpp:382] mnist -> label
I0428 20:04:09.470283 30328 data_layer.cpp:45] output data size: 100,1,28,28
I0428 20:04:09.471390 30328 net.cpp:124] Setting up mnist
I0428 20:04:09.471402 30328 net.cpp:131] Top shape: 100 1 28 28 (78400)
I0428 20:04:09.471408 30328 net.cpp:131] Top shape: 100 (100)
I0428 20:04:09.471411 30328 net.cpp:139] Memory required for data: 314000
I0428 20:04:09.471415 30328 layer_factory.hpp:77] Creating layer label_mnist_1_split
I0428 20:04:09.471426 30328 net.cpp:86] Creating Layer label_mnist_1_split
I0428 20:04:09.471429 30328 net.cpp:408] label_mnist_1_split <- label
I0428 20:04:09.471436 30328 net.cpp:382] label_mnist_1_split -> label_mnist_1_split_0
I0428 20:04:09.471442 30328 net.cpp:382] label_mnist_1_split -> label_mnist_1_split_1
I0428 20:04:09.471555 30328 net.cpp:124] Setting up label_mnist_1_split
I0428 20:04:09.471563 30328 net.cpp:131] Top shape: 100 (100)
I0428 20:04:09.471567 30328 net.cpp:131] Top shape: 100 (100)
I0428 20:04:09.471570 30328 net.cpp:139] Memory required for data: 314800
I0428 20:04:09.471572 30328 layer_factory.hpp:77] Creating layer conv0
I0428 20:04:09.471582 30328 net.cpp:86] Creating Layer conv0
I0428 20:04:09.471585 30328 net.cpp:408] conv0 <- data
I0428 20:04:09.471591 30328 net.cpp:382] conv0 -> conv0
I0428 20:04:09.473279 30328 net.cpp:124] Setting up conv0
I0428 20:04:09.473294 30328 net.cpp:131] Top shape: 100 10 24 24 (576000)
I0428 20:04:09.473309 30328 net.cpp:139] Memory required for data: 2618800
I0428 20:04:09.473317 30328 layer_factory.hpp:77] Creating layer pool0
I0428 20:04:09.473323 30328 net.cpp:86] Creating Layer pool0
I0428 20:04:09.473326 30328 net.cpp:408] pool0 <- conv0
I0428 20:04:09.473335 30328 net.cpp:382] pool0 -> pool0
I0428 20:04:09.473371 30328 net.cpp:124] Setting up pool0
I0428 20:04:09.473377 30328 net.cpp:131] Top shape: 100 10 12 12 (144000)
I0428 20:04:09.473381 30328 net.cpp:139] Memory required for data: 3194800
I0428 20:04:09.473383 30328 layer_factory.hpp:77] Creating layer conv1
I0428 20:04:09.473393 30328 net.cpp:86] Creating Layer conv1
I0428 20:04:09.473397 30328 net.cpp:408] conv1 <- pool0
I0428 20:04:09.473402 30328 net.cpp:382] conv1 -> conv1
I0428 20:04:09.475196 30328 net.cpp:124] Setting up conv1
I0428 20:04:09.475209 30328 net.cpp:131] Top shape: 100 100 8 8 (640000)
I0428 20:04:09.475213 30328 net.cpp:139] Memory required for data: 5754800
I0428 20:04:09.475236 30328 layer_factory.hpp:77] Creating layer pool1
I0428 20:04:09.475244 30328 net.cpp:86] Creating Layer pool1
I0428 20:04:09.475247 30328 net.cpp:408] pool1 <- conv1
I0428 20:04:09.475252 30328 net.cpp:382] pool1 -> pool1
I0428 20:04:09.475289 30328 net.cpp:124] Setting up pool1
I0428 20:04:09.475297 30328 net.cpp:131] Top shape: 100 100 4 4 (160000)
I0428 20:04:09.475306 30328 net.cpp:139] Memory required for data: 6394800
I0428 20:04:09.475309 30328 layer_factory.hpp:77] Creating layer ip1
I0428 20:04:09.475317 30328 net.cpp:86] Creating Layer ip1
I0428 20:04:09.475319 30328 net.cpp:408] ip1 <- pool1
I0428 20:04:09.475325 30328 net.cpp:382] ip1 -> ip1
I0428 20:04:09.475873 30328 net.cpp:124] Setting up ip1
I0428 20:04:09.475880 30328 net.cpp:131] Top shape: 100 50 (5000)
I0428 20:04:09.475908 30328 net.cpp:139] Memory required for data: 6414800
I0428 20:04:09.475916 30328 layer_factory.hpp:77] Creating layer relu1
I0428 20:04:09.475922 30328 net.cpp:86] Creating Layer relu1
I0428 20:04:09.475925 30328 net.cpp:408] relu1 <- ip1
I0428 20:04:09.475932 30328 net.cpp:369] relu1 -> ip1 (in-place)
I0428 20:04:09.476105 30328 net.cpp:124] Setting up relu1
I0428 20:04:09.476114 30328 net.cpp:131] Top shape: 100 50 (5000)
I0428 20:04:09.476117 30328 net.cpp:139] Memory required for data: 6434800
I0428 20:04:09.476121 30328 layer_factory.hpp:77] Creating layer ip2
I0428 20:04:09.476130 30328 net.cpp:86] Creating Layer ip2
I0428 20:04:09.476132 30328 net.cpp:408] ip2 <- ip1
I0428 20:04:09.476137 30328 net.cpp:382] ip2 -> ip2
I0428 20:04:09.476258 30328 net.cpp:124] Setting up ip2
I0428 20:04:09.476264 30328 net.cpp:131] Top shape: 100 10 (1000)
I0428 20:04:09.476267 30328 net.cpp:139] Memory required for data: 6438800
I0428 20:04:09.476274 30328 layer_factory.hpp:77] Creating layer relu2
I0428 20:04:09.476279 30328 net.cpp:86] Creating Layer relu2
I0428 20:04:09.476282 30328 net.cpp:408] relu2 <- ip2
I0428 20:04:09.476287 30328 net.cpp:369] relu2 -> ip2 (in-place)
I0428 20:04:09.476444 30328 net.cpp:124] Setting up relu2
I0428 20:04:09.476454 30328 net.cpp:131] Top shape: 100 10 (1000)
I0428 20:04:09.476456 30328 net.cpp:139] Memory required for data: 6442800
I0428 20:04:09.476459 30328 layer_factory.hpp:77] Creating layer ip3
I0428 20:04:09.476487 30328 net.cpp:86] Creating Layer ip3
I0428 20:04:09.476502 30328 net.cpp:408] ip3 <- ip2
I0428 20:04:09.476522 30328 net.cpp:382] ip3 -> ip3
I0428 20:04:09.476613 30328 net.cpp:124] Setting up ip3
I0428 20:04:09.476620 30328 net.cpp:131] Top shape: 100 10 (1000)
I0428 20:04:09.476624 30328 net.cpp:139] Memory required for data: 6446800
I0428 20:04:09.476632 30328 layer_factory.hpp:77] Creating layer relu3
I0428 20:04:09.476642 30328 net.cpp:86] Creating Layer relu3
I0428 20:04:09.476645 30328 net.cpp:408] relu3 <- ip3
I0428 20:04:09.476649 30328 net.cpp:369] relu3 -> ip3 (in-place)
I0428 20:04:09.477469 30328 net.cpp:124] Setting up relu3
I0428 20:04:09.477480 30328 net.cpp:131] Top shape: 100 10 (1000)
I0428 20:04:09.477499 30328 net.cpp:139] Memory required for data: 6450800
I0428 20:04:09.477502 30328 layer_factory.hpp:77] Creating layer ip3_relu3_0_split
I0428 20:04:09.477509 30328 net.cpp:86] Creating Layer ip3_relu3_0_split
I0428 20:04:09.477512 30328 net.cpp:408] ip3_relu3_0_split <- ip3
I0428 20:04:09.477517 30328 net.cpp:382] ip3_relu3_0_split -> ip3_relu3_0_split_0
I0428 20:04:09.477524 30328 net.cpp:382] ip3_relu3_0_split -> ip3_relu3_0_split_1
I0428 20:04:09.477608 30328 net.cpp:124] Setting up ip3_relu3_0_split
I0428 20:04:09.477615 30328 net.cpp:131] Top shape: 100 10 (1000)
I0428 20:04:09.477619 30328 net.cpp:131] Top shape: 100 10 (1000)
I0428 20:04:09.477622 30328 net.cpp:139] Memory required for data: 6458800
I0428 20:04:09.477625 30328 layer_factory.hpp:77] Creating layer accuracy
I0428 20:04:09.477632 30328 net.cpp:86] Creating Layer accuracy
I0428 20:04:09.477635 30328 net.cpp:408] accuracy <- ip3_relu3_0_split_0
I0428 20:04:09.477638 30328 net.cpp:408] accuracy <- label_mnist_1_split_0
I0428 20:04:09.477643 30328 net.cpp:382] accuracy -> accuracy
…
