…
I0428 19:36:00.838080 23625 net.cpp:296] The NetState phase (0) differed from the phase (1) specified by a rule in layer mnist
I0428 19:36:00.838091 23625 net.cpp:296] The NetState phase (0) differed from the phase (1) specified by a rule in layer accuracy
I0428 19:36:00.838145 23625 net.cpp:53] Initializing net from parameters: 
name: "LeNet"
state {
  phase: TRAIN
  level: 0
  stage: ""
}
layer {
  name: "mnist"
  type: "Data"
  top: "data"
  top: "label"
  include {
    phase: TRAIN
  }
  transform_param {
    scale: 0.00390625
  }
  data_param {
    source: "examples/mnist/mnist_train_lmdb"
    batch_size: 64
    backend: LMDB
  }
}
layer {
  name: "conv0"
  type: "Convolution"
  bottom: "data"
  top: "conv0"
  param {
    lr_mult: 1
  }
  param {
    lr_mult: 2
  }
  convolution_param {
    num_output: 100
    kernel_size: 5
    stride: 1
    weight_filler {
      type: "xavier"
    }
    bias_filler {
      type: "constant"
    }
  }
}
layer {
  name: "pool0"
  type: "Pooling"
  bottom: "conv0"
  top: "pool0"
  pooling_param {
    pool: MAX
    kernel_size: 2
    stride: 2
  }
}
layer {
  name: "ip1"
  type: "InnerProduct"
  bottom: "pool0"
  top: "ip1"
  param {
    lr_mult: 1
  }
  param {
    lr_mult: 2
  }
  inner_product_param {
    num_output: 10
    weight_filler {
      type: "xavier"
    }
    bias_filler {
      type: "constant"
    }
  }
}
layer {
  name: "relu1"
  type: "ReLU"
  bottom: "ip1"
  top: "ip1"
}
layer {
  name: "loss"
  type: "SoftmaxWithLoss"
  bottom: "ip1"
  bottom: "label"
  top: "loss"
}
I0428 19:36:00.838193 23625 layer_factory.hpp:77] Creating layer mnist
I0428 19:36:00.838274 23625 db_lmdb.cpp:35] Opened lmdb examples/mnist/mnist_train_lmdb
I0428 19:36:00.838294 23625 net.cpp:86] Creating Layer mnist
I0428 19:36:00.838301 23625 net.cpp:382] mnist -> data
I0428 19:36:00.838320 23625 net.cpp:382] mnist -> label
I0428 19:36:00.839220 23625 data_layer.cpp:45] output data size: 64,1,28,28
I0428 19:36:00.841779 23625 net.cpp:124] Setting up mnist
I0428 19:36:00.841810 23625 net.cpp:131] Top shape: 64 1 28 28 (50176)
I0428 19:36:00.841815 23625 net.cpp:131] Top shape: 64 (64)
I0428 19:36:00.841819 23625 net.cpp:139] Memory required for data: 200960
I0428 19:36:00.841825 23625 layer_factory.hpp:77] Creating layer conv0
I0428 19:36:00.841838 23625 net.cpp:86] Creating Layer conv0
I0428 19:36:00.841842 23625 net.cpp:408] conv0 <- data
I0428 19:36:00.841852 23625 net.cpp:382] conv0 -> conv0
I0428 19:36:01.074719 23625 net.cpp:124] Setting up conv0
I0428 19:36:01.074745 23625 net.cpp:131] Top shape: 64 100 24 24 (3686400)
I0428 19:36:01.074748 23625 net.cpp:139] Memory required for data: 14946560
I0428 19:36:01.074764 23625 layer_factory.hpp:77] Creating layer pool0
I0428 19:36:01.074774 23625 net.cpp:86] Creating Layer pool0
I0428 19:36:01.074779 23625 net.cpp:408] pool0 <- conv0
I0428 19:36:01.074784 23625 net.cpp:382] pool0 -> pool0
I0428 19:36:01.074857 23625 net.cpp:124] Setting up pool0
I0428 19:36:01.074865 23625 net.cpp:131] Top shape: 64 100 12 12 (921600)
I0428 19:36:01.074884 23625 net.cpp:139] Memory required for data: 18632960
I0428 19:36:01.074887 23625 layer_factory.hpp:77] Creating layer ip1
I0428 19:36:01.074894 23625 net.cpp:86] Creating Layer ip1
I0428 19:36:01.074898 23625 net.cpp:408] ip1 <- pool0
I0428 19:36:01.074903 23625 net.cpp:382] ip1 -> ip1
I0428 19:36:01.076663 23625 net.cpp:124] Setting up ip1
I0428 19:36:01.076674 23625 net.cpp:131] Top shape: 64 10 (640)
I0428 19:36:01.076709 23625 net.cpp:139] Memory required for data: 18635520
I0428 19:36:01.076716 23625 layer_factory.hpp:77] Creating layer relu1
I0428 19:36:01.076738 23625 net.cpp:86] Creating Layer relu1
I0428 19:36:01.076742 23625 net.cpp:408] relu1 <- ip1
I0428 19:36:01.076746 23625 net.cpp:369] relu1 -> ip1 (in-place)
I0428 19:36:01.076928 23625 net.cpp:124] Setting up relu1
I0428 19:36:01.076937 23625 net.cpp:131] Top shape: 64 10 (640)
I0428 19:36:01.076941 23625 net.cpp:139] Memory required for data: 18638080
I0428 19:36:01.076943 23625 layer_factory.hpp:77] Creating layer loss
I0428 19:36:01.076949 23625 net.cpp:86] Creating Layer loss
I0428 19:36:01.076952 23625 net.cpp:408] loss <- ip1
I0428 19:36:01.076956 23625 net.cpp:408] loss <- label
I0428 19:36:01.076962 23625 net.cpp:382] loss -> loss
I0428 19:36:01.076977 23625 layer_factory.hpp:77] Creating layer loss
…
I0428 19:36:01.078194 23625 solver.cpp:173] Creating test net (#0) specified by net file: ECE595/mnist/train_test/var_everything2/lenet_train_test236.prototxt
I0428 19:36:01.078217 23625 net.cpp:296] The NetState phase (1) differed from the phase (0) specified by a rule in layer mnist
I0428 19:36:01.078280 23625 net.cpp:53] Initializing net from parameters: 
name: "LeNet"
state {
  phase: TEST
}
layer {
  name: "mnist"
  type: "Data"
  top: "data"
  top: "label"
  include {
    phase: TEST
  }
  transform_param {
    scale: 0.00390625
  }
  data_param {
    source: "examples/mnist/mnist_test_lmdb"
    batch_size: 100
    backend: LMDB
  }
}
layer {
  name: "conv0"
  type: "Convolution"
  bottom: "data"
  top: "conv0"
  param {
    lr_mult: 1
  }
  param {
    lr_mult: 2
  }
  convolution_param {
    num_output: 100
    kernel_size: 5
    stride: 1
    weight_filler {
      type: "xavier"
    }
    bias_filler {
      type: "constant"
    }
  }
}
layer {
  name: "pool0"
  type: "Pooling"
  bottom: "conv0"
  top: "pool0"
  pooling_param {
    pool: MAX
    kernel_size: 2
    stride: 2
  }
}
layer {
  name: "ip1"
  type: "InnerProduct"
  bottom: "pool0"
  top: "ip1"
  param {
    lr_mult: 1
  }
  param {
    lr_mult: 2
  }
  inner_product_param {
    num_output: 10
    weight_filler {
      type: "xavier"
    }
    bias_filler {
      type: "constant"
    }
  }
}
layer {
  name: "relu1"
  type: "ReLU"
  bottom: "ip1"
  top: "ip1"
}
layer {
  name: "accuracy"
  type: "Accuracy"
  bottom: "ip1"
  bottom: "label"
  top: "accuracy"
  include {
    phase: TEST
  }
}
layer {
  name: "loss"
  type: "SoftmaxWithLoss"
  bottom: "ip1"
  bottom: "label"
  top: "loss"
}
I0428 19:36:01.078347 23625 layer_factory.hpp:77] Creating layer mnist
I0428 19:36:01.078397 23625 db_lmdb.cpp:35] Opened lmdb examples/mnist/mnist_test_lmdb
I0428 19:36:01.078410 23625 net.cpp:86] Creating Layer mnist
I0428 19:36:01.078418 23625 net.cpp:382] mnist -> data
I0428 19:36:01.078440 23625 net.cpp:382] mnist -> label
I0428 19:36:01.078527 23625 data_layer.cpp:45] output data size: 100,1,28,28
I0428 19:36:01.079628 23625 net.cpp:124] Setting up mnist
I0428 19:36:01.079668 23625 net.cpp:131] Top shape: 100 1 28 28 (78400)
I0428 19:36:01.079674 23625 net.cpp:131] Top shape: 100 (100)
I0428 19:36:01.079676 23625 net.cpp:139] Memory required for data: 314000
I0428 19:36:01.079690 23625 layer_factory.hpp:77] Creating layer label_mnist_1_split
I0428 19:36:01.079697 23625 net.cpp:86] Creating Layer label_mnist_1_split
I0428 19:36:01.079715 23625 net.cpp:408] label_mnist_1_split <- label
I0428 19:36:01.079720 23625 net.cpp:382] label_mnist_1_split -> label_mnist_1_split_0
I0428 19:36:01.079726 23625 net.cpp:382] label_mnist_1_split -> label_mnist_1_split_1
I0428 19:36:01.079829 23625 net.cpp:124] Setting up label_mnist_1_split
I0428 19:36:01.079838 23625 net.cpp:131] Top shape: 100 (100)
I0428 19:36:01.079841 23625 net.cpp:131] Top shape: 100 (100)
I0428 19:36:01.079843 23625 net.cpp:139] Memory required for data: 314800
I0428 19:36:01.079846 23625 layer_factory.hpp:77] Creating layer conv0
I0428 19:36:01.079855 23625 net.cpp:86] Creating Layer conv0
I0428 19:36:01.079859 23625 net.cpp:408] conv0 <- data
I0428 19:36:01.079864 23625 net.cpp:382] conv0 -> conv0
I0428 19:36:01.081642 23625 net.cpp:124] Setting up conv0
I0428 19:36:01.081682 23625 net.cpp:131] Top shape: 100 100 24 24 (5760000)
I0428 19:36:01.081686 23625 net.cpp:139] Memory required for data: 23354800
I0428 19:36:01.081710 23625 layer_factory.hpp:77] Creating layer pool0
I0428 19:36:01.081717 23625 net.cpp:86] Creating Layer pool0
I0428 19:36:01.081722 23625 net.cpp:408] pool0 <- conv0
I0428 19:36:01.081727 23625 net.cpp:382] pool0 -> pool0
I0428 19:36:01.081763 23625 net.cpp:124] Setting up pool0
I0428 19:36:01.081768 23625 net.cpp:131] Top shape: 100 100 12 12 (1440000)
I0428 19:36:01.081771 23625 net.cpp:139] Memory required for data: 29114800
I0428 19:36:01.081774 23625 layer_factory.hpp:77] Creating layer ip1
I0428 19:36:01.081781 23625 net.cpp:86] Creating Layer ip1
I0428 19:36:01.081784 23625 net.cpp:408] ip1 <- pool0
I0428 19:36:01.081789 23625 net.cpp:382] ip1 -> ip1
I0428 19:36:01.083695 23625 net.cpp:124] Setting up ip1
I0428 19:36:01.083708 23625 net.cpp:131] Top shape: 100 10 (1000)
I0428 19:36:01.083727 23625 net.cpp:139] Memory required for data: 29118800
I0428 19:36:01.083746 23625 layer_factory.hpp:77] Creating layer relu1
I0428 19:36:01.083752 23625 net.cpp:86] Creating Layer relu1
I0428 19:36:01.083762 23625 net.cpp:408] relu1 <- ip1
I0428 19:36:01.083767 23625 net.cpp:369] relu1 -> ip1 (in-place)
I0428 19:36:01.083993 23625 net.cpp:124] Setting up relu1
I0428 19:36:01.084002 23625 net.cpp:131] Top shape: 100 10 (1000)
I0428 19:36:01.084005 23625 net.cpp:139] Memory required for data: 29122800
I0428 19:36:01.084017 23625 layer_factory.hpp:77] Creating layer ip1_relu1_0_split
I0428 19:36:01.084020 23625 net.cpp:86] Creating Layer ip1_relu1_0_split
I0428 19:36:01.084024 23625 net.cpp:408] ip1_relu1_0_split <- ip1
I0428 19:36:01.084035 23625 net.cpp:382] ip1_relu1_0_split -> ip1_relu1_0_split_0
I0428 19:36:01.084041 23625 net.cpp:382] ip1_relu1_0_split -> ip1_relu1_0_split_1
I0428 19:36:01.084081 23625 net.cpp:124] Setting up ip1_relu1_0_split
I0428 19:36:01.084087 23625 net.cpp:131] Top shape: 100 10 (1000)
I0428 19:36:01.084107 23625 net.cpp:131] Top shape: 100 10 (1000)
I0428 19:36:01.084117 23625 net.cpp:139] Memory required for data: 29130800
I0428 19:36:01.084120 23625 layer_factory.hpp:77] Creating layer accuracy
I0428 19:36:01.084125 23625 net.cpp:86] Creating Layer accuracy
I0428 19:36:01.084128 23625 net.cpp:408] accuracy <- ip1_relu1_0_split_0
I0428 19:36:01.084132 23625 net.cpp:408] accuracy <- label_mnist_1_split_0
I0428 19:36:01.084137 23625 net.cpp:382] accuracy -> accuracy
…
