…
I0428 20:15:01.894343   348 net.cpp:296] The NetState phase (0) differed from the phase (1) specified by a rule in layer mnist
I0428 20:15:01.894358   348 net.cpp:296] The NetState phase (0) differed from the phase (1) specified by a rule in layer accuracy
I0428 20:15:01.894438   348 net.cpp:53] Initializing net from parameters: 
name: "LeNet"
state {
  phase: TRAIN
  level: 0
  stage: ""
}
layer {
  name: "mnist"
  type: "Data"
  top: "data"
  top: "label"
  include {
    phase: TRAIN
  }
  transform_param {
    scale: 0.00390625
  }
  data_param {
    source: "examples/mnist/mnist_train_lmdb"
    batch_size: 64
    backend: LMDB
  }
}
layer {
  name: "conv0"
  type: "Convolution"
  bottom: "data"
  top: "conv0"
  param {
    lr_mult: 1
  }
  param {
    lr_mult: 2
  }
  convolution_param {
    num_output: 50
    kernel_size: 5
    stride: 1
    weight_filler {
      type: "xavier"
    }
    bias_filler {
      type: "constant"
    }
  }
}
layer {
  name: "pool0"
  type: "Pooling"
  bottom: "conv0"
  top: "pool0"
  pooling_param {
    pool: MAX
    kernel_size: 2
    stride: 2
  }
}
layer {
  name: "conv1"
  type: "Convolution"
  bottom: "pool0"
  top: "conv1"
  param {
    lr_mult: 1
  }
  param {
    lr_mult: 2
  }
  convolution_param {
    num_output: 2
    kernel_size: 5
    stride: 1
    weight_filler {
      type: "xavier"
    }
    bias_filler {
      type: "constant"
    }
  }
}
layer {
  name: "pool1"
  type: "Pooling"
  bottom: "conv1"
  top: "pool1"
  pooling_param {
    pool: MAX
    kernel_size: 2
    stride: 2
  }
}
layer {
  name: "ip1"
  type: "InnerProduct"
  bottom: "pool1"
  top: "ip1"
  param {
    lr_mult: 1
  }
  param {
    lr_mult: 2
  }
  inner_product_param {
    num_output: 25
    weight_filler {
      type: "xavier"
    }
    bias_filler {
      type: "constant"
    }
  }
}
layer {
  name: "relu1"
  type: "ReLU"
  bottom: "ip1"
  top: "ip1"
}
layer {
  name: "ip2"
  type: "InnerProduct"
  bottom: "ip1"
  top: "ip2"
  param {
    lr_mult: 1
  }
  param {
    lr_mult: 2
  }
  inner_product_param {
    num_output: 50
    weight_filler {
      type: "xavier"
    }
    bias_filler {
      type: "constant"
    }
  }
}
layer {
  name: "relu2"
  type: "ReLU"
  bottom: "ip2"
  top: "ip2"
}
layer {
  name: "ip3"
  type: "InnerProduct"
  bottom: "ip2"
  top: "ip3"
  param {
    lr_mult: 1
  }
  param {
    lr_mult: 2
  }
  inner_product_param {
    num_output: 10
    weight_filler {
      type: "xavier"
    }
    bias_filler {
      type: "constant"
    }
  }
}
layer {
  name: "relu3"
  type: "ReLU"
  bottom: "ip3"
  top: "ip3"
}
layer {
  name: "loss"
  type: "SoftmaxWithLoss"
  bottom: "ip3"
  bottom: "label"
  top: "loss"
}
I0428 20:15:01.894515   348 layer_factory.hpp:77] Creating layer mnist
I0428 20:15:01.894596   348 db_lmdb.cpp:35] Opened lmdb examples/mnist/mnist_train_lmdb
I0428 20:15:01.894615   348 net.cpp:86] Creating Layer mnist
I0428 20:15:01.894623   348 net.cpp:382] mnist -> data
I0428 20:15:01.894640   348 net.cpp:382] mnist -> label
I0428 20:15:01.895655   348 data_layer.cpp:45] output data size: 64,1,28,28
I0428 20:15:01.897776   348 net.cpp:124] Setting up mnist
I0428 20:15:01.897821   348 net.cpp:131] Top shape: 64 1 28 28 (50176)
I0428 20:15:01.897826   348 net.cpp:131] Top shape: 64 (64)
I0428 20:15:01.897830   348 net.cpp:139] Memory required for data: 200960
I0428 20:15:01.897835   348 layer_factory.hpp:77] Creating layer conv0
I0428 20:15:01.897871   348 net.cpp:86] Creating Layer conv0
I0428 20:15:01.897888   348 net.cpp:408] conv0 <- data
I0428 20:15:01.897899   348 net.cpp:382] conv0 -> conv0
I0428 20:15:02.135411   348 net.cpp:124] Setting up conv0
I0428 20:15:02.135437   348 net.cpp:131] Top shape: 64 50 24 24 (1843200)
I0428 20:15:02.135442   348 net.cpp:139] Memory required for data: 7573760
I0428 20:15:02.135455   348 layer_factory.hpp:77] Creating layer pool0
I0428 20:15:02.135466   348 net.cpp:86] Creating Layer pool0
I0428 20:15:02.135471   348 net.cpp:408] pool0 <- conv0
I0428 20:15:02.135476   348 net.cpp:382] pool0 -> pool0
I0428 20:15:02.135536   348 net.cpp:124] Setting up pool0
I0428 20:15:02.135541   348 net.cpp:131] Top shape: 64 50 12 12 (460800)
I0428 20:15:02.135545   348 net.cpp:139] Memory required for data: 9416960
I0428 20:15:02.135547   348 layer_factory.hpp:77] Creating layer conv1
I0428 20:15:02.135557   348 net.cpp:86] Creating Layer conv1
I0428 20:15:02.135561   348 net.cpp:408] conv1 <- pool0
I0428 20:15:02.135566   348 net.cpp:382] conv1 -> conv1
I0428 20:15:02.137490   348 net.cpp:124] Setting up conv1
I0428 20:15:02.137521   348 net.cpp:131] Top shape: 64 2 8 8 (8192)
I0428 20:15:02.137523   348 net.cpp:139] Memory required for data: 9449728
I0428 20:15:02.137532   348 layer_factory.hpp:77] Creating layer pool1
I0428 20:15:02.137540   348 net.cpp:86] Creating Layer pool1
I0428 20:15:02.137543   348 net.cpp:408] pool1 <- conv1
I0428 20:15:02.137548   348 net.cpp:382] pool1 -> pool1
I0428 20:15:02.137599   348 net.cpp:124] Setting up pool1
I0428 20:15:02.137604   348 net.cpp:131] Top shape: 64 2 4 4 (2048)
I0428 20:15:02.137608   348 net.cpp:139] Memory required for data: 9457920
I0428 20:15:02.137610   348 layer_factory.hpp:77] Creating layer ip1
I0428 20:15:02.137617   348 net.cpp:86] Creating Layer ip1
I0428 20:15:02.137620   348 net.cpp:408] ip1 <- pool1
I0428 20:15:02.137624   348 net.cpp:382] ip1 -> ip1
I0428 20:15:02.137742   348 net.cpp:124] Setting up ip1
I0428 20:15:02.137751   348 net.cpp:131] Top shape: 64 25 (1600)
I0428 20:15:02.137754   348 net.cpp:139] Memory required for data: 9464320
I0428 20:15:02.137761   348 layer_factory.hpp:77] Creating layer relu1
I0428 20:15:02.137768   348 net.cpp:86] Creating Layer relu1
I0428 20:15:02.137770   348 net.cpp:408] relu1 <- ip1
I0428 20:15:02.137774   348 net.cpp:369] relu1 -> ip1 (in-place)
I0428 20:15:02.137944   348 net.cpp:124] Setting up relu1
I0428 20:15:02.137953   348 net.cpp:131] Top shape: 64 25 (1600)
I0428 20:15:02.137956   348 net.cpp:139] Memory required for data: 9470720
I0428 20:15:02.137974   348 layer_factory.hpp:77] Creating layer ip2
I0428 20:15:02.137980   348 net.cpp:86] Creating Layer ip2
I0428 20:15:02.137984   348 net.cpp:408] ip2 <- ip1
I0428 20:15:02.137989   348 net.cpp:382] ip2 -> ip2
I0428 20:15:02.138106   348 net.cpp:124] Setting up ip2
I0428 20:15:02.138113   348 net.cpp:131] Top shape: 64 50 (3200)
I0428 20:15:02.138116   348 net.cpp:139] Memory required for data: 9483520
I0428 20:15:02.138123   348 layer_factory.hpp:77] Creating layer relu2
I0428 20:15:02.138128   348 net.cpp:86] Creating Layer relu2
I0428 20:15:02.138134   348 net.cpp:408] relu2 <- ip2
I0428 20:15:02.138141   348 net.cpp:369] relu2 -> ip2 (in-place)
I0428 20:15:02.138916   348 net.cpp:124] Setting up relu2
I0428 20:15:02.138939   348 net.cpp:131] Top shape: 64 50 (3200)
I0428 20:15:02.138942   348 net.cpp:139] Memory required for data: 9496320
I0428 20:15:02.138947   348 layer_factory.hpp:77] Creating layer ip3
I0428 20:15:02.138968   348 net.cpp:86] Creating Layer ip3
I0428 20:15:02.138972   348 net.cpp:408] ip3 <- ip2
I0428 20:15:02.138977   348 net.cpp:382] ip3 -> ip3
I0428 20:15:02.139091   348 net.cpp:124] Setting up ip3
I0428 20:15:02.139098   348 net.cpp:131] Top shape: 64 10 (640)
I0428 20:15:02.139101   348 net.cpp:139] Memory required for data: 9498880
I0428 20:15:02.139109   348 layer_factory.hpp:77] Creating layer relu3
I0428 20:15:02.139114   348 net.cpp:86] Creating Layer relu3
I0428 20:15:02.139117   348 net.cpp:408] relu3 <- ip3
I0428 20:15:02.139122   348 net.cpp:369] relu3 -> ip3 (in-place)
I0428 20:15:02.139300   348 net.cpp:124] Setting up relu3
I0428 20:15:02.139309   348 net.cpp:131] Top shape: 64 10 (640)
I0428 20:15:02.139312   348 net.cpp:139] Memory required for data: 9501440
I0428 20:15:02.139315   348 layer_factory.hpp:77] Creating layer loss
I0428 20:15:02.139320   348 net.cpp:86] Creating Layer loss
I0428 20:15:02.139323   348 net.cpp:408] loss <- ip3
I0428 20:15:02.139328   348 net.cpp:408] loss <- label
I0428 20:15:02.139333   348 net.cpp:382] loss -> loss
I0428 20:15:02.139345   348 layer_factory.hpp:77] Creating layer loss
…
I0428 20:15:02.139993   348 solver.cpp:173] Creating test net (#0) specified by net file: ECE595/mnist/train_test/var_everything2/lenet_train_test1236.prototxt
I0428 20:15:02.140035   348 net.cpp:296] The NetState phase (1) differed from the phase (0) specified by a rule in layer mnist
I0428 20:15:02.140139   348 net.cpp:53] Initializing net from parameters: 
name: "LeNet"
state {
  phase: TEST
}
layer {
  name: "mnist"
  type: "Data"
  top: "data"
  top: "label"
  include {
    phase: TEST
  }
  transform_param {
    scale: 0.00390625
  }
  data_param {
    source: "examples/mnist/mnist_test_lmdb"
    batch_size: 100
    backend: LMDB
  }
}
layer {
  name: "conv0"
  type: "Convolution"
  bottom: "data"
  top: "conv0"
  param {
    lr_mult: 1
  }
  param {
    lr_mult: 2
  }
  convolution_param {
    num_output: 50
    kernel_size: 5
    stride: 1
    weight_filler {
      type: "xavier"
    }
    bias_filler {
      type: "constant"
    }
  }
}
layer {
  name: "pool0"
  type: "Pooling"
  bottom: "conv0"
  top: "pool0"
  pooling_param {
    pool: MAX
    kernel_size: 2
    stride: 2
  }
}
layer {
  name: "conv1"
  type: "Convolution"
  bottom: "pool0"
  top: "conv1"
  param {
    lr_mult: 1
  }
  param {
    lr_mult: 2
  }
  convolution_param {
    num_output: 2
    kernel_size: 5
    stride: 1
    weight_filler {
      type: "xavier"
    }
    bias_filler {
      type: "constant"
    }
  }
}
layer {
  name: "pool1"
  type: "Pooling"
  bottom: "conv1"
  top: "pool1"
  pooling_param {
    pool: MAX
    kernel_size: 2
    stride: 2
  }
}
layer {
  name: "ip1"
  type: "InnerProduct"
  bottom: "pool1"
  top: "ip1"
  param {
    lr_mult: 1
  }
  param {
    lr_mult: 2
  }
  inner_product_param {
    num_output: 25
    weight_filler {
      type: "xavier"
    }
    bias_filler {
      type: "constant"
    }
  }
}
layer {
  name: "relu1"
  type: "ReLU"
  bottom: "ip1"
  top: "ip1"
}
layer {
  name: "ip2"
  type: "InnerProduct"
  bottom: "ip1"
  top: "ip2"
  param {
    lr_mult: 1
  }
  param {
    lr_mult: 2
  }
  inner_product_param {
    num_output: 50
    weight_filler {
      type: "xavier"
    }
    bias_filler {
      type: "constant"
    }
  }
}
layer {
  name: "relu2"
  type: "ReLU"
  bottom: "ip2"
  top: "ip2"
}
layer {
  name: "ip3"
  type: "InnerProduct"
  bottom: "ip2"
  top: "ip3"
  param {
    lr_mult: 1
  }
  param {
    lr_mult: 2
  }
  inner_product_param {
    num_output: 10
    weight_filler {
      type: "xavier"
    }
    bias_filler {
      type: "constant"
    }
  }
}
layer {
  name: "relu3"
  type: "ReLU"
  bottom: "ip3"
  top: "ip3"
}
layer {
  name: "accuracy"
  type: "Accuracy"
  bottom: "ip3"
  bottom: "label"
  top: "accuracy"
  include {
    phase: TEST
  }
}
layer {
  name: "loss"
  type: "SoftmaxWithLoss"
  bottom: "ip3"
  bottom: "label"
  top: "loss"
}
I0428 20:15:02.140215   348 layer_factory.hpp:77] Creating layer mnist
I0428 20:15:02.140259   348 db_lmdb.cpp:35] Opened lmdb examples/mnist/mnist_test_lmdb
I0428 20:15:02.140272   348 net.cpp:86] Creating Layer mnist
I0428 20:15:02.140276   348 net.cpp:382] mnist -> data
I0428 20:15:02.140285   348 net.cpp:382] mnist -> label
I0428 20:15:02.140386   348 data_layer.cpp:45] output data size: 100,1,28,28
I0428 20:15:02.142503   348 net.cpp:124] Setting up mnist
I0428 20:15:02.142546   348 net.cpp:131] Top shape: 100 1 28 28 (78400)
I0428 20:15:02.142551   348 net.cpp:131] Top shape: 100 (100)
I0428 20:15:02.142570   348 net.cpp:139] Memory required for data: 314000
I0428 20:15:02.142573   348 layer_factory.hpp:77] Creating layer label_mnist_1_split
I0428 20:15:02.142580   348 net.cpp:86] Creating Layer label_mnist_1_split
I0428 20:15:02.142582   348 net.cpp:408] label_mnist_1_split <- label
I0428 20:15:02.142603   348 net.cpp:382] label_mnist_1_split -> label_mnist_1_split_0
I0428 20:15:02.142609   348 net.cpp:382] label_mnist_1_split -> label_mnist_1_split_1
I0428 20:15:02.142665   348 net.cpp:124] Setting up label_mnist_1_split
I0428 20:15:02.142671   348 net.cpp:131] Top shape: 100 (100)
I0428 20:15:02.142674   348 net.cpp:131] Top shape: 100 (100)
I0428 20:15:02.142678   348 net.cpp:139] Memory required for data: 314800
I0428 20:15:02.142680   348 layer_factory.hpp:77] Creating layer conv0
I0428 20:15:02.142688   348 net.cpp:86] Creating Layer conv0
I0428 20:15:02.142690   348 net.cpp:408] conv0 <- data
I0428 20:15:02.142695   348 net.cpp:382] conv0 -> conv0
I0428 20:15:02.144224   348 net.cpp:124] Setting up conv0
I0428 20:15:02.144237   348 net.cpp:131] Top shape: 100 50 24 24 (2880000)
I0428 20:15:02.144242   348 net.cpp:139] Memory required for data: 11834800
I0428 20:15:02.144249   348 layer_factory.hpp:77] Creating layer pool0
I0428 20:15:02.144256   348 net.cpp:86] Creating Layer pool0
I0428 20:15:02.144259   348 net.cpp:408] pool0 <- conv0
I0428 20:15:02.144263   348 net.cpp:382] pool0 -> pool0
I0428 20:15:02.144296   348 net.cpp:124] Setting up pool0
I0428 20:15:02.144301   348 net.cpp:131] Top shape: 100 50 12 12 (720000)
I0428 20:15:02.144304   348 net.cpp:139] Memory required for data: 14714800
I0428 20:15:02.144306   348 layer_factory.hpp:77] Creating layer conv1
I0428 20:15:02.144315   348 net.cpp:86] Creating Layer conv1
I0428 20:15:02.144317   348 net.cpp:408] conv1 <- pool0
I0428 20:15:02.144321   348 net.cpp:382] conv1 -> conv1
I0428 20:15:02.146044   348 net.cpp:124] Setting up conv1
I0428 20:15:02.146059   348 net.cpp:131] Top shape: 100 2 8 8 (12800)
I0428 20:15:02.146062   348 net.cpp:139] Memory required for data: 14766000
I0428 20:15:02.146071   348 layer_factory.hpp:77] Creating layer pool1
I0428 20:15:02.146078   348 net.cpp:86] Creating Layer pool1
I0428 20:15:02.146097   348 net.cpp:408] pool1 <- conv1
I0428 20:15:02.146102   348 net.cpp:382] pool1 -> pool1
I0428 20:15:02.146138   348 net.cpp:124] Setting up pool1
I0428 20:15:02.146143   348 net.cpp:131] Top shape: 100 2 4 4 (3200)
I0428 20:15:02.146147   348 net.cpp:139] Memory required for data: 14778800
I0428 20:15:02.146150   348 layer_factory.hpp:77] Creating layer ip1
I0428 20:15:02.146155   348 net.cpp:86] Creating Layer ip1
I0428 20:15:02.146158   348 net.cpp:408] ip1 <- pool1
I0428 20:15:02.146176   348 net.cpp:382] ip1 -> ip1
I0428 20:15:02.146282   348 net.cpp:124] Setting up ip1
I0428 20:15:02.146291   348 net.cpp:131] Top shape: 100 25 (2500)
I0428 20:15:02.146304   348 net.cpp:139] Memory required for data: 14788800
I0428 20:15:02.146322   348 layer_factory.hpp:77] Creating layer relu1
I0428 20:15:02.146333   348 net.cpp:86] Creating Layer relu1
I0428 20:15:02.146337   348 net.cpp:408] relu1 <- ip1
I0428 20:15:02.146348   348 net.cpp:369] relu1 -> ip1 (in-place)
I0428 20:15:02.146514   348 net.cpp:124] Setting up relu1
I0428 20:15:02.146523   348 net.cpp:131] Top shape: 100 25 (2500)
I0428 20:15:02.146526   348 net.cpp:139] Memory required for data: 14798800
I0428 20:15:02.146529   348 layer_factory.hpp:77] Creating layer ip2
I0428 20:15:02.146544   348 net.cpp:86] Creating Layer ip2
I0428 20:15:02.146548   348 net.cpp:408] ip2 <- ip1
I0428 20:15:02.146551   348 net.cpp:382] ip2 -> ip2
I0428 20:15:02.146673   348 net.cpp:124] Setting up ip2
I0428 20:15:02.146682   348 net.cpp:131] Top shape: 100 50 (5000)
I0428 20:15:02.146684   348 net.cpp:139] Memory required for data: 14818800
I0428 20:15:02.146689   348 layer_factory.hpp:77] Creating layer relu2
I0428 20:15:02.146694   348 net.cpp:86] Creating Layer relu2
I0428 20:15:02.146697   348 net.cpp:408] relu2 <- ip2
I0428 20:15:02.146708   348 net.cpp:369] relu2 -> ip2 (in-place)
I0428 20:15:02.146889   348 net.cpp:124] Setting up relu2
I0428 20:15:02.146914   348 net.cpp:131] Top shape: 100 50 (5000)
I0428 20:15:02.146919   348 net.cpp:139] Memory required for data: 14838800
I0428 20:15:02.146936   348 layer_factory.hpp:77] Creating layer ip3
I0428 20:15:02.146944   348 net.cpp:86] Creating Layer ip3
I0428 20:15:02.146947   348 net.cpp:408] ip3 <- ip2
I0428 20:15:02.146952   348 net.cpp:382] ip3 -> ip3
I0428 20:15:02.147056   348 net.cpp:124] Setting up ip3
I0428 20:15:02.147063   348 net.cpp:131] Top shape: 100 10 (1000)
I0428 20:15:02.147066   348 net.cpp:139] Memory required for data: 14842800
I0428 20:15:02.147075   348 layer_factory.hpp:77] Creating layer relu3
I0428 20:15:02.147079   348 net.cpp:86] Creating Layer relu3
I0428 20:15:02.147083   348 net.cpp:408] relu3 <- ip3
I0428 20:15:02.147086   348 net.cpp:369] relu3 -> ip3 (in-place)
I0428 20:15:02.147860   348 net.cpp:124] Setting up relu3
I0428 20:15:02.147874   348 net.cpp:131] Top shape: 100 10 (1000)
I0428 20:15:02.147879   348 net.cpp:139] Memory required for data: 14846800
I0428 20:15:02.147882   348 layer_factory.hpp:77] Creating layer ip3_relu3_0_split
I0428 20:15:02.147903   348 net.cpp:86] Creating Layer ip3_relu3_0_split
I0428 20:15:02.147907   348 net.cpp:408] ip3_relu3_0_split <- ip3
I0428 20:15:02.147912   348 net.cpp:382] ip3_relu3_0_split -> ip3_relu3_0_split_0
I0428 20:15:02.147918   348 net.cpp:382] ip3_relu3_0_split -> ip3_relu3_0_split_1
I0428 20:15:02.147965   348 net.cpp:124] Setting up ip3_relu3_0_split
I0428 20:15:02.147971   348 net.cpp:131] Top shape: 100 10 (1000)
I0428 20:15:02.147975   348 net.cpp:131] Top shape: 100 10 (1000)
I0428 20:15:02.147979   348 net.cpp:139] Memory required for data: 14854800
I0428 20:15:02.147981   348 layer_factory.hpp:77] Creating layer accuracy
I0428 20:15:02.147986   348 net.cpp:86] Creating Layer accuracy
I0428 20:15:02.147995   348 net.cpp:408] accuracy <- ip3_relu3_0_split_0
I0428 20:15:02.148000   348 net.cpp:408] accuracy <- label_mnist_1_split_0
I0428 20:15:02.148003   348 net.cpp:382] accuracy -> accuracy
…
