…
I0428 19:32:37.943615 22881 net.cpp:296] The NetState phase (0) differed from the phase (1) specified by a rule in layer mnist
I0428 19:32:37.943627 22881 net.cpp:296] The NetState phase (0) differed from the phase (1) specified by a rule in layer accuracy
I0428 19:32:37.943681 22881 net.cpp:53] Initializing net from parameters: 
name: "LeNet"
state {
  phase: TRAIN
  level: 0
  stage: ""
}
layer {
  name: "mnist"
  type: "Data"
  top: "data"
  top: "label"
  include {
    phase: TRAIN
  }
  transform_param {
    scale: 0.00390625
  }
  data_param {
    source: "examples/mnist/mnist_train_lmdb"
    batch_size: 64
    backend: LMDB
  }
}
layer {
  name: "conv0"
  type: "Convolution"
  bottom: "data"
  top: "conv0"
  param {
    lr_mult: 1
  }
  param {
    lr_mult: 2
  }
  convolution_param {
    num_output: 25
    kernel_size: 5
    stride: 1
    weight_filler {
      type: "xavier"
    }
    bias_filler {
      type: "constant"
    }
  }
}
layer {
  name: "pool0"
  type: "Pooling"
  bottom: "conv0"
  top: "pool0"
  pooling_param {
    pool: MAX
    kernel_size: 2
    stride: 2
  }
}
layer {
  name: "ip1"
  type: "InnerProduct"
  bottom: "pool0"
  top: "ip1"
  param {
    lr_mult: 1
  }
  param {
    lr_mult: 2
  }
  inner_product_param {
    num_output: 10
    weight_filler {
      type: "xavier"
    }
    bias_filler {
      type: "constant"
    }
  }
}
layer {
  name: "relu1"
  type: "ReLU"
  bottom: "ip1"
  top: "ip1"
}
layer {
  name: "loss"
  type: "SoftmaxWithLoss"
  bottom: "ip1"
  bottom: "label"
  top: "loss"
}
I0428 19:32:37.943725 22881 layer_factory.hpp:77] Creating layer mnist
I0428 19:32:37.943804 22881 db_lmdb.cpp:35] Opened lmdb examples/mnist/mnist_train_lmdb
I0428 19:32:37.943823 22881 net.cpp:86] Creating Layer mnist
I0428 19:32:37.943828 22881 net.cpp:382] mnist -> data
I0428 19:32:37.943847 22881 net.cpp:382] mnist -> label
I0428 19:32:37.944978 22881 data_layer.cpp:45] output data size: 64,1,28,28
I0428 19:32:37.947293 22881 net.cpp:124] Setting up mnist
I0428 19:32:37.947321 22881 net.cpp:131] Top shape: 64 1 28 28 (50176)
I0428 19:32:37.947326 22881 net.cpp:131] Top shape: 64 (64)
I0428 19:32:37.947329 22881 net.cpp:139] Memory required for data: 200960
I0428 19:32:37.947335 22881 layer_factory.hpp:77] Creating layer conv0
I0428 19:32:37.947347 22881 net.cpp:86] Creating Layer conv0
I0428 19:32:37.947352 22881 net.cpp:408] conv0 <- data
I0428 19:32:37.947361 22881 net.cpp:382] conv0 -> conv0
I0428 19:32:38.178315 22881 net.cpp:124] Setting up conv0
I0428 19:32:38.178359 22881 net.cpp:131] Top shape: 64 25 24 24 (921600)
I0428 19:32:38.178362 22881 net.cpp:139] Memory required for data: 3887360
I0428 19:32:38.178377 22881 layer_factory.hpp:77] Creating layer pool0
I0428 19:32:38.178390 22881 net.cpp:86] Creating Layer pool0
I0428 19:32:38.178393 22881 net.cpp:408] pool0 <- conv0
I0428 19:32:38.178398 22881 net.cpp:382] pool0 -> pool0
I0428 19:32:38.178459 22881 net.cpp:124] Setting up pool0
I0428 19:32:38.178464 22881 net.cpp:131] Top shape: 64 25 12 12 (230400)
I0428 19:32:38.178467 22881 net.cpp:139] Memory required for data: 4808960
I0428 19:32:38.178472 22881 layer_factory.hpp:77] Creating layer ip1
I0428 19:32:38.178478 22881 net.cpp:86] Creating Layer ip1
I0428 19:32:38.178481 22881 net.cpp:408] ip1 <- pool0
I0428 19:32:38.178486 22881 net.cpp:382] ip1 -> ip1
I0428 19:32:38.178789 22881 net.cpp:124] Setting up ip1
I0428 19:32:38.178812 22881 net.cpp:131] Top shape: 64 10 (640)
I0428 19:32:38.178844 22881 net.cpp:139] Memory required for data: 4811520
I0428 19:32:38.178851 22881 layer_factory.hpp:77] Creating layer relu1
I0428 19:32:38.178858 22881 net.cpp:86] Creating Layer relu1
I0428 19:32:38.178860 22881 net.cpp:408] relu1 <- ip1
I0428 19:32:38.178864 22881 net.cpp:369] relu1 -> ip1 (in-place)
I0428 19:32:38.179020 22881 net.cpp:124] Setting up relu1
I0428 19:32:38.179029 22881 net.cpp:131] Top shape: 64 10 (640)
I0428 19:32:38.179033 22881 net.cpp:139] Memory required for data: 4814080
I0428 19:32:38.179035 22881 layer_factory.hpp:77] Creating layer loss
I0428 19:32:38.179041 22881 net.cpp:86] Creating Layer loss
I0428 19:32:38.179044 22881 net.cpp:408] loss <- ip1
I0428 19:32:38.179049 22881 net.cpp:408] loss <- label
I0428 19:32:38.179052 22881 net.cpp:382] loss -> loss
I0428 19:32:38.179070 22881 layer_factory.hpp:77] Creating layer loss
…
I0428 19:32:38.180286 22881 solver.cpp:173] Creating test net (#0) specified by net file: ECE595/mnist/train_test/var_everything2/lenet_train_test158.prototxt
I0428 19:32:38.180326 22881 net.cpp:296] The NetState phase (1) differed from the phase (0) specified by a rule in layer mnist
I0428 19:32:38.180408 22881 net.cpp:53] Initializing net from parameters: 
name: "LeNet"
state {
  phase: TEST
}
layer {
  name: "mnist"
  type: "Data"
  top: "data"
  top: "label"
  include {
    phase: TEST
  }
  transform_param {
    scale: 0.00390625
  }
  data_param {
    source: "examples/mnist/mnist_test_lmdb"
    batch_size: 100
    backend: LMDB
  }
}
layer {
  name: "conv0"
  type: "Convolution"
  bottom: "data"
  top: "conv0"
  param {
    lr_mult: 1
  }
  param {
    lr_mult: 2
  }
  convolution_param {
    num_output: 25
    kernel_size: 5
    stride: 1
    weight_filler {
      type: "xavier"
    }
    bias_filler {
      type: "constant"
    }
  }
}
layer {
  name: "pool0"
  type: "Pooling"
  bottom: "conv0"
  top: "pool0"
  pooling_param {
    pool: MAX
    kernel_size: 2
    stride: 2
  }
}
layer {
  name: "ip1"
  type: "InnerProduct"
  bottom: "pool0"
  top: "ip1"
  param {
    lr_mult: 1
  }
  param {
    lr_mult: 2
  }
  inner_product_param {
    num_output: 10
    weight_filler {
      type: "xavier"
    }
    bias_filler {
      type: "constant"
    }
  }
}
layer {
  name: "relu1"
  type: "ReLU"
  bottom: "ip1"
  top: "ip1"
}
layer {
  name: "accuracy"
  type: "Accuracy"
  bottom: "ip1"
  bottom: "label"
  top: "accuracy"
  include {
    phase: TEST
  }
}
layer {
  name: "loss"
  type: "SoftmaxWithLoss"
  bottom: "ip1"
  bottom: "label"
  top: "loss"
}
I0428 19:32:38.180462 22881 layer_factory.hpp:77] Creating layer mnist
I0428 19:32:38.180526 22881 db_lmdb.cpp:35] Opened lmdb examples/mnist/mnist_test_lmdb
I0428 19:32:38.180539 22881 net.cpp:86] Creating Layer mnist
I0428 19:32:38.180544 22881 net.cpp:382] mnist -> data
I0428 19:32:38.180552 22881 net.cpp:382] mnist -> label
I0428 19:32:38.180651 22881 data_layer.cpp:45] output data size: 100,1,28,28
I0428 19:32:38.182811 22881 net.cpp:124] Setting up mnist
I0428 19:32:38.182857 22881 net.cpp:131] Top shape: 100 1 28 28 (78400)
I0428 19:32:38.182863 22881 net.cpp:131] Top shape: 100 (100)
I0428 19:32:38.182867 22881 net.cpp:139] Memory required for data: 314000
I0428 19:32:38.182880 22881 layer_factory.hpp:77] Creating layer label_mnist_1_split
I0428 19:32:38.182888 22881 net.cpp:86] Creating Layer label_mnist_1_split
I0428 19:32:38.182891 22881 net.cpp:408] label_mnist_1_split <- label
I0428 19:32:38.182896 22881 net.cpp:382] label_mnist_1_split -> label_mnist_1_split_0
I0428 19:32:38.182903 22881 net.cpp:382] label_mnist_1_split -> label_mnist_1_split_1
I0428 19:32:38.183009 22881 net.cpp:124] Setting up label_mnist_1_split
I0428 19:32:38.183017 22881 net.cpp:131] Top shape: 100 (100)
I0428 19:32:38.183020 22881 net.cpp:131] Top shape: 100 (100)
I0428 19:32:38.183023 22881 net.cpp:139] Memory required for data: 314800
I0428 19:32:38.183027 22881 layer_factory.hpp:77] Creating layer conv0
I0428 19:32:38.183037 22881 net.cpp:86] Creating Layer conv0
I0428 19:32:38.183039 22881 net.cpp:408] conv0 <- data
I0428 19:32:38.183044 22881 net.cpp:382] conv0 -> conv0
I0428 19:32:38.184736 22881 net.cpp:124] Setting up conv0
I0428 19:32:38.184751 22881 net.cpp:131] Top shape: 100 25 24 24 (1440000)
I0428 19:32:38.184770 22881 net.cpp:139] Memory required for data: 6074800
I0428 19:32:38.184779 22881 layer_factory.hpp:77] Creating layer pool0
I0428 19:32:38.184787 22881 net.cpp:86] Creating Layer pool0
I0428 19:32:38.184789 22881 net.cpp:408] pool0 <- conv0
I0428 19:32:38.184794 22881 net.cpp:382] pool0 -> pool0
I0428 19:32:38.184855 22881 net.cpp:124] Setting up pool0
I0428 19:32:38.184877 22881 net.cpp:131] Top shape: 100 25 12 12 (360000)
I0428 19:32:38.184881 22881 net.cpp:139] Memory required for data: 7514800
I0428 19:32:38.184885 22881 layer_factory.hpp:77] Creating layer ip1
I0428 19:32:38.184892 22881 net.cpp:86] Creating Layer ip1
I0428 19:32:38.184896 22881 net.cpp:408] ip1 <- pool0
I0428 19:32:38.184901 22881 net.cpp:382] ip1 -> ip1
I0428 19:32:38.185282 22881 net.cpp:124] Setting up ip1
I0428 19:32:38.185289 22881 net.cpp:131] Top shape: 100 10 (1000)
I0428 19:32:38.185308 22881 net.cpp:139] Memory required for data: 7518800
I0428 19:32:38.185314 22881 layer_factory.hpp:77] Creating layer relu1
I0428 19:32:38.185319 22881 net.cpp:86] Creating Layer relu1
I0428 19:32:38.185322 22881 net.cpp:408] relu1 <- ip1
I0428 19:32:38.185328 22881 net.cpp:369] relu1 -> ip1 (in-place)
I0428 19:32:38.185601 22881 net.cpp:124] Setting up relu1
I0428 19:32:38.185611 22881 net.cpp:131] Top shape: 100 10 (1000)
I0428 19:32:38.185614 22881 net.cpp:139] Memory required for data: 7522800
I0428 19:32:38.185617 22881 layer_factory.hpp:77] Creating layer ip1_relu1_0_split
I0428 19:32:38.185622 22881 net.cpp:86] Creating Layer ip1_relu1_0_split
I0428 19:32:38.185626 22881 net.cpp:408] ip1_relu1_0_split <- ip1
I0428 19:32:38.185631 22881 net.cpp:382] ip1_relu1_0_split -> ip1_relu1_0_split_0
I0428 19:32:38.185636 22881 net.cpp:382] ip1_relu1_0_split -> ip1_relu1_0_split_1
I0428 19:32:38.185674 22881 net.cpp:124] Setting up ip1_relu1_0_split
I0428 19:32:38.185681 22881 net.cpp:131] Top shape: 100 10 (1000)
I0428 19:32:38.185685 22881 net.cpp:131] Top shape: 100 10 (1000)
I0428 19:32:38.185688 22881 net.cpp:139] Memory required for data: 7530800
I0428 19:32:38.185691 22881 layer_factory.hpp:77] Creating layer accuracy
I0428 19:32:38.185701 22881 net.cpp:86] Creating Layer accuracy
I0428 19:32:38.185705 22881 net.cpp:408] accuracy <- ip1_relu1_0_split_0
I0428 19:32:38.185710 22881 net.cpp:408] accuracy <- label_mnist_1_split_0
I0428 19:32:38.185715 22881 net.cpp:382] accuracy -> accuracy
…
