…
I0428 19:38:35.644655 24055 net.cpp:296] The NetState phase (0) differed from the phase (1) specified by a rule in layer mnist
I0428 19:38:35.644671 24055 net.cpp:296] The NetState phase (0) differed from the phase (1) specified by a rule in layer accuracy
I0428 19:38:35.644744 24055 net.cpp:53] Initializing net from parameters: 
name: "LeNet"
state {
  phase: TRAIN
  level: 0
  stage: ""
}
layer {
  name: "mnist"
  type: "Data"
  top: "data"
  top: "label"
  include {
    phase: TRAIN
  }
  transform_param {
    scale: 0.00390625
  }
  data_param {
    source: "examples/mnist/mnist_train_lmdb"
    batch_size: 64
    backend: LMDB
  }
}
layer {
  name: "conv0"
  type: "Convolution"
  bottom: "data"
  top: "conv0"
  param {
    lr_mult: 1
  }
  param {
    lr_mult: 2
  }
  convolution_param {
    num_output: 2
    kernel_size: 5
    stride: 1
    weight_filler {
      type: "xavier"
    }
    bias_filler {
      type: "constant"
    }
  }
}
layer {
  name: "pool0"
  type: "Pooling"
  bottom: "conv0"
  top: "pool0"
  pooling_param {
    pool: MAX
    kernel_size: 2
    stride: 2
  }
}
layer {
  name: "conv1"
  type: "Convolution"
  bottom: "pool0"
  top: "conv1"
  param {
    lr_mult: 1
  }
  param {
    lr_mult: 2
  }
  convolution_param {
    num_output: 2
    kernel_size: 5
    stride: 1
    weight_filler {
      type: "xavier"
    }
    bias_filler {
      type: "constant"
    }
  }
}
layer {
  name: "pool1"
  type: "Pooling"
  bottom: "conv1"
  top: "pool1"
  pooling_param {
    pool: MAX
    kernel_size: 2
    stride: 2
  }
}
layer {
  name: "ip1"
  type: "InnerProduct"
  bottom: "pool1"
  top: "ip1"
  param {
    lr_mult: 1
  }
  param {
    lr_mult: 2
  }
  inner_product_param {
    num_output: 10
    weight_filler {
      type: "xavier"
    }
    bias_filler {
      type: "constant"
    }
  }
}
layer {
  name: "relu1"
  type: "ReLU"
  bottom: "ip1"
  top: "ip1"
}
layer {
  name: "ip2"
  type: "InnerProduct"
  bottom: "ip1"
  top: "ip2"
  param {
    lr_mult: 1
  }
  param {
    lr_mult: 2
  }
  inner_product_param {
    num_output: 10
    weight_filler {
      type: "xavier"
    }
    bias_filler {
      type: "constant"
    }
  }
}
layer {
  name: "relu2"
  type: "ReLU"
  bottom: "ip2"
  top: "ip2"
}
layer {
  name: "loss"
  type: "SoftmaxWithLoss"
  bottom: "ip2"
  bottom: "label"
  top: "loss"
}
I0428 19:38:35.644855 24055 layer_factory.hpp:77] Creating layer mnist
I0428 19:38:35.644986 24055 db_lmdb.cpp:35] Opened lmdb examples/mnist/mnist_train_lmdb
I0428 19:38:35.645015 24055 net.cpp:86] Creating Layer mnist
I0428 19:38:35.645025 24055 net.cpp:382] mnist -> data
I0428 19:38:35.645051 24055 net.cpp:382] mnist -> label
I0428 19:38:35.646139 24055 data_layer.cpp:45] output data size: 64,1,28,28
I0428 19:38:35.648551 24055 net.cpp:124] Setting up mnist
I0428 19:38:35.648583 24055 net.cpp:131] Top shape: 64 1 28 28 (50176)
I0428 19:38:35.648591 24055 net.cpp:131] Top shape: 64 (64)
I0428 19:38:35.648596 24055 net.cpp:139] Memory required for data: 200960
I0428 19:38:35.648605 24055 layer_factory.hpp:77] Creating layer conv0
I0428 19:38:35.648623 24055 net.cpp:86] Creating Layer conv0
I0428 19:38:35.648632 24055 net.cpp:408] conv0 <- data
I0428 19:38:35.648646 24055 net.cpp:382] conv0 -> conv0
I0428 19:38:35.965023 24055 net.cpp:124] Setting up conv0
I0428 19:38:35.965056 24055 net.cpp:131] Top shape: 64 2 24 24 (73728)
I0428 19:38:35.965061 24055 net.cpp:139] Memory required for data: 495872
I0428 19:38:35.965102 24055 layer_factory.hpp:77] Creating layer pool0
I0428 19:38:35.965118 24055 net.cpp:86] Creating Layer pool0
I0428 19:38:35.965123 24055 net.cpp:408] pool0 <- conv0
I0428 19:38:35.965131 24055 net.cpp:382] pool0 -> pool0
I0428 19:38:35.965188 24055 net.cpp:124] Setting up pool0
I0428 19:38:35.965198 24055 net.cpp:131] Top shape: 64 2 12 12 (18432)
I0428 19:38:35.965201 24055 net.cpp:139] Memory required for data: 569600
I0428 19:38:35.965205 24055 layer_factory.hpp:77] Creating layer conv1
I0428 19:38:35.965217 24055 net.cpp:86] Creating Layer conv1
I0428 19:38:35.965221 24055 net.cpp:408] conv1 <- pool0
I0428 19:38:35.965227 24055 net.cpp:382] conv1 -> conv1
I0428 19:38:35.967356 24055 net.cpp:124] Setting up conv1
I0428 19:38:35.967375 24055 net.cpp:131] Top shape: 64 2 8 8 (8192)
I0428 19:38:35.967378 24055 net.cpp:139] Memory required for data: 602368
I0428 19:38:35.967389 24055 layer_factory.hpp:77] Creating layer pool1
I0428 19:38:35.967397 24055 net.cpp:86] Creating Layer pool1
I0428 19:38:35.967402 24055 net.cpp:408] pool1 <- conv1
I0428 19:38:35.967408 24055 net.cpp:382] pool1 -> pool1
I0428 19:38:35.967453 24055 net.cpp:124] Setting up pool1
I0428 19:38:35.967459 24055 net.cpp:131] Top shape: 64 2 4 4 (2048)
I0428 19:38:35.967463 24055 net.cpp:139] Memory required for data: 610560
I0428 19:38:35.967466 24055 layer_factory.hpp:77] Creating layer ip1
I0428 19:38:35.967474 24055 net.cpp:86] Creating Layer ip1
I0428 19:38:35.967478 24055 net.cpp:408] ip1 <- pool1
I0428 19:38:35.967483 24055 net.cpp:382] ip1 -> ip1
I0428 19:38:35.967597 24055 net.cpp:124] Setting up ip1
I0428 19:38:35.967605 24055 net.cpp:131] Top shape: 64 10 (640)
I0428 19:38:35.967609 24055 net.cpp:139] Memory required for data: 613120
I0428 19:38:35.967617 24055 layer_factory.hpp:77] Creating layer relu1
I0428 19:38:35.967624 24055 net.cpp:86] Creating Layer relu1
I0428 19:38:35.967628 24055 net.cpp:408] relu1 <- ip1
I0428 19:38:35.967633 24055 net.cpp:369] relu1 -> ip1 (in-place)
I0428 19:38:35.967825 24055 net.cpp:124] Setting up relu1
I0428 19:38:35.967836 24055 net.cpp:131] Top shape: 64 10 (640)
I0428 19:38:35.967840 24055 net.cpp:139] Memory required for data: 615680
I0428 19:38:35.967844 24055 layer_factory.hpp:77] Creating layer ip2
I0428 19:38:35.967851 24055 net.cpp:86] Creating Layer ip2
I0428 19:38:35.967855 24055 net.cpp:408] ip2 <- ip1
I0428 19:38:35.967861 24055 net.cpp:382] ip2 -> ip2
I0428 19:38:35.967969 24055 net.cpp:124] Setting up ip2
I0428 19:38:35.967978 24055 net.cpp:131] Top shape: 64 10 (640)
I0428 19:38:35.967981 24055 net.cpp:139] Memory required for data: 618240
I0428 19:38:35.967988 24055 layer_factory.hpp:77] Creating layer relu2
I0428 19:38:35.967995 24055 net.cpp:86] Creating Layer relu2
I0428 19:38:35.967999 24055 net.cpp:408] relu2 <- ip2
I0428 19:38:35.968003 24055 net.cpp:369] relu2 -> ip2 (in-place)
I0428 19:38:35.968855 24055 net.cpp:124] Setting up relu2
I0428 19:38:35.968871 24055 net.cpp:131] Top shape: 64 10 (640)
I0428 19:38:35.968875 24055 net.cpp:139] Memory required for data: 620800
I0428 19:38:35.968879 24055 layer_factory.hpp:77] Creating layer loss
I0428 19:38:35.968888 24055 net.cpp:86] Creating Layer loss
I0428 19:38:35.968891 24055 net.cpp:408] loss <- ip2
I0428 19:38:35.968896 24055 net.cpp:408] loss <- label
I0428 19:38:35.968904 24055 net.cpp:382] loss -> loss
I0428 19:38:35.968926 24055 layer_factory.hpp:77] Creating layer loss
…
I0428 19:38:35.969640 24055 solver.cpp:173] Creating test net (#0) specified by net file: ECE595/mnist/train_test/var_everything2/lenet_train_test278.prototxt
I0428 19:38:35.969671 24055 net.cpp:296] The NetState phase (1) differed from the phase (0) specified by a rule in layer mnist
I0428 19:38:35.969769 24055 net.cpp:53] Initializing net from parameters: 
name: "LeNet"
state {
  phase: TEST
}
layer {
  name: "mnist"
  type: "Data"
  top: "data"
  top: "label"
  include {
    phase: TEST
  }
  transform_param {
    scale: 0.00390625
  }
  data_param {
    source: "examples/mnist/mnist_test_lmdb"
    batch_size: 100
    backend: LMDB
  }
}
layer {
  name: "conv0"
  type: "Convolution"
  bottom: "data"
  top: "conv0"
  param {
    lr_mult: 1
  }
  param {
    lr_mult: 2
  }
  convolution_param {
    num_output: 2
    kernel_size: 5
    stride: 1
    weight_filler {
      type: "xavier"
    }
    bias_filler {
      type: "constant"
    }
  }
}
layer {
  name: "pool0"
  type: "Pooling"
  bottom: "conv0"
  top: "pool0"
  pooling_param {
    pool: MAX
    kernel_size: 2
    stride: 2
  }
}
layer {
  name: "conv1"
  type: "Convolution"
  bottom: "pool0"
  top: "conv1"
  param {
    lr_mult: 1
  }
  param {
    lr_mult: 2
  }
  convolution_param {
    num_output: 2
    kernel_size: 5
    stride: 1
    weight_filler {
      type: "xavier"
    }
    bias_filler {
      type: "constant"
    }
  }
}
layer {
  name: "pool1"
  type: "Pooling"
  bottom: "conv1"
  top: "pool1"
  pooling_param {
    pool: MAX
    kernel_size: 2
    stride: 2
  }
}
layer {
  name: "ip1"
  type: "InnerProduct"
  bottom: "pool1"
  top: "ip1"
  param {
    lr_mult: 1
  }
  param {
    lr_mult: 2
  }
  inner_product_param {
    num_output: 10
    weight_filler {
      type: "xavier"
    }
    bias_filler {
      type: "constant"
    }
  }
}
layer {
  name: "relu1"
  type: "ReLU"
  bottom: "ip1"
  top: "ip1"
}
layer {
  name: "ip2"
  type: "InnerProduct"
  bottom: "ip1"
  top: "ip2"
  param {
    lr_mult: 1
  }
  param {
    lr_mult: 2
  }
  inner_product_param {
    num_output: 10
    weight_filler {
      type: "xavier"
    }
    bias_filler {
      type: "constant"
    }
  }
}
layer {
  name: "relu2"
  type: "ReLU"
  bottom: "ip2"
  top: "ip2"
}
layer {
  name: "accuracy"
  type: "Accuracy"
  bottom: "ip2"
  bottom: "label"
  top: "accuracy"
  include {
    phase: TEST
  }
}
layer {
  name: "loss"
  type: "SoftmaxWithLoss"
  bottom: "ip2"
  bottom: "label"
  top: "loss"
}
I0428 19:38:35.969844 24055 layer_factory.hpp:77] Creating layer mnist
I0428 19:38:35.969898 24055 db_lmdb.cpp:35] Opened lmdb examples/mnist/mnist_test_lmdb
I0428 19:38:35.969916 24055 net.cpp:86] Creating Layer mnist
I0428 19:38:35.969923 24055 net.cpp:382] mnist -> data
I0428 19:38:35.969931 24055 net.cpp:382] mnist -> label
I0428 19:38:35.970033 24055 data_layer.cpp:45] output data size: 100,1,28,28
I0428 19:38:35.972220 24055 net.cpp:124] Setting up mnist
I0428 19:38:35.972236 24055 net.cpp:131] Top shape: 100 1 28 28 (78400)
I0428 19:38:35.972242 24055 net.cpp:131] Top shape: 100 (100)
I0428 19:38:35.972246 24055 net.cpp:139] Memory required for data: 314000
I0428 19:38:35.972251 24055 layer_factory.hpp:77] Creating layer label_mnist_1_split
I0428 19:38:35.972259 24055 net.cpp:86] Creating Layer label_mnist_1_split
I0428 19:38:35.972264 24055 net.cpp:408] label_mnist_1_split <- label
I0428 19:38:35.972270 24055 net.cpp:382] label_mnist_1_split -> label_mnist_1_split_0
I0428 19:38:35.972277 24055 net.cpp:382] label_mnist_1_split -> label_mnist_1_split_1
I0428 19:38:35.972331 24055 net.cpp:124] Setting up label_mnist_1_split
I0428 19:38:35.972348 24055 net.cpp:131] Top shape: 100 (100)
I0428 19:38:35.972353 24055 net.cpp:131] Top shape: 100 (100)
I0428 19:38:35.972357 24055 net.cpp:139] Memory required for data: 314800
I0428 19:38:35.972360 24055 layer_factory.hpp:77] Creating layer conv0
I0428 19:38:35.972371 24055 net.cpp:86] Creating Layer conv0
I0428 19:38:35.972374 24055 net.cpp:408] conv0 <- data
I0428 19:38:35.972380 24055 net.cpp:382] conv0 -> conv0
I0428 19:38:35.974299 24055 net.cpp:124] Setting up conv0
I0428 19:38:35.974316 24055 net.cpp:131] Top shape: 100 2 24 24 (115200)
I0428 19:38:35.974320 24055 net.cpp:139] Memory required for data: 775600
I0428 19:38:35.974331 24055 layer_factory.hpp:77] Creating layer pool0
I0428 19:38:35.974340 24055 net.cpp:86] Creating Layer pool0
I0428 19:38:35.974344 24055 net.cpp:408] pool0 <- conv0
I0428 19:38:35.974350 24055 net.cpp:382] pool0 -> pool0
I0428 19:38:35.974395 24055 net.cpp:124] Setting up pool0
I0428 19:38:35.974400 24055 net.cpp:131] Top shape: 100 2 12 12 (28800)
I0428 19:38:35.974403 24055 net.cpp:139] Memory required for data: 890800
I0428 19:38:35.974407 24055 layer_factory.hpp:77] Creating layer conv1
I0428 19:38:35.974419 24055 net.cpp:86] Creating Layer conv1
I0428 19:38:35.974422 24055 net.cpp:408] conv1 <- pool0
I0428 19:38:35.974429 24055 net.cpp:382] conv1 -> conv1
I0428 19:38:35.976181 24055 net.cpp:124] Setting up conv1
I0428 19:38:35.976202 24055 net.cpp:131] Top shape: 100 2 8 8 (12800)
I0428 19:38:35.976205 24055 net.cpp:139] Memory required for data: 942000
I0428 19:38:35.976217 24055 layer_factory.hpp:77] Creating layer pool1
I0428 19:38:35.976224 24055 net.cpp:86] Creating Layer pool1
I0428 19:38:35.976230 24055 net.cpp:408] pool1 <- conv1
I0428 19:38:35.976236 24055 net.cpp:382] pool1 -> pool1
I0428 19:38:35.976284 24055 net.cpp:124] Setting up pool1
I0428 19:38:35.976290 24055 net.cpp:131] Top shape: 100 2 4 4 (3200)
I0428 19:38:35.976294 24055 net.cpp:139] Memory required for data: 954800
I0428 19:38:35.976299 24055 layer_factory.hpp:77] Creating layer ip1
I0428 19:38:35.976306 24055 net.cpp:86] Creating Layer ip1
I0428 19:38:35.976310 24055 net.cpp:408] ip1 <- pool1
I0428 19:38:35.976317 24055 net.cpp:382] ip1 -> ip1
I0428 19:38:35.976435 24055 net.cpp:124] Setting up ip1
I0428 19:38:35.976445 24055 net.cpp:131] Top shape: 100 10 (1000)
I0428 19:38:35.976449 24055 net.cpp:139] Memory required for data: 958800
I0428 19:38:35.976457 24055 layer_factory.hpp:77] Creating layer relu1
I0428 19:38:35.976464 24055 net.cpp:86] Creating Layer relu1
I0428 19:38:35.976467 24055 net.cpp:408] relu1 <- ip1
I0428 19:38:35.976480 24055 net.cpp:369] relu1 -> ip1 (in-place)
I0428 19:38:35.976675 24055 net.cpp:124] Setting up relu1
I0428 19:38:35.976686 24055 net.cpp:131] Top shape: 100 10 (1000)
I0428 19:38:35.976691 24055 net.cpp:139] Memory required for data: 962800
I0428 19:38:35.976694 24055 layer_factory.hpp:77] Creating layer ip2
I0428 19:38:35.976702 24055 net.cpp:86] Creating Layer ip2
I0428 19:38:35.976707 24055 net.cpp:408] ip2 <- ip1
I0428 19:38:35.976714 24055 net.cpp:382] ip2 -> ip2
I0428 19:38:35.976843 24055 net.cpp:124] Setting up ip2
I0428 19:38:35.976853 24055 net.cpp:131] Top shape: 100 10 (1000)
I0428 19:38:35.976857 24055 net.cpp:139] Memory required for data: 966800
I0428 19:38:35.976863 24055 layer_factory.hpp:77] Creating layer relu2
I0428 19:38:35.976869 24055 net.cpp:86] Creating Layer relu2
I0428 19:38:35.976873 24055 net.cpp:408] relu2 <- ip2
I0428 19:38:35.976879 24055 net.cpp:369] relu2 -> ip2 (in-place)
I0428 19:38:35.977159 24055 net.cpp:124] Setting up relu2
I0428 19:38:35.977169 24055 net.cpp:131] Top shape: 100 10 (1000)
I0428 19:38:35.977172 24055 net.cpp:139] Memory required for data: 970800
I0428 19:38:35.977183 24055 layer_factory.hpp:77] Creating layer ip2_relu2_0_split
I0428 19:38:35.977193 24055 net.cpp:86] Creating Layer ip2_relu2_0_split
I0428 19:38:35.977198 24055 net.cpp:408] ip2_relu2_0_split <- ip2
I0428 19:38:35.977205 24055 net.cpp:382] ip2_relu2_0_split -> ip2_relu2_0_split_0
I0428 19:38:35.977211 24055 net.cpp:382] ip2_relu2_0_split -> ip2_relu2_0_split_1
I0428 19:38:35.977267 24055 net.cpp:124] Setting up ip2_relu2_0_split
I0428 19:38:35.977274 24055 net.cpp:131] Top shape: 100 10 (1000)
I0428 19:38:35.977279 24055 net.cpp:131] Top shape: 100 10 (1000)
I0428 19:38:35.977283 24055 net.cpp:139] Memory required for data: 978800
I0428 19:38:35.977286 24055 layer_factory.hpp:77] Creating layer accuracy
I0428 19:38:35.977294 24055 net.cpp:86] Creating Layer accuracy
I0428 19:38:35.977299 24055 net.cpp:408] accuracy <- ip2_relu2_0_split_0
I0428 19:38:35.977303 24055 net.cpp:408] accuracy <- label_mnist_1_split_0
I0428 19:38:35.977315 24055 net.cpp:382] accuracy -> accuracy
…
