…
I0428 20:34:23.844204  4465 net.cpp:296] The NetState phase (0) differed from the phase (1) specified by a rule in layer mnist
I0428 20:34:23.844221  4465 net.cpp:296] The NetState phase (0) differed from the phase (1) specified by a rule in layer accuracy
I0428 20:34:23.844312  4465 net.cpp:53] Initializing net from parameters: 
name: "LeNet"
state {
  phase: TRAIN
  level: 0
  stage: ""
}
layer {
  name: "mnist"
  type: "Data"
  top: "data"
  top: "label"
  include {
    phase: TRAIN
  }
  transform_param {
    scale: 0.00390625
  }
  data_param {
    source: "examples/mnist/mnist_train_lmdb"
    batch_size: 64
    backend: LMDB
  }
}
layer {
  name: "conv0"
  type: "Convolution"
  bottom: "data"
  top: "conv0"
  param {
    lr_mult: 1
  }
  param {
    lr_mult: 2
  }
  convolution_param {
    num_output: 100
    kernel_size: 5
    stride: 1
    weight_filler {
      type: "xavier"
    }
    bias_filler {
      type: "constant"
    }
  }
}
layer {
  name: "pool0"
  type: "Pooling"
  bottom: "conv0"
  top: "pool0"
  pooling_param {
    pool: MAX
    kernel_size: 2
    stride: 2
  }
}
layer {
  name: "conv1"
  type: "Convolution"
  bottom: "pool0"
  top: "conv1"
  param {
    lr_mult: 1
  }
  param {
    lr_mult: 2
  }
  convolution_param {
    num_output: 50
    kernel_size: 5
    stride: 1
    weight_filler {
      type: "xavier"
    }
    bias_filler {
      type: "constant"
    }
  }
}
layer {
  name: "pool1"
  type: "Pooling"
  bottom: "conv1"
  top: "pool1"
  pooling_param {
    pool: MAX
    kernel_size: 2
    stride: 2
  }
}
layer {
  name: "ip1"
  type: "InnerProduct"
  bottom: "pool1"
  top: "ip1"
  param {
    lr_mult: 1
  }
  param {
    lr_mult: 2
  }
  inner_product_param {
    num_output: 10
    weight_filler {
      type: "xavier"
    }
    bias_filler {
      type: "constant"
    }
  }
}
layer {
  name: "relu1"
  type: "ReLU"
  bottom: "ip1"
  top: "ip1"
}
layer {
  name: "ip2"
  type: "InnerProduct"
  bottom: "ip1"
  top: "ip2"
  param {
    lr_mult: 1
  }
  param {
    lr_mult: 2
  }
  inner_product_param {
    num_output: 10
    weight_filler {
      type: "xavier"
    }
    bias_filler {
      type: "constant"
    }
  }
}
layer {
  name: "relu2"
  type: "ReLU"
  bottom: "ip2"
  top: "ip2"
}
layer {
  name: "loss"
  type: "SoftmaxWithLoss"
  bottom: "ip2"
  bottom: "label"
  top: "loss"
}
I0428 20:34:23.844388  4465 layer_factory.hpp:77] Creating layer mnist
I0428 20:34:23.844488  4465 db_lmdb.cpp:35] Opened lmdb examples/mnist/mnist_train_lmdb
I0428 20:34:23.844516  4465 net.cpp:86] Creating Layer mnist
I0428 20:34:23.844524  4465 net.cpp:382] mnist -> data
I0428 20:34:23.844547  4465 net.cpp:382] mnist -> label
I0428 20:34:23.845643  4465 data_layer.cpp:45] output data size: 64,1,28,28
I0428 20:34:23.848100  4465 net.cpp:124] Setting up mnist
I0428 20:34:23.848119  4465 net.cpp:131] Top shape: 64 1 28 28 (50176)
I0428 20:34:23.848125  4465 net.cpp:131] Top shape: 64 (64)
I0428 20:34:23.848129  4465 net.cpp:139] Memory required for data: 200960
I0428 20:34:23.848136  4465 layer_factory.hpp:77] Creating layer conv0
I0428 20:34:23.848151  4465 net.cpp:86] Creating Layer conv0
I0428 20:34:23.848156  4465 net.cpp:408] conv0 <- data
I0428 20:34:23.848170  4465 net.cpp:382] conv0 -> conv0
I0428 20:34:24.113803  4465 net.cpp:124] Setting up conv0
I0428 20:34:24.113844  4465 net.cpp:131] Top shape: 64 100 24 24 (3686400)
I0428 20:34:24.113848  4465 net.cpp:139] Memory required for data: 14946560
I0428 20:34:24.113883  4465 layer_factory.hpp:77] Creating layer pool0
I0428 20:34:24.113894  4465 net.cpp:86] Creating Layer pool0
I0428 20:34:24.113898  4465 net.cpp:408] pool0 <- conv0
I0428 20:34:24.113903  4465 net.cpp:382] pool0 -> pool0
I0428 20:34:24.113965  4465 net.cpp:124] Setting up pool0
I0428 20:34:24.113973  4465 net.cpp:131] Top shape: 64 100 12 12 (921600)
I0428 20:34:24.113976  4465 net.cpp:139] Memory required for data: 18632960
I0428 20:34:24.113979  4465 layer_factory.hpp:77] Creating layer conv1
I0428 20:34:24.113991  4465 net.cpp:86] Creating Layer conv1
I0428 20:34:24.113996  4465 net.cpp:408] conv1 <- pool0
I0428 20:34:24.114018  4465 net.cpp:382] conv1 -> conv1
I0428 20:34:24.117718  4465 net.cpp:124] Setting up conv1
I0428 20:34:24.117732  4465 net.cpp:131] Top shape: 64 50 8 8 (204800)
I0428 20:34:24.117735  4465 net.cpp:139] Memory required for data: 19452160
I0428 20:34:24.117743  4465 layer_factory.hpp:77] Creating layer pool1
I0428 20:34:24.117749  4465 net.cpp:86] Creating Layer pool1
I0428 20:34:24.117753  4465 net.cpp:408] pool1 <- conv1
I0428 20:34:24.117758  4465 net.cpp:382] pool1 -> pool1
I0428 20:34:24.117806  4465 net.cpp:124] Setting up pool1
I0428 20:34:24.117813  4465 net.cpp:131] Top shape: 64 50 4 4 (51200)
I0428 20:34:24.117816  4465 net.cpp:139] Memory required for data: 19656960
I0428 20:34:24.117818  4465 layer_factory.hpp:77] Creating layer ip1
I0428 20:34:24.117825  4465 net.cpp:86] Creating Layer ip1
I0428 20:34:24.117830  4465 net.cpp:408] ip1 <- pool1
I0428 20:34:24.117851  4465 net.cpp:382] ip1 -> ip1
I0428 20:34:24.118824  4465 net.cpp:124] Setting up ip1
I0428 20:34:24.118835  4465 net.cpp:131] Top shape: 64 10 (640)
I0428 20:34:24.118854  4465 net.cpp:139] Memory required for data: 19659520
I0428 20:34:24.118861  4465 layer_factory.hpp:77] Creating layer relu1
I0428 20:34:24.118867  4465 net.cpp:86] Creating Layer relu1
I0428 20:34:24.118870  4465 net.cpp:408] relu1 <- ip1
I0428 20:34:24.118875  4465 net.cpp:369] relu1 -> ip1 (in-place)
I0428 20:34:24.119107  4465 net.cpp:124] Setting up relu1
I0428 20:34:24.119117  4465 net.cpp:131] Top shape: 64 10 (640)
I0428 20:34:24.119119  4465 net.cpp:139] Memory required for data: 19662080
I0428 20:34:24.119123  4465 layer_factory.hpp:77] Creating layer ip2
I0428 20:34:24.119130  4465 net.cpp:86] Creating Layer ip2
I0428 20:34:24.119133  4465 net.cpp:408] ip2 <- ip1
I0428 20:34:24.119139  4465 net.cpp:382] ip2 -> ip2
I0428 20:34:24.119268  4465 net.cpp:124] Setting up ip2
I0428 20:34:24.119274  4465 net.cpp:131] Top shape: 64 10 (640)
I0428 20:34:24.119293  4465 net.cpp:139] Memory required for data: 19664640
I0428 20:34:24.119298  4465 layer_factory.hpp:77] Creating layer relu2
I0428 20:34:24.119304  4465 net.cpp:86] Creating Layer relu2
I0428 20:34:24.119308  4465 net.cpp:408] relu2 <- ip2
I0428 20:34:24.119313  4465 net.cpp:369] relu2 -> ip2 (in-place)
I0428 20:34:24.120121  4465 net.cpp:124] Setting up relu2
I0428 20:34:24.120134  4465 net.cpp:131] Top shape: 64 10 (640)
I0428 20:34:24.120138  4465 net.cpp:139] Memory required for data: 19667200
I0428 20:34:24.120142  4465 layer_factory.hpp:77] Creating layer loss
I0428 20:34:24.120149  4465 net.cpp:86] Creating Layer loss
I0428 20:34:24.120156  4465 net.cpp:408] loss <- ip2
I0428 20:34:24.120162  4465 net.cpp:408] loss <- label
I0428 20:34:24.120167  4465 net.cpp:382] loss -> loss
I0428 20:34:24.120188  4465 layer_factory.hpp:77] Creating layer loss
…
I0428 20:34:24.120921  4465 solver.cpp:173] Creating test net (#0) specified by net file: ECE595/mnist/train_test/var_everything2/lenet_train_test1604.prototxt
I0428 20:34:24.120965  4465 net.cpp:296] The NetState phase (1) differed from the phase (0) specified by a rule in layer mnist
I0428 20:34:24.121054  4465 net.cpp:53] Initializing net from parameters: 
name: "LeNet"
state {
  phase: TEST
}
layer {
  name: "mnist"
  type: "Data"
  top: "data"
  top: "label"
  include {
    phase: TEST
  }
  transform_param {
    scale: 0.00390625
  }
  data_param {
    source: "examples/mnist/mnist_test_lmdb"
    batch_size: 100
    backend: LMDB
  }
}
layer {
  name: "conv0"
  type: "Convolution"
  bottom: "data"
  top: "conv0"
  param {
    lr_mult: 1
  }
  param {
    lr_mult: 2
  }
  convolution_param {
    num_output: 100
    kernel_size: 5
    stride: 1
    weight_filler {
      type: "xavier"
    }
    bias_filler {
      type: "constant"
    }
  }
}
layer {
  name: "pool0"
  type: "Pooling"
  bottom: "conv0"
  top: "pool0"
  pooling_param {
    pool: MAX
    kernel_size: 2
    stride: 2
  }
}
layer {
  name: "conv1"
  type: "Convolution"
  bottom: "pool0"
  top: "conv1"
  param {
    lr_mult: 1
  }
  param {
    lr_mult: 2
  }
  convolution_param {
    num_output: 50
    kernel_size: 5
    stride: 1
    weight_filler {
      type: "xavier"
    }
    bias_filler {
      type: "constant"
    }
  }
}
layer {
  name: "pool1"
  type: "Pooling"
  bottom: "conv1"
  top: "pool1"
  pooling_param {
    pool: MAX
    kernel_size: 2
    stride: 2
  }
}
layer {
  name: "ip1"
  type: "InnerProduct"
  bottom: "pool1"
  top: "ip1"
  param {
    lr_mult: 1
  }
  param {
    lr_mult: 2
  }
  inner_product_param {
    num_output: 10
    weight_filler {
      type: "xavier"
    }
    bias_filler {
      type: "constant"
    }
  }
}
layer {
  name: "relu1"
  type: "ReLU"
  bottom: "ip1"
  top: "ip1"
}
layer {
  name: "ip2"
  type: "InnerProduct"
  bottom: "ip1"
  top: "ip2"
  param {
    lr_mult: 1
  }
  param {
    lr_mult: 2
  }
  inner_product_param {
    num_output: 10
    weight_filler {
      type: "xavier"
    }
    bias_filler {
      type: "constant"
    }
  }
}
layer {
  name: "relu2"
  type: "ReLU"
  bottom: "ip2"
  top: "ip2"
}
layer {
  name: "accuracy"
  type: "Accuracy"
  bottom: "ip2"
  bottom: "label"
  top: "accuracy"
  include {
    phase: TEST
  }
}
layer {
  name: "loss"
  type: "SoftmaxWithLoss"
  bottom: "ip2"
  bottom: "label"
  top: "loss"
}
I0428 20:34:24.121122  4465 layer_factory.hpp:77] Creating layer mnist
I0428 20:34:24.121183  4465 db_lmdb.cpp:35] Opened lmdb examples/mnist/mnist_test_lmdb
I0428 20:34:24.121197  4465 net.cpp:86] Creating Layer mnist
I0428 20:34:24.121204  4465 net.cpp:382] mnist -> data
I0428 20:34:24.121212  4465 net.cpp:382] mnist -> label
I0428 20:34:24.121321  4465 data_layer.cpp:45] output data size: 100,1,28,28
I0428 20:34:24.122509  4465 net.cpp:124] Setting up mnist
I0428 20:34:24.122537  4465 net.cpp:131] Top shape: 100 1 28 28 (78400)
I0428 20:34:24.122560  4465 net.cpp:131] Top shape: 100 (100)
I0428 20:34:24.122562  4465 net.cpp:139] Memory required for data: 314000
I0428 20:34:24.122567  4465 layer_factory.hpp:77] Creating layer label_mnist_1_split
I0428 20:34:24.122598  4465 net.cpp:86] Creating Layer label_mnist_1_split
I0428 20:34:24.122603  4465 net.cpp:408] label_mnist_1_split <- label
I0428 20:34:24.122609  4465 net.cpp:382] label_mnist_1_split -> label_mnist_1_split_0
I0428 20:34:24.122619  4465 net.cpp:382] label_mnist_1_split -> label_mnist_1_split_1
I0428 20:34:24.122743  4465 net.cpp:124] Setting up label_mnist_1_split
I0428 20:34:24.122752  4465 net.cpp:131] Top shape: 100 (100)
I0428 20:34:24.122756  4465 net.cpp:131] Top shape: 100 (100)
I0428 20:34:24.122761  4465 net.cpp:139] Memory required for data: 314800
I0428 20:34:24.122763  4465 layer_factory.hpp:77] Creating layer conv0
I0428 20:34:24.122772  4465 net.cpp:86] Creating Layer conv0
I0428 20:34:24.122779  4465 net.cpp:408] conv0 <- data
I0428 20:34:24.122784  4465 net.cpp:382] conv0 -> conv0
I0428 20:34:24.124457  4465 net.cpp:124] Setting up conv0
I0428 20:34:24.124472  4465 net.cpp:131] Top shape: 100 100 24 24 (5760000)
I0428 20:34:24.124477  4465 net.cpp:139] Memory required for data: 23354800
I0428 20:34:24.124487  4465 layer_factory.hpp:77] Creating layer pool0
I0428 20:34:24.124496  4465 net.cpp:86] Creating Layer pool0
I0428 20:34:24.124500  4465 net.cpp:408] pool0 <- conv0
I0428 20:34:24.124521  4465 net.cpp:382] pool0 -> pool0
I0428 20:34:24.124558  4465 net.cpp:124] Setting up pool0
I0428 20:34:24.124580  4465 net.cpp:131] Top shape: 100 100 12 12 (1440000)
I0428 20:34:24.124583  4465 net.cpp:139] Memory required for data: 29114800
I0428 20:34:24.124598  4465 layer_factory.hpp:77] Creating layer conv1
I0428 20:34:24.124606  4465 net.cpp:86] Creating Layer conv1
I0428 20:34:24.124609  4465 net.cpp:408] conv1 <- pool0
I0428 20:34:24.124614  4465 net.cpp:382] conv1 -> conv1
I0428 20:34:24.127895  4465 net.cpp:124] Setting up conv1
I0428 20:34:24.127909  4465 net.cpp:131] Top shape: 100 50 8 8 (320000)
I0428 20:34:24.127913  4465 net.cpp:139] Memory required for data: 30394800
I0428 20:34:24.127921  4465 layer_factory.hpp:77] Creating layer pool1
I0428 20:34:24.127928  4465 net.cpp:86] Creating Layer pool1
I0428 20:34:24.127933  4465 net.cpp:408] pool1 <- conv1
I0428 20:34:24.127938  4465 net.cpp:382] pool1 -> pool1
I0428 20:34:24.127990  4465 net.cpp:124] Setting up pool1
I0428 20:34:24.127996  4465 net.cpp:131] Top shape: 100 50 4 4 (80000)
I0428 20:34:24.128000  4465 net.cpp:139] Memory required for data: 30714800
I0428 20:34:24.128003  4465 layer_factory.hpp:77] Creating layer ip1
I0428 20:34:24.128010  4465 net.cpp:86] Creating Layer ip1
I0428 20:34:24.128013  4465 net.cpp:408] ip1 <- pool1
I0428 20:34:24.128017  4465 net.cpp:382] ip1 -> ip1
I0428 20:34:24.128170  4465 net.cpp:124] Setting up ip1
I0428 20:34:24.128177  4465 net.cpp:131] Top shape: 100 10 (1000)
I0428 20:34:24.128180  4465 net.cpp:139] Memory required for data: 30718800
I0428 20:34:24.128187  4465 layer_factory.hpp:77] Creating layer relu1
I0428 20:34:24.128195  4465 net.cpp:86] Creating Layer relu1
I0428 20:34:24.128214  4465 net.cpp:408] relu1 <- ip1
I0428 20:34:24.128218  4465 net.cpp:369] relu1 -> ip1 (in-place)
I0428 20:34:24.128374  4465 net.cpp:124] Setting up relu1
I0428 20:34:24.128382  4465 net.cpp:131] Top shape: 100 10 (1000)
I0428 20:34:24.128386  4465 net.cpp:139] Memory required for data: 30722800
I0428 20:34:24.128388  4465 layer_factory.hpp:77] Creating layer ip2
I0428 20:34:24.128396  4465 net.cpp:86] Creating Layer ip2
I0428 20:34:24.128401  4465 net.cpp:408] ip2 <- ip1
I0428 20:34:24.128422  4465 net.cpp:382] ip2 -> ip2
I0428 20:34:24.128530  4465 net.cpp:124] Setting up ip2
I0428 20:34:24.128536  4465 net.cpp:131] Top shape: 100 10 (1000)
I0428 20:34:24.128540  4465 net.cpp:139] Memory required for data: 30726800
I0428 20:34:24.128545  4465 layer_factory.hpp:77] Creating layer relu2
I0428 20:34:24.128549  4465 net.cpp:86] Creating Layer relu2
I0428 20:34:24.128552  4465 net.cpp:408] relu2 <- ip2
I0428 20:34:24.128556  4465 net.cpp:369] relu2 -> ip2 (in-place)
I0428 20:34:24.128753  4465 net.cpp:124] Setting up relu2
I0428 20:34:24.128762  4465 net.cpp:131] Top shape: 100 10 (1000)
I0428 20:34:24.128765  4465 net.cpp:139] Memory required for data: 30730800
I0428 20:34:24.128768  4465 layer_factory.hpp:77] Creating layer ip2_relu2_0_split
I0428 20:34:24.128773  4465 net.cpp:86] Creating Layer ip2_relu2_0_split
I0428 20:34:24.128777  4465 net.cpp:408] ip2_relu2_0_split <- ip2
I0428 20:34:24.128780  4465 net.cpp:382] ip2_relu2_0_split -> ip2_relu2_0_split_0
I0428 20:34:24.128803  4465 net.cpp:382] ip2_relu2_0_split -> ip2_relu2_0_split_1
I0428 20:34:24.128870  4465 net.cpp:124] Setting up ip2_relu2_0_split
I0428 20:34:24.128877  4465 net.cpp:131] Top shape: 100 10 (1000)
I0428 20:34:24.128880  4465 net.cpp:131] Top shape: 100 10 (1000)
I0428 20:34:24.128883  4465 net.cpp:139] Memory required for data: 30738800
I0428 20:34:24.128886  4465 layer_factory.hpp:77] Creating layer accuracy
I0428 20:34:24.128907  4465 net.cpp:86] Creating Layer accuracy
I0428 20:34:24.128911  4465 net.cpp:408] accuracy <- ip2_relu2_0_split_0
I0428 20:34:24.128916  4465 net.cpp:408] accuracy <- label_mnist_1_split_0
I0428 20:34:24.128921  4465 net.cpp:382] accuracy -> accuracy
…
