…
I0428 20:03:37.614351 30214 net.cpp:296] The NetState phase (0) differed from the phase (1) specified by a rule in layer mnist
I0428 20:03:37.614370 30214 net.cpp:296] The NetState phase (0) differed from the phase (1) specified by a rule in layer accuracy
I0428 20:03:37.614475 30214 net.cpp:53] Initializing net from parameters: 
name: "LeNet"
state {
  phase: TRAIN
  level: 0
  stage: ""
}
layer {
  name: "mnist"
  type: "Data"
  top: "data"
  top: "label"
  include {
    phase: TRAIN
  }
  transform_param {
    scale: 0.00390625
  }
  data_param {
    source: "examples/mnist/mnist_train_lmdb"
    batch_size: 64
    backend: LMDB
  }
}
layer {
  name: "conv0"
  type: "Convolution"
  bottom: "data"
  top: "conv0"
  param {
    lr_mult: 1
  }
  param {
    lr_mult: 2
  }
  convolution_param {
    num_output: 10
    kernel_size: 5
    stride: 1
    weight_filler {
      type: "xavier"
    }
    bias_filler {
      type: "constant"
    }
  }
}
layer {
  name: "pool0"
  type: "Pooling"
  bottom: "conv0"
  top: "pool0"
  pooling_param {
    pool: MAX
    kernel_size: 2
    stride: 2
  }
}
layer {
  name: "conv1"
  type: "Convolution"
  bottom: "pool0"
  top: "conv1"
  param {
    lr_mult: 1
  }
  param {
    lr_mult: 2
  }
  convolution_param {
    num_output: 100
    kernel_size: 5
    stride: 1
    weight_filler {
      type: "xavier"
    }
    bias_filler {
      type: "constant"
    }
  }
}
layer {
  name: "pool1"
  type: "Pooling"
  bottom: "conv1"
  top: "pool1"
  pooling_param {
    pool: MAX
    kernel_size: 2
    stride: 2
  }
}
layer {
  name: "ip1"
  type: "InnerProduct"
  bottom: "pool1"
  top: "ip1"
  param {
    lr_mult: 1
  }
  param {
    lr_mult: 2
  }
  inner_product_param {
    num_output: 10
    weight_filler {
      type: "xavier"
    }
    bias_filler {
      type: "constant"
    }
  }
}
layer {
  name: "relu1"
  type: "ReLU"
  bottom: "ip1"
  top: "ip1"
}
layer {
  name: "ip2"
  type: "InnerProduct"
  bottom: "ip1"
  top: "ip2"
  param {
    lr_mult: 1
  }
  param {
    lr_mult: 2
  }
  inner_product_param {
    num_output: 50
    weight_filler {
      type: "xavier"
    }
    bias_filler {
      type: "constant"
    }
  }
}
layer {
  name: "relu2"
  type: "ReLU"
  bottom: "ip2"
  top: "ip2"
}
layer {
  name: "ip3"
  type: "InnerProduct"
  bottom: "ip2"
  top: "ip3"
  param {
    lr_mult: 1
  }
  param {
    lr_mult: 2
  }
  inner_product_param {
    num_output: 10
    weight_filler {
      type: "xavier"
    }
    bias_filler {
      type: "constant"
    }
  }
}
layer {
  name: "relu3"
  type: "ReLU"
  bottom: "ip3"
  top: "ip3"
}
layer {
  name: "loss"
  type: "SoftmaxWithLoss"
  bottom: "ip3"
  bottom: "label"
  top: "loss"
}
I0428 20:03:37.614555 30214 layer_factory.hpp:77] Creating layer mnist
I0428 20:03:37.614652 30214 db_lmdb.cpp:35] Opened lmdb examples/mnist/mnist_train_lmdb
I0428 20:03:37.614677 30214 net.cpp:86] Creating Layer mnist
I0428 20:03:37.614686 30214 net.cpp:382] mnist -> data
I0428 20:03:37.614707 30214 net.cpp:382] mnist -> label
I0428 20:03:37.615808 30214 data_layer.cpp:45] output data size: 64,1,28,28
I0428 20:03:37.618279 30214 net.cpp:124] Setting up mnist
I0428 20:03:37.618297 30214 net.cpp:131] Top shape: 64 1 28 28 (50176)
I0428 20:03:37.618305 30214 net.cpp:131] Top shape: 64 (64)
I0428 20:03:37.618310 30214 net.cpp:139] Memory required for data: 200960
I0428 20:03:37.618317 30214 layer_factory.hpp:77] Creating layer conv0
I0428 20:03:37.618332 30214 net.cpp:86] Creating Layer conv0
I0428 20:03:37.618352 30214 net.cpp:408] conv0 <- data
I0428 20:03:37.618366 30214 net.cpp:382] conv0 -> conv0
I0428 20:03:37.901161 30214 net.cpp:124] Setting up conv0
I0428 20:03:37.901188 30214 net.cpp:131] Top shape: 64 10 24 24 (368640)
I0428 20:03:37.901192 30214 net.cpp:139] Memory required for data: 1675520
I0428 20:03:37.901207 30214 layer_factory.hpp:77] Creating layer pool0
I0428 20:03:37.901219 30214 net.cpp:86] Creating Layer pool0
I0428 20:03:37.901223 30214 net.cpp:408] pool0 <- conv0
I0428 20:03:37.901229 30214 net.cpp:382] pool0 -> pool0
I0428 20:03:37.901283 30214 net.cpp:124] Setting up pool0
I0428 20:03:37.901288 30214 net.cpp:131] Top shape: 64 10 12 12 (92160)
I0428 20:03:37.901291 30214 net.cpp:139] Memory required for data: 2044160
I0428 20:03:37.901293 30214 layer_factory.hpp:77] Creating layer conv1
I0428 20:03:37.901304 30214 net.cpp:86] Creating Layer conv1
I0428 20:03:37.901306 30214 net.cpp:408] conv1 <- pool0
I0428 20:03:37.901310 30214 net.cpp:382] conv1 -> conv1
I0428 20:03:37.903298 30214 net.cpp:124] Setting up conv1
I0428 20:03:37.903329 30214 net.cpp:131] Top shape: 64 100 8 8 (409600)
I0428 20:03:37.903333 30214 net.cpp:139] Memory required for data: 3682560
I0428 20:03:37.903342 30214 layer_factory.hpp:77] Creating layer pool1
I0428 20:03:37.903352 30214 net.cpp:86] Creating Layer pool1
I0428 20:03:37.903355 30214 net.cpp:408] pool1 <- conv1
I0428 20:03:37.903360 30214 net.cpp:382] pool1 -> pool1
I0428 20:03:37.903412 30214 net.cpp:124] Setting up pool1
I0428 20:03:37.903432 30214 net.cpp:131] Top shape: 64 100 4 4 (102400)
I0428 20:03:37.903435 30214 net.cpp:139] Memory required for data: 4092160
I0428 20:03:37.903439 30214 layer_factory.hpp:77] Creating layer ip1
I0428 20:03:37.903445 30214 net.cpp:86] Creating Layer ip1
I0428 20:03:37.903448 30214 net.cpp:408] ip1 <- pool1
I0428 20:03:37.903453 30214 net.cpp:382] ip1 -> ip1
I0428 20:03:37.904567 30214 net.cpp:124] Setting up ip1
I0428 20:03:37.904579 30214 net.cpp:131] Top shape: 64 10 (640)
I0428 20:03:37.904597 30214 net.cpp:139] Memory required for data: 4094720
I0428 20:03:37.904605 30214 layer_factory.hpp:77] Creating layer relu1
I0428 20:03:37.904611 30214 net.cpp:86] Creating Layer relu1
I0428 20:03:37.904614 30214 net.cpp:408] relu1 <- ip1
I0428 20:03:37.904619 30214 net.cpp:369] relu1 -> ip1 (in-place)
I0428 20:03:37.904781 30214 net.cpp:124] Setting up relu1
I0428 20:03:37.904790 30214 net.cpp:131] Top shape: 64 10 (640)
I0428 20:03:37.904793 30214 net.cpp:139] Memory required for data: 4097280
I0428 20:03:37.904796 30214 layer_factory.hpp:77] Creating layer ip2
I0428 20:03:37.904803 30214 net.cpp:86] Creating Layer ip2
I0428 20:03:37.904805 30214 net.cpp:408] ip2 <- ip1
I0428 20:03:37.904829 30214 net.cpp:382] ip2 -> ip2
I0428 20:03:37.904965 30214 net.cpp:124] Setting up ip2
I0428 20:03:37.904973 30214 net.cpp:131] Top shape: 64 50 (3200)
I0428 20:03:37.904976 30214 net.cpp:139] Memory required for data: 4110080
I0428 20:03:37.904983 30214 layer_factory.hpp:77] Creating layer relu2
I0428 20:03:37.904989 30214 net.cpp:86] Creating Layer relu2
I0428 20:03:37.904992 30214 net.cpp:408] relu2 <- ip2
I0428 20:03:37.904997 30214 net.cpp:369] relu2 -> ip2 (in-place)
I0428 20:03:37.905870 30214 net.cpp:124] Setting up relu2
I0428 20:03:37.905882 30214 net.cpp:131] Top shape: 64 50 (3200)
I0428 20:03:37.905901 30214 net.cpp:139] Memory required for data: 4122880
I0428 20:03:37.905905 30214 layer_factory.hpp:77] Creating layer ip3
I0428 20:03:37.905911 30214 net.cpp:86] Creating Layer ip3
I0428 20:03:37.905915 30214 net.cpp:408] ip3 <- ip2
I0428 20:03:37.905920 30214 net.cpp:382] ip3 -> ip3
I0428 20:03:37.906033 30214 net.cpp:124] Setting up ip3
I0428 20:03:37.906041 30214 net.cpp:131] Top shape: 64 10 (640)
I0428 20:03:37.906044 30214 net.cpp:139] Memory required for data: 4125440
I0428 20:03:37.906051 30214 layer_factory.hpp:77] Creating layer relu3
I0428 20:03:37.906057 30214 net.cpp:86] Creating Layer relu3
I0428 20:03:37.906059 30214 net.cpp:408] relu3 <- ip3
I0428 20:03:37.906064 30214 net.cpp:369] relu3 -> ip3 (in-place)
I0428 20:03:37.906224 30214 net.cpp:124] Setting up relu3
I0428 20:03:37.906231 30214 net.cpp:131] Top shape: 64 10 (640)
I0428 20:03:37.906234 30214 net.cpp:139] Memory required for data: 4128000
I0428 20:03:37.906237 30214 layer_factory.hpp:77] Creating layer loss
I0428 20:03:37.906244 30214 net.cpp:86] Creating Layer loss
I0428 20:03:37.906246 30214 net.cpp:408] loss <- ip3
I0428 20:03:37.906250 30214 net.cpp:408] loss <- label
I0428 20:03:37.906255 30214 net.cpp:382] loss -> loss
I0428 20:03:37.906270 30214 layer_factory.hpp:77] Creating layer loss
…
I0428 20:03:37.906985 30214 solver.cpp:173] Creating test net (#0) specified by net file: ECE595/mnist/train_test/var_everything2/lenet_train_test955.prototxt
I0428 20:03:37.907042 30214 net.cpp:296] The NetState phase (1) differed from the phase (0) specified by a rule in layer mnist
I0428 20:03:37.907132 30214 net.cpp:53] Initializing net from parameters: 
name: "LeNet"
state {
  phase: TEST
}
layer {
  name: "mnist"
  type: "Data"
  top: "data"
  top: "label"
  include {
    phase: TEST
  }
  transform_param {
    scale: 0.00390625
  }
  data_param {
    source: "examples/mnist/mnist_test_lmdb"
    batch_size: 100
    backend: LMDB
  }
}
layer {
  name: "conv0"
  type: "Convolution"
  bottom: "data"
  top: "conv0"
  param {
    lr_mult: 1
  }
  param {
    lr_mult: 2
  }
  convolution_param {
    num_output: 10
    kernel_size: 5
    stride: 1
    weight_filler {
      type: "xavier"
    }
    bias_filler {
      type: "constant"
    }
  }
}
layer {
  name: "pool0"
  type: "Pooling"
  bottom: "conv0"
  top: "pool0"
  pooling_param {
    pool: MAX
    kernel_size: 2
    stride: 2
  }
}
layer {
  name: "conv1"
  type: "Convolution"
  bottom: "pool0"
  top: "conv1"
  param {
    lr_mult: 1
  }
  param {
    lr_mult: 2
  }
  convolution_param {
    num_output: 100
    kernel_size: 5
    stride: 1
    weight_filler {
      type: "xavier"
    }
    bias_filler {
      type: "constant"
    }
  }
}
layer {
  name: "pool1"
  type: "Pooling"
  bottom: "conv1"
  top: "pool1"
  pooling_param {
    pool: MAX
    kernel_size: 2
    stride: 2
  }
}
layer {
  name: "ip1"
  type: "InnerProduct"
  bottom: "pool1"
  top: "ip1"
  param {
    lr_mult: 1
  }
  param {
    lr_mult: 2
  }
  inner_product_param {
    num_output: 10
    weight_filler {
      type: "xavier"
    }
    bias_filler {
      type: "constant"
    }
  }
}
layer {
  name: "relu1"
  type: "ReLU"
  bottom: "ip1"
  top: "ip1"
}
layer {
  name: "ip2"
  type: "InnerProduct"
  bottom: "ip1"
  top: "ip2"
  param {
    lr_mult: 1
  }
  param {
    lr_mult: 2
  }
  inner_product_param {
    num_output: 50
    weight_filler {
      type: "xavier"
    }
    bias_filler {
      type: "constant"
    }
  }
}
layer {
  name: "relu2"
  type: "ReLU"
  bottom: "ip2"
  top: "ip2"
}
layer {
  name: "ip3"
  type: "InnerProduct"
  bottom: "ip2"
  top: "ip3"
  param {
    lr_mult: 1
  }
  param {
    lr_mult: 2
  }
  inner_product_param {
    num_output: 10
    weight_filler {
      type: "xavier"
    }
    bias_filler {
      type: "constant"
    }
  }
}
layer {
  name: "relu3"
  type: "ReLU"
  bottom: "ip3"
  top: "ip3"
}
layer {
  name: "accuracy"
  type: "Accuracy"
  bottom: "ip3"
  bottom: "label"
  top: "accuracy"
  include {
    phase: TEST
  }
}
layer {
  name: "loss"
  type: "SoftmaxWithLoss"
  bottom: "ip3"
  bottom: "label"
  top: "loss"
}
I0428 20:03:37.907215 30214 layer_factory.hpp:77] Creating layer mnist
I0428 20:03:37.907259 30214 db_lmdb.cpp:35] Opened lmdb examples/mnist/mnist_test_lmdb
I0428 20:03:37.907271 30214 net.cpp:86] Creating Layer mnist
I0428 20:03:37.907276 30214 net.cpp:382] mnist -> data
I0428 20:03:37.907284 30214 net.cpp:382] mnist -> label
I0428 20:03:37.907395 30214 data_layer.cpp:45] output data size: 100,1,28,28
I0428 20:03:37.909575 30214 net.cpp:124] Setting up mnist
I0428 20:03:37.909605 30214 net.cpp:131] Top shape: 100 1 28 28 (78400)
I0428 20:03:37.909610 30214 net.cpp:131] Top shape: 100 (100)
I0428 20:03:37.909613 30214 net.cpp:139] Memory required for data: 314000
I0428 20:03:37.909617 30214 layer_factory.hpp:77] Creating layer label_mnist_1_split
I0428 20:03:37.909636 30214 net.cpp:86] Creating Layer label_mnist_1_split
I0428 20:03:37.909639 30214 net.cpp:408] label_mnist_1_split <- label
I0428 20:03:37.909658 30214 net.cpp:382] label_mnist_1_split -> label_mnist_1_split_0
I0428 20:03:37.909665 30214 net.cpp:382] label_mnist_1_split -> label_mnist_1_split_1
I0428 20:03:37.909782 30214 net.cpp:124] Setting up label_mnist_1_split
I0428 20:03:37.909790 30214 net.cpp:131] Top shape: 100 (100)
I0428 20:03:37.909795 30214 net.cpp:131] Top shape: 100 (100)
I0428 20:03:37.909798 30214 net.cpp:139] Memory required for data: 314800
I0428 20:03:37.909801 30214 layer_factory.hpp:77] Creating layer conv0
I0428 20:03:37.909809 30214 net.cpp:86] Creating Layer conv0
I0428 20:03:37.909813 30214 net.cpp:408] conv0 <- data
I0428 20:03:37.909817 30214 net.cpp:382] conv0 -> conv0
I0428 20:03:37.911417 30214 net.cpp:124] Setting up conv0
I0428 20:03:37.911430 30214 net.cpp:131] Top shape: 100 10 24 24 (576000)
I0428 20:03:37.911434 30214 net.cpp:139] Memory required for data: 2618800
I0428 20:03:37.911442 30214 layer_factory.hpp:77] Creating layer pool0
I0428 20:03:37.911448 30214 net.cpp:86] Creating Layer pool0
I0428 20:03:37.911451 30214 net.cpp:408] pool0 <- conv0
I0428 20:03:37.911455 30214 net.cpp:382] pool0 -> pool0
I0428 20:03:37.911487 30214 net.cpp:124] Setting up pool0
I0428 20:03:37.911492 30214 net.cpp:131] Top shape: 100 10 12 12 (144000)
I0428 20:03:37.911495 30214 net.cpp:139] Memory required for data: 3194800
I0428 20:03:37.911497 30214 layer_factory.hpp:77] Creating layer conv1
I0428 20:03:37.911505 30214 net.cpp:86] Creating Layer conv1
I0428 20:03:37.911509 30214 net.cpp:408] conv1 <- pool0
I0428 20:03:37.911512 30214 net.cpp:382] conv1 -> conv1
I0428 20:03:37.913264 30214 net.cpp:124] Setting up conv1
I0428 20:03:37.913278 30214 net.cpp:131] Top shape: 100 100 8 8 (640000)
I0428 20:03:37.913282 30214 net.cpp:139] Memory required for data: 5754800
I0428 20:03:37.913291 30214 layer_factory.hpp:77] Creating layer pool1
I0428 20:03:37.913297 30214 net.cpp:86] Creating Layer pool1
I0428 20:03:37.913307 30214 net.cpp:408] pool1 <- conv1
I0428 20:03:37.913313 30214 net.cpp:382] pool1 -> pool1
I0428 20:03:37.913363 30214 net.cpp:124] Setting up pool1
I0428 20:03:37.913369 30214 net.cpp:131] Top shape: 100 100 4 4 (160000)
I0428 20:03:37.913372 30214 net.cpp:139] Memory required for data: 6394800
I0428 20:03:37.913375 30214 layer_factory.hpp:77] Creating layer ip1
I0428 20:03:37.913381 30214 net.cpp:86] Creating Layer ip1
I0428 20:03:37.913384 30214 net.cpp:408] ip1 <- pool1
I0428 20:03:37.913389 30214 net.cpp:382] ip1 -> ip1
I0428 20:03:37.913579 30214 net.cpp:124] Setting up ip1
I0428 20:03:37.913589 30214 net.cpp:131] Top shape: 100 10 (1000)
I0428 20:03:37.913601 30214 net.cpp:139] Memory required for data: 6398800
I0428 20:03:37.913609 30214 layer_factory.hpp:77] Creating layer relu1
I0428 20:03:37.913614 30214 net.cpp:86] Creating Layer relu1
I0428 20:03:37.913616 30214 net.cpp:408] relu1 <- ip1
I0428 20:03:37.913620 30214 net.cpp:369] relu1 -> ip1 (in-place)
I0428 20:03:37.913772 30214 net.cpp:124] Setting up relu1
I0428 20:03:37.913780 30214 net.cpp:131] Top shape: 100 10 (1000)
I0428 20:03:37.913784 30214 net.cpp:139] Memory required for data: 6402800
I0428 20:03:37.913787 30214 layer_factory.hpp:77] Creating layer ip2
I0428 20:03:37.913794 30214 net.cpp:86] Creating Layer ip2
I0428 20:03:37.913796 30214 net.cpp:408] ip2 <- ip1
I0428 20:03:37.913801 30214 net.cpp:382] ip2 -> ip2
I0428 20:03:37.913909 30214 net.cpp:124] Setting up ip2
I0428 20:03:37.913916 30214 net.cpp:131] Top shape: 100 50 (5000)
I0428 20:03:37.913920 30214 net.cpp:139] Memory required for data: 6422800
I0428 20:03:37.913925 30214 layer_factory.hpp:77] Creating layer relu2
I0428 20:03:37.913945 30214 net.cpp:86] Creating Layer relu2
I0428 20:03:37.913949 30214 net.cpp:408] relu2 <- ip2
I0428 20:03:37.913952 30214 net.cpp:369] relu2 -> ip2 (in-place)
I0428 20:03:37.914098 30214 net.cpp:124] Setting up relu2
I0428 20:03:37.914105 30214 net.cpp:131] Top shape: 100 50 (5000)
I0428 20:03:37.914108 30214 net.cpp:139] Memory required for data: 6442800
I0428 20:03:37.914111 30214 layer_factory.hpp:77] Creating layer ip3
I0428 20:03:37.914116 30214 net.cpp:86] Creating Layer ip3
I0428 20:03:37.914132 30214 net.cpp:408] ip3 <- ip2
I0428 20:03:37.914137 30214 net.cpp:382] ip3 -> ip3
I0428 20:03:37.914288 30214 net.cpp:124] Setting up ip3
I0428 20:03:37.914295 30214 net.cpp:131] Top shape: 100 10 (1000)
I0428 20:03:37.914299 30214 net.cpp:139] Memory required for data: 6446800
I0428 20:03:37.914306 30214 layer_factory.hpp:77] Creating layer relu3
I0428 20:03:37.914311 30214 net.cpp:86] Creating Layer relu3
I0428 20:03:37.914314 30214 net.cpp:408] relu3 <- ip3
I0428 20:03:37.914319 30214 net.cpp:369] relu3 -> ip3 (in-place)
I0428 20:03:37.915155 30214 net.cpp:124] Setting up relu3
I0428 20:03:37.915168 30214 net.cpp:131] Top shape: 100 10 (1000)
I0428 20:03:37.915171 30214 net.cpp:139] Memory required for data: 6450800
I0428 20:03:37.915174 30214 layer_factory.hpp:77] Creating layer ip3_relu3_0_split
I0428 20:03:37.915179 30214 net.cpp:86] Creating Layer ip3_relu3_0_split
I0428 20:03:37.915184 30214 net.cpp:408] ip3_relu3_0_split <- ip3
I0428 20:03:37.915189 30214 net.cpp:382] ip3_relu3_0_split -> ip3_relu3_0_split_0
I0428 20:03:37.915194 30214 net.cpp:382] ip3_relu3_0_split -> ip3_relu3_0_split_1
I0428 20:03:37.915232 30214 net.cpp:124] Setting up ip3_relu3_0_split
I0428 20:03:37.915237 30214 net.cpp:131] Top shape: 100 10 (1000)
I0428 20:03:37.915241 30214 net.cpp:131] Top shape: 100 10 (1000)
I0428 20:03:37.915244 30214 net.cpp:139] Memory required for data: 6458800
I0428 20:03:37.915246 30214 layer_factory.hpp:77] Creating layer accuracy
I0428 20:03:37.915251 30214 net.cpp:86] Creating Layer accuracy
I0428 20:03:37.915261 30214 net.cpp:408] accuracy <- ip3_relu3_0_split_0
I0428 20:03:37.915266 30214 net.cpp:408] accuracy <- label_mnist_1_split_0
I0428 20:03:37.915269 30214 net.cpp:382] accuracy -> accuracy
…
