…
I0428 19:28:49.448976 21827 net.cpp:296] The NetState phase (0) differed from the phase (1) specified by a rule in layer mnist
I0428 19:28:49.448989 21827 net.cpp:296] The NetState phase (0) differed from the phase (1) specified by a rule in layer accuracy
I0428 19:28:49.449064 21827 net.cpp:53] Initializing net from parameters: 
name: "LeNet"
state {
  phase: TRAIN
  level: 0
  stage: ""
}
layer {
  name: "mnist"
  type: "Data"
  top: "data"
  top: "label"
  include {
    phase: TRAIN
  }
  transform_param {
    scale: 0.00390625
  }
  data_param {
    source: "examples/mnist/mnist_train_lmdb"
    batch_size: 64
    backend: LMDB
  }
}
layer {
  name: "ip1"
  type: "InnerProduct"
  bottom: "data"
  top: "ip1"
  param {
    lr_mult: 1
  }
  param {
    lr_mult: 2
  }
  inner_product_param {
    num_output: 50
    weight_filler {
      type: "xavier"
    }
    bias_filler {
      type: "constant"
    }
  }
}
layer {
  name: "relu1"
  type: "ReLU"
  bottom: "ip1"
  top: "ip1"
}
layer {
  name: "ip2"
  type: "InnerProduct"
  bottom: "ip1"
  top: "ip2"
  param {
    lr_mult: 1
  }
  param {
    lr_mult: 2
  }
  inner_product_param {
    num_output: 50
    weight_filler {
      type: "xavier"
    }
    bias_filler {
      type: "constant"
    }
  }
}
layer {
  name: "relu2"
  type: "ReLU"
  bottom: "ip2"
  top: "ip2"
}
layer {
  name: "ip3"
  type: "InnerProduct"
  bottom: "ip2"
  top: "ip3"
  param {
    lr_mult: 1
  }
  param {
    lr_mult: 2
  }
  inner_product_param {
    num_output: 10
    weight_filler {
      type: "xavier"
    }
    bias_filler {
      type: "constant"
    }
  }
}
layer {
  name: "relu3"
  type: "ReLU"
  bottom: "ip3"
  top: "ip3"
}
layer {
  name: "loss"
  type: "SoftmaxWithLoss"
  bottom: "ip3"
  bottom: "label"
  top: "loss"
}
I0428 19:28:49.449129 21827 layer_factory.hpp:77] Creating layer mnist
I0428 19:28:49.449234 21827 db_lmdb.cpp:35] Opened lmdb examples/mnist/mnist_train_lmdb
I0428 19:28:49.449261 21827 net.cpp:86] Creating Layer mnist
I0428 19:28:49.449270 21827 net.cpp:382] mnist -> data
I0428 19:28:49.449292 21827 net.cpp:382] mnist -> label
I0428 19:28:49.450382 21827 data_layer.cpp:45] output data size: 64,1,28,28
I0428 19:28:49.452833 21827 net.cpp:124] Setting up mnist
I0428 19:28:49.452852 21827 net.cpp:131] Top shape: 64 1 28 28 (50176)
I0428 19:28:49.452858 21827 net.cpp:131] Top shape: 64 (64)
I0428 19:28:49.452862 21827 net.cpp:139] Memory required for data: 200960
I0428 19:28:49.452868 21827 layer_factory.hpp:77] Creating layer ip1
I0428 19:28:49.452880 21827 net.cpp:86] Creating Layer ip1
I0428 19:28:49.452886 21827 net.cpp:408] ip1 <- data
I0428 19:28:49.452898 21827 net.cpp:382] ip1 -> ip1
I0428 19:28:49.453371 21827 net.cpp:124] Setting up ip1
I0428 19:28:49.453380 21827 net.cpp:131] Top shape: 64 50 (3200)
I0428 19:28:49.453383 21827 net.cpp:139] Memory required for data: 213760
I0428 19:28:49.453397 21827 layer_factory.hpp:77] Creating layer relu1
I0428 19:28:49.453407 21827 net.cpp:86] Creating Layer relu1
I0428 19:28:49.453410 21827 net.cpp:408] relu1 <- ip1
I0428 19:28:49.453416 21827 net.cpp:369] relu1 -> ip1 (in-place)
I0428 19:28:49.742530 21827 net.cpp:124] Setting up relu1
I0428 19:28:49.742563 21827 net.cpp:131] Top shape: 64 50 (3200)
I0428 19:28:49.742568 21827 net.cpp:139] Memory required for data: 226560
I0428 19:28:49.742574 21827 layer_factory.hpp:77] Creating layer ip2
I0428 19:28:49.742588 21827 net.cpp:86] Creating Layer ip2
I0428 19:28:49.742621 21827 net.cpp:408] ip2 <- ip1
I0428 19:28:49.742631 21827 net.cpp:382] ip2 -> ip2
I0428 19:28:49.743813 21827 net.cpp:124] Setting up ip2
I0428 19:28:49.743829 21827 net.cpp:131] Top shape: 64 50 (3200)
I0428 19:28:49.743834 21827 net.cpp:139] Memory required for data: 239360
I0428 19:28:49.743845 21827 layer_factory.hpp:77] Creating layer relu2
I0428 19:28:49.743855 21827 net.cpp:86] Creating Layer relu2
I0428 19:28:49.743860 21827 net.cpp:408] relu2 <- ip2
I0428 19:28:49.743865 21827 net.cpp:369] relu2 -> ip2 (in-place)
I0428 19:28:49.744729 21827 net.cpp:124] Setting up relu2
I0428 19:28:49.744745 21827 net.cpp:131] Top shape: 64 50 (3200)
I0428 19:28:49.744750 21827 net.cpp:139] Memory required for data: 252160
I0428 19:28:49.744753 21827 layer_factory.hpp:77] Creating layer ip3
I0428 19:28:49.744762 21827 net.cpp:86] Creating Layer ip3
I0428 19:28:49.744766 21827 net.cpp:408] ip3 <- ip2
I0428 19:28:49.744772 21827 net.cpp:382] ip3 -> ip3
I0428 19:28:49.745872 21827 net.cpp:124] Setting up ip3
I0428 19:28:49.745887 21827 net.cpp:131] Top shape: 64 10 (640)
I0428 19:28:49.745893 21827 net.cpp:139] Memory required for data: 254720
I0428 19:28:49.745903 21827 layer_factory.hpp:77] Creating layer relu3
I0428 19:28:49.745908 21827 net.cpp:86] Creating Layer relu3
I0428 19:28:49.745913 21827 net.cpp:408] relu3 <- ip3
I0428 19:28:49.745919 21827 net.cpp:369] relu3 -> ip3 (in-place)
I0428 19:28:49.746107 21827 net.cpp:124] Setting up relu3
I0428 19:28:49.746117 21827 net.cpp:131] Top shape: 64 10 (640)
I0428 19:28:49.746121 21827 net.cpp:139] Memory required for data: 257280
I0428 19:28:49.746125 21827 layer_factory.hpp:77] Creating layer loss
I0428 19:28:49.746132 21827 net.cpp:86] Creating Layer loss
I0428 19:28:49.746135 21827 net.cpp:408] loss <- ip3
I0428 19:28:49.746140 21827 net.cpp:408] loss <- label
I0428 19:28:49.746147 21827 net.cpp:382] loss -> loss
I0428 19:28:49.746166 21827 layer_factory.hpp:77] Creating layer loss
…
I0428 19:28:49.746785 21827 solver.cpp:173] Creating test net (#0) specified by net file: ECE595/mnist/train_test/var_everything2/lenet_train_test38.prototxt
I0428 19:28:49.746812 21827 net.cpp:296] The NetState phase (1) differed from the phase (0) specified by a rule in layer mnist
I0428 19:28:49.746893 21827 net.cpp:53] Initializing net from parameters: 
name: "LeNet"
state {
  phase: TEST
}
layer {
  name: "mnist"
  type: "Data"
  top: "data"
  top: "label"
  include {
    phase: TEST
  }
  transform_param {
    scale: 0.00390625
  }
  data_param {
    source: "examples/mnist/mnist_test_lmdb"
    batch_size: 100
    backend: LMDB
  }
}
layer {
  name: "ip1"
  type: "InnerProduct"
  bottom: "data"
  top: "ip1"
  param {
    lr_mult: 1
  }
  param {
    lr_mult: 2
  }
  inner_product_param {
    num_output: 50
    weight_filler {
      type: "xavier"
    }
    bias_filler {
      type: "constant"
    }
  }
}
layer {
  name: "relu1"
  type: "ReLU"
  bottom: "ip1"
  top: "ip1"
}
layer {
  name: "ip2"
  type: "InnerProduct"
  bottom: "ip1"
  top: "ip2"
  param {
    lr_mult: 1
  }
  param {
    lr_mult: 2
  }
  inner_product_param {
    num_output: 50
    weight_filler {
      type: "xavier"
    }
    bias_filler {
      type: "constant"
    }
  }
}
layer {
  name: "relu2"
  type: "ReLU"
  bottom: "ip2"
  top: "ip2"
}
layer {
  name: "ip3"
  type: "InnerProduct"
  bottom: "ip2"
  top: "ip3"
  param {
    lr_mult: 1
  }
  param {
    lr_mult: 2
  }
  inner_product_param {
    num_output: 10
    weight_filler {
      type: "xavier"
    }
    bias_filler {
      type: "constant"
    }
  }
}
layer {
  name: "relu3"
  type: "ReLU"
  bottom: "ip3"
  top: "ip3"
}
layer {
  name: "accuracy"
  type: "Accuracy"
  bottom: "ip3"
  bottom: "label"
  top: "accuracy"
  include {
    phase: TEST
  }
}
layer {
  name: "loss"
  type: "SoftmaxWithLoss"
  bottom: "ip3"
  bottom: "label"
  top: "loss"
}
I0428 19:28:49.746976 21827 layer_factory.hpp:77] Creating layer mnist
I0428 19:28:49.747030 21827 db_lmdb.cpp:35] Opened lmdb examples/mnist/mnist_test_lmdb
I0428 19:28:49.747043 21827 net.cpp:86] Creating Layer mnist
I0428 19:28:49.747050 21827 net.cpp:382] mnist -> data
I0428 19:28:49.747059 21827 net.cpp:382] mnist -> label
I0428 19:28:49.747158 21827 data_layer.cpp:45] output data size: 100,1,28,28
I0428 19:28:49.749558 21827 net.cpp:124] Setting up mnist
I0428 19:28:49.749575 21827 net.cpp:131] Top shape: 100 1 28 28 (78400)
I0428 19:28:49.749581 21827 net.cpp:131] Top shape: 100 (100)
I0428 19:28:49.749585 21827 net.cpp:139] Memory required for data: 314000
I0428 19:28:49.749590 21827 layer_factory.hpp:77] Creating layer label_mnist_1_split
I0428 19:28:49.749603 21827 net.cpp:86] Creating Layer label_mnist_1_split
I0428 19:28:49.749608 21827 net.cpp:408] label_mnist_1_split <- label
I0428 19:28:49.749614 21827 net.cpp:382] label_mnist_1_split -> label_mnist_1_split_0
I0428 19:28:49.749621 21827 net.cpp:382] label_mnist_1_split -> label_mnist_1_split_1
I0428 19:28:49.749742 21827 net.cpp:124] Setting up label_mnist_1_split
I0428 19:28:49.749752 21827 net.cpp:131] Top shape: 100 (100)
I0428 19:28:49.749757 21827 net.cpp:131] Top shape: 100 (100)
I0428 19:28:49.749759 21827 net.cpp:139] Memory required for data: 314800
I0428 19:28:49.749763 21827 layer_factory.hpp:77] Creating layer ip1
I0428 19:28:49.749771 21827 net.cpp:86] Creating Layer ip1
I0428 19:28:49.749775 21827 net.cpp:408] ip1 <- data
I0428 19:28:49.749780 21827 net.cpp:382] ip1 -> ip1
I0428 19:28:49.750198 21827 net.cpp:124] Setting up ip1
I0428 19:28:49.750207 21827 net.cpp:131] Top shape: 100 50 (5000)
I0428 19:28:49.750211 21827 net.cpp:139] Memory required for data: 334800
I0428 19:28:49.750221 21827 layer_factory.hpp:77] Creating layer relu1
I0428 19:28:49.750227 21827 net.cpp:86] Creating Layer relu1
I0428 19:28:49.750231 21827 net.cpp:408] relu1 <- ip1
I0428 19:28:49.750236 21827 net.cpp:369] relu1 -> ip1 (in-place)
I0428 19:28:49.751224 21827 net.cpp:124] Setting up relu1
I0428 19:28:49.751240 21827 net.cpp:131] Top shape: 100 50 (5000)
I0428 19:28:49.751245 21827 net.cpp:139] Memory required for data: 354800
I0428 19:28:49.751250 21827 layer_factory.hpp:77] Creating layer ip2
I0428 19:28:49.751260 21827 net.cpp:86] Creating Layer ip2
I0428 19:28:49.751263 21827 net.cpp:408] ip2 <- ip1
I0428 19:28:49.751269 21827 net.cpp:382] ip2 -> ip2
I0428 19:28:49.751408 21827 net.cpp:124] Setting up ip2
I0428 19:28:49.751416 21827 net.cpp:131] Top shape: 100 50 (5000)
I0428 19:28:49.751420 21827 net.cpp:139] Memory required for data: 374800
I0428 19:28:49.751430 21827 layer_factory.hpp:77] Creating layer relu2
I0428 19:28:49.751435 21827 net.cpp:86] Creating Layer relu2
I0428 19:28:49.751440 21827 net.cpp:408] relu2 <- ip2
I0428 19:28:49.751443 21827 net.cpp:369] relu2 -> ip2 (in-place)
I0428 19:28:49.751624 21827 net.cpp:124] Setting up relu2
I0428 19:28:49.751633 21827 net.cpp:131] Top shape: 100 50 (5000)
I0428 19:28:49.751637 21827 net.cpp:139] Memory required for data: 394800
I0428 19:28:49.751641 21827 layer_factory.hpp:77] Creating layer ip3
I0428 19:28:49.751647 21827 net.cpp:86] Creating Layer ip3
I0428 19:28:49.751652 21827 net.cpp:408] ip3 <- ip2
I0428 19:28:49.751657 21827 net.cpp:382] ip3 -> ip3
I0428 19:28:49.751778 21827 net.cpp:124] Setting up ip3
I0428 19:28:49.751787 21827 net.cpp:131] Top shape: 100 10 (1000)
I0428 19:28:49.751791 21827 net.cpp:139] Memory required for data: 398800
I0428 19:28:49.751799 21827 layer_factory.hpp:77] Creating layer relu3
I0428 19:28:49.751806 21827 net.cpp:86] Creating Layer relu3
I0428 19:28:49.751809 21827 net.cpp:408] relu3 <- ip3
I0428 19:28:49.751814 21827 net.cpp:369] relu3 -> ip3 (in-place)
I0428 19:28:49.751986 21827 net.cpp:124] Setting up relu3
I0428 19:28:49.751996 21827 net.cpp:131] Top shape: 100 10 (1000)
I0428 19:28:49.751999 21827 net.cpp:139] Memory required for data: 402800
I0428 19:28:49.752003 21827 layer_factory.hpp:77] Creating layer ip3_relu3_0_split
I0428 19:28:49.752009 21827 net.cpp:86] Creating Layer ip3_relu3_0_split
I0428 19:28:49.752014 21827 net.cpp:408] ip3_relu3_0_split <- ip3
I0428 19:28:49.752019 21827 net.cpp:382] ip3_relu3_0_split -> ip3_relu3_0_split_0
I0428 19:28:49.752025 21827 net.cpp:382] ip3_relu3_0_split -> ip3_relu3_0_split_1
I0428 19:28:49.752068 21827 net.cpp:124] Setting up ip3_relu3_0_split
I0428 19:28:49.752073 21827 net.cpp:131] Top shape: 100 10 (1000)
I0428 19:28:49.752077 21827 net.cpp:131] Top shape: 100 10 (1000)
I0428 19:28:49.752081 21827 net.cpp:139] Memory required for data: 410800
I0428 19:28:49.752084 21827 layer_factory.hpp:77] Creating layer accuracy
I0428 19:28:49.752090 21827 net.cpp:86] Creating Layer accuracy
I0428 19:28:49.752094 21827 net.cpp:408] accuracy <- ip3_relu3_0_split_0
I0428 19:28:49.752099 21827 net.cpp:408] accuracy <- label_mnist_1_split_0
I0428 19:28:49.752104 21827 net.cpp:382] accuracy -> accuracy
…
