…
I0428 19:44:40.035445 25649 net.cpp:296] The NetState phase (0) differed from the phase (1) specified by a rule in layer mnist
I0428 19:44:40.035466 25649 net.cpp:296] The NetState phase (0) differed from the phase (1) specified by a rule in layer accuracy
I0428 19:44:40.035569 25649 net.cpp:53] Initializing net from parameters: 
name: "LeNet"
state {
  phase: TRAIN
  level: 0
  stage: ""
}
layer {
  name: "mnist"
  type: "Data"
  top: "data"
  top: "label"
  include {
    phase: TRAIN
  }
  transform_param {
    scale: 0.00390625
  }
  data_param {
    source: "examples/mnist/mnist_train_lmdb"
    batch_size: 64
    backend: LMDB
  }
}
layer {
  name: "conv0"
  type: "Convolution"
  bottom: "data"
  top: "conv0"
  param {
    lr_mult: 1
  }
  param {
    lr_mult: 2
  }
  convolution_param {
    num_output: 2
    kernel_size: 5
    stride: 1
    weight_filler {
      type: "xavier"
    }
    bias_filler {
      type: "constant"
    }
  }
}
layer {
  name: "pool0"
  type: "Pooling"
  bottom: "conv0"
  top: "pool0"
  pooling_param {
    pool: MAX
    kernel_size: 2
    stride: 2
  }
}
layer {
  name: "conv1"
  type: "Convolution"
  bottom: "pool0"
  top: "conv1"
  param {
    lr_mult: 1
  }
  param {
    lr_mult: 2
  }
  convolution_param {
    num_output: 50
    kernel_size: 5
    stride: 1
    weight_filler {
      type: "xavier"
    }
    bias_filler {
      type: "constant"
    }
  }
}
layer {
  name: "pool1"
  type: "Pooling"
  bottom: "conv1"
  top: "pool1"
  pooling_param {
    pool: MAX
    kernel_size: 2
    stride: 2
  }
}
layer {
  name: "ip1"
  type: "InnerProduct"
  bottom: "pool1"
  top: "ip1"
  param {
    lr_mult: 1
  }
  param {
    lr_mult: 2
  }
  inner_product_param {
    num_output: 25
    weight_filler {
      type: "xavier"
    }
    bias_filler {
      type: "constant"
    }
  }
}
layer {
  name: "relu1"
  type: "ReLU"
  bottom: "ip1"
  top: "ip1"
}
layer {
  name: "ip2"
  type: "InnerProduct"
  bottom: "ip1"
  top: "ip2"
  param {
    lr_mult: 1
  }
  param {
    lr_mult: 2
  }
  inner_product_param {
    num_output: 25
    weight_filler {
      type: "xavier"
    }
    bias_filler {
      type: "constant"
    }
  }
}
layer {
  name: "relu2"
  type: "ReLU"
  bottom: "ip2"
  top: "ip2"
}
layer {
  name: "ip3"
  type: "InnerProduct"
  bottom: "ip2"
  top: "ip3"
  param {
    lr_mult: 1
  }
  param {
    lr_mult: 2
  }
  inner_product_param {
    num_output: 10
    weight_filler {
      type: "xavier"
    }
    bias_filler {
      type: "constant"
    }
  }
}
layer {
  name: "relu3"
  type: "ReLU"
  bottom: "ip3"
  top: "ip3"
}
layer {
  name: "loss"
  type: "SoftmaxWithLoss"
  bottom: "ip3"
  bottom: "label"
  top: "loss"
}
I0428 19:44:40.035651 25649 layer_factory.hpp:77] Creating layer mnist
I0428 19:44:40.035753 25649 db_lmdb.cpp:35] Opened lmdb examples/mnist/mnist_train_lmdb
I0428 19:44:40.035775 25649 net.cpp:86] Creating Layer mnist
I0428 19:44:40.035785 25649 net.cpp:382] mnist -> data
I0428 19:44:40.035807 25649 net.cpp:382] mnist -> label
I0428 19:44:40.036911 25649 data_layer.cpp:45] output data size: 64,1,28,28
I0428 19:44:40.039353 25649 net.cpp:124] Setting up mnist
I0428 19:44:40.039371 25649 net.cpp:131] Top shape: 64 1 28 28 (50176)
I0428 19:44:40.039377 25649 net.cpp:131] Top shape: 64 (64)
I0428 19:44:40.039381 25649 net.cpp:139] Memory required for data: 200960
I0428 19:44:40.039388 25649 layer_factory.hpp:77] Creating layer conv0
I0428 19:44:40.039405 25649 net.cpp:86] Creating Layer conv0
I0428 19:44:40.039427 25649 net.cpp:408] conv0 <- data
I0428 19:44:40.039440 25649 net.cpp:382] conv0 -> conv0
I0428 19:44:40.328356 25649 net.cpp:124] Setting up conv0
I0428 19:44:40.328384 25649 net.cpp:131] Top shape: 64 2 24 24 (73728)
I0428 19:44:40.328389 25649 net.cpp:139] Memory required for data: 495872
I0428 19:44:40.328404 25649 layer_factory.hpp:77] Creating layer pool0
I0428 19:44:40.328418 25649 net.cpp:86] Creating Layer pool0
I0428 19:44:40.328423 25649 net.cpp:408] pool0 <- conv0
I0428 19:44:40.328428 25649 net.cpp:382] pool0 -> pool0
I0428 19:44:40.328477 25649 net.cpp:124] Setting up pool0
I0428 19:44:40.328485 25649 net.cpp:131] Top shape: 64 2 12 12 (18432)
I0428 19:44:40.328487 25649 net.cpp:139] Memory required for data: 569600
I0428 19:44:40.328491 25649 layer_factory.hpp:77] Creating layer conv1
I0428 19:44:40.328502 25649 net.cpp:86] Creating Layer conv1
I0428 19:44:40.328506 25649 net.cpp:408] conv1 <- pool0
I0428 19:44:40.328511 25649 net.cpp:382] conv1 -> conv1
I0428 19:44:40.331305 25649 net.cpp:124] Setting up conv1
I0428 19:44:40.331321 25649 net.cpp:131] Top shape: 64 50 8 8 (204800)
I0428 19:44:40.331326 25649 net.cpp:139] Memory required for data: 1388800
I0428 19:44:40.331334 25649 layer_factory.hpp:77] Creating layer pool1
I0428 19:44:40.331342 25649 net.cpp:86] Creating Layer pool1
I0428 19:44:40.331346 25649 net.cpp:408] pool1 <- conv1
I0428 19:44:40.331352 25649 net.cpp:382] pool1 -> pool1
I0428 19:44:40.331393 25649 net.cpp:124] Setting up pool1
I0428 19:44:40.331398 25649 net.cpp:131] Top shape: 64 50 4 4 (51200)
I0428 19:44:40.331401 25649 net.cpp:139] Memory required for data: 1593600
I0428 19:44:40.331405 25649 layer_factory.hpp:77] Creating layer ip1
I0428 19:44:40.331413 25649 net.cpp:86] Creating Layer ip1
I0428 19:44:40.331415 25649 net.cpp:408] ip1 <- pool1
I0428 19:44:40.331420 25649 net.cpp:382] ip1 -> ip1
I0428 19:44:40.331640 25649 net.cpp:124] Setting up ip1
I0428 19:44:40.331650 25649 net.cpp:131] Top shape: 64 25 (1600)
I0428 19:44:40.331652 25649 net.cpp:139] Memory required for data: 1600000
I0428 19:44:40.331660 25649 layer_factory.hpp:77] Creating layer relu1
I0428 19:44:40.331666 25649 net.cpp:86] Creating Layer relu1
I0428 19:44:40.331670 25649 net.cpp:408] relu1 <- ip1
I0428 19:44:40.331674 25649 net.cpp:369] relu1 -> ip1 (in-place)
I0428 19:44:40.331851 25649 net.cpp:124] Setting up relu1
I0428 19:44:40.331861 25649 net.cpp:131] Top shape: 64 25 (1600)
I0428 19:44:40.331863 25649 net.cpp:139] Memory required for data: 1606400
I0428 19:44:40.331867 25649 layer_factory.hpp:77] Creating layer ip2
I0428 19:44:40.331873 25649 net.cpp:86] Creating Layer ip2
I0428 19:44:40.331877 25649 net.cpp:408] ip2 <- ip1
I0428 19:44:40.331882 25649 net.cpp:382] ip2 -> ip2
I0428 19:44:40.331984 25649 net.cpp:124] Setting up ip2
I0428 19:44:40.331991 25649 net.cpp:131] Top shape: 64 25 (1600)
I0428 19:44:40.331995 25649 net.cpp:139] Memory required for data: 1612800
I0428 19:44:40.332000 25649 layer_factory.hpp:77] Creating layer relu2
I0428 19:44:40.332006 25649 net.cpp:86] Creating Layer relu2
I0428 19:44:40.332010 25649 net.cpp:408] relu2 <- ip2
I0428 19:44:40.332015 25649 net.cpp:369] relu2 -> ip2 (in-place)
I0428 19:44:40.332767 25649 net.cpp:124] Setting up relu2
I0428 19:44:40.332780 25649 net.cpp:131] Top shape: 64 25 (1600)
I0428 19:44:40.332784 25649 net.cpp:139] Memory required for data: 1619200
I0428 19:44:40.332788 25649 layer_factory.hpp:77] Creating layer ip3
I0428 19:44:40.332795 25649 net.cpp:86] Creating Layer ip3
I0428 19:44:40.332799 25649 net.cpp:408] ip3 <- ip2
I0428 19:44:40.332805 25649 net.cpp:382] ip3 -> ip3
I0428 19:44:40.332919 25649 net.cpp:124] Setting up ip3
I0428 19:44:40.332928 25649 net.cpp:131] Top shape: 64 10 (640)
I0428 19:44:40.332931 25649 net.cpp:139] Memory required for data: 1621760
I0428 19:44:40.332939 25649 layer_factory.hpp:77] Creating layer relu3
I0428 19:44:40.332945 25649 net.cpp:86] Creating Layer relu3
I0428 19:44:40.332948 25649 net.cpp:408] relu3 <- ip3
I0428 19:44:40.332953 25649 net.cpp:369] relu3 -> ip3 (in-place)
I0428 19:44:40.333128 25649 net.cpp:124] Setting up relu3
I0428 19:44:40.333138 25649 net.cpp:131] Top shape: 64 10 (640)
I0428 19:44:40.333142 25649 net.cpp:139] Memory required for data: 1624320
I0428 19:44:40.333145 25649 layer_factory.hpp:77] Creating layer loss
I0428 19:44:40.333158 25649 net.cpp:86] Creating Layer loss
I0428 19:44:40.333161 25649 net.cpp:408] loss <- ip3
I0428 19:44:40.333165 25649 net.cpp:408] loss <- label
I0428 19:44:40.333171 25649 net.cpp:382] loss -> loss
I0428 19:44:40.333185 25649 layer_factory.hpp:77] Creating layer loss
…
I0428 19:44:40.333914 25649 solver.cpp:173] Creating test net (#0) specified by net file: ECE595/mnist/train_test/var_everything2/lenet_train_test453.prototxt
I0428 19:44:40.333951 25649 net.cpp:296] The NetState phase (1) differed from the phase (0) specified by a rule in layer mnist
I0428 19:44:40.334067 25649 net.cpp:53] Initializing net from parameters: 
name: "LeNet"
state {
  phase: TEST
}
layer {
  name: "mnist"
  type: "Data"
  top: "data"
  top: "label"
  include {
    phase: TEST
  }
  transform_param {
    scale: 0.00390625
  }
  data_param {
    source: "examples/mnist/mnist_test_lmdb"
    batch_size: 100
    backend: LMDB
  }
}
layer {
  name: "conv0"
  type: "Convolution"
  bottom: "data"
  top: "conv0"
  param {
    lr_mult: 1
  }
  param {
    lr_mult: 2
  }
  convolution_param {
    num_output: 2
    kernel_size: 5
    stride: 1
    weight_filler {
      type: "xavier"
    }
    bias_filler {
      type: "constant"
    }
  }
}
layer {
  name: "pool0"
  type: "Pooling"
  bottom: "conv0"
  top: "pool0"
  pooling_param {
    pool: MAX
    kernel_size: 2
    stride: 2
  }
}
layer {
  name: "conv1"
  type: "Convolution"
  bottom: "pool0"
  top: "conv1"
  param {
    lr_mult: 1
  }
  param {
    lr_mult: 2
  }
  convolution_param {
    num_output: 50
    kernel_size: 5
    stride: 1
    weight_filler {
      type: "xavier"
    }
    bias_filler {
      type: "constant"
    }
  }
}
layer {
  name: "pool1"
  type: "Pooling"
  bottom: "conv1"
  top: "pool1"
  pooling_param {
    pool: MAX
    kernel_size: 2
    stride: 2
  }
}
layer {
  name: "ip1"
  type: "InnerProduct"
  bottom: "pool1"
  top: "ip1"
  param {
    lr_mult: 1
  }
  param {
    lr_mult: 2
  }
  inner_product_param {
    num_output: 25
    weight_filler {
      type: "xavier"
    }
    bias_filler {
      type: "constant"
    }
  }
}
layer {
  name: "relu1"
  type: "ReLU"
  bottom: "ip1"
  top: "ip1"
}
layer {
  name: "ip2"
  type: "InnerProduct"
  bottom: "ip1"
  top: "ip2"
  param {
    lr_mult: 1
  }
  param {
    lr_mult: 2
  }
  inner_product_param {
    num_output: 25
    weight_filler {
      type: "xavier"
    }
    bias_filler {
      type: "constant"
    }
  }
}
layer {
  name: "relu2"
  type: "ReLU"
  bottom: "ip2"
  top: "ip2"
}
layer {
  name: "ip3"
  type: "InnerProduct"
  bottom: "ip2"
  top: "ip3"
  param {
    lr_mult: 1
  }
  param {
    lr_mult: 2
  }
  inner_product_param {
    num_output: 10
    weight_filler {
      type: "xavier"
    }
    bias_filler {
      type: "constant"
    }
  }
}
layer {
  name: "relu3"
  type: "ReLU"
  bottom: "ip3"
  top: "ip3"
}
layer {
  name: "accuracy"
  type: "Accuracy"
  bottom: "ip3"
  bottom: "label"
  top: "accuracy"
  include {
    phase: TEST
  }
}
layer {
  name: "loss"
  type: "SoftmaxWithLoss"
  bottom: "ip3"
  bottom: "label"
  top: "loss"
}
I0428 19:44:40.334172 25649 layer_factory.hpp:77] Creating layer mnist
I0428 19:44:40.334216 25649 db_lmdb.cpp:35] Opened lmdb examples/mnist/mnist_test_lmdb
I0428 19:44:40.334229 25649 net.cpp:86] Creating Layer mnist
I0428 19:44:40.334235 25649 net.cpp:382] mnist -> data
I0428 19:44:40.334244 25649 net.cpp:382] mnist -> label
I0428 19:44:40.334332 25649 data_layer.cpp:45] output data size: 100,1,28,28
I0428 19:44:40.336251 25649 net.cpp:124] Setting up mnist
I0428 19:44:40.336266 25649 net.cpp:131] Top shape: 100 1 28 28 (78400)
I0428 19:44:40.336271 25649 net.cpp:131] Top shape: 100 (100)
I0428 19:44:40.336273 25649 net.cpp:139] Memory required for data: 314000
I0428 19:44:40.336277 25649 layer_factory.hpp:77] Creating layer label_mnist_1_split
I0428 19:44:40.336284 25649 net.cpp:86] Creating Layer label_mnist_1_split
I0428 19:44:40.336288 25649 net.cpp:408] label_mnist_1_split <- label
I0428 19:44:40.336310 25649 net.cpp:382] label_mnist_1_split -> label_mnist_1_split_0
I0428 19:44:40.336318 25649 net.cpp:382] label_mnist_1_split -> label_mnist_1_split_1
I0428 19:44:40.336359 25649 net.cpp:124] Setting up label_mnist_1_split
I0428 19:44:40.336365 25649 net.cpp:131] Top shape: 100 (100)
I0428 19:44:40.336370 25649 net.cpp:131] Top shape: 100 (100)
I0428 19:44:40.336374 25649 net.cpp:139] Memory required for data: 314800
I0428 19:44:40.336376 25649 layer_factory.hpp:77] Creating layer conv0
I0428 19:44:40.336385 25649 net.cpp:86] Creating Layer conv0
I0428 19:44:40.336390 25649 net.cpp:408] conv0 <- data
I0428 19:44:40.336395 25649 net.cpp:382] conv0 -> conv0
I0428 19:44:40.338186 25649 net.cpp:124] Setting up conv0
I0428 19:44:40.338199 25649 net.cpp:131] Top shape: 100 2 24 24 (115200)
I0428 19:44:40.338203 25649 net.cpp:139] Memory required for data: 775600
I0428 19:44:40.338212 25649 layer_factory.hpp:77] Creating layer pool0
I0428 19:44:40.338222 25649 net.cpp:86] Creating Layer pool0
I0428 19:44:40.338224 25649 net.cpp:408] pool0 <- conv0
I0428 19:44:40.338229 25649 net.cpp:382] pool0 -> pool0
I0428 19:44:40.338268 25649 net.cpp:124] Setting up pool0
I0428 19:44:40.338274 25649 net.cpp:131] Top shape: 100 2 12 12 (28800)
I0428 19:44:40.338276 25649 net.cpp:139] Memory required for data: 890800
I0428 19:44:40.338280 25649 layer_factory.hpp:77] Creating layer conv1
I0428 19:44:40.338290 25649 net.cpp:86] Creating Layer conv1
I0428 19:44:40.338294 25649 net.cpp:408] conv1 <- pool0
I0428 19:44:40.338299 25649 net.cpp:382] conv1 -> conv1
I0428 19:44:40.339918 25649 net.cpp:124] Setting up conv1
I0428 19:44:40.339932 25649 net.cpp:131] Top shape: 100 50 8 8 (320000)
I0428 19:44:40.339937 25649 net.cpp:139] Memory required for data: 2170800
I0428 19:44:40.339946 25649 layer_factory.hpp:77] Creating layer pool1
I0428 19:44:40.339954 25649 net.cpp:86] Creating Layer pool1
I0428 19:44:40.339957 25649 net.cpp:408] pool1 <- conv1
I0428 19:44:40.339974 25649 net.cpp:382] pool1 -> pool1
I0428 19:44:40.340013 25649 net.cpp:124] Setting up pool1
I0428 19:44:40.340029 25649 net.cpp:131] Top shape: 100 50 4 4 (80000)
I0428 19:44:40.340031 25649 net.cpp:139] Memory required for data: 2490800
I0428 19:44:40.340034 25649 layer_factory.hpp:77] Creating layer ip1
I0428 19:44:40.340041 25649 net.cpp:86] Creating Layer ip1
I0428 19:44:40.340045 25649 net.cpp:408] ip1 <- pool1
I0428 19:44:40.340049 25649 net.cpp:382] ip1 -> ip1
I0428 19:44:40.340268 25649 net.cpp:124] Setting up ip1
I0428 19:44:40.340276 25649 net.cpp:131] Top shape: 100 25 (2500)
I0428 19:44:40.340296 25649 net.cpp:139] Memory required for data: 2500800
I0428 19:44:40.340306 25649 layer_factory.hpp:77] Creating layer relu1
I0428 19:44:40.340312 25649 net.cpp:86] Creating Layer relu1
I0428 19:44:40.340322 25649 net.cpp:408] relu1 <- ip1
I0428 19:44:40.340325 25649 net.cpp:369] relu1 -> ip1 (in-place)
I0428 19:44:40.340493 25649 net.cpp:124] Setting up relu1
I0428 19:44:40.340503 25649 net.cpp:131] Top shape: 100 25 (2500)
I0428 19:44:40.340507 25649 net.cpp:139] Memory required for data: 2510800
I0428 19:44:40.340510 25649 layer_factory.hpp:77] Creating layer ip2
I0428 19:44:40.340518 25649 net.cpp:86] Creating Layer ip2
I0428 19:44:40.340522 25649 net.cpp:408] ip2 <- ip1
I0428 19:44:40.340528 25649 net.cpp:382] ip2 -> ip2
I0428 19:44:40.340636 25649 net.cpp:124] Setting up ip2
I0428 19:44:40.340643 25649 net.cpp:131] Top shape: 100 25 (2500)
I0428 19:44:40.340646 25649 net.cpp:139] Memory required for data: 2520800
I0428 19:44:40.340651 25649 layer_factory.hpp:77] Creating layer relu2
I0428 19:44:40.340656 25649 net.cpp:86] Creating Layer relu2
I0428 19:44:40.340659 25649 net.cpp:408] relu2 <- ip2
I0428 19:44:40.340663 25649 net.cpp:369] relu2 -> ip2 (in-place)
I0428 19:44:40.340900 25649 net.cpp:124] Setting up relu2
I0428 19:44:40.340912 25649 net.cpp:131] Top shape: 100 25 (2500)
I0428 19:44:40.340915 25649 net.cpp:139] Memory required for data: 2530800
I0428 19:44:40.340919 25649 layer_factory.hpp:77] Creating layer ip3
I0428 19:44:40.340925 25649 net.cpp:86] Creating Layer ip3
I0428 19:44:40.340929 25649 net.cpp:408] ip3 <- ip2
I0428 19:44:40.340934 25649 net.cpp:382] ip3 -> ip3
I0428 19:44:40.341089 25649 net.cpp:124] Setting up ip3
I0428 19:44:40.341097 25649 net.cpp:131] Top shape: 100 10 (1000)
I0428 19:44:40.341100 25649 net.cpp:139] Memory required for data: 2534800
I0428 19:44:40.341110 25649 layer_factory.hpp:77] Creating layer relu3
I0428 19:44:40.341116 25649 net.cpp:86] Creating Layer relu3
I0428 19:44:40.341130 25649 net.cpp:408] relu3 <- ip3
I0428 19:44:40.341136 25649 net.cpp:369] relu3 -> ip3 (in-place)
I0428 19:44:40.341966 25649 net.cpp:124] Setting up relu3
I0428 19:44:40.341979 25649 net.cpp:131] Top shape: 100 10 (1000)
I0428 19:44:40.341982 25649 net.cpp:139] Memory required for data: 2538800
I0428 19:44:40.341985 25649 layer_factory.hpp:77] Creating layer ip3_relu3_0_split
I0428 19:44:40.341991 25649 net.cpp:86] Creating Layer ip3_relu3_0_split
I0428 19:44:40.341995 25649 net.cpp:408] ip3_relu3_0_split <- ip3
I0428 19:44:40.342001 25649 net.cpp:382] ip3_relu3_0_split -> ip3_relu3_0_split_0
I0428 19:44:40.342008 25649 net.cpp:382] ip3_relu3_0_split -> ip3_relu3_0_split_1
I0428 19:44:40.342074 25649 net.cpp:124] Setting up ip3_relu3_0_split
I0428 19:44:40.342082 25649 net.cpp:131] Top shape: 100 10 (1000)
I0428 19:44:40.342087 25649 net.cpp:131] Top shape: 100 10 (1000)
I0428 19:44:40.342089 25649 net.cpp:139] Memory required for data: 2546800
I0428 19:44:40.342092 25649 layer_factory.hpp:77] Creating layer accuracy
I0428 19:44:40.342099 25649 net.cpp:86] Creating Layer accuracy
I0428 19:44:40.342103 25649 net.cpp:408] accuracy <- ip3_relu3_0_split_0
I0428 19:44:40.342108 25649 net.cpp:408] accuracy <- label_mnist_1_split_0
I0428 19:44:40.342113 25649 net.cpp:382] accuracy -> accuracy
…
