…
I0428 20:10:47.168772 31917 net.cpp:296] The NetState phase (0) differed from the phase (1) specified by a rule in layer mnist
I0428 20:10:47.168789 31917 net.cpp:296] The NetState phase (0) differed from the phase (1) specified by a rule in layer accuracy
I0428 20:10:47.168892 31917 net.cpp:53] Initializing net from parameters: 
name: "LeNet"
state {
  phase: TRAIN
  level: 0
  stage: ""
}
layer {
  name: "mnist"
  type: "Data"
  top: "data"
  top: "label"
  include {
    phase: TRAIN
  }
  transform_param {
    scale: 0.00390625
  }
  data_param {
    source: "examples/mnist/mnist_train_lmdb"
    batch_size: 64
    backend: LMDB
  }
}
layer {
  name: "conv0"
  type: "Convolution"
  bottom: "data"
  top: "conv0"
  param {
    lr_mult: 1
  }
  param {
    lr_mult: 2
  }
  convolution_param {
    num_output: 25
    kernel_size: 5
    stride: 1
    weight_filler {
      type: "xavier"
    }
    bias_filler {
      type: "constant"
    }
  }
}
layer {
  name: "pool0"
  type: "Pooling"
  bottom: "conv0"
  top: "pool0"
  pooling_param {
    pool: MAX
    kernel_size: 2
    stride: 2
  }
}
layer {
  name: "conv1"
  type: "Convolution"
  bottom: "pool0"
  top: "conv1"
  param {
    lr_mult: 1
  }
  param {
    lr_mult: 2
  }
  convolution_param {
    num_output: 50
    kernel_size: 5
    stride: 1
    weight_filler {
      type: "xavier"
    }
    bias_filler {
      type: "constant"
    }
  }
}
layer {
  name: "pool1"
  type: "Pooling"
  bottom: "conv1"
  top: "pool1"
  pooling_param {
    pool: MAX
    kernel_size: 2
    stride: 2
  }
}
layer {
  name: "ip1"
  type: "InnerProduct"
  bottom: "pool1"
  top: "ip1"
  param {
    lr_mult: 1
  }
  param {
    lr_mult: 2
  }
  inner_product_param {
    num_output: 10
    weight_filler {
      type: "xavier"
    }
    bias_filler {
      type: "constant"
    }
  }
}
layer {
  name: "relu1"
  type: "ReLU"
  bottom: "ip1"
  top: "ip1"
}
layer {
  name: "ip2"
  type: "InnerProduct"
  bottom: "ip1"
  top: "ip2"
  param {
    lr_mult: 1
  }
  param {
    lr_mult: 2
  }
  inner_product_param {
    num_output: 10
    weight_filler {
      type: "xavier"
    }
    bias_filler {
      type: "constant"
    }
  }
}
layer {
  name: "relu2"
  type: "ReLU"
  bottom: "ip2"
  top: "ip2"
}
layer {
  name: "ip3"
  type: "InnerProduct"
  bottom: "ip2"
  top: "ip3"
  param {
    lr_mult: 1
  }
  param {
    lr_mult: 2
  }
  inner_product_param {
    num_output: 10
    weight_filler {
      type: "xavier"
    }
    bias_filler {
      type: "constant"
    }
  }
}
layer {
  name: "relu3"
  type: "ReLU"
  bottom: "ip3"
  top: "ip3"
}
layer {
  name: "loss"
  type: "SoftmaxWithLoss"
  bottom: "ip3"
  bottom: "label"
  top: "loss"
}
I0428 20:10:47.168968 31917 layer_factory.hpp:77] Creating layer mnist
I0428 20:10:47.169072 31917 db_lmdb.cpp:35] Opened lmdb examples/mnist/mnist_train_lmdb
I0428 20:10:47.169098 31917 net.cpp:86] Creating Layer mnist
I0428 20:10:47.169107 31917 net.cpp:382] mnist -> data
I0428 20:10:47.169131 31917 net.cpp:382] mnist -> label
I0428 20:10:47.170213 31917 data_layer.cpp:45] output data size: 64,1,28,28
I0428 20:10:47.172672 31917 net.cpp:124] Setting up mnist
I0428 20:10:47.172689 31917 net.cpp:131] Top shape: 64 1 28 28 (50176)
I0428 20:10:47.172695 31917 net.cpp:131] Top shape: 64 (64)
I0428 20:10:47.172699 31917 net.cpp:139] Memory required for data: 200960
I0428 20:10:47.172706 31917 layer_factory.hpp:77] Creating layer conv0
I0428 20:10:47.172722 31917 net.cpp:86] Creating Layer conv0
I0428 20:10:47.172744 31917 net.cpp:408] conv0 <- data
I0428 20:10:47.172758 31917 net.cpp:382] conv0 -> conv0
I0428 20:10:47.463354 31917 net.cpp:124] Setting up conv0
I0428 20:10:47.463384 31917 net.cpp:131] Top shape: 64 25 24 24 (921600)
I0428 20:10:47.463389 31917 net.cpp:139] Memory required for data: 3887360
I0428 20:10:47.463407 31917 layer_factory.hpp:77] Creating layer pool0
I0428 20:10:47.463421 31917 net.cpp:86] Creating Layer pool0
I0428 20:10:47.463426 31917 net.cpp:408] pool0 <- conv0
I0428 20:10:47.463433 31917 net.cpp:382] pool0 -> pool0
I0428 20:10:47.463486 31917 net.cpp:124] Setting up pool0
I0428 20:10:47.463495 31917 net.cpp:131] Top shape: 64 25 12 12 (230400)
I0428 20:10:47.463500 31917 net.cpp:139] Memory required for data: 4808960
I0428 20:10:47.463502 31917 layer_factory.hpp:77] Creating layer conv1
I0428 20:10:47.463516 31917 net.cpp:86] Creating Layer conv1
I0428 20:10:47.463522 31917 net.cpp:408] conv1 <- pool0
I0428 20:10:47.463528 31917 net.cpp:382] conv1 -> conv1
I0428 20:10:47.465942 31917 net.cpp:124] Setting up conv1
I0428 20:10:47.465960 31917 net.cpp:131] Top shape: 64 50 8 8 (204800)
I0428 20:10:47.465965 31917 net.cpp:139] Memory required for data: 5628160
I0428 20:10:47.465976 31917 layer_factory.hpp:77] Creating layer pool1
I0428 20:10:47.465986 31917 net.cpp:86] Creating Layer pool1
I0428 20:10:47.465989 31917 net.cpp:408] pool1 <- conv1
I0428 20:10:47.465997 31917 net.cpp:382] pool1 -> pool1
I0428 20:10:47.466042 31917 net.cpp:124] Setting up pool1
I0428 20:10:47.466051 31917 net.cpp:131] Top shape: 64 50 4 4 (51200)
I0428 20:10:47.466054 31917 net.cpp:139] Memory required for data: 5832960
I0428 20:10:47.466058 31917 layer_factory.hpp:77] Creating layer ip1
I0428 20:10:47.466068 31917 net.cpp:86] Creating Layer ip1
I0428 20:10:47.466073 31917 net.cpp:408] ip1 <- pool1
I0428 20:10:47.466080 31917 net.cpp:382] ip1 -> ip1
I0428 20:10:47.467224 31917 net.cpp:124] Setting up ip1
I0428 20:10:47.467239 31917 net.cpp:131] Top shape: 64 10 (640)
I0428 20:10:47.467243 31917 net.cpp:139] Memory required for data: 5835520
I0428 20:10:47.467253 31917 layer_factory.hpp:77] Creating layer relu1
I0428 20:10:47.467262 31917 net.cpp:86] Creating Layer relu1
I0428 20:10:47.467270 31917 net.cpp:408] relu1 <- ip1
I0428 20:10:47.467277 31917 net.cpp:369] relu1 -> ip1 (in-place)
I0428 20:10:47.467499 31917 net.cpp:124] Setting up relu1
I0428 20:10:47.467509 31917 net.cpp:131] Top shape: 64 10 (640)
I0428 20:10:47.467512 31917 net.cpp:139] Memory required for data: 5838080
I0428 20:10:47.467526 31917 layer_factory.hpp:77] Creating layer ip2
I0428 20:10:47.467536 31917 net.cpp:86] Creating Layer ip2
I0428 20:10:47.467540 31917 net.cpp:408] ip2 <- ip1
I0428 20:10:47.467546 31917 net.cpp:382] ip2 -> ip2
I0428 20:10:47.467665 31917 net.cpp:124] Setting up ip2
I0428 20:10:47.467674 31917 net.cpp:131] Top shape: 64 10 (640)
I0428 20:10:47.467677 31917 net.cpp:139] Memory required for data: 5840640
I0428 20:10:47.467684 31917 layer_factory.hpp:77] Creating layer relu2
I0428 20:10:47.467690 31917 net.cpp:86] Creating Layer relu2
I0428 20:10:47.467696 31917 net.cpp:408] relu2 <- ip2
I0428 20:10:47.467703 31917 net.cpp:369] relu2 -> ip2 (in-place)
I0428 20:10:47.468535 31917 net.cpp:124] Setting up relu2
I0428 20:10:47.468550 31917 net.cpp:131] Top shape: 64 10 (640)
I0428 20:10:47.468554 31917 net.cpp:139] Memory required for data: 5843200
I0428 20:10:47.468559 31917 layer_factory.hpp:77] Creating layer ip3
I0428 20:10:47.468566 31917 net.cpp:86] Creating Layer ip3
I0428 20:10:47.468569 31917 net.cpp:408] ip3 <- ip2
I0428 20:10:47.468576 31917 net.cpp:382] ip3 -> ip3
I0428 20:10:47.468698 31917 net.cpp:124] Setting up ip3
I0428 20:10:47.468706 31917 net.cpp:131] Top shape: 64 10 (640)
I0428 20:10:47.468709 31917 net.cpp:139] Memory required for data: 5845760
I0428 20:10:47.468719 31917 layer_factory.hpp:77] Creating layer relu3
I0428 20:10:47.468727 31917 net.cpp:86] Creating Layer relu3
I0428 20:10:47.468731 31917 net.cpp:408] relu3 <- ip3
I0428 20:10:47.468736 31917 net.cpp:369] relu3 -> ip3 (in-place)
I0428 20:10:47.468946 31917 net.cpp:124] Setting up relu3
I0428 20:10:47.468960 31917 net.cpp:131] Top shape: 64 10 (640)
I0428 20:10:47.468963 31917 net.cpp:139] Memory required for data: 5848320
I0428 20:10:47.468966 31917 layer_factory.hpp:77] Creating layer loss
I0428 20:10:47.468973 31917 net.cpp:86] Creating Layer loss
I0428 20:10:47.468976 31917 net.cpp:408] loss <- ip3
I0428 20:10:47.468982 31917 net.cpp:408] loss <- label
I0428 20:10:47.468988 31917 net.cpp:382] loss -> loss
I0428 20:10:47.469010 31917 layer_factory.hpp:77] Creating layer loss
…
I0428 20:10:47.469750 31917 solver.cpp:173] Creating test net (#0) specified by net file: ECE595/mnist/train_test/var_everything2/lenet_train_test1143.prototxt
I0428 20:10:47.469782 31917 net.cpp:296] The NetState phase (1) differed from the phase (0) specified by a rule in layer mnist
I0428 20:10:47.469889 31917 net.cpp:53] Initializing net from parameters: 
name: "LeNet"
state {
  phase: TEST
}
layer {
  name: "mnist"
  type: "Data"
  top: "data"
  top: "label"
  include {
    phase: TEST
  }
  transform_param {
    scale: 0.00390625
  }
  data_param {
    source: "examples/mnist/mnist_test_lmdb"
    batch_size: 100
    backend: LMDB
  }
}
layer {
  name: "conv0"
  type: "Convolution"
  bottom: "data"
  top: "conv0"
  param {
    lr_mult: 1
  }
  param {
    lr_mult: 2
  }
  convolution_param {
    num_output: 25
    kernel_size: 5
    stride: 1
    weight_filler {
      type: "xavier"
    }
    bias_filler {
      type: "constant"
    }
  }
}
layer {
  name: "pool0"
  type: "Pooling"
  bottom: "conv0"
  top: "pool0"
  pooling_param {
    pool: MAX
    kernel_size: 2
    stride: 2
  }
}
layer {
  name: "conv1"
  type: "Convolution"
  bottom: "pool0"
  top: "conv1"
  param {
    lr_mult: 1
  }
  param {
    lr_mult: 2
  }
  convolution_param {
    num_output: 50
    kernel_size: 5
    stride: 1
    weight_filler {
      type: "xavier"
    }
    bias_filler {
      type: "constant"
    }
  }
}
layer {
  name: "pool1"
  type: "Pooling"
  bottom: "conv1"
  top: "pool1"
  pooling_param {
    pool: MAX
    kernel_size: 2
    stride: 2
  }
}
layer {
  name: "ip1"
  type: "InnerProduct"
  bottom: "pool1"
  top: "ip1"
  param {
    lr_mult: 1
  }
  param {
    lr_mult: 2
  }
  inner_product_param {
    num_output: 10
    weight_filler {
      type: "xavier"
    }
    bias_filler {
      type: "constant"
    }
  }
}
layer {
  name: "relu1"
  type: "ReLU"
  bottom: "ip1"
  top: "ip1"
}
layer {
  name: "ip2"
  type: "InnerProduct"
  bottom: "ip1"
  top: "ip2"
  param {
    lr_mult: 1
  }
  param {
    lr_mult: 2
  }
  inner_product_param {
    num_output: 10
    weight_filler {
      type: "xavier"
    }
    bias_filler {
      type: "constant"
    }
  }
}
layer {
  name: "relu2"
  type: "ReLU"
  bottom: "ip2"
  top: "ip2"
}
layer {
  name: "ip3"
  type: "InnerProduct"
  bottom: "ip2"
  top: "ip3"
  param {
    lr_mult: 1
  }
  param {
    lr_mult: 2
  }
  inner_product_param {
    num_output: 10
    weight_filler {
      type: "xavier"
    }
    bias_filler {
      type: "constant"
    }
  }
}
layer {
  name: "relu3"
  type: "ReLU"
  bottom: "ip3"
  top: "ip3"
}
layer {
  name: "accuracy"
  type: "Accuracy"
  bottom: "ip3"
  bottom: "label"
  top: "accuracy"
  include {
    phase: TEST
  }
}
layer {
  name: "loss"
  type: "SoftmaxWithLoss"
  bottom: "ip3"
  bottom: "label"
  top: "loss"
}
I0428 20:10:47.469985 31917 layer_factory.hpp:77] Creating layer mnist
I0428 20:10:47.470036 31917 db_lmdb.cpp:35] Opened lmdb examples/mnist/mnist_test_lmdb
I0428 20:10:47.470054 31917 net.cpp:86] Creating Layer mnist
I0428 20:10:47.470062 31917 net.cpp:382] mnist -> data
I0428 20:10:47.470073 31917 net.cpp:382] mnist -> label
I0428 20:10:47.470172 31917 data_layer.cpp:45] output data size: 100,1,28,28
I0428 20:10:47.472298 31917 net.cpp:124] Setting up mnist
I0428 20:10:47.472313 31917 net.cpp:131] Top shape: 100 1 28 28 (78400)
I0428 20:10:47.472319 31917 net.cpp:131] Top shape: 100 (100)
I0428 20:10:47.472322 31917 net.cpp:139] Memory required for data: 314000
I0428 20:10:47.472326 31917 layer_factory.hpp:77] Creating layer label_mnist_1_split
I0428 20:10:47.472334 31917 net.cpp:86] Creating Layer label_mnist_1_split
I0428 20:10:47.472338 31917 net.cpp:408] label_mnist_1_split <- label
I0428 20:10:47.472345 31917 net.cpp:382] label_mnist_1_split -> label_mnist_1_split_0
I0428 20:10:47.472353 31917 net.cpp:382] label_mnist_1_split -> label_mnist_1_split_1
I0428 20:10:47.472448 31917 net.cpp:124] Setting up label_mnist_1_split
I0428 20:10:47.472458 31917 net.cpp:131] Top shape: 100 (100)
I0428 20:10:47.472463 31917 net.cpp:131] Top shape: 100 (100)
I0428 20:10:47.472466 31917 net.cpp:139] Memory required for data: 314800
I0428 20:10:47.472470 31917 layer_factory.hpp:77] Creating layer conv0
I0428 20:10:47.472481 31917 net.cpp:86] Creating Layer conv0
I0428 20:10:47.472487 31917 net.cpp:408] conv0 <- data
I0428 20:10:47.472493 31917 net.cpp:382] conv0 -> conv0
I0428 20:10:47.474341 31917 net.cpp:124] Setting up conv0
I0428 20:10:47.474359 31917 net.cpp:131] Top shape: 100 25 24 24 (1440000)
I0428 20:10:47.474362 31917 net.cpp:139] Memory required for data: 6074800
I0428 20:10:47.474372 31917 layer_factory.hpp:77] Creating layer pool0
I0428 20:10:47.474380 31917 net.cpp:86] Creating Layer pool0
I0428 20:10:47.474385 31917 net.cpp:408] pool0 <- conv0
I0428 20:10:47.474391 31917 net.cpp:382] pool0 -> pool0
I0428 20:10:47.474434 31917 net.cpp:124] Setting up pool0
I0428 20:10:47.474442 31917 net.cpp:131] Top shape: 100 25 12 12 (360000)
I0428 20:10:47.474447 31917 net.cpp:139] Memory required for data: 7514800
I0428 20:10:47.474450 31917 layer_factory.hpp:77] Creating layer conv1
I0428 20:10:47.474462 31917 net.cpp:86] Creating Layer conv1
I0428 20:10:47.474468 31917 net.cpp:408] conv1 <- pool0
I0428 20:10:47.474475 31917 net.cpp:382] conv1 -> conv1
I0428 20:10:47.476428 31917 net.cpp:124] Setting up conv1
I0428 20:10:47.476442 31917 net.cpp:131] Top shape: 100 50 8 8 (320000)
I0428 20:10:47.476446 31917 net.cpp:139] Memory required for data: 8794800
I0428 20:10:47.476459 31917 layer_factory.hpp:77] Creating layer pool1
I0428 20:10:47.476467 31917 net.cpp:86] Creating Layer pool1
I0428 20:10:47.476471 31917 net.cpp:408] pool1 <- conv1
I0428 20:10:47.476477 31917 net.cpp:382] pool1 -> pool1
I0428 20:10:47.476522 31917 net.cpp:124] Setting up pool1
I0428 20:10:47.476529 31917 net.cpp:131] Top shape: 100 50 4 4 (80000)
I0428 20:10:47.476533 31917 net.cpp:139] Memory required for data: 9114800
I0428 20:10:47.476537 31917 layer_factory.hpp:77] Creating layer ip1
I0428 20:10:47.476544 31917 net.cpp:86] Creating Layer ip1
I0428 20:10:47.476547 31917 net.cpp:408] ip1 <- pool1
I0428 20:10:47.476554 31917 net.cpp:382] ip1 -> ip1
I0428 20:10:47.476721 31917 net.cpp:124] Setting up ip1
I0428 20:10:47.476729 31917 net.cpp:131] Top shape: 100 10 (1000)
I0428 20:10:47.476744 31917 net.cpp:139] Memory required for data: 9118800
I0428 20:10:47.476753 31917 layer_factory.hpp:77] Creating layer relu1
I0428 20:10:47.476763 31917 net.cpp:86] Creating Layer relu1
I0428 20:10:47.476768 31917 net.cpp:408] relu1 <- ip1
I0428 20:10:47.476774 31917 net.cpp:369] relu1 -> ip1 (in-place)
I0428 20:10:47.476991 31917 net.cpp:124] Setting up relu1
I0428 20:10:47.477002 31917 net.cpp:131] Top shape: 100 10 (1000)
I0428 20:10:47.477005 31917 net.cpp:139] Memory required for data: 9122800
I0428 20:10:47.477010 31917 layer_factory.hpp:77] Creating layer ip2
I0428 20:10:47.477018 31917 net.cpp:86] Creating Layer ip2
I0428 20:10:47.477026 31917 net.cpp:408] ip2 <- ip1
I0428 20:10:47.477032 31917 net.cpp:382] ip2 -> ip2
I0428 20:10:47.477151 31917 net.cpp:124] Setting up ip2
I0428 20:10:47.477159 31917 net.cpp:131] Top shape: 100 10 (1000)
I0428 20:10:47.477164 31917 net.cpp:139] Memory required for data: 9126800
I0428 20:10:47.477169 31917 layer_factory.hpp:77] Creating layer relu2
I0428 20:10:47.477174 31917 net.cpp:86] Creating Layer relu2
I0428 20:10:47.477177 31917 net.cpp:408] relu2 <- ip2
I0428 20:10:47.477183 31917 net.cpp:369] relu2 -> ip2 (in-place)
I0428 20:10:47.477458 31917 net.cpp:124] Setting up relu2
I0428 20:10:47.477466 31917 net.cpp:131] Top shape: 100 10 (1000)
I0428 20:10:47.477471 31917 net.cpp:139] Memory required for data: 9130800
I0428 20:10:47.477474 31917 layer_factory.hpp:77] Creating layer ip3
I0428 20:10:47.477483 31917 net.cpp:86] Creating Layer ip3
I0428 20:10:47.477485 31917 net.cpp:408] ip3 <- ip2
I0428 20:10:47.477493 31917 net.cpp:382] ip3 -> ip3
I0428 20:10:47.477607 31917 net.cpp:124] Setting up ip3
I0428 20:10:47.477615 31917 net.cpp:131] Top shape: 100 10 (1000)
I0428 20:10:47.477622 31917 net.cpp:139] Memory required for data: 9134800
I0428 20:10:47.477630 31917 layer_factory.hpp:77] Creating layer relu3
I0428 20:10:47.477635 31917 net.cpp:86] Creating Layer relu3
I0428 20:10:47.477638 31917 net.cpp:408] relu3 <- ip3
I0428 20:10:47.477643 31917 net.cpp:369] relu3 -> ip3 (in-place)
I0428 20:10:47.478512 31917 net.cpp:124] Setting up relu3
I0428 20:10:47.478524 31917 net.cpp:131] Top shape: 100 10 (1000)
I0428 20:10:47.478528 31917 net.cpp:139] Memory required for data: 9138800
I0428 20:10:47.478533 31917 layer_factory.hpp:77] Creating layer ip3_relu3_0_split
I0428 20:10:47.478539 31917 net.cpp:86] Creating Layer ip3_relu3_0_split
I0428 20:10:47.478543 31917 net.cpp:408] ip3_relu3_0_split <- ip3
I0428 20:10:47.478549 31917 net.cpp:382] ip3_relu3_0_split -> ip3_relu3_0_split_0
I0428 20:10:47.478559 31917 net.cpp:382] ip3_relu3_0_split -> ip3_relu3_0_split_1
I0428 20:10:47.478606 31917 net.cpp:124] Setting up ip3_relu3_0_split
I0428 20:10:47.478615 31917 net.cpp:131] Top shape: 100 10 (1000)
I0428 20:10:47.478618 31917 net.cpp:131] Top shape: 100 10 (1000)
I0428 20:10:47.478622 31917 net.cpp:139] Memory required for data: 9146800
I0428 20:10:47.478626 31917 layer_factory.hpp:77] Creating layer accuracy
I0428 20:10:47.478632 31917 net.cpp:86] Creating Layer accuracy
I0428 20:10:47.478638 31917 net.cpp:408] accuracy <- ip3_relu3_0_split_0
I0428 20:10:47.478643 31917 net.cpp:408] accuracy <- label_mnist_1_split_0
I0428 20:10:47.478648 31917 net.cpp:382] accuracy -> accuracy
…
