…
I0428 20:15:55.213459   545 net.cpp:296] The NetState phase (0) differed from the phase (1) specified by a rule in layer mnist
I0428 20:15:55.213474   545 net.cpp:296] The NetState phase (0) differed from the phase (1) specified by a rule in layer accuracy
I0428 20:15:55.213546   545 net.cpp:53] Initializing net from parameters: 
name: "LeNet"
state {
  phase: TRAIN
  level: 0
  stage: ""
}
layer {
  name: "mnist"
  type: "Data"
  top: "data"
  top: "label"
  include {
    phase: TRAIN
  }
  transform_param {
    scale: 0.00390625
  }
  data_param {
    source: "examples/mnist/mnist_train_lmdb"
    batch_size: 64
    backend: LMDB
  }
}
layer {
  name: "conv0"
  type: "Convolution"
  bottom: "data"
  top: "conv0"
  param {
    lr_mult: 1
  }
  param {
    lr_mult: 2
  }
  convolution_param {
    num_output: 50
    kernel_size: 5
    stride: 1
    weight_filler {
      type: "xavier"
    }
    bias_filler {
      type: "constant"
    }
  }
}
layer {
  name: "pool0"
  type: "Pooling"
  bottom: "conv0"
  top: "pool0"
  pooling_param {
    pool: MAX
    kernel_size: 2
    stride: 2
  }
}
layer {
  name: "conv1"
  type: "Convolution"
  bottom: "pool0"
  top: "conv1"
  param {
    lr_mult: 1
  }
  param {
    lr_mult: 2
  }
  convolution_param {
    num_output: 5
    kernel_size: 5
    stride: 1
    weight_filler {
      type: "xavier"
    }
    bias_filler {
      type: "constant"
    }
  }
}
layer {
  name: "pool1"
  type: "Pooling"
  bottom: "conv1"
  top: "pool1"
  pooling_param {
    pool: MAX
    kernel_size: 2
    stride: 2
  }
}
layer {
  name: "ip1"
  type: "InnerProduct"
  bottom: "pool1"
  top: "ip1"
  param {
    lr_mult: 1
  }
  param {
    lr_mult: 2
  }
  inner_product_param {
    num_output: 50
    weight_filler {
      type: "xavier"
    }
    bias_filler {
      type: "constant"
    }
  }
}
layer {
  name: "relu1"
  type: "ReLU"
  bottom: "ip1"
  top: "ip1"
}
layer {
  name: "ip2"
  type: "InnerProduct"
  bottom: "ip1"
  top: "ip2"
  param {
    lr_mult: 1
  }
  param {
    lr_mult: 2
  }
  inner_product_param {
    num_output: 10
    weight_filler {
      type: "xavier"
    }
    bias_filler {
      type: "constant"
    }
  }
}
layer {
  name: "relu2"
  type: "ReLU"
  bottom: "ip2"
  top: "ip2"
}
layer {
  name: "loss"
  type: "SoftmaxWithLoss"
  bottom: "ip2"
  bottom: "label"
  top: "loss"
}
I0428 20:15:55.213603   545 layer_factory.hpp:77] Creating layer mnist
I0428 20:15:55.213702   545 db_lmdb.cpp:35] Opened lmdb examples/mnist/mnist_train_lmdb
I0428 20:15:55.213721   545 net.cpp:86] Creating Layer mnist
I0428 20:15:55.213728   545 net.cpp:382] mnist -> data
I0428 20:15:55.213747   545 net.cpp:382] mnist -> label
I0428 20:15:55.214656   545 data_layer.cpp:45] output data size: 64,1,28,28
I0428 20:15:55.216922   545 net.cpp:124] Setting up mnist
I0428 20:15:55.216969   545 net.cpp:131] Top shape: 64 1 28 28 (50176)
I0428 20:15:55.216984   545 net.cpp:131] Top shape: 64 (64)
I0428 20:15:55.216989   545 net.cpp:139] Memory required for data: 200960
I0428 20:15:55.216995   545 layer_factory.hpp:77] Creating layer conv0
I0428 20:15:55.217007   545 net.cpp:86] Creating Layer conv0
I0428 20:15:55.217011   545 net.cpp:408] conv0 <- data
I0428 20:15:55.217023   545 net.cpp:382] conv0 -> conv0
I0428 20:15:55.444555   545 net.cpp:124] Setting up conv0
I0428 20:15:55.444582   545 net.cpp:131] Top shape: 64 50 24 24 (1843200)
I0428 20:15:55.444586   545 net.cpp:139] Memory required for data: 7573760
I0428 20:15:55.444617   545 layer_factory.hpp:77] Creating layer pool0
I0428 20:15:55.444630   545 net.cpp:86] Creating Layer pool0
I0428 20:15:55.444633   545 net.cpp:408] pool0 <- conv0
I0428 20:15:55.444654   545 net.cpp:382] pool0 -> pool0
I0428 20:15:55.444702   545 net.cpp:124] Setting up pool0
I0428 20:15:55.444707   545 net.cpp:131] Top shape: 64 50 12 12 (460800)
I0428 20:15:55.444710   545 net.cpp:139] Memory required for data: 9416960
I0428 20:15:55.444713   545 layer_factory.hpp:77] Creating layer conv1
I0428 20:15:55.444723   545 net.cpp:86] Creating Layer conv1
I0428 20:15:55.444726   545 net.cpp:408] conv1 <- pool0
I0428 20:15:55.444732   545 net.cpp:382] conv1 -> conv1
I0428 20:15:55.447767   545 net.cpp:124] Setting up conv1
I0428 20:15:55.447794   545 net.cpp:131] Top shape: 64 5 8 8 (20480)
I0428 20:15:55.447798   545 net.cpp:139] Memory required for data: 9498880
I0428 20:15:55.447808   545 layer_factory.hpp:77] Creating layer pool1
I0428 20:15:55.447815   545 net.cpp:86] Creating Layer pool1
I0428 20:15:55.447818   545 net.cpp:408] pool1 <- conv1
I0428 20:15:55.447824   545 net.cpp:382] pool1 -> pool1
I0428 20:15:55.447890   545 net.cpp:124] Setting up pool1
I0428 20:15:55.447896   545 net.cpp:131] Top shape: 64 5 4 4 (5120)
I0428 20:15:55.447898   545 net.cpp:139] Memory required for data: 9519360
I0428 20:15:55.447901   545 layer_factory.hpp:77] Creating layer ip1
I0428 20:15:55.447908   545 net.cpp:86] Creating Layer ip1
I0428 20:15:55.447911   545 net.cpp:408] ip1 <- pool1
I0428 20:15:55.447916   545 net.cpp:382] ip1 -> ip1
I0428 20:15:55.448043   545 net.cpp:124] Setting up ip1
I0428 20:15:55.448051   545 net.cpp:131] Top shape: 64 50 (3200)
I0428 20:15:55.448055   545 net.cpp:139] Memory required for data: 9532160
I0428 20:15:55.448060   545 layer_factory.hpp:77] Creating layer relu1
I0428 20:15:55.448067   545 net.cpp:86] Creating Layer relu1
I0428 20:15:55.448071   545 net.cpp:408] relu1 <- ip1
I0428 20:15:55.448074   545 net.cpp:369] relu1 -> ip1 (in-place)
I0428 20:15:55.448271   545 net.cpp:124] Setting up relu1
I0428 20:15:55.448281   545 net.cpp:131] Top shape: 64 50 (3200)
I0428 20:15:55.448283   545 net.cpp:139] Memory required for data: 9544960
I0428 20:15:55.448287   545 layer_factory.hpp:77] Creating layer ip2
I0428 20:15:55.448292   545 net.cpp:86] Creating Layer ip2
I0428 20:15:55.448295   545 net.cpp:408] ip2 <- ip1
I0428 20:15:55.448302   545 net.cpp:382] ip2 -> ip2
I0428 20:15:55.448400   545 net.cpp:124] Setting up ip2
I0428 20:15:55.448407   545 net.cpp:131] Top shape: 64 10 (640)
I0428 20:15:55.448410   545 net.cpp:139] Memory required for data: 9547520
I0428 20:15:55.448431   545 layer_factory.hpp:77] Creating layer relu2
I0428 20:15:55.448436   545 net.cpp:86] Creating Layer relu2
I0428 20:15:55.448439   545 net.cpp:408] relu2 <- ip2
I0428 20:15:55.448444   545 net.cpp:369] relu2 -> ip2 (in-place)
I0428 20:15:55.449273   545 net.cpp:124] Setting up relu2
I0428 20:15:55.449301   545 net.cpp:131] Top shape: 64 10 (640)
I0428 20:15:55.449304   545 net.cpp:139] Memory required for data: 9550080
I0428 20:15:55.449307   545 layer_factory.hpp:77] Creating layer loss
I0428 20:15:55.449314   545 net.cpp:86] Creating Layer loss
I0428 20:15:55.449317   545 net.cpp:408] loss <- ip2
I0428 20:15:55.449321   545 net.cpp:408] loss <- label
I0428 20:15:55.449328   545 net.cpp:382] loss -> loss
I0428 20:15:55.449343   545 layer_factory.hpp:77] Creating layer loss
…
I0428 20:15:55.449993   545 solver.cpp:173] Creating test net (#0) specified by net file: ECE595/mnist/train_test/var_everything2/lenet_train_test1258.prototxt
I0428 20:15:55.450017   545 net.cpp:296] The NetState phase (1) differed from the phase (0) specified by a rule in layer mnist
I0428 20:15:55.450098   545 net.cpp:53] Initializing net from parameters: 
name: "LeNet"
state {
  phase: TEST
}
layer {
  name: "mnist"
  type: "Data"
  top: "data"
  top: "label"
  include {
    phase: TEST
  }
  transform_param {
    scale: 0.00390625
  }
  data_param {
    source: "examples/mnist/mnist_test_lmdb"
    batch_size: 100
    backend: LMDB
  }
}
layer {
  name: "conv0"
  type: "Convolution"
  bottom: "data"
  top: "conv0"
  param {
    lr_mult: 1
  }
  param {
    lr_mult: 2
  }
  convolution_param {
    num_output: 50
    kernel_size: 5
    stride: 1
    weight_filler {
      type: "xavier"
    }
    bias_filler {
      type: "constant"
    }
  }
}
layer {
  name: "pool0"
  type: "Pooling"
  bottom: "conv0"
  top: "pool0"
  pooling_param {
    pool: MAX
    kernel_size: 2
    stride: 2
  }
}
layer {
  name: "conv1"
  type: "Convolution"
  bottom: "pool0"
  top: "conv1"
  param {
    lr_mult: 1
  }
  param {
    lr_mult: 2
  }
  convolution_param {
    num_output: 5
    kernel_size: 5
    stride: 1
    weight_filler {
      type: "xavier"
    }
    bias_filler {
      type: "constant"
    }
  }
}
layer {
  name: "pool1"
  type: "Pooling"
  bottom: "conv1"
  top: "pool1"
  pooling_param {
    pool: MAX
    kernel_size: 2
    stride: 2
  }
}
layer {
  name: "ip1"
  type: "InnerProduct"
  bottom: "pool1"
  top: "ip1"
  param {
    lr_mult: 1
  }
  param {
    lr_mult: 2
  }
  inner_product_param {
    num_output: 50
    weight_filler {
      type: "xavier"
    }
    bias_filler {
      type: "constant"
    }
  }
}
layer {
  name: "relu1"
  type: "ReLU"
  bottom: "ip1"
  top: "ip1"
}
layer {
  name: "ip2"
  type: "InnerProduct"
  bottom: "ip1"
  top: "ip2"
  param {
    lr_mult: 1
  }
  param {
    lr_mult: 2
  }
  inner_product_param {
    num_output: 10
    weight_filler {
      type: "xavier"
    }
    bias_filler {
      type: "constant"
    }
  }
}
layer {
  name: "relu2"
  type: "ReLU"
  bottom: "ip2"
  top: "ip2"
}
layer {
  name: "accuracy"
  type: "Accuracy"
  bottom: "ip2"
  bottom: "label"
  top: "accuracy"
  include {
    phase: TEST
  }
}
layer {
  name: "loss"
  type: "SoftmaxWithLoss"
  bottom: "ip2"
  bottom: "label"
  top: "loss"
}
I0428 20:15:55.450176   545 layer_factory.hpp:77] Creating layer mnist
I0428 20:15:55.450230   545 db_lmdb.cpp:35] Opened lmdb examples/mnist/mnist_test_lmdb
I0428 20:15:55.450258   545 net.cpp:86] Creating Layer mnist
I0428 20:15:55.450263   545 net.cpp:382] mnist -> data
I0428 20:15:55.450271   545 net.cpp:382] mnist -> label
I0428 20:15:55.450371   545 data_layer.cpp:45] output data size: 100,1,28,28
I0428 20:15:55.452338   545 net.cpp:124] Setting up mnist
I0428 20:15:55.452368   545 net.cpp:131] Top shape: 100 1 28 28 (78400)
I0428 20:15:55.452389   545 net.cpp:131] Top shape: 100 (100)
I0428 20:15:55.452390   545 net.cpp:139] Memory required for data: 314000
I0428 20:15:55.452394   545 layer_factory.hpp:77] Creating layer label_mnist_1_split
I0428 20:15:55.452417   545 net.cpp:86] Creating Layer label_mnist_1_split
I0428 20:15:55.452421   545 net.cpp:408] label_mnist_1_split <- label
I0428 20:15:55.452426   545 net.cpp:382] label_mnist_1_split -> label_mnist_1_split_0
I0428 20:15:55.452433   545 net.cpp:382] label_mnist_1_split -> label_mnist_1_split_1
I0428 20:15:55.452512   545 net.cpp:124] Setting up label_mnist_1_split
I0428 20:15:55.452530   545 net.cpp:131] Top shape: 100 (100)
I0428 20:15:55.452534   545 net.cpp:131] Top shape: 100 (100)
I0428 20:15:55.452538   545 net.cpp:139] Memory required for data: 314800
I0428 20:15:55.452540   545 layer_factory.hpp:77] Creating layer conv0
I0428 20:15:55.452550   545 net.cpp:86] Creating Layer conv0
I0428 20:15:55.452553   545 net.cpp:408] conv0 <- data
I0428 20:15:55.452560   545 net.cpp:382] conv0 -> conv0
I0428 20:15:55.454244   545 net.cpp:124] Setting up conv0
I0428 20:15:55.454274   545 net.cpp:131] Top shape: 100 50 24 24 (2880000)
I0428 20:15:55.454278   545 net.cpp:139] Memory required for data: 11834800
I0428 20:15:55.454288   545 layer_factory.hpp:77] Creating layer pool0
I0428 20:15:55.454294   545 net.cpp:86] Creating Layer pool0
I0428 20:15:55.454298   545 net.cpp:408] pool0 <- conv0
I0428 20:15:55.454303   545 net.cpp:382] pool0 -> pool0
I0428 20:15:55.454357   545 net.cpp:124] Setting up pool0
I0428 20:15:55.454363   545 net.cpp:131] Top shape: 100 50 12 12 (720000)
I0428 20:15:55.454366   545 net.cpp:139] Memory required for data: 14714800
I0428 20:15:55.454370   545 layer_factory.hpp:77] Creating layer conv1
I0428 20:15:55.454380   545 net.cpp:86] Creating Layer conv1
I0428 20:15:55.454385   545 net.cpp:408] conv1 <- pool0
I0428 20:15:55.454390   545 net.cpp:382] conv1 -> conv1
I0428 20:15:55.455974   545 net.cpp:124] Setting up conv1
I0428 20:15:55.456002   545 net.cpp:131] Top shape: 100 5 8 8 (32000)
I0428 20:15:55.456006   545 net.cpp:139] Memory required for data: 14842800
I0428 20:15:55.456029   545 layer_factory.hpp:77] Creating layer pool1
I0428 20:15:55.456037   545 net.cpp:86] Creating Layer pool1
I0428 20:15:55.456039   545 net.cpp:408] pool1 <- conv1
I0428 20:15:55.456044   545 net.cpp:382] pool1 -> pool1
I0428 20:15:55.456099   545 net.cpp:124] Setting up pool1
I0428 20:15:55.456104   545 net.cpp:131] Top shape: 100 5 4 4 (8000)
I0428 20:15:55.456107   545 net.cpp:139] Memory required for data: 14874800
I0428 20:15:55.456111   545 layer_factory.hpp:77] Creating layer ip1
I0428 20:15:55.456116   545 net.cpp:86] Creating Layer ip1
I0428 20:15:55.456125   545 net.cpp:408] ip1 <- pool1
I0428 20:15:55.456136   545 net.cpp:382] ip1 -> ip1
I0428 20:15:55.456279   545 net.cpp:124] Setting up ip1
I0428 20:15:55.456287   545 net.cpp:131] Top shape: 100 50 (5000)
I0428 20:15:55.456290   545 net.cpp:139] Memory required for data: 14894800
I0428 20:15:55.456298   545 layer_factory.hpp:77] Creating layer relu1
I0428 20:15:55.456305   545 net.cpp:86] Creating Layer relu1
I0428 20:15:55.456308   545 net.cpp:408] relu1 <- ip1
I0428 20:15:55.456312   545 net.cpp:369] relu1 -> ip1 (in-place)
I0428 20:15:55.456485   545 net.cpp:124] Setting up relu1
I0428 20:15:55.456493   545 net.cpp:131] Top shape: 100 50 (5000)
I0428 20:15:55.456496   545 net.cpp:139] Memory required for data: 14914800
I0428 20:15:55.456501   545 layer_factory.hpp:77] Creating layer ip2
I0428 20:15:55.456509   545 net.cpp:86] Creating Layer ip2
I0428 20:15:55.456512   545 net.cpp:408] ip2 <- ip1
I0428 20:15:55.456517   545 net.cpp:382] ip2 -> ip2
I0428 20:15:55.456645   545 net.cpp:124] Setting up ip2
I0428 20:15:55.456651   545 net.cpp:131] Top shape: 100 10 (1000)
I0428 20:15:55.456655   545 net.cpp:139] Memory required for data: 14918800
I0428 20:15:55.456660   545 layer_factory.hpp:77] Creating layer relu2
I0428 20:15:55.456663   545 net.cpp:86] Creating Layer relu2
I0428 20:15:55.456667   545 net.cpp:408] relu2 <- ip2
I0428 20:15:55.456673   545 net.cpp:369] relu2 -> ip2 (in-place)
I0428 20:15:55.456845   545 net.cpp:124] Setting up relu2
I0428 20:15:55.456854   545 net.cpp:131] Top shape: 100 10 (1000)
I0428 20:15:55.456857   545 net.cpp:139] Memory required for data: 14922800
I0428 20:15:55.456861   545 layer_factory.hpp:77] Creating layer ip2_relu2_0_split
I0428 20:15:55.456866   545 net.cpp:86] Creating Layer ip2_relu2_0_split
I0428 20:15:55.456871   545 net.cpp:408] ip2_relu2_0_split <- ip2
I0428 20:15:55.456874   545 net.cpp:382] ip2_relu2_0_split -> ip2_relu2_0_split_0
I0428 20:15:55.456903   545 net.cpp:382] ip2_relu2_0_split -> ip2_relu2_0_split_1
I0428 20:15:55.456944   545 net.cpp:124] Setting up ip2_relu2_0_split
I0428 20:15:55.456950   545 net.cpp:131] Top shape: 100 10 (1000)
I0428 20:15:55.456954   545 net.cpp:131] Top shape: 100 10 (1000)
I0428 20:15:55.456957   545 net.cpp:139] Memory required for data: 14930800
I0428 20:15:55.456960   545 layer_factory.hpp:77] Creating layer accuracy
I0428 20:15:55.456964   545 net.cpp:86] Creating Layer accuracy
I0428 20:15:55.456967   545 net.cpp:408] accuracy <- ip2_relu2_0_split_0
I0428 20:15:55.456971   545 net.cpp:408] accuracy <- label_mnist_1_split_0
I0428 20:15:55.456977   545 net.cpp:382] accuracy -> accuracy
…
