…
I0428 20:21:12.416038  1710 net.cpp:296] The NetState phase (0) differed from the phase (1) specified by a rule in layer mnist
I0428 20:21:12.416054  1710 net.cpp:296] The NetState phase (0) differed from the phase (1) specified by a rule in layer accuracy
I0428 20:21:12.416152  1710 net.cpp:53] Initializing net from parameters: 
name: "LeNet"
state {
  phase: TRAIN
  level: 0
  stage: ""
}
layer {
  name: "mnist"
  type: "Data"
  top: "data"
  top: "label"
  include {
    phase: TRAIN
  }
  transform_param {
    scale: 0.00390625
  }
  data_param {
    source: "examples/mnist/mnist_train_lmdb"
    batch_size: 64
    backend: LMDB
  }
}
layer {
  name: "conv0"
  type: "Convolution"
  bottom: "data"
  top: "conv0"
  param {
    lr_mult: 1
  }
  param {
    lr_mult: 2
  }
  convolution_param {
    num_output: 50
    kernel_size: 5
    stride: 1
    weight_filler {
      type: "xavier"
    }
    bias_filler {
      type: "constant"
    }
  }
}
layer {
  name: "pool0"
  type: "Pooling"
  bottom: "conv0"
  top: "pool0"
  pooling_param {
    pool: MAX
    kernel_size: 2
    stride: 2
  }
}
layer {
  name: "conv1"
  type: "Convolution"
  bottom: "pool0"
  top: "conv1"
  param {
    lr_mult: 1
  }
  param {
    lr_mult: 2
  }
  convolution_param {
    num_output: 50
    kernel_size: 5
    stride: 1
    weight_filler {
      type: "xavier"
    }
    bias_filler {
      type: "constant"
    }
  }
}
layer {
  name: "pool1"
  type: "Pooling"
  bottom: "conv1"
  top: "pool1"
  pooling_param {
    pool: MAX
    kernel_size: 2
    stride: 2
  }
}
layer {
  name: "ip1"
  type: "InnerProduct"
  bottom: "pool1"
  top: "ip1"
  param {
    lr_mult: 1
  }
  param {
    lr_mult: 2
  }
  inner_product_param {
    num_output: 10
    weight_filler {
      type: "xavier"
    }
    bias_filler {
      type: "constant"
    }
  }
}
layer {
  name: "relu1"
  type: "ReLU"
  bottom: "ip1"
  top: "ip1"
}
layer {
  name: "ip2"
  type: "InnerProduct"
  bottom: "ip1"
  top: "ip2"
  param {
    lr_mult: 1
  }
  param {
    lr_mult: 2
  }
  inner_product_param {
    num_output: 10
    weight_filler {
      type: "xavier"
    }
    bias_filler {
      type: "constant"
    }
  }
}
layer {
  name: "relu2"
  type: "ReLU"
  bottom: "ip2"
  top: "ip2"
}
layer {
  name: "ip3"
  type: "InnerProduct"
  bottom: "ip2"
  top: "ip3"
  param {
    lr_mult: 1
  }
  param {
    lr_mult: 2
  }
  inner_product_param {
    num_output: 10
    weight_filler {
      type: "xavier"
    }
    bias_filler {
      type: "constant"
    }
  }
}
layer {
  name: "relu3"
  type: "ReLU"
  bottom: "ip3"
  top: "ip3"
}
layer {
  name: "loss"
  type: "SoftmaxWithLoss"
  bottom: "ip3"
  bottom: "label"
  top: "loss"
}
I0428 20:21:12.416224  1710 layer_factory.hpp:77] Creating layer mnist
I0428 20:21:12.416324  1710 db_lmdb.cpp:35] Opened lmdb examples/mnist/mnist_train_lmdb
I0428 20:21:12.416348  1710 net.cpp:86] Creating Layer mnist
I0428 20:21:12.416357  1710 net.cpp:382] mnist -> data
I0428 20:21:12.416378  1710 net.cpp:382] mnist -> label
I0428 20:21:12.417479  1710 data_layer.cpp:45] output data size: 64,1,28,28
I0428 20:21:12.420131  1710 net.cpp:124] Setting up mnist
I0428 20:21:12.420150  1710 net.cpp:131] Top shape: 64 1 28 28 (50176)
I0428 20:21:12.420156  1710 net.cpp:131] Top shape: 64 (64)
I0428 20:21:12.420161  1710 net.cpp:139] Memory required for data: 200960
I0428 20:21:12.420168  1710 layer_factory.hpp:77] Creating layer conv0
I0428 20:21:12.420184  1710 net.cpp:86] Creating Layer conv0
I0428 20:21:12.420215  1710 net.cpp:408] conv0 <- data
I0428 20:21:12.420228  1710 net.cpp:382] conv0 -> conv0
I0428 20:21:12.711258  1710 net.cpp:124] Setting up conv0
I0428 20:21:12.711287  1710 net.cpp:131] Top shape: 64 50 24 24 (1843200)
I0428 20:21:12.711290  1710 net.cpp:139] Memory required for data: 7573760
I0428 20:21:12.711308  1710 layer_factory.hpp:77] Creating layer pool0
I0428 20:21:12.711320  1710 net.cpp:86] Creating Layer pool0
I0428 20:21:12.711324  1710 net.cpp:408] pool0 <- conv0
I0428 20:21:12.711330  1710 net.cpp:382] pool0 -> pool0
I0428 20:21:12.711380  1710 net.cpp:124] Setting up pool0
I0428 20:21:12.711387  1710 net.cpp:131] Top shape: 64 50 12 12 (460800)
I0428 20:21:12.711391  1710 net.cpp:139] Memory required for data: 9416960
I0428 20:21:12.711395  1710 layer_factory.hpp:77] Creating layer conv1
I0428 20:21:12.711405  1710 net.cpp:86] Creating Layer conv1
I0428 20:21:12.711412  1710 net.cpp:408] conv1 <- pool0
I0428 20:21:12.711417  1710 net.cpp:382] conv1 -> conv1
I0428 20:21:12.713698  1710 net.cpp:124] Setting up conv1
I0428 20:21:12.713713  1710 net.cpp:131] Top shape: 64 50 8 8 (204800)
I0428 20:21:12.713717  1710 net.cpp:139] Memory required for data: 10236160
I0428 20:21:12.713726  1710 layer_factory.hpp:77] Creating layer pool1
I0428 20:21:12.713734  1710 net.cpp:86] Creating Layer pool1
I0428 20:21:12.713737  1710 net.cpp:408] pool1 <- conv1
I0428 20:21:12.713743  1710 net.cpp:382] pool1 -> pool1
I0428 20:21:12.713781  1710 net.cpp:124] Setting up pool1
I0428 20:21:12.713786  1710 net.cpp:131] Top shape: 64 50 4 4 (51200)
I0428 20:21:12.713790  1710 net.cpp:139] Memory required for data: 10440960
I0428 20:21:12.713793  1710 layer_factory.hpp:77] Creating layer ip1
I0428 20:21:12.713800  1710 net.cpp:86] Creating Layer ip1
I0428 20:21:12.713804  1710 net.cpp:408] ip1 <- pool1
I0428 20:21:12.713809  1710 net.cpp:382] ip1 -> ip1
I0428 20:21:12.714813  1710 net.cpp:124] Setting up ip1
I0428 20:21:12.714826  1710 net.cpp:131] Top shape: 64 10 (640)
I0428 20:21:12.714830  1710 net.cpp:139] Memory required for data: 10443520
I0428 20:21:12.714839  1710 layer_factory.hpp:77] Creating layer relu1
I0428 20:21:12.714845  1710 net.cpp:86] Creating Layer relu1
I0428 20:21:12.714849  1710 net.cpp:408] relu1 <- ip1
I0428 20:21:12.714854  1710 net.cpp:369] relu1 -> ip1 (in-place)
I0428 20:21:12.715034  1710 net.cpp:124] Setting up relu1
I0428 20:21:12.715044  1710 net.cpp:131] Top shape: 64 10 (640)
I0428 20:21:12.715060  1710 net.cpp:139] Memory required for data: 10446080
I0428 20:21:12.715065  1710 layer_factory.hpp:77] Creating layer ip2
I0428 20:21:12.715070  1710 net.cpp:86] Creating Layer ip2
I0428 20:21:12.715075  1710 net.cpp:408] ip2 <- ip1
I0428 20:21:12.715080  1710 net.cpp:382] ip2 -> ip2
I0428 20:21:12.715178  1710 net.cpp:124] Setting up ip2
I0428 20:21:12.715185  1710 net.cpp:131] Top shape: 64 10 (640)
I0428 20:21:12.715188  1710 net.cpp:139] Memory required for data: 10448640
I0428 20:21:12.715194  1710 layer_factory.hpp:77] Creating layer relu2
I0428 20:21:12.715200  1710 net.cpp:86] Creating Layer relu2
I0428 20:21:12.715204  1710 net.cpp:408] relu2 <- ip2
I0428 20:21:12.715209  1710 net.cpp:369] relu2 -> ip2 (in-place)
I0428 20:21:12.715958  1710 net.cpp:124] Setting up relu2
I0428 20:21:12.715971  1710 net.cpp:131] Top shape: 64 10 (640)
I0428 20:21:12.715975  1710 net.cpp:139] Memory required for data: 10451200
I0428 20:21:12.715979  1710 layer_factory.hpp:77] Creating layer ip3
I0428 20:21:12.715986  1710 net.cpp:86] Creating Layer ip3
I0428 20:21:12.715989  1710 net.cpp:408] ip3 <- ip2
I0428 20:21:12.715996  1710 net.cpp:382] ip3 -> ip3
I0428 20:21:12.716095  1710 net.cpp:124] Setting up ip3
I0428 20:21:12.716104  1710 net.cpp:131] Top shape: 64 10 (640)
I0428 20:21:12.716106  1710 net.cpp:139] Memory required for data: 10453760
I0428 20:21:12.716114  1710 layer_factory.hpp:77] Creating layer relu3
I0428 20:21:12.716120  1710 net.cpp:86] Creating Layer relu3
I0428 20:21:12.716123  1710 net.cpp:408] relu3 <- ip3
I0428 20:21:12.716127  1710 net.cpp:369] relu3 -> ip3 (in-place)
I0428 20:21:12.716308  1710 net.cpp:124] Setting up relu3
I0428 20:21:12.716317  1710 net.cpp:131] Top shape: 64 10 (640)
I0428 20:21:12.716321  1710 net.cpp:139] Memory required for data: 10456320
I0428 20:21:12.716325  1710 layer_factory.hpp:77] Creating layer loss
I0428 20:21:12.716331  1710 net.cpp:86] Creating Layer loss
I0428 20:21:12.716334  1710 net.cpp:408] loss <- ip3
I0428 20:21:12.716338  1710 net.cpp:408] loss <- label
I0428 20:21:12.716344  1710 net.cpp:382] loss -> loss
I0428 20:21:12.716359  1710 layer_factory.hpp:77] Creating layer loss
…
I0428 20:21:12.717017  1710 solver.cpp:173] Creating test net (#0) specified by net file: ECE595/mnist/train_test/var_everything2/lenet_train_test1379.prototxt
I0428 20:21:12.717046  1710 net.cpp:296] The NetState phase (1) differed from the phase (0) specified by a rule in layer mnist
I0428 20:21:12.717141  1710 net.cpp:53] Initializing net from parameters: 
name: "LeNet"
state {
  phase: TEST
}
layer {
  name: "mnist"
  type: "Data"
  top: "data"
  top: "label"
  include {
    phase: TEST
  }
  transform_param {
    scale: 0.00390625
  }
  data_param {
    source: "examples/mnist/mnist_test_lmdb"
    batch_size: 100
    backend: LMDB
  }
}
layer {
  name: "conv0"
  type: "Convolution"
  bottom: "data"
  top: "conv0"
  param {
    lr_mult: 1
  }
  param {
    lr_mult: 2
  }
  convolution_param {
    num_output: 50
    kernel_size: 5
    stride: 1
    weight_filler {
      type: "xavier"
    }
    bias_filler {
      type: "constant"
    }
  }
}
layer {
  name: "pool0"
  type: "Pooling"
  bottom: "conv0"
  top: "pool0"
  pooling_param {
    pool: MAX
    kernel_size: 2
    stride: 2
  }
}
layer {
  name: "conv1"
  type: "Convolution"
  bottom: "pool0"
  top: "conv1"
  param {
    lr_mult: 1
  }
  param {
    lr_mult: 2
  }
  convolution_param {
    num_output: 50
    kernel_size: 5
    stride: 1
    weight_filler {
      type: "xavier"
    }
    bias_filler {
      type: "constant"
    }
  }
}
layer {
  name: "pool1"
  type: "Pooling"
  bottom: "conv1"
  top: "pool1"
  pooling_param {
    pool: MAX
    kernel_size: 2
    stride: 2
  }
}
layer {
  name: "ip1"
  type: "InnerProduct"
  bottom: "pool1"
  top: "ip1"
  param {
    lr_mult: 1
  }
  param {
    lr_mult: 2
  }
  inner_product_param {
    num_output: 10
    weight_filler {
      type: "xavier"
    }
    bias_filler {
      type: "constant"
    }
  }
}
layer {
  name: "relu1"
  type: "ReLU"
  bottom: "ip1"
  top: "ip1"
}
layer {
  name: "ip2"
  type: "InnerProduct"
  bottom: "ip1"
  top: "ip2"
  param {
    lr_mult: 1
  }
  param {
    lr_mult: 2
  }
  inner_product_param {
    num_output: 10
    weight_filler {
      type: "xavier"
    }
    bias_filler {
      type: "constant"
    }
  }
}
layer {
  name: "relu2"
  type: "ReLU"
  bottom: "ip2"
  top: "ip2"
}
layer {
  name: "ip3"
  type: "InnerProduct"
  bottom: "ip2"
  top: "ip3"
  param {
    lr_mult: 1
  }
  param {
    lr_mult: 2
  }
  inner_product_param {
    num_output: 10
    weight_filler {
      type: "xavier"
    }
    bias_filler {
      type: "constant"
    }
  }
}
layer {
  name: "relu3"
  type: "ReLU"
  bottom: "ip3"
  top: "ip3"
}
layer {
  name: "accuracy"
  type: "Accuracy"
  bottom: "ip3"
  bottom: "label"
  top: "accuracy"
  include {
    phase: TEST
  }
}
layer {
  name: "loss"
  type: "SoftmaxWithLoss"
  bottom: "ip3"
  bottom: "label"
  top: "loss"
}
I0428 20:21:12.717231  1710 layer_factory.hpp:77] Creating layer mnist
I0428 20:21:12.717278  1710 db_lmdb.cpp:35] Opened lmdb examples/mnist/mnist_test_lmdb
I0428 20:21:12.717289  1710 net.cpp:86] Creating Layer mnist
I0428 20:21:12.717294  1710 net.cpp:382] mnist -> data
I0428 20:21:12.717303  1710 net.cpp:382] mnist -> label
I0428 20:21:12.717387  1710 data_layer.cpp:45] output data size: 100,1,28,28
I0428 20:21:12.719288  1710 net.cpp:124] Setting up mnist
I0428 20:21:12.719319  1710 net.cpp:131] Top shape: 100 1 28 28 (78400)
I0428 20:21:12.719324  1710 net.cpp:131] Top shape: 100 (100)
I0428 20:21:12.719328  1710 net.cpp:139] Memory required for data: 314000
I0428 20:21:12.719331  1710 layer_factory.hpp:77] Creating layer label_mnist_1_split
I0428 20:21:12.719338  1710 net.cpp:86] Creating Layer label_mnist_1_split
I0428 20:21:12.719342  1710 net.cpp:408] label_mnist_1_split <- label
I0428 20:21:12.719347  1710 net.cpp:382] label_mnist_1_split -> label_mnist_1_split_0
I0428 20:21:12.719353  1710 net.cpp:382] label_mnist_1_split -> label_mnist_1_split_1
I0428 20:21:12.719482  1710 net.cpp:124] Setting up label_mnist_1_split
I0428 20:21:12.719491  1710 net.cpp:131] Top shape: 100 (100)
I0428 20:21:12.719494  1710 net.cpp:131] Top shape: 100 (100)
I0428 20:21:12.719497  1710 net.cpp:139] Memory required for data: 314800
I0428 20:21:12.719501  1710 layer_factory.hpp:77] Creating layer conv0
I0428 20:21:12.719508  1710 net.cpp:86] Creating Layer conv0
I0428 20:21:12.719512  1710 net.cpp:408] conv0 <- data
I0428 20:21:12.719517  1710 net.cpp:382] conv0 -> conv0
I0428 20:21:12.721083  1710 net.cpp:124] Setting up conv0
I0428 20:21:12.721098  1710 net.cpp:131] Top shape: 100 50 24 24 (2880000)
I0428 20:21:12.721102  1710 net.cpp:139] Memory required for data: 11834800
I0428 20:21:12.721112  1710 layer_factory.hpp:77] Creating layer pool0
I0428 20:21:12.721119  1710 net.cpp:86] Creating Layer pool0
I0428 20:21:12.721123  1710 net.cpp:408] pool0 <- conv0
I0428 20:21:12.721128  1710 net.cpp:382] pool0 -> pool0
I0428 20:21:12.721165  1710 net.cpp:124] Setting up pool0
I0428 20:21:12.721173  1710 net.cpp:131] Top shape: 100 50 12 12 (720000)
I0428 20:21:12.721175  1710 net.cpp:139] Memory required for data: 14714800
I0428 20:21:12.721179  1710 layer_factory.hpp:77] Creating layer conv1
I0428 20:21:12.721187  1710 net.cpp:86] Creating Layer conv1
I0428 20:21:12.721204  1710 net.cpp:408] conv1 <- pool0
I0428 20:21:12.721210  1710 net.cpp:382] conv1 -> conv1
I0428 20:21:12.723006  1710 net.cpp:124] Setting up conv1
I0428 20:21:12.723019  1710 net.cpp:131] Top shape: 100 50 8 8 (320000)
I0428 20:21:12.723024  1710 net.cpp:139] Memory required for data: 15994800
I0428 20:21:12.723033  1710 layer_factory.hpp:77] Creating layer pool1
I0428 20:21:12.723039  1710 net.cpp:86] Creating Layer pool1
I0428 20:21:12.723043  1710 net.cpp:408] pool1 <- conv1
I0428 20:21:12.723048  1710 net.cpp:382] pool1 -> pool1
I0428 20:21:12.723084  1710 net.cpp:124] Setting up pool1
I0428 20:21:12.723093  1710 net.cpp:131] Top shape: 100 50 4 4 (80000)
I0428 20:21:12.723096  1710 net.cpp:139] Memory required for data: 16314800
I0428 20:21:12.723099  1710 layer_factory.hpp:77] Creating layer ip1
I0428 20:21:12.723105  1710 net.cpp:86] Creating Layer ip1
I0428 20:21:12.723116  1710 net.cpp:408] ip1 <- pool1
I0428 20:21:12.723121  1710 net.cpp:382] ip1 -> ip1
I0428 20:21:12.723309  1710 net.cpp:124] Setting up ip1
I0428 20:21:12.723331  1710 net.cpp:131] Top shape: 100 10 (1000)
I0428 20:21:12.723352  1710 net.cpp:139] Memory required for data: 16318800
I0428 20:21:12.723361  1710 layer_factory.hpp:77] Creating layer relu1
I0428 20:21:12.723366  1710 net.cpp:86] Creating Layer relu1
I0428 20:21:12.723371  1710 net.cpp:408] relu1 <- ip1
I0428 20:21:12.723374  1710 net.cpp:369] relu1 -> ip1 (in-place)
I0428 20:21:12.723531  1710 net.cpp:124] Setting up relu1
I0428 20:21:12.723541  1710 net.cpp:131] Top shape: 100 10 (1000)
I0428 20:21:12.723543  1710 net.cpp:139] Memory required for data: 16322800
I0428 20:21:12.723547  1710 layer_factory.hpp:77] Creating layer ip2
I0428 20:21:12.723556  1710 net.cpp:86] Creating Layer ip2
I0428 20:21:12.723558  1710 net.cpp:408] ip2 <- ip1
I0428 20:21:12.723564  1710 net.cpp:382] ip2 -> ip2
I0428 20:21:12.723657  1710 net.cpp:124] Setting up ip2
I0428 20:21:12.723664  1710 net.cpp:131] Top shape: 100 10 (1000)
I0428 20:21:12.723666  1710 net.cpp:139] Memory required for data: 16326800
I0428 20:21:12.723672  1710 layer_factory.hpp:77] Creating layer relu2
I0428 20:21:12.723676  1710 net.cpp:86] Creating Layer relu2
I0428 20:21:12.723680  1710 net.cpp:408] relu2 <- ip2
I0428 20:21:12.723685  1710 net.cpp:369] relu2 -> ip2 (in-place)
I0428 20:21:12.723831  1710 net.cpp:124] Setting up relu2
I0428 20:21:12.723840  1710 net.cpp:131] Top shape: 100 10 (1000)
I0428 20:21:12.723851  1710 net.cpp:139] Memory required for data: 16330800
I0428 20:21:12.723861  1710 layer_factory.hpp:77] Creating layer ip3
I0428 20:21:12.723867  1710 net.cpp:86] Creating Layer ip3
I0428 20:21:12.723870  1710 net.cpp:408] ip3 <- ip2
I0428 20:21:12.723875  1710 net.cpp:382] ip3 -> ip3
I0428 20:21:12.723989  1710 net.cpp:124] Setting up ip3
I0428 20:21:12.723995  1710 net.cpp:131] Top shape: 100 10 (1000)
I0428 20:21:12.723999  1710 net.cpp:139] Memory required for data: 16334800
I0428 20:21:12.724007  1710 layer_factory.hpp:77] Creating layer relu3
I0428 20:21:12.724012  1710 net.cpp:86] Creating Layer relu3
I0428 20:21:12.724015  1710 net.cpp:408] relu3 <- ip3
I0428 20:21:12.724020  1710 net.cpp:369] relu3 -> ip3 (in-place)
I0428 20:21:12.724819  1710 net.cpp:124] Setting up relu3
I0428 20:21:12.724833  1710 net.cpp:131] Top shape: 100 10 (1000)
I0428 20:21:12.724835  1710 net.cpp:139] Memory required for data: 16338800
I0428 20:21:12.724845  1710 layer_factory.hpp:77] Creating layer ip3_relu3_0_split
I0428 20:21:12.724850  1710 net.cpp:86] Creating Layer ip3_relu3_0_split
I0428 20:21:12.724854  1710 net.cpp:408] ip3_relu3_0_split <- ip3
I0428 20:21:12.724859  1710 net.cpp:382] ip3_relu3_0_split -> ip3_relu3_0_split_0
I0428 20:21:12.724866  1710 net.cpp:382] ip3_relu3_0_split -> ip3_relu3_0_split_1
I0428 20:21:12.724903  1710 net.cpp:124] Setting up ip3_relu3_0_split
I0428 20:21:12.724910  1710 net.cpp:131] Top shape: 100 10 (1000)
I0428 20:21:12.724915  1710 net.cpp:131] Top shape: 100 10 (1000)
I0428 20:21:12.724918  1710 net.cpp:139] Memory required for data: 16346800
I0428 20:21:12.724921  1710 layer_factory.hpp:77] Creating layer accuracy
I0428 20:21:12.724926  1710 net.cpp:86] Creating Layer accuracy
I0428 20:21:12.724930  1710 net.cpp:408] accuracy <- ip3_relu3_0_split_0
I0428 20:21:12.724933  1710 net.cpp:408] accuracy <- label_mnist_1_split_0
I0428 20:21:12.724938  1710 net.cpp:382] accuracy -> accuracy
…
