…
I0428 19:27:47.296454 21446 net.cpp:296] The NetState phase (0) differed from the phase (1) specified by a rule in layer mnist
I0428 19:27:47.296466 21446 net.cpp:296] The NetState phase (0) differed from the phase (1) specified by a rule in layer accuracy
I0428 19:27:47.296526 21446 net.cpp:53] Initializing net from parameters: 
name: "LeNet"
state {
  phase: TRAIN
  level: 0
  stage: ""
}
layer {
  name: "mnist"
  type: "Data"
  top: "data"
  top: "label"
  include {
    phase: TRAIN
  }
  transform_param {
    scale: 0.00390625
  }
  data_param {
    source: "examples/mnist/mnist_train_lmdb"
    batch_size: 64
    backend: LMDB
  }
}
layer {
  name: "ip1"
  type: "InnerProduct"
  bottom: "data"
  top: "ip1"
  param {
    lr_mult: 1
  }
  param {
    lr_mult: 2
  }
  inner_product_param {
    num_output: 10
    weight_filler {
      type: "xavier"
    }
    bias_filler {
      type: "constant"
    }
  }
}
layer {
  name: "relu1"
  type: "ReLU"
  bottom: "ip1"
  top: "ip1"
}
layer {
  name: "ip2"
  type: "InnerProduct"
  bottom: "ip1"
  top: "ip2"
  param {
    lr_mult: 1
  }
  param {
    lr_mult: 2
  }
  inner_product_param {
    num_output: 10
    weight_filler {
      type: "xavier"
    }
    bias_filler {
      type: "constant"
    }
  }
}
layer {
  name: "relu2"
  type: "ReLU"
  bottom: "ip2"
  top: "ip2"
}
layer {
  name: "loss"
  type: "SoftmaxWithLoss"
  bottom: "ip2"
  bottom: "label"
  top: "loss"
}
I0428 19:27:47.296596 21446 layer_factory.hpp:77] Creating layer mnist
I0428 19:27:47.296701 21446 db_lmdb.cpp:35] Opened lmdb examples/mnist/mnist_train_lmdb
I0428 19:27:47.296728 21446 net.cpp:86] Creating Layer mnist
I0428 19:27:47.296739 21446 net.cpp:382] mnist -> data
I0428 19:27:47.296778 21446 net.cpp:382] mnist -> label
I0428 19:27:47.297917 21446 data_layer.cpp:45] output data size: 64,1,28,28
I0428 19:27:47.300238 21446 net.cpp:124] Setting up mnist
I0428 19:27:47.300273 21446 net.cpp:131] Top shape: 64 1 28 28 (50176)
I0428 19:27:47.300297 21446 net.cpp:131] Top shape: 64 (64)
I0428 19:27:47.300302 21446 net.cpp:139] Memory required for data: 200960
I0428 19:27:47.300326 21446 layer_factory.hpp:77] Creating layer ip1
I0428 19:27:47.300354 21446 net.cpp:86] Creating Layer ip1
I0428 19:27:47.300369 21446 net.cpp:408] ip1 <- data
I0428 19:27:47.300386 21446 net.cpp:382] ip1 -> ip1
I0428 19:27:47.301647 21446 net.cpp:124] Setting up ip1
I0428 19:27:47.301661 21446 net.cpp:131] Top shape: 64 10 (640)
I0428 19:27:47.301667 21446 net.cpp:139] Memory required for data: 203520
I0428 19:27:47.301686 21446 layer_factory.hpp:77] Creating layer relu1
I0428 19:27:47.301697 21446 net.cpp:86] Creating Layer relu1
I0428 19:27:47.301704 21446 net.cpp:408] relu1 <- ip1
I0428 19:27:47.301714 21446 net.cpp:369] relu1 -> ip1 (in-place)
I0428 19:27:47.533931 21446 net.cpp:124] Setting up relu1
I0428 19:27:47.533959 21446 net.cpp:131] Top shape: 64 10 (640)
I0428 19:27:47.533965 21446 net.cpp:139] Memory required for data: 206080
I0428 19:27:47.533972 21446 layer_factory.hpp:77] Creating layer ip2
I0428 19:27:47.533987 21446 net.cpp:86] Creating Layer ip2
I0428 19:27:47.533993 21446 net.cpp:408] ip2 <- ip1
I0428 19:27:47.534004 21446 net.cpp:382] ip2 -> ip2
I0428 19:27:47.534113 21446 net.cpp:124] Setting up ip2
I0428 19:27:47.534122 21446 net.cpp:131] Top shape: 64 10 (640)
I0428 19:27:47.534127 21446 net.cpp:139] Memory required for data: 208640
I0428 19:27:47.534140 21446 layer_factory.hpp:77] Creating layer relu2
I0428 19:27:47.534164 21446 net.cpp:86] Creating Layer relu2
I0428 19:27:47.534171 21446 net.cpp:408] relu2 <- ip2
I0428 19:27:47.534178 21446 net.cpp:369] relu2 -> ip2 (in-place)
I0428 19:27:47.534909 21446 net.cpp:124] Setting up relu2
I0428 19:27:47.534922 21446 net.cpp:131] Top shape: 64 10 (640)
I0428 19:27:47.534927 21446 net.cpp:139] Memory required for data: 211200
I0428 19:27:47.534934 21446 layer_factory.hpp:77] Creating layer loss
I0428 19:27:47.534942 21446 net.cpp:86] Creating Layer loss
I0428 19:27:47.534947 21446 net.cpp:408] loss <- ip2
I0428 19:27:47.534955 21446 net.cpp:408] loss <- label
I0428 19:27:47.534976 21446 net.cpp:382] loss -> loss
I0428 19:27:47.534999 21446 layer_factory.hpp:77] Creating layer loss
…
I0428 19:27:47.536326 21446 solver.cpp:173] Creating test net (#0) specified by net file: ECE595/mnist/train_test/var_everything2/lenet_train_test3.prototxt
I0428 19:27:47.536351 21446 net.cpp:296] The NetState phase (1) differed from the phase (0) specified by a rule in layer mnist
I0428 19:27:47.536412 21446 net.cpp:53] Initializing net from parameters: 
name: "LeNet"
state {
  phase: TEST
}
layer {
  name: "mnist"
  type: "Data"
  top: "data"
  top: "label"
  include {
    phase: TEST
  }
  transform_param {
    scale: 0.00390625
  }
  data_param {
    source: "examples/mnist/mnist_test_lmdb"
    batch_size: 100
    backend: LMDB
  }
}
layer {
  name: "ip1"
  type: "InnerProduct"
  bottom: "data"
  top: "ip1"
  param {
    lr_mult: 1
  }
  param {
    lr_mult: 2
  }
  inner_product_param {
    num_output: 10
    weight_filler {
      type: "xavier"
    }
    bias_filler {
      type: "constant"
    }
  }
}
layer {
  name: "relu1"
  type: "ReLU"
  bottom: "ip1"
  top: "ip1"
}
layer {
  name: "ip2"
  type: "InnerProduct"
  bottom: "ip1"
  top: "ip2"
  param {
    lr_mult: 1
  }
  param {
    lr_mult: 2
  }
  inner_product_param {
    num_output: 10
    weight_filler {
      type: "xavier"
    }
    bias_filler {
      type: "constant"
    }
  }
}
layer {
  name: "relu2"
  type: "ReLU"
  bottom: "ip2"
  top: "ip2"
}
layer {
  name: "accuracy"
  type: "Accuracy"
  bottom: "ip2"
  bottom: "label"
  top: "accuracy"
  include {
    phase: TEST
  }
}
layer {
  name: "loss"
  type: "SoftmaxWithLoss"
  bottom: "ip2"
  bottom: "label"
  top: "loss"
}
I0428 19:27:47.536481 21446 layer_factory.hpp:77] Creating layer mnist
I0428 19:27:47.536536 21446 db_lmdb.cpp:35] Opened lmdb examples/mnist/mnist_test_lmdb
I0428 19:27:47.536551 21446 net.cpp:86] Creating Layer mnist
I0428 19:27:47.536558 21446 net.cpp:382] mnist -> data
I0428 19:27:47.536569 21446 net.cpp:382] mnist -> label
I0428 19:27:47.536679 21446 data_layer.cpp:45] output data size: 100,1,28,28
I0428 19:27:47.538900 21446 net.cpp:124] Setting up mnist
I0428 19:27:47.538915 21446 net.cpp:131] Top shape: 100 1 28 28 (78400)
I0428 19:27:47.538923 21446 net.cpp:131] Top shape: 100 (100)
I0428 19:27:47.538944 21446 net.cpp:139] Memory required for data: 314000
I0428 19:27:47.538949 21446 layer_factory.hpp:77] Creating layer label_mnist_1_split
I0428 19:27:47.538965 21446 net.cpp:86] Creating Layer label_mnist_1_split
I0428 19:27:47.538971 21446 net.cpp:408] label_mnist_1_split <- label
I0428 19:27:47.538978 21446 net.cpp:382] label_mnist_1_split -> label_mnist_1_split_0
I0428 19:27:47.539005 21446 net.cpp:382] label_mnist_1_split -> label_mnist_1_split_1
I0428 19:27:47.539057 21446 net.cpp:124] Setting up label_mnist_1_split
I0428 19:27:47.539065 21446 net.cpp:131] Top shape: 100 (100)
I0428 19:27:47.539072 21446 net.cpp:131] Top shape: 100 (100)
I0428 19:27:47.539077 21446 net.cpp:139] Memory required for data: 314800
I0428 19:27:47.539083 21446 layer_factory.hpp:77] Creating layer ip1
I0428 19:27:47.539108 21446 net.cpp:86] Creating Layer ip1
I0428 19:27:47.539114 21446 net.cpp:408] ip1 <- data
I0428 19:27:47.539124 21446 net.cpp:382] ip1 -> ip1
I0428 19:27:47.539301 21446 net.cpp:124] Setting up ip1
I0428 19:27:47.539311 21446 net.cpp:131] Top shape: 100 10 (1000)
I0428 19:27:47.539316 21446 net.cpp:139] Memory required for data: 318800
I0428 19:27:47.539330 21446 layer_factory.hpp:77] Creating layer relu1
I0428 19:27:47.539340 21446 net.cpp:86] Creating Layer relu1
I0428 19:27:47.539346 21446 net.cpp:408] relu1 <- ip1
I0428 19:27:47.539355 21446 net.cpp:369] relu1 -> ip1 (in-place)
I0428 19:27:47.539541 21446 net.cpp:124] Setting up relu1
I0428 19:27:47.539551 21446 net.cpp:131] Top shape: 100 10 (1000)
I0428 19:27:47.539556 21446 net.cpp:139] Memory required for data: 322800
I0428 19:27:47.539561 21446 layer_factory.hpp:77] Creating layer ip2
I0428 19:27:47.539572 21446 net.cpp:86] Creating Layer ip2
I0428 19:27:47.539577 21446 net.cpp:408] ip2 <- ip1
I0428 19:27:47.539585 21446 net.cpp:382] ip2 -> ip2
I0428 19:27:47.539685 21446 net.cpp:124] Setting up ip2
I0428 19:27:47.539693 21446 net.cpp:131] Top shape: 100 10 (1000)
I0428 19:27:47.539698 21446 net.cpp:139] Memory required for data: 326800
I0428 19:27:47.539710 21446 layer_factory.hpp:77] Creating layer relu2
I0428 19:27:47.539718 21446 net.cpp:86] Creating Layer relu2
I0428 19:27:47.539724 21446 net.cpp:408] relu2 <- ip2
I0428 19:27:47.539731 21446 net.cpp:369] relu2 -> ip2 (in-place)
I0428 19:27:47.540478 21446 net.cpp:124] Setting up relu2
I0428 19:27:47.540493 21446 net.cpp:131] Top shape: 100 10 (1000)
I0428 19:27:47.540513 21446 net.cpp:139] Memory required for data: 330800
I0428 19:27:47.540518 21446 layer_factory.hpp:77] Creating layer ip2_relu2_0_split
I0428 19:27:47.540525 21446 net.cpp:86] Creating Layer ip2_relu2_0_split
I0428 19:27:47.540531 21446 net.cpp:408] ip2_relu2_0_split <- ip2
I0428 19:27:47.540539 21446 net.cpp:382] ip2_relu2_0_split -> ip2_relu2_0_split_0
I0428 19:27:47.540549 21446 net.cpp:382] ip2_relu2_0_split -> ip2_relu2_0_split_1
I0428 19:27:47.540614 21446 net.cpp:124] Setting up ip2_relu2_0_split
I0428 19:27:47.540622 21446 net.cpp:131] Top shape: 100 10 (1000)
I0428 19:27:47.540630 21446 net.cpp:131] Top shape: 100 10 (1000)
I0428 19:27:47.540635 21446 net.cpp:139] Memory required for data: 338800
I0428 19:27:47.540640 21446 layer_factory.hpp:77] Creating layer accuracy
I0428 19:27:47.540649 21446 net.cpp:86] Creating Layer accuracy
I0428 19:27:47.540654 21446 net.cpp:408] accuracy <- ip2_relu2_0_split_0
I0428 19:27:47.540662 21446 net.cpp:408] accuracy <- label_mnist_1_split_0
I0428 19:27:47.540669 21446 net.cpp:382] accuracy -> accuracy
…
