…
I0428 20:19:36.677419  1393 net.cpp:296] The NetState phase (0) differed from the phase (1) specified by a rule in layer mnist
I0428 20:19:36.677441  1393 net.cpp:296] The NetState phase (0) differed from the phase (1) specified by a rule in layer accuracy
I0428 20:19:36.677546  1393 net.cpp:53] Initializing net from parameters: 
name: "LeNet"
state {
  phase: TRAIN
  level: 0
  stage: ""
}
layer {
  name: "mnist"
  type: "Data"
  top: "data"
  top: "label"
  include {
    phase: TRAIN
  }
  transform_param {
    scale: 0.00390625
  }
  data_param {
    source: "examples/mnist/mnist_train_lmdb"
    batch_size: 64
    backend: LMDB
  }
}
layer {
  name: "conv0"
  type: "Convolution"
  bottom: "data"
  top: "conv0"
  param {
    lr_mult: 1
  }
  param {
    lr_mult: 2
  }
  convolution_param {
    num_output: 50
    kernel_size: 5
    stride: 1
    weight_filler {
      type: "xavier"
    }
    bias_filler {
      type: "constant"
    }
  }
}
layer {
  name: "pool0"
  type: "Pooling"
  bottom: "conv0"
  top: "pool0"
  pooling_param {
    pool: MAX
    kernel_size: 2
    stride: 2
  }
}
layer {
  name: "conv1"
  type: "Convolution"
  bottom: "pool0"
  top: "conv1"
  param {
    lr_mult: 1
  }
  param {
    lr_mult: 2
  }
  convolution_param {
    num_output: 25
    kernel_size: 5
    stride: 1
    weight_filler {
      type: "xavier"
    }
    bias_filler {
      type: "constant"
    }
  }
}
layer {
  name: "pool1"
  type: "Pooling"
  bottom: "conv1"
  top: "pool1"
  pooling_param {
    pool: MAX
    kernel_size: 2
    stride: 2
  }
}
layer {
  name: "ip1"
  type: "InnerProduct"
  bottom: "pool1"
  top: "ip1"
  param {
    lr_mult: 1
  }
  param {
    lr_mult: 2
  }
  inner_product_param {
    num_output: 10
    weight_filler {
      type: "xavier"
    }
    bias_filler {
      type: "constant"
    }
  }
}
layer {
  name: "relu1"
  type: "ReLU"
  bottom: "ip1"
  top: "ip1"
}
layer {
  name: "ip2"
  type: "InnerProduct"
  bottom: "ip1"
  top: "ip2"
  param {
    lr_mult: 1
  }
  param {
    lr_mult: 2
  }
  inner_product_param {
    num_output: 50
    weight_filler {
      type: "xavier"
    }
    bias_filler {
      type: "constant"
    }
  }
}
layer {
  name: "relu2"
  type: "ReLU"
  bottom: "ip2"
  top: "ip2"
}
layer {
  name: "ip3"
  type: "InnerProduct"
  bottom: "ip2"
  top: "ip3"
  param {
    lr_mult: 1
  }
  param {
    lr_mult: 2
  }
  inner_product_param {
    num_output: 10
    weight_filler {
      type: "xavier"
    }
    bias_filler {
      type: "constant"
    }
  }
}
layer {
  name: "relu3"
  type: "ReLU"
  bottom: "ip3"
  top: "ip3"
}
layer {
  name: "loss"
  type: "SoftmaxWithLoss"
  bottom: "ip3"
  bottom: "label"
  top: "loss"
}
I0428 20:19:36.677625  1393 layer_factory.hpp:77] Creating layer mnist
I0428 20:19:36.677721  1393 db_lmdb.cpp:35] Opened lmdb examples/mnist/mnist_train_lmdb
I0428 20:19:36.677745  1393 net.cpp:86] Creating Layer mnist
I0428 20:19:36.677754  1393 net.cpp:382] mnist -> data
I0428 20:19:36.677775  1393 net.cpp:382] mnist -> label
I0428 20:19:36.678874  1393 data_layer.cpp:45] output data size: 64,1,28,28
I0428 20:19:36.681376  1393 net.cpp:124] Setting up mnist
I0428 20:19:36.681394  1393 net.cpp:131] Top shape: 64 1 28 28 (50176)
I0428 20:19:36.681401  1393 net.cpp:131] Top shape: 64 (64)
I0428 20:19:36.681404  1393 net.cpp:139] Memory required for data: 200960
I0428 20:19:36.681411  1393 layer_factory.hpp:77] Creating layer conv0
I0428 20:19:36.681438  1393 net.cpp:86] Creating Layer conv0
I0428 20:19:36.681460  1393 net.cpp:408] conv0 <- data
I0428 20:19:36.681478  1393 net.cpp:382] conv0 -> conv0
I0428 20:19:36.974243  1393 net.cpp:124] Setting up conv0
I0428 20:19:36.974274  1393 net.cpp:131] Top shape: 64 50 24 24 (1843200)
I0428 20:19:36.974279  1393 net.cpp:139] Memory required for data: 7573760
I0428 20:19:36.974298  1393 layer_factory.hpp:77] Creating layer pool0
I0428 20:19:36.974311  1393 net.cpp:86] Creating Layer pool0
I0428 20:19:36.974316  1393 net.cpp:408] pool0 <- conv0
I0428 20:19:36.974323  1393 net.cpp:382] pool0 -> pool0
I0428 20:19:36.974382  1393 net.cpp:124] Setting up pool0
I0428 20:19:36.974391  1393 net.cpp:131] Top shape: 64 50 12 12 (460800)
I0428 20:19:36.974395  1393 net.cpp:139] Memory required for data: 9416960
I0428 20:19:36.974400  1393 layer_factory.hpp:77] Creating layer conv1
I0428 20:19:36.974411  1393 net.cpp:86] Creating Layer conv1
I0428 20:19:36.974416  1393 net.cpp:408] conv1 <- pool0
I0428 20:19:36.974421  1393 net.cpp:382] conv1 -> conv1
I0428 20:19:36.976775  1393 net.cpp:124] Setting up conv1
I0428 20:19:36.976793  1393 net.cpp:131] Top shape: 64 25 8 8 (102400)
I0428 20:19:36.976797  1393 net.cpp:139] Memory required for data: 9826560
I0428 20:19:36.976807  1393 layer_factory.hpp:77] Creating layer pool1
I0428 20:19:36.976876  1393 net.cpp:86] Creating Layer pool1
I0428 20:19:36.976881  1393 net.cpp:408] pool1 <- conv1
I0428 20:19:36.976887  1393 net.cpp:382] pool1 -> pool1
I0428 20:19:36.976933  1393 net.cpp:124] Setting up pool1
I0428 20:19:36.976940  1393 net.cpp:131] Top shape: 64 25 4 4 (25600)
I0428 20:19:36.976944  1393 net.cpp:139] Memory required for data: 9928960
I0428 20:19:36.976948  1393 layer_factory.hpp:77] Creating layer ip1
I0428 20:19:36.976961  1393 net.cpp:86] Creating Layer ip1
I0428 20:19:36.976965  1393 net.cpp:408] ip1 <- pool1
I0428 20:19:36.976971  1393 net.cpp:382] ip1 -> ip1
I0428 20:19:36.977125  1393 net.cpp:124] Setting up ip1
I0428 20:19:36.977134  1393 net.cpp:131] Top shape: 64 10 (640)
I0428 20:19:36.977138  1393 net.cpp:139] Memory required for data: 9931520
I0428 20:19:36.977147  1393 layer_factory.hpp:77] Creating layer relu1
I0428 20:19:36.977154  1393 net.cpp:86] Creating Layer relu1
I0428 20:19:36.977157  1393 net.cpp:408] relu1 <- ip1
I0428 20:19:36.977162  1393 net.cpp:369] relu1 -> ip1 (in-place)
I0428 20:19:36.977357  1393 net.cpp:124] Setting up relu1
I0428 20:19:36.977368  1393 net.cpp:131] Top shape: 64 10 (640)
I0428 20:19:36.977371  1393 net.cpp:139] Memory required for data: 9934080
I0428 20:19:36.977375  1393 layer_factory.hpp:77] Creating layer ip2
I0428 20:19:36.977383  1393 net.cpp:86] Creating Layer ip2
I0428 20:19:36.977386  1393 net.cpp:408] ip2 <- ip1
I0428 20:19:36.977392  1393 net.cpp:382] ip2 -> ip2
I0428 20:19:36.977509  1393 net.cpp:124] Setting up ip2
I0428 20:19:36.977516  1393 net.cpp:131] Top shape: 64 50 (3200)
I0428 20:19:36.977520  1393 net.cpp:139] Memory required for data: 9946880
I0428 20:19:36.977526  1393 layer_factory.hpp:77] Creating layer relu2
I0428 20:19:36.977533  1393 net.cpp:86] Creating Layer relu2
I0428 20:19:36.977537  1393 net.cpp:408] relu2 <- ip2
I0428 20:19:36.977542  1393 net.cpp:369] relu2 -> ip2 (in-place)
I0428 20:19:36.978387  1393 net.cpp:124] Setting up relu2
I0428 20:19:36.978402  1393 net.cpp:131] Top shape: 64 50 (3200)
I0428 20:19:36.978406  1393 net.cpp:139] Memory required for data: 9959680
I0428 20:19:36.978410  1393 layer_factory.hpp:77] Creating layer ip3
I0428 20:19:36.978420  1393 net.cpp:86] Creating Layer ip3
I0428 20:19:36.978425  1393 net.cpp:408] ip3 <- ip2
I0428 20:19:36.978431  1393 net.cpp:382] ip3 -> ip3
I0428 20:19:36.978552  1393 net.cpp:124] Setting up ip3
I0428 20:19:36.978561  1393 net.cpp:131] Top shape: 64 10 (640)
I0428 20:19:36.978565  1393 net.cpp:139] Memory required for data: 9962240
I0428 20:19:36.978574  1393 layer_factory.hpp:77] Creating layer relu3
I0428 20:19:36.978580  1393 net.cpp:86] Creating Layer relu3
I0428 20:19:36.978584  1393 net.cpp:408] relu3 <- ip3
I0428 20:19:36.978588  1393 net.cpp:369] relu3 -> ip3 (in-place)
I0428 20:19:36.978786  1393 net.cpp:124] Setting up relu3
I0428 20:19:36.978797  1393 net.cpp:131] Top shape: 64 10 (640)
I0428 20:19:36.978801  1393 net.cpp:139] Memory required for data: 9964800
I0428 20:19:36.978804  1393 layer_factory.hpp:77] Creating layer loss
I0428 20:19:36.978811  1393 net.cpp:86] Creating Layer loss
I0428 20:19:36.978816  1393 net.cpp:408] loss <- ip3
I0428 20:19:36.978819  1393 net.cpp:408] loss <- label
I0428 20:19:36.978826  1393 net.cpp:382] loss -> loss
I0428 20:19:36.978847  1393 layer_factory.hpp:77] Creating layer loss
…
I0428 20:19:36.979598  1393 solver.cpp:173] Creating test net (#0) specified by net file: ECE595/mnist/train_test/var_everything2/lenet_train_test1345.prototxt
I0428 20:19:36.979629  1393 net.cpp:296] The NetState phase (1) differed from the phase (0) specified by a rule in layer mnist
I0428 20:19:36.979743  1393 net.cpp:53] Initializing net from parameters: 
name: "LeNet"
state {
  phase: TEST
}
layer {
  name: "mnist"
  type: "Data"
  top: "data"
  top: "label"
  include {
    phase: TEST
  }
  transform_param {
    scale: 0.00390625
  }
  data_param {
    source: "examples/mnist/mnist_test_lmdb"
    batch_size: 100
    backend: LMDB
  }
}
layer {
  name: "conv0"
  type: "Convolution"
  bottom: "data"
  top: "conv0"
  param {
    lr_mult: 1
  }
  param {
    lr_mult: 2
  }
  convolution_param {
    num_output: 50
    kernel_size: 5
    stride: 1
    weight_filler {
      type: "xavier"
    }
    bias_filler {
      type: "constant"
    }
  }
}
layer {
  name: "pool0"
  type: "Pooling"
  bottom: "conv0"
  top: "pool0"
  pooling_param {
    pool: MAX
    kernel_size: 2
    stride: 2
  }
}
layer {
  name: "conv1"
  type: "Convolution"
  bottom: "pool0"
  top: "conv1"
  param {
    lr_mult: 1
  }
  param {
    lr_mult: 2
  }
  convolution_param {
    num_output: 25
    kernel_size: 5
    stride: 1
    weight_filler {
      type: "xavier"
    }
    bias_filler {
      type: "constant"
    }
  }
}
layer {
  name: "pool1"
  type: "Pooling"
  bottom: "conv1"
  top: "pool1"
  pooling_param {
    pool: MAX
    kernel_size: 2
    stride: 2
  }
}
layer {
  name: "ip1"
  type: "InnerProduct"
  bottom: "pool1"
  top: "ip1"
  param {
    lr_mult: 1
  }
  param {
    lr_mult: 2
  }
  inner_product_param {
    num_output: 10
    weight_filler {
      type: "xavier"
    }
    bias_filler {
      type: "constant"
    }
  }
}
layer {
  name: "relu1"
  type: "ReLU"
  bottom: "ip1"
  top: "ip1"
}
layer {
  name: "ip2"
  type: "InnerProduct"
  bottom: "ip1"
  top: "ip2"
  param {
    lr_mult: 1
  }
  param {
    lr_mult: 2
  }
  inner_product_param {
    num_output: 50
    weight_filler {
      type: "xavier"
    }
    bias_filler {
      type: "constant"
    }
  }
}
layer {
  name: "relu2"
  type: "ReLU"
  bottom: "ip2"
  top: "ip2"
}
layer {
  name: "ip3"
  type: "InnerProduct"
  bottom: "ip2"
  top: "ip3"
  param {
    lr_mult: 1
  }
  param {
    lr_mult: 2
  }
  inner_product_param {
    num_output: 10
    weight_filler {
      type: "xavier"
    }
    bias_filler {
      type: "constant"
    }
  }
}
layer {
  name: "relu3"
  type: "ReLU"
  bottom: "ip3"
  top: "ip3"
}
layer {
  name: "accuracy"
  type: "Accuracy"
  bottom: "ip3"
  bottom: "label"
  top: "accuracy"
  include {
    phase: TEST
  }
}
layer {
  name: "loss"
  type: "SoftmaxWithLoss"
  bottom: "ip3"
  bottom: "label"
  top: "loss"
}
I0428 20:19:36.979841  1393 layer_factory.hpp:77] Creating layer mnist
I0428 20:19:36.979892  1393 db_lmdb.cpp:35] Opened lmdb examples/mnist/mnist_test_lmdb
I0428 20:19:36.979907  1393 net.cpp:86] Creating Layer mnist
I0428 20:19:36.979915  1393 net.cpp:382] mnist -> data
I0428 20:19:36.979924  1393 net.cpp:382] mnist -> label
I0428 20:19:36.980027  1393 data_layer.cpp:45] output data size: 100,1,28,28
I0428 20:19:36.982244  1393 net.cpp:124] Setting up mnist
I0428 20:19:36.982260  1393 net.cpp:131] Top shape: 100 1 28 28 (78400)
I0428 20:19:36.982266  1393 net.cpp:131] Top shape: 100 (100)
I0428 20:19:36.982270  1393 net.cpp:139] Memory required for data: 314000
I0428 20:19:36.982273  1393 layer_factory.hpp:77] Creating layer label_mnist_1_split
I0428 20:19:36.982316  1393 net.cpp:86] Creating Layer label_mnist_1_split
I0428 20:19:36.982321  1393 net.cpp:408] label_mnist_1_split <- label
I0428 20:19:36.982327  1393 net.cpp:382] label_mnist_1_split -> label_mnist_1_split_0
I0428 20:19:36.982336  1393 net.cpp:382] label_mnist_1_split -> label_mnist_1_split_1
I0428 20:19:36.982389  1393 net.cpp:124] Setting up label_mnist_1_split
I0428 20:19:36.982398  1393 net.cpp:131] Top shape: 100 (100)
I0428 20:19:36.982403  1393 net.cpp:131] Top shape: 100 (100)
I0428 20:19:36.982405  1393 net.cpp:139] Memory required for data: 314800
I0428 20:19:36.982409  1393 layer_factory.hpp:77] Creating layer conv0
I0428 20:19:36.982420  1393 net.cpp:86] Creating Layer conv0
I0428 20:19:36.982424  1393 net.cpp:408] conv0 <- data
I0428 20:19:36.982431  1393 net.cpp:382] conv0 -> conv0
I0428 20:19:36.984436  1393 net.cpp:124] Setting up conv0
I0428 20:19:36.984453  1393 net.cpp:131] Top shape: 100 50 24 24 (2880000)
I0428 20:19:36.984459  1393 net.cpp:139] Memory required for data: 11834800
I0428 20:19:36.984472  1393 layer_factory.hpp:77] Creating layer pool0
I0428 20:19:36.984480  1393 net.cpp:86] Creating Layer pool0
I0428 20:19:36.984483  1393 net.cpp:408] pool0 <- conv0
I0428 20:19:36.984489  1393 net.cpp:382] pool0 -> pool0
I0428 20:19:36.984534  1393 net.cpp:124] Setting up pool0
I0428 20:19:36.984540  1393 net.cpp:131] Top shape: 100 50 12 12 (720000)
I0428 20:19:36.984544  1393 net.cpp:139] Memory required for data: 14714800
I0428 20:19:36.984547  1393 layer_factory.hpp:77] Creating layer conv1
I0428 20:19:36.984558  1393 net.cpp:86] Creating Layer conv1
I0428 20:19:36.984562  1393 net.cpp:408] conv1 <- pool0
I0428 20:19:36.984570  1393 net.cpp:382] conv1 -> conv1
I0428 20:19:36.986574  1393 net.cpp:124] Setting up conv1
I0428 20:19:36.986591  1393 net.cpp:131] Top shape: 100 25 8 8 (160000)
I0428 20:19:36.986595  1393 net.cpp:139] Memory required for data: 15354800
I0428 20:19:36.986605  1393 layer_factory.hpp:77] Creating layer pool1
I0428 20:19:36.986613  1393 net.cpp:86] Creating Layer pool1
I0428 20:19:36.986618  1393 net.cpp:408] pool1 <- conv1
I0428 20:19:36.986626  1393 net.cpp:382] pool1 -> pool1
I0428 20:19:36.986670  1393 net.cpp:124] Setting up pool1
I0428 20:19:36.986680  1393 net.cpp:131] Top shape: 100 25 4 4 (40000)
I0428 20:19:36.986682  1393 net.cpp:139] Memory required for data: 15514800
I0428 20:19:36.986686  1393 layer_factory.hpp:77] Creating layer ip1
I0428 20:19:36.986693  1393 net.cpp:86] Creating Layer ip1
I0428 20:19:36.986698  1393 net.cpp:408] ip1 <- pool1
I0428 20:19:36.986706  1393 net.cpp:382] ip1 -> ip1
I0428 20:19:36.986857  1393 net.cpp:124] Setting up ip1
I0428 20:19:36.986867  1393 net.cpp:131] Top shape: 100 10 (1000)
I0428 20:19:36.986882  1393 net.cpp:139] Memory required for data: 15518800
I0428 20:19:36.986894  1393 layer_factory.hpp:77] Creating layer relu1
I0428 20:19:36.986901  1393 net.cpp:86] Creating Layer relu1
I0428 20:19:36.986904  1393 net.cpp:408] relu1 <- ip1
I0428 20:19:36.986912  1393 net.cpp:369] relu1 -> ip1 (in-place)
I0428 20:19:36.987162  1393 net.cpp:124] Setting up relu1
I0428 20:19:36.987174  1393 net.cpp:131] Top shape: 100 10 (1000)
I0428 20:19:36.987179  1393 net.cpp:139] Memory required for data: 15522800
I0428 20:19:36.987182  1393 layer_factory.hpp:77] Creating layer ip2
I0428 20:19:36.987191  1393 net.cpp:86] Creating Layer ip2
I0428 20:19:36.987195  1393 net.cpp:408] ip2 <- ip1
I0428 20:19:36.987201  1393 net.cpp:382] ip2 -> ip2
I0428 20:19:36.987349  1393 net.cpp:124] Setting up ip2
I0428 20:19:36.987359  1393 net.cpp:131] Top shape: 100 50 (5000)
I0428 20:19:36.987362  1393 net.cpp:139] Memory required for data: 15542800
I0428 20:19:36.987368  1393 layer_factory.hpp:77] Creating layer relu2
I0428 20:19:36.987375  1393 net.cpp:86] Creating Layer relu2
I0428 20:19:36.987383  1393 net.cpp:408] relu2 <- ip2
I0428 20:19:36.987390  1393 net.cpp:369] relu2 -> ip2 (in-place)
I0428 20:19:36.987581  1393 net.cpp:124] Setting up relu2
I0428 20:19:36.987594  1393 net.cpp:131] Top shape: 100 50 (5000)
I0428 20:19:36.987607  1393 net.cpp:139] Memory required for data: 15562800
I0428 20:19:36.987609  1393 layer_factory.hpp:77] Creating layer ip3
I0428 20:19:36.987618  1393 net.cpp:86] Creating Layer ip3
I0428 20:19:36.987622  1393 net.cpp:408] ip3 <- ip2
I0428 20:19:36.987627  1393 net.cpp:382] ip3 -> ip3
I0428 20:19:36.987751  1393 net.cpp:124] Setting up ip3
I0428 20:19:36.987761  1393 net.cpp:131] Top shape: 100 10 (1000)
I0428 20:19:36.987763  1393 net.cpp:139] Memory required for data: 15566800
I0428 20:19:36.987773  1393 layer_factory.hpp:77] Creating layer relu3
I0428 20:19:36.987781  1393 net.cpp:86] Creating Layer relu3
I0428 20:19:36.987784  1393 net.cpp:408] relu3 <- ip3
I0428 20:19:36.987789  1393 net.cpp:369] relu3 -> ip3 (in-place)
I0428 20:19:36.988708  1393 net.cpp:124] Setting up relu3
I0428 20:19:36.988723  1393 net.cpp:131] Top shape: 100 10 (1000)
I0428 20:19:36.988728  1393 net.cpp:139] Memory required for data: 15570800
I0428 20:19:36.988731  1393 layer_factory.hpp:77] Creating layer ip3_relu3_0_split
I0428 20:19:36.988739  1393 net.cpp:86] Creating Layer ip3_relu3_0_split
I0428 20:19:36.988742  1393 net.cpp:408] ip3_relu3_0_split <- ip3
I0428 20:19:36.988749  1393 net.cpp:382] ip3_relu3_0_split -> ip3_relu3_0_split_0
I0428 20:19:36.988756  1393 net.cpp:382] ip3_relu3_0_split -> ip3_relu3_0_split_1
I0428 20:19:36.988807  1393 net.cpp:124] Setting up ip3_relu3_0_split
I0428 20:19:36.988821  1393 net.cpp:131] Top shape: 100 10 (1000)
I0428 20:19:36.988826  1393 net.cpp:131] Top shape: 100 10 (1000)
I0428 20:19:36.988828  1393 net.cpp:139] Memory required for data: 15578800
I0428 20:19:36.988840  1393 layer_factory.hpp:77] Creating layer accuracy
I0428 20:19:36.988847  1393 net.cpp:86] Creating Layer accuracy
I0428 20:19:36.988850  1393 net.cpp:408] accuracy <- ip3_relu3_0_split_0
I0428 20:19:36.988855  1393 net.cpp:408] accuracy <- label_mnist_1_split_0
I0428 20:19:36.988862  1393 net.cpp:382] accuracy -> accuracy
…
