…
I0428 19:31:03.463265 22477 net.cpp:296] The NetState phase (0) differed from the phase (1) specified by a rule in layer mnist
I0428 19:31:03.463290 22477 net.cpp:296] The NetState phase (0) differed from the phase (1) specified by a rule in layer accuracy
I0428 19:31:03.463392 22477 net.cpp:53] Initializing net from parameters: 
name: "LeNet"
state {
  phase: TRAIN
  level: 0
  stage: ""
}
layer {
  name: "mnist"
  type: "Data"
  top: "data"
  top: "label"
  include {
    phase: TRAIN
  }
  transform_param {
    scale: 0.00390625
  }
  data_param {
    source: "examples/mnist/mnist_train_lmdb"
    batch_size: 64
    backend: LMDB
  }
}
layer {
  name: "conv0"
  type: "Convolution"
  bottom: "data"
  top: "conv0"
  param {
    lr_mult: 1
  }
  param {
    lr_mult: 2
  }
  convolution_param {
    num_output: 5
    kernel_size: 5
    stride: 1
    weight_filler {
      type: "xavier"
    }
    bias_filler {
      type: "constant"
    }
  }
}
layer {
  name: "pool0"
  type: "Pooling"
  bottom: "conv0"
  top: "pool0"
  pooling_param {
    pool: MAX
    kernel_size: 2
    stride: 2
  }
}
layer {
  name: "ip1"
  type: "InnerProduct"
  bottom: "pool0"
  top: "ip1"
  param {
    lr_mult: 1
  }
  param {
    lr_mult: 2
  }
  inner_product_param {
    num_output: 50
    weight_filler {
      type: "xavier"
    }
    bias_filler {
      type: "constant"
    }
  }
}
layer {
  name: "relu1"
  type: "ReLU"
  bottom: "ip1"
  top: "ip1"
}
layer {
  name: "ip2"
  type: "InnerProduct"
  bottom: "ip1"
  top: "ip2"
  param {
    lr_mult: 1
  }
  param {
    lr_mult: 2
  }
  inner_product_param {
    num_output: 10
    weight_filler {
      type: "xavier"
    }
    bias_filler {
      type: "constant"
    }
  }
}
layer {
  name: "relu2"
  type: "ReLU"
  bottom: "ip2"
  top: "ip2"
}
layer {
  name: "ip3"
  type: "InnerProduct"
  bottom: "ip2"
  top: "ip3"
  param {
    lr_mult: 1
  }
  param {
    lr_mult: 2
  }
  inner_product_param {
    num_output: 10
    weight_filler {
      type: "xavier"
    }
    bias_filler {
      type: "constant"
    }
  }
}
layer {
  name: "relu3"
  type: "ReLU"
  bottom: "ip3"
  top: "ip3"
}
layer {
  name: "loss"
  type: "SoftmaxWithLoss"
  bottom: "ip3"
  bottom: "label"
  top: "loss"
}
I0428 19:31:03.463500 22477 layer_factory.hpp:77] Creating layer mnist
I0428 19:31:03.463637 22477 db_lmdb.cpp:35] Opened lmdb examples/mnist/mnist_train_lmdb
I0428 19:31:03.463670 22477 net.cpp:86] Creating Layer mnist
I0428 19:31:03.463685 22477 net.cpp:382] mnist -> data
I0428 19:31:03.463716 22477 net.cpp:382] mnist -> label
I0428 19:31:03.464951 22477 data_layer.cpp:45] output data size: 64,1,28,28
I0428 19:31:03.467653 22477 net.cpp:124] Setting up mnist
I0428 19:31:03.467674 22477 net.cpp:131] Top shape: 64 1 28 28 (50176)
I0428 19:31:03.467685 22477 net.cpp:131] Top shape: 64 (64)
I0428 19:31:03.467692 22477 net.cpp:139] Memory required for data: 200960
I0428 19:31:03.467702 22477 layer_factory.hpp:77] Creating layer conv0
I0428 19:31:03.467728 22477 net.cpp:86] Creating Layer conv0
I0428 19:31:03.467739 22477 net.cpp:408] conv0 <- data
I0428 19:31:03.467759 22477 net.cpp:382] conv0 -> conv0
I0428 19:31:03.708987 22477 net.cpp:124] Setting up conv0
I0428 19:31:03.709017 22477 net.cpp:131] Top shape: 64 5 24 24 (184320)
I0428 19:31:03.709023 22477 net.cpp:139] Memory required for data: 938240
I0428 19:31:03.709059 22477 layer_factory.hpp:77] Creating layer pool0
I0428 19:31:03.709079 22477 net.cpp:86] Creating Layer pool0
I0428 19:31:03.709103 22477 net.cpp:408] pool0 <- conv0
I0428 19:31:03.709113 22477 net.cpp:382] pool0 -> pool0
I0428 19:31:03.709179 22477 net.cpp:124] Setting up pool0
I0428 19:31:03.709187 22477 net.cpp:131] Top shape: 64 5 12 12 (46080)
I0428 19:31:03.709192 22477 net.cpp:139] Memory required for data: 1122560
I0428 19:31:03.709197 22477 layer_factory.hpp:77] Creating layer ip1
I0428 19:31:03.709208 22477 net.cpp:86] Creating Layer ip1
I0428 19:31:03.709216 22477 net.cpp:408] ip1 <- pool0
I0428 19:31:03.709224 22477 net.cpp:382] ip1 -> ip1
I0428 19:31:03.709498 22477 net.cpp:124] Setting up ip1
I0428 19:31:03.709507 22477 net.cpp:131] Top shape: 64 50 (3200)
I0428 19:31:03.709512 22477 net.cpp:139] Memory required for data: 1135360
I0428 19:31:03.709522 22477 layer_factory.hpp:77] Creating layer relu1
I0428 19:31:03.709535 22477 net.cpp:86] Creating Layer relu1
I0428 19:31:03.709542 22477 net.cpp:408] relu1 <- ip1
I0428 19:31:03.709547 22477 net.cpp:369] relu1 -> ip1 (in-place)
I0428 19:31:03.709693 22477 net.cpp:124] Setting up relu1
I0428 19:31:03.709702 22477 net.cpp:131] Top shape: 64 50 (3200)
I0428 19:31:03.709707 22477 net.cpp:139] Memory required for data: 1148160
I0428 19:31:03.709712 22477 layer_factory.hpp:77] Creating layer ip2
I0428 19:31:03.709722 22477 net.cpp:86] Creating Layer ip2
I0428 19:31:03.709727 22477 net.cpp:408] ip2 <- ip1
I0428 19:31:03.709733 22477 net.cpp:382] ip2 -> ip2
I0428 19:31:03.709837 22477 net.cpp:124] Setting up ip2
I0428 19:31:03.709846 22477 net.cpp:131] Top shape: 64 10 (640)
I0428 19:31:03.709849 22477 net.cpp:139] Memory required for data: 1150720
I0428 19:31:03.709877 22477 layer_factory.hpp:77] Creating layer relu2
I0428 19:31:03.709885 22477 net.cpp:86] Creating Layer relu2
I0428 19:31:03.709890 22477 net.cpp:408] relu2 <- ip2
I0428 19:31:03.709897 22477 net.cpp:369] relu2 -> ip2 (in-place)
I0428 19:31:03.710702 22477 net.cpp:124] Setting up relu2
I0428 19:31:03.710716 22477 net.cpp:131] Top shape: 64 10 (640)
I0428 19:31:03.710721 22477 net.cpp:139] Memory required for data: 1153280
I0428 19:31:03.710726 22477 layer_factory.hpp:77] Creating layer ip3
I0428 19:31:03.710737 22477 net.cpp:86] Creating Layer ip3
I0428 19:31:03.710743 22477 net.cpp:408] ip3 <- ip2
I0428 19:31:03.710752 22477 net.cpp:382] ip3 -> ip3
I0428 19:31:03.710850 22477 net.cpp:124] Setting up ip3
I0428 19:31:03.710860 22477 net.cpp:131] Top shape: 64 10 (640)
I0428 19:31:03.710865 22477 net.cpp:139] Memory required for data: 1155840
I0428 19:31:03.710873 22477 layer_factory.hpp:77] Creating layer relu3
I0428 19:31:03.710886 22477 net.cpp:86] Creating Layer relu3
I0428 19:31:03.710891 22477 net.cpp:408] relu3 <- ip3
I0428 19:31:03.710897 22477 net.cpp:369] relu3 -> ip3 (in-place)
I0428 19:31:03.711066 22477 net.cpp:124] Setting up relu3
I0428 19:31:03.711076 22477 net.cpp:131] Top shape: 64 10 (640)
I0428 19:31:03.711081 22477 net.cpp:139] Memory required for data: 1158400
I0428 19:31:03.711086 22477 layer_factory.hpp:77] Creating layer loss
I0428 19:31:03.711100 22477 net.cpp:86] Creating Layer loss
I0428 19:31:03.711107 22477 net.cpp:408] loss <- ip3
I0428 19:31:03.711113 22477 net.cpp:408] loss <- label
I0428 19:31:03.711122 22477 net.cpp:382] loss -> loss
I0428 19:31:03.711140 22477 layer_factory.hpp:77] Creating layer loss
…
I0428 19:31:03.711810 22477 solver.cpp:173] Creating test net (#0) specified by net file: ECE595/mnist/train_test/var_everything2/lenet_train_test110.prototxt
I0428 19:31:03.711840 22477 net.cpp:296] The NetState phase (1) differed from the phase (0) specified by a rule in layer mnist
I0428 19:31:03.711920 22477 net.cpp:53] Initializing net from parameters: 
name: "LeNet"
state {
  phase: TEST
}
layer {
  name: "mnist"
  type: "Data"
  top: "data"
  top: "label"
  include {
    phase: TEST
  }
  transform_param {
    scale: 0.00390625
  }
  data_param {
    source: "examples/mnist/mnist_test_lmdb"
    batch_size: 100
    backend: LMDB
  }
}
layer {
  name: "conv0"
  type: "Convolution"
  bottom: "data"
  top: "conv0"
  param {
    lr_mult: 1
  }
  param {
    lr_mult: 2
  }
  convolution_param {
    num_output: 5
    kernel_size: 5
    stride: 1
    weight_filler {
      type: "xavier"
    }
    bias_filler {
      type: "constant"
    }
  }
}
layer {
  name: "pool0"
  type: "Pooling"
  bottom: "conv0"
  top: "pool0"
  pooling_param {
    pool: MAX
    kernel_size: 2
    stride: 2
  }
}
layer {
  name: "ip1"
  type: "InnerProduct"
  bottom: "pool0"
  top: "ip1"
  param {
    lr_mult: 1
  }
  param {
    lr_mult: 2
  }
  inner_product_param {
    num_output: 50
    weight_filler {
      type: "xavier"
    }
    bias_filler {
      type: "constant"
    }
  }
}
layer {
  name: "relu1"
  type: "ReLU"
  bottom: "ip1"
  top: "ip1"
}
layer {
  name: "ip2"
  type: "InnerProduct"
  bottom: "ip1"
  top: "ip2"
  param {
    lr_mult: 1
  }
  param {
    lr_mult: 2
  }
  inner_product_param {
    num_output: 10
    weight_filler {
      type: "xavier"
    }
    bias_filler {
      type: "constant"
    }
  }
}
layer {
  name: "relu2"
  type: "ReLU"
  bottom: "ip2"
  top: "ip2"
}
layer {
  name: "ip3"
  type: "InnerProduct"
  bottom: "ip2"
  top: "ip3"
  param {
    lr_mult: 1
  }
  param {
    lr_mult: 2
  }
  inner_product_param {
    num_output: 10
    weight_filler {
      type: "xavier"
    }
    bias_filler {
      type: "constant"
    }
  }
}
layer {
  name: "relu3"
  type: "ReLU"
  bottom: "ip3"
  top: "ip3"
}
layer {
  name: "accuracy"
  type: "Accuracy"
  bottom: "ip3"
  bottom: "label"
  top: "accuracy"
  include {
    phase: TEST
  }
}
layer {
  name: "loss"
  type: "SoftmaxWithLoss"
  bottom: "ip3"
  bottom: "label"
  top: "loss"
}
I0428 19:31:03.712049 22477 layer_factory.hpp:77] Creating layer mnist
I0428 19:31:03.712108 22477 db_lmdb.cpp:35] Opened lmdb examples/mnist/mnist_test_lmdb
I0428 19:31:03.712124 22477 net.cpp:86] Creating Layer mnist
I0428 19:31:03.712133 22477 net.cpp:382] mnist -> data
I0428 19:31:03.712146 22477 net.cpp:382] mnist -> label
I0428 19:31:03.712261 22477 data_layer.cpp:45] output data size: 100,1,28,28
I0428 19:31:03.714429 22477 net.cpp:124] Setting up mnist
I0428 19:31:03.714445 22477 net.cpp:131] Top shape: 100 1 28 28 (78400)
I0428 19:31:03.714454 22477 net.cpp:131] Top shape: 100 (100)
I0428 19:31:03.714459 22477 net.cpp:139] Memory required for data: 314000
I0428 19:31:03.714464 22477 layer_factory.hpp:77] Creating layer label_mnist_1_split
I0428 19:31:03.714474 22477 net.cpp:86] Creating Layer label_mnist_1_split
I0428 19:31:03.714480 22477 net.cpp:408] label_mnist_1_split <- label
I0428 19:31:03.714490 22477 net.cpp:382] label_mnist_1_split -> label_mnist_1_split_0
I0428 19:31:03.714501 22477 net.cpp:382] label_mnist_1_split -> label_mnist_1_split_1
I0428 19:31:03.714553 22477 net.cpp:124] Setting up label_mnist_1_split
I0428 19:31:03.714561 22477 net.cpp:131] Top shape: 100 (100)
I0428 19:31:03.714568 22477 net.cpp:131] Top shape: 100 (100)
I0428 19:31:03.714573 22477 net.cpp:139] Memory required for data: 314800
I0428 19:31:03.714589 22477 layer_factory.hpp:77] Creating layer conv0
I0428 19:31:03.714606 22477 net.cpp:86] Creating Layer conv0
I0428 19:31:03.714612 22477 net.cpp:408] conv0 <- data
I0428 19:31:03.714622 22477 net.cpp:382] conv0 -> conv0
I0428 19:31:03.716125 22477 net.cpp:124] Setting up conv0
I0428 19:31:03.716140 22477 net.cpp:131] Top shape: 100 5 24 24 (288000)
I0428 19:31:03.716146 22477 net.cpp:139] Memory required for data: 1466800
I0428 19:31:03.716159 22477 layer_factory.hpp:77] Creating layer pool0
I0428 19:31:03.716169 22477 net.cpp:86] Creating Layer pool0
I0428 19:31:03.716190 22477 net.cpp:408] pool0 <- conv0
I0428 19:31:03.716200 22477 net.cpp:382] pool0 -> pool0
I0428 19:31:03.716243 22477 net.cpp:124] Setting up pool0
I0428 19:31:03.716250 22477 net.cpp:131] Top shape: 100 5 12 12 (72000)
I0428 19:31:03.716255 22477 net.cpp:139] Memory required for data: 1754800
I0428 19:31:03.716259 22477 layer_factory.hpp:77] Creating layer ip1
I0428 19:31:03.716272 22477 net.cpp:86] Creating Layer ip1
I0428 19:31:03.716279 22477 net.cpp:408] ip1 <- pool0
I0428 19:31:03.716287 22477 net.cpp:382] ip1 -> ip1
I0428 19:31:03.716672 22477 net.cpp:124] Setting up ip1
I0428 19:31:03.716683 22477 net.cpp:131] Top shape: 100 50 (5000)
I0428 19:31:03.716688 22477 net.cpp:139] Memory required for data: 1774800
I0428 19:31:03.716701 22477 layer_factory.hpp:77] Creating layer relu1
I0428 19:31:03.716709 22477 net.cpp:86] Creating Layer relu1
I0428 19:31:03.716717 22477 net.cpp:408] relu1 <- ip1
I0428 19:31:03.716728 22477 net.cpp:369] relu1 -> ip1 (in-place)
I0428 19:31:03.716928 22477 net.cpp:124] Setting up relu1
I0428 19:31:03.716939 22477 net.cpp:131] Top shape: 100 50 (5000)
I0428 19:31:03.716945 22477 net.cpp:139] Memory required for data: 1794800
I0428 19:31:03.716951 22477 layer_factory.hpp:77] Creating layer ip2
I0428 19:31:03.716965 22477 net.cpp:86] Creating Layer ip2
I0428 19:31:03.716972 22477 net.cpp:408] ip2 <- ip1
I0428 19:31:03.716980 22477 net.cpp:382] ip2 -> ip2
I0428 19:31:03.717111 22477 net.cpp:124] Setting up ip2
I0428 19:31:03.717135 22477 net.cpp:131] Top shape: 100 10 (1000)
I0428 19:31:03.717139 22477 net.cpp:139] Memory required for data: 1798800
I0428 19:31:03.717152 22477 layer_factory.hpp:77] Creating layer relu2
I0428 19:31:03.717178 22477 net.cpp:86] Creating Layer relu2
I0428 19:31:03.717185 22477 net.cpp:408] relu2 <- ip2
I0428 19:31:03.717192 22477 net.cpp:369] relu2 -> ip2 (in-place)
I0428 19:31:03.718014 22477 net.cpp:124] Setting up relu2
I0428 19:31:03.718029 22477 net.cpp:131] Top shape: 100 10 (1000)
I0428 19:31:03.718055 22477 net.cpp:139] Memory required for data: 1802800
I0428 19:31:03.718060 22477 layer_factory.hpp:77] Creating layer ip3
I0428 19:31:03.718073 22477 net.cpp:86] Creating Layer ip3
I0428 19:31:03.718080 22477 net.cpp:408] ip3 <- ip2
I0428 19:31:03.718092 22477 net.cpp:382] ip3 -> ip3
I0428 19:31:03.718221 22477 net.cpp:124] Setting up ip3
I0428 19:31:03.718231 22477 net.cpp:131] Top shape: 100 10 (1000)
I0428 19:31:03.718236 22477 net.cpp:139] Memory required for data: 1806800
I0428 19:31:03.718245 22477 layer_factory.hpp:77] Creating layer relu3
I0428 19:31:03.718255 22477 net.cpp:86] Creating Layer relu3
I0428 19:31:03.718260 22477 net.cpp:408] relu3 <- ip3
I0428 19:31:03.718266 22477 net.cpp:369] relu3 -> ip3 (in-place)
I0428 19:31:03.718421 22477 net.cpp:124] Setting up relu3
I0428 19:31:03.718430 22477 net.cpp:131] Top shape: 100 10 (1000)
I0428 19:31:03.718436 22477 net.cpp:139] Memory required for data: 1810800
I0428 19:31:03.718441 22477 layer_factory.hpp:77] Creating layer ip3_relu3_0_split
I0428 19:31:03.718447 22477 net.cpp:86] Creating Layer ip3_relu3_0_split
I0428 19:31:03.718453 22477 net.cpp:408] ip3_relu3_0_split <- ip3
I0428 19:31:03.718461 22477 net.cpp:382] ip3_relu3_0_split -> ip3_relu3_0_split_0
I0428 19:31:03.718468 22477 net.cpp:382] ip3_relu3_0_split -> ip3_relu3_0_split_1
I0428 19:31:03.718508 22477 net.cpp:124] Setting up ip3_relu3_0_split
I0428 19:31:03.718516 22477 net.cpp:131] Top shape: 100 10 (1000)
I0428 19:31:03.718538 22477 net.cpp:131] Top shape: 100 10 (1000)
I0428 19:31:03.718554 22477 net.cpp:139] Memory required for data: 1818800
I0428 19:31:03.718559 22477 layer_factory.hpp:77] Creating layer accuracy
I0428 19:31:03.718575 22477 net.cpp:86] Creating Layer accuracy
I0428 19:31:03.718582 22477 net.cpp:408] accuracy <- ip3_relu3_0_split_0
I0428 19:31:03.718605 22477 net.cpp:408] accuracy <- label_mnist_1_split_0
I0428 19:31:03.718613 22477 net.cpp:382] accuracy -> accuracy
…
