…
I0428 20:23:00.946969  2165 net.cpp:296] The NetState phase (0) differed from the phase (1) specified by a rule in layer mnist
I0428 20:23:00.946986  2165 net.cpp:296] The NetState phase (0) differed from the phase (1) specified by a rule in layer accuracy
I0428 20:23:00.947077  2165 net.cpp:53] Initializing net from parameters: 
name: "LeNet"
state {
  phase: TRAIN
  level: 0
  stage: ""
}
layer {
  name: "mnist"
  type: "Data"
  top: "data"
  top: "label"
  include {
    phase: TRAIN
  }
  transform_param {
    scale: 0.00390625
  }
  data_param {
    source: "examples/mnist/mnist_train_lmdb"
    batch_size: 64
    backend: LMDB
  }
}
layer {
  name: "conv0"
  type: "Convolution"
  bottom: "data"
  top: "conv0"
  param {
    lr_mult: 1
  }
  param {
    lr_mult: 2
  }
  convolution_param {
    num_output: 50
    kernel_size: 5
    stride: 1
    weight_filler {
      type: "xavier"
    }
    bias_filler {
      type: "constant"
    }
  }
}
layer {
  name: "pool0"
  type: "Pooling"
  bottom: "conv0"
  top: "pool0"
  pooling_param {
    pool: MAX
    kernel_size: 2
    stride: 2
  }
}
layer {
  name: "conv1"
  type: "Convolution"
  bottom: "pool0"
  top: "conv1"
  param {
    lr_mult: 1
  }
  param {
    lr_mult: 2
  }
  convolution_param {
    num_output: 100
    kernel_size: 5
    stride: 1
    weight_filler {
      type: "xavier"
    }
    bias_filler {
      type: "constant"
    }
  }
}
layer {
  name: "pool1"
  type: "Pooling"
  bottom: "conv1"
  top: "pool1"
  pooling_param {
    pool: MAX
    kernel_size: 2
    stride: 2
  }
}
layer {
  name: "ip1"
  type: "InnerProduct"
  bottom: "pool1"
  top: "ip1"
  param {
    lr_mult: 1
  }
  param {
    lr_mult: 2
  }
  inner_product_param {
    num_output: 50
    weight_filler {
      type: "xavier"
    }
    bias_filler {
      type: "constant"
    }
  }
}
layer {
  name: "relu1"
  type: "ReLU"
  bottom: "ip1"
  top: "ip1"
}
layer {
  name: "ip2"
  type: "InnerProduct"
  bottom: "ip1"
  top: "ip2"
  param {
    lr_mult: 1
  }
  param {
    lr_mult: 2
  }
  inner_product_param {
    num_output: 10
    weight_filler {
      type: "xavier"
    }
    bias_filler {
      type: "constant"
    }
  }
}
layer {
  name: "relu2"
  type: "ReLU"
  bottom: "ip2"
  top: "ip2"
}
layer {
  name: "loss"
  type: "SoftmaxWithLoss"
  bottom: "ip2"
  bottom: "label"
  top: "loss"
}
I0428 20:23:00.947152  2165 layer_factory.hpp:77] Creating layer mnist
I0428 20:23:00.947252  2165 db_lmdb.cpp:35] Opened lmdb examples/mnist/mnist_train_lmdb
I0428 20:23:00.947278  2165 net.cpp:86] Creating Layer mnist
I0428 20:23:00.947289  2165 net.cpp:382] mnist -> data
I0428 20:23:00.947314  2165 net.cpp:382] mnist -> label
I0428 20:23:00.948413  2165 data_layer.cpp:45] output data size: 64,1,28,28
I0428 20:23:00.950889  2165 net.cpp:124] Setting up mnist
I0428 20:23:00.950907  2165 net.cpp:131] Top shape: 64 1 28 28 (50176)
I0428 20:23:00.950913  2165 net.cpp:131] Top shape: 64 (64)
I0428 20:23:00.950917  2165 net.cpp:139] Memory required for data: 200960
I0428 20:23:00.950924  2165 layer_factory.hpp:77] Creating layer conv0
I0428 20:23:00.950940  2165 net.cpp:86] Creating Layer conv0
I0428 20:23:00.950947  2165 net.cpp:408] conv0 <- data
I0428 20:23:00.950959  2165 net.cpp:382] conv0 -> conv0
I0428 20:23:01.226610  2165 net.cpp:124] Setting up conv0
I0428 20:23:01.226637  2165 net.cpp:131] Top shape: 64 50 24 24 (1843200)
I0428 20:23:01.226641  2165 net.cpp:139] Memory required for data: 7573760
I0428 20:23:01.226689  2165 layer_factory.hpp:77] Creating layer pool0
I0428 20:23:01.226701  2165 net.cpp:86] Creating Layer pool0
I0428 20:23:01.226706  2165 net.cpp:408] pool0 <- conv0
I0428 20:23:01.226711  2165 net.cpp:382] pool0 -> pool0
I0428 20:23:01.226758  2165 net.cpp:124] Setting up pool0
I0428 20:23:01.226765  2165 net.cpp:131] Top shape: 64 50 12 12 (460800)
I0428 20:23:01.226768  2165 net.cpp:139] Memory required for data: 9416960
I0428 20:23:01.226771  2165 layer_factory.hpp:77] Creating layer conv1
I0428 20:23:01.226783  2165 net.cpp:86] Creating Layer conv1
I0428 20:23:01.226786  2165 net.cpp:408] conv1 <- pool0
I0428 20:23:01.226790  2165 net.cpp:382] conv1 -> conv1
I0428 20:23:01.230145  2165 net.cpp:124] Setting up conv1
I0428 20:23:01.230159  2165 net.cpp:131] Top shape: 64 100 8 8 (409600)
I0428 20:23:01.230162  2165 net.cpp:139] Memory required for data: 11055360
I0428 20:23:01.230171  2165 layer_factory.hpp:77] Creating layer pool1
I0428 20:23:01.230178  2165 net.cpp:86] Creating Layer pool1
I0428 20:23:01.230181  2165 net.cpp:408] pool1 <- conv1
I0428 20:23:01.230186  2165 net.cpp:382] pool1 -> pool1
I0428 20:23:01.230237  2165 net.cpp:124] Setting up pool1
I0428 20:23:01.230252  2165 net.cpp:131] Top shape: 64 100 4 4 (102400)
I0428 20:23:01.230254  2165 net.cpp:139] Memory required for data: 11464960
I0428 20:23:01.230257  2165 layer_factory.hpp:77] Creating layer ip1
I0428 20:23:01.230264  2165 net.cpp:86] Creating Layer ip1
I0428 20:23:01.230268  2165 net.cpp:408] ip1 <- pool1
I0428 20:23:01.230273  2165 net.cpp:382] ip1 -> ip1
I0428 20:23:01.230808  2165 net.cpp:124] Setting up ip1
I0428 20:23:01.230815  2165 net.cpp:131] Top shape: 64 50 (3200)
I0428 20:23:01.230818  2165 net.cpp:139] Memory required for data: 11477760
I0428 20:23:01.230826  2165 layer_factory.hpp:77] Creating layer relu1
I0428 20:23:01.230831  2165 net.cpp:86] Creating Layer relu1
I0428 20:23:01.230834  2165 net.cpp:408] relu1 <- ip1
I0428 20:23:01.230839  2165 net.cpp:369] relu1 -> ip1 (in-place)
I0428 20:23:01.230994  2165 net.cpp:124] Setting up relu1
I0428 20:23:01.231003  2165 net.cpp:131] Top shape: 64 50 (3200)
I0428 20:23:01.231006  2165 net.cpp:139] Memory required for data: 11490560
I0428 20:23:01.231009  2165 layer_factory.hpp:77] Creating layer ip2
I0428 20:23:01.231015  2165 net.cpp:86] Creating Layer ip2
I0428 20:23:01.231019  2165 net.cpp:408] ip2 <- ip1
I0428 20:23:01.231022  2165 net.cpp:382] ip2 -> ip2
I0428 20:23:01.231115  2165 net.cpp:124] Setting up ip2
I0428 20:23:01.231122  2165 net.cpp:131] Top shape: 64 10 (640)
I0428 20:23:01.231125  2165 net.cpp:139] Memory required for data: 11493120
I0428 20:23:01.231130  2165 layer_factory.hpp:77] Creating layer relu2
I0428 20:23:01.231137  2165 net.cpp:86] Creating Layer relu2
I0428 20:23:01.231139  2165 net.cpp:408] relu2 <- ip2
I0428 20:23:01.231143  2165 net.cpp:369] relu2 -> ip2 (in-place)
I0428 20:23:01.231930  2165 net.cpp:124] Setting up relu2
I0428 20:23:01.231957  2165 net.cpp:131] Top shape: 64 10 (640)
I0428 20:23:01.231961  2165 net.cpp:139] Memory required for data: 11495680
I0428 20:23:01.231966  2165 layer_factory.hpp:77] Creating layer loss
I0428 20:23:01.231971  2165 net.cpp:86] Creating Layer loss
I0428 20:23:01.231974  2165 net.cpp:408] loss <- ip2
I0428 20:23:01.231979  2165 net.cpp:408] loss <- label
I0428 20:23:01.231986  2165 net.cpp:382] loss -> loss
I0428 20:23:01.232004  2165 layer_factory.hpp:77] Creating layer loss
…
I0428 20:23:01.232630  2165 solver.cpp:173] Creating test net (#0) specified by net file: ECE595/mnist/train_test/var_everything2/lenet_train_test1414.prototxt
I0428 20:23:01.232655  2165 net.cpp:296] The NetState phase (1) differed from the phase (0) specified by a rule in layer mnist
I0428 20:23:01.232739  2165 net.cpp:53] Initializing net from parameters: 
name: "LeNet"
state {
  phase: TEST
}
layer {
  name: "mnist"
  type: "Data"
  top: "data"
  top: "label"
  include {
    phase: TEST
  }
  transform_param {
    scale: 0.00390625
  }
  data_param {
    source: "examples/mnist/mnist_test_lmdb"
    batch_size: 100
    backend: LMDB
  }
}
layer {
  name: "conv0"
  type: "Convolution"
  bottom: "data"
  top: "conv0"
  param {
    lr_mult: 1
  }
  param {
    lr_mult: 2
  }
  convolution_param {
    num_output: 50
    kernel_size: 5
    stride: 1
    weight_filler {
      type: "xavier"
    }
    bias_filler {
      type: "constant"
    }
  }
}
layer {
  name: "pool0"
  type: "Pooling"
  bottom: "conv0"
  top: "pool0"
  pooling_param {
    pool: MAX
    kernel_size: 2
    stride: 2
  }
}
layer {
  name: "conv1"
  type: "Convolution"
  bottom: "pool0"
  top: "conv1"
  param {
    lr_mult: 1
  }
  param {
    lr_mult: 2
  }
  convolution_param {
    num_output: 100
    kernel_size: 5
    stride: 1
    weight_filler {
      type: "xavier"
    }
    bias_filler {
      type: "constant"
    }
  }
}
layer {
  name: "pool1"
  type: "Pooling"
  bottom: "conv1"
  top: "pool1"
  pooling_param {
    pool: MAX
    kernel_size: 2
    stride: 2
  }
}
layer {
  name: "ip1"
  type: "InnerProduct"
  bottom: "pool1"
  top: "ip1"
  param {
    lr_mult: 1
  }
  param {
    lr_mult: 2
  }
  inner_product_param {
    num_output: 50
    weight_filler {
      type: "xavier"
    }
    bias_filler {
      type: "constant"
    }
  }
}
layer {
  name: "relu1"
  type: "ReLU"
  bottom: "ip1"
  top: "ip1"
}
layer {
  name: "ip2"
  type: "InnerProduct"
  bottom: "ip1"
  top: "ip2"
  param {
    lr_mult: 1
  }
  param {
    lr_mult: 2
  }
  inner_product_param {
    num_output: 10
    weight_filler {
      type: "xavier"
    }
    bias_filler {
      type: "constant"
    }
  }
}
layer {
  name: "relu2"
  type: "ReLU"
  bottom: "ip2"
  top: "ip2"
}
layer {
  name: "accuracy"
  type: "Accuracy"
  bottom: "ip2"
  bottom: "label"
  top: "accuracy"
  include {
    phase: TEST
  }
}
layer {
  name: "loss"
  type: "SoftmaxWithLoss"
  bottom: "ip2"
  bottom: "label"
  top: "loss"
}
I0428 20:23:01.232801  2165 layer_factory.hpp:77] Creating layer mnist
I0428 20:23:01.232870  2165 db_lmdb.cpp:35] Opened lmdb examples/mnist/mnist_test_lmdb
I0428 20:23:01.232899  2165 net.cpp:86] Creating Layer mnist
I0428 20:23:01.232905  2165 net.cpp:382] mnist -> data
I0428 20:23:01.232913  2165 net.cpp:382] mnist -> label
I0428 20:23:01.233012  2165 data_layer.cpp:45] output data size: 100,1,28,28
I0428 20:23:01.234185  2165 net.cpp:124] Setting up mnist
I0428 20:23:01.234215  2165 net.cpp:131] Top shape: 100 1 28 28 (78400)
I0428 20:23:01.234220  2165 net.cpp:131] Top shape: 100 (100)
I0428 20:23:01.234222  2165 net.cpp:139] Memory required for data: 314000
I0428 20:23:01.234241  2165 layer_factory.hpp:77] Creating layer label_mnist_1_split
I0428 20:23:01.234266  2165 net.cpp:86] Creating Layer label_mnist_1_split
I0428 20:23:01.234269  2165 net.cpp:408] label_mnist_1_split <- label
I0428 20:23:01.234274  2165 net.cpp:382] label_mnist_1_split -> label_mnist_1_split_0
I0428 20:23:01.234282  2165 net.cpp:382] label_mnist_1_split -> label_mnist_1_split_1
I0428 20:23:01.234334  2165 net.cpp:124] Setting up label_mnist_1_split
I0428 20:23:01.234344  2165 net.cpp:131] Top shape: 100 (100)
I0428 20:23:01.234349  2165 net.cpp:131] Top shape: 100 (100)
I0428 20:23:01.234351  2165 net.cpp:139] Memory required for data: 314800
I0428 20:23:01.234354  2165 layer_factory.hpp:77] Creating layer conv0
I0428 20:23:01.234364  2165 net.cpp:86] Creating Layer conv0
I0428 20:23:01.234366  2165 net.cpp:408] conv0 <- data
I0428 20:23:01.234371  2165 net.cpp:382] conv0 -> conv0
I0428 20:23:01.235983  2165 net.cpp:124] Setting up conv0
I0428 20:23:01.236012  2165 net.cpp:131] Top shape: 100 50 24 24 (2880000)
I0428 20:23:01.236016  2165 net.cpp:139] Memory required for data: 11834800
I0428 20:23:01.236026  2165 layer_factory.hpp:77] Creating layer pool0
I0428 20:23:01.236032  2165 net.cpp:86] Creating Layer pool0
I0428 20:23:01.236035  2165 net.cpp:408] pool0 <- conv0
I0428 20:23:01.236039  2165 net.cpp:382] pool0 -> pool0
I0428 20:23:01.236074  2165 net.cpp:124] Setting up pool0
I0428 20:23:01.236079  2165 net.cpp:131] Top shape: 100 50 12 12 (720000)
I0428 20:23:01.236083  2165 net.cpp:139] Memory required for data: 14714800
I0428 20:23:01.236085  2165 layer_factory.hpp:77] Creating layer conv1
I0428 20:23:01.236093  2165 net.cpp:86] Creating Layer conv1
I0428 20:23:01.236096  2165 net.cpp:408] conv1 <- pool0
I0428 20:23:01.236101  2165 net.cpp:382] conv1 -> conv1
I0428 20:23:01.239208  2165 net.cpp:124] Setting up conv1
I0428 20:23:01.239220  2165 net.cpp:131] Top shape: 100 100 8 8 (640000)
I0428 20:23:01.239224  2165 net.cpp:139] Memory required for data: 17274800
I0428 20:23:01.239233  2165 layer_factory.hpp:77] Creating layer pool1
I0428 20:23:01.239238  2165 net.cpp:86] Creating Layer pool1
I0428 20:23:01.239241  2165 net.cpp:408] pool1 <- conv1
I0428 20:23:01.239245  2165 net.cpp:382] pool1 -> pool1
I0428 20:23:01.239302  2165 net.cpp:124] Setting up pool1
I0428 20:23:01.239308  2165 net.cpp:131] Top shape: 100 100 4 4 (160000)
I0428 20:23:01.239311  2165 net.cpp:139] Memory required for data: 17914800
I0428 20:23:01.239315  2165 layer_factory.hpp:77] Creating layer ip1
I0428 20:23:01.239336  2165 net.cpp:86] Creating Layer ip1
I0428 20:23:01.239339  2165 net.cpp:408] ip1 <- pool1
I0428 20:23:01.239344  2165 net.cpp:382] ip1 -> ip1
I0428 20:23:01.239928  2165 net.cpp:124] Setting up ip1
I0428 20:23:01.239936  2165 net.cpp:131] Top shape: 100 50 (5000)
I0428 20:23:01.239955  2165 net.cpp:139] Memory required for data: 17934800
I0428 20:23:01.239962  2165 layer_factory.hpp:77] Creating layer relu1
I0428 20:23:01.239967  2165 net.cpp:86] Creating Layer relu1
I0428 20:23:01.239971  2165 net.cpp:408] relu1 <- ip1
I0428 20:23:01.239975  2165 net.cpp:369] relu1 -> ip1 (in-place)
I0428 20:23:01.240205  2165 net.cpp:124] Setting up relu1
I0428 20:23:01.240214  2165 net.cpp:131] Top shape: 100 50 (5000)
I0428 20:23:01.240218  2165 net.cpp:139] Memory required for data: 17954800
I0428 20:23:01.240221  2165 layer_factory.hpp:77] Creating layer ip2
I0428 20:23:01.240232  2165 net.cpp:86] Creating Layer ip2
I0428 20:23:01.240236  2165 net.cpp:408] ip2 <- ip1
I0428 20:23:01.240241  2165 net.cpp:382] ip2 -> ip2
I0428 20:23:01.240357  2165 net.cpp:124] Setting up ip2
I0428 20:23:01.240367  2165 net.cpp:131] Top shape: 100 10 (1000)
I0428 20:23:01.240370  2165 net.cpp:139] Memory required for data: 17958800
I0428 20:23:01.240375  2165 layer_factory.hpp:77] Creating layer relu2
I0428 20:23:01.240381  2165 net.cpp:86] Creating Layer relu2
I0428 20:23:01.240383  2165 net.cpp:408] relu2 <- ip2
I0428 20:23:01.240387  2165 net.cpp:369] relu2 -> ip2 (in-place)
I0428 20:23:01.240569  2165 net.cpp:124] Setting up relu2
I0428 20:23:01.240577  2165 net.cpp:131] Top shape: 100 10 (1000)
I0428 20:23:01.240581  2165 net.cpp:139] Memory required for data: 17962800
I0428 20:23:01.240584  2165 layer_factory.hpp:77] Creating layer ip2_relu2_0_split
I0428 20:23:01.240589  2165 net.cpp:86] Creating Layer ip2_relu2_0_split
I0428 20:23:01.240592  2165 net.cpp:408] ip2_relu2_0_split <- ip2
I0428 20:23:01.240597  2165 net.cpp:382] ip2_relu2_0_split -> ip2_relu2_0_split_0
I0428 20:23:01.240613  2165 net.cpp:382] ip2_relu2_0_split -> ip2_relu2_0_split_1
I0428 20:23:01.240650  2165 net.cpp:124] Setting up ip2_relu2_0_split
I0428 20:23:01.240658  2165 net.cpp:131] Top shape: 100 10 (1000)
I0428 20:23:01.240663  2165 net.cpp:131] Top shape: 100 10 (1000)
I0428 20:23:01.240665  2165 net.cpp:139] Memory required for data: 17970800
I0428 20:23:01.240669  2165 layer_factory.hpp:77] Creating layer accuracy
I0428 20:23:01.240674  2165 net.cpp:86] Creating Layer accuracy
I0428 20:23:01.240677  2165 net.cpp:408] accuracy <- ip2_relu2_0_split_0
I0428 20:23:01.240681  2165 net.cpp:408] accuracy <- label_mnist_1_split_0
I0428 20:23:01.240686  2165 net.cpp:382] accuracy -> accuracy
…
