…
I0428 20:12:29.685961 32261 net.cpp:296] The NetState phase (0) differed from the phase (1) specified by a rule in layer mnist
I0428 20:12:29.685978 32261 net.cpp:296] The NetState phase (0) differed from the phase (1) specified by a rule in layer accuracy
I0428 20:12:29.686067 32261 net.cpp:53] Initializing net from parameters: 
name: "LeNet"
state {
  phase: TRAIN
  level: 0
  stage: ""
}
layer {
  name: "mnist"
  type: "Data"
  top: "data"
  top: "label"
  include {
    phase: TRAIN
  }
  transform_param {
    scale: 0.00390625
  }
  data_param {
    source: "examples/mnist/mnist_train_lmdb"
    batch_size: 64
    backend: LMDB
  }
}
layer {
  name: "conv0"
  type: "Convolution"
  bottom: "data"
  top: "conv0"
  param {
    lr_mult: 1
  }
  param {
    lr_mult: 2
  }
  convolution_param {
    num_output: 25
    kernel_size: 5
    stride: 1
    weight_filler {
      type: "xavier"
    }
    bias_filler {
      type: "constant"
    }
  }
}
layer {
  name: "pool0"
  type: "Pooling"
  bottom: "conv0"
  top: "pool0"
  pooling_param {
    pool: MAX
    kernel_size: 2
    stride: 2
  }
}
layer {
  name: "conv1"
  type: "Convolution"
  bottom: "pool0"
  top: "conv1"
  param {
    lr_mult: 1
  }
  param {
    lr_mult: 2
  }
  convolution_param {
    num_output: 100
    kernel_size: 5
    stride: 1
    weight_filler {
      type: "xavier"
    }
    bias_filler {
      type: "constant"
    }
  }
}
layer {
  name: "pool1"
  type: "Pooling"
  bottom: "conv1"
  top: "pool1"
  pooling_param {
    pool: MAX
    kernel_size: 2
    stride: 2
  }
}
layer {
  name: "ip1"
  type: "InnerProduct"
  bottom: "pool1"
  top: "ip1"
  param {
    lr_mult: 1
  }
  param {
    lr_mult: 2
  }
  inner_product_param {
    num_output: 50
    weight_filler {
      type: "xavier"
    }
    bias_filler {
      type: "constant"
    }
  }
}
layer {
  name: "relu1"
  type: "ReLU"
  bottom: "ip1"
  top: "ip1"
}
layer {
  name: "ip2"
  type: "InnerProduct"
  bottom: "ip1"
  top: "ip2"
  param {
    lr_mult: 1
  }
  param {
    lr_mult: 2
  }
  inner_product_param {
    num_output: 10
    weight_filler {
      type: "xavier"
    }
    bias_filler {
      type: "constant"
    }
  }
}
layer {
  name: "relu2"
  type: "ReLU"
  bottom: "ip2"
  top: "ip2"
}
layer {
  name: "loss"
  type: "SoftmaxWithLoss"
  bottom: "ip2"
  bottom: "label"
  top: "loss"
}
I0428 20:12:29.686146 32261 layer_factory.hpp:77] Creating layer mnist
I0428 20:12:29.686247 32261 db_lmdb.cpp:35] Opened lmdb examples/mnist/mnist_train_lmdb
I0428 20:12:29.686270 32261 net.cpp:86] Creating Layer mnist
I0428 20:12:29.686280 32261 net.cpp:382] mnist -> data
I0428 20:12:29.686300 32261 net.cpp:382] mnist -> label
I0428 20:12:29.687389 32261 data_layer.cpp:45] output data size: 64,1,28,28
I0428 20:12:29.690093 32261 net.cpp:124] Setting up mnist
I0428 20:12:29.690111 32261 net.cpp:131] Top shape: 64 1 28 28 (50176)
I0428 20:12:29.690117 32261 net.cpp:131] Top shape: 64 (64)
I0428 20:12:29.690121 32261 net.cpp:139] Memory required for data: 200960
I0428 20:12:29.690129 32261 layer_factory.hpp:77] Creating layer conv0
I0428 20:12:29.690187 32261 net.cpp:86] Creating Layer conv0
I0428 20:12:29.690196 32261 net.cpp:408] conv0 <- data
I0428 20:12:29.690228 32261 net.cpp:382] conv0 -> conv0
I0428 20:12:29.973090 32261 net.cpp:124] Setting up conv0
I0428 20:12:29.973135 32261 net.cpp:131] Top shape: 64 25 24 24 (921600)
I0428 20:12:29.973140 32261 net.cpp:139] Memory required for data: 3887360
I0428 20:12:29.973206 32261 layer_factory.hpp:77] Creating layer pool0
I0428 20:12:29.973229 32261 net.cpp:86] Creating Layer pool0
I0428 20:12:29.973233 32261 net.cpp:408] pool0 <- conv0
I0428 20:12:29.973239 32261 net.cpp:382] pool0 -> pool0
I0428 20:12:29.973295 32261 net.cpp:124] Setting up pool0
I0428 20:12:29.973302 32261 net.cpp:131] Top shape: 64 25 12 12 (230400)
I0428 20:12:29.973305 32261 net.cpp:139] Memory required for data: 4808960
I0428 20:12:29.973309 32261 layer_factory.hpp:77] Creating layer conv1
I0428 20:12:29.973320 32261 net.cpp:86] Creating Layer conv1
I0428 20:12:29.973325 32261 net.cpp:408] conv1 <- pool0
I0428 20:12:29.973330 32261 net.cpp:382] conv1 -> conv1
I0428 20:12:29.975519 32261 net.cpp:124] Setting up conv1
I0428 20:12:29.975534 32261 net.cpp:131] Top shape: 64 100 8 8 (409600)
I0428 20:12:29.975538 32261 net.cpp:139] Memory required for data: 6447360
I0428 20:12:29.975563 32261 layer_factory.hpp:77] Creating layer pool1
I0428 20:12:29.975569 32261 net.cpp:86] Creating Layer pool1
I0428 20:12:29.975574 32261 net.cpp:408] pool1 <- conv1
I0428 20:12:29.975579 32261 net.cpp:382] pool1 -> pool1
I0428 20:12:29.975632 32261 net.cpp:124] Setting up pool1
I0428 20:12:29.975639 32261 net.cpp:131] Top shape: 64 100 4 4 (102400)
I0428 20:12:29.975642 32261 net.cpp:139] Memory required for data: 6856960
I0428 20:12:29.975646 32261 layer_factory.hpp:77] Creating layer ip1
I0428 20:12:29.975652 32261 net.cpp:86] Creating Layer ip1
I0428 20:12:29.975656 32261 net.cpp:408] ip1 <- pool1
I0428 20:12:29.975661 32261 net.cpp:382] ip1 -> ip1
I0428 20:12:29.977072 32261 net.cpp:124] Setting up ip1
I0428 20:12:29.977084 32261 net.cpp:131] Top shape: 64 50 (3200)
I0428 20:12:29.977088 32261 net.cpp:139] Memory required for data: 6869760
I0428 20:12:29.977095 32261 layer_factory.hpp:77] Creating layer relu1
I0428 20:12:29.977102 32261 net.cpp:86] Creating Layer relu1
I0428 20:12:29.977104 32261 net.cpp:408] relu1 <- ip1
I0428 20:12:29.977109 32261 net.cpp:369] relu1 -> ip1 (in-place)
I0428 20:12:29.977279 32261 net.cpp:124] Setting up relu1
I0428 20:12:29.977288 32261 net.cpp:131] Top shape: 64 50 (3200)
I0428 20:12:29.977291 32261 net.cpp:139] Memory required for data: 6882560
I0428 20:12:29.977294 32261 layer_factory.hpp:77] Creating layer ip2
I0428 20:12:29.977301 32261 net.cpp:86] Creating Layer ip2
I0428 20:12:29.977304 32261 net.cpp:408] ip2 <- ip1
I0428 20:12:29.977309 32261 net.cpp:382] ip2 -> ip2
I0428 20:12:29.977411 32261 net.cpp:124] Setting up ip2
I0428 20:12:29.977417 32261 net.cpp:131] Top shape: 64 10 (640)
I0428 20:12:29.977421 32261 net.cpp:139] Memory required for data: 6885120
I0428 20:12:29.977425 32261 layer_factory.hpp:77] Creating layer relu2
I0428 20:12:29.977432 32261 net.cpp:86] Creating Layer relu2
I0428 20:12:29.977434 32261 net.cpp:408] relu2 <- ip2
I0428 20:12:29.977439 32261 net.cpp:369] relu2 -> ip2 (in-place)
I0428 20:12:29.978240 32261 net.cpp:124] Setting up relu2
I0428 20:12:29.978251 32261 net.cpp:131] Top shape: 64 10 (640)
I0428 20:12:29.978255 32261 net.cpp:139] Memory required for data: 6887680
I0428 20:12:29.978258 32261 layer_factory.hpp:77] Creating layer loss
I0428 20:12:29.978265 32261 net.cpp:86] Creating Layer loss
I0428 20:12:29.978267 32261 net.cpp:408] loss <- ip2
I0428 20:12:29.978271 32261 net.cpp:408] loss <- label
I0428 20:12:29.978278 32261 net.cpp:382] loss -> loss
I0428 20:12:29.978299 32261 layer_factory.hpp:77] Creating layer loss
…
I0428 20:12:29.978929 32261 solver.cpp:173] Creating test net (#0) specified by net file: ECE595/mnist/train_test/var_everything2/lenet_train_test1181.prototxt
I0428 20:12:29.978952 32261 net.cpp:296] The NetState phase (1) differed from the phase (0) specified by a rule in layer mnist
I0428 20:12:29.979034 32261 net.cpp:53] Initializing net from parameters: 
name: "LeNet"
state {
  phase: TEST
}
layer {
  name: "mnist"
  type: "Data"
  top: "data"
  top: "label"
  include {
    phase: TEST
  }
  transform_param {
    scale: 0.00390625
  }
  data_param {
    source: "examples/mnist/mnist_test_lmdb"
    batch_size: 100
    backend: LMDB
  }
}
layer {
  name: "conv0"
  type: "Convolution"
  bottom: "data"
  top: "conv0"
  param {
    lr_mult: 1
  }
  param {
    lr_mult: 2
  }
  convolution_param {
    num_output: 25
    kernel_size: 5
    stride: 1
    weight_filler {
      type: "xavier"
    }
    bias_filler {
      type: "constant"
    }
  }
}
layer {
  name: "pool0"
  type: "Pooling"
  bottom: "conv0"
  top: "pool0"
  pooling_param {
    pool: MAX
    kernel_size: 2
    stride: 2
  }
}
layer {
  name: "conv1"
  type: "Convolution"
  bottom: "pool0"
  top: "conv1"
  param {
    lr_mult: 1
  }
  param {
    lr_mult: 2
  }
  convolution_param {
    num_output: 100
    kernel_size: 5
    stride: 1
    weight_filler {
      type: "xavier"
    }
    bias_filler {
      type: "constant"
    }
  }
}
layer {
  name: "pool1"
  type: "Pooling"
  bottom: "conv1"
  top: "pool1"
  pooling_param {
    pool: MAX
    kernel_size: 2
    stride: 2
  }
}
layer {
  name: "ip1"
  type: "InnerProduct"
  bottom: "pool1"
  top: "ip1"
  param {
    lr_mult: 1
  }
  param {
    lr_mult: 2
  }
  inner_product_param {
    num_output: 50
    weight_filler {
      type: "xavier"
    }
    bias_filler {
      type: "constant"
    }
  }
}
layer {
  name: "relu1"
  type: "ReLU"
  bottom: "ip1"
  top: "ip1"
}
layer {
  name: "ip2"
  type: "InnerProduct"
  bottom: "ip1"
  top: "ip2"
  param {
    lr_mult: 1
  }
  param {
    lr_mult: 2
  }
  inner_product_param {
    num_output: 10
    weight_filler {
      type: "xavier"
    }
    bias_filler {
      type: "constant"
    }
  }
}
layer {
  name: "relu2"
  type: "ReLU"
  bottom: "ip2"
  top: "ip2"
}
layer {
  name: "accuracy"
  type: "Accuracy"
  bottom: "ip2"
  bottom: "label"
  top: "accuracy"
  include {
    phase: TEST
  }
}
layer {
  name: "loss"
  type: "SoftmaxWithLoss"
  bottom: "ip2"
  bottom: "label"
  top: "loss"
}
I0428 20:12:29.979120 32261 layer_factory.hpp:77] Creating layer mnist
I0428 20:12:29.979166 32261 db_lmdb.cpp:35] Opened lmdb examples/mnist/mnist_test_lmdb
I0428 20:12:29.979178 32261 net.cpp:86] Creating Layer mnist
I0428 20:12:29.979184 32261 net.cpp:382] mnist -> data
I0428 20:12:29.979192 32261 net.cpp:382] mnist -> label
I0428 20:12:29.979275 32261 data_layer.cpp:45] output data size: 100,1,28,28
I0428 20:12:29.980326 32261 net.cpp:124] Setting up mnist
I0428 20:12:29.980340 32261 net.cpp:131] Top shape: 100 1 28 28 (78400)
I0428 20:12:29.980345 32261 net.cpp:131] Top shape: 100 (100)
I0428 20:12:29.980347 32261 net.cpp:139] Memory required for data: 314000
I0428 20:12:29.980351 32261 layer_factory.hpp:77] Creating layer label_mnist_1_split
I0428 20:12:29.980376 32261 net.cpp:86] Creating Layer label_mnist_1_split
I0428 20:12:29.980393 32261 net.cpp:408] label_mnist_1_split <- label
I0428 20:12:29.980399 32261 net.cpp:382] label_mnist_1_split -> label_mnist_1_split_0
I0428 20:12:29.980406 32261 net.cpp:382] label_mnist_1_split -> label_mnist_1_split_1
I0428 20:12:29.980518 32261 net.cpp:124] Setting up label_mnist_1_split
I0428 20:12:29.980526 32261 net.cpp:131] Top shape: 100 (100)
I0428 20:12:29.980530 32261 net.cpp:131] Top shape: 100 (100)
I0428 20:12:29.980532 32261 net.cpp:139] Memory required for data: 314800
I0428 20:12:29.980535 32261 layer_factory.hpp:77] Creating layer conv0
I0428 20:12:29.980545 32261 net.cpp:86] Creating Layer conv0
I0428 20:12:29.980548 32261 net.cpp:408] conv0 <- data
I0428 20:12:29.980566 32261 net.cpp:382] conv0 -> conv0
I0428 20:12:29.982152 32261 net.cpp:124] Setting up conv0
I0428 20:12:29.982167 32261 net.cpp:131] Top shape: 100 25 24 24 (1440000)
I0428 20:12:29.982172 32261 net.cpp:139] Memory required for data: 6074800
I0428 20:12:29.982180 32261 layer_factory.hpp:77] Creating layer pool0
I0428 20:12:29.982187 32261 net.cpp:86] Creating Layer pool0
I0428 20:12:29.982192 32261 net.cpp:408] pool0 <- conv0
I0428 20:12:29.982197 32261 net.cpp:382] pool0 -> pool0
I0428 20:12:29.982235 32261 net.cpp:124] Setting up pool0
I0428 20:12:29.982242 32261 net.cpp:131] Top shape: 100 25 12 12 (360000)
I0428 20:12:29.982246 32261 net.cpp:139] Memory required for data: 7514800
I0428 20:12:29.982249 32261 layer_factory.hpp:77] Creating layer conv1
I0428 20:12:29.982259 32261 net.cpp:86] Creating Layer conv1
I0428 20:12:29.982262 32261 net.cpp:408] conv1 <- pool0
I0428 20:12:29.982269 32261 net.cpp:382] conv1 -> conv1
I0428 20:12:29.984074 32261 net.cpp:124] Setting up conv1
I0428 20:12:29.984088 32261 net.cpp:131] Top shape: 100 100 8 8 (640000)
I0428 20:12:29.984092 32261 net.cpp:139] Memory required for data: 10074800
I0428 20:12:29.984102 32261 layer_factory.hpp:77] Creating layer pool1
I0428 20:12:29.984108 32261 net.cpp:86] Creating Layer pool1
I0428 20:12:29.984112 32261 net.cpp:408] pool1 <- conv1
I0428 20:12:29.984117 32261 net.cpp:382] pool1 -> pool1
I0428 20:12:29.984154 32261 net.cpp:124] Setting up pool1
I0428 20:12:29.984160 32261 net.cpp:131] Top shape: 100 100 4 4 (160000)
I0428 20:12:29.984181 32261 net.cpp:139] Memory required for data: 10714800
I0428 20:12:29.984190 32261 layer_factory.hpp:77] Creating layer ip1
I0428 20:12:29.984197 32261 net.cpp:86] Creating Layer ip1
I0428 20:12:29.984200 32261 net.cpp:408] ip1 <- pool1
I0428 20:12:29.984206 32261 net.cpp:382] ip1 -> ip1
I0428 20:12:29.984772 32261 net.cpp:124] Setting up ip1
I0428 20:12:29.984781 32261 net.cpp:131] Top shape: 100 50 (5000)
I0428 20:12:29.984784 32261 net.cpp:139] Memory required for data: 10734800
I0428 20:12:29.984791 32261 layer_factory.hpp:77] Creating layer relu1
I0428 20:12:29.984797 32261 net.cpp:86] Creating Layer relu1
I0428 20:12:29.984799 32261 net.cpp:408] relu1 <- ip1
I0428 20:12:29.984808 32261 net.cpp:369] relu1 -> ip1 (in-place)
I0428 20:12:29.985018 32261 net.cpp:124] Setting up relu1
I0428 20:12:29.985028 32261 net.cpp:131] Top shape: 100 50 (5000)
I0428 20:12:29.985031 32261 net.cpp:139] Memory required for data: 10754800
I0428 20:12:29.985034 32261 layer_factory.hpp:77] Creating layer ip2
I0428 20:12:29.985043 32261 net.cpp:86] Creating Layer ip2
I0428 20:12:29.985045 32261 net.cpp:408] ip2 <- ip1
I0428 20:12:29.985051 32261 net.cpp:382] ip2 -> ip2
I0428 20:12:29.985155 32261 net.cpp:124] Setting up ip2
I0428 20:12:29.985162 32261 net.cpp:131] Top shape: 100 10 (1000)
I0428 20:12:29.985164 32261 net.cpp:139] Memory required for data: 10758800
I0428 20:12:29.985169 32261 layer_factory.hpp:77] Creating layer relu2
I0428 20:12:29.985175 32261 net.cpp:86] Creating Layer relu2
I0428 20:12:29.985178 32261 net.cpp:408] relu2 <- ip2
I0428 20:12:29.985182 32261 net.cpp:369] relu2 -> ip2 (in-place)
I0428 20:12:29.985343 32261 net.cpp:124] Setting up relu2
I0428 20:12:29.985352 32261 net.cpp:131] Top shape: 100 10 (1000)
I0428 20:12:29.985354 32261 net.cpp:139] Memory required for data: 10762800
I0428 20:12:29.985357 32261 layer_factory.hpp:77] Creating layer ip2_relu2_0_split
I0428 20:12:29.985363 32261 net.cpp:86] Creating Layer ip2_relu2_0_split
I0428 20:12:29.985365 32261 net.cpp:408] ip2_relu2_0_split <- ip2
I0428 20:12:29.985369 32261 net.cpp:382] ip2_relu2_0_split -> ip2_relu2_0_split_0
I0428 20:12:29.985385 32261 net.cpp:382] ip2_relu2_0_split -> ip2_relu2_0_split_1
I0428 20:12:29.985421 32261 net.cpp:124] Setting up ip2_relu2_0_split
I0428 20:12:29.985427 32261 net.cpp:131] Top shape: 100 10 (1000)
I0428 20:12:29.985430 32261 net.cpp:131] Top shape: 100 10 (1000)
I0428 20:12:29.985433 32261 net.cpp:139] Memory required for data: 10770800
I0428 20:12:29.985436 32261 layer_factory.hpp:77] Creating layer accuracy
I0428 20:12:29.985440 32261 net.cpp:86] Creating Layer accuracy
I0428 20:12:29.985443 32261 net.cpp:408] accuracy <- ip2_relu2_0_split_0
I0428 20:12:29.985447 32261 net.cpp:408] accuracy <- label_mnist_1_split_0
I0428 20:12:29.985452 32261 net.cpp:382] accuracy -> accuracy
…
