…
I0428 19:53:42.666275 27828 net.cpp:296] The NetState phase (0) differed from the phase (1) specified by a rule in layer mnist
I0428 19:53:42.666288 27828 net.cpp:296] The NetState phase (0) differed from the phase (1) specified by a rule in layer accuracy
I0428 19:53:42.666365 27828 net.cpp:53] Initializing net from parameters: 
name: "LeNet"
state {
  phase: TRAIN
  level: 0
  stage: ""
}
layer {
  name: "mnist"
  type: "Data"
  top: "data"
  top: "label"
  include {
    phase: TRAIN
  }
  transform_param {
    scale: 0.00390625
  }
  data_param {
    source: "examples/mnist/mnist_train_lmdb"
    batch_size: 64
    backend: LMDB
  }
}
layer {
  name: "conv0"
  type: "Convolution"
  bottom: "data"
  top: "conv0"
  param {
    lr_mult: 1
  }
  param {
    lr_mult: 2
  }
  convolution_param {
    num_output: 5
    kernel_size: 5
    stride: 1
    weight_filler {
      type: "xavier"
    }
    bias_filler {
      type: "constant"
    }
  }
}
layer {
  name: "pool0"
  type: "Pooling"
  bottom: "conv0"
  top: "pool0"
  pooling_param {
    pool: MAX
    kernel_size: 2
    stride: 2
  }
}
layer {
  name: "conv1"
  type: "Convolution"
  bottom: "pool0"
  top: "conv1"
  param {
    lr_mult: 1
  }
  param {
    lr_mult: 2
  }
  convolution_param {
    num_output: 50
    kernel_size: 5
    stride: 1
    weight_filler {
      type: "xavier"
    }
    bias_filler {
      type: "constant"
    }
  }
}
layer {
  name: "pool1"
  type: "Pooling"
  bottom: "conv1"
  top: "pool1"
  pooling_param {
    pool: MAX
    kernel_size: 2
    stride: 2
  }
}
layer {
  name: "ip1"
  type: "InnerProduct"
  bottom: "pool1"
  top: "ip1"
  param {
    lr_mult: 1
  }
  param {
    lr_mult: 2
  }
  inner_product_param {
    num_output: 50
    weight_filler {
      type: "xavier"
    }
    bias_filler {
      type: "constant"
    }
  }
}
layer {
  name: "relu1"
  type: "ReLU"
  bottom: "ip1"
  top: "ip1"
}
layer {
  name: "ip2"
  type: "InnerProduct"
  bottom: "ip1"
  top: "ip2"
  param {
    lr_mult: 1
  }
  param {
    lr_mult: 2
  }
  inner_product_param {
    num_output: 10
    weight_filler {
      type: "xavier"
    }
    bias_filler {
      type: "constant"
    }
  }
}
layer {
  name: "relu2"
  type: "ReLU"
  bottom: "ip2"
  top: "ip2"
}
layer {
  name: "ip3"
  type: "InnerProduct"
  bottom: "ip2"
  top: "ip3"
  param {
    lr_mult: 1
  }
  param {
    lr_mult: 2
  }
  inner_product_param {
    num_output: 10
    weight_filler {
      type: "xavier"
    }
    bias_filler {
      type: "constant"
    }
  }
}
layer {
  name: "relu3"
  type: "ReLU"
  bottom: "ip3"
  top: "ip3"
}
layer {
  name: "loss"
  type: "SoftmaxWithLoss"
  bottom: "ip3"
  bottom: "label"
  top: "loss"
}
I0428 19:53:42.666440 27828 layer_factory.hpp:77] Creating layer mnist
I0428 19:53:42.666522 27828 db_lmdb.cpp:35] Opened lmdb examples/mnist/mnist_train_lmdb
I0428 19:53:42.666540 27828 net.cpp:86] Creating Layer mnist
I0428 19:53:42.666546 27828 net.cpp:382] mnist -> data
I0428 19:53:42.666564 27828 net.cpp:382] mnist -> label
I0428 19:53:42.667460 27828 data_layer.cpp:45] output data size: 64,1,28,28
I0428 19:53:42.669713 27828 net.cpp:124] Setting up mnist
I0428 19:53:42.669757 27828 net.cpp:131] Top shape: 64 1 28 28 (50176)
I0428 19:53:42.669764 27828 net.cpp:131] Top shape: 64 (64)
I0428 19:53:42.669767 27828 net.cpp:139] Memory required for data: 200960
I0428 19:53:42.669772 27828 layer_factory.hpp:77] Creating layer conv0
I0428 19:53:42.669785 27828 net.cpp:86] Creating Layer conv0
I0428 19:53:42.669803 27828 net.cpp:408] conv0 <- data
I0428 19:53:42.669813 27828 net.cpp:382] conv0 -> conv0
I0428 19:53:42.897927 27828 net.cpp:124] Setting up conv0
I0428 19:53:42.897969 27828 net.cpp:131] Top shape: 64 5 24 24 (184320)
I0428 19:53:42.897974 27828 net.cpp:139] Memory required for data: 938240
I0428 19:53:42.897989 27828 layer_factory.hpp:77] Creating layer pool0
I0428 19:53:42.898000 27828 net.cpp:86] Creating Layer pool0
I0428 19:53:42.898018 27828 net.cpp:408] pool0 <- conv0
I0428 19:53:42.898023 27828 net.cpp:382] pool0 -> pool0
I0428 19:53:42.898083 27828 net.cpp:124] Setting up pool0
I0428 19:53:42.898088 27828 net.cpp:131] Top shape: 64 5 12 12 (46080)
I0428 19:53:42.898092 27828 net.cpp:139] Memory required for data: 1122560
I0428 19:53:42.898094 27828 layer_factory.hpp:77] Creating layer conv1
I0428 19:53:42.898104 27828 net.cpp:86] Creating Layer conv1
I0428 19:53:42.898108 27828 net.cpp:408] conv1 <- pool0
I0428 19:53:42.898113 27828 net.cpp:382] conv1 -> conv1
I0428 19:53:42.900894 27828 net.cpp:124] Setting up conv1
I0428 19:53:42.900924 27828 net.cpp:131] Top shape: 64 50 8 8 (204800)
I0428 19:53:42.900928 27828 net.cpp:139] Memory required for data: 1941760
I0428 19:53:42.900936 27828 layer_factory.hpp:77] Creating layer pool1
I0428 19:53:42.900946 27828 net.cpp:86] Creating Layer pool1
I0428 19:53:42.900949 27828 net.cpp:408] pool1 <- conv1
I0428 19:53:42.900954 27828 net.cpp:382] pool1 -> pool1
I0428 19:53:42.901007 27828 net.cpp:124] Setting up pool1
I0428 19:53:42.901012 27828 net.cpp:131] Top shape: 64 50 4 4 (51200)
I0428 19:53:42.901015 27828 net.cpp:139] Memory required for data: 2146560
I0428 19:53:42.901018 27828 layer_factory.hpp:77] Creating layer ip1
I0428 19:53:42.901026 27828 net.cpp:86] Creating Layer ip1
I0428 19:53:42.901029 27828 net.cpp:408] ip1 <- pool1
I0428 19:53:42.901033 27828 net.cpp:382] ip1 -> ip1
I0428 19:53:42.901404 27828 net.cpp:124] Setting up ip1
I0428 19:53:42.901412 27828 net.cpp:131] Top shape: 64 50 (3200)
I0428 19:53:42.901429 27828 net.cpp:139] Memory required for data: 2159360
I0428 19:53:42.901437 27828 layer_factory.hpp:77] Creating layer relu1
I0428 19:53:42.901442 27828 net.cpp:86] Creating Layer relu1
I0428 19:53:42.901444 27828 net.cpp:408] relu1 <- ip1
I0428 19:53:42.901448 27828 net.cpp:369] relu1 -> ip1 (in-place)
I0428 19:53:42.901602 27828 net.cpp:124] Setting up relu1
I0428 19:53:42.901610 27828 net.cpp:131] Top shape: 64 50 (3200)
I0428 19:53:42.901613 27828 net.cpp:139] Memory required for data: 2172160
I0428 19:53:42.901617 27828 layer_factory.hpp:77] Creating layer ip2
I0428 19:53:42.901623 27828 net.cpp:86] Creating Layer ip2
I0428 19:53:42.901625 27828 net.cpp:408] ip2 <- ip1
I0428 19:53:42.901629 27828 net.cpp:382] ip2 -> ip2
I0428 19:53:42.901721 27828 net.cpp:124] Setting up ip2
I0428 19:53:42.901728 27828 net.cpp:131] Top shape: 64 10 (640)
I0428 19:53:42.901731 27828 net.cpp:139] Memory required for data: 2174720
I0428 19:53:42.901736 27828 layer_factory.hpp:77] Creating layer relu2
I0428 19:53:42.901742 27828 net.cpp:86] Creating Layer relu2
I0428 19:53:42.901744 27828 net.cpp:408] relu2 <- ip2
I0428 19:53:42.901748 27828 net.cpp:369] relu2 -> ip2 (in-place)
I0428 19:53:42.902518 27828 net.cpp:124] Setting up relu2
I0428 19:53:42.902529 27828 net.cpp:131] Top shape: 64 10 (640)
I0428 19:53:42.902547 27828 net.cpp:139] Memory required for data: 2177280
I0428 19:53:42.902550 27828 layer_factory.hpp:77] Creating layer ip3
I0428 19:53:42.902557 27828 net.cpp:86] Creating Layer ip3
I0428 19:53:42.902560 27828 net.cpp:408] ip3 <- ip2
I0428 19:53:42.902565 27828 net.cpp:382] ip3 -> ip3
I0428 19:53:42.902659 27828 net.cpp:124] Setting up ip3
I0428 19:53:42.902667 27828 net.cpp:131] Top shape: 64 10 (640)
I0428 19:53:42.902669 27828 net.cpp:139] Memory required for data: 2179840
I0428 19:53:42.902678 27828 layer_factory.hpp:77] Creating layer relu3
I0428 19:53:42.902683 27828 net.cpp:86] Creating Layer relu3
I0428 19:53:42.902684 27828 net.cpp:408] relu3 <- ip3
I0428 19:53:42.902688 27828 net.cpp:369] relu3 -> ip3 (in-place)
I0428 19:53:42.902863 27828 net.cpp:124] Setting up relu3
I0428 19:53:42.902873 27828 net.cpp:131] Top shape: 64 10 (640)
I0428 19:53:42.902876 27828 net.cpp:139] Memory required for data: 2182400
I0428 19:53:42.902879 27828 layer_factory.hpp:77] Creating layer loss
I0428 19:53:42.902885 27828 net.cpp:86] Creating Layer loss
I0428 19:53:42.902889 27828 net.cpp:408] loss <- ip3
I0428 19:53:42.902892 27828 net.cpp:408] loss <- label
I0428 19:53:42.902897 27828 net.cpp:382] loss -> loss
I0428 19:53:42.902915 27828 layer_factory.hpp:77] Creating layer loss
…
I0428 19:53:42.903612 27828 solver.cpp:173] Creating test net (#0) specified by net file: ECE595/mnist/train_test/var_everything2/lenet_train_test694.prototxt
I0428 19:53:42.903668 27828 net.cpp:296] The NetState phase (1) differed from the phase (0) specified by a rule in layer mnist
I0428 19:53:42.903810 27828 net.cpp:53] Initializing net from parameters: 
name: "LeNet"
state {
  phase: TEST
}
layer {
  name: "mnist"
  type: "Data"
  top: "data"
  top: "label"
  include {
    phase: TEST
  }
  transform_param {
    scale: 0.00390625
  }
  data_param {
    source: "examples/mnist/mnist_test_lmdb"
    batch_size: 100
    backend: LMDB
  }
}
layer {
  name: "conv0"
  type: "Convolution"
  bottom: "data"
  top: "conv0"
  param {
    lr_mult: 1
  }
  param {
    lr_mult: 2
  }
  convolution_param {
    num_output: 5
    kernel_size: 5
    stride: 1
    weight_filler {
      type: "xavier"
    }
    bias_filler {
      type: "constant"
    }
  }
}
layer {
  name: "pool0"
  type: "Pooling"
  bottom: "conv0"
  top: "pool0"
  pooling_param {
    pool: MAX
    kernel_size: 2
    stride: 2
  }
}
layer {
  name: "conv1"
  type: "Convolution"
  bottom: "pool0"
  top: "conv1"
  param {
    lr_mult: 1
  }
  param {
    lr_mult: 2
  }
  convolution_param {
    num_output: 50
    kernel_size: 5
    stride: 1
    weight_filler {
      type: "xavier"
    }
    bias_filler {
      type: "constant"
    }
  }
}
layer {
  name: "pool1"
  type: "Pooling"
  bottom: "conv1"
  top: "pool1"
  pooling_param {
    pool: MAX
    kernel_size: 2
    stride: 2
  }
}
layer {
  name: "ip1"
  type: "InnerProduct"
  bottom: "pool1"
  top: "ip1"
  param {
    lr_mult: 1
  }
  param {
    lr_mult: 2
  }
  inner_product_param {
    num_output: 50
    weight_filler {
      type: "xavier"
    }
    bias_filler {
      type: "constant"
    }
  }
}
layer {
  name: "relu1"
  type: "ReLU"
  bottom: "ip1"
  top: "ip1"
}
layer {
  name: "ip2"
  type: "InnerProduct"
  bottom: "ip1"
  top: "ip2"
  param {
    lr_mult: 1
  }
  param {
    lr_mult: 2
  }
  inner_product_param {
    num_output: 10
    weight_filler {
      type: "xavier"
    }
    bias_filler {
      type: "constant"
    }
  }
}
layer {
  name: "relu2"
  type: "ReLU"
  bottom: "ip2"
  top: "ip2"
}
layer {
  name: "ip3"
  type: "InnerProduct"
  bottom: "ip2"
  top: "ip3"
  param {
    lr_mult: 1
  }
  param {
    lr_mult: 2
  }
  inner_product_param {
    num_output: 10
    weight_filler {
      type: "xavier"
    }
    bias_filler {
      type: "constant"
    }
  }
}
layer {
  name: "relu3"
  type: "ReLU"
  bottom: "ip3"
  top: "ip3"
}
layer {
  name: "accuracy"
  type: "Accuracy"
  bottom: "ip3"
  bottom: "label"
  top: "accuracy"
  include {
    phase: TEST
  }
}
layer {
  name: "loss"
  type: "SoftmaxWithLoss"
  bottom: "ip3"
  bottom: "label"
  top: "loss"
}
I0428 19:53:42.903910 27828 layer_factory.hpp:77] Creating layer mnist
I0428 19:53:42.903956 27828 db_lmdb.cpp:35] Opened lmdb examples/mnist/mnist_test_lmdb
I0428 19:53:42.903967 27828 net.cpp:86] Creating Layer mnist
I0428 19:53:42.903972 27828 net.cpp:382] mnist -> data
I0428 19:53:42.903980 27828 net.cpp:382] mnist -> label
I0428 19:53:42.904074 27828 data_layer.cpp:45] output data size: 100,1,28,28
I0428 19:53:42.906091 27828 net.cpp:124] Setting up mnist
I0428 19:53:42.906121 27828 net.cpp:131] Top shape: 100 1 28 28 (78400)
I0428 19:53:42.906126 27828 net.cpp:131] Top shape: 100 (100)
I0428 19:53:42.906129 27828 net.cpp:139] Memory required for data: 314000
I0428 19:53:42.906133 27828 layer_factory.hpp:77] Creating layer label_mnist_1_split
I0428 19:53:42.906168 27828 net.cpp:86] Creating Layer label_mnist_1_split
I0428 19:53:42.906172 27828 net.cpp:408] label_mnist_1_split <- label
I0428 19:53:42.906177 27828 net.cpp:382] label_mnist_1_split -> label_mnist_1_split_0
I0428 19:53:42.906184 27828 net.cpp:382] label_mnist_1_split -> label_mnist_1_split_1
I0428 19:53:42.906227 27828 net.cpp:124] Setting up label_mnist_1_split
I0428 19:53:42.906234 27828 net.cpp:131] Top shape: 100 (100)
I0428 19:53:42.906237 27828 net.cpp:131] Top shape: 100 (100)
I0428 19:53:42.906240 27828 net.cpp:139] Memory required for data: 314800
I0428 19:53:42.906244 27828 layer_factory.hpp:77] Creating layer conv0
I0428 19:53:42.906270 27828 net.cpp:86] Creating Layer conv0
I0428 19:53:42.906275 27828 net.cpp:408] conv0 <- data
I0428 19:53:42.906282 27828 net.cpp:382] conv0 -> conv0
I0428 19:53:42.908243 27828 net.cpp:124] Setting up conv0
I0428 19:53:42.908268 27828 net.cpp:131] Top shape: 100 5 24 24 (288000)
I0428 19:53:42.908272 27828 net.cpp:139] Memory required for data: 1466800
I0428 19:53:42.908282 27828 layer_factory.hpp:77] Creating layer pool0
I0428 19:53:42.908288 27828 net.cpp:86] Creating Layer pool0
I0428 19:53:42.908291 27828 net.cpp:408] pool0 <- conv0
I0428 19:53:42.908295 27828 net.cpp:382] pool0 -> pool0
I0428 19:53:42.908330 27828 net.cpp:124] Setting up pool0
I0428 19:53:42.908335 27828 net.cpp:131] Top shape: 100 5 12 12 (72000)
I0428 19:53:42.908339 27828 net.cpp:139] Memory required for data: 1754800
I0428 19:53:42.908341 27828 layer_factory.hpp:77] Creating layer conv1
I0428 19:53:42.908349 27828 net.cpp:86] Creating Layer conv1
I0428 19:53:42.908351 27828 net.cpp:408] conv1 <- pool0
I0428 19:53:42.908356 27828 net.cpp:382] conv1 -> conv1
I0428 19:53:42.910030 27828 net.cpp:124] Setting up conv1
I0428 19:53:42.910044 27828 net.cpp:131] Top shape: 100 50 8 8 (320000)
I0428 19:53:42.910048 27828 net.cpp:139] Memory required for data: 3034800
I0428 19:53:42.910056 27828 layer_factory.hpp:77] Creating layer pool1
I0428 19:53:42.910063 27828 net.cpp:86] Creating Layer pool1
I0428 19:53:42.910068 27828 net.cpp:408] pool1 <- conv1
I0428 19:53:42.910073 27828 net.cpp:382] pool1 -> pool1
I0428 19:53:42.910109 27828 net.cpp:124] Setting up pool1
I0428 19:53:42.910114 27828 net.cpp:131] Top shape: 100 50 4 4 (80000)
I0428 19:53:42.910116 27828 net.cpp:139] Memory required for data: 3354800
I0428 19:53:42.910120 27828 layer_factory.hpp:77] Creating layer ip1
I0428 19:53:42.910125 27828 net.cpp:86] Creating Layer ip1
I0428 19:53:42.910128 27828 net.cpp:408] ip1 <- pool1
I0428 19:53:42.910133 27828 net.cpp:382] ip1 -> ip1
I0428 19:53:42.910467 27828 net.cpp:124] Setting up ip1
I0428 19:53:42.910475 27828 net.cpp:131] Top shape: 100 50 (5000)
I0428 19:53:42.910487 27828 net.cpp:139] Memory required for data: 3374800
I0428 19:53:42.910495 27828 layer_factory.hpp:77] Creating layer relu1
I0428 19:53:42.910501 27828 net.cpp:86] Creating Layer relu1
I0428 19:53:42.910503 27828 net.cpp:408] relu1 <- ip1
I0428 19:53:42.910524 27828 net.cpp:369] relu1 -> ip1 (in-place)
I0428 19:53:42.910687 27828 net.cpp:124] Setting up relu1
I0428 19:53:42.910696 27828 net.cpp:131] Top shape: 100 50 (5000)
I0428 19:53:42.910708 27828 net.cpp:139] Memory required for data: 3394800
I0428 19:53:42.910712 27828 layer_factory.hpp:77] Creating layer ip2
I0428 19:53:42.910719 27828 net.cpp:86] Creating Layer ip2
I0428 19:53:42.910722 27828 net.cpp:408] ip2 <- ip1
I0428 19:53:42.910728 27828 net.cpp:382] ip2 -> ip2
I0428 19:53:42.910850 27828 net.cpp:124] Setting up ip2
I0428 19:53:42.910858 27828 net.cpp:131] Top shape: 100 10 (1000)
I0428 19:53:42.910861 27828 net.cpp:139] Memory required for data: 3398800
I0428 19:53:42.910866 27828 layer_factory.hpp:77] Creating layer relu2
I0428 19:53:42.910878 27828 net.cpp:86] Creating Layer relu2
I0428 19:53:42.910881 27828 net.cpp:408] relu2 <- ip2
I0428 19:53:42.910886 27828 net.cpp:369] relu2 -> ip2 (in-place)
I0428 19:53:42.911144 27828 net.cpp:124] Setting up relu2
I0428 19:53:42.911159 27828 net.cpp:131] Top shape: 100 10 (1000)
I0428 19:53:42.911162 27828 net.cpp:139] Memory required for data: 3402800
I0428 19:53:42.911165 27828 layer_factory.hpp:77] Creating layer ip3
I0428 19:53:42.911170 27828 net.cpp:86] Creating Layer ip3
I0428 19:53:42.911175 27828 net.cpp:408] ip3 <- ip2
I0428 19:53:42.911180 27828 net.cpp:382] ip3 -> ip3
I0428 19:53:42.911335 27828 net.cpp:124] Setting up ip3
I0428 19:53:42.911342 27828 net.cpp:131] Top shape: 100 10 (1000)
I0428 19:53:42.911345 27828 net.cpp:139] Memory required for data: 3406800
I0428 19:53:42.911352 27828 layer_factory.hpp:77] Creating layer relu3
I0428 19:53:42.911358 27828 net.cpp:86] Creating Layer relu3
I0428 19:53:42.911361 27828 net.cpp:408] relu3 <- ip3
I0428 19:53:42.911365 27828 net.cpp:369] relu3 -> ip3 (in-place)
I0428 19:53:42.912112 27828 net.cpp:124] Setting up relu3
I0428 19:53:42.912125 27828 net.cpp:131] Top shape: 100 10 (1000)
I0428 19:53:42.912129 27828 net.cpp:139] Memory required for data: 3410800
I0428 19:53:42.912132 27828 layer_factory.hpp:77] Creating layer ip3_relu3_0_split
I0428 19:53:42.912138 27828 net.cpp:86] Creating Layer ip3_relu3_0_split
I0428 19:53:42.912142 27828 net.cpp:408] ip3_relu3_0_split <- ip3
I0428 19:53:42.912147 27828 net.cpp:382] ip3_relu3_0_split -> ip3_relu3_0_split_0
I0428 19:53:42.912163 27828 net.cpp:382] ip3_relu3_0_split -> ip3_relu3_0_split_1
I0428 19:53:42.912222 27828 net.cpp:124] Setting up ip3_relu3_0_split
I0428 19:53:42.912230 27828 net.cpp:131] Top shape: 100 10 (1000)
I0428 19:53:42.912240 27828 net.cpp:131] Top shape: 100 10 (1000)
I0428 19:53:42.912242 27828 net.cpp:139] Memory required for data: 3418800
I0428 19:53:42.912259 27828 layer_factory.hpp:77] Creating layer accuracy
I0428 19:53:42.912266 27828 net.cpp:86] Creating Layer accuracy
I0428 19:53:42.912268 27828 net.cpp:408] accuracy <- ip3_relu3_0_split_0
I0428 19:53:42.912272 27828 net.cpp:408] accuracy <- label_mnist_1_split_0
I0428 19:53:42.912292 27828 net.cpp:382] accuracy -> accuracy
…
