…
I0428 19:58:48.294271 29084 net.cpp:296] The NetState phase (0) differed from the phase (1) specified by a rule in layer mnist
I0428 19:58:48.294288 29084 net.cpp:296] The NetState phase (0) differed from the phase (1) specified by a rule in layer accuracy
I0428 19:58:48.294379 29084 net.cpp:53] Initializing net from parameters: 
name: "LeNet"
state {
  phase: TRAIN
  level: 0
  stage: ""
}
layer {
  name: "mnist"
  type: "Data"
  top: "data"
  top: "label"
  include {
    phase: TRAIN
  }
  transform_param {
    scale: 0.00390625
  }
  data_param {
    source: "examples/mnist/mnist_train_lmdb"
    batch_size: 64
    backend: LMDB
  }
}
layer {
  name: "conv0"
  type: "Convolution"
  bottom: "data"
  top: "conv0"
  param {
    lr_mult: 1
  }
  param {
    lr_mult: 2
  }
  convolution_param {
    num_output: 10
    kernel_size: 5
    stride: 1
    weight_filler {
      type: "xavier"
    }
    bias_filler {
      type: "constant"
    }
  }
}
layer {
  name: "pool0"
  type: "Pooling"
  bottom: "conv0"
  top: "pool0"
  pooling_param {
    pool: MAX
    kernel_size: 2
    stride: 2
  }
}
layer {
  name: "conv1"
  type: "Convolution"
  bottom: "pool0"
  top: "conv1"
  param {
    lr_mult: 1
  }
  param {
    lr_mult: 2
  }
  convolution_param {
    num_output: 10
    kernel_size: 5
    stride: 1
    weight_filler {
      type: "xavier"
    }
    bias_filler {
      type: "constant"
    }
  }
}
layer {
  name: "pool1"
  type: "Pooling"
  bottom: "conv1"
  top: "pool1"
  pooling_param {
    pool: MAX
    kernel_size: 2
    stride: 2
  }
}
layer {
  name: "ip1"
  type: "InnerProduct"
  bottom: "pool1"
  top: "ip1"
  param {
    lr_mult: 1
  }
  param {
    lr_mult: 2
  }
  inner_product_param {
    num_output: 50
    weight_filler {
      type: "xavier"
    }
    bias_filler {
      type: "constant"
    }
  }
}
layer {
  name: "relu1"
  type: "ReLU"
  bottom: "ip1"
  top: "ip1"
}
layer {
  name: "ip2"
  type: "InnerProduct"
  bottom: "ip1"
  top: "ip2"
  param {
    lr_mult: 1
  }
  param {
    lr_mult: 2
  }
  inner_product_param {
    num_output: 10
    weight_filler {
      type: "xavier"
    }
    bias_filler {
      type: "constant"
    }
  }
}
layer {
  name: "relu2"
  type: "ReLU"
  bottom: "ip2"
  top: "ip2"
}
layer {
  name: "loss"
  type: "SoftmaxWithLoss"
  bottom: "ip2"
  bottom: "label"
  top: "loss"
}
I0428 19:58:48.294457 29084 layer_factory.hpp:77] Creating layer mnist
I0428 19:58:48.294555 29084 db_lmdb.cpp:35] Opened lmdb examples/mnist/mnist_train_lmdb
I0428 19:58:48.294579 29084 net.cpp:86] Creating Layer mnist
I0428 19:58:48.294587 29084 net.cpp:382] mnist -> data
I0428 19:58:48.294610 29084 net.cpp:382] mnist -> label
I0428 19:58:48.295703 29084 data_layer.cpp:45] output data size: 64,1,28,28
I0428 19:58:48.298388 29084 net.cpp:124] Setting up mnist
I0428 19:58:48.298405 29084 net.cpp:131] Top shape: 64 1 28 28 (50176)
I0428 19:58:48.298413 29084 net.cpp:131] Top shape: 64 (64)
I0428 19:58:48.298416 29084 net.cpp:139] Memory required for data: 200960
I0428 19:58:48.298424 29084 layer_factory.hpp:77] Creating layer conv0
I0428 19:58:48.298439 29084 net.cpp:86] Creating Layer conv0
I0428 19:58:48.298444 29084 net.cpp:408] conv0 <- data
I0428 19:58:48.298456 29084 net.cpp:382] conv0 -> conv0
I0428 19:58:48.585983 29084 net.cpp:124] Setting up conv0
I0428 19:58:48.586014 29084 net.cpp:131] Top shape: 64 10 24 24 (368640)
I0428 19:58:48.586019 29084 net.cpp:139] Memory required for data: 1675520
I0428 19:58:48.586058 29084 layer_factory.hpp:77] Creating layer pool0
I0428 19:58:48.586074 29084 net.cpp:86] Creating Layer pool0
I0428 19:58:48.586079 29084 net.cpp:408] pool0 <- conv0
I0428 19:58:48.586086 29084 net.cpp:382] pool0 -> pool0
I0428 19:58:48.586145 29084 net.cpp:124] Setting up pool0
I0428 19:58:48.586154 29084 net.cpp:131] Top shape: 64 10 12 12 (92160)
I0428 19:58:48.586158 29084 net.cpp:139] Memory required for data: 2044160
I0428 19:58:48.586163 29084 layer_factory.hpp:77] Creating layer conv1
I0428 19:58:48.586174 29084 net.cpp:86] Creating Layer conv1
I0428 19:58:48.586179 29084 net.cpp:408] conv1 <- pool0
I0428 19:58:48.586184 29084 net.cpp:382] conv1 -> conv1
I0428 19:58:48.589315 29084 net.cpp:124] Setting up conv1
I0428 19:58:48.589334 29084 net.cpp:131] Top shape: 64 10 8 8 (40960)
I0428 19:58:48.589339 29084 net.cpp:139] Memory required for data: 2208000
I0428 19:58:48.589349 29084 layer_factory.hpp:77] Creating layer pool1
I0428 19:58:48.589357 29084 net.cpp:86] Creating Layer pool1
I0428 19:58:48.589363 29084 net.cpp:408] pool1 <- conv1
I0428 19:58:48.589370 29084 net.cpp:382] pool1 -> pool1
I0428 19:58:48.589416 29084 net.cpp:124] Setting up pool1
I0428 19:58:48.589421 29084 net.cpp:131] Top shape: 64 10 4 4 (10240)
I0428 19:58:48.589426 29084 net.cpp:139] Memory required for data: 2248960
I0428 19:58:48.589429 29084 layer_factory.hpp:77] Creating layer ip1
I0428 19:58:48.589442 29084 net.cpp:86] Creating Layer ip1
I0428 19:58:48.589447 29084 net.cpp:408] ip1 <- pool1
I0428 19:58:48.589452 29084 net.cpp:382] ip1 -> ip1
I0428 19:58:48.590582 29084 net.cpp:124] Setting up ip1
I0428 19:58:48.590597 29084 net.cpp:131] Top shape: 64 50 (3200)
I0428 19:58:48.590601 29084 net.cpp:139] Memory required for data: 2261760
I0428 19:58:48.590611 29084 layer_factory.hpp:77] Creating layer relu1
I0428 19:58:48.590618 29084 net.cpp:86] Creating Layer relu1
I0428 19:58:48.590622 29084 net.cpp:408] relu1 <- ip1
I0428 19:58:48.590628 29084 net.cpp:369] relu1 -> ip1 (in-place)
I0428 19:58:48.590832 29084 net.cpp:124] Setting up relu1
I0428 19:58:48.590843 29084 net.cpp:131] Top shape: 64 50 (3200)
I0428 19:58:48.590847 29084 net.cpp:139] Memory required for data: 2274560
I0428 19:58:48.590852 29084 layer_factory.hpp:77] Creating layer ip2
I0428 19:58:48.590858 29084 net.cpp:86] Creating Layer ip2
I0428 19:58:48.590862 29084 net.cpp:408] ip2 <- ip1
I0428 19:58:48.590868 29084 net.cpp:382] ip2 -> ip2
I0428 19:58:48.590986 29084 net.cpp:124] Setting up ip2
I0428 19:58:48.590996 29084 net.cpp:131] Top shape: 64 10 (640)
I0428 19:58:48.590998 29084 net.cpp:139] Memory required for data: 2277120
I0428 19:58:48.591006 29084 layer_factory.hpp:77] Creating layer relu2
I0428 19:58:48.591012 29084 net.cpp:86] Creating Layer relu2
I0428 19:58:48.591017 29084 net.cpp:408] relu2 <- ip2
I0428 19:58:48.591022 29084 net.cpp:369] relu2 -> ip2 (in-place)
I0428 19:58:48.591872 29084 net.cpp:124] Setting up relu2
I0428 19:58:48.591888 29084 net.cpp:131] Top shape: 64 10 (640)
I0428 19:58:48.591892 29084 net.cpp:139] Memory required for data: 2279680
I0428 19:58:48.591897 29084 layer_factory.hpp:77] Creating layer loss
I0428 19:58:48.591904 29084 net.cpp:86] Creating Layer loss
I0428 19:58:48.591908 29084 net.cpp:408] loss <- ip2
I0428 19:58:48.591913 29084 net.cpp:408] loss <- label
I0428 19:58:48.591920 29084 net.cpp:382] loss -> loss
I0428 19:58:48.591943 29084 layer_factory.hpp:77] Creating layer loss
…
I0428 19:58:48.592666 29084 solver.cpp:173] Creating test net (#0) specified by net file: ECE595/mnist/train_test/var_everything2/lenet_train_test829.prototxt
I0428 19:58:48.592696 29084 net.cpp:296] The NetState phase (1) differed from the phase (0) specified by a rule in layer mnist
I0428 19:58:48.592806 29084 net.cpp:53] Initializing net from parameters: 
name: "LeNet"
state {
  phase: TEST
}
layer {
  name: "mnist"
  type: "Data"
  top: "data"
  top: "label"
  include {
    phase: TEST
  }
  transform_param {
    scale: 0.00390625
  }
  data_param {
    source: "examples/mnist/mnist_test_lmdb"
    batch_size: 100
    backend: LMDB
  }
}
layer {
  name: "conv0"
  type: "Convolution"
  bottom: "data"
  top: "conv0"
  param {
    lr_mult: 1
  }
  param {
    lr_mult: 2
  }
  convolution_param {
    num_output: 10
    kernel_size: 5
    stride: 1
    weight_filler {
      type: "xavier"
    }
    bias_filler {
      type: "constant"
    }
  }
}
layer {
  name: "pool0"
  type: "Pooling"
  bottom: "conv0"
  top: "pool0"
  pooling_param {
    pool: MAX
    kernel_size: 2
    stride: 2
  }
}
layer {
  name: "conv1"
  type: "Convolution"
  bottom: "pool0"
  top: "conv1"
  param {
    lr_mult: 1
  }
  param {
    lr_mult: 2
  }
  convolution_param {
    num_output: 10
    kernel_size: 5
    stride: 1
    weight_filler {
      type: "xavier"
    }
    bias_filler {
      type: "constant"
    }
  }
}
layer {
  name: "pool1"
  type: "Pooling"
  bottom: "conv1"
  top: "pool1"
  pooling_param {
    pool: MAX
    kernel_size: 2
    stride: 2
  }
}
layer {
  name: "ip1"
  type: "InnerProduct"
  bottom: "pool1"
  top: "ip1"
  param {
    lr_mult: 1
  }
  param {
    lr_mult: 2
  }
  inner_product_param {
    num_output: 50
    weight_filler {
      type: "xavier"
    }
    bias_filler {
      type: "constant"
    }
  }
}
layer {
  name: "relu1"
  type: "ReLU"
  bottom: "ip1"
  top: "ip1"
}
layer {
  name: "ip2"
  type: "InnerProduct"
  bottom: "ip1"
  top: "ip2"
  param {
    lr_mult: 1
  }
  param {
    lr_mult: 2
  }
  inner_product_param {
    num_output: 10
    weight_filler {
      type: "xavier"
    }
    bias_filler {
      type: "constant"
    }
  }
}
layer {
  name: "relu2"
  type: "ReLU"
  bottom: "ip2"
  top: "ip2"
}
layer {
  name: "accuracy"
  type: "Accuracy"
  bottom: "ip2"
  bottom: "label"
  top: "accuracy"
  include {
    phase: TEST
  }
}
layer {
  name: "loss"
  type: "SoftmaxWithLoss"
  bottom: "ip2"
  bottom: "label"
  top: "loss"
}
I0428 19:58:48.592892 29084 layer_factory.hpp:77] Creating layer mnist
I0428 19:58:48.592947 29084 db_lmdb.cpp:35] Opened lmdb examples/mnist/mnist_test_lmdb
I0428 19:58:48.592962 29084 net.cpp:86] Creating Layer mnist
I0428 19:58:48.592967 29084 net.cpp:382] mnist -> data
I0428 19:58:48.592975 29084 net.cpp:382] mnist -> label
I0428 19:58:48.593078 29084 data_layer.cpp:45] output data size: 100,1,28,28
I0428 19:58:48.595252 29084 net.cpp:124] Setting up mnist
I0428 19:58:48.595268 29084 net.cpp:131] Top shape: 100 1 28 28 (78400)
I0428 19:58:48.595273 29084 net.cpp:131] Top shape: 100 (100)
I0428 19:58:48.595276 29084 net.cpp:139] Memory required for data: 314000
I0428 19:58:48.595281 29084 layer_factory.hpp:77] Creating layer label_mnist_1_split
I0428 19:58:48.595293 29084 net.cpp:86] Creating Layer label_mnist_1_split
I0428 19:58:48.595299 29084 net.cpp:408] label_mnist_1_split <- label
I0428 19:58:48.595304 29084 net.cpp:382] label_mnist_1_split -> label_mnist_1_split_0
I0428 19:58:48.595312 29084 net.cpp:382] label_mnist_1_split -> label_mnist_1_split_1
I0428 19:58:48.595367 29084 net.cpp:124] Setting up label_mnist_1_split
I0428 19:58:48.595386 29084 net.cpp:131] Top shape: 100 (100)
I0428 19:58:48.595391 29084 net.cpp:131] Top shape: 100 (100)
I0428 19:58:48.595394 29084 net.cpp:139] Memory required for data: 314800
I0428 19:58:48.595398 29084 layer_factory.hpp:77] Creating layer conv0
I0428 19:58:48.595408 29084 net.cpp:86] Creating Layer conv0
I0428 19:58:48.595412 29084 net.cpp:408] conv0 <- data
I0428 19:58:48.595418 29084 net.cpp:382] conv0 -> conv0
I0428 19:58:48.597317 29084 net.cpp:124] Setting up conv0
I0428 19:58:48.597334 29084 net.cpp:131] Top shape: 100 10 24 24 (576000)
I0428 19:58:48.597338 29084 net.cpp:139] Memory required for data: 2618800
I0428 19:58:48.597349 29084 layer_factory.hpp:77] Creating layer pool0
I0428 19:58:48.597357 29084 net.cpp:86] Creating Layer pool0
I0428 19:58:48.597362 29084 net.cpp:408] pool0 <- conv0
I0428 19:58:48.597368 29084 net.cpp:382] pool0 -> pool0
I0428 19:58:48.597410 29084 net.cpp:124] Setting up pool0
I0428 19:58:48.597416 29084 net.cpp:131] Top shape: 100 10 12 12 (144000)
I0428 19:58:48.597420 29084 net.cpp:139] Memory required for data: 3194800
I0428 19:58:48.597424 29084 layer_factory.hpp:77] Creating layer conv1
I0428 19:58:48.597434 29084 net.cpp:86] Creating Layer conv1
I0428 19:58:48.597437 29084 net.cpp:408] conv1 <- pool0
I0428 19:58:48.597443 29084 net.cpp:382] conv1 -> conv1
I0428 19:58:48.599798 29084 net.cpp:124] Setting up conv1
I0428 19:58:48.599815 29084 net.cpp:131] Top shape: 100 10 8 8 (64000)
I0428 19:58:48.599820 29084 net.cpp:139] Memory required for data: 3450800
I0428 19:58:48.599830 29084 layer_factory.hpp:77] Creating layer pool1
I0428 19:58:48.599838 29084 net.cpp:86] Creating Layer pool1
I0428 19:58:48.599843 29084 net.cpp:408] pool1 <- conv1
I0428 19:58:48.599849 29084 net.cpp:382] pool1 -> pool1
I0428 19:58:48.599903 29084 net.cpp:124] Setting up pool1
I0428 19:58:48.599910 29084 net.cpp:131] Top shape: 100 10 4 4 (16000)
I0428 19:58:48.599912 29084 net.cpp:139] Memory required for data: 3514800
I0428 19:58:48.599916 29084 layer_factory.hpp:77] Creating layer ip1
I0428 19:58:48.599925 29084 net.cpp:86] Creating Layer ip1
I0428 19:58:48.599928 29084 net.cpp:408] ip1 <- pool1
I0428 19:58:48.599934 29084 net.cpp:382] ip1 -> ip1
I0428 19:58:48.600150 29084 net.cpp:124] Setting up ip1
I0428 19:58:48.600160 29084 net.cpp:131] Top shape: 100 50 (5000)
I0428 19:58:48.600165 29084 net.cpp:139] Memory required for data: 3534800
I0428 19:58:48.600174 29084 layer_factory.hpp:77] Creating layer relu1
I0428 19:58:48.600180 29084 net.cpp:86] Creating Layer relu1
I0428 19:58:48.600184 29084 net.cpp:408] relu1 <- ip1
I0428 19:58:48.600190 29084 net.cpp:369] relu1 -> ip1 (in-place)
I0428 19:58:48.600397 29084 net.cpp:124] Setting up relu1
I0428 19:58:48.600410 29084 net.cpp:131] Top shape: 100 50 (5000)
I0428 19:58:48.600421 29084 net.cpp:139] Memory required for data: 3554800
I0428 19:58:48.600425 29084 layer_factory.hpp:77] Creating layer ip2
I0428 19:58:48.600435 29084 net.cpp:86] Creating Layer ip2
I0428 19:58:48.600438 29084 net.cpp:408] ip2 <- ip1
I0428 19:58:48.600446 29084 net.cpp:382] ip2 -> ip2
I0428 19:58:48.600574 29084 net.cpp:124] Setting up ip2
I0428 19:58:48.600584 29084 net.cpp:131] Top shape: 100 10 (1000)
I0428 19:58:48.600587 29084 net.cpp:139] Memory required for data: 3558800
I0428 19:58:48.600594 29084 layer_factory.hpp:77] Creating layer relu2
I0428 19:58:48.600600 29084 net.cpp:86] Creating Layer relu2
I0428 19:58:48.600603 29084 net.cpp:408] relu2 <- ip2
I0428 19:58:48.600610 29084 net.cpp:369] relu2 -> ip2 (in-place)
I0428 19:58:48.600801 29084 net.cpp:124] Setting up relu2
I0428 19:58:48.600819 29084 net.cpp:131] Top shape: 100 10 (1000)
I0428 19:58:48.600823 29084 net.cpp:139] Memory required for data: 3562800
I0428 19:58:48.600827 29084 layer_factory.hpp:77] Creating layer ip2_relu2_0_split
I0428 19:58:48.600833 29084 net.cpp:86] Creating Layer ip2_relu2_0_split
I0428 19:58:48.600836 29084 net.cpp:408] ip2_relu2_0_split <- ip2
I0428 19:58:48.600844 29084 net.cpp:382] ip2_relu2_0_split -> ip2_relu2_0_split_0
I0428 19:58:48.600862 29084 net.cpp:382] ip2_relu2_0_split -> ip2_relu2_0_split_1
I0428 19:58:48.600914 29084 net.cpp:124] Setting up ip2_relu2_0_split
I0428 19:58:48.600921 29084 net.cpp:131] Top shape: 100 10 (1000)
I0428 19:58:48.600941 29084 net.cpp:131] Top shape: 100 10 (1000)
I0428 19:58:48.600944 29084 net.cpp:139] Memory required for data: 3570800
I0428 19:58:48.600949 29084 layer_factory.hpp:77] Creating layer accuracy
I0428 19:58:48.600955 29084 net.cpp:86] Creating Layer accuracy
I0428 19:58:48.600958 29084 net.cpp:408] accuracy <- ip2_relu2_0_split_0
I0428 19:58:48.600962 29084 net.cpp:408] accuracy <- label_mnist_1_split_0
I0428 19:58:48.600967 29084 net.cpp:382] accuracy -> accuracy
…
