…
I0428 20:37:56.903996  5058 net.cpp:296] The NetState phase (0) differed from the phase (1) specified by a rule in layer mnist
I0428 20:37:56.904017  5058 net.cpp:296] The NetState phase (0) differed from the phase (1) specified by a rule in layer accuracy
I0428 20:37:56.904120  5058 net.cpp:53] Initializing net from parameters: 
name: "LeNet"
state {
  phase: TRAIN
  level: 0
  stage: ""
}
layer {
  name: "mnist"
  type: "Data"
  top: "data"
  top: "label"
  include {
    phase: TRAIN
  }
  transform_param {
    scale: 0.00390625
  }
  data_param {
    source: "examples/mnist/mnist_train_lmdb"
    batch_size: 64
    backend: LMDB
  }
}
layer {
  name: "conv0"
  type: "Convolution"
  bottom: "data"
  top: "conv0"
  param {
    lr_mult: 1
  }
  param {
    lr_mult: 2
  }
  convolution_param {
    num_output: 100
    kernel_size: 5
    stride: 1
    weight_filler {
      type: "xavier"
    }
    bias_filler {
      type: "constant"
    }
  }
}
layer {
  name: "pool0"
  type: "Pooling"
  bottom: "conv0"
  top: "pool0"
  pooling_param {
    pool: MAX
    kernel_size: 2
    stride: 2
  }
}
layer {
  name: "conv1"
  type: "Convolution"
  bottom: "pool0"
  top: "conv1"
  param {
    lr_mult: 1
  }
  param {
    lr_mult: 2
  }
  convolution_param {
    num_output: 100
    kernel_size: 5
    stride: 1
    weight_filler {
      type: "xavier"
    }
    bias_filler {
      type: "constant"
    }
  }
}
layer {
  name: "pool1"
  type: "Pooling"
  bottom: "conv1"
  top: "pool1"
  pooling_param {
    pool: MAX
    kernel_size: 2
    stride: 2
  }
}
layer {
  name: "ip1"
  type: "InnerProduct"
  bottom: "pool1"
  top: "ip1"
  param {
    lr_mult: 1
  }
  param {
    lr_mult: 2
  }
  inner_product_param {
    num_output: 10
    weight_filler {
      type: "xavier"
    }
    bias_filler {
      type: "constant"
    }
  }
}
layer {
  name: "relu1"
  type: "ReLU"
  bottom: "ip1"
  top: "ip1"
}
layer {
  name: "ip2"
  type: "InnerProduct"
  bottom: "ip1"
  top: "ip2"
  param {
    lr_mult: 1
  }
  param {
    lr_mult: 2
  }
  inner_product_param {
    num_output: 50
    weight_filler {
      type: "xavier"
    }
    bias_filler {
      type: "constant"
    }
  }
}
layer {
  name: "relu2"
  type: "ReLU"
  bottom: "ip2"
  top: "ip2"
}
layer {
  name: "ip3"
  type: "InnerProduct"
  bottom: "ip2"
  top: "ip3"
  param {
    lr_mult: 1
  }
  param {
    lr_mult: 2
  }
  inner_product_param {
    num_output: 10
    weight_filler {
      type: "xavier"
    }
    bias_filler {
      type: "constant"
    }
  }
}
layer {
  name: "relu3"
  type: "ReLU"
  bottom: "ip3"
  top: "ip3"
}
layer {
  name: "loss"
  type: "SoftmaxWithLoss"
  bottom: "ip3"
  bottom: "label"
  top: "loss"
}
I0428 20:37:56.904201  5058 layer_factory.hpp:77] Creating layer mnist
I0428 20:37:56.904302  5058 db_lmdb.cpp:35] Opened lmdb examples/mnist/mnist_train_lmdb
I0428 20:37:56.904325  5058 net.cpp:86] Creating Layer mnist
I0428 20:37:56.904333  5058 net.cpp:382] mnist -> data
I0428 20:37:56.904359  5058 net.cpp:382] mnist -> label
I0428 20:37:56.905475  5058 data_layer.cpp:45] output data size: 64,1,28,28
I0428 20:37:56.907946  5058 net.cpp:124] Setting up mnist
I0428 20:37:56.907965  5058 net.cpp:131] Top shape: 64 1 28 28 (50176)
I0428 20:37:56.907971  5058 net.cpp:131] Top shape: 64 (64)
I0428 20:37:56.907974  5058 net.cpp:139] Memory required for data: 200960
I0428 20:37:56.907981  5058 layer_factory.hpp:77] Creating layer conv0
I0428 20:37:56.907999  5058 net.cpp:86] Creating Layer conv0
I0428 20:37:56.908020  5058 net.cpp:408] conv0 <- data
I0428 20:37:56.908031  5058 net.cpp:382] conv0 -> conv0
I0428 20:37:57.190022  5058 net.cpp:124] Setting up conv0
I0428 20:37:57.190049  5058 net.cpp:131] Top shape: 64 100 24 24 (3686400)
I0428 20:37:57.190053  5058 net.cpp:139] Memory required for data: 14946560
I0428 20:37:57.190069  5058 layer_factory.hpp:77] Creating layer pool0
I0428 20:37:57.190089  5058 net.cpp:86] Creating Layer pool0
I0428 20:37:57.190093  5058 net.cpp:408] pool0 <- conv0
I0428 20:37:57.190099  5058 net.cpp:382] pool0 -> pool0
I0428 20:37:57.190145  5058 net.cpp:124] Setting up pool0
I0428 20:37:57.190151  5058 net.cpp:131] Top shape: 64 100 12 12 (921600)
I0428 20:37:57.190153  5058 net.cpp:139] Memory required for data: 18632960
I0428 20:37:57.190156  5058 layer_factory.hpp:77] Creating layer conv1
I0428 20:37:57.190168  5058 net.cpp:86] Creating Layer conv1
I0428 20:37:57.190172  5058 net.cpp:408] conv1 <- pool0
I0428 20:37:57.190177  5058 net.cpp:382] conv1 -> conv1
I0428 20:37:57.194070  5058 net.cpp:124] Setting up conv1
I0428 20:37:57.194084  5058 net.cpp:131] Top shape: 64 100 8 8 (409600)
I0428 20:37:57.194087  5058 net.cpp:139] Memory required for data: 20271360
I0428 20:37:57.194095  5058 layer_factory.hpp:77] Creating layer pool1
I0428 20:37:57.194104  5058 net.cpp:86] Creating Layer pool1
I0428 20:37:57.194108  5058 net.cpp:408] pool1 <- conv1
I0428 20:37:57.194111  5058 net.cpp:382] pool1 -> pool1
I0428 20:37:57.194147  5058 net.cpp:124] Setting up pool1
I0428 20:37:57.194152  5058 net.cpp:131] Top shape: 64 100 4 4 (102400)
I0428 20:37:57.194154  5058 net.cpp:139] Memory required for data: 20680960
I0428 20:37:57.194157  5058 layer_factory.hpp:77] Creating layer ip1
I0428 20:37:57.194164  5058 net.cpp:86] Creating Layer ip1
I0428 20:37:57.194167  5058 net.cpp:408] ip1 <- pool1
I0428 20:37:57.194171  5058 net.cpp:382] ip1 -> ip1
I0428 20:37:57.195122  5058 net.cpp:124] Setting up ip1
I0428 20:37:57.195133  5058 net.cpp:131] Top shape: 64 10 (640)
I0428 20:37:57.195152  5058 net.cpp:139] Memory required for data: 20683520
I0428 20:37:57.195159  5058 layer_factory.hpp:77] Creating layer relu1
I0428 20:37:57.195166  5058 net.cpp:86] Creating Layer relu1
I0428 20:37:57.195169  5058 net.cpp:408] relu1 <- ip1
I0428 20:37:57.195173  5058 net.cpp:369] relu1 -> ip1 (in-place)
I0428 20:37:57.195338  5058 net.cpp:124] Setting up relu1
I0428 20:37:57.195346  5058 net.cpp:131] Top shape: 64 10 (640)
I0428 20:37:57.195349  5058 net.cpp:139] Memory required for data: 20686080
I0428 20:37:57.195353  5058 layer_factory.hpp:77] Creating layer ip2
I0428 20:37:57.195359  5058 net.cpp:86] Creating Layer ip2
I0428 20:37:57.195363  5058 net.cpp:408] ip2 <- ip1
I0428 20:37:57.195369  5058 net.cpp:382] ip2 -> ip2
I0428 20:37:57.195477  5058 net.cpp:124] Setting up ip2
I0428 20:37:57.195482  5058 net.cpp:131] Top shape: 64 50 (3200)
I0428 20:37:57.195485  5058 net.cpp:139] Memory required for data: 20698880
I0428 20:37:57.195490  5058 layer_factory.hpp:77] Creating layer relu2
I0428 20:37:57.195497  5058 net.cpp:86] Creating Layer relu2
I0428 20:37:57.195499  5058 net.cpp:408] relu2 <- ip2
I0428 20:37:57.195502  5058 net.cpp:369] relu2 -> ip2 (in-place)
I0428 20:37:57.196200  5058 net.cpp:124] Setting up relu2
I0428 20:37:57.196213  5058 net.cpp:131] Top shape: 64 50 (3200)
I0428 20:37:57.196215  5058 net.cpp:139] Memory required for data: 20711680
I0428 20:37:57.196218  5058 layer_factory.hpp:77] Creating layer ip3
I0428 20:37:57.196226  5058 net.cpp:86] Creating Layer ip3
I0428 20:37:57.196229  5058 net.cpp:408] ip3 <- ip2
I0428 20:37:57.196235  5058 net.cpp:382] ip3 -> ip3
I0428 20:37:57.196337  5058 net.cpp:124] Setting up ip3
I0428 20:37:57.196344  5058 net.cpp:131] Top shape: 64 10 (640)
I0428 20:37:57.196347  5058 net.cpp:139] Memory required for data: 20714240
I0428 20:37:57.196354  5058 layer_factory.hpp:77] Creating layer relu3
I0428 20:37:57.196360  5058 net.cpp:86] Creating Layer relu3
I0428 20:37:57.196362  5058 net.cpp:408] relu3 <- ip3
I0428 20:37:57.196382  5058 net.cpp:369] relu3 -> ip3 (in-place)
I0428 20:37:57.196533  5058 net.cpp:124] Setting up relu3
I0428 20:37:57.196542  5058 net.cpp:131] Top shape: 64 10 (640)
I0428 20:37:57.196544  5058 net.cpp:139] Memory required for data: 20716800
I0428 20:37:57.196547  5058 layer_factory.hpp:77] Creating layer loss
I0428 20:37:57.196557  5058 net.cpp:86] Creating Layer loss
I0428 20:37:57.196560  5058 net.cpp:408] loss <- ip3
I0428 20:37:57.196563  5058 net.cpp:408] loss <- label
I0428 20:37:57.196570  5058 net.cpp:382] loss -> loss
I0428 20:37:57.196583  5058 layer_factory.hpp:77] Creating layer loss
…
I0428 20:37:57.197229  5058 solver.cpp:173] Creating test net (#0) specified by net file: ECE595/mnist/train_test/var_everything2/lenet_train_test1658.prototxt
I0428 20:37:57.197254  5058 net.cpp:296] The NetState phase (1) differed from the phase (0) specified by a rule in layer mnist
I0428 20:37:57.197345  5058 net.cpp:53] Initializing net from parameters: 
name: "LeNet"
state {
  phase: TEST
}
layer {
  name: "mnist"
  type: "Data"
  top: "data"
  top: "label"
  include {
    phase: TEST
  }
  transform_param {
    scale: 0.00390625
  }
  data_param {
    source: "examples/mnist/mnist_test_lmdb"
    batch_size: 100
    backend: LMDB
  }
}
layer {
  name: "conv0"
  type: "Convolution"
  bottom: "data"
  top: "conv0"
  param {
    lr_mult: 1
  }
  param {
    lr_mult: 2
  }
  convolution_param {
    num_output: 100
    kernel_size: 5
    stride: 1
    weight_filler {
      type: "xavier"
    }
    bias_filler {
      type: "constant"
    }
  }
}
layer {
  name: "pool0"
  type: "Pooling"
  bottom: "conv0"
  top: "pool0"
  pooling_param {
    pool: MAX
    kernel_size: 2
    stride: 2
  }
}
layer {
  name: "conv1"
  type: "Convolution"
  bottom: "pool0"
  top: "conv1"
  param {
    lr_mult: 1
  }
  param {
    lr_mult: 2
  }
  convolution_param {
    num_output: 100
    kernel_size: 5
    stride: 1
    weight_filler {
      type: "xavier"
    }
    bias_filler {
      type: "constant"
    }
  }
}
layer {
  name: "pool1"
  type: "Pooling"
  bottom: "conv1"
  top: "pool1"
  pooling_param {
    pool: MAX
    kernel_size: 2
    stride: 2
  }
}
layer {
  name: "ip1"
  type: "InnerProduct"
  bottom: "pool1"
  top: "ip1"
  param {
    lr_mult: 1
  }
  param {
    lr_mult: 2
  }
  inner_product_param {
    num_output: 10
    weight_filler {
      type: "xavier"
    }
    bias_filler {
      type: "constant"
    }
  }
}
layer {
  name: "relu1"
  type: "ReLU"
  bottom: "ip1"
  top: "ip1"
}
layer {
  name: "ip2"
  type: "InnerProduct"
  bottom: "ip1"
  top: "ip2"
  param {
    lr_mult: 1
  }
  param {
    lr_mult: 2
  }
  inner_product_param {
    num_output: 50
    weight_filler {
      type: "xavier"
    }
    bias_filler {
      type: "constant"
    }
  }
}
layer {
  name: "relu2"
  type: "ReLU"
  bottom: "ip2"
  top: "ip2"
}
layer {
  name: "ip3"
  type: "InnerProduct"
  bottom: "ip2"
  top: "ip3"
  param {
    lr_mult: 1
  }
  param {
    lr_mult: 2
  }
  inner_product_param {
    num_output: 10
    weight_filler {
      type: "xavier"
    }
    bias_filler {
      type: "constant"
    }
  }
}
layer {
  name: "relu3"
  type: "ReLU"
  bottom: "ip3"
  top: "ip3"
}
layer {
  name: "accuracy"
  type: "Accuracy"
  bottom: "ip3"
  bottom: "label"
  top: "accuracy"
  include {
    phase: TEST
  }
}
layer {
  name: "loss"
  type: "SoftmaxWithLoss"
  bottom: "ip3"
  bottom: "label"
  top: "loss"
}
I0428 20:37:57.197423  5058 layer_factory.hpp:77] Creating layer mnist
I0428 20:37:57.197464  5058 db_lmdb.cpp:35] Opened lmdb examples/mnist/mnist_test_lmdb
I0428 20:37:57.197475  5058 net.cpp:86] Creating Layer mnist
I0428 20:37:57.197479  5058 net.cpp:382] mnist -> data
I0428 20:37:57.197487  5058 net.cpp:382] mnist -> label
I0428 20:37:57.197572  5058 data_layer.cpp:45] output data size: 100,1,28,28
I0428 20:37:57.199376  5058 net.cpp:124] Setting up mnist
I0428 20:37:57.199389  5058 net.cpp:131] Top shape: 100 1 28 28 (78400)
I0428 20:37:57.199405  5058 net.cpp:131] Top shape: 100 (100)
I0428 20:37:57.199407  5058 net.cpp:139] Memory required for data: 314000
I0428 20:37:57.199411  5058 layer_factory.hpp:77] Creating layer label_mnist_1_split
I0428 20:37:57.199417  5058 net.cpp:86] Creating Layer label_mnist_1_split
I0428 20:37:57.199420  5058 net.cpp:408] label_mnist_1_split <- label
I0428 20:37:57.199425  5058 net.cpp:382] label_mnist_1_split -> label_mnist_1_split_0
I0428 20:37:57.199430  5058 net.cpp:382] label_mnist_1_split -> label_mnist_1_split_1
I0428 20:37:57.199479  5058 net.cpp:124] Setting up label_mnist_1_split
I0428 20:37:57.199486  5058 net.cpp:131] Top shape: 100 (100)
I0428 20:37:57.199489  5058 net.cpp:131] Top shape: 100 (100)
I0428 20:37:57.199491  5058 net.cpp:139] Memory required for data: 314800
I0428 20:37:57.199494  5058 layer_factory.hpp:77] Creating layer conv0
I0428 20:37:57.199502  5058 net.cpp:86] Creating Layer conv0
I0428 20:37:57.199506  5058 net.cpp:408] conv0 <- data
I0428 20:37:57.199512  5058 net.cpp:382] conv0 -> conv0
I0428 20:37:57.201268  5058 net.cpp:124] Setting up conv0
I0428 20:37:57.201283  5058 net.cpp:131] Top shape: 100 100 24 24 (5760000)
I0428 20:37:57.201287  5058 net.cpp:139] Memory required for data: 23354800
I0428 20:37:57.201295  5058 layer_factory.hpp:77] Creating layer pool0
I0428 20:37:57.201319  5058 net.cpp:86] Creating Layer pool0
I0428 20:37:57.201323  5058 net.cpp:408] pool0 <- conv0
I0428 20:37:57.201328  5058 net.cpp:382] pool0 -> pool0
I0428 20:37:57.201364  5058 net.cpp:124] Setting up pool0
I0428 20:37:57.201370  5058 net.cpp:131] Top shape: 100 100 12 12 (1440000)
I0428 20:37:57.201373  5058 net.cpp:139] Memory required for data: 29114800
I0428 20:37:57.201376  5058 layer_factory.hpp:77] Creating layer conv1
I0428 20:37:57.201385  5058 net.cpp:86] Creating Layer conv1
I0428 20:37:57.201388  5058 net.cpp:408] conv1 <- pool0
I0428 20:37:57.201393  5058 net.cpp:382] conv1 -> conv1
I0428 20:37:57.204310  5058 net.cpp:124] Setting up conv1
I0428 20:37:57.204324  5058 net.cpp:131] Top shape: 100 100 8 8 (640000)
I0428 20:37:57.204342  5058 net.cpp:139] Memory required for data: 31674800
I0428 20:37:57.204351  5058 layer_factory.hpp:77] Creating layer pool1
I0428 20:37:57.204358  5058 net.cpp:86] Creating Layer pool1
I0428 20:37:57.204361  5058 net.cpp:408] pool1 <- conv1
I0428 20:37:57.204368  5058 net.cpp:382] pool1 -> pool1
I0428 20:37:57.204421  5058 net.cpp:124] Setting up pool1
I0428 20:37:57.204426  5058 net.cpp:131] Top shape: 100 100 4 4 (160000)
I0428 20:37:57.204429  5058 net.cpp:139] Memory required for data: 32314800
I0428 20:37:57.204432  5058 layer_factory.hpp:77] Creating layer ip1
I0428 20:37:57.204439  5058 net.cpp:86] Creating Layer ip1
I0428 20:37:57.204442  5058 net.cpp:408] ip1 <- pool1
I0428 20:37:57.204447  5058 net.cpp:382] ip1 -> ip1
I0428 20:37:57.204632  5058 net.cpp:124] Setting up ip1
I0428 20:37:57.204650  5058 net.cpp:131] Top shape: 100 10 (1000)
I0428 20:37:57.204681  5058 net.cpp:139] Memory required for data: 32318800
I0428 20:37:57.204689  5058 layer_factory.hpp:77] Creating layer relu1
I0428 20:37:57.204694  5058 net.cpp:86] Creating Layer relu1
I0428 20:37:57.204704  5058 net.cpp:408] relu1 <- ip1
I0428 20:37:57.204707  5058 net.cpp:369] relu1 -> ip1 (in-place)
I0428 20:37:57.204933  5058 net.cpp:124] Setting up relu1
I0428 20:37:57.204944  5058 net.cpp:131] Top shape: 100 10 (1000)
I0428 20:37:57.204947  5058 net.cpp:139] Memory required for data: 32322800
I0428 20:37:57.204951  5058 layer_factory.hpp:77] Creating layer ip2
I0428 20:37:57.204957  5058 net.cpp:86] Creating Layer ip2
I0428 20:37:57.204960  5058 net.cpp:408] ip2 <- ip1
I0428 20:37:57.204967  5058 net.cpp:382] ip2 -> ip2
I0428 20:37:57.205127  5058 net.cpp:124] Setting up ip2
I0428 20:37:57.205134  5058 net.cpp:131] Top shape: 100 50 (5000)
I0428 20:37:57.205137  5058 net.cpp:139] Memory required for data: 32342800
I0428 20:37:57.205157  5058 layer_factory.hpp:77] Creating layer relu2
I0428 20:37:57.205162  5058 net.cpp:86] Creating Layer relu2
I0428 20:37:57.205164  5058 net.cpp:408] relu2 <- ip2
I0428 20:37:57.205171  5058 net.cpp:369] relu2 -> ip2 (in-place)
I0428 20:37:57.205319  5058 net.cpp:124] Setting up relu2
I0428 20:37:57.205327  5058 net.cpp:131] Top shape: 100 50 (5000)
I0428 20:37:57.205330  5058 net.cpp:139] Memory required for data: 32362800
I0428 20:37:57.205334  5058 layer_factory.hpp:77] Creating layer ip3
I0428 20:37:57.205340  5058 net.cpp:86] Creating Layer ip3
I0428 20:37:57.205343  5058 net.cpp:408] ip3 <- ip2
I0428 20:37:57.205348  5058 net.cpp:382] ip3 -> ip3
I0428 20:37:57.205479  5058 net.cpp:124] Setting up ip3
I0428 20:37:57.205487  5058 net.cpp:131] Top shape: 100 10 (1000)
I0428 20:37:57.205489  5058 net.cpp:139] Memory required for data: 32366800
I0428 20:37:57.205497  5058 layer_factory.hpp:77] Creating layer relu3
I0428 20:37:57.205502  5058 net.cpp:86] Creating Layer relu3
I0428 20:37:57.205505  5058 net.cpp:408] relu3 <- ip3
I0428 20:37:57.205510  5058 net.cpp:369] relu3 -> ip3 (in-place)
I0428 20:37:57.206336  5058 net.cpp:124] Setting up relu3
I0428 20:37:57.206348  5058 net.cpp:131] Top shape: 100 10 (1000)
I0428 20:37:57.206351  5058 net.cpp:139] Memory required for data: 32370800
I0428 20:37:57.206356  5058 layer_factory.hpp:77] Creating layer ip3_relu3_0_split
I0428 20:37:57.206362  5058 net.cpp:86] Creating Layer ip3_relu3_0_split
I0428 20:37:57.206365  5058 net.cpp:408] ip3_relu3_0_split <- ip3
I0428 20:37:57.206370  5058 net.cpp:382] ip3_relu3_0_split -> ip3_relu3_0_split_0
I0428 20:37:57.206377  5058 net.cpp:382] ip3_relu3_0_split -> ip3_relu3_0_split_1
I0428 20:37:57.206444  5058 net.cpp:124] Setting up ip3_relu3_0_split
I0428 20:37:57.206451  5058 net.cpp:131] Top shape: 100 10 (1000)
I0428 20:37:57.206455  5058 net.cpp:131] Top shape: 100 10 (1000)
I0428 20:37:57.206463  5058 net.cpp:139] Memory required for data: 32378800
I0428 20:37:57.206466  5058 layer_factory.hpp:77] Creating layer accuracy
I0428 20:37:57.206476  5058 net.cpp:86] Creating Layer accuracy
I0428 20:37:57.206480  5058 net.cpp:408] accuracy <- ip3_relu3_0_split_0
I0428 20:37:57.206485  5058 net.cpp:408] accuracy <- label_mnist_1_split_0
I0428 20:37:57.206490  5058 net.cpp:382] accuracy -> accuracy
…
