…
I0428 19:28:20.839267 21599 net.cpp:296] The NetState phase (0) differed from the phase (1) specified by a rule in layer mnist
I0428 19:28:20.839283 21599 net.cpp:296] The NetState phase (0) differed from the phase (1) specified by a rule in layer accuracy
I0428 19:28:20.839354 21599 net.cpp:53] Initializing net from parameters: 
name: "LeNet"
state {
  phase: TRAIN
  level: 0
  stage: ""
}
layer {
  name: "mnist"
  type: "Data"
  top: "data"
  top: "label"
  include {
    phase: TRAIN
  }
  transform_param {
    scale: 0.00390625
  }
  data_param {
    source: "examples/mnist/mnist_train_lmdb"
    batch_size: 64
    backend: LMDB
  }
}
layer {
  name: "ip1"
  type: "InnerProduct"
  bottom: "data"
  top: "ip1"
  param {
    lr_mult: 1
  }
  param {
    lr_mult: 2
  }
  inner_product_param {
    num_output: 25
    weight_filler {
      type: "xavier"
    }
    bias_filler {
      type: "constant"
    }
  }
}
layer {
  name: "relu1"
  type: "ReLU"
  bottom: "ip1"
  top: "ip1"
}
layer {
  name: "ip2"
  type: "InnerProduct"
  bottom: "ip1"
  top: "ip2"
  param {
    lr_mult: 1
  }
  param {
    lr_mult: 2
  }
  inner_product_param {
    num_output: 10
    weight_filler {
      type: "xavier"
    }
    bias_filler {
      type: "constant"
    }
  }
}
layer {
  name: "relu2"
  type: "ReLU"
  bottom: "ip2"
  top: "ip2"
}
layer {
  name: "ip3"
  type: "InnerProduct"
  bottom: "ip2"
  top: "ip3"
  param {
    lr_mult: 1
  }
  param {
    lr_mult: 2
  }
  inner_product_param {
    num_output: 10
    weight_filler {
      type: "xavier"
    }
    bias_filler {
      type: "constant"
    }
  }
}
layer {
  name: "relu3"
  type: "ReLU"
  bottom: "ip3"
  top: "ip3"
}
layer {
  name: "loss"
  type: "SoftmaxWithLoss"
  bottom: "ip3"
  bottom: "label"
  top: "loss"
}
I0428 19:28:20.839426 21599 layer_factory.hpp:77] Creating layer mnist
I0428 19:28:20.839524 21599 db_lmdb.cpp:35] Opened lmdb examples/mnist/mnist_train_lmdb
I0428 19:28:20.839547 21599 net.cpp:86] Creating Layer mnist
I0428 19:28:20.839555 21599 net.cpp:382] mnist -> data
I0428 19:28:20.839579 21599 net.cpp:382] mnist -> label
I0428 19:28:20.841292 21599 data_layer.cpp:45] output data size: 64,1,28,28
I0428 19:28:20.843744 21599 net.cpp:124] Setting up mnist
I0428 19:28:20.843760 21599 net.cpp:131] Top shape: 64 1 28 28 (50176)
I0428 19:28:20.843766 21599 net.cpp:131] Top shape: 64 (64)
I0428 19:28:20.843770 21599 net.cpp:139] Memory required for data: 200960
I0428 19:28:20.843776 21599 layer_factory.hpp:77] Creating layer ip1
I0428 19:28:20.843789 21599 net.cpp:86] Creating Layer ip1
I0428 19:28:20.843794 21599 net.cpp:408] ip1 <- data
I0428 19:28:20.843807 21599 net.cpp:382] ip1 -> ip1
I0428 19:28:20.844147 21599 net.cpp:124] Setting up ip1
I0428 19:28:20.844161 21599 net.cpp:131] Top shape: 64 25 (1600)
I0428 19:28:20.844164 21599 net.cpp:139] Memory required for data: 207360
I0428 19:28:20.844177 21599 layer_factory.hpp:77] Creating layer relu1
I0428 19:28:20.844185 21599 net.cpp:86] Creating Layer relu1
I0428 19:28:20.844189 21599 net.cpp:408] relu1 <- ip1
I0428 19:28:20.844194 21599 net.cpp:369] relu1 -> ip1 (in-place)
I0428 19:28:21.126539 21599 net.cpp:124] Setting up relu1
I0428 19:28:21.126566 21599 net.cpp:131] Top shape: 64 25 (1600)
I0428 19:28:21.126570 21599 net.cpp:139] Memory required for data: 213760
I0428 19:28:21.126575 21599 layer_factory.hpp:77] Creating layer ip2
I0428 19:28:21.126587 21599 net.cpp:86] Creating Layer ip2
I0428 19:28:21.126610 21599 net.cpp:408] ip2 <- ip1
I0428 19:28:21.126618 21599 net.cpp:382] ip2 -> ip2
I0428 19:28:21.126729 21599 net.cpp:124] Setting up ip2
I0428 19:28:21.126737 21599 net.cpp:131] Top shape: 64 10 (640)
I0428 19:28:21.126740 21599 net.cpp:139] Memory required for data: 216320
I0428 19:28:21.126750 21599 layer_factory.hpp:77] Creating layer relu2
I0428 19:28:21.126758 21599 net.cpp:86] Creating Layer relu2
I0428 19:28:21.126761 21599 net.cpp:408] relu2 <- ip2
I0428 19:28:21.126765 21599 net.cpp:369] relu2 -> ip2 (in-place)
I0428 19:28:21.127506 21599 net.cpp:124] Setting up relu2
I0428 19:28:21.127517 21599 net.cpp:131] Top shape: 64 10 (640)
I0428 19:28:21.127521 21599 net.cpp:139] Memory required for data: 218880
I0428 19:28:21.127524 21599 layer_factory.hpp:77] Creating layer ip3
I0428 19:28:21.127532 21599 net.cpp:86] Creating Layer ip3
I0428 19:28:21.127534 21599 net.cpp:408] ip3 <- ip2
I0428 19:28:21.127540 21599 net.cpp:382] ip3 -> ip3
I0428 19:28:21.127632 21599 net.cpp:124] Setting up ip3
I0428 19:28:21.127640 21599 net.cpp:131] Top shape: 64 10 (640)
I0428 19:28:21.127643 21599 net.cpp:139] Memory required for data: 221440
I0428 19:28:21.127651 21599 layer_factory.hpp:77] Creating layer relu3
I0428 19:28:21.127656 21599 net.cpp:86] Creating Layer relu3
I0428 19:28:21.127660 21599 net.cpp:408] relu3 <- ip3
I0428 19:28:21.127665 21599 net.cpp:369] relu3 -> ip3 (in-place)
I0428 19:28:21.127830 21599 net.cpp:124] Setting up relu3
I0428 19:28:21.127838 21599 net.cpp:131] Top shape: 64 10 (640)
I0428 19:28:21.127841 21599 net.cpp:139] Memory required for data: 224000
I0428 19:28:21.127845 21599 layer_factory.hpp:77] Creating layer loss
I0428 19:28:21.127858 21599 net.cpp:86] Creating Layer loss
I0428 19:28:21.127862 21599 net.cpp:408] loss <- ip3
I0428 19:28:21.127866 21599 net.cpp:408] loss <- label
I0428 19:28:21.127871 21599 net.cpp:382] loss -> loss
I0428 19:28:21.127885 21599 layer_factory.hpp:77] Creating layer loss
…
I0428 19:28:21.129344 21599 solver.cpp:173] Creating test net (#0) specified by net file: ECE595/mnist/train_test/var_everything2/lenet_train_test22.prototxt
I0428 19:28:21.129369 21599 net.cpp:296] The NetState phase (1) differed from the phase (0) specified by a rule in layer mnist
I0428 19:28:21.129453 21599 net.cpp:53] Initializing net from parameters: 
name: "LeNet"
state {
  phase: TEST
}
layer {
  name: "mnist"
  type: "Data"
  top: "data"
  top: "label"
  include {
    phase: TEST
  }
  transform_param {
    scale: 0.00390625
  }
  data_param {
    source: "examples/mnist/mnist_test_lmdb"
    batch_size: 100
    backend: LMDB
  }
}
layer {
  name: "ip1"
  type: "InnerProduct"
  bottom: "data"
  top: "ip1"
  param {
    lr_mult: 1
  }
  param {
    lr_mult: 2
  }
  inner_product_param {
    num_output: 25
    weight_filler {
      type: "xavier"
    }
    bias_filler {
      type: "constant"
    }
  }
}
layer {
  name: "relu1"
  type: "ReLU"
  bottom: "ip1"
  top: "ip1"
}
layer {
  name: "ip2"
  type: "InnerProduct"
  bottom: "ip1"
  top: "ip2"
  param {
    lr_mult: 1
  }
  param {
    lr_mult: 2
  }
  inner_product_param {
    num_output: 10
    weight_filler {
      type: "xavier"
    }
    bias_filler {
      type: "constant"
    }
  }
}
layer {
  name: "relu2"
  type: "ReLU"
  bottom: "ip2"
  top: "ip2"
}
layer {
  name: "ip3"
  type: "InnerProduct"
  bottom: "ip2"
  top: "ip3"
  param {
    lr_mult: 1
  }
  param {
    lr_mult: 2
  }
  inner_product_param {
    num_output: 10
    weight_filler {
      type: "xavier"
    }
    bias_filler {
      type: "constant"
    }
  }
}
layer {
  name: "relu3"
  type: "ReLU"
  bottom: "ip3"
  top: "ip3"
}
layer {
  name: "accuracy"
  type: "Accuracy"
  bottom: "ip3"
  bottom: "label"
  top: "accuracy"
  include {
    phase: TEST
  }
}
layer {
  name: "loss"
  type: "SoftmaxWithLoss"
  bottom: "ip3"
  bottom: "label"
  top: "loss"
}
I0428 19:28:21.129526 21599 layer_factory.hpp:77] Creating layer mnist
I0428 19:28:21.129570 21599 db_lmdb.cpp:35] Opened lmdb examples/mnist/mnist_test_lmdb
I0428 19:28:21.129585 21599 net.cpp:86] Creating Layer mnist
I0428 19:28:21.129590 21599 net.cpp:382] mnist -> data
I0428 19:28:21.129598 21599 net.cpp:382] mnist -> label
I0428 19:28:21.129683 21599 data_layer.cpp:45] output data size: 100,1,28,28
I0428 19:28:21.131642 21599 net.cpp:124] Setting up mnist
I0428 19:28:21.131671 21599 net.cpp:131] Top shape: 100 1 28 28 (78400)
I0428 19:28:21.131676 21599 net.cpp:131] Top shape: 100 (100)
I0428 19:28:21.131680 21599 net.cpp:139] Memory required for data: 314000
I0428 19:28:21.131683 21599 layer_factory.hpp:77] Creating layer label_mnist_1_split
I0428 19:28:21.131731 21599 net.cpp:86] Creating Layer label_mnist_1_split
I0428 19:28:21.131736 21599 net.cpp:408] label_mnist_1_split <- label
I0428 19:28:21.131741 21599 net.cpp:382] label_mnist_1_split -> label_mnist_1_split_0
I0428 19:28:21.131748 21599 net.cpp:382] label_mnist_1_split -> label_mnist_1_split_1
I0428 19:28:21.131789 21599 net.cpp:124] Setting up label_mnist_1_split
I0428 19:28:21.131795 21599 net.cpp:131] Top shape: 100 (100)
I0428 19:28:21.131798 21599 net.cpp:131] Top shape: 100 (100)
I0428 19:28:21.131801 21599 net.cpp:139] Memory required for data: 314800
I0428 19:28:21.131804 21599 layer_factory.hpp:77] Creating layer ip1
I0428 19:28:21.131811 21599 net.cpp:86] Creating Layer ip1
I0428 19:28:21.131814 21599 net.cpp:408] ip1 <- data
I0428 19:28:21.131820 21599 net.cpp:382] ip1 -> ip1
I0428 19:28:21.132113 21599 net.cpp:124] Setting up ip1
I0428 19:28:21.132122 21599 net.cpp:131] Top shape: 100 25 (2500)
I0428 19:28:21.132125 21599 net.cpp:139] Memory required for data: 324800
I0428 19:28:21.132135 21599 layer_factory.hpp:77] Creating layer relu1
I0428 19:28:21.132140 21599 net.cpp:86] Creating Layer relu1
I0428 19:28:21.132143 21599 net.cpp:408] relu1 <- ip1
I0428 19:28:21.132148 21599 net.cpp:369] relu1 -> ip1 (in-place)
I0428 19:28:21.133157 21599 net.cpp:124] Setting up relu1
I0428 19:28:21.133169 21599 net.cpp:131] Top shape: 100 25 (2500)
I0428 19:28:21.133173 21599 net.cpp:139] Memory required for data: 334800
I0428 19:28:21.133177 21599 layer_factory.hpp:77] Creating layer ip2
I0428 19:28:21.133185 21599 net.cpp:86] Creating Layer ip2
I0428 19:28:21.133188 21599 net.cpp:408] ip2 <- ip1
I0428 19:28:21.133209 21599 net.cpp:382] ip2 -> ip2
I0428 19:28:21.133308 21599 net.cpp:124] Setting up ip2
I0428 19:28:21.133316 21599 net.cpp:131] Top shape: 100 10 (1000)
I0428 19:28:21.133319 21599 net.cpp:139] Memory required for data: 338800
I0428 19:28:21.133327 21599 layer_factory.hpp:77] Creating layer relu2
I0428 19:28:21.133332 21599 net.cpp:86] Creating Layer relu2
I0428 19:28:21.133334 21599 net.cpp:408] relu2 <- ip2
I0428 19:28:21.133339 21599 net.cpp:369] relu2 -> ip2 (in-place)
I0428 19:28:21.133499 21599 net.cpp:124] Setting up relu2
I0428 19:28:21.133508 21599 net.cpp:131] Top shape: 100 10 (1000)
I0428 19:28:21.133512 21599 net.cpp:139] Memory required for data: 342800
I0428 19:28:21.133514 21599 layer_factory.hpp:77] Creating layer ip3
I0428 19:28:21.133519 21599 net.cpp:86] Creating Layer ip3
I0428 19:28:21.133522 21599 net.cpp:408] ip3 <- ip2
I0428 19:28:21.133527 21599 net.cpp:382] ip3 -> ip3
I0428 19:28:21.133630 21599 net.cpp:124] Setting up ip3
I0428 19:28:21.133638 21599 net.cpp:131] Top shape: 100 10 (1000)
I0428 19:28:21.133641 21599 net.cpp:139] Memory required for data: 346800
I0428 19:28:21.133648 21599 layer_factory.hpp:77] Creating layer relu3
I0428 19:28:21.133654 21599 net.cpp:86] Creating Layer relu3
I0428 19:28:21.133673 21599 net.cpp:408] relu3 <- ip3
I0428 19:28:21.133678 21599 net.cpp:369] relu3 -> ip3 (in-place)
I0428 19:28:21.133853 21599 net.cpp:124] Setting up relu3
I0428 19:28:21.133862 21599 net.cpp:131] Top shape: 100 10 (1000)
I0428 19:28:21.133865 21599 net.cpp:139] Memory required for data: 350800
I0428 19:28:21.133868 21599 layer_factory.hpp:77] Creating layer ip3_relu3_0_split
I0428 19:28:21.133874 21599 net.cpp:86] Creating Layer ip3_relu3_0_split
I0428 19:28:21.133878 21599 net.cpp:408] ip3_relu3_0_split <- ip3
I0428 19:28:21.133883 21599 net.cpp:382] ip3_relu3_0_split -> ip3_relu3_0_split_0
I0428 19:28:21.133888 21599 net.cpp:382] ip3_relu3_0_split -> ip3_relu3_0_split_1
I0428 19:28:21.133924 21599 net.cpp:124] Setting up ip3_relu3_0_split
I0428 19:28:21.133929 21599 net.cpp:131] Top shape: 100 10 (1000)
I0428 19:28:21.133932 21599 net.cpp:131] Top shape: 100 10 (1000)
I0428 19:28:21.133935 21599 net.cpp:139] Memory required for data: 358800
I0428 19:28:21.133939 21599 layer_factory.hpp:77] Creating layer accuracy
I0428 19:28:21.133942 21599 net.cpp:86] Creating Layer accuracy
I0428 19:28:21.133945 21599 net.cpp:408] accuracy <- ip3_relu3_0_split_0
I0428 19:28:21.133949 21599 net.cpp:408] accuracy <- label_mnist_1_split_0
I0428 19:28:21.133955 21599 net.cpp:382] accuracy -> accuracy
…
