…
I0428 20:14:20.309084 32652 net.cpp:296] The NetState phase (0) differed from the phase (1) specified by a rule in layer mnist
I0428 20:14:20.309101 32652 net.cpp:296] The NetState phase (0) differed from the phase (1) specified by a rule in layer accuracy
I0428 20:14:20.309195 32652 net.cpp:53] Initializing net from parameters: 
name: "LeNet"
state {
  phase: TRAIN
  level: 0
  stage: ""
}
layer {
  name: "mnist"
  type: "Data"
  top: "data"
  top: "label"
  include {
    phase: TRAIN
  }
  transform_param {
    scale: 0.00390625
  }
  data_param {
    source: "examples/mnist/mnist_train_lmdb"
    batch_size: 64
    backend: LMDB
  }
}
layer {
  name: "conv0"
  type: "Convolution"
  bottom: "data"
  top: "conv0"
  param {
    lr_mult: 1
  }
  param {
    lr_mult: 2
  }
  convolution_param {
    num_output: 50
    kernel_size: 5
    stride: 1
    weight_filler {
      type: "xavier"
    }
    bias_filler {
      type: "constant"
    }
  }
}
layer {
  name: "pool0"
  type: "Pooling"
  bottom: "conv0"
  top: "pool0"
  pooling_param {
    pool: MAX
    kernel_size: 2
    stride: 2
  }
}
layer {
  name: "conv1"
  type: "Convolution"
  bottom: "pool0"
  top: "conv1"
  param {
    lr_mult: 1
  }
  param {
    lr_mult: 2
  }
  convolution_param {
    num_output: 2
    kernel_size: 5
    stride: 1
    weight_filler {
      type: "xavier"
    }
    bias_filler {
      type: "constant"
    }
  }
}
layer {
  name: "pool1"
  type: "Pooling"
  bottom: "conv1"
  top: "pool1"
  pooling_param {
    pool: MAX
    kernel_size: 2
    stride: 2
  }
}
layer {
  name: "ip1"
  type: "InnerProduct"
  bottom: "pool1"
  top: "ip1"
  param {
    lr_mult: 1
  }
  param {
    lr_mult: 2
  }
  inner_product_param {
    num_output: 50
    weight_filler {
      type: "xavier"
    }
    bias_filler {
      type: "constant"
    }
  }
}
layer {
  name: "relu1"
  type: "ReLU"
  bottom: "ip1"
  top: "ip1"
}
layer {
  name: "ip2"
  type: "InnerProduct"
  bottom: "ip1"
  top: "ip2"
  param {
    lr_mult: 1
  }
  param {
    lr_mult: 2
  }
  inner_product_param {
    num_output: 10
    weight_filler {
      type: "xavier"
    }
    bias_filler {
      type: "constant"
    }
  }
}
layer {
  name: "relu2"
  type: "ReLU"
  bottom: "ip2"
  top: "ip2"
}
layer {
  name: "loss"
  type: "SoftmaxWithLoss"
  bottom: "ip2"
  bottom: "label"
  top: "loss"
}
I0428 20:14:20.309270 32652 layer_factory.hpp:77] Creating layer mnist
I0428 20:14:20.309376 32652 db_lmdb.cpp:35] Opened lmdb examples/mnist/mnist_train_lmdb
I0428 20:14:20.309401 32652 net.cpp:86] Creating Layer mnist
I0428 20:14:20.309408 32652 net.cpp:382] mnist -> data
I0428 20:14:20.309430 32652 net.cpp:382] mnist -> label
I0428 20:14:20.310536 32652 data_layer.cpp:45] output data size: 64,1,28,28
I0428 20:14:20.313012 32652 net.cpp:124] Setting up mnist
I0428 20:14:20.313031 32652 net.cpp:131] Top shape: 64 1 28 28 (50176)
I0428 20:14:20.313037 32652 net.cpp:131] Top shape: 64 (64)
I0428 20:14:20.313041 32652 net.cpp:139] Memory required for data: 200960
I0428 20:14:20.313048 32652 layer_factory.hpp:77] Creating layer conv0
I0428 20:14:20.313066 32652 net.cpp:86] Creating Layer conv0
I0428 20:14:20.313071 32652 net.cpp:408] conv0 <- data
I0428 20:14:20.313083 32652 net.cpp:382] conv0 -> conv0
I0428 20:14:20.607612 32652 net.cpp:124] Setting up conv0
I0428 20:14:20.607645 32652 net.cpp:131] Top shape: 64 50 24 24 (1843200)
I0428 20:14:20.607650 32652 net.cpp:139] Memory required for data: 7573760
I0428 20:14:20.607692 32652 layer_factory.hpp:77] Creating layer pool0
I0428 20:14:20.607705 32652 net.cpp:86] Creating Layer pool0
I0428 20:14:20.607710 32652 net.cpp:408] pool0 <- conv0
I0428 20:14:20.607717 32652 net.cpp:382] pool0 -> pool0
I0428 20:14:20.607775 32652 net.cpp:124] Setting up pool0
I0428 20:14:20.607785 32652 net.cpp:131] Top shape: 64 50 12 12 (460800)
I0428 20:14:20.607789 32652 net.cpp:139] Memory required for data: 9416960
I0428 20:14:20.607792 32652 layer_factory.hpp:77] Creating layer conv1
I0428 20:14:20.607805 32652 net.cpp:86] Creating Layer conv1
I0428 20:14:20.607810 32652 net.cpp:408] conv1 <- pool0
I0428 20:14:20.607815 32652 net.cpp:382] conv1 -> conv1
I0428 20:14:20.609990 32652 net.cpp:124] Setting up conv1
I0428 20:14:20.610008 32652 net.cpp:131] Top shape: 64 2 8 8 (8192)
I0428 20:14:20.610013 32652 net.cpp:139] Memory required for data: 9449728
I0428 20:14:20.610023 32652 layer_factory.hpp:77] Creating layer pool1
I0428 20:14:20.610033 32652 net.cpp:86] Creating Layer pool1
I0428 20:14:20.610036 32652 net.cpp:408] pool1 <- conv1
I0428 20:14:20.610043 32652 net.cpp:382] pool1 -> pool1
I0428 20:14:20.610085 32652 net.cpp:124] Setting up pool1
I0428 20:14:20.610091 32652 net.cpp:131] Top shape: 64 2 4 4 (2048)
I0428 20:14:20.610095 32652 net.cpp:139] Memory required for data: 9457920
I0428 20:14:20.610100 32652 layer_factory.hpp:77] Creating layer ip1
I0428 20:14:20.610107 32652 net.cpp:86] Creating Layer ip1
I0428 20:14:20.610111 32652 net.cpp:408] ip1 <- pool1
I0428 20:14:20.610117 32652 net.cpp:382] ip1 -> ip1
I0428 20:14:20.610254 32652 net.cpp:124] Setting up ip1
I0428 20:14:20.610262 32652 net.cpp:131] Top shape: 64 50 (3200)
I0428 20:14:20.610266 32652 net.cpp:139] Memory required for data: 9470720
I0428 20:14:20.610275 32652 layer_factory.hpp:77] Creating layer relu1
I0428 20:14:20.610281 32652 net.cpp:86] Creating Layer relu1
I0428 20:14:20.610285 32652 net.cpp:408] relu1 <- ip1
I0428 20:14:20.610291 32652 net.cpp:369] relu1 -> ip1 (in-place)
I0428 20:14:20.610488 32652 net.cpp:124] Setting up relu1
I0428 20:14:20.610501 32652 net.cpp:131] Top shape: 64 50 (3200)
I0428 20:14:20.610507 32652 net.cpp:139] Memory required for data: 9483520
I0428 20:14:20.610512 32652 layer_factory.hpp:77] Creating layer ip2
I0428 20:14:20.610523 32652 net.cpp:86] Creating Layer ip2
I0428 20:14:20.610530 32652 net.cpp:408] ip2 <- ip1
I0428 20:14:20.610540 32652 net.cpp:382] ip2 -> ip2
I0428 20:14:20.610667 32652 net.cpp:124] Setting up ip2
I0428 20:14:20.610677 32652 net.cpp:131] Top shape: 64 10 (640)
I0428 20:14:20.610682 32652 net.cpp:139] Memory required for data: 9486080
I0428 20:14:20.610688 32652 layer_factory.hpp:77] Creating layer relu2
I0428 20:14:20.610695 32652 net.cpp:86] Creating Layer relu2
I0428 20:14:20.610699 32652 net.cpp:408] relu2 <- ip2
I0428 20:14:20.610704 32652 net.cpp:369] relu2 -> ip2 (in-place)
I0428 20:14:20.611562 32652 net.cpp:124] Setting up relu2
I0428 20:14:20.611577 32652 net.cpp:131] Top shape: 64 10 (640)
I0428 20:14:20.611582 32652 net.cpp:139] Memory required for data: 9488640
I0428 20:14:20.611587 32652 layer_factory.hpp:77] Creating layer loss
I0428 20:14:20.611594 32652 net.cpp:86] Creating Layer loss
I0428 20:14:20.611598 32652 net.cpp:408] loss <- ip2
I0428 20:14:20.611604 32652 net.cpp:408] loss <- label
I0428 20:14:20.611611 32652 net.cpp:382] loss -> loss
I0428 20:14:20.611631 32652 layer_factory.hpp:77] Creating layer loss
…
I0428 20:14:20.612356 32652 solver.cpp:173] Creating test net (#0) specified by net file: ECE595/mnist/train_test/var_everything2/lenet_train_test1219.prototxt
I0428 20:14:20.612387 32652 net.cpp:296] The NetState phase (1) differed from the phase (0) specified by a rule in layer mnist
I0428 20:14:20.612486 32652 net.cpp:53] Initializing net from parameters: 
name: "LeNet"
state {
  phase: TEST
}
layer {
  name: "mnist"
  type: "Data"
  top: "data"
  top: "label"
  include {
    phase: TEST
  }
  transform_param {
    scale: 0.00390625
  }
  data_param {
    source: "examples/mnist/mnist_test_lmdb"
    batch_size: 100
    backend: LMDB
  }
}
layer {
  name: "conv0"
  type: "Convolution"
  bottom: "data"
  top: "conv0"
  param {
    lr_mult: 1
  }
  param {
    lr_mult: 2
  }
  convolution_param {
    num_output: 50
    kernel_size: 5
    stride: 1
    weight_filler {
      type: "xavier"
    }
    bias_filler {
      type: "constant"
    }
  }
}
layer {
  name: "pool0"
  type: "Pooling"
  bottom: "conv0"
  top: "pool0"
  pooling_param {
    pool: MAX
    kernel_size: 2
    stride: 2
  }
}
layer {
  name: "conv1"
  type: "Convolution"
  bottom: "pool0"
  top: "conv1"
  param {
    lr_mult: 1
  }
  param {
    lr_mult: 2
  }
  convolution_param {
    num_output: 2
    kernel_size: 5
    stride: 1
    weight_filler {
      type: "xavier"
    }
    bias_filler {
      type: "constant"
    }
  }
}
layer {
  name: "pool1"
  type: "Pooling"
  bottom: "conv1"
  top: "pool1"
  pooling_param {
    pool: MAX
    kernel_size: 2
    stride: 2
  }
}
layer {
  name: "ip1"
  type: "InnerProduct"
  bottom: "pool1"
  top: "ip1"
  param {
    lr_mult: 1
  }
  param {
    lr_mult: 2
  }
  inner_product_param {
    num_output: 50
    weight_filler {
      type: "xavier"
    }
    bias_filler {
      type: "constant"
    }
  }
}
layer {
  name: "relu1"
  type: "ReLU"
  bottom: "ip1"
  top: "ip1"
}
layer {
  name: "ip2"
  type: "InnerProduct"
  bottom: "ip1"
  top: "ip2"
  param {
    lr_mult: 1
  }
  param {
    lr_mult: 2
  }
  inner_product_param {
    num_output: 10
    weight_filler {
      type: "xavier"
    }
    bias_filler {
      type: "constant"
    }
  }
}
layer {
  name: "relu2"
  type: "ReLU"
  bottom: "ip2"
  top: "ip2"
}
layer {
  name: "accuracy"
  type: "Accuracy"
  bottom: "ip2"
  bottom: "label"
  top: "accuracy"
  include {
    phase: TEST
  }
}
layer {
  name: "loss"
  type: "SoftmaxWithLoss"
  bottom: "ip2"
  bottom: "label"
  top: "loss"
}
I0428 20:14:20.612561 32652 layer_factory.hpp:77] Creating layer mnist
I0428 20:14:20.612615 32652 db_lmdb.cpp:35] Opened lmdb examples/mnist/mnist_test_lmdb
I0428 20:14:20.612630 32652 net.cpp:86] Creating Layer mnist
I0428 20:14:20.612635 32652 net.cpp:382] mnist -> data
I0428 20:14:20.612644 32652 net.cpp:382] mnist -> label
I0428 20:14:20.612746 32652 data_layer.cpp:45] output data size: 100,1,28,28
I0428 20:14:20.615178 32652 net.cpp:124] Setting up mnist
I0428 20:14:20.615195 32652 net.cpp:131] Top shape: 100 1 28 28 (78400)
I0428 20:14:20.615201 32652 net.cpp:131] Top shape: 100 (100)
I0428 20:14:20.615206 32652 net.cpp:139] Memory required for data: 314000
I0428 20:14:20.615209 32652 layer_factory.hpp:77] Creating layer label_mnist_1_split
I0428 20:14:20.615217 32652 net.cpp:86] Creating Layer label_mnist_1_split
I0428 20:14:20.615221 32652 net.cpp:408] label_mnist_1_split <- label
I0428 20:14:20.615227 32652 net.cpp:382] label_mnist_1_split -> label_mnist_1_split_0
I0428 20:14:20.615236 32652 net.cpp:382] label_mnist_1_split -> label_mnist_1_split_1
I0428 20:14:20.615370 32652 net.cpp:124] Setting up label_mnist_1_split
I0428 20:14:20.615391 32652 net.cpp:131] Top shape: 100 (100)
I0428 20:14:20.615396 32652 net.cpp:131] Top shape: 100 (100)
I0428 20:14:20.615399 32652 net.cpp:139] Memory required for data: 314800
I0428 20:14:20.615403 32652 layer_factory.hpp:77] Creating layer conv0
I0428 20:14:20.615413 32652 net.cpp:86] Creating Layer conv0
I0428 20:14:20.615417 32652 net.cpp:408] conv0 <- data
I0428 20:14:20.615423 32652 net.cpp:382] conv0 -> conv0
I0428 20:14:20.617297 32652 net.cpp:124] Setting up conv0
I0428 20:14:20.617314 32652 net.cpp:131] Top shape: 100 50 24 24 (2880000)
I0428 20:14:20.617319 32652 net.cpp:139] Memory required for data: 11834800
I0428 20:14:20.617331 32652 layer_factory.hpp:77] Creating layer pool0
I0428 20:14:20.617338 32652 net.cpp:86] Creating Layer pool0
I0428 20:14:20.617342 32652 net.cpp:408] pool0 <- conv0
I0428 20:14:20.617348 32652 net.cpp:382] pool0 -> pool0
I0428 20:14:20.617390 32652 net.cpp:124] Setting up pool0
I0428 20:14:20.617396 32652 net.cpp:131] Top shape: 100 50 12 12 (720000)
I0428 20:14:20.617400 32652 net.cpp:139] Memory required for data: 14714800
I0428 20:14:20.617403 32652 layer_factory.hpp:77] Creating layer conv1
I0428 20:14:20.617413 32652 net.cpp:86] Creating Layer conv1
I0428 20:14:20.617418 32652 net.cpp:408] conv1 <- pool0
I0428 20:14:20.617424 32652 net.cpp:382] conv1 -> conv1
I0428 20:14:20.619133 32652 net.cpp:124] Setting up conv1
I0428 20:14:20.619150 32652 net.cpp:131] Top shape: 100 2 8 8 (12800)
I0428 20:14:20.619155 32652 net.cpp:139] Memory required for data: 14766000
I0428 20:14:20.619165 32652 layer_factory.hpp:77] Creating layer pool1
I0428 20:14:20.619174 32652 net.cpp:86] Creating Layer pool1
I0428 20:14:20.619177 32652 net.cpp:408] pool1 <- conv1
I0428 20:14:20.619184 32652 net.cpp:382] pool1 -> pool1
I0428 20:14:20.619225 32652 net.cpp:124] Setting up pool1
I0428 20:14:20.619233 32652 net.cpp:131] Top shape: 100 2 4 4 (3200)
I0428 20:14:20.619237 32652 net.cpp:139] Memory required for data: 14778800
I0428 20:14:20.619241 32652 layer_factory.hpp:77] Creating layer ip1
I0428 20:14:20.619256 32652 net.cpp:86] Creating Layer ip1
I0428 20:14:20.619261 32652 net.cpp:408] ip1 <- pool1
I0428 20:14:20.619266 32652 net.cpp:382] ip1 -> ip1
I0428 20:14:20.619390 32652 net.cpp:124] Setting up ip1
I0428 20:14:20.619400 32652 net.cpp:131] Top shape: 100 50 (5000)
I0428 20:14:20.619410 32652 net.cpp:139] Memory required for data: 14798800
I0428 20:14:20.619420 32652 layer_factory.hpp:77] Creating layer relu1
I0428 20:14:20.619426 32652 net.cpp:86] Creating Layer relu1
I0428 20:14:20.619429 32652 net.cpp:408] relu1 <- ip1
I0428 20:14:20.619436 32652 net.cpp:369] relu1 -> ip1 (in-place)
I0428 20:14:20.619621 32652 net.cpp:124] Setting up relu1
I0428 20:14:20.619632 32652 net.cpp:131] Top shape: 100 50 (5000)
I0428 20:14:20.619645 32652 net.cpp:139] Memory required for data: 14818800
I0428 20:14:20.619649 32652 layer_factory.hpp:77] Creating layer ip2
I0428 20:14:20.619657 32652 net.cpp:86] Creating Layer ip2
I0428 20:14:20.619662 32652 net.cpp:408] ip2 <- ip1
I0428 20:14:20.619668 32652 net.cpp:382] ip2 -> ip2
I0428 20:14:20.619784 32652 net.cpp:124] Setting up ip2
I0428 20:14:20.619793 32652 net.cpp:131] Top shape: 100 10 (1000)
I0428 20:14:20.619796 32652 net.cpp:139] Memory required for data: 14822800
I0428 20:14:20.619803 32652 layer_factory.hpp:77] Creating layer relu2
I0428 20:14:20.619808 32652 net.cpp:86] Creating Layer relu2
I0428 20:14:20.619812 32652 net.cpp:408] relu2 <- ip2
I0428 20:14:20.619817 32652 net.cpp:369] relu2 -> ip2 (in-place)
I0428 20:14:20.620002 32652 net.cpp:124] Setting up relu2
I0428 20:14:20.620012 32652 net.cpp:131] Top shape: 100 10 (1000)
I0428 20:14:20.620016 32652 net.cpp:139] Memory required for data: 14826800
I0428 20:14:20.620028 32652 layer_factory.hpp:77] Creating layer ip2_relu2_0_split
I0428 20:14:20.620033 32652 net.cpp:86] Creating Layer ip2_relu2_0_split
I0428 20:14:20.620038 32652 net.cpp:408] ip2_relu2_0_split <- ip2
I0428 20:14:20.620043 32652 net.cpp:382] ip2_relu2_0_split -> ip2_relu2_0_split_0
I0428 20:14:20.620062 32652 net.cpp:382] ip2_relu2_0_split -> ip2_relu2_0_split_1
I0428 20:14:20.620108 32652 net.cpp:124] Setting up ip2_relu2_0_split
I0428 20:14:20.620115 32652 net.cpp:131] Top shape: 100 10 (1000)
I0428 20:14:20.620121 32652 net.cpp:131] Top shape: 100 10 (1000)
I0428 20:14:20.620123 32652 net.cpp:139] Memory required for data: 14834800
I0428 20:14:20.620127 32652 layer_factory.hpp:77] Creating layer accuracy
I0428 20:14:20.620132 32652 net.cpp:86] Creating Layer accuracy
I0428 20:14:20.620136 32652 net.cpp:408] accuracy <- ip2_relu2_0_split_0
I0428 20:14:20.620141 32652 net.cpp:408] accuracy <- label_mnist_1_split_0
I0428 20:14:20.620147 32652 net.cpp:382] accuracy -> accuracy
…
