…
I0428 20:05:21.117499 30592 net.cpp:296] The NetState phase (0) differed from the phase (1) specified by a rule in layer mnist
I0428 20:05:21.117543 30592 net.cpp:296] The NetState phase (0) differed from the phase (1) specified by a rule in layer accuracy
I0428 20:05:21.117624 30592 net.cpp:53] Initializing net from parameters: 
name: "LeNet"
state {
  phase: TRAIN
  level: 0
  stage: ""
}
layer {
  name: "mnist"
  type: "Data"
  top: "data"
  top: "label"
  include {
    phase: TRAIN
  }
  transform_param {
    scale: 0.00390625
  }
  data_param {
    source: "examples/mnist/mnist_train_lmdb"
    batch_size: 64
    backend: LMDB
  }
}
layer {
  name: "conv0"
  type: "Convolution"
  bottom: "data"
  top: "conv0"
  param {
    lr_mult: 1
  }
  param {
    lr_mult: 2
  }
  convolution_param {
    num_output: 25
    kernel_size: 5
    stride: 1
    weight_filler {
      type: "xavier"
    }
    bias_filler {
      type: "constant"
    }
  }
}
layer {
  name: "pool0"
  type: "Pooling"
  bottom: "conv0"
  top: "pool0"
  pooling_param {
    pool: MAX
    kernel_size: 2
    stride: 2
  }
}
layer {
  name: "conv1"
  type: "Convolution"
  bottom: "pool0"
  top: "conv1"
  param {
    lr_mult: 1
  }
  param {
    lr_mult: 2
  }
  convolution_param {
    num_output: 2
    kernel_size: 5
    stride: 1
    weight_filler {
      type: "xavier"
    }
    bias_filler {
      type: "constant"
    }
  }
}
layer {
  name: "pool1"
  type: "Pooling"
  bottom: "conv1"
  top: "pool1"
  pooling_param {
    pool: MAX
    kernel_size: 2
    stride: 2
  }
}
layer {
  name: "ip1"
  type: "InnerProduct"
  bottom: "pool1"
  top: "ip1"
  param {
    lr_mult: 1
  }
  param {
    lr_mult: 2
  }
  inner_product_param {
    num_output: 25
    weight_filler {
      type: "xavier"
    }
    bias_filler {
      type: "constant"
    }
  }
}
layer {
  name: "relu1"
  type: "ReLU"
  bottom: "ip1"
  top: "ip1"
}
layer {
  name: "ip2"
  type: "InnerProduct"
  bottom: "ip1"
  top: "ip2"
  param {
    lr_mult: 1
  }
  param {
    lr_mult: 2
  }
  inner_product_param {
    num_output: 10
    weight_filler {
      type: "xavier"
    }
    bias_filler {
      type: "constant"
    }
  }
}
layer {
  name: "relu2"
  type: "ReLU"
  bottom: "ip2"
  top: "ip2"
}
layer {
  name: "ip3"
  type: "InnerProduct"
  bottom: "ip2"
  top: "ip3"
  param {
    lr_mult: 1
  }
  param {
    lr_mult: 2
  }
  inner_product_param {
    num_output: 10
    weight_filler {
      type: "xavier"
    }
    bias_filler {
      type: "constant"
    }
  }
}
layer {
  name: "relu3"
  type: "ReLU"
  bottom: "ip3"
  top: "ip3"
}
layer {
  name: "loss"
  type: "SoftmaxWithLoss"
  bottom: "ip3"
  bottom: "label"
  top: "loss"
}
I0428 20:05:21.117686 30592 layer_factory.hpp:77] Creating layer mnist
I0428 20:05:21.117765 30592 db_lmdb.cpp:35] Opened lmdb examples/mnist/mnist_train_lmdb
I0428 20:05:21.117784 30592 net.cpp:86] Creating Layer mnist
I0428 20:05:21.117791 30592 net.cpp:382] mnist -> data
I0428 20:05:21.117810 30592 net.cpp:382] mnist -> label
I0428 20:05:21.118695 30592 data_layer.cpp:45] output data size: 64,1,28,28
I0428 20:05:21.120992 30592 net.cpp:124] Setting up mnist
I0428 20:05:21.121039 30592 net.cpp:131] Top shape: 64 1 28 28 (50176)
I0428 20:05:21.121045 30592 net.cpp:131] Top shape: 64 (64)
I0428 20:05:21.121047 30592 net.cpp:139] Memory required for data: 200960
I0428 20:05:21.121053 30592 layer_factory.hpp:77] Creating layer conv0
I0428 20:05:21.121068 30592 net.cpp:86] Creating Layer conv0
I0428 20:05:21.121085 30592 net.cpp:408] conv0 <- data
I0428 20:05:21.121098 30592 net.cpp:382] conv0 -> conv0
I0428 20:05:21.356509 30592 net.cpp:124] Setting up conv0
I0428 20:05:21.356552 30592 net.cpp:131] Top shape: 64 25 24 24 (921600)
I0428 20:05:21.356556 30592 net.cpp:139] Memory required for data: 3887360
I0428 20:05:21.356570 30592 layer_factory.hpp:77] Creating layer pool0
I0428 20:05:21.356582 30592 net.cpp:86] Creating Layer pool0
I0428 20:05:21.356586 30592 net.cpp:408] pool0 <- conv0
I0428 20:05:21.356591 30592 net.cpp:382] pool0 -> pool0
I0428 20:05:21.356650 30592 net.cpp:124] Setting up pool0
I0428 20:05:21.356655 30592 net.cpp:131] Top shape: 64 25 12 12 (230400)
I0428 20:05:21.356658 30592 net.cpp:139] Memory required for data: 4808960
I0428 20:05:21.356662 30592 layer_factory.hpp:77] Creating layer conv1
I0428 20:05:21.356672 30592 net.cpp:86] Creating Layer conv1
I0428 20:05:21.356675 30592 net.cpp:408] conv1 <- pool0
I0428 20:05:21.356680 30592 net.cpp:382] conv1 -> conv1
I0428 20:05:21.359524 30592 net.cpp:124] Setting up conv1
I0428 20:05:21.359555 30592 net.cpp:131] Top shape: 64 2 8 8 (8192)
I0428 20:05:21.359558 30592 net.cpp:139] Memory required for data: 4841728
I0428 20:05:21.359567 30592 layer_factory.hpp:77] Creating layer pool1
I0428 20:05:21.359575 30592 net.cpp:86] Creating Layer pool1
I0428 20:05:21.359580 30592 net.cpp:408] pool1 <- conv1
I0428 20:05:21.359585 30592 net.cpp:382] pool1 -> pool1
I0428 20:05:21.359665 30592 net.cpp:124] Setting up pool1
I0428 20:05:21.359673 30592 net.cpp:131] Top shape: 64 2 4 4 (2048)
I0428 20:05:21.359675 30592 net.cpp:139] Memory required for data: 4849920
I0428 20:05:21.359678 30592 layer_factory.hpp:77] Creating layer ip1
I0428 20:05:21.359685 30592 net.cpp:86] Creating Layer ip1
I0428 20:05:21.359688 30592 net.cpp:408] ip1 <- pool1
I0428 20:05:21.359694 30592 net.cpp:382] ip1 -> ip1
I0428 20:05:21.359788 30592 net.cpp:124] Setting up ip1
I0428 20:05:21.359796 30592 net.cpp:131] Top shape: 64 25 (1600)
I0428 20:05:21.359798 30592 net.cpp:139] Memory required for data: 4856320
I0428 20:05:21.359805 30592 layer_factory.hpp:77] Creating layer relu1
I0428 20:05:21.359810 30592 net.cpp:86] Creating Layer relu1
I0428 20:05:21.359813 30592 net.cpp:408] relu1 <- ip1
I0428 20:05:21.359817 30592 net.cpp:369] relu1 -> ip1 (in-place)
I0428 20:05:21.359980 30592 net.cpp:124] Setting up relu1
I0428 20:05:21.359989 30592 net.cpp:131] Top shape: 64 25 (1600)
I0428 20:05:21.359993 30592 net.cpp:139] Memory required for data: 4862720
I0428 20:05:21.359997 30592 layer_factory.hpp:77] Creating layer ip2
I0428 20:05:21.360002 30592 net.cpp:86] Creating Layer ip2
I0428 20:05:21.360005 30592 net.cpp:408] ip2 <- ip1
I0428 20:05:21.360009 30592 net.cpp:382] ip2 -> ip2
I0428 20:05:21.360097 30592 net.cpp:124] Setting up ip2
I0428 20:05:21.360105 30592 net.cpp:131] Top shape: 64 10 (640)
I0428 20:05:21.360107 30592 net.cpp:139] Memory required for data: 4865280
I0428 20:05:21.360112 30592 layer_factory.hpp:77] Creating layer relu2
I0428 20:05:21.360119 30592 net.cpp:86] Creating Layer relu2
I0428 20:05:21.360122 30592 net.cpp:408] relu2 <- ip2
I0428 20:05:21.360126 30592 net.cpp:369] relu2 -> ip2 (in-place)
I0428 20:05:21.360859 30592 net.cpp:124] Setting up relu2
I0428 20:05:21.360872 30592 net.cpp:131] Top shape: 64 10 (640)
I0428 20:05:21.360890 30592 net.cpp:139] Memory required for data: 4867840
I0428 20:05:21.360894 30592 layer_factory.hpp:77] Creating layer ip3
I0428 20:05:21.360901 30592 net.cpp:86] Creating Layer ip3
I0428 20:05:21.360905 30592 net.cpp:408] ip3 <- ip2
I0428 20:05:21.360911 30592 net.cpp:382] ip3 -> ip3
I0428 20:05:21.361006 30592 net.cpp:124] Setting up ip3
I0428 20:05:21.361012 30592 net.cpp:131] Top shape: 64 10 (640)
I0428 20:05:21.361016 30592 net.cpp:139] Memory required for data: 4870400
I0428 20:05:21.361023 30592 layer_factory.hpp:77] Creating layer relu3
I0428 20:05:21.361028 30592 net.cpp:86] Creating Layer relu3
I0428 20:05:21.361032 30592 net.cpp:408] relu3 <- ip3
I0428 20:05:21.361034 30592 net.cpp:369] relu3 -> ip3 (in-place)
I0428 20:05:21.361209 30592 net.cpp:124] Setting up relu3
I0428 20:05:21.361218 30592 net.cpp:131] Top shape: 64 10 (640)
I0428 20:05:21.361222 30592 net.cpp:139] Memory required for data: 4872960
I0428 20:05:21.361225 30592 layer_factory.hpp:77] Creating layer loss
I0428 20:05:21.361232 30592 net.cpp:86] Creating Layer loss
I0428 20:05:21.361234 30592 net.cpp:408] loss <- ip3
I0428 20:05:21.361238 30592 net.cpp:408] loss <- label
I0428 20:05:21.361243 30592 net.cpp:382] loss -> loss
I0428 20:05:21.361258 30592 layer_factory.hpp:77] Creating layer loss
…
I0428 20:05:21.361884 30592 solver.cpp:173] Creating test net (#0) specified by net file: ECE595/mnist/train_test/var_everything2/lenet_train_test997.prototxt
I0428 20:05:21.361939 30592 net.cpp:296] The NetState phase (1) differed from the phase (0) specified by a rule in layer mnist
I0428 20:05:21.362046 30592 net.cpp:53] Initializing net from parameters: 
name: "LeNet"
state {
  phase: TEST
}
layer {
  name: "mnist"
  type: "Data"
  top: "data"
  top: "label"
  include {
    phase: TEST
  }
  transform_param {
    scale: 0.00390625
  }
  data_param {
    source: "examples/mnist/mnist_test_lmdb"
    batch_size: 100
    backend: LMDB
  }
}
layer {
  name: "conv0"
  type: "Convolution"
  bottom: "data"
  top: "conv0"
  param {
    lr_mult: 1
  }
  param {
    lr_mult: 2
  }
  convolution_param {
    num_output: 25
    kernel_size: 5
    stride: 1
    weight_filler {
      type: "xavier"
    }
    bias_filler {
      type: "constant"
    }
  }
}
layer {
  name: "pool0"
  type: "Pooling"
  bottom: "conv0"
  top: "pool0"
  pooling_param {
    pool: MAX
    kernel_size: 2
    stride: 2
  }
}
layer {
  name: "conv1"
  type: "Convolution"
  bottom: "pool0"
  top: "conv1"
  param {
    lr_mult: 1
  }
  param {
    lr_mult: 2
  }
  convolution_param {
    num_output: 2
    kernel_size: 5
    stride: 1
    weight_filler {
      type: "xavier"
    }
    bias_filler {
      type: "constant"
    }
  }
}
layer {
  name: "pool1"
  type: "Pooling"
  bottom: "conv1"
  top: "pool1"
  pooling_param {
    pool: MAX
    kernel_size: 2
    stride: 2
  }
}
layer {
  name: "ip1"
  type: "InnerProduct"
  bottom: "pool1"
  top: "ip1"
  param {
    lr_mult: 1
  }
  param {
    lr_mult: 2
  }
  inner_product_param {
    num_output: 25
    weight_filler {
      type: "xavier"
    }
    bias_filler {
      type: "constant"
    }
  }
}
layer {
  name: "relu1"
  type: "ReLU"
  bottom: "ip1"
  top: "ip1"
}
layer {
  name: "ip2"
  type: "InnerProduct"
  bottom: "ip1"
  top: "ip2"
  param {
    lr_mult: 1
  }
  param {
    lr_mult: 2
  }
  inner_product_param {
    num_output: 10
    weight_filler {
      type: "xavier"
    }
    bias_filler {
      type: "constant"
    }
  }
}
layer {
  name: "relu2"
  type: "ReLU"
  bottom: "ip2"
  top: "ip2"
}
layer {
  name: "ip3"
  type: "InnerProduct"
  bottom: "ip2"
  top: "ip3"
  param {
    lr_mult: 1
  }
  param {
    lr_mult: 2
  }
  inner_product_param {
    num_output: 10
    weight_filler {
      type: "xavier"
    }
    bias_filler {
      type: "constant"
    }
  }
}
layer {
  name: "relu3"
  type: "ReLU"
  bottom: "ip3"
  top: "ip3"
}
layer {
  name: "accuracy"
  type: "Accuracy"
  bottom: "ip3"
  bottom: "label"
  top: "accuracy"
  include {
    phase: TEST
  }
}
layer {
  name: "loss"
  type: "SoftmaxWithLoss"
  bottom: "ip3"
  bottom: "label"
  top: "loss"
}
I0428 20:05:21.362125 30592 layer_factory.hpp:77] Creating layer mnist
I0428 20:05:21.362171 30592 db_lmdb.cpp:35] Opened lmdb examples/mnist/mnist_test_lmdb
I0428 20:05:21.362185 30592 net.cpp:86] Creating Layer mnist
I0428 20:05:21.362190 30592 net.cpp:382] mnist -> data
I0428 20:05:21.362197 30592 net.cpp:382] mnist -> label
I0428 20:05:21.362293 30592 data_layer.cpp:45] output data size: 100,1,28,28
I0428 20:05:21.364159 30592 net.cpp:124] Setting up mnist
I0428 20:05:21.364188 30592 net.cpp:131] Top shape: 100 1 28 28 (78400)
I0428 20:05:21.364193 30592 net.cpp:131] Top shape: 100 (100)
I0428 20:05:21.364197 30592 net.cpp:139] Memory required for data: 314000
I0428 20:05:21.364199 30592 layer_factory.hpp:77] Creating layer label_mnist_1_split
I0428 20:05:21.364207 30592 net.cpp:86] Creating Layer label_mnist_1_split
I0428 20:05:21.364209 30592 net.cpp:408] label_mnist_1_split <- label
I0428 20:05:21.364214 30592 net.cpp:382] label_mnist_1_split -> label_mnist_1_split_0
I0428 20:05:21.364220 30592 net.cpp:382] label_mnist_1_split -> label_mnist_1_split_1
I0428 20:05:21.364300 30592 net.cpp:124] Setting up label_mnist_1_split
I0428 20:05:21.364308 30592 net.cpp:131] Top shape: 100 (100)
I0428 20:05:21.364311 30592 net.cpp:131] Top shape: 100 (100)
I0428 20:05:21.364315 30592 net.cpp:139] Memory required for data: 314800
I0428 20:05:21.364317 30592 layer_factory.hpp:77] Creating layer conv0
I0428 20:05:21.364326 30592 net.cpp:86] Creating Layer conv0
I0428 20:05:21.364328 30592 net.cpp:408] conv0 <- data
I0428 20:05:21.364333 30592 net.cpp:382] conv0 -> conv0
I0428 20:05:21.366004 30592 net.cpp:124] Setting up conv0
I0428 20:05:21.366034 30592 net.cpp:131] Top shape: 100 25 24 24 (1440000)
I0428 20:05:21.366039 30592 net.cpp:139] Memory required for data: 6074800
I0428 20:05:21.366047 30592 layer_factory.hpp:77] Creating layer pool0
I0428 20:05:21.366052 30592 net.cpp:86] Creating Layer pool0
I0428 20:05:21.366056 30592 net.cpp:408] pool0 <- conv0
I0428 20:05:21.366061 30592 net.cpp:382] pool0 -> pool0
I0428 20:05:21.366122 30592 net.cpp:124] Setting up pool0
I0428 20:05:21.366127 30592 net.cpp:131] Top shape: 100 25 12 12 (360000)
I0428 20:05:21.366130 30592 net.cpp:139] Memory required for data: 7514800
I0428 20:05:21.366133 30592 layer_factory.hpp:77] Creating layer conv1
I0428 20:05:21.366142 30592 net.cpp:86] Creating Layer conv1
I0428 20:05:21.366145 30592 net.cpp:408] conv1 <- pool0
I0428 20:05:21.366149 30592 net.cpp:382] conv1 -> conv1
I0428 20:05:21.368212 30592 net.cpp:124] Setting up conv1
I0428 20:05:21.368227 30592 net.cpp:131] Top shape: 100 2 8 8 (12800)
I0428 20:05:21.368245 30592 net.cpp:139] Memory required for data: 7566000
I0428 20:05:21.368255 30592 layer_factory.hpp:77] Creating layer pool1
I0428 20:05:21.368261 30592 net.cpp:86] Creating Layer pool1
I0428 20:05:21.368264 30592 net.cpp:408] pool1 <- conv1
I0428 20:05:21.368269 30592 net.cpp:382] pool1 -> pool1
I0428 20:05:21.368324 30592 net.cpp:124] Setting up pool1
I0428 20:05:21.368329 30592 net.cpp:131] Top shape: 100 2 4 4 (3200)
I0428 20:05:21.368331 30592 net.cpp:139] Memory required for data: 7578800
I0428 20:05:21.368335 30592 layer_factory.hpp:77] Creating layer ip1
I0428 20:05:21.368340 30592 net.cpp:86] Creating Layer ip1
I0428 20:05:21.368342 30592 net.cpp:408] ip1 <- pool1
I0428 20:05:21.368348 30592 net.cpp:382] ip1 -> ip1
I0428 20:05:21.368458 30592 net.cpp:124] Setting up ip1
I0428 20:05:21.368466 30592 net.cpp:131] Top shape: 100 25 (2500)
I0428 20:05:21.368480 30592 net.cpp:139] Memory required for data: 7588800
I0428 20:05:21.368487 30592 layer_factory.hpp:77] Creating layer relu1
I0428 20:05:21.368494 30592 net.cpp:86] Creating Layer relu1
I0428 20:05:21.368497 30592 net.cpp:408] relu1 <- ip1
I0428 20:05:21.368501 30592 net.cpp:369] relu1 -> ip1 (in-place)
I0428 20:05:21.368767 30592 net.cpp:124] Setting up relu1
I0428 20:05:21.368777 30592 net.cpp:131] Top shape: 100 25 (2500)
I0428 20:05:21.368780 30592 net.cpp:139] Memory required for data: 7598800
I0428 20:05:21.368784 30592 layer_factory.hpp:77] Creating layer ip2
I0428 20:05:21.368793 30592 net.cpp:86] Creating Layer ip2
I0428 20:05:21.368796 30592 net.cpp:408] ip2 <- ip1
I0428 20:05:21.368800 30592 net.cpp:382] ip2 -> ip2
I0428 20:05:21.368937 30592 net.cpp:124] Setting up ip2
I0428 20:05:21.368945 30592 net.cpp:131] Top shape: 100 10 (1000)
I0428 20:05:21.368948 30592 net.cpp:139] Memory required for data: 7602800
I0428 20:05:21.368954 30592 layer_factory.hpp:77] Creating layer relu2
I0428 20:05:21.368962 30592 net.cpp:86] Creating Layer relu2
I0428 20:05:21.368964 30592 net.cpp:408] relu2 <- ip2
I0428 20:05:21.368973 30592 net.cpp:369] relu2 -> ip2 (in-place)
I0428 20:05:21.369154 30592 net.cpp:124] Setting up relu2
I0428 20:05:21.369177 30592 net.cpp:131] Top shape: 100 10 (1000)
I0428 20:05:21.369180 30592 net.cpp:139] Memory required for data: 7606800
I0428 20:05:21.369184 30592 layer_factory.hpp:77] Creating layer ip3
I0428 20:05:21.369190 30592 net.cpp:86] Creating Layer ip3
I0428 20:05:21.369194 30592 net.cpp:408] ip3 <- ip2
I0428 20:05:21.369204 30592 net.cpp:382] ip3 -> ip3
I0428 20:05:21.369323 30592 net.cpp:124] Setting up ip3
I0428 20:05:21.369330 30592 net.cpp:131] Top shape: 100 10 (1000)
I0428 20:05:21.369333 30592 net.cpp:139] Memory required for data: 7610800
I0428 20:05:21.369340 30592 layer_factory.hpp:77] Creating layer relu3
I0428 20:05:21.369345 30592 net.cpp:86] Creating Layer relu3
I0428 20:05:21.369348 30592 net.cpp:408] relu3 <- ip3
I0428 20:05:21.369351 30592 net.cpp:369] relu3 -> ip3 (in-place)
I0428 20:05:21.370192 30592 net.cpp:124] Setting up relu3
I0428 20:05:21.370203 30592 net.cpp:131] Top shape: 100 10 (1000)
I0428 20:05:21.370223 30592 net.cpp:139] Memory required for data: 7614800
I0428 20:05:21.370225 30592 layer_factory.hpp:77] Creating layer ip3_relu3_0_split
I0428 20:05:21.370234 30592 net.cpp:86] Creating Layer ip3_relu3_0_split
I0428 20:05:21.370237 30592 net.cpp:408] ip3_relu3_0_split <- ip3
I0428 20:05:21.370244 30592 net.cpp:382] ip3_relu3_0_split -> ip3_relu3_0_split_0
I0428 20:05:21.370249 30592 net.cpp:382] ip3_relu3_0_split -> ip3_relu3_0_split_1
I0428 20:05:21.370290 30592 net.cpp:124] Setting up ip3_relu3_0_split
I0428 20:05:21.370295 30592 net.cpp:131] Top shape: 100 10 (1000)
I0428 20:05:21.370298 30592 net.cpp:131] Top shape: 100 10 (1000)
I0428 20:05:21.370301 30592 net.cpp:139] Memory required for data: 7622800
I0428 20:05:21.370303 30592 layer_factory.hpp:77] Creating layer accuracy
I0428 20:05:21.370309 30592 net.cpp:86] Creating Layer accuracy
I0428 20:05:21.370312 30592 net.cpp:408] accuracy <- ip3_relu3_0_split_0
I0428 20:05:21.370317 30592 net.cpp:408] accuracy <- label_mnist_1_split_0
I0428 20:05:21.370321 30592 net.cpp:382] accuracy -> accuracy
…
