…
I0428 19:41:56.558266 24947 net.cpp:296] The NetState phase (0) differed from the phase (1) specified by a rule in layer mnist
I0428 19:41:56.558285 24947 net.cpp:296] The NetState phase (0) differed from the phase (1) specified by a rule in layer accuracy
I0428 19:41:56.558368 24947 net.cpp:53] Initializing net from parameters: 
name: "LeNet"
state {
  phase: TRAIN
  level: 0
  stage: ""
}
layer {
  name: "mnist"
  type: "Data"
  top: "data"
  top: "label"
  include {
    phase: TRAIN
  }
  transform_param {
    scale: 0.00390625
  }
  data_param {
    source: "examples/mnist/mnist_train_lmdb"
    batch_size: 64
    backend: LMDB
  }
}
layer {
  name: "conv0"
  type: "Convolution"
  bottom: "data"
  top: "conv0"
  param {
    lr_mult: 1
  }
  param {
    lr_mult: 2
  }
  convolution_param {
    num_output: 2
    kernel_size: 5
    stride: 1
    weight_filler {
      type: "xavier"
    }
    bias_filler {
      type: "constant"
    }
  }
}
layer {
  name: "pool0"
  type: "Pooling"
  bottom: "conv0"
  top: "pool0"
  pooling_param {
    pool: MAX
    kernel_size: 2
    stride: 2
  }
}
layer {
  name: "conv1"
  type: "Convolution"
  bottom: "pool0"
  top: "conv1"
  param {
    lr_mult: 1
  }
  param {
    lr_mult: 2
  }
  convolution_param {
    num_output: 10
    kernel_size: 5
    stride: 1
    weight_filler {
      type: "xavier"
    }
    bias_filler {
      type: "constant"
    }
  }
}
layer {
  name: "pool1"
  type: "Pooling"
  bottom: "conv1"
  top: "pool1"
  pooling_param {
    pool: MAX
    kernel_size: 2
    stride: 2
  }
}
layer {
  name: "ip1"
  type: "InnerProduct"
  bottom: "pool1"
  top: "ip1"
  param {
    lr_mult: 1
  }
  param {
    lr_mult: 2
  }
  inner_product_param {
    num_output: 25
    weight_filler {
      type: "xavier"
    }
    bias_filler {
      type: "constant"
    }
  }
}
layer {
  name: "relu1"
  type: "ReLU"
  bottom: "ip1"
  top: "ip1"
}
layer {
  name: "ip2"
  type: "InnerProduct"
  bottom: "ip1"
  top: "ip2"
  param {
    lr_mult: 1
  }
  param {
    lr_mult: 2
  }
  inner_product_param {
    num_output: 50
    weight_filler {
      type: "xavier"
    }
    bias_filler {
      type: "constant"
    }
  }
}
layer {
  name: "relu2"
  type: "ReLU"
  bottom: "ip2"
  top: "ip2"
}
layer {
  name: "ip3"
  type: "InnerProduct"
  bottom: "ip2"
  top: "ip3"
  param {
    lr_mult: 1
  }
  param {
    lr_mult: 2
  }
  inner_product_param {
    num_output: 10
    weight_filler {
      type: "xavier"
    }
    bias_filler {
      type: "constant"
    }
  }
}
layer {
  name: "relu3"
  type: "ReLU"
  bottom: "ip3"
  top: "ip3"
}
layer {
  name: "loss"
  type: "SoftmaxWithLoss"
  bottom: "ip3"
  bottom: "label"
  top: "loss"
}
I0428 19:41:56.558454 24947 layer_factory.hpp:77] Creating layer mnist
I0428 19:41:56.558555 24947 db_lmdb.cpp:35] Opened lmdb examples/mnist/mnist_train_lmdb
I0428 19:41:56.558583 24947 net.cpp:86] Creating Layer mnist
I0428 19:41:56.558593 24947 net.cpp:382] mnist -> data
I0428 19:41:56.558615 24947 net.cpp:382] mnist -> label
I0428 19:41:56.559612 24947 data_layer.cpp:45] output data size: 64,1,28,28
I0428 19:41:56.562721 24947 net.cpp:124] Setting up mnist
I0428 19:41:56.562752 24947 net.cpp:131] Top shape: 64 1 28 28 (50176)
I0428 19:41:56.562775 24947 net.cpp:131] Top shape: 64 (64)
I0428 19:41:56.562785 24947 net.cpp:139] Memory required for data: 200960
I0428 19:41:56.562800 24947 layer_factory.hpp:77] Creating layer conv0
I0428 19:41:56.562830 24947 net.cpp:86] Creating Layer conv0
I0428 19:41:56.562866 24947 net.cpp:408] conv0 <- data
I0428 19:41:56.562891 24947 net.cpp:382] conv0 -> conv0
I0428 19:41:56.879902 24947 net.cpp:124] Setting up conv0
I0428 19:41:56.879935 24947 net.cpp:131] Top shape: 64 2 24 24 (73728)
I0428 19:41:56.879940 24947 net.cpp:139] Memory required for data: 495872
I0428 19:41:56.879957 24947 layer_factory.hpp:77] Creating layer pool0
I0428 19:41:56.879973 24947 net.cpp:86] Creating Layer pool0
I0428 19:41:56.879987 24947 net.cpp:408] pool0 <- conv0
I0428 19:41:56.879993 24947 net.cpp:382] pool0 -> pool0
I0428 19:41:56.880058 24947 net.cpp:124] Setting up pool0
I0428 19:41:56.880066 24947 net.cpp:131] Top shape: 64 2 12 12 (18432)
I0428 19:41:56.880070 24947 net.cpp:139] Memory required for data: 569600
I0428 19:41:56.880074 24947 layer_factory.hpp:77] Creating layer conv1
I0428 19:41:56.880086 24947 net.cpp:86] Creating Layer conv1
I0428 19:41:56.880091 24947 net.cpp:408] conv1 <- pool0
I0428 19:41:56.880097 24947 net.cpp:382] conv1 -> conv1
I0428 19:41:56.882226 24947 net.cpp:124] Setting up conv1
I0428 19:41:56.882243 24947 net.cpp:131] Top shape: 64 10 8 8 (40960)
I0428 19:41:56.882248 24947 net.cpp:139] Memory required for data: 733440
I0428 19:41:56.882258 24947 layer_factory.hpp:77] Creating layer pool1
I0428 19:41:56.882268 24947 net.cpp:86] Creating Layer pool1
I0428 19:41:56.882280 24947 net.cpp:408] pool1 <- conv1
I0428 19:41:56.882287 24947 net.cpp:382] pool1 -> pool1
I0428 19:41:56.882330 24947 net.cpp:124] Setting up pool1
I0428 19:41:56.882339 24947 net.cpp:131] Top shape: 64 10 4 4 (10240)
I0428 19:41:56.882342 24947 net.cpp:139] Memory required for data: 774400
I0428 19:41:56.882346 24947 layer_factory.hpp:77] Creating layer ip1
I0428 19:41:56.882354 24947 net.cpp:86] Creating Layer ip1
I0428 19:41:56.882360 24947 net.cpp:408] ip1 <- pool1
I0428 19:41:56.882366 24947 net.cpp:382] ip1 -> ip1
I0428 19:41:56.883469 24947 net.cpp:124] Setting up ip1
I0428 19:41:56.883484 24947 net.cpp:131] Top shape: 64 25 (1600)
I0428 19:41:56.883488 24947 net.cpp:139] Memory required for data: 780800
I0428 19:41:56.883498 24947 layer_factory.hpp:77] Creating layer relu1
I0428 19:41:56.883505 24947 net.cpp:86] Creating Layer relu1
I0428 19:41:56.883510 24947 net.cpp:408] relu1 <- ip1
I0428 19:41:56.883515 24947 net.cpp:369] relu1 -> ip1 (in-place)
I0428 19:41:56.883716 24947 net.cpp:124] Setting up relu1
I0428 19:41:56.883728 24947 net.cpp:131] Top shape: 64 25 (1600)
I0428 19:41:56.883731 24947 net.cpp:139] Memory required for data: 787200
I0428 19:41:56.883735 24947 layer_factory.hpp:77] Creating layer ip2
I0428 19:41:56.883744 24947 net.cpp:86] Creating Layer ip2
I0428 19:41:56.883749 24947 net.cpp:408] ip2 <- ip1
I0428 19:41:56.883754 24947 net.cpp:382] ip2 -> ip2
I0428 19:41:56.883875 24947 net.cpp:124] Setting up ip2
I0428 19:41:56.883883 24947 net.cpp:131] Top shape: 64 50 (3200)
I0428 19:41:56.883888 24947 net.cpp:139] Memory required for data: 800000
I0428 19:41:56.883893 24947 layer_factory.hpp:77] Creating layer relu2
I0428 19:41:56.883903 24947 net.cpp:86] Creating Layer relu2
I0428 19:41:56.883908 24947 net.cpp:408] relu2 <- ip2
I0428 19:41:56.883913 24947 net.cpp:369] relu2 -> ip2 (in-place)
I0428 19:41:56.884793 24947 net.cpp:124] Setting up relu2
I0428 19:41:56.884816 24947 net.cpp:131] Top shape: 64 50 (3200)
I0428 19:41:56.884821 24947 net.cpp:139] Memory required for data: 812800
I0428 19:41:56.884825 24947 layer_factory.hpp:77] Creating layer ip3
I0428 19:41:56.884835 24947 net.cpp:86] Creating Layer ip3
I0428 19:41:56.884838 24947 net.cpp:408] ip3 <- ip2
I0428 19:41:56.884845 24947 net.cpp:382] ip3 -> ip3
I0428 19:41:56.885004 24947 net.cpp:124] Setting up ip3
I0428 19:41:56.885012 24947 net.cpp:131] Top shape: 64 10 (640)
I0428 19:41:56.885016 24947 net.cpp:139] Memory required for data: 815360
I0428 19:41:56.885026 24947 layer_factory.hpp:77] Creating layer relu3
I0428 19:41:56.885033 24947 net.cpp:86] Creating Layer relu3
I0428 19:41:56.885037 24947 net.cpp:408] relu3 <- ip3
I0428 19:41:56.885042 24947 net.cpp:369] relu3 -> ip3 (in-place)
I0428 19:41:56.885237 24947 net.cpp:124] Setting up relu3
I0428 19:41:56.885249 24947 net.cpp:131] Top shape: 64 10 (640)
I0428 19:41:56.885253 24947 net.cpp:139] Memory required for data: 817920
I0428 19:41:56.885265 24947 layer_factory.hpp:77] Creating layer loss
I0428 19:41:56.885272 24947 net.cpp:86] Creating Layer loss
I0428 19:41:56.885277 24947 net.cpp:408] loss <- ip3
I0428 19:41:56.885282 24947 net.cpp:408] loss <- label
I0428 19:41:56.885289 24947 net.cpp:382] loss -> loss
I0428 19:41:56.885311 24947 layer_factory.hpp:77] Creating layer loss
…
I0428 19:41:56.886054 24947 solver.cpp:173] Creating test net (#0) specified by net file: ECE595/mnist/train_test/var_everything2/lenet_train_test379.prototxt
I0428 19:41:56.886086 24947 net.cpp:296] The NetState phase (1) differed from the phase (0) specified by a rule in layer mnist
I0428 19:41:56.886194 24947 net.cpp:53] Initializing net from parameters: 
name: "LeNet"
state {
  phase: TEST
}
layer {
  name: "mnist"
  type: "Data"
  top: "data"
  top: "label"
  include {
    phase: TEST
  }
  transform_param {
    scale: 0.00390625
  }
  data_param {
    source: "examples/mnist/mnist_test_lmdb"
    batch_size: 100
    backend: LMDB
  }
}
layer {
  name: "conv0"
  type: "Convolution"
  bottom: "data"
  top: "conv0"
  param {
    lr_mult: 1
  }
  param {
    lr_mult: 2
  }
  convolution_param {
    num_output: 2
    kernel_size: 5
    stride: 1
    weight_filler {
      type: "xavier"
    }
    bias_filler {
      type: "constant"
    }
  }
}
layer {
  name: "pool0"
  type: "Pooling"
  bottom: "conv0"
  top: "pool0"
  pooling_param {
    pool: MAX
    kernel_size: 2
    stride: 2
  }
}
layer {
  name: "conv1"
  type: "Convolution"
  bottom: "pool0"
  top: "conv1"
  param {
    lr_mult: 1
  }
  param {
    lr_mult: 2
  }
  convolution_param {
    num_output: 10
    kernel_size: 5
    stride: 1
    weight_filler {
      type: "xavier"
    }
    bias_filler {
      type: "constant"
    }
  }
}
layer {
  name: "pool1"
  type: "Pooling"
  bottom: "conv1"
  top: "pool1"
  pooling_param {
    pool: MAX
    kernel_size: 2
    stride: 2
  }
}
layer {
  name: "ip1"
  type: "InnerProduct"
  bottom: "pool1"
  top: "ip1"
  param {
    lr_mult: 1
  }
  param {
    lr_mult: 2
  }
  inner_product_param {
    num_output: 25
    weight_filler {
      type: "xavier"
    }
    bias_filler {
      type: "constant"
    }
  }
}
layer {
  name: "relu1"
  type: "ReLU"
  bottom: "ip1"
  top: "ip1"
}
layer {
  name: "ip2"
  type: "InnerProduct"
  bottom: "ip1"
  top: "ip2"
  param {
    lr_mult: 1
  }
  param {
    lr_mult: 2
  }
  inner_product_param {
    num_output: 50
    weight_filler {
      type: "xavier"
    }
    bias_filler {
      type: "constant"
    }
  }
}
layer {
  name: "relu2"
  type: "ReLU"
  bottom: "ip2"
  top: "ip2"
}
layer {
  name: "ip3"
  type: "InnerProduct"
  bottom: "ip2"
  top: "ip3"
  param {
    lr_mult: 1
  }
  param {
    lr_mult: 2
  }
  inner_product_param {
    num_output: 10
    weight_filler {
      type: "xavier"
    }
    bias_filler {
      type: "constant"
    }
  }
}
layer {
  name: "relu3"
  type: "ReLU"
  bottom: "ip3"
  top: "ip3"
}
layer {
  name: "accuracy"
  type: "Accuracy"
  bottom: "ip3"
  bottom: "label"
  top: "accuracy"
  include {
    phase: TEST
  }
}
layer {
  name: "loss"
  type: "SoftmaxWithLoss"
  bottom: "ip3"
  bottom: "label"
  top: "loss"
}
I0428 19:41:56.886288 24947 layer_factory.hpp:77] Creating layer mnist
I0428 19:41:56.886340 24947 db_lmdb.cpp:35] Opened lmdb examples/mnist/mnist_test_lmdb
I0428 19:41:56.886354 24947 net.cpp:86] Creating Layer mnist
I0428 19:41:56.886360 24947 net.cpp:382] mnist -> data
I0428 19:41:56.886370 24947 net.cpp:382] mnist -> label
I0428 19:41:56.886471 24947 data_layer.cpp:45] output data size: 100,1,28,28
I0428 19:41:56.888648 24947 net.cpp:124] Setting up mnist
I0428 19:41:56.888664 24947 net.cpp:131] Top shape: 100 1 28 28 (78400)
I0428 19:41:56.888670 24947 net.cpp:131] Top shape: 100 (100)
I0428 19:41:56.888674 24947 net.cpp:139] Memory required for data: 314000
I0428 19:41:56.888679 24947 layer_factory.hpp:77] Creating layer label_mnist_1_split
I0428 19:41:56.888690 24947 net.cpp:86] Creating Layer label_mnist_1_split
I0428 19:41:56.888695 24947 net.cpp:408] label_mnist_1_split <- label
I0428 19:41:56.888712 24947 net.cpp:382] label_mnist_1_split -> label_mnist_1_split_0
I0428 19:41:56.888720 24947 net.cpp:382] label_mnist_1_split -> label_mnist_1_split_1
I0428 19:41:56.888783 24947 net.cpp:124] Setting up label_mnist_1_split
I0428 19:41:56.888792 24947 net.cpp:131] Top shape: 100 (100)
I0428 19:41:56.888797 24947 net.cpp:131] Top shape: 100 (100)
I0428 19:41:56.888799 24947 net.cpp:139] Memory required for data: 314800
I0428 19:41:56.888803 24947 layer_factory.hpp:77] Creating layer conv0
I0428 19:41:56.888819 24947 net.cpp:86] Creating Layer conv0
I0428 19:41:56.888825 24947 net.cpp:408] conv0 <- data
I0428 19:41:56.888833 24947 net.cpp:382] conv0 -> conv0
I0428 19:41:56.890813 24947 net.cpp:124] Setting up conv0
I0428 19:41:56.890830 24947 net.cpp:131] Top shape: 100 2 24 24 (115200)
I0428 19:41:56.890835 24947 net.cpp:139] Memory required for data: 775600
I0428 19:41:56.890846 24947 layer_factory.hpp:77] Creating layer pool0
I0428 19:41:56.890854 24947 net.cpp:86] Creating Layer pool0
I0428 19:41:56.890859 24947 net.cpp:408] pool0 <- conv0
I0428 19:41:56.890864 24947 net.cpp:382] pool0 -> pool0
I0428 19:41:56.890909 24947 net.cpp:124] Setting up pool0
I0428 19:41:56.890918 24947 net.cpp:131] Top shape: 100 2 12 12 (28800)
I0428 19:41:56.890920 24947 net.cpp:139] Memory required for data: 890800
I0428 19:41:56.890924 24947 layer_factory.hpp:77] Creating layer conv1
I0428 19:41:56.890944 24947 net.cpp:86] Creating Layer conv1
I0428 19:41:56.890949 24947 net.cpp:408] conv1 <- pool0
I0428 19:41:56.890955 24947 net.cpp:382] conv1 -> conv1
I0428 19:41:56.892716 24947 net.cpp:124] Setting up conv1
I0428 19:41:56.892732 24947 net.cpp:131] Top shape: 100 10 8 8 (64000)
I0428 19:41:56.892738 24947 net.cpp:139] Memory required for data: 1146800
I0428 19:41:56.892748 24947 layer_factory.hpp:77] Creating layer pool1
I0428 19:41:56.892756 24947 net.cpp:86] Creating Layer pool1
I0428 19:41:56.892760 24947 net.cpp:408] pool1 <- conv1
I0428 19:41:56.892767 24947 net.cpp:382] pool1 -> pool1
I0428 19:41:56.892819 24947 net.cpp:124] Setting up pool1
I0428 19:41:56.892828 24947 net.cpp:131] Top shape: 100 10 4 4 (16000)
I0428 19:41:56.892832 24947 net.cpp:139] Memory required for data: 1210800
I0428 19:41:56.892837 24947 layer_factory.hpp:77] Creating layer ip1
I0428 19:41:56.892853 24947 net.cpp:86] Creating Layer ip1
I0428 19:41:56.892871 24947 net.cpp:408] ip1 <- pool1
I0428 19:41:56.892879 24947 net.cpp:382] ip1 -> ip1
I0428 19:41:56.893033 24947 net.cpp:124] Setting up ip1
I0428 19:41:56.893041 24947 net.cpp:131] Top shape: 100 25 (2500)
I0428 19:41:56.893059 24947 net.cpp:139] Memory required for data: 1220800
I0428 19:41:56.893069 24947 layer_factory.hpp:77] Creating layer relu1
I0428 19:41:56.893077 24947 net.cpp:86] Creating Layer relu1
I0428 19:41:56.893084 24947 net.cpp:408] relu1 <- ip1
I0428 19:41:56.893088 24947 net.cpp:369] relu1 -> ip1 (in-place)
I0428 19:41:56.893298 24947 net.cpp:124] Setting up relu1
I0428 19:41:56.893308 24947 net.cpp:131] Top shape: 100 25 (2500)
I0428 19:41:56.893312 24947 net.cpp:139] Memory required for data: 1230800
I0428 19:41:56.893317 24947 layer_factory.hpp:77] Creating layer ip2
I0428 19:41:56.893326 24947 net.cpp:86] Creating Layer ip2
I0428 19:41:56.893339 24947 net.cpp:408] ip2 <- ip1
I0428 19:41:56.893347 24947 net.cpp:382] ip2 -> ip2
I0428 19:41:56.893503 24947 net.cpp:124] Setting up ip2
I0428 19:41:56.893512 24947 net.cpp:131] Top shape: 100 50 (5000)
I0428 19:41:56.893515 24947 net.cpp:139] Memory required for data: 1250800
I0428 19:41:56.893522 24947 layer_factory.hpp:77] Creating layer relu2
I0428 19:41:56.893530 24947 net.cpp:86] Creating Layer relu2
I0428 19:41:56.893535 24947 net.cpp:408] relu2 <- ip2
I0428 19:41:56.893540 24947 net.cpp:369] relu2 -> ip2 (in-place)
I0428 19:41:56.893836 24947 net.cpp:124] Setting up relu2
I0428 19:41:56.893846 24947 net.cpp:131] Top shape: 100 50 (5000)
I0428 19:41:56.893849 24947 net.cpp:139] Memory required for data: 1270800
I0428 19:41:56.893853 24947 layer_factory.hpp:77] Creating layer ip3
I0428 19:41:56.893860 24947 net.cpp:86] Creating Layer ip3
I0428 19:41:56.893874 24947 net.cpp:408] ip3 <- ip2
I0428 19:41:56.893882 24947 net.cpp:382] ip3 -> ip3
I0428 19:41:56.894004 24947 net.cpp:124] Setting up ip3
I0428 19:41:56.894012 24947 net.cpp:131] Top shape: 100 10 (1000)
I0428 19:41:56.894016 24947 net.cpp:139] Memory required for data: 1274800
I0428 19:41:56.894024 24947 layer_factory.hpp:77] Creating layer relu3
I0428 19:41:56.894032 24947 net.cpp:86] Creating Layer relu3
I0428 19:41:56.894035 24947 net.cpp:408] relu3 <- ip3
I0428 19:41:56.894040 24947 net.cpp:369] relu3 -> ip3 (in-place)
I0428 19:41:56.894979 24947 net.cpp:124] Setting up relu3
I0428 19:41:56.894992 24947 net.cpp:131] Top shape: 100 10 (1000)
I0428 19:41:56.894997 24947 net.cpp:139] Memory required for data: 1278800
I0428 19:41:56.895000 24947 layer_factory.hpp:77] Creating layer ip3_relu3_0_split
I0428 19:41:56.895007 24947 net.cpp:86] Creating Layer ip3_relu3_0_split
I0428 19:41:56.895011 24947 net.cpp:408] ip3_relu3_0_split <- ip3
I0428 19:41:56.895018 24947 net.cpp:382] ip3_relu3_0_split -> ip3_relu3_0_split_0
I0428 19:41:56.895026 24947 net.cpp:382] ip3_relu3_0_split -> ip3_relu3_0_split_1
I0428 19:41:56.895081 24947 net.cpp:124] Setting up ip3_relu3_0_split
I0428 19:41:56.895092 24947 net.cpp:131] Top shape: 100 10 (1000)
I0428 19:41:56.895097 24947 net.cpp:131] Top shape: 100 10 (1000)
I0428 19:41:56.895102 24947 net.cpp:139] Memory required for data: 1286800
I0428 19:41:56.895105 24947 layer_factory.hpp:77] Creating layer accuracy
I0428 19:41:56.895112 24947 net.cpp:86] Creating Layer accuracy
I0428 19:41:56.895117 24947 net.cpp:408] accuracy <- ip3_relu3_0_split_0
I0428 19:41:56.895122 24947 net.cpp:408] accuracy <- label_mnist_1_split_0
I0428 19:41:56.895134 24947 net.cpp:382] accuracy -> accuracy
…
