…
I0428 19:34:16.602434 23299 net.cpp:296] The NetState phase (0) differed from the phase (1) specified by a rule in layer mnist
I0428 19:34:16.602447 23299 net.cpp:296] The NetState phase (0) differed from the phase (1) specified by a rule in layer accuracy
I0428 19:34:16.602512 23299 net.cpp:53] Initializing net from parameters: 
name: "LeNet"
state {
  phase: TRAIN
  level: 0
  stage: ""
}
layer {
  name: "mnist"
  type: "Data"
  top: "data"
  top: "label"
  include {
    phase: TRAIN
  }
  transform_param {
    scale: 0.00390625
  }
  data_param {
    source: "examples/mnist/mnist_train_lmdb"
    batch_size: 64
    backend: LMDB
  }
}
layer {
  name: "conv0"
  type: "Convolution"
  bottom: "data"
  top: "conv0"
  param {
    lr_mult: 1
  }
  param {
    lr_mult: 2
  }
  convolution_param {
    num_output: 50
    kernel_size: 5
    stride: 1
    weight_filler {
      type: "xavier"
    }
    bias_filler {
      type: "constant"
    }
  }
}
layer {
  name: "pool0"
  type: "Pooling"
  bottom: "conv0"
  top: "pool0"
  pooling_param {
    pool: MAX
    kernel_size: 2
    stride: 2
  }
}
layer {
  name: "ip1"
  type: "InnerProduct"
  bottom: "pool0"
  top: "ip1"
  param {
    lr_mult: 1
  }
  param {
    lr_mult: 2
  }
  inner_product_param {
    num_output: 10
    weight_filler {
      type: "xavier"
    }
    bias_filler {
      type: "constant"
    }
  }
}
layer {
  name: "relu1"
  type: "ReLU"
  bottom: "ip1"
  top: "ip1"
}
layer {
  name: "ip2"
  type: "InnerProduct"
  bottom: "ip1"
  top: "ip2"
  param {
    lr_mult: 1
  }
  param {
    lr_mult: 2
  }
  inner_product_param {
    num_output: 10
    weight_filler {
      type: "xavier"
    }
    bias_filler {
      type: "constant"
    }
  }
}
layer {
  name: "relu2"
  type: "ReLU"
  bottom: "ip2"
  top: "ip2"
}
layer {
  name: "loss"
  type: "SoftmaxWithLoss"
  bottom: "ip2"
  bottom: "label"
  top: "loss"
}
I0428 19:34:16.602584 23299 layer_factory.hpp:77] Creating layer mnist
I0428 19:34:16.602721 23299 db_lmdb.cpp:35] Opened lmdb examples/mnist/mnist_train_lmdb
I0428 19:34:16.602751 23299 net.cpp:86] Creating Layer mnist
I0428 19:34:16.602759 23299 net.cpp:382] mnist -> data
I0428 19:34:16.602779 23299 net.cpp:382] mnist -> label
I0428 19:34:16.603893 23299 data_layer.cpp:45] output data size: 64,1,28,28
I0428 19:34:16.606202 23299 net.cpp:124] Setting up mnist
I0428 19:34:16.606232 23299 net.cpp:131] Top shape: 64 1 28 28 (50176)
I0428 19:34:16.606237 23299 net.cpp:131] Top shape: 64 (64)
I0428 19:34:16.606240 23299 net.cpp:139] Memory required for data: 200960
I0428 19:34:16.606246 23299 layer_factory.hpp:77] Creating layer conv0
I0428 19:34:16.606261 23299 net.cpp:86] Creating Layer conv0
I0428 19:34:16.606266 23299 net.cpp:408] conv0 <- data
I0428 19:34:16.606276 23299 net.cpp:382] conv0 -> conv0
I0428 19:34:16.835651 23299 net.cpp:124] Setting up conv0
I0428 19:34:16.835677 23299 net.cpp:131] Top shape: 64 50 24 24 (1843200)
I0428 19:34:16.835681 23299 net.cpp:139] Memory required for data: 7573760
I0428 19:34:16.835695 23299 layer_factory.hpp:77] Creating layer pool0
I0428 19:34:16.835706 23299 net.cpp:86] Creating Layer pool0
I0428 19:34:16.835711 23299 net.cpp:408] pool0 <- conv0
I0428 19:34:16.835716 23299 net.cpp:382] pool0 -> pool0
I0428 19:34:16.835793 23299 net.cpp:124] Setting up pool0
I0428 19:34:16.835798 23299 net.cpp:131] Top shape: 64 50 12 12 (460800)
I0428 19:34:16.835800 23299 net.cpp:139] Memory required for data: 9416960
I0428 19:34:16.835822 23299 layer_factory.hpp:77] Creating layer ip1
I0428 19:34:16.835832 23299 net.cpp:86] Creating Layer ip1
I0428 19:34:16.835835 23299 net.cpp:408] ip1 <- pool0
I0428 19:34:16.835839 23299 net.cpp:382] ip1 -> ip1
I0428 19:34:16.837257 23299 net.cpp:124] Setting up ip1
I0428 19:34:16.837270 23299 net.cpp:131] Top shape: 64 10 (640)
I0428 19:34:16.837290 23299 net.cpp:139] Memory required for data: 9419520
I0428 19:34:16.837297 23299 layer_factory.hpp:77] Creating layer relu1
I0428 19:34:16.837306 23299 net.cpp:86] Creating Layer relu1
I0428 19:34:16.837308 23299 net.cpp:408] relu1 <- ip1
I0428 19:34:16.837313 23299 net.cpp:369] relu1 -> ip1 (in-place)
I0428 19:34:16.837483 23299 net.cpp:124] Setting up relu1
I0428 19:34:16.837493 23299 net.cpp:131] Top shape: 64 10 (640)
I0428 19:34:16.837497 23299 net.cpp:139] Memory required for data: 9422080
I0428 19:34:16.837501 23299 layer_factory.hpp:77] Creating layer ip2
I0428 19:34:16.837507 23299 net.cpp:86] Creating Layer ip2
I0428 19:34:16.837524 23299 net.cpp:408] ip2 <- ip1
I0428 19:34:16.837530 23299 net.cpp:382] ip2 -> ip2
I0428 19:34:16.837635 23299 net.cpp:124] Setting up ip2
I0428 19:34:16.837641 23299 net.cpp:131] Top shape: 64 10 (640)
I0428 19:34:16.837644 23299 net.cpp:139] Memory required for data: 9424640
I0428 19:34:16.837651 23299 layer_factory.hpp:77] Creating layer relu2
I0428 19:34:16.837656 23299 net.cpp:86] Creating Layer relu2
I0428 19:34:16.837659 23299 net.cpp:408] relu2 <- ip2
I0428 19:34:16.837664 23299 net.cpp:369] relu2 -> ip2 (in-place)
I0428 19:34:16.838474 23299 net.cpp:124] Setting up relu2
I0428 19:34:16.838486 23299 net.cpp:131] Top shape: 64 10 (640)
I0428 19:34:16.838505 23299 net.cpp:139] Memory required for data: 9427200
I0428 19:34:16.838508 23299 layer_factory.hpp:77] Creating layer loss
I0428 19:34:16.838515 23299 net.cpp:86] Creating Layer loss
I0428 19:34:16.838517 23299 net.cpp:408] loss <- ip2
I0428 19:34:16.838522 23299 net.cpp:408] loss <- label
I0428 19:34:16.838527 23299 net.cpp:382] loss -> loss
I0428 19:34:16.838544 23299 layer_factory.hpp:77] Creating layer loss
…
I0428 19:34:16.839202 23299 solver.cpp:173] Creating test net (#0) specified by net file: ECE595/mnist/train_test/var_everything2/lenet_train_test200.prototxt
I0428 19:34:16.839226 23299 net.cpp:296] The NetState phase (1) differed from the phase (0) specified by a rule in layer mnist
I0428 19:34:16.839299 23299 net.cpp:53] Initializing net from parameters: 
name: "LeNet"
state {
  phase: TEST
}
layer {
  name: "mnist"
  type: "Data"
  top: "data"
  top: "label"
  include {
    phase: TEST
  }
  transform_param {
    scale: 0.00390625
  }
  data_param {
    source: "examples/mnist/mnist_test_lmdb"
    batch_size: 100
    backend: LMDB
  }
}
layer {
  name: "conv0"
  type: "Convolution"
  bottom: "data"
  top: "conv0"
  param {
    lr_mult: 1
  }
  param {
    lr_mult: 2
  }
  convolution_param {
    num_output: 50
    kernel_size: 5
    stride: 1
    weight_filler {
      type: "xavier"
    }
    bias_filler {
      type: "constant"
    }
  }
}
layer {
  name: "pool0"
  type: "Pooling"
  bottom: "conv0"
  top: "pool0"
  pooling_param {
    pool: MAX
    kernel_size: 2
    stride: 2
  }
}
layer {
  name: "ip1"
  type: "InnerProduct"
  bottom: "pool0"
  top: "ip1"
  param {
    lr_mult: 1
  }
  param {
    lr_mult: 2
  }
  inner_product_param {
    num_output: 10
    weight_filler {
      type: "xavier"
    }
    bias_filler {
      type: "constant"
    }
  }
}
layer {
  name: "relu1"
  type: "ReLU"
  bottom: "ip1"
  top: "ip1"
}
layer {
  name: "ip2"
  type: "InnerProduct"
  bottom: "ip1"
  top: "ip2"
  param {
    lr_mult: 1
  }
  param {
    lr_mult: 2
  }
  inner_product_param {
    num_output: 10
    weight_filler {
      type: "xavier"
    }
    bias_filler {
      type: "constant"
    }
  }
}
layer {
  name: "relu2"
  type: "ReLU"
  bottom: "ip2"
  top: "ip2"
}
layer {
  name: "accuracy"
  type: "Accuracy"
  bottom: "ip2"
  bottom: "label"
  top: "accuracy"
  include {
    phase: TEST
  }
}
layer {
  name: "loss"
  type: "SoftmaxWithLoss"
  bottom: "ip2"
  bottom: "label"
  top: "loss"
}
I0428 19:34:16.839371 23299 layer_factory.hpp:77] Creating layer mnist
I0428 19:34:16.839431 23299 db_lmdb.cpp:35] Opened lmdb examples/mnist/mnist_test_lmdb
I0428 19:34:16.839444 23299 net.cpp:86] Creating Layer mnist
I0428 19:34:16.839448 23299 net.cpp:382] mnist -> data
I0428 19:34:16.839455 23299 net.cpp:382] mnist -> label
I0428 19:34:16.839540 23299 data_layer.cpp:45] output data size: 100,1,28,28
I0428 19:34:16.840925 23299 net.cpp:124] Setting up mnist
I0428 19:34:16.840970 23299 net.cpp:131] Top shape: 100 1 28 28 (78400)
I0428 19:34:16.840975 23299 net.cpp:131] Top shape: 100 (100)
I0428 19:34:16.840978 23299 net.cpp:139] Memory required for data: 314000
I0428 19:34:16.840996 23299 layer_factory.hpp:77] Creating layer label_mnist_1_split
I0428 19:34:16.841039 23299 net.cpp:86] Creating Layer label_mnist_1_split
I0428 19:34:16.841044 23299 net.cpp:408] label_mnist_1_split <- label
I0428 19:34:16.841048 23299 net.cpp:382] label_mnist_1_split -> label_mnist_1_split_0
I0428 19:34:16.841056 23299 net.cpp:382] label_mnist_1_split -> label_mnist_1_split_1
I0428 19:34:16.841101 23299 net.cpp:124] Setting up label_mnist_1_split
I0428 19:34:16.841109 23299 net.cpp:131] Top shape: 100 (100)
I0428 19:34:16.841112 23299 net.cpp:131] Top shape: 100 (100)
I0428 19:34:16.841114 23299 net.cpp:139] Memory required for data: 314800
I0428 19:34:16.841117 23299 layer_factory.hpp:77] Creating layer conv0
I0428 19:34:16.841141 23299 net.cpp:86] Creating Layer conv0
I0428 19:34:16.841145 23299 net.cpp:408] conv0 <- data
I0428 19:34:16.841151 23299 net.cpp:382] conv0 -> conv0
I0428 19:34:16.843237 23299 net.cpp:124] Setting up conv0
I0428 19:34:16.843250 23299 net.cpp:131] Top shape: 100 50 24 24 (2880000)
I0428 19:34:16.843269 23299 net.cpp:139] Memory required for data: 11834800
I0428 19:34:16.843277 23299 layer_factory.hpp:77] Creating layer pool0
I0428 19:34:16.843286 23299 net.cpp:86] Creating Layer pool0
I0428 19:34:16.843288 23299 net.cpp:408] pool0 <- conv0
I0428 19:34:16.843294 23299 net.cpp:382] pool0 -> pool0
I0428 19:34:16.843328 23299 net.cpp:124] Setting up pool0
I0428 19:34:16.843333 23299 net.cpp:131] Top shape: 100 50 12 12 (720000)
I0428 19:34:16.843336 23299 net.cpp:139] Memory required for data: 14714800
I0428 19:34:16.843338 23299 layer_factory.hpp:77] Creating layer ip1
I0428 19:34:16.843346 23299 net.cpp:86] Creating Layer ip1
I0428 19:34:16.843349 23299 net.cpp:408] ip1 <- pool0
I0428 19:34:16.843353 23299 net.cpp:382] ip1 -> ip1
I0428 19:34:16.843915 23299 net.cpp:124] Setting up ip1
I0428 19:34:16.843924 23299 net.cpp:131] Top shape: 100 10 (1000)
I0428 19:34:16.843926 23299 net.cpp:139] Memory required for data: 14718800
I0428 19:34:16.843935 23299 layer_factory.hpp:77] Creating layer relu1
I0428 19:34:16.843940 23299 net.cpp:86] Creating Layer relu1
I0428 19:34:16.843943 23299 net.cpp:408] relu1 <- ip1
I0428 19:34:16.843947 23299 net.cpp:369] relu1 -> ip1 (in-place)
I0428 19:34:16.844244 23299 net.cpp:124] Setting up relu1
I0428 19:34:16.844251 23299 net.cpp:131] Top shape: 100 10 (1000)
I0428 19:34:16.844295 23299 net.cpp:139] Memory required for data: 14722800
I0428 19:34:16.844298 23299 layer_factory.hpp:77] Creating layer ip2
I0428 19:34:16.844305 23299 net.cpp:86] Creating Layer ip2
I0428 19:34:16.844310 23299 net.cpp:408] ip2 <- ip1
I0428 19:34:16.844316 23299 net.cpp:382] ip2 -> ip2
I0428 19:34:16.844413 23299 net.cpp:124] Setting up ip2
I0428 19:34:16.844421 23299 net.cpp:131] Top shape: 100 10 (1000)
I0428 19:34:16.844430 23299 net.cpp:139] Memory required for data: 14726800
I0428 19:34:16.844439 23299 layer_factory.hpp:77] Creating layer relu2
I0428 19:34:16.844444 23299 net.cpp:86] Creating Layer relu2
I0428 19:34:16.844446 23299 net.cpp:408] relu2 <- ip2
I0428 19:34:16.844451 23299 net.cpp:369] relu2 -> ip2 (in-place)
I0428 19:34:16.844609 23299 net.cpp:124] Setting up relu2
I0428 19:34:16.844616 23299 net.cpp:131] Top shape: 100 10 (1000)
I0428 19:34:16.844620 23299 net.cpp:139] Memory required for data: 14730800
I0428 19:34:16.844624 23299 layer_factory.hpp:77] Creating layer ip2_relu2_0_split
I0428 19:34:16.844630 23299 net.cpp:86] Creating Layer ip2_relu2_0_split
I0428 19:34:16.844632 23299 net.cpp:408] ip2_relu2_0_split <- ip2
I0428 19:34:16.844637 23299 net.cpp:382] ip2_relu2_0_split -> ip2_relu2_0_split_0
I0428 19:34:16.844643 23299 net.cpp:382] ip2_relu2_0_split -> ip2_relu2_0_split_1
I0428 19:34:16.844678 23299 net.cpp:124] Setting up ip2_relu2_0_split
I0428 19:34:16.844684 23299 net.cpp:131] Top shape: 100 10 (1000)
I0428 19:34:16.844688 23299 net.cpp:131] Top shape: 100 10 (1000)
I0428 19:34:16.844691 23299 net.cpp:139] Memory required for data: 14738800
I0428 19:34:16.844693 23299 layer_factory.hpp:77] Creating layer accuracy
I0428 19:34:16.844699 23299 net.cpp:86] Creating Layer accuracy
I0428 19:34:16.844703 23299 net.cpp:408] accuracy <- ip2_relu2_0_split_0
I0428 19:34:16.844707 23299 net.cpp:408] accuracy <- label_mnist_1_split_0
I0428 19:34:16.844712 23299 net.cpp:382] accuracy -> accuracy
…
