…
I0428 19:58:52.502511 29100 net.cpp:296] The NetState phase (0) differed from the phase (1) specified by a rule in layer mnist
I0428 19:58:52.502532 29100 net.cpp:296] The NetState phase (0) differed from the phase (1) specified by a rule in layer accuracy
I0428 19:58:52.502635 29100 net.cpp:53] Initializing net from parameters: 
name: "LeNet"
state {
  phase: TRAIN
  level: 0
  stage: ""
}
layer {
  name: "mnist"
  type: "Data"
  top: "data"
  top: "label"
  include {
    phase: TRAIN
  }
  transform_param {
    scale: 0.00390625
  }
  data_param {
    source: "examples/mnist/mnist_train_lmdb"
    batch_size: 64
    backend: LMDB
  }
}
layer {
  name: "conv0"
  type: "Convolution"
  bottom: "data"
  top: "conv0"
  param {
    lr_mult: 1
  }
  param {
    lr_mult: 2
  }
  convolution_param {
    num_output: 10
    kernel_size: 5
    stride: 1
    weight_filler {
      type: "xavier"
    }
    bias_filler {
      type: "constant"
    }
  }
}
layer {
  name: "pool0"
  type: "Pooling"
  bottom: "conv0"
  top: "pool0"
  pooling_param {
    pool: MAX
    kernel_size: 2
    stride: 2
  }
}
layer {
  name: "conv1"
  type: "Convolution"
  bottom: "pool0"
  top: "conv1"
  param {
    lr_mult: 1
  }
  param {
    lr_mult: 2
  }
  convolution_param {
    num_output: 10
    kernel_size: 5
    stride: 1
    weight_filler {
      type: "xavier"
    }
    bias_filler {
      type: "constant"
    }
  }
}
layer {
  name: "pool1"
  type: "Pooling"
  bottom: "conv1"
  top: "pool1"
  pooling_param {
    pool: MAX
    kernel_size: 2
    stride: 2
  }
}
layer {
  name: "ip1"
  type: "InnerProduct"
  bottom: "pool1"
  top: "ip1"
  param {
    lr_mult: 1
  }
  param {
    lr_mult: 2
  }
  inner_product_param {
    num_output: 10
    weight_filler {
      type: "xavier"
    }
    bias_filler {
      type: "constant"
    }
  }
}
layer {
  name: "relu1"
  type: "ReLU"
  bottom: "ip1"
  top: "ip1"
}
layer {
  name: "ip2"
  type: "InnerProduct"
  bottom: "ip1"
  top: "ip2"
  param {
    lr_mult: 1
  }
  param {
    lr_mult: 2
  }
  inner_product_param {
    num_output: 10
    weight_filler {
      type: "xavier"
    }
    bias_filler {
      type: "constant"
    }
  }
}
layer {
  name: "relu2"
  type: "ReLU"
  bottom: "ip2"
  top: "ip2"
}
layer {
  name: "ip3"
  type: "InnerProduct"
  bottom: "ip2"
  top: "ip3"
  param {
    lr_mult: 1
  }
  param {
    lr_mult: 2
  }
  inner_product_param {
    num_output: 10
    weight_filler {
      type: "xavier"
    }
    bias_filler {
      type: "constant"
    }
  }
}
layer {
  name: "relu3"
  type: "ReLU"
  bottom: "ip3"
  top: "ip3"
}
layer {
  name: "loss"
  type: "SoftmaxWithLoss"
  bottom: "ip3"
  bottom: "label"
  top: "loss"
}
I0428 19:58:52.502715 29100 layer_factory.hpp:77] Creating layer mnist
I0428 19:58:52.502817 29100 db_lmdb.cpp:35] Opened lmdb examples/mnist/mnist_train_lmdb
I0428 19:58:52.502841 29100 net.cpp:86] Creating Layer mnist
I0428 19:58:52.502851 29100 net.cpp:382] mnist -> data
I0428 19:58:52.502874 29100 net.cpp:382] mnist -> label
I0428 19:58:52.503973 29100 data_layer.cpp:45] output data size: 64,1,28,28
I0428 19:58:52.506456 29100 net.cpp:124] Setting up mnist
I0428 19:58:52.506475 29100 net.cpp:131] Top shape: 64 1 28 28 (50176)
I0428 19:58:52.506481 29100 net.cpp:131] Top shape: 64 (64)
I0428 19:58:52.506485 29100 net.cpp:139] Memory required for data: 200960
I0428 19:58:52.506492 29100 layer_factory.hpp:77] Creating layer conv0
I0428 19:58:52.506510 29100 net.cpp:86] Creating Layer conv0
I0428 19:58:52.506531 29100 net.cpp:408] conv0 <- data
I0428 19:58:52.506546 29100 net.cpp:382] conv0 -> conv0
I0428 19:58:52.792152 29100 net.cpp:124] Setting up conv0
I0428 19:58:52.792181 29100 net.cpp:131] Top shape: 64 10 24 24 (368640)
I0428 19:58:52.792184 29100 net.cpp:139] Memory required for data: 1675520
I0428 19:58:52.792199 29100 layer_factory.hpp:77] Creating layer pool0
I0428 19:58:52.792212 29100 net.cpp:86] Creating Layer pool0
I0428 19:58:52.792217 29100 net.cpp:408] pool0 <- conv0
I0428 19:58:52.792222 29100 net.cpp:382] pool0 -> pool0
I0428 19:58:52.792268 29100 net.cpp:124] Setting up pool0
I0428 19:58:52.792273 29100 net.cpp:131] Top shape: 64 10 12 12 (92160)
I0428 19:58:52.792276 29100 net.cpp:139] Memory required for data: 2044160
I0428 19:58:52.792279 29100 layer_factory.hpp:77] Creating layer conv1
I0428 19:58:52.792289 29100 net.cpp:86] Creating Layer conv1
I0428 19:58:52.792294 29100 net.cpp:408] conv1 <- pool0
I0428 19:58:52.792297 29100 net.cpp:382] conv1 -> conv1
I0428 19:58:52.794885 29100 net.cpp:124] Setting up conv1
I0428 19:58:52.794899 29100 net.cpp:131] Top shape: 64 10 8 8 (40960)
I0428 19:58:52.794903 29100 net.cpp:139] Memory required for data: 2208000
I0428 19:58:52.794912 29100 layer_factory.hpp:77] Creating layer pool1
I0428 19:58:52.794919 29100 net.cpp:86] Creating Layer pool1
I0428 19:58:52.794924 29100 net.cpp:408] pool1 <- conv1
I0428 19:58:52.794929 29100 net.cpp:382] pool1 -> pool1
I0428 19:58:52.794965 29100 net.cpp:124] Setting up pool1
I0428 19:58:52.794981 29100 net.cpp:131] Top shape: 64 10 4 4 (10240)
I0428 19:58:52.794983 29100 net.cpp:139] Memory required for data: 2248960
I0428 19:58:52.794986 29100 layer_factory.hpp:77] Creating layer ip1
I0428 19:58:52.794993 29100 net.cpp:86] Creating Layer ip1
I0428 19:58:52.794996 29100 net.cpp:408] ip1 <- pool1
I0428 19:58:52.795001 29100 net.cpp:382] ip1 -> ip1
I0428 19:58:52.795104 29100 net.cpp:124] Setting up ip1
I0428 19:58:52.795111 29100 net.cpp:131] Top shape: 64 10 (640)
I0428 19:58:52.795114 29100 net.cpp:139] Memory required for data: 2251520
I0428 19:58:52.795121 29100 layer_factory.hpp:77] Creating layer relu1
I0428 19:58:52.795127 29100 net.cpp:86] Creating Layer relu1
I0428 19:58:52.795130 29100 net.cpp:408] relu1 <- ip1
I0428 19:58:52.795135 29100 net.cpp:369] relu1 -> ip1 (in-place)
I0428 19:58:52.795294 29100 net.cpp:124] Setting up relu1
I0428 19:58:52.795301 29100 net.cpp:131] Top shape: 64 10 (640)
I0428 19:58:52.795305 29100 net.cpp:139] Memory required for data: 2254080
I0428 19:58:52.795307 29100 layer_factory.hpp:77] Creating layer ip2
I0428 19:58:52.795313 29100 net.cpp:86] Creating Layer ip2
I0428 19:58:52.795317 29100 net.cpp:408] ip2 <- ip1
I0428 19:58:52.795321 29100 net.cpp:382] ip2 -> ip2
I0428 19:58:52.795413 29100 net.cpp:124] Setting up ip2
I0428 19:58:52.795420 29100 net.cpp:131] Top shape: 64 10 (640)
I0428 19:58:52.795423 29100 net.cpp:139] Memory required for data: 2256640
I0428 19:58:52.795428 29100 layer_factory.hpp:77] Creating layer relu2
I0428 19:58:52.795434 29100 net.cpp:86] Creating Layer relu2
I0428 19:58:52.795438 29100 net.cpp:408] relu2 <- ip2
I0428 19:58:52.795441 29100 net.cpp:369] relu2 -> ip2 (in-place)
I0428 19:58:52.796160 29100 net.cpp:124] Setting up relu2
I0428 19:58:52.796174 29100 net.cpp:131] Top shape: 64 10 (640)
I0428 19:58:52.796178 29100 net.cpp:139] Memory required for data: 2259200
I0428 19:58:52.796181 29100 layer_factory.hpp:77] Creating layer ip3
I0428 19:58:52.796188 29100 net.cpp:86] Creating Layer ip3
I0428 19:58:52.796192 29100 net.cpp:408] ip3 <- ip2
I0428 19:58:52.796197 29100 net.cpp:382] ip3 -> ip3
I0428 19:58:52.796309 29100 net.cpp:124] Setting up ip3
I0428 19:58:52.796316 29100 net.cpp:131] Top shape: 64 10 (640)
I0428 19:58:52.796319 29100 net.cpp:139] Memory required for data: 2261760
I0428 19:58:52.796327 29100 layer_factory.hpp:77] Creating layer relu3
I0428 19:58:52.796332 29100 net.cpp:86] Creating Layer relu3
I0428 19:58:52.796335 29100 net.cpp:408] relu3 <- ip3
I0428 19:58:52.796339 29100 net.cpp:369] relu3 -> ip3 (in-place)
I0428 19:58:52.796502 29100 net.cpp:124] Setting up relu3
I0428 19:58:52.796510 29100 net.cpp:131] Top shape: 64 10 (640)
I0428 19:58:52.796514 29100 net.cpp:139] Memory required for data: 2264320
I0428 19:58:52.796516 29100 layer_factory.hpp:77] Creating layer loss
I0428 19:58:52.796522 29100 net.cpp:86] Creating Layer loss
I0428 19:58:52.796525 29100 net.cpp:408] loss <- ip3
I0428 19:58:52.796530 29100 net.cpp:408] loss <- label
I0428 19:58:52.796535 29100 net.cpp:382] loss -> loss
I0428 19:58:52.796552 29100 layer_factory.hpp:77] Creating layer loss
…
I0428 19:58:52.797276 29100 solver.cpp:173] Creating test net (#0) specified by net file: ECE595/mnist/train_test/var_everything2/lenet_train_test831.prototxt
I0428 19:58:52.797317 29100 net.cpp:296] The NetState phase (1) differed from the phase (0) specified by a rule in layer mnist
I0428 19:58:52.797411 29100 net.cpp:53] Initializing net from parameters: 
name: "LeNet"
state {
  phase: TEST
}
layer {
  name: "mnist"
  type: "Data"
  top: "data"
  top: "label"
  include {
    phase: TEST
  }
  transform_param {
    scale: 0.00390625
  }
  data_param {
    source: "examples/mnist/mnist_test_lmdb"
    batch_size: 100
    backend: LMDB
  }
}
layer {
  name: "conv0"
  type: "Convolution"
  bottom: "data"
  top: "conv0"
  param {
    lr_mult: 1
  }
  param {
    lr_mult: 2
  }
  convolution_param {
    num_output: 10
    kernel_size: 5
    stride: 1
    weight_filler {
      type: "xavier"
    }
    bias_filler {
      type: "constant"
    }
  }
}
layer {
  name: "pool0"
  type: "Pooling"
  bottom: "conv0"
  top: "pool0"
  pooling_param {
    pool: MAX
    kernel_size: 2
    stride: 2
  }
}
layer {
  name: "conv1"
  type: "Convolution"
  bottom: "pool0"
  top: "conv1"
  param {
    lr_mult: 1
  }
  param {
    lr_mult: 2
  }
  convolution_param {
    num_output: 10
    kernel_size: 5
    stride: 1
    weight_filler {
      type: "xavier"
    }
    bias_filler {
      type: "constant"
    }
  }
}
layer {
  name: "pool1"
  type: "Pooling"
  bottom: "conv1"
  top: "pool1"
  pooling_param {
    pool: MAX
    kernel_size: 2
    stride: 2
  }
}
layer {
  name: "ip1"
  type: "InnerProduct"
  bottom: "pool1"
  top: "ip1"
  param {
    lr_mult: 1
  }
  param {
    lr_mult: 2
  }
  inner_product_param {
    num_output: 10
    weight_filler {
      type: "xavier"
    }
    bias_filler {
      type: "constant"
    }
  }
}
layer {
  name: "relu1"
  type: "ReLU"
  bottom: "ip1"
  top: "ip1"
}
layer {
  name: "ip2"
  type: "InnerProduct"
  bottom: "ip1"
  top: "ip2"
  param {
    lr_mult: 1
  }
  param {
    lr_mult: 2
  }
  inner_product_param {
    num_output: 10
    weight_filler {
      type: "xavier"
    }
    bias_filler {
      type: "constant"
    }
  }
}
layer {
  name: "relu2"
  type: "ReLU"
  bottom: "ip2"
  top: "ip2"
}
layer {
  name: "ip3"
  type: "InnerProduct"
  bottom: "ip2"
  top: "ip3"
  param {
    lr_mult: 1
  }
  param {
    lr_mult: 2
  }
  inner_product_param {
    num_output: 10
    weight_filler {
      type: "xavier"
    }
    bias_filler {
      type: "constant"
    }
  }
}
layer {
  name: "relu3"
  type: "ReLU"
  bottom: "ip3"
  top: "ip3"
}
layer {
  name: "accuracy"
  type: "Accuracy"
  bottom: "ip3"
  bottom: "label"
  top: "accuracy"
  include {
    phase: TEST
  }
}
layer {
  name: "loss"
  type: "SoftmaxWithLoss"
  bottom: "ip3"
  bottom: "label"
  top: "loss"
}
I0428 19:58:52.797505 29100 layer_factory.hpp:77] Creating layer mnist
I0428 19:58:52.797549 29100 db_lmdb.cpp:35] Opened lmdb examples/mnist/mnist_test_lmdb
I0428 19:58:52.797560 29100 net.cpp:86] Creating Layer mnist
I0428 19:58:52.797564 29100 net.cpp:382] mnist -> data
I0428 19:58:52.797572 29100 net.cpp:382] mnist -> label
I0428 19:58:52.797657 29100 data_layer.cpp:45] output data size: 100,1,28,28
I0428 19:58:52.799492 29100 net.cpp:124] Setting up mnist
I0428 19:58:52.799505 29100 net.cpp:131] Top shape: 100 1 28 28 (78400)
I0428 19:58:52.799510 29100 net.cpp:131] Top shape: 100 (100)
I0428 19:58:52.799512 29100 net.cpp:139] Memory required for data: 314000
I0428 19:58:52.799516 29100 layer_factory.hpp:77] Creating layer label_mnist_1_split
I0428 19:58:52.799532 29100 net.cpp:86] Creating Layer label_mnist_1_split
I0428 19:58:52.799535 29100 net.cpp:408] label_mnist_1_split <- label
I0428 19:58:52.799542 29100 net.cpp:382] label_mnist_1_split -> label_mnist_1_split_0
I0428 19:58:52.799548 29100 net.cpp:382] label_mnist_1_split -> label_mnist_1_split_1
I0428 19:58:52.799589 29100 net.cpp:124] Setting up label_mnist_1_split
I0428 19:58:52.799597 29100 net.cpp:131] Top shape: 100 (100)
I0428 19:58:52.799599 29100 net.cpp:131] Top shape: 100 (100)
I0428 19:58:52.799602 29100 net.cpp:139] Memory required for data: 314800
I0428 19:58:52.799605 29100 layer_factory.hpp:77] Creating layer conv0
I0428 19:58:52.799618 29100 net.cpp:86] Creating Layer conv0
I0428 19:58:52.799620 29100 net.cpp:408] conv0 <- data
I0428 19:58:52.799625 29100 net.cpp:382] conv0 -> conv0
I0428 19:58:52.801267 29100 net.cpp:124] Setting up conv0
I0428 19:58:52.801281 29100 net.cpp:131] Top shape: 100 10 24 24 (576000)
I0428 19:58:52.801285 29100 net.cpp:139] Memory required for data: 2618800
I0428 19:58:52.801295 29100 layer_factory.hpp:77] Creating layer pool0
I0428 19:58:52.801301 29100 net.cpp:86] Creating Layer pool0
I0428 19:58:52.801304 29100 net.cpp:408] pool0 <- conv0
I0428 19:58:52.801309 29100 net.cpp:382] pool0 -> pool0
I0428 19:58:52.801347 29100 net.cpp:124] Setting up pool0
I0428 19:58:52.801352 29100 net.cpp:131] Top shape: 100 10 12 12 (144000)
I0428 19:58:52.801355 29100 net.cpp:139] Memory required for data: 3194800
I0428 19:58:52.801358 29100 layer_factory.hpp:77] Creating layer conv1
I0428 19:58:52.801367 29100 net.cpp:86] Creating Layer conv1
I0428 19:58:52.801370 29100 net.cpp:408] conv1 <- pool0
I0428 19:58:52.801375 29100 net.cpp:382] conv1 -> conv1
I0428 19:58:52.803514 29100 net.cpp:124] Setting up conv1
I0428 19:58:52.803527 29100 net.cpp:131] Top shape: 100 10 8 8 (64000)
I0428 19:58:52.803531 29100 net.cpp:139] Memory required for data: 3450800
I0428 19:58:52.803541 29100 layer_factory.hpp:77] Creating layer pool1
I0428 19:58:52.803550 29100 net.cpp:86] Creating Layer pool1
I0428 19:58:52.803552 29100 net.cpp:408] pool1 <- conv1
I0428 19:58:52.803557 29100 net.cpp:382] pool1 -> pool1
I0428 19:58:52.803642 29100 net.cpp:124] Setting up pool1
I0428 19:58:52.803650 29100 net.cpp:131] Top shape: 100 10 4 4 (16000)
I0428 19:58:52.803653 29100 net.cpp:139] Memory required for data: 3514800
I0428 19:58:52.803674 29100 layer_factory.hpp:77] Creating layer ip1
I0428 19:58:52.803681 29100 net.cpp:86] Creating Layer ip1
I0428 19:58:52.803684 29100 net.cpp:408] ip1 <- pool1
I0428 19:58:52.803691 29100 net.cpp:382] ip1 -> ip1
I0428 19:58:52.803808 29100 net.cpp:124] Setting up ip1
I0428 19:58:52.803817 29100 net.cpp:131] Top shape: 100 10 (1000)
I0428 19:58:52.803829 29100 net.cpp:139] Memory required for data: 3518800
I0428 19:58:52.803838 29100 layer_factory.hpp:77] Creating layer relu1
I0428 19:58:52.803844 29100 net.cpp:86] Creating Layer relu1
I0428 19:58:52.803848 29100 net.cpp:408] relu1 <- ip1
I0428 19:58:52.803853 29100 net.cpp:369] relu1 -> ip1 (in-place)
I0428 19:58:52.804031 29100 net.cpp:124] Setting up relu1
I0428 19:58:52.804040 29100 net.cpp:131] Top shape: 100 10 (1000)
I0428 19:58:52.804045 29100 net.cpp:139] Memory required for data: 3522800
I0428 19:58:52.804049 29100 layer_factory.hpp:77] Creating layer ip2
I0428 19:58:52.804055 29100 net.cpp:86] Creating Layer ip2
I0428 19:58:52.804059 29100 net.cpp:408] ip2 <- ip1
I0428 19:58:52.804064 29100 net.cpp:382] ip2 -> ip2
I0428 19:58:52.804175 29100 net.cpp:124] Setting up ip2
I0428 19:58:52.804183 29100 net.cpp:131] Top shape: 100 10 (1000)
I0428 19:58:52.804185 29100 net.cpp:139] Memory required for data: 3526800
I0428 19:58:52.804190 29100 layer_factory.hpp:77] Creating layer relu2
I0428 19:58:52.804196 29100 net.cpp:86] Creating Layer relu2
I0428 19:58:52.804199 29100 net.cpp:408] relu2 <- ip2
I0428 19:58:52.804203 29100 net.cpp:369] relu2 -> ip2 (in-place)
I0428 19:58:52.804425 29100 net.cpp:124] Setting up relu2
I0428 19:58:52.804435 29100 net.cpp:131] Top shape: 100 10 (1000)
I0428 19:58:52.804437 29100 net.cpp:139] Memory required for data: 3530800
I0428 19:58:52.804440 29100 layer_factory.hpp:77] Creating layer ip3
I0428 19:58:52.804446 29100 net.cpp:86] Creating Layer ip3
I0428 19:58:52.804450 29100 net.cpp:408] ip3 <- ip2
I0428 19:58:52.804456 29100 net.cpp:382] ip3 -> ip3
I0428 19:58:52.804553 29100 net.cpp:124] Setting up ip3
I0428 19:58:52.804559 29100 net.cpp:131] Top shape: 100 10 (1000)
I0428 19:58:52.804563 29100 net.cpp:139] Memory required for data: 3534800
I0428 19:58:52.804570 29100 layer_factory.hpp:77] Creating layer relu3
I0428 19:58:52.804574 29100 net.cpp:86] Creating Layer relu3
I0428 19:58:52.804577 29100 net.cpp:408] relu3 <- ip3
I0428 19:58:52.804584 29100 net.cpp:369] relu3 -> ip3 (in-place)
I0428 19:58:52.805457 29100 net.cpp:124] Setting up relu3
I0428 19:58:52.805470 29100 net.cpp:131] Top shape: 100 10 (1000)
I0428 19:58:52.805474 29100 net.cpp:139] Memory required for data: 3538800
I0428 19:58:52.805477 29100 layer_factory.hpp:77] Creating layer ip3_relu3_0_split
I0428 19:58:52.805482 29100 net.cpp:86] Creating Layer ip3_relu3_0_split
I0428 19:58:52.805485 29100 net.cpp:408] ip3_relu3_0_split <- ip3
I0428 19:58:52.805491 29100 net.cpp:382] ip3_relu3_0_split -> ip3_relu3_0_split_0
I0428 19:58:52.805497 29100 net.cpp:382] ip3_relu3_0_split -> ip3_relu3_0_split_1
I0428 19:58:52.805533 29100 net.cpp:124] Setting up ip3_relu3_0_split
I0428 19:58:52.805541 29100 net.cpp:131] Top shape: 100 10 (1000)
I0428 19:58:52.805546 29100 net.cpp:131] Top shape: 100 10 (1000)
I0428 19:58:52.805547 29100 net.cpp:139] Memory required for data: 3546800
I0428 19:58:52.805550 29100 layer_factory.hpp:77] Creating layer accuracy
I0428 19:58:52.805555 29100 net.cpp:86] Creating Layer accuracy
I0428 19:58:52.805557 29100 net.cpp:408] accuracy <- ip3_relu3_0_split_0
I0428 19:58:52.805562 29100 net.cpp:408] accuracy <- label_mnist_1_split_0
I0428 19:58:52.805565 29100 net.cpp:382] accuracy -> accuracy
…
