…
I0428 19:52:34.591840 27543 net.cpp:296] The NetState phase (0) differed from the phase (1) specified by a rule in layer mnist
I0428 19:52:34.591861 27543 net.cpp:296] The NetState phase (0) differed from the phase (1) specified by a rule in layer accuracy
I0428 19:52:34.591974 27543 net.cpp:53] Initializing net from parameters: 
name: "LeNet"
state {
  phase: TRAIN
  level: 0
  stage: ""
}
layer {
  name: "mnist"
  type: "Data"
  top: "data"
  top: "label"
  include {
    phase: TRAIN
  }
  transform_param {
    scale: 0.00390625
  }
  data_param {
    source: "examples/mnist/mnist_train_lmdb"
    batch_size: 64
    backend: LMDB
  }
}
layer {
  name: "conv0"
  type: "Convolution"
  bottom: "data"
  top: "conv0"
  param {
    lr_mult: 1
  }
  param {
    lr_mult: 2
  }
  convolution_param {
    num_output: 5
    kernel_size: 5
    stride: 1
    weight_filler {
      type: "xavier"
    }
    bias_filler {
      type: "constant"
    }
  }
}
layer {
  name: "pool0"
  type: "Pooling"
  bottom: "conv0"
  top: "pool0"
  pooling_param {
    pool: MAX
    kernel_size: 2
    stride: 2
  }
}
layer {
  name: "conv1"
  type: "Convolution"
  bottom: "pool0"
  top: "conv1"
  param {
    lr_mult: 1
  }
  param {
    lr_mult: 2
  }
  convolution_param {
    num_output: 50
    kernel_size: 5
    stride: 1
    weight_filler {
      type: "xavier"
    }
    bias_filler {
      type: "constant"
    }
  }
}
layer {
  name: "pool1"
  type: "Pooling"
  bottom: "conv1"
  top: "pool1"
  pooling_param {
    pool: MAX
    kernel_size: 2
    stride: 2
  }
}
layer {
  name: "ip1"
  type: "InnerProduct"
  bottom: "pool1"
  top: "ip1"
  param {
    lr_mult: 1
  }
  param {
    lr_mult: 2
  }
  inner_product_param {
    num_output: 10
    weight_filler {
      type: "xavier"
    }
    bias_filler {
      type: "constant"
    }
  }
}
layer {
  name: "relu1"
  type: "ReLU"
  bottom: "ip1"
  top: "ip1"
}
layer {
  name: "loss"
  type: "SoftmaxWithLoss"
  bottom: "ip1"
  bottom: "label"
  top: "loss"
}
I0428 19:52:34.592067 27543 layer_factory.hpp:77] Creating layer mnist
I0428 19:52:34.592187 27543 db_lmdb.cpp:35] Opened lmdb examples/mnist/mnist_train_lmdb
I0428 19:52:34.592219 27543 net.cpp:86] Creating Layer mnist
I0428 19:52:34.592229 27543 net.cpp:382] mnist -> data
I0428 19:52:34.592259 27543 net.cpp:382] mnist -> label
I0428 19:52:34.593670 27543 data_layer.cpp:45] output data size: 64,1,28,28
I0428 19:52:34.596875 27543 net.cpp:124] Setting up mnist
I0428 19:52:34.596900 27543 net.cpp:131] Top shape: 64 1 28 28 (50176)
I0428 19:52:34.596909 27543 net.cpp:131] Top shape: 64 (64)
I0428 19:52:34.596915 27543 net.cpp:139] Memory required for data: 200960
I0428 19:52:34.596925 27543 layer_factory.hpp:77] Creating layer conv0
I0428 19:52:34.596946 27543 net.cpp:86] Creating Layer conv0
I0428 19:52:34.596953 27543 net.cpp:408] conv0 <- data
I0428 19:52:34.596968 27543 net.cpp:382] conv0 -> conv0
I0428 19:52:34.919271 27543 net.cpp:124] Setting up conv0
I0428 19:52:34.919319 27543 net.cpp:131] Top shape: 64 5 24 24 (184320)
I0428 19:52:34.919324 27543 net.cpp:139] Memory required for data: 938240
I0428 19:52:34.919344 27543 layer_factory.hpp:77] Creating layer pool0
I0428 19:52:34.919375 27543 net.cpp:86] Creating Layer pool0
I0428 19:52:34.919381 27543 net.cpp:408] pool0 <- conv0
I0428 19:52:34.919389 27543 net.cpp:382] pool0 -> pool0
I0428 19:52:34.919450 27543 net.cpp:124] Setting up pool0
I0428 19:52:34.919459 27543 net.cpp:131] Top shape: 64 5 12 12 (46080)
I0428 19:52:34.919481 27543 net.cpp:139] Memory required for data: 1122560
I0428 19:52:34.919486 27543 layer_factory.hpp:77] Creating layer conv1
I0428 19:52:34.919500 27543 net.cpp:86] Creating Layer conv1
I0428 19:52:34.919504 27543 net.cpp:408] conv1 <- pool0
I0428 19:52:34.919512 27543 net.cpp:382] conv1 -> conv1
I0428 19:52:34.923141 27543 net.cpp:124] Setting up conv1
I0428 19:52:34.923173 27543 net.cpp:131] Top shape: 64 50 8 8 (204800)
I0428 19:52:34.923178 27543 net.cpp:139] Memory required for data: 1941760
I0428 19:52:34.923189 27543 layer_factory.hpp:77] Creating layer pool1
I0428 19:52:34.923199 27543 net.cpp:86] Creating Layer pool1
I0428 19:52:34.923203 27543 net.cpp:408] pool1 <- conv1
I0428 19:52:34.923225 27543 net.cpp:382] pool1 -> pool1
I0428 19:52:34.923270 27543 net.cpp:124] Setting up pool1
I0428 19:52:34.923280 27543 net.cpp:131] Top shape: 64 50 4 4 (51200)
I0428 19:52:34.923285 27543 net.cpp:139] Memory required for data: 2146560
I0428 19:52:34.923288 27543 layer_factory.hpp:77] Creating layer ip1
I0428 19:52:34.923303 27543 net.cpp:86] Creating Layer ip1
I0428 19:52:34.923308 27543 net.cpp:408] ip1 <- pool1
I0428 19:52:34.923315 27543 net.cpp:382] ip1 -> ip1
I0428 19:52:34.923503 27543 net.cpp:124] Setting up ip1
I0428 19:52:34.923513 27543 net.cpp:131] Top shape: 64 10 (640)
I0428 19:52:34.923517 27543 net.cpp:139] Memory required for data: 2149120
I0428 19:52:34.923527 27543 layer_factory.hpp:77] Creating layer relu1
I0428 19:52:34.923534 27543 net.cpp:86] Creating Layer relu1
I0428 19:52:34.923539 27543 net.cpp:408] relu1 <- ip1
I0428 19:52:34.923545 27543 net.cpp:369] relu1 -> ip1 (in-place)
I0428 19:52:34.923768 27543 net.cpp:124] Setting up relu1
I0428 19:52:34.923779 27543 net.cpp:131] Top shape: 64 10 (640)
I0428 19:52:34.923784 27543 net.cpp:139] Memory required for data: 2151680
I0428 19:52:34.923789 27543 layer_factory.hpp:77] Creating layer loss
I0428 19:52:34.923797 27543 net.cpp:86] Creating Layer loss
I0428 19:52:34.923801 27543 net.cpp:408] loss <- ip1
I0428 19:52:34.923807 27543 net.cpp:408] loss <- label
I0428 19:52:34.923815 27543 net.cpp:382] loss -> loss
I0428 19:52:34.923835 27543 layer_factory.hpp:77] Creating layer loss
…
I0428 19:52:34.925457 27543 solver.cpp:173] Creating test net (#0) specified by net file: ECE595/mnist/train_test/var_everything2/lenet_train_test665.prototxt
I0428 19:52:34.925505 27543 net.cpp:296] The NetState phase (1) differed from the phase (0) specified by a rule in layer mnist
I0428 19:52:34.925611 27543 net.cpp:53] Initializing net from parameters: 
name: "LeNet"
state {
  phase: TEST
}
layer {
  name: "mnist"
  type: "Data"
  top: "data"
  top: "label"
  include {
    phase: TEST
  }
  transform_param {
    scale: 0.00390625
  }
  data_param {
    source: "examples/mnist/mnist_test_lmdb"
    batch_size: 100
    backend: LMDB
  }
}
layer {
  name: "conv0"
  type: "Convolution"
  bottom: "data"
  top: "conv0"
  param {
    lr_mult: 1
  }
  param {
    lr_mult: 2
  }
  convolution_param {
    num_output: 5
    kernel_size: 5
    stride: 1
    weight_filler {
      type: "xavier"
    }
    bias_filler {
      type: "constant"
    }
  }
}
layer {
  name: "pool0"
  type: "Pooling"
  bottom: "conv0"
  top: "pool0"
  pooling_param {
    pool: MAX
    kernel_size: 2
    stride: 2
  }
}
layer {
  name: "conv1"
  type: "Convolution"
  bottom: "pool0"
  top: "conv1"
  param {
    lr_mult: 1
  }
  param {
    lr_mult: 2
  }
  convolution_param {
    num_output: 50
    kernel_size: 5
    stride: 1
    weight_filler {
      type: "xavier"
    }
    bias_filler {
      type: "constant"
    }
  }
}
layer {
  name: "pool1"
  type: "Pooling"
  bottom: "conv1"
  top: "pool1"
  pooling_param {
    pool: MAX
    kernel_size: 2
    stride: 2
  }
}
layer {
  name: "ip1"
  type: "InnerProduct"
  bottom: "pool1"
  top: "ip1"
  param {
    lr_mult: 1
  }
  param {
    lr_mult: 2
  }
  inner_product_param {
    num_output: 10
    weight_filler {
      type: "xavier"
    }
    bias_filler {
      type: "constant"
    }
  }
}
layer {
  name: "relu1"
  type: "ReLU"
  bottom: "ip1"
  top: "ip1"
}
layer {
  name: "accuracy"
  type: "Accuracy"
  bottom: "ip1"
  bottom: "label"
  top: "accuracy"
  include {
    phase: TEST
  }
}
layer {
  name: "loss"
  type: "SoftmaxWithLoss"
  bottom: "ip1"
  bottom: "label"
  top: "loss"
}
I0428 19:52:34.925717 27543 layer_factory.hpp:77] Creating layer mnist
I0428 19:52:34.925786 27543 db_lmdb.cpp:35] Opened lmdb examples/mnist/mnist_test_lmdb
I0428 19:52:34.925802 27543 net.cpp:86] Creating Layer mnist
I0428 19:52:34.925809 27543 net.cpp:382] mnist -> data
I0428 19:52:34.925819 27543 net.cpp:382] mnist -> label
I0428 19:52:34.925925 27543 data_layer.cpp:45] output data size: 100,1,28,28
I0428 19:52:34.928583 27543 net.cpp:124] Setting up mnist
I0428 19:52:34.928624 27543 net.cpp:131] Top shape: 100 1 28 28 (78400)
I0428 19:52:34.928632 27543 net.cpp:131] Top shape: 100 (100)
I0428 19:52:34.928635 27543 net.cpp:139] Memory required for data: 314000
I0428 19:52:34.928640 27543 layer_factory.hpp:77] Creating layer label_mnist_1_split
I0428 19:52:34.928653 27543 net.cpp:86] Creating Layer label_mnist_1_split
I0428 19:52:34.928673 27543 net.cpp:408] label_mnist_1_split <- label
I0428 19:52:34.928680 27543 net.cpp:382] label_mnist_1_split -> label_mnist_1_split_0
I0428 19:52:34.928689 27543 net.cpp:382] label_mnist_1_split -> label_mnist_1_split_1
I0428 19:52:34.928782 27543 net.cpp:124] Setting up label_mnist_1_split
I0428 19:52:34.928793 27543 net.cpp:131] Top shape: 100 (100)
I0428 19:52:34.928798 27543 net.cpp:131] Top shape: 100 (100)
I0428 19:52:34.928802 27543 net.cpp:139] Memory required for data: 314800
I0428 19:52:34.928807 27543 layer_factory.hpp:77] Creating layer conv0
I0428 19:52:34.928840 27543 net.cpp:86] Creating Layer conv0
I0428 19:52:34.928845 27543 net.cpp:408] conv0 <- data
I0428 19:52:34.928853 27543 net.cpp:382] conv0 -> conv0
I0428 19:52:34.929961 27543 net.cpp:124] Setting up conv0
I0428 19:52:34.929992 27543 net.cpp:131] Top shape: 100 5 24 24 (288000)
I0428 19:52:34.929997 27543 net.cpp:139] Memory required for data: 1466800
I0428 19:52:34.930009 27543 layer_factory.hpp:77] Creating layer pool0
I0428 19:52:34.930017 27543 net.cpp:86] Creating Layer pool0
I0428 19:52:34.930022 27543 net.cpp:408] pool0 <- conv0
I0428 19:52:34.930029 27543 net.cpp:382] pool0 -> pool0
I0428 19:52:34.930073 27543 net.cpp:124] Setting up pool0
I0428 19:52:34.930081 27543 net.cpp:131] Top shape: 100 5 12 12 (72000)
I0428 19:52:34.930086 27543 net.cpp:139] Memory required for data: 1754800
I0428 19:52:34.930090 27543 layer_factory.hpp:77] Creating layer conv1
I0428 19:52:34.930101 27543 net.cpp:86] Creating Layer conv1
I0428 19:52:34.930106 27543 net.cpp:408] conv1 <- pool0
I0428 19:52:34.930114 27543 net.cpp:382] conv1 -> conv1
I0428 19:52:34.932166 27543 net.cpp:124] Setting up conv1
I0428 19:52:34.932199 27543 net.cpp:131] Top shape: 100 50 8 8 (320000)
I0428 19:52:34.932204 27543 net.cpp:139] Memory required for data: 3034800
I0428 19:52:34.932214 27543 layer_factory.hpp:77] Creating layer pool1
I0428 19:52:34.932224 27543 net.cpp:86] Creating Layer pool1
I0428 19:52:34.932255 27543 net.cpp:408] pool1 <- conv1
I0428 19:52:34.932270 27543 net.cpp:382] pool1 -> pool1
I0428 19:52:34.932327 27543 net.cpp:124] Setting up pool1
I0428 19:52:34.932340 27543 net.cpp:131] Top shape: 100 50 4 4 (80000)
I0428 19:52:34.932345 27543 net.cpp:139] Memory required for data: 3354800
I0428 19:52:34.932350 27543 layer_factory.hpp:77] Creating layer ip1
I0428 19:52:34.932359 27543 net.cpp:86] Creating Layer ip1
I0428 19:52:34.932364 27543 net.cpp:408] ip1 <- pool1
I0428 19:52:34.932371 27543 net.cpp:382] ip1 -> ip1
I0428 19:52:34.932570 27543 net.cpp:124] Setting up ip1
I0428 19:52:34.932581 27543 net.cpp:131] Top shape: 100 10 (1000)
I0428 19:52:34.932586 27543 net.cpp:139] Memory required for data: 3358800
I0428 19:52:34.932597 27543 layer_factory.hpp:77] Creating layer relu1
I0428 19:52:34.932605 27543 net.cpp:86] Creating Layer relu1
I0428 19:52:34.932624 27543 net.cpp:408] relu1 <- ip1
I0428 19:52:34.932631 27543 net.cpp:369] relu1 -> ip1 (in-place)
I0428 19:52:34.933728 27543 net.cpp:124] Setting up relu1
I0428 19:52:34.933759 27543 net.cpp:131] Top shape: 100 10 (1000)
I0428 19:52:34.933764 27543 net.cpp:139] Memory required for data: 3362800
I0428 19:52:34.933769 27543 layer_factory.hpp:77] Creating layer ip1_relu1_0_split
I0428 19:52:34.933779 27543 net.cpp:86] Creating Layer ip1_relu1_0_split
I0428 19:52:34.933784 27543 net.cpp:408] ip1_relu1_0_split <- ip1
I0428 19:52:34.933791 27543 net.cpp:382] ip1_relu1_0_split -> ip1_relu1_0_split_0
I0428 19:52:34.933800 27543 net.cpp:382] ip1_relu1_0_split -> ip1_relu1_0_split_1
I0428 19:52:34.933845 27543 net.cpp:124] Setting up ip1_relu1_0_split
I0428 19:52:34.933853 27543 net.cpp:131] Top shape: 100 10 (1000)
I0428 19:52:34.933859 27543 net.cpp:131] Top shape: 100 10 (1000)
I0428 19:52:34.933863 27543 net.cpp:139] Memory required for data: 3370800
I0428 19:52:34.933869 27543 layer_factory.hpp:77] Creating layer accuracy
I0428 19:52:34.933876 27543 net.cpp:86] Creating Layer accuracy
I0428 19:52:34.933881 27543 net.cpp:408] accuracy <- ip1_relu1_0_split_0
I0428 19:52:34.933887 27543 net.cpp:408] accuracy <- label_mnist_1_split_0
I0428 19:52:34.933893 27543 net.cpp:382] accuracy -> accuracy
…
