…
I0428 20:34:16.316000  4446 net.cpp:296] The NetState phase (0) differed from the phase (1) specified by a rule in layer mnist
I0428 20:34:16.316030  4446 net.cpp:296] The NetState phase (0) differed from the phase (1) specified by a rule in layer accuracy
I0428 20:34:16.316099  4446 net.cpp:53] Initializing net from parameters: 
name: "LeNet"
state {
  phase: TRAIN
  level: 0
  stage: ""
}
layer {
  name: "mnist"
  type: "Data"
  top: "data"
  top: "label"
  include {
    phase: TRAIN
  }
  transform_param {
    scale: 0.00390625
  }
  data_param {
    source: "examples/mnist/mnist_train_lmdb"
    batch_size: 64
    backend: LMDB
  }
}
layer {
  name: "conv0"
  type: "Convolution"
  bottom: "data"
  top: "conv0"
  param {
    lr_mult: 1
  }
  param {
    lr_mult: 2
  }
  convolution_param {
    num_output: 100
    kernel_size: 5
    stride: 1
    weight_filler {
      type: "xavier"
    }
    bias_filler {
      type: "constant"
    }
  }
}
layer {
  name: "pool0"
  type: "Pooling"
  bottom: "conv0"
  top: "pool0"
  pooling_param {
    pool: MAX
    kernel_size: 2
    stride: 2
  }
}
layer {
  name: "conv1"
  type: "Convolution"
  bottom: "pool0"
  top: "conv1"
  param {
    lr_mult: 1
  }
  param {
    lr_mult: 2
  }
  convolution_param {
    num_output: 50
    kernel_size: 5
    stride: 1
    weight_filler {
      type: "xavier"
    }
    bias_filler {
      type: "constant"
    }
  }
}
layer {
  name: "pool1"
  type: "Pooling"
  bottom: "conv1"
  top: "pool1"
  pooling_param {
    pool: MAX
    kernel_size: 2
    stride: 2
  }
}
layer {
  name: "ip1"
  type: "InnerProduct"
  bottom: "pool1"
  top: "ip1"
  param {
    lr_mult: 1
  }
  param {
    lr_mult: 2
  }
  inner_product_param {
    num_output: 10
    weight_filler {
      type: "xavier"
    }
    bias_filler {
      type: "constant"
    }
  }
}
layer {
  name: "relu1"
  type: "ReLU"
  bottom: "ip1"
  top: "ip1"
}
layer {
  name: "ip2"
  type: "InnerProduct"
  bottom: "ip1"
  top: "ip2"
  param {
    lr_mult: 1
  }
  param {
    lr_mult: 2
  }
  inner_product_param {
    num_output: 10
    weight_filler {
      type: "xavier"
    }
    bias_filler {
      type: "constant"
    }
  }
}
layer {
  name: "relu2"
  type: "ReLU"
  bottom: "ip2"
  top: "ip2"
}
layer {
  name: "loss"
  type: "SoftmaxWithLoss"
  bottom: "ip2"
  bottom: "label"
  top: "loss"
}
I0428 20:34:16.316160  4446 layer_factory.hpp:77] Creating layer mnist
I0428 20:34:16.316258  4446 db_lmdb.cpp:35] Opened lmdb examples/mnist/mnist_train_lmdb
I0428 20:34:16.316282  4446 net.cpp:86] Creating Layer mnist
I0428 20:34:16.316288  4446 net.cpp:382] mnist -> data
I0428 20:34:16.316308  4446 net.cpp:382] mnist -> label
I0428 20:34:16.317216  4446 data_layer.cpp:45] output data size: 64,1,28,28
I0428 20:34:16.319619  4446 net.cpp:124] Setting up mnist
I0428 20:34:16.319661  4446 net.cpp:131] Top shape: 64 1 28 28 (50176)
I0428 20:34:16.319670  4446 net.cpp:131] Top shape: 64 (64)
I0428 20:34:16.319689  4446 net.cpp:139] Memory required for data: 200960
I0428 20:34:16.319695  4446 layer_factory.hpp:77] Creating layer conv0
I0428 20:34:16.319711  4446 net.cpp:86] Creating Layer conv0
I0428 20:34:16.319716  4446 net.cpp:408] conv0 <- data
I0428 20:34:16.319726  4446 net.cpp:382] conv0 -> conv0
I0428 20:34:16.587113  4446 net.cpp:124] Setting up conv0
I0428 20:34:16.587149  4446 net.cpp:131] Top shape: 64 100 24 24 (3686400)
I0428 20:34:16.587155  4446 net.cpp:139] Memory required for data: 14946560
I0428 20:34:16.587198  4446 layer_factory.hpp:77] Creating layer pool0
I0428 20:34:16.587214  4446 net.cpp:86] Creating Layer pool0
I0428 20:34:16.587219  4446 net.cpp:408] pool0 <- conv0
I0428 20:34:16.587227  4446 net.cpp:382] pool0 -> pool0
I0428 20:34:16.587297  4446 net.cpp:124] Setting up pool0
I0428 20:34:16.587306  4446 net.cpp:131] Top shape: 64 100 12 12 (921600)
I0428 20:34:16.587311  4446 net.cpp:139] Memory required for data: 18632960
I0428 20:34:16.587316  4446 layer_factory.hpp:77] Creating layer conv1
I0428 20:34:16.587329  4446 net.cpp:86] Creating Layer conv1
I0428 20:34:16.587334  4446 net.cpp:408] conv1 <- pool0
I0428 20:34:16.587340  4446 net.cpp:382] conv1 -> conv1
I0428 20:34:16.591609  4446 net.cpp:124] Setting up conv1
I0428 20:34:16.591629  4446 net.cpp:131] Top shape: 64 50 8 8 (204800)
I0428 20:34:16.591634  4446 net.cpp:139] Memory required for data: 19452160
I0428 20:34:16.591645  4446 layer_factory.hpp:77] Creating layer pool1
I0428 20:34:16.591655  4446 net.cpp:86] Creating Layer pool1
I0428 20:34:16.591660  4446 net.cpp:408] pool1 <- conv1
I0428 20:34:16.591666  4446 net.cpp:382] pool1 -> pool1
I0428 20:34:16.591717  4446 net.cpp:124] Setting up pool1
I0428 20:34:16.591723  4446 net.cpp:131] Top shape: 64 50 4 4 (51200)
I0428 20:34:16.591728  4446 net.cpp:139] Memory required for data: 19656960
I0428 20:34:16.591732  4446 layer_factory.hpp:77] Creating layer ip1
I0428 20:34:16.591747  4446 net.cpp:86] Creating Layer ip1
I0428 20:34:16.591751  4446 net.cpp:408] ip1 <- pool1
I0428 20:34:16.591758  4446 net.cpp:382] ip1 -> ip1
I0428 20:34:16.592984  4446 net.cpp:124] Setting up ip1
I0428 20:34:16.593001  4446 net.cpp:131] Top shape: 64 10 (640)
I0428 20:34:16.593006  4446 net.cpp:139] Memory required for data: 19659520
I0428 20:34:16.593016  4446 layer_factory.hpp:77] Creating layer relu1
I0428 20:34:16.593026  4446 net.cpp:86] Creating Layer relu1
I0428 20:34:16.593034  4446 net.cpp:408] relu1 <- ip1
I0428 20:34:16.593039  4446 net.cpp:369] relu1 -> ip1 (in-place)
I0428 20:34:16.593268  4446 net.cpp:124] Setting up relu1
I0428 20:34:16.593281  4446 net.cpp:131] Top shape: 64 10 (640)
I0428 20:34:16.593284  4446 net.cpp:139] Memory required for data: 19662080
I0428 20:34:16.593288  4446 layer_factory.hpp:77] Creating layer ip2
I0428 20:34:16.593299  4446 net.cpp:86] Creating Layer ip2
I0428 20:34:16.593303  4446 net.cpp:408] ip2 <- ip1
I0428 20:34:16.593310  4446 net.cpp:382] ip2 -> ip2
I0428 20:34:16.593436  4446 net.cpp:124] Setting up ip2
I0428 20:34:16.593452  4446 net.cpp:131] Top shape: 64 10 (640)
I0428 20:34:16.593458  4446 net.cpp:139] Memory required for data: 19664640
I0428 20:34:16.593469  4446 layer_factory.hpp:77] Creating layer relu2
I0428 20:34:16.593478  4446 net.cpp:86] Creating Layer relu2
I0428 20:34:16.593482  4446 net.cpp:408] relu2 <- ip2
I0428 20:34:16.593487  4446 net.cpp:369] relu2 -> ip2 (in-place)
I0428 20:34:16.594390  4446 net.cpp:124] Setting up relu2
I0428 20:34:16.594406  4446 net.cpp:131] Top shape: 64 10 (640)
I0428 20:34:16.594411  4446 net.cpp:139] Memory required for data: 19667200
I0428 20:34:16.594415  4446 layer_factory.hpp:77] Creating layer loss
I0428 20:34:16.594424  4446 net.cpp:86] Creating Layer loss
I0428 20:34:16.594429  4446 net.cpp:408] loss <- ip2
I0428 20:34:16.594434  4446 net.cpp:408] loss <- label
I0428 20:34:16.594441  4446 net.cpp:382] loss -> loss
I0428 20:34:16.594471  4446 layer_factory.hpp:77] Creating layer loss
…
I0428 20:34:16.595252  4446 solver.cpp:173] Creating test net (#0) specified by net file: ECE595/mnist/train_test/var_everything2/lenet_train_test1602.prototxt
I0428 20:34:16.595284  4446 net.cpp:296] The NetState phase (1) differed from the phase (0) specified by a rule in layer mnist
I0428 20:34:16.595402  4446 net.cpp:53] Initializing net from parameters: 
name: "LeNet"
state {
  phase: TEST
}
layer {
  name: "mnist"
  type: "Data"
  top: "data"
  top: "label"
  include {
    phase: TEST
  }
  transform_param {
    scale: 0.00390625
  }
  data_param {
    source: "examples/mnist/mnist_test_lmdb"
    batch_size: 100
    backend: LMDB
  }
}
layer {
  name: "conv0"
  type: "Convolution"
  bottom: "data"
  top: "conv0"
  param {
    lr_mult: 1
  }
  param {
    lr_mult: 2
  }
  convolution_param {
    num_output: 100
    kernel_size: 5
    stride: 1
    weight_filler {
      type: "xavier"
    }
    bias_filler {
      type: "constant"
    }
  }
}
layer {
  name: "pool0"
  type: "Pooling"
  bottom: "conv0"
  top: "pool0"
  pooling_param {
    pool: MAX
    kernel_size: 2
    stride: 2
  }
}
layer {
  name: "conv1"
  type: "Convolution"
  bottom: "pool0"
  top: "conv1"
  param {
    lr_mult: 1
  }
  param {
    lr_mult: 2
  }
  convolution_param {
    num_output: 50
    kernel_size: 5
    stride: 1
    weight_filler {
      type: "xavier"
    }
    bias_filler {
      type: "constant"
    }
  }
}
layer {
  name: "pool1"
  type: "Pooling"
  bottom: "conv1"
  top: "pool1"
  pooling_param {
    pool: MAX
    kernel_size: 2
    stride: 2
  }
}
layer {
  name: "ip1"
  type: "InnerProduct"
  bottom: "pool1"
  top: "ip1"
  param {
    lr_mult: 1
  }
  param {
    lr_mult: 2
  }
  inner_product_param {
    num_output: 10
    weight_filler {
      type: "xavier"
    }
    bias_filler {
      type: "constant"
    }
  }
}
layer {
  name: "relu1"
  type: "ReLU"
  bottom: "ip1"
  top: "ip1"
}
layer {
  name: "ip2"
  type: "InnerProduct"
  bottom: "ip1"
  top: "ip2"
  param {
    lr_mult: 1
  }
  param {
    lr_mult: 2
  }
  inner_product_param {
    num_output: 10
    weight_filler {
      type: "xavier"
    }
    bias_filler {
      type: "constant"
    }
  }
}
layer {
  name: "relu2"
  type: "ReLU"
  bottom: "ip2"
  top: "ip2"
}
layer {
  name: "accuracy"
  type: "Accuracy"
  bottom: "ip2"
  bottom: "label"
  top: "accuracy"
  include {
    phase: TEST
  }
}
layer {
  name: "loss"
  type: "SoftmaxWithLoss"
  bottom: "ip2"
  bottom: "label"
  top: "loss"
}
I0428 20:34:16.595490  4446 layer_factory.hpp:77] Creating layer mnist
I0428 20:34:16.595547  4446 db_lmdb.cpp:35] Opened lmdb examples/mnist/mnist_test_lmdb
I0428 20:34:16.595564  4446 net.cpp:86] Creating Layer mnist
I0428 20:34:16.595571  4446 net.cpp:382] mnist -> data
I0428 20:34:16.595579  4446 net.cpp:382] mnist -> label
I0428 20:34:16.595691  4446 data_layer.cpp:45] output data size: 100,1,28,28
I0428 20:34:16.597230  4446 net.cpp:124] Setting up mnist
I0428 20:34:16.597247  4446 net.cpp:131] Top shape: 100 1 28 28 (78400)
I0428 20:34:16.597254  4446 net.cpp:131] Top shape: 100 (100)
I0428 20:34:16.597257  4446 net.cpp:139] Memory required for data: 314000
I0428 20:34:16.597262  4446 layer_factory.hpp:77] Creating layer label_mnist_1_split
I0428 20:34:16.597309  4446 net.cpp:86] Creating Layer label_mnist_1_split
I0428 20:34:16.597316  4446 net.cpp:408] label_mnist_1_split <- label
I0428 20:34:16.597321  4446 net.cpp:382] label_mnist_1_split -> label_mnist_1_split_0
I0428 20:34:16.597329  4446 net.cpp:382] label_mnist_1_split -> label_mnist_1_split_1
I0428 20:34:16.597404  4446 net.cpp:124] Setting up label_mnist_1_split
I0428 20:34:16.597414  4446 net.cpp:131] Top shape: 100 (100)
I0428 20:34:16.597419  4446 net.cpp:131] Top shape: 100 (100)
I0428 20:34:16.597422  4446 net.cpp:139] Memory required for data: 314800
I0428 20:34:16.597426  4446 layer_factory.hpp:77] Creating layer conv0
I0428 20:34:16.597439  4446 net.cpp:86] Creating Layer conv0
I0428 20:34:16.597443  4446 net.cpp:408] conv0 <- data
I0428 20:34:16.597451  4446 net.cpp:382] conv0 -> conv0
I0428 20:34:16.599509  4446 net.cpp:124] Setting up conv0
I0428 20:34:16.599526  4446 net.cpp:131] Top shape: 100 100 24 24 (5760000)
I0428 20:34:16.599530  4446 net.cpp:139] Memory required for data: 23354800
I0428 20:34:16.599544  4446 layer_factory.hpp:77] Creating layer pool0
I0428 20:34:16.599552  4446 net.cpp:86] Creating Layer pool0
I0428 20:34:16.599556  4446 net.cpp:408] pool0 <- conv0
I0428 20:34:16.599562  4446 net.cpp:382] pool0 -> pool0
I0428 20:34:16.599611  4446 net.cpp:124] Setting up pool0
I0428 20:34:16.599617  4446 net.cpp:131] Top shape: 100 100 12 12 (1440000)
I0428 20:34:16.599622  4446 net.cpp:139] Memory required for data: 29114800
I0428 20:34:16.599625  4446 layer_factory.hpp:77] Creating layer conv1
I0428 20:34:16.599637  4446 net.cpp:86] Creating Layer conv1
I0428 20:34:16.599640  4446 net.cpp:408] conv1 <- pool0
I0428 20:34:16.599649  4446 net.cpp:382] conv1 -> conv1
I0428 20:34:16.603364  4446 net.cpp:124] Setting up conv1
I0428 20:34:16.603382  4446 net.cpp:131] Top shape: 100 50 8 8 (320000)
I0428 20:34:16.603387  4446 net.cpp:139] Memory required for data: 30394800
I0428 20:34:16.603397  4446 layer_factory.hpp:77] Creating layer pool1
I0428 20:34:16.603407  4446 net.cpp:86] Creating Layer pool1
I0428 20:34:16.603412  4446 net.cpp:408] pool1 <- conv1
I0428 20:34:16.603420  4446 net.cpp:382] pool1 -> pool1
I0428 20:34:16.603466  4446 net.cpp:124] Setting up pool1
I0428 20:34:16.603473  4446 net.cpp:131] Top shape: 100 50 4 4 (80000)
I0428 20:34:16.603477  4446 net.cpp:139] Memory required for data: 30714800
I0428 20:34:16.603480  4446 layer_factory.hpp:77] Creating layer ip1
I0428 20:34:16.603489  4446 net.cpp:86] Creating Layer ip1
I0428 20:34:16.603492  4446 net.cpp:408] ip1 <- pool1
I0428 20:34:16.603500  4446 net.cpp:382] ip1 -> ip1
I0428 20:34:16.603677  4446 net.cpp:124] Setting up ip1
I0428 20:34:16.603688  4446 net.cpp:131] Top shape: 100 10 (1000)
I0428 20:34:16.603693  4446 net.cpp:139] Memory required for data: 30718800
I0428 20:34:16.603700  4446 layer_factory.hpp:77] Creating layer relu1
I0428 20:34:16.603706  4446 net.cpp:86] Creating Layer relu1
I0428 20:34:16.603710  4446 net.cpp:408] relu1 <- ip1
I0428 20:34:16.603715  4446 net.cpp:369] relu1 -> ip1 (in-place)
I0428 20:34:16.603919  4446 net.cpp:124] Setting up relu1
I0428 20:34:16.603929  4446 net.cpp:131] Top shape: 100 10 (1000)
I0428 20:34:16.603934  4446 net.cpp:139] Memory required for data: 30722800
I0428 20:34:16.603936  4446 layer_factory.hpp:77] Creating layer ip2
I0428 20:34:16.603945  4446 net.cpp:86] Creating Layer ip2
I0428 20:34:16.603948  4446 net.cpp:408] ip2 <- ip1
I0428 20:34:16.603955  4446 net.cpp:382] ip2 -> ip2
I0428 20:34:16.604094  4446 net.cpp:124] Setting up ip2
I0428 20:34:16.604104  4446 net.cpp:131] Top shape: 100 10 (1000)
I0428 20:34:16.604106  4446 net.cpp:139] Memory required for data: 30726800
I0428 20:34:16.604113  4446 layer_factory.hpp:77] Creating layer relu2
I0428 20:34:16.604118  4446 net.cpp:86] Creating Layer relu2
I0428 20:34:16.604122  4446 net.cpp:408] relu2 <- ip2
I0428 20:34:16.604128  4446 net.cpp:369] relu2 -> ip2 (in-place)
I0428 20:34:16.604414  4446 net.cpp:124] Setting up relu2
I0428 20:34:16.604426  4446 net.cpp:131] Top shape: 100 10 (1000)
I0428 20:34:16.604430  4446 net.cpp:139] Memory required for data: 30730800
I0428 20:34:16.604434  4446 layer_factory.hpp:77] Creating layer ip2_relu2_0_split
I0428 20:34:16.604440  4446 net.cpp:86] Creating Layer ip2_relu2_0_split
I0428 20:34:16.604445  4446 net.cpp:408] ip2_relu2_0_split <- ip2
I0428 20:34:16.604450  4446 net.cpp:382] ip2_relu2_0_split -> ip2_relu2_0_split_0
I0428 20:34:16.604471  4446 net.cpp:382] ip2_relu2_0_split -> ip2_relu2_0_split_1
I0428 20:34:16.604517  4446 net.cpp:124] Setting up ip2_relu2_0_split
I0428 20:34:16.604524  4446 net.cpp:131] Top shape: 100 10 (1000)
I0428 20:34:16.604529  4446 net.cpp:131] Top shape: 100 10 (1000)
I0428 20:34:16.604533  4446 net.cpp:139] Memory required for data: 30738800
I0428 20:34:16.604537  4446 layer_factory.hpp:77] Creating layer accuracy
I0428 20:34:16.604543  4446 net.cpp:86] Creating Layer accuracy
I0428 20:34:16.604547  4446 net.cpp:408] accuracy <- ip2_relu2_0_split_0
I0428 20:34:16.604552  4446 net.cpp:408] accuracy <- label_mnist_1_split_0
I0428 20:34:16.604557  4446 net.cpp:382] accuracy -> accuracy
…
