…
I0428 20:07:40.688019 31158 net.cpp:296] The NetState phase (0) differed from the phase (1) specified by a rule in layer mnist
I0428 20:07:40.688035 31158 net.cpp:296] The NetState phase (0) differed from the phase (1) specified by a rule in layer accuracy
I0428 20:07:40.688127 31158 net.cpp:53] Initializing net from parameters: 
name: "LeNet"
state {
  phase: TRAIN
  level: 0
  stage: ""
}
layer {
  name: "mnist"
  type: "Data"
  top: "data"
  top: "label"
  include {
    phase: TRAIN
  }
  transform_param {
    scale: 0.00390625
  }
  data_param {
    source: "examples/mnist/mnist_train_lmdb"
    batch_size: 64
    backend: LMDB
  }
}
layer {
  name: "conv0"
  type: "Convolution"
  bottom: "data"
  top: "conv0"
  param {
    lr_mult: 1
  }
  param {
    lr_mult: 2
  }
  convolution_param {
    num_output: 25
    kernel_size: 5
    stride: 1
    weight_filler {
      type: "xavier"
    }
    bias_filler {
      type: "constant"
    }
  }
}
layer {
  name: "pool0"
  type: "Pooling"
  bottom: "conv0"
  top: "pool0"
  pooling_param {
    pool: MAX
    kernel_size: 2
    stride: 2
  }
}
layer {
  name: "conv1"
  type: "Convolution"
  bottom: "pool0"
  top: "conv1"
  param {
    lr_mult: 1
  }
  param {
    lr_mult: 2
  }
  convolution_param {
    num_output: 10
    kernel_size: 5
    stride: 1
    weight_filler {
      type: "xavier"
    }
    bias_filler {
      type: "constant"
    }
  }
}
layer {
  name: "pool1"
  type: "Pooling"
  bottom: "conv1"
  top: "pool1"
  pooling_param {
    pool: MAX
    kernel_size: 2
    stride: 2
  }
}
layer {
  name: "ip1"
  type: "InnerProduct"
  bottom: "pool1"
  top: "ip1"
  param {
    lr_mult: 1
  }
  param {
    lr_mult: 2
  }
  inner_product_param {
    num_output: 50
    weight_filler {
      type: "xavier"
    }
    bias_filler {
      type: "constant"
    }
  }
}
layer {
  name: "relu1"
  type: "ReLU"
  bottom: "ip1"
  top: "ip1"
}
layer {
  name: "ip2"
  type: "InnerProduct"
  bottom: "ip1"
  top: "ip2"
  param {
    lr_mult: 1
  }
  param {
    lr_mult: 2
  }
  inner_product_param {
    num_output: 10
    weight_filler {
      type: "xavier"
    }
    bias_filler {
      type: "constant"
    }
  }
}
layer {
  name: "relu2"
  type: "ReLU"
  bottom: "ip2"
  top: "ip2"
}
layer {
  name: "loss"
  type: "SoftmaxWithLoss"
  bottom: "ip2"
  bottom: "label"
  top: "loss"
}
I0428 20:07:40.688206 31158 layer_factory.hpp:77] Creating layer mnist
I0428 20:07:40.688303 31158 db_lmdb.cpp:35] Opened lmdb examples/mnist/mnist_train_lmdb
I0428 20:07:40.688328 31158 net.cpp:86] Creating Layer mnist
I0428 20:07:40.688335 31158 net.cpp:382] mnist -> data
I0428 20:07:40.688357 31158 net.cpp:382] mnist -> label
I0428 20:07:40.689445 31158 data_layer.cpp:45] output data size: 64,1,28,28
I0428 20:07:40.692108 31158 net.cpp:124] Setting up mnist
I0428 20:07:40.692127 31158 net.cpp:131] Top shape: 64 1 28 28 (50176)
I0428 20:07:40.692136 31158 net.cpp:131] Top shape: 64 (64)
I0428 20:07:40.692138 31158 net.cpp:139] Memory required for data: 200960
I0428 20:07:40.692145 31158 layer_factory.hpp:77] Creating layer conv0
I0428 20:07:40.692162 31158 net.cpp:86] Creating Layer conv0
I0428 20:07:40.692167 31158 net.cpp:408] conv0 <- data
I0428 20:07:40.692180 31158 net.cpp:382] conv0 -> conv0
I0428 20:07:40.945670 31158 net.cpp:124] Setting up conv0
I0428 20:07:40.945713 31158 net.cpp:131] Top shape: 64 25 24 24 (921600)
I0428 20:07:40.945716 31158 net.cpp:139] Memory required for data: 3887360
I0428 20:07:40.945749 31158 layer_factory.hpp:77] Creating layer pool0
I0428 20:07:40.945778 31158 net.cpp:86] Creating Layer pool0
I0428 20:07:40.945783 31158 net.cpp:408] pool0 <- conv0
I0428 20:07:40.945788 31158 net.cpp:382] pool0 -> pool0
I0428 20:07:40.945834 31158 net.cpp:124] Setting up pool0
I0428 20:07:40.945840 31158 net.cpp:131] Top shape: 64 25 12 12 (230400)
I0428 20:07:40.945843 31158 net.cpp:139] Memory required for data: 4808960
I0428 20:07:40.945847 31158 layer_factory.hpp:77] Creating layer conv1
I0428 20:07:40.945857 31158 net.cpp:86] Creating Layer conv1
I0428 20:07:40.945859 31158 net.cpp:408] conv1 <- pool0
I0428 20:07:40.945864 31158 net.cpp:382] conv1 -> conv1
I0428 20:07:40.948709 31158 net.cpp:124] Setting up conv1
I0428 20:07:40.948738 31158 net.cpp:131] Top shape: 64 10 8 8 (40960)
I0428 20:07:40.948742 31158 net.cpp:139] Memory required for data: 4972800
I0428 20:07:40.948751 31158 layer_factory.hpp:77] Creating layer pool1
I0428 20:07:40.948760 31158 net.cpp:86] Creating Layer pool1
I0428 20:07:40.948762 31158 net.cpp:408] pool1 <- conv1
I0428 20:07:40.948767 31158 net.cpp:382] pool1 -> pool1
I0428 20:07:40.948848 31158 net.cpp:124] Setting up pool1
I0428 20:07:40.948870 31158 net.cpp:131] Top shape: 64 10 4 4 (10240)
I0428 20:07:40.948873 31158 net.cpp:139] Memory required for data: 5013760
I0428 20:07:40.948876 31158 layer_factory.hpp:77] Creating layer ip1
I0428 20:07:40.948884 31158 net.cpp:86] Creating Layer ip1
I0428 20:07:40.948887 31158 net.cpp:408] ip1 <- pool1
I0428 20:07:40.948909 31158 net.cpp:382] ip1 -> ip1
I0428 20:07:40.949080 31158 net.cpp:124] Setting up ip1
I0428 20:07:40.949089 31158 net.cpp:131] Top shape: 64 50 (3200)
I0428 20:07:40.949091 31158 net.cpp:139] Memory required for data: 5026560
I0428 20:07:40.949107 31158 layer_factory.hpp:77] Creating layer relu1
I0428 20:07:40.949115 31158 net.cpp:86] Creating Layer relu1
I0428 20:07:40.949118 31158 net.cpp:408] relu1 <- ip1
I0428 20:07:40.949123 31158 net.cpp:369] relu1 -> ip1 (in-place)
I0428 20:07:40.949362 31158 net.cpp:124] Setting up relu1
I0428 20:07:40.949371 31158 net.cpp:131] Top shape: 64 50 (3200)
I0428 20:07:40.949374 31158 net.cpp:139] Memory required for data: 5039360
I0428 20:07:40.949378 31158 layer_factory.hpp:77] Creating layer ip2
I0428 20:07:40.949384 31158 net.cpp:86] Creating Layer ip2
I0428 20:07:40.949388 31158 net.cpp:408] ip2 <- ip1
I0428 20:07:40.949393 31158 net.cpp:382] ip2 -> ip2
I0428 20:07:40.949491 31158 net.cpp:124] Setting up ip2
I0428 20:07:40.949498 31158 net.cpp:131] Top shape: 64 10 (640)
I0428 20:07:40.949501 31158 net.cpp:139] Memory required for data: 5041920
I0428 20:07:40.949506 31158 layer_factory.hpp:77] Creating layer relu2
I0428 20:07:40.949512 31158 net.cpp:86] Creating Layer relu2
I0428 20:07:40.949515 31158 net.cpp:408] relu2 <- ip2
I0428 20:07:40.949519 31158 net.cpp:369] relu2 -> ip2 (in-place)
I0428 20:07:40.950268 31158 net.cpp:124] Setting up relu2
I0428 20:07:40.950280 31158 net.cpp:131] Top shape: 64 10 (640)
I0428 20:07:40.950299 31158 net.cpp:139] Memory required for data: 5044480
I0428 20:07:40.950302 31158 layer_factory.hpp:77] Creating layer loss
I0428 20:07:40.950309 31158 net.cpp:86] Creating Layer loss
I0428 20:07:40.950311 31158 net.cpp:408] loss <- ip2
I0428 20:07:40.950316 31158 net.cpp:408] loss <- label
I0428 20:07:40.950321 31158 net.cpp:382] loss -> loss
I0428 20:07:40.950340 31158 layer_factory.hpp:77] Creating layer loss
…
I0428 20:07:40.950965 31158 solver.cpp:173] Creating test net (#0) specified by net file: ECE595/mnist/train_test/var_everything2/lenet_train_test1062.prototxt
I0428 20:07:40.950989 31158 net.cpp:296] The NetState phase (1) differed from the phase (0) specified by a rule in layer mnist
I0428 20:07:40.951072 31158 net.cpp:53] Initializing net from parameters: 
name: "LeNet"
state {
  phase: TEST
}
layer {
  name: "mnist"
  type: "Data"
  top: "data"
  top: "label"
  include {
    phase: TEST
  }
  transform_param {
    scale: 0.00390625
  }
  data_param {
    source: "examples/mnist/mnist_test_lmdb"
    batch_size: 100
    backend: LMDB
  }
}
layer {
  name: "conv0"
  type: "Convolution"
  bottom: "data"
  top: "conv0"
  param {
    lr_mult: 1
  }
  param {
    lr_mult: 2
  }
  convolution_param {
    num_output: 25
    kernel_size: 5
    stride: 1
    weight_filler {
      type: "xavier"
    }
    bias_filler {
      type: "constant"
    }
  }
}
layer {
  name: "pool0"
  type: "Pooling"
  bottom: "conv0"
  top: "pool0"
  pooling_param {
    pool: MAX
    kernel_size: 2
    stride: 2
  }
}
layer {
  name: "conv1"
  type: "Convolution"
  bottom: "pool0"
  top: "conv1"
  param {
    lr_mult: 1
  }
  param {
    lr_mult: 2
  }
  convolution_param {
    num_output: 10
    kernel_size: 5
    stride: 1
    weight_filler {
      type: "xavier"
    }
    bias_filler {
      type: "constant"
    }
  }
}
layer {
  name: "pool1"
  type: "Pooling"
  bottom: "conv1"
  top: "pool1"
  pooling_param {
    pool: MAX
    kernel_size: 2
    stride: 2
  }
}
layer {
  name: "ip1"
  type: "InnerProduct"
  bottom: "pool1"
  top: "ip1"
  param {
    lr_mult: 1
  }
  param {
    lr_mult: 2
  }
  inner_product_param {
    num_output: 50
    weight_filler {
      type: "xavier"
    }
    bias_filler {
      type: "constant"
    }
  }
}
layer {
  name: "relu1"
  type: "ReLU"
  bottom: "ip1"
  top: "ip1"
}
layer {
  name: "ip2"
  type: "InnerProduct"
  bottom: "ip1"
  top: "ip2"
  param {
    lr_mult: 1
  }
  param {
    lr_mult: 2
  }
  inner_product_param {
    num_output: 10
    weight_filler {
      type: "xavier"
    }
    bias_filler {
      type: "constant"
    }
  }
}
layer {
  name: "relu2"
  type: "ReLU"
  bottom: "ip2"
  top: "ip2"
}
layer {
  name: "accuracy"
  type: "Accuracy"
  bottom: "ip2"
  bottom: "label"
  top: "accuracy"
  include {
    phase: TEST
  }
}
layer {
  name: "loss"
  type: "SoftmaxWithLoss"
  bottom: "ip2"
  bottom: "label"
  top: "loss"
}
I0428 20:07:40.951150 31158 layer_factory.hpp:77] Creating layer mnist
I0428 20:07:40.951192 31158 db_lmdb.cpp:35] Opened lmdb examples/mnist/mnist_test_lmdb
I0428 20:07:40.951206 31158 net.cpp:86] Creating Layer mnist
I0428 20:07:40.951211 31158 net.cpp:382] mnist -> data
I0428 20:07:40.951218 31158 net.cpp:382] mnist -> label
I0428 20:07:40.951316 31158 data_layer.cpp:45] output data size: 100,1,28,28
I0428 20:07:40.953327 31158 net.cpp:124] Setting up mnist
I0428 20:07:40.953356 31158 net.cpp:131] Top shape: 100 1 28 28 (78400)
I0428 20:07:40.953362 31158 net.cpp:131] Top shape: 100 (100)
I0428 20:07:40.953366 31158 net.cpp:139] Memory required for data: 314000
I0428 20:07:40.953368 31158 layer_factory.hpp:77] Creating layer label_mnist_1_split
I0428 20:07:40.953413 31158 net.cpp:86] Creating Layer label_mnist_1_split
I0428 20:07:40.953418 31158 net.cpp:408] label_mnist_1_split <- label
I0428 20:07:40.953421 31158 net.cpp:382] label_mnist_1_split -> label_mnist_1_split_0
I0428 20:07:40.953428 31158 net.cpp:382] label_mnist_1_split -> label_mnist_1_split_1
I0428 20:07:40.953486 31158 net.cpp:124] Setting up label_mnist_1_split
I0428 20:07:40.953492 31158 net.cpp:131] Top shape: 100 (100)
I0428 20:07:40.953495 31158 net.cpp:131] Top shape: 100 (100)
I0428 20:07:40.953498 31158 net.cpp:139] Memory required for data: 314800
I0428 20:07:40.953501 31158 layer_factory.hpp:77] Creating layer conv0
I0428 20:07:40.953510 31158 net.cpp:86] Creating Layer conv0
I0428 20:07:40.953513 31158 net.cpp:408] conv0 <- data
I0428 20:07:40.953521 31158 net.cpp:382] conv0 -> conv0
I0428 20:07:40.955308 31158 net.cpp:124] Setting up conv0
I0428 20:07:40.955322 31158 net.cpp:131] Top shape: 100 25 24 24 (1440000)
I0428 20:07:40.955325 31158 net.cpp:139] Memory required for data: 6074800
I0428 20:07:40.955333 31158 layer_factory.hpp:77] Creating layer pool0
I0428 20:07:40.955356 31158 net.cpp:86] Creating Layer pool0
I0428 20:07:40.955359 31158 net.cpp:408] pool0 <- conv0
I0428 20:07:40.955364 31158 net.cpp:382] pool0 -> pool0
I0428 20:07:40.955399 31158 net.cpp:124] Setting up pool0
I0428 20:07:40.955405 31158 net.cpp:131] Top shape: 100 25 12 12 (360000)
I0428 20:07:40.955407 31158 net.cpp:139] Memory required for data: 7514800
I0428 20:07:40.955410 31158 layer_factory.hpp:77] Creating layer conv1
I0428 20:07:40.955420 31158 net.cpp:86] Creating Layer conv1
I0428 20:07:40.955422 31158 net.cpp:408] conv1 <- pool0
I0428 20:07:40.955428 31158 net.cpp:382] conv1 -> conv1
I0428 20:07:40.957608 31158 net.cpp:124] Setting up conv1
I0428 20:07:40.957623 31158 net.cpp:131] Top shape: 100 10 8 8 (64000)
I0428 20:07:40.957626 31158 net.cpp:139] Memory required for data: 7770800
I0428 20:07:40.957634 31158 layer_factory.hpp:77] Creating layer pool1
I0428 20:07:40.957643 31158 net.cpp:86] Creating Layer pool1
I0428 20:07:40.957660 31158 net.cpp:408] pool1 <- conv1
I0428 20:07:40.957674 31158 net.cpp:382] pool1 -> pool1
I0428 20:07:40.957727 31158 net.cpp:124] Setting up pool1
I0428 20:07:40.957733 31158 net.cpp:131] Top shape: 100 10 4 4 (16000)
I0428 20:07:40.957741 31158 net.cpp:139] Memory required for data: 7834800
I0428 20:07:40.957744 31158 layer_factory.hpp:77] Creating layer ip1
I0428 20:07:40.957751 31158 net.cpp:86] Creating Layer ip1
I0428 20:07:40.957753 31158 net.cpp:408] ip1 <- pool1
I0428 20:07:40.957758 31158 net.cpp:382] ip1 -> ip1
I0428 20:07:40.957901 31158 net.cpp:124] Setting up ip1
I0428 20:07:40.957924 31158 net.cpp:131] Top shape: 100 50 (5000)
I0428 20:07:40.957927 31158 net.cpp:139] Memory required for data: 7854800
I0428 20:07:40.957950 31158 layer_factory.hpp:77] Creating layer relu1
I0428 20:07:40.957957 31158 net.cpp:86] Creating Layer relu1
I0428 20:07:40.957960 31158 net.cpp:408] relu1 <- ip1
I0428 20:07:40.957972 31158 net.cpp:369] relu1 -> ip1 (in-place)
I0428 20:07:40.958211 31158 net.cpp:124] Setting up relu1
I0428 20:07:40.958220 31158 net.cpp:131] Top shape: 100 50 (5000)
I0428 20:07:40.958225 31158 net.cpp:139] Memory required for data: 7874800
I0428 20:07:40.958227 31158 layer_factory.hpp:77] Creating layer ip2
I0428 20:07:40.958235 31158 net.cpp:86] Creating Layer ip2
I0428 20:07:40.958238 31158 net.cpp:408] ip2 <- ip1
I0428 20:07:40.958259 31158 net.cpp:382] ip2 -> ip2
I0428 20:07:40.958394 31158 net.cpp:124] Setting up ip2
I0428 20:07:40.958417 31158 net.cpp:131] Top shape: 100 10 (1000)
I0428 20:07:40.958420 31158 net.cpp:139] Memory required for data: 7878800
I0428 20:07:40.958426 31158 layer_factory.hpp:77] Creating layer relu2
I0428 20:07:40.958431 31158 net.cpp:86] Creating Layer relu2
I0428 20:07:40.958434 31158 net.cpp:408] relu2 <- ip2
I0428 20:07:40.958438 31158 net.cpp:369] relu2 -> ip2 (in-place)
I0428 20:07:40.958606 31158 net.cpp:124] Setting up relu2
I0428 20:07:40.958616 31158 net.cpp:131] Top shape: 100 10 (1000)
I0428 20:07:40.958619 31158 net.cpp:139] Memory required for data: 7882800
I0428 20:07:40.958622 31158 layer_factory.hpp:77] Creating layer ip2_relu2_0_split
I0428 20:07:40.958626 31158 net.cpp:86] Creating Layer ip2_relu2_0_split
I0428 20:07:40.958629 31158 net.cpp:408] ip2_relu2_0_split <- ip2
I0428 20:07:40.958640 31158 net.cpp:382] ip2_relu2_0_split -> ip2_relu2_0_split_0
I0428 20:07:40.958658 31158 net.cpp:382] ip2_relu2_0_split -> ip2_relu2_0_split_1
I0428 20:07:40.958696 31158 net.cpp:124] Setting up ip2_relu2_0_split
I0428 20:07:40.958701 31158 net.cpp:131] Top shape: 100 10 (1000)
I0428 20:07:40.958705 31158 net.cpp:131] Top shape: 100 10 (1000)
I0428 20:07:40.958709 31158 net.cpp:139] Memory required for data: 7890800
I0428 20:07:40.958717 31158 layer_factory.hpp:77] Creating layer accuracy
I0428 20:07:40.958724 31158 net.cpp:86] Creating Layer accuracy
I0428 20:07:40.958726 31158 net.cpp:408] accuracy <- ip2_relu2_0_split_0
I0428 20:07:40.958736 31158 net.cpp:408] accuracy <- label_mnist_1_split_0
I0428 20:07:40.958740 31158 net.cpp:382] accuracy -> accuracy
…
