…
I0428 19:52:05.900476 27433 net.cpp:296] The NetState phase (0) differed from the phase (1) specified by a rule in layer mnist
I0428 19:52:05.900506 27433 net.cpp:296] The NetState phase (0) differed from the phase (1) specified by a rule in layer accuracy
I0428 19:52:05.900584 27433 net.cpp:53] Initializing net from parameters: 
name: "LeNet"
state {
  phase: TRAIN
  level: 0
  stage: ""
}
layer {
  name: "mnist"
  type: "Data"
  top: "data"
  top: "label"
  include {
    phase: TRAIN
  }
  transform_param {
    scale: 0.00390625
  }
  data_param {
    source: "examples/mnist/mnist_train_lmdb"
    batch_size: 64
    backend: LMDB
  }
}
layer {
  name: "conv0"
  type: "Convolution"
  bottom: "data"
  top: "conv0"
  param {
    lr_mult: 1
  }
  param {
    lr_mult: 2
  }
  convolution_param {
    num_output: 5
    kernel_size: 5
    stride: 1
    weight_filler {
      type: "xavier"
    }
    bias_filler {
      type: "constant"
    }
  }
}
layer {
  name: "pool0"
  type: "Pooling"
  bottom: "conv0"
  top: "pool0"
  pooling_param {
    pool: MAX
    kernel_size: 2
    stride: 2
  }
}
layer {
  name: "conv1"
  type: "Convolution"
  bottom: "pool0"
  top: "conv1"
  param {
    lr_mult: 1
  }
  param {
    lr_mult: 2
  }
  convolution_param {
    num_output: 25
    kernel_size: 5
    stride: 1
    weight_filler {
      type: "xavier"
    }
    bias_filler {
      type: "constant"
    }
  }
}
layer {
  name: "pool1"
  type: "Pooling"
  bottom: "conv1"
  top: "pool1"
  pooling_param {
    pool: MAX
    kernel_size: 2
    stride: 2
  }
}
layer {
  name: "ip1"
  type: "InnerProduct"
  bottom: "pool1"
  top: "ip1"
  param {
    lr_mult: 1
  }
  param {
    lr_mult: 2
  }
  inner_product_param {
    num_output: 25
    weight_filler {
      type: "xavier"
    }
    bias_filler {
      type: "constant"
    }
  }
}
layer {
  name: "relu1"
  type: "ReLU"
  bottom: "ip1"
  top: "ip1"
}
layer {
  name: "ip2"
  type: "InnerProduct"
  bottom: "ip1"
  top: "ip2"
  param {
    lr_mult: 1
  }
  param {
    lr_mult: 2
  }
  inner_product_param {
    num_output: 50
    weight_filler {
      type: "xavier"
    }
    bias_filler {
      type: "constant"
    }
  }
}
layer {
  name: "relu2"
  type: "ReLU"
  bottom: "ip2"
  top: "ip2"
}
layer {
  name: "ip3"
  type: "InnerProduct"
  bottom: "ip2"
  top: "ip3"
  param {
    lr_mult: 1
  }
  param {
    lr_mult: 2
  }
  inner_product_param {
    num_output: 10
    weight_filler {
      type: "xavier"
    }
    bias_filler {
      type: "constant"
    }
  }
}
layer {
  name: "relu3"
  type: "ReLU"
  bottom: "ip3"
  top: "ip3"
}
layer {
  name: "loss"
  type: "SoftmaxWithLoss"
  bottom: "ip3"
  bottom: "label"
  top: "loss"
}
I0428 19:52:05.900647 27433 layer_factory.hpp:77] Creating layer mnist
I0428 19:52:05.900724 27433 db_lmdb.cpp:35] Opened lmdb examples/mnist/mnist_train_lmdb
I0428 19:52:05.900743 27433 net.cpp:86] Creating Layer mnist
I0428 19:52:05.900751 27433 net.cpp:382] mnist -> data
I0428 19:52:05.900770 27433 net.cpp:382] mnist -> label
I0428 19:52:05.901777 27433 data_layer.cpp:45] output data size: 64,1,28,28
I0428 19:52:05.903933 27433 net.cpp:124] Setting up mnist
I0428 19:52:05.903973 27433 net.cpp:131] Top shape: 64 1 28 28 (50176)
I0428 19:52:05.903980 27433 net.cpp:131] Top shape: 64 (64)
I0428 19:52:05.903981 27433 net.cpp:139] Memory required for data: 200960
I0428 19:52:05.903987 27433 layer_factory.hpp:77] Creating layer conv0
I0428 19:52:05.904001 27433 net.cpp:86] Creating Layer conv0
I0428 19:52:05.904019 27433 net.cpp:408] conv0 <- data
I0428 19:52:05.904031 27433 net.cpp:382] conv0 -> conv0
I0428 19:52:06.134989 27433 net.cpp:124] Setting up conv0
I0428 19:52:06.135030 27433 net.cpp:131] Top shape: 64 5 24 24 (184320)
I0428 19:52:06.135035 27433 net.cpp:139] Memory required for data: 938240
I0428 19:52:06.135048 27433 layer_factory.hpp:77] Creating layer pool0
I0428 19:52:06.135061 27433 net.cpp:86] Creating Layer pool0
I0428 19:52:06.135066 27433 net.cpp:408] pool0 <- conv0
I0428 19:52:06.135071 27433 net.cpp:382] pool0 -> pool0
I0428 19:52:06.135133 27433 net.cpp:124] Setting up pool0
I0428 19:52:06.135149 27433 net.cpp:131] Top shape: 64 5 12 12 (46080)
I0428 19:52:06.135151 27433 net.cpp:139] Memory required for data: 1122560
I0428 19:52:06.135154 27433 layer_factory.hpp:77] Creating layer conv1
I0428 19:52:06.135164 27433 net.cpp:86] Creating Layer conv1
I0428 19:52:06.135169 27433 net.cpp:408] conv1 <- pool0
I0428 19:52:06.135172 27433 net.cpp:382] conv1 -> conv1
I0428 19:52:06.138111 27433 net.cpp:124] Setting up conv1
I0428 19:52:06.138128 27433 net.cpp:131] Top shape: 64 25 8 8 (102400)
I0428 19:52:06.138131 27433 net.cpp:139] Memory required for data: 1532160
I0428 19:52:06.138154 27433 layer_factory.hpp:77] Creating layer pool1
I0428 19:52:06.138161 27433 net.cpp:86] Creating Layer pool1
I0428 19:52:06.138165 27433 net.cpp:408] pool1 <- conv1
I0428 19:52:06.138171 27433 net.cpp:382] pool1 -> pool1
I0428 19:52:06.138211 27433 net.cpp:124] Setting up pool1
I0428 19:52:06.138218 27433 net.cpp:131] Top shape: 64 25 4 4 (25600)
I0428 19:52:06.138221 27433 net.cpp:139] Memory required for data: 1634560
I0428 19:52:06.138224 27433 layer_factory.hpp:77] Creating layer ip1
I0428 19:52:06.138231 27433 net.cpp:86] Creating Layer ip1
I0428 19:52:06.138234 27433 net.cpp:408] ip1 <- pool1
I0428 19:52:06.138239 27433 net.cpp:382] ip1 -> ip1
I0428 19:52:06.139269 27433 net.cpp:124] Setting up ip1
I0428 19:52:06.139283 27433 net.cpp:131] Top shape: 64 25 (1600)
I0428 19:52:06.139286 27433 net.cpp:139] Memory required for data: 1640960
I0428 19:52:06.139295 27433 layer_factory.hpp:77] Creating layer relu1
I0428 19:52:06.139302 27433 net.cpp:86] Creating Layer relu1
I0428 19:52:06.139305 27433 net.cpp:408] relu1 <- ip1
I0428 19:52:06.139310 27433 net.cpp:369] relu1 -> ip1 (in-place)
I0428 19:52:06.139489 27433 net.cpp:124] Setting up relu1
I0428 19:52:06.139498 27433 net.cpp:131] Top shape: 64 25 (1600)
I0428 19:52:06.139503 27433 net.cpp:139] Memory required for data: 1647360
I0428 19:52:06.139505 27433 layer_factory.hpp:77] Creating layer ip2
I0428 19:52:06.139515 27433 net.cpp:86] Creating Layer ip2
I0428 19:52:06.139518 27433 net.cpp:408] ip2 <- ip1
I0428 19:52:06.139524 27433 net.cpp:382] ip2 -> ip2
I0428 19:52:06.139637 27433 net.cpp:124] Setting up ip2
I0428 19:52:06.139644 27433 net.cpp:131] Top shape: 64 50 (3200)
I0428 19:52:06.139647 27433 net.cpp:139] Memory required for data: 1660160
I0428 19:52:06.139652 27433 layer_factory.hpp:77] Creating layer relu2
I0428 19:52:06.139659 27433 net.cpp:86] Creating Layer relu2
I0428 19:52:06.139662 27433 net.cpp:408] relu2 <- ip2
I0428 19:52:06.139667 27433 net.cpp:369] relu2 -> ip2 (in-place)
I0428 19:52:06.140431 27433 net.cpp:124] Setting up relu2
I0428 19:52:06.140444 27433 net.cpp:131] Top shape: 64 50 (3200)
I0428 19:52:06.140463 27433 net.cpp:139] Memory required for data: 1672960
I0428 19:52:06.140467 27433 layer_factory.hpp:77] Creating layer ip3
I0428 19:52:06.140476 27433 net.cpp:86] Creating Layer ip3
I0428 19:52:06.140480 27433 net.cpp:408] ip3 <- ip2
I0428 19:52:06.140485 27433 net.cpp:382] ip3 -> ip3
I0428 19:52:06.140595 27433 net.cpp:124] Setting up ip3
I0428 19:52:06.140604 27433 net.cpp:131] Top shape: 64 10 (640)
I0428 19:52:06.140606 27433 net.cpp:139] Memory required for data: 1675520
I0428 19:52:06.140614 27433 layer_factory.hpp:77] Creating layer relu3
I0428 19:52:06.140620 27433 net.cpp:86] Creating Layer relu3
I0428 19:52:06.140624 27433 net.cpp:408] relu3 <- ip3
I0428 19:52:06.140627 27433 net.cpp:369] relu3 -> ip3 (in-place)
I0428 19:52:06.140830 27433 net.cpp:124] Setting up relu3
I0428 19:52:06.140841 27433 net.cpp:131] Top shape: 64 10 (640)
I0428 19:52:06.140844 27433 net.cpp:139] Memory required for data: 1678080
I0428 19:52:06.140847 27433 layer_factory.hpp:77] Creating layer loss
I0428 19:52:06.140854 27433 net.cpp:86] Creating Layer loss
I0428 19:52:06.140858 27433 net.cpp:408] loss <- ip3
I0428 19:52:06.140862 27433 net.cpp:408] loss <- label
I0428 19:52:06.140867 27433 net.cpp:382] loss -> loss
I0428 19:52:06.140885 27433 layer_factory.hpp:77] Creating layer loss
…
I0428 19:52:06.141597 27433 solver.cpp:173] Creating test net (#0) specified by net file: ECE595/mnist/train_test/var_everything2/lenet_train_test652.prototxt
I0428 19:52:06.141639 27433 net.cpp:296] The NetState phase (1) differed from the phase (0) specified by a rule in layer mnist
I0428 19:52:06.141744 27433 net.cpp:53] Initializing net from parameters: 
name: "LeNet"
state {
  phase: TEST
}
layer {
  name: "mnist"
  type: "Data"
  top: "data"
  top: "label"
  include {
    phase: TEST
  }
  transform_param {
    scale: 0.00390625
  }
  data_param {
    source: "examples/mnist/mnist_test_lmdb"
    batch_size: 100
    backend: LMDB
  }
}
layer {
  name: "conv0"
  type: "Convolution"
  bottom: "data"
  top: "conv0"
  param {
    lr_mult: 1
  }
  param {
    lr_mult: 2
  }
  convolution_param {
    num_output: 5
    kernel_size: 5
    stride: 1
    weight_filler {
      type: "xavier"
    }
    bias_filler {
      type: "constant"
    }
  }
}
layer {
  name: "pool0"
  type: "Pooling"
  bottom: "conv0"
  top: "pool0"
  pooling_param {
    pool: MAX
    kernel_size: 2
    stride: 2
  }
}
layer {
  name: "conv1"
  type: "Convolution"
  bottom: "pool0"
  top: "conv1"
  param {
    lr_mult: 1
  }
  param {
    lr_mult: 2
  }
  convolution_param {
    num_output: 25
    kernel_size: 5
    stride: 1
    weight_filler {
      type: "xavier"
    }
    bias_filler {
      type: "constant"
    }
  }
}
layer {
  name: "pool1"
  type: "Pooling"
  bottom: "conv1"
  top: "pool1"
  pooling_param {
    pool: MAX
    kernel_size: 2
    stride: 2
  }
}
layer {
  name: "ip1"
  type: "InnerProduct"
  bottom: "pool1"
  top: "ip1"
  param {
    lr_mult: 1
  }
  param {
    lr_mult: 2
  }
  inner_product_param {
    num_output: 25
    weight_filler {
      type: "xavier"
    }
    bias_filler {
      type: "constant"
    }
  }
}
layer {
  name: "relu1"
  type: "ReLU"
  bottom: "ip1"
  top: "ip1"
}
layer {
  name: "ip2"
  type: "InnerProduct"
  bottom: "ip1"
  top: "ip2"
  param {
    lr_mult: 1
  }
  param {
    lr_mult: 2
  }
  inner_product_param {
    num_output: 50
    weight_filler {
      type: "xavier"
    }
    bias_filler {
      type: "constant"
    }
  }
}
layer {
  name: "relu2"
  type: "ReLU"
  bottom: "ip2"
  top: "ip2"
}
layer {
  name: "ip3"
  type: "InnerProduct"
  bottom: "ip2"
  top: "ip3"
  param {
    lr_mult: 1
  }
  param {
    lr_mult: 2
  }
  inner_product_param {
    num_output: 10
    weight_filler {
      type: "xavier"
    }
    bias_filler {
      type: "constant"
    }
  }
}
layer {
  name: "relu3"
  type: "ReLU"
  bottom: "ip3"
  top: "ip3"
}
layer {
  name: "accuracy"
  type: "Accuracy"
  bottom: "ip3"
  bottom: "label"
  top: "accuracy"
  include {
    phase: TEST
  }
}
layer {
  name: "loss"
  type: "SoftmaxWithLoss"
  bottom: "ip3"
  bottom: "label"
  top: "loss"
}
I0428 19:52:06.141827 27433 layer_factory.hpp:77] Creating layer mnist
I0428 19:52:06.141870 27433 db_lmdb.cpp:35] Opened lmdb examples/mnist/mnist_test_lmdb
I0428 19:52:06.141882 27433 net.cpp:86] Creating Layer mnist
I0428 19:52:06.141888 27433 net.cpp:382] mnist -> data
I0428 19:52:06.141896 27433 net.cpp:382] mnist -> label
I0428 19:52:06.141983 27433 data_layer.cpp:45] output data size: 100,1,28,28
I0428 19:52:06.144147 27433 net.cpp:124] Setting up mnist
I0428 19:52:06.144174 27433 net.cpp:131] Top shape: 100 1 28 28 (78400)
I0428 19:52:06.144196 27433 net.cpp:131] Top shape: 100 (100)
I0428 19:52:06.144198 27433 net.cpp:139] Memory required for data: 314000
I0428 19:52:06.144202 27433 layer_factory.hpp:77] Creating layer label_mnist_1_split
I0428 19:52:06.144215 27433 net.cpp:86] Creating Layer label_mnist_1_split
I0428 19:52:06.144219 27433 net.cpp:408] label_mnist_1_split <- label
I0428 19:52:06.144235 27433 net.cpp:382] label_mnist_1_split -> label_mnist_1_split_0
I0428 19:52:06.144243 27433 net.cpp:382] label_mnist_1_split -> label_mnist_1_split_1
I0428 19:52:06.144348 27433 net.cpp:124] Setting up label_mnist_1_split
I0428 19:52:06.144357 27433 net.cpp:131] Top shape: 100 (100)
I0428 19:52:06.144361 27433 net.cpp:131] Top shape: 100 (100)
I0428 19:52:06.144364 27433 net.cpp:139] Memory required for data: 314800
I0428 19:52:06.144367 27433 layer_factory.hpp:77] Creating layer conv0
I0428 19:52:06.144378 27433 net.cpp:86] Creating Layer conv0
I0428 19:52:06.144381 27433 net.cpp:408] conv0 <- data
I0428 19:52:06.144387 27433 net.cpp:382] conv0 -> conv0
I0428 19:52:06.146157 27433 net.cpp:124] Setting up conv0
I0428 19:52:06.146188 27433 net.cpp:131] Top shape: 100 5 24 24 (288000)
I0428 19:52:06.146193 27433 net.cpp:139] Memory required for data: 1466800
I0428 19:52:06.146201 27433 layer_factory.hpp:77] Creating layer pool0
I0428 19:52:06.146208 27433 net.cpp:86] Creating Layer pool0
I0428 19:52:06.146210 27433 net.cpp:408] pool0 <- conv0
I0428 19:52:06.146215 27433 net.cpp:382] pool0 -> pool0
I0428 19:52:06.146251 27433 net.cpp:124] Setting up pool0
I0428 19:52:06.146257 27433 net.cpp:131] Top shape: 100 5 12 12 (72000)
I0428 19:52:06.146260 27433 net.cpp:139] Memory required for data: 1754800
I0428 19:52:06.146262 27433 layer_factory.hpp:77] Creating layer conv1
I0428 19:52:06.146271 27433 net.cpp:86] Creating Layer conv1
I0428 19:52:06.146275 27433 net.cpp:408] conv1 <- pool0
I0428 19:52:06.146280 27433 net.cpp:382] conv1 -> conv1
I0428 19:52:06.148319 27433 net.cpp:124] Setting up conv1
I0428 19:52:06.148349 27433 net.cpp:131] Top shape: 100 25 8 8 (160000)
I0428 19:52:06.148352 27433 net.cpp:139] Memory required for data: 2394800
I0428 19:52:06.148360 27433 layer_factory.hpp:77] Creating layer pool1
I0428 19:52:06.148367 27433 net.cpp:86] Creating Layer pool1
I0428 19:52:06.148370 27433 net.cpp:408] pool1 <- conv1
I0428 19:52:06.148375 27433 net.cpp:382] pool1 -> pool1
I0428 19:52:06.148439 27433 net.cpp:124] Setting up pool1
I0428 19:52:06.148444 27433 net.cpp:131] Top shape: 100 25 4 4 (40000)
I0428 19:52:06.148447 27433 net.cpp:139] Memory required for data: 2554800
I0428 19:52:06.148450 27433 layer_factory.hpp:77] Creating layer ip1
I0428 19:52:06.148457 27433 net.cpp:86] Creating Layer ip1
I0428 19:52:06.148459 27433 net.cpp:408] ip1 <- pool1
I0428 19:52:06.148475 27433 net.cpp:382] ip1 -> ip1
I0428 19:52:06.148639 27433 net.cpp:124] Setting up ip1
I0428 19:52:06.148648 27433 net.cpp:131] Top shape: 100 25 (2500)
I0428 19:52:06.148660 27433 net.cpp:139] Memory required for data: 2564800
I0428 19:52:06.148668 27433 layer_factory.hpp:77] Creating layer relu1
I0428 19:52:06.148674 27433 net.cpp:86] Creating Layer relu1
I0428 19:52:06.148677 27433 net.cpp:408] relu1 <- ip1
I0428 19:52:06.148681 27433 net.cpp:369] relu1 -> ip1 (in-place)
I0428 19:52:06.148910 27433 net.cpp:124] Setting up relu1
I0428 19:52:06.148921 27433 net.cpp:131] Top shape: 100 25 (2500)
I0428 19:52:06.148924 27433 net.cpp:139] Memory required for data: 2574800
I0428 19:52:06.148928 27433 layer_factory.hpp:77] Creating layer ip2
I0428 19:52:06.148941 27433 net.cpp:86] Creating Layer ip2
I0428 19:52:06.148946 27433 net.cpp:408] ip2 <- ip1
I0428 19:52:06.148950 27433 net.cpp:382] ip2 -> ip2
I0428 19:52:06.149063 27433 net.cpp:124] Setting up ip2
I0428 19:52:06.149071 27433 net.cpp:131] Top shape: 100 50 (5000)
I0428 19:52:06.149075 27433 net.cpp:139] Memory required for data: 2594800
I0428 19:52:06.149080 27433 layer_factory.hpp:77] Creating layer relu2
I0428 19:52:06.149085 27433 net.cpp:86] Creating Layer relu2
I0428 19:52:06.149088 27433 net.cpp:408] relu2 <- ip2
I0428 19:52:06.149094 27433 net.cpp:369] relu2 -> ip2 (in-place)
I0428 19:52:06.149276 27433 net.cpp:124] Setting up relu2
I0428 19:52:06.149284 27433 net.cpp:131] Top shape: 100 50 (5000)
I0428 19:52:06.149287 27433 net.cpp:139] Memory required for data: 2614800
I0428 19:52:06.149291 27433 layer_factory.hpp:77] Creating layer ip3
I0428 19:52:06.149296 27433 net.cpp:86] Creating Layer ip3
I0428 19:52:06.149300 27433 net.cpp:408] ip3 <- ip2
I0428 19:52:06.149307 27433 net.cpp:382] ip3 -> ip3
I0428 19:52:06.149415 27433 net.cpp:124] Setting up ip3
I0428 19:52:06.149423 27433 net.cpp:131] Top shape: 100 10 (1000)
I0428 19:52:06.149426 27433 net.cpp:139] Memory required for data: 2618800
I0428 19:52:06.149433 27433 layer_factory.hpp:77] Creating layer relu3
I0428 19:52:06.149438 27433 net.cpp:86] Creating Layer relu3
I0428 19:52:06.149442 27433 net.cpp:408] relu3 <- ip3
I0428 19:52:06.149446 27433 net.cpp:369] relu3 -> ip3 (in-place)
I0428 19:52:06.150259 27433 net.cpp:124] Setting up relu3
I0428 19:52:06.150285 27433 net.cpp:131] Top shape: 100 10 (1000)
I0428 19:52:06.150290 27433 net.cpp:139] Memory required for data: 2622800
I0428 19:52:06.150292 27433 layer_factory.hpp:77] Creating layer ip3_relu3_0_split
I0428 19:52:06.150300 27433 net.cpp:86] Creating Layer ip3_relu3_0_split
I0428 19:52:06.150305 27433 net.cpp:408] ip3_relu3_0_split <- ip3
I0428 19:52:06.150310 27433 net.cpp:382] ip3_relu3_0_split -> ip3_relu3_0_split_0
I0428 19:52:06.150316 27433 net.cpp:382] ip3_relu3_0_split -> ip3_relu3_0_split_1
I0428 19:52:06.150368 27433 net.cpp:124] Setting up ip3_relu3_0_split
I0428 19:52:06.150374 27433 net.cpp:131] Top shape: 100 10 (1000)
I0428 19:52:06.150378 27433 net.cpp:131] Top shape: 100 10 (1000)
I0428 19:52:06.150382 27433 net.cpp:139] Memory required for data: 2630800
I0428 19:52:06.150384 27433 layer_factory.hpp:77] Creating layer accuracy
I0428 19:52:06.150391 27433 net.cpp:86] Creating Layer accuracy
I0428 19:52:06.150399 27433 net.cpp:408] accuracy <- ip3_relu3_0_split_0
I0428 19:52:06.150403 27433 net.cpp:408] accuracy <- label_mnist_1_split_0
I0428 19:52:06.150408 27433 net.cpp:382] accuracy -> accuracy
…
