…
I0428 20:00:59.971496 29626 net.cpp:296] The NetState phase (0) differed from the phase (1) specified by a rule in layer mnist
I0428 20:00:59.971521 29626 net.cpp:296] The NetState phase (0) differed from the phase (1) specified by a rule in layer accuracy
I0428 20:00:59.971616 29626 net.cpp:53] Initializing net from parameters: 
name: "LeNet"
state {
  phase: TRAIN
  level: 0
  stage: ""
}
layer {
  name: "mnist"
  type: "Data"
  top: "data"
  top: "label"
  include {
    phase: TRAIN
  }
  transform_param {
    scale: 0.00390625
  }
  data_param {
    source: "examples/mnist/mnist_train_lmdb"
    batch_size: 64
    backend: LMDB
  }
}
layer {
  name: "conv0"
  type: "Convolution"
  bottom: "data"
  top: "conv0"
  param {
    lr_mult: 1
  }
  param {
    lr_mult: 2
  }
  convolution_param {
    num_output: 10
    kernel_size: 5
    stride: 1
    weight_filler {
      type: "xavier"
    }
    bias_filler {
      type: "constant"
    }
  }
}
layer {
  name: "pool0"
  type: "Pooling"
  bottom: "conv0"
  top: "pool0"
  pooling_param {
    pool: MAX
    kernel_size: 2
    stride: 2
  }
}
layer {
  name: "conv1"
  type: "Convolution"
  bottom: "pool0"
  top: "conv1"
  param {
    lr_mult: 1
  }
  param {
    lr_mult: 2
  }
  convolution_param {
    num_output: 25
    kernel_size: 5
    stride: 1
    weight_filler {
      type: "xavier"
    }
    bias_filler {
      type: "constant"
    }
  }
}
layer {
  name: "pool1"
  type: "Pooling"
  bottom: "conv1"
  top: "pool1"
  pooling_param {
    pool: MAX
    kernel_size: 2
    stride: 2
  }
}
layer {
  name: "ip1"
  type: "InnerProduct"
  bottom: "pool1"
  top: "ip1"
  param {
    lr_mult: 1
  }
  param {
    lr_mult: 2
  }
  inner_product_param {
    num_output: 50
    weight_filler {
      type: "xavier"
    }
    bias_filler {
      type: "constant"
    }
  }
}
layer {
  name: "relu1"
  type: "ReLU"
  bottom: "ip1"
  top: "ip1"
}
layer {
  name: "ip2"
  type: "InnerProduct"
  bottom: "ip1"
  top: "ip2"
  param {
    lr_mult: 1
  }
  param {
    lr_mult: 2
  }
  inner_product_param {
    num_output: 25
    weight_filler {
      type: "xavier"
    }
    bias_filler {
      type: "constant"
    }
  }
}
layer {
  name: "relu2"
  type: "ReLU"
  bottom: "ip2"
  top: "ip2"
}
layer {
  name: "ip3"
  type: "InnerProduct"
  bottom: "ip2"
  top: "ip3"
  param {
    lr_mult: 1
  }
  param {
    lr_mult: 2
  }
  inner_product_param {
    num_output: 10
    weight_filler {
      type: "xavier"
    }
    bias_filler {
      type: "constant"
    }
  }
}
layer {
  name: "relu3"
  type: "ReLU"
  bottom: "ip3"
  top: "ip3"
}
layer {
  name: "loss"
  type: "SoftmaxWithLoss"
  bottom: "ip3"
  bottom: "label"
  top: "loss"
}
I0428 20:00:59.971678 29626 layer_factory.hpp:77] Creating layer mnist
I0428 20:00:59.971777 29626 db_lmdb.cpp:35] Opened lmdb examples/mnist/mnist_train_lmdb
I0428 20:00:59.971813 29626 net.cpp:86] Creating Layer mnist
I0428 20:00:59.971822 29626 net.cpp:382] mnist -> data
I0428 20:00:59.971858 29626 net.cpp:382] mnist -> label
I0428 20:00:59.972956 29626 data_layer.cpp:45] output data size: 64,1,28,28
I0428 20:00:59.975208 29626 net.cpp:124] Setting up mnist
I0428 20:00:59.975236 29626 net.cpp:131] Top shape: 64 1 28 28 (50176)
I0428 20:00:59.975244 29626 net.cpp:131] Top shape: 64 (64)
I0428 20:00:59.975246 29626 net.cpp:139] Memory required for data: 200960
I0428 20:00:59.975252 29626 layer_factory.hpp:77] Creating layer conv0
I0428 20:00:59.975265 29626 net.cpp:86] Creating Layer conv0
I0428 20:00:59.975286 29626 net.cpp:408] conv0 <- data
I0428 20:00:59.975296 29626 net.cpp:382] conv0 -> conv0
I0428 20:01:00.202977 29626 net.cpp:124] Setting up conv0
I0428 20:01:00.203003 29626 net.cpp:131] Top shape: 64 10 24 24 (368640)
I0428 20:01:00.203006 29626 net.cpp:139] Memory required for data: 1675520
I0428 20:01:00.203022 29626 layer_factory.hpp:77] Creating layer pool0
I0428 20:01:00.203049 29626 net.cpp:86] Creating Layer pool0
I0428 20:01:00.203053 29626 net.cpp:408] pool0 <- conv0
I0428 20:01:00.203058 29626 net.cpp:382] pool0 -> pool0
I0428 20:01:00.203133 29626 net.cpp:124] Setting up pool0
I0428 20:01:00.203141 29626 net.cpp:131] Top shape: 64 10 12 12 (92160)
I0428 20:01:00.203145 29626 net.cpp:139] Memory required for data: 2044160
I0428 20:01:00.203147 29626 layer_factory.hpp:77] Creating layer conv1
I0428 20:01:00.203158 29626 net.cpp:86] Creating Layer conv1
I0428 20:01:00.203163 29626 net.cpp:408] conv1 <- pool0
I0428 20:01:00.203184 29626 net.cpp:382] conv1 -> conv1
I0428 20:01:00.205974 29626 net.cpp:124] Setting up conv1
I0428 20:01:00.205988 29626 net.cpp:131] Top shape: 64 25 8 8 (102400)
I0428 20:01:00.206008 29626 net.cpp:139] Memory required for data: 2453760
I0428 20:01:00.206017 29626 layer_factory.hpp:77] Creating layer pool1
I0428 20:01:00.206023 29626 net.cpp:86] Creating Layer pool1
I0428 20:01:00.206027 29626 net.cpp:408] pool1 <- conv1
I0428 20:01:00.206032 29626 net.cpp:382] pool1 -> pool1
I0428 20:01:00.206084 29626 net.cpp:124] Setting up pool1
I0428 20:01:00.206090 29626 net.cpp:131] Top shape: 64 25 4 4 (25600)
I0428 20:01:00.206094 29626 net.cpp:139] Memory required for data: 2556160
I0428 20:01:00.206096 29626 layer_factory.hpp:77] Creating layer ip1
I0428 20:01:00.206104 29626 net.cpp:86] Creating Layer ip1
I0428 20:01:00.206123 29626 net.cpp:408] ip1 <- pool1
I0428 20:01:00.206128 29626 net.cpp:382] ip1 -> ip1
I0428 20:01:00.206348 29626 net.cpp:124] Setting up ip1
I0428 20:01:00.206356 29626 net.cpp:131] Top shape: 64 50 (3200)
I0428 20:01:00.206358 29626 net.cpp:139] Memory required for data: 2568960
I0428 20:01:00.206365 29626 layer_factory.hpp:77] Creating layer relu1
I0428 20:01:00.206370 29626 net.cpp:86] Creating Layer relu1
I0428 20:01:00.206374 29626 net.cpp:408] relu1 <- ip1
I0428 20:01:00.206378 29626 net.cpp:369] relu1 -> ip1 (in-place)
I0428 20:01:00.206557 29626 net.cpp:124] Setting up relu1
I0428 20:01:00.206565 29626 net.cpp:131] Top shape: 64 50 (3200)
I0428 20:01:00.206568 29626 net.cpp:139] Memory required for data: 2581760
I0428 20:01:00.206570 29626 layer_factory.hpp:77] Creating layer ip2
I0428 20:01:00.206576 29626 net.cpp:86] Creating Layer ip2
I0428 20:01:00.206579 29626 net.cpp:408] ip2 <- ip1
I0428 20:01:00.206583 29626 net.cpp:382] ip2 -> ip2
I0428 20:01:00.207569 29626 net.cpp:124] Setting up ip2
I0428 20:01:00.207581 29626 net.cpp:131] Top shape: 64 25 (1600)
I0428 20:01:00.207599 29626 net.cpp:139] Memory required for data: 2588160
I0428 20:01:00.207605 29626 layer_factory.hpp:77] Creating layer relu2
I0428 20:01:00.207612 29626 net.cpp:86] Creating Layer relu2
I0428 20:01:00.207615 29626 net.cpp:408] relu2 <- ip2
I0428 20:01:00.207619 29626 net.cpp:369] relu2 -> ip2 (in-place)
I0428 20:01:00.208447 29626 net.cpp:124] Setting up relu2
I0428 20:01:00.208461 29626 net.cpp:131] Top shape: 64 25 (1600)
I0428 20:01:00.208464 29626 net.cpp:139] Memory required for data: 2594560
I0428 20:01:00.208468 29626 layer_factory.hpp:77] Creating layer ip3
I0428 20:01:00.208475 29626 net.cpp:86] Creating Layer ip3
I0428 20:01:00.208479 29626 net.cpp:408] ip3 <- ip2
I0428 20:01:00.208484 29626 net.cpp:382] ip3 -> ip3
I0428 20:01:00.208591 29626 net.cpp:124] Setting up ip3
I0428 20:01:00.208600 29626 net.cpp:131] Top shape: 64 10 (640)
I0428 20:01:00.208602 29626 net.cpp:139] Memory required for data: 2597120
I0428 20:01:00.208611 29626 layer_factory.hpp:77] Creating layer relu3
I0428 20:01:00.208617 29626 net.cpp:86] Creating Layer relu3
I0428 20:01:00.208621 29626 net.cpp:408] relu3 <- ip3
I0428 20:01:00.208626 29626 net.cpp:369] relu3 -> ip3 (in-place)
I0428 20:01:00.208873 29626 net.cpp:124] Setting up relu3
I0428 20:01:00.208883 29626 net.cpp:131] Top shape: 64 10 (640)
I0428 20:01:00.208885 29626 net.cpp:139] Memory required for data: 2599680
I0428 20:01:00.208889 29626 layer_factory.hpp:77] Creating layer loss
I0428 20:01:00.208894 29626 net.cpp:86] Creating Layer loss
I0428 20:01:00.208897 29626 net.cpp:408] loss <- ip3
I0428 20:01:00.208901 29626 net.cpp:408] loss <- label
I0428 20:01:00.208909 29626 net.cpp:382] loss -> loss
I0428 20:01:00.208925 29626 layer_factory.hpp:77] Creating layer loss
…
I0428 20:01:00.209677 29626 solver.cpp:173] Creating test net (#0) specified by net file: ECE595/mnist/train_test/var_everything2/lenet_train_test891.prototxt
I0428 20:01:00.209725 29626 net.cpp:296] The NetState phase (1) differed from the phase (0) specified by a rule in layer mnist
I0428 20:01:00.209812 29626 net.cpp:53] Initializing net from parameters: 
name: "LeNet"
state {
  phase: TEST
}
layer {
  name: "mnist"
  type: "Data"
  top: "data"
  top: "label"
  include {
    phase: TEST
  }
  transform_param {
    scale: 0.00390625
  }
  data_param {
    source: "examples/mnist/mnist_test_lmdb"
    batch_size: 100
    backend: LMDB
  }
}
layer {
  name: "conv0"
  type: "Convolution"
  bottom: "data"
  top: "conv0"
  param {
    lr_mult: 1
  }
  param {
    lr_mult: 2
  }
  convolution_param {
    num_output: 10
    kernel_size: 5
    stride: 1
    weight_filler {
      type: "xavier"
    }
    bias_filler {
      type: "constant"
    }
  }
}
layer {
  name: "pool0"
  type: "Pooling"
  bottom: "conv0"
  top: "pool0"
  pooling_param {
    pool: MAX
    kernel_size: 2
    stride: 2
  }
}
layer {
  name: "conv1"
  type: "Convolution"
  bottom: "pool0"
  top: "conv1"
  param {
    lr_mult: 1
  }
  param {
    lr_mult: 2
  }
  convolution_param {
    num_output: 25
    kernel_size: 5
    stride: 1
    weight_filler {
      type: "xavier"
    }
    bias_filler {
      type: "constant"
    }
  }
}
layer {
  name: "pool1"
  type: "Pooling"
  bottom: "conv1"
  top: "pool1"
  pooling_param {
    pool: MAX
    kernel_size: 2
    stride: 2
  }
}
layer {
  name: "ip1"
  type: "InnerProduct"
  bottom: "pool1"
  top: "ip1"
  param {
    lr_mult: 1
  }
  param {
    lr_mult: 2
  }
  inner_product_param {
    num_output: 50
    weight_filler {
      type: "xavier"
    }
    bias_filler {
      type: "constant"
    }
  }
}
layer {
  name: "relu1"
  type: "ReLU"
  bottom: "ip1"
  top: "ip1"
}
layer {
  name: "ip2"
  type: "InnerProduct"
  bottom: "ip1"
  top: "ip2"
  param {
    lr_mult: 1
  }
  param {
    lr_mult: 2
  }
  inner_product_param {
    num_output: 25
    weight_filler {
      type: "xavier"
    }
    bias_filler {
      type: "constant"
    }
  }
}
layer {
  name: "relu2"
  type: "ReLU"
  bottom: "ip2"
  top: "ip2"
}
layer {
  name: "ip3"
  type: "InnerProduct"
  bottom: "ip2"
  top: "ip3"
  param {
    lr_mult: 1
  }
  param {
    lr_mult: 2
  }
  inner_product_param {
    num_output: 10
    weight_filler {
      type: "xavier"
    }
    bias_filler {
      type: "constant"
    }
  }
}
layer {
  name: "relu3"
  type: "ReLU"
  bottom: "ip3"
  top: "ip3"
}
layer {
  name: "accuracy"
  type: "Accuracy"
  bottom: "ip3"
  bottom: "label"
  top: "accuracy"
  include {
    phase: TEST
  }
}
layer {
  name: "loss"
  type: "SoftmaxWithLoss"
  bottom: "ip3"
  bottom: "label"
  top: "loss"
}
I0428 20:01:00.209889 29626 layer_factory.hpp:77] Creating layer mnist
I0428 20:01:00.209931 29626 db_lmdb.cpp:35] Opened lmdb examples/mnist/mnist_test_lmdb
I0428 20:01:00.209949 29626 net.cpp:86] Creating Layer mnist
I0428 20:01:00.209954 29626 net.cpp:382] mnist -> data
I0428 20:01:00.209962 29626 net.cpp:382] mnist -> label
I0428 20:01:00.210055 29626 data_layer.cpp:45] output data size: 100,1,28,28
I0428 20:01:00.212061 29626 net.cpp:124] Setting up mnist
I0428 20:01:00.212106 29626 net.cpp:131] Top shape: 100 1 28 28 (78400)
I0428 20:01:00.212111 29626 net.cpp:131] Top shape: 100 (100)
I0428 20:01:00.212128 29626 net.cpp:139] Memory required for data: 314000
I0428 20:01:00.212132 29626 layer_factory.hpp:77] Creating layer label_mnist_1_split
I0428 20:01:00.212152 29626 net.cpp:86] Creating Layer label_mnist_1_split
I0428 20:01:00.212155 29626 net.cpp:408] label_mnist_1_split <- label
I0428 20:01:00.212160 29626 net.cpp:382] label_mnist_1_split -> label_mnist_1_split_0
I0428 20:01:00.212167 29626 net.cpp:382] label_mnist_1_split -> label_mnist_1_split_1
I0428 20:01:00.212270 29626 net.cpp:124] Setting up label_mnist_1_split
I0428 20:01:00.212277 29626 net.cpp:131] Top shape: 100 (100)
I0428 20:01:00.212281 29626 net.cpp:131] Top shape: 100 (100)
I0428 20:01:00.212285 29626 net.cpp:139] Memory required for data: 314800
I0428 20:01:00.212287 29626 layer_factory.hpp:77] Creating layer conv0
I0428 20:01:00.212296 29626 net.cpp:86] Creating Layer conv0
I0428 20:01:00.212301 29626 net.cpp:408] conv0 <- data
I0428 20:01:00.212306 29626 net.cpp:382] conv0 -> conv0
I0428 20:01:00.213994 29626 net.cpp:124] Setting up conv0
I0428 20:01:00.214022 29626 net.cpp:131] Top shape: 100 10 24 24 (576000)
I0428 20:01:00.214026 29626 net.cpp:139] Memory required for data: 2618800
I0428 20:01:00.214035 29626 layer_factory.hpp:77] Creating layer pool0
I0428 20:01:00.214040 29626 net.cpp:86] Creating Layer pool0
I0428 20:01:00.214045 29626 net.cpp:408] pool0 <- conv0
I0428 20:01:00.214064 29626 net.cpp:382] pool0 -> pool0
I0428 20:01:00.214114 29626 net.cpp:124] Setting up pool0
I0428 20:01:00.214121 29626 net.cpp:131] Top shape: 100 10 12 12 (144000)
I0428 20:01:00.214124 29626 net.cpp:139] Memory required for data: 3194800
I0428 20:01:00.214126 29626 layer_factory.hpp:77] Creating layer conv1
I0428 20:01:00.214135 29626 net.cpp:86] Creating Layer conv1
I0428 20:01:00.214138 29626 net.cpp:408] conv1 <- pool0
I0428 20:01:00.214143 29626 net.cpp:382] conv1 -> conv1
I0428 20:01:00.216228 29626 net.cpp:124] Setting up conv1
I0428 20:01:00.216255 29626 net.cpp:131] Top shape: 100 25 8 8 (160000)
I0428 20:01:00.216274 29626 net.cpp:139] Memory required for data: 3834800
I0428 20:01:00.216285 29626 layer_factory.hpp:77] Creating layer pool1
I0428 20:01:00.216291 29626 net.cpp:86] Creating Layer pool1
I0428 20:01:00.216295 29626 net.cpp:408] pool1 <- conv1
I0428 20:01:00.216300 29626 net.cpp:382] pool1 -> pool1
I0428 20:01:00.216356 29626 net.cpp:124] Setting up pool1
I0428 20:01:00.216363 29626 net.cpp:131] Top shape: 100 25 4 4 (40000)
I0428 20:01:00.216367 29626 net.cpp:139] Memory required for data: 3994800
I0428 20:01:00.216369 29626 layer_factory.hpp:77] Creating layer ip1
I0428 20:01:00.216390 29626 net.cpp:86] Creating Layer ip1
I0428 20:01:00.216397 29626 net.cpp:408] ip1 <- pool1
I0428 20:01:00.216418 29626 net.cpp:382] ip1 -> ip1
I0428 20:01:00.216702 29626 net.cpp:124] Setting up ip1
I0428 20:01:00.216711 29626 net.cpp:131] Top shape: 100 50 (5000)
I0428 20:01:00.216725 29626 net.cpp:139] Memory required for data: 4014800
I0428 20:01:00.216733 29626 layer_factory.hpp:77] Creating layer relu1
I0428 20:01:00.216740 29626 net.cpp:86] Creating Layer relu1
I0428 20:01:00.216747 29626 net.cpp:408] relu1 <- ip1
I0428 20:01:00.216751 29626 net.cpp:369] relu1 -> ip1 (in-place)
I0428 20:01:00.216961 29626 net.cpp:124] Setting up relu1
I0428 20:01:00.216972 29626 net.cpp:131] Top shape: 100 50 (5000)
I0428 20:01:00.216975 29626 net.cpp:139] Memory required for data: 4034800
I0428 20:01:00.216979 29626 layer_factory.hpp:77] Creating layer ip2
I0428 20:01:00.216989 29626 net.cpp:86] Creating Layer ip2
I0428 20:01:00.216992 29626 net.cpp:408] ip2 <- ip1
I0428 20:01:00.217000 29626 net.cpp:382] ip2 -> ip2
I0428 20:01:00.217162 29626 net.cpp:124] Setting up ip2
I0428 20:01:00.217175 29626 net.cpp:131] Top shape: 100 25 (2500)
I0428 20:01:00.217177 29626 net.cpp:139] Memory required for data: 4044800
I0428 20:01:00.217183 29626 layer_factory.hpp:77] Creating layer relu2
I0428 20:01:00.217190 29626 net.cpp:86] Creating Layer relu2
I0428 20:01:00.217195 29626 net.cpp:408] relu2 <- ip2
I0428 20:01:00.217214 29626 net.cpp:369] relu2 -> ip2 (in-place)
I0428 20:01:00.217375 29626 net.cpp:124] Setting up relu2
I0428 20:01:00.217383 29626 net.cpp:131] Top shape: 100 25 (2500)
I0428 20:01:00.217386 29626 net.cpp:139] Memory required for data: 4054800
I0428 20:01:00.217391 29626 layer_factory.hpp:77] Creating layer ip3
I0428 20:01:00.217397 29626 net.cpp:86] Creating Layer ip3
I0428 20:01:00.217401 29626 net.cpp:408] ip3 <- ip2
I0428 20:01:00.217406 29626 net.cpp:382] ip3 -> ip3
I0428 20:01:00.217520 29626 net.cpp:124] Setting up ip3
I0428 20:01:00.217527 29626 net.cpp:131] Top shape: 100 10 (1000)
I0428 20:01:00.217530 29626 net.cpp:139] Memory required for data: 4058800
I0428 20:01:00.217537 29626 layer_factory.hpp:77] Creating layer relu3
I0428 20:01:00.217545 29626 net.cpp:86] Creating Layer relu3
I0428 20:01:00.217548 29626 net.cpp:408] relu3 <- ip3
I0428 20:01:00.217552 29626 net.cpp:369] relu3 -> ip3 (in-place)
I0428 20:01:00.218448 29626 net.cpp:124] Setting up relu3
I0428 20:01:00.218472 29626 net.cpp:131] Top shape: 100 10 (1000)
I0428 20:01:00.218475 29626 net.cpp:139] Memory required for data: 4062800
I0428 20:01:00.218478 29626 layer_factory.hpp:77] Creating layer ip3_relu3_0_split
I0428 20:01:00.218483 29626 net.cpp:86] Creating Layer ip3_relu3_0_split
I0428 20:01:00.218487 29626 net.cpp:408] ip3_relu3_0_split <- ip3
I0428 20:01:00.218492 29626 net.cpp:382] ip3_relu3_0_split -> ip3_relu3_0_split_0
I0428 20:01:00.218498 29626 net.cpp:382] ip3_relu3_0_split -> ip3_relu3_0_split_1
I0428 20:01:00.218554 29626 net.cpp:124] Setting up ip3_relu3_0_split
I0428 20:01:00.218560 29626 net.cpp:131] Top shape: 100 10 (1000)
I0428 20:01:00.218564 29626 net.cpp:131] Top shape: 100 10 (1000)
I0428 20:01:00.218566 29626 net.cpp:139] Memory required for data: 4070800
I0428 20:01:00.218569 29626 layer_factory.hpp:77] Creating layer accuracy
I0428 20:01:00.218575 29626 net.cpp:86] Creating Layer accuracy
I0428 20:01:00.218578 29626 net.cpp:408] accuracy <- ip3_relu3_0_split_0
I0428 20:01:00.218582 29626 net.cpp:408] accuracy <- label_mnist_1_split_0
I0428 20:01:00.218586 29626 net.cpp:382] accuracy -> accuracy
…
