…
I0428 19:30:05.044024 22193 net.cpp:296] The NetState phase (0) differed from the phase (1) specified by a rule in layer mnist
I0428 19:30:05.044042 22193 net.cpp:296] The NetState phase (0) differed from the phase (1) specified by a rule in layer accuracy
I0428 19:30:05.044124 22193 net.cpp:53] Initializing net from parameters: 
name: "LeNet"
state {
  phase: TRAIN
  level: 0
  stage: ""
}
layer {
  name: "mnist"
  type: "Data"
  top: "data"
  top: "label"
  include {
    phase: TRAIN
  }
  transform_param {
    scale: 0.00390625
  }
  data_param {
    source: "examples/mnist/mnist_train_lmdb"
    batch_size: 64
    backend: LMDB
  }
}
layer {
  name: "conv0"
  type: "Convolution"
  bottom: "data"
  top: "conv0"
  param {
    lr_mult: 1
  }
  param {
    lr_mult: 2
  }
  convolution_param {
    num_output: 5
    kernel_size: 5
    stride: 1
    weight_filler {
      type: "xavier"
    }
    bias_filler {
      type: "constant"
    }
  }
}
layer {
  name: "pool0"
  type: "Pooling"
  bottom: "conv0"
  top: "pool0"
  pooling_param {
    pool: MAX
    kernel_size: 2
    stride: 2
  }
}
layer {
  name: "ip1"
  type: "InnerProduct"
  bottom: "pool0"
  top: "ip1"
  param {
    lr_mult: 1
  }
  param {
    lr_mult: 2
  }
  inner_product_param {
    num_output: 10
    weight_filler {
      type: "xavier"
    }
    bias_filler {
      type: "constant"
    }
  }
}
layer {
  name: "relu1"
  type: "ReLU"
  bottom: "ip1"
  top: "ip1"
}
layer {
  name: "loss"
  type: "SoftmaxWithLoss"
  bottom: "ip1"
  bottom: "label"
  top: "loss"
}
I0428 19:30:05.044209 22193 layer_factory.hpp:77] Creating layer mnist
I0428 19:30:05.044344 22193 db_lmdb.cpp:35] Opened lmdb examples/mnist/mnist_train_lmdb
I0428 19:30:05.044378 22193 net.cpp:86] Creating Layer mnist
I0428 19:30:05.044389 22193 net.cpp:382] mnist -> data
I0428 19:30:05.044422 22193 net.cpp:382] mnist -> label
I0428 19:30:05.045568 22193 data_layer.cpp:45] output data size: 64,1,28,28
I0428 19:30:05.048034 22193 net.cpp:124] Setting up mnist
I0428 19:30:05.048054 22193 net.cpp:131] Top shape: 64 1 28 28 (50176)
I0428 19:30:05.048066 22193 net.cpp:131] Top shape: 64 (64)
I0428 19:30:05.048072 22193 net.cpp:139] Memory required for data: 200960
I0428 19:30:05.048084 22193 layer_factory.hpp:77] Creating layer conv0
I0428 19:30:05.048106 22193 net.cpp:86] Creating Layer conv0
I0428 19:30:05.048117 22193 net.cpp:408] conv0 <- data
I0428 19:30:05.048138 22193 net.cpp:382] conv0 -> conv0
I0428 19:30:05.338992 22193 net.cpp:124] Setting up conv0
I0428 19:30:05.339027 22193 net.cpp:131] Top shape: 64 5 24 24 (184320)
I0428 19:30:05.339033 22193 net.cpp:139] Memory required for data: 938240
I0428 19:30:05.339057 22193 layer_factory.hpp:77] Creating layer pool0
I0428 19:30:05.339076 22193 net.cpp:86] Creating Layer pool0
I0428 19:30:05.339090 22193 net.cpp:408] pool0 <- conv0
I0428 19:30:05.339100 22193 net.cpp:382] pool0 -> pool0
I0428 19:30:05.339164 22193 net.cpp:124] Setting up pool0
I0428 19:30:05.339174 22193 net.cpp:131] Top shape: 64 5 12 12 (46080)
I0428 19:30:05.339180 22193 net.cpp:139] Memory required for data: 1122560
I0428 19:30:05.339186 22193 layer_factory.hpp:77] Creating layer ip1
I0428 19:30:05.339200 22193 net.cpp:86] Creating Layer ip1
I0428 19:30:05.339210 22193 net.cpp:408] ip1 <- pool0
I0428 19:30:05.339220 22193 net.cpp:382] ip1 -> ip1
I0428 19:30:05.340291 22193 net.cpp:124] Setting up ip1
I0428 19:30:05.340307 22193 net.cpp:131] Top shape: 64 10 (640)
I0428 19:30:05.340338 22193 net.cpp:139] Memory required for data: 1125120
I0428 19:30:05.340354 22193 layer_factory.hpp:77] Creating layer relu1
I0428 19:30:05.340368 22193 net.cpp:86] Creating Layer relu1
I0428 19:30:05.340375 22193 net.cpp:408] relu1 <- ip1
I0428 19:30:05.340384 22193 net.cpp:369] relu1 -> ip1 (in-place)
I0428 19:30:05.340575 22193 net.cpp:124] Setting up relu1
I0428 19:30:05.340586 22193 net.cpp:131] Top shape: 64 10 (640)
I0428 19:30:05.340592 22193 net.cpp:139] Memory required for data: 1127680
I0428 19:30:05.340598 22193 layer_factory.hpp:77] Creating layer loss
I0428 19:30:05.340608 22193 net.cpp:86] Creating Layer loss
I0428 19:30:05.340615 22193 net.cpp:408] loss <- ip1
I0428 19:30:05.340621 22193 net.cpp:408] loss <- label
I0428 19:30:05.340631 22193 net.cpp:382] loss -> loss
I0428 19:30:05.340652 22193 layer_factory.hpp:77] Creating layer loss
…
I0428 19:30:05.341883 22193 solver.cpp:173] Creating test net (#0) specified by net file: ECE595/mnist/train_test/var_everything2/lenet_train_test79.prototxt
I0428 19:30:05.341915 22193 net.cpp:296] The NetState phase (1) differed from the phase (0) specified by a rule in layer mnist
I0428 19:30:05.341991 22193 net.cpp:53] Initializing net from parameters: 
name: "LeNet"
state {
  phase: TEST
}
layer {
  name: "mnist"
  type: "Data"
  top: "data"
  top: "label"
  include {
    phase: TEST
  }
  transform_param {
    scale: 0.00390625
  }
  data_param {
    source: "examples/mnist/mnist_test_lmdb"
    batch_size: 100
    backend: LMDB
  }
}
layer {
  name: "conv0"
  type: "Convolution"
  bottom: "data"
  top: "conv0"
  param {
    lr_mult: 1
  }
  param {
    lr_mult: 2
  }
  convolution_param {
    num_output: 5
    kernel_size: 5
    stride: 1
    weight_filler {
      type: "xavier"
    }
    bias_filler {
      type: "constant"
    }
  }
}
layer {
  name: "pool0"
  type: "Pooling"
  bottom: "conv0"
  top: "pool0"
  pooling_param {
    pool: MAX
    kernel_size: 2
    stride: 2
  }
}
layer {
  name: "ip1"
  type: "InnerProduct"
  bottom: "pool0"
  top: "ip1"
  param {
    lr_mult: 1
  }
  param {
    lr_mult: 2
  }
  inner_product_param {
    num_output: 10
    weight_filler {
      type: "xavier"
    }
    bias_filler {
      type: "constant"
    }
  }
}
layer {
  name: "relu1"
  type: "ReLU"
  bottom: "ip1"
  top: "ip1"
}
layer {
  name: "accuracy"
  type: "Accuracy"
  bottom: "ip1"
  bottom: "label"
  top: "accuracy"
  include {
    phase: TEST
  }
}
layer {
  name: "loss"
  type: "SoftmaxWithLoss"
  bottom: "ip1"
  bottom: "label"
  top: "loss"
}
I0428 19:30:05.342078 22193 layer_factory.hpp:77] Creating layer mnist
I0428 19:30:05.342145 22193 db_lmdb.cpp:35] Opened lmdb examples/mnist/mnist_test_lmdb
I0428 19:30:05.342164 22193 net.cpp:86] Creating Layer mnist
I0428 19:30:05.342172 22193 net.cpp:382] mnist -> data
I0428 19:30:05.342185 22193 net.cpp:382] mnist -> label
I0428 19:30:05.342317 22193 data_layer.cpp:45] output data size: 100,1,28,28
I0428 19:30:05.344377 22193 net.cpp:124] Setting up mnist
I0428 19:30:05.344394 22193 net.cpp:131] Top shape: 100 1 28 28 (78400)
I0428 19:30:05.344403 22193 net.cpp:131] Top shape: 100 (100)
I0428 19:30:05.344409 22193 net.cpp:139] Memory required for data: 314000
I0428 19:30:05.344429 22193 layer_factory.hpp:77] Creating layer label_mnist_1_split
I0428 19:30:05.344439 22193 net.cpp:86] Creating Layer label_mnist_1_split
I0428 19:30:05.344446 22193 net.cpp:408] label_mnist_1_split <- label
I0428 19:30:05.344455 22193 net.cpp:382] label_mnist_1_split -> label_mnist_1_split_0
I0428 19:30:05.344467 22193 net.cpp:382] label_mnist_1_split -> label_mnist_1_split_1
I0428 19:30:05.344558 22193 net.cpp:124] Setting up label_mnist_1_split
I0428 19:30:05.344568 22193 net.cpp:131] Top shape: 100 (100)
I0428 19:30:05.344575 22193 net.cpp:131] Top shape: 100 (100)
I0428 19:30:05.344580 22193 net.cpp:139] Memory required for data: 314800
I0428 19:30:05.344586 22193 layer_factory.hpp:77] Creating layer conv0
I0428 19:30:05.344602 22193 net.cpp:86] Creating Layer conv0
I0428 19:30:05.344609 22193 net.cpp:408] conv0 <- data
I0428 19:30:05.344619 22193 net.cpp:382] conv0 -> conv0
I0428 19:30:05.346112 22193 net.cpp:124] Setting up conv0
I0428 19:30:05.346129 22193 net.cpp:131] Top shape: 100 5 24 24 (288000)
I0428 19:30:05.346137 22193 net.cpp:139] Memory required for data: 1466800
I0428 19:30:05.346153 22193 layer_factory.hpp:77] Creating layer pool0
I0428 19:30:05.346164 22193 net.cpp:86] Creating Layer pool0
I0428 19:30:05.346173 22193 net.cpp:408] pool0 <- conv0
I0428 19:30:05.346181 22193 net.cpp:382] pool0 -> pool0
I0428 19:30:05.346240 22193 net.cpp:124] Setting up pool0
I0428 19:30:05.346249 22193 net.cpp:131] Top shape: 100 5 12 12 (72000)
I0428 19:30:05.346256 22193 net.cpp:139] Memory required for data: 1754800
I0428 19:30:05.346261 22193 layer_factory.hpp:77] Creating layer ip1
I0428 19:30:05.346273 22193 net.cpp:86] Creating Layer ip1
I0428 19:30:05.346282 22193 net.cpp:408] ip1 <- pool0
I0428 19:30:05.346292 22193 net.cpp:382] ip1 -> ip1
I0428 19:30:05.346446 22193 net.cpp:124] Setting up ip1
I0428 19:30:05.346457 22193 net.cpp:131] Top shape: 100 10 (1000)
I0428 19:30:05.346463 22193 net.cpp:139] Memory required for data: 1758800
I0428 19:30:05.346477 22193 layer_factory.hpp:77] Creating layer relu1
I0428 19:30:05.346487 22193 net.cpp:86] Creating Layer relu1
I0428 19:30:05.346494 22193 net.cpp:408] relu1 <- ip1
I0428 19:30:05.346503 22193 net.cpp:369] relu1 -> ip1 (in-place)
I0428 19:30:05.346688 22193 net.cpp:124] Setting up relu1
I0428 19:30:05.346698 22193 net.cpp:131] Top shape: 100 10 (1000)
I0428 19:30:05.346704 22193 net.cpp:139] Memory required for data: 1762800
I0428 19:30:05.346709 22193 layer_factory.hpp:77] Creating layer ip1_relu1_0_split
I0428 19:30:05.346719 22193 net.cpp:86] Creating Layer ip1_relu1_0_split
I0428 19:30:05.346724 22193 net.cpp:408] ip1_relu1_0_split <- ip1
I0428 19:30:05.346732 22193 net.cpp:382] ip1_relu1_0_split -> ip1_relu1_0_split_0
I0428 19:30:05.346743 22193 net.cpp:382] ip1_relu1_0_split -> ip1_relu1_0_split_1
I0428 19:30:05.346789 22193 net.cpp:124] Setting up ip1_relu1_0_split
I0428 19:30:05.346798 22193 net.cpp:131] Top shape: 100 10 (1000)
I0428 19:30:05.346807 22193 net.cpp:131] Top shape: 100 10 (1000)
I0428 19:30:05.346812 22193 net.cpp:139] Memory required for data: 1770800
I0428 19:30:05.346817 22193 layer_factory.hpp:77] Creating layer accuracy
I0428 19:30:05.346827 22193 net.cpp:86] Creating Layer accuracy
I0428 19:30:05.346832 22193 net.cpp:408] accuracy <- ip1_relu1_0_split_0
I0428 19:30:05.346842 22193 net.cpp:408] accuracy <- label_mnist_1_split_0
I0428 19:30:05.346850 22193 net.cpp:382] accuracy -> accuracy
…
