…
I0428 20:01:40.957753 29780 net.cpp:296] The NetState phase (0) differed from the phase (1) specified by a rule in layer mnist
I0428 20:01:40.957785 29780 net.cpp:296] The NetState phase (0) differed from the phase (1) specified by a rule in layer accuracy
I0428 20:01:40.957870 29780 net.cpp:53] Initializing net from parameters: 
name: "LeNet"
state {
  phase: TRAIN
  level: 0
  stage: ""
}
layer {
  name: "mnist"
  type: "Data"
  top: "data"
  top: "label"
  include {
    phase: TRAIN
  }
  transform_param {
    scale: 0.00390625
  }
  data_param {
    source: "examples/mnist/mnist_train_lmdb"
    batch_size: 64
    backend: LMDB
  }
}
layer {
  name: "conv0"
  type: "Convolution"
  bottom: "data"
  top: "conv0"
  param {
    lr_mult: 1
  }
  param {
    lr_mult: 2
  }
  convolution_param {
    num_output: 10
    kernel_size: 5
    stride: 1
    weight_filler {
      type: "xavier"
    }
    bias_filler {
      type: "constant"
    }
  }
}
layer {
  name: "pool0"
  type: "Pooling"
  bottom: "conv0"
  top: "pool0"
  pooling_param {
    pool: MAX
    kernel_size: 2
    stride: 2
  }
}
layer {
  name: "conv1"
  type: "Convolution"
  bottom: "pool0"
  top: "conv1"
  param {
    lr_mult: 1
  }
  param {
    lr_mult: 2
  }
  convolution_param {
    num_output: 50
    kernel_size: 5
    stride: 1
    weight_filler {
      type: "xavier"
    }
    bias_filler {
      type: "constant"
    }
  }
}
layer {
  name: "pool1"
  type: "Pooling"
  bottom: "conv1"
  top: "pool1"
  pooling_param {
    pool: MAX
    kernel_size: 2
    stride: 2
  }
}
layer {
  name: "ip1"
  type: "InnerProduct"
  bottom: "pool1"
  top: "ip1"
  param {
    lr_mult: 1
  }
  param {
    lr_mult: 2
  }
  inner_product_param {
    num_output: 10
    weight_filler {
      type: "xavier"
    }
    bias_filler {
      type: "constant"
    }
  }
}
layer {
  name: "relu1"
  type: "ReLU"
  bottom: "ip1"
  top: "ip1"
}
layer {
  name: "ip2"
  type: "InnerProduct"
  bottom: "ip1"
  top: "ip2"
  param {
    lr_mult: 1
  }
  param {
    lr_mult: 2
  }
  inner_product_param {
    num_output: 10
    weight_filler {
      type: "xavier"
    }
    bias_filler {
      type: "constant"
    }
  }
}
layer {
  name: "relu2"
  type: "ReLU"
  bottom: "ip2"
  top: "ip2"
}
layer {
  name: "ip3"
  type: "InnerProduct"
  bottom: "ip2"
  top: "ip3"
  param {
    lr_mult: 1
  }
  param {
    lr_mult: 2
  }
  inner_product_param {
    num_output: 10
    weight_filler {
      type: "xavier"
    }
    bias_filler {
      type: "constant"
    }
  }
}
layer {
  name: "relu3"
  type: "ReLU"
  bottom: "ip3"
  top: "ip3"
}
layer {
  name: "loss"
  type: "SoftmaxWithLoss"
  bottom: "ip3"
  bottom: "label"
  top: "loss"
}
I0428 20:01:40.957937 29780 layer_factory.hpp:77] Creating layer mnist
I0428 20:01:40.958020 29780 db_lmdb.cpp:35] Opened lmdb examples/mnist/mnist_train_lmdb
I0428 20:01:40.958040 29780 net.cpp:86] Creating Layer mnist
I0428 20:01:40.958047 29780 net.cpp:382] mnist -> data
I0428 20:01:40.958065 29780 net.cpp:382] mnist -> label
I0428 20:01:40.959041 29780 data_layer.cpp:45] output data size: 64,1,28,28
I0428 20:01:40.961333 29780 net.cpp:124] Setting up mnist
I0428 20:01:40.961364 29780 net.cpp:131] Top shape: 64 1 28 28 (50176)
I0428 20:01:40.961371 29780 net.cpp:131] Top shape: 64 (64)
I0428 20:01:40.961374 29780 net.cpp:139] Memory required for data: 200960
I0428 20:01:40.961380 29780 layer_factory.hpp:77] Creating layer conv0
I0428 20:01:40.961393 29780 net.cpp:86] Creating Layer conv0
I0428 20:01:40.961410 29780 net.cpp:408] conv0 <- data
I0428 20:01:40.961422 29780 net.cpp:382] conv0 -> conv0
I0428 20:01:41.190946 29780 net.cpp:124] Setting up conv0
I0428 20:01:41.190970 29780 net.cpp:131] Top shape: 64 10 24 24 (368640)
I0428 20:01:41.190974 29780 net.cpp:139] Memory required for data: 1675520
I0428 20:01:41.190989 29780 layer_factory.hpp:77] Creating layer pool0
I0428 20:01:41.191000 29780 net.cpp:86] Creating Layer pool0
I0428 20:01:41.191004 29780 net.cpp:408] pool0 <- conv0
I0428 20:01:41.191009 29780 net.cpp:382] pool0 -> pool0
I0428 20:01:41.191067 29780 net.cpp:124] Setting up pool0
I0428 20:01:41.191073 29780 net.cpp:131] Top shape: 64 10 12 12 (92160)
I0428 20:01:41.191076 29780 net.cpp:139] Memory required for data: 2044160
I0428 20:01:41.191079 29780 layer_factory.hpp:77] Creating layer conv1
I0428 20:01:41.191089 29780 net.cpp:86] Creating Layer conv1
I0428 20:01:41.191092 29780 net.cpp:408] conv1 <- pool0
I0428 20:01:41.191097 29780 net.cpp:382] conv1 -> conv1
I0428 20:01:41.193918 29780 net.cpp:124] Setting up conv1
I0428 20:01:41.193949 29780 net.cpp:131] Top shape: 64 50 8 8 (204800)
I0428 20:01:41.193953 29780 net.cpp:139] Memory required for data: 2863360
I0428 20:01:41.193961 29780 layer_factory.hpp:77] Creating layer pool1
I0428 20:01:41.193969 29780 net.cpp:86] Creating Layer pool1
I0428 20:01:41.193972 29780 net.cpp:408] pool1 <- conv1
I0428 20:01:41.193977 29780 net.cpp:382] pool1 -> pool1
I0428 20:01:41.194031 29780 net.cpp:124] Setting up pool1
I0428 20:01:41.194036 29780 net.cpp:131] Top shape: 64 50 4 4 (51200)
I0428 20:01:41.194052 29780 net.cpp:139] Memory required for data: 3068160
I0428 20:01:41.194056 29780 layer_factory.hpp:77] Creating layer ip1
I0428 20:01:41.194062 29780 net.cpp:86] Creating Layer ip1
I0428 20:01:41.194066 29780 net.cpp:408] ip1 <- pool1
I0428 20:01:41.194070 29780 net.cpp:382] ip1 -> ip1
I0428 20:01:41.194205 29780 net.cpp:124] Setting up ip1
I0428 20:01:41.194212 29780 net.cpp:131] Top shape: 64 10 (640)
I0428 20:01:41.194216 29780 net.cpp:139] Memory required for data: 3070720
I0428 20:01:41.194222 29780 layer_factory.hpp:77] Creating layer relu1
I0428 20:01:41.194228 29780 net.cpp:86] Creating Layer relu1
I0428 20:01:41.194231 29780 net.cpp:408] relu1 <- ip1
I0428 20:01:41.194236 29780 net.cpp:369] relu1 -> ip1 (in-place)
I0428 20:01:41.194387 29780 net.cpp:124] Setting up relu1
I0428 20:01:41.194396 29780 net.cpp:131] Top shape: 64 10 (640)
I0428 20:01:41.194398 29780 net.cpp:139] Memory required for data: 3073280
I0428 20:01:41.194401 29780 layer_factory.hpp:77] Creating layer ip2
I0428 20:01:41.194407 29780 net.cpp:86] Creating Layer ip2
I0428 20:01:41.194411 29780 net.cpp:408] ip2 <- ip1
I0428 20:01:41.194414 29780 net.cpp:382] ip2 -> ip2
I0428 20:01:41.194502 29780 net.cpp:124] Setting up ip2
I0428 20:01:41.194509 29780 net.cpp:131] Top shape: 64 10 (640)
I0428 20:01:41.194512 29780 net.cpp:139] Memory required for data: 3075840
I0428 20:01:41.194517 29780 layer_factory.hpp:77] Creating layer relu2
I0428 20:01:41.194522 29780 net.cpp:86] Creating Layer relu2
I0428 20:01:41.194525 29780 net.cpp:408] relu2 <- ip2
I0428 20:01:41.194530 29780 net.cpp:369] relu2 -> ip2 (in-place)
I0428 20:01:41.195286 29780 net.cpp:124] Setting up relu2
I0428 20:01:41.195297 29780 net.cpp:131] Top shape: 64 10 (640)
I0428 20:01:41.195317 29780 net.cpp:139] Memory required for data: 3078400
I0428 20:01:41.195322 29780 layer_factory.hpp:77] Creating layer ip3
I0428 20:01:41.195328 29780 net.cpp:86] Creating Layer ip3
I0428 20:01:41.195332 29780 net.cpp:408] ip3 <- ip2
I0428 20:01:41.195338 29780 net.cpp:382] ip3 -> ip3
I0428 20:01:41.195459 29780 net.cpp:124] Setting up ip3
I0428 20:01:41.195467 29780 net.cpp:131] Top shape: 64 10 (640)
I0428 20:01:41.195469 29780 net.cpp:139] Memory required for data: 3080960
I0428 20:01:41.195477 29780 layer_factory.hpp:77] Creating layer relu3
I0428 20:01:41.195482 29780 net.cpp:86] Creating Layer relu3
I0428 20:01:41.195485 29780 net.cpp:408] relu3 <- ip3
I0428 20:01:41.195489 29780 net.cpp:369] relu3 -> ip3 (in-place)
I0428 20:01:41.195644 29780 net.cpp:124] Setting up relu3
I0428 20:01:41.195653 29780 net.cpp:131] Top shape: 64 10 (640)
I0428 20:01:41.195657 29780 net.cpp:139] Memory required for data: 3083520
I0428 20:01:41.195659 29780 layer_factory.hpp:77] Creating layer loss
I0428 20:01:41.195665 29780 net.cpp:86] Creating Layer loss
I0428 20:01:41.195668 29780 net.cpp:408] loss <- ip3
I0428 20:01:41.195672 29780 net.cpp:408] loss <- label
I0428 20:01:41.195677 29780 net.cpp:382] loss -> loss
I0428 20:01:41.195693 29780 layer_factory.hpp:77] Creating layer loss
…
I0428 20:01:41.196317 29780 solver.cpp:173] Creating test net (#0) specified by net file: ECE595/mnist/train_test/var_everything2/lenet_train_test909.prototxt
I0428 20:01:41.196343 29780 net.cpp:296] The NetState phase (1) differed from the phase (0) specified by a rule in layer mnist
I0428 20:01:41.196444 29780 net.cpp:53] Initializing net from parameters: 
name: "LeNet"
state {
  phase: TEST
}
layer {
  name: "mnist"
  type: "Data"
  top: "data"
  top: "label"
  include {
    phase: TEST
  }
  transform_param {
    scale: 0.00390625
  }
  data_param {
    source: "examples/mnist/mnist_test_lmdb"
    batch_size: 100
    backend: LMDB
  }
}
layer {
  name: "conv0"
  type: "Convolution"
  bottom: "data"
  top: "conv0"
  param {
    lr_mult: 1
  }
  param {
    lr_mult: 2
  }
  convolution_param {
    num_output: 10
    kernel_size: 5
    stride: 1
    weight_filler {
      type: "xavier"
    }
    bias_filler {
      type: "constant"
    }
  }
}
layer {
  name: "pool0"
  type: "Pooling"
  bottom: "conv0"
  top: "pool0"
  pooling_param {
    pool: MAX
    kernel_size: 2
    stride: 2
  }
}
layer {
  name: "conv1"
  type: "Convolution"
  bottom: "pool0"
  top: "conv1"
  param {
    lr_mult: 1
  }
  param {
    lr_mult: 2
  }
  convolution_param {
    num_output: 50
    kernel_size: 5
    stride: 1
    weight_filler {
      type: "xavier"
    }
    bias_filler {
      type: "constant"
    }
  }
}
layer {
  name: "pool1"
  type: "Pooling"
  bottom: "conv1"
  top: "pool1"
  pooling_param {
    pool: MAX
    kernel_size: 2
    stride: 2
  }
}
layer {
  name: "ip1"
  type: "InnerProduct"
  bottom: "pool1"
  top: "ip1"
  param {
    lr_mult: 1
  }
  param {
    lr_mult: 2
  }
  inner_product_param {
    num_output: 10
    weight_filler {
      type: "xavier"
    }
    bias_filler {
      type: "constant"
    }
  }
}
layer {
  name: "relu1"
  type: "ReLU"
  bottom: "ip1"
  top: "ip1"
}
layer {
  name: "ip2"
  type: "InnerProduct"
  bottom: "ip1"
  top: "ip2"
  param {
    lr_mult: 1
  }
  param {
    lr_mult: 2
  }
  inner_product_param {
    num_output: 10
    weight_filler {
      type: "xavier"
    }
    bias_filler {
      type: "constant"
    }
  }
}
layer {
  name: "relu2"
  type: "ReLU"
  bottom: "ip2"
  top: "ip2"
}
layer {
  name: "ip3"
  type: "InnerProduct"
  bottom: "ip2"
  top: "ip3"
  param {
    lr_mult: 1
  }
  param {
    lr_mult: 2
  }
  inner_product_param {
    num_output: 10
    weight_filler {
      type: "xavier"
    }
    bias_filler {
      type: "constant"
    }
  }
}
layer {
  name: "relu3"
  type: "ReLU"
  bottom: "ip3"
  top: "ip3"
}
layer {
  name: "accuracy"
  type: "Accuracy"
  bottom: "ip3"
  bottom: "label"
  top: "accuracy"
  include {
    phase: TEST
  }
}
layer {
  name: "loss"
  type: "SoftmaxWithLoss"
  bottom: "ip3"
  bottom: "label"
  top: "loss"
}
I0428 20:01:41.196522 29780 layer_factory.hpp:77] Creating layer mnist
I0428 20:01:41.196566 29780 db_lmdb.cpp:35] Opened lmdb examples/mnist/mnist_test_lmdb
I0428 20:01:41.196578 29780 net.cpp:86] Creating Layer mnist
I0428 20:01:41.196583 29780 net.cpp:382] mnist -> data
I0428 20:01:41.196591 29780 net.cpp:382] mnist -> label
I0428 20:01:41.196674 29780 data_layer.cpp:45] output data size: 100,1,28,28
I0428 20:01:41.198736 29780 net.cpp:124] Setting up mnist
I0428 20:01:41.198781 29780 net.cpp:131] Top shape: 100 1 28 28 (78400)
I0428 20:01:41.198786 29780 net.cpp:131] Top shape: 100 (100)
I0428 20:01:41.198789 29780 net.cpp:139] Memory required for data: 314000
I0428 20:01:41.198793 29780 layer_factory.hpp:77] Creating layer label_mnist_1_split
I0428 20:01:41.198810 29780 net.cpp:86] Creating Layer label_mnist_1_split
I0428 20:01:41.198814 29780 net.cpp:408] label_mnist_1_split <- label
I0428 20:01:41.198819 29780 net.cpp:382] label_mnist_1_split -> label_mnist_1_split_0
I0428 20:01:41.198827 29780 net.cpp:382] label_mnist_1_split -> label_mnist_1_split_1
I0428 20:01:41.198868 29780 net.cpp:124] Setting up label_mnist_1_split
I0428 20:01:41.198874 29780 net.cpp:131] Top shape: 100 (100)
I0428 20:01:41.198878 29780 net.cpp:131] Top shape: 100 (100)
I0428 20:01:41.198880 29780 net.cpp:139] Memory required for data: 314800
I0428 20:01:41.198884 29780 layer_factory.hpp:77] Creating layer conv0
I0428 20:01:41.198891 29780 net.cpp:86] Creating Layer conv0
I0428 20:01:41.198895 29780 net.cpp:408] conv0 <- data
I0428 20:01:41.198900 29780 net.cpp:382] conv0 -> conv0
I0428 20:01:41.200685 29780 net.cpp:124] Setting up conv0
I0428 20:01:41.200714 29780 net.cpp:131] Top shape: 100 10 24 24 (576000)
I0428 20:01:41.200718 29780 net.cpp:139] Memory required for data: 2618800
I0428 20:01:41.200742 29780 layer_factory.hpp:77] Creating layer pool0
I0428 20:01:41.200748 29780 net.cpp:86] Creating Layer pool0
I0428 20:01:41.200752 29780 net.cpp:408] pool0 <- conv0
I0428 20:01:41.200757 29780 net.cpp:382] pool0 -> pool0
I0428 20:01:41.200806 29780 net.cpp:124] Setting up pool0
I0428 20:01:41.200836 29780 net.cpp:131] Top shape: 100 10 12 12 (144000)
I0428 20:01:41.200841 29780 net.cpp:139] Memory required for data: 3194800
I0428 20:01:41.200861 29780 layer_factory.hpp:77] Creating layer conv1
I0428 20:01:41.200872 29780 net.cpp:86] Creating Layer conv1
I0428 20:01:41.200875 29780 net.cpp:408] conv1 <- pool0
I0428 20:01:41.200882 29780 net.cpp:382] conv1 -> conv1
I0428 20:01:41.202610 29780 net.cpp:124] Setting up conv1
I0428 20:01:41.202639 29780 net.cpp:131] Top shape: 100 50 8 8 (320000)
I0428 20:01:41.202643 29780 net.cpp:139] Memory required for data: 4474800
I0428 20:01:41.202664 29780 layer_factory.hpp:77] Creating layer pool1
I0428 20:01:41.202672 29780 net.cpp:86] Creating Layer pool1
I0428 20:01:41.202675 29780 net.cpp:408] pool1 <- conv1
I0428 20:01:41.202680 29780 net.cpp:382] pool1 -> pool1
I0428 20:01:41.202733 29780 net.cpp:124] Setting up pool1
I0428 20:01:41.202738 29780 net.cpp:131] Top shape: 100 50 4 4 (80000)
I0428 20:01:41.202741 29780 net.cpp:139] Memory required for data: 4794800
I0428 20:01:41.202744 29780 layer_factory.hpp:77] Creating layer ip1
I0428 20:01:41.202749 29780 net.cpp:86] Creating Layer ip1
I0428 20:01:41.202754 29780 net.cpp:408] ip1 <- pool1
I0428 20:01:41.202759 29780 net.cpp:382] ip1 -> ip1
I0428 20:01:41.202913 29780 net.cpp:124] Setting up ip1
I0428 20:01:41.202922 29780 net.cpp:131] Top shape: 100 10 (1000)
I0428 20:01:41.202936 29780 net.cpp:139] Memory required for data: 4798800
I0428 20:01:41.202945 29780 layer_factory.hpp:77] Creating layer relu1
I0428 20:01:41.202951 29780 net.cpp:86] Creating Layer relu1
I0428 20:01:41.202955 29780 net.cpp:408] relu1 <- ip1
I0428 20:01:41.202960 29780 net.cpp:369] relu1 -> ip1 (in-place)
I0428 20:01:41.203176 29780 net.cpp:124] Setting up relu1
I0428 20:01:41.203184 29780 net.cpp:131] Top shape: 100 10 (1000)
I0428 20:01:41.203188 29780 net.cpp:139] Memory required for data: 4802800
I0428 20:01:41.203191 29780 layer_factory.hpp:77] Creating layer ip2
I0428 20:01:41.203199 29780 net.cpp:86] Creating Layer ip2
I0428 20:01:41.203202 29780 net.cpp:408] ip2 <- ip1
I0428 20:01:41.203208 29780 net.cpp:382] ip2 -> ip2
I0428 20:01:41.203346 29780 net.cpp:124] Setting up ip2
I0428 20:01:41.203353 29780 net.cpp:131] Top shape: 100 10 (1000)
I0428 20:01:41.203356 29780 net.cpp:139] Memory required for data: 4806800
I0428 20:01:41.203377 29780 layer_factory.hpp:77] Creating layer relu2
I0428 20:01:41.203382 29780 net.cpp:86] Creating Layer relu2
I0428 20:01:41.203385 29780 net.cpp:408] relu2 <- ip2
I0428 20:01:41.203389 29780 net.cpp:369] relu2 -> ip2 (in-place)
I0428 20:01:41.203555 29780 net.cpp:124] Setting up relu2
I0428 20:01:41.203563 29780 net.cpp:131] Top shape: 100 10 (1000)
I0428 20:01:41.203567 29780 net.cpp:139] Memory required for data: 4810800
I0428 20:01:41.203570 29780 layer_factory.hpp:77] Creating layer ip3
I0428 20:01:41.203577 29780 net.cpp:86] Creating Layer ip3
I0428 20:01:41.203580 29780 net.cpp:408] ip3 <- ip2
I0428 20:01:41.203585 29780 net.cpp:382] ip3 -> ip3
I0428 20:01:41.203716 29780 net.cpp:124] Setting up ip3
I0428 20:01:41.203723 29780 net.cpp:131] Top shape: 100 10 (1000)
I0428 20:01:41.203727 29780 net.cpp:139] Memory required for data: 4814800
I0428 20:01:41.203734 29780 layer_factory.hpp:77] Creating layer relu3
I0428 20:01:41.203739 29780 net.cpp:86] Creating Layer relu3
I0428 20:01:41.203742 29780 net.cpp:408] relu3 <- ip3
I0428 20:01:41.203747 29780 net.cpp:369] relu3 -> ip3 (in-place)
I0428 20:01:41.204586 29780 net.cpp:124] Setting up relu3
I0428 20:01:41.204613 29780 net.cpp:131] Top shape: 100 10 (1000)
I0428 20:01:41.204617 29780 net.cpp:139] Memory required for data: 4818800
I0428 20:01:41.204622 29780 layer_factory.hpp:77] Creating layer ip3_relu3_0_split
I0428 20:01:41.204627 29780 net.cpp:86] Creating Layer ip3_relu3_0_split
I0428 20:01:41.204632 29780 net.cpp:408] ip3_relu3_0_split <- ip3
I0428 20:01:41.204638 29780 net.cpp:382] ip3_relu3_0_split -> ip3_relu3_0_split_0
I0428 20:01:41.204643 29780 net.cpp:382] ip3_relu3_0_split -> ip3_relu3_0_split_1
I0428 20:01:41.204697 29780 net.cpp:124] Setting up ip3_relu3_0_split
I0428 20:01:41.204704 29780 net.cpp:131] Top shape: 100 10 (1000)
I0428 20:01:41.204707 29780 net.cpp:131] Top shape: 100 10 (1000)
I0428 20:01:41.204710 29780 net.cpp:139] Memory required for data: 4826800
I0428 20:01:41.204712 29780 layer_factory.hpp:77] Creating layer accuracy
I0428 20:01:41.204718 29780 net.cpp:86] Creating Layer accuracy
I0428 20:01:41.204721 29780 net.cpp:408] accuracy <- ip3_relu3_0_split_0
I0428 20:01:41.204726 29780 net.cpp:408] accuracy <- label_mnist_1_split_0
I0428 20:01:41.204730 29780 net.cpp:382] accuracy -> accuracy
…
