…
I0428 19:54:44.151832 28047 net.cpp:296] The NetState phase (0) differed from the phase (1) specified by a rule in layer mnist
I0428 19:54:44.151850 28047 net.cpp:296] The NetState phase (0) differed from the phase (1) specified by a rule in layer accuracy
I0428 19:54:44.151948 28047 net.cpp:53] Initializing net from parameters: 
name: "LeNet"
state {
  phase: TRAIN
  level: 0
  stage: ""
}
layer {
  name: "mnist"
  type: "Data"
  top: "data"
  top: "label"
  include {
    phase: TRAIN
  }
  transform_param {
    scale: 0.00390625
  }
  data_param {
    source: "examples/mnist/mnist_train_lmdb"
    batch_size: 64
    backend: LMDB
  }
}
layer {
  name: "conv0"
  type: "Convolution"
  bottom: "data"
  top: "conv0"
  param {
    lr_mult: 1
  }
  param {
    lr_mult: 2
  }
  convolution_param {
    num_output: 5
    kernel_size: 5
    stride: 1
    weight_filler {
      type: "xavier"
    }
    bias_filler {
      type: "constant"
    }
  }
}
layer {
  name: "pool0"
  type: "Pooling"
  bottom: "conv0"
  top: "pool0"
  pooling_param {
    pool: MAX
    kernel_size: 2
    stride: 2
  }
}
layer {
  name: "conv1"
  type: "Convolution"
  bottom: "pool0"
  top: "conv1"
  param {
    lr_mult: 1
  }
  param {
    lr_mult: 2
  }
  convolution_param {
    num_output: 100
    kernel_size: 5
    stride: 1
    weight_filler {
      type: "xavier"
    }
    bias_filler {
      type: "constant"
    }
  }
}
layer {
  name: "pool1"
  type: "Pooling"
  bottom: "conv1"
  top: "pool1"
  pooling_param {
    pool: MAX
    kernel_size: 2
    stride: 2
  }
}
layer {
  name: "ip1"
  type: "InnerProduct"
  bottom: "pool1"
  top: "ip1"
  param {
    lr_mult: 1
  }
  param {
    lr_mult: 2
  }
  inner_product_param {
    num_output: 10
    weight_filler {
      type: "xavier"
    }
    bias_filler {
      type: "constant"
    }
  }
}
layer {
  name: "relu1"
  type: "ReLU"
  bottom: "ip1"
  top: "ip1"
}
layer {
  name: "ip2"
  type: "InnerProduct"
  bottom: "ip1"
  top: "ip2"
  param {
    lr_mult: 1
  }
  param {
    lr_mult: 2
  }
  inner_product_param {
    num_output: 25
    weight_filler {
      type: "xavier"
    }
    bias_filler {
      type: "constant"
    }
  }
}
layer {
  name: "relu2"
  type: "ReLU"
  bottom: "ip2"
  top: "ip2"
}
layer {
  name: "ip3"
  type: "InnerProduct"
  bottom: "ip2"
  top: "ip3"
  param {
    lr_mult: 1
  }
  param {
    lr_mult: 2
  }
  inner_product_param {
    num_output: 10
    weight_filler {
      type: "xavier"
    }
    bias_filler {
      type: "constant"
    }
  }
}
layer {
  name: "relu3"
  type: "ReLU"
  bottom: "ip3"
  top: "ip3"
}
layer {
  name: "loss"
  type: "SoftmaxWithLoss"
  bottom: "ip3"
  bottom: "label"
  top: "loss"
}
I0428 19:54:44.152024 28047 layer_factory.hpp:77] Creating layer mnist
I0428 19:54:44.152122 28047 db_lmdb.cpp:35] Opened lmdb examples/mnist/mnist_train_lmdb
I0428 19:54:44.152145 28047 net.cpp:86] Creating Layer mnist
I0428 19:54:44.152154 28047 net.cpp:382] mnist -> data
I0428 19:54:44.152176 28047 net.cpp:382] mnist -> label
I0428 19:54:44.153278 28047 data_layer.cpp:45] output data size: 64,1,28,28
I0428 19:54:44.155726 28047 net.cpp:124] Setting up mnist
I0428 19:54:44.155745 28047 net.cpp:131] Top shape: 64 1 28 28 (50176)
I0428 19:54:44.155750 28047 net.cpp:131] Top shape: 64 (64)
I0428 19:54:44.155755 28047 net.cpp:139] Memory required for data: 200960
I0428 19:54:44.155762 28047 layer_factory.hpp:77] Creating layer conv0
I0428 19:54:44.155778 28047 net.cpp:86] Creating Layer conv0
I0428 19:54:44.155798 28047 net.cpp:408] conv0 <- data
I0428 19:54:44.155815 28047 net.cpp:382] conv0 -> conv0
I0428 19:54:44.399305 28047 net.cpp:124] Setting up conv0
I0428 19:54:44.399332 28047 net.cpp:131] Top shape: 64 5 24 24 (184320)
I0428 19:54:44.399335 28047 net.cpp:139] Memory required for data: 938240
I0428 19:54:44.399349 28047 layer_factory.hpp:77] Creating layer pool0
I0428 19:54:44.399377 28047 net.cpp:86] Creating Layer pool0
I0428 19:54:44.399381 28047 net.cpp:408] pool0 <- conv0
I0428 19:54:44.399387 28047 net.cpp:382] pool0 -> pool0
I0428 19:54:44.399435 28047 net.cpp:124] Setting up pool0
I0428 19:54:44.399441 28047 net.cpp:131] Top shape: 64 5 12 12 (46080)
I0428 19:54:44.399444 28047 net.cpp:139] Memory required for data: 1122560
I0428 19:54:44.399447 28047 layer_factory.hpp:77] Creating layer conv1
I0428 19:54:44.399457 28047 net.cpp:86] Creating Layer conv1
I0428 19:54:44.399461 28047 net.cpp:408] conv1 <- pool0
I0428 19:54:44.399466 28047 net.cpp:382] conv1 -> conv1
I0428 19:54:44.402346 28047 net.cpp:124] Setting up conv1
I0428 19:54:44.402360 28047 net.cpp:131] Top shape: 64 100 8 8 (409600)
I0428 19:54:44.402364 28047 net.cpp:139] Memory required for data: 2760960
I0428 19:54:44.402389 28047 layer_factory.hpp:77] Creating layer pool1
I0428 19:54:44.402395 28047 net.cpp:86] Creating Layer pool1
I0428 19:54:44.402400 28047 net.cpp:408] pool1 <- conv1
I0428 19:54:44.402405 28047 net.cpp:382] pool1 -> pool1
I0428 19:54:44.402456 28047 net.cpp:124] Setting up pool1
I0428 19:54:44.402463 28047 net.cpp:131] Top shape: 64 100 4 4 (102400)
I0428 19:54:44.402467 28047 net.cpp:139] Memory required for data: 3170560
I0428 19:54:44.402469 28047 layer_factory.hpp:77] Creating layer ip1
I0428 19:54:44.402477 28047 net.cpp:86] Creating Layer ip1
I0428 19:54:44.402479 28047 net.cpp:408] ip1 <- pool1
I0428 19:54:44.402484 28047 net.cpp:382] ip1 -> ip1
I0428 19:54:44.402669 28047 net.cpp:124] Setting up ip1
I0428 19:54:44.402676 28047 net.cpp:131] Top shape: 64 10 (640)
I0428 19:54:44.402680 28047 net.cpp:139] Memory required for data: 3173120
I0428 19:54:44.402688 28047 layer_factory.hpp:77] Creating layer relu1
I0428 19:54:44.402693 28047 net.cpp:86] Creating Layer relu1
I0428 19:54:44.402696 28047 net.cpp:408] relu1 <- ip1
I0428 19:54:44.402700 28047 net.cpp:369] relu1 -> ip1 (in-place)
I0428 19:54:44.402889 28047 net.cpp:124] Setting up relu1
I0428 19:54:44.402897 28047 net.cpp:131] Top shape: 64 10 (640)
I0428 19:54:44.402900 28047 net.cpp:139] Memory required for data: 3175680
I0428 19:54:44.402904 28047 layer_factory.hpp:77] Creating layer ip2
I0428 19:54:44.402910 28047 net.cpp:86] Creating Layer ip2
I0428 19:54:44.402914 28047 net.cpp:408] ip2 <- ip1
I0428 19:54:44.402918 28047 net.cpp:382] ip2 -> ip2
I0428 19:54:44.403029 28047 net.cpp:124] Setting up ip2
I0428 19:54:44.403036 28047 net.cpp:131] Top shape: 64 25 (1600)
I0428 19:54:44.403039 28047 net.cpp:139] Memory required for data: 3182080
I0428 19:54:44.403045 28047 layer_factory.hpp:77] Creating layer relu2
I0428 19:54:44.403051 28047 net.cpp:86] Creating Layer relu2
I0428 19:54:44.403054 28047 net.cpp:408] relu2 <- ip2
I0428 19:54:44.403059 28047 net.cpp:369] relu2 -> ip2 (in-place)
I0428 19:54:44.403830 28047 net.cpp:124] Setting up relu2
I0428 19:54:44.403841 28047 net.cpp:131] Top shape: 64 25 (1600)
I0428 19:54:44.403861 28047 net.cpp:139] Memory required for data: 3188480
I0428 19:54:44.403864 28047 layer_factory.hpp:77] Creating layer ip3
I0428 19:54:44.403872 28047 net.cpp:86] Creating Layer ip3
I0428 19:54:44.403875 28047 net.cpp:408] ip3 <- ip2
I0428 19:54:44.403880 28047 net.cpp:382] ip3 -> ip3
I0428 19:54:44.403995 28047 net.cpp:124] Setting up ip3
I0428 19:54:44.404003 28047 net.cpp:131] Top shape: 64 10 (640)
I0428 19:54:44.404006 28047 net.cpp:139] Memory required for data: 3191040
I0428 19:54:44.404019 28047 layer_factory.hpp:77] Creating layer relu3
I0428 19:54:44.404026 28047 net.cpp:86] Creating Layer relu3
I0428 19:54:44.404028 28047 net.cpp:408] relu3 <- ip3
I0428 19:54:44.404032 28047 net.cpp:369] relu3 -> ip3 (in-place)
I0428 19:54:44.404199 28047 net.cpp:124] Setting up relu3
I0428 19:54:44.404208 28047 net.cpp:131] Top shape: 64 10 (640)
I0428 19:54:44.404227 28047 net.cpp:139] Memory required for data: 3193600
I0428 19:54:44.404230 28047 layer_factory.hpp:77] Creating layer loss
I0428 19:54:44.404237 28047 net.cpp:86] Creating Layer loss
I0428 19:54:44.404239 28047 net.cpp:408] loss <- ip3
I0428 19:54:44.404243 28047 net.cpp:408] loss <- label
I0428 19:54:44.404248 28047 net.cpp:382] loss -> loss
I0428 19:54:44.404265 28047 layer_factory.hpp:77] Creating layer loss
…
I0428 19:54:44.404965 28047 solver.cpp:173] Creating test net (#0) specified by net file: ECE595/mnist/train_test/var_everything2/lenet_train_test717.prototxt
I0428 19:54:44.405009 28047 net.cpp:296] The NetState phase (1) differed from the phase (0) specified by a rule in layer mnist
I0428 19:54:44.405122 28047 net.cpp:53] Initializing net from parameters: 
name: "LeNet"
state {
  phase: TEST
}
layer {
  name: "mnist"
  type: "Data"
  top: "data"
  top: "label"
  include {
    phase: TEST
  }
  transform_param {
    scale: 0.00390625
  }
  data_param {
    source: "examples/mnist/mnist_test_lmdb"
    batch_size: 100
    backend: LMDB
  }
}
layer {
  name: "conv0"
  type: "Convolution"
  bottom: "data"
  top: "conv0"
  param {
    lr_mult: 1
  }
  param {
    lr_mult: 2
  }
  convolution_param {
    num_output: 5
    kernel_size: 5
    stride: 1
    weight_filler {
      type: "xavier"
    }
    bias_filler {
      type: "constant"
    }
  }
}
layer {
  name: "pool0"
  type: "Pooling"
  bottom: "conv0"
  top: "pool0"
  pooling_param {
    pool: MAX
    kernel_size: 2
    stride: 2
  }
}
layer {
  name: "conv1"
  type: "Convolution"
  bottom: "pool0"
  top: "conv1"
  param {
    lr_mult: 1
  }
  param {
    lr_mult: 2
  }
  convolution_param {
    num_output: 100
    kernel_size: 5
    stride: 1
    weight_filler {
      type: "xavier"
    }
    bias_filler {
      type: "constant"
    }
  }
}
layer {
  name: "pool1"
  type: "Pooling"
  bottom: "conv1"
  top: "pool1"
  pooling_param {
    pool: MAX
    kernel_size: 2
    stride: 2
  }
}
layer {
  name: "ip1"
  type: "InnerProduct"
  bottom: "pool1"
  top: "ip1"
  param {
    lr_mult: 1
  }
  param {
    lr_mult: 2
  }
  inner_product_param {
    num_output: 10
    weight_filler {
      type: "xavier"
    }
    bias_filler {
      type: "constant"
    }
  }
}
layer {
  name: "relu1"
  type: "ReLU"
  bottom: "ip1"
  top: "ip1"
}
layer {
  name: "ip2"
  type: "InnerProduct"
  bottom: "ip1"
  top: "ip2"
  param {
    lr_mult: 1
  }
  param {
    lr_mult: 2
  }
  inner_product_param {
    num_output: 25
    weight_filler {
      type: "xavier"
    }
    bias_filler {
      type: "constant"
    }
  }
}
layer {
  name: "relu2"
  type: "ReLU"
  bottom: "ip2"
  top: "ip2"
}
layer {
  name: "ip3"
  type: "InnerProduct"
  bottom: "ip2"
  top: "ip3"
  param {
    lr_mult: 1
  }
  param {
    lr_mult: 2
  }
  inner_product_param {
    num_output: 10
    weight_filler {
      type: "xavier"
    }
    bias_filler {
      type: "constant"
    }
  }
}
layer {
  name: "relu3"
  type: "ReLU"
  bottom: "ip3"
  top: "ip3"
}
layer {
  name: "accuracy"
  type: "Accuracy"
  bottom: "ip3"
  bottom: "label"
  top: "accuracy"
  include {
    phase: TEST
  }
}
layer {
  name: "loss"
  type: "SoftmaxWithLoss"
  bottom: "ip3"
  bottom: "label"
  top: "loss"
}
I0428 19:54:44.405784 28047 layer_factory.hpp:77] Creating layer mnist
I0428 19:54:44.405905 28047 db_lmdb.cpp:35] Opened lmdb examples/mnist/mnist_test_lmdb
I0428 19:54:44.405936 28047 net.cpp:86] Creating Layer mnist
I0428 19:54:44.405948 28047 net.cpp:382] mnist -> data
I0428 19:54:44.405966 28047 net.cpp:382] mnist -> label
I0428 19:54:44.406169 28047 data_layer.cpp:45] output data size: 100,1,28,28
I0428 19:54:44.409919 28047 net.cpp:124] Setting up mnist
I0428 19:54:44.409958 28047 net.cpp:131] Top shape: 100 1 28 28 (78400)
I0428 19:54:44.409970 28047 net.cpp:131] Top shape: 100 (100)
I0428 19:54:44.409977 28047 net.cpp:139] Memory required for data: 314000
I0428 19:54:44.409986 28047 layer_factory.hpp:77] Creating layer label_mnist_1_split
I0428 19:54:44.410006 28047 net.cpp:86] Creating Layer label_mnist_1_split
I0428 19:54:44.410014 28047 net.cpp:408] label_mnist_1_split <- label
I0428 19:54:44.410024 28047 net.cpp:382] label_mnist_1_split -> label_mnist_1_split_0
I0428 19:54:44.410039 28047 net.cpp:382] label_mnist_1_split -> label_mnist_1_split_1
I0428 19:54:44.410161 28047 net.cpp:124] Setting up label_mnist_1_split
I0428 19:54:44.410174 28047 net.cpp:131] Top shape: 100 (100)
I0428 19:54:44.410183 28047 net.cpp:131] Top shape: 100 (100)
I0428 19:54:44.410190 28047 net.cpp:139] Memory required for data: 314800
I0428 19:54:44.410197 28047 layer_factory.hpp:77] Creating layer conv0
I0428 19:54:44.410215 28047 net.cpp:86] Creating Layer conv0
I0428 19:54:44.410226 28047 net.cpp:408] conv0 <- data
I0428 19:54:44.410238 28047 net.cpp:382] conv0 -> conv0
I0428 19:54:44.413219 28047 net.cpp:124] Setting up conv0
I0428 19:54:44.413261 28047 net.cpp:131] Top shape: 100 5 24 24 (288000)
I0428 19:54:44.413270 28047 net.cpp:139] Memory required for data: 1466800
I0428 19:54:44.413290 28047 layer_factory.hpp:77] Creating layer pool0
I0428 19:54:44.413317 28047 net.cpp:86] Creating Layer pool0
I0428 19:54:44.413326 28047 net.cpp:408] pool0 <- conv0
I0428 19:54:44.413336 28047 net.cpp:382] pool0 -> pool0
I0428 19:54:44.413411 28047 net.cpp:124] Setting up pool0
I0428 19:54:44.413425 28047 net.cpp:131] Top shape: 100 5 12 12 (72000)
I0428 19:54:44.413432 28047 net.cpp:139] Memory required for data: 1754800
I0428 19:54:44.413439 28047 layer_factory.hpp:77] Creating layer conv1
I0428 19:54:44.413456 28047 net.cpp:86] Creating Layer conv1
I0428 19:54:44.413465 28047 net.cpp:408] conv1 <- pool0
I0428 19:54:44.413476 28047 net.cpp:382] conv1 -> conv1
I0428 19:54:44.416496 28047 net.cpp:124] Setting up conv1
I0428 19:54:44.416534 28047 net.cpp:131] Top shape: 100 100 8 8 (640000)
I0428 19:54:44.416543 28047 net.cpp:139] Memory required for data: 4314800
I0428 19:54:44.416560 28047 layer_factory.hpp:77] Creating layer pool1
I0428 19:54:44.416584 28047 net.cpp:86] Creating Layer pool1
I0428 19:54:44.416592 28047 net.cpp:408] pool1 <- conv1
I0428 19:54:44.416609 28047 net.cpp:382] pool1 -> pool1
I0428 19:54:44.416684 28047 net.cpp:124] Setting up pool1
I0428 19:54:44.416697 28047 net.cpp:131] Top shape: 100 100 4 4 (160000)
I0428 19:54:44.416705 28047 net.cpp:139] Memory required for data: 4954800
I0428 19:54:44.416712 28047 layer_factory.hpp:77] Creating layer ip1
I0428 19:54:44.416725 28047 net.cpp:86] Creating Layer ip1
I0428 19:54:44.416733 28047 net.cpp:408] ip1 <- pool1
I0428 19:54:44.416743 28047 net.cpp:382] ip1 -> ip1
I0428 19:54:44.417202 28047 net.cpp:124] Setting up ip1
I0428 19:54:44.417219 28047 net.cpp:131] Top shape: 100 10 (1000)
I0428 19:54:44.417258 28047 net.cpp:139] Memory required for data: 4958800
I0428 19:54:44.417274 28047 layer_factory.hpp:77] Creating layer relu1
I0428 19:54:44.417284 28047 net.cpp:86] Creating Layer relu1
I0428 19:54:44.417291 28047 net.cpp:408] relu1 <- ip1
I0428 19:54:44.417301 28047 net.cpp:369] relu1 -> ip1 (in-place)
I0428 19:54:44.417636 28047 net.cpp:124] Setting up relu1
I0428 19:54:44.417652 28047 net.cpp:131] Top shape: 100 10 (1000)
I0428 19:54:44.417668 28047 net.cpp:139] Memory required for data: 4962800
I0428 19:54:44.417675 28047 layer_factory.hpp:77] Creating layer ip2
I0428 19:54:44.417690 28047 net.cpp:86] Creating Layer ip2
I0428 19:54:44.417696 28047 net.cpp:408] ip2 <- ip1
I0428 19:54:44.417714 28047 net.cpp:382] ip2 -> ip2
I0428 19:54:44.417920 28047 net.cpp:124] Setting up ip2
I0428 19:54:44.417933 28047 net.cpp:131] Top shape: 100 25 (2500)
I0428 19:54:44.417940 28047 net.cpp:139] Memory required for data: 4972800
I0428 19:54:44.417953 28047 layer_factory.hpp:77] Creating layer relu2
I0428 19:54:44.417961 28047 net.cpp:86] Creating Layer relu2
I0428 19:54:44.417982 28047 net.cpp:408] relu2 <- ip2
I0428 19:54:44.417991 28047 net.cpp:369] relu2 -> ip2 (in-place)
I0428 19:54:44.418329 28047 net.cpp:124] Setting up relu2
I0428 19:54:44.418341 28047 net.cpp:131] Top shape: 100 25 (2500)
I0428 19:54:44.418349 28047 net.cpp:139] Memory required for data: 4982800
I0428 19:54:44.418355 28047 layer_factory.hpp:77] Creating layer ip3
I0428 19:54:44.418366 28047 net.cpp:86] Creating Layer ip3
I0428 19:54:44.418372 28047 net.cpp:408] ip3 <- ip2
I0428 19:54:44.418383 28047 net.cpp:382] ip3 -> ip3
I0428 19:54:44.418582 28047 net.cpp:124] Setting up ip3
I0428 19:54:44.418594 28047 net.cpp:131] Top shape: 100 10 (1000)
I0428 19:54:44.418601 28047 net.cpp:139] Memory required for data: 4986800
I0428 19:54:44.418617 28047 layer_factory.hpp:77] Creating layer relu3
I0428 19:54:44.418627 28047 net.cpp:86] Creating Layer relu3
I0428 19:54:44.418633 28047 net.cpp:408] relu3 <- ip3
I0428 19:54:44.418642 28047 net.cpp:369] relu3 -> ip3 (in-place)
I0428 19:54:44.420107 28047 net.cpp:124] Setting up relu3
I0428 19:54:44.420155 28047 net.cpp:131] Top shape: 100 10 (1000)
I0428 19:54:44.420162 28047 net.cpp:139] Memory required for data: 4990800
I0428 19:54:44.420169 28047 layer_factory.hpp:77] Creating layer ip3_relu3_0_split
I0428 19:54:44.420194 28047 net.cpp:86] Creating Layer ip3_relu3_0_split
I0428 19:54:44.420202 28047 net.cpp:408] ip3_relu3_0_split <- ip3
I0428 19:54:44.420223 28047 net.cpp:382] ip3_relu3_0_split -> ip3_relu3_0_split_0
I0428 19:54:44.420238 28047 net.cpp:382] ip3_relu3_0_split -> ip3_relu3_0_split_1
I0428 19:54:44.420310 28047 net.cpp:124] Setting up ip3_relu3_0_split
I0428 19:54:44.420322 28047 net.cpp:131] Top shape: 100 10 (1000)
I0428 19:54:44.420331 28047 net.cpp:131] Top shape: 100 10 (1000)
I0428 19:54:44.420337 28047 net.cpp:139] Memory required for data: 4998800
I0428 19:54:44.420344 28047 layer_factory.hpp:77] Creating layer accuracy
I0428 19:54:44.420353 28047 net.cpp:86] Creating Layer accuracy
I0428 19:54:44.420367 28047 net.cpp:408] accuracy <- ip3_relu3_0_split_0
I0428 19:54:44.420375 28047 net.cpp:408] accuracy <- label_mnist_1_split_0
I0428 19:54:44.420385 28047 net.cpp:382] accuracy -> accuracy
…
