…
I0428 19:32:13.341743 22784 net.cpp:296] The NetState phase (0) differed from the phase (1) specified by a rule in layer mnist
I0428 19:32:13.341760 22784 net.cpp:296] The NetState phase (0) differed from the phase (1) specified by a rule in layer accuracy
I0428 19:32:13.341835 22784 net.cpp:53] Initializing net from parameters: 
name: "LeNet"
state {
  phase: TRAIN
  level: 0
  stage: ""
}
layer {
  name: "mnist"
  type: "Data"
  top: "data"
  top: "label"
  include {
    phase: TRAIN
  }
  transform_param {
    scale: 0.00390625
  }
  data_param {
    source: "examples/mnist/mnist_train_lmdb"
    batch_size: 64
    backend: LMDB
  }
}
layer {
  name: "conv0"
  type: "Convolution"
  bottom: "data"
  top: "conv0"
  param {
    lr_mult: 1
  }
  param {
    lr_mult: 2
  }
  convolution_param {
    num_output: 10
    kernel_size: 5
    stride: 1
    weight_filler {
      type: "xavier"
    }
    bias_filler {
      type: "constant"
    }
  }
}
layer {
  name: "pool0"
  type: "Pooling"
  bottom: "conv0"
  top: "pool0"
  pooling_param {
    pool: MAX
    kernel_size: 2
    stride: 2
  }
}
layer {
  name: "ip1"
  type: "InnerProduct"
  bottom: "pool0"
  top: "ip1"
  param {
    lr_mult: 1
  }
  param {
    lr_mult: 2
  }
  inner_product_param {
    num_output: 25
    weight_filler {
      type: "xavier"
    }
    bias_filler {
      type: "constant"
    }
  }
}
layer {
  name: "relu1"
  type: "ReLU"
  bottom: "ip1"
  top: "ip1"
}
layer {
  name: "ip2"
  type: "InnerProduct"
  bottom: "ip1"
  top: "ip2"
  param {
    lr_mult: 1
  }
  param {
    lr_mult: 2
  }
  inner_product_param {
    num_output: 50
    weight_filler {
      type: "xavier"
    }
    bias_filler {
      type: "constant"
    }
  }
}
layer {
  name: "relu2"
  type: "ReLU"
  bottom: "ip2"
  top: "ip2"
}
layer {
  name: "ip3"
  type: "InnerProduct"
  bottom: "ip2"
  top: "ip3"
  param {
    lr_mult: 1
  }
  param {
    lr_mult: 2
  }
  inner_product_param {
    num_output: 10
    weight_filler {
      type: "xavier"
    }
    bias_filler {
      type: "constant"
    }
  }
}
layer {
  name: "relu3"
  type: "ReLU"
  bottom: "ip3"
  top: "ip3"
}
layer {
  name: "loss"
  type: "SoftmaxWithLoss"
  bottom: "ip3"
  bottom: "label"
  top: "loss"
}
I0428 19:32:13.341919 22784 layer_factory.hpp:77] Creating layer mnist
I0428 19:32:13.342025 22784 db_lmdb.cpp:35] Opened lmdb examples/mnist/mnist_train_lmdb
I0428 19:32:13.342051 22784 net.cpp:86] Creating Layer mnist
I0428 19:32:13.342061 22784 net.cpp:382] mnist -> data
I0428 19:32:13.342085 22784 net.cpp:382] mnist -> label
I0428 19:32:13.343114 22784 data_layer.cpp:45] output data size: 64,1,28,28
I0428 19:32:13.345389 22784 net.cpp:124] Setting up mnist
I0428 19:32:13.345407 22784 net.cpp:131] Top shape: 64 1 28 28 (50176)
I0428 19:32:13.345414 22784 net.cpp:131] Top shape: 64 (64)
I0428 19:32:13.345419 22784 net.cpp:139] Memory required for data: 200960
I0428 19:32:13.345428 22784 layer_factory.hpp:77] Creating layer conv0
I0428 19:32:13.345449 22784 net.cpp:86] Creating Layer conv0
I0428 19:32:13.345458 22784 net.cpp:408] conv0 <- data
I0428 19:32:13.345474 22784 net.cpp:382] conv0 -> conv0
I0428 19:32:13.575886 22784 net.cpp:124] Setting up conv0
I0428 19:32:13.575914 22784 net.cpp:131] Top shape: 64 10 24 24 (368640)
I0428 19:32:13.575919 22784 net.cpp:139] Memory required for data: 1675520
I0428 19:32:13.575969 22784 layer_factory.hpp:77] Creating layer pool0
I0428 19:32:13.576000 22784 net.cpp:86] Creating Layer pool0
I0428 19:32:13.576025 22784 net.cpp:408] pool0 <- conv0
I0428 19:32:13.576033 22784 net.cpp:382] pool0 -> pool0
I0428 19:32:13.576089 22784 net.cpp:124] Setting up pool0
I0428 19:32:13.576097 22784 net.cpp:131] Top shape: 64 10 12 12 (92160)
I0428 19:32:13.576102 22784 net.cpp:139] Memory required for data: 2044160
I0428 19:32:13.576108 22784 layer_factory.hpp:77] Creating layer ip1
I0428 19:32:13.576119 22784 net.cpp:86] Creating Layer ip1
I0428 19:32:13.576128 22784 net.cpp:408] ip1 <- pool0
I0428 19:32:13.576136 22784 net.cpp:382] ip1 -> ip1
I0428 19:32:13.576467 22784 net.cpp:124] Setting up ip1
I0428 19:32:13.576478 22784 net.cpp:131] Top shape: 64 25 (1600)
I0428 19:32:13.576483 22784 net.cpp:139] Memory required for data: 2050560
I0428 19:32:13.576493 22784 layer_factory.hpp:77] Creating layer relu1
I0428 19:32:13.576517 22784 net.cpp:86] Creating Layer relu1
I0428 19:32:13.576524 22784 net.cpp:408] relu1 <- ip1
I0428 19:32:13.576531 22784 net.cpp:369] relu1 -> ip1 (in-place)
I0428 19:32:13.576691 22784 net.cpp:124] Setting up relu1
I0428 19:32:13.576701 22784 net.cpp:131] Top shape: 64 25 (1600)
I0428 19:32:13.576706 22784 net.cpp:139] Memory required for data: 2056960
I0428 19:32:13.576711 22784 layer_factory.hpp:77] Creating layer ip2
I0428 19:32:13.576720 22784 net.cpp:86] Creating Layer ip2
I0428 19:32:13.576725 22784 net.cpp:408] ip2 <- ip1
I0428 19:32:13.576733 22784 net.cpp:382] ip2 -> ip2
I0428 19:32:13.577828 22784 net.cpp:124] Setting up ip2
I0428 19:32:13.577842 22784 net.cpp:131] Top shape: 64 50 (3200)
I0428 19:32:13.577847 22784 net.cpp:139] Memory required for data: 2069760
I0428 19:32:13.577859 22784 layer_factory.hpp:77] Creating layer relu2
I0428 19:32:13.577868 22784 net.cpp:86] Creating Layer relu2
I0428 19:32:13.577874 22784 net.cpp:408] relu2 <- ip2
I0428 19:32:13.577882 22784 net.cpp:369] relu2 -> ip2 (in-place)
I0428 19:32:13.578639 22784 net.cpp:124] Setting up relu2
I0428 19:32:13.578652 22784 net.cpp:131] Top shape: 64 50 (3200)
I0428 19:32:13.578657 22784 net.cpp:139] Memory required for data: 2082560
I0428 19:32:13.578663 22784 layer_factory.hpp:77] Creating layer ip3
I0428 19:32:13.578688 22784 net.cpp:86] Creating Layer ip3
I0428 19:32:13.578693 22784 net.cpp:408] ip3 <- ip2
I0428 19:32:13.578702 22784 net.cpp:382] ip3 -> ip3
I0428 19:32:13.578819 22784 net.cpp:124] Setting up ip3
I0428 19:32:13.578829 22784 net.cpp:131] Top shape: 64 10 (640)
I0428 19:32:13.578833 22784 net.cpp:139] Memory required for data: 2085120
I0428 19:32:13.578842 22784 layer_factory.hpp:77] Creating layer relu3
I0428 19:32:13.578852 22784 net.cpp:86] Creating Layer relu3
I0428 19:32:13.578860 22784 net.cpp:408] relu3 <- ip3
I0428 19:32:13.578868 22784 net.cpp:369] relu3 -> ip3 (in-place)
I0428 19:32:13.579023 22784 net.cpp:124] Setting up relu3
I0428 19:32:13.579032 22784 net.cpp:131] Top shape: 64 10 (640)
I0428 19:32:13.579037 22784 net.cpp:139] Memory required for data: 2087680
I0428 19:32:13.579043 22784 layer_factory.hpp:77] Creating layer loss
I0428 19:32:13.579051 22784 net.cpp:86] Creating Layer loss
I0428 19:32:13.579057 22784 net.cpp:408] loss <- ip3
I0428 19:32:13.579063 22784 net.cpp:408] loss <- label
I0428 19:32:13.579072 22784 net.cpp:382] loss -> loss
I0428 19:32:13.579092 22784 layer_factory.hpp:77] Creating layer loss
…
I0428 19:32:13.579805 22784 solver.cpp:173] Creating test net (#0) specified by net file: ECE595/mnist/train_test/var_everything2/lenet_train_test146.prototxt
I0428 19:32:13.579838 22784 net.cpp:296] The NetState phase (1) differed from the phase (0) specified by a rule in layer mnist
I0428 19:32:13.579923 22784 net.cpp:53] Initializing net from parameters: 
name: "LeNet"
state {
  phase: TEST
}
layer {
  name: "mnist"
  type: "Data"
  top: "data"
  top: "label"
  include {
    phase: TEST
  }
  transform_param {
    scale: 0.00390625
  }
  data_param {
    source: "examples/mnist/mnist_test_lmdb"
    batch_size: 100
    backend: LMDB
  }
}
layer {
  name: "conv0"
  type: "Convolution"
  bottom: "data"
  top: "conv0"
  param {
    lr_mult: 1
  }
  param {
    lr_mult: 2
  }
  convolution_param {
    num_output: 10
    kernel_size: 5
    stride: 1
    weight_filler {
      type: "xavier"
    }
    bias_filler {
      type: "constant"
    }
  }
}
layer {
  name: "pool0"
  type: "Pooling"
  bottom: "conv0"
  top: "pool0"
  pooling_param {
    pool: MAX
    kernel_size: 2
    stride: 2
  }
}
layer {
  name: "ip1"
  type: "InnerProduct"
  bottom: "pool0"
  top: "ip1"
  param {
    lr_mult: 1
  }
  param {
    lr_mult: 2
  }
  inner_product_param {
    num_output: 25
    weight_filler {
      type: "xavier"
    }
    bias_filler {
      type: "constant"
    }
  }
}
layer {
  name: "relu1"
  type: "ReLU"
  bottom: "ip1"
  top: "ip1"
}
layer {
  name: "ip2"
  type: "InnerProduct"
  bottom: "ip1"
  top: "ip2"
  param {
    lr_mult: 1
  }
  param {
    lr_mult: 2
  }
  inner_product_param {
    num_output: 50
    weight_filler {
      type: "xavier"
    }
    bias_filler {
      type: "constant"
    }
  }
}
layer {
  name: "relu2"
  type: "ReLU"
  bottom: "ip2"
  top: "ip2"
}
layer {
  name: "ip3"
  type: "InnerProduct"
  bottom: "ip2"
  top: "ip3"
  param {
    lr_mult: 1
  }
  param {
    lr_mult: 2
  }
  inner_product_param {
    num_output: 10
    weight_filler {
      type: "xavier"
    }
    bias_filler {
      type: "constant"
    }
  }
}
layer {
  name: "relu3"
  type: "ReLU"
  bottom: "ip3"
  top: "ip3"
}
layer {
  name: "accuracy"
  type: "Accuracy"
  bottom: "ip3"
  bottom: "label"
  top: "accuracy"
  include {
    phase: TEST
  }
}
layer {
  name: "loss"
  type: "SoftmaxWithLoss"
  bottom: "ip3"
  bottom: "label"
  top: "loss"
}
I0428 19:32:13.580025 22784 layer_factory.hpp:77] Creating layer mnist
I0428 19:32:13.580087 22784 db_lmdb.cpp:35] Opened lmdb examples/mnist/mnist_test_lmdb
I0428 19:32:13.580104 22784 net.cpp:86] Creating Layer mnist
I0428 19:32:13.580111 22784 net.cpp:382] mnist -> data
I0428 19:32:13.580122 22784 net.cpp:382] mnist -> label
I0428 19:32:13.580251 22784 data_layer.cpp:45] output data size: 100,1,28,28
I0428 19:32:13.582475 22784 net.cpp:124] Setting up mnist
I0428 19:32:13.582490 22784 net.cpp:131] Top shape: 100 1 28 28 (78400)
I0428 19:32:13.582499 22784 net.cpp:131] Top shape: 100 (100)
I0428 19:32:13.582504 22784 net.cpp:139] Memory required for data: 314000
I0428 19:32:13.582509 22784 layer_factory.hpp:77] Creating layer label_mnist_1_split
I0428 19:32:13.582520 22784 net.cpp:86] Creating Layer label_mnist_1_split
I0428 19:32:13.582525 22784 net.cpp:408] label_mnist_1_split <- label
I0428 19:32:13.582533 22784 net.cpp:382] label_mnist_1_split -> label_mnist_1_split_0
I0428 19:32:13.582543 22784 net.cpp:382] label_mnist_1_split -> label_mnist_1_split_1
I0428 19:32:13.582613 22784 net.cpp:124] Setting up label_mnist_1_split
I0428 19:32:13.582623 22784 net.cpp:131] Top shape: 100 (100)
I0428 19:32:13.582629 22784 net.cpp:131] Top shape: 100 (100)
I0428 19:32:13.582634 22784 net.cpp:139] Memory required for data: 314800
I0428 19:32:13.582650 22784 layer_factory.hpp:77] Creating layer conv0
I0428 19:32:13.582664 22784 net.cpp:86] Creating Layer conv0
I0428 19:32:13.582670 22784 net.cpp:408] conv0 <- data
I0428 19:32:13.582679 22784 net.cpp:382] conv0 -> conv0
I0428 19:32:13.584406 22784 net.cpp:124] Setting up conv0
I0428 19:32:13.584422 22784 net.cpp:131] Top shape: 100 10 24 24 (576000)
I0428 19:32:13.584429 22784 net.cpp:139] Memory required for data: 2618800
I0428 19:32:13.584457 22784 layer_factory.hpp:77] Creating layer pool0
I0428 19:32:13.584470 22784 net.cpp:86] Creating Layer pool0
I0428 19:32:13.584481 22784 net.cpp:408] pool0 <- conv0
I0428 19:32:13.584491 22784 net.cpp:382] pool0 -> pool0
I0428 19:32:13.584548 22784 net.cpp:124] Setting up pool0
I0428 19:32:13.584558 22784 net.cpp:131] Top shape: 100 10 12 12 (144000)
I0428 19:32:13.584563 22784 net.cpp:139] Memory required for data: 3194800
I0428 19:32:13.584566 22784 layer_factory.hpp:77] Creating layer ip1
I0428 19:32:13.584579 22784 net.cpp:86] Creating Layer ip1
I0428 19:32:13.584585 22784 net.cpp:408] ip1 <- pool0
I0428 19:32:13.584594 22784 net.cpp:382] ip1 -> ip1
I0428 19:32:13.584961 22784 net.cpp:124] Setting up ip1
I0428 19:32:13.584971 22784 net.cpp:131] Top shape: 100 25 (2500)
I0428 19:32:13.584977 22784 net.cpp:139] Memory required for data: 3204800
I0428 19:32:13.584990 22784 layer_factory.hpp:77] Creating layer relu1
I0428 19:32:13.585001 22784 net.cpp:86] Creating Layer relu1
I0428 19:32:13.585008 22784 net.cpp:408] relu1 <- ip1
I0428 19:32:13.585016 22784 net.cpp:369] relu1 -> ip1 (in-place)
I0428 19:32:13.585309 22784 net.cpp:124] Setting up relu1
I0428 19:32:13.585319 22784 net.cpp:131] Top shape: 100 25 (2500)
I0428 19:32:13.585325 22784 net.cpp:139] Memory required for data: 3214800
I0428 19:32:13.585330 22784 layer_factory.hpp:77] Creating layer ip2
I0428 19:32:13.585341 22784 net.cpp:86] Creating Layer ip2
I0428 19:32:13.585347 22784 net.cpp:408] ip2 <- ip1
I0428 19:32:13.585357 22784 net.cpp:382] ip2 -> ip2
I0428 19:32:13.585530 22784 net.cpp:124] Setting up ip2
I0428 19:32:13.585541 22784 net.cpp:131] Top shape: 100 50 (5000)
I0428 19:32:13.585546 22784 net.cpp:139] Memory required for data: 3234800
I0428 19:32:13.585561 22784 layer_factory.hpp:77] Creating layer relu2
I0428 19:32:13.585573 22784 net.cpp:86] Creating Layer relu2
I0428 19:32:13.585579 22784 net.cpp:408] relu2 <- ip2
I0428 19:32:13.585592 22784 net.cpp:369] relu2 -> ip2 (in-place)
I0428 19:32:13.586558 22784 net.cpp:124] Setting up relu2
I0428 19:32:13.586572 22784 net.cpp:131] Top shape: 100 50 (5000)
I0428 19:32:13.586578 22784 net.cpp:139] Memory required for data: 3254800
I0428 19:32:13.586583 22784 layer_factory.hpp:77] Creating layer ip3
I0428 19:32:13.586597 22784 net.cpp:86] Creating Layer ip3
I0428 19:32:13.586603 22784 net.cpp:408] ip3 <- ip2
I0428 19:32:13.586612 22784 net.cpp:382] ip3 -> ip3
I0428 19:32:13.586750 22784 net.cpp:124] Setting up ip3
I0428 19:32:13.586760 22784 net.cpp:131] Top shape: 100 10 (1000)
I0428 19:32:13.586788 22784 net.cpp:139] Memory required for data: 3258800
I0428 19:32:13.586798 22784 layer_factory.hpp:77] Creating layer relu3
I0428 19:32:13.586823 22784 net.cpp:86] Creating Layer relu3
I0428 19:32:13.586833 22784 net.cpp:408] relu3 <- ip3
I0428 19:32:13.586843 22784 net.cpp:369] relu3 -> ip3 (in-place)
I0428 19:32:13.587055 22784 net.cpp:124] Setting up relu3
I0428 19:32:13.587081 22784 net.cpp:131] Top shape: 100 10 (1000)
I0428 19:32:13.587101 22784 net.cpp:139] Memory required for data: 3262800
I0428 19:32:13.587106 22784 layer_factory.hpp:77] Creating layer ip3_relu3_0_split
I0428 19:32:13.587116 22784 net.cpp:86] Creating Layer ip3_relu3_0_split
I0428 19:32:13.587121 22784 net.cpp:408] ip3_relu3_0_split <- ip3
I0428 19:32:13.587131 22784 net.cpp:382] ip3_relu3_0_split -> ip3_relu3_0_split_0
I0428 19:32:13.587141 22784 net.cpp:382] ip3_relu3_0_split -> ip3_relu3_0_split_1
I0428 19:32:13.587203 22784 net.cpp:124] Setting up ip3_relu3_0_split
I0428 19:32:13.587213 22784 net.cpp:131] Top shape: 100 10 (1000)
I0428 19:32:13.587218 22784 net.cpp:131] Top shape: 100 10 (1000)
I0428 19:32:13.587235 22784 net.cpp:139] Memory required for data: 3270800
I0428 19:32:13.587241 22784 layer_factory.hpp:77] Creating layer accuracy
I0428 19:32:13.587249 22784 net.cpp:86] Creating Layer accuracy
I0428 19:32:13.587255 22784 net.cpp:408] accuracy <- ip3_relu3_0_split_0
I0428 19:32:13.587262 22784 net.cpp:408] accuracy <- label_mnist_1_split_0
I0428 19:32:13.587271 22784 net.cpp:382] accuracy -> accuracy
…
