…
I0428 20:05:47.055718 30691 net.cpp:296] The NetState phase (0) differed from the phase (1) specified by a rule in layer mnist
I0428 20:05:47.055734 30691 net.cpp:296] The NetState phase (0) differed from the phase (1) specified by a rule in layer accuracy
I0428 20:05:47.055815 30691 net.cpp:53] Initializing net from parameters: 
name: "LeNet"
state {
  phase: TRAIN
  level: 0
  stage: ""
}
layer {
  name: "mnist"
  type: "Data"
  top: "data"
  top: "label"
  include {
    phase: TRAIN
  }
  transform_param {
    scale: 0.00390625
  }
  data_param {
    source: "examples/mnist/mnist_train_lmdb"
    batch_size: 64
    backend: LMDB
  }
}
layer {
  name: "conv0"
  type: "Convolution"
  bottom: "data"
  top: "conv0"
  param {
    lr_mult: 1
  }
  param {
    lr_mult: 2
  }
  convolution_param {
    num_output: 25
    kernel_size: 5
    stride: 1
    weight_filler {
      type: "xavier"
    }
    bias_filler {
      type: "constant"
    }
  }
}
layer {
  name: "pool0"
  type: "Pooling"
  bottom: "conv0"
  top: "pool0"
  pooling_param {
    pool: MAX
    kernel_size: 2
    stride: 2
  }
}
layer {
  name: "conv1"
  type: "Convolution"
  bottom: "pool0"
  top: "conv1"
  param {
    lr_mult: 1
  }
  param {
    lr_mult: 2
  }
  convolution_param {
    num_output: 2
    kernel_size: 5
    stride: 1
    weight_filler {
      type: "xavier"
    }
    bias_filler {
      type: "constant"
    }
  }
}
layer {
  name: "pool1"
  type: "Pooling"
  bottom: "conv1"
  top: "pool1"
  pooling_param {
    pool: MAX
    kernel_size: 2
    stride: 2
  }
}
layer {
  name: "ip1"
  type: "InnerProduct"
  bottom: "pool1"
  top: "ip1"
  param {
    lr_mult: 1
  }
  param {
    lr_mult: 2
  }
  inner_product_param {
    num_output: 50
    weight_filler {
      type: "xavier"
    }
    bias_filler {
      type: "constant"
    }
  }
}
layer {
  name: "relu1"
  type: "ReLU"
  bottom: "ip1"
  top: "ip1"
}
layer {
  name: "ip2"
  type: "InnerProduct"
  bottom: "ip1"
  top: "ip2"
  param {
    lr_mult: 1
  }
  param {
    lr_mult: 2
  }
  inner_product_param {
    num_output: 25
    weight_filler {
      type: "xavier"
    }
    bias_filler {
      type: "constant"
    }
  }
}
layer {
  name: "relu2"
  type: "ReLU"
  bottom: "ip2"
  top: "ip2"
}
layer {
  name: "ip3"
  type: "InnerProduct"
  bottom: "ip2"
  top: "ip3"
  param {
    lr_mult: 1
  }
  param {
    lr_mult: 2
  }
  inner_product_param {
    num_output: 10
    weight_filler {
      type: "xavier"
    }
    bias_filler {
      type: "constant"
    }
  }
}
layer {
  name: "relu3"
  type: "ReLU"
  bottom: "ip3"
  top: "ip3"
}
layer {
  name: "loss"
  type: "SoftmaxWithLoss"
  bottom: "ip3"
  bottom: "label"
  top: "loss"
}
I0428 20:05:47.055879 30691 layer_factory.hpp:77] Creating layer mnist
I0428 20:05:47.055958 30691 db_lmdb.cpp:35] Opened lmdb examples/mnist/mnist_train_lmdb
I0428 20:05:47.055976 30691 net.cpp:86] Creating Layer mnist
I0428 20:05:47.055982 30691 net.cpp:382] mnist -> data
I0428 20:05:47.056001 30691 net.cpp:382] mnist -> label
I0428 20:05:47.056933 30691 data_layer.cpp:45] output data size: 64,1,28,28
I0428 20:05:47.059088 30691 net.cpp:124] Setting up mnist
I0428 20:05:47.059103 30691 net.cpp:131] Top shape: 64 1 28 28 (50176)
I0428 20:05:47.059109 30691 net.cpp:131] Top shape: 64 (64)
I0428 20:05:47.059111 30691 net.cpp:139] Memory required for data: 200960
I0428 20:05:47.059118 30691 layer_factory.hpp:77] Creating layer conv0
I0428 20:05:47.059136 30691 net.cpp:86] Creating Layer conv0
I0428 20:05:47.059154 30691 net.cpp:408] conv0 <- data
I0428 20:05:47.059164 30691 net.cpp:382] conv0 -> conv0
I0428 20:05:47.292857 30691 net.cpp:124] Setting up conv0
I0428 20:05:47.292914 30691 net.cpp:131] Top shape: 64 25 24 24 (921600)
I0428 20:05:47.292918 30691 net.cpp:139] Memory required for data: 3887360
I0428 20:05:47.292933 30691 layer_factory.hpp:77] Creating layer pool0
I0428 20:05:47.292951 30691 net.cpp:86] Creating Layer pool0
I0428 20:05:47.292955 30691 net.cpp:408] pool0 <- conv0
I0428 20:05:47.292960 30691 net.cpp:382] pool0 -> pool0
I0428 20:05:47.293020 30691 net.cpp:124] Setting up pool0
I0428 20:05:47.293027 30691 net.cpp:131] Top shape: 64 25 12 12 (230400)
I0428 20:05:47.293030 30691 net.cpp:139] Memory required for data: 4808960
I0428 20:05:47.293033 30691 layer_factory.hpp:77] Creating layer conv1
I0428 20:05:47.293045 30691 net.cpp:86] Creating Layer conv1
I0428 20:05:47.293051 30691 net.cpp:408] conv1 <- pool0
I0428 20:05:47.293071 30691 net.cpp:382] conv1 -> conv1
I0428 20:05:47.295745 30691 net.cpp:124] Setting up conv1
I0428 20:05:47.295759 30691 net.cpp:131] Top shape: 64 2 8 8 (8192)
I0428 20:05:47.295763 30691 net.cpp:139] Memory required for data: 4841728
I0428 20:05:47.295788 30691 layer_factory.hpp:77] Creating layer pool1
I0428 20:05:47.295794 30691 net.cpp:86] Creating Layer pool1
I0428 20:05:47.295799 30691 net.cpp:408] pool1 <- conv1
I0428 20:05:47.295804 30691 net.cpp:382] pool1 -> pool1
I0428 20:05:47.295837 30691 net.cpp:124] Setting up pool1
I0428 20:05:47.295861 30691 net.cpp:131] Top shape: 64 2 4 4 (2048)
I0428 20:05:47.295863 30691 net.cpp:139] Memory required for data: 4849920
I0428 20:05:47.295866 30691 layer_factory.hpp:77] Creating layer ip1
I0428 20:05:47.295873 30691 net.cpp:86] Creating Layer ip1
I0428 20:05:47.295876 30691 net.cpp:408] ip1 <- pool1
I0428 20:05:47.295881 30691 net.cpp:382] ip1 -> ip1
I0428 20:05:47.296001 30691 net.cpp:124] Setting up ip1
I0428 20:05:47.296010 30691 net.cpp:131] Top shape: 64 50 (3200)
I0428 20:05:47.296012 30691 net.cpp:139] Memory required for data: 4862720
I0428 20:05:47.296020 30691 layer_factory.hpp:77] Creating layer relu1
I0428 20:05:47.296030 30691 net.cpp:86] Creating Layer relu1
I0428 20:05:47.296032 30691 net.cpp:408] relu1 <- ip1
I0428 20:05:47.296037 30691 net.cpp:369] relu1 -> ip1 (in-place)
I0428 20:05:47.296212 30691 net.cpp:124] Setting up relu1
I0428 20:05:47.296229 30691 net.cpp:131] Top shape: 64 50 (3200)
I0428 20:05:47.296233 30691 net.cpp:139] Memory required for data: 4875520
I0428 20:05:47.296236 30691 layer_factory.hpp:77] Creating layer ip2
I0428 20:05:47.296242 30691 net.cpp:86] Creating Layer ip2
I0428 20:05:47.296245 30691 net.cpp:408] ip2 <- ip1
I0428 20:05:47.296250 30691 net.cpp:382] ip2 -> ip2
I0428 20:05:47.296358 30691 net.cpp:124] Setting up ip2
I0428 20:05:47.296365 30691 net.cpp:131] Top shape: 64 25 (1600)
I0428 20:05:47.296368 30691 net.cpp:139] Memory required for data: 4881920
I0428 20:05:47.296373 30691 layer_factory.hpp:77] Creating layer relu2
I0428 20:05:47.296378 30691 net.cpp:86] Creating Layer relu2
I0428 20:05:47.296381 30691 net.cpp:408] relu2 <- ip2
I0428 20:05:47.296386 30691 net.cpp:369] relu2 -> ip2 (in-place)
I0428 20:05:47.297121 30691 net.cpp:124] Setting up relu2
I0428 20:05:47.297134 30691 net.cpp:131] Top shape: 64 25 (1600)
I0428 20:05:47.297138 30691 net.cpp:139] Memory required for data: 4888320
I0428 20:05:47.297142 30691 layer_factory.hpp:77] Creating layer ip3
I0428 20:05:47.297164 30691 net.cpp:86] Creating Layer ip3
I0428 20:05:47.297169 30691 net.cpp:408] ip3 <- ip2
I0428 20:05:47.297194 30691 net.cpp:382] ip3 -> ip3
I0428 20:05:47.297304 30691 net.cpp:124] Setting up ip3
I0428 20:05:47.297312 30691 net.cpp:131] Top shape: 64 10 (640)
I0428 20:05:47.297317 30691 net.cpp:139] Memory required for data: 4890880
I0428 20:05:47.297323 30691 layer_factory.hpp:77] Creating layer relu3
I0428 20:05:47.297328 30691 net.cpp:86] Creating Layer relu3
I0428 20:05:47.297333 30691 net.cpp:408] relu3 <- ip3
I0428 20:05:47.297343 30691 net.cpp:369] relu3 -> ip3 (in-place)
I0428 20:05:47.297515 30691 net.cpp:124] Setting up relu3
I0428 20:05:47.297525 30691 net.cpp:131] Top shape: 64 10 (640)
I0428 20:05:47.297528 30691 net.cpp:139] Memory required for data: 4893440
I0428 20:05:47.297533 30691 layer_factory.hpp:77] Creating layer loss
I0428 20:05:47.297538 30691 net.cpp:86] Creating Layer loss
I0428 20:05:47.297541 30691 net.cpp:408] loss <- ip3
I0428 20:05:47.297545 30691 net.cpp:408] loss <- label
I0428 20:05:47.297551 30691 net.cpp:382] loss -> loss
I0428 20:05:47.297565 30691 layer_factory.hpp:77] Creating layer loss
…
I0428 20:05:47.298193 30691 solver.cpp:173] Creating test net (#0) specified by net file: ECE595/mnist/train_test/var_everything2/lenet_train_test1009.prototxt
I0428 20:05:47.298219 30691 net.cpp:296] The NetState phase (1) differed from the phase (0) specified by a rule in layer mnist
I0428 20:05:47.298307 30691 net.cpp:53] Initializing net from parameters: 
name: "LeNet"
state {
  phase: TEST
}
layer {
  name: "mnist"
  type: "Data"
  top: "data"
  top: "label"
  include {
    phase: TEST
  }
  transform_param {
    scale: 0.00390625
  }
  data_param {
    source: "examples/mnist/mnist_test_lmdb"
    batch_size: 100
    backend: LMDB
  }
}
layer {
  name: "conv0"
  type: "Convolution"
  bottom: "data"
  top: "conv0"
  param {
    lr_mult: 1
  }
  param {
    lr_mult: 2
  }
  convolution_param {
    num_output: 25
    kernel_size: 5
    stride: 1
    weight_filler {
      type: "xavier"
    }
    bias_filler {
      type: "constant"
    }
  }
}
layer {
  name: "pool0"
  type: "Pooling"
  bottom: "conv0"
  top: "pool0"
  pooling_param {
    pool: MAX
    kernel_size: 2
    stride: 2
  }
}
layer {
  name: "conv1"
  type: "Convolution"
  bottom: "pool0"
  top: "conv1"
  param {
    lr_mult: 1
  }
  param {
    lr_mult: 2
  }
  convolution_param {
    num_output: 2
    kernel_size: 5
    stride: 1
    weight_filler {
      type: "xavier"
    }
    bias_filler {
      type: "constant"
    }
  }
}
layer {
  name: "pool1"
  type: "Pooling"
  bottom: "conv1"
  top: "pool1"
  pooling_param {
    pool: MAX
    kernel_size: 2
    stride: 2
  }
}
layer {
  name: "ip1"
  type: "InnerProduct"
  bottom: "pool1"
  top: "ip1"
  param {
    lr_mult: 1
  }
  param {
    lr_mult: 2
  }
  inner_product_param {
    num_output: 50
    weight_filler {
      type: "xavier"
    }
    bias_filler {
      type: "constant"
    }
  }
}
layer {
  name: "relu1"
  type: "ReLU"
  bottom: "ip1"
  top: "ip1"
}
layer {
  name: "ip2"
  type: "InnerProduct"
  bottom: "ip1"
  top: "ip2"
  param {
    lr_mult: 1
  }
  param {
    lr_mult: 2
  }
  inner_product_param {
    num_output: 25
    weight_filler {
      type: "xavier"
    }
    bias_filler {
      type: "constant"
    }
  }
}
layer {
  name: "relu2"
  type: "ReLU"
  bottom: "ip2"
  top: "ip2"
}
layer {
  name: "ip3"
  type: "InnerProduct"
  bottom: "ip2"
  top: "ip3"
  param {
    lr_mult: 1
  }
  param {
    lr_mult: 2
  }
  inner_product_param {
    num_output: 10
    weight_filler {
      type: "xavier"
    }
    bias_filler {
      type: "constant"
    }
  }
}
layer {
  name: "relu3"
  type: "ReLU"
  bottom: "ip3"
  top: "ip3"
}
layer {
  name: "accuracy"
  type: "Accuracy"
  bottom: "ip3"
  bottom: "label"
  top: "accuracy"
  include {
    phase: TEST
  }
}
layer {
  name: "loss"
  type: "SoftmaxWithLoss"
  bottom: "ip3"
  bottom: "label"
  top: "loss"
}
I0428 20:05:47.298382 30691 layer_factory.hpp:77] Creating layer mnist
I0428 20:05:47.298422 30691 db_lmdb.cpp:35] Opened lmdb examples/mnist/mnist_test_lmdb
I0428 20:05:47.298437 30691 net.cpp:86] Creating Layer mnist
I0428 20:05:47.298444 30691 net.cpp:382] mnist -> data
I0428 20:05:47.298467 30691 net.cpp:382] mnist -> label
I0428 20:05:47.298548 30691 data_layer.cpp:45] output data size: 100,1,28,28
I0428 20:05:47.300403 30691 net.cpp:124] Setting up mnist
I0428 20:05:47.300446 30691 net.cpp:131] Top shape: 100 1 28 28 (78400)
I0428 20:05:47.300451 30691 net.cpp:131] Top shape: 100 (100)
I0428 20:05:47.300469 30691 net.cpp:139] Memory required for data: 314000
I0428 20:05:47.300473 30691 layer_factory.hpp:77] Creating layer label_mnist_1_split
I0428 20:05:47.300480 30691 net.cpp:86] Creating Layer label_mnist_1_split
I0428 20:05:47.300483 30691 net.cpp:408] label_mnist_1_split <- label
I0428 20:05:47.300488 30691 net.cpp:382] label_mnist_1_split -> label_mnist_1_split_0
I0428 20:05:47.300494 30691 net.cpp:382] label_mnist_1_split -> label_mnist_1_split_1
I0428 20:05:47.300537 30691 net.cpp:124] Setting up label_mnist_1_split
I0428 20:05:47.300544 30691 net.cpp:131] Top shape: 100 (100)
I0428 20:05:47.300549 30691 net.cpp:131] Top shape: 100 (100)
I0428 20:05:47.300551 30691 net.cpp:139] Memory required for data: 314800
I0428 20:05:47.300554 30691 layer_factory.hpp:77] Creating layer conv0
I0428 20:05:47.300562 30691 net.cpp:86] Creating Layer conv0
I0428 20:05:47.300566 30691 net.cpp:408] conv0 <- data
I0428 20:05:47.300571 30691 net.cpp:382] conv0 -> conv0
I0428 20:05:47.302359 30691 net.cpp:124] Setting up conv0
I0428 20:05:47.302390 30691 net.cpp:131] Top shape: 100 25 24 24 (1440000)
I0428 20:05:47.302394 30691 net.cpp:139] Memory required for data: 6074800
I0428 20:05:47.302404 30691 layer_factory.hpp:77] Creating layer pool0
I0428 20:05:47.302412 30691 net.cpp:86] Creating Layer pool0
I0428 20:05:47.302415 30691 net.cpp:408] pool0 <- conv0
I0428 20:05:47.302420 30691 net.cpp:382] pool0 -> pool0
I0428 20:05:47.302474 30691 net.cpp:124] Setting up pool0
I0428 20:05:47.302481 30691 net.cpp:131] Top shape: 100 25 12 12 (360000)
I0428 20:05:47.302485 30691 net.cpp:139] Memory required for data: 7514800
I0428 20:05:47.302489 30691 layer_factory.hpp:77] Creating layer conv1
I0428 20:05:47.302497 30691 net.cpp:86] Creating Layer conv1
I0428 20:05:47.302503 30691 net.cpp:408] conv1 <- pool0
I0428 20:05:47.302510 30691 net.cpp:382] conv1 -> conv1
I0428 20:05:47.304711 30691 net.cpp:124] Setting up conv1
I0428 20:05:47.304740 30691 net.cpp:131] Top shape: 100 2 8 8 (12800)
I0428 20:05:47.304745 30691 net.cpp:139] Memory required for data: 7566000
I0428 20:05:47.304754 30691 layer_factory.hpp:77] Creating layer pool1
I0428 20:05:47.304761 30691 net.cpp:86] Creating Layer pool1
I0428 20:05:47.304765 30691 net.cpp:408] pool1 <- conv1
I0428 20:05:47.304770 30691 net.cpp:382] pool1 -> pool1
I0428 20:05:47.304829 30691 net.cpp:124] Setting up pool1
I0428 20:05:47.304839 30691 net.cpp:131] Top shape: 100 2 4 4 (3200)
I0428 20:05:47.304843 30691 net.cpp:139] Memory required for data: 7578800
I0428 20:05:47.304848 30691 layer_factory.hpp:77] Creating layer ip1
I0428 20:05:47.304854 30691 net.cpp:86] Creating Layer ip1
I0428 20:05:47.304857 30691 net.cpp:408] ip1 <- pool1
I0428 20:05:47.304863 30691 net.cpp:382] ip1 -> ip1
I0428 20:05:47.304983 30691 net.cpp:124] Setting up ip1
I0428 20:05:47.304991 30691 net.cpp:131] Top shape: 100 50 (5000)
I0428 20:05:47.305006 30691 net.cpp:139] Memory required for data: 7598800
I0428 20:05:47.305013 30691 layer_factory.hpp:77] Creating layer relu1
I0428 20:05:47.305021 30691 net.cpp:86] Creating Layer relu1
I0428 20:05:47.305024 30691 net.cpp:408] relu1 <- ip1
I0428 20:05:47.305028 30691 net.cpp:369] relu1 -> ip1 (in-place)
I0428 20:05:47.305205 30691 net.cpp:124] Setting up relu1
I0428 20:05:47.305214 30691 net.cpp:131] Top shape: 100 50 (5000)
I0428 20:05:47.305218 30691 net.cpp:139] Memory required for data: 7618800
I0428 20:05:47.305222 30691 layer_factory.hpp:77] Creating layer ip2
I0428 20:05:47.305229 30691 net.cpp:86] Creating Layer ip2
I0428 20:05:47.305233 30691 net.cpp:408] ip2 <- ip1
I0428 20:05:47.305238 30691 net.cpp:382] ip2 -> ip2
I0428 20:05:47.305351 30691 net.cpp:124] Setting up ip2
I0428 20:05:47.305358 30691 net.cpp:131] Top shape: 100 25 (2500)
I0428 20:05:47.305362 30691 net.cpp:139] Memory required for data: 7628800
I0428 20:05:47.305367 30691 layer_factory.hpp:77] Creating layer relu2
I0428 20:05:47.305371 30691 net.cpp:86] Creating Layer relu2
I0428 20:05:47.305374 30691 net.cpp:408] relu2 <- ip2
I0428 20:05:47.305388 30691 net.cpp:369] relu2 -> ip2 (in-place)
I0428 20:05:47.305544 30691 net.cpp:124] Setting up relu2
I0428 20:05:47.305553 30691 net.cpp:131] Top shape: 100 25 (2500)
I0428 20:05:47.305557 30691 net.cpp:139] Memory required for data: 7638800
I0428 20:05:47.305560 30691 layer_factory.hpp:77] Creating layer ip3
I0428 20:05:47.305567 30691 net.cpp:86] Creating Layer ip3
I0428 20:05:47.305569 30691 net.cpp:408] ip3 <- ip2
I0428 20:05:47.305574 30691 net.cpp:382] ip3 -> ip3
I0428 20:05:47.305681 30691 net.cpp:124] Setting up ip3
I0428 20:05:47.305690 30691 net.cpp:131] Top shape: 100 10 (1000)
I0428 20:05:47.305693 30691 net.cpp:139] Memory required for data: 7642800
I0428 20:05:47.305701 30691 layer_factory.hpp:77] Creating layer relu3
I0428 20:05:47.305708 30691 net.cpp:86] Creating Layer relu3
I0428 20:05:47.305712 30691 net.cpp:408] relu3 <- ip3
I0428 20:05:47.305716 30691 net.cpp:369] relu3 -> ip3 (in-place)
I0428 20:05:47.306550 30691 net.cpp:124] Setting up relu3
I0428 20:05:47.306577 30691 net.cpp:131] Top shape: 100 10 (1000)
I0428 20:05:47.306581 30691 net.cpp:139] Memory required for data: 7646800
I0428 20:05:47.306584 30691 layer_factory.hpp:77] Creating layer ip3_relu3_0_split
I0428 20:05:47.306591 30691 net.cpp:86] Creating Layer ip3_relu3_0_split
I0428 20:05:47.306596 30691 net.cpp:408] ip3_relu3_0_split <- ip3
I0428 20:05:47.306601 30691 net.cpp:382] ip3_relu3_0_split -> ip3_relu3_0_split_0
I0428 20:05:47.306607 30691 net.cpp:382] ip3_relu3_0_split -> ip3_relu3_0_split_1
I0428 20:05:47.306664 30691 net.cpp:124] Setting up ip3_relu3_0_split
I0428 20:05:47.306671 30691 net.cpp:131] Top shape: 100 10 (1000)
I0428 20:05:47.306675 30691 net.cpp:131] Top shape: 100 10 (1000)
I0428 20:05:47.306679 30691 net.cpp:139] Memory required for data: 7654800
I0428 20:05:47.306681 30691 layer_factory.hpp:77] Creating layer accuracy
I0428 20:05:47.306701 30691 net.cpp:86] Creating Layer accuracy
I0428 20:05:47.306704 30691 net.cpp:408] accuracy <- ip3_relu3_0_split_0
I0428 20:05:47.306710 30691 net.cpp:408] accuracy <- label_mnist_1_split_0
I0428 20:05:47.306713 30691 net.cpp:382] accuracy -> accuracy
…
