…
I0428 19:51:25.735152 27278 net.cpp:296] The NetState phase (0) differed from the phase (1) specified by a rule in layer mnist
I0428 19:51:25.735182 27278 net.cpp:296] The NetState phase (0) differed from the phase (1) specified by a rule in layer accuracy
I0428 19:51:25.735250 27278 net.cpp:53] Initializing net from parameters: 
name: "LeNet"
state {
  phase: TRAIN
  level: 0
  stage: ""
}
layer {
  name: "mnist"
  type: "Data"
  top: "data"
  top: "label"
  include {
    phase: TRAIN
  }
  transform_param {
    scale: 0.00390625
  }
  data_param {
    source: "examples/mnist/mnist_train_lmdb"
    batch_size: 64
    backend: LMDB
  }
}
layer {
  name: "conv0"
  type: "Convolution"
  bottom: "data"
  top: "conv0"
  param {
    lr_mult: 1
  }
  param {
    lr_mult: 2
  }
  convolution_param {
    num_output: 5
    kernel_size: 5
    stride: 1
    weight_filler {
      type: "xavier"
    }
    bias_filler {
      type: "constant"
    }
  }
}
layer {
  name: "pool0"
  type: "Pooling"
  bottom: "conv0"
  top: "pool0"
  pooling_param {
    pool: MAX
    kernel_size: 2
    stride: 2
  }
}
layer {
  name: "conv1"
  type: "Convolution"
  bottom: "pool0"
  top: "conv1"
  param {
    lr_mult: 1
  }
  param {
    lr_mult: 2
  }
  convolution_param {
    num_output: 25
    kernel_size: 5
    stride: 1
    weight_filler {
      type: "xavier"
    }
    bias_filler {
      type: "constant"
    }
  }
}
layer {
  name: "pool1"
  type: "Pooling"
  bottom: "conv1"
  top: "pool1"
  pooling_param {
    pool: MAX
    kernel_size: 2
    stride: 2
  }
}
layer {
  name: "ip1"
  type: "InnerProduct"
  bottom: "pool1"
  top: "ip1"
  param {
    lr_mult: 1
  }
  param {
    lr_mult: 2
  }
  inner_product_param {
    num_output: 50
    weight_filler {
      type: "xavier"
    }
    bias_filler {
      type: "constant"
    }
  }
}
layer {
  name: "relu1"
  type: "ReLU"
  bottom: "ip1"
  top: "ip1"
}
layer {
  name: "ip2"
  type: "InnerProduct"
  bottom: "ip1"
  top: "ip2"
  param {
    lr_mult: 1
  }
  param {
    lr_mult: 2
  }
  inner_product_param {
    num_output: 10
    weight_filler {
      type: "xavier"
    }
    bias_filler {
      type: "constant"
    }
  }
}
layer {
  name: "relu2"
  type: "ReLU"
  bottom: "ip2"
  top: "ip2"
}
layer {
  name: "loss"
  type: "SoftmaxWithLoss"
  bottom: "ip2"
  bottom: "label"
  top: "loss"
}
I0428 19:51:25.735309 27278 layer_factory.hpp:77] Creating layer mnist
I0428 19:51:25.735388 27278 db_lmdb.cpp:35] Opened lmdb examples/mnist/mnist_train_lmdb
I0428 19:51:25.735407 27278 net.cpp:86] Creating Layer mnist
I0428 19:51:25.735412 27278 net.cpp:382] mnist -> data
I0428 19:51:25.735432 27278 net.cpp:382] mnist -> label
I0428 19:51:25.736402 27278 data_layer.cpp:45] output data size: 64,1,28,28
I0428 19:51:25.738665 27278 net.cpp:124] Setting up mnist
I0428 19:51:25.738714 27278 net.cpp:131] Top shape: 64 1 28 28 (50176)
I0428 19:51:25.738719 27278 net.cpp:131] Top shape: 64 (64)
I0428 19:51:25.738723 27278 net.cpp:139] Memory required for data: 200960
I0428 19:51:25.738729 27278 layer_factory.hpp:77] Creating layer conv0
I0428 19:51:25.738744 27278 net.cpp:86] Creating Layer conv0
I0428 19:51:25.738749 27278 net.cpp:408] conv0 <- data
I0428 19:51:25.738759 27278 net.cpp:382] conv0 -> conv0
I0428 19:51:25.968032 27278 net.cpp:124] Setting up conv0
I0428 19:51:25.968076 27278 net.cpp:131] Top shape: 64 5 24 24 (184320)
I0428 19:51:25.968080 27278 net.cpp:139] Memory required for data: 938240
I0428 19:51:25.968111 27278 layer_factory.hpp:77] Creating layer pool0
I0428 19:51:25.968123 27278 net.cpp:86] Creating Layer pool0
I0428 19:51:25.968127 27278 net.cpp:408] pool0 <- conv0
I0428 19:51:25.968132 27278 net.cpp:382] pool0 -> pool0
I0428 19:51:25.968178 27278 net.cpp:124] Setting up pool0
I0428 19:51:25.968183 27278 net.cpp:131] Top shape: 64 5 12 12 (46080)
I0428 19:51:25.968185 27278 net.cpp:139] Memory required for data: 1122560
I0428 19:51:25.968189 27278 layer_factory.hpp:77] Creating layer conv1
I0428 19:51:25.968197 27278 net.cpp:86] Creating Layer conv1
I0428 19:51:25.968200 27278 net.cpp:408] conv1 <- pool0
I0428 19:51:25.968205 27278 net.cpp:382] conv1 -> conv1
I0428 19:51:25.971056 27278 net.cpp:124] Setting up conv1
I0428 19:51:25.971087 27278 net.cpp:131] Top shape: 64 25 8 8 (102400)
I0428 19:51:25.971091 27278 net.cpp:139] Memory required for data: 1532160
I0428 19:51:25.971101 27278 layer_factory.hpp:77] Creating layer pool1
I0428 19:51:25.971122 27278 net.cpp:86] Creating Layer pool1
I0428 19:51:25.971125 27278 net.cpp:408] pool1 <- conv1
I0428 19:51:25.971146 27278 net.cpp:382] pool1 -> pool1
I0428 19:51:25.971184 27278 net.cpp:124] Setting up pool1
I0428 19:51:25.971190 27278 net.cpp:131] Top shape: 64 25 4 4 (25600)
I0428 19:51:25.971194 27278 net.cpp:139] Memory required for data: 1634560
I0428 19:51:25.971196 27278 layer_factory.hpp:77] Creating layer ip1
I0428 19:51:25.971204 27278 net.cpp:86] Creating Layer ip1
I0428 19:51:25.971206 27278 net.cpp:408] ip1 <- pool1
I0428 19:51:25.971225 27278 net.cpp:382] ip1 -> ip1
I0428 19:51:25.971441 27278 net.cpp:124] Setting up ip1
I0428 19:51:25.971449 27278 net.cpp:131] Top shape: 64 50 (3200)
I0428 19:51:25.971452 27278 net.cpp:139] Memory required for data: 1647360
I0428 19:51:25.971459 27278 layer_factory.hpp:77] Creating layer relu1
I0428 19:51:25.971464 27278 net.cpp:86] Creating Layer relu1
I0428 19:51:25.971470 27278 net.cpp:408] relu1 <- ip1
I0428 19:51:25.971474 27278 net.cpp:369] relu1 -> ip1 (in-place)
I0428 19:51:25.971648 27278 net.cpp:124] Setting up relu1
I0428 19:51:25.971657 27278 net.cpp:131] Top shape: 64 50 (3200)
I0428 19:51:25.971659 27278 net.cpp:139] Memory required for data: 1660160
I0428 19:51:25.971662 27278 layer_factory.hpp:77] Creating layer ip2
I0428 19:51:25.971669 27278 net.cpp:86] Creating Layer ip2
I0428 19:51:25.971673 27278 net.cpp:408] ip2 <- ip1
I0428 19:51:25.971681 27278 net.cpp:382] ip2 -> ip2
I0428 19:51:25.971772 27278 net.cpp:124] Setting up ip2
I0428 19:51:25.971779 27278 net.cpp:131] Top shape: 64 10 (640)
I0428 19:51:25.971782 27278 net.cpp:139] Memory required for data: 1662720
I0428 19:51:25.971787 27278 layer_factory.hpp:77] Creating layer relu2
I0428 19:51:25.971792 27278 net.cpp:86] Creating Layer relu2
I0428 19:51:25.971796 27278 net.cpp:408] relu2 <- ip2
I0428 19:51:25.971799 27278 net.cpp:369] relu2 -> ip2 (in-place)
I0428 19:51:25.972625 27278 net.cpp:124] Setting up relu2
I0428 19:51:25.972637 27278 net.cpp:131] Top shape: 64 10 (640)
I0428 19:51:25.972640 27278 net.cpp:139] Memory required for data: 1665280
I0428 19:51:25.972645 27278 layer_factory.hpp:77] Creating layer loss
I0428 19:51:25.972651 27278 net.cpp:86] Creating Layer loss
I0428 19:51:25.972654 27278 net.cpp:408] loss <- ip2
I0428 19:51:25.972658 27278 net.cpp:408] loss <- label
I0428 19:51:25.972664 27278 net.cpp:382] loss -> loss
I0428 19:51:25.972685 27278 layer_factory.hpp:77] Creating layer loss
…
I0428 19:51:25.973485 27278 solver.cpp:173] Creating test net (#0) specified by net file: ECE595/mnist/train_test/var_everything2/lenet_train_test633.prototxt
I0428 19:51:25.973541 27278 net.cpp:296] The NetState phase (1) differed from the phase (0) specified by a rule in layer mnist
I0428 19:51:25.973644 27278 net.cpp:53] Initializing net from parameters: 
name: "LeNet"
state {
  phase: TEST
}
layer {
  name: "mnist"
  type: "Data"
  top: "data"
  top: "label"
  include {
    phase: TEST
  }
  transform_param {
    scale: 0.00390625
  }
  data_param {
    source: "examples/mnist/mnist_test_lmdb"
    batch_size: 100
    backend: LMDB
  }
}
layer {
  name: "conv0"
  type: "Convolution"
  bottom: "data"
  top: "conv0"
  param {
    lr_mult: 1
  }
  param {
    lr_mult: 2
  }
  convolution_param {
    num_output: 5
    kernel_size: 5
    stride: 1
    weight_filler {
      type: "xavier"
    }
    bias_filler {
      type: "constant"
    }
  }
}
layer {
  name: "pool0"
  type: "Pooling"
  bottom: "conv0"
  top: "pool0"
  pooling_param {
    pool: MAX
    kernel_size: 2
    stride: 2
  }
}
layer {
  name: "conv1"
  type: "Convolution"
  bottom: "pool0"
  top: "conv1"
  param {
    lr_mult: 1
  }
  param {
    lr_mult: 2
  }
  convolution_param {
    num_output: 25
    kernel_size: 5
    stride: 1
    weight_filler {
      type: "xavier"
    }
    bias_filler {
      type: "constant"
    }
  }
}
layer {
  name: "pool1"
  type: "Pooling"
  bottom: "conv1"
  top: "pool1"
  pooling_param {
    pool: MAX
    kernel_size: 2
    stride: 2
  }
}
layer {
  name: "ip1"
  type: "InnerProduct"
  bottom: "pool1"
  top: "ip1"
  param {
    lr_mult: 1
  }
  param {
    lr_mult: 2
  }
  inner_product_param {
    num_output: 50
    weight_filler {
      type: "xavier"
    }
    bias_filler {
      type: "constant"
    }
  }
}
layer {
  name: "relu1"
  type: "ReLU"
  bottom: "ip1"
  top: "ip1"
}
layer {
  name: "ip2"
  type: "InnerProduct"
  bottom: "ip1"
  top: "ip2"
  param {
    lr_mult: 1
  }
  param {
    lr_mult: 2
  }
  inner_product_param {
    num_output: 10
    weight_filler {
      type: "xavier"
    }
    bias_filler {
      type: "constant"
    }
  }
}
layer {
  name: "relu2"
  type: "ReLU"
  bottom: "ip2"
  top: "ip2"
}
layer {
  name: "accuracy"
  type: "Accuracy"
  bottom: "ip2"
  bottom: "label"
  top: "accuracy"
  include {
    phase: TEST
  }
}
layer {
  name: "loss"
  type: "SoftmaxWithLoss"
  bottom: "ip2"
  bottom: "label"
  top: "loss"
}
I0428 19:51:25.973729 27278 layer_factory.hpp:77] Creating layer mnist
I0428 19:51:25.973776 27278 db_lmdb.cpp:35] Opened lmdb examples/mnist/mnist_test_lmdb
I0428 19:51:25.973790 27278 net.cpp:86] Creating Layer mnist
I0428 19:51:25.973795 27278 net.cpp:382] mnist -> data
I0428 19:51:25.973803 27278 net.cpp:382] mnist -> label
I0428 19:51:25.973925 27278 data_layer.cpp:45] output data size: 100,1,28,28
I0428 19:51:25.976258 27278 net.cpp:124] Setting up mnist
I0428 19:51:25.976270 27278 net.cpp:131] Top shape: 100 1 28 28 (78400)
I0428 19:51:25.976291 27278 net.cpp:131] Top shape: 100 (100)
I0428 19:51:25.976294 27278 net.cpp:139] Memory required for data: 314000
I0428 19:51:25.976299 27278 layer_factory.hpp:77] Creating layer label_mnist_1_split
I0428 19:51:25.976346 27278 net.cpp:86] Creating Layer label_mnist_1_split
I0428 19:51:25.976351 27278 net.cpp:408] label_mnist_1_split <- label
I0428 19:51:25.976356 27278 net.cpp:382] label_mnist_1_split -> label_mnist_1_split_0
I0428 19:51:25.976364 27278 net.cpp:382] label_mnist_1_split -> label_mnist_1_split_1
I0428 19:51:25.976420 27278 net.cpp:124] Setting up label_mnist_1_split
I0428 19:51:25.976438 27278 net.cpp:131] Top shape: 100 (100)
I0428 19:51:25.976440 27278 net.cpp:131] Top shape: 100 (100)
I0428 19:51:25.976444 27278 net.cpp:139] Memory required for data: 314800
I0428 19:51:25.976447 27278 layer_factory.hpp:77] Creating layer conv0
I0428 19:51:25.976456 27278 net.cpp:86] Creating Layer conv0
I0428 19:51:25.976476 27278 net.cpp:408] conv0 <- data
I0428 19:51:25.976483 27278 net.cpp:382] conv0 -> conv0
I0428 19:51:25.978149 27278 net.cpp:124] Setting up conv0
I0428 19:51:25.978178 27278 net.cpp:131] Top shape: 100 5 24 24 (288000)
I0428 19:51:25.978184 27278 net.cpp:139] Memory required for data: 1466800
I0428 19:51:25.978193 27278 layer_factory.hpp:77] Creating layer pool0
I0428 19:51:25.978199 27278 net.cpp:86] Creating Layer pool0
I0428 19:51:25.978204 27278 net.cpp:408] pool0 <- conv0
I0428 19:51:25.978207 27278 net.cpp:382] pool0 -> pool0
I0428 19:51:25.978245 27278 net.cpp:124] Setting up pool0
I0428 19:51:25.978251 27278 net.cpp:131] Top shape: 100 5 12 12 (72000)
I0428 19:51:25.978255 27278 net.cpp:139] Memory required for data: 1754800
I0428 19:51:25.978257 27278 layer_factory.hpp:77] Creating layer conv1
I0428 19:51:25.978266 27278 net.cpp:86] Creating Layer conv1
I0428 19:51:25.978271 27278 net.cpp:408] conv1 <- pool0
I0428 19:51:25.978277 27278 net.cpp:382] conv1 -> conv1
I0428 19:51:25.980350 27278 net.cpp:124] Setting up conv1
I0428 19:51:25.980361 27278 net.cpp:131] Top shape: 100 25 8 8 (160000)
I0428 19:51:25.980365 27278 net.cpp:139] Memory required for data: 2394800
I0428 19:51:25.980373 27278 layer_factory.hpp:77] Creating layer pool1
I0428 19:51:25.980378 27278 net.cpp:86] Creating Layer pool1
I0428 19:51:25.980382 27278 net.cpp:408] pool1 <- conv1
I0428 19:51:25.980404 27278 net.cpp:382] pool1 -> pool1
I0428 19:51:25.980459 27278 net.cpp:124] Setting up pool1
I0428 19:51:25.980466 27278 net.cpp:131] Top shape: 100 25 4 4 (40000)
I0428 19:51:25.980469 27278 net.cpp:139] Memory required for data: 2554800
I0428 19:51:25.980473 27278 layer_factory.hpp:77] Creating layer ip1
I0428 19:51:25.980479 27278 net.cpp:86] Creating Layer ip1
I0428 19:51:25.980484 27278 net.cpp:408] ip1 <- pool1
I0428 19:51:25.980489 27278 net.cpp:382] ip1 -> ip1
I0428 19:51:25.980702 27278 net.cpp:124] Setting up ip1
I0428 19:51:25.980711 27278 net.cpp:131] Top shape: 100 50 (5000)
I0428 19:51:25.980713 27278 net.cpp:139] Memory required for data: 2574800
I0428 19:51:25.980721 27278 layer_factory.hpp:77] Creating layer relu1
I0428 19:51:25.980726 27278 net.cpp:86] Creating Layer relu1
I0428 19:51:25.980729 27278 net.cpp:408] relu1 <- ip1
I0428 19:51:25.980733 27278 net.cpp:369] relu1 -> ip1 (in-place)
I0428 19:51:25.980911 27278 net.cpp:124] Setting up relu1
I0428 19:51:25.980921 27278 net.cpp:131] Top shape: 100 50 (5000)
I0428 19:51:25.980924 27278 net.cpp:139] Memory required for data: 2594800
I0428 19:51:25.980927 27278 layer_factory.hpp:77] Creating layer ip2
I0428 19:51:25.980934 27278 net.cpp:86] Creating Layer ip2
I0428 19:51:25.980938 27278 net.cpp:408] ip2 <- ip1
I0428 19:51:25.980944 27278 net.cpp:382] ip2 -> ip2
I0428 19:51:25.981047 27278 net.cpp:124] Setting up ip2
I0428 19:51:25.981056 27278 net.cpp:131] Top shape: 100 10 (1000)
I0428 19:51:25.981060 27278 net.cpp:139] Memory required for data: 2598800
I0428 19:51:25.981065 27278 layer_factory.hpp:77] Creating layer relu2
I0428 19:51:25.981070 27278 net.cpp:86] Creating Layer relu2
I0428 19:51:25.981073 27278 net.cpp:408] relu2 <- ip2
I0428 19:51:25.981078 27278 net.cpp:369] relu2 -> ip2 (in-place)
I0428 19:51:25.981264 27278 net.cpp:124] Setting up relu2
I0428 19:51:25.981272 27278 net.cpp:131] Top shape: 100 10 (1000)
I0428 19:51:25.981276 27278 net.cpp:139] Memory required for data: 2602800
I0428 19:51:25.981279 27278 layer_factory.hpp:77] Creating layer ip2_relu2_0_split
I0428 19:51:25.981283 27278 net.cpp:86] Creating Layer ip2_relu2_0_split
I0428 19:51:25.981287 27278 net.cpp:408] ip2_relu2_0_split <- ip2
I0428 19:51:25.981292 27278 net.cpp:382] ip2_relu2_0_split -> ip2_relu2_0_split_0
I0428 19:51:25.981307 27278 net.cpp:382] ip2_relu2_0_split -> ip2_relu2_0_split_1
I0428 19:51:25.981348 27278 net.cpp:124] Setting up ip2_relu2_0_split
I0428 19:51:25.981370 27278 net.cpp:131] Top shape: 100 10 (1000)
I0428 19:51:25.981374 27278 net.cpp:131] Top shape: 100 10 (1000)
I0428 19:51:25.981377 27278 net.cpp:139] Memory required for data: 2610800
I0428 19:51:25.981380 27278 layer_factory.hpp:77] Creating layer accuracy
I0428 19:51:25.981384 27278 net.cpp:86] Creating Layer accuracy
I0428 19:51:25.981387 27278 net.cpp:408] accuracy <- ip2_relu2_0_split_0
I0428 19:51:25.981391 27278 net.cpp:408] accuracy <- label_mnist_1_split_0
I0428 19:51:25.981395 27278 net.cpp:382] accuracy -> accuracy
…
