…
I0428 19:49:05.845161 26669 net.cpp:296] The NetState phase (0) differed from the phase (1) specified by a rule in layer mnist
I0428 19:49:05.845182 26669 net.cpp:296] The NetState phase (0) differed from the phase (1) specified by a rule in layer accuracy
I0428 19:49:05.845284 26669 net.cpp:53] Initializing net from parameters: 
name: "LeNet"
state {
  phase: TRAIN
  level: 0
  stage: ""
}
layer {
  name: "mnist"
  type: "Data"
  top: "data"
  top: "label"
  include {
    phase: TRAIN
  }
  transform_param {
    scale: 0.00390625
  }
  data_param {
    source: "examples/mnist/mnist_train_lmdb"
    batch_size: 64
    backend: LMDB
  }
}
layer {
  name: "conv0"
  type: "Convolution"
  bottom: "data"
  top: "conv0"
  param {
    lr_mult: 1
  }
  param {
    lr_mult: 2
  }
  convolution_param {
    num_output: 5
    kernel_size: 5
    stride: 1
    weight_filler {
      type: "xavier"
    }
    bias_filler {
      type: "constant"
    }
  }
}
layer {
  name: "pool0"
  type: "Pooling"
  bottom: "conv0"
  top: "pool0"
  pooling_param {
    pool: MAX
    kernel_size: 2
    stride: 2
  }
}
layer {
  name: "conv1"
  type: "Convolution"
  bottom: "pool0"
  top: "conv1"
  param {
    lr_mult: 1
  }
  param {
    lr_mult: 2
  }
  convolution_param {
    num_output: 5
    kernel_size: 5
    stride: 1
    weight_filler {
      type: "xavier"
    }
    bias_filler {
      type: "constant"
    }
  }
}
layer {
  name: "pool1"
  type: "Pooling"
  bottom: "conv1"
  top: "pool1"
  pooling_param {
    pool: MAX
    kernel_size: 2
    stride: 2
  }
}
layer {
  name: "ip1"
  type: "InnerProduct"
  bottom: "pool1"
  top: "ip1"
  param {
    lr_mult: 1
  }
  param {
    lr_mult: 2
  }
  inner_product_param {
    num_output: 10
    weight_filler {
      type: "xavier"
    }
    bias_filler {
      type: "constant"
    }
  }
}
layer {
  name: "relu1"
  type: "ReLU"
  bottom: "ip1"
  top: "ip1"
}
layer {
  name: "ip2"
  type: "InnerProduct"
  bottom: "ip1"
  top: "ip2"
  param {
    lr_mult: 1
  }
  param {
    lr_mult: 2
  }
  inner_product_param {
    num_output: 50
    weight_filler {
      type: "xavier"
    }
    bias_filler {
      type: "constant"
    }
  }
}
layer {
  name: "relu2"
  type: "ReLU"
  bottom: "ip2"
  top: "ip2"
}
layer {
  name: "ip3"
  type: "InnerProduct"
  bottom: "ip2"
  top: "ip3"
  param {
    lr_mult: 1
  }
  param {
    lr_mult: 2
  }
  inner_product_param {
    num_output: 10
    weight_filler {
      type: "xavier"
    }
    bias_filler {
      type: "constant"
    }
  }
}
layer {
  name: "relu3"
  type: "ReLU"
  bottom: "ip3"
  top: "ip3"
}
layer {
  name: "loss"
  type: "SoftmaxWithLoss"
  bottom: "ip3"
  bottom: "label"
  top: "loss"
}
I0428 19:49:05.845365 26669 layer_factory.hpp:77] Creating layer mnist
I0428 19:49:05.845464 26669 db_lmdb.cpp:35] Opened lmdb examples/mnist/mnist_train_lmdb
I0428 19:49:05.845489 26669 net.cpp:86] Creating Layer mnist
I0428 19:49:05.845499 26669 net.cpp:382] mnist -> data
I0428 19:49:05.845521 26669 net.cpp:382] mnist -> label
I0428 19:49:05.846616 26669 data_layer.cpp:45] output data size: 64,1,28,28
I0428 19:49:05.849084 26669 net.cpp:124] Setting up mnist
I0428 19:49:05.849103 26669 net.cpp:131] Top shape: 64 1 28 28 (50176)
I0428 19:49:05.849109 26669 net.cpp:131] Top shape: 64 (64)
I0428 19:49:05.849113 26669 net.cpp:139] Memory required for data: 200960
I0428 19:49:05.849120 26669 layer_factory.hpp:77] Creating layer conv0
I0428 19:49:05.849138 26669 net.cpp:86] Creating Layer conv0
I0428 19:49:05.849159 26669 net.cpp:408] conv0 <- data
I0428 19:49:05.849174 26669 net.cpp:382] conv0 -> conv0
I0428 19:49:06.140455 26669 net.cpp:124] Setting up conv0
I0428 19:49:06.140489 26669 net.cpp:131] Top shape: 64 5 24 24 (184320)
I0428 19:49:06.140494 26669 net.cpp:139] Memory required for data: 938240
I0428 19:49:06.140512 26669 layer_factory.hpp:77] Creating layer pool0
I0428 19:49:06.140528 26669 net.cpp:86] Creating Layer pool0
I0428 19:49:06.140533 26669 net.cpp:408] pool0 <- conv0
I0428 19:49:06.140539 26669 net.cpp:382] pool0 -> pool0
I0428 19:49:06.140596 26669 net.cpp:124] Setting up pool0
I0428 19:49:06.140606 26669 net.cpp:131] Top shape: 64 5 12 12 (46080)
I0428 19:49:06.140610 26669 net.cpp:139] Memory required for data: 1122560
I0428 19:49:06.140614 26669 layer_factory.hpp:77] Creating layer conv1
I0428 19:49:06.140627 26669 net.cpp:86] Creating Layer conv1
I0428 19:49:06.140631 26669 net.cpp:408] conv1 <- pool0
I0428 19:49:06.140637 26669 net.cpp:382] conv1 -> conv1
I0428 19:49:06.142796 26669 net.cpp:124] Setting up conv1
I0428 19:49:06.142814 26669 net.cpp:131] Top shape: 64 5 8 8 (20480)
I0428 19:49:06.142819 26669 net.cpp:139] Memory required for data: 1204480
I0428 19:49:06.142829 26669 layer_factory.hpp:77] Creating layer pool1
I0428 19:49:06.142838 26669 net.cpp:86] Creating Layer pool1
I0428 19:49:06.142843 26669 net.cpp:408] pool1 <- conv1
I0428 19:49:06.142849 26669 net.cpp:382] pool1 -> pool1
I0428 19:49:06.142894 26669 net.cpp:124] Setting up pool1
I0428 19:49:06.142901 26669 net.cpp:131] Top shape: 64 5 4 4 (5120)
I0428 19:49:06.142905 26669 net.cpp:139] Memory required for data: 1224960
I0428 19:49:06.142909 26669 layer_factory.hpp:77] Creating layer ip1
I0428 19:49:06.142917 26669 net.cpp:86] Creating Layer ip1
I0428 19:49:06.142921 26669 net.cpp:408] ip1 <- pool1
I0428 19:49:06.142926 26669 net.cpp:382] ip1 -> ip1
I0428 19:49:06.143049 26669 net.cpp:124] Setting up ip1
I0428 19:49:06.143057 26669 net.cpp:131] Top shape: 64 10 (640)
I0428 19:49:06.143061 26669 net.cpp:139] Memory required for data: 1227520
I0428 19:49:06.143070 26669 layer_factory.hpp:77] Creating layer relu1
I0428 19:49:06.143076 26669 net.cpp:86] Creating Layer relu1
I0428 19:49:06.143080 26669 net.cpp:408] relu1 <- ip1
I0428 19:49:06.143085 26669 net.cpp:369] relu1 -> ip1 (in-place)
I0428 19:49:06.143285 26669 net.cpp:124] Setting up relu1
I0428 19:49:06.143296 26669 net.cpp:131] Top shape: 64 10 (640)
I0428 19:49:06.143299 26669 net.cpp:139] Memory required for data: 1230080
I0428 19:49:06.143303 26669 layer_factory.hpp:77] Creating layer ip2
I0428 19:49:06.143311 26669 net.cpp:86] Creating Layer ip2
I0428 19:49:06.143316 26669 net.cpp:408] ip2 <- ip1
I0428 19:49:06.143321 26669 net.cpp:382] ip2 -> ip2
I0428 19:49:06.143440 26669 net.cpp:124] Setting up ip2
I0428 19:49:06.143448 26669 net.cpp:131] Top shape: 64 50 (3200)
I0428 19:49:06.143452 26669 net.cpp:139] Memory required for data: 1242880
I0428 19:49:06.143458 26669 layer_factory.hpp:77] Creating layer relu2
I0428 19:49:06.143465 26669 net.cpp:86] Creating Layer relu2
I0428 19:49:06.143470 26669 net.cpp:408] relu2 <- ip2
I0428 19:49:06.143474 26669 net.cpp:369] relu2 -> ip2 (in-place)
I0428 19:49:06.144320 26669 net.cpp:124] Setting up relu2
I0428 19:49:06.144335 26669 net.cpp:131] Top shape: 64 50 (3200)
I0428 19:49:06.144338 26669 net.cpp:139] Memory required for data: 1255680
I0428 19:49:06.144343 26669 layer_factory.hpp:77] Creating layer ip3
I0428 19:49:06.144351 26669 net.cpp:86] Creating Layer ip3
I0428 19:49:06.144356 26669 net.cpp:408] ip3 <- ip2
I0428 19:49:06.144361 26669 net.cpp:382] ip3 -> ip3
I0428 19:49:06.144484 26669 net.cpp:124] Setting up ip3
I0428 19:49:06.144495 26669 net.cpp:131] Top shape: 64 10 (640)
I0428 19:49:06.144498 26669 net.cpp:139] Memory required for data: 1258240
I0428 19:49:06.144508 26669 layer_factory.hpp:77] Creating layer relu3
I0428 19:49:06.144520 26669 net.cpp:86] Creating Layer relu3
I0428 19:49:06.144525 26669 net.cpp:408] relu3 <- ip3
I0428 19:49:06.144529 26669 net.cpp:369] relu3 -> ip3 (in-place)
I0428 19:49:06.144727 26669 net.cpp:124] Setting up relu3
I0428 19:49:06.144738 26669 net.cpp:131] Top shape: 64 10 (640)
I0428 19:49:06.144742 26669 net.cpp:139] Memory required for data: 1260800
I0428 19:49:06.144747 26669 layer_factory.hpp:77] Creating layer loss
I0428 19:49:06.144753 26669 net.cpp:86] Creating Layer loss
I0428 19:49:06.144757 26669 net.cpp:408] loss <- ip3
I0428 19:49:06.144762 26669 net.cpp:408] loss <- label
I0428 19:49:06.144768 26669 net.cpp:382] loss -> loss
I0428 19:49:06.144789 26669 layer_factory.hpp:77] Creating layer loss
…
I0428 19:49:06.145543 26669 solver.cpp:173] Creating test net (#0) specified by net file: ECE595/mnist/train_test/var_everything2/lenet_train_test564.prototxt
I0428 19:49:06.145576 26669 net.cpp:296] The NetState phase (1) differed from the phase (0) specified by a rule in layer mnist
I0428 19:49:06.145680 26669 net.cpp:53] Initializing net from parameters: 
name: "LeNet"
state {
  phase: TEST
}
layer {
  name: "mnist"
  type: "Data"
  top: "data"
  top: "label"
  include {
    phase: TEST
  }
  transform_param {
    scale: 0.00390625
  }
  data_param {
    source: "examples/mnist/mnist_test_lmdb"
    batch_size: 100
    backend: LMDB
  }
}
layer {
  name: "conv0"
  type: "Convolution"
  bottom: "data"
  top: "conv0"
  param {
    lr_mult: 1
  }
  param {
    lr_mult: 2
  }
  convolution_param {
    num_output: 5
    kernel_size: 5
    stride: 1
    weight_filler {
      type: "xavier"
    }
    bias_filler {
      type: "constant"
    }
  }
}
layer {
  name: "pool0"
  type: "Pooling"
  bottom: "conv0"
  top: "pool0"
  pooling_param {
    pool: MAX
    kernel_size: 2
    stride: 2
  }
}
layer {
  name: "conv1"
  type: "Convolution"
  bottom: "pool0"
  top: "conv1"
  param {
    lr_mult: 1
  }
  param {
    lr_mult: 2
  }
  convolution_param {
    num_output: 5
    kernel_size: 5
    stride: 1
    weight_filler {
      type: "xavier"
    }
    bias_filler {
      type: "constant"
    }
  }
}
layer {
  name: "pool1"
  type: "Pooling"
  bottom: "conv1"
  top: "pool1"
  pooling_param {
    pool: MAX
    kernel_size: 2
    stride: 2
  }
}
layer {
  name: "ip1"
  type: "InnerProduct"
  bottom: "pool1"
  top: "ip1"
  param {
    lr_mult: 1
  }
  param {
    lr_mult: 2
  }
  inner_product_param {
    num_output: 10
    weight_filler {
      type: "xavier"
    }
    bias_filler {
      type: "constant"
    }
  }
}
layer {
  name: "relu1"
  type: "ReLU"
  bottom: "ip1"
  top: "ip1"
}
layer {
  name: "ip2"
  type: "InnerProduct"
  bottom: "ip1"
  top: "ip2"
  param {
    lr_mult: 1
  }
  param {
    lr_mult: 2
  }
  inner_product_param {
    num_output: 50
    weight_filler {
      type: "xavier"
    }
    bias_filler {
      type: "constant"
    }
  }
}
layer {
  name: "relu2"
  type: "ReLU"
  bottom: "ip2"
  top: "ip2"
}
layer {
  name: "ip3"
  type: "InnerProduct"
  bottom: "ip2"
  top: "ip3"
  param {
    lr_mult: 1
  }
  param {
    lr_mult: 2
  }
  inner_product_param {
    num_output: 10
    weight_filler {
      type: "xavier"
    }
    bias_filler {
      type: "constant"
    }
  }
}
layer {
  name: "relu3"
  type: "ReLU"
  bottom: "ip3"
  top: "ip3"
}
layer {
  name: "accuracy"
  type: "Accuracy"
  bottom: "ip3"
  bottom: "label"
  top: "accuracy"
  include {
    phase: TEST
  }
}
layer {
  name: "loss"
  type: "SoftmaxWithLoss"
  bottom: "ip3"
  bottom: "label"
  top: "loss"
}
I0428 19:49:06.145774 26669 layer_factory.hpp:77] Creating layer mnist
I0428 19:49:06.145824 26669 db_lmdb.cpp:35] Opened lmdb examples/mnist/mnist_test_lmdb
I0428 19:49:06.145844 26669 net.cpp:86] Creating Layer mnist
I0428 19:49:06.145849 26669 net.cpp:382] mnist -> data
I0428 19:49:06.145859 26669 net.cpp:382] mnist -> label
I0428 19:49:06.145958 26669 data_layer.cpp:45] output data size: 100,1,28,28
I0428 19:49:06.148146 26669 net.cpp:124] Setting up mnist
I0428 19:49:06.148162 26669 net.cpp:131] Top shape: 100 1 28 28 (78400)
I0428 19:49:06.148169 26669 net.cpp:131] Top shape: 100 (100)
I0428 19:49:06.148174 26669 net.cpp:139] Memory required for data: 314000
I0428 19:49:06.148177 26669 layer_factory.hpp:77] Creating layer label_mnist_1_split
I0428 19:49:06.148190 26669 net.cpp:86] Creating Layer label_mnist_1_split
I0428 19:49:06.148195 26669 net.cpp:408] label_mnist_1_split <- label
I0428 19:49:06.148200 26669 net.cpp:382] label_mnist_1_split -> label_mnist_1_split_0
I0428 19:49:06.148208 26669 net.cpp:382] label_mnist_1_split -> label_mnist_1_split_1
I0428 19:49:06.148327 26669 net.cpp:124] Setting up label_mnist_1_split
I0428 19:49:06.148337 26669 net.cpp:131] Top shape: 100 (100)
I0428 19:49:06.148342 26669 net.cpp:131] Top shape: 100 (100)
I0428 19:49:06.148346 26669 net.cpp:139] Memory required for data: 314800
I0428 19:49:06.148350 26669 layer_factory.hpp:77] Creating layer conv0
I0428 19:49:06.148360 26669 net.cpp:86] Creating Layer conv0
I0428 19:49:06.148365 26669 net.cpp:408] conv0 <- data
I0428 19:49:06.148371 26669 net.cpp:382] conv0 -> conv0
I0428 19:49:06.150028 26669 net.cpp:124] Setting up conv0
I0428 19:49:06.150048 26669 net.cpp:131] Top shape: 100 5 24 24 (288000)
I0428 19:49:06.150053 26669 net.cpp:139] Memory required for data: 1466800
I0428 19:49:06.150065 26669 layer_factory.hpp:77] Creating layer pool0
I0428 19:49:06.150073 26669 net.cpp:86] Creating Layer pool0
I0428 19:49:06.150079 26669 net.cpp:408] pool0 <- conv0
I0428 19:49:06.150085 26669 net.cpp:382] pool0 -> pool0
I0428 19:49:06.150130 26669 net.cpp:124] Setting up pool0
I0428 19:49:06.150137 26669 net.cpp:131] Top shape: 100 5 12 12 (72000)
I0428 19:49:06.150141 26669 net.cpp:139] Memory required for data: 1754800
I0428 19:49:06.150146 26669 layer_factory.hpp:77] Creating layer conv1
I0428 19:49:06.150156 26669 net.cpp:86] Creating Layer conv1
I0428 19:49:06.150161 26669 net.cpp:408] conv1 <- pool0
I0428 19:49:06.150167 26669 net.cpp:382] conv1 -> conv1
I0428 19:49:06.152508 26669 net.cpp:124] Setting up conv1
I0428 19:49:06.152523 26669 net.cpp:131] Top shape: 100 5 8 8 (32000)
I0428 19:49:06.152528 26669 net.cpp:139] Memory required for data: 1882800
I0428 19:49:06.152537 26669 layer_factory.hpp:77] Creating layer pool1
I0428 19:49:06.152545 26669 net.cpp:86] Creating Layer pool1
I0428 19:49:06.152549 26669 net.cpp:408] pool1 <- conv1
I0428 19:49:06.152556 26669 net.cpp:382] pool1 -> pool1
I0428 19:49:06.152643 26669 net.cpp:124] Setting up pool1
I0428 19:49:06.152653 26669 net.cpp:131] Top shape: 100 5 4 4 (8000)
I0428 19:49:06.152657 26669 net.cpp:139] Memory required for data: 1914800
I0428 19:49:06.152662 26669 layer_factory.hpp:77] Creating layer ip1
I0428 19:49:06.152669 26669 net.cpp:86] Creating Layer ip1
I0428 19:49:06.152673 26669 net.cpp:408] ip1 <- pool1
I0428 19:49:06.152679 26669 net.cpp:382] ip1 -> ip1
I0428 19:49:06.152804 26669 net.cpp:124] Setting up ip1
I0428 19:49:06.152822 26669 net.cpp:131] Top shape: 100 10 (1000)
I0428 19:49:06.152843 26669 net.cpp:139] Memory required for data: 1918800
I0428 19:49:06.152854 26669 layer_factory.hpp:77] Creating layer relu1
I0428 19:49:06.152860 26669 net.cpp:86] Creating Layer relu1
I0428 19:49:06.152865 26669 net.cpp:408] relu1 <- ip1
I0428 19:49:06.152870 26669 net.cpp:369] relu1 -> ip1 (in-place)
I0428 19:49:06.153077 26669 net.cpp:124] Setting up relu1
I0428 19:49:06.153089 26669 net.cpp:131] Top shape: 100 10 (1000)
I0428 19:49:06.153092 26669 net.cpp:139] Memory required for data: 1922800
I0428 19:49:06.153095 26669 layer_factory.hpp:77] Creating layer ip2
I0428 19:49:06.153105 26669 net.cpp:86] Creating Layer ip2
I0428 19:49:06.153108 26669 net.cpp:408] ip2 <- ip1
I0428 19:49:06.153115 26669 net.cpp:382] ip2 -> ip2
I0428 19:49:06.153234 26669 net.cpp:124] Setting up ip2
I0428 19:49:06.153244 26669 net.cpp:131] Top shape: 100 50 (5000)
I0428 19:49:06.153247 26669 net.cpp:139] Memory required for data: 1942800
I0428 19:49:06.153254 26669 layer_factory.hpp:77] Creating layer relu2
I0428 19:49:06.153259 26669 net.cpp:86] Creating Layer relu2
I0428 19:49:06.153264 26669 net.cpp:408] relu2 <- ip2
I0428 19:49:06.153268 26669 net.cpp:369] relu2 -> ip2 (in-place)
I0428 19:49:06.153445 26669 net.cpp:124] Setting up relu2
I0428 19:49:06.153455 26669 net.cpp:131] Top shape: 100 50 (5000)
I0428 19:49:06.153460 26669 net.cpp:139] Memory required for data: 1962800
I0428 19:49:06.153462 26669 layer_factory.hpp:77] Creating layer ip3
I0428 19:49:06.153470 26669 net.cpp:86] Creating Layer ip3
I0428 19:49:06.153473 26669 net.cpp:408] ip3 <- ip2
I0428 19:49:06.153479 26669 net.cpp:382] ip3 -> ip3
I0428 19:49:06.153599 26669 net.cpp:124] Setting up ip3
I0428 19:49:06.153607 26669 net.cpp:131] Top shape: 100 10 (1000)
I0428 19:49:06.153611 26669 net.cpp:139] Memory required for data: 1966800
I0428 19:49:06.153620 26669 layer_factory.hpp:77] Creating layer relu3
I0428 19:49:06.153625 26669 net.cpp:86] Creating Layer relu3
I0428 19:49:06.153630 26669 net.cpp:408] relu3 <- ip3
I0428 19:49:06.153635 26669 net.cpp:369] relu3 -> ip3 (in-place)
I0428 19:49:06.154487 26669 net.cpp:124] Setting up relu3
I0428 19:49:06.154502 26669 net.cpp:131] Top shape: 100 10 (1000)
I0428 19:49:06.154507 26669 net.cpp:139] Memory required for data: 1970800
I0428 19:49:06.154511 26669 layer_factory.hpp:77] Creating layer ip3_relu3_0_split
I0428 19:49:06.154517 26669 net.cpp:86] Creating Layer ip3_relu3_0_split
I0428 19:49:06.154521 26669 net.cpp:408] ip3_relu3_0_split <- ip3
I0428 19:49:06.154527 26669 net.cpp:382] ip3_relu3_0_split -> ip3_relu3_0_split_0
I0428 19:49:06.154534 26669 net.cpp:382] ip3_relu3_0_split -> ip3_relu3_0_split_1
I0428 19:49:06.154578 26669 net.cpp:124] Setting up ip3_relu3_0_split
I0428 19:49:06.154584 26669 net.cpp:131] Top shape: 100 10 (1000)
I0428 19:49:06.154589 26669 net.cpp:131] Top shape: 100 10 (1000)
I0428 19:49:06.154592 26669 net.cpp:139] Memory required for data: 1978800
I0428 19:49:06.154597 26669 layer_factory.hpp:77] Creating layer accuracy
I0428 19:49:06.154603 26669 net.cpp:86] Creating Layer accuracy
I0428 19:49:06.154606 26669 net.cpp:408] accuracy <- ip3_relu3_0_split_0
I0428 19:49:06.154610 26669 net.cpp:408] accuracy <- label_mnist_1_split_0
I0428 19:49:06.154616 26669 net.cpp:382] accuracy -> accuracy
…
