…
I0428 20:25:12.056394  2551 net.cpp:296] The NetState phase (0) differed from the phase (1) specified by a rule in layer mnist
I0428 20:25:12.056409  2551 net.cpp:296] The NetState phase (0) differed from the phase (1) specified by a rule in layer accuracy
I0428 20:25:12.056480  2551 net.cpp:53] Initializing net from parameters: 
name: "LeNet"
state {
  phase: TRAIN
  level: 0
  stage: ""
}
layer {
  name: "mnist"
  type: "Data"
  top: "data"
  top: "label"
  include {
    phase: TRAIN
  }
  transform_param {
    scale: 0.00390625
  }
  data_param {
    source: "examples/mnist/mnist_train_lmdb"
    batch_size: 64
    backend: LMDB
  }
}
layer {
  name: "conv0"
  type: "Convolution"
  bottom: "data"
  top: "conv0"
  param {
    lr_mult: 1
  }
  param {
    lr_mult: 2
  }
  convolution_param {
    num_output: 100
    kernel_size: 5
    stride: 1
    weight_filler {
      type: "xavier"
    }
    bias_filler {
      type: "constant"
    }
  }
}
layer {
  name: "pool0"
  type: "Pooling"
  bottom: "conv0"
  top: "pool0"
  pooling_param {
    pool: MAX
    kernel_size: 2
    stride: 2
  }
}
layer {
  name: "conv1"
  type: "Convolution"
  bottom: "pool0"
  top: "conv1"
  param {
    lr_mult: 1
  }
  param {
    lr_mult: 2
  }
  convolution_param {
    num_output: 2
    kernel_size: 5
    stride: 1
    weight_filler {
      type: "xavier"
    }
    bias_filler {
      type: "constant"
    }
  }
}
layer {
  name: "pool1"
  type: "Pooling"
  bottom: "conv1"
  top: "pool1"
  pooling_param {
    pool: MAX
    kernel_size: 2
    stride: 2
  }
}
layer {
  name: "ip1"
  type: "InnerProduct"
  bottom: "pool1"
  top: "ip1"
  param {
    lr_mult: 1
  }
  param {
    lr_mult: 2
  }
  inner_product_param {
    num_output: 25
    weight_filler {
      type: "xavier"
    }
    bias_filler {
      type: "constant"
    }
  }
}
layer {
  name: "relu1"
  type: "ReLU"
  bottom: "ip1"
  top: "ip1"
}
layer {
  name: "ip2"
  type: "InnerProduct"
  bottom: "ip1"
  top: "ip2"
  param {
    lr_mult: 1
  }
  param {
    lr_mult: 2
  }
  inner_product_param {
    num_output: 10
    weight_filler {
      type: "xavier"
    }
    bias_filler {
      type: "constant"
    }
  }
}
layer {
  name: "relu2"
  type: "ReLU"
  bottom: "ip2"
  top: "ip2"
}
layer {
  name: "loss"
  type: "SoftmaxWithLoss"
  bottom: "ip2"
  bottom: "label"
  top: "loss"
}
I0428 20:25:12.056543  2551 layer_factory.hpp:77] Creating layer mnist
I0428 20:25:12.056625  2551 db_lmdb.cpp:35] Opened lmdb examples/mnist/mnist_train_lmdb
I0428 20:25:12.056644  2551 net.cpp:86] Creating Layer mnist
I0428 20:25:12.056651  2551 net.cpp:382] mnist -> data
I0428 20:25:12.056669  2551 net.cpp:382] mnist -> label
I0428 20:25:12.057633  2551 data_layer.cpp:45] output data size: 64,1,28,28
I0428 20:25:12.059748  2551 net.cpp:124] Setting up mnist
I0428 20:25:12.059778  2551 net.cpp:131] Top shape: 64 1 28 28 (50176)
I0428 20:25:12.059783  2551 net.cpp:131] Top shape: 64 (64)
I0428 20:25:12.059787  2551 net.cpp:139] Memory required for data: 200960
I0428 20:25:12.059792  2551 layer_factory.hpp:77] Creating layer conv0
I0428 20:25:12.059806  2551 net.cpp:86] Creating Layer conv0
I0428 20:25:12.059810  2551 net.cpp:408] conv0 <- data
I0428 20:25:12.059836  2551 net.cpp:382] conv0 -> conv0
I0428 20:25:12.291474  2551 net.cpp:124] Setting up conv0
I0428 20:25:12.291515  2551 net.cpp:131] Top shape: 64 100 24 24 (3686400)
I0428 20:25:12.291519  2551 net.cpp:139] Memory required for data: 14946560
I0428 20:25:12.291553  2551 layer_factory.hpp:77] Creating layer pool0
I0428 20:25:12.291564  2551 net.cpp:86] Creating Layer pool0
I0428 20:25:12.291568  2551 net.cpp:408] pool0 <- conv0
I0428 20:25:12.291574  2551 net.cpp:382] pool0 -> pool0
I0428 20:25:12.291638  2551 net.cpp:124] Setting up pool0
I0428 20:25:12.291646  2551 net.cpp:131] Top shape: 64 100 12 12 (921600)
I0428 20:25:12.291649  2551 net.cpp:139] Memory required for data: 18632960
I0428 20:25:12.291652  2551 layer_factory.hpp:77] Creating layer conv1
I0428 20:25:12.291663  2551 net.cpp:86] Creating Layer conv1
I0428 20:25:12.291668  2551 net.cpp:408] conv1 <- pool0
I0428 20:25:12.291689  2551 net.cpp:382] conv1 -> conv1
I0428 20:25:12.294574  2551 net.cpp:124] Setting up conv1
I0428 20:25:12.294589  2551 net.cpp:131] Top shape: 64 2 8 8 (8192)
I0428 20:25:12.294592  2551 net.cpp:139] Memory required for data: 18665728
I0428 20:25:12.294600  2551 layer_factory.hpp:77] Creating layer pool1
I0428 20:25:12.294606  2551 net.cpp:86] Creating Layer pool1
I0428 20:25:12.294610  2551 net.cpp:408] pool1 <- conv1
I0428 20:25:12.294615  2551 net.cpp:382] pool1 -> pool1
I0428 20:25:12.294680  2551 net.cpp:124] Setting up pool1
I0428 20:25:12.294685  2551 net.cpp:131] Top shape: 64 2 4 4 (2048)
I0428 20:25:12.294687  2551 net.cpp:139] Memory required for data: 18673920
I0428 20:25:12.294690  2551 layer_factory.hpp:77] Creating layer ip1
I0428 20:25:12.294697  2551 net.cpp:86] Creating Layer ip1
I0428 20:25:12.294700  2551 net.cpp:408] ip1 <- pool1
I0428 20:25:12.294704  2551 net.cpp:382] ip1 -> ip1
I0428 20:25:12.294796  2551 net.cpp:124] Setting up ip1
I0428 20:25:12.294803  2551 net.cpp:131] Top shape: 64 25 (1600)
I0428 20:25:12.294807  2551 net.cpp:139] Memory required for data: 18680320
I0428 20:25:12.294814  2551 layer_factory.hpp:77] Creating layer relu1
I0428 20:25:12.294819  2551 net.cpp:86] Creating Layer relu1
I0428 20:25:12.294822  2551 net.cpp:408] relu1 <- ip1
I0428 20:25:12.294826  2551 net.cpp:369] relu1 -> ip1 (in-place)
I0428 20:25:12.294980  2551 net.cpp:124] Setting up relu1
I0428 20:25:12.294987  2551 net.cpp:131] Top shape: 64 25 (1600)
I0428 20:25:12.294991  2551 net.cpp:139] Memory required for data: 18686720
I0428 20:25:12.294993  2551 layer_factory.hpp:77] Creating layer ip2
I0428 20:25:12.294999  2551 net.cpp:86] Creating Layer ip2
I0428 20:25:12.295002  2551 net.cpp:408] ip2 <- ip1
I0428 20:25:12.295007  2551 net.cpp:382] ip2 -> ip2
I0428 20:25:12.295097  2551 net.cpp:124] Setting up ip2
I0428 20:25:12.295104  2551 net.cpp:131] Top shape: 64 10 (640)
I0428 20:25:12.295107  2551 net.cpp:139] Memory required for data: 18689280
I0428 20:25:12.295112  2551 layer_factory.hpp:77] Creating layer relu2
I0428 20:25:12.295119  2551 net.cpp:86] Creating Layer relu2
I0428 20:25:12.295121  2551 net.cpp:408] relu2 <- ip2
I0428 20:25:12.295125  2551 net.cpp:369] relu2 -> ip2 (in-place)
I0428 20:25:12.295820  2551 net.cpp:124] Setting up relu2
I0428 20:25:12.295831  2551 net.cpp:131] Top shape: 64 10 (640)
I0428 20:25:12.295850  2551 net.cpp:139] Memory required for data: 18691840
I0428 20:25:12.295853  2551 layer_factory.hpp:77] Creating layer loss
I0428 20:25:12.295859  2551 net.cpp:86] Creating Layer loss
I0428 20:25:12.295864  2551 net.cpp:408] loss <- ip2
I0428 20:25:12.295868  2551 net.cpp:408] loss <- label
I0428 20:25:12.295873  2551 net.cpp:382] loss -> loss
I0428 20:25:12.295892  2551 layer_factory.hpp:77] Creating layer loss
…
I0428 20:25:12.296515  2551 solver.cpp:173] Creating test net (#0) specified by net file: ECE595/mnist/train_test/var_everything2/lenet_train_test1450.prototxt
I0428 20:25:12.296555  2551 net.cpp:296] The NetState phase (1) differed from the phase (0) specified by a rule in layer mnist
I0428 20:25:12.296634  2551 net.cpp:53] Initializing net from parameters: 
name: "LeNet"
state {
  phase: TEST
}
layer {
  name: "mnist"
  type: "Data"
  top: "data"
  top: "label"
  include {
    phase: TEST
  }
  transform_param {
    scale: 0.00390625
  }
  data_param {
    source: "examples/mnist/mnist_test_lmdb"
    batch_size: 100
    backend: LMDB
  }
}
layer {
  name: "conv0"
  type: "Convolution"
  bottom: "data"
  top: "conv0"
  param {
    lr_mult: 1
  }
  param {
    lr_mult: 2
  }
  convolution_param {
    num_output: 100
    kernel_size: 5
    stride: 1
    weight_filler {
      type: "xavier"
    }
    bias_filler {
      type: "constant"
    }
  }
}
layer {
  name: "pool0"
  type: "Pooling"
  bottom: "conv0"
  top: "pool0"
  pooling_param {
    pool: MAX
    kernel_size: 2
    stride: 2
  }
}
layer {
  name: "conv1"
  type: "Convolution"
  bottom: "pool0"
  top: "conv1"
  param {
    lr_mult: 1
  }
  param {
    lr_mult: 2
  }
  convolution_param {
    num_output: 2
    kernel_size: 5
    stride: 1
    weight_filler {
      type: "xavier"
    }
    bias_filler {
      type: "constant"
    }
  }
}
layer {
  name: "pool1"
  type: "Pooling"
  bottom: "conv1"
  top: "pool1"
  pooling_param {
    pool: MAX
    kernel_size: 2
    stride: 2
  }
}
layer {
  name: "ip1"
  type: "InnerProduct"
  bottom: "pool1"
  top: "ip1"
  param {
    lr_mult: 1
  }
  param {
    lr_mult: 2
  }
  inner_product_param {
    num_output: 25
    weight_filler {
      type: "xavier"
    }
    bias_filler {
      type: "constant"
    }
  }
}
layer {
  name: "relu1"
  type: "ReLU"
  bottom: "ip1"
  top: "ip1"
}
layer {
  name: "ip2"
  type: "InnerProduct"
  bottom: "ip1"
  top: "ip2"
  param {
    lr_mult: 1
  }
  param {
    lr_mult: 2
  }
  inner_product_param {
    num_output: 10
    weight_filler {
      type: "xavier"
    }
    bias_filler {
      type: "constant"
    }
  }
}
layer {
  name: "relu2"
  type: "ReLU"
  bottom: "ip2"
  top: "ip2"
}
layer {
  name: "accuracy"
  type: "Accuracy"
  bottom: "ip2"
  bottom: "label"
  top: "accuracy"
  include {
    phase: TEST
  }
}
layer {
  name: "loss"
  type: "SoftmaxWithLoss"
  bottom: "ip2"
  bottom: "label"
  top: "loss"
}
I0428 20:25:12.296694  2551 layer_factory.hpp:77] Creating layer mnist
I0428 20:25:12.296738  2551 db_lmdb.cpp:35] Opened lmdb examples/mnist/mnist_test_lmdb
I0428 20:25:12.296749  2551 net.cpp:86] Creating Layer mnist
I0428 20:25:12.296753  2551 net.cpp:382] mnist -> data
I0428 20:25:12.296761  2551 net.cpp:382] mnist -> label
I0428 20:25:12.296880  2551 data_layer.cpp:45] output data size: 100,1,28,28
I0428 20:25:12.299084  2551 net.cpp:124] Setting up mnist
I0428 20:25:12.299098  2551 net.cpp:131] Top shape: 100 1 28 28 (78400)
I0428 20:25:12.299103  2551 net.cpp:131] Top shape: 100 (100)
I0428 20:25:12.299105  2551 net.cpp:139] Memory required for data: 314000
I0428 20:25:12.299109  2551 layer_factory.hpp:77] Creating layer label_mnist_1_split
I0428 20:25:12.299139  2551 net.cpp:86] Creating Layer label_mnist_1_split
I0428 20:25:12.299142  2551 net.cpp:408] label_mnist_1_split <- label
I0428 20:25:12.299147  2551 net.cpp:382] label_mnist_1_split -> label_mnist_1_split_0
I0428 20:25:12.299154  2551 net.cpp:382] label_mnist_1_split -> label_mnist_1_split_1
I0428 20:25:12.299204  2551 net.cpp:124] Setting up label_mnist_1_split
I0428 20:25:12.299211  2551 net.cpp:131] Top shape: 100 (100)
I0428 20:25:12.299213  2551 net.cpp:131] Top shape: 100 (100)
I0428 20:25:12.299216  2551 net.cpp:139] Memory required for data: 314800
I0428 20:25:12.299219  2551 layer_factory.hpp:77] Creating layer conv0
I0428 20:25:12.299227  2551 net.cpp:86] Creating Layer conv0
I0428 20:25:12.299232  2551 net.cpp:408] conv0 <- data
I0428 20:25:12.299237  2551 net.cpp:382] conv0 -> conv0
I0428 20:25:12.300933  2551 net.cpp:124] Setting up conv0
I0428 20:25:12.300947  2551 net.cpp:131] Top shape: 100 100 24 24 (5760000)
I0428 20:25:12.300951  2551 net.cpp:139] Memory required for data: 23354800
I0428 20:25:12.300959  2551 layer_factory.hpp:77] Creating layer pool0
I0428 20:25:12.300982  2551 net.cpp:86] Creating Layer pool0
I0428 20:25:12.300986  2551 net.cpp:408] pool0 <- conv0
I0428 20:25:12.300990  2551 net.cpp:382] pool0 -> pool0
I0428 20:25:12.301024  2551 net.cpp:124] Setting up pool0
I0428 20:25:12.301029  2551 net.cpp:131] Top shape: 100 100 12 12 (1440000)
I0428 20:25:12.301033  2551 net.cpp:139] Memory required for data: 29114800
I0428 20:25:12.301035  2551 layer_factory.hpp:77] Creating layer conv1
I0428 20:25:12.301043  2551 net.cpp:86] Creating Layer conv1
I0428 20:25:12.301046  2551 net.cpp:408] conv1 <- pool0
I0428 20:25:12.301051  2551 net.cpp:382] conv1 -> conv1
I0428 20:25:12.302481  2551 net.cpp:124] Setting up conv1
I0428 20:25:12.302495  2551 net.cpp:131] Top shape: 100 2 8 8 (12800)
I0428 20:25:12.302497  2551 net.cpp:139] Memory required for data: 29166000
I0428 20:25:12.302507  2551 layer_factory.hpp:77] Creating layer pool1
I0428 20:25:12.302513  2551 net.cpp:86] Creating Layer pool1
I0428 20:25:12.302525  2551 net.cpp:408] pool1 <- conv1
I0428 20:25:12.302531  2551 net.cpp:382] pool1 -> pool1
I0428 20:25:12.302568  2551 net.cpp:124] Setting up pool1
I0428 20:25:12.302574  2551 net.cpp:131] Top shape: 100 2 4 4 (3200)
I0428 20:25:12.302577  2551 net.cpp:139] Memory required for data: 29178800
I0428 20:25:12.302592  2551 layer_factory.hpp:77] Creating layer ip1
I0428 20:25:12.302598  2551 net.cpp:86] Creating Layer ip1
I0428 20:25:12.302611  2551 net.cpp:408] ip1 <- pool1
I0428 20:25:12.302618  2551 net.cpp:382] ip1 -> ip1
I0428 20:25:12.302736  2551 net.cpp:124] Setting up ip1
I0428 20:25:12.302744  2551 net.cpp:131] Top shape: 100 25 (2500)
I0428 20:25:12.302747  2551 net.cpp:139] Memory required for data: 29188800
I0428 20:25:12.302754  2551 layer_factory.hpp:77] Creating layer relu1
I0428 20:25:12.302759  2551 net.cpp:86] Creating Layer relu1
I0428 20:25:12.302762  2551 net.cpp:408] relu1 <- ip1
I0428 20:25:12.302767  2551 net.cpp:369] relu1 -> ip1 (in-place)
I0428 20:25:12.302974  2551 net.cpp:124] Setting up relu1
I0428 20:25:12.302983  2551 net.cpp:131] Top shape: 100 25 (2500)
I0428 20:25:12.302986  2551 net.cpp:139] Memory required for data: 29198800
I0428 20:25:12.302989  2551 layer_factory.hpp:77] Creating layer ip2
I0428 20:25:12.302999  2551 net.cpp:86] Creating Layer ip2
I0428 20:25:12.303001  2551 net.cpp:408] ip2 <- ip1
I0428 20:25:12.303006  2551 net.cpp:382] ip2 -> ip2
I0428 20:25:12.303117  2551 net.cpp:124] Setting up ip2
I0428 20:25:12.303125  2551 net.cpp:131] Top shape: 100 10 (1000)
I0428 20:25:12.303128  2551 net.cpp:139] Memory required for data: 29202800
I0428 20:25:12.303134  2551 layer_factory.hpp:77] Creating layer relu2
I0428 20:25:12.303139  2551 net.cpp:86] Creating Layer relu2
I0428 20:25:12.303143  2551 net.cpp:408] relu2 <- ip2
I0428 20:25:12.303154  2551 net.cpp:369] relu2 -> ip2 (in-place)
I0428 20:25:12.303339  2551 net.cpp:124] Setting up relu2
I0428 20:25:12.303346  2551 net.cpp:131] Top shape: 100 10 (1000)
I0428 20:25:12.303349  2551 net.cpp:139] Memory required for data: 29206800
I0428 20:25:12.303352  2551 layer_factory.hpp:77] Creating layer ip2_relu2_0_split
I0428 20:25:12.303357  2551 net.cpp:86] Creating Layer ip2_relu2_0_split
I0428 20:25:12.303360  2551 net.cpp:408] ip2_relu2_0_split <- ip2
I0428 20:25:12.303365  2551 net.cpp:382] ip2_relu2_0_split -> ip2_relu2_0_split_0
I0428 20:25:12.303380  2551 net.cpp:382] ip2_relu2_0_split -> ip2_relu2_0_split_1
I0428 20:25:12.303414  2551 net.cpp:124] Setting up ip2_relu2_0_split
I0428 20:25:12.303419  2551 net.cpp:131] Top shape: 100 10 (1000)
I0428 20:25:12.303422  2551 net.cpp:131] Top shape: 100 10 (1000)
I0428 20:25:12.303426  2551 net.cpp:139] Memory required for data: 29214800
I0428 20:25:12.303427  2551 layer_factory.hpp:77] Creating layer accuracy
I0428 20:25:12.303433  2551 net.cpp:86] Creating Layer accuracy
I0428 20:25:12.303436  2551 net.cpp:408] accuracy <- ip2_relu2_0_split_0
I0428 20:25:12.303441  2551 net.cpp:408] accuracy <- label_mnist_1_split_0
I0428 20:25:12.303445  2551 net.cpp:382] accuracy -> accuracy
…
