…
I0428 20:00:46.772450 29551 net.cpp:296] The NetState phase (0) differed from the phase (1) specified by a rule in layer mnist
I0428 20:00:46.772470 29551 net.cpp:296] The NetState phase (0) differed from the phase (1) specified by a rule in layer accuracy
I0428 20:00:46.772560 29551 net.cpp:53] Initializing net from parameters: 
name: "LeNet"
state {
  phase: TRAIN
  level: 0
  stage: ""
}
layer {
  name: "mnist"
  type: "Data"
  top: "data"
  top: "label"
  include {
    phase: TRAIN
  }
  transform_param {
    scale: 0.00390625
  }
  data_param {
    source: "examples/mnist/mnist_train_lmdb"
    batch_size: 64
    backend: LMDB
  }
}
layer {
  name: "conv0"
  type: "Convolution"
  bottom: "data"
  top: "conv0"
  param {
    lr_mult: 1
  }
  param {
    lr_mult: 2
  }
  convolution_param {
    num_output: 10
    kernel_size: 5
    stride: 1
    weight_filler {
      type: "xavier"
    }
    bias_filler {
      type: "constant"
    }
  }
}
layer {
  name: "pool0"
  type: "Pooling"
  bottom: "conv0"
  top: "pool0"
  pooling_param {
    pool: MAX
    kernel_size: 2
    stride: 2
  }
}
layer {
  name: "conv1"
  type: "Convolution"
  bottom: "pool0"
  top: "conv1"
  param {
    lr_mult: 1
  }
  param {
    lr_mult: 2
  }
  convolution_param {
    num_output: 25
    kernel_size: 5
    stride: 1
    weight_filler {
      type: "xavier"
    }
    bias_filler {
      type: "constant"
    }
  }
}
layer {
  name: "pool1"
  type: "Pooling"
  bottom: "conv1"
  top: "pool1"
  pooling_param {
    pool: MAX
    kernel_size: 2
    stride: 2
  }
}
layer {
  name: "ip1"
  type: "InnerProduct"
  bottom: "pool1"
  top: "ip1"
  param {
    lr_mult: 1
  }
  param {
    lr_mult: 2
  }
  inner_product_param {
    num_output: 25
    weight_filler {
      type: "xavier"
    }
    bias_filler {
      type: "constant"
    }
  }
}
layer {
  name: "relu1"
  type: "ReLU"
  bottom: "ip1"
  top: "ip1"
}
layer {
  name: "ip2"
  type: "InnerProduct"
  bottom: "ip1"
  top: "ip2"
  param {
    lr_mult: 1
  }
  param {
    lr_mult: 2
  }
  inner_product_param {
    num_output: 50
    weight_filler {
      type: "xavier"
    }
    bias_filler {
      type: "constant"
    }
  }
}
layer {
  name: "relu2"
  type: "ReLU"
  bottom: "ip2"
  top: "ip2"
}
layer {
  name: "ip3"
  type: "InnerProduct"
  bottom: "ip2"
  top: "ip3"
  param {
    lr_mult: 1
  }
  param {
    lr_mult: 2
  }
  inner_product_param {
    num_output: 10
    weight_filler {
      type: "xavier"
    }
    bias_filler {
      type: "constant"
    }
  }
}
layer {
  name: "relu3"
  type: "ReLU"
  bottom: "ip3"
  top: "ip3"
}
layer {
  name: "loss"
  type: "SoftmaxWithLoss"
  bottom: "ip3"
  bottom: "label"
  top: "loss"
}
I0428 20:00:46.772650 29551 layer_factory.hpp:77] Creating layer mnist
I0428 20:00:46.772755 29551 db_lmdb.cpp:35] Opened lmdb examples/mnist/mnist_train_lmdb
I0428 20:00:46.772783 29551 net.cpp:86] Creating Layer mnist
I0428 20:00:46.772794 29551 net.cpp:382] mnist -> data
I0428 20:00:46.772853 29551 net.cpp:382] mnist -> label
I0428 20:00:46.773946 29551 data_layer.cpp:45] output data size: 64,1,28,28
I0428 20:00:46.776068 29551 net.cpp:124] Setting up mnist
I0428 20:00:46.776099 29551 net.cpp:131] Top shape: 64 1 28 28 (50176)
I0428 20:00:46.776108 29551 net.cpp:131] Top shape: 64 (64)
I0428 20:00:46.776113 29551 net.cpp:139] Memory required for data: 200960
I0428 20:00:46.776123 29551 layer_factory.hpp:77] Creating layer conv0
I0428 20:00:46.776146 29551 net.cpp:86] Creating Layer conv0
I0428 20:00:46.776180 29551 net.cpp:408] conv0 <- data
I0428 20:00:46.776196 29551 net.cpp:382] conv0 -> conv0
I0428 20:00:47.007201 29551 net.cpp:124] Setting up conv0
I0428 20:00:47.007231 29551 net.cpp:131] Top shape: 64 10 24 24 (368640)
I0428 20:00:47.007236 29551 net.cpp:139] Memory required for data: 1675520
I0428 20:00:47.007256 29551 layer_factory.hpp:77] Creating layer pool0
I0428 20:00:47.007272 29551 net.cpp:86] Creating Layer pool0
I0428 20:00:47.007287 29551 net.cpp:408] pool0 <- conv0
I0428 20:00:47.007295 29551 net.cpp:382] pool0 -> pool0
I0428 20:00:47.007349 29551 net.cpp:124] Setting up pool0
I0428 20:00:47.007357 29551 net.cpp:131] Top shape: 64 10 12 12 (92160)
I0428 20:00:47.007362 29551 net.cpp:139] Memory required for data: 2044160
I0428 20:00:47.007366 29551 layer_factory.hpp:77] Creating layer conv1
I0428 20:00:47.007381 29551 net.cpp:86] Creating Layer conv1
I0428 20:00:47.007387 29551 net.cpp:408] conv1 <- pool0
I0428 20:00:47.007395 29551 net.cpp:382] conv1 -> conv1
I0428 20:00:47.010094 29551 net.cpp:124] Setting up conv1
I0428 20:00:47.010110 29551 net.cpp:131] Top shape: 64 25 8 8 (102400)
I0428 20:00:47.010116 29551 net.cpp:139] Memory required for data: 2453760
I0428 20:00:47.010157 29551 layer_factory.hpp:77] Creating layer pool1
I0428 20:00:47.010169 29551 net.cpp:86] Creating Layer pool1
I0428 20:00:47.010174 29551 net.cpp:408] pool1 <- conv1
I0428 20:00:47.010182 29551 net.cpp:382] pool1 -> pool1
I0428 20:00:47.010226 29551 net.cpp:124] Setting up pool1
I0428 20:00:47.010234 29551 net.cpp:131] Top shape: 64 25 4 4 (25600)
I0428 20:00:47.010239 29551 net.cpp:139] Memory required for data: 2556160
I0428 20:00:47.010244 29551 layer_factory.hpp:77] Creating layer ip1
I0428 20:00:47.010255 29551 net.cpp:86] Creating Layer ip1
I0428 20:00:47.010260 29551 net.cpp:408] ip1 <- pool1
I0428 20:00:47.010268 29551 net.cpp:382] ip1 -> ip1
I0428 20:00:47.010439 29551 net.cpp:124] Setting up ip1
I0428 20:00:47.010448 29551 net.cpp:131] Top shape: 64 25 (1600)
I0428 20:00:47.010453 29551 net.cpp:139] Memory required for data: 2562560
I0428 20:00:47.010464 29551 layer_factory.hpp:77] Creating layer relu1
I0428 20:00:47.010475 29551 net.cpp:86] Creating Layer relu1
I0428 20:00:47.010483 29551 net.cpp:408] relu1 <- ip1
I0428 20:00:47.010490 29551 net.cpp:369] relu1 -> ip1 (in-place)
I0428 20:00:47.010648 29551 net.cpp:124] Setting up relu1
I0428 20:00:47.010658 29551 net.cpp:131] Top shape: 64 25 (1600)
I0428 20:00:47.010663 29551 net.cpp:139] Memory required for data: 2568960
I0428 20:00:47.010666 29551 layer_factory.hpp:77] Creating layer ip2
I0428 20:00:47.010676 29551 net.cpp:86] Creating Layer ip2
I0428 20:00:47.010681 29551 net.cpp:408] ip2 <- ip1
I0428 20:00:47.010689 29551 net.cpp:382] ip2 -> ip2
I0428 20:00:47.011646 29551 net.cpp:124] Setting up ip2
I0428 20:00:47.011658 29551 net.cpp:131] Top shape: 64 50 (3200)
I0428 20:00:47.011664 29551 net.cpp:139] Memory required for data: 2581760
I0428 20:00:47.011673 29551 layer_factory.hpp:77] Creating layer relu2
I0428 20:00:47.011682 29551 net.cpp:86] Creating Layer relu2
I0428 20:00:47.011688 29551 net.cpp:408] relu2 <- ip2
I0428 20:00:47.011695 29551 net.cpp:369] relu2 -> ip2 (in-place)
I0428 20:00:47.012483 29551 net.cpp:124] Setting up relu2
I0428 20:00:47.012497 29551 net.cpp:131] Top shape: 64 50 (3200)
I0428 20:00:47.012503 29551 net.cpp:139] Memory required for data: 2594560
I0428 20:00:47.012509 29551 layer_factory.hpp:77] Creating layer ip3
I0428 20:00:47.012521 29551 net.cpp:86] Creating Layer ip3
I0428 20:00:47.012526 29551 net.cpp:408] ip3 <- ip2
I0428 20:00:47.012536 29551 net.cpp:382] ip3 -> ip3
I0428 20:00:47.012645 29551 net.cpp:124] Setting up ip3
I0428 20:00:47.012666 29551 net.cpp:131] Top shape: 64 10 (640)
I0428 20:00:47.012671 29551 net.cpp:139] Memory required for data: 2597120
I0428 20:00:47.012684 29551 layer_factory.hpp:77] Creating layer relu3
I0428 20:00:47.012693 29551 net.cpp:86] Creating Layer relu3
I0428 20:00:47.012714 29551 net.cpp:408] relu3 <- ip3
I0428 20:00:47.012722 29551 net.cpp:369] relu3 -> ip3 (in-place)
I0428 20:00:47.012934 29551 net.cpp:124] Setting up relu3
I0428 20:00:47.012946 29551 net.cpp:131] Top shape: 64 10 (640)
I0428 20:00:47.012951 29551 net.cpp:139] Memory required for data: 2599680
I0428 20:00:47.012958 29551 layer_factory.hpp:77] Creating layer loss
I0428 20:00:47.012966 29551 net.cpp:86] Creating Layer loss
I0428 20:00:47.012972 29551 net.cpp:408] loss <- ip3
I0428 20:00:47.012979 29551 net.cpp:408] loss <- label
I0428 20:00:47.012987 29551 net.cpp:382] loss -> loss
I0428 20:00:47.013026 29551 layer_factory.hpp:77] Creating layer loss
…
I0428 20:00:47.013790 29551 solver.cpp:173] Creating test net (#0) specified by net file: ECE595/mnist/train_test/var_everything2/lenet_train_test885.prototxt
I0428 20:00:47.013823 29551 net.cpp:296] The NetState phase (1) differed from the phase (0) specified by a rule in layer mnist
I0428 20:00:47.013931 29551 net.cpp:53] Initializing net from parameters: 
name: "LeNet"
state {
  phase: TEST
}
layer {
  name: "mnist"
  type: "Data"
  top: "data"
  top: "label"
  include {
    phase: TEST
  }
  transform_param {
    scale: 0.00390625
  }
  data_param {
    source: "examples/mnist/mnist_test_lmdb"
    batch_size: 100
    backend: LMDB
  }
}
layer {
  name: "conv0"
  type: "Convolution"
  bottom: "data"
  top: "conv0"
  param {
    lr_mult: 1
  }
  param {
    lr_mult: 2
  }
  convolution_param {
    num_output: 10
    kernel_size: 5
    stride: 1
    weight_filler {
      type: "xavier"
    }
    bias_filler {
      type: "constant"
    }
  }
}
layer {
  name: "pool0"
  type: "Pooling"
  bottom: "conv0"
  top: "pool0"
  pooling_param {
    pool: MAX
    kernel_size: 2
    stride: 2
  }
}
layer {
  name: "conv1"
  type: "Convolution"
  bottom: "pool0"
  top: "conv1"
  param {
    lr_mult: 1
  }
  param {
    lr_mult: 2
  }
  convolution_param {
    num_output: 25
    kernel_size: 5
    stride: 1
    weight_filler {
      type: "xavier"
    }
    bias_filler {
      type: "constant"
    }
  }
}
layer {
  name: "pool1"
  type: "Pooling"
  bottom: "conv1"
  top: "pool1"
  pooling_param {
    pool: MAX
    kernel_size: 2
    stride: 2
  }
}
layer {
  name: "ip1"
  type: "InnerProduct"
  bottom: "pool1"
  top: "ip1"
  param {
    lr_mult: 1
  }
  param {
    lr_mult: 2
  }
  inner_product_param {
    num_output: 25
    weight_filler {
      type: "xavier"
    }
    bias_filler {
      type: "constant"
    }
  }
}
layer {
  name: "relu1"
  type: "ReLU"
  bottom: "ip1"
  top: "ip1"
}
layer {
  name: "ip2"
  type: "InnerProduct"
  bottom: "ip1"
  top: "ip2"
  param {
    lr_mult: 1
  }
  param {
    lr_mult: 2
  }
  inner_product_param {
    num_output: 50
    weight_filler {
      type: "xavier"
    }
    bias_filler {
      type: "constant"
    }
  }
}
layer {
  name: "relu2"
  type: "ReLU"
  bottom: "ip2"
  top: "ip2"
}
layer {
  name: "ip3"
  type: "InnerProduct"
  bottom: "ip2"
  top: "ip3"
  param {
    lr_mult: 1
  }
  param {
    lr_mult: 2
  }
  inner_product_param {
    num_output: 10
    weight_filler {
      type: "xavier"
    }
    bias_filler {
      type: "constant"
    }
  }
}
layer {
  name: "relu3"
  type: "ReLU"
  bottom: "ip3"
  top: "ip3"
}
layer {
  name: "accuracy"
  type: "Accuracy"
  bottom: "ip3"
  bottom: "label"
  top: "accuracy"
  include {
    phase: TEST
  }
}
layer {
  name: "loss"
  type: "SoftmaxWithLoss"
  bottom: "ip3"
  bottom: "label"
  top: "loss"
}
I0428 20:00:47.014037 29551 layer_factory.hpp:77] Creating layer mnist
I0428 20:00:47.014092 29551 db_lmdb.cpp:35] Opened lmdb examples/mnist/mnist_test_lmdb
I0428 20:00:47.014125 29551 net.cpp:86] Creating Layer mnist
I0428 20:00:47.014132 29551 net.cpp:382] mnist -> data
I0428 20:00:47.014144 29551 net.cpp:382] mnist -> label
I0428 20:00:47.014284 29551 data_layer.cpp:45] output data size: 100,1,28,28
I0428 20:00:47.016378 29551 net.cpp:124] Setting up mnist
I0428 20:00:47.016407 29551 net.cpp:131] Top shape: 100 1 28 28 (78400)
I0428 20:00:47.016428 29551 net.cpp:131] Top shape: 100 (100)
I0428 20:00:47.016433 29551 net.cpp:139] Memory required for data: 314000
I0428 20:00:47.016436 29551 layer_factory.hpp:77] Creating layer label_mnist_1_split
I0428 20:00:47.016456 29551 net.cpp:86] Creating Layer label_mnist_1_split
I0428 20:00:47.016479 29551 net.cpp:408] label_mnist_1_split <- label
I0428 20:00:47.016484 29551 net.cpp:382] label_mnist_1_split -> label_mnist_1_split_0
I0428 20:00:47.016491 29551 net.cpp:382] label_mnist_1_split -> label_mnist_1_split_1
I0428 20:00:47.016600 29551 net.cpp:124] Setting up label_mnist_1_split
I0428 20:00:47.016609 29551 net.cpp:131] Top shape: 100 (100)
I0428 20:00:47.016613 29551 net.cpp:131] Top shape: 100 (100)
I0428 20:00:47.016616 29551 net.cpp:139] Memory required for data: 314800
I0428 20:00:47.016623 29551 layer_factory.hpp:77] Creating layer conv0
I0428 20:00:47.016631 29551 net.cpp:86] Creating Layer conv0
I0428 20:00:47.016635 29551 net.cpp:408] conv0 <- data
I0428 20:00:47.016640 29551 net.cpp:382] conv0 -> conv0
I0428 20:00:47.018352 29551 net.cpp:124] Setting up conv0
I0428 20:00:47.018366 29551 net.cpp:131] Top shape: 100 10 24 24 (576000)
I0428 20:00:47.018380 29551 net.cpp:139] Memory required for data: 2618800
I0428 20:00:47.018389 29551 layer_factory.hpp:77] Creating layer pool0
I0428 20:00:47.018395 29551 net.cpp:86] Creating Layer pool0
I0428 20:00:47.018399 29551 net.cpp:408] pool0 <- conv0
I0428 20:00:47.018404 29551 net.cpp:382] pool0 -> pool0
I0428 20:00:47.018440 29551 net.cpp:124] Setting up pool0
I0428 20:00:47.018445 29551 net.cpp:131] Top shape: 100 10 12 12 (144000)
I0428 20:00:47.018448 29551 net.cpp:139] Memory required for data: 3194800
I0428 20:00:47.018451 29551 layer_factory.hpp:77] Creating layer conv1
I0428 20:00:47.018460 29551 net.cpp:86] Creating Layer conv1
I0428 20:00:47.018462 29551 net.cpp:408] conv1 <- pool0
I0428 20:00:47.018467 29551 net.cpp:382] conv1 -> conv1
I0428 20:00:47.020611 29551 net.cpp:124] Setting up conv1
I0428 20:00:47.020654 29551 net.cpp:131] Top shape: 100 25 8 8 (160000)
I0428 20:00:47.020659 29551 net.cpp:139] Memory required for data: 3834800
I0428 20:00:47.020678 29551 layer_factory.hpp:77] Creating layer pool1
I0428 20:00:47.020704 29551 net.cpp:86] Creating Layer pool1
I0428 20:00:47.020745 29551 net.cpp:408] pool1 <- conv1
I0428 20:00:47.020752 29551 net.cpp:382] pool1 -> pool1
I0428 20:00:47.020817 29551 net.cpp:124] Setting up pool1
I0428 20:00:47.020826 29551 net.cpp:131] Top shape: 100 25 4 4 (40000)
I0428 20:00:47.020829 29551 net.cpp:139] Memory required for data: 3994800
I0428 20:00:47.020833 29551 layer_factory.hpp:77] Creating layer ip1
I0428 20:00:47.020853 29551 net.cpp:86] Creating Layer ip1
I0428 20:00:47.020858 29551 net.cpp:408] ip1 <- pool1
I0428 20:00:47.020862 29551 net.cpp:382] ip1 -> ip1
I0428 20:00:47.021158 29551 net.cpp:124] Setting up ip1
I0428 20:00:47.021167 29551 net.cpp:131] Top shape: 100 25 (2500)
I0428 20:00:47.021181 29551 net.cpp:139] Memory required for data: 4004800
I0428 20:00:47.021205 29551 layer_factory.hpp:77] Creating layer relu1
I0428 20:00:47.021210 29551 net.cpp:86] Creating Layer relu1
I0428 20:00:47.021214 29551 net.cpp:408] relu1 <- ip1
I0428 20:00:47.021217 29551 net.cpp:369] relu1 -> ip1 (in-place)
I0428 20:00:47.021378 29551 net.cpp:124] Setting up relu1
I0428 20:00:47.021386 29551 net.cpp:131] Top shape: 100 25 (2500)
I0428 20:00:47.021390 29551 net.cpp:139] Memory required for data: 4014800
I0428 20:00:47.021394 29551 layer_factory.hpp:77] Creating layer ip2
I0428 20:00:47.021400 29551 net.cpp:86] Creating Layer ip2
I0428 20:00:47.021404 29551 net.cpp:408] ip2 <- ip1
I0428 20:00:47.021409 29551 net.cpp:382] ip2 -> ip2
I0428 20:00:47.021526 29551 net.cpp:124] Setting up ip2
I0428 20:00:47.021533 29551 net.cpp:131] Top shape: 100 50 (5000)
I0428 20:00:47.021536 29551 net.cpp:139] Memory required for data: 4034800
I0428 20:00:47.021543 29551 layer_factory.hpp:77] Creating layer relu2
I0428 20:00:47.021546 29551 net.cpp:86] Creating Layer relu2
I0428 20:00:47.021549 29551 net.cpp:408] relu2 <- ip2
I0428 20:00:47.021554 29551 net.cpp:369] relu2 -> ip2 (in-place)
I0428 20:00:47.021726 29551 net.cpp:124] Setting up relu2
I0428 20:00:47.021734 29551 net.cpp:131] Top shape: 100 50 (5000)
I0428 20:00:47.021739 29551 net.cpp:139] Memory required for data: 4054800
I0428 20:00:47.021741 29551 layer_factory.hpp:77] Creating layer ip3
I0428 20:00:47.021747 29551 net.cpp:86] Creating Layer ip3
I0428 20:00:47.021750 29551 net.cpp:408] ip3 <- ip2
I0428 20:00:47.021755 29551 net.cpp:382] ip3 -> ip3
I0428 20:00:47.021872 29551 net.cpp:124] Setting up ip3
I0428 20:00:47.021878 29551 net.cpp:131] Top shape: 100 10 (1000)
I0428 20:00:47.021883 29551 net.cpp:139] Memory required for data: 4058800
I0428 20:00:47.021890 29551 layer_factory.hpp:77] Creating layer relu3
I0428 20:00:47.021898 29551 net.cpp:86] Creating Layer relu3
I0428 20:00:47.021900 29551 net.cpp:408] relu3 <- ip3
I0428 20:00:47.021904 29551 net.cpp:369] relu3 -> ip3 (in-place)
I0428 20:00:47.022816 29551 net.cpp:124] Setting up relu3
I0428 20:00:47.022828 29551 net.cpp:131] Top shape: 100 10 (1000)
I0428 20:00:47.022852 29551 net.cpp:139] Memory required for data: 4062800
I0428 20:00:47.022855 29551 layer_factory.hpp:77] Creating layer ip3_relu3_0_split
I0428 20:00:47.022861 29551 net.cpp:86] Creating Layer ip3_relu3_0_split
I0428 20:00:47.022866 29551 net.cpp:408] ip3_relu3_0_split <- ip3
I0428 20:00:47.022871 29551 net.cpp:382] ip3_relu3_0_split -> ip3_relu3_0_split_0
I0428 20:00:47.022879 29551 net.cpp:382] ip3_relu3_0_split -> ip3_relu3_0_split_1
I0428 20:00:47.022929 29551 net.cpp:124] Setting up ip3_relu3_0_split
I0428 20:00:47.022936 29551 net.cpp:131] Top shape: 100 10 (1000)
I0428 20:00:47.022940 29551 net.cpp:131] Top shape: 100 10 (1000)
I0428 20:00:47.022943 29551 net.cpp:139] Memory required for data: 4070800
I0428 20:00:47.022946 29551 layer_factory.hpp:77] Creating layer accuracy
I0428 20:00:47.022951 29551 net.cpp:86] Creating Layer accuracy
I0428 20:00:47.022954 29551 net.cpp:408] accuracy <- ip3_relu3_0_split_0
I0428 20:00:47.022959 29551 net.cpp:408] accuracy <- label_mnist_1_split_0
I0428 20:00:47.022964 29551 net.cpp:382] accuracy -> accuracy
…
