…
I0428 19:43:19.350000 25316 net.cpp:296] The NetState phase (0) differed from the phase (1) specified by a rule in layer mnist
I0428 19:43:19.350015 25316 net.cpp:296] The NetState phase (0) differed from the phase (1) specified by a rule in layer accuracy
I0428 19:43:19.350090 25316 net.cpp:53] Initializing net from parameters: 
name: "LeNet"
state {
  phase: TRAIN
  level: 0
  stage: ""
}
layer {
  name: "mnist"
  type: "Data"
  top: "data"
  top: "label"
  include {
    phase: TRAIN
  }
  transform_param {
    scale: 0.00390625
  }
  data_param {
    source: "examples/mnist/mnist_train_lmdb"
    batch_size: 64
    backend: LMDB
  }
}
layer {
  name: "conv0"
  type: "Convolution"
  bottom: "data"
  top: "conv0"
  param {
    lr_mult: 1
  }
  param {
    lr_mult: 2
  }
  convolution_param {
    num_output: 2
    kernel_size: 5
    stride: 1
    weight_filler {
      type: "xavier"
    }
    bias_filler {
      type: "constant"
    }
  }
}
layer {
  name: "pool0"
  type: "Pooling"
  bottom: "conv0"
  top: "pool0"
  pooling_param {
    pool: MAX
    kernel_size: 2
    stride: 2
  }
}
layer {
  name: "conv1"
  type: "Convolution"
  bottom: "pool0"
  top: "conv1"
  param {
    lr_mult: 1
  }
  param {
    lr_mult: 2
  }
  convolution_param {
    num_output: 25
    kernel_size: 5
    stride: 1
    weight_filler {
      type: "xavier"
    }
    bias_filler {
      type: "constant"
    }
  }
}
layer {
  name: "pool1"
  type: "Pooling"
  bottom: "conv1"
  top: "pool1"
  pooling_param {
    pool: MAX
    kernel_size: 2
    stride: 2
  }
}
layer {
  name: "ip1"
  type: "InnerProduct"
  bottom: "pool1"
  top: "ip1"
  param {
    lr_mult: 1
  }
  param {
    lr_mult: 2
  }
  inner_product_param {
    num_output: 25
    weight_filler {
      type: "xavier"
    }
    bias_filler {
      type: "constant"
    }
  }
}
layer {
  name: "relu1"
  type: "ReLU"
  bottom: "ip1"
  top: "ip1"
}
layer {
  name: "ip2"
  type: "InnerProduct"
  bottom: "ip1"
  top: "ip2"
  param {
    lr_mult: 1
  }
  param {
    lr_mult: 2
  }
  inner_product_param {
    num_output: 50
    weight_filler {
      type: "xavier"
    }
    bias_filler {
      type: "constant"
    }
  }
}
layer {
  name: "relu2"
  type: "ReLU"
  bottom: "ip2"
  top: "ip2"
}
layer {
  name: "ip3"
  type: "InnerProduct"
  bottom: "ip2"
  top: "ip3"
  param {
    lr_mult: 1
  }
  param {
    lr_mult: 2
  }
  inner_product_param {
    num_output: 10
    weight_filler {
      type: "xavier"
    }
    bias_filler {
      type: "constant"
    }
  }
}
layer {
  name: "relu3"
  type: "ReLU"
  bottom: "ip3"
  top: "ip3"
}
layer {
  name: "loss"
  type: "SoftmaxWithLoss"
  bottom: "ip3"
  bottom: "label"
  top: "loss"
}
I0428 19:43:19.350147 25316 layer_factory.hpp:77] Creating layer mnist
I0428 19:43:19.350227 25316 db_lmdb.cpp:35] Opened lmdb examples/mnist/mnist_train_lmdb
I0428 19:43:19.350246 25316 net.cpp:86] Creating Layer mnist
I0428 19:43:19.350251 25316 net.cpp:382] mnist -> data
I0428 19:43:19.350270 25316 net.cpp:382] mnist -> label
I0428 19:43:19.351158 25316 data_layer.cpp:45] output data size: 64,1,28,28
I0428 19:43:19.353350 25316 net.cpp:124] Setting up mnist
I0428 19:43:19.353395 25316 net.cpp:131] Top shape: 64 1 28 28 (50176)
I0428 19:43:19.353400 25316 net.cpp:131] Top shape: 64 (64)
I0428 19:43:19.353404 25316 net.cpp:139] Memory required for data: 200960
I0428 19:43:19.353410 25316 layer_factory.hpp:77] Creating layer conv0
I0428 19:43:19.353421 25316 net.cpp:86] Creating Layer conv0
I0428 19:43:19.353438 25316 net.cpp:408] conv0 <- data
I0428 19:43:19.353449 25316 net.cpp:382] conv0 -> conv0
I0428 19:43:19.582149 25316 net.cpp:124] Setting up conv0
I0428 19:43:19.582173 25316 net.cpp:131] Top shape: 64 2 24 24 (73728)
I0428 19:43:19.582177 25316 net.cpp:139] Memory required for data: 495872
I0428 19:43:19.582191 25316 layer_factory.hpp:77] Creating layer pool0
I0428 19:43:19.582202 25316 net.cpp:86] Creating Layer pool0
I0428 19:43:19.582206 25316 net.cpp:408] pool0 <- conv0
I0428 19:43:19.582227 25316 net.cpp:382] pool0 -> pool0
I0428 19:43:19.582288 25316 net.cpp:124] Setting up pool0
I0428 19:43:19.582294 25316 net.cpp:131] Top shape: 64 2 12 12 (18432)
I0428 19:43:19.582298 25316 net.cpp:139] Memory required for data: 569600
I0428 19:43:19.582300 25316 layer_factory.hpp:77] Creating layer conv1
I0428 19:43:19.582310 25316 net.cpp:86] Creating Layer conv1
I0428 19:43:19.582314 25316 net.cpp:408] conv1 <- pool0
I0428 19:43:19.582317 25316 net.cpp:382] conv1 -> conv1
I0428 19:43:19.585131 25316 net.cpp:124] Setting up conv1
I0428 19:43:19.585161 25316 net.cpp:131] Top shape: 64 25 8 8 (102400)
I0428 19:43:19.585165 25316 net.cpp:139] Memory required for data: 979200
I0428 19:43:19.585172 25316 layer_factory.hpp:77] Creating layer pool1
I0428 19:43:19.585180 25316 net.cpp:86] Creating Layer pool1
I0428 19:43:19.585183 25316 net.cpp:408] pool1 <- conv1
I0428 19:43:19.585187 25316 net.cpp:382] pool1 -> pool1
I0428 19:43:19.585245 25316 net.cpp:124] Setting up pool1
I0428 19:43:19.585250 25316 net.cpp:131] Top shape: 64 25 4 4 (25600)
I0428 19:43:19.585253 25316 net.cpp:139] Memory required for data: 1081600
I0428 19:43:19.585256 25316 layer_factory.hpp:77] Creating layer ip1
I0428 19:43:19.585263 25316 net.cpp:86] Creating Layer ip1
I0428 19:43:19.585266 25316 net.cpp:408] ip1 <- pool1
I0428 19:43:19.585270 25316 net.cpp:382] ip1 -> ip1
I0428 19:43:19.586336 25316 net.cpp:124] Setting up ip1
I0428 19:43:19.586349 25316 net.cpp:131] Top shape: 64 25 (1600)
I0428 19:43:19.586369 25316 net.cpp:139] Memory required for data: 1088000
I0428 19:43:19.586375 25316 layer_factory.hpp:77] Creating layer relu1
I0428 19:43:19.586381 25316 net.cpp:86] Creating Layer relu1
I0428 19:43:19.586385 25316 net.cpp:408] relu1 <- ip1
I0428 19:43:19.586390 25316 net.cpp:369] relu1 -> ip1 (in-place)
I0428 19:43:19.586562 25316 net.cpp:124] Setting up relu1
I0428 19:43:19.586571 25316 net.cpp:131] Top shape: 64 25 (1600)
I0428 19:43:19.586575 25316 net.cpp:139] Memory required for data: 1094400
I0428 19:43:19.586577 25316 layer_factory.hpp:77] Creating layer ip2
I0428 19:43:19.586585 25316 net.cpp:86] Creating Layer ip2
I0428 19:43:19.586587 25316 net.cpp:408] ip2 <- ip1
I0428 19:43:19.586592 25316 net.cpp:382] ip2 -> ip2
I0428 19:43:19.586711 25316 net.cpp:124] Setting up ip2
I0428 19:43:19.586719 25316 net.cpp:131] Top shape: 64 50 (3200)
I0428 19:43:19.586721 25316 net.cpp:139] Memory required for data: 1107200
I0428 19:43:19.586727 25316 layer_factory.hpp:77] Creating layer relu2
I0428 19:43:19.586732 25316 net.cpp:86] Creating Layer relu2
I0428 19:43:19.586735 25316 net.cpp:408] relu2 <- ip2
I0428 19:43:19.586740 25316 net.cpp:369] relu2 -> ip2 (in-place)
I0428 19:43:19.587532 25316 net.cpp:124] Setting up relu2
I0428 19:43:19.587543 25316 net.cpp:131] Top shape: 64 50 (3200)
I0428 19:43:19.587563 25316 net.cpp:139] Memory required for data: 1120000
I0428 19:43:19.587566 25316 layer_factory.hpp:77] Creating layer ip3
I0428 19:43:19.587590 25316 net.cpp:86] Creating Layer ip3
I0428 19:43:19.587594 25316 net.cpp:408] ip3 <- ip2
I0428 19:43:19.587600 25316 net.cpp:382] ip3 -> ip3
I0428 19:43:19.587693 25316 net.cpp:124] Setting up ip3
I0428 19:43:19.587718 25316 net.cpp:131] Top shape: 64 10 (640)
I0428 19:43:19.587720 25316 net.cpp:139] Memory required for data: 1122560
I0428 19:43:19.587728 25316 layer_factory.hpp:77] Creating layer relu3
I0428 19:43:19.587749 25316 net.cpp:86] Creating Layer relu3
I0428 19:43:19.587751 25316 net.cpp:408] relu3 <- ip3
I0428 19:43:19.587755 25316 net.cpp:369] relu3 -> ip3 (in-place)
I0428 19:43:19.587951 25316 net.cpp:124] Setting up relu3
I0428 19:43:19.587965 25316 net.cpp:131] Top shape: 64 10 (640)
I0428 19:43:19.587968 25316 net.cpp:139] Memory required for data: 1125120
I0428 19:43:19.587971 25316 layer_factory.hpp:77] Creating layer loss
I0428 19:43:19.587977 25316 net.cpp:86] Creating Layer loss
I0428 19:43:19.587981 25316 net.cpp:408] loss <- ip3
I0428 19:43:19.587985 25316 net.cpp:408] loss <- label
I0428 19:43:19.587992 25316 net.cpp:382] loss -> loss
I0428 19:43:19.588011 25316 layer_factory.hpp:77] Creating layer loss
…
I0428 19:43:19.588697 25316 solver.cpp:173] Creating test net (#0) specified by net file: ECE595/mnist/train_test/var_everything2/lenet_train_test418.prototxt
I0428 19:43:19.588739 25316 net.cpp:296] The NetState phase (1) differed from the phase (0) specified by a rule in layer mnist
I0428 19:43:19.588876 25316 net.cpp:53] Initializing net from parameters: 
name: "LeNet"
state {
  phase: TEST
}
layer {
  name: "mnist"
  type: "Data"
  top: "data"
  top: "label"
  include {
    phase: TEST
  }
  transform_param {
    scale: 0.00390625
  }
  data_param {
    source: "examples/mnist/mnist_test_lmdb"
    batch_size: 100
    backend: LMDB
  }
}
layer {
  name: "conv0"
  type: "Convolution"
  bottom: "data"
  top: "conv0"
  param {
    lr_mult: 1
  }
  param {
    lr_mult: 2
  }
  convolution_param {
    num_output: 2
    kernel_size: 5
    stride: 1
    weight_filler {
      type: "xavier"
    }
    bias_filler {
      type: "constant"
    }
  }
}
layer {
  name: "pool0"
  type: "Pooling"
  bottom: "conv0"
  top: "pool0"
  pooling_param {
    pool: MAX
    kernel_size: 2
    stride: 2
  }
}
layer {
  name: "conv1"
  type: "Convolution"
  bottom: "pool0"
  top: "conv1"
  param {
    lr_mult: 1
  }
  param {
    lr_mult: 2
  }
  convolution_param {
    num_output: 25
    kernel_size: 5
    stride: 1
    weight_filler {
      type: "xavier"
    }
    bias_filler {
      type: "constant"
    }
  }
}
layer {
  name: "pool1"
  type: "Pooling"
  bottom: "conv1"
  top: "pool1"
  pooling_param {
    pool: MAX
    kernel_size: 2
    stride: 2
  }
}
layer {
  name: "ip1"
  type: "InnerProduct"
  bottom: "pool1"
  top: "ip1"
  param {
    lr_mult: 1
  }
  param {
    lr_mult: 2
  }
  inner_product_param {
    num_output: 25
    weight_filler {
      type: "xavier"
    }
    bias_filler {
      type: "constant"
    }
  }
}
layer {
  name: "relu1"
  type: "ReLU"
  bottom: "ip1"
  top: "ip1"
}
layer {
  name: "ip2"
  type: "InnerProduct"
  bottom: "ip1"
  top: "ip2"
  param {
    lr_mult: 1
  }
  param {
    lr_mult: 2
  }
  inner_product_param {
    num_output: 50
    weight_filler {
      type: "xavier"
    }
    bias_filler {
      type: "constant"
    }
  }
}
layer {
  name: "relu2"
  type: "ReLU"
  bottom: "ip2"
  top: "ip2"
}
layer {
  name: "ip3"
  type: "InnerProduct"
  bottom: "ip2"
  top: "ip3"
  param {
    lr_mult: 1
  }
  param {
    lr_mult: 2
  }
  inner_product_param {
    num_output: 10
    weight_filler {
      type: "xavier"
    }
    bias_filler {
      type: "constant"
    }
  }
}
layer {
  name: "relu3"
  type: "ReLU"
  bottom: "ip3"
  top: "ip3"
}
layer {
  name: "accuracy"
  type: "Accuracy"
  bottom: "ip3"
  bottom: "label"
  top: "accuracy"
  include {
    phase: TEST
  }
}
layer {
  name: "loss"
  type: "SoftmaxWithLoss"
  bottom: "ip3"
  bottom: "label"
  top: "loss"
}
I0428 19:43:19.588959 25316 layer_factory.hpp:77] Creating layer mnist
I0428 19:43:19.589002 25316 db_lmdb.cpp:35] Opened lmdb examples/mnist/mnist_test_lmdb
I0428 19:43:19.589020 25316 net.cpp:86] Creating Layer mnist
I0428 19:43:19.589025 25316 net.cpp:382] mnist -> data
I0428 19:43:19.589031 25316 net.cpp:382] mnist -> label
I0428 19:43:19.589118 25316 data_layer.cpp:45] output data size: 100,1,28,28
I0428 19:43:19.591099 25316 net.cpp:124] Setting up mnist
I0428 19:43:19.591128 25316 net.cpp:131] Top shape: 100 1 28 28 (78400)
I0428 19:43:19.591133 25316 net.cpp:131] Top shape: 100 (100)
I0428 19:43:19.591136 25316 net.cpp:139] Memory required for data: 314000
I0428 19:43:19.591140 25316 layer_factory.hpp:77] Creating layer label_mnist_1_split
I0428 19:43:19.591184 25316 net.cpp:86] Creating Layer label_mnist_1_split
I0428 19:43:19.591188 25316 net.cpp:408] label_mnist_1_split <- label
I0428 19:43:19.591193 25316 net.cpp:382] label_mnist_1_split -> label_mnist_1_split_0
I0428 19:43:19.591200 25316 net.cpp:382] label_mnist_1_split -> label_mnist_1_split_1
I0428 19:43:19.591253 25316 net.cpp:124] Setting up label_mnist_1_split
I0428 19:43:19.591259 25316 net.cpp:131] Top shape: 100 (100)
I0428 19:43:19.591261 25316 net.cpp:131] Top shape: 100 (100)
I0428 19:43:19.591264 25316 net.cpp:139] Memory required for data: 314800
I0428 19:43:19.591267 25316 layer_factory.hpp:77] Creating layer conv0
I0428 19:43:19.591276 25316 net.cpp:86] Creating Layer conv0
I0428 19:43:19.591279 25316 net.cpp:408] conv0 <- data
I0428 19:43:19.591285 25316 net.cpp:382] conv0 -> conv0
I0428 19:43:19.593159 25316 net.cpp:124] Setting up conv0
I0428 19:43:19.593173 25316 net.cpp:131] Top shape: 100 2 24 24 (115200)
I0428 19:43:19.593178 25316 net.cpp:139] Memory required for data: 775600
I0428 19:43:19.593200 25316 layer_factory.hpp:77] Creating layer pool0
I0428 19:43:19.593225 25316 net.cpp:86] Creating Layer pool0
I0428 19:43:19.593242 25316 net.cpp:408] pool0 <- conv0
I0428 19:43:19.593247 25316 net.cpp:382] pool0 -> pool0
I0428 19:43:19.593286 25316 net.cpp:124] Setting up pool0
I0428 19:43:19.593307 25316 net.cpp:131] Top shape: 100 2 12 12 (28800)
I0428 19:43:19.593309 25316 net.cpp:139] Memory required for data: 890800
I0428 19:43:19.593312 25316 layer_factory.hpp:77] Creating layer conv1
I0428 19:43:19.593320 25316 net.cpp:86] Creating Layer conv1
I0428 19:43:19.593324 25316 net.cpp:408] conv1 <- pool0
I0428 19:43:19.593329 25316 net.cpp:382] conv1 -> conv1
I0428 19:43:19.594998 25316 net.cpp:124] Setting up conv1
I0428 19:43:19.595010 25316 net.cpp:131] Top shape: 100 25 8 8 (160000)
I0428 19:43:19.595015 25316 net.cpp:139] Memory required for data: 1530800
I0428 19:43:19.595023 25316 layer_factory.hpp:77] Creating layer pool1
I0428 19:43:19.595052 25316 net.cpp:86] Creating Layer pool1
I0428 19:43:19.595055 25316 net.cpp:408] pool1 <- conv1
I0428 19:43:19.595062 25316 net.cpp:382] pool1 -> pool1
I0428 19:43:19.595101 25316 net.cpp:124] Setting up pool1
I0428 19:43:19.595108 25316 net.cpp:131] Top shape: 100 25 4 4 (40000)
I0428 19:43:19.595110 25316 net.cpp:139] Memory required for data: 1690800
I0428 19:43:19.595113 25316 layer_factory.hpp:77] Creating layer ip1
I0428 19:43:19.595119 25316 net.cpp:86] Creating Layer ip1
I0428 19:43:19.595122 25316 net.cpp:408] ip1 <- pool1
I0428 19:43:19.595129 25316 net.cpp:382] ip1 -> ip1
I0428 19:43:19.595297 25316 net.cpp:124] Setting up ip1
I0428 19:43:19.595305 25316 net.cpp:131] Top shape: 100 25 (2500)
I0428 19:43:19.595319 25316 net.cpp:139] Memory required for data: 1700800
I0428 19:43:19.595327 25316 layer_factory.hpp:77] Creating layer relu1
I0428 19:43:19.595338 25316 net.cpp:86] Creating Layer relu1
I0428 19:43:19.595341 25316 net.cpp:408] relu1 <- ip1
I0428 19:43:19.595346 25316 net.cpp:369] relu1 -> ip1 (in-place)
I0428 19:43:19.595507 25316 net.cpp:124] Setting up relu1
I0428 19:43:19.595516 25316 net.cpp:131] Top shape: 100 25 (2500)
I0428 19:43:19.595520 25316 net.cpp:139] Memory required for data: 1710800
I0428 19:43:19.595522 25316 layer_factory.hpp:77] Creating layer ip2
I0428 19:43:19.595530 25316 net.cpp:86] Creating Layer ip2
I0428 19:43:19.595532 25316 net.cpp:408] ip2 <- ip1
I0428 19:43:19.595538 25316 net.cpp:382] ip2 -> ip2
I0428 19:43:19.595662 25316 net.cpp:124] Setting up ip2
I0428 19:43:19.595670 25316 net.cpp:131] Top shape: 100 50 (5000)
I0428 19:43:19.595674 25316 net.cpp:139] Memory required for data: 1730800
I0428 19:43:19.595679 25316 layer_factory.hpp:77] Creating layer relu2
I0428 19:43:19.595684 25316 net.cpp:86] Creating Layer relu2
I0428 19:43:19.595687 25316 net.cpp:408] relu2 <- ip2
I0428 19:43:19.595692 25316 net.cpp:369] relu2 -> ip2 (in-place)
I0428 19:43:19.595959 25316 net.cpp:124] Setting up relu2
I0428 19:43:19.595968 25316 net.cpp:131] Top shape: 100 50 (5000)
I0428 19:43:19.595971 25316 net.cpp:139] Memory required for data: 1750800
I0428 19:43:19.595974 25316 layer_factory.hpp:77] Creating layer ip3
I0428 19:43:19.595981 25316 net.cpp:86] Creating Layer ip3
I0428 19:43:19.595984 25316 net.cpp:408] ip3 <- ip2
I0428 19:43:19.595988 25316 net.cpp:382] ip3 -> ip3
I0428 19:43:19.596159 25316 net.cpp:124] Setting up ip3
I0428 19:43:19.596166 25316 net.cpp:131] Top shape: 100 10 (1000)
I0428 19:43:19.596169 25316 net.cpp:139] Memory required for data: 1754800
I0428 19:43:19.596177 25316 layer_factory.hpp:77] Creating layer relu3
I0428 19:43:19.596181 25316 net.cpp:86] Creating Layer relu3
I0428 19:43:19.596184 25316 net.cpp:408] relu3 <- ip3
I0428 19:43:19.596189 25316 net.cpp:369] relu3 -> ip3 (in-place)
I0428 19:43:19.597076 25316 net.cpp:124] Setting up relu3
I0428 19:43:19.597090 25316 net.cpp:131] Top shape: 100 10 (1000)
I0428 19:43:19.597093 25316 net.cpp:139] Memory required for data: 1758800
I0428 19:43:19.597096 25316 layer_factory.hpp:77] Creating layer ip3_relu3_0_split
I0428 19:43:19.597103 25316 net.cpp:86] Creating Layer ip3_relu3_0_split
I0428 19:43:19.597122 25316 net.cpp:408] ip3_relu3_0_split <- ip3
I0428 19:43:19.597142 25316 net.cpp:382] ip3_relu3_0_split -> ip3_relu3_0_split_0
I0428 19:43:19.597148 25316 net.cpp:382] ip3_relu3_0_split -> ip3_relu3_0_split_1
I0428 19:43:19.597213 25316 net.cpp:124] Setting up ip3_relu3_0_split
I0428 19:43:19.597219 25316 net.cpp:131] Top shape: 100 10 (1000)
I0428 19:43:19.597229 25316 net.cpp:131] Top shape: 100 10 (1000)
I0428 19:43:19.597231 25316 net.cpp:139] Memory required for data: 1766800
I0428 19:43:19.597234 25316 layer_factory.hpp:77] Creating layer accuracy
I0428 19:43:19.597239 25316 net.cpp:86] Creating Layer accuracy
I0428 19:43:19.597241 25316 net.cpp:408] accuracy <- ip3_relu3_0_split_0
I0428 19:43:19.597245 25316 net.cpp:408] accuracy <- label_mnist_1_split_0
I0428 19:43:19.597255 25316 net.cpp:382] accuracy -> accuracy
…
