…
I0428 19:42:00.832357 24963 net.cpp:296] The NetState phase (0) differed from the phase (1) specified by a rule in layer mnist
I0428 19:42:00.832384 24963 net.cpp:296] The NetState phase (0) differed from the phase (1) specified by a rule in layer accuracy
I0428 19:42:00.832500 24963 net.cpp:53] Initializing net from parameters: 
name: "LeNet"
state {
  phase: TRAIN
  level: 0
  stage: ""
}
layer {
  name: "mnist"
  type: "Data"
  top: "data"
  top: "label"
  include {
    phase: TRAIN
  }
  transform_param {
    scale: 0.00390625
  }
  data_param {
    source: "examples/mnist/mnist_train_lmdb"
    batch_size: 64
    backend: LMDB
  }
}
layer {
  name: "conv0"
  type: "Convolution"
  bottom: "data"
  top: "conv0"
  param {
    lr_mult: 1
  }
  param {
    lr_mult: 2
  }
  convolution_param {
    num_output: 2
    kernel_size: 5
    stride: 1
    weight_filler {
      type: "xavier"
    }
    bias_filler {
      type: "constant"
    }
  }
}
layer {
  name: "pool0"
  type: "Pooling"
  bottom: "conv0"
  top: "pool0"
  pooling_param {
    pool: MAX
    kernel_size: 2
    stride: 2
  }
}
layer {
  name: "conv1"
  type: "Convolution"
  bottom: "pool0"
  top: "conv1"
  param {
    lr_mult: 1
  }
  param {
    lr_mult: 2
  }
  convolution_param {
    num_output: 10
    kernel_size: 5
    stride: 1
    weight_filler {
      type: "xavier"
    }
    bias_filler {
      type: "constant"
    }
  }
}
layer {
  name: "pool1"
  type: "Pooling"
  bottom: "conv1"
  top: "pool1"
  pooling_param {
    pool: MAX
    kernel_size: 2
    stride: 2
  }
}
layer {
  name: "ip1"
  type: "InnerProduct"
  bottom: "pool1"
  top: "ip1"
  param {
    lr_mult: 1
  }
  param {
    lr_mult: 2
  }
  inner_product_param {
    num_output: 50
    weight_filler {
      type: "xavier"
    }
    bias_filler {
      type: "constant"
    }
  }
}
layer {
  name: "relu1"
  type: "ReLU"
  bottom: "ip1"
  top: "ip1"
}
layer {
  name: "ip2"
  type: "InnerProduct"
  bottom: "ip1"
  top: "ip2"
  param {
    lr_mult: 1
  }
  param {
    lr_mult: 2
  }
  inner_product_param {
    num_output: 10
    weight_filler {
      type: "xavier"
    }
    bias_filler {
      type: "constant"
    }
  }
}
layer {
  name: "relu2"
  type: "ReLU"
  bottom: "ip2"
  top: "ip2"
}
layer {
  name: "ip3"
  type: "InnerProduct"
  bottom: "ip2"
  top: "ip3"
  param {
    lr_mult: 1
  }
  param {
    lr_mult: 2
  }
  inner_product_param {
    num_output: 10
    weight_filler {
      type: "xavier"
    }
    bias_filler {
      type: "constant"
    }
  }
}
layer {
  name: "relu3"
  type: "ReLU"
  bottom: "ip3"
  top: "ip3"
}
layer {
  name: "loss"
  type: "SoftmaxWithLoss"
  bottom: "ip3"
  bottom: "label"
  top: "loss"
}
I0428 19:42:00.832618 24963 layer_factory.hpp:77] Creating layer mnist
I0428 19:42:00.832748 24963 db_lmdb.cpp:35] Opened lmdb examples/mnist/mnist_train_lmdb
I0428 19:42:00.832784 24963 net.cpp:86] Creating Layer mnist
I0428 19:42:00.832797 24963 net.cpp:382] mnist -> data
I0428 19:42:00.832840 24963 net.cpp:382] mnist -> label
I0428 19:42:00.834128 24963 data_layer.cpp:45] output data size: 64,1,28,28
I0428 19:42:00.836591 24963 net.cpp:124] Setting up mnist
I0428 19:42:00.836611 24963 net.cpp:131] Top shape: 64 1 28 28 (50176)
I0428 19:42:00.836624 24963 net.cpp:131] Top shape: 64 (64)
I0428 19:42:00.836630 24963 net.cpp:139] Memory required for data: 200960
I0428 19:42:00.836642 24963 layer_factory.hpp:77] Creating layer conv0
I0428 19:42:00.836663 24963 net.cpp:86] Creating Layer conv0
I0428 19:42:00.836689 24963 net.cpp:408] conv0 <- data
I0428 19:42:00.836711 24963 net.cpp:382] conv0 -> conv0
I0428 19:42:01.123435 24963 net.cpp:124] Setting up conv0
I0428 19:42:01.123466 24963 net.cpp:131] Top shape: 64 2 24 24 (73728)
I0428 19:42:01.123472 24963 net.cpp:139] Memory required for data: 495872
I0428 19:42:01.123495 24963 layer_factory.hpp:77] Creating layer pool0
I0428 19:42:01.123514 24963 net.cpp:86] Creating Layer pool0
I0428 19:42:01.123522 24963 net.cpp:408] pool0 <- conv0
I0428 19:42:01.123533 24963 net.cpp:382] pool0 -> pool0
I0428 19:42:01.123598 24963 net.cpp:124] Setting up pool0
I0428 19:42:01.123608 24963 net.cpp:131] Top shape: 64 2 12 12 (18432)
I0428 19:42:01.123615 24963 net.cpp:139] Memory required for data: 569600
I0428 19:42:01.123620 24963 layer_factory.hpp:77] Creating layer conv1
I0428 19:42:01.123637 24963 net.cpp:86] Creating Layer conv1
I0428 19:42:01.123646 24963 net.cpp:408] conv1 <- pool0
I0428 19:42:01.123656 24963 net.cpp:382] conv1 -> conv1
I0428 19:42:01.125684 24963 net.cpp:124] Setting up conv1
I0428 19:42:01.125702 24963 net.cpp:131] Top shape: 64 10 8 8 (40960)
I0428 19:42:01.125708 24963 net.cpp:139] Memory required for data: 733440
I0428 19:42:01.125723 24963 layer_factory.hpp:77] Creating layer pool1
I0428 19:42:01.125740 24963 net.cpp:86] Creating Layer pool1
I0428 19:42:01.125753 24963 net.cpp:408] pool1 <- conv1
I0428 19:42:01.125762 24963 net.cpp:382] pool1 -> pool1
I0428 19:42:01.125814 24963 net.cpp:124] Setting up pool1
I0428 19:42:01.125824 24963 net.cpp:131] Top shape: 64 10 4 4 (10240)
I0428 19:42:01.125829 24963 net.cpp:139] Memory required for data: 774400
I0428 19:42:01.125835 24963 layer_factory.hpp:77] Creating layer ip1
I0428 19:42:01.125847 24963 net.cpp:86] Creating Layer ip1
I0428 19:42:01.125854 24963 net.cpp:408] ip1 <- pool1
I0428 19:42:01.125864 24963 net.cpp:382] ip1 -> ip1
I0428 19:42:01.126941 24963 net.cpp:124] Setting up ip1
I0428 19:42:01.126956 24963 net.cpp:131] Top shape: 64 50 (3200)
I0428 19:42:01.126968 24963 net.cpp:139] Memory required for data: 787200
I0428 19:42:01.126982 24963 layer_factory.hpp:77] Creating layer relu1
I0428 19:42:01.126992 24963 net.cpp:86] Creating Layer relu1
I0428 19:42:01.126998 24963 net.cpp:408] relu1 <- ip1
I0428 19:42:01.127007 24963 net.cpp:369] relu1 -> ip1 (in-place)
I0428 19:42:01.127213 24963 net.cpp:124] Setting up relu1
I0428 19:42:01.127225 24963 net.cpp:131] Top shape: 64 50 (3200)
I0428 19:42:01.127231 24963 net.cpp:139] Memory required for data: 800000
I0428 19:42:01.127236 24963 layer_factory.hpp:77] Creating layer ip2
I0428 19:42:01.127249 24963 net.cpp:86] Creating Layer ip2
I0428 19:42:01.127256 24963 net.cpp:408] ip2 <- ip1
I0428 19:42:01.127265 24963 net.cpp:382] ip2 -> ip2
I0428 19:42:01.127388 24963 net.cpp:124] Setting up ip2
I0428 19:42:01.127399 24963 net.cpp:131] Top shape: 64 10 (640)
I0428 19:42:01.127404 24963 net.cpp:139] Memory required for data: 802560
I0428 19:42:01.127414 24963 layer_factory.hpp:77] Creating layer relu2
I0428 19:42:01.127425 24963 net.cpp:86] Creating Layer relu2
I0428 19:42:01.127435 24963 net.cpp:408] relu2 <- ip2
I0428 19:42:01.127446 24963 net.cpp:369] relu2 -> ip2 (in-place)
I0428 19:42:01.128268 24963 net.cpp:124] Setting up relu2
I0428 19:42:01.128283 24963 net.cpp:131] Top shape: 64 10 (640)
I0428 19:42:01.128288 24963 net.cpp:139] Memory required for data: 805120
I0428 19:42:01.128294 24963 layer_factory.hpp:77] Creating layer ip3
I0428 19:42:01.128309 24963 net.cpp:86] Creating Layer ip3
I0428 19:42:01.128314 24963 net.cpp:408] ip3 <- ip2
I0428 19:42:01.128324 24963 net.cpp:382] ip3 -> ip3
I0428 19:42:01.128448 24963 net.cpp:124] Setting up ip3
I0428 19:42:01.128458 24963 net.cpp:131] Top shape: 64 10 (640)
I0428 19:42:01.128463 24963 net.cpp:139] Memory required for data: 807680
I0428 19:42:01.128478 24963 layer_factory.hpp:77] Creating layer relu3
I0428 19:42:01.128489 24963 net.cpp:86] Creating Layer relu3
I0428 19:42:01.128497 24963 net.cpp:408] relu3 <- ip3
I0428 19:42:01.128504 24963 net.cpp:369] relu3 -> ip3 (in-place)
I0428 19:42:01.128705 24963 net.cpp:124] Setting up relu3
I0428 19:42:01.128715 24963 net.cpp:131] Top shape: 64 10 (640)
I0428 19:42:01.128721 24963 net.cpp:139] Memory required for data: 810240
I0428 19:42:01.128726 24963 layer_factory.hpp:77] Creating layer loss
I0428 19:42:01.128738 24963 net.cpp:86] Creating Layer loss
I0428 19:42:01.128743 24963 net.cpp:408] loss <- ip3
I0428 19:42:01.128751 24963 net.cpp:408] loss <- label
I0428 19:42:01.128759 24963 net.cpp:382] loss -> loss
I0428 19:42:01.128785 24963 layer_factory.hpp:77] Creating layer loss
…
I0428 19:42:01.129549 24963 solver.cpp:173] Creating test net (#0) specified by net file: ECE595/mnist/train_test/var_everything2/lenet_train_test381.prototxt
I0428 19:42:01.129585 24963 net.cpp:296] The NetState phase (1) differed from the phase (0) specified by a rule in layer mnist
I0428 19:42:01.129693 24963 net.cpp:53] Initializing net from parameters: 
name: "LeNet"
state {
  phase: TEST
}
layer {
  name: "mnist"
  type: "Data"
  top: "data"
  top: "label"
  include {
    phase: TEST
  }
  transform_param {
    scale: 0.00390625
  }
  data_param {
    source: "examples/mnist/mnist_test_lmdb"
    batch_size: 100
    backend: LMDB
  }
}
layer {
  name: "conv0"
  type: "Convolution"
  bottom: "data"
  top: "conv0"
  param {
    lr_mult: 1
  }
  param {
    lr_mult: 2
  }
  convolution_param {
    num_output: 2
    kernel_size: 5
    stride: 1
    weight_filler {
      type: "xavier"
    }
    bias_filler {
      type: "constant"
    }
  }
}
layer {
  name: "pool0"
  type: "Pooling"
  bottom: "conv0"
  top: "pool0"
  pooling_param {
    pool: MAX
    kernel_size: 2
    stride: 2
  }
}
layer {
  name: "conv1"
  type: "Convolution"
  bottom: "pool0"
  top: "conv1"
  param {
    lr_mult: 1
  }
  param {
    lr_mult: 2
  }
  convolution_param {
    num_output: 10
    kernel_size: 5
    stride: 1
    weight_filler {
      type: "xavier"
    }
    bias_filler {
      type: "constant"
    }
  }
}
layer {
  name: "pool1"
  type: "Pooling"
  bottom: "conv1"
  top: "pool1"
  pooling_param {
    pool: MAX
    kernel_size: 2
    stride: 2
  }
}
layer {
  name: "ip1"
  type: "InnerProduct"
  bottom: "pool1"
  top: "ip1"
  param {
    lr_mult: 1
  }
  param {
    lr_mult: 2
  }
  inner_product_param {
    num_output: 50
    weight_filler {
      type: "xavier"
    }
    bias_filler {
      type: "constant"
    }
  }
}
layer {
  name: "relu1"
  type: "ReLU"
  bottom: "ip1"
  top: "ip1"
}
layer {
  name: "ip2"
  type: "InnerProduct"
  bottom: "ip1"
  top: "ip2"
  param {
    lr_mult: 1
  }
  param {
    lr_mult: 2
  }
  inner_product_param {
    num_output: 10
    weight_filler {
      type: "xavier"
    }
    bias_filler {
      type: "constant"
    }
  }
}
layer {
  name: "relu2"
  type: "ReLU"
  bottom: "ip2"
  top: "ip2"
}
layer {
  name: "ip3"
  type: "InnerProduct"
  bottom: "ip2"
  top: "ip3"
  param {
    lr_mult: 1
  }
  param {
    lr_mult: 2
  }
  inner_product_param {
    num_output: 10
    weight_filler {
      type: "xavier"
    }
    bias_filler {
      type: "constant"
    }
  }
}
layer {
  name: "relu3"
  type: "ReLU"
  bottom: "ip3"
  top: "ip3"
}
layer {
  name: "accuracy"
  type: "Accuracy"
  bottom: "ip3"
  bottom: "label"
  top: "accuracy"
  include {
    phase: TEST
  }
}
layer {
  name: "loss"
  type: "SoftmaxWithLoss"
  bottom: "ip3"
  bottom: "label"
  top: "loss"
}
I0428 19:42:01.129820 24963 layer_factory.hpp:77] Creating layer mnist
I0428 19:42:01.129883 24963 db_lmdb.cpp:35] Opened lmdb examples/mnist/mnist_test_lmdb
I0428 19:42:01.129900 24963 net.cpp:86] Creating Layer mnist
I0428 19:42:01.129912 24963 net.cpp:382] mnist -> data
I0428 19:42:01.129925 24963 net.cpp:382] mnist -> label
I0428 19:42:01.130055 24963 data_layer.cpp:45] output data size: 100,1,28,28
I0428 19:42:01.132189 24963 net.cpp:124] Setting up mnist
I0428 19:42:01.132221 24963 net.cpp:131] Top shape: 100 1 28 28 (78400)
I0428 19:42:01.132230 24963 net.cpp:131] Top shape: 100 (100)
I0428 19:42:01.132236 24963 net.cpp:139] Memory required for data: 314000
I0428 19:42:01.132241 24963 layer_factory.hpp:77] Creating layer label_mnist_1_split
I0428 19:42:01.132256 24963 net.cpp:86] Creating Layer label_mnist_1_split
I0428 19:42:01.132262 24963 net.cpp:408] label_mnist_1_split <- label
I0428 19:42:01.132273 24963 net.cpp:382] label_mnist_1_split -> label_mnist_1_split_0
I0428 19:42:01.132285 24963 net.cpp:382] label_mnist_1_split -> label_mnist_1_split_1
I0428 19:42:01.132622 24963 net.cpp:124] Setting up label_mnist_1_split
I0428 19:42:01.132632 24963 net.cpp:131] Top shape: 100 (100)
I0428 19:42:01.132638 24963 net.cpp:131] Top shape: 100 (100)
I0428 19:42:01.132643 24963 net.cpp:139] Memory required for data: 314800
I0428 19:42:01.132648 24963 layer_factory.hpp:77] Creating layer conv0
I0428 19:42:01.132666 24963 net.cpp:86] Creating Layer conv0
I0428 19:42:01.132673 24963 net.cpp:408] conv0 <- data
I0428 19:42:01.132683 24963 net.cpp:382] conv0 -> conv0
I0428 19:42:01.134474 24963 net.cpp:124] Setting up conv0
I0428 19:42:01.134491 24963 net.cpp:131] Top shape: 100 2 24 24 (115200)
I0428 19:42:01.134497 24963 net.cpp:139] Memory required for data: 775600
I0428 19:42:01.134515 24963 layer_factory.hpp:77] Creating layer pool0
I0428 19:42:01.134526 24963 net.cpp:86] Creating Layer pool0
I0428 19:42:01.134534 24963 net.cpp:408] pool0 <- conv0
I0428 19:42:01.134544 24963 net.cpp:382] pool0 -> pool0
I0428 19:42:01.134590 24963 net.cpp:124] Setting up pool0
I0428 19:42:01.134600 24963 net.cpp:131] Top shape: 100 2 12 12 (28800)
I0428 19:42:01.134606 24963 net.cpp:139] Memory required for data: 890800
I0428 19:42:01.134620 24963 layer_factory.hpp:77] Creating layer conv1
I0428 19:42:01.134637 24963 net.cpp:86] Creating Layer conv1
I0428 19:42:01.134644 24963 net.cpp:408] conv1 <- pool0
I0428 19:42:01.134654 24963 net.cpp:382] conv1 -> conv1
I0428 19:42:01.136198 24963 net.cpp:124] Setting up conv1
I0428 19:42:01.136214 24963 net.cpp:131] Top shape: 100 10 8 8 (64000)
I0428 19:42:01.136221 24963 net.cpp:139] Memory required for data: 1146800
I0428 19:42:01.136235 24963 layer_factory.hpp:77] Creating layer pool1
I0428 19:42:01.136248 24963 net.cpp:86] Creating Layer pool1
I0428 19:42:01.136255 24963 net.cpp:408] pool1 <- conv1
I0428 19:42:01.136265 24963 net.cpp:382] pool1 -> pool1
I0428 19:42:01.136312 24963 net.cpp:124] Setting up pool1
I0428 19:42:01.136320 24963 net.cpp:131] Top shape: 100 10 4 4 (16000)
I0428 19:42:01.136325 24963 net.cpp:139] Memory required for data: 1210800
I0428 19:42:01.136330 24963 layer_factory.hpp:77] Creating layer ip1
I0428 19:42:01.136343 24963 net.cpp:86] Creating Layer ip1
I0428 19:42:01.136350 24963 net.cpp:408] ip1 <- pool1
I0428 19:42:01.136358 24963 net.cpp:382] ip1 -> ip1
I0428 19:42:01.136518 24963 net.cpp:124] Setting up ip1
I0428 19:42:01.136528 24963 net.cpp:131] Top shape: 100 50 (5000)
I0428 19:42:01.136548 24963 net.cpp:139] Memory required for data: 1230800
I0428 19:42:01.136560 24963 layer_factory.hpp:77] Creating layer relu1
I0428 19:42:01.136574 24963 net.cpp:86] Creating Layer relu1
I0428 19:42:01.136581 24963 net.cpp:408] relu1 <- ip1
I0428 19:42:01.136590 24963 net.cpp:369] relu1 -> ip1 (in-place)
I0428 19:42:01.136772 24963 net.cpp:124] Setting up relu1
I0428 19:42:01.136785 24963 net.cpp:131] Top shape: 100 50 (5000)
I0428 19:42:01.136790 24963 net.cpp:139] Memory required for data: 1250800
I0428 19:42:01.136795 24963 layer_factory.hpp:77] Creating layer ip2
I0428 19:42:01.136831 24963 net.cpp:86] Creating Layer ip2
I0428 19:42:01.136838 24963 net.cpp:408] ip2 <- ip1
I0428 19:42:01.136850 24963 net.cpp:382] ip2 -> ip2
I0428 19:42:01.136989 24963 net.cpp:124] Setting up ip2
I0428 19:42:01.137002 24963 net.cpp:131] Top shape: 100 10 (1000)
I0428 19:42:01.137007 24963 net.cpp:139] Memory required for data: 1254800
I0428 19:42:01.137017 24963 layer_factory.hpp:77] Creating layer relu2
I0428 19:42:01.137025 24963 net.cpp:86] Creating Layer relu2
I0428 19:42:01.137030 24963 net.cpp:408] relu2 <- ip2
I0428 19:42:01.137038 24963 net.cpp:369] relu2 -> ip2 (in-place)
I0428 19:42:01.137303 24963 net.cpp:124] Setting up relu2
I0428 19:42:01.137317 24963 net.cpp:131] Top shape: 100 10 (1000)
I0428 19:42:01.137322 24963 net.cpp:139] Memory required for data: 1258800
I0428 19:42:01.137328 24963 layer_factory.hpp:77] Creating layer ip3
I0428 19:42:01.137338 24963 net.cpp:86] Creating Layer ip3
I0428 19:42:01.137343 24963 net.cpp:408] ip3 <- ip2
I0428 19:42:01.137354 24963 net.cpp:382] ip3 -> ip3
I0428 19:42:01.137467 24963 net.cpp:124] Setting up ip3
I0428 19:42:01.137476 24963 net.cpp:131] Top shape: 100 10 (1000)
I0428 19:42:01.137482 24963 net.cpp:139] Memory required for data: 1262800
I0428 19:42:01.137497 24963 layer_factory.hpp:77] Creating layer relu3
I0428 19:42:01.137506 24963 net.cpp:86] Creating Layer relu3
I0428 19:42:01.137512 24963 net.cpp:408] relu3 <- ip3
I0428 19:42:01.137521 24963 net.cpp:369] relu3 -> ip3 (in-place)
I0428 19:42:01.138386 24963 net.cpp:124] Setting up relu3
I0428 19:42:01.138401 24963 net.cpp:131] Top shape: 100 10 (1000)
I0428 19:42:01.138407 24963 net.cpp:139] Memory required for data: 1266800
I0428 19:42:01.138413 24963 layer_factory.hpp:77] Creating layer ip3_relu3_0_split
I0428 19:42:01.138422 24963 net.cpp:86] Creating Layer ip3_relu3_0_split
I0428 19:42:01.138428 24963 net.cpp:408] ip3_relu3_0_split <- ip3
I0428 19:42:01.138438 24963 net.cpp:382] ip3_relu3_0_split -> ip3_relu3_0_split_0
I0428 19:42:01.138449 24963 net.cpp:382] ip3_relu3_0_split -> ip3_relu3_0_split_1
I0428 19:42:01.138499 24963 net.cpp:124] Setting up ip3_relu3_0_split
I0428 19:42:01.138509 24963 net.cpp:131] Top shape: 100 10 (1000)
I0428 19:42:01.138516 24963 net.cpp:131] Top shape: 100 10 (1000)
I0428 19:42:01.138521 24963 net.cpp:139] Memory required for data: 1274800
I0428 19:42:01.138528 24963 layer_factory.hpp:77] Creating layer accuracy
I0428 19:42:01.138540 24963 net.cpp:86] Creating Layer accuracy
I0428 19:42:01.138561 24963 net.cpp:408] accuracy <- ip3_relu3_0_split_0
I0428 19:42:01.138568 24963 net.cpp:408] accuracy <- label_mnist_1_split_0
I0428 19:42:01.138576 24963 net.cpp:382] accuracy -> accuracy
…
