…
I0428 19:35:21.685233 23491 net.cpp:296] The NetState phase (0) differed from the phase (1) specified by a rule in layer mnist
I0428 19:35:21.685250 23491 net.cpp:296] The NetState phase (0) differed from the phase (1) specified by a rule in layer accuracy
I0428 19:35:21.685335 23491 net.cpp:53] Initializing net from parameters: 
name: "LeNet"
state {
  phase: TRAIN
  level: 0
  stage: ""
}
layer {
  name: "mnist"
  type: "Data"
  top: "data"
  top: "label"
  include {
    phase: TRAIN
  }
  transform_param {
    scale: 0.00390625
  }
  data_param {
    source: "examples/mnist/mnist_train_lmdb"
    batch_size: 64
    backend: LMDB
  }
}
layer {
  name: "conv0"
  type: "Convolution"
  bottom: "data"
  top: "conv0"
  param {
    lr_mult: 1
  }
  param {
    lr_mult: 2
  }
  convolution_param {
    num_output: 50
    kernel_size: 5
    stride: 1
    weight_filler {
      type: "xavier"
    }
    bias_filler {
      type: "constant"
    }
  }
}
layer {
  name: "pool0"
  type: "Pooling"
  bottom: "conv0"
  top: "pool0"
  pooling_param {
    pool: MAX
    kernel_size: 2
    stride: 2
  }
}
layer {
  name: "ip1"
  type: "InnerProduct"
  bottom: "pool0"
  top: "ip1"
  param {
    lr_mult: 1
  }
  param {
    lr_mult: 2
  }
  inner_product_param {
    num_output: 25
    weight_filler {
      type: "xavier"
    }
    bias_filler {
      type: "constant"
    }
  }
}
layer {
  name: "relu1"
  type: "ReLU"
  bottom: "ip1"
  top: "ip1"
}
layer {
  name: "ip2"
  type: "InnerProduct"
  bottom: "ip1"
  top: "ip2"
  param {
    lr_mult: 1
  }
  param {
    lr_mult: 2
  }
  inner_product_param {
    num_output: 50
    weight_filler {
      type: "xavier"
    }
    bias_filler {
      type: "constant"
    }
  }
}
layer {
  name: "relu2"
  type: "ReLU"
  bottom: "ip2"
  top: "ip2"
}
layer {
  name: "ip3"
  type: "InnerProduct"
  bottom: "ip2"
  top: "ip3"
  param {
    lr_mult: 1
  }
  param {
    lr_mult: 2
  }
  inner_product_param {
    num_output: 10
    weight_filler {
      type: "xavier"
    }
    bias_filler {
      type: "constant"
    }
  }
}
layer {
  name: "relu3"
  type: "ReLU"
  bottom: "ip3"
  top: "ip3"
}
layer {
  name: "loss"
  type: "SoftmaxWithLoss"
  bottom: "ip3"
  bottom: "label"
  top: "loss"
}
I0428 19:35:21.685402 23491 layer_factory.hpp:77] Creating layer mnist
I0428 19:35:21.685504 23491 db_lmdb.cpp:35] Opened lmdb examples/mnist/mnist_train_lmdb
I0428 19:35:21.685528 23491 net.cpp:86] Creating Layer mnist
I0428 19:35:21.685536 23491 net.cpp:382] mnist -> data
I0428 19:35:21.685559 23491 net.cpp:382] mnist -> label
I0428 19:35:21.686645 23491 data_layer.cpp:45] output data size: 64,1,28,28
I0428 19:35:21.689091 23491 net.cpp:124] Setting up mnist
I0428 19:35:21.689110 23491 net.cpp:131] Top shape: 64 1 28 28 (50176)
I0428 19:35:21.689116 23491 net.cpp:131] Top shape: 64 (64)
I0428 19:35:21.689121 23491 net.cpp:139] Memory required for data: 200960
I0428 19:35:21.689126 23491 layer_factory.hpp:77] Creating layer conv0
I0428 19:35:21.689142 23491 net.cpp:86] Creating Layer conv0
I0428 19:35:21.689147 23491 net.cpp:408] conv0 <- data
I0428 19:35:21.689158 23491 net.cpp:382] conv0 -> conv0
I0428 19:35:21.979918 23491 net.cpp:124] Setting up conv0
I0428 19:35:21.979948 23491 net.cpp:131] Top shape: 64 50 24 24 (1843200)
I0428 19:35:21.979954 23491 net.cpp:139] Memory required for data: 7573760
I0428 19:35:21.979970 23491 layer_factory.hpp:77] Creating layer pool0
I0428 19:35:21.979985 23491 net.cpp:86] Creating Layer pool0
I0428 19:35:21.980010 23491 net.cpp:408] pool0 <- conv0
I0428 19:35:21.980016 23491 net.cpp:382] pool0 -> pool0
I0428 19:35:21.980072 23491 net.cpp:124] Setting up pool0
I0428 19:35:21.980083 23491 net.cpp:131] Top shape: 64 50 12 12 (460800)
I0428 19:35:21.980087 23491 net.cpp:139] Memory required for data: 9416960
I0428 19:35:21.980092 23491 layer_factory.hpp:77] Creating layer ip1
I0428 19:35:21.980100 23491 net.cpp:86] Creating Layer ip1
I0428 19:35:21.980103 23491 net.cpp:408] ip1 <- pool0
I0428 19:35:21.980109 23491 net.cpp:382] ip1 -> ip1
I0428 19:35:21.982343 23491 net.cpp:124] Setting up ip1
I0428 19:35:21.982359 23491 net.cpp:131] Top shape: 64 25 (1600)
I0428 19:35:21.982364 23491 net.cpp:139] Memory required for data: 9423360
I0428 19:35:21.982374 23491 layer_factory.hpp:77] Creating layer relu1
I0428 19:35:21.982383 23491 net.cpp:86] Creating Layer relu1
I0428 19:35:21.982386 23491 net.cpp:408] relu1 <- ip1
I0428 19:35:21.982391 23491 net.cpp:369] relu1 -> ip1 (in-place)
I0428 19:35:21.982585 23491 net.cpp:124] Setting up relu1
I0428 19:35:21.982595 23491 net.cpp:131] Top shape: 64 25 (1600)
I0428 19:35:21.982599 23491 net.cpp:139] Memory required for data: 9429760
I0428 19:35:21.982604 23491 layer_factory.hpp:77] Creating layer ip2
I0428 19:35:21.982610 23491 net.cpp:86] Creating Layer ip2
I0428 19:35:21.982614 23491 net.cpp:408] ip2 <- ip1
I0428 19:35:21.982620 23491 net.cpp:382] ip2 -> ip2
I0428 19:35:21.982740 23491 net.cpp:124] Setting up ip2
I0428 19:35:21.982748 23491 net.cpp:131] Top shape: 64 50 (3200)
I0428 19:35:21.982753 23491 net.cpp:139] Memory required for data: 9442560
I0428 19:35:21.982760 23491 layer_factory.hpp:77] Creating layer relu2
I0428 19:35:21.982766 23491 net.cpp:86] Creating Layer relu2
I0428 19:35:21.982770 23491 net.cpp:408] relu2 <- ip2
I0428 19:35:21.982774 23491 net.cpp:369] relu2 -> ip2 (in-place)
I0428 19:35:21.983592 23491 net.cpp:124] Setting up relu2
I0428 19:35:21.983606 23491 net.cpp:131] Top shape: 64 50 (3200)
I0428 19:35:21.983611 23491 net.cpp:139] Memory required for data: 9455360
I0428 19:35:21.983615 23491 layer_factory.hpp:77] Creating layer ip3
I0428 19:35:21.983623 23491 net.cpp:86] Creating Layer ip3
I0428 19:35:21.983628 23491 net.cpp:408] ip3 <- ip2
I0428 19:35:21.983633 23491 net.cpp:382] ip3 -> ip3
I0428 19:35:21.983744 23491 net.cpp:124] Setting up ip3
I0428 19:35:21.983752 23491 net.cpp:131] Top shape: 64 10 (640)
I0428 19:35:21.983755 23491 net.cpp:139] Memory required for data: 9457920
I0428 19:35:21.983762 23491 layer_factory.hpp:77] Creating layer relu3
I0428 19:35:21.983769 23491 net.cpp:86] Creating Layer relu3
I0428 19:35:21.983772 23491 net.cpp:408] relu3 <- ip3
I0428 19:35:21.983777 23491 net.cpp:369] relu3 -> ip3 (in-place)
I0428 19:35:21.983947 23491 net.cpp:124] Setting up relu3
I0428 19:35:21.983956 23491 net.cpp:131] Top shape: 64 10 (640)
I0428 19:35:21.983959 23491 net.cpp:139] Memory required for data: 9460480
I0428 19:35:21.983963 23491 layer_factory.hpp:77] Creating layer loss
I0428 19:35:21.983969 23491 net.cpp:86] Creating Layer loss
I0428 19:35:21.983973 23491 net.cpp:408] loss <- ip3
I0428 19:35:21.983978 23491 net.cpp:408] loss <- label
I0428 19:35:21.983983 23491 net.cpp:382] loss -> loss
I0428 19:35:21.984004 23491 layer_factory.hpp:77] Creating layer loss
…
I0428 19:35:21.984670 23491 solver.cpp:173] Creating test net (#0) specified by net file: ECE595/mnist/train_test/var_everything2/lenet_train_test223.prototxt
I0428 19:35:21.984700 23491 net.cpp:296] The NetState phase (1) differed from the phase (0) specified by a rule in layer mnist
I0428 19:35:21.984792 23491 net.cpp:53] Initializing net from parameters: 
name: "LeNet"
state {
  phase: TEST
}
layer {
  name: "mnist"
  type: "Data"
  top: "data"
  top: "label"
  include {
    phase: TEST
  }
  transform_param {
    scale: 0.00390625
  }
  data_param {
    source: "examples/mnist/mnist_test_lmdb"
    batch_size: 100
    backend: LMDB
  }
}
layer {
  name: "conv0"
  type: "Convolution"
  bottom: "data"
  top: "conv0"
  param {
    lr_mult: 1
  }
  param {
    lr_mult: 2
  }
  convolution_param {
    num_output: 50
    kernel_size: 5
    stride: 1
    weight_filler {
      type: "xavier"
    }
    bias_filler {
      type: "constant"
    }
  }
}
layer {
  name: "pool0"
  type: "Pooling"
  bottom: "conv0"
  top: "pool0"
  pooling_param {
    pool: MAX
    kernel_size: 2
    stride: 2
  }
}
layer {
  name: "ip1"
  type: "InnerProduct"
  bottom: "pool0"
  top: "ip1"
  param {
    lr_mult: 1
  }
  param {
    lr_mult: 2
  }
  inner_product_param {
    num_output: 25
    weight_filler {
      type: "xavier"
    }
    bias_filler {
      type: "constant"
    }
  }
}
layer {
  name: "relu1"
  type: "ReLU"
  bottom: "ip1"
  top: "ip1"
}
layer {
  name: "ip2"
  type: "InnerProduct"
  bottom: "ip1"
  top: "ip2"
  param {
    lr_mult: 1
  }
  param {
    lr_mult: 2
  }
  inner_product_param {
    num_output: 50
    weight_filler {
      type: "xavier"
    }
    bias_filler {
      type: "constant"
    }
  }
}
layer {
  name: "relu2"
  type: "ReLU"
  bottom: "ip2"
  top: "ip2"
}
layer {
  name: "ip3"
  type: "InnerProduct"
  bottom: "ip2"
  top: "ip3"
  param {
    lr_mult: 1
  }
  param {
    lr_mult: 2
  }
  inner_product_param {
    num_output: 10
    weight_filler {
      type: "xavier"
    }
    bias_filler {
      type: "constant"
    }
  }
}
layer {
  name: "relu3"
  type: "ReLU"
  bottom: "ip3"
  top: "ip3"
}
layer {
  name: "accuracy"
  type: "Accuracy"
  bottom: "ip3"
  bottom: "label"
  top: "accuracy"
  include {
    phase: TEST
  }
}
layer {
  name: "loss"
  type: "SoftmaxWithLoss"
  bottom: "ip3"
  bottom: "label"
  top: "loss"
}
I0428 19:35:21.984871 23491 layer_factory.hpp:77] Creating layer mnist
I0428 19:35:21.984921 23491 db_lmdb.cpp:35] Opened lmdb examples/mnist/mnist_test_lmdb
I0428 19:35:21.984936 23491 net.cpp:86] Creating Layer mnist
I0428 19:35:21.984941 23491 net.cpp:382] mnist -> data
I0428 19:35:21.984949 23491 net.cpp:382] mnist -> label
I0428 19:35:21.985043 23491 data_layer.cpp:45] output data size: 100,1,28,28
I0428 19:35:21.986203 23491 net.cpp:124] Setting up mnist
I0428 19:35:21.986217 23491 net.cpp:131] Top shape: 100 1 28 28 (78400)
I0428 19:35:21.986223 23491 net.cpp:131] Top shape: 100 (100)
I0428 19:35:21.986227 23491 net.cpp:139] Memory required for data: 314000
I0428 19:35:21.986230 23491 layer_factory.hpp:77] Creating layer label_mnist_1_split
I0428 19:35:21.986238 23491 net.cpp:86] Creating Layer label_mnist_1_split
I0428 19:35:21.986241 23491 net.cpp:408] label_mnist_1_split <- label
I0428 19:35:21.986248 23491 net.cpp:382] label_mnist_1_split -> label_mnist_1_split_0
I0428 19:35:21.986254 23491 net.cpp:382] label_mnist_1_split -> label_mnist_1_split_1
I0428 19:35:21.986295 23491 net.cpp:124] Setting up label_mnist_1_split
I0428 19:35:21.986300 23491 net.cpp:131] Top shape: 100 (100)
I0428 19:35:21.986304 23491 net.cpp:131] Top shape: 100 (100)
I0428 19:35:21.986307 23491 net.cpp:139] Memory required for data: 314800
I0428 19:35:21.986322 23491 layer_factory.hpp:77] Creating layer conv0
I0428 19:35:21.986331 23491 net.cpp:86] Creating Layer conv0
I0428 19:35:21.986335 23491 net.cpp:408] conv0 <- data
I0428 19:35:21.986340 23491 net.cpp:382] conv0 -> conv0
I0428 19:35:21.988162 23491 net.cpp:124] Setting up conv0
I0428 19:35:21.988178 23491 net.cpp:131] Top shape: 100 50 24 24 (2880000)
I0428 19:35:21.988183 23491 net.cpp:139] Memory required for data: 11834800
I0428 19:35:21.988193 23491 layer_factory.hpp:77] Creating layer pool0
I0428 19:35:21.988200 23491 net.cpp:86] Creating Layer pool0
I0428 19:35:21.988204 23491 net.cpp:408] pool0 <- conv0
I0428 19:35:21.988209 23491 net.cpp:382] pool0 -> pool0
I0428 19:35:21.988250 23491 net.cpp:124] Setting up pool0
I0428 19:35:21.988255 23491 net.cpp:131] Top shape: 100 50 12 12 (720000)
I0428 19:35:21.988258 23491 net.cpp:139] Memory required for data: 14714800
I0428 19:35:21.988261 23491 layer_factory.hpp:77] Creating layer ip1
I0428 19:35:21.988268 23491 net.cpp:86] Creating Layer ip1
I0428 19:35:21.988271 23491 net.cpp:408] ip1 <- pool0
I0428 19:35:21.988276 23491 net.cpp:382] ip1 -> ip1
I0428 19:35:21.990412 23491 net.cpp:124] Setting up ip1
I0428 19:35:21.990427 23491 net.cpp:131] Top shape: 100 25 (2500)
I0428 19:35:21.990432 23491 net.cpp:139] Memory required for data: 14724800
I0428 19:35:21.990440 23491 layer_factory.hpp:77] Creating layer relu1
I0428 19:35:21.990447 23491 net.cpp:86] Creating Layer relu1
I0428 19:35:21.990450 23491 net.cpp:408] relu1 <- ip1
I0428 19:35:21.990456 23491 net.cpp:369] relu1 -> ip1 (in-place)
I0428 19:35:21.990634 23491 net.cpp:124] Setting up relu1
I0428 19:35:21.990644 23491 net.cpp:131] Top shape: 100 25 (2500)
I0428 19:35:21.990648 23491 net.cpp:139] Memory required for data: 14734800
I0428 19:35:21.990651 23491 layer_factory.hpp:77] Creating layer ip2
I0428 19:35:21.990658 23491 net.cpp:86] Creating Layer ip2
I0428 19:35:21.990671 23491 net.cpp:408] ip2 <- ip1
I0428 19:35:21.990677 23491 net.cpp:382] ip2 -> ip2
I0428 19:35:21.990792 23491 net.cpp:124] Setting up ip2
I0428 19:35:21.990802 23491 net.cpp:131] Top shape: 100 50 (5000)
I0428 19:35:21.990804 23491 net.cpp:139] Memory required for data: 14754800
I0428 19:35:21.990813 23491 layer_factory.hpp:77] Creating layer relu2
I0428 19:35:21.990818 23491 net.cpp:86] Creating Layer relu2
I0428 19:35:21.990821 23491 net.cpp:408] relu2 <- ip2
I0428 19:35:21.990825 23491 net.cpp:369] relu2 -> ip2 (in-place)
I0428 19:35:21.991699 23491 net.cpp:124] Setting up relu2
I0428 19:35:21.991713 23491 net.cpp:131] Top shape: 100 50 (5000)
I0428 19:35:21.991716 23491 net.cpp:139] Memory required for data: 14774800
I0428 19:35:21.991720 23491 layer_factory.hpp:77] Creating layer ip3
I0428 19:35:21.991729 23491 net.cpp:86] Creating Layer ip3
I0428 19:35:21.991732 23491 net.cpp:408] ip3 <- ip2
I0428 19:35:21.991739 23491 net.cpp:382] ip3 -> ip3
I0428 19:35:21.991919 23491 net.cpp:124] Setting up ip3
I0428 19:35:21.991927 23491 net.cpp:131] Top shape: 100 10 (1000)
I0428 19:35:21.991937 23491 net.cpp:139] Memory required for data: 14778800
I0428 19:35:21.991945 23491 layer_factory.hpp:77] Creating layer relu3
I0428 19:35:21.991951 23491 net.cpp:86] Creating Layer relu3
I0428 19:35:21.991955 23491 net.cpp:408] relu3 <- ip3
I0428 19:35:21.991960 23491 net.cpp:369] relu3 -> ip3 (in-place)
I0428 19:35:21.992136 23491 net.cpp:124] Setting up relu3
I0428 19:35:21.992146 23491 net.cpp:131] Top shape: 100 10 (1000)
I0428 19:35:21.992148 23491 net.cpp:139] Memory required for data: 14782800
I0428 19:35:21.992152 23491 layer_factory.hpp:77] Creating layer ip3_relu3_0_split
I0428 19:35:21.992158 23491 net.cpp:86] Creating Layer ip3_relu3_0_split
I0428 19:35:21.992162 23491 net.cpp:408] ip3_relu3_0_split <- ip3
I0428 19:35:21.992173 23491 net.cpp:382] ip3_relu3_0_split -> ip3_relu3_0_split_0
I0428 19:35:21.992179 23491 net.cpp:382] ip3_relu3_0_split -> ip3_relu3_0_split_1
I0428 19:35:21.992220 23491 net.cpp:124] Setting up ip3_relu3_0_split
I0428 19:35:21.992225 23491 net.cpp:131] Top shape: 100 10 (1000)
I0428 19:35:21.992241 23491 net.cpp:131] Top shape: 100 10 (1000)
I0428 19:35:21.992244 23491 net.cpp:139] Memory required for data: 14790800
I0428 19:35:21.992247 23491 layer_factory.hpp:77] Creating layer accuracy
I0428 19:35:21.992257 23491 net.cpp:86] Creating Layer accuracy
I0428 19:35:21.992261 23491 net.cpp:408] accuracy <- ip3_relu3_0_split_0
I0428 19:35:21.992267 23491 net.cpp:408] accuracy <- label_mnist_1_split_0
I0428 19:35:21.992272 23491 net.cpp:382] accuracy -> accuracy
…
