…
I0428 20:12:51.732110 32361 net.cpp:296] The NetState phase (0) differed from the phase (1) specified by a rule in layer mnist
I0428 20:12:51.732128 32361 net.cpp:296] The NetState phase (0) differed from the phase (1) specified by a rule in layer accuracy
I0428 20:12:51.732230 32361 net.cpp:53] Initializing net from parameters: 
name: "LeNet"
state {
  phase: TRAIN
  level: 0
  stage: ""
}
layer {
  name: "mnist"
  type: "Data"
  top: "data"
  top: "label"
  include {
    phase: TRAIN
  }
  transform_param {
    scale: 0.00390625
  }
  data_param {
    source: "examples/mnist/mnist_train_lmdb"
    batch_size: 64
    backend: LMDB
  }
}
layer {
  name: "conv0"
  type: "Convolution"
  bottom: "data"
  top: "conv0"
  param {
    lr_mult: 1
  }
  param {
    lr_mult: 2
  }
  convolution_param {
    num_output: 25
    kernel_size: 5
    stride: 1
    weight_filler {
      type: "xavier"
    }
    bias_filler {
      type: "constant"
    }
  }
}
layer {
  name: "pool0"
  type: "Pooling"
  bottom: "conv0"
  top: "pool0"
  pooling_param {
    pool: MAX
    kernel_size: 2
    stride: 2
  }
}
layer {
  name: "conv1"
  type: "Convolution"
  bottom: "pool0"
  top: "conv1"
  param {
    lr_mult: 1
  }
  param {
    lr_mult: 2
  }
  convolution_param {
    num_output: 100
    kernel_size: 5
    stride: 1
    weight_filler {
      type: "xavier"
    }
    bias_filler {
      type: "constant"
    }
  }
}
layer {
  name: "pool1"
  type: "Pooling"
  bottom: "conv1"
  top: "pool1"
  pooling_param {
    pool: MAX
    kernel_size: 2
    stride: 2
  }
}
layer {
  name: "ip1"
  type: "InnerProduct"
  bottom: "pool1"
  top: "ip1"
  param {
    lr_mult: 1
  }
  param {
    lr_mult: 2
  }
  inner_product_param {
    num_output: 10
    weight_filler {
      type: "xavier"
    }
    bias_filler {
      type: "constant"
    }
  }
}
layer {
  name: "relu1"
  type: "ReLU"
  bottom: "ip1"
  top: "ip1"
}
layer {
  name: "ip2"
  type: "InnerProduct"
  bottom: "ip1"
  top: "ip2"
  param {
    lr_mult: 1
  }
  param {
    lr_mult: 2
  }
  inner_product_param {
    num_output: 50
    weight_filler {
      type: "xavier"
    }
    bias_filler {
      type: "constant"
    }
  }
}
layer {
  name: "relu2"
  type: "ReLU"
  bottom: "ip2"
  top: "ip2"
}
layer {
  name: "ip3"
  type: "InnerProduct"
  bottom: "ip2"
  top: "ip3"
  param {
    lr_mult: 1
  }
  param {
    lr_mult: 2
  }
  inner_product_param {
    num_output: 10
    weight_filler {
      type: "xavier"
    }
    bias_filler {
      type: "constant"
    }
  }
}
layer {
  name: "relu3"
  type: "ReLU"
  bottom: "ip3"
  top: "ip3"
}
layer {
  name: "loss"
  type: "SoftmaxWithLoss"
  bottom: "ip3"
  bottom: "label"
  top: "loss"
}
I0428 20:12:51.732309 32361 layer_factory.hpp:77] Creating layer mnist
I0428 20:12:51.732408 32361 db_lmdb.cpp:35] Opened lmdb examples/mnist/mnist_train_lmdb
I0428 20:12:51.732429 32361 net.cpp:86] Creating Layer mnist
I0428 20:12:51.732437 32361 net.cpp:382] mnist -> data
I0428 20:12:51.732460 32361 net.cpp:382] mnist -> label
I0428 20:12:51.733608 32361 data_layer.cpp:45] output data size: 64,1,28,28
I0428 20:12:51.736099 32361 net.cpp:124] Setting up mnist
I0428 20:12:51.736119 32361 net.cpp:131] Top shape: 64 1 28 28 (50176)
I0428 20:12:51.736124 32361 net.cpp:131] Top shape: 64 (64)
I0428 20:12:51.736129 32361 net.cpp:139] Memory required for data: 200960
I0428 20:12:51.736135 32361 layer_factory.hpp:77] Creating layer conv0
I0428 20:12:51.736151 32361 net.cpp:86] Creating Layer conv0
I0428 20:12:51.736178 32361 net.cpp:408] conv0 <- data
I0428 20:12:51.736191 32361 net.cpp:382] conv0 -> conv0
I0428 20:12:52.026752 32361 net.cpp:124] Setting up conv0
I0428 20:12:52.026783 32361 net.cpp:131] Top shape: 64 25 24 24 (921600)
I0428 20:12:52.026788 32361 net.cpp:139] Memory required for data: 3887360
I0428 20:12:52.026804 32361 layer_factory.hpp:77] Creating layer pool0
I0428 20:12:52.026820 32361 net.cpp:86] Creating Layer pool0
I0428 20:12:52.026825 32361 net.cpp:408] pool0 <- conv0
I0428 20:12:52.026831 32361 net.cpp:382] pool0 -> pool0
I0428 20:12:52.026880 32361 net.cpp:124] Setting up pool0
I0428 20:12:52.026885 32361 net.cpp:131] Top shape: 64 25 12 12 (230400)
I0428 20:12:52.026888 32361 net.cpp:139] Memory required for data: 4808960
I0428 20:12:52.026892 32361 layer_factory.hpp:77] Creating layer conv1
I0428 20:12:52.026903 32361 net.cpp:86] Creating Layer conv1
I0428 20:12:52.026906 32361 net.cpp:408] conv1 <- pool0
I0428 20:12:52.026911 32361 net.cpp:382] conv1 -> conv1
I0428 20:12:52.029304 32361 net.cpp:124] Setting up conv1
I0428 20:12:52.029320 32361 net.cpp:131] Top shape: 64 100 8 8 (409600)
I0428 20:12:52.029325 32361 net.cpp:139] Memory required for data: 6447360
I0428 20:12:52.029333 32361 layer_factory.hpp:77] Creating layer pool1
I0428 20:12:52.029341 32361 net.cpp:86] Creating Layer pool1
I0428 20:12:52.029345 32361 net.cpp:408] pool1 <- conv1
I0428 20:12:52.029350 32361 net.cpp:382] pool1 -> pool1
I0428 20:12:52.029388 32361 net.cpp:124] Setting up pool1
I0428 20:12:52.029394 32361 net.cpp:131] Top shape: 64 100 4 4 (102400)
I0428 20:12:52.029399 32361 net.cpp:139] Memory required for data: 6856960
I0428 20:12:52.029403 32361 layer_factory.hpp:77] Creating layer ip1
I0428 20:12:52.029412 32361 net.cpp:86] Creating Layer ip1
I0428 20:12:52.029414 32361 net.cpp:408] ip1 <- pool1
I0428 20:12:52.029419 32361 net.cpp:382] ip1 -> ip1
I0428 20:12:52.030500 32361 net.cpp:124] Setting up ip1
I0428 20:12:52.030514 32361 net.cpp:131] Top shape: 64 10 (640)
I0428 20:12:52.030517 32361 net.cpp:139] Memory required for data: 6859520
I0428 20:12:52.030526 32361 layer_factory.hpp:77] Creating layer relu1
I0428 20:12:52.030534 32361 net.cpp:86] Creating Layer relu1
I0428 20:12:52.030536 32361 net.cpp:408] relu1 <- ip1
I0428 20:12:52.030542 32361 net.cpp:369] relu1 -> ip1 (in-place)
I0428 20:12:52.030725 32361 net.cpp:124] Setting up relu1
I0428 20:12:52.030735 32361 net.cpp:131] Top shape: 64 10 (640)
I0428 20:12:52.030738 32361 net.cpp:139] Memory required for data: 6862080
I0428 20:12:52.030741 32361 layer_factory.hpp:77] Creating layer ip2
I0428 20:12:52.030748 32361 net.cpp:86] Creating Layer ip2
I0428 20:12:52.030752 32361 net.cpp:408] ip2 <- ip1
I0428 20:12:52.030757 32361 net.cpp:382] ip2 -> ip2
I0428 20:12:52.030869 32361 net.cpp:124] Setting up ip2
I0428 20:12:52.030877 32361 net.cpp:131] Top shape: 64 50 (3200)
I0428 20:12:52.030880 32361 net.cpp:139] Memory required for data: 6874880
I0428 20:12:52.030886 32361 layer_factory.hpp:77] Creating layer relu2
I0428 20:12:52.030894 32361 net.cpp:86] Creating Layer relu2
I0428 20:12:52.030896 32361 net.cpp:408] relu2 <- ip2
I0428 20:12:52.030901 32361 net.cpp:369] relu2 -> ip2 (in-place)
I0428 20:12:52.031677 32361 net.cpp:124] Setting up relu2
I0428 20:12:52.031689 32361 net.cpp:131] Top shape: 64 50 (3200)
I0428 20:12:52.031693 32361 net.cpp:139] Memory required for data: 6887680
I0428 20:12:52.031697 32361 layer_factory.hpp:77] Creating layer ip3
I0428 20:12:52.031704 32361 net.cpp:86] Creating Layer ip3
I0428 20:12:52.031708 32361 net.cpp:408] ip3 <- ip2
I0428 20:12:52.031713 32361 net.cpp:382] ip3 -> ip3
I0428 20:12:52.031824 32361 net.cpp:124] Setting up ip3
I0428 20:12:52.031832 32361 net.cpp:131] Top shape: 64 10 (640)
I0428 20:12:52.031836 32361 net.cpp:139] Memory required for data: 6890240
I0428 20:12:52.031844 32361 layer_factory.hpp:77] Creating layer relu3
I0428 20:12:52.031850 32361 net.cpp:86] Creating Layer relu3
I0428 20:12:52.031853 32361 net.cpp:408] relu3 <- ip3
I0428 20:12:52.031857 32361 net.cpp:369] relu3 -> ip3 (in-place)
I0428 20:12:52.032034 32361 net.cpp:124] Setting up relu3
I0428 20:12:52.032044 32361 net.cpp:131] Top shape: 64 10 (640)
I0428 20:12:52.032047 32361 net.cpp:139] Memory required for data: 6892800
I0428 20:12:52.032052 32361 layer_factory.hpp:77] Creating layer loss
I0428 20:12:52.032058 32361 net.cpp:86] Creating Layer loss
I0428 20:12:52.032060 32361 net.cpp:408] loss <- ip3
I0428 20:12:52.032064 32361 net.cpp:408] loss <- label
I0428 20:12:52.032070 32361 net.cpp:382] loss -> loss
I0428 20:12:52.032089 32361 layer_factory.hpp:77] Creating layer loss
…
I0428 20:12:52.032763 32361 solver.cpp:173] Creating test net (#0) specified by net file: ECE595/mnist/train_test/var_everything2/lenet_train_test1188.prototxt
I0428 20:12:52.032791 32361 net.cpp:296] The NetState phase (1) differed from the phase (0) specified by a rule in layer mnist
I0428 20:12:52.032896 32361 net.cpp:53] Initializing net from parameters: 
name: "LeNet"
state {
  phase: TEST
}
layer {
  name: "mnist"
  type: "Data"
  top: "data"
  top: "label"
  include {
    phase: TEST
  }
  transform_param {
    scale: 0.00390625
  }
  data_param {
    source: "examples/mnist/mnist_test_lmdb"
    batch_size: 100
    backend: LMDB
  }
}
layer {
  name: "conv0"
  type: "Convolution"
  bottom: "data"
  top: "conv0"
  param {
    lr_mult: 1
  }
  param {
    lr_mult: 2
  }
  convolution_param {
    num_output: 25
    kernel_size: 5
    stride: 1
    weight_filler {
      type: "xavier"
    }
    bias_filler {
      type: "constant"
    }
  }
}
layer {
  name: "pool0"
  type: "Pooling"
  bottom: "conv0"
  top: "pool0"
  pooling_param {
    pool: MAX
    kernel_size: 2
    stride: 2
  }
}
layer {
  name: "conv1"
  type: "Convolution"
  bottom: "pool0"
  top: "conv1"
  param {
    lr_mult: 1
  }
  param {
    lr_mult: 2
  }
  convolution_param {
    num_output: 100
    kernel_size: 5
    stride: 1
    weight_filler {
      type: "xavier"
    }
    bias_filler {
      type: "constant"
    }
  }
}
layer {
  name: "pool1"
  type: "Pooling"
  bottom: "conv1"
  top: "pool1"
  pooling_param {
    pool: MAX
    kernel_size: 2
    stride: 2
  }
}
layer {
  name: "ip1"
  type: "InnerProduct"
  bottom: "pool1"
  top: "ip1"
  param {
    lr_mult: 1
  }
  param {
    lr_mult: 2
  }
  inner_product_param {
    num_output: 10
    weight_filler {
      type: "xavier"
    }
    bias_filler {
      type: "constant"
    }
  }
}
layer {
  name: "relu1"
  type: "ReLU"
  bottom: "ip1"
  top: "ip1"
}
layer {
  name: "ip2"
  type: "InnerProduct"
  bottom: "ip1"
  top: "ip2"
  param {
    lr_mult: 1
  }
  param {
    lr_mult: 2
  }
  inner_product_param {
    num_output: 50
    weight_filler {
      type: "xavier"
    }
    bias_filler {
      type: "constant"
    }
  }
}
layer {
  name: "relu2"
  type: "ReLU"
  bottom: "ip2"
  top: "ip2"
}
layer {
  name: "ip3"
  type: "InnerProduct"
  bottom: "ip2"
  top: "ip3"
  param {
    lr_mult: 1
  }
  param {
    lr_mult: 2
  }
  inner_product_param {
    num_output: 10
    weight_filler {
      type: "xavier"
    }
    bias_filler {
      type: "constant"
    }
  }
}
layer {
  name: "relu3"
  type: "ReLU"
  bottom: "ip3"
  top: "ip3"
}
layer {
  name: "accuracy"
  type: "Accuracy"
  bottom: "ip3"
  bottom: "label"
  top: "accuracy"
  include {
    phase: TEST
  }
}
layer {
  name: "loss"
  type: "SoftmaxWithLoss"
  bottom: "ip3"
  bottom: "label"
  top: "loss"
}
I0428 20:12:52.032984 32361 layer_factory.hpp:77] Creating layer mnist
I0428 20:12:52.033030 32361 db_lmdb.cpp:35] Opened lmdb examples/mnist/mnist_test_lmdb
I0428 20:12:52.033043 32361 net.cpp:86] Creating Layer mnist
I0428 20:12:52.033048 32361 net.cpp:382] mnist -> data
I0428 20:12:52.033056 32361 net.cpp:382] mnist -> label
I0428 20:12:52.033145 32361 data_layer.cpp:45] output data size: 100,1,28,28
I0428 20:12:52.035346 32361 net.cpp:124] Setting up mnist
I0428 20:12:52.035359 32361 net.cpp:131] Top shape: 100 1 28 28 (78400)
I0428 20:12:52.035364 32361 net.cpp:131] Top shape: 100 (100)
I0428 20:12:52.035367 32361 net.cpp:139] Memory required for data: 314000
I0428 20:12:52.035372 32361 layer_factory.hpp:77] Creating layer label_mnist_1_split
I0428 20:12:52.035379 32361 net.cpp:86] Creating Layer label_mnist_1_split
I0428 20:12:52.035383 32361 net.cpp:408] label_mnist_1_split <- label
I0428 20:12:52.035388 32361 net.cpp:382] label_mnist_1_split -> label_mnist_1_split_0
I0428 20:12:52.035395 32361 net.cpp:382] label_mnist_1_split -> label_mnist_1_split_1
I0428 20:12:52.035436 32361 net.cpp:124] Setting up label_mnist_1_split
I0428 20:12:52.035442 32361 net.cpp:131] Top shape: 100 (100)
I0428 20:12:52.035446 32361 net.cpp:131] Top shape: 100 (100)
I0428 20:12:52.035450 32361 net.cpp:139] Memory required for data: 314800
I0428 20:12:52.035454 32361 layer_factory.hpp:77] Creating layer conv0
I0428 20:12:52.035465 32361 net.cpp:86] Creating Layer conv0
I0428 20:12:52.035468 32361 net.cpp:408] conv0 <- data
I0428 20:12:52.035475 32361 net.cpp:382] conv0 -> conv0
I0428 20:12:52.037287 32361 net.cpp:124] Setting up conv0
I0428 20:12:52.037303 32361 net.cpp:131] Top shape: 100 25 24 24 (1440000)
I0428 20:12:52.037307 32361 net.cpp:139] Memory required for data: 6074800
I0428 20:12:52.037317 32361 layer_factory.hpp:77] Creating layer pool0
I0428 20:12:52.037324 32361 net.cpp:86] Creating Layer pool0
I0428 20:12:52.037328 32361 net.cpp:408] pool0 <- conv0
I0428 20:12:52.037333 32361 net.cpp:382] pool0 -> pool0
I0428 20:12:52.037372 32361 net.cpp:124] Setting up pool0
I0428 20:12:52.037379 32361 net.cpp:131] Top shape: 100 25 12 12 (360000)
I0428 20:12:52.037381 32361 net.cpp:139] Memory required for data: 7514800
I0428 20:12:52.037384 32361 layer_factory.hpp:77] Creating layer conv1
I0428 20:12:52.037394 32361 net.cpp:86] Creating Layer conv1
I0428 20:12:52.037396 32361 net.cpp:408] conv1 <- pool0
I0428 20:12:52.037402 32361 net.cpp:382] conv1 -> conv1
I0428 20:12:52.039453 32361 net.cpp:124] Setting up conv1
I0428 20:12:52.039466 32361 net.cpp:131] Top shape: 100 100 8 8 (640000)
I0428 20:12:52.039470 32361 net.cpp:139] Memory required for data: 10074800
I0428 20:12:52.039480 32361 layer_factory.hpp:77] Creating layer pool1
I0428 20:12:52.039487 32361 net.cpp:86] Creating Layer pool1
I0428 20:12:52.039491 32361 net.cpp:408] pool1 <- conv1
I0428 20:12:52.039497 32361 net.cpp:382] pool1 -> pool1
I0428 20:12:52.039536 32361 net.cpp:124] Setting up pool1
I0428 20:12:52.039542 32361 net.cpp:131] Top shape: 100 100 4 4 (160000)
I0428 20:12:52.039544 32361 net.cpp:139] Memory required for data: 10714800
I0428 20:12:52.039548 32361 layer_factory.hpp:77] Creating layer ip1
I0428 20:12:52.039556 32361 net.cpp:86] Creating Layer ip1
I0428 20:12:52.039559 32361 net.cpp:408] ip1 <- pool1
I0428 20:12:52.039572 32361 net.cpp:382] ip1 -> ip1
I0428 20:12:52.039767 32361 net.cpp:124] Setting up ip1
I0428 20:12:52.039775 32361 net.cpp:131] Top shape: 100 10 (1000)
I0428 20:12:52.039789 32361 net.cpp:139] Memory required for data: 10718800
I0428 20:12:52.039804 32361 layer_factory.hpp:77] Creating layer relu1
I0428 20:12:52.039811 32361 net.cpp:86] Creating Layer relu1
I0428 20:12:52.039815 32361 net.cpp:408] relu1 <- ip1
I0428 20:12:52.039819 32361 net.cpp:369] relu1 -> ip1 (in-place)
I0428 20:12:52.040000 32361 net.cpp:124] Setting up relu1
I0428 20:12:52.040010 32361 net.cpp:131] Top shape: 100 10 (1000)
I0428 20:12:52.040014 32361 net.cpp:139] Memory required for data: 10722800
I0428 20:12:52.040017 32361 layer_factory.hpp:77] Creating layer ip2
I0428 20:12:52.040031 32361 net.cpp:86] Creating Layer ip2
I0428 20:12:52.040035 32361 net.cpp:408] ip2 <- ip1
I0428 20:12:52.040046 32361 net.cpp:382] ip2 -> ip2
I0428 20:12:52.040158 32361 net.cpp:124] Setting up ip2
I0428 20:12:52.040165 32361 net.cpp:131] Top shape: 100 50 (5000)
I0428 20:12:52.040169 32361 net.cpp:139] Memory required for data: 10742800
I0428 20:12:52.040174 32361 layer_factory.hpp:77] Creating layer relu2
I0428 20:12:52.040180 32361 net.cpp:86] Creating Layer relu2
I0428 20:12:52.040184 32361 net.cpp:408] relu2 <- ip2
I0428 20:12:52.040189 32361 net.cpp:369] relu2 -> ip2 (in-place)
I0428 20:12:52.040354 32361 net.cpp:124] Setting up relu2
I0428 20:12:52.040364 32361 net.cpp:131] Top shape: 100 50 (5000)
I0428 20:12:52.040366 32361 net.cpp:139] Memory required for data: 10762800
I0428 20:12:52.040376 32361 layer_factory.hpp:77] Creating layer ip3
I0428 20:12:52.040383 32361 net.cpp:86] Creating Layer ip3
I0428 20:12:52.040392 32361 net.cpp:408] ip3 <- ip2
I0428 20:12:52.040400 32361 net.cpp:382] ip3 -> ip3
I0428 20:12:52.040547 32361 net.cpp:124] Setting up ip3
I0428 20:12:52.040555 32361 net.cpp:131] Top shape: 100 10 (1000)
I0428 20:12:52.040558 32361 net.cpp:139] Memory required for data: 10766800
I0428 20:12:52.040571 32361 layer_factory.hpp:77] Creating layer relu3
I0428 20:12:52.040577 32361 net.cpp:86] Creating Layer relu3
I0428 20:12:52.040580 32361 net.cpp:408] relu3 <- ip3
I0428 20:12:52.040585 32361 net.cpp:369] relu3 -> ip3 (in-place)
I0428 20:12:52.041446 32361 net.cpp:124] Setting up relu3
I0428 20:12:52.041460 32361 net.cpp:131] Top shape: 100 10 (1000)
I0428 20:12:52.041465 32361 net.cpp:139] Memory required for data: 10770800
I0428 20:12:52.041467 32361 layer_factory.hpp:77] Creating layer ip3_relu3_0_split
I0428 20:12:52.041472 32361 net.cpp:86] Creating Layer ip3_relu3_0_split
I0428 20:12:52.041483 32361 net.cpp:408] ip3_relu3_0_split <- ip3
I0428 20:12:52.041489 32361 net.cpp:382] ip3_relu3_0_split -> ip3_relu3_0_split_0
I0428 20:12:52.041496 32361 net.cpp:382] ip3_relu3_0_split -> ip3_relu3_0_split_1
I0428 20:12:52.041535 32361 net.cpp:124] Setting up ip3_relu3_0_split
I0428 20:12:52.041541 32361 net.cpp:131] Top shape: 100 10 (1000)
I0428 20:12:52.041551 32361 net.cpp:131] Top shape: 100 10 (1000)
I0428 20:12:52.041554 32361 net.cpp:139] Memory required for data: 10778800
I0428 20:12:52.041558 32361 layer_factory.hpp:77] Creating layer accuracy
I0428 20:12:52.041568 32361 net.cpp:86] Creating Layer accuracy
I0428 20:12:52.041570 32361 net.cpp:408] accuracy <- ip3_relu3_0_split_0
I0428 20:12:52.041574 32361 net.cpp:408] accuracy <- label_mnist_1_split_0
I0428 20:12:52.041579 32361 net.cpp:382] accuracy -> accuracy
…
