…
I0428 19:49:17.681535 26723 net.cpp:296] The NetState phase (0) differed from the phase (1) specified by a rule in layer mnist
I0428 19:49:17.681550 26723 net.cpp:296] The NetState phase (0) differed from the phase (1) specified by a rule in layer accuracy
I0428 19:49:17.681630 26723 net.cpp:53] Initializing net from parameters: 
name: "LeNet"
state {
  phase: TRAIN
  level: 0
  stage: ""
}
layer {
  name: "mnist"
  type: "Data"
  top: "data"
  top: "label"
  include {
    phase: TRAIN
  }
  transform_param {
    scale: 0.00390625
  }
  data_param {
    source: "examples/mnist/mnist_train_lmdb"
    batch_size: 64
    backend: LMDB
  }
}
layer {
  name: "conv0"
  type: "Convolution"
  bottom: "data"
  top: "conv0"
  param {
    lr_mult: 1
  }
  param {
    lr_mult: 2
  }
  convolution_param {
    num_output: 5
    kernel_size: 5
    stride: 1
    weight_filler {
      type: "xavier"
    }
    bias_filler {
      type: "constant"
    }
  }
}
layer {
  name: "pool0"
  type: "Pooling"
  bottom: "conv0"
  top: "pool0"
  pooling_param {
    pool: MAX
    kernel_size: 2
    stride: 2
  }
}
layer {
  name: "conv1"
  type: "Convolution"
  bottom: "pool0"
  top: "conv1"
  param {
    lr_mult: 1
  }
  param {
    lr_mult: 2
  }
  convolution_param {
    num_output: 5
    kernel_size: 5
    stride: 1
    weight_filler {
      type: "xavier"
    }
    bias_filler {
      type: "constant"
    }
  }
}
layer {
  name: "pool1"
  type: "Pooling"
  bottom: "conv1"
  top: "pool1"
  pooling_param {
    pool: MAX
    kernel_size: 2
    stride: 2
  }
}
layer {
  name: "ip1"
  type: "InnerProduct"
  bottom: "pool1"
  top: "ip1"
  param {
    lr_mult: 1
  }
  param {
    lr_mult: 2
  }
  inner_product_param {
    num_output: 25
    weight_filler {
      type: "xavier"
    }
    bias_filler {
      type: "constant"
    }
  }
}
layer {
  name: "relu1"
  type: "ReLU"
  bottom: "ip1"
  top: "ip1"
}
layer {
  name: "ip2"
  type: "InnerProduct"
  bottom: "ip1"
  top: "ip2"
  param {
    lr_mult: 1
  }
  param {
    lr_mult: 2
  }
  inner_product_param {
    num_output: 25
    weight_filler {
      type: "xavier"
    }
    bias_filler {
      type: "constant"
    }
  }
}
layer {
  name: "relu2"
  type: "ReLU"
  bottom: "ip2"
  top: "ip2"
}
layer {
  name: "ip3"
  type: "InnerProduct"
  bottom: "ip2"
  top: "ip3"
  param {
    lr_mult: 1
  }
  param {
    lr_mult: 2
  }
  inner_product_param {
    num_output: 10
    weight_filler {
      type: "xavier"
    }
    bias_filler {
      type: "constant"
    }
  }
}
layer {
  name: "relu3"
  type: "ReLU"
  bottom: "ip3"
  top: "ip3"
}
layer {
  name: "loss"
  type: "SoftmaxWithLoss"
  bottom: "ip3"
  bottom: "label"
  top: "loss"
}
I0428 19:49:17.681707 26723 layer_factory.hpp:77] Creating layer mnist
I0428 19:49:17.681787 26723 db_lmdb.cpp:35] Opened lmdb examples/mnist/mnist_train_lmdb
I0428 19:49:17.681804 26723 net.cpp:86] Creating Layer mnist
I0428 19:49:17.681812 26723 net.cpp:382] mnist -> data
I0428 19:49:17.681829 26723 net.cpp:382] mnist -> label
I0428 19:49:17.682706 26723 data_layer.cpp:45] output data size: 64,1,28,28
I0428 19:49:17.684964 26723 net.cpp:124] Setting up mnist
I0428 19:49:17.684998 26723 net.cpp:131] Top shape: 64 1 28 28 (50176)
I0428 19:49:17.685003 26723 net.cpp:131] Top shape: 64 (64)
I0428 19:49:17.685021 26723 net.cpp:139] Memory required for data: 200960
I0428 19:49:17.685042 26723 layer_factory.hpp:77] Creating layer conv0
I0428 19:49:17.685057 26723 net.cpp:86] Creating Layer conv0
I0428 19:49:17.685089 26723 net.cpp:408] conv0 <- data
I0428 19:49:17.685101 26723 net.cpp:382] conv0 -> conv0
I0428 19:49:17.915132 26723 net.cpp:124] Setting up conv0
I0428 19:49:17.915158 26723 net.cpp:131] Top shape: 64 5 24 24 (184320)
I0428 19:49:17.915163 26723 net.cpp:139] Memory required for data: 938240
I0428 19:49:17.915176 26723 layer_factory.hpp:77] Creating layer pool0
I0428 19:49:17.915189 26723 net.cpp:86] Creating Layer pool0
I0428 19:49:17.915191 26723 net.cpp:408] pool0 <- conv0
I0428 19:49:17.915212 26723 net.cpp:382] pool0 -> pool0
I0428 19:49:17.915256 26723 net.cpp:124] Setting up pool0
I0428 19:49:17.915263 26723 net.cpp:131] Top shape: 64 5 12 12 (46080)
I0428 19:49:17.915266 26723 net.cpp:139] Memory required for data: 1122560
I0428 19:49:17.915268 26723 layer_factory.hpp:77] Creating layer conv1
I0428 19:49:17.915278 26723 net.cpp:86] Creating Layer conv1
I0428 19:49:17.915282 26723 net.cpp:408] conv1 <- pool0
I0428 19:49:17.915287 26723 net.cpp:382] conv1 -> conv1
I0428 19:49:17.917245 26723 net.cpp:124] Setting up conv1
I0428 19:49:17.917260 26723 net.cpp:131] Top shape: 64 5 8 8 (20480)
I0428 19:49:17.917280 26723 net.cpp:139] Memory required for data: 1204480
I0428 19:49:17.917290 26723 layer_factory.hpp:77] Creating layer pool1
I0428 19:49:17.917299 26723 net.cpp:86] Creating Layer pool1
I0428 19:49:17.917302 26723 net.cpp:408] pool1 <- conv1
I0428 19:49:17.917307 26723 net.cpp:382] pool1 -> pool1
I0428 19:49:17.917346 26723 net.cpp:124] Setting up pool1
I0428 19:49:17.917352 26723 net.cpp:131] Top shape: 64 5 4 4 (5120)
I0428 19:49:17.917356 26723 net.cpp:139] Memory required for data: 1224960
I0428 19:49:17.917358 26723 layer_factory.hpp:77] Creating layer ip1
I0428 19:49:17.917366 26723 net.cpp:86] Creating Layer ip1
I0428 19:49:17.917368 26723 net.cpp:408] ip1 <- pool1
I0428 19:49:17.917373 26723 net.cpp:382] ip1 -> ip1
I0428 19:49:17.918393 26723 net.cpp:124] Setting up ip1
I0428 19:49:17.918406 26723 net.cpp:131] Top shape: 64 25 (1600)
I0428 19:49:17.918424 26723 net.cpp:139] Memory required for data: 1231360
I0428 19:49:17.918448 26723 layer_factory.hpp:77] Creating layer relu1
I0428 19:49:17.918454 26723 net.cpp:86] Creating Layer relu1
I0428 19:49:17.918458 26723 net.cpp:408] relu1 <- ip1
I0428 19:49:17.918463 26723 net.cpp:369] relu1 -> ip1 (in-place)
I0428 19:49:17.918655 26723 net.cpp:124] Setting up relu1
I0428 19:49:17.918664 26723 net.cpp:131] Top shape: 64 25 (1600)
I0428 19:49:17.918668 26723 net.cpp:139] Memory required for data: 1237760
I0428 19:49:17.918671 26723 layer_factory.hpp:77] Creating layer ip2
I0428 19:49:17.918678 26723 net.cpp:86] Creating Layer ip2
I0428 19:49:17.918682 26723 net.cpp:408] ip2 <- ip1
I0428 19:49:17.918687 26723 net.cpp:382] ip2 -> ip2
I0428 19:49:17.918826 26723 net.cpp:124] Setting up ip2
I0428 19:49:17.918833 26723 net.cpp:131] Top shape: 64 25 (1600)
I0428 19:49:17.918835 26723 net.cpp:139] Memory required for data: 1244160
I0428 19:49:17.918841 26723 layer_factory.hpp:77] Creating layer relu2
I0428 19:49:17.918846 26723 net.cpp:86] Creating Layer relu2
I0428 19:49:17.918849 26723 net.cpp:408] relu2 <- ip2
I0428 19:49:17.918853 26723 net.cpp:369] relu2 -> ip2 (in-place)
I0428 19:49:17.919626 26723 net.cpp:124] Setting up relu2
I0428 19:49:17.919638 26723 net.cpp:131] Top shape: 64 25 (1600)
I0428 19:49:17.919659 26723 net.cpp:139] Memory required for data: 1250560
I0428 19:49:17.919662 26723 layer_factory.hpp:77] Creating layer ip3
I0428 19:49:17.919684 26723 net.cpp:86] Creating Layer ip3
I0428 19:49:17.919688 26723 net.cpp:408] ip3 <- ip2
I0428 19:49:17.919693 26723 net.cpp:382] ip3 -> ip3
I0428 19:49:17.919791 26723 net.cpp:124] Setting up ip3
I0428 19:49:17.919798 26723 net.cpp:131] Top shape: 64 10 (640)
I0428 19:49:17.919801 26723 net.cpp:139] Memory required for data: 1253120
I0428 19:49:17.919811 26723 layer_factory.hpp:77] Creating layer relu3
I0428 19:49:17.919818 26723 net.cpp:86] Creating Layer relu3
I0428 19:49:17.919821 26723 net.cpp:408] relu3 <- ip3
I0428 19:49:17.919826 26723 net.cpp:369] relu3 -> ip3 (in-place)
I0428 19:49:17.920027 26723 net.cpp:124] Setting up relu3
I0428 19:49:17.920037 26723 net.cpp:131] Top shape: 64 10 (640)
I0428 19:49:17.920039 26723 net.cpp:139] Memory required for data: 1255680
I0428 19:49:17.920042 26723 layer_factory.hpp:77] Creating layer loss
I0428 19:49:17.920048 26723 net.cpp:86] Creating Layer loss
I0428 19:49:17.920052 26723 net.cpp:408] loss <- ip3
I0428 19:49:17.920055 26723 net.cpp:408] loss <- label
I0428 19:49:17.920060 26723 net.cpp:382] loss -> loss
I0428 19:49:17.920074 26723 layer_factory.hpp:77] Creating layer loss
…
I0428 19:49:17.920804 26723 solver.cpp:173] Creating test net (#0) specified by net file: ECE595/mnist/train_test/var_everything2/lenet_train_test570.prototxt
I0428 19:49:17.920868 26723 net.cpp:296] The NetState phase (1) differed from the phase (0) specified by a rule in layer mnist
I0428 19:49:17.920963 26723 net.cpp:53] Initializing net from parameters: 
name: "LeNet"
state {
  phase: TEST
}
layer {
  name: "mnist"
  type: "Data"
  top: "data"
  top: "label"
  include {
    phase: TEST
  }
  transform_param {
    scale: 0.00390625
  }
  data_param {
    source: "examples/mnist/mnist_test_lmdb"
    batch_size: 100
    backend: LMDB
  }
}
layer {
  name: "conv0"
  type: "Convolution"
  bottom: "data"
  top: "conv0"
  param {
    lr_mult: 1
  }
  param {
    lr_mult: 2
  }
  convolution_param {
    num_output: 5
    kernel_size: 5
    stride: 1
    weight_filler {
      type: "xavier"
    }
    bias_filler {
      type: "constant"
    }
  }
}
layer {
  name: "pool0"
  type: "Pooling"
  bottom: "conv0"
  top: "pool0"
  pooling_param {
    pool: MAX
    kernel_size: 2
    stride: 2
  }
}
layer {
  name: "conv1"
  type: "Convolution"
  bottom: "pool0"
  top: "conv1"
  param {
    lr_mult: 1
  }
  param {
    lr_mult: 2
  }
  convolution_param {
    num_output: 5
    kernel_size: 5
    stride: 1
    weight_filler {
      type: "xavier"
    }
    bias_filler {
      type: "constant"
    }
  }
}
layer {
  name: "pool1"
  type: "Pooling"
  bottom: "conv1"
  top: "pool1"
  pooling_param {
    pool: MAX
    kernel_size: 2
    stride: 2
  }
}
layer {
  name: "ip1"
  type: "InnerProduct"
  bottom: "pool1"
  top: "ip1"
  param {
    lr_mult: 1
  }
  param {
    lr_mult: 2
  }
  inner_product_param {
    num_output: 25
    weight_filler {
      type: "xavier"
    }
    bias_filler {
      type: "constant"
    }
  }
}
layer {
  name: "relu1"
  type: "ReLU"
  bottom: "ip1"
  top: "ip1"
}
layer {
  name: "ip2"
  type: "InnerProduct"
  bottom: "ip1"
  top: "ip2"
  param {
    lr_mult: 1
  }
  param {
    lr_mult: 2
  }
  inner_product_param {
    num_output: 25
    weight_filler {
      type: "xavier"
    }
    bias_filler {
      type: "constant"
    }
  }
}
layer {
  name: "relu2"
  type: "ReLU"
  bottom: "ip2"
  top: "ip2"
}
layer {
  name: "ip3"
  type: "InnerProduct"
  bottom: "ip2"
  top: "ip3"
  param {
    lr_mult: 1
  }
  param {
    lr_mult: 2
  }
  inner_product_param {
    num_output: 10
    weight_filler {
      type: "xavier"
    }
    bias_filler {
      type: "constant"
    }
  }
}
layer {
  name: "relu3"
  type: "ReLU"
  bottom: "ip3"
  top: "ip3"
}
layer {
  name: "accuracy"
  type: "Accuracy"
  bottom: "ip3"
  bottom: "label"
  top: "accuracy"
  include {
    phase: TEST
  }
}
layer {
  name: "loss"
  type: "SoftmaxWithLoss"
  bottom: "ip3"
  bottom: "label"
  top: "loss"
}
I0428 19:49:17.921058 26723 layer_factory.hpp:77] Creating layer mnist
I0428 19:49:17.921099 26723 db_lmdb.cpp:35] Opened lmdb examples/mnist/mnist_test_lmdb
I0428 19:49:17.921113 26723 net.cpp:86] Creating Layer mnist
I0428 19:49:17.921118 26723 net.cpp:382] mnist -> data
I0428 19:49:17.921125 26723 net.cpp:382] mnist -> label
I0428 19:49:17.921237 26723 data_layer.cpp:45] output data size: 100,1,28,28
I0428 19:49:17.923220 26723 net.cpp:124] Setting up mnist
I0428 19:49:17.923249 26723 net.cpp:131] Top shape: 100 1 28 28 (78400)
I0428 19:49:17.923259 26723 net.cpp:131] Top shape: 100 (100)
I0428 19:49:17.923262 26723 net.cpp:139] Memory required for data: 314000
I0428 19:49:17.923266 26723 layer_factory.hpp:77] Creating layer label_mnist_1_split
I0428 19:49:17.923280 26723 net.cpp:86] Creating Layer label_mnist_1_split
I0428 19:49:17.923285 26723 net.cpp:408] label_mnist_1_split <- label
I0428 19:49:17.923288 26723 net.cpp:382] label_mnist_1_split -> label_mnist_1_split_0
I0428 19:49:17.923295 26723 net.cpp:382] label_mnist_1_split -> label_mnist_1_split_1
I0428 19:49:17.923403 26723 net.cpp:124] Setting up label_mnist_1_split
I0428 19:49:17.923411 26723 net.cpp:131] Top shape: 100 (100)
I0428 19:49:17.923415 26723 net.cpp:131] Top shape: 100 (100)
I0428 19:49:17.923418 26723 net.cpp:139] Memory required for data: 314800
I0428 19:49:17.923421 26723 layer_factory.hpp:77] Creating layer conv0
I0428 19:49:17.923431 26723 net.cpp:86] Creating Layer conv0
I0428 19:49:17.923434 26723 net.cpp:408] conv0 <- data
I0428 19:49:17.923440 26723 net.cpp:382] conv0 -> conv0
I0428 19:49:17.925035 26723 net.cpp:124] Setting up conv0
I0428 19:49:17.925051 26723 net.cpp:131] Top shape: 100 5 24 24 (288000)
I0428 19:49:17.925055 26723 net.cpp:139] Memory required for data: 1466800
I0428 19:49:17.925065 26723 layer_factory.hpp:77] Creating layer pool0
I0428 19:49:17.925071 26723 net.cpp:86] Creating Layer pool0
I0428 19:49:17.925076 26723 net.cpp:408] pool0 <- conv0
I0428 19:49:17.925079 26723 net.cpp:382] pool0 -> pool0
I0428 19:49:17.925128 26723 net.cpp:124] Setting up pool0
I0428 19:49:17.925133 26723 net.cpp:131] Top shape: 100 5 12 12 (72000)
I0428 19:49:17.925137 26723 net.cpp:139] Memory required for data: 1754800
I0428 19:49:17.925139 26723 layer_factory.hpp:77] Creating layer conv1
I0428 19:49:17.925148 26723 net.cpp:86] Creating Layer conv1
I0428 19:49:17.925150 26723 net.cpp:408] conv1 <- pool0
I0428 19:49:17.925156 26723 net.cpp:382] conv1 -> conv1
I0428 19:49:17.927250 26723 net.cpp:124] Setting up conv1
I0428 19:49:17.927265 26723 net.cpp:131] Top shape: 100 5 8 8 (32000)
I0428 19:49:17.927269 26723 net.cpp:139] Memory required for data: 1882800
I0428 19:49:17.927279 26723 layer_factory.hpp:77] Creating layer pool1
I0428 19:49:17.927300 26723 net.cpp:86] Creating Layer pool1
I0428 19:49:17.927304 26723 net.cpp:408] pool1 <- conv1
I0428 19:49:17.927309 26723 net.cpp:382] pool1 -> pool1
I0428 19:49:17.927348 26723 net.cpp:124] Setting up pool1
I0428 19:49:17.927353 26723 net.cpp:131] Top shape: 100 5 4 4 (8000)
I0428 19:49:17.927356 26723 net.cpp:139] Memory required for data: 1914800
I0428 19:49:17.927359 26723 layer_factory.hpp:77] Creating layer ip1
I0428 19:49:17.927366 26723 net.cpp:86] Creating Layer ip1
I0428 19:49:17.927369 26723 net.cpp:408] ip1 <- pool1
I0428 19:49:17.927381 26723 net.cpp:382] ip1 -> ip1
I0428 19:49:17.927507 26723 net.cpp:124] Setting up ip1
I0428 19:49:17.927516 26723 net.cpp:131] Top shape: 100 25 (2500)
I0428 19:49:17.927544 26723 net.cpp:139] Memory required for data: 1924800
I0428 19:49:17.927567 26723 layer_factory.hpp:77] Creating layer relu1
I0428 19:49:17.927572 26723 net.cpp:86] Creating Layer relu1
I0428 19:49:17.927575 26723 net.cpp:408] relu1 <- ip1
I0428 19:49:17.927587 26723 net.cpp:369] relu1 -> ip1 (in-place)
I0428 19:49:17.927877 26723 net.cpp:124] Setting up relu1
I0428 19:49:17.927886 26723 net.cpp:131] Top shape: 100 25 (2500)
I0428 19:49:17.927891 26723 net.cpp:139] Memory required for data: 1934800
I0428 19:49:17.927893 26723 layer_factory.hpp:77] Creating layer ip2
I0428 19:49:17.927899 26723 net.cpp:86] Creating Layer ip2
I0428 19:49:17.927909 26723 net.cpp:408] ip2 <- ip1
I0428 19:49:17.927916 26723 net.cpp:382] ip2 -> ip2
I0428 19:49:17.928033 26723 net.cpp:124] Setting up ip2
I0428 19:49:17.928041 26723 net.cpp:131] Top shape: 100 25 (2500)
I0428 19:49:17.928045 26723 net.cpp:139] Memory required for data: 1944800
I0428 19:49:17.928050 26723 layer_factory.hpp:77] Creating layer relu2
I0428 19:49:17.928053 26723 net.cpp:86] Creating Layer relu2
I0428 19:49:17.928056 26723 net.cpp:408] relu2 <- ip2
I0428 19:49:17.928066 26723 net.cpp:369] relu2 -> ip2 (in-place)
I0428 19:49:17.928248 26723 net.cpp:124] Setting up relu2
I0428 19:49:17.928258 26723 net.cpp:131] Top shape: 100 25 (2500)
I0428 19:49:17.928289 26723 net.cpp:139] Memory required for data: 1954800
I0428 19:49:17.928298 26723 layer_factory.hpp:77] Creating layer ip3
I0428 19:49:17.928303 26723 net.cpp:86] Creating Layer ip3
I0428 19:49:17.928321 26723 net.cpp:408] ip3 <- ip2
I0428 19:49:17.928328 26723 net.cpp:382] ip3 -> ip3
I0428 19:49:17.928444 26723 net.cpp:124] Setting up ip3
I0428 19:49:17.928452 26723 net.cpp:131] Top shape: 100 10 (1000)
I0428 19:49:17.928454 26723 net.cpp:139] Memory required for data: 1958800
I0428 19:49:17.928463 26723 layer_factory.hpp:77] Creating layer relu3
I0428 19:49:17.928467 26723 net.cpp:86] Creating Layer relu3
I0428 19:49:17.928472 26723 net.cpp:408] relu3 <- ip3
I0428 19:49:17.928477 26723 net.cpp:369] relu3 -> ip3 (in-place)
I0428 19:49:17.929349 26723 net.cpp:124] Setting up relu3
I0428 19:49:17.929361 26723 net.cpp:131] Top shape: 100 10 (1000)
I0428 19:49:17.929365 26723 net.cpp:139] Memory required for data: 1962800
I0428 19:49:17.929368 26723 layer_factory.hpp:77] Creating layer ip3_relu3_0_split
I0428 19:49:17.929374 26723 net.cpp:86] Creating Layer ip3_relu3_0_split
I0428 19:49:17.929392 26723 net.cpp:408] ip3_relu3_0_split <- ip3
I0428 19:49:17.929396 26723 net.cpp:382] ip3_relu3_0_split -> ip3_relu3_0_split_0
I0428 19:49:17.929402 26723 net.cpp:382] ip3_relu3_0_split -> ip3_relu3_0_split_1
I0428 19:49:17.929445 26723 net.cpp:124] Setting up ip3_relu3_0_split
I0428 19:49:17.929450 26723 net.cpp:131] Top shape: 100 10 (1000)
I0428 19:49:17.929453 26723 net.cpp:131] Top shape: 100 10 (1000)
I0428 19:49:17.929455 26723 net.cpp:139] Memory required for data: 1970800
I0428 19:49:17.929458 26723 layer_factory.hpp:77] Creating layer accuracy
I0428 19:49:17.929462 26723 net.cpp:86] Creating Layer accuracy
I0428 19:49:17.929466 26723 net.cpp:408] accuracy <- ip3_relu3_0_split_0
I0428 19:49:17.929469 26723 net.cpp:408] accuracy <- label_mnist_1_split_0
I0428 19:49:17.929474 26723 net.cpp:382] accuracy -> accuracy
…
