…
I0428 20:04:57.446210 30499 net.cpp:296] The NetState phase (0) differed from the phase (1) specified by a rule in layer mnist
I0428 20:04:57.446239 30499 net.cpp:296] The NetState phase (0) differed from the phase (1) specified by a rule in layer accuracy
I0428 20:04:57.446308 30499 net.cpp:53] Initializing net from parameters: 
name: "LeNet"
state {
  phase: TRAIN
  level: 0
  stage: ""
}
layer {
  name: "mnist"
  type: "Data"
  top: "data"
  top: "label"
  include {
    phase: TRAIN
  }
  transform_param {
    scale: 0.00390625
  }
  data_param {
    source: "examples/mnist/mnist_train_lmdb"
    batch_size: 64
    backend: LMDB
  }
}
layer {
  name: "conv0"
  type: "Convolution"
  bottom: "data"
  top: "conv0"
  param {
    lr_mult: 1
  }
  param {
    lr_mult: 2
  }
  convolution_param {
    num_output: 25
    kernel_size: 5
    stride: 1
    weight_filler {
      type: "xavier"
    }
    bias_filler {
      type: "constant"
    }
  }
}
layer {
  name: "pool0"
  type: "Pooling"
  bottom: "conv0"
  top: "pool0"
  pooling_param {
    pool: MAX
    kernel_size: 2
    stride: 2
  }
}
layer {
  name: "conv1"
  type: "Convolution"
  bottom: "pool0"
  top: "conv1"
  param {
    lr_mult: 1
  }
  param {
    lr_mult: 2
  }
  convolution_param {
    num_output: 2
    kernel_size: 5
    stride: 1
    weight_filler {
      type: "xavier"
    }
    bias_filler {
      type: "constant"
    }
  }
}
layer {
  name: "pool1"
  type: "Pooling"
  bottom: "conv1"
  top: "pool1"
  pooling_param {
    pool: MAX
    kernel_size: 2
    stride: 2
  }
}
layer {
  name: "ip1"
  type: "InnerProduct"
  bottom: "pool1"
  top: "ip1"
  param {
    lr_mult: 1
  }
  param {
    lr_mult: 2
  }
  inner_product_param {
    num_output: 50
    weight_filler {
      type: "xavier"
    }
    bias_filler {
      type: "constant"
    }
  }
}
layer {
  name: "relu1"
  type: "ReLU"
  bottom: "ip1"
  top: "ip1"
}
layer {
  name: "ip2"
  type: "InnerProduct"
  bottom: "ip1"
  top: "ip2"
  param {
    lr_mult: 1
  }
  param {
    lr_mult: 2
  }
  inner_product_param {
    num_output: 10
    weight_filler {
      type: "xavier"
    }
    bias_filler {
      type: "constant"
    }
  }
}
layer {
  name: "relu2"
  type: "ReLU"
  bottom: "ip2"
  top: "ip2"
}
layer {
  name: "loss"
  type: "SoftmaxWithLoss"
  bottom: "ip2"
  bottom: "label"
  top: "loss"
}
I0428 20:04:57.446368 30499 layer_factory.hpp:77] Creating layer mnist
I0428 20:04:57.446454 30499 db_lmdb.cpp:35] Opened lmdb examples/mnist/mnist_train_lmdb
I0428 20:04:57.446472 30499 net.cpp:86] Creating Layer mnist
I0428 20:04:57.446481 30499 net.cpp:382] mnist -> data
I0428 20:04:57.446499 30499 net.cpp:382] mnist -> label
I0428 20:04:57.447386 30499 data_layer.cpp:45] output data size: 64,1,28,28
I0428 20:04:57.449823 30499 net.cpp:124] Setting up mnist
I0428 20:04:57.449854 30499 net.cpp:131] Top shape: 64 1 28 28 (50176)
I0428 20:04:57.449859 30499 net.cpp:131] Top shape: 64 (64)
I0428 20:04:57.449862 30499 net.cpp:139] Memory required for data: 200960
I0428 20:04:57.449867 30499 layer_factory.hpp:77] Creating layer conv0
I0428 20:04:57.449882 30499 net.cpp:86] Creating Layer conv0
I0428 20:04:57.449887 30499 net.cpp:408] conv0 <- data
I0428 20:04:57.449898 30499 net.cpp:382] conv0 -> conv0
I0428 20:04:57.675096 30499 net.cpp:124] Setting up conv0
I0428 20:04:57.675122 30499 net.cpp:131] Top shape: 64 25 24 24 (921600)
I0428 20:04:57.675127 30499 net.cpp:139] Memory required for data: 3887360
I0428 20:04:57.675158 30499 layer_factory.hpp:77] Creating layer pool0
I0428 20:04:57.675171 30499 net.cpp:86] Creating Layer pool0
I0428 20:04:57.675178 30499 net.cpp:408] pool0 <- conv0
I0428 20:04:57.675199 30499 net.cpp:382] pool0 -> pool0
I0428 20:04:57.675256 30499 net.cpp:124] Setting up pool0
I0428 20:04:57.675261 30499 net.cpp:131] Top shape: 64 25 12 12 (230400)
I0428 20:04:57.675264 30499 net.cpp:139] Memory required for data: 4808960
I0428 20:04:57.675267 30499 layer_factory.hpp:77] Creating layer conv1
I0428 20:04:57.675278 30499 net.cpp:86] Creating Layer conv1
I0428 20:04:57.675282 30499 net.cpp:408] conv1 <- pool0
I0428 20:04:57.675285 30499 net.cpp:382] conv1 -> conv1
I0428 20:04:57.678104 30499 net.cpp:124] Setting up conv1
I0428 20:04:57.678134 30499 net.cpp:131] Top shape: 64 2 8 8 (8192)
I0428 20:04:57.678138 30499 net.cpp:139] Memory required for data: 4841728
I0428 20:04:57.678146 30499 layer_factory.hpp:77] Creating layer pool1
I0428 20:04:57.678153 30499 net.cpp:86] Creating Layer pool1
I0428 20:04:57.678158 30499 net.cpp:408] pool1 <- conv1
I0428 20:04:57.678161 30499 net.cpp:382] pool1 -> pool1
I0428 20:04:57.678226 30499 net.cpp:124] Setting up pool1
I0428 20:04:57.678231 30499 net.cpp:131] Top shape: 64 2 4 4 (2048)
I0428 20:04:57.678234 30499 net.cpp:139] Memory required for data: 4849920
I0428 20:04:57.678237 30499 layer_factory.hpp:77] Creating layer ip1
I0428 20:04:57.678244 30499 net.cpp:86] Creating Layer ip1
I0428 20:04:57.678247 30499 net.cpp:408] ip1 <- pool1
I0428 20:04:57.678251 30499 net.cpp:382] ip1 -> ip1
I0428 20:04:57.678351 30499 net.cpp:124] Setting up ip1
I0428 20:04:57.678359 30499 net.cpp:131] Top shape: 64 50 (3200)
I0428 20:04:57.678361 30499 net.cpp:139] Memory required for data: 4862720
I0428 20:04:57.678369 30499 layer_factory.hpp:77] Creating layer relu1
I0428 20:04:57.678373 30499 net.cpp:86] Creating Layer relu1
I0428 20:04:57.678376 30499 net.cpp:408] relu1 <- ip1
I0428 20:04:57.678380 30499 net.cpp:369] relu1 -> ip1 (in-place)
I0428 20:04:57.678535 30499 net.cpp:124] Setting up relu1
I0428 20:04:57.678544 30499 net.cpp:131] Top shape: 64 50 (3200)
I0428 20:04:57.678547 30499 net.cpp:139] Memory required for data: 4875520
I0428 20:04:57.678550 30499 layer_factory.hpp:77] Creating layer ip2
I0428 20:04:57.678556 30499 net.cpp:86] Creating Layer ip2
I0428 20:04:57.678560 30499 net.cpp:408] ip2 <- ip1
I0428 20:04:57.678565 30499 net.cpp:382] ip2 -> ip2
I0428 20:04:57.678668 30499 net.cpp:124] Setting up ip2
I0428 20:04:57.678673 30499 net.cpp:131] Top shape: 64 10 (640)
I0428 20:04:57.678676 30499 net.cpp:139] Memory required for data: 4878080
I0428 20:04:57.678681 30499 layer_factory.hpp:77] Creating layer relu2
I0428 20:04:57.678686 30499 net.cpp:86] Creating Layer relu2
I0428 20:04:57.678689 30499 net.cpp:408] relu2 <- ip2
I0428 20:04:57.678694 30499 net.cpp:369] relu2 -> ip2 (in-place)
I0428 20:04:57.679492 30499 net.cpp:124] Setting up relu2
I0428 20:04:57.679505 30499 net.cpp:131] Top shape: 64 10 (640)
I0428 20:04:57.679508 30499 net.cpp:139] Memory required for data: 4880640
I0428 20:04:57.679512 30499 layer_factory.hpp:77] Creating layer loss
I0428 20:04:57.679518 30499 net.cpp:86] Creating Layer loss
I0428 20:04:57.679522 30499 net.cpp:408] loss <- ip2
I0428 20:04:57.679525 30499 net.cpp:408] loss <- label
I0428 20:04:57.679545 30499 net.cpp:382] loss -> loss
I0428 20:04:57.679564 30499 layer_factory.hpp:77] Creating layer loss
…
I0428 20:04:57.680155 30499 solver.cpp:173] Creating test net (#0) specified by net file: ECE595/mnist/train_test/var_everything2/lenet_train_test986.prototxt
I0428 20:04:57.680181 30499 net.cpp:296] The NetState phase (1) differed from the phase (0) specified by a rule in layer mnist
I0428 20:04:57.680261 30499 net.cpp:53] Initializing net from parameters: 
name: "LeNet"
state {
  phase: TEST
}
layer {
  name: "mnist"
  type: "Data"
  top: "data"
  top: "label"
  include {
    phase: TEST
  }
  transform_param {
    scale: 0.00390625
  }
  data_param {
    source: "examples/mnist/mnist_test_lmdb"
    batch_size: 100
    backend: LMDB
  }
}
layer {
  name: "conv0"
  type: "Convolution"
  bottom: "data"
  top: "conv0"
  param {
    lr_mult: 1
  }
  param {
    lr_mult: 2
  }
  convolution_param {
    num_output: 25
    kernel_size: 5
    stride: 1
    weight_filler {
      type: "xavier"
    }
    bias_filler {
      type: "constant"
    }
  }
}
layer {
  name: "pool0"
  type: "Pooling"
  bottom: "conv0"
  top: "pool0"
  pooling_param {
    pool: MAX
    kernel_size: 2
    stride: 2
  }
}
layer {
  name: "conv1"
  type: "Convolution"
  bottom: "pool0"
  top: "conv1"
  param {
    lr_mult: 1
  }
  param {
    lr_mult: 2
  }
  convolution_param {
    num_output: 2
    kernel_size: 5
    stride: 1
    weight_filler {
      type: "xavier"
    }
    bias_filler {
      type: "constant"
    }
  }
}
layer {
  name: "pool1"
  type: "Pooling"
  bottom: "conv1"
  top: "pool1"
  pooling_param {
    pool: MAX
    kernel_size: 2
    stride: 2
  }
}
layer {
  name: "ip1"
  type: "InnerProduct"
  bottom: "pool1"
  top: "ip1"
  param {
    lr_mult: 1
  }
  param {
    lr_mult: 2
  }
  inner_product_param {
    num_output: 50
    weight_filler {
      type: "xavier"
    }
    bias_filler {
      type: "constant"
    }
  }
}
layer {
  name: "relu1"
  type: "ReLU"
  bottom: "ip1"
  top: "ip1"
}
layer {
  name: "ip2"
  type: "InnerProduct"
  bottom: "ip1"
  top: "ip2"
  param {
    lr_mult: 1
  }
  param {
    lr_mult: 2
  }
  inner_product_param {
    num_output: 10
    weight_filler {
      type: "xavier"
    }
    bias_filler {
      type: "constant"
    }
  }
}
layer {
  name: "relu2"
  type: "ReLU"
  bottom: "ip2"
  top: "ip2"
}
layer {
  name: "accuracy"
  type: "Accuracy"
  bottom: "ip2"
  bottom: "label"
  top: "accuracy"
  include {
    phase: TEST
  }
}
layer {
  name: "loss"
  type: "SoftmaxWithLoss"
  bottom: "ip2"
  bottom: "label"
  top: "loss"
}
I0428 20:04:57.680322 30499 layer_factory.hpp:77] Creating layer mnist
I0428 20:04:57.680366 30499 db_lmdb.cpp:35] Opened lmdb examples/mnist/mnist_test_lmdb
I0428 20:04:57.680379 30499 net.cpp:86] Creating Layer mnist
I0428 20:04:57.680383 30499 net.cpp:382] mnist -> data
I0428 20:04:57.680392 30499 net.cpp:382] mnist -> label
I0428 20:04:57.680516 30499 data_layer.cpp:45] output data size: 100,1,28,28
I0428 20:04:57.682660 30499 net.cpp:124] Setting up mnist
I0428 20:04:57.682689 30499 net.cpp:131] Top shape: 100 1 28 28 (78400)
I0428 20:04:57.682695 30499 net.cpp:131] Top shape: 100 (100)
I0428 20:04:57.682698 30499 net.cpp:139] Memory required for data: 314000
I0428 20:04:57.682703 30499 layer_factory.hpp:77] Creating layer label_mnist_1_split
I0428 20:04:57.682708 30499 net.cpp:86] Creating Layer label_mnist_1_split
I0428 20:04:57.682713 30499 net.cpp:408] label_mnist_1_split <- label
I0428 20:04:57.682718 30499 net.cpp:382] label_mnist_1_split -> label_mnist_1_split_0
I0428 20:04:57.682723 30499 net.cpp:382] label_mnist_1_split -> label_mnist_1_split_1
I0428 20:04:57.682798 30499 net.cpp:124] Setting up label_mnist_1_split
I0428 20:04:57.682832 30499 net.cpp:131] Top shape: 100 (100)
I0428 20:04:57.682835 30499 net.cpp:131] Top shape: 100 (100)
I0428 20:04:57.682838 30499 net.cpp:139] Memory required for data: 314800
I0428 20:04:57.682842 30499 layer_factory.hpp:77] Creating layer conv0
I0428 20:04:57.682849 30499 net.cpp:86] Creating Layer conv0
I0428 20:04:57.682853 30499 net.cpp:408] conv0 <- data
I0428 20:04:57.682857 30499 net.cpp:382] conv0 -> conv0
I0428 20:04:57.684437 30499 net.cpp:124] Setting up conv0
I0428 20:04:57.684448 30499 net.cpp:131] Top shape: 100 25 24 24 (1440000)
I0428 20:04:57.684453 30499 net.cpp:139] Memory required for data: 6074800
I0428 20:04:57.684460 30499 layer_factory.hpp:77] Creating layer pool0
I0428 20:04:57.684468 30499 net.cpp:86] Creating Layer pool0
I0428 20:04:57.684486 30499 net.cpp:408] pool0 <- conv0
I0428 20:04:57.684491 30499 net.cpp:382] pool0 -> pool0
I0428 20:04:57.684559 30499 net.cpp:124] Setting up pool0
I0428 20:04:57.684568 30499 net.cpp:131] Top shape: 100 25 12 12 (360000)
I0428 20:04:57.684571 30499 net.cpp:139] Memory required for data: 7514800
I0428 20:04:57.684574 30499 layer_factory.hpp:77] Creating layer conv1
I0428 20:04:57.684584 30499 net.cpp:86] Creating Layer conv1
I0428 20:04:57.684588 30499 net.cpp:408] conv1 <- pool0
I0428 20:04:57.684595 30499 net.cpp:382] conv1 -> conv1
I0428 20:04:57.686888 30499 net.cpp:124] Setting up conv1
I0428 20:04:57.686900 30499 net.cpp:131] Top shape: 100 2 8 8 (12800)
I0428 20:04:57.686905 30499 net.cpp:139] Memory required for data: 7566000
I0428 20:04:57.686914 30499 layer_factory.hpp:77] Creating layer pool1
I0428 20:04:57.686920 30499 net.cpp:86] Creating Layer pool1
I0428 20:04:57.686923 30499 net.cpp:408] pool1 <- conv1
I0428 20:04:57.686945 30499 net.cpp:382] pool1 -> pool1
I0428 20:04:57.687003 30499 net.cpp:124] Setting up pool1
I0428 20:04:57.687011 30499 net.cpp:131] Top shape: 100 2 4 4 (3200)
I0428 20:04:57.687014 30499 net.cpp:139] Memory required for data: 7578800
I0428 20:04:57.687017 30499 layer_factory.hpp:77] Creating layer ip1
I0428 20:04:57.687024 30499 net.cpp:86] Creating Layer ip1
I0428 20:04:57.687027 30499 net.cpp:408] ip1 <- pool1
I0428 20:04:57.687032 30499 net.cpp:382] ip1 -> ip1
I0428 20:04:57.687171 30499 net.cpp:124] Setting up ip1
I0428 20:04:57.687181 30499 net.cpp:131] Top shape: 100 50 (5000)
I0428 20:04:57.687186 30499 net.cpp:139] Memory required for data: 7598800
I0428 20:04:57.687192 30499 layer_factory.hpp:77] Creating layer relu1
I0428 20:04:57.687198 30499 net.cpp:86] Creating Layer relu1
I0428 20:04:57.687201 30499 net.cpp:408] relu1 <- ip1
I0428 20:04:57.687206 30499 net.cpp:369] relu1 -> ip1 (in-place)
I0428 20:04:57.687417 30499 net.cpp:124] Setting up relu1
I0428 20:04:57.687424 30499 net.cpp:131] Top shape: 100 50 (5000)
I0428 20:04:57.687428 30499 net.cpp:139] Memory required for data: 7618800
I0428 20:04:57.687432 30499 layer_factory.hpp:77] Creating layer ip2
I0428 20:04:57.687438 30499 net.cpp:86] Creating Layer ip2
I0428 20:04:57.687440 30499 net.cpp:408] ip2 <- ip1
I0428 20:04:57.687446 30499 net.cpp:382] ip2 -> ip2
I0428 20:04:57.687551 30499 net.cpp:124] Setting up ip2
I0428 20:04:57.687557 30499 net.cpp:131] Top shape: 100 10 (1000)
I0428 20:04:57.687561 30499 net.cpp:139] Memory required for data: 7622800
I0428 20:04:57.687566 30499 layer_factory.hpp:77] Creating layer relu2
I0428 20:04:57.687577 30499 net.cpp:86] Creating Layer relu2
I0428 20:04:57.687579 30499 net.cpp:408] relu2 <- ip2
I0428 20:04:57.687585 30499 net.cpp:369] relu2 -> ip2 (in-place)
I0428 20:04:57.687742 30499 net.cpp:124] Setting up relu2
I0428 20:04:57.687750 30499 net.cpp:131] Top shape: 100 10 (1000)
I0428 20:04:57.687753 30499 net.cpp:139] Memory required for data: 7626800
I0428 20:04:57.687757 30499 layer_factory.hpp:77] Creating layer ip2_relu2_0_split
I0428 20:04:57.687762 30499 net.cpp:86] Creating Layer ip2_relu2_0_split
I0428 20:04:57.687765 30499 net.cpp:408] ip2_relu2_0_split <- ip2
I0428 20:04:57.687791 30499 net.cpp:382] ip2_relu2_0_split -> ip2_relu2_0_split_0
I0428 20:04:57.687808 30499 net.cpp:382] ip2_relu2_0_split -> ip2_relu2_0_split_1
I0428 20:04:57.687844 30499 net.cpp:124] Setting up ip2_relu2_0_split
I0428 20:04:57.687852 30499 net.cpp:131] Top shape: 100 10 (1000)
I0428 20:04:57.687857 30499 net.cpp:131] Top shape: 100 10 (1000)
I0428 20:04:57.687875 30499 net.cpp:139] Memory required for data: 7634800
I0428 20:04:57.687878 30499 layer_factory.hpp:77] Creating layer accuracy
I0428 20:04:57.687883 30499 net.cpp:86] Creating Layer accuracy
I0428 20:04:57.687886 30499 net.cpp:408] accuracy <- ip2_relu2_0_split_0
I0428 20:04:57.687891 30499 net.cpp:408] accuracy <- label_mnist_1_split_0
I0428 20:04:57.687896 30499 net.cpp:382] accuracy -> accuracy
…
