…
I0428 19:44:59.396518 25715 net.cpp:296] The NetState phase (0) differed from the phase (1) specified by a rule in layer mnist
I0428 19:44:59.396538 25715 net.cpp:296] The NetState phase (0) differed from the phase (1) specified by a rule in layer accuracy
I0428 19:44:59.396642 25715 net.cpp:53] Initializing net from parameters: 
name: "LeNet"
state {
  phase: TRAIN
  level: 0
  stage: ""
}
layer {
  name: "mnist"
  type: "Data"
  top: "data"
  top: "label"
  include {
    phase: TRAIN
  }
  transform_param {
    scale: 0.00390625
  }
  data_param {
    source: "examples/mnist/mnist_train_lmdb"
    batch_size: 64
    backend: LMDB
  }
}
layer {
  name: "conv0"
  type: "Convolution"
  bottom: "data"
  top: "conv0"
  param {
    lr_mult: 1
  }
  param {
    lr_mult: 2
  }
  convolution_param {
    num_output: 2
    kernel_size: 5
    stride: 1
    weight_filler {
      type: "xavier"
    }
    bias_filler {
      type: "constant"
    }
  }
}
layer {
  name: "pool0"
  type: "Pooling"
  bottom: "conv0"
  top: "pool0"
  pooling_param {
    pool: MAX
    kernel_size: 2
    stride: 2
  }
}
layer {
  name: "conv1"
  type: "Convolution"
  bottom: "pool0"
  top: "conv1"
  param {
    lr_mult: 1
  }
  param {
    lr_mult: 2
  }
  convolution_param {
    num_output: 50
    kernel_size: 5
    stride: 1
    weight_filler {
      type: "xavier"
    }
    bias_filler {
      type: "constant"
    }
  }
}
layer {
  name: "pool1"
  type: "Pooling"
  bottom: "conv1"
  top: "pool1"
  pooling_param {
    pool: MAX
    kernel_size: 2
    stride: 2
  }
}
layer {
  name: "ip1"
  type: "InnerProduct"
  bottom: "pool1"
  top: "ip1"
  param {
    lr_mult: 1
  }
  param {
    lr_mult: 2
  }
  inner_product_param {
    num_output: 50
    weight_filler {
      type: "xavier"
    }
    bias_filler {
      type: "constant"
    }
  }
}
layer {
  name: "relu1"
  type: "ReLU"
  bottom: "ip1"
  top: "ip1"
}
layer {
  name: "ip2"
  type: "InnerProduct"
  bottom: "ip1"
  top: "ip2"
  param {
    lr_mult: 1
  }
  param {
    lr_mult: 2
  }
  inner_product_param {
    num_output: 10
    weight_filler {
      type: "xavier"
    }
    bias_filler {
      type: "constant"
    }
  }
}
layer {
  name: "relu2"
  type: "ReLU"
  bottom: "ip2"
  top: "ip2"
}
layer {
  name: "ip3"
  type: "InnerProduct"
  bottom: "ip2"
  top: "ip3"
  param {
    lr_mult: 1
  }
  param {
    lr_mult: 2
  }
  inner_product_param {
    num_output: 10
    weight_filler {
      type: "xavier"
    }
    bias_filler {
      type: "constant"
    }
  }
}
layer {
  name: "relu3"
  type: "ReLU"
  bottom: "ip3"
  top: "ip3"
}
layer {
  name: "loss"
  type: "SoftmaxWithLoss"
  bottom: "ip3"
  bottom: "label"
  top: "loss"
}
I0428 19:44:59.396723 25715 layer_factory.hpp:77] Creating layer mnist
I0428 19:44:59.396826 25715 db_lmdb.cpp:35] Opened lmdb examples/mnist/mnist_train_lmdb
I0428 19:44:59.396850 25715 net.cpp:86] Creating Layer mnist
I0428 19:44:59.396859 25715 net.cpp:382] mnist -> data
I0428 19:44:59.396883 25715 net.cpp:382] mnist -> label
I0428 19:44:59.397974 25715 data_layer.cpp:45] output data size: 64,1,28,28
I0428 19:44:59.400445 25715 net.cpp:124] Setting up mnist
I0428 19:44:59.400462 25715 net.cpp:131] Top shape: 64 1 28 28 (50176)
I0428 19:44:59.400468 25715 net.cpp:131] Top shape: 64 (64)
I0428 19:44:59.400471 25715 net.cpp:139] Memory required for data: 200960
I0428 19:44:59.400478 25715 layer_factory.hpp:77] Creating layer conv0
I0428 19:44:59.400519 25715 net.cpp:86] Creating Layer conv0
I0428 19:44:59.400543 25715 net.cpp:408] conv0 <- data
I0428 19:44:59.400557 25715 net.cpp:382] conv0 -> conv0
I0428 19:44:59.641810 25715 net.cpp:124] Setting up conv0
I0428 19:44:59.641852 25715 net.cpp:131] Top shape: 64 2 24 24 (73728)
I0428 19:44:59.641856 25715 net.cpp:139] Memory required for data: 495872
I0428 19:44:59.641871 25715 layer_factory.hpp:77] Creating layer pool0
I0428 19:44:59.641883 25715 net.cpp:86] Creating Layer pool0
I0428 19:44:59.641887 25715 net.cpp:408] pool0 <- conv0
I0428 19:44:59.641892 25715 net.cpp:382] pool0 -> pool0
I0428 19:44:59.641973 25715 net.cpp:124] Setting up pool0
I0428 19:44:59.641983 25715 net.cpp:131] Top shape: 64 2 12 12 (18432)
I0428 19:44:59.641986 25715 net.cpp:139] Memory required for data: 569600
I0428 19:44:59.641990 25715 layer_factory.hpp:77] Creating layer conv1
I0428 19:44:59.642019 25715 net.cpp:86] Creating Layer conv1
I0428 19:44:59.642024 25715 net.cpp:408] conv1 <- pool0
I0428 19:44:59.642030 25715 net.cpp:382] conv1 -> conv1
I0428 19:44:59.644752 25715 net.cpp:124] Setting up conv1
I0428 19:44:59.644768 25715 net.cpp:131] Top shape: 64 50 8 8 (204800)
I0428 19:44:59.644773 25715 net.cpp:139] Memory required for data: 1388800
I0428 19:44:59.644785 25715 layer_factory.hpp:77] Creating layer pool1
I0428 19:44:59.644834 25715 net.cpp:86] Creating Layer pool1
I0428 19:44:59.644839 25715 net.cpp:408] pool1 <- conv1
I0428 19:44:59.644843 25715 net.cpp:382] pool1 -> pool1
I0428 19:44:59.644898 25715 net.cpp:124] Setting up pool1
I0428 19:44:59.644922 25715 net.cpp:131] Top shape: 64 50 4 4 (51200)
I0428 19:44:59.644940 25715 net.cpp:139] Memory required for data: 1593600
I0428 19:44:59.644943 25715 layer_factory.hpp:77] Creating layer ip1
I0428 19:44:59.644966 25715 net.cpp:86] Creating Layer ip1
I0428 19:44:59.644969 25715 net.cpp:408] ip1 <- pool1
I0428 19:44:59.644974 25715 net.cpp:382] ip1 -> ip1
I0428 19:44:59.645386 25715 net.cpp:124] Setting up ip1
I0428 19:44:59.645392 25715 net.cpp:131] Top shape: 64 50 (3200)
I0428 19:44:59.645411 25715 net.cpp:139] Memory required for data: 1606400
I0428 19:44:59.645418 25715 layer_factory.hpp:77] Creating layer relu1
I0428 19:44:59.645424 25715 net.cpp:86] Creating Layer relu1
I0428 19:44:59.645427 25715 net.cpp:408] relu1 <- ip1
I0428 19:44:59.645431 25715 net.cpp:369] relu1 -> ip1 (in-place)
I0428 19:44:59.645599 25715 net.cpp:124] Setting up relu1
I0428 19:44:59.645607 25715 net.cpp:131] Top shape: 64 50 (3200)
I0428 19:44:59.645611 25715 net.cpp:139] Memory required for data: 1619200
I0428 19:44:59.645613 25715 layer_factory.hpp:77] Creating layer ip2
I0428 19:44:59.645618 25715 net.cpp:86] Creating Layer ip2
I0428 19:44:59.645622 25715 net.cpp:408] ip2 <- ip1
I0428 19:44:59.645627 25715 net.cpp:382] ip2 -> ip2
I0428 19:44:59.645745 25715 net.cpp:124] Setting up ip2
I0428 19:44:59.645752 25715 net.cpp:131] Top shape: 64 10 (640)
I0428 19:44:59.645756 25715 net.cpp:139] Memory required for data: 1621760
I0428 19:44:59.645761 25715 layer_factory.hpp:77] Creating layer relu2
I0428 19:44:59.645766 25715 net.cpp:86] Creating Layer relu2
I0428 19:44:59.645769 25715 net.cpp:408] relu2 <- ip2
I0428 19:44:59.645773 25715 net.cpp:369] relu2 -> ip2 (in-place)
I0428 19:44:59.646522 25715 net.cpp:124] Setting up relu2
I0428 19:44:59.646533 25715 net.cpp:131] Top shape: 64 10 (640)
I0428 19:44:59.646551 25715 net.cpp:139] Memory required for data: 1624320
I0428 19:44:59.646554 25715 layer_factory.hpp:77] Creating layer ip3
I0428 19:44:59.646561 25715 net.cpp:86] Creating Layer ip3
I0428 19:44:59.646564 25715 net.cpp:408] ip3 <- ip2
I0428 19:44:59.646570 25715 net.cpp:382] ip3 -> ip3
I0428 19:44:59.646664 25715 net.cpp:124] Setting up ip3
I0428 19:44:59.646672 25715 net.cpp:131] Top shape: 64 10 (640)
I0428 19:44:59.646675 25715 net.cpp:139] Memory required for data: 1626880
I0428 19:44:59.646682 25715 layer_factory.hpp:77] Creating layer relu3
I0428 19:44:59.646687 25715 net.cpp:86] Creating Layer relu3
I0428 19:44:59.646690 25715 net.cpp:408] relu3 <- ip3
I0428 19:44:59.646694 25715 net.cpp:369] relu3 -> ip3 (in-place)
I0428 19:44:59.646847 25715 net.cpp:124] Setting up relu3
I0428 19:44:59.646857 25715 net.cpp:131] Top shape: 64 10 (640)
I0428 19:44:59.646859 25715 net.cpp:139] Memory required for data: 1629440
I0428 19:44:59.646862 25715 layer_factory.hpp:77] Creating layer loss
I0428 19:44:59.646868 25715 net.cpp:86] Creating Layer loss
I0428 19:44:59.646872 25715 net.cpp:408] loss <- ip3
I0428 19:44:59.646875 25715 net.cpp:408] loss <- label
I0428 19:44:59.646880 25715 net.cpp:382] loss -> loss
I0428 19:44:59.646896 25715 layer_factory.hpp:77] Creating layer loss
…
I0428 19:44:59.647578 25715 solver.cpp:173] Creating test net (#0) specified by net file: ECE595/mnist/train_test/var_everything2/lenet_train_test461.prototxt
I0428 19:44:59.647631 25715 net.cpp:296] The NetState phase (1) differed from the phase (0) specified by a rule in layer mnist
I0428 19:44:59.647717 25715 net.cpp:53] Initializing net from parameters: 
name: "LeNet"
state {
  phase: TEST
}
layer {
  name: "mnist"
  type: "Data"
  top: "data"
  top: "label"
  include {
    phase: TEST
  }
  transform_param {
    scale: 0.00390625
  }
  data_param {
    source: "examples/mnist/mnist_test_lmdb"
    batch_size: 100
    backend: LMDB
  }
}
layer {
  name: "conv0"
  type: "Convolution"
  bottom: "data"
  top: "conv0"
  param {
    lr_mult: 1
  }
  param {
    lr_mult: 2
  }
  convolution_param {
    num_output: 2
    kernel_size: 5
    stride: 1
    weight_filler {
      type: "xavier"
    }
    bias_filler {
      type: "constant"
    }
  }
}
layer {
  name: "pool0"
  type: "Pooling"
  bottom: "conv0"
  top: "pool0"
  pooling_param {
    pool: MAX
    kernel_size: 2
    stride: 2
  }
}
layer {
  name: "conv1"
  type: "Convolution"
  bottom: "pool0"
  top: "conv1"
  param {
    lr_mult: 1
  }
  param {
    lr_mult: 2
  }
  convolution_param {
    num_output: 50
    kernel_size: 5
    stride: 1
    weight_filler {
      type: "xavier"
    }
    bias_filler {
      type: "constant"
    }
  }
}
layer {
  name: "pool1"
  type: "Pooling"
  bottom: "conv1"
  top: "pool1"
  pooling_param {
    pool: MAX
    kernel_size: 2
    stride: 2
  }
}
layer {
  name: "ip1"
  type: "InnerProduct"
  bottom: "pool1"
  top: "ip1"
  param {
    lr_mult: 1
  }
  param {
    lr_mult: 2
  }
  inner_product_param {
    num_output: 50
    weight_filler {
      type: "xavier"
    }
    bias_filler {
      type: "constant"
    }
  }
}
layer {
  name: "relu1"
  type: "ReLU"
  bottom: "ip1"
  top: "ip1"
}
layer {
  name: "ip2"
  type: "InnerProduct"
  bottom: "ip1"
  top: "ip2"
  param {
    lr_mult: 1
  }
  param {
    lr_mult: 2
  }
  inner_product_param {
    num_output: 10
    weight_filler {
      type: "xavier"
    }
    bias_filler {
      type: "constant"
    }
  }
}
layer {
  name: "relu2"
  type: "ReLU"
  bottom: "ip2"
  top: "ip2"
}
layer {
  name: "ip3"
  type: "InnerProduct"
  bottom: "ip2"
  top: "ip3"
  param {
    lr_mult: 1
  }
  param {
    lr_mult: 2
  }
  inner_product_param {
    num_output: 10
    weight_filler {
      type: "xavier"
    }
    bias_filler {
      type: "constant"
    }
  }
}
layer {
  name: "relu3"
  type: "ReLU"
  bottom: "ip3"
  top: "ip3"
}
layer {
  name: "accuracy"
  type: "Accuracy"
  bottom: "ip3"
  bottom: "label"
  top: "accuracy"
  include {
    phase: TEST
  }
}
layer {
  name: "loss"
  type: "SoftmaxWithLoss"
  bottom: "ip3"
  bottom: "label"
  top: "loss"
}
I0428 19:44:59.647791 25715 layer_factory.hpp:77] Creating layer mnist
I0428 19:44:59.647833 25715 db_lmdb.cpp:35] Opened lmdb examples/mnist/mnist_test_lmdb
I0428 19:44:59.647845 25715 net.cpp:86] Creating Layer mnist
I0428 19:44:59.647850 25715 net.cpp:382] mnist -> data
I0428 19:44:59.647856 25715 net.cpp:382] mnist -> label
I0428 19:44:59.647934 25715 data_layer.cpp:45] output data size: 100,1,28,28
I0428 19:44:59.650009 25715 net.cpp:124] Setting up mnist
I0428 19:44:59.650037 25715 net.cpp:131] Top shape: 100 1 28 28 (78400)
I0428 19:44:59.650041 25715 net.cpp:131] Top shape: 100 (100)
I0428 19:44:59.650044 25715 net.cpp:139] Memory required for data: 314000
I0428 19:44:59.650048 25715 layer_factory.hpp:77] Creating layer label_mnist_1_split
I0428 19:44:59.650071 25715 net.cpp:86] Creating Layer label_mnist_1_split
I0428 19:44:59.650075 25715 net.cpp:408] label_mnist_1_split <- label
I0428 19:44:59.650080 25715 net.cpp:382] label_mnist_1_split -> label_mnist_1_split_0
I0428 19:44:59.650086 25715 net.cpp:382] label_mnist_1_split -> label_mnist_1_split_1
I0428 19:44:59.650135 25715 net.cpp:124] Setting up label_mnist_1_split
I0428 19:44:59.650140 25715 net.cpp:131] Top shape: 100 (100)
I0428 19:44:59.650143 25715 net.cpp:131] Top shape: 100 (100)
I0428 19:44:59.650146 25715 net.cpp:139] Memory required for data: 314800
I0428 19:44:59.650148 25715 layer_factory.hpp:77] Creating layer conv0
I0428 19:44:59.650156 25715 net.cpp:86] Creating Layer conv0
I0428 19:44:59.650159 25715 net.cpp:408] conv0 <- data
I0428 19:44:59.650164 25715 net.cpp:382] conv0 -> conv0
I0428 19:44:59.651862 25715 net.cpp:124] Setting up conv0
I0428 19:44:59.651891 25715 net.cpp:131] Top shape: 100 2 24 24 (115200)
I0428 19:44:59.651895 25715 net.cpp:139] Memory required for data: 775600
I0428 19:44:59.651903 25715 layer_factory.hpp:77] Creating layer pool0
I0428 19:44:59.651909 25715 net.cpp:86] Creating Layer pool0
I0428 19:44:59.651912 25715 net.cpp:408] pool0 <- conv0
I0428 19:44:59.651917 25715 net.cpp:382] pool0 -> pool0
I0428 19:44:59.651952 25715 net.cpp:124] Setting up pool0
I0428 19:44:59.651957 25715 net.cpp:131] Top shape: 100 2 12 12 (28800)
I0428 19:44:59.651959 25715 net.cpp:139] Memory required for data: 890800
I0428 19:44:59.651962 25715 layer_factory.hpp:77] Creating layer conv1
I0428 19:44:59.651970 25715 net.cpp:86] Creating Layer conv1
I0428 19:44:59.651973 25715 net.cpp:408] conv1 <- pool0
I0428 19:44:59.651978 25715 net.cpp:382] conv1 -> conv1
I0428 19:44:59.653530 25715 net.cpp:124] Setting up conv1
I0428 19:44:59.653543 25715 net.cpp:131] Top shape: 100 50 8 8 (320000)
I0428 19:44:59.653565 25715 net.cpp:139] Memory required for data: 2170800
I0428 19:44:59.653573 25715 layer_factory.hpp:77] Creating layer pool1
I0428 19:44:59.653581 25715 net.cpp:86] Creating Layer pool1
I0428 19:44:59.653585 25715 net.cpp:408] pool1 <- conv1
I0428 19:44:59.653590 25715 net.cpp:382] pool1 -> pool1
I0428 19:44:59.653625 25715 net.cpp:124] Setting up pool1
I0428 19:44:59.653630 25715 net.cpp:131] Top shape: 100 50 4 4 (80000)
I0428 19:44:59.653633 25715 net.cpp:139] Memory required for data: 2490800
I0428 19:44:59.653636 25715 layer_factory.hpp:77] Creating layer ip1
I0428 19:44:59.653641 25715 net.cpp:86] Creating Layer ip1
I0428 19:44:59.653645 25715 net.cpp:408] ip1 <- pool1
I0428 19:44:59.653650 25715 net.cpp:382] ip1 -> ip1
I0428 19:44:59.654028 25715 net.cpp:124] Setting up ip1
I0428 19:44:59.654036 25715 net.cpp:131] Top shape: 100 50 (5000)
I0428 19:44:59.654068 25715 net.cpp:139] Memory required for data: 2510800
I0428 19:44:59.654076 25715 layer_factory.hpp:77] Creating layer relu1
I0428 19:44:59.654080 25715 net.cpp:86] Creating Layer relu1
I0428 19:44:59.654084 25715 net.cpp:408] relu1 <- ip1
I0428 19:44:59.654088 25715 net.cpp:369] relu1 -> ip1 (in-place)
I0428 19:44:59.654268 25715 net.cpp:124] Setting up relu1
I0428 19:44:59.654276 25715 net.cpp:131] Top shape: 100 50 (5000)
I0428 19:44:59.654279 25715 net.cpp:139] Memory required for data: 2530800
I0428 19:44:59.654284 25715 layer_factory.hpp:77] Creating layer ip2
I0428 19:44:59.654290 25715 net.cpp:86] Creating Layer ip2
I0428 19:44:59.654294 25715 net.cpp:408] ip2 <- ip1
I0428 19:44:59.654299 25715 net.cpp:382] ip2 -> ip2
I0428 19:44:59.654410 25715 net.cpp:124] Setting up ip2
I0428 19:44:59.654417 25715 net.cpp:131] Top shape: 100 10 (1000)
I0428 19:44:59.654420 25715 net.cpp:139] Memory required for data: 2534800
I0428 19:44:59.654425 25715 layer_factory.hpp:77] Creating layer relu2
I0428 19:44:59.654430 25715 net.cpp:86] Creating Layer relu2
I0428 19:44:59.654433 25715 net.cpp:408] relu2 <- ip2
I0428 19:44:59.654438 25715 net.cpp:369] relu2 -> ip2 (in-place)
I0428 19:44:59.654678 25715 net.cpp:124] Setting up relu2
I0428 19:44:59.654687 25715 net.cpp:131] Top shape: 100 10 (1000)
I0428 19:44:59.654691 25715 net.cpp:139] Memory required for data: 2538800
I0428 19:44:59.654695 25715 layer_factory.hpp:77] Creating layer ip3
I0428 19:44:59.654700 25715 net.cpp:86] Creating Layer ip3
I0428 19:44:59.654702 25715 net.cpp:408] ip3 <- ip2
I0428 19:44:59.654713 25715 net.cpp:382] ip3 -> ip3
I0428 19:44:59.654820 25715 net.cpp:124] Setting up ip3
I0428 19:44:59.654827 25715 net.cpp:131] Top shape: 100 10 (1000)
I0428 19:44:59.654831 25715 net.cpp:139] Memory required for data: 2542800
I0428 19:44:59.654839 25715 layer_factory.hpp:77] Creating layer relu3
I0428 19:44:59.654844 25715 net.cpp:86] Creating Layer relu3
I0428 19:44:59.654847 25715 net.cpp:408] relu3 <- ip3
I0428 19:44:59.654851 25715 net.cpp:369] relu3 -> ip3 (in-place)
I0428 19:44:59.655683 25715 net.cpp:124] Setting up relu3
I0428 19:44:59.655694 25715 net.cpp:131] Top shape: 100 10 (1000)
I0428 19:44:59.655712 25715 net.cpp:139] Memory required for data: 2546800
I0428 19:44:59.655715 25715 layer_factory.hpp:77] Creating layer ip3_relu3_0_split
I0428 19:44:59.655721 25715 net.cpp:86] Creating Layer ip3_relu3_0_split
I0428 19:44:59.655725 25715 net.cpp:408] ip3_relu3_0_split <- ip3
I0428 19:44:59.655730 25715 net.cpp:382] ip3_relu3_0_split -> ip3_relu3_0_split_0
I0428 19:44:59.655735 25715 net.cpp:382] ip3_relu3_0_split -> ip3_relu3_0_split_1
I0428 19:44:59.655773 25715 net.cpp:124] Setting up ip3_relu3_0_split
I0428 19:44:59.655778 25715 net.cpp:131] Top shape: 100 10 (1000)
I0428 19:44:59.655781 25715 net.cpp:131] Top shape: 100 10 (1000)
I0428 19:44:59.655784 25715 net.cpp:139] Memory required for data: 2554800
I0428 19:44:59.655787 25715 layer_factory.hpp:77] Creating layer accuracy
I0428 19:44:59.655791 25715 net.cpp:86] Creating Layer accuracy
I0428 19:44:59.655794 25715 net.cpp:408] accuracy <- ip3_relu3_0_split_0
I0428 19:44:59.655798 25715 net.cpp:408] accuracy <- label_mnist_1_split_0
I0428 19:44:59.655802 25715 net.cpp:382] accuracy -> accuracy
…
