…
I0428 19:49:07.868886 26677 net.cpp:296] The NetState phase (0) differed from the phase (1) specified by a rule in layer mnist
I0428 19:49:07.868907 26677 net.cpp:296] The NetState phase (0) differed from the phase (1) specified by a rule in layer accuracy
I0428 19:49:07.869014 26677 net.cpp:53] Initializing net from parameters: 
name: "LeNet"
state {
  phase: TRAIN
  level: 0
  stage: ""
}
layer {
  name: "mnist"
  type: "Data"
  top: "data"
  top: "label"
  include {
    phase: TRAIN
  }
  transform_param {
    scale: 0.00390625
  }
  data_param {
    source: "examples/mnist/mnist_train_lmdb"
    batch_size: 64
    backend: LMDB
  }
}
layer {
  name: "conv0"
  type: "Convolution"
  bottom: "data"
  top: "conv0"
  param {
    lr_mult: 1
  }
  param {
    lr_mult: 2
  }
  convolution_param {
    num_output: 5
    kernel_size: 5
    stride: 1
    weight_filler {
      type: "xavier"
    }
    bias_filler {
      type: "constant"
    }
  }
}
layer {
  name: "pool0"
  type: "Pooling"
  bottom: "conv0"
  top: "pool0"
  pooling_param {
    pool: MAX
    kernel_size: 2
    stride: 2
  }
}
layer {
  name: "conv1"
  type: "Convolution"
  bottom: "pool0"
  top: "conv1"
  param {
    lr_mult: 1
  }
  param {
    lr_mult: 2
  }
  convolution_param {
    num_output: 5
    kernel_size: 5
    stride: 1
    weight_filler {
      type: "xavier"
    }
    bias_filler {
      type: "constant"
    }
  }
}
layer {
  name: "pool1"
  type: "Pooling"
  bottom: "conv1"
  top: "pool1"
  pooling_param {
    pool: MAX
    kernel_size: 2
    stride: 2
  }
}
layer {
  name: "ip1"
  type: "InnerProduct"
  bottom: "pool1"
  top: "ip1"
  param {
    lr_mult: 1
  }
  param {
    lr_mult: 2
  }
  inner_product_param {
    num_output: 10
    weight_filler {
      type: "xavier"
    }
    bias_filler {
      type: "constant"
    }
  }
}
layer {
  name: "relu1"
  type: "ReLU"
  bottom: "ip1"
  top: "ip1"
}
layer {
  name: "ip2"
  type: "InnerProduct"
  bottom: "ip1"
  top: "ip2"
  param {
    lr_mult: 1
  }
  param {
    lr_mult: 2
  }
  inner_product_param {
    num_output: 50
    weight_filler {
      type: "xavier"
    }
    bias_filler {
      type: "constant"
    }
  }
}
layer {
  name: "relu2"
  type: "ReLU"
  bottom: "ip2"
  top: "ip2"
}
layer {
  name: "ip3"
  type: "InnerProduct"
  bottom: "ip2"
  top: "ip3"
  param {
    lr_mult: 1
  }
  param {
    lr_mult: 2
  }
  inner_product_param {
    num_output: 10
    weight_filler {
      type: "xavier"
    }
    bias_filler {
      type: "constant"
    }
  }
}
layer {
  name: "relu3"
  type: "ReLU"
  bottom: "ip3"
  top: "ip3"
}
layer {
  name: "loss"
  type: "SoftmaxWithLoss"
  bottom: "ip3"
  bottom: "label"
  top: "loss"
}
I0428 19:49:07.869091 26677 layer_factory.hpp:77] Creating layer mnist
I0428 19:49:07.869186 26677 db_lmdb.cpp:35] Opened lmdb examples/mnist/mnist_train_lmdb
I0428 19:49:07.869211 26677 net.cpp:86] Creating Layer mnist
I0428 19:49:07.869218 26677 net.cpp:382] mnist -> data
I0428 19:49:07.869241 26677 net.cpp:382] mnist -> label
I0428 19:49:07.870326 26677 data_layer.cpp:45] output data size: 64,1,28,28
I0428 19:49:07.872773 26677 net.cpp:124] Setting up mnist
I0428 19:49:07.872792 26677 net.cpp:131] Top shape: 64 1 28 28 (50176)
I0428 19:49:07.872815 26677 net.cpp:131] Top shape: 64 (64)
I0428 19:49:07.872830 26677 net.cpp:139] Memory required for data: 200960
I0428 19:49:07.872838 26677 layer_factory.hpp:77] Creating layer conv0
I0428 19:49:07.872854 26677 net.cpp:86] Creating Layer conv0
I0428 19:49:07.872874 26677 net.cpp:408] conv0 <- data
I0428 19:49:07.872887 26677 net.cpp:382] conv0 -> conv0
I0428 19:49:08.123649 26677 net.cpp:124] Setting up conv0
I0428 19:49:08.123692 26677 net.cpp:131] Top shape: 64 5 24 24 (184320)
I0428 19:49:08.123695 26677 net.cpp:139] Memory required for data: 938240
I0428 19:49:08.123709 26677 layer_factory.hpp:77] Creating layer pool0
I0428 19:49:08.123723 26677 net.cpp:86] Creating Layer pool0
I0428 19:49:08.123725 26677 net.cpp:408] pool0 <- conv0
I0428 19:49:08.123730 26677 net.cpp:382] pool0 -> pool0
I0428 19:49:08.123790 26677 net.cpp:124] Setting up pool0
I0428 19:49:08.123795 26677 net.cpp:131] Top shape: 64 5 12 12 (46080)
I0428 19:49:08.123798 26677 net.cpp:139] Memory required for data: 1122560
I0428 19:49:08.123801 26677 layer_factory.hpp:77] Creating layer conv1
I0428 19:49:08.123826 26677 net.cpp:86] Creating Layer conv1
I0428 19:49:08.123829 26677 net.cpp:408] conv1 <- pool0
I0428 19:49:08.123833 26677 net.cpp:382] conv1 -> conv1
I0428 19:49:08.125751 26677 net.cpp:124] Setting up conv1
I0428 19:49:08.125782 26677 net.cpp:131] Top shape: 64 5 8 8 (20480)
I0428 19:49:08.125785 26677 net.cpp:139] Memory required for data: 1204480
I0428 19:49:08.125808 26677 layer_factory.hpp:77] Creating layer pool1
I0428 19:49:08.125818 26677 net.cpp:86] Creating Layer pool1
I0428 19:49:08.125820 26677 net.cpp:408] pool1 <- conv1
I0428 19:49:08.125826 26677 net.cpp:382] pool1 -> pool1
I0428 19:49:08.125864 26677 net.cpp:124] Setting up pool1
I0428 19:49:08.125870 26677 net.cpp:131] Top shape: 64 5 4 4 (5120)
I0428 19:49:08.125874 26677 net.cpp:139] Memory required for data: 1224960
I0428 19:49:08.125876 26677 layer_factory.hpp:77] Creating layer ip1
I0428 19:49:08.125885 26677 net.cpp:86] Creating Layer ip1
I0428 19:49:08.125887 26677 net.cpp:408] ip1 <- pool1
I0428 19:49:08.125892 26677 net.cpp:382] ip1 -> ip1
I0428 19:49:08.126009 26677 net.cpp:124] Setting up ip1
I0428 19:49:08.126018 26677 net.cpp:131] Top shape: 64 10 (640)
I0428 19:49:08.126035 26677 net.cpp:139] Memory required for data: 1227520
I0428 19:49:08.126042 26677 layer_factory.hpp:77] Creating layer relu1
I0428 19:49:08.126047 26677 net.cpp:86] Creating Layer relu1
I0428 19:49:08.126050 26677 net.cpp:408] relu1 <- ip1
I0428 19:49:08.126055 26677 net.cpp:369] relu1 -> ip1 (in-place)
I0428 19:49:08.126241 26677 net.cpp:124] Setting up relu1
I0428 19:49:08.126250 26677 net.cpp:131] Top shape: 64 10 (640)
I0428 19:49:08.126253 26677 net.cpp:139] Memory required for data: 1230080
I0428 19:49:08.126256 26677 layer_factory.hpp:77] Creating layer ip2
I0428 19:49:08.126262 26677 net.cpp:86] Creating Layer ip2
I0428 19:49:08.126266 26677 net.cpp:408] ip2 <- ip1
I0428 19:49:08.126271 26677 net.cpp:382] ip2 -> ip2
I0428 19:49:08.126365 26677 net.cpp:124] Setting up ip2
I0428 19:49:08.126372 26677 net.cpp:131] Top shape: 64 50 (3200)
I0428 19:49:08.126375 26677 net.cpp:139] Memory required for data: 1242880
I0428 19:49:08.126380 26677 layer_factory.hpp:77] Creating layer relu2
I0428 19:49:08.126402 26677 net.cpp:86] Creating Layer relu2
I0428 19:49:08.126405 26677 net.cpp:408] relu2 <- ip2
I0428 19:49:08.126410 26677 net.cpp:369] relu2 -> ip2 (in-place)
I0428 19:49:08.127218 26677 net.cpp:124] Setting up relu2
I0428 19:49:08.127231 26677 net.cpp:131] Top shape: 64 50 (3200)
I0428 19:49:08.127250 26677 net.cpp:139] Memory required for data: 1255680
I0428 19:49:08.127254 26677 layer_factory.hpp:77] Creating layer ip3
I0428 19:49:08.127260 26677 net.cpp:86] Creating Layer ip3
I0428 19:49:08.127265 26677 net.cpp:408] ip3 <- ip2
I0428 19:49:08.127270 26677 net.cpp:382] ip3 -> ip3
I0428 19:49:08.127396 26677 net.cpp:124] Setting up ip3
I0428 19:49:08.127404 26677 net.cpp:131] Top shape: 64 10 (640)
I0428 19:49:08.127408 26677 net.cpp:139] Memory required for data: 1258240
I0428 19:49:08.127416 26677 layer_factory.hpp:77] Creating layer relu3
I0428 19:49:08.127421 26677 net.cpp:86] Creating Layer relu3
I0428 19:49:08.127424 26677 net.cpp:408] relu3 <- ip3
I0428 19:49:08.127429 26677 net.cpp:369] relu3 -> ip3 (in-place)
I0428 19:49:08.127646 26677 net.cpp:124] Setting up relu3
I0428 19:49:08.127655 26677 net.cpp:131] Top shape: 64 10 (640)
I0428 19:49:08.127658 26677 net.cpp:139] Memory required for data: 1260800
I0428 19:49:08.127660 26677 layer_factory.hpp:77] Creating layer loss
I0428 19:49:08.127667 26677 net.cpp:86] Creating Layer loss
I0428 19:49:08.127671 26677 net.cpp:408] loss <- ip3
I0428 19:49:08.127674 26677 net.cpp:408] loss <- label
I0428 19:49:08.127679 26677 net.cpp:382] loss -> loss
I0428 19:49:08.127696 26677 layer_factory.hpp:77] Creating layer loss
…
I0428 19:49:08.128406 26677 solver.cpp:173] Creating test net (#0) specified by net file: ECE595/mnist/train_test/var_everything2/lenet_train_test565.prototxt
I0428 19:49:08.128432 26677 net.cpp:296] The NetState phase (1) differed from the phase (0) specified by a rule in layer mnist
I0428 19:49:08.128541 26677 net.cpp:53] Initializing net from parameters: 
name: "LeNet"
state {
  phase: TEST
}
layer {
  name: "mnist"
  type: "Data"
  top: "data"
  top: "label"
  include {
    phase: TEST
  }
  transform_param {
    scale: 0.00390625
  }
  data_param {
    source: "examples/mnist/mnist_test_lmdb"
    batch_size: 100
    backend: LMDB
  }
}
layer {
  name: "conv0"
  type: "Convolution"
  bottom: "data"
  top: "conv0"
  param {
    lr_mult: 1
  }
  param {
    lr_mult: 2
  }
  convolution_param {
    num_output: 5
    kernel_size: 5
    stride: 1
    weight_filler {
      type: "xavier"
    }
    bias_filler {
      type: "constant"
    }
  }
}
layer {
  name: "pool0"
  type: "Pooling"
  bottom: "conv0"
  top: "pool0"
  pooling_param {
    pool: MAX
    kernel_size: 2
    stride: 2
  }
}
layer {
  name: "conv1"
  type: "Convolution"
  bottom: "pool0"
  top: "conv1"
  param {
    lr_mult: 1
  }
  param {
    lr_mult: 2
  }
  convolution_param {
    num_output: 5
    kernel_size: 5
    stride: 1
    weight_filler {
      type: "xavier"
    }
    bias_filler {
      type: "constant"
    }
  }
}
layer {
  name: "pool1"
  type: "Pooling"
  bottom: "conv1"
  top: "pool1"
  pooling_param {
    pool: MAX
    kernel_size: 2
    stride: 2
  }
}
layer {
  name: "ip1"
  type: "InnerProduct"
  bottom: "pool1"
  top: "ip1"
  param {
    lr_mult: 1
  }
  param {
    lr_mult: 2
  }
  inner_product_param {
    num_output: 10
    weight_filler {
      type: "xavier"
    }
    bias_filler {
      type: "constant"
    }
  }
}
layer {
  name: "relu1"
  type: "ReLU"
  bottom: "ip1"
  top: "ip1"
}
layer {
  name: "ip2"
  type: "InnerProduct"
  bottom: "ip1"
  top: "ip2"
  param {
    lr_mult: 1
  }
  param {
    lr_mult: 2
  }
  inner_product_param {
    num_output: 50
    weight_filler {
      type: "xavier"
    }
    bias_filler {
      type: "constant"
    }
  }
}
layer {
  name: "relu2"
  type: "ReLU"
  bottom: "ip2"
  top: "ip2"
}
layer {
  name: "ip3"
  type: "InnerProduct"
  bottom: "ip2"
  top: "ip3"
  param {
    lr_mult: 1
  }
  param {
    lr_mult: 2
  }
  inner_product_param {
    num_output: 10
    weight_filler {
      type: "xavier"
    }
    bias_filler {
      type: "constant"
    }
  }
}
layer {
  name: "relu3"
  type: "ReLU"
  bottom: "ip3"
  top: "ip3"
}
layer {
  name: "accuracy"
  type: "Accuracy"
  bottom: "ip3"
  bottom: "label"
  top: "accuracy"
  include {
    phase: TEST
  }
}
layer {
  name: "loss"
  type: "SoftmaxWithLoss"
  bottom: "ip3"
  bottom: "label"
  top: "loss"
}
I0428 19:49:08.128636 26677 layer_factory.hpp:77] Creating layer mnist
I0428 19:49:08.128677 26677 db_lmdb.cpp:35] Opened lmdb examples/mnist/mnist_test_lmdb
I0428 19:49:08.128690 26677 net.cpp:86] Creating Layer mnist
I0428 19:49:08.128695 26677 net.cpp:382] mnist -> data
I0428 19:49:08.128702 26677 net.cpp:382] mnist -> label
I0428 19:49:08.128783 26677 data_layer.cpp:45] output data size: 100,1,28,28
I0428 19:49:08.131037 26677 net.cpp:124] Setting up mnist
I0428 19:49:08.131065 26677 net.cpp:131] Top shape: 100 1 28 28 (78400)
I0428 19:49:08.131086 26677 net.cpp:131] Top shape: 100 (100)
I0428 19:49:08.131089 26677 net.cpp:139] Memory required for data: 314000
I0428 19:49:08.131093 26677 layer_factory.hpp:77] Creating layer label_mnist_1_split
I0428 19:49:08.131117 26677 net.cpp:86] Creating Layer label_mnist_1_split
I0428 19:49:08.131121 26677 net.cpp:408] label_mnist_1_split <- label
I0428 19:49:08.131129 26677 net.cpp:382] label_mnist_1_split -> label_mnist_1_split_0
I0428 19:49:08.131134 26677 net.cpp:382] label_mnist_1_split -> label_mnist_1_split_1
I0428 19:49:08.131176 26677 net.cpp:124] Setting up label_mnist_1_split
I0428 19:49:08.131184 26677 net.cpp:131] Top shape: 100 (100)
I0428 19:49:08.131187 26677 net.cpp:131] Top shape: 100 (100)
I0428 19:49:08.131191 26677 net.cpp:139] Memory required for data: 314800
I0428 19:49:08.131209 26677 layer_factory.hpp:77] Creating layer conv0
I0428 19:49:08.131219 26677 net.cpp:86] Creating Layer conv0
I0428 19:49:08.131223 26677 net.cpp:408] conv0 <- data
I0428 19:49:08.131228 26677 net.cpp:382] conv0 -> conv0
I0428 19:49:08.133028 26677 net.cpp:124] Setting up conv0
I0428 19:49:08.133041 26677 net.cpp:131] Top shape: 100 5 24 24 (288000)
I0428 19:49:08.133060 26677 net.cpp:139] Memory required for data: 1466800
I0428 19:49:08.133074 26677 layer_factory.hpp:77] Creating layer pool0
I0428 19:49:08.133080 26677 net.cpp:86] Creating Layer pool0
I0428 19:49:08.133085 26677 net.cpp:408] pool0 <- conv0
I0428 19:49:08.133088 26677 net.cpp:382] pool0 -> pool0
I0428 19:49:08.133123 26677 net.cpp:124] Setting up pool0
I0428 19:49:08.133128 26677 net.cpp:131] Top shape: 100 5 12 12 (72000)
I0428 19:49:08.133131 26677 net.cpp:139] Memory required for data: 1754800
I0428 19:49:08.133134 26677 layer_factory.hpp:77] Creating layer conv1
I0428 19:49:08.133144 26677 net.cpp:86] Creating Layer conv1
I0428 19:49:08.133147 26677 net.cpp:408] conv1 <- pool0
I0428 19:49:08.133153 26677 net.cpp:382] conv1 -> conv1
I0428 19:49:08.135383 26677 net.cpp:124] Setting up conv1
I0428 19:49:08.135396 26677 net.cpp:131] Top shape: 100 5 8 8 (32000)
I0428 19:49:08.135418 26677 net.cpp:139] Memory required for data: 1882800
I0428 19:49:08.135442 26677 layer_factory.hpp:77] Creating layer pool1
I0428 19:49:08.135448 26677 net.cpp:86] Creating Layer pool1
I0428 19:49:08.135452 26677 net.cpp:408] pool1 <- conv1
I0428 19:49:08.135457 26677 net.cpp:382] pool1 -> pool1
I0428 19:49:08.135527 26677 net.cpp:124] Setting up pool1
I0428 19:49:08.135542 26677 net.cpp:131] Top shape: 100 5 4 4 (8000)
I0428 19:49:08.135545 26677 net.cpp:139] Memory required for data: 1914800
I0428 19:49:08.135548 26677 layer_factory.hpp:77] Creating layer ip1
I0428 19:49:08.135553 26677 net.cpp:86] Creating Layer ip1
I0428 19:49:08.135557 26677 net.cpp:408] ip1 <- pool1
I0428 19:49:08.135562 26677 net.cpp:382] ip1 -> ip1
I0428 19:49:08.135712 26677 net.cpp:124] Setting up ip1
I0428 19:49:08.135721 26677 net.cpp:131] Top shape: 100 10 (1000)
I0428 19:49:08.135735 26677 net.cpp:139] Memory required for data: 1918800
I0428 19:49:08.135743 26677 layer_factory.hpp:77] Creating layer relu1
I0428 19:49:08.135751 26677 net.cpp:86] Creating Layer relu1
I0428 19:49:08.135754 26677 net.cpp:408] relu1 <- ip1
I0428 19:49:08.135758 26677 net.cpp:369] relu1 -> ip1 (in-place)
I0428 19:49:08.135964 26677 net.cpp:124] Setting up relu1
I0428 19:49:08.135972 26677 net.cpp:131] Top shape: 100 10 (1000)
I0428 19:49:08.135977 26677 net.cpp:139] Memory required for data: 1922800
I0428 19:49:08.135979 26677 layer_factory.hpp:77] Creating layer ip2
I0428 19:49:08.135993 26677 net.cpp:86] Creating Layer ip2
I0428 19:49:08.135998 26677 net.cpp:408] ip2 <- ip1
I0428 19:49:08.136003 26677 net.cpp:382] ip2 -> ip2
I0428 19:49:08.136117 26677 net.cpp:124] Setting up ip2
I0428 19:49:08.136124 26677 net.cpp:131] Top shape: 100 50 (5000)
I0428 19:49:08.136127 26677 net.cpp:139] Memory required for data: 1942800
I0428 19:49:08.136132 26677 layer_factory.hpp:77] Creating layer relu2
I0428 19:49:08.136137 26677 net.cpp:86] Creating Layer relu2
I0428 19:49:08.136140 26677 net.cpp:408] relu2 <- ip2
I0428 19:49:08.136144 26677 net.cpp:369] relu2 -> ip2 (in-place)
I0428 19:49:08.136304 26677 net.cpp:124] Setting up relu2
I0428 19:49:08.136312 26677 net.cpp:131] Top shape: 100 50 (5000)
I0428 19:49:08.136315 26677 net.cpp:139] Memory required for data: 1962800
I0428 19:49:08.136318 26677 layer_factory.hpp:77] Creating layer ip3
I0428 19:49:08.136324 26677 net.cpp:86] Creating Layer ip3
I0428 19:49:08.136327 26677 net.cpp:408] ip3 <- ip2
I0428 19:49:08.136332 26677 net.cpp:382] ip3 -> ip3
I0428 19:49:08.136436 26677 net.cpp:124] Setting up ip3
I0428 19:49:08.136443 26677 net.cpp:131] Top shape: 100 10 (1000)
I0428 19:49:08.136446 26677 net.cpp:139] Memory required for data: 1966800
I0428 19:49:08.136453 26677 layer_factory.hpp:77] Creating layer relu3
I0428 19:49:08.136457 26677 net.cpp:86] Creating Layer relu3
I0428 19:49:08.136461 26677 net.cpp:408] relu3 <- ip3
I0428 19:49:08.136464 26677 net.cpp:369] relu3 -> ip3 (in-place)
I0428 19:49:08.137439 26677 net.cpp:124] Setting up relu3
I0428 19:49:08.137450 26677 net.cpp:131] Top shape: 100 10 (1000)
I0428 19:49:08.137470 26677 net.cpp:139] Memory required for data: 1970800
I0428 19:49:08.137473 26677 layer_factory.hpp:77] Creating layer ip3_relu3_0_split
I0428 19:49:08.137478 26677 net.cpp:86] Creating Layer ip3_relu3_0_split
I0428 19:49:08.137482 26677 net.cpp:408] ip3_relu3_0_split <- ip3
I0428 19:49:08.137490 26677 net.cpp:382] ip3_relu3_0_split -> ip3_relu3_0_split_0
I0428 19:49:08.137495 26677 net.cpp:382] ip3_relu3_0_split -> ip3_relu3_0_split_1
I0428 19:49:08.137533 26677 net.cpp:124] Setting up ip3_relu3_0_split
I0428 19:49:08.137537 26677 net.cpp:131] Top shape: 100 10 (1000)
I0428 19:49:08.137542 26677 net.cpp:131] Top shape: 100 10 (1000)
I0428 19:49:08.137544 26677 net.cpp:139] Memory required for data: 1978800
I0428 19:49:08.137552 26677 layer_factory.hpp:77] Creating layer accuracy
I0428 19:49:08.137557 26677 net.cpp:86] Creating Layer accuracy
I0428 19:49:08.137562 26677 net.cpp:408] accuracy <- ip3_relu3_0_split_0
I0428 19:49:08.137565 26677 net.cpp:408] accuracy <- label_mnist_1_split_0
I0428 19:49:08.137570 26677 net.cpp:382] accuracy -> accuracy
…
