…
I0428 19:52:01.544682 27417 net.cpp:296] The NetState phase (0) differed from the phase (1) specified by a rule in layer mnist
I0428 19:52:01.544699 27417 net.cpp:296] The NetState phase (0) differed from the phase (1) specified by a rule in layer accuracy
I0428 19:52:01.544797 27417 net.cpp:53] Initializing net from parameters: 
name: "LeNet"
state {
  phase: TRAIN
  level: 0
  stage: ""
}
layer {
  name: "mnist"
  type: "Data"
  top: "data"
  top: "label"
  include {
    phase: TRAIN
  }
  transform_param {
    scale: 0.00390625
  }
  data_param {
    source: "examples/mnist/mnist_train_lmdb"
    batch_size: 64
    backend: LMDB
  }
}
layer {
  name: "conv0"
  type: "Convolution"
  bottom: "data"
  top: "conv0"
  param {
    lr_mult: 1
  }
  param {
    lr_mult: 2
  }
  convolution_param {
    num_output: 5
    kernel_size: 5
    stride: 1
    weight_filler {
      type: "xavier"
    }
    bias_filler {
      type: "constant"
    }
  }
}
layer {
  name: "pool0"
  type: "Pooling"
  bottom: "conv0"
  top: "pool0"
  pooling_param {
    pool: MAX
    kernel_size: 2
    stride: 2
  }
}
layer {
  name: "conv1"
  type: "Convolution"
  bottom: "pool0"
  top: "conv1"
  param {
    lr_mult: 1
  }
  param {
    lr_mult: 2
  }
  convolution_param {
    num_output: 25
    kernel_size: 5
    stride: 1
    weight_filler {
      type: "xavier"
    }
    bias_filler {
      type: "constant"
    }
  }
}
layer {
  name: "pool1"
  type: "Pooling"
  bottom: "conv1"
  top: "pool1"
  pooling_param {
    pool: MAX
    kernel_size: 2
    stride: 2
  }
}
layer {
  name: "ip1"
  type: "InnerProduct"
  bottom: "pool1"
  top: "ip1"
  param {
    lr_mult: 1
  }
  param {
    lr_mult: 2
  }
  inner_product_param {
    num_output: 25
    weight_filler {
      type: "xavier"
    }
    bias_filler {
      type: "constant"
    }
  }
}
layer {
  name: "relu1"
  type: "ReLU"
  bottom: "ip1"
  top: "ip1"
}
layer {
  name: "ip2"
  type: "InnerProduct"
  bottom: "ip1"
  top: "ip2"
  param {
    lr_mult: 1
  }
  param {
    lr_mult: 2
  }
  inner_product_param {
    num_output: 25
    weight_filler {
      type: "xavier"
    }
    bias_filler {
      type: "constant"
    }
  }
}
layer {
  name: "relu2"
  type: "ReLU"
  bottom: "ip2"
  top: "ip2"
}
layer {
  name: "ip3"
  type: "InnerProduct"
  bottom: "ip2"
  top: "ip3"
  param {
    lr_mult: 1
  }
  param {
    lr_mult: 2
  }
  inner_product_param {
    num_output: 10
    weight_filler {
      type: "xavier"
    }
    bias_filler {
      type: "constant"
    }
  }
}
layer {
  name: "relu3"
  type: "ReLU"
  bottom: "ip3"
  top: "ip3"
}
layer {
  name: "loss"
  type: "SoftmaxWithLoss"
  bottom: "ip3"
  bottom: "label"
  top: "loss"
}
I0428 19:52:01.544876 27417 layer_factory.hpp:77] Creating layer mnist
I0428 19:52:01.544973 27417 db_lmdb.cpp:35] Opened lmdb examples/mnist/mnist_train_lmdb
I0428 19:52:01.544996 27417 net.cpp:86] Creating Layer mnist
I0428 19:52:01.545003 27417 net.cpp:382] mnist -> data
I0428 19:52:01.545025 27417 net.cpp:382] mnist -> label
I0428 19:52:01.546103 27417 data_layer.cpp:45] output data size: 64,1,28,28
I0428 19:52:01.548552 27417 net.cpp:124] Setting up mnist
I0428 19:52:01.548570 27417 net.cpp:131] Top shape: 64 1 28 28 (50176)
I0428 19:52:01.548578 27417 net.cpp:131] Top shape: 64 (64)
I0428 19:52:01.548580 27417 net.cpp:139] Memory required for data: 200960
I0428 19:52:01.548588 27417 layer_factory.hpp:77] Creating layer conv0
I0428 19:52:01.548604 27417 net.cpp:86] Creating Layer conv0
I0428 19:52:01.548624 27417 net.cpp:408] conv0 <- data
I0428 19:52:01.548636 27417 net.cpp:382] conv0 -> conv0
I0428 19:52:01.842329 27417 net.cpp:124] Setting up conv0
I0428 19:52:01.842360 27417 net.cpp:131] Top shape: 64 5 24 24 (184320)
I0428 19:52:01.842365 27417 net.cpp:139] Memory required for data: 938240
I0428 19:52:01.842382 27417 layer_factory.hpp:77] Creating layer pool0
I0428 19:52:01.842396 27417 net.cpp:86] Creating Layer pool0
I0428 19:52:01.842401 27417 net.cpp:408] pool0 <- conv0
I0428 19:52:01.842407 27417 net.cpp:382] pool0 -> pool0
I0428 19:52:01.842463 27417 net.cpp:124] Setting up pool0
I0428 19:52:01.842468 27417 net.cpp:131] Top shape: 64 5 12 12 (46080)
I0428 19:52:01.842473 27417 net.cpp:139] Memory required for data: 1122560
I0428 19:52:01.842476 27417 layer_factory.hpp:77] Creating layer conv1
I0428 19:52:01.842489 27417 net.cpp:86] Creating Layer conv1
I0428 19:52:01.842492 27417 net.cpp:408] conv1 <- pool0
I0428 19:52:01.842499 27417 net.cpp:382] conv1 -> conv1
I0428 19:52:01.845667 27417 net.cpp:124] Setting up conv1
I0428 19:52:01.845685 27417 net.cpp:131] Top shape: 64 25 8 8 (102400)
I0428 19:52:01.845690 27417 net.cpp:139] Memory required for data: 1532160
I0428 19:52:01.845700 27417 layer_factory.hpp:77] Creating layer pool1
I0428 19:52:01.845710 27417 net.cpp:86] Creating Layer pool1
I0428 19:52:01.845715 27417 net.cpp:408] pool1 <- conv1
I0428 19:52:01.845721 27417 net.cpp:382] pool1 -> pool1
I0428 19:52:01.845767 27417 net.cpp:124] Setting up pool1
I0428 19:52:01.845777 27417 net.cpp:131] Top shape: 64 25 4 4 (25600)
I0428 19:52:01.845782 27417 net.cpp:139] Memory required for data: 1634560
I0428 19:52:01.845784 27417 layer_factory.hpp:77] Creating layer ip1
I0428 19:52:01.845793 27417 net.cpp:86] Creating Layer ip1
I0428 19:52:01.845796 27417 net.cpp:408] ip1 <- pool1
I0428 19:52:01.845803 27417 net.cpp:382] ip1 -> ip1
I0428 19:52:01.846951 27417 net.cpp:124] Setting up ip1
I0428 19:52:01.846966 27417 net.cpp:131] Top shape: 64 25 (1600)
I0428 19:52:01.846969 27417 net.cpp:139] Memory required for data: 1640960
I0428 19:52:01.846978 27417 layer_factory.hpp:77] Creating layer relu1
I0428 19:52:01.846987 27417 net.cpp:86] Creating Layer relu1
I0428 19:52:01.846990 27417 net.cpp:408] relu1 <- ip1
I0428 19:52:01.846997 27417 net.cpp:369] relu1 -> ip1 (in-place)
I0428 19:52:01.847211 27417 net.cpp:124] Setting up relu1
I0428 19:52:01.847223 27417 net.cpp:131] Top shape: 64 25 (1600)
I0428 19:52:01.847228 27417 net.cpp:139] Memory required for data: 1647360
I0428 19:52:01.847230 27417 layer_factory.hpp:77] Creating layer ip2
I0428 19:52:01.847239 27417 net.cpp:86] Creating Layer ip2
I0428 19:52:01.847242 27417 net.cpp:408] ip2 <- ip1
I0428 19:52:01.847249 27417 net.cpp:382] ip2 -> ip2
I0428 19:52:01.847373 27417 net.cpp:124] Setting up ip2
I0428 19:52:01.847380 27417 net.cpp:131] Top shape: 64 25 (1600)
I0428 19:52:01.847384 27417 net.cpp:139] Memory required for data: 1653760
I0428 19:52:01.847391 27417 layer_factory.hpp:77] Creating layer relu2
I0428 19:52:01.847398 27417 net.cpp:86] Creating Layer relu2
I0428 19:52:01.847403 27417 net.cpp:408] relu2 <- ip2
I0428 19:52:01.847409 27417 net.cpp:369] relu2 -> ip2 (in-place)
I0428 19:52:01.848268 27417 net.cpp:124] Setting up relu2
I0428 19:52:01.848282 27417 net.cpp:131] Top shape: 64 25 (1600)
I0428 19:52:01.848286 27417 net.cpp:139] Memory required for data: 1660160
I0428 19:52:01.848291 27417 layer_factory.hpp:77] Creating layer ip3
I0428 19:52:01.848301 27417 net.cpp:86] Creating Layer ip3
I0428 19:52:01.848305 27417 net.cpp:408] ip3 <- ip2
I0428 19:52:01.848312 27417 net.cpp:382] ip3 -> ip3
I0428 19:52:01.848436 27417 net.cpp:124] Setting up ip3
I0428 19:52:01.848446 27417 net.cpp:131] Top shape: 64 10 (640)
I0428 19:52:01.848449 27417 net.cpp:139] Memory required for data: 1662720
I0428 19:52:01.848459 27417 layer_factory.hpp:77] Creating layer relu3
I0428 19:52:01.848465 27417 net.cpp:86] Creating Layer relu3
I0428 19:52:01.848469 27417 net.cpp:408] relu3 <- ip3
I0428 19:52:01.848474 27417 net.cpp:369] relu3 -> ip3 (in-place)
I0428 19:52:01.848688 27417 net.cpp:124] Setting up relu3
I0428 19:52:01.848698 27417 net.cpp:131] Top shape: 64 10 (640)
I0428 19:52:01.848702 27417 net.cpp:139] Memory required for data: 1665280
I0428 19:52:01.848706 27417 layer_factory.hpp:77] Creating layer loss
I0428 19:52:01.848714 27417 net.cpp:86] Creating Layer loss
I0428 19:52:01.848718 27417 net.cpp:408] loss <- ip3
I0428 19:52:01.848723 27417 net.cpp:408] loss <- label
I0428 19:52:01.848729 27417 net.cpp:382] loss -> loss
I0428 19:52:01.848749 27417 layer_factory.hpp:77] Creating layer loss
…
I0428 19:52:01.849522 27417 solver.cpp:173] Creating test net (#0) specified by net file: ECE595/mnist/train_test/var_everything2/lenet_train_test650.prototxt
I0428 19:52:01.849555 27417 net.cpp:296] The NetState phase (1) differed from the phase (0) specified by a rule in layer mnist
I0428 19:52:01.849668 27417 net.cpp:53] Initializing net from parameters: 
name: "LeNet"
state {
  phase: TEST
}
layer {
  name: "mnist"
  type: "Data"
  top: "data"
  top: "label"
  include {
    phase: TEST
  }
  transform_param {
    scale: 0.00390625
  }
  data_param {
    source: "examples/mnist/mnist_test_lmdb"
    batch_size: 100
    backend: LMDB
  }
}
layer {
  name: "conv0"
  type: "Convolution"
  bottom: "data"
  top: "conv0"
  param {
    lr_mult: 1
  }
  param {
    lr_mult: 2
  }
  convolution_param {
    num_output: 5
    kernel_size: 5
    stride: 1
    weight_filler {
      type: "xavier"
    }
    bias_filler {
      type: "constant"
    }
  }
}
layer {
  name: "pool0"
  type: "Pooling"
  bottom: "conv0"
  top: "pool0"
  pooling_param {
    pool: MAX
    kernel_size: 2
    stride: 2
  }
}
layer {
  name: "conv1"
  type: "Convolution"
  bottom: "pool0"
  top: "conv1"
  param {
    lr_mult: 1
  }
  param {
    lr_mult: 2
  }
  convolution_param {
    num_output: 25
    kernel_size: 5
    stride: 1
    weight_filler {
      type: "xavier"
    }
    bias_filler {
      type: "constant"
    }
  }
}
layer {
  name: "pool1"
  type: "Pooling"
  bottom: "conv1"
  top: "pool1"
  pooling_param {
    pool: MAX
    kernel_size: 2
    stride: 2
  }
}
layer {
  name: "ip1"
  type: "InnerProduct"
  bottom: "pool1"
  top: "ip1"
  param {
    lr_mult: 1
  }
  param {
    lr_mult: 2
  }
  inner_product_param {
    num_output: 25
    weight_filler {
      type: "xavier"
    }
    bias_filler {
      type: "constant"
    }
  }
}
layer {
  name: "relu1"
  type: "ReLU"
  bottom: "ip1"
  top: "ip1"
}
layer {
  name: "ip2"
  type: "InnerProduct"
  bottom: "ip1"
  top: "ip2"
  param {
    lr_mult: 1
  }
  param {
    lr_mult: 2
  }
  inner_product_param {
    num_output: 25
    weight_filler {
      type: "xavier"
    }
    bias_filler {
      type: "constant"
    }
  }
}
layer {
  name: "relu2"
  type: "ReLU"
  bottom: "ip2"
  top: "ip2"
}
layer {
  name: "ip3"
  type: "InnerProduct"
  bottom: "ip2"
  top: "ip3"
  param {
    lr_mult: 1
  }
  param {
    lr_mult: 2
  }
  inner_product_param {
    num_output: 10
    weight_filler {
      type: "xavier"
    }
    bias_filler {
      type: "constant"
    }
  }
}
layer {
  name: "relu3"
  type: "ReLU"
  bottom: "ip3"
  top: "ip3"
}
layer {
  name: "accuracy"
  type: "Accuracy"
  bottom: "ip3"
  bottom: "label"
  top: "accuracy"
  include {
    phase: TEST
  }
}
layer {
  name: "loss"
  type: "SoftmaxWithLoss"
  bottom: "ip3"
  bottom: "label"
  top: "loss"
}
I0428 19:52:01.849767 27417 layer_factory.hpp:77] Creating layer mnist
I0428 19:52:01.849818 27417 db_lmdb.cpp:35] Opened lmdb examples/mnist/mnist_test_lmdb
I0428 19:52:01.849833 27417 net.cpp:86] Creating Layer mnist
I0428 19:52:01.849840 27417 net.cpp:382] mnist -> data
I0428 19:52:01.849849 27417 net.cpp:382] mnist -> label
I0428 19:52:01.849951 27417 data_layer.cpp:45] output data size: 100,1,28,28
I0428 19:52:01.852157 27417 net.cpp:124] Setting up mnist
I0428 19:52:01.852174 27417 net.cpp:131] Top shape: 100 1 28 28 (78400)
I0428 19:52:01.852180 27417 net.cpp:131] Top shape: 100 (100)
I0428 19:52:01.852183 27417 net.cpp:139] Memory required for data: 314000
I0428 19:52:01.852187 27417 layer_factory.hpp:77] Creating layer label_mnist_1_split
I0428 19:52:01.852205 27417 net.cpp:86] Creating Layer label_mnist_1_split
I0428 19:52:01.852211 27417 net.cpp:408] label_mnist_1_split <- label
I0428 19:52:01.852219 27417 net.cpp:382] label_mnist_1_split -> label_mnist_1_split_0
I0428 19:52:01.852227 27417 net.cpp:382] label_mnist_1_split -> label_mnist_1_split_1
I0428 19:52:01.852334 27417 net.cpp:124] Setting up label_mnist_1_split
I0428 19:52:01.852342 27417 net.cpp:131] Top shape: 100 (100)
I0428 19:52:01.852347 27417 net.cpp:131] Top shape: 100 (100)
I0428 19:52:01.852350 27417 net.cpp:139] Memory required for data: 314800
I0428 19:52:01.852355 27417 layer_factory.hpp:77] Creating layer conv0
I0428 19:52:01.852367 27417 net.cpp:86] Creating Layer conv0
I0428 19:52:01.852371 27417 net.cpp:408] conv0 <- data
I0428 19:52:01.852377 27417 net.cpp:382] conv0 -> conv0
I0428 19:52:01.854107 27417 net.cpp:124] Setting up conv0
I0428 19:52:01.854125 27417 net.cpp:131] Top shape: 100 5 24 24 (288000)
I0428 19:52:01.854130 27417 net.cpp:139] Memory required for data: 1466800
I0428 19:52:01.854140 27417 layer_factory.hpp:77] Creating layer pool0
I0428 19:52:01.854148 27417 net.cpp:86] Creating Layer pool0
I0428 19:52:01.854154 27417 net.cpp:408] pool0 <- conv0
I0428 19:52:01.854159 27417 net.cpp:382] pool0 -> pool0
I0428 19:52:01.854204 27417 net.cpp:124] Setting up pool0
I0428 19:52:01.854212 27417 net.cpp:131] Top shape: 100 5 12 12 (72000)
I0428 19:52:01.854216 27417 net.cpp:139] Memory required for data: 1754800
I0428 19:52:01.854220 27417 layer_factory.hpp:77] Creating layer conv1
I0428 19:52:01.854243 27417 net.cpp:86] Creating Layer conv1
I0428 19:52:01.854250 27417 net.cpp:408] conv1 <- pool0
I0428 19:52:01.854257 27417 net.cpp:382] conv1 -> conv1
I0428 19:52:01.856748 27417 net.cpp:124] Setting up conv1
I0428 19:52:01.856766 27417 net.cpp:131] Top shape: 100 25 8 8 (160000)
I0428 19:52:01.856771 27417 net.cpp:139] Memory required for data: 2394800
I0428 19:52:01.856782 27417 layer_factory.hpp:77] Creating layer pool1
I0428 19:52:01.856791 27417 net.cpp:86] Creating Layer pool1
I0428 19:52:01.856794 27417 net.cpp:408] pool1 <- conv1
I0428 19:52:01.856801 27417 net.cpp:382] pool1 -> pool1
I0428 19:52:01.856871 27417 net.cpp:124] Setting up pool1
I0428 19:52:01.856883 27417 net.cpp:131] Top shape: 100 25 4 4 (40000)
I0428 19:52:01.856886 27417 net.cpp:139] Memory required for data: 2554800
I0428 19:52:01.856890 27417 layer_factory.hpp:77] Creating layer ip1
I0428 19:52:01.856899 27417 net.cpp:86] Creating Layer ip1
I0428 19:52:01.856904 27417 net.cpp:408] ip1 <- pool1
I0428 19:52:01.856909 27417 net.cpp:382] ip1 -> ip1
I0428 19:52:01.857167 27417 net.cpp:124] Setting up ip1
I0428 19:52:01.857177 27417 net.cpp:131] Top shape: 100 25 (2500)
I0428 19:52:01.857197 27417 net.cpp:139] Memory required for data: 2564800
I0428 19:52:01.857206 27417 layer_factory.hpp:77] Creating layer relu1
I0428 19:52:01.857213 27417 net.cpp:86] Creating Layer relu1
I0428 19:52:01.857218 27417 net.cpp:408] relu1 <- ip1
I0428 19:52:01.857223 27417 net.cpp:369] relu1 -> ip1 (in-place)
I0428 19:52:01.857435 27417 net.cpp:124] Setting up relu1
I0428 19:52:01.857453 27417 net.cpp:131] Top shape: 100 25 (2500)
I0428 19:52:01.857458 27417 net.cpp:139] Memory required for data: 2574800
I0428 19:52:01.857462 27417 layer_factory.hpp:77] Creating layer ip2
I0428 19:52:01.857470 27417 net.cpp:86] Creating Layer ip2
I0428 19:52:01.857475 27417 net.cpp:408] ip2 <- ip1
I0428 19:52:01.857482 27417 net.cpp:382] ip2 -> ip2
I0428 19:52:01.857609 27417 net.cpp:124] Setting up ip2
I0428 19:52:01.857619 27417 net.cpp:131] Top shape: 100 25 (2500)
I0428 19:52:01.857622 27417 net.cpp:139] Memory required for data: 2584800
I0428 19:52:01.857630 27417 layer_factory.hpp:77] Creating layer relu2
I0428 19:52:01.857636 27417 net.cpp:86] Creating Layer relu2
I0428 19:52:01.857640 27417 net.cpp:408] relu2 <- ip2
I0428 19:52:01.857645 27417 net.cpp:369] relu2 -> ip2 (in-place)
I0428 19:52:01.857833 27417 net.cpp:124] Setting up relu2
I0428 19:52:01.857843 27417 net.cpp:131] Top shape: 100 25 (2500)
I0428 19:52:01.857848 27417 net.cpp:139] Memory required for data: 2594800
I0428 19:52:01.857851 27417 layer_factory.hpp:77] Creating layer ip3
I0428 19:52:01.857859 27417 net.cpp:86] Creating Layer ip3
I0428 19:52:01.857863 27417 net.cpp:408] ip3 <- ip2
I0428 19:52:01.857870 27417 net.cpp:382] ip3 -> ip3
I0428 19:52:01.858006 27417 net.cpp:124] Setting up ip3
I0428 19:52:01.858013 27417 net.cpp:131] Top shape: 100 10 (1000)
I0428 19:52:01.858017 27417 net.cpp:139] Memory required for data: 2598800
I0428 19:52:01.858026 27417 layer_factory.hpp:77] Creating layer relu3
I0428 19:52:01.858031 27417 net.cpp:86] Creating Layer relu3
I0428 19:52:01.858036 27417 net.cpp:408] relu3 <- ip3
I0428 19:52:01.858042 27417 net.cpp:369] relu3 -> ip3 (in-place)
I0428 19:52:01.858999 27417 net.cpp:124] Setting up relu3
I0428 19:52:01.859014 27417 net.cpp:131] Top shape: 100 10 (1000)
I0428 19:52:01.859017 27417 net.cpp:139] Memory required for data: 2602800
I0428 19:52:01.859021 27417 layer_factory.hpp:77] Creating layer ip3_relu3_0_split
I0428 19:52:01.859027 27417 net.cpp:86] Creating Layer ip3_relu3_0_split
I0428 19:52:01.859031 27417 net.cpp:408] ip3_relu3_0_split <- ip3
I0428 19:52:01.859041 27417 net.cpp:382] ip3_relu3_0_split -> ip3_relu3_0_split_0
I0428 19:52:01.859048 27417 net.cpp:382] ip3_relu3_0_split -> ip3_relu3_0_split_1
I0428 19:52:01.859096 27417 net.cpp:124] Setting up ip3_relu3_0_split
I0428 19:52:01.859104 27417 net.cpp:131] Top shape: 100 10 (1000)
I0428 19:52:01.859108 27417 net.cpp:131] Top shape: 100 10 (1000)
I0428 19:52:01.859112 27417 net.cpp:139] Memory required for data: 2610800
I0428 19:52:01.859115 27417 layer_factory.hpp:77] Creating layer accuracy
I0428 19:52:01.859122 27417 net.cpp:86] Creating Layer accuracy
I0428 19:52:01.859127 27417 net.cpp:408] accuracy <- ip3_relu3_0_split_0
I0428 19:52:01.859132 27417 net.cpp:408] accuracy <- label_mnist_1_split_0
I0428 19:52:01.859138 27417 net.cpp:382] accuracy -> accuracy
…
