…
I0428 20:14:46.911854 32747 net.cpp:296] The NetState phase (0) differed from the phase (1) specified by a rule in layer mnist
I0428 20:14:46.911872 32747 net.cpp:296] The NetState phase (0) differed from the phase (1) specified by a rule in layer accuracy
I0428 20:14:46.911969 32747 net.cpp:53] Initializing net from parameters: 
name: "LeNet"
state {
  phase: TRAIN
  level: 0
  stage: ""
}
layer {
  name: "mnist"
  type: "Data"
  top: "data"
  top: "label"
  include {
    phase: TRAIN
  }
  transform_param {
    scale: 0.00390625
  }
  data_param {
    source: "examples/mnist/mnist_train_lmdb"
    batch_size: 64
    backend: LMDB
  }
}
layer {
  name: "conv0"
  type: "Convolution"
  bottom: "data"
  top: "conv0"
  param {
    lr_mult: 1
  }
  param {
    lr_mult: 2
  }
  convolution_param {
    num_output: 50
    kernel_size: 5
    stride: 1
    weight_filler {
      type: "xavier"
    }
    bias_filler {
      type: "constant"
    }
  }
}
layer {
  name: "pool0"
  type: "Pooling"
  bottom: "conv0"
  top: "pool0"
  pooling_param {
    pool: MAX
    kernel_size: 2
    stride: 2
  }
}
layer {
  name: "conv1"
  type: "Convolution"
  bottom: "pool0"
  top: "conv1"
  param {
    lr_mult: 1
  }
  param {
    lr_mult: 2
  }
  convolution_param {
    num_output: 2
    kernel_size: 5
    stride: 1
    weight_filler {
      type: "xavier"
    }
    bias_filler {
      type: "constant"
    }
  }
}
layer {
  name: "pool1"
  type: "Pooling"
  bottom: "conv1"
  top: "pool1"
  pooling_param {
    pool: MAX
    kernel_size: 2
    stride: 2
  }
}
layer {
  name: "ip1"
  type: "InnerProduct"
  bottom: "pool1"
  top: "ip1"
  param {
    lr_mult: 1
  }
  param {
    lr_mult: 2
  }
  inner_product_param {
    num_output: 25
    weight_filler {
      type: "xavier"
    }
    bias_filler {
      type: "constant"
    }
  }
}
layer {
  name: "relu1"
  type: "ReLU"
  bottom: "ip1"
  top: "ip1"
}
layer {
  name: "ip2"
  type: "InnerProduct"
  bottom: "ip1"
  top: "ip2"
  param {
    lr_mult: 1
  }
  param {
    lr_mult: 2
  }
  inner_product_param {
    num_output: 10
    weight_filler {
      type: "xavier"
    }
    bias_filler {
      type: "constant"
    }
  }
}
layer {
  name: "relu2"
  type: "ReLU"
  bottom: "ip2"
  top: "ip2"
}
layer {
  name: "ip3"
  type: "InnerProduct"
  bottom: "ip2"
  top: "ip3"
  param {
    lr_mult: 1
  }
  param {
    lr_mult: 2
  }
  inner_product_param {
    num_output: 10
    weight_filler {
      type: "xavier"
    }
    bias_filler {
      type: "constant"
    }
  }
}
layer {
  name: "relu3"
  type: "ReLU"
  bottom: "ip3"
  top: "ip3"
}
layer {
  name: "loss"
  type: "SoftmaxWithLoss"
  bottom: "ip3"
  bottom: "label"
  top: "loss"
}
I0428 20:14:46.912044 32747 layer_factory.hpp:77] Creating layer mnist
I0428 20:14:46.912143 32747 db_lmdb.cpp:35] Opened lmdb examples/mnist/mnist_train_lmdb
I0428 20:14:46.912166 32747 net.cpp:86] Creating Layer mnist
I0428 20:14:46.912174 32747 net.cpp:382] mnist -> data
I0428 20:14:46.912196 32747 net.cpp:382] mnist -> label
I0428 20:14:46.913298 32747 data_layer.cpp:45] output data size: 64,1,28,28
I0428 20:14:46.915771 32747 net.cpp:124] Setting up mnist
I0428 20:14:46.915787 32747 net.cpp:131] Top shape: 64 1 28 28 (50176)
I0428 20:14:46.915793 32747 net.cpp:131] Top shape: 64 (64)
I0428 20:14:46.915797 32747 net.cpp:139] Memory required for data: 200960
I0428 20:14:46.915804 32747 layer_factory.hpp:77] Creating layer conv0
I0428 20:14:46.915820 32747 net.cpp:86] Creating Layer conv0
I0428 20:14:46.915840 32747 net.cpp:408] conv0 <- data
I0428 20:14:46.915853 32747 net.cpp:382] conv0 -> conv0
I0428 20:14:47.193922 32747 net.cpp:124] Setting up conv0
I0428 20:14:47.193964 32747 net.cpp:131] Top shape: 64 50 24 24 (1843200)
I0428 20:14:47.193969 32747 net.cpp:139] Memory required for data: 7573760
I0428 20:14:47.193982 32747 layer_factory.hpp:77] Creating layer pool0
I0428 20:14:47.193995 32747 net.cpp:86] Creating Layer pool0
I0428 20:14:47.194000 32747 net.cpp:408] pool0 <- conv0
I0428 20:14:47.194005 32747 net.cpp:382] pool0 -> pool0
I0428 20:14:47.194049 32747 net.cpp:124] Setting up pool0
I0428 20:14:47.194056 32747 net.cpp:131] Top shape: 64 50 12 12 (460800)
I0428 20:14:47.194057 32747 net.cpp:139] Memory required for data: 9416960
I0428 20:14:47.194061 32747 layer_factory.hpp:77] Creating layer conv1
I0428 20:14:47.194070 32747 net.cpp:86] Creating Layer conv1
I0428 20:14:47.194073 32747 net.cpp:408] conv1 <- pool0
I0428 20:14:47.194078 32747 net.cpp:382] conv1 -> conv1
I0428 20:14:47.195857 32747 net.cpp:124] Setting up conv1
I0428 20:14:47.195870 32747 net.cpp:131] Top shape: 64 2 8 8 (8192)
I0428 20:14:47.195873 32747 net.cpp:139] Memory required for data: 9449728
I0428 20:14:47.195883 32747 layer_factory.hpp:77] Creating layer pool1
I0428 20:14:47.195904 32747 net.cpp:86] Creating Layer pool1
I0428 20:14:47.195909 32747 net.cpp:408] pool1 <- conv1
I0428 20:14:47.195912 32747 net.cpp:382] pool1 -> pool1
I0428 20:14:47.195964 32747 net.cpp:124] Setting up pool1
I0428 20:14:47.195969 32747 net.cpp:131] Top shape: 64 2 4 4 (2048)
I0428 20:14:47.195972 32747 net.cpp:139] Memory required for data: 9457920
I0428 20:14:47.195976 32747 layer_factory.hpp:77] Creating layer ip1
I0428 20:14:47.195982 32747 net.cpp:86] Creating Layer ip1
I0428 20:14:47.195986 32747 net.cpp:408] ip1 <- pool1
I0428 20:14:47.195991 32747 net.cpp:382] ip1 -> ip1
I0428 20:14:47.196094 32747 net.cpp:124] Setting up ip1
I0428 20:14:47.196100 32747 net.cpp:131] Top shape: 64 25 (1600)
I0428 20:14:47.196104 32747 net.cpp:139] Memory required for data: 9464320
I0428 20:14:47.196110 32747 layer_factory.hpp:77] Creating layer relu1
I0428 20:14:47.196116 32747 net.cpp:86] Creating Layer relu1
I0428 20:14:47.196120 32747 net.cpp:408] relu1 <- ip1
I0428 20:14:47.196125 32747 net.cpp:369] relu1 -> ip1 (in-place)
I0428 20:14:47.196326 32747 net.cpp:124] Setting up relu1
I0428 20:14:47.196334 32747 net.cpp:131] Top shape: 64 25 (1600)
I0428 20:14:47.196337 32747 net.cpp:139] Memory required for data: 9470720
I0428 20:14:47.196341 32747 layer_factory.hpp:77] Creating layer ip2
I0428 20:14:47.196346 32747 net.cpp:86] Creating Layer ip2
I0428 20:14:47.196348 32747 net.cpp:408] ip2 <- ip1
I0428 20:14:47.196353 32747 net.cpp:382] ip2 -> ip2
I0428 20:14:47.196437 32747 net.cpp:124] Setting up ip2
I0428 20:14:47.196444 32747 net.cpp:131] Top shape: 64 10 (640)
I0428 20:14:47.196446 32747 net.cpp:139] Memory required for data: 9473280
I0428 20:14:47.196451 32747 layer_factory.hpp:77] Creating layer relu2
I0428 20:14:47.196456 32747 net.cpp:86] Creating Layer relu2
I0428 20:14:47.196460 32747 net.cpp:408] relu2 <- ip2
I0428 20:14:47.196463 32747 net.cpp:369] relu2 -> ip2 (in-place)
I0428 20:14:47.197244 32747 net.cpp:124] Setting up relu2
I0428 20:14:47.197257 32747 net.cpp:131] Top shape: 64 10 (640)
I0428 20:14:47.197260 32747 net.cpp:139] Memory required for data: 9475840
I0428 20:14:47.197264 32747 layer_factory.hpp:77] Creating layer ip3
I0428 20:14:47.197270 32747 net.cpp:86] Creating Layer ip3
I0428 20:14:47.197273 32747 net.cpp:408] ip3 <- ip2
I0428 20:14:47.197278 32747 net.cpp:382] ip3 -> ip3
I0428 20:14:47.197366 32747 net.cpp:124] Setting up ip3
I0428 20:14:47.197373 32747 net.cpp:131] Top shape: 64 10 (640)
I0428 20:14:47.197376 32747 net.cpp:139] Memory required for data: 9478400
I0428 20:14:47.197382 32747 layer_factory.hpp:77] Creating layer relu3
I0428 20:14:47.197387 32747 net.cpp:86] Creating Layer relu3
I0428 20:14:47.197391 32747 net.cpp:408] relu3 <- ip3
I0428 20:14:47.197394 32747 net.cpp:369] relu3 -> ip3 (in-place)
I0428 20:14:47.197543 32747 net.cpp:124] Setting up relu3
I0428 20:14:47.197551 32747 net.cpp:131] Top shape: 64 10 (640)
I0428 20:14:47.197554 32747 net.cpp:139] Memory required for data: 9480960
I0428 20:14:47.197557 32747 layer_factory.hpp:77] Creating layer loss
I0428 20:14:47.197562 32747 net.cpp:86] Creating Layer loss
I0428 20:14:47.197566 32747 net.cpp:408] loss <- ip3
I0428 20:14:47.197569 32747 net.cpp:408] loss <- label
I0428 20:14:47.197574 32747 net.cpp:382] loss -> loss
I0428 20:14:47.197587 32747 layer_factory.hpp:77] Creating layer loss
…
I0428 20:14:47.198156 32747 solver.cpp:173] Creating test net (#0) specified by net file: ECE595/mnist/train_test/var_everything2/lenet_train_test1230.prototxt
I0428 20:14:47.198181 32747 net.cpp:296] The NetState phase (1) differed from the phase (0) specified by a rule in layer mnist
I0428 20:14:47.198298 32747 net.cpp:53] Initializing net from parameters: 
name: "LeNet"
state {
  phase: TEST
}
layer {
  name: "mnist"
  type: "Data"
  top: "data"
  top: "label"
  include {
    phase: TEST
  }
  transform_param {
    scale: 0.00390625
  }
  data_param {
    source: "examples/mnist/mnist_test_lmdb"
    batch_size: 100
    backend: LMDB
  }
}
layer {
  name: "conv0"
  type: "Convolution"
  bottom: "data"
  top: "conv0"
  param {
    lr_mult: 1
  }
  param {
    lr_mult: 2
  }
  convolution_param {
    num_output: 50
    kernel_size: 5
    stride: 1
    weight_filler {
      type: "xavier"
    }
    bias_filler {
      type: "constant"
    }
  }
}
layer {
  name: "pool0"
  type: "Pooling"
  bottom: "conv0"
  top: "pool0"
  pooling_param {
    pool: MAX
    kernel_size: 2
    stride: 2
  }
}
layer {
  name: "conv1"
  type: "Convolution"
  bottom: "pool0"
  top: "conv1"
  param {
    lr_mult: 1
  }
  param {
    lr_mult: 2
  }
  convolution_param {
    num_output: 2
    kernel_size: 5
    stride: 1
    weight_filler {
      type: "xavier"
    }
    bias_filler {
      type: "constant"
    }
  }
}
layer {
  name: "pool1"
  type: "Pooling"
  bottom: "conv1"
  top: "pool1"
  pooling_param {
    pool: MAX
    kernel_size: 2
    stride: 2
  }
}
layer {
  name: "ip1"
  type: "InnerProduct"
  bottom: "pool1"
  top: "ip1"
  param {
    lr_mult: 1
  }
  param {
    lr_mult: 2
  }
  inner_product_param {
    num_output: 25
    weight_filler {
      type: "xavier"
    }
    bias_filler {
      type: "constant"
    }
  }
}
layer {
  name: "relu1"
  type: "ReLU"
  bottom: "ip1"
  top: "ip1"
}
layer {
  name: "ip2"
  type: "InnerProduct"
  bottom: "ip1"
  top: "ip2"
  param {
    lr_mult: 1
  }
  param {
    lr_mult: 2
  }
  inner_product_param {
    num_output: 10
    weight_filler {
      type: "xavier"
    }
    bias_filler {
      type: "constant"
    }
  }
}
layer {
  name: "relu2"
  type: "ReLU"
  bottom: "ip2"
  top: "ip2"
}
layer {
  name: "ip3"
  type: "InnerProduct"
  bottom: "ip2"
  top: "ip3"
  param {
    lr_mult: 1
  }
  param {
    lr_mult: 2
  }
  inner_product_param {
    num_output: 10
    weight_filler {
      type: "xavier"
    }
    bias_filler {
      type: "constant"
    }
  }
}
layer {
  name: "relu3"
  type: "ReLU"
  bottom: "ip3"
  top: "ip3"
}
layer {
  name: "accuracy"
  type: "Accuracy"
  bottom: "ip3"
  bottom: "label"
  top: "accuracy"
  include {
    phase: TEST
  }
}
layer {
  name: "loss"
  type: "SoftmaxWithLoss"
  bottom: "ip3"
  bottom: "label"
  top: "loss"
}
I0428 20:14:47.198376 32747 layer_factory.hpp:77] Creating layer mnist
I0428 20:14:47.198420 32747 db_lmdb.cpp:35] Opened lmdb examples/mnist/mnist_test_lmdb
I0428 20:14:47.198431 32747 net.cpp:86] Creating Layer mnist
I0428 20:14:47.198436 32747 net.cpp:382] mnist -> data
I0428 20:14:47.198444 32747 net.cpp:382] mnist -> label
I0428 20:14:47.198526 32747 data_layer.cpp:45] output data size: 100,1,28,28
I0428 20:14:47.200556 32747 net.cpp:124] Setting up mnist
I0428 20:14:47.200598 32747 net.cpp:131] Top shape: 100 1 28 28 (78400)
I0428 20:14:47.200603 32747 net.cpp:131] Top shape: 100 (100)
I0428 20:14:47.200605 32747 net.cpp:139] Memory required for data: 314000
I0428 20:14:47.200609 32747 layer_factory.hpp:77] Creating layer label_mnist_1_split
I0428 20:14:47.200615 32747 net.cpp:86] Creating Layer label_mnist_1_split
I0428 20:14:47.200619 32747 net.cpp:408] label_mnist_1_split <- label
I0428 20:14:47.200623 32747 net.cpp:382] label_mnist_1_split -> label_mnist_1_split_0
I0428 20:14:47.200629 32747 net.cpp:382] label_mnist_1_split -> label_mnist_1_split_1
I0428 20:14:47.200681 32747 net.cpp:124] Setting up label_mnist_1_split
I0428 20:14:47.200686 32747 net.cpp:131] Top shape: 100 (100)
I0428 20:14:47.200690 32747 net.cpp:131] Top shape: 100 (100)
I0428 20:14:47.200692 32747 net.cpp:139] Memory required for data: 314800
I0428 20:14:47.200695 32747 layer_factory.hpp:77] Creating layer conv0
I0428 20:14:47.200703 32747 net.cpp:86] Creating Layer conv0
I0428 20:14:47.200706 32747 net.cpp:408] conv0 <- data
I0428 20:14:47.200711 32747 net.cpp:382] conv0 -> conv0
I0428 20:14:47.202527 32747 net.cpp:124] Setting up conv0
I0428 20:14:47.202541 32747 net.cpp:131] Top shape: 100 50 24 24 (2880000)
I0428 20:14:47.202544 32747 net.cpp:139] Memory required for data: 11834800
I0428 20:14:47.202553 32747 layer_factory.hpp:77] Creating layer pool0
I0428 20:14:47.202559 32747 net.cpp:86] Creating Layer pool0
I0428 20:14:47.202564 32747 net.cpp:408] pool0 <- conv0
I0428 20:14:47.202569 32747 net.cpp:382] pool0 -> pool0
I0428 20:14:47.202601 32747 net.cpp:124] Setting up pool0
I0428 20:14:47.202615 32747 net.cpp:131] Top shape: 100 50 12 12 (720000)
I0428 20:14:47.202617 32747 net.cpp:139] Memory required for data: 14714800
I0428 20:14:47.202620 32747 layer_factory.hpp:77] Creating layer conv1
I0428 20:14:47.202628 32747 net.cpp:86] Creating Layer conv1
I0428 20:14:47.202631 32747 net.cpp:408] conv1 <- pool0
I0428 20:14:47.202636 32747 net.cpp:382] conv1 -> conv1
I0428 20:14:47.204016 32747 net.cpp:124] Setting up conv1
I0428 20:14:47.204031 32747 net.cpp:131] Top shape: 100 2 8 8 (12800)
I0428 20:14:47.204035 32747 net.cpp:139] Memory required for data: 14766000
I0428 20:14:47.204042 32747 layer_factory.hpp:77] Creating layer pool1
I0428 20:14:47.204048 32747 net.cpp:86] Creating Layer pool1
I0428 20:14:47.204052 32747 net.cpp:408] pool1 <- conv1
I0428 20:14:47.204057 32747 net.cpp:382] pool1 -> pool1
I0428 20:14:47.204092 32747 net.cpp:124] Setting up pool1
I0428 20:14:47.204097 32747 net.cpp:131] Top shape: 100 2 4 4 (3200)
I0428 20:14:47.204099 32747 net.cpp:139] Memory required for data: 14778800
I0428 20:14:47.204102 32747 layer_factory.hpp:77] Creating layer ip1
I0428 20:14:47.204108 32747 net.cpp:86] Creating Layer ip1
I0428 20:14:47.204111 32747 net.cpp:408] ip1 <- pool1
I0428 20:14:47.204115 32747 net.cpp:382] ip1 -> ip1
I0428 20:14:47.204205 32747 net.cpp:124] Setting up ip1
I0428 20:14:47.204213 32747 net.cpp:131] Top shape: 100 25 (2500)
I0428 20:14:47.204226 32747 net.cpp:139] Memory required for data: 14788800
I0428 20:14:47.204233 32747 layer_factory.hpp:77] Creating layer relu1
I0428 20:14:47.204239 32747 net.cpp:86] Creating Layer relu1
I0428 20:14:47.204242 32747 net.cpp:408] relu1 <- ip1
I0428 20:14:47.204254 32747 net.cpp:369] relu1 -> ip1 (in-place)
I0428 20:14:47.204413 32747 net.cpp:124] Setting up relu1
I0428 20:14:47.204422 32747 net.cpp:131] Top shape: 100 25 (2500)
I0428 20:14:47.204426 32747 net.cpp:139] Memory required for data: 14798800
I0428 20:14:47.204437 32747 layer_factory.hpp:77] Creating layer ip2
I0428 20:14:47.204442 32747 net.cpp:86] Creating Layer ip2
I0428 20:14:47.204447 32747 net.cpp:408] ip2 <- ip1
I0428 20:14:47.204459 32747 net.cpp:382] ip2 -> ip2
I0428 20:14:47.204555 32747 net.cpp:124] Setting up ip2
I0428 20:14:47.204561 32747 net.cpp:131] Top shape: 100 10 (1000)
I0428 20:14:47.204565 32747 net.cpp:139] Memory required for data: 14802800
I0428 20:14:47.204569 32747 layer_factory.hpp:77] Creating layer relu2
I0428 20:14:47.204574 32747 net.cpp:86] Creating Layer relu2
I0428 20:14:47.204578 32747 net.cpp:408] relu2 <- ip2
I0428 20:14:47.204581 32747 net.cpp:369] relu2 -> ip2 (in-place)
I0428 20:14:47.204740 32747 net.cpp:124] Setting up relu2
I0428 20:14:47.204747 32747 net.cpp:131] Top shape: 100 10 (1000)
I0428 20:14:47.204751 32747 net.cpp:139] Memory required for data: 14806800
I0428 20:14:47.204753 32747 layer_factory.hpp:77] Creating layer ip3
I0428 20:14:47.204758 32747 net.cpp:86] Creating Layer ip3
I0428 20:14:47.204761 32747 net.cpp:408] ip3 <- ip2
I0428 20:14:47.204766 32747 net.cpp:382] ip3 -> ip3
I0428 20:14:47.204888 32747 net.cpp:124] Setting up ip3
I0428 20:14:47.204896 32747 net.cpp:131] Top shape: 100 10 (1000)
I0428 20:14:47.204900 32747 net.cpp:139] Memory required for data: 14810800
I0428 20:14:47.204906 32747 layer_factory.hpp:77] Creating layer relu3
I0428 20:14:47.204911 32747 net.cpp:86] Creating Layer relu3
I0428 20:14:47.204915 32747 net.cpp:408] relu3 <- ip3
I0428 20:14:47.204918 32747 net.cpp:369] relu3 -> ip3 (in-place)
I0428 20:14:47.205710 32747 net.cpp:124] Setting up relu3
I0428 20:14:47.205721 32747 net.cpp:131] Top shape: 100 10 (1000)
I0428 20:14:47.205740 32747 net.cpp:139] Memory required for data: 14814800
I0428 20:14:47.205744 32747 layer_factory.hpp:77] Creating layer ip3_relu3_0_split
I0428 20:14:47.205749 32747 net.cpp:86] Creating Layer ip3_relu3_0_split
I0428 20:14:47.205752 32747 net.cpp:408] ip3_relu3_0_split <- ip3
I0428 20:14:47.205759 32747 net.cpp:382] ip3_relu3_0_split -> ip3_relu3_0_split_0
I0428 20:14:47.205765 32747 net.cpp:382] ip3_relu3_0_split -> ip3_relu3_0_split_1
I0428 20:14:47.205803 32747 net.cpp:124] Setting up ip3_relu3_0_split
I0428 20:14:47.205807 32747 net.cpp:131] Top shape: 100 10 (1000)
I0428 20:14:47.205811 32747 net.cpp:131] Top shape: 100 10 (1000)
I0428 20:14:47.205814 32747 net.cpp:139] Memory required for data: 14822800
I0428 20:14:47.205816 32747 layer_factory.hpp:77] Creating layer accuracy
I0428 20:14:47.205821 32747 net.cpp:86] Creating Layer accuracy
I0428 20:14:47.205826 32747 net.cpp:408] accuracy <- ip3_relu3_0_split_0
I0428 20:14:47.205829 32747 net.cpp:408] accuracy <- label_mnist_1_split_0
I0428 20:14:47.205833 32747 net.cpp:382] accuracy -> accuracy
…
