…
I0428 20:27:15.410604  3007 net.cpp:296] The NetState phase (0) differed from the phase (1) specified by a rule in layer mnist
I0428 20:27:15.410622  3007 net.cpp:296] The NetState phase (0) differed from the phase (1) specified by a rule in layer accuracy
I0428 20:27:15.410713  3007 net.cpp:53] Initializing net from parameters: 
name: "LeNet"
state {
  phase: TRAIN
  level: 0
  stage: ""
}
layer {
  name: "mnist"
  type: "Data"
  top: "data"
  top: "label"
  include {
    phase: TRAIN
  }
  transform_param {
    scale: 0.00390625
  }
  data_param {
    source: "examples/mnist/mnist_train_lmdb"
    batch_size: 64
    backend: LMDB
  }
}
layer {
  name: "conv0"
  type: "Convolution"
  bottom: "data"
  top: "conv0"
  param {
    lr_mult: 1
  }
  param {
    lr_mult: 2
  }
  convolution_param {
    num_output: 100
    kernel_size: 5
    stride: 1
    weight_filler {
      type: "xavier"
    }
    bias_filler {
      type: "constant"
    }
  }
}
layer {
  name: "pool0"
  type: "Pooling"
  bottom: "conv0"
  top: "pool0"
  pooling_param {
    pool: MAX
    kernel_size: 2
    stride: 2
  }
}
layer {
  name: "conv1"
  type: "Convolution"
  bottom: "pool0"
  top: "conv1"
  param {
    lr_mult: 1
  }
  param {
    lr_mult: 2
  }
  convolution_param {
    num_output: 5
    kernel_size: 5
    stride: 1
    weight_filler {
      type: "xavier"
    }
    bias_filler {
      type: "constant"
    }
  }
}
layer {
  name: "pool1"
  type: "Pooling"
  bottom: "conv1"
  top: "pool1"
  pooling_param {
    pool: MAX
    kernel_size: 2
    stride: 2
  }
}
layer {
  name: "ip1"
  type: "InnerProduct"
  bottom: "pool1"
  top: "ip1"
  param {
    lr_mult: 1
  }
  param {
    lr_mult: 2
  }
  inner_product_param {
    num_output: 10
    weight_filler {
      type: "xavier"
    }
    bias_filler {
      type: "constant"
    }
  }
}
layer {
  name: "relu1"
  type: "ReLU"
  bottom: "ip1"
  top: "ip1"
}
layer {
  name: "ip2"
  type: "InnerProduct"
  bottom: "ip1"
  top: "ip2"
  param {
    lr_mult: 1
  }
  param {
    lr_mult: 2
  }
  inner_product_param {
    num_output: 10
    weight_filler {
      type: "xavier"
    }
    bias_filler {
      type: "constant"
    }
  }
}
layer {
  name: "relu2"
  type: "ReLU"
  bottom: "ip2"
  top: "ip2"
}
layer {
  name: "loss"
  type: "SoftmaxWithLoss"
  bottom: "ip2"
  bottom: "label"
  top: "loss"
}
I0428 20:27:15.410786  3007 layer_factory.hpp:77] Creating layer mnist
I0428 20:27:15.410887  3007 db_lmdb.cpp:35] Opened lmdb examples/mnist/mnist_train_lmdb
I0428 20:27:15.410909  3007 net.cpp:86] Creating Layer mnist
I0428 20:27:15.410918  3007 net.cpp:382] mnist -> data
I0428 20:27:15.410941  3007 net.cpp:382] mnist -> label
I0428 20:27:15.412065  3007 data_layer.cpp:45] output data size: 64,1,28,28
I0428 20:27:15.414649  3007 net.cpp:124] Setting up mnist
I0428 20:27:15.414667  3007 net.cpp:131] Top shape: 64 1 28 28 (50176)
I0428 20:27:15.414674  3007 net.cpp:131] Top shape: 64 (64)
I0428 20:27:15.414677  3007 net.cpp:139] Memory required for data: 200960
I0428 20:27:15.414685  3007 layer_factory.hpp:77] Creating layer conv0
I0428 20:27:15.414701  3007 net.cpp:86] Creating Layer conv0
I0428 20:27:15.414707  3007 net.cpp:408] conv0 <- data
I0428 20:27:15.414721  3007 net.cpp:382] conv0 -> conv0
I0428 20:27:15.677741  3007 net.cpp:124] Setting up conv0
I0428 20:27:15.677765  3007 net.cpp:131] Top shape: 64 100 24 24 (3686400)
I0428 20:27:15.677769  3007 net.cpp:139] Memory required for data: 14946560
I0428 20:27:15.677801  3007 layer_factory.hpp:77] Creating layer pool0
I0428 20:27:15.677814  3007 net.cpp:86] Creating Layer pool0
I0428 20:27:15.677819  3007 net.cpp:408] pool0 <- conv0
I0428 20:27:15.677839  3007 net.cpp:382] pool0 -> pool0
I0428 20:27:15.677884  3007 net.cpp:124] Setting up pool0
I0428 20:27:15.677891  3007 net.cpp:131] Top shape: 64 100 12 12 (921600)
I0428 20:27:15.677892  3007 net.cpp:139] Memory required for data: 18632960
I0428 20:27:15.677896  3007 layer_factory.hpp:77] Creating layer conv1
I0428 20:27:15.677906  3007 net.cpp:86] Creating Layer conv1
I0428 20:27:15.677908  3007 net.cpp:408] conv1 <- pool0
I0428 20:27:15.677913  3007 net.cpp:382] conv1 -> conv1
I0428 20:27:15.680635  3007 net.cpp:124] Setting up conv1
I0428 20:27:15.680649  3007 net.cpp:131] Top shape: 64 5 8 8 (20480)
I0428 20:27:15.680652  3007 net.cpp:139] Memory required for data: 18714880
I0428 20:27:15.680660  3007 layer_factory.hpp:77] Creating layer pool1
I0428 20:27:15.680667  3007 net.cpp:86] Creating Layer pool1
I0428 20:27:15.680671  3007 net.cpp:408] pool1 <- conv1
I0428 20:27:15.680675  3007 net.cpp:382] pool1 -> pool1
I0428 20:27:15.680748  3007 net.cpp:124] Setting up pool1
I0428 20:27:15.680754  3007 net.cpp:131] Top shape: 64 5 4 4 (5120)
I0428 20:27:15.680757  3007 net.cpp:139] Memory required for data: 18735360
I0428 20:27:15.680760  3007 layer_factory.hpp:77] Creating layer ip1
I0428 20:27:15.680768  3007 net.cpp:86] Creating Layer ip1
I0428 20:27:15.680771  3007 net.cpp:408] ip1 <- pool1
I0428 20:27:15.680775  3007 net.cpp:382] ip1 -> ip1
I0428 20:27:15.680889  3007 net.cpp:124] Setting up ip1
I0428 20:27:15.680897  3007 net.cpp:131] Top shape: 64 10 (640)
I0428 20:27:15.680901  3007 net.cpp:139] Memory required for data: 18737920
I0428 20:27:15.680908  3007 layer_factory.hpp:77] Creating layer relu1
I0428 20:27:15.680913  3007 net.cpp:86] Creating Layer relu1
I0428 20:27:15.680917  3007 net.cpp:408] relu1 <- ip1
I0428 20:27:15.680922  3007 net.cpp:369] relu1 -> ip1 (in-place)
I0428 20:27:15.681084  3007 net.cpp:124] Setting up relu1
I0428 20:27:15.681093  3007 net.cpp:131] Top shape: 64 10 (640)
I0428 20:27:15.681097  3007 net.cpp:139] Memory required for data: 18740480
I0428 20:27:15.681099  3007 layer_factory.hpp:77] Creating layer ip2
I0428 20:27:15.681120  3007 net.cpp:86] Creating Layer ip2
I0428 20:27:15.681123  3007 net.cpp:408] ip2 <- ip1
I0428 20:27:15.681128  3007 net.cpp:382] ip2 -> ip2
I0428 20:27:15.681233  3007 net.cpp:124] Setting up ip2
I0428 20:27:15.681241  3007 net.cpp:131] Top shape: 64 10 (640)
I0428 20:27:15.681243  3007 net.cpp:139] Memory required for data: 18743040
I0428 20:27:15.681248  3007 layer_factory.hpp:77] Creating layer relu2
I0428 20:27:15.681253  3007 net.cpp:86] Creating Layer relu2
I0428 20:27:15.681257  3007 net.cpp:408] relu2 <- ip2
I0428 20:27:15.681260  3007 net.cpp:369] relu2 -> ip2 (in-place)
I0428 20:27:15.682018  3007 net.cpp:124] Setting up relu2
I0428 20:27:15.682046  3007 net.cpp:131] Top shape: 64 10 (640)
I0428 20:27:15.682050  3007 net.cpp:139] Memory required for data: 18745600
I0428 20:27:15.682054  3007 layer_factory.hpp:77] Creating layer loss
I0428 20:27:15.682060  3007 net.cpp:86] Creating Layer loss
I0428 20:27:15.682065  3007 net.cpp:408] loss <- ip2
I0428 20:27:15.682070  3007 net.cpp:408] loss <- label
I0428 20:27:15.682075  3007 net.cpp:382] loss -> loss
I0428 20:27:15.682092  3007 layer_factory.hpp:77] Creating layer loss
…
I0428 20:27:15.682701  3007 solver.cpp:173] Creating test net (#0) specified by net file: ECE595/mnist/train_test/var_everything2/lenet_train_test1485.prototxt
I0428 20:27:15.682737  3007 net.cpp:296] The NetState phase (1) differed from the phase (0) specified by a rule in layer mnist
I0428 20:27:15.682821  3007 net.cpp:53] Initializing net from parameters: 
name: "LeNet"
state {
  phase: TEST
}
layer {
  name: "mnist"
  type: "Data"
  top: "data"
  top: "label"
  include {
    phase: TEST
  }
  transform_param {
    scale: 0.00390625
  }
  data_param {
    source: "examples/mnist/mnist_test_lmdb"
    batch_size: 100
    backend: LMDB
  }
}
layer {
  name: "conv0"
  type: "Convolution"
  bottom: "data"
  top: "conv0"
  param {
    lr_mult: 1
  }
  param {
    lr_mult: 2
  }
  convolution_param {
    num_output: 100
    kernel_size: 5
    stride: 1
    weight_filler {
      type: "xavier"
    }
    bias_filler {
      type: "constant"
    }
  }
}
layer {
  name: "pool0"
  type: "Pooling"
  bottom: "conv0"
  top: "pool0"
  pooling_param {
    pool: MAX
    kernel_size: 2
    stride: 2
  }
}
layer {
  name: "conv1"
  type: "Convolution"
  bottom: "pool0"
  top: "conv1"
  param {
    lr_mult: 1
  }
  param {
    lr_mult: 2
  }
  convolution_param {
    num_output: 5
    kernel_size: 5
    stride: 1
    weight_filler {
      type: "xavier"
    }
    bias_filler {
      type: "constant"
    }
  }
}
layer {
  name: "pool1"
  type: "Pooling"
  bottom: "conv1"
  top: "pool1"
  pooling_param {
    pool: MAX
    kernel_size: 2
    stride: 2
  }
}
layer {
  name: "ip1"
  type: "InnerProduct"
  bottom: "pool1"
  top: "ip1"
  param {
    lr_mult: 1
  }
  param {
    lr_mult: 2
  }
  inner_product_param {
    num_output: 10
    weight_filler {
      type: "xavier"
    }
    bias_filler {
      type: "constant"
    }
  }
}
layer {
  name: "relu1"
  type: "ReLU"
  bottom: "ip1"
  top: "ip1"
}
layer {
  name: "ip2"
  type: "InnerProduct"
  bottom: "ip1"
  top: "ip2"
  param {
    lr_mult: 1
  }
  param {
    lr_mult: 2
  }
  inner_product_param {
    num_output: 10
    weight_filler {
      type: "xavier"
    }
    bias_filler {
      type: "constant"
    }
  }
}
layer {
  name: "relu2"
  type: "ReLU"
  bottom: "ip2"
  top: "ip2"
}
layer {
  name: "accuracy"
  type: "Accuracy"
  bottom: "ip2"
  bottom: "label"
  top: "accuracy"
  include {
    phase: TEST
  }
}
layer {
  name: "loss"
  type: "SoftmaxWithLoss"
  bottom: "ip2"
  bottom: "label"
  top: "loss"
}
I0428 20:27:15.682880  3007 layer_factory.hpp:77] Creating layer mnist
I0428 20:27:15.682937  3007 db_lmdb.cpp:35] Opened lmdb examples/mnist/mnist_test_lmdb
I0428 20:27:15.682950  3007 net.cpp:86] Creating Layer mnist
I0428 20:27:15.682955  3007 net.cpp:382] mnist -> data
I0428 20:27:15.682962  3007 net.cpp:382] mnist -> label
I0428 20:27:15.683050  3007 data_layer.cpp:45] output data size: 100,1,28,28
I0428 20:27:15.685106  3007 net.cpp:124] Setting up mnist
I0428 20:27:15.685137  3007 net.cpp:131] Top shape: 100 1 28 28 (78400)
I0428 20:27:15.685142  3007 net.cpp:131] Top shape: 100 (100)
I0428 20:27:15.685148  3007 net.cpp:139] Memory required for data: 314000
I0428 20:27:15.685153  3007 layer_factory.hpp:77] Creating layer label_mnist_1_split
I0428 20:27:15.685178  3007 net.cpp:86] Creating Layer label_mnist_1_split
I0428 20:27:15.685199  3007 net.cpp:408] label_mnist_1_split <- label
I0428 20:27:15.685225  3007 net.cpp:382] label_mnist_1_split -> label_mnist_1_split_0
I0428 20:27:15.685250  3007 net.cpp:382] label_mnist_1_split -> label_mnist_1_split_1
I0428 20:27:15.685391  3007 net.cpp:124] Setting up label_mnist_1_split
I0428 20:27:15.685401  3007 net.cpp:131] Top shape: 100 (100)
I0428 20:27:15.685405  3007 net.cpp:131] Top shape: 100 (100)
I0428 20:27:15.685408  3007 net.cpp:139] Memory required for data: 314800
I0428 20:27:15.685411  3007 layer_factory.hpp:77] Creating layer conv0
I0428 20:27:15.685421  3007 net.cpp:86] Creating Layer conv0
I0428 20:27:15.685425  3007 net.cpp:408] conv0 <- data
I0428 20:27:15.685431  3007 net.cpp:382] conv0 -> conv0
I0428 20:27:15.687026  3007 net.cpp:124] Setting up conv0
I0428 20:27:15.687038  3007 net.cpp:131] Top shape: 100 100 24 24 (5760000)
I0428 20:27:15.687057  3007 net.cpp:139] Memory required for data: 23354800
I0428 20:27:15.687067  3007 layer_factory.hpp:77] Creating layer pool0
I0428 20:27:15.687073  3007 net.cpp:86] Creating Layer pool0
I0428 20:27:15.687077  3007 net.cpp:408] pool0 <- conv0
I0428 20:27:15.687081  3007 net.cpp:382] pool0 -> pool0
I0428 20:27:15.687139  3007 net.cpp:124] Setting up pool0
I0428 20:27:15.687144  3007 net.cpp:131] Top shape: 100 100 12 12 (1440000)
I0428 20:27:15.687146  3007 net.cpp:139] Memory required for data: 29114800
I0428 20:27:15.687150  3007 layer_factory.hpp:77] Creating layer conv1
I0428 20:27:15.687160  3007 net.cpp:86] Creating Layer conv1
I0428 20:27:15.687163  3007 net.cpp:408] conv1 <- pool0
I0428 20:27:15.687170  3007 net.cpp:382] conv1 -> conv1
I0428 20:27:15.688835  3007 net.cpp:124] Setting up conv1
I0428 20:27:15.688865  3007 net.cpp:131] Top shape: 100 5 8 8 (32000)
I0428 20:27:15.688869  3007 net.cpp:139] Memory required for data: 29242800
I0428 20:27:15.688879  3007 layer_factory.hpp:77] Creating layer pool1
I0428 20:27:15.688885  3007 net.cpp:86] Creating Layer pool1
I0428 20:27:15.688889  3007 net.cpp:408] pool1 <- conv1
I0428 20:27:15.688895  3007 net.cpp:382] pool1 -> pool1
I0428 20:27:15.688935  3007 net.cpp:124] Setting up pool1
I0428 20:27:15.688941  3007 net.cpp:131] Top shape: 100 5 4 4 (8000)
I0428 20:27:15.688944  3007 net.cpp:139] Memory required for data: 29274800
I0428 20:27:15.688947  3007 layer_factory.hpp:77] Creating layer ip1
I0428 20:27:15.688952  3007 net.cpp:86] Creating Layer ip1
I0428 20:27:15.688956  3007 net.cpp:408] ip1 <- pool1
I0428 20:27:15.688963  3007 net.cpp:382] ip1 -> ip1
I0428 20:27:15.689129  3007 net.cpp:124] Setting up ip1
I0428 20:27:15.689141  3007 net.cpp:131] Top shape: 100 10 (1000)
I0428 20:27:15.689143  3007 net.cpp:139] Memory required for data: 29278800
I0428 20:27:15.689152  3007 layer_factory.hpp:77] Creating layer relu1
I0428 20:27:15.689158  3007 net.cpp:86] Creating Layer relu1
I0428 20:27:15.689162  3007 net.cpp:408] relu1 <- ip1
I0428 20:27:15.689168  3007 net.cpp:369] relu1 -> ip1 (in-place)
I0428 20:27:15.689358  3007 net.cpp:124] Setting up relu1
I0428 20:27:15.689368  3007 net.cpp:131] Top shape: 100 10 (1000)
I0428 20:27:15.689371  3007 net.cpp:139] Memory required for data: 29282800
I0428 20:27:15.689375  3007 layer_factory.hpp:77] Creating layer ip2
I0428 20:27:15.689384  3007 net.cpp:86] Creating Layer ip2
I0428 20:27:15.689388  3007 net.cpp:408] ip2 <- ip1
I0428 20:27:15.689393  3007 net.cpp:382] ip2 -> ip2
I0428 20:27:15.689505  3007 net.cpp:124] Setting up ip2
I0428 20:27:15.689513  3007 net.cpp:131] Top shape: 100 10 (1000)
I0428 20:27:15.689517  3007 net.cpp:139] Memory required for data: 29286800
I0428 20:27:15.689522  3007 layer_factory.hpp:77] Creating layer relu2
I0428 20:27:15.689527  3007 net.cpp:86] Creating Layer relu2
I0428 20:27:15.689530  3007 net.cpp:408] relu2 <- ip2
I0428 20:27:15.689537  3007 net.cpp:369] relu2 -> ip2 (in-place)
I0428 20:27:15.689704  3007 net.cpp:124] Setting up relu2
I0428 20:27:15.689735  3007 net.cpp:131] Top shape: 100 10 (1000)
I0428 20:27:15.689739  3007 net.cpp:139] Memory required for data: 29290800
I0428 20:27:15.689743  3007 layer_factory.hpp:77] Creating layer ip2_relu2_0_split
I0428 20:27:15.689746  3007 net.cpp:86] Creating Layer ip2_relu2_0_split
I0428 20:27:15.689750  3007 net.cpp:408] ip2_relu2_0_split <- ip2
I0428 20:27:15.689756  3007 net.cpp:382] ip2_relu2_0_split -> ip2_relu2_0_split_0
I0428 20:27:15.689774  3007 net.cpp:382] ip2_relu2_0_split -> ip2_relu2_0_split_1
I0428 20:27:15.689813  3007 net.cpp:124] Setting up ip2_relu2_0_split
I0428 20:27:15.689821  3007 net.cpp:131] Top shape: 100 10 (1000)
I0428 20:27:15.689824  3007 net.cpp:131] Top shape: 100 10 (1000)
I0428 20:27:15.689827  3007 net.cpp:139] Memory required for data: 29298800
I0428 20:27:15.689829  3007 layer_factory.hpp:77] Creating layer accuracy
I0428 20:27:15.689836  3007 net.cpp:86] Creating Layer accuracy
I0428 20:27:15.689839  3007 net.cpp:408] accuracy <- ip2_relu2_0_split_0
I0428 20:27:15.689843  3007 net.cpp:408] accuracy <- label_mnist_1_split_0
I0428 20:27:15.689848  3007 net.cpp:382] accuracy -> accuracy
…
