…
I0428 19:29:55.783112 22152 net.cpp:296] The NetState phase (0) differed from the phase (1) specified by a rule in layer mnist
I0428 19:29:55.783129 22152 net.cpp:296] The NetState phase (0) differed from the phase (1) specified by a rule in layer accuracy
I0428 19:29:55.783203 22152 net.cpp:53] Initializing net from parameters: 
name: "LeNet"
state {
  phase: TRAIN
  level: 0
  stage: ""
}
layer {
  name: "mnist"
  type: "Data"
  top: "data"
  top: "label"
  include {
    phase: TRAIN
  }
  transform_param {
    scale: 0.00390625
  }
  data_param {
    source: "examples/mnist/mnist_train_lmdb"
    batch_size: 64
    backend: LMDB
  }
}
layer {
  name: "conv0"
  type: "Convolution"
  bottom: "data"
  top: "conv0"
  param {
    lr_mult: 1
  }
  param {
    lr_mult: 2
  }
  convolution_param {
    num_output: 2
    kernel_size: 5
    stride: 1
    weight_filler {
      type: "xavier"
    }
    bias_filler {
      type: "constant"
    }
  }
}
layer {
  name: "pool0"
  type: "Pooling"
  bottom: "conv0"
  top: "pool0"
  pooling_param {
    pool: MAX
    kernel_size: 2
    stride: 2
  }
}
layer {
  name: "ip1"
  type: "InnerProduct"
  bottom: "pool0"
  top: "ip1"
  param {
    lr_mult: 1
  }
  param {
    lr_mult: 2
  }
  inner_product_param {
    num_output: 50
    weight_filler {
      type: "xavier"
    }
    bias_filler {
      type: "constant"
    }
  }
}
layer {
  name: "relu1"
  type: "ReLU"
  bottom: "ip1"
  top: "ip1"
}
layer {
  name: "ip2"
  type: "InnerProduct"
  bottom: "ip1"
  top: "ip2"
  param {
    lr_mult: 1
  }
  param {
    lr_mult: 2
  }
  inner_product_param {
    num_output: 25
    weight_filler {
      type: "xavier"
    }
    bias_filler {
      type: "constant"
    }
  }
}
layer {
  name: "relu2"
  type: "ReLU"
  bottom: "ip2"
  top: "ip2"
}
layer {
  name: "ip3"
  type: "InnerProduct"
  bottom: "ip2"
  top: "ip3"
  param {
    lr_mult: 1
  }
  param {
    lr_mult: 2
  }
  inner_product_param {
    num_output: 10
    weight_filler {
      type: "xavier"
    }
    bias_filler {
      type: "constant"
    }
  }
}
layer {
  name: "relu3"
  type: "ReLU"
  bottom: "ip3"
  top: "ip3"
}
layer {
  name: "loss"
  type: "SoftmaxWithLoss"
  bottom: "ip3"
  bottom: "label"
  top: "loss"
}
I0428 19:29:55.783289 22152 layer_factory.hpp:77] Creating layer mnist
I0428 19:29:55.783396 22152 db_lmdb.cpp:35] Opened lmdb examples/mnist/mnist_train_lmdb
I0428 19:29:55.783423 22152 net.cpp:86] Creating Layer mnist
I0428 19:29:55.783432 22152 net.cpp:382] mnist -> data
I0428 19:29:55.783457 22152 net.cpp:382] mnist -> label
I0428 19:29:55.784621 22152 data_layer.cpp:45] output data size: 64,1,28,28
I0428 19:29:55.787103 22152 net.cpp:124] Setting up mnist
I0428 19:29:55.787122 22152 net.cpp:131] Top shape: 64 1 28 28 (50176)
I0428 19:29:55.787129 22152 net.cpp:131] Top shape: 64 (64)
I0428 19:29:55.787134 22152 net.cpp:139] Memory required for data: 200960
I0428 19:29:55.787143 22152 layer_factory.hpp:77] Creating layer conv0
I0428 19:29:55.787165 22152 net.cpp:86] Creating Layer conv0
I0428 19:29:55.787174 22152 net.cpp:408] conv0 <- data
I0428 19:29:55.787189 22152 net.cpp:382] conv0 -> conv0
I0428 19:29:56.015837 22152 net.cpp:124] Setting up conv0
I0428 19:29:56.015864 22152 net.cpp:131] Top shape: 64 2 24 24 (73728)
I0428 19:29:56.015871 22152 net.cpp:139] Memory required for data: 495872
I0428 19:29:56.015889 22152 layer_factory.hpp:77] Creating layer pool0
I0428 19:29:56.015905 22152 net.cpp:86] Creating Layer pool0
I0428 19:29:56.015928 22152 net.cpp:408] pool0 <- conv0
I0428 19:29:56.015938 22152 net.cpp:382] pool0 -> pool0
I0428 19:29:56.015987 22152 net.cpp:124] Setting up pool0
I0428 19:29:56.015995 22152 net.cpp:131] Top shape: 64 2 12 12 (18432)
I0428 19:29:56.016000 22152 net.cpp:139] Memory required for data: 569600
I0428 19:29:56.016005 22152 layer_factory.hpp:77] Creating layer ip1
I0428 19:29:56.016016 22152 net.cpp:86] Creating Layer ip1
I0428 19:29:56.016024 22152 net.cpp:408] ip1 <- pool0
I0428 19:29:56.016032 22152 net.cpp:382] ip1 -> ip1
I0428 19:29:56.017137 22152 net.cpp:124] Setting up ip1
I0428 19:29:56.017151 22152 net.cpp:131] Top shape: 64 50 (3200)
I0428 19:29:56.017158 22152 net.cpp:139] Memory required for data: 582400
I0428 19:29:56.017168 22152 layer_factory.hpp:77] Creating layer relu1
I0428 19:29:56.017179 22152 net.cpp:86] Creating Layer relu1
I0428 19:29:56.017184 22152 net.cpp:408] relu1 <- ip1
I0428 19:29:56.017191 22152 net.cpp:369] relu1 -> ip1 (in-place)
I0428 19:29:56.017415 22152 net.cpp:124] Setting up relu1
I0428 19:29:56.017426 22152 net.cpp:131] Top shape: 64 50 (3200)
I0428 19:29:56.017431 22152 net.cpp:139] Memory required for data: 595200
I0428 19:29:56.017436 22152 layer_factory.hpp:77] Creating layer ip2
I0428 19:29:56.017446 22152 net.cpp:86] Creating Layer ip2
I0428 19:29:56.017452 22152 net.cpp:408] ip2 <- ip1
I0428 19:29:56.017460 22152 net.cpp:382] ip2 -> ip2
I0428 19:29:56.018438 22152 net.cpp:124] Setting up ip2
I0428 19:29:56.018452 22152 net.cpp:131] Top shape: 64 25 (1600)
I0428 19:29:56.018457 22152 net.cpp:139] Memory required for data: 601600
I0428 19:29:56.018486 22152 layer_factory.hpp:77] Creating layer relu2
I0428 19:29:56.018494 22152 net.cpp:86] Creating Layer relu2
I0428 19:29:56.018499 22152 net.cpp:408] relu2 <- ip2
I0428 19:29:56.018507 22152 net.cpp:369] relu2 -> ip2 (in-place)
I0428 19:29:56.019276 22152 net.cpp:124] Setting up relu2
I0428 19:29:56.019290 22152 net.cpp:131] Top shape: 64 25 (1600)
I0428 19:29:56.019296 22152 net.cpp:139] Memory required for data: 608000
I0428 19:29:56.019301 22152 layer_factory.hpp:77] Creating layer ip3
I0428 19:29:56.019312 22152 net.cpp:86] Creating Layer ip3
I0428 19:29:56.019318 22152 net.cpp:408] ip3 <- ip2
I0428 19:29:56.019327 22152 net.cpp:382] ip3 -> ip3
I0428 19:29:56.019464 22152 net.cpp:124] Setting up ip3
I0428 19:29:56.019472 22152 net.cpp:131] Top shape: 64 10 (640)
I0428 19:29:56.019477 22152 net.cpp:139] Memory required for data: 610560
I0428 19:29:56.019486 22152 layer_factory.hpp:77] Creating layer relu3
I0428 19:29:56.019496 22152 net.cpp:86] Creating Layer relu3
I0428 19:29:56.019505 22152 net.cpp:408] relu3 <- ip3
I0428 19:29:56.019512 22152 net.cpp:369] relu3 -> ip3 (in-place)
I0428 19:29:56.019667 22152 net.cpp:124] Setting up relu3
I0428 19:29:56.019676 22152 net.cpp:131] Top shape: 64 10 (640)
I0428 19:29:56.019681 22152 net.cpp:139] Memory required for data: 613120
I0428 19:29:56.019686 22152 layer_factory.hpp:77] Creating layer loss
I0428 19:29:56.019709 22152 net.cpp:86] Creating Layer loss
I0428 19:29:56.019714 22152 net.cpp:408] loss <- ip3
I0428 19:29:56.019721 22152 net.cpp:408] loss <- label
I0428 19:29:56.019729 22152 net.cpp:382] loss -> loss
I0428 19:29:56.019748 22152 layer_factory.hpp:77] Creating layer loss
…
I0428 19:29:56.020354 22152 solver.cpp:173] Creating test net (#0) specified by net file: ECE595/mnist/train_test/var_everything2/lenet_train_test74.prototxt
I0428 19:29:56.020385 22152 net.cpp:296] The NetState phase (1) differed from the phase (0) specified by a rule in layer mnist
I0428 19:29:56.020498 22152 net.cpp:53] Initializing net from parameters: 
name: "LeNet"
state {
  phase: TEST
}
layer {
  name: "mnist"
  type: "Data"
  top: "data"
  top: "label"
  include {
    phase: TEST
  }
  transform_param {
    scale: 0.00390625
  }
  data_param {
    source: "examples/mnist/mnist_test_lmdb"
    batch_size: 100
    backend: LMDB
  }
}
layer {
  name: "conv0"
  type: "Convolution"
  bottom: "data"
  top: "conv0"
  param {
    lr_mult: 1
  }
  param {
    lr_mult: 2
  }
  convolution_param {
    num_output: 2
    kernel_size: 5
    stride: 1
    weight_filler {
      type: "xavier"
    }
    bias_filler {
      type: "constant"
    }
  }
}
layer {
  name: "pool0"
  type: "Pooling"
  bottom: "conv0"
  top: "pool0"
  pooling_param {
    pool: MAX
    kernel_size: 2
    stride: 2
  }
}
layer {
  name: "ip1"
  type: "InnerProduct"
  bottom: "pool0"
  top: "ip1"
  param {
    lr_mult: 1
  }
  param {
    lr_mult: 2
  }
  inner_product_param {
    num_output: 50
    weight_filler {
      type: "xavier"
    }
    bias_filler {
      type: "constant"
    }
  }
}
layer {
  name: "relu1"
  type: "ReLU"
  bottom: "ip1"
  top: "ip1"
}
layer {
  name: "ip2"
  type: "InnerProduct"
  bottom: "ip1"
  top: "ip2"
  param {
    lr_mult: 1
  }
  param {
    lr_mult: 2
  }
  inner_product_param {
    num_output: 25
    weight_filler {
      type: "xavier"
    }
    bias_filler {
      type: "constant"
    }
  }
}
layer {
  name: "relu2"
  type: "ReLU"
  bottom: "ip2"
  top: "ip2"
}
layer {
  name: "ip3"
  type: "InnerProduct"
  bottom: "ip2"
  top: "ip3"
  param {
    lr_mult: 1
  }
  param {
    lr_mult: 2
  }
  inner_product_param {
    num_output: 10
    weight_filler {
      type: "xavier"
    }
    bias_filler {
      type: "constant"
    }
  }
}
layer {
  name: "relu3"
  type: "ReLU"
  bottom: "ip3"
  top: "ip3"
}
layer {
  name: "accuracy"
  type: "Accuracy"
  bottom: "ip3"
  bottom: "label"
  top: "accuracy"
  include {
    phase: TEST
  }
}
layer {
  name: "loss"
  type: "SoftmaxWithLoss"
  bottom: "ip3"
  bottom: "label"
  top: "loss"
}
I0428 19:29:56.020589 22152 layer_factory.hpp:77] Creating layer mnist
I0428 19:29:56.020664 22152 db_lmdb.cpp:35] Opened lmdb examples/mnist/mnist_test_lmdb
I0428 19:29:56.020681 22152 net.cpp:86] Creating Layer mnist
I0428 19:29:56.020689 22152 net.cpp:382] mnist -> data
I0428 19:29:56.020700 22152 net.cpp:382] mnist -> label
I0428 19:29:56.020874 22152 data_layer.cpp:45] output data size: 100,1,28,28
I0428 19:29:56.023128 22152 net.cpp:124] Setting up mnist
I0428 19:29:56.023159 22152 net.cpp:131] Top shape: 100 1 28 28 (78400)
I0428 19:29:56.023172 22152 net.cpp:131] Top shape: 100 (100)
I0428 19:29:56.023177 22152 net.cpp:139] Memory required for data: 314000
I0428 19:29:56.023183 22152 layer_factory.hpp:77] Creating layer label_mnist_1_split
I0428 19:29:56.023193 22152 net.cpp:86] Creating Layer label_mnist_1_split
I0428 19:29:56.023200 22152 net.cpp:408] label_mnist_1_split <- label
I0428 19:29:56.023208 22152 net.cpp:382] label_mnist_1_split -> label_mnist_1_split_0
I0428 19:29:56.023219 22152 net.cpp:382] label_mnist_1_split -> label_mnist_1_split_1
I0428 19:29:56.023325 22152 net.cpp:124] Setting up label_mnist_1_split
I0428 19:29:56.023334 22152 net.cpp:131] Top shape: 100 (100)
I0428 19:29:56.023341 22152 net.cpp:131] Top shape: 100 (100)
I0428 19:29:56.023356 22152 net.cpp:139] Memory required for data: 314800
I0428 19:29:56.023373 22152 layer_factory.hpp:77] Creating layer conv0
I0428 19:29:56.023387 22152 net.cpp:86] Creating Layer conv0
I0428 19:29:56.023394 22152 net.cpp:408] conv0 <- data
I0428 19:29:56.023403 22152 net.cpp:382] conv0 -> conv0
I0428 19:29:56.025030 22152 net.cpp:124] Setting up conv0
I0428 19:29:56.025046 22152 net.cpp:131] Top shape: 100 2 24 24 (115200)
I0428 19:29:56.025053 22152 net.cpp:139] Memory required for data: 775600
I0428 19:29:56.025066 22152 layer_factory.hpp:77] Creating layer pool0
I0428 19:29:56.025076 22152 net.cpp:86] Creating Layer pool0
I0428 19:29:56.025084 22152 net.cpp:408] pool0 <- conv0
I0428 19:29:56.025092 22152 net.cpp:382] pool0 -> pool0
I0428 19:29:56.025147 22152 net.cpp:124] Setting up pool0
I0428 19:29:56.025156 22152 net.cpp:131] Top shape: 100 2 12 12 (28800)
I0428 19:29:56.025174 22152 net.cpp:139] Memory required for data: 890800
I0428 19:29:56.025179 22152 layer_factory.hpp:77] Creating layer ip1
I0428 19:29:56.025189 22152 net.cpp:86] Creating Layer ip1
I0428 19:29:56.025194 22152 net.cpp:408] ip1 <- pool0
I0428 19:29:56.025202 22152 net.cpp:382] ip1 -> ip1
I0428 19:29:56.025367 22152 net.cpp:124] Setting up ip1
I0428 19:29:56.025374 22152 net.cpp:131] Top shape: 100 50 (5000)
I0428 19:29:56.025379 22152 net.cpp:139] Memory required for data: 910800
I0428 19:29:56.025389 22152 layer_factory.hpp:77] Creating layer relu1
I0428 19:29:56.025408 22152 net.cpp:86] Creating Layer relu1
I0428 19:29:56.025415 22152 net.cpp:408] relu1 <- ip1
I0428 19:29:56.025423 22152 net.cpp:369] relu1 -> ip1 (in-place)
I0428 19:29:56.025709 22152 net.cpp:124] Setting up relu1
I0428 19:29:56.025719 22152 net.cpp:131] Top shape: 100 50 (5000)
I0428 19:29:56.025725 22152 net.cpp:139] Memory required for data: 930800
I0428 19:29:56.025730 22152 layer_factory.hpp:77] Creating layer ip2
I0428 19:29:56.025739 22152 net.cpp:86] Creating Layer ip2
I0428 19:29:56.025744 22152 net.cpp:408] ip2 <- ip1
I0428 19:29:56.025768 22152 net.cpp:382] ip2 -> ip2
I0428 19:29:56.025902 22152 net.cpp:124] Setting up ip2
I0428 19:29:56.025910 22152 net.cpp:131] Top shape: 100 25 (2500)
I0428 19:29:56.025915 22152 net.cpp:139] Memory required for data: 940800
I0428 19:29:56.025943 22152 layer_factory.hpp:77] Creating layer relu2
I0428 19:29:56.025967 22152 net.cpp:86] Creating Layer relu2
I0428 19:29:56.025972 22152 net.cpp:408] relu2 <- ip2
I0428 19:29:56.025981 22152 net.cpp:369] relu2 -> ip2 (in-place)
I0428 19:29:56.026867 22152 net.cpp:124] Setting up relu2
I0428 19:29:56.026886 22152 net.cpp:131] Top shape: 100 25 (2500)
I0428 19:29:56.026906 22152 net.cpp:139] Memory required for data: 950800
I0428 19:29:56.026912 22152 layer_factory.hpp:77] Creating layer ip3
I0428 19:29:56.026924 22152 net.cpp:86] Creating Layer ip3
I0428 19:29:56.026931 22152 net.cpp:408] ip3 <- ip2
I0428 19:29:56.026939 22152 net.cpp:382] ip3 -> ip3
I0428 19:29:56.027076 22152 net.cpp:124] Setting up ip3
I0428 19:29:56.027086 22152 net.cpp:131] Top shape: 100 10 (1000)
I0428 19:29:56.027091 22152 net.cpp:139] Memory required for data: 954800
I0428 19:29:56.027099 22152 layer_factory.hpp:77] Creating layer relu3
I0428 19:29:56.027107 22152 net.cpp:86] Creating Layer relu3
I0428 19:29:56.027112 22152 net.cpp:408] relu3 <- ip3
I0428 19:29:56.027120 22152 net.cpp:369] relu3 -> ip3 (in-place)
I0428 19:29:56.027274 22152 net.cpp:124] Setting up relu3
I0428 19:29:56.027284 22152 net.cpp:131] Top shape: 100 10 (1000)
I0428 19:29:56.027289 22152 net.cpp:139] Memory required for data: 958800
I0428 19:29:56.027294 22152 layer_factory.hpp:77] Creating layer ip3_relu3_0_split
I0428 19:29:56.027302 22152 net.cpp:86] Creating Layer ip3_relu3_0_split
I0428 19:29:56.027323 22152 net.cpp:408] ip3_relu3_0_split <- ip3
I0428 19:29:56.027345 22152 net.cpp:382] ip3_relu3_0_split -> ip3_relu3_0_split_0
I0428 19:29:56.027354 22152 net.cpp:382] ip3_relu3_0_split -> ip3_relu3_0_split_1
I0428 19:29:56.027395 22152 net.cpp:124] Setting up ip3_relu3_0_split
I0428 19:29:56.027403 22152 net.cpp:131] Top shape: 100 10 (1000)
I0428 19:29:56.027410 22152 net.cpp:131] Top shape: 100 10 (1000)
I0428 19:29:56.027436 22152 net.cpp:139] Memory required for data: 966800
I0428 19:29:56.027441 22152 layer_factory.hpp:77] Creating layer accuracy
I0428 19:29:56.027449 22152 net.cpp:86] Creating Layer accuracy
I0428 19:29:56.027456 22152 net.cpp:408] accuracy <- ip3_relu3_0_split_0
I0428 19:29:56.027462 22152 net.cpp:408] accuracy <- label_mnist_1_split_0
I0428 19:29:56.027472 22152 net.cpp:382] accuracy -> accuracy
…
