…
I0428 20:06:18.823617 30842 net.cpp:296] The NetState phase (0) differed from the phase (1) specified by a rule in layer mnist
I0428 20:06:18.823647 30842 net.cpp:296] The NetState phase (0) differed from the phase (1) specified by a rule in layer accuracy
I0428 20:06:18.823717 30842 net.cpp:53] Initializing net from parameters: 
name: "LeNet"
state {
  phase: TRAIN
  level: 0
  stage: ""
}
layer {
  name: "mnist"
  type: "Data"
  top: "data"
  top: "label"
  include {
    phase: TRAIN
  }
  transform_param {
    scale: 0.00390625
  }
  data_param {
    source: "examples/mnist/mnist_train_lmdb"
    batch_size: 64
    backend: LMDB
  }
}
layer {
  name: "conv0"
  type: "Convolution"
  bottom: "data"
  top: "conv0"
  param {
    lr_mult: 1
  }
  param {
    lr_mult: 2
  }
  convolution_param {
    num_output: 25
    kernel_size: 5
    stride: 1
    weight_filler {
      type: "xavier"
    }
    bias_filler {
      type: "constant"
    }
  }
}
layer {
  name: "pool0"
  type: "Pooling"
  bottom: "conv0"
  top: "pool0"
  pooling_param {
    pool: MAX
    kernel_size: 2
    stride: 2
  }
}
layer {
  name: "conv1"
  type: "Convolution"
  bottom: "pool0"
  top: "conv1"
  param {
    lr_mult: 1
  }
  param {
    lr_mult: 2
  }
  convolution_param {
    num_output: 5
    kernel_size: 5
    stride: 1
    weight_filler {
      type: "xavier"
    }
    bias_filler {
      type: "constant"
    }
  }
}
layer {
  name: "pool1"
  type: "Pooling"
  bottom: "conv1"
  top: "pool1"
  pooling_param {
    pool: MAX
    kernel_size: 2
    stride: 2
  }
}
layer {
  name: "ip1"
  type: "InnerProduct"
  bottom: "pool1"
  top: "ip1"
  param {
    lr_mult: 1
  }
  param {
    lr_mult: 2
  }
  inner_product_param {
    num_output: 50
    weight_filler {
      type: "xavier"
    }
    bias_filler {
      type: "constant"
    }
  }
}
layer {
  name: "relu1"
  type: "ReLU"
  bottom: "ip1"
  top: "ip1"
}
layer {
  name: "ip2"
  type: "InnerProduct"
  bottom: "ip1"
  top: "ip2"
  param {
    lr_mult: 1
  }
  param {
    lr_mult: 2
  }
  inner_product_param {
    num_output: 10
    weight_filler {
      type: "xavier"
    }
    bias_filler {
      type: "constant"
    }
  }
}
layer {
  name: "relu2"
  type: "ReLU"
  bottom: "ip2"
  top: "ip2"
}
layer {
  name: "loss"
  type: "SoftmaxWithLoss"
  bottom: "ip2"
  bottom: "label"
  top: "loss"
}
I0428 20:06:18.823776 30842 layer_factory.hpp:77] Creating layer mnist
I0428 20:06:18.823858 30842 db_lmdb.cpp:35] Opened lmdb examples/mnist/mnist_train_lmdb
I0428 20:06:18.823879 30842 net.cpp:86] Creating Layer mnist
I0428 20:06:18.823884 30842 net.cpp:382] mnist -> data
I0428 20:06:18.823904 30842 net.cpp:382] mnist -> label
I0428 20:06:18.824959 30842 data_layer.cpp:45] output data size: 64,1,28,28
I0428 20:06:18.827374 30842 net.cpp:124] Setting up mnist
I0428 20:06:18.827420 30842 net.cpp:131] Top shape: 64 1 28 28 (50176)
I0428 20:06:18.827426 30842 net.cpp:131] Top shape: 64 (64)
I0428 20:06:18.827445 30842 net.cpp:139] Memory required for data: 200960
I0428 20:06:18.827452 30842 layer_factory.hpp:77] Creating layer conv0
I0428 20:06:18.827466 30842 net.cpp:86] Creating Layer conv0
I0428 20:06:18.827471 30842 net.cpp:408] conv0 <- data
I0428 20:06:18.827481 30842 net.cpp:382] conv0 -> conv0
I0428 20:06:19.064872 30842 net.cpp:124] Setting up conv0
I0428 20:06:19.064913 30842 net.cpp:131] Top shape: 64 25 24 24 (921600)
I0428 20:06:19.064918 30842 net.cpp:139] Memory required for data: 3887360
I0428 20:06:19.064951 30842 layer_factory.hpp:77] Creating layer pool0
I0428 20:06:19.064980 30842 net.cpp:86] Creating Layer pool0
I0428 20:06:19.064985 30842 net.cpp:408] pool0 <- conv0
I0428 20:06:19.064990 30842 net.cpp:382] pool0 -> pool0
I0428 20:06:19.065038 30842 net.cpp:124] Setting up pool0
I0428 20:06:19.065047 30842 net.cpp:131] Top shape: 64 25 12 12 (230400)
I0428 20:06:19.065050 30842 net.cpp:139] Memory required for data: 4808960
I0428 20:06:19.065053 30842 layer_factory.hpp:77] Creating layer conv1
I0428 20:06:19.065063 30842 net.cpp:86] Creating Layer conv1
I0428 20:06:19.065066 30842 net.cpp:408] conv1 <- pool0
I0428 20:06:19.065071 30842 net.cpp:382] conv1 -> conv1
I0428 20:06:19.067754 30842 net.cpp:124] Setting up conv1
I0428 20:06:19.067782 30842 net.cpp:131] Top shape: 64 5 8 8 (20480)
I0428 20:06:19.067786 30842 net.cpp:139] Memory required for data: 4890880
I0428 20:06:19.067795 30842 layer_factory.hpp:77] Creating layer pool1
I0428 20:06:19.067802 30842 net.cpp:86] Creating Layer pool1
I0428 20:06:19.067806 30842 net.cpp:408] pool1 <- conv1
I0428 20:06:19.067811 30842 net.cpp:382] pool1 -> pool1
I0428 20:06:19.067862 30842 net.cpp:124] Setting up pool1
I0428 20:06:19.067867 30842 net.cpp:131] Top shape: 64 5 4 4 (5120)
I0428 20:06:19.067870 30842 net.cpp:139] Memory required for data: 4911360
I0428 20:06:19.067873 30842 layer_factory.hpp:77] Creating layer ip1
I0428 20:06:19.067880 30842 net.cpp:86] Creating Layer ip1
I0428 20:06:19.067883 30842 net.cpp:408] ip1 <- pool1
I0428 20:06:19.067888 30842 net.cpp:382] ip1 -> ip1
I0428 20:06:19.068003 30842 net.cpp:124] Setting up ip1
I0428 20:06:19.068011 30842 net.cpp:131] Top shape: 64 50 (3200)
I0428 20:06:19.068029 30842 net.cpp:139] Memory required for data: 4924160
I0428 20:06:19.068037 30842 layer_factory.hpp:77] Creating layer relu1
I0428 20:06:19.068042 30842 net.cpp:86] Creating Layer relu1
I0428 20:06:19.068044 30842 net.cpp:408] relu1 <- ip1
I0428 20:06:19.068048 30842 net.cpp:369] relu1 -> ip1 (in-place)
I0428 20:06:19.068202 30842 net.cpp:124] Setting up relu1
I0428 20:06:19.068210 30842 net.cpp:131] Top shape: 64 50 (3200)
I0428 20:06:19.068213 30842 net.cpp:139] Memory required for data: 4936960
I0428 20:06:19.068217 30842 layer_factory.hpp:77] Creating layer ip2
I0428 20:06:19.068222 30842 net.cpp:86] Creating Layer ip2
I0428 20:06:19.068225 30842 net.cpp:408] ip2 <- ip1
I0428 20:06:19.068229 30842 net.cpp:382] ip2 -> ip2
I0428 20:06:19.068318 30842 net.cpp:124] Setting up ip2
I0428 20:06:19.068325 30842 net.cpp:131] Top shape: 64 10 (640)
I0428 20:06:19.068328 30842 net.cpp:139] Memory required for data: 4939520
I0428 20:06:19.068333 30842 layer_factory.hpp:77] Creating layer relu2
I0428 20:06:19.068339 30842 net.cpp:86] Creating Layer relu2
I0428 20:06:19.068342 30842 net.cpp:408] relu2 <- ip2
I0428 20:06:19.068346 30842 net.cpp:369] relu2 -> ip2 (in-place)
I0428 20:06:19.069106 30842 net.cpp:124] Setting up relu2
I0428 20:06:19.069120 30842 net.cpp:131] Top shape: 64 10 (640)
I0428 20:06:19.069139 30842 net.cpp:139] Memory required for data: 4942080
I0428 20:06:19.069142 30842 layer_factory.hpp:77] Creating layer loss
I0428 20:06:19.069160 30842 net.cpp:86] Creating Layer loss
I0428 20:06:19.069164 30842 net.cpp:408] loss <- ip2
I0428 20:06:19.069169 30842 net.cpp:408] loss <- label
I0428 20:06:19.069175 30842 net.cpp:382] loss -> loss
I0428 20:06:19.069195 30842 layer_factory.hpp:77] Creating layer loss
…
I0428 20:06:19.069871 30842 solver.cpp:173] Creating test net (#0) specified by net file: ECE595/mnist/train_test/var_everything2/lenet_train_test1024.prototxt
I0428 20:06:19.069927 30842 net.cpp:296] The NetState phase (1) differed from the phase (0) specified by a rule in layer mnist
I0428 20:06:19.070005 30842 net.cpp:53] Initializing net from parameters: 
name: "LeNet"
state {
  phase: TEST
}
layer {
  name: "mnist"
  type: "Data"
  top: "data"
  top: "label"
  include {
    phase: TEST
  }
  transform_param {
    scale: 0.00390625
  }
  data_param {
    source: "examples/mnist/mnist_test_lmdb"
    batch_size: 100
    backend: LMDB
  }
}
layer {
  name: "conv0"
  type: "Convolution"
  bottom: "data"
  top: "conv0"
  param {
    lr_mult: 1
  }
  param {
    lr_mult: 2
  }
  convolution_param {
    num_output: 25
    kernel_size: 5
    stride: 1
    weight_filler {
      type: "xavier"
    }
    bias_filler {
      type: "constant"
    }
  }
}
layer {
  name: "pool0"
  type: "Pooling"
  bottom: "conv0"
  top: "pool0"
  pooling_param {
    pool: MAX
    kernel_size: 2
    stride: 2
  }
}
layer {
  name: "conv1"
  type: "Convolution"
  bottom: "pool0"
  top: "conv1"
  param {
    lr_mult: 1
  }
  param {
    lr_mult: 2
  }
  convolution_param {
    num_output: 5
    kernel_size: 5
    stride: 1
    weight_filler {
      type: "xavier"
    }
    bias_filler {
      type: "constant"
    }
  }
}
layer {
  name: "pool1"
  type: "Pooling"
  bottom: "conv1"
  top: "pool1"
  pooling_param {
    pool: MAX
    kernel_size: 2
    stride: 2
  }
}
layer {
  name: "ip1"
  type: "InnerProduct"
  bottom: "pool1"
  top: "ip1"
  param {
    lr_mult: 1
  }
  param {
    lr_mult: 2
  }
  inner_product_param {
    num_output: 50
    weight_filler {
      type: "xavier"
    }
    bias_filler {
      type: "constant"
    }
  }
}
layer {
  name: "relu1"
  type: "ReLU"
  bottom: "ip1"
  top: "ip1"
}
layer {
  name: "ip2"
  type: "InnerProduct"
  bottom: "ip1"
  top: "ip2"
  param {
    lr_mult: 1
  }
  param {
    lr_mult: 2
  }
  inner_product_param {
    num_output: 10
    weight_filler {
      type: "xavier"
    }
    bias_filler {
      type: "constant"
    }
  }
}
layer {
  name: "relu2"
  type: "ReLU"
  bottom: "ip2"
  top: "ip2"
}
layer {
  name: "accuracy"
  type: "Accuracy"
  bottom: "ip2"
  bottom: "label"
  top: "accuracy"
  include {
    phase: TEST
  }
}
layer {
  name: "loss"
  type: "SoftmaxWithLoss"
  bottom: "ip2"
  bottom: "label"
  top: "loss"
}
I0428 20:06:19.070066 30842 layer_factory.hpp:77] Creating layer mnist
I0428 20:06:19.070112 30842 db_lmdb.cpp:35] Opened lmdb examples/mnist/mnist_test_lmdb
I0428 20:06:19.070149 30842 net.cpp:86] Creating Layer mnist
I0428 20:06:19.070158 30842 net.cpp:382] mnist -> data
I0428 20:06:19.070169 30842 net.cpp:382] mnist -> label
I0428 20:06:19.070273 30842 data_layer.cpp:45] output data size: 100,1,28,28
I0428 20:06:19.072243 30842 net.cpp:124] Setting up mnist
I0428 20:06:19.072273 30842 net.cpp:131] Top shape: 100 1 28 28 (78400)
I0428 20:06:19.072293 30842 net.cpp:131] Top shape: 100 (100)
I0428 20:06:19.072298 30842 net.cpp:139] Memory required for data: 314000
I0428 20:06:19.072300 30842 layer_factory.hpp:77] Creating layer label_mnist_1_split
I0428 20:06:19.072334 30842 net.cpp:86] Creating Layer label_mnist_1_split
I0428 20:06:19.072338 30842 net.cpp:408] label_mnist_1_split <- label
I0428 20:06:19.072345 30842 net.cpp:382] label_mnist_1_split -> label_mnist_1_split_0
I0428 20:06:19.072355 30842 net.cpp:382] label_mnist_1_split -> label_mnist_1_split_1
I0428 20:06:19.072454 30842 net.cpp:124] Setting up label_mnist_1_split
I0428 20:06:19.072473 30842 net.cpp:131] Top shape: 100 (100)
I0428 20:06:19.072476 30842 net.cpp:131] Top shape: 100 (100)
I0428 20:06:19.072479 30842 net.cpp:139] Memory required for data: 314800
I0428 20:06:19.072482 30842 layer_factory.hpp:77] Creating layer conv0
I0428 20:06:19.072491 30842 net.cpp:86] Creating Layer conv0
I0428 20:06:19.072494 30842 net.cpp:408] conv0 <- data
I0428 20:06:19.072500 30842 net.cpp:382] conv0 -> conv0
I0428 20:06:19.074213 30842 net.cpp:124] Setting up conv0
I0428 20:06:19.074241 30842 net.cpp:131] Top shape: 100 25 24 24 (1440000)
I0428 20:06:19.074244 30842 net.cpp:139] Memory required for data: 6074800
I0428 20:06:19.074254 30842 layer_factory.hpp:77] Creating layer pool0
I0428 20:06:19.074277 30842 net.cpp:86] Creating Layer pool0
I0428 20:06:19.074280 30842 net.cpp:408] pool0 <- conv0
I0428 20:06:19.074285 30842 net.cpp:382] pool0 -> pool0
I0428 20:06:19.074319 30842 net.cpp:124] Setting up pool0
I0428 20:06:19.074324 30842 net.cpp:131] Top shape: 100 25 12 12 (360000)
I0428 20:06:19.074327 30842 net.cpp:139] Memory required for data: 7514800
I0428 20:06:19.074331 30842 layer_factory.hpp:77] Creating layer conv1
I0428 20:06:19.074338 30842 net.cpp:86] Creating Layer conv1
I0428 20:06:19.074342 30842 net.cpp:408] conv1 <- pool0
I0428 20:06:19.074347 30842 net.cpp:382] conv1 -> conv1
I0428 20:06:19.076385 30842 net.cpp:124] Setting up conv1
I0428 20:06:19.076412 30842 net.cpp:131] Top shape: 100 5 8 8 (32000)
I0428 20:06:19.076416 30842 net.cpp:139] Memory required for data: 7642800
I0428 20:06:19.076426 30842 layer_factory.hpp:77] Creating layer pool1
I0428 20:06:19.076447 30842 net.cpp:86] Creating Layer pool1
I0428 20:06:19.076450 30842 net.cpp:408] pool1 <- conv1
I0428 20:06:19.076457 30842 net.cpp:382] pool1 -> pool1
I0428 20:06:19.076510 30842 net.cpp:124] Setting up pool1
I0428 20:06:19.076515 30842 net.cpp:131] Top shape: 100 5 4 4 (8000)
I0428 20:06:19.076519 30842 net.cpp:139] Memory required for data: 7674800
I0428 20:06:19.076521 30842 layer_factory.hpp:77] Creating layer ip1
I0428 20:06:19.076529 30842 net.cpp:86] Creating Layer ip1
I0428 20:06:19.076539 30842 net.cpp:408] ip1 <- pool1
I0428 20:06:19.076544 30842 net.cpp:382] ip1 -> ip1
I0428 20:06:19.076660 30842 net.cpp:124] Setting up ip1
I0428 20:06:19.076668 30842 net.cpp:131] Top shape: 100 50 (5000)
I0428 20:06:19.076671 30842 net.cpp:139] Memory required for data: 7694800
I0428 20:06:19.076679 30842 layer_factory.hpp:77] Creating layer relu1
I0428 20:06:19.076690 30842 net.cpp:86] Creating Layer relu1
I0428 20:06:19.076694 30842 net.cpp:408] relu1 <- ip1
I0428 20:06:19.076699 30842 net.cpp:369] relu1 -> ip1 (in-place)
I0428 20:06:19.076889 30842 net.cpp:124] Setting up relu1
I0428 20:06:19.076902 30842 net.cpp:131] Top shape: 100 50 (5000)
I0428 20:06:19.076907 30842 net.cpp:139] Memory required for data: 7714800
I0428 20:06:19.076910 30842 layer_factory.hpp:77] Creating layer ip2
I0428 20:06:19.076918 30842 net.cpp:86] Creating Layer ip2
I0428 20:06:19.076930 30842 net.cpp:408] ip2 <- ip1
I0428 20:06:19.076934 30842 net.cpp:382] ip2 -> ip2
I0428 20:06:19.077046 30842 net.cpp:124] Setting up ip2
I0428 20:06:19.077055 30842 net.cpp:131] Top shape: 100 10 (1000)
I0428 20:06:19.077059 30842 net.cpp:139] Memory required for data: 7718800
I0428 20:06:19.077064 30842 layer_factory.hpp:77] Creating layer relu2
I0428 20:06:19.077070 30842 net.cpp:86] Creating Layer relu2
I0428 20:06:19.077074 30842 net.cpp:408] relu2 <- ip2
I0428 20:06:19.077078 30842 net.cpp:369] relu2 -> ip2 (in-place)
I0428 20:06:19.077255 30842 net.cpp:124] Setting up relu2
I0428 20:06:19.077267 30842 net.cpp:131] Top shape: 100 10 (1000)
I0428 20:06:19.077270 30842 net.cpp:139] Memory required for data: 7722800
I0428 20:06:19.077273 30842 layer_factory.hpp:77] Creating layer ip2_relu2_0_split
I0428 20:06:19.077278 30842 net.cpp:86] Creating Layer ip2_relu2_0_split
I0428 20:06:19.077281 30842 net.cpp:408] ip2_relu2_0_split <- ip2
I0428 20:06:19.077286 30842 net.cpp:382] ip2_relu2_0_split -> ip2_relu2_0_split_0
I0428 20:06:19.077302 30842 net.cpp:382] ip2_relu2_0_split -> ip2_relu2_0_split_1
I0428 20:06:19.077338 30842 net.cpp:124] Setting up ip2_relu2_0_split
I0428 20:06:19.077345 30842 net.cpp:131] Top shape: 100 10 (1000)
I0428 20:06:19.077349 30842 net.cpp:131] Top shape: 100 10 (1000)
I0428 20:06:19.077359 30842 net.cpp:139] Memory required for data: 7730800
I0428 20:06:19.077363 30842 layer_factory.hpp:77] Creating layer accuracy
I0428 20:06:19.077366 30842 net.cpp:86] Creating Layer accuracy
I0428 20:06:19.077370 30842 net.cpp:408] accuracy <- ip2_relu2_0_split_0
I0428 20:06:19.077374 30842 net.cpp:408] accuracy <- label_mnist_1_split_0
I0428 20:06:19.077378 30842 net.cpp:382] accuracy -> accuracy
…
