…
I0428 19:42:53.530937 25212 net.cpp:296] The NetState phase (0) differed from the phase (1) specified by a rule in layer mnist
I0428 19:42:53.530952 25212 net.cpp:296] The NetState phase (0) differed from the phase (1) specified by a rule in layer accuracy
I0428 19:42:53.531030 25212 net.cpp:53] Initializing net from parameters: 
name: "LeNet"
state {
  phase: TRAIN
  level: 0
  stage: ""
}
layer {
  name: "mnist"
  type: "Data"
  top: "data"
  top: "label"
  include {
    phase: TRAIN
  }
  transform_param {
    scale: 0.00390625
  }
  data_param {
    source: "examples/mnist/mnist_train_lmdb"
    batch_size: 64
    backend: LMDB
  }
}
layer {
  name: "conv0"
  type: "Convolution"
  bottom: "data"
  top: "conv0"
  param {
    lr_mult: 1
  }
  param {
    lr_mult: 2
  }
  convolution_param {
    num_output: 2
    kernel_size: 5
    stride: 1
    weight_filler {
      type: "xavier"
    }
    bias_filler {
      type: "constant"
    }
  }
}
layer {
  name: "pool0"
  type: "Pooling"
  bottom: "conv0"
  top: "pool0"
  pooling_param {
    pool: MAX
    kernel_size: 2
    stride: 2
  }
}
layer {
  name: "conv1"
  type: "Convolution"
  bottom: "pool0"
  top: "conv1"
  param {
    lr_mult: 1
  }
  param {
    lr_mult: 2
  }
  convolution_param {
    num_output: 25
    kernel_size: 5
    stride: 1
    weight_filler {
      type: "xavier"
    }
    bias_filler {
      type: "constant"
    }
  }
}
layer {
  name: "pool1"
  type: "Pooling"
  bottom: "conv1"
  top: "pool1"
  pooling_param {
    pool: MAX
    kernel_size: 2
    stride: 2
  }
}
layer {
  name: "ip1"
  type: "InnerProduct"
  bottom: "pool1"
  top: "ip1"
  param {
    lr_mult: 1
  }
  param {
    lr_mult: 2
  }
  inner_product_param {
    num_output: 10
    weight_filler {
      type: "xavier"
    }
    bias_filler {
      type: "constant"
    }
  }
}
layer {
  name: "relu1"
  type: "ReLU"
  bottom: "ip1"
  top: "ip1"
}
layer {
  name: "ip2"
  type: "InnerProduct"
  bottom: "ip1"
  top: "ip2"
  param {
    lr_mult: 1
  }
  param {
    lr_mult: 2
  }
  inner_product_param {
    num_output: 25
    weight_filler {
      type: "xavier"
    }
    bias_filler {
      type: "constant"
    }
  }
}
layer {
  name: "relu2"
  type: "ReLU"
  bottom: "ip2"
  top: "ip2"
}
layer {
  name: "ip3"
  type: "InnerProduct"
  bottom: "ip2"
  top: "ip3"
  param {
    lr_mult: 1
  }
  param {
    lr_mult: 2
  }
  inner_product_param {
    num_output: 10
    weight_filler {
      type: "xavier"
    }
    bias_filler {
      type: "constant"
    }
  }
}
layer {
  name: "relu3"
  type: "ReLU"
  bottom: "ip3"
  top: "ip3"
}
layer {
  name: "loss"
  type: "SoftmaxWithLoss"
  bottom: "ip3"
  bottom: "label"
  top: "loss"
}
I0428 19:42:53.531097 25212 layer_factory.hpp:77] Creating layer mnist
I0428 19:42:53.531177 25212 db_lmdb.cpp:35] Opened lmdb examples/mnist/mnist_train_lmdb
I0428 19:42:53.531196 25212 net.cpp:86] Creating Layer mnist
I0428 19:42:53.531203 25212 net.cpp:382] mnist -> data
I0428 19:42:53.531221 25212 net.cpp:382] mnist -> label
I0428 19:42:53.532146 25212 data_layer.cpp:45] output data size: 64,1,28,28
I0428 19:42:53.534369 25212 net.cpp:124] Setting up mnist
I0428 19:42:53.534400 25212 net.cpp:131] Top shape: 64 1 28 28 (50176)
I0428 19:42:53.534407 25212 net.cpp:131] Top shape: 64 (64)
I0428 19:42:53.534410 25212 net.cpp:139] Memory required for data: 200960
I0428 19:42:53.534417 25212 layer_factory.hpp:77] Creating layer conv0
I0428 19:42:53.534442 25212 net.cpp:86] Creating Layer conv0
I0428 19:42:53.534473 25212 net.cpp:408] conv0 <- data
I0428 19:42:53.534483 25212 net.cpp:382] conv0 -> conv0
I0428 19:42:53.762104 25212 net.cpp:124] Setting up conv0
I0428 19:42:53.762131 25212 net.cpp:131] Top shape: 64 2 24 24 (73728)
I0428 19:42:53.762135 25212 net.cpp:139] Memory required for data: 495872
I0428 19:42:53.762151 25212 layer_factory.hpp:77] Creating layer pool0
I0428 19:42:53.762178 25212 net.cpp:86] Creating Layer pool0
I0428 19:42:53.762182 25212 net.cpp:408] pool0 <- conv0
I0428 19:42:53.762187 25212 net.cpp:382] pool0 -> pool0
I0428 19:42:53.762233 25212 net.cpp:124] Setting up pool0
I0428 19:42:53.762243 25212 net.cpp:131] Top shape: 64 2 12 12 (18432)
I0428 19:42:53.762246 25212 net.cpp:139] Memory required for data: 569600
I0428 19:42:53.762249 25212 layer_factory.hpp:77] Creating layer conv1
I0428 19:42:53.762259 25212 net.cpp:86] Creating Layer conv1
I0428 19:42:53.762261 25212 net.cpp:408] conv1 <- pool0
I0428 19:42:53.762266 25212 net.cpp:382] conv1 -> conv1
I0428 19:42:53.764905 25212 net.cpp:124] Setting up conv1
I0428 19:42:53.764935 25212 net.cpp:131] Top shape: 64 25 8 8 (102400)
I0428 19:42:53.764938 25212 net.cpp:139] Memory required for data: 979200
I0428 19:42:53.764946 25212 layer_factory.hpp:77] Creating layer pool1
I0428 19:42:53.764953 25212 net.cpp:86] Creating Layer pool1
I0428 19:42:53.764957 25212 net.cpp:408] pool1 <- conv1
I0428 19:42:53.764961 25212 net.cpp:382] pool1 -> pool1
I0428 19:42:53.765012 25212 net.cpp:124] Setting up pool1
I0428 19:42:53.765018 25212 net.cpp:131] Top shape: 64 25 4 4 (25600)
I0428 19:42:53.765020 25212 net.cpp:139] Memory required for data: 1081600
I0428 19:42:53.765023 25212 layer_factory.hpp:77] Creating layer ip1
I0428 19:42:53.765030 25212 net.cpp:86] Creating Layer ip1
I0428 19:42:53.765033 25212 net.cpp:408] ip1 <- pool1
I0428 19:42:53.765053 25212 net.cpp:382] ip1 -> ip1
I0428 19:42:53.765184 25212 net.cpp:124] Setting up ip1
I0428 19:42:53.765192 25212 net.cpp:131] Top shape: 64 10 (640)
I0428 19:42:53.765211 25212 net.cpp:139] Memory required for data: 1084160
I0428 19:42:53.765218 25212 layer_factory.hpp:77] Creating layer relu1
I0428 19:42:53.765240 25212 net.cpp:86] Creating Layer relu1
I0428 19:42:53.765244 25212 net.cpp:408] relu1 <- ip1
I0428 19:42:53.765249 25212 net.cpp:369] relu1 -> ip1 (in-place)
I0428 19:42:53.765424 25212 net.cpp:124] Setting up relu1
I0428 19:42:53.765432 25212 net.cpp:131] Top shape: 64 10 (640)
I0428 19:42:53.765435 25212 net.cpp:139] Memory required for data: 1086720
I0428 19:42:53.765439 25212 layer_factory.hpp:77] Creating layer ip2
I0428 19:42:53.765445 25212 net.cpp:86] Creating Layer ip2
I0428 19:42:53.765449 25212 net.cpp:408] ip2 <- ip1
I0428 19:42:53.765453 25212 net.cpp:382] ip2 -> ip2
I0428 19:42:53.765575 25212 net.cpp:124] Setting up ip2
I0428 19:42:53.765596 25212 net.cpp:131] Top shape: 64 25 (1600)
I0428 19:42:53.765599 25212 net.cpp:139] Memory required for data: 1093120
I0428 19:42:53.765604 25212 layer_factory.hpp:77] Creating layer relu2
I0428 19:42:53.765610 25212 net.cpp:86] Creating Layer relu2
I0428 19:42:53.765614 25212 net.cpp:408] relu2 <- ip2
I0428 19:42:53.765617 25212 net.cpp:369] relu2 -> ip2 (in-place)
I0428 19:42:53.766355 25212 net.cpp:124] Setting up relu2
I0428 19:42:53.766367 25212 net.cpp:131] Top shape: 64 25 (1600)
I0428 19:42:53.766386 25212 net.cpp:139] Memory required for data: 1099520
I0428 19:42:53.766389 25212 layer_factory.hpp:77] Creating layer ip3
I0428 19:42:53.766396 25212 net.cpp:86] Creating Layer ip3
I0428 19:42:53.766399 25212 net.cpp:408] ip3 <- ip2
I0428 19:42:53.766404 25212 net.cpp:382] ip3 -> ip3
I0428 19:42:53.766499 25212 net.cpp:124] Setting up ip3
I0428 19:42:53.766506 25212 net.cpp:131] Top shape: 64 10 (640)
I0428 19:42:53.766510 25212 net.cpp:139] Memory required for data: 1102080
I0428 19:42:53.766517 25212 layer_factory.hpp:77] Creating layer relu3
I0428 19:42:53.766522 25212 net.cpp:86] Creating Layer relu3
I0428 19:42:53.766525 25212 net.cpp:408] relu3 <- ip3
I0428 19:42:53.766530 25212 net.cpp:369] relu3 -> ip3 (in-place)
I0428 19:42:53.766698 25212 net.cpp:124] Setting up relu3
I0428 19:42:53.766706 25212 net.cpp:131] Top shape: 64 10 (640)
I0428 19:42:53.766710 25212 net.cpp:139] Memory required for data: 1104640
I0428 19:42:53.766712 25212 layer_factory.hpp:77] Creating layer loss
I0428 19:42:53.766718 25212 net.cpp:86] Creating Layer loss
I0428 19:42:53.766721 25212 net.cpp:408] loss <- ip3
I0428 19:42:53.766724 25212 net.cpp:408] loss <- label
I0428 19:42:53.766729 25212 net.cpp:382] loss -> loss
I0428 19:42:53.766742 25212 layer_factory.hpp:77] Creating layer loss
…
I0428 19:42:53.767391 25212 solver.cpp:173] Creating test net (#0) specified by net file: ECE595/mnist/train_test/var_everything2/lenet_train_test406.prototxt
I0428 19:42:53.767432 25212 net.cpp:296] The NetState phase (1) differed from the phase (0) specified by a rule in layer mnist
I0428 19:42:53.767518 25212 net.cpp:53] Initializing net from parameters: 
name: "LeNet"
state {
  phase: TEST
}
layer {
  name: "mnist"
  type: "Data"
  top: "data"
  top: "label"
  include {
    phase: TEST
  }
  transform_param {
    scale: 0.00390625
  }
  data_param {
    source: "examples/mnist/mnist_test_lmdb"
    batch_size: 100
    backend: LMDB
  }
}
layer {
  name: "conv0"
  type: "Convolution"
  bottom: "data"
  top: "conv0"
  param {
    lr_mult: 1
  }
  param {
    lr_mult: 2
  }
  convolution_param {
    num_output: 2
    kernel_size: 5
    stride: 1
    weight_filler {
      type: "xavier"
    }
    bias_filler {
      type: "constant"
    }
  }
}
layer {
  name: "pool0"
  type: "Pooling"
  bottom: "conv0"
  top: "pool0"
  pooling_param {
    pool: MAX
    kernel_size: 2
    stride: 2
  }
}
layer {
  name: "conv1"
  type: "Convolution"
  bottom: "pool0"
  top: "conv1"
  param {
    lr_mult: 1
  }
  param {
    lr_mult: 2
  }
  convolution_param {
    num_output: 25
    kernel_size: 5
    stride: 1
    weight_filler {
      type: "xavier"
    }
    bias_filler {
      type: "constant"
    }
  }
}
layer {
  name: "pool1"
  type: "Pooling"
  bottom: "conv1"
  top: "pool1"
  pooling_param {
    pool: MAX
    kernel_size: 2
    stride: 2
  }
}
layer {
  name: "ip1"
  type: "InnerProduct"
  bottom: "pool1"
  top: "ip1"
  param {
    lr_mult: 1
  }
  param {
    lr_mult: 2
  }
  inner_product_param {
    num_output: 10
    weight_filler {
      type: "xavier"
    }
    bias_filler {
      type: "constant"
    }
  }
}
layer {
  name: "relu1"
  type: "ReLU"
  bottom: "ip1"
  top: "ip1"
}
layer {
  name: "ip2"
  type: "InnerProduct"
  bottom: "ip1"
  top: "ip2"
  param {
    lr_mult: 1
  }
  param {
    lr_mult: 2
  }
  inner_product_param {
    num_output: 25
    weight_filler {
      type: "xavier"
    }
    bias_filler {
      type: "constant"
    }
  }
}
layer {
  name: "relu2"
  type: "ReLU"
  bottom: "ip2"
  top: "ip2"
}
layer {
  name: "ip3"
  type: "InnerProduct"
  bottom: "ip2"
  top: "ip3"
  param {
    lr_mult: 1
  }
  param {
    lr_mult: 2
  }
  inner_product_param {
    num_output: 10
    weight_filler {
      type: "xavier"
    }
    bias_filler {
      type: "constant"
    }
  }
}
layer {
  name: "relu3"
  type: "ReLU"
  bottom: "ip3"
  top: "ip3"
}
layer {
  name: "accuracy"
  type: "Accuracy"
  bottom: "ip3"
  bottom: "label"
  top: "accuracy"
  include {
    phase: TEST
  }
}
layer {
  name: "loss"
  type: "SoftmaxWithLoss"
  bottom: "ip3"
  bottom: "label"
  top: "loss"
}
I0428 19:42:53.767592 25212 layer_factory.hpp:77] Creating layer mnist
I0428 19:42:53.767637 25212 db_lmdb.cpp:35] Opened lmdb examples/mnist/mnist_test_lmdb
I0428 19:42:53.767649 25212 net.cpp:86] Creating Layer mnist
I0428 19:42:53.767654 25212 net.cpp:382] mnist -> data
I0428 19:42:53.767662 25212 net.cpp:382] mnist -> label
I0428 19:42:53.767753 25212 data_layer.cpp:45] output data size: 100,1,28,28
I0428 19:42:53.769845 25212 net.cpp:124] Setting up mnist
I0428 19:42:53.769872 25212 net.cpp:131] Top shape: 100 1 28 28 (78400)
I0428 19:42:53.769877 25212 net.cpp:131] Top shape: 100 (100)
I0428 19:42:53.769881 25212 net.cpp:139] Memory required for data: 314000
I0428 19:42:53.769884 25212 layer_factory.hpp:77] Creating layer label_mnist_1_split
I0428 19:42:53.769891 25212 net.cpp:86] Creating Layer label_mnist_1_split
I0428 19:42:53.769894 25212 net.cpp:408] label_mnist_1_split <- label
I0428 19:42:53.769899 25212 net.cpp:382] label_mnist_1_split -> label_mnist_1_split_0
I0428 19:42:53.769906 25212 net.cpp:382] label_mnist_1_split -> label_mnist_1_split_1
I0428 19:42:53.769946 25212 net.cpp:124] Setting up label_mnist_1_split
I0428 19:42:53.769951 25212 net.cpp:131] Top shape: 100 (100)
I0428 19:42:53.769955 25212 net.cpp:131] Top shape: 100 (100)
I0428 19:42:53.769958 25212 net.cpp:139] Memory required for data: 314800
I0428 19:42:53.769960 25212 layer_factory.hpp:77] Creating layer conv0
I0428 19:42:53.769968 25212 net.cpp:86] Creating Layer conv0
I0428 19:42:53.769971 25212 net.cpp:408] conv0 <- data
I0428 19:42:53.769975 25212 net.cpp:382] conv0 -> conv0
I0428 19:42:53.771543 25212 net.cpp:124] Setting up conv0
I0428 19:42:53.771571 25212 net.cpp:131] Top shape: 100 2 24 24 (115200)
I0428 19:42:53.771575 25212 net.cpp:139] Memory required for data: 775600
I0428 19:42:53.771585 25212 layer_factory.hpp:77] Creating layer pool0
I0428 19:42:53.771591 25212 net.cpp:86] Creating Layer pool0
I0428 19:42:53.771595 25212 net.cpp:408] pool0 <- conv0
I0428 19:42:53.771600 25212 net.cpp:382] pool0 -> pool0
I0428 19:42:53.771656 25212 net.cpp:124] Setting up pool0
I0428 19:42:53.771662 25212 net.cpp:131] Top shape: 100 2 12 12 (28800)
I0428 19:42:53.771666 25212 net.cpp:139] Memory required for data: 890800
I0428 19:42:53.771669 25212 layer_factory.hpp:77] Creating layer conv1
I0428 19:42:53.771677 25212 net.cpp:86] Creating Layer conv1
I0428 19:42:53.771680 25212 net.cpp:408] conv1 <- pool0
I0428 19:42:53.771685 25212 net.cpp:382] conv1 -> conv1
I0428 19:42:53.773293 25212 net.cpp:124] Setting up conv1
I0428 19:42:53.773324 25212 net.cpp:131] Top shape: 100 25 8 8 (160000)
I0428 19:42:53.773327 25212 net.cpp:139] Memory required for data: 1530800
I0428 19:42:53.773342 25212 layer_factory.hpp:77] Creating layer pool1
I0428 19:42:53.773351 25212 net.cpp:86] Creating Layer pool1
I0428 19:42:53.773355 25212 net.cpp:408] pool1 <- conv1
I0428 19:42:53.773360 25212 net.cpp:382] pool1 -> pool1
I0428 19:42:53.773398 25212 net.cpp:124] Setting up pool1
I0428 19:42:53.773404 25212 net.cpp:131] Top shape: 100 25 4 4 (40000)
I0428 19:42:53.773408 25212 net.cpp:139] Memory required for data: 1690800
I0428 19:42:53.773411 25212 layer_factory.hpp:77] Creating layer ip1
I0428 19:42:53.773423 25212 net.cpp:86] Creating Layer ip1
I0428 19:42:53.773427 25212 net.cpp:408] ip1 <- pool1
I0428 19:42:53.773432 25212 net.cpp:382] ip1 -> ip1
I0428 19:42:53.773555 25212 net.cpp:124] Setting up ip1
I0428 19:42:53.773564 25212 net.cpp:131] Top shape: 100 10 (1000)
I0428 19:42:53.773579 25212 net.cpp:139] Memory required for data: 1694800
I0428 19:42:53.773587 25212 layer_factory.hpp:77] Creating layer relu1
I0428 19:42:53.773593 25212 net.cpp:86] Creating Layer relu1
I0428 19:42:53.773597 25212 net.cpp:408] relu1 <- ip1
I0428 19:42:53.773602 25212 net.cpp:369] relu1 -> ip1 (in-place)
I0428 19:42:53.773774 25212 net.cpp:124] Setting up relu1
I0428 19:42:53.773797 25212 net.cpp:131] Top shape: 100 10 (1000)
I0428 19:42:53.773802 25212 net.cpp:139] Memory required for data: 1698800
I0428 19:42:53.773805 25212 layer_factory.hpp:77] Creating layer ip2
I0428 19:42:53.773813 25212 net.cpp:86] Creating Layer ip2
I0428 19:42:53.773815 25212 net.cpp:408] ip2 <- ip1
I0428 19:42:53.773828 25212 net.cpp:382] ip2 -> ip2
I0428 19:42:53.773929 25212 net.cpp:124] Setting up ip2
I0428 19:42:53.773936 25212 net.cpp:131] Top shape: 100 25 (2500)
I0428 19:42:53.773941 25212 net.cpp:139] Memory required for data: 1708800
I0428 19:42:53.773946 25212 layer_factory.hpp:77] Creating layer relu2
I0428 19:42:53.773950 25212 net.cpp:86] Creating Layer relu2
I0428 19:42:53.773953 25212 net.cpp:408] relu2 <- ip2
I0428 19:42:53.773957 25212 net.cpp:369] relu2 -> ip2 (in-place)
I0428 19:42:53.774164 25212 net.cpp:124] Setting up relu2
I0428 19:42:53.774173 25212 net.cpp:131] Top shape: 100 25 (2500)
I0428 19:42:53.774175 25212 net.cpp:139] Memory required for data: 1718800
I0428 19:42:53.774178 25212 layer_factory.hpp:77] Creating layer ip3
I0428 19:42:53.774185 25212 net.cpp:86] Creating Layer ip3
I0428 19:42:53.774188 25212 net.cpp:408] ip3 <- ip2
I0428 19:42:53.774193 25212 net.cpp:382] ip3 -> ip3
I0428 19:42:53.774305 25212 net.cpp:124] Setting up ip3
I0428 19:42:53.774312 25212 net.cpp:131] Top shape: 100 10 (1000)
I0428 19:42:53.774315 25212 net.cpp:139] Memory required for data: 1722800
I0428 19:42:53.774323 25212 layer_factory.hpp:77] Creating layer relu3
I0428 19:42:53.774329 25212 net.cpp:86] Creating Layer relu3
I0428 19:42:53.774333 25212 net.cpp:408] relu3 <- ip3
I0428 19:42:53.774336 25212 net.cpp:369] relu3 -> ip3 (in-place)
I0428 19:42:53.775130 25212 net.cpp:124] Setting up relu3
I0428 19:42:53.775142 25212 net.cpp:131] Top shape: 100 10 (1000)
I0428 19:42:53.775169 25212 net.cpp:139] Memory required for data: 1726800
I0428 19:42:53.775172 25212 layer_factory.hpp:77] Creating layer ip3_relu3_0_split
I0428 19:42:53.775178 25212 net.cpp:86] Creating Layer ip3_relu3_0_split
I0428 19:42:53.775182 25212 net.cpp:408] ip3_relu3_0_split <- ip3
I0428 19:42:53.775187 25212 net.cpp:382] ip3_relu3_0_split -> ip3_relu3_0_split_0
I0428 19:42:53.775192 25212 net.cpp:382] ip3_relu3_0_split -> ip3_relu3_0_split_1
I0428 19:42:53.775245 25212 net.cpp:124] Setting up ip3_relu3_0_split
I0428 19:42:53.775250 25212 net.cpp:131] Top shape: 100 10 (1000)
I0428 19:42:53.775254 25212 net.cpp:131] Top shape: 100 10 (1000)
I0428 19:42:53.775257 25212 net.cpp:139] Memory required for data: 1734800
I0428 19:42:53.775261 25212 layer_factory.hpp:77] Creating layer accuracy
I0428 19:42:53.775267 25212 net.cpp:86] Creating Layer accuracy
I0428 19:42:53.775270 25212 net.cpp:408] accuracy <- ip3_relu3_0_split_0
I0428 19:42:53.775274 25212 net.cpp:408] accuracy <- label_mnist_1_split_0
I0428 19:42:53.775279 25212 net.cpp:382] accuracy -> accuracy
…
