…
I0428 19:48:09.626166 26412 net.cpp:296] The NetState phase (0) differed from the phase (1) specified by a rule in layer mnist
I0428 19:48:09.626184 26412 net.cpp:296] The NetState phase (0) differed from the phase (1) specified by a rule in layer accuracy
I0428 19:48:09.626286 26412 net.cpp:53] Initializing net from parameters: 
name: "LeNet"
state {
  phase: TRAIN
  level: 0
  stage: ""
}
layer {
  name: "mnist"
  type: "Data"
  top: "data"
  top: "label"
  include {
    phase: TRAIN
  }
  transform_param {
    scale: 0.00390625
  }
  data_param {
    source: "examples/mnist/mnist_train_lmdb"
    batch_size: 64
    backend: LMDB
  }
}
layer {
  name: "conv0"
  type: "Convolution"
  bottom: "data"
  top: "conv0"
  param {
    lr_mult: 1
  }
  param {
    lr_mult: 2
  }
  convolution_param {
    num_output: 5
    kernel_size: 5
    stride: 1
    weight_filler {
      type: "xavier"
    }
    bias_filler {
      type: "constant"
    }
  }
}
layer {
  name: "pool0"
  type: "Pooling"
  bottom: "conv0"
  top: "pool0"
  pooling_param {
    pool: MAX
    kernel_size: 2
    stride: 2
  }
}
layer {
  name: "conv1"
  type: "Convolution"
  bottom: "pool0"
  top: "conv1"
  param {
    lr_mult: 1
  }
  param {
    lr_mult: 2
  }
  convolution_param {
    num_output: 2
    kernel_size: 5
    stride: 1
    weight_filler {
      type: "xavier"
    }
    bias_filler {
      type: "constant"
    }
  }
}
layer {
  name: "pool1"
  type: "Pooling"
  bottom: "conv1"
  top: "pool1"
  pooling_param {
    pool: MAX
    kernel_size: 2
    stride: 2
  }
}
layer {
  name: "ip1"
  type: "InnerProduct"
  bottom: "pool1"
  top: "ip1"
  param {
    lr_mult: 1
  }
  param {
    lr_mult: 2
  }
  inner_product_param {
    num_output: 25
    weight_filler {
      type: "xavier"
    }
    bias_filler {
      type: "constant"
    }
  }
}
layer {
  name: "relu1"
  type: "ReLU"
  bottom: "ip1"
  top: "ip1"
}
layer {
  name: "ip2"
  type: "InnerProduct"
  bottom: "ip1"
  top: "ip2"
  param {
    lr_mult: 1
  }
  param {
    lr_mult: 2
  }
  inner_product_param {
    num_output: 50
    weight_filler {
      type: "xavier"
    }
    bias_filler {
      type: "constant"
    }
  }
}
layer {
  name: "relu2"
  type: "ReLU"
  bottom: "ip2"
  top: "ip2"
}
layer {
  name: "ip3"
  type: "InnerProduct"
  bottom: "ip2"
  top: "ip3"
  param {
    lr_mult: 1
  }
  param {
    lr_mult: 2
  }
  inner_product_param {
    num_output: 10
    weight_filler {
      type: "xavier"
    }
    bias_filler {
      type: "constant"
    }
  }
}
layer {
  name: "relu3"
  type: "ReLU"
  bottom: "ip3"
  top: "ip3"
}
layer {
  name: "loss"
  type: "SoftmaxWithLoss"
  bottom: "ip3"
  bottom: "label"
  top: "loss"
}
I0428 19:48:09.626360 26412 layer_factory.hpp:77] Creating layer mnist
I0428 19:48:09.626477 26412 db_lmdb.cpp:35] Opened lmdb examples/mnist/mnist_train_lmdb
I0428 19:48:09.626507 26412 net.cpp:86] Creating Layer mnist
I0428 19:48:09.626514 26412 net.cpp:382] mnist -> data
I0428 19:48:09.626536 26412 net.cpp:382] mnist -> label
I0428 19:48:09.627660 26412 data_layer.cpp:45] output data size: 64,1,28,28
I0428 19:48:09.630120 26412 net.cpp:124] Setting up mnist
I0428 19:48:09.630143 26412 net.cpp:131] Top shape: 64 1 28 28 (50176)
I0428 19:48:09.630151 26412 net.cpp:131] Top shape: 64 (64)
I0428 19:48:09.630153 26412 net.cpp:139] Memory required for data: 200960
I0428 19:48:09.630161 26412 layer_factory.hpp:77] Creating layer conv0
I0428 19:48:09.630177 26412 net.cpp:86] Creating Layer conv0
I0428 19:48:09.630197 26412 net.cpp:408] conv0 <- data
I0428 19:48:09.630208 26412 net.cpp:382] conv0 -> conv0
I0428 19:48:09.920874 26412 net.cpp:124] Setting up conv0
I0428 19:48:09.920905 26412 net.cpp:131] Top shape: 64 5 24 24 (184320)
I0428 19:48:09.920910 26412 net.cpp:139] Memory required for data: 938240
I0428 19:48:09.920928 26412 layer_factory.hpp:77] Creating layer pool0
I0428 19:48:09.920943 26412 net.cpp:86] Creating Layer pool0
I0428 19:48:09.920948 26412 net.cpp:408] pool0 <- conv0
I0428 19:48:09.920953 26412 net.cpp:382] pool0 -> pool0
I0428 19:48:09.921007 26412 net.cpp:124] Setting up pool0
I0428 19:48:09.921016 26412 net.cpp:131] Top shape: 64 5 12 12 (46080)
I0428 19:48:09.921020 26412 net.cpp:139] Memory required for data: 1122560
I0428 19:48:09.921023 26412 layer_factory.hpp:77] Creating layer conv1
I0428 19:48:09.921036 26412 net.cpp:86] Creating Layer conv1
I0428 19:48:09.921038 26412 net.cpp:408] conv1 <- pool0
I0428 19:48:09.921044 26412 net.cpp:382] conv1 -> conv1
I0428 19:48:09.923118 26412 net.cpp:124] Setting up conv1
I0428 19:48:09.923135 26412 net.cpp:131] Top shape: 64 2 8 8 (8192)
I0428 19:48:09.923140 26412 net.cpp:139] Memory required for data: 1155328
I0428 19:48:09.923149 26412 layer_factory.hpp:77] Creating layer pool1
I0428 19:48:09.923157 26412 net.cpp:86] Creating Layer pool1
I0428 19:48:09.923161 26412 net.cpp:408] pool1 <- conv1
I0428 19:48:09.923167 26412 net.cpp:382] pool1 -> pool1
I0428 19:48:09.923209 26412 net.cpp:124] Setting up pool1
I0428 19:48:09.923214 26412 net.cpp:131] Top shape: 64 2 4 4 (2048)
I0428 19:48:09.923218 26412 net.cpp:139] Memory required for data: 1163520
I0428 19:48:09.923221 26412 layer_factory.hpp:77] Creating layer ip1
I0428 19:48:09.923229 26412 net.cpp:86] Creating Layer ip1
I0428 19:48:09.923233 26412 net.cpp:408] ip1 <- pool1
I0428 19:48:09.923238 26412 net.cpp:382] ip1 -> ip1
I0428 19:48:09.923349 26412 net.cpp:124] Setting up ip1
I0428 19:48:09.923358 26412 net.cpp:131] Top shape: 64 25 (1600)
I0428 19:48:09.923362 26412 net.cpp:139] Memory required for data: 1169920
I0428 19:48:09.923369 26412 layer_factory.hpp:77] Creating layer relu1
I0428 19:48:09.923377 26412 net.cpp:86] Creating Layer relu1
I0428 19:48:09.923380 26412 net.cpp:408] relu1 <- ip1
I0428 19:48:09.923384 26412 net.cpp:369] relu1 -> ip1 (in-place)
I0428 19:48:09.923574 26412 net.cpp:124] Setting up relu1
I0428 19:48:09.923585 26412 net.cpp:131] Top shape: 64 25 (1600)
I0428 19:48:09.923588 26412 net.cpp:139] Memory required for data: 1176320
I0428 19:48:09.923593 26412 layer_factory.hpp:77] Creating layer ip2
I0428 19:48:09.923600 26412 net.cpp:86] Creating Layer ip2
I0428 19:48:09.923604 26412 net.cpp:408] ip2 <- ip1
I0428 19:48:09.923609 26412 net.cpp:382] ip2 -> ip2
I0428 19:48:09.924662 26412 net.cpp:124] Setting up ip2
I0428 19:48:09.924677 26412 net.cpp:131] Top shape: 64 50 (3200)
I0428 19:48:09.924681 26412 net.cpp:139] Memory required for data: 1189120
I0428 19:48:09.924688 26412 layer_factory.hpp:77] Creating layer relu2
I0428 19:48:09.924696 26412 net.cpp:86] Creating Layer relu2
I0428 19:48:09.924700 26412 net.cpp:408] relu2 <- ip2
I0428 19:48:09.924705 26412 net.cpp:369] relu2 -> ip2 (in-place)
I0428 19:48:09.925542 26412 net.cpp:124] Setting up relu2
I0428 19:48:09.925556 26412 net.cpp:131] Top shape: 64 50 (3200)
I0428 19:48:09.925561 26412 net.cpp:139] Memory required for data: 1201920
I0428 19:48:09.925565 26412 layer_factory.hpp:77] Creating layer ip3
I0428 19:48:09.925573 26412 net.cpp:86] Creating Layer ip3
I0428 19:48:09.925577 26412 net.cpp:408] ip3 <- ip2
I0428 19:48:09.925583 26412 net.cpp:382] ip3 -> ip3
I0428 19:48:09.925698 26412 net.cpp:124] Setting up ip3
I0428 19:48:09.925706 26412 net.cpp:131] Top shape: 64 10 (640)
I0428 19:48:09.925709 26412 net.cpp:139] Memory required for data: 1204480
I0428 19:48:09.925719 26412 layer_factory.hpp:77] Creating layer relu3
I0428 19:48:09.925724 26412 net.cpp:86] Creating Layer relu3
I0428 19:48:09.925727 26412 net.cpp:408] relu3 <- ip3
I0428 19:48:09.925732 26412 net.cpp:369] relu3 -> ip3 (in-place)
I0428 19:48:09.925914 26412 net.cpp:124] Setting up relu3
I0428 19:48:09.925922 26412 net.cpp:131] Top shape: 64 10 (640)
I0428 19:48:09.925926 26412 net.cpp:139] Memory required for data: 1207040
I0428 19:48:09.925930 26412 layer_factory.hpp:77] Creating layer loss
I0428 19:48:09.925938 26412 net.cpp:86] Creating Layer loss
I0428 19:48:09.925942 26412 net.cpp:408] loss <- ip3
I0428 19:48:09.925946 26412 net.cpp:408] loss <- label
I0428 19:48:09.925952 26412 net.cpp:382] loss -> loss
I0428 19:48:09.925971 26412 layer_factory.hpp:77] Creating layer loss
…
I0428 19:48:09.926673 26412 solver.cpp:173] Creating test net (#0) specified by net file: ECE595/mnist/train_test/var_everything2/lenet_train_test536.prototxt
I0428 19:48:09.926702 26412 net.cpp:296] The NetState phase (1) differed from the phase (0) specified by a rule in layer mnist
I0428 19:48:09.926805 26412 net.cpp:53] Initializing net from parameters: 
name: "LeNet"
state {
  phase: TEST
}
layer {
  name: "mnist"
  type: "Data"
  top: "data"
  top: "label"
  include {
    phase: TEST
  }
  transform_param {
    scale: 0.00390625
  }
  data_param {
    source: "examples/mnist/mnist_test_lmdb"
    batch_size: 100
    backend: LMDB
  }
}
layer {
  name: "conv0"
  type: "Convolution"
  bottom: "data"
  top: "conv0"
  param {
    lr_mult: 1
  }
  param {
    lr_mult: 2
  }
  convolution_param {
    num_output: 5
    kernel_size: 5
    stride: 1
    weight_filler {
      type: "xavier"
    }
    bias_filler {
      type: "constant"
    }
  }
}
layer {
  name: "pool0"
  type: "Pooling"
  bottom: "conv0"
  top: "pool0"
  pooling_param {
    pool: MAX
    kernel_size: 2
    stride: 2
  }
}
layer {
  name: "conv1"
  type: "Convolution"
  bottom: "pool0"
  top: "conv1"
  param {
    lr_mult: 1
  }
  param {
    lr_mult: 2
  }
  convolution_param {
    num_output: 2
    kernel_size: 5
    stride: 1
    weight_filler {
      type: "xavier"
    }
    bias_filler {
      type: "constant"
    }
  }
}
layer {
  name: "pool1"
  type: "Pooling"
  bottom: "conv1"
  top: "pool1"
  pooling_param {
    pool: MAX
    kernel_size: 2
    stride: 2
  }
}
layer {
  name: "ip1"
  type: "InnerProduct"
  bottom: "pool1"
  top: "ip1"
  param {
    lr_mult: 1
  }
  param {
    lr_mult: 2
  }
  inner_product_param {
    num_output: 25
    weight_filler {
      type: "xavier"
    }
    bias_filler {
      type: "constant"
    }
  }
}
layer {
  name: "relu1"
  type: "ReLU"
  bottom: "ip1"
  top: "ip1"
}
layer {
  name: "ip2"
  type: "InnerProduct"
  bottom: "ip1"
  top: "ip2"
  param {
    lr_mult: 1
  }
  param {
    lr_mult: 2
  }
  inner_product_param {
    num_output: 50
    weight_filler {
      type: "xavier"
    }
    bias_filler {
      type: "constant"
    }
  }
}
layer {
  name: "relu2"
  type: "ReLU"
  bottom: "ip2"
  top: "ip2"
}
layer {
  name: "ip3"
  type: "InnerProduct"
  bottom: "ip2"
  top: "ip3"
  param {
    lr_mult: 1
  }
  param {
    lr_mult: 2
  }
  inner_product_param {
    num_output: 10
    weight_filler {
      type: "xavier"
    }
    bias_filler {
      type: "constant"
    }
  }
}
layer {
  name: "relu3"
  type: "ReLU"
  bottom: "ip3"
  top: "ip3"
}
layer {
  name: "accuracy"
  type: "Accuracy"
  bottom: "ip3"
  bottom: "label"
  top: "accuracy"
  include {
    phase: TEST
  }
}
layer {
  name: "loss"
  type: "SoftmaxWithLoss"
  bottom: "ip3"
  bottom: "label"
  top: "loss"
}
I0428 19:48:09.926895 26412 layer_factory.hpp:77] Creating layer mnist
I0428 19:48:09.926944 26412 db_lmdb.cpp:35] Opened lmdb examples/mnist/mnist_test_lmdb
I0428 19:48:09.926955 26412 net.cpp:86] Creating Layer mnist
I0428 19:48:09.926964 26412 net.cpp:382] mnist -> data
I0428 19:48:09.926971 26412 net.cpp:382] mnist -> label
I0428 19:48:09.927067 26412 data_layer.cpp:45] output data size: 100,1,28,28
I0428 19:48:09.929302 26412 net.cpp:124] Setting up mnist
I0428 19:48:09.929317 26412 net.cpp:131] Top shape: 100 1 28 28 (78400)
I0428 19:48:09.929323 26412 net.cpp:131] Top shape: 100 (100)
I0428 19:48:09.929327 26412 net.cpp:139] Memory required for data: 314000
I0428 19:48:09.929330 26412 layer_factory.hpp:77] Creating layer label_mnist_1_split
I0428 19:48:09.929371 26412 net.cpp:86] Creating Layer label_mnist_1_split
I0428 19:48:09.929376 26412 net.cpp:408] label_mnist_1_split <- label
I0428 19:48:09.929383 26412 net.cpp:382] label_mnist_1_split -> label_mnist_1_split_0
I0428 19:48:09.929389 26412 net.cpp:382] label_mnist_1_split -> label_mnist_1_split_1
I0428 19:48:09.929438 26412 net.cpp:124] Setting up label_mnist_1_split
I0428 19:48:09.929446 26412 net.cpp:131] Top shape: 100 (100)
I0428 19:48:09.929450 26412 net.cpp:131] Top shape: 100 (100)
I0428 19:48:09.929453 26412 net.cpp:139] Memory required for data: 314800
I0428 19:48:09.929457 26412 layer_factory.hpp:77] Creating layer conv0
I0428 19:48:09.929467 26412 net.cpp:86] Creating Layer conv0
I0428 19:48:09.929471 26412 net.cpp:408] conv0 <- data
I0428 19:48:09.929477 26412 net.cpp:382] conv0 -> conv0
I0428 19:48:09.931334 26412 net.cpp:124] Setting up conv0
I0428 19:48:09.931350 26412 net.cpp:131] Top shape: 100 5 24 24 (288000)
I0428 19:48:09.931354 26412 net.cpp:139] Memory required for data: 1466800
I0428 19:48:09.931366 26412 layer_factory.hpp:77] Creating layer pool0
I0428 19:48:09.931373 26412 net.cpp:86] Creating Layer pool0
I0428 19:48:09.931377 26412 net.cpp:408] pool0 <- conv0
I0428 19:48:09.931382 26412 net.cpp:382] pool0 -> pool0
I0428 19:48:09.931424 26412 net.cpp:124] Setting up pool0
I0428 19:48:09.931430 26412 net.cpp:131] Top shape: 100 5 12 12 (72000)
I0428 19:48:09.931433 26412 net.cpp:139] Memory required for data: 1754800
I0428 19:48:09.931437 26412 layer_factory.hpp:77] Creating layer conv1
I0428 19:48:09.931447 26412 net.cpp:86] Creating Layer conv1
I0428 19:48:09.931450 26412 net.cpp:408] conv1 <- pool0
I0428 19:48:09.931457 26412 net.cpp:382] conv1 -> conv1
I0428 19:48:09.933679 26412 net.cpp:124] Setting up conv1
I0428 19:48:09.933697 26412 net.cpp:131] Top shape: 100 2 8 8 (12800)
I0428 19:48:09.933701 26412 net.cpp:139] Memory required for data: 1806000
I0428 19:48:09.933720 26412 layer_factory.hpp:77] Creating layer pool1
I0428 19:48:09.933727 26412 net.cpp:86] Creating Layer pool1
I0428 19:48:09.933732 26412 net.cpp:408] pool1 <- conv1
I0428 19:48:09.933737 26412 net.cpp:382] pool1 -> pool1
I0428 19:48:09.933782 26412 net.cpp:124] Setting up pool1
I0428 19:48:09.933789 26412 net.cpp:131] Top shape: 100 2 4 4 (3200)
I0428 19:48:09.933792 26412 net.cpp:139] Memory required for data: 1818800
I0428 19:48:09.933795 26412 layer_factory.hpp:77] Creating layer ip1
I0428 19:48:09.933804 26412 net.cpp:86] Creating Layer ip1
I0428 19:48:09.933812 26412 net.cpp:408] ip1 <- pool1
I0428 19:48:09.933820 26412 net.cpp:382] ip1 -> ip1
I0428 19:48:09.933943 26412 net.cpp:124] Setting up ip1
I0428 19:48:09.933953 26412 net.cpp:131] Top shape: 100 25 (2500)
I0428 19:48:09.933966 26412 net.cpp:139] Memory required for data: 1828800
I0428 19:48:09.933975 26412 layer_factory.hpp:77] Creating layer relu1
I0428 19:48:09.933987 26412 net.cpp:86] Creating Layer relu1
I0428 19:48:09.933991 26412 net.cpp:408] relu1 <- ip1
I0428 19:48:09.933995 26412 net.cpp:369] relu1 -> ip1 (in-place)
I0428 19:48:09.934249 26412 net.cpp:124] Setting up relu1
I0428 19:48:09.934260 26412 net.cpp:131] Top shape: 100 25 (2500)
I0428 19:48:09.934263 26412 net.cpp:139] Memory required for data: 1838800
I0428 19:48:09.934267 26412 layer_factory.hpp:77] Creating layer ip2
I0428 19:48:09.934274 26412 net.cpp:86] Creating Layer ip2
I0428 19:48:09.934278 26412 net.cpp:408] ip2 <- ip1
I0428 19:48:09.934284 26412 net.cpp:382] ip2 -> ip2
I0428 19:48:09.934440 26412 net.cpp:124] Setting up ip2
I0428 19:48:09.934449 26412 net.cpp:131] Top shape: 100 50 (5000)
I0428 19:48:09.934453 26412 net.cpp:139] Memory required for data: 1858800
I0428 19:48:09.934458 26412 layer_factory.hpp:77] Creating layer relu2
I0428 19:48:09.934463 26412 net.cpp:86] Creating Layer relu2
I0428 19:48:09.934466 26412 net.cpp:408] relu2 <- ip2
I0428 19:48:09.934473 26412 net.cpp:369] relu2 -> ip2 (in-place)
I0428 19:48:09.934649 26412 net.cpp:124] Setting up relu2
I0428 19:48:09.934658 26412 net.cpp:131] Top shape: 100 50 (5000)
I0428 19:48:09.934669 26412 net.cpp:139] Memory required for data: 1878800
I0428 19:48:09.934672 26412 layer_factory.hpp:77] Creating layer ip3
I0428 19:48:09.934679 26412 net.cpp:86] Creating Layer ip3
I0428 19:48:09.934687 26412 net.cpp:408] ip3 <- ip2
I0428 19:48:09.934695 26412 net.cpp:382] ip3 -> ip3
I0428 19:48:09.934809 26412 net.cpp:124] Setting up ip3
I0428 19:48:09.934816 26412 net.cpp:131] Top shape: 100 10 (1000)
I0428 19:48:09.934819 26412 net.cpp:139] Memory required for data: 1882800
I0428 19:48:09.934828 26412 layer_factory.hpp:77] Creating layer relu3
I0428 19:48:09.934834 26412 net.cpp:86] Creating Layer relu3
I0428 19:48:09.934836 26412 net.cpp:408] relu3 <- ip3
I0428 19:48:09.934841 26412 net.cpp:369] relu3 -> ip3 (in-place)
I0428 19:48:09.935715 26412 net.cpp:124] Setting up relu3
I0428 19:48:09.935729 26412 net.cpp:131] Top shape: 100 10 (1000)
I0428 19:48:09.935732 26412 net.cpp:139] Memory required for data: 1886800
I0428 19:48:09.935735 26412 layer_factory.hpp:77] Creating layer ip3_relu3_0_split
I0428 19:48:09.935742 26412 net.cpp:86] Creating Layer ip3_relu3_0_split
I0428 19:48:09.935746 26412 net.cpp:408] ip3_relu3_0_split <- ip3
I0428 19:48:09.935751 26412 net.cpp:382] ip3_relu3_0_split -> ip3_relu3_0_split_0
I0428 19:48:09.935758 26412 net.cpp:382] ip3_relu3_0_split -> ip3_relu3_0_split_1
I0428 19:48:09.935818 26412 net.cpp:124] Setting up ip3_relu3_0_split
I0428 19:48:09.935824 26412 net.cpp:131] Top shape: 100 10 (1000)
I0428 19:48:09.935828 26412 net.cpp:131] Top shape: 100 10 (1000)
I0428 19:48:09.935837 26412 net.cpp:139] Memory required for data: 1894800
I0428 19:48:09.935842 26412 layer_factory.hpp:77] Creating layer accuracy
I0428 19:48:09.935847 26412 net.cpp:86] Creating Layer accuracy
I0428 19:48:09.935850 26412 net.cpp:408] accuracy <- ip3_relu3_0_split_0
I0428 19:48:09.935855 26412 net.cpp:408] accuracy <- label_mnist_1_split_0
I0428 19:48:09.935861 26412 net.cpp:382] accuracy -> accuracy
…
