…
I0428 19:48:50.006317 26605 net.cpp:296] The NetState phase (0) differed from the phase (1) specified by a rule in layer mnist
I0428 19:48:50.006330 26605 net.cpp:296] The NetState phase (0) differed from the phase (1) specified by a rule in layer accuracy
I0428 19:48:50.006398 26605 net.cpp:53] Initializing net from parameters: 
name: "LeNet"
state {
  phase: TRAIN
  level: 0
  stage: ""
}
layer {
  name: "mnist"
  type: "Data"
  top: "data"
  top: "label"
  include {
    phase: TRAIN
  }
  transform_param {
    scale: 0.00390625
  }
  data_param {
    source: "examples/mnist/mnist_train_lmdb"
    batch_size: 64
    backend: LMDB
  }
}
layer {
  name: "conv0"
  type: "Convolution"
  bottom: "data"
  top: "conv0"
  param {
    lr_mult: 1
  }
  param {
    lr_mult: 2
  }
  convolution_param {
    num_output: 5
    kernel_size: 5
    stride: 1
    weight_filler {
      type: "xavier"
    }
    bias_filler {
      type: "constant"
    }
  }
}
layer {
  name: "pool0"
  type: "Pooling"
  bottom: "conv0"
  top: "pool0"
  pooling_param {
    pool: MAX
    kernel_size: 2
    stride: 2
  }
}
layer {
  name: "conv1"
  type: "Convolution"
  bottom: "pool0"
  top: "conv1"
  param {
    lr_mult: 1
  }
  param {
    lr_mult: 2
  }
  convolution_param {
    num_output: 5
    kernel_size: 5
    stride: 1
    weight_filler {
      type: "xavier"
    }
    bias_filler {
      type: "constant"
    }
  }
}
layer {
  name: "pool1"
  type: "Pooling"
  bottom: "conv1"
  top: "pool1"
  pooling_param {
    pool: MAX
    kernel_size: 2
    stride: 2
  }
}
layer {
  name: "ip1"
  type: "InnerProduct"
  bottom: "pool1"
  top: "ip1"
  param {
    lr_mult: 1
  }
  param {
    lr_mult: 2
  }
  inner_product_param {
    num_output: 50
    weight_filler {
      type: "xavier"
    }
    bias_filler {
      type: "constant"
    }
  }
}
layer {
  name: "relu1"
  type: "ReLU"
  bottom: "ip1"
  top: "ip1"
}
layer {
  name: "ip2"
  type: "InnerProduct"
  bottom: "ip1"
  top: "ip2"
  param {
    lr_mult: 1
  }
  param {
    lr_mult: 2
  }
  inner_product_param {
    num_output: 10
    weight_filler {
      type: "xavier"
    }
    bias_filler {
      type: "constant"
    }
  }
}
layer {
  name: "relu2"
  type: "ReLU"
  bottom: "ip2"
  top: "ip2"
}
layer {
  name: "loss"
  type: "SoftmaxWithLoss"
  bottom: "ip2"
  bottom: "label"
  top: "loss"
}
I0428 19:48:50.006458 26605 layer_factory.hpp:77] Creating layer mnist
I0428 19:48:50.006551 26605 db_lmdb.cpp:35] Opened lmdb examples/mnist/mnist_train_lmdb
I0428 19:48:50.006570 26605 net.cpp:86] Creating Layer mnist
I0428 19:48:50.006577 26605 net.cpp:382] mnist -> data
I0428 19:48:50.006594 26605 net.cpp:382] mnist -> label
I0428 19:48:50.007557 26605 data_layer.cpp:45] output data size: 64,1,28,28
I0428 19:48:50.009742 26605 net.cpp:124] Setting up mnist
I0428 19:48:50.009771 26605 net.cpp:131] Top shape: 64 1 28 28 (50176)
I0428 19:48:50.009776 26605 net.cpp:131] Top shape: 64 (64)
I0428 19:48:50.009779 26605 net.cpp:139] Memory required for data: 200960
I0428 19:48:50.009784 26605 layer_factory.hpp:77] Creating layer conv0
I0428 19:48:50.009809 26605 net.cpp:86] Creating Layer conv0
I0428 19:48:50.009814 26605 net.cpp:408] conv0 <- data
I0428 19:48:50.009840 26605 net.cpp:382] conv0 -> conv0
I0428 19:48:50.245955 26605 net.cpp:124] Setting up conv0
I0428 19:48:50.245980 26605 net.cpp:131] Top shape: 64 5 24 24 (184320)
I0428 19:48:50.245985 26605 net.cpp:139] Memory required for data: 938240
I0428 19:48:50.246016 26605 layer_factory.hpp:77] Creating layer pool0
I0428 19:48:50.246028 26605 net.cpp:86] Creating Layer pool0
I0428 19:48:50.246032 26605 net.cpp:408] pool0 <- conv0
I0428 19:48:50.246037 26605 net.cpp:382] pool0 -> pool0
I0428 19:48:50.246083 26605 net.cpp:124] Setting up pool0
I0428 19:48:50.246089 26605 net.cpp:131] Top shape: 64 5 12 12 (46080)
I0428 19:48:50.246093 26605 net.cpp:139] Memory required for data: 1122560
I0428 19:48:50.246094 26605 layer_factory.hpp:77] Creating layer conv1
I0428 19:48:50.246112 26605 net.cpp:86] Creating Layer conv1
I0428 19:48:50.246115 26605 net.cpp:408] conv1 <- pool0
I0428 19:48:50.246119 26605 net.cpp:382] conv1 -> conv1
I0428 19:48:50.247982 26605 net.cpp:124] Setting up conv1
I0428 19:48:50.247997 26605 net.cpp:131] Top shape: 64 5 8 8 (20480)
I0428 19:48:50.248001 26605 net.cpp:139] Memory required for data: 1204480
I0428 19:48:50.248009 26605 layer_factory.hpp:77] Creating layer pool1
I0428 19:48:50.248018 26605 net.cpp:86] Creating Layer pool1
I0428 19:48:50.248020 26605 net.cpp:408] pool1 <- conv1
I0428 19:48:50.248026 26605 net.cpp:382] pool1 -> pool1
I0428 19:48:50.248064 26605 net.cpp:124] Setting up pool1
I0428 19:48:50.248070 26605 net.cpp:131] Top shape: 64 5 4 4 (5120)
I0428 19:48:50.248073 26605 net.cpp:139] Memory required for data: 1224960
I0428 19:48:50.248076 26605 layer_factory.hpp:77] Creating layer ip1
I0428 19:48:50.248085 26605 net.cpp:86] Creating Layer ip1
I0428 19:48:50.248087 26605 net.cpp:408] ip1 <- pool1
I0428 19:48:50.248092 26605 net.cpp:382] ip1 -> ip1
I0428 19:48:50.249125 26605 net.cpp:124] Setting up ip1
I0428 19:48:50.249138 26605 net.cpp:131] Top shape: 64 50 (3200)
I0428 19:48:50.249141 26605 net.cpp:139] Memory required for data: 1237760
I0428 19:48:50.249150 26605 layer_factory.hpp:77] Creating layer relu1
I0428 19:48:50.249155 26605 net.cpp:86] Creating Layer relu1
I0428 19:48:50.249173 26605 net.cpp:408] relu1 <- ip1
I0428 19:48:50.249178 26605 net.cpp:369] relu1 -> ip1 (in-place)
I0428 19:48:50.249339 26605 net.cpp:124] Setting up relu1
I0428 19:48:50.249347 26605 net.cpp:131] Top shape: 64 50 (3200)
I0428 19:48:50.249351 26605 net.cpp:139] Memory required for data: 1250560
I0428 19:48:50.249353 26605 layer_factory.hpp:77] Creating layer ip2
I0428 19:48:50.249359 26605 net.cpp:86] Creating Layer ip2
I0428 19:48:50.249362 26605 net.cpp:408] ip2 <- ip1
I0428 19:48:50.249367 26605 net.cpp:382] ip2 -> ip2
I0428 19:48:50.249462 26605 net.cpp:124] Setting up ip2
I0428 19:48:50.249470 26605 net.cpp:131] Top shape: 64 10 (640)
I0428 19:48:50.249490 26605 net.cpp:139] Memory required for data: 1253120
I0428 19:48:50.249495 26605 layer_factory.hpp:77] Creating layer relu2
I0428 19:48:50.249500 26605 net.cpp:86] Creating Layer relu2
I0428 19:48:50.249505 26605 net.cpp:408] relu2 <- ip2
I0428 19:48:50.249508 26605 net.cpp:369] relu2 -> ip2 (in-place)
I0428 19:48:50.250223 26605 net.cpp:124] Setting up relu2
I0428 19:48:50.250236 26605 net.cpp:131] Top shape: 64 10 (640)
I0428 19:48:50.250254 26605 net.cpp:139] Memory required for data: 1255680
I0428 19:48:50.250258 26605 layer_factory.hpp:77] Creating layer loss
I0428 19:48:50.250264 26605 net.cpp:86] Creating Layer loss
I0428 19:48:50.250267 26605 net.cpp:408] loss <- ip2
I0428 19:48:50.250272 26605 net.cpp:408] loss <- label
I0428 19:48:50.250277 26605 net.cpp:382] loss -> loss
I0428 19:48:50.250310 26605 layer_factory.hpp:77] Creating layer loss
…
I0428 19:48:50.251102 26605 solver.cpp:173] Creating test net (#0) specified by net file: ECE595/mnist/train_test/var_everything2/lenet_train_test556.prototxt
I0428 19:48:50.251128 26605 net.cpp:296] The NetState phase (1) differed from the phase (0) specified by a rule in layer mnist
I0428 19:48:50.251235 26605 net.cpp:53] Initializing net from parameters: 
name: "LeNet"
state {
  phase: TEST
}
layer {
  name: "mnist"
  type: "Data"
  top: "data"
  top: "label"
  include {
    phase: TEST
  }
  transform_param {
    scale: 0.00390625
  }
  data_param {
    source: "examples/mnist/mnist_test_lmdb"
    batch_size: 100
    backend: LMDB
  }
}
layer {
  name: "conv0"
  type: "Convolution"
  bottom: "data"
  top: "conv0"
  param {
    lr_mult: 1
  }
  param {
    lr_mult: 2
  }
  convolution_param {
    num_output: 5
    kernel_size: 5
    stride: 1
    weight_filler {
      type: "xavier"
    }
    bias_filler {
      type: "constant"
    }
  }
}
layer {
  name: "pool0"
  type: "Pooling"
  bottom: "conv0"
  top: "pool0"
  pooling_param {
    pool: MAX
    kernel_size: 2
    stride: 2
  }
}
layer {
  name: "conv1"
  type: "Convolution"
  bottom: "pool0"
  top: "conv1"
  param {
    lr_mult: 1
  }
  param {
    lr_mult: 2
  }
  convolution_param {
    num_output: 5
    kernel_size: 5
    stride: 1
    weight_filler {
      type: "xavier"
    }
    bias_filler {
      type: "constant"
    }
  }
}
layer {
  name: "pool1"
  type: "Pooling"
  bottom: "conv1"
  top: "pool1"
  pooling_param {
    pool: MAX
    kernel_size: 2
    stride: 2
  }
}
layer {
  name: "ip1"
  type: "InnerProduct"
  bottom: "pool1"
  top: "ip1"
  param {
    lr_mult: 1
  }
  param {
    lr_mult: 2
  }
  inner_product_param {
    num_output: 50
    weight_filler {
      type: "xavier"
    }
    bias_filler {
      type: "constant"
    }
  }
}
layer {
  name: "relu1"
  type: "ReLU"
  bottom: "ip1"
  top: "ip1"
}
layer {
  name: "ip2"
  type: "InnerProduct"
  bottom: "ip1"
  top: "ip2"
  param {
    lr_mult: 1
  }
  param {
    lr_mult: 2
  }
  inner_product_param {
    num_output: 10
    weight_filler {
      type: "xavier"
    }
    bias_filler {
      type: "constant"
    }
  }
}
layer {
  name: "relu2"
  type: "ReLU"
  bottom: "ip2"
  top: "ip2"
}
layer {
  name: "accuracy"
  type: "Accuracy"
  bottom: "ip2"
  bottom: "label"
  top: "accuracy"
  include {
    phase: TEST
  }
}
layer {
  name: "loss"
  type: "SoftmaxWithLoss"
  bottom: "ip2"
  bottom: "label"
  top: "loss"
}
I0428 19:48:50.251318 26605 layer_factory.hpp:77] Creating layer mnist
I0428 19:48:50.251379 26605 db_lmdb.cpp:35] Opened lmdb examples/mnist/mnist_test_lmdb
I0428 19:48:50.251394 26605 net.cpp:86] Creating Layer mnist
I0428 19:48:50.251399 26605 net.cpp:382] mnist -> data
I0428 19:48:50.251407 26605 net.cpp:382] mnist -> label
I0428 19:48:50.251513 26605 data_layer.cpp:45] output data size: 100,1,28,28
I0428 19:48:50.253448 26605 net.cpp:124] Setting up mnist
I0428 19:48:50.253461 26605 net.cpp:131] Top shape: 100 1 28 28 (78400)
I0428 19:48:50.253481 26605 net.cpp:131] Top shape: 100 (100)
I0428 19:48:50.253484 26605 net.cpp:139] Memory required for data: 314000
I0428 19:48:50.253487 26605 layer_factory.hpp:77] Creating layer label_mnist_1_split
I0428 19:48:50.253494 26605 net.cpp:86] Creating Layer label_mnist_1_split
I0428 19:48:50.253497 26605 net.cpp:408] label_mnist_1_split <- label
I0428 19:48:50.253504 26605 net.cpp:382] label_mnist_1_split -> label_mnist_1_split_0
I0428 19:48:50.253509 26605 net.cpp:382] label_mnist_1_split -> label_mnist_1_split_1
I0428 19:48:50.253588 26605 net.cpp:124] Setting up label_mnist_1_split
I0428 19:48:50.253605 26605 net.cpp:131] Top shape: 100 (100)
I0428 19:48:50.253609 26605 net.cpp:131] Top shape: 100 (100)
I0428 19:48:50.253612 26605 net.cpp:139] Memory required for data: 314800
I0428 19:48:50.253615 26605 layer_factory.hpp:77] Creating layer conv0
I0428 19:48:50.253625 26605 net.cpp:86] Creating Layer conv0
I0428 19:48:50.253630 26605 net.cpp:408] conv0 <- data
I0428 19:48:50.253635 26605 net.cpp:382] conv0 -> conv0
I0428 19:48:50.255338 26605 net.cpp:124] Setting up conv0
I0428 19:48:50.255368 26605 net.cpp:131] Top shape: 100 5 24 24 (288000)
I0428 19:48:50.255373 26605 net.cpp:139] Memory required for data: 1466800
I0428 19:48:50.255381 26605 layer_factory.hpp:77] Creating layer pool0
I0428 19:48:50.255388 26605 net.cpp:86] Creating Layer pool0
I0428 19:48:50.255390 26605 net.cpp:408] pool0 <- conv0
I0428 19:48:50.255396 26605 net.cpp:382] pool0 -> pool0
I0428 19:48:50.255446 26605 net.cpp:124] Setting up pool0
I0428 19:48:50.255455 26605 net.cpp:131] Top shape: 100 5 12 12 (72000)
I0428 19:48:50.255457 26605 net.cpp:139] Memory required for data: 1754800
I0428 19:48:50.255460 26605 layer_factory.hpp:77] Creating layer conv1
I0428 19:48:50.255470 26605 net.cpp:86] Creating Layer conv1
I0428 19:48:50.255476 26605 net.cpp:408] conv1 <- pool0
I0428 19:48:50.255497 26605 net.cpp:382] conv1 -> conv1
I0428 19:48:50.257697 26605 net.cpp:124] Setting up conv1
I0428 19:48:50.257712 26605 net.cpp:131] Top shape: 100 5 8 8 (32000)
I0428 19:48:50.257735 26605 net.cpp:139] Memory required for data: 1882800
I0428 19:48:50.257758 26605 layer_factory.hpp:77] Creating layer pool1
I0428 19:48:50.257766 26605 net.cpp:86] Creating Layer pool1
I0428 19:48:50.257769 26605 net.cpp:408] pool1 <- conv1
I0428 19:48:50.257774 26605 net.cpp:382] pool1 -> pool1
I0428 19:48:50.257819 26605 net.cpp:124] Setting up pool1
I0428 19:48:50.257827 26605 net.cpp:131] Top shape: 100 5 4 4 (8000)
I0428 19:48:50.257829 26605 net.cpp:139] Memory required for data: 1914800
I0428 19:48:50.257833 26605 layer_factory.hpp:77] Creating layer ip1
I0428 19:48:50.257838 26605 net.cpp:86] Creating Layer ip1
I0428 19:48:50.257840 26605 net.cpp:408] ip1 <- pool1
I0428 19:48:50.257846 26605 net.cpp:382] ip1 -> ip1
I0428 19:48:50.258016 26605 net.cpp:124] Setting up ip1
I0428 19:48:50.258025 26605 net.cpp:131] Top shape: 100 50 (5000)
I0428 19:48:50.258028 26605 net.cpp:139] Memory required for data: 1934800
I0428 19:48:50.258035 26605 layer_factory.hpp:77] Creating layer relu1
I0428 19:48:50.258044 26605 net.cpp:86] Creating Layer relu1
I0428 19:48:50.258064 26605 net.cpp:408] relu1 <- ip1
I0428 19:48:50.258069 26605 net.cpp:369] relu1 -> ip1 (in-place)
I0428 19:48:50.258245 26605 net.cpp:124] Setting up relu1
I0428 19:48:50.258255 26605 net.cpp:131] Top shape: 100 50 (5000)
I0428 19:48:50.258258 26605 net.cpp:139] Memory required for data: 1954800
I0428 19:48:50.258262 26605 layer_factory.hpp:77] Creating layer ip2
I0428 19:48:50.258270 26605 net.cpp:86] Creating Layer ip2
I0428 19:48:50.258275 26605 net.cpp:408] ip2 <- ip1
I0428 19:48:50.258280 26605 net.cpp:382] ip2 -> ip2
I0428 19:48:50.258406 26605 net.cpp:124] Setting up ip2
I0428 19:48:50.258414 26605 net.cpp:131] Top shape: 100 10 (1000)
I0428 19:48:50.258415 26605 net.cpp:139] Memory required for data: 1958800
I0428 19:48:50.258421 26605 layer_factory.hpp:77] Creating layer relu2
I0428 19:48:50.258426 26605 net.cpp:86] Creating Layer relu2
I0428 19:48:50.258430 26605 net.cpp:408] relu2 <- ip2
I0428 19:48:50.258435 26605 net.cpp:369] relu2 -> ip2 (in-place)
I0428 19:48:50.258591 26605 net.cpp:124] Setting up relu2
I0428 19:48:50.258599 26605 net.cpp:131] Top shape: 100 10 (1000)
I0428 19:48:50.258602 26605 net.cpp:139] Memory required for data: 1962800
I0428 19:48:50.258605 26605 layer_factory.hpp:77] Creating layer ip2_relu2_0_split
I0428 19:48:50.258611 26605 net.cpp:86] Creating Layer ip2_relu2_0_split
I0428 19:48:50.258615 26605 net.cpp:408] ip2_relu2_0_split <- ip2
I0428 19:48:50.258620 26605 net.cpp:382] ip2_relu2_0_split -> ip2_relu2_0_split_0
I0428 19:48:50.258636 26605 net.cpp:382] ip2_relu2_0_split -> ip2_relu2_0_split_1
I0428 19:48:50.258672 26605 net.cpp:124] Setting up ip2_relu2_0_split
I0428 19:48:50.258678 26605 net.cpp:131] Top shape: 100 10 (1000)
I0428 19:48:50.258682 26605 net.cpp:131] Top shape: 100 10 (1000)
I0428 19:48:50.258684 26605 net.cpp:139] Memory required for data: 1970800
I0428 19:48:50.258687 26605 layer_factory.hpp:77] Creating layer accuracy
I0428 19:48:50.258694 26605 net.cpp:86] Creating Layer accuracy
I0428 19:48:50.258700 26605 net.cpp:408] accuracy <- ip2_relu2_0_split_0
I0428 19:48:50.258719 26605 net.cpp:408] accuracy <- label_mnist_1_split_0
I0428 19:48:50.258724 26605 net.cpp:382] accuracy -> accuracy
…
