…
I0428 19:55:09.649595 28128 net.cpp:296] The NetState phase (0) differed from the phase (1) specified by a rule in layer mnist
I0428 19:55:09.649626 28128 net.cpp:296] The NetState phase (0) differed from the phase (1) specified by a rule in layer accuracy
I0428 19:55:09.649716 28128 net.cpp:53] Initializing net from parameters: 
name: "LeNet"
state {
  phase: TRAIN
  level: 0
  stage: ""
}
layer {
  name: "mnist"
  type: "Data"
  top: "data"
  top: "label"
  include {
    phase: TRAIN
  }
  transform_param {
    scale: 0.00390625
  }
  data_param {
    source: "examples/mnist/mnist_train_lmdb"
    batch_size: 64
    backend: LMDB
  }
}
layer {
  name: "conv0"
  type: "Convolution"
  bottom: "data"
  top: "conv0"
  param {
    lr_mult: 1
  }
  param {
    lr_mult: 2
  }
  convolution_param {
    num_output: 5
    kernel_size: 5
    stride: 1
    weight_filler {
      type: "xavier"
    }
    bias_filler {
      type: "constant"
    }
  }
}
layer {
  name: "pool0"
  type: "Pooling"
  bottom: "conv0"
  top: "pool0"
  pooling_param {
    pool: MAX
    kernel_size: 2
    stride: 2
  }
}
layer {
  name: "conv1"
  type: "Convolution"
  bottom: "pool0"
  top: "conv1"
  param {
    lr_mult: 1
  }
  param {
    lr_mult: 2
  }
  convolution_param {
    num_output: 100
    kernel_size: 5
    stride: 1
    weight_filler {
      type: "xavier"
    }
    bias_filler {
      type: "constant"
    }
  }
}
layer {
  name: "pool1"
  type: "Pooling"
  bottom: "conv1"
  top: "pool1"
  pooling_param {
    pool: MAX
    kernel_size: 2
    stride: 2
  }
}
layer {
  name: "ip1"
  type: "InnerProduct"
  bottom: "pool1"
  top: "ip1"
  param {
    lr_mult: 1
  }
  param {
    lr_mult: 2
  }
  inner_product_param {
    num_output: 25
    weight_filler {
      type: "xavier"
    }
    bias_filler {
      type: "constant"
    }
  }
}
layer {
  name: "relu1"
  type: "ReLU"
  bottom: "ip1"
  top: "ip1"
}
layer {
  name: "ip2"
  type: "InnerProduct"
  bottom: "ip1"
  top: "ip2"
  param {
    lr_mult: 1
  }
  param {
    lr_mult: 2
  }
  inner_product_param {
    num_output: 25
    weight_filler {
      type: "xavier"
    }
    bias_filler {
      type: "constant"
    }
  }
}
layer {
  name: "relu2"
  type: "ReLU"
  bottom: "ip2"
  top: "ip2"
}
layer {
  name: "ip3"
  type: "InnerProduct"
  bottom: "ip2"
  top: "ip3"
  param {
    lr_mult: 1
  }
  param {
    lr_mult: 2
  }
  inner_product_param {
    num_output: 10
    weight_filler {
      type: "xavier"
    }
    bias_filler {
      type: "constant"
    }
  }
}
layer {
  name: "relu3"
  type: "ReLU"
  bottom: "ip3"
  top: "ip3"
}
layer {
  name: "loss"
  type: "SoftmaxWithLoss"
  bottom: "ip3"
  bottom: "label"
  top: "loss"
}
I0428 19:55:09.649773 28128 layer_factory.hpp:77] Creating layer mnist
I0428 19:55:09.649853 28128 db_lmdb.cpp:35] Opened lmdb examples/mnist/mnist_train_lmdb
I0428 19:55:09.649871 28128 net.cpp:86] Creating Layer mnist
I0428 19:55:09.649878 28128 net.cpp:382] mnist -> data
I0428 19:55:09.649895 28128 net.cpp:382] mnist -> label
I0428 19:55:09.650784 28128 data_layer.cpp:45] output data size: 64,1,28,28
I0428 19:55:09.652946 28128 net.cpp:124] Setting up mnist
I0428 19:55:09.652961 28128 net.cpp:131] Top shape: 64 1 28 28 (50176)
I0428 19:55:09.652966 28128 net.cpp:131] Top shape: 64 (64)
I0428 19:55:09.652969 28128 net.cpp:139] Memory required for data: 200960
I0428 19:55:09.652989 28128 layer_factory.hpp:77] Creating layer conv0
I0428 19:55:09.653002 28128 net.cpp:86] Creating Layer conv0
I0428 19:55:09.653020 28128 net.cpp:408] conv0 <- data
I0428 19:55:09.653029 28128 net.cpp:382] conv0 -> conv0
I0428 19:55:09.879441 28128 net.cpp:124] Setting up conv0
I0428 19:55:09.879467 28128 net.cpp:131] Top shape: 64 5 24 24 (184320)
I0428 19:55:09.879470 28128 net.cpp:139] Memory required for data: 938240
I0428 19:55:09.879484 28128 layer_factory.hpp:77] Creating layer pool0
I0428 19:55:09.879497 28128 net.cpp:86] Creating Layer pool0
I0428 19:55:09.879500 28128 net.cpp:408] pool0 <- conv0
I0428 19:55:09.879505 28128 net.cpp:382] pool0 -> pool0
I0428 19:55:09.879562 28128 net.cpp:124] Setting up pool0
I0428 19:55:09.879567 28128 net.cpp:131] Top shape: 64 5 12 12 (46080)
I0428 19:55:09.879570 28128 net.cpp:139] Memory required for data: 1122560
I0428 19:55:09.879573 28128 layer_factory.hpp:77] Creating layer conv1
I0428 19:55:09.879583 28128 net.cpp:86] Creating Layer conv1
I0428 19:55:09.879595 28128 net.cpp:408] conv1 <- pool0
I0428 19:55:09.879600 28128 net.cpp:382] conv1 -> conv1
I0428 19:55:09.882328 28128 net.cpp:124] Setting up conv1
I0428 19:55:09.882359 28128 net.cpp:131] Top shape: 64 100 8 8 (409600)
I0428 19:55:09.882364 28128 net.cpp:139] Memory required for data: 2760960
I0428 19:55:09.882372 28128 layer_factory.hpp:77] Creating layer pool1
I0428 19:55:09.882395 28128 net.cpp:86] Creating Layer pool1
I0428 19:55:09.882398 28128 net.cpp:408] pool1 <- conv1
I0428 19:55:09.882403 28128 net.cpp:382] pool1 -> pool1
I0428 19:55:09.882454 28128 net.cpp:124] Setting up pool1
I0428 19:55:09.882460 28128 net.cpp:131] Top shape: 64 100 4 4 (102400)
I0428 19:55:09.882462 28128 net.cpp:139] Memory required for data: 3170560
I0428 19:55:09.882467 28128 layer_factory.hpp:77] Creating layer ip1
I0428 19:55:09.882472 28128 net.cpp:86] Creating Layer ip1
I0428 19:55:09.882475 28128 net.cpp:408] ip1 <- pool1
I0428 19:55:09.882480 28128 net.cpp:382] ip1 -> ip1
I0428 19:55:09.882824 28128 net.cpp:124] Setting up ip1
I0428 19:55:09.882832 28128 net.cpp:131] Top shape: 64 25 (1600)
I0428 19:55:09.882850 28128 net.cpp:139] Memory required for data: 3176960
I0428 19:55:09.882858 28128 layer_factory.hpp:77] Creating layer relu1
I0428 19:55:09.882863 28128 net.cpp:86] Creating Layer relu1
I0428 19:55:09.882865 28128 net.cpp:408] relu1 <- ip1
I0428 19:55:09.882869 28128 net.cpp:369] relu1 -> ip1 (in-place)
I0428 19:55:09.883047 28128 net.cpp:124] Setting up relu1
I0428 19:55:09.883056 28128 net.cpp:131] Top shape: 64 25 (1600)
I0428 19:55:09.883059 28128 net.cpp:139] Memory required for data: 3183360
I0428 19:55:09.883062 28128 layer_factory.hpp:77] Creating layer ip2
I0428 19:55:09.883069 28128 net.cpp:86] Creating Layer ip2
I0428 19:55:09.883072 28128 net.cpp:408] ip2 <- ip1
I0428 19:55:09.883077 28128 net.cpp:382] ip2 -> ip2
I0428 19:55:09.883172 28128 net.cpp:124] Setting up ip2
I0428 19:55:09.883179 28128 net.cpp:131] Top shape: 64 25 (1600)
I0428 19:55:09.883183 28128 net.cpp:139] Memory required for data: 3189760
I0428 19:55:09.883188 28128 layer_factory.hpp:77] Creating layer relu2
I0428 19:55:09.883193 28128 net.cpp:86] Creating Layer relu2
I0428 19:55:09.883196 28128 net.cpp:408] relu2 <- ip2
I0428 19:55:09.883200 28128 net.cpp:369] relu2 -> ip2 (in-place)
I0428 19:55:09.883920 28128 net.cpp:124] Setting up relu2
I0428 19:55:09.883932 28128 net.cpp:131] Top shape: 64 25 (1600)
I0428 19:55:09.883951 28128 net.cpp:139] Memory required for data: 3196160
I0428 19:55:09.883955 28128 layer_factory.hpp:77] Creating layer ip3
I0428 19:55:09.883961 28128 net.cpp:86] Creating Layer ip3
I0428 19:55:09.883965 28128 net.cpp:408] ip3 <- ip2
I0428 19:55:09.883970 28128 net.cpp:382] ip3 -> ip3
I0428 19:55:09.884065 28128 net.cpp:124] Setting up ip3
I0428 19:55:09.884073 28128 net.cpp:131] Top shape: 64 10 (640)
I0428 19:55:09.884075 28128 net.cpp:139] Memory required for data: 3198720
I0428 19:55:09.884083 28128 layer_factory.hpp:77] Creating layer relu3
I0428 19:55:09.884088 28128 net.cpp:86] Creating Layer relu3
I0428 19:55:09.884090 28128 net.cpp:408] relu3 <- ip3
I0428 19:55:09.884094 28128 net.cpp:369] relu3 -> ip3 (in-place)
I0428 19:55:09.884255 28128 net.cpp:124] Setting up relu3
I0428 19:55:09.884263 28128 net.cpp:131] Top shape: 64 10 (640)
I0428 19:55:09.884268 28128 net.cpp:139] Memory required for data: 3201280
I0428 19:55:09.884270 28128 layer_factory.hpp:77] Creating layer loss
I0428 19:55:09.884275 28128 net.cpp:86] Creating Layer loss
I0428 19:55:09.884279 28128 net.cpp:408] loss <- ip3
I0428 19:55:09.884282 28128 net.cpp:408] loss <- label
I0428 19:55:09.884287 28128 net.cpp:382] loss -> loss
I0428 19:55:09.884305 28128 layer_factory.hpp:77] Creating layer loss
…
I0428 19:55:09.884989 28128 solver.cpp:173] Creating test net (#0) specified by net file: ECE595/mnist/train_test/var_everything2/lenet_train_test726.prototxt
I0428 19:55:09.885046 28128 net.cpp:296] The NetState phase (1) differed from the phase (0) specified by a rule in layer mnist
I0428 19:55:09.885140 28128 net.cpp:53] Initializing net from parameters: 
name: "LeNet"
state {
  phase: TEST
}
layer {
  name: "mnist"
  type: "Data"
  top: "data"
  top: "label"
  include {
    phase: TEST
  }
  transform_param {
    scale: 0.00390625
  }
  data_param {
    source: "examples/mnist/mnist_test_lmdb"
    batch_size: 100
    backend: LMDB
  }
}
layer {
  name: "conv0"
  type: "Convolution"
  bottom: "data"
  top: "conv0"
  param {
    lr_mult: 1
  }
  param {
    lr_mult: 2
  }
  convolution_param {
    num_output: 5
    kernel_size: 5
    stride: 1
    weight_filler {
      type: "xavier"
    }
    bias_filler {
      type: "constant"
    }
  }
}
layer {
  name: "pool0"
  type: "Pooling"
  bottom: "conv0"
  top: "pool0"
  pooling_param {
    pool: MAX
    kernel_size: 2
    stride: 2
  }
}
layer {
  name: "conv1"
  type: "Convolution"
  bottom: "pool0"
  top: "conv1"
  param {
    lr_mult: 1
  }
  param {
    lr_mult: 2
  }
  convolution_param {
    num_output: 100
    kernel_size: 5
    stride: 1
    weight_filler {
      type: "xavier"
    }
    bias_filler {
      type: "constant"
    }
  }
}
layer {
  name: "pool1"
  type: "Pooling"
  bottom: "conv1"
  top: "pool1"
  pooling_param {
    pool: MAX
    kernel_size: 2
    stride: 2
  }
}
layer {
  name: "ip1"
  type: "InnerProduct"
  bottom: "pool1"
  top: "ip1"
  param {
    lr_mult: 1
  }
  param {
    lr_mult: 2
  }
  inner_product_param {
    num_output: 25
    weight_filler {
      type: "xavier"
    }
    bias_filler {
      type: "constant"
    }
  }
}
layer {
  name: "relu1"
  type: "ReLU"
  bottom: "ip1"
  top: "ip1"
}
layer {
  name: "ip2"
  type: "InnerProduct"
  bottom: "ip1"
  top: "ip2"
  param {
    lr_mult: 1
  }
  param {
    lr_mult: 2
  }
  inner_product_param {
    num_output: 25
    weight_filler {
      type: "xavier"
    }
    bias_filler {
      type: "constant"
    }
  }
}
layer {
  name: "relu2"
  type: "ReLU"
  bottom: "ip2"
  top: "ip2"
}
layer {
  name: "ip3"
  type: "InnerProduct"
  bottom: "ip2"
  top: "ip3"
  param {
    lr_mult: 1
  }
  param {
    lr_mult: 2
  }
  inner_product_param {
    num_output: 10
    weight_filler {
      type: "xavier"
    }
    bias_filler {
      type: "constant"
    }
  }
}
layer {
  name: "relu3"
  type: "ReLU"
  bottom: "ip3"
  top: "ip3"
}
layer {
  name: "accuracy"
  type: "Accuracy"
  bottom: "ip3"
  bottom: "label"
  top: "accuracy"
  include {
    phase: TEST
  }
}
layer {
  name: "loss"
  type: "SoftmaxWithLoss"
  bottom: "ip3"
  bottom: "label"
  top: "loss"
}
I0428 19:55:09.885262 28128 layer_factory.hpp:77] Creating layer mnist
I0428 19:55:09.885304 28128 db_lmdb.cpp:35] Opened lmdb examples/mnist/mnist_test_lmdb
I0428 19:55:09.885318 28128 net.cpp:86] Creating Layer mnist
I0428 19:55:09.885321 28128 net.cpp:382] mnist -> data
I0428 19:55:09.885329 28128 net.cpp:382] mnist -> label
I0428 19:55:09.885432 28128 data_layer.cpp:45] output data size: 100,1,28,28
I0428 19:55:09.887416 28128 net.cpp:124] Setting up mnist
I0428 19:55:09.887445 28128 net.cpp:131] Top shape: 100 1 28 28 (78400)
I0428 19:55:09.887450 28128 net.cpp:131] Top shape: 100 (100)
I0428 19:55:09.887454 28128 net.cpp:139] Memory required for data: 314000
I0428 19:55:09.887459 28128 layer_factory.hpp:77] Creating layer label_mnist_1_split
I0428 19:55:09.887495 28128 net.cpp:86] Creating Layer label_mnist_1_split
I0428 19:55:09.887498 28128 net.cpp:408] label_mnist_1_split <- label
I0428 19:55:09.887503 28128 net.cpp:382] label_mnist_1_split -> label_mnist_1_split_0
I0428 19:55:09.887511 28128 net.cpp:382] label_mnist_1_split -> label_mnist_1_split_1
I0428 19:55:09.887552 28128 net.cpp:124] Setting up label_mnist_1_split
I0428 19:55:09.887557 28128 net.cpp:131] Top shape: 100 (100)
I0428 19:55:09.887562 28128 net.cpp:131] Top shape: 100 (100)
I0428 19:55:09.887563 28128 net.cpp:139] Memory required for data: 314800
I0428 19:55:09.887567 28128 layer_factory.hpp:77] Creating layer conv0
I0428 19:55:09.887574 28128 net.cpp:86] Creating Layer conv0
I0428 19:55:09.887578 28128 net.cpp:408] conv0 <- data
I0428 19:55:09.887583 28128 net.cpp:382] conv0 -> conv0
I0428 19:55:09.889412 28128 net.cpp:124] Setting up conv0
I0428 19:55:09.889437 28128 net.cpp:131] Top shape: 100 5 24 24 (288000)
I0428 19:55:09.889441 28128 net.cpp:139] Memory required for data: 1466800
I0428 19:55:09.889448 28128 layer_factory.hpp:77] Creating layer pool0
I0428 19:55:09.889456 28128 net.cpp:86] Creating Layer pool0
I0428 19:55:09.889458 28128 net.cpp:408] pool0 <- conv0
I0428 19:55:09.889462 28128 net.cpp:382] pool0 -> pool0
I0428 19:55:09.889499 28128 net.cpp:124] Setting up pool0
I0428 19:55:09.889503 28128 net.cpp:131] Top shape: 100 5 12 12 (72000)
I0428 19:55:09.889506 28128 net.cpp:139] Memory required for data: 1754800
I0428 19:55:09.889508 28128 layer_factory.hpp:77] Creating layer conv1
I0428 19:55:09.889518 28128 net.cpp:86] Creating Layer conv1
I0428 19:55:09.889520 28128 net.cpp:408] conv1 <- pool0
I0428 19:55:09.889525 28128 net.cpp:382] conv1 -> conv1
I0428 19:55:09.891115 28128 net.cpp:124] Setting up conv1
I0428 19:55:09.891129 28128 net.cpp:131] Top shape: 100 100 8 8 (640000)
I0428 19:55:09.891134 28128 net.cpp:139] Memory required for data: 4314800
I0428 19:55:09.891140 28128 layer_factory.hpp:77] Creating layer pool1
I0428 19:55:09.891146 28128 net.cpp:86] Creating Layer pool1
I0428 19:55:09.891150 28128 net.cpp:408] pool1 <- conv1
I0428 19:55:09.891155 28128 net.cpp:382] pool1 -> pool1
I0428 19:55:09.891191 28128 net.cpp:124] Setting up pool1
I0428 19:55:09.891196 28128 net.cpp:131] Top shape: 100 100 4 4 (160000)
I0428 19:55:09.891206 28128 net.cpp:139] Memory required for data: 4954800
I0428 19:55:09.891209 28128 layer_factory.hpp:77] Creating layer ip1
I0428 19:55:09.891222 28128 net.cpp:86] Creating Layer ip1
I0428 19:55:09.891224 28128 net.cpp:408] ip1 <- pool1
I0428 19:55:09.891233 28128 net.cpp:382] ip1 -> ip1
I0428 19:55:09.891564 28128 net.cpp:124] Setting up ip1
I0428 19:55:09.891571 28128 net.cpp:131] Top shape: 100 25 (2500)
I0428 19:55:09.891583 28128 net.cpp:139] Memory required for data: 4964800
I0428 19:55:09.891592 28128 layer_factory.hpp:77] Creating layer relu1
I0428 19:55:09.891597 28128 net.cpp:86] Creating Layer relu1
I0428 19:55:09.891599 28128 net.cpp:408] relu1 <- ip1
I0428 19:55:09.891603 28128 net.cpp:369] relu1 -> ip1 (in-place)
I0428 19:55:09.891846 28128 net.cpp:124] Setting up relu1
I0428 19:55:09.891855 28128 net.cpp:131] Top shape: 100 25 (2500)
I0428 19:55:09.891858 28128 net.cpp:139] Memory required for data: 4974800
I0428 19:55:09.891861 28128 layer_factory.hpp:77] Creating layer ip2
I0428 19:55:09.891867 28128 net.cpp:86] Creating Layer ip2
I0428 19:55:09.891870 28128 net.cpp:408] ip2 <- ip1
I0428 19:55:09.891876 28128 net.cpp:382] ip2 -> ip2
I0428 19:55:09.891975 28128 net.cpp:124] Setting up ip2
I0428 19:55:09.891981 28128 net.cpp:131] Top shape: 100 25 (2500)
I0428 19:55:09.891984 28128 net.cpp:139] Memory required for data: 4984800
I0428 19:55:09.891989 28128 layer_factory.hpp:77] Creating layer relu2
I0428 19:55:09.892000 28128 net.cpp:86] Creating Layer relu2
I0428 19:55:09.892009 28128 net.cpp:408] relu2 <- ip2
I0428 19:55:09.892012 28128 net.cpp:369] relu2 -> ip2 (in-place)
I0428 19:55:09.892170 28128 net.cpp:124] Setting up relu2
I0428 19:55:09.892179 28128 net.cpp:131] Top shape: 100 25 (2500)
I0428 19:55:09.892182 28128 net.cpp:139] Memory required for data: 4994800
I0428 19:55:09.892186 28128 layer_factory.hpp:77] Creating layer ip3
I0428 19:55:09.892192 28128 net.cpp:86] Creating Layer ip3
I0428 19:55:09.892195 28128 net.cpp:408] ip3 <- ip2
I0428 19:55:09.892201 28128 net.cpp:382] ip3 -> ip3
I0428 19:55:09.892302 28128 net.cpp:124] Setting up ip3
I0428 19:55:09.892307 28128 net.cpp:131] Top shape: 100 10 (1000)
I0428 19:55:09.892309 28128 net.cpp:139] Memory required for data: 4998800
I0428 19:55:09.892316 28128 layer_factory.hpp:77] Creating layer relu3
I0428 19:55:09.892328 28128 net.cpp:86] Creating Layer relu3
I0428 19:55:09.892329 28128 net.cpp:408] relu3 <- ip3
I0428 19:55:09.892334 28128 net.cpp:369] relu3 -> ip3 (in-place)
I0428 19:55:09.893172 28128 net.cpp:124] Setting up relu3
I0428 19:55:09.893183 28128 net.cpp:131] Top shape: 100 10 (1000)
I0428 19:55:09.893187 28128 net.cpp:139] Memory required for data: 5002800
I0428 19:55:09.893190 28128 layer_factory.hpp:77] Creating layer ip3_relu3_0_split
I0428 19:55:09.893210 28128 net.cpp:86] Creating Layer ip3_relu3_0_split
I0428 19:55:09.893213 28128 net.cpp:408] ip3_relu3_0_split <- ip3
I0428 19:55:09.893219 28128 net.cpp:382] ip3_relu3_0_split -> ip3_relu3_0_split_0
I0428 19:55:09.893224 28128 net.cpp:382] ip3_relu3_0_split -> ip3_relu3_0_split_1
I0428 19:55:09.893267 28128 net.cpp:124] Setting up ip3_relu3_0_split
I0428 19:55:09.893275 28128 net.cpp:131] Top shape: 100 10 (1000)
I0428 19:55:09.893277 28128 net.cpp:131] Top shape: 100 10 (1000)
I0428 19:55:09.893280 28128 net.cpp:139] Memory required for data: 5010800
I0428 19:55:09.893283 28128 layer_factory.hpp:77] Creating layer accuracy
I0428 19:55:09.893288 28128 net.cpp:86] Creating Layer accuracy
I0428 19:55:09.893291 28128 net.cpp:408] accuracy <- ip3_relu3_0_split_0
I0428 19:55:09.893301 28128 net.cpp:408] accuracy <- label_mnist_1_split_0
I0428 19:55:09.893306 28128 net.cpp:382] accuracy -> accuracy
…
