…
I0428 20:26:33.817332  2834 net.cpp:296] The NetState phase (0) differed from the phase (1) specified by a rule in layer mnist
I0428 20:26:33.817351  2834 net.cpp:296] The NetState phase (0) differed from the phase (1) specified by a rule in layer accuracy
I0428 20:26:33.817453  2834 net.cpp:53] Initializing net from parameters: 
name: "LeNet"
state {
  phase: TRAIN
  level: 0
  stage: ""
}
layer {
  name: "mnist"
  type: "Data"
  top: "data"
  top: "label"
  include {
    phase: TRAIN
  }
  transform_param {
    scale: 0.00390625
  }
  data_param {
    source: "examples/mnist/mnist_train_lmdb"
    batch_size: 64
    backend: LMDB
  }
}
layer {
  name: "conv0"
  type: "Convolution"
  bottom: "data"
  top: "conv0"
  param {
    lr_mult: 1
  }
  param {
    lr_mult: 2
  }
  convolution_param {
    num_output: 100
    kernel_size: 5
    stride: 1
    weight_filler {
      type: "xavier"
    }
    bias_filler {
      type: "constant"
    }
  }
}
layer {
  name: "pool0"
  type: "Pooling"
  bottom: "conv0"
  top: "pool0"
  pooling_param {
    pool: MAX
    kernel_size: 2
    stride: 2
  }
}
layer {
  name: "conv1"
  type: "Convolution"
  bottom: "pool0"
  top: "conv1"
  param {
    lr_mult: 1
  }
  param {
    lr_mult: 2
  }
  convolution_param {
    num_output: 2
    kernel_size: 5
    stride: 1
    weight_filler {
      type: "xavier"
    }
    bias_filler {
      type: "constant"
    }
  }
}
layer {
  name: "pool1"
  type: "Pooling"
  bottom: "conv1"
  top: "pool1"
  pooling_param {
    pool: MAX
    kernel_size: 2
    stride: 2
  }
}
layer {
  name: "ip1"
  type: "InnerProduct"
  bottom: "pool1"
  top: "ip1"
  param {
    lr_mult: 1
  }
  param {
    lr_mult: 2
  }
  inner_product_param {
    num_output: 50
    weight_filler {
      type: "xavier"
    }
    bias_filler {
      type: "constant"
    }
  }
}
layer {
  name: "relu1"
  type: "ReLU"
  bottom: "ip1"
  top: "ip1"
}
layer {
  name: "ip2"
  type: "InnerProduct"
  bottom: "ip1"
  top: "ip2"
  param {
    lr_mult: 1
  }
  param {
    lr_mult: 2
  }
  inner_product_param {
    num_output: 10
    weight_filler {
      type: "xavier"
    }
    bias_filler {
      type: "constant"
    }
  }
}
layer {
  name: "relu2"
  type: "ReLU"
  bottom: "ip2"
  top: "ip2"
}
layer {
  name: "ip3"
  type: "InnerProduct"
  bottom: "ip2"
  top: "ip3"
  param {
    lr_mult: 1
  }
  param {
    lr_mult: 2
  }
  inner_product_param {
    num_output: 10
    weight_filler {
      type: "xavier"
    }
    bias_filler {
      type: "constant"
    }
  }
}
layer {
  name: "relu3"
  type: "ReLU"
  bottom: "ip3"
  top: "ip3"
}
layer {
  name: "loss"
  type: "SoftmaxWithLoss"
  bottom: "ip3"
  bottom: "label"
  top: "loss"
}
I0428 20:26:33.817533  2834 layer_factory.hpp:77] Creating layer mnist
I0428 20:26:33.817634  2834 db_lmdb.cpp:35] Opened lmdb examples/mnist/mnist_train_lmdb
I0428 20:26:33.817657  2834 net.cpp:86] Creating Layer mnist
I0428 20:26:33.817669  2834 net.cpp:382] mnist -> data
I0428 20:26:33.817692  2834 net.cpp:382] mnist -> label
I0428 20:26:33.818786  2834 data_layer.cpp:45] output data size: 64,1,28,28
I0428 20:26:33.821240  2834 net.cpp:124] Setting up mnist
I0428 20:26:33.821259  2834 net.cpp:131] Top shape: 64 1 28 28 (50176)
I0428 20:26:33.821265  2834 net.cpp:131] Top shape: 64 (64)
I0428 20:26:33.821269  2834 net.cpp:139] Memory required for data: 200960
I0428 20:26:33.821275  2834 layer_factory.hpp:77] Creating layer conv0
I0428 20:26:33.821292  2834 net.cpp:86] Creating Layer conv0
I0428 20:26:33.821312  2834 net.cpp:408] conv0 <- data
I0428 20:26:33.821326  2834 net.cpp:382] conv0 -> conv0
I0428 20:26:34.100888  2834 net.cpp:124] Setting up conv0
I0428 20:26:34.100914  2834 net.cpp:131] Top shape: 64 100 24 24 (3686400)
I0428 20:26:34.100917  2834 net.cpp:139] Memory required for data: 14946560
I0428 20:26:34.100932  2834 layer_factory.hpp:77] Creating layer pool0
I0428 20:26:34.100961  2834 net.cpp:86] Creating Layer pool0
I0428 20:26:34.100965  2834 net.cpp:408] pool0 <- conv0
I0428 20:26:34.100970  2834 net.cpp:382] pool0 -> pool0
I0428 20:26:34.101018  2834 net.cpp:124] Setting up pool0
I0428 20:26:34.101027  2834 net.cpp:131] Top shape: 64 100 12 12 (921600)
I0428 20:26:34.101029  2834 net.cpp:139] Memory required for data: 18632960
I0428 20:26:34.101032  2834 layer_factory.hpp:77] Creating layer conv1
I0428 20:26:34.101043  2834 net.cpp:86] Creating Layer conv1
I0428 20:26:34.101047  2834 net.cpp:408] conv1 <- pool0
I0428 20:26:34.101052  2834 net.cpp:382] conv1 -> conv1
I0428 20:26:34.103929  2834 net.cpp:124] Setting up conv1
I0428 20:26:34.103943  2834 net.cpp:131] Top shape: 64 2 8 8 (8192)
I0428 20:26:34.103947  2834 net.cpp:139] Memory required for data: 18665728
I0428 20:26:34.103955  2834 layer_factory.hpp:77] Creating layer pool1
I0428 20:26:34.103963  2834 net.cpp:86] Creating Layer pool1
I0428 20:26:34.103966  2834 net.cpp:408] pool1 <- conv1
I0428 20:26:34.103971  2834 net.cpp:382] pool1 -> pool1
I0428 20:26:34.104005  2834 net.cpp:124] Setting up pool1
I0428 20:26:34.104012  2834 net.cpp:131] Top shape: 64 2 4 4 (2048)
I0428 20:26:34.104014  2834 net.cpp:139] Memory required for data: 18673920
I0428 20:26:34.104017  2834 layer_factory.hpp:77] Creating layer ip1
I0428 20:26:34.104023  2834 net.cpp:86] Creating Layer ip1
I0428 20:26:34.104027  2834 net.cpp:408] ip1 <- pool1
I0428 20:26:34.104032  2834 net.cpp:382] ip1 -> ip1
I0428 20:26:34.104133  2834 net.cpp:124] Setting up ip1
I0428 20:26:34.104140  2834 net.cpp:131] Top shape: 64 50 (3200)
I0428 20:26:34.104143  2834 net.cpp:139] Memory required for data: 18686720
I0428 20:26:34.104151  2834 layer_factory.hpp:77] Creating layer relu1
I0428 20:26:34.104156  2834 net.cpp:86] Creating Layer relu1
I0428 20:26:34.104158  2834 net.cpp:408] relu1 <- ip1
I0428 20:26:34.104162  2834 net.cpp:369] relu1 -> ip1 (in-place)
I0428 20:26:34.104315  2834 net.cpp:124] Setting up relu1
I0428 20:26:34.104324  2834 net.cpp:131] Top shape: 64 50 (3200)
I0428 20:26:34.104327  2834 net.cpp:139] Memory required for data: 18699520
I0428 20:26:34.104331  2834 layer_factory.hpp:77] Creating layer ip2
I0428 20:26:34.104336  2834 net.cpp:86] Creating Layer ip2
I0428 20:26:34.104341  2834 net.cpp:408] ip2 <- ip1
I0428 20:26:34.104344  2834 net.cpp:382] ip2 -> ip2
I0428 20:26:34.104434  2834 net.cpp:124] Setting up ip2
I0428 20:26:34.104441  2834 net.cpp:131] Top shape: 64 10 (640)
I0428 20:26:34.104444  2834 net.cpp:139] Memory required for data: 18702080
I0428 20:26:34.104449  2834 layer_factory.hpp:77] Creating layer relu2
I0428 20:26:34.104454  2834 net.cpp:86] Creating Layer relu2
I0428 20:26:34.104457  2834 net.cpp:408] relu2 <- ip2
I0428 20:26:34.104461  2834 net.cpp:369] relu2 -> ip2 (in-place)
I0428 20:26:34.105229  2834 net.cpp:124] Setting up relu2
I0428 20:26:34.105242  2834 net.cpp:131] Top shape: 64 10 (640)
I0428 20:26:34.105262  2834 net.cpp:139] Memory required for data: 18704640
I0428 20:26:34.105265  2834 layer_factory.hpp:77] Creating layer ip3
I0428 20:26:34.105273  2834 net.cpp:86] Creating Layer ip3
I0428 20:26:34.105275  2834 net.cpp:408] ip3 <- ip2
I0428 20:26:34.105281  2834 net.cpp:382] ip3 -> ip3
I0428 20:26:34.105378  2834 net.cpp:124] Setting up ip3
I0428 20:26:34.105386  2834 net.cpp:131] Top shape: 64 10 (640)
I0428 20:26:34.105389  2834 net.cpp:139] Memory required for data: 18707200
I0428 20:26:34.105396  2834 layer_factory.hpp:77] Creating layer relu3
I0428 20:26:34.105401  2834 net.cpp:86] Creating Layer relu3
I0428 20:26:34.105404  2834 net.cpp:408] relu3 <- ip3
I0428 20:26:34.105409  2834 net.cpp:369] relu3 -> ip3 (in-place)
I0428 20:26:34.105585  2834 net.cpp:124] Setting up relu3
I0428 20:26:34.105594  2834 net.cpp:131] Top shape: 64 10 (640)
I0428 20:26:34.105597  2834 net.cpp:139] Memory required for data: 18709760
I0428 20:26:34.105602  2834 layer_factory.hpp:77] Creating layer loss
I0428 20:26:34.105607  2834 net.cpp:86] Creating Layer loss
I0428 20:26:34.105609  2834 net.cpp:408] loss <- ip3
I0428 20:26:34.105613  2834 net.cpp:408] loss <- label
I0428 20:26:34.105618  2834 net.cpp:382] loss -> loss
I0428 20:26:34.105636  2834 layer_factory.hpp:77] Creating layer loss
…
I0428 20:26:34.106283  2834 solver.cpp:173] Creating test net (#0) specified by net file: ECE595/mnist/train_test/var_everything2/lenet_train_test1473.prototxt
I0428 20:26:34.106309  2834 net.cpp:296] The NetState phase (1) differed from the phase (0) specified by a rule in layer mnist
I0428 20:26:34.106411  2834 net.cpp:53] Initializing net from parameters: 
name: "LeNet"
state {
  phase: TEST
}
layer {
  name: "mnist"
  type: "Data"
  top: "data"
  top: "label"
  include {
    phase: TEST
  }
  transform_param {
    scale: 0.00390625
  }
  data_param {
    source: "examples/mnist/mnist_test_lmdb"
    batch_size: 100
    backend: LMDB
  }
}
layer {
  name: "conv0"
  type: "Convolution"
  bottom: "data"
  top: "conv0"
  param {
    lr_mult: 1
  }
  param {
    lr_mult: 2
  }
  convolution_param {
    num_output: 100
    kernel_size: 5
    stride: 1
    weight_filler {
      type: "xavier"
    }
    bias_filler {
      type: "constant"
    }
  }
}
layer {
  name: "pool0"
  type: "Pooling"
  bottom: "conv0"
  top: "pool0"
  pooling_param {
    pool: MAX
    kernel_size: 2
    stride: 2
  }
}
layer {
  name: "conv1"
  type: "Convolution"
  bottom: "pool0"
  top: "conv1"
  param {
    lr_mult: 1
  }
  param {
    lr_mult: 2
  }
  convolution_param {
    num_output: 2
    kernel_size: 5
    stride: 1
    weight_filler {
      type: "xavier"
    }
    bias_filler {
      type: "constant"
    }
  }
}
layer {
  name: "pool1"
  type: "Pooling"
  bottom: "conv1"
  top: "pool1"
  pooling_param {
    pool: MAX
    kernel_size: 2
    stride: 2
  }
}
layer {
  name: "ip1"
  type: "InnerProduct"
  bottom: "pool1"
  top: "ip1"
  param {
    lr_mult: 1
  }
  param {
    lr_mult: 2
  }
  inner_product_param {
    num_output: 50
    weight_filler {
      type: "xavier"
    }
    bias_filler {
      type: "constant"
    }
  }
}
layer {
  name: "relu1"
  type: "ReLU"
  bottom: "ip1"
  top: "ip1"
}
layer {
  name: "ip2"
  type: "InnerProduct"
  bottom: "ip1"
  top: "ip2"
  param {
    lr_mult: 1
  }
  param {
    lr_mult: 2
  }
  inner_product_param {
    num_output: 10
    weight_filler {
      type: "xavier"
    }
    bias_filler {
      type: "constant"
    }
  }
}
layer {
  name: "relu2"
  type: "ReLU"
  bottom: "ip2"
  top: "ip2"
}
layer {
  name: "ip3"
  type: "InnerProduct"
  bottom: "ip2"
  top: "ip3"
  param {
    lr_mult: 1
  }
  param {
    lr_mult: 2
  }
  inner_product_param {
    num_output: 10
    weight_filler {
      type: "xavier"
    }
    bias_filler {
      type: "constant"
    }
  }
}
layer {
  name: "relu3"
  type: "ReLU"
  bottom: "ip3"
  top: "ip3"
}
layer {
  name: "accuracy"
  type: "Accuracy"
  bottom: "ip3"
  bottom: "label"
  top: "accuracy"
  include {
    phase: TEST
  }
}
layer {
  name: "loss"
  type: "SoftmaxWithLoss"
  bottom: "ip3"
  bottom: "label"
  top: "loss"
}
I0428 20:26:34.106488  2834 layer_factory.hpp:77] Creating layer mnist
I0428 20:26:34.106531  2834 db_lmdb.cpp:35] Opened lmdb examples/mnist/mnist_test_lmdb
I0428 20:26:34.106544  2834 net.cpp:86] Creating Layer mnist
I0428 20:26:34.106547  2834 net.cpp:382] mnist -> data
I0428 20:26:34.106555  2834 net.cpp:382] mnist -> label
I0428 20:26:34.106637  2834 data_layer.cpp:45] output data size: 100,1,28,28
I0428 20:26:34.108671  2834 net.cpp:124] Setting up mnist
I0428 20:26:34.108716  2834 net.cpp:131] Top shape: 100 1 28 28 (78400)
I0428 20:26:34.108721  2834 net.cpp:131] Top shape: 100 (100)
I0428 20:26:34.108724  2834 net.cpp:139] Memory required for data: 314000
I0428 20:26:34.108728  2834 layer_factory.hpp:77] Creating layer label_mnist_1_split
I0428 20:26:34.108734  2834 net.cpp:86] Creating Layer label_mnist_1_split
I0428 20:26:34.108738  2834 net.cpp:408] label_mnist_1_split <- label
I0428 20:26:34.108743  2834 net.cpp:382] label_mnist_1_split -> label_mnist_1_split_0
I0428 20:26:34.108764  2834 net.cpp:382] label_mnist_1_split -> label_mnist_1_split_1
I0428 20:26:34.108808  2834 net.cpp:124] Setting up label_mnist_1_split
I0428 20:26:34.108819  2834 net.cpp:131] Top shape: 100 (100)
I0428 20:26:34.108824  2834 net.cpp:131] Top shape: 100 (100)
I0428 20:26:34.108826  2834 net.cpp:139] Memory required for data: 314800
I0428 20:26:34.108829  2834 layer_factory.hpp:77] Creating layer conv0
I0428 20:26:34.108853  2834 net.cpp:86] Creating Layer conv0
I0428 20:26:34.108856  2834 net.cpp:408] conv0 <- data
I0428 20:26:34.108861  2834 net.cpp:382] conv0 -> conv0
I0428 20:26:34.110520  2834 net.cpp:124] Setting up conv0
I0428 20:26:34.110534  2834 net.cpp:131] Top shape: 100 100 24 24 (5760000)
I0428 20:26:34.110538  2834 net.cpp:139] Memory required for data: 23354800
I0428 20:26:34.110546  2834 layer_factory.hpp:77] Creating layer pool0
I0428 20:26:34.110553  2834 net.cpp:86] Creating Layer pool0
I0428 20:26:34.110555  2834 net.cpp:408] pool0 <- conv0
I0428 20:26:34.110560  2834 net.cpp:382] pool0 -> pool0
I0428 20:26:34.110616  2834 net.cpp:124] Setting up pool0
I0428 20:26:34.110621  2834 net.cpp:131] Top shape: 100 100 12 12 (1440000)
I0428 20:26:34.110625  2834 net.cpp:139] Memory required for data: 29114800
I0428 20:26:34.110627  2834 layer_factory.hpp:77] Creating layer conv1
I0428 20:26:34.110636  2834 net.cpp:86] Creating Layer conv1
I0428 20:26:34.110640  2834 net.cpp:408] conv1 <- pool0
I0428 20:26:34.110644  2834 net.cpp:382] conv1 -> conv1
I0428 20:26:34.112179  2834 net.cpp:124] Setting up conv1
I0428 20:26:34.112191  2834 net.cpp:131] Top shape: 100 2 8 8 (12800)
I0428 20:26:34.112212  2834 net.cpp:139] Memory required for data: 29166000
I0428 20:26:34.112221  2834 layer_factory.hpp:77] Creating layer pool1
I0428 20:26:34.112227  2834 net.cpp:86] Creating Layer pool1
I0428 20:26:34.112231  2834 net.cpp:408] pool1 <- conv1
I0428 20:26:34.112239  2834 net.cpp:382] pool1 -> pool1
I0428 20:26:34.112292  2834 net.cpp:124] Setting up pool1
I0428 20:26:34.112298  2834 net.cpp:131] Top shape: 100 2 4 4 (3200)
I0428 20:26:34.112300  2834 net.cpp:139] Memory required for data: 29178800
I0428 20:26:34.112303  2834 layer_factory.hpp:77] Creating layer ip1
I0428 20:26:34.112321  2834 net.cpp:86] Creating Layer ip1
I0428 20:26:34.112324  2834 net.cpp:408] ip1 <- pool1
I0428 20:26:34.112330  2834 net.cpp:382] ip1 -> ip1
I0428 20:26:34.112457  2834 net.cpp:124] Setting up ip1
I0428 20:26:34.112463  2834 net.cpp:131] Top shape: 100 50 (5000)
I0428 20:26:34.112476  2834 net.cpp:139] Memory required for data: 29198800
I0428 20:26:34.112484  2834 layer_factory.hpp:77] Creating layer relu1
I0428 20:26:34.112489  2834 net.cpp:86] Creating Layer relu1
I0428 20:26:34.112493  2834 net.cpp:408] relu1 <- ip1
I0428 20:26:34.112498  2834 net.cpp:369] relu1 -> ip1 (in-place)
I0428 20:26:34.112676  2834 net.cpp:124] Setting up relu1
I0428 20:26:34.112685  2834 net.cpp:131] Top shape: 100 50 (5000)
I0428 20:26:34.112689  2834 net.cpp:139] Memory required for data: 29218800
I0428 20:26:34.112692  2834 layer_factory.hpp:77] Creating layer ip2
I0428 20:26:34.112699  2834 net.cpp:86] Creating Layer ip2
I0428 20:26:34.112702  2834 net.cpp:408] ip2 <- ip1
I0428 20:26:34.112709  2834 net.cpp:382] ip2 -> ip2
I0428 20:26:34.112851  2834 net.cpp:124] Setting up ip2
I0428 20:26:34.112860  2834 net.cpp:131] Top shape: 100 10 (1000)
I0428 20:26:34.112864  2834 net.cpp:139] Memory required for data: 29222800
I0428 20:26:34.112869  2834 layer_factory.hpp:77] Creating layer relu2
I0428 20:26:34.112874  2834 net.cpp:86] Creating Layer relu2
I0428 20:26:34.112877  2834 net.cpp:408] relu2 <- ip2
I0428 20:26:34.112884  2834 net.cpp:369] relu2 -> ip2 (in-place)
I0428 20:26:34.113123  2834 net.cpp:124] Setting up relu2
I0428 20:26:34.113132  2834 net.cpp:131] Top shape: 100 10 (1000)
I0428 20:26:34.113137  2834 net.cpp:139] Memory required for data: 29226800
I0428 20:26:34.113145  2834 layer_factory.hpp:77] Creating layer ip3
I0428 20:26:34.113163  2834 net.cpp:86] Creating Layer ip3
I0428 20:26:34.113168  2834 net.cpp:408] ip3 <- ip2
I0428 20:26:34.113173  2834 net.cpp:382] ip3 -> ip3
I0428 20:26:34.113306  2834 net.cpp:124] Setting up ip3
I0428 20:26:34.113313  2834 net.cpp:131] Top shape: 100 10 (1000)
I0428 20:26:34.113317  2834 net.cpp:139] Memory required for data: 29230800
I0428 20:26:34.113324  2834 layer_factory.hpp:77] Creating layer relu3
I0428 20:26:34.113329  2834 net.cpp:86] Creating Layer relu3
I0428 20:26:34.113332  2834 net.cpp:408] relu3 <- ip3
I0428 20:26:34.113337  2834 net.cpp:369] relu3 -> ip3 (in-place)
I0428 20:26:34.114212  2834 net.cpp:124] Setting up relu3
I0428 20:26:34.114241  2834 net.cpp:131] Top shape: 100 10 (1000)
I0428 20:26:34.114245  2834 net.cpp:139] Memory required for data: 29234800
I0428 20:26:34.114248  2834 layer_factory.hpp:77] Creating layer ip3_relu3_0_split
I0428 20:26:34.114254  2834 net.cpp:86] Creating Layer ip3_relu3_0_split
I0428 20:26:34.114259  2834 net.cpp:408] ip3_relu3_0_split <- ip3
I0428 20:26:34.114264  2834 net.cpp:382] ip3_relu3_0_split -> ip3_relu3_0_split_0
I0428 20:26:34.114269  2834 net.cpp:382] ip3_relu3_0_split -> ip3_relu3_0_split_1
I0428 20:26:34.114349  2834 net.cpp:124] Setting up ip3_relu3_0_split
I0428 20:26:34.114370  2834 net.cpp:131] Top shape: 100 10 (1000)
I0428 20:26:34.114374  2834 net.cpp:131] Top shape: 100 10 (1000)
I0428 20:26:34.114377  2834 net.cpp:139] Memory required for data: 29242800
I0428 20:26:34.114379  2834 layer_factory.hpp:77] Creating layer accuracy
I0428 20:26:34.114384  2834 net.cpp:86] Creating Layer accuracy
I0428 20:26:34.114387  2834 net.cpp:408] accuracy <- ip3_relu3_0_split_0
I0428 20:26:34.114392  2834 net.cpp:408] accuracy <- label_mnist_1_split_0
I0428 20:26:34.114397  2834 net.cpp:382] accuracy -> accuracy
…
