…
I0428 20:21:21.069020  1741 net.cpp:296] The NetState phase (0) differed from the phase (1) specified by a rule in layer mnist
I0428 20:21:21.069049  1741 net.cpp:296] The NetState phase (0) differed from the phase (1) specified by a rule in layer accuracy
I0428 20:21:21.069131  1741 net.cpp:53] Initializing net from parameters: 
name: "LeNet"
state {
  phase: TRAIN
  level: 0
  stage: ""
}
layer {
  name: "mnist"
  type: "Data"
  top: "data"
  top: "label"
  include {
    phase: TRAIN
  }
  transform_param {
    scale: 0.00390625
  }
  data_param {
    source: "examples/mnist/mnist_train_lmdb"
    batch_size: 64
    backend: LMDB
  }
}
layer {
  name: "conv0"
  type: "Convolution"
  bottom: "data"
  top: "conv0"
  param {
    lr_mult: 1
  }
  param {
    lr_mult: 2
  }
  convolution_param {
    num_output: 50
    kernel_size: 5
    stride: 1
    weight_filler {
      type: "xavier"
    }
    bias_filler {
      type: "constant"
    }
  }
}
layer {
  name: "pool0"
  type: "Pooling"
  bottom: "conv0"
  top: "pool0"
  pooling_param {
    pool: MAX
    kernel_size: 2
    stride: 2
  }
}
layer {
  name: "conv1"
  type: "Convolution"
  bottom: "pool0"
  top: "conv1"
  param {
    lr_mult: 1
  }
  param {
    lr_mult: 2
  }
  convolution_param {
    num_output: 50
    kernel_size: 5
    stride: 1
    weight_filler {
      type: "xavier"
    }
    bias_filler {
      type: "constant"
    }
  }
}
layer {
  name: "pool1"
  type: "Pooling"
  bottom: "conv1"
  top: "pool1"
  pooling_param {
    pool: MAX
    kernel_size: 2
    stride: 2
  }
}
layer {
  name: "ip1"
  type: "InnerProduct"
  bottom: "pool1"
  top: "ip1"
  param {
    lr_mult: 1
  }
  param {
    lr_mult: 2
  }
  inner_product_param {
    num_output: 10
    weight_filler {
      type: "xavier"
    }
    bias_filler {
      type: "constant"
    }
  }
}
layer {
  name: "relu1"
  type: "ReLU"
  bottom: "ip1"
  top: "ip1"
}
layer {
  name: "ip2"
  type: "InnerProduct"
  bottom: "ip1"
  top: "ip2"
  param {
    lr_mult: 1
  }
  param {
    lr_mult: 2
  }
  inner_product_param {
    num_output: 25
    weight_filler {
      type: "xavier"
    }
    bias_filler {
      type: "constant"
    }
  }
}
layer {
  name: "relu2"
  type: "ReLU"
  bottom: "ip2"
  top: "ip2"
}
layer {
  name: "ip3"
  type: "InnerProduct"
  bottom: "ip2"
  top: "ip3"
  param {
    lr_mult: 1
  }
  param {
    lr_mult: 2
  }
  inner_product_param {
    num_output: 10
    weight_filler {
      type: "xavier"
    }
    bias_filler {
      type: "constant"
    }
  }
}
layer {
  name: "relu3"
  type: "ReLU"
  bottom: "ip3"
  top: "ip3"
}
layer {
  name: "loss"
  type: "SoftmaxWithLoss"
  bottom: "ip3"
  bottom: "label"
  top: "loss"
}
I0428 20:21:21.069196  1741 layer_factory.hpp:77] Creating layer mnist
I0428 20:21:21.069296  1741 db_lmdb.cpp:35] Opened lmdb examples/mnist/mnist_train_lmdb
I0428 20:21:21.069317  1741 net.cpp:86] Creating Layer mnist
I0428 20:21:21.069324  1741 net.cpp:382] mnist -> data
I0428 20:21:21.069342  1741 net.cpp:382] mnist -> label
I0428 20:21:21.070276  1741 data_layer.cpp:45] output data size: 64,1,28,28
I0428 20:21:21.072558  1741 net.cpp:124] Setting up mnist
I0428 20:21:21.072588  1741 net.cpp:131] Top shape: 64 1 28 28 (50176)
I0428 20:21:21.072607  1741 net.cpp:131] Top shape: 64 (64)
I0428 20:21:21.072610  1741 net.cpp:139] Memory required for data: 200960
I0428 20:21:21.072616  1741 layer_factory.hpp:77] Creating layer conv0
I0428 20:21:21.072629  1741 net.cpp:86] Creating Layer conv0
I0428 20:21:21.072648  1741 net.cpp:408] conv0 <- data
I0428 20:21:21.072659  1741 net.cpp:382] conv0 -> conv0
I0428 20:21:21.300240  1741 net.cpp:124] Setting up conv0
I0428 20:21:21.300264  1741 net.cpp:131] Top shape: 64 50 24 24 (1843200)
I0428 20:21:21.300267  1741 net.cpp:139] Memory required for data: 7573760
I0428 20:21:21.300282  1741 layer_factory.hpp:77] Creating layer pool0
I0428 20:21:21.300293  1741 net.cpp:86] Creating Layer pool0
I0428 20:21:21.300297  1741 net.cpp:408] pool0 <- conv0
I0428 20:21:21.300302  1741 net.cpp:382] pool0 -> pool0
I0428 20:21:21.300362  1741 net.cpp:124] Setting up pool0
I0428 20:21:21.300369  1741 net.cpp:131] Top shape: 64 50 12 12 (460800)
I0428 20:21:21.300371  1741 net.cpp:139] Memory required for data: 9416960
I0428 20:21:21.300374  1741 layer_factory.hpp:77] Creating layer conv1
I0428 20:21:21.300384  1741 net.cpp:86] Creating Layer conv1
I0428 20:21:21.300389  1741 net.cpp:408] conv1 <- pool0
I0428 20:21:21.300393  1741 net.cpp:382] conv1 -> conv1
I0428 20:21:21.302767  1741 net.cpp:124] Setting up conv1
I0428 20:21:21.302780  1741 net.cpp:131] Top shape: 64 50 8 8 (204800)
I0428 20:21:21.302784  1741 net.cpp:139] Memory required for data: 10236160
I0428 20:21:21.302791  1741 layer_factory.hpp:77] Creating layer pool1
I0428 20:21:21.302814  1741 net.cpp:86] Creating Layer pool1
I0428 20:21:21.302832  1741 net.cpp:408] pool1 <- conv1
I0428 20:21:21.302837  1741 net.cpp:382] pool1 -> pool1
I0428 20:21:21.302871  1741 net.cpp:124] Setting up pool1
I0428 20:21:21.302878  1741 net.cpp:131] Top shape: 64 50 4 4 (51200)
I0428 20:21:21.302881  1741 net.cpp:139] Memory required for data: 10440960
I0428 20:21:21.302884  1741 layer_factory.hpp:77] Creating layer ip1
I0428 20:21:21.302891  1741 net.cpp:86] Creating Layer ip1
I0428 20:21:21.302894  1741 net.cpp:408] ip1 <- pool1
I0428 20:21:21.302898  1741 net.cpp:382] ip1 -> ip1
I0428 20:21:21.303901  1741 net.cpp:124] Setting up ip1
I0428 20:21:21.303915  1741 net.cpp:131] Top shape: 64 10 (640)
I0428 20:21:21.303917  1741 net.cpp:139] Memory required for data: 10443520
I0428 20:21:21.303925  1741 layer_factory.hpp:77] Creating layer relu1
I0428 20:21:21.303931  1741 net.cpp:86] Creating Layer relu1
I0428 20:21:21.303936  1741 net.cpp:408] relu1 <- ip1
I0428 20:21:21.303941  1741 net.cpp:369] relu1 -> ip1 (in-place)
I0428 20:21:21.304119  1741 net.cpp:124] Setting up relu1
I0428 20:21:21.304128  1741 net.cpp:131] Top shape: 64 10 (640)
I0428 20:21:21.304131  1741 net.cpp:139] Memory required for data: 10446080
I0428 20:21:21.304134  1741 layer_factory.hpp:77] Creating layer ip2
I0428 20:21:21.304141  1741 net.cpp:86] Creating Layer ip2
I0428 20:21:21.304144  1741 net.cpp:408] ip2 <- ip1
I0428 20:21:21.304149  1741 net.cpp:382] ip2 -> ip2
I0428 20:21:21.304239  1741 net.cpp:124] Setting up ip2
I0428 20:21:21.304260  1741 net.cpp:131] Top shape: 64 25 (1600)
I0428 20:21:21.304263  1741 net.cpp:139] Memory required for data: 10452480
I0428 20:21:21.304268  1741 layer_factory.hpp:77] Creating layer relu2
I0428 20:21:21.304275  1741 net.cpp:86] Creating Layer relu2
I0428 20:21:21.304278  1741 net.cpp:408] relu2 <- ip2
I0428 20:21:21.304282  1741 net.cpp:369] relu2 -> ip2 (in-place)
I0428 20:21:21.305083  1741 net.cpp:124] Setting up relu2
I0428 20:21:21.305095  1741 net.cpp:131] Top shape: 64 25 (1600)
I0428 20:21:21.305099  1741 net.cpp:139] Memory required for data: 10458880
I0428 20:21:21.305102  1741 layer_factory.hpp:77] Creating layer ip3
I0428 20:21:21.305109  1741 net.cpp:86] Creating Layer ip3
I0428 20:21:21.305112  1741 net.cpp:408] ip3 <- ip2
I0428 20:21:21.305117  1741 net.cpp:382] ip3 -> ip3
I0428 20:21:21.305207  1741 net.cpp:124] Setting up ip3
I0428 20:21:21.305215  1741 net.cpp:131] Top shape: 64 10 (640)
I0428 20:21:21.305218  1741 net.cpp:139] Memory required for data: 10461440
I0428 20:21:21.305225  1741 layer_factory.hpp:77] Creating layer relu3
I0428 20:21:21.305232  1741 net.cpp:86] Creating Layer relu3
I0428 20:21:21.305234  1741 net.cpp:408] relu3 <- ip3
I0428 20:21:21.305238  1741 net.cpp:369] relu3 -> ip3 (in-place)
I0428 20:21:21.305424  1741 net.cpp:124] Setting up relu3
I0428 20:21:21.305433  1741 net.cpp:131] Top shape: 64 10 (640)
I0428 20:21:21.305435  1741 net.cpp:139] Memory required for data: 10464000
I0428 20:21:21.305438  1741 layer_factory.hpp:77] Creating layer loss
I0428 20:21:21.305444  1741 net.cpp:86] Creating Layer loss
I0428 20:21:21.305447  1741 net.cpp:408] loss <- ip3
I0428 20:21:21.305450  1741 net.cpp:408] loss <- label
I0428 20:21:21.305456  1741 net.cpp:382] loss -> loss
I0428 20:21:21.305474  1741 layer_factory.hpp:77] Creating layer loss
…
I0428 20:21:21.306118  1741 solver.cpp:173] Creating test net (#0) specified by net file: ECE595/mnist/train_test/var_everything2/lenet_train_test1382.prototxt
I0428 20:21:21.306143  1741 net.cpp:296] The NetState phase (1) differed from the phase (0) specified by a rule in layer mnist
I0428 20:21:21.306234  1741 net.cpp:53] Initializing net from parameters: 
name: "LeNet"
state {
  phase: TEST
}
layer {
  name: "mnist"
  type: "Data"
  top: "data"
  top: "label"
  include {
    phase: TEST
  }
  transform_param {
    scale: 0.00390625
  }
  data_param {
    source: "examples/mnist/mnist_test_lmdb"
    batch_size: 100
    backend: LMDB
  }
}
layer {
  name: "conv0"
  type: "Convolution"
  bottom: "data"
  top: "conv0"
  param {
    lr_mult: 1
  }
  param {
    lr_mult: 2
  }
  convolution_param {
    num_output: 50
    kernel_size: 5
    stride: 1
    weight_filler {
      type: "xavier"
    }
    bias_filler {
      type: "constant"
    }
  }
}
layer {
  name: "pool0"
  type: "Pooling"
  bottom: "conv0"
  top: "pool0"
  pooling_param {
    pool: MAX
    kernel_size: 2
    stride: 2
  }
}
layer {
  name: "conv1"
  type: "Convolution"
  bottom: "pool0"
  top: "conv1"
  param {
    lr_mult: 1
  }
  param {
    lr_mult: 2
  }
  convolution_param {
    num_output: 50
    kernel_size: 5
    stride: 1
    weight_filler {
      type: "xavier"
    }
    bias_filler {
      type: "constant"
    }
  }
}
layer {
  name: "pool1"
  type: "Pooling"
  bottom: "conv1"
  top: "pool1"
  pooling_param {
    pool: MAX
    kernel_size: 2
    stride: 2
  }
}
layer {
  name: "ip1"
  type: "InnerProduct"
  bottom: "pool1"
  top: "ip1"
  param {
    lr_mult: 1
  }
  param {
    lr_mult: 2
  }
  inner_product_param {
    num_output: 10
    weight_filler {
      type: "xavier"
    }
    bias_filler {
      type: "constant"
    }
  }
}
layer {
  name: "relu1"
  type: "ReLU"
  bottom: "ip1"
  top: "ip1"
}
layer {
  name: "ip2"
  type: "InnerProduct"
  bottom: "ip1"
  top: "ip2"
  param {
    lr_mult: 1
  }
  param {
    lr_mult: 2
  }
  inner_product_param {
    num_output: 25
    weight_filler {
      type: "xavier"
    }
    bias_filler {
      type: "constant"
    }
  }
}
layer {
  name: "relu2"
  type: "ReLU"
  bottom: "ip2"
  top: "ip2"
}
layer {
  name: "ip3"
  type: "InnerProduct"
  bottom: "ip2"
  top: "ip3"
  param {
    lr_mult: 1
  }
  param {
    lr_mult: 2
  }
  inner_product_param {
    num_output: 10
    weight_filler {
      type: "xavier"
    }
    bias_filler {
      type: "constant"
    }
  }
}
layer {
  name: "relu3"
  type: "ReLU"
  bottom: "ip3"
  top: "ip3"
}
layer {
  name: "accuracy"
  type: "Accuracy"
  bottom: "ip3"
  bottom: "label"
  top: "accuracy"
  include {
    phase: TEST
  }
}
layer {
  name: "loss"
  type: "SoftmaxWithLoss"
  bottom: "ip3"
  bottom: "label"
  top: "loss"
}
I0428 20:21:21.306326  1741 layer_factory.hpp:77] Creating layer mnist
I0428 20:21:21.306370  1741 db_lmdb.cpp:35] Opened lmdb examples/mnist/mnist_test_lmdb
I0428 20:21:21.306401  1741 net.cpp:86] Creating Layer mnist
I0428 20:21:21.306406  1741 net.cpp:382] mnist -> data
I0428 20:21:21.306413  1741 net.cpp:382] mnist -> label
I0428 20:21:21.306514  1741 data_layer.cpp:45] output data size: 100,1,28,28
I0428 20:21:21.308555  1741 net.cpp:124] Setting up mnist
I0428 20:21:21.308568  1741 net.cpp:131] Top shape: 100 1 28 28 (78400)
I0428 20:21:21.308588  1741 net.cpp:131] Top shape: 100 (100)
I0428 20:21:21.308591  1741 net.cpp:139] Memory required for data: 314000
I0428 20:21:21.308594  1741 layer_factory.hpp:77] Creating layer label_mnist_1_split
I0428 20:21:21.308604  1741 net.cpp:86] Creating Layer label_mnist_1_split
I0428 20:21:21.308609  1741 net.cpp:408] label_mnist_1_split <- label
I0428 20:21:21.308612  1741 net.cpp:382] label_mnist_1_split -> label_mnist_1_split_0
I0428 20:21:21.308619  1741 net.cpp:382] label_mnist_1_split -> label_mnist_1_split_1
I0428 20:21:21.308739  1741 net.cpp:124] Setting up label_mnist_1_split
I0428 20:21:21.308748  1741 net.cpp:131] Top shape: 100 (100)
I0428 20:21:21.308751  1741 net.cpp:131] Top shape: 100 (100)
I0428 20:21:21.308754  1741 net.cpp:139] Memory required for data: 314800
I0428 20:21:21.308758  1741 layer_factory.hpp:77] Creating layer conv0
I0428 20:21:21.308766  1741 net.cpp:86] Creating Layer conv0
I0428 20:21:21.308773  1741 net.cpp:408] conv0 <- data
I0428 20:21:21.308778  1741 net.cpp:382] conv0 -> conv0
I0428 20:21:21.310293  1741 net.cpp:124] Setting up conv0
I0428 20:21:21.310322  1741 net.cpp:131] Top shape: 100 50 24 24 (2880000)
I0428 20:21:21.310325  1741 net.cpp:139] Memory required for data: 11834800
I0428 20:21:21.310333  1741 layer_factory.hpp:77] Creating layer pool0
I0428 20:21:21.310339  1741 net.cpp:86] Creating Layer pool0
I0428 20:21:21.310343  1741 net.cpp:408] pool0 <- conv0
I0428 20:21:21.310348  1741 net.cpp:382] pool0 -> pool0
I0428 20:21:21.310380  1741 net.cpp:124] Setting up pool0
I0428 20:21:21.310405  1741 net.cpp:131] Top shape: 100 50 12 12 (720000)
I0428 20:21:21.310408  1741 net.cpp:139] Memory required for data: 14714800
I0428 20:21:21.310411  1741 layer_factory.hpp:77] Creating layer conv1
I0428 20:21:21.310420  1741 net.cpp:86] Creating Layer conv1
I0428 20:21:21.310426  1741 net.cpp:408] conv1 <- pool0
I0428 20:21:21.310446  1741 net.cpp:382] conv1 -> conv1
I0428 20:21:21.312379  1741 net.cpp:124] Setting up conv1
I0428 20:21:21.312392  1741 net.cpp:131] Top shape: 100 50 8 8 (320000)
I0428 20:21:21.312397  1741 net.cpp:139] Memory required for data: 15994800
I0428 20:21:21.312407  1741 layer_factory.hpp:77] Creating layer pool1
I0428 20:21:21.312413  1741 net.cpp:86] Creating Layer pool1
I0428 20:21:21.312422  1741 net.cpp:408] pool1 <- conv1
I0428 20:21:21.312444  1741 net.cpp:382] pool1 -> pool1
I0428 20:21:21.312499  1741 net.cpp:124] Setting up pool1
I0428 20:21:21.312506  1741 net.cpp:131] Top shape: 100 50 4 4 (80000)
I0428 20:21:21.312510  1741 net.cpp:139] Memory required for data: 16314800
I0428 20:21:21.312513  1741 layer_factory.hpp:77] Creating layer ip1
I0428 20:21:21.312521  1741 net.cpp:86] Creating Layer ip1
I0428 20:21:21.312525  1741 net.cpp:408] ip1 <- pool1
I0428 20:21:21.312530  1741 net.cpp:382] ip1 -> ip1
I0428 20:21:21.312681  1741 net.cpp:124] Setting up ip1
I0428 20:21:21.312690  1741 net.cpp:131] Top shape: 100 10 (1000)
I0428 20:21:21.312703  1741 net.cpp:139] Memory required for data: 16318800
I0428 20:21:21.312726  1741 layer_factory.hpp:77] Creating layer relu1
I0428 20:21:21.312734  1741 net.cpp:86] Creating Layer relu1
I0428 20:21:21.312753  1741 net.cpp:408] relu1 <- ip1
I0428 20:21:21.312760  1741 net.cpp:369] relu1 -> ip1 (in-place)
I0428 20:21:21.312973  1741 net.cpp:124] Setting up relu1
I0428 20:21:21.312983  1741 net.cpp:131] Top shape: 100 10 (1000)
I0428 20:21:21.312986  1741 net.cpp:139] Memory required for data: 16322800
I0428 20:21:21.312989  1741 layer_factory.hpp:77] Creating layer ip2
I0428 20:21:21.313014  1741 net.cpp:86] Creating Layer ip2
I0428 20:21:21.313036  1741 net.cpp:408] ip2 <- ip1
I0428 20:21:21.313060  1741 net.cpp:382] ip2 -> ip2
I0428 20:21:21.313169  1741 net.cpp:124] Setting up ip2
I0428 20:21:21.313176  1741 net.cpp:131] Top shape: 100 25 (2500)
I0428 20:21:21.313180  1741 net.cpp:139] Memory required for data: 16332800
I0428 20:21:21.313185  1741 layer_factory.hpp:77] Creating layer relu2
I0428 20:21:21.313191  1741 net.cpp:86] Creating Layer relu2
I0428 20:21:21.313194  1741 net.cpp:408] relu2 <- ip2
I0428 20:21:21.313199  1741 net.cpp:369] relu2 -> ip2 (in-place)
I0428 20:21:21.313398  1741 net.cpp:124] Setting up relu2
I0428 20:21:21.313407  1741 net.cpp:131] Top shape: 100 25 (2500)
I0428 20:21:21.313410  1741 net.cpp:139] Memory required for data: 16342800
I0428 20:21:21.313428  1741 layer_factory.hpp:77] Creating layer ip3
I0428 20:21:21.313436  1741 net.cpp:86] Creating Layer ip3
I0428 20:21:21.313438  1741 net.cpp:408] ip3 <- ip2
I0428 20:21:21.313442  1741 net.cpp:382] ip3 -> ip3
I0428 20:21:21.313542  1741 net.cpp:124] Setting up ip3
I0428 20:21:21.313549  1741 net.cpp:131] Top shape: 100 10 (1000)
I0428 20:21:21.313552  1741 net.cpp:139] Memory required for data: 16346800
I0428 20:21:21.313560  1741 layer_factory.hpp:77] Creating layer relu3
I0428 20:21:21.313565  1741 net.cpp:86] Creating Layer relu3
I0428 20:21:21.313571  1741 net.cpp:408] relu3 <- ip3
I0428 20:21:21.313575  1741 net.cpp:369] relu3 -> ip3 (in-place)
I0428 20:21:21.314393  1741 net.cpp:124] Setting up relu3
I0428 20:21:21.314420  1741 net.cpp:131] Top shape: 100 10 (1000)
I0428 20:21:21.314440  1741 net.cpp:139] Memory required for data: 16350800
I0428 20:21:21.314443  1741 layer_factory.hpp:77] Creating layer ip3_relu3_0_split
I0428 20:21:21.314448  1741 net.cpp:86] Creating Layer ip3_relu3_0_split
I0428 20:21:21.314451  1741 net.cpp:408] ip3_relu3_0_split <- ip3
I0428 20:21:21.314457  1741 net.cpp:382] ip3_relu3_0_split -> ip3_relu3_0_split_0
I0428 20:21:21.314463  1741 net.cpp:382] ip3_relu3_0_split -> ip3_relu3_0_split_1
I0428 20:21:21.314502  1741 net.cpp:124] Setting up ip3_relu3_0_split
I0428 20:21:21.314508  1741 net.cpp:131] Top shape: 100 10 (1000)
I0428 20:21:21.314512  1741 net.cpp:131] Top shape: 100 10 (1000)
I0428 20:21:21.314532  1741 net.cpp:139] Memory required for data: 16358800
I0428 20:21:21.314534  1741 layer_factory.hpp:77] Creating layer accuracy
I0428 20:21:21.314539  1741 net.cpp:86] Creating Layer accuracy
I0428 20:21:21.314543  1741 net.cpp:408] accuracy <- ip3_relu3_0_split_0
I0428 20:21:21.314546  1741 net.cpp:408] accuracy <- label_mnist_1_split_0
I0428 20:21:21.314551  1741 net.cpp:382] accuracy -> accuracy
…
