…
I0428 20:25:05.005277  2535 net.cpp:296] The NetState phase (0) differed from the phase (1) specified by a rule in layer mnist
I0428 20:25:05.005295  2535 net.cpp:296] The NetState phase (0) differed from the phase (1) specified by a rule in layer accuracy
I0428 20:25:05.005384  2535 net.cpp:53] Initializing net from parameters: 
name: "LeNet"
state {
  phase: TRAIN
  level: 0
  stage: ""
}
layer {
  name: "mnist"
  type: "Data"
  top: "data"
  top: "label"
  include {
    phase: TRAIN
  }
  transform_param {
    scale: 0.00390625
  }
  data_param {
    source: "examples/mnist/mnist_train_lmdb"
    batch_size: 64
    backend: LMDB
  }
}
layer {
  name: "conv0"
  type: "Convolution"
  bottom: "data"
  top: "conv0"
  param {
    lr_mult: 1
  }
  param {
    lr_mult: 2
  }
  convolution_param {
    num_output: 100
    kernel_size: 5
    stride: 1
    weight_filler {
      type: "xavier"
    }
    bias_filler {
      type: "constant"
    }
  }
}
layer {
  name: "pool0"
  type: "Pooling"
  bottom: "conv0"
  top: "pool0"
  pooling_param {
    pool: MAX
    kernel_size: 2
    stride: 2
  }
}
layer {
  name: "conv1"
  type: "Convolution"
  bottom: "pool0"
  top: "conv1"
  param {
    lr_mult: 1
  }
  param {
    lr_mult: 2
  }
  convolution_param {
    num_output: 2
    kernel_size: 5
    stride: 1
    weight_filler {
      type: "xavier"
    }
    bias_filler {
      type: "constant"
    }
  }
}
layer {
  name: "pool1"
  type: "Pooling"
  bottom: "conv1"
  top: "pool1"
  pooling_param {
    pool: MAX
    kernel_size: 2
    stride: 2
  }
}
layer {
  name: "ip1"
  type: "InnerProduct"
  bottom: "pool1"
  top: "ip1"
  param {
    lr_mult: 1
  }
  param {
    lr_mult: 2
  }
  inner_product_param {
    num_output: 10
    weight_filler {
      type: "xavier"
    }
    bias_filler {
      type: "constant"
    }
  }
}
layer {
  name: "relu1"
  type: "ReLU"
  bottom: "ip1"
  top: "ip1"
}
layer {
  name: "ip2"
  type: "InnerProduct"
  bottom: "ip1"
  top: "ip2"
  param {
    lr_mult: 1
  }
  param {
    lr_mult: 2
  }
  inner_product_param {
    num_output: 10
    weight_filler {
      type: "xavier"
    }
    bias_filler {
      type: "constant"
    }
  }
}
layer {
  name: "relu2"
  type: "ReLU"
  bottom: "ip2"
  top: "ip2"
}
layer {
  name: "loss"
  type: "SoftmaxWithLoss"
  bottom: "ip2"
  bottom: "label"
  top: "loss"
}
I0428 20:25:05.005461  2535 layer_factory.hpp:77] Creating layer mnist
I0428 20:25:05.005563  2535 db_lmdb.cpp:35] Opened lmdb examples/mnist/mnist_train_lmdb
I0428 20:25:05.005586  2535 net.cpp:86] Creating Layer mnist
I0428 20:25:05.005597  2535 net.cpp:382] mnist -> data
I0428 20:25:05.005620  2535 net.cpp:382] mnist -> label
I0428 20:25:05.006705  2535 data_layer.cpp:45] output data size: 64,1,28,28
I0428 20:25:05.009162  2535 net.cpp:124] Setting up mnist
I0428 20:25:05.009182  2535 net.cpp:131] Top shape: 64 1 28 28 (50176)
I0428 20:25:05.009188  2535 net.cpp:131] Top shape: 64 (64)
I0428 20:25:05.009192  2535 net.cpp:139] Memory required for data: 200960
I0428 20:25:05.009199  2535 layer_factory.hpp:77] Creating layer conv0
I0428 20:25:05.009217  2535 net.cpp:86] Creating Layer conv0
I0428 20:25:05.009228  2535 net.cpp:408] conv0 <- data
I0428 20:25:05.009244  2535 net.cpp:382] conv0 -> conv0
I0428 20:25:05.299149  2535 net.cpp:124] Setting up conv0
I0428 20:25:05.299175  2535 net.cpp:131] Top shape: 64 100 24 24 (3686400)
I0428 20:25:05.299180  2535 net.cpp:139] Memory required for data: 14946560
I0428 20:25:05.299213  2535 layer_factory.hpp:77] Creating layer pool0
I0428 20:25:05.299226  2535 net.cpp:86] Creating Layer pool0
I0428 20:25:05.299232  2535 net.cpp:408] pool0 <- conv0
I0428 20:25:05.299237  2535 net.cpp:382] pool0 -> pool0
I0428 20:25:05.299288  2535 net.cpp:124] Setting up pool0
I0428 20:25:05.299295  2535 net.cpp:131] Top shape: 64 100 12 12 (921600)
I0428 20:25:05.299299  2535 net.cpp:139] Memory required for data: 18632960
I0428 20:25:05.299301  2535 layer_factory.hpp:77] Creating layer conv1
I0428 20:25:05.299312  2535 net.cpp:86] Creating Layer conv1
I0428 20:25:05.299315  2535 net.cpp:408] conv1 <- pool0
I0428 20:25:05.299320  2535 net.cpp:382] conv1 -> conv1
I0428 20:25:05.301986  2535 net.cpp:124] Setting up conv1
I0428 20:25:05.302000  2535 net.cpp:131] Top shape: 64 2 8 8 (8192)
I0428 20:25:05.302004  2535 net.cpp:139] Memory required for data: 18665728
I0428 20:25:05.302013  2535 layer_factory.hpp:77] Creating layer pool1
I0428 20:25:05.302021  2535 net.cpp:86] Creating Layer pool1
I0428 20:25:05.302023  2535 net.cpp:408] pool1 <- conv1
I0428 20:25:05.302029  2535 net.cpp:382] pool1 -> pool1
I0428 20:25:05.302065  2535 net.cpp:124] Setting up pool1
I0428 20:25:05.302070  2535 net.cpp:131] Top shape: 64 2 4 4 (2048)
I0428 20:25:05.302073  2535 net.cpp:139] Memory required for data: 18673920
I0428 20:25:05.302076  2535 layer_factory.hpp:77] Creating layer ip1
I0428 20:25:05.302083  2535 net.cpp:86] Creating Layer ip1
I0428 20:25:05.302086  2535 net.cpp:408] ip1 <- pool1
I0428 20:25:05.302090  2535 net.cpp:382] ip1 -> ip1
I0428 20:25:05.302186  2535 net.cpp:124] Setting up ip1
I0428 20:25:05.302193  2535 net.cpp:131] Top shape: 64 10 (640)
I0428 20:25:05.302196  2535 net.cpp:139] Memory required for data: 18676480
I0428 20:25:05.302203  2535 layer_factory.hpp:77] Creating layer relu1
I0428 20:25:05.302208  2535 net.cpp:86] Creating Layer relu1
I0428 20:25:05.302212  2535 net.cpp:408] relu1 <- ip1
I0428 20:25:05.302217  2535 net.cpp:369] relu1 -> ip1 (in-place)
I0428 20:25:05.302379  2535 net.cpp:124] Setting up relu1
I0428 20:25:05.302388  2535 net.cpp:131] Top shape: 64 10 (640)
I0428 20:25:05.302392  2535 net.cpp:139] Memory required for data: 18679040
I0428 20:25:05.302394  2535 layer_factory.hpp:77] Creating layer ip2
I0428 20:25:05.302400  2535 net.cpp:86] Creating Layer ip2
I0428 20:25:05.302403  2535 net.cpp:408] ip2 <- ip1
I0428 20:25:05.302408  2535 net.cpp:382] ip2 -> ip2
I0428 20:25:05.302500  2535 net.cpp:124] Setting up ip2
I0428 20:25:05.302506  2535 net.cpp:131] Top shape: 64 10 (640)
I0428 20:25:05.302510  2535 net.cpp:139] Memory required for data: 18681600
I0428 20:25:05.302515  2535 layer_factory.hpp:77] Creating layer relu2
I0428 20:25:05.302520  2535 net.cpp:86] Creating Layer relu2
I0428 20:25:05.302523  2535 net.cpp:408] relu2 <- ip2
I0428 20:25:05.302527  2535 net.cpp:369] relu2 -> ip2 (in-place)
I0428 20:25:05.303230  2535 net.cpp:124] Setting up relu2
I0428 20:25:05.303241  2535 net.cpp:131] Top shape: 64 10 (640)
I0428 20:25:05.303246  2535 net.cpp:139] Memory required for data: 18684160
I0428 20:25:05.303248  2535 layer_factory.hpp:77] Creating layer loss
I0428 20:25:05.303254  2535 net.cpp:86] Creating Layer loss
I0428 20:25:05.303258  2535 net.cpp:408] loss <- ip2
I0428 20:25:05.303262  2535 net.cpp:408] loss <- label
I0428 20:25:05.303267  2535 net.cpp:382] loss -> loss
I0428 20:25:05.303287  2535 layer_factory.hpp:77] Creating layer loss
…
I0428 20:25:05.303949  2535 solver.cpp:173] Creating test net (#0) specified by net file: ECE595/mnist/train_test/var_everything2/lenet_train_test1448.prototxt
I0428 20:25:05.303973  2535 net.cpp:296] The NetState phase (1) differed from the phase (0) specified by a rule in layer mnist
I0428 20:25:05.304055  2535 net.cpp:53] Initializing net from parameters: 
name: "LeNet"
state {
  phase: TEST
}
layer {
  name: "mnist"
  type: "Data"
  top: "data"
  top: "label"
  include {
    phase: TEST
  }
  transform_param {
    scale: 0.00390625
  }
  data_param {
    source: "examples/mnist/mnist_test_lmdb"
    batch_size: 100
    backend: LMDB
  }
}
layer {
  name: "conv0"
  type: "Convolution"
  bottom: "data"
  top: "conv0"
  param {
    lr_mult: 1
  }
  param {
    lr_mult: 2
  }
  convolution_param {
    num_output: 100
    kernel_size: 5
    stride: 1
    weight_filler {
      type: "xavier"
    }
    bias_filler {
      type: "constant"
    }
  }
}
layer {
  name: "pool0"
  type: "Pooling"
  bottom: "conv0"
  top: "pool0"
  pooling_param {
    pool: MAX
    kernel_size: 2
    stride: 2
  }
}
layer {
  name: "conv1"
  type: "Convolution"
  bottom: "pool0"
  top: "conv1"
  param {
    lr_mult: 1
  }
  param {
    lr_mult: 2
  }
  convolution_param {
    num_output: 2
    kernel_size: 5
    stride: 1
    weight_filler {
      type: "xavier"
    }
    bias_filler {
      type: "constant"
    }
  }
}
layer {
  name: "pool1"
  type: "Pooling"
  bottom: "conv1"
  top: "pool1"
  pooling_param {
    pool: MAX
    kernel_size: 2
    stride: 2
  }
}
layer {
  name: "ip1"
  type: "InnerProduct"
  bottom: "pool1"
  top: "ip1"
  param {
    lr_mult: 1
  }
  param {
    lr_mult: 2
  }
  inner_product_param {
    num_output: 10
    weight_filler {
      type: "xavier"
    }
    bias_filler {
      type: "constant"
    }
  }
}
layer {
  name: "relu1"
  type: "ReLU"
  bottom: "ip1"
  top: "ip1"
}
layer {
  name: "ip2"
  type: "InnerProduct"
  bottom: "ip1"
  top: "ip2"
  param {
    lr_mult: 1
  }
  param {
    lr_mult: 2
  }
  inner_product_param {
    num_output: 10
    weight_filler {
      type: "xavier"
    }
    bias_filler {
      type: "constant"
    }
  }
}
layer {
  name: "relu2"
  type: "ReLU"
  bottom: "ip2"
  top: "ip2"
}
layer {
  name: "accuracy"
  type: "Accuracy"
  bottom: "ip2"
  bottom: "label"
  top: "accuracy"
  include {
    phase: TEST
  }
}
layer {
  name: "loss"
  type: "SoftmaxWithLoss"
  bottom: "ip2"
  bottom: "label"
  top: "loss"
}
I0428 20:25:05.304118  2535 layer_factory.hpp:77] Creating layer mnist
I0428 20:25:05.304163  2535 db_lmdb.cpp:35] Opened lmdb examples/mnist/mnist_test_lmdb
I0428 20:25:05.304177  2535 net.cpp:86] Creating Layer mnist
I0428 20:25:05.304181  2535 net.cpp:382] mnist -> data
I0428 20:25:05.304188  2535 net.cpp:382] mnist -> label
I0428 20:25:05.304270  2535 data_layer.cpp:45] output data size: 100,1,28,28
I0428 20:25:05.306275  2535 net.cpp:124] Setting up mnist
I0428 20:25:05.306320  2535 net.cpp:131] Top shape: 100 1 28 28 (78400)
I0428 20:25:05.306341  2535 net.cpp:131] Top shape: 100 (100)
I0428 20:25:05.306344  2535 net.cpp:139] Memory required for data: 314000
I0428 20:25:05.306347  2535 layer_factory.hpp:77] Creating layer label_mnist_1_split
I0428 20:25:05.306388  2535 net.cpp:86] Creating Layer label_mnist_1_split
I0428 20:25:05.306408  2535 net.cpp:408] label_mnist_1_split <- label
I0428 20:25:05.306413  2535 net.cpp:382] label_mnist_1_split -> label_mnist_1_split_0
I0428 20:25:05.306421  2535 net.cpp:382] label_mnist_1_split -> label_mnist_1_split_1
I0428 20:25:05.306532  2535 net.cpp:124] Setting up label_mnist_1_split
I0428 20:25:05.306541  2535 net.cpp:131] Top shape: 100 (100)
I0428 20:25:05.306545  2535 net.cpp:131] Top shape: 100 (100)
I0428 20:25:05.306548  2535 net.cpp:139] Memory required for data: 314800
I0428 20:25:05.306551  2535 layer_factory.hpp:77] Creating layer conv0
I0428 20:25:05.306562  2535 net.cpp:86] Creating Layer conv0
I0428 20:25:05.306565  2535 net.cpp:408] conv0 <- data
I0428 20:25:05.306572  2535 net.cpp:382] conv0 -> conv0
I0428 20:25:05.308218  2535 net.cpp:124] Setting up conv0
I0428 20:25:05.308233  2535 net.cpp:131] Top shape: 100 100 24 24 (5760000)
I0428 20:25:05.308235  2535 net.cpp:139] Memory required for data: 23354800
I0428 20:25:05.308245  2535 layer_factory.hpp:77] Creating layer pool0
I0428 20:25:05.308253  2535 net.cpp:86] Creating Layer pool0
I0428 20:25:05.308255  2535 net.cpp:408] pool0 <- conv0
I0428 20:25:05.308259  2535 net.cpp:382] pool0 -> pool0
I0428 20:25:05.308298  2535 net.cpp:124] Setting up pool0
I0428 20:25:05.308303  2535 net.cpp:131] Top shape: 100 100 12 12 (1440000)
I0428 20:25:05.308306  2535 net.cpp:139] Memory required for data: 29114800
I0428 20:25:05.308308  2535 layer_factory.hpp:77] Creating layer conv1
I0428 20:25:05.308317  2535 net.cpp:86] Creating Layer conv1
I0428 20:25:05.308321  2535 net.cpp:408] conv1 <- pool0
I0428 20:25:05.308327  2535 net.cpp:382] conv1 -> conv1
I0428 20:25:05.309872  2535 net.cpp:124] Setting up conv1
I0428 20:25:05.309886  2535 net.cpp:131] Top shape: 100 2 8 8 (12800)
I0428 20:25:05.309907  2535 net.cpp:139] Memory required for data: 29166000
I0428 20:25:05.309921  2535 layer_factory.hpp:77] Creating layer pool1
I0428 20:25:05.309927  2535 net.cpp:86] Creating Layer pool1
I0428 20:25:05.309945  2535 net.cpp:408] pool1 <- conv1
I0428 20:25:05.309974  2535 net.cpp:382] pool1 -> pool1
I0428 20:25:05.310042  2535 net.cpp:124] Setting up pool1
I0428 20:25:05.310050  2535 net.cpp:131] Top shape: 100 2 4 4 (3200)
I0428 20:25:05.310053  2535 net.cpp:139] Memory required for data: 29178800
I0428 20:25:05.310056  2535 layer_factory.hpp:77] Creating layer ip1
I0428 20:25:05.310065  2535 net.cpp:86] Creating Layer ip1
I0428 20:25:05.310067  2535 net.cpp:408] ip1 <- pool1
I0428 20:25:05.310072  2535 net.cpp:382] ip1 -> ip1
I0428 20:25:05.310179  2535 net.cpp:124] Setting up ip1
I0428 20:25:05.310187  2535 net.cpp:131] Top shape: 100 10 (1000)
I0428 20:25:05.310190  2535 net.cpp:139] Memory required for data: 29182800
I0428 20:25:05.310197  2535 layer_factory.hpp:77] Creating layer relu1
I0428 20:25:05.310204  2535 net.cpp:86] Creating Layer relu1
I0428 20:25:05.310209  2535 net.cpp:408] relu1 <- ip1
I0428 20:25:05.310212  2535 net.cpp:369] relu1 -> ip1 (in-place)
I0428 20:25:05.310375  2535 net.cpp:124] Setting up relu1
I0428 20:25:05.310384  2535 net.cpp:131] Top shape: 100 10 (1000)
I0428 20:25:05.310387  2535 net.cpp:139] Memory required for data: 29186800
I0428 20:25:05.310390  2535 layer_factory.hpp:77] Creating layer ip2
I0428 20:25:05.310398  2535 net.cpp:86] Creating Layer ip2
I0428 20:25:05.310402  2535 net.cpp:408] ip2 <- ip1
I0428 20:25:05.310408  2535 net.cpp:382] ip2 -> ip2
I0428 20:25:05.310509  2535 net.cpp:124] Setting up ip2
I0428 20:25:05.310518  2535 net.cpp:131] Top shape: 100 10 (1000)
I0428 20:25:05.310520  2535 net.cpp:139] Memory required for data: 29190800
I0428 20:25:05.310525  2535 layer_factory.hpp:77] Creating layer relu2
I0428 20:25:05.310529  2535 net.cpp:86] Creating Layer relu2
I0428 20:25:05.310534  2535 net.cpp:408] relu2 <- ip2
I0428 20:25:05.310537  2535 net.cpp:369] relu2 -> ip2 (in-place)
I0428 20:25:05.310766  2535 net.cpp:124] Setting up relu2
I0428 20:25:05.310775  2535 net.cpp:131] Top shape: 100 10 (1000)
I0428 20:25:05.310777  2535 net.cpp:139] Memory required for data: 29194800
I0428 20:25:05.310781  2535 layer_factory.hpp:77] Creating layer ip2_relu2_0_split
I0428 20:25:05.310786  2535 net.cpp:86] Creating Layer ip2_relu2_0_split
I0428 20:25:05.310788  2535 net.cpp:408] ip2_relu2_0_split <- ip2
I0428 20:25:05.310796  2535 net.cpp:382] ip2_relu2_0_split -> ip2_relu2_0_split_0
I0428 20:25:05.310811  2535 net.cpp:382] ip2_relu2_0_split -> ip2_relu2_0_split_1
I0428 20:25:05.310864  2535 net.cpp:124] Setting up ip2_relu2_0_split
I0428 20:25:05.310873  2535 net.cpp:131] Top shape: 100 10 (1000)
I0428 20:25:05.310875  2535 net.cpp:131] Top shape: 100 10 (1000)
I0428 20:25:05.310883  2535 net.cpp:139] Memory required for data: 29202800
I0428 20:25:05.310886  2535 layer_factory.hpp:77] Creating layer accuracy
I0428 20:25:05.310892  2535 net.cpp:86] Creating Layer accuracy
I0428 20:25:05.310896  2535 net.cpp:408] accuracy <- ip2_relu2_0_split_0
I0428 20:25:05.310905  2535 net.cpp:408] accuracy <- label_mnist_1_split_0
I0428 20:25:05.310909  2535 net.cpp:382] accuracy -> accuracy
…
