…
I0428 20:36:13.726544  4763 net.cpp:296] The NetState phase (0) differed from the phase (1) specified by a rule in layer mnist
I0428 20:36:13.726575  4763 net.cpp:296] The NetState phase (0) differed from the phase (1) specified by a rule in layer accuracy
I0428 20:36:13.726660  4763 net.cpp:53] Initializing net from parameters: 
name: "LeNet"
state {
  phase: TRAIN
  level: 0
  stage: ""
}
layer {
  name: "mnist"
  type: "Data"
  top: "data"
  top: "label"
  include {
    phase: TRAIN
  }
  transform_param {
    scale: 0.00390625
  }
  data_param {
    source: "examples/mnist/mnist_train_lmdb"
    batch_size: 64
    backend: LMDB
  }
}
layer {
  name: "conv0"
  type: "Convolution"
  bottom: "data"
  top: "conv0"
  param {
    lr_mult: 1
  }
  param {
    lr_mult: 2
  }
  convolution_param {
    num_output: 100
    kernel_size: 5
    stride: 1
    weight_filler {
      type: "xavier"
    }
    bias_filler {
      type: "constant"
    }
  }
}
layer {
  name: "pool0"
  type: "Pooling"
  bottom: "conv0"
  top: "pool0"
  pooling_param {
    pool: MAX
    kernel_size: 2
    stride: 2
  }
}
layer {
  name: "conv1"
  type: "Convolution"
  bottom: "pool0"
  top: "conv1"
  param {
    lr_mult: 1
  }
  param {
    lr_mult: 2
  }
  convolution_param {
    num_output: 50
    kernel_size: 5
    stride: 1
    weight_filler {
      type: "xavier"
    }
    bias_filler {
      type: "constant"
    }
  }
}
layer {
  name: "pool1"
  type: "Pooling"
  bottom: "conv1"
  top: "pool1"
  pooling_param {
    pool: MAX
    kernel_size: 2
    stride: 2
  }
}
layer {
  name: "ip1"
  type: "InnerProduct"
  bottom: "pool1"
  top: "ip1"
  param {
    lr_mult: 1
  }
  param {
    lr_mult: 2
  }
  inner_product_param {
    num_output: 50
    weight_filler {
      type: "xavier"
    }
    bias_filler {
      type: "constant"
    }
  }
}
layer {
  name: "relu1"
  type: "ReLU"
  bottom: "ip1"
  top: "ip1"
}
layer {
  name: "ip2"
  type: "InnerProduct"
  bottom: "ip1"
  top: "ip2"
  param {
    lr_mult: 1
  }
  param {
    lr_mult: 2
  }
  inner_product_param {
    num_output: 25
    weight_filler {
      type: "xavier"
    }
    bias_filler {
      type: "constant"
    }
  }
}
layer {
  name: "relu2"
  type: "ReLU"
  bottom: "ip2"
  top: "ip2"
}
layer {
  name: "ip3"
  type: "InnerProduct"
  bottom: "ip2"
  top: "ip3"
  param {
    lr_mult: 1
  }
  param {
    lr_mult: 2
  }
  inner_product_param {
    num_output: 10
    weight_filler {
      type: "xavier"
    }
    bias_filler {
      type: "constant"
    }
  }
}
layer {
  name: "relu3"
  type: "ReLU"
  bottom: "ip3"
  top: "ip3"
}
layer {
  name: "loss"
  type: "SoftmaxWithLoss"
  bottom: "ip3"
  bottom: "label"
  top: "loss"
}
I0428 20:36:13.726737  4763 layer_factory.hpp:77] Creating layer mnist
I0428 20:36:13.726836  4763 db_lmdb.cpp:35] Opened lmdb examples/mnist/mnist_train_lmdb
I0428 20:36:13.726855  4763 net.cpp:86] Creating Layer mnist
I0428 20:36:13.726861  4763 net.cpp:382] mnist -> data
I0428 20:36:13.726879  4763 net.cpp:382] mnist -> label
I0428 20:36:13.727846  4763 data_layer.cpp:45] output data size: 64,1,28,28
I0428 20:36:13.729977  4763 net.cpp:124] Setting up mnist
I0428 20:36:13.730023  4763 net.cpp:131] Top shape: 64 1 28 28 (50176)
I0428 20:36:13.730028  4763 net.cpp:131] Top shape: 64 (64)
I0428 20:36:13.730032  4763 net.cpp:139] Memory required for data: 200960
I0428 20:36:13.730038  4763 layer_factory.hpp:77] Creating layer conv0
I0428 20:36:13.730051  4763 net.cpp:86] Creating Layer conv0
I0428 20:36:13.730068  4763 net.cpp:408] conv0 <- data
I0428 20:36:13.730078  4763 net.cpp:382] conv0 -> conv0
I0428 20:36:13.970242  4763 net.cpp:124] Setting up conv0
I0428 20:36:13.970285  4763 net.cpp:131] Top shape: 64 100 24 24 (3686400)
I0428 20:36:13.970289  4763 net.cpp:139] Memory required for data: 14946560
I0428 20:36:13.970304  4763 layer_factory.hpp:77] Creating layer pool0
I0428 20:36:13.970316  4763 net.cpp:86] Creating Layer pool0
I0428 20:36:13.970319  4763 net.cpp:408] pool0 <- conv0
I0428 20:36:13.970325  4763 net.cpp:382] pool0 -> pool0
I0428 20:36:13.970388  4763 net.cpp:124] Setting up pool0
I0428 20:36:13.970394  4763 net.cpp:131] Top shape: 64 100 12 12 (921600)
I0428 20:36:13.970397  4763 net.cpp:139] Memory required for data: 18632960
I0428 20:36:13.970401  4763 layer_factory.hpp:77] Creating layer conv1
I0428 20:36:13.970410  4763 net.cpp:86] Creating Layer conv1
I0428 20:36:13.970413  4763 net.cpp:408] conv1 <- pool0
I0428 20:36:13.970418  4763 net.cpp:382] conv1 -> conv1
I0428 20:36:13.973803  4763 net.cpp:124] Setting up conv1
I0428 20:36:13.973834  4763 net.cpp:131] Top shape: 64 50 8 8 (204800)
I0428 20:36:13.973837  4763 net.cpp:139] Memory required for data: 19452160
I0428 20:36:13.973845  4763 layer_factory.hpp:77] Creating layer pool1
I0428 20:36:13.973855  4763 net.cpp:86] Creating Layer pool1
I0428 20:36:13.973858  4763 net.cpp:408] pool1 <- conv1
I0428 20:36:13.973862  4763 net.cpp:382] pool1 -> pool1
I0428 20:36:13.973913  4763 net.cpp:124] Setting up pool1
I0428 20:36:13.973919  4763 net.cpp:131] Top shape: 64 50 4 4 (51200)
I0428 20:36:13.973922  4763 net.cpp:139] Memory required for data: 19656960
I0428 20:36:13.973924  4763 layer_factory.hpp:77] Creating layer ip1
I0428 20:36:13.973932  4763 net.cpp:86] Creating Layer ip1
I0428 20:36:13.973934  4763 net.cpp:408] ip1 <- pool1
I0428 20:36:13.973938  4763 net.cpp:382] ip1 -> ip1
I0428 20:36:13.974270  4763 net.cpp:124] Setting up ip1
I0428 20:36:13.974278  4763 net.cpp:131] Top shape: 64 50 (3200)
I0428 20:36:13.974298  4763 net.cpp:139] Memory required for data: 19669760
I0428 20:36:13.974304  4763 layer_factory.hpp:77] Creating layer relu1
I0428 20:36:13.974309  4763 net.cpp:86] Creating Layer relu1
I0428 20:36:13.974313  4763 net.cpp:408] relu1 <- ip1
I0428 20:36:13.974318  4763 net.cpp:369] relu1 -> ip1 (in-place)
I0428 20:36:13.974478  4763 net.cpp:124] Setting up relu1
I0428 20:36:13.974486  4763 net.cpp:131] Top shape: 64 50 (3200)
I0428 20:36:13.974489  4763 net.cpp:139] Memory required for data: 19682560
I0428 20:36:13.974493  4763 layer_factory.hpp:77] Creating layer ip2
I0428 20:36:13.974498  4763 net.cpp:86] Creating Layer ip2
I0428 20:36:13.974501  4763 net.cpp:408] ip2 <- ip1
I0428 20:36:13.974506  4763 net.cpp:382] ip2 -> ip2
I0428 20:36:13.974613  4763 net.cpp:124] Setting up ip2
I0428 20:36:13.974620  4763 net.cpp:131] Top shape: 64 25 (1600)
I0428 20:36:13.974623  4763 net.cpp:139] Memory required for data: 19688960
I0428 20:36:13.974628  4763 layer_factory.hpp:77] Creating layer relu2
I0428 20:36:13.974634  4763 net.cpp:86] Creating Layer relu2
I0428 20:36:13.974637  4763 net.cpp:408] relu2 <- ip2
I0428 20:36:13.974642  4763 net.cpp:369] relu2 -> ip2 (in-place)
I0428 20:36:13.975432  4763 net.cpp:124] Setting up relu2
I0428 20:36:13.975445  4763 net.cpp:131] Top shape: 64 25 (1600)
I0428 20:36:13.975463  4763 net.cpp:139] Memory required for data: 19695360
I0428 20:36:13.975467  4763 layer_factory.hpp:77] Creating layer ip3
I0428 20:36:13.975474  4763 net.cpp:86] Creating Layer ip3
I0428 20:36:13.975478  4763 net.cpp:408] ip3 <- ip2
I0428 20:36:13.975484  4763 net.cpp:382] ip3 -> ip3
I0428 20:36:13.975581  4763 net.cpp:124] Setting up ip3
I0428 20:36:13.975589  4763 net.cpp:131] Top shape: 64 10 (640)
I0428 20:36:13.975592  4763 net.cpp:139] Memory required for data: 19697920
I0428 20:36:13.975600  4763 layer_factory.hpp:77] Creating layer relu3
I0428 20:36:13.975605  4763 net.cpp:86] Creating Layer relu3
I0428 20:36:13.975607  4763 net.cpp:408] relu3 <- ip3
I0428 20:36:13.975625  4763 net.cpp:369] relu3 -> ip3 (in-place)
I0428 20:36:13.975793  4763 net.cpp:124] Setting up relu3
I0428 20:36:13.975802  4763 net.cpp:131] Top shape: 64 10 (640)
I0428 20:36:13.975805  4763 net.cpp:139] Memory required for data: 19700480
I0428 20:36:13.975808  4763 layer_factory.hpp:77] Creating layer loss
I0428 20:36:13.975814  4763 net.cpp:86] Creating Layer loss
I0428 20:36:13.975817  4763 net.cpp:408] loss <- ip3
I0428 20:36:13.975821  4763 net.cpp:408] loss <- label
I0428 20:36:13.975826  4763 net.cpp:382] loss -> loss
I0428 20:36:13.975844  4763 layer_factory.hpp:77] Creating layer loss
…
I0428 20:36:13.976522  4763 solver.cpp:173] Creating test net (#0) specified by net file: ECE595/mnist/train_test/var_everything2/lenet_train_test1633.prototxt
I0428 20:36:13.976582  4763 net.cpp:296] The NetState phase (1) differed from the phase (0) specified by a rule in layer mnist
I0428 20:36:13.976686  4763 net.cpp:53] Initializing net from parameters: 
name: "LeNet"
state {
  phase: TEST
}
layer {
  name: "mnist"
  type: "Data"
  top: "data"
  top: "label"
  include {
    phase: TEST
  }
  transform_param {
    scale: 0.00390625
  }
  data_param {
    source: "examples/mnist/mnist_test_lmdb"
    batch_size: 100
    backend: LMDB
  }
}
layer {
  name: "conv0"
  type: "Convolution"
  bottom: "data"
  top: "conv0"
  param {
    lr_mult: 1
  }
  param {
    lr_mult: 2
  }
  convolution_param {
    num_output: 100
    kernel_size: 5
    stride: 1
    weight_filler {
      type: "xavier"
    }
    bias_filler {
      type: "constant"
    }
  }
}
layer {
  name: "pool0"
  type: "Pooling"
  bottom: "conv0"
  top: "pool0"
  pooling_param {
    pool: MAX
    kernel_size: 2
    stride: 2
  }
}
layer {
  name: "conv1"
  type: "Convolution"
  bottom: "pool0"
  top: "conv1"
  param {
    lr_mult: 1
  }
  param {
    lr_mult: 2
  }
  convolution_param {
    num_output: 50
    kernel_size: 5
    stride: 1
    weight_filler {
      type: "xavier"
    }
    bias_filler {
      type: "constant"
    }
  }
}
layer {
  name: "pool1"
  type: "Pooling"
  bottom: "conv1"
  top: "pool1"
  pooling_param {
    pool: MAX
    kernel_size: 2
    stride: 2
  }
}
layer {
  name: "ip1"
  type: "InnerProduct"
  bottom: "pool1"
  top: "ip1"
  param {
    lr_mult: 1
  }
  param {
    lr_mult: 2
  }
  inner_product_param {
    num_output: 50
    weight_filler {
      type: "xavier"
    }
    bias_filler {
      type: "constant"
    }
  }
}
layer {
  name: "relu1"
  type: "ReLU"
  bottom: "ip1"
  top: "ip1"
}
layer {
  name: "ip2"
  type: "InnerProduct"
  bottom: "ip1"
  top: "ip2"
  param {
    lr_mult: 1
  }
  param {
    lr_mult: 2
  }
  inner_product_param {
    num_output: 25
    weight_filler {
      type: "xavier"
    }
    bias_filler {
      type: "constant"
    }
  }
}
layer {
  name: "relu2"
  type: "ReLU"
  bottom: "ip2"
  top: "ip2"
}
layer {
  name: "ip3"
  type: "InnerProduct"
  bottom: "ip2"
  top: "ip3"
  param {
    lr_mult: 1
  }
  param {
    lr_mult: 2
  }
  inner_product_param {
    num_output: 10
    weight_filler {
      type: "xavier"
    }
    bias_filler {
      type: "constant"
    }
  }
}
layer {
  name: "relu3"
  type: "ReLU"
  bottom: "ip3"
  top: "ip3"
}
layer {
  name: "accuracy"
  type: "Accuracy"
  bottom: "ip3"
  bottom: "label"
  top: "accuracy"
  include {
    phase: TEST
  }
}
layer {
  name: "loss"
  type: "SoftmaxWithLoss"
  bottom: "ip3"
  bottom: "label"
  top: "loss"
}
I0428 20:36:13.976768  4763 layer_factory.hpp:77] Creating layer mnist
I0428 20:36:13.976830  4763 db_lmdb.cpp:35] Opened lmdb examples/mnist/mnist_test_lmdb
I0428 20:36:13.976858  4763 net.cpp:86] Creating Layer mnist
I0428 20:36:13.976881  4763 net.cpp:382] mnist -> data
I0428 20:36:13.976888  4763 net.cpp:382] mnist -> label
I0428 20:36:13.976986  4763 data_layer.cpp:45] output data size: 100,1,28,28
I0428 20:36:13.978432  4763 net.cpp:124] Setting up mnist
I0428 20:36:13.978444  4763 net.cpp:131] Top shape: 100 1 28 28 (78400)
I0428 20:36:13.978464  4763 net.cpp:131] Top shape: 100 (100)
I0428 20:36:13.978467  4763 net.cpp:139] Memory required for data: 314000
I0428 20:36:13.978471  4763 layer_factory.hpp:77] Creating layer label_mnist_1_split
I0428 20:36:13.978477  4763 net.cpp:86] Creating Layer label_mnist_1_split
I0428 20:36:13.978480  4763 net.cpp:408] label_mnist_1_split <- label
I0428 20:36:13.978488  4763 net.cpp:382] label_mnist_1_split -> label_mnist_1_split_0
I0428 20:36:13.978494  4763 net.cpp:382] label_mnist_1_split -> label_mnist_1_split_1
I0428 20:36:13.978593  4763 net.cpp:124] Setting up label_mnist_1_split
I0428 20:36:13.978602  4763 net.cpp:131] Top shape: 100 (100)
I0428 20:36:13.978605  4763 net.cpp:131] Top shape: 100 (100)
I0428 20:36:13.978608  4763 net.cpp:139] Memory required for data: 314800
I0428 20:36:13.978611  4763 layer_factory.hpp:77] Creating layer conv0
I0428 20:36:13.978621  4763 net.cpp:86] Creating Layer conv0
I0428 20:36:13.978624  4763 net.cpp:408] conv0 <- data
I0428 20:36:13.978629  4763 net.cpp:382] conv0 -> conv0
I0428 20:36:13.980293  4763 net.cpp:124] Setting up conv0
I0428 20:36:13.980305  4763 net.cpp:131] Top shape: 100 100 24 24 (5760000)
I0428 20:36:13.980325  4763 net.cpp:139] Memory required for data: 23354800
I0428 20:36:13.980334  4763 layer_factory.hpp:77] Creating layer pool0
I0428 20:36:13.980341  4763 net.cpp:86] Creating Layer pool0
I0428 20:36:13.980345  4763 net.cpp:408] pool0 <- conv0
I0428 20:36:13.980348  4763 net.cpp:382] pool0 -> pool0
I0428 20:36:13.980401  4763 net.cpp:124] Setting up pool0
I0428 20:36:13.980406  4763 net.cpp:131] Top shape: 100 100 12 12 (1440000)
I0428 20:36:13.980408  4763 net.cpp:139] Memory required for data: 29114800
I0428 20:36:13.980412  4763 layer_factory.hpp:77] Creating layer conv1
I0428 20:36:13.980420  4763 net.cpp:86] Creating Layer conv1
I0428 20:36:13.980423  4763 net.cpp:408] conv1 <- pool0
I0428 20:36:13.980429  4763 net.cpp:382] conv1 -> conv1
I0428 20:36:13.983496  4763 net.cpp:124] Setting up conv1
I0428 20:36:13.983526  4763 net.cpp:131] Top shape: 100 50 8 8 (320000)
I0428 20:36:13.983530  4763 net.cpp:139] Memory required for data: 30394800
I0428 20:36:13.983538  4763 layer_factory.hpp:77] Creating layer pool1
I0428 20:36:13.983544  4763 net.cpp:86] Creating Layer pool1
I0428 20:36:13.983547  4763 net.cpp:408] pool1 <- conv1
I0428 20:36:13.983552  4763 net.cpp:382] pool1 -> pool1
I0428 20:36:13.983604  4763 net.cpp:124] Setting up pool1
I0428 20:36:13.983610  4763 net.cpp:131] Top shape: 100 50 4 4 (80000)
I0428 20:36:13.983613  4763 net.cpp:139] Memory required for data: 30714800
I0428 20:36:13.983616  4763 layer_factory.hpp:77] Creating layer ip1
I0428 20:36:13.983623  4763 net.cpp:86] Creating Layer ip1
I0428 20:36:13.983626  4763 net.cpp:408] ip1 <- pool1
I0428 20:36:13.983633  4763 net.cpp:382] ip1 -> ip1
I0428 20:36:13.983958  4763 net.cpp:124] Setting up ip1
I0428 20:36:13.984006  4763 net.cpp:131] Top shape: 100 50 (5000)
I0428 20:36:13.984009  4763 net.cpp:139] Memory required for data: 30734800
I0428 20:36:13.984016  4763 layer_factory.hpp:77] Creating layer relu1
I0428 20:36:13.984021  4763 net.cpp:86] Creating Layer relu1
I0428 20:36:13.984025  4763 net.cpp:408] relu1 <- ip1
I0428 20:36:13.984030  4763 net.cpp:369] relu1 -> ip1 (in-place)
I0428 20:36:13.984189  4763 net.cpp:124] Setting up relu1
I0428 20:36:13.984200  4763 net.cpp:131] Top shape: 100 50 (5000)
I0428 20:36:13.984202  4763 net.cpp:139] Memory required for data: 30754800
I0428 20:36:13.984205  4763 layer_factory.hpp:77] Creating layer ip2
I0428 20:36:13.984211  4763 net.cpp:86] Creating Layer ip2
I0428 20:36:13.984215  4763 net.cpp:408] ip2 <- ip1
I0428 20:36:13.984220  4763 net.cpp:382] ip2 -> ip2
I0428 20:36:13.984345  4763 net.cpp:124] Setting up ip2
I0428 20:36:13.984354  4763 net.cpp:131] Top shape: 100 25 (2500)
I0428 20:36:13.984356  4763 net.cpp:139] Memory required for data: 30764800
I0428 20:36:13.984361  4763 layer_factory.hpp:77] Creating layer relu2
I0428 20:36:13.984365  4763 net.cpp:86] Creating Layer relu2
I0428 20:36:13.984369  4763 net.cpp:408] relu2 <- ip2
I0428 20:36:13.984374  4763 net.cpp:369] relu2 -> ip2 (in-place)
I0428 20:36:13.984575  4763 net.cpp:124] Setting up relu2
I0428 20:36:13.984599  4763 net.cpp:131] Top shape: 100 25 (2500)
I0428 20:36:13.984603  4763 net.cpp:139] Memory required for data: 30774800
I0428 20:36:13.984606  4763 layer_factory.hpp:77] Creating layer ip3
I0428 20:36:13.984613  4763 net.cpp:86] Creating Layer ip3
I0428 20:36:13.984617  4763 net.cpp:408] ip3 <- ip2
I0428 20:36:13.984623  4763 net.cpp:382] ip3 -> ip3
I0428 20:36:13.984729  4763 net.cpp:124] Setting up ip3
I0428 20:36:13.984735  4763 net.cpp:131] Top shape: 100 10 (1000)
I0428 20:36:13.984740  4763 net.cpp:139] Memory required for data: 30778800
I0428 20:36:13.984748  4763 layer_factory.hpp:77] Creating layer relu3
I0428 20:36:13.984752  4763 net.cpp:86] Creating Layer relu3
I0428 20:36:13.984755  4763 net.cpp:408] relu3 <- ip3
I0428 20:36:13.984760  4763 net.cpp:369] relu3 -> ip3 (in-place)
I0428 20:36:13.985625  4763 net.cpp:124] Setting up relu3
I0428 20:36:13.985637  4763 net.cpp:131] Top shape: 100 10 (1000)
I0428 20:36:13.985657  4763 net.cpp:139] Memory required for data: 30782800
I0428 20:36:13.985661  4763 layer_factory.hpp:77] Creating layer ip3_relu3_0_split
I0428 20:36:13.985667  4763 net.cpp:86] Creating Layer ip3_relu3_0_split
I0428 20:36:13.985672  4763 net.cpp:408] ip3_relu3_0_split <- ip3
I0428 20:36:13.985678  4763 net.cpp:382] ip3_relu3_0_split -> ip3_relu3_0_split_0
I0428 20:36:13.985684  4763 net.cpp:382] ip3_relu3_0_split -> ip3_relu3_0_split_1
I0428 20:36:13.985745  4763 net.cpp:124] Setting up ip3_relu3_0_split
I0428 20:36:13.985759  4763 net.cpp:131] Top shape: 100 10 (1000)
I0428 20:36:13.985769  4763 net.cpp:131] Top shape: 100 10 (1000)
I0428 20:36:13.985771  4763 net.cpp:139] Memory required for data: 30790800
I0428 20:36:13.985774  4763 layer_factory.hpp:77] Creating layer accuracy
I0428 20:36:13.985780  4763 net.cpp:86] Creating Layer accuracy
I0428 20:36:13.985783  4763 net.cpp:408] accuracy <- ip3_relu3_0_split_0
I0428 20:36:13.985787  4763 net.cpp:408] accuracy <- label_mnist_1_split_0
I0428 20:36:13.985793  4763 net.cpp:382] accuracy -> accuracy
…
