…
I0428 20:17:00.677844   775 net.cpp:296] The NetState phase (0) differed from the phase (1) specified by a rule in layer mnist
I0428 20:17:00.677889   775 net.cpp:296] The NetState phase (0) differed from the phase (1) specified by a rule in layer accuracy
I0428 20:17:00.677989   775 net.cpp:53] Initializing net from parameters: 
name: "LeNet"
state {
  phase: TRAIN
  level: 0
  stage: ""
}
layer {
  name: "mnist"
  type: "Data"
  top: "data"
  top: "label"
  include {
    phase: TRAIN
  }
  transform_param {
    scale: 0.00390625
  }
  data_param {
    source: "examples/mnist/mnist_train_lmdb"
    batch_size: 64
    backend: LMDB
  }
}
layer {
  name: "conv0"
  type: "Convolution"
  bottom: "data"
  top: "conv0"
  param {
    lr_mult: 1
  }
  param {
    lr_mult: 2
  }
  convolution_param {
    num_output: 50
    kernel_size: 5
    stride: 1
    weight_filler {
      type: "xavier"
    }
    bias_filler {
      type: "constant"
    }
  }
}
layer {
  name: "pool0"
  type: "Pooling"
  bottom: "conv0"
  top: "pool0"
  pooling_param {
    pool: MAX
    kernel_size: 2
    stride: 2
  }
}
layer {
  name: "conv1"
  type: "Convolution"
  bottom: "pool0"
  top: "conv1"
  param {
    lr_mult: 1
  }
  param {
    lr_mult: 2
  }
  convolution_param {
    num_output: 5
    kernel_size: 5
    stride: 1
    weight_filler {
      type: "xavier"
    }
    bias_filler {
      type: "constant"
    }
  }
}
layer {
  name: "pool1"
  type: "Pooling"
  bottom: "conv1"
  top: "pool1"
  pooling_param {
    pool: MAX
    kernel_size: 2
    stride: 2
  }
}
layer {
  name: "ip1"
  type: "InnerProduct"
  bottom: "pool1"
  top: "ip1"
  param {
    lr_mult: 1
  }
  param {
    lr_mult: 2
  }
  inner_product_param {
    num_output: 50
    weight_filler {
      type: "xavier"
    }
    bias_filler {
      type: "constant"
    }
  }
}
layer {
  name: "relu1"
  type: "ReLU"
  bottom: "ip1"
  top: "ip1"
}
layer {
  name: "ip2"
  type: "InnerProduct"
  bottom: "ip1"
  top: "ip2"
  param {
    lr_mult: 1
  }
  param {
    lr_mult: 2
  }
  inner_product_param {
    num_output: 50
    weight_filler {
      type: "xavier"
    }
    bias_filler {
      type: "constant"
    }
  }
}
layer {
  name: "relu2"
  type: "ReLU"
  bottom: "ip2"
  top: "ip2"
}
layer {
  name: "ip3"
  type: "InnerProduct"
  bottom: "ip2"
  top: "ip3"
  param {
    lr_mult: 1
  }
  param {
    lr_mult: 2
  }
  inner_product_param {
    num_output: 10
    weight_filler {
      type: "xavier"
    }
    bias_filler {
      type: "constant"
    }
  }
}
layer {
  name: "relu3"
  type: "ReLU"
  bottom: "ip3"
  top: "ip3"
}
layer {
  name: "loss"
  type: "SoftmaxWithLoss"
  bottom: "ip3"
  bottom: "label"
  top: "loss"
}
I0428 20:17:00.678072   775 layer_factory.hpp:77] Creating layer mnist
I0428 20:17:00.678160   775 db_lmdb.cpp:35] Opened lmdb examples/mnist/mnist_train_lmdb
I0428 20:17:00.678181   775 net.cpp:86] Creating Layer mnist
I0428 20:17:00.678187   775 net.cpp:382] mnist -> data
I0428 20:17:00.678222   775 net.cpp:382] mnist -> label
I0428 20:17:00.679221   775 data_layer.cpp:45] output data size: 64,1,28,28
I0428 20:17:00.681612   775 net.cpp:124] Setting up mnist
I0428 20:17:00.681658   775 net.cpp:131] Top shape: 64 1 28 28 (50176)
I0428 20:17:00.681664   775 net.cpp:131] Top shape: 64 (64)
I0428 20:17:00.681668   775 net.cpp:139] Memory required for data: 200960
I0428 20:17:00.681673   775 layer_factory.hpp:77] Creating layer conv0
I0428 20:17:00.681685   775 net.cpp:86] Creating Layer conv0
I0428 20:17:00.681702   775 net.cpp:408] conv0 <- data
I0428 20:17:00.681715   775 net.cpp:382] conv0 -> conv0
I0428 20:17:00.915608   775 net.cpp:124] Setting up conv0
I0428 20:17:00.915633   775 net.cpp:131] Top shape: 64 50 24 24 (1843200)
I0428 20:17:00.915637   775 net.cpp:139] Memory required for data: 7573760
I0428 20:17:00.915650   775 layer_factory.hpp:77] Creating layer pool0
I0428 20:17:00.915662   775 net.cpp:86] Creating Layer pool0
I0428 20:17:00.915665   775 net.cpp:408] pool0 <- conv0
I0428 20:17:00.915670   775 net.cpp:382] pool0 -> pool0
I0428 20:17:00.915730   775 net.cpp:124] Setting up pool0
I0428 20:17:00.915735   775 net.cpp:131] Top shape: 64 50 12 12 (460800)
I0428 20:17:00.915738   775 net.cpp:139] Memory required for data: 9416960
I0428 20:17:00.915741   775 layer_factory.hpp:77] Creating layer conv1
I0428 20:17:00.915752   775 net.cpp:86] Creating Layer conv1
I0428 20:17:00.915755   775 net.cpp:408] conv1 <- pool0
I0428 20:17:00.915760   775 net.cpp:382] conv1 -> conv1
I0428 20:17:00.918484   775 net.cpp:124] Setting up conv1
I0428 20:17:00.918514   775 net.cpp:131] Top shape: 64 5 8 8 (20480)
I0428 20:17:00.918516   775 net.cpp:139] Memory required for data: 9498880
I0428 20:17:00.918524   775 layer_factory.hpp:77] Creating layer pool1
I0428 20:17:00.918531   775 net.cpp:86] Creating Layer pool1
I0428 20:17:00.918535   775 net.cpp:408] pool1 <- conv1
I0428 20:17:00.918540   775 net.cpp:382] pool1 -> pool1
I0428 20:17:00.918591   775 net.cpp:124] Setting up pool1
I0428 20:17:00.918596   775 net.cpp:131] Top shape: 64 5 4 4 (5120)
I0428 20:17:00.918599   775 net.cpp:139] Memory required for data: 9519360
I0428 20:17:00.918602   775 layer_factory.hpp:77] Creating layer ip1
I0428 20:17:00.918608   775 net.cpp:86] Creating Layer ip1
I0428 20:17:00.918612   775 net.cpp:408] ip1 <- pool1
I0428 20:17:00.918615   775 net.cpp:382] ip1 -> ip1
I0428 20:17:00.918736   775 net.cpp:124] Setting up ip1
I0428 20:17:00.918743   775 net.cpp:131] Top shape: 64 50 (3200)
I0428 20:17:00.918746   775 net.cpp:139] Memory required for data: 9532160
I0428 20:17:00.918753   775 layer_factory.hpp:77] Creating layer relu1
I0428 20:17:00.918758   775 net.cpp:86] Creating Layer relu1
I0428 20:17:00.918761   775 net.cpp:408] relu1 <- ip1
I0428 20:17:00.918779   775 net.cpp:369] relu1 -> ip1 (in-place)
I0428 20:17:00.918933   775 net.cpp:124] Setting up relu1
I0428 20:17:00.918942   775 net.cpp:131] Top shape: 64 50 (3200)
I0428 20:17:00.918944   775 net.cpp:139] Memory required for data: 9544960
I0428 20:17:00.918947   775 layer_factory.hpp:77] Creating layer ip2
I0428 20:17:00.918953   775 net.cpp:86] Creating Layer ip2
I0428 20:17:00.918956   775 net.cpp:408] ip2 <- ip1
I0428 20:17:00.918961   775 net.cpp:382] ip2 -> ip2
I0428 20:17:00.919085   775 net.cpp:124] Setting up ip2
I0428 20:17:00.919106   775 net.cpp:131] Top shape: 64 50 (3200)
I0428 20:17:00.919109   775 net.cpp:139] Memory required for data: 9557760
I0428 20:17:00.919116   775 layer_factory.hpp:77] Creating layer relu2
I0428 20:17:00.919122   775 net.cpp:86] Creating Layer relu2
I0428 20:17:00.919126   775 net.cpp:408] relu2 <- ip2
I0428 20:17:00.919129   775 net.cpp:369] relu2 -> ip2 (in-place)
I0428 20:17:00.919919   775 net.cpp:124] Setting up relu2
I0428 20:17:00.919948   775 net.cpp:131] Top shape: 64 50 (3200)
I0428 20:17:00.919952   775 net.cpp:139] Memory required for data: 9570560
I0428 20:17:00.919955   775 layer_factory.hpp:77] Creating layer ip3
I0428 20:17:00.919962   775 net.cpp:86] Creating Layer ip3
I0428 20:17:00.919966   775 net.cpp:408] ip3 <- ip2
I0428 20:17:00.919973   775 net.cpp:382] ip3 -> ip3
I0428 20:17:00.920080   775 net.cpp:124] Setting up ip3
I0428 20:17:00.920089   775 net.cpp:131] Top shape: 64 10 (640)
I0428 20:17:00.920091   775 net.cpp:139] Memory required for data: 9573120
I0428 20:17:00.920099   775 layer_factory.hpp:77] Creating layer relu3
I0428 20:17:00.920105   775 net.cpp:86] Creating Layer relu3
I0428 20:17:00.920109   775 net.cpp:408] relu3 <- ip3
I0428 20:17:00.920114   775 net.cpp:369] relu3 -> ip3 (in-place)
I0428 20:17:00.920316   775 net.cpp:124] Setting up relu3
I0428 20:17:00.920325   775 net.cpp:131] Top shape: 64 10 (640)
I0428 20:17:00.920327   775 net.cpp:139] Memory required for data: 9575680
I0428 20:17:00.920331   775 layer_factory.hpp:77] Creating layer loss
I0428 20:17:00.920336   775 net.cpp:86] Creating Layer loss
I0428 20:17:00.920341   775 net.cpp:408] loss <- ip3
I0428 20:17:00.920344   775 net.cpp:408] loss <- label
I0428 20:17:00.920351   775 net.cpp:382] loss -> loss
I0428 20:17:00.920363   775 layer_factory.hpp:77] Creating layer loss
…
I0428 20:17:00.921099   775 solver.cpp:173] Creating test net (#0) specified by net file: ECE595/mnist/train_test/var_everything2/lenet_train_test1284.prototxt
I0428 20:17:00.921159   775 net.cpp:296] The NetState phase (1) differed from the phase (0) specified by a rule in layer mnist
I0428 20:17:00.921285   775 net.cpp:53] Initializing net from parameters: 
name: "LeNet"
state {
  phase: TEST
}
layer {
  name: "mnist"
  type: "Data"
  top: "data"
  top: "label"
  include {
    phase: TEST
  }
  transform_param {
    scale: 0.00390625
  }
  data_param {
    source: "examples/mnist/mnist_test_lmdb"
    batch_size: 100
    backend: LMDB
  }
}
layer {
  name: "conv0"
  type: "Convolution"
  bottom: "data"
  top: "conv0"
  param {
    lr_mult: 1
  }
  param {
    lr_mult: 2
  }
  convolution_param {
    num_output: 50
    kernel_size: 5
    stride: 1
    weight_filler {
      type: "xavier"
    }
    bias_filler {
      type: "constant"
    }
  }
}
layer {
  name: "pool0"
  type: "Pooling"
  bottom: "conv0"
  top: "pool0"
  pooling_param {
    pool: MAX
    kernel_size: 2
    stride: 2
  }
}
layer {
  name: "conv1"
  type: "Convolution"
  bottom: "pool0"
  top: "conv1"
  param {
    lr_mult: 1
  }
  param {
    lr_mult: 2
  }
  convolution_param {
    num_output: 5
    kernel_size: 5
    stride: 1
    weight_filler {
      type: "xavier"
    }
    bias_filler {
      type: "constant"
    }
  }
}
layer {
  name: "pool1"
  type: "Pooling"
  bottom: "conv1"
  top: "pool1"
  pooling_param {
    pool: MAX
    kernel_size: 2
    stride: 2
  }
}
layer {
  name: "ip1"
  type: "InnerProduct"
  bottom: "pool1"
  top: "ip1"
  param {
    lr_mult: 1
  }
  param {
    lr_mult: 2
  }
  inner_product_param {
    num_output: 50
    weight_filler {
      type: "xavier"
    }
    bias_filler {
      type: "constant"
    }
  }
}
layer {
  name: "relu1"
  type: "ReLU"
  bottom: "ip1"
  top: "ip1"
}
layer {
  name: "ip2"
  type: "InnerProduct"
  bottom: "ip1"
  top: "ip2"
  param {
    lr_mult: 1
  }
  param {
    lr_mult: 2
  }
  inner_product_param {
    num_output: 50
    weight_filler {
      type: "xavier"
    }
    bias_filler {
      type: "constant"
    }
  }
}
layer {
  name: "relu2"
  type: "ReLU"
  bottom: "ip2"
  top: "ip2"
}
layer {
  name: "ip3"
  type: "InnerProduct"
  bottom: "ip2"
  top: "ip3"
  param {
    lr_mult: 1
  }
  param {
    lr_mult: 2
  }
  inner_product_param {
    num_output: 10
    weight_filler {
      type: "xavier"
    }
    bias_filler {
      type: "constant"
    }
  }
}
layer {
  name: "relu3"
  type: "ReLU"
  bottom: "ip3"
  top: "ip3"
}
layer {
  name: "accuracy"
  type: "Accuracy"
  bottom: "ip3"
  bottom: "label"
  top: "accuracy"
  include {
    phase: TEST
  }
}
layer {
  name: "loss"
  type: "SoftmaxWithLoss"
  bottom: "ip3"
  bottom: "label"
  top: "loss"
}
I0428 20:17:00.921367   775 layer_factory.hpp:77] Creating layer mnist
I0428 20:17:00.921412   775 db_lmdb.cpp:35] Opened lmdb examples/mnist/mnist_test_lmdb
I0428 20:17:00.921423   775 net.cpp:86] Creating Layer mnist
I0428 20:17:00.921429   775 net.cpp:382] mnist -> data
I0428 20:17:00.921437   775 net.cpp:382] mnist -> label
I0428 20:17:00.921524   775 data_layer.cpp:45] output data size: 100,1,28,28
I0428 20:17:00.923413   775 net.cpp:124] Setting up mnist
I0428 20:17:00.923441   775 net.cpp:131] Top shape: 100 1 28 28 (78400)
I0428 20:17:00.923445   775 net.cpp:131] Top shape: 100 (100)
I0428 20:17:00.923449   775 net.cpp:139] Memory required for data: 314000
I0428 20:17:00.923451   775 layer_factory.hpp:77] Creating layer label_mnist_1_split
I0428 20:17:00.923485   775 net.cpp:86] Creating Layer label_mnist_1_split
I0428 20:17:00.923490   775 net.cpp:408] label_mnist_1_split <- label
I0428 20:17:00.923494   775 net.cpp:382] label_mnist_1_split -> label_mnist_1_split_0
I0428 20:17:00.923501   775 net.cpp:382] label_mnist_1_split -> label_mnist_1_split_1
I0428 20:17:00.923624   775 net.cpp:124] Setting up label_mnist_1_split
I0428 20:17:00.923632   775 net.cpp:131] Top shape: 100 (100)
I0428 20:17:00.923636   775 net.cpp:131] Top shape: 100 (100)
I0428 20:17:00.923640   775 net.cpp:139] Memory required for data: 314800
I0428 20:17:00.923642   775 layer_factory.hpp:77] Creating layer conv0
I0428 20:17:00.923651   775 net.cpp:86] Creating Layer conv0
I0428 20:17:00.923655   775 net.cpp:408] conv0 <- data
I0428 20:17:00.923672   775 net.cpp:382] conv0 -> conv0
I0428 20:17:00.925405   775 net.cpp:124] Setting up conv0
I0428 20:17:00.925418   775 net.cpp:131] Top shape: 100 50 24 24 (2880000)
I0428 20:17:00.925421   775 net.cpp:139] Memory required for data: 11834800
I0428 20:17:00.925431   775 layer_factory.hpp:77] Creating layer pool0
I0428 20:17:00.925437   775 net.cpp:86] Creating Layer pool0
I0428 20:17:00.925457   775 net.cpp:408] pool0 <- conv0
I0428 20:17:00.925460   775 net.cpp:382] pool0 -> pool0
I0428 20:17:00.925498   775 net.cpp:124] Setting up pool0
I0428 20:17:00.925503   775 net.cpp:131] Top shape: 100 50 12 12 (720000)
I0428 20:17:00.925506   775 net.cpp:139] Memory required for data: 14714800
I0428 20:17:00.925508   775 layer_factory.hpp:77] Creating layer conv1
I0428 20:17:00.925518   775 net.cpp:86] Creating Layer conv1
I0428 20:17:00.925521   775 net.cpp:408] conv1 <- pool0
I0428 20:17:00.925529   775 net.cpp:382] conv1 -> conv1
I0428 20:17:00.927134   775 net.cpp:124] Setting up conv1
I0428 20:17:00.927146   775 net.cpp:131] Top shape: 100 5 8 8 (32000)
I0428 20:17:00.927150   775 net.cpp:139] Memory required for data: 14842800
I0428 20:17:00.927160   775 layer_factory.hpp:77] Creating layer pool1
I0428 20:17:00.927166   775 net.cpp:86] Creating Layer pool1
I0428 20:17:00.927176   775 net.cpp:408] pool1 <- conv1
I0428 20:17:00.927182   775 net.cpp:382] pool1 -> pool1
I0428 20:17:00.927224   775 net.cpp:124] Setting up pool1
I0428 20:17:00.927229   775 net.cpp:131] Top shape: 100 5 4 4 (8000)
I0428 20:17:00.927237   775 net.cpp:139] Memory required for data: 14874800
I0428 20:17:00.927242   775 layer_factory.hpp:77] Creating layer ip1
I0428 20:17:00.927248   775 net.cpp:86] Creating Layer ip1
I0428 20:17:00.927256   775 net.cpp:408] ip1 <- pool1
I0428 20:17:00.927271   775 net.cpp:382] ip1 -> ip1
I0428 20:17:00.927430   775 net.cpp:124] Setting up ip1
I0428 20:17:00.927439   775 net.cpp:131] Top shape: 100 50 (5000)
I0428 20:17:00.927451   775 net.cpp:139] Memory required for data: 14894800
I0428 20:17:00.927459   775 layer_factory.hpp:77] Creating layer relu1
I0428 20:17:00.927465   775 net.cpp:86] Creating Layer relu1
I0428 20:17:00.927469   775 net.cpp:408] relu1 <- ip1
I0428 20:17:00.927472   775 net.cpp:369] relu1 -> ip1 (in-place)
I0428 20:17:00.927662   775 net.cpp:124] Setting up relu1
I0428 20:17:00.927671   775 net.cpp:131] Top shape: 100 50 (5000)
I0428 20:17:00.927675   775 net.cpp:139] Memory required for data: 14914800
I0428 20:17:00.927677   775 layer_factory.hpp:77] Creating layer ip2
I0428 20:17:00.927692   775 net.cpp:86] Creating Layer ip2
I0428 20:17:00.927695   775 net.cpp:408] ip2 <- ip1
I0428 20:17:00.927701   775 net.cpp:382] ip2 -> ip2
I0428 20:17:00.927834   775 net.cpp:124] Setting up ip2
I0428 20:17:00.927840   775 net.cpp:131] Top shape: 100 50 (5000)
I0428 20:17:00.927844   775 net.cpp:139] Memory required for data: 14934800
I0428 20:17:00.927850   775 layer_factory.hpp:77] Creating layer relu2
I0428 20:17:00.927853   775 net.cpp:86] Creating Layer relu2
I0428 20:17:00.927856   775 net.cpp:408] relu2 <- ip2
I0428 20:17:00.927860   775 net.cpp:369] relu2 -> ip2 (in-place)
I0428 20:17:00.928022   775 net.cpp:124] Setting up relu2
I0428 20:17:00.928031   775 net.cpp:131] Top shape: 100 50 (5000)
I0428 20:17:00.928035   775 net.cpp:139] Memory required for data: 14954800
I0428 20:17:00.928037   775 layer_factory.hpp:77] Creating layer ip3
I0428 20:17:00.928042   775 net.cpp:86] Creating Layer ip3
I0428 20:17:00.928045   775 net.cpp:408] ip3 <- ip2
I0428 20:17:00.928050   775 net.cpp:382] ip3 -> ip3
I0428 20:17:00.928153   775 net.cpp:124] Setting up ip3
I0428 20:17:00.928158   775 net.cpp:131] Top shape: 100 10 (1000)
I0428 20:17:00.928163   775 net.cpp:139] Memory required for data: 14958800
I0428 20:17:00.928169   775 layer_factory.hpp:77] Creating layer relu3
I0428 20:17:00.928174   775 net.cpp:86] Creating Layer relu3
I0428 20:17:00.928177   775 net.cpp:408] relu3 <- ip3
I0428 20:17:00.928180   775 net.cpp:369] relu3 -> ip3 (in-place)
I0428 20:17:00.929046   775 net.cpp:124] Setting up relu3
I0428 20:17:00.929059   775 net.cpp:131] Top shape: 100 10 (1000)
I0428 20:17:00.929062   775 net.cpp:139] Memory required for data: 14962800
I0428 20:17:00.929066   775 layer_factory.hpp:77] Creating layer ip3_relu3_0_split
I0428 20:17:00.929071   775 net.cpp:86] Creating Layer ip3_relu3_0_split
I0428 20:17:00.929075   775 net.cpp:408] ip3_relu3_0_split <- ip3
I0428 20:17:00.929081   775 net.cpp:382] ip3_relu3_0_split -> ip3_relu3_0_split_0
I0428 20:17:00.929088   775 net.cpp:382] ip3_relu3_0_split -> ip3_relu3_0_split_1
I0428 20:17:00.929147   775 net.cpp:124] Setting up ip3_relu3_0_split
I0428 20:17:00.929152   775 net.cpp:131] Top shape: 100 10 (1000)
I0428 20:17:00.929170   775 net.cpp:131] Top shape: 100 10 (1000)
I0428 20:17:00.929172   775 net.cpp:139] Memory required for data: 14970800
I0428 20:17:00.929175   775 layer_factory.hpp:77] Creating layer accuracy
I0428 20:17:00.929181   775 net.cpp:86] Creating Layer accuracy
I0428 20:17:00.929184   775 net.cpp:408] accuracy <- ip3_relu3_0_split_0
I0428 20:17:00.929208   775 net.cpp:408] accuracy <- label_mnist_1_split_0
I0428 20:17:00.929213   775 net.cpp:382] accuracy -> accuracy
…
