…
I0428 19:35:04.554175 23441 net.cpp:296] The NetState phase (0) differed from the phase (1) specified by a rule in layer mnist
I0428 19:35:04.554190 23441 net.cpp:296] The NetState phase (0) differed from the phase (1) specified by a rule in layer accuracy
I0428 19:35:04.554280 23441 net.cpp:53] Initializing net from parameters: 
name: "LeNet"
state {
  phase: TRAIN
  level: 0
  stage: ""
}
layer {
  name: "mnist"
  type: "Data"
  top: "data"
  top: "label"
  include {
    phase: TRAIN
  }
  transform_param {
    scale: 0.00390625
  }
  data_param {
    source: "examples/mnist/mnist_train_lmdb"
    batch_size: 64
    backend: LMDB
  }
}
layer {
  name: "conv0"
  type: "Convolution"
  bottom: "data"
  top: "conv0"
  param {
    lr_mult: 1
  }
  param {
    lr_mult: 2
  }
  convolution_param {
    num_output: 50
    kernel_size: 5
    stride: 1
    weight_filler {
      type: "xavier"
    }
    bias_filler {
      type: "constant"
    }
  }
}
layer {
  name: "pool0"
  type: "Pooling"
  bottom: "conv0"
  top: "pool0"
  pooling_param {
    pool: MAX
    kernel_size: 2
    stride: 2
  }
}
layer {
  name: "ip1"
  type: "InnerProduct"
  bottom: "pool0"
  top: "ip1"
  param {
    lr_mult: 1
  }
  param {
    lr_mult: 2
  }
  inner_product_param {
    num_output: 25
    weight_filler {
      type: "xavier"
    }
    bias_filler {
      type: "constant"
    }
  }
}
layer {
  name: "relu1"
  type: "ReLU"
  bottom: "ip1"
  top: "ip1"
}
layer {
  name: "ip2"
  type: "InnerProduct"
  bottom: "ip1"
  top: "ip2"
  param {
    lr_mult: 1
  }
  param {
    lr_mult: 2
  }
  inner_product_param {
    num_output: 10
    weight_filler {
      type: "xavier"
    }
    bias_filler {
      type: "constant"
    }
  }
}
layer {
  name: "relu2"
  type: "ReLU"
  bottom: "ip2"
  top: "ip2"
}
layer {
  name: "ip3"
  type: "InnerProduct"
  bottom: "ip2"
  top: "ip3"
  param {
    lr_mult: 1
  }
  param {
    lr_mult: 2
  }
  inner_product_param {
    num_output: 10
    weight_filler {
      type: "xavier"
    }
    bias_filler {
      type: "constant"
    }
  }
}
layer {
  name: "relu3"
  type: "ReLU"
  bottom: "ip3"
  top: "ip3"
}
layer {
  name: "loss"
  type: "SoftmaxWithLoss"
  bottom: "ip3"
  bottom: "label"
  top: "loss"
}
I0428 19:35:04.554345 23441 layer_factory.hpp:77] Creating layer mnist
I0428 19:35:04.554442 23441 db_lmdb.cpp:35] Opened lmdb examples/mnist/mnist_train_lmdb
I0428 19:35:04.554466 23441 net.cpp:86] Creating Layer mnist
I0428 19:35:04.554476 23441 net.cpp:382] mnist -> data
I0428 19:35:04.554498 23441 net.cpp:382] mnist -> label
I0428 19:35:04.555572 23441 data_layer.cpp:45] output data size: 64,1,28,28
I0428 19:35:04.557997 23441 net.cpp:124] Setting up mnist
I0428 19:35:04.558015 23441 net.cpp:131] Top shape: 64 1 28 28 (50176)
I0428 19:35:04.558022 23441 net.cpp:131] Top shape: 64 (64)
I0428 19:35:04.558027 23441 net.cpp:139] Memory required for data: 200960
I0428 19:35:04.558032 23441 layer_factory.hpp:77] Creating layer conv0
I0428 19:35:04.558048 23441 net.cpp:86] Creating Layer conv0
I0428 19:35:04.558053 23441 net.cpp:408] conv0 <- data
I0428 19:35:04.558064 23441 net.cpp:382] conv0 -> conv0
I0428 19:35:04.840293 23441 net.cpp:124] Setting up conv0
I0428 19:35:04.840322 23441 net.cpp:131] Top shape: 64 50 24 24 (1843200)
I0428 19:35:04.840327 23441 net.cpp:139] Memory required for data: 7573760
I0428 19:35:04.840342 23441 layer_factory.hpp:77] Creating layer pool0
I0428 19:35:04.840354 23441 net.cpp:86] Creating Layer pool0
I0428 19:35:04.840379 23441 net.cpp:408] pool0 <- conv0
I0428 19:35:04.840385 23441 net.cpp:382] pool0 -> pool0
I0428 19:35:04.840435 23441 net.cpp:124] Setting up pool0
I0428 19:35:04.840442 23441 net.cpp:131] Top shape: 64 50 12 12 (460800)
I0428 19:35:04.840445 23441 net.cpp:139] Memory required for data: 9416960
I0428 19:35:04.840450 23441 layer_factory.hpp:77] Creating layer ip1
I0428 19:35:04.840457 23441 net.cpp:86] Creating Layer ip1
I0428 19:35:04.840461 23441 net.cpp:408] ip1 <- pool0
I0428 19:35:04.840466 23441 net.cpp:382] ip1 -> ip1
I0428 19:35:04.842454 23441 net.cpp:124] Setting up ip1
I0428 19:35:04.842468 23441 net.cpp:131] Top shape: 64 25 (1600)
I0428 19:35:04.842471 23441 net.cpp:139] Memory required for data: 9423360
I0428 19:35:04.842479 23441 layer_factory.hpp:77] Creating layer relu1
I0428 19:35:04.842486 23441 net.cpp:86] Creating Layer relu1
I0428 19:35:04.842489 23441 net.cpp:408] relu1 <- ip1
I0428 19:35:04.842495 23441 net.cpp:369] relu1 -> ip1 (in-place)
I0428 19:35:04.842669 23441 net.cpp:124] Setting up relu1
I0428 19:35:04.842679 23441 net.cpp:131] Top shape: 64 25 (1600)
I0428 19:35:04.842681 23441 net.cpp:139] Memory required for data: 9429760
I0428 19:35:04.842684 23441 layer_factory.hpp:77] Creating layer ip2
I0428 19:35:04.842692 23441 net.cpp:86] Creating Layer ip2
I0428 19:35:04.842696 23441 net.cpp:408] ip2 <- ip1
I0428 19:35:04.842700 23441 net.cpp:382] ip2 -> ip2
I0428 19:35:04.842797 23441 net.cpp:124] Setting up ip2
I0428 19:35:04.842804 23441 net.cpp:131] Top shape: 64 10 (640)
I0428 19:35:04.842808 23441 net.cpp:139] Memory required for data: 9432320
I0428 19:35:04.842815 23441 layer_factory.hpp:77] Creating layer relu2
I0428 19:35:04.842823 23441 net.cpp:86] Creating Layer relu2
I0428 19:35:04.842826 23441 net.cpp:408] relu2 <- ip2
I0428 19:35:04.842830 23441 net.cpp:369] relu2 -> ip2 (in-place)
I0428 19:35:04.843585 23441 net.cpp:124] Setting up relu2
I0428 19:35:04.843600 23441 net.cpp:131] Top shape: 64 10 (640)
I0428 19:35:04.843602 23441 net.cpp:139] Memory required for data: 9434880
I0428 19:35:04.843606 23441 layer_factory.hpp:77] Creating layer ip3
I0428 19:35:04.843613 23441 net.cpp:86] Creating Layer ip3
I0428 19:35:04.843616 23441 net.cpp:408] ip3 <- ip2
I0428 19:35:04.843622 23441 net.cpp:382] ip3 -> ip3
I0428 19:35:04.843736 23441 net.cpp:124] Setting up ip3
I0428 19:35:04.843744 23441 net.cpp:131] Top shape: 64 10 (640)
I0428 19:35:04.843747 23441 net.cpp:139] Memory required for data: 9437440
I0428 19:35:04.843753 23441 layer_factory.hpp:77] Creating layer relu3
I0428 19:35:04.843780 23441 net.cpp:86] Creating Layer relu3
I0428 19:35:04.843782 23441 net.cpp:408] relu3 <- ip3
I0428 19:35:04.843787 23441 net.cpp:369] relu3 -> ip3 (in-place)
I0428 19:35:04.843956 23441 net.cpp:124] Setting up relu3
I0428 19:35:04.843966 23441 net.cpp:131] Top shape: 64 10 (640)
I0428 19:35:04.843969 23441 net.cpp:139] Memory required for data: 9440000
I0428 19:35:04.843973 23441 layer_factory.hpp:77] Creating layer loss
I0428 19:35:04.843979 23441 net.cpp:86] Creating Layer loss
I0428 19:35:04.843982 23441 net.cpp:408] loss <- ip3
I0428 19:35:04.843986 23441 net.cpp:408] loss <- label
I0428 19:35:04.843993 23441 net.cpp:382] loss -> loss
I0428 19:35:04.844012 23441 layer_factory.hpp:77] Creating layer loss
…
I0428 19:35:04.844697 23441 solver.cpp:173] Creating test net (#0) specified by net file: ECE595/mnist/train_test/var_everything2/lenet_train_test217.prototxt
I0428 19:35:04.844723 23441 net.cpp:296] The NetState phase (1) differed from the phase (0) specified by a rule in layer mnist
I0428 19:35:04.844820 23441 net.cpp:53] Initializing net from parameters: 
name: "LeNet"
state {
  phase: TEST
}
layer {
  name: "mnist"
  type: "Data"
  top: "data"
  top: "label"
  include {
    phase: TEST
  }
  transform_param {
    scale: 0.00390625
  }
  data_param {
    source: "examples/mnist/mnist_test_lmdb"
    batch_size: 100
    backend: LMDB
  }
}
layer {
  name: "conv0"
  type: "Convolution"
  bottom: "data"
  top: "conv0"
  param {
    lr_mult: 1
  }
  param {
    lr_mult: 2
  }
  convolution_param {
    num_output: 50
    kernel_size: 5
    stride: 1
    weight_filler {
      type: "xavier"
    }
    bias_filler {
      type: "constant"
    }
  }
}
layer {
  name: "pool0"
  type: "Pooling"
  bottom: "conv0"
  top: "pool0"
  pooling_param {
    pool: MAX
    kernel_size: 2
    stride: 2
  }
}
layer {
  name: "ip1"
  type: "InnerProduct"
  bottom: "pool0"
  top: "ip1"
  param {
    lr_mult: 1
  }
  param {
    lr_mult: 2
  }
  inner_product_param {
    num_output: 25
    weight_filler {
      type: "xavier"
    }
    bias_filler {
      type: "constant"
    }
  }
}
layer {
  name: "relu1"
  type: "ReLU"
  bottom: "ip1"
  top: "ip1"
}
layer {
  name: "ip2"
  type: "InnerProduct"
  bottom: "ip1"
  top: "ip2"
  param {
    lr_mult: 1
  }
  param {
    lr_mult: 2
  }
  inner_product_param {
    num_output: 10
    weight_filler {
      type: "xavier"
    }
    bias_filler {
      type: "constant"
    }
  }
}
layer {
  name: "relu2"
  type: "ReLU"
  bottom: "ip2"
  top: "ip2"
}
layer {
  name: "ip3"
  type: "InnerProduct"
  bottom: "ip2"
  top: "ip3"
  param {
    lr_mult: 1
  }
  param {
    lr_mult: 2
  }
  inner_product_param {
    num_output: 10
    weight_filler {
      type: "xavier"
    }
    bias_filler {
      type: "constant"
    }
  }
}
layer {
  name: "relu3"
  type: "ReLU"
  bottom: "ip3"
  top: "ip3"
}
layer {
  name: "accuracy"
  type: "Accuracy"
  bottom: "ip3"
  bottom: "label"
  top: "accuracy"
  include {
    phase: TEST
  }
}
layer {
  name: "loss"
  type: "SoftmaxWithLoss"
  bottom: "ip3"
  bottom: "label"
  top: "loss"
}
I0428 19:35:04.844928 23441 layer_factory.hpp:77] Creating layer mnist
I0428 19:35:04.844974 23441 db_lmdb.cpp:35] Opened lmdb examples/mnist/mnist_test_lmdb
I0428 19:35:04.844990 23441 net.cpp:86] Creating Layer mnist
I0428 19:35:04.844996 23441 net.cpp:382] mnist -> data
I0428 19:35:04.845005 23441 net.cpp:382] mnist -> label
I0428 19:35:04.845096 23441 data_layer.cpp:45] output data size: 100,1,28,28
I0428 19:35:04.846257 23441 net.cpp:124] Setting up mnist
I0428 19:35:04.846271 23441 net.cpp:131] Top shape: 100 1 28 28 (78400)
I0428 19:35:04.846302 23441 net.cpp:131] Top shape: 100 (100)
I0428 19:35:04.846307 23441 net.cpp:139] Memory required for data: 314000
I0428 19:35:04.846310 23441 layer_factory.hpp:77] Creating layer label_mnist_1_split
I0428 19:35:04.846320 23441 net.cpp:86] Creating Layer label_mnist_1_split
I0428 19:35:04.846324 23441 net.cpp:408] label_mnist_1_split <- label
I0428 19:35:04.846329 23441 net.cpp:382] label_mnist_1_split -> label_mnist_1_split_0
I0428 19:35:04.846336 23441 net.cpp:382] label_mnist_1_split -> label_mnist_1_split_1
I0428 19:35:04.846436 23441 net.cpp:124] Setting up label_mnist_1_split
I0428 19:35:04.846443 23441 net.cpp:131] Top shape: 100 (100)
I0428 19:35:04.846448 23441 net.cpp:131] Top shape: 100 (100)
I0428 19:35:04.846451 23441 net.cpp:139] Memory required for data: 314800
I0428 19:35:04.846464 23441 layer_factory.hpp:77] Creating layer conv0
I0428 19:35:04.846474 23441 net.cpp:86] Creating Layer conv0
I0428 19:35:04.846478 23441 net.cpp:408] conv0 <- data
I0428 19:35:04.846484 23441 net.cpp:382] conv0 -> conv0
I0428 19:35:04.847910 23441 net.cpp:124] Setting up conv0
I0428 19:35:04.847924 23441 net.cpp:131] Top shape: 100 50 24 24 (2880000)
I0428 19:35:04.847929 23441 net.cpp:139] Memory required for data: 11834800
I0428 19:35:04.847937 23441 layer_factory.hpp:77] Creating layer pool0
I0428 19:35:04.847944 23441 net.cpp:86] Creating Layer pool0
I0428 19:35:04.847949 23441 net.cpp:408] pool0 <- conv0
I0428 19:35:04.847952 23441 net.cpp:382] pool0 -> pool0
I0428 19:35:04.847990 23441 net.cpp:124] Setting up pool0
I0428 19:35:04.847995 23441 net.cpp:131] Top shape: 100 50 12 12 (720000)
I0428 19:35:04.848013 23441 net.cpp:139] Memory required for data: 14714800
I0428 19:35:04.848016 23441 layer_factory.hpp:77] Creating layer ip1
I0428 19:35:04.848024 23441 net.cpp:86] Creating Layer ip1
I0428 19:35:04.848028 23441 net.cpp:408] ip1 <- pool0
I0428 19:35:04.848032 23441 net.cpp:382] ip1 -> ip1
I0428 19:35:04.850143 23441 net.cpp:124] Setting up ip1
I0428 19:35:04.850155 23441 net.cpp:131] Top shape: 100 25 (2500)
I0428 19:35:04.850175 23441 net.cpp:139] Memory required for data: 14724800
I0428 19:35:04.850184 23441 layer_factory.hpp:77] Creating layer relu1
I0428 19:35:04.850193 23441 net.cpp:86] Creating Layer relu1
I0428 19:35:04.850196 23441 net.cpp:408] relu1 <- ip1
I0428 19:35:04.850203 23441 net.cpp:369] relu1 -> ip1 (in-place)
I0428 19:35:04.850414 23441 net.cpp:124] Setting up relu1
I0428 19:35:04.850424 23441 net.cpp:131] Top shape: 100 25 (2500)
I0428 19:35:04.850428 23441 net.cpp:139] Memory required for data: 14734800
I0428 19:35:04.850431 23441 layer_factory.hpp:77] Creating layer ip2
I0428 19:35:04.850438 23441 net.cpp:86] Creating Layer ip2
I0428 19:35:04.850441 23441 net.cpp:408] ip2 <- ip1
I0428 19:35:04.850459 23441 net.cpp:382] ip2 -> ip2
I0428 19:35:04.850569 23441 net.cpp:124] Setting up ip2
I0428 19:35:04.850591 23441 net.cpp:131] Top shape: 100 10 (1000)
I0428 19:35:04.850594 23441 net.cpp:139] Memory required for data: 14738800
I0428 19:35:04.850617 23441 layer_factory.hpp:77] Creating layer relu2
I0428 19:35:04.850623 23441 net.cpp:86] Creating Layer relu2
I0428 19:35:04.850646 23441 net.cpp:408] relu2 <- ip2
I0428 19:35:04.850649 23441 net.cpp:369] relu2 -> ip2 (in-place)
I0428 19:35:04.851562 23441 net.cpp:124] Setting up relu2
I0428 19:35:04.851574 23441 net.cpp:131] Top shape: 100 10 (1000)
I0428 19:35:04.851594 23441 net.cpp:139] Memory required for data: 14742800
I0428 19:35:04.851598 23441 layer_factory.hpp:77] Creating layer ip3
I0428 19:35:04.851606 23441 net.cpp:86] Creating Layer ip3
I0428 19:35:04.851610 23441 net.cpp:408] ip3 <- ip2
I0428 19:35:04.851618 23441 net.cpp:382] ip3 -> ip3
I0428 19:35:04.851732 23441 net.cpp:124] Setting up ip3
I0428 19:35:04.851743 23441 net.cpp:131] Top shape: 100 10 (1000)
I0428 19:35:04.851747 23441 net.cpp:139] Memory required for data: 14746800
I0428 19:35:04.851753 23441 layer_factory.hpp:77] Creating layer relu3
I0428 19:35:04.851758 23441 net.cpp:86] Creating Layer relu3
I0428 19:35:04.851778 23441 net.cpp:408] relu3 <- ip3
I0428 19:35:04.851784 23441 net.cpp:369] relu3 -> ip3 (in-place)
I0428 19:35:04.851953 23441 net.cpp:124] Setting up relu3
I0428 19:35:04.851975 23441 net.cpp:131] Top shape: 100 10 (1000)
I0428 19:35:04.851979 23441 net.cpp:139] Memory required for data: 14750800
I0428 19:35:04.851982 23441 layer_factory.hpp:77] Creating layer ip3_relu3_0_split
I0428 19:35:04.851989 23441 net.cpp:86] Creating Layer ip3_relu3_0_split
I0428 19:35:04.851991 23441 net.cpp:408] ip3_relu3_0_split <- ip3
I0428 19:35:04.851997 23441 net.cpp:382] ip3_relu3_0_split -> ip3_relu3_0_split_0
I0428 19:35:04.852004 23441 net.cpp:382] ip3_relu3_0_split -> ip3_relu3_0_split_1
I0428 19:35:04.852038 23441 net.cpp:124] Setting up ip3_relu3_0_split
I0428 19:35:04.852046 23441 net.cpp:131] Top shape: 100 10 (1000)
I0428 19:35:04.852062 23441 net.cpp:131] Top shape: 100 10 (1000)
I0428 19:35:04.852066 23441 net.cpp:139] Memory required for data: 14758800
I0428 19:35:04.852069 23441 layer_factory.hpp:77] Creating layer accuracy
I0428 19:35:04.852075 23441 net.cpp:86] Creating Layer accuracy
I0428 19:35:04.852078 23441 net.cpp:408] accuracy <- ip3_relu3_0_split_0
I0428 19:35:04.852082 23441 net.cpp:408] accuracy <- label_mnist_1_split_0
I0428 19:35:04.852087 23441 net.cpp:382] accuracy -> accuracy
…
