…
I0428 19:28:06.535985 21534 net.cpp:296] The NetState phase (0) differed from the phase (1) specified by a rule in layer mnist
I0428 19:28:06.536001 21534 net.cpp:296] The NetState phase (0) differed from the phase (1) specified by a rule in layer accuracy
I0428 19:28:06.536063 21534 net.cpp:53] Initializing net from parameters: 
name: "LeNet"
state {
  phase: TRAIN
  level: 0
  stage: ""
}
layer {
  name: "mnist"
  type: "Data"
  top: "data"
  top: "label"
  include {
    phase: TRAIN
  }
  transform_param {
    scale: 0.00390625
  }
  data_param {
    source: "examples/mnist/mnist_train_lmdb"
    batch_size: 64
    backend: LMDB
  }
}
layer {
  name: "ip1"
  type: "InnerProduct"
  bottom: "data"
  top: "ip1"
  param {
    lr_mult: 1
  }
  param {
    lr_mult: 2
  }
  inner_product_param {
    num_output: 10
    weight_filler {
      type: "xavier"
    }
    bias_filler {
      type: "constant"
    }
  }
}
layer {
  name: "relu1"
  type: "ReLU"
  bottom: "ip1"
  top: "ip1"
}
layer {
  name: "ip2"
  type: "InnerProduct"
  bottom: "ip1"
  top: "ip2"
  param {
    lr_mult: 1
  }
  param {
    lr_mult: 2
  }
  inner_product_param {
    num_output: 10
    weight_filler {
      type: "xavier"
    }
    bias_filler {
      type: "constant"
    }
  }
}
layer {
  name: "relu2"
  type: "ReLU"
  bottom: "ip2"
  top: "ip2"
}
layer {
  name: "ip3"
  type: "InnerProduct"
  bottom: "ip2"
  top: "ip3"
  param {
    lr_mult: 1
  }
  param {
    lr_mult: 2
  }
  inner_product_param {
    num_output: 10
    weight_filler {
      type: "xavier"
    }
    bias_filler {
      type: "constant"
    }
  }
}
layer {
  name: "relu3"
  type: "ReLU"
  bottom: "ip3"
  top: "ip3"
}
layer {
  name: "loss"
  type: "SoftmaxWithLoss"
  bottom: "ip3"
  bottom: "label"
  top: "loss"
}
I0428 19:28:06.536141 21534 layer_factory.hpp:77] Creating layer mnist
I0428 19:28:06.536247 21534 db_lmdb.cpp:35] Opened lmdb examples/mnist/mnist_train_lmdb
I0428 19:28:06.536273 21534 net.cpp:86] Creating Layer mnist
I0428 19:28:06.536295 21534 net.cpp:382] mnist -> data
I0428 19:28:06.536319 21534 net.cpp:382] mnist -> label
I0428 19:28:06.537463 21534 data_layer.cpp:45] output data size: 64,1,28,28
I0428 19:28:06.539680 21534 net.cpp:124] Setting up mnist
I0428 19:28:06.539712 21534 net.cpp:131] Top shape: 64 1 28 28 (50176)
I0428 19:28:06.539721 21534 net.cpp:131] Top shape: 64 (64)
I0428 19:28:06.539741 21534 net.cpp:139] Memory required for data: 200960
I0428 19:28:06.539748 21534 layer_factory.hpp:77] Creating layer ip1
I0428 19:28:06.539764 21534 net.cpp:86] Creating Layer ip1
I0428 19:28:06.539774 21534 net.cpp:408] ip1 <- data
I0428 19:28:06.539804 21534 net.cpp:382] ip1 -> ip1
I0428 19:28:06.540961 21534 net.cpp:124] Setting up ip1
I0428 19:28:06.540977 21534 net.cpp:131] Top shape: 64 10 (640)
I0428 19:28:06.540993 21534 net.cpp:139] Memory required for data: 203520
I0428 19:28:06.541014 21534 layer_factory.hpp:77] Creating layer relu1
I0428 19:28:06.541031 21534 net.cpp:86] Creating Layer relu1
I0428 19:28:06.541039 21534 net.cpp:408] relu1 <- ip1
I0428 19:28:06.541049 21534 net.cpp:369] relu1 -> ip1 (in-place)
I0428 19:28:06.764895 21534 net.cpp:124] Setting up relu1
I0428 19:28:06.764925 21534 net.cpp:131] Top shape: 64 10 (640)
I0428 19:28:06.764930 21534 net.cpp:139] Memory required for data: 206080
I0428 19:28:06.764937 21534 layer_factory.hpp:77] Creating layer ip2
I0428 19:28:06.764968 21534 net.cpp:86] Creating Layer ip2
I0428 19:28:06.764991 21534 net.cpp:408] ip2 <- ip1
I0428 19:28:06.765004 21534 net.cpp:382] ip2 -> ip2
I0428 19:28:06.765126 21534 net.cpp:124] Setting up ip2
I0428 19:28:06.765136 21534 net.cpp:131] Top shape: 64 10 (640)
I0428 19:28:06.765156 21534 net.cpp:139] Memory required for data: 208640
I0428 19:28:06.765171 21534 layer_factory.hpp:77] Creating layer relu2
I0428 19:28:06.765195 21534 net.cpp:86] Creating Layer relu2
I0428 19:28:06.765202 21534 net.cpp:408] relu2 <- ip2
I0428 19:28:06.765208 21534 net.cpp:369] relu2 -> ip2 (in-place)
I0428 19:28:06.766084 21534 net.cpp:124] Setting up relu2
I0428 19:28:06.766098 21534 net.cpp:131] Top shape: 64 10 (640)
I0428 19:28:06.766104 21534 net.cpp:139] Memory required for data: 211200
I0428 19:28:06.766110 21534 layer_factory.hpp:77] Creating layer ip3
I0428 19:28:06.766121 21534 net.cpp:86] Creating Layer ip3
I0428 19:28:06.766126 21534 net.cpp:408] ip3 <- ip2
I0428 19:28:06.766135 21534 net.cpp:382] ip3 -> ip3
I0428 19:28:06.766235 21534 net.cpp:124] Setting up ip3
I0428 19:28:06.766245 21534 net.cpp:131] Top shape: 64 10 (640)
I0428 19:28:06.766250 21534 net.cpp:139] Memory required for data: 213760
I0428 19:28:06.766278 21534 layer_factory.hpp:77] Creating layer relu3
I0428 19:28:06.766289 21534 net.cpp:86] Creating Layer relu3
I0428 19:28:06.766296 21534 net.cpp:408] relu3 <- ip3
I0428 19:28:06.766304 21534 net.cpp:369] relu3 -> ip3 (in-place)
I0428 19:28:06.766476 21534 net.cpp:124] Setting up relu3
I0428 19:28:06.766486 21534 net.cpp:131] Top shape: 64 10 (640)
I0428 19:28:06.766491 21534 net.cpp:139] Memory required for data: 216320
I0428 19:28:06.766495 21534 layer_factory.hpp:77] Creating layer loss
I0428 19:28:06.766505 21534 net.cpp:86] Creating Layer loss
I0428 19:28:06.766510 21534 net.cpp:408] loss <- ip3
I0428 19:28:06.766516 21534 net.cpp:408] loss <- label
I0428 19:28:06.766525 21534 net.cpp:382] loss -> loss
I0428 19:28:06.766544 21534 layer_factory.hpp:77] Creating layer loss
…
I0428 19:28:06.768332 21534 solver.cpp:173] Creating test net (#0) specified by net file: ECE595/mnist/train_test/var_everything2/lenet_train_test14.prototxt
I0428 19:28:06.768375 21534 net.cpp:296] The NetState phase (1) differed from the phase (0) specified by a rule in layer mnist
I0428 19:28:06.768445 21534 net.cpp:53] Initializing net from parameters: 
name: "LeNet"
state {
  phase: TEST
}
layer {
  name: "mnist"
  type: "Data"
  top: "data"
  top: "label"
  include {
    phase: TEST
  }
  transform_param {
    scale: 0.00390625
  }
  data_param {
    source: "examples/mnist/mnist_test_lmdb"
    batch_size: 100
    backend: LMDB
  }
}
layer {
  name: "ip1"
  type: "InnerProduct"
  bottom: "data"
  top: "ip1"
  param {
    lr_mult: 1
  }
  param {
    lr_mult: 2
  }
  inner_product_param {
    num_output: 10
    weight_filler {
      type: "xavier"
    }
    bias_filler {
      type: "constant"
    }
  }
}
layer {
  name: "relu1"
  type: "ReLU"
  bottom: "ip1"
  top: "ip1"
}
layer {
  name: "ip2"
  type: "InnerProduct"
  bottom: "ip1"
  top: "ip2"
  param {
    lr_mult: 1
  }
  param {
    lr_mult: 2
  }
  inner_product_param {
    num_output: 10
    weight_filler {
      type: "xavier"
    }
    bias_filler {
      type: "constant"
    }
  }
}
layer {
  name: "relu2"
  type: "ReLU"
  bottom: "ip2"
  top: "ip2"
}
layer {
  name: "ip3"
  type: "InnerProduct"
  bottom: "ip2"
  top: "ip3"
  param {
    lr_mult: 1
  }
  param {
    lr_mult: 2
  }
  inner_product_param {
    num_output: 10
    weight_filler {
      type: "xavier"
    }
    bias_filler {
      type: "constant"
    }
  }
}
layer {
  name: "relu3"
  type: "ReLU"
  bottom: "ip3"
  top: "ip3"
}
layer {
  name: "accuracy"
  type: "Accuracy"
  bottom: "ip3"
  bottom: "label"
  top: "accuracy"
  include {
    phase: TEST
  }
}
layer {
  name: "loss"
  type: "SoftmaxWithLoss"
  bottom: "ip3"
  bottom: "label"
  top: "loss"
}
I0428 19:28:06.768534 21534 layer_factory.hpp:77] Creating layer mnist
I0428 19:28:06.768607 21534 db_lmdb.cpp:35] Opened lmdb examples/mnist/mnist_test_lmdb
I0428 19:28:06.768625 21534 net.cpp:86] Creating Layer mnist
I0428 19:28:06.768632 21534 net.cpp:382] mnist -> data
I0428 19:28:06.768643 21534 net.cpp:382] mnist -> label
I0428 19:28:06.768757 21534 data_layer.cpp:45] output data size: 100,1,28,28
I0428 19:28:06.770897 21534 net.cpp:124] Setting up mnist
I0428 19:28:06.770928 21534 net.cpp:131] Top shape: 100 1 28 28 (78400)
I0428 19:28:06.770937 21534 net.cpp:131] Top shape: 100 (100)
I0428 19:28:06.770957 21534 net.cpp:139] Memory required for data: 314000
I0428 19:28:06.770963 21534 layer_factory.hpp:77] Creating layer label_mnist_1_split
I0428 19:28:06.770979 21534 net.cpp:86] Creating Layer label_mnist_1_split
I0428 19:28:06.770985 21534 net.cpp:408] label_mnist_1_split <- label
I0428 19:28:06.770993 21534 net.cpp:382] label_mnist_1_split -> label_mnist_1_split_0
I0428 19:28:06.771004 21534 net.cpp:382] label_mnist_1_split -> label_mnist_1_split_1
I0428 19:28:06.771108 21534 net.cpp:124] Setting up label_mnist_1_split
I0428 19:28:06.771118 21534 net.cpp:131] Top shape: 100 (100)
I0428 19:28:06.771124 21534 net.cpp:131] Top shape: 100 (100)
I0428 19:28:06.771129 21534 net.cpp:139] Memory required for data: 314800
I0428 19:28:06.771134 21534 layer_factory.hpp:77] Creating layer ip1
I0428 19:28:06.771145 21534 net.cpp:86] Creating Layer ip1
I0428 19:28:06.771152 21534 net.cpp:408] ip1 <- data
I0428 19:28:06.771160 21534 net.cpp:382] ip1 -> ip1
I0428 19:28:06.771306 21534 net.cpp:124] Setting up ip1
I0428 19:28:06.771316 21534 net.cpp:131] Top shape: 100 10 (1000)
I0428 19:28:06.771319 21534 net.cpp:139] Memory required for data: 318800
I0428 19:28:06.771333 21534 layer_factory.hpp:77] Creating layer relu1
I0428 19:28:06.771342 21534 net.cpp:86] Creating Layer relu1
I0428 19:28:06.771347 21534 net.cpp:408] relu1 <- ip1
I0428 19:28:06.771354 21534 net.cpp:369] relu1 -> ip1 (in-place)
I0428 19:28:06.772297 21534 net.cpp:124] Setting up relu1
I0428 19:28:06.772311 21534 net.cpp:131] Top shape: 100 10 (1000)
I0428 19:28:06.772317 21534 net.cpp:139] Memory required for data: 322800
I0428 19:28:06.772323 21534 layer_factory.hpp:77] Creating layer ip2
I0428 19:28:06.772334 21534 net.cpp:86] Creating Layer ip2
I0428 19:28:06.772341 21534 net.cpp:408] ip2 <- ip1
I0428 19:28:06.772349 21534 net.cpp:382] ip2 -> ip2
I0428 19:28:06.772477 21534 net.cpp:124] Setting up ip2
I0428 19:28:06.772486 21534 net.cpp:131] Top shape: 100 10 (1000)
I0428 19:28:06.772491 21534 net.cpp:139] Memory required for data: 326800
I0428 19:28:06.772502 21534 layer_factory.hpp:77] Creating layer relu2
I0428 19:28:06.772511 21534 net.cpp:86] Creating Layer relu2
I0428 19:28:06.772516 21534 net.cpp:408] relu2 <- ip2
I0428 19:28:06.772523 21534 net.cpp:369] relu2 -> ip2 (in-place)
I0428 19:28:06.772683 21534 net.cpp:124] Setting up relu2
I0428 19:28:06.772693 21534 net.cpp:131] Top shape: 100 10 (1000)
I0428 19:28:06.772697 21534 net.cpp:139] Memory required for data: 330800
I0428 19:28:06.772702 21534 layer_factory.hpp:77] Creating layer ip3
I0428 19:28:06.772712 21534 net.cpp:86] Creating Layer ip3
I0428 19:28:06.772717 21534 net.cpp:408] ip3 <- ip2
I0428 19:28:06.772727 21534 net.cpp:382] ip3 -> ip3
I0428 19:28:06.772879 21534 net.cpp:124] Setting up ip3
I0428 19:28:06.772891 21534 net.cpp:131] Top shape: 100 10 (1000)
I0428 19:28:06.772897 21534 net.cpp:139] Memory required for data: 334800
I0428 19:28:06.772908 21534 layer_factory.hpp:77] Creating layer relu3
I0428 19:28:06.772933 21534 net.cpp:86] Creating Layer relu3
I0428 19:28:06.772938 21534 net.cpp:408] relu3 <- ip3
I0428 19:28:06.772945 21534 net.cpp:369] relu3 -> ip3 (in-place)
I0428 19:28:06.773138 21534 net.cpp:124] Setting up relu3
I0428 19:28:06.773149 21534 net.cpp:131] Top shape: 100 10 (1000)
I0428 19:28:06.773154 21534 net.cpp:139] Memory required for data: 338800
I0428 19:28:06.773159 21534 layer_factory.hpp:77] Creating layer ip3_relu3_0_split
I0428 19:28:06.773169 21534 net.cpp:86] Creating Layer ip3_relu3_0_split
I0428 19:28:06.773175 21534 net.cpp:408] ip3_relu3_0_split <- ip3
I0428 19:28:06.773183 21534 net.cpp:382] ip3_relu3_0_split -> ip3_relu3_0_split_0
I0428 19:28:06.773198 21534 net.cpp:382] ip3_relu3_0_split -> ip3_relu3_0_split_1
I0428 19:28:06.773255 21534 net.cpp:124] Setting up ip3_relu3_0_split
I0428 19:28:06.773278 21534 net.cpp:131] Top shape: 100 10 (1000)
I0428 19:28:06.773285 21534 net.cpp:131] Top shape: 100 10 (1000)
I0428 19:28:06.773304 21534 net.cpp:139] Memory required for data: 346800
I0428 19:28:06.773309 21534 layer_factory.hpp:77] Creating layer accuracy
I0428 19:28:06.773324 21534 net.cpp:86] Creating Layer accuracy
I0428 19:28:06.773331 21534 net.cpp:408] accuracy <- ip3_relu3_0_split_0
I0428 19:28:06.773339 21534 net.cpp:408] accuracy <- label_mnist_1_split_0
I0428 19:28:06.773345 21534 net.cpp:382] accuracy -> accuracy
…
