…
I0428 19:58:25.695905 28969 net.cpp:296] The NetState phase (0) differed from the phase (1) specified by a rule in layer mnist
I0428 19:58:25.695922 28969 net.cpp:296] The NetState phase (0) differed from the phase (1) specified by a rule in layer accuracy
I0428 19:58:25.696027 28969 net.cpp:53] Initializing net from parameters: 
name: "LeNet"
state {
  phase: TRAIN
  level: 0
  stage: ""
}
layer {
  name: "mnist"
  type: "Data"
  top: "data"
  top: "label"
  include {
    phase: TRAIN
  }
  transform_param {
    scale: 0.00390625
  }
  data_param {
    source: "examples/mnist/mnist_train_lmdb"
    batch_size: 64
    backend: LMDB
  }
}
layer {
  name: "conv0"
  type: "Convolution"
  bottom: "data"
  top: "conv0"
  param {
    lr_mult: 1
  }
  param {
    lr_mult: 2
  }
  convolution_param {
    num_output: 10
    kernel_size: 5
    stride: 1
    weight_filler {
      type: "xavier"
    }
    bias_filler {
      type: "constant"
    }
  }
}
layer {
  name: "pool0"
  type: "Pooling"
  bottom: "conv0"
  top: "pool0"
  pooling_param {
    pool: MAX
    kernel_size: 2
    stride: 2
  }
}
layer {
  name: "conv1"
  type: "Convolution"
  bottom: "pool0"
  top: "conv1"
  param {
    lr_mult: 1
  }
  param {
    lr_mult: 2
  }
  convolution_param {
    num_output: 5
    kernel_size: 5
    stride: 1
    weight_filler {
      type: "xavier"
    }
    bias_filler {
      type: "constant"
    }
  }
}
layer {
  name: "pool1"
  type: "Pooling"
  bottom: "conv1"
  top: "pool1"
  pooling_param {
    pool: MAX
    kernel_size: 2
    stride: 2
  }
}
layer {
  name: "ip1"
  type: "InnerProduct"
  bottom: "pool1"
  top: "ip1"
  param {
    lr_mult: 1
  }
  param {
    lr_mult: 2
  }
  inner_product_param {
    num_output: 50
    weight_filler {
      type: "xavier"
    }
    bias_filler {
      type: "constant"
    }
  }
}
layer {
  name: "relu1"
  type: "ReLU"
  bottom: "ip1"
  top: "ip1"
}
layer {
  name: "ip2"
  type: "InnerProduct"
  bottom: "ip1"
  top: "ip2"
  param {
    lr_mult: 1
  }
  param {
    lr_mult: 2
  }
  inner_product_param {
    num_output: 50
    weight_filler {
      type: "xavier"
    }
    bias_filler {
      type: "constant"
    }
  }
}
layer {
  name: "relu2"
  type: "ReLU"
  bottom: "ip2"
  top: "ip2"
}
layer {
  name: "ip3"
  type: "InnerProduct"
  bottom: "ip2"
  top: "ip3"
  param {
    lr_mult: 1
  }
  param {
    lr_mult: 2
  }
  inner_product_param {
    num_output: 10
    weight_filler {
      type: "xavier"
    }
    bias_filler {
      type: "constant"
    }
  }
}
layer {
  name: "relu3"
  type: "ReLU"
  bottom: "ip3"
  top: "ip3"
}
layer {
  name: "loss"
  type: "SoftmaxWithLoss"
  bottom: "ip3"
  bottom: "label"
  top: "loss"
}
I0428 19:58:25.696107 28969 layer_factory.hpp:77] Creating layer mnist
I0428 19:58:25.696207 28969 db_lmdb.cpp:35] Opened lmdb examples/mnist/mnist_train_lmdb
I0428 19:58:25.696230 28969 net.cpp:86] Creating Layer mnist
I0428 19:58:25.696239 28969 net.cpp:382] mnist -> data
I0428 19:58:25.696261 28969 net.cpp:382] mnist -> label
I0428 19:58:25.697382 28969 data_layer.cpp:45] output data size: 64,1,28,28
I0428 19:58:25.699839 28969 net.cpp:124] Setting up mnist
I0428 19:58:25.699856 28969 net.cpp:131] Top shape: 64 1 28 28 (50176)
I0428 19:58:25.699863 28969 net.cpp:131] Top shape: 64 (64)
I0428 19:58:25.699867 28969 net.cpp:139] Memory required for data: 200960
I0428 19:58:25.699873 28969 layer_factory.hpp:77] Creating layer conv0
I0428 19:58:25.699892 28969 net.cpp:86] Creating Layer conv0
I0428 19:58:25.699913 28969 net.cpp:408] conv0 <- data
I0428 19:58:25.699925 28969 net.cpp:382] conv0 -> conv0
I0428 19:58:25.982272 28969 net.cpp:124] Setting up conv0
I0428 19:58:25.982300 28969 net.cpp:131] Top shape: 64 10 24 24 (368640)
I0428 19:58:25.982303 28969 net.cpp:139] Memory required for data: 1675520
I0428 19:58:25.982321 28969 layer_factory.hpp:77] Creating layer pool0
I0428 19:58:25.982332 28969 net.cpp:86] Creating Layer pool0
I0428 19:58:25.982347 28969 net.cpp:408] pool0 <- conv0
I0428 19:58:25.982352 28969 net.cpp:382] pool0 -> pool0
I0428 19:58:25.982414 28969 net.cpp:124] Setting up pool0
I0428 19:58:25.982420 28969 net.cpp:131] Top shape: 64 10 12 12 (92160)
I0428 19:58:25.982424 28969 net.cpp:139] Memory required for data: 2044160
I0428 19:58:25.982426 28969 layer_factory.hpp:77] Creating layer conv1
I0428 19:58:25.982437 28969 net.cpp:86] Creating Layer conv1
I0428 19:58:25.982440 28969 net.cpp:408] conv1 <- pool0
I0428 19:58:25.982445 28969 net.cpp:382] conv1 -> conv1
I0428 19:58:25.985199 28969 net.cpp:124] Setting up conv1
I0428 19:58:25.985230 28969 net.cpp:131] Top shape: 64 5 8 8 (20480)
I0428 19:58:25.985234 28969 net.cpp:139] Memory required for data: 2126080
I0428 19:58:25.985244 28969 layer_factory.hpp:77] Creating layer pool1
I0428 19:58:25.985251 28969 net.cpp:86] Creating Layer pool1
I0428 19:58:25.985255 28969 net.cpp:408] pool1 <- conv1
I0428 19:58:25.985275 28969 net.cpp:382] pool1 -> pool1
I0428 19:58:25.985316 28969 net.cpp:124] Setting up pool1
I0428 19:58:25.985322 28969 net.cpp:131] Top shape: 64 5 4 4 (5120)
I0428 19:58:25.985327 28969 net.cpp:139] Memory required for data: 2146560
I0428 19:58:25.985329 28969 layer_factory.hpp:77] Creating layer ip1
I0428 19:58:25.985337 28969 net.cpp:86] Creating Layer ip1
I0428 19:58:25.985340 28969 net.cpp:408] ip1 <- pool1
I0428 19:58:25.985345 28969 net.cpp:382] ip1 -> ip1
I0428 19:58:25.985473 28969 net.cpp:124] Setting up ip1
I0428 19:58:25.985481 28969 net.cpp:131] Top shape: 64 50 (3200)
I0428 19:58:25.985483 28969 net.cpp:139] Memory required for data: 2159360
I0428 19:58:25.985501 28969 layer_factory.hpp:77] Creating layer relu1
I0428 19:58:25.985507 28969 net.cpp:86] Creating Layer relu1
I0428 19:58:25.985509 28969 net.cpp:408] relu1 <- ip1
I0428 19:58:25.985514 28969 net.cpp:369] relu1 -> ip1 (in-place)
I0428 19:58:25.985698 28969 net.cpp:124] Setting up relu1
I0428 19:58:25.985707 28969 net.cpp:131] Top shape: 64 50 (3200)
I0428 19:58:25.985712 28969 net.cpp:139] Memory required for data: 2172160
I0428 19:58:25.985714 28969 layer_factory.hpp:77] Creating layer ip2
I0428 19:58:25.985720 28969 net.cpp:86] Creating Layer ip2
I0428 19:58:25.985723 28969 net.cpp:408] ip2 <- ip1
I0428 19:58:25.985728 28969 net.cpp:382] ip2 -> ip2
I0428 19:58:25.985837 28969 net.cpp:124] Setting up ip2
I0428 19:58:25.985844 28969 net.cpp:131] Top shape: 64 50 (3200)
I0428 19:58:25.985848 28969 net.cpp:139] Memory required for data: 2184960
I0428 19:58:25.985853 28969 layer_factory.hpp:77] Creating layer relu2
I0428 19:58:25.985859 28969 net.cpp:86] Creating Layer relu2
I0428 19:58:25.985862 28969 net.cpp:408] relu2 <- ip2
I0428 19:58:25.985867 28969 net.cpp:369] relu2 -> ip2 (in-place)
I0428 19:58:25.986591 28969 net.cpp:124] Setting up relu2
I0428 19:58:25.986604 28969 net.cpp:131] Top shape: 64 50 (3200)
I0428 19:58:25.986624 28969 net.cpp:139] Memory required for data: 2197760
I0428 19:58:25.986627 28969 layer_factory.hpp:77] Creating layer ip3
I0428 19:58:25.986634 28969 net.cpp:86] Creating Layer ip3
I0428 19:58:25.986639 28969 net.cpp:408] ip3 <- ip2
I0428 19:58:25.986644 28969 net.cpp:382] ip3 -> ip3
I0428 19:58:25.986768 28969 net.cpp:124] Setting up ip3
I0428 19:58:25.986775 28969 net.cpp:131] Top shape: 64 10 (640)
I0428 19:58:25.986779 28969 net.cpp:139] Memory required for data: 2200320
I0428 19:58:25.986788 28969 layer_factory.hpp:77] Creating layer relu3
I0428 19:58:25.986793 28969 net.cpp:86] Creating Layer relu3
I0428 19:58:25.986796 28969 net.cpp:408] relu3 <- ip3
I0428 19:58:25.986800 28969 net.cpp:369] relu3 -> ip3 (in-place)
I0428 19:58:25.986974 28969 net.cpp:124] Setting up relu3
I0428 19:58:25.986984 28969 net.cpp:131] Top shape: 64 10 (640)
I0428 19:58:25.986987 28969 net.cpp:139] Memory required for data: 2202880
I0428 19:58:25.986990 28969 layer_factory.hpp:77] Creating layer loss
I0428 19:58:25.986996 28969 net.cpp:86] Creating Layer loss
I0428 19:58:25.986999 28969 net.cpp:408] loss <- ip3
I0428 19:58:25.987004 28969 net.cpp:408] loss <- label
I0428 19:58:25.987010 28969 net.cpp:382] loss -> loss
I0428 19:58:25.987030 28969 layer_factory.hpp:77] Creating layer loss
…
I0428 19:58:25.987718 28969 solver.cpp:173] Creating test net (#0) specified by net file: ECE595/mnist/train_test/var_everything2/lenet_train_test818.prototxt
I0428 19:58:25.987767 28969 net.cpp:296] The NetState phase (1) differed from the phase (0) specified by a rule in layer mnist
I0428 19:58:25.987861 28969 net.cpp:53] Initializing net from parameters: 
name: "LeNet"
state {
  phase: TEST
}
layer {
  name: "mnist"
  type: "Data"
  top: "data"
  top: "label"
  include {
    phase: TEST
  }
  transform_param {
    scale: 0.00390625
  }
  data_param {
    source: "examples/mnist/mnist_test_lmdb"
    batch_size: 100
    backend: LMDB
  }
}
layer {
  name: "conv0"
  type: "Convolution"
  bottom: "data"
  top: "conv0"
  param {
    lr_mult: 1
  }
  param {
    lr_mult: 2
  }
  convolution_param {
    num_output: 10
    kernel_size: 5
    stride: 1
    weight_filler {
      type: "xavier"
    }
    bias_filler {
      type: "constant"
    }
  }
}
layer {
  name: "pool0"
  type: "Pooling"
  bottom: "conv0"
  top: "pool0"
  pooling_param {
    pool: MAX
    kernel_size: 2
    stride: 2
  }
}
layer {
  name: "conv1"
  type: "Convolution"
  bottom: "pool0"
  top: "conv1"
  param {
    lr_mult: 1
  }
  param {
    lr_mult: 2
  }
  convolution_param {
    num_output: 5
    kernel_size: 5
    stride: 1
    weight_filler {
      type: "xavier"
    }
    bias_filler {
      type: "constant"
    }
  }
}
layer {
  name: "pool1"
  type: "Pooling"
  bottom: "conv1"
  top: "pool1"
  pooling_param {
    pool: MAX
    kernel_size: 2
    stride: 2
  }
}
layer {
  name: "ip1"
  type: "InnerProduct"
  bottom: "pool1"
  top: "ip1"
  param {
    lr_mult: 1
  }
  param {
    lr_mult: 2
  }
  inner_product_param {
    num_output: 50
    weight_filler {
      type: "xavier"
    }
    bias_filler {
      type: "constant"
    }
  }
}
layer {
  name: "relu1"
  type: "ReLU"
  bottom: "ip1"
  top: "ip1"
}
layer {
  name: "ip2"
  type: "InnerProduct"
  bottom: "ip1"
  top: "ip2"
  param {
    lr_mult: 1
  }
  param {
    lr_mult: 2
  }
  inner_product_param {
    num_output: 50
    weight_filler {
      type: "xavier"
    }
    bias_filler {
      type: "constant"
    }
  }
}
layer {
  name: "relu2"
  type: "ReLU"
  bottom: "ip2"
  top: "ip2"
}
layer {
  name: "ip3"
  type: "InnerProduct"
  bottom: "ip2"
  top: "ip3"
  param {
    lr_mult: 1
  }
  param {
    lr_mult: 2
  }
  inner_product_param {
    num_output: 10
    weight_filler {
      type: "xavier"
    }
    bias_filler {
      type: "constant"
    }
  }
}
layer {
  name: "relu3"
  type: "ReLU"
  bottom: "ip3"
  top: "ip3"
}
layer {
  name: "accuracy"
  type: "Accuracy"
  bottom: "ip3"
  bottom: "label"
  top: "accuracy"
  include {
    phase: TEST
  }
}
layer {
  name: "loss"
  type: "SoftmaxWithLoss"
  bottom: "ip3"
  bottom: "label"
  top: "loss"
}
I0428 19:58:25.987943 28969 layer_factory.hpp:77] Creating layer mnist
I0428 19:58:25.987989 28969 db_lmdb.cpp:35] Opened lmdb examples/mnist/mnist_test_lmdb
I0428 19:58:25.988003 28969 net.cpp:86] Creating Layer mnist
I0428 19:58:25.988008 28969 net.cpp:382] mnist -> data
I0428 19:58:25.988015 28969 net.cpp:382] mnist -> label
I0428 19:58:25.988104 28969 data_layer.cpp:45] output data size: 100,1,28,28
I0428 19:58:25.990324 28969 net.cpp:124] Setting up mnist
I0428 19:58:25.990355 28969 net.cpp:131] Top shape: 100 1 28 28 (78400)
I0428 19:58:25.990360 28969 net.cpp:131] Top shape: 100 (100)
I0428 19:58:25.990363 28969 net.cpp:139] Memory required for data: 314000
I0428 19:58:25.990367 28969 layer_factory.hpp:77] Creating layer label_mnist_1_split
I0428 19:58:25.990378 28969 net.cpp:86] Creating Layer label_mnist_1_split
I0428 19:58:25.990391 28969 net.cpp:408] label_mnist_1_split <- label
I0428 19:58:25.990396 28969 net.cpp:382] label_mnist_1_split -> label_mnist_1_split_0
I0428 19:58:25.990402 28969 net.cpp:382] label_mnist_1_split -> label_mnist_1_split_1
I0428 19:58:25.990489 28969 net.cpp:124] Setting up label_mnist_1_split
I0428 19:58:25.990497 28969 net.cpp:131] Top shape: 100 (100)
I0428 19:58:25.990501 28969 net.cpp:131] Top shape: 100 (100)
I0428 19:58:25.990504 28969 net.cpp:139] Memory required for data: 314800
I0428 19:58:25.990509 28969 layer_factory.hpp:77] Creating layer conv0
I0428 19:58:25.990517 28969 net.cpp:86] Creating Layer conv0
I0428 19:58:25.990520 28969 net.cpp:408] conv0 <- data
I0428 19:58:25.990525 28969 net.cpp:382] conv0 -> conv0
I0428 19:58:25.992018 28969 net.cpp:124] Setting up conv0
I0428 19:58:25.992033 28969 net.cpp:131] Top shape: 100 10 24 24 (576000)
I0428 19:58:25.992054 28969 net.cpp:139] Memory required for data: 2618800
I0428 19:58:25.992063 28969 layer_factory.hpp:77] Creating layer pool0
I0428 19:58:25.992070 28969 net.cpp:86] Creating Layer pool0
I0428 19:58:25.992089 28969 net.cpp:408] pool0 <- conv0
I0428 19:58:25.992094 28969 net.cpp:382] pool0 -> pool0
I0428 19:58:25.992139 28969 net.cpp:124] Setting up pool0
I0428 19:58:25.992147 28969 net.cpp:131] Top shape: 100 10 12 12 (144000)
I0428 19:58:25.992151 28969 net.cpp:139] Memory required for data: 3194800
I0428 19:58:25.992169 28969 layer_factory.hpp:77] Creating layer conv1
I0428 19:58:25.992177 28969 net.cpp:86] Creating Layer conv1
I0428 19:58:25.992183 28969 net.cpp:408] conv1 <- pool0
I0428 19:58:25.992188 28969 net.cpp:382] conv1 -> conv1
I0428 19:58:25.994320 28969 net.cpp:124] Setting up conv1
I0428 19:58:25.994333 28969 net.cpp:131] Top shape: 100 5 8 8 (32000)
I0428 19:58:25.994354 28969 net.cpp:139] Memory required for data: 3322800
I0428 19:58:25.994364 28969 layer_factory.hpp:77] Creating layer pool1
I0428 19:58:25.994369 28969 net.cpp:86] Creating Layer pool1
I0428 19:58:25.994374 28969 net.cpp:408] pool1 <- conv1
I0428 19:58:25.994395 28969 net.cpp:382] pool1 -> pool1
I0428 19:58:25.994472 28969 net.cpp:124] Setting up pool1
I0428 19:58:25.994479 28969 net.cpp:131] Top shape: 100 5 4 4 (8000)
I0428 19:58:25.994483 28969 net.cpp:139] Memory required for data: 3354800
I0428 19:58:25.994487 28969 layer_factory.hpp:77] Creating layer ip1
I0428 19:58:25.994493 28969 net.cpp:86] Creating Layer ip1
I0428 19:58:25.994496 28969 net.cpp:408] ip1 <- pool1
I0428 19:58:25.994501 28969 net.cpp:382] ip1 -> ip1
I0428 19:58:25.994639 28969 net.cpp:124] Setting up ip1
I0428 19:58:25.994647 28969 net.cpp:131] Top shape: 100 50 (5000)
I0428 19:58:25.994663 28969 net.cpp:139] Memory required for data: 3374800
I0428 19:58:25.994670 28969 layer_factory.hpp:77] Creating layer relu1
I0428 19:58:25.994678 28969 net.cpp:86] Creating Layer relu1
I0428 19:58:25.994681 28969 net.cpp:408] relu1 <- ip1
I0428 19:58:25.994685 28969 net.cpp:369] relu1 -> ip1 (in-place)
I0428 19:58:25.994892 28969 net.cpp:124] Setting up relu1
I0428 19:58:25.994902 28969 net.cpp:131] Top shape: 100 50 (5000)
I0428 19:58:25.994905 28969 net.cpp:139] Memory required for data: 3394800
I0428 19:58:25.994910 28969 layer_factory.hpp:77] Creating layer ip2
I0428 19:58:25.994916 28969 net.cpp:86] Creating Layer ip2
I0428 19:58:25.994920 28969 net.cpp:408] ip2 <- ip1
I0428 19:58:25.994925 28969 net.cpp:382] ip2 -> ip2
I0428 19:58:25.995043 28969 net.cpp:124] Setting up ip2
I0428 19:58:25.995050 28969 net.cpp:131] Top shape: 100 50 (5000)
I0428 19:58:25.995054 28969 net.cpp:139] Memory required for data: 3414800
I0428 19:58:25.995059 28969 layer_factory.hpp:77] Creating layer relu2
I0428 19:58:25.995064 28969 net.cpp:86] Creating Layer relu2
I0428 19:58:25.995082 28969 net.cpp:408] relu2 <- ip2
I0428 19:58:25.995086 28969 net.cpp:369] relu2 -> ip2 (in-place)
I0428 19:58:25.995235 28969 net.cpp:124] Setting up relu2
I0428 19:58:25.995244 28969 net.cpp:131] Top shape: 100 50 (5000)
I0428 19:58:25.995246 28969 net.cpp:139] Memory required for data: 3434800
I0428 19:58:25.995249 28969 layer_factory.hpp:77] Creating layer ip3
I0428 19:58:25.995254 28969 net.cpp:86] Creating Layer ip3
I0428 19:58:25.995257 28969 net.cpp:408] ip3 <- ip2
I0428 19:58:25.995262 28969 net.cpp:382] ip3 -> ip3
I0428 19:58:25.995374 28969 net.cpp:124] Setting up ip3
I0428 19:58:25.995396 28969 net.cpp:131] Top shape: 100 10 (1000)
I0428 19:58:25.995400 28969 net.cpp:139] Memory required for data: 3438800
I0428 19:58:25.995409 28969 layer_factory.hpp:77] Creating layer relu3
I0428 19:58:25.995412 28969 net.cpp:86] Creating Layer relu3
I0428 19:58:25.995415 28969 net.cpp:408] relu3 <- ip3
I0428 19:58:25.995419 28969 net.cpp:369] relu3 -> ip3 (in-place)
I0428 19:58:25.996215 28969 net.cpp:124] Setting up relu3
I0428 19:58:25.996227 28969 net.cpp:131] Top shape: 100 10 (1000)
I0428 19:58:25.996248 28969 net.cpp:139] Memory required for data: 3442800
I0428 19:58:25.996251 28969 layer_factory.hpp:77] Creating layer ip3_relu3_0_split
I0428 19:58:25.996273 28969 net.cpp:86] Creating Layer ip3_relu3_0_split
I0428 19:58:25.996275 28969 net.cpp:408] ip3_relu3_0_split <- ip3
I0428 19:58:25.996280 28969 net.cpp:382] ip3_relu3_0_split -> ip3_relu3_0_split_0
I0428 19:58:25.996286 28969 net.cpp:382] ip3_relu3_0_split -> ip3_relu3_0_split_1
I0428 19:58:25.996323 28969 net.cpp:124] Setting up ip3_relu3_0_split
I0428 19:58:25.996330 28969 net.cpp:131] Top shape: 100 10 (1000)
I0428 19:58:25.996335 28969 net.cpp:131] Top shape: 100 10 (1000)
I0428 19:58:25.996336 28969 net.cpp:139] Memory required for data: 3450800
I0428 19:58:25.996340 28969 layer_factory.hpp:77] Creating layer accuracy
I0428 19:58:25.996345 28969 net.cpp:86] Creating Layer accuracy
I0428 19:58:25.996347 28969 net.cpp:408] accuracy <- ip3_relu3_0_split_0
I0428 19:58:25.996352 28969 net.cpp:408] accuracy <- label_mnist_1_split_0
I0428 19:58:25.996356 28969 net.cpp:382] accuracy -> accuracy
…
