…
I0428 19:37:14.282392 23788 net.cpp:296] The NetState phase (0) differed from the phase (1) specified by a rule in layer mnist
I0428 19:37:14.282410 23788 net.cpp:296] The NetState phase (0) differed from the phase (1) specified by a rule in layer accuracy
I0428 19:37:14.282497 23788 net.cpp:53] Initializing net from parameters: 
name: "LeNet"
state {
  phase: TRAIN
  level: 0
  stage: ""
}
layer {
  name: "mnist"
  type: "Data"
  top: "data"
  top: "label"
  include {
    phase: TRAIN
  }
  transform_param {
    scale: 0.00390625
  }
  data_param {
    source: "examples/mnist/mnist_train_lmdb"
    batch_size: 64
    backend: LMDB
  }
}
layer {
  name: "conv0"
  type: "Convolution"
  bottom: "data"
  top: "conv0"
  param {
    lr_mult: 1
  }
  param {
    lr_mult: 2
  }
  convolution_param {
    num_output: 100
    kernel_size: 5
    stride: 1
    weight_filler {
      type: "xavier"
    }
    bias_filler {
      type: "constant"
    }
  }
}
layer {
  name: "pool0"
  type: "Pooling"
  bottom: "conv0"
  top: "pool0"
  pooling_param {
    pool: MAX
    kernel_size: 2
    stride: 2
  }
}
layer {
  name: "ip1"
  type: "InnerProduct"
  bottom: "pool0"
  top: "ip1"
  param {
    lr_mult: 1
  }
  param {
    lr_mult: 2
  }
  inner_product_param {
    num_output: 25
    weight_filler {
      type: "xavier"
    }
    bias_filler {
      type: "constant"
    }
  }
}
layer {
  name: "relu1"
  type: "ReLU"
  bottom: "ip1"
  top: "ip1"
}
layer {
  name: "ip2"
  type: "InnerProduct"
  bottom: "ip1"
  top: "ip2"
  param {
    lr_mult: 1
  }
  param {
    lr_mult: 2
  }
  inner_product_param {
    num_output: 10
    weight_filler {
      type: "xavier"
    }
    bias_filler {
      type: "constant"
    }
  }
}
layer {
  name: "relu2"
  type: "ReLU"
  bottom: "ip2"
  top: "ip2"
}
layer {
  name: "ip3"
  type: "InnerProduct"
  bottom: "ip2"
  top: "ip3"
  param {
    lr_mult: 1
  }
  param {
    lr_mult: 2
  }
  inner_product_param {
    num_output: 10
    weight_filler {
      type: "xavier"
    }
    bias_filler {
      type: "constant"
    }
  }
}
layer {
  name: "relu3"
  type: "ReLU"
  bottom: "ip3"
  top: "ip3"
}
layer {
  name: "loss"
  type: "SoftmaxWithLoss"
  bottom: "ip3"
  bottom: "label"
  top: "loss"
}
I0428 19:37:14.282572 23788 layer_factory.hpp:77] Creating layer mnist
I0428 19:37:14.282675 23788 db_lmdb.cpp:35] Opened lmdb examples/mnist/mnist_train_lmdb
I0428 19:37:14.282698 23788 net.cpp:86] Creating Layer mnist
I0428 19:37:14.282707 23788 net.cpp:382] mnist -> data
I0428 19:37:14.282729 23788 net.cpp:382] mnist -> label
I0428 19:37:14.283833 23788 data_layer.cpp:45] output data size: 64,1,28,28
I0428 19:37:14.286317 23788 net.cpp:124] Setting up mnist
I0428 19:37:14.286336 23788 net.cpp:131] Top shape: 64 1 28 28 (50176)
I0428 19:37:14.286342 23788 net.cpp:131] Top shape: 64 (64)
I0428 19:37:14.286347 23788 net.cpp:139] Memory required for data: 200960
I0428 19:37:14.286355 23788 layer_factory.hpp:77] Creating layer conv0
I0428 19:37:14.286382 23788 net.cpp:86] Creating Layer conv0
I0428 19:37:14.286389 23788 net.cpp:408] conv0 <- data
I0428 19:37:14.286401 23788 net.cpp:382] conv0 -> conv0
I0428 19:37:14.574239 23788 net.cpp:124] Setting up conv0
I0428 19:37:14.574268 23788 net.cpp:131] Top shape: 64 100 24 24 (3686400)
I0428 19:37:14.574272 23788 net.cpp:139] Memory required for data: 14946560
I0428 19:37:14.574288 23788 layer_factory.hpp:77] Creating layer pool0
I0428 19:37:14.574302 23788 net.cpp:86] Creating Layer pool0
I0428 19:37:14.574326 23788 net.cpp:408] pool0 <- conv0
I0428 19:37:14.574332 23788 net.cpp:382] pool0 -> pool0
I0428 19:37:14.574383 23788 net.cpp:124] Setting up pool0
I0428 19:37:14.574396 23788 net.cpp:131] Top shape: 64 100 12 12 (921600)
I0428 19:37:14.574400 23788 net.cpp:139] Memory required for data: 18632960
I0428 19:37:14.574404 23788 layer_factory.hpp:77] Creating layer ip1
I0428 19:37:14.574411 23788 net.cpp:86] Creating Layer ip1
I0428 19:37:14.574414 23788 net.cpp:408] ip1 <- pool0
I0428 19:37:14.574419 23788 net.cpp:382] ip1 -> ip1
I0428 19:37:14.577404 23788 net.cpp:124] Setting up ip1
I0428 19:37:14.577417 23788 net.cpp:131] Top shape: 64 25 (1600)
I0428 19:37:14.577421 23788 net.cpp:139] Memory required for data: 18639360
I0428 19:37:14.577430 23788 layer_factory.hpp:77] Creating layer relu1
I0428 19:37:14.577436 23788 net.cpp:86] Creating Layer relu1
I0428 19:37:14.577440 23788 net.cpp:408] relu1 <- ip1
I0428 19:37:14.577445 23788 net.cpp:369] relu1 -> ip1 (in-place)
I0428 19:37:14.577646 23788 net.cpp:124] Setting up relu1
I0428 19:37:14.577656 23788 net.cpp:131] Top shape: 64 25 (1600)
I0428 19:37:14.577666 23788 net.cpp:139] Memory required for data: 18645760
I0428 19:37:14.577668 23788 layer_factory.hpp:77] Creating layer ip2
I0428 19:37:14.577675 23788 net.cpp:86] Creating Layer ip2
I0428 19:37:14.577678 23788 net.cpp:408] ip2 <- ip1
I0428 19:37:14.577683 23788 net.cpp:382] ip2 -> ip2
I0428 19:37:14.577778 23788 net.cpp:124] Setting up ip2
I0428 19:37:14.577785 23788 net.cpp:131] Top shape: 64 10 (640)
I0428 19:37:14.577788 23788 net.cpp:139] Memory required for data: 18648320
I0428 19:37:14.577796 23788 layer_factory.hpp:77] Creating layer relu2
I0428 19:37:14.577801 23788 net.cpp:86] Creating Layer relu2
I0428 19:37:14.577805 23788 net.cpp:408] relu2 <- ip2
I0428 19:37:14.577808 23788 net.cpp:369] relu2 -> ip2 (in-place)
I0428 19:37:14.578541 23788 net.cpp:124] Setting up relu2
I0428 19:37:14.578552 23788 net.cpp:131] Top shape: 64 10 (640)
I0428 19:37:14.578572 23788 net.cpp:139] Memory required for data: 18650880
I0428 19:37:14.578577 23788 layer_factory.hpp:77] Creating layer ip3
I0428 19:37:14.578583 23788 net.cpp:86] Creating Layer ip3
I0428 19:37:14.578586 23788 net.cpp:408] ip3 <- ip2
I0428 19:37:14.578593 23788 net.cpp:382] ip3 -> ip3
I0428 19:37:14.578706 23788 net.cpp:124] Setting up ip3
I0428 19:37:14.578713 23788 net.cpp:131] Top shape: 64 10 (640)
I0428 19:37:14.578716 23788 net.cpp:139] Memory required for data: 18653440
I0428 19:37:14.578722 23788 layer_factory.hpp:77] Creating layer relu3
I0428 19:37:14.578728 23788 net.cpp:86] Creating Layer relu3
I0428 19:37:14.578732 23788 net.cpp:408] relu3 <- ip3
I0428 19:37:14.578735 23788 net.cpp:369] relu3 -> ip3 (in-place)
I0428 19:37:14.578882 23788 net.cpp:124] Setting up relu3
I0428 19:37:14.578891 23788 net.cpp:131] Top shape: 64 10 (640)
I0428 19:37:14.578893 23788 net.cpp:139] Memory required for data: 18656000
I0428 19:37:14.578896 23788 layer_factory.hpp:77] Creating layer loss
I0428 19:37:14.578907 23788 net.cpp:86] Creating Layer loss
I0428 19:37:14.578910 23788 net.cpp:408] loss <- ip3
I0428 19:37:14.578914 23788 net.cpp:408] loss <- label
I0428 19:37:14.578919 23788 net.cpp:382] loss -> loss
I0428 19:37:14.578933 23788 layer_factory.hpp:77] Creating layer loss
…
I0428 19:37:14.579537 23788 solver.cpp:173] Creating test net (#0) specified by net file: ECE595/mnist/train_test/var_everything2/lenet_train_test255.prototxt
I0428 19:37:14.579593 23788 net.cpp:296] The NetState phase (1) differed from the phase (0) specified by a rule in layer mnist
I0428 19:37:14.579677 23788 net.cpp:53] Initializing net from parameters: 
name: "LeNet"
state {
  phase: TEST
}
layer {
  name: "mnist"
  type: "Data"
  top: "data"
  top: "label"
  include {
    phase: TEST
  }
  transform_param {
    scale: 0.00390625
  }
  data_param {
    source: "examples/mnist/mnist_test_lmdb"
    batch_size: 100
    backend: LMDB
  }
}
layer {
  name: "conv0"
  type: "Convolution"
  bottom: "data"
  top: "conv0"
  param {
    lr_mult: 1
  }
  param {
    lr_mult: 2
  }
  convolution_param {
    num_output: 100
    kernel_size: 5
    stride: 1
    weight_filler {
      type: "xavier"
    }
    bias_filler {
      type: "constant"
    }
  }
}
layer {
  name: "pool0"
  type: "Pooling"
  bottom: "conv0"
  top: "pool0"
  pooling_param {
    pool: MAX
    kernel_size: 2
    stride: 2
  }
}
layer {
  name: "ip1"
  type: "InnerProduct"
  bottom: "pool0"
  top: "ip1"
  param {
    lr_mult: 1
  }
  param {
    lr_mult: 2
  }
  inner_product_param {
    num_output: 25
    weight_filler {
      type: "xavier"
    }
    bias_filler {
      type: "constant"
    }
  }
}
layer {
  name: "relu1"
  type: "ReLU"
  bottom: "ip1"
  top: "ip1"
}
layer {
  name: "ip2"
  type: "InnerProduct"
  bottom: "ip1"
  top: "ip2"
  param {
    lr_mult: 1
  }
  param {
    lr_mult: 2
  }
  inner_product_param {
    num_output: 10
    weight_filler {
      type: "xavier"
    }
    bias_filler {
      type: "constant"
    }
  }
}
layer {
  name: "relu2"
  type: "ReLU"
  bottom: "ip2"
  top: "ip2"
}
layer {
  name: "ip3"
  type: "InnerProduct"
  bottom: "ip2"
  top: "ip3"
  param {
    lr_mult: 1
  }
  param {
    lr_mult: 2
  }
  inner_product_param {
    num_output: 10
    weight_filler {
      type: "xavier"
    }
    bias_filler {
      type: "constant"
    }
  }
}
layer {
  name: "relu3"
  type: "ReLU"
  bottom: "ip3"
  top: "ip3"
}
layer {
  name: "accuracy"
  type: "Accuracy"
  bottom: "ip3"
  bottom: "label"
  top: "accuracy"
  include {
    phase: TEST
  }
}
layer {
  name: "loss"
  type: "SoftmaxWithLoss"
  bottom: "ip3"
  bottom: "label"
  top: "loss"
}
I0428 19:37:14.579743 23788 layer_factory.hpp:77] Creating layer mnist
I0428 19:37:14.579804 23788 db_lmdb.cpp:35] Opened lmdb examples/mnist/mnist_test_lmdb
I0428 19:37:14.579818 23788 net.cpp:86] Creating Layer mnist
I0428 19:37:14.579823 23788 net.cpp:382] mnist -> data
I0428 19:37:14.579829 23788 net.cpp:382] mnist -> label
I0428 19:37:14.579912 23788 data_layer.cpp:45] output data size: 100,1,28,28
I0428 19:37:14.582011 23788 net.cpp:124] Setting up mnist
I0428 19:37:14.582026 23788 net.cpp:131] Top shape: 100 1 28 28 (78400)
I0428 19:37:14.582031 23788 net.cpp:131] Top shape: 100 (100)
I0428 19:37:14.582034 23788 net.cpp:139] Memory required for data: 314000
I0428 19:37:14.582037 23788 layer_factory.hpp:77] Creating layer label_mnist_1_split
I0428 19:37:14.582044 23788 net.cpp:86] Creating Layer label_mnist_1_split
I0428 19:37:14.582048 23788 net.cpp:408] label_mnist_1_split <- label
I0428 19:37:14.582053 23788 net.cpp:382] label_mnist_1_split -> label_mnist_1_split_0
I0428 19:37:14.582059 23788 net.cpp:382] label_mnist_1_split -> label_mnist_1_split_1
I0428 19:37:14.582096 23788 net.cpp:124] Setting up label_mnist_1_split
I0428 19:37:14.582101 23788 net.cpp:131] Top shape: 100 (100)
I0428 19:37:14.582104 23788 net.cpp:131] Top shape: 100 (100)
I0428 19:37:14.582108 23788 net.cpp:139] Memory required for data: 314800
I0428 19:37:14.582121 23788 layer_factory.hpp:77] Creating layer conv0
I0428 19:37:14.582129 23788 net.cpp:86] Creating Layer conv0
I0428 19:37:14.582134 23788 net.cpp:408] conv0 <- data
I0428 19:37:14.582139 23788 net.cpp:382] conv0 -> conv0
I0428 19:37:14.583819 23788 net.cpp:124] Setting up conv0
I0428 19:37:14.583833 23788 net.cpp:131] Top shape: 100 100 24 24 (5760000)
I0428 19:37:14.583837 23788 net.cpp:139] Memory required for data: 23354800
I0428 19:37:14.583847 23788 layer_factory.hpp:77] Creating layer pool0
I0428 19:37:14.583853 23788 net.cpp:86] Creating Layer pool0
I0428 19:37:14.583856 23788 net.cpp:408] pool0 <- conv0
I0428 19:37:14.583863 23788 net.cpp:382] pool0 -> pool0
I0428 19:37:14.583897 23788 net.cpp:124] Setting up pool0
I0428 19:37:14.583902 23788 net.cpp:131] Top shape: 100 100 12 12 (1440000)
I0428 19:37:14.583905 23788 net.cpp:139] Memory required for data: 29114800
I0428 19:37:14.583909 23788 layer_factory.hpp:77] Creating layer ip1
I0428 19:37:14.583915 23788 net.cpp:86] Creating Layer ip1
I0428 19:37:14.583919 23788 net.cpp:408] ip1 <- pool0
I0428 19:37:14.583922 23788 net.cpp:382] ip1 -> ip1
I0428 19:37:14.586184 23788 net.cpp:124] Setting up ip1
I0428 19:37:14.586191 23788 net.cpp:131] Top shape: 100 25 (2500)
I0428 19:37:14.586194 23788 net.cpp:139] Memory required for data: 29124800
I0428 19:37:14.586201 23788 layer_factory.hpp:77] Creating layer relu1
I0428 19:37:14.586206 23788 net.cpp:86] Creating Layer relu1
I0428 19:37:14.586210 23788 net.cpp:408] relu1 <- ip1
I0428 19:37:14.586215 23788 net.cpp:369] relu1 -> ip1 (in-place)
I0428 19:37:14.586454 23788 net.cpp:124] Setting up relu1
I0428 19:37:14.586462 23788 net.cpp:131] Top shape: 100 25 (2500)
I0428 19:37:14.586467 23788 net.cpp:139] Memory required for data: 29134800
I0428 19:37:14.586469 23788 layer_factory.hpp:77] Creating layer ip2
I0428 19:37:14.586477 23788 net.cpp:86] Creating Layer ip2
I0428 19:37:14.586479 23788 net.cpp:408] ip2 <- ip1
I0428 19:37:14.586484 23788 net.cpp:382] ip2 -> ip2
I0428 19:37:14.586580 23788 net.cpp:124] Setting up ip2
I0428 19:37:14.586587 23788 net.cpp:131] Top shape: 100 10 (1000)
I0428 19:37:14.586591 23788 net.cpp:139] Memory required for data: 29138800
I0428 19:37:14.586598 23788 layer_factory.hpp:77] Creating layer relu2
I0428 19:37:14.586602 23788 net.cpp:86] Creating Layer relu2
I0428 19:37:14.586606 23788 net.cpp:408] relu2 <- ip2
I0428 19:37:14.586611 23788 net.cpp:369] relu2 -> ip2 (in-place)
I0428 19:37:14.587450 23788 net.cpp:124] Setting up relu2
I0428 19:37:14.587462 23788 net.cpp:131] Top shape: 100 10 (1000)
I0428 19:37:14.587466 23788 net.cpp:139] Memory required for data: 29142800
I0428 19:37:14.587476 23788 layer_factory.hpp:77] Creating layer ip3
I0428 19:37:14.587484 23788 net.cpp:86] Creating Layer ip3
I0428 19:37:14.587488 23788 net.cpp:408] ip3 <- ip2
I0428 19:37:14.587493 23788 net.cpp:382] ip3 -> ip3
I0428 19:37:14.587630 23788 net.cpp:124] Setting up ip3
I0428 19:37:14.587637 23788 net.cpp:131] Top shape: 100 10 (1000)
I0428 19:37:14.587641 23788 net.cpp:139] Memory required for data: 29146800
I0428 19:37:14.587646 23788 layer_factory.hpp:77] Creating layer relu3
I0428 19:37:14.587651 23788 net.cpp:86] Creating Layer relu3
I0428 19:37:14.587653 23788 net.cpp:408] relu3 <- ip3
I0428 19:37:14.587658 23788 net.cpp:369] relu3 -> ip3 (in-place)
I0428 19:37:14.587810 23788 net.cpp:124] Setting up relu3
I0428 19:37:14.587818 23788 net.cpp:131] Top shape: 100 10 (1000)
I0428 19:37:14.587821 23788 net.cpp:139] Memory required for data: 29150800
I0428 19:37:14.587824 23788 layer_factory.hpp:77] Creating layer ip3_relu3_0_split
I0428 19:37:14.587829 23788 net.cpp:86] Creating Layer ip3_relu3_0_split
I0428 19:37:14.587832 23788 net.cpp:408] ip3_relu3_0_split <- ip3
I0428 19:37:14.587836 23788 net.cpp:382] ip3_relu3_0_split -> ip3_relu3_0_split_0
I0428 19:37:14.587842 23788 net.cpp:382] ip3_relu3_0_split -> ip3_relu3_0_split_1
I0428 19:37:14.587877 23788 net.cpp:124] Setting up ip3_relu3_0_split
I0428 19:37:14.587880 23788 net.cpp:131] Top shape: 100 10 (1000)
I0428 19:37:14.587895 23788 net.cpp:131] Top shape: 100 10 (1000)
I0428 19:37:14.587898 23788 net.cpp:139] Memory required for data: 29158800
I0428 19:37:14.587901 23788 layer_factory.hpp:77] Creating layer accuracy
I0428 19:37:14.587906 23788 net.cpp:86] Creating Layer accuracy
I0428 19:37:14.587910 23788 net.cpp:408] accuracy <- ip3_relu3_0_split_0
I0428 19:37:14.587915 23788 net.cpp:408] accuracy <- label_mnist_1_split_0
I0428 19:37:14.587920 23788 net.cpp:382] accuracy -> accuracy
…
