…
I0428 19:49:55.608784 26887 net.cpp:296] The NetState phase (0) differed from the phase (1) specified by a rule in layer mnist
I0428 19:49:55.608803 26887 net.cpp:296] The NetState phase (0) differed from the phase (1) specified by a rule in layer accuracy
I0428 19:49:55.608903 26887 net.cpp:53] Initializing net from parameters: 
name: "LeNet"
state {
  phase: TRAIN
  level: 0
  stage: ""
}
layer {
  name: "mnist"
  type: "Data"
  top: "data"
  top: "label"
  include {
    phase: TRAIN
  }
  transform_param {
    scale: 0.00390625
  }
  data_param {
    source: "examples/mnist/mnist_train_lmdb"
    batch_size: 64
    backend: LMDB
  }
}
layer {
  name: "conv0"
  type: "Convolution"
  bottom: "data"
  top: "conv0"
  param {
    lr_mult: 1
  }
  param {
    lr_mult: 2
  }
  convolution_param {
    num_output: 5
    kernel_size: 5
    stride: 1
    weight_filler {
      type: "xavier"
    }
    bias_filler {
      type: "constant"
    }
  }
}
layer {
  name: "pool0"
  type: "Pooling"
  bottom: "conv0"
  top: "pool0"
  pooling_param {
    pool: MAX
    kernel_size: 2
    stride: 2
  }
}
layer {
  name: "conv1"
  type: "Convolution"
  bottom: "pool0"
  top: "conv1"
  param {
    lr_mult: 1
  }
  param {
    lr_mult: 2
  }
  convolution_param {
    num_output: 10
    kernel_size: 5
    stride: 1
    weight_filler {
      type: "xavier"
    }
    bias_filler {
      type: "constant"
    }
  }
}
layer {
  name: "pool1"
  type: "Pooling"
  bottom: "conv1"
  top: "pool1"
  pooling_param {
    pool: MAX
    kernel_size: 2
    stride: 2
  }
}
layer {
  name: "ip1"
  type: "InnerProduct"
  bottom: "pool1"
  top: "ip1"
  param {
    lr_mult: 1
  }
  param {
    lr_mult: 2
  }
  inner_product_param {
    num_output: 10
    weight_filler {
      type: "xavier"
    }
    bias_filler {
      type: "constant"
    }
  }
}
layer {
  name: "relu1"
  type: "ReLU"
  bottom: "ip1"
  top: "ip1"
}
layer {
  name: "ip2"
  type: "InnerProduct"
  bottom: "ip1"
  top: "ip2"
  param {
    lr_mult: 1
  }
  param {
    lr_mult: 2
  }
  inner_product_param {
    num_output: 10
    weight_filler {
      type: "xavier"
    }
    bias_filler {
      type: "constant"
    }
  }
}
layer {
  name: "relu2"
  type: "ReLU"
  bottom: "ip2"
  top: "ip2"
}
layer {
  name: "loss"
  type: "SoftmaxWithLoss"
  bottom: "ip2"
  bottom: "label"
  top: "loss"
}
I0428 19:49:55.608979 26887 layer_factory.hpp:77] Creating layer mnist
I0428 19:49:55.609082 26887 db_lmdb.cpp:35] Opened lmdb examples/mnist/mnist_train_lmdb
I0428 19:49:55.609107 26887 net.cpp:86] Creating Layer mnist
I0428 19:49:55.609117 26887 net.cpp:382] mnist -> data
I0428 19:49:55.609139 26887 net.cpp:382] mnist -> label
I0428 19:49:55.610231 26887 data_layer.cpp:45] output data size: 64,1,28,28
I0428 19:49:55.612715 26887 net.cpp:124] Setting up mnist
I0428 19:49:55.612733 26887 net.cpp:131] Top shape: 64 1 28 28 (50176)
I0428 19:49:55.612740 26887 net.cpp:131] Top shape: 64 (64)
I0428 19:49:55.612745 26887 net.cpp:139] Memory required for data: 200960
I0428 19:49:55.612751 26887 layer_factory.hpp:77] Creating layer conv0
I0428 19:49:55.612766 26887 net.cpp:86] Creating Layer conv0
I0428 19:49:55.612772 26887 net.cpp:408] conv0 <- data
I0428 19:49:55.612785 26887 net.cpp:382] conv0 -> conv0
I0428 19:49:55.931661 26887 net.cpp:124] Setting up conv0
I0428 19:49:55.931692 26887 net.cpp:131] Top shape: 64 5 24 24 (184320)
I0428 19:49:55.931699 26887 net.cpp:139] Memory required for data: 938240
I0428 19:49:55.931738 26887 layer_factory.hpp:77] Creating layer pool0
I0428 19:49:55.931753 26887 net.cpp:86] Creating Layer pool0
I0428 19:49:55.931758 26887 net.cpp:408] pool0 <- conv0
I0428 19:49:55.931766 26887 net.cpp:382] pool0 -> pool0
I0428 19:49:55.931821 26887 net.cpp:124] Setting up pool0
I0428 19:49:55.931830 26887 net.cpp:131] Top shape: 64 5 12 12 (46080)
I0428 19:49:55.931834 26887 net.cpp:139] Memory required for data: 1122560
I0428 19:49:55.931838 26887 layer_factory.hpp:77] Creating layer conv1
I0428 19:49:55.931850 26887 net.cpp:86] Creating Layer conv1
I0428 19:49:55.931854 26887 net.cpp:408] conv1 <- pool0
I0428 19:49:55.931860 26887 net.cpp:382] conv1 -> conv1
I0428 19:49:55.934983 26887 net.cpp:124] Setting up conv1
I0428 19:49:55.935001 26887 net.cpp:131] Top shape: 64 10 8 8 (40960)
I0428 19:49:55.935006 26887 net.cpp:139] Memory required for data: 1286400
I0428 19:49:55.935017 26887 layer_factory.hpp:77] Creating layer pool1
I0428 19:49:55.935026 26887 net.cpp:86] Creating Layer pool1
I0428 19:49:55.935031 26887 net.cpp:408] pool1 <- conv1
I0428 19:49:55.935037 26887 net.cpp:382] pool1 -> pool1
I0428 19:49:55.935082 26887 net.cpp:124] Setting up pool1
I0428 19:49:55.935088 26887 net.cpp:131] Top shape: 64 10 4 4 (10240)
I0428 19:49:55.935092 26887 net.cpp:139] Memory required for data: 1327360
I0428 19:49:55.935096 26887 layer_factory.hpp:77] Creating layer ip1
I0428 19:49:55.935106 26887 net.cpp:86] Creating Layer ip1
I0428 19:49:55.935108 26887 net.cpp:408] ip1 <- pool1
I0428 19:49:55.935114 26887 net.cpp:382] ip1 -> ip1
I0428 19:49:55.935245 26887 net.cpp:124] Setting up ip1
I0428 19:49:55.935253 26887 net.cpp:131] Top shape: 64 10 (640)
I0428 19:49:55.935257 26887 net.cpp:139] Memory required for data: 1329920
I0428 19:49:55.935266 26887 layer_factory.hpp:77] Creating layer relu1
I0428 19:49:55.935272 26887 net.cpp:86] Creating Layer relu1
I0428 19:49:55.935276 26887 net.cpp:408] relu1 <- ip1
I0428 19:49:55.935281 26887 net.cpp:369] relu1 -> ip1 (in-place)
I0428 19:49:55.935478 26887 net.cpp:124] Setting up relu1
I0428 19:49:55.935489 26887 net.cpp:131] Top shape: 64 10 (640)
I0428 19:49:55.935492 26887 net.cpp:139] Memory required for data: 1332480
I0428 19:49:55.935497 26887 layer_factory.hpp:77] Creating layer ip2
I0428 19:49:55.935504 26887 net.cpp:86] Creating Layer ip2
I0428 19:49:55.935508 26887 net.cpp:408] ip2 <- ip1
I0428 19:49:55.935514 26887 net.cpp:382] ip2 -> ip2
I0428 19:49:55.935624 26887 net.cpp:124] Setting up ip2
I0428 19:49:55.935632 26887 net.cpp:131] Top shape: 64 10 (640)
I0428 19:49:55.935636 26887 net.cpp:139] Memory required for data: 1335040
I0428 19:49:55.935642 26887 layer_factory.hpp:77] Creating layer relu2
I0428 19:49:55.935649 26887 net.cpp:86] Creating Layer relu2
I0428 19:49:55.935652 26887 net.cpp:408] relu2 <- ip2
I0428 19:49:55.935657 26887 net.cpp:369] relu2 -> ip2 (in-place)
I0428 19:49:55.936497 26887 net.cpp:124] Setting up relu2
I0428 19:49:55.936512 26887 net.cpp:131] Top shape: 64 10 (640)
I0428 19:49:55.936517 26887 net.cpp:139] Memory required for data: 1337600
I0428 19:49:55.936520 26887 layer_factory.hpp:77] Creating layer loss
I0428 19:49:55.936528 26887 net.cpp:86] Creating Layer loss
I0428 19:49:55.936532 26887 net.cpp:408] loss <- ip2
I0428 19:49:55.936537 26887 net.cpp:408] loss <- label
I0428 19:49:55.936544 26887 net.cpp:382] loss -> loss
I0428 19:49:55.936563 26887 layer_factory.hpp:77] Creating layer loss
…
I0428 19:49:55.937290 26887 solver.cpp:173] Creating test net (#0) specified by net file: ECE595/mnist/train_test/var_everything2/lenet_train_test589.prototxt
I0428 19:49:55.937320 26887 net.cpp:296] The NetState phase (1) differed from the phase (0) specified by a rule in layer mnist
I0428 19:49:55.937419 26887 net.cpp:53] Initializing net from parameters: 
name: "LeNet"
state {
  phase: TEST
}
layer {
  name: "mnist"
  type: "Data"
  top: "data"
  top: "label"
  include {
    phase: TEST
  }
  transform_param {
    scale: 0.00390625
  }
  data_param {
    source: "examples/mnist/mnist_test_lmdb"
    batch_size: 100
    backend: LMDB
  }
}
layer {
  name: "conv0"
  type: "Convolution"
  bottom: "data"
  top: "conv0"
  param {
    lr_mult: 1
  }
  param {
    lr_mult: 2
  }
  convolution_param {
    num_output: 5
    kernel_size: 5
    stride: 1
    weight_filler {
      type: "xavier"
    }
    bias_filler {
      type: "constant"
    }
  }
}
layer {
  name: "pool0"
  type: "Pooling"
  bottom: "conv0"
  top: "pool0"
  pooling_param {
    pool: MAX
    kernel_size: 2
    stride: 2
  }
}
layer {
  name: "conv1"
  type: "Convolution"
  bottom: "pool0"
  top: "conv1"
  param {
    lr_mult: 1
  }
  param {
    lr_mult: 2
  }
  convolution_param {
    num_output: 10
    kernel_size: 5
    stride: 1
    weight_filler {
      type: "xavier"
    }
    bias_filler {
      type: "constant"
    }
  }
}
layer {
  name: "pool1"
  type: "Pooling"
  bottom: "conv1"
  top: "pool1"
  pooling_param {
    pool: MAX
    kernel_size: 2
    stride: 2
  }
}
layer {
  name: "ip1"
  type: "InnerProduct"
  bottom: "pool1"
  top: "ip1"
  param {
    lr_mult: 1
  }
  param {
    lr_mult: 2
  }
  inner_product_param {
    num_output: 10
    weight_filler {
      type: "xavier"
    }
    bias_filler {
      type: "constant"
    }
  }
}
layer {
  name: "relu1"
  type: "ReLU"
  bottom: "ip1"
  top: "ip1"
}
layer {
  name: "ip2"
  type: "InnerProduct"
  bottom: "ip1"
  top: "ip2"
  param {
    lr_mult: 1
  }
  param {
    lr_mult: 2
  }
  inner_product_param {
    num_output: 10
    weight_filler {
      type: "xavier"
    }
    bias_filler {
      type: "constant"
    }
  }
}
layer {
  name: "relu2"
  type: "ReLU"
  bottom: "ip2"
  top: "ip2"
}
layer {
  name: "accuracy"
  type: "Accuracy"
  bottom: "ip2"
  bottom: "label"
  top: "accuracy"
  include {
    phase: TEST
  }
}
layer {
  name: "loss"
  type: "SoftmaxWithLoss"
  bottom: "ip2"
  bottom: "label"
  top: "loss"
}
I0428 19:49:55.937494 26887 layer_factory.hpp:77] Creating layer mnist
I0428 19:49:55.937543 26887 db_lmdb.cpp:35] Opened lmdb examples/mnist/mnist_test_lmdb
I0428 19:49:55.937562 26887 net.cpp:86] Creating Layer mnist
I0428 19:49:55.937567 26887 net.cpp:382] mnist -> data
I0428 19:49:55.937577 26887 net.cpp:382] mnist -> label
I0428 19:49:55.937677 26887 data_layer.cpp:45] output data size: 100,1,28,28
I0428 19:49:55.939855 26887 net.cpp:124] Setting up mnist
I0428 19:49:55.939872 26887 net.cpp:131] Top shape: 100 1 28 28 (78400)
I0428 19:49:55.939877 26887 net.cpp:131] Top shape: 100 (100)
I0428 19:49:55.939882 26887 net.cpp:139] Memory required for data: 314000
I0428 19:49:55.939885 26887 layer_factory.hpp:77] Creating layer label_mnist_1_split
I0428 19:49:55.939893 26887 net.cpp:86] Creating Layer label_mnist_1_split
I0428 19:49:55.939898 26887 net.cpp:408] label_mnist_1_split <- label
I0428 19:49:55.939904 26887 net.cpp:382] label_mnist_1_split -> label_mnist_1_split_0
I0428 19:49:55.939913 26887 net.cpp:382] label_mnist_1_split -> label_mnist_1_split_1
I0428 19:49:55.939971 26887 net.cpp:124] Setting up label_mnist_1_split
I0428 19:49:55.939990 26887 net.cpp:131] Top shape: 100 (100)
I0428 19:49:55.939996 26887 net.cpp:131] Top shape: 100 (100)
I0428 19:49:55.939998 26887 net.cpp:139] Memory required for data: 314800
I0428 19:49:55.940002 26887 layer_factory.hpp:77] Creating layer conv0
I0428 19:49:55.940012 26887 net.cpp:86] Creating Layer conv0
I0428 19:49:55.940016 26887 net.cpp:408] conv0 <- data
I0428 19:49:55.940022 26887 net.cpp:382] conv0 -> conv0
I0428 19:49:55.941956 26887 net.cpp:124] Setting up conv0
I0428 19:49:55.941972 26887 net.cpp:131] Top shape: 100 5 24 24 (288000)
I0428 19:49:55.941977 26887 net.cpp:139] Memory required for data: 1466800
I0428 19:49:55.941988 26887 layer_factory.hpp:77] Creating layer pool0
I0428 19:49:55.941997 26887 net.cpp:86] Creating Layer pool0
I0428 19:49:55.942003 26887 net.cpp:408] pool0 <- conv0
I0428 19:49:55.942008 26887 net.cpp:382] pool0 -> pool0
I0428 19:49:55.942049 26887 net.cpp:124] Setting up pool0
I0428 19:49:55.942055 26887 net.cpp:131] Top shape: 100 5 12 12 (72000)
I0428 19:49:55.942059 26887 net.cpp:139] Memory required for data: 1754800
I0428 19:49:55.942062 26887 layer_factory.hpp:77] Creating layer conv1
I0428 19:49:55.942073 26887 net.cpp:86] Creating Layer conv1
I0428 19:49:55.942077 26887 net.cpp:408] conv1 <- pool0
I0428 19:49:55.942083 26887 net.cpp:382] conv1 -> conv1
I0428 19:49:55.944383 26887 net.cpp:124] Setting up conv1
I0428 19:49:55.944401 26887 net.cpp:131] Top shape: 100 10 8 8 (64000)
I0428 19:49:55.944406 26887 net.cpp:139] Memory required for data: 2010800
I0428 19:49:55.944416 26887 layer_factory.hpp:77] Creating layer pool1
I0428 19:49:55.944424 26887 net.cpp:86] Creating Layer pool1
I0428 19:49:55.944428 26887 net.cpp:408] pool1 <- conv1
I0428 19:49:55.944434 26887 net.cpp:382] pool1 -> pool1
I0428 19:49:55.944484 26887 net.cpp:124] Setting up pool1
I0428 19:49:55.944490 26887 net.cpp:131] Top shape: 100 10 4 4 (16000)
I0428 19:49:55.944494 26887 net.cpp:139] Memory required for data: 2074800
I0428 19:49:55.944497 26887 layer_factory.hpp:77] Creating layer ip1
I0428 19:49:55.944504 26887 net.cpp:86] Creating Layer ip1
I0428 19:49:55.944509 26887 net.cpp:408] ip1 <- pool1
I0428 19:49:55.944514 26887 net.cpp:382] ip1 -> ip1
I0428 19:49:55.944665 26887 net.cpp:124] Setting up ip1
I0428 19:49:55.944675 26887 net.cpp:131] Top shape: 100 10 (1000)
I0428 19:49:55.944679 26887 net.cpp:139] Memory required for data: 2078800
I0428 19:49:55.944689 26887 layer_factory.hpp:77] Creating layer relu1
I0428 19:49:55.944694 26887 net.cpp:86] Creating Layer relu1
I0428 19:49:55.944699 26887 net.cpp:408] relu1 <- ip1
I0428 19:49:55.944705 26887 net.cpp:369] relu1 -> ip1 (in-place)
I0428 19:49:55.944914 26887 net.cpp:124] Setting up relu1
I0428 19:49:55.944926 26887 net.cpp:131] Top shape: 100 10 (1000)
I0428 19:49:55.944931 26887 net.cpp:139] Memory required for data: 2082800
I0428 19:49:55.944934 26887 layer_factory.hpp:77] Creating layer ip2
I0428 19:49:55.944943 26887 net.cpp:86] Creating Layer ip2
I0428 19:49:55.944947 26887 net.cpp:408] ip2 <- ip1
I0428 19:49:55.944954 26887 net.cpp:382] ip2 -> ip2
I0428 19:49:55.945067 26887 net.cpp:124] Setting up ip2
I0428 19:49:55.945075 26887 net.cpp:131] Top shape: 100 10 (1000)
I0428 19:49:55.945080 26887 net.cpp:139] Memory required for data: 2086800
I0428 19:49:55.945086 26887 layer_factory.hpp:77] Creating layer relu2
I0428 19:49:55.945092 26887 net.cpp:86] Creating Layer relu2
I0428 19:49:55.945096 26887 net.cpp:408] relu2 <- ip2
I0428 19:49:55.945104 26887 net.cpp:369] relu2 -> ip2 (in-place)
I0428 19:49:55.945300 26887 net.cpp:124] Setting up relu2
I0428 19:49:55.945318 26887 net.cpp:131] Top shape: 100 10 (1000)
I0428 19:49:55.945322 26887 net.cpp:139] Memory required for data: 2090800
I0428 19:49:55.945327 26887 layer_factory.hpp:77] Creating layer ip2_relu2_0_split
I0428 19:49:55.945333 26887 net.cpp:86] Creating Layer ip2_relu2_0_split
I0428 19:49:55.945336 26887 net.cpp:408] ip2_relu2_0_split <- ip2
I0428 19:49:55.945343 26887 net.cpp:382] ip2_relu2_0_split -> ip2_relu2_0_split_0
I0428 19:49:55.945363 26887 net.cpp:382] ip2_relu2_0_split -> ip2_relu2_0_split_1
I0428 19:49:55.945405 26887 net.cpp:124] Setting up ip2_relu2_0_split
I0428 19:49:55.945415 26887 net.cpp:131] Top shape: 100 10 (1000)
I0428 19:49:55.945420 26887 net.cpp:131] Top shape: 100 10 (1000)
I0428 19:49:55.945422 26887 net.cpp:139] Memory required for data: 2098800
I0428 19:49:55.945426 26887 layer_factory.hpp:77] Creating layer accuracy
I0428 19:49:55.945432 26887 net.cpp:86] Creating Layer accuracy
I0428 19:49:55.945436 26887 net.cpp:408] accuracy <- ip2_relu2_0_split_0
I0428 19:49:55.945441 26887 net.cpp:408] accuracy <- label_mnist_1_split_0
I0428 19:49:55.945446 26887 net.cpp:382] accuracy -> accuracy
…
