…
I0428 19:55:57.054291 28310 net.cpp:296] The NetState phase (0) differed from the phase (1) specified by a rule in layer mnist
I0428 19:55:57.054306 28310 net.cpp:296] The NetState phase (0) differed from the phase (1) specified by a rule in layer accuracy
I0428 19:55:57.054375 28310 net.cpp:53] Initializing net from parameters: 
name: "LeNet"
state {
  phase: TRAIN
  level: 0
  stage: ""
}
layer {
  name: "mnist"
  type: "Data"
  top: "data"
  top: "label"
  include {
    phase: TRAIN
  }
  transform_param {
    scale: 0.00390625
  }
  data_param {
    source: "examples/mnist/mnist_train_lmdb"
    batch_size: 64
    backend: LMDB
  }
}
layer {
  name: "conv0"
  type: "Convolution"
  bottom: "data"
  top: "conv0"
  param {
    lr_mult: 1
  }
  param {
    lr_mult: 2
  }
  convolution_param {
    num_output: 10
    kernel_size: 5
    stride: 1
    weight_filler {
      type: "xavier"
    }
    bias_filler {
      type: "constant"
    }
  }
}
layer {
  name: "pool0"
  type: "Pooling"
  bottom: "conv0"
  top: "pool0"
  pooling_param {
    pool: MAX
    kernel_size: 2
    stride: 2
  }
}
layer {
  name: "conv1"
  type: "Convolution"
  bottom: "pool0"
  top: "conv1"
  param {
    lr_mult: 1
  }
  param {
    lr_mult: 2
  }
  convolution_param {
    num_output: 2
    kernel_size: 5
    stride: 1
    weight_filler {
      type: "xavier"
    }
    bias_filler {
      type: "constant"
    }
  }
}
layer {
  name: "pool1"
  type: "Pooling"
  bottom: "conv1"
  top: "pool1"
  pooling_param {
    pool: MAX
    kernel_size: 2
    stride: 2
  }
}
layer {
  name: "ip1"
  type: "InnerProduct"
  bottom: "pool1"
  top: "ip1"
  param {
    lr_mult: 1
  }
  param {
    lr_mult: 2
  }
  inner_product_param {
    num_output: 10
    weight_filler {
      type: "xavier"
    }
    bias_filler {
      type: "constant"
    }
  }
}
layer {
  name: "relu1"
  type: "ReLU"
  bottom: "ip1"
  top: "ip1"
}
layer {
  name: "ip2"
  type: "InnerProduct"
  bottom: "ip1"
  top: "ip2"
  param {
    lr_mult: 1
  }
  param {
    lr_mult: 2
  }
  inner_product_param {
    num_output: 10
    weight_filler {
      type: "xavier"
    }
    bias_filler {
      type: "constant"
    }
  }
}
layer {
  name: "relu2"
  type: "ReLU"
  bottom: "ip2"
  top: "ip2"
}
layer {
  name: "loss"
  type: "SoftmaxWithLoss"
  bottom: "ip2"
  bottom: "label"
  top: "loss"
}
I0428 19:55:57.054435 28310 layer_factory.hpp:77] Creating layer mnist
I0428 19:55:57.054514 28310 db_lmdb.cpp:35] Opened lmdb examples/mnist/mnist_train_lmdb
I0428 19:55:57.054533 28310 net.cpp:86] Creating Layer mnist
I0428 19:55:57.054539 28310 net.cpp:382] mnist -> data
I0428 19:55:57.054558 28310 net.cpp:382] mnist -> label
I0428 19:55:57.055577 28310 data_layer.cpp:45] output data size: 64,1,28,28
I0428 19:55:57.057737 28310 net.cpp:124] Setting up mnist
I0428 19:55:57.057785 28310 net.cpp:131] Top shape: 64 1 28 28 (50176)
I0428 19:55:57.057791 28310 net.cpp:131] Top shape: 64 (64)
I0428 19:55:57.057793 28310 net.cpp:139] Memory required for data: 200960
I0428 19:55:57.057799 28310 layer_factory.hpp:77] Creating layer conv0
I0428 19:55:57.057813 28310 net.cpp:86] Creating Layer conv0
I0428 19:55:57.057818 28310 net.cpp:408] conv0 <- data
I0428 19:55:57.057828 28310 net.cpp:382] conv0 -> conv0
I0428 19:55:57.282341 28310 net.cpp:124] Setting up conv0
I0428 19:55:57.282366 28310 net.cpp:131] Top shape: 64 10 24 24 (368640)
I0428 19:55:57.282369 28310 net.cpp:139] Memory required for data: 1675520
I0428 19:55:57.282400 28310 layer_factory.hpp:77] Creating layer pool0
I0428 19:55:57.282413 28310 net.cpp:86] Creating Layer pool0
I0428 19:55:57.282418 28310 net.cpp:408] pool0 <- conv0
I0428 19:55:57.282423 28310 net.cpp:382] pool0 -> pool0
I0428 19:55:57.282480 28310 net.cpp:124] Setting up pool0
I0428 19:55:57.282487 28310 net.cpp:131] Top shape: 64 10 12 12 (92160)
I0428 19:55:57.282491 28310 net.cpp:139] Memory required for data: 2044160
I0428 19:55:57.282495 28310 layer_factory.hpp:77] Creating layer conv1
I0428 19:55:57.282505 28310 net.cpp:86] Creating Layer conv1
I0428 19:55:57.282510 28310 net.cpp:408] conv1 <- pool0
I0428 19:55:57.282529 28310 net.cpp:382] conv1 -> conv1
I0428 19:55:57.284428 28310 net.cpp:124] Setting up conv1
I0428 19:55:57.284442 28310 net.cpp:131] Top shape: 64 2 8 8 (8192)
I0428 19:55:57.284446 28310 net.cpp:139] Memory required for data: 2076928
I0428 19:55:57.284454 28310 layer_factory.hpp:77] Creating layer pool1
I0428 19:55:57.284461 28310 net.cpp:86] Creating Layer pool1
I0428 19:55:57.284466 28310 net.cpp:408] pool1 <- conv1
I0428 19:55:57.284469 28310 net.cpp:382] pool1 -> pool1
I0428 19:55:57.284505 28310 net.cpp:124] Setting up pool1
I0428 19:55:57.284512 28310 net.cpp:131] Top shape: 64 2 4 4 (2048)
I0428 19:55:57.284515 28310 net.cpp:139] Memory required for data: 2085120
I0428 19:55:57.284518 28310 layer_factory.hpp:77] Creating layer ip1
I0428 19:55:57.284525 28310 net.cpp:86] Creating Layer ip1
I0428 19:55:57.284533 28310 net.cpp:408] ip1 <- pool1
I0428 19:55:57.284553 28310 net.cpp:382] ip1 -> ip1
I0428 19:55:57.284646 28310 net.cpp:124] Setting up ip1
I0428 19:55:57.284652 28310 net.cpp:131] Top shape: 64 10 (640)
I0428 19:55:57.284656 28310 net.cpp:139] Memory required for data: 2087680
I0428 19:55:57.284662 28310 layer_factory.hpp:77] Creating layer relu1
I0428 19:55:57.284667 28310 net.cpp:86] Creating Layer relu1
I0428 19:55:57.284672 28310 net.cpp:408] relu1 <- ip1
I0428 19:55:57.284675 28310 net.cpp:369] relu1 -> ip1 (in-place)
I0428 19:55:57.284858 28310 net.cpp:124] Setting up relu1
I0428 19:55:57.284883 28310 net.cpp:131] Top shape: 64 10 (640)
I0428 19:55:57.284886 28310 net.cpp:139] Memory required for data: 2090240
I0428 19:55:57.284890 28310 layer_factory.hpp:77] Creating layer ip2
I0428 19:55:57.284896 28310 net.cpp:86] Creating Layer ip2
I0428 19:55:57.284900 28310 net.cpp:408] ip2 <- ip1
I0428 19:55:57.284905 28310 net.cpp:382] ip2 -> ip2
I0428 19:55:57.285034 28310 net.cpp:124] Setting up ip2
I0428 19:55:57.285042 28310 net.cpp:131] Top shape: 64 10 (640)
I0428 19:55:57.285044 28310 net.cpp:139] Memory required for data: 2092800
I0428 19:55:57.285050 28310 layer_factory.hpp:77] Creating layer relu2
I0428 19:55:57.285056 28310 net.cpp:86] Creating Layer relu2
I0428 19:55:57.285075 28310 net.cpp:408] relu2 <- ip2
I0428 19:55:57.285080 28310 net.cpp:369] relu2 -> ip2 (in-place)
I0428 19:55:57.285913 28310 net.cpp:124] Setting up relu2
I0428 19:55:57.285924 28310 net.cpp:131] Top shape: 64 10 (640)
I0428 19:55:57.285928 28310 net.cpp:139] Memory required for data: 2095360
I0428 19:55:57.285946 28310 layer_factory.hpp:77] Creating layer loss
I0428 19:55:57.285953 28310 net.cpp:86] Creating Layer loss
I0428 19:55:57.285955 28310 net.cpp:408] loss <- ip2
I0428 19:55:57.285960 28310 net.cpp:408] loss <- label
I0428 19:55:57.285965 28310 net.cpp:382] loss -> loss
I0428 19:55:57.285984 28310 layer_factory.hpp:77] Creating layer loss
…
I0428 19:55:57.286622 28310 solver.cpp:173] Creating test net (#0) specified by net file: ECE595/mnist/train_test/var_everything2/lenet_train_test744.prototxt
I0428 19:55:57.286646 28310 net.cpp:296] The NetState phase (1) differed from the phase (0) specified by a rule in layer mnist
I0428 19:55:57.286730 28310 net.cpp:53] Initializing net from parameters: 
name: "LeNet"
state {
  phase: TEST
}
layer {
  name: "mnist"
  type: "Data"
  top: "data"
  top: "label"
  include {
    phase: TEST
  }
  transform_param {
    scale: 0.00390625
  }
  data_param {
    source: "examples/mnist/mnist_test_lmdb"
    batch_size: 100
    backend: LMDB
  }
}
layer {
  name: "conv0"
  type: "Convolution"
  bottom: "data"
  top: "conv0"
  param {
    lr_mult: 1
  }
  param {
    lr_mult: 2
  }
  convolution_param {
    num_output: 10
    kernel_size: 5
    stride: 1
    weight_filler {
      type: "xavier"
    }
    bias_filler {
      type: "constant"
    }
  }
}
layer {
  name: "pool0"
  type: "Pooling"
  bottom: "conv0"
  top: "pool0"
  pooling_param {
    pool: MAX
    kernel_size: 2
    stride: 2
  }
}
layer {
  name: "conv1"
  type: "Convolution"
  bottom: "pool0"
  top: "conv1"
  param {
    lr_mult: 1
  }
  param {
    lr_mult: 2
  }
  convolution_param {
    num_output: 2
    kernel_size: 5
    stride: 1
    weight_filler {
      type: "xavier"
    }
    bias_filler {
      type: "constant"
    }
  }
}
layer {
  name: "pool1"
  type: "Pooling"
  bottom: "conv1"
  top: "pool1"
  pooling_param {
    pool: MAX
    kernel_size: 2
    stride: 2
  }
}
layer {
  name: "ip1"
  type: "InnerProduct"
  bottom: "pool1"
  top: "ip1"
  param {
    lr_mult: 1
  }
  param {
    lr_mult: 2
  }
  inner_product_param {
    num_output: 10
    weight_filler {
      type: "xavier"
    }
    bias_filler {
      type: "constant"
    }
  }
}
layer {
  name: "relu1"
  type: "ReLU"
  bottom: "ip1"
  top: "ip1"
}
layer {
  name: "ip2"
  type: "InnerProduct"
  bottom: "ip1"
  top: "ip2"
  param {
    lr_mult: 1
  }
  param {
    lr_mult: 2
  }
  inner_product_param {
    num_output: 10
    weight_filler {
      type: "xavier"
    }
    bias_filler {
      type: "constant"
    }
  }
}
layer {
  name: "relu2"
  type: "ReLU"
  bottom: "ip2"
  top: "ip2"
}
layer {
  name: "accuracy"
  type: "Accuracy"
  bottom: "ip2"
  bottom: "label"
  top: "accuracy"
  include {
    phase: TEST
  }
}
layer {
  name: "loss"
  type: "SoftmaxWithLoss"
  bottom: "ip2"
  bottom: "label"
  top: "loss"
}
I0428 19:55:57.286788 28310 layer_factory.hpp:77] Creating layer mnist
I0428 19:55:57.286847 28310 db_lmdb.cpp:35] Opened lmdb examples/mnist/mnist_test_lmdb
I0428 19:55:57.286860 28310 net.cpp:86] Creating Layer mnist
I0428 19:55:57.286865 28310 net.cpp:382] mnist -> data
I0428 19:55:57.286888 28310 net.cpp:382] mnist -> label
I0428 19:55:57.286993 28310 data_layer.cpp:45] output data size: 100,1,28,28
I0428 19:55:57.289309 28310 net.cpp:124] Setting up mnist
I0428 19:55:57.289353 28310 net.cpp:131] Top shape: 100 1 28 28 (78400)
I0428 19:55:57.289358 28310 net.cpp:131] Top shape: 100 (100)
I0428 19:55:57.289361 28310 net.cpp:139] Memory required for data: 314000
I0428 19:55:57.289366 28310 layer_factory.hpp:77] Creating layer label_mnist_1_split
I0428 19:55:57.289400 28310 net.cpp:86] Creating Layer label_mnist_1_split
I0428 19:55:57.289405 28310 net.cpp:408] label_mnist_1_split <- label
I0428 19:55:57.289410 28310 net.cpp:382] label_mnist_1_split -> label_mnist_1_split_0
I0428 19:55:57.289417 28310 net.cpp:382] label_mnist_1_split -> label_mnist_1_split_1
I0428 19:55:57.289460 28310 net.cpp:124] Setting up label_mnist_1_split
I0428 19:55:57.289479 28310 net.cpp:131] Top shape: 100 (100)
I0428 19:55:57.289482 28310 net.cpp:131] Top shape: 100 (100)
I0428 19:55:57.289485 28310 net.cpp:139] Memory required for data: 314800
I0428 19:55:57.289489 28310 layer_factory.hpp:77] Creating layer conv0
I0428 19:55:57.289497 28310 net.cpp:86] Creating Layer conv0
I0428 19:55:57.289500 28310 net.cpp:408] conv0 <- data
I0428 19:55:57.289505 28310 net.cpp:382] conv0 -> conv0
I0428 19:55:57.291297 28310 net.cpp:124] Setting up conv0
I0428 19:55:57.291326 28310 net.cpp:131] Top shape: 100 10 24 24 (576000)
I0428 19:55:57.291329 28310 net.cpp:139] Memory required for data: 2618800
I0428 19:55:57.291338 28310 layer_factory.hpp:77] Creating layer pool0
I0428 19:55:57.291344 28310 net.cpp:86] Creating Layer pool0
I0428 19:55:57.291347 28310 net.cpp:408] pool0 <- conv0
I0428 19:55:57.291352 28310 net.cpp:382] pool0 -> pool0
I0428 19:55:57.291385 28310 net.cpp:124] Setting up pool0
I0428 19:55:57.291390 28310 net.cpp:131] Top shape: 100 10 12 12 (144000)
I0428 19:55:57.291393 28310 net.cpp:139] Memory required for data: 3194800
I0428 19:55:57.291396 28310 layer_factory.hpp:77] Creating layer conv1
I0428 19:55:57.291404 28310 net.cpp:86] Creating Layer conv1
I0428 19:55:57.291407 28310 net.cpp:408] conv1 <- pool0
I0428 19:55:57.291411 28310 net.cpp:382] conv1 -> conv1
I0428 19:55:57.293635 28310 net.cpp:124] Setting up conv1
I0428 19:55:57.293664 28310 net.cpp:131] Top shape: 100 2 8 8 (12800)
I0428 19:55:57.293669 28310 net.cpp:139] Memory required for data: 3246000
I0428 19:55:57.293678 28310 layer_factory.hpp:77] Creating layer pool1
I0428 19:55:57.293686 28310 net.cpp:86] Creating Layer pool1
I0428 19:55:57.293690 28310 net.cpp:408] pool1 <- conv1
I0428 19:55:57.293695 28310 net.cpp:382] pool1 -> pool1
I0428 19:55:57.293754 28310 net.cpp:124] Setting up pool1
I0428 19:55:57.293761 28310 net.cpp:131] Top shape: 100 2 4 4 (3200)
I0428 19:55:57.293763 28310 net.cpp:139] Memory required for data: 3258800
I0428 19:55:57.293774 28310 layer_factory.hpp:77] Creating layer ip1
I0428 19:55:57.293781 28310 net.cpp:86] Creating Layer ip1
I0428 19:55:57.293786 28310 net.cpp:408] ip1 <- pool1
I0428 19:55:57.293790 28310 net.cpp:382] ip1 -> ip1
I0428 19:55:57.293916 28310 net.cpp:124] Setting up ip1
I0428 19:55:57.293939 28310 net.cpp:131] Top shape: 100 10 (1000)
I0428 19:55:57.293942 28310 net.cpp:139] Memory required for data: 3262800
I0428 19:55:57.293949 28310 layer_factory.hpp:77] Creating layer relu1
I0428 19:55:57.293956 28310 net.cpp:86] Creating Layer relu1
I0428 19:55:57.293958 28310 net.cpp:408] relu1 <- ip1
I0428 19:55:57.293963 28310 net.cpp:369] relu1 -> ip1 (in-place)
I0428 19:55:57.294246 28310 net.cpp:124] Setting up relu1
I0428 19:55:57.294256 28310 net.cpp:131] Top shape: 100 10 (1000)
I0428 19:55:57.294260 28310 net.cpp:139] Memory required for data: 3266800
I0428 19:55:57.294262 28310 layer_factory.hpp:77] Creating layer ip2
I0428 19:55:57.294270 28310 net.cpp:86] Creating Layer ip2
I0428 19:55:57.294273 28310 net.cpp:408] ip2 <- ip1
I0428 19:55:57.294279 28310 net.cpp:382] ip2 -> ip2
I0428 19:55:57.294392 28310 net.cpp:124] Setting up ip2
I0428 19:55:57.294399 28310 net.cpp:131] Top shape: 100 10 (1000)
I0428 19:55:57.294402 28310 net.cpp:139] Memory required for data: 3270800
I0428 19:55:57.294407 28310 layer_factory.hpp:77] Creating layer relu2
I0428 19:55:57.294414 28310 net.cpp:86] Creating Layer relu2
I0428 19:55:57.294416 28310 net.cpp:408] relu2 <- ip2
I0428 19:55:57.294420 28310 net.cpp:369] relu2 -> ip2 (in-place)
I0428 19:55:57.294579 28310 net.cpp:124] Setting up relu2
I0428 19:55:57.294587 28310 net.cpp:131] Top shape: 100 10 (1000)
I0428 19:55:57.294590 28310 net.cpp:139] Memory required for data: 3274800
I0428 19:55:57.294594 28310 layer_factory.hpp:77] Creating layer ip2_relu2_0_split
I0428 19:55:57.294600 28310 net.cpp:86] Creating Layer ip2_relu2_0_split
I0428 19:55:57.294602 28310 net.cpp:408] ip2_relu2_0_split <- ip2
I0428 19:55:57.294606 28310 net.cpp:382] ip2_relu2_0_split -> ip2_relu2_0_split_0
I0428 19:55:57.294623 28310 net.cpp:382] ip2_relu2_0_split -> ip2_relu2_0_split_1
I0428 19:55:57.294658 28310 net.cpp:124] Setting up ip2_relu2_0_split
I0428 19:55:57.294664 28310 net.cpp:131] Top shape: 100 10 (1000)
I0428 19:55:57.294668 28310 net.cpp:131] Top shape: 100 10 (1000)
I0428 19:55:57.294672 28310 net.cpp:139] Memory required for data: 3282800
I0428 19:55:57.294674 28310 layer_factory.hpp:77] Creating layer accuracy
I0428 19:55:57.294680 28310 net.cpp:86] Creating Layer accuracy
I0428 19:55:57.294683 28310 net.cpp:408] accuracy <- ip2_relu2_0_split_0
I0428 19:55:57.294687 28310 net.cpp:408] accuracy <- label_mnist_1_split_0
I0428 19:55:57.294692 28310 net.cpp:382] accuracy -> accuracy
…
