…
I0428 20:17:20.664496   848 net.cpp:296] The NetState phase (0) differed from the phase (1) specified by a rule in layer mnist
I0428 20:17:20.664515   848 net.cpp:296] The NetState phase (0) differed from the phase (1) specified by a rule in layer accuracy
I0428 20:17:20.664604   848 net.cpp:53] Initializing net from parameters: 
name: "LeNet"
state {
  phase: TRAIN
  level: 0
  stage: ""
}
layer {
  name: "mnist"
  type: "Data"
  top: "data"
  top: "label"
  include {
    phase: TRAIN
  }
  transform_param {
    scale: 0.00390625
  }
  data_param {
    source: "examples/mnist/mnist_train_lmdb"
    batch_size: 64
    backend: LMDB
  }
}
layer {
  name: "conv0"
  type: "Convolution"
  bottom: "data"
  top: "conv0"
  param {
    lr_mult: 1
  }
  param {
    lr_mult: 2
  }
  convolution_param {
    num_output: 50
    kernel_size: 5
    stride: 1
    weight_filler {
      type: "xavier"
    }
    bias_filler {
      type: "constant"
    }
  }
}
layer {
  name: "pool0"
  type: "Pooling"
  bottom: "conv0"
  top: "pool0"
  pooling_param {
    pool: MAX
    kernel_size: 2
    stride: 2
  }
}
layer {
  name: "conv1"
  type: "Convolution"
  bottom: "pool0"
  top: "conv1"
  param {
    lr_mult: 1
  }
  param {
    lr_mult: 2
  }
  convolution_param {
    num_output: 10
    kernel_size: 5
    stride: 1
    weight_filler {
      type: "xavier"
    }
    bias_filler {
      type: "constant"
    }
  }
}
layer {
  name: "pool1"
  type: "Pooling"
  bottom: "conv1"
  top: "pool1"
  pooling_param {
    pool: MAX
    kernel_size: 2
    stride: 2
  }
}
layer {
  name: "ip1"
  type: "InnerProduct"
  bottom: "pool1"
  top: "ip1"
  param {
    lr_mult: 1
  }
  param {
    lr_mult: 2
  }
  inner_product_param {
    num_output: 10
    weight_filler {
      type: "xavier"
    }
    bias_filler {
      type: "constant"
    }
  }
}
layer {
  name: "relu1"
  type: "ReLU"
  bottom: "ip1"
  top: "ip1"
}
layer {
  name: "ip2"
  type: "InnerProduct"
  bottom: "ip1"
  top: "ip2"
  param {
    lr_mult: 1
  }
  param {
    lr_mult: 2
  }
  inner_product_param {
    num_output: 10
    weight_filler {
      type: "xavier"
    }
    bias_filler {
      type: "constant"
    }
  }
}
layer {
  name: "relu2"
  type: "ReLU"
  bottom: "ip2"
  top: "ip2"
}
layer {
  name: "loss"
  type: "SoftmaxWithLoss"
  bottom: "ip2"
  bottom: "label"
  top: "loss"
}
I0428 20:17:20.664680   848 layer_factory.hpp:77] Creating layer mnist
I0428 20:17:20.664779   848 db_lmdb.cpp:35] Opened lmdb examples/mnist/mnist_train_lmdb
I0428 20:17:20.664804   848 net.cpp:86] Creating Layer mnist
I0428 20:17:20.664820   848 net.cpp:382] mnist -> data
I0428 20:17:20.664844   848 net.cpp:382] mnist -> label
I0428 20:17:20.665938   848 data_layer.cpp:45] output data size: 64,1,28,28
I0428 20:17:20.668392   848 net.cpp:124] Setting up mnist
I0428 20:17:20.668431   848 net.cpp:131] Top shape: 64 1 28 28 (50176)
I0428 20:17:20.668438   848 net.cpp:131] Top shape: 64 (64)
I0428 20:17:20.668442   848 net.cpp:139] Memory required for data: 200960
I0428 20:17:20.668449   848 layer_factory.hpp:77] Creating layer conv0
I0428 20:17:20.668467   848 net.cpp:86] Creating Layer conv0
I0428 20:17:20.668473   848 net.cpp:408] conv0 <- data
I0428 20:17:20.668483   848 net.cpp:382] conv0 -> conv0
I0428 20:17:20.949924   848 net.cpp:124] Setting up conv0
I0428 20:17:20.949967   848 net.cpp:131] Top shape: 64 50 24 24 (1843200)
I0428 20:17:20.949972   848 net.cpp:139] Memory required for data: 7573760
I0428 20:17:20.950018   848 layer_factory.hpp:77] Creating layer pool0
I0428 20:17:20.950032   848 net.cpp:86] Creating Layer pool0
I0428 20:17:20.950037   848 net.cpp:408] pool0 <- conv0
I0428 20:17:20.950042   848 net.cpp:382] pool0 -> pool0
I0428 20:17:20.950094   848 net.cpp:124] Setting up pool0
I0428 20:17:20.950101   848 net.cpp:131] Top shape: 64 50 12 12 (460800)
I0428 20:17:20.950104   848 net.cpp:139] Memory required for data: 9416960
I0428 20:17:20.950108   848 layer_factory.hpp:77] Creating layer conv1
I0428 20:17:20.950119   848 net.cpp:86] Creating Layer conv1
I0428 20:17:20.950124   848 net.cpp:408] conv1 <- pool0
I0428 20:17:20.950146   848 net.cpp:382] conv1 -> conv1
I0428 20:17:20.953182   848 net.cpp:124] Setting up conv1
I0428 20:17:20.953199   848 net.cpp:131] Top shape: 64 10 8 8 (40960)
I0428 20:17:20.953202   848 net.cpp:139] Memory required for data: 9580800
I0428 20:17:20.953212   848 layer_factory.hpp:77] Creating layer pool1
I0428 20:17:20.953219   848 net.cpp:86] Creating Layer pool1
I0428 20:17:20.953222   848 net.cpp:408] pool1 <- conv1
I0428 20:17:20.953228   848 net.cpp:382] pool1 -> pool1
I0428 20:17:20.953280   848 net.cpp:124] Setting up pool1
I0428 20:17:20.953285   848 net.cpp:131] Top shape: 64 10 4 4 (10240)
I0428 20:17:20.953289   848 net.cpp:139] Memory required for data: 9621760
I0428 20:17:20.953291   848 layer_factory.hpp:77] Creating layer ip1
I0428 20:17:20.953303   848 net.cpp:86] Creating Layer ip1
I0428 20:17:20.953306   848 net.cpp:408] ip1 <- pool1
I0428 20:17:20.953310   848 net.cpp:382] ip1 -> ip1
I0428 20:17:20.953418   848 net.cpp:124] Setting up ip1
I0428 20:17:20.953443   848 net.cpp:131] Top shape: 64 10 (640)
I0428 20:17:20.953446   848 net.cpp:139] Memory required for data: 9624320
I0428 20:17:20.953454   848 layer_factory.hpp:77] Creating layer relu1
I0428 20:17:20.953460   848 net.cpp:86] Creating Layer relu1
I0428 20:17:20.953464   848 net.cpp:408] relu1 <- ip1
I0428 20:17:20.953469   848 net.cpp:369] relu1 -> ip1 (in-place)
I0428 20:17:20.953642   848 net.cpp:124] Setting up relu1
I0428 20:17:20.953654   848 net.cpp:131] Top shape: 64 10 (640)
I0428 20:17:20.953656   848 net.cpp:139] Memory required for data: 9626880
I0428 20:17:20.953660   848 layer_factory.hpp:77] Creating layer ip2
I0428 20:17:20.953665   848 net.cpp:86] Creating Layer ip2
I0428 20:17:20.953668   848 net.cpp:408] ip2 <- ip1
I0428 20:17:20.953675   848 net.cpp:382] ip2 -> ip2
I0428 20:17:20.953788   848 net.cpp:124] Setting up ip2
I0428 20:17:20.953795   848 net.cpp:131] Top shape: 64 10 (640)
I0428 20:17:20.953797   848 net.cpp:139] Memory required for data: 9629440
I0428 20:17:20.953804   848 layer_factory.hpp:77] Creating layer relu2
I0428 20:17:20.953809   848 net.cpp:86] Creating Layer relu2
I0428 20:17:20.953814   848 net.cpp:408] relu2 <- ip2
I0428 20:17:20.953819   848 net.cpp:369] relu2 -> ip2 (in-place)
I0428 20:17:20.954569   848 net.cpp:124] Setting up relu2
I0428 20:17:20.954582   848 net.cpp:131] Top shape: 64 10 (640)
I0428 20:17:20.954602   848 net.cpp:139] Memory required for data: 9632000
I0428 20:17:20.954605   848 layer_factory.hpp:77] Creating layer loss
I0428 20:17:20.954612   848 net.cpp:86] Creating Layer loss
I0428 20:17:20.954617   848 net.cpp:408] loss <- ip2
I0428 20:17:20.954622   848 net.cpp:408] loss <- label
I0428 20:17:20.954628   848 net.cpp:382] loss -> loss
I0428 20:17:20.954648   848 layer_factory.hpp:77] Creating layer loss
…
I0428 20:17:20.955299   848 solver.cpp:173] Creating test net (#0) specified by net file: ECE595/mnist/train_test/var_everything2/lenet_train_test1292.prototxt
I0428 20:17:20.955325   848 net.cpp:296] The NetState phase (1) differed from the phase (0) specified by a rule in layer mnist
I0428 20:17:20.955407   848 net.cpp:53] Initializing net from parameters: 
name: "LeNet"
state {
  phase: TEST
}
layer {
  name: "mnist"
  type: "Data"
  top: "data"
  top: "label"
  include {
    phase: TEST
  }
  transform_param {
    scale: 0.00390625
  }
  data_param {
    source: "examples/mnist/mnist_test_lmdb"
    batch_size: 100
    backend: LMDB
  }
}
layer {
  name: "conv0"
  type: "Convolution"
  bottom: "data"
  top: "conv0"
  param {
    lr_mult: 1
  }
  param {
    lr_mult: 2
  }
  convolution_param {
    num_output: 50
    kernel_size: 5
    stride: 1
    weight_filler {
      type: "xavier"
    }
    bias_filler {
      type: "constant"
    }
  }
}
layer {
  name: "pool0"
  type: "Pooling"
  bottom: "conv0"
  top: "pool0"
  pooling_param {
    pool: MAX
    kernel_size: 2
    stride: 2
  }
}
layer {
  name: "conv1"
  type: "Convolution"
  bottom: "pool0"
  top: "conv1"
  param {
    lr_mult: 1
  }
  param {
    lr_mult: 2
  }
  convolution_param {
    num_output: 10
    kernel_size: 5
    stride: 1
    weight_filler {
      type: "xavier"
    }
    bias_filler {
      type: "constant"
    }
  }
}
layer {
  name: "pool1"
  type: "Pooling"
  bottom: "conv1"
  top: "pool1"
  pooling_param {
    pool: MAX
    kernel_size: 2
    stride: 2
  }
}
layer {
  name: "ip1"
  type: "InnerProduct"
  bottom: "pool1"
  top: "ip1"
  param {
    lr_mult: 1
  }
  param {
    lr_mult: 2
  }
  inner_product_param {
    num_output: 10
    weight_filler {
      type: "xavier"
    }
    bias_filler {
      type: "constant"
    }
  }
}
layer {
  name: "relu1"
  type: "ReLU"
  bottom: "ip1"
  top: "ip1"
}
layer {
  name: "ip2"
  type: "InnerProduct"
  bottom: "ip1"
  top: "ip2"
  param {
    lr_mult: 1
  }
  param {
    lr_mult: 2
  }
  inner_product_param {
    num_output: 10
    weight_filler {
      type: "xavier"
    }
    bias_filler {
      type: "constant"
    }
  }
}
layer {
  name: "relu2"
  type: "ReLU"
  bottom: "ip2"
  top: "ip2"
}
layer {
  name: "accuracy"
  type: "Accuracy"
  bottom: "ip2"
  bottom: "label"
  top: "accuracy"
  include {
    phase: TEST
  }
}
layer {
  name: "loss"
  type: "SoftmaxWithLoss"
  bottom: "ip2"
  bottom: "label"
  top: "loss"
}
I0428 20:17:20.955487   848 layer_factory.hpp:77] Creating layer mnist
I0428 20:17:20.955531   848 db_lmdb.cpp:35] Opened lmdb examples/mnist/mnist_test_lmdb
I0428 20:17:20.955543   848 net.cpp:86] Creating Layer mnist
I0428 20:17:20.955549   848 net.cpp:382] mnist -> data
I0428 20:17:20.955574   848 net.cpp:382] mnist -> label
I0428 20:17:20.955689   848 data_layer.cpp:45] output data size: 100,1,28,28
I0428 20:17:20.957795   848 net.cpp:124] Setting up mnist
I0428 20:17:20.957823   848 net.cpp:131] Top shape: 100 1 28 28 (78400)
I0428 20:17:20.957828   848 net.cpp:131] Top shape: 100 (100)
I0428 20:17:20.957846   848 net.cpp:139] Memory required for data: 314000
I0428 20:17:20.957849   848 layer_factory.hpp:77] Creating layer label_mnist_1_split
I0428 20:17:20.957861   848 net.cpp:86] Creating Layer label_mnist_1_split
I0428 20:17:20.957865   848 net.cpp:408] label_mnist_1_split <- label
I0428 20:17:20.957870   848 net.cpp:382] label_mnist_1_split -> label_mnist_1_split_0
I0428 20:17:20.957878   848 net.cpp:382] label_mnist_1_split -> label_mnist_1_split_1
I0428 20:17:20.957991   848 net.cpp:124] Setting up label_mnist_1_split
I0428 20:17:20.958000   848 net.cpp:131] Top shape: 100 (100)
I0428 20:17:20.958020   848 net.cpp:131] Top shape: 100 (100)
I0428 20:17:20.958024   848 net.cpp:139] Memory required for data: 314800
I0428 20:17:20.958026   848 layer_factory.hpp:77] Creating layer conv0
I0428 20:17:20.958036   848 net.cpp:86] Creating Layer conv0
I0428 20:17:20.958041   848 net.cpp:408] conv0 <- data
I0428 20:17:20.958048   848 net.cpp:382] conv0 -> conv0
I0428 20:17:20.959808   848 net.cpp:124] Setting up conv0
I0428 20:17:20.959838   848 net.cpp:131] Top shape: 100 50 24 24 (2880000)
I0428 20:17:20.959842   848 net.cpp:139] Memory required for data: 11834800
I0428 20:17:20.959866   848 layer_factory.hpp:77] Creating layer pool0
I0428 20:17:20.959872   848 net.cpp:86] Creating Layer pool0
I0428 20:17:20.959875   848 net.cpp:408] pool0 <- conv0
I0428 20:17:20.959879   848 net.cpp:382] pool0 -> pool0
I0428 20:17:20.959915   848 net.cpp:124] Setting up pool0
I0428 20:17:20.959920   848 net.cpp:131] Top shape: 100 50 12 12 (720000)
I0428 20:17:20.959923   848 net.cpp:139] Memory required for data: 14714800
I0428 20:17:20.959925   848 layer_factory.hpp:77] Creating layer conv1
I0428 20:17:20.959936   848 net.cpp:86] Creating Layer conv1
I0428 20:17:20.959939   848 net.cpp:408] conv1 <- pool0
I0428 20:17:20.959944   848 net.cpp:382] conv1 -> conv1
I0428 20:17:20.961604   848 net.cpp:124] Setting up conv1
I0428 20:17:20.961632   848 net.cpp:131] Top shape: 100 10 8 8 (64000)
I0428 20:17:20.961652   848 net.cpp:139] Memory required for data: 14970800
I0428 20:17:20.961663   848 layer_factory.hpp:77] Creating layer pool1
I0428 20:17:20.961670   848 net.cpp:86] Creating Layer pool1
I0428 20:17:20.961673   848 net.cpp:408] pool1 <- conv1
I0428 20:17:20.961680   848 net.cpp:382] pool1 -> pool1
I0428 20:17:20.961719   848 net.cpp:124] Setting up pool1
I0428 20:17:20.961725   848 net.cpp:131] Top shape: 100 10 4 4 (16000)
I0428 20:17:20.961729   848 net.cpp:139] Memory required for data: 15034800
I0428 20:17:20.961731   848 layer_factory.hpp:77] Creating layer ip1
I0428 20:17:20.961737   848 net.cpp:86] Creating Layer ip1
I0428 20:17:20.961740   848 net.cpp:408] ip1 <- pool1
I0428 20:17:20.961746   848 net.cpp:382] ip1 -> ip1
I0428 20:17:20.961885   848 net.cpp:124] Setting up ip1
I0428 20:17:20.961894   848 net.cpp:131] Top shape: 100 10 (1000)
I0428 20:17:20.961896   848 net.cpp:139] Memory required for data: 15038800
I0428 20:17:20.961905   848 layer_factory.hpp:77] Creating layer relu1
I0428 20:17:20.961910   848 net.cpp:86] Creating Layer relu1
I0428 20:17:20.961912   848 net.cpp:408] relu1 <- ip1
I0428 20:17:20.961923   848 net.cpp:369] relu1 -> ip1 (in-place)
I0428 20:17:20.962096   848 net.cpp:124] Setting up relu1
I0428 20:17:20.962106   848 net.cpp:131] Top shape: 100 10 (1000)
I0428 20:17:20.962110   848 net.cpp:139] Memory required for data: 15042800
I0428 20:17:20.962112   848 layer_factory.hpp:77] Creating layer ip2
I0428 20:17:20.962121   848 net.cpp:86] Creating Layer ip2
I0428 20:17:20.962123   848 net.cpp:408] ip2 <- ip1
I0428 20:17:20.962139   848 net.cpp:382] ip2 -> ip2
I0428 20:17:20.962260   848 net.cpp:124] Setting up ip2
I0428 20:17:20.962266   848 net.cpp:131] Top shape: 100 10 (1000)
I0428 20:17:20.962270   848 net.cpp:139] Memory required for data: 15046800
I0428 20:17:20.962275   848 layer_factory.hpp:77] Creating layer relu2
I0428 20:17:20.962280   848 net.cpp:86] Creating Layer relu2
I0428 20:17:20.962285   848 net.cpp:408] relu2 <- ip2
I0428 20:17:20.962290   848 net.cpp:369] relu2 -> ip2 (in-place)
I0428 20:17:20.962471   848 net.cpp:124] Setting up relu2
I0428 20:17:20.962481   848 net.cpp:131] Top shape: 100 10 (1000)
I0428 20:17:20.962483   848 net.cpp:139] Memory required for data: 15050800
I0428 20:17:20.962486   848 layer_factory.hpp:77] Creating layer ip2_relu2_0_split
I0428 20:17:20.962491   848 net.cpp:86] Creating Layer ip2_relu2_0_split
I0428 20:17:20.962494   848 net.cpp:408] ip2_relu2_0_split <- ip2
I0428 20:17:20.962502   848 net.cpp:382] ip2_relu2_0_split -> ip2_relu2_0_split_0
I0428 20:17:20.962532   848 net.cpp:382] ip2_relu2_0_split -> ip2_relu2_0_split_1
I0428 20:17:20.962599   848 net.cpp:124] Setting up ip2_relu2_0_split
I0428 20:17:20.962628   848 net.cpp:131] Top shape: 100 10 (1000)
I0428 20:17:20.962632   848 net.cpp:131] Top shape: 100 10 (1000)
I0428 20:17:20.962635   848 net.cpp:139] Memory required for data: 15058800
I0428 20:17:20.962648   848 layer_factory.hpp:77] Creating layer accuracy
I0428 20:17:20.962656   848 net.cpp:86] Creating Layer accuracy
I0428 20:17:20.962663   848 net.cpp:408] accuracy <- ip2_relu2_0_split_0
I0428 20:17:20.962668   848 net.cpp:408] accuracy <- label_mnist_1_split_0
I0428 20:17:20.962680   848 net.cpp:382] accuracy -> accuracy
…
