…
I0428 20:16:58.246974   767 net.cpp:296] The NetState phase (0) differed from the phase (1) specified by a rule in layer mnist
I0428 20:16:58.246994   767 net.cpp:296] The NetState phase (0) differed from the phase (1) specified by a rule in layer accuracy
I0428 20:16:58.247095   767 net.cpp:53] Initializing net from parameters: 
name: "LeNet"
state {
  phase: TRAIN
  level: 0
  stage: ""
}
layer {
  name: "mnist"
  type: "Data"
  top: "data"
  top: "label"
  include {
    phase: TRAIN
  }
  transform_param {
    scale: 0.00390625
  }
  data_param {
    source: "examples/mnist/mnist_train_lmdb"
    batch_size: 64
    backend: LMDB
  }
}
layer {
  name: "conv0"
  type: "Convolution"
  bottom: "data"
  top: "conv0"
  param {
    lr_mult: 1
  }
  param {
    lr_mult: 2
  }
  convolution_param {
    num_output: 50
    kernel_size: 5
    stride: 1
    weight_filler {
      type: "xavier"
    }
    bias_filler {
      type: "constant"
    }
  }
}
layer {
  name: "pool0"
  type: "Pooling"
  bottom: "conv0"
  top: "pool0"
  pooling_param {
    pool: MAX
    kernel_size: 2
    stride: 2
  }
}
layer {
  name: "conv1"
  type: "Convolution"
  bottom: "pool0"
  top: "conv1"
  param {
    lr_mult: 1
  }
  param {
    lr_mult: 2
  }
  convolution_param {
    num_output: 5
    kernel_size: 5
    stride: 1
    weight_filler {
      type: "xavier"
    }
    bias_filler {
      type: "constant"
    }
  }
}
layer {
  name: "pool1"
  type: "Pooling"
  bottom: "conv1"
  top: "pool1"
  pooling_param {
    pool: MAX
    kernel_size: 2
    stride: 2
  }
}
layer {
  name: "ip1"
  type: "InnerProduct"
  bottom: "pool1"
  top: "ip1"
  param {
    lr_mult: 1
  }
  param {
    lr_mult: 2
  }
  inner_product_param {
    num_output: 50
    weight_filler {
      type: "xavier"
    }
    bias_filler {
      type: "constant"
    }
  }
}
layer {
  name: "relu1"
  type: "ReLU"
  bottom: "ip1"
  top: "ip1"
}
layer {
  name: "ip2"
  type: "InnerProduct"
  bottom: "ip1"
  top: "ip2"
  param {
    lr_mult: 1
  }
  param {
    lr_mult: 2
  }
  inner_product_param {
    num_output: 25
    weight_filler {
      type: "xavier"
    }
    bias_filler {
      type: "constant"
    }
  }
}
layer {
  name: "relu2"
  type: "ReLU"
  bottom: "ip2"
  top: "ip2"
}
layer {
  name: "ip3"
  type: "InnerProduct"
  bottom: "ip2"
  top: "ip3"
  param {
    lr_mult: 1
  }
  param {
    lr_mult: 2
  }
  inner_product_param {
    num_output: 10
    weight_filler {
      type: "xavier"
    }
    bias_filler {
      type: "constant"
    }
  }
}
layer {
  name: "relu3"
  type: "ReLU"
  bottom: "ip3"
  top: "ip3"
}
layer {
  name: "loss"
  type: "SoftmaxWithLoss"
  bottom: "ip3"
  bottom: "label"
  top: "loss"
}
I0428 20:16:58.247176   767 layer_factory.hpp:77] Creating layer mnist
I0428 20:16:58.247272   767 db_lmdb.cpp:35] Opened lmdb examples/mnist/mnist_train_lmdb
I0428 20:16:58.247295   767 net.cpp:86] Creating Layer mnist
I0428 20:16:58.247303   767 net.cpp:382] mnist -> data
I0428 20:16:58.247326   767 net.cpp:382] mnist -> label
I0428 20:16:58.248422   767 data_layer.cpp:45] output data size: 64,1,28,28
I0428 20:16:58.250883   767 net.cpp:124] Setting up mnist
I0428 20:16:58.250901   767 net.cpp:131] Top shape: 64 1 28 28 (50176)
I0428 20:16:58.250907   767 net.cpp:131] Top shape: 64 (64)
I0428 20:16:58.250911   767 net.cpp:139] Memory required for data: 200960
I0428 20:16:58.250918   767 layer_factory.hpp:77] Creating layer conv0
I0428 20:16:58.250937   767 net.cpp:86] Creating Layer conv0
I0428 20:16:58.250958   767 net.cpp:408] conv0 <- data
I0428 20:16:58.250970   767 net.cpp:382] conv0 -> conv0
I0428 20:16:58.533308   767 net.cpp:124] Setting up conv0
I0428 20:16:58.533334   767 net.cpp:131] Top shape: 64 50 24 24 (1843200)
I0428 20:16:58.533339   767 net.cpp:139] Memory required for data: 7573760
I0428 20:16:58.533354   767 layer_factory.hpp:77] Creating layer pool0
I0428 20:16:58.533366   767 net.cpp:86] Creating Layer pool0
I0428 20:16:58.533370   767 net.cpp:408] pool0 <- conv0
I0428 20:16:58.533375   767 net.cpp:382] pool0 -> pool0
I0428 20:16:58.533421   767 net.cpp:124] Setting up pool0
I0428 20:16:58.533427   767 net.cpp:131] Top shape: 64 50 12 12 (460800)
I0428 20:16:58.533429   767 net.cpp:139] Memory required for data: 9416960
I0428 20:16:58.533432   767 layer_factory.hpp:77] Creating layer conv1
I0428 20:16:58.533443   767 net.cpp:86] Creating Layer conv1
I0428 20:16:58.533447   767 net.cpp:408] conv1 <- pool0
I0428 20:16:58.533452   767 net.cpp:382] conv1 -> conv1
I0428 20:16:58.536291   767 net.cpp:124] Setting up conv1
I0428 20:16:58.536306   767 net.cpp:131] Top shape: 64 5 8 8 (20480)
I0428 20:16:58.536310   767 net.cpp:139] Memory required for data: 9498880
I0428 20:16:58.536319   767 layer_factory.hpp:77] Creating layer pool1
I0428 20:16:58.536326   767 net.cpp:86] Creating Layer pool1
I0428 20:16:58.536330   767 net.cpp:408] pool1 <- conv1
I0428 20:16:58.536335   767 net.cpp:382] pool1 -> pool1
I0428 20:16:58.536370   767 net.cpp:124] Setting up pool1
I0428 20:16:58.536376   767 net.cpp:131] Top shape: 64 5 4 4 (5120)
I0428 20:16:58.536379   767 net.cpp:139] Memory required for data: 9519360
I0428 20:16:58.536382   767 layer_factory.hpp:77] Creating layer ip1
I0428 20:16:58.536389   767 net.cpp:86] Creating Layer ip1
I0428 20:16:58.536392   767 net.cpp:408] ip1 <- pool1
I0428 20:16:58.536396   767 net.cpp:382] ip1 -> ip1
I0428 20:16:58.536514   767 net.cpp:124] Setting up ip1
I0428 20:16:58.536522   767 net.cpp:131] Top shape: 64 50 (3200)
I0428 20:16:58.536526   767 net.cpp:139] Memory required for data: 9532160
I0428 20:16:58.536533   767 layer_factory.hpp:77] Creating layer relu1
I0428 20:16:58.536538   767 net.cpp:86] Creating Layer relu1
I0428 20:16:58.536541   767 net.cpp:408] relu1 <- ip1
I0428 20:16:58.536546   767 net.cpp:369] relu1 -> ip1 (in-place)
I0428 20:16:58.536725   767 net.cpp:124] Setting up relu1
I0428 20:16:58.536736   767 net.cpp:131] Top shape: 64 50 (3200)
I0428 20:16:58.536738   767 net.cpp:139] Memory required for data: 9544960
I0428 20:16:58.536741   767 layer_factory.hpp:77] Creating layer ip2
I0428 20:16:58.536747   767 net.cpp:86] Creating Layer ip2
I0428 20:16:58.536751   767 net.cpp:408] ip2 <- ip1
I0428 20:16:58.536756   767 net.cpp:382] ip2 -> ip2
I0428 20:16:58.536926   767 net.cpp:124] Setting up ip2
I0428 20:16:58.536934   767 net.cpp:131] Top shape: 64 25 (1600)
I0428 20:16:58.536937   767 net.cpp:139] Memory required for data: 9551360
I0428 20:16:58.536958   767 layer_factory.hpp:77] Creating layer relu2
I0428 20:16:58.536965   767 net.cpp:86] Creating Layer relu2
I0428 20:16:58.536968   767 net.cpp:408] relu2 <- ip2
I0428 20:16:58.536973   767 net.cpp:369] relu2 -> ip2 (in-place)
I0428 20:16:58.537835   767 net.cpp:124] Setting up relu2
I0428 20:16:58.537848   767 net.cpp:131] Top shape: 64 25 (1600)
I0428 20:16:58.537852   767 net.cpp:139] Memory required for data: 9557760
I0428 20:16:58.537855   767 layer_factory.hpp:77] Creating layer ip3
I0428 20:16:58.537863   767 net.cpp:86] Creating Layer ip3
I0428 20:16:58.537866   767 net.cpp:408] ip3 <- ip2
I0428 20:16:58.537871   767 net.cpp:382] ip3 -> ip3
I0428 20:16:58.537966   767 net.cpp:124] Setting up ip3
I0428 20:16:58.537974   767 net.cpp:131] Top shape: 64 10 (640)
I0428 20:16:58.537977   767 net.cpp:139] Memory required for data: 9560320
I0428 20:16:58.537986   767 layer_factory.hpp:77] Creating layer relu3
I0428 20:16:58.537989   767 net.cpp:86] Creating Layer relu3
I0428 20:16:58.537993   767 net.cpp:408] relu3 <- ip3
I0428 20:16:58.537997   767 net.cpp:369] relu3 -> ip3 (in-place)
I0428 20:16:58.538158   767 net.cpp:124] Setting up relu3
I0428 20:16:58.538166   767 net.cpp:131] Top shape: 64 10 (640)
I0428 20:16:58.538169   767 net.cpp:139] Memory required for data: 9562880
I0428 20:16:58.538173   767 layer_factory.hpp:77] Creating layer loss
I0428 20:16:58.538178   767 net.cpp:86] Creating Layer loss
I0428 20:16:58.538182   767 net.cpp:408] loss <- ip3
I0428 20:16:58.538185   767 net.cpp:408] loss <- label
I0428 20:16:58.538190   767 net.cpp:382] loss -> loss
I0428 20:16:58.538208   767 layer_factory.hpp:77] Creating layer loss
…
I0428 20:16:58.538817   767 solver.cpp:173] Creating test net (#0) specified by net file: ECE595/mnist/train_test/var_everything2/lenet_train_test1283.prototxt
I0428 20:16:58.538844   767 net.cpp:296] The NetState phase (1) differed from the phase (0) specified by a rule in layer mnist
I0428 20:16:58.538933   767 net.cpp:53] Initializing net from parameters: 
name: "LeNet"
state {
  phase: TEST
}
layer {
  name: "mnist"
  type: "Data"
  top: "data"
  top: "label"
  include {
    phase: TEST
  }
  transform_param {
    scale: 0.00390625
  }
  data_param {
    source: "examples/mnist/mnist_test_lmdb"
    batch_size: 100
    backend: LMDB
  }
}
layer {
  name: "conv0"
  type: "Convolution"
  bottom: "data"
  top: "conv0"
  param {
    lr_mult: 1
  }
  param {
    lr_mult: 2
  }
  convolution_param {
    num_output: 50
    kernel_size: 5
    stride: 1
    weight_filler {
      type: "xavier"
    }
    bias_filler {
      type: "constant"
    }
  }
}
layer {
  name: "pool0"
  type: "Pooling"
  bottom: "conv0"
  top: "pool0"
  pooling_param {
    pool: MAX
    kernel_size: 2
    stride: 2
  }
}
layer {
  name: "conv1"
  type: "Convolution"
  bottom: "pool0"
  top: "conv1"
  param {
    lr_mult: 1
  }
  param {
    lr_mult: 2
  }
  convolution_param {
    num_output: 5
    kernel_size: 5
    stride: 1
    weight_filler {
      type: "xavier"
    }
    bias_filler {
      type: "constant"
    }
  }
}
layer {
  name: "pool1"
  type: "Pooling"
  bottom: "conv1"
  top: "pool1"
  pooling_param {
    pool: MAX
    kernel_size: 2
    stride: 2
  }
}
layer {
  name: "ip1"
  type: "InnerProduct"
  bottom: "pool1"
  top: "ip1"
  param {
    lr_mult: 1
  }
  param {
    lr_mult: 2
  }
  inner_product_param {
    num_output: 50
    weight_filler {
      type: "xavier"
    }
    bias_filler {
      type: "constant"
    }
  }
}
layer {
  name: "relu1"
  type: "ReLU"
  bottom: "ip1"
  top: "ip1"
}
layer {
  name: "ip2"
  type: "InnerProduct"
  bottom: "ip1"
  top: "ip2"
  param {
    lr_mult: 1
  }
  param {
    lr_mult: 2
  }
  inner_product_param {
    num_output: 25
    weight_filler {
      type: "xavier"
    }
    bias_filler {
      type: "constant"
    }
  }
}
layer {
  name: "relu2"
  type: "ReLU"
  bottom: "ip2"
  top: "ip2"
}
layer {
  name: "ip3"
  type: "InnerProduct"
  bottom: "ip2"
  top: "ip3"
  param {
    lr_mult: 1
  }
  param {
    lr_mult: 2
  }
  inner_product_param {
    num_output: 10
    weight_filler {
      type: "xavier"
    }
    bias_filler {
      type: "constant"
    }
  }
}
layer {
  name: "relu3"
  type: "ReLU"
  bottom: "ip3"
  top: "ip3"
}
layer {
  name: "accuracy"
  type: "Accuracy"
  bottom: "ip3"
  bottom: "label"
  top: "accuracy"
  include {
    phase: TEST
  }
}
layer {
  name: "loss"
  type: "SoftmaxWithLoss"
  bottom: "ip3"
  bottom: "label"
  top: "loss"
}
I0428 20:16:58.539008   767 layer_factory.hpp:77] Creating layer mnist
I0428 20:16:58.539052   767 db_lmdb.cpp:35] Opened lmdb examples/mnist/mnist_test_lmdb
I0428 20:16:58.539067   767 net.cpp:86] Creating Layer mnist
I0428 20:16:58.539072   767 net.cpp:382] mnist -> data
I0428 20:16:58.539078   767 net.cpp:382] mnist -> label
I0428 20:16:58.539158   767 data_layer.cpp:45] output data size: 100,1,28,28
I0428 20:16:58.541126   767 net.cpp:124] Setting up mnist
I0428 20:16:58.541139   767 net.cpp:131] Top shape: 100 1 28 28 (78400)
I0428 20:16:58.541144   767 net.cpp:131] Top shape: 100 (100)
I0428 20:16:58.541146   767 net.cpp:139] Memory required for data: 314000
I0428 20:16:58.541151   767 layer_factory.hpp:77] Creating layer label_mnist_1_split
I0428 20:16:58.541157   767 net.cpp:86] Creating Layer label_mnist_1_split
I0428 20:16:58.541160   767 net.cpp:408] label_mnist_1_split <- label
I0428 20:16:58.541165   767 net.cpp:382] label_mnist_1_split -> label_mnist_1_split_0
I0428 20:16:58.541172   767 net.cpp:382] label_mnist_1_split -> label_mnist_1_split_1
I0428 20:16:58.541290   767 net.cpp:124] Setting up label_mnist_1_split
I0428 20:16:58.541297   767 net.cpp:131] Top shape: 100 (100)
I0428 20:16:58.541301   767 net.cpp:131] Top shape: 100 (100)
I0428 20:16:58.541304   767 net.cpp:139] Memory required for data: 314800
I0428 20:16:58.541306   767 layer_factory.hpp:77] Creating layer conv0
I0428 20:16:58.541316   767 net.cpp:86] Creating Layer conv0
I0428 20:16:58.541319   767 net.cpp:408] conv0 <- data
I0428 20:16:58.541326   767 net.cpp:382] conv0 -> conv0
I0428 20:16:58.542922   767 net.cpp:124] Setting up conv0
I0428 20:16:58.542935   767 net.cpp:131] Top shape: 100 50 24 24 (2880000)
I0428 20:16:58.542939   767 net.cpp:139] Memory required for data: 11834800
I0428 20:16:58.542948   767 layer_factory.hpp:77] Creating layer pool0
I0428 20:16:58.542956   767 net.cpp:86] Creating Layer pool0
I0428 20:16:58.542959   767 net.cpp:408] pool0 <- conv0
I0428 20:16:58.542965   767 net.cpp:382] pool0 -> pool0
I0428 20:16:58.543001   767 net.cpp:124] Setting up pool0
I0428 20:16:58.543006   767 net.cpp:131] Top shape: 100 50 12 12 (720000)
I0428 20:16:58.543009   767 net.cpp:139] Memory required for data: 14714800
I0428 20:16:58.543012   767 layer_factory.hpp:77] Creating layer conv1
I0428 20:16:58.543021   767 net.cpp:86] Creating Layer conv1
I0428 20:16:58.543025   767 net.cpp:408] conv1 <- pool0
I0428 20:16:58.543030   767 net.cpp:382] conv1 -> conv1
I0428 20:16:58.544561   767 net.cpp:124] Setting up conv1
I0428 20:16:58.544577   767 net.cpp:131] Top shape: 100 5 8 8 (32000)
I0428 20:16:58.544580   767 net.cpp:139] Memory required for data: 14842800
I0428 20:16:58.544589   767 layer_factory.hpp:77] Creating layer pool1
I0428 20:16:58.544595   767 net.cpp:86] Creating Layer pool1
I0428 20:16:58.544600   767 net.cpp:408] pool1 <- conv1
I0428 20:16:58.544606   767 net.cpp:382] pool1 -> pool1
I0428 20:16:58.544642   767 net.cpp:124] Setting up pool1
I0428 20:16:58.544647   767 net.cpp:131] Top shape: 100 5 4 4 (8000)
I0428 20:16:58.544651   767 net.cpp:139] Memory required for data: 14874800
I0428 20:16:58.544653   767 layer_factory.hpp:77] Creating layer ip1
I0428 20:16:58.544661   767 net.cpp:86] Creating Layer ip1
I0428 20:16:58.544663   767 net.cpp:408] ip1 <- pool1
I0428 20:16:58.544669   767 net.cpp:382] ip1 -> ip1
I0428 20:16:58.544790   767 net.cpp:124] Setting up ip1
I0428 20:16:58.544797   767 net.cpp:131] Top shape: 100 50 (5000)
I0428 20:16:58.544817   767 net.cpp:139] Memory required for data: 14894800
I0428 20:16:58.544826   767 layer_factory.hpp:77] Creating layer relu1
I0428 20:16:58.544845   767 net.cpp:86] Creating Layer relu1
I0428 20:16:58.544849   767 net.cpp:408] relu1 <- ip1
I0428 20:16:58.544854   767 net.cpp:369] relu1 -> ip1 (in-place)
I0428 20:16:58.545066   767 net.cpp:124] Setting up relu1
I0428 20:16:58.545076   767 net.cpp:131] Top shape: 100 50 (5000)
I0428 20:16:58.545079   767 net.cpp:139] Memory required for data: 14914800
I0428 20:16:58.545083   767 layer_factory.hpp:77] Creating layer ip2
I0428 20:16:58.545090   767 net.cpp:86] Creating Layer ip2
I0428 20:16:58.545094   767 net.cpp:408] ip2 <- ip1
I0428 20:16:58.545101   767 net.cpp:382] ip2 -> ip2
I0428 20:16:58.545260   767 net.cpp:124] Setting up ip2
I0428 20:16:58.545267   767 net.cpp:131] Top shape: 100 25 (2500)
I0428 20:16:58.545270   767 net.cpp:139] Memory required for data: 14924800
I0428 20:16:58.545276   767 layer_factory.hpp:77] Creating layer relu2
I0428 20:16:58.545281   767 net.cpp:86] Creating Layer relu2
I0428 20:16:58.545284   767 net.cpp:408] relu2 <- ip2
I0428 20:16:58.545291   767 net.cpp:369] relu2 -> ip2 (in-place)
I0428 20:16:58.545506   767 net.cpp:124] Setting up relu2
I0428 20:16:58.545516   767 net.cpp:131] Top shape: 100 25 (2500)
I0428 20:16:58.545523   767 net.cpp:139] Memory required for data: 14934800
I0428 20:16:58.545526   767 layer_factory.hpp:77] Creating layer ip3
I0428 20:16:58.545533   767 net.cpp:86] Creating Layer ip3
I0428 20:16:58.545536   767 net.cpp:408] ip3 <- ip2
I0428 20:16:58.545541   767 net.cpp:382] ip3 -> ip3
I0428 20:16:58.545675   767 net.cpp:124] Setting up ip3
I0428 20:16:58.545683   767 net.cpp:131] Top shape: 100 10 (1000)
I0428 20:16:58.545686   767 net.cpp:139] Memory required for data: 14938800
I0428 20:16:58.545696   767 layer_factory.hpp:77] Creating layer relu3
I0428 20:16:58.545701   767 net.cpp:86] Creating Layer relu3
I0428 20:16:58.545704   767 net.cpp:408] relu3 <- ip3
I0428 20:16:58.545708   767 net.cpp:369] relu3 -> ip3 (in-place)
I0428 20:16:58.546452   767 net.cpp:124] Setting up relu3
I0428 20:16:58.546464   767 net.cpp:131] Top shape: 100 10 (1000)
I0428 20:16:58.546469   767 net.cpp:139] Memory required for data: 14942800
I0428 20:16:58.546473   767 layer_factory.hpp:77] Creating layer ip3_relu3_0_split
I0428 20:16:58.546478   767 net.cpp:86] Creating Layer ip3_relu3_0_split
I0428 20:16:58.546480   767 net.cpp:408] ip3_relu3_0_split <- ip3
I0428 20:16:58.546485   767 net.cpp:382] ip3_relu3_0_split -> ip3_relu3_0_split_0
I0428 20:16:58.546491   767 net.cpp:382] ip3_relu3_0_split -> ip3_relu3_0_split_1
I0428 20:16:58.546533   767 net.cpp:124] Setting up ip3_relu3_0_split
I0428 20:16:58.546540   767 net.cpp:131] Top shape: 100 10 (1000)
I0428 20:16:58.546543   767 net.cpp:131] Top shape: 100 10 (1000)
I0428 20:16:58.546546   767 net.cpp:139] Memory required for data: 14950800
I0428 20:16:58.546548   767 layer_factory.hpp:77] Creating layer accuracy
I0428 20:16:58.546557   767 net.cpp:86] Creating Layer accuracy
I0428 20:16:58.546561   767 net.cpp:408] accuracy <- ip3_relu3_0_split_0
I0428 20:16:58.546563   767 net.cpp:408] accuracy <- label_mnist_1_split_0
I0428 20:16:58.546569   767 net.cpp:382] accuracy -> accuracy
…
