…
I0428 19:40:49.827909 24670 net.cpp:296] The NetState phase (0) differed from the phase (1) specified by a rule in layer mnist
I0428 19:40:49.827929 24670 net.cpp:296] The NetState phase (0) differed from the phase (1) specified by a rule in layer accuracy
I0428 19:40:49.828024 24670 net.cpp:53] Initializing net from parameters: 
name: "LeNet"
state {
  phase: TRAIN
  level: 0
  stage: ""
}
layer {
  name: "mnist"
  type: "Data"
  top: "data"
  top: "label"
  include {
    phase: TRAIN
  }
  transform_param {
    scale: 0.00390625
  }
  data_param {
    source: "examples/mnist/mnist_train_lmdb"
    batch_size: 64
    backend: LMDB
  }
}
layer {
  name: "conv0"
  type: "Convolution"
  bottom: "data"
  top: "conv0"
  param {
    lr_mult: 1
  }
  param {
    lr_mult: 2
  }
  convolution_param {
    num_output: 2
    kernel_size: 5
    stride: 1
    weight_filler {
      type: "xavier"
    }
    bias_filler {
      type: "constant"
    }
  }
}
layer {
  name: "pool0"
  type: "Pooling"
  bottom: "conv0"
  top: "pool0"
  pooling_param {
    pool: MAX
    kernel_size: 2
    stride: 2
  }
}
layer {
  name: "conv1"
  type: "Convolution"
  bottom: "pool0"
  top: "conv1"
  param {
    lr_mult: 1
  }
  param {
    lr_mult: 2
  }
  convolution_param {
    num_output: 5
    kernel_size: 5
    stride: 1
    weight_filler {
      type: "xavier"
    }
    bias_filler {
      type: "constant"
    }
  }
}
layer {
  name: "pool1"
  type: "Pooling"
  bottom: "conv1"
  top: "pool1"
  pooling_param {
    pool: MAX
    kernel_size: 2
    stride: 2
  }
}
layer {
  name: "ip1"
  type: "InnerProduct"
  bottom: "pool1"
  top: "ip1"
  param {
    lr_mult: 1
  }
  param {
    lr_mult: 2
  }
  inner_product_param {
    num_output: 50
    weight_filler {
      type: "xavier"
    }
    bias_filler {
      type: "constant"
    }
  }
}
layer {
  name: "relu1"
  type: "ReLU"
  bottom: "ip1"
  top: "ip1"
}
layer {
  name: "ip2"
  type: "InnerProduct"
  bottom: "ip1"
  top: "ip2"
  param {
    lr_mult: 1
  }
  param {
    lr_mult: 2
  }
  inner_product_param {
    num_output: 25
    weight_filler {
      type: "xavier"
    }
    bias_filler {
      type: "constant"
    }
  }
}
layer {
  name: "relu2"
  type: "ReLU"
  bottom: "ip2"
  top: "ip2"
}
layer {
  name: "ip3"
  type: "InnerProduct"
  bottom: "ip2"
  top: "ip3"
  param {
    lr_mult: 1
  }
  param {
    lr_mult: 2
  }
  inner_product_param {
    num_output: 10
    weight_filler {
      type: "xavier"
    }
    bias_filler {
      type: "constant"
    }
  }
}
layer {
  name: "relu3"
  type: "ReLU"
  bottom: "ip3"
  top: "ip3"
}
layer {
  name: "loss"
  type: "SoftmaxWithLoss"
  bottom: "ip3"
  bottom: "label"
  top: "loss"
}
I0428 19:40:49.828099 24670 layer_factory.hpp:77] Creating layer mnist
I0428 19:40:49.828197 24670 db_lmdb.cpp:35] Opened lmdb examples/mnist/mnist_train_lmdb
I0428 19:40:49.828219 24670 net.cpp:86] Creating Layer mnist
I0428 19:40:49.828227 24670 net.cpp:382] mnist -> data
I0428 19:40:49.828249 24670 net.cpp:382] mnist -> label
I0428 19:40:49.829358 24670 data_layer.cpp:45] output data size: 64,1,28,28
I0428 19:40:49.831806 24670 net.cpp:124] Setting up mnist
I0428 19:40:49.831823 24670 net.cpp:131] Top shape: 64 1 28 28 (50176)
I0428 19:40:49.831830 24670 net.cpp:131] Top shape: 64 (64)
I0428 19:40:49.831833 24670 net.cpp:139] Memory required for data: 200960
I0428 19:40:49.831840 24670 layer_factory.hpp:77] Creating layer conv0
I0428 19:40:49.831856 24670 net.cpp:86] Creating Layer conv0
I0428 19:40:49.831876 24670 net.cpp:408] conv0 <- data
I0428 19:40:49.831887 24670 net.cpp:382] conv0 -> conv0
I0428 19:40:50.105623 24670 net.cpp:124] Setting up conv0
I0428 19:40:50.105650 24670 net.cpp:131] Top shape: 64 2 24 24 (73728)
I0428 19:40:50.105654 24670 net.cpp:139] Memory required for data: 495872
I0428 19:40:50.105669 24670 layer_factory.hpp:77] Creating layer pool0
I0428 19:40:50.105696 24670 net.cpp:86] Creating Layer pool0
I0428 19:40:50.105700 24670 net.cpp:408] pool0 <- conv0
I0428 19:40:50.105705 24670 net.cpp:382] pool0 -> pool0
I0428 19:40:50.105749 24670 net.cpp:124] Setting up pool0
I0428 19:40:50.105763 24670 net.cpp:131] Top shape: 64 2 12 12 (18432)
I0428 19:40:50.105767 24670 net.cpp:139] Memory required for data: 569600
I0428 19:40:50.105769 24670 layer_factory.hpp:77] Creating layer conv1
I0428 19:40:50.105779 24670 net.cpp:86] Creating Layer conv1
I0428 19:40:50.105782 24670 net.cpp:408] conv1 <- pool0
I0428 19:40:50.105787 24670 net.cpp:382] conv1 -> conv1
I0428 19:40:50.107641 24670 net.cpp:124] Setting up conv1
I0428 19:40:50.107656 24670 net.cpp:131] Top shape: 64 5 8 8 (20480)
I0428 19:40:50.107661 24670 net.cpp:139] Memory required for data: 651520
I0428 19:40:50.107669 24670 layer_factory.hpp:77] Creating layer pool1
I0428 19:40:50.107676 24670 net.cpp:86] Creating Layer pool1
I0428 19:40:50.107694 24670 net.cpp:408] pool1 <- conv1
I0428 19:40:50.107700 24670 net.cpp:382] pool1 -> pool1
I0428 19:40:50.107738 24670 net.cpp:124] Setting up pool1
I0428 19:40:50.107743 24670 net.cpp:131] Top shape: 64 5 4 4 (5120)
I0428 19:40:50.107746 24670 net.cpp:139] Memory required for data: 672000
I0428 19:40:50.107750 24670 layer_factory.hpp:77] Creating layer ip1
I0428 19:40:50.107756 24670 net.cpp:86] Creating Layer ip1
I0428 19:40:50.107759 24670 net.cpp:408] ip1 <- pool1
I0428 19:40:50.107764 24670 net.cpp:382] ip1 -> ip1
I0428 19:40:50.108752 24670 net.cpp:124] Setting up ip1
I0428 19:40:50.108765 24670 net.cpp:131] Top shape: 64 50 (3200)
I0428 19:40:50.108768 24670 net.cpp:139] Memory required for data: 684800
I0428 19:40:50.108777 24670 layer_factory.hpp:77] Creating layer relu1
I0428 19:40:50.108783 24670 net.cpp:86] Creating Layer relu1
I0428 19:40:50.108788 24670 net.cpp:408] relu1 <- ip1
I0428 19:40:50.108791 24670 net.cpp:369] relu1 -> ip1 (in-place)
I0428 19:40:50.109050 24670 net.cpp:124] Setting up relu1
I0428 19:40:50.109060 24670 net.cpp:131] Top shape: 64 50 (3200)
I0428 19:40:50.109063 24670 net.cpp:139] Memory required for data: 697600
I0428 19:40:50.109066 24670 layer_factory.hpp:77] Creating layer ip2
I0428 19:40:50.109073 24670 net.cpp:86] Creating Layer ip2
I0428 19:40:50.109077 24670 net.cpp:408] ip2 <- ip1
I0428 19:40:50.109082 24670 net.cpp:382] ip2 -> ip2
I0428 19:40:50.109203 24670 net.cpp:124] Setting up ip2
I0428 19:40:50.109225 24670 net.cpp:131] Top shape: 64 25 (1600)
I0428 19:40:50.109227 24670 net.cpp:139] Memory required for data: 704000
I0428 19:40:50.109247 24670 layer_factory.hpp:77] Creating layer relu2
I0428 19:40:50.109253 24670 net.cpp:86] Creating Layer relu2
I0428 19:40:50.109256 24670 net.cpp:408] relu2 <- ip2
I0428 19:40:50.109259 24670 net.cpp:369] relu2 -> ip2 (in-place)
I0428 19:40:50.110033 24670 net.cpp:124] Setting up relu2
I0428 19:40:50.110045 24670 net.cpp:131] Top shape: 64 25 (1600)
I0428 19:40:50.110049 24670 net.cpp:139] Memory required for data: 710400
I0428 19:40:50.110052 24670 layer_factory.hpp:77] Creating layer ip3
I0428 19:40:50.110059 24670 net.cpp:86] Creating Layer ip3
I0428 19:40:50.110061 24670 net.cpp:408] ip3 <- ip2
I0428 19:40:50.110067 24670 net.cpp:382] ip3 -> ip3
I0428 19:40:50.110159 24670 net.cpp:124] Setting up ip3
I0428 19:40:50.110167 24670 net.cpp:131] Top shape: 64 10 (640)
I0428 19:40:50.110170 24670 net.cpp:139] Memory required for data: 712960
I0428 19:40:50.110177 24670 layer_factory.hpp:77] Creating layer relu3
I0428 19:40:50.110183 24670 net.cpp:86] Creating Layer relu3
I0428 19:40:50.110185 24670 net.cpp:408] relu3 <- ip3
I0428 19:40:50.110189 24670 net.cpp:369] relu3 -> ip3 (in-place)
I0428 19:40:50.110347 24670 net.cpp:124] Setting up relu3
I0428 19:40:50.110355 24670 net.cpp:131] Top shape: 64 10 (640)
I0428 19:40:50.110358 24670 net.cpp:139] Memory required for data: 715520
I0428 19:40:50.110361 24670 layer_factory.hpp:77] Creating layer loss
I0428 19:40:50.110368 24670 net.cpp:86] Creating Layer loss
I0428 19:40:50.110370 24670 net.cpp:408] loss <- ip3
I0428 19:40:50.110373 24670 net.cpp:408] loss <- label
I0428 19:40:50.110378 24670 net.cpp:382] loss -> loss
I0428 19:40:50.110393 24670 layer_factory.hpp:77] Creating layer loss
…
I0428 19:40:50.111037 24670 solver.cpp:173] Creating test net (#0) specified by net file: ECE595/mnist/train_test/var_everything2/lenet_train_test346.prototxt
I0428 19:40:50.111065 24670 net.cpp:296] The NetState phase (1) differed from the phase (0) specified by a rule in layer mnist
I0428 19:40:50.111158 24670 net.cpp:53] Initializing net from parameters: 
name: "LeNet"
state {
  phase: TEST
}
layer {
  name: "mnist"
  type: "Data"
  top: "data"
  top: "label"
  include {
    phase: TEST
  }
  transform_param {
    scale: 0.00390625
  }
  data_param {
    source: "examples/mnist/mnist_test_lmdb"
    batch_size: 100
    backend: LMDB
  }
}
layer {
  name: "conv0"
  type: "Convolution"
  bottom: "data"
  top: "conv0"
  param {
    lr_mult: 1
  }
  param {
    lr_mult: 2
  }
  convolution_param {
    num_output: 2
    kernel_size: 5
    stride: 1
    weight_filler {
      type: "xavier"
    }
    bias_filler {
      type: "constant"
    }
  }
}
layer {
  name: "pool0"
  type: "Pooling"
  bottom: "conv0"
  top: "pool0"
  pooling_param {
    pool: MAX
    kernel_size: 2
    stride: 2
  }
}
layer {
  name: "conv1"
  type: "Convolution"
  bottom: "pool0"
  top: "conv1"
  param {
    lr_mult: 1
  }
  param {
    lr_mult: 2
  }
  convolution_param {
    num_output: 5
    kernel_size: 5
    stride: 1
    weight_filler {
      type: "xavier"
    }
    bias_filler {
      type: "constant"
    }
  }
}
layer {
  name: "pool1"
  type: "Pooling"
  bottom: "conv1"
  top: "pool1"
  pooling_param {
    pool: MAX
    kernel_size: 2
    stride: 2
  }
}
layer {
  name: "ip1"
  type: "InnerProduct"
  bottom: "pool1"
  top: "ip1"
  param {
    lr_mult: 1
  }
  param {
    lr_mult: 2
  }
  inner_product_param {
    num_output: 50
    weight_filler {
      type: "xavier"
    }
    bias_filler {
      type: "constant"
    }
  }
}
layer {
  name: "relu1"
  type: "ReLU"
  bottom: "ip1"
  top: "ip1"
}
layer {
  name: "ip2"
  type: "InnerProduct"
  bottom: "ip1"
  top: "ip2"
  param {
    lr_mult: 1
  }
  param {
    lr_mult: 2
  }
  inner_product_param {
    num_output: 25
    weight_filler {
      type: "xavier"
    }
    bias_filler {
      type: "constant"
    }
  }
}
layer {
  name: "relu2"
  type: "ReLU"
  bottom: "ip2"
  top: "ip2"
}
layer {
  name: "ip3"
  type: "InnerProduct"
  bottom: "ip2"
  top: "ip3"
  param {
    lr_mult: 1
  }
  param {
    lr_mult: 2
  }
  inner_product_param {
    num_output: 10
    weight_filler {
      type: "xavier"
    }
    bias_filler {
      type: "constant"
    }
  }
}
layer {
  name: "relu3"
  type: "ReLU"
  bottom: "ip3"
  top: "ip3"
}
layer {
  name: "accuracy"
  type: "Accuracy"
  bottom: "ip3"
  bottom: "label"
  top: "accuracy"
  include {
    phase: TEST
  }
}
layer {
  name: "loss"
  type: "SoftmaxWithLoss"
  bottom: "ip3"
  bottom: "label"
  top: "loss"
}
I0428 19:40:50.111264 24670 layer_factory.hpp:77] Creating layer mnist
I0428 19:40:50.111306 24670 db_lmdb.cpp:35] Opened lmdb examples/mnist/mnist_test_lmdb
I0428 19:40:50.111318 24670 net.cpp:86] Creating Layer mnist
I0428 19:40:50.111322 24670 net.cpp:382] mnist -> data
I0428 19:40:50.111330 24670 net.cpp:382] mnist -> label
I0428 19:40:50.111409 24670 data_layer.cpp:45] output data size: 100,1,28,28
I0428 19:40:50.113370 24670 net.cpp:124] Setting up mnist
I0428 19:40:50.113401 24670 net.cpp:131] Top shape: 100 1 28 28 (78400)
I0428 19:40:50.113406 24670 net.cpp:131] Top shape: 100 (100)
I0428 19:40:50.113409 24670 net.cpp:139] Memory required for data: 314000
I0428 19:40:50.113414 24670 layer_factory.hpp:77] Creating layer label_mnist_1_split
I0428 19:40:50.113420 24670 net.cpp:86] Creating Layer label_mnist_1_split
I0428 19:40:50.113422 24670 net.cpp:408] label_mnist_1_split <- label
I0428 19:40:50.113427 24670 net.cpp:382] label_mnist_1_split -> label_mnist_1_split_0
I0428 19:40:50.113435 24670 net.cpp:382] label_mnist_1_split -> label_mnist_1_split_1
I0428 19:40:50.113528 24670 net.cpp:124] Setting up label_mnist_1_split
I0428 19:40:50.113535 24670 net.cpp:131] Top shape: 100 (100)
I0428 19:40:50.113539 24670 net.cpp:131] Top shape: 100 (100)
I0428 19:40:50.113541 24670 net.cpp:139] Memory required for data: 314800
I0428 19:40:50.113544 24670 layer_factory.hpp:77] Creating layer conv0
I0428 19:40:50.113554 24670 net.cpp:86] Creating Layer conv0
I0428 19:40:50.113556 24670 net.cpp:408] conv0 <- data
I0428 19:40:50.113561 24670 net.cpp:382] conv0 -> conv0
I0428 19:40:50.115222 24670 net.cpp:124] Setting up conv0
I0428 19:40:50.115236 24670 net.cpp:131] Top shape: 100 2 24 24 (115200)
I0428 19:40:50.115241 24670 net.cpp:139] Memory required for data: 775600
I0428 19:40:50.115249 24670 layer_factory.hpp:77] Creating layer pool0
I0428 19:40:50.115255 24670 net.cpp:86] Creating Layer pool0
I0428 19:40:50.115258 24670 net.cpp:408] pool0 <- conv0
I0428 19:40:50.115273 24670 net.cpp:382] pool0 -> pool0
I0428 19:40:50.115309 24670 net.cpp:124] Setting up pool0
I0428 19:40:50.115314 24670 net.cpp:131] Top shape: 100 2 12 12 (28800)
I0428 19:40:50.115316 24670 net.cpp:139] Memory required for data: 890800
I0428 19:40:50.115319 24670 layer_factory.hpp:77] Creating layer conv1
I0428 19:40:50.115327 24670 net.cpp:86] Creating Layer conv1
I0428 19:40:50.115330 24670 net.cpp:408] conv1 <- pool0
I0428 19:40:50.115335 24670 net.cpp:382] conv1 -> conv1
I0428 19:40:50.116957 24670 net.cpp:124] Setting up conv1
I0428 19:40:50.116973 24670 net.cpp:131] Top shape: 100 5 8 8 (32000)
I0428 19:40:50.116977 24670 net.cpp:139] Memory required for data: 1018800
I0428 19:40:50.116986 24670 layer_factory.hpp:77] Creating layer pool1
I0428 19:40:50.116993 24670 net.cpp:86] Creating Layer pool1
I0428 19:40:50.116997 24670 net.cpp:408] pool1 <- conv1
I0428 19:40:50.117003 24670 net.cpp:382] pool1 -> pool1
I0428 19:40:50.117040 24670 net.cpp:124] Setting up pool1
I0428 19:40:50.117054 24670 net.cpp:131] Top shape: 100 5 4 4 (8000)
I0428 19:40:50.117058 24670 net.cpp:139] Memory required for data: 1050800
I0428 19:40:50.117061 24670 layer_factory.hpp:77] Creating layer ip1
I0428 19:40:50.117067 24670 net.cpp:86] Creating Layer ip1
I0428 19:40:50.117071 24670 net.cpp:408] ip1 <- pool1
I0428 19:40:50.117076 24670 net.cpp:382] ip1 -> ip1
I0428 19:40:50.117254 24670 net.cpp:124] Setting up ip1
I0428 19:40:50.117262 24670 net.cpp:131] Top shape: 100 50 (5000)
I0428 19:40:50.117276 24670 net.cpp:139] Memory required for data: 1070800
I0428 19:40:50.117285 24670 layer_factory.hpp:77] Creating layer relu1
I0428 19:40:50.117290 24670 net.cpp:86] Creating Layer relu1
I0428 19:40:50.117295 24670 net.cpp:408] relu1 <- ip1
I0428 19:40:50.117300 24670 net.cpp:369] relu1 -> ip1 (in-place)
I0428 19:40:50.117475 24670 net.cpp:124] Setting up relu1
I0428 19:40:50.117485 24670 net.cpp:131] Top shape: 100 50 (5000)
I0428 19:40:50.117488 24670 net.cpp:139] Memory required for data: 1090800
I0428 19:40:50.117491 24670 layer_factory.hpp:77] Creating layer ip2
I0428 19:40:50.117498 24670 net.cpp:86] Creating Layer ip2
I0428 19:40:50.117516 24670 net.cpp:408] ip2 <- ip1
I0428 19:40:50.117522 24670 net.cpp:382] ip2 -> ip2
I0428 19:40:50.117620 24670 net.cpp:124] Setting up ip2
I0428 19:40:50.117629 24670 net.cpp:131] Top shape: 100 25 (2500)
I0428 19:40:50.117631 24670 net.cpp:139] Memory required for data: 1100800
I0428 19:40:50.117637 24670 layer_factory.hpp:77] Creating layer relu2
I0428 19:40:50.117641 24670 net.cpp:86] Creating Layer relu2
I0428 19:40:50.117645 24670 net.cpp:408] relu2 <- ip2
I0428 19:40:50.117648 24670 net.cpp:369] relu2 -> ip2 (in-place)
I0428 19:40:50.117854 24670 net.cpp:124] Setting up relu2
I0428 19:40:50.117863 24670 net.cpp:131] Top shape: 100 25 (2500)
I0428 19:40:50.117866 24670 net.cpp:139] Memory required for data: 1110800
I0428 19:40:50.117869 24670 layer_factory.hpp:77] Creating layer ip3
I0428 19:40:50.117875 24670 net.cpp:86] Creating Layer ip3
I0428 19:40:50.117878 24670 net.cpp:408] ip3 <- ip2
I0428 19:40:50.117883 24670 net.cpp:382] ip3 -> ip3
I0428 19:40:50.118018 24670 net.cpp:124] Setting up ip3
I0428 19:40:50.118026 24670 net.cpp:131] Top shape: 100 10 (1000)
I0428 19:40:50.118028 24670 net.cpp:139] Memory required for data: 1114800
I0428 19:40:50.118036 24670 layer_factory.hpp:77] Creating layer relu3
I0428 19:40:50.118041 24670 net.cpp:86] Creating Layer relu3
I0428 19:40:50.118044 24670 net.cpp:408] relu3 <- ip3
I0428 19:40:50.118047 24670 net.cpp:369] relu3 -> ip3 (in-place)
I0428 19:40:50.118880 24670 net.cpp:124] Setting up relu3
I0428 19:40:50.118891 24670 net.cpp:131] Top shape: 100 10 (1000)
I0428 19:40:50.118909 24670 net.cpp:139] Memory required for data: 1118800
I0428 19:40:50.118912 24670 layer_factory.hpp:77] Creating layer ip3_relu3_0_split
I0428 19:40:50.118918 24670 net.cpp:86] Creating Layer ip3_relu3_0_split
I0428 19:40:50.118921 24670 net.cpp:408] ip3_relu3_0_split <- ip3
I0428 19:40:50.118927 24670 net.cpp:382] ip3_relu3_0_split -> ip3_relu3_0_split_0
I0428 19:40:50.118932 24670 net.cpp:382] ip3_relu3_0_split -> ip3_relu3_0_split_1
I0428 19:40:50.118971 24670 net.cpp:124] Setting up ip3_relu3_0_split
I0428 19:40:50.118976 24670 net.cpp:131] Top shape: 100 10 (1000)
I0428 19:40:50.118979 24670 net.cpp:131] Top shape: 100 10 (1000)
I0428 19:40:50.118983 24670 net.cpp:139] Memory required for data: 1126800
I0428 19:40:50.118985 24670 layer_factory.hpp:77] Creating layer accuracy
I0428 19:40:50.118990 24670 net.cpp:86] Creating Layer accuracy
I0428 19:40:50.118993 24670 net.cpp:408] accuracy <- ip3_relu3_0_split_0
I0428 19:40:50.118996 24670 net.cpp:408] accuracy <- label_mnist_1_split_0
I0428 19:40:50.119000 24670 net.cpp:382] accuracy -> accuracy
…
