…
I0428 19:39:22.702041 24280 net.cpp:296] The NetState phase (0) differed from the phase (1) specified by a rule in layer mnist
I0428 19:39:22.702059 24280 net.cpp:296] The NetState phase (0) differed from the phase (1) specified by a rule in layer accuracy
I0428 19:39:22.702172 24280 net.cpp:53] Initializing net from parameters: 
name: "LeNet"
state {
  phase: TRAIN
  level: 0
  stage: ""
}
layer {
  name: "mnist"
  type: "Data"
  top: "data"
  top: "label"
  include {
    phase: TRAIN
  }
  transform_param {
    scale: 0.00390625
  }
  data_param {
    source: "examples/mnist/mnist_train_lmdb"
    batch_size: 64
    backend: LMDB
  }
}
layer {
  name: "conv0"
  type: "Convolution"
  bottom: "data"
  top: "conv0"
  param {
    lr_mult: 1
  }
  param {
    lr_mult: 2
  }
  convolution_param {
    num_output: 2
    kernel_size: 5
    stride: 1
    weight_filler {
      type: "xavier"
    }
    bias_filler {
      type: "constant"
    }
  }
}
layer {
  name: "pool0"
  type: "Pooling"
  bottom: "conv0"
  top: "pool0"
  pooling_param {
    pool: MAX
    kernel_size: 2
    stride: 2
  }
}
layer {
  name: "conv1"
  type: "Convolution"
  bottom: "pool0"
  top: "conv1"
  param {
    lr_mult: 1
  }
  param {
    lr_mult: 2
  }
  convolution_param {
    num_output: 2
    kernel_size: 5
    stride: 1
    weight_filler {
      type: "xavier"
    }
    bias_filler {
      type: "constant"
    }
  }
}
layer {
  name: "pool1"
  type: "Pooling"
  bottom: "conv1"
  top: "pool1"
  pooling_param {
    pool: MAX
    kernel_size: 2
    stride: 2
  }
}
layer {
  name: "ip1"
  type: "InnerProduct"
  bottom: "pool1"
  top: "ip1"
  param {
    lr_mult: 1
  }
  param {
    lr_mult: 2
  }
  inner_product_param {
    num_output: 25
    weight_filler {
      type: "xavier"
    }
    bias_filler {
      type: "constant"
    }
  }
}
layer {
  name: "relu1"
  type: "ReLU"
  bottom: "ip1"
  top: "ip1"
}
layer {
  name: "ip2"
  type: "InnerProduct"
  bottom: "ip1"
  top: "ip2"
  param {
    lr_mult: 1
  }
  param {
    lr_mult: 2
  }
  inner_product_param {
    num_output: 50
    weight_filler {
      type: "xavier"
    }
    bias_filler {
      type: "constant"
    }
  }
}
layer {
  name: "relu2"
  type: "ReLU"
  bottom: "ip2"
  top: "ip2"
}
layer {
  name: "ip3"
  type: "InnerProduct"
  bottom: "ip2"
  top: "ip3"
  param {
    lr_mult: 1
  }
  param {
    lr_mult: 2
  }
  inner_product_param {
    num_output: 10
    weight_filler {
      type: "xavier"
    }
    bias_filler {
      type: "constant"
    }
  }
}
layer {
  name: "relu3"
  type: "ReLU"
  bottom: "ip3"
  top: "ip3"
}
layer {
  name: "loss"
  type: "SoftmaxWithLoss"
  bottom: "ip3"
  bottom: "label"
  top: "loss"
}
I0428 19:39:22.702252 24280 layer_factory.hpp:77] Creating layer mnist
I0428 19:39:22.702388 24280 db_lmdb.cpp:35] Opened lmdb examples/mnist/mnist_train_lmdb
I0428 19:39:22.702414 24280 net.cpp:86] Creating Layer mnist
I0428 19:39:22.702424 24280 net.cpp:382] mnist -> data
I0428 19:39:22.702450 24280 net.cpp:382] mnist -> label
I0428 19:39:22.703552 24280 data_layer.cpp:45] output data size: 64,1,28,28
I0428 19:39:22.705771 24280 net.cpp:124] Setting up mnist
I0428 19:39:22.705804 24280 net.cpp:131] Top shape: 64 1 28 28 (50176)
I0428 19:39:22.705813 24280 net.cpp:131] Top shape: 64 (64)
I0428 19:39:22.705818 24280 net.cpp:139] Memory required for data: 200960
I0428 19:39:22.705828 24280 layer_factory.hpp:77] Creating layer conv0
I0428 19:39:22.705860 24280 net.cpp:86] Creating Layer conv0
I0428 19:39:22.705894 24280 net.cpp:408] conv0 <- data
I0428 19:39:22.705909 24280 net.cpp:382] conv0 -> conv0
I0428 19:39:22.945010 24280 net.cpp:124] Setting up conv0
I0428 19:39:22.945039 24280 net.cpp:131] Top shape: 64 2 24 24 (73728)
I0428 19:39:22.945044 24280 net.cpp:139] Memory required for data: 495872
I0428 19:39:22.945080 24280 layer_factory.hpp:77] Creating layer pool0
I0428 19:39:22.945101 24280 net.cpp:86] Creating Layer pool0
I0428 19:39:22.945113 24280 net.cpp:408] pool0 <- conv0
I0428 19:39:22.945123 24280 net.cpp:382] pool0 -> pool0
I0428 19:39:22.945199 24280 net.cpp:124] Setting up pool0
I0428 19:39:22.945207 24280 net.cpp:131] Top shape: 64 2 12 12 (18432)
I0428 19:39:22.945212 24280 net.cpp:139] Memory required for data: 569600
I0428 19:39:22.945216 24280 layer_factory.hpp:77] Creating layer conv1
I0428 19:39:22.945233 24280 net.cpp:86] Creating Layer conv1
I0428 19:39:22.945240 24280 net.cpp:408] conv1 <- pool0
I0428 19:39:22.945248 24280 net.cpp:382] conv1 -> conv1
I0428 19:39:22.947214 24280 net.cpp:124] Setting up conv1
I0428 19:39:22.947245 24280 net.cpp:131] Top shape: 64 2 8 8 (8192)
I0428 19:39:22.947252 24280 net.cpp:139] Memory required for data: 602368
I0428 19:39:22.947283 24280 layer_factory.hpp:77] Creating layer pool1
I0428 19:39:22.947294 24280 net.cpp:86] Creating Layer pool1
I0428 19:39:22.947306 24280 net.cpp:408] pool1 <- conv1
I0428 19:39:22.947316 24280 net.cpp:382] pool1 -> pool1
I0428 19:39:22.947365 24280 net.cpp:124] Setting up pool1
I0428 19:39:22.947374 24280 net.cpp:131] Top shape: 64 2 4 4 (2048)
I0428 19:39:22.947379 24280 net.cpp:139] Memory required for data: 610560
I0428 19:39:22.947384 24280 layer_factory.hpp:77] Creating layer ip1
I0428 19:39:22.947399 24280 net.cpp:86] Creating Layer ip1
I0428 19:39:22.947407 24280 net.cpp:408] ip1 <- pool1
I0428 19:39:22.947417 24280 net.cpp:382] ip1 -> ip1
I0428 19:39:22.947530 24280 net.cpp:124] Setting up ip1
I0428 19:39:22.947540 24280 net.cpp:131] Top shape: 64 25 (1600)
I0428 19:39:22.947545 24280 net.cpp:139] Memory required for data: 616960
I0428 19:39:22.947572 24280 layer_factory.hpp:77] Creating layer relu1
I0428 19:39:22.947584 24280 net.cpp:86] Creating Layer relu1
I0428 19:39:22.947592 24280 net.cpp:408] relu1 <- ip1
I0428 19:39:22.947599 24280 net.cpp:369] relu1 -> ip1 (in-place)
I0428 19:39:22.947789 24280 net.cpp:124] Setting up relu1
I0428 19:39:22.947800 24280 net.cpp:131] Top shape: 64 25 (1600)
I0428 19:39:22.947805 24280 net.cpp:139] Memory required for data: 623360
I0428 19:39:22.947810 24280 layer_factory.hpp:77] Creating layer ip2
I0428 19:39:22.947821 24280 net.cpp:86] Creating Layer ip2
I0428 19:39:22.947827 24280 net.cpp:408] ip2 <- ip1
I0428 19:39:22.947852 24280 net.cpp:382] ip2 -> ip2
I0428 19:39:22.948904 24280 net.cpp:124] Setting up ip2
I0428 19:39:22.948918 24280 net.cpp:131] Top shape: 64 50 (3200)
I0428 19:39:22.948925 24280 net.cpp:139] Memory required for data: 636160
I0428 19:39:22.948936 24280 layer_factory.hpp:77] Creating layer relu2
I0428 19:39:22.948947 24280 net.cpp:86] Creating Layer relu2
I0428 19:39:22.948953 24280 net.cpp:408] relu2 <- ip2
I0428 19:39:22.948961 24280 net.cpp:369] relu2 -> ip2 (in-place)
I0428 19:39:22.949791 24280 net.cpp:124] Setting up relu2
I0428 19:39:22.949806 24280 net.cpp:131] Top shape: 64 50 (3200)
I0428 19:39:22.949812 24280 net.cpp:139] Memory required for data: 648960
I0428 19:39:22.949818 24280 layer_factory.hpp:77] Creating layer ip3
I0428 19:39:22.949831 24280 net.cpp:86] Creating Layer ip3
I0428 19:39:22.949838 24280 net.cpp:408] ip3 <- ip2
I0428 19:39:22.949862 24280 net.cpp:382] ip3 -> ip3
I0428 19:39:22.949982 24280 net.cpp:124] Setting up ip3
I0428 19:39:22.949992 24280 net.cpp:131] Top shape: 64 10 (640)
I0428 19:39:22.949997 24280 net.cpp:139] Memory required for data: 651520
I0428 19:39:22.950009 24280 layer_factory.hpp:77] Creating layer relu3
I0428 19:39:22.950019 24280 net.cpp:86] Creating Layer relu3
I0428 19:39:22.950024 24280 net.cpp:408] relu3 <- ip3
I0428 19:39:22.950033 24280 net.cpp:369] relu3 -> ip3 (in-place)
I0428 19:39:22.950242 24280 net.cpp:124] Setting up relu3
I0428 19:39:22.950253 24280 net.cpp:131] Top shape: 64 10 (640)
I0428 19:39:22.950258 24280 net.cpp:139] Memory required for data: 654080
I0428 19:39:22.950263 24280 layer_factory.hpp:77] Creating layer loss
I0428 19:39:22.950273 24280 net.cpp:86] Creating Layer loss
I0428 19:39:22.950278 24280 net.cpp:408] loss <- ip3
I0428 19:39:22.950284 24280 net.cpp:408] loss <- label
I0428 19:39:22.950294 24280 net.cpp:382] loss -> loss
I0428 19:39:22.950316 24280 layer_factory.hpp:77] Creating layer loss
…
I0428 19:39:22.951050 24280 solver.cpp:173] Creating test net (#0) specified by net file: ECE595/mnist/train_test/var_everything2/lenet_train_test302.prototxt
I0428 19:39:22.951086 24280 net.cpp:296] The NetState phase (1) differed from the phase (0) specified by a rule in layer mnist
I0428 19:39:22.951207 24280 net.cpp:53] Initializing net from parameters: 
name: "LeNet"
state {
  phase: TEST
}
layer {
  name: "mnist"
  type: "Data"
  top: "data"
  top: "label"
  include {
    phase: TEST
  }
  transform_param {
    scale: 0.00390625
  }
  data_param {
    source: "examples/mnist/mnist_test_lmdb"
    batch_size: 100
    backend: LMDB
  }
}
layer {
  name: "conv0"
  type: "Convolution"
  bottom: "data"
  top: "conv0"
  param {
    lr_mult: 1
  }
  param {
    lr_mult: 2
  }
  convolution_param {
    num_output: 2
    kernel_size: 5
    stride: 1
    weight_filler {
      type: "xavier"
    }
    bias_filler {
      type: "constant"
    }
  }
}
layer {
  name: "pool0"
  type: "Pooling"
  bottom: "conv0"
  top: "pool0"
  pooling_param {
    pool: MAX
    kernel_size: 2
    stride: 2
  }
}
layer {
  name: "conv1"
  type: "Convolution"
  bottom: "pool0"
  top: "conv1"
  param {
    lr_mult: 1
  }
  param {
    lr_mult: 2
  }
  convolution_param {
    num_output: 2
    kernel_size: 5
    stride: 1
    weight_filler {
      type: "xavier"
    }
    bias_filler {
      type: "constant"
    }
  }
}
layer {
  name: "pool1"
  type: "Pooling"
  bottom: "conv1"
  top: "pool1"
  pooling_param {
    pool: MAX
    kernel_size: 2
    stride: 2
  }
}
layer {
  name: "ip1"
  type: "InnerProduct"
  bottom: "pool1"
  top: "ip1"
  param {
    lr_mult: 1
  }
  param {
    lr_mult: 2
  }
  inner_product_param {
    num_output: 25
    weight_filler {
      type: "xavier"
    }
    bias_filler {
      type: "constant"
    }
  }
}
layer {
  name: "relu1"
  type: "ReLU"
  bottom: "ip1"
  top: "ip1"
}
layer {
  name: "ip2"
  type: "InnerProduct"
  bottom: "ip1"
  top: "ip2"
  param {
    lr_mult: 1
  }
  param {
    lr_mult: 2
  }
  inner_product_param {
    num_output: 50
    weight_filler {
      type: "xavier"
    }
    bias_filler {
      type: "constant"
    }
  }
}
layer {
  name: "relu2"
  type: "ReLU"
  bottom: "ip2"
  top: "ip2"
}
layer {
  name: "ip3"
  type: "InnerProduct"
  bottom: "ip2"
  top: "ip3"
  param {
    lr_mult: 1
  }
  param {
    lr_mult: 2
  }
  inner_product_param {
    num_output: 10
    weight_filler {
      type: "xavier"
    }
    bias_filler {
      type: "constant"
    }
  }
}
layer {
  name: "relu3"
  type: "ReLU"
  bottom: "ip3"
  top: "ip3"
}
layer {
  name: "accuracy"
  type: "Accuracy"
  bottom: "ip3"
  bottom: "label"
  top: "accuracy"
  include {
    phase: TEST
  }
}
layer {
  name: "loss"
  type: "SoftmaxWithLoss"
  bottom: "ip3"
  bottom: "label"
  top: "loss"
}
I0428 19:39:22.951333 24280 layer_factory.hpp:77] Creating layer mnist
I0428 19:39:22.951392 24280 db_lmdb.cpp:35] Opened lmdb examples/mnist/mnist_test_lmdb
I0428 19:39:22.951411 24280 net.cpp:86] Creating Layer mnist
I0428 19:39:22.951418 24280 net.cpp:382] mnist -> data
I0428 19:39:22.951431 24280 net.cpp:382] mnist -> label
I0428 19:39:22.951567 24280 data_layer.cpp:45] output data size: 100,1,28,28
I0428 19:39:22.953788 24280 net.cpp:124] Setting up mnist
I0428 19:39:22.953802 24280 net.cpp:131] Top shape: 100 1 28 28 (78400)
I0428 19:39:22.953810 24280 net.cpp:131] Top shape: 100 (100)
I0428 19:39:22.953815 24280 net.cpp:139] Memory required for data: 314000
I0428 19:39:22.953820 24280 layer_factory.hpp:77] Creating layer label_mnist_1_split
I0428 19:39:22.953835 24280 net.cpp:86] Creating Layer label_mnist_1_split
I0428 19:39:22.953840 24280 net.cpp:408] label_mnist_1_split <- label
I0428 19:39:22.953848 24280 net.cpp:382] label_mnist_1_split -> label_mnist_1_split_0
I0428 19:39:22.953860 24280 net.cpp:382] label_mnist_1_split -> label_mnist_1_split_1
I0428 19:39:22.953920 24280 net.cpp:124] Setting up label_mnist_1_split
I0428 19:39:22.953928 24280 net.cpp:131] Top shape: 100 (100)
I0428 19:39:22.953935 24280 net.cpp:131] Top shape: 100 (100)
I0428 19:39:22.953939 24280 net.cpp:139] Memory required for data: 314800
I0428 19:39:22.953944 24280 layer_factory.hpp:77] Creating layer conv0
I0428 19:39:22.953960 24280 net.cpp:86] Creating Layer conv0
I0428 19:39:22.953982 24280 net.cpp:408] conv0 <- data
I0428 19:39:22.953992 24280 net.cpp:382] conv0 -> conv0
I0428 19:39:22.955755 24280 net.cpp:124] Setting up conv0
I0428 19:39:22.955770 24280 net.cpp:131] Top shape: 100 2 24 24 (115200)
I0428 19:39:22.955776 24280 net.cpp:139] Memory required for data: 775600
I0428 19:39:22.955808 24280 layer_factory.hpp:77] Creating layer pool0
I0428 19:39:22.955818 24280 net.cpp:86] Creating Layer pool0
I0428 19:39:22.955826 24280 net.cpp:408] pool0 <- conv0
I0428 19:39:22.955835 24280 net.cpp:382] pool0 -> pool0
I0428 19:39:22.955880 24280 net.cpp:124] Setting up pool0
I0428 19:39:22.955890 24280 net.cpp:131] Top shape: 100 2 12 12 (28800)
I0428 19:39:22.955896 24280 net.cpp:139] Memory required for data: 890800
I0428 19:39:22.955900 24280 layer_factory.hpp:77] Creating layer conv1
I0428 19:39:22.955915 24280 net.cpp:86] Creating Layer conv1
I0428 19:39:22.955922 24280 net.cpp:408] conv1 <- pool0
I0428 19:39:22.955931 24280 net.cpp:382] conv1 -> conv1
I0428 19:39:22.957600 24280 net.cpp:124] Setting up conv1
I0428 19:39:22.957617 24280 net.cpp:131] Top shape: 100 2 8 8 (12800)
I0428 19:39:22.957623 24280 net.cpp:139] Memory required for data: 942000
I0428 19:39:22.957635 24280 layer_factory.hpp:77] Creating layer pool1
I0428 19:39:22.957645 24280 net.cpp:86] Creating Layer pool1
I0428 19:39:22.957653 24280 net.cpp:408] pool1 <- conv1
I0428 19:39:22.957664 24280 net.cpp:382] pool1 -> pool1
I0428 19:39:22.957715 24280 net.cpp:124] Setting up pool1
I0428 19:39:22.957726 24280 net.cpp:131] Top shape: 100 2 4 4 (3200)
I0428 19:39:22.957731 24280 net.cpp:139] Memory required for data: 954800
I0428 19:39:22.957736 24280 layer_factory.hpp:77] Creating layer ip1
I0428 19:39:22.957762 24280 net.cpp:86] Creating Layer ip1
I0428 19:39:22.957767 24280 net.cpp:408] ip1 <- pool1
I0428 19:39:22.957778 24280 net.cpp:382] ip1 -> ip1
I0428 19:39:22.957900 24280 net.cpp:124] Setting up ip1
I0428 19:39:22.957909 24280 net.cpp:131] Top shape: 100 25 (2500)
I0428 19:39:22.957926 24280 net.cpp:139] Memory required for data: 964800
I0428 19:39:22.957939 24280 layer_factory.hpp:77] Creating layer relu1
I0428 19:39:22.957948 24280 net.cpp:86] Creating Layer relu1
I0428 19:39:22.957955 24280 net.cpp:408] relu1 <- ip1
I0428 19:39:22.957964 24280 net.cpp:369] relu1 -> ip1 (in-place)
I0428 19:39:22.958147 24280 net.cpp:124] Setting up relu1
I0428 19:39:22.958156 24280 net.cpp:131] Top shape: 100 25 (2500)
I0428 19:39:22.958161 24280 net.cpp:139] Memory required for data: 974800
I0428 19:39:22.958168 24280 layer_factory.hpp:77] Creating layer ip2
I0428 19:39:22.958179 24280 net.cpp:86] Creating Layer ip2
I0428 19:39:22.958187 24280 net.cpp:408] ip2 <- ip1
I0428 19:39:22.958196 24280 net.cpp:382] ip2 -> ip2
I0428 19:39:22.958324 24280 net.cpp:124] Setting up ip2
I0428 19:39:22.958348 24280 net.cpp:131] Top shape: 100 50 (5000)
I0428 19:39:22.958353 24280 net.cpp:139] Memory required for data: 994800
I0428 19:39:22.958362 24280 layer_factory.hpp:77] Creating layer relu2
I0428 19:39:22.958374 24280 net.cpp:86] Creating Layer relu2
I0428 19:39:22.958379 24280 net.cpp:408] relu2 <- ip2
I0428 19:39:22.958385 24280 net.cpp:369] relu2 -> ip2 (in-place)
I0428 19:39:22.958655 24280 net.cpp:124] Setting up relu2
I0428 19:39:22.958667 24280 net.cpp:131] Top shape: 100 50 (5000)
I0428 19:39:22.958673 24280 net.cpp:139] Memory required for data: 1014800
I0428 19:39:22.958678 24280 layer_factory.hpp:77] Creating layer ip3
I0428 19:39:22.958689 24280 net.cpp:86] Creating Layer ip3
I0428 19:39:22.958696 24280 net.cpp:408] ip3 <- ip2
I0428 19:39:22.958704 24280 net.cpp:382] ip3 -> ip3
I0428 19:39:22.958824 24280 net.cpp:124] Setting up ip3
I0428 19:39:22.958834 24280 net.cpp:131] Top shape: 100 10 (1000)
I0428 19:39:22.958853 24280 net.cpp:139] Memory required for data: 1018800
I0428 19:39:22.958866 24280 layer_factory.hpp:77] Creating layer relu3
I0428 19:39:22.958878 24280 net.cpp:86] Creating Layer relu3
I0428 19:39:22.958884 24280 net.cpp:408] relu3 <- ip3
I0428 19:39:22.958896 24280 net.cpp:369] relu3 -> ip3 (in-place)
I0428 19:39:22.959822 24280 net.cpp:124] Setting up relu3
I0428 19:39:22.959838 24280 net.cpp:131] Top shape: 100 10 (1000)
I0428 19:39:22.959844 24280 net.cpp:139] Memory required for data: 1022800
I0428 19:39:22.959851 24280 layer_factory.hpp:77] Creating layer ip3_relu3_0_split
I0428 19:39:22.959858 24280 net.cpp:86] Creating Layer ip3_relu3_0_split
I0428 19:39:22.959864 24280 net.cpp:408] ip3_relu3_0_split <- ip3
I0428 19:39:22.959873 24280 net.cpp:382] ip3_relu3_0_split -> ip3_relu3_0_split_0
I0428 19:39:22.959883 24280 net.cpp:382] ip3_relu3_0_split -> ip3_relu3_0_split_1
I0428 19:39:22.959959 24280 net.cpp:124] Setting up ip3_relu3_0_split
I0428 19:39:22.959969 24280 net.cpp:131] Top shape: 100 10 (1000)
I0428 19:39:22.959976 24280 net.cpp:131] Top shape: 100 10 (1000)
I0428 19:39:22.959982 24280 net.cpp:139] Memory required for data: 1030800
I0428 19:39:22.959987 24280 layer_factory.hpp:77] Creating layer accuracy
I0428 19:39:22.959996 24280 net.cpp:86] Creating Layer accuracy
I0428 19:39:22.960002 24280 net.cpp:408] accuracy <- ip3_relu3_0_split_0
I0428 19:39:22.960026 24280 net.cpp:408] accuracy <- label_mnist_1_split_0
I0428 19:39:22.960033 24280 net.cpp:382] accuracy -> accuracy
…
