…
I0428 19:42:51.345728 25204 net.cpp:296] The NetState phase (0) differed from the phase (1) specified by a rule in layer mnist
I0428 19:42:51.345748 25204 net.cpp:296] The NetState phase (0) differed from the phase (1) specified by a rule in layer accuracy
I0428 19:42:51.345849 25204 net.cpp:53] Initializing net from parameters: 
name: "LeNet"
state {
  phase: TRAIN
  level: 0
  stage: ""
}
layer {
  name: "mnist"
  type: "Data"
  top: "data"
  top: "label"
  include {
    phase: TRAIN
  }
  transform_param {
    scale: 0.00390625
  }
  data_param {
    source: "examples/mnist/mnist_train_lmdb"
    batch_size: 64
    backend: LMDB
  }
}
layer {
  name: "conv0"
  type: "Convolution"
  bottom: "data"
  top: "conv0"
  param {
    lr_mult: 1
  }
  param {
    lr_mult: 2
  }
  convolution_param {
    num_output: 2
    kernel_size: 5
    stride: 1
    weight_filler {
      type: "xavier"
    }
    bias_filler {
      type: "constant"
    }
  }
}
layer {
  name: "pool0"
  type: "Pooling"
  bottom: "conv0"
  top: "pool0"
  pooling_param {
    pool: MAX
    kernel_size: 2
    stride: 2
  }
}
layer {
  name: "conv1"
  type: "Convolution"
  bottom: "pool0"
  top: "conv1"
  param {
    lr_mult: 1
  }
  param {
    lr_mult: 2
  }
  convolution_param {
    num_output: 25
    kernel_size: 5
    stride: 1
    weight_filler {
      type: "xavier"
    }
    bias_filler {
      type: "constant"
    }
  }
}
layer {
  name: "pool1"
  type: "Pooling"
  bottom: "conv1"
  top: "pool1"
  pooling_param {
    pool: MAX
    kernel_size: 2
    stride: 2
  }
}
layer {
  name: "ip1"
  type: "InnerProduct"
  bottom: "pool1"
  top: "ip1"
  param {
    lr_mult: 1
  }
  param {
    lr_mult: 2
  }
  inner_product_param {
    num_output: 10
    weight_filler {
      type: "xavier"
    }
    bias_filler {
      type: "constant"
    }
  }
}
layer {
  name: "relu1"
  type: "ReLU"
  bottom: "ip1"
  top: "ip1"
}
layer {
  name: "ip2"
  type: "InnerProduct"
  bottom: "ip1"
  top: "ip2"
  param {
    lr_mult: 1
  }
  param {
    lr_mult: 2
  }
  inner_product_param {
    num_output: 25
    weight_filler {
      type: "xavier"
    }
    bias_filler {
      type: "constant"
    }
  }
}
layer {
  name: "relu2"
  type: "ReLU"
  bottom: "ip2"
  top: "ip2"
}
layer {
  name: "ip3"
  type: "InnerProduct"
  bottom: "ip2"
  top: "ip3"
  param {
    lr_mult: 1
  }
  param {
    lr_mult: 2
  }
  inner_product_param {
    num_output: 10
    weight_filler {
      type: "xavier"
    }
    bias_filler {
      type: "constant"
    }
  }
}
layer {
  name: "relu3"
  type: "ReLU"
  bottom: "ip3"
  top: "ip3"
}
layer {
  name: "loss"
  type: "SoftmaxWithLoss"
  bottom: "ip3"
  bottom: "label"
  top: "loss"
}
I0428 19:42:51.345929 25204 layer_factory.hpp:77] Creating layer mnist
I0428 19:42:51.346031 25204 db_lmdb.cpp:35] Opened lmdb examples/mnist/mnist_train_lmdb
I0428 19:42:51.346058 25204 net.cpp:86] Creating Layer mnist
I0428 19:42:51.346067 25204 net.cpp:382] mnist -> data
I0428 19:42:51.346089 25204 net.cpp:382] mnist -> label
I0428 19:42:51.347178 25204 data_layer.cpp:45] output data size: 64,1,28,28
I0428 19:42:51.349660 25204 net.cpp:124] Setting up mnist
I0428 19:42:51.349678 25204 net.cpp:131] Top shape: 64 1 28 28 (50176)
I0428 19:42:51.349684 25204 net.cpp:131] Top shape: 64 (64)
I0428 19:42:51.349687 25204 net.cpp:139] Memory required for data: 200960
I0428 19:42:51.349694 25204 layer_factory.hpp:77] Creating layer conv0
I0428 19:42:51.349740 25204 net.cpp:86] Creating Layer conv0
I0428 19:42:51.349762 25204 net.cpp:408] conv0 <- data
I0428 19:42:51.349776 25204 net.cpp:382] conv0 -> conv0
I0428 19:42:51.639073 25204 net.cpp:124] Setting up conv0
I0428 19:42:51.639106 25204 net.cpp:131] Top shape: 64 2 24 24 (73728)
I0428 19:42:51.639111 25204 net.cpp:139] Memory required for data: 495872
I0428 19:42:51.639130 25204 layer_factory.hpp:77] Creating layer pool0
I0428 19:42:51.639144 25204 net.cpp:86] Creating Layer pool0
I0428 19:42:51.639149 25204 net.cpp:408] pool0 <- conv0
I0428 19:42:51.639155 25204 net.cpp:382] pool0 -> pool0
I0428 19:42:51.639210 25204 net.cpp:124] Setting up pool0
I0428 19:42:51.639217 25204 net.cpp:131] Top shape: 64 2 12 12 (18432)
I0428 19:42:51.639221 25204 net.cpp:139] Memory required for data: 569600
I0428 19:42:51.639225 25204 layer_factory.hpp:77] Creating layer conv1
I0428 19:42:51.639237 25204 net.cpp:86] Creating Layer conv1
I0428 19:42:51.639241 25204 net.cpp:408] conv1 <- pool0
I0428 19:42:51.639247 25204 net.cpp:382] conv1 -> conv1
I0428 19:42:51.642343 25204 net.cpp:124] Setting up conv1
I0428 19:42:51.642361 25204 net.cpp:131] Top shape: 64 25 8 8 (102400)
I0428 19:42:51.642366 25204 net.cpp:139] Memory required for data: 979200
I0428 19:42:51.642376 25204 layer_factory.hpp:77] Creating layer pool1
I0428 19:42:51.642385 25204 net.cpp:86] Creating Layer pool1
I0428 19:42:51.642390 25204 net.cpp:408] pool1 <- conv1
I0428 19:42:51.642396 25204 net.cpp:382] pool1 -> pool1
I0428 19:42:51.642441 25204 net.cpp:124] Setting up pool1
I0428 19:42:51.642446 25204 net.cpp:131] Top shape: 64 25 4 4 (25600)
I0428 19:42:51.642451 25204 net.cpp:139] Memory required for data: 1081600
I0428 19:42:51.642454 25204 layer_factory.hpp:77] Creating layer ip1
I0428 19:42:51.642462 25204 net.cpp:86] Creating Layer ip1
I0428 19:42:51.642465 25204 net.cpp:408] ip1 <- pool1
I0428 19:42:51.642472 25204 net.cpp:382] ip1 -> ip1
I0428 19:42:51.642613 25204 net.cpp:124] Setting up ip1
I0428 19:42:51.642622 25204 net.cpp:131] Top shape: 64 10 (640)
I0428 19:42:51.642627 25204 net.cpp:139] Memory required for data: 1084160
I0428 19:42:51.642634 25204 layer_factory.hpp:77] Creating layer relu1
I0428 19:42:51.642640 25204 net.cpp:86] Creating Layer relu1
I0428 19:42:51.642644 25204 net.cpp:408] relu1 <- ip1
I0428 19:42:51.642649 25204 net.cpp:369] relu1 -> ip1 (in-place)
I0428 19:42:51.642843 25204 net.cpp:124] Setting up relu1
I0428 19:42:51.642853 25204 net.cpp:131] Top shape: 64 10 (640)
I0428 19:42:51.642856 25204 net.cpp:139] Memory required for data: 1086720
I0428 19:42:51.642859 25204 layer_factory.hpp:77] Creating layer ip2
I0428 19:42:51.642868 25204 net.cpp:86] Creating Layer ip2
I0428 19:42:51.642871 25204 net.cpp:408] ip2 <- ip1
I0428 19:42:51.642877 25204 net.cpp:382] ip2 -> ip2
I0428 19:42:51.642985 25204 net.cpp:124] Setting up ip2
I0428 19:42:51.642993 25204 net.cpp:131] Top shape: 64 25 (1600)
I0428 19:42:51.642997 25204 net.cpp:139] Memory required for data: 1093120
I0428 19:42:51.643003 25204 layer_factory.hpp:77] Creating layer relu2
I0428 19:42:51.643010 25204 net.cpp:86] Creating Layer relu2
I0428 19:42:51.643014 25204 net.cpp:408] relu2 <- ip2
I0428 19:42:51.643019 25204 net.cpp:369] relu2 -> ip2 (in-place)
I0428 19:42:51.643851 25204 net.cpp:124] Setting up relu2
I0428 19:42:51.643867 25204 net.cpp:131] Top shape: 64 25 (1600)
I0428 19:42:51.643870 25204 net.cpp:139] Memory required for data: 1099520
I0428 19:42:51.643874 25204 layer_factory.hpp:77] Creating layer ip3
I0428 19:42:51.643882 25204 net.cpp:86] Creating Layer ip3
I0428 19:42:51.643887 25204 net.cpp:408] ip3 <- ip2
I0428 19:42:51.643893 25204 net.cpp:382] ip3 -> ip3
I0428 19:42:51.644007 25204 net.cpp:124] Setting up ip3
I0428 19:42:51.644017 25204 net.cpp:131] Top shape: 64 10 (640)
I0428 19:42:51.644021 25204 net.cpp:139] Memory required for data: 1102080
I0428 19:42:51.644029 25204 layer_factory.hpp:77] Creating layer relu3
I0428 19:42:51.644035 25204 net.cpp:86] Creating Layer relu3
I0428 19:42:51.644039 25204 net.cpp:408] relu3 <- ip3
I0428 19:42:51.644044 25204 net.cpp:369] relu3 -> ip3 (in-place)
I0428 19:42:51.644238 25204 net.cpp:124] Setting up relu3
I0428 19:42:51.644249 25204 net.cpp:131] Top shape: 64 10 (640)
I0428 19:42:51.644253 25204 net.cpp:139] Memory required for data: 1104640
I0428 19:42:51.644256 25204 layer_factory.hpp:77] Creating layer loss
I0428 19:42:51.644264 25204 net.cpp:86] Creating Layer loss
I0428 19:42:51.644268 25204 net.cpp:408] loss <- ip3
I0428 19:42:51.644273 25204 net.cpp:408] loss <- label
I0428 19:42:51.644279 25204 net.cpp:382] loss -> loss
I0428 19:42:51.644301 25204 layer_factory.hpp:77] Creating layer loss
…
I0428 19:42:51.645050 25204 solver.cpp:173] Creating test net (#0) specified by net file: ECE595/mnist/train_test/var_everything2/lenet_train_test405.prototxt
I0428 19:42:51.645081 25204 net.cpp:296] The NetState phase (1) differed from the phase (0) specified by a rule in layer mnist
I0428 19:42:51.645186 25204 net.cpp:53] Initializing net from parameters: 
name: "LeNet"
state {
  phase: TEST
}
layer {
  name: "mnist"
  type: "Data"
  top: "data"
  top: "label"
  include {
    phase: TEST
  }
  transform_param {
    scale: 0.00390625
  }
  data_param {
    source: "examples/mnist/mnist_test_lmdb"
    batch_size: 100
    backend: LMDB
  }
}
layer {
  name: "conv0"
  type: "Convolution"
  bottom: "data"
  top: "conv0"
  param {
    lr_mult: 1
  }
  param {
    lr_mult: 2
  }
  convolution_param {
    num_output: 2
    kernel_size: 5
    stride: 1
    weight_filler {
      type: "xavier"
    }
    bias_filler {
      type: "constant"
    }
  }
}
layer {
  name: "pool0"
  type: "Pooling"
  bottom: "conv0"
  top: "pool0"
  pooling_param {
    pool: MAX
    kernel_size: 2
    stride: 2
  }
}
layer {
  name: "conv1"
  type: "Convolution"
  bottom: "pool0"
  top: "conv1"
  param {
    lr_mult: 1
  }
  param {
    lr_mult: 2
  }
  convolution_param {
    num_output: 25
    kernel_size: 5
    stride: 1
    weight_filler {
      type: "xavier"
    }
    bias_filler {
      type: "constant"
    }
  }
}
layer {
  name: "pool1"
  type: "Pooling"
  bottom: "conv1"
  top: "pool1"
  pooling_param {
    pool: MAX
    kernel_size: 2
    stride: 2
  }
}
layer {
  name: "ip1"
  type: "InnerProduct"
  bottom: "pool1"
  top: "ip1"
  param {
    lr_mult: 1
  }
  param {
    lr_mult: 2
  }
  inner_product_param {
    num_output: 10
    weight_filler {
      type: "xavier"
    }
    bias_filler {
      type: "constant"
    }
  }
}
layer {
  name: "relu1"
  type: "ReLU"
  bottom: "ip1"
  top: "ip1"
}
layer {
  name: "ip2"
  type: "InnerProduct"
  bottom: "ip1"
  top: "ip2"
  param {
    lr_mult: 1
  }
  param {
    lr_mult: 2
  }
  inner_product_param {
    num_output: 25
    weight_filler {
      type: "xavier"
    }
    bias_filler {
      type: "constant"
    }
  }
}
layer {
  name: "relu2"
  type: "ReLU"
  bottom: "ip2"
  top: "ip2"
}
layer {
  name: "ip3"
  type: "InnerProduct"
  bottom: "ip2"
  top: "ip3"
  param {
    lr_mult: 1
  }
  param {
    lr_mult: 2
  }
  inner_product_param {
    num_output: 10
    weight_filler {
      type: "xavier"
    }
    bias_filler {
      type: "constant"
    }
  }
}
layer {
  name: "relu3"
  type: "ReLU"
  bottom: "ip3"
  top: "ip3"
}
layer {
  name: "accuracy"
  type: "Accuracy"
  bottom: "ip3"
  bottom: "label"
  top: "accuracy"
  include {
    phase: TEST
  }
}
layer {
  name: "loss"
  type: "SoftmaxWithLoss"
  bottom: "ip3"
  bottom: "label"
  top: "loss"
}
I0428 19:42:51.645280 25204 layer_factory.hpp:77] Creating layer mnist
I0428 19:42:51.645330 25204 db_lmdb.cpp:35] Opened lmdb examples/mnist/mnist_test_lmdb
I0428 19:42:51.645349 25204 net.cpp:86] Creating Layer mnist
I0428 19:42:51.645354 25204 net.cpp:382] mnist -> data
I0428 19:42:51.645364 25204 net.cpp:382] mnist -> label
I0428 19:42:51.645462 25204 data_layer.cpp:45] output data size: 100,1,28,28
I0428 19:42:51.647641 25204 net.cpp:124] Setting up mnist
I0428 19:42:51.647665 25204 net.cpp:131] Top shape: 100 1 28 28 (78400)
I0428 19:42:51.647671 25204 net.cpp:131] Top shape: 100 (100)
I0428 19:42:51.647675 25204 net.cpp:139] Memory required for data: 314000
I0428 19:42:51.647680 25204 layer_factory.hpp:77] Creating layer label_mnist_1_split
I0428 19:42:51.647711 25204 net.cpp:86] Creating Layer label_mnist_1_split
I0428 19:42:51.647716 25204 net.cpp:408] label_mnist_1_split <- label
I0428 19:42:51.647722 25204 net.cpp:382] label_mnist_1_split -> label_mnist_1_split_0
I0428 19:42:51.647729 25204 net.cpp:382] label_mnist_1_split -> label_mnist_1_split_1
I0428 19:42:51.647791 25204 net.cpp:124] Setting up label_mnist_1_split
I0428 19:42:51.647799 25204 net.cpp:131] Top shape: 100 (100)
I0428 19:42:51.647802 25204 net.cpp:131] Top shape: 100 (100)
I0428 19:42:51.647805 25204 net.cpp:139] Memory required for data: 314800
I0428 19:42:51.647809 25204 layer_factory.hpp:77] Creating layer conv0
I0428 19:42:51.647819 25204 net.cpp:86] Creating Layer conv0
I0428 19:42:51.647822 25204 net.cpp:408] conv0 <- data
I0428 19:42:51.647828 25204 net.cpp:382] conv0 -> conv0
I0428 19:42:51.649765 25204 net.cpp:124] Setting up conv0
I0428 19:42:51.649783 25204 net.cpp:131] Top shape: 100 2 24 24 (115200)
I0428 19:42:51.649787 25204 net.cpp:139] Memory required for data: 775600
I0428 19:42:51.649798 25204 layer_factory.hpp:77] Creating layer pool0
I0428 19:42:51.649806 25204 net.cpp:86] Creating Layer pool0
I0428 19:42:51.649811 25204 net.cpp:408] pool0 <- conv0
I0428 19:42:51.649816 25204 net.cpp:382] pool0 -> pool0
I0428 19:42:51.649859 25204 net.cpp:124] Setting up pool0
I0428 19:42:51.649865 25204 net.cpp:131] Top shape: 100 2 12 12 (28800)
I0428 19:42:51.649869 25204 net.cpp:139] Memory required for data: 890800
I0428 19:42:51.649873 25204 layer_factory.hpp:77] Creating layer conv1
I0428 19:42:51.649883 25204 net.cpp:86] Creating Layer conv1
I0428 19:42:51.649886 25204 net.cpp:408] conv1 <- pool0
I0428 19:42:51.649893 25204 net.cpp:382] conv1 -> conv1
I0428 19:42:51.651582 25204 net.cpp:124] Setting up conv1
I0428 19:42:51.651598 25204 net.cpp:131] Top shape: 100 25 8 8 (160000)
I0428 19:42:51.651604 25204 net.cpp:139] Memory required for data: 1530800
I0428 19:42:51.651614 25204 layer_factory.hpp:77] Creating layer pool1
I0428 19:42:51.651621 25204 net.cpp:86] Creating Layer pool1
I0428 19:42:51.651626 25204 net.cpp:408] pool1 <- conv1
I0428 19:42:51.651633 25204 net.cpp:382] pool1 -> pool1
I0428 19:42:51.651675 25204 net.cpp:124] Setting up pool1
I0428 19:42:51.651682 25204 net.cpp:131] Top shape: 100 25 4 4 (40000)
I0428 19:42:51.651685 25204 net.cpp:139] Memory required for data: 1690800
I0428 19:42:51.651690 25204 layer_factory.hpp:77] Creating layer ip1
I0428 19:42:51.651695 25204 net.cpp:86] Creating Layer ip1
I0428 19:42:51.651700 25204 net.cpp:408] ip1 <- pool1
I0428 19:42:51.651705 25204 net.cpp:382] ip1 -> ip1
I0428 19:42:51.651841 25204 net.cpp:124] Setting up ip1
I0428 19:42:51.651850 25204 net.cpp:131] Top shape: 100 10 (1000)
I0428 19:42:51.651867 25204 net.cpp:139] Memory required for data: 1694800
I0428 19:42:51.651876 25204 layer_factory.hpp:77] Creating layer relu1
I0428 19:42:51.651882 25204 net.cpp:86] Creating Layer relu1
I0428 19:42:51.651886 25204 net.cpp:408] relu1 <- ip1
I0428 19:42:51.651891 25204 net.cpp:369] relu1 -> ip1 (in-place)
I0428 19:42:51.652076 25204 net.cpp:124] Setting up relu1
I0428 19:42:51.652086 25204 net.cpp:131] Top shape: 100 10 (1000)
I0428 19:42:51.652091 25204 net.cpp:139] Memory required for data: 1698800
I0428 19:42:51.652093 25204 layer_factory.hpp:77] Creating layer ip2
I0428 19:42:51.652101 25204 net.cpp:86] Creating Layer ip2
I0428 19:42:51.652107 25204 net.cpp:408] ip2 <- ip1
I0428 19:42:51.652112 25204 net.cpp:382] ip2 -> ip2
I0428 19:42:51.652225 25204 net.cpp:124] Setting up ip2
I0428 19:42:51.652233 25204 net.cpp:131] Top shape: 100 25 (2500)
I0428 19:42:51.652237 25204 net.cpp:139] Memory required for data: 1708800
I0428 19:42:51.652243 25204 layer_factory.hpp:77] Creating layer relu2
I0428 19:42:51.652248 25204 net.cpp:86] Creating Layer relu2
I0428 19:42:51.652252 25204 net.cpp:408] relu2 <- ip2
I0428 19:42:51.652257 25204 net.cpp:369] relu2 -> ip2 (in-place)
I0428 19:42:51.652433 25204 net.cpp:124] Setting up relu2
I0428 19:42:51.652442 25204 net.cpp:131] Top shape: 100 25 (2500)
I0428 19:42:51.652446 25204 net.cpp:139] Memory required for data: 1718800
I0428 19:42:51.652451 25204 layer_factory.hpp:77] Creating layer ip3
I0428 19:42:51.652456 25204 net.cpp:86] Creating Layer ip3
I0428 19:42:51.652460 25204 net.cpp:408] ip3 <- ip2
I0428 19:42:51.652467 25204 net.cpp:382] ip3 -> ip3
I0428 19:42:51.652590 25204 net.cpp:124] Setting up ip3
I0428 19:42:51.652598 25204 net.cpp:131] Top shape: 100 10 (1000)
I0428 19:42:51.652602 25204 net.cpp:139] Memory required for data: 1722800
I0428 19:42:51.652611 25204 layer_factory.hpp:77] Creating layer relu3
I0428 19:42:51.652616 25204 net.cpp:86] Creating Layer relu3
I0428 19:42:51.652621 25204 net.cpp:408] relu3 <- ip3
I0428 19:42:51.652626 25204 net.cpp:369] relu3 -> ip3 (in-place)
I0428 19:42:51.653591 25204 net.cpp:124] Setting up relu3
I0428 19:42:51.653607 25204 net.cpp:131] Top shape: 100 10 (1000)
I0428 19:42:51.653611 25204 net.cpp:139] Memory required for data: 1726800
I0428 19:42:51.653616 25204 layer_factory.hpp:77] Creating layer ip3_relu3_0_split
I0428 19:42:51.653623 25204 net.cpp:86] Creating Layer ip3_relu3_0_split
I0428 19:42:51.653627 25204 net.cpp:408] ip3_relu3_0_split <- ip3
I0428 19:42:51.653633 25204 net.cpp:382] ip3_relu3_0_split -> ip3_relu3_0_split_0
I0428 19:42:51.653640 25204 net.cpp:382] ip3_relu3_0_split -> ip3_relu3_0_split_1
I0428 19:42:51.653692 25204 net.cpp:124] Setting up ip3_relu3_0_split
I0428 19:42:51.653698 25204 net.cpp:131] Top shape: 100 10 (1000)
I0428 19:42:51.653704 25204 net.cpp:131] Top shape: 100 10 (1000)
I0428 19:42:51.653707 25204 net.cpp:139] Memory required for data: 1734800
I0428 19:42:51.653710 25204 layer_factory.hpp:77] Creating layer accuracy
I0428 19:42:51.653717 25204 net.cpp:86] Creating Layer accuracy
I0428 19:42:51.653720 25204 net.cpp:408] accuracy <- ip3_relu3_0_split_0
I0428 19:42:51.653725 25204 net.cpp:408] accuracy <- label_mnist_1_split_0
I0428 19:42:51.653738 25204 net.cpp:382] accuracy -> accuracy
…
