…
I0428 20:04:23.778520 30375 net.cpp:296] The NetState phase (0) differed from the phase (1) specified by a rule in layer mnist
I0428 20:04:23.778542 30375 net.cpp:296] The NetState phase (0) differed from the phase (1) specified by a rule in layer accuracy
I0428 20:04:23.778643 30375 net.cpp:53] Initializing net from parameters: 
name: "LeNet"
state {
  phase: TRAIN
  level: 0
  stage: ""
}
layer {
  name: "mnist"
  type: "Data"
  top: "data"
  top: "label"
  include {
    phase: TRAIN
  }
  transform_param {
    scale: 0.00390625
  }
  data_param {
    source: "examples/mnist/mnist_train_lmdb"
    batch_size: 64
    backend: LMDB
  }
}
layer {
  name: "conv0"
  type: "Convolution"
  bottom: "data"
  top: "conv0"
  param {
    lr_mult: 1
  }
  param {
    lr_mult: 2
  }
  convolution_param {
    num_output: 10
    kernel_size: 5
    stride: 1
    weight_filler {
      type: "xavier"
    }
    bias_filler {
      type: "constant"
    }
  }
}
layer {
  name: "pool0"
  type: "Pooling"
  bottom: "conv0"
  top: "pool0"
  pooling_param {
    pool: MAX
    kernel_size: 2
    stride: 2
  }
}
layer {
  name: "conv1"
  type: "Convolution"
  bottom: "pool0"
  top: "conv1"
  param {
    lr_mult: 1
  }
  param {
    lr_mult: 2
  }
  convolution_param {
    num_output: 100
    kernel_size: 5
    stride: 1
    weight_filler {
      type: "xavier"
    }
    bias_filler {
      type: "constant"
    }
  }
}
layer {
  name: "pool1"
  type: "Pooling"
  bottom: "conv1"
  top: "pool1"
  pooling_param {
    pool: MAX
    kernel_size: 2
    stride: 2
  }
}
layer {
  name: "ip1"
  type: "InnerProduct"
  bottom: "pool1"
  top: "ip1"
  param {
    lr_mult: 1
  }
  param {
    lr_mult: 2
  }
  inner_product_param {
    num_output: 50
    weight_filler {
      type: "xavier"
    }
    bias_filler {
      type: "constant"
    }
  }
}
layer {
  name: "relu1"
  type: "ReLU"
  bottom: "ip1"
  top: "ip1"
}
layer {
  name: "ip2"
  type: "InnerProduct"
  bottom: "ip1"
  top: "ip2"
  param {
    lr_mult: 1
  }
  param {
    lr_mult: 2
  }
  inner_product_param {
    num_output: 25
    weight_filler {
      type: "xavier"
    }
    bias_filler {
      type: "constant"
    }
  }
}
layer {
  name: "relu2"
  type: "ReLU"
  bottom: "ip2"
  top: "ip2"
}
layer {
  name: "ip3"
  type: "InnerProduct"
  bottom: "ip2"
  top: "ip3"
  param {
    lr_mult: 1
  }
  param {
    lr_mult: 2
  }
  inner_product_param {
    num_output: 10
    weight_filler {
      type: "xavier"
    }
    bias_filler {
      type: "constant"
    }
  }
}
layer {
  name: "relu3"
  type: "ReLU"
  bottom: "ip3"
  top: "ip3"
}
layer {
  name: "loss"
  type: "SoftmaxWithLoss"
  bottom: "ip3"
  bottom: "label"
  top: "loss"
}
I0428 20:04:23.778724 30375 layer_factory.hpp:77] Creating layer mnist
I0428 20:04:23.778825 30375 db_lmdb.cpp:35] Opened lmdb examples/mnist/mnist_train_lmdb
I0428 20:04:23.778847 30375 net.cpp:86] Creating Layer mnist
I0428 20:04:23.778856 30375 net.cpp:382] mnist -> data
I0428 20:04:23.778879 30375 net.cpp:382] mnist -> label
I0428 20:04:23.779971 30375 data_layer.cpp:45] output data size: 64,1,28,28
I0428 20:04:23.782418 30375 net.cpp:124] Setting up mnist
I0428 20:04:23.782459 30375 net.cpp:131] Top shape: 64 1 28 28 (50176)
I0428 20:04:23.782465 30375 net.cpp:131] Top shape: 64 (64)
I0428 20:04:23.782469 30375 net.cpp:139] Memory required for data: 200960
I0428 20:04:23.782476 30375 layer_factory.hpp:77] Creating layer conv0
I0428 20:04:23.782493 30375 net.cpp:86] Creating Layer conv0
I0428 20:04:23.782519 30375 net.cpp:408] conv0 <- data
I0428 20:04:23.782533 30375 net.cpp:382] conv0 -> conv0
I0428 20:04:24.036519 30375 net.cpp:124] Setting up conv0
I0428 20:04:24.036561 30375 net.cpp:131] Top shape: 64 10 24 24 (368640)
I0428 20:04:24.036566 30375 net.cpp:139] Memory required for data: 1675520
I0428 20:04:24.036581 30375 layer_factory.hpp:77] Creating layer pool0
I0428 20:04:24.036592 30375 net.cpp:86] Creating Layer pool0
I0428 20:04:24.036597 30375 net.cpp:408] pool0 <- conv0
I0428 20:04:24.036617 30375 net.cpp:382] pool0 -> pool0
I0428 20:04:24.036662 30375 net.cpp:124] Setting up pool0
I0428 20:04:24.036677 30375 net.cpp:131] Top shape: 64 10 12 12 (92160)
I0428 20:04:24.036680 30375 net.cpp:139] Memory required for data: 2044160
I0428 20:04:24.036684 30375 layer_factory.hpp:77] Creating layer conv1
I0428 20:04:24.036694 30375 net.cpp:86] Creating Layer conv1
I0428 20:04:24.036696 30375 net.cpp:408] conv1 <- pool0
I0428 20:04:24.036701 30375 net.cpp:382] conv1 -> conv1
I0428 20:04:24.038756 30375 net.cpp:124] Setting up conv1
I0428 20:04:24.038771 30375 net.cpp:131] Top shape: 64 100 8 8 (409600)
I0428 20:04:24.038775 30375 net.cpp:139] Memory required for data: 3682560
I0428 20:04:24.038784 30375 layer_factory.hpp:77] Creating layer pool1
I0428 20:04:24.038791 30375 net.cpp:86] Creating Layer pool1
I0428 20:04:24.038794 30375 net.cpp:408] pool1 <- conv1
I0428 20:04:24.038800 30375 net.cpp:382] pool1 -> pool1
I0428 20:04:24.038836 30375 net.cpp:124] Setting up pool1
I0428 20:04:24.038847 30375 net.cpp:131] Top shape: 64 100 4 4 (102400)
I0428 20:04:24.038851 30375 net.cpp:139] Memory required for data: 4092160
I0428 20:04:24.038853 30375 layer_factory.hpp:77] Creating layer ip1
I0428 20:04:24.038861 30375 net.cpp:86] Creating Layer ip1
I0428 20:04:24.038863 30375 net.cpp:408] ip1 <- pool1
I0428 20:04:24.038868 30375 net.cpp:382] ip1 -> ip1
I0428 20:04:24.040271 30375 net.cpp:124] Setting up ip1
I0428 20:04:24.040282 30375 net.cpp:131] Top shape: 64 50 (3200)
I0428 20:04:24.040302 30375 net.cpp:139] Memory required for data: 4104960
I0428 20:04:24.040309 30375 layer_factory.hpp:77] Creating layer relu1
I0428 20:04:24.040316 30375 net.cpp:86] Creating Layer relu1
I0428 20:04:24.040319 30375 net.cpp:408] relu1 <- ip1
I0428 20:04:24.040324 30375 net.cpp:369] relu1 -> ip1 (in-place)
I0428 20:04:24.040482 30375 net.cpp:124] Setting up relu1
I0428 20:04:24.040491 30375 net.cpp:131] Top shape: 64 50 (3200)
I0428 20:04:24.040494 30375 net.cpp:139] Memory required for data: 4117760
I0428 20:04:24.040498 30375 layer_factory.hpp:77] Creating layer ip2
I0428 20:04:24.040503 30375 net.cpp:86] Creating Layer ip2
I0428 20:04:24.040506 30375 net.cpp:408] ip2 <- ip1
I0428 20:04:24.040511 30375 net.cpp:382] ip2 -> ip2
I0428 20:04:24.041522 30375 net.cpp:124] Setting up ip2
I0428 20:04:24.041532 30375 net.cpp:131] Top shape: 64 25 (1600)
I0428 20:04:24.041550 30375 net.cpp:139] Memory required for data: 4124160
I0428 20:04:24.041556 30375 layer_factory.hpp:77] Creating layer relu2
I0428 20:04:24.041563 30375 net.cpp:86] Creating Layer relu2
I0428 20:04:24.041566 30375 net.cpp:408] relu2 <- ip2
I0428 20:04:24.041570 30375 net.cpp:369] relu2 -> ip2 (in-place)
I0428 20:04:24.042265 30375 net.cpp:124] Setting up relu2
I0428 20:04:24.042276 30375 net.cpp:131] Top shape: 64 25 (1600)
I0428 20:04:24.042295 30375 net.cpp:139] Memory required for data: 4130560
I0428 20:04:24.042299 30375 layer_factory.hpp:77] Creating layer ip3
I0428 20:04:24.042320 30375 net.cpp:86] Creating Layer ip3
I0428 20:04:24.042323 30375 net.cpp:408] ip3 <- ip2
I0428 20:04:24.042328 30375 net.cpp:382] ip3 -> ip3
I0428 20:04:24.042418 30375 net.cpp:124] Setting up ip3
I0428 20:04:24.042425 30375 net.cpp:131] Top shape: 64 10 (640)
I0428 20:04:24.042428 30375 net.cpp:139] Memory required for data: 4133120
I0428 20:04:24.042435 30375 layer_factory.hpp:77] Creating layer relu3
I0428 20:04:24.042440 30375 net.cpp:86] Creating Layer relu3
I0428 20:04:24.042443 30375 net.cpp:408] relu3 <- ip3
I0428 20:04:24.042446 30375 net.cpp:369] relu3 -> ip3 (in-place)
I0428 20:04:24.042601 30375 net.cpp:124] Setting up relu3
I0428 20:04:24.042609 30375 net.cpp:131] Top shape: 64 10 (640)
I0428 20:04:24.042613 30375 net.cpp:139] Memory required for data: 4135680
I0428 20:04:24.042615 30375 layer_factory.hpp:77] Creating layer loss
I0428 20:04:24.042620 30375 net.cpp:86] Creating Layer loss
I0428 20:04:24.042623 30375 net.cpp:408] loss <- ip3
I0428 20:04:24.042628 30375 net.cpp:408] loss <- label
I0428 20:04:24.042632 30375 net.cpp:382] loss -> loss
I0428 20:04:24.042645 30375 layer_factory.hpp:77] Creating layer loss
…
I0428 20:04:24.043251 30375 solver.cpp:173] Creating test net (#0) specified by net file: ECE595/mnist/train_test/var_everything2/lenet_train_test971.prototxt
I0428 20:04:24.043292 30375 net.cpp:296] The NetState phase (1) differed from the phase (0) specified by a rule in layer mnist
I0428 20:04:24.043376 30375 net.cpp:53] Initializing net from parameters: 
name: "LeNet"
state {
  phase: TEST
}
layer {
  name: "mnist"
  type: "Data"
  top: "data"
  top: "label"
  include {
    phase: TEST
  }
  transform_param {
    scale: 0.00390625
  }
  data_param {
    source: "examples/mnist/mnist_test_lmdb"
    batch_size: 100
    backend: LMDB
  }
}
layer {
  name: "conv0"
  type: "Convolution"
  bottom: "data"
  top: "conv0"
  param {
    lr_mult: 1
  }
  param {
    lr_mult: 2
  }
  convolution_param {
    num_output: 10
    kernel_size: 5
    stride: 1
    weight_filler {
      type: "xavier"
    }
    bias_filler {
      type: "constant"
    }
  }
}
layer {
  name: "pool0"
  type: "Pooling"
  bottom: "conv0"
  top: "pool0"
  pooling_param {
    pool: MAX
    kernel_size: 2
    stride: 2
  }
}
layer {
  name: "conv1"
  type: "Convolution"
  bottom: "pool0"
  top: "conv1"
  param {
    lr_mult: 1
  }
  param {
    lr_mult: 2
  }
  convolution_param {
    num_output: 100
    kernel_size: 5
    stride: 1
    weight_filler {
      type: "xavier"
    }
    bias_filler {
      type: "constant"
    }
  }
}
layer {
  name: "pool1"
  type: "Pooling"
  bottom: "conv1"
  top: "pool1"
  pooling_param {
    pool: MAX
    kernel_size: 2
    stride: 2
  }
}
layer {
  name: "ip1"
  type: "InnerProduct"
  bottom: "pool1"
  top: "ip1"
  param {
    lr_mult: 1
  }
  param {
    lr_mult: 2
  }
  inner_product_param {
    num_output: 50
    weight_filler {
      type: "xavier"
    }
    bias_filler {
      type: "constant"
    }
  }
}
layer {
  name: "relu1"
  type: "ReLU"
  bottom: "ip1"
  top: "ip1"
}
layer {
  name: "ip2"
  type: "InnerProduct"
  bottom: "ip1"
  top: "ip2"
  param {
    lr_mult: 1
  }
  param {
    lr_mult: 2
  }
  inner_product_param {
    num_output: 25
    weight_filler {
      type: "xavier"
    }
    bias_filler {
      type: "constant"
    }
  }
}
layer {
  name: "relu2"
  type: "ReLU"
  bottom: "ip2"
  top: "ip2"
}
layer {
  name: "ip3"
  type: "InnerProduct"
  bottom: "ip2"
  top: "ip3"
  param {
    lr_mult: 1
  }
  param {
    lr_mult: 2
  }
  inner_product_param {
    num_output: 10
    weight_filler {
      type: "xavier"
    }
    bias_filler {
      type: "constant"
    }
  }
}
layer {
  name: "relu3"
  type: "ReLU"
  bottom: "ip3"
  top: "ip3"
}
layer {
  name: "accuracy"
  type: "Accuracy"
  bottom: "ip3"
  bottom: "label"
  top: "accuracy"
  include {
    phase: TEST
  }
}
layer {
  name: "loss"
  type: "SoftmaxWithLoss"
  bottom: "ip3"
  bottom: "label"
  top: "loss"
}
I0428 20:04:24.043465 30375 layer_factory.hpp:77] Creating layer mnist
I0428 20:04:24.043522 30375 db_lmdb.cpp:35] Opened lmdb examples/mnist/mnist_test_lmdb
I0428 20:04:24.043534 30375 net.cpp:86] Creating Layer mnist
I0428 20:04:24.043539 30375 net.cpp:382] mnist -> data
I0428 20:04:24.043546 30375 net.cpp:382] mnist -> label
I0428 20:04:24.043627 30375 data_layer.cpp:45] output data size: 100,1,28,28
I0428 20:04:24.044886 30375 net.cpp:124] Setting up mnist
I0428 20:04:24.044915 30375 net.cpp:131] Top shape: 100 1 28 28 (78400)
I0428 20:04:24.044920 30375 net.cpp:131] Top shape: 100 (100)
I0428 20:04:24.044924 30375 net.cpp:139] Memory required for data: 314000
I0428 20:04:24.044927 30375 layer_factory.hpp:77] Creating layer label_mnist_1_split
I0428 20:04:24.044934 30375 net.cpp:86] Creating Layer label_mnist_1_split
I0428 20:04:24.044937 30375 net.cpp:408] label_mnist_1_split <- label
I0428 20:04:24.044942 30375 net.cpp:382] label_mnist_1_split -> label_mnist_1_split_0
I0428 20:04:24.044948 30375 net.cpp:382] label_mnist_1_split -> label_mnist_1_split_1
I0428 20:04:24.044994 30375 net.cpp:124] Setting up label_mnist_1_split
I0428 20:04:24.045001 30375 net.cpp:131] Top shape: 100 (100)
I0428 20:04:24.045006 30375 net.cpp:131] Top shape: 100 (100)
I0428 20:04:24.045007 30375 net.cpp:139] Memory required for data: 314800
I0428 20:04:24.045011 30375 layer_factory.hpp:77] Creating layer conv0
I0428 20:04:24.045019 30375 net.cpp:86] Creating Layer conv0
I0428 20:04:24.045022 30375 net.cpp:408] conv0 <- data
I0428 20:04:24.045027 30375 net.cpp:382] conv0 -> conv0
I0428 20:04:24.046751 30375 net.cpp:124] Setting up conv0
I0428 20:04:24.046767 30375 net.cpp:131] Top shape: 100 10 24 24 (576000)
I0428 20:04:24.046771 30375 net.cpp:139] Memory required for data: 2618800
I0428 20:04:24.046779 30375 layer_factory.hpp:77] Creating layer pool0
I0428 20:04:24.046785 30375 net.cpp:86] Creating Layer pool0
I0428 20:04:24.046788 30375 net.cpp:408] pool0 <- conv0
I0428 20:04:24.046792 30375 net.cpp:382] pool0 -> pool0
I0428 20:04:24.046828 30375 net.cpp:124] Setting up pool0
I0428 20:04:24.046839 30375 net.cpp:131] Top shape: 100 10 12 12 (144000)
I0428 20:04:24.046842 30375 net.cpp:139] Memory required for data: 3194800
I0428 20:04:24.046844 30375 layer_factory.hpp:77] Creating layer conv1
I0428 20:04:24.046854 30375 net.cpp:86] Creating Layer conv1
I0428 20:04:24.046857 30375 net.cpp:408] conv1 <- pool0
I0428 20:04:24.046862 30375 net.cpp:382] conv1 -> conv1
I0428 20:04:24.048645 30375 net.cpp:124] Setting up conv1
I0428 20:04:24.048660 30375 net.cpp:131] Top shape: 100 100 8 8 (640000)
I0428 20:04:24.048663 30375 net.cpp:139] Memory required for data: 5754800
I0428 20:04:24.048673 30375 layer_factory.hpp:77] Creating layer pool1
I0428 20:04:24.048681 30375 net.cpp:86] Creating Layer pool1
I0428 20:04:24.048686 30375 net.cpp:408] pool1 <- conv1
I0428 20:04:24.048691 30375 net.cpp:382] pool1 -> pool1
I0428 20:04:24.048729 30375 net.cpp:124] Setting up pool1
I0428 20:04:24.048737 30375 net.cpp:131] Top shape: 100 100 4 4 (160000)
I0428 20:04:24.048739 30375 net.cpp:139] Memory required for data: 6394800
I0428 20:04:24.048743 30375 layer_factory.hpp:77] Creating layer ip1
I0428 20:04:24.048749 30375 net.cpp:86] Creating Layer ip1
I0428 20:04:24.048758 30375 net.cpp:408] ip1 <- pool1
I0428 20:04:24.048764 30375 net.cpp:382] ip1 -> ip1
I0428 20:04:24.049362 30375 net.cpp:124] Setting up ip1
I0428 20:04:24.049371 30375 net.cpp:131] Top shape: 100 50 (5000)
I0428 20:04:24.049384 30375 net.cpp:139] Memory required for data: 6414800
I0428 20:04:24.049392 30375 layer_factory.hpp:77] Creating layer relu1
I0428 20:04:24.049398 30375 net.cpp:86] Creating Layer relu1
I0428 20:04:24.049402 30375 net.cpp:408] relu1 <- ip1
I0428 20:04:24.049407 30375 net.cpp:369] relu1 -> ip1 (in-place)
I0428 20:04:24.049567 30375 net.cpp:124] Setting up relu1
I0428 20:04:24.049576 30375 net.cpp:131] Top shape: 100 50 (5000)
I0428 20:04:24.049579 30375 net.cpp:139] Memory required for data: 6434800
I0428 20:04:24.049582 30375 layer_factory.hpp:77] Creating layer ip2
I0428 20:04:24.049590 30375 net.cpp:86] Creating Layer ip2
I0428 20:04:24.049593 30375 net.cpp:408] ip2 <- ip1
I0428 20:04:24.049598 30375 net.cpp:382] ip2 -> ip2
I0428 20:04:24.049722 30375 net.cpp:124] Setting up ip2
I0428 20:04:24.049729 30375 net.cpp:131] Top shape: 100 25 (2500)
I0428 20:04:24.049733 30375 net.cpp:139] Memory required for data: 6444800
I0428 20:04:24.049738 30375 layer_factory.hpp:77] Creating layer relu2
I0428 20:04:24.049743 30375 net.cpp:86] Creating Layer relu2
I0428 20:04:24.049746 30375 net.cpp:408] relu2 <- ip2
I0428 20:04:24.049759 30375 net.cpp:369] relu2 -> ip2 (in-place)
I0428 20:04:24.049919 30375 net.cpp:124] Setting up relu2
I0428 20:04:24.049927 30375 net.cpp:131] Top shape: 100 25 (2500)
I0428 20:04:24.049932 30375 net.cpp:139] Memory required for data: 6454800
I0428 20:04:24.049934 30375 layer_factory.hpp:77] Creating layer ip3
I0428 20:04:24.049942 30375 net.cpp:86] Creating Layer ip3
I0428 20:04:24.049949 30375 net.cpp:408] ip3 <- ip2
I0428 20:04:24.049955 30375 net.cpp:382] ip3 -> ip3
I0428 20:04:24.050076 30375 net.cpp:124] Setting up ip3
I0428 20:04:24.050084 30375 net.cpp:131] Top shape: 100 10 (1000)
I0428 20:04:24.050087 30375 net.cpp:139] Memory required for data: 6458800
I0428 20:04:24.050094 30375 layer_factory.hpp:77] Creating layer relu3
I0428 20:04:24.050099 30375 net.cpp:86] Creating Layer relu3
I0428 20:04:24.050102 30375 net.cpp:408] relu3 <- ip3
I0428 20:04:24.050107 30375 net.cpp:369] relu3 -> ip3 (in-place)
I0428 20:04:24.050935 30375 net.cpp:124] Setting up relu3
I0428 20:04:24.050948 30375 net.cpp:131] Top shape: 100 10 (1000)
I0428 20:04:24.050952 30375 net.cpp:139] Memory required for data: 6462800
I0428 20:04:24.050961 30375 layer_factory.hpp:77] Creating layer ip3_relu3_0_split
I0428 20:04:24.050966 30375 net.cpp:86] Creating Layer ip3_relu3_0_split
I0428 20:04:24.050971 30375 net.cpp:408] ip3_relu3_0_split <- ip3
I0428 20:04:24.050976 30375 net.cpp:382] ip3_relu3_0_split -> ip3_relu3_0_split_0
I0428 20:04:24.050983 30375 net.cpp:382] ip3_relu3_0_split -> ip3_relu3_0_split_1
I0428 20:04:24.051021 30375 net.cpp:124] Setting up ip3_relu3_0_split
I0428 20:04:24.051028 30375 net.cpp:131] Top shape: 100 10 (1000)
I0428 20:04:24.051033 30375 net.cpp:131] Top shape: 100 10 (1000)
I0428 20:04:24.051035 30375 net.cpp:139] Memory required for data: 6470800
I0428 20:04:24.051038 30375 layer_factory.hpp:77] Creating layer accuracy
I0428 20:04:24.051044 30375 net.cpp:86] Creating Layer accuracy
I0428 20:04:24.051048 30375 net.cpp:408] accuracy <- ip3_relu3_0_split_0
I0428 20:04:24.051053 30375 net.cpp:408] accuracy <- label_mnist_1_split_0
I0428 20:04:24.051056 30375 net.cpp:382] accuracy -> accuracy
…
