…
I0428 19:51:48.783970 27367 net.cpp:296] The NetState phase (0) differed from the phase (1) specified by a rule in layer mnist
I0428 19:51:48.783989 27367 net.cpp:296] The NetState phase (0) differed from the phase (1) specified by a rule in layer accuracy
I0428 19:51:48.784093 27367 net.cpp:53] Initializing net from parameters: 
name: "LeNet"
state {
  phase: TRAIN
  level: 0
  stage: ""
}
layer {
  name: "mnist"
  type: "Data"
  top: "data"
  top: "label"
  include {
    phase: TRAIN
  }
  transform_param {
    scale: 0.00390625
  }
  data_param {
    source: "examples/mnist/mnist_train_lmdb"
    batch_size: 64
    backend: LMDB
  }
}
layer {
  name: "conv0"
  type: "Convolution"
  bottom: "data"
  top: "conv0"
  param {
    lr_mult: 1
  }
  param {
    lr_mult: 2
  }
  convolution_param {
    num_output: 5
    kernel_size: 5
    stride: 1
    weight_filler {
      type: "xavier"
    }
    bias_filler {
      type: "constant"
    }
  }
}
layer {
  name: "pool0"
  type: "Pooling"
  bottom: "conv0"
  top: "pool0"
  pooling_param {
    pool: MAX
    kernel_size: 2
    stride: 2
  }
}
layer {
  name: "conv1"
  type: "Convolution"
  bottom: "pool0"
  top: "conv1"
  param {
    lr_mult: 1
  }
  param {
    lr_mult: 2
  }
  convolution_param {
    num_output: 25
    kernel_size: 5
    stride: 1
    weight_filler {
      type: "xavier"
    }
    bias_filler {
      type: "constant"
    }
  }
}
layer {
  name: "pool1"
  type: "Pooling"
  bottom: "conv1"
  top: "pool1"
  pooling_param {
    pool: MAX
    kernel_size: 2
    stride: 2
  }
}
layer {
  name: "ip1"
  type: "InnerProduct"
  bottom: "pool1"
  top: "ip1"
  param {
    lr_mult: 1
  }
  param {
    lr_mult: 2
  }
  inner_product_param {
    num_output: 10
    weight_filler {
      type: "xavier"
    }
    bias_filler {
      type: "constant"
    }
  }
}
layer {
  name: "relu1"
  type: "ReLU"
  bottom: "ip1"
  top: "ip1"
}
layer {
  name: "ip2"
  type: "InnerProduct"
  bottom: "ip1"
  top: "ip2"
  param {
    lr_mult: 1
  }
  param {
    lr_mult: 2
  }
  inner_product_param {
    num_output: 50
    weight_filler {
      type: "xavier"
    }
    bias_filler {
      type: "constant"
    }
  }
}
layer {
  name: "relu2"
  type: "ReLU"
  bottom: "ip2"
  top: "ip2"
}
layer {
  name: "ip3"
  type: "InnerProduct"
  bottom: "ip2"
  top: "ip3"
  param {
    lr_mult: 1
  }
  param {
    lr_mult: 2
  }
  inner_product_param {
    num_output: 10
    weight_filler {
      type: "xavier"
    }
    bias_filler {
      type: "constant"
    }
  }
}
layer {
  name: "relu3"
  type: "ReLU"
  bottom: "ip3"
  top: "ip3"
}
layer {
  name: "loss"
  type: "SoftmaxWithLoss"
  bottom: "ip3"
  bottom: "label"
  top: "loss"
}
I0428 19:51:48.784175 27367 layer_factory.hpp:77] Creating layer mnist
I0428 19:51:48.784277 27367 db_lmdb.cpp:35] Opened lmdb examples/mnist/mnist_train_lmdb
I0428 19:51:48.784301 27367 net.cpp:86] Creating Layer mnist
I0428 19:51:48.784310 27367 net.cpp:382] mnist -> data
I0428 19:51:48.784334 27367 net.cpp:382] mnist -> label
I0428 19:51:48.785430 27367 data_layer.cpp:45] output data size: 64,1,28,28
I0428 19:51:48.788092 27367 net.cpp:124] Setting up mnist
I0428 19:51:48.788128 27367 net.cpp:131] Top shape: 64 1 28 28 (50176)
I0428 19:51:48.788136 27367 net.cpp:131] Top shape: 64 (64)
I0428 19:51:48.788138 27367 net.cpp:139] Memory required for data: 200960
I0428 19:51:48.788146 27367 layer_factory.hpp:77] Creating layer conv0
I0428 19:51:48.788163 27367 net.cpp:86] Creating Layer conv0
I0428 19:51:48.788185 27367 net.cpp:408] conv0 <- data
I0428 19:51:48.788197 27367 net.cpp:382] conv0 -> conv0
I0428 19:51:49.043246 27367 net.cpp:124] Setting up conv0
I0428 19:51:49.043288 27367 net.cpp:131] Top shape: 64 5 24 24 (184320)
I0428 19:51:49.043292 27367 net.cpp:139] Memory required for data: 938240
I0428 19:51:49.043308 27367 layer_factory.hpp:77] Creating layer pool0
I0428 19:51:49.043335 27367 net.cpp:86] Creating Layer pool0
I0428 19:51:49.043339 27367 net.cpp:408] pool0 <- conv0
I0428 19:51:49.043344 27367 net.cpp:382] pool0 -> pool0
I0428 19:51:49.043390 27367 net.cpp:124] Setting up pool0
I0428 19:51:49.043397 27367 net.cpp:131] Top shape: 64 5 12 12 (46080)
I0428 19:51:49.043401 27367 net.cpp:139] Memory required for data: 1122560
I0428 19:51:49.043403 27367 layer_factory.hpp:77] Creating layer conv1
I0428 19:51:49.043414 27367 net.cpp:86] Creating Layer conv1
I0428 19:51:49.043417 27367 net.cpp:408] conv1 <- pool0
I0428 19:51:49.043422 27367 net.cpp:382] conv1 -> conv1
I0428 19:51:49.046177 27367 net.cpp:124] Setting up conv1
I0428 19:51:49.046192 27367 net.cpp:131] Top shape: 64 25 8 8 (102400)
I0428 19:51:49.046195 27367 net.cpp:139] Memory required for data: 1532160
I0428 19:51:49.046203 27367 layer_factory.hpp:77] Creating layer pool1
I0428 19:51:49.046211 27367 net.cpp:86] Creating Layer pool1
I0428 19:51:49.046214 27367 net.cpp:408] pool1 <- conv1
I0428 19:51:49.046233 27367 net.cpp:382] pool1 -> pool1
I0428 19:51:49.046269 27367 net.cpp:124] Setting up pool1
I0428 19:51:49.046275 27367 net.cpp:131] Top shape: 64 25 4 4 (25600)
I0428 19:51:49.046278 27367 net.cpp:139] Memory required for data: 1634560
I0428 19:51:49.046280 27367 layer_factory.hpp:77] Creating layer ip1
I0428 19:51:49.046288 27367 net.cpp:86] Creating Layer ip1
I0428 19:51:49.046290 27367 net.cpp:408] ip1 <- pool1
I0428 19:51:49.046294 27367 net.cpp:382] ip1 -> ip1
I0428 19:51:49.046416 27367 net.cpp:124] Setting up ip1
I0428 19:51:49.046425 27367 net.cpp:131] Top shape: 64 10 (640)
I0428 19:51:49.046428 27367 net.cpp:139] Memory required for data: 1637120
I0428 19:51:49.046435 27367 layer_factory.hpp:77] Creating layer relu1
I0428 19:51:49.046442 27367 net.cpp:86] Creating Layer relu1
I0428 19:51:49.046444 27367 net.cpp:408] relu1 <- ip1
I0428 19:51:49.046447 27367 net.cpp:369] relu1 -> ip1 (in-place)
I0428 19:51:49.046627 27367 net.cpp:124] Setting up relu1
I0428 19:51:49.046636 27367 net.cpp:131] Top shape: 64 10 (640)
I0428 19:51:49.046639 27367 net.cpp:139] Memory required for data: 1639680
I0428 19:51:49.046643 27367 layer_factory.hpp:77] Creating layer ip2
I0428 19:51:49.046648 27367 net.cpp:86] Creating Layer ip2
I0428 19:51:49.046651 27367 net.cpp:408] ip2 <- ip1
I0428 19:51:49.046656 27367 net.cpp:382] ip2 -> ip2
I0428 19:51:49.046753 27367 net.cpp:124] Setting up ip2
I0428 19:51:49.046761 27367 net.cpp:131] Top shape: 64 50 (3200)
I0428 19:51:49.046763 27367 net.cpp:139] Memory required for data: 1652480
I0428 19:51:49.046768 27367 layer_factory.hpp:77] Creating layer relu2
I0428 19:51:49.046774 27367 net.cpp:86] Creating Layer relu2
I0428 19:51:49.046777 27367 net.cpp:408] relu2 <- ip2
I0428 19:51:49.046782 27367 net.cpp:369] relu2 -> ip2 (in-place)
I0428 19:51:49.047508 27367 net.cpp:124] Setting up relu2
I0428 19:51:49.047519 27367 net.cpp:131] Top shape: 64 50 (3200)
I0428 19:51:49.047523 27367 net.cpp:139] Memory required for data: 1665280
I0428 19:51:49.047525 27367 layer_factory.hpp:77] Creating layer ip3
I0428 19:51:49.047533 27367 net.cpp:86] Creating Layer ip3
I0428 19:51:49.047535 27367 net.cpp:408] ip3 <- ip2
I0428 19:51:49.047540 27367 net.cpp:382] ip3 -> ip3
I0428 19:51:49.047654 27367 net.cpp:124] Setting up ip3
I0428 19:51:49.047662 27367 net.cpp:131] Top shape: 64 10 (640)
I0428 19:51:49.047665 27367 net.cpp:139] Memory required for data: 1667840
I0428 19:51:49.047672 27367 layer_factory.hpp:77] Creating layer relu3
I0428 19:51:49.047677 27367 net.cpp:86] Creating Layer relu3
I0428 19:51:49.047680 27367 net.cpp:408] relu3 <- ip3
I0428 19:51:49.047684 27367 net.cpp:369] relu3 -> ip3 (in-place)
I0428 19:51:49.047847 27367 net.cpp:124] Setting up relu3
I0428 19:51:49.047855 27367 net.cpp:131] Top shape: 64 10 (640)
I0428 19:51:49.047858 27367 net.cpp:139] Memory required for data: 1670400
I0428 19:51:49.047861 27367 layer_factory.hpp:77] Creating layer loss
I0428 19:51:49.047866 27367 net.cpp:86] Creating Layer loss
I0428 19:51:49.047870 27367 net.cpp:408] loss <- ip3
I0428 19:51:49.047873 27367 net.cpp:408] loss <- label
I0428 19:51:49.047879 27367 net.cpp:382] loss -> loss
I0428 19:51:49.047894 27367 layer_factory.hpp:77] Creating layer loss
…
I0428 19:51:49.048498 27367 solver.cpp:173] Creating test net (#0) specified by net file: ECE595/mnist/train_test/var_everything2/lenet_train_test644.prototxt
I0428 19:51:49.048523 27367 net.cpp:296] The NetState phase (1) differed from the phase (0) specified by a rule in layer mnist
I0428 19:51:49.048611 27367 net.cpp:53] Initializing net from parameters: 
name: "LeNet"
state {
  phase: TEST
}
layer {
  name: "mnist"
  type: "Data"
  top: "data"
  top: "label"
  include {
    phase: TEST
  }
  transform_param {
    scale: 0.00390625
  }
  data_param {
    source: "examples/mnist/mnist_test_lmdb"
    batch_size: 100
    backend: LMDB
  }
}
layer {
  name: "conv0"
  type: "Convolution"
  bottom: "data"
  top: "conv0"
  param {
    lr_mult: 1
  }
  param {
    lr_mult: 2
  }
  convolution_param {
    num_output: 5
    kernel_size: 5
    stride: 1
    weight_filler {
      type: "xavier"
    }
    bias_filler {
      type: "constant"
    }
  }
}
layer {
  name: "pool0"
  type: "Pooling"
  bottom: "conv0"
  top: "pool0"
  pooling_param {
    pool: MAX
    kernel_size: 2
    stride: 2
  }
}
layer {
  name: "conv1"
  type: "Convolution"
  bottom: "pool0"
  top: "conv1"
  param {
    lr_mult: 1
  }
  param {
    lr_mult: 2
  }
  convolution_param {
    num_output: 25
    kernel_size: 5
    stride: 1
    weight_filler {
      type: "xavier"
    }
    bias_filler {
      type: "constant"
    }
  }
}
layer {
  name: "pool1"
  type: "Pooling"
  bottom: "conv1"
  top: "pool1"
  pooling_param {
    pool: MAX
    kernel_size: 2
    stride: 2
  }
}
layer {
  name: "ip1"
  type: "InnerProduct"
  bottom: "pool1"
  top: "ip1"
  param {
    lr_mult: 1
  }
  param {
    lr_mult: 2
  }
  inner_product_param {
    num_output: 10
    weight_filler {
      type: "xavier"
    }
    bias_filler {
      type: "constant"
    }
  }
}
layer {
  name: "relu1"
  type: "ReLU"
  bottom: "ip1"
  top: "ip1"
}
layer {
  name: "ip2"
  type: "InnerProduct"
  bottom: "ip1"
  top: "ip2"
  param {
    lr_mult: 1
  }
  param {
    lr_mult: 2
  }
  inner_product_param {
    num_output: 50
    weight_filler {
      type: "xavier"
    }
    bias_filler {
      type: "constant"
    }
  }
}
layer {
  name: "relu2"
  type: "ReLU"
  bottom: "ip2"
  top: "ip2"
}
layer {
  name: "ip3"
  type: "InnerProduct"
  bottom: "ip2"
  top: "ip3"
  param {
    lr_mult: 1
  }
  param {
    lr_mult: 2
  }
  inner_product_param {
    num_output: 10
    weight_filler {
      type: "xavier"
    }
    bias_filler {
      type: "constant"
    }
  }
}
layer {
  name: "relu3"
  type: "ReLU"
  bottom: "ip3"
  top: "ip3"
}
layer {
  name: "accuracy"
  type: "Accuracy"
  bottom: "ip3"
  bottom: "label"
  top: "accuracy"
  include {
    phase: TEST
  }
}
layer {
  name: "loss"
  type: "SoftmaxWithLoss"
  bottom: "ip3"
  bottom: "label"
  top: "loss"
}
I0428 19:51:49.048702 27367 layer_factory.hpp:77] Creating layer mnist
I0428 19:51:49.048744 27367 db_lmdb.cpp:35] Opened lmdb examples/mnist/mnist_test_lmdb
I0428 19:51:49.048756 27367 net.cpp:86] Creating Layer mnist
I0428 19:51:49.048761 27367 net.cpp:382] mnist -> data
I0428 19:51:49.048768 27367 net.cpp:382] mnist -> label
I0428 19:51:49.048892 27367 data_layer.cpp:45] output data size: 100,1,28,28
I0428 19:51:49.050891 27367 net.cpp:124] Setting up mnist
I0428 19:51:49.050920 27367 net.cpp:131] Top shape: 100 1 28 28 (78400)
I0428 19:51:49.050925 27367 net.cpp:131] Top shape: 100 (100)
I0428 19:51:49.050928 27367 net.cpp:139] Memory required for data: 314000
I0428 19:51:49.050932 27367 layer_factory.hpp:77] Creating layer label_mnist_1_split
I0428 19:51:49.050940 27367 net.cpp:86] Creating Layer label_mnist_1_split
I0428 19:51:49.050942 27367 net.cpp:408] label_mnist_1_split <- label
I0428 19:51:49.050947 27367 net.cpp:382] label_mnist_1_split -> label_mnist_1_split_0
I0428 19:51:49.050953 27367 net.cpp:382] label_mnist_1_split -> label_mnist_1_split_1
I0428 19:51:49.051056 27367 net.cpp:124] Setting up label_mnist_1_split
I0428 19:51:49.051064 27367 net.cpp:131] Top shape: 100 (100)
I0428 19:51:49.051067 27367 net.cpp:131] Top shape: 100 (100)
I0428 19:51:49.051070 27367 net.cpp:139] Memory required for data: 314800
I0428 19:51:49.051074 27367 layer_factory.hpp:77] Creating layer conv0
I0428 19:51:49.051081 27367 net.cpp:86] Creating Layer conv0
I0428 19:51:49.051084 27367 net.cpp:408] conv0 <- data
I0428 19:51:49.051090 27367 net.cpp:382] conv0 -> conv0
I0428 19:51:49.052594 27367 net.cpp:124] Setting up conv0
I0428 19:51:49.052608 27367 net.cpp:131] Top shape: 100 5 24 24 (288000)
I0428 19:51:49.052610 27367 net.cpp:139] Memory required for data: 1466800
I0428 19:51:49.052634 27367 layer_factory.hpp:77] Creating layer pool0
I0428 19:51:49.052640 27367 net.cpp:86] Creating Layer pool0
I0428 19:51:49.052644 27367 net.cpp:408] pool0 <- conv0
I0428 19:51:49.052649 27367 net.cpp:382] pool0 -> pool0
I0428 19:51:49.052682 27367 net.cpp:124] Setting up pool0
I0428 19:51:49.052690 27367 net.cpp:131] Top shape: 100 5 12 12 (72000)
I0428 19:51:49.052692 27367 net.cpp:139] Memory required for data: 1754800
I0428 19:51:49.052695 27367 layer_factory.hpp:77] Creating layer conv1
I0428 19:51:49.052702 27367 net.cpp:86] Creating Layer conv1
I0428 19:51:49.052706 27367 net.cpp:408] conv1 <- pool0
I0428 19:51:49.052711 27367 net.cpp:382] conv1 -> conv1
I0428 19:51:49.054777 27367 net.cpp:124] Setting up conv1
I0428 19:51:49.054790 27367 net.cpp:131] Top shape: 100 25 8 8 (160000)
I0428 19:51:49.054793 27367 net.cpp:139] Memory required for data: 2394800
I0428 19:51:49.054819 27367 layer_factory.hpp:77] Creating layer pool1
I0428 19:51:49.054826 27367 net.cpp:86] Creating Layer pool1
I0428 19:51:49.054828 27367 net.cpp:408] pool1 <- conv1
I0428 19:51:49.054833 27367 net.cpp:382] pool1 -> pool1
I0428 19:51:49.054874 27367 net.cpp:124] Setting up pool1
I0428 19:51:49.054882 27367 net.cpp:131] Top shape: 100 25 4 4 (40000)
I0428 19:51:49.054883 27367 net.cpp:139] Memory required for data: 2554800
I0428 19:51:49.054886 27367 layer_factory.hpp:77] Creating layer ip1
I0428 19:51:49.054891 27367 net.cpp:86] Creating Layer ip1
I0428 19:51:49.054894 27367 net.cpp:408] ip1 <- pool1
I0428 19:51:49.054899 27367 net.cpp:382] ip1 -> ip1
I0428 19:51:49.055019 27367 net.cpp:124] Setting up ip1
I0428 19:51:49.055027 27367 net.cpp:131] Top shape: 100 10 (1000)
I0428 19:51:49.055038 27367 net.cpp:139] Memory required for data: 2558800
I0428 19:51:49.055047 27367 layer_factory.hpp:77] Creating layer relu1
I0428 19:51:49.055052 27367 net.cpp:86] Creating Layer relu1
I0428 19:51:49.055055 27367 net.cpp:408] relu1 <- ip1
I0428 19:51:49.055059 27367 net.cpp:369] relu1 -> ip1 (in-place)
I0428 19:51:49.055227 27367 net.cpp:124] Setting up relu1
I0428 19:51:49.055249 27367 net.cpp:131] Top shape: 100 10 (1000)
I0428 19:51:49.055253 27367 net.cpp:139] Memory required for data: 2562800
I0428 19:51:49.055256 27367 layer_factory.hpp:77] Creating layer ip2
I0428 19:51:49.055280 27367 net.cpp:86] Creating Layer ip2
I0428 19:51:49.055294 27367 net.cpp:408] ip2 <- ip1
I0428 19:51:49.055299 27367 net.cpp:382] ip2 -> ip2
I0428 19:51:49.055402 27367 net.cpp:124] Setting up ip2
I0428 19:51:49.055408 27367 net.cpp:131] Top shape: 100 50 (5000)
I0428 19:51:49.055411 27367 net.cpp:139] Memory required for data: 2582800
I0428 19:51:49.055415 27367 layer_factory.hpp:77] Creating layer relu2
I0428 19:51:49.055421 27367 net.cpp:86] Creating Layer relu2
I0428 19:51:49.055424 27367 net.cpp:408] relu2 <- ip2
I0428 19:51:49.055428 27367 net.cpp:369] relu2 -> ip2 (in-place)
I0428 19:51:49.055627 27367 net.cpp:124] Setting up relu2
I0428 19:51:49.055635 27367 net.cpp:131] Top shape: 100 50 (5000)
I0428 19:51:49.055637 27367 net.cpp:139] Memory required for data: 2602800
I0428 19:51:49.055640 27367 layer_factory.hpp:77] Creating layer ip3
I0428 19:51:49.055646 27367 net.cpp:86] Creating Layer ip3
I0428 19:51:49.055649 27367 net.cpp:408] ip3 <- ip2
I0428 19:51:49.055655 27367 net.cpp:382] ip3 -> ip3
I0428 19:51:49.055764 27367 net.cpp:124] Setting up ip3
I0428 19:51:49.055773 27367 net.cpp:131] Top shape: 100 10 (1000)
I0428 19:51:49.055775 27367 net.cpp:139] Memory required for data: 2606800
I0428 19:51:49.055797 27367 layer_factory.hpp:77] Creating layer relu3
I0428 19:51:49.055801 27367 net.cpp:86] Creating Layer relu3
I0428 19:51:49.055804 27367 net.cpp:408] relu3 <- ip3
I0428 19:51:49.055807 27367 net.cpp:369] relu3 -> ip3 (in-place)
I0428 19:51:49.056568 27367 net.cpp:124] Setting up relu3
I0428 19:51:49.056579 27367 net.cpp:131] Top shape: 100 10 (1000)
I0428 19:51:49.056582 27367 net.cpp:139] Memory required for data: 2610800
I0428 19:51:49.056586 27367 layer_factory.hpp:77] Creating layer ip3_relu3_0_split
I0428 19:51:49.056591 27367 net.cpp:86] Creating Layer ip3_relu3_0_split
I0428 19:51:49.056594 27367 net.cpp:408] ip3_relu3_0_split <- ip3
I0428 19:51:49.056601 27367 net.cpp:382] ip3_relu3_0_split -> ip3_relu3_0_split_0
I0428 19:51:49.056605 27367 net.cpp:382] ip3_relu3_0_split -> ip3_relu3_0_split_1
I0428 19:51:49.056658 27367 net.cpp:124] Setting up ip3_relu3_0_split
I0428 19:51:49.056663 27367 net.cpp:131] Top shape: 100 10 (1000)
I0428 19:51:49.056668 27367 net.cpp:131] Top shape: 100 10 (1000)
I0428 19:51:49.056686 27367 net.cpp:139] Memory required for data: 2618800
I0428 19:51:49.056689 27367 layer_factory.hpp:77] Creating layer accuracy
I0428 19:51:49.056694 27367 net.cpp:86] Creating Layer accuracy
I0428 19:51:49.056696 27367 net.cpp:408] accuracy <- ip3_relu3_0_split_0
I0428 19:51:49.056700 27367 net.cpp:408] accuracy <- label_mnist_1_split_0
I0428 19:51:49.056704 27367 net.cpp:382] accuracy -> accuracy
…
