…
I0428 20:07:44.906283 31174 net.cpp:296] The NetState phase (0) differed from the phase (1) specified by a rule in layer mnist
I0428 20:07:44.906302 31174 net.cpp:296] The NetState phase (0) differed from the phase (1) specified by a rule in layer accuracy
I0428 20:07:44.906391 31174 net.cpp:53] Initializing net from parameters: 
name: "LeNet"
state {
  phase: TRAIN
  level: 0
  stage: ""
}
layer {
  name: "mnist"
  type: "Data"
  top: "data"
  top: "label"
  include {
    phase: TRAIN
  }
  transform_param {
    scale: 0.00390625
  }
  data_param {
    source: "examples/mnist/mnist_train_lmdb"
    batch_size: 64
    backend: LMDB
  }
}
layer {
  name: "conv0"
  type: "Convolution"
  bottom: "data"
  top: "conv0"
  param {
    lr_mult: 1
  }
  param {
    lr_mult: 2
  }
  convolution_param {
    num_output: 25
    kernel_size: 5
    stride: 1
    weight_filler {
      type: "xavier"
    }
    bias_filler {
      type: "constant"
    }
  }
}
layer {
  name: "pool0"
  type: "Pooling"
  bottom: "conv0"
  top: "pool0"
  pooling_param {
    pool: MAX
    kernel_size: 2
    stride: 2
  }
}
layer {
  name: "conv1"
  type: "Convolution"
  bottom: "pool0"
  top: "conv1"
  param {
    lr_mult: 1
  }
  param {
    lr_mult: 2
  }
  convolution_param {
    num_output: 10
    kernel_size: 5
    stride: 1
    weight_filler {
      type: "xavier"
    }
    bias_filler {
      type: "constant"
    }
  }
}
layer {
  name: "pool1"
  type: "Pooling"
  bottom: "conv1"
  top: "pool1"
  pooling_param {
    pool: MAX
    kernel_size: 2
    stride: 2
  }
}
layer {
  name: "ip1"
  type: "InnerProduct"
  bottom: "pool1"
  top: "ip1"
  param {
    lr_mult: 1
  }
  param {
    lr_mult: 2
  }
  inner_product_param {
    num_output: 50
    weight_filler {
      type: "xavier"
    }
    bias_filler {
      type: "constant"
    }
  }
}
layer {
  name: "relu1"
  type: "ReLU"
  bottom: "ip1"
  top: "ip1"
}
layer {
  name: "ip2"
  type: "InnerProduct"
  bottom: "ip1"
  top: "ip2"
  param {
    lr_mult: 1
  }
  param {
    lr_mult: 2
  }
  inner_product_param {
    num_output: 10
    weight_filler {
      type: "xavier"
    }
    bias_filler {
      type: "constant"
    }
  }
}
layer {
  name: "relu2"
  type: "ReLU"
  bottom: "ip2"
  top: "ip2"
}
layer {
  name: "loss"
  type: "SoftmaxWithLoss"
  bottom: "ip2"
  bottom: "label"
  top: "loss"
}
I0428 20:07:44.906469 31174 layer_factory.hpp:77] Creating layer mnist
I0428 20:07:44.906569 31174 db_lmdb.cpp:35] Opened lmdb examples/mnist/mnist_train_lmdb
I0428 20:07:44.906595 31174 net.cpp:86] Creating Layer mnist
I0428 20:07:44.906605 31174 net.cpp:382] mnist -> data
I0428 20:07:44.906626 31174 net.cpp:382] mnist -> label
I0428 20:07:44.907730 31174 data_layer.cpp:45] output data size: 64,1,28,28
I0428 20:07:44.910161 31174 net.cpp:124] Setting up mnist
I0428 20:07:44.910179 31174 net.cpp:131] Top shape: 64 1 28 28 (50176)
I0428 20:07:44.910187 31174 net.cpp:131] Top shape: 64 (64)
I0428 20:07:44.910189 31174 net.cpp:139] Memory required for data: 200960
I0428 20:07:44.910197 31174 layer_factory.hpp:77] Creating layer conv0
I0428 20:07:44.910217 31174 net.cpp:86] Creating Layer conv0
I0428 20:07:44.910223 31174 net.cpp:408] conv0 <- data
I0428 20:07:44.910235 31174 net.cpp:382] conv0 -> conv0
I0428 20:07:45.201627 31174 net.cpp:124] Setting up conv0
I0428 20:07:45.201658 31174 net.cpp:131] Top shape: 64 25 24 24 (921600)
I0428 20:07:45.201663 31174 net.cpp:139] Memory required for data: 3887360
I0428 20:07:45.201704 31174 layer_factory.hpp:77] Creating layer pool0
I0428 20:07:45.201720 31174 net.cpp:86] Creating Layer pool0
I0428 20:07:45.201725 31174 net.cpp:408] pool0 <- conv0
I0428 20:07:45.201731 31174 net.cpp:382] pool0 -> pool0
I0428 20:07:45.201786 31174 net.cpp:124] Setting up pool0
I0428 20:07:45.201794 31174 net.cpp:131] Top shape: 64 25 12 12 (230400)
I0428 20:07:45.201798 31174 net.cpp:139] Memory required for data: 4808960
I0428 20:07:45.201802 31174 layer_factory.hpp:77] Creating layer conv1
I0428 20:07:45.201815 31174 net.cpp:86] Creating Layer conv1
I0428 20:07:45.201822 31174 net.cpp:408] conv1 <- pool0
I0428 20:07:45.201829 31174 net.cpp:382] conv1 -> conv1
I0428 20:07:45.205001 31174 net.cpp:124] Setting up conv1
I0428 20:07:45.205020 31174 net.cpp:131] Top shape: 64 10 8 8 (40960)
I0428 20:07:45.205025 31174 net.cpp:139] Memory required for data: 4972800
I0428 20:07:45.205035 31174 layer_factory.hpp:77] Creating layer pool1
I0428 20:07:45.205045 31174 net.cpp:86] Creating Layer pool1
I0428 20:07:45.205054 31174 net.cpp:408] pool1 <- conv1
I0428 20:07:45.205061 31174 net.cpp:382] pool1 -> pool1
I0428 20:07:45.205113 31174 net.cpp:124] Setting up pool1
I0428 20:07:45.205121 31174 net.cpp:131] Top shape: 64 10 4 4 (10240)
I0428 20:07:45.205124 31174 net.cpp:139] Memory required for data: 5013760
I0428 20:07:45.205128 31174 layer_factory.hpp:77] Creating layer ip1
I0428 20:07:45.205137 31174 net.cpp:86] Creating Layer ip1
I0428 20:07:45.205140 31174 net.cpp:408] ip1 <- pool1
I0428 20:07:45.205147 31174 net.cpp:382] ip1 -> ip1
I0428 20:07:45.205322 31174 net.cpp:124] Setting up ip1
I0428 20:07:45.205332 31174 net.cpp:131] Top shape: 64 50 (3200)
I0428 20:07:45.205337 31174 net.cpp:139] Memory required for data: 5026560
I0428 20:07:45.205345 31174 layer_factory.hpp:77] Creating layer relu1
I0428 20:07:45.205354 31174 net.cpp:86] Creating Layer relu1
I0428 20:07:45.205358 31174 net.cpp:408] relu1 <- ip1
I0428 20:07:45.205370 31174 net.cpp:369] relu1 -> ip1 (in-place)
I0428 20:07:45.205567 31174 net.cpp:124] Setting up relu1
I0428 20:07:45.205577 31174 net.cpp:131] Top shape: 64 50 (3200)
I0428 20:07:45.205581 31174 net.cpp:139] Memory required for data: 5039360
I0428 20:07:45.205585 31174 layer_factory.hpp:77] Creating layer ip2
I0428 20:07:45.205592 31174 net.cpp:86] Creating Layer ip2
I0428 20:07:45.205596 31174 net.cpp:408] ip2 <- ip1
I0428 20:07:45.205602 31174 net.cpp:382] ip2 -> ip2
I0428 20:07:45.205730 31174 net.cpp:124] Setting up ip2
I0428 20:07:45.205739 31174 net.cpp:131] Top shape: 64 10 (640)
I0428 20:07:45.205744 31174 net.cpp:139] Memory required for data: 5041920
I0428 20:07:45.205750 31174 layer_factory.hpp:77] Creating layer relu2
I0428 20:07:45.205757 31174 net.cpp:86] Creating Layer relu2
I0428 20:07:45.205763 31174 net.cpp:408] relu2 <- ip2
I0428 20:07:45.205768 31174 net.cpp:369] relu2 -> ip2 (in-place)
I0428 20:07:45.206614 31174 net.cpp:124] Setting up relu2
I0428 20:07:45.206629 31174 net.cpp:131] Top shape: 64 10 (640)
I0428 20:07:45.206634 31174 net.cpp:139] Memory required for data: 5044480
I0428 20:07:45.206639 31174 layer_factory.hpp:77] Creating layer loss
I0428 20:07:45.206646 31174 net.cpp:86] Creating Layer loss
I0428 20:07:45.206650 31174 net.cpp:408] loss <- ip2
I0428 20:07:45.206656 31174 net.cpp:408] loss <- label
I0428 20:07:45.206663 31174 net.cpp:382] loss -> loss
I0428 20:07:45.206686 31174 layer_factory.hpp:77] Creating layer loss
…
I0428 20:07:45.207417 31174 solver.cpp:173] Creating test net (#0) specified by net file: ECE595/mnist/train_test/var_everything2/lenet_train_test1064.prototxt
I0428 20:07:45.207446 31174 net.cpp:296] The NetState phase (1) differed from the phase (0) specified by a rule in layer mnist
I0428 20:07:45.207545 31174 net.cpp:53] Initializing net from parameters: 
name: "LeNet"
state {
  phase: TEST
}
layer {
  name: "mnist"
  type: "Data"
  top: "data"
  top: "label"
  include {
    phase: TEST
  }
  transform_param {
    scale: 0.00390625
  }
  data_param {
    source: "examples/mnist/mnist_test_lmdb"
    batch_size: 100
    backend: LMDB
  }
}
layer {
  name: "conv0"
  type: "Convolution"
  bottom: "data"
  top: "conv0"
  param {
    lr_mult: 1
  }
  param {
    lr_mult: 2
  }
  convolution_param {
    num_output: 25
    kernel_size: 5
    stride: 1
    weight_filler {
      type: "xavier"
    }
    bias_filler {
      type: "constant"
    }
  }
}
layer {
  name: "pool0"
  type: "Pooling"
  bottom: "conv0"
  top: "pool0"
  pooling_param {
    pool: MAX
    kernel_size: 2
    stride: 2
  }
}
layer {
  name: "conv1"
  type: "Convolution"
  bottom: "pool0"
  top: "conv1"
  param {
    lr_mult: 1
  }
  param {
    lr_mult: 2
  }
  convolution_param {
    num_output: 10
    kernel_size: 5
    stride: 1
    weight_filler {
      type: "xavier"
    }
    bias_filler {
      type: "constant"
    }
  }
}
layer {
  name: "pool1"
  type: "Pooling"
  bottom: "conv1"
  top: "pool1"
  pooling_param {
    pool: MAX
    kernel_size: 2
    stride: 2
  }
}
layer {
  name: "ip1"
  type: "InnerProduct"
  bottom: "pool1"
  top: "ip1"
  param {
    lr_mult: 1
  }
  param {
    lr_mult: 2
  }
  inner_product_param {
    num_output: 50
    weight_filler {
      type: "xavier"
    }
    bias_filler {
      type: "constant"
    }
  }
}
layer {
  name: "relu1"
  type: "ReLU"
  bottom: "ip1"
  top: "ip1"
}
layer {
  name: "ip2"
  type: "InnerProduct"
  bottom: "ip1"
  top: "ip2"
  param {
    lr_mult: 1
  }
  param {
    lr_mult: 2
  }
  inner_product_param {
    num_output: 10
    weight_filler {
      type: "xavier"
    }
    bias_filler {
      type: "constant"
    }
  }
}
layer {
  name: "relu2"
  type: "ReLU"
  bottom: "ip2"
  top: "ip2"
}
layer {
  name: "accuracy"
  type: "Accuracy"
  bottom: "ip2"
  bottom: "label"
  top: "accuracy"
  include {
    phase: TEST
  }
}
layer {
  name: "loss"
  type: "SoftmaxWithLoss"
  bottom: "ip2"
  bottom: "label"
  top: "loss"
}
I0428 20:07:45.207620 31174 layer_factory.hpp:77] Creating layer mnist
I0428 20:07:45.207674 31174 db_lmdb.cpp:35] Opened lmdb examples/mnist/mnist_test_lmdb
I0428 20:07:45.207692 31174 net.cpp:86] Creating Layer mnist
I0428 20:07:45.207700 31174 net.cpp:382] mnist -> data
I0428 20:07:45.207710 31174 net.cpp:382] mnist -> label
I0428 20:07:45.207811 31174 data_layer.cpp:45] output data size: 100,1,28,28
I0428 20:07:45.209993 31174 net.cpp:124] Setting up mnist
I0428 20:07:45.210011 31174 net.cpp:131] Top shape: 100 1 28 28 (78400)
I0428 20:07:45.210017 31174 net.cpp:131] Top shape: 100 (100)
I0428 20:07:45.210021 31174 net.cpp:139] Memory required for data: 314000
I0428 20:07:45.210026 31174 layer_factory.hpp:77] Creating layer label_mnist_1_split
I0428 20:07:45.210038 31174 net.cpp:86] Creating Layer label_mnist_1_split
I0428 20:07:45.210045 31174 net.cpp:408] label_mnist_1_split <- label
I0428 20:07:45.210052 31174 net.cpp:382] label_mnist_1_split -> label_mnist_1_split_0
I0428 20:07:45.210060 31174 net.cpp:382] label_mnist_1_split -> label_mnist_1_split_1
I0428 20:07:45.210191 31174 net.cpp:124] Setting up label_mnist_1_split
I0428 20:07:45.210201 31174 net.cpp:131] Top shape: 100 (100)
I0428 20:07:45.210206 31174 net.cpp:131] Top shape: 100 (100)
I0428 20:07:45.210211 31174 net.cpp:139] Memory required for data: 314800
I0428 20:07:45.210214 31174 layer_factory.hpp:77] Creating layer conv0
I0428 20:07:45.210225 31174 net.cpp:86] Creating Layer conv0
I0428 20:07:45.210232 31174 net.cpp:408] conv0 <- data
I0428 20:07:45.210237 31174 net.cpp:382] conv0 -> conv0
I0428 20:07:45.212112 31174 net.cpp:124] Setting up conv0
I0428 20:07:45.212131 31174 net.cpp:131] Top shape: 100 25 24 24 (1440000)
I0428 20:07:45.212134 31174 net.cpp:139] Memory required for data: 6074800
I0428 20:07:45.212146 31174 layer_factory.hpp:77] Creating layer pool0
I0428 20:07:45.212154 31174 net.cpp:86] Creating Layer pool0
I0428 20:07:45.212159 31174 net.cpp:408] pool0 <- conv0
I0428 20:07:45.212165 31174 net.cpp:382] pool0 -> pool0
I0428 20:07:45.212215 31174 net.cpp:124] Setting up pool0
I0428 20:07:45.212224 31174 net.cpp:131] Top shape: 100 25 12 12 (360000)
I0428 20:07:45.212229 31174 net.cpp:139] Memory required for data: 7514800
I0428 20:07:45.212232 31174 layer_factory.hpp:77] Creating layer conv1
I0428 20:07:45.212242 31174 net.cpp:86] Creating Layer conv1
I0428 20:07:45.212249 31174 net.cpp:408] conv1 <- pool0
I0428 20:07:45.212256 31174 net.cpp:382] conv1 -> conv1
I0428 20:07:45.214607 31174 net.cpp:124] Setting up conv1
I0428 20:07:45.214622 31174 net.cpp:131] Top shape: 100 10 8 8 (64000)
I0428 20:07:45.214627 31174 net.cpp:139] Memory required for data: 7770800
I0428 20:07:45.214638 31174 layer_factory.hpp:77] Creating layer pool1
I0428 20:07:45.214648 31174 net.cpp:86] Creating Layer pool1
I0428 20:07:45.214653 31174 net.cpp:408] pool1 <- conv1
I0428 20:07:45.214661 31174 net.cpp:382] pool1 -> pool1
I0428 20:07:45.214711 31174 net.cpp:124] Setting up pool1
I0428 20:07:45.214720 31174 net.cpp:131] Top shape: 100 10 4 4 (16000)
I0428 20:07:45.214723 31174 net.cpp:139] Memory required for data: 7834800
I0428 20:07:45.214727 31174 layer_factory.hpp:77] Creating layer ip1
I0428 20:07:45.214736 31174 net.cpp:86] Creating Layer ip1
I0428 20:07:45.214743 31174 net.cpp:408] ip1 <- pool1
I0428 20:07:45.214757 31174 net.cpp:382] ip1 -> ip1
I0428 20:07:45.214941 31174 net.cpp:124] Setting up ip1
I0428 20:07:45.214951 31174 net.cpp:131] Top shape: 100 50 (5000)
I0428 20:07:45.214954 31174 net.cpp:139] Memory required for data: 7854800
I0428 20:07:45.214964 31174 layer_factory.hpp:77] Creating layer relu1
I0428 20:07:45.214972 31174 net.cpp:86] Creating Layer relu1
I0428 20:07:45.214985 31174 net.cpp:408] relu1 <- ip1
I0428 20:07:45.214998 31174 net.cpp:369] relu1 -> ip1 (in-place)
I0428 20:07:45.215204 31174 net.cpp:124] Setting up relu1
I0428 20:07:45.215214 31174 net.cpp:131] Top shape: 100 50 (5000)
I0428 20:07:45.215226 31174 net.cpp:139] Memory required for data: 7874800
I0428 20:07:45.215230 31174 layer_factory.hpp:77] Creating layer ip2
I0428 20:07:45.215248 31174 net.cpp:86] Creating Layer ip2
I0428 20:07:45.215253 31174 net.cpp:408] ip2 <- ip1
I0428 20:07:45.215260 31174 net.cpp:382] ip2 -> ip2
I0428 20:07:45.215389 31174 net.cpp:124] Setting up ip2
I0428 20:07:45.215399 31174 net.cpp:131] Top shape: 100 10 (1000)
I0428 20:07:45.215409 31174 net.cpp:139] Memory required for data: 7878800
I0428 20:07:45.215416 31174 layer_factory.hpp:77] Creating layer relu2
I0428 20:07:45.215422 31174 net.cpp:86] Creating Layer relu2
I0428 20:07:45.215426 31174 net.cpp:408] relu2 <- ip2
I0428 20:07:45.215431 31174 net.cpp:369] relu2 -> ip2 (in-place)
I0428 20:07:45.215636 31174 net.cpp:124] Setting up relu2
I0428 20:07:45.215646 31174 net.cpp:131] Top shape: 100 10 (1000)
I0428 20:07:45.215651 31174 net.cpp:139] Memory required for data: 7882800
I0428 20:07:45.215656 31174 layer_factory.hpp:77] Creating layer ip2_relu2_0_split
I0428 20:07:45.215662 31174 net.cpp:86] Creating Layer ip2_relu2_0_split
I0428 20:07:45.215674 31174 net.cpp:408] ip2_relu2_0_split <- ip2
I0428 20:07:45.215679 31174 net.cpp:382] ip2_relu2_0_split -> ip2_relu2_0_split_0
I0428 20:07:45.215710 31174 net.cpp:382] ip2_relu2_0_split -> ip2_relu2_0_split_1
I0428 20:07:45.215764 31174 net.cpp:124] Setting up ip2_relu2_0_split
I0428 20:07:45.215772 31174 net.cpp:131] Top shape: 100 10 (1000)
I0428 20:07:45.215777 31174 net.cpp:131] Top shape: 100 10 (1000)
I0428 20:07:45.215783 31174 net.cpp:139] Memory required for data: 7890800
I0428 20:07:45.215787 31174 layer_factory.hpp:77] Creating layer accuracy
I0428 20:07:45.215795 31174 net.cpp:86] Creating Layer accuracy
I0428 20:07:45.215800 31174 net.cpp:408] accuracy <- ip2_relu2_0_split_0
I0428 20:07:45.215804 31174 net.cpp:408] accuracy <- label_mnist_1_split_0
I0428 20:07:45.215809 31174 net.cpp:382] accuracy -> accuracy
…
