…
I0428 20:12:33.124023 32271 net.cpp:296] The NetState phase (0) differed from the phase (1) specified by a rule in layer mnist
I0428 20:12:33.124042 32271 net.cpp:296] The NetState phase (0) differed from the phase (1) specified by a rule in layer accuracy
I0428 20:12:33.124143 32271 net.cpp:53] Initializing net from parameters: 
name: "LeNet"
state {
  phase: TRAIN
  level: 0
  stage: ""
}
layer {
  name: "mnist"
  type: "Data"
  top: "data"
  top: "label"
  include {
    phase: TRAIN
  }
  transform_param {
    scale: 0.00390625
  }
  data_param {
    source: "examples/mnist/mnist_train_lmdb"
    batch_size: 64
    backend: LMDB
  }
}
layer {
  name: "conv0"
  type: "Convolution"
  bottom: "data"
  top: "conv0"
  param {
    lr_mult: 1
  }
  param {
    lr_mult: 2
  }
  convolution_param {
    num_output: 25
    kernel_size: 5
    stride: 1
    weight_filler {
      type: "xavier"
    }
    bias_filler {
      type: "constant"
    }
  }
}
layer {
  name: "pool0"
  type: "Pooling"
  bottom: "conv0"
  top: "pool0"
  pooling_param {
    pool: MAX
    kernel_size: 2
    stride: 2
  }
}
layer {
  name: "conv1"
  type: "Convolution"
  bottom: "pool0"
  top: "conv1"
  param {
    lr_mult: 1
  }
  param {
    lr_mult: 2
  }
  convolution_param {
    num_output: 100
    kernel_size: 5
    stride: 1
    weight_filler {
      type: "xavier"
    }
    bias_filler {
      type: "constant"
    }
  }
}
layer {
  name: "pool1"
  type: "Pooling"
  bottom: "conv1"
  top: "pool1"
  pooling_param {
    pool: MAX
    kernel_size: 2
    stride: 2
  }
}
layer {
  name: "ip1"
  type: "InnerProduct"
  bottom: "pool1"
  top: "ip1"
  param {
    lr_mult: 1
  }
  param {
    lr_mult: 2
  }
  inner_product_param {
    num_output: 10
    weight_filler {
      type: "xavier"
    }
    bias_filler {
      type: "constant"
    }
  }
}
layer {
  name: "relu1"
  type: "ReLU"
  bottom: "ip1"
  top: "ip1"
}
layer {
  name: "ip2"
  type: "InnerProduct"
  bottom: "ip1"
  top: "ip2"
  param {
    lr_mult: 1
  }
  param {
    lr_mult: 2
  }
  inner_product_param {
    num_output: 10
    weight_filler {
      type: "xavier"
    }
    bias_filler {
      type: "constant"
    }
  }
}
layer {
  name: "relu2"
  type: "ReLU"
  bottom: "ip2"
  top: "ip2"
}
layer {
  name: "ip3"
  type: "InnerProduct"
  bottom: "ip2"
  top: "ip3"
  param {
    lr_mult: 1
  }
  param {
    lr_mult: 2
  }
  inner_product_param {
    num_output: 10
    weight_filler {
      type: "xavier"
    }
    bias_filler {
      type: "constant"
    }
  }
}
layer {
  name: "relu3"
  type: "ReLU"
  bottom: "ip3"
  top: "ip3"
}
layer {
  name: "loss"
  type: "SoftmaxWithLoss"
  bottom: "ip3"
  bottom: "label"
  top: "loss"
}
I0428 20:12:33.124223 32271 layer_factory.hpp:77] Creating layer mnist
I0428 20:12:33.124322 32271 db_lmdb.cpp:35] Opened lmdb examples/mnist/mnist_train_lmdb
I0428 20:12:33.124348 32271 net.cpp:86] Creating Layer mnist
I0428 20:12:33.124356 32271 net.cpp:382] mnist -> data
I0428 20:12:33.124380 32271 net.cpp:382] mnist -> label
I0428 20:12:33.125490 32271 data_layer.cpp:45] output data size: 64,1,28,28
I0428 20:12:33.127960 32271 net.cpp:124] Setting up mnist
I0428 20:12:33.127979 32271 net.cpp:131] Top shape: 64 1 28 28 (50176)
I0428 20:12:33.127986 32271 net.cpp:131] Top shape: 64 (64)
I0428 20:12:33.127990 32271 net.cpp:139] Memory required for data: 200960
I0428 20:12:33.127996 32271 layer_factory.hpp:77] Creating layer conv0
I0428 20:12:33.128012 32271 net.cpp:86] Creating Layer conv0
I0428 20:12:33.128033 32271 net.cpp:408] conv0 <- data
I0428 20:12:33.128046 32271 net.cpp:382] conv0 -> conv0
I0428 20:12:33.416007 32271 net.cpp:124] Setting up conv0
I0428 20:12:33.416034 32271 net.cpp:131] Top shape: 64 25 24 24 (921600)
I0428 20:12:33.416038 32271 net.cpp:139] Memory required for data: 3887360
I0428 20:12:33.416054 32271 layer_factory.hpp:77] Creating layer pool0
I0428 20:12:33.416070 32271 net.cpp:86] Creating Layer pool0
I0428 20:12:33.416075 32271 net.cpp:408] pool0 <- conv0
I0428 20:12:33.416080 32271 net.cpp:382] pool0 -> pool0
I0428 20:12:33.416126 32271 net.cpp:124] Setting up pool0
I0428 20:12:33.416132 32271 net.cpp:131] Top shape: 64 25 12 12 (230400)
I0428 20:12:33.416136 32271 net.cpp:139] Memory required for data: 4808960
I0428 20:12:33.416138 32271 layer_factory.hpp:77] Creating layer conv1
I0428 20:12:33.416148 32271 net.cpp:86] Creating Layer conv1
I0428 20:12:33.416152 32271 net.cpp:408] conv1 <- pool0
I0428 20:12:33.416157 32271 net.cpp:382] conv1 -> conv1
I0428 20:12:33.418380 32271 net.cpp:124] Setting up conv1
I0428 20:12:33.418395 32271 net.cpp:131] Top shape: 64 100 8 8 (409600)
I0428 20:12:33.418398 32271 net.cpp:139] Memory required for data: 6447360
I0428 20:12:33.418407 32271 layer_factory.hpp:77] Creating layer pool1
I0428 20:12:33.418416 32271 net.cpp:86] Creating Layer pool1
I0428 20:12:33.418418 32271 net.cpp:408] pool1 <- conv1
I0428 20:12:33.418423 32271 net.cpp:382] pool1 -> pool1
I0428 20:12:33.418462 32271 net.cpp:124] Setting up pool1
I0428 20:12:33.418468 32271 net.cpp:131] Top shape: 64 100 4 4 (102400)
I0428 20:12:33.418472 32271 net.cpp:139] Memory required for data: 6856960
I0428 20:12:33.418474 32271 layer_factory.hpp:77] Creating layer ip1
I0428 20:12:33.418481 32271 net.cpp:86] Creating Layer ip1
I0428 20:12:33.418484 32271 net.cpp:408] ip1 <- pool1
I0428 20:12:33.418489 32271 net.cpp:382] ip1 -> ip1
I0428 20:12:33.419538 32271 net.cpp:124] Setting up ip1
I0428 20:12:33.419550 32271 net.cpp:131] Top shape: 64 10 (640)
I0428 20:12:33.419553 32271 net.cpp:139] Memory required for data: 6859520
I0428 20:12:33.419562 32271 layer_factory.hpp:77] Creating layer relu1
I0428 20:12:33.419569 32271 net.cpp:86] Creating Layer relu1
I0428 20:12:33.419572 32271 net.cpp:408] relu1 <- ip1
I0428 20:12:33.419577 32271 net.cpp:369] relu1 -> ip1 (in-place)
I0428 20:12:33.419771 32271 net.cpp:124] Setting up relu1
I0428 20:12:33.419781 32271 net.cpp:131] Top shape: 64 10 (640)
I0428 20:12:33.419785 32271 net.cpp:139] Memory required for data: 6862080
I0428 20:12:33.419788 32271 layer_factory.hpp:77] Creating layer ip2
I0428 20:12:33.419795 32271 net.cpp:86] Creating Layer ip2
I0428 20:12:33.419798 32271 net.cpp:408] ip2 <- ip1
I0428 20:12:33.419805 32271 net.cpp:382] ip2 -> ip2
I0428 20:12:33.419903 32271 net.cpp:124] Setting up ip2
I0428 20:12:33.419910 32271 net.cpp:131] Top shape: 64 10 (640)
I0428 20:12:33.419914 32271 net.cpp:139] Memory required for data: 6864640
I0428 20:12:33.419919 32271 layer_factory.hpp:77] Creating layer relu2
I0428 20:12:33.419925 32271 net.cpp:86] Creating Layer relu2
I0428 20:12:33.419929 32271 net.cpp:408] relu2 <- ip2
I0428 20:12:33.419934 32271 net.cpp:369] relu2 -> ip2 (in-place)
I0428 20:12:33.420732 32271 net.cpp:124] Setting up relu2
I0428 20:12:33.420744 32271 net.cpp:131] Top shape: 64 10 (640)
I0428 20:12:33.420748 32271 net.cpp:139] Memory required for data: 6867200
I0428 20:12:33.420752 32271 layer_factory.hpp:77] Creating layer ip3
I0428 20:12:33.420759 32271 net.cpp:86] Creating Layer ip3
I0428 20:12:33.420763 32271 net.cpp:408] ip3 <- ip2
I0428 20:12:33.420768 32271 net.cpp:382] ip3 -> ip3
I0428 20:12:33.420881 32271 net.cpp:124] Setting up ip3
I0428 20:12:33.420891 32271 net.cpp:131] Top shape: 64 10 (640)
I0428 20:12:33.420893 32271 net.cpp:139] Memory required for data: 6869760
I0428 20:12:33.420902 32271 layer_factory.hpp:77] Creating layer relu3
I0428 20:12:33.420907 32271 net.cpp:86] Creating Layer relu3
I0428 20:12:33.420910 32271 net.cpp:408] relu3 <- ip3
I0428 20:12:33.420914 32271 net.cpp:369] relu3 -> ip3 (in-place)
I0428 20:12:33.421111 32271 net.cpp:124] Setting up relu3
I0428 20:12:33.421121 32271 net.cpp:131] Top shape: 64 10 (640)
I0428 20:12:33.421124 32271 net.cpp:139] Memory required for data: 6872320
I0428 20:12:33.421128 32271 layer_factory.hpp:77] Creating layer loss
I0428 20:12:33.421134 32271 net.cpp:86] Creating Layer loss
I0428 20:12:33.421138 32271 net.cpp:408] loss <- ip3
I0428 20:12:33.421141 32271 net.cpp:408] loss <- label
I0428 20:12:33.421157 32271 net.cpp:382] loss -> loss
I0428 20:12:33.421175 32271 layer_factory.hpp:77] Creating layer loss
…
I0428 20:12:33.421871 32271 solver.cpp:173] Creating test net (#0) specified by net file: ECE595/mnist/train_test/var_everything2/lenet_train_test1182.prototxt
I0428 20:12:33.421926 32271 net.cpp:296] The NetState phase (1) differed from the phase (0) specified by a rule in layer mnist
I0428 20:12:33.422020 32271 net.cpp:53] Initializing net from parameters: 
name: "LeNet"
state {
  phase: TEST
}
layer {
  name: "mnist"
  type: "Data"
  top: "data"
  top: "label"
  include {
    phase: TEST
  }
  transform_param {
    scale: 0.00390625
  }
  data_param {
    source: "examples/mnist/mnist_test_lmdb"
    batch_size: 100
    backend: LMDB
  }
}
layer {
  name: "conv0"
  type: "Convolution"
  bottom: "data"
  top: "conv0"
  param {
    lr_mult: 1
  }
  param {
    lr_mult: 2
  }
  convolution_param {
    num_output: 25
    kernel_size: 5
    stride: 1
    weight_filler {
      type: "xavier"
    }
    bias_filler {
      type: "constant"
    }
  }
}
layer {
  name: "pool0"
  type: "Pooling"
  bottom: "conv0"
  top: "pool0"
  pooling_param {
    pool: MAX
    kernel_size: 2
    stride: 2
  }
}
layer {
  name: "conv1"
  type: "Convolution"
  bottom: "pool0"
  top: "conv1"
  param {
    lr_mult: 1
  }
  param {
    lr_mult: 2
  }
  convolution_param {
    num_output: 100
    kernel_size: 5
    stride: 1
    weight_filler {
      type: "xavier"
    }
    bias_filler {
      type: "constant"
    }
  }
}
layer {
  name: "pool1"
  type: "Pooling"
  bottom: "conv1"
  top: "pool1"
  pooling_param {
    pool: MAX
    kernel_size: 2
    stride: 2
  }
}
layer {
  name: "ip1"
  type: "InnerProduct"
  bottom: "pool1"
  top: "ip1"
  param {
    lr_mult: 1
  }
  param {
    lr_mult: 2
  }
  inner_product_param {
    num_output: 10
    weight_filler {
      type: "xavier"
    }
    bias_filler {
      type: "constant"
    }
  }
}
layer {
  name: "relu1"
  type: "ReLU"
  bottom: "ip1"
  top: "ip1"
}
layer {
  name: "ip2"
  type: "InnerProduct"
  bottom: "ip1"
  top: "ip2"
  param {
    lr_mult: 1
  }
  param {
    lr_mult: 2
  }
  inner_product_param {
    num_output: 10
    weight_filler {
      type: "xavier"
    }
    bias_filler {
      type: "constant"
    }
  }
}
layer {
  name: "relu2"
  type: "ReLU"
  bottom: "ip2"
  top: "ip2"
}
layer {
  name: "ip3"
  type: "InnerProduct"
  bottom: "ip2"
  top: "ip3"
  param {
    lr_mult: 1
  }
  param {
    lr_mult: 2
  }
  inner_product_param {
    num_output: 10
    weight_filler {
      type: "xavier"
    }
    bias_filler {
      type: "constant"
    }
  }
}
layer {
  name: "relu3"
  type: "ReLU"
  bottom: "ip3"
  top: "ip3"
}
layer {
  name: "accuracy"
  type: "Accuracy"
  bottom: "ip3"
  bottom: "label"
  top: "accuracy"
  include {
    phase: TEST
  }
}
layer {
  name: "loss"
  type: "SoftmaxWithLoss"
  bottom: "ip3"
  bottom: "label"
  top: "loss"
}
I0428 20:12:33.422106 32271 layer_factory.hpp:77] Creating layer mnist
I0428 20:12:33.422152 32271 db_lmdb.cpp:35] Opened lmdb examples/mnist/mnist_test_lmdb
I0428 20:12:33.422168 32271 net.cpp:86] Creating Layer mnist
I0428 20:12:33.422174 32271 net.cpp:382] mnist -> data
I0428 20:12:33.422183 32271 net.cpp:382] mnist -> label
I0428 20:12:33.422268 32271 data_layer.cpp:45] output data size: 100,1,28,28
I0428 20:12:33.424192 32271 net.cpp:124] Setting up mnist
I0428 20:12:33.424206 32271 net.cpp:131] Top shape: 100 1 28 28 (78400)
I0428 20:12:33.424211 32271 net.cpp:131] Top shape: 100 (100)
I0428 20:12:33.424213 32271 net.cpp:139] Memory required for data: 314000
I0428 20:12:33.424217 32271 layer_factory.hpp:77] Creating layer label_mnist_1_split
I0428 20:12:33.424227 32271 net.cpp:86] Creating Layer label_mnist_1_split
I0428 20:12:33.424232 32271 net.cpp:408] label_mnist_1_split <- label
I0428 20:12:33.424260 32271 net.cpp:382] label_mnist_1_split -> label_mnist_1_split_0
I0428 20:12:33.424268 32271 net.cpp:382] label_mnist_1_split -> label_mnist_1_split_1
I0428 20:12:33.424314 32271 net.cpp:124] Setting up label_mnist_1_split
I0428 20:12:33.424320 32271 net.cpp:131] Top shape: 100 (100)
I0428 20:12:33.424324 32271 net.cpp:131] Top shape: 100 (100)
I0428 20:12:33.424326 32271 net.cpp:139] Memory required for data: 314800
I0428 20:12:33.424329 32271 layer_factory.hpp:77] Creating layer conv0
I0428 20:12:33.424340 32271 net.cpp:86] Creating Layer conv0
I0428 20:12:33.424343 32271 net.cpp:408] conv0 <- data
I0428 20:12:33.424348 32271 net.cpp:382] conv0 -> conv0
I0428 20:12:33.426105 32271 net.cpp:124] Setting up conv0
I0428 20:12:33.426128 32271 net.cpp:131] Top shape: 100 25 24 24 (1440000)
I0428 20:12:33.426133 32271 net.cpp:139] Memory required for data: 6074800
I0428 20:12:33.426143 32271 layer_factory.hpp:77] Creating layer pool0
I0428 20:12:33.426149 32271 net.cpp:86] Creating Layer pool0
I0428 20:12:33.426153 32271 net.cpp:408] pool0 <- conv0
I0428 20:12:33.426159 32271 net.cpp:382] pool0 -> pool0
I0428 20:12:33.426198 32271 net.cpp:124] Setting up pool0
I0428 20:12:33.426204 32271 net.cpp:131] Top shape: 100 25 12 12 (360000)
I0428 20:12:33.426206 32271 net.cpp:139] Memory required for data: 7514800
I0428 20:12:33.426209 32271 layer_factory.hpp:77] Creating layer conv1
I0428 20:12:33.426218 32271 net.cpp:86] Creating Layer conv1
I0428 20:12:33.426223 32271 net.cpp:408] conv1 <- pool0
I0428 20:12:33.426228 32271 net.cpp:382] conv1 -> conv1
I0428 20:12:33.428174 32271 net.cpp:124] Setting up conv1
I0428 20:12:33.428189 32271 net.cpp:131] Top shape: 100 100 8 8 (640000)
I0428 20:12:33.428192 32271 net.cpp:139] Memory required for data: 10074800
I0428 20:12:33.428201 32271 layer_factory.hpp:77] Creating layer pool1
I0428 20:12:33.428223 32271 net.cpp:86] Creating Layer pool1
I0428 20:12:33.428227 32271 net.cpp:408] pool1 <- conv1
I0428 20:12:33.428232 32271 net.cpp:382] pool1 -> pool1
I0428 20:12:33.428270 32271 net.cpp:124] Setting up pool1
I0428 20:12:33.428277 32271 net.cpp:131] Top shape: 100 100 4 4 (160000)
I0428 20:12:33.428280 32271 net.cpp:139] Memory required for data: 10714800
I0428 20:12:33.428283 32271 layer_factory.hpp:77] Creating layer ip1
I0428 20:12:33.428289 32271 net.cpp:86] Creating Layer ip1
I0428 20:12:33.428292 32271 net.cpp:408] ip1 <- pool1
I0428 20:12:33.428298 32271 net.cpp:382] ip1 -> ip1
I0428 20:12:33.428498 32271 net.cpp:124] Setting up ip1
I0428 20:12:33.428506 32271 net.cpp:131] Top shape: 100 10 (1000)
I0428 20:12:33.428519 32271 net.cpp:139] Memory required for data: 10718800
I0428 20:12:33.428527 32271 layer_factory.hpp:77] Creating layer relu1
I0428 20:12:33.428534 32271 net.cpp:86] Creating Layer relu1
I0428 20:12:33.428536 32271 net.cpp:408] relu1 <- ip1
I0428 20:12:33.428540 32271 net.cpp:369] relu1 -> ip1 (in-place)
I0428 20:12:33.428715 32271 net.cpp:124] Setting up relu1
I0428 20:12:33.428725 32271 net.cpp:131] Top shape: 100 10 (1000)
I0428 20:12:33.428727 32271 net.cpp:139] Memory required for data: 10722800
I0428 20:12:33.428730 32271 layer_factory.hpp:77] Creating layer ip2
I0428 20:12:33.428737 32271 net.cpp:86] Creating Layer ip2
I0428 20:12:33.428741 32271 net.cpp:408] ip2 <- ip1
I0428 20:12:33.428747 32271 net.cpp:382] ip2 -> ip2
I0428 20:12:33.428858 32271 net.cpp:124] Setting up ip2
I0428 20:12:33.428866 32271 net.cpp:131] Top shape: 100 10 (1000)
I0428 20:12:33.428869 32271 net.cpp:139] Memory required for data: 10726800
I0428 20:12:33.428874 32271 layer_factory.hpp:77] Creating layer relu2
I0428 20:12:33.428879 32271 net.cpp:86] Creating Layer relu2
I0428 20:12:33.428882 32271 net.cpp:408] relu2 <- ip2
I0428 20:12:33.428887 32271 net.cpp:369] relu2 -> ip2 (in-place)
I0428 20:12:33.429162 32271 net.cpp:124] Setting up relu2
I0428 20:12:33.429172 32271 net.cpp:131] Top shape: 100 10 (1000)
I0428 20:12:33.429195 32271 net.cpp:139] Memory required for data: 10730800
I0428 20:12:33.429198 32271 layer_factory.hpp:77] Creating layer ip3
I0428 20:12:33.429205 32271 net.cpp:86] Creating Layer ip3
I0428 20:12:33.429208 32271 net.cpp:408] ip3 <- ip2
I0428 20:12:33.429214 32271 net.cpp:382] ip3 -> ip3
I0428 20:12:33.429314 32271 net.cpp:124] Setting up ip3
I0428 20:12:33.429322 32271 net.cpp:131] Top shape: 100 10 (1000)
I0428 20:12:33.429324 32271 net.cpp:139] Memory required for data: 10734800
I0428 20:12:33.429332 32271 layer_factory.hpp:77] Creating layer relu3
I0428 20:12:33.429344 32271 net.cpp:86] Creating Layer relu3
I0428 20:12:33.429347 32271 net.cpp:408] relu3 <- ip3
I0428 20:12:33.429352 32271 net.cpp:369] relu3 -> ip3 (in-place)
I0428 20:12:33.430158 32271 net.cpp:124] Setting up relu3
I0428 20:12:33.430171 32271 net.cpp:131] Top shape: 100 10 (1000)
I0428 20:12:33.430177 32271 net.cpp:139] Memory required for data: 10738800
I0428 20:12:33.430181 32271 layer_factory.hpp:77] Creating layer ip3_relu3_0_split
I0428 20:12:33.430186 32271 net.cpp:86] Creating Layer ip3_relu3_0_split
I0428 20:12:33.430191 32271 net.cpp:408] ip3_relu3_0_split <- ip3
I0428 20:12:33.430196 32271 net.cpp:382] ip3_relu3_0_split -> ip3_relu3_0_split_0
I0428 20:12:33.430202 32271 net.cpp:382] ip3_relu3_0_split -> ip3_relu3_0_split_1
I0428 20:12:33.430289 32271 net.cpp:124] Setting up ip3_relu3_0_split
I0428 20:12:33.430295 32271 net.cpp:131] Top shape: 100 10 (1000)
I0428 20:12:33.430301 32271 net.cpp:131] Top shape: 100 10 (1000)
I0428 20:12:33.430305 32271 net.cpp:139] Memory required for data: 10746800
I0428 20:12:33.430310 32271 layer_factory.hpp:77] Creating layer accuracy
I0428 20:12:33.430332 32271 net.cpp:86] Creating Layer accuracy
I0428 20:12:33.430344 32271 net.cpp:408] accuracy <- ip3_relu3_0_split_0
I0428 20:12:33.430351 32271 net.cpp:408] accuracy <- label_mnist_1_split_0
I0428 20:12:33.430361 32271 net.cpp:382] accuracy -> accuracy
…
