…
I0428 19:55:01.094660 28095 net.cpp:296] The NetState phase (0) differed from the phase (1) specified by a rule in layer mnist
I0428 19:55:01.094679 28095 net.cpp:296] The NetState phase (0) differed from the phase (1) specified by a rule in layer accuracy
I0428 19:55:01.094784 28095 net.cpp:53] Initializing net from parameters: 
name: "LeNet"
state {
  phase: TRAIN
  level: 0
  stage: ""
}
layer {
  name: "mnist"
  type: "Data"
  top: "data"
  top: "label"
  include {
    phase: TRAIN
  }
  transform_param {
    scale: 0.00390625
  }
  data_param {
    source: "examples/mnist/mnist_train_lmdb"
    batch_size: 64
    backend: LMDB
  }
}
layer {
  name: "conv0"
  type: "Convolution"
  bottom: "data"
  top: "conv0"
  param {
    lr_mult: 1
  }
  param {
    lr_mult: 2
  }
  convolution_param {
    num_output: 5
    kernel_size: 5
    stride: 1
    weight_filler {
      type: "xavier"
    }
    bias_filler {
      type: "constant"
    }
  }
}
layer {
  name: "pool0"
  type: "Pooling"
  bottom: "conv0"
  top: "pool0"
  pooling_param {
    pool: MAX
    kernel_size: 2
    stride: 2
  }
}
layer {
  name: "conv1"
  type: "Convolution"
  bottom: "pool0"
  top: "conv1"
  param {
    lr_mult: 1
  }
  param {
    lr_mult: 2
  }
  convolution_param {
    num_output: 100
    kernel_size: 5
    stride: 1
    weight_filler {
      type: "xavier"
    }
    bias_filler {
      type: "constant"
    }
  }
}
layer {
  name: "pool1"
  type: "Pooling"
  bottom: "conv1"
  top: "pool1"
  pooling_param {
    pool: MAX
    kernel_size: 2
    stride: 2
  }
}
layer {
  name: "ip1"
  type: "InnerProduct"
  bottom: "pool1"
  top: "ip1"
  param {
    lr_mult: 1
  }
  param {
    lr_mult: 2
  }
  inner_product_param {
    num_output: 25
    weight_filler {
      type: "xavier"
    }
    bias_filler {
      type: "constant"
    }
  }
}
layer {
  name: "relu1"
  type: "ReLU"
  bottom: "ip1"
  top: "ip1"
}
layer {
  name: "ip2"
  type: "InnerProduct"
  bottom: "ip1"
  top: "ip2"
  param {
    lr_mult: 1
  }
  param {
    lr_mult: 2
  }
  inner_product_param {
    num_output: 10
    weight_filler {
      type: "xavier"
    }
    bias_filler {
      type: "constant"
    }
  }
}
layer {
  name: "relu2"
  type: "ReLU"
  bottom: "ip2"
  top: "ip2"
}
layer {
  name: "ip3"
  type: "InnerProduct"
  bottom: "ip2"
  top: "ip3"
  param {
    lr_mult: 1
  }
  param {
    lr_mult: 2
  }
  inner_product_param {
    num_output: 10
    weight_filler {
      type: "xavier"
    }
    bias_filler {
      type: "constant"
    }
  }
}
layer {
  name: "relu3"
  type: "ReLU"
  bottom: "ip3"
  top: "ip3"
}
layer {
  name: "loss"
  type: "SoftmaxWithLoss"
  bottom: "ip3"
  bottom: "label"
  top: "loss"
}
I0428 19:55:01.094863 28095 layer_factory.hpp:77] Creating layer mnist
I0428 19:55:01.094964 28095 db_lmdb.cpp:35] Opened lmdb examples/mnist/mnist_train_lmdb
I0428 19:55:01.094988 28095 net.cpp:86] Creating Layer mnist
I0428 19:55:01.094997 28095 net.cpp:382] mnist -> data
I0428 19:55:01.095019 28095 net.cpp:382] mnist -> label
I0428 19:55:01.096107 28095 data_layer.cpp:45] output data size: 64,1,28,28
I0428 19:55:01.098582 28095 net.cpp:124] Setting up mnist
I0428 19:55:01.098600 28095 net.cpp:131] Top shape: 64 1 28 28 (50176)
I0428 19:55:01.098606 28095 net.cpp:131] Top shape: 64 (64)
I0428 19:55:01.098610 28095 net.cpp:139] Memory required for data: 200960
I0428 19:55:01.098618 28095 layer_factory.hpp:77] Creating layer conv0
I0428 19:55:01.098666 28095 net.cpp:86] Creating Layer conv0
I0428 19:55:01.098688 28095 net.cpp:408] conv0 <- data
I0428 19:55:01.098702 28095 net.cpp:382] conv0 -> conv0
I0428 19:55:01.376000 28095 net.cpp:124] Setting up conv0
I0428 19:55:01.376026 28095 net.cpp:131] Top shape: 64 5 24 24 (184320)
I0428 19:55:01.376030 28095 net.cpp:139] Memory required for data: 938240
I0428 19:55:01.376044 28095 layer_factory.hpp:77] Creating layer pool0
I0428 19:55:01.376057 28095 net.cpp:86] Creating Layer pool0
I0428 19:55:01.376061 28095 net.cpp:408] pool0 <- conv0
I0428 19:55:01.376066 28095 net.cpp:382] pool0 -> pool0
I0428 19:55:01.376126 28095 net.cpp:124] Setting up pool0
I0428 19:55:01.376132 28095 net.cpp:131] Top shape: 64 5 12 12 (46080)
I0428 19:55:01.376133 28095 net.cpp:139] Memory required for data: 1122560
I0428 19:55:01.376137 28095 layer_factory.hpp:77] Creating layer conv1
I0428 19:55:01.376147 28095 net.cpp:86] Creating Layer conv1
I0428 19:55:01.376150 28095 net.cpp:408] conv1 <- pool0
I0428 19:55:01.376170 28095 net.cpp:382] conv1 -> conv1
I0428 19:55:01.379052 28095 net.cpp:124] Setting up conv1
I0428 19:55:01.379082 28095 net.cpp:131] Top shape: 64 100 8 8 (409600)
I0428 19:55:01.379086 28095 net.cpp:139] Memory required for data: 2760960
I0428 19:55:01.379094 28095 layer_factory.hpp:77] Creating layer pool1
I0428 19:55:01.379101 28095 net.cpp:86] Creating Layer pool1
I0428 19:55:01.379104 28095 net.cpp:408] pool1 <- conv1
I0428 19:55:01.379109 28095 net.cpp:382] pool1 -> pool1
I0428 19:55:01.379160 28095 net.cpp:124] Setting up pool1
I0428 19:55:01.379165 28095 net.cpp:131] Top shape: 64 100 4 4 (102400)
I0428 19:55:01.379168 28095 net.cpp:139] Memory required for data: 3170560
I0428 19:55:01.379171 28095 layer_factory.hpp:77] Creating layer ip1
I0428 19:55:01.379179 28095 net.cpp:86] Creating Layer ip1
I0428 19:55:01.379181 28095 net.cpp:408] ip1 <- pool1
I0428 19:55:01.379185 28095 net.cpp:382] ip1 -> ip1
I0428 19:55:01.379532 28095 net.cpp:124] Setting up ip1
I0428 19:55:01.379539 28095 net.cpp:131] Top shape: 64 25 (1600)
I0428 19:55:01.379559 28095 net.cpp:139] Memory required for data: 3176960
I0428 19:55:01.379565 28095 layer_factory.hpp:77] Creating layer relu1
I0428 19:55:01.379570 28095 net.cpp:86] Creating Layer relu1
I0428 19:55:01.379575 28095 net.cpp:408] relu1 <- ip1
I0428 19:55:01.379578 28095 net.cpp:369] relu1 -> ip1 (in-place)
I0428 19:55:01.379739 28095 net.cpp:124] Setting up relu1
I0428 19:55:01.379748 28095 net.cpp:131] Top shape: 64 25 (1600)
I0428 19:55:01.379751 28095 net.cpp:139] Memory required for data: 3183360
I0428 19:55:01.379755 28095 layer_factory.hpp:77] Creating layer ip2
I0428 19:55:01.379775 28095 net.cpp:86] Creating Layer ip2
I0428 19:55:01.379777 28095 net.cpp:408] ip2 <- ip1
I0428 19:55:01.379782 28095 net.cpp:382] ip2 -> ip2
I0428 19:55:01.379884 28095 net.cpp:124] Setting up ip2
I0428 19:55:01.379889 28095 net.cpp:131] Top shape: 64 10 (640)
I0428 19:55:01.379892 28095 net.cpp:139] Memory required for data: 3185920
I0428 19:55:01.379897 28095 layer_factory.hpp:77] Creating layer relu2
I0428 19:55:01.379902 28095 net.cpp:86] Creating Layer relu2
I0428 19:55:01.379905 28095 net.cpp:408] relu2 <- ip2
I0428 19:55:01.379909 28095 net.cpp:369] relu2 -> ip2 (in-place)
I0428 19:55:01.380681 28095 net.cpp:124] Setting up relu2
I0428 19:55:01.380692 28095 net.cpp:131] Top shape: 64 10 (640)
I0428 19:55:01.380707 28095 net.cpp:139] Memory required for data: 3188480
I0428 19:55:01.380712 28095 layer_factory.hpp:77] Creating layer ip3
I0428 19:55:01.380718 28095 net.cpp:86] Creating Layer ip3
I0428 19:55:01.380722 28095 net.cpp:408] ip3 <- ip2
I0428 19:55:01.380728 28095 net.cpp:382] ip3 -> ip3
I0428 19:55:01.380848 28095 net.cpp:124] Setting up ip3
I0428 19:55:01.380872 28095 net.cpp:131] Top shape: 64 10 (640)
I0428 19:55:01.380877 28095 net.cpp:139] Memory required for data: 3191040
I0428 19:55:01.380887 28095 layer_factory.hpp:77] Creating layer relu3
I0428 19:55:01.380895 28095 net.cpp:86] Creating Layer relu3
I0428 19:55:01.380899 28095 net.cpp:408] relu3 <- ip3
I0428 19:55:01.380903 28095 net.cpp:369] relu3 -> ip3 (in-place)
I0428 19:55:01.381088 28095 net.cpp:124] Setting up relu3
I0428 19:55:01.381098 28095 net.cpp:131] Top shape: 64 10 (640)
I0428 19:55:01.381101 28095 net.cpp:139] Memory required for data: 3193600
I0428 19:55:01.381104 28095 layer_factory.hpp:77] Creating layer loss
I0428 19:55:01.381111 28095 net.cpp:86] Creating Layer loss
I0428 19:55:01.381114 28095 net.cpp:408] loss <- ip3
I0428 19:55:01.381119 28095 net.cpp:408] loss <- label
I0428 19:55:01.381124 28095 net.cpp:382] loss -> loss
I0428 19:55:01.381142 28095 layer_factory.hpp:77] Creating layer loss
…
I0428 19:55:01.381855 28095 solver.cpp:173] Creating test net (#0) specified by net file: ECE595/mnist/train_test/var_everything2/lenet_train_test723.prototxt
I0428 19:55:01.381908 28095 net.cpp:296] The NetState phase (1) differed from the phase (0) specified by a rule in layer mnist
I0428 19:55:01.382014 28095 net.cpp:53] Initializing net from parameters: 
name: "LeNet"
state {
  phase: TEST
}
layer {
  name: "mnist"
  type: "Data"
  top: "data"
  top: "label"
  include {
    phase: TEST
  }
  transform_param {
    scale: 0.00390625
  }
  data_param {
    source: "examples/mnist/mnist_test_lmdb"
    batch_size: 100
    backend: LMDB
  }
}
layer {
  name: "conv0"
  type: "Convolution"
  bottom: "data"
  top: "conv0"
  param {
    lr_mult: 1
  }
  param {
    lr_mult: 2
  }
  convolution_param {
    num_output: 5
    kernel_size: 5
    stride: 1
    weight_filler {
      type: "xavier"
    }
    bias_filler {
      type: "constant"
    }
  }
}
layer {
  name: "pool0"
  type: "Pooling"
  bottom: "conv0"
  top: "pool0"
  pooling_param {
    pool: MAX
    kernel_size: 2
    stride: 2
  }
}
layer {
  name: "conv1"
  type: "Convolution"
  bottom: "pool0"
  top: "conv1"
  param {
    lr_mult: 1
  }
  param {
    lr_mult: 2
  }
  convolution_param {
    num_output: 100
    kernel_size: 5
    stride: 1
    weight_filler {
      type: "xavier"
    }
    bias_filler {
      type: "constant"
    }
  }
}
layer {
  name: "pool1"
  type: "Pooling"
  bottom: "conv1"
  top: "pool1"
  pooling_param {
    pool: MAX
    kernel_size: 2
    stride: 2
  }
}
layer {
  name: "ip1"
  type: "InnerProduct"
  bottom: "pool1"
  top: "ip1"
  param {
    lr_mult: 1
  }
  param {
    lr_mult: 2
  }
  inner_product_param {
    num_output: 25
    weight_filler {
      type: "xavier"
    }
    bias_filler {
      type: "constant"
    }
  }
}
layer {
  name: "relu1"
  type: "ReLU"
  bottom: "ip1"
  top: "ip1"
}
layer {
  name: "ip2"
  type: "InnerProduct"
  bottom: "ip1"
  top: "ip2"
  param {
    lr_mult: 1
  }
  param {
    lr_mult: 2
  }
  inner_product_param {
    num_output: 10
    weight_filler {
      type: "xavier"
    }
    bias_filler {
      type: "constant"
    }
  }
}
layer {
  name: "relu2"
  type: "ReLU"
  bottom: "ip2"
  top: "ip2"
}
layer {
  name: "ip3"
  type: "InnerProduct"
  bottom: "ip2"
  top: "ip3"
  param {
    lr_mult: 1
  }
  param {
    lr_mult: 2
  }
  inner_product_param {
    num_output: 10
    weight_filler {
      type: "xavier"
    }
    bias_filler {
      type: "constant"
    }
  }
}
layer {
  name: "relu3"
  type: "ReLU"
  bottom: "ip3"
  top: "ip3"
}
layer {
  name: "accuracy"
  type: "Accuracy"
  bottom: "ip3"
  bottom: "label"
  top: "accuracy"
  include {
    phase: TEST
  }
}
layer {
  name: "loss"
  type: "SoftmaxWithLoss"
  bottom: "ip3"
  bottom: "label"
  top: "loss"
}
I0428 19:55:01.382088 28095 layer_factory.hpp:77] Creating layer mnist
I0428 19:55:01.382133 28095 db_lmdb.cpp:35] Opened lmdb examples/mnist/mnist_test_lmdb
I0428 19:55:01.382144 28095 net.cpp:86] Creating Layer mnist
I0428 19:55:01.382149 28095 net.cpp:382] mnist -> data
I0428 19:55:01.382156 28095 net.cpp:382] mnist -> label
I0428 19:55:01.382249 28095 data_layer.cpp:45] output data size: 100,1,28,28
I0428 19:55:01.384299 28095 net.cpp:124] Setting up mnist
I0428 19:55:01.384343 28095 net.cpp:131] Top shape: 100 1 28 28 (78400)
I0428 19:55:01.384349 28095 net.cpp:131] Top shape: 100 (100)
I0428 19:55:01.384352 28095 net.cpp:139] Memory required for data: 314000
I0428 19:55:01.384356 28095 layer_factory.hpp:77] Creating layer label_mnist_1_split
I0428 19:55:01.384382 28095 net.cpp:86] Creating Layer label_mnist_1_split
I0428 19:55:01.384385 28095 net.cpp:408] label_mnist_1_split <- label
I0428 19:55:01.384390 28095 net.cpp:382] label_mnist_1_split -> label_mnist_1_split_0
I0428 19:55:01.384397 28095 net.cpp:382] label_mnist_1_split -> label_mnist_1_split_1
I0428 19:55:01.384438 28095 net.cpp:124] Setting up label_mnist_1_split
I0428 19:55:01.384454 28095 net.cpp:131] Top shape: 100 (100)
I0428 19:55:01.384457 28095 net.cpp:131] Top shape: 100 (100)
I0428 19:55:01.384460 28095 net.cpp:139] Memory required for data: 314800
I0428 19:55:01.384464 28095 layer_factory.hpp:77] Creating layer conv0
I0428 19:55:01.384471 28095 net.cpp:86] Creating Layer conv0
I0428 19:55:01.384475 28095 net.cpp:408] conv0 <- data
I0428 19:55:01.384480 28095 net.cpp:382] conv0 -> conv0
I0428 19:55:01.386198 28095 net.cpp:124] Setting up conv0
I0428 19:55:01.386211 28095 net.cpp:131] Top shape: 100 5 24 24 (288000)
I0428 19:55:01.386215 28095 net.cpp:139] Memory required for data: 1466800
I0428 19:55:01.386240 28095 layer_factory.hpp:77] Creating layer pool0
I0428 19:55:01.386262 28095 net.cpp:86] Creating Layer pool0
I0428 19:55:01.386265 28095 net.cpp:408] pool0 <- conv0
I0428 19:55:01.386270 28095 net.cpp:382] pool0 -> pool0
I0428 19:55:01.386304 28095 net.cpp:124] Setting up pool0
I0428 19:55:01.386310 28095 net.cpp:131] Top shape: 100 5 12 12 (72000)
I0428 19:55:01.386313 28095 net.cpp:139] Memory required for data: 1754800
I0428 19:55:01.386317 28095 layer_factory.hpp:77] Creating layer conv1
I0428 19:55:01.386338 28095 net.cpp:86] Creating Layer conv1
I0428 19:55:01.386343 28095 net.cpp:408] conv1 <- pool0
I0428 19:55:01.386346 28095 net.cpp:382] conv1 -> conv1
I0428 19:55:01.387970 28095 net.cpp:124] Setting up conv1
I0428 19:55:01.388000 28095 net.cpp:131] Top shape: 100 100 8 8 (640000)
I0428 19:55:01.388005 28095 net.cpp:139] Memory required for data: 4314800
I0428 19:55:01.388013 28095 layer_factory.hpp:77] Creating layer pool1
I0428 19:55:01.388021 28095 net.cpp:86] Creating Layer pool1
I0428 19:55:01.388025 28095 net.cpp:408] pool1 <- conv1
I0428 19:55:01.388031 28095 net.cpp:382] pool1 -> pool1
I0428 19:55:01.388067 28095 net.cpp:124] Setting up pool1
I0428 19:55:01.388072 28095 net.cpp:131] Top shape: 100 100 4 4 (160000)
I0428 19:55:01.388075 28095 net.cpp:139] Memory required for data: 4954800
I0428 19:55:01.388078 28095 layer_factory.hpp:77] Creating layer ip1
I0428 19:55:01.388084 28095 net.cpp:86] Creating Layer ip1
I0428 19:55:01.388087 28095 net.cpp:408] ip1 <- pool1
I0428 19:55:01.388093 28095 net.cpp:382] ip1 -> ip1
I0428 19:55:01.388504 28095 net.cpp:124] Setting up ip1
I0428 19:55:01.388511 28095 net.cpp:131] Top shape: 100 25 (2500)
I0428 19:55:01.388559 28095 net.cpp:139] Memory required for data: 4964800
I0428 19:55:01.388582 28095 layer_factory.hpp:77] Creating layer relu1
I0428 19:55:01.388586 28095 net.cpp:86] Creating Layer relu1
I0428 19:55:01.388591 28095 net.cpp:408] relu1 <- ip1
I0428 19:55:01.388594 28095 net.cpp:369] relu1 -> ip1 (in-place)
I0428 19:55:01.388748 28095 net.cpp:124] Setting up relu1
I0428 19:55:01.388756 28095 net.cpp:131] Top shape: 100 25 (2500)
I0428 19:55:01.388761 28095 net.cpp:139] Memory required for data: 4974800
I0428 19:55:01.388763 28095 layer_factory.hpp:77] Creating layer ip2
I0428 19:55:01.388769 28095 net.cpp:86] Creating Layer ip2
I0428 19:55:01.388773 28095 net.cpp:408] ip2 <- ip1
I0428 19:55:01.388778 28095 net.cpp:382] ip2 -> ip2
I0428 19:55:01.388921 28095 net.cpp:124] Setting up ip2
I0428 19:55:01.388929 28095 net.cpp:131] Top shape: 100 10 (1000)
I0428 19:55:01.388933 28095 net.cpp:139] Memory required for data: 4978800
I0428 19:55:01.388939 28095 layer_factory.hpp:77] Creating layer relu2
I0428 19:55:01.388943 28095 net.cpp:86] Creating Layer relu2
I0428 19:55:01.388947 28095 net.cpp:408] relu2 <- ip2
I0428 19:55:01.388952 28095 net.cpp:369] relu2 -> ip2 (in-place)
I0428 19:55:01.389156 28095 net.cpp:124] Setting up relu2
I0428 19:55:01.389165 28095 net.cpp:131] Top shape: 100 10 (1000)
I0428 19:55:01.389168 28095 net.cpp:139] Memory required for data: 4982800
I0428 19:55:01.389171 28095 layer_factory.hpp:77] Creating layer ip3
I0428 19:55:01.389176 28095 net.cpp:86] Creating Layer ip3
I0428 19:55:01.389180 28095 net.cpp:408] ip3 <- ip2
I0428 19:55:01.389185 28095 net.cpp:382] ip3 -> ip3
I0428 19:55:01.389277 28095 net.cpp:124] Setting up ip3
I0428 19:55:01.389284 28095 net.cpp:131] Top shape: 100 10 (1000)
I0428 19:55:01.389293 28095 net.cpp:139] Memory required for data: 4986800
I0428 19:55:01.389302 28095 layer_factory.hpp:77] Creating layer relu3
I0428 19:55:01.389307 28095 net.cpp:86] Creating Layer relu3
I0428 19:55:01.389309 28095 net.cpp:408] relu3 <- ip3
I0428 19:55:01.389334 28095 net.cpp:369] relu3 -> ip3 (in-place)
I0428 19:55:01.390192 28095 net.cpp:124] Setting up relu3
I0428 19:55:01.390205 28095 net.cpp:131] Top shape: 100 10 (1000)
I0428 19:55:01.390224 28095 net.cpp:139] Memory required for data: 4990800
I0428 19:55:01.390228 28095 layer_factory.hpp:77] Creating layer ip3_relu3_0_split
I0428 19:55:01.390234 28095 net.cpp:86] Creating Layer ip3_relu3_0_split
I0428 19:55:01.390238 28095 net.cpp:408] ip3_relu3_0_split <- ip3
I0428 19:55:01.390242 28095 net.cpp:382] ip3_relu3_0_split -> ip3_relu3_0_split_0
I0428 19:55:01.390249 28095 net.cpp:382] ip3_relu3_0_split -> ip3_relu3_0_split_1
I0428 19:55:01.390305 28095 net.cpp:124] Setting up ip3_relu3_0_split
I0428 19:55:01.390311 28095 net.cpp:131] Top shape: 100 10 (1000)
I0428 19:55:01.390314 28095 net.cpp:131] Top shape: 100 10 (1000)
I0428 19:55:01.390317 28095 net.cpp:139] Memory required for data: 4998800
I0428 19:55:01.390321 28095 layer_factory.hpp:77] Creating layer accuracy
I0428 19:55:01.390326 28095 net.cpp:86] Creating Layer accuracy
I0428 19:55:01.390329 28095 net.cpp:408] accuracy <- ip3_relu3_0_split_0
I0428 19:55:01.390333 28095 net.cpp:408] accuracy <- label_mnist_1_split_0
I0428 19:55:01.390337 28095 net.cpp:382] accuracy -> accuracy
…
