…
I0428 20:02:08.842336 29881 net.cpp:296] The NetState phase (0) differed from the phase (1) specified by a rule in layer mnist
I0428 20:02:08.842355 29881 net.cpp:296] The NetState phase (0) differed from the phase (1) specified by a rule in layer accuracy
I0428 20:02:08.842468 29881 net.cpp:53] Initializing net from parameters: 
name: "LeNet"
state {
  phase: TRAIN
  level: 0
  stage: ""
}
layer {
  name: "mnist"
  type: "Data"
  top: "data"
  top: "label"
  include {
    phase: TRAIN
  }
  transform_param {
    scale: 0.00390625
  }
  data_param {
    source: "examples/mnist/mnist_train_lmdb"
    batch_size: 64
    backend: LMDB
  }
}
layer {
  name: "conv0"
  type: "Convolution"
  bottom: "data"
  top: "conv0"
  param {
    lr_mult: 1
  }
  param {
    lr_mult: 2
  }
  convolution_param {
    num_output: 10
    kernel_size: 5
    stride: 1
    weight_filler {
      type: "xavier"
    }
    bias_filler {
      type: "constant"
    }
  }
}
layer {
  name: "pool0"
  type: "Pooling"
  bottom: "conv0"
  top: "pool0"
  pooling_param {
    pool: MAX
    kernel_size: 2
    stride: 2
  }
}
layer {
  name: "conv1"
  type: "Convolution"
  bottom: "pool0"
  top: "conv1"
  param {
    lr_mult: 1
  }
  param {
    lr_mult: 2
  }
  convolution_param {
    num_output: 50
    kernel_size: 5
    stride: 1
    weight_filler {
      type: "xavier"
    }
    bias_filler {
      type: "constant"
    }
  }
}
layer {
  name: "pool1"
  type: "Pooling"
  bottom: "conv1"
  top: "pool1"
  pooling_param {
    pool: MAX
    kernel_size: 2
    stride: 2
  }
}
layer {
  name: "ip1"
  type: "InnerProduct"
  bottom: "pool1"
  top: "ip1"
  param {
    lr_mult: 1
  }
  param {
    lr_mult: 2
  }
  inner_product_param {
    num_output: 25
    weight_filler {
      type: "xavier"
    }
    bias_filler {
      type: "constant"
    }
  }
}
layer {
  name: "relu1"
  type: "ReLU"
  bottom: "ip1"
  top: "ip1"
}
layer {
  name: "ip2"
  type: "InnerProduct"
  bottom: "ip1"
  top: "ip2"
  param {
    lr_mult: 1
  }
  param {
    lr_mult: 2
  }
  inner_product_param {
    num_output: 25
    weight_filler {
      type: "xavier"
    }
    bias_filler {
      type: "constant"
    }
  }
}
layer {
  name: "relu2"
  type: "ReLU"
  bottom: "ip2"
  top: "ip2"
}
layer {
  name: "ip3"
  type: "InnerProduct"
  bottom: "ip2"
  top: "ip3"
  param {
    lr_mult: 1
  }
  param {
    lr_mult: 2
  }
  inner_product_param {
    num_output: 10
    weight_filler {
      type: "xavier"
    }
    bias_filler {
      type: "constant"
    }
  }
}
layer {
  name: "relu3"
  type: "ReLU"
  bottom: "ip3"
  top: "ip3"
}
layer {
  name: "loss"
  type: "SoftmaxWithLoss"
  bottom: "ip3"
  bottom: "label"
  top: "loss"
}
I0428 20:02:08.842545 29881 layer_factory.hpp:77] Creating layer mnist
I0428 20:02:08.842650 29881 db_lmdb.cpp:35] Opened lmdb examples/mnist/mnist_train_lmdb
I0428 20:02:08.842676 29881 net.cpp:86] Creating Layer mnist
I0428 20:02:08.842684 29881 net.cpp:382] mnist -> data
I0428 20:02:08.842710 29881 net.cpp:382] mnist -> label
I0428 20:02:08.843889 29881 data_layer.cpp:45] output data size: 64,1,28,28
I0428 20:02:08.846513 29881 net.cpp:124] Setting up mnist
I0428 20:02:08.846537 29881 net.cpp:131] Top shape: 64 1 28 28 (50176)
I0428 20:02:08.846554 29881 net.cpp:131] Top shape: 64 (64)
I0428 20:02:08.846560 29881 net.cpp:139] Memory required for data: 200960
I0428 20:02:08.846566 29881 layer_factory.hpp:77] Creating layer conv0
I0428 20:02:08.846582 29881 net.cpp:86] Creating Layer conv0
I0428 20:02:08.846612 29881 net.cpp:408] conv0 <- data
I0428 20:02:08.846624 29881 net.cpp:382] conv0 -> conv0
I0428 20:02:09.133029 29881 net.cpp:124] Setting up conv0
I0428 20:02:09.133059 29881 net.cpp:131] Top shape: 64 10 24 24 (368640)
I0428 20:02:09.133064 29881 net.cpp:139] Memory required for data: 1675520
I0428 20:02:09.133083 29881 layer_factory.hpp:77] Creating layer pool0
I0428 20:02:09.133098 29881 net.cpp:86] Creating Layer pool0
I0428 20:02:09.133103 29881 net.cpp:408] pool0 <- conv0
I0428 20:02:09.133110 29881 net.cpp:382] pool0 -> pool0
I0428 20:02:09.133173 29881 net.cpp:124] Setting up pool0
I0428 20:02:09.133179 29881 net.cpp:131] Top shape: 64 10 12 12 (92160)
I0428 20:02:09.133184 29881 net.cpp:139] Memory required for data: 2044160
I0428 20:02:09.133188 29881 layer_factory.hpp:77] Creating layer conv1
I0428 20:02:09.133200 29881 net.cpp:86] Creating Layer conv1
I0428 20:02:09.133204 29881 net.cpp:408] conv1 <- pool0
I0428 20:02:09.133210 29881 net.cpp:382] conv1 -> conv1
I0428 20:02:09.136365 29881 net.cpp:124] Setting up conv1
I0428 20:02:09.136382 29881 net.cpp:131] Top shape: 64 50 8 8 (204800)
I0428 20:02:09.136386 29881 net.cpp:139] Memory required for data: 2863360
I0428 20:02:09.136397 29881 layer_factory.hpp:77] Creating layer pool1
I0428 20:02:09.136406 29881 net.cpp:86] Creating Layer pool1
I0428 20:02:09.136410 29881 net.cpp:408] pool1 <- conv1
I0428 20:02:09.136416 29881 net.cpp:382] pool1 -> pool1
I0428 20:02:09.136459 29881 net.cpp:124] Setting up pool1
I0428 20:02:09.136466 29881 net.cpp:131] Top shape: 64 50 4 4 (51200)
I0428 20:02:09.136471 29881 net.cpp:139] Memory required for data: 3068160
I0428 20:02:09.136473 29881 layer_factory.hpp:77] Creating layer ip1
I0428 20:02:09.136482 29881 net.cpp:86] Creating Layer ip1
I0428 20:02:09.136487 29881 net.cpp:408] ip1 <- pool1
I0428 20:02:09.136492 29881 net.cpp:382] ip1 -> ip1
I0428 20:02:09.136734 29881 net.cpp:124] Setting up ip1
I0428 20:02:09.136744 29881 net.cpp:131] Top shape: 64 25 (1600)
I0428 20:02:09.136747 29881 net.cpp:139] Memory required for data: 3074560
I0428 20:02:09.136756 29881 layer_factory.hpp:77] Creating layer relu1
I0428 20:02:09.136771 29881 net.cpp:86] Creating Layer relu1
I0428 20:02:09.136775 29881 net.cpp:408] relu1 <- ip1
I0428 20:02:09.136780 29881 net.cpp:369] relu1 -> ip1 (in-place)
I0428 20:02:09.136984 29881 net.cpp:124] Setting up relu1
I0428 20:02:09.136996 29881 net.cpp:131] Top shape: 64 25 (1600)
I0428 20:02:09.136999 29881 net.cpp:139] Memory required for data: 3080960
I0428 20:02:09.137003 29881 layer_factory.hpp:77] Creating layer ip2
I0428 20:02:09.137011 29881 net.cpp:86] Creating Layer ip2
I0428 20:02:09.137014 29881 net.cpp:408] ip2 <- ip1
I0428 20:02:09.137020 29881 net.cpp:382] ip2 -> ip2
I0428 20:02:09.137130 29881 net.cpp:124] Setting up ip2
I0428 20:02:09.137138 29881 net.cpp:131] Top shape: 64 25 (1600)
I0428 20:02:09.137142 29881 net.cpp:139] Memory required for data: 3087360
I0428 20:02:09.137150 29881 layer_factory.hpp:77] Creating layer relu2
I0428 20:02:09.137156 29881 net.cpp:86] Creating Layer relu2
I0428 20:02:09.137161 29881 net.cpp:408] relu2 <- ip2
I0428 20:02:09.137166 29881 net.cpp:369] relu2 -> ip2 (in-place)
I0428 20:02:09.138012 29881 net.cpp:124] Setting up relu2
I0428 20:02:09.138026 29881 net.cpp:131] Top shape: 64 25 (1600)
I0428 20:02:09.138031 29881 net.cpp:139] Memory required for data: 3093760
I0428 20:02:09.138036 29881 layer_factory.hpp:77] Creating layer ip3
I0428 20:02:09.138043 29881 net.cpp:86] Creating Layer ip3
I0428 20:02:09.138047 29881 net.cpp:408] ip3 <- ip2
I0428 20:02:09.138054 29881 net.cpp:382] ip3 -> ip3
I0428 20:02:09.138165 29881 net.cpp:124] Setting up ip3
I0428 20:02:09.138178 29881 net.cpp:131] Top shape: 64 10 (640)
I0428 20:02:09.138182 29881 net.cpp:139] Memory required for data: 3096320
I0428 20:02:09.138192 29881 layer_factory.hpp:77] Creating layer relu3
I0428 20:02:09.138198 29881 net.cpp:86] Creating Layer relu3
I0428 20:02:09.138202 29881 net.cpp:408] relu3 <- ip3
I0428 20:02:09.138207 29881 net.cpp:369] relu3 -> ip3 (in-place)
I0428 20:02:09.138397 29881 net.cpp:124] Setting up relu3
I0428 20:02:09.138407 29881 net.cpp:131] Top shape: 64 10 (640)
I0428 20:02:09.138411 29881 net.cpp:139] Memory required for data: 3098880
I0428 20:02:09.138415 29881 layer_factory.hpp:77] Creating layer loss
I0428 20:02:09.138422 29881 net.cpp:86] Creating Layer loss
I0428 20:02:09.138427 29881 net.cpp:408] loss <- ip3
I0428 20:02:09.138432 29881 net.cpp:408] loss <- label
I0428 20:02:09.138437 29881 net.cpp:382] loss -> loss
I0428 20:02:09.138458 29881 layer_factory.hpp:77] Creating layer loss
…
I0428 20:02:09.139189 29881 solver.cpp:173] Creating test net (#0) specified by net file: ECE595/mnist/train_test/var_everything2/lenet_train_test921.prototxt
I0428 20:02:09.139221 29881 net.cpp:296] The NetState phase (1) differed from the phase (0) specified by a rule in layer mnist
I0428 20:02:09.139339 29881 net.cpp:53] Initializing net from parameters: 
name: "LeNet"
state {
  phase: TEST
}
layer {
  name: "mnist"
  type: "Data"
  top: "data"
  top: "label"
  include {
    phase: TEST
  }
  transform_param {
    scale: 0.00390625
  }
  data_param {
    source: "examples/mnist/mnist_test_lmdb"
    batch_size: 100
    backend: LMDB
  }
}
layer {
  name: "conv0"
  type: "Convolution"
  bottom: "data"
  top: "conv0"
  param {
    lr_mult: 1
  }
  param {
    lr_mult: 2
  }
  convolution_param {
    num_output: 10
    kernel_size: 5
    stride: 1
    weight_filler {
      type: "xavier"
    }
    bias_filler {
      type: "constant"
    }
  }
}
layer {
  name: "pool0"
  type: "Pooling"
  bottom: "conv0"
  top: "pool0"
  pooling_param {
    pool: MAX
    kernel_size: 2
    stride: 2
  }
}
layer {
  name: "conv1"
  type: "Convolution"
  bottom: "pool0"
  top: "conv1"
  param {
    lr_mult: 1
  }
  param {
    lr_mult: 2
  }
  convolution_param {
    num_output: 50
    kernel_size: 5
    stride: 1
    weight_filler {
      type: "xavier"
    }
    bias_filler {
      type: "constant"
    }
  }
}
layer {
  name: "pool1"
  type: "Pooling"
  bottom: "conv1"
  top: "pool1"
  pooling_param {
    pool: MAX
    kernel_size: 2
    stride: 2
  }
}
layer {
  name: "ip1"
  type: "InnerProduct"
  bottom: "pool1"
  top: "ip1"
  param {
    lr_mult: 1
  }
  param {
    lr_mult: 2
  }
  inner_product_param {
    num_output: 25
    weight_filler {
      type: "xavier"
    }
    bias_filler {
      type: "constant"
    }
  }
}
layer {
  name: "relu1"
  type: "ReLU"
  bottom: "ip1"
  top: "ip1"
}
layer {
  name: "ip2"
  type: "InnerProduct"
  bottom: "ip1"
  top: "ip2"
  param {
    lr_mult: 1
  }
  param {
    lr_mult: 2
  }
  inner_product_param {
    num_output: 25
    weight_filler {
      type: "xavier"
    }
    bias_filler {
      type: "constant"
    }
  }
}
layer {
  name: "relu2"
  type: "ReLU"
  bottom: "ip2"
  top: "ip2"
}
layer {
  name: "ip3"
  type: "InnerProduct"
  bottom: "ip2"
  top: "ip3"
  param {
    lr_mult: 1
  }
  param {
    lr_mult: 2
  }
  inner_product_param {
    num_output: 10
    weight_filler {
      type: "xavier"
    }
    bias_filler {
      type: "constant"
    }
  }
}
layer {
  name: "relu3"
  type: "ReLU"
  bottom: "ip3"
  top: "ip3"
}
layer {
  name: "accuracy"
  type: "Accuracy"
  bottom: "ip3"
  bottom: "label"
  top: "accuracy"
  include {
    phase: TEST
  }
}
layer {
  name: "loss"
  type: "SoftmaxWithLoss"
  bottom: "ip3"
  bottom: "label"
  top: "loss"
}
I0428 20:02:09.139430 29881 layer_factory.hpp:77] Creating layer mnist
I0428 20:02:09.139480 29881 db_lmdb.cpp:35] Opened lmdb examples/mnist/mnist_test_lmdb
I0428 20:02:09.139495 29881 net.cpp:86] Creating Layer mnist
I0428 20:02:09.139502 29881 net.cpp:382] mnist -> data
I0428 20:02:09.139511 29881 net.cpp:382] mnist -> label
I0428 20:02:09.139605 29881 data_layer.cpp:45] output data size: 100,1,28,28
I0428 20:02:09.141775 29881 net.cpp:124] Setting up mnist
I0428 20:02:09.141790 29881 net.cpp:131] Top shape: 100 1 28 28 (78400)
I0428 20:02:09.141805 29881 net.cpp:131] Top shape: 100 (100)
I0428 20:02:09.141809 29881 net.cpp:139] Memory required for data: 314000
I0428 20:02:09.141813 29881 layer_factory.hpp:77] Creating layer label_mnist_1_split
I0428 20:02:09.141821 29881 net.cpp:86] Creating Layer label_mnist_1_split
I0428 20:02:09.141826 29881 net.cpp:408] label_mnist_1_split <- label
I0428 20:02:09.141832 29881 net.cpp:382] label_mnist_1_split -> label_mnist_1_split_0
I0428 20:02:09.141840 29881 net.cpp:382] label_mnist_1_split -> label_mnist_1_split_1
I0428 20:02:09.141958 29881 net.cpp:124] Setting up label_mnist_1_split
I0428 20:02:09.141968 29881 net.cpp:131] Top shape: 100 (100)
I0428 20:02:09.141971 29881 net.cpp:131] Top shape: 100 (100)
I0428 20:02:09.141975 29881 net.cpp:139] Memory required for data: 314800
I0428 20:02:09.141979 29881 layer_factory.hpp:77] Creating layer conv0
I0428 20:02:09.141989 29881 net.cpp:86] Creating Layer conv0
I0428 20:02:09.141993 29881 net.cpp:408] conv0 <- data
I0428 20:02:09.141999 29881 net.cpp:382] conv0 -> conv0
I0428 20:02:09.143718 29881 net.cpp:124] Setting up conv0
I0428 20:02:09.143733 29881 net.cpp:131] Top shape: 100 10 24 24 (576000)
I0428 20:02:09.143738 29881 net.cpp:139] Memory required for data: 2618800
I0428 20:02:09.143749 29881 layer_factory.hpp:77] Creating layer pool0
I0428 20:02:09.143757 29881 net.cpp:86] Creating Layer pool0
I0428 20:02:09.143761 29881 net.cpp:408] pool0 <- conv0
I0428 20:02:09.143769 29881 net.cpp:382] pool0 -> pool0
I0428 20:02:09.143810 29881 net.cpp:124] Setting up pool0
I0428 20:02:09.143815 29881 net.cpp:131] Top shape: 100 10 12 12 (144000)
I0428 20:02:09.143820 29881 net.cpp:139] Memory required for data: 3194800
I0428 20:02:09.143823 29881 layer_factory.hpp:77] Creating layer conv1
I0428 20:02:09.143833 29881 net.cpp:86] Creating Layer conv1
I0428 20:02:09.143836 29881 net.cpp:408] conv1 <- pool0
I0428 20:02:09.143842 29881 net.cpp:382] conv1 -> conv1
I0428 20:02:09.145572 29881 net.cpp:124] Setting up conv1
I0428 20:02:09.145601 29881 net.cpp:131] Top shape: 100 50 8 8 (320000)
I0428 20:02:09.145604 29881 net.cpp:139] Memory required for data: 4474800
I0428 20:02:09.145617 29881 layer_factory.hpp:77] Creating layer pool1
I0428 20:02:09.145623 29881 net.cpp:86] Creating Layer pool1
I0428 20:02:09.145628 29881 net.cpp:408] pool1 <- conv1
I0428 20:02:09.145635 29881 net.cpp:382] pool1 -> pool1
I0428 20:02:09.145676 29881 net.cpp:124] Setting up pool1
I0428 20:02:09.145683 29881 net.cpp:131] Top shape: 100 50 4 4 (80000)
I0428 20:02:09.145694 29881 net.cpp:139] Memory required for data: 4794800
I0428 20:02:09.145697 29881 layer_factory.hpp:77] Creating layer ip1
I0428 20:02:09.145704 29881 net.cpp:86] Creating Layer ip1
I0428 20:02:09.145709 29881 net.cpp:408] ip1 <- pool1
I0428 20:02:09.145714 29881 net.cpp:382] ip1 -> ip1
I0428 20:02:09.145962 29881 net.cpp:124] Setting up ip1
I0428 20:02:09.145972 29881 net.cpp:131] Top shape: 100 25 (2500)
I0428 20:02:09.145987 29881 net.cpp:139] Memory required for data: 4804800
I0428 20:02:09.145997 29881 layer_factory.hpp:77] Creating layer relu1
I0428 20:02:09.146003 29881 net.cpp:86] Creating Layer relu1
I0428 20:02:09.146008 29881 net.cpp:408] relu1 <- ip1
I0428 20:02:09.146013 29881 net.cpp:369] relu1 -> ip1 (in-place)
I0428 20:02:09.146198 29881 net.cpp:124] Setting up relu1
I0428 20:02:09.146208 29881 net.cpp:131] Top shape: 100 25 (2500)
I0428 20:02:09.146212 29881 net.cpp:139] Memory required for data: 4814800
I0428 20:02:09.146216 29881 layer_factory.hpp:77] Creating layer ip2
I0428 20:02:09.146225 29881 net.cpp:86] Creating Layer ip2
I0428 20:02:09.146229 29881 net.cpp:408] ip2 <- ip1
I0428 20:02:09.146235 29881 net.cpp:382] ip2 -> ip2
I0428 20:02:09.146386 29881 net.cpp:124] Setting up ip2
I0428 20:02:09.146395 29881 net.cpp:131] Top shape: 100 25 (2500)
I0428 20:02:09.146399 29881 net.cpp:139] Memory required for data: 4824800
I0428 20:02:09.146406 29881 layer_factory.hpp:77] Creating layer relu2
I0428 20:02:09.146412 29881 net.cpp:86] Creating Layer relu2
I0428 20:02:09.146416 29881 net.cpp:408] relu2 <- ip2
I0428 20:02:09.146421 29881 net.cpp:369] relu2 -> ip2 (in-place)
I0428 20:02:09.146664 29881 net.cpp:124] Setting up relu2
I0428 20:02:09.146674 29881 net.cpp:131] Top shape: 100 25 (2500)
I0428 20:02:09.146679 29881 net.cpp:139] Memory required for data: 4834800
I0428 20:02:09.146683 29881 layer_factory.hpp:77] Creating layer ip3
I0428 20:02:09.146689 29881 net.cpp:86] Creating Layer ip3
I0428 20:02:09.146694 29881 net.cpp:408] ip3 <- ip2
I0428 20:02:09.146708 29881 net.cpp:382] ip3 -> ip3
I0428 20:02:09.146817 29881 net.cpp:124] Setting up ip3
I0428 20:02:09.146826 29881 net.cpp:131] Top shape: 100 10 (1000)
I0428 20:02:09.146829 29881 net.cpp:139] Memory required for data: 4838800
I0428 20:02:09.146839 29881 layer_factory.hpp:77] Creating layer relu3
I0428 20:02:09.146845 29881 net.cpp:86] Creating Layer relu3
I0428 20:02:09.146849 29881 net.cpp:408] relu3 <- ip3
I0428 20:02:09.146854 29881 net.cpp:369] relu3 -> ip3 (in-place)
I0428 20:02:09.147730 29881 net.cpp:124] Setting up relu3
I0428 20:02:09.147744 29881 net.cpp:131] Top shape: 100 10 (1000)
I0428 20:02:09.147748 29881 net.cpp:139] Memory required for data: 4842800
I0428 20:02:09.147753 29881 layer_factory.hpp:77] Creating layer ip3_relu3_0_split
I0428 20:02:09.147759 29881 net.cpp:86] Creating Layer ip3_relu3_0_split
I0428 20:02:09.147763 29881 net.cpp:408] ip3_relu3_0_split <- ip3
I0428 20:02:09.147769 29881 net.cpp:382] ip3_relu3_0_split -> ip3_relu3_0_split_0
I0428 20:02:09.147788 29881 net.cpp:382] ip3_relu3_0_split -> ip3_relu3_0_split_1
I0428 20:02:09.147833 29881 net.cpp:124] Setting up ip3_relu3_0_split
I0428 20:02:09.147840 29881 net.cpp:131] Top shape: 100 10 (1000)
I0428 20:02:09.147843 29881 net.cpp:131] Top shape: 100 10 (1000)
I0428 20:02:09.147847 29881 net.cpp:139] Memory required for data: 4850800
I0428 20:02:09.147851 29881 layer_factory.hpp:77] Creating layer accuracy
I0428 20:02:09.147862 29881 net.cpp:86] Creating Layer accuracy
I0428 20:02:09.147866 29881 net.cpp:408] accuracy <- ip3_relu3_0_split_0
I0428 20:02:09.147871 29881 net.cpp:408] accuracy <- label_mnist_1_split_0
I0428 20:02:09.147876 29881 net.cpp:382] accuracy -> accuracy
…
