…
I0428 19:56:39.173291 28483 net.cpp:296] The NetState phase (0) differed from the phase (1) specified by a rule in layer mnist
I0428 19:56:39.173313 28483 net.cpp:296] The NetState phase (0) differed from the phase (1) specified by a rule in layer accuracy
I0428 19:56:39.173413 28483 net.cpp:53] Initializing net from parameters: 
name: "LeNet"
state {
  phase: TRAIN
  level: 0
  stage: ""
}
layer {
  name: "mnist"
  type: "Data"
  top: "data"
  top: "label"
  include {
    phase: TRAIN
  }
  transform_param {
    scale: 0.00390625
  }
  data_param {
    source: "examples/mnist/mnist_train_lmdb"
    batch_size: 64
    backend: LMDB
  }
}
layer {
  name: "conv0"
  type: "Convolution"
  bottom: "data"
  top: "conv0"
  param {
    lr_mult: 1
  }
  param {
    lr_mult: 2
  }
  convolution_param {
    num_output: 10
    kernel_size: 5
    stride: 1
    weight_filler {
      type: "xavier"
    }
    bias_filler {
      type: "constant"
    }
  }
}
layer {
  name: "pool0"
  type: "Pooling"
  bottom: "conv0"
  top: "pool0"
  pooling_param {
    pool: MAX
    kernel_size: 2
    stride: 2
  }
}
layer {
  name: "conv1"
  type: "Convolution"
  bottom: "pool0"
  top: "conv1"
  param {
    lr_mult: 1
  }
  param {
    lr_mult: 2
  }
  convolution_param {
    num_output: 2
    kernel_size: 5
    stride: 1
    weight_filler {
      type: "xavier"
    }
    bias_filler {
      type: "constant"
    }
  }
}
layer {
  name: "pool1"
  type: "Pooling"
  bottom: "conv1"
  top: "pool1"
  pooling_param {
    pool: MAX
    kernel_size: 2
    stride: 2
  }
}
layer {
  name: "ip1"
  type: "InnerProduct"
  bottom: "pool1"
  top: "ip1"
  param {
    lr_mult: 1
  }
  param {
    lr_mult: 2
  }
  inner_product_param {
    num_output: 25
    weight_filler {
      type: "xavier"
    }
    bias_filler {
      type: "constant"
    }
  }
}
layer {
  name: "relu1"
  type: "ReLU"
  bottom: "ip1"
  top: "ip1"
}
layer {
  name: "ip2"
  type: "InnerProduct"
  bottom: "ip1"
  top: "ip2"
  param {
    lr_mult: 1
  }
  param {
    lr_mult: 2
  }
  inner_product_param {
    num_output: 25
    weight_filler {
      type: "xavier"
    }
    bias_filler {
      type: "constant"
    }
  }
}
layer {
  name: "relu2"
  type: "ReLU"
  bottom: "ip2"
  top: "ip2"
}
layer {
  name: "ip3"
  type: "InnerProduct"
  bottom: "ip2"
  top: "ip3"
  param {
    lr_mult: 1
  }
  param {
    lr_mult: 2
  }
  inner_product_param {
    num_output: 10
    weight_filler {
      type: "xavier"
    }
    bias_filler {
      type: "constant"
    }
  }
}
layer {
  name: "relu3"
  type: "ReLU"
  bottom: "ip3"
  top: "ip3"
}
layer {
  name: "loss"
  type: "SoftmaxWithLoss"
  bottom: "ip3"
  bottom: "label"
  top: "loss"
}
I0428 19:56:39.173493 28483 layer_factory.hpp:77] Creating layer mnist
I0428 19:56:39.173594 28483 db_lmdb.cpp:35] Opened lmdb examples/mnist/mnist_train_lmdb
I0428 19:56:39.173616 28483 net.cpp:86] Creating Layer mnist
I0428 19:56:39.173626 28483 net.cpp:382] mnist -> data
I0428 19:56:39.173648 28483 net.cpp:382] mnist -> label
I0428 19:56:39.174737 28483 data_layer.cpp:45] output data size: 64,1,28,28
I0428 19:56:39.177194 28483 net.cpp:124] Setting up mnist
I0428 19:56:39.177212 28483 net.cpp:131] Top shape: 64 1 28 28 (50176)
I0428 19:56:39.177218 28483 net.cpp:131] Top shape: 64 (64)
I0428 19:56:39.177222 28483 net.cpp:139] Memory required for data: 200960
I0428 19:56:39.177230 28483 layer_factory.hpp:77] Creating layer conv0
I0428 19:56:39.177268 28483 net.cpp:86] Creating Layer conv0
I0428 19:56:39.177289 28483 net.cpp:408] conv0 <- data
I0428 19:56:39.177304 28483 net.cpp:382] conv0 -> conv0
I0428 19:56:39.456789 28483 net.cpp:124] Setting up conv0
I0428 19:56:39.456820 28483 net.cpp:131] Top shape: 64 10 24 24 (368640)
I0428 19:56:39.456825 28483 net.cpp:139] Memory required for data: 1675520
I0428 19:56:39.456856 28483 layer_factory.hpp:77] Creating layer pool0
I0428 19:56:39.456867 28483 net.cpp:86] Creating Layer pool0
I0428 19:56:39.456887 28483 net.cpp:408] pool0 <- conv0
I0428 19:56:39.456892 28483 net.cpp:382] pool0 -> pool0
I0428 19:56:39.456959 28483 net.cpp:124] Setting up pool0
I0428 19:56:39.456974 28483 net.cpp:131] Top shape: 64 10 12 12 (92160)
I0428 19:56:39.456977 28483 net.cpp:139] Memory required for data: 2044160
I0428 19:56:39.456980 28483 layer_factory.hpp:77] Creating layer conv1
I0428 19:56:39.456991 28483 net.cpp:86] Creating Layer conv1
I0428 19:56:39.456995 28483 net.cpp:408] conv1 <- pool0
I0428 19:56:39.457000 28483 net.cpp:382] conv1 -> conv1
I0428 19:56:39.459020 28483 net.cpp:124] Setting up conv1
I0428 19:56:39.459049 28483 net.cpp:131] Top shape: 64 2 8 8 (8192)
I0428 19:56:39.459053 28483 net.cpp:139] Memory required for data: 2076928
I0428 19:56:39.459061 28483 layer_factory.hpp:77] Creating layer pool1
I0428 19:56:39.459070 28483 net.cpp:86] Creating Layer pool1
I0428 19:56:39.459074 28483 net.cpp:408] pool1 <- conv1
I0428 19:56:39.459079 28483 net.cpp:382] pool1 -> pool1
I0428 19:56:39.459131 28483 net.cpp:124] Setting up pool1
I0428 19:56:39.459146 28483 net.cpp:131] Top shape: 64 2 4 4 (2048)
I0428 19:56:39.459163 28483 net.cpp:139] Memory required for data: 2085120
I0428 19:56:39.459167 28483 layer_factory.hpp:77] Creating layer ip1
I0428 19:56:39.459172 28483 net.cpp:86] Creating Layer ip1
I0428 19:56:39.459175 28483 net.cpp:408] ip1 <- pool1
I0428 19:56:39.459180 28483 net.cpp:382] ip1 -> ip1
I0428 19:56:39.459276 28483 net.cpp:124] Setting up ip1
I0428 19:56:39.459285 28483 net.cpp:131] Top shape: 64 25 (1600)
I0428 19:56:39.459287 28483 net.cpp:139] Memory required for data: 2091520
I0428 19:56:39.459293 28483 layer_factory.hpp:77] Creating layer relu1
I0428 19:56:39.459300 28483 net.cpp:86] Creating Layer relu1
I0428 19:56:39.459302 28483 net.cpp:408] relu1 <- ip1
I0428 19:56:39.459306 28483 net.cpp:369] relu1 -> ip1 (in-place)
I0428 19:56:39.459504 28483 net.cpp:124] Setting up relu1
I0428 19:56:39.459513 28483 net.cpp:131] Top shape: 64 25 (1600)
I0428 19:56:39.459517 28483 net.cpp:139] Memory required for data: 2097920
I0428 19:56:39.459519 28483 layer_factory.hpp:77] Creating layer ip2
I0428 19:56:39.459525 28483 net.cpp:86] Creating Layer ip2
I0428 19:56:39.459529 28483 net.cpp:408] ip2 <- ip1
I0428 19:56:39.459533 28483 net.cpp:382] ip2 -> ip2
I0428 19:56:39.459640 28483 net.cpp:124] Setting up ip2
I0428 19:56:39.459646 28483 net.cpp:131] Top shape: 64 25 (1600)
I0428 19:56:39.459650 28483 net.cpp:139] Memory required for data: 2104320
I0428 19:56:39.459656 28483 layer_factory.hpp:77] Creating layer relu2
I0428 19:56:39.459661 28483 net.cpp:86] Creating Layer relu2
I0428 19:56:39.459663 28483 net.cpp:408] relu2 <- ip2
I0428 19:56:39.459669 28483 net.cpp:369] relu2 -> ip2 (in-place)
I0428 19:56:39.460455 28483 net.cpp:124] Setting up relu2
I0428 19:56:39.460467 28483 net.cpp:131] Top shape: 64 25 (1600)
I0428 19:56:39.460486 28483 net.cpp:139] Memory required for data: 2110720
I0428 19:56:39.460489 28483 layer_factory.hpp:77] Creating layer ip3
I0428 19:56:39.460496 28483 net.cpp:86] Creating Layer ip3
I0428 19:56:39.460500 28483 net.cpp:408] ip3 <- ip2
I0428 19:56:39.460505 28483 net.cpp:382] ip3 -> ip3
I0428 19:56:39.460621 28483 net.cpp:124] Setting up ip3
I0428 19:56:39.460629 28483 net.cpp:131] Top shape: 64 10 (640)
I0428 19:56:39.460633 28483 net.cpp:139] Memory required for data: 2113280
I0428 19:56:39.460640 28483 layer_factory.hpp:77] Creating layer relu3
I0428 19:56:39.460646 28483 net.cpp:86] Creating Layer relu3
I0428 19:56:39.460649 28483 net.cpp:408] relu3 <- ip3
I0428 19:56:39.460652 28483 net.cpp:369] relu3 -> ip3 (in-place)
I0428 19:56:39.460878 28483 net.cpp:124] Setting up relu3
I0428 19:56:39.460887 28483 net.cpp:131] Top shape: 64 10 (640)
I0428 19:56:39.460891 28483 net.cpp:139] Memory required for data: 2115840
I0428 19:56:39.460894 28483 layer_factory.hpp:77] Creating layer loss
I0428 19:56:39.460901 28483 net.cpp:86] Creating Layer loss
I0428 19:56:39.460903 28483 net.cpp:408] loss <- ip3
I0428 19:56:39.460907 28483 net.cpp:408] loss <- label
I0428 19:56:39.460912 28483 net.cpp:382] loss -> loss
I0428 19:56:39.460929 28483 layer_factory.hpp:77] Creating layer loss
…
I0428 19:56:39.461681 28483 solver.cpp:173] Creating test net (#0) specified by net file: ECE595/mnist/train_test/var_everything2/lenet_train_test765.prototxt
I0428 19:56:39.461722 28483 net.cpp:296] The NetState phase (1) differed from the phase (0) specified by a rule in layer mnist
I0428 19:56:39.461813 28483 net.cpp:53] Initializing net from parameters: 
name: "LeNet"
state {
  phase: TEST
}
layer {
  name: "mnist"
  type: "Data"
  top: "data"
  top: "label"
  include {
    phase: TEST
  }
  transform_param {
    scale: 0.00390625
  }
  data_param {
    source: "examples/mnist/mnist_test_lmdb"
    batch_size: 100
    backend: LMDB
  }
}
layer {
  name: "conv0"
  type: "Convolution"
  bottom: "data"
  top: "conv0"
  param {
    lr_mult: 1
  }
  param {
    lr_mult: 2
  }
  convolution_param {
    num_output: 10
    kernel_size: 5
    stride: 1
    weight_filler {
      type: "xavier"
    }
    bias_filler {
      type: "constant"
    }
  }
}
layer {
  name: "pool0"
  type: "Pooling"
  bottom: "conv0"
  top: "pool0"
  pooling_param {
    pool: MAX
    kernel_size: 2
    stride: 2
  }
}
layer {
  name: "conv1"
  type: "Convolution"
  bottom: "pool0"
  top: "conv1"
  param {
    lr_mult: 1
  }
  param {
    lr_mult: 2
  }
  convolution_param {
    num_output: 2
    kernel_size: 5
    stride: 1
    weight_filler {
      type: "xavier"
    }
    bias_filler {
      type: "constant"
    }
  }
}
layer {
  name: "pool1"
  type: "Pooling"
  bottom: "conv1"
  top: "pool1"
  pooling_param {
    pool: MAX
    kernel_size: 2
    stride: 2
  }
}
layer {
  name: "ip1"
  type: "InnerProduct"
  bottom: "pool1"
  top: "ip1"
  param {
    lr_mult: 1
  }
  param {
    lr_mult: 2
  }
  inner_product_param {
    num_output: 25
    weight_filler {
      type: "xavier"
    }
    bias_filler {
      type: "constant"
    }
  }
}
layer {
  name: "relu1"
  type: "ReLU"
  bottom: "ip1"
  top: "ip1"
}
layer {
  name: "ip2"
  type: "InnerProduct"
  bottom: "ip1"
  top: "ip2"
  param {
    lr_mult: 1
  }
  param {
    lr_mult: 2
  }
  inner_product_param {
    num_output: 25
    weight_filler {
      type: "xavier"
    }
    bias_filler {
      type: "constant"
    }
  }
}
layer {
  name: "relu2"
  type: "ReLU"
  bottom: "ip2"
  top: "ip2"
}
layer {
  name: "ip3"
  type: "InnerProduct"
  bottom: "ip2"
  top: "ip3"
  param {
    lr_mult: 1
  }
  param {
    lr_mult: 2
  }
  inner_product_param {
    num_output: 10
    weight_filler {
      type: "xavier"
    }
    bias_filler {
      type: "constant"
    }
  }
}
layer {
  name: "relu3"
  type: "ReLU"
  bottom: "ip3"
  top: "ip3"
}
layer {
  name: "accuracy"
  type: "Accuracy"
  bottom: "ip3"
  bottom: "label"
  top: "accuracy"
  include {
    phase: TEST
  }
}
layer {
  name: "loss"
  type: "SoftmaxWithLoss"
  bottom: "ip3"
  bottom: "label"
  top: "loss"
}
I0428 19:56:39.461894 28483 layer_factory.hpp:77] Creating layer mnist
I0428 19:56:39.461969 28483 db_lmdb.cpp:35] Opened lmdb examples/mnist/mnist_test_lmdb
I0428 19:56:39.461982 28483 net.cpp:86] Creating Layer mnist
I0428 19:56:39.461987 28483 net.cpp:382] mnist -> data
I0428 19:56:39.461994 28483 net.cpp:382] mnist -> label
I0428 19:56:39.462081 28483 data_layer.cpp:45] output data size: 100,1,28,28
I0428 19:56:39.464294 28483 net.cpp:124] Setting up mnist
I0428 19:56:39.464324 28483 net.cpp:131] Top shape: 100 1 28 28 (78400)
I0428 19:56:39.464330 28483 net.cpp:131] Top shape: 100 (100)
I0428 19:56:39.464334 28483 net.cpp:139] Memory required for data: 314000
I0428 19:56:39.464337 28483 layer_factory.hpp:77] Creating layer label_mnist_1_split
I0428 19:56:39.464361 28483 net.cpp:86] Creating Layer label_mnist_1_split
I0428 19:56:39.464366 28483 net.cpp:408] label_mnist_1_split <- label
I0428 19:56:39.464390 28483 net.cpp:382] label_mnist_1_split -> label_mnist_1_split_0
I0428 19:56:39.464396 28483 net.cpp:382] label_mnist_1_split -> label_mnist_1_split_1
I0428 19:56:39.464442 28483 net.cpp:124] Setting up label_mnist_1_split
I0428 19:56:39.464455 28483 net.cpp:131] Top shape: 100 (100)
I0428 19:56:39.464459 28483 net.cpp:131] Top shape: 100 (100)
I0428 19:56:39.464462 28483 net.cpp:139] Memory required for data: 314800
I0428 19:56:39.464465 28483 layer_factory.hpp:77] Creating layer conv0
I0428 19:56:39.464474 28483 net.cpp:86] Creating Layer conv0
I0428 19:56:39.464489 28483 net.cpp:408] conv0 <- data
I0428 19:56:39.464494 28483 net.cpp:382] conv0 -> conv0
I0428 19:56:39.466195 28483 net.cpp:124] Setting up conv0
I0428 19:56:39.466209 28483 net.cpp:131] Top shape: 100 10 24 24 (576000)
I0428 19:56:39.466213 28483 net.cpp:139] Memory required for data: 2618800
I0428 19:56:39.466223 28483 layer_factory.hpp:77] Creating layer pool0
I0428 19:56:39.466229 28483 net.cpp:86] Creating Layer pool0
I0428 19:56:39.466233 28483 net.cpp:408] pool0 <- conv0
I0428 19:56:39.466238 28483 net.cpp:382] pool0 -> pool0
I0428 19:56:39.466276 28483 net.cpp:124] Setting up pool0
I0428 19:56:39.466284 28483 net.cpp:131] Top shape: 100 10 12 12 (144000)
I0428 19:56:39.466286 28483 net.cpp:139] Memory required for data: 3194800
I0428 19:56:39.466289 28483 layer_factory.hpp:77] Creating layer conv1
I0428 19:56:39.466300 28483 net.cpp:86] Creating Layer conv1
I0428 19:56:39.466302 28483 net.cpp:408] conv1 <- pool0
I0428 19:56:39.466308 28483 net.cpp:382] conv1 -> conv1
I0428 19:56:39.468436 28483 net.cpp:124] Setting up conv1
I0428 19:56:39.468449 28483 net.cpp:131] Top shape: 100 2 8 8 (12800)
I0428 19:56:39.468453 28483 net.cpp:139] Memory required for data: 3246000
I0428 19:56:39.468477 28483 layer_factory.hpp:77] Creating layer pool1
I0428 19:56:39.468502 28483 net.cpp:86] Creating Layer pool1
I0428 19:56:39.468505 28483 net.cpp:408] pool1 <- conv1
I0428 19:56:39.468524 28483 net.cpp:382] pool1 -> pool1
I0428 19:56:39.468570 28483 net.cpp:124] Setting up pool1
I0428 19:56:39.468577 28483 net.cpp:131] Top shape: 100 2 4 4 (3200)
I0428 19:56:39.468581 28483 net.cpp:139] Memory required for data: 3258800
I0428 19:56:39.468583 28483 layer_factory.hpp:77] Creating layer ip1
I0428 19:56:39.468590 28483 net.cpp:86] Creating Layer ip1
I0428 19:56:39.468593 28483 net.cpp:408] ip1 <- pool1
I0428 19:56:39.468600 28483 net.cpp:382] ip1 -> ip1
I0428 19:56:39.468725 28483 net.cpp:124] Setting up ip1
I0428 19:56:39.468734 28483 net.cpp:131] Top shape: 100 25 (2500)
I0428 19:56:39.468746 28483 net.cpp:139] Memory required for data: 3268800
I0428 19:56:39.468753 28483 layer_factory.hpp:77] Creating layer relu1
I0428 19:56:39.468760 28483 net.cpp:86] Creating Layer relu1
I0428 19:56:39.468762 28483 net.cpp:408] relu1 <- ip1
I0428 19:56:39.468770 28483 net.cpp:369] relu1 -> ip1 (in-place)
I0428 19:56:39.469038 28483 net.cpp:124] Setting up relu1
I0428 19:56:39.469048 28483 net.cpp:131] Top shape: 100 25 (2500)
I0428 19:56:39.469051 28483 net.cpp:139] Memory required for data: 3278800
I0428 19:56:39.469055 28483 layer_factory.hpp:77] Creating layer ip2
I0428 19:56:39.469071 28483 net.cpp:86] Creating Layer ip2
I0428 19:56:39.469075 28483 net.cpp:408] ip2 <- ip1
I0428 19:56:39.469080 28483 net.cpp:382] ip2 -> ip2
I0428 19:56:39.469197 28483 net.cpp:124] Setting up ip2
I0428 19:56:39.469204 28483 net.cpp:131] Top shape: 100 25 (2500)
I0428 19:56:39.469208 28483 net.cpp:139] Memory required for data: 3288800
I0428 19:56:39.469214 28483 layer_factory.hpp:77] Creating layer relu2
I0428 19:56:39.469220 28483 net.cpp:86] Creating Layer relu2
I0428 19:56:39.469223 28483 net.cpp:408] relu2 <- ip2
I0428 19:56:39.469233 28483 net.cpp:369] relu2 -> ip2 (in-place)
I0428 19:56:39.469413 28483 net.cpp:124] Setting up relu2
I0428 19:56:39.469421 28483 net.cpp:131] Top shape: 100 25 (2500)
I0428 19:56:39.469425 28483 net.cpp:139] Memory required for data: 3298800
I0428 19:56:39.469429 28483 layer_factory.hpp:77] Creating layer ip3
I0428 19:56:39.469436 28483 net.cpp:86] Creating Layer ip3
I0428 19:56:39.469439 28483 net.cpp:408] ip3 <- ip2
I0428 19:56:39.469444 28483 net.cpp:382] ip3 -> ip3
I0428 19:56:39.469552 28483 net.cpp:124] Setting up ip3
I0428 19:56:39.469559 28483 net.cpp:131] Top shape: 100 10 (1000)
I0428 19:56:39.469563 28483 net.cpp:139] Memory required for data: 3302800
I0428 19:56:39.469571 28483 layer_factory.hpp:77] Creating layer relu3
I0428 19:56:39.469578 28483 net.cpp:86] Creating Layer relu3
I0428 19:56:39.469580 28483 net.cpp:408] relu3 <- ip3
I0428 19:56:39.469584 28483 net.cpp:369] relu3 -> ip3 (in-place)
I0428 19:56:39.470424 28483 net.cpp:124] Setting up relu3
I0428 19:56:39.470437 28483 net.cpp:131] Top shape: 100 10 (1000)
I0428 19:56:39.470440 28483 net.cpp:139] Memory required for data: 3306800
I0428 19:56:39.470443 28483 layer_factory.hpp:77] Creating layer ip3_relu3_0_split
I0428 19:56:39.470449 28483 net.cpp:86] Creating Layer ip3_relu3_0_split
I0428 19:56:39.470453 28483 net.cpp:408] ip3_relu3_0_split <- ip3
I0428 19:56:39.470458 28483 net.cpp:382] ip3_relu3_0_split -> ip3_relu3_0_split_0
I0428 19:56:39.470463 28483 net.cpp:382] ip3_relu3_0_split -> ip3_relu3_0_split_1
I0428 19:56:39.470515 28483 net.cpp:124] Setting up ip3_relu3_0_split
I0428 19:56:39.470523 28483 net.cpp:131] Top shape: 100 10 (1000)
I0428 19:56:39.470527 28483 net.cpp:131] Top shape: 100 10 (1000)
I0428 19:56:39.470530 28483 net.cpp:139] Memory required for data: 3314800
I0428 19:56:39.470533 28483 layer_factory.hpp:77] Creating layer accuracy
I0428 19:56:39.470540 28483 net.cpp:86] Creating Layer accuracy
I0428 19:56:39.470542 28483 net.cpp:408] accuracy <- ip3_relu3_0_split_0
I0428 19:56:39.470546 28483 net.cpp:408] accuracy <- label_mnist_1_split_0
I0428 19:56:39.470551 28483 net.cpp:382] accuracy -> accuracy
…
