…
I0428 20:36:53.332721  4861 net.cpp:296] The NetState phase (0) differed from the phase (1) specified by a rule in layer mnist
I0428 20:36:53.332739  4861 net.cpp:296] The NetState phase (0) differed from the phase (1) specified by a rule in layer accuracy
I0428 20:36:53.332839  4861 net.cpp:53] Initializing net from parameters: 
name: "LeNet"
state {
  phase: TRAIN
  level: 0
  stage: ""
}
layer {
  name: "mnist"
  type: "Data"
  top: "data"
  top: "label"
  include {
    phase: TRAIN
  }
  transform_param {
    scale: 0.00390625
  }
  data_param {
    source: "examples/mnist/mnist_train_lmdb"
    batch_size: 64
    backend: LMDB
  }
}
layer {
  name: "conv0"
  type: "Convolution"
  bottom: "data"
  top: "conv0"
  param {
    lr_mult: 1
  }
  param {
    lr_mult: 2
  }
  convolution_param {
    num_output: 100
    kernel_size: 5
    stride: 1
    weight_filler {
      type: "xavier"
    }
    bias_filler {
      type: "constant"
    }
  }
}
layer {
  name: "pool0"
  type: "Pooling"
  bottom: "conv0"
  top: "pool0"
  pooling_param {
    pool: MAX
    kernel_size: 2
    stride: 2
  }
}
layer {
  name: "conv1"
  type: "Convolution"
  bottom: "pool0"
  top: "conv1"
  param {
    lr_mult: 1
  }
  param {
    lr_mult: 2
  }
  convolution_param {
    num_output: 100
    kernel_size: 5
    stride: 1
    weight_filler {
      type: "xavier"
    }
    bias_filler {
      type: "constant"
    }
  }
}
layer {
  name: "pool1"
  type: "Pooling"
  bottom: "conv1"
  top: "pool1"
  pooling_param {
    pool: MAX
    kernel_size: 2
    stride: 2
  }
}
layer {
  name: "ip1"
  type: "InnerProduct"
  bottom: "pool1"
  top: "ip1"
  param {
    lr_mult: 1
  }
  param {
    lr_mult: 2
  }
  inner_product_param {
    num_output: 10
    weight_filler {
      type: "xavier"
    }
    bias_filler {
      type: "constant"
    }
  }
}
layer {
  name: "relu1"
  type: "ReLU"
  bottom: "ip1"
  top: "ip1"
}
layer {
  name: "ip2"
  type: "InnerProduct"
  bottom: "ip1"
  top: "ip2"
  param {
    lr_mult: 1
  }
  param {
    lr_mult: 2
  }
  inner_product_param {
    num_output: 10
    weight_filler {
      type: "xavier"
    }
    bias_filler {
      type: "constant"
    }
  }
}
layer {
  name: "relu2"
  type: "ReLU"
  bottom: "ip2"
  top: "ip2"
}
layer {
  name: "loss"
  type: "SoftmaxWithLoss"
  bottom: "ip2"
  bottom: "label"
  top: "loss"
}
I0428 20:36:53.332917  4861 layer_factory.hpp:77] Creating layer mnist
I0428 20:36:53.333019  4861 db_lmdb.cpp:35] Opened lmdb examples/mnist/mnist_train_lmdb
I0428 20:36:53.333041  4861 net.cpp:86] Creating Layer mnist
I0428 20:36:53.333051  4861 net.cpp:382] mnist -> data
I0428 20:36:53.333073  4861 net.cpp:382] mnist -> label
I0428 20:36:53.334159  4861 data_layer.cpp:45] output data size: 64,1,28,28
I0428 20:36:53.336603  4861 net.cpp:124] Setting up mnist
I0428 20:36:53.336621  4861 net.cpp:131] Top shape: 64 1 28 28 (50176)
I0428 20:36:53.336629  4861 net.cpp:131] Top shape: 64 (64)
I0428 20:36:53.336632  4861 net.cpp:139] Memory required for data: 200960
I0428 20:36:53.336639  4861 layer_factory.hpp:77] Creating layer conv0
I0428 20:36:53.336655  4861 net.cpp:86] Creating Layer conv0
I0428 20:36:53.336660  4861 net.cpp:408] conv0 <- data
I0428 20:36:53.336673  4861 net.cpp:382] conv0 -> conv0
I0428 20:36:53.595711  4861 net.cpp:124] Setting up conv0
I0428 20:36:53.595753  4861 net.cpp:131] Top shape: 64 100 24 24 (3686400)
I0428 20:36:53.595757  4861 net.cpp:139] Memory required for data: 14946560
I0428 20:36:53.595793  4861 layer_factory.hpp:77] Creating layer pool0
I0428 20:36:53.595805  4861 net.cpp:86] Creating Layer pool0
I0428 20:36:53.595809  4861 net.cpp:408] pool0 <- conv0
I0428 20:36:53.595814  4861 net.cpp:382] pool0 -> pool0
I0428 20:36:53.595877  4861 net.cpp:124] Setting up pool0
I0428 20:36:53.595892  4861 net.cpp:131] Top shape: 64 100 12 12 (921600)
I0428 20:36:53.595896  4861 net.cpp:139] Memory required for data: 18632960
I0428 20:36:53.595898  4861 layer_factory.hpp:77] Creating layer conv1
I0428 20:36:53.595909  4861 net.cpp:86] Creating Layer conv1
I0428 20:36:53.595912  4861 net.cpp:408] conv1 <- pool0
I0428 20:36:53.595917  4861 net.cpp:382] conv1 -> conv1
I0428 20:36:53.599941  4861 net.cpp:124] Setting up conv1
I0428 20:36:53.599970  4861 net.cpp:131] Top shape: 64 100 8 8 (409600)
I0428 20:36:53.599974  4861 net.cpp:139] Memory required for data: 20271360
I0428 20:36:53.599982  4861 layer_factory.hpp:77] Creating layer pool1
I0428 20:36:53.599989  4861 net.cpp:86] Creating Layer pool1
I0428 20:36:53.599992  4861 net.cpp:408] pool1 <- conv1
I0428 20:36:53.599997  4861 net.cpp:382] pool1 -> pool1
I0428 20:36:53.600047  4861 net.cpp:124] Setting up pool1
I0428 20:36:53.600052  4861 net.cpp:131] Top shape: 64 100 4 4 (102400)
I0428 20:36:53.600055  4861 net.cpp:139] Memory required for data: 20680960
I0428 20:36:53.600059  4861 layer_factory.hpp:77] Creating layer ip1
I0428 20:36:53.600064  4861 net.cpp:86] Creating Layer ip1
I0428 20:36:53.600067  4861 net.cpp:408] ip1 <- pool1
I0428 20:36:53.600072  4861 net.cpp:382] ip1 -> ip1
I0428 20:36:53.601099  4861 net.cpp:124] Setting up ip1
I0428 20:36:53.601126  4861 net.cpp:131] Top shape: 64 10 (640)
I0428 20:36:53.601130  4861 net.cpp:139] Memory required for data: 20683520
I0428 20:36:53.601138  4861 layer_factory.hpp:77] Creating layer relu1
I0428 20:36:53.601145  4861 net.cpp:86] Creating Layer relu1
I0428 20:36:53.601147  4861 net.cpp:408] relu1 <- ip1
I0428 20:36:53.601152  4861 net.cpp:369] relu1 -> ip1 (in-place)
I0428 20:36:53.601317  4861 net.cpp:124] Setting up relu1
I0428 20:36:53.601326  4861 net.cpp:131] Top shape: 64 10 (640)
I0428 20:36:53.601330  4861 net.cpp:139] Memory required for data: 20686080
I0428 20:36:53.601347  4861 layer_factory.hpp:77] Creating layer ip2
I0428 20:36:53.601353  4861 net.cpp:86] Creating Layer ip2
I0428 20:36:53.601372  4861 net.cpp:408] ip2 <- ip1
I0428 20:36:53.601377  4861 net.cpp:382] ip2 -> ip2
I0428 20:36:53.601469  4861 net.cpp:124] Setting up ip2
I0428 20:36:53.601475  4861 net.cpp:131] Top shape: 64 10 (640)
I0428 20:36:53.601480  4861 net.cpp:139] Memory required for data: 20688640
I0428 20:36:53.601485  4861 layer_factory.hpp:77] Creating layer relu2
I0428 20:36:53.601490  4861 net.cpp:86] Creating Layer relu2
I0428 20:36:53.601493  4861 net.cpp:408] relu2 <- ip2
I0428 20:36:53.601497  4861 net.cpp:369] relu2 -> ip2 (in-place)
I0428 20:36:53.602236  4861 net.cpp:124] Setting up relu2
I0428 20:36:53.602247  4861 net.cpp:131] Top shape: 64 10 (640)
I0428 20:36:53.602267  4861 net.cpp:139] Memory required for data: 20691200
I0428 20:36:53.602270  4861 layer_factory.hpp:77] Creating layer loss
I0428 20:36:53.602291  4861 net.cpp:86] Creating Layer loss
I0428 20:36:53.602295  4861 net.cpp:408] loss <- ip2
I0428 20:36:53.602300  4861 net.cpp:408] loss <- label
I0428 20:36:53.602306  4861 net.cpp:382] loss -> loss
I0428 20:36:53.602327  4861 layer_factory.hpp:77] Creating layer loss
…
I0428 20:36:53.602942  4861 solver.cpp:173] Creating test net (#0) specified by net file: ECE595/mnist/train_test/var_everything2/lenet_train_test1643.prototxt
I0428 20:36:53.602967  4861 net.cpp:296] The NetState phase (1) differed from the phase (0) specified by a rule in layer mnist
I0428 20:36:53.603046  4861 net.cpp:53] Initializing net from parameters: 
name: "LeNet"
state {
  phase: TEST
}
layer {
  name: "mnist"
  type: "Data"
  top: "data"
  top: "label"
  include {
    phase: TEST
  }
  transform_param {
    scale: 0.00390625
  }
  data_param {
    source: "examples/mnist/mnist_test_lmdb"
    batch_size: 100
    backend: LMDB
  }
}
layer {
  name: "conv0"
  type: "Convolution"
  bottom: "data"
  top: "conv0"
  param {
    lr_mult: 1
  }
  param {
    lr_mult: 2
  }
  convolution_param {
    num_output: 100
    kernel_size: 5
    stride: 1
    weight_filler {
      type: "xavier"
    }
    bias_filler {
      type: "constant"
    }
  }
}
layer {
  name: "pool0"
  type: "Pooling"
  bottom: "conv0"
  top: "pool0"
  pooling_param {
    pool: MAX
    kernel_size: 2
    stride: 2
  }
}
layer {
  name: "conv1"
  type: "Convolution"
  bottom: "pool0"
  top: "conv1"
  param {
    lr_mult: 1
  }
  param {
    lr_mult: 2
  }
  convolution_param {
    num_output: 100
    kernel_size: 5
    stride: 1
    weight_filler {
      type: "xavier"
    }
    bias_filler {
      type: "constant"
    }
  }
}
layer {
  name: "pool1"
  type: "Pooling"
  bottom: "conv1"
  top: "pool1"
  pooling_param {
    pool: MAX
    kernel_size: 2
    stride: 2
  }
}
layer {
  name: "ip1"
  type: "InnerProduct"
  bottom: "pool1"
  top: "ip1"
  param {
    lr_mult: 1
  }
  param {
    lr_mult: 2
  }
  inner_product_param {
    num_output: 10
    weight_filler {
      type: "xavier"
    }
    bias_filler {
      type: "constant"
    }
  }
}
layer {
  name: "relu1"
  type: "ReLU"
  bottom: "ip1"
  top: "ip1"
}
layer {
  name: "ip2"
  type: "InnerProduct"
  bottom: "ip1"
  top: "ip2"
  param {
    lr_mult: 1
  }
  param {
    lr_mult: 2
  }
  inner_product_param {
    num_output: 10
    weight_filler {
      type: "xavier"
    }
    bias_filler {
      type: "constant"
    }
  }
}
layer {
  name: "relu2"
  type: "ReLU"
  bottom: "ip2"
  top: "ip2"
}
layer {
  name: "accuracy"
  type: "Accuracy"
  bottom: "ip2"
  bottom: "label"
  top: "accuracy"
  include {
    phase: TEST
  }
}
layer {
  name: "loss"
  type: "SoftmaxWithLoss"
  bottom: "ip2"
  bottom: "label"
  top: "loss"
}
I0428 20:36:53.603106  4861 layer_factory.hpp:77] Creating layer mnist
I0428 20:36:53.603147  4861 db_lmdb.cpp:35] Opened lmdb examples/mnist/mnist_test_lmdb
I0428 20:36:53.603173  4861 net.cpp:86] Creating Layer mnist
I0428 20:36:53.603178  4861 net.cpp:382] mnist -> data
I0428 20:36:53.603185  4861 net.cpp:382] mnist -> label
I0428 20:36:53.603289  4861 data_layer.cpp:45] output data size: 100,1,28,28
I0428 20:36:53.605547  4861 net.cpp:124] Setting up mnist
I0428 20:36:53.605576  4861 net.cpp:131] Top shape: 100 1 28 28 (78400)
I0428 20:36:53.605597  4861 net.cpp:131] Top shape: 100 (100)
I0428 20:36:53.605600  4861 net.cpp:139] Memory required for data: 314000
I0428 20:36:53.605603  4861 layer_factory.hpp:77] Creating layer label_mnist_1_split
I0428 20:36:53.605635  4861 net.cpp:86] Creating Layer label_mnist_1_split
I0428 20:36:53.605639  4861 net.cpp:408] label_mnist_1_split <- label
I0428 20:36:53.605646  4861 net.cpp:382] label_mnist_1_split -> label_mnist_1_split_0
I0428 20:36:53.605654  4861 net.cpp:382] label_mnist_1_split -> label_mnist_1_split_1
I0428 20:36:53.605814  4861 net.cpp:124] Setting up label_mnist_1_split
I0428 20:36:53.605823  4861 net.cpp:131] Top shape: 100 (100)
I0428 20:36:53.605828  4861 net.cpp:131] Top shape: 100 (100)
I0428 20:36:53.605830  4861 net.cpp:139] Memory required for data: 314800
I0428 20:36:53.605834  4861 layer_factory.hpp:77] Creating layer conv0
I0428 20:36:53.605844  4861 net.cpp:86] Creating Layer conv0
I0428 20:36:53.605846  4861 net.cpp:408] conv0 <- data
I0428 20:36:53.605852  4861 net.cpp:382] conv0 -> conv0
I0428 20:36:53.607498  4861 net.cpp:124] Setting up conv0
I0428 20:36:53.607527  4861 net.cpp:131] Top shape: 100 100 24 24 (5760000)
I0428 20:36:53.607532  4861 net.cpp:139] Memory required for data: 23354800
I0428 20:36:53.607539  4861 layer_factory.hpp:77] Creating layer pool0
I0428 20:36:53.607545  4861 net.cpp:86] Creating Layer pool0
I0428 20:36:53.607548  4861 net.cpp:408] pool0 <- conv0
I0428 20:36:53.607554  4861 net.cpp:382] pool0 -> pool0
I0428 20:36:53.607589  4861 net.cpp:124] Setting up pool0
I0428 20:36:53.607594  4861 net.cpp:131] Top shape: 100 100 12 12 (1440000)
I0428 20:36:53.607597  4861 net.cpp:139] Memory required for data: 29114800
I0428 20:36:53.607599  4861 layer_factory.hpp:77] Creating layer conv1
I0428 20:36:53.607610  4861 net.cpp:86] Creating Layer conv1
I0428 20:36:53.607614  4861 net.cpp:408] conv1 <- pool0
I0428 20:36:53.607619  4861 net.cpp:382] conv1 -> conv1
I0428 20:36:53.610599  4861 net.cpp:124] Setting up conv1
I0428 20:36:53.610627  4861 net.cpp:131] Top shape: 100 100 8 8 (640000)
I0428 20:36:53.610631  4861 net.cpp:139] Memory required for data: 31674800
I0428 20:36:53.610640  4861 layer_factory.hpp:77] Creating layer pool1
I0428 20:36:53.610646  4861 net.cpp:86] Creating Layer pool1
I0428 20:36:53.610649  4861 net.cpp:408] pool1 <- conv1
I0428 20:36:53.610654  4861 net.cpp:382] pool1 -> pool1
I0428 20:36:53.610692  4861 net.cpp:124] Setting up pool1
I0428 20:36:53.610697  4861 net.cpp:131] Top shape: 100 100 4 4 (160000)
I0428 20:36:53.610699  4861 net.cpp:139] Memory required for data: 32314800
I0428 20:36:53.610702  4861 layer_factory.hpp:77] Creating layer ip1
I0428 20:36:53.610708  4861 net.cpp:86] Creating Layer ip1
I0428 20:36:53.610713  4861 net.cpp:408] ip1 <- pool1
I0428 20:36:53.610718  4861 net.cpp:382] ip1 -> ip1
I0428 20:36:53.610896  4861 net.cpp:124] Setting up ip1
I0428 20:36:53.610904  4861 net.cpp:131] Top shape: 100 10 (1000)
I0428 20:36:53.610908  4861 net.cpp:139] Memory required for data: 32318800
I0428 20:36:53.610915  4861 layer_factory.hpp:77] Creating layer relu1
I0428 20:36:53.610921  4861 net.cpp:86] Creating Layer relu1
I0428 20:36:53.610924  4861 net.cpp:408] relu1 <- ip1
I0428 20:36:53.610929  4861 net.cpp:369] relu1 -> ip1 (in-place)
I0428 20:36:53.611086  4861 net.cpp:124] Setting up relu1
I0428 20:36:53.611096  4861 net.cpp:131] Top shape: 100 10 (1000)
I0428 20:36:53.611100  4861 net.cpp:139] Memory required for data: 32322800
I0428 20:36:53.611104  4861 layer_factory.hpp:77] Creating layer ip2
I0428 20:36:53.611110  4861 net.cpp:86] Creating Layer ip2
I0428 20:36:53.611114  4861 net.cpp:408] ip2 <- ip1
I0428 20:36:53.611124  4861 net.cpp:382] ip2 -> ip2
I0428 20:36:53.611240  4861 net.cpp:124] Setting up ip2
I0428 20:36:53.611248  4861 net.cpp:131] Top shape: 100 10 (1000)
I0428 20:36:53.611251  4861 net.cpp:139] Memory required for data: 32326800
I0428 20:36:53.611258  4861 layer_factory.hpp:77] Creating layer relu2
I0428 20:36:53.611263  4861 net.cpp:86] Creating Layer relu2
I0428 20:36:53.611268  4861 net.cpp:408] relu2 <- ip2
I0428 20:36:53.611271  4861 net.cpp:369] relu2 -> ip2 (in-place)
I0428 20:36:53.611431  4861 net.cpp:124] Setting up relu2
I0428 20:36:53.611440  4861 net.cpp:131] Top shape: 100 10 (1000)
I0428 20:36:53.611444  4861 net.cpp:139] Memory required for data: 32330800
I0428 20:36:53.611448  4861 layer_factory.hpp:77] Creating layer ip2_relu2_0_split
I0428 20:36:53.611459  4861 net.cpp:86] Creating Layer ip2_relu2_0_split
I0428 20:36:53.611462  4861 net.cpp:408] ip2_relu2_0_split <- ip2
I0428 20:36:53.611467  4861 net.cpp:382] ip2_relu2_0_split -> ip2_relu2_0_split_0
I0428 20:36:53.611482  4861 net.cpp:382] ip2_relu2_0_split -> ip2_relu2_0_split_1
I0428 20:36:53.611536  4861 net.cpp:124] Setting up ip2_relu2_0_split
I0428 20:36:53.611558  4861 net.cpp:131] Top shape: 100 10 (1000)
I0428 20:36:53.611562  4861 net.cpp:131] Top shape: 100 10 (1000)
I0428 20:36:53.611565  4861 net.cpp:139] Memory required for data: 32338800
I0428 20:36:53.611568  4861 layer_factory.hpp:77] Creating layer accuracy
I0428 20:36:53.611574  4861 net.cpp:86] Creating Layer accuracy
I0428 20:36:53.611577  4861 net.cpp:408] accuracy <- ip2_relu2_0_split_0
I0428 20:36:53.611582  4861 net.cpp:408] accuracy <- label_mnist_1_split_0
I0428 20:36:53.611587  4861 net.cpp:382] accuracy -> accuracy
…
