…
I0428 20:01:24.526901 29718 net.cpp:296] The NetState phase (0) differed from the phase (1) specified by a rule in layer mnist
I0428 20:01:24.526916 29718 net.cpp:296] The NetState phase (0) differed from the phase (1) specified by a rule in layer accuracy
I0428 20:01:24.526988 29718 net.cpp:53] Initializing net from parameters: 
name: "LeNet"
state {
  phase: TRAIN
  level: 0
  stage: ""
}
layer {
  name: "mnist"
  type: "Data"
  top: "data"
  top: "label"
  include {
    phase: TRAIN
  }
  transform_param {
    scale: 0.00390625
  }
  data_param {
    source: "examples/mnist/mnist_train_lmdb"
    batch_size: 64
    backend: LMDB
  }
}
layer {
  name: "conv0"
  type: "Convolution"
  bottom: "data"
  top: "conv0"
  param {
    lr_mult: 1
  }
  param {
    lr_mult: 2
  }
  convolution_param {
    num_output: 10
    kernel_size: 5
    stride: 1
    weight_filler {
      type: "xavier"
    }
    bias_filler {
      type: "constant"
    }
  }
}
layer {
  name: "pool0"
  type: "Pooling"
  bottom: "conv0"
  top: "pool0"
  pooling_param {
    pool: MAX
    kernel_size: 2
    stride: 2
  }
}
layer {
  name: "conv1"
  type: "Convolution"
  bottom: "pool0"
  top: "conv1"
  param {
    lr_mult: 1
  }
  param {
    lr_mult: 2
  }
  convolution_param {
    num_output: 50
    kernel_size: 5
    stride: 1
    weight_filler {
      type: "xavier"
    }
    bias_filler {
      type: "constant"
    }
  }
}
layer {
  name: "pool1"
  type: "Pooling"
  bottom: "conv1"
  top: "pool1"
  pooling_param {
    pool: MAX
    kernel_size: 2
    stride: 2
  }
}
layer {
  name: "ip1"
  type: "InnerProduct"
  bottom: "pool1"
  top: "ip1"
  param {
    lr_mult: 1
  }
  param {
    lr_mult: 2
  }
  inner_product_param {
    num_output: 10
    weight_filler {
      type: "xavier"
    }
    bias_filler {
      type: "constant"
    }
  }
}
layer {
  name: "relu1"
  type: "ReLU"
  bottom: "ip1"
  top: "ip1"
}
layer {
  name: "ip2"
  type: "InnerProduct"
  bottom: "ip1"
  top: "ip2"
  param {
    lr_mult: 1
  }
  param {
    lr_mult: 2
  }
  inner_product_param {
    num_output: 10
    weight_filler {
      type: "xavier"
    }
    bias_filler {
      type: "constant"
    }
  }
}
layer {
  name: "relu2"
  type: "ReLU"
  bottom: "ip2"
  top: "ip2"
}
layer {
  name: "loss"
  type: "SoftmaxWithLoss"
  bottom: "ip2"
  bottom: "label"
  top: "loss"
}
I0428 20:01:24.527050 29718 layer_factory.hpp:77] Creating layer mnist
I0428 20:01:24.527151 29718 db_lmdb.cpp:35] Opened lmdb examples/mnist/mnist_train_lmdb
I0428 20:01:24.527187 29718 net.cpp:86] Creating Layer mnist
I0428 20:01:24.527194 29718 net.cpp:382] mnist -> data
I0428 20:01:24.527212 29718 net.cpp:382] mnist -> label
I0428 20:01:24.528148 29718 data_layer.cpp:45] output data size: 64,1,28,28
I0428 20:01:24.530539 29718 net.cpp:124] Setting up mnist
I0428 20:01:24.530570 29718 net.cpp:131] Top shape: 64 1 28 28 (50176)
I0428 20:01:24.530575 29718 net.cpp:131] Top shape: 64 (64)
I0428 20:01:24.530577 29718 net.cpp:139] Memory required for data: 200960
I0428 20:01:24.530583 29718 layer_factory.hpp:77] Creating layer conv0
I0428 20:01:24.530597 29718 net.cpp:86] Creating Layer conv0
I0428 20:01:24.530602 29718 net.cpp:408] conv0 <- data
I0428 20:01:24.530613 29718 net.cpp:382] conv0 -> conv0
I0428 20:01:24.758368 29718 net.cpp:124] Setting up conv0
I0428 20:01:24.758410 29718 net.cpp:131] Top shape: 64 10 24 24 (368640)
I0428 20:01:24.758414 29718 net.cpp:139] Memory required for data: 1675520
I0428 20:01:24.758463 29718 layer_factory.hpp:77] Creating layer pool0
I0428 20:01:24.758476 29718 net.cpp:86] Creating Layer pool0
I0428 20:01:24.758481 29718 net.cpp:408] pool0 <- conv0
I0428 20:01:24.758486 29718 net.cpp:382] pool0 -> pool0
I0428 20:01:24.758533 29718 net.cpp:124] Setting up pool0
I0428 20:01:24.758540 29718 net.cpp:131] Top shape: 64 10 12 12 (92160)
I0428 20:01:24.758543 29718 net.cpp:139] Memory required for data: 2044160
I0428 20:01:24.758546 29718 layer_factory.hpp:77] Creating layer conv1
I0428 20:01:24.758556 29718 net.cpp:86] Creating Layer conv1
I0428 20:01:24.758560 29718 net.cpp:408] conv1 <- pool0
I0428 20:01:24.758564 29718 net.cpp:382] conv1 -> conv1
I0428 20:01:24.761492 29718 net.cpp:124] Setting up conv1
I0428 20:01:24.761521 29718 net.cpp:131] Top shape: 64 50 8 8 (204800)
I0428 20:01:24.761524 29718 net.cpp:139] Memory required for data: 2863360
I0428 20:01:24.761533 29718 layer_factory.hpp:77] Creating layer pool1
I0428 20:01:24.761539 29718 net.cpp:86] Creating Layer pool1
I0428 20:01:24.761543 29718 net.cpp:408] pool1 <- conv1
I0428 20:01:24.761548 29718 net.cpp:382] pool1 -> pool1
I0428 20:01:24.761598 29718 net.cpp:124] Setting up pool1
I0428 20:01:24.761605 29718 net.cpp:131] Top shape: 64 50 4 4 (51200)
I0428 20:01:24.761607 29718 net.cpp:139] Memory required for data: 3068160
I0428 20:01:24.761610 29718 layer_factory.hpp:77] Creating layer ip1
I0428 20:01:24.761616 29718 net.cpp:86] Creating Layer ip1
I0428 20:01:24.761620 29718 net.cpp:408] ip1 <- pool1
I0428 20:01:24.761625 29718 net.cpp:382] ip1 -> ip1
I0428 20:01:24.761772 29718 net.cpp:124] Setting up ip1
I0428 20:01:24.761780 29718 net.cpp:131] Top shape: 64 10 (640)
I0428 20:01:24.761783 29718 net.cpp:139] Memory required for data: 3070720
I0428 20:01:24.761790 29718 layer_factory.hpp:77] Creating layer relu1
I0428 20:01:24.761795 29718 net.cpp:86] Creating Layer relu1
I0428 20:01:24.761798 29718 net.cpp:408] relu1 <- ip1
I0428 20:01:24.761802 29718 net.cpp:369] relu1 -> ip1 (in-place)
I0428 20:01:24.761950 29718 net.cpp:124] Setting up relu1
I0428 20:01:24.761957 29718 net.cpp:131] Top shape: 64 10 (640)
I0428 20:01:24.761960 29718 net.cpp:139] Memory required for data: 3073280
I0428 20:01:24.761963 29718 layer_factory.hpp:77] Creating layer ip2
I0428 20:01:24.761968 29718 net.cpp:86] Creating Layer ip2
I0428 20:01:24.761971 29718 net.cpp:408] ip2 <- ip1
I0428 20:01:24.761976 29718 net.cpp:382] ip2 -> ip2
I0428 20:01:24.762060 29718 net.cpp:124] Setting up ip2
I0428 20:01:24.762068 29718 net.cpp:131] Top shape: 64 10 (640)
I0428 20:01:24.762070 29718 net.cpp:139] Memory required for data: 3075840
I0428 20:01:24.762075 29718 layer_factory.hpp:77] Creating layer relu2
I0428 20:01:24.762081 29718 net.cpp:86] Creating Layer relu2
I0428 20:01:24.762084 29718 net.cpp:408] relu2 <- ip2
I0428 20:01:24.762087 29718 net.cpp:369] relu2 -> ip2 (in-place)
I0428 20:01:24.762873 29718 net.cpp:124] Setting up relu2
I0428 20:01:24.762887 29718 net.cpp:131] Top shape: 64 10 (640)
I0428 20:01:24.762892 29718 net.cpp:139] Memory required for data: 3078400
I0428 20:01:24.762894 29718 layer_factory.hpp:77] Creating layer loss
I0428 20:01:24.762902 29718 net.cpp:86] Creating Layer loss
I0428 20:01:24.762905 29718 net.cpp:408] loss <- ip2
I0428 20:01:24.762912 29718 net.cpp:408] loss <- label
I0428 20:01:24.762917 29718 net.cpp:382] loss -> loss
I0428 20:01:24.762935 29718 layer_factory.hpp:77] Creating layer loss
…
I0428 20:01:24.763589 29718 solver.cpp:173] Creating test net (#0) specified by net file: ECE595/mnist/train_test/var_everything2/lenet_train_test902.prototxt
I0428 20:01:24.763614 29718 net.cpp:296] The NetState phase (1) differed from the phase (0) specified by a rule in layer mnist
I0428 20:01:24.763711 29718 net.cpp:53] Initializing net from parameters: 
name: "LeNet"
state {
  phase: TEST
}
layer {
  name: "mnist"
  type: "Data"
  top: "data"
  top: "label"
  include {
    phase: TEST
  }
  transform_param {
    scale: 0.00390625
  }
  data_param {
    source: "examples/mnist/mnist_test_lmdb"
    batch_size: 100
    backend: LMDB
  }
}
layer {
  name: "conv0"
  type: "Convolution"
  bottom: "data"
  top: "conv0"
  param {
    lr_mult: 1
  }
  param {
    lr_mult: 2
  }
  convolution_param {
    num_output: 10
    kernel_size: 5
    stride: 1
    weight_filler {
      type: "xavier"
    }
    bias_filler {
      type: "constant"
    }
  }
}
layer {
  name: "pool0"
  type: "Pooling"
  bottom: "conv0"
  top: "pool0"
  pooling_param {
    pool: MAX
    kernel_size: 2
    stride: 2
  }
}
layer {
  name: "conv1"
  type: "Convolution"
  bottom: "pool0"
  top: "conv1"
  param {
    lr_mult: 1
  }
  param {
    lr_mult: 2
  }
  convolution_param {
    num_output: 50
    kernel_size: 5
    stride: 1
    weight_filler {
      type: "xavier"
    }
    bias_filler {
      type: "constant"
    }
  }
}
layer {
  name: "pool1"
  type: "Pooling"
  bottom: "conv1"
  top: "pool1"
  pooling_param {
    pool: MAX
    kernel_size: 2
    stride: 2
  }
}
layer {
  name: "ip1"
  type: "InnerProduct"
  bottom: "pool1"
  top: "ip1"
  param {
    lr_mult: 1
  }
  param {
    lr_mult: 2
  }
  inner_product_param {
    num_output: 10
    weight_filler {
      type: "xavier"
    }
    bias_filler {
      type: "constant"
    }
  }
}
layer {
  name: "relu1"
  type: "ReLU"
  bottom: "ip1"
  top: "ip1"
}
layer {
  name: "ip2"
  type: "InnerProduct"
  bottom: "ip1"
  top: "ip2"
  param {
    lr_mult: 1
  }
  param {
    lr_mult: 2
  }
  inner_product_param {
    num_output: 10
    weight_filler {
      type: "xavier"
    }
    bias_filler {
      type: "constant"
    }
  }
}
layer {
  name: "relu2"
  type: "ReLU"
  bottom: "ip2"
  top: "ip2"
}
layer {
  name: "accuracy"
  type: "Accuracy"
  bottom: "ip2"
  bottom: "label"
  top: "accuracy"
  include {
    phase: TEST
  }
}
layer {
  name: "loss"
  type: "SoftmaxWithLoss"
  bottom: "ip2"
  bottom: "label"
  top: "loss"
}
I0428 20:01:24.763789 29718 layer_factory.hpp:77] Creating layer mnist
I0428 20:01:24.763836 29718 db_lmdb.cpp:35] Opened lmdb examples/mnist/mnist_test_lmdb
I0428 20:01:24.763865 29718 net.cpp:86] Creating Layer mnist
I0428 20:01:24.763870 29718 net.cpp:382] mnist -> data
I0428 20:01:24.763878 29718 net.cpp:382] mnist -> label
I0428 20:01:24.763984 29718 data_layer.cpp:45] output data size: 100,1,28,28
I0428 20:01:24.766291 29718 net.cpp:124] Setting up mnist
I0428 20:01:24.766329 29718 net.cpp:131] Top shape: 100 1 28 28 (78400)
I0428 20:01:24.766348 29718 net.cpp:131] Top shape: 100 (100)
I0428 20:01:24.766351 29718 net.cpp:139] Memory required for data: 314000
I0428 20:01:24.766355 29718 layer_factory.hpp:77] Creating layer label_mnist_1_split
I0428 20:01:24.766362 29718 net.cpp:86] Creating Layer label_mnist_1_split
I0428 20:01:24.766366 29718 net.cpp:408] label_mnist_1_split <- label
I0428 20:01:24.766371 29718 net.cpp:382] label_mnist_1_split -> label_mnist_1_split_0
I0428 20:01:24.766376 29718 net.cpp:382] label_mnist_1_split -> label_mnist_1_split_1
I0428 20:01:24.766469 29718 net.cpp:124] Setting up label_mnist_1_split
I0428 20:01:24.766486 29718 net.cpp:131] Top shape: 100 (100)
I0428 20:01:24.766491 29718 net.cpp:131] Top shape: 100 (100)
I0428 20:01:24.766494 29718 net.cpp:139] Memory required for data: 314800
I0428 20:01:24.766497 29718 layer_factory.hpp:77] Creating layer conv0
I0428 20:01:24.766505 29718 net.cpp:86] Creating Layer conv0
I0428 20:01:24.766508 29718 net.cpp:408] conv0 <- data
I0428 20:01:24.766515 29718 net.cpp:382] conv0 -> conv0
I0428 20:01:24.768215 29718 net.cpp:124] Setting up conv0
I0428 20:01:24.768259 29718 net.cpp:131] Top shape: 100 10 24 24 (576000)
I0428 20:01:24.768262 29718 net.cpp:139] Memory required for data: 2618800
I0428 20:01:24.768270 29718 layer_factory.hpp:77] Creating layer pool0
I0428 20:01:24.768277 29718 net.cpp:86] Creating Layer pool0
I0428 20:01:24.768280 29718 net.cpp:408] pool0 <- conv0
I0428 20:01:24.768285 29718 net.cpp:382] pool0 -> pool0
I0428 20:01:24.768317 29718 net.cpp:124] Setting up pool0
I0428 20:01:24.768323 29718 net.cpp:131] Top shape: 100 10 12 12 (144000)
I0428 20:01:24.768326 29718 net.cpp:139] Memory required for data: 3194800
I0428 20:01:24.768328 29718 layer_factory.hpp:77] Creating layer conv1
I0428 20:01:24.768337 29718 net.cpp:86] Creating Layer conv1
I0428 20:01:24.768339 29718 net.cpp:408] conv1 <- pool0
I0428 20:01:24.768344 29718 net.cpp:382] conv1 -> conv1
I0428 20:01:24.769970 29718 net.cpp:124] Setting up conv1
I0428 20:01:24.770000 29718 net.cpp:131] Top shape: 100 50 8 8 (320000)
I0428 20:01:24.770020 29718 net.cpp:139] Memory required for data: 4474800
I0428 20:01:24.770028 29718 layer_factory.hpp:77] Creating layer pool1
I0428 20:01:24.770038 29718 net.cpp:86] Creating Layer pool1
I0428 20:01:24.770041 29718 net.cpp:408] pool1 <- conv1
I0428 20:01:24.770047 29718 net.cpp:382] pool1 -> pool1
I0428 20:01:24.770083 29718 net.cpp:124] Setting up pool1
I0428 20:01:24.770089 29718 net.cpp:131] Top shape: 100 50 4 4 (80000)
I0428 20:01:24.770093 29718 net.cpp:139] Memory required for data: 4794800
I0428 20:01:24.770097 29718 layer_factory.hpp:77] Creating layer ip1
I0428 20:01:24.770102 29718 net.cpp:86] Creating Layer ip1
I0428 20:01:24.770105 29718 net.cpp:408] ip1 <- pool1
I0428 20:01:24.770112 29718 net.cpp:382] ip1 -> ip1
I0428 20:01:24.770275 29718 net.cpp:124] Setting up ip1
I0428 20:01:24.770284 29718 net.cpp:131] Top shape: 100 10 (1000)
I0428 20:01:24.770287 29718 net.cpp:139] Memory required for data: 4798800
I0428 20:01:24.770293 29718 layer_factory.hpp:77] Creating layer relu1
I0428 20:01:24.770299 29718 net.cpp:86] Creating Layer relu1
I0428 20:01:24.770303 29718 net.cpp:408] relu1 <- ip1
I0428 20:01:24.770308 29718 net.cpp:369] relu1 -> ip1 (in-place)
I0428 20:01:24.770457 29718 net.cpp:124] Setting up relu1
I0428 20:01:24.770465 29718 net.cpp:131] Top shape: 100 10 (1000)
I0428 20:01:24.770469 29718 net.cpp:139] Memory required for data: 4802800
I0428 20:01:24.770473 29718 layer_factory.hpp:77] Creating layer ip2
I0428 20:01:24.770479 29718 net.cpp:86] Creating Layer ip2
I0428 20:01:24.770483 29718 net.cpp:408] ip2 <- ip1
I0428 20:01:24.770488 29718 net.cpp:382] ip2 -> ip2
I0428 20:01:24.770589 29718 net.cpp:124] Setting up ip2
I0428 20:01:24.770596 29718 net.cpp:131] Top shape: 100 10 (1000)
I0428 20:01:24.770599 29718 net.cpp:139] Memory required for data: 4806800
I0428 20:01:24.770606 29718 layer_factory.hpp:77] Creating layer relu2
I0428 20:01:24.770611 29718 net.cpp:86] Creating Layer relu2
I0428 20:01:24.770613 29718 net.cpp:408] relu2 <- ip2
I0428 20:01:24.770617 29718 net.cpp:369] relu2 -> ip2 (in-place)
I0428 20:01:24.770845 29718 net.cpp:124] Setting up relu2
I0428 20:01:24.770854 29718 net.cpp:131] Top shape: 100 10 (1000)
I0428 20:01:24.770859 29718 net.cpp:139] Memory required for data: 4810800
I0428 20:01:24.770861 29718 layer_factory.hpp:77] Creating layer ip2_relu2_0_split
I0428 20:01:24.770866 29718 net.cpp:86] Creating Layer ip2_relu2_0_split
I0428 20:01:24.770870 29718 net.cpp:408] ip2_relu2_0_split <- ip2
I0428 20:01:24.770874 29718 net.cpp:382] ip2_relu2_0_split -> ip2_relu2_0_split_0
I0428 20:01:24.770890 29718 net.cpp:382] ip2_relu2_0_split -> ip2_relu2_0_split_1
I0428 20:01:24.770929 29718 net.cpp:124] Setting up ip2_relu2_0_split
I0428 20:01:24.770936 29718 net.cpp:131] Top shape: 100 10 (1000)
I0428 20:01:24.770941 29718 net.cpp:131] Top shape: 100 10 (1000)
I0428 20:01:24.770943 29718 net.cpp:139] Memory required for data: 4818800
I0428 20:01:24.770946 29718 layer_factory.hpp:77] Creating layer accuracy
I0428 20:01:24.770952 29718 net.cpp:86] Creating Layer accuracy
I0428 20:01:24.770956 29718 net.cpp:408] accuracy <- ip2_relu2_0_split_0
I0428 20:01:24.770959 29718 net.cpp:408] accuracy <- label_mnist_1_split_0
I0428 20:01:24.770964 29718 net.cpp:382] accuracy -> accuracy
…
