…
I0428 20:25:57.894547  2718 net.cpp:296] The NetState phase (0) differed from the phase (1) specified by a rule in layer mnist
I0428 20:25:57.894567  2718 net.cpp:296] The NetState phase (0) differed from the phase (1) specified by a rule in layer accuracy
I0428 20:25:57.894668  2718 net.cpp:53] Initializing net from parameters: 
name: "LeNet"
state {
  phase: TRAIN
  level: 0
  stage: ""
}
layer {
  name: "mnist"
  type: "Data"
  top: "data"
  top: "label"
  include {
    phase: TRAIN
  }
  transform_param {
    scale: 0.00390625
  }
  data_param {
    source: "examples/mnist/mnist_train_lmdb"
    batch_size: 64
    backend: LMDB
  }
}
layer {
  name: "conv0"
  type: "Convolution"
  bottom: "data"
  top: "conv0"
  param {
    lr_mult: 1
  }
  param {
    lr_mult: 2
  }
  convolution_param {
    num_output: 100
    kernel_size: 5
    stride: 1
    weight_filler {
      type: "xavier"
    }
    bias_filler {
      type: "constant"
    }
  }
}
layer {
  name: "pool0"
  type: "Pooling"
  bottom: "conv0"
  top: "pool0"
  pooling_param {
    pool: MAX
    kernel_size: 2
    stride: 2
  }
}
layer {
  name: "conv1"
  type: "Convolution"
  bottom: "pool0"
  top: "conv1"
  param {
    lr_mult: 1
  }
  param {
    lr_mult: 2
  }
  convolution_param {
    num_output: 2
    kernel_size: 5
    stride: 1
    weight_filler {
      type: "xavier"
    }
    bias_filler {
      type: "constant"
    }
  }
}
layer {
  name: "pool1"
  type: "Pooling"
  bottom: "conv1"
  top: "pool1"
  pooling_param {
    pool: MAX
    kernel_size: 2
    stride: 2
  }
}
layer {
  name: "ip1"
  type: "InnerProduct"
  bottom: "pool1"
  top: "ip1"
  param {
    lr_mult: 1
  }
  param {
    lr_mult: 2
  }
  inner_product_param {
    num_output: 10
    weight_filler {
      type: "xavier"
    }
    bias_filler {
      type: "constant"
    }
  }
}
layer {
  name: "relu1"
  type: "ReLU"
  bottom: "ip1"
  top: "ip1"
}
layer {
  name: "ip2"
  type: "InnerProduct"
  bottom: "ip1"
  top: "ip2"
  param {
    lr_mult: 1
  }
  param {
    lr_mult: 2
  }
  inner_product_param {
    num_output: 50
    weight_filler {
      type: "xavier"
    }
    bias_filler {
      type: "constant"
    }
  }
}
layer {
  name: "relu2"
  type: "ReLU"
  bottom: "ip2"
  top: "ip2"
}
layer {
  name: "ip3"
  type: "InnerProduct"
  bottom: "ip2"
  top: "ip3"
  param {
    lr_mult: 1
  }
  param {
    lr_mult: 2
  }
  inner_product_param {
    num_output: 10
    weight_filler {
      type: "xavier"
    }
    bias_filler {
      type: "constant"
    }
  }
}
layer {
  name: "relu3"
  type: "ReLU"
  bottom: "ip3"
  top: "ip3"
}
layer {
  name: "loss"
  type: "SoftmaxWithLoss"
  bottom: "ip3"
  bottom: "label"
  top: "loss"
}
I0428 20:25:57.894747  2718 layer_factory.hpp:77] Creating layer mnist
I0428 20:25:57.894845  2718 db_lmdb.cpp:35] Opened lmdb examples/mnist/mnist_train_lmdb
I0428 20:25:57.894867  2718 net.cpp:86] Creating Layer mnist
I0428 20:25:57.894875  2718 net.cpp:382] mnist -> data
I0428 20:25:57.894898  2718 net.cpp:382] mnist -> label
I0428 20:25:57.895979  2718 data_layer.cpp:45] output data size: 64,1,28,28
I0428 20:25:57.898655  2718 net.cpp:124] Setting up mnist
I0428 20:25:57.898674  2718 net.cpp:131] Top shape: 64 1 28 28 (50176)
I0428 20:25:57.898679  2718 net.cpp:131] Top shape: 64 (64)
I0428 20:25:57.898684  2718 net.cpp:139] Memory required for data: 200960
I0428 20:25:57.898691  2718 layer_factory.hpp:77] Creating layer conv0
I0428 20:25:57.898753  2718 net.cpp:86] Creating Layer conv0
I0428 20:25:57.898775  2718 net.cpp:408] conv0 <- data
I0428 20:25:57.898788  2718 net.cpp:382] conv0 -> conv0
I0428 20:25:58.189774  2718 net.cpp:124] Setting up conv0
I0428 20:25:58.189805  2718 net.cpp:131] Top shape: 64 100 24 24 (3686400)
I0428 20:25:58.189811  2718 net.cpp:139] Memory required for data: 14946560
I0428 20:25:58.189829  2718 layer_factory.hpp:77] Creating layer pool0
I0428 20:25:58.189843  2718 net.cpp:86] Creating Layer pool0
I0428 20:25:58.189848  2718 net.cpp:408] pool0 <- conv0
I0428 20:25:58.189855  2718 net.cpp:382] pool0 -> pool0
I0428 20:25:58.189909  2718 net.cpp:124] Setting up pool0
I0428 20:25:58.189916  2718 net.cpp:131] Top shape: 64 100 12 12 (921600)
I0428 20:25:58.189919  2718 net.cpp:139] Memory required for data: 18632960
I0428 20:25:58.189924  2718 layer_factory.hpp:77] Creating layer conv1
I0428 20:25:58.189935  2718 net.cpp:86] Creating Layer conv1
I0428 20:25:58.189939  2718 net.cpp:408] conv1 <- pool0
I0428 20:25:58.189945  2718 net.cpp:382] conv1 -> conv1
I0428 20:25:58.192999  2718 net.cpp:124] Setting up conv1
I0428 20:25:58.193017  2718 net.cpp:131] Top shape: 64 2 8 8 (8192)
I0428 20:25:58.193020  2718 net.cpp:139] Memory required for data: 18665728
I0428 20:25:58.193030  2718 layer_factory.hpp:77] Creating layer pool1
I0428 20:25:58.193039  2718 net.cpp:86] Creating Layer pool1
I0428 20:25:58.193043  2718 net.cpp:408] pool1 <- conv1
I0428 20:25:58.193049  2718 net.cpp:382] pool1 -> pool1
I0428 20:25:58.193092  2718 net.cpp:124] Setting up pool1
I0428 20:25:58.193099  2718 net.cpp:131] Top shape: 64 2 4 4 (2048)
I0428 20:25:58.193101  2718 net.cpp:139] Memory required for data: 18673920
I0428 20:25:58.193105  2718 layer_factory.hpp:77] Creating layer ip1
I0428 20:25:58.193112  2718 net.cpp:86] Creating Layer ip1
I0428 20:25:58.193116  2718 net.cpp:408] ip1 <- pool1
I0428 20:25:58.193121  2718 net.cpp:382] ip1 -> ip1
I0428 20:25:58.193228  2718 net.cpp:124] Setting up ip1
I0428 20:25:58.193236  2718 net.cpp:131] Top shape: 64 10 (640)
I0428 20:25:58.193239  2718 net.cpp:139] Memory required for data: 18676480
I0428 20:25:58.193248  2718 layer_factory.hpp:77] Creating layer relu1
I0428 20:25:58.193253  2718 net.cpp:86] Creating Layer relu1
I0428 20:25:58.193258  2718 net.cpp:408] relu1 <- ip1
I0428 20:25:58.193262  2718 net.cpp:369] relu1 -> ip1 (in-place)
I0428 20:25:58.193454  2718 net.cpp:124] Setting up relu1
I0428 20:25:58.193464  2718 net.cpp:131] Top shape: 64 10 (640)
I0428 20:25:58.193466  2718 net.cpp:139] Memory required for data: 18679040
I0428 20:25:58.193470  2718 layer_factory.hpp:77] Creating layer ip2
I0428 20:25:58.193477  2718 net.cpp:86] Creating Layer ip2
I0428 20:25:58.193480  2718 net.cpp:408] ip2 <- ip1
I0428 20:25:58.193486  2718 net.cpp:382] ip2 -> ip2
I0428 20:25:58.193595  2718 net.cpp:124] Setting up ip2
I0428 20:25:58.193603  2718 net.cpp:131] Top shape: 64 50 (3200)
I0428 20:25:58.193608  2718 net.cpp:139] Memory required for data: 18691840
I0428 20:25:58.193614  2718 layer_factory.hpp:77] Creating layer relu2
I0428 20:25:58.193620  2718 net.cpp:86] Creating Layer relu2
I0428 20:25:58.193624  2718 net.cpp:408] relu2 <- ip2
I0428 20:25:58.193629  2718 net.cpp:369] relu2 -> ip2 (in-place)
I0428 20:25:58.194435  2718 net.cpp:124] Setting up relu2
I0428 20:25:58.194450  2718 net.cpp:131] Top shape: 64 50 (3200)
I0428 20:25:58.194454  2718 net.cpp:139] Memory required for data: 18704640
I0428 20:25:58.194458  2718 layer_factory.hpp:77] Creating layer ip3
I0428 20:25:58.194466  2718 net.cpp:86] Creating Layer ip3
I0428 20:25:58.194470  2718 net.cpp:408] ip3 <- ip2
I0428 20:25:58.194476  2718 net.cpp:382] ip3 -> ip3
I0428 20:25:58.194589  2718 net.cpp:124] Setting up ip3
I0428 20:25:58.194598  2718 net.cpp:131] Top shape: 64 10 (640)
I0428 20:25:58.194602  2718 net.cpp:139] Memory required for data: 18707200
I0428 20:25:58.194610  2718 layer_factory.hpp:77] Creating layer relu3
I0428 20:25:58.194617  2718 net.cpp:86] Creating Layer relu3
I0428 20:25:58.194619  2718 net.cpp:408] relu3 <- ip3
I0428 20:25:58.194624  2718 net.cpp:369] relu3 -> ip3 (in-place)
I0428 20:25:58.194809  2718 net.cpp:124] Setting up relu3
I0428 20:25:58.194819  2718 net.cpp:131] Top shape: 64 10 (640)
I0428 20:25:58.194823  2718 net.cpp:139] Memory required for data: 18709760
I0428 20:25:58.194826  2718 layer_factory.hpp:77] Creating layer loss
I0428 20:25:58.194833  2718 net.cpp:86] Creating Layer loss
I0428 20:25:58.194836  2718 net.cpp:408] loss <- ip3
I0428 20:25:58.194840  2718 net.cpp:408] loss <- label
I0428 20:25:58.194846  2718 net.cpp:382] loss -> loss
I0428 20:25:58.194862  2718 layer_factory.hpp:77] Creating layer loss
…
I0428 20:25:58.195564  2718 solver.cpp:173] Creating test net (#0) specified by net file: ECE595/mnist/train_test/var_everything2/lenet_train_test1463.prototxt
I0428 20:25:58.195595  2718 net.cpp:296] The NetState phase (1) differed from the phase (0) specified by a rule in layer mnist
I0428 20:25:58.195698  2718 net.cpp:53] Initializing net from parameters: 
name: "LeNet"
state {
  phase: TEST
}
layer {
  name: "mnist"
  type: "Data"
  top: "data"
  top: "label"
  include {
    phase: TEST
  }
  transform_param {
    scale: 0.00390625
  }
  data_param {
    source: "examples/mnist/mnist_test_lmdb"
    batch_size: 100
    backend: LMDB
  }
}
layer {
  name: "conv0"
  type: "Convolution"
  bottom: "data"
  top: "conv0"
  param {
    lr_mult: 1
  }
  param {
    lr_mult: 2
  }
  convolution_param {
    num_output: 100
    kernel_size: 5
    stride: 1
    weight_filler {
      type: "xavier"
    }
    bias_filler {
      type: "constant"
    }
  }
}
layer {
  name: "pool0"
  type: "Pooling"
  bottom: "conv0"
  top: "pool0"
  pooling_param {
    pool: MAX
    kernel_size: 2
    stride: 2
  }
}
layer {
  name: "conv1"
  type: "Convolution"
  bottom: "pool0"
  top: "conv1"
  param {
    lr_mult: 1
  }
  param {
    lr_mult: 2
  }
  convolution_param {
    num_output: 2
    kernel_size: 5
    stride: 1
    weight_filler {
      type: "xavier"
    }
    bias_filler {
      type: "constant"
    }
  }
}
layer {
  name: "pool1"
  type: "Pooling"
  bottom: "conv1"
  top: "pool1"
  pooling_param {
    pool: MAX
    kernel_size: 2
    stride: 2
  }
}
layer {
  name: "ip1"
  type: "InnerProduct"
  bottom: "pool1"
  top: "ip1"
  param {
    lr_mult: 1
  }
  param {
    lr_mult: 2
  }
  inner_product_param {
    num_output: 10
    weight_filler {
      type: "xavier"
    }
    bias_filler {
      type: "constant"
    }
  }
}
layer {
  name: "relu1"
  type: "ReLU"
  bottom: "ip1"
  top: "ip1"
}
layer {
  name: "ip2"
  type: "InnerProduct"
  bottom: "ip1"
  top: "ip2"
  param {
    lr_mult: 1
  }
  param {
    lr_mult: 2
  }
  inner_product_param {
    num_output: 50
    weight_filler {
      type: "xavier"
    }
    bias_filler {
      type: "constant"
    }
  }
}
layer {
  name: "relu2"
  type: "ReLU"
  bottom: "ip2"
  top: "ip2"
}
layer {
  name: "ip3"
  type: "InnerProduct"
  bottom: "ip2"
  top: "ip3"
  param {
    lr_mult: 1
  }
  param {
    lr_mult: 2
  }
  inner_product_param {
    num_output: 10
    weight_filler {
      type: "xavier"
    }
    bias_filler {
      type: "constant"
    }
  }
}
layer {
  name: "relu3"
  type: "ReLU"
  bottom: "ip3"
  top: "ip3"
}
layer {
  name: "accuracy"
  type: "Accuracy"
  bottom: "ip3"
  bottom: "label"
  top: "accuracy"
  include {
    phase: TEST
  }
}
layer {
  name: "loss"
  type: "SoftmaxWithLoss"
  bottom: "ip3"
  bottom: "label"
  top: "loss"
}
I0428 20:25:58.195787  2718 layer_factory.hpp:77] Creating layer mnist
I0428 20:25:58.195838  2718 db_lmdb.cpp:35] Opened lmdb examples/mnist/mnist_test_lmdb
I0428 20:25:58.195852  2718 net.cpp:86] Creating Layer mnist
I0428 20:25:58.195858  2718 net.cpp:382] mnist -> data
I0428 20:25:58.195866  2718 net.cpp:382] mnist -> label
I0428 20:25:58.195962  2718 data_layer.cpp:45] output data size: 100,1,28,28
I0428 20:25:58.198072  2718 net.cpp:124] Setting up mnist
I0428 20:25:58.198088  2718 net.cpp:131] Top shape: 100 1 28 28 (78400)
I0428 20:25:58.198093  2718 net.cpp:131] Top shape: 100 (100)
I0428 20:25:58.198097  2718 net.cpp:139] Memory required for data: 314000
I0428 20:25:58.198102  2718 layer_factory.hpp:77] Creating layer label_mnist_1_split
I0428 20:25:58.198112  2718 net.cpp:86] Creating Layer label_mnist_1_split
I0428 20:25:58.198117  2718 net.cpp:408] label_mnist_1_split <- label
I0428 20:25:58.198122  2718 net.cpp:382] label_mnist_1_split -> label_mnist_1_split_0
I0428 20:25:58.198129  2718 net.cpp:382] label_mnist_1_split -> label_mnist_1_split_1
I0428 20:25:58.198185  2718 net.cpp:124] Setting up label_mnist_1_split
I0428 20:25:58.198191  2718 net.cpp:131] Top shape: 100 (100)
I0428 20:25:58.198195  2718 net.cpp:131] Top shape: 100 (100)
I0428 20:25:58.198199  2718 net.cpp:139] Memory required for data: 314800
I0428 20:25:58.198202  2718 layer_factory.hpp:77] Creating layer conv0
I0428 20:25:58.198211  2718 net.cpp:86] Creating Layer conv0
I0428 20:25:58.198215  2718 net.cpp:408] conv0 <- data
I0428 20:25:58.198220  2718 net.cpp:382] conv0 -> conv0
I0428 20:25:58.200108  2718 net.cpp:124] Setting up conv0
I0428 20:25:58.200124  2718 net.cpp:131] Top shape: 100 100 24 24 (5760000)
I0428 20:25:58.200129  2718 net.cpp:139] Memory required for data: 23354800
I0428 20:25:58.200139  2718 layer_factory.hpp:77] Creating layer pool0
I0428 20:25:58.200145  2718 net.cpp:86] Creating Layer pool0
I0428 20:25:58.200150  2718 net.cpp:408] pool0 <- conv0
I0428 20:25:58.200155  2718 net.cpp:382] pool0 -> pool0
I0428 20:25:58.200196  2718 net.cpp:124] Setting up pool0
I0428 20:25:58.200202  2718 net.cpp:131] Top shape: 100 100 12 12 (1440000)
I0428 20:25:58.200206  2718 net.cpp:139] Memory required for data: 29114800
I0428 20:25:58.200209  2718 layer_factory.hpp:77] Creating layer conv1
I0428 20:25:58.200218  2718 net.cpp:86] Creating Layer conv1
I0428 20:25:58.200222  2718 net.cpp:408] conv1 <- pool0
I0428 20:25:58.200227  2718 net.cpp:382] conv1 -> conv1
I0428 20:25:58.201956  2718 net.cpp:124] Setting up conv1
I0428 20:25:58.201972  2718 net.cpp:131] Top shape: 100 2 8 8 (12800)
I0428 20:25:58.201977  2718 net.cpp:139] Memory required for data: 29166000
I0428 20:25:58.201993  2718 layer_factory.hpp:77] Creating layer pool1
I0428 20:25:58.202003  2718 net.cpp:86] Creating Layer pool1
I0428 20:25:58.202006  2718 net.cpp:408] pool1 <- conv1
I0428 20:25:58.202013  2718 net.cpp:382] pool1 -> pool1
I0428 20:25:58.202056  2718 net.cpp:124] Setting up pool1
I0428 20:25:58.202069  2718 net.cpp:131] Top shape: 100 2 4 4 (3200)
I0428 20:25:58.202071  2718 net.cpp:139] Memory required for data: 29178800
I0428 20:25:58.202075  2718 layer_factory.hpp:77] Creating layer ip1
I0428 20:25:58.202081  2718 net.cpp:86] Creating Layer ip1
I0428 20:25:58.202085  2718 net.cpp:408] ip1 <- pool1
I0428 20:25:58.202091  2718 net.cpp:382] ip1 -> ip1
I0428 20:25:58.202206  2718 net.cpp:124] Setting up ip1
I0428 20:25:58.202214  2718 net.cpp:131] Top shape: 100 10 (1000)
I0428 20:25:58.202235  2718 net.cpp:139] Memory required for data: 29182800
I0428 20:25:58.202244  2718 layer_factory.hpp:77] Creating layer relu1
I0428 20:25:58.202256  2718 net.cpp:86] Creating Layer relu1
I0428 20:25:58.202260  2718 net.cpp:408] relu1 <- ip1
I0428 20:25:58.202266  2718 net.cpp:369] relu1 -> ip1 (in-place)
I0428 20:25:58.202461  2718 net.cpp:124] Setting up relu1
I0428 20:25:58.202469  2718 net.cpp:131] Top shape: 100 10 (1000)
I0428 20:25:58.202473  2718 net.cpp:139] Memory required for data: 29186800
I0428 20:25:58.202476  2718 layer_factory.hpp:77] Creating layer ip2
I0428 20:25:58.202486  2718 net.cpp:86] Creating Layer ip2
I0428 20:25:58.202491  2718 net.cpp:408] ip2 <- ip1
I0428 20:25:58.202497  2718 net.cpp:382] ip2 -> ip2
I0428 20:25:58.202613  2718 net.cpp:124] Setting up ip2
I0428 20:25:58.202621  2718 net.cpp:131] Top shape: 100 50 (5000)
I0428 20:25:58.202625  2718 net.cpp:139] Memory required for data: 29206800
I0428 20:25:58.202631  2718 layer_factory.hpp:77] Creating layer relu2
I0428 20:25:58.202646  2718 net.cpp:86] Creating Layer relu2
I0428 20:25:58.202649  2718 net.cpp:408] relu2 <- ip2
I0428 20:25:58.202653  2718 net.cpp:369] relu2 -> ip2 (in-place)
I0428 20:25:58.202839  2718 net.cpp:124] Setting up relu2
I0428 20:25:58.202849  2718 net.cpp:131] Top shape: 100 50 (5000)
I0428 20:25:58.202853  2718 net.cpp:139] Memory required for data: 29226800
I0428 20:25:58.202864  2718 layer_factory.hpp:77] Creating layer ip3
I0428 20:25:58.202872  2718 net.cpp:86] Creating Layer ip3
I0428 20:25:58.202877  2718 net.cpp:408] ip3 <- ip2
I0428 20:25:58.202882  2718 net.cpp:382] ip3 -> ip3
I0428 20:25:58.203007  2718 net.cpp:124] Setting up ip3
I0428 20:25:58.203016  2718 net.cpp:131] Top shape: 100 10 (1000)
I0428 20:25:58.203019  2718 net.cpp:139] Memory required for data: 29230800
I0428 20:25:58.203027  2718 layer_factory.hpp:77] Creating layer relu3
I0428 20:25:58.203034  2718 net.cpp:86] Creating Layer relu3
I0428 20:25:58.203037  2718 net.cpp:408] relu3 <- ip3
I0428 20:25:58.203042  2718 net.cpp:369] relu3 -> ip3 (in-place)
I0428 20:25:58.203974  2718 net.cpp:124] Setting up relu3
I0428 20:25:58.203987  2718 net.cpp:131] Top shape: 100 10 (1000)
I0428 20:25:58.203991  2718 net.cpp:139] Memory required for data: 29234800
I0428 20:25:58.203995  2718 layer_factory.hpp:77] Creating layer ip3_relu3_0_split
I0428 20:25:58.204001  2718 net.cpp:86] Creating Layer ip3_relu3_0_split
I0428 20:25:58.204005  2718 net.cpp:408] ip3_relu3_0_split <- ip3
I0428 20:25:58.204011  2718 net.cpp:382] ip3_relu3_0_split -> ip3_relu3_0_split_0
I0428 20:25:58.204020  2718 net.cpp:382] ip3_relu3_0_split -> ip3_relu3_0_split_1
I0428 20:25:58.204063  2718 net.cpp:124] Setting up ip3_relu3_0_split
I0428 20:25:58.204071  2718 net.cpp:131] Top shape: 100 10 (1000)
I0428 20:25:58.204074  2718 net.cpp:131] Top shape: 100 10 (1000)
I0428 20:25:58.204077  2718 net.cpp:139] Memory required for data: 29242800
I0428 20:25:58.204080  2718 layer_factory.hpp:77] Creating layer accuracy
I0428 20:25:58.204095  2718 net.cpp:86] Creating Layer accuracy
I0428 20:25:58.204098  2718 net.cpp:408] accuracy <- ip3_relu3_0_split_0
I0428 20:25:58.204103  2718 net.cpp:408] accuracy <- label_mnist_1_split_0
I0428 20:25:58.204108  2718 net.cpp:382] accuracy -> accuracy
…
