…
I0428 20:32:17.304046  4076 net.cpp:296] The NetState phase (0) differed from the phase (1) specified by a rule in layer mnist
I0428 20:32:17.304069  4076 net.cpp:296] The NetState phase (0) differed from the phase (1) specified by a rule in layer accuracy
I0428 20:32:17.304157  4076 net.cpp:53] Initializing net from parameters: 
name: "LeNet"
state {
  phase: TRAIN
  level: 0
  stage: ""
}
layer {
  name: "mnist"
  type: "Data"
  top: "data"
  top: "label"
  include {
    phase: TRAIN
  }
  transform_param {
    scale: 0.00390625
  }
  data_param {
    source: "examples/mnist/mnist_train_lmdb"
    batch_size: 64
    backend: LMDB
  }
}
layer {
  name: "conv0"
  type: "Convolution"
  bottom: "data"
  top: "conv0"
  param {
    lr_mult: 1
  }
  param {
    lr_mult: 2
  }
  convolution_param {
    num_output: 100
    kernel_size: 5
    stride: 1
    weight_filler {
      type: "xavier"
    }
    bias_filler {
      type: "constant"
    }
  }
}
layer {
  name: "pool0"
  type: "Pooling"
  bottom: "conv0"
  top: "pool0"
  pooling_param {
    pool: MAX
    kernel_size: 2
    stride: 2
  }
}
layer {
  name: "conv1"
  type: "Convolution"
  bottom: "pool0"
  top: "conv1"
  param {
    lr_mult: 1
  }
  param {
    lr_mult: 2
  }
  convolution_param {
    num_output: 25
    kernel_size: 5
    stride: 1
    weight_filler {
      type: "xavier"
    }
    bias_filler {
      type: "constant"
    }
  }
}
layer {
  name: "pool1"
  type: "Pooling"
  bottom: "conv1"
  top: "pool1"
  pooling_param {
    pool: MAX
    kernel_size: 2
    stride: 2
  }
}
layer {
  name: "ip1"
  type: "InnerProduct"
  bottom: "pool1"
  top: "ip1"
  param {
    lr_mult: 1
  }
  param {
    lr_mult: 2
  }
  inner_product_param {
    num_output: 50
    weight_filler {
      type: "xavier"
    }
    bias_filler {
      type: "constant"
    }
  }
}
layer {
  name: "relu1"
  type: "ReLU"
  bottom: "ip1"
  top: "ip1"
}
layer {
  name: "ip2"
  type: "InnerProduct"
  bottom: "ip1"
  top: "ip2"
  param {
    lr_mult: 1
  }
  param {
    lr_mult: 2
  }
  inner_product_param {
    num_output: 10
    weight_filler {
      type: "xavier"
    }
    bias_filler {
      type: "constant"
    }
  }
}
layer {
  name: "relu2"
  type: "ReLU"
  bottom: "ip2"
  top: "ip2"
}
layer {
  name: "loss"
  type: "SoftmaxWithLoss"
  bottom: "ip2"
  bottom: "label"
  top: "loss"
}
I0428 20:32:17.304226  4076 layer_factory.hpp:77] Creating layer mnist
I0428 20:32:17.304325  4076 db_lmdb.cpp:35] Opened lmdb examples/mnist/mnist_train_lmdb
I0428 20:32:17.304349  4076 net.cpp:86] Creating Layer mnist
I0428 20:32:17.304358  4076 net.cpp:382] mnist -> data
I0428 20:32:17.304379  4076 net.cpp:382] mnist -> label
I0428 20:32:17.305476  4076 data_layer.cpp:45] output data size: 64,1,28,28
I0428 20:32:17.307940  4076 net.cpp:124] Setting up mnist
I0428 20:32:17.307958  4076 net.cpp:131] Top shape: 64 1 28 28 (50176)
I0428 20:32:17.307965  4076 net.cpp:131] Top shape: 64 (64)
I0428 20:32:17.307968  4076 net.cpp:139] Memory required for data: 200960
I0428 20:32:17.307976  4076 layer_factory.hpp:77] Creating layer conv0
I0428 20:32:17.308023  4076 net.cpp:86] Creating Layer conv0
I0428 20:32:17.308030  4076 net.cpp:408] conv0 <- data
I0428 20:32:17.308043  4076 net.cpp:382] conv0 -> conv0
I0428 20:32:17.589373  4076 net.cpp:124] Setting up conv0
I0428 20:32:17.589401  4076 net.cpp:131] Top shape: 64 100 24 24 (3686400)
I0428 20:32:17.589404  4076 net.cpp:139] Memory required for data: 14946560
I0428 20:32:17.589437  4076 layer_factory.hpp:77] Creating layer pool0
I0428 20:32:17.589450  4076 net.cpp:86] Creating Layer pool0
I0428 20:32:17.589454  4076 net.cpp:408] pool0 <- conv0
I0428 20:32:17.589459  4076 net.cpp:382] pool0 -> pool0
I0428 20:32:17.589504  4076 net.cpp:124] Setting up pool0
I0428 20:32:17.589510  4076 net.cpp:131] Top shape: 64 100 12 12 (921600)
I0428 20:32:17.589512  4076 net.cpp:139] Memory required for data: 18632960
I0428 20:32:17.589515  4076 layer_factory.hpp:77] Creating layer conv1
I0428 20:32:17.589526  4076 net.cpp:86] Creating Layer conv1
I0428 20:32:17.589529  4076 net.cpp:408] conv1 <- pool0
I0428 20:32:17.589534  4076 net.cpp:382] conv1 -> conv1
I0428 20:32:17.591739  4076 net.cpp:124] Setting up conv1
I0428 20:32:17.591753  4076 net.cpp:131] Top shape: 64 25 8 8 (102400)
I0428 20:32:17.591758  4076 net.cpp:139] Memory required for data: 19042560
I0428 20:32:17.591766  4076 layer_factory.hpp:77] Creating layer pool1
I0428 20:32:17.591773  4076 net.cpp:86] Creating Layer pool1
I0428 20:32:17.591778  4076 net.cpp:408] pool1 <- conv1
I0428 20:32:17.591781  4076 net.cpp:382] pool1 -> pool1
I0428 20:32:17.591835  4076 net.cpp:124] Setting up pool1
I0428 20:32:17.591840  4076 net.cpp:131] Top shape: 64 25 4 4 (25600)
I0428 20:32:17.591842  4076 net.cpp:139] Memory required for data: 19144960
I0428 20:32:17.591845  4076 layer_factory.hpp:77] Creating layer ip1
I0428 20:32:17.591852  4076 net.cpp:86] Creating Layer ip1
I0428 20:32:17.591856  4076 net.cpp:408] ip1 <- pool1
I0428 20:32:17.591861  4076 net.cpp:382] ip1 -> ip1
I0428 20:32:17.592069  4076 net.cpp:124] Setting up ip1
I0428 20:32:17.592077  4076 net.cpp:131] Top shape: 64 50 (3200)
I0428 20:32:17.592080  4076 net.cpp:139] Memory required for data: 19157760
I0428 20:32:17.592087  4076 layer_factory.hpp:77] Creating layer relu1
I0428 20:32:17.592093  4076 net.cpp:86] Creating Layer relu1
I0428 20:32:17.592097  4076 net.cpp:408] relu1 <- ip1
I0428 20:32:17.592102  4076 net.cpp:369] relu1 -> ip1 (in-place)
I0428 20:32:17.592274  4076 net.cpp:124] Setting up relu1
I0428 20:32:17.592283  4076 net.cpp:131] Top shape: 64 50 (3200)
I0428 20:32:17.592288  4076 net.cpp:139] Memory required for data: 19170560
I0428 20:32:17.592290  4076 layer_factory.hpp:77] Creating layer ip2
I0428 20:32:17.592298  4076 net.cpp:86] Creating Layer ip2
I0428 20:32:17.592300  4076 net.cpp:408] ip2 <- ip1
I0428 20:32:17.592305  4076 net.cpp:382] ip2 -> ip2
I0428 20:32:17.592417  4076 net.cpp:124] Setting up ip2
I0428 20:32:17.592423  4076 net.cpp:131] Top shape: 64 10 (640)
I0428 20:32:17.592427  4076 net.cpp:139] Memory required for data: 19173120
I0428 20:32:17.592432  4076 layer_factory.hpp:77] Creating layer relu2
I0428 20:32:17.592438  4076 net.cpp:86] Creating Layer relu2
I0428 20:32:17.592442  4076 net.cpp:408] relu2 <- ip2
I0428 20:32:17.592445  4076 net.cpp:369] relu2 -> ip2 (in-place)
I0428 20:32:17.593255  4076 net.cpp:124] Setting up relu2
I0428 20:32:17.593266  4076 net.cpp:131] Top shape: 64 10 (640)
I0428 20:32:17.593271  4076 net.cpp:139] Memory required for data: 19175680
I0428 20:32:17.593273  4076 layer_factory.hpp:77] Creating layer loss
I0428 20:32:17.593282  4076 net.cpp:86] Creating Layer loss
I0428 20:32:17.593286  4076 net.cpp:408] loss <- ip2
I0428 20:32:17.593289  4076 net.cpp:408] loss <- label
I0428 20:32:17.593294  4076 net.cpp:382] loss -> loss
I0428 20:32:17.593313  4076 layer_factory.hpp:77] Creating layer loss
…
I0428 20:32:17.593931  4076 solver.cpp:173] Creating test net (#0) specified by net file: ECE595/mnist/train_test/var_everything2/lenet_train_test1569.prototxt
I0428 20:32:17.593957  4076 net.cpp:296] The NetState phase (1) differed from the phase (0) specified by a rule in layer mnist
I0428 20:32:17.594044  4076 net.cpp:53] Initializing net from parameters: 
name: "LeNet"
state {
  phase: TEST
}
layer {
  name: "mnist"
  type: "Data"
  top: "data"
  top: "label"
  include {
    phase: TEST
  }
  transform_param {
    scale: 0.00390625
  }
  data_param {
    source: "examples/mnist/mnist_test_lmdb"
    batch_size: 100
    backend: LMDB
  }
}
layer {
  name: "conv0"
  type: "Convolution"
  bottom: "data"
  top: "conv0"
  param {
    lr_mult: 1
  }
  param {
    lr_mult: 2
  }
  convolution_param {
    num_output: 100
    kernel_size: 5
    stride: 1
    weight_filler {
      type: "xavier"
    }
    bias_filler {
      type: "constant"
    }
  }
}
layer {
  name: "pool0"
  type: "Pooling"
  bottom: "conv0"
  top: "pool0"
  pooling_param {
    pool: MAX
    kernel_size: 2
    stride: 2
  }
}
layer {
  name: "conv1"
  type: "Convolution"
  bottom: "pool0"
  top: "conv1"
  param {
    lr_mult: 1
  }
  param {
    lr_mult: 2
  }
  convolution_param {
    num_output: 25
    kernel_size: 5
    stride: 1
    weight_filler {
      type: "xavier"
    }
    bias_filler {
      type: "constant"
    }
  }
}
layer {
  name: "pool1"
  type: "Pooling"
  bottom: "conv1"
  top: "pool1"
  pooling_param {
    pool: MAX
    kernel_size: 2
    stride: 2
  }
}
layer {
  name: "ip1"
  type: "InnerProduct"
  bottom: "pool1"
  top: "ip1"
  param {
    lr_mult: 1
  }
  param {
    lr_mult: 2
  }
  inner_product_param {
    num_output: 50
    weight_filler {
      type: "xavier"
    }
    bias_filler {
      type: "constant"
    }
  }
}
layer {
  name: "relu1"
  type: "ReLU"
  bottom: "ip1"
  top: "ip1"
}
layer {
  name: "ip2"
  type: "InnerProduct"
  bottom: "ip1"
  top: "ip2"
  param {
    lr_mult: 1
  }
  param {
    lr_mult: 2
  }
  inner_product_param {
    num_output: 10
    weight_filler {
      type: "xavier"
    }
    bias_filler {
      type: "constant"
    }
  }
}
layer {
  name: "relu2"
  type: "ReLU"
  bottom: "ip2"
  top: "ip2"
}
layer {
  name: "accuracy"
  type: "Accuracy"
  bottom: "ip2"
  bottom: "label"
  top: "accuracy"
  include {
    phase: TEST
  }
}
layer {
  name: "loss"
  type: "SoftmaxWithLoss"
  bottom: "ip2"
  bottom: "label"
  top: "loss"
}
I0428 20:32:17.594111  4076 layer_factory.hpp:77] Creating layer mnist
I0428 20:32:17.594151  4076 db_lmdb.cpp:35] Opened lmdb examples/mnist/mnist_test_lmdb
I0428 20:32:17.594166  4076 net.cpp:86] Creating Layer mnist
I0428 20:32:17.594172  4076 net.cpp:382] mnist -> data
I0428 20:32:17.594178  4076 net.cpp:382] mnist -> label
I0428 20:32:17.594281  4076 data_layer.cpp:45] output data size: 100,1,28,28
I0428 20:32:17.596163  4076 net.cpp:124] Setting up mnist
I0428 20:32:17.596176  4076 net.cpp:131] Top shape: 100 1 28 28 (78400)
I0428 20:32:17.596182  4076 net.cpp:131] Top shape: 100 (100)
I0428 20:32:17.596184  4076 net.cpp:139] Memory required for data: 314000
I0428 20:32:17.596189  4076 layer_factory.hpp:77] Creating layer label_mnist_1_split
I0428 20:32:17.596197  4076 net.cpp:86] Creating Layer label_mnist_1_split
I0428 20:32:17.596200  4076 net.cpp:408] label_mnist_1_split <- label
I0428 20:32:17.596205  4076 net.cpp:382] label_mnist_1_split -> label_mnist_1_split_0
I0428 20:32:17.596211  4076 net.cpp:382] label_mnist_1_split -> label_mnist_1_split_1
I0428 20:32:17.596351  4076 net.cpp:124] Setting up label_mnist_1_split
I0428 20:32:17.596360  4076 net.cpp:131] Top shape: 100 (100)
I0428 20:32:17.596364  4076 net.cpp:131] Top shape: 100 (100)
I0428 20:32:17.596366  4076 net.cpp:139] Memory required for data: 314800
I0428 20:32:17.596369  4076 layer_factory.hpp:77] Creating layer conv0
I0428 20:32:17.596379  4076 net.cpp:86] Creating Layer conv0
I0428 20:32:17.596382  4076 net.cpp:408] conv0 <- data
I0428 20:32:17.596388  4076 net.cpp:382] conv0 -> conv0
I0428 20:32:17.598228  4076 net.cpp:124] Setting up conv0
I0428 20:32:17.598242  4076 net.cpp:131] Top shape: 100 100 24 24 (5760000)
I0428 20:32:17.598247  4076 net.cpp:139] Memory required for data: 23354800
I0428 20:32:17.598255  4076 layer_factory.hpp:77] Creating layer pool0
I0428 20:32:17.598263  4076 net.cpp:86] Creating Layer pool0
I0428 20:32:17.598266  4076 net.cpp:408] pool0 <- conv0
I0428 20:32:17.598270  4076 net.cpp:382] pool0 -> pool0
I0428 20:32:17.598305  4076 net.cpp:124] Setting up pool0
I0428 20:32:17.598310  4076 net.cpp:131] Top shape: 100 100 12 12 (1440000)
I0428 20:32:17.598312  4076 net.cpp:139] Memory required for data: 29114800
I0428 20:32:17.598315  4076 layer_factory.hpp:77] Creating layer conv1
I0428 20:32:17.598325  4076 net.cpp:86] Creating Layer conv1
I0428 20:32:17.598327  4076 net.cpp:408] conv1 <- pool0
I0428 20:32:17.598333  4076 net.cpp:382] conv1 -> conv1
I0428 20:32:17.600258  4076 net.cpp:124] Setting up conv1
I0428 20:32:17.600273  4076 net.cpp:131] Top shape: 100 25 8 8 (160000)
I0428 20:32:17.600277  4076 net.cpp:139] Memory required for data: 29754800
I0428 20:32:17.600286  4076 layer_factory.hpp:77] Creating layer pool1
I0428 20:32:17.600294  4076 net.cpp:86] Creating Layer pool1
I0428 20:32:17.600297  4076 net.cpp:408] pool1 <- conv1
I0428 20:32:17.600302  4076 net.cpp:382] pool1 -> pool1
I0428 20:32:17.600389  4076 net.cpp:124] Setting up pool1
I0428 20:32:17.600396  4076 net.cpp:131] Top shape: 100 25 4 4 (40000)
I0428 20:32:17.600399  4076 net.cpp:139] Memory required for data: 29914800
I0428 20:32:17.600402  4076 layer_factory.hpp:77] Creating layer ip1
I0428 20:32:17.600416  4076 net.cpp:86] Creating Layer ip1
I0428 20:32:17.600419  4076 net.cpp:408] ip1 <- pool1
I0428 20:32:17.600425  4076 net.cpp:382] ip1 -> ip1
I0428 20:32:17.600663  4076 net.cpp:124] Setting up ip1
I0428 20:32:17.600674  4076 net.cpp:131] Top shape: 100 50 (5000)
I0428 20:32:17.600677  4076 net.cpp:139] Memory required for data: 29934800
I0428 20:32:17.600684  4076 layer_factory.hpp:77] Creating layer relu1
I0428 20:32:17.600689  4076 net.cpp:86] Creating Layer relu1
I0428 20:32:17.600692  4076 net.cpp:408] relu1 <- ip1
I0428 20:32:17.600703  4076 net.cpp:369] relu1 -> ip1 (in-place)
I0428 20:32:17.600883  4076 net.cpp:124] Setting up relu1
I0428 20:32:17.600893  4076 net.cpp:131] Top shape: 100 50 (5000)
I0428 20:32:17.600898  4076 net.cpp:139] Memory required for data: 29954800
I0428 20:32:17.600900  4076 layer_factory.hpp:77] Creating layer ip2
I0428 20:32:17.600906  4076 net.cpp:86] Creating Layer ip2
I0428 20:32:17.600909  4076 net.cpp:408] ip2 <- ip1
I0428 20:32:17.600915  4076 net.cpp:382] ip2 -> ip2
I0428 20:32:17.601048  4076 net.cpp:124] Setting up ip2
I0428 20:32:17.601055  4076 net.cpp:131] Top shape: 100 10 (1000)
I0428 20:32:17.601058  4076 net.cpp:139] Memory required for data: 29958800
I0428 20:32:17.601064  4076 layer_factory.hpp:77] Creating layer relu2
I0428 20:32:17.601069  4076 net.cpp:86] Creating Layer relu2
I0428 20:32:17.601073  4076 net.cpp:408] relu2 <- ip2
I0428 20:32:17.601076  4076 net.cpp:369] relu2 -> ip2 (in-place)
I0428 20:32:17.601291  4076 net.cpp:124] Setting up relu2
I0428 20:32:17.601300  4076 net.cpp:131] Top shape: 100 10 (1000)
I0428 20:32:17.601310  4076 net.cpp:139] Memory required for data: 29962800
I0428 20:32:17.601313  4076 layer_factory.hpp:77] Creating layer ip2_relu2_0_split
I0428 20:32:17.601320  4076 net.cpp:86] Creating Layer ip2_relu2_0_split
I0428 20:32:17.601322  4076 net.cpp:408] ip2_relu2_0_split <- ip2
I0428 20:32:17.601335  4076 net.cpp:382] ip2_relu2_0_split -> ip2_relu2_0_split_0
I0428 20:32:17.601351  4076 net.cpp:382] ip2_relu2_0_split -> ip2_relu2_0_split_1
I0428 20:32:17.601388  4076 net.cpp:124] Setting up ip2_relu2_0_split
I0428 20:32:17.601393  4076 net.cpp:131] Top shape: 100 10 (1000)
I0428 20:32:17.601397  4076 net.cpp:131] Top shape: 100 10 (1000)
I0428 20:32:17.601399  4076 net.cpp:139] Memory required for data: 29970800
I0428 20:32:17.601402  4076 layer_factory.hpp:77] Creating layer accuracy
I0428 20:32:17.601408  4076 net.cpp:86] Creating Layer accuracy
I0428 20:32:17.601411  4076 net.cpp:408] accuracy <- ip2_relu2_0_split_0
I0428 20:32:17.601415  4076 net.cpp:408] accuracy <- label_mnist_1_split_0
I0428 20:32:17.601420  4076 net.cpp:382] accuracy -> accuracy
…
