…
I0428 19:58:33.776268 29003 net.cpp:296] The NetState phase (0) differed from the phase (1) specified by a rule in layer mnist
I0428 19:58:33.776298 29003 net.cpp:296] The NetState phase (0) differed from the phase (1) specified by a rule in layer accuracy
I0428 19:58:33.776402 29003 net.cpp:53] Initializing net from parameters: 
name: "LeNet"
state {
  phase: TRAIN
  level: 0
  stage: ""
}
layer {
  name: "mnist"
  type: "Data"
  top: "data"
  top: "label"
  include {
    phase: TRAIN
  }
  transform_param {
    scale: 0.00390625
  }
  data_param {
    source: "examples/mnist/mnist_train_lmdb"
    batch_size: 64
    backend: LMDB
  }
}
layer {
  name: "conv0"
  type: "Convolution"
  bottom: "data"
  top: "conv0"
  param {
    lr_mult: 1
  }
  param {
    lr_mult: 2
  }
  convolution_param {
    num_output: 10
    kernel_size: 5
    stride: 1
    weight_filler {
      type: "xavier"
    }
    bias_filler {
      type: "constant"
    }
  }
}
layer {
  name: "pool0"
  type: "Pooling"
  bottom: "conv0"
  top: "pool0"
  pooling_param {
    pool: MAX
    kernel_size: 2
    stride: 2
  }
}
layer {
  name: "conv1"
  type: "Convolution"
  bottom: "pool0"
  top: "conv1"
  param {
    lr_mult: 1
  }
  param {
    lr_mult: 2
  }
  convolution_param {
    num_output: 10
    kernel_size: 5
    stride: 1
    weight_filler {
      type: "xavier"
    }
    bias_filler {
      type: "constant"
    }
  }
}
layer {
  name: "pool1"
  type: "Pooling"
  bottom: "conv1"
  top: "pool1"
  pooling_param {
    pool: MAX
    kernel_size: 2
    stride: 2
  }
}
layer {
  name: "ip1"
  type: "InnerProduct"
  bottom: "pool1"
  top: "ip1"
  param {
    lr_mult: 1
  }
  param {
    lr_mult: 2
  }
  inner_product_param {
    num_output: 10
    weight_filler {
      type: "xavier"
    }
    bias_filler {
      type: "constant"
    }
  }
}
layer {
  name: "relu1"
  type: "ReLU"
  bottom: "ip1"
  top: "ip1"
}
layer {
  name: "ip2"
  type: "InnerProduct"
  bottom: "ip1"
  top: "ip2"
  param {
    lr_mult: 1
  }
  param {
    lr_mult: 2
  }
  inner_product_param {
    num_output: 10
    weight_filler {
      type: "xavier"
    }
    bias_filler {
      type: "constant"
    }
  }
}
layer {
  name: "relu2"
  type: "ReLU"
  bottom: "ip2"
  top: "ip2"
}
layer {
  name: "loss"
  type: "SoftmaxWithLoss"
  bottom: "ip2"
  bottom: "label"
  top: "loss"
}
I0428 19:58:33.776466 29003 layer_factory.hpp:77] Creating layer mnist
I0428 19:58:33.776551 29003 db_lmdb.cpp:35] Opened lmdb examples/mnist/mnist_train_lmdb
I0428 19:58:33.776569 29003 net.cpp:86] Creating Layer mnist
I0428 19:58:33.776576 29003 net.cpp:382] mnist -> data
I0428 19:58:33.776595 29003 net.cpp:382] mnist -> label
I0428 19:58:33.777655 29003 data_layer.cpp:45] output data size: 64,1,28,28
I0428 19:58:33.779836 29003 net.cpp:124] Setting up mnist
I0428 19:58:33.779850 29003 net.cpp:131] Top shape: 64 1 28 28 (50176)
I0428 19:58:33.779855 29003 net.cpp:131] Top shape: 64 (64)
I0428 19:58:33.779858 29003 net.cpp:139] Memory required for data: 200960
I0428 19:58:33.779863 29003 layer_factory.hpp:77] Creating layer conv0
I0428 19:58:33.779877 29003 net.cpp:86] Creating Layer conv0
I0428 19:58:33.779881 29003 net.cpp:408] conv0 <- data
I0428 19:58:33.779892 29003 net.cpp:382] conv0 -> conv0
I0428 19:58:34.015987 29003 net.cpp:124] Setting up conv0
I0428 19:58:34.016031 29003 net.cpp:131] Top shape: 64 10 24 24 (368640)
I0428 19:58:34.016034 29003 net.cpp:139] Memory required for data: 1675520
I0428 19:58:34.016067 29003 layer_factory.hpp:77] Creating layer pool0
I0428 19:58:34.016094 29003 net.cpp:86] Creating Layer pool0
I0428 19:58:34.016098 29003 net.cpp:408] pool0 <- conv0
I0428 19:58:34.016103 29003 net.cpp:382] pool0 -> pool0
I0428 19:58:34.016149 29003 net.cpp:124] Setting up pool0
I0428 19:58:34.016158 29003 net.cpp:131] Top shape: 64 10 12 12 (92160)
I0428 19:58:34.016161 29003 net.cpp:139] Memory required for data: 2044160
I0428 19:58:34.016165 29003 layer_factory.hpp:77] Creating layer conv1
I0428 19:58:34.016175 29003 net.cpp:86] Creating Layer conv1
I0428 19:58:34.016177 29003 net.cpp:408] conv1 <- pool0
I0428 19:58:34.016182 29003 net.cpp:382] conv1 -> conv1
I0428 19:58:34.018935 29003 net.cpp:124] Setting up conv1
I0428 19:58:34.018965 29003 net.cpp:131] Top shape: 64 10 8 8 (40960)
I0428 19:58:34.018967 29003 net.cpp:139] Memory required for data: 2208000
I0428 19:58:34.018975 29003 layer_factory.hpp:77] Creating layer pool1
I0428 19:58:34.018983 29003 net.cpp:86] Creating Layer pool1
I0428 19:58:34.018986 29003 net.cpp:408] pool1 <- conv1
I0428 19:58:34.018991 29003 net.cpp:382] pool1 -> pool1
I0428 19:58:34.019042 29003 net.cpp:124] Setting up pool1
I0428 19:58:34.019047 29003 net.cpp:131] Top shape: 64 10 4 4 (10240)
I0428 19:58:34.019049 29003 net.cpp:139] Memory required for data: 2248960
I0428 19:58:34.019052 29003 layer_factory.hpp:77] Creating layer ip1
I0428 19:58:34.019058 29003 net.cpp:86] Creating Layer ip1
I0428 19:58:34.019062 29003 net.cpp:408] ip1 <- pool1
I0428 19:58:34.019067 29003 net.cpp:382] ip1 -> ip1
I0428 19:58:34.019179 29003 net.cpp:124] Setting up ip1
I0428 19:58:34.019187 29003 net.cpp:131] Top shape: 64 10 (640)
I0428 19:58:34.019191 29003 net.cpp:139] Memory required for data: 2251520
I0428 19:58:34.019198 29003 layer_factory.hpp:77] Creating layer relu1
I0428 19:58:34.019204 29003 net.cpp:86] Creating Layer relu1
I0428 19:58:34.019207 29003 net.cpp:408] relu1 <- ip1
I0428 19:58:34.019212 29003 net.cpp:369] relu1 -> ip1 (in-place)
I0428 19:58:34.019371 29003 net.cpp:124] Setting up relu1
I0428 19:58:34.019379 29003 net.cpp:131] Top shape: 64 10 (640)
I0428 19:58:34.019382 29003 net.cpp:139] Memory required for data: 2254080
I0428 19:58:34.019385 29003 layer_factory.hpp:77] Creating layer ip2
I0428 19:58:34.019392 29003 net.cpp:86] Creating Layer ip2
I0428 19:58:34.019395 29003 net.cpp:408] ip2 <- ip1
I0428 19:58:34.019399 29003 net.cpp:382] ip2 -> ip2
I0428 19:58:34.019505 29003 net.cpp:124] Setting up ip2
I0428 19:58:34.019512 29003 net.cpp:131] Top shape: 64 10 (640)
I0428 19:58:34.019515 29003 net.cpp:139] Memory required for data: 2256640
I0428 19:58:34.019520 29003 layer_factory.hpp:77] Creating layer relu2
I0428 19:58:34.019527 29003 net.cpp:86] Creating Layer relu2
I0428 19:58:34.019531 29003 net.cpp:408] relu2 <- ip2
I0428 19:58:34.019534 29003 net.cpp:369] relu2 -> ip2 (in-place)
I0428 19:58:34.020319 29003 net.cpp:124] Setting up relu2
I0428 19:58:34.020349 29003 net.cpp:131] Top shape: 64 10 (640)
I0428 19:58:34.020354 29003 net.cpp:139] Memory required for data: 2259200
I0428 19:58:34.020371 29003 layer_factory.hpp:77] Creating layer loss
I0428 19:58:34.020377 29003 net.cpp:86] Creating Layer loss
I0428 19:58:34.020381 29003 net.cpp:408] loss <- ip2
I0428 19:58:34.020385 29003 net.cpp:408] loss <- label
I0428 19:58:34.020390 29003 net.cpp:382] loss -> loss
I0428 19:58:34.020423 29003 layer_factory.hpp:77] Creating layer loss
…
I0428 19:58:34.021091 29003 solver.cpp:173] Creating test net (#0) specified by net file: ECE595/mnist/train_test/var_everything2/lenet_train_test822.prototxt
I0428 19:58:34.021144 29003 net.cpp:296] The NetState phase (1) differed from the phase (0) specified by a rule in layer mnist
I0428 19:58:34.021255 29003 net.cpp:53] Initializing net from parameters: 
name: "LeNet"
state {
  phase: TEST
}
layer {
  name: "mnist"
  type: "Data"
  top: "data"
  top: "label"
  include {
    phase: TEST
  }
  transform_param {
    scale: 0.00390625
  }
  data_param {
    source: "examples/mnist/mnist_test_lmdb"
    batch_size: 100
    backend: LMDB
  }
}
layer {
  name: "conv0"
  type: "Convolution"
  bottom: "data"
  top: "conv0"
  param {
    lr_mult: 1
  }
  param {
    lr_mult: 2
  }
  convolution_param {
    num_output: 10
    kernel_size: 5
    stride: 1
    weight_filler {
      type: "xavier"
    }
    bias_filler {
      type: "constant"
    }
  }
}
layer {
  name: "pool0"
  type: "Pooling"
  bottom: "conv0"
  top: "pool0"
  pooling_param {
    pool: MAX
    kernel_size: 2
    stride: 2
  }
}
layer {
  name: "conv1"
  type: "Convolution"
  bottom: "pool0"
  top: "conv1"
  param {
    lr_mult: 1
  }
  param {
    lr_mult: 2
  }
  convolution_param {
    num_output: 10
    kernel_size: 5
    stride: 1
    weight_filler {
      type: "xavier"
    }
    bias_filler {
      type: "constant"
    }
  }
}
layer {
  name: "pool1"
  type: "Pooling"
  bottom: "conv1"
  top: "pool1"
  pooling_param {
    pool: MAX
    kernel_size: 2
    stride: 2
  }
}
layer {
  name: "ip1"
  type: "InnerProduct"
  bottom: "pool1"
  top: "ip1"
  param {
    lr_mult: 1
  }
  param {
    lr_mult: 2
  }
  inner_product_param {
    num_output: 10
    weight_filler {
      type: "xavier"
    }
    bias_filler {
      type: "constant"
    }
  }
}
layer {
  name: "relu1"
  type: "ReLU"
  bottom: "ip1"
  top: "ip1"
}
layer {
  name: "ip2"
  type: "InnerProduct"
  bottom: "ip1"
  top: "ip2"
  param {
    lr_mult: 1
  }
  param {
    lr_mult: 2
  }
  inner_product_param {
    num_output: 10
    weight_filler {
      type: "xavier"
    }
    bias_filler {
      type: "constant"
    }
  }
}
layer {
  name: "relu2"
  type: "ReLU"
  bottom: "ip2"
  top: "ip2"
}
layer {
  name: "accuracy"
  type: "Accuracy"
  bottom: "ip2"
  bottom: "label"
  top: "accuracy"
  include {
    phase: TEST
  }
}
layer {
  name: "loss"
  type: "SoftmaxWithLoss"
  bottom: "ip2"
  bottom: "label"
  top: "loss"
}
I0428 19:58:34.021330 29003 layer_factory.hpp:77] Creating layer mnist
I0428 19:58:34.021389 29003 db_lmdb.cpp:35] Opened lmdb examples/mnist/mnist_test_lmdb
I0428 19:58:34.021404 29003 net.cpp:86] Creating Layer mnist
I0428 19:58:34.021409 29003 net.cpp:382] mnist -> data
I0428 19:58:34.021417 29003 net.cpp:382] mnist -> label
I0428 19:58:34.021507 29003 data_layer.cpp:45] output data size: 100,1,28,28
I0428 19:58:34.023382 29003 net.cpp:124] Setting up mnist
I0428 19:58:34.023425 29003 net.cpp:131] Top shape: 100 1 28 28 (78400)
I0428 19:58:34.023430 29003 net.cpp:131] Top shape: 100 (100)
I0428 19:58:34.023433 29003 net.cpp:139] Memory required for data: 314000
I0428 19:58:34.023437 29003 layer_factory.hpp:77] Creating layer label_mnist_1_split
I0428 19:58:34.023493 29003 net.cpp:86] Creating Layer label_mnist_1_split
I0428 19:58:34.023512 29003 net.cpp:408] label_mnist_1_split <- label
I0428 19:58:34.023519 29003 net.cpp:382] label_mnist_1_split -> label_mnist_1_split_0
I0428 19:58:34.023525 29003 net.cpp:382] label_mnist_1_split -> label_mnist_1_split_1
I0428 19:58:34.023598 29003 net.cpp:124] Setting up label_mnist_1_split
I0428 19:58:34.023617 29003 net.cpp:131] Top shape: 100 (100)
I0428 19:58:34.023622 29003 net.cpp:131] Top shape: 100 (100)
I0428 19:58:34.023624 29003 net.cpp:139] Memory required for data: 314800
I0428 19:58:34.023627 29003 layer_factory.hpp:77] Creating layer conv0
I0428 19:58:34.023636 29003 net.cpp:86] Creating Layer conv0
I0428 19:58:34.023640 29003 net.cpp:408] conv0 <- data
I0428 19:58:34.023648 29003 net.cpp:382] conv0 -> conv0
I0428 19:58:34.025432 29003 net.cpp:124] Setting up conv0
I0428 19:58:34.025447 29003 net.cpp:131] Top shape: 100 10 24 24 (576000)
I0428 19:58:34.025450 29003 net.cpp:139] Memory required for data: 2618800
I0428 19:58:34.025460 29003 layer_factory.hpp:77] Creating layer pool0
I0428 19:58:34.025465 29003 net.cpp:86] Creating Layer pool0
I0428 19:58:34.025483 29003 net.cpp:408] pool0 <- conv0
I0428 19:58:34.025490 29003 net.cpp:382] pool0 -> pool0
I0428 19:58:34.025524 29003 net.cpp:124] Setting up pool0
I0428 19:58:34.025529 29003 net.cpp:131] Top shape: 100 10 12 12 (144000)
I0428 19:58:34.025532 29003 net.cpp:139] Memory required for data: 3194800
I0428 19:58:34.025534 29003 layer_factory.hpp:77] Creating layer conv1
I0428 19:58:34.025545 29003 net.cpp:86] Creating Layer conv1
I0428 19:58:34.025548 29003 net.cpp:408] conv1 <- pool0
I0428 19:58:34.025553 29003 net.cpp:382] conv1 -> conv1
I0428 19:58:34.027668 29003 net.cpp:124] Setting up conv1
I0428 19:58:34.027683 29003 net.cpp:131] Top shape: 100 10 8 8 (64000)
I0428 19:58:34.027693 29003 net.cpp:139] Memory required for data: 3450800
I0428 19:58:34.027717 29003 layer_factory.hpp:77] Creating layer pool1
I0428 19:58:34.027724 29003 net.cpp:86] Creating Layer pool1
I0428 19:58:34.027732 29003 net.cpp:408] pool1 <- conv1
I0428 19:58:34.027739 29003 net.cpp:382] pool1 -> pool1
I0428 19:58:34.027777 29003 net.cpp:124] Setting up pool1
I0428 19:58:34.027791 29003 net.cpp:131] Top shape: 100 10 4 4 (16000)
I0428 19:58:34.027794 29003 net.cpp:139] Memory required for data: 3514800
I0428 19:58:34.027796 29003 layer_factory.hpp:77] Creating layer ip1
I0428 19:58:34.027804 29003 net.cpp:86] Creating Layer ip1
I0428 19:58:34.027807 29003 net.cpp:408] ip1 <- pool1
I0428 19:58:34.027813 29003 net.cpp:382] ip1 -> ip1
I0428 19:58:34.027962 29003 net.cpp:124] Setting up ip1
I0428 19:58:34.027971 29003 net.cpp:131] Top shape: 100 10 (1000)
I0428 19:58:34.027973 29003 net.cpp:139] Memory required for data: 3518800
I0428 19:58:34.027981 29003 layer_factory.hpp:77] Creating layer relu1
I0428 19:58:34.028000 29003 net.cpp:86] Creating Layer relu1
I0428 19:58:34.028003 29003 net.cpp:408] relu1 <- ip1
I0428 19:58:34.028007 29003 net.cpp:369] relu1 -> ip1 (in-place)
I0428 19:58:34.028259 29003 net.cpp:124] Setting up relu1
I0428 19:58:34.028266 29003 net.cpp:131] Top shape: 100 10 (1000)
I0428 19:58:34.028270 29003 net.cpp:139] Memory required for data: 3522800
I0428 19:58:34.028273 29003 layer_factory.hpp:77] Creating layer ip2
I0428 19:58:34.028280 29003 net.cpp:86] Creating Layer ip2
I0428 19:58:34.028288 29003 net.cpp:408] ip2 <- ip1
I0428 19:58:34.028295 29003 net.cpp:382] ip2 -> ip2
I0428 19:58:34.028389 29003 net.cpp:124] Setting up ip2
I0428 19:58:34.028396 29003 net.cpp:131] Top shape: 100 10 (1000)
I0428 19:58:34.028399 29003 net.cpp:139] Memory required for data: 3526800
I0428 19:58:34.028404 29003 layer_factory.hpp:77] Creating layer relu2
I0428 19:58:34.028409 29003 net.cpp:86] Creating Layer relu2
I0428 19:58:34.028411 29003 net.cpp:408] relu2 <- ip2
I0428 19:58:34.028416 29003 net.cpp:369] relu2 -> ip2 (in-place)
I0428 19:58:34.028578 29003 net.cpp:124] Setting up relu2
I0428 19:58:34.028586 29003 net.cpp:131] Top shape: 100 10 (1000)
I0428 19:58:34.028589 29003 net.cpp:139] Memory required for data: 3530800
I0428 19:58:34.028592 29003 layer_factory.hpp:77] Creating layer ip2_relu2_0_split
I0428 19:58:34.028596 29003 net.cpp:86] Creating Layer ip2_relu2_0_split
I0428 19:58:34.028607 29003 net.cpp:408] ip2_relu2_0_split <- ip2
I0428 19:58:34.028611 29003 net.cpp:382] ip2_relu2_0_split -> ip2_relu2_0_split_0
I0428 19:58:34.028627 29003 net.cpp:382] ip2_relu2_0_split -> ip2_relu2_0_split_1
I0428 19:58:34.028681 29003 net.cpp:124] Setting up ip2_relu2_0_split
I0428 19:58:34.028686 29003 net.cpp:131] Top shape: 100 10 (1000)
I0428 19:58:34.028689 29003 net.cpp:131] Top shape: 100 10 (1000)
I0428 19:58:34.028692 29003 net.cpp:139] Memory required for data: 3538800
I0428 19:58:34.028694 29003 layer_factory.hpp:77] Creating layer accuracy
I0428 19:58:34.028699 29003 net.cpp:86] Creating Layer accuracy
I0428 19:58:34.028714 29003 net.cpp:408] accuracy <- ip2_relu2_0_split_0
I0428 19:58:34.028717 29003 net.cpp:408] accuracy <- label_mnist_1_split_0
I0428 19:58:34.028723 29003 net.cpp:382] accuracy -> accuracy
…
