…
I0428 19:43:43.537678 25413 net.cpp:296] The NetState phase (0) differed from the phase (1) specified by a rule in layer mnist
I0428 19:43:43.537693 25413 net.cpp:296] The NetState phase (0) differed from the phase (1) specified by a rule in layer accuracy
I0428 19:43:43.537775 25413 net.cpp:53] Initializing net from parameters: 
name: "LeNet"
state {
  phase: TRAIN
  level: 0
  stage: ""
}
layer {
  name: "mnist"
  type: "Data"
  top: "data"
  top: "label"
  include {
    phase: TRAIN
  }
  transform_param {
    scale: 0.00390625
  }
  data_param {
    source: "examples/mnist/mnist_train_lmdb"
    batch_size: 64
    backend: LMDB
  }
}
layer {
  name: "conv0"
  type: "Convolution"
  bottom: "data"
  top: "conv0"
  param {
    lr_mult: 1
  }
  param {
    lr_mult: 2
  }
  convolution_param {
    num_output: 2
    kernel_size: 5
    stride: 1
    weight_filler {
      type: "xavier"
    }
    bias_filler {
      type: "constant"
    }
  }
}
layer {
  name: "pool0"
  type: "Pooling"
  bottom: "conv0"
  top: "pool0"
  pooling_param {
    pool: MAX
    kernel_size: 2
    stride: 2
  }
}
layer {
  name: "conv1"
  type: "Convolution"
  bottom: "pool0"
  top: "conv1"
  param {
    lr_mult: 1
  }
  param {
    lr_mult: 2
  }
  convolution_param {
    num_output: 50
    kernel_size: 5
    stride: 1
    weight_filler {
      type: "xavier"
    }
    bias_filler {
      type: "constant"
    }
  }
}
layer {
  name: "pool1"
  type: "Pooling"
  bottom: "conv1"
  top: "pool1"
  pooling_param {
    pool: MAX
    kernel_size: 2
    stride: 2
  }
}
layer {
  name: "ip1"
  type: "InnerProduct"
  bottom: "pool1"
  top: "ip1"
  param {
    lr_mult: 1
  }
  param {
    lr_mult: 2
  }
  inner_product_param {
    num_output: 10
    weight_filler {
      type: "xavier"
    }
    bias_filler {
      type: "constant"
    }
  }
}
layer {
  name: "relu1"
  type: "ReLU"
  bottom: "ip1"
  top: "ip1"
}
layer {
  name: "loss"
  type: "SoftmaxWithLoss"
  bottom: "ip1"
  bottom: "label"
  top: "loss"
}
I0428 19:43:43.537845 25413 layer_factory.hpp:77] Creating layer mnist
I0428 19:43:43.537947 25413 db_lmdb.cpp:35] Opened lmdb examples/mnist/mnist_train_lmdb
I0428 19:43:43.537972 25413 net.cpp:86] Creating Layer mnist
I0428 19:43:43.537981 25413 net.cpp:382] mnist -> data
I0428 19:43:43.538003 25413 net.cpp:382] mnist -> label
I0428 19:43:43.539096 25413 data_layer.cpp:45] output data size: 64,1,28,28
I0428 19:43:43.541568 25413 net.cpp:124] Setting up mnist
I0428 19:43:43.541587 25413 net.cpp:131] Top shape: 64 1 28 28 (50176)
I0428 19:43:43.541594 25413 net.cpp:131] Top shape: 64 (64)
I0428 19:43:43.541596 25413 net.cpp:139] Memory required for data: 200960
I0428 19:43:43.541604 25413 layer_factory.hpp:77] Creating layer conv0
I0428 19:43:43.541620 25413 net.cpp:86] Creating Layer conv0
I0428 19:43:43.541627 25413 net.cpp:408] conv0 <- data
I0428 19:43:43.541640 25413 net.cpp:382] conv0 -> conv0
I0428 19:43:43.826122 25413 net.cpp:124] Setting up conv0
I0428 19:43:43.826148 25413 net.cpp:131] Top shape: 64 2 24 24 (73728)
I0428 19:43:43.826153 25413 net.cpp:139] Memory required for data: 495872
I0428 19:43:43.826167 25413 layer_factory.hpp:77] Creating layer pool0
I0428 19:43:43.826180 25413 net.cpp:86] Creating Layer pool0
I0428 19:43:43.826184 25413 net.cpp:408] pool0 <- conv0
I0428 19:43:43.826206 25413 net.cpp:382] pool0 -> pool0
I0428 19:43:43.826256 25413 net.cpp:124] Setting up pool0
I0428 19:43:43.826262 25413 net.cpp:131] Top shape: 64 2 12 12 (18432)
I0428 19:43:43.826280 25413 net.cpp:139] Memory required for data: 569600
I0428 19:43:43.826284 25413 layer_factory.hpp:77] Creating layer conv1
I0428 19:43:43.826297 25413 net.cpp:86] Creating Layer conv1
I0428 19:43:43.826300 25413 net.cpp:408] conv1 <- pool0
I0428 19:43:43.826306 25413 net.cpp:382] conv1 -> conv1
I0428 19:43:43.829159 25413 net.cpp:124] Setting up conv1
I0428 19:43:43.829174 25413 net.cpp:131] Top shape: 64 50 8 8 (204800)
I0428 19:43:43.829177 25413 net.cpp:139] Memory required for data: 1388800
I0428 19:43:43.829186 25413 layer_factory.hpp:77] Creating layer pool1
I0428 19:43:43.829195 25413 net.cpp:86] Creating Layer pool1
I0428 19:43:43.829198 25413 net.cpp:408] pool1 <- conv1
I0428 19:43:43.829203 25413 net.cpp:382] pool1 -> pool1
I0428 19:43:43.829258 25413 net.cpp:124] Setting up pool1
I0428 19:43:43.829265 25413 net.cpp:131] Top shape: 64 50 4 4 (51200)
I0428 19:43:43.829268 25413 net.cpp:139] Memory required for data: 1593600
I0428 19:43:43.829272 25413 layer_factory.hpp:77] Creating layer ip1
I0428 19:43:43.829279 25413 net.cpp:86] Creating Layer ip1
I0428 19:43:43.829282 25413 net.cpp:408] ip1 <- pool1
I0428 19:43:43.829288 25413 net.cpp:382] ip1 -> ip1
I0428 19:43:43.830297 25413 net.cpp:124] Setting up ip1
I0428 19:43:43.830312 25413 net.cpp:131] Top shape: 64 10 (640)
I0428 19:43:43.830330 25413 net.cpp:139] Memory required for data: 1596160
I0428 19:43:43.830339 25413 layer_factory.hpp:77] Creating layer relu1
I0428 19:43:43.830346 25413 net.cpp:86] Creating Layer relu1
I0428 19:43:43.830350 25413 net.cpp:408] relu1 <- ip1
I0428 19:43:43.830355 25413 net.cpp:369] relu1 -> ip1 (in-place)
I0428 19:43:43.830562 25413 net.cpp:124] Setting up relu1
I0428 19:43:43.830571 25413 net.cpp:131] Top shape: 64 10 (640)
I0428 19:43:43.830574 25413 net.cpp:139] Memory required for data: 1598720
I0428 19:43:43.830579 25413 layer_factory.hpp:77] Creating layer loss
I0428 19:43:43.830585 25413 net.cpp:86] Creating Layer loss
I0428 19:43:43.830587 25413 net.cpp:408] loss <- ip1
I0428 19:43:43.830592 25413 net.cpp:408] loss <- label
I0428 19:43:43.830597 25413 net.cpp:382] loss -> loss
I0428 19:43:43.830612 25413 layer_factory.hpp:77] Creating layer loss
…
I0428 19:43:43.831885 25413 solver.cpp:173] Creating test net (#0) specified by net file: ECE595/mnist/train_test/var_everything2/lenet_train_test429.prototxt
I0428 19:43:43.831943 25413 net.cpp:296] The NetState phase (1) differed from the phase (0) specified by a rule in layer mnist
I0428 19:43:43.832026 25413 net.cpp:53] Initializing net from parameters: 
name: "LeNet"
state {
  phase: TEST
}
layer {
  name: "mnist"
  type: "Data"
  top: "data"
  top: "label"
  include {
    phase: TEST
  }
  transform_param {
    scale: 0.00390625
  }
  data_param {
    source: "examples/mnist/mnist_test_lmdb"
    batch_size: 100
    backend: LMDB
  }
}
layer {
  name: "conv0"
  type: "Convolution"
  bottom: "data"
  top: "conv0"
  param {
    lr_mult: 1
  }
  param {
    lr_mult: 2
  }
  convolution_param {
    num_output: 2
    kernel_size: 5
    stride: 1
    weight_filler {
      type: "xavier"
    }
    bias_filler {
      type: "constant"
    }
  }
}
layer {
  name: "pool0"
  type: "Pooling"
  bottom: "conv0"
  top: "pool0"
  pooling_param {
    pool: MAX
    kernel_size: 2
    stride: 2
  }
}
layer {
  name: "conv1"
  type: "Convolution"
  bottom: "pool0"
  top: "conv1"
  param {
    lr_mult: 1
  }
  param {
    lr_mult: 2
  }
  convolution_param {
    num_output: 50
    kernel_size: 5
    stride: 1
    weight_filler {
      type: "xavier"
    }
    bias_filler {
      type: "constant"
    }
  }
}
layer {
  name: "pool1"
  type: "Pooling"
  bottom: "conv1"
  top: "pool1"
  pooling_param {
    pool: MAX
    kernel_size: 2
    stride: 2
  }
}
layer {
  name: "ip1"
  type: "InnerProduct"
  bottom: "pool1"
  top: "ip1"
  param {
    lr_mult: 1
  }
  param {
    lr_mult: 2
  }
  inner_product_param {
    num_output: 10
    weight_filler {
      type: "xavier"
    }
    bias_filler {
      type: "constant"
    }
  }
}
layer {
  name: "relu1"
  type: "ReLU"
  bottom: "ip1"
  top: "ip1"
}
layer {
  name: "accuracy"
  type: "Accuracy"
  bottom: "ip1"
  bottom: "label"
  top: "accuracy"
  include {
    phase: TEST
  }
}
layer {
  name: "loss"
  type: "SoftmaxWithLoss"
  bottom: "ip1"
  bottom: "label"
  top: "loss"
}
I0428 19:43:43.832111 25413 layer_factory.hpp:77] Creating layer mnist
I0428 19:43:43.832172 25413 db_lmdb.cpp:35] Opened lmdb examples/mnist/mnist_test_lmdb
I0428 19:43:43.832187 25413 net.cpp:86] Creating Layer mnist
I0428 19:43:43.832192 25413 net.cpp:382] mnist -> data
I0428 19:43:43.832201 25413 net.cpp:382] mnist -> label
I0428 19:43:43.832304 25413 data_layer.cpp:45] output data size: 100,1,28,28
I0428 19:43:43.834389 25413 net.cpp:124] Setting up mnist
I0428 19:43:43.834404 25413 net.cpp:131] Top shape: 100 1 28 28 (78400)
I0428 19:43:43.834431 25413 net.cpp:131] Top shape: 100 (100)
I0428 19:43:43.834434 25413 net.cpp:139] Memory required for data: 314000
I0428 19:43:43.834439 25413 layer_factory.hpp:77] Creating layer label_mnist_1_split
I0428 19:43:43.834445 25413 net.cpp:86] Creating Layer label_mnist_1_split
I0428 19:43:43.834450 25413 net.cpp:408] label_mnist_1_split <- label
I0428 19:43:43.834456 25413 net.cpp:382] label_mnist_1_split -> label_mnist_1_split_0
I0428 19:43:43.834463 25413 net.cpp:382] label_mnist_1_split -> label_mnist_1_split_1
I0428 19:43:43.834564 25413 net.cpp:124] Setting up label_mnist_1_split
I0428 19:43:43.834573 25413 net.cpp:131] Top shape: 100 (100)
I0428 19:43:43.834578 25413 net.cpp:131] Top shape: 100 (100)
I0428 19:43:43.834580 25413 net.cpp:139] Memory required for data: 314800
I0428 19:43:43.834583 25413 layer_factory.hpp:77] Creating layer conv0
I0428 19:43:43.834594 25413 net.cpp:86] Creating Layer conv0
I0428 19:43:43.834596 25413 net.cpp:408] conv0 <- data
I0428 19:43:43.834602 25413 net.cpp:382] conv0 -> conv0
I0428 19:43:43.835347 25413 net.cpp:124] Setting up conv0
I0428 19:43:43.835358 25413 net.cpp:131] Top shape: 100 2 24 24 (115200)
I0428 19:43:43.835377 25413 net.cpp:139] Memory required for data: 775600
I0428 19:43:43.835387 25413 layer_factory.hpp:77] Creating layer pool0
I0428 19:43:43.835407 25413 net.cpp:86] Creating Layer pool0
I0428 19:43:43.835412 25413 net.cpp:408] pool0 <- conv0
I0428 19:43:43.835415 25413 net.cpp:382] pool0 -> pool0
I0428 19:43:43.835449 25413 net.cpp:124] Setting up pool0
I0428 19:43:43.835455 25413 net.cpp:131] Top shape: 100 2 12 12 (28800)
I0428 19:43:43.835458 25413 net.cpp:139] Memory required for data: 890800
I0428 19:43:43.835460 25413 layer_factory.hpp:77] Creating layer conv1
I0428 19:43:43.835469 25413 net.cpp:86] Creating Layer conv1
I0428 19:43:43.835472 25413 net.cpp:408] conv1 <- pool0
I0428 19:43:43.835477 25413 net.cpp:382] conv1 -> conv1
I0428 19:43:43.837110 25413 net.cpp:124] Setting up conv1
I0428 19:43:43.837139 25413 net.cpp:131] Top shape: 100 50 8 8 (320000)
I0428 19:43:43.837143 25413 net.cpp:139] Memory required for data: 2170800
I0428 19:43:43.837152 25413 layer_factory.hpp:77] Creating layer pool1
I0428 19:43:43.837157 25413 net.cpp:86] Creating Layer pool1
I0428 19:43:43.837173 25413 net.cpp:408] pool1 <- conv1
I0428 19:43:43.837180 25413 net.cpp:382] pool1 -> pool1
I0428 19:43:43.837267 25413 net.cpp:124] Setting up pool1
I0428 19:43:43.837291 25413 net.cpp:131] Top shape: 100 50 4 4 (80000)
I0428 19:43:43.837294 25413 net.cpp:139] Memory required for data: 2490800
I0428 19:43:43.837299 25413 layer_factory.hpp:77] Creating layer ip1
I0428 19:43:43.837306 25413 net.cpp:86] Creating Layer ip1
I0428 19:43:43.837309 25413 net.cpp:408] ip1 <- pool1
I0428 19:43:43.837316 25413 net.cpp:382] ip1 -> ip1
I0428 19:43:43.837463 25413 net.cpp:124] Setting up ip1
I0428 19:43:43.837474 25413 net.cpp:131] Top shape: 100 10 (1000)
I0428 19:43:43.837477 25413 net.cpp:139] Memory required for data: 2494800
I0428 19:43:43.837486 25413 layer_factory.hpp:77] Creating layer relu1
I0428 19:43:43.837491 25413 net.cpp:86] Creating Layer relu1
I0428 19:43:43.837494 25413 net.cpp:408] relu1 <- ip1
I0428 19:43:43.837499 25413 net.cpp:369] relu1 -> ip1 (in-place)
I0428 19:43:43.838402 25413 net.cpp:124] Setting up relu1
I0428 19:43:43.838415 25413 net.cpp:131] Top shape: 100 10 (1000)
I0428 19:43:43.838419 25413 net.cpp:139] Memory required for data: 2498800
I0428 19:43:43.838424 25413 layer_factory.hpp:77] Creating layer ip1_relu1_0_split
I0428 19:43:43.838433 25413 net.cpp:86] Creating Layer ip1_relu1_0_split
I0428 19:43:43.838436 25413 net.cpp:408] ip1_relu1_0_split <- ip1
I0428 19:43:43.838443 25413 net.cpp:382] ip1_relu1_0_split -> ip1_relu1_0_split_0
I0428 19:43:43.838450 25413 net.cpp:382] ip1_relu1_0_split -> ip1_relu1_0_split_1
I0428 19:43:43.838492 25413 net.cpp:124] Setting up ip1_relu1_0_split
I0428 19:43:43.838497 25413 net.cpp:131] Top shape: 100 10 (1000)
I0428 19:43:43.838501 25413 net.cpp:131] Top shape: 100 10 (1000)
I0428 19:43:43.838505 25413 net.cpp:139] Memory required for data: 2506800
I0428 19:43:43.838508 25413 layer_factory.hpp:77] Creating layer accuracy
I0428 19:43:43.838513 25413 net.cpp:86] Creating Layer accuracy
I0428 19:43:43.838517 25413 net.cpp:408] accuracy <- ip1_relu1_0_split_0
I0428 19:43:43.838521 25413 net.cpp:408] accuracy <- label_mnist_1_split_0
I0428 19:43:43.838526 25413 net.cpp:382] accuracy -> accuracy
…
