…
I0428 19:29:57.570854 22160 net.cpp:296] The NetState phase (0) differed from the phase (1) specified by a rule in layer mnist
I0428 19:29:57.570874 22160 net.cpp:296] The NetState phase (0) differed from the phase (1) specified by a rule in layer accuracy
I0428 19:29:57.570967 22160 net.cpp:53] Initializing net from parameters: 
name: "LeNet"
state {
  phase: TRAIN
  level: 0
  stage: ""
}
layer {
  name: "mnist"
  type: "Data"
  top: "data"
  top: "label"
  include {
    phase: TRAIN
  }
  transform_param {
    scale: 0.00390625
  }
  data_param {
    source: "examples/mnist/mnist_train_lmdb"
    batch_size: 64
    backend: LMDB
  }
}
layer {
  name: "conv0"
  type: "Convolution"
  bottom: "data"
  top: "conv0"
  param {
    lr_mult: 1
  }
  param {
    lr_mult: 2
  }
  convolution_param {
    num_output: 2
    kernel_size: 5
    stride: 1
    weight_filler {
      type: "xavier"
    }
    bias_filler {
      type: "constant"
    }
  }
}
layer {
  name: "pool0"
  type: "Pooling"
  bottom: "conv0"
  top: "pool0"
  pooling_param {
    pool: MAX
    kernel_size: 2
    stride: 2
  }
}
layer {
  name: "ip1"
  type: "InnerProduct"
  bottom: "pool0"
  top: "ip1"
  param {
    lr_mult: 1
  }
  param {
    lr_mult: 2
  }
  inner_product_param {
    num_output: 50
    weight_filler {
      type: "xavier"
    }
    bias_filler {
      type: "constant"
    }
  }
}
layer {
  name: "relu1"
  type: "ReLU"
  bottom: "ip1"
  top: "ip1"
}
layer {
  name: "ip2"
  type: "InnerProduct"
  bottom: "ip1"
  top: "ip2"
  param {
    lr_mult: 1
  }
  param {
    lr_mult: 2
  }
  inner_product_param {
    num_output: 50
    weight_filler {
      type: "xavier"
    }
    bias_filler {
      type: "constant"
    }
  }
}
layer {
  name: "relu2"
  type: "ReLU"
  bottom: "ip2"
  top: "ip2"
}
layer {
  name: "ip3"
  type: "InnerProduct"
  bottom: "ip2"
  top: "ip3"
  param {
    lr_mult: 1
  }
  param {
    lr_mult: 2
  }
  inner_product_param {
    num_output: 10
    weight_filler {
      type: "xavier"
    }
    bias_filler {
      type: "constant"
    }
  }
}
layer {
  name: "relu3"
  type: "ReLU"
  bottom: "ip3"
  top: "ip3"
}
layer {
  name: "loss"
  type: "SoftmaxWithLoss"
  bottom: "ip3"
  bottom: "label"
  top: "loss"
}
I0428 19:29:57.571064 22160 layer_factory.hpp:77] Creating layer mnist
I0428 19:29:57.571193 22160 db_lmdb.cpp:35] Opened lmdb examples/mnist/mnist_train_lmdb
I0428 19:29:57.571226 22160 net.cpp:86] Creating Layer mnist
I0428 19:29:57.571238 22160 net.cpp:382] mnist -> data
I0428 19:29:57.571269 22160 net.cpp:382] mnist -> label
I0428 19:29:57.572501 22160 data_layer.cpp:45] output data size: 64,1,28,28
I0428 19:29:57.574971 22160 net.cpp:124] Setting up mnist
I0428 19:29:57.574991 22160 net.cpp:131] Top shape: 64 1 28 28 (50176)
I0428 19:29:57.575002 22160 net.cpp:131] Top shape: 64 (64)
I0428 19:29:57.575009 22160 net.cpp:139] Memory required for data: 200960
I0428 19:29:57.575021 22160 layer_factory.hpp:77] Creating layer conv0
I0428 19:29:57.575042 22160 net.cpp:86] Creating Layer conv0
I0428 19:29:57.575053 22160 net.cpp:408] conv0 <- data
I0428 19:29:57.575070 22160 net.cpp:382] conv0 -> conv0
I0428 19:29:57.862202 22160 net.cpp:124] Setting up conv0
I0428 19:29:57.862236 22160 net.cpp:131] Top shape: 64 2 24 24 (73728)
I0428 19:29:57.862242 22160 net.cpp:139] Memory required for data: 495872
I0428 19:29:57.862267 22160 layer_factory.hpp:77] Creating layer pool0
I0428 19:29:57.862288 22160 net.cpp:86] Creating Layer pool0
I0428 19:29:57.862316 22160 net.cpp:408] pool0 <- conv0
I0428 19:29:57.862329 22160 net.cpp:382] pool0 -> pool0
I0428 19:29:57.862402 22160 net.cpp:124] Setting up pool0
I0428 19:29:57.862414 22160 net.cpp:131] Top shape: 64 2 12 12 (18432)
I0428 19:29:57.862421 22160 net.cpp:139] Memory required for data: 569600
I0428 19:29:57.862427 22160 layer_factory.hpp:77] Creating layer ip1
I0428 19:29:57.862440 22160 net.cpp:86] Creating Layer ip1
I0428 19:29:57.862452 22160 net.cpp:408] ip1 <- pool0
I0428 19:29:57.862463 22160 net.cpp:382] ip1 -> ip1
I0428 19:29:57.863643 22160 net.cpp:124] Setting up ip1
I0428 19:29:57.863662 22160 net.cpp:131] Top shape: 64 50 (3200)
I0428 19:29:57.863667 22160 net.cpp:139] Memory required for data: 582400
I0428 19:29:57.863682 22160 layer_factory.hpp:77] Creating layer relu1
I0428 19:29:57.863698 22160 net.cpp:86] Creating Layer relu1
I0428 19:29:57.863709 22160 net.cpp:408] relu1 <- ip1
I0428 19:29:57.863718 22160 net.cpp:369] relu1 -> ip1 (in-place)
I0428 19:29:57.863955 22160 net.cpp:124] Setting up relu1
I0428 19:29:57.863967 22160 net.cpp:131] Top shape: 64 50 (3200)
I0428 19:29:57.863975 22160 net.cpp:139] Memory required for data: 595200
I0428 19:29:57.863981 22160 layer_factory.hpp:77] Creating layer ip2
I0428 19:29:57.863993 22160 net.cpp:86] Creating Layer ip2
I0428 19:29:57.863999 22160 net.cpp:408] ip2 <- ip1
I0428 19:29:57.864011 22160 net.cpp:382] ip2 -> ip2
I0428 19:29:57.865120 22160 net.cpp:124] Setting up ip2
I0428 19:29:57.865137 22160 net.cpp:131] Top shape: 64 50 (3200)
I0428 19:29:57.865144 22160 net.cpp:139] Memory required for data: 608000
I0428 19:29:57.865161 22160 layer_factory.hpp:77] Creating layer relu2
I0428 19:29:57.865171 22160 net.cpp:86] Creating Layer relu2
I0428 19:29:57.865178 22160 net.cpp:408] relu2 <- ip2
I0428 19:29:57.865188 22160 net.cpp:369] relu2 -> ip2 (in-place)
I0428 19:29:57.866050 22160 net.cpp:124] Setting up relu2
I0428 19:29:57.866066 22160 net.cpp:131] Top shape: 64 50 (3200)
I0428 19:29:57.866073 22160 net.cpp:139] Memory required for data: 620800
I0428 19:29:57.866080 22160 layer_factory.hpp:77] Creating layer ip3
I0428 19:29:57.866092 22160 net.cpp:86] Creating Layer ip3
I0428 19:29:57.866099 22160 net.cpp:408] ip3 <- ip2
I0428 19:29:57.866111 22160 net.cpp:382] ip3 -> ip3
I0428 19:29:57.866241 22160 net.cpp:124] Setting up ip3
I0428 19:29:57.866253 22160 net.cpp:131] Top shape: 64 10 (640)
I0428 19:29:57.866259 22160 net.cpp:139] Memory required for data: 623360
I0428 19:29:57.866271 22160 layer_factory.hpp:77] Creating layer relu3
I0428 19:29:57.866282 22160 net.cpp:86] Creating Layer relu3
I0428 19:29:57.866292 22160 net.cpp:408] relu3 <- ip3
I0428 19:29:57.866302 22160 net.cpp:369] relu3 -> ip3 (in-place)
I0428 19:29:57.866490 22160 net.cpp:124] Setting up relu3
I0428 19:29:57.866503 22160 net.cpp:131] Top shape: 64 10 (640)
I0428 19:29:57.866508 22160 net.cpp:139] Memory required for data: 625920
I0428 19:29:57.866515 22160 layer_factory.hpp:77] Creating layer loss
I0428 19:29:57.866526 22160 net.cpp:86] Creating Layer loss
I0428 19:29:57.866533 22160 net.cpp:408] loss <- ip3
I0428 19:29:57.866540 22160 net.cpp:408] loss <- label
I0428 19:29:57.866550 22160 net.cpp:382] loss -> loss
I0428 19:29:57.866574 22160 layer_factory.hpp:77] Creating layer loss
…
I0428 19:29:57.867341 22160 solver.cpp:173] Creating test net (#0) specified by net file: ECE595/mnist/train_test/var_everything2/lenet_train_test75.prototxt
I0428 19:29:57.867380 22160 net.cpp:296] The NetState phase (1) differed from the phase (0) specified by a rule in layer mnist
I0428 19:29:57.867483 22160 net.cpp:53] Initializing net from parameters: 
name: "LeNet"
state {
  phase: TEST
}
layer {
  name: "mnist"
  type: "Data"
  top: "data"
  top: "label"
  include {
    phase: TEST
  }
  transform_param {
    scale: 0.00390625
  }
  data_param {
    source: "examples/mnist/mnist_test_lmdb"
    batch_size: 100
    backend: LMDB
  }
}
layer {
  name: "conv0"
  type: "Convolution"
  bottom: "data"
  top: "conv0"
  param {
    lr_mult: 1
  }
  param {
    lr_mult: 2
  }
  convolution_param {
    num_output: 2
    kernel_size: 5
    stride: 1
    weight_filler {
      type: "xavier"
    }
    bias_filler {
      type: "constant"
    }
  }
}
layer {
  name: "pool0"
  type: "Pooling"
  bottom: "conv0"
  top: "pool0"
  pooling_param {
    pool: MAX
    kernel_size: 2
    stride: 2
  }
}
layer {
  name: "ip1"
  type: "InnerProduct"
  bottom: "pool0"
  top: "ip1"
  param {
    lr_mult: 1
  }
  param {
    lr_mult: 2
  }
  inner_product_param {
    num_output: 50
    weight_filler {
      type: "xavier"
    }
    bias_filler {
      type: "constant"
    }
  }
}
layer {
  name: "relu1"
  type: "ReLU"
  bottom: "ip1"
  top: "ip1"
}
layer {
  name: "ip2"
  type: "InnerProduct"
  bottom: "ip1"
  top: "ip2"
  param {
    lr_mult: 1
  }
  param {
    lr_mult: 2
  }
  inner_product_param {
    num_output: 50
    weight_filler {
      type: "xavier"
    }
    bias_filler {
      type: "constant"
    }
  }
}
layer {
  name: "relu2"
  type: "ReLU"
  bottom: "ip2"
  top: "ip2"
}
layer {
  name: "ip3"
  type: "InnerProduct"
  bottom: "ip2"
  top: "ip3"
  param {
    lr_mult: 1
  }
  param {
    lr_mult: 2
  }
  inner_product_param {
    num_output: 10
    weight_filler {
      type: "xavier"
    }
    bias_filler {
      type: "constant"
    }
  }
}
layer {
  name: "relu3"
  type: "ReLU"
  bottom: "ip3"
  top: "ip3"
}
layer {
  name: "accuracy"
  type: "Accuracy"
  bottom: "ip3"
  bottom: "label"
  top: "accuracy"
  include {
    phase: TEST
  }
}
layer {
  name: "loss"
  type: "SoftmaxWithLoss"
  bottom: "ip3"
  bottom: "label"
  top: "loss"
}
I0428 19:29:57.867596 22160 layer_factory.hpp:77] Creating layer mnist
I0428 19:29:57.867667 22160 db_lmdb.cpp:35] Opened lmdb examples/mnist/mnist_test_lmdb
I0428 19:29:57.867687 22160 net.cpp:86] Creating Layer mnist
I0428 19:29:57.867697 22160 net.cpp:382] mnist -> data
I0428 19:29:57.867710 22160 net.cpp:382] mnist -> label
I0428 19:29:57.867856 22160 data_layer.cpp:45] output data size: 100,1,28,28
I0428 19:29:57.870170 22160 net.cpp:124] Setting up mnist
I0428 19:29:57.870188 22160 net.cpp:131] Top shape: 100 1 28 28 (78400)
I0428 19:29:57.870199 22160 net.cpp:131] Top shape: 100 (100)
I0428 19:29:57.870205 22160 net.cpp:139] Memory required for data: 314000
I0428 19:29:57.870213 22160 layer_factory.hpp:77] Creating layer label_mnist_1_split
I0428 19:29:57.870224 22160 net.cpp:86] Creating Layer label_mnist_1_split
I0428 19:29:57.870231 22160 net.cpp:408] label_mnist_1_split <- label
I0428 19:29:57.870241 22160 net.cpp:382] label_mnist_1_split -> label_mnist_1_split_0
I0428 19:29:57.870254 22160 net.cpp:382] label_mnist_1_split -> label_mnist_1_split_1
I0428 19:29:57.870363 22160 net.cpp:124] Setting up label_mnist_1_split
I0428 19:29:57.870373 22160 net.cpp:131] Top shape: 100 (100)
I0428 19:29:57.870381 22160 net.cpp:131] Top shape: 100 (100)
I0428 19:29:57.870388 22160 net.cpp:139] Memory required for data: 314800
I0428 19:29:57.870407 22160 layer_factory.hpp:77] Creating layer conv0
I0428 19:29:57.870424 22160 net.cpp:86] Creating Layer conv0
I0428 19:29:57.870431 22160 net.cpp:408] conv0 <- data
I0428 19:29:57.870441 22160 net.cpp:382] conv0 -> conv0
I0428 19:29:57.872468 22160 net.cpp:124] Setting up conv0
I0428 19:29:57.872488 22160 net.cpp:131] Top shape: 100 2 24 24 (115200)
I0428 19:29:57.872494 22160 net.cpp:139] Memory required for data: 775600
I0428 19:29:57.872512 22160 layer_factory.hpp:77] Creating layer pool0
I0428 19:29:57.872524 22160 net.cpp:86] Creating Layer pool0
I0428 19:29:57.872531 22160 net.cpp:408] pool0 <- conv0
I0428 19:29:57.872541 22160 net.cpp:382] pool0 -> pool0
I0428 19:29:57.872592 22160 net.cpp:124] Setting up pool0
I0428 19:29:57.872602 22160 net.cpp:131] Top shape: 100 2 12 12 (28800)
I0428 19:29:57.872608 22160 net.cpp:139] Memory required for data: 890800
I0428 19:29:57.872615 22160 layer_factory.hpp:77] Creating layer ip1
I0428 19:29:57.872627 22160 net.cpp:86] Creating Layer ip1
I0428 19:29:57.872634 22160 net.cpp:408] ip1 <- pool0
I0428 19:29:57.872644 22160 net.cpp:382] ip1 -> ip1
I0428 19:29:57.872870 22160 net.cpp:124] Setting up ip1
I0428 19:29:57.872881 22160 net.cpp:131] Top shape: 100 50 (5000)
I0428 19:29:57.872889 22160 net.cpp:139] Memory required for data: 910800
I0428 19:29:57.872902 22160 layer_factory.hpp:77] Creating layer relu1
I0428 19:29:57.872911 22160 net.cpp:86] Creating Layer relu1
I0428 19:29:57.872918 22160 net.cpp:408] relu1 <- ip1
I0428 19:29:57.872927 22160 net.cpp:369] relu1 -> ip1 (in-place)
I0428 19:29:57.873209 22160 net.cpp:124] Setting up relu1
I0428 19:29:57.873234 22160 net.cpp:131] Top shape: 100 50 (5000)
I0428 19:29:57.873239 22160 net.cpp:139] Memory required for data: 930800
I0428 19:29:57.873246 22160 layer_factory.hpp:77] Creating layer ip2
I0428 19:29:57.873256 22160 net.cpp:86] Creating Layer ip2
I0428 19:29:57.873263 22160 net.cpp:408] ip2 <- ip1
I0428 19:29:57.873273 22160 net.cpp:382] ip2 -> ip2
I0428 19:29:57.873422 22160 net.cpp:124] Setting up ip2
I0428 19:29:57.873435 22160 net.cpp:131] Top shape: 100 50 (5000)
I0428 19:29:57.873440 22160 net.cpp:139] Memory required for data: 950800
I0428 19:29:57.873456 22160 layer_factory.hpp:77] Creating layer relu2
I0428 19:29:57.873466 22160 net.cpp:86] Creating Layer relu2
I0428 19:29:57.873473 22160 net.cpp:408] relu2 <- ip2
I0428 19:29:57.873482 22160 net.cpp:369] relu2 -> ip2 (in-place)
I0428 19:29:57.874378 22160 net.cpp:124] Setting up relu2
I0428 19:29:57.874394 22160 net.cpp:131] Top shape: 100 50 (5000)
I0428 19:29:57.874402 22160 net.cpp:139] Memory required for data: 970800
I0428 19:29:57.874408 22160 layer_factory.hpp:77] Creating layer ip3
I0428 19:29:57.874421 22160 net.cpp:86] Creating Layer ip3
I0428 19:29:57.874428 22160 net.cpp:408] ip3 <- ip2
I0428 19:29:57.874439 22160 net.cpp:382] ip3 -> ip3
I0428 19:29:57.874611 22160 net.cpp:124] Setting up ip3
I0428 19:29:57.874624 22160 net.cpp:131] Top shape: 100 10 (1000)
I0428 19:29:57.874629 22160 net.cpp:139] Memory required for data: 974800
I0428 19:29:57.874640 22160 layer_factory.hpp:77] Creating layer relu3
I0428 19:29:57.874650 22160 net.cpp:86] Creating Layer relu3
I0428 19:29:57.874657 22160 net.cpp:408] relu3 <- ip3
I0428 19:29:57.874666 22160 net.cpp:369] relu3 -> ip3 (in-place)
I0428 19:29:57.874852 22160 net.cpp:124] Setting up relu3
I0428 19:29:57.874864 22160 net.cpp:131] Top shape: 100 10 (1000)
I0428 19:29:57.874871 22160 net.cpp:139] Memory required for data: 978800
I0428 19:29:57.874879 22160 layer_factory.hpp:77] Creating layer ip3_relu3_0_split
I0428 19:29:57.874892 22160 net.cpp:86] Creating Layer ip3_relu3_0_split
I0428 19:29:57.874898 22160 net.cpp:408] ip3_relu3_0_split <- ip3
I0428 19:29:57.874907 22160 net.cpp:382] ip3_relu3_0_split -> ip3_relu3_0_split_0
I0428 19:29:57.874919 22160 net.cpp:382] ip3_relu3_0_split -> ip3_relu3_0_split_1
I0428 19:29:57.874969 22160 net.cpp:124] Setting up ip3_relu3_0_split
I0428 19:29:57.874977 22160 net.cpp:131] Top shape: 100 10 (1000)
I0428 19:29:57.874985 22160 net.cpp:131] Top shape: 100 10 (1000)
I0428 19:29:57.875005 22160 net.cpp:139] Memory required for data: 986800
I0428 19:29:57.875012 22160 layer_factory.hpp:77] Creating layer accuracy
I0428 19:29:57.875022 22160 net.cpp:86] Creating Layer accuracy
I0428 19:29:57.875030 22160 net.cpp:408] accuracy <- ip3_relu3_0_split_0
I0428 19:29:57.875037 22160 net.cpp:408] accuracy <- label_mnist_1_split_0
I0428 19:29:57.875046 22160 net.cpp:382] accuracy -> accuracy
…
