…
I0428 19:52:23.265516 27500 net.cpp:296] The NetState phase (0) differed from the phase (1) specified by a rule in layer mnist
I0428 19:52:23.265547 27500 net.cpp:296] The NetState phase (0) differed from the phase (1) specified by a rule in layer accuracy
I0428 19:52:23.265707 27500 net.cpp:53] Initializing net from parameters: 
name: "LeNet"
state {
  phase: TRAIN
  level: 0
  stage: ""
}
layer {
  name: "mnist"
  type: "Data"
  top: "data"
  top: "label"
  include {
    phase: TRAIN
  }
  transform_param {
    scale: 0.00390625
  }
  data_param {
    source: "examples/mnist/mnist_train_lmdb"
    batch_size: 64
    backend: LMDB
  }
}
layer {
  name: "conv0"
  type: "Convolution"
  bottom: "data"
  top: "conv0"
  param {
    lr_mult: 1
  }
  param {
    lr_mult: 2
  }
  convolution_param {
    num_output: 5
    kernel_size: 5
    stride: 1
    weight_filler {
      type: "xavier"
    }
    bias_filler {
      type: "constant"
    }
  }
}
layer {
  name: "pool0"
  type: "Pooling"
  bottom: "conv0"
  top: "pool0"
  pooling_param {
    pool: MAX
    kernel_size: 2
    stride: 2
  }
}
layer {
  name: "conv1"
  type: "Convolution"
  bottom: "pool0"
  top: "conv1"
  param {
    lr_mult: 1
  }
  param {
    lr_mult: 2
  }
  convolution_param {
    num_output: 25
    kernel_size: 5
    stride: 1
    weight_filler {
      type: "xavier"
    }
    bias_filler {
      type: "constant"
    }
  }
}
layer {
  name: "pool1"
  type: "Pooling"
  bottom: "conv1"
  top: "pool1"
  pooling_param {
    pool: MAX
    kernel_size: 2
    stride: 2
  }
}
layer {
  name: "ip1"
  type: "InnerProduct"
  bottom: "pool1"
  top: "ip1"
  param {
    lr_mult: 1
  }
  param {
    lr_mult: 2
  }
  inner_product_param {
    num_output: 50
    weight_filler {
      type: "xavier"
    }
    bias_filler {
      type: "constant"
    }
  }
}
layer {
  name: "relu1"
  type: "ReLU"
  bottom: "ip1"
  top: "ip1"
}
layer {
  name: "ip2"
  type: "InnerProduct"
  bottom: "ip1"
  top: "ip2"
  param {
    lr_mult: 1
  }
  param {
    lr_mult: 2
  }
  inner_product_param {
    num_output: 50
    weight_filler {
      type: "xavier"
    }
    bias_filler {
      type: "constant"
    }
  }
}
layer {
  name: "relu2"
  type: "ReLU"
  bottom: "ip2"
  top: "ip2"
}
layer {
  name: "ip3"
  type: "InnerProduct"
  bottom: "ip2"
  top: "ip3"
  param {
    lr_mult: 1
  }
  param {
    lr_mult: 2
  }
  inner_product_param {
    num_output: 10
    weight_filler {
      type: "xavier"
    }
    bias_filler {
      type: "constant"
    }
  }
}
layer {
  name: "relu3"
  type: "ReLU"
  bottom: "ip3"
  top: "ip3"
}
layer {
  name: "loss"
  type: "SoftmaxWithLoss"
  bottom: "ip3"
  bottom: "label"
  top: "loss"
}
I0428 19:52:23.265823 27500 layer_factory.hpp:77] Creating layer mnist
I0428 19:52:23.265957 27500 db_lmdb.cpp:35] Opened lmdb examples/mnist/mnist_train_lmdb
I0428 19:52:23.265992 27500 net.cpp:86] Creating Layer mnist
I0428 19:52:23.266007 27500 net.cpp:382] mnist -> data
I0428 19:52:23.266038 27500 net.cpp:382] mnist -> label
I0428 19:52:23.267614 27500 data_layer.cpp:45] output data size: 64,1,28,28
I0428 19:52:23.270483 27500 net.cpp:124] Setting up mnist
I0428 19:52:23.270503 27500 net.cpp:131] Top shape: 64 1 28 28 (50176)
I0428 19:52:23.270509 27500 net.cpp:131] Top shape: 64 (64)
I0428 19:52:23.270512 27500 net.cpp:139] Memory required for data: 200960
I0428 19:52:23.270519 27500 layer_factory.hpp:77] Creating layer conv0
I0428 19:52:23.270548 27500 net.cpp:86] Creating Layer conv0
I0428 19:52:23.270576 27500 net.cpp:408] conv0 <- data
I0428 19:52:23.270598 27500 net.cpp:382] conv0 -> conv0
I0428 19:52:23.530097 27500 net.cpp:124] Setting up conv0
I0428 19:52:23.530138 27500 net.cpp:131] Top shape: 64 5 24 24 (184320)
I0428 19:52:23.530143 27500 net.cpp:139] Memory required for data: 938240
I0428 19:52:23.530156 27500 layer_factory.hpp:77] Creating layer pool0
I0428 19:52:23.530169 27500 net.cpp:86] Creating Layer pool0
I0428 19:52:23.530174 27500 net.cpp:408] pool0 <- conv0
I0428 19:52:23.530179 27500 net.cpp:382] pool0 -> pool0
I0428 19:52:23.530249 27500 net.cpp:124] Setting up pool0
I0428 19:52:23.530264 27500 net.cpp:131] Top shape: 64 5 12 12 (46080)
I0428 19:52:23.530269 27500 net.cpp:139] Memory required for data: 1122560
I0428 19:52:23.530274 27500 layer_factory.hpp:77] Creating layer conv1
I0428 19:52:23.530289 27500 net.cpp:86] Creating Layer conv1
I0428 19:52:23.530294 27500 net.cpp:408] conv1 <- pool0
I0428 19:52:23.530303 27500 net.cpp:382] conv1 -> conv1
I0428 19:52:23.533340 27500 net.cpp:124] Setting up conv1
I0428 19:52:23.533354 27500 net.cpp:131] Top shape: 64 25 8 8 (102400)
I0428 19:52:23.533357 27500 net.cpp:139] Memory required for data: 1532160
I0428 19:52:23.533366 27500 layer_factory.hpp:77] Creating layer pool1
I0428 19:52:23.533375 27500 net.cpp:86] Creating Layer pool1
I0428 19:52:23.533380 27500 net.cpp:408] pool1 <- conv1
I0428 19:52:23.533387 27500 net.cpp:382] pool1 -> pool1
I0428 19:52:23.533437 27500 net.cpp:124] Setting up pool1
I0428 19:52:23.533447 27500 net.cpp:131] Top shape: 64 25 4 4 (25600)
I0428 19:52:23.533452 27500 net.cpp:139] Memory required for data: 1634560
I0428 19:52:23.533457 27500 layer_factory.hpp:77] Creating layer ip1
I0428 19:52:23.533466 27500 net.cpp:86] Creating Layer ip1
I0428 19:52:23.533471 27500 net.cpp:408] ip1 <- pool1
I0428 19:52:23.533478 27500 net.cpp:382] ip1 -> ip1
I0428 19:52:23.533788 27500 net.cpp:124] Setting up ip1
I0428 19:52:23.533798 27500 net.cpp:131] Top shape: 64 50 (3200)
I0428 19:52:23.533803 27500 net.cpp:139] Memory required for data: 1647360
I0428 19:52:23.533814 27500 layer_factory.hpp:77] Creating layer relu1
I0428 19:52:23.533823 27500 net.cpp:86] Creating Layer relu1
I0428 19:52:23.533828 27500 net.cpp:408] relu1 <- ip1
I0428 19:52:23.533833 27500 net.cpp:369] relu1 -> ip1 (in-place)
I0428 19:52:23.534059 27500 net.cpp:124] Setting up relu1
I0428 19:52:23.534090 27500 net.cpp:131] Top shape: 64 50 (3200)
I0428 19:52:23.534096 27500 net.cpp:139] Memory required for data: 1660160
I0428 19:52:23.534101 27500 layer_factory.hpp:77] Creating layer ip2
I0428 19:52:23.534111 27500 net.cpp:86] Creating Layer ip2
I0428 19:52:23.534116 27500 net.cpp:408] ip2 <- ip1
I0428 19:52:23.534124 27500 net.cpp:382] ip2 -> ip2
I0428 19:52:23.534281 27500 net.cpp:124] Setting up ip2
I0428 19:52:23.534293 27500 net.cpp:131] Top shape: 64 50 (3200)
I0428 19:52:23.534297 27500 net.cpp:139] Memory required for data: 1672960
I0428 19:52:23.534307 27500 layer_factory.hpp:77] Creating layer relu2
I0428 19:52:23.534335 27500 net.cpp:86] Creating Layer relu2
I0428 19:52:23.534342 27500 net.cpp:408] relu2 <- ip2
I0428 19:52:23.534358 27500 net.cpp:369] relu2 -> ip2 (in-place)
I0428 19:52:23.535461 27500 net.cpp:124] Setting up relu2
I0428 19:52:23.535477 27500 net.cpp:131] Top shape: 64 50 (3200)
I0428 19:52:23.535482 27500 net.cpp:139] Memory required for data: 1685760
I0428 19:52:23.535488 27500 layer_factory.hpp:77] Creating layer ip3
I0428 19:52:23.535497 27500 net.cpp:86] Creating Layer ip3
I0428 19:52:23.535502 27500 net.cpp:408] ip3 <- ip2
I0428 19:52:23.535512 27500 net.cpp:382] ip3 -> ip3
I0428 19:52:23.535676 27500 net.cpp:124] Setting up ip3
I0428 19:52:23.535687 27500 net.cpp:131] Top shape: 64 10 (640)
I0428 19:52:23.535692 27500 net.cpp:139] Memory required for data: 1688320
I0428 19:52:23.535706 27500 layer_factory.hpp:77] Creating layer relu3
I0428 19:52:23.535728 27500 net.cpp:86] Creating Layer relu3
I0428 19:52:23.535737 27500 net.cpp:408] relu3 <- ip3
I0428 19:52:23.535758 27500 net.cpp:369] relu3 -> ip3 (in-place)
I0428 19:52:23.536020 27500 net.cpp:124] Setting up relu3
I0428 19:52:23.536032 27500 net.cpp:131] Top shape: 64 10 (640)
I0428 19:52:23.536037 27500 net.cpp:139] Memory required for data: 1690880
I0428 19:52:23.536057 27500 layer_factory.hpp:77] Creating layer loss
I0428 19:52:23.536072 27500 net.cpp:86] Creating Layer loss
I0428 19:52:23.536077 27500 net.cpp:408] loss <- ip3
I0428 19:52:23.536082 27500 net.cpp:408] loss <- label
I0428 19:52:23.536090 27500 net.cpp:382] loss -> loss
I0428 19:52:23.536108 27500 layer_factory.hpp:77] Creating layer loss
…
I0428 19:52:23.537133 27500 solver.cpp:173] Creating test net (#0) specified by net file: ECE595/mnist/train_test/var_everything2/lenet_train_test660.prototxt
I0428 19:52:23.537202 27500 net.cpp:296] The NetState phase (1) differed from the phase (0) specified by a rule in layer mnist
I0428 19:52:23.537345 27500 net.cpp:53] Initializing net from parameters: 
name: "LeNet"
state {
  phase: TEST
}
layer {
  name: "mnist"
  type: "Data"
  top: "data"
  top: "label"
  include {
    phase: TEST
  }
  transform_param {
    scale: 0.00390625
  }
  data_param {
    source: "examples/mnist/mnist_test_lmdb"
    batch_size: 100
    backend: LMDB
  }
}
layer {
  name: "conv0"
  type: "Convolution"
  bottom: "data"
  top: "conv0"
  param {
    lr_mult: 1
  }
  param {
    lr_mult: 2
  }
  convolution_param {
    num_output: 5
    kernel_size: 5
    stride: 1
    weight_filler {
      type: "xavier"
    }
    bias_filler {
      type: "constant"
    }
  }
}
layer {
  name: "pool0"
  type: "Pooling"
  bottom: "conv0"
  top: "pool0"
  pooling_param {
    pool: MAX
    kernel_size: 2
    stride: 2
  }
}
layer {
  name: "conv1"
  type: "Convolution"
  bottom: "pool0"
  top: "conv1"
  param {
    lr_mult: 1
  }
  param {
    lr_mult: 2
  }
  convolution_param {
    num_output: 25
    kernel_size: 5
    stride: 1
    weight_filler {
      type: "xavier"
    }
    bias_filler {
      type: "constant"
    }
  }
}
layer {
  name: "pool1"
  type: "Pooling"
  bottom: "conv1"
  top: "pool1"
  pooling_param {
    pool: MAX
    kernel_size: 2
    stride: 2
  }
}
layer {
  name: "ip1"
  type: "InnerProduct"
  bottom: "pool1"
  top: "ip1"
  param {
    lr_mult: 1
  }
  param {
    lr_mult: 2
  }
  inner_product_param {
    num_output: 50
    weight_filler {
      type: "xavier"
    }
    bias_filler {
      type: "constant"
    }
  }
}
layer {
  name: "relu1"
  type: "ReLU"
  bottom: "ip1"
  top: "ip1"
}
layer {
  name: "ip2"
  type: "InnerProduct"
  bottom: "ip1"
  top: "ip2"
  param {
    lr_mult: 1
  }
  param {
    lr_mult: 2
  }
  inner_product_param {
    num_output: 50
    weight_filler {
      type: "xavier"
    }
    bias_filler {
      type: "constant"
    }
  }
}
layer {
  name: "relu2"
  type: "ReLU"
  bottom: "ip2"
  top: "ip2"
}
layer {
  name: "ip3"
  type: "InnerProduct"
  bottom: "ip2"
  top: "ip3"
  param {
    lr_mult: 1
  }
  param {
    lr_mult: 2
  }
  inner_product_param {
    num_output: 10
    weight_filler {
      type: "xavier"
    }
    bias_filler {
      type: "constant"
    }
  }
}
layer {
  name: "relu3"
  type: "ReLU"
  bottom: "ip3"
  top: "ip3"
}
layer {
  name: "accuracy"
  type: "Accuracy"
  bottom: "ip3"
  bottom: "label"
  top: "accuracy"
  include {
    phase: TEST
  }
}
layer {
  name: "loss"
  type: "SoftmaxWithLoss"
  bottom: "ip3"
  bottom: "label"
  top: "loss"
}
I0428 19:52:23.537466 27500 layer_factory.hpp:77] Creating layer mnist
I0428 19:52:23.537528 27500 db_lmdb.cpp:35] Opened lmdb examples/mnist/mnist_test_lmdb
I0428 19:52:23.537546 27500 net.cpp:86] Creating Layer mnist
I0428 19:52:23.537554 27500 net.cpp:382] mnist -> data
I0428 19:52:23.537566 27500 net.cpp:382] mnist -> label
I0428 19:52:23.537699 27500 data_layer.cpp:45] output data size: 100,1,28,28
I0428 19:52:23.540241 27500 net.cpp:124] Setting up mnist
I0428 19:52:23.540269 27500 net.cpp:131] Top shape: 100 1 28 28 (78400)
I0428 19:52:23.540290 27500 net.cpp:131] Top shape: 100 (100)
I0428 19:52:23.540292 27500 net.cpp:139] Memory required for data: 314000
I0428 19:52:23.540297 27500 layer_factory.hpp:77] Creating layer label_mnist_1_split
I0428 19:52:23.540328 27500 net.cpp:86] Creating Layer label_mnist_1_split
I0428 19:52:23.540335 27500 net.cpp:408] label_mnist_1_split <- label
I0428 19:52:23.540345 27500 net.cpp:382] label_mnist_1_split -> label_mnist_1_split_0
I0428 19:52:23.540369 27500 net.cpp:382] label_mnist_1_split -> label_mnist_1_split_1
I0428 19:52:23.540501 27500 net.cpp:124] Setting up label_mnist_1_split
I0428 19:52:23.540514 27500 net.cpp:131] Top shape: 100 (100)
I0428 19:52:23.540520 27500 net.cpp:131] Top shape: 100 (100)
I0428 19:52:23.540524 27500 net.cpp:139] Memory required for data: 314800
I0428 19:52:23.540530 27500 layer_factory.hpp:77] Creating layer conv0
I0428 19:52:23.540560 27500 net.cpp:86] Creating Layer conv0
I0428 19:52:23.540565 27500 net.cpp:408] conv0 <- data
I0428 19:52:23.540576 27500 net.cpp:382] conv0 -> conv0
I0428 19:52:23.542364 27500 net.cpp:124] Setting up conv0
I0428 19:52:23.542394 27500 net.cpp:131] Top shape: 100 5 24 24 (288000)
I0428 19:52:23.542398 27500 net.cpp:139] Memory required for data: 1466800
I0428 19:52:23.542408 27500 layer_factory.hpp:77] Creating layer pool0
I0428 19:52:23.542430 27500 net.cpp:86] Creating Layer pool0
I0428 19:52:23.542434 27500 net.cpp:408] pool0 <- conv0
I0428 19:52:23.542441 27500 net.cpp:382] pool0 -> pool0
I0428 19:52:23.542544 27500 net.cpp:124] Setting up pool0
I0428 19:52:23.542557 27500 net.cpp:131] Top shape: 100 5 12 12 (72000)
I0428 19:52:23.542562 27500 net.cpp:139] Memory required for data: 1754800
I0428 19:52:23.542567 27500 layer_factory.hpp:77] Creating layer conv1
I0428 19:52:23.542584 27500 net.cpp:86] Creating Layer conv1
I0428 19:52:23.542590 27500 net.cpp:408] conv1 <- pool0
I0428 19:52:23.542599 27500 net.cpp:382] conv1 -> conv1
I0428 19:52:23.545316 27500 net.cpp:124] Setting up conv1
I0428 19:52:23.545348 27500 net.cpp:131] Top shape: 100 25 8 8 (160000)
I0428 19:52:23.545352 27500 net.cpp:139] Memory required for data: 2394800
I0428 19:52:23.545361 27500 layer_factory.hpp:77] Creating layer pool1
I0428 19:52:23.545370 27500 net.cpp:86] Creating Layer pool1
I0428 19:52:23.545374 27500 net.cpp:408] pool1 <- conv1
I0428 19:52:23.545379 27500 net.cpp:382] pool1 -> pool1
I0428 19:52:23.545435 27500 net.cpp:124] Setting up pool1
I0428 19:52:23.545457 27500 net.cpp:131] Top shape: 100 25 4 4 (40000)
I0428 19:52:23.545464 27500 net.cpp:139] Memory required for data: 2554800
I0428 19:52:23.545469 27500 layer_factory.hpp:77] Creating layer ip1
I0428 19:52:23.545477 27500 net.cpp:86] Creating Layer ip1
I0428 19:52:23.545485 27500 net.cpp:408] ip1 <- pool1
I0428 19:52:23.545492 27500 net.cpp:382] ip1 -> ip1
I0428 19:52:23.545868 27500 net.cpp:124] Setting up ip1
I0428 19:52:23.545879 27500 net.cpp:131] Top shape: 100 50 (5000)
I0428 19:52:23.545913 27500 net.cpp:139] Memory required for data: 2574800
I0428 19:52:23.545925 27500 layer_factory.hpp:77] Creating layer relu1
I0428 19:52:23.545933 27500 net.cpp:86] Creating Layer relu1
I0428 19:52:23.545938 27500 net.cpp:408] relu1 <- ip1
I0428 19:52:23.545948 27500 net.cpp:369] relu1 -> ip1 (in-place)
I0428 19:52:23.546193 27500 net.cpp:124] Setting up relu1
I0428 19:52:23.546211 27500 net.cpp:131] Top shape: 100 50 (5000)
I0428 19:52:23.546217 27500 net.cpp:139] Memory required for data: 2594800
I0428 19:52:23.546223 27500 layer_factory.hpp:77] Creating layer ip2
I0428 19:52:23.546236 27500 net.cpp:86] Creating Layer ip2
I0428 19:52:23.546241 27500 net.cpp:408] ip2 <- ip1
I0428 19:52:23.546250 27500 net.cpp:382] ip2 -> ip2
I0428 19:52:23.546437 27500 net.cpp:124] Setting up ip2
I0428 19:52:23.546449 27500 net.cpp:131] Top shape: 100 50 (5000)
I0428 19:52:23.546454 27500 net.cpp:139] Memory required for data: 2614800
I0428 19:52:23.546465 27500 layer_factory.hpp:77] Creating layer relu2
I0428 19:52:23.546486 27500 net.cpp:86] Creating Layer relu2
I0428 19:52:23.546492 27500 net.cpp:408] relu2 <- ip2
I0428 19:52:23.546499 27500 net.cpp:369] relu2 -> ip2 (in-place)
I0428 19:52:23.546854 27500 net.cpp:124] Setting up relu2
I0428 19:52:23.546885 27500 net.cpp:131] Top shape: 100 50 (5000)
I0428 19:52:23.546890 27500 net.cpp:139] Memory required for data: 2634800
I0428 19:52:23.546895 27500 layer_factory.hpp:77] Creating layer ip3
I0428 19:52:23.546902 27500 net.cpp:86] Creating Layer ip3
I0428 19:52:23.546907 27500 net.cpp:408] ip3 <- ip2
I0428 19:52:23.546916 27500 net.cpp:382] ip3 -> ip3
I0428 19:52:23.547068 27500 net.cpp:124] Setting up ip3
I0428 19:52:23.547080 27500 net.cpp:131] Top shape: 100 10 (1000)
I0428 19:52:23.547086 27500 net.cpp:139] Memory required for data: 2638800
I0428 19:52:23.547097 27500 layer_factory.hpp:77] Creating layer relu3
I0428 19:52:23.547106 27500 net.cpp:86] Creating Layer relu3
I0428 19:52:23.547111 27500 net.cpp:408] relu3 <- ip3
I0428 19:52:23.547118 27500 net.cpp:369] relu3 -> ip3 (in-place)
I0428 19:52:23.548246 27500 net.cpp:124] Setting up relu3
I0428 19:52:23.548277 27500 net.cpp:131] Top shape: 100 10 (1000)
I0428 19:52:23.548282 27500 net.cpp:139] Memory required for data: 2642800
I0428 19:52:23.548287 27500 layer_factory.hpp:77] Creating layer ip3_relu3_0_split
I0428 19:52:23.548295 27500 net.cpp:86] Creating Layer ip3_relu3_0_split
I0428 19:52:23.548301 27500 net.cpp:408] ip3_relu3_0_split <- ip3
I0428 19:52:23.548308 27500 net.cpp:382] ip3_relu3_0_split -> ip3_relu3_0_split_0
I0428 19:52:23.548319 27500 net.cpp:382] ip3_relu3_0_split -> ip3_relu3_0_split_1
I0428 19:52:23.548369 27500 net.cpp:124] Setting up ip3_relu3_0_split
I0428 19:52:23.548379 27500 net.cpp:131] Top shape: 100 10 (1000)
I0428 19:52:23.548387 27500 net.cpp:131] Top shape: 100 10 (1000)
I0428 19:52:23.548390 27500 net.cpp:139] Memory required for data: 2650800
I0428 19:52:23.548395 27500 layer_factory.hpp:77] Creating layer accuracy
I0428 19:52:23.548404 27500 net.cpp:86] Creating Layer accuracy
I0428 19:52:23.548409 27500 net.cpp:408] accuracy <- ip3_relu3_0_split_0
I0428 19:52:23.548416 27500 net.cpp:408] accuracy <- label_mnist_1_split_0
I0428 19:52:23.548424 27500 net.cpp:382] accuracy -> accuracy
…
