…
I0428 19:36:15.814378 23660 net.cpp:296] The NetState phase (0) differed from the phase (1) specified by a rule in layer mnist
I0428 19:36:15.814391 23660 net.cpp:296] The NetState phase (0) differed from the phase (1) specified by a rule in layer accuracy
I0428 19:36:15.814450 23660 net.cpp:53] Initializing net from parameters: 
name: "LeNet"
state {
  phase: TRAIN
  level: 0
  stage: ""
}
layer {
  name: "mnist"
  type: "Data"
  top: "data"
  top: "label"
  include {
    phase: TRAIN
  }
  transform_param {
    scale: 0.00390625
  }
  data_param {
    source: "examples/mnist/mnist_train_lmdb"
    batch_size: 64
    backend: LMDB
  }
}
layer {
  name: "conv0"
  type: "Convolution"
  bottom: "data"
  top: "conv0"
  param {
    lr_mult: 1
  }
  param {
    lr_mult: 2
  }
  convolution_param {
    num_output: 100
    kernel_size: 5
    stride: 1
    weight_filler {
      type: "xavier"
    }
    bias_filler {
      type: "constant"
    }
  }
}
layer {
  name: "pool0"
  type: "Pooling"
  bottom: "conv0"
  top: "pool0"
  pooling_param {
    pool: MAX
    kernel_size: 2
    stride: 2
  }
}
layer {
  name: "ip1"
  type: "InnerProduct"
  bottom: "pool0"
  top: "ip1"
  param {
    lr_mult: 1
  }
  param {
    lr_mult: 2
  }
  inner_product_param {
    num_output: 25
    weight_filler {
      type: "xavier"
    }
    bias_filler {
      type: "constant"
    }
  }
}
layer {
  name: "relu1"
  type: "ReLU"
  bottom: "ip1"
  top: "ip1"
}
layer {
  name: "ip2"
  type: "InnerProduct"
  bottom: "ip1"
  top: "ip2"
  param {
    lr_mult: 1
  }
  param {
    lr_mult: 2
  }
  inner_product_param {
    num_output: 10
    weight_filler {
      type: "xavier"
    }
    bias_filler {
      type: "constant"
    }
  }
}
layer {
  name: "relu2"
  type: "ReLU"
  bottom: "ip2"
  top: "ip2"
}
layer {
  name: "loss"
  type: "SoftmaxWithLoss"
  bottom: "ip2"
  bottom: "label"
  top: "loss"
}
I0428 19:36:15.814522 23660 layer_factory.hpp:77] Creating layer mnist
I0428 19:36:15.814604 23660 db_lmdb.cpp:35] Opened lmdb examples/mnist/mnist_train_lmdb
I0428 19:36:15.814622 23660 net.cpp:86] Creating Layer mnist
I0428 19:36:15.814630 23660 net.cpp:382] mnist -> data
I0428 19:36:15.814648 23660 net.cpp:382] mnist -> label
I0428 19:36:15.815562 23660 data_layer.cpp:45] output data size: 64,1,28,28
I0428 19:36:15.817916 23660 net.cpp:124] Setting up mnist
I0428 19:36:15.817962 23660 net.cpp:131] Top shape: 64 1 28 28 (50176)
I0428 19:36:15.817967 23660 net.cpp:131] Top shape: 64 (64)
I0428 19:36:15.817970 23660 net.cpp:139] Memory required for data: 200960
I0428 19:36:15.817975 23660 layer_factory.hpp:77] Creating layer conv0
I0428 19:36:15.817999 23660 net.cpp:86] Creating Layer conv0
I0428 19:36:15.818004 23660 net.cpp:408] conv0 <- data
I0428 19:36:15.818014 23660 net.cpp:382] conv0 -> conv0
I0428 19:36:16.049916 23660 net.cpp:124] Setting up conv0
I0428 19:36:16.049942 23660 net.cpp:131] Top shape: 64 100 24 24 (3686400)
I0428 19:36:16.049947 23660 net.cpp:139] Memory required for data: 14946560
I0428 19:36:16.049960 23660 layer_factory.hpp:77] Creating layer pool0
I0428 19:36:16.049973 23660 net.cpp:86] Creating Layer pool0
I0428 19:36:16.049978 23660 net.cpp:408] pool0 <- conv0
I0428 19:36:16.049983 23660 net.cpp:382] pool0 -> pool0
I0428 19:36:16.050042 23660 net.cpp:124] Setting up pool0
I0428 19:36:16.050047 23660 net.cpp:131] Top shape: 64 100 12 12 (921600)
I0428 19:36:16.050050 23660 net.cpp:139] Memory required for data: 18632960
I0428 19:36:16.050066 23660 layer_factory.hpp:77] Creating layer ip1
I0428 19:36:16.050074 23660 net.cpp:86] Creating Layer ip1
I0428 19:36:16.050077 23660 net.cpp:408] ip1 <- pool0
I0428 19:36:16.050097 23660 net.cpp:382] ip1 -> ip1
I0428 19:36:16.053177 23660 net.cpp:124] Setting up ip1
I0428 19:36:16.053206 23660 net.cpp:131] Top shape: 64 25 (1600)
I0428 19:36:16.053210 23660 net.cpp:139] Memory required for data: 18639360
I0428 19:36:16.053218 23660 layer_factory.hpp:77] Creating layer relu1
I0428 19:36:16.053225 23660 net.cpp:86] Creating Layer relu1
I0428 19:36:16.053228 23660 net.cpp:408] relu1 <- ip1
I0428 19:36:16.053233 23660 net.cpp:369] relu1 -> ip1 (in-place)
I0428 19:36:16.053436 23660 net.cpp:124] Setting up relu1
I0428 19:36:16.053445 23660 net.cpp:131] Top shape: 64 25 (1600)
I0428 19:36:16.053448 23660 net.cpp:139] Memory required for data: 18645760
I0428 19:36:16.053452 23660 layer_factory.hpp:77] Creating layer ip2
I0428 19:36:16.053459 23660 net.cpp:86] Creating Layer ip2
I0428 19:36:16.053462 23660 net.cpp:408] ip2 <- ip1
I0428 19:36:16.053467 23660 net.cpp:382] ip2 -> ip2
I0428 19:36:16.053566 23660 net.cpp:124] Setting up ip2
I0428 19:36:16.053573 23660 net.cpp:131] Top shape: 64 10 (640)
I0428 19:36:16.053576 23660 net.cpp:139] Memory required for data: 18648320
I0428 19:36:16.053584 23660 layer_factory.hpp:77] Creating layer relu2
I0428 19:36:16.053591 23660 net.cpp:86] Creating Layer relu2
I0428 19:36:16.053593 23660 net.cpp:408] relu2 <- ip2
I0428 19:36:16.053597 23660 net.cpp:369] relu2 -> ip2 (in-place)
I0428 19:36:16.054330 23660 net.cpp:124] Setting up relu2
I0428 19:36:16.054342 23660 net.cpp:131] Top shape: 64 10 (640)
I0428 19:36:16.054361 23660 net.cpp:139] Memory required for data: 18650880
I0428 19:36:16.054365 23660 layer_factory.hpp:77] Creating layer loss
I0428 19:36:16.054376 23660 net.cpp:86] Creating Layer loss
I0428 19:36:16.054379 23660 net.cpp:408] loss <- ip2
I0428 19:36:16.054384 23660 net.cpp:408] loss <- label
I0428 19:36:16.054389 23660 net.cpp:382] loss -> loss
I0428 19:36:16.054402 23660 layer_factory.hpp:77] Creating layer loss
…
I0428 19:36:16.054975 23660 solver.cpp:173] Creating test net (#0) specified by net file: ECE595/mnist/train_test/var_everything2/lenet_train_test240.prototxt
I0428 19:36:16.055001 23660 net.cpp:296] The NetState phase (1) differed from the phase (0) specified by a rule in layer mnist
I0428 19:36:16.055073 23660 net.cpp:53] Initializing net from parameters: 
name: "LeNet"
state {
  phase: TEST
}
layer {
  name: "mnist"
  type: "Data"
  top: "data"
  top: "label"
  include {
    phase: TEST
  }
  transform_param {
    scale: 0.00390625
  }
  data_param {
    source: "examples/mnist/mnist_test_lmdb"
    batch_size: 100
    backend: LMDB
  }
}
layer {
  name: "conv0"
  type: "Convolution"
  bottom: "data"
  top: "conv0"
  param {
    lr_mult: 1
  }
  param {
    lr_mult: 2
  }
  convolution_param {
    num_output: 100
    kernel_size: 5
    stride: 1
    weight_filler {
      type: "xavier"
    }
    bias_filler {
      type: "constant"
    }
  }
}
layer {
  name: "pool0"
  type: "Pooling"
  bottom: "conv0"
  top: "pool0"
  pooling_param {
    pool: MAX
    kernel_size: 2
    stride: 2
  }
}
layer {
  name: "ip1"
  type: "InnerProduct"
  bottom: "pool0"
  top: "ip1"
  param {
    lr_mult: 1
  }
  param {
    lr_mult: 2
  }
  inner_product_param {
    num_output: 25
    weight_filler {
      type: "xavier"
    }
    bias_filler {
      type: "constant"
    }
  }
}
layer {
  name: "relu1"
  type: "ReLU"
  bottom: "ip1"
  top: "ip1"
}
layer {
  name: "ip2"
  type: "InnerProduct"
  bottom: "ip1"
  top: "ip2"
  param {
    lr_mult: 1
  }
  param {
    lr_mult: 2
  }
  inner_product_param {
    num_output: 10
    weight_filler {
      type: "xavier"
    }
    bias_filler {
      type: "constant"
    }
  }
}
layer {
  name: "relu2"
  type: "ReLU"
  bottom: "ip2"
  top: "ip2"
}
layer {
  name: "accuracy"
  type: "Accuracy"
  bottom: "ip2"
  bottom: "label"
  top: "accuracy"
  include {
    phase: TEST
  }
}
layer {
  name: "loss"
  type: "SoftmaxWithLoss"
  bottom: "ip2"
  bottom: "label"
  top: "loss"
}
I0428 19:36:16.055142 23660 layer_factory.hpp:77] Creating layer mnist
I0428 19:36:16.055186 23660 db_lmdb.cpp:35] Opened lmdb examples/mnist/mnist_test_lmdb
I0428 19:36:16.055198 23660 net.cpp:86] Creating Layer mnist
I0428 19:36:16.055203 23660 net.cpp:382] mnist -> data
I0428 19:36:16.055210 23660 net.cpp:382] mnist -> label
I0428 19:36:16.055292 23660 data_layer.cpp:45] output data size: 100,1,28,28
I0428 19:36:16.057310 23660 net.cpp:124] Setting up mnist
I0428 19:36:16.057340 23660 net.cpp:131] Top shape: 100 1 28 28 (78400)
I0428 19:36:16.057345 23660 net.cpp:131] Top shape: 100 (100)
I0428 19:36:16.057348 23660 net.cpp:139] Memory required for data: 314000
I0428 19:36:16.057353 23660 layer_factory.hpp:77] Creating layer label_mnist_1_split
I0428 19:36:16.057359 23660 net.cpp:86] Creating Layer label_mnist_1_split
I0428 19:36:16.057363 23660 net.cpp:408] label_mnist_1_split <- label
I0428 19:36:16.057366 23660 net.cpp:382] label_mnist_1_split -> label_mnist_1_split_0
I0428 19:36:16.057374 23660 net.cpp:382] label_mnist_1_split -> label_mnist_1_split_1
I0428 19:36:16.057425 23660 net.cpp:124] Setting up label_mnist_1_split
I0428 19:36:16.057430 23660 net.cpp:131] Top shape: 100 (100)
I0428 19:36:16.057433 23660 net.cpp:131] Top shape: 100 (100)
I0428 19:36:16.057436 23660 net.cpp:139] Memory required for data: 314800
I0428 19:36:16.057440 23660 layer_factory.hpp:77] Creating layer conv0
I0428 19:36:16.057447 23660 net.cpp:86] Creating Layer conv0
I0428 19:36:16.057451 23660 net.cpp:408] conv0 <- data
I0428 19:36:16.057454 23660 net.cpp:382] conv0 -> conv0
I0428 19:36:16.059227 23660 net.cpp:124] Setting up conv0
I0428 19:36:16.059240 23660 net.cpp:131] Top shape: 100 100 24 24 (5760000)
I0428 19:36:16.059244 23660 net.cpp:139] Memory required for data: 23354800
I0428 19:36:16.059252 23660 layer_factory.hpp:77] Creating layer pool0
I0428 19:36:16.059259 23660 net.cpp:86] Creating Layer pool0
I0428 19:36:16.059262 23660 net.cpp:408] pool0 <- conv0
I0428 19:36:16.059267 23660 net.cpp:382] pool0 -> pool0
I0428 19:36:16.059299 23660 net.cpp:124] Setting up pool0
I0428 19:36:16.059304 23660 net.cpp:131] Top shape: 100 100 12 12 (1440000)
I0428 19:36:16.059307 23660 net.cpp:139] Memory required for data: 29114800
I0428 19:36:16.059310 23660 layer_factory.hpp:77] Creating layer ip1
I0428 19:36:16.059316 23660 net.cpp:86] Creating Layer ip1
I0428 19:36:16.059319 23660 net.cpp:408] ip1 <- pool0
I0428 19:36:16.059324 23660 net.cpp:382] ip1 -> ip1
I0428 19:36:16.061630 23660 net.cpp:124] Setting up ip1
I0428 19:36:16.061638 23660 net.cpp:131] Top shape: 100 25 (2500)
I0428 19:36:16.061642 23660 net.cpp:139] Memory required for data: 29124800
I0428 19:36:16.061650 23660 layer_factory.hpp:77] Creating layer relu1
I0428 19:36:16.061655 23660 net.cpp:86] Creating Layer relu1
I0428 19:36:16.061657 23660 net.cpp:408] relu1 <- ip1
I0428 19:36:16.061677 23660 net.cpp:369] relu1 -> ip1 (in-place)
I0428 19:36:16.061837 23660 net.cpp:124] Setting up relu1
I0428 19:36:16.061846 23660 net.cpp:131] Top shape: 100 25 (2500)
I0428 19:36:16.061870 23660 net.cpp:139] Memory required for data: 29134800
I0428 19:36:16.061874 23660 layer_factory.hpp:77] Creating layer ip2
I0428 19:36:16.061879 23660 net.cpp:86] Creating Layer ip2
I0428 19:36:16.061882 23660 net.cpp:408] ip2 <- ip1
I0428 19:36:16.061887 23660 net.cpp:382] ip2 -> ip2
I0428 19:36:16.061978 23660 net.cpp:124] Setting up ip2
I0428 19:36:16.061985 23660 net.cpp:131] Top shape: 100 10 (1000)
I0428 19:36:16.061987 23660 net.cpp:139] Memory required for data: 29138800
I0428 19:36:16.061995 23660 layer_factory.hpp:77] Creating layer relu2
I0428 19:36:16.062000 23660 net.cpp:86] Creating Layer relu2
I0428 19:36:16.062002 23660 net.cpp:408] relu2 <- ip2
I0428 19:36:16.062006 23660 net.cpp:369] relu2 -> ip2 (in-place)
I0428 19:36:16.062155 23660 net.cpp:124] Setting up relu2
I0428 19:36:16.062162 23660 net.cpp:131] Top shape: 100 10 (1000)
I0428 19:36:16.062165 23660 net.cpp:139] Memory required for data: 29142800
I0428 19:36:16.062168 23660 layer_factory.hpp:77] Creating layer ip2_relu2_0_split
I0428 19:36:16.062175 23660 net.cpp:86] Creating Layer ip2_relu2_0_split
I0428 19:36:16.062177 23660 net.cpp:408] ip2_relu2_0_split <- ip2
I0428 19:36:16.062181 23660 net.cpp:382] ip2_relu2_0_split -> ip2_relu2_0_split_0
I0428 19:36:16.062187 23660 net.cpp:382] ip2_relu2_0_split -> ip2_relu2_0_split_1
I0428 19:36:16.062222 23660 net.cpp:124] Setting up ip2_relu2_0_split
I0428 19:36:16.062227 23660 net.cpp:131] Top shape: 100 10 (1000)
I0428 19:36:16.062229 23660 net.cpp:131] Top shape: 100 10 (1000)
I0428 19:36:16.062242 23660 net.cpp:139] Memory required for data: 29150800
I0428 19:36:16.062258 23660 layer_factory.hpp:77] Creating layer accuracy
I0428 19:36:16.062268 23660 net.cpp:86] Creating Layer accuracy
I0428 19:36:16.062271 23660 net.cpp:408] accuracy <- ip2_relu2_0_split_0
I0428 19:36:16.062275 23660 net.cpp:408] accuracy <- label_mnist_1_split_0
I0428 19:36:16.062279 23660 net.cpp:382] accuracy -> accuracy
…
