…
I0428 20:36:17.479604  4771 net.cpp:296] The NetState phase (0) differed from the phase (1) specified by a rule in layer mnist
I0428 20:36:17.479619  4771 net.cpp:296] The NetState phase (0) differed from the phase (1) specified by a rule in layer accuracy
I0428 20:36:17.479696  4771 net.cpp:53] Initializing net from parameters: 
name: "LeNet"
state {
  phase: TRAIN
  level: 0
  stage: ""
}
layer {
  name: "mnist"
  type: "Data"
  top: "data"
  top: "label"
  include {
    phase: TRAIN
  }
  transform_param {
    scale: 0.00390625
  }
  data_param {
    source: "examples/mnist/mnist_train_lmdb"
    batch_size: 64
    backend: LMDB
  }
}
layer {
  name: "conv0"
  type: "Convolution"
  bottom: "data"
  top: "conv0"
  param {
    lr_mult: 1
  }
  param {
    lr_mult: 2
  }
  convolution_param {
    num_output: 100
    kernel_size: 5
    stride: 1
    weight_filler {
      type: "xavier"
    }
    bias_filler {
      type: "constant"
    }
  }
}
layer {
  name: "pool0"
  type: "Pooling"
  bottom: "conv0"
  top: "pool0"
  pooling_param {
    pool: MAX
    kernel_size: 2
    stride: 2
  }
}
layer {
  name: "conv1"
  type: "Convolution"
  bottom: "pool0"
  top: "conv1"
  param {
    lr_mult: 1
  }
  param {
    lr_mult: 2
  }
  convolution_param {
    num_output: 50
    kernel_size: 5
    stride: 1
    weight_filler {
      type: "xavier"
    }
    bias_filler {
      type: "constant"
    }
  }
}
layer {
  name: "pool1"
  type: "Pooling"
  bottom: "conv1"
  top: "pool1"
  pooling_param {
    pool: MAX
    kernel_size: 2
    stride: 2
  }
}
layer {
  name: "ip1"
  type: "InnerProduct"
  bottom: "pool1"
  top: "ip1"
  param {
    lr_mult: 1
  }
  param {
    lr_mult: 2
  }
  inner_product_param {
    num_output: 50
    weight_filler {
      type: "xavier"
    }
    bias_filler {
      type: "constant"
    }
  }
}
layer {
  name: "relu1"
  type: "ReLU"
  bottom: "ip1"
  top: "ip1"
}
layer {
  name: "ip2"
  type: "InnerProduct"
  bottom: "ip1"
  top: "ip2"
  param {
    lr_mult: 1
  }
  param {
    lr_mult: 2
  }
  inner_product_param {
    num_output: 25
    weight_filler {
      type: "xavier"
    }
    bias_filler {
      type: "constant"
    }
  }
}
layer {
  name: "relu2"
  type: "ReLU"
  bottom: "ip2"
  top: "ip2"
}
layer {
  name: "ip3"
  type: "InnerProduct"
  bottom: "ip2"
  top: "ip3"
  param {
    lr_mult: 1
  }
  param {
    lr_mult: 2
  }
  inner_product_param {
    num_output: 10
    weight_filler {
      type: "xavier"
    }
    bias_filler {
      type: "constant"
    }
  }
}
layer {
  name: "relu3"
  type: "ReLU"
  bottom: "ip3"
  top: "ip3"
}
layer {
  name: "loss"
  type: "SoftmaxWithLoss"
  bottom: "ip3"
  bottom: "label"
  top: "loss"
}
I0428 20:36:17.479759  4771 layer_factory.hpp:77] Creating layer mnist
I0428 20:36:17.479840  4771 db_lmdb.cpp:35] Opened lmdb examples/mnist/mnist_train_lmdb
I0428 20:36:17.479858  4771 net.cpp:86] Creating Layer mnist
I0428 20:36:17.479867  4771 net.cpp:382] mnist -> data
I0428 20:36:17.479884  4771 net.cpp:382] mnist -> label
I0428 20:36:17.480919  4771 data_layer.cpp:45] output data size: 64,1,28,28
I0428 20:36:17.483314  4771 net.cpp:124] Setting up mnist
I0428 20:36:17.483359  4771 net.cpp:131] Top shape: 64 1 28 28 (50176)
I0428 20:36:17.483364  4771 net.cpp:131] Top shape: 64 (64)
I0428 20:36:17.483367  4771 net.cpp:139] Memory required for data: 200960
I0428 20:36:17.483373  4771 layer_factory.hpp:77] Creating layer conv0
I0428 20:36:17.483403  4771 net.cpp:86] Creating Layer conv0
I0428 20:36:17.483422  4771 net.cpp:408] conv0 <- data
I0428 20:36:17.483431  4771 net.cpp:382] conv0 -> conv0
I0428 20:36:17.716414  4771 net.cpp:124] Setting up conv0
I0428 20:36:17.716457  4771 net.cpp:131] Top shape: 64 100 24 24 (3686400)
I0428 20:36:17.716461  4771 net.cpp:139] Memory required for data: 14946560
I0428 20:36:17.716476  4771 layer_factory.hpp:77] Creating layer pool0
I0428 20:36:17.716488  4771 net.cpp:86] Creating Layer pool0
I0428 20:36:17.716492  4771 net.cpp:408] pool0 <- conv0
I0428 20:36:17.716497  4771 net.cpp:382] pool0 -> pool0
I0428 20:36:17.716558  4771 net.cpp:124] Setting up pool0
I0428 20:36:17.716563  4771 net.cpp:131] Top shape: 64 100 12 12 (921600)
I0428 20:36:17.716580  4771 net.cpp:139] Memory required for data: 18632960
I0428 20:36:17.716584  4771 layer_factory.hpp:77] Creating layer conv1
I0428 20:36:17.716594  4771 net.cpp:86] Creating Layer conv1
I0428 20:36:17.716598  4771 net.cpp:408] conv1 <- pool0
I0428 20:36:17.716603  4771 net.cpp:382] conv1 -> conv1
I0428 20:36:17.724397  4771 net.cpp:124] Setting up conv1
I0428 20:36:17.724419  4771 net.cpp:131] Top shape: 64 50 8 8 (204800)
I0428 20:36:17.724423  4771 net.cpp:139] Memory required for data: 19452160
I0428 20:36:17.724432  4771 layer_factory.hpp:77] Creating layer pool1
I0428 20:36:17.724442  4771 net.cpp:86] Creating Layer pool1
I0428 20:36:17.724445  4771 net.cpp:408] pool1 <- conv1
I0428 20:36:17.724450  4771 net.cpp:382] pool1 -> pool1
I0428 20:36:17.724501  4771 net.cpp:124] Setting up pool1
I0428 20:36:17.724506  4771 net.cpp:131] Top shape: 64 50 4 4 (51200)
I0428 20:36:17.724509  4771 net.cpp:139] Memory required for data: 19656960
I0428 20:36:17.724511  4771 layer_factory.hpp:77] Creating layer ip1
I0428 20:36:17.724519  4771 net.cpp:86] Creating Layer ip1
I0428 20:36:17.724521  4771 net.cpp:408] ip1 <- pool1
I0428 20:36:17.724525  4771 net.cpp:382] ip1 -> ip1
I0428 20:36:17.724846  4771 net.cpp:124] Setting up ip1
I0428 20:36:17.724854  4771 net.cpp:131] Top shape: 64 50 (3200)
I0428 20:36:17.724871  4771 net.cpp:139] Memory required for data: 19669760
I0428 20:36:17.724895  4771 layer_factory.hpp:77] Creating layer relu1
I0428 20:36:17.724900  4771 net.cpp:86] Creating Layer relu1
I0428 20:36:17.724902  4771 net.cpp:408] relu1 <- ip1
I0428 20:36:17.724907  4771 net.cpp:369] relu1 -> ip1 (in-place)
I0428 20:36:17.725087  4771 net.cpp:124] Setting up relu1
I0428 20:36:17.725096  4771 net.cpp:131] Top shape: 64 50 (3200)
I0428 20:36:17.725100  4771 net.cpp:139] Memory required for data: 19682560
I0428 20:36:17.725102  4771 layer_factory.hpp:77] Creating layer ip2
I0428 20:36:17.725108  4771 net.cpp:86] Creating Layer ip2
I0428 20:36:17.725112  4771 net.cpp:408] ip2 <- ip1
I0428 20:36:17.725117  4771 net.cpp:382] ip2 -> ip2
I0428 20:36:17.725234  4771 net.cpp:124] Setting up ip2
I0428 20:36:17.725240  4771 net.cpp:131] Top shape: 64 25 (1600)
I0428 20:36:17.725244  4771 net.cpp:139] Memory required for data: 19688960
I0428 20:36:17.725248  4771 layer_factory.hpp:77] Creating layer relu2
I0428 20:36:17.725253  4771 net.cpp:86] Creating Layer relu2
I0428 20:36:17.725256  4771 net.cpp:408] relu2 <- ip2
I0428 20:36:17.725261  4771 net.cpp:369] relu2 -> ip2 (in-place)
I0428 20:36:17.726013  4771 net.cpp:124] Setting up relu2
I0428 20:36:17.726024  4771 net.cpp:131] Top shape: 64 25 (1600)
I0428 20:36:17.726043  4771 net.cpp:139] Memory required for data: 19695360
I0428 20:36:17.726047  4771 layer_factory.hpp:77] Creating layer ip3
I0428 20:36:17.726053  4771 net.cpp:86] Creating Layer ip3
I0428 20:36:17.726056  4771 net.cpp:408] ip3 <- ip2
I0428 20:36:17.726061  4771 net.cpp:382] ip3 -> ip3
I0428 20:36:17.726173  4771 net.cpp:124] Setting up ip3
I0428 20:36:17.726181  4771 net.cpp:131] Top shape: 64 10 (640)
I0428 20:36:17.726184  4771 net.cpp:139] Memory required for data: 19697920
I0428 20:36:17.726191  4771 layer_factory.hpp:77] Creating layer relu3
I0428 20:36:17.726197  4771 net.cpp:86] Creating Layer relu3
I0428 20:36:17.726199  4771 net.cpp:408] relu3 <- ip3
I0428 20:36:17.726218  4771 net.cpp:369] relu3 -> ip3 (in-place)
I0428 20:36:17.726382  4771 net.cpp:124] Setting up relu3
I0428 20:36:17.726389  4771 net.cpp:131] Top shape: 64 10 (640)
I0428 20:36:17.726393  4771 net.cpp:139] Memory required for data: 19700480
I0428 20:36:17.726397  4771 layer_factory.hpp:77] Creating layer loss
I0428 20:36:17.726402  4771 net.cpp:86] Creating Layer loss
I0428 20:36:17.726420  4771 net.cpp:408] loss <- ip3
I0428 20:36:17.726424  4771 net.cpp:408] loss <- label
I0428 20:36:17.726429  4771 net.cpp:382] loss -> loss
I0428 20:36:17.726444  4771 layer_factory.hpp:77] Creating layer loss
…
I0428 20:36:17.727130  4771 solver.cpp:173] Creating test net (#0) specified by net file: ECE595/mnist/train_test/var_everything2/lenet_train_test1634.prototxt
I0428 20:36:17.727174  4771 net.cpp:296] The NetState phase (1) differed from the phase (0) specified by a rule in layer mnist
I0428 20:36:17.727278  4771 net.cpp:53] Initializing net from parameters: 
name: "LeNet"
state {
  phase: TEST
}
layer {
  name: "mnist"
  type: "Data"
  top: "data"
  top: "label"
  include {
    phase: TEST
  }
  transform_param {
    scale: 0.00390625
  }
  data_param {
    source: "examples/mnist/mnist_test_lmdb"
    batch_size: 100
    backend: LMDB
  }
}
layer {
  name: "conv0"
  type: "Convolution"
  bottom: "data"
  top: "conv0"
  param {
    lr_mult: 1
  }
  param {
    lr_mult: 2
  }
  convolution_param {
    num_output: 100
    kernel_size: 5
    stride: 1
    weight_filler {
      type: "xavier"
    }
    bias_filler {
      type: "constant"
    }
  }
}
layer {
  name: "pool0"
  type: "Pooling"
  bottom: "conv0"
  top: "pool0"
  pooling_param {
    pool: MAX
    kernel_size: 2
    stride: 2
  }
}
layer {
  name: "conv1"
  type: "Convolution"
  bottom: "pool0"
  top: "conv1"
  param {
    lr_mult: 1
  }
  param {
    lr_mult: 2
  }
  convolution_param {
    num_output: 50
    kernel_size: 5
    stride: 1
    weight_filler {
      type: "xavier"
    }
    bias_filler {
      type: "constant"
    }
  }
}
layer {
  name: "pool1"
  type: "Pooling"
  bottom: "conv1"
  top: "pool1"
  pooling_param {
    pool: MAX
    kernel_size: 2
    stride: 2
  }
}
layer {
  name: "ip1"
  type: "InnerProduct"
  bottom: "pool1"
  top: "ip1"
  param {
    lr_mult: 1
  }
  param {
    lr_mult: 2
  }
  inner_product_param {
    num_output: 50
    weight_filler {
      type: "xavier"
    }
    bias_filler {
      type: "constant"
    }
  }
}
layer {
  name: "relu1"
  type: "ReLU"
  bottom: "ip1"
  top: "ip1"
}
layer {
  name: "ip2"
  type: "InnerProduct"
  bottom: "ip1"
  top: "ip2"
  param {
    lr_mult: 1
  }
  param {
    lr_mult: 2
  }
  inner_product_param {
    num_output: 25
    weight_filler {
      type: "xavier"
    }
    bias_filler {
      type: "constant"
    }
  }
}
layer {
  name: "relu2"
  type: "ReLU"
  bottom: "ip2"
  top: "ip2"
}
layer {
  name: "ip3"
  type: "InnerProduct"
  bottom: "ip2"
  top: "ip3"
  param {
    lr_mult: 1
  }
  param {
    lr_mult: 2
  }
  inner_product_param {
    num_output: 10
    weight_filler {
      type: "xavier"
    }
    bias_filler {
      type: "constant"
    }
  }
}
layer {
  name: "relu3"
  type: "ReLU"
  bottom: "ip3"
  top: "ip3"
}
layer {
  name: "accuracy"
  type: "Accuracy"
  bottom: "ip3"
  bottom: "label"
  top: "accuracy"
  include {
    phase: TEST
  }
}
layer {
  name: "loss"
  type: "SoftmaxWithLoss"
  bottom: "ip3"
  bottom: "label"
  top: "loss"
}
I0428 20:36:17.727357  4771 layer_factory.hpp:77] Creating layer mnist
I0428 20:36:17.727401  4771 db_lmdb.cpp:35] Opened lmdb examples/mnist/mnist_test_lmdb
I0428 20:36:17.727414  4771 net.cpp:86] Creating Layer mnist
I0428 20:36:17.727418  4771 net.cpp:382] mnist -> data
I0428 20:36:17.727427  4771 net.cpp:382] mnist -> label
I0428 20:36:17.727519  4771 data_layer.cpp:45] output data size: 100,1,28,28
I0428 20:36:17.728921  4771 net.cpp:124] Setting up mnist
I0428 20:36:17.728950  4771 net.cpp:131] Top shape: 100 1 28 28 (78400)
I0428 20:36:17.728955  4771 net.cpp:131] Top shape: 100 (100)
I0428 20:36:17.728958  4771 net.cpp:139] Memory required for data: 314000
I0428 20:36:17.728962  4771 layer_factory.hpp:77] Creating layer label_mnist_1_split
I0428 20:36:17.728968  4771 net.cpp:86] Creating Layer label_mnist_1_split
I0428 20:36:17.728971  4771 net.cpp:408] label_mnist_1_split <- label
I0428 20:36:17.728977  4771 net.cpp:382] label_mnist_1_split -> label_mnist_1_split_0
I0428 20:36:17.728983  4771 net.cpp:382] label_mnist_1_split -> label_mnist_1_split_1
I0428 20:36:17.729022  4771 net.cpp:124] Setting up label_mnist_1_split
I0428 20:36:17.729027  4771 net.cpp:131] Top shape: 100 (100)
I0428 20:36:17.729030  4771 net.cpp:131] Top shape: 100 (100)
I0428 20:36:17.729032  4771 net.cpp:139] Memory required for data: 314800
I0428 20:36:17.729035  4771 layer_factory.hpp:77] Creating layer conv0
I0428 20:36:17.729043  4771 net.cpp:86] Creating Layer conv0
I0428 20:36:17.729046  4771 net.cpp:408] conv0 <- data
I0428 20:36:17.729051  4771 net.cpp:382] conv0 -> conv0
I0428 20:36:17.730651  4771 net.cpp:124] Setting up conv0
I0428 20:36:17.730666  4771 net.cpp:131] Top shape: 100 100 24 24 (5760000)
I0428 20:36:17.730670  4771 net.cpp:139] Memory required for data: 23354800
I0428 20:36:17.730680  4771 layer_factory.hpp:77] Creating layer pool0
I0428 20:36:17.730686  4771 net.cpp:86] Creating Layer pool0
I0428 20:36:17.730690  4771 net.cpp:408] pool0 <- conv0
I0428 20:36:17.730695  4771 net.cpp:382] pool0 -> pool0
I0428 20:36:17.730731  4771 net.cpp:124] Setting up pool0
I0428 20:36:17.730736  4771 net.cpp:131] Top shape: 100 100 12 12 (1440000)
I0428 20:36:17.730739  4771 net.cpp:139] Memory required for data: 29114800
I0428 20:36:17.730742  4771 layer_factory.hpp:77] Creating layer conv1
I0428 20:36:17.730751  4771 net.cpp:86] Creating Layer conv1
I0428 20:36:17.730753  4771 net.cpp:408] conv1 <- pool0
I0428 20:36:17.730773  4771 net.cpp:382] conv1 -> conv1
I0428 20:36:17.733927  4771 net.cpp:124] Setting up conv1
I0428 20:36:17.733942  4771 net.cpp:131] Top shape: 100 50 8 8 (320000)
I0428 20:36:17.733947  4771 net.cpp:139] Memory required for data: 30394800
I0428 20:36:17.733954  4771 layer_factory.hpp:77] Creating layer pool1
I0428 20:36:17.733961  4771 net.cpp:86] Creating Layer pool1
I0428 20:36:17.733981  4771 net.cpp:408] pool1 <- conv1
I0428 20:36:17.733986  4771 net.cpp:382] pool1 -> pool1
I0428 20:36:17.734032  4771 net.cpp:124] Setting up pool1
I0428 20:36:17.734037  4771 net.cpp:131] Top shape: 100 50 4 4 (80000)
I0428 20:36:17.734040  4771 net.cpp:139] Memory required for data: 30714800
I0428 20:36:17.734043  4771 layer_factory.hpp:77] Creating layer ip1
I0428 20:36:17.734048  4771 net.cpp:86] Creating Layer ip1
I0428 20:36:17.734051  4771 net.cpp:408] ip1 <- pool1
I0428 20:36:17.734056  4771 net.cpp:382] ip1 -> ip1
I0428 20:36:17.734390  4771 net.cpp:124] Setting up ip1
I0428 20:36:17.734407  4771 net.cpp:131] Top shape: 100 50 (5000)
I0428 20:36:17.734411  4771 net.cpp:139] Memory required for data: 30734800
I0428 20:36:17.734417  4771 layer_factory.hpp:77] Creating layer relu1
I0428 20:36:17.734422  4771 net.cpp:86] Creating Layer relu1
I0428 20:36:17.734426  4771 net.cpp:408] relu1 <- ip1
I0428 20:36:17.734442  4771 net.cpp:369] relu1 -> ip1 (in-place)
I0428 20:36:17.734586  4771 net.cpp:124] Setting up relu1
I0428 20:36:17.734594  4771 net.cpp:131] Top shape: 100 50 (5000)
I0428 20:36:17.734598  4771 net.cpp:139] Memory required for data: 30754800
I0428 20:36:17.734607  4771 layer_factory.hpp:77] Creating layer ip2
I0428 20:36:17.734613  4771 net.cpp:86] Creating Layer ip2
I0428 20:36:17.734616  4771 net.cpp:408] ip2 <- ip1
I0428 20:36:17.734622  4771 net.cpp:382] ip2 -> ip2
I0428 20:36:17.734719  4771 net.cpp:124] Setting up ip2
I0428 20:36:17.734726  4771 net.cpp:131] Top shape: 100 25 (2500)
I0428 20:36:17.734730  4771 net.cpp:139] Memory required for data: 30764800
I0428 20:36:17.734735  4771 layer_factory.hpp:77] Creating layer relu2
I0428 20:36:17.734738  4771 net.cpp:86] Creating Layer relu2
I0428 20:36:17.734741  4771 net.cpp:408] relu2 <- ip2
I0428 20:36:17.734745  4771 net.cpp:369] relu2 -> ip2 (in-place)
I0428 20:36:17.734907  4771 net.cpp:124] Setting up relu2
I0428 20:36:17.734930  4771 net.cpp:131] Top shape: 100 25 (2500)
I0428 20:36:17.734941  4771 net.cpp:139] Memory required for data: 30774800
I0428 20:36:17.734949  4771 layer_factory.hpp:77] Creating layer ip3
I0428 20:36:17.734956  4771 net.cpp:86] Creating Layer ip3
I0428 20:36:17.734959  4771 net.cpp:408] ip3 <- ip2
I0428 20:36:17.734971  4771 net.cpp:382] ip3 -> ip3
I0428 20:36:17.735065  4771 net.cpp:124] Setting up ip3
I0428 20:36:17.735072  4771 net.cpp:131] Top shape: 100 10 (1000)
I0428 20:36:17.735075  4771 net.cpp:139] Memory required for data: 30778800
I0428 20:36:17.735083  4771 layer_factory.hpp:77] Creating layer relu3
I0428 20:36:17.735088  4771 net.cpp:86] Creating Layer relu3
I0428 20:36:17.735091  4771 net.cpp:408] relu3 <- ip3
I0428 20:36:17.735095  4771 net.cpp:369] relu3 -> ip3 (in-place)
I0428 20:36:17.735921  4771 net.cpp:124] Setting up relu3
I0428 20:36:17.735934  4771 net.cpp:131] Top shape: 100 10 (1000)
I0428 20:36:17.735957  4771 net.cpp:139] Memory required for data: 30782800
I0428 20:36:17.735960  4771 layer_factory.hpp:77] Creating layer ip3_relu3_0_split
I0428 20:36:17.735966  4771 net.cpp:86] Creating Layer ip3_relu3_0_split
I0428 20:36:17.735970  4771 net.cpp:408] ip3_relu3_0_split <- ip3
I0428 20:36:17.735975  4771 net.cpp:382] ip3_relu3_0_split -> ip3_relu3_0_split_0
I0428 20:36:17.735992  4771 net.cpp:382] ip3_relu3_0_split -> ip3_relu3_0_split_1
I0428 20:36:17.736028  4771 net.cpp:124] Setting up ip3_relu3_0_split
I0428 20:36:17.736033  4771 net.cpp:131] Top shape: 100 10 (1000)
I0428 20:36:17.736037  4771 net.cpp:131] Top shape: 100 10 (1000)
I0428 20:36:17.736039  4771 net.cpp:139] Memory required for data: 30790800
I0428 20:36:17.736042  4771 layer_factory.hpp:77] Creating layer accuracy
I0428 20:36:17.736047  4771 net.cpp:86] Creating Layer accuracy
I0428 20:36:17.736050  4771 net.cpp:408] accuracy <- ip3_relu3_0_split_0
I0428 20:36:17.736054  4771 net.cpp:408] accuracy <- label_mnist_1_split_0
I0428 20:36:17.736059  4771 net.cpp:382] accuracy -> accuracy
…
