…
I0428 20:22:22.104697  1969 net.cpp:296] The NetState phase (0) differed from the phase (1) specified by a rule in layer mnist
I0428 20:22:22.104722  1969 net.cpp:296] The NetState phase (0) differed from the phase (1) specified by a rule in layer accuracy
I0428 20:22:22.104802  1969 net.cpp:53] Initializing net from parameters: 
name: "LeNet"
state {
  phase: TRAIN
  level: 0
  stage: ""
}
layer {
  name: "mnist"
  type: "Data"
  top: "data"
  top: "label"
  include {
    phase: TRAIN
  }
  transform_param {
    scale: 0.00390625
  }
  data_param {
    source: "examples/mnist/mnist_train_lmdb"
    batch_size: 64
    backend: LMDB
  }
}
layer {
  name: "conv0"
  type: "Convolution"
  bottom: "data"
  top: "conv0"
  param {
    lr_mult: 1
  }
  param {
    lr_mult: 2
  }
  convolution_param {
    num_output: 50
    kernel_size: 5
    stride: 1
    weight_filler {
      type: "xavier"
    }
    bias_filler {
      type: "constant"
    }
  }
}
layer {
  name: "pool0"
  type: "Pooling"
  bottom: "conv0"
  top: "pool0"
  pooling_param {
    pool: MAX
    kernel_size: 2
    stride: 2
  }
}
layer {
  name: "conv1"
  type: "Convolution"
  bottom: "pool0"
  top: "conv1"
  param {
    lr_mult: 1
  }
  param {
    lr_mult: 2
  }
  convolution_param {
    num_output: 50
    kernel_size: 5
    stride: 1
    weight_filler {
      type: "xavier"
    }
    bias_filler {
      type: "constant"
    }
  }
}
layer {
  name: "pool1"
  type: "Pooling"
  bottom: "conv1"
  top: "pool1"
  pooling_param {
    pool: MAX
    kernel_size: 2
    stride: 2
  }
}
layer {
  name: "ip1"
  type: "InnerProduct"
  bottom: "pool1"
  top: "ip1"
  param {
    lr_mult: 1
  }
  param {
    lr_mult: 2
  }
  inner_product_param {
    num_output: 50
    weight_filler {
      type: "xavier"
    }
    bias_filler {
      type: "constant"
    }
  }
}
layer {
  name: "relu1"
  type: "ReLU"
  bottom: "ip1"
  top: "ip1"
}
layer {
  name: "ip2"
  type: "InnerProduct"
  bottom: "ip1"
  top: "ip2"
  param {
    lr_mult: 1
  }
  param {
    lr_mult: 2
  }
  inner_product_param {
    num_output: 50
    weight_filler {
      type: "xavier"
    }
    bias_filler {
      type: "constant"
    }
  }
}
layer {
  name: "relu2"
  type: "ReLU"
  bottom: "ip2"
  top: "ip2"
}
layer {
  name: "ip3"
  type: "InnerProduct"
  bottom: "ip2"
  top: "ip3"
  param {
    lr_mult: 1
  }
  param {
    lr_mult: 2
  }
  inner_product_param {
    num_output: 10
    weight_filler {
      type: "xavier"
    }
    bias_filler {
      type: "constant"
    }
  }
}
layer {
  name: "relu3"
  type: "ReLU"
  bottom: "ip3"
  top: "ip3"
}
layer {
  name: "loss"
  type: "SoftmaxWithLoss"
  bottom: "ip3"
  bottom: "label"
  top: "loss"
}
I0428 20:22:22.104903  1969 layer_factory.hpp:77] Creating layer mnist
I0428 20:22:22.104987  1969 db_lmdb.cpp:35] Opened lmdb examples/mnist/mnist_train_lmdb
I0428 20:22:22.105008  1969 net.cpp:86] Creating Layer mnist
I0428 20:22:22.105016  1969 net.cpp:382] mnist -> data
I0428 20:22:22.105039  1969 net.cpp:382] mnist -> label
I0428 20:22:22.106031  1969 data_layer.cpp:45] output data size: 64,1,28,28
I0428 20:22:22.108377  1969 net.cpp:124] Setting up mnist
I0428 20:22:22.108409  1969 net.cpp:131] Top shape: 64 1 28 28 (50176)
I0428 20:22:22.108418  1969 net.cpp:131] Top shape: 64 (64)
I0428 20:22:22.108422  1969 net.cpp:139] Memory required for data: 200960
I0428 20:22:22.108428  1969 layer_factory.hpp:77] Creating layer conv0
I0428 20:22:22.108443  1969 net.cpp:86] Creating Layer conv0
I0428 20:22:22.108460  1969 net.cpp:408] conv0 <- data
I0428 20:22:22.108470  1969 net.cpp:382] conv0 -> conv0
I0428 20:22:22.338060  1969 net.cpp:124] Setting up conv0
I0428 20:22:22.338101  1969 net.cpp:131] Top shape: 64 50 24 24 (1843200)
I0428 20:22:22.338105  1969 net.cpp:139] Memory required for data: 7573760
I0428 20:22:22.338120  1969 layer_factory.hpp:77] Creating layer pool0
I0428 20:22:22.338134  1969 net.cpp:86] Creating Layer pool0
I0428 20:22:22.338137  1969 net.cpp:408] pool0 <- conv0
I0428 20:22:22.338158  1969 net.cpp:382] pool0 -> pool0
I0428 20:22:22.338224  1969 net.cpp:124] Setting up pool0
I0428 20:22:22.338232  1969 net.cpp:131] Top shape: 64 50 12 12 (460800)
I0428 20:22:22.338235  1969 net.cpp:139] Memory required for data: 9416960
I0428 20:22:22.338239  1969 layer_factory.hpp:77] Creating layer conv1
I0428 20:22:22.338249  1969 net.cpp:86] Creating Layer conv1
I0428 20:22:22.338253  1969 net.cpp:408] conv1 <- pool0
I0428 20:22:22.338273  1969 net.cpp:382] conv1 -> conv1
I0428 20:22:22.340586  1969 net.cpp:124] Setting up conv1
I0428 20:22:22.340600  1969 net.cpp:131] Top shape: 64 50 8 8 (204800)
I0428 20:22:22.340620  1969 net.cpp:139] Memory required for data: 10236160
I0428 20:22:22.340628  1969 layer_factory.hpp:77] Creating layer pool1
I0428 20:22:22.340638  1969 net.cpp:86] Creating Layer pool1
I0428 20:22:22.340641  1969 net.cpp:408] pool1 <- conv1
I0428 20:22:22.340646  1969 net.cpp:382] pool1 -> pool1
I0428 20:22:22.340699  1969 net.cpp:124] Setting up pool1
I0428 20:22:22.340704  1969 net.cpp:131] Top shape: 64 50 4 4 (51200)
I0428 20:22:22.340708  1969 net.cpp:139] Memory required for data: 10440960
I0428 20:22:22.340711  1969 layer_factory.hpp:77] Creating layer ip1
I0428 20:22:22.340731  1969 net.cpp:86] Creating Layer ip1
I0428 20:22:22.340734  1969 net.cpp:408] ip1 <- pool1
I0428 20:22:22.340739  1969 net.cpp:382] ip1 -> ip1
I0428 20:22:22.341190  1969 net.cpp:124] Setting up ip1
I0428 20:22:22.341213  1969 net.cpp:131] Top shape: 64 50 (3200)
I0428 20:22:22.341217  1969 net.cpp:139] Memory required for data: 10453760
I0428 20:22:22.341223  1969 layer_factory.hpp:77] Creating layer relu1
I0428 20:22:22.341230  1969 net.cpp:86] Creating Layer relu1
I0428 20:22:22.341233  1969 net.cpp:408] relu1 <- ip1
I0428 20:22:22.341248  1969 net.cpp:369] relu1 -> ip1 (in-place)
I0428 20:22:22.341414  1969 net.cpp:124] Setting up relu1
I0428 20:22:22.341423  1969 net.cpp:131] Top shape: 64 50 (3200)
I0428 20:22:22.341426  1969 net.cpp:139] Memory required for data: 10466560
I0428 20:22:22.341429  1969 layer_factory.hpp:77] Creating layer ip2
I0428 20:22:22.341435  1969 net.cpp:86] Creating Layer ip2
I0428 20:22:22.341439  1969 net.cpp:408] ip2 <- ip1
I0428 20:22:22.341444  1969 net.cpp:382] ip2 -> ip2
I0428 20:22:22.341595  1969 net.cpp:124] Setting up ip2
I0428 20:22:22.341603  1969 net.cpp:131] Top shape: 64 50 (3200)
I0428 20:22:22.341606  1969 net.cpp:139] Memory required for data: 10479360
I0428 20:22:22.341612  1969 layer_factory.hpp:77] Creating layer relu2
I0428 20:22:22.341619  1969 net.cpp:86] Creating Layer relu2
I0428 20:22:22.341622  1969 net.cpp:408] relu2 <- ip2
I0428 20:22:22.341626  1969 net.cpp:369] relu2 -> ip2 (in-place)
I0428 20:22:22.342387  1969 net.cpp:124] Setting up relu2
I0428 20:22:22.342401  1969 net.cpp:131] Top shape: 64 50 (3200)
I0428 20:22:22.342419  1969 net.cpp:139] Memory required for data: 10492160
I0428 20:22:22.342423  1969 layer_factory.hpp:77] Creating layer ip3
I0428 20:22:22.342432  1969 net.cpp:86] Creating Layer ip3
I0428 20:22:22.342435  1969 net.cpp:408] ip3 <- ip2
I0428 20:22:22.342440  1969 net.cpp:382] ip3 -> ip3
I0428 20:22:22.342566  1969 net.cpp:124] Setting up ip3
I0428 20:22:22.342577  1969 net.cpp:131] Top shape: 64 10 (640)
I0428 20:22:22.342581  1969 net.cpp:139] Memory required for data: 10494720
I0428 20:22:22.342589  1969 layer_factory.hpp:77] Creating layer relu3
I0428 20:22:22.342594  1969 net.cpp:86] Creating Layer relu3
I0428 20:22:22.342597  1969 net.cpp:408] relu3 <- ip3
I0428 20:22:22.342602  1969 net.cpp:369] relu3 -> ip3 (in-place)
I0428 20:22:22.342784  1969 net.cpp:124] Setting up relu3
I0428 20:22:22.342793  1969 net.cpp:131] Top shape: 64 10 (640)
I0428 20:22:22.342797  1969 net.cpp:139] Memory required for data: 10497280
I0428 20:22:22.342799  1969 layer_factory.hpp:77] Creating layer loss
I0428 20:22:22.342805  1969 net.cpp:86] Creating Layer loss
I0428 20:22:22.342808  1969 net.cpp:408] loss <- ip3
I0428 20:22:22.342813  1969 net.cpp:408] loss <- label
I0428 20:22:22.342818  1969 net.cpp:382] loss -> loss
I0428 20:22:22.342834  1969 layer_factory.hpp:77] Creating layer loss
…
I0428 20:22:22.343437  1969 solver.cpp:173] Creating test net (#0) specified by net file: ECE595/mnist/train_test/var_everything2/lenet_train_test1403.prototxt
I0428 20:22:22.343493  1969 net.cpp:296] The NetState phase (1) differed from the phase (0) specified by a rule in layer mnist
I0428 20:22:22.343637  1969 net.cpp:53] Initializing net from parameters: 
name: "LeNet"
state {
  phase: TEST
}
layer {
  name: "mnist"
  type: "Data"
  top: "data"
  top: "label"
  include {
    phase: TEST
  }
  transform_param {
    scale: 0.00390625
  }
  data_param {
    source: "examples/mnist/mnist_test_lmdb"
    batch_size: 100
    backend: LMDB
  }
}
layer {
  name: "conv0"
  type: "Convolution"
  bottom: "data"
  top: "conv0"
  param {
    lr_mult: 1
  }
  param {
    lr_mult: 2
  }
  convolution_param {
    num_output: 50
    kernel_size: 5
    stride: 1
    weight_filler {
      type: "xavier"
    }
    bias_filler {
      type: "constant"
    }
  }
}
layer {
  name: "pool0"
  type: "Pooling"
  bottom: "conv0"
  top: "pool0"
  pooling_param {
    pool: MAX
    kernel_size: 2
    stride: 2
  }
}
layer {
  name: "conv1"
  type: "Convolution"
  bottom: "pool0"
  top: "conv1"
  param {
    lr_mult: 1
  }
  param {
    lr_mult: 2
  }
  convolution_param {
    num_output: 50
    kernel_size: 5
    stride: 1
    weight_filler {
      type: "xavier"
    }
    bias_filler {
      type: "constant"
    }
  }
}
layer {
  name: "pool1"
  type: "Pooling"
  bottom: "conv1"
  top: "pool1"
  pooling_param {
    pool: MAX
    kernel_size: 2
    stride: 2
  }
}
layer {
  name: "ip1"
  type: "InnerProduct"
  bottom: "pool1"
  top: "ip1"
  param {
    lr_mult: 1
  }
  param {
    lr_mult: 2
  }
  inner_product_param {
    num_output: 50
    weight_filler {
      type: "xavier"
    }
    bias_filler {
      type: "constant"
    }
  }
}
layer {
  name: "relu1"
  type: "ReLU"
  bottom: "ip1"
  top: "ip1"
}
layer {
  name: "ip2"
  type: "InnerProduct"
  bottom: "ip1"
  top: "ip2"
  param {
    lr_mult: 1
  }
  param {
    lr_mult: 2
  }
  inner_product_param {
    num_output: 50
    weight_filler {
      type: "xavier"
    }
    bias_filler {
      type: "constant"
    }
  }
}
layer {
  name: "relu2"
  type: "ReLU"
  bottom: "ip2"
  top: "ip2"
}
layer {
  name: "ip3"
  type: "InnerProduct"
  bottom: "ip2"
  top: "ip3"
  param {
    lr_mult: 1
  }
  param {
    lr_mult: 2
  }
  inner_product_param {
    num_output: 10
    weight_filler {
      type: "xavier"
    }
    bias_filler {
      type: "constant"
    }
  }
}
layer {
  name: "relu3"
  type: "ReLU"
  bottom: "ip3"
  top: "ip3"
}
layer {
  name: "accuracy"
  type: "Accuracy"
  bottom: "ip3"
  bottom: "label"
  top: "accuracy"
  include {
    phase: TEST
  }
}
layer {
  name: "loss"
  type: "SoftmaxWithLoss"
  bottom: "ip3"
  bottom: "label"
  top: "loss"
}
I0428 20:22:22.343719  1969 layer_factory.hpp:77] Creating layer mnist
I0428 20:22:22.343780  1969 db_lmdb.cpp:35] Opened lmdb examples/mnist/mnist_test_lmdb
I0428 20:22:22.343792  1969 net.cpp:86] Creating Layer mnist
I0428 20:22:22.343796  1969 net.cpp:382] mnist -> data
I0428 20:22:22.343804  1969 net.cpp:382] mnist -> label
I0428 20:22:22.343904  1969 data_layer.cpp:45] output data size: 100,1,28,28
I0428 20:22:22.345849  1969 net.cpp:124] Setting up mnist
I0428 20:22:22.345896  1969 net.cpp:131] Top shape: 100 1 28 28 (78400)
I0428 20:22:22.345919  1969 net.cpp:131] Top shape: 100 (100)
I0428 20:22:22.345926  1969 net.cpp:139] Memory required for data: 314000
I0428 20:22:22.345932  1969 layer_factory.hpp:77] Creating layer label_mnist_1_split
I0428 20:22:22.345959  1969 net.cpp:86] Creating Layer label_mnist_1_split
I0428 20:22:22.345965  1969 net.cpp:408] label_mnist_1_split <- label
I0428 20:22:22.345973  1969 net.cpp:382] label_mnist_1_split -> label_mnist_1_split_0
I0428 20:22:22.345983  1969 net.cpp:382] label_mnist_1_split -> label_mnist_1_split_1
I0428 20:22:22.346065  1969 net.cpp:124] Setting up label_mnist_1_split
I0428 20:22:22.346073  1969 net.cpp:131] Top shape: 100 (100)
I0428 20:22:22.346077  1969 net.cpp:131] Top shape: 100 (100)
I0428 20:22:22.346081  1969 net.cpp:139] Memory required for data: 314800
I0428 20:22:22.346083  1969 layer_factory.hpp:77] Creating layer conv0
I0428 20:22:22.346092  1969 net.cpp:86] Creating Layer conv0
I0428 20:22:22.346096  1969 net.cpp:408] conv0 <- data
I0428 20:22:22.346101  1969 net.cpp:382] conv0 -> conv0
I0428 20:22:22.347724  1969 net.cpp:124] Setting up conv0
I0428 20:22:22.347753  1969 net.cpp:131] Top shape: 100 50 24 24 (2880000)
I0428 20:22:22.347756  1969 net.cpp:139] Memory required for data: 11834800
I0428 20:22:22.347765  1969 layer_factory.hpp:77] Creating layer pool0
I0428 20:22:22.347771  1969 net.cpp:86] Creating Layer pool0
I0428 20:22:22.347774  1969 net.cpp:408] pool0 <- conv0
I0428 20:22:22.347779  1969 net.cpp:382] pool0 -> pool0
I0428 20:22:22.347828  1969 net.cpp:124] Setting up pool0
I0428 20:22:22.347834  1969 net.cpp:131] Top shape: 100 50 12 12 (720000)
I0428 20:22:22.347836  1969 net.cpp:139] Memory required for data: 14714800
I0428 20:22:22.347839  1969 layer_factory.hpp:77] Creating layer conv1
I0428 20:22:22.347847  1969 net.cpp:86] Creating Layer conv1
I0428 20:22:22.347851  1969 net.cpp:408] conv1 <- pool0
I0428 20:22:22.347856  1969 net.cpp:382] conv1 -> conv1
I0428 20:22:22.349906  1969 net.cpp:124] Setting up conv1
I0428 20:22:22.349921  1969 net.cpp:131] Top shape: 100 50 8 8 (320000)
I0428 20:22:22.349926  1969 net.cpp:139] Memory required for data: 15994800
I0428 20:22:22.349936  1969 layer_factory.hpp:77] Creating layer pool1
I0428 20:22:22.349941  1969 net.cpp:86] Creating Layer pool1
I0428 20:22:22.349946  1969 net.cpp:408] pool1 <- conv1
I0428 20:22:22.349951  1969 net.cpp:382] pool1 -> pool1
I0428 20:22:22.349987  1969 net.cpp:124] Setting up pool1
I0428 20:22:22.350002  1969 net.cpp:131] Top shape: 100 50 4 4 (80000)
I0428 20:22:22.350020  1969 net.cpp:139] Memory required for data: 16314800
I0428 20:22:22.350024  1969 layer_factory.hpp:77] Creating layer ip1
I0428 20:22:22.350046  1969 net.cpp:86] Creating Layer ip1
I0428 20:22:22.350072  1969 net.cpp:408] ip1 <- pool1
I0428 20:22:22.350078  1969 net.cpp:382] ip1 -> ip1
I0428 20:22:22.350466  1969 net.cpp:124] Setting up ip1
I0428 20:22:22.350474  1969 net.cpp:131] Top shape: 100 50 (5000)
I0428 20:22:22.350503  1969 net.cpp:139] Memory required for data: 16334800
I0428 20:22:22.350512  1969 layer_factory.hpp:77] Creating layer relu1
I0428 20:22:22.350515  1969 net.cpp:86] Creating Layer relu1
I0428 20:22:22.350519  1969 net.cpp:408] relu1 <- ip1
I0428 20:22:22.350523  1969 net.cpp:369] relu1 -> ip1 (in-place)
I0428 20:22:22.350754  1969 net.cpp:124] Setting up relu1
I0428 20:22:22.350761  1969 net.cpp:131] Top shape: 100 50 (5000)
I0428 20:22:22.350765  1969 net.cpp:139] Memory required for data: 16354800
I0428 20:22:22.350775  1969 layer_factory.hpp:77] Creating layer ip2
I0428 20:22:22.350790  1969 net.cpp:86] Creating Layer ip2
I0428 20:22:22.350796  1969 net.cpp:408] ip2 <- ip1
I0428 20:22:22.350805  1969 net.cpp:382] ip2 -> ip2
I0428 20:22:22.350939  1969 net.cpp:124] Setting up ip2
I0428 20:22:22.350947  1969 net.cpp:131] Top shape: 100 50 (5000)
I0428 20:22:22.350951  1969 net.cpp:139] Memory required for data: 16374800
I0428 20:22:22.350957  1969 layer_factory.hpp:77] Creating layer relu2
I0428 20:22:22.350961  1969 net.cpp:86] Creating Layer relu2
I0428 20:22:22.350965  1969 net.cpp:408] relu2 <- ip2
I0428 20:22:22.350970  1969 net.cpp:369] relu2 -> ip2 (in-place)
I0428 20:22:22.351130  1969 net.cpp:124] Setting up relu2
I0428 20:22:22.351138  1969 net.cpp:131] Top shape: 100 50 (5000)
I0428 20:22:22.351141  1969 net.cpp:139] Memory required for data: 16394800
I0428 20:22:22.351145  1969 layer_factory.hpp:77] Creating layer ip3
I0428 20:22:22.351151  1969 net.cpp:86] Creating Layer ip3
I0428 20:22:22.351155  1969 net.cpp:408] ip3 <- ip2
I0428 20:22:22.351160  1969 net.cpp:382] ip3 -> ip3
I0428 20:22:22.351258  1969 net.cpp:124] Setting up ip3
I0428 20:22:22.351264  1969 net.cpp:131] Top shape: 100 10 (1000)
I0428 20:22:22.351269  1969 net.cpp:139] Memory required for data: 16398800
I0428 20:22:22.351276  1969 layer_factory.hpp:77] Creating layer relu3
I0428 20:22:22.351280  1969 net.cpp:86] Creating Layer relu3
I0428 20:22:22.351284  1969 net.cpp:408] relu3 <- ip3
I0428 20:22:22.351287  1969 net.cpp:369] relu3 -> ip3 (in-place)
I0428 20:22:22.352098  1969 net.cpp:124] Setting up relu3
I0428 20:22:22.352125  1969 net.cpp:131] Top shape: 100 10 (1000)
I0428 20:22:22.352130  1969 net.cpp:139] Memory required for data: 16402800
I0428 20:22:22.352135  1969 layer_factory.hpp:77] Creating layer ip3_relu3_0_split
I0428 20:22:22.352141  1969 net.cpp:86] Creating Layer ip3_relu3_0_split
I0428 20:22:22.352144  1969 net.cpp:408] ip3_relu3_0_split <- ip3
I0428 20:22:22.352149  1969 net.cpp:382] ip3_relu3_0_split -> ip3_relu3_0_split_0
I0428 20:22:22.352156  1969 net.cpp:382] ip3_relu3_0_split -> ip3_relu3_0_split_1
I0428 20:22:22.352202  1969 net.cpp:124] Setting up ip3_relu3_0_split
I0428 20:22:22.352226  1969 net.cpp:131] Top shape: 100 10 (1000)
I0428 20:22:22.352229  1969 net.cpp:131] Top shape: 100 10 (1000)
I0428 20:22:22.352232  1969 net.cpp:139] Memory required for data: 16410800
I0428 20:22:22.352236  1969 layer_factory.hpp:77] Creating layer accuracy
I0428 20:22:22.352241  1969 net.cpp:86] Creating Layer accuracy
I0428 20:22:22.352244  1969 net.cpp:408] accuracy <- ip3_relu3_0_split_0
I0428 20:22:22.352248  1969 net.cpp:408] accuracy <- label_mnist_1_split_0
I0428 20:22:22.352252  1969 net.cpp:382] accuracy -> accuracy
…
