…
I0428 19:31:14.908603 22527 net.cpp:296] The NetState phase (0) differed from the phase (1) specified by a rule in layer mnist
I0428 19:31:14.908627 22527 net.cpp:296] The NetState phase (0) differed from the phase (1) specified by a rule in layer accuracy
I0428 19:31:14.908723 22527 net.cpp:53] Initializing net from parameters: 
name: "LeNet"
state {
  phase: TRAIN
  level: 0
  stage: ""
}
layer {
  name: "mnist"
  type: "Data"
  top: "data"
  top: "label"
  include {
    phase: TRAIN
  }
  transform_param {
    scale: 0.00390625
  }
  data_param {
    source: "examples/mnist/mnist_train_lmdb"
    batch_size: 64
    backend: LMDB
  }
}
layer {
  name: "conv0"
  type: "Convolution"
  bottom: "data"
  top: "conv0"
  param {
    lr_mult: 1
  }
  param {
    lr_mult: 2
  }
  convolution_param {
    num_output: 5
    kernel_size: 5
    stride: 1
    weight_filler {
      type: "xavier"
    }
    bias_filler {
      type: "constant"
    }
  }
}
layer {
  name: "pool0"
  type: "Pooling"
  bottom: "conv0"
  top: "pool0"
  pooling_param {
    pool: MAX
    kernel_size: 2
    stride: 2
  }
}
layer {
  name: "ip1"
  type: "InnerProduct"
  bottom: "pool0"
  top: "ip1"
  param {
    lr_mult: 1
  }
  param {
    lr_mult: 2
  }
  inner_product_param {
    num_output: 50
    weight_filler {
      type: "xavier"
    }
    bias_filler {
      type: "constant"
    }
  }
}
layer {
  name: "relu1"
  type: "ReLU"
  bottom: "ip1"
  top: "ip1"
}
layer {
  name: "ip2"
  type: "InnerProduct"
  bottom: "ip1"
  top: "ip2"
  param {
    lr_mult: 1
  }
  param {
    lr_mult: 2
  }
  inner_product_param {
    num_output: 50
    weight_filler {
      type: "xavier"
    }
    bias_filler {
      type: "constant"
    }
  }
}
layer {
  name: "relu2"
  type: "ReLU"
  bottom: "ip2"
  top: "ip2"
}
layer {
  name: "ip3"
  type: "InnerProduct"
  bottom: "ip2"
  top: "ip3"
  param {
    lr_mult: 1
  }
  param {
    lr_mult: 2
  }
  inner_product_param {
    num_output: 10
    weight_filler {
      type: "xavier"
    }
    bias_filler {
      type: "constant"
    }
  }
}
layer {
  name: "relu3"
  type: "ReLU"
  bottom: "ip3"
  top: "ip3"
}
layer {
  name: "loss"
  type: "SoftmaxWithLoss"
  bottom: "ip3"
  bottom: "label"
  top: "loss"
}
I0428 19:31:14.908838 22527 layer_factory.hpp:77] Creating layer mnist
I0428 19:31:14.908969 22527 db_lmdb.cpp:35] Opened lmdb examples/mnist/mnist_train_lmdb
I0428 19:31:14.909003 22527 net.cpp:86] Creating Layer mnist
I0428 19:31:14.909018 22527 net.cpp:382] mnist -> data
I0428 19:31:14.909049 22527 net.cpp:382] mnist -> label
I0428 19:31:14.910272 22527 data_layer.cpp:45] output data size: 64,1,28,28
I0428 19:31:14.912739 22527 net.cpp:124] Setting up mnist
I0428 19:31:14.912758 22527 net.cpp:131] Top shape: 64 1 28 28 (50176)
I0428 19:31:14.912768 22527 net.cpp:131] Top shape: 64 (64)
I0428 19:31:14.912775 22527 net.cpp:139] Memory required for data: 200960
I0428 19:31:14.912786 22527 layer_factory.hpp:77] Creating layer conv0
I0428 19:31:14.912817 22527 net.cpp:86] Creating Layer conv0
I0428 19:31:14.912829 22527 net.cpp:408] conv0 <- data
I0428 19:31:14.912850 22527 net.cpp:382] conv0 -> conv0
I0428 19:31:15.196431 22527 net.cpp:124] Setting up conv0
I0428 19:31:15.196460 22527 net.cpp:131] Top shape: 64 5 24 24 (184320)
I0428 19:31:15.196465 22527 net.cpp:139] Memory required for data: 938240
I0428 19:31:15.196486 22527 layer_factory.hpp:77] Creating layer pool0
I0428 19:31:15.196504 22527 net.cpp:86] Creating Layer pool0
I0428 19:31:15.196529 22527 net.cpp:408] pool0 <- conv0
I0428 19:31:15.196539 22527 net.cpp:382] pool0 -> pool0
I0428 19:31:15.196593 22527 net.cpp:124] Setting up pool0
I0428 19:31:15.196604 22527 net.cpp:131] Top shape: 64 5 12 12 (46080)
I0428 19:31:15.196609 22527 net.cpp:139] Memory required for data: 1122560
I0428 19:31:15.196614 22527 layer_factory.hpp:77] Creating layer ip1
I0428 19:31:15.196625 22527 net.cpp:86] Creating Layer ip1
I0428 19:31:15.196635 22527 net.cpp:408] ip1 <- pool0
I0428 19:31:15.196643 22527 net.cpp:382] ip1 -> ip1
I0428 19:31:15.196969 22527 net.cpp:124] Setting up ip1
I0428 19:31:15.196979 22527 net.cpp:131] Top shape: 64 50 (3200)
I0428 19:31:15.196985 22527 net.cpp:139] Memory required for data: 1135360
I0428 19:31:15.196996 22527 layer_factory.hpp:77] Creating layer relu1
I0428 19:31:15.197011 22527 net.cpp:86] Creating Layer relu1
I0428 19:31:15.197017 22527 net.cpp:408] relu1 <- ip1
I0428 19:31:15.197026 22527 net.cpp:369] relu1 -> ip1 (in-place)
I0428 19:31:15.197211 22527 net.cpp:124] Setting up relu1
I0428 19:31:15.197221 22527 net.cpp:131] Top shape: 64 50 (3200)
I0428 19:31:15.197224 22527 net.cpp:139] Memory required for data: 1148160
I0428 19:31:15.197229 22527 layer_factory.hpp:77] Creating layer ip2
I0428 19:31:15.197242 22527 net.cpp:86] Creating Layer ip2
I0428 19:31:15.197247 22527 net.cpp:408] ip2 <- ip1
I0428 19:31:15.197257 22527 net.cpp:382] ip2 -> ip2
I0428 19:31:15.198171 22527 net.cpp:124] Setting up ip2
I0428 19:31:15.198185 22527 net.cpp:131] Top shape: 64 50 (3200)
I0428 19:31:15.198189 22527 net.cpp:139] Memory required for data: 1160960
I0428 19:31:15.198204 22527 layer_factory.hpp:77] Creating layer relu2
I0428 19:31:15.198213 22527 net.cpp:86] Creating Layer relu2
I0428 19:31:15.198220 22527 net.cpp:408] relu2 <- ip2
I0428 19:31:15.198230 22527 net.cpp:369] relu2 -> ip2 (in-place)
I0428 19:31:15.198940 22527 net.cpp:124] Setting up relu2
I0428 19:31:15.198953 22527 net.cpp:131] Top shape: 64 50 (3200)
I0428 19:31:15.198958 22527 net.cpp:139] Memory required for data: 1173760
I0428 19:31:15.198963 22527 layer_factory.hpp:77] Creating layer ip3
I0428 19:31:15.198973 22527 net.cpp:86] Creating Layer ip3
I0428 19:31:15.198979 22527 net.cpp:408] ip3 <- ip2
I0428 19:31:15.198989 22527 net.cpp:382] ip3 -> ip3
I0428 19:31:15.199097 22527 net.cpp:124] Setting up ip3
I0428 19:31:15.199106 22527 net.cpp:131] Top shape: 64 10 (640)
I0428 19:31:15.199110 22527 net.cpp:139] Memory required for data: 1176320
I0428 19:31:15.199120 22527 layer_factory.hpp:77] Creating layer relu3
I0428 19:31:15.199129 22527 net.cpp:86] Creating Layer relu3
I0428 19:31:15.199136 22527 net.cpp:408] relu3 <- ip3
I0428 19:31:15.199143 22527 net.cpp:369] relu3 -> ip3 (in-place)
I0428 19:31:15.199303 22527 net.cpp:124] Setting up relu3
I0428 19:31:15.199312 22527 net.cpp:131] Top shape: 64 10 (640)
I0428 19:31:15.199317 22527 net.cpp:139] Memory required for data: 1178880
I0428 19:31:15.199321 22527 layer_factory.hpp:77] Creating layer loss
I0428 19:31:15.199331 22527 net.cpp:86] Creating Layer loss
I0428 19:31:15.199337 22527 net.cpp:408] loss <- ip3
I0428 19:31:15.199343 22527 net.cpp:408] loss <- label
I0428 19:31:15.199352 22527 net.cpp:382] loss -> loss
I0428 19:31:15.199373 22527 layer_factory.hpp:77] Creating layer loss
…
I0428 19:31:15.200001 22527 solver.cpp:173] Creating test net (#0) specified by net file: ECE595/mnist/train_test/var_everything2/lenet_train_test116.prototxt
I0428 19:31:15.200031 22527 net.cpp:296] The NetState phase (1) differed from the phase (0) specified by a rule in layer mnist
I0428 19:31:15.200114 22527 net.cpp:53] Initializing net from parameters: 
name: "LeNet"
state {
  phase: TEST
}
layer {
  name: "mnist"
  type: "Data"
  top: "data"
  top: "label"
  include {
    phase: TEST
  }
  transform_param {
    scale: 0.00390625
  }
  data_param {
    source: "examples/mnist/mnist_test_lmdb"
    batch_size: 100
    backend: LMDB
  }
}
layer {
  name: "conv0"
  type: "Convolution"
  bottom: "data"
  top: "conv0"
  param {
    lr_mult: 1
  }
  param {
    lr_mult: 2
  }
  convolution_param {
    num_output: 5
    kernel_size: 5
    stride: 1
    weight_filler {
      type: "xavier"
    }
    bias_filler {
      type: "constant"
    }
  }
}
layer {
  name: "pool0"
  type: "Pooling"
  bottom: "conv0"
  top: "pool0"
  pooling_param {
    pool: MAX
    kernel_size: 2
    stride: 2
  }
}
layer {
  name: "ip1"
  type: "InnerProduct"
  bottom: "pool0"
  top: "ip1"
  param {
    lr_mult: 1
  }
  param {
    lr_mult: 2
  }
  inner_product_param {
    num_output: 50
    weight_filler {
      type: "xavier"
    }
    bias_filler {
      type: "constant"
    }
  }
}
layer {
  name: "relu1"
  type: "ReLU"
  bottom: "ip1"
  top: "ip1"
}
layer {
  name: "ip2"
  type: "InnerProduct"
  bottom: "ip1"
  top: "ip2"
  param {
    lr_mult: 1
  }
  param {
    lr_mult: 2
  }
  inner_product_param {
    num_output: 50
    weight_filler {
      type: "xavier"
    }
    bias_filler {
      type: "constant"
    }
  }
}
layer {
  name: "relu2"
  type: "ReLU"
  bottom: "ip2"
  top: "ip2"
}
layer {
  name: "ip3"
  type: "InnerProduct"
  bottom: "ip2"
  top: "ip3"
  param {
    lr_mult: 1
  }
  param {
    lr_mult: 2
  }
  inner_product_param {
    num_output: 10
    weight_filler {
      type: "xavier"
    }
    bias_filler {
      type: "constant"
    }
  }
}
layer {
  name: "relu3"
  type: "ReLU"
  bottom: "ip3"
  top: "ip3"
}
layer {
  name: "accuracy"
  type: "Accuracy"
  bottom: "ip3"
  bottom: "label"
  top: "accuracy"
  include {
    phase: TEST
  }
}
layer {
  name: "loss"
  type: "SoftmaxWithLoss"
  bottom: "ip3"
  bottom: "label"
  top: "loss"
}
I0428 19:31:15.200211 22527 layer_factory.hpp:77] Creating layer mnist
I0428 19:31:15.200266 22527 db_lmdb.cpp:35] Opened lmdb examples/mnist/mnist_test_lmdb
I0428 19:31:15.200283 22527 net.cpp:86] Creating Layer mnist
I0428 19:31:15.200291 22527 net.cpp:382] mnist -> data
I0428 19:31:15.200302 22527 net.cpp:382] mnist -> label
I0428 19:31:15.200420 22527 data_layer.cpp:45] output data size: 100,1,28,28
I0428 19:31:15.202342 22527 net.cpp:124] Setting up mnist
I0428 19:31:15.202358 22527 net.cpp:131] Top shape: 100 1 28 28 (78400)
I0428 19:31:15.202364 22527 net.cpp:131] Top shape: 100 (100)
I0428 19:31:15.202369 22527 net.cpp:139] Memory required for data: 314000
I0428 19:31:15.202374 22527 layer_factory.hpp:77] Creating layer label_mnist_1_split
I0428 19:31:15.202416 22527 net.cpp:86] Creating Layer label_mnist_1_split
I0428 19:31:15.202422 22527 net.cpp:408] label_mnist_1_split <- label
I0428 19:31:15.202431 22527 net.cpp:382] label_mnist_1_split -> label_mnist_1_split_0
I0428 19:31:15.202442 22527 net.cpp:382] label_mnist_1_split -> label_mnist_1_split_1
I0428 19:31:15.202538 22527 net.cpp:124] Setting up label_mnist_1_split
I0428 19:31:15.202546 22527 net.cpp:131] Top shape: 100 (100)
I0428 19:31:15.202553 22527 net.cpp:131] Top shape: 100 (100)
I0428 19:31:15.202558 22527 net.cpp:139] Memory required for data: 314800
I0428 19:31:15.202572 22527 layer_factory.hpp:77] Creating layer conv0
I0428 19:31:15.202587 22527 net.cpp:86] Creating Layer conv0
I0428 19:31:15.202592 22527 net.cpp:408] conv0 <- data
I0428 19:31:15.202602 22527 net.cpp:382] conv0 -> conv0
I0428 19:31:15.204457 22527 net.cpp:124] Setting up conv0
I0428 19:31:15.204488 22527 net.cpp:131] Top shape: 100 5 24 24 (288000)
I0428 19:31:15.204494 22527 net.cpp:139] Memory required for data: 1466800
I0428 19:31:15.204509 22527 layer_factory.hpp:77] Creating layer pool0
I0428 19:31:15.204519 22527 net.cpp:86] Creating Layer pool0
I0428 19:31:15.204526 22527 net.cpp:408] pool0 <- conv0
I0428 19:31:15.204536 22527 net.cpp:382] pool0 -> pool0
I0428 19:31:15.204581 22527 net.cpp:124] Setting up pool0
I0428 19:31:15.204591 22527 net.cpp:131] Top shape: 100 5 12 12 (72000)
I0428 19:31:15.204596 22527 net.cpp:139] Memory required for data: 1754800
I0428 19:31:15.204601 22527 layer_factory.hpp:77] Creating layer ip1
I0428 19:31:15.204613 22527 net.cpp:86] Creating Layer ip1
I0428 19:31:15.204620 22527 net.cpp:408] ip1 <- pool0
I0428 19:31:15.204630 22527 net.cpp:382] ip1 -> ip1
I0428 19:31:15.205080 22527 net.cpp:124] Setting up ip1
I0428 19:31:15.205091 22527 net.cpp:131] Top shape: 100 50 (5000)
I0428 19:31:15.205096 22527 net.cpp:139] Memory required for data: 1774800
I0428 19:31:15.205109 22527 layer_factory.hpp:77] Creating layer relu1
I0428 19:31:15.205119 22527 net.cpp:86] Creating Layer relu1
I0428 19:31:15.205126 22527 net.cpp:408] relu1 <- ip1
I0428 19:31:15.205132 22527 net.cpp:369] relu1 -> ip1 (in-place)
I0428 19:31:15.205375 22527 net.cpp:124] Setting up relu1
I0428 19:31:15.205384 22527 net.cpp:131] Top shape: 100 50 (5000)
I0428 19:31:15.205391 22527 net.cpp:139] Memory required for data: 1794800
I0428 19:31:15.205396 22527 layer_factory.hpp:77] Creating layer ip2
I0428 19:31:15.205405 22527 net.cpp:86] Creating Layer ip2
I0428 19:31:15.205410 22527 net.cpp:408] ip2 <- ip1
I0428 19:31:15.205421 22527 net.cpp:382] ip2 -> ip2
I0428 19:31:15.205549 22527 net.cpp:124] Setting up ip2
I0428 19:31:15.205557 22527 net.cpp:131] Top shape: 100 50 (5000)
I0428 19:31:15.205561 22527 net.cpp:139] Memory required for data: 1814800
I0428 19:31:15.205590 22527 layer_factory.hpp:77] Creating layer relu2
I0428 19:31:15.205598 22527 net.cpp:86] Creating Layer relu2
I0428 19:31:15.205608 22527 net.cpp:408] relu2 <- ip2
I0428 19:31:15.205616 22527 net.cpp:369] relu2 -> ip2 (in-place)
I0428 19:31:15.206423 22527 net.cpp:124] Setting up relu2
I0428 19:31:15.206436 22527 net.cpp:131] Top shape: 100 50 (5000)
I0428 19:31:15.206441 22527 net.cpp:139] Memory required for data: 1834800
I0428 19:31:15.206446 22527 layer_factory.hpp:77] Creating layer ip3
I0428 19:31:15.206459 22527 net.cpp:86] Creating Layer ip3
I0428 19:31:15.206465 22527 net.cpp:408] ip3 <- ip2
I0428 19:31:15.206473 22527 net.cpp:382] ip3 -> ip3
I0428 19:31:15.206588 22527 net.cpp:124] Setting up ip3
I0428 19:31:15.206598 22527 net.cpp:131] Top shape: 100 10 (1000)
I0428 19:31:15.206604 22527 net.cpp:139] Memory required for data: 1838800
I0428 19:31:15.206614 22527 layer_factory.hpp:77] Creating layer relu3
I0428 19:31:15.206624 22527 net.cpp:86] Creating Layer relu3
I0428 19:31:15.206629 22527 net.cpp:408] relu3 <- ip3
I0428 19:31:15.206636 22527 net.cpp:369] relu3 -> ip3 (in-place)
I0428 19:31:15.206814 22527 net.cpp:124] Setting up relu3
I0428 19:31:15.206825 22527 net.cpp:131] Top shape: 100 10 (1000)
I0428 19:31:15.206830 22527 net.cpp:139] Memory required for data: 1842800
I0428 19:31:15.206835 22527 layer_factory.hpp:77] Creating layer ip3_relu3_0_split
I0428 19:31:15.206845 22527 net.cpp:86] Creating Layer ip3_relu3_0_split
I0428 19:31:15.206849 22527 net.cpp:408] ip3_relu3_0_split <- ip3
I0428 19:31:15.206856 22527 net.cpp:382] ip3_relu3_0_split -> ip3_relu3_0_split_0
I0428 19:31:15.206873 22527 net.cpp:382] ip3_relu3_0_split -> ip3_relu3_0_split_1
I0428 19:31:15.206918 22527 net.cpp:124] Setting up ip3_relu3_0_split
I0428 19:31:15.206925 22527 net.cpp:131] Top shape: 100 10 (1000)
I0428 19:31:15.206931 22527 net.cpp:131] Top shape: 100 10 (1000)
I0428 19:31:15.206948 22527 net.cpp:139] Memory required for data: 1850800
I0428 19:31:15.206954 22527 layer_factory.hpp:77] Creating layer accuracy
I0428 19:31:15.206962 22527 net.cpp:86] Creating Layer accuracy
I0428 19:31:15.206974 22527 net.cpp:408] accuracy <- ip3_relu3_0_split_0
I0428 19:31:15.206995 22527 net.cpp:408] accuracy <- label_mnist_1_split_0
I0428 19:31:15.207006 22527 net.cpp:382] accuracy -> accuracy
…
