…
I0428 19:47:20.982249 26168 net.cpp:296] The NetState phase (0) differed from the phase (1) specified by a rule in layer mnist
I0428 19:47:20.982271 26168 net.cpp:296] The NetState phase (0) differed from the phase (1) specified by a rule in layer accuracy
I0428 19:47:20.982378 26168 net.cpp:53] Initializing net from parameters: 
name: "LeNet"
state {
  phase: TRAIN
  level: 0
  stage: ""
}
layer {
  name: "mnist"
  type: "Data"
  top: "data"
  top: "label"
  include {
    phase: TRAIN
  }
  transform_param {
    scale: 0.00390625
  }
  data_param {
    source: "examples/mnist/mnist_train_lmdb"
    batch_size: 64
    backend: LMDB
  }
}
layer {
  name: "conv0"
  type: "Convolution"
  bottom: "data"
  top: "conv0"
  param {
    lr_mult: 1
  }
  param {
    lr_mult: 2
  }
  convolution_param {
    num_output: 5
    kernel_size: 5
    stride: 1
    weight_filler {
      type: "xavier"
    }
    bias_filler {
      type: "constant"
    }
  }
}
layer {
  name: "pool0"
  type: "Pooling"
  bottom: "conv0"
  top: "pool0"
  pooling_param {
    pool: MAX
    kernel_size: 2
    stride: 2
  }
}
layer {
  name: "conv1"
  type: "Convolution"
  bottom: "pool0"
  top: "conv1"
  param {
    lr_mult: 1
  }
  param {
    lr_mult: 2
  }
  convolution_param {
    num_output: 2
    kernel_size: 5
    stride: 1
    weight_filler {
      type: "xavier"
    }
    bias_filler {
      type: "constant"
    }
  }
}
layer {
  name: "pool1"
  type: "Pooling"
  bottom: "conv1"
  top: "pool1"
  pooling_param {
    pool: MAX
    kernel_size: 2
    stride: 2
  }
}
layer {
  name: "ip1"
  type: "InnerProduct"
  bottom: "pool1"
  top: "ip1"
  param {
    lr_mult: 1
  }
  param {
    lr_mult: 2
  }
  inner_product_param {
    num_output: 10
    weight_filler {
      type: "xavier"
    }
    bias_filler {
      type: "constant"
    }
  }
}
layer {
  name: "relu1"
  type: "ReLU"
  bottom: "ip1"
  top: "ip1"
}
layer {
  name: "ip2"
  type: "InnerProduct"
  bottom: "ip1"
  top: "ip2"
  param {
    lr_mult: 1
  }
  param {
    lr_mult: 2
  }
  inner_product_param {
    num_output: 10
    weight_filler {
      type: "xavier"
    }
    bias_filler {
      type: "constant"
    }
  }
}
layer {
  name: "relu2"
  type: "ReLU"
  bottom: "ip2"
  top: "ip2"
}
layer {
  name: "loss"
  type: "SoftmaxWithLoss"
  bottom: "ip2"
  bottom: "label"
  top: "loss"
}
I0428 19:47:20.982487 26168 layer_factory.hpp:77] Creating layer mnist
I0428 19:47:20.982620 26168 db_lmdb.cpp:35] Opened lmdb examples/mnist/mnist_train_lmdb
I0428 19:47:20.982651 26168 net.cpp:86] Creating Layer mnist
I0428 19:47:20.982666 26168 net.cpp:382] mnist -> data
I0428 19:47:20.982697 26168 net.cpp:382] mnist -> label
I0428 19:47:20.983932 26168 data_layer.cpp:45] output data size: 64,1,28,28
I0428 19:47:20.986428 26168 net.cpp:124] Setting up mnist
I0428 19:47:20.986449 26168 net.cpp:131] Top shape: 64 1 28 28 (50176)
I0428 19:47:20.986459 26168 net.cpp:131] Top shape: 64 (64)
I0428 19:47:20.986464 26168 net.cpp:139] Memory required for data: 200960
I0428 19:47:20.986475 26168 layer_factory.hpp:77] Creating layer conv0
I0428 19:47:20.986500 26168 net.cpp:86] Creating Layer conv0
I0428 19:47:20.986510 26168 net.cpp:408] conv0 <- data
I0428 19:47:20.986532 26168 net.cpp:382] conv0 -> conv0
I0428 19:47:21.276556 26168 net.cpp:124] Setting up conv0
I0428 19:47:21.276592 26168 net.cpp:131] Top shape: 64 5 24 24 (184320)
I0428 19:47:21.276598 26168 net.cpp:139] Memory required for data: 938240
I0428 19:47:21.276651 26168 layer_factory.hpp:77] Creating layer pool0
I0428 19:47:21.276674 26168 net.cpp:86] Creating Layer pool0
I0428 19:47:21.276684 26168 net.cpp:408] pool0 <- conv0
I0428 19:47:21.276695 26168 net.cpp:382] pool0 -> pool0
I0428 19:47:21.276764 26168 net.cpp:124] Setting up pool0
I0428 19:47:21.276775 26168 net.cpp:131] Top shape: 64 5 12 12 (46080)
I0428 19:47:21.276782 26168 net.cpp:139] Memory required for data: 1122560
I0428 19:47:21.276788 26168 layer_factory.hpp:77] Creating layer conv1
I0428 19:47:21.276808 26168 net.cpp:86] Creating Layer conv1
I0428 19:47:21.276824 26168 net.cpp:408] conv1 <- pool0
I0428 19:47:21.276836 26168 net.cpp:382] conv1 -> conv1
I0428 19:47:21.279026 26168 net.cpp:124] Setting up conv1
I0428 19:47:21.279045 26168 net.cpp:131] Top shape: 64 2 8 8 (8192)
I0428 19:47:21.279052 26168 net.cpp:139] Memory required for data: 1155328
I0428 19:47:21.279068 26168 layer_factory.hpp:77] Creating layer pool1
I0428 19:47:21.279085 26168 net.cpp:86] Creating Layer pool1
I0428 19:47:21.279098 26168 net.cpp:408] pool1 <- conv1
I0428 19:47:21.279109 26168 net.cpp:382] pool1 -> pool1
I0428 19:47:21.279170 26168 net.cpp:124] Setting up pool1
I0428 19:47:21.279181 26168 net.cpp:131] Top shape: 64 2 4 4 (2048)
I0428 19:47:21.279187 26168 net.cpp:139] Memory required for data: 1163520
I0428 19:47:21.279193 26168 layer_factory.hpp:77] Creating layer ip1
I0428 19:47:21.279208 26168 net.cpp:86] Creating Layer ip1
I0428 19:47:21.279217 26168 net.cpp:408] ip1 <- pool1
I0428 19:47:21.279227 26168 net.cpp:382] ip1 -> ip1
I0428 19:47:21.279355 26168 net.cpp:124] Setting up ip1
I0428 19:47:21.279366 26168 net.cpp:131] Top shape: 64 10 (640)
I0428 19:47:21.279371 26168 net.cpp:139] Memory required for data: 1166080
I0428 19:47:21.279386 26168 layer_factory.hpp:77] Creating layer relu1
I0428 19:47:21.279398 26168 net.cpp:86] Creating Layer relu1
I0428 19:47:21.279407 26168 net.cpp:408] relu1 <- ip1
I0428 19:47:21.279415 26168 net.cpp:369] relu1 -> ip1 (in-place)
I0428 19:47:21.279631 26168 net.cpp:124] Setting up relu1
I0428 19:47:21.279644 26168 net.cpp:131] Top shape: 64 10 (640)
I0428 19:47:21.279650 26168 net.cpp:139] Memory required for data: 1168640
I0428 19:47:21.279657 26168 layer_factory.hpp:77] Creating layer ip2
I0428 19:47:21.279671 26168 net.cpp:86] Creating Layer ip2
I0428 19:47:21.279678 26168 net.cpp:408] ip2 <- ip1
I0428 19:47:21.279687 26168 net.cpp:382] ip2 -> ip2
I0428 19:47:21.279814 26168 net.cpp:124] Setting up ip2
I0428 19:47:21.279824 26168 net.cpp:131] Top shape: 64 10 (640)
I0428 19:47:21.279830 26168 net.cpp:139] Memory required for data: 1171200
I0428 19:47:21.279841 26168 layer_factory.hpp:77] Creating layer relu2
I0428 19:47:21.279855 26168 net.cpp:86] Creating Layer relu2
I0428 19:47:21.279862 26168 net.cpp:408] relu2 <- ip2
I0428 19:47:21.279871 26168 net.cpp:369] relu2 -> ip2 (in-place)
I0428 19:47:21.280737 26168 net.cpp:124] Setting up relu2
I0428 19:47:21.280755 26168 net.cpp:131] Top shape: 64 10 (640)
I0428 19:47:21.280762 26168 net.cpp:139] Memory required for data: 1173760
I0428 19:47:21.280769 26168 layer_factory.hpp:77] Creating layer loss
I0428 19:47:21.280781 26168 net.cpp:86] Creating Layer loss
I0428 19:47:21.280787 26168 net.cpp:408] loss <- ip2
I0428 19:47:21.280797 26168 net.cpp:408] loss <- label
I0428 19:47:21.280807 26168 net.cpp:382] loss -> loss
I0428 19:47:21.280844 26168 layer_factory.hpp:77] Creating layer loss
…
I0428 19:47:21.281647 26168 solver.cpp:173] Creating test net (#0) specified by net file: ECE595/mnist/train_test/var_everything2/lenet_train_test512.prototxt
I0428 19:47:21.281687 26168 net.cpp:296] The NetState phase (1) differed from the phase (0) specified by a rule in layer mnist
I0428 19:47:21.281796 26168 net.cpp:53] Initializing net from parameters: 
name: "LeNet"
state {
  phase: TEST
}
layer {
  name: "mnist"
  type: "Data"
  top: "data"
  top: "label"
  include {
    phase: TEST
  }
  transform_param {
    scale: 0.00390625
  }
  data_param {
    source: "examples/mnist/mnist_test_lmdb"
    batch_size: 100
    backend: LMDB
  }
}
layer {
  name: "conv0"
  type: "Convolution"
  bottom: "data"
  top: "conv0"
  param {
    lr_mult: 1
  }
  param {
    lr_mult: 2
  }
  convolution_param {
    num_output: 5
    kernel_size: 5
    stride: 1
    weight_filler {
      type: "xavier"
    }
    bias_filler {
      type: "constant"
    }
  }
}
layer {
  name: "pool0"
  type: "Pooling"
  bottom: "conv0"
  top: "pool0"
  pooling_param {
    pool: MAX
    kernel_size: 2
    stride: 2
  }
}
layer {
  name: "conv1"
  type: "Convolution"
  bottom: "pool0"
  top: "conv1"
  param {
    lr_mult: 1
  }
  param {
    lr_mult: 2
  }
  convolution_param {
    num_output: 2
    kernel_size: 5
    stride: 1
    weight_filler {
      type: "xavier"
    }
    bias_filler {
      type: "constant"
    }
  }
}
layer {
  name: "pool1"
  type: "Pooling"
  bottom: "conv1"
  top: "pool1"
  pooling_param {
    pool: MAX
    kernel_size: 2
    stride: 2
  }
}
layer {
  name: "ip1"
  type: "InnerProduct"
  bottom: "pool1"
  top: "ip1"
  param {
    lr_mult: 1
  }
  param {
    lr_mult: 2
  }
  inner_product_param {
    num_output: 10
    weight_filler {
      type: "xavier"
    }
    bias_filler {
      type: "constant"
    }
  }
}
layer {
  name: "relu1"
  type: "ReLU"
  bottom: "ip1"
  top: "ip1"
}
layer {
  name: "ip2"
  type: "InnerProduct"
  bottom: "ip1"
  top: "ip2"
  param {
    lr_mult: 1
  }
  param {
    lr_mult: 2
  }
  inner_product_param {
    num_output: 10
    weight_filler {
      type: "xavier"
    }
    bias_filler {
      type: "constant"
    }
  }
}
layer {
  name: "relu2"
  type: "ReLU"
  bottom: "ip2"
  top: "ip2"
}
layer {
  name: "accuracy"
  type: "Accuracy"
  bottom: "ip2"
  bottom: "label"
  top: "accuracy"
  include {
    phase: TEST
  }
}
layer {
  name: "loss"
  type: "SoftmaxWithLoss"
  bottom: "ip2"
  bottom: "label"
  top: "loss"
}
I0428 19:47:21.281919 26168 layer_factory.hpp:77] Creating layer mnist
I0428 19:47:21.281987 26168 db_lmdb.cpp:35] Opened lmdb examples/mnist/mnist_test_lmdb
I0428 19:47:21.282009 26168 net.cpp:86] Creating Layer mnist
I0428 19:47:21.282018 26168 net.cpp:382] mnist -> data
I0428 19:47:21.282032 26168 net.cpp:382] mnist -> label
I0428 19:47:21.282183 26168 data_layer.cpp:45] output data size: 100,1,28,28
I0428 19:47:21.284539 26168 net.cpp:124] Setting up mnist
I0428 19:47:21.284557 26168 net.cpp:131] Top shape: 100 1 28 28 (78400)
I0428 19:47:21.284567 26168 net.cpp:131] Top shape: 100 (100)
I0428 19:47:21.284574 26168 net.cpp:139] Memory required for data: 314000
I0428 19:47:21.284580 26168 layer_factory.hpp:77] Creating layer label_mnist_1_split
I0428 19:47:21.284600 26168 net.cpp:86] Creating Layer label_mnist_1_split
I0428 19:47:21.284610 26168 net.cpp:408] label_mnist_1_split <- label
I0428 19:47:21.284620 26168 net.cpp:382] label_mnist_1_split -> label_mnist_1_split_0
I0428 19:47:21.284632 26168 net.cpp:382] label_mnist_1_split -> label_mnist_1_split_1
I0428 19:47:21.284715 26168 net.cpp:124] Setting up label_mnist_1_split
I0428 19:47:21.284736 26168 net.cpp:131] Top shape: 100 (100)
I0428 19:47:21.284745 26168 net.cpp:131] Top shape: 100 (100)
I0428 19:47:21.284750 26168 net.cpp:139] Memory required for data: 314800
I0428 19:47:21.284757 26168 layer_factory.hpp:77] Creating layer conv0
I0428 19:47:21.284775 26168 net.cpp:86] Creating Layer conv0
I0428 19:47:21.284783 26168 net.cpp:408] conv0 <- data
I0428 19:47:21.284796 26168 net.cpp:382] conv0 -> conv0
I0428 19:47:21.286557 26168 net.cpp:124] Setting up conv0
I0428 19:47:21.286577 26168 net.cpp:131] Top shape: 100 5 24 24 (288000)
I0428 19:47:21.286586 26168 net.cpp:139] Memory required for data: 1466800
I0428 19:47:21.286607 26168 layer_factory.hpp:77] Creating layer pool0
I0428 19:47:21.286620 26168 net.cpp:86] Creating Layer pool0
I0428 19:47:21.286629 26168 net.cpp:408] pool0 <- conv0
I0428 19:47:21.286639 26168 net.cpp:382] pool0 -> pool0
I0428 19:47:21.286692 26168 net.cpp:124] Setting up pool0
I0428 19:47:21.286703 26168 net.cpp:131] Top shape: 100 5 12 12 (72000)
I0428 19:47:21.286710 26168 net.cpp:139] Memory required for data: 1754800
I0428 19:47:21.286716 26168 layer_factory.hpp:77] Creating layer conv1
I0428 19:47:21.286734 26168 net.cpp:86] Creating Layer conv1
I0428 19:47:21.286741 26168 net.cpp:408] conv1 <- pool0
I0428 19:47:21.286756 26168 net.cpp:382] conv1 -> conv1
I0428 19:47:21.289110 26168 net.cpp:124] Setting up conv1
I0428 19:47:21.289129 26168 net.cpp:131] Top shape: 100 2 8 8 (12800)
I0428 19:47:21.289135 26168 net.cpp:139] Memory required for data: 1806000
I0428 19:47:21.289152 26168 layer_factory.hpp:77] Creating layer pool1
I0428 19:47:21.289165 26168 net.cpp:86] Creating Layer pool1
I0428 19:47:21.289171 26168 net.cpp:408] pool1 <- conv1
I0428 19:47:21.289185 26168 net.cpp:382] pool1 -> pool1
I0428 19:47:21.289268 26168 net.cpp:124] Setting up pool1
I0428 19:47:21.289280 26168 net.cpp:131] Top shape: 100 2 4 4 (3200)
I0428 19:47:21.289285 26168 net.cpp:139] Memory required for data: 1818800
I0428 19:47:21.289291 26168 layer_factory.hpp:77] Creating layer ip1
I0428 19:47:21.289306 26168 net.cpp:86] Creating Layer ip1
I0428 19:47:21.289314 26168 net.cpp:408] ip1 <- pool1
I0428 19:47:21.289326 26168 net.cpp:382] ip1 -> ip1
I0428 19:47:21.289461 26168 net.cpp:124] Setting up ip1
I0428 19:47:21.289472 26168 net.cpp:131] Top shape: 100 10 (1000)
I0428 19:47:21.289479 26168 net.cpp:139] Memory required for data: 1822800
I0428 19:47:21.289494 26168 layer_factory.hpp:77] Creating layer relu1
I0428 19:47:21.289504 26168 net.cpp:86] Creating Layer relu1
I0428 19:47:21.289512 26168 net.cpp:408] relu1 <- ip1
I0428 19:47:21.289525 26168 net.cpp:369] relu1 -> ip1 (in-place)
I0428 19:47:21.289736 26168 net.cpp:124] Setting up relu1
I0428 19:47:21.289748 26168 net.cpp:131] Top shape: 100 10 (1000)
I0428 19:47:21.289755 26168 net.cpp:139] Memory required for data: 1826800
I0428 19:47:21.289767 26168 layer_factory.hpp:77] Creating layer ip2
I0428 19:47:21.289780 26168 net.cpp:86] Creating Layer ip2
I0428 19:47:21.289788 26168 net.cpp:408] ip2 <- ip1
I0428 19:47:21.289801 26168 net.cpp:382] ip2 -> ip2
I0428 19:47:21.289930 26168 net.cpp:124] Setting up ip2
I0428 19:47:21.289942 26168 net.cpp:131] Top shape: 100 10 (1000)
I0428 19:47:21.289948 26168 net.cpp:139] Memory required for data: 1830800
I0428 19:47:21.289959 26168 layer_factory.hpp:77] Creating layer relu2
I0428 19:47:21.289969 26168 net.cpp:86] Creating Layer relu2
I0428 19:47:21.289980 26168 net.cpp:408] relu2 <- ip2
I0428 19:47:21.289991 26168 net.cpp:369] relu2 -> ip2 (in-place)
I0428 19:47:21.290235 26168 net.cpp:124] Setting up relu2
I0428 19:47:21.290247 26168 net.cpp:131] Top shape: 100 10 (1000)
I0428 19:47:21.290253 26168 net.cpp:139] Memory required for data: 1834800
I0428 19:47:21.290261 26168 layer_factory.hpp:77] Creating layer ip2_relu2_0_split
I0428 19:47:21.290271 26168 net.cpp:86] Creating Layer ip2_relu2_0_split
I0428 19:47:21.290280 26168 net.cpp:408] ip2_relu2_0_split <- ip2
I0428 19:47:21.290289 26168 net.cpp:382] ip2_relu2_0_split -> ip2_relu2_0_split_0
I0428 19:47:21.290314 26168 net.cpp:382] ip2_relu2_0_split -> ip2_relu2_0_split_1
I0428 19:47:21.290369 26168 net.cpp:124] Setting up ip2_relu2_0_split
I0428 19:47:21.290380 26168 net.cpp:131] Top shape: 100 10 (1000)
I0428 19:47:21.290390 26168 net.cpp:131] Top shape: 100 10 (1000)
I0428 19:47:21.290395 26168 net.cpp:139] Memory required for data: 1842800
I0428 19:47:21.290401 26168 layer_factory.hpp:77] Creating layer accuracy
I0428 19:47:21.290411 26168 net.cpp:86] Creating Layer accuracy
I0428 19:47:21.290417 26168 net.cpp:408] accuracy <- ip2_relu2_0_split_0
I0428 19:47:21.290426 26168 net.cpp:408] accuracy <- label_mnist_1_split_0
I0428 19:47:21.290436 26168 net.cpp:382] accuracy -> accuracy
…
