…
I0428 20:21:03.628628  1684 net.cpp:296] The NetState phase (0) differed from the phase (1) specified by a rule in layer mnist
I0428 20:21:03.628648  1684 net.cpp:296] The NetState phase (0) differed from the phase (1) specified by a rule in layer accuracy
I0428 20:21:03.628737  1684 net.cpp:53] Initializing net from parameters: 
name: "LeNet"
state {
  phase: TRAIN
  level: 0
  stage: ""
}
layer {
  name: "mnist"
  type: "Data"
  top: "data"
  top: "label"
  include {
    phase: TRAIN
  }
  transform_param {
    scale: 0.00390625
  }
  data_param {
    source: "examples/mnist/mnist_train_lmdb"
    batch_size: 64
    backend: LMDB
  }
}
layer {
  name: "conv0"
  type: "Convolution"
  bottom: "data"
  top: "conv0"
  param {
    lr_mult: 1
  }
  param {
    lr_mult: 2
  }
  convolution_param {
    num_output: 50
    kernel_size: 5
    stride: 1
    weight_filler {
      type: "xavier"
    }
    bias_filler {
      type: "constant"
    }
  }
}
layer {
  name: "pool0"
  type: "Pooling"
  bottom: "conv0"
  top: "pool0"
  pooling_param {
    pool: MAX
    kernel_size: 2
    stride: 2
  }
}
layer {
  name: "conv1"
  type: "Convolution"
  bottom: "pool0"
  top: "conv1"
  param {
    lr_mult: 1
  }
  param {
    lr_mult: 2
  }
  convolution_param {
    num_output: 50
    kernel_size: 5
    stride: 1
    weight_filler {
      type: "xavier"
    }
    bias_filler {
      type: "constant"
    }
  }
}
layer {
  name: "pool1"
  type: "Pooling"
  bottom: "conv1"
  top: "pool1"
  pooling_param {
    pool: MAX
    kernel_size: 2
    stride: 2
  }
}
layer {
  name: "ip1"
  type: "InnerProduct"
  bottom: "pool1"
  top: "ip1"
  param {
    lr_mult: 1
  }
  param {
    lr_mult: 2
  }
  inner_product_param {
    num_output: 50
    weight_filler {
      type: "xavier"
    }
    bias_filler {
      type: "constant"
    }
  }
}
layer {
  name: "relu1"
  type: "ReLU"
  bottom: "ip1"
  top: "ip1"
}
layer {
  name: "ip2"
  type: "InnerProduct"
  bottom: "ip1"
  top: "ip2"
  param {
    lr_mult: 1
  }
  param {
    lr_mult: 2
  }
  inner_product_param {
    num_output: 10
    weight_filler {
      type: "xavier"
    }
    bias_filler {
      type: "constant"
    }
  }
}
layer {
  name: "relu2"
  type: "ReLU"
  bottom: "ip2"
  top: "ip2"
}
layer {
  name: "loss"
  type: "SoftmaxWithLoss"
  bottom: "ip2"
  bottom: "label"
  top: "loss"
}
I0428 20:21:03.628821  1684 layer_factory.hpp:77] Creating layer mnist
I0428 20:21:03.628927  1684 db_lmdb.cpp:35] Opened lmdb examples/mnist/mnist_train_lmdb
I0428 20:21:03.628952  1684 net.cpp:86] Creating Layer mnist
I0428 20:21:03.628958  1684 net.cpp:382] mnist -> data
I0428 20:21:03.628985  1684 net.cpp:382] mnist -> label
I0428 20:21:03.630074  1684 data_layer.cpp:45] output data size: 64,1,28,28
I0428 20:21:03.632740  1684 net.cpp:124] Setting up mnist
I0428 20:21:03.632760  1684 net.cpp:131] Top shape: 64 1 28 28 (50176)
I0428 20:21:03.632766  1684 net.cpp:131] Top shape: 64 (64)
I0428 20:21:03.632769  1684 net.cpp:139] Memory required for data: 200960
I0428 20:21:03.632776  1684 layer_factory.hpp:77] Creating layer conv0
I0428 20:21:03.632797  1684 net.cpp:86] Creating Layer conv0
I0428 20:21:03.632802  1684 net.cpp:408] conv0 <- data
I0428 20:21:03.632823  1684 net.cpp:382] conv0 -> conv0
I0428 20:21:03.918083  1684 net.cpp:124] Setting up conv0
I0428 20:21:03.918110  1684 net.cpp:131] Top shape: 64 50 24 24 (1843200)
I0428 20:21:03.918115  1684 net.cpp:139] Memory required for data: 7573760
I0428 20:21:03.918151  1684 layer_factory.hpp:77] Creating layer pool0
I0428 20:21:03.918164  1684 net.cpp:86] Creating Layer pool0
I0428 20:21:03.918169  1684 net.cpp:408] pool0 <- conv0
I0428 20:21:03.918174  1684 net.cpp:382] pool0 -> pool0
I0428 20:21:03.918221  1684 net.cpp:124] Setting up pool0
I0428 20:21:03.918227  1684 net.cpp:131] Top shape: 64 50 12 12 (460800)
I0428 20:21:03.918231  1684 net.cpp:139] Memory required for data: 9416960
I0428 20:21:03.918234  1684 layer_factory.hpp:77] Creating layer conv1
I0428 20:21:03.918244  1684 net.cpp:86] Creating Layer conv1
I0428 20:21:03.918247  1684 net.cpp:408] conv1 <- pool0
I0428 20:21:03.918252  1684 net.cpp:382] conv1 -> conv1
I0428 20:21:03.920490  1684 net.cpp:124] Setting up conv1
I0428 20:21:03.920506  1684 net.cpp:131] Top shape: 64 50 8 8 (204800)
I0428 20:21:03.920509  1684 net.cpp:139] Memory required for data: 10236160
I0428 20:21:03.920517  1684 layer_factory.hpp:77] Creating layer pool1
I0428 20:21:03.920524  1684 net.cpp:86] Creating Layer pool1
I0428 20:21:03.920528  1684 net.cpp:408] pool1 <- conv1
I0428 20:21:03.920533  1684 net.cpp:382] pool1 -> pool1
I0428 20:21:03.920584  1684 net.cpp:124] Setting up pool1
I0428 20:21:03.920590  1684 net.cpp:131] Top shape: 64 50 4 4 (51200)
I0428 20:21:03.920593  1684 net.cpp:139] Memory required for data: 10440960
I0428 20:21:03.920596  1684 layer_factory.hpp:77] Creating layer ip1
I0428 20:21:03.920603  1684 net.cpp:86] Creating Layer ip1
I0428 20:21:03.920608  1684 net.cpp:408] ip1 <- pool1
I0428 20:21:03.920611  1684 net.cpp:382] ip1 -> ip1
I0428 20:21:03.920996  1684 net.cpp:124] Setting up ip1
I0428 20:21:03.921005  1684 net.cpp:131] Top shape: 64 50 (3200)
I0428 20:21:03.921025  1684 net.cpp:139] Memory required for data: 10453760
I0428 20:21:03.921032  1684 layer_factory.hpp:77] Creating layer relu1
I0428 20:21:03.921038  1684 net.cpp:86] Creating Layer relu1
I0428 20:21:03.921041  1684 net.cpp:408] relu1 <- ip1
I0428 20:21:03.921046  1684 net.cpp:369] relu1 -> ip1 (in-place)
I0428 20:21:03.921241  1684 net.cpp:124] Setting up relu1
I0428 20:21:03.921249  1684 net.cpp:131] Top shape: 64 50 (3200)
I0428 20:21:03.921252  1684 net.cpp:139] Memory required for data: 10466560
I0428 20:21:03.921255  1684 layer_factory.hpp:77] Creating layer ip2
I0428 20:21:03.921262  1684 net.cpp:86] Creating Layer ip2
I0428 20:21:03.921265  1684 net.cpp:408] ip2 <- ip1
I0428 20:21:03.921270  1684 net.cpp:382] ip2 -> ip2
I0428 20:21:03.921365  1684 net.cpp:124] Setting up ip2
I0428 20:21:03.921372  1684 net.cpp:131] Top shape: 64 10 (640)
I0428 20:21:03.921375  1684 net.cpp:139] Memory required for data: 10469120
I0428 20:21:03.921381  1684 layer_factory.hpp:77] Creating layer relu2
I0428 20:21:03.921387  1684 net.cpp:86] Creating Layer relu2
I0428 20:21:03.921391  1684 net.cpp:408] relu2 <- ip2
I0428 20:21:03.921394  1684 net.cpp:369] relu2 -> ip2 (in-place)
I0428 20:21:03.922166  1684 net.cpp:124] Setting up relu2
I0428 20:21:03.922178  1684 net.cpp:131] Top shape: 64 10 (640)
I0428 20:21:03.922183  1684 net.cpp:139] Memory required for data: 10471680
I0428 20:21:03.922185  1684 layer_factory.hpp:77] Creating layer loss
I0428 20:21:03.922191  1684 net.cpp:86] Creating Layer loss
I0428 20:21:03.922195  1684 net.cpp:408] loss <- ip2
I0428 20:21:03.922199  1684 net.cpp:408] loss <- label
I0428 20:21:03.922204  1684 net.cpp:382] loss -> loss
I0428 20:21:03.922226  1684 layer_factory.hpp:77] Creating layer loss
…
I0428 20:21:03.922847  1684 solver.cpp:173] Creating test net (#0) specified by net file: ECE595/mnist/train_test/var_everything2/lenet_train_test1376.prototxt
I0428 20:21:03.922884  1684 net.cpp:296] The NetState phase (1) differed from the phase (0) specified by a rule in layer mnist
I0428 20:21:03.922978  1684 net.cpp:53] Initializing net from parameters: 
name: "LeNet"
state {
  phase: TEST
}
layer {
  name: "mnist"
  type: "Data"
  top: "data"
  top: "label"
  include {
    phase: TEST
  }
  transform_param {
    scale: 0.00390625
  }
  data_param {
    source: "examples/mnist/mnist_test_lmdb"
    batch_size: 100
    backend: LMDB
  }
}
layer {
  name: "conv0"
  type: "Convolution"
  bottom: "data"
  top: "conv0"
  param {
    lr_mult: 1
  }
  param {
    lr_mult: 2
  }
  convolution_param {
    num_output: 50
    kernel_size: 5
    stride: 1
    weight_filler {
      type: "xavier"
    }
    bias_filler {
      type: "constant"
    }
  }
}
layer {
  name: "pool0"
  type: "Pooling"
  bottom: "conv0"
  top: "pool0"
  pooling_param {
    pool: MAX
    kernel_size: 2
    stride: 2
  }
}
layer {
  name: "conv1"
  type: "Convolution"
  bottom: "pool0"
  top: "conv1"
  param {
    lr_mult: 1
  }
  param {
    lr_mult: 2
  }
  convolution_param {
    num_output: 50
    kernel_size: 5
    stride: 1
    weight_filler {
      type: "xavier"
    }
    bias_filler {
      type: "constant"
    }
  }
}
layer {
  name: "pool1"
  type: "Pooling"
  bottom: "conv1"
  top: "pool1"
  pooling_param {
    pool: MAX
    kernel_size: 2
    stride: 2
  }
}
layer {
  name: "ip1"
  type: "InnerProduct"
  bottom: "pool1"
  top: "ip1"
  param {
    lr_mult: 1
  }
  param {
    lr_mult: 2
  }
  inner_product_param {
    num_output: 50
    weight_filler {
      type: "xavier"
    }
    bias_filler {
      type: "constant"
    }
  }
}
layer {
  name: "relu1"
  type: "ReLU"
  bottom: "ip1"
  top: "ip1"
}
layer {
  name: "ip2"
  type: "InnerProduct"
  bottom: "ip1"
  top: "ip2"
  param {
    lr_mult: 1
  }
  param {
    lr_mult: 2
  }
  inner_product_param {
    num_output: 10
    weight_filler {
      type: "xavier"
    }
    bias_filler {
      type: "constant"
    }
  }
}
layer {
  name: "relu2"
  type: "ReLU"
  bottom: "ip2"
  top: "ip2"
}
layer {
  name: "accuracy"
  type: "Accuracy"
  bottom: "ip2"
  bottom: "label"
  top: "accuracy"
  include {
    phase: TEST
  }
}
layer {
  name: "loss"
  type: "SoftmaxWithLoss"
  bottom: "ip2"
  bottom: "label"
  top: "loss"
}
I0428 20:21:03.923041  1684 layer_factory.hpp:77] Creating layer mnist
I0428 20:21:03.923087  1684 db_lmdb.cpp:35] Opened lmdb examples/mnist/mnist_test_lmdb
I0428 20:21:03.923100  1684 net.cpp:86] Creating Layer mnist
I0428 20:21:03.923105  1684 net.cpp:382] mnist -> data
I0428 20:21:03.923112  1684 net.cpp:382] mnist -> label
I0428 20:21:03.923197  1684 data_layer.cpp:45] output data size: 100,1,28,28
I0428 20:21:03.925144  1684 net.cpp:124] Setting up mnist
I0428 20:21:03.925158  1684 net.cpp:131] Top shape: 100 1 28 28 (78400)
I0428 20:21:03.925179  1684 net.cpp:131] Top shape: 100 (100)
I0428 20:21:03.925182  1684 net.cpp:139] Memory required for data: 314000
I0428 20:21:03.925186  1684 layer_factory.hpp:77] Creating layer label_mnist_1_split
I0428 20:21:03.925212  1684 net.cpp:86] Creating Layer label_mnist_1_split
I0428 20:21:03.925216  1684 net.cpp:408] label_mnist_1_split <- label
I0428 20:21:03.925222  1684 net.cpp:382] label_mnist_1_split -> label_mnist_1_split_0
I0428 20:21:03.925230  1684 net.cpp:382] label_mnist_1_split -> label_mnist_1_split_1
I0428 20:21:03.925293  1684 net.cpp:124] Setting up label_mnist_1_split
I0428 20:21:03.925302  1684 net.cpp:131] Top shape: 100 (100)
I0428 20:21:03.925307  1684 net.cpp:131] Top shape: 100 (100)
I0428 20:21:03.925310  1684 net.cpp:139] Memory required for data: 314800
I0428 20:21:03.925313  1684 layer_factory.hpp:77] Creating layer conv0
I0428 20:21:03.925323  1684 net.cpp:86] Creating Layer conv0
I0428 20:21:03.925326  1684 net.cpp:408] conv0 <- data
I0428 20:21:03.925333  1684 net.cpp:382] conv0 -> conv0
I0428 20:21:03.927083  1684 net.cpp:124] Setting up conv0
I0428 20:21:03.927098  1684 net.cpp:131] Top shape: 100 50 24 24 (2880000)
I0428 20:21:03.927101  1684 net.cpp:139] Memory required for data: 11834800
I0428 20:21:03.927111  1684 layer_factory.hpp:77] Creating layer pool0
I0428 20:21:03.927117  1684 net.cpp:86] Creating Layer pool0
I0428 20:21:03.927120  1684 net.cpp:408] pool0 <- conv0
I0428 20:21:03.927125  1684 net.cpp:382] pool0 -> pool0
I0428 20:21:03.927160  1684 net.cpp:124] Setting up pool0
I0428 20:21:03.927165  1684 net.cpp:131] Top shape: 100 50 12 12 (720000)
I0428 20:21:03.927168  1684 net.cpp:139] Memory required for data: 14714800
I0428 20:21:03.927171  1684 layer_factory.hpp:77] Creating layer conv1
I0428 20:21:03.927179  1684 net.cpp:86] Creating Layer conv1
I0428 20:21:03.927182  1684 net.cpp:408] conv1 <- pool0
I0428 20:21:03.927187  1684 net.cpp:382] conv1 -> conv1
I0428 20:21:03.929015  1684 net.cpp:124] Setting up conv1
I0428 20:21:03.929044  1684 net.cpp:131] Top shape: 100 50 8 8 (320000)
I0428 20:21:03.929049  1684 net.cpp:139] Memory required for data: 15994800
I0428 20:21:03.929057  1684 layer_factory.hpp:77] Creating layer pool1
I0428 20:21:03.929080  1684 net.cpp:86] Creating Layer pool1
I0428 20:21:03.929090  1684 net.cpp:408] pool1 <- conv1
I0428 20:21:03.929096  1684 net.cpp:382] pool1 -> pool1
I0428 20:21:03.929141  1684 net.cpp:124] Setting up pool1
I0428 20:21:03.929147  1684 net.cpp:131] Top shape: 100 50 4 4 (80000)
I0428 20:21:03.929150  1684 net.cpp:139] Memory required for data: 16314800
I0428 20:21:03.929153  1684 layer_factory.hpp:77] Creating layer ip1
I0428 20:21:03.929160  1684 net.cpp:86] Creating Layer ip1
I0428 20:21:03.929163  1684 net.cpp:408] ip1 <- pool1
I0428 20:21:03.929169  1684 net.cpp:382] ip1 -> ip1
I0428 20:21:03.929549  1684 net.cpp:124] Setting up ip1
I0428 20:21:03.929558  1684 net.cpp:131] Top shape: 100 50 (5000)
I0428 20:21:03.929574  1684 net.cpp:139] Memory required for data: 16334800
I0428 20:21:03.929581  1684 layer_factory.hpp:77] Creating layer relu1
I0428 20:21:03.929586  1684 net.cpp:86] Creating Layer relu1
I0428 20:21:03.929590  1684 net.cpp:408] relu1 <- ip1
I0428 20:21:03.929595  1684 net.cpp:369] relu1 -> ip1 (in-place)
I0428 20:21:03.929790  1684 net.cpp:124] Setting up relu1
I0428 20:21:03.929800  1684 net.cpp:131] Top shape: 100 50 (5000)
I0428 20:21:03.929803  1684 net.cpp:139] Memory required for data: 16354800
I0428 20:21:03.929807  1684 layer_factory.hpp:77] Creating layer ip2
I0428 20:21:03.929826  1684 net.cpp:86] Creating Layer ip2
I0428 20:21:03.929829  1684 net.cpp:408] ip2 <- ip1
I0428 20:21:03.929836  1684 net.cpp:382] ip2 -> ip2
I0428 20:21:03.929944  1684 net.cpp:124] Setting up ip2
I0428 20:21:03.929950  1684 net.cpp:131] Top shape: 100 10 (1000)
I0428 20:21:03.929955  1684 net.cpp:139] Memory required for data: 16358800
I0428 20:21:03.929960  1684 layer_factory.hpp:77] Creating layer relu2
I0428 20:21:03.929965  1684 net.cpp:86] Creating Layer relu2
I0428 20:21:03.929970  1684 net.cpp:408] relu2 <- ip2
I0428 20:21:03.929973  1684 net.cpp:369] relu2 -> ip2 (in-place)
I0428 20:21:03.930191  1684 net.cpp:124] Setting up relu2
I0428 20:21:03.930200  1684 net.cpp:131] Top shape: 100 10 (1000)
I0428 20:21:03.930204  1684 net.cpp:139] Memory required for data: 16362800
I0428 20:21:03.930208  1684 layer_factory.hpp:77] Creating layer ip2_relu2_0_split
I0428 20:21:03.930213  1684 net.cpp:86] Creating Layer ip2_relu2_0_split
I0428 20:21:03.930217  1684 net.cpp:408] ip2_relu2_0_split <- ip2
I0428 20:21:03.930222  1684 net.cpp:382] ip2_relu2_0_split -> ip2_relu2_0_split_0
I0428 20:21:03.930238  1684 net.cpp:382] ip2_relu2_0_split -> ip2_relu2_0_split_1
I0428 20:21:03.930300  1684 net.cpp:124] Setting up ip2_relu2_0_split
I0428 20:21:03.930308  1684 net.cpp:131] Top shape: 100 10 (1000)
I0428 20:21:03.930312  1684 net.cpp:131] Top shape: 100 10 (1000)
I0428 20:21:03.930315  1684 net.cpp:139] Memory required for data: 16370800
I0428 20:21:03.930320  1684 layer_factory.hpp:77] Creating layer accuracy
I0428 20:21:03.930326  1684 net.cpp:86] Creating Layer accuracy
I0428 20:21:03.930335  1684 net.cpp:408] accuracy <- ip2_relu2_0_split_0
I0428 20:21:03.930338  1684 net.cpp:408] accuracy <- label_mnist_1_split_0
I0428 20:21:03.930343  1684 net.cpp:382] accuracy -> accuracy
…
