…
I0428 19:29:01.823678 21902 net.cpp:296] The NetState phase (0) differed from the phase (1) specified by a rule in layer mnist
I0428 19:29:01.823699 21902 net.cpp:296] The NetState phase (0) differed from the phase (1) specified by a rule in layer accuracy
I0428 19:29:01.823786 21902 net.cpp:53] Initializing net from parameters: 
name: "LeNet"
state {
  phase: TRAIN
  level: 0
  stage: ""
}
layer {
  name: "mnist"
  type: "Data"
  top: "data"
  top: "label"
  include {
    phase: TRAIN
  }
  transform_param {
    scale: 0.00390625
  }
  data_param {
    source: "examples/mnist/mnist_train_lmdb"
    batch_size: 64
    backend: LMDB
  }
}
layer {
  name: "conv0"
  type: "Convolution"
  bottom: "data"
  top: "conv0"
  param {
    lr_mult: 1
  }
  param {
    lr_mult: 2
  }
  convolution_param {
    num_output: 2
    kernel_size: 5
    stride: 1
    weight_filler {
      type: "xavier"
    }
    bias_filler {
      type: "constant"
    }
  }
}
layer {
  name: "pool0"
  type: "Pooling"
  bottom: "conv0"
  top: "pool0"
  pooling_param {
    pool: MAX
    kernel_size: 2
    stride: 2
  }
}
layer {
  name: "ip1"
  type: "InnerProduct"
  bottom: "pool0"
  top: "ip1"
  param {
    lr_mult: 1
  }
  param {
    lr_mult: 2
  }
  inner_product_param {
    num_output: 25
    weight_filler {
      type: "xavier"
    }
    bias_filler {
      type: "constant"
    }
  }
}
layer {
  name: "relu1"
  type: "ReLU"
  bottom: "ip1"
  top: "ip1"
}
layer {
  name: "ip2"
  type: "InnerProduct"
  bottom: "ip1"
  top: "ip2"
  param {
    lr_mult: 1
  }
  param {
    lr_mult: 2
  }
  inner_product_param {
    num_output: 10
    weight_filler {
      type: "xavier"
    }
    bias_filler {
      type: "constant"
    }
  }
}
layer {
  name: "relu2"
  type: "ReLU"
  bottom: "ip2"
  top: "ip2"
}
layer {
  name: "loss"
  type: "SoftmaxWithLoss"
  bottom: "ip2"
  bottom: "label"
  top: "loss"
}
I0428 19:29:01.823884 21902 layer_factory.hpp:77] Creating layer mnist
I0428 19:29:01.824014 21902 db_lmdb.cpp:35] Opened lmdb examples/mnist/mnist_train_lmdb
I0428 19:29:01.824048 21902 net.cpp:86] Creating Layer mnist
I0428 19:29:01.824060 21902 net.cpp:382] mnist -> data
I0428 19:29:01.824093 21902 net.cpp:382] mnist -> label
I0428 19:29:01.825301 21902 data_layer.cpp:45] output data size: 64,1,28,28
I0428 19:29:01.827775 21902 net.cpp:124] Setting up mnist
I0428 19:29:01.827795 21902 net.cpp:131] Top shape: 64 1 28 28 (50176)
I0428 19:29:01.827818 21902 net.cpp:131] Top shape: 64 (64)
I0428 19:29:01.827833 21902 net.cpp:139] Memory required for data: 200960
I0428 19:29:01.827844 21902 layer_factory.hpp:77] Creating layer conv0
I0428 19:29:01.827868 21902 net.cpp:86] Creating Layer conv0
I0428 19:29:01.827878 21902 net.cpp:408] conv0 <- data
I0428 19:29:01.827896 21902 net.cpp:382] conv0 -> conv0
I0428 19:29:02.116603 21902 net.cpp:124] Setting up conv0
I0428 19:29:02.116634 21902 net.cpp:131] Top shape: 64 2 24 24 (73728)
I0428 19:29:02.116641 21902 net.cpp:139] Memory required for data: 495872
I0428 19:29:02.116663 21902 layer_factory.hpp:77] Creating layer pool0
I0428 19:29:02.116683 21902 net.cpp:86] Creating Layer pool0
I0428 19:29:02.116690 21902 net.cpp:408] pool0 <- conv0
I0428 19:29:02.116700 21902 net.cpp:382] pool0 -> pool0
I0428 19:29:02.116765 21902 net.cpp:124] Setting up pool0
I0428 19:29:02.116776 21902 net.cpp:131] Top shape: 64 2 12 12 (18432)
I0428 19:29:02.116782 21902 net.cpp:139] Memory required for data: 569600
I0428 19:29:02.116806 21902 layer_factory.hpp:77] Creating layer ip1
I0428 19:29:02.116828 21902 net.cpp:86] Creating Layer ip1
I0428 19:29:02.116835 21902 net.cpp:408] ip1 <- pool0
I0428 19:29:02.116845 21902 net.cpp:382] ip1 -> ip1
I0428 19:29:02.117903 21902 net.cpp:124] Setting up ip1
I0428 19:29:02.117919 21902 net.cpp:131] Top shape: 64 25 (1600)
I0428 19:29:02.117925 21902 net.cpp:139] Memory required for data: 576000
I0428 19:29:02.117938 21902 layer_factory.hpp:77] Creating layer relu1
I0428 19:29:02.117954 21902 net.cpp:86] Creating Layer relu1
I0428 19:29:02.117961 21902 net.cpp:408] relu1 <- ip1
I0428 19:29:02.117969 21902 net.cpp:369] relu1 -> ip1 (in-place)
I0428 19:29:02.118167 21902 net.cpp:124] Setting up relu1
I0428 19:29:02.118180 21902 net.cpp:131] Top shape: 64 25 (1600)
I0428 19:29:02.118185 21902 net.cpp:139] Memory required for data: 582400
I0428 19:29:02.118191 21902 layer_factory.hpp:77] Creating layer ip2
I0428 19:29:02.118203 21902 net.cpp:86] Creating Layer ip2
I0428 19:29:02.118209 21902 net.cpp:408] ip2 <- ip1
I0428 19:29:02.118218 21902 net.cpp:382] ip2 -> ip2
I0428 19:29:02.118335 21902 net.cpp:124] Setting up ip2
I0428 19:29:02.118345 21902 net.cpp:131] Top shape: 64 10 (640)
I0428 19:29:02.118350 21902 net.cpp:139] Memory required for data: 584960
I0428 19:29:02.118365 21902 layer_factory.hpp:77] Creating layer relu2
I0428 19:29:02.118373 21902 net.cpp:86] Creating Layer relu2
I0428 19:29:02.118383 21902 net.cpp:408] relu2 <- ip2
I0428 19:29:02.118393 21902 net.cpp:369] relu2 -> ip2 (in-place)
I0428 19:29:02.119174 21902 net.cpp:124] Setting up relu2
I0428 19:29:02.119189 21902 net.cpp:131] Top shape: 64 10 (640)
I0428 19:29:02.119194 21902 net.cpp:139] Memory required for data: 587520
I0428 19:29:02.119199 21902 layer_factory.hpp:77] Creating layer loss
I0428 19:29:02.119211 21902 net.cpp:86] Creating Layer loss
I0428 19:29:02.119217 21902 net.cpp:408] loss <- ip2
I0428 19:29:02.119225 21902 net.cpp:408] loss <- label
I0428 19:29:02.119235 21902 net.cpp:382] loss -> loss
I0428 19:29:02.119258 21902 layer_factory.hpp:77] Creating layer loss
…
I0428 19:29:02.119899 21902 solver.cpp:173] Creating test net (#0) specified by net file: ECE595/mnist/train_test/var_everything2/lenet_train_test45.prototxt
I0428 19:29:02.119930 21902 net.cpp:296] The NetState phase (1) differed from the phase (0) specified by a rule in layer mnist
I0428 19:29:02.120012 21902 net.cpp:53] Initializing net from parameters: 
name: "LeNet"
state {
  phase: TEST
}
layer {
  name: "mnist"
  type: "Data"
  top: "data"
  top: "label"
  include {
    phase: TEST
  }
  transform_param {
    scale: 0.00390625
  }
  data_param {
    source: "examples/mnist/mnist_test_lmdb"
    batch_size: 100
    backend: LMDB
  }
}
layer {
  name: "conv0"
  type: "Convolution"
  bottom: "data"
  top: "conv0"
  param {
    lr_mult: 1
  }
  param {
    lr_mult: 2
  }
  convolution_param {
    num_output: 2
    kernel_size: 5
    stride: 1
    weight_filler {
      type: "xavier"
    }
    bias_filler {
      type: "constant"
    }
  }
}
layer {
  name: "pool0"
  type: "Pooling"
  bottom: "conv0"
  top: "pool0"
  pooling_param {
    pool: MAX
    kernel_size: 2
    stride: 2
  }
}
layer {
  name: "ip1"
  type: "InnerProduct"
  bottom: "pool0"
  top: "ip1"
  param {
    lr_mult: 1
  }
  param {
    lr_mult: 2
  }
  inner_product_param {
    num_output: 25
    weight_filler {
      type: "xavier"
    }
    bias_filler {
      type: "constant"
    }
  }
}
layer {
  name: "relu1"
  type: "ReLU"
  bottom: "ip1"
  top: "ip1"
}
layer {
  name: "ip2"
  type: "InnerProduct"
  bottom: "ip1"
  top: "ip2"
  param {
    lr_mult: 1
  }
  param {
    lr_mult: 2
  }
  inner_product_param {
    num_output: 10
    weight_filler {
      type: "xavier"
    }
    bias_filler {
      type: "constant"
    }
  }
}
layer {
  name: "relu2"
  type: "ReLU"
  bottom: "ip2"
  top: "ip2"
}
layer {
  name: "accuracy"
  type: "Accuracy"
  bottom: "ip2"
  bottom: "label"
  top: "accuracy"
  include {
    phase: TEST
  }
}
layer {
  name: "loss"
  type: "SoftmaxWithLoss"
  bottom: "ip2"
  bottom: "label"
  top: "loss"
}
I0428 19:29:02.120126 21902 layer_factory.hpp:77] Creating layer mnist
I0428 19:29:02.120192 21902 db_lmdb.cpp:35] Opened lmdb examples/mnist/mnist_test_lmdb
I0428 19:29:02.120210 21902 net.cpp:86] Creating Layer mnist
I0428 19:29:02.120219 21902 net.cpp:382] mnist -> data
I0428 19:29:02.120232 21902 net.cpp:382] mnist -> label
I0428 19:29:02.120370 21902 data_layer.cpp:45] output data size: 100,1,28,28
I0428 19:29:02.122613 21902 net.cpp:124] Setting up mnist
I0428 19:29:02.122629 21902 net.cpp:131] Top shape: 100 1 28 28 (78400)
I0428 19:29:02.122638 21902 net.cpp:131] Top shape: 100 (100)
I0428 19:29:02.122644 21902 net.cpp:139] Memory required for data: 314000
I0428 19:29:02.122665 21902 layer_factory.hpp:77] Creating layer label_mnist_1_split
I0428 19:29:02.122681 21902 net.cpp:86] Creating Layer label_mnist_1_split
I0428 19:29:02.122687 21902 net.cpp:408] label_mnist_1_split <- label
I0428 19:29:02.122699 21902 net.cpp:382] label_mnist_1_split -> label_mnist_1_split_0
I0428 19:29:02.122710 21902 net.cpp:382] label_mnist_1_split -> label_mnist_1_split_1
I0428 19:29:02.122778 21902 net.cpp:124] Setting up label_mnist_1_split
I0428 19:29:02.122788 21902 net.cpp:131] Top shape: 100 (100)
I0428 19:29:02.122795 21902 net.cpp:131] Top shape: 100 (100)
I0428 19:29:02.122800 21902 net.cpp:139] Memory required for data: 314800
I0428 19:29:02.122807 21902 layer_factory.hpp:77] Creating layer conv0
I0428 19:29:02.122823 21902 net.cpp:86] Creating Layer conv0
I0428 19:29:02.122831 21902 net.cpp:408] conv0 <- data
I0428 19:29:02.122841 21902 net.cpp:382] conv0 -> conv0
I0428 19:29:02.124425 21902 net.cpp:124] Setting up conv0
I0428 19:29:02.124441 21902 net.cpp:131] Top shape: 100 2 24 24 (115200)
I0428 19:29:02.124449 21902 net.cpp:139] Memory required for data: 775600
I0428 19:29:02.124464 21902 layer_factory.hpp:77] Creating layer pool0
I0428 19:29:02.124478 21902 net.cpp:86] Creating Layer pool0
I0428 19:29:02.124485 21902 net.cpp:408] pool0 <- conv0
I0428 19:29:02.124495 21902 net.cpp:382] pool0 -> pool0
I0428 19:29:02.124542 21902 net.cpp:124] Setting up pool0
I0428 19:29:02.124552 21902 net.cpp:131] Top shape: 100 2 12 12 (28800)
I0428 19:29:02.124557 21902 net.cpp:139] Memory required for data: 890800
I0428 19:29:02.124565 21902 layer_factory.hpp:77] Creating layer ip1
I0428 19:29:02.124577 21902 net.cpp:86] Creating Layer ip1
I0428 19:29:02.124585 21902 net.cpp:408] ip1 <- pool0
I0428 19:29:02.124599 21902 net.cpp:382] ip1 -> ip1
I0428 19:29:02.124754 21902 net.cpp:124] Setting up ip1
I0428 19:29:02.124765 21902 net.cpp:131] Top shape: 100 25 (2500)
I0428 19:29:02.124771 21902 net.cpp:139] Memory required for data: 900800
I0428 19:29:02.124784 21902 layer_factory.hpp:77] Creating layer relu1
I0428 19:29:02.124797 21902 net.cpp:86] Creating Layer relu1
I0428 19:29:02.124806 21902 net.cpp:408] relu1 <- ip1
I0428 19:29:02.124826 21902 net.cpp:369] relu1 -> ip1 (in-place)
I0428 19:29:02.125006 21902 net.cpp:124] Setting up relu1
I0428 19:29:02.125018 21902 net.cpp:131] Top shape: 100 25 (2500)
I0428 19:29:02.125025 21902 net.cpp:139] Memory required for data: 910800
I0428 19:29:02.125041 21902 layer_factory.hpp:77] Creating layer ip2
I0428 19:29:02.125056 21902 net.cpp:86] Creating Layer ip2
I0428 19:29:02.125061 21902 net.cpp:408] ip2 <- ip1
I0428 19:29:02.125071 21902 net.cpp:382] ip2 -> ip2
I0428 19:29:02.125205 21902 net.cpp:124] Setting up ip2
I0428 19:29:02.125214 21902 net.cpp:131] Top shape: 100 10 (1000)
I0428 19:29:02.125221 21902 net.cpp:139] Memory required for data: 914800
I0428 19:29:02.125233 21902 layer_factory.hpp:77] Creating layer relu2
I0428 19:29:02.125247 21902 net.cpp:86] Creating Layer relu2
I0428 19:29:02.125253 21902 net.cpp:408] relu2 <- ip2
I0428 19:29:02.125262 21902 net.cpp:369] relu2 -> ip2 (in-place)
I0428 19:29:02.125439 21902 net.cpp:124] Setting up relu2
I0428 19:29:02.125450 21902 net.cpp:131] Top shape: 100 10 (1000)
I0428 19:29:02.125455 21902 net.cpp:139] Memory required for data: 918800
I0428 19:29:02.125461 21902 layer_factory.hpp:77] Creating layer ip2_relu2_0_split
I0428 19:29:02.125473 21902 net.cpp:86] Creating Layer ip2_relu2_0_split
I0428 19:29:02.125479 21902 net.cpp:408] ip2_relu2_0_split <- ip2
I0428 19:29:02.125488 21902 net.cpp:382] ip2_relu2_0_split -> ip2_relu2_0_split_0
I0428 19:29:02.125501 21902 net.cpp:382] ip2_relu2_0_split -> ip2_relu2_0_split_1
I0428 19:29:02.125548 21902 net.cpp:124] Setting up ip2_relu2_0_split
I0428 19:29:02.125557 21902 net.cpp:131] Top shape: 100 10 (1000)
I0428 19:29:02.125564 21902 net.cpp:131] Top shape: 100 10 (1000)
I0428 19:29:02.125569 21902 net.cpp:139] Memory required for data: 926800
I0428 19:29:02.125574 21902 layer_factory.hpp:77] Creating layer accuracy
I0428 19:29:02.125584 21902 net.cpp:86] Creating Layer accuracy
I0428 19:29:02.125591 21902 net.cpp:408] accuracy <- ip2_relu2_0_split_0
I0428 19:29:02.125598 21902 net.cpp:408] accuracy <- label_mnist_1_split_0
I0428 19:29:02.125607 21902 net.cpp:382] accuracy -> accuracy
…
