…
I0428 19:51:07.624131 27199 net.cpp:296] The NetState phase (0) differed from the phase (1) specified by a rule in layer mnist
I0428 19:51:07.624145 27199 net.cpp:296] The NetState phase (0) differed from the phase (1) specified by a rule in layer accuracy
I0428 19:51:07.624208 27199 net.cpp:53] Initializing net from parameters: 
name: "LeNet"
state {
  phase: TRAIN
  level: 0
  stage: ""
}
layer {
  name: "mnist"
  type: "Data"
  top: "data"
  top: "label"
  include {
    phase: TRAIN
  }
  transform_param {
    scale: 0.00390625
  }
  data_param {
    source: "examples/mnist/mnist_train_lmdb"
    batch_size: 64
    backend: LMDB
  }
}
layer {
  name: "conv0"
  type: "Convolution"
  bottom: "data"
  top: "conv0"
  param {
    lr_mult: 1
  }
  param {
    lr_mult: 2
  }
  convolution_param {
    num_output: 5
    kernel_size: 5
    stride: 1
    weight_filler {
      type: "xavier"
    }
    bias_filler {
      type: "constant"
    }
  }
}
layer {
  name: "pool0"
  type: "Pooling"
  bottom: "conv0"
  top: "pool0"
  pooling_param {
    pool: MAX
    kernel_size: 2
    stride: 2
  }
}
layer {
  name: "conv1"
  type: "Convolution"
  bottom: "pool0"
  top: "conv1"
  param {
    lr_mult: 1
  }
  param {
    lr_mult: 2
  }
  convolution_param {
    num_output: 25
    kernel_size: 5
    stride: 1
    weight_filler {
      type: "xavier"
    }
    bias_filler {
      type: "constant"
    }
  }
}
layer {
  name: "pool1"
  type: "Pooling"
  bottom: "conv1"
  top: "pool1"
  pooling_param {
    pool: MAX
    kernel_size: 2
    stride: 2
  }
}
layer {
  name: "ip1"
  type: "InnerProduct"
  bottom: "pool1"
  top: "ip1"
  param {
    lr_mult: 1
  }
  param {
    lr_mult: 2
  }
  inner_product_param {
    num_output: 10
    weight_filler {
      type: "xavier"
    }
    bias_filler {
      type: "constant"
    }
  }
}
layer {
  name: "relu1"
  type: "ReLU"
  bottom: "ip1"
  top: "ip1"
}
layer {
  name: "loss"
  type: "SoftmaxWithLoss"
  bottom: "ip1"
  bottom: "label"
  top: "loss"
}
I0428 19:51:07.624266 27199 layer_factory.hpp:77] Creating layer mnist
I0428 19:51:07.624347 27199 db_lmdb.cpp:35] Opened lmdb examples/mnist/mnist_train_lmdb
I0428 19:51:07.624368 27199 net.cpp:86] Creating Layer mnist
I0428 19:51:07.624377 27199 net.cpp:382] mnist -> data
I0428 19:51:07.624394 27199 net.cpp:382] mnist -> label
I0428 19:51:07.625459 27199 data_layer.cpp:45] output data size: 64,1,28,28
I0428 19:51:07.627619 27199 net.cpp:124] Setting up mnist
I0428 19:51:07.627650 27199 net.cpp:131] Top shape: 64 1 28 28 (50176)
I0428 19:51:07.627655 27199 net.cpp:131] Top shape: 64 (64)
I0428 19:51:07.627657 27199 net.cpp:139] Memory required for data: 200960
I0428 19:51:07.627663 27199 layer_factory.hpp:77] Creating layer conv0
I0428 19:51:07.627677 27199 net.cpp:86] Creating Layer conv0
I0428 19:51:07.627682 27199 net.cpp:408] conv0 <- data
I0428 19:51:07.627692 27199 net.cpp:382] conv0 -> conv0
I0428 19:51:07.856850 27199 net.cpp:124] Setting up conv0
I0428 19:51:07.856891 27199 net.cpp:131] Top shape: 64 5 24 24 (184320)
I0428 19:51:07.856895 27199 net.cpp:139] Memory required for data: 938240
I0428 19:51:07.856910 27199 layer_factory.hpp:77] Creating layer pool0
I0428 19:51:07.856922 27199 net.cpp:86] Creating Layer pool0
I0428 19:51:07.856926 27199 net.cpp:408] pool0 <- conv0
I0428 19:51:07.856932 27199 net.cpp:382] pool0 -> pool0
I0428 19:51:07.856992 27199 net.cpp:124] Setting up pool0
I0428 19:51:07.856997 27199 net.cpp:131] Top shape: 64 5 12 12 (46080)
I0428 19:51:07.857014 27199 net.cpp:139] Memory required for data: 1122560
I0428 19:51:07.857018 27199 layer_factory.hpp:77] Creating layer conv1
I0428 19:51:07.857029 27199 net.cpp:86] Creating Layer conv1
I0428 19:51:07.857033 27199 net.cpp:408] conv1 <- pool0
I0428 19:51:07.857038 27199 net.cpp:382] conv1 -> conv1
I0428 19:51:07.859645 27199 net.cpp:124] Setting up conv1
I0428 19:51:07.859674 27199 net.cpp:131] Top shape: 64 25 8 8 (102400)
I0428 19:51:07.859678 27199 net.cpp:139] Memory required for data: 1532160
I0428 19:51:07.859686 27199 layer_factory.hpp:77] Creating layer pool1
I0428 19:51:07.859695 27199 net.cpp:86] Creating Layer pool1
I0428 19:51:07.859699 27199 net.cpp:408] pool1 <- conv1
I0428 19:51:07.859704 27199 net.cpp:382] pool1 -> pool1
I0428 19:51:07.859755 27199 net.cpp:124] Setting up pool1
I0428 19:51:07.859760 27199 net.cpp:131] Top shape: 64 25 4 4 (25600)
I0428 19:51:07.859763 27199 net.cpp:139] Memory required for data: 1634560
I0428 19:51:07.859766 27199 layer_factory.hpp:77] Creating layer ip1
I0428 19:51:07.859773 27199 net.cpp:86] Creating Layer ip1
I0428 19:51:07.859776 27199 net.cpp:408] ip1 <- pool1
I0428 19:51:07.859781 27199 net.cpp:382] ip1 -> ip1
I0428 19:51:07.859894 27199 net.cpp:124] Setting up ip1
I0428 19:51:07.859900 27199 net.cpp:131] Top shape: 64 10 (640)
I0428 19:51:07.859904 27199 net.cpp:139] Memory required for data: 1637120
I0428 19:51:07.859910 27199 layer_factory.hpp:77] Creating layer relu1
I0428 19:51:07.859916 27199 net.cpp:86] Creating Layer relu1
I0428 19:51:07.859920 27199 net.cpp:408] relu1 <- ip1
I0428 19:51:07.859923 27199 net.cpp:369] relu1 -> ip1 (in-place)
I0428 19:51:07.860095 27199 net.cpp:124] Setting up relu1
I0428 19:51:07.860103 27199 net.cpp:131] Top shape: 64 10 (640)
I0428 19:51:07.860106 27199 net.cpp:139] Memory required for data: 1639680
I0428 19:51:07.860110 27199 layer_factory.hpp:77] Creating layer loss
I0428 19:51:07.860115 27199 net.cpp:86] Creating Layer loss
I0428 19:51:07.860117 27199 net.cpp:408] loss <- ip1
I0428 19:51:07.860121 27199 net.cpp:408] loss <- label
I0428 19:51:07.860126 27199 net.cpp:382] loss -> loss
I0428 19:51:07.860143 27199 layer_factory.hpp:77] Creating layer loss
…
I0428 19:51:07.861348 27199 solver.cpp:173] Creating test net (#0) specified by net file: ECE595/mnist/train_test/var_everything2/lenet_train_test624.prototxt
I0428 19:51:07.861371 27199 net.cpp:296] The NetState phase (1) differed from the phase (0) specified by a rule in layer mnist
I0428 19:51:07.861440 27199 net.cpp:53] Initializing net from parameters: 
name: "LeNet"
state {
  phase: TEST
}
layer {
  name: "mnist"
  type: "Data"
  top: "data"
  top: "label"
  include {
    phase: TEST
  }
  transform_param {
    scale: 0.00390625
  }
  data_param {
    source: "examples/mnist/mnist_test_lmdb"
    batch_size: 100
    backend: LMDB
  }
}
layer {
  name: "conv0"
  type: "Convolution"
  bottom: "data"
  top: "conv0"
  param {
    lr_mult: 1
  }
  param {
    lr_mult: 2
  }
  convolution_param {
    num_output: 5
    kernel_size: 5
    stride: 1
    weight_filler {
      type: "xavier"
    }
    bias_filler {
      type: "constant"
    }
  }
}
layer {
  name: "pool0"
  type: "Pooling"
  bottom: "conv0"
  top: "pool0"
  pooling_param {
    pool: MAX
    kernel_size: 2
    stride: 2
  }
}
layer {
  name: "conv1"
  type: "Convolution"
  bottom: "pool0"
  top: "conv1"
  param {
    lr_mult: 1
  }
  param {
    lr_mult: 2
  }
  convolution_param {
    num_output: 25
    kernel_size: 5
    stride: 1
    weight_filler {
      type: "xavier"
    }
    bias_filler {
      type: "constant"
    }
  }
}
layer {
  name: "pool1"
  type: "Pooling"
  bottom: "conv1"
  top: "pool1"
  pooling_param {
    pool: MAX
    kernel_size: 2
    stride: 2
  }
}
layer {
  name: "ip1"
  type: "InnerProduct"
  bottom: "pool1"
  top: "ip1"
  param {
    lr_mult: 1
  }
  param {
    lr_mult: 2
  }
  inner_product_param {
    num_output: 10
    weight_filler {
      type: "xavier"
    }
    bias_filler {
      type: "constant"
    }
  }
}
layer {
  name: "relu1"
  type: "ReLU"
  bottom: "ip1"
  top: "ip1"
}
layer {
  name: "accuracy"
  type: "Accuracy"
  bottom: "ip1"
  bottom: "label"
  top: "accuracy"
  include {
    phase: TEST
  }
}
layer {
  name: "loss"
  type: "SoftmaxWithLoss"
  bottom: "ip1"
  bottom: "label"
  top: "loss"
}
I0428 19:51:07.861510 27199 layer_factory.hpp:77] Creating layer mnist
I0428 19:51:07.861552 27199 db_lmdb.cpp:35] Opened lmdb examples/mnist/mnist_test_lmdb
I0428 19:51:07.861564 27199 net.cpp:86] Creating Layer mnist
I0428 19:51:07.861569 27199 net.cpp:382] mnist -> data
I0428 19:51:07.861577 27199 net.cpp:382] mnist -> label
I0428 19:51:07.861654 27199 data_layer.cpp:45] output data size: 100,1,28,28
I0428 19:51:07.863607 27199 net.cpp:124] Setting up mnist
I0428 19:51:07.863636 27199 net.cpp:131] Top shape: 100 1 28 28 (78400)
I0428 19:51:07.863641 27199 net.cpp:131] Top shape: 100 (100)
I0428 19:51:07.863643 27199 net.cpp:139] Memory required for data: 314000
I0428 19:51:07.863647 27199 layer_factory.hpp:77] Creating layer label_mnist_1_split
I0428 19:51:07.863653 27199 net.cpp:86] Creating Layer label_mnist_1_split
I0428 19:51:07.863657 27199 net.cpp:408] label_mnist_1_split <- label
I0428 19:51:07.863662 27199 net.cpp:382] label_mnist_1_split -> label_mnist_1_split_0
I0428 19:51:07.863667 27199 net.cpp:382] label_mnist_1_split -> label_mnist_1_split_1
I0428 19:51:07.863703 27199 net.cpp:124] Setting up label_mnist_1_split
I0428 19:51:07.863708 27199 net.cpp:131] Top shape: 100 (100)
I0428 19:51:07.863710 27199 net.cpp:131] Top shape: 100 (100)
I0428 19:51:07.863713 27199 net.cpp:139] Memory required for data: 314800
I0428 19:51:07.863716 27199 layer_factory.hpp:77] Creating layer conv0
I0428 19:51:07.863723 27199 net.cpp:86] Creating Layer conv0
I0428 19:51:07.863726 27199 net.cpp:408] conv0 <- data
I0428 19:51:07.863731 27199 net.cpp:382] conv0 -> conv0
I0428 19:51:07.864668 27199 net.cpp:124] Setting up conv0
I0428 19:51:07.864679 27199 net.cpp:131] Top shape: 100 5 24 24 (288000)
I0428 19:51:07.864683 27199 net.cpp:139] Memory required for data: 1466800
I0428 19:51:07.864691 27199 layer_factory.hpp:77] Creating layer pool0
I0428 19:51:07.864712 27199 net.cpp:86] Creating Layer pool0
I0428 19:51:07.864715 27199 net.cpp:408] pool0 <- conv0
I0428 19:51:07.864720 27199 net.cpp:382] pool0 -> pool0
I0428 19:51:07.864751 27199 net.cpp:124] Setting up pool0
I0428 19:51:07.864756 27199 net.cpp:131] Top shape: 100 5 12 12 (72000)
I0428 19:51:07.864759 27199 net.cpp:139] Memory required for data: 1754800
I0428 19:51:07.864763 27199 layer_factory.hpp:77] Creating layer conv1
I0428 19:51:07.864769 27199 net.cpp:86] Creating Layer conv1
I0428 19:51:07.864773 27199 net.cpp:408] conv1 <- pool0
I0428 19:51:07.864778 27199 net.cpp:382] conv1 -> conv1
I0428 19:51:07.866856 27199 net.cpp:124] Setting up conv1
I0428 19:51:07.866870 27199 net.cpp:131] Top shape: 100 25 8 8 (160000)
I0428 19:51:07.866873 27199 net.cpp:139] Memory required for data: 2394800
I0428 19:51:07.866883 27199 layer_factory.hpp:77] Creating layer pool1
I0428 19:51:07.866889 27199 net.cpp:86] Creating Layer pool1
I0428 19:51:07.866902 27199 net.cpp:408] pool1 <- conv1
I0428 19:51:07.866909 27199 net.cpp:382] pool1 -> pool1
I0428 19:51:07.866945 27199 net.cpp:124] Setting up pool1
I0428 19:51:07.866950 27199 net.cpp:131] Top shape: 100 25 4 4 (40000)
I0428 19:51:07.866961 27199 net.cpp:139] Memory required for data: 2554800
I0428 19:51:07.866963 27199 layer_factory.hpp:77] Creating layer ip1
I0428 19:51:07.866969 27199 net.cpp:86] Creating Layer ip1
I0428 19:51:07.866978 27199 net.cpp:408] ip1 <- pool1
I0428 19:51:07.866983 27199 net.cpp:382] ip1 -> ip1
I0428 19:51:07.867092 27199 net.cpp:124] Setting up ip1
I0428 19:51:07.867100 27199 net.cpp:131] Top shape: 100 10 (1000)
I0428 19:51:07.867103 27199 net.cpp:139] Memory required for data: 2558800
I0428 19:51:07.867110 27199 layer_factory.hpp:77] Creating layer relu1
I0428 19:51:07.867121 27199 net.cpp:86] Creating Layer relu1
I0428 19:51:07.867125 27199 net.cpp:408] relu1 <- ip1
I0428 19:51:07.867128 27199 net.cpp:369] relu1 -> ip1 (in-place)
I0428 19:51:07.867904 27199 net.cpp:124] Setting up relu1
I0428 19:51:07.867918 27199 net.cpp:131] Top shape: 100 10 (1000)
I0428 19:51:07.867921 27199 net.cpp:139] Memory required for data: 2562800
I0428 19:51:07.867925 27199 layer_factory.hpp:77] Creating layer ip1_relu1_0_split
I0428 19:51:07.867931 27199 net.cpp:86] Creating Layer ip1_relu1_0_split
I0428 19:51:07.867934 27199 net.cpp:408] ip1_relu1_0_split <- ip1
I0428 19:51:07.867939 27199 net.cpp:382] ip1_relu1_0_split -> ip1_relu1_0_split_0
I0428 19:51:07.867945 27199 net.cpp:382] ip1_relu1_0_split -> ip1_relu1_0_split_1
I0428 19:51:07.867990 27199 net.cpp:124] Setting up ip1_relu1_0_split
I0428 19:51:07.867995 27199 net.cpp:131] Top shape: 100 10 (1000)
I0428 19:51:07.867998 27199 net.cpp:131] Top shape: 100 10 (1000)
I0428 19:51:07.868001 27199 net.cpp:139] Memory required for data: 2570800
I0428 19:51:07.868005 27199 layer_factory.hpp:77] Creating layer accuracy
I0428 19:51:07.868008 27199 net.cpp:86] Creating Layer accuracy
I0428 19:51:07.868011 27199 net.cpp:408] accuracy <- ip1_relu1_0_split_0
I0428 19:51:07.868016 27199 net.cpp:408] accuracy <- label_mnist_1_split_0
I0428 19:51:07.868021 27199 net.cpp:382] accuracy -> accuracy
…
