…
I0428 19:59:09.354640 29169 net.cpp:296] The NetState phase (0) differed from the phase (1) specified by a rule in layer mnist
I0428 19:59:09.354660 29169 net.cpp:296] The NetState phase (0) differed from the phase (1) specified by a rule in layer accuracy
I0428 19:59:09.354763 29169 net.cpp:53] Initializing net from parameters: 
name: "LeNet"
state {
  phase: TRAIN
  level: 0
  stage: ""
}
layer {
  name: "mnist"
  type: "Data"
  top: "data"
  top: "label"
  include {
    phase: TRAIN
  }
  transform_param {
    scale: 0.00390625
  }
  data_param {
    source: "examples/mnist/mnist_train_lmdb"
    batch_size: 64
    backend: LMDB
  }
}
layer {
  name: "conv0"
  type: "Convolution"
  bottom: "data"
  top: "conv0"
  param {
    lr_mult: 1
  }
  param {
    lr_mult: 2
  }
  convolution_param {
    num_output: 10
    kernel_size: 5
    stride: 1
    weight_filler {
      type: "xavier"
    }
    bias_filler {
      type: "constant"
    }
  }
}
layer {
  name: "pool0"
  type: "Pooling"
  bottom: "conv0"
  top: "pool0"
  pooling_param {
    pool: MAX
    kernel_size: 2
    stride: 2
  }
}
layer {
  name: "conv1"
  type: "Convolution"
  bottom: "pool0"
  top: "conv1"
  param {
    lr_mult: 1
  }
  param {
    lr_mult: 2
  }
  convolution_param {
    num_output: 10
    kernel_size: 5
    stride: 1
    weight_filler {
      type: "xavier"
    }
    bias_filler {
      type: "constant"
    }
  }
}
layer {
  name: "pool1"
  type: "Pooling"
  bottom: "conv1"
  top: "pool1"
  pooling_param {
    pool: MAX
    kernel_size: 2
    stride: 2
  }
}
layer {
  name: "ip1"
  type: "InnerProduct"
  bottom: "pool1"
  top: "ip1"
  param {
    lr_mult: 1
  }
  param {
    lr_mult: 2
  }
  inner_product_param {
    num_output: 10
    weight_filler {
      type: "xavier"
    }
    bias_filler {
      type: "constant"
    }
  }
}
layer {
  name: "relu1"
  type: "ReLU"
  bottom: "ip1"
  top: "ip1"
}
layer {
  name: "ip2"
  type: "InnerProduct"
  bottom: "ip1"
  top: "ip2"
  param {
    lr_mult: 1
  }
  param {
    lr_mult: 2
  }
  inner_product_param {
    num_output: 50
    weight_filler {
      type: "xavier"
    }
    bias_filler {
      type: "constant"
    }
  }
}
layer {
  name: "relu2"
  type: "ReLU"
  bottom: "ip2"
  top: "ip2"
}
layer {
  name: "ip3"
  type: "InnerProduct"
  bottom: "ip2"
  top: "ip3"
  param {
    lr_mult: 1
  }
  param {
    lr_mult: 2
  }
  inner_product_param {
    num_output: 10
    weight_filler {
      type: "xavier"
    }
    bias_filler {
      type: "constant"
    }
  }
}
layer {
  name: "relu3"
  type: "ReLU"
  bottom: "ip3"
  top: "ip3"
}
layer {
  name: "loss"
  type: "SoftmaxWithLoss"
  bottom: "ip3"
  bottom: "label"
  top: "loss"
}
I0428 19:59:09.354845 29169 layer_factory.hpp:77] Creating layer mnist
I0428 19:59:09.354943 29169 db_lmdb.cpp:35] Opened lmdb examples/mnist/mnist_train_lmdb
I0428 19:59:09.354967 29169 net.cpp:86] Creating Layer mnist
I0428 19:59:09.354976 29169 net.cpp:382] mnist -> data
I0428 19:59:09.354998 29169 net.cpp:382] mnist -> label
I0428 19:59:09.356091 29169 data_layer.cpp:45] output data size: 64,1,28,28
I0428 19:59:09.358573 29169 net.cpp:124] Setting up mnist
I0428 19:59:09.358597 29169 net.cpp:131] Top shape: 64 1 28 28 (50176)
I0428 19:59:09.358603 29169 net.cpp:131] Top shape: 64 (64)
I0428 19:59:09.358606 29169 net.cpp:139] Memory required for data: 200960
I0428 19:59:09.358613 29169 layer_factory.hpp:77] Creating layer conv0
I0428 19:59:09.358629 29169 net.cpp:86] Creating Layer conv0
I0428 19:59:09.358650 29169 net.cpp:408] conv0 <- data
I0428 19:59:09.358662 29169 net.cpp:382] conv0 -> conv0
I0428 19:59:09.612908 29169 net.cpp:124] Setting up conv0
I0428 19:59:09.612951 29169 net.cpp:131] Top shape: 64 10 24 24 (368640)
I0428 19:59:09.612954 29169 net.cpp:139] Memory required for data: 1675520
I0428 19:59:09.612984 29169 layer_factory.hpp:77] Creating layer pool0
I0428 19:59:09.612998 29169 net.cpp:86] Creating Layer pool0
I0428 19:59:09.613001 29169 net.cpp:408] pool0 <- conv0
I0428 19:59:09.613008 29169 net.cpp:382] pool0 -> pool0
I0428 19:59:09.613054 29169 net.cpp:124] Setting up pool0
I0428 19:59:09.613062 29169 net.cpp:131] Top shape: 64 10 12 12 (92160)
I0428 19:59:09.613065 29169 net.cpp:139] Memory required for data: 2044160
I0428 19:59:09.613068 29169 layer_factory.hpp:77] Creating layer conv1
I0428 19:59:09.613080 29169 net.cpp:86] Creating Layer conv1
I0428 19:59:09.613085 29169 net.cpp:408] conv1 <- pool0
I0428 19:59:09.613091 29169 net.cpp:382] conv1 -> conv1
I0428 19:59:09.615823 29169 net.cpp:124] Setting up conv1
I0428 19:59:09.615852 29169 net.cpp:131] Top shape: 64 10 8 8 (40960)
I0428 19:59:09.615856 29169 net.cpp:139] Memory required for data: 2208000
I0428 19:59:09.615864 29169 layer_factory.hpp:77] Creating layer pool1
I0428 19:59:09.615872 29169 net.cpp:86] Creating Layer pool1
I0428 19:59:09.615876 29169 net.cpp:408] pool1 <- conv1
I0428 19:59:09.615880 29169 net.cpp:382] pool1 -> pool1
I0428 19:59:09.615932 29169 net.cpp:124] Setting up pool1
I0428 19:59:09.615942 29169 net.cpp:131] Top shape: 64 10 4 4 (10240)
I0428 19:59:09.615944 29169 net.cpp:139] Memory required for data: 2248960
I0428 19:59:09.615947 29169 layer_factory.hpp:77] Creating layer ip1
I0428 19:59:09.615954 29169 net.cpp:86] Creating Layer ip1
I0428 19:59:09.615957 29169 net.cpp:408] ip1 <- pool1
I0428 19:59:09.615962 29169 net.cpp:382] ip1 -> ip1
I0428 19:59:09.616066 29169 net.cpp:124] Setting up ip1
I0428 19:59:09.616073 29169 net.cpp:131] Top shape: 64 10 (640)
I0428 19:59:09.616077 29169 net.cpp:139] Memory required for data: 2251520
I0428 19:59:09.616084 29169 layer_factory.hpp:77] Creating layer relu1
I0428 19:59:09.616089 29169 net.cpp:86] Creating Layer relu1
I0428 19:59:09.616092 29169 net.cpp:408] relu1 <- ip1
I0428 19:59:09.616096 29169 net.cpp:369] relu1 -> ip1 (in-place)
I0428 19:59:09.616261 29169 net.cpp:124] Setting up relu1
I0428 19:59:09.616271 29169 net.cpp:131] Top shape: 64 10 (640)
I0428 19:59:09.616273 29169 net.cpp:139] Memory required for data: 2254080
I0428 19:59:09.616276 29169 layer_factory.hpp:77] Creating layer ip2
I0428 19:59:09.616282 29169 net.cpp:86] Creating Layer ip2
I0428 19:59:09.616286 29169 net.cpp:408] ip2 <- ip1
I0428 19:59:09.616291 29169 net.cpp:382] ip2 -> ip2
I0428 19:59:09.616385 29169 net.cpp:124] Setting up ip2
I0428 19:59:09.616392 29169 net.cpp:131] Top shape: 64 50 (3200)
I0428 19:59:09.616395 29169 net.cpp:139] Memory required for data: 2266880
I0428 19:59:09.616400 29169 layer_factory.hpp:77] Creating layer relu2
I0428 19:59:09.616405 29169 net.cpp:86] Creating Layer relu2
I0428 19:59:09.616410 29169 net.cpp:408] relu2 <- ip2
I0428 19:59:09.616413 29169 net.cpp:369] relu2 -> ip2 (in-place)
I0428 19:59:09.617168 29169 net.cpp:124] Setting up relu2
I0428 19:59:09.617197 29169 net.cpp:131] Top shape: 64 50 (3200)
I0428 19:59:09.617199 29169 net.cpp:139] Memory required for data: 2279680
I0428 19:59:09.617203 29169 layer_factory.hpp:77] Creating layer ip3
I0428 19:59:09.617210 29169 net.cpp:86] Creating Layer ip3
I0428 19:59:09.617213 29169 net.cpp:408] ip3 <- ip2
I0428 19:59:09.617218 29169 net.cpp:382] ip3 -> ip3
I0428 19:59:09.617316 29169 net.cpp:124] Setting up ip3
I0428 19:59:09.617324 29169 net.cpp:131] Top shape: 64 10 (640)
I0428 19:59:09.617327 29169 net.cpp:139] Memory required for data: 2282240
I0428 19:59:09.617334 29169 layer_factory.hpp:77] Creating layer relu3
I0428 19:59:09.617339 29169 net.cpp:86] Creating Layer relu3
I0428 19:59:09.617342 29169 net.cpp:408] relu3 <- ip3
I0428 19:59:09.617347 29169 net.cpp:369] relu3 -> ip3 (in-place)
I0428 19:59:09.617507 29169 net.cpp:124] Setting up relu3
I0428 19:59:09.617516 29169 net.cpp:131] Top shape: 64 10 (640)
I0428 19:59:09.617518 29169 net.cpp:139] Memory required for data: 2284800
I0428 19:59:09.617522 29169 layer_factory.hpp:77] Creating layer loss
I0428 19:59:09.617527 29169 net.cpp:86] Creating Layer loss
I0428 19:59:09.617529 29169 net.cpp:408] loss <- ip3
I0428 19:59:09.617533 29169 net.cpp:408] loss <- label
I0428 19:59:09.617538 29169 net.cpp:382] loss -> loss
I0428 19:59:09.617552 29169 layer_factory.hpp:77] Creating layer loss
…
I0428 19:59:09.618158 29169 solver.cpp:173] Creating test net (#0) specified by net file: ECE595/mnist/train_test/var_everything2/lenet_train_test839.prototxt
I0428 19:59:09.618199 29169 net.cpp:296] The NetState phase (1) differed from the phase (0) specified by a rule in layer mnist
I0428 19:59:09.618285 29169 net.cpp:53] Initializing net from parameters: 
name: "LeNet"
state {
  phase: TEST
}
layer {
  name: "mnist"
  type: "Data"
  top: "data"
  top: "label"
  include {
    phase: TEST
  }
  transform_param {
    scale: 0.00390625
  }
  data_param {
    source: "examples/mnist/mnist_test_lmdb"
    batch_size: 100
    backend: LMDB
  }
}
layer {
  name: "conv0"
  type: "Convolution"
  bottom: "data"
  top: "conv0"
  param {
    lr_mult: 1
  }
  param {
    lr_mult: 2
  }
  convolution_param {
    num_output: 10
    kernel_size: 5
    stride: 1
    weight_filler {
      type: "xavier"
    }
    bias_filler {
      type: "constant"
    }
  }
}
layer {
  name: "pool0"
  type: "Pooling"
  bottom: "conv0"
  top: "pool0"
  pooling_param {
    pool: MAX
    kernel_size: 2
    stride: 2
  }
}
layer {
  name: "conv1"
  type: "Convolution"
  bottom: "pool0"
  top: "conv1"
  param {
    lr_mult: 1
  }
  param {
    lr_mult: 2
  }
  convolution_param {
    num_output: 10
    kernel_size: 5
    stride: 1
    weight_filler {
      type: "xavier"
    }
    bias_filler {
      type: "constant"
    }
  }
}
layer {
  name: "pool1"
  type: "Pooling"
  bottom: "conv1"
  top: "pool1"
  pooling_param {
    pool: MAX
    kernel_size: 2
    stride: 2
  }
}
layer {
  name: "ip1"
  type: "InnerProduct"
  bottom: "pool1"
  top: "ip1"
  param {
    lr_mult: 1
  }
  param {
    lr_mult: 2
  }
  inner_product_param {
    num_output: 10
    weight_filler {
      type: "xavier"
    }
    bias_filler {
      type: "constant"
    }
  }
}
layer {
  name: "relu1"
  type: "ReLU"
  bottom: "ip1"
  top: "ip1"
}
layer {
  name: "ip2"
  type: "InnerProduct"
  bottom: "ip1"
  top: "ip2"
  param {
    lr_mult: 1
  }
  param {
    lr_mult: 2
  }
  inner_product_param {
    num_output: 50
    weight_filler {
      type: "xavier"
    }
    bias_filler {
      type: "constant"
    }
  }
}
layer {
  name: "relu2"
  type: "ReLU"
  bottom: "ip2"
  top: "ip2"
}
layer {
  name: "ip3"
  type: "InnerProduct"
  bottom: "ip2"
  top: "ip3"
  param {
    lr_mult: 1
  }
  param {
    lr_mult: 2
  }
  inner_product_param {
    num_output: 10
    weight_filler {
      type: "xavier"
    }
    bias_filler {
      type: "constant"
    }
  }
}
layer {
  name: "relu3"
  type: "ReLU"
  bottom: "ip3"
  top: "ip3"
}
layer {
  name: "accuracy"
  type: "Accuracy"
  bottom: "ip3"
  bottom: "label"
  top: "accuracy"
  include {
    phase: TEST
  }
}
layer {
  name: "loss"
  type: "SoftmaxWithLoss"
  bottom: "ip3"
  bottom: "label"
  top: "loss"
}
I0428 19:59:09.618357 29169 layer_factory.hpp:77] Creating layer mnist
I0428 19:59:09.618399 29169 db_lmdb.cpp:35] Opened lmdb examples/mnist/mnist_test_lmdb
I0428 19:59:09.618412 29169 net.cpp:86] Creating Layer mnist
I0428 19:59:09.618417 29169 net.cpp:382] mnist -> data
I0428 19:59:09.618423 29169 net.cpp:382] mnist -> label
I0428 19:59:09.618502 29169 data_layer.cpp:45] output data size: 100,1,28,28
I0428 19:59:09.620476 29169 net.cpp:124] Setting up mnist
I0428 19:59:09.620504 29169 net.cpp:131] Top shape: 100 1 28 28 (78400)
I0428 19:59:09.620509 29169 net.cpp:131] Top shape: 100 (100)
I0428 19:59:09.620513 29169 net.cpp:139] Memory required for data: 314000
I0428 19:59:09.620517 29169 layer_factory.hpp:77] Creating layer label_mnist_1_split
I0428 19:59:09.620523 29169 net.cpp:86] Creating Layer label_mnist_1_split
I0428 19:59:09.620527 29169 net.cpp:408] label_mnist_1_split <- label
I0428 19:59:09.620530 29169 net.cpp:382] label_mnist_1_split -> label_mnist_1_split_0
I0428 19:59:09.620537 29169 net.cpp:382] label_mnist_1_split -> label_mnist_1_split_1
I0428 19:59:09.620571 29169 net.cpp:124] Setting up label_mnist_1_split
I0428 19:59:09.620575 29169 net.cpp:131] Top shape: 100 (100)
I0428 19:59:09.620579 29169 net.cpp:131] Top shape: 100 (100)
I0428 19:59:09.620581 29169 net.cpp:139] Memory required for data: 314800
I0428 19:59:09.620584 29169 layer_factory.hpp:77] Creating layer conv0
I0428 19:59:09.620592 29169 net.cpp:86] Creating Layer conv0
I0428 19:59:09.620595 29169 net.cpp:408] conv0 <- data
I0428 19:59:09.620600 29169 net.cpp:382] conv0 -> conv0
I0428 19:59:09.622210 29169 net.cpp:124] Setting up conv0
I0428 19:59:09.622225 29169 net.cpp:131] Top shape: 100 10 24 24 (576000)
I0428 19:59:09.622227 29169 net.cpp:139] Memory required for data: 2618800
I0428 19:59:09.622236 29169 layer_factory.hpp:77] Creating layer pool0
I0428 19:59:09.622242 29169 net.cpp:86] Creating Layer pool0
I0428 19:59:09.622246 29169 net.cpp:408] pool0 <- conv0
I0428 19:59:09.622251 29169 net.cpp:382] pool0 -> pool0
I0428 19:59:09.622287 29169 net.cpp:124] Setting up pool0
I0428 19:59:09.622294 29169 net.cpp:131] Top shape: 100 10 12 12 (144000)
I0428 19:59:09.622298 29169 net.cpp:139] Memory required for data: 3194800
I0428 19:59:09.622299 29169 layer_factory.hpp:77] Creating layer conv1
I0428 19:59:09.622309 29169 net.cpp:86] Creating Layer conv1
I0428 19:59:09.622328 29169 net.cpp:408] conv1 <- pool0
I0428 19:59:09.622333 29169 net.cpp:382] conv1 -> conv1
I0428 19:59:09.624290 29169 net.cpp:124] Setting up conv1
I0428 19:59:09.624305 29169 net.cpp:131] Top shape: 100 10 8 8 (64000)
I0428 19:59:09.624308 29169 net.cpp:139] Memory required for data: 3450800
I0428 19:59:09.624317 29169 layer_factory.hpp:77] Creating layer pool1
I0428 19:59:09.624325 29169 net.cpp:86] Creating Layer pool1
I0428 19:59:09.624330 29169 net.cpp:408] pool1 <- conv1
I0428 19:59:09.624335 29169 net.cpp:382] pool1 -> pool1
I0428 19:59:09.624380 29169 net.cpp:124] Setting up pool1
I0428 19:59:09.624387 29169 net.cpp:131] Top shape: 100 10 4 4 (16000)
I0428 19:59:09.624390 29169 net.cpp:139] Memory required for data: 3514800
I0428 19:59:09.624393 29169 layer_factory.hpp:77] Creating layer ip1
I0428 19:59:09.624399 29169 net.cpp:86] Creating Layer ip1
I0428 19:59:09.624402 29169 net.cpp:408] ip1 <- pool1
I0428 19:59:09.624413 29169 net.cpp:382] ip1 -> ip1
I0428 19:59:09.624579 29169 net.cpp:124] Setting up ip1
I0428 19:59:09.624588 29169 net.cpp:131] Top shape: 100 10 (1000)
I0428 19:59:09.624603 29169 net.cpp:139] Memory required for data: 3518800
I0428 19:59:09.624610 29169 layer_factory.hpp:77] Creating layer relu1
I0428 19:59:09.624615 29169 net.cpp:86] Creating Layer relu1
I0428 19:59:09.624619 29169 net.cpp:408] relu1 <- ip1
I0428 19:59:09.624634 29169 net.cpp:369] relu1 -> ip1 (in-place)
I0428 19:59:09.624832 29169 net.cpp:124] Setting up relu1
I0428 19:59:09.624842 29169 net.cpp:131] Top shape: 100 10 (1000)
I0428 19:59:09.624846 29169 net.cpp:139] Memory required for data: 3522800
I0428 19:59:09.624850 29169 layer_factory.hpp:77] Creating layer ip2
I0428 19:59:09.624856 29169 net.cpp:86] Creating Layer ip2
I0428 19:59:09.624861 29169 net.cpp:408] ip2 <- ip1
I0428 19:59:09.624866 29169 net.cpp:382] ip2 -> ip2
I0428 19:59:09.624990 29169 net.cpp:124] Setting up ip2
I0428 19:59:09.624999 29169 net.cpp:131] Top shape: 100 50 (5000)
I0428 19:59:09.625001 29169 net.cpp:139] Memory required for data: 3542800
I0428 19:59:09.625007 29169 layer_factory.hpp:77] Creating layer relu2
I0428 19:59:09.625020 29169 net.cpp:86] Creating Layer relu2
I0428 19:59:09.625023 29169 net.cpp:408] relu2 <- ip2
I0428 19:59:09.625027 29169 net.cpp:369] relu2 -> ip2 (in-place)
I0428 19:59:09.625231 29169 net.cpp:124] Setting up relu2
I0428 19:59:09.625239 29169 net.cpp:131] Top shape: 100 50 (5000)
I0428 19:59:09.625242 29169 net.cpp:139] Memory required for data: 3562800
I0428 19:59:09.625246 29169 layer_factory.hpp:77] Creating layer ip3
I0428 19:59:09.625252 29169 net.cpp:86] Creating Layer ip3
I0428 19:59:09.625255 29169 net.cpp:408] ip3 <- ip2
I0428 19:59:09.625259 29169 net.cpp:382] ip3 -> ip3
I0428 19:59:09.625381 29169 net.cpp:124] Setting up ip3
I0428 19:59:09.625391 29169 net.cpp:131] Top shape: 100 10 (1000)
I0428 19:59:09.625393 29169 net.cpp:139] Memory required for data: 3566800
I0428 19:59:09.625401 29169 layer_factory.hpp:77] Creating layer relu3
I0428 19:59:09.625407 29169 net.cpp:86] Creating Layer relu3
I0428 19:59:09.625411 29169 net.cpp:408] relu3 <- ip3
I0428 19:59:09.625414 29169 net.cpp:369] relu3 -> ip3 (in-place)
I0428 19:59:09.626251 29169 net.cpp:124] Setting up relu3
I0428 19:59:09.626263 29169 net.cpp:131] Top shape: 100 10 (1000)
I0428 19:59:09.626266 29169 net.cpp:139] Memory required for data: 3570800
I0428 19:59:09.626271 29169 layer_factory.hpp:77] Creating layer ip3_relu3_0_split
I0428 19:59:09.626276 29169 net.cpp:86] Creating Layer ip3_relu3_0_split
I0428 19:59:09.626279 29169 net.cpp:408] ip3_relu3_0_split <- ip3
I0428 19:59:09.626284 29169 net.cpp:382] ip3_relu3_0_split -> ip3_relu3_0_split_0
I0428 19:59:09.626291 29169 net.cpp:382] ip3_relu3_0_split -> ip3_relu3_0_split_1
I0428 19:59:09.626330 29169 net.cpp:124] Setting up ip3_relu3_0_split
I0428 19:59:09.626338 29169 net.cpp:131] Top shape: 100 10 (1000)
I0428 19:59:09.626341 29169 net.cpp:131] Top shape: 100 10 (1000)
I0428 19:59:09.626344 29169 net.cpp:139] Memory required for data: 3578800
I0428 19:59:09.626348 29169 layer_factory.hpp:77] Creating layer accuracy
I0428 19:59:09.626353 29169 net.cpp:86] Creating Layer accuracy
I0428 19:59:09.626356 29169 net.cpp:408] accuracy <- ip3_relu3_0_split_0
I0428 19:59:09.626370 29169 net.cpp:408] accuracy <- label_mnist_1_split_0
I0428 19:59:09.626375 29169 net.cpp:382] accuracy -> accuracy
…
