…
I0428 20:08:09.207276 31316 net.cpp:296] The NetState phase (0) differed from the phase (1) specified by a rule in layer mnist
I0428 20:08:09.207306 31316 net.cpp:296] The NetState phase (0) differed from the phase (1) specified by a rule in layer accuracy
I0428 20:08:09.207413 31316 net.cpp:53] Initializing net from parameters: 
name: "LeNet"
state {
  phase: TRAIN
  level: 0
  stage: ""
}
layer {
  name: "mnist"
  type: "Data"
  top: "data"
  top: "label"
  include {
    phase: TRAIN
  }
  transform_param {
    scale: 0.00390625
  }
  data_param {
    source: "examples/mnist/mnist_train_lmdb"
    batch_size: 64
    backend: LMDB
  }
}
layer {
  name: "conv0"
  type: "Convolution"
  bottom: "data"
  top: "conv0"
  param {
    lr_mult: 1
  }
  param {
    lr_mult: 2
  }
  convolution_param {
    num_output: 25
    kernel_size: 5
    stride: 1
    weight_filler {
      type: "xavier"
    }
    bias_filler {
      type: "constant"
    }
  }
}
layer {
  name: "pool0"
  type: "Pooling"
  bottom: "conv0"
  top: "pool0"
  pooling_param {
    pool: MAX
    kernel_size: 2
    stride: 2
  }
}
layer {
  name: "conv1"
  type: "Convolution"
  bottom: "pool0"
  top: "conv1"
  param {
    lr_mult: 1
  }
  param {
    lr_mult: 2
  }
  convolution_param {
    num_output: 10
    kernel_size: 5
    stride: 1
    weight_filler {
      type: "xavier"
    }
    bias_filler {
      type: "constant"
    }
  }
}
layer {
  name: "pool1"
  type: "Pooling"
  bottom: "conv1"
  top: "pool1"
  pooling_param {
    pool: MAX
    kernel_size: 2
    stride: 2
  }
}
layer {
  name: "ip1"
  type: "InnerProduct"
  bottom: "pool1"
  top: "ip1"
  param {
    lr_mult: 1
  }
  param {
    lr_mult: 2
  }
  inner_product_param {
    num_output: 25
    weight_filler {
      type: "xavier"
    }
    bias_filler {
      type: "constant"
    }
  }
}
layer {
  name: "relu1"
  type: "ReLU"
  bottom: "ip1"
  top: "ip1"
}
layer {
  name: "ip2"
  type: "InnerProduct"
  bottom: "ip1"
  top: "ip2"
  param {
    lr_mult: 1
  }
  param {
    lr_mult: 2
  }
  inner_product_param {
    num_output: 10
    weight_filler {
      type: "xavier"
    }
    bias_filler {
      type: "constant"
    }
  }
}
layer {
  name: "relu2"
  type: "ReLU"
  bottom: "ip2"
  top: "ip2"
}
layer {
  name: "ip3"
  type: "InnerProduct"
  bottom: "ip2"
  top: "ip3"
  param {
    lr_mult: 1
  }
  param {
    lr_mult: 2
  }
  inner_product_param {
    num_output: 10
    weight_filler {
      type: "xavier"
    }
    bias_filler {
      type: "constant"
    }
  }
}
layer {
  name: "relu3"
  type: "ReLU"
  bottom: "ip3"
  top: "ip3"
}
layer {
  name: "loss"
  type: "SoftmaxWithLoss"
  bottom: "ip3"
  bottom: "label"
  top: "loss"
}
I0428 20:08:09.207473 31316 layer_factory.hpp:77] Creating layer mnist
I0428 20:08:09.207551 31316 db_lmdb.cpp:35] Opened lmdb examples/mnist/mnist_train_lmdb
I0428 20:08:09.207571 31316 net.cpp:86] Creating Layer mnist
I0428 20:08:09.207576 31316 net.cpp:382] mnist -> data
I0428 20:08:09.207594 31316 net.cpp:382] mnist -> label
I0428 20:08:09.208498 31316 data_layer.cpp:45] output data size: 64,1,28,28
I0428 20:08:09.210729 31316 net.cpp:124] Setting up mnist
I0428 20:08:09.210758 31316 net.cpp:131] Top shape: 64 1 28 28 (50176)
I0428 20:08:09.210777 31316 net.cpp:131] Top shape: 64 (64)
I0428 20:08:09.210780 31316 net.cpp:139] Memory required for data: 200960
I0428 20:08:09.210786 31316 layer_factory.hpp:77] Creating layer conv0
I0428 20:08:09.210808 31316 net.cpp:86] Creating Layer conv0
I0428 20:08:09.210824 31316 net.cpp:408] conv0 <- data
I0428 20:08:09.210834 31316 net.cpp:382] conv0 -> conv0
I0428 20:08:09.446101 31316 net.cpp:124] Setting up conv0
I0428 20:08:09.446127 31316 net.cpp:131] Top shape: 64 25 24 24 (921600)
I0428 20:08:09.446131 31316 net.cpp:139] Memory required for data: 3887360
I0428 20:08:09.446144 31316 layer_factory.hpp:77] Creating layer pool0
I0428 20:08:09.446157 31316 net.cpp:86] Creating Layer pool0
I0428 20:08:09.446161 31316 net.cpp:408] pool0 <- conv0
I0428 20:08:09.446166 31316 net.cpp:382] pool0 -> pool0
I0428 20:08:09.446239 31316 net.cpp:124] Setting up pool0
I0428 20:08:09.446245 31316 net.cpp:131] Top shape: 64 25 12 12 (230400)
I0428 20:08:09.446247 31316 net.cpp:139] Memory required for data: 4808960
I0428 20:08:09.446250 31316 layer_factory.hpp:77] Creating layer conv1
I0428 20:08:09.446261 31316 net.cpp:86] Creating Layer conv1
I0428 20:08:09.446264 31316 net.cpp:408] conv1 <- pool0
I0428 20:08:09.446269 31316 net.cpp:382] conv1 -> conv1
I0428 20:08:09.449293 31316 net.cpp:124] Setting up conv1
I0428 20:08:09.449322 31316 net.cpp:131] Top shape: 64 10 8 8 (40960)
I0428 20:08:09.449326 31316 net.cpp:139] Memory required for data: 4972800
I0428 20:08:09.449334 31316 layer_factory.hpp:77] Creating layer pool1
I0428 20:08:09.449342 31316 net.cpp:86] Creating Layer pool1
I0428 20:08:09.449345 31316 net.cpp:408] pool1 <- conv1
I0428 20:08:09.449352 31316 net.cpp:382] pool1 -> pool1
I0428 20:08:09.449404 31316 net.cpp:124] Setting up pool1
I0428 20:08:09.449409 31316 net.cpp:131] Top shape: 64 10 4 4 (10240)
I0428 20:08:09.449411 31316 net.cpp:139] Memory required for data: 5013760
I0428 20:08:09.449414 31316 layer_factory.hpp:77] Creating layer ip1
I0428 20:08:09.449421 31316 net.cpp:86] Creating Layer ip1
I0428 20:08:09.449425 31316 net.cpp:408] ip1 <- pool1
I0428 20:08:09.449430 31316 net.cpp:382] ip1 -> ip1
I0428 20:08:09.450424 31316 net.cpp:124] Setting up ip1
I0428 20:08:09.450435 31316 net.cpp:131] Top shape: 64 25 (1600)
I0428 20:08:09.450454 31316 net.cpp:139] Memory required for data: 5020160
I0428 20:08:09.450462 31316 layer_factory.hpp:77] Creating layer relu1
I0428 20:08:09.450469 31316 net.cpp:86] Creating Layer relu1
I0428 20:08:09.450474 31316 net.cpp:408] relu1 <- ip1
I0428 20:08:09.450477 31316 net.cpp:369] relu1 -> ip1 (in-place)
I0428 20:08:09.450696 31316 net.cpp:124] Setting up relu1
I0428 20:08:09.450706 31316 net.cpp:131] Top shape: 64 25 (1600)
I0428 20:08:09.450709 31316 net.cpp:139] Memory required for data: 5026560
I0428 20:08:09.450712 31316 layer_factory.hpp:77] Creating layer ip2
I0428 20:08:09.450718 31316 net.cpp:86] Creating Layer ip2
I0428 20:08:09.450721 31316 net.cpp:408] ip2 <- ip1
I0428 20:08:09.450727 31316 net.cpp:382] ip2 -> ip2
I0428 20:08:09.450821 31316 net.cpp:124] Setting up ip2
I0428 20:08:09.450829 31316 net.cpp:131] Top shape: 64 10 (640)
I0428 20:08:09.450831 31316 net.cpp:139] Memory required for data: 5029120
I0428 20:08:09.450836 31316 layer_factory.hpp:77] Creating layer relu2
I0428 20:08:09.450844 31316 net.cpp:86] Creating Layer relu2
I0428 20:08:09.450846 31316 net.cpp:408] relu2 <- ip2
I0428 20:08:09.450851 31316 net.cpp:369] relu2 -> ip2 (in-place)
I0428 20:08:09.451611 31316 net.cpp:124] Setting up relu2
I0428 20:08:09.451638 31316 net.cpp:131] Top shape: 64 10 (640)
I0428 20:08:09.451642 31316 net.cpp:139] Memory required for data: 5031680
I0428 20:08:09.451659 31316 layer_factory.hpp:77] Creating layer ip3
I0428 20:08:09.451666 31316 net.cpp:86] Creating Layer ip3
I0428 20:08:09.451669 31316 net.cpp:408] ip3 <- ip2
I0428 20:08:09.451675 31316 net.cpp:382] ip3 -> ip3
I0428 20:08:09.451792 31316 net.cpp:124] Setting up ip3
I0428 20:08:09.451800 31316 net.cpp:131] Top shape: 64 10 (640)
I0428 20:08:09.451803 31316 net.cpp:139] Memory required for data: 5034240
I0428 20:08:09.451812 31316 layer_factory.hpp:77] Creating layer relu3
I0428 20:08:09.451817 31316 net.cpp:86] Creating Layer relu3
I0428 20:08:09.451820 31316 net.cpp:408] relu3 <- ip3
I0428 20:08:09.451824 31316 net.cpp:369] relu3 -> ip3 (in-place)
I0428 20:08:09.451993 31316 net.cpp:124] Setting up relu3
I0428 20:08:09.452003 31316 net.cpp:131] Top shape: 64 10 (640)
I0428 20:08:09.452005 31316 net.cpp:139] Memory required for data: 5036800
I0428 20:08:09.452008 31316 layer_factory.hpp:77] Creating layer loss
I0428 20:08:09.452015 31316 net.cpp:86] Creating Layer loss
I0428 20:08:09.452018 31316 net.cpp:408] loss <- ip3
I0428 20:08:09.452021 31316 net.cpp:408] loss <- label
I0428 20:08:09.452026 31316 net.cpp:382] loss -> loss
I0428 20:08:09.452059 31316 layer_factory.hpp:77] Creating layer loss
…
I0428 20:08:09.452689 31316 solver.cpp:173] Creating test net (#0) specified by net file: ECE595/mnist/train_test/var_everything2/lenet_train_test1075.prototxt
I0428 20:08:09.452744 31316 net.cpp:296] The NetState phase (1) differed from the phase (0) specified by a rule in layer mnist
I0428 20:08:09.452863 31316 net.cpp:53] Initializing net from parameters: 
name: "LeNet"
state {
  phase: TEST
}
layer {
  name: "mnist"
  type: "Data"
  top: "data"
  top: "label"
  include {
    phase: TEST
  }
  transform_param {
    scale: 0.00390625
  }
  data_param {
    source: "examples/mnist/mnist_test_lmdb"
    batch_size: 100
    backend: LMDB
  }
}
layer {
  name: "conv0"
  type: "Convolution"
  bottom: "data"
  top: "conv0"
  param {
    lr_mult: 1
  }
  param {
    lr_mult: 2
  }
  convolution_param {
    num_output: 25
    kernel_size: 5
    stride: 1
    weight_filler {
      type: "xavier"
    }
    bias_filler {
      type: "constant"
    }
  }
}
layer {
  name: "pool0"
  type: "Pooling"
  bottom: "conv0"
  top: "pool0"
  pooling_param {
    pool: MAX
    kernel_size: 2
    stride: 2
  }
}
layer {
  name: "conv1"
  type: "Convolution"
  bottom: "pool0"
  top: "conv1"
  param {
    lr_mult: 1
  }
  param {
    lr_mult: 2
  }
  convolution_param {
    num_output: 10
    kernel_size: 5
    stride: 1
    weight_filler {
      type: "xavier"
    }
    bias_filler {
      type: "constant"
    }
  }
}
layer {
  name: "pool1"
  type: "Pooling"
  bottom: "conv1"
  top: "pool1"
  pooling_param {
    pool: MAX
    kernel_size: 2
    stride: 2
  }
}
layer {
  name: "ip1"
  type: "InnerProduct"
  bottom: "pool1"
  top: "ip1"
  param {
    lr_mult: 1
  }
  param {
    lr_mult: 2
  }
  inner_product_param {
    num_output: 25
    weight_filler {
      type: "xavier"
    }
    bias_filler {
      type: "constant"
    }
  }
}
layer {
  name: "relu1"
  type: "ReLU"
  bottom: "ip1"
  top: "ip1"
}
layer {
  name: "ip2"
  type: "InnerProduct"
  bottom: "ip1"
  top: "ip2"
  param {
    lr_mult: 1
  }
  param {
    lr_mult: 2
  }
  inner_product_param {
    num_output: 10
    weight_filler {
      type: "xavier"
    }
    bias_filler {
      type: "constant"
    }
  }
}
layer {
  name: "relu2"
  type: "ReLU"
  bottom: "ip2"
  top: "ip2"
}
layer {
  name: "ip3"
  type: "InnerProduct"
  bottom: "ip2"
  top: "ip3"
  param {
    lr_mult: 1
  }
  param {
    lr_mult: 2
  }
  inner_product_param {
    num_output: 10
    weight_filler {
      type: "xavier"
    }
    bias_filler {
      type: "constant"
    }
  }
}
layer {
  name: "relu3"
  type: "ReLU"
  bottom: "ip3"
  top: "ip3"
}
layer {
  name: "accuracy"
  type: "Accuracy"
  bottom: "ip3"
  bottom: "label"
  top: "accuracy"
  include {
    phase: TEST
  }
}
layer {
  name: "loss"
  type: "SoftmaxWithLoss"
  bottom: "ip3"
  bottom: "label"
  top: "loss"
}
I0428 20:08:09.452973 31316 layer_factory.hpp:77] Creating layer mnist
I0428 20:08:09.453033 31316 db_lmdb.cpp:35] Opened lmdb examples/mnist/mnist_test_lmdb
I0428 20:08:09.453047 31316 net.cpp:86] Creating Layer mnist
I0428 20:08:09.453052 31316 net.cpp:382] mnist -> data
I0428 20:08:09.453060 31316 net.cpp:382] mnist -> label
I0428 20:08:09.453146 31316 data_layer.cpp:45] output data size: 100,1,28,28
I0428 20:08:09.455334 31316 net.cpp:124] Setting up mnist
I0428 20:08:09.455363 31316 net.cpp:131] Top shape: 100 1 28 28 (78400)
I0428 20:08:09.455382 31316 net.cpp:131] Top shape: 100 (100)
I0428 20:08:09.455385 31316 net.cpp:139] Memory required for data: 314000
I0428 20:08:09.455389 31316 layer_factory.hpp:77] Creating layer label_mnist_1_split
I0428 20:08:09.455423 31316 net.cpp:86] Creating Layer label_mnist_1_split
I0428 20:08:09.455428 31316 net.cpp:408] label_mnist_1_split <- label
I0428 20:08:09.455435 31316 net.cpp:382] label_mnist_1_split -> label_mnist_1_split_0
I0428 20:08:09.455440 31316 net.cpp:382] label_mnist_1_split -> label_mnist_1_split_1
I0428 20:08:09.455482 31316 net.cpp:124] Setting up label_mnist_1_split
I0428 20:08:09.455493 31316 net.cpp:131] Top shape: 100 (100)
I0428 20:08:09.455497 31316 net.cpp:131] Top shape: 100 (100)
I0428 20:08:09.455499 31316 net.cpp:139] Memory required for data: 314800
I0428 20:08:09.455502 31316 layer_factory.hpp:77] Creating layer conv0
I0428 20:08:09.455512 31316 net.cpp:86] Creating Layer conv0
I0428 20:08:09.455514 31316 net.cpp:408] conv0 <- data
I0428 20:08:09.455520 31316 net.cpp:382] conv0 -> conv0
I0428 20:08:09.457365 31316 net.cpp:124] Setting up conv0
I0428 20:08:09.457406 31316 net.cpp:131] Top shape: 100 25 24 24 (1440000)
I0428 20:08:09.457409 31316 net.cpp:139] Memory required for data: 6074800
I0428 20:08:09.457418 31316 layer_factory.hpp:77] Creating layer pool0
I0428 20:08:09.457427 31316 net.cpp:86] Creating Layer pool0
I0428 20:08:09.457429 31316 net.cpp:408] pool0 <- conv0
I0428 20:08:09.457435 31316 net.cpp:382] pool0 -> pool0
I0428 20:08:09.457471 31316 net.cpp:124] Setting up pool0
I0428 20:08:09.457476 31316 net.cpp:131] Top shape: 100 25 12 12 (360000)
I0428 20:08:09.457479 31316 net.cpp:139] Memory required for data: 7514800
I0428 20:08:09.457482 31316 layer_factory.hpp:77] Creating layer conv1
I0428 20:08:09.457492 31316 net.cpp:86] Creating Layer conv1
I0428 20:08:09.457495 31316 net.cpp:408] conv1 <- pool0
I0428 20:08:09.457500 31316 net.cpp:382] conv1 -> conv1
I0428 20:08:09.459734 31316 net.cpp:124] Setting up conv1
I0428 20:08:09.459761 31316 net.cpp:131] Top shape: 100 10 8 8 (64000)
I0428 20:08:09.459765 31316 net.cpp:139] Memory required for data: 7770800
I0428 20:08:09.459774 31316 layer_factory.hpp:77] Creating layer pool1
I0428 20:08:09.459779 31316 net.cpp:86] Creating Layer pool1
I0428 20:08:09.459782 31316 net.cpp:408] pool1 <- conv1
I0428 20:08:09.459789 31316 net.cpp:382] pool1 -> pool1
I0428 20:08:09.459841 31316 net.cpp:124] Setting up pool1
I0428 20:08:09.459847 31316 net.cpp:131] Top shape: 100 10 4 4 (16000)
I0428 20:08:09.459849 31316 net.cpp:139] Memory required for data: 7834800
I0428 20:08:09.459852 31316 layer_factory.hpp:77] Creating layer ip1
I0428 20:08:09.459859 31316 net.cpp:86] Creating Layer ip1
I0428 20:08:09.459862 31316 net.cpp:408] ip1 <- pool1
I0428 20:08:09.459867 31316 net.cpp:382] ip1 -> ip1
I0428 20:08:09.460007 31316 net.cpp:124] Setting up ip1
I0428 20:08:09.460026 31316 net.cpp:131] Top shape: 100 25 (2500)
I0428 20:08:09.460039 31316 net.cpp:139] Memory required for data: 7844800
I0428 20:08:09.460047 31316 layer_factory.hpp:77] Creating layer relu1
I0428 20:08:09.460052 31316 net.cpp:86] Creating Layer relu1
I0428 20:08:09.460054 31316 net.cpp:408] relu1 <- ip1
I0428 20:08:09.460060 31316 net.cpp:369] relu1 -> ip1 (in-place)
I0428 20:08:09.460222 31316 net.cpp:124] Setting up relu1
I0428 20:08:09.460232 31316 net.cpp:131] Top shape: 100 25 (2500)
I0428 20:08:09.460234 31316 net.cpp:139] Memory required for data: 7854800
I0428 20:08:09.460238 31316 layer_factory.hpp:77] Creating layer ip2
I0428 20:08:09.460245 31316 net.cpp:86] Creating Layer ip2
I0428 20:08:09.460249 31316 net.cpp:408] ip2 <- ip1
I0428 20:08:09.460253 31316 net.cpp:382] ip2 -> ip2
I0428 20:08:09.460350 31316 net.cpp:124] Setting up ip2
I0428 20:08:09.460356 31316 net.cpp:131] Top shape: 100 10 (1000)
I0428 20:08:09.460360 31316 net.cpp:139] Memory required for data: 7858800
I0428 20:08:09.460366 31316 layer_factory.hpp:77] Creating layer relu2
I0428 20:08:09.460369 31316 net.cpp:86] Creating Layer relu2
I0428 20:08:09.460373 31316 net.cpp:408] relu2 <- ip2
I0428 20:08:09.460378 31316 net.cpp:369] relu2 -> ip2 (in-place)
I0428 20:08:09.460541 31316 net.cpp:124] Setting up relu2
I0428 20:08:09.460549 31316 net.cpp:131] Top shape: 100 10 (1000)
I0428 20:08:09.460552 31316 net.cpp:139] Memory required for data: 7862800
I0428 20:08:09.460556 31316 layer_factory.hpp:77] Creating layer ip3
I0428 20:08:09.460561 31316 net.cpp:86] Creating Layer ip3
I0428 20:08:09.460564 31316 net.cpp:408] ip3 <- ip2
I0428 20:08:09.460568 31316 net.cpp:382] ip3 -> ip3
I0428 20:08:09.460664 31316 net.cpp:124] Setting up ip3
I0428 20:08:09.460671 31316 net.cpp:131] Top shape: 100 10 (1000)
I0428 20:08:09.460675 31316 net.cpp:139] Memory required for data: 7866800
I0428 20:08:09.460682 31316 layer_factory.hpp:77] Creating layer relu3
I0428 20:08:09.460688 31316 net.cpp:86] Creating Layer relu3
I0428 20:08:09.460691 31316 net.cpp:408] relu3 <- ip3
I0428 20:08:09.460695 31316 net.cpp:369] relu3 -> ip3 (in-place)
I0428 20:08:09.461565 31316 net.cpp:124] Setting up relu3
I0428 20:08:09.461593 31316 net.cpp:131] Top shape: 100 10 (1000)
I0428 20:08:09.461596 31316 net.cpp:139] Memory required for data: 7870800
I0428 20:08:09.461616 31316 layer_factory.hpp:77] Creating layer ip3_relu3_0_split
I0428 20:08:09.461621 31316 net.cpp:86] Creating Layer ip3_relu3_0_split
I0428 20:08:09.461624 31316 net.cpp:408] ip3_relu3_0_split <- ip3
I0428 20:08:09.461629 31316 net.cpp:382] ip3_relu3_0_split -> ip3_relu3_0_split_0
I0428 20:08:09.461635 31316 net.cpp:382] ip3_relu3_0_split -> ip3_relu3_0_split_1
I0428 20:08:09.461712 31316 net.cpp:124] Setting up ip3_relu3_0_split
I0428 20:08:09.461720 31316 net.cpp:131] Top shape: 100 10 (1000)
I0428 20:08:09.461724 31316 net.cpp:131] Top shape: 100 10 (1000)
I0428 20:08:09.461732 31316 net.cpp:139] Memory required for data: 7878800
I0428 20:08:09.461735 31316 layer_factory.hpp:77] Creating layer accuracy
I0428 20:08:09.461740 31316 net.cpp:86] Creating Layer accuracy
I0428 20:08:09.461743 31316 net.cpp:408] accuracy <- ip3_relu3_0_split_0
I0428 20:08:09.461748 31316 net.cpp:408] accuracy <- label_mnist_1_split_0
I0428 20:08:09.461755 31316 net.cpp:382] accuracy -> accuracy
…
