…
I0428 19:43:28.074928 25351 net.cpp:296] The NetState phase (0) differed from the phase (1) specified by a rule in layer mnist
I0428 19:43:28.074945 25351 net.cpp:296] The NetState phase (0) differed from the phase (1) specified by a rule in layer accuracy
I0428 19:43:28.075048 25351 net.cpp:53] Initializing net from parameters: 
name: "LeNet"
state {
  phase: TRAIN
  level: 0
  stage: ""
}
layer {
  name: "mnist"
  type: "Data"
  top: "data"
  top: "label"
  include {
    phase: TRAIN
  }
  transform_param {
    scale: 0.00390625
  }
  data_param {
    source: "examples/mnist/mnist_train_lmdb"
    batch_size: 64
    backend: LMDB
  }
}
layer {
  name: "conv0"
  type: "Convolution"
  bottom: "data"
  top: "conv0"
  param {
    lr_mult: 1
  }
  param {
    lr_mult: 2
  }
  convolution_param {
    num_output: 2
    kernel_size: 5
    stride: 1
    weight_filler {
      type: "xavier"
    }
    bias_filler {
      type: "constant"
    }
  }
}
layer {
  name: "pool0"
  type: "Pooling"
  bottom: "conv0"
  top: "pool0"
  pooling_param {
    pool: MAX
    kernel_size: 2
    stride: 2
  }
}
layer {
  name: "conv1"
  type: "Convolution"
  bottom: "pool0"
  top: "conv1"
  param {
    lr_mult: 1
  }
  param {
    lr_mult: 2
  }
  convolution_param {
    num_output: 25
    kernel_size: 5
    stride: 1
    weight_filler {
      type: "xavier"
    }
    bias_filler {
      type: "constant"
    }
  }
}
layer {
  name: "pool1"
  type: "Pooling"
  bottom: "conv1"
  top: "pool1"
  pooling_param {
    pool: MAX
    kernel_size: 2
    stride: 2
  }
}
layer {
  name: "ip1"
  type: "InnerProduct"
  bottom: "pool1"
  top: "ip1"
  param {
    lr_mult: 1
  }
  param {
    lr_mult: 2
  }
  inner_product_param {
    num_output: 50
    weight_filler {
      type: "xavier"
    }
    bias_filler {
      type: "constant"
    }
  }
}
layer {
  name: "relu1"
  type: "ReLU"
  bottom: "ip1"
  top: "ip1"
}
layer {
  name: "ip2"
  type: "InnerProduct"
  bottom: "ip1"
  top: "ip2"
  param {
    lr_mult: 1
  }
  param {
    lr_mult: 2
  }
  inner_product_param {
    num_output: 10
    weight_filler {
      type: "xavier"
    }
    bias_filler {
      type: "constant"
    }
  }
}
layer {
  name: "relu2"
  type: "ReLU"
  bottom: "ip2"
  top: "ip2"
}
layer {
  name: "ip3"
  type: "InnerProduct"
  bottom: "ip2"
  top: "ip3"
  param {
    lr_mult: 1
  }
  param {
    lr_mult: 2
  }
  inner_product_param {
    num_output: 10
    weight_filler {
      type: "xavier"
    }
    bias_filler {
      type: "constant"
    }
  }
}
layer {
  name: "relu3"
  type: "ReLU"
  bottom: "ip3"
  top: "ip3"
}
layer {
  name: "loss"
  type: "SoftmaxWithLoss"
  bottom: "ip3"
  bottom: "label"
  top: "loss"
}
I0428 19:43:28.075129 25351 layer_factory.hpp:77] Creating layer mnist
I0428 19:43:28.075237 25351 db_lmdb.cpp:35] Opened lmdb examples/mnist/mnist_train_lmdb
I0428 19:43:28.075261 25351 net.cpp:86] Creating Layer mnist
I0428 19:43:28.075269 25351 net.cpp:382] mnist -> data
I0428 19:43:28.075290 25351 net.cpp:382] mnist -> label
I0428 19:43:28.076395 25351 data_layer.cpp:45] output data size: 64,1,28,28
I0428 19:43:28.078878 25351 net.cpp:124] Setting up mnist
I0428 19:43:28.078896 25351 net.cpp:131] Top shape: 64 1 28 28 (50176)
I0428 19:43:28.078903 25351 net.cpp:131] Top shape: 64 (64)
I0428 19:43:28.078907 25351 net.cpp:139] Memory required for data: 200960
I0428 19:43:28.078914 25351 layer_factory.hpp:77] Creating layer conv0
I0428 19:43:28.078929 25351 net.cpp:86] Creating Layer conv0
I0428 19:43:28.078951 25351 net.cpp:408] conv0 <- data
I0428 19:43:28.078965 25351 net.cpp:382] conv0 -> conv0
I0428 19:43:28.346943 25351 net.cpp:124] Setting up conv0
I0428 19:43:28.346985 25351 net.cpp:131] Top shape: 64 2 24 24 (73728)
I0428 19:43:28.346989 25351 net.cpp:139] Memory required for data: 495872
I0428 19:43:28.347004 25351 layer_factory.hpp:77] Creating layer pool0
I0428 19:43:28.347023 25351 net.cpp:86] Creating Layer pool0
I0428 19:43:28.347028 25351 net.cpp:408] pool0 <- conv0
I0428 19:43:28.347033 25351 net.cpp:382] pool0 -> pool0
I0428 19:43:28.347095 25351 net.cpp:124] Setting up pool0
I0428 19:43:28.347101 25351 net.cpp:131] Top shape: 64 2 12 12 (18432)
I0428 19:43:28.347105 25351 net.cpp:139] Memory required for data: 569600
I0428 19:43:28.347107 25351 layer_factory.hpp:77] Creating layer conv1
I0428 19:43:28.347118 25351 net.cpp:86] Creating Layer conv1
I0428 19:43:28.347124 25351 net.cpp:408] conv1 <- pool0
I0428 19:43:28.347129 25351 net.cpp:382] conv1 -> conv1
I0428 19:43:28.349877 25351 net.cpp:124] Setting up conv1
I0428 19:43:28.349907 25351 net.cpp:131] Top shape: 64 25 8 8 (102400)
I0428 19:43:28.349911 25351 net.cpp:139] Memory required for data: 979200
I0428 19:43:28.349920 25351 layer_factory.hpp:77] Creating layer pool1
I0428 19:43:28.349927 25351 net.cpp:86] Creating Layer pool1
I0428 19:43:28.349931 25351 net.cpp:408] pool1 <- conv1
I0428 19:43:28.349936 25351 net.cpp:382] pool1 -> pool1
I0428 19:43:28.349987 25351 net.cpp:124] Setting up pool1
I0428 19:43:28.349997 25351 net.cpp:131] Top shape: 64 25 4 4 (25600)
I0428 19:43:28.350002 25351 net.cpp:139] Memory required for data: 1081600
I0428 19:43:28.350006 25351 layer_factory.hpp:77] Creating layer ip1
I0428 19:43:28.350015 25351 net.cpp:86] Creating Layer ip1
I0428 19:43:28.350018 25351 net.cpp:408] ip1 <- pool1
I0428 19:43:28.350023 25351 net.cpp:382] ip1 -> ip1
I0428 19:43:28.350237 25351 net.cpp:124] Setting up ip1
I0428 19:43:28.350246 25351 net.cpp:131] Top shape: 64 50 (3200)
I0428 19:43:28.350250 25351 net.cpp:139] Memory required for data: 1094400
I0428 19:43:28.350256 25351 layer_factory.hpp:77] Creating layer relu1
I0428 19:43:28.350263 25351 net.cpp:86] Creating Layer relu1
I0428 19:43:28.350266 25351 net.cpp:408] relu1 <- ip1
I0428 19:43:28.350270 25351 net.cpp:369] relu1 -> ip1 (in-place)
I0428 19:43:28.350457 25351 net.cpp:124] Setting up relu1
I0428 19:43:28.350466 25351 net.cpp:131] Top shape: 64 50 (3200)
I0428 19:43:28.350469 25351 net.cpp:139] Memory required for data: 1107200
I0428 19:43:28.350472 25351 layer_factory.hpp:77] Creating layer ip2
I0428 19:43:28.350478 25351 net.cpp:86] Creating Layer ip2
I0428 19:43:28.350481 25351 net.cpp:408] ip2 <- ip1
I0428 19:43:28.350487 25351 net.cpp:382] ip2 -> ip2
I0428 19:43:28.350585 25351 net.cpp:124] Setting up ip2
I0428 19:43:28.350592 25351 net.cpp:131] Top shape: 64 10 (640)
I0428 19:43:28.350595 25351 net.cpp:139] Memory required for data: 1109760
I0428 19:43:28.350600 25351 layer_factory.hpp:77] Creating layer relu2
I0428 19:43:28.350606 25351 net.cpp:86] Creating Layer relu2
I0428 19:43:28.350610 25351 net.cpp:408] relu2 <- ip2
I0428 19:43:28.350615 25351 net.cpp:369] relu2 -> ip2 (in-place)
I0428 19:43:28.351372 25351 net.cpp:124] Setting up relu2
I0428 19:43:28.351383 25351 net.cpp:131] Top shape: 64 10 (640)
I0428 19:43:28.351403 25351 net.cpp:139] Memory required for data: 1112320
I0428 19:43:28.351407 25351 layer_factory.hpp:77] Creating layer ip3
I0428 19:43:28.351413 25351 net.cpp:86] Creating Layer ip3
I0428 19:43:28.351418 25351 net.cpp:408] ip3 <- ip2
I0428 19:43:28.351423 25351 net.cpp:382] ip3 -> ip3
I0428 19:43:28.351526 25351 net.cpp:124] Setting up ip3
I0428 19:43:28.351532 25351 net.cpp:131] Top shape: 64 10 (640)
I0428 19:43:28.351536 25351 net.cpp:139] Memory required for data: 1114880
I0428 19:43:28.351543 25351 layer_factory.hpp:77] Creating layer relu3
I0428 19:43:28.351549 25351 net.cpp:86] Creating Layer relu3
I0428 19:43:28.351555 25351 net.cpp:408] relu3 <- ip3
I0428 19:43:28.351558 25351 net.cpp:369] relu3 -> ip3 (in-place)
I0428 19:43:28.351729 25351 net.cpp:124] Setting up relu3
I0428 19:43:28.351739 25351 net.cpp:131] Top shape: 64 10 (640)
I0428 19:43:28.351742 25351 net.cpp:139] Memory required for data: 1117440
I0428 19:43:28.351745 25351 layer_factory.hpp:77] Creating layer loss
I0428 19:43:28.351750 25351 net.cpp:86] Creating Layer loss
I0428 19:43:28.351753 25351 net.cpp:408] loss <- ip3
I0428 19:43:28.351758 25351 net.cpp:408] loss <- label
I0428 19:43:28.351763 25351 net.cpp:382] loss -> loss
I0428 19:43:28.351794 25351 layer_factory.hpp:77] Creating layer loss
…
I0428 19:43:28.352506 25351 solver.cpp:173] Creating test net (#0) specified by net file: ECE595/mnist/train_test/var_everything2/lenet_train_test422.prototxt
I0428 19:43:28.352550 25351 net.cpp:296] The NetState phase (1) differed from the phase (0) specified by a rule in layer mnist
I0428 19:43:28.352645 25351 net.cpp:53] Initializing net from parameters: 
name: "LeNet"
state {
  phase: TEST
}
layer {
  name: "mnist"
  type: "Data"
  top: "data"
  top: "label"
  include {
    phase: TEST
  }
  transform_param {
    scale: 0.00390625
  }
  data_param {
    source: "examples/mnist/mnist_test_lmdb"
    batch_size: 100
    backend: LMDB
  }
}
layer {
  name: "conv0"
  type: "Convolution"
  bottom: "data"
  top: "conv0"
  param {
    lr_mult: 1
  }
  param {
    lr_mult: 2
  }
  convolution_param {
    num_output: 2
    kernel_size: 5
    stride: 1
    weight_filler {
      type: "xavier"
    }
    bias_filler {
      type: "constant"
    }
  }
}
layer {
  name: "pool0"
  type: "Pooling"
  bottom: "conv0"
  top: "pool0"
  pooling_param {
    pool: MAX
    kernel_size: 2
    stride: 2
  }
}
layer {
  name: "conv1"
  type: "Convolution"
  bottom: "pool0"
  top: "conv1"
  param {
    lr_mult: 1
  }
  param {
    lr_mult: 2
  }
  convolution_param {
    num_output: 25
    kernel_size: 5
    stride: 1
    weight_filler {
      type: "xavier"
    }
    bias_filler {
      type: "constant"
    }
  }
}
layer {
  name: "pool1"
  type: "Pooling"
  bottom: "conv1"
  top: "pool1"
  pooling_param {
    pool: MAX
    kernel_size: 2
    stride: 2
  }
}
layer {
  name: "ip1"
  type: "InnerProduct"
  bottom: "pool1"
  top: "ip1"
  param {
    lr_mult: 1
  }
  param {
    lr_mult: 2
  }
  inner_product_param {
    num_output: 50
    weight_filler {
      type: "xavier"
    }
    bias_filler {
      type: "constant"
    }
  }
}
layer {
  name: "relu1"
  type: "ReLU"
  bottom: "ip1"
  top: "ip1"
}
layer {
  name: "ip2"
  type: "InnerProduct"
  bottom: "ip1"
  top: "ip2"
  param {
    lr_mult: 1
  }
  param {
    lr_mult: 2
  }
  inner_product_param {
    num_output: 10
    weight_filler {
      type: "xavier"
    }
    bias_filler {
      type: "constant"
    }
  }
}
layer {
  name: "relu2"
  type: "ReLU"
  bottom: "ip2"
  top: "ip2"
}
layer {
  name: "ip3"
  type: "InnerProduct"
  bottom: "ip2"
  top: "ip3"
  param {
    lr_mult: 1
  }
  param {
    lr_mult: 2
  }
  inner_product_param {
    num_output: 10
    weight_filler {
      type: "xavier"
    }
    bias_filler {
      type: "constant"
    }
  }
}
layer {
  name: "relu3"
  type: "ReLU"
  bottom: "ip3"
  top: "ip3"
}
layer {
  name: "accuracy"
  type: "Accuracy"
  bottom: "ip3"
  bottom: "label"
  top: "accuracy"
  include {
    phase: TEST
  }
}
layer {
  name: "loss"
  type: "SoftmaxWithLoss"
  bottom: "ip3"
  bottom: "label"
  top: "loss"
}
I0428 19:43:28.352728 25351 layer_factory.hpp:77] Creating layer mnist
I0428 19:43:28.352787 25351 db_lmdb.cpp:35] Opened lmdb examples/mnist/mnist_test_lmdb
I0428 19:43:28.352798 25351 net.cpp:86] Creating Layer mnist
I0428 19:43:28.352804 25351 net.cpp:382] mnist -> data
I0428 19:43:28.352833 25351 net.cpp:382] mnist -> label
I0428 19:43:28.352941 25351 data_layer.cpp:45] output data size: 100,1,28,28
I0428 19:43:28.355136 25351 net.cpp:124] Setting up mnist
I0428 19:43:28.355149 25351 net.cpp:131] Top shape: 100 1 28 28 (78400)
I0428 19:43:28.355154 25351 net.cpp:131] Top shape: 100 (100)
I0428 19:43:28.355156 25351 net.cpp:139] Memory required for data: 314000
I0428 19:43:28.355160 25351 layer_factory.hpp:77] Creating layer label_mnist_1_split
I0428 19:43:28.355167 25351 net.cpp:86] Creating Layer label_mnist_1_split
I0428 19:43:28.355170 25351 net.cpp:408] label_mnist_1_split <- label
I0428 19:43:28.355201 25351 net.cpp:382] label_mnist_1_split -> label_mnist_1_split_0
I0428 19:43:28.355209 25351 net.cpp:382] label_mnist_1_split -> label_mnist_1_split_1
I0428 19:43:28.355248 25351 net.cpp:124] Setting up label_mnist_1_split
I0428 19:43:28.355254 25351 net.cpp:131] Top shape: 100 (100)
I0428 19:43:28.355258 25351 net.cpp:131] Top shape: 100 (100)
I0428 19:43:28.355260 25351 net.cpp:139] Memory required for data: 314800
I0428 19:43:28.355263 25351 layer_factory.hpp:77] Creating layer conv0
I0428 19:43:28.355288 25351 net.cpp:86] Creating Layer conv0
I0428 19:43:28.355293 25351 net.cpp:408] conv0 <- data
I0428 19:43:28.355300 25351 net.cpp:382] conv0 -> conv0
I0428 19:43:28.356914 25351 net.cpp:124] Setting up conv0
I0428 19:43:28.356928 25351 net.cpp:131] Top shape: 100 2 24 24 (115200)
I0428 19:43:28.356932 25351 net.cpp:139] Memory required for data: 775600
I0428 19:43:28.356941 25351 layer_factory.hpp:77] Creating layer pool0
I0428 19:43:28.356947 25351 net.cpp:86] Creating Layer pool0
I0428 19:43:28.356966 25351 net.cpp:408] pool0 <- conv0
I0428 19:43:28.356971 25351 net.cpp:382] pool0 -> pool0
I0428 19:43:28.357024 25351 net.cpp:124] Setting up pool0
I0428 19:43:28.357030 25351 net.cpp:131] Top shape: 100 2 12 12 (28800)
I0428 19:43:28.357033 25351 net.cpp:139] Memory required for data: 890800
I0428 19:43:28.357036 25351 layer_factory.hpp:77] Creating layer conv1
I0428 19:43:28.357046 25351 net.cpp:86] Creating Layer conv1
I0428 19:43:28.357049 25351 net.cpp:408] conv1 <- pool0
I0428 19:43:28.357054 25351 net.cpp:382] conv1 -> conv1
I0428 19:43:28.358587 25351 net.cpp:124] Setting up conv1
I0428 19:43:28.358600 25351 net.cpp:131] Top shape: 100 25 8 8 (160000)
I0428 19:43:28.358604 25351 net.cpp:139] Memory required for data: 1530800
I0428 19:43:28.358614 25351 layer_factory.hpp:77] Creating layer pool1
I0428 19:43:28.358620 25351 net.cpp:86] Creating Layer pool1
I0428 19:43:28.358629 25351 net.cpp:408] pool1 <- conv1
I0428 19:43:28.358634 25351 net.cpp:382] pool1 -> pool1
I0428 19:43:28.358687 25351 net.cpp:124] Setting up pool1
I0428 19:43:28.358693 25351 net.cpp:131] Top shape: 100 25 4 4 (40000)
I0428 19:43:28.358696 25351 net.cpp:139] Memory required for data: 1690800
I0428 19:43:28.358700 25351 layer_factory.hpp:77] Creating layer ip1
I0428 19:43:28.358705 25351 net.cpp:86] Creating Layer ip1
I0428 19:43:28.358713 25351 net.cpp:408] ip1 <- pool1
I0428 19:43:28.358719 25351 net.cpp:382] ip1 -> ip1
I0428 19:43:28.358956 25351 net.cpp:124] Setting up ip1
I0428 19:43:28.358964 25351 net.cpp:131] Top shape: 100 50 (5000)
I0428 19:43:28.358978 25351 net.cpp:139] Memory required for data: 1710800
I0428 19:43:28.358986 25351 layer_factory.hpp:77] Creating layer relu1
I0428 19:43:28.358992 25351 net.cpp:86] Creating Layer relu1
I0428 19:43:28.359002 25351 net.cpp:408] relu1 <- ip1
I0428 19:43:28.359006 25351 net.cpp:369] relu1 -> ip1 (in-place)
I0428 19:43:28.359167 25351 net.cpp:124] Setting up relu1
I0428 19:43:28.359192 25351 net.cpp:131] Top shape: 100 50 (5000)
I0428 19:43:28.359196 25351 net.cpp:139] Memory required for data: 1730800
I0428 19:43:28.359200 25351 layer_factory.hpp:77] Creating layer ip2
I0428 19:43:28.359206 25351 net.cpp:86] Creating Layer ip2
I0428 19:43:28.359210 25351 net.cpp:408] ip2 <- ip1
I0428 19:43:28.359215 25351 net.cpp:382] ip2 -> ip2
I0428 19:43:28.359319 25351 net.cpp:124] Setting up ip2
I0428 19:43:28.359326 25351 net.cpp:131] Top shape: 100 10 (1000)
I0428 19:43:28.359330 25351 net.cpp:139] Memory required for data: 1734800
I0428 19:43:28.359335 25351 layer_factory.hpp:77] Creating layer relu2
I0428 19:43:28.359340 25351 net.cpp:86] Creating Layer relu2
I0428 19:43:28.359344 25351 net.cpp:408] relu2 <- ip2
I0428 19:43:28.359349 25351 net.cpp:369] relu2 -> ip2 (in-place)
I0428 19:43:28.359536 25351 net.cpp:124] Setting up relu2
I0428 19:43:28.359545 25351 net.cpp:131] Top shape: 100 10 (1000)
I0428 19:43:28.359547 25351 net.cpp:139] Memory required for data: 1738800
I0428 19:43:28.359550 25351 layer_factory.hpp:77] Creating layer ip3
I0428 19:43:28.359557 25351 net.cpp:86] Creating Layer ip3
I0428 19:43:28.359560 25351 net.cpp:408] ip3 <- ip2
I0428 19:43:28.359565 25351 net.cpp:382] ip3 -> ip3
I0428 19:43:28.359683 25351 net.cpp:124] Setting up ip3
I0428 19:43:28.359691 25351 net.cpp:131] Top shape: 100 10 (1000)
I0428 19:43:28.359694 25351 net.cpp:139] Memory required for data: 1742800
I0428 19:43:28.359702 25351 layer_factory.hpp:77] Creating layer relu3
I0428 19:43:28.359706 25351 net.cpp:86] Creating Layer relu3
I0428 19:43:28.359710 25351 net.cpp:408] relu3 <- ip3
I0428 19:43:28.359714 25351 net.cpp:369] relu3 -> ip3 (in-place)
I0428 19:43:28.360615 25351 net.cpp:124] Setting up relu3
I0428 19:43:28.360627 25351 net.cpp:131] Top shape: 100 10 (1000)
I0428 19:43:28.360631 25351 net.cpp:139] Memory required for data: 1746800
I0428 19:43:28.360635 25351 layer_factory.hpp:77] Creating layer ip3_relu3_0_split
I0428 19:43:28.360641 25351 net.cpp:86] Creating Layer ip3_relu3_0_split
I0428 19:43:28.360644 25351 net.cpp:408] ip3_relu3_0_split <- ip3
I0428 19:43:28.360651 25351 net.cpp:382] ip3_relu3_0_split -> ip3_relu3_0_split_0
I0428 19:43:28.360657 25351 net.cpp:382] ip3_relu3_0_split -> ip3_relu3_0_split_1
I0428 19:43:28.360693 25351 net.cpp:124] Setting up ip3_relu3_0_split
I0428 19:43:28.360698 25351 net.cpp:131] Top shape: 100 10 (1000)
I0428 19:43:28.360702 25351 net.cpp:131] Top shape: 100 10 (1000)
I0428 19:43:28.360704 25351 net.cpp:139] Memory required for data: 1754800
I0428 19:43:28.360707 25351 layer_factory.hpp:77] Creating layer accuracy
I0428 19:43:28.360713 25351 net.cpp:86] Creating Layer accuracy
I0428 19:43:28.360716 25351 net.cpp:408] accuracy <- ip3_relu3_0_split_0
I0428 19:43:28.360720 25351 net.cpp:408] accuracy <- label_mnist_1_split_0
I0428 19:43:28.360740 25351 net.cpp:382] accuracy -> accuracy
…
