…
I0428 19:28:13.653090 21566 net.cpp:296] The NetState phase (0) differed from the phase (1) specified by a rule in layer mnist
I0428 19:28:13.653103 21566 net.cpp:296] The NetState phase (0) differed from the phase (1) specified by a rule in layer accuracy
I0428 19:28:13.653192 21566 net.cpp:53] Initializing net from parameters: 
name: "LeNet"
state {
  phase: TRAIN
  level: 0
  stage: ""
}
layer {
  name: "mnist"
  type: "Data"
  top: "data"
  top: "label"
  include {
    phase: TRAIN
  }
  transform_param {
    scale: 0.00390625
  }
  data_param {
    source: "examples/mnist/mnist_train_lmdb"
    batch_size: 64
    backend: LMDB
  }
}
layer {
  name: "ip1"
  type: "InnerProduct"
  bottom: "data"
  top: "ip1"
  param {
    lr_mult: 1
  }
  param {
    lr_mult: 2
  }
  inner_product_param {
    num_output: 10
    weight_filler {
      type: "xavier"
    }
    bias_filler {
      type: "constant"
    }
  }
}
layer {
  name: "relu1"
  type: "ReLU"
  bottom: "ip1"
  top: "ip1"
}
layer {
  name: "ip2"
  type: "InnerProduct"
  bottom: "ip1"
  top: "ip2"
  param {
    lr_mult: 1
  }
  param {
    lr_mult: 2
  }
  inner_product_param {
    num_output: 50
    weight_filler {
      type: "xavier"
    }
    bias_filler {
      type: "constant"
    }
  }
}
layer {
  name: "relu2"
  type: "ReLU"
  bottom: "ip2"
  top: "ip2"
}
layer {
  name: "ip3"
  type: "InnerProduct"
  bottom: "ip2"
  top: "ip3"
  param {
    lr_mult: 1
  }
  param {
    lr_mult: 2
  }
  inner_product_param {
    num_output: 10
    weight_filler {
      type: "xavier"
    }
    bias_filler {
      type: "constant"
    }
  }
}
layer {
  name: "relu3"
  type: "ReLU"
  bottom: "ip3"
  top: "ip3"
}
layer {
  name: "loss"
  type: "SoftmaxWithLoss"
  bottom: "ip3"
  bottom: "label"
  top: "loss"
}
I0428 19:28:13.653260 21566 layer_factory.hpp:77] Creating layer mnist
I0428 19:28:13.653342 21566 db_lmdb.cpp:35] Opened lmdb examples/mnist/mnist_train_lmdb
I0428 19:28:13.653360 21566 net.cpp:86] Creating Layer mnist
I0428 19:28:13.653367 21566 net.cpp:382] mnist -> data
I0428 19:28:13.653384 21566 net.cpp:382] mnist -> label
I0428 19:28:13.654309 21566 data_layer.cpp:45] output data size: 64,1,28,28
I0428 19:28:13.656483 21566 net.cpp:124] Setting up mnist
I0428 19:28:13.656513 21566 net.cpp:131] Top shape: 64 1 28 28 (50176)
I0428 19:28:13.656518 21566 net.cpp:131] Top shape: 64 (64)
I0428 19:28:13.656522 21566 net.cpp:139] Memory required for data: 200960
I0428 19:28:13.656527 21566 layer_factory.hpp:77] Creating layer ip1
I0428 19:28:13.656570 21566 net.cpp:86] Creating Layer ip1
I0428 19:28:13.656576 21566 net.cpp:408] ip1 <- data
I0428 19:28:13.656584 21566 net.cpp:382] ip1 -> ip1
I0428 19:28:13.657778 21566 net.cpp:124] Setting up ip1
I0428 19:28:13.657790 21566 net.cpp:131] Top shape: 64 10 (640)
I0428 19:28:13.657793 21566 net.cpp:139] Memory required for data: 203520
I0428 19:28:13.657805 21566 layer_factory.hpp:77] Creating layer relu1
I0428 19:28:13.657814 21566 net.cpp:86] Creating Layer relu1
I0428 19:28:13.657816 21566 net.cpp:408] relu1 <- ip1
I0428 19:28:13.657821 21566 net.cpp:369] relu1 -> ip1 (in-place)
I0428 19:28:13.886565 21566 net.cpp:124] Setting up relu1
I0428 19:28:13.886593 21566 net.cpp:131] Top shape: 64 10 (640)
I0428 19:28:13.886597 21566 net.cpp:139] Memory required for data: 206080
I0428 19:28:13.886602 21566 layer_factory.hpp:77] Creating layer ip2
I0428 19:28:13.886615 21566 net.cpp:86] Creating Layer ip2
I0428 19:28:13.886638 21566 net.cpp:408] ip2 <- ip1
I0428 19:28:13.886660 21566 net.cpp:382] ip2 -> ip2
I0428 19:28:13.887698 21566 net.cpp:124] Setting up ip2
I0428 19:28:13.887727 21566 net.cpp:131] Top shape: 64 50 (3200)
I0428 19:28:13.887730 21566 net.cpp:139] Memory required for data: 218880
I0428 19:28:13.887740 21566 layer_factory.hpp:77] Creating layer relu2
I0428 19:28:13.887749 21566 net.cpp:86] Creating Layer relu2
I0428 19:28:13.887753 21566 net.cpp:408] relu2 <- ip2
I0428 19:28:13.887756 21566 net.cpp:369] relu2 -> ip2 (in-place)
I0428 19:28:13.888558 21566 net.cpp:124] Setting up relu2
I0428 19:28:13.888571 21566 net.cpp:131] Top shape: 64 50 (3200)
I0428 19:28:13.888589 21566 net.cpp:139] Memory required for data: 231680
I0428 19:28:13.888592 21566 layer_factory.hpp:77] Creating layer ip3
I0428 19:28:13.888614 21566 net.cpp:86] Creating Layer ip3
I0428 19:28:13.888618 21566 net.cpp:408] ip3 <- ip2
I0428 19:28:13.888623 21566 net.cpp:382] ip3 -> ip3
I0428 19:28:13.888744 21566 net.cpp:124] Setting up ip3
I0428 19:28:13.888753 21566 net.cpp:131] Top shape: 64 10 (640)
I0428 19:28:13.888756 21566 net.cpp:139] Memory required for data: 234240
I0428 19:28:13.888764 21566 layer_factory.hpp:77] Creating layer relu3
I0428 19:28:13.888770 21566 net.cpp:86] Creating Layer relu3
I0428 19:28:13.888773 21566 net.cpp:408] relu3 <- ip3
I0428 19:28:13.888777 21566 net.cpp:369] relu3 -> ip3 (in-place)
I0428 19:28:13.888974 21566 net.cpp:124] Setting up relu3
I0428 19:28:13.888983 21566 net.cpp:131] Top shape: 64 10 (640)
I0428 19:28:13.888988 21566 net.cpp:139] Memory required for data: 236800
I0428 19:28:13.888990 21566 layer_factory.hpp:77] Creating layer loss
I0428 19:28:13.888996 21566 net.cpp:86] Creating Layer loss
I0428 19:28:13.888999 21566 net.cpp:408] loss <- ip3
I0428 19:28:13.889004 21566 net.cpp:408] loss <- label
I0428 19:28:13.889010 21566 net.cpp:382] loss -> loss
I0428 19:28:13.889029 21566 layer_factory.hpp:77] Creating layer loss
…
I0428 19:28:13.889622 21566 solver.cpp:173] Creating test net (#0) specified by net file: ECE595/mnist/train_test/var_everything2/lenet_train_test18.prototxt
I0428 19:28:13.889644 21566 net.cpp:296] The NetState phase (1) differed from the phase (0) specified by a rule in layer mnist
I0428 19:28:13.889710 21566 net.cpp:53] Initializing net from parameters: 
name: "LeNet"
state {
  phase: TEST
}
layer {
  name: "mnist"
  type: "Data"
  top: "data"
  top: "label"
  include {
    phase: TEST
  }
  transform_param {
    scale: 0.00390625
  }
  data_param {
    source: "examples/mnist/mnist_test_lmdb"
    batch_size: 100
    backend: LMDB
  }
}
layer {
  name: "ip1"
  type: "InnerProduct"
  bottom: "data"
  top: "ip1"
  param {
    lr_mult: 1
  }
  param {
    lr_mult: 2
  }
  inner_product_param {
    num_output: 10
    weight_filler {
      type: "xavier"
    }
    bias_filler {
      type: "constant"
    }
  }
}
layer {
  name: "relu1"
  type: "ReLU"
  bottom: "ip1"
  top: "ip1"
}
layer {
  name: "ip2"
  type: "InnerProduct"
  bottom: "ip1"
  top: "ip2"
  param {
    lr_mult: 1
  }
  param {
    lr_mult: 2
  }
  inner_product_param {
    num_output: 50
    weight_filler {
      type: "xavier"
    }
    bias_filler {
      type: "constant"
    }
  }
}
layer {
  name: "relu2"
  type: "ReLU"
  bottom: "ip2"
  top: "ip2"
}
layer {
  name: "ip3"
  type: "InnerProduct"
  bottom: "ip2"
  top: "ip3"
  param {
    lr_mult: 1
  }
  param {
    lr_mult: 2
  }
  inner_product_param {
    num_output: 10
    weight_filler {
      type: "xavier"
    }
    bias_filler {
      type: "constant"
    }
  }
}
layer {
  name: "relu3"
  type: "ReLU"
  bottom: "ip3"
  top: "ip3"
}
layer {
  name: "accuracy"
  type: "Accuracy"
  bottom: "ip3"
  bottom: "label"
  top: "accuracy"
  include {
    phase: TEST
  }
}
layer {
  name: "loss"
  type: "SoftmaxWithLoss"
  bottom: "ip3"
  bottom: "label"
  top: "loss"
}
I0428 19:28:13.889781 21566 layer_factory.hpp:77] Creating layer mnist
I0428 19:28:13.889824 21566 db_lmdb.cpp:35] Opened lmdb examples/mnist/mnist_test_lmdb
I0428 19:28:13.889837 21566 net.cpp:86] Creating Layer mnist
I0428 19:28:13.889842 21566 net.cpp:382] mnist -> data
I0428 19:28:13.889849 21566 net.cpp:382] mnist -> label
I0428 19:28:13.889933 21566 data_layer.cpp:45] output data size: 100,1,28,28
I0428 19:28:13.892089 21566 net.cpp:124] Setting up mnist
I0428 19:28:13.892102 21566 net.cpp:131] Top shape: 100 1 28 28 (78400)
I0428 19:28:13.892107 21566 net.cpp:131] Top shape: 100 (100)
I0428 19:28:13.892109 21566 net.cpp:139] Memory required for data: 314000
I0428 19:28:13.892112 21566 layer_factory.hpp:77] Creating layer label_mnist_1_split
I0428 19:28:13.892160 21566 net.cpp:86] Creating Layer label_mnist_1_split
I0428 19:28:13.892186 21566 net.cpp:408] label_mnist_1_split <- label
I0428 19:28:13.892191 21566 net.cpp:382] label_mnist_1_split -> label_mnist_1_split_0
I0428 19:28:13.892197 21566 net.cpp:382] label_mnist_1_split -> label_mnist_1_split_1
I0428 19:28:13.892328 21566 net.cpp:124] Setting up label_mnist_1_split
I0428 19:28:13.892335 21566 net.cpp:131] Top shape: 100 (100)
I0428 19:28:13.892340 21566 net.cpp:131] Top shape: 100 (100)
I0428 19:28:13.892343 21566 net.cpp:139] Memory required for data: 314800
I0428 19:28:13.892346 21566 layer_factory.hpp:77] Creating layer ip1
I0428 19:28:13.892352 21566 net.cpp:86] Creating Layer ip1
I0428 19:28:13.892355 21566 net.cpp:408] ip1 <- data
I0428 19:28:13.892361 21566 net.cpp:382] ip1 -> ip1
I0428 19:28:13.892570 21566 net.cpp:124] Setting up ip1
I0428 19:28:13.892578 21566 net.cpp:131] Top shape: 100 10 (1000)
I0428 19:28:13.892581 21566 net.cpp:139] Memory required for data: 318800
I0428 19:28:13.892590 21566 layer_factory.hpp:77] Creating layer relu1
I0428 19:28:13.892594 21566 net.cpp:86] Creating Layer relu1
I0428 19:28:13.892597 21566 net.cpp:408] relu1 <- ip1
I0428 19:28:13.892603 21566 net.cpp:369] relu1 -> ip1 (in-place)
I0428 19:28:13.893520 21566 net.cpp:124] Setting up relu1
I0428 19:28:13.893532 21566 net.cpp:131] Top shape: 100 10 (1000)
I0428 19:28:13.893551 21566 net.cpp:139] Memory required for data: 322800
I0428 19:28:13.893554 21566 layer_factory.hpp:77] Creating layer ip2
I0428 19:28:13.893563 21566 net.cpp:86] Creating Layer ip2
I0428 19:28:13.893565 21566 net.cpp:408] ip2 <- ip1
I0428 19:28:13.893570 21566 net.cpp:382] ip2 -> ip2
I0428 19:28:13.893679 21566 net.cpp:124] Setting up ip2
I0428 19:28:13.893687 21566 net.cpp:131] Top shape: 100 50 (5000)
I0428 19:28:13.893692 21566 net.cpp:139] Memory required for data: 342800
I0428 19:28:13.893698 21566 layer_factory.hpp:77] Creating layer relu2
I0428 19:28:13.893702 21566 net.cpp:86] Creating Layer relu2
I0428 19:28:13.893705 21566 net.cpp:408] relu2 <- ip2
I0428 19:28:13.893710 21566 net.cpp:369] relu2 -> ip2 (in-place)
I0428 19:28:13.893867 21566 net.cpp:124] Setting up relu2
I0428 19:28:13.893875 21566 net.cpp:131] Top shape: 100 50 (5000)
I0428 19:28:13.893878 21566 net.cpp:139] Memory required for data: 362800
I0428 19:28:13.893880 21566 layer_factory.hpp:77] Creating layer ip3
I0428 19:28:13.893887 21566 net.cpp:86] Creating Layer ip3
I0428 19:28:13.893889 21566 net.cpp:408] ip3 <- ip2
I0428 19:28:13.893893 21566 net.cpp:382] ip3 -> ip3
I0428 19:28:13.893998 21566 net.cpp:124] Setting up ip3
I0428 19:28:13.894006 21566 net.cpp:131] Top shape: 100 10 (1000)
I0428 19:28:13.894008 21566 net.cpp:139] Memory required for data: 366800
I0428 19:28:13.894016 21566 layer_factory.hpp:77] Creating layer relu3
I0428 19:28:13.894021 21566 net.cpp:86] Creating Layer relu3
I0428 19:28:13.894024 21566 net.cpp:408] relu3 <- ip3
I0428 19:28:13.894028 21566 net.cpp:369] relu3 -> ip3 (in-place)
I0428 19:28:13.894170 21566 net.cpp:124] Setting up relu3
I0428 19:28:13.894178 21566 net.cpp:131] Top shape: 100 10 (1000)
I0428 19:28:13.894181 21566 net.cpp:139] Memory required for data: 370800
I0428 19:28:13.894184 21566 layer_factory.hpp:77] Creating layer ip3_relu3_0_split
I0428 19:28:13.894191 21566 net.cpp:86] Creating Layer ip3_relu3_0_split
I0428 19:28:13.894193 21566 net.cpp:408] ip3_relu3_0_split <- ip3
I0428 19:28:13.894197 21566 net.cpp:382] ip3_relu3_0_split -> ip3_relu3_0_split_0
I0428 19:28:13.894202 21566 net.cpp:382] ip3_relu3_0_split -> ip3_relu3_0_split_1
I0428 19:28:13.894235 21566 net.cpp:124] Setting up ip3_relu3_0_split
I0428 19:28:13.894239 21566 net.cpp:131] Top shape: 100 10 (1000)
I0428 19:28:13.894243 21566 net.cpp:131] Top shape: 100 10 (1000)
I0428 19:28:13.894245 21566 net.cpp:139] Memory required for data: 378800
I0428 19:28:13.894248 21566 layer_factory.hpp:77] Creating layer accuracy
I0428 19:28:13.894256 21566 net.cpp:86] Creating Layer accuracy
I0428 19:28:13.894259 21566 net.cpp:408] accuracy <- ip3_relu3_0_split_0
I0428 19:28:13.894263 21566 net.cpp:408] accuracy <- label_mnist_1_split_0
I0428 19:28:13.894266 21566 net.cpp:382] accuracy -> accuracy
…
