…
I0428 19:44:42.469499 25659 net.cpp:296] The NetState phase (0) differed from the phase (1) specified by a rule in layer mnist
I0428 19:44:42.469518 25659 net.cpp:296] The NetState phase (0) differed from the phase (1) specified by a rule in layer accuracy
I0428 19:44:42.469622 25659 net.cpp:53] Initializing net from parameters: 
name: "LeNet"
state {
  phase: TRAIN
  level: 0
  stage: ""
}
layer {
  name: "mnist"
  type: "Data"
  top: "data"
  top: "label"
  include {
    phase: TRAIN
  }
  transform_param {
    scale: 0.00390625
  }
  data_param {
    source: "examples/mnist/mnist_train_lmdb"
    batch_size: 64
    backend: LMDB
  }
}
layer {
  name: "conv0"
  type: "Convolution"
  bottom: "data"
  top: "conv0"
  param {
    lr_mult: 1
  }
  param {
    lr_mult: 2
  }
  convolution_param {
    num_output: 2
    kernel_size: 5
    stride: 1
    weight_filler {
      type: "xavier"
    }
    bias_filler {
      type: "constant"
    }
  }
}
layer {
  name: "pool0"
  type: "Pooling"
  bottom: "conv0"
  top: "pool0"
  pooling_param {
    pool: MAX
    kernel_size: 2
    stride: 2
  }
}
layer {
  name: "conv1"
  type: "Convolution"
  bottom: "pool0"
  top: "conv1"
  param {
    lr_mult: 1
  }
  param {
    lr_mult: 2
  }
  convolution_param {
    num_output: 50
    kernel_size: 5
    stride: 1
    weight_filler {
      type: "xavier"
    }
    bias_filler {
      type: "constant"
    }
  }
}
layer {
  name: "pool1"
  type: "Pooling"
  bottom: "conv1"
  top: "pool1"
  pooling_param {
    pool: MAX
    kernel_size: 2
    stride: 2
  }
}
layer {
  name: "ip1"
  type: "InnerProduct"
  bottom: "pool1"
  top: "ip1"
  param {
    lr_mult: 1
  }
  param {
    lr_mult: 2
  }
  inner_product_param {
    num_output: 25
    weight_filler {
      type: "xavier"
    }
    bias_filler {
      type: "constant"
    }
  }
}
layer {
  name: "relu1"
  type: "ReLU"
  bottom: "ip1"
  top: "ip1"
}
layer {
  name: "ip2"
  type: "InnerProduct"
  bottom: "ip1"
  top: "ip2"
  param {
    lr_mult: 1
  }
  param {
    lr_mult: 2
  }
  inner_product_param {
    num_output: 25
    weight_filler {
      type: "xavier"
    }
    bias_filler {
      type: "constant"
    }
  }
}
layer {
  name: "relu2"
  type: "ReLU"
  bottom: "ip2"
  top: "ip2"
}
layer {
  name: "ip3"
  type: "InnerProduct"
  bottom: "ip2"
  top: "ip3"
  param {
    lr_mult: 1
  }
  param {
    lr_mult: 2
  }
  inner_product_param {
    num_output: 10
    weight_filler {
      type: "xavier"
    }
    bias_filler {
      type: "constant"
    }
  }
}
layer {
  name: "relu3"
  type: "ReLU"
  bottom: "ip3"
  top: "ip3"
}
layer {
  name: "loss"
  type: "SoftmaxWithLoss"
  bottom: "ip3"
  bottom: "label"
  top: "loss"
}
I0428 19:44:42.469704 25659 layer_factory.hpp:77] Creating layer mnist
I0428 19:44:42.469805 25659 db_lmdb.cpp:35] Opened lmdb examples/mnist/mnist_train_lmdb
I0428 19:44:42.469830 25659 net.cpp:86] Creating Layer mnist
I0428 19:44:42.469838 25659 net.cpp:382] mnist -> data
I0428 19:44:42.469861 25659 net.cpp:382] mnist -> label
I0428 19:44:42.470960 25659 data_layer.cpp:45] output data size: 64,1,28,28
I0428 19:44:42.473423 25659 net.cpp:124] Setting up mnist
I0428 19:44:42.473440 25659 net.cpp:131] Top shape: 64 1 28 28 (50176)
I0428 19:44:42.473448 25659 net.cpp:131] Top shape: 64 (64)
I0428 19:44:42.473450 25659 net.cpp:139] Memory required for data: 200960
I0428 19:44:42.473457 25659 layer_factory.hpp:77] Creating layer conv0
I0428 19:44:42.473474 25659 net.cpp:86] Creating Layer conv0
I0428 19:44:42.473495 25659 net.cpp:408] conv0 <- data
I0428 19:44:42.473508 25659 net.cpp:382] conv0 -> conv0
I0428 19:44:42.764771 25659 net.cpp:124] Setting up conv0
I0428 19:44:42.764802 25659 net.cpp:131] Top shape: 64 2 24 24 (73728)
I0428 19:44:42.764807 25659 net.cpp:139] Memory required for data: 495872
I0428 19:44:42.764833 25659 layer_factory.hpp:77] Creating layer pool0
I0428 19:44:42.764849 25659 net.cpp:86] Creating Layer pool0
I0428 19:44:42.764854 25659 net.cpp:408] pool0 <- conv0
I0428 19:44:42.764861 25659 net.cpp:382] pool0 -> pool0
I0428 19:44:42.764917 25659 net.cpp:124] Setting up pool0
I0428 19:44:42.764926 25659 net.cpp:131] Top shape: 64 2 12 12 (18432)
I0428 19:44:42.764930 25659 net.cpp:139] Memory required for data: 569600
I0428 19:44:42.764935 25659 layer_factory.hpp:77] Creating layer conv1
I0428 19:44:42.764947 25659 net.cpp:86] Creating Layer conv1
I0428 19:44:42.764951 25659 net.cpp:408] conv1 <- pool0
I0428 19:44:42.764957 25659 net.cpp:382] conv1 -> conv1
I0428 19:44:42.768090 25659 net.cpp:124] Setting up conv1
I0428 19:44:42.768107 25659 net.cpp:131] Top shape: 64 50 8 8 (204800)
I0428 19:44:42.768112 25659 net.cpp:139] Memory required for data: 1388800
I0428 19:44:42.768122 25659 layer_factory.hpp:77] Creating layer pool1
I0428 19:44:42.768131 25659 net.cpp:86] Creating Layer pool1
I0428 19:44:42.768137 25659 net.cpp:408] pool1 <- conv1
I0428 19:44:42.768144 25659 net.cpp:382] pool1 -> pool1
I0428 19:44:42.768188 25659 net.cpp:124] Setting up pool1
I0428 19:44:42.768195 25659 net.cpp:131] Top shape: 64 50 4 4 (51200)
I0428 19:44:42.768198 25659 net.cpp:139] Memory required for data: 1593600
I0428 19:44:42.768203 25659 layer_factory.hpp:77] Creating layer ip1
I0428 19:44:42.768210 25659 net.cpp:86] Creating Layer ip1
I0428 19:44:42.768214 25659 net.cpp:408] ip1 <- pool1
I0428 19:44:42.768220 25659 net.cpp:382] ip1 -> ip1
I0428 19:44:42.768465 25659 net.cpp:124] Setting up ip1
I0428 19:44:42.768474 25659 net.cpp:131] Top shape: 64 25 (1600)
I0428 19:44:42.768478 25659 net.cpp:139] Memory required for data: 1600000
I0428 19:44:42.768487 25659 layer_factory.hpp:77] Creating layer relu1
I0428 19:44:42.768494 25659 net.cpp:86] Creating Layer relu1
I0428 19:44:42.768498 25659 net.cpp:408] relu1 <- ip1
I0428 19:44:42.768503 25659 net.cpp:369] relu1 -> ip1 (in-place)
I0428 19:44:42.768694 25659 net.cpp:124] Setting up relu1
I0428 19:44:42.768705 25659 net.cpp:131] Top shape: 64 25 (1600)
I0428 19:44:42.768708 25659 net.cpp:139] Memory required for data: 1606400
I0428 19:44:42.768712 25659 layer_factory.hpp:77] Creating layer ip2
I0428 19:44:42.768720 25659 net.cpp:86] Creating Layer ip2
I0428 19:44:42.768724 25659 net.cpp:408] ip2 <- ip1
I0428 19:44:42.768730 25659 net.cpp:382] ip2 -> ip2
I0428 19:44:42.768851 25659 net.cpp:124] Setting up ip2
I0428 19:44:42.768859 25659 net.cpp:131] Top shape: 64 25 (1600)
I0428 19:44:42.768863 25659 net.cpp:139] Memory required for data: 1612800
I0428 19:44:42.768869 25659 layer_factory.hpp:77] Creating layer relu2
I0428 19:44:42.768878 25659 net.cpp:86] Creating Layer relu2
I0428 19:44:42.768882 25659 net.cpp:408] relu2 <- ip2
I0428 19:44:42.768887 25659 net.cpp:369] relu2 -> ip2 (in-place)
I0428 19:44:42.769731 25659 net.cpp:124] Setting up relu2
I0428 19:44:42.769745 25659 net.cpp:131] Top shape: 64 25 (1600)
I0428 19:44:42.769749 25659 net.cpp:139] Memory required for data: 1619200
I0428 19:44:42.769754 25659 layer_factory.hpp:77] Creating layer ip3
I0428 19:44:42.769762 25659 net.cpp:86] Creating Layer ip3
I0428 19:44:42.769767 25659 net.cpp:408] ip3 <- ip2
I0428 19:44:42.769773 25659 net.cpp:382] ip3 -> ip3
I0428 19:44:42.769891 25659 net.cpp:124] Setting up ip3
I0428 19:44:42.769901 25659 net.cpp:131] Top shape: 64 10 (640)
I0428 19:44:42.769903 25659 net.cpp:139] Memory required for data: 1621760
I0428 19:44:42.769913 25659 layer_factory.hpp:77] Creating layer relu3
I0428 19:44:42.769919 25659 net.cpp:86] Creating Layer relu3
I0428 19:44:42.769923 25659 net.cpp:408] relu3 <- ip3
I0428 19:44:42.769928 25659 net.cpp:369] relu3 -> ip3 (in-place)
I0428 19:44:42.770122 25659 net.cpp:124] Setting up relu3
I0428 19:44:42.770133 25659 net.cpp:131] Top shape: 64 10 (640)
I0428 19:44:42.770136 25659 net.cpp:139] Memory required for data: 1624320
I0428 19:44:42.770140 25659 layer_factory.hpp:77] Creating layer loss
I0428 19:44:42.770146 25659 net.cpp:86] Creating Layer loss
I0428 19:44:42.770150 25659 net.cpp:408] loss <- ip3
I0428 19:44:42.770155 25659 net.cpp:408] loss <- label
I0428 19:44:42.770161 25659 net.cpp:382] loss -> loss
I0428 19:44:42.770184 25659 layer_factory.hpp:77] Creating layer loss
…
I0428 19:44:42.770922 25659 solver.cpp:173] Creating test net (#0) specified by net file: ECE595/mnist/train_test/var_everything2/lenet_train_test454.prototxt
I0428 19:44:42.770954 25659 net.cpp:296] The NetState phase (1) differed from the phase (0) specified by a rule in layer mnist
I0428 19:44:42.771064 25659 net.cpp:53] Initializing net from parameters: 
name: "LeNet"
state {
  phase: TEST
}
layer {
  name: "mnist"
  type: "Data"
  top: "data"
  top: "label"
  include {
    phase: TEST
  }
  transform_param {
    scale: 0.00390625
  }
  data_param {
    source: "examples/mnist/mnist_test_lmdb"
    batch_size: 100
    backend: LMDB
  }
}
layer {
  name: "conv0"
  type: "Convolution"
  bottom: "data"
  top: "conv0"
  param {
    lr_mult: 1
  }
  param {
    lr_mult: 2
  }
  convolution_param {
    num_output: 2
    kernel_size: 5
    stride: 1
    weight_filler {
      type: "xavier"
    }
    bias_filler {
      type: "constant"
    }
  }
}
layer {
  name: "pool0"
  type: "Pooling"
  bottom: "conv0"
  top: "pool0"
  pooling_param {
    pool: MAX
    kernel_size: 2
    stride: 2
  }
}
layer {
  name: "conv1"
  type: "Convolution"
  bottom: "pool0"
  top: "conv1"
  param {
    lr_mult: 1
  }
  param {
    lr_mult: 2
  }
  convolution_param {
    num_output: 50
    kernel_size: 5
    stride: 1
    weight_filler {
      type: "xavier"
    }
    bias_filler {
      type: "constant"
    }
  }
}
layer {
  name: "pool1"
  type: "Pooling"
  bottom: "conv1"
  top: "pool1"
  pooling_param {
    pool: MAX
    kernel_size: 2
    stride: 2
  }
}
layer {
  name: "ip1"
  type: "InnerProduct"
  bottom: "pool1"
  top: "ip1"
  param {
    lr_mult: 1
  }
  param {
    lr_mult: 2
  }
  inner_product_param {
    num_output: 25
    weight_filler {
      type: "xavier"
    }
    bias_filler {
      type: "constant"
    }
  }
}
layer {
  name: "relu1"
  type: "ReLU"
  bottom: "ip1"
  top: "ip1"
}
layer {
  name: "ip2"
  type: "InnerProduct"
  bottom: "ip1"
  top: "ip2"
  param {
    lr_mult: 1
  }
  param {
    lr_mult: 2
  }
  inner_product_param {
    num_output: 25
    weight_filler {
      type: "xavier"
    }
    bias_filler {
      type: "constant"
    }
  }
}
layer {
  name: "relu2"
  type: "ReLU"
  bottom: "ip2"
  top: "ip2"
}
layer {
  name: "ip3"
  type: "InnerProduct"
  bottom: "ip2"
  top: "ip3"
  param {
    lr_mult: 1
  }
  param {
    lr_mult: 2
  }
  inner_product_param {
    num_output: 10
    weight_filler {
      type: "xavier"
    }
    bias_filler {
      type: "constant"
    }
  }
}
layer {
  name: "relu3"
  type: "ReLU"
  bottom: "ip3"
  top: "ip3"
}
layer {
  name: "accuracy"
  type: "Accuracy"
  bottom: "ip3"
  bottom: "label"
  top: "accuracy"
  include {
    phase: TEST
  }
}
layer {
  name: "loss"
  type: "SoftmaxWithLoss"
  bottom: "ip3"
  bottom: "label"
  top: "loss"
}
I0428 19:44:42.771158 25659 layer_factory.hpp:77] Creating layer mnist
I0428 19:44:42.771211 25659 db_lmdb.cpp:35] Opened lmdb examples/mnist/mnist_test_lmdb
I0428 19:44:42.771227 25659 net.cpp:86] Creating Layer mnist
I0428 19:44:42.771234 25659 net.cpp:382] mnist -> data
I0428 19:44:42.771242 25659 net.cpp:382] mnist -> label
I0428 19:44:42.771339 25659 data_layer.cpp:45] output data size: 100,1,28,28
I0428 19:44:42.773537 25659 net.cpp:124] Setting up mnist
I0428 19:44:42.773555 25659 net.cpp:131] Top shape: 100 1 28 28 (78400)
I0428 19:44:42.773561 25659 net.cpp:131] Top shape: 100 (100)
I0428 19:44:42.773564 25659 net.cpp:139] Memory required for data: 314000
I0428 19:44:42.773568 25659 layer_factory.hpp:77] Creating layer label_mnist_1_split
I0428 19:44:42.773593 25659 net.cpp:86] Creating Layer label_mnist_1_split
I0428 19:44:42.773597 25659 net.cpp:408] label_mnist_1_split <- label
I0428 19:44:42.773603 25659 net.cpp:382] label_mnist_1_split -> label_mnist_1_split_0
I0428 19:44:42.773612 25659 net.cpp:382] label_mnist_1_split -> label_mnist_1_split_1
I0428 19:44:42.773723 25659 net.cpp:124] Setting up label_mnist_1_split
I0428 19:44:42.773732 25659 net.cpp:131] Top shape: 100 (100)
I0428 19:44:42.773736 25659 net.cpp:131] Top shape: 100 (100)
I0428 19:44:42.773739 25659 net.cpp:139] Memory required for data: 314800
I0428 19:44:42.773743 25659 layer_factory.hpp:77] Creating layer conv0
I0428 19:44:42.773753 25659 net.cpp:86] Creating Layer conv0
I0428 19:44:42.773757 25659 net.cpp:408] conv0 <- data
I0428 19:44:42.773763 25659 net.cpp:382] conv0 -> conv0
I0428 19:44:42.775576 25659 net.cpp:124] Setting up conv0
I0428 19:44:42.775593 25659 net.cpp:131] Top shape: 100 2 24 24 (115200)
I0428 19:44:42.775598 25659 net.cpp:139] Memory required for data: 775600
I0428 19:44:42.775609 25659 layer_factory.hpp:77] Creating layer pool0
I0428 19:44:42.775616 25659 net.cpp:86] Creating Layer pool0
I0428 19:44:42.775620 25659 net.cpp:408] pool0 <- conv0
I0428 19:44:42.775626 25659 net.cpp:382] pool0 -> pool0
I0428 19:44:42.775668 25659 net.cpp:124] Setting up pool0
I0428 19:44:42.775674 25659 net.cpp:131] Top shape: 100 2 12 12 (28800)
I0428 19:44:42.775678 25659 net.cpp:139] Memory required for data: 890800
I0428 19:44:42.775681 25659 layer_factory.hpp:77] Creating layer conv1
I0428 19:44:42.775691 25659 net.cpp:86] Creating Layer conv1
I0428 19:44:42.775696 25659 net.cpp:408] conv1 <- pool0
I0428 19:44:42.775701 25659 net.cpp:382] conv1 -> conv1
I0428 19:44:42.777447 25659 net.cpp:124] Setting up conv1
I0428 19:44:42.777463 25659 net.cpp:131] Top shape: 100 50 8 8 (320000)
I0428 19:44:42.777469 25659 net.cpp:139] Memory required for data: 2170800
I0428 19:44:42.777479 25659 layer_factory.hpp:77] Creating layer pool1
I0428 19:44:42.777487 25659 net.cpp:86] Creating Layer pool1
I0428 19:44:42.777492 25659 net.cpp:408] pool1 <- conv1
I0428 19:44:42.777498 25659 net.cpp:382] pool1 -> pool1
I0428 19:44:42.777539 25659 net.cpp:124] Setting up pool1
I0428 19:44:42.777545 25659 net.cpp:131] Top shape: 100 50 4 4 (80000)
I0428 19:44:42.777549 25659 net.cpp:139] Memory required for data: 2490800
I0428 19:44:42.777554 25659 layer_factory.hpp:77] Creating layer ip1
I0428 19:44:42.777568 25659 net.cpp:86] Creating Layer ip1
I0428 19:44:42.777572 25659 net.cpp:408] ip1 <- pool1
I0428 19:44:42.777585 25659 net.cpp:382] ip1 -> ip1
I0428 19:44:42.777838 25659 net.cpp:124] Setting up ip1
I0428 19:44:42.777848 25659 net.cpp:131] Top shape: 100 25 (2500)
I0428 19:44:42.777863 25659 net.cpp:139] Memory required for data: 2500800
I0428 19:44:42.777873 25659 layer_factory.hpp:77] Creating layer relu1
I0428 19:44:42.777879 25659 net.cpp:86] Creating Layer relu1
I0428 19:44:42.777884 25659 net.cpp:408] relu1 <- ip1
I0428 19:44:42.777889 25659 net.cpp:369] relu1 -> ip1 (in-place)
I0428 19:44:42.778076 25659 net.cpp:124] Setting up relu1
I0428 19:44:42.778086 25659 net.cpp:131] Top shape: 100 25 (2500)
I0428 19:44:42.778090 25659 net.cpp:139] Memory required for data: 2510800
I0428 19:44:42.778101 25659 layer_factory.hpp:77] Creating layer ip2
I0428 19:44:42.778110 25659 net.cpp:86] Creating Layer ip2
I0428 19:44:42.778120 25659 net.cpp:408] ip2 <- ip1
I0428 19:44:42.778126 25659 net.cpp:382] ip2 -> ip2
I0428 19:44:42.778244 25659 net.cpp:124] Setting up ip2
I0428 19:44:42.778254 25659 net.cpp:131] Top shape: 100 25 (2500)
I0428 19:44:42.778257 25659 net.cpp:139] Memory required for data: 2520800
I0428 19:44:42.778264 25659 layer_factory.hpp:77] Creating layer relu2
I0428 19:44:42.778268 25659 net.cpp:86] Creating Layer relu2
I0428 19:44:42.778272 25659 net.cpp:408] relu2 <- ip2
I0428 19:44:42.778277 25659 net.cpp:369] relu2 -> ip2 (in-place)
I0428 19:44:42.778507 25659 net.cpp:124] Setting up relu2
I0428 19:44:42.778517 25659 net.cpp:131] Top shape: 100 25 (2500)
I0428 19:44:42.778520 25659 net.cpp:139] Memory required for data: 2530800
I0428 19:44:42.778524 25659 layer_factory.hpp:77] Creating layer ip3
I0428 19:44:42.778530 25659 net.cpp:86] Creating Layer ip3
I0428 19:44:42.778534 25659 net.cpp:408] ip3 <- ip2
I0428 19:44:42.778539 25659 net.cpp:382] ip3 -> ip3
I0428 19:44:42.778684 25659 net.cpp:124] Setting up ip3
I0428 19:44:42.778693 25659 net.cpp:131] Top shape: 100 10 (1000)
I0428 19:44:42.778697 25659 net.cpp:139] Memory required for data: 2534800
I0428 19:44:42.778707 25659 layer_factory.hpp:77] Creating layer relu3
I0428 19:44:42.778712 25659 net.cpp:86] Creating Layer relu3
I0428 19:44:42.778717 25659 net.cpp:408] relu3 <- ip3
I0428 19:44:42.778722 25659 net.cpp:369] relu3 -> ip3 (in-place)
I0428 19:44:42.779613 25659 net.cpp:124] Setting up relu3
I0428 19:44:42.779628 25659 net.cpp:131] Top shape: 100 10 (1000)
I0428 19:44:42.779633 25659 net.cpp:139] Memory required for data: 2538800
I0428 19:44:42.779636 25659 layer_factory.hpp:77] Creating layer ip3_relu3_0_split
I0428 19:44:42.779644 25659 net.cpp:86] Creating Layer ip3_relu3_0_split
I0428 19:44:42.779647 25659 net.cpp:408] ip3_relu3_0_split <- ip3
I0428 19:44:42.779654 25659 net.cpp:382] ip3_relu3_0_split -> ip3_relu3_0_split_0
I0428 19:44:42.779661 25659 net.cpp:382] ip3_relu3_0_split -> ip3_relu3_0_split_1
I0428 19:44:42.779747 25659 net.cpp:124] Setting up ip3_relu3_0_split
I0428 19:44:42.779755 25659 net.cpp:131] Top shape: 100 10 (1000)
I0428 19:44:42.779760 25659 net.cpp:131] Top shape: 100 10 (1000)
I0428 19:44:42.779763 25659 net.cpp:139] Memory required for data: 2546800
I0428 19:44:42.779768 25659 layer_factory.hpp:77] Creating layer accuracy
I0428 19:44:42.779774 25659 net.cpp:86] Creating Layer accuracy
I0428 19:44:42.779778 25659 net.cpp:408] accuracy <- ip3_relu3_0_split_0
I0428 19:44:42.779783 25659 net.cpp:408] accuracy <- label_mnist_1_split_0
I0428 19:44:42.779788 25659 net.cpp:382] accuracy -> accuracy
…
