…
I0428 19:55:53.141705 28294 net.cpp:296] The NetState phase (0) differed from the phase (1) specified by a rule in layer mnist
I0428 19:55:53.141721 28294 net.cpp:296] The NetState phase (0) differed from the phase (1) specified by a rule in layer accuracy
I0428 19:55:53.141803 28294 net.cpp:53] Initializing net from parameters: 
name: "LeNet"
state {
  phase: TRAIN
  level: 0
  stage: ""
}
layer {
  name: "mnist"
  type: "Data"
  top: "data"
  top: "label"
  include {
    phase: TRAIN
  }
  transform_param {
    scale: 0.00390625
  }
  data_param {
    source: "examples/mnist/mnist_train_lmdb"
    batch_size: 64
    backend: LMDB
  }
}
layer {
  name: "conv0"
  type: "Convolution"
  bottom: "data"
  top: "conv0"
  param {
    lr_mult: 1
  }
  param {
    lr_mult: 2
  }
  convolution_param {
    num_output: 10
    kernel_size: 5
    stride: 1
    weight_filler {
      type: "xavier"
    }
    bias_filler {
      type: "constant"
    }
  }
}
layer {
  name: "pool0"
  type: "Pooling"
  bottom: "conv0"
  top: "pool0"
  pooling_param {
    pool: MAX
    kernel_size: 2
    stride: 2
  }
}
layer {
  name: "conv1"
  type: "Convolution"
  bottom: "pool0"
  top: "conv1"
  param {
    lr_mult: 1
  }
  param {
    lr_mult: 2
  }
  convolution_param {
    num_output: 2
    kernel_size: 5
    stride: 1
    weight_filler {
      type: "xavier"
    }
    bias_filler {
      type: "constant"
    }
  }
}
layer {
  name: "pool1"
  type: "Pooling"
  bottom: "conv1"
  top: "pool1"
  pooling_param {
    pool: MAX
    kernel_size: 2
    stride: 2
  }
}
layer {
  name: "ip1"
  type: "InnerProduct"
  bottom: "pool1"
  top: "ip1"
  param {
    lr_mult: 1
  }
  param {
    lr_mult: 2
  }
  inner_product_param {
    num_output: 10
    weight_filler {
      type: "xavier"
    }
    bias_filler {
      type: "constant"
    }
  }
}
layer {
  name: "relu1"
  type: "ReLU"
  bottom: "ip1"
  top: "ip1"
}
layer {
  name: "loss"
  type: "SoftmaxWithLoss"
  bottom: "ip1"
  bottom: "label"
  top: "loss"
}
I0428 19:55:53.141875 28294 layer_factory.hpp:77] Creating layer mnist
I0428 19:55:53.141973 28294 db_lmdb.cpp:35] Opened lmdb examples/mnist/mnist_train_lmdb
I0428 19:55:53.141996 28294 net.cpp:86] Creating Layer mnist
I0428 19:55:53.142005 28294 net.cpp:382] mnist -> data
I0428 19:55:53.142029 28294 net.cpp:382] mnist -> label
I0428 19:55:53.143115 28294 data_layer.cpp:45] output data size: 64,1,28,28
I0428 19:55:53.145581 28294 net.cpp:124] Setting up mnist
I0428 19:55:53.145599 28294 net.cpp:131] Top shape: 64 1 28 28 (50176)
I0428 19:55:53.145607 28294 net.cpp:131] Top shape: 64 (64)
I0428 19:55:53.145611 28294 net.cpp:139] Memory required for data: 200960
I0428 19:55:53.145618 28294 layer_factory.hpp:77] Creating layer conv0
I0428 19:55:53.145634 28294 net.cpp:86] Creating Layer conv0
I0428 19:55:53.145639 28294 net.cpp:408] conv0 <- data
I0428 19:55:53.145653 28294 net.cpp:382] conv0 -> conv0
I0428 19:55:53.380822 28294 net.cpp:124] Setting up conv0
I0428 19:55:53.380862 28294 net.cpp:131] Top shape: 64 10 24 24 (368640)
I0428 19:55:53.380867 28294 net.cpp:139] Memory required for data: 1675520
I0428 19:55:53.380897 28294 layer_factory.hpp:77] Creating layer pool0
I0428 19:55:53.380909 28294 net.cpp:86] Creating Layer pool0
I0428 19:55:53.380913 28294 net.cpp:408] pool0 <- conv0
I0428 19:55:53.380918 28294 net.cpp:382] pool0 -> pool0
I0428 19:55:53.380985 28294 net.cpp:124] Setting up pool0
I0428 19:55:53.380990 28294 net.cpp:131] Top shape: 64 10 12 12 (92160)
I0428 19:55:53.381009 28294 net.cpp:139] Memory required for data: 2044160
I0428 19:55:53.381012 28294 layer_factory.hpp:77] Creating layer conv1
I0428 19:55:53.381024 28294 net.cpp:86] Creating Layer conv1
I0428 19:55:53.381027 28294 net.cpp:408] conv1 <- pool0
I0428 19:55:53.381032 28294 net.cpp:382] conv1 -> conv1
I0428 19:55:53.382887 28294 net.cpp:124] Setting up conv1
I0428 19:55:53.382925 28294 net.cpp:131] Top shape: 64 2 8 8 (8192)
I0428 19:55:53.382927 28294 net.cpp:139] Memory required for data: 2076928
I0428 19:55:53.382936 28294 layer_factory.hpp:77] Creating layer pool1
I0428 19:55:53.382943 28294 net.cpp:86] Creating Layer pool1
I0428 19:55:53.382946 28294 net.cpp:408] pool1 <- conv1
I0428 19:55:53.382951 28294 net.cpp:382] pool1 -> pool1
I0428 19:55:53.383002 28294 net.cpp:124] Setting up pool1
I0428 19:55:53.383008 28294 net.cpp:131] Top shape: 64 2 4 4 (2048)
I0428 19:55:53.383010 28294 net.cpp:139] Memory required for data: 2085120
I0428 19:55:53.383013 28294 layer_factory.hpp:77] Creating layer ip1
I0428 19:55:53.383020 28294 net.cpp:86] Creating Layer ip1
I0428 19:55:53.383023 28294 net.cpp:408] ip1 <- pool1
I0428 19:55:53.383028 28294 net.cpp:382] ip1 -> ip1
I0428 19:55:53.383118 28294 net.cpp:124] Setting up ip1
I0428 19:55:53.383126 28294 net.cpp:131] Top shape: 64 10 (640)
I0428 19:55:53.383128 28294 net.cpp:139] Memory required for data: 2087680
I0428 19:55:53.383136 28294 layer_factory.hpp:77] Creating layer relu1
I0428 19:55:53.383141 28294 net.cpp:86] Creating Layer relu1
I0428 19:55:53.383143 28294 net.cpp:408] relu1 <- ip1
I0428 19:55:53.383147 28294 net.cpp:369] relu1 -> ip1 (in-place)
I0428 19:55:53.383306 28294 net.cpp:124] Setting up relu1
I0428 19:55:53.383313 28294 net.cpp:131] Top shape: 64 10 (640)
I0428 19:55:53.383317 28294 net.cpp:139] Memory required for data: 2090240
I0428 19:55:53.383321 28294 layer_factory.hpp:77] Creating layer loss
I0428 19:55:53.383325 28294 net.cpp:86] Creating Layer loss
I0428 19:55:53.383328 28294 net.cpp:408] loss <- ip1
I0428 19:55:53.383332 28294 net.cpp:408] loss <- label
I0428 19:55:53.383337 28294 net.cpp:382] loss -> loss
I0428 19:55:53.383355 28294 layer_factory.hpp:77] Creating layer loss
…
I0428 19:55:53.384536 28294 solver.cpp:173] Creating test net (#0) specified by net file: ECE595/mnist/train_test/var_everything2/lenet_train_test742.prototxt
I0428 19:55:53.384560 28294 net.cpp:296] The NetState phase (1) differed from the phase (0) specified by a rule in layer mnist
I0428 19:55:53.384649 28294 net.cpp:53] Initializing net from parameters: 
name: "LeNet"
state {
  phase: TEST
}
layer {
  name: "mnist"
  type: "Data"
  top: "data"
  top: "label"
  include {
    phase: TEST
  }
  transform_param {
    scale: 0.00390625
  }
  data_param {
    source: "examples/mnist/mnist_test_lmdb"
    batch_size: 100
    backend: LMDB
  }
}
layer {
  name: "conv0"
  type: "Convolution"
  bottom: "data"
  top: "conv0"
  param {
    lr_mult: 1
  }
  param {
    lr_mult: 2
  }
  convolution_param {
    num_output: 10
    kernel_size: 5
    stride: 1
    weight_filler {
      type: "xavier"
    }
    bias_filler {
      type: "constant"
    }
  }
}
layer {
  name: "pool0"
  type: "Pooling"
  bottom: "conv0"
  top: "pool0"
  pooling_param {
    pool: MAX
    kernel_size: 2
    stride: 2
  }
}
layer {
  name: "conv1"
  type: "Convolution"
  bottom: "pool0"
  top: "conv1"
  param {
    lr_mult: 1
  }
  param {
    lr_mult: 2
  }
  convolution_param {
    num_output: 2
    kernel_size: 5
    stride: 1
    weight_filler {
      type: "xavier"
    }
    bias_filler {
      type: "constant"
    }
  }
}
layer {
  name: "pool1"
  type: "Pooling"
  bottom: "conv1"
  top: "pool1"
  pooling_param {
    pool: MAX
    kernel_size: 2
    stride: 2
  }
}
layer {
  name: "ip1"
  type: "InnerProduct"
  bottom: "pool1"
  top: "ip1"
  param {
    lr_mult: 1
  }
  param {
    lr_mult: 2
  }
  inner_product_param {
    num_output: 10
    weight_filler {
      type: "xavier"
    }
    bias_filler {
      type: "constant"
    }
  }
}
layer {
  name: "relu1"
  type: "ReLU"
  bottom: "ip1"
  top: "ip1"
}
layer {
  name: "accuracy"
  type: "Accuracy"
  bottom: "ip1"
  bottom: "label"
  top: "accuracy"
  include {
    phase: TEST
  }
}
layer {
  name: "loss"
  type: "SoftmaxWithLoss"
  bottom: "ip1"
  bottom: "label"
  top: "loss"
}
I0428 19:55:53.384723 28294 layer_factory.hpp:77] Creating layer mnist
I0428 19:55:53.384764 28294 db_lmdb.cpp:35] Opened lmdb examples/mnist/mnist_test_lmdb
I0428 19:55:53.384775 28294 net.cpp:86] Creating Layer mnist
I0428 19:55:53.384779 28294 net.cpp:382] mnist -> data
I0428 19:55:53.384788 28294 net.cpp:382] mnist -> label
I0428 19:55:53.384888 28294 data_layer.cpp:45] output data size: 100,1,28,28
I0428 19:55:53.386920 28294 net.cpp:124] Setting up mnist
I0428 19:55:53.386948 28294 net.cpp:131] Top shape: 100 1 28 28 (78400)
I0428 19:55:53.386953 28294 net.cpp:131] Top shape: 100 (100)
I0428 19:55:53.386956 28294 net.cpp:139] Memory required for data: 314000
I0428 19:55:53.386960 28294 layer_factory.hpp:77] Creating layer label_mnist_1_split
I0428 19:55:53.386988 28294 net.cpp:86] Creating Layer label_mnist_1_split
I0428 19:55:53.386992 28294 net.cpp:408] label_mnist_1_split <- label
I0428 19:55:53.386996 28294 net.cpp:382] label_mnist_1_split -> label_mnist_1_split_0
I0428 19:55:53.387003 28294 net.cpp:382] label_mnist_1_split -> label_mnist_1_split_1
I0428 19:55:53.387038 28294 net.cpp:124] Setting up label_mnist_1_split
I0428 19:55:53.387043 28294 net.cpp:131] Top shape: 100 (100)
I0428 19:55:53.387048 28294 net.cpp:131] Top shape: 100 (100)
I0428 19:55:53.387049 28294 net.cpp:139] Memory required for data: 314800
I0428 19:55:53.387053 28294 layer_factory.hpp:77] Creating layer conv0
I0428 19:55:53.387060 28294 net.cpp:86] Creating Layer conv0
I0428 19:55:53.387063 28294 net.cpp:408] conv0 <- data
I0428 19:55:53.387068 28294 net.cpp:382] conv0 -> conv0
I0428 19:55:53.388034 28294 net.cpp:124] Setting up conv0
I0428 19:55:53.388046 28294 net.cpp:131] Top shape: 100 10 24 24 (576000)
I0428 19:55:53.388051 28294 net.cpp:139] Memory required for data: 2618800
I0428 19:55:53.388058 28294 layer_factory.hpp:77] Creating layer pool0
I0428 19:55:53.388082 28294 net.cpp:86] Creating Layer pool0
I0428 19:55:53.388084 28294 net.cpp:408] pool0 <- conv0
I0428 19:55:53.388089 28294 net.cpp:382] pool0 -> pool0
I0428 19:55:53.388124 28294 net.cpp:124] Setting up pool0
I0428 19:55:53.388130 28294 net.cpp:131] Top shape: 100 10 12 12 (144000)
I0428 19:55:53.388133 28294 net.cpp:139] Memory required for data: 3194800
I0428 19:55:53.388136 28294 layer_factory.hpp:77] Creating layer conv1
I0428 19:55:53.388146 28294 net.cpp:86] Creating Layer conv1
I0428 19:55:53.388149 28294 net.cpp:408] conv1 <- pool0
I0428 19:55:53.388154 28294 net.cpp:382] conv1 -> conv1
I0428 19:55:53.390359 28294 net.cpp:124] Setting up conv1
I0428 19:55:53.390372 28294 net.cpp:131] Top shape: 100 2 8 8 (12800)
I0428 19:55:53.390377 28294 net.cpp:139] Memory required for data: 3246000
I0428 19:55:53.390385 28294 layer_factory.hpp:77] Creating layer pool1
I0428 19:55:53.390393 28294 net.cpp:86] Creating Layer pool1
I0428 19:55:53.390420 28294 net.cpp:408] pool1 <- conv1
I0428 19:55:53.390426 28294 net.cpp:382] pool1 -> pool1
I0428 19:55:53.390501 28294 net.cpp:124] Setting up pool1
I0428 19:55:53.390508 28294 net.cpp:131] Top shape: 100 2 4 4 (3200)
I0428 19:55:53.390525 28294 net.cpp:139] Memory required for data: 3258800
I0428 19:55:53.390528 28294 layer_factory.hpp:77] Creating layer ip1
I0428 19:55:53.390535 28294 net.cpp:86] Creating Layer ip1
I0428 19:55:53.390538 28294 net.cpp:408] ip1 <- pool1
I0428 19:55:53.390542 28294 net.cpp:382] ip1 -> ip1
I0428 19:55:53.390679 28294 net.cpp:124] Setting up ip1
I0428 19:55:53.390687 28294 net.cpp:131] Top shape: 100 10 (1000)
I0428 19:55:53.390691 28294 net.cpp:139] Memory required for data: 3262800
I0428 19:55:53.390697 28294 layer_factory.hpp:77] Creating layer relu1
I0428 19:55:53.390704 28294 net.cpp:86] Creating Layer relu1
I0428 19:55:53.390707 28294 net.cpp:408] relu1 <- ip1
I0428 19:55:53.390712 28294 net.cpp:369] relu1 -> ip1 (in-place)
I0428 19:55:53.391477 28294 net.cpp:124] Setting up relu1
I0428 19:55:53.391491 28294 net.cpp:131] Top shape: 100 10 (1000)
I0428 19:55:53.391495 28294 net.cpp:139] Memory required for data: 3266800
I0428 19:55:53.391499 28294 layer_factory.hpp:77] Creating layer ip1_relu1_0_split
I0428 19:55:53.391520 28294 net.cpp:86] Creating Layer ip1_relu1_0_split
I0428 19:55:53.391525 28294 net.cpp:408] ip1_relu1_0_split <- ip1
I0428 19:55:53.391530 28294 net.cpp:382] ip1_relu1_0_split -> ip1_relu1_0_split_0
I0428 19:55:53.391535 28294 net.cpp:382] ip1_relu1_0_split -> ip1_relu1_0_split_1
I0428 19:55:53.391582 28294 net.cpp:124] Setting up ip1_relu1_0_split
I0428 19:55:53.391588 28294 net.cpp:131] Top shape: 100 10 (1000)
I0428 19:55:53.391592 28294 net.cpp:131] Top shape: 100 10 (1000)
I0428 19:55:53.391595 28294 net.cpp:139] Memory required for data: 3274800
I0428 19:55:53.391598 28294 layer_factory.hpp:77] Creating layer accuracy
I0428 19:55:53.391618 28294 net.cpp:86] Creating Layer accuracy
I0428 19:55:53.391620 28294 net.cpp:408] accuracy <- ip1_relu1_0_split_0
I0428 19:55:53.391624 28294 net.cpp:408] accuracy <- label_mnist_1_split_0
I0428 19:55:53.391630 28294 net.cpp:382] accuracy -> accuracy
…
