…
I0428 19:29:25.898174 22017 net.cpp:296] The NetState phase (0) differed from the phase (1) specified by a rule in layer mnist
I0428 19:29:25.898195 22017 net.cpp:296] The NetState phase (0) differed from the phase (1) specified by a rule in layer accuracy
I0428 19:29:25.898288 22017 net.cpp:53] Initializing net from parameters: 
name: "LeNet"
state {
  phase: TRAIN
  level: 0
  stage: ""
}
layer {
  name: "mnist"
  type: "Data"
  top: "data"
  top: "label"
  include {
    phase: TRAIN
  }
  transform_param {
    scale: 0.00390625
  }
  data_param {
    source: "examples/mnist/mnist_train_lmdb"
    batch_size: 64
    backend: LMDB
  }
}
layer {
  name: "conv0"
  type: "Convolution"
  bottom: "data"
  top: "conv0"
  param {
    lr_mult: 1
  }
  param {
    lr_mult: 2
  }
  convolution_param {
    num_output: 2
    kernel_size: 5
    stride: 1
    weight_filler {
      type: "xavier"
    }
    bias_filler {
      type: "constant"
    }
  }
}
layer {
  name: "pool0"
  type: "Pooling"
  bottom: "conv0"
  top: "pool0"
  pooling_param {
    pool: MAX
    kernel_size: 2
    stride: 2
  }
}
layer {
  name: "ip1"
  type: "InnerProduct"
  bottom: "pool0"
  top: "ip1"
  param {
    lr_mult: 1
  }
  param {
    lr_mult: 2
  }
  inner_product_param {
    num_output: 10
    weight_filler {
      type: "xavier"
    }
    bias_filler {
      type: "constant"
    }
  }
}
layer {
  name: "relu1"
  type: "ReLU"
  bottom: "ip1"
  top: "ip1"
}
layer {
  name: "ip2"
  type: "InnerProduct"
  bottom: "ip1"
  top: "ip2"
  param {
    lr_mult: 1
  }
  param {
    lr_mult: 2
  }
  inner_product_param {
    num_output: 50
    weight_filler {
      type: "xavier"
    }
    bias_filler {
      type: "constant"
    }
  }
}
layer {
  name: "relu2"
  type: "ReLU"
  bottom: "ip2"
  top: "ip2"
}
layer {
  name: "ip3"
  type: "InnerProduct"
  bottom: "ip2"
  top: "ip3"
  param {
    lr_mult: 1
  }
  param {
    lr_mult: 2
  }
  inner_product_param {
    num_output: 10
    weight_filler {
      type: "xavier"
    }
    bias_filler {
      type: "constant"
    }
  }
}
layer {
  name: "relu3"
  type: "ReLU"
  bottom: "ip3"
  top: "ip3"
}
layer {
  name: "loss"
  type: "SoftmaxWithLoss"
  bottom: "ip3"
  bottom: "label"
  top: "loss"
}
I0428 19:29:25.898385 22017 layer_factory.hpp:77] Creating layer mnist
I0428 19:29:25.898519 22017 db_lmdb.cpp:35] Opened lmdb examples/mnist/mnist_train_lmdb
I0428 19:29:25.898551 22017 net.cpp:86] Creating Layer mnist
I0428 19:29:25.898563 22017 net.cpp:382] mnist -> data
I0428 19:29:25.898596 22017 net.cpp:382] mnist -> label
I0428 19:29:25.899824 22017 data_layer.cpp:45] output data size: 64,1,28,28
I0428 19:29:25.902525 22017 net.cpp:124] Setting up mnist
I0428 19:29:25.902546 22017 net.cpp:131] Top shape: 64 1 28 28 (50176)
I0428 19:29:25.902556 22017 net.cpp:131] Top shape: 64 (64)
I0428 19:29:25.902564 22017 net.cpp:139] Memory required for data: 200960
I0428 19:29:25.902575 22017 layer_factory.hpp:77] Creating layer conv0
I0428 19:29:25.902597 22017 net.cpp:86] Creating Layer conv0
I0428 19:29:25.902607 22017 net.cpp:408] conv0 <- data
I0428 19:29:25.902626 22017 net.cpp:382] conv0 -> conv0
I0428 19:29:26.187062 22017 net.cpp:124] Setting up conv0
I0428 19:29:26.187090 22017 net.cpp:131] Top shape: 64 2 24 24 (73728)
I0428 19:29:26.187096 22017 net.cpp:139] Memory required for data: 495872
I0428 19:29:26.187117 22017 layer_factory.hpp:77] Creating layer pool0
I0428 19:29:26.187134 22017 net.cpp:86] Creating Layer pool0
I0428 19:29:26.187155 22017 net.cpp:408] pool0 <- conv0
I0428 19:29:26.187166 22017 net.cpp:382] pool0 -> pool0
I0428 19:29:26.187228 22017 net.cpp:124] Setting up pool0
I0428 19:29:26.187237 22017 net.cpp:131] Top shape: 64 2 12 12 (18432)
I0428 19:29:26.187242 22017 net.cpp:139] Memory required for data: 569600
I0428 19:29:26.187247 22017 layer_factory.hpp:77] Creating layer ip1
I0428 19:29:26.187258 22017 net.cpp:86] Creating Layer ip1
I0428 19:29:26.187264 22017 net.cpp:408] ip1 <- pool0
I0428 19:29:26.187273 22017 net.cpp:382] ip1 -> ip1
I0428 19:29:26.188282 22017 net.cpp:124] Setting up ip1
I0428 19:29:26.188297 22017 net.cpp:131] Top shape: 64 10 (640)
I0428 19:29:26.188302 22017 net.cpp:139] Memory required for data: 572160
I0428 19:29:26.188316 22017 layer_factory.hpp:77] Creating layer relu1
I0428 19:29:26.188328 22017 net.cpp:86] Creating Layer relu1
I0428 19:29:26.188340 22017 net.cpp:408] relu1 <- ip1
I0428 19:29:26.188349 22017 net.cpp:369] relu1 -> ip1 (in-place)
I0428 19:29:26.188560 22017 net.cpp:124] Setting up relu1
I0428 19:29:26.188572 22017 net.cpp:131] Top shape: 64 10 (640)
I0428 19:29:26.188580 22017 net.cpp:139] Memory required for data: 574720
I0428 19:29:26.188585 22017 layer_factory.hpp:77] Creating layer ip2
I0428 19:29:26.188596 22017 net.cpp:86] Creating Layer ip2
I0428 19:29:26.188614 22017 net.cpp:408] ip2 <- ip1
I0428 19:29:26.188624 22017 net.cpp:382] ip2 -> ip2
I0428 19:29:26.188738 22017 net.cpp:124] Setting up ip2
I0428 19:29:26.188747 22017 net.cpp:131] Top shape: 64 50 (3200)
I0428 19:29:26.188752 22017 net.cpp:139] Memory required for data: 587520
I0428 19:29:26.188766 22017 layer_factory.hpp:77] Creating layer relu2
I0428 19:29:26.188776 22017 net.cpp:86] Creating Layer relu2
I0428 19:29:26.188782 22017 net.cpp:408] relu2 <- ip2
I0428 19:29:26.188789 22017 net.cpp:369] relu2 -> ip2 (in-place)
I0428 19:29:26.189568 22017 net.cpp:124] Setting up relu2
I0428 19:29:26.189581 22017 net.cpp:131] Top shape: 64 50 (3200)
I0428 19:29:26.189586 22017 net.cpp:139] Memory required for data: 600320
I0428 19:29:26.189591 22017 layer_factory.hpp:77] Creating layer ip3
I0428 19:29:26.189601 22017 net.cpp:86] Creating Layer ip3
I0428 19:29:26.189607 22017 net.cpp:408] ip3 <- ip2
I0428 19:29:26.189617 22017 net.cpp:382] ip3 -> ip3
I0428 19:29:26.189731 22017 net.cpp:124] Setting up ip3
I0428 19:29:26.189740 22017 net.cpp:131] Top shape: 64 10 (640)
I0428 19:29:26.189745 22017 net.cpp:139] Memory required for data: 602880
I0428 19:29:26.189754 22017 layer_factory.hpp:77] Creating layer relu3
I0428 19:29:26.189764 22017 net.cpp:86] Creating Layer relu3
I0428 19:29:26.189769 22017 net.cpp:408] relu3 <- ip3
I0428 19:29:26.189777 22017 net.cpp:369] relu3 -> ip3 (in-place)
I0428 19:29:26.189942 22017 net.cpp:124] Setting up relu3
I0428 19:29:26.189952 22017 net.cpp:131] Top shape: 64 10 (640)
I0428 19:29:26.189956 22017 net.cpp:139] Memory required for data: 605440
I0428 19:29:26.189961 22017 layer_factory.hpp:77] Creating layer loss
I0428 19:29:26.189970 22017 net.cpp:86] Creating Layer loss
I0428 19:29:26.189975 22017 net.cpp:408] loss <- ip3
I0428 19:29:26.189981 22017 net.cpp:408] loss <- label
I0428 19:29:26.189991 22017 net.cpp:382] loss -> loss
I0428 19:29:26.190009 22017 layer_factory.hpp:77] Creating layer loss
…
I0428 19:29:26.190657 22017 solver.cpp:173] Creating test net (#0) specified by net file: ECE595/mnist/train_test/var_everything2/lenet_train_test58.prototxt
I0428 19:29:26.190690 22017 net.cpp:296] The NetState phase (1) differed from the phase (0) specified by a rule in layer mnist
I0428 19:29:26.190774 22017 net.cpp:53] Initializing net from parameters: 
name: "LeNet"
state {
  phase: TEST
}
layer {
  name: "mnist"
  type: "Data"
  top: "data"
  top: "label"
  include {
    phase: TEST
  }
  transform_param {
    scale: 0.00390625
  }
  data_param {
    source: "examples/mnist/mnist_test_lmdb"
    batch_size: 100
    backend: LMDB
  }
}
layer {
  name: "conv0"
  type: "Convolution"
  bottom: "data"
  top: "conv0"
  param {
    lr_mult: 1
  }
  param {
    lr_mult: 2
  }
  convolution_param {
    num_output: 2
    kernel_size: 5
    stride: 1
    weight_filler {
      type: "xavier"
    }
    bias_filler {
      type: "constant"
    }
  }
}
layer {
  name: "pool0"
  type: "Pooling"
  bottom: "conv0"
  top: "pool0"
  pooling_param {
    pool: MAX
    kernel_size: 2
    stride: 2
  }
}
layer {
  name: "ip1"
  type: "InnerProduct"
  bottom: "pool0"
  top: "ip1"
  param {
    lr_mult: 1
  }
  param {
    lr_mult: 2
  }
  inner_product_param {
    num_output: 10
    weight_filler {
      type: "xavier"
    }
    bias_filler {
      type: "constant"
    }
  }
}
layer {
  name: "relu1"
  type: "ReLU"
  bottom: "ip1"
  top: "ip1"
}
layer {
  name: "ip2"
  type: "InnerProduct"
  bottom: "ip1"
  top: "ip2"
  param {
    lr_mult: 1
  }
  param {
    lr_mult: 2
  }
  inner_product_param {
    num_output: 50
    weight_filler {
      type: "xavier"
    }
    bias_filler {
      type: "constant"
    }
  }
}
layer {
  name: "relu2"
  type: "ReLU"
  bottom: "ip2"
  top: "ip2"
}
layer {
  name: "ip3"
  type: "InnerProduct"
  bottom: "ip2"
  top: "ip3"
  param {
    lr_mult: 1
  }
  param {
    lr_mult: 2
  }
  inner_product_param {
    num_output: 10
    weight_filler {
      type: "xavier"
    }
    bias_filler {
      type: "constant"
    }
  }
}
layer {
  name: "relu3"
  type: "ReLU"
  bottom: "ip3"
  top: "ip3"
}
layer {
  name: "accuracy"
  type: "Accuracy"
  bottom: "ip3"
  bottom: "label"
  top: "accuracy"
  include {
    phase: TEST
  }
}
layer {
  name: "loss"
  type: "SoftmaxWithLoss"
  bottom: "ip3"
  bottom: "label"
  top: "loss"
}
I0428 19:29:26.190877 22017 layer_factory.hpp:77] Creating layer mnist
I0428 19:29:26.190940 22017 db_lmdb.cpp:35] Opened lmdb examples/mnist/mnist_test_lmdb
I0428 19:29:26.190958 22017 net.cpp:86] Creating Layer mnist
I0428 19:29:26.190968 22017 net.cpp:382] mnist -> data
I0428 19:29:26.190979 22017 net.cpp:382] mnist -> label
I0428 19:29:26.191100 22017 data_layer.cpp:45] output data size: 100,1,28,28
I0428 19:29:26.193161 22017 net.cpp:124] Setting up mnist
I0428 19:29:26.193176 22017 net.cpp:131] Top shape: 100 1 28 28 (78400)
I0428 19:29:26.193184 22017 net.cpp:131] Top shape: 100 (100)
I0428 19:29:26.193189 22017 net.cpp:139] Memory required for data: 314000
I0428 19:29:26.193194 22017 layer_factory.hpp:77] Creating layer label_mnist_1_split
I0428 19:29:26.193220 22017 net.cpp:86] Creating Layer label_mnist_1_split
I0428 19:29:26.193226 22017 net.cpp:408] label_mnist_1_split <- label
I0428 19:29:26.193234 22017 net.cpp:382] label_mnist_1_split -> label_mnist_1_split_0
I0428 19:29:26.193244 22017 net.cpp:382] label_mnist_1_split -> label_mnist_1_split_1
I0428 19:29:26.193348 22017 net.cpp:124] Setting up label_mnist_1_split
I0428 19:29:26.193357 22017 net.cpp:131] Top shape: 100 (100)
I0428 19:29:26.193363 22017 net.cpp:131] Top shape: 100 (100)
I0428 19:29:26.193367 22017 net.cpp:139] Memory required for data: 314800
I0428 19:29:26.193384 22017 layer_factory.hpp:77] Creating layer conv0
I0428 19:29:26.193400 22017 net.cpp:86] Creating Layer conv0
I0428 19:29:26.193408 22017 net.cpp:408] conv0 <- data
I0428 19:29:26.193418 22017 net.cpp:382] conv0 -> conv0
I0428 19:29:26.194986 22017 net.cpp:124] Setting up conv0
I0428 19:29:26.195001 22017 net.cpp:131] Top shape: 100 2 24 24 (115200)
I0428 19:29:26.195022 22017 net.cpp:139] Memory required for data: 775600
I0428 19:29:26.195039 22017 layer_factory.hpp:77] Creating layer pool0
I0428 19:29:26.195049 22017 net.cpp:86] Creating Layer pool0
I0428 19:29:26.195055 22017 net.cpp:408] pool0 <- conv0
I0428 19:29:26.195061 22017 net.cpp:382] pool0 -> pool0
I0428 19:29:26.195107 22017 net.cpp:124] Setting up pool0
I0428 19:29:26.195116 22017 net.cpp:131] Top shape: 100 2 12 12 (28800)
I0428 19:29:26.195122 22017 net.cpp:139] Memory required for data: 890800
I0428 19:29:26.195127 22017 layer_factory.hpp:77] Creating layer ip1
I0428 19:29:26.195138 22017 net.cpp:86] Creating Layer ip1
I0428 19:29:26.195144 22017 net.cpp:408] ip1 <- pool0
I0428 19:29:26.195152 22017 net.cpp:382] ip1 -> ip1
I0428 19:29:26.195277 22017 net.cpp:124] Setting up ip1
I0428 19:29:26.195287 22017 net.cpp:131] Top shape: 100 10 (1000)
I0428 19:29:26.195292 22017 net.cpp:139] Memory required for data: 894800
I0428 19:29:26.195303 22017 layer_factory.hpp:77] Creating layer relu1
I0428 19:29:26.195315 22017 net.cpp:86] Creating Layer relu1
I0428 19:29:26.195322 22017 net.cpp:408] relu1 <- ip1
I0428 19:29:26.195329 22017 net.cpp:369] relu1 -> ip1 (in-place)
I0428 19:29:26.195515 22017 net.cpp:124] Setting up relu1
I0428 19:29:26.195528 22017 net.cpp:131] Top shape: 100 10 (1000)
I0428 19:29:26.195533 22017 net.cpp:139] Memory required for data: 898800
I0428 19:29:26.195536 22017 layer_factory.hpp:77] Creating layer ip2
I0428 19:29:26.195545 22017 net.cpp:86] Creating Layer ip2
I0428 19:29:26.195550 22017 net.cpp:408] ip2 <- ip1
I0428 19:29:26.195559 22017 net.cpp:382] ip2 -> ip2
I0428 19:29:26.195680 22017 net.cpp:124] Setting up ip2
I0428 19:29:26.195689 22017 net.cpp:131] Top shape: 100 50 (5000)
I0428 19:29:26.195694 22017 net.cpp:139] Memory required for data: 918800
I0428 19:29:26.195706 22017 layer_factory.hpp:77] Creating layer relu2
I0428 19:29:26.195719 22017 net.cpp:86] Creating Layer relu2
I0428 19:29:26.195724 22017 net.cpp:408] relu2 <- ip2
I0428 19:29:26.195731 22017 net.cpp:369] relu2 -> ip2 (in-place)
I0428 19:29:26.196569 22017 net.cpp:124] Setting up relu2
I0428 19:29:26.196583 22017 net.cpp:131] Top shape: 100 50 (5000)
I0428 19:29:26.196588 22017 net.cpp:139] Memory required for data: 938800
I0428 19:29:26.196594 22017 layer_factory.hpp:77] Creating layer ip3
I0428 19:29:26.196606 22017 net.cpp:86] Creating Layer ip3
I0428 19:29:26.196612 22017 net.cpp:408] ip3 <- ip2
I0428 19:29:26.196624 22017 net.cpp:382] ip3 -> ip3
I0428 19:29:26.196753 22017 net.cpp:124] Setting up ip3
I0428 19:29:26.196763 22017 net.cpp:131] Top shape: 100 10 (1000)
I0428 19:29:26.196768 22017 net.cpp:139] Memory required for data: 942800
I0428 19:29:26.196779 22017 layer_factory.hpp:77] Creating layer relu3
I0428 19:29:26.196786 22017 net.cpp:86] Creating Layer relu3
I0428 19:29:26.196791 22017 net.cpp:408] relu3 <- ip3
I0428 19:29:26.196800 22017 net.cpp:369] relu3 -> ip3 (in-place)
I0428 19:29:26.197027 22017 net.cpp:124] Setting up relu3
I0428 19:29:26.197041 22017 net.cpp:131] Top shape: 100 10 (1000)
I0428 19:29:26.197046 22017 net.cpp:139] Memory required for data: 946800
I0428 19:29:26.197052 22017 layer_factory.hpp:77] Creating layer ip3_relu3_0_split
I0428 19:29:26.197060 22017 net.cpp:86] Creating Layer ip3_relu3_0_split
I0428 19:29:26.197067 22017 net.cpp:408] ip3_relu3_0_split <- ip3
I0428 19:29:26.197077 22017 net.cpp:382] ip3_relu3_0_split -> ip3_relu3_0_split_0
I0428 19:29:26.197088 22017 net.cpp:382] ip3_relu3_0_split -> ip3_relu3_0_split_1
I0428 19:29:26.197139 22017 net.cpp:124] Setting up ip3_relu3_0_split
I0428 19:29:26.197162 22017 net.cpp:131] Top shape: 100 10 (1000)
I0428 19:29:26.197173 22017 net.cpp:131] Top shape: 100 10 (1000)
I0428 19:29:26.197190 22017 net.cpp:139] Memory required for data: 954800
I0428 19:29:26.197211 22017 layer_factory.hpp:77] Creating layer accuracy
I0428 19:29:26.197221 22017 net.cpp:86] Creating Layer accuracy
I0428 19:29:26.197227 22017 net.cpp:408] accuracy <- ip3_relu3_0_split_0
I0428 19:29:26.197234 22017 net.cpp:408] accuracy <- label_mnist_1_split_0
I0428 19:29:26.197243 22017 net.cpp:382] accuracy -> accuracy
…
