…
I0428 19:56:49.118428 28525 net.cpp:296] The NetState phase (0) differed from the phase (1) specified by a rule in layer mnist
I0428 19:56:49.118446 28525 net.cpp:296] The NetState phase (0) differed from the phase (1) specified by a rule in layer accuracy
I0428 19:56:49.118546 28525 net.cpp:53] Initializing net from parameters: 
name: "LeNet"
state {
  phase: TRAIN
  level: 0
  stage: ""
}
layer {
  name: "mnist"
  type: "Data"
  top: "data"
  top: "label"
  include {
    phase: TRAIN
  }
  transform_param {
    scale: 0.00390625
  }
  data_param {
    source: "examples/mnist/mnist_train_lmdb"
    batch_size: 64
    backend: LMDB
  }
}
layer {
  name: "conv0"
  type: "Convolution"
  bottom: "data"
  top: "conv0"
  param {
    lr_mult: 1
  }
  param {
    lr_mult: 2
  }
  convolution_param {
    num_output: 10
    kernel_size: 5
    stride: 1
    weight_filler {
      type: "xavier"
    }
    bias_filler {
      type: "constant"
    }
  }
}
layer {
  name: "pool0"
  type: "Pooling"
  bottom: "conv0"
  top: "pool0"
  pooling_param {
    pool: MAX
    kernel_size: 2
    stride: 2
  }
}
layer {
  name: "conv1"
  type: "Convolution"
  bottom: "pool0"
  top: "conv1"
  param {
    lr_mult: 1
  }
  param {
    lr_mult: 2
  }
  convolution_param {
    num_output: 2
    kernel_size: 5
    stride: 1
    weight_filler {
      type: "xavier"
    }
    bias_filler {
      type: "constant"
    }
  }
}
layer {
  name: "pool1"
  type: "Pooling"
  bottom: "conv1"
  top: "pool1"
  pooling_param {
    pool: MAX
    kernel_size: 2
    stride: 2
  }
}
layer {
  name: "ip1"
  type: "InnerProduct"
  bottom: "pool1"
  top: "ip1"
  param {
    lr_mult: 1
  }
  param {
    lr_mult: 2
  }
  inner_product_param {
    num_output: 25
    weight_filler {
      type: "xavier"
    }
    bias_filler {
      type: "constant"
    }
  }
}
layer {
  name: "relu1"
  type: "ReLU"
  bottom: "ip1"
  top: "ip1"
}
layer {
  name: "ip2"
  type: "InnerProduct"
  bottom: "ip1"
  top: "ip2"
  param {
    lr_mult: 1
  }
  param {
    lr_mult: 2
  }
  inner_product_param {
    num_output: 50
    weight_filler {
      type: "xavier"
    }
    bias_filler {
      type: "constant"
    }
  }
}
layer {
  name: "relu2"
  type: "ReLU"
  bottom: "ip2"
  top: "ip2"
}
layer {
  name: "ip3"
  type: "InnerProduct"
  bottom: "ip2"
  top: "ip3"
  param {
    lr_mult: 1
  }
  param {
    lr_mult: 2
  }
  inner_product_param {
    num_output: 10
    weight_filler {
      type: "xavier"
    }
    bias_filler {
      type: "constant"
    }
  }
}
layer {
  name: "relu3"
  type: "ReLU"
  bottom: "ip3"
  top: "ip3"
}
layer {
  name: "loss"
  type: "SoftmaxWithLoss"
  bottom: "ip3"
  bottom: "label"
  top: "loss"
}
I0428 19:56:49.118625 28525 layer_factory.hpp:77] Creating layer mnist
I0428 19:56:49.118726 28525 db_lmdb.cpp:35] Opened lmdb examples/mnist/mnist_train_lmdb
I0428 19:56:49.118748 28525 net.cpp:86] Creating Layer mnist
I0428 19:56:49.118755 28525 net.cpp:382] mnist -> data
I0428 19:56:49.118778 28525 net.cpp:382] mnist -> label
I0428 19:56:49.119840 28525 data_layer.cpp:45] output data size: 64,1,28,28
I0428 19:56:49.122289 28525 net.cpp:124] Setting up mnist
I0428 19:56:49.122308 28525 net.cpp:131] Top shape: 64 1 28 28 (50176)
I0428 19:56:49.122314 28525 net.cpp:131] Top shape: 64 (64)
I0428 19:56:49.122318 28525 net.cpp:139] Memory required for data: 200960
I0428 19:56:49.122324 28525 layer_factory.hpp:77] Creating layer conv0
I0428 19:56:49.122340 28525 net.cpp:86] Creating Layer conv0
I0428 19:56:49.122360 28525 net.cpp:408] conv0 <- data
I0428 19:56:49.122372 28525 net.cpp:382] conv0 -> conv0
I0428 19:56:49.410915 28525 net.cpp:124] Setting up conv0
I0428 19:56:49.410945 28525 net.cpp:131] Top shape: 64 10 24 24 (368640)
I0428 19:56:49.410950 28525 net.cpp:139] Memory required for data: 1675520
I0428 19:56:49.410969 28525 layer_factory.hpp:77] Creating layer pool0
I0428 19:56:49.410982 28525 net.cpp:86] Creating Layer pool0
I0428 19:56:49.410986 28525 net.cpp:408] pool0 <- conv0
I0428 19:56:49.410993 28525 net.cpp:382] pool0 -> pool0
I0428 19:56:49.411046 28525 net.cpp:124] Setting up pool0
I0428 19:56:49.411054 28525 net.cpp:131] Top shape: 64 10 12 12 (92160)
I0428 19:56:49.411057 28525 net.cpp:139] Memory required for data: 2044160
I0428 19:56:49.411062 28525 layer_factory.hpp:77] Creating layer conv1
I0428 19:56:49.411073 28525 net.cpp:86] Creating Layer conv1
I0428 19:56:49.411082 28525 net.cpp:408] conv1 <- pool0
I0428 19:56:49.411087 28525 net.cpp:382] conv1 -> conv1
I0428 19:56:49.413216 28525 net.cpp:124] Setting up conv1
I0428 19:56:49.413233 28525 net.cpp:131] Top shape: 64 2 8 8 (8192)
I0428 19:56:49.413238 28525 net.cpp:139] Memory required for data: 2076928
I0428 19:56:49.413247 28525 layer_factory.hpp:77] Creating layer pool1
I0428 19:56:49.413256 28525 net.cpp:86] Creating Layer pool1
I0428 19:56:49.413260 28525 net.cpp:408] pool1 <- conv1
I0428 19:56:49.413266 28525 net.cpp:382] pool1 -> pool1
I0428 19:56:49.413310 28525 net.cpp:124] Setting up pool1
I0428 19:56:49.413317 28525 net.cpp:131] Top shape: 64 2 4 4 (2048)
I0428 19:56:49.413321 28525 net.cpp:139] Memory required for data: 2085120
I0428 19:56:49.413324 28525 layer_factory.hpp:77] Creating layer ip1
I0428 19:56:49.413333 28525 net.cpp:86] Creating Layer ip1
I0428 19:56:49.413336 28525 net.cpp:408] ip1 <- pool1
I0428 19:56:49.413342 28525 net.cpp:382] ip1 -> ip1
I0428 19:56:49.413460 28525 net.cpp:124] Setting up ip1
I0428 19:56:49.413467 28525 net.cpp:131] Top shape: 64 25 (1600)
I0428 19:56:49.413471 28525 net.cpp:139] Memory required for data: 2091520
I0428 19:56:49.413480 28525 layer_factory.hpp:77] Creating layer relu1
I0428 19:56:49.413486 28525 net.cpp:86] Creating Layer relu1
I0428 19:56:49.413489 28525 net.cpp:408] relu1 <- ip1
I0428 19:56:49.413494 28525 net.cpp:369] relu1 -> ip1 (in-place)
I0428 19:56:49.413688 28525 net.cpp:124] Setting up relu1
I0428 19:56:49.413698 28525 net.cpp:131] Top shape: 64 25 (1600)
I0428 19:56:49.413702 28525 net.cpp:139] Memory required for data: 2097920
I0428 19:56:49.413705 28525 layer_factory.hpp:77] Creating layer ip2
I0428 19:56:49.413712 28525 net.cpp:86] Creating Layer ip2
I0428 19:56:49.413717 28525 net.cpp:408] ip2 <- ip1
I0428 19:56:49.413722 28525 net.cpp:382] ip2 -> ip2
I0428 19:56:49.414814 28525 net.cpp:124] Setting up ip2
I0428 19:56:49.414829 28525 net.cpp:131] Top shape: 64 50 (3200)
I0428 19:56:49.414834 28525 net.cpp:139] Memory required for data: 2110720
I0428 19:56:49.414840 28525 layer_factory.hpp:77] Creating layer relu2
I0428 19:56:49.414849 28525 net.cpp:86] Creating Layer relu2
I0428 19:56:49.414854 28525 net.cpp:408] relu2 <- ip2
I0428 19:56:49.414860 28525 net.cpp:369] relu2 -> ip2 (in-place)
I0428 19:56:49.415707 28525 net.cpp:124] Setting up relu2
I0428 19:56:49.415721 28525 net.cpp:131] Top shape: 64 50 (3200)
I0428 19:56:49.415725 28525 net.cpp:139] Memory required for data: 2123520
I0428 19:56:49.415730 28525 layer_factory.hpp:77] Creating layer ip3
I0428 19:56:49.415738 28525 net.cpp:86] Creating Layer ip3
I0428 19:56:49.415742 28525 net.cpp:408] ip3 <- ip2
I0428 19:56:49.415748 28525 net.cpp:382] ip3 -> ip3
I0428 19:56:49.415868 28525 net.cpp:124] Setting up ip3
I0428 19:56:49.415876 28525 net.cpp:131] Top shape: 64 10 (640)
I0428 19:56:49.415879 28525 net.cpp:139] Memory required for data: 2126080
I0428 19:56:49.415889 28525 layer_factory.hpp:77] Creating layer relu3
I0428 19:56:49.415895 28525 net.cpp:86] Creating Layer relu3
I0428 19:56:49.415899 28525 net.cpp:408] relu3 <- ip3
I0428 19:56:49.415904 28525 net.cpp:369] relu3 -> ip3 (in-place)
I0428 19:56:49.416107 28525 net.cpp:124] Setting up relu3
I0428 19:56:49.416117 28525 net.cpp:131] Top shape: 64 10 (640)
I0428 19:56:49.416121 28525 net.cpp:139] Memory required for data: 2128640
I0428 19:56:49.416126 28525 layer_factory.hpp:77] Creating layer loss
I0428 19:56:49.416132 28525 net.cpp:86] Creating Layer loss
I0428 19:56:49.416136 28525 net.cpp:408] loss <- ip3
I0428 19:56:49.416141 28525 net.cpp:408] loss <- label
I0428 19:56:49.416147 28525 net.cpp:382] loss -> loss
I0428 19:56:49.416168 28525 layer_factory.hpp:77] Creating layer loss
…
I0428 19:56:49.416909 28525 solver.cpp:173] Creating test net (#0) specified by net file: ECE595/mnist/train_test/var_everything2/lenet_train_test770.prototxt
I0428 19:56:49.416940 28525 net.cpp:296] The NetState phase (1) differed from the phase (0) specified by a rule in layer mnist
I0428 19:56:49.417055 28525 net.cpp:53] Initializing net from parameters: 
name: "LeNet"
state {
  phase: TEST
}
layer {
  name: "mnist"
  type: "Data"
  top: "data"
  top: "label"
  include {
    phase: TEST
  }
  transform_param {
    scale: 0.00390625
  }
  data_param {
    source: "examples/mnist/mnist_test_lmdb"
    batch_size: 100
    backend: LMDB
  }
}
layer {
  name: "conv0"
  type: "Convolution"
  bottom: "data"
  top: "conv0"
  param {
    lr_mult: 1
  }
  param {
    lr_mult: 2
  }
  convolution_param {
    num_output: 10
    kernel_size: 5
    stride: 1
    weight_filler {
      type: "xavier"
    }
    bias_filler {
      type: "constant"
    }
  }
}
layer {
  name: "pool0"
  type: "Pooling"
  bottom: "conv0"
  top: "pool0"
  pooling_param {
    pool: MAX
    kernel_size: 2
    stride: 2
  }
}
layer {
  name: "conv1"
  type: "Convolution"
  bottom: "pool0"
  top: "conv1"
  param {
    lr_mult: 1
  }
  param {
    lr_mult: 2
  }
  convolution_param {
    num_output: 2
    kernel_size: 5
    stride: 1
    weight_filler {
      type: "xavier"
    }
    bias_filler {
      type: "constant"
    }
  }
}
layer {
  name: "pool1"
  type: "Pooling"
  bottom: "conv1"
  top: "pool1"
  pooling_param {
    pool: MAX
    kernel_size: 2
    stride: 2
  }
}
layer {
  name: "ip1"
  type: "InnerProduct"
  bottom: "pool1"
  top: "ip1"
  param {
    lr_mult: 1
  }
  param {
    lr_mult: 2
  }
  inner_product_param {
    num_output: 25
    weight_filler {
      type: "xavier"
    }
    bias_filler {
      type: "constant"
    }
  }
}
layer {
  name: "relu1"
  type: "ReLU"
  bottom: "ip1"
  top: "ip1"
}
layer {
  name: "ip2"
  type: "InnerProduct"
  bottom: "ip1"
  top: "ip2"
  param {
    lr_mult: 1
  }
  param {
    lr_mult: 2
  }
  inner_product_param {
    num_output: 50
    weight_filler {
      type: "xavier"
    }
    bias_filler {
      type: "constant"
    }
  }
}
layer {
  name: "relu2"
  type: "ReLU"
  bottom: "ip2"
  top: "ip2"
}
layer {
  name: "ip3"
  type: "InnerProduct"
  bottom: "ip2"
  top: "ip3"
  param {
    lr_mult: 1
  }
  param {
    lr_mult: 2
  }
  inner_product_param {
    num_output: 10
    weight_filler {
      type: "xavier"
    }
    bias_filler {
      type: "constant"
    }
  }
}
layer {
  name: "relu3"
  type: "ReLU"
  bottom: "ip3"
  top: "ip3"
}
layer {
  name: "accuracy"
  type: "Accuracy"
  bottom: "ip3"
  bottom: "label"
  top: "accuracy"
  include {
    phase: TEST
  }
}
layer {
  name: "loss"
  type: "SoftmaxWithLoss"
  bottom: "ip3"
  bottom: "label"
  top: "loss"
}
I0428 19:56:49.417148 28525 layer_factory.hpp:77] Creating layer mnist
I0428 19:56:49.417197 28525 db_lmdb.cpp:35] Opened lmdb examples/mnist/mnist_test_lmdb
I0428 19:56:49.417212 28525 net.cpp:86] Creating Layer mnist
I0428 19:56:49.417217 28525 net.cpp:382] mnist -> data
I0428 19:56:49.417227 28525 net.cpp:382] mnist -> label
I0428 19:56:49.417325 28525 data_layer.cpp:45] output data size: 100,1,28,28
I0428 19:56:49.419474 28525 net.cpp:124] Setting up mnist
I0428 19:56:49.419489 28525 net.cpp:131] Top shape: 100 1 28 28 (78400)
I0428 19:56:49.419495 28525 net.cpp:131] Top shape: 100 (100)
I0428 19:56:49.419500 28525 net.cpp:139] Memory required for data: 314000
I0428 19:56:49.419505 28525 layer_factory.hpp:77] Creating layer label_mnist_1_split
I0428 19:56:49.419517 28525 net.cpp:86] Creating Layer label_mnist_1_split
I0428 19:56:49.419522 28525 net.cpp:408] label_mnist_1_split <- label
I0428 19:56:49.419528 28525 net.cpp:382] label_mnist_1_split -> label_mnist_1_split_0
I0428 19:56:49.419534 28525 net.cpp:382] label_mnist_1_split -> label_mnist_1_split_1
I0428 19:56:49.419608 28525 net.cpp:124] Setting up label_mnist_1_split
I0428 19:56:49.419617 28525 net.cpp:131] Top shape: 100 (100)
I0428 19:56:49.419621 28525 net.cpp:131] Top shape: 100 (100)
I0428 19:56:49.419625 28525 net.cpp:139] Memory required for data: 314800
I0428 19:56:49.419628 28525 layer_factory.hpp:77] Creating layer conv0
I0428 19:56:49.419638 28525 net.cpp:86] Creating Layer conv0
I0428 19:56:49.419647 28525 net.cpp:408] conv0 <- data
I0428 19:56:49.419653 28525 net.cpp:382] conv0 -> conv0
I0428 19:56:49.421490 28525 net.cpp:124] Setting up conv0
I0428 19:56:49.421506 28525 net.cpp:131] Top shape: 100 10 24 24 (576000)
I0428 19:56:49.421511 28525 net.cpp:139] Memory required for data: 2618800
I0428 19:56:49.421521 28525 layer_factory.hpp:77] Creating layer pool0
I0428 19:56:49.421530 28525 net.cpp:86] Creating Layer pool0
I0428 19:56:49.421533 28525 net.cpp:408] pool0 <- conv0
I0428 19:56:49.421540 28525 net.cpp:382] pool0 -> pool0
I0428 19:56:49.421581 28525 net.cpp:124] Setting up pool0
I0428 19:56:49.421588 28525 net.cpp:131] Top shape: 100 10 12 12 (144000)
I0428 19:56:49.421592 28525 net.cpp:139] Memory required for data: 3194800
I0428 19:56:49.421596 28525 layer_factory.hpp:77] Creating layer conv1
I0428 19:56:49.421605 28525 net.cpp:86] Creating Layer conv1
I0428 19:56:49.421609 28525 net.cpp:408] conv1 <- pool0
I0428 19:56:49.421615 28525 net.cpp:382] conv1 -> conv1
I0428 19:56:49.423892 28525 net.cpp:124] Setting up conv1
I0428 19:56:49.423905 28525 net.cpp:131] Top shape: 100 2 8 8 (12800)
I0428 19:56:49.423910 28525 net.cpp:139] Memory required for data: 3246000
I0428 19:56:49.423920 28525 layer_factory.hpp:77] Creating layer pool1
I0428 19:56:49.423928 28525 net.cpp:86] Creating Layer pool1
I0428 19:56:49.423931 28525 net.cpp:408] pool1 <- conv1
I0428 19:56:49.423938 28525 net.cpp:382] pool1 -> pool1
I0428 19:56:49.423986 28525 net.cpp:124] Setting up pool1
I0428 19:56:49.423995 28525 net.cpp:131] Top shape: 100 2 4 4 (3200)
I0428 19:56:49.424000 28525 net.cpp:139] Memory required for data: 3258800
I0428 19:56:49.424003 28525 layer_factory.hpp:77] Creating layer ip1
I0428 19:56:49.424010 28525 net.cpp:86] Creating Layer ip1
I0428 19:56:49.424013 28525 net.cpp:408] ip1 <- pool1
I0428 19:56:49.424019 28525 net.cpp:382] ip1 -> ip1
I0428 19:56:49.424173 28525 net.cpp:124] Setting up ip1
I0428 19:56:49.424182 28525 net.cpp:131] Top shape: 100 25 (2500)
I0428 19:56:49.424201 28525 net.cpp:139] Memory required for data: 3268800
I0428 19:56:49.424209 28525 layer_factory.hpp:77] Creating layer relu1
I0428 19:56:49.424216 28525 net.cpp:86] Creating Layer relu1
I0428 19:56:49.424219 28525 net.cpp:408] relu1 <- ip1
I0428 19:56:49.424226 28525 net.cpp:369] relu1 -> ip1 (in-place)
I0428 19:56:49.424414 28525 net.cpp:124] Setting up relu1
I0428 19:56:49.424425 28525 net.cpp:131] Top shape: 100 25 (2500)
I0428 19:56:49.424429 28525 net.cpp:139] Memory required for data: 3278800
I0428 19:56:49.424433 28525 layer_factory.hpp:77] Creating layer ip2
I0428 19:56:49.424440 28525 net.cpp:86] Creating Layer ip2
I0428 19:56:49.424444 28525 net.cpp:408] ip2 <- ip1
I0428 19:56:49.424451 28525 net.cpp:382] ip2 -> ip2
I0428 19:56:49.424584 28525 net.cpp:124] Setting up ip2
I0428 19:56:49.424593 28525 net.cpp:131] Top shape: 100 50 (5000)
I0428 19:56:49.424597 28525 net.cpp:139] Memory required for data: 3298800
I0428 19:56:49.424603 28525 layer_factory.hpp:77] Creating layer relu2
I0428 19:56:49.424608 28525 net.cpp:86] Creating Layer relu2
I0428 19:56:49.424612 28525 net.cpp:408] relu2 <- ip2
I0428 19:56:49.424618 28525 net.cpp:369] relu2 -> ip2 (in-place)
I0428 19:56:49.424793 28525 net.cpp:124] Setting up relu2
I0428 19:56:49.424803 28525 net.cpp:131] Top shape: 100 50 (5000)
I0428 19:56:49.424806 28525 net.cpp:139] Memory required for data: 3318800
I0428 19:56:49.424816 28525 layer_factory.hpp:77] Creating layer ip3
I0428 19:56:49.424823 28525 net.cpp:86] Creating Layer ip3
I0428 19:56:49.424827 28525 net.cpp:408] ip3 <- ip2
I0428 19:56:49.424834 28525 net.cpp:382] ip3 -> ip3
I0428 19:56:49.424963 28525 net.cpp:124] Setting up ip3
I0428 19:56:49.424971 28525 net.cpp:131] Top shape: 100 10 (1000)
I0428 19:56:49.424974 28525 net.cpp:139] Memory required for data: 3322800
I0428 19:56:49.424983 28525 layer_factory.hpp:77] Creating layer relu3
I0428 19:56:49.424988 28525 net.cpp:86] Creating Layer relu3
I0428 19:56:49.424993 28525 net.cpp:408] relu3 <- ip3
I0428 19:56:49.424998 28525 net.cpp:369] relu3 -> ip3 (in-place)
I0428 19:56:49.425935 28525 net.cpp:124] Setting up relu3
I0428 19:56:49.425950 28525 net.cpp:131] Top shape: 100 10 (1000)
I0428 19:56:49.425953 28525 net.cpp:139] Memory required for data: 3326800
I0428 19:56:49.425957 28525 layer_factory.hpp:77] Creating layer ip3_relu3_0_split
I0428 19:56:49.425964 28525 net.cpp:86] Creating Layer ip3_relu3_0_split
I0428 19:56:49.425968 28525 net.cpp:408] ip3_relu3_0_split <- ip3
I0428 19:56:49.425974 28525 net.cpp:382] ip3_relu3_0_split -> ip3_relu3_0_split_0
I0428 19:56:49.425982 28525 net.cpp:382] ip3_relu3_0_split -> ip3_relu3_0_split_1
I0428 19:56:49.426024 28525 net.cpp:124] Setting up ip3_relu3_0_split
I0428 19:56:49.426031 28525 net.cpp:131] Top shape: 100 10 (1000)
I0428 19:56:49.426036 28525 net.cpp:131] Top shape: 100 10 (1000)
I0428 19:56:49.426039 28525 net.cpp:139] Memory required for data: 3334800
I0428 19:56:49.426043 28525 layer_factory.hpp:77] Creating layer accuracy
I0428 19:56:49.426050 28525 net.cpp:86] Creating Layer accuracy
I0428 19:56:49.426054 28525 net.cpp:408] accuracy <- ip3_relu3_0_split_0
I0428 19:56:49.426059 28525 net.cpp:408] accuracy <- label_mnist_1_split_0
I0428 19:56:49.426064 28525 net.cpp:382] accuracy -> accuracy
…
