…
I0428 19:43:41.285928 25403 net.cpp:296] The NetState phase (0) differed from the phase (1) specified by a rule in layer mnist
I0428 19:43:41.285945 25403 net.cpp:296] The NetState phase (0) differed from the phase (1) specified by a rule in layer accuracy
I0428 19:43:41.286042 25403 net.cpp:53] Initializing net from parameters: 
name: "LeNet"
state {
  phase: TRAIN
  level: 0
  stage: ""
}
layer {
  name: "mnist"
  type: "Data"
  top: "data"
  top: "label"
  include {
    phase: TRAIN
  }
  transform_param {
    scale: 0.00390625
  }
  data_param {
    source: "examples/mnist/mnist_train_lmdb"
    batch_size: 64
    backend: LMDB
  }
}
layer {
  name: "conv0"
  type: "Convolution"
  bottom: "data"
  top: "conv0"
  param {
    lr_mult: 1
  }
  param {
    lr_mult: 2
  }
  convolution_param {
    num_output: 2
    kernel_size: 5
    stride: 1
    weight_filler {
      type: "xavier"
    }
    bias_filler {
      type: "constant"
    }
  }
}
layer {
  name: "pool0"
  type: "Pooling"
  bottom: "conv0"
  top: "pool0"
  pooling_param {
    pool: MAX
    kernel_size: 2
    stride: 2
  }
}
layer {
  name: "conv1"
  type: "Convolution"
  bottom: "pool0"
  top: "conv1"
  param {
    lr_mult: 1
  }
  param {
    lr_mult: 2
  }
  convolution_param {
    num_output: 25
    kernel_size: 5
    stride: 1
    weight_filler {
      type: "xavier"
    }
    bias_filler {
      type: "constant"
    }
  }
}
layer {
  name: "pool1"
  type: "Pooling"
  bottom: "conv1"
  top: "pool1"
  pooling_param {
    pool: MAX
    kernel_size: 2
    stride: 2
  }
}
layer {
  name: "ip1"
  type: "InnerProduct"
  bottom: "pool1"
  top: "ip1"
  param {
    lr_mult: 1
  }
  param {
    lr_mult: 2
  }
  inner_product_param {
    num_output: 50
    weight_filler {
      type: "xavier"
    }
    bias_filler {
      type: "constant"
    }
  }
}
layer {
  name: "relu1"
  type: "ReLU"
  bottom: "ip1"
  top: "ip1"
}
layer {
  name: "ip2"
  type: "InnerProduct"
  bottom: "ip1"
  top: "ip2"
  param {
    lr_mult: 1
  }
  param {
    lr_mult: 2
  }
  inner_product_param {
    num_output: 50
    weight_filler {
      type: "xavier"
    }
    bias_filler {
      type: "constant"
    }
  }
}
layer {
  name: "relu2"
  type: "ReLU"
  bottom: "ip2"
  top: "ip2"
}
layer {
  name: "ip3"
  type: "InnerProduct"
  bottom: "ip2"
  top: "ip3"
  param {
    lr_mult: 1
  }
  param {
    lr_mult: 2
  }
  inner_product_param {
    num_output: 10
    weight_filler {
      type: "xavier"
    }
    bias_filler {
      type: "constant"
    }
  }
}
layer {
  name: "relu3"
  type: "ReLU"
  bottom: "ip3"
  top: "ip3"
}
layer {
  name: "loss"
  type: "SoftmaxWithLoss"
  bottom: "ip3"
  bottom: "label"
  top: "loss"
}
I0428 19:43:41.286115 25403 layer_factory.hpp:77] Creating layer mnist
I0428 19:43:41.286214 25403 db_lmdb.cpp:35] Opened lmdb examples/mnist/mnist_train_lmdb
I0428 19:43:41.286237 25403 net.cpp:86] Creating Layer mnist
I0428 19:43:41.286244 25403 net.cpp:382] mnist -> data
I0428 19:43:41.286267 25403 net.cpp:382] mnist -> label
I0428 19:43:41.287358 25403 data_layer.cpp:45] output data size: 64,1,28,28
I0428 19:43:41.289824 25403 net.cpp:124] Setting up mnist
I0428 19:43:41.289841 25403 net.cpp:131] Top shape: 64 1 28 28 (50176)
I0428 19:43:41.289847 25403 net.cpp:131] Top shape: 64 (64)
I0428 19:43:41.289851 25403 net.cpp:139] Memory required for data: 200960
I0428 19:43:41.289860 25403 layer_factory.hpp:77] Creating layer conv0
I0428 19:43:41.289876 25403 net.cpp:86] Creating Layer conv0
I0428 19:43:41.289897 25403 net.cpp:408] conv0 <- data
I0428 19:43:41.289909 25403 net.cpp:382] conv0 -> conv0
I0428 19:43:41.556685 25403 net.cpp:124] Setting up conv0
I0428 19:43:41.556710 25403 net.cpp:131] Top shape: 64 2 24 24 (73728)
I0428 19:43:41.556715 25403 net.cpp:139] Memory required for data: 495872
I0428 19:43:41.556727 25403 layer_factory.hpp:77] Creating layer pool0
I0428 19:43:41.556740 25403 net.cpp:86] Creating Layer pool0
I0428 19:43:41.556744 25403 net.cpp:408] pool0 <- conv0
I0428 19:43:41.556749 25403 net.cpp:382] pool0 -> pool0
I0428 19:43:41.556849 25403 net.cpp:124] Setting up pool0
I0428 19:43:41.556855 25403 net.cpp:131] Top shape: 64 2 12 12 (18432)
I0428 19:43:41.556859 25403 net.cpp:139] Memory required for data: 569600
I0428 19:43:41.556879 25403 layer_factory.hpp:77] Creating layer conv1
I0428 19:43:41.556890 25403 net.cpp:86] Creating Layer conv1
I0428 19:43:41.556892 25403 net.cpp:408] conv1 <- pool0
I0428 19:43:41.556898 25403 net.cpp:382] conv1 -> conv1
I0428 19:43:41.559720 25403 net.cpp:124] Setting up conv1
I0428 19:43:41.559749 25403 net.cpp:131] Top shape: 64 25 8 8 (102400)
I0428 19:43:41.559753 25403 net.cpp:139] Memory required for data: 979200
I0428 19:43:41.559777 25403 layer_factory.hpp:77] Creating layer pool1
I0428 19:43:41.559787 25403 net.cpp:86] Creating Layer pool1
I0428 19:43:41.559790 25403 net.cpp:408] pool1 <- conv1
I0428 19:43:41.559794 25403 net.cpp:382] pool1 -> pool1
I0428 19:43:41.559847 25403 net.cpp:124] Setting up pool1
I0428 19:43:41.559852 25403 net.cpp:131] Top shape: 64 25 4 4 (25600)
I0428 19:43:41.559855 25403 net.cpp:139] Memory required for data: 1081600
I0428 19:43:41.559859 25403 layer_factory.hpp:77] Creating layer ip1
I0428 19:43:41.559867 25403 net.cpp:86] Creating Layer ip1
I0428 19:43:41.559870 25403 net.cpp:408] ip1 <- pool1
I0428 19:43:41.559876 25403 net.cpp:382] ip1 -> ip1
I0428 19:43:41.560112 25403 net.cpp:124] Setting up ip1
I0428 19:43:41.560134 25403 net.cpp:131] Top shape: 64 50 (3200)
I0428 19:43:41.560138 25403 net.cpp:139] Memory required for data: 1094400
I0428 19:43:41.560145 25403 layer_factory.hpp:77] Creating layer relu1
I0428 19:43:41.560151 25403 net.cpp:86] Creating Layer relu1
I0428 19:43:41.560154 25403 net.cpp:408] relu1 <- ip1
I0428 19:43:41.560158 25403 net.cpp:369] relu1 -> ip1 (in-place)
I0428 19:43:41.560319 25403 net.cpp:124] Setting up relu1
I0428 19:43:41.560328 25403 net.cpp:131] Top shape: 64 50 (3200)
I0428 19:43:41.560331 25403 net.cpp:139] Memory required for data: 1107200
I0428 19:43:41.560334 25403 layer_factory.hpp:77] Creating layer ip2
I0428 19:43:41.560341 25403 net.cpp:86] Creating Layer ip2
I0428 19:43:41.560345 25403 net.cpp:408] ip2 <- ip1
I0428 19:43:41.560350 25403 net.cpp:382] ip2 -> ip2
I0428 19:43:41.560473 25403 net.cpp:124] Setting up ip2
I0428 19:43:41.560480 25403 net.cpp:131] Top shape: 64 50 (3200)
I0428 19:43:41.560483 25403 net.cpp:139] Memory required for data: 1120000
I0428 19:43:41.560488 25403 layer_factory.hpp:77] Creating layer relu2
I0428 19:43:41.560494 25403 net.cpp:86] Creating Layer relu2
I0428 19:43:41.560497 25403 net.cpp:408] relu2 <- ip2
I0428 19:43:41.560500 25403 net.cpp:369] relu2 -> ip2 (in-place)
I0428 19:43:41.561345 25403 net.cpp:124] Setting up relu2
I0428 19:43:41.561357 25403 net.cpp:131] Top shape: 64 50 (3200)
I0428 19:43:41.561377 25403 net.cpp:139] Memory required for data: 1132800
I0428 19:43:41.561379 25403 layer_factory.hpp:77] Creating layer ip3
I0428 19:43:41.561388 25403 net.cpp:86] Creating Layer ip3
I0428 19:43:41.561391 25403 net.cpp:408] ip3 <- ip2
I0428 19:43:41.561398 25403 net.cpp:382] ip3 -> ip3
I0428 19:43:41.561549 25403 net.cpp:124] Setting up ip3
I0428 19:43:41.561558 25403 net.cpp:131] Top shape: 64 10 (640)
I0428 19:43:41.561560 25403 net.cpp:139] Memory required for data: 1135360
I0428 19:43:41.561568 25403 layer_factory.hpp:77] Creating layer relu3
I0428 19:43:41.561573 25403 net.cpp:86] Creating Layer relu3
I0428 19:43:41.561575 25403 net.cpp:408] relu3 <- ip3
I0428 19:43:41.561579 25403 net.cpp:369] relu3 -> ip3 (in-place)
I0428 19:43:41.561741 25403 net.cpp:124] Setting up relu3
I0428 19:43:41.561750 25403 net.cpp:131] Top shape: 64 10 (640)
I0428 19:43:41.561753 25403 net.cpp:139] Memory required for data: 1137920
I0428 19:43:41.561756 25403 layer_factory.hpp:77] Creating layer loss
I0428 19:43:41.561763 25403 net.cpp:86] Creating Layer loss
I0428 19:43:41.561765 25403 net.cpp:408] loss <- ip3
I0428 19:43:41.561769 25403 net.cpp:408] loss <- label
I0428 19:43:41.561774 25403 net.cpp:382] loss -> loss
I0428 19:43:41.561790 25403 layer_factory.hpp:77] Creating layer loss
…
I0428 19:43:41.562465 25403 solver.cpp:173] Creating test net (#0) specified by net file: ECE595/mnist/train_test/var_everything2/lenet_train_test428.prototxt
I0428 19:43:41.562507 25403 net.cpp:296] The NetState phase (1) differed from the phase (0) specified by a rule in layer mnist
I0428 19:43:41.562597 25403 net.cpp:53] Initializing net from parameters: 
name: "LeNet"
state {
  phase: TEST
}
layer {
  name: "mnist"
  type: "Data"
  top: "data"
  top: "label"
  include {
    phase: TEST
  }
  transform_param {
    scale: 0.00390625
  }
  data_param {
    source: "examples/mnist/mnist_test_lmdb"
    batch_size: 100
    backend: LMDB
  }
}
layer {
  name: "conv0"
  type: "Convolution"
  bottom: "data"
  top: "conv0"
  param {
    lr_mult: 1
  }
  param {
    lr_mult: 2
  }
  convolution_param {
    num_output: 2
    kernel_size: 5
    stride: 1
    weight_filler {
      type: "xavier"
    }
    bias_filler {
      type: "constant"
    }
  }
}
layer {
  name: "pool0"
  type: "Pooling"
  bottom: "conv0"
  top: "pool0"
  pooling_param {
    pool: MAX
    kernel_size: 2
    stride: 2
  }
}
layer {
  name: "conv1"
  type: "Convolution"
  bottom: "pool0"
  top: "conv1"
  param {
    lr_mult: 1
  }
  param {
    lr_mult: 2
  }
  convolution_param {
    num_output: 25
    kernel_size: 5
    stride: 1
    weight_filler {
      type: "xavier"
    }
    bias_filler {
      type: "constant"
    }
  }
}
layer {
  name: "pool1"
  type: "Pooling"
  bottom: "conv1"
  top: "pool1"
  pooling_param {
    pool: MAX
    kernel_size: 2
    stride: 2
  }
}
layer {
  name: "ip1"
  type: "InnerProduct"
  bottom: "pool1"
  top: "ip1"
  param {
    lr_mult: 1
  }
  param {
    lr_mult: 2
  }
  inner_product_param {
    num_output: 50
    weight_filler {
      type: "xavier"
    }
    bias_filler {
      type: "constant"
    }
  }
}
layer {
  name: "relu1"
  type: "ReLU"
  bottom: "ip1"
  top: "ip1"
}
layer {
  name: "ip2"
  type: "InnerProduct"
  bottom: "ip1"
  top: "ip2"
  param {
    lr_mult: 1
  }
  param {
    lr_mult: 2
  }
  inner_product_param {
    num_output: 50
    weight_filler {
      type: "xavier"
    }
    bias_filler {
      type: "constant"
    }
  }
}
layer {
  name: "relu2"
  type: "ReLU"
  bottom: "ip2"
  top: "ip2"
}
layer {
  name: "ip3"
  type: "InnerProduct"
  bottom: "ip2"
  top: "ip3"
  param {
    lr_mult: 1
  }
  param {
    lr_mult: 2
  }
  inner_product_param {
    num_output: 10
    weight_filler {
      type: "xavier"
    }
    bias_filler {
      type: "constant"
    }
  }
}
layer {
  name: "relu3"
  type: "ReLU"
  bottom: "ip3"
  top: "ip3"
}
layer {
  name: "accuracy"
  type: "Accuracy"
  bottom: "ip3"
  bottom: "label"
  top: "accuracy"
  include {
    phase: TEST
  }
}
layer {
  name: "loss"
  type: "SoftmaxWithLoss"
  bottom: "ip3"
  bottom: "label"
  top: "loss"
}
I0428 19:43:41.562703 25403 layer_factory.hpp:77] Creating layer mnist
I0428 19:43:41.562747 25403 db_lmdb.cpp:35] Opened lmdb examples/mnist/mnist_test_lmdb
I0428 19:43:41.562758 25403 net.cpp:86] Creating Layer mnist
I0428 19:43:41.562763 25403 net.cpp:382] mnist -> data
I0428 19:43:41.562770 25403 net.cpp:382] mnist -> label
I0428 19:43:41.562852 25403 data_layer.cpp:45] output data size: 100,1,28,28
I0428 19:43:41.564987 25403 net.cpp:124] Setting up mnist
I0428 19:43:41.565016 25403 net.cpp:131] Top shape: 100 1 28 28 (78400)
I0428 19:43:41.565022 25403 net.cpp:131] Top shape: 100 (100)
I0428 19:43:41.565026 25403 net.cpp:139] Memory required for data: 314000
I0428 19:43:41.565029 25403 layer_factory.hpp:77] Creating layer label_mnist_1_split
I0428 19:43:41.565063 25403 net.cpp:86] Creating Layer label_mnist_1_split
I0428 19:43:41.565068 25403 net.cpp:408] label_mnist_1_split <- label
I0428 19:43:41.565073 25403 net.cpp:382] label_mnist_1_split -> label_mnist_1_split_0
I0428 19:43:41.565079 25403 net.cpp:382] label_mnist_1_split -> label_mnist_1_split_1
I0428 19:43:41.565199 25403 net.cpp:124] Setting up label_mnist_1_split
I0428 19:43:41.565207 25403 net.cpp:131] Top shape: 100 (100)
I0428 19:43:41.565210 25403 net.cpp:131] Top shape: 100 (100)
I0428 19:43:41.565213 25403 net.cpp:139] Memory required for data: 314800
I0428 19:43:41.565217 25403 layer_factory.hpp:77] Creating layer conv0
I0428 19:43:41.565224 25403 net.cpp:86] Creating Layer conv0
I0428 19:43:41.565227 25403 net.cpp:408] conv0 <- data
I0428 19:43:41.565232 25403 net.cpp:382] conv0 -> conv0
I0428 19:43:41.566962 25403 net.cpp:124] Setting up conv0
I0428 19:43:41.566977 25403 net.cpp:131] Top shape: 100 2 24 24 (115200)
I0428 19:43:41.566980 25403 net.cpp:139] Memory required for data: 775600
I0428 19:43:41.566989 25403 layer_factory.hpp:77] Creating layer pool0
I0428 19:43:41.567011 25403 net.cpp:86] Creating Layer pool0
I0428 19:43:41.567014 25403 net.cpp:408] pool0 <- conv0
I0428 19:43:41.567034 25403 net.cpp:382] pool0 -> pool0
I0428 19:43:41.567066 25403 net.cpp:124] Setting up pool0
I0428 19:43:41.567071 25403 net.cpp:131] Top shape: 100 2 12 12 (28800)
I0428 19:43:41.567075 25403 net.cpp:139] Memory required for data: 890800
I0428 19:43:41.567077 25403 layer_factory.hpp:77] Creating layer conv1
I0428 19:43:41.567085 25403 net.cpp:86] Creating Layer conv1
I0428 19:43:41.567088 25403 net.cpp:408] conv1 <- pool0
I0428 19:43:41.567092 25403 net.cpp:382] conv1 -> conv1
I0428 19:43:41.568644 25403 net.cpp:124] Setting up conv1
I0428 19:43:41.568656 25403 net.cpp:131] Top shape: 100 25 8 8 (160000)
I0428 19:43:41.568660 25403 net.cpp:139] Memory required for data: 1530800
I0428 19:43:41.568668 25403 layer_factory.hpp:77] Creating layer pool1
I0428 19:43:41.568675 25403 net.cpp:86] Creating Layer pool1
I0428 19:43:41.568677 25403 net.cpp:408] pool1 <- conv1
I0428 19:43:41.568698 25403 net.cpp:382] pool1 -> pool1
I0428 19:43:41.568732 25403 net.cpp:124] Setting up pool1
I0428 19:43:41.568738 25403 net.cpp:131] Top shape: 100 25 4 4 (40000)
I0428 19:43:41.568742 25403 net.cpp:139] Memory required for data: 1690800
I0428 19:43:41.568745 25403 layer_factory.hpp:77] Creating layer ip1
I0428 19:43:41.568750 25403 net.cpp:86] Creating Layer ip1
I0428 19:43:41.568753 25403 net.cpp:408] ip1 <- pool1
I0428 19:43:41.568771 25403 net.cpp:382] ip1 -> ip1
I0428 19:43:41.569039 25403 net.cpp:124] Setting up ip1
I0428 19:43:41.569049 25403 net.cpp:131] Top shape: 100 50 (5000)
I0428 19:43:41.569063 25403 net.cpp:139] Memory required for data: 1710800
I0428 19:43:41.569072 25403 layer_factory.hpp:77] Creating layer relu1
I0428 19:43:41.569085 25403 net.cpp:86] Creating Layer relu1
I0428 19:43:41.569089 25403 net.cpp:408] relu1 <- ip1
I0428 19:43:41.569094 25403 net.cpp:369] relu1 -> ip1 (in-place)
I0428 19:43:41.569298 25403 net.cpp:124] Setting up relu1
I0428 19:43:41.569306 25403 net.cpp:131] Top shape: 100 50 (5000)
I0428 19:43:41.569309 25403 net.cpp:139] Memory required for data: 1730800
I0428 19:43:41.569314 25403 layer_factory.hpp:77] Creating layer ip2
I0428 19:43:41.569319 25403 net.cpp:86] Creating Layer ip2
I0428 19:43:41.569324 25403 net.cpp:408] ip2 <- ip1
I0428 19:43:41.569327 25403 net.cpp:382] ip2 -> ip2
I0428 19:43:41.569466 25403 net.cpp:124] Setting up ip2
I0428 19:43:41.569473 25403 net.cpp:131] Top shape: 100 50 (5000)
I0428 19:43:41.569478 25403 net.cpp:139] Memory required for data: 1750800
I0428 19:43:41.569483 25403 layer_factory.hpp:77] Creating layer relu2
I0428 19:43:41.569488 25403 net.cpp:86] Creating Layer relu2
I0428 19:43:41.569490 25403 net.cpp:408] relu2 <- ip2
I0428 19:43:41.569494 25403 net.cpp:369] relu2 -> ip2 (in-place)
I0428 19:43:41.569641 25403 net.cpp:124] Setting up relu2
I0428 19:43:41.569649 25403 net.cpp:131] Top shape: 100 50 (5000)
I0428 19:43:41.569653 25403 net.cpp:139] Memory required for data: 1770800
I0428 19:43:41.569655 25403 layer_factory.hpp:77] Creating layer ip3
I0428 19:43:41.569660 25403 net.cpp:86] Creating Layer ip3
I0428 19:43:41.569664 25403 net.cpp:408] ip3 <- ip2
I0428 19:43:41.569669 25403 net.cpp:382] ip3 -> ip3
I0428 19:43:41.569797 25403 net.cpp:124] Setting up ip3
I0428 19:43:41.569804 25403 net.cpp:131] Top shape: 100 10 (1000)
I0428 19:43:41.569808 25403 net.cpp:139] Memory required for data: 1774800
I0428 19:43:41.569815 25403 layer_factory.hpp:77] Creating layer relu3
I0428 19:43:41.569819 25403 net.cpp:86] Creating Layer relu3
I0428 19:43:41.569823 25403 net.cpp:408] relu3 <- ip3
I0428 19:43:41.569828 25403 net.cpp:369] relu3 -> ip3 (in-place)
I0428 19:43:41.570713 25403 net.cpp:124] Setting up relu3
I0428 19:43:41.570724 25403 net.cpp:131] Top shape: 100 10 (1000)
I0428 19:43:41.570729 25403 net.cpp:139] Memory required for data: 1778800
I0428 19:43:41.570732 25403 layer_factory.hpp:77] Creating layer ip3_relu3_0_split
I0428 19:43:41.570737 25403 net.cpp:86] Creating Layer ip3_relu3_0_split
I0428 19:43:41.570741 25403 net.cpp:408] ip3_relu3_0_split <- ip3
I0428 19:43:41.570746 25403 net.cpp:382] ip3_relu3_0_split -> ip3_relu3_0_split_0
I0428 19:43:41.570752 25403 net.cpp:382] ip3_relu3_0_split -> ip3_relu3_0_split_1
I0428 19:43:41.570788 25403 net.cpp:124] Setting up ip3_relu3_0_split
I0428 19:43:41.570793 25403 net.cpp:131] Top shape: 100 10 (1000)
I0428 19:43:41.570797 25403 net.cpp:131] Top shape: 100 10 (1000)
I0428 19:43:41.570801 25403 net.cpp:139] Memory required for data: 1786800
I0428 19:43:41.570803 25403 layer_factory.hpp:77] Creating layer accuracy
I0428 19:43:41.570808 25403 net.cpp:86] Creating Layer accuracy
I0428 19:43:41.570811 25403 net.cpp:408] accuracy <- ip3_relu3_0_split_0
I0428 19:43:41.570816 25403 net.cpp:408] accuracy <- label_mnist_1_split_0
I0428 19:43:41.570821 25403 net.cpp:382] accuracy -> accuracy
…
