…
I0428 20:05:18.978171 30584 net.cpp:296] The NetState phase (0) differed from the phase (1) specified by a rule in layer mnist
I0428 20:05:18.978189 30584 net.cpp:296] The NetState phase (0) differed from the phase (1) specified by a rule in layer accuracy
I0428 20:05:18.978286 30584 net.cpp:53] Initializing net from parameters: 
name: "LeNet"
state {
  phase: TRAIN
  level: 0
  stage: ""
}
layer {
  name: "mnist"
  type: "Data"
  top: "data"
  top: "label"
  include {
    phase: TRAIN
  }
  transform_param {
    scale: 0.00390625
  }
  data_param {
    source: "examples/mnist/mnist_train_lmdb"
    batch_size: 64
    backend: LMDB
  }
}
layer {
  name: "conv0"
  type: "Convolution"
  bottom: "data"
  top: "conv0"
  param {
    lr_mult: 1
  }
  param {
    lr_mult: 2
  }
  convolution_param {
    num_output: 25
    kernel_size: 5
    stride: 1
    weight_filler {
      type: "xavier"
    }
    bias_filler {
      type: "constant"
    }
  }
}
layer {
  name: "pool0"
  type: "Pooling"
  bottom: "conv0"
  top: "pool0"
  pooling_param {
    pool: MAX
    kernel_size: 2
    stride: 2
  }
}
layer {
  name: "conv1"
  type: "Convolution"
  bottom: "pool0"
  top: "conv1"
  param {
    lr_mult: 1
  }
  param {
    lr_mult: 2
  }
  convolution_param {
    num_output: 2
    kernel_size: 5
    stride: 1
    weight_filler {
      type: "xavier"
    }
    bias_filler {
      type: "constant"
    }
  }
}
layer {
  name: "pool1"
  type: "Pooling"
  bottom: "conv1"
  top: "pool1"
  pooling_param {
    pool: MAX
    kernel_size: 2
    stride: 2
  }
}
layer {
  name: "ip1"
  type: "InnerProduct"
  bottom: "pool1"
  top: "ip1"
  param {
    lr_mult: 1
  }
  param {
    lr_mult: 2
  }
  inner_product_param {
    num_output: 25
    weight_filler {
      type: "xavier"
    }
    bias_filler {
      type: "constant"
    }
  }
}
layer {
  name: "relu1"
  type: "ReLU"
  bottom: "ip1"
  top: "ip1"
}
layer {
  name: "ip2"
  type: "InnerProduct"
  bottom: "ip1"
  top: "ip2"
  param {
    lr_mult: 1
  }
  param {
    lr_mult: 2
  }
  inner_product_param {
    num_output: 10
    weight_filler {
      type: "xavier"
    }
    bias_filler {
      type: "constant"
    }
  }
}
layer {
  name: "relu2"
  type: "ReLU"
  bottom: "ip2"
  top: "ip2"
}
layer {
  name: "ip3"
  type: "InnerProduct"
  bottom: "ip2"
  top: "ip3"
  param {
    lr_mult: 1
  }
  param {
    lr_mult: 2
  }
  inner_product_param {
    num_output: 10
    weight_filler {
      type: "xavier"
    }
    bias_filler {
      type: "constant"
    }
  }
}
layer {
  name: "relu3"
  type: "ReLU"
  bottom: "ip3"
  top: "ip3"
}
layer {
  name: "loss"
  type: "SoftmaxWithLoss"
  bottom: "ip3"
  bottom: "label"
  top: "loss"
}
I0428 20:05:18.978360 30584 layer_factory.hpp:77] Creating layer mnist
I0428 20:05:18.978462 30584 db_lmdb.cpp:35] Opened lmdb examples/mnist/mnist_train_lmdb
I0428 20:05:18.978487 30584 net.cpp:86] Creating Layer mnist
I0428 20:05:18.978494 30584 net.cpp:382] mnist -> data
I0428 20:05:18.978516 30584 net.cpp:382] mnist -> label
I0428 20:05:18.979609 30584 data_layer.cpp:45] output data size: 64,1,28,28
I0428 20:05:18.982059 30584 net.cpp:124] Setting up mnist
I0428 20:05:18.982076 30584 net.cpp:131] Top shape: 64 1 28 28 (50176)
I0428 20:05:18.982084 30584 net.cpp:131] Top shape: 64 (64)
I0428 20:05:18.982087 30584 net.cpp:139] Memory required for data: 200960
I0428 20:05:18.982095 30584 layer_factory.hpp:77] Creating layer conv0
I0428 20:05:18.982110 30584 net.cpp:86] Creating Layer conv0
I0428 20:05:18.982130 30584 net.cpp:408] conv0 <- data
I0428 20:05:18.982144 30584 net.cpp:382] conv0 -> conv0
I0428 20:05:19.244396 30584 net.cpp:124] Setting up conv0
I0428 20:05:19.244423 30584 net.cpp:131] Top shape: 64 25 24 24 (921600)
I0428 20:05:19.244426 30584 net.cpp:139] Memory required for data: 3887360
I0428 20:05:19.244441 30584 layer_factory.hpp:77] Creating layer pool0
I0428 20:05:19.244451 30584 net.cpp:86] Creating Layer pool0
I0428 20:05:19.244455 30584 net.cpp:408] pool0 <- conv0
I0428 20:05:19.244460 30584 net.cpp:382] pool0 -> pool0
I0428 20:05:19.244534 30584 net.cpp:124] Setting up pool0
I0428 20:05:19.244539 30584 net.cpp:131] Top shape: 64 25 12 12 (230400)
I0428 20:05:19.244541 30584 net.cpp:139] Memory required for data: 4808960
I0428 20:05:19.244544 30584 layer_factory.hpp:77] Creating layer conv1
I0428 20:05:19.244554 30584 net.cpp:86] Creating Layer conv1
I0428 20:05:19.244557 30584 net.cpp:408] conv1 <- pool0
I0428 20:05:19.244562 30584 net.cpp:382] conv1 -> conv1
I0428 20:05:19.247205 30584 net.cpp:124] Setting up conv1
I0428 20:05:19.247220 30584 net.cpp:131] Top shape: 64 2 8 8 (8192)
I0428 20:05:19.247223 30584 net.cpp:139] Memory required for data: 4841728
I0428 20:05:19.247231 30584 layer_factory.hpp:77] Creating layer pool1
I0428 20:05:19.247238 30584 net.cpp:86] Creating Layer pool1
I0428 20:05:19.247256 30584 net.cpp:408] pool1 <- conv1
I0428 20:05:19.247262 30584 net.cpp:382] pool1 -> pool1
I0428 20:05:19.247326 30584 net.cpp:124] Setting up pool1
I0428 20:05:19.247333 30584 net.cpp:131] Top shape: 64 2 4 4 (2048)
I0428 20:05:19.247335 30584 net.cpp:139] Memory required for data: 4849920
I0428 20:05:19.247339 30584 layer_factory.hpp:77] Creating layer ip1
I0428 20:05:19.247345 30584 net.cpp:86] Creating Layer ip1
I0428 20:05:19.247349 30584 net.cpp:408] ip1 <- pool1
I0428 20:05:19.247352 30584 net.cpp:382] ip1 -> ip1
I0428 20:05:19.247447 30584 net.cpp:124] Setting up ip1
I0428 20:05:19.247454 30584 net.cpp:131] Top shape: 64 25 (1600)
I0428 20:05:19.247457 30584 net.cpp:139] Memory required for data: 4856320
I0428 20:05:19.247463 30584 layer_factory.hpp:77] Creating layer relu1
I0428 20:05:19.247468 30584 net.cpp:86] Creating Layer relu1
I0428 20:05:19.247473 30584 net.cpp:408] relu1 <- ip1
I0428 20:05:19.247476 30584 net.cpp:369] relu1 -> ip1 (in-place)
I0428 20:05:19.247654 30584 net.cpp:124] Setting up relu1
I0428 20:05:19.247663 30584 net.cpp:131] Top shape: 64 25 (1600)
I0428 20:05:19.247665 30584 net.cpp:139] Memory required for data: 4862720
I0428 20:05:19.247668 30584 layer_factory.hpp:77] Creating layer ip2
I0428 20:05:19.247673 30584 net.cpp:86] Creating Layer ip2
I0428 20:05:19.247676 30584 net.cpp:408] ip2 <- ip1
I0428 20:05:19.247681 30584 net.cpp:382] ip2 -> ip2
I0428 20:05:19.247768 30584 net.cpp:124] Setting up ip2
I0428 20:05:19.247776 30584 net.cpp:131] Top shape: 64 10 (640)
I0428 20:05:19.247779 30584 net.cpp:139] Memory required for data: 4865280
I0428 20:05:19.247784 30584 layer_factory.hpp:77] Creating layer relu2
I0428 20:05:19.247789 30584 net.cpp:86] Creating Layer relu2
I0428 20:05:19.247792 30584 net.cpp:408] relu2 <- ip2
I0428 20:05:19.247797 30584 net.cpp:369] relu2 -> ip2 (in-place)
I0428 20:05:19.248543 30584 net.cpp:124] Setting up relu2
I0428 20:05:19.248555 30584 net.cpp:131] Top shape: 64 10 (640)
I0428 20:05:19.248559 30584 net.cpp:139] Memory required for data: 4867840
I0428 20:05:19.248577 30584 layer_factory.hpp:77] Creating layer ip3
I0428 20:05:19.248584 30584 net.cpp:86] Creating Layer ip3
I0428 20:05:19.248587 30584 net.cpp:408] ip3 <- ip2
I0428 20:05:19.248594 30584 net.cpp:382] ip3 -> ip3
I0428 20:05:19.248708 30584 net.cpp:124] Setting up ip3
I0428 20:05:19.248714 30584 net.cpp:131] Top shape: 64 10 (640)
I0428 20:05:19.248718 30584 net.cpp:139] Memory required for data: 4870400
I0428 20:05:19.248724 30584 layer_factory.hpp:77] Creating layer relu3
I0428 20:05:19.248729 30584 net.cpp:86] Creating Layer relu3
I0428 20:05:19.248733 30584 net.cpp:408] relu3 <- ip3
I0428 20:05:19.248736 30584 net.cpp:369] relu3 -> ip3 (in-place)
I0428 20:05:19.248940 30584 net.cpp:124] Setting up relu3
I0428 20:05:19.248950 30584 net.cpp:131] Top shape: 64 10 (640)
I0428 20:05:19.248952 30584 net.cpp:139] Memory required for data: 4872960
I0428 20:05:19.248956 30584 layer_factory.hpp:77] Creating layer loss
I0428 20:05:19.248962 30584 net.cpp:86] Creating Layer loss
I0428 20:05:19.248965 30584 net.cpp:408] loss <- ip3
I0428 20:05:19.248970 30584 net.cpp:408] loss <- label
I0428 20:05:19.248975 30584 net.cpp:382] loss -> loss
I0428 20:05:19.248988 30584 layer_factory.hpp:77] Creating layer loss
…
I0428 20:05:19.249683 30584 solver.cpp:173] Creating test net (#0) specified by net file: ECE595/mnist/train_test/var_everything2/lenet_train_test996.prototxt
I0428 20:05:19.249711 30584 net.cpp:296] The NetState phase (1) differed from the phase (0) specified by a rule in layer mnist
I0428 20:05:19.249817 30584 net.cpp:53] Initializing net from parameters: 
name: "LeNet"
state {
  phase: TEST
}
layer {
  name: "mnist"
  type: "Data"
  top: "data"
  top: "label"
  include {
    phase: TEST
  }
  transform_param {
    scale: 0.00390625
  }
  data_param {
    source: "examples/mnist/mnist_test_lmdb"
    batch_size: 100
    backend: LMDB
  }
}
layer {
  name: "conv0"
  type: "Convolution"
  bottom: "data"
  top: "conv0"
  param {
    lr_mult: 1
  }
  param {
    lr_mult: 2
  }
  convolution_param {
    num_output: 25
    kernel_size: 5
    stride: 1
    weight_filler {
      type: "xavier"
    }
    bias_filler {
      type: "constant"
    }
  }
}
layer {
  name: "pool0"
  type: "Pooling"
  bottom: "conv0"
  top: "pool0"
  pooling_param {
    pool: MAX
    kernel_size: 2
    stride: 2
  }
}
layer {
  name: "conv1"
  type: "Convolution"
  bottom: "pool0"
  top: "conv1"
  param {
    lr_mult: 1
  }
  param {
    lr_mult: 2
  }
  convolution_param {
    num_output: 2
    kernel_size: 5
    stride: 1
    weight_filler {
      type: "xavier"
    }
    bias_filler {
      type: "constant"
    }
  }
}
layer {
  name: "pool1"
  type: "Pooling"
  bottom: "conv1"
  top: "pool1"
  pooling_param {
    pool: MAX
    kernel_size: 2
    stride: 2
  }
}
layer {
  name: "ip1"
  type: "InnerProduct"
  bottom: "pool1"
  top: "ip1"
  param {
    lr_mult: 1
  }
  param {
    lr_mult: 2
  }
  inner_product_param {
    num_output: 25
    weight_filler {
      type: "xavier"
    }
    bias_filler {
      type: "constant"
    }
  }
}
layer {
  name: "relu1"
  type: "ReLU"
  bottom: "ip1"
  top: "ip1"
}
layer {
  name: "ip2"
  type: "InnerProduct"
  bottom: "ip1"
  top: "ip2"
  param {
    lr_mult: 1
  }
  param {
    lr_mult: 2
  }
  inner_product_param {
    num_output: 10
    weight_filler {
      type: "xavier"
    }
    bias_filler {
      type: "constant"
    }
  }
}
layer {
  name: "relu2"
  type: "ReLU"
  bottom: "ip2"
  top: "ip2"
}
layer {
  name: "ip3"
  type: "InnerProduct"
  bottom: "ip2"
  top: "ip3"
  param {
    lr_mult: 1
  }
  param {
    lr_mult: 2
  }
  inner_product_param {
    num_output: 10
    weight_filler {
      type: "xavier"
    }
    bias_filler {
      type: "constant"
    }
  }
}
layer {
  name: "relu3"
  type: "ReLU"
  bottom: "ip3"
  top: "ip3"
}
layer {
  name: "accuracy"
  type: "Accuracy"
  bottom: "ip3"
  bottom: "label"
  top: "accuracy"
  include {
    phase: TEST
  }
}
layer {
  name: "loss"
  type: "SoftmaxWithLoss"
  bottom: "ip3"
  bottom: "label"
  top: "loss"
}
I0428 20:05:19.249892 30584 layer_factory.hpp:77] Creating layer mnist
I0428 20:05:19.249938 30584 db_lmdb.cpp:35] Opened lmdb examples/mnist/mnist_test_lmdb
I0428 20:05:19.249964 30584 net.cpp:86] Creating Layer mnist
I0428 20:05:19.249969 30584 net.cpp:382] mnist -> data
I0428 20:05:19.249976 30584 net.cpp:382] mnist -> label
I0428 20:05:19.250066 30584 data_layer.cpp:45] output data size: 100,1,28,28
I0428 20:05:19.251919 30584 net.cpp:124] Setting up mnist
I0428 20:05:19.251947 30584 net.cpp:131] Top shape: 100 1 28 28 (78400)
I0428 20:05:19.251966 30584 net.cpp:131] Top shape: 100 (100)
I0428 20:05:19.251969 30584 net.cpp:139] Memory required for data: 314000
I0428 20:05:19.251972 30584 layer_factory.hpp:77] Creating layer label_mnist_1_split
I0428 20:05:19.251978 30584 net.cpp:86] Creating Layer label_mnist_1_split
I0428 20:05:19.251981 30584 net.cpp:408] label_mnist_1_split <- label
I0428 20:05:19.251986 30584 net.cpp:382] label_mnist_1_split -> label_mnist_1_split_0
I0428 20:05:19.251992 30584 net.cpp:382] label_mnist_1_split -> label_mnist_1_split_1
I0428 20:05:19.252025 30584 net.cpp:124] Setting up label_mnist_1_split
I0428 20:05:19.252030 30584 net.cpp:131] Top shape: 100 (100)
I0428 20:05:19.252033 30584 net.cpp:131] Top shape: 100 (100)
I0428 20:05:19.252037 30584 net.cpp:139] Memory required for data: 314800
I0428 20:05:19.252038 30584 layer_factory.hpp:77] Creating layer conv0
I0428 20:05:19.252046 30584 net.cpp:86] Creating Layer conv0
I0428 20:05:19.252049 30584 net.cpp:408] conv0 <- data
I0428 20:05:19.252053 30584 net.cpp:382] conv0 -> conv0
I0428 20:05:19.253706 30584 net.cpp:124] Setting up conv0
I0428 20:05:19.253720 30584 net.cpp:131] Top shape: 100 25 24 24 (1440000)
I0428 20:05:19.253723 30584 net.cpp:139] Memory required for data: 6074800
I0428 20:05:19.253731 30584 layer_factory.hpp:77] Creating layer pool0
I0428 20:05:19.253737 30584 net.cpp:86] Creating Layer pool0
I0428 20:05:19.253756 30584 net.cpp:408] pool0 <- conv0
I0428 20:05:19.253762 30584 net.cpp:382] pool0 -> pool0
I0428 20:05:19.253795 30584 net.cpp:124] Setting up pool0
I0428 20:05:19.253800 30584 net.cpp:131] Top shape: 100 25 12 12 (360000)
I0428 20:05:19.253803 30584 net.cpp:139] Memory required for data: 7514800
I0428 20:05:19.253805 30584 layer_factory.hpp:77] Creating layer conv1
I0428 20:05:19.253813 30584 net.cpp:86] Creating Layer conv1
I0428 20:05:19.253831 30584 net.cpp:408] conv1 <- pool0
I0428 20:05:19.253836 30584 net.cpp:382] conv1 -> conv1
I0428 20:05:19.255869 30584 net.cpp:124] Setting up conv1
I0428 20:05:19.255897 30584 net.cpp:131] Top shape: 100 2 8 8 (12800)
I0428 20:05:19.255899 30584 net.cpp:139] Memory required for data: 7566000
I0428 20:05:19.255908 30584 layer_factory.hpp:77] Creating layer pool1
I0428 20:05:19.255928 30584 net.cpp:86] Creating Layer pool1
I0428 20:05:19.255934 30584 net.cpp:408] pool1 <- conv1
I0428 20:05:19.255937 30584 net.cpp:382] pool1 -> pool1
I0428 20:05:19.255972 30584 net.cpp:124] Setting up pool1
I0428 20:05:19.255988 30584 net.cpp:131] Top shape: 100 2 4 4 (3200)
I0428 20:05:19.255998 30584 net.cpp:139] Memory required for data: 7578800
I0428 20:05:19.256000 30584 layer_factory.hpp:77] Creating layer ip1
I0428 20:05:19.256021 30584 net.cpp:86] Creating Layer ip1
I0428 20:05:19.256031 30584 net.cpp:408] ip1 <- pool1
I0428 20:05:19.256036 30584 net.cpp:382] ip1 -> ip1
I0428 20:05:19.256134 30584 net.cpp:124] Setting up ip1
I0428 20:05:19.256142 30584 net.cpp:131] Top shape: 100 25 (2500)
I0428 20:05:19.256155 30584 net.cpp:139] Memory required for data: 7588800
I0428 20:05:19.256162 30584 layer_factory.hpp:77] Creating layer relu1
I0428 20:05:19.256173 30584 net.cpp:86] Creating Layer relu1
I0428 20:05:19.256176 30584 net.cpp:408] relu1 <- ip1
I0428 20:05:19.256186 30584 net.cpp:369] relu1 -> ip1 (in-place)
I0428 20:05:19.256366 30584 net.cpp:124] Setting up relu1
I0428 20:05:19.256374 30584 net.cpp:131] Top shape: 100 25 (2500)
I0428 20:05:19.256377 30584 net.cpp:139] Memory required for data: 7598800
I0428 20:05:19.256386 30584 layer_factory.hpp:77] Creating layer ip2
I0428 20:05:19.256393 30584 net.cpp:86] Creating Layer ip2
I0428 20:05:19.256397 30584 net.cpp:408] ip2 <- ip1
I0428 20:05:19.256407 30584 net.cpp:382] ip2 -> ip2
I0428 20:05:19.256494 30584 net.cpp:124] Setting up ip2
I0428 20:05:19.256501 30584 net.cpp:131] Top shape: 100 10 (1000)
I0428 20:05:19.256505 30584 net.cpp:139] Memory required for data: 7602800
I0428 20:05:19.256508 30584 layer_factory.hpp:77] Creating layer relu2
I0428 20:05:19.256513 30584 net.cpp:86] Creating Layer relu2
I0428 20:05:19.256515 30584 net.cpp:408] relu2 <- ip2
I0428 20:05:19.256520 30584 net.cpp:369] relu2 -> ip2 (in-place)
I0428 20:05:19.256656 30584 net.cpp:124] Setting up relu2
I0428 20:05:19.256664 30584 net.cpp:131] Top shape: 100 10 (1000)
I0428 20:05:19.256666 30584 net.cpp:139] Memory required for data: 7606800
I0428 20:05:19.256669 30584 layer_factory.hpp:77] Creating layer ip3
I0428 20:05:19.256686 30584 net.cpp:86] Creating Layer ip3
I0428 20:05:19.256690 30584 net.cpp:408] ip3 <- ip2
I0428 20:05:19.256700 30584 net.cpp:382] ip3 -> ip3
I0428 20:05:19.256783 30584 net.cpp:124] Setting up ip3
I0428 20:05:19.256789 30584 net.cpp:131] Top shape: 100 10 (1000)
I0428 20:05:19.256793 30584 net.cpp:139] Memory required for data: 7610800
I0428 20:05:19.256799 30584 layer_factory.hpp:77] Creating layer relu3
I0428 20:05:19.256815 30584 net.cpp:86] Creating Layer relu3
I0428 20:05:19.256834 30584 net.cpp:408] relu3 <- ip3
I0428 20:05:19.256839 30584 net.cpp:369] relu3 -> ip3 (in-place)
I0428 20:05:19.257710 30584 net.cpp:124] Setting up relu3
I0428 20:05:19.257722 30584 net.cpp:131] Top shape: 100 10 (1000)
I0428 20:05:19.257726 30584 net.cpp:139] Memory required for data: 7614800
I0428 20:05:19.257730 30584 layer_factory.hpp:77] Creating layer ip3_relu3_0_split
I0428 20:05:19.257735 30584 net.cpp:86] Creating Layer ip3_relu3_0_split
I0428 20:05:19.257738 30584 net.cpp:408] ip3_relu3_0_split <- ip3
I0428 20:05:19.257743 30584 net.cpp:382] ip3_relu3_0_split -> ip3_relu3_0_split_0
I0428 20:05:19.257750 30584 net.cpp:382] ip3_relu3_0_split -> ip3_relu3_0_split_1
I0428 20:05:19.257796 30584 net.cpp:124] Setting up ip3_relu3_0_split
I0428 20:05:19.257800 30584 net.cpp:131] Top shape: 100 10 (1000)
I0428 20:05:19.257804 30584 net.cpp:131] Top shape: 100 10 (1000)
I0428 20:05:19.257808 30584 net.cpp:139] Memory required for data: 7622800
I0428 20:05:19.257810 30584 layer_factory.hpp:77] Creating layer accuracy
I0428 20:05:19.257815 30584 net.cpp:86] Creating Layer accuracy
I0428 20:05:19.257819 30584 net.cpp:408] accuracy <- ip3_relu3_0_split_0
I0428 20:05:19.257822 30584 net.cpp:408] accuracy <- label_mnist_1_split_0
I0428 20:05:19.257827 30584 net.cpp:382] accuracy -> accuracy
…
