…
I0428 19:31:08.982272 22503 net.cpp:296] The NetState phase (0) differed from the phase (1) specified by a rule in layer mnist
I0428 19:31:08.982302 22503 net.cpp:296] The NetState phase (0) differed from the phase (1) specified by a rule in layer accuracy
I0428 19:31:08.982375 22503 net.cpp:53] Initializing net from parameters: 
name: "LeNet"
state {
  phase: TRAIN
  level: 0
  stage: ""
}
layer {
  name: "mnist"
  type: "Data"
  top: "data"
  top: "label"
  include {
    phase: TRAIN
  }
  transform_param {
    scale: 0.00390625
  }
  data_param {
    source: "examples/mnist/mnist_train_lmdb"
    batch_size: 64
    backend: LMDB
  }
}
layer {
  name: "conv0"
  type: "Convolution"
  bottom: "data"
  top: "conv0"
  param {
    lr_mult: 1
  }
  param {
    lr_mult: 2
  }
  convolution_param {
    num_output: 5
    kernel_size: 5
    stride: 1
    weight_filler {
      type: "xavier"
    }
    bias_filler {
      type: "constant"
    }
  }
}
layer {
  name: "pool0"
  type: "Pooling"
  bottom: "conv0"
  top: "pool0"
  pooling_param {
    pool: MAX
    kernel_size: 2
    stride: 2
  }
}
layer {
  name: "ip1"
  type: "InnerProduct"
  bottom: "pool0"
  top: "ip1"
  param {
    lr_mult: 1
  }
  param {
    lr_mult: 2
  }
  inner_product_param {
    num_output: 50
    weight_filler {
      type: "xavier"
    }
    bias_filler {
      type: "constant"
    }
  }
}
layer {
  name: "relu1"
  type: "ReLU"
  bottom: "ip1"
  top: "ip1"
}
layer {
  name: "ip2"
  type: "InnerProduct"
  bottom: "ip1"
  top: "ip2"
  param {
    lr_mult: 1
  }
  param {
    lr_mult: 2
  }
  inner_product_param {
    num_output: 25
    weight_filler {
      type: "xavier"
    }
    bias_filler {
      type: "constant"
    }
  }
}
layer {
  name: "relu2"
  type: "ReLU"
  bottom: "ip2"
  top: "ip2"
}
layer {
  name: "ip3"
  type: "InnerProduct"
  bottom: "ip2"
  top: "ip3"
  param {
    lr_mult: 1
  }
  param {
    lr_mult: 2
  }
  inner_product_param {
    num_output: 10
    weight_filler {
      type: "xavier"
    }
    bias_filler {
      type: "constant"
    }
  }
}
layer {
  name: "relu3"
  type: "ReLU"
  bottom: "ip3"
  top: "ip3"
}
layer {
  name: "loss"
  type: "SoftmaxWithLoss"
  bottom: "ip3"
  bottom: "label"
  top: "loss"
}
I0428 19:31:08.982437 22503 layer_factory.hpp:77] Creating layer mnist
I0428 19:31:08.982532 22503 db_lmdb.cpp:35] Opened lmdb examples/mnist/mnist_train_lmdb
I0428 19:31:08.982552 22503 net.cpp:86] Creating Layer mnist
I0428 19:31:08.982559 22503 net.cpp:382] mnist -> data
I0428 19:31:08.982578 22503 net.cpp:382] mnist -> label
I0428 19:31:08.983605 22503 data_layer.cpp:45] output data size: 64,1,28,28
I0428 19:31:08.985921 22503 net.cpp:124] Setting up mnist
I0428 19:31:08.985954 22503 net.cpp:131] Top shape: 64 1 28 28 (50176)
I0428 19:31:08.985970 22503 net.cpp:131] Top shape: 64 (64)
I0428 19:31:08.985972 22503 net.cpp:139] Memory required for data: 200960
I0428 19:31:08.985978 22503 layer_factory.hpp:77] Creating layer conv0
I0428 19:31:08.985991 22503 net.cpp:86] Creating Layer conv0
I0428 19:31:08.986002 22503 net.cpp:408] conv0 <- data
I0428 19:31:08.986012 22503 net.cpp:382] conv0 -> conv0
I0428 19:31:09.214392 22503 net.cpp:124] Setting up conv0
I0428 19:31:09.214437 22503 net.cpp:131] Top shape: 64 5 24 24 (184320)
I0428 19:31:09.214440 22503 net.cpp:139] Memory required for data: 938240
I0428 19:31:09.214455 22503 layer_factory.hpp:77] Creating layer pool0
I0428 19:31:09.214483 22503 net.cpp:86] Creating Layer pool0
I0428 19:31:09.214507 22503 net.cpp:408] pool0 <- conv0
I0428 19:31:09.214514 22503 net.cpp:382] pool0 -> pool0
I0428 19:31:09.214562 22503 net.cpp:124] Setting up pool0
I0428 19:31:09.214570 22503 net.cpp:131] Top shape: 64 5 12 12 (46080)
I0428 19:31:09.214572 22503 net.cpp:139] Memory required for data: 1122560
I0428 19:31:09.214576 22503 layer_factory.hpp:77] Creating layer ip1
I0428 19:31:09.214583 22503 net.cpp:86] Creating Layer ip1
I0428 19:31:09.214586 22503 net.cpp:408] ip1 <- pool0
I0428 19:31:09.214591 22503 net.cpp:382] ip1 -> ip1
I0428 19:31:09.214912 22503 net.cpp:124] Setting up ip1
I0428 19:31:09.214920 22503 net.cpp:131] Top shape: 64 50 (3200)
I0428 19:31:09.214938 22503 net.cpp:139] Memory required for data: 1135360
I0428 19:31:09.214946 22503 layer_factory.hpp:77] Creating layer relu1
I0428 19:31:09.214951 22503 net.cpp:86] Creating Layer relu1
I0428 19:31:09.214954 22503 net.cpp:408] relu1 <- ip1
I0428 19:31:09.214958 22503 net.cpp:369] relu1 -> ip1 (in-place)
I0428 19:31:09.215111 22503 net.cpp:124] Setting up relu1
I0428 19:31:09.215119 22503 net.cpp:131] Top shape: 64 50 (3200)
I0428 19:31:09.215122 22503 net.cpp:139] Memory required for data: 1148160
I0428 19:31:09.215126 22503 layer_factory.hpp:77] Creating layer ip2
I0428 19:31:09.215131 22503 net.cpp:86] Creating Layer ip2
I0428 19:31:09.215134 22503 net.cpp:408] ip2 <- ip1
I0428 19:31:09.215139 22503 net.cpp:382] ip2 -> ip2
I0428 19:31:09.216188 22503 net.cpp:124] Setting up ip2
I0428 19:31:09.216202 22503 net.cpp:131] Top shape: 64 25 (1600)
I0428 19:31:09.216220 22503 net.cpp:139] Memory required for data: 1154560
I0428 19:31:09.216229 22503 layer_factory.hpp:77] Creating layer relu2
I0428 19:31:09.216234 22503 net.cpp:86] Creating Layer relu2
I0428 19:31:09.216238 22503 net.cpp:408] relu2 <- ip2
I0428 19:31:09.216243 22503 net.cpp:369] relu2 -> ip2 (in-place)
I0428 19:31:09.217087 22503 net.cpp:124] Setting up relu2
I0428 19:31:09.217099 22503 net.cpp:131] Top shape: 64 25 (1600)
I0428 19:31:09.217118 22503 net.cpp:139] Memory required for data: 1160960
I0428 19:31:09.217123 22503 layer_factory.hpp:77] Creating layer ip3
I0428 19:31:09.217130 22503 net.cpp:86] Creating Layer ip3
I0428 19:31:09.217133 22503 net.cpp:408] ip3 <- ip2
I0428 19:31:09.217139 22503 net.cpp:382] ip3 -> ip3
I0428 19:31:09.217234 22503 net.cpp:124] Setting up ip3
I0428 19:31:09.217242 22503 net.cpp:131] Top shape: 64 10 (640)
I0428 19:31:09.217244 22503 net.cpp:139] Memory required for data: 1163520
I0428 19:31:09.217249 22503 layer_factory.hpp:77] Creating layer relu3
I0428 19:31:09.217255 22503 net.cpp:86] Creating Layer relu3
I0428 19:31:09.217258 22503 net.cpp:408] relu3 <- ip3
I0428 19:31:09.217263 22503 net.cpp:369] relu3 -> ip3 (in-place)
I0428 19:31:09.217406 22503 net.cpp:124] Setting up relu3
I0428 19:31:09.217414 22503 net.cpp:131] Top shape: 64 10 (640)
I0428 19:31:09.217417 22503 net.cpp:139] Memory required for data: 1166080
I0428 19:31:09.217420 22503 layer_factory.hpp:77] Creating layer loss
I0428 19:31:09.217427 22503 net.cpp:86] Creating Layer loss
I0428 19:31:09.217429 22503 net.cpp:408] loss <- ip3
I0428 19:31:09.217448 22503 net.cpp:408] loss <- label
I0428 19:31:09.217454 22503 net.cpp:382] loss -> loss
I0428 19:31:09.217474 22503 layer_factory.hpp:77] Creating layer loss
…
I0428 19:31:09.218228 22503 solver.cpp:173] Creating test net (#0) specified by net file: ECE595/mnist/train_test/var_everything2/lenet_train_test113.prototxt
I0428 19:31:09.218268 22503 net.cpp:296] The NetState phase (1) differed from the phase (0) specified by a rule in layer mnist
I0428 19:31:09.218345 22503 net.cpp:53] Initializing net from parameters: 
name: "LeNet"
state {
  phase: TEST
}
layer {
  name: "mnist"
  type: "Data"
  top: "data"
  top: "label"
  include {
    phase: TEST
  }
  transform_param {
    scale: 0.00390625
  }
  data_param {
    source: "examples/mnist/mnist_test_lmdb"
    batch_size: 100
    backend: LMDB
  }
}
layer {
  name: "conv0"
  type: "Convolution"
  bottom: "data"
  top: "conv0"
  param {
    lr_mult: 1
  }
  param {
    lr_mult: 2
  }
  convolution_param {
    num_output: 5
    kernel_size: 5
    stride: 1
    weight_filler {
      type: "xavier"
    }
    bias_filler {
      type: "constant"
    }
  }
}
layer {
  name: "pool0"
  type: "Pooling"
  bottom: "conv0"
  top: "pool0"
  pooling_param {
    pool: MAX
    kernel_size: 2
    stride: 2
  }
}
layer {
  name: "ip1"
  type: "InnerProduct"
  bottom: "pool0"
  top: "ip1"
  param {
    lr_mult: 1
  }
  param {
    lr_mult: 2
  }
  inner_product_param {
    num_output: 50
    weight_filler {
      type: "xavier"
    }
    bias_filler {
      type: "constant"
    }
  }
}
layer {
  name: "relu1"
  type: "ReLU"
  bottom: "ip1"
  top: "ip1"
}
layer {
  name: "ip2"
  type: "InnerProduct"
  bottom: "ip1"
  top: "ip2"
  param {
    lr_mult: 1
  }
  param {
    lr_mult: 2
  }
  inner_product_param {
    num_output: 25
    weight_filler {
      type: "xavier"
    }
    bias_filler {
      type: "constant"
    }
  }
}
layer {
  name: "relu2"
  type: "ReLU"
  bottom: "ip2"
  top: "ip2"
}
layer {
  name: "ip3"
  type: "InnerProduct"
  bottom: "ip2"
  top: "ip3"
  param {
    lr_mult: 1
  }
  param {
    lr_mult: 2
  }
  inner_product_param {
    num_output: 10
    weight_filler {
      type: "xavier"
    }
    bias_filler {
      type: "constant"
    }
  }
}
layer {
  name: "relu3"
  type: "ReLU"
  bottom: "ip3"
  top: "ip3"
}
layer {
  name: "accuracy"
  type: "Accuracy"
  bottom: "ip3"
  bottom: "label"
  top: "accuracy"
  include {
    phase: TEST
  }
}
layer {
  name: "loss"
  type: "SoftmaxWithLoss"
  bottom: "ip3"
  bottom: "label"
  top: "loss"
}
I0428 19:31:09.218405 22503 layer_factory.hpp:77] Creating layer mnist
I0428 19:31:09.218464 22503 db_lmdb.cpp:35] Opened lmdb examples/mnist/mnist_test_lmdb
I0428 19:31:09.218492 22503 net.cpp:86] Creating Layer mnist
I0428 19:31:09.218497 22503 net.cpp:382] mnist -> data
I0428 19:31:09.218503 22503 net.cpp:382] mnist -> label
I0428 19:31:09.218582 22503 data_layer.cpp:45] output data size: 100,1,28,28
I0428 19:31:09.220590 22503 net.cpp:124] Setting up mnist
I0428 19:31:09.220619 22503 net.cpp:131] Top shape: 100 1 28 28 (78400)
I0428 19:31:09.220625 22503 net.cpp:131] Top shape: 100 (100)
I0428 19:31:09.220628 22503 net.cpp:139] Memory required for data: 314000
I0428 19:31:09.220633 22503 layer_factory.hpp:77] Creating layer label_mnist_1_split
I0428 19:31:09.220650 22503 net.cpp:86] Creating Layer label_mnist_1_split
I0428 19:31:09.220654 22503 net.cpp:408] label_mnist_1_split <- label
I0428 19:31:09.220674 22503 net.cpp:382] label_mnist_1_split -> label_mnist_1_split_0
I0428 19:31:09.220681 22503 net.cpp:382] label_mnist_1_split -> label_mnist_1_split_1
I0428 19:31:09.220778 22503 net.cpp:124] Setting up label_mnist_1_split
I0428 19:31:09.220787 22503 net.cpp:131] Top shape: 100 (100)
I0428 19:31:09.220790 22503 net.cpp:131] Top shape: 100 (100)
I0428 19:31:09.220794 22503 net.cpp:139] Memory required for data: 314800
I0428 19:31:09.220806 22503 layer_factory.hpp:77] Creating layer conv0
I0428 19:31:09.220825 22503 net.cpp:86] Creating Layer conv0
I0428 19:31:09.220829 22503 net.cpp:408] conv0 <- data
I0428 19:31:09.220851 22503 net.cpp:382] conv0 -> conv0
I0428 19:31:09.222394 22503 net.cpp:124] Setting up conv0
I0428 19:31:09.222407 22503 net.cpp:131] Top shape: 100 5 24 24 (288000)
I0428 19:31:09.222411 22503 net.cpp:139] Memory required for data: 1466800
I0428 19:31:09.222420 22503 layer_factory.hpp:77] Creating layer pool0
I0428 19:31:09.222426 22503 net.cpp:86] Creating Layer pool0
I0428 19:31:09.222429 22503 net.cpp:408] pool0 <- conv0
I0428 19:31:09.222434 22503 net.cpp:382] pool0 -> pool0
I0428 19:31:09.222467 22503 net.cpp:124] Setting up pool0
I0428 19:31:09.222472 22503 net.cpp:131] Top shape: 100 5 12 12 (72000)
I0428 19:31:09.222474 22503 net.cpp:139] Memory required for data: 1754800
I0428 19:31:09.222477 22503 layer_factory.hpp:77] Creating layer ip1
I0428 19:31:09.222486 22503 net.cpp:86] Creating Layer ip1
I0428 19:31:09.222488 22503 net.cpp:408] ip1 <- pool0
I0428 19:31:09.222493 22503 net.cpp:382] ip1 -> ip1
I0428 19:31:09.222784 22503 net.cpp:124] Setting up ip1
I0428 19:31:09.222791 22503 net.cpp:131] Top shape: 100 50 (5000)
I0428 19:31:09.222795 22503 net.cpp:139] Memory required for data: 1774800
I0428 19:31:09.222802 22503 layer_factory.hpp:77] Creating layer relu1
I0428 19:31:09.222807 22503 net.cpp:86] Creating Layer relu1
I0428 19:31:09.222810 22503 net.cpp:408] relu1 <- ip1
I0428 19:31:09.222815 22503 net.cpp:369] relu1 -> ip1 (in-place)
I0428 19:31:09.223153 22503 net.cpp:124] Setting up relu1
I0428 19:31:09.223163 22503 net.cpp:131] Top shape: 100 50 (5000)
I0428 19:31:09.223166 22503 net.cpp:139] Memory required for data: 1794800
I0428 19:31:09.223170 22503 layer_factory.hpp:77] Creating layer ip2
I0428 19:31:09.223178 22503 net.cpp:86] Creating Layer ip2
I0428 19:31:09.223181 22503 net.cpp:408] ip2 <- ip1
I0428 19:31:09.223202 22503 net.cpp:382] ip2 -> ip2
I0428 19:31:09.223346 22503 net.cpp:124] Setting up ip2
I0428 19:31:09.223354 22503 net.cpp:131] Top shape: 100 25 (2500)
I0428 19:31:09.223358 22503 net.cpp:139] Memory required for data: 1804800
I0428 19:31:09.223366 22503 layer_factory.hpp:77] Creating layer relu2
I0428 19:31:09.223371 22503 net.cpp:86] Creating Layer relu2
I0428 19:31:09.223373 22503 net.cpp:408] relu2 <- ip2
I0428 19:31:09.223399 22503 net.cpp:369] relu2 -> ip2 (in-place)
I0428 19:31:09.224241 22503 net.cpp:124] Setting up relu2
I0428 19:31:09.224253 22503 net.cpp:131] Top shape: 100 25 (2500)
I0428 19:31:09.224257 22503 net.cpp:139] Memory required for data: 1814800
I0428 19:31:09.224261 22503 layer_factory.hpp:77] Creating layer ip3
I0428 19:31:09.224270 22503 net.cpp:86] Creating Layer ip3
I0428 19:31:09.224274 22503 net.cpp:408] ip3 <- ip2
I0428 19:31:09.224282 22503 net.cpp:382] ip3 -> ip3
I0428 19:31:09.224421 22503 net.cpp:124] Setting up ip3
I0428 19:31:09.224429 22503 net.cpp:131] Top shape: 100 10 (1000)
I0428 19:31:09.224432 22503 net.cpp:139] Memory required for data: 1818800
I0428 19:31:09.224438 22503 layer_factory.hpp:77] Creating layer relu3
I0428 19:31:09.224443 22503 net.cpp:86] Creating Layer relu3
I0428 19:31:09.224447 22503 net.cpp:408] relu3 <- ip3
I0428 19:31:09.224450 22503 net.cpp:369] relu3 -> ip3 (in-place)
I0428 19:31:09.224722 22503 net.cpp:124] Setting up relu3
I0428 19:31:09.224732 22503 net.cpp:131] Top shape: 100 10 (1000)
I0428 19:31:09.224742 22503 net.cpp:139] Memory required for data: 1822800
I0428 19:31:09.224745 22503 layer_factory.hpp:77] Creating layer ip3_relu3_0_split
I0428 19:31:09.224750 22503 net.cpp:86] Creating Layer ip3_relu3_0_split
I0428 19:31:09.224758 22503 net.cpp:408] ip3_relu3_0_split <- ip3
I0428 19:31:09.224764 22503 net.cpp:382] ip3_relu3_0_split -> ip3_relu3_0_split_0
I0428 19:31:09.224771 22503 net.cpp:382] ip3_relu3_0_split -> ip3_relu3_0_split_1
I0428 19:31:09.224819 22503 net.cpp:124] Setting up ip3_relu3_0_split
I0428 19:31:09.224825 22503 net.cpp:131] Top shape: 100 10 (1000)
I0428 19:31:09.224835 22503 net.cpp:131] Top shape: 100 10 (1000)
I0428 19:31:09.224864 22503 net.cpp:139] Memory required for data: 1830800
I0428 19:31:09.224867 22503 layer_factory.hpp:77] Creating layer accuracy
I0428 19:31:09.224875 22503 net.cpp:86] Creating Layer accuracy
I0428 19:31:09.224879 22503 net.cpp:408] accuracy <- ip3_relu3_0_split_0
I0428 19:31:09.224884 22503 net.cpp:408] accuracy <- label_mnist_1_split_0
I0428 19:31:09.224889 22503 net.cpp:382] accuracy -> accuracy
…
