…
I0428 20:22:53.692325  2145 net.cpp:296] The NetState phase (0) differed from the phase (1) specified by a rule in layer mnist
I0428 20:22:53.692342  2145 net.cpp:296] The NetState phase (0) differed from the phase (1) specified by a rule in layer accuracy
I0428 20:22:53.692428  2145 net.cpp:53] Initializing net from parameters: 
name: "LeNet"
state {
  phase: TRAIN
  level: 0
  stage: ""
}
layer {
  name: "mnist"
  type: "Data"
  top: "data"
  top: "label"
  include {
    phase: TRAIN
  }
  transform_param {
    scale: 0.00390625
  }
  data_param {
    source: "examples/mnist/mnist_train_lmdb"
    batch_size: 64
    backend: LMDB
  }
}
layer {
  name: "conv0"
  type: "Convolution"
  bottom: "data"
  top: "conv0"
  param {
    lr_mult: 1
  }
  param {
    lr_mult: 2
  }
  convolution_param {
    num_output: 50
    kernel_size: 5
    stride: 1
    weight_filler {
      type: "xavier"
    }
    bias_filler {
      type: "constant"
    }
  }
}
layer {
  name: "pool0"
  type: "Pooling"
  bottom: "conv0"
  top: "pool0"
  pooling_param {
    pool: MAX
    kernel_size: 2
    stride: 2
  }
}
layer {
  name: "conv1"
  type: "Convolution"
  bottom: "pool0"
  top: "conv1"
  param {
    lr_mult: 1
  }
  param {
    lr_mult: 2
  }
  convolution_param {
    num_output: 100
    kernel_size: 5
    stride: 1
    weight_filler {
      type: "xavier"
    }
    bias_filler {
      type: "constant"
    }
  }
}
layer {
  name: "pool1"
  type: "Pooling"
  bottom: "conv1"
  top: "pool1"
  pooling_param {
    pool: MAX
    kernel_size: 2
    stride: 2
  }
}
layer {
  name: "ip1"
  type: "InnerProduct"
  bottom: "pool1"
  top: "ip1"
  param {
    lr_mult: 1
  }
  param {
    lr_mult: 2
  }
  inner_product_param {
    num_output: 25
    weight_filler {
      type: "xavier"
    }
    bias_filler {
      type: "constant"
    }
  }
}
layer {
  name: "relu1"
  type: "ReLU"
  bottom: "ip1"
  top: "ip1"
}
layer {
  name: "ip2"
  type: "InnerProduct"
  bottom: "ip1"
  top: "ip2"
  param {
    lr_mult: 1
  }
  param {
    lr_mult: 2
  }
  inner_product_param {
    num_output: 10
    weight_filler {
      type: "xavier"
    }
    bias_filler {
      type: "constant"
    }
  }
}
layer {
  name: "relu2"
  type: "ReLU"
  bottom: "ip2"
  top: "ip2"
}
layer {
  name: "loss"
  type: "SoftmaxWithLoss"
  bottom: "ip2"
  bottom: "label"
  top: "loss"
}
I0428 20:22:53.692497  2145 layer_factory.hpp:77] Creating layer mnist
I0428 20:22:53.692595  2145 db_lmdb.cpp:35] Opened lmdb examples/mnist/mnist_train_lmdb
I0428 20:22:53.692618  2145 net.cpp:86] Creating Layer mnist
I0428 20:22:53.692626  2145 net.cpp:382] mnist -> data
I0428 20:22:53.692649  2145 net.cpp:382] mnist -> label
I0428 20:22:53.693789  2145 data_layer.cpp:45] output data size: 64,1,28,28
I0428 20:22:53.696269  2145 net.cpp:124] Setting up mnist
I0428 20:22:53.696286  2145 net.cpp:131] Top shape: 64 1 28 28 (50176)
I0428 20:22:53.696292  2145 net.cpp:131] Top shape: 64 (64)
I0428 20:22:53.696296  2145 net.cpp:139] Memory required for data: 200960
I0428 20:22:53.696305  2145 layer_factory.hpp:77] Creating layer conv0
I0428 20:22:53.696319  2145 net.cpp:86] Creating Layer conv0
I0428 20:22:53.696326  2145 net.cpp:408] conv0 <- data
I0428 20:22:53.696336  2145 net.cpp:382] conv0 -> conv0
I0428 20:22:53.942522  2145 net.cpp:124] Setting up conv0
I0428 20:22:53.942562  2145 net.cpp:131] Top shape: 64 50 24 24 (1843200)
I0428 20:22:53.942566  2145 net.cpp:139] Memory required for data: 7573760
I0428 20:22:53.942598  2145 layer_factory.hpp:77] Creating layer pool0
I0428 20:22:53.942625  2145 net.cpp:86] Creating Layer pool0
I0428 20:22:53.942631  2145 net.cpp:408] pool0 <- conv0
I0428 20:22:53.942636  2145 net.cpp:382] pool0 -> pool0
I0428 20:22:53.942682  2145 net.cpp:124] Setting up pool0
I0428 20:22:53.942689  2145 net.cpp:131] Top shape: 64 50 12 12 (460800)
I0428 20:22:53.942692  2145 net.cpp:139] Memory required for data: 9416960
I0428 20:22:53.942697  2145 layer_factory.hpp:77] Creating layer conv1
I0428 20:22:53.942706  2145 net.cpp:86] Creating Layer conv1
I0428 20:22:53.942709  2145 net.cpp:408] conv1 <- pool0
I0428 20:22:53.942714  2145 net.cpp:382] conv1 -> conv1
I0428 20:22:53.946310  2145 net.cpp:124] Setting up conv1
I0428 20:22:53.946339  2145 net.cpp:131] Top shape: 64 100 8 8 (409600)
I0428 20:22:53.946342  2145 net.cpp:139] Memory required for data: 11055360
I0428 20:22:53.946352  2145 layer_factory.hpp:77] Creating layer pool1
I0428 20:22:53.946358  2145 net.cpp:86] Creating Layer pool1
I0428 20:22:53.946362  2145 net.cpp:408] pool1 <- conv1
I0428 20:22:53.946367  2145 net.cpp:382] pool1 -> pool1
I0428 20:22:53.946415  2145 net.cpp:124] Setting up pool1
I0428 20:22:53.946421  2145 net.cpp:131] Top shape: 64 100 4 4 (102400)
I0428 20:22:53.946424  2145 net.cpp:139] Memory required for data: 11464960
I0428 20:22:53.946427  2145 layer_factory.hpp:77] Creating layer ip1
I0428 20:22:53.946434  2145 net.cpp:86] Creating Layer ip1
I0428 20:22:53.946437  2145 net.cpp:408] ip1 <- pool1
I0428 20:22:53.946441  2145 net.cpp:382] ip1 -> ip1
I0428 20:22:53.946790  2145 net.cpp:124] Setting up ip1
I0428 20:22:53.946797  2145 net.cpp:131] Top shape: 64 25 (1600)
I0428 20:22:53.946815  2145 net.cpp:139] Memory required for data: 11471360
I0428 20:22:53.946823  2145 layer_factory.hpp:77] Creating layer relu1
I0428 20:22:53.946828  2145 net.cpp:86] Creating Layer relu1
I0428 20:22:53.946833  2145 net.cpp:408] relu1 <- ip1
I0428 20:22:53.946852  2145 net.cpp:369] relu1 -> ip1 (in-place)
I0428 20:22:53.947018  2145 net.cpp:124] Setting up relu1
I0428 20:22:53.947027  2145 net.cpp:131] Top shape: 64 25 (1600)
I0428 20:22:53.947031  2145 net.cpp:139] Memory required for data: 11477760
I0428 20:22:53.947033  2145 layer_factory.hpp:77] Creating layer ip2
I0428 20:22:53.947041  2145 net.cpp:86] Creating Layer ip2
I0428 20:22:53.947043  2145 net.cpp:408] ip2 <- ip1
I0428 20:22:53.947048  2145 net.cpp:382] ip2 -> ip2
I0428 20:22:53.947139  2145 net.cpp:124] Setting up ip2
I0428 20:22:53.947145  2145 net.cpp:131] Top shape: 64 10 (640)
I0428 20:22:53.947149  2145 net.cpp:139] Memory required for data: 11480320
I0428 20:22:53.947154  2145 layer_factory.hpp:77] Creating layer relu2
I0428 20:22:53.947160  2145 net.cpp:86] Creating Layer relu2
I0428 20:22:53.947163  2145 net.cpp:408] relu2 <- ip2
I0428 20:22:53.947167  2145 net.cpp:369] relu2 -> ip2 (in-place)
I0428 20:22:53.947988  2145 net.cpp:124] Setting up relu2
I0428 20:22:53.947999  2145 net.cpp:131] Top shape: 64 10 (640)
I0428 20:22:53.948019  2145 net.cpp:139] Memory required for data: 11482880
I0428 20:22:53.948021  2145 layer_factory.hpp:77] Creating layer loss
I0428 20:22:53.948027  2145 net.cpp:86] Creating Layer loss
I0428 20:22:53.948032  2145 net.cpp:408] loss <- ip2
I0428 20:22:53.948036  2145 net.cpp:408] loss <- label
I0428 20:22:53.948043  2145 net.cpp:382] loss -> loss
I0428 20:22:53.948057  2145 layer_factory.hpp:77] Creating layer loss
…
I0428 20:22:53.948704  2145 solver.cpp:173] Creating test net (#0) specified by net file: ECE595/mnist/train_test/var_everything2/lenet_train_test1412.prototxt
I0428 20:22:53.948745  2145 net.cpp:296] The NetState phase (1) differed from the phase (0) specified by a rule in layer mnist
I0428 20:22:53.948858  2145 net.cpp:53] Initializing net from parameters: 
name: "LeNet"
state {
  phase: TEST
}
layer {
  name: "mnist"
  type: "Data"
  top: "data"
  top: "label"
  include {
    phase: TEST
  }
  transform_param {
    scale: 0.00390625
  }
  data_param {
    source: "examples/mnist/mnist_test_lmdb"
    batch_size: 100
    backend: LMDB
  }
}
layer {
  name: "conv0"
  type: "Convolution"
  bottom: "data"
  top: "conv0"
  param {
    lr_mult: 1
  }
  param {
    lr_mult: 2
  }
  convolution_param {
    num_output: 50
    kernel_size: 5
    stride: 1
    weight_filler {
      type: "xavier"
    }
    bias_filler {
      type: "constant"
    }
  }
}
layer {
  name: "pool0"
  type: "Pooling"
  bottom: "conv0"
  top: "pool0"
  pooling_param {
    pool: MAX
    kernel_size: 2
    stride: 2
  }
}
layer {
  name: "conv1"
  type: "Convolution"
  bottom: "pool0"
  top: "conv1"
  param {
    lr_mult: 1
  }
  param {
    lr_mult: 2
  }
  convolution_param {
    num_output: 100
    kernel_size: 5
    stride: 1
    weight_filler {
      type: "xavier"
    }
    bias_filler {
      type: "constant"
    }
  }
}
layer {
  name: "pool1"
  type: "Pooling"
  bottom: "conv1"
  top: "pool1"
  pooling_param {
    pool: MAX
    kernel_size: 2
    stride: 2
  }
}
layer {
  name: "ip1"
  type: "InnerProduct"
  bottom: "pool1"
  top: "ip1"
  param {
    lr_mult: 1
  }
  param {
    lr_mult: 2
  }
  inner_product_param {
    num_output: 25
    weight_filler {
      type: "xavier"
    }
    bias_filler {
      type: "constant"
    }
  }
}
layer {
  name: "relu1"
  type: "ReLU"
  bottom: "ip1"
  top: "ip1"
}
layer {
  name: "ip2"
  type: "InnerProduct"
  bottom: "ip1"
  top: "ip2"
  param {
    lr_mult: 1
  }
  param {
    lr_mult: 2
  }
  inner_product_param {
    num_output: 10
    weight_filler {
      type: "xavier"
    }
    bias_filler {
      type: "constant"
    }
  }
}
layer {
  name: "relu2"
  type: "ReLU"
  bottom: "ip2"
  top: "ip2"
}
layer {
  name: "accuracy"
  type: "Accuracy"
  bottom: "ip2"
  bottom: "label"
  top: "accuracy"
  include {
    phase: TEST
  }
}
layer {
  name: "loss"
  type: "SoftmaxWithLoss"
  bottom: "ip2"
  bottom: "label"
  top: "loss"
}
I0428 20:22:53.948930  2145 layer_factory.hpp:77] Creating layer mnist
I0428 20:22:53.948978  2145 db_lmdb.cpp:35] Opened lmdb examples/mnist/mnist_test_lmdb
I0428 20:22:53.948992  2145 net.cpp:86] Creating Layer mnist
I0428 20:22:53.948997  2145 net.cpp:382] mnist -> data
I0428 20:22:53.949004  2145 net.cpp:382] mnist -> label
I0428 20:22:53.949108  2145 data_layer.cpp:45] output data size: 100,1,28,28
I0428 20:22:53.950484  2145 net.cpp:124] Setting up mnist
I0428 20:22:53.950512  2145 net.cpp:131] Top shape: 100 1 28 28 (78400)
I0428 20:22:53.950517  2145 net.cpp:131] Top shape: 100 (100)
I0428 20:22:53.950520  2145 net.cpp:139] Memory required for data: 314000
I0428 20:22:53.950523  2145 layer_factory.hpp:77] Creating layer label_mnist_1_split
I0428 20:22:53.950559  2145 net.cpp:86] Creating Layer label_mnist_1_split
I0428 20:22:53.950563  2145 net.cpp:408] label_mnist_1_split <- label
I0428 20:22:53.950574  2145 net.cpp:382] label_mnist_1_split -> label_mnist_1_split_0
I0428 20:22:53.950582  2145 net.cpp:382] label_mnist_1_split -> label_mnist_1_split_1
I0428 20:22:53.950697  2145 net.cpp:124] Setting up label_mnist_1_split
I0428 20:22:53.950706  2145 net.cpp:131] Top shape: 100 (100)
I0428 20:22:53.950709  2145 net.cpp:131] Top shape: 100 (100)
I0428 20:22:53.950712  2145 net.cpp:139] Memory required for data: 314800
I0428 20:22:53.950716  2145 layer_factory.hpp:77] Creating layer conv0
I0428 20:22:53.950726  2145 net.cpp:86] Creating Layer conv0
I0428 20:22:53.950729  2145 net.cpp:408] conv0 <- data
I0428 20:22:53.950736  2145 net.cpp:382] conv0 -> conv0
I0428 20:22:53.952631  2145 net.cpp:124] Setting up conv0
I0428 20:22:53.952646  2145 net.cpp:131] Top shape: 100 50 24 24 (2880000)
I0428 20:22:53.952649  2145 net.cpp:139] Memory required for data: 11834800
I0428 20:22:53.952658  2145 layer_factory.hpp:77] Creating layer pool0
I0428 20:22:53.952680  2145 net.cpp:86] Creating Layer pool0
I0428 20:22:53.952685  2145 net.cpp:408] pool0 <- conv0
I0428 20:22:53.952692  2145 net.cpp:382] pool0 -> pool0
I0428 20:22:53.952728  2145 net.cpp:124] Setting up pool0
I0428 20:22:53.952733  2145 net.cpp:131] Top shape: 100 50 12 12 (720000)
I0428 20:22:53.952735  2145 net.cpp:139] Memory required for data: 14714800
I0428 20:22:53.952739  2145 layer_factory.hpp:77] Creating layer conv1
I0428 20:22:53.952749  2145 net.cpp:86] Creating Layer conv1
I0428 20:22:53.952754  2145 net.cpp:408] conv1 <- pool0
I0428 20:22:53.952759  2145 net.cpp:382] conv1 -> conv1
I0428 20:22:53.956006  2145 net.cpp:124] Setting up conv1
I0428 20:22:53.956019  2145 net.cpp:131] Top shape: 100 100 8 8 (640000)
I0428 20:22:53.956022  2145 net.cpp:139] Memory required for data: 17274800
I0428 20:22:53.956030  2145 layer_factory.hpp:77] Creating layer pool1
I0428 20:22:53.956038  2145 net.cpp:86] Creating Layer pool1
I0428 20:22:53.956060  2145 net.cpp:408] pool1 <- conv1
I0428 20:22:53.956070  2145 net.cpp:382] pool1 -> pool1
I0428 20:22:53.956107  2145 net.cpp:124] Setting up pool1
I0428 20:22:53.956112  2145 net.cpp:131] Top shape: 100 100 4 4 (160000)
I0428 20:22:53.956115  2145 net.cpp:139] Memory required for data: 17914800
I0428 20:22:53.956123  2145 layer_factory.hpp:77] Creating layer ip1
I0428 20:22:53.956130  2145 net.cpp:86] Creating Layer ip1
I0428 20:22:53.956138  2145 net.cpp:408] ip1 <- pool1
I0428 20:22:53.956143  2145 net.cpp:382] ip1 -> ip1
I0428 20:22:53.956506  2145 net.cpp:124] Setting up ip1
I0428 20:22:53.956516  2145 net.cpp:131] Top shape: 100 25 (2500)
I0428 20:22:53.956518  2145 net.cpp:139] Memory required for data: 17924800
I0428 20:22:53.956526  2145 layer_factory.hpp:77] Creating layer relu1
I0428 20:22:53.956532  2145 net.cpp:86] Creating Layer relu1
I0428 20:22:53.956542  2145 net.cpp:408] relu1 <- ip1
I0428 20:22:53.956547  2145 net.cpp:369] relu1 -> ip1 (in-place)
I0428 20:22:53.956724  2145 net.cpp:124] Setting up relu1
I0428 20:22:53.956733  2145 net.cpp:131] Top shape: 100 25 (2500)
I0428 20:22:53.956737  2145 net.cpp:139] Memory required for data: 17934800
I0428 20:22:53.956739  2145 layer_factory.hpp:77] Creating layer ip2
I0428 20:22:53.956748  2145 net.cpp:86] Creating Layer ip2
I0428 20:22:53.956751  2145 net.cpp:408] ip2 <- ip1
I0428 20:22:53.956758  2145 net.cpp:382] ip2 -> ip2
I0428 20:22:53.956909  2145 net.cpp:124] Setting up ip2
I0428 20:22:53.956918  2145 net.cpp:131] Top shape: 100 10 (1000)
I0428 20:22:53.956923  2145 net.cpp:139] Memory required for data: 17938800
I0428 20:22:53.956928  2145 layer_factory.hpp:77] Creating layer relu2
I0428 20:22:53.956933  2145 net.cpp:86] Creating Layer relu2
I0428 20:22:53.956936  2145 net.cpp:408] relu2 <- ip2
I0428 20:22:53.956941  2145 net.cpp:369] relu2 -> ip2 (in-place)
I0428 20:22:53.957135  2145 net.cpp:124] Setting up relu2
I0428 20:22:53.957144  2145 net.cpp:131] Top shape: 100 10 (1000)
I0428 20:22:53.957149  2145 net.cpp:139] Memory required for data: 17942800
I0428 20:22:53.957154  2145 layer_factory.hpp:77] Creating layer ip2_relu2_0_split
I0428 20:22:53.957159  2145 net.cpp:86] Creating Layer ip2_relu2_0_split
I0428 20:22:53.957161  2145 net.cpp:408] ip2_relu2_0_split <- ip2
I0428 20:22:53.957165  2145 net.cpp:382] ip2_relu2_0_split -> ip2_relu2_0_split_0
I0428 20:22:53.957182  2145 net.cpp:382] ip2_relu2_0_split -> ip2_relu2_0_split_1
I0428 20:22:53.957226  2145 net.cpp:124] Setting up ip2_relu2_0_split
I0428 20:22:53.957232  2145 net.cpp:131] Top shape: 100 10 (1000)
I0428 20:22:53.957237  2145 net.cpp:131] Top shape: 100 10 (1000)
I0428 20:22:53.957239  2145 net.cpp:139] Memory required for data: 17950800
I0428 20:22:53.957242  2145 layer_factory.hpp:77] Creating layer accuracy
I0428 20:22:53.957247  2145 net.cpp:86] Creating Layer accuracy
I0428 20:22:53.957252  2145 net.cpp:408] accuracy <- ip2_relu2_0_split_0
I0428 20:22:53.957255  2145 net.cpp:408] accuracy <- label_mnist_1_split_0
I0428 20:22:53.957262  2145 net.cpp:382] accuracy -> accuracy
…
