…
I0428 19:48:01.444422 26380 net.cpp:296] The NetState phase (0) differed from the phase (1) specified by a rule in layer mnist
I0428 19:48:01.444445 26380 net.cpp:296] The NetState phase (0) differed from the phase (1) specified by a rule in layer accuracy
I0428 19:48:01.444557 26380 net.cpp:53] Initializing net from parameters: 
name: "LeNet"
state {
  phase: TRAIN
  level: 0
  stage: ""
}
layer {
  name: "mnist"
  type: "Data"
  top: "data"
  top: "label"
  include {
    phase: TRAIN
  }
  transform_param {
    scale: 0.00390625
  }
  data_param {
    source: "examples/mnist/mnist_train_lmdb"
    batch_size: 64
    backend: LMDB
  }
}
layer {
  name: "conv0"
  type: "Convolution"
  bottom: "data"
  top: "conv0"
  param {
    lr_mult: 1
  }
  param {
    lr_mult: 2
  }
  convolution_param {
    num_output: 5
    kernel_size: 5
    stride: 1
    weight_filler {
      type: "xavier"
    }
    bias_filler {
      type: "constant"
    }
  }
}
layer {
  name: "pool0"
  type: "Pooling"
  bottom: "conv0"
  top: "pool0"
  pooling_param {
    pool: MAX
    kernel_size: 2
    stride: 2
  }
}
layer {
  name: "conv1"
  type: "Convolution"
  bottom: "pool0"
  top: "conv1"
  param {
    lr_mult: 1
  }
  param {
    lr_mult: 2
  }
  convolution_param {
    num_output: 2
    kernel_size: 5
    stride: 1
    weight_filler {
      type: "xavier"
    }
    bias_filler {
      type: "constant"
    }
  }
}
layer {
  name: "pool1"
  type: "Pooling"
  bottom: "conv1"
  top: "pool1"
  pooling_param {
    pool: MAX
    kernel_size: 2
    stride: 2
  }
}
layer {
  name: "ip1"
  type: "InnerProduct"
  bottom: "pool1"
  top: "ip1"
  param {
    lr_mult: 1
  }
  param {
    lr_mult: 2
  }
  inner_product_param {
    num_output: 25
    weight_filler {
      type: "xavier"
    }
    bias_filler {
      type: "constant"
    }
  }
}
layer {
  name: "relu1"
  type: "ReLU"
  bottom: "ip1"
  top: "ip1"
}
layer {
  name: "ip2"
  type: "InnerProduct"
  bottom: "ip1"
  top: "ip2"
  param {
    lr_mult: 1
  }
  param {
    lr_mult: 2
  }
  inner_product_param {
    num_output: 25
    weight_filler {
      type: "xavier"
    }
    bias_filler {
      type: "constant"
    }
  }
}
layer {
  name: "relu2"
  type: "ReLU"
  bottom: "ip2"
  top: "ip2"
}
layer {
  name: "ip3"
  type: "InnerProduct"
  bottom: "ip2"
  top: "ip3"
  param {
    lr_mult: 1
  }
  param {
    lr_mult: 2
  }
  inner_product_param {
    num_output: 10
    weight_filler {
      type: "xavier"
    }
    bias_filler {
      type: "constant"
    }
  }
}
layer {
  name: "relu3"
  type: "ReLU"
  bottom: "ip3"
  top: "ip3"
}
layer {
  name: "loss"
  type: "SoftmaxWithLoss"
  bottom: "ip3"
  bottom: "label"
  top: "loss"
}
I0428 19:48:01.444664 26380 layer_factory.hpp:77] Creating layer mnist
I0428 19:48:01.444802 26380 db_lmdb.cpp:35] Opened lmdb examples/mnist/mnist_train_lmdb
I0428 19:48:01.444842 26380 net.cpp:86] Creating Layer mnist
I0428 19:48:01.444856 26380 net.cpp:382] mnist -> data
I0428 19:48:01.444887 26380 net.cpp:382] mnist -> label
I0428 19:48:01.446162 26380 data_layer.cpp:45] output data size: 64,1,28,28
I0428 19:48:01.448619 26380 net.cpp:124] Setting up mnist
I0428 19:48:01.448639 26380 net.cpp:131] Top shape: 64 1 28 28 (50176)
I0428 19:48:01.448649 26380 net.cpp:131] Top shape: 64 (64)
I0428 19:48:01.448657 26380 net.cpp:139] Memory required for data: 200960
I0428 19:48:01.448668 26380 layer_factory.hpp:77] Creating layer conv0
I0428 19:48:01.448690 26380 net.cpp:86] Creating Layer conv0
I0428 19:48:01.448715 26380 net.cpp:408] conv0 <- data
I0428 19:48:01.448734 26380 net.cpp:382] conv0 -> conv0
I0428 19:48:01.741804 26380 net.cpp:124] Setting up conv0
I0428 19:48:01.741837 26380 net.cpp:131] Top shape: 64 5 24 24 (184320)
I0428 19:48:01.741842 26380 net.cpp:139] Memory required for data: 938240
I0428 19:48:01.741865 26380 layer_factory.hpp:77] Creating layer pool0
I0428 19:48:01.741884 26380 net.cpp:86] Creating Layer pool0
I0428 19:48:01.741902 26380 net.cpp:408] pool0 <- conv0
I0428 19:48:01.741912 26380 net.cpp:382] pool0 -> pool0
I0428 19:48:01.741976 26380 net.cpp:124] Setting up pool0
I0428 19:48:01.741986 26380 net.cpp:131] Top shape: 64 5 12 12 (46080)
I0428 19:48:01.741991 26380 net.cpp:139] Memory required for data: 1122560
I0428 19:48:01.741998 26380 layer_factory.hpp:77] Creating layer conv1
I0428 19:48:01.742017 26380 net.cpp:86] Creating Layer conv1
I0428 19:48:01.742024 26380 net.cpp:408] conv1 <- pool0
I0428 19:48:01.742034 26380 net.cpp:382] conv1 -> conv1
I0428 19:48:01.744114 26380 net.cpp:124] Setting up conv1
I0428 19:48:01.744133 26380 net.cpp:131] Top shape: 64 2 8 8 (8192)
I0428 19:48:01.744140 26380 net.cpp:139] Memory required for data: 1155328
I0428 19:48:01.744155 26380 layer_factory.hpp:77] Creating layer pool1
I0428 19:48:01.744169 26380 net.cpp:86] Creating Layer pool1
I0428 19:48:01.744176 26380 net.cpp:408] pool1 <- conv1
I0428 19:48:01.744186 26380 net.cpp:382] pool1 -> pool1
I0428 19:48:01.744237 26380 net.cpp:124] Setting up pool1
I0428 19:48:01.744248 26380 net.cpp:131] Top shape: 64 2 4 4 (2048)
I0428 19:48:01.744254 26380 net.cpp:139] Memory required for data: 1163520
I0428 19:48:01.744261 26380 layer_factory.hpp:77] Creating layer ip1
I0428 19:48:01.744273 26380 net.cpp:86] Creating Layer ip1
I0428 19:48:01.744280 26380 net.cpp:408] ip1 <- pool1
I0428 19:48:01.744290 26380 net.cpp:382] ip1 -> ip1
I0428 19:48:01.744423 26380 net.cpp:124] Setting up ip1
I0428 19:48:01.744434 26380 net.cpp:131] Top shape: 64 25 (1600)
I0428 19:48:01.744441 26380 net.cpp:139] Memory required for data: 1169920
I0428 19:48:01.744454 26380 layer_factory.hpp:77] Creating layer relu1
I0428 19:48:01.744468 26380 net.cpp:86] Creating Layer relu1
I0428 19:48:01.744478 26380 net.cpp:408] relu1 <- ip1
I0428 19:48:01.744488 26380 net.cpp:369] relu1 -> ip1 (in-place)
I0428 19:48:01.744683 26380 net.cpp:124] Setting up relu1
I0428 19:48:01.744695 26380 net.cpp:131] Top shape: 64 25 (1600)
I0428 19:48:01.744701 26380 net.cpp:139] Memory required for data: 1176320
I0428 19:48:01.744707 26380 layer_factory.hpp:77] Creating layer ip2
I0428 19:48:01.744719 26380 net.cpp:86] Creating Layer ip2
I0428 19:48:01.744726 26380 net.cpp:408] ip2 <- ip1
I0428 19:48:01.744736 26380 net.cpp:382] ip2 -> ip2
I0428 19:48:01.744864 26380 net.cpp:124] Setting up ip2
I0428 19:48:01.744875 26380 net.cpp:131] Top shape: 64 25 (1600)
I0428 19:48:01.744881 26380 net.cpp:139] Memory required for data: 1182720
I0428 19:48:01.744891 26380 layer_factory.hpp:77] Creating layer relu2
I0428 19:48:01.744902 26380 net.cpp:86] Creating Layer relu2
I0428 19:48:01.744910 26380 net.cpp:408] relu2 <- ip2
I0428 19:48:01.744917 26380 net.cpp:369] relu2 -> ip2 (in-place)
I0428 19:48:01.745745 26380 net.cpp:124] Setting up relu2
I0428 19:48:01.745761 26380 net.cpp:131] Top shape: 64 25 (1600)
I0428 19:48:01.745769 26380 net.cpp:139] Memory required for data: 1189120
I0428 19:48:01.745774 26380 layer_factory.hpp:77] Creating layer ip3
I0428 19:48:01.745787 26380 net.cpp:86] Creating Layer ip3
I0428 19:48:01.745793 26380 net.cpp:408] ip3 <- ip2
I0428 19:48:01.745805 26380 net.cpp:382] ip3 -> ip3
I0428 19:48:01.745929 26380 net.cpp:124] Setting up ip3
I0428 19:48:01.745940 26380 net.cpp:131] Top shape: 64 10 (640)
I0428 19:48:01.745946 26380 net.cpp:139] Memory required for data: 1191680
I0428 19:48:01.745961 26380 layer_factory.hpp:77] Creating layer relu3
I0428 19:48:01.745972 26380 net.cpp:86] Creating Layer relu3
I0428 19:48:01.745980 26380 net.cpp:408] relu3 <- ip3
I0428 19:48:01.745987 26380 net.cpp:369] relu3 -> ip3 (in-place)
I0428 19:48:01.746184 26380 net.cpp:124] Setting up relu3
I0428 19:48:01.746196 26380 net.cpp:131] Top shape: 64 10 (640)
I0428 19:48:01.746202 26380 net.cpp:139] Memory required for data: 1194240
I0428 19:48:01.746208 26380 layer_factory.hpp:77] Creating layer loss
I0428 19:48:01.746219 26380 net.cpp:86] Creating Layer loss
I0428 19:48:01.746225 26380 net.cpp:408] loss <- ip3
I0428 19:48:01.746233 26380 net.cpp:408] loss <- label
I0428 19:48:01.746243 26380 net.cpp:382] loss -> loss
I0428 19:48:01.746269 26380 layer_factory.hpp:77] Creating layer loss
…
I0428 19:48:01.747053 26380 solver.cpp:173] Creating test net (#0) specified by net file: ECE595/mnist/train_test/var_everything2/lenet_train_test532.prototxt
I0428 19:48:01.747093 26380 net.cpp:296] The NetState phase (1) differed from the phase (0) specified by a rule in layer mnist
I0428 19:48:01.747206 26380 net.cpp:53] Initializing net from parameters: 
name: "LeNet"
state {
  phase: TEST
}
layer {
  name: "mnist"
  type: "Data"
  top: "data"
  top: "label"
  include {
    phase: TEST
  }
  transform_param {
    scale: 0.00390625
  }
  data_param {
    source: "examples/mnist/mnist_test_lmdb"
    batch_size: 100
    backend: LMDB
  }
}
layer {
  name: "conv0"
  type: "Convolution"
  bottom: "data"
  top: "conv0"
  param {
    lr_mult: 1
  }
  param {
    lr_mult: 2
  }
  convolution_param {
    num_output: 5
    kernel_size: 5
    stride: 1
    weight_filler {
      type: "xavier"
    }
    bias_filler {
      type: "constant"
    }
  }
}
layer {
  name: "pool0"
  type: "Pooling"
  bottom: "conv0"
  top: "pool0"
  pooling_param {
    pool: MAX
    kernel_size: 2
    stride: 2
  }
}
layer {
  name: "conv1"
  type: "Convolution"
  bottom: "pool0"
  top: "conv1"
  param {
    lr_mult: 1
  }
  param {
    lr_mult: 2
  }
  convolution_param {
    num_output: 2
    kernel_size: 5
    stride: 1
    weight_filler {
      type: "xavier"
    }
    bias_filler {
      type: "constant"
    }
  }
}
layer {
  name: "pool1"
  type: "Pooling"
  bottom: "conv1"
  top: "pool1"
  pooling_param {
    pool: MAX
    kernel_size: 2
    stride: 2
  }
}
layer {
  name: "ip1"
  type: "InnerProduct"
  bottom: "pool1"
  top: "ip1"
  param {
    lr_mult: 1
  }
  param {
    lr_mult: 2
  }
  inner_product_param {
    num_output: 25
    weight_filler {
      type: "xavier"
    }
    bias_filler {
      type: "constant"
    }
  }
}
layer {
  name: "relu1"
  type: "ReLU"
  bottom: "ip1"
  top: "ip1"
}
layer {
  name: "ip2"
  type: "InnerProduct"
  bottom: "ip1"
  top: "ip2"
  param {
    lr_mult: 1
  }
  param {
    lr_mult: 2
  }
  inner_product_param {
    num_output: 25
    weight_filler {
      type: "xavier"
    }
    bias_filler {
      type: "constant"
    }
  }
}
layer {
  name: "relu2"
  type: "ReLU"
  bottom: "ip2"
  top: "ip2"
}
layer {
  name: "ip3"
  type: "InnerProduct"
  bottom: "ip2"
  top: "ip3"
  param {
    lr_mult: 1
  }
  param {
    lr_mult: 2
  }
  inner_product_param {
    num_output: 10
    weight_filler {
      type: "xavier"
    }
    bias_filler {
      type: "constant"
    }
  }
}
layer {
  name: "relu3"
  type: "ReLU"
  bottom: "ip3"
  top: "ip3"
}
layer {
  name: "accuracy"
  type: "Accuracy"
  bottom: "ip3"
  bottom: "label"
  top: "accuracy"
  include {
    phase: TEST
  }
}
layer {
  name: "loss"
  type: "SoftmaxWithLoss"
  bottom: "ip3"
  bottom: "label"
  top: "loss"
}
I0428 19:48:01.747340 26380 layer_factory.hpp:77] Creating layer mnist
I0428 19:48:01.747406 26380 db_lmdb.cpp:35] Opened lmdb examples/mnist/mnist_test_lmdb
I0428 19:48:01.747426 26380 net.cpp:86] Creating Layer mnist
I0428 19:48:01.747436 26380 net.cpp:382] mnist -> data
I0428 19:48:01.747449 26380 net.cpp:382] mnist -> label
I0428 19:48:01.747587 26380 data_layer.cpp:45] output data size: 100,1,28,28
I0428 19:48:01.750129 26380 net.cpp:124] Setting up mnist
I0428 19:48:01.750147 26380 net.cpp:131] Top shape: 100 1 28 28 (78400)
I0428 19:48:01.750157 26380 net.cpp:131] Top shape: 100 (100)
I0428 19:48:01.750164 26380 net.cpp:139] Memory required for data: 314000
I0428 19:48:01.750170 26380 layer_factory.hpp:77] Creating layer label_mnist_1_split
I0428 19:48:01.750205 26380 net.cpp:86] Creating Layer label_mnist_1_split
I0428 19:48:01.750211 26380 net.cpp:408] label_mnist_1_split <- label
I0428 19:48:01.750221 26380 net.cpp:382] label_mnist_1_split -> label_mnist_1_split_0
I0428 19:48:01.750234 26380 net.cpp:382] label_mnist_1_split -> label_mnist_1_split_1
I0428 19:48:01.750329 26380 net.cpp:124] Setting up label_mnist_1_split
I0428 19:48:01.750339 26380 net.cpp:131] Top shape: 100 (100)
I0428 19:48:01.750346 26380 net.cpp:131] Top shape: 100 (100)
I0428 19:48:01.750352 26380 net.cpp:139] Memory required for data: 314800
I0428 19:48:01.750358 26380 layer_factory.hpp:77] Creating layer conv0
I0428 19:48:01.750375 26380 net.cpp:86] Creating Layer conv0
I0428 19:48:01.750383 26380 net.cpp:408] conv0 <- data
I0428 19:48:01.750393 26380 net.cpp:382] conv0 -> conv0
I0428 19:48:01.752102 26380 net.cpp:124] Setting up conv0
I0428 19:48:01.752121 26380 net.cpp:131] Top shape: 100 5 24 24 (288000)
I0428 19:48:01.752128 26380 net.cpp:139] Memory required for data: 1466800
I0428 19:48:01.752144 26380 layer_factory.hpp:77] Creating layer pool0
I0428 19:48:01.752156 26380 net.cpp:86] Creating Layer pool0
I0428 19:48:01.752162 26380 net.cpp:408] pool0 <- conv0
I0428 19:48:01.752173 26380 net.cpp:382] pool0 -> pool0
I0428 19:48:01.752224 26380 net.cpp:124] Setting up pool0
I0428 19:48:01.752234 26380 net.cpp:131] Top shape: 100 5 12 12 (72000)
I0428 19:48:01.752240 26380 net.cpp:139] Memory required for data: 1754800
I0428 19:48:01.752246 26380 layer_factory.hpp:77] Creating layer conv1
I0428 19:48:01.752261 26380 net.cpp:86] Creating Layer conv1
I0428 19:48:01.752269 26380 net.cpp:408] conv1 <- pool0
I0428 19:48:01.752279 26380 net.cpp:382] conv1 -> conv1
I0428 19:48:01.754528 26380 net.cpp:124] Setting up conv1
I0428 19:48:01.754547 26380 net.cpp:131] Top shape: 100 2 8 8 (12800)
I0428 19:48:01.754555 26380 net.cpp:139] Memory required for data: 1806000
I0428 19:48:01.754575 26380 layer_factory.hpp:77] Creating layer pool1
I0428 19:48:01.754586 26380 net.cpp:86] Creating Layer pool1
I0428 19:48:01.754601 26380 net.cpp:408] pool1 <- conv1
I0428 19:48:01.754611 26380 net.cpp:382] pool1 -> pool1
I0428 19:48:01.754672 26380 net.cpp:124] Setting up pool1
I0428 19:48:01.754681 26380 net.cpp:131] Top shape: 100 2 4 4 (3200)
I0428 19:48:01.754688 26380 net.cpp:139] Memory required for data: 1818800
I0428 19:48:01.754693 26380 layer_factory.hpp:77] Creating layer ip1
I0428 19:48:01.754704 26380 net.cpp:86] Creating Layer ip1
I0428 19:48:01.754710 26380 net.cpp:408] ip1 <- pool1
I0428 19:48:01.754720 26380 net.cpp:382] ip1 -> ip1
I0428 19:48:01.754866 26380 net.cpp:124] Setting up ip1
I0428 19:48:01.754878 26380 net.cpp:131] Top shape: 100 25 (2500)
I0428 19:48:01.754897 26380 net.cpp:139] Memory required for data: 1828800
I0428 19:48:01.754912 26380 layer_factory.hpp:77] Creating layer relu1
I0428 19:48:01.754922 26380 net.cpp:86] Creating Layer relu1
I0428 19:48:01.754930 26380 net.cpp:408] relu1 <- ip1
I0428 19:48:01.754938 26380 net.cpp:369] relu1 -> ip1 (in-place)
I0428 19:48:01.755131 26380 net.cpp:124] Setting up relu1
I0428 19:48:01.755143 26380 net.cpp:131] Top shape: 100 25 (2500)
I0428 19:48:01.755149 26380 net.cpp:139] Memory required for data: 1838800
I0428 19:48:01.755156 26380 layer_factory.hpp:77] Creating layer ip2
I0428 19:48:01.755170 26380 net.cpp:86] Creating Layer ip2
I0428 19:48:01.755179 26380 net.cpp:408] ip2 <- ip1
I0428 19:48:01.755190 26380 net.cpp:382] ip2 -> ip2
I0428 19:48:01.755316 26380 net.cpp:124] Setting up ip2
I0428 19:48:01.755326 26380 net.cpp:131] Top shape: 100 25 (2500)
I0428 19:48:01.755332 26380 net.cpp:139] Memory required for data: 1848800
I0428 19:48:01.755342 26380 layer_factory.hpp:77] Creating layer relu2
I0428 19:48:01.755352 26380 net.cpp:86] Creating Layer relu2
I0428 19:48:01.755359 26380 net.cpp:408] relu2 <- ip2
I0428 19:48:01.755368 26380 net.cpp:369] relu2 -> ip2 (in-place)
I0428 19:48:01.755548 26380 net.cpp:124] Setting up relu2
I0428 19:48:01.755559 26380 net.cpp:131] Top shape: 100 25 (2500)
I0428 19:48:01.755565 26380 net.cpp:139] Memory required for data: 1858800
I0428 19:48:01.755571 26380 layer_factory.hpp:77] Creating layer ip3
I0428 19:48:01.755583 26380 net.cpp:86] Creating Layer ip3
I0428 19:48:01.755589 26380 net.cpp:408] ip3 <- ip2
I0428 19:48:01.755599 26380 net.cpp:382] ip3 -> ip3
I0428 19:48:01.755738 26380 net.cpp:124] Setting up ip3
I0428 19:48:01.755748 26380 net.cpp:131] Top shape: 100 10 (1000)
I0428 19:48:01.755755 26380 net.cpp:139] Memory required for data: 1862800
I0428 19:48:01.755769 26380 layer_factory.hpp:77] Creating layer relu3
I0428 19:48:01.755779 26380 net.cpp:86] Creating Layer relu3
I0428 19:48:01.755786 26380 net.cpp:408] relu3 <- ip3
I0428 19:48:01.755795 26380 net.cpp:369] relu3 -> ip3 (in-place)
I0428 19:48:01.756670 26380 net.cpp:124] Setting up relu3
I0428 19:48:01.756685 26380 net.cpp:131] Top shape: 100 10 (1000)
I0428 19:48:01.756692 26380 net.cpp:139] Memory required for data: 1866800
I0428 19:48:01.756698 26380 layer_factory.hpp:77] Creating layer ip3_relu3_0_split
I0428 19:48:01.756708 26380 net.cpp:86] Creating Layer ip3_relu3_0_split
I0428 19:48:01.756714 26380 net.cpp:408] ip3_relu3_0_split <- ip3
I0428 19:48:01.756726 26380 net.cpp:382] ip3_relu3_0_split -> ip3_relu3_0_split_0
I0428 19:48:01.756736 26380 net.cpp:382] ip3_relu3_0_split -> ip3_relu3_0_split_1
I0428 19:48:01.756804 26380 net.cpp:124] Setting up ip3_relu3_0_split
I0428 19:48:01.756822 26380 net.cpp:131] Top shape: 100 10 (1000)
I0428 19:48:01.756831 26380 net.cpp:131] Top shape: 100 10 (1000)
I0428 19:48:01.756837 26380 net.cpp:139] Memory required for data: 1874800
I0428 19:48:01.756844 26380 layer_factory.hpp:77] Creating layer accuracy
I0428 19:48:01.756853 26380 net.cpp:86] Creating Layer accuracy
I0428 19:48:01.756860 26380 net.cpp:408] accuracy <- ip3_relu3_0_split_0
I0428 19:48:01.756870 26380 net.cpp:408] accuracy <- label_mnist_1_split_0
I0428 19:48:01.756884 26380 net.cpp:382] accuracy -> accuracy
…
