…
I0428 19:50:40.318662 27067 net.cpp:296] The NetState phase (0) differed from the phase (1) specified by a rule in layer mnist
I0428 19:50:40.318682 27067 net.cpp:296] The NetState phase (0) differed from the phase (1) specified by a rule in layer accuracy
I0428 19:50:40.318785 27067 net.cpp:53] Initializing net from parameters: 
name: "LeNet"
state {
  phase: TRAIN
  level: 0
  stage: ""
}
layer {
  name: "mnist"
  type: "Data"
  top: "data"
  top: "label"
  include {
    phase: TRAIN
  }
  transform_param {
    scale: 0.00390625
  }
  data_param {
    source: "examples/mnist/mnist_train_lmdb"
    batch_size: 64
    backend: LMDB
  }
}
layer {
  name: "conv0"
  type: "Convolution"
  bottom: "data"
  top: "conv0"
  param {
    lr_mult: 1
  }
  param {
    lr_mult: 2
  }
  convolution_param {
    num_output: 5
    kernel_size: 5
    stride: 1
    weight_filler {
      type: "xavier"
    }
    bias_filler {
      type: "constant"
    }
  }
}
layer {
  name: "pool0"
  type: "Pooling"
  bottom: "conv0"
  top: "pool0"
  pooling_param {
    pool: MAX
    kernel_size: 2
    stride: 2
  }
}
layer {
  name: "conv1"
  type: "Convolution"
  bottom: "pool0"
  top: "conv1"
  param {
    lr_mult: 1
  }
  param {
    lr_mult: 2
  }
  convolution_param {
    num_output: 10
    kernel_size: 5
    stride: 1
    weight_filler {
      type: "xavier"
    }
    bias_filler {
      type: "constant"
    }
  }
}
layer {
  name: "pool1"
  type: "Pooling"
  bottom: "conv1"
  top: "pool1"
  pooling_param {
    pool: MAX
    kernel_size: 2
    stride: 2
  }
}
layer {
  name: "ip1"
  type: "InnerProduct"
  bottom: "pool1"
  top: "ip1"
  param {
    lr_mult: 1
  }
  param {
    lr_mult: 2
  }
  inner_product_param {
    num_output: 25
    weight_filler {
      type: "xavier"
    }
    bias_filler {
      type: "constant"
    }
  }
}
layer {
  name: "relu1"
  type: "ReLU"
  bottom: "ip1"
  top: "ip1"
}
layer {
  name: "ip2"
  type: "InnerProduct"
  bottom: "ip1"
  top: "ip2"
  param {
    lr_mult: 1
  }
  param {
    lr_mult: 2
  }
  inner_product_param {
    num_output: 25
    weight_filler {
      type: "xavier"
    }
    bias_filler {
      type: "constant"
    }
  }
}
layer {
  name: "relu2"
  type: "ReLU"
  bottom: "ip2"
  top: "ip2"
}
layer {
  name: "ip3"
  type: "InnerProduct"
  bottom: "ip2"
  top: "ip3"
  param {
    lr_mult: 1
  }
  param {
    lr_mult: 2
  }
  inner_product_param {
    num_output: 10
    weight_filler {
      type: "xavier"
    }
    bias_filler {
      type: "constant"
    }
  }
}
layer {
  name: "relu3"
  type: "ReLU"
  bottom: "ip3"
  top: "ip3"
}
layer {
  name: "loss"
  type: "SoftmaxWithLoss"
  bottom: "ip3"
  bottom: "label"
  top: "loss"
}
I0428 19:50:40.318867 27067 layer_factory.hpp:77] Creating layer mnist
I0428 19:50:40.318966 27067 db_lmdb.cpp:35] Opened lmdb examples/mnist/mnist_train_lmdb
I0428 19:50:40.318994 27067 net.cpp:86] Creating Layer mnist
I0428 19:50:40.319002 27067 net.cpp:382] mnist -> data
I0428 19:50:40.319025 27067 net.cpp:382] mnist -> label
I0428 19:50:40.320116 27067 data_layer.cpp:45] output data size: 64,1,28,28
I0428 19:50:40.322582 27067 net.cpp:124] Setting up mnist
I0428 19:50:40.322599 27067 net.cpp:131] Top shape: 64 1 28 28 (50176)
I0428 19:50:40.322605 27067 net.cpp:131] Top shape: 64 (64)
I0428 19:50:40.322608 27067 net.cpp:139] Memory required for data: 200960
I0428 19:50:40.322616 27067 layer_factory.hpp:77] Creating layer conv0
I0428 19:50:40.322666 27067 net.cpp:86] Creating Layer conv0
I0428 19:50:40.322687 27067 net.cpp:408] conv0 <- data
I0428 19:50:40.322701 27067 net.cpp:382] conv0 -> conv0
I0428 19:50:40.605113 27067 net.cpp:124] Setting up conv0
I0428 19:50:40.605139 27067 net.cpp:131] Top shape: 64 5 24 24 (184320)
I0428 19:50:40.605144 27067 net.cpp:139] Memory required for data: 938240
I0428 19:50:40.605159 27067 layer_factory.hpp:77] Creating layer pool0
I0428 19:50:40.605170 27067 net.cpp:86] Creating Layer pool0
I0428 19:50:40.605178 27067 net.cpp:408] pool0 <- conv0
I0428 19:50:40.605183 27067 net.cpp:382] pool0 -> pool0
I0428 19:50:40.605244 27067 net.cpp:124] Setting up pool0
I0428 19:50:40.605250 27067 net.cpp:131] Top shape: 64 5 12 12 (46080)
I0428 19:50:40.605253 27067 net.cpp:139] Memory required for data: 1122560
I0428 19:50:40.605257 27067 layer_factory.hpp:77] Creating layer conv1
I0428 19:50:40.605268 27067 net.cpp:86] Creating Layer conv1
I0428 19:50:40.605270 27067 net.cpp:408] conv1 <- pool0
I0428 19:50:40.605275 27067 net.cpp:382] conv1 -> conv1
I0428 19:50:40.607851 27067 net.cpp:124] Setting up conv1
I0428 19:50:40.607864 27067 net.cpp:131] Top shape: 64 10 8 8 (40960)
I0428 19:50:40.607867 27067 net.cpp:139] Memory required for data: 1286400
I0428 19:50:40.607892 27067 layer_factory.hpp:77] Creating layer pool1
I0428 19:50:40.607899 27067 net.cpp:86] Creating Layer pool1
I0428 19:50:40.607903 27067 net.cpp:408] pool1 <- conv1
I0428 19:50:40.607908 27067 net.cpp:382] pool1 -> pool1
I0428 19:50:40.607945 27067 net.cpp:124] Setting up pool1
I0428 19:50:40.607951 27067 net.cpp:131] Top shape: 64 10 4 4 (10240)
I0428 19:50:40.607954 27067 net.cpp:139] Memory required for data: 1327360
I0428 19:50:40.607956 27067 layer_factory.hpp:77] Creating layer ip1
I0428 19:50:40.607964 27067 net.cpp:86] Creating Layer ip1
I0428 19:50:40.607966 27067 net.cpp:408] ip1 <- pool1
I0428 19:50:40.607971 27067 net.cpp:382] ip1 -> ip1
I0428 19:50:40.608085 27067 net.cpp:124] Setting up ip1
I0428 19:50:40.608093 27067 net.cpp:131] Top shape: 64 25 (1600)
I0428 19:50:40.608096 27067 net.cpp:139] Memory required for data: 1333760
I0428 19:50:40.608103 27067 layer_factory.hpp:77] Creating layer relu1
I0428 19:50:40.608108 27067 net.cpp:86] Creating Layer relu1
I0428 19:50:40.608111 27067 net.cpp:408] relu1 <- ip1
I0428 19:50:40.608115 27067 net.cpp:369] relu1 -> ip1 (in-place)
I0428 19:50:40.608280 27067 net.cpp:124] Setting up relu1
I0428 19:50:40.608289 27067 net.cpp:131] Top shape: 64 25 (1600)
I0428 19:50:40.608292 27067 net.cpp:139] Memory required for data: 1340160
I0428 19:50:40.608296 27067 layer_factory.hpp:77] Creating layer ip2
I0428 19:50:40.608302 27067 net.cpp:86] Creating Layer ip2
I0428 19:50:40.608305 27067 net.cpp:408] ip2 <- ip1
I0428 19:50:40.608309 27067 net.cpp:382] ip2 -> ip2
I0428 19:50:40.608402 27067 net.cpp:124] Setting up ip2
I0428 19:50:40.608409 27067 net.cpp:131] Top shape: 64 25 (1600)
I0428 19:50:40.608412 27067 net.cpp:139] Memory required for data: 1346560
I0428 19:50:40.608417 27067 layer_factory.hpp:77] Creating layer relu2
I0428 19:50:40.608438 27067 net.cpp:86] Creating Layer relu2
I0428 19:50:40.608441 27067 net.cpp:408] relu2 <- ip2
I0428 19:50:40.608446 27067 net.cpp:369] relu2 -> ip2 (in-place)
I0428 19:50:40.609253 27067 net.cpp:124] Setting up relu2
I0428 19:50:40.609266 27067 net.cpp:131] Top shape: 64 25 (1600)
I0428 19:50:40.609268 27067 net.cpp:139] Memory required for data: 1352960
I0428 19:50:40.609272 27067 layer_factory.hpp:77] Creating layer ip3
I0428 19:50:40.609278 27067 net.cpp:86] Creating Layer ip3
I0428 19:50:40.609282 27067 net.cpp:408] ip3 <- ip2
I0428 19:50:40.609287 27067 net.cpp:382] ip3 -> ip3
I0428 19:50:40.609377 27067 net.cpp:124] Setting up ip3
I0428 19:50:40.609385 27067 net.cpp:131] Top shape: 64 10 (640)
I0428 19:50:40.609387 27067 net.cpp:139] Memory required for data: 1355520
I0428 19:50:40.609395 27067 layer_factory.hpp:77] Creating layer relu3
I0428 19:50:40.609400 27067 net.cpp:86] Creating Layer relu3
I0428 19:50:40.609402 27067 net.cpp:408] relu3 <- ip3
I0428 19:50:40.609406 27067 net.cpp:369] relu3 -> ip3 (in-place)
I0428 19:50:40.609577 27067 net.cpp:124] Setting up relu3
I0428 19:50:40.609586 27067 net.cpp:131] Top shape: 64 10 (640)
I0428 19:50:40.609589 27067 net.cpp:139] Memory required for data: 1358080
I0428 19:50:40.609592 27067 layer_factory.hpp:77] Creating layer loss
I0428 19:50:40.609598 27067 net.cpp:86] Creating Layer loss
I0428 19:50:40.609601 27067 net.cpp:408] loss <- ip3
I0428 19:50:40.609606 27067 net.cpp:408] loss <- label
I0428 19:50:40.609611 27067 net.cpp:382] loss -> loss
I0428 19:50:40.609623 27067 layer_factory.hpp:77] Creating layer loss
…
I0428 19:50:40.610229 27067 solver.cpp:173] Creating test net (#0) specified by net file: ECE595/mnist/train_test/var_everything2/lenet_train_test611.prototxt
I0428 19:50:40.610255 27067 net.cpp:296] The NetState phase (1) differed from the phase (0) specified by a rule in layer mnist
I0428 19:50:40.610340 27067 net.cpp:53] Initializing net from parameters: 
name: "LeNet"
state {
  phase: TEST
}
layer {
  name: "mnist"
  type: "Data"
  top: "data"
  top: "label"
  include {
    phase: TEST
  }
  transform_param {
    scale: 0.00390625
  }
  data_param {
    source: "examples/mnist/mnist_test_lmdb"
    batch_size: 100
    backend: LMDB
  }
}
layer {
  name: "conv0"
  type: "Convolution"
  bottom: "data"
  top: "conv0"
  param {
    lr_mult: 1
  }
  param {
    lr_mult: 2
  }
  convolution_param {
    num_output: 5
    kernel_size: 5
    stride: 1
    weight_filler {
      type: "xavier"
    }
    bias_filler {
      type: "constant"
    }
  }
}
layer {
  name: "pool0"
  type: "Pooling"
  bottom: "conv0"
  top: "pool0"
  pooling_param {
    pool: MAX
    kernel_size: 2
    stride: 2
  }
}
layer {
  name: "conv1"
  type: "Convolution"
  bottom: "pool0"
  top: "conv1"
  param {
    lr_mult: 1
  }
  param {
    lr_mult: 2
  }
  convolution_param {
    num_output: 10
    kernel_size: 5
    stride: 1
    weight_filler {
      type: "xavier"
    }
    bias_filler {
      type: "constant"
    }
  }
}
layer {
  name: "pool1"
  type: "Pooling"
  bottom: "conv1"
  top: "pool1"
  pooling_param {
    pool: MAX
    kernel_size: 2
    stride: 2
  }
}
layer {
  name: "ip1"
  type: "InnerProduct"
  bottom: "pool1"
  top: "ip1"
  param {
    lr_mult: 1
  }
  param {
    lr_mult: 2
  }
  inner_product_param {
    num_output: 25
    weight_filler {
      type: "xavier"
    }
    bias_filler {
      type: "constant"
    }
  }
}
layer {
  name: "relu1"
  type: "ReLU"
  bottom: "ip1"
  top: "ip1"
}
layer {
  name: "ip2"
  type: "InnerProduct"
  bottom: "ip1"
  top: "ip2"
  param {
    lr_mult: 1
  }
  param {
    lr_mult: 2
  }
  inner_product_param {
    num_output: 25
    weight_filler {
      type: "xavier"
    }
    bias_filler {
      type: "constant"
    }
  }
}
layer {
  name: "relu2"
  type: "ReLU"
  bottom: "ip2"
  top: "ip2"
}
layer {
  name: "ip3"
  type: "InnerProduct"
  bottom: "ip2"
  top: "ip3"
  param {
    lr_mult: 1
  }
  param {
    lr_mult: 2
  }
  inner_product_param {
    num_output: 10
    weight_filler {
      type: "xavier"
    }
    bias_filler {
      type: "constant"
    }
  }
}
layer {
  name: "relu3"
  type: "ReLU"
  bottom: "ip3"
  top: "ip3"
}
layer {
  name: "accuracy"
  type: "Accuracy"
  bottom: "ip3"
  bottom: "label"
  top: "accuracy"
  include {
    phase: TEST
  }
}
layer {
  name: "loss"
  type: "SoftmaxWithLoss"
  bottom: "ip3"
  bottom: "label"
  top: "loss"
}
I0428 19:50:40.610414 27067 layer_factory.hpp:77] Creating layer mnist
I0428 19:50:40.610457 27067 db_lmdb.cpp:35] Opened lmdb examples/mnist/mnist_test_lmdb
I0428 19:50:40.610469 27067 net.cpp:86] Creating Layer mnist
I0428 19:50:40.610473 27067 net.cpp:382] mnist -> data
I0428 19:50:40.610481 27067 net.cpp:382] mnist -> label
I0428 19:50:40.610558 27067 data_layer.cpp:45] output data size: 100,1,28,28
I0428 19:50:40.612386 27067 net.cpp:124] Setting up mnist
I0428 19:50:40.612398 27067 net.cpp:131] Top shape: 100 1 28 28 (78400)
I0428 19:50:40.612403 27067 net.cpp:131] Top shape: 100 (100)
I0428 19:50:40.612406 27067 net.cpp:139] Memory required for data: 314000
I0428 19:50:40.612411 27067 layer_factory.hpp:77] Creating layer label_mnist_1_split
I0428 19:50:40.612416 27067 net.cpp:86] Creating Layer label_mnist_1_split
I0428 19:50:40.612419 27067 net.cpp:408] label_mnist_1_split <- label
I0428 19:50:40.612424 27067 net.cpp:382] label_mnist_1_split -> label_mnist_1_split_0
I0428 19:50:40.612431 27067 net.cpp:382] label_mnist_1_split -> label_mnist_1_split_1
I0428 19:50:40.612517 27067 net.cpp:124] Setting up label_mnist_1_split
I0428 19:50:40.612524 27067 net.cpp:131] Top shape: 100 (100)
I0428 19:50:40.612529 27067 net.cpp:131] Top shape: 100 (100)
I0428 19:50:40.612531 27067 net.cpp:139] Memory required for data: 314800
I0428 19:50:40.612534 27067 layer_factory.hpp:77] Creating layer conv0
I0428 19:50:40.612541 27067 net.cpp:86] Creating Layer conv0
I0428 19:50:40.612545 27067 net.cpp:408] conv0 <- data
I0428 19:50:40.612550 27067 net.cpp:382] conv0 -> conv0
I0428 19:50:40.614351 27067 net.cpp:124] Setting up conv0
I0428 19:50:40.614365 27067 net.cpp:131] Top shape: 100 5 24 24 (288000)
I0428 19:50:40.614369 27067 net.cpp:139] Memory required for data: 1466800
I0428 19:50:40.614377 27067 layer_factory.hpp:77] Creating layer pool0
I0428 19:50:40.614383 27067 net.cpp:86] Creating Layer pool0
I0428 19:50:40.614387 27067 net.cpp:408] pool0 <- conv0
I0428 19:50:40.614392 27067 net.cpp:382] pool0 -> pool0
I0428 19:50:40.614426 27067 net.cpp:124] Setting up pool0
I0428 19:50:40.614431 27067 net.cpp:131] Top shape: 100 5 12 12 (72000)
I0428 19:50:40.614434 27067 net.cpp:139] Memory required for data: 1754800
I0428 19:50:40.614436 27067 layer_factory.hpp:77] Creating layer conv1
I0428 19:50:40.614444 27067 net.cpp:86] Creating Layer conv1
I0428 19:50:40.614447 27067 net.cpp:408] conv1 <- pool0
I0428 19:50:40.614452 27067 net.cpp:382] conv1 -> conv1
I0428 19:50:40.616523 27067 net.cpp:124] Setting up conv1
I0428 19:50:40.616552 27067 net.cpp:131] Top shape: 100 10 8 8 (64000)
I0428 19:50:40.616556 27067 net.cpp:139] Memory required for data: 2010800
I0428 19:50:40.616564 27067 layer_factory.hpp:77] Creating layer pool1
I0428 19:50:40.616574 27067 net.cpp:86] Creating Layer pool1
I0428 19:50:40.616576 27067 net.cpp:408] pool1 <- conv1
I0428 19:50:40.616581 27067 net.cpp:382] pool1 -> pool1
I0428 19:50:40.616618 27067 net.cpp:124] Setting up pool1
I0428 19:50:40.616624 27067 net.cpp:131] Top shape: 100 10 4 4 (16000)
I0428 19:50:40.616627 27067 net.cpp:139] Memory required for data: 2074800
I0428 19:50:40.616629 27067 layer_factory.hpp:77] Creating layer ip1
I0428 19:50:40.616636 27067 net.cpp:86] Creating Layer ip1
I0428 19:50:40.616638 27067 net.cpp:408] ip1 <- pool1
I0428 19:50:40.616643 27067 net.cpp:382] ip1 -> ip1
I0428 19:50:40.616767 27067 net.cpp:124] Setting up ip1
I0428 19:50:40.616775 27067 net.cpp:131] Top shape: 100 25 (2500)
I0428 19:50:40.616788 27067 net.cpp:139] Memory required for data: 2084800
I0428 19:50:40.616796 27067 layer_factory.hpp:77] Creating layer relu1
I0428 19:50:40.616801 27067 net.cpp:86] Creating Layer relu1
I0428 19:50:40.616803 27067 net.cpp:408] relu1 <- ip1
I0428 19:50:40.616807 27067 net.cpp:369] relu1 -> ip1 (in-place)
I0428 19:50:40.617049 27067 net.cpp:124] Setting up relu1
I0428 19:50:40.617058 27067 net.cpp:131] Top shape: 100 25 (2500)
I0428 19:50:40.617061 27067 net.cpp:139] Memory required for data: 2094800
I0428 19:50:40.617065 27067 layer_factory.hpp:77] Creating layer ip2
I0428 19:50:40.617076 27067 net.cpp:86] Creating Layer ip2
I0428 19:50:40.617079 27067 net.cpp:408] ip2 <- ip1
I0428 19:50:40.617084 27067 net.cpp:382] ip2 -> ip2
I0428 19:50:40.617182 27067 net.cpp:124] Setting up ip2
I0428 19:50:40.617190 27067 net.cpp:131] Top shape: 100 25 (2500)
I0428 19:50:40.617208 27067 net.cpp:139] Memory required for data: 2104800
I0428 19:50:40.617214 27067 layer_factory.hpp:77] Creating layer relu2
I0428 19:50:40.617219 27067 net.cpp:86] Creating Layer relu2
I0428 19:50:40.617223 27067 net.cpp:408] relu2 <- ip2
I0428 19:50:40.617231 27067 net.cpp:369] relu2 -> ip2 (in-place)
I0428 19:50:40.617382 27067 net.cpp:124] Setting up relu2
I0428 19:50:40.617390 27067 net.cpp:131] Top shape: 100 25 (2500)
I0428 19:50:40.617394 27067 net.cpp:139] Memory required for data: 2114800
I0428 19:50:40.617398 27067 layer_factory.hpp:77] Creating layer ip3
I0428 19:50:40.617403 27067 net.cpp:86] Creating Layer ip3
I0428 19:50:40.617405 27067 net.cpp:408] ip3 <- ip2
I0428 19:50:40.617410 27067 net.cpp:382] ip3 -> ip3
I0428 19:50:40.617506 27067 net.cpp:124] Setting up ip3
I0428 19:50:40.617513 27067 net.cpp:131] Top shape: 100 10 (1000)
I0428 19:50:40.617530 27067 net.cpp:139] Memory required for data: 2118800
I0428 19:50:40.617537 27067 layer_factory.hpp:77] Creating layer relu3
I0428 19:50:40.617542 27067 net.cpp:86] Creating Layer relu3
I0428 19:50:40.617545 27067 net.cpp:408] relu3 <- ip3
I0428 19:50:40.617549 27067 net.cpp:369] relu3 -> ip3 (in-place)
I0428 19:50:40.618306 27067 net.cpp:124] Setting up relu3
I0428 19:50:40.618317 27067 net.cpp:131] Top shape: 100 10 (1000)
I0428 19:50:40.618336 27067 net.cpp:139] Memory required for data: 2122800
I0428 19:50:40.618340 27067 layer_factory.hpp:77] Creating layer ip3_relu3_0_split
I0428 19:50:40.618345 27067 net.cpp:86] Creating Layer ip3_relu3_0_split
I0428 19:50:40.618350 27067 net.cpp:408] ip3_relu3_0_split <- ip3
I0428 19:50:40.618355 27067 net.cpp:382] ip3_relu3_0_split -> ip3_relu3_0_split_0
I0428 19:50:40.618361 27067 net.cpp:382] ip3_relu3_0_split -> ip3_relu3_0_split_1
I0428 19:50:40.618432 27067 net.cpp:124] Setting up ip3_relu3_0_split
I0428 19:50:40.618438 27067 net.cpp:131] Top shape: 100 10 (1000)
I0428 19:50:40.618443 27067 net.cpp:131] Top shape: 100 10 (1000)
I0428 19:50:40.618445 27067 net.cpp:139] Memory required for data: 2130800
I0428 19:50:40.618448 27067 layer_factory.hpp:77] Creating layer accuracy
I0428 19:50:40.618453 27067 net.cpp:86] Creating Layer accuracy
I0428 19:50:40.618458 27067 net.cpp:408] accuracy <- ip3_relu3_0_split_0
I0428 19:50:40.618461 27067 net.cpp:408] accuracy <- label_mnist_1_split_0
I0428 19:50:40.618465 27067 net.cpp:382] accuracy -> accuracy
…
