…
I0428 19:49:59.559119 26903 net.cpp:296] The NetState phase (0) differed from the phase (1) specified by a rule in layer mnist
I0428 19:49:59.559152 26903 net.cpp:296] The NetState phase (0) differed from the phase (1) specified by a rule in layer accuracy
I0428 19:49:59.559226 26903 net.cpp:53] Initializing net from parameters: 
name: "LeNet"
state {
  phase: TRAIN
  level: 0
  stage: ""
}
layer {
  name: "mnist"
  type: "Data"
  top: "data"
  top: "label"
  include {
    phase: TRAIN
  }
  transform_param {
    scale: 0.00390625
  }
  data_param {
    source: "examples/mnist/mnist_train_lmdb"
    batch_size: 64
    backend: LMDB
  }
}
layer {
  name: "conv0"
  type: "Convolution"
  bottom: "data"
  top: "conv0"
  param {
    lr_mult: 1
  }
  param {
    lr_mult: 2
  }
  convolution_param {
    num_output: 5
    kernel_size: 5
    stride: 1
    weight_filler {
      type: "xavier"
    }
    bias_filler {
      type: "constant"
    }
  }
}
layer {
  name: "pool0"
  type: "Pooling"
  bottom: "conv0"
  top: "pool0"
  pooling_param {
    pool: MAX
    kernel_size: 2
    stride: 2
  }
}
layer {
  name: "conv1"
  type: "Convolution"
  bottom: "pool0"
  top: "conv1"
  param {
    lr_mult: 1
  }
  param {
    lr_mult: 2
  }
  convolution_param {
    num_output: 10
    kernel_size: 5
    stride: 1
    weight_filler {
      type: "xavier"
    }
    bias_filler {
      type: "constant"
    }
  }
}
layer {
  name: "pool1"
  type: "Pooling"
  bottom: "conv1"
  top: "pool1"
  pooling_param {
    pool: MAX
    kernel_size: 2
    stride: 2
  }
}
layer {
  name: "ip1"
  type: "InnerProduct"
  bottom: "pool1"
  top: "ip1"
  param {
    lr_mult: 1
  }
  param {
    lr_mult: 2
  }
  inner_product_param {
    num_output: 25
    weight_filler {
      type: "xavier"
    }
    bias_filler {
      type: "constant"
    }
  }
}
layer {
  name: "relu1"
  type: "ReLU"
  bottom: "ip1"
  top: "ip1"
}
layer {
  name: "ip2"
  type: "InnerProduct"
  bottom: "ip1"
  top: "ip2"
  param {
    lr_mult: 1
  }
  param {
    lr_mult: 2
  }
  inner_product_param {
    num_output: 10
    weight_filler {
      type: "xavier"
    }
    bias_filler {
      type: "constant"
    }
  }
}
layer {
  name: "relu2"
  type: "ReLU"
  bottom: "ip2"
  top: "ip2"
}
layer {
  name: "loss"
  type: "SoftmaxWithLoss"
  bottom: "ip2"
  bottom: "label"
  top: "loss"
}
I0428 19:49:59.559286 26903 layer_factory.hpp:77] Creating layer mnist
I0428 19:49:59.559367 26903 db_lmdb.cpp:35] Opened lmdb examples/mnist/mnist_train_lmdb
I0428 19:49:59.559387 26903 net.cpp:86] Creating Layer mnist
I0428 19:49:59.559394 26903 net.cpp:382] mnist -> data
I0428 19:49:59.559412 26903 net.cpp:382] mnist -> label
I0428 19:49:59.560447 26903 data_layer.cpp:45] output data size: 64,1,28,28
I0428 19:49:59.562875 26903 net.cpp:124] Setting up mnist
I0428 19:49:59.562906 26903 net.cpp:131] Top shape: 64 1 28 28 (50176)
I0428 19:49:59.562911 26903 net.cpp:131] Top shape: 64 (64)
I0428 19:49:59.562913 26903 net.cpp:139] Memory required for data: 200960
I0428 19:49:59.562919 26903 layer_factory.hpp:77] Creating layer conv0
I0428 19:49:59.562954 26903 net.cpp:86] Creating Layer conv0
I0428 19:49:59.562960 26903 net.cpp:408] conv0 <- data
I0428 19:49:59.562983 26903 net.cpp:382] conv0 -> conv0
I0428 19:49:59.790845 26903 net.cpp:124] Setting up conv0
I0428 19:49:59.790873 26903 net.cpp:131] Top shape: 64 5 24 24 (184320)
I0428 19:49:59.790875 26903 net.cpp:139] Memory required for data: 938240
I0428 19:49:59.790926 26903 layer_factory.hpp:77] Creating layer pool0
I0428 19:49:59.790938 26903 net.cpp:86] Creating Layer pool0
I0428 19:49:59.790957 26903 net.cpp:408] pool0 <- conv0
I0428 19:49:59.790962 26903 net.cpp:382] pool0 -> pool0
I0428 19:49:59.791008 26903 net.cpp:124] Setting up pool0
I0428 19:49:59.791014 26903 net.cpp:131] Top shape: 64 5 12 12 (46080)
I0428 19:49:59.791018 26903 net.cpp:139] Memory required for data: 1122560
I0428 19:49:59.791020 26903 layer_factory.hpp:77] Creating layer conv1
I0428 19:49:59.791030 26903 net.cpp:86] Creating Layer conv1
I0428 19:49:59.791033 26903 net.cpp:408] conv1 <- pool0
I0428 19:49:59.791038 26903 net.cpp:382] conv1 -> conv1
I0428 19:49:59.793896 26903 net.cpp:124] Setting up conv1
I0428 19:49:59.793926 26903 net.cpp:131] Top shape: 64 10 8 8 (40960)
I0428 19:49:59.793931 26903 net.cpp:139] Memory required for data: 1286400
I0428 19:49:59.793938 26903 layer_factory.hpp:77] Creating layer pool1
I0428 19:49:59.793946 26903 net.cpp:86] Creating Layer pool1
I0428 19:49:59.793949 26903 net.cpp:408] pool1 <- conv1
I0428 19:49:59.793954 26903 net.cpp:382] pool1 -> pool1
I0428 19:49:59.793992 26903 net.cpp:124] Setting up pool1
I0428 19:49:59.793997 26903 net.cpp:131] Top shape: 64 10 4 4 (10240)
I0428 19:49:59.793999 26903 net.cpp:139] Memory required for data: 1327360
I0428 19:49:59.794003 26903 layer_factory.hpp:77] Creating layer ip1
I0428 19:49:59.794009 26903 net.cpp:86] Creating Layer ip1
I0428 19:49:59.794013 26903 net.cpp:408] ip1 <- pool1
I0428 19:49:59.794016 26903 net.cpp:382] ip1 -> ip1
I0428 19:49:59.794131 26903 net.cpp:124] Setting up ip1
I0428 19:49:59.794139 26903 net.cpp:131] Top shape: 64 25 (1600)
I0428 19:49:59.794142 26903 net.cpp:139] Memory required for data: 1333760
I0428 19:49:59.794148 26903 layer_factory.hpp:77] Creating layer relu1
I0428 19:49:59.794154 26903 net.cpp:86] Creating Layer relu1
I0428 19:49:59.794157 26903 net.cpp:408] relu1 <- ip1
I0428 19:49:59.794162 26903 net.cpp:369] relu1 -> ip1 (in-place)
I0428 19:49:59.794355 26903 net.cpp:124] Setting up relu1
I0428 19:49:59.794363 26903 net.cpp:131] Top shape: 64 25 (1600)
I0428 19:49:59.794366 26903 net.cpp:139] Memory required for data: 1340160
I0428 19:49:59.794369 26903 layer_factory.hpp:77] Creating layer ip2
I0428 19:49:59.794375 26903 net.cpp:86] Creating Layer ip2
I0428 19:49:59.794378 26903 net.cpp:408] ip2 <- ip1
I0428 19:49:59.794383 26903 net.cpp:382] ip2 -> ip2
I0428 19:49:59.794468 26903 net.cpp:124] Setting up ip2
I0428 19:49:59.794474 26903 net.cpp:131] Top shape: 64 10 (640)
I0428 19:49:59.794477 26903 net.cpp:139] Memory required for data: 1342720
I0428 19:49:59.794481 26903 layer_factory.hpp:77] Creating layer relu2
I0428 19:49:59.794487 26903 net.cpp:86] Creating Layer relu2
I0428 19:49:59.794489 26903 net.cpp:408] relu2 <- ip2
I0428 19:49:59.794493 26903 net.cpp:369] relu2 -> ip2 (in-place)
I0428 19:49:59.795291 26903 net.cpp:124] Setting up relu2
I0428 19:49:59.795302 26903 net.cpp:131] Top shape: 64 10 (640)
I0428 19:49:59.795321 26903 net.cpp:139] Memory required for data: 1345280
I0428 19:49:59.795325 26903 layer_factory.hpp:77] Creating layer loss
I0428 19:49:59.795331 26903 net.cpp:86] Creating Layer loss
I0428 19:49:59.795332 26903 net.cpp:408] loss <- ip2
I0428 19:49:59.795336 26903 net.cpp:408] loss <- label
I0428 19:49:59.795342 26903 net.cpp:382] loss -> loss
I0428 19:49:59.795357 26903 layer_factory.hpp:77] Creating layer loss
…
I0428 19:49:59.795950 26903 solver.cpp:173] Creating test net (#0) specified by net file: ECE595/mnist/train_test/var_everything2/lenet_train_test591.prototxt
I0428 19:49:59.795974 26903 net.cpp:296] The NetState phase (1) differed from the phase (0) specified by a rule in layer mnist
I0428 19:49:59.796077 26903 net.cpp:53] Initializing net from parameters: 
name: "LeNet"
state {
  phase: TEST
}
layer {
  name: "mnist"
  type: "Data"
  top: "data"
  top: "label"
  include {
    phase: TEST
  }
  transform_param {
    scale: 0.00390625
  }
  data_param {
    source: "examples/mnist/mnist_test_lmdb"
    batch_size: 100
    backend: LMDB
  }
}
layer {
  name: "conv0"
  type: "Convolution"
  bottom: "data"
  top: "conv0"
  param {
    lr_mult: 1
  }
  param {
    lr_mult: 2
  }
  convolution_param {
    num_output: 5
    kernel_size: 5
    stride: 1
    weight_filler {
      type: "xavier"
    }
    bias_filler {
      type: "constant"
    }
  }
}
layer {
  name: "pool0"
  type: "Pooling"
  bottom: "conv0"
  top: "pool0"
  pooling_param {
    pool: MAX
    kernel_size: 2
    stride: 2
  }
}
layer {
  name: "conv1"
  type: "Convolution"
  bottom: "pool0"
  top: "conv1"
  param {
    lr_mult: 1
  }
  param {
    lr_mult: 2
  }
  convolution_param {
    num_output: 10
    kernel_size: 5
    stride: 1
    weight_filler {
      type: "xavier"
    }
    bias_filler {
      type: "constant"
    }
  }
}
layer {
  name: "pool1"
  type: "Pooling"
  bottom: "conv1"
  top: "pool1"
  pooling_param {
    pool: MAX
    kernel_size: 2
    stride: 2
  }
}
layer {
  name: "ip1"
  type: "InnerProduct"
  bottom: "pool1"
  top: "ip1"
  param {
    lr_mult: 1
  }
  param {
    lr_mult: 2
  }
  inner_product_param {
    num_output: 25
    weight_filler {
      type: "xavier"
    }
    bias_filler {
      type: "constant"
    }
  }
}
layer {
  name: "relu1"
  type: "ReLU"
  bottom: "ip1"
  top: "ip1"
}
layer {
  name: "ip2"
  type: "InnerProduct"
  bottom: "ip1"
  top: "ip2"
  param {
    lr_mult: 1
  }
  param {
    lr_mult: 2
  }
  inner_product_param {
    num_output: 10
    weight_filler {
      type: "xavier"
    }
    bias_filler {
      type: "constant"
    }
  }
}
layer {
  name: "relu2"
  type: "ReLU"
  bottom: "ip2"
  top: "ip2"
}
layer {
  name: "accuracy"
  type: "Accuracy"
  bottom: "ip2"
  bottom: "label"
  top: "accuracy"
  include {
    phase: TEST
  }
}
layer {
  name: "loss"
  type: "SoftmaxWithLoss"
  bottom: "ip2"
  bottom: "label"
  top: "loss"
}
I0428 19:49:59.796157 26903 layer_factory.hpp:77] Creating layer mnist
I0428 19:49:59.796201 26903 db_lmdb.cpp:35] Opened lmdb examples/mnist/mnist_test_lmdb
I0428 19:49:59.796212 26903 net.cpp:86] Creating Layer mnist
I0428 19:49:59.796216 26903 net.cpp:382] mnist -> data
I0428 19:49:59.796226 26903 net.cpp:382] mnist -> label
I0428 19:49:59.796309 26903 data_layer.cpp:45] output data size: 100,1,28,28
I0428 19:49:59.798321 26903 net.cpp:124] Setting up mnist
I0428 19:49:59.798334 26903 net.cpp:131] Top shape: 100 1 28 28 (78400)
I0428 19:49:59.798341 26903 net.cpp:131] Top shape: 100 (100)
I0428 19:49:59.798343 26903 net.cpp:139] Memory required for data: 314000
I0428 19:49:59.798346 26903 layer_factory.hpp:77] Creating layer label_mnist_1_split
I0428 19:49:59.798353 26903 net.cpp:86] Creating Layer label_mnist_1_split
I0428 19:49:59.798357 26903 net.cpp:408] label_mnist_1_split <- label
I0428 19:49:59.798360 26903 net.cpp:382] label_mnist_1_split -> label_mnist_1_split_0
I0428 19:49:59.798369 26903 net.cpp:382] label_mnist_1_split -> label_mnist_1_split_1
I0428 19:49:59.798418 26903 net.cpp:124] Setting up label_mnist_1_split
I0428 19:49:59.798432 26903 net.cpp:131] Top shape: 100 (100)
I0428 19:49:59.798436 26903 net.cpp:131] Top shape: 100 (100)
I0428 19:49:59.798439 26903 net.cpp:139] Memory required for data: 314800
I0428 19:49:59.798442 26903 layer_factory.hpp:77] Creating layer conv0
I0428 19:49:59.798454 26903 net.cpp:86] Creating Layer conv0
I0428 19:49:59.798456 26903 net.cpp:408] conv0 <- data
I0428 19:49:59.798461 26903 net.cpp:382] conv0 -> conv0
I0428 19:49:59.800320 26903 net.cpp:124] Setting up conv0
I0428 19:49:59.800333 26903 net.cpp:131] Top shape: 100 5 24 24 (288000)
I0428 19:49:59.800336 26903 net.cpp:139] Memory required for data: 1466800
I0428 19:49:59.800345 26903 layer_factory.hpp:77] Creating layer pool0
I0428 19:49:59.800362 26903 net.cpp:86] Creating Layer pool0
I0428 19:49:59.800366 26903 net.cpp:408] pool0 <- conv0
I0428 19:49:59.800371 26903 net.cpp:382] pool0 -> pool0
I0428 19:49:59.800420 26903 net.cpp:124] Setting up pool0
I0428 19:49:59.800426 26903 net.cpp:131] Top shape: 100 5 12 12 (72000)
I0428 19:49:59.800428 26903 net.cpp:139] Memory required for data: 1754800
I0428 19:49:59.800431 26903 layer_factory.hpp:77] Creating layer conv1
I0428 19:49:59.800441 26903 net.cpp:86] Creating Layer conv1
I0428 19:49:59.800444 26903 net.cpp:408] conv1 <- pool0
I0428 19:49:59.800451 26903 net.cpp:382] conv1 -> conv1
I0428 19:49:59.802708 26903 net.cpp:124] Setting up conv1
I0428 19:49:59.802722 26903 net.cpp:131] Top shape: 100 10 8 8 (64000)
I0428 19:49:59.802727 26903 net.cpp:139] Memory required for data: 2010800
I0428 19:49:59.802736 26903 layer_factory.hpp:77] Creating layer pool1
I0428 19:49:59.802752 26903 net.cpp:86] Creating Layer pool1
I0428 19:49:59.802757 26903 net.cpp:408] pool1 <- conv1
I0428 19:49:59.802762 26903 net.cpp:382] pool1 -> pool1
I0428 19:49:59.802820 26903 net.cpp:124] Setting up pool1
I0428 19:49:59.802827 26903 net.cpp:131] Top shape: 100 10 4 4 (16000)
I0428 19:49:59.802830 26903 net.cpp:139] Memory required for data: 2074800
I0428 19:49:59.802839 26903 layer_factory.hpp:77] Creating layer ip1
I0428 19:49:59.802845 26903 net.cpp:86] Creating Layer ip1
I0428 19:49:59.802847 26903 net.cpp:408] ip1 <- pool1
I0428 19:49:59.802852 26903 net.cpp:382] ip1 -> ip1
I0428 19:49:59.803009 26903 net.cpp:124] Setting up ip1
I0428 19:49:59.803016 26903 net.cpp:131] Top shape: 100 25 (2500)
I0428 19:49:59.803020 26903 net.cpp:139] Memory required for data: 2084800
I0428 19:49:59.803026 26903 layer_factory.hpp:77] Creating layer relu1
I0428 19:49:59.803031 26903 net.cpp:86] Creating Layer relu1
I0428 19:49:59.803035 26903 net.cpp:408] relu1 <- ip1
I0428 19:49:59.803040 26903 net.cpp:369] relu1 -> ip1 (in-place)
I0428 19:49:59.803289 26903 net.cpp:124] Setting up relu1
I0428 19:49:59.803297 26903 net.cpp:131] Top shape: 100 25 (2500)
I0428 19:49:59.803302 26903 net.cpp:139] Memory required for data: 2094800
I0428 19:49:59.803304 26903 layer_factory.hpp:77] Creating layer ip2
I0428 19:49:59.803311 26903 net.cpp:86] Creating Layer ip2
I0428 19:49:59.803314 26903 net.cpp:408] ip2 <- ip1
I0428 19:49:59.803318 26903 net.cpp:382] ip2 -> ip2
I0428 19:49:59.803417 26903 net.cpp:124] Setting up ip2
I0428 19:49:59.803424 26903 net.cpp:131] Top shape: 100 10 (1000)
I0428 19:49:59.803427 26903 net.cpp:139] Memory required for data: 2098800
I0428 19:49:59.803431 26903 layer_factory.hpp:77] Creating layer relu2
I0428 19:49:59.803436 26903 net.cpp:86] Creating Layer relu2
I0428 19:49:59.803438 26903 net.cpp:408] relu2 <- ip2
I0428 19:49:59.803445 26903 net.cpp:369] relu2 -> ip2 (in-place)
I0428 19:49:59.803609 26903 net.cpp:124] Setting up relu2
I0428 19:49:59.803617 26903 net.cpp:131] Top shape: 100 10 (1000)
I0428 19:49:59.803620 26903 net.cpp:139] Memory required for data: 2102800
I0428 19:49:59.803623 26903 layer_factory.hpp:77] Creating layer ip2_relu2_0_split
I0428 19:49:59.803627 26903 net.cpp:86] Creating Layer ip2_relu2_0_split
I0428 19:49:59.803630 26903 net.cpp:408] ip2_relu2_0_split <- ip2
I0428 19:49:59.803637 26903 net.cpp:382] ip2_relu2_0_split -> ip2_relu2_0_split_0
I0428 19:49:59.803652 26903 net.cpp:382] ip2_relu2_0_split -> ip2_relu2_0_split_1
I0428 19:49:59.803702 26903 net.cpp:124] Setting up ip2_relu2_0_split
I0428 19:49:59.803707 26903 net.cpp:131] Top shape: 100 10 (1000)
I0428 19:49:59.803711 26903 net.cpp:131] Top shape: 100 10 (1000)
I0428 19:49:59.803714 26903 net.cpp:139] Memory required for data: 2110800
I0428 19:49:59.803716 26903 layer_factory.hpp:77] Creating layer accuracy
I0428 19:49:59.803722 26903 net.cpp:86] Creating Layer accuracy
I0428 19:49:59.803725 26903 net.cpp:408] accuracy <- ip2_relu2_0_split_0
I0428 19:49:59.803730 26903 net.cpp:408] accuracy <- label_mnist_1_split_0
I0428 19:49:59.803742 26903 net.cpp:382] accuracy -> accuracy
…
