…
I0428 20:27:43.483631  3090 net.cpp:296] The NetState phase (0) differed from the phase (1) specified by a rule in layer mnist
I0428 20:27:43.483649  3090 net.cpp:296] The NetState phase (0) differed from the phase (1) specified by a rule in layer accuracy
I0428 20:27:43.483742  3090 net.cpp:53] Initializing net from parameters: 
name: "LeNet"
state {
  phase: TRAIN
  level: 0
  stage: ""
}
layer {
  name: "mnist"
  type: "Data"
  top: "data"
  top: "label"
  include {
    phase: TRAIN
  }
  transform_param {
    scale: 0.00390625
  }
  data_param {
    source: "examples/mnist/mnist_train_lmdb"
    batch_size: 64
    backend: LMDB
  }
}
layer {
  name: "conv0"
  type: "Convolution"
  bottom: "data"
  top: "conv0"
  param {
    lr_mult: 1
  }
  param {
    lr_mult: 2
  }
  convolution_param {
    num_output: 100
    kernel_size: 5
    stride: 1
    weight_filler {
      type: "xavier"
    }
    bias_filler {
      type: "constant"
    }
  }
}
layer {
  name: "pool0"
  type: "Pooling"
  bottom: "conv0"
  top: "pool0"
  pooling_param {
    pool: MAX
    kernel_size: 2
    stride: 2
  }
}
layer {
  name: "conv1"
  type: "Convolution"
  bottom: "pool0"
  top: "conv1"
  param {
    lr_mult: 1
  }
  param {
    lr_mult: 2
  }
  convolution_param {
    num_output: 5
    kernel_size: 5
    stride: 1
    weight_filler {
      type: "xavier"
    }
    bias_filler {
      type: "constant"
    }
  }
}
layer {
  name: "pool1"
  type: "Pooling"
  bottom: "conv1"
  top: "pool1"
  pooling_param {
    pool: MAX
    kernel_size: 2
    stride: 2
  }
}
layer {
  name: "ip1"
  type: "InnerProduct"
  bottom: "pool1"
  top: "ip1"
  param {
    lr_mult: 1
  }
  param {
    lr_mult: 2
  }
  inner_product_param {
    num_output: 50
    weight_filler {
      type: "xavier"
    }
    bias_filler {
      type: "constant"
    }
  }
}
layer {
  name: "relu1"
  type: "ReLU"
  bottom: "ip1"
  top: "ip1"
}
layer {
  name: "ip2"
  type: "InnerProduct"
  bottom: "ip1"
  top: "ip2"
  param {
    lr_mult: 1
  }
  param {
    lr_mult: 2
  }
  inner_product_param {
    num_output: 10
    weight_filler {
      type: "xavier"
    }
    bias_filler {
      type: "constant"
    }
  }
}
layer {
  name: "relu2"
  type: "ReLU"
  bottom: "ip2"
  top: "ip2"
}
layer {
  name: "loss"
  type: "SoftmaxWithLoss"
  bottom: "ip2"
  bottom: "label"
  top: "loss"
}
I0428 20:27:43.483821  3090 layer_factory.hpp:77] Creating layer mnist
I0428 20:27:43.483921  3090 db_lmdb.cpp:35] Opened lmdb examples/mnist/mnist_train_lmdb
I0428 20:27:43.483947  3090 net.cpp:86] Creating Layer mnist
I0428 20:27:43.483954  3090 net.cpp:382] mnist -> data
I0428 20:27:43.483976  3090 net.cpp:382] mnist -> label
I0428 20:27:43.485074  3090 data_layer.cpp:45] output data size: 64,1,28,28
I0428 20:27:43.487644  3090 net.cpp:124] Setting up mnist
I0428 20:27:43.487668  3090 net.cpp:131] Top shape: 64 1 28 28 (50176)
I0428 20:27:43.487676  3090 net.cpp:131] Top shape: 64 (64)
I0428 20:27:43.487680  3090 net.cpp:139] Memory required for data: 200960
I0428 20:27:43.487687  3090 layer_factory.hpp:77] Creating layer conv0
I0428 20:27:43.487702  3090 net.cpp:86] Creating Layer conv0
I0428 20:27:43.487707  3090 net.cpp:408] conv0 <- data
I0428 20:27:43.487722  3090 net.cpp:382] conv0 -> conv0
I0428 20:27:43.780544  3090 net.cpp:124] Setting up conv0
I0428 20:27:43.780576  3090 net.cpp:131] Top shape: 64 100 24 24 (3686400)
I0428 20:27:43.780581  3090 net.cpp:139] Memory required for data: 14946560
I0428 20:27:43.780622  3090 layer_factory.hpp:77] Creating layer pool0
I0428 20:27:43.780637  3090 net.cpp:86] Creating Layer pool0
I0428 20:27:43.780640  3090 net.cpp:408] pool0 <- conv0
I0428 20:27:43.780647  3090 net.cpp:382] pool0 -> pool0
I0428 20:27:43.780704  3090 net.cpp:124] Setting up pool0
I0428 20:27:43.780716  3090 net.cpp:131] Top shape: 64 100 12 12 (921600)
I0428 20:27:43.780720  3090 net.cpp:139] Memory required for data: 18632960
I0428 20:27:43.780725  3090 layer_factory.hpp:77] Creating layer conv1
I0428 20:27:43.780736  3090 net.cpp:86] Creating Layer conv1
I0428 20:27:43.780740  3090 net.cpp:408] conv1 <- pool0
I0428 20:27:43.780746  3090 net.cpp:382] conv1 -> conv1
I0428 20:27:43.784051  3090 net.cpp:124] Setting up conv1
I0428 20:27:43.784070  3090 net.cpp:131] Top shape: 64 5 8 8 (20480)
I0428 20:27:43.784075  3090 net.cpp:139] Memory required for data: 18714880
I0428 20:27:43.784085  3090 layer_factory.hpp:77] Creating layer pool1
I0428 20:27:43.784096  3090 net.cpp:86] Creating Layer pool1
I0428 20:27:43.784101  3090 net.cpp:408] pool1 <- conv1
I0428 20:27:43.784106  3090 net.cpp:382] pool1 -> pool1
I0428 20:27:43.784152  3090 net.cpp:124] Setting up pool1
I0428 20:27:43.784159  3090 net.cpp:131] Top shape: 64 5 4 4 (5120)
I0428 20:27:43.784162  3090 net.cpp:139] Memory required for data: 18735360
I0428 20:27:43.784167  3090 layer_factory.hpp:77] Creating layer ip1
I0428 20:27:43.784174  3090 net.cpp:86] Creating Layer ip1
I0428 20:27:43.784178  3090 net.cpp:408] ip1 <- pool1
I0428 20:27:43.784184  3090 net.cpp:382] ip1 -> ip1
I0428 20:27:43.784332  3090 net.cpp:124] Setting up ip1
I0428 20:27:43.784340  3090 net.cpp:131] Top shape: 64 50 (3200)
I0428 20:27:43.784344  3090 net.cpp:139] Memory required for data: 18748160
I0428 20:27:43.784353  3090 layer_factory.hpp:77] Creating layer relu1
I0428 20:27:43.784359  3090 net.cpp:86] Creating Layer relu1
I0428 20:27:43.784363  3090 net.cpp:408] relu1 <- ip1
I0428 20:27:43.784368  3090 net.cpp:369] relu1 -> ip1 (in-place)
I0428 20:27:43.784566  3090 net.cpp:124] Setting up relu1
I0428 20:27:43.784576  3090 net.cpp:131] Top shape: 64 50 (3200)
I0428 20:27:43.784580  3090 net.cpp:139] Memory required for data: 18760960
I0428 20:27:43.784584  3090 layer_factory.hpp:77] Creating layer ip2
I0428 20:27:43.784591  3090 net.cpp:86] Creating Layer ip2
I0428 20:27:43.784595  3090 net.cpp:408] ip2 <- ip1
I0428 20:27:43.784600  3090 net.cpp:382] ip2 -> ip2
I0428 20:27:43.784715  3090 net.cpp:124] Setting up ip2
I0428 20:27:43.784723  3090 net.cpp:131] Top shape: 64 10 (640)
I0428 20:27:43.784728  3090 net.cpp:139] Memory required for data: 18763520
I0428 20:27:43.784734  3090 layer_factory.hpp:77] Creating layer relu2
I0428 20:27:43.784740  3090 net.cpp:86] Creating Layer relu2
I0428 20:27:43.784744  3090 net.cpp:408] relu2 <- ip2
I0428 20:27:43.784749  3090 net.cpp:369] relu2 -> ip2 (in-place)
I0428 20:27:43.785658  3090 net.cpp:124] Setting up relu2
I0428 20:27:43.785676  3090 net.cpp:131] Top shape: 64 10 (640)
I0428 20:27:43.785681  3090 net.cpp:139] Memory required for data: 18766080
I0428 20:27:43.785684  3090 layer_factory.hpp:77] Creating layer loss
I0428 20:27:43.785692  3090 net.cpp:86] Creating Layer loss
I0428 20:27:43.785696  3090 net.cpp:408] loss <- ip2
I0428 20:27:43.785701  3090 net.cpp:408] loss <- label
I0428 20:27:43.785708  3090 net.cpp:382] loss -> loss
I0428 20:27:43.785732  3090 layer_factory.hpp:77] Creating layer loss
…
I0428 20:27:43.786500  3090 solver.cpp:173] Creating test net (#0) specified by net file: ECE595/mnist/train_test/var_everything2/lenet_train_test1493.prototxt
I0428 20:27:43.786540  3090 net.cpp:296] The NetState phase (1) differed from the phase (0) specified by a rule in layer mnist
I0428 20:27:43.786641  3090 net.cpp:53] Initializing net from parameters: 
name: "LeNet"
state {
  phase: TEST
}
layer {
  name: "mnist"
  type: "Data"
  top: "data"
  top: "label"
  include {
    phase: TEST
  }
  transform_param {
    scale: 0.00390625
  }
  data_param {
    source: "examples/mnist/mnist_test_lmdb"
    batch_size: 100
    backend: LMDB
  }
}
layer {
  name: "conv0"
  type: "Convolution"
  bottom: "data"
  top: "conv0"
  param {
    lr_mult: 1
  }
  param {
    lr_mult: 2
  }
  convolution_param {
    num_output: 100
    kernel_size: 5
    stride: 1
    weight_filler {
      type: "xavier"
    }
    bias_filler {
      type: "constant"
    }
  }
}
layer {
  name: "pool0"
  type: "Pooling"
  bottom: "conv0"
  top: "pool0"
  pooling_param {
    pool: MAX
    kernel_size: 2
    stride: 2
  }
}
layer {
  name: "conv1"
  type: "Convolution"
  bottom: "pool0"
  top: "conv1"
  param {
    lr_mult: 1
  }
  param {
    lr_mult: 2
  }
  convolution_param {
    num_output: 5
    kernel_size: 5
    stride: 1
    weight_filler {
      type: "xavier"
    }
    bias_filler {
      type: "constant"
    }
  }
}
layer {
  name: "pool1"
  type: "Pooling"
  bottom: "conv1"
  top: "pool1"
  pooling_param {
    pool: MAX
    kernel_size: 2
    stride: 2
  }
}
layer {
  name: "ip1"
  type: "InnerProduct"
  bottom: "pool1"
  top: "ip1"
  param {
    lr_mult: 1
  }
  param {
    lr_mult: 2
  }
  inner_product_param {
    num_output: 50
    weight_filler {
      type: "xavier"
    }
    bias_filler {
      type: "constant"
    }
  }
}
layer {
  name: "relu1"
  type: "ReLU"
  bottom: "ip1"
  top: "ip1"
}
layer {
  name: "ip2"
  type: "InnerProduct"
  bottom: "ip1"
  top: "ip2"
  param {
    lr_mult: 1
  }
  param {
    lr_mult: 2
  }
  inner_product_param {
    num_output: 10
    weight_filler {
      type: "xavier"
    }
    bias_filler {
      type: "constant"
    }
  }
}
layer {
  name: "relu2"
  type: "ReLU"
  bottom: "ip2"
  top: "ip2"
}
layer {
  name: "accuracy"
  type: "Accuracy"
  bottom: "ip2"
  bottom: "label"
  top: "accuracy"
  include {
    phase: TEST
  }
}
layer {
  name: "loss"
  type: "SoftmaxWithLoss"
  bottom: "ip2"
  bottom: "label"
  top: "loss"
}
I0428 20:27:43.786716  3090 layer_factory.hpp:77] Creating layer mnist
I0428 20:27:43.786768  3090 db_lmdb.cpp:35] Opened lmdb examples/mnist/mnist_test_lmdb
I0428 20:27:43.786782  3090 net.cpp:86] Creating Layer mnist
I0428 20:27:43.786788  3090 net.cpp:382] mnist -> data
I0428 20:27:43.786798  3090 net.cpp:382] mnist -> label
I0428 20:27:43.786898  3090 data_layer.cpp:45] output data size: 100,1,28,28
I0428 20:27:43.789160  3090 net.cpp:124] Setting up mnist
I0428 20:27:43.789177  3090 net.cpp:131] Top shape: 100 1 28 28 (78400)
I0428 20:27:43.789183  3090 net.cpp:131] Top shape: 100 (100)
I0428 20:27:43.789187  3090 net.cpp:139] Memory required for data: 314000
I0428 20:27:43.789192  3090 layer_factory.hpp:77] Creating layer label_mnist_1_split
I0428 20:27:43.789216  3090 net.cpp:86] Creating Layer label_mnist_1_split
I0428 20:27:43.789227  3090 net.cpp:408] label_mnist_1_split <- label
I0428 20:27:43.789232  3090 net.cpp:382] label_mnist_1_split -> label_mnist_1_split_0
I0428 20:27:43.789243  3090 net.cpp:382] label_mnist_1_split -> label_mnist_1_split_1
I0428 20:27:43.789399  3090 net.cpp:124] Setting up label_mnist_1_split
I0428 20:27:43.789410  3090 net.cpp:131] Top shape: 100 (100)
I0428 20:27:43.789415  3090 net.cpp:131] Top shape: 100 (100)
I0428 20:27:43.789419  3090 net.cpp:139] Memory required for data: 314800
I0428 20:27:43.789423  3090 layer_factory.hpp:77] Creating layer conv0
I0428 20:27:43.789433  3090 net.cpp:86] Creating Layer conv0
I0428 20:27:43.789438  3090 net.cpp:408] conv0 <- data
I0428 20:27:43.789444  3090 net.cpp:382] conv0 -> conv0
I0428 20:27:43.791195  3090 net.cpp:124] Setting up conv0
I0428 20:27:43.791213  3090 net.cpp:131] Top shape: 100 100 24 24 (5760000)
I0428 20:27:43.791218  3090 net.cpp:139] Memory required for data: 23354800
I0428 20:27:43.791229  3090 layer_factory.hpp:77] Creating layer pool0
I0428 20:27:43.791237  3090 net.cpp:86] Creating Layer pool0
I0428 20:27:43.791241  3090 net.cpp:408] pool0 <- conv0
I0428 20:27:43.791247  3090 net.cpp:382] pool0 -> pool0
I0428 20:27:43.791291  3090 net.cpp:124] Setting up pool0
I0428 20:27:43.791301  3090 net.cpp:131] Top shape: 100 100 12 12 (1440000)
I0428 20:27:43.791303  3090 net.cpp:139] Memory required for data: 29114800
I0428 20:27:43.791307  3090 layer_factory.hpp:77] Creating layer conv1
I0428 20:27:43.791318  3090 net.cpp:86] Creating Layer conv1
I0428 20:27:43.791322  3090 net.cpp:408] conv1 <- pool0
I0428 20:27:43.791330  3090 net.cpp:382] conv1 -> conv1
I0428 20:27:43.793210  3090 net.cpp:124] Setting up conv1
I0428 20:27:43.793236  3090 net.cpp:131] Top shape: 100 5 8 8 (32000)
I0428 20:27:43.793241  3090 net.cpp:139] Memory required for data: 29242800
I0428 20:27:43.793252  3090 layer_factory.hpp:77] Creating layer pool1
I0428 20:27:43.793264  3090 net.cpp:86] Creating Layer pool1
I0428 20:27:43.793268  3090 net.cpp:408] pool1 <- conv1
I0428 20:27:43.793275  3090 net.cpp:382] pool1 -> pool1
I0428 20:27:43.793320  3090 net.cpp:124] Setting up pool1
I0428 20:27:43.793331  3090 net.cpp:131] Top shape: 100 5 4 4 (8000)
I0428 20:27:43.793339  3090 net.cpp:139] Memory required for data: 29274800
I0428 20:27:43.793344  3090 layer_factory.hpp:77] Creating layer ip1
I0428 20:27:43.793351  3090 net.cpp:86] Creating Layer ip1
I0428 20:27:43.793356  3090 net.cpp:408] ip1 <- pool1
I0428 20:27:43.793365  3090 net.cpp:382] ip1 -> ip1
I0428 20:27:43.793517  3090 net.cpp:124] Setting up ip1
I0428 20:27:43.793527  3090 net.cpp:131] Top shape: 100 50 (5000)
I0428 20:27:43.793530  3090 net.cpp:139] Memory required for data: 29294800
I0428 20:27:43.793540  3090 layer_factory.hpp:77] Creating layer relu1
I0428 20:27:43.793548  3090 net.cpp:86] Creating Layer relu1
I0428 20:27:43.793552  3090 net.cpp:408] relu1 <- ip1
I0428 20:27:43.793560  3090 net.cpp:369] relu1 -> ip1 (in-place)
I0428 20:27:43.793759  3090 net.cpp:124] Setting up relu1
I0428 20:27:43.793771  3090 net.cpp:131] Top shape: 100 50 (5000)
I0428 20:27:43.793776  3090 net.cpp:139] Memory required for data: 29314800
I0428 20:27:43.793787  3090 layer_factory.hpp:77] Creating layer ip2
I0428 20:27:43.793797  3090 net.cpp:86] Creating Layer ip2
I0428 20:27:43.793802  3090 net.cpp:408] ip2 <- ip1
I0428 20:27:43.793808  3090 net.cpp:382] ip2 -> ip2
I0428 20:27:43.793938  3090 net.cpp:124] Setting up ip2
I0428 20:27:43.793947  3090 net.cpp:131] Top shape: 100 10 (1000)
I0428 20:27:43.793951  3090 net.cpp:139] Memory required for data: 29318800
I0428 20:27:43.793958  3090 layer_factory.hpp:77] Creating layer relu2
I0428 20:27:43.793963  3090 net.cpp:86] Creating Layer relu2
I0428 20:27:43.793967  3090 net.cpp:408] relu2 <- ip2
I0428 20:27:43.793982  3090 net.cpp:369] relu2 -> ip2 (in-place)
I0428 20:27:43.794224  3090 net.cpp:124] Setting up relu2
I0428 20:27:43.794234  3090 net.cpp:131] Top shape: 100 10 (1000)
I0428 20:27:43.794239  3090 net.cpp:139] Memory required for data: 29322800
I0428 20:27:43.794242  3090 layer_factory.hpp:77] Creating layer ip2_relu2_0_split
I0428 20:27:43.794247  3090 net.cpp:86] Creating Layer ip2_relu2_0_split
I0428 20:27:43.794251  3090 net.cpp:408] ip2_relu2_0_split <- ip2
I0428 20:27:43.794257  3090 net.cpp:382] ip2_relu2_0_split -> ip2_relu2_0_split_0
I0428 20:27:43.794276  3090 net.cpp:382] ip2_relu2_0_split -> ip2_relu2_0_split_1
I0428 20:27:43.794337  3090 net.cpp:124] Setting up ip2_relu2_0_split
I0428 20:27:43.794349  3090 net.cpp:131] Top shape: 100 10 (1000)
I0428 20:27:43.794359  3090 net.cpp:131] Top shape: 100 10 (1000)
I0428 20:27:43.794364  3090 net.cpp:139] Memory required for data: 29330800
I0428 20:27:43.794371  3090 layer_factory.hpp:77] Creating layer accuracy
I0428 20:27:43.794380  3090 net.cpp:86] Creating Layer accuracy
I0428 20:27:43.794384  3090 net.cpp:408] accuracy <- ip2_relu2_0_split_0
I0428 20:27:43.794389  3090 net.cpp:408] accuracy <- label_mnist_1_split_0
I0428 20:27:43.794396  3090 net.cpp:382] accuracy -> accuracy
…
