…
I0428 19:59:52.329248 29343 net.cpp:296] The NetState phase (0) differed from the phase (1) specified by a rule in layer mnist
I0428 19:59:52.329260 29343 net.cpp:296] The NetState phase (0) differed from the phase (1) specified by a rule in layer accuracy
I0428 19:59:52.329334 29343 net.cpp:53] Initializing net from parameters: 
name: "LeNet"
state {
  phase: TRAIN
  level: 0
  stage: ""
}
layer {
  name: "mnist"
  type: "Data"
  top: "data"
  top: "label"
  include {
    phase: TRAIN
  }
  transform_param {
    scale: 0.00390625
  }
  data_param {
    source: "examples/mnist/mnist_train_lmdb"
    batch_size: 64
    backend: LMDB
  }
}
layer {
  name: "conv0"
  type: "Convolution"
  bottom: "data"
  top: "conv0"
  param {
    lr_mult: 1
  }
  param {
    lr_mult: 2
  }
  convolution_param {
    num_output: 10
    kernel_size: 5
    stride: 1
    weight_filler {
      type: "xavier"
    }
    bias_filler {
      type: "constant"
    }
  }
}
layer {
  name: "pool0"
  type: "Pooling"
  bottom: "conv0"
  top: "pool0"
  pooling_param {
    pool: MAX
    kernel_size: 2
    stride: 2
  }
}
layer {
  name: "conv1"
  type: "Convolution"
  bottom: "pool0"
  top: "conv1"
  param {
    lr_mult: 1
  }
  param {
    lr_mult: 2
  }
  convolution_param {
    num_output: 25
    kernel_size: 5
    stride: 1
    weight_filler {
      type: "xavier"
    }
    bias_filler {
      type: "constant"
    }
  }
}
layer {
  name: "pool1"
  type: "Pooling"
  bottom: "conv1"
  top: "pool1"
  pooling_param {
    pool: MAX
    kernel_size: 2
    stride: 2
  }
}
layer {
  name: "ip1"
  type: "InnerProduct"
  bottom: "pool1"
  top: "ip1"
  param {
    lr_mult: 1
  }
  param {
    lr_mult: 2
  }
  inner_product_param {
    num_output: 10
    weight_filler {
      type: "xavier"
    }
    bias_filler {
      type: "constant"
    }
  }
}
layer {
  name: "relu1"
  type: "ReLU"
  bottom: "ip1"
  top: "ip1"
}
layer {
  name: "loss"
  type: "SoftmaxWithLoss"
  bottom: "ip1"
  bottom: "label"
  top: "loss"
}
I0428 19:59:52.329383 29343 layer_factory.hpp:77] Creating layer mnist
I0428 19:59:52.329460 29343 db_lmdb.cpp:35] Opened lmdb examples/mnist/mnist_train_lmdb
I0428 19:59:52.329479 29343 net.cpp:86] Creating Layer mnist
I0428 19:59:52.329484 29343 net.cpp:382] mnist -> data
I0428 19:59:52.329502 29343 net.cpp:382] mnist -> label
I0428 19:59:52.330365 29343 data_layer.cpp:45] output data size: 64,1,28,28
I0428 19:59:52.332442 29343 net.cpp:124] Setting up mnist
I0428 19:59:52.332455 29343 net.cpp:131] Top shape: 64 1 28 28 (50176)
I0428 19:59:52.332460 29343 net.cpp:131] Top shape: 64 (64)
I0428 19:59:52.332463 29343 net.cpp:139] Memory required for data: 200960
I0428 19:59:52.332469 29343 layer_factory.hpp:77] Creating layer conv0
I0428 19:59:52.332481 29343 net.cpp:86] Creating Layer conv0
I0428 19:59:52.332486 29343 net.cpp:408] conv0 <- data
I0428 19:59:52.332494 29343 net.cpp:382] conv0 -> conv0
I0428 19:59:52.565449 29343 net.cpp:124] Setting up conv0
I0428 19:59:52.565491 29343 net.cpp:131] Top shape: 64 10 24 24 (368640)
I0428 19:59:52.565495 29343 net.cpp:139] Memory required for data: 1675520
I0428 19:59:52.565510 29343 layer_factory.hpp:77] Creating layer pool0
I0428 19:59:52.565523 29343 net.cpp:86] Creating Layer pool0
I0428 19:59:52.565526 29343 net.cpp:408] pool0 <- conv0
I0428 19:59:52.565532 29343 net.cpp:382] pool0 -> pool0
I0428 19:59:52.565577 29343 net.cpp:124] Setting up pool0
I0428 19:59:52.565582 29343 net.cpp:131] Top shape: 64 10 12 12 (92160)
I0428 19:59:52.565601 29343 net.cpp:139] Memory required for data: 2044160
I0428 19:59:52.565604 29343 layer_factory.hpp:77] Creating layer conv1
I0428 19:59:52.565615 29343 net.cpp:86] Creating Layer conv1
I0428 19:59:52.565618 29343 net.cpp:408] conv1 <- pool0
I0428 19:59:52.565623 29343 net.cpp:382] conv1 -> conv1
I0428 19:59:52.568373 29343 net.cpp:124] Setting up conv1
I0428 19:59:52.568387 29343 net.cpp:131] Top shape: 64 25 8 8 (102400)
I0428 19:59:52.568392 29343 net.cpp:139] Memory required for data: 2453760
I0428 19:59:52.568399 29343 layer_factory.hpp:77] Creating layer pool1
I0428 19:59:52.568408 29343 net.cpp:86] Creating Layer pool1
I0428 19:59:52.568410 29343 net.cpp:408] pool1 <- conv1
I0428 19:59:52.568415 29343 net.cpp:382] pool1 -> pool1
I0428 19:59:52.568450 29343 net.cpp:124] Setting up pool1
I0428 19:59:52.568459 29343 net.cpp:131] Top shape: 64 25 4 4 (25600)
I0428 19:59:52.568460 29343 net.cpp:139] Memory required for data: 2556160
I0428 19:59:52.568464 29343 layer_factory.hpp:77] Creating layer ip1
I0428 19:59:52.568485 29343 net.cpp:86] Creating Layer ip1
I0428 19:59:52.568487 29343 net.cpp:408] ip1 <- pool1
I0428 19:59:52.568491 29343 net.cpp:382] ip1 -> ip1
I0428 19:59:52.569468 29343 net.cpp:124] Setting up ip1
I0428 19:59:52.569481 29343 net.cpp:131] Top shape: 64 10 (640)
I0428 19:59:52.569484 29343 net.cpp:139] Memory required for data: 2558720
I0428 19:59:52.569494 29343 layer_factory.hpp:77] Creating layer relu1
I0428 19:59:52.569499 29343 net.cpp:86] Creating Layer relu1
I0428 19:59:52.569502 29343 net.cpp:408] relu1 <- ip1
I0428 19:59:52.569507 29343 net.cpp:369] relu1 -> ip1 (in-place)
I0428 19:59:52.569682 29343 net.cpp:124] Setting up relu1
I0428 19:59:52.569690 29343 net.cpp:131] Top shape: 64 10 (640)
I0428 19:59:52.569694 29343 net.cpp:139] Memory required for data: 2561280
I0428 19:59:52.569696 29343 layer_factory.hpp:77] Creating layer loss
I0428 19:59:52.569707 29343 net.cpp:86] Creating Layer loss
I0428 19:59:52.569710 29343 net.cpp:408] loss <- ip1
I0428 19:59:52.569715 29343 net.cpp:408] loss <- label
I0428 19:59:52.569720 29343 net.cpp:382] loss -> loss
I0428 19:59:52.569731 29343 layer_factory.hpp:77] Creating layer loss
…
I0428 19:59:52.570899 29343 solver.cpp:173] Creating test net (#0) specified by net file: ECE595/mnist/train_test/var_everything2/lenet_train_test860.prototxt
I0428 19:59:52.570922 29343 net.cpp:296] The NetState phase (1) differed from the phase (0) specified by a rule in layer mnist
I0428 19:59:52.570993 29343 net.cpp:53] Initializing net from parameters: 
name: "LeNet"
state {
  phase: TEST
}
layer {
  name: "mnist"
  type: "Data"
  top: "data"
  top: "label"
  include {
    phase: TEST
  }
  transform_param {
    scale: 0.00390625
  }
  data_param {
    source: "examples/mnist/mnist_test_lmdb"
    batch_size: 100
    backend: LMDB
  }
}
layer {
  name: "conv0"
  type: "Convolution"
  bottom: "data"
  top: "conv0"
  param {
    lr_mult: 1
  }
  param {
    lr_mult: 2
  }
  convolution_param {
    num_output: 10
    kernel_size: 5
    stride: 1
    weight_filler {
      type: "xavier"
    }
    bias_filler {
      type: "constant"
    }
  }
}
layer {
  name: "pool0"
  type: "Pooling"
  bottom: "conv0"
  top: "pool0"
  pooling_param {
    pool: MAX
    kernel_size: 2
    stride: 2
  }
}
layer {
  name: "conv1"
  type: "Convolution"
  bottom: "pool0"
  top: "conv1"
  param {
    lr_mult: 1
  }
  param {
    lr_mult: 2
  }
  convolution_param {
    num_output: 25
    kernel_size: 5
    stride: 1
    weight_filler {
      type: "xavier"
    }
    bias_filler {
      type: "constant"
    }
  }
}
layer {
  name: "pool1"
  type: "Pooling"
  bottom: "conv1"
  top: "pool1"
  pooling_param {
    pool: MAX
    kernel_size: 2
    stride: 2
  }
}
layer {
  name: "ip1"
  type: "InnerProduct"
  bottom: "pool1"
  top: "ip1"
  param {
    lr_mult: 1
  }
  param {
    lr_mult: 2
  }
  inner_product_param {
    num_output: 10
    weight_filler {
      type: "xavier"
    }
    bias_filler {
      type: "constant"
    }
  }
}
layer {
  name: "relu1"
  type: "ReLU"
  bottom: "ip1"
  top: "ip1"
}
layer {
  name: "accuracy"
  type: "Accuracy"
  bottom: "ip1"
  bottom: "label"
  top: "accuracy"
  include {
    phase: TEST
  }
}
layer {
  name: "loss"
  type: "SoftmaxWithLoss"
  bottom: "ip1"
  bottom: "label"
  top: "loss"
}
I0428 19:59:52.571059 29343 layer_factory.hpp:77] Creating layer mnist
I0428 19:59:52.571104 29343 db_lmdb.cpp:35] Opened lmdb examples/mnist/mnist_test_lmdb
I0428 19:59:52.571115 29343 net.cpp:86] Creating Layer mnist
I0428 19:59:52.571120 29343 net.cpp:382] mnist -> data
I0428 19:59:52.571127 29343 net.cpp:382] mnist -> label
I0428 19:59:52.571209 29343 data_layer.cpp:45] output data size: 100,1,28,28
I0428 19:59:52.573125 29343 net.cpp:124] Setting up mnist
I0428 19:59:52.573139 29343 net.cpp:131] Top shape: 100 1 28 28 (78400)
I0428 19:59:52.573146 29343 net.cpp:131] Top shape: 100 (100)
I0428 19:59:52.573149 29343 net.cpp:139] Memory required for data: 314000
I0428 19:59:52.573153 29343 layer_factory.hpp:77] Creating layer label_mnist_1_split
I0428 19:59:52.573159 29343 net.cpp:86] Creating Layer label_mnist_1_split
I0428 19:59:52.573163 29343 net.cpp:408] label_mnist_1_split <- label
I0428 19:59:52.573168 29343 net.cpp:382] label_mnist_1_split -> label_mnist_1_split_0
I0428 19:59:52.573173 29343 net.cpp:382] label_mnist_1_split -> label_mnist_1_split_1
I0428 19:59:52.573242 29343 net.cpp:124] Setting up label_mnist_1_split
I0428 19:59:52.573251 29343 net.cpp:131] Top shape: 100 (100)
I0428 19:59:52.573253 29343 net.cpp:131] Top shape: 100 (100)
I0428 19:59:52.573256 29343 net.cpp:139] Memory required for data: 314800
I0428 19:59:52.573259 29343 layer_factory.hpp:77] Creating layer conv0
I0428 19:59:52.573268 29343 net.cpp:86] Creating Layer conv0
I0428 19:59:52.573271 29343 net.cpp:408] conv0 <- data
I0428 19:59:52.573277 29343 net.cpp:382] conv0 -> conv0
I0428 19:59:52.574105 29343 net.cpp:124] Setting up conv0
I0428 19:59:52.574115 29343 net.cpp:131] Top shape: 100 10 24 24 (576000)
I0428 19:59:52.574120 29343 net.cpp:139] Memory required for data: 2618800
I0428 19:59:52.574129 29343 layer_factory.hpp:77] Creating layer pool0
I0428 19:59:52.574136 29343 net.cpp:86] Creating Layer pool0
I0428 19:59:52.574138 29343 net.cpp:408] pool0 <- conv0
I0428 19:59:52.574142 29343 net.cpp:382] pool0 -> pool0
I0428 19:59:52.574177 29343 net.cpp:124] Setting up pool0
I0428 19:59:52.574184 29343 net.cpp:131] Top shape: 100 10 12 12 (144000)
I0428 19:59:52.574187 29343 net.cpp:139] Memory required for data: 3194800
I0428 19:59:52.574190 29343 layer_factory.hpp:77] Creating layer conv1
I0428 19:59:52.574198 29343 net.cpp:86] Creating Layer conv1
I0428 19:59:52.574201 29343 net.cpp:408] conv1 <- pool0
I0428 19:59:52.574206 29343 net.cpp:382] conv1 -> conv1
I0428 19:59:52.576252 29343 net.cpp:124] Setting up conv1
I0428 19:59:52.576264 29343 net.cpp:131] Top shape: 100 25 8 8 (160000)
I0428 19:59:52.576268 29343 net.cpp:139] Memory required for data: 3834800
I0428 19:59:52.576277 29343 layer_factory.hpp:77] Creating layer pool1
I0428 19:59:52.576283 29343 net.cpp:86] Creating Layer pool1
I0428 19:59:52.576297 29343 net.cpp:408] pool1 <- conv1
I0428 19:59:52.576303 29343 net.cpp:382] pool1 -> pool1
I0428 19:59:52.576344 29343 net.cpp:124] Setting up pool1
I0428 19:59:52.576350 29343 net.cpp:131] Top shape: 100 25 4 4 (40000)
I0428 19:59:52.576354 29343 net.cpp:139] Memory required for data: 3994800
I0428 19:59:52.576356 29343 layer_factory.hpp:77] Creating layer ip1
I0428 19:59:52.576362 29343 net.cpp:86] Creating Layer ip1
I0428 19:59:52.576365 29343 net.cpp:408] ip1 <- pool1
I0428 19:59:52.576370 29343 net.cpp:382] ip1 -> ip1
I0428 19:59:52.576496 29343 net.cpp:124] Setting up ip1
I0428 19:59:52.576504 29343 net.cpp:131] Top shape: 100 10 (1000)
I0428 19:59:52.576508 29343 net.cpp:139] Memory required for data: 3998800
I0428 19:59:52.576515 29343 layer_factory.hpp:77] Creating layer relu1
I0428 19:59:52.576520 29343 net.cpp:86] Creating Layer relu1
I0428 19:59:52.576524 29343 net.cpp:408] relu1 <- ip1
I0428 19:59:52.576534 29343 net.cpp:369] relu1 -> ip1 (in-place)
I0428 19:59:52.577363 29343 net.cpp:124] Setting up relu1
I0428 19:59:52.577374 29343 net.cpp:131] Top shape: 100 10 (1000)
I0428 19:59:52.577378 29343 net.cpp:139] Memory required for data: 4002800
I0428 19:59:52.577383 29343 layer_factory.hpp:77] Creating layer ip1_relu1_0_split
I0428 19:59:52.577389 29343 net.cpp:86] Creating Layer ip1_relu1_0_split
I0428 19:59:52.577392 29343 net.cpp:408] ip1_relu1_0_split <- ip1
I0428 19:59:52.577397 29343 net.cpp:382] ip1_relu1_0_split -> ip1_relu1_0_split_0
I0428 19:59:52.577411 29343 net.cpp:382] ip1_relu1_0_split -> ip1_relu1_0_split_1
I0428 19:59:52.577450 29343 net.cpp:124] Setting up ip1_relu1_0_split
I0428 19:59:52.577457 29343 net.cpp:131] Top shape: 100 10 (1000)
I0428 19:59:52.577461 29343 net.cpp:131] Top shape: 100 10 (1000)
I0428 19:59:52.577463 29343 net.cpp:139] Memory required for data: 4010800
I0428 19:59:52.577466 29343 layer_factory.hpp:77] Creating layer accuracy
I0428 19:59:52.577471 29343 net.cpp:86] Creating Layer accuracy
I0428 19:59:52.577474 29343 net.cpp:408] accuracy <- ip1_relu1_0_split_0
I0428 19:59:52.577478 29343 net.cpp:408] accuracy <- label_mnist_1_split_0
I0428 19:59:52.577482 29343 net.cpp:382] accuracy -> accuracy
…
