…
I0428 19:59:15.572983 29193 net.cpp:296] The NetState phase (0) differed from the phase (1) specified by a rule in layer mnist
I0428 19:59:15.573014 29193 net.cpp:296] The NetState phase (0) differed from the phase (1) specified by a rule in layer accuracy
I0428 19:59:15.573092 29193 net.cpp:53] Initializing net from parameters: 
name: "LeNet"
state {
  phase: TRAIN
  level: 0
  stage: ""
}
layer {
  name: "mnist"
  type: "Data"
  top: "data"
  top: "label"
  include {
    phase: TRAIN
  }
  transform_param {
    scale: 0.00390625
  }
  data_param {
    source: "examples/mnist/mnist_train_lmdb"
    batch_size: 64
    backend: LMDB
  }
}
layer {
  name: "conv0"
  type: "Convolution"
  bottom: "data"
  top: "conv0"
  param {
    lr_mult: 1
  }
  param {
    lr_mult: 2
  }
  convolution_param {
    num_output: 10
    kernel_size: 5
    stride: 1
    weight_filler {
      type: "xavier"
    }
    bias_filler {
      type: "constant"
    }
  }
}
layer {
  name: "pool0"
  type: "Pooling"
  bottom: "conv0"
  top: "pool0"
  pooling_param {
    pool: MAX
    kernel_size: 2
    stride: 2
  }
}
layer {
  name: "conv1"
  type: "Convolution"
  bottom: "pool0"
  top: "conv1"
  param {
    lr_mult: 1
  }
  param {
    lr_mult: 2
  }
  convolution_param {
    num_output: 10
    kernel_size: 5
    stride: 1
    weight_filler {
      type: "xavier"
    }
    bias_filler {
      type: "constant"
    }
  }
}
layer {
  name: "pool1"
  type: "Pooling"
  bottom: "conv1"
  top: "pool1"
  pooling_param {
    pool: MAX
    kernel_size: 2
    stride: 2
  }
}
layer {
  name: "ip1"
  type: "InnerProduct"
  bottom: "pool1"
  top: "ip1"
  param {
    lr_mult: 1
  }
  param {
    lr_mult: 2
  }
  inner_product_param {
    num_output: 25
    weight_filler {
      type: "xavier"
    }
    bias_filler {
      type: "constant"
    }
  }
}
layer {
  name: "relu1"
  type: "ReLU"
  bottom: "ip1"
  top: "ip1"
}
layer {
  name: "ip2"
  type: "InnerProduct"
  bottom: "ip1"
  top: "ip2"
  param {
    lr_mult: 1
  }
  param {
    lr_mult: 2
  }
  inner_product_param {
    num_output: 10
    weight_filler {
      type: "xavier"
    }
    bias_filler {
      type: "constant"
    }
  }
}
layer {
  name: "relu2"
  type: "ReLU"
  bottom: "ip2"
  top: "ip2"
}
layer {
  name: "ip3"
  type: "InnerProduct"
  bottom: "ip2"
  top: "ip3"
  param {
    lr_mult: 1
  }
  param {
    lr_mult: 2
  }
  inner_product_param {
    num_output: 10
    weight_filler {
      type: "xavier"
    }
    bias_filler {
      type: "constant"
    }
  }
}
layer {
  name: "relu3"
  type: "ReLU"
  bottom: "ip3"
  top: "ip3"
}
layer {
  name: "loss"
  type: "SoftmaxWithLoss"
  bottom: "ip3"
  bottom: "label"
  top: "loss"
}
I0428 19:59:15.573154 29193 layer_factory.hpp:77] Creating layer mnist
I0428 19:59:15.573264 29193 db_lmdb.cpp:35] Opened lmdb examples/mnist/mnist_train_lmdb
I0428 19:59:15.573282 29193 net.cpp:86] Creating Layer mnist
I0428 19:59:15.573288 29193 net.cpp:382] mnist -> data
I0428 19:59:15.573307 29193 net.cpp:382] mnist -> label
I0428 19:59:15.574308 29193 data_layer.cpp:45] output data size: 64,1,28,28
I0428 19:59:15.576530 29193 net.cpp:124] Setting up mnist
I0428 19:59:15.576560 29193 net.cpp:131] Top shape: 64 1 28 28 (50176)
I0428 19:59:15.576566 29193 net.cpp:131] Top shape: 64 (64)
I0428 19:59:15.576570 29193 net.cpp:139] Memory required for data: 200960
I0428 19:59:15.576575 29193 layer_factory.hpp:77] Creating layer conv0
I0428 19:59:15.576587 29193 net.cpp:86] Creating Layer conv0
I0428 19:59:15.576604 29193 net.cpp:408] conv0 <- data
I0428 19:59:15.576614 29193 net.cpp:382] conv0 -> conv0
I0428 19:59:15.802548 29193 net.cpp:124] Setting up conv0
I0428 19:59:15.802574 29193 net.cpp:131] Top shape: 64 10 24 24 (368640)
I0428 19:59:15.802577 29193 net.cpp:139] Memory required for data: 1675520
I0428 19:59:15.802592 29193 layer_factory.hpp:77] Creating layer pool0
I0428 19:59:15.802605 29193 net.cpp:86] Creating Layer pool0
I0428 19:59:15.802609 29193 net.cpp:408] pool0 <- conv0
I0428 19:59:15.802614 29193 net.cpp:382] pool0 -> pool0
I0428 19:59:15.802692 29193 net.cpp:124] Setting up pool0
I0428 19:59:15.802700 29193 net.cpp:131] Top shape: 64 10 12 12 (92160)
I0428 19:59:15.802703 29193 net.cpp:139] Memory required for data: 2044160
I0428 19:59:15.802706 29193 layer_factory.hpp:77] Creating layer conv1
I0428 19:59:15.802716 29193 net.cpp:86] Creating Layer conv1
I0428 19:59:15.802719 29193 net.cpp:408] conv1 <- pool0
I0428 19:59:15.802724 29193 net.cpp:382] conv1 -> conv1
I0428 19:59:15.805573 29193 net.cpp:124] Setting up conv1
I0428 19:59:15.805603 29193 net.cpp:131] Top shape: 64 10 8 8 (40960)
I0428 19:59:15.805606 29193 net.cpp:139] Memory required for data: 2208000
I0428 19:59:15.805614 29193 layer_factory.hpp:77] Creating layer pool1
I0428 19:59:15.805621 29193 net.cpp:86] Creating Layer pool1
I0428 19:59:15.805624 29193 net.cpp:408] pool1 <- conv1
I0428 19:59:15.805646 29193 net.cpp:382] pool1 -> pool1
I0428 19:59:15.805685 29193 net.cpp:124] Setting up pool1
I0428 19:59:15.805691 29193 net.cpp:131] Top shape: 64 10 4 4 (10240)
I0428 19:59:15.805693 29193 net.cpp:139] Memory required for data: 2248960
I0428 19:59:15.805696 29193 layer_factory.hpp:77] Creating layer ip1
I0428 19:59:15.805704 29193 net.cpp:86] Creating Layer ip1
I0428 19:59:15.805707 29193 net.cpp:408] ip1 <- pool1
I0428 19:59:15.805712 29193 net.cpp:382] ip1 -> ip1
I0428 19:59:15.805833 29193 net.cpp:124] Setting up ip1
I0428 19:59:15.805841 29193 net.cpp:131] Top shape: 64 25 (1600)
I0428 19:59:15.805845 29193 net.cpp:139] Memory required for data: 2255360
I0428 19:59:15.805851 29193 layer_factory.hpp:77] Creating layer relu1
I0428 19:59:15.805857 29193 net.cpp:86] Creating Layer relu1
I0428 19:59:15.805860 29193 net.cpp:408] relu1 <- ip1
I0428 19:59:15.805866 29193 net.cpp:369] relu1 -> ip1 (in-place)
I0428 19:59:15.806046 29193 net.cpp:124] Setting up relu1
I0428 19:59:15.806054 29193 net.cpp:131] Top shape: 64 25 (1600)
I0428 19:59:15.806057 29193 net.cpp:139] Memory required for data: 2261760
I0428 19:59:15.806061 29193 layer_factory.hpp:77] Creating layer ip2
I0428 19:59:15.806068 29193 net.cpp:86] Creating Layer ip2
I0428 19:59:15.806071 29193 net.cpp:408] ip2 <- ip1
I0428 19:59:15.806077 29193 net.cpp:382] ip2 -> ip2
I0428 19:59:15.806179 29193 net.cpp:124] Setting up ip2
I0428 19:59:15.806185 29193 net.cpp:131] Top shape: 64 10 (640)
I0428 19:59:15.806187 29193 net.cpp:139] Memory required for data: 2264320
I0428 19:59:15.806192 29193 layer_factory.hpp:77] Creating layer relu2
I0428 19:59:15.806198 29193 net.cpp:86] Creating Layer relu2
I0428 19:59:15.806201 29193 net.cpp:408] relu2 <- ip2
I0428 19:59:15.806205 29193 net.cpp:369] relu2 -> ip2 (in-place)
I0428 19:59:15.806910 29193 net.cpp:124] Setting up relu2
I0428 19:59:15.806921 29193 net.cpp:131] Top shape: 64 10 (640)
I0428 19:59:15.806941 29193 net.cpp:139] Memory required for data: 2266880
I0428 19:59:15.806943 29193 layer_factory.hpp:77] Creating layer ip3
I0428 19:59:15.806951 29193 net.cpp:86] Creating Layer ip3
I0428 19:59:15.806954 29193 net.cpp:408] ip3 <- ip2
I0428 19:59:15.806958 29193 net.cpp:382] ip3 -> ip3
I0428 19:59:15.807070 29193 net.cpp:124] Setting up ip3
I0428 19:59:15.807076 29193 net.cpp:131] Top shape: 64 10 (640)
I0428 19:59:15.807078 29193 net.cpp:139] Memory required for data: 2269440
I0428 19:59:15.807086 29193 layer_factory.hpp:77] Creating layer relu3
I0428 19:59:15.807090 29193 net.cpp:86] Creating Layer relu3
I0428 19:59:15.807095 29193 net.cpp:408] relu3 <- ip3
I0428 19:59:15.807098 29193 net.cpp:369] relu3 -> ip3 (in-place)
I0428 19:59:15.807312 29193 net.cpp:124] Setting up relu3
I0428 19:59:15.807320 29193 net.cpp:131] Top shape: 64 10 (640)
I0428 19:59:15.807324 29193 net.cpp:139] Memory required for data: 2272000
I0428 19:59:15.807327 29193 layer_factory.hpp:77] Creating layer loss
I0428 19:59:15.807334 29193 net.cpp:86] Creating Layer loss
I0428 19:59:15.807337 29193 net.cpp:408] loss <- ip3
I0428 19:59:15.807341 29193 net.cpp:408] loss <- label
I0428 19:59:15.807346 29193 net.cpp:382] loss -> loss
I0428 19:59:15.807379 29193 layer_factory.hpp:77] Creating layer loss
…
I0428 19:59:15.808091 29193 solver.cpp:173] Creating test net (#0) specified by net file: ECE595/mnist/train_test/var_everything2/lenet_train_test842.prototxt
I0428 19:59:15.808133 29193 net.cpp:296] The NetState phase (1) differed from the phase (0) specified by a rule in layer mnist
I0428 19:59:15.808248 29193 net.cpp:53] Initializing net from parameters: 
name: "LeNet"
state {
  phase: TEST
}
layer {
  name: "mnist"
  type: "Data"
  top: "data"
  top: "label"
  include {
    phase: TEST
  }
  transform_param {
    scale: 0.00390625
  }
  data_param {
    source: "examples/mnist/mnist_test_lmdb"
    batch_size: 100
    backend: LMDB
  }
}
layer {
  name: "conv0"
  type: "Convolution"
  bottom: "data"
  top: "conv0"
  param {
    lr_mult: 1
  }
  param {
    lr_mult: 2
  }
  convolution_param {
    num_output: 10
    kernel_size: 5
    stride: 1
    weight_filler {
      type: "xavier"
    }
    bias_filler {
      type: "constant"
    }
  }
}
layer {
  name: "pool0"
  type: "Pooling"
  bottom: "conv0"
  top: "pool0"
  pooling_param {
    pool: MAX
    kernel_size: 2
    stride: 2
  }
}
layer {
  name: "conv1"
  type: "Convolution"
  bottom: "pool0"
  top: "conv1"
  param {
    lr_mult: 1
  }
  param {
    lr_mult: 2
  }
  convolution_param {
    num_output: 10
    kernel_size: 5
    stride: 1
    weight_filler {
      type: "xavier"
    }
    bias_filler {
      type: "constant"
    }
  }
}
layer {
  name: "pool1"
  type: "Pooling"
  bottom: "conv1"
  top: "pool1"
  pooling_param {
    pool: MAX
    kernel_size: 2
    stride: 2
  }
}
layer {
  name: "ip1"
  type: "InnerProduct"
  bottom: "pool1"
  top: "ip1"
  param {
    lr_mult: 1
  }
  param {
    lr_mult: 2
  }
  inner_product_param {
    num_output: 25
    weight_filler {
      type: "xavier"
    }
    bias_filler {
      type: "constant"
    }
  }
}
layer {
  name: "relu1"
  type: "ReLU"
  bottom: "ip1"
  top: "ip1"
}
layer {
  name: "ip2"
  type: "InnerProduct"
  bottom: "ip1"
  top: "ip2"
  param {
    lr_mult: 1
  }
  param {
    lr_mult: 2
  }
  inner_product_param {
    num_output: 10
    weight_filler {
      type: "xavier"
    }
    bias_filler {
      type: "constant"
    }
  }
}
layer {
  name: "relu2"
  type: "ReLU"
  bottom: "ip2"
  top: "ip2"
}
layer {
  name: "ip3"
  type: "InnerProduct"
  bottom: "ip2"
  top: "ip3"
  param {
    lr_mult: 1
  }
  param {
    lr_mult: 2
  }
  inner_product_param {
    num_output: 10
    weight_filler {
      type: "xavier"
    }
    bias_filler {
      type: "constant"
    }
  }
}
layer {
  name: "relu3"
  type: "ReLU"
  bottom: "ip3"
  top: "ip3"
}
layer {
  name: "accuracy"
  type: "Accuracy"
  bottom: "ip3"
  bottom: "label"
  top: "accuracy"
  include {
    phase: TEST
  }
}
layer {
  name: "loss"
  type: "SoftmaxWithLoss"
  bottom: "ip3"
  bottom: "label"
  top: "loss"
}
I0428 19:59:15.808334 29193 layer_factory.hpp:77] Creating layer mnist
I0428 19:59:15.808392 29193 db_lmdb.cpp:35] Opened lmdb examples/mnist/mnist_test_lmdb
I0428 19:59:15.808404 29193 net.cpp:86] Creating Layer mnist
I0428 19:59:15.808408 29193 net.cpp:382] mnist -> data
I0428 19:59:15.808418 29193 net.cpp:382] mnist -> label
I0428 19:59:15.808529 29193 data_layer.cpp:45] output data size: 100,1,28,28
I0428 19:59:15.810776 29193 net.cpp:124] Setting up mnist
I0428 19:59:15.810789 29193 net.cpp:131] Top shape: 100 1 28 28 (78400)
I0428 19:59:15.810794 29193 net.cpp:131] Top shape: 100 (100)
I0428 19:59:15.810797 29193 net.cpp:139] Memory required for data: 314000
I0428 19:59:15.810801 29193 layer_factory.hpp:77] Creating layer label_mnist_1_split
I0428 19:59:15.810837 29193 net.cpp:86] Creating Layer label_mnist_1_split
I0428 19:59:15.810840 29193 net.cpp:408] label_mnist_1_split <- label
I0428 19:59:15.810845 29193 net.cpp:382] label_mnist_1_split -> label_mnist_1_split_0
I0428 19:59:15.810853 29193 net.cpp:382] label_mnist_1_split -> label_mnist_1_split_1
I0428 19:59:15.810899 29193 net.cpp:124] Setting up label_mnist_1_split
I0428 19:59:15.810905 29193 net.cpp:131] Top shape: 100 (100)
I0428 19:59:15.810909 29193 net.cpp:131] Top shape: 100 (100)
I0428 19:59:15.810911 29193 net.cpp:139] Memory required for data: 314800
I0428 19:59:15.810914 29193 layer_factory.hpp:77] Creating layer conv0
I0428 19:59:15.810925 29193 net.cpp:86] Creating Layer conv0
I0428 19:59:15.810928 29193 net.cpp:408] conv0 <- data
I0428 19:59:15.810932 29193 net.cpp:382] conv0 -> conv0
I0428 19:59:15.812703 29193 net.cpp:124] Setting up conv0
I0428 19:59:15.812717 29193 net.cpp:131] Top shape: 100 10 24 24 (576000)
I0428 19:59:15.812721 29193 net.cpp:139] Memory required for data: 2618800
I0428 19:59:15.812731 29193 layer_factory.hpp:77] Creating layer pool0
I0428 19:59:15.812738 29193 net.cpp:86] Creating Layer pool0
I0428 19:59:15.812741 29193 net.cpp:408] pool0 <- conv0
I0428 19:59:15.812747 29193 net.cpp:382] pool0 -> pool0
I0428 19:59:15.812783 29193 net.cpp:124] Setting up pool0
I0428 19:59:15.812789 29193 net.cpp:131] Top shape: 100 10 12 12 (144000)
I0428 19:59:15.812793 29193 net.cpp:139] Memory required for data: 3194800
I0428 19:59:15.812795 29193 layer_factory.hpp:77] Creating layer conv1
I0428 19:59:15.812805 29193 net.cpp:86] Creating Layer conv1
I0428 19:59:15.812808 29193 net.cpp:408] conv1 <- pool0
I0428 19:59:15.812851 29193 net.cpp:382] conv1 -> conv1
I0428 19:59:15.815079 29193 net.cpp:124] Setting up conv1
I0428 19:59:15.815093 29193 net.cpp:131] Top shape: 100 10 8 8 (64000)
I0428 19:59:15.815096 29193 net.cpp:139] Memory required for data: 3450800
I0428 19:59:15.815104 29193 layer_factory.hpp:77] Creating layer pool1
I0428 19:59:15.815140 29193 net.cpp:86] Creating Layer pool1
I0428 19:59:15.815143 29193 net.cpp:408] pool1 <- conv1
I0428 19:59:15.815161 29193 net.cpp:382] pool1 -> pool1
I0428 19:59:15.815201 29193 net.cpp:124] Setting up pool1
I0428 19:59:15.815207 29193 net.cpp:131] Top shape: 100 10 4 4 (16000)
I0428 19:59:15.815208 29193 net.cpp:139] Memory required for data: 3514800
I0428 19:59:15.815212 29193 layer_factory.hpp:77] Creating layer ip1
I0428 19:59:15.815217 29193 net.cpp:86] Creating Layer ip1
I0428 19:59:15.815219 29193 net.cpp:408] ip1 <- pool1
I0428 19:59:15.815232 29193 net.cpp:382] ip1 -> ip1
I0428 19:59:15.815376 29193 net.cpp:124] Setting up ip1
I0428 19:59:15.815384 29193 net.cpp:131] Top shape: 100 25 (2500)
I0428 19:59:15.815397 29193 net.cpp:139] Memory required for data: 3524800
I0428 19:59:15.815404 29193 layer_factory.hpp:77] Creating layer relu1
I0428 19:59:15.815409 29193 net.cpp:86] Creating Layer relu1
I0428 19:59:15.815412 29193 net.cpp:408] relu1 <- ip1
I0428 19:59:15.815418 29193 net.cpp:369] relu1 -> ip1 (in-place)
I0428 19:59:15.815670 29193 net.cpp:124] Setting up relu1
I0428 19:59:15.815678 29193 net.cpp:131] Top shape: 100 25 (2500)
I0428 19:59:15.815682 29193 net.cpp:139] Memory required for data: 3534800
I0428 19:59:15.815701 29193 layer_factory.hpp:77] Creating layer ip2
I0428 19:59:15.815708 29193 net.cpp:86] Creating Layer ip2
I0428 19:59:15.815711 29193 net.cpp:408] ip2 <- ip1
I0428 19:59:15.815716 29193 net.cpp:382] ip2 -> ip2
I0428 19:59:15.815834 29193 net.cpp:124] Setting up ip2
I0428 19:59:15.815841 29193 net.cpp:131] Top shape: 100 10 (1000)
I0428 19:59:15.815845 29193 net.cpp:139] Memory required for data: 3538800
I0428 19:59:15.815850 29193 layer_factory.hpp:77] Creating layer relu2
I0428 19:59:15.815860 29193 net.cpp:86] Creating Layer relu2
I0428 19:59:15.815865 29193 net.cpp:408] relu2 <- ip2
I0428 19:59:15.815870 29193 net.cpp:369] relu2 -> ip2 (in-place)
I0428 19:59:15.816062 29193 net.cpp:124] Setting up relu2
I0428 19:59:15.816071 29193 net.cpp:131] Top shape: 100 10 (1000)
I0428 19:59:15.816088 29193 net.cpp:139] Memory required for data: 3542800
I0428 19:59:15.816092 29193 layer_factory.hpp:77] Creating layer ip3
I0428 19:59:15.816099 29193 net.cpp:86] Creating Layer ip3
I0428 19:59:15.816105 29193 net.cpp:408] ip3 <- ip2
I0428 19:59:15.816112 29193 net.cpp:382] ip3 -> ip3
I0428 19:59:15.816238 29193 net.cpp:124] Setting up ip3
I0428 19:59:15.816244 29193 net.cpp:131] Top shape: 100 10 (1000)
I0428 19:59:15.816248 29193 net.cpp:139] Memory required for data: 3546800
I0428 19:59:15.816256 29193 layer_factory.hpp:77] Creating layer relu3
I0428 19:59:15.816267 29193 net.cpp:86] Creating Layer relu3
I0428 19:59:15.816272 29193 net.cpp:408] relu3 <- ip3
I0428 19:59:15.816275 29193 net.cpp:369] relu3 -> ip3 (in-place)
I0428 19:59:15.817101 29193 net.cpp:124] Setting up relu3
I0428 19:59:15.817113 29193 net.cpp:131] Top shape: 100 10 (1000)
I0428 19:59:15.817117 29193 net.cpp:139] Memory required for data: 3550800
I0428 19:59:15.817121 29193 layer_factory.hpp:77] Creating layer ip3_relu3_0_split
I0428 19:59:15.817127 29193 net.cpp:86] Creating Layer ip3_relu3_0_split
I0428 19:59:15.817145 29193 net.cpp:408] ip3_relu3_0_split <- ip3
I0428 19:59:15.817150 29193 net.cpp:382] ip3_relu3_0_split -> ip3_relu3_0_split_0
I0428 19:59:15.817157 29193 net.cpp:382] ip3_relu3_0_split -> ip3_relu3_0_split_1
I0428 19:59:15.817212 29193 net.cpp:124] Setting up ip3_relu3_0_split
I0428 19:59:15.817217 29193 net.cpp:131] Top shape: 100 10 (1000)
I0428 19:59:15.817221 29193 net.cpp:131] Top shape: 100 10 (1000)
I0428 19:59:15.817224 29193 net.cpp:139] Memory required for data: 3558800
I0428 19:59:15.817226 29193 layer_factory.hpp:77] Creating layer accuracy
I0428 19:59:15.817232 29193 net.cpp:86] Creating Layer accuracy
I0428 19:59:15.817236 29193 net.cpp:408] accuracy <- ip3_relu3_0_split_0
I0428 19:59:15.817239 29193 net.cpp:408] accuracy <- label_mnist_1_split_0
I0428 19:59:15.817243 29193 net.cpp:382] accuracy -> accuracy
…
