…
I0428 20:03:58.040733 30296 net.cpp:296] The NetState phase (0) differed from the phase (1) specified by a rule in layer mnist
I0428 20:03:58.040752 30296 net.cpp:296] The NetState phase (0) differed from the phase (1) specified by a rule in layer accuracy
I0428 20:03:58.040863 30296 net.cpp:53] Initializing net from parameters: 
name: "LeNet"
state {
  phase: TRAIN
  level: 0
  stage: ""
}
layer {
  name: "mnist"
  type: "Data"
  top: "data"
  top: "label"
  include {
    phase: TRAIN
  }
  transform_param {
    scale: 0.00390625
  }
  data_param {
    source: "examples/mnist/mnist_train_lmdb"
    batch_size: 64
    backend: LMDB
  }
}
layer {
  name: "conv0"
  type: "Convolution"
  bottom: "data"
  top: "conv0"
  param {
    lr_mult: 1
  }
  param {
    lr_mult: 2
  }
  convolution_param {
    num_output: 10
    kernel_size: 5
    stride: 1
    weight_filler {
      type: "xavier"
    }
    bias_filler {
      type: "constant"
    }
  }
}
layer {
  name: "pool0"
  type: "Pooling"
  bottom: "conv0"
  top: "pool0"
  pooling_param {
    pool: MAX
    kernel_size: 2
    stride: 2
  }
}
layer {
  name: "conv1"
  type: "Convolution"
  bottom: "pool0"
  top: "conv1"
  param {
    lr_mult: 1
  }
  param {
    lr_mult: 2
  }
  convolution_param {
    num_output: 100
    kernel_size: 5
    stride: 1
    weight_filler {
      type: "xavier"
    }
    bias_filler {
      type: "constant"
    }
  }
}
layer {
  name: "pool1"
  type: "Pooling"
  bottom: "conv1"
  top: "pool1"
  pooling_param {
    pool: MAX
    kernel_size: 2
    stride: 2
  }
}
layer {
  name: "ip1"
  type: "InnerProduct"
  bottom: "pool1"
  top: "ip1"
  param {
    lr_mult: 1
  }
  param {
    lr_mult: 2
  }
  inner_product_param {
    num_output: 25
    weight_filler {
      type: "xavier"
    }
    bias_filler {
      type: "constant"
    }
  }
}
layer {
  name: "relu1"
  type: "ReLU"
  bottom: "ip1"
  top: "ip1"
}
layer {
  name: "ip2"
  type: "InnerProduct"
  bottom: "ip1"
  top: "ip2"
  param {
    lr_mult: 1
  }
  param {
    lr_mult: 2
  }
  inner_product_param {
    num_output: 25
    weight_filler {
      type: "xavier"
    }
    bias_filler {
      type: "constant"
    }
  }
}
layer {
  name: "relu2"
  type: "ReLU"
  bottom: "ip2"
  top: "ip2"
}
layer {
  name: "ip3"
  type: "InnerProduct"
  bottom: "ip2"
  top: "ip3"
  param {
    lr_mult: 1
  }
  param {
    lr_mult: 2
  }
  inner_product_param {
    num_output: 10
    weight_filler {
      type: "xavier"
    }
    bias_filler {
      type: "constant"
    }
  }
}
layer {
  name: "relu3"
  type: "ReLU"
  bottom: "ip3"
  top: "ip3"
}
layer {
  name: "loss"
  type: "SoftmaxWithLoss"
  bottom: "ip3"
  bottom: "label"
  top: "loss"
}
I0428 20:03:58.040944 30296 layer_factory.hpp:77] Creating layer mnist
I0428 20:03:58.041043 30296 db_lmdb.cpp:35] Opened lmdb examples/mnist/mnist_train_lmdb
I0428 20:03:58.041067 30296 net.cpp:86] Creating Layer mnist
I0428 20:03:58.041076 30296 net.cpp:382] mnist -> data
I0428 20:03:58.041098 30296 net.cpp:382] mnist -> label
I0428 20:03:58.042186 30296 data_layer.cpp:45] output data size: 64,1,28,28
I0428 20:03:58.044630 30296 net.cpp:124] Setting up mnist
I0428 20:03:58.044646 30296 net.cpp:131] Top shape: 64 1 28 28 (50176)
I0428 20:03:58.044651 30296 net.cpp:131] Top shape: 64 (64)
I0428 20:03:58.044656 30296 net.cpp:139] Memory required for data: 200960
I0428 20:03:58.044662 30296 layer_factory.hpp:77] Creating layer conv0
I0428 20:03:58.044679 30296 net.cpp:86] Creating Layer conv0
I0428 20:03:58.044700 30296 net.cpp:408] conv0 <- data
I0428 20:03:58.044714 30296 net.cpp:382] conv0 -> conv0
I0428 20:03:58.336130 30296 net.cpp:124] Setting up conv0
I0428 20:03:58.336160 30296 net.cpp:131] Top shape: 64 10 24 24 (368640)
I0428 20:03:58.336164 30296 net.cpp:139] Memory required for data: 1675520
I0428 20:03:58.336181 30296 layer_factory.hpp:77] Creating layer pool0
I0428 20:03:58.336197 30296 net.cpp:86] Creating Layer pool0
I0428 20:03:58.336202 30296 net.cpp:408] pool0 <- conv0
I0428 20:03:58.336208 30296 net.cpp:382] pool0 -> pool0
I0428 20:03:58.336261 30296 net.cpp:124] Setting up pool0
I0428 20:03:58.336266 30296 net.cpp:131] Top shape: 64 10 12 12 (92160)
I0428 20:03:58.336269 30296 net.cpp:139] Memory required for data: 2044160
I0428 20:03:58.336273 30296 layer_factory.hpp:77] Creating layer conv1
I0428 20:03:58.336285 30296 net.cpp:86] Creating Layer conv1
I0428 20:03:58.336289 30296 net.cpp:408] conv1 <- pool0
I0428 20:03:58.336294 30296 net.cpp:382] conv1 -> conv1
I0428 20:03:58.338503 30296 net.cpp:124] Setting up conv1
I0428 20:03:58.338521 30296 net.cpp:131] Top shape: 64 100 8 8 (409600)
I0428 20:03:58.338524 30296 net.cpp:139] Memory required for data: 3682560
I0428 20:03:58.338534 30296 layer_factory.hpp:77] Creating layer pool1
I0428 20:03:58.338542 30296 net.cpp:86] Creating Layer pool1
I0428 20:03:58.338547 30296 net.cpp:408] pool1 <- conv1
I0428 20:03:58.338553 30296 net.cpp:382] pool1 -> pool1
I0428 20:03:58.338594 30296 net.cpp:124] Setting up pool1
I0428 20:03:58.338600 30296 net.cpp:131] Top shape: 64 100 4 4 (102400)
I0428 20:03:58.338603 30296 net.cpp:139] Memory required for data: 4092160
I0428 20:03:58.338608 30296 layer_factory.hpp:77] Creating layer ip1
I0428 20:03:58.338614 30296 net.cpp:86] Creating Layer ip1
I0428 20:03:58.338618 30296 net.cpp:408] ip1 <- pool1
I0428 20:03:58.338624 30296 net.cpp:382] ip1 -> ip1
I0428 20:03:58.338994 30296 net.cpp:124] Setting up ip1
I0428 20:03:58.339001 30296 net.cpp:131] Top shape: 64 25 (1600)
I0428 20:03:58.339005 30296 net.cpp:139] Memory required for data: 4098560
I0428 20:03:58.339012 30296 layer_factory.hpp:77] Creating layer relu1
I0428 20:03:58.339020 30296 net.cpp:86] Creating Layer relu1
I0428 20:03:58.339022 30296 net.cpp:408] relu1 <- ip1
I0428 20:03:58.339027 30296 net.cpp:369] relu1 -> ip1 (in-place)
I0428 20:03:58.339208 30296 net.cpp:124] Setting up relu1
I0428 20:03:58.339218 30296 net.cpp:131] Top shape: 64 25 (1600)
I0428 20:03:58.339222 30296 net.cpp:139] Memory required for data: 4104960
I0428 20:03:58.339226 30296 layer_factory.hpp:77] Creating layer ip2
I0428 20:03:58.339232 30296 net.cpp:86] Creating Layer ip2
I0428 20:03:58.339236 30296 net.cpp:408] ip2 <- ip1
I0428 20:03:58.339241 30296 net.cpp:382] ip2 -> ip2
I0428 20:03:58.339349 30296 net.cpp:124] Setting up ip2
I0428 20:03:58.339356 30296 net.cpp:131] Top shape: 64 25 (1600)
I0428 20:03:58.339359 30296 net.cpp:139] Memory required for data: 4111360
I0428 20:03:58.339366 30296 layer_factory.hpp:77] Creating layer relu2
I0428 20:03:58.339372 30296 net.cpp:86] Creating Layer relu2
I0428 20:03:58.339375 30296 net.cpp:408] relu2 <- ip2
I0428 20:03:58.339380 30296 net.cpp:369] relu2 -> ip2 (in-place)
I0428 20:03:58.340199 30296 net.cpp:124] Setting up relu2
I0428 20:03:58.340214 30296 net.cpp:131] Top shape: 64 25 (1600)
I0428 20:03:58.340217 30296 net.cpp:139] Memory required for data: 4117760
I0428 20:03:58.340221 30296 layer_factory.hpp:77] Creating layer ip3
I0428 20:03:58.340229 30296 net.cpp:86] Creating Layer ip3
I0428 20:03:58.340232 30296 net.cpp:408] ip3 <- ip2
I0428 20:03:58.340239 30296 net.cpp:382] ip3 -> ip3
I0428 20:03:58.340347 30296 net.cpp:124] Setting up ip3
I0428 20:03:58.340355 30296 net.cpp:131] Top shape: 64 10 (640)
I0428 20:03:58.340358 30296 net.cpp:139] Memory required for data: 4120320
I0428 20:03:58.340368 30296 layer_factory.hpp:77] Creating layer relu3
I0428 20:03:58.340373 30296 net.cpp:86] Creating Layer relu3
I0428 20:03:58.340378 30296 net.cpp:408] relu3 <- ip3
I0428 20:03:58.340381 30296 net.cpp:369] relu3 -> ip3 (in-place)
I0428 20:03:58.340567 30296 net.cpp:124] Setting up relu3
I0428 20:03:58.340577 30296 net.cpp:131] Top shape: 64 10 (640)
I0428 20:03:58.340580 30296 net.cpp:139] Memory required for data: 4122880
I0428 20:03:58.340584 30296 layer_factory.hpp:77] Creating layer loss
I0428 20:03:58.340592 30296 net.cpp:86] Creating Layer loss
I0428 20:03:58.340595 30296 net.cpp:408] loss <- ip3
I0428 20:03:58.340600 30296 net.cpp:408] loss <- label
I0428 20:03:58.340606 30296 net.cpp:382] loss -> loss
I0428 20:03:58.340626 30296 layer_factory.hpp:77] Creating layer loss
…
I0428 20:03:58.341346 30296 solver.cpp:173] Creating test net (#0) specified by net file: ECE595/mnist/train_test/var_everything2/lenet_train_test962.prototxt
I0428 20:03:58.341377 30296 net.cpp:296] The NetState phase (1) differed from the phase (0) specified by a rule in layer mnist
I0428 20:03:58.341475 30296 net.cpp:53] Initializing net from parameters: 
name: "LeNet"
state {
  phase: TEST
}
layer {
  name: "mnist"
  type: "Data"
  top: "data"
  top: "label"
  include {
    phase: TEST
  }
  transform_param {
    scale: 0.00390625
  }
  data_param {
    source: "examples/mnist/mnist_test_lmdb"
    batch_size: 100
    backend: LMDB
  }
}
layer {
  name: "conv0"
  type: "Convolution"
  bottom: "data"
  top: "conv0"
  param {
    lr_mult: 1
  }
  param {
    lr_mult: 2
  }
  convolution_param {
    num_output: 10
    kernel_size: 5
    stride: 1
    weight_filler {
      type: "xavier"
    }
    bias_filler {
      type: "constant"
    }
  }
}
layer {
  name: "pool0"
  type: "Pooling"
  bottom: "conv0"
  top: "pool0"
  pooling_param {
    pool: MAX
    kernel_size: 2
    stride: 2
  }
}
layer {
  name: "conv1"
  type: "Convolution"
  bottom: "pool0"
  top: "conv1"
  param {
    lr_mult: 1
  }
  param {
    lr_mult: 2
  }
  convolution_param {
    num_output: 100
    kernel_size: 5
    stride: 1
    weight_filler {
      type: "xavier"
    }
    bias_filler {
      type: "constant"
    }
  }
}
layer {
  name: "pool1"
  type: "Pooling"
  bottom: "conv1"
  top: "pool1"
  pooling_param {
    pool: MAX
    kernel_size: 2
    stride: 2
  }
}
layer {
  name: "ip1"
  type: "InnerProduct"
  bottom: "pool1"
  top: "ip1"
  param {
    lr_mult: 1
  }
  param {
    lr_mult: 2
  }
  inner_product_param {
    num_output: 25
    weight_filler {
      type: "xavier"
    }
    bias_filler {
      type: "constant"
    }
  }
}
layer {
  name: "relu1"
  type: "ReLU"
  bottom: "ip1"
  top: "ip1"
}
layer {
  name: "ip2"
  type: "InnerProduct"
  bottom: "ip1"
  top: "ip2"
  param {
    lr_mult: 1
  }
  param {
    lr_mult: 2
  }
  inner_product_param {
    num_output: 25
    weight_filler {
      type: "xavier"
    }
    bias_filler {
      type: "constant"
    }
  }
}
layer {
  name: "relu2"
  type: "ReLU"
  bottom: "ip2"
  top: "ip2"
}
layer {
  name: "ip3"
  type: "InnerProduct"
  bottom: "ip2"
  top: "ip3"
  param {
    lr_mult: 1
  }
  param {
    lr_mult: 2
  }
  inner_product_param {
    num_output: 10
    weight_filler {
      type: "xavier"
    }
    bias_filler {
      type: "constant"
    }
  }
}
layer {
  name: "relu3"
  type: "ReLU"
  bottom: "ip3"
  top: "ip3"
}
layer {
  name: "accuracy"
  type: "Accuracy"
  bottom: "ip3"
  bottom: "label"
  top: "accuracy"
  include {
    phase: TEST
  }
}
layer {
  name: "loss"
  type: "SoftmaxWithLoss"
  bottom: "ip3"
  bottom: "label"
  top: "loss"
}
I0428 20:03:58.341562 30296 layer_factory.hpp:77] Creating layer mnist
I0428 20:03:58.341611 30296 db_lmdb.cpp:35] Opened lmdb examples/mnist/mnist_test_lmdb
I0428 20:03:58.341624 30296 net.cpp:86] Creating Layer mnist
I0428 20:03:58.341629 30296 net.cpp:382] mnist -> data
I0428 20:03:58.341639 30296 net.cpp:382] mnist -> label
I0428 20:03:58.341728 30296 data_layer.cpp:45] output data size: 100,1,28,28
I0428 20:03:58.343945 30296 net.cpp:124] Setting up mnist
I0428 20:03:58.343960 30296 net.cpp:131] Top shape: 100 1 28 28 (78400)
I0428 20:03:58.343966 30296 net.cpp:131] Top shape: 100 (100)
I0428 20:03:58.343968 30296 net.cpp:139] Memory required for data: 314000
I0428 20:03:58.343972 30296 layer_factory.hpp:77] Creating layer label_mnist_1_split
I0428 20:03:58.343983 30296 net.cpp:86] Creating Layer label_mnist_1_split
I0428 20:03:58.343989 30296 net.cpp:408] label_mnist_1_split <- label
I0428 20:03:58.343994 30296 net.cpp:382] label_mnist_1_split -> label_mnist_1_split_0
I0428 20:03:58.344002 30296 net.cpp:382] label_mnist_1_split -> label_mnist_1_split_1
I0428 20:03:58.344054 30296 net.cpp:124] Setting up label_mnist_1_split
I0428 20:03:58.344069 30296 net.cpp:131] Top shape: 100 (100)
I0428 20:03:58.344074 30296 net.cpp:131] Top shape: 100 (100)
I0428 20:03:58.344076 30296 net.cpp:139] Memory required for data: 314800
I0428 20:03:58.344079 30296 layer_factory.hpp:77] Creating layer conv0
I0428 20:03:58.344089 30296 net.cpp:86] Creating Layer conv0
I0428 20:03:58.344092 30296 net.cpp:408] conv0 <- data
I0428 20:03:58.344097 30296 net.cpp:382] conv0 -> conv0
I0428 20:03:58.345859 30296 net.cpp:124] Setting up conv0
I0428 20:03:58.345873 30296 net.cpp:131] Top shape: 100 10 24 24 (576000)
I0428 20:03:58.345877 30296 net.cpp:139] Memory required for data: 2618800
I0428 20:03:58.345887 30296 layer_factory.hpp:77] Creating layer pool0
I0428 20:03:58.345896 30296 net.cpp:86] Creating Layer pool0
I0428 20:03:58.345901 30296 net.cpp:408] pool0 <- conv0
I0428 20:03:58.345906 30296 net.cpp:382] pool0 -> pool0
I0428 20:03:58.345944 30296 net.cpp:124] Setting up pool0
I0428 20:03:58.345950 30296 net.cpp:131] Top shape: 100 10 12 12 (144000)
I0428 20:03:58.345953 30296 net.cpp:139] Memory required for data: 3194800
I0428 20:03:58.345957 30296 layer_factory.hpp:77] Creating layer conv1
I0428 20:03:58.345966 30296 net.cpp:86] Creating Layer conv1
I0428 20:03:58.345969 30296 net.cpp:408] conv1 <- pool0
I0428 20:03:58.345976 30296 net.cpp:382] conv1 -> conv1
I0428 20:03:58.347757 30296 net.cpp:124] Setting up conv1
I0428 20:03:58.347771 30296 net.cpp:131] Top shape: 100 100 8 8 (640000)
I0428 20:03:58.347775 30296 net.cpp:139] Memory required for data: 5754800
I0428 20:03:58.347785 30296 layer_factory.hpp:77] Creating layer pool1
I0428 20:03:58.347793 30296 net.cpp:86] Creating Layer pool1
I0428 20:03:58.347798 30296 net.cpp:408] pool1 <- conv1
I0428 20:03:58.347805 30296 net.cpp:382] pool1 -> pool1
I0428 20:03:58.347846 30296 net.cpp:124] Setting up pool1
I0428 20:03:58.347851 30296 net.cpp:131] Top shape: 100 100 4 4 (160000)
I0428 20:03:58.347854 30296 net.cpp:139] Memory required for data: 6394800
I0428 20:03:58.347857 30296 layer_factory.hpp:77] Creating layer ip1
I0428 20:03:58.347865 30296 net.cpp:86] Creating Layer ip1
I0428 20:03:58.347868 30296 net.cpp:408] ip1 <- pool1
I0428 20:03:58.347874 30296 net.cpp:382] ip1 -> ip1
I0428 20:03:58.348237 30296 net.cpp:124] Setting up ip1
I0428 20:03:58.348244 30296 net.cpp:131] Top shape: 100 25 (2500)
I0428 20:03:58.348258 30296 net.cpp:139] Memory required for data: 6404800
I0428 20:03:58.348266 30296 layer_factory.hpp:77] Creating layer relu1
I0428 20:03:58.348271 30296 net.cpp:86] Creating Layer relu1
I0428 20:03:58.348275 30296 net.cpp:408] relu1 <- ip1
I0428 20:03:58.348281 30296 net.cpp:369] relu1 -> ip1 (in-place)
I0428 20:03:58.348472 30296 net.cpp:124] Setting up relu1
I0428 20:03:58.348481 30296 net.cpp:131] Top shape: 100 25 (2500)
I0428 20:03:58.348485 30296 net.cpp:139] Memory required for data: 6414800
I0428 20:03:58.348489 30296 layer_factory.hpp:77] Creating layer ip2
I0428 20:03:58.348496 30296 net.cpp:86] Creating Layer ip2
I0428 20:03:58.348500 30296 net.cpp:408] ip2 <- ip1
I0428 20:03:58.348506 30296 net.cpp:382] ip2 -> ip2
I0428 20:03:58.348637 30296 net.cpp:124] Setting up ip2
I0428 20:03:58.348651 30296 net.cpp:131] Top shape: 100 25 (2500)
I0428 20:03:58.348655 30296 net.cpp:139] Memory required for data: 6424800
I0428 20:03:58.348661 30296 layer_factory.hpp:77] Creating layer relu2
I0428 20:03:58.348666 30296 net.cpp:86] Creating Layer relu2
I0428 20:03:58.348670 30296 net.cpp:408] relu2 <- ip2
I0428 20:03:58.348673 30296 net.cpp:369] relu2 -> ip2 (in-place)
I0428 20:03:58.348891 30296 net.cpp:124] Setting up relu2
I0428 20:03:58.348903 30296 net.cpp:131] Top shape: 100 25 (2500)
I0428 20:03:58.348906 30296 net.cpp:139] Memory required for data: 6434800
I0428 20:03:58.348911 30296 layer_factory.hpp:77] Creating layer ip3
I0428 20:03:58.348917 30296 net.cpp:86] Creating Layer ip3
I0428 20:03:58.348920 30296 net.cpp:408] ip3 <- ip2
I0428 20:03:58.348927 30296 net.cpp:382] ip3 -> ip3
I0428 20:03:58.349035 30296 net.cpp:124] Setting up ip3
I0428 20:03:58.349042 30296 net.cpp:131] Top shape: 100 10 (1000)
I0428 20:03:58.349046 30296 net.cpp:139] Memory required for data: 6438800
I0428 20:03:58.349056 30296 layer_factory.hpp:77] Creating layer relu3
I0428 20:03:58.349061 30296 net.cpp:86] Creating Layer relu3
I0428 20:03:58.349063 30296 net.cpp:408] relu3 <- ip3
I0428 20:03:58.349069 30296 net.cpp:369] relu3 -> ip3 (in-place)
I0428 20:03:58.349913 30296 net.cpp:124] Setting up relu3
I0428 20:03:58.349926 30296 net.cpp:131] Top shape: 100 10 (1000)
I0428 20:03:58.349931 30296 net.cpp:139] Memory required for data: 6442800
I0428 20:03:58.349933 30296 layer_factory.hpp:77] Creating layer ip3_relu3_0_split
I0428 20:03:58.349939 30296 net.cpp:86] Creating Layer ip3_relu3_0_split
I0428 20:03:58.349942 30296 net.cpp:408] ip3_relu3_0_split <- ip3
I0428 20:03:58.349947 30296 net.cpp:382] ip3_relu3_0_split -> ip3_relu3_0_split_0
I0428 20:03:58.349956 30296 net.cpp:382] ip3_relu3_0_split -> ip3_relu3_0_split_1
I0428 20:03:58.350009 30296 net.cpp:124] Setting up ip3_relu3_0_split
I0428 20:03:58.350015 30296 net.cpp:131] Top shape: 100 10 (1000)
I0428 20:03:58.350019 30296 net.cpp:131] Top shape: 100 10 (1000)
I0428 20:03:58.350023 30296 net.cpp:139] Memory required for data: 6450800
I0428 20:03:58.350025 30296 layer_factory.hpp:77] Creating layer accuracy
I0428 20:03:58.350033 30296 net.cpp:86] Creating Layer accuracy
I0428 20:03:58.350036 30296 net.cpp:408] accuracy <- ip3_relu3_0_split_0
I0428 20:03:58.350041 30296 net.cpp:408] accuracy <- label_mnist_1_split_0
I0428 20:03:58.350045 30296 net.cpp:382] accuracy -> accuracy
…
