…
I0428 20:33:32.975385  4308 net.cpp:296] The NetState phase (0) differed from the phase (1) specified by a rule in layer mnist
I0428 20:33:32.975404  4308 net.cpp:296] The NetState phase (0) differed from the phase (1) specified by a rule in layer accuracy
I0428 20:33:32.975503  4308 net.cpp:53] Initializing net from parameters: 
name: "LeNet"
state {
  phase: TRAIN
  level: 0
  stage: ""
}
layer {
  name: "mnist"
  type: "Data"
  top: "data"
  top: "label"
  include {
    phase: TRAIN
  }
  transform_param {
    scale: 0.00390625
  }
  data_param {
    source: "examples/mnist/mnist_train_lmdb"
    batch_size: 64
    backend: LMDB
  }
}
layer {
  name: "conv0"
  type: "Convolution"
  bottom: "data"
  top: "conv0"
  param {
    lr_mult: 1
  }
  param {
    lr_mult: 2
  }
  convolution_param {
    num_output: 100
    kernel_size: 5
    stride: 1
    weight_filler {
      type: "xavier"
    }
    bias_filler {
      type: "constant"
    }
  }
}
layer {
  name: "pool0"
  type: "Pooling"
  bottom: "conv0"
  top: "pool0"
  pooling_param {
    pool: MAX
    kernel_size: 2
    stride: 2
  }
}
layer {
  name: "conv1"
  type: "Convolution"
  bottom: "pool0"
  top: "conv1"
  param {
    lr_mult: 1
  }
  param {
    lr_mult: 2
  }
  convolution_param {
    num_output: 25
    kernel_size: 5
    stride: 1
    weight_filler {
      type: "xavier"
    }
    bias_filler {
      type: "constant"
    }
  }
}
layer {
  name: "pool1"
  type: "Pooling"
  bottom: "conv1"
  top: "pool1"
  pooling_param {
    pool: MAX
    kernel_size: 2
    stride: 2
  }
}
layer {
  name: "ip1"
  type: "InnerProduct"
  bottom: "pool1"
  top: "ip1"
  param {
    lr_mult: 1
  }
  param {
    lr_mult: 2
  }
  inner_product_param {
    num_output: 50
    weight_filler {
      type: "xavier"
    }
    bias_filler {
      type: "constant"
    }
  }
}
layer {
  name: "relu1"
  type: "ReLU"
  bottom: "ip1"
  top: "ip1"
}
layer {
  name: "ip2"
  type: "InnerProduct"
  bottom: "ip1"
  top: "ip2"
  param {
    lr_mult: 1
  }
  param {
    lr_mult: 2
  }
  inner_product_param {
    num_output: 10
    weight_filler {
      type: "xavier"
    }
    bias_filler {
      type: "constant"
    }
  }
}
layer {
  name: "relu2"
  type: "ReLU"
  bottom: "ip2"
  top: "ip2"
}
layer {
  name: "ip3"
  type: "InnerProduct"
  bottom: "ip2"
  top: "ip3"
  param {
    lr_mult: 1
  }
  param {
    lr_mult: 2
  }
  inner_product_param {
    num_output: 10
    weight_filler {
      type: "xavier"
    }
    bias_filler {
      type: "constant"
    }
  }
}
layer {
  name: "relu3"
  type: "ReLU"
  bottom: "ip3"
  top: "ip3"
}
layer {
  name: "loss"
  type: "SoftmaxWithLoss"
  bottom: "ip3"
  bottom: "label"
  top: "loss"
}
I0428 20:33:32.975576  4308 layer_factory.hpp:77] Creating layer mnist
I0428 20:33:32.975677  4308 db_lmdb.cpp:35] Opened lmdb examples/mnist/mnist_train_lmdb
I0428 20:33:32.975700  4308 net.cpp:86] Creating Layer mnist
I0428 20:33:32.975708  4308 net.cpp:382] mnist -> data
I0428 20:33:32.975731  4308 net.cpp:382] mnist -> label
I0428 20:33:32.976838  4308 data_layer.cpp:45] output data size: 64,1,28,28
I0428 20:33:32.979326  4308 net.cpp:124] Setting up mnist
I0428 20:33:32.979346  4308 net.cpp:131] Top shape: 64 1 28 28 (50176)
I0428 20:33:32.979351  4308 net.cpp:131] Top shape: 64 (64)
I0428 20:33:32.979356  4308 net.cpp:139] Memory required for data: 200960
I0428 20:33:32.979363  4308 layer_factory.hpp:77] Creating layer conv0
I0428 20:33:32.979378  4308 net.cpp:86] Creating Layer conv0
I0428 20:33:32.979399  4308 net.cpp:408] conv0 <- data
I0428 20:33:32.979411  4308 net.cpp:382] conv0 -> conv0
I0428 20:33:33.248268  4308 net.cpp:124] Setting up conv0
I0428 20:33:33.248294  4308 net.cpp:131] Top shape: 64 100 24 24 (3686400)
I0428 20:33:33.248298  4308 net.cpp:139] Memory required for data: 14946560
I0428 20:33:33.248313  4308 layer_factory.hpp:77] Creating layer pool0
I0428 20:33:33.248324  4308 net.cpp:86] Creating Layer pool0
I0428 20:33:33.248345  4308 net.cpp:408] pool0 <- conv0
I0428 20:33:33.248350  4308 net.cpp:382] pool0 -> pool0
I0428 20:33:33.248411  4308 net.cpp:124] Setting up pool0
I0428 20:33:33.248417  4308 net.cpp:131] Top shape: 64 100 12 12 (921600)
I0428 20:33:33.248420  4308 net.cpp:139] Memory required for data: 18632960
I0428 20:33:33.248423  4308 layer_factory.hpp:77] Creating layer conv1
I0428 20:33:33.248435  4308 net.cpp:86] Creating Layer conv1
I0428 20:33:33.248437  4308 net.cpp:408] conv1 <- pool0
I0428 20:33:33.248441  4308 net.cpp:382] conv1 -> conv1
I0428 20:33:33.250797  4308 net.cpp:124] Setting up conv1
I0428 20:33:33.250826  4308 net.cpp:131] Top shape: 64 25 8 8 (102400)
I0428 20:33:33.250830  4308 net.cpp:139] Memory required for data: 19042560
I0428 20:33:33.250838  4308 layer_factory.hpp:77] Creating layer pool1
I0428 20:33:33.250847  4308 net.cpp:86] Creating Layer pool1
I0428 20:33:33.250850  4308 net.cpp:408] pool1 <- conv1
I0428 20:33:33.250855  4308 net.cpp:382] pool1 -> pool1
I0428 20:33:33.250922  4308 net.cpp:124] Setting up pool1
I0428 20:33:33.250927  4308 net.cpp:131] Top shape: 64 25 4 4 (25600)
I0428 20:33:33.250931  4308 net.cpp:139] Memory required for data: 19144960
I0428 20:33:33.250933  4308 layer_factory.hpp:77] Creating layer ip1
I0428 20:33:33.250941  4308 net.cpp:86] Creating Layer ip1
I0428 20:33:33.250943  4308 net.cpp:408] ip1 <- pool1
I0428 20:33:33.250948  4308 net.cpp:382] ip1 -> ip1
I0428 20:33:33.251194  4308 net.cpp:124] Setting up ip1
I0428 20:33:33.251200  4308 net.cpp:131] Top shape: 64 50 (3200)
I0428 20:33:33.251204  4308 net.cpp:139] Memory required for data: 19157760
I0428 20:33:33.251225  4308 layer_factory.hpp:77] Creating layer relu1
I0428 20:33:33.251231  4308 net.cpp:86] Creating Layer relu1
I0428 20:33:33.251235  4308 net.cpp:408] relu1 <- ip1
I0428 20:33:33.251238  4308 net.cpp:369] relu1 -> ip1 (in-place)
I0428 20:33:33.251413  4308 net.cpp:124] Setting up relu1
I0428 20:33:33.251422  4308 net.cpp:131] Top shape: 64 50 (3200)
I0428 20:33:33.251425  4308 net.cpp:139] Memory required for data: 19170560
I0428 20:33:33.251428  4308 layer_factory.hpp:77] Creating layer ip2
I0428 20:33:33.251433  4308 net.cpp:86] Creating Layer ip2
I0428 20:33:33.251436  4308 net.cpp:408] ip2 <- ip1
I0428 20:33:33.251441  4308 net.cpp:382] ip2 -> ip2
I0428 20:33:33.251531  4308 net.cpp:124] Setting up ip2
I0428 20:33:33.251538  4308 net.cpp:131] Top shape: 64 10 (640)
I0428 20:33:33.251541  4308 net.cpp:139] Memory required for data: 19173120
I0428 20:33:33.251546  4308 layer_factory.hpp:77] Creating layer relu2
I0428 20:33:33.251552  4308 net.cpp:86] Creating Layer relu2
I0428 20:33:33.251555  4308 net.cpp:408] relu2 <- ip2
I0428 20:33:33.251559  4308 net.cpp:369] relu2 -> ip2 (in-place)
I0428 20:33:33.252302  4308 net.cpp:124] Setting up relu2
I0428 20:33:33.252315  4308 net.cpp:131] Top shape: 64 10 (640)
I0428 20:33:33.252333  4308 net.cpp:139] Memory required for data: 19175680
I0428 20:33:33.252337  4308 layer_factory.hpp:77] Creating layer ip3
I0428 20:33:33.252343  4308 net.cpp:86] Creating Layer ip3
I0428 20:33:33.252347  4308 net.cpp:408] ip3 <- ip2
I0428 20:33:33.252353  4308 net.cpp:382] ip3 -> ip3
I0428 20:33:33.252447  4308 net.cpp:124] Setting up ip3
I0428 20:33:33.252454  4308 net.cpp:131] Top shape: 64 10 (640)
I0428 20:33:33.252457  4308 net.cpp:139] Memory required for data: 19178240
I0428 20:33:33.252465  4308 layer_factory.hpp:77] Creating layer relu3
I0428 20:33:33.252470  4308 net.cpp:86] Creating Layer relu3
I0428 20:33:33.252473  4308 net.cpp:408] relu3 <- ip3
I0428 20:33:33.252477  4308 net.cpp:369] relu3 -> ip3 (in-place)
I0428 20:33:33.252668  4308 net.cpp:124] Setting up relu3
I0428 20:33:33.252677  4308 net.cpp:131] Top shape: 64 10 (640)
I0428 20:33:33.252681  4308 net.cpp:139] Memory required for data: 19180800
I0428 20:33:33.252683  4308 layer_factory.hpp:77] Creating layer loss
I0428 20:33:33.252689  4308 net.cpp:86] Creating Layer loss
I0428 20:33:33.252692  4308 net.cpp:408] loss <- ip3
I0428 20:33:33.252696  4308 net.cpp:408] loss <- label
I0428 20:33:33.252701  4308 net.cpp:382] loss -> loss
I0428 20:33:33.252718  4308 layer_factory.hpp:77] Creating layer loss
…
I0428 20:33:33.253474  4308 solver.cpp:173] Creating test net (#0) specified by net file: ECE595/mnist/train_test/var_everything2/lenet_train_test1590.prototxt
I0428 20:33:33.253518  4308 net.cpp:296] The NetState phase (1) differed from the phase (0) specified by a rule in layer mnist
I0428 20:33:33.253653  4308 net.cpp:53] Initializing net from parameters: 
name: "LeNet"
state {
  phase: TEST
}
layer {
  name: "mnist"
  type: "Data"
  top: "data"
  top: "label"
  include {
    phase: TEST
  }
  transform_param {
    scale: 0.00390625
  }
  data_param {
    source: "examples/mnist/mnist_test_lmdb"
    batch_size: 100
    backend: LMDB
  }
}
layer {
  name: "conv0"
  type: "Convolution"
  bottom: "data"
  top: "conv0"
  param {
    lr_mult: 1
  }
  param {
    lr_mult: 2
  }
  convolution_param {
    num_output: 100
    kernel_size: 5
    stride: 1
    weight_filler {
      type: "xavier"
    }
    bias_filler {
      type: "constant"
    }
  }
}
layer {
  name: "pool0"
  type: "Pooling"
  bottom: "conv0"
  top: "pool0"
  pooling_param {
    pool: MAX
    kernel_size: 2
    stride: 2
  }
}
layer {
  name: "conv1"
  type: "Convolution"
  bottom: "pool0"
  top: "conv1"
  param {
    lr_mult: 1
  }
  param {
    lr_mult: 2
  }
  convolution_param {
    num_output: 25
    kernel_size: 5
    stride: 1
    weight_filler {
      type: "xavier"
    }
    bias_filler {
      type: "constant"
    }
  }
}
layer {
  name: "pool1"
  type: "Pooling"
  bottom: "conv1"
  top: "pool1"
  pooling_param {
    pool: MAX
    kernel_size: 2
    stride: 2
  }
}
layer {
  name: "ip1"
  type: "InnerProduct"
  bottom: "pool1"
  top: "ip1"
  param {
    lr_mult: 1
  }
  param {
    lr_mult: 2
  }
  inner_product_param {
    num_output: 50
    weight_filler {
      type: "xavier"
    }
    bias_filler {
      type: "constant"
    }
  }
}
layer {
  name: "relu1"
  type: "ReLU"
  bottom: "ip1"
  top: "ip1"
}
layer {
  name: "ip2"
  type: "InnerProduct"
  bottom: "ip1"
  top: "ip2"
  param {
    lr_mult: 1
  }
  param {
    lr_mult: 2
  }
  inner_product_param {
    num_output: 10
    weight_filler {
      type: "xavier"
    }
    bias_filler {
      type: "constant"
    }
  }
}
layer {
  name: "relu2"
  type: "ReLU"
  bottom: "ip2"
  top: "ip2"
}
layer {
  name: "ip3"
  type: "InnerProduct"
  bottom: "ip2"
  top: "ip3"
  param {
    lr_mult: 1
  }
  param {
    lr_mult: 2
  }
  inner_product_param {
    num_output: 10
    weight_filler {
      type: "xavier"
    }
    bias_filler {
      type: "constant"
    }
  }
}
layer {
  name: "relu3"
  type: "ReLU"
  bottom: "ip3"
  top: "ip3"
}
layer {
  name: "accuracy"
  type: "Accuracy"
  bottom: "ip3"
  bottom: "label"
  top: "accuracy"
  include {
    phase: TEST
  }
}
layer {
  name: "loss"
  type: "SoftmaxWithLoss"
  bottom: "ip3"
  bottom: "label"
  top: "loss"
}
I0428 20:33:33.253727  4308 layer_factory.hpp:77] Creating layer mnist
I0428 20:33:33.253769  4308 db_lmdb.cpp:35] Opened lmdb examples/mnist/mnist_test_lmdb
I0428 20:33:33.253784  4308 net.cpp:86] Creating Layer mnist
I0428 20:33:33.253788  4308 net.cpp:382] mnist -> data
I0428 20:33:33.253796  4308 net.cpp:382] mnist -> label
I0428 20:33:33.253875  4308 data_layer.cpp:45] output data size: 100,1,28,28
I0428 20:33:33.255897  4308 net.cpp:124] Setting up mnist
I0428 20:33:33.255942  4308 net.cpp:131] Top shape: 100 1 28 28 (78400)
I0428 20:33:33.255947  4308 net.cpp:131] Top shape: 100 (100)
I0428 20:33:33.255950  4308 net.cpp:139] Memory required for data: 314000
I0428 20:33:33.255954  4308 layer_factory.hpp:77] Creating layer label_mnist_1_split
I0428 20:33:33.255975  4308 net.cpp:86] Creating Layer label_mnist_1_split
I0428 20:33:33.255978  4308 net.cpp:408] label_mnist_1_split <- label
I0428 20:33:33.255983  4308 net.cpp:382] label_mnist_1_split -> label_mnist_1_split_0
I0428 20:33:33.255990  4308 net.cpp:382] label_mnist_1_split -> label_mnist_1_split_1
I0428 20:33:33.256088  4308 net.cpp:124] Setting up label_mnist_1_split
I0428 20:33:33.256095  4308 net.cpp:131] Top shape: 100 (100)
I0428 20:33:33.256098  4308 net.cpp:131] Top shape: 100 (100)
I0428 20:33:33.256101  4308 net.cpp:139] Memory required for data: 314800
I0428 20:33:33.256104  4308 layer_factory.hpp:77] Creating layer conv0
I0428 20:33:33.256112  4308 net.cpp:86] Creating Layer conv0
I0428 20:33:33.256115  4308 net.cpp:408] conv0 <- data
I0428 20:33:33.256120  4308 net.cpp:382] conv0 -> conv0
I0428 20:33:33.257881  4308 net.cpp:124] Setting up conv0
I0428 20:33:33.257911  4308 net.cpp:131] Top shape: 100 100 24 24 (5760000)
I0428 20:33:33.257915  4308 net.cpp:139] Memory required for data: 23354800
I0428 20:33:33.257923  4308 layer_factory.hpp:77] Creating layer pool0
I0428 20:33:33.257930  4308 net.cpp:86] Creating Layer pool0
I0428 20:33:33.257933  4308 net.cpp:408] pool0 <- conv0
I0428 20:33:33.257938  4308 net.cpp:382] pool0 -> pool0
I0428 20:33:33.258016  4308 net.cpp:124] Setting up pool0
I0428 20:33:33.258021  4308 net.cpp:131] Top shape: 100 100 12 12 (1440000)
I0428 20:33:33.258024  4308 net.cpp:139] Memory required for data: 29114800
I0428 20:33:33.258028  4308 layer_factory.hpp:77] Creating layer conv1
I0428 20:33:33.258035  4308 net.cpp:86] Creating Layer conv1
I0428 20:33:33.258038  4308 net.cpp:408] conv1 <- pool0
I0428 20:33:33.258043  4308 net.cpp:382] conv1 -> conv1
I0428 20:33:33.259927  4308 net.cpp:124] Setting up conv1
I0428 20:33:33.259956  4308 net.cpp:131] Top shape: 100 25 8 8 (160000)
I0428 20:33:33.259960  4308 net.cpp:139] Memory required for data: 29754800
I0428 20:33:33.259970  4308 layer_factory.hpp:77] Creating layer pool1
I0428 20:33:33.259979  4308 net.cpp:86] Creating Layer pool1
I0428 20:33:33.259982  4308 net.cpp:408] pool1 <- conv1
I0428 20:33:33.259987  4308 net.cpp:382] pool1 -> pool1
I0428 20:33:33.260025  4308 net.cpp:124] Setting up pool1
I0428 20:33:33.260030  4308 net.cpp:131] Top shape: 100 25 4 4 (40000)
I0428 20:33:33.260033  4308 net.cpp:139] Memory required for data: 29914800
I0428 20:33:33.260037  4308 layer_factory.hpp:77] Creating layer ip1
I0428 20:33:33.260043  4308 net.cpp:86] Creating Layer ip1
I0428 20:33:33.260053  4308 net.cpp:408] ip1 <- pool1
I0428 20:33:33.260059  4308 net.cpp:382] ip1 -> ip1
I0428 20:33:33.260315  4308 net.cpp:124] Setting up ip1
I0428 20:33:33.260339  4308 net.cpp:131] Top shape: 100 50 (5000)
I0428 20:33:33.260342  4308 net.cpp:139] Memory required for data: 29934800
I0428 20:33:33.260350  4308 layer_factory.hpp:77] Creating layer relu1
I0428 20:33:33.260355  4308 net.cpp:86] Creating Layer relu1
I0428 20:33:33.260359  4308 net.cpp:408] relu1 <- ip1
I0428 20:33:33.260362  4308 net.cpp:369] relu1 -> ip1 (in-place)
I0428 20:33:33.260527  4308 net.cpp:124] Setting up relu1
I0428 20:33:33.260536  4308 net.cpp:131] Top shape: 100 50 (5000)
I0428 20:33:33.260540  4308 net.cpp:139] Memory required for data: 29954800
I0428 20:33:33.260542  4308 layer_factory.hpp:77] Creating layer ip2
I0428 20:33:33.260550  4308 net.cpp:86] Creating Layer ip2
I0428 20:33:33.260552  4308 net.cpp:408] ip2 <- ip1
I0428 20:33:33.260558  4308 net.cpp:382] ip2 -> ip2
I0428 20:33:33.260660  4308 net.cpp:124] Setting up ip2
I0428 20:33:33.260684  4308 net.cpp:131] Top shape: 100 10 (1000)
I0428 20:33:33.260687  4308 net.cpp:139] Memory required for data: 29958800
I0428 20:33:33.260699  4308 layer_factory.hpp:77] Creating layer relu2
I0428 20:33:33.260704  4308 net.cpp:86] Creating Layer relu2
I0428 20:33:33.260707  4308 net.cpp:408] relu2 <- ip2
I0428 20:33:33.260712  4308 net.cpp:369] relu2 -> ip2 (in-place)
I0428 20:33:33.261036  4308 net.cpp:124] Setting up relu2
I0428 20:33:33.261050  4308 net.cpp:131] Top shape: 100 10 (1000)
I0428 20:33:33.261070  4308 net.cpp:139] Memory required for data: 29962800
I0428 20:33:33.261073  4308 layer_factory.hpp:77] Creating layer ip3
I0428 20:33:33.261080  4308 net.cpp:86] Creating Layer ip3
I0428 20:33:33.261086  4308 net.cpp:408] ip3 <- ip2
I0428 20:33:33.261092  4308 net.cpp:382] ip3 -> ip3
I0428 20:33:33.261211  4308 net.cpp:124] Setting up ip3
I0428 20:33:33.261219  4308 net.cpp:131] Top shape: 100 10 (1000)
I0428 20:33:33.261224  4308 net.cpp:139] Memory required for data: 29966800
I0428 20:33:33.261231  4308 layer_factory.hpp:77] Creating layer relu3
I0428 20:33:33.261236  4308 net.cpp:86] Creating Layer relu3
I0428 20:33:33.261245  4308 net.cpp:408] relu3 <- ip3
I0428 20:33:33.261265  4308 net.cpp:369] relu3 -> ip3 (in-place)
I0428 20:33:33.262111  4308 net.cpp:124] Setting up relu3
I0428 20:33:33.262135  4308 net.cpp:131] Top shape: 100 10 (1000)
I0428 20:33:33.262153  4308 net.cpp:139] Memory required for data: 29970800
I0428 20:33:33.262156  4308 layer_factory.hpp:77] Creating layer ip3_relu3_0_split
I0428 20:33:33.262163  4308 net.cpp:86] Creating Layer ip3_relu3_0_split
I0428 20:33:33.262166  4308 net.cpp:408] ip3_relu3_0_split <- ip3
I0428 20:33:33.262171  4308 net.cpp:382] ip3_relu3_0_split -> ip3_relu3_0_split_0
I0428 20:33:33.262177  4308 net.cpp:382] ip3_relu3_0_split -> ip3_relu3_0_split_1
I0428 20:33:33.262217  4308 net.cpp:124] Setting up ip3_relu3_0_split
I0428 20:33:33.262238  4308 net.cpp:131] Top shape: 100 10 (1000)
I0428 20:33:33.262243  4308 net.cpp:131] Top shape: 100 10 (1000)
I0428 20:33:33.262245  4308 net.cpp:139] Memory required for data: 29978800
I0428 20:33:33.262248  4308 layer_factory.hpp:77] Creating layer accuracy
I0428 20:33:33.262253  4308 net.cpp:86] Creating Layer accuracy
I0428 20:33:33.262256  4308 net.cpp:408] accuracy <- ip3_relu3_0_split_0
I0428 20:33:33.262260  4308 net.cpp:408] accuracy <- label_mnist_1_split_0
I0428 20:33:33.262265  4308 net.cpp:382] accuracy -> accuracy
…
