…
I0428 20:10:34.968247 31868 net.cpp:296] The NetState phase (0) differed from the phase (1) specified by a rule in layer mnist
I0428 20:10:34.968277 31868 net.cpp:296] The NetState phase (0) differed from the phase (1) specified by a rule in layer accuracy
I0428 20:10:34.968350 31868 net.cpp:53] Initializing net from parameters: 
name: "LeNet"
state {
  phase: TRAIN
  level: 0
  stage: ""
}
layer {
  name: "mnist"
  type: "Data"
  top: "data"
  top: "label"
  include {
    phase: TRAIN
  }
  transform_param {
    scale: 0.00390625
  }
  data_param {
    source: "examples/mnist/mnist_train_lmdb"
    batch_size: 64
    backend: LMDB
  }
}
layer {
  name: "conv0"
  type: "Convolution"
  bottom: "data"
  top: "conv0"
  param {
    lr_mult: 1
  }
  param {
    lr_mult: 2
  }
  convolution_param {
    num_output: 25
    kernel_size: 5
    stride: 1
    weight_filler {
      type: "xavier"
    }
    bias_filler {
      type: "constant"
    }
  }
}
layer {
  name: "pool0"
  type: "Pooling"
  bottom: "conv0"
  top: "pool0"
  pooling_param {
    pool: MAX
    kernel_size: 2
    stride: 2
  }
}
layer {
  name: "conv1"
  type: "Convolution"
  bottom: "pool0"
  top: "conv1"
  param {
    lr_mult: 1
  }
  param {
    lr_mult: 2
  }
  convolution_param {
    num_output: 50
    kernel_size: 5
    stride: 1
    weight_filler {
      type: "xavier"
    }
    bias_filler {
      type: "constant"
    }
  }
}
layer {
  name: "pool1"
  type: "Pooling"
  bottom: "conv1"
  top: "pool1"
  pooling_param {
    pool: MAX
    kernel_size: 2
    stride: 2
  }
}
layer {
  name: "ip1"
  type: "InnerProduct"
  bottom: "pool1"
  top: "ip1"
  param {
    lr_mult: 1
  }
  param {
    lr_mult: 2
  }
  inner_product_param {
    num_output: 25
    weight_filler {
      type: "xavier"
    }
    bias_filler {
      type: "constant"
    }
  }
}
layer {
  name: "relu1"
  type: "ReLU"
  bottom: "ip1"
  top: "ip1"
}
layer {
  name: "ip2"
  type: "InnerProduct"
  bottom: "ip1"
  top: "ip2"
  param {
    lr_mult: 1
  }
  param {
    lr_mult: 2
  }
  inner_product_param {
    num_output: 10
    weight_filler {
      type: "xavier"
    }
    bias_filler {
      type: "constant"
    }
  }
}
layer {
  name: "relu2"
  type: "ReLU"
  bottom: "ip2"
  top: "ip2"
}
layer {
  name: "loss"
  type: "SoftmaxWithLoss"
  bottom: "ip2"
  bottom: "label"
  top: "loss"
}
I0428 20:10:34.968411 31868 layer_factory.hpp:77] Creating layer mnist
I0428 20:10:34.968490 31868 db_lmdb.cpp:35] Opened lmdb examples/mnist/mnist_train_lmdb
I0428 20:10:34.968510 31868 net.cpp:86] Creating Layer mnist
I0428 20:10:34.968515 31868 net.cpp:382] mnist -> data
I0428 20:10:34.968535 31868 net.cpp:382] mnist -> label
I0428 20:10:34.969580 31868 data_layer.cpp:45] output data size: 64,1,28,28
I0428 20:10:34.971745 31868 net.cpp:124] Setting up mnist
I0428 20:10:34.971776 31868 net.cpp:131] Top shape: 64 1 28 28 (50176)
I0428 20:10:34.971796 31868 net.cpp:131] Top shape: 64 (64)
I0428 20:10:34.971799 31868 net.cpp:139] Memory required for data: 200960
I0428 20:10:34.971806 31868 layer_factory.hpp:77] Creating layer conv0
I0428 20:10:34.971818 31868 net.cpp:86] Creating Layer conv0
I0428 20:10:34.971822 31868 net.cpp:408] conv0 <- data
I0428 20:10:34.971833 31868 net.cpp:382] conv0 -> conv0
I0428 20:10:35.196009 31868 net.cpp:124] Setting up conv0
I0428 20:10:35.196036 31868 net.cpp:131] Top shape: 64 25 24 24 (921600)
I0428 20:10:35.196039 31868 net.cpp:139] Memory required for data: 3887360
I0428 20:10:35.196089 31868 layer_factory.hpp:77] Creating layer pool0
I0428 20:10:35.196101 31868 net.cpp:86] Creating Layer pool0
I0428 20:10:35.196107 31868 net.cpp:408] pool0 <- conv0
I0428 20:10:35.196112 31868 net.cpp:382] pool0 -> pool0
I0428 20:10:35.196156 31868 net.cpp:124] Setting up pool0
I0428 20:10:35.196162 31868 net.cpp:131] Top shape: 64 25 12 12 (230400)
I0428 20:10:35.196166 31868 net.cpp:139] Memory required for data: 4808960
I0428 20:10:35.196168 31868 layer_factory.hpp:77] Creating layer conv1
I0428 20:10:35.196178 31868 net.cpp:86] Creating Layer conv1
I0428 20:10:35.196182 31868 net.cpp:408] conv1 <- pool0
I0428 20:10:35.196187 31868 net.cpp:382] conv1 -> conv1
I0428 20:10:35.198150 31868 net.cpp:124] Setting up conv1
I0428 20:10:35.198181 31868 net.cpp:131] Top shape: 64 50 8 8 (204800)
I0428 20:10:35.198185 31868 net.cpp:139] Memory required for data: 5628160
I0428 20:10:35.198194 31868 layer_factory.hpp:77] Creating layer pool1
I0428 20:10:35.198201 31868 net.cpp:86] Creating Layer pool1
I0428 20:10:35.198205 31868 net.cpp:408] pool1 <- conv1
I0428 20:10:35.198210 31868 net.cpp:382] pool1 -> pool1
I0428 20:10:35.198246 31868 net.cpp:124] Setting up pool1
I0428 20:10:35.198252 31868 net.cpp:131] Top shape: 64 50 4 4 (51200)
I0428 20:10:35.198256 31868 net.cpp:139] Memory required for data: 5832960
I0428 20:10:35.198258 31868 layer_factory.hpp:77] Creating layer ip1
I0428 20:10:35.198266 31868 net.cpp:86] Creating Layer ip1
I0428 20:10:35.198269 31868 net.cpp:408] ip1 <- pool1
I0428 20:10:35.198274 31868 net.cpp:382] ip1 -> ip1
I0428 20:10:35.198498 31868 net.cpp:124] Setting up ip1
I0428 20:10:35.198505 31868 net.cpp:131] Top shape: 64 25 (1600)
I0428 20:10:35.198508 31868 net.cpp:139] Memory required for data: 5839360
I0428 20:10:35.198514 31868 layer_factory.hpp:77] Creating layer relu1
I0428 20:10:35.198519 31868 net.cpp:86] Creating Layer relu1
I0428 20:10:35.198523 31868 net.cpp:408] relu1 <- ip1
I0428 20:10:35.198526 31868 net.cpp:369] relu1 -> ip1 (in-place)
I0428 20:10:35.198673 31868 net.cpp:124] Setting up relu1
I0428 20:10:35.198680 31868 net.cpp:131] Top shape: 64 25 (1600)
I0428 20:10:35.198683 31868 net.cpp:139] Memory required for data: 5845760
I0428 20:10:35.198686 31868 layer_factory.hpp:77] Creating layer ip2
I0428 20:10:35.198693 31868 net.cpp:86] Creating Layer ip2
I0428 20:10:35.198695 31868 net.cpp:408] ip2 <- ip1
I0428 20:10:35.198700 31868 net.cpp:382] ip2 -> ip2
I0428 20:10:35.198822 31868 net.cpp:124] Setting up ip2
I0428 20:10:35.198828 31868 net.cpp:131] Top shape: 64 10 (640)
I0428 20:10:35.198832 31868 net.cpp:139] Memory required for data: 5848320
I0428 20:10:35.198837 31868 layer_factory.hpp:77] Creating layer relu2
I0428 20:10:35.198843 31868 net.cpp:86] Creating Layer relu2
I0428 20:10:35.198846 31868 net.cpp:408] relu2 <- ip2
I0428 20:10:35.198850 31868 net.cpp:369] relu2 -> ip2 (in-place)
I0428 20:10:35.199625 31868 net.cpp:124] Setting up relu2
I0428 20:10:35.199636 31868 net.cpp:131] Top shape: 64 10 (640)
I0428 20:10:35.199656 31868 net.cpp:139] Memory required for data: 5850880
I0428 20:10:35.199659 31868 layer_factory.hpp:77] Creating layer loss
I0428 20:10:35.199666 31868 net.cpp:86] Creating Layer loss
I0428 20:10:35.199669 31868 net.cpp:408] loss <- ip2
I0428 20:10:35.199674 31868 net.cpp:408] loss <- label
I0428 20:10:35.199679 31868 net.cpp:382] loss -> loss
I0428 20:10:35.199709 31868 layer_factory.hpp:77] Creating layer loss
…
I0428 20:10:35.200287 31868 solver.cpp:173] Creating test net (#0) specified by net file: ECE595/mnist/train_test/var_everything2/lenet_train_test1138.prototxt
I0428 20:10:35.200321 31868 net.cpp:296] The NetState phase (1) differed from the phase (0) specified by a rule in layer mnist
I0428 20:10:35.200398 31868 net.cpp:53] Initializing net from parameters: 
name: "LeNet"
state {
  phase: TEST
}
layer {
  name: "mnist"
  type: "Data"
  top: "data"
  top: "label"
  include {
    phase: TEST
  }
  transform_param {
    scale: 0.00390625
  }
  data_param {
    source: "examples/mnist/mnist_test_lmdb"
    batch_size: 100
    backend: LMDB
  }
}
layer {
  name: "conv0"
  type: "Convolution"
  bottom: "data"
  top: "conv0"
  param {
    lr_mult: 1
  }
  param {
    lr_mult: 2
  }
  convolution_param {
    num_output: 25
    kernel_size: 5
    stride: 1
    weight_filler {
      type: "xavier"
    }
    bias_filler {
      type: "constant"
    }
  }
}
layer {
  name: "pool0"
  type: "Pooling"
  bottom: "conv0"
  top: "pool0"
  pooling_param {
    pool: MAX
    kernel_size: 2
    stride: 2
  }
}
layer {
  name: "conv1"
  type: "Convolution"
  bottom: "pool0"
  top: "conv1"
  param {
    lr_mult: 1
  }
  param {
    lr_mult: 2
  }
  convolution_param {
    num_output: 50
    kernel_size: 5
    stride: 1
    weight_filler {
      type: "xavier"
    }
    bias_filler {
      type: "constant"
    }
  }
}
layer {
  name: "pool1"
  type: "Pooling"
  bottom: "conv1"
  top: "pool1"
  pooling_param {
    pool: MAX
    kernel_size: 2
    stride: 2
  }
}
layer {
  name: "ip1"
  type: "InnerProduct"
  bottom: "pool1"
  top: "ip1"
  param {
    lr_mult: 1
  }
  param {
    lr_mult: 2
  }
  inner_product_param {
    num_output: 25
    weight_filler {
      type: "xavier"
    }
    bias_filler {
      type: "constant"
    }
  }
}
layer {
  name: "relu1"
  type: "ReLU"
  bottom: "ip1"
  top: "ip1"
}
layer {
  name: "ip2"
  type: "InnerProduct"
  bottom: "ip1"
  top: "ip2"
  param {
    lr_mult: 1
  }
  param {
    lr_mult: 2
  }
  inner_product_param {
    num_output: 10
    weight_filler {
      type: "xavier"
    }
    bias_filler {
      type: "constant"
    }
  }
}
layer {
  name: "relu2"
  type: "ReLU"
  bottom: "ip2"
  top: "ip2"
}
layer {
  name: "accuracy"
  type: "Accuracy"
  bottom: "ip2"
  bottom: "label"
  top: "accuracy"
  include {
    phase: TEST
  }
}
layer {
  name: "loss"
  type: "SoftmaxWithLoss"
  bottom: "ip2"
  bottom: "label"
  top: "loss"
}
I0428 20:10:35.200455 31868 layer_factory.hpp:77] Creating layer mnist
I0428 20:10:35.200498 31868 db_lmdb.cpp:35] Opened lmdb examples/mnist/mnist_test_lmdb
I0428 20:10:35.200510 31868 net.cpp:86] Creating Layer mnist
I0428 20:10:35.200515 31868 net.cpp:382] mnist -> data
I0428 20:10:35.200522 31868 net.cpp:382] mnist -> label
I0428 20:10:35.200597 31868 data_layer.cpp:45] output data size: 100,1,28,28
I0428 20:10:35.202589 31868 net.cpp:124] Setting up mnist
I0428 20:10:35.202616 31868 net.cpp:131] Top shape: 100 1 28 28 (78400)
I0428 20:10:35.202622 31868 net.cpp:131] Top shape: 100 (100)
I0428 20:10:35.202625 31868 net.cpp:139] Memory required for data: 314000
I0428 20:10:35.202630 31868 layer_factory.hpp:77] Creating layer label_mnist_1_split
I0428 20:10:35.202639 31868 net.cpp:86] Creating Layer label_mnist_1_split
I0428 20:10:35.202657 31868 net.cpp:408] label_mnist_1_split <- label
I0428 20:10:35.202662 31868 net.cpp:382] label_mnist_1_split -> label_mnist_1_split_0
I0428 20:10:35.202668 31868 net.cpp:382] label_mnist_1_split -> label_mnist_1_split_1
I0428 20:10:35.202777 31868 net.cpp:124] Setting up label_mnist_1_split
I0428 20:10:35.202785 31868 net.cpp:131] Top shape: 100 (100)
I0428 20:10:35.202790 31868 net.cpp:131] Top shape: 100 (100)
I0428 20:10:35.202792 31868 net.cpp:139] Memory required for data: 314800
I0428 20:10:35.202795 31868 layer_factory.hpp:77] Creating layer conv0
I0428 20:10:35.202805 31868 net.cpp:86] Creating Layer conv0
I0428 20:10:35.202807 31868 net.cpp:408] conv0 <- data
I0428 20:10:35.202812 31868 net.cpp:382] conv0 -> conv0
I0428 20:10:35.204500 31868 net.cpp:124] Setting up conv0
I0428 20:10:35.204530 31868 net.cpp:131] Top shape: 100 25 24 24 (1440000)
I0428 20:10:35.204533 31868 net.cpp:139] Memory required for data: 6074800
I0428 20:10:35.204543 31868 layer_factory.hpp:77] Creating layer pool0
I0428 20:10:35.204550 31868 net.cpp:86] Creating Layer pool0
I0428 20:10:35.204566 31868 net.cpp:408] pool0 <- conv0
I0428 20:10:35.204569 31868 net.cpp:382] pool0 -> pool0
I0428 20:10:35.204624 31868 net.cpp:124] Setting up pool0
I0428 20:10:35.204630 31868 net.cpp:131] Top shape: 100 25 12 12 (360000)
I0428 20:10:35.204633 31868 net.cpp:139] Memory required for data: 7514800
I0428 20:10:35.204637 31868 layer_factory.hpp:77] Creating layer conv1
I0428 20:10:35.204645 31868 net.cpp:86] Creating Layer conv1
I0428 20:10:35.204648 31868 net.cpp:408] conv1 <- pool0
I0428 20:10:35.204653 31868 net.cpp:382] conv1 -> conv1
I0428 20:10:35.206442 31868 net.cpp:124] Setting up conv1
I0428 20:10:35.206455 31868 net.cpp:131] Top shape: 100 50 8 8 (320000)
I0428 20:10:35.206475 31868 net.cpp:139] Memory required for data: 8794800
I0428 20:10:35.206485 31868 layer_factory.hpp:77] Creating layer pool1
I0428 20:10:35.206491 31868 net.cpp:86] Creating Layer pool1
I0428 20:10:35.206496 31868 net.cpp:408] pool1 <- conv1
I0428 20:10:35.206501 31868 net.cpp:382] pool1 -> pool1
I0428 20:10:35.206542 31868 net.cpp:124] Setting up pool1
I0428 20:10:35.206547 31868 net.cpp:131] Top shape: 100 50 4 4 (80000)
I0428 20:10:35.206552 31868 net.cpp:139] Memory required for data: 9114800
I0428 20:10:35.206554 31868 layer_factory.hpp:77] Creating layer ip1
I0428 20:10:35.206560 31868 net.cpp:86] Creating Layer ip1
I0428 20:10:35.206564 31868 net.cpp:408] ip1 <- pool1
I0428 20:10:35.206569 31868 net.cpp:382] ip1 -> ip1
I0428 20:10:35.206810 31868 net.cpp:124] Setting up ip1
I0428 20:10:35.206831 31868 net.cpp:131] Top shape: 100 25 (2500)
I0428 20:10:35.206835 31868 net.cpp:139] Memory required for data: 9124800
I0428 20:10:35.206842 31868 layer_factory.hpp:77] Creating layer relu1
I0428 20:10:35.206847 31868 net.cpp:86] Creating Layer relu1
I0428 20:10:35.206851 31868 net.cpp:408] relu1 <- ip1
I0428 20:10:35.206856 31868 net.cpp:369] relu1 -> ip1 (in-place)
I0428 20:10:35.207001 31868 net.cpp:124] Setting up relu1
I0428 20:10:35.207010 31868 net.cpp:131] Top shape: 100 25 (2500)
I0428 20:10:35.207013 31868 net.cpp:139] Memory required for data: 9134800
I0428 20:10:35.207017 31868 layer_factory.hpp:77] Creating layer ip2
I0428 20:10:35.207025 31868 net.cpp:86] Creating Layer ip2
I0428 20:10:35.207027 31868 net.cpp:408] ip2 <- ip1
I0428 20:10:35.207032 31868 net.cpp:382] ip2 -> ip2
I0428 20:10:35.207132 31868 net.cpp:124] Setting up ip2
I0428 20:10:35.207140 31868 net.cpp:131] Top shape: 100 10 (1000)
I0428 20:10:35.207144 31868 net.cpp:139] Memory required for data: 9138800
I0428 20:10:35.207149 31868 layer_factory.hpp:77] Creating layer relu2
I0428 20:10:35.207154 31868 net.cpp:86] Creating Layer relu2
I0428 20:10:35.207157 31868 net.cpp:408] relu2 <- ip2
I0428 20:10:35.207161 31868 net.cpp:369] relu2 -> ip2 (in-place)
I0428 20:10:35.207322 31868 net.cpp:124] Setting up relu2
I0428 20:10:35.207331 31868 net.cpp:131] Top shape: 100 10 (1000)
I0428 20:10:35.207335 31868 net.cpp:139] Memory required for data: 9142800
I0428 20:10:35.207339 31868 layer_factory.hpp:77] Creating layer ip2_relu2_0_split
I0428 20:10:35.207343 31868 net.cpp:86] Creating Layer ip2_relu2_0_split
I0428 20:10:35.207347 31868 net.cpp:408] ip2_relu2_0_split <- ip2
I0428 20:10:35.207358 31868 net.cpp:382] ip2_relu2_0_split -> ip2_relu2_0_split_0
I0428 20:10:35.207376 31868 net.cpp:382] ip2_relu2_0_split -> ip2_relu2_0_split_1
I0428 20:10:35.207412 31868 net.cpp:124] Setting up ip2_relu2_0_split
I0428 20:10:35.207420 31868 net.cpp:131] Top shape: 100 10 (1000)
I0428 20:10:35.207424 31868 net.cpp:131] Top shape: 100 10 (1000)
I0428 20:10:35.207427 31868 net.cpp:139] Memory required for data: 9150800
I0428 20:10:35.207432 31868 layer_factory.hpp:77] Creating layer accuracy
I0428 20:10:35.207437 31868 net.cpp:86] Creating Layer accuracy
I0428 20:10:35.207440 31868 net.cpp:408] accuracy <- ip2_relu2_0_split_0
I0428 20:10:35.207444 31868 net.cpp:408] accuracy <- label_mnist_1_split_0
I0428 20:10:35.207449 31868 net.cpp:382] accuracy -> accuracy
…
