…
I0428 20:22:01.755084  1869 net.cpp:296] The NetState phase (0) differed from the phase (1) specified by a rule in layer mnist
I0428 20:22:01.755098  1869 net.cpp:296] The NetState phase (0) differed from the phase (1) specified by a rule in layer accuracy
I0428 20:22:01.755177  1869 net.cpp:53] Initializing net from parameters: 
name: "LeNet"
state {
  phase: TRAIN
  level: 0
  stage: ""
}
layer {
  name: "mnist"
  type: "Data"
  top: "data"
  top: "label"
  include {
    phase: TRAIN
  }
  transform_param {
    scale: 0.00390625
  }
  data_param {
    source: "examples/mnist/mnist_train_lmdb"
    batch_size: 64
    backend: LMDB
  }
}
layer {
  name: "conv0"
  type: "Convolution"
  bottom: "data"
  top: "conv0"
  param {
    lr_mult: 1
  }
  param {
    lr_mult: 2
  }
  convolution_param {
    num_output: 50
    kernel_size: 5
    stride: 1
    weight_filler {
      type: "xavier"
    }
    bias_filler {
      type: "constant"
    }
  }
}
layer {
  name: "pool0"
  type: "Pooling"
  bottom: "conv0"
  top: "pool0"
  pooling_param {
    pool: MAX
    kernel_size: 2
    stride: 2
  }
}
layer {
  name: "conv1"
  type: "Convolution"
  bottom: "pool0"
  top: "conv1"
  param {
    lr_mult: 1
  }
  param {
    lr_mult: 2
  }
  convolution_param {
    num_output: 50
    kernel_size: 5
    stride: 1
    weight_filler {
      type: "xavier"
    }
    bias_filler {
      type: "constant"
    }
  }
}
layer {
  name: "pool1"
  type: "Pooling"
  bottom: "conv1"
  top: "pool1"
  pooling_param {
    pool: MAX
    kernel_size: 2
    stride: 2
  }
}
layer {
  name: "ip1"
  type: "InnerProduct"
  bottom: "pool1"
  top: "ip1"
  param {
    lr_mult: 1
  }
  param {
    lr_mult: 2
  }
  inner_product_param {
    num_output: 50
    weight_filler {
      type: "xavier"
    }
    bias_filler {
      type: "constant"
    }
  }
}
layer {
  name: "relu1"
  type: "ReLU"
  bottom: "ip1"
  top: "ip1"
}
layer {
  name: "ip2"
  type: "InnerProduct"
  bottom: "ip1"
  top: "ip2"
  param {
    lr_mult: 1
  }
  param {
    lr_mult: 2
  }
  inner_product_param {
    num_output: 10
    weight_filler {
      type: "xavier"
    }
    bias_filler {
      type: "constant"
    }
  }
}
layer {
  name: "relu2"
  type: "ReLU"
  bottom: "ip2"
  top: "ip2"
}
layer {
  name: "ip3"
  type: "InnerProduct"
  bottom: "ip2"
  top: "ip3"
  param {
    lr_mult: 1
  }
  param {
    lr_mult: 2
  }
  inner_product_param {
    num_output: 10
    weight_filler {
      type: "xavier"
    }
    bias_filler {
      type: "constant"
    }
  }
}
layer {
  name: "relu3"
  type: "ReLU"
  bottom: "ip3"
  top: "ip3"
}
layer {
  name: "loss"
  type: "SoftmaxWithLoss"
  bottom: "ip3"
  bottom: "label"
  top: "loss"
}
I0428 20:22:01.755255  1869 layer_factory.hpp:77] Creating layer mnist
I0428 20:22:01.755338  1869 db_lmdb.cpp:35] Opened lmdb examples/mnist/mnist_train_lmdb
I0428 20:22:01.755357  1869 net.cpp:86] Creating Layer mnist
I0428 20:22:01.755362  1869 net.cpp:382] mnist -> data
I0428 20:22:01.755383  1869 net.cpp:382] mnist -> label
I0428 20:22:01.756270  1869 data_layer.cpp:45] output data size: 64,1,28,28
I0428 20:22:01.758394  1869 net.cpp:124] Setting up mnist
I0428 20:22:01.758445  1869 net.cpp:131] Top shape: 64 1 28 28 (50176)
I0428 20:22:01.758455  1869 net.cpp:131] Top shape: 64 (64)
I0428 20:22:01.758460  1869 net.cpp:139] Memory required for data: 200960
I0428 20:22:01.758468  1869 layer_factory.hpp:77] Creating layer conv0
I0428 20:22:01.758487  1869 net.cpp:86] Creating Layer conv0
I0428 20:22:01.758522  1869 net.cpp:408] conv0 <- data
I0428 20:22:01.758533  1869 net.cpp:382] conv0 -> conv0
I0428 20:22:01.984102  1869 net.cpp:124] Setting up conv0
I0428 20:22:01.984128  1869 net.cpp:131] Top shape: 64 50 24 24 (1843200)
I0428 20:22:01.984133  1869 net.cpp:139] Memory required for data: 7573760
I0428 20:22:01.984146  1869 layer_factory.hpp:77] Creating layer pool0
I0428 20:22:01.984158  1869 net.cpp:86] Creating Layer pool0
I0428 20:22:01.984161  1869 net.cpp:408] pool0 <- conv0
I0428 20:22:01.984166  1869 net.cpp:382] pool0 -> pool0
I0428 20:22:01.984225  1869 net.cpp:124] Setting up pool0
I0428 20:22:01.984230  1869 net.cpp:131] Top shape: 64 50 12 12 (460800)
I0428 20:22:01.984233  1869 net.cpp:139] Memory required for data: 9416960
I0428 20:22:01.984236  1869 layer_factory.hpp:77] Creating layer conv1
I0428 20:22:01.984246  1869 net.cpp:86] Creating Layer conv1
I0428 20:22:01.984248  1869 net.cpp:408] conv1 <- pool0
I0428 20:22:01.984253  1869 net.cpp:382] conv1 -> conv1
I0428 20:22:01.986488  1869 net.cpp:124] Setting up conv1
I0428 20:22:01.986502  1869 net.cpp:131] Top shape: 64 50 8 8 (204800)
I0428 20:22:01.986506  1869 net.cpp:139] Memory required for data: 10236160
I0428 20:22:01.986528  1869 layer_factory.hpp:77] Creating layer pool1
I0428 20:22:01.986552  1869 net.cpp:86] Creating Layer pool1
I0428 20:22:01.986554  1869 net.cpp:408] pool1 <- conv1
I0428 20:22:01.986559  1869 net.cpp:382] pool1 -> pool1
I0428 20:22:01.986594  1869 net.cpp:124] Setting up pool1
I0428 20:22:01.986599  1869 net.cpp:131] Top shape: 64 50 4 4 (51200)
I0428 20:22:01.986603  1869 net.cpp:139] Memory required for data: 10440960
I0428 20:22:01.986605  1869 layer_factory.hpp:77] Creating layer ip1
I0428 20:22:01.986611  1869 net.cpp:86] Creating Layer ip1
I0428 20:22:01.986614  1869 net.cpp:408] ip1 <- pool1
I0428 20:22:01.986619  1869 net.cpp:382] ip1 -> ip1
I0428 20:22:01.986958  1869 net.cpp:124] Setting up ip1
I0428 20:22:01.986964  1869 net.cpp:131] Top shape: 64 50 (3200)
I0428 20:22:01.986984  1869 net.cpp:139] Memory required for data: 10453760
I0428 20:22:01.986990  1869 layer_factory.hpp:77] Creating layer relu1
I0428 20:22:01.986995  1869 net.cpp:86] Creating Layer relu1
I0428 20:22:01.986999  1869 net.cpp:408] relu1 <- ip1
I0428 20:22:01.987004  1869 net.cpp:369] relu1 -> ip1 (in-place)
I0428 20:22:01.987182  1869 net.cpp:124] Setting up relu1
I0428 20:22:01.987190  1869 net.cpp:131] Top shape: 64 50 (3200)
I0428 20:22:01.987195  1869 net.cpp:139] Memory required for data: 10466560
I0428 20:22:01.987197  1869 layer_factory.hpp:77] Creating layer ip2
I0428 20:22:01.987203  1869 net.cpp:86] Creating Layer ip2
I0428 20:22:01.987207  1869 net.cpp:408] ip2 <- ip1
I0428 20:22:01.987212  1869 net.cpp:382] ip2 -> ip2
I0428 20:22:01.987319  1869 net.cpp:124] Setting up ip2
I0428 20:22:01.987326  1869 net.cpp:131] Top shape: 64 10 (640)
I0428 20:22:01.987329  1869 net.cpp:139] Memory required for data: 10469120
I0428 20:22:01.987334  1869 layer_factory.hpp:77] Creating layer relu2
I0428 20:22:01.987340  1869 net.cpp:86] Creating Layer relu2
I0428 20:22:01.987344  1869 net.cpp:408] relu2 <- ip2
I0428 20:22:01.987347  1869 net.cpp:369] relu2 -> ip2 (in-place)
I0428 20:22:01.988067  1869 net.cpp:124] Setting up relu2
I0428 20:22:01.988080  1869 net.cpp:131] Top shape: 64 10 (640)
I0428 20:22:01.988098  1869 net.cpp:139] Memory required for data: 10471680
I0428 20:22:01.988102  1869 layer_factory.hpp:77] Creating layer ip3
I0428 20:22:01.988109  1869 net.cpp:86] Creating Layer ip3
I0428 20:22:01.988113  1869 net.cpp:408] ip3 <- ip2
I0428 20:22:01.988119  1869 net.cpp:382] ip3 -> ip3
I0428 20:22:01.988231  1869 net.cpp:124] Setting up ip3
I0428 20:22:01.988239  1869 net.cpp:131] Top shape: 64 10 (640)
I0428 20:22:01.988242  1869 net.cpp:139] Memory required for data: 10474240
I0428 20:22:01.988250  1869 layer_factory.hpp:77] Creating layer relu3
I0428 20:22:01.988255  1869 net.cpp:86] Creating Layer relu3
I0428 20:22:01.988260  1869 net.cpp:408] relu3 <- ip3
I0428 20:22:01.988263  1869 net.cpp:369] relu3 -> ip3 (in-place)
I0428 20:22:01.988456  1869 net.cpp:124] Setting up relu3
I0428 20:22:01.988464  1869 net.cpp:131] Top shape: 64 10 (640)
I0428 20:22:01.988467  1869 net.cpp:139] Memory required for data: 10476800
I0428 20:22:01.988471  1869 layer_factory.hpp:77] Creating layer loss
I0428 20:22:01.988476  1869 net.cpp:86] Creating Layer loss
I0428 20:22:01.988478  1869 net.cpp:408] loss <- ip3
I0428 20:22:01.988482  1869 net.cpp:408] loss <- label
I0428 20:22:01.988487  1869 net.cpp:382] loss -> loss
I0428 20:22:01.988504  1869 layer_factory.hpp:77] Creating layer loss
…
I0428 20:22:01.989297  1869 solver.cpp:173] Creating test net (#0) specified by net file: ECE595/mnist/train_test/var_everything2/lenet_train_test1396.prototxt
I0428 20:22:01.989333  1869 net.cpp:296] The NetState phase (1) differed from the phase (0) specified by a rule in layer mnist
I0428 20:22:01.989419  1869 net.cpp:53] Initializing net from parameters: 
name: "LeNet"
state {
  phase: TEST
}
layer {
  name: "mnist"
  type: "Data"
  top: "data"
  top: "label"
  include {
    phase: TEST
  }
  transform_param {
    scale: 0.00390625
  }
  data_param {
    source: "examples/mnist/mnist_test_lmdb"
    batch_size: 100
    backend: LMDB
  }
}
layer {
  name: "conv0"
  type: "Convolution"
  bottom: "data"
  top: "conv0"
  param {
    lr_mult: 1
  }
  param {
    lr_mult: 2
  }
  convolution_param {
    num_output: 50
    kernel_size: 5
    stride: 1
    weight_filler {
      type: "xavier"
    }
    bias_filler {
      type: "constant"
    }
  }
}
layer {
  name: "pool0"
  type: "Pooling"
  bottom: "conv0"
  top: "pool0"
  pooling_param {
    pool: MAX
    kernel_size: 2
    stride: 2
  }
}
layer {
  name: "conv1"
  type: "Convolution"
  bottom: "pool0"
  top: "conv1"
  param {
    lr_mult: 1
  }
  param {
    lr_mult: 2
  }
  convolution_param {
    num_output: 50
    kernel_size: 5
    stride: 1
    weight_filler {
      type: "xavier"
    }
    bias_filler {
      type: "constant"
    }
  }
}
layer {
  name: "pool1"
  type: "Pooling"
  bottom: "conv1"
  top: "pool1"
  pooling_param {
    pool: MAX
    kernel_size: 2
    stride: 2
  }
}
layer {
  name: "ip1"
  type: "InnerProduct"
  bottom: "pool1"
  top: "ip1"
  param {
    lr_mult: 1
  }
  param {
    lr_mult: 2
  }
  inner_product_param {
    num_output: 50
    weight_filler {
      type: "xavier"
    }
    bias_filler {
      type: "constant"
    }
  }
}
layer {
  name: "relu1"
  type: "ReLU"
  bottom: "ip1"
  top: "ip1"
}
layer {
  name: "ip2"
  type: "InnerProduct"
  bottom: "ip1"
  top: "ip2"
  param {
    lr_mult: 1
  }
  param {
    lr_mult: 2
  }
  inner_product_param {
    num_output: 10
    weight_filler {
      type: "xavier"
    }
    bias_filler {
      type: "constant"
    }
  }
}
layer {
  name: "relu2"
  type: "ReLU"
  bottom: "ip2"
  top: "ip2"
}
layer {
  name: "ip3"
  type: "InnerProduct"
  bottom: "ip2"
  top: "ip3"
  param {
    lr_mult: 1
  }
  param {
    lr_mult: 2
  }
  inner_product_param {
    num_output: 10
    weight_filler {
      type: "xavier"
    }
    bias_filler {
      type: "constant"
    }
  }
}
layer {
  name: "relu3"
  type: "ReLU"
  bottom: "ip3"
  top: "ip3"
}
layer {
  name: "accuracy"
  type: "Accuracy"
  bottom: "ip3"
  bottom: "label"
  top: "accuracy"
  include {
    phase: TEST
  }
}
layer {
  name: "loss"
  type: "SoftmaxWithLoss"
  bottom: "ip3"
  bottom: "label"
  top: "loss"
}
I0428 20:22:01.989495  1869 layer_factory.hpp:77] Creating layer mnist
I0428 20:22:01.989537  1869 db_lmdb.cpp:35] Opened lmdb examples/mnist/mnist_test_lmdb
I0428 20:22:01.989548  1869 net.cpp:86] Creating Layer mnist
I0428 20:22:01.989553  1869 net.cpp:382] mnist -> data
I0428 20:22:01.989560  1869 net.cpp:382] mnist -> label
I0428 20:22:01.989653  1869 data_layer.cpp:45] output data size: 100,1,28,28
I0428 20:22:01.991519  1869 net.cpp:124] Setting up mnist
I0428 20:22:01.991564  1869 net.cpp:131] Top shape: 100 1 28 28 (78400)
I0428 20:22:01.991569  1869 net.cpp:131] Top shape: 100 (100)
I0428 20:22:01.991572  1869 net.cpp:139] Memory required for data: 314000
I0428 20:22:01.991576  1869 layer_factory.hpp:77] Creating layer label_mnist_1_split
I0428 20:22:01.991586  1869 net.cpp:86] Creating Layer label_mnist_1_split
I0428 20:22:01.991590  1869 net.cpp:408] label_mnist_1_split <- label
I0428 20:22:01.991595  1869 net.cpp:382] label_mnist_1_split -> label_mnist_1_split_0
I0428 20:22:01.991601  1869 net.cpp:382] label_mnist_1_split -> label_mnist_1_split_1
I0428 20:22:01.991698  1869 net.cpp:124] Setting up label_mnist_1_split
I0428 20:22:01.991706  1869 net.cpp:131] Top shape: 100 (100)
I0428 20:22:01.991710  1869 net.cpp:131] Top shape: 100 (100)
I0428 20:22:01.991714  1869 net.cpp:139] Memory required for data: 314800
I0428 20:22:01.991716  1869 layer_factory.hpp:77] Creating layer conv0
I0428 20:22:01.991725  1869 net.cpp:86] Creating Layer conv0
I0428 20:22:01.991729  1869 net.cpp:408] conv0 <- data
I0428 20:22:01.991734  1869 net.cpp:382] conv0 -> conv0
I0428 20:22:01.993454  1869 net.cpp:124] Setting up conv0
I0428 20:22:01.993468  1869 net.cpp:131] Top shape: 100 50 24 24 (2880000)
I0428 20:22:01.993487  1869 net.cpp:139] Memory required for data: 11834800
I0428 20:22:01.993512  1869 layer_factory.hpp:77] Creating layer pool0
I0428 20:22:01.993520  1869 net.cpp:86] Creating Layer pool0
I0428 20:22:01.993523  1869 net.cpp:408] pool0 <- conv0
I0428 20:22:01.993530  1869 net.cpp:382] pool0 -> pool0
I0428 20:22:01.993566  1869 net.cpp:124] Setting up pool0
I0428 20:22:01.993574  1869 net.cpp:131] Top shape: 100 50 12 12 (720000)
I0428 20:22:01.993577  1869 net.cpp:139] Memory required for data: 14714800
I0428 20:22:01.993604  1869 layer_factory.hpp:77] Creating layer conv1
I0428 20:22:01.993614  1869 net.cpp:86] Creating Layer conv1
I0428 20:22:01.993618  1869 net.cpp:408] conv1 <- pool0
I0428 20:22:01.993623  1869 net.cpp:382] conv1 -> conv1
I0428 20:22:01.995575  1869 net.cpp:124] Setting up conv1
I0428 20:22:01.995590  1869 net.cpp:131] Top shape: 100 50 8 8 (320000)
I0428 20:22:01.995595  1869 net.cpp:139] Memory required for data: 15994800
I0428 20:22:01.995605  1869 layer_factory.hpp:77] Creating layer pool1
I0428 20:22:01.995611  1869 net.cpp:86] Creating Layer pool1
I0428 20:22:01.995615  1869 net.cpp:408] pool1 <- conv1
I0428 20:22:01.995620  1869 net.cpp:382] pool1 -> pool1
I0428 20:22:01.995657  1869 net.cpp:124] Setting up pool1
I0428 20:22:01.995662  1869 net.cpp:131] Top shape: 100 50 4 4 (80000)
I0428 20:22:01.995666  1869 net.cpp:139] Memory required for data: 16314800
I0428 20:22:01.995671  1869 layer_factory.hpp:77] Creating layer ip1
I0428 20:22:01.995676  1869 net.cpp:86] Creating Layer ip1
I0428 20:22:01.995678  1869 net.cpp:408] ip1 <- pool1
I0428 20:22:01.995683  1869 net.cpp:382] ip1 -> ip1
I0428 20:22:01.996076  1869 net.cpp:124] Setting up ip1
I0428 20:22:01.996083  1869 net.cpp:131] Top shape: 100 50 (5000)
I0428 20:22:01.996112  1869 net.cpp:139] Memory required for data: 16334800
I0428 20:22:01.996120  1869 layer_factory.hpp:77] Creating layer relu1
I0428 20:22:01.996126  1869 net.cpp:86] Creating Layer relu1
I0428 20:22:01.996129  1869 net.cpp:408] relu1 <- ip1
I0428 20:22:01.996134  1869 net.cpp:369] relu1 -> ip1 (in-place)
I0428 20:22:01.996304  1869 net.cpp:124] Setting up relu1
I0428 20:22:01.996312  1869 net.cpp:131] Top shape: 100 50 (5000)
I0428 20:22:01.996315  1869 net.cpp:139] Memory required for data: 16354800
I0428 20:22:01.996318  1869 layer_factory.hpp:77] Creating layer ip2
I0428 20:22:01.996326  1869 net.cpp:86] Creating Layer ip2
I0428 20:22:01.996330  1869 net.cpp:408] ip2 <- ip1
I0428 20:22:01.996335  1869 net.cpp:382] ip2 -> ip2
I0428 20:22:01.996438  1869 net.cpp:124] Setting up ip2
I0428 20:22:01.996445  1869 net.cpp:131] Top shape: 100 10 (1000)
I0428 20:22:01.996464  1869 net.cpp:139] Memory required for data: 16358800
I0428 20:22:01.996469  1869 layer_factory.hpp:77] Creating layer relu2
I0428 20:22:01.996489  1869 net.cpp:86] Creating Layer relu2
I0428 20:22:01.996492  1869 net.cpp:408] relu2 <- ip2
I0428 20:22:01.996496  1869 net.cpp:369] relu2 -> ip2 (in-place)
I0428 20:22:01.996652  1869 net.cpp:124] Setting up relu2
I0428 20:22:01.996660  1869 net.cpp:131] Top shape: 100 10 (1000)
I0428 20:22:01.996664  1869 net.cpp:139] Memory required for data: 16362800
I0428 20:22:01.996666  1869 layer_factory.hpp:77] Creating layer ip3
I0428 20:22:01.996671  1869 net.cpp:86] Creating Layer ip3
I0428 20:22:01.996675  1869 net.cpp:408] ip3 <- ip2
I0428 20:22:01.996680  1869 net.cpp:382] ip3 -> ip3
I0428 20:22:01.996773  1869 net.cpp:124] Setting up ip3
I0428 20:22:01.996780  1869 net.cpp:131] Top shape: 100 10 (1000)
I0428 20:22:01.996783  1869 net.cpp:139] Memory required for data: 16366800
I0428 20:22:01.996791  1869 layer_factory.hpp:77] Creating layer relu3
I0428 20:22:01.996834  1869 net.cpp:86] Creating Layer relu3
I0428 20:22:01.996839  1869 net.cpp:408] relu3 <- ip3
I0428 20:22:01.996843  1869 net.cpp:369] relu3 -> ip3 (in-place)
I0428 20:22:01.997601  1869 net.cpp:124] Setting up relu3
I0428 20:22:01.997612  1869 net.cpp:131] Top shape: 100 10 (1000)
I0428 20:22:01.997630  1869 net.cpp:139] Memory required for data: 16370800
I0428 20:22:01.997634  1869 layer_factory.hpp:77] Creating layer ip3_relu3_0_split
I0428 20:22:01.997639  1869 net.cpp:86] Creating Layer ip3_relu3_0_split
I0428 20:22:01.997642  1869 net.cpp:408] ip3_relu3_0_split <- ip3
I0428 20:22:01.997648  1869 net.cpp:382] ip3_relu3_0_split -> ip3_relu3_0_split_0
I0428 20:22:01.997653  1869 net.cpp:382] ip3_relu3_0_split -> ip3_relu3_0_split_1
I0428 20:22:01.997689  1869 net.cpp:124] Setting up ip3_relu3_0_split
I0428 20:22:01.997694  1869 net.cpp:131] Top shape: 100 10 (1000)
I0428 20:22:01.997697  1869 net.cpp:131] Top shape: 100 10 (1000)
I0428 20:22:01.997699  1869 net.cpp:139] Memory required for data: 16378800
I0428 20:22:01.997702  1869 layer_factory.hpp:77] Creating layer accuracy
I0428 20:22:01.997707  1869 net.cpp:86] Creating Layer accuracy
I0428 20:22:01.997710  1869 net.cpp:408] accuracy <- ip3_relu3_0_split_0
I0428 20:22:01.997714  1869 net.cpp:408] accuracy <- label_mnist_1_split_0
I0428 20:22:01.997719  1869 net.cpp:382] accuracy -> accuracy
…
