…
I0428 19:50:52.967160 27143 net.cpp:296] The NetState phase (0) differed from the phase (1) specified by a rule in layer mnist
I0428 19:50:52.967180 27143 net.cpp:296] The NetState phase (0) differed from the phase (1) specified by a rule in layer accuracy
I0428 19:50:52.967284 27143 net.cpp:53] Initializing net from parameters: 
name: "LeNet"
state {
  phase: TRAIN
  level: 0
  stage: ""
}
layer {
  name: "mnist"
  type: "Data"
  top: "data"
  top: "label"
  include {
    phase: TRAIN
  }
  transform_param {
    scale: 0.00390625
  }
  data_param {
    source: "examples/mnist/mnist_train_lmdb"
    batch_size: 64
    backend: LMDB
  }
}
layer {
  name: "conv0"
  type: "Convolution"
  bottom: "data"
  top: "conv0"
  param {
    lr_mult: 1
  }
  param {
    lr_mult: 2
  }
  convolution_param {
    num_output: 5
    kernel_size: 5
    stride: 1
    weight_filler {
      type: "xavier"
    }
    bias_filler {
      type: "constant"
    }
  }
}
layer {
  name: "pool0"
  type: "Pooling"
  bottom: "conv0"
  top: "pool0"
  pooling_param {
    pool: MAX
    kernel_size: 2
    stride: 2
  }
}
layer {
  name: "conv1"
  type: "Convolution"
  bottom: "pool0"
  top: "conv1"
  param {
    lr_mult: 1
  }
  param {
    lr_mult: 2
  }
  convolution_param {
    num_output: 10
    kernel_size: 5
    stride: 1
    weight_filler {
      type: "xavier"
    }
    bias_filler {
      type: "constant"
    }
  }
}
layer {
  name: "pool1"
  type: "Pooling"
  bottom: "conv1"
  top: "pool1"
  pooling_param {
    pool: MAX
    kernel_size: 2
    stride: 2
  }
}
layer {
  name: "ip1"
  type: "InnerProduct"
  bottom: "pool1"
  top: "ip1"
  param {
    lr_mult: 1
  }
  param {
    lr_mult: 2
  }
  inner_product_param {
    num_output: 50
    weight_filler {
      type: "xavier"
    }
    bias_filler {
      type: "constant"
    }
  }
}
layer {
  name: "relu1"
  type: "ReLU"
  bottom: "ip1"
  top: "ip1"
}
layer {
  name: "ip2"
  type: "InnerProduct"
  bottom: "ip1"
  top: "ip2"
  param {
    lr_mult: 1
  }
  param {
    lr_mult: 2
  }
  inner_product_param {
    num_output: 10
    weight_filler {
      type: "xavier"
    }
    bias_filler {
      type: "constant"
    }
  }
}
layer {
  name: "relu2"
  type: "ReLU"
  bottom: "ip2"
  top: "ip2"
}
layer {
  name: "ip3"
  type: "InnerProduct"
  bottom: "ip2"
  top: "ip3"
  param {
    lr_mult: 1
  }
  param {
    lr_mult: 2
  }
  inner_product_param {
    num_output: 10
    weight_filler {
      type: "xavier"
    }
    bias_filler {
      type: "constant"
    }
  }
}
layer {
  name: "relu3"
  type: "ReLU"
  bottom: "ip3"
  top: "ip3"
}
layer {
  name: "loss"
  type: "SoftmaxWithLoss"
  bottom: "ip3"
  bottom: "label"
  top: "loss"
}
I0428 19:50:52.967365 27143 layer_factory.hpp:77] Creating layer mnist
I0428 19:50:52.967468 27143 db_lmdb.cpp:35] Opened lmdb examples/mnist/mnist_train_lmdb
I0428 19:50:52.967494 27143 net.cpp:86] Creating Layer mnist
I0428 19:50:52.967501 27143 net.cpp:382] mnist -> data
I0428 19:50:52.967525 27143 net.cpp:382] mnist -> label
I0428 19:50:52.968613 27143 data_layer.cpp:45] output data size: 64,1,28,28
I0428 19:50:52.971089 27143 net.cpp:124] Setting up mnist
I0428 19:50:52.971107 27143 net.cpp:131] Top shape: 64 1 28 28 (50176)
I0428 19:50:52.971114 27143 net.cpp:131] Top shape: 64 (64)
I0428 19:50:52.971118 27143 net.cpp:139] Memory required for data: 200960
I0428 19:50:52.971125 27143 layer_factory.hpp:77] Creating layer conv0
I0428 19:50:52.971141 27143 net.cpp:86] Creating Layer conv0
I0428 19:50:52.971161 27143 net.cpp:408] conv0 <- data
I0428 19:50:52.971175 27143 net.cpp:382] conv0 -> conv0
I0428 19:50:53.234711 27143 net.cpp:124] Setting up conv0
I0428 19:50:53.234752 27143 net.cpp:131] Top shape: 64 5 24 24 (184320)
I0428 19:50:53.234755 27143 net.cpp:139] Memory required for data: 938240
I0428 19:50:53.234771 27143 layer_factory.hpp:77] Creating layer pool0
I0428 19:50:53.234783 27143 net.cpp:86] Creating Layer pool0
I0428 19:50:53.234787 27143 net.cpp:408] pool0 <- conv0
I0428 19:50:53.234792 27143 net.cpp:382] pool0 -> pool0
I0428 19:50:53.234838 27143 net.cpp:124] Setting up pool0
I0428 19:50:53.234843 27143 net.cpp:131] Top shape: 64 5 12 12 (46080)
I0428 19:50:53.234846 27143 net.cpp:139] Memory required for data: 1122560
I0428 19:50:53.234849 27143 layer_factory.hpp:77] Creating layer conv1
I0428 19:50:53.234858 27143 net.cpp:86] Creating Layer conv1
I0428 19:50:53.234863 27143 net.cpp:408] conv1 <- pool0
I0428 19:50:53.234866 27143 net.cpp:382] conv1 -> conv1
I0428 19:50:53.237614 27143 net.cpp:124] Setting up conv1
I0428 19:50:53.237644 27143 net.cpp:131] Top shape: 64 10 8 8 (40960)
I0428 19:50:53.237648 27143 net.cpp:139] Memory required for data: 1286400
I0428 19:50:53.237659 27143 layer_factory.hpp:77] Creating layer pool1
I0428 19:50:53.237666 27143 net.cpp:86] Creating Layer pool1
I0428 19:50:53.237670 27143 net.cpp:408] pool1 <- conv1
I0428 19:50:53.237674 27143 net.cpp:382] pool1 -> pool1
I0428 19:50:53.237727 27143 net.cpp:124] Setting up pool1
I0428 19:50:53.237733 27143 net.cpp:131] Top shape: 64 10 4 4 (10240)
I0428 19:50:53.237736 27143 net.cpp:139] Memory required for data: 1327360
I0428 19:50:53.237740 27143 layer_factory.hpp:77] Creating layer ip1
I0428 19:50:53.237746 27143 net.cpp:86] Creating Layer ip1
I0428 19:50:53.237749 27143 net.cpp:408] ip1 <- pool1
I0428 19:50:53.237754 27143 net.cpp:382] ip1 -> ip1
I0428 19:50:53.238788 27143 net.cpp:124] Setting up ip1
I0428 19:50:53.238801 27143 net.cpp:131] Top shape: 64 50 (3200)
I0428 19:50:53.238819 27143 net.cpp:139] Memory required for data: 1340160
I0428 19:50:53.238843 27143 layer_factory.hpp:77] Creating layer relu1
I0428 19:50:53.238867 27143 net.cpp:86] Creating Layer relu1
I0428 19:50:53.238870 27143 net.cpp:408] relu1 <- ip1
I0428 19:50:53.238875 27143 net.cpp:369] relu1 -> ip1 (in-place)
I0428 19:50:53.239064 27143 net.cpp:124] Setting up relu1
I0428 19:50:53.239074 27143 net.cpp:131] Top shape: 64 50 (3200)
I0428 19:50:53.239078 27143 net.cpp:139] Memory required for data: 1352960
I0428 19:50:53.239081 27143 layer_factory.hpp:77] Creating layer ip2
I0428 19:50:53.239089 27143 net.cpp:86] Creating Layer ip2
I0428 19:50:53.239092 27143 net.cpp:408] ip2 <- ip1
I0428 19:50:53.239099 27143 net.cpp:382] ip2 -> ip2
I0428 19:50:53.239204 27143 net.cpp:124] Setting up ip2
I0428 19:50:53.239212 27143 net.cpp:131] Top shape: 64 10 (640)
I0428 19:50:53.239215 27143 net.cpp:139] Memory required for data: 1355520
I0428 19:50:53.239238 27143 layer_factory.hpp:77] Creating layer relu2
I0428 19:50:53.239243 27143 net.cpp:86] Creating Layer relu2
I0428 19:50:53.239246 27143 net.cpp:408] relu2 <- ip2
I0428 19:50:53.239253 27143 net.cpp:369] relu2 -> ip2 (in-place)
I0428 19:50:53.240072 27143 net.cpp:124] Setting up relu2
I0428 19:50:53.240083 27143 net.cpp:131] Top shape: 64 10 (640)
I0428 19:50:53.240103 27143 net.cpp:139] Memory required for data: 1358080
I0428 19:50:53.240106 27143 layer_factory.hpp:77] Creating layer ip3
I0428 19:50:53.240125 27143 net.cpp:86] Creating Layer ip3
I0428 19:50:53.240128 27143 net.cpp:408] ip3 <- ip2
I0428 19:50:53.240134 27143 net.cpp:382] ip3 -> ip3
I0428 19:50:53.240238 27143 net.cpp:124] Setting up ip3
I0428 19:50:53.240245 27143 net.cpp:131] Top shape: 64 10 (640)
I0428 19:50:53.240249 27143 net.cpp:139] Memory required for data: 1360640
I0428 19:50:53.240257 27143 layer_factory.hpp:77] Creating layer relu3
I0428 19:50:53.240263 27143 net.cpp:86] Creating Layer relu3
I0428 19:50:53.240267 27143 net.cpp:408] relu3 <- ip3
I0428 19:50:53.240270 27143 net.cpp:369] relu3 -> ip3 (in-place)
I0428 19:50:53.240490 27143 net.cpp:124] Setting up relu3
I0428 19:50:53.240499 27143 net.cpp:131] Top shape: 64 10 (640)
I0428 19:50:53.240502 27143 net.cpp:139] Memory required for data: 1363200
I0428 19:50:53.240505 27143 layer_factory.hpp:77] Creating layer loss
I0428 19:50:53.240511 27143 net.cpp:86] Creating Layer loss
I0428 19:50:53.240514 27143 net.cpp:408] loss <- ip3
I0428 19:50:53.240519 27143 net.cpp:408] loss <- label
I0428 19:50:53.240523 27143 net.cpp:382] loss -> loss
I0428 19:50:53.240540 27143 layer_factory.hpp:77] Creating layer loss
…
I0428 19:50:53.241312 27143 solver.cpp:173] Creating test net (#0) specified by net file: ECE595/mnist/train_test/var_everything2/lenet_train_test617.prototxt
I0428 19:50:53.241354 27143 net.cpp:296] The NetState phase (1) differed from the phase (0) specified by a rule in layer mnist
I0428 19:50:53.241443 27143 net.cpp:53] Initializing net from parameters: 
name: "LeNet"
state {
  phase: TEST
}
layer {
  name: "mnist"
  type: "Data"
  top: "data"
  top: "label"
  include {
    phase: TEST
  }
  transform_param {
    scale: 0.00390625
  }
  data_param {
    source: "examples/mnist/mnist_test_lmdb"
    batch_size: 100
    backend: LMDB
  }
}
layer {
  name: "conv0"
  type: "Convolution"
  bottom: "data"
  top: "conv0"
  param {
    lr_mult: 1
  }
  param {
    lr_mult: 2
  }
  convolution_param {
    num_output: 5
    kernel_size: 5
    stride: 1
    weight_filler {
      type: "xavier"
    }
    bias_filler {
      type: "constant"
    }
  }
}
layer {
  name: "pool0"
  type: "Pooling"
  bottom: "conv0"
  top: "pool0"
  pooling_param {
    pool: MAX
    kernel_size: 2
    stride: 2
  }
}
layer {
  name: "conv1"
  type: "Convolution"
  bottom: "pool0"
  top: "conv1"
  param {
    lr_mult: 1
  }
  param {
    lr_mult: 2
  }
  convolution_param {
    num_output: 10
    kernel_size: 5
    stride: 1
    weight_filler {
      type: "xavier"
    }
    bias_filler {
      type: "constant"
    }
  }
}
layer {
  name: "pool1"
  type: "Pooling"
  bottom: "conv1"
  top: "pool1"
  pooling_param {
    pool: MAX
    kernel_size: 2
    stride: 2
  }
}
layer {
  name: "ip1"
  type: "InnerProduct"
  bottom: "pool1"
  top: "ip1"
  param {
    lr_mult: 1
  }
  param {
    lr_mult: 2
  }
  inner_product_param {
    num_output: 50
    weight_filler {
      type: "xavier"
    }
    bias_filler {
      type: "constant"
    }
  }
}
layer {
  name: "relu1"
  type: "ReLU"
  bottom: "ip1"
  top: "ip1"
}
layer {
  name: "ip2"
  type: "InnerProduct"
  bottom: "ip1"
  top: "ip2"
  param {
    lr_mult: 1
  }
  param {
    lr_mult: 2
  }
  inner_product_param {
    num_output: 10
    weight_filler {
      type: "xavier"
    }
    bias_filler {
      type: "constant"
    }
  }
}
layer {
  name: "relu2"
  type: "ReLU"
  bottom: "ip2"
  top: "ip2"
}
layer {
  name: "ip3"
  type: "InnerProduct"
  bottom: "ip2"
  top: "ip3"
  param {
    lr_mult: 1
  }
  param {
    lr_mult: 2
  }
  inner_product_param {
    num_output: 10
    weight_filler {
      type: "xavier"
    }
    bias_filler {
      type: "constant"
    }
  }
}
layer {
  name: "relu3"
  type: "ReLU"
  bottom: "ip3"
  top: "ip3"
}
layer {
  name: "accuracy"
  type: "Accuracy"
  bottom: "ip3"
  bottom: "label"
  top: "accuracy"
  include {
    phase: TEST
  }
}
layer {
  name: "loss"
  type: "SoftmaxWithLoss"
  bottom: "ip3"
  bottom: "label"
  top: "loss"
}
I0428 19:50:53.241538 27143 layer_factory.hpp:77] Creating layer mnist
I0428 19:50:53.241580 27143 db_lmdb.cpp:35] Opened lmdb examples/mnist/mnist_test_lmdb
I0428 19:50:53.241591 27143 net.cpp:86] Creating Layer mnist
I0428 19:50:53.241597 27143 net.cpp:382] mnist -> data
I0428 19:50:53.241605 27143 net.cpp:382] mnist -> label
I0428 19:50:53.241688 27143 data_layer.cpp:45] output data size: 100,1,28,28
I0428 19:50:53.243651 27143 net.cpp:124] Setting up mnist
I0428 19:50:53.243664 27143 net.cpp:131] Top shape: 100 1 28 28 (78400)
I0428 19:50:53.243685 27143 net.cpp:131] Top shape: 100 (100)
I0428 19:50:53.243687 27143 net.cpp:139] Memory required for data: 314000
I0428 19:50:53.243690 27143 layer_factory.hpp:77] Creating layer label_mnist_1_split
I0428 19:50:53.243731 27143 net.cpp:86] Creating Layer label_mnist_1_split
I0428 19:50:53.243736 27143 net.cpp:408] label_mnist_1_split <- label
I0428 19:50:53.243762 27143 net.cpp:382] label_mnist_1_split -> label_mnist_1_split_0
I0428 19:50:53.243768 27143 net.cpp:382] label_mnist_1_split -> label_mnist_1_split_1
I0428 19:50:53.243813 27143 net.cpp:124] Setting up label_mnist_1_split
I0428 19:50:53.243821 27143 net.cpp:131] Top shape: 100 (100)
I0428 19:50:53.243825 27143 net.cpp:131] Top shape: 100 (100)
I0428 19:50:53.243829 27143 net.cpp:139] Memory required for data: 314800
I0428 19:50:53.243830 27143 layer_factory.hpp:77] Creating layer conv0
I0428 19:50:53.243841 27143 net.cpp:86] Creating Layer conv0
I0428 19:50:53.243844 27143 net.cpp:408] conv0 <- data
I0428 19:50:53.243849 27143 net.cpp:382] conv0 -> conv0
I0428 19:50:53.245702 27143 net.cpp:124] Setting up conv0
I0428 19:50:53.245717 27143 net.cpp:131] Top shape: 100 5 24 24 (288000)
I0428 19:50:53.245719 27143 net.cpp:139] Memory required for data: 1466800
I0428 19:50:53.245728 27143 layer_factory.hpp:77] Creating layer pool0
I0428 19:50:53.245736 27143 net.cpp:86] Creating Layer pool0
I0428 19:50:53.245739 27143 net.cpp:408] pool0 <- conv0
I0428 19:50:53.245743 27143 net.cpp:382] pool0 -> pool0
I0428 19:50:53.245780 27143 net.cpp:124] Setting up pool0
I0428 19:50:53.245785 27143 net.cpp:131] Top shape: 100 5 12 12 (72000)
I0428 19:50:53.245789 27143 net.cpp:139] Memory required for data: 1754800
I0428 19:50:53.245790 27143 layer_factory.hpp:77] Creating layer conv1
I0428 19:50:53.245800 27143 net.cpp:86] Creating Layer conv1
I0428 19:50:53.245802 27143 net.cpp:408] conv1 <- pool0
I0428 19:50:53.245808 27143 net.cpp:382] conv1 -> conv1
I0428 19:50:53.247982 27143 net.cpp:124] Setting up conv1
I0428 19:50:53.247995 27143 net.cpp:131] Top shape: 100 10 8 8 (64000)
I0428 19:50:53.248000 27143 net.cpp:139] Memory required for data: 2010800
I0428 19:50:53.248010 27143 layer_factory.hpp:77] Creating layer pool1
I0428 19:50:53.248044 27143 net.cpp:86] Creating Layer pool1
I0428 19:50:53.248049 27143 net.cpp:408] pool1 <- conv1
I0428 19:50:53.248069 27143 net.cpp:382] pool1 -> pool1
I0428 19:50:53.248108 27143 net.cpp:124] Setting up pool1
I0428 19:50:53.248128 27143 net.cpp:131] Top shape: 100 10 4 4 (16000)
I0428 19:50:53.248131 27143 net.cpp:139] Memory required for data: 2074800
I0428 19:50:53.248134 27143 layer_factory.hpp:77] Creating layer ip1
I0428 19:50:53.248141 27143 net.cpp:86] Creating Layer ip1
I0428 19:50:53.248143 27143 net.cpp:408] ip1 <- pool1
I0428 19:50:53.248148 27143 net.cpp:382] ip1 -> ip1
I0428 19:50:53.248325 27143 net.cpp:124] Setting up ip1
I0428 19:50:53.248332 27143 net.cpp:131] Top shape: 100 50 (5000)
I0428 19:50:53.248344 27143 net.cpp:139] Memory required for data: 2094800
I0428 19:50:53.248353 27143 layer_factory.hpp:77] Creating layer relu1
I0428 19:50:53.248364 27143 net.cpp:86] Creating Layer relu1
I0428 19:50:53.248368 27143 net.cpp:408] relu1 <- ip1
I0428 19:50:53.248371 27143 net.cpp:369] relu1 -> ip1 (in-place)
I0428 19:50:53.248598 27143 net.cpp:124] Setting up relu1
I0428 19:50:53.248607 27143 net.cpp:131] Top shape: 100 50 (5000)
I0428 19:50:53.248611 27143 net.cpp:139] Memory required for data: 2114800
I0428 19:50:53.248615 27143 layer_factory.hpp:77] Creating layer ip2
I0428 19:50:53.248628 27143 net.cpp:86] Creating Layer ip2
I0428 19:50:53.248631 27143 net.cpp:408] ip2 <- ip1
I0428 19:50:53.248636 27143 net.cpp:382] ip2 -> ip2
I0428 19:50:53.248733 27143 net.cpp:124] Setting up ip2
I0428 19:50:53.248740 27143 net.cpp:131] Top shape: 100 10 (1000)
I0428 19:50:53.248744 27143 net.cpp:139] Memory required for data: 2118800
I0428 19:50:53.248749 27143 layer_factory.hpp:77] Creating layer relu2
I0428 19:50:53.248754 27143 net.cpp:86] Creating Layer relu2
I0428 19:50:53.248756 27143 net.cpp:408] relu2 <- ip2
I0428 19:50:53.248760 27143 net.cpp:369] relu2 -> ip2 (in-place)
I0428 19:50:53.248975 27143 net.cpp:124] Setting up relu2
I0428 19:50:53.248999 27143 net.cpp:131] Top shape: 100 10 (1000)
I0428 19:50:53.249004 27143 net.cpp:139] Memory required for data: 2122800
I0428 19:50:53.249013 27143 layer_factory.hpp:77] Creating layer ip3
I0428 19:50:53.249020 27143 net.cpp:86] Creating Layer ip3
I0428 19:50:53.249023 27143 net.cpp:408] ip3 <- ip2
I0428 19:50:53.249030 27143 net.cpp:382] ip3 -> ip3
I0428 19:50:53.249138 27143 net.cpp:124] Setting up ip3
I0428 19:50:53.249162 27143 net.cpp:131] Top shape: 100 10 (1000)
I0428 19:50:53.249166 27143 net.cpp:139] Memory required for data: 2126800
I0428 19:50:53.249188 27143 layer_factory.hpp:77] Creating layer relu3
I0428 19:50:53.249193 27143 net.cpp:86] Creating Layer relu3
I0428 19:50:53.249212 27143 net.cpp:408] relu3 <- ip3
I0428 19:50:53.249215 27143 net.cpp:369] relu3 -> ip3 (in-place)
I0428 19:50:53.250056 27143 net.cpp:124] Setting up relu3
I0428 19:50:53.250069 27143 net.cpp:131] Top shape: 100 10 (1000)
I0428 19:50:53.250072 27143 net.cpp:139] Memory required for data: 2130800
I0428 19:50:53.250075 27143 layer_factory.hpp:77] Creating layer ip3_relu3_0_split
I0428 19:50:53.250082 27143 net.cpp:86] Creating Layer ip3_relu3_0_split
I0428 19:50:53.250084 27143 net.cpp:408] ip3_relu3_0_split <- ip3
I0428 19:50:53.250090 27143 net.cpp:382] ip3_relu3_0_split -> ip3_relu3_0_split_0
I0428 19:50:53.250097 27143 net.cpp:382] ip3_relu3_0_split -> ip3_relu3_0_split_1
I0428 19:50:53.250138 27143 net.cpp:124] Setting up ip3_relu3_0_split
I0428 19:50:53.250144 27143 net.cpp:131] Top shape: 100 10 (1000)
I0428 19:50:53.250149 27143 net.cpp:131] Top shape: 100 10 (1000)
I0428 19:50:53.250150 27143 net.cpp:139] Memory required for data: 2138800
I0428 19:50:53.250154 27143 layer_factory.hpp:77] Creating layer accuracy
I0428 19:50:53.250159 27143 net.cpp:86] Creating Layer accuracy
I0428 19:50:53.250162 27143 net.cpp:408] accuracy <- ip3_relu3_0_split_0
I0428 19:50:53.250174 27143 net.cpp:408] accuracy <- label_mnist_1_split_0
I0428 19:50:53.250177 27143 net.cpp:382] accuracy -> accuracy
…
