…
I0428 19:33:48.862867 23209 net.cpp:296] The NetState phase (0) differed from the phase (1) specified by a rule in layer mnist
I0428 19:33:48.862889 23209 net.cpp:296] The NetState phase (0) differed from the phase (1) specified by a rule in layer accuracy
I0428 19:33:48.862979 23209 net.cpp:53] Initializing net from parameters: 
name: "LeNet"
state {
  phase: TRAIN
  level: 0
  stage: ""
}
layer {
  name: "mnist"
  type: "Data"
  top: "data"
  top: "label"
  include {
    phase: TRAIN
  }
  transform_param {
    scale: 0.00390625
  }
  data_param {
    source: "examples/mnist/mnist_train_lmdb"
    batch_size: 64
    backend: LMDB
  }
}
layer {
  name: "conv0"
  type: "Convolution"
  bottom: "data"
  top: "conv0"
  param {
    lr_mult: 1
  }
  param {
    lr_mult: 2
  }
  convolution_param {
    num_output: 25
    kernel_size: 5
    stride: 1
    weight_filler {
      type: "xavier"
    }
    bias_filler {
      type: "constant"
    }
  }
}
layer {
  name: "pool0"
  type: "Pooling"
  bottom: "conv0"
  top: "pool0"
  pooling_param {
    pool: MAX
    kernel_size: 2
    stride: 2
  }
}
layer {
  name: "ip1"
  type: "InnerProduct"
  bottom: "pool0"
  top: "ip1"
  param {
    lr_mult: 1
  }
  param {
    lr_mult: 2
  }
  inner_product_param {
    num_output: 50
    weight_filler {
      type: "xavier"
    }
    bias_filler {
      type: "constant"
    }
  }
}
layer {
  name: "relu1"
  type: "ReLU"
  bottom: "ip1"
  top: "ip1"
}
layer {
  name: "ip2"
  type: "InnerProduct"
  bottom: "ip1"
  top: "ip2"
  param {
    lr_mult: 1
  }
  param {
    lr_mult: 2
  }
  inner_product_param {
    num_output: 25
    weight_filler {
      type: "xavier"
    }
    bias_filler {
      type: "constant"
    }
  }
}
layer {
  name: "relu2"
  type: "ReLU"
  bottom: "ip2"
  top: "ip2"
}
layer {
  name: "ip3"
  type: "InnerProduct"
  bottom: "ip2"
  top: "ip3"
  param {
    lr_mult: 1
  }
  param {
    lr_mult: 2
  }
  inner_product_param {
    num_output: 10
    weight_filler {
      type: "xavier"
    }
    bias_filler {
      type: "constant"
    }
  }
}
layer {
  name: "relu3"
  type: "ReLU"
  bottom: "ip3"
  top: "ip3"
}
layer {
  name: "loss"
  type: "SoftmaxWithLoss"
  bottom: "ip3"
  bottom: "label"
  top: "loss"
}
I0428 19:33:48.863075 23209 layer_factory.hpp:77] Creating layer mnist
I0428 19:33:48.863200 23209 db_lmdb.cpp:35] Opened lmdb examples/mnist/mnist_train_lmdb
I0428 19:33:48.863232 23209 net.cpp:86] Creating Layer mnist
I0428 19:33:48.863245 23209 net.cpp:382] mnist -> data
I0428 19:33:48.863275 23209 net.cpp:382] mnist -> label
I0428 19:33:48.864459 23209 data_layer.cpp:45] output data size: 64,1,28,28
I0428 19:33:48.866930 23209 net.cpp:124] Setting up mnist
I0428 19:33:48.866948 23209 net.cpp:131] Top shape: 64 1 28 28 (50176)
I0428 19:33:48.866960 23209 net.cpp:131] Top shape: 64 (64)
I0428 19:33:48.866966 23209 net.cpp:139] Memory required for data: 200960
I0428 19:33:48.866976 23209 layer_factory.hpp:77] Creating layer conv0
I0428 19:33:48.866998 23209 net.cpp:86] Creating Layer conv0
I0428 19:33:48.867008 23209 net.cpp:408] conv0 <- data
I0428 19:33:48.867025 23209 net.cpp:382] conv0 -> conv0
I0428 19:33:49.155318 23209 net.cpp:124] Setting up conv0
I0428 19:33:49.155352 23209 net.cpp:131] Top shape: 64 25 24 24 (921600)
I0428 19:33:49.155359 23209 net.cpp:139] Memory required for data: 3887360
I0428 19:33:49.155383 23209 layer_factory.hpp:77] Creating layer pool0
I0428 19:33:49.155405 23209 net.cpp:86] Creating Layer pool0
I0428 19:33:49.155433 23209 net.cpp:408] pool0 <- conv0
I0428 19:33:49.155445 23209 net.cpp:382] pool0 -> pool0
I0428 19:33:49.155515 23209 net.cpp:124] Setting up pool0
I0428 19:33:49.155527 23209 net.cpp:131] Top shape: 64 25 12 12 (230400)
I0428 19:33:49.155534 23209 net.cpp:139] Memory required for data: 4808960
I0428 19:33:49.155540 23209 layer_factory.hpp:77] Creating layer ip1
I0428 19:33:49.155555 23209 net.cpp:86] Creating Layer ip1
I0428 19:33:49.155565 23209 net.cpp:408] ip1 <- pool0
I0428 19:33:49.155576 23209 net.cpp:382] ip1 -> ip1
I0428 19:33:49.157912 23209 net.cpp:124] Setting up ip1
I0428 19:33:49.157929 23209 net.cpp:131] Top shape: 64 50 (3200)
I0428 19:33:49.157937 23209 net.cpp:139] Memory required for data: 4821760
I0428 19:33:49.157953 23209 layer_factory.hpp:77] Creating layer relu1
I0428 19:33:49.157965 23209 net.cpp:86] Creating Layer relu1
I0428 19:33:49.157973 23209 net.cpp:408] relu1 <- ip1
I0428 19:33:49.157981 23209 net.cpp:369] relu1 -> ip1 (in-place)
I0428 19:33:49.158191 23209 net.cpp:124] Setting up relu1
I0428 19:33:49.158205 23209 net.cpp:131] Top shape: 64 50 (3200)
I0428 19:33:49.158210 23209 net.cpp:139] Memory required for data: 4834560
I0428 19:33:49.158217 23209 layer_factory.hpp:77] Creating layer ip2
I0428 19:33:49.158229 23209 net.cpp:86] Creating Layer ip2
I0428 19:33:49.158236 23209 net.cpp:408] ip2 <- ip1
I0428 19:33:49.158247 23209 net.cpp:382] ip2 -> ip2
I0428 19:33:49.159355 23209 net.cpp:124] Setting up ip2
I0428 19:33:49.159373 23209 net.cpp:131] Top shape: 64 25 (1600)
I0428 19:33:49.159379 23209 net.cpp:139] Memory required for data: 4840960
I0428 19:33:49.159394 23209 layer_factory.hpp:77] Creating layer relu2
I0428 19:33:49.159405 23209 net.cpp:86] Creating Layer relu2
I0428 19:33:49.159412 23209 net.cpp:408] relu2 <- ip2
I0428 19:33:49.159422 23209 net.cpp:369] relu2 -> ip2 (in-place)
I0428 19:33:49.160290 23209 net.cpp:124] Setting up relu2
I0428 19:33:49.160307 23209 net.cpp:131] Top shape: 64 25 (1600)
I0428 19:33:49.160313 23209 net.cpp:139] Memory required for data: 4847360
I0428 19:33:49.160321 23209 layer_factory.hpp:77] Creating layer ip3
I0428 19:33:49.160334 23209 net.cpp:86] Creating Layer ip3
I0428 19:33:49.160341 23209 net.cpp:408] ip3 <- ip2
I0428 19:33:49.160352 23209 net.cpp:382] ip3 -> ip3
I0428 19:33:49.160477 23209 net.cpp:124] Setting up ip3
I0428 19:33:49.160488 23209 net.cpp:131] Top shape: 64 10 (640)
I0428 19:33:49.160495 23209 net.cpp:139] Memory required for data: 4849920
I0428 19:33:49.160507 23209 layer_factory.hpp:77] Creating layer relu3
I0428 19:33:49.160519 23209 net.cpp:86] Creating Layer relu3
I0428 19:33:49.160532 23209 net.cpp:408] relu3 <- ip3
I0428 19:33:49.160542 23209 net.cpp:369] relu3 -> ip3 (in-place)
I0428 19:33:49.160737 23209 net.cpp:124] Setting up relu3
I0428 19:33:49.160755 23209 net.cpp:131] Top shape: 64 10 (640)
I0428 19:33:49.160761 23209 net.cpp:139] Memory required for data: 4852480
I0428 19:33:49.160768 23209 layer_factory.hpp:77] Creating layer loss
I0428 19:33:49.160778 23209 net.cpp:86] Creating Layer loss
I0428 19:33:49.160785 23209 net.cpp:408] loss <- ip3
I0428 19:33:49.160794 23209 net.cpp:408] loss <- label
I0428 19:33:49.160804 23209 net.cpp:382] loss -> loss
I0428 19:33:49.160845 23209 layer_factory.hpp:77] Creating layer loss
…
I0428 19:33:49.161618 23209 solver.cpp:173] Creating test net (#0) specified by net file: ECE595/mnist/train_test/var_everything2/lenet_train_test189.prototxt
I0428 19:33:49.161659 23209 net.cpp:296] The NetState phase (1) differed from the phase (0) specified by a rule in layer mnist
I0428 19:33:49.161763 23209 net.cpp:53] Initializing net from parameters: 
name: "LeNet"
state {
  phase: TEST
}
layer {
  name: "mnist"
  type: "Data"
  top: "data"
  top: "label"
  include {
    phase: TEST
  }
  transform_param {
    scale: 0.00390625
  }
  data_param {
    source: "examples/mnist/mnist_test_lmdb"
    batch_size: 100
    backend: LMDB
  }
}
layer {
  name: "conv0"
  type: "Convolution"
  bottom: "data"
  top: "conv0"
  param {
    lr_mult: 1
  }
  param {
    lr_mult: 2
  }
  convolution_param {
    num_output: 25
    kernel_size: 5
    stride: 1
    weight_filler {
      type: "xavier"
    }
    bias_filler {
      type: "constant"
    }
  }
}
layer {
  name: "pool0"
  type: "Pooling"
  bottom: "conv0"
  top: "pool0"
  pooling_param {
    pool: MAX
    kernel_size: 2
    stride: 2
  }
}
layer {
  name: "ip1"
  type: "InnerProduct"
  bottom: "pool0"
  top: "ip1"
  param {
    lr_mult: 1
  }
  param {
    lr_mult: 2
  }
  inner_product_param {
    num_output: 50
    weight_filler {
      type: "xavier"
    }
    bias_filler {
      type: "constant"
    }
  }
}
layer {
  name: "relu1"
  type: "ReLU"
  bottom: "ip1"
  top: "ip1"
}
layer {
  name: "ip2"
  type: "InnerProduct"
  bottom: "ip1"
  top: "ip2"
  param {
    lr_mult: 1
  }
  param {
    lr_mult: 2
  }
  inner_product_param {
    num_output: 25
    weight_filler {
      type: "xavier"
    }
    bias_filler {
      type: "constant"
    }
  }
}
layer {
  name: "relu2"
  type: "ReLU"
  bottom: "ip2"
  top: "ip2"
}
layer {
  name: "ip3"
  type: "InnerProduct"
  bottom: "ip2"
  top: "ip3"
  param {
    lr_mult: 1
  }
  param {
    lr_mult: 2
  }
  inner_product_param {
    num_output: 10
    weight_filler {
      type: "xavier"
    }
    bias_filler {
      type: "constant"
    }
  }
}
layer {
  name: "relu3"
  type: "ReLU"
  bottom: "ip3"
  top: "ip3"
}
layer {
  name: "accuracy"
  type: "Accuracy"
  bottom: "ip3"
  bottom: "label"
  top: "accuracy"
  include {
    phase: TEST
  }
}
layer {
  name: "loss"
  type: "SoftmaxWithLoss"
  bottom: "ip3"
  bottom: "label"
  top: "loss"
}
I0428 19:33:49.161878 23209 layer_factory.hpp:77] Creating layer mnist
I0428 19:33:49.161949 23209 db_lmdb.cpp:35] Opened lmdb examples/mnist/mnist_test_lmdb
I0428 19:33:49.161972 23209 net.cpp:86] Creating Layer mnist
I0428 19:33:49.161981 23209 net.cpp:382] mnist -> data
I0428 19:33:49.161995 23209 net.cpp:382] mnist -> label
I0428 19:33:49.162137 23209 data_layer.cpp:45] output data size: 100,1,28,28
I0428 19:33:49.163703 23209 net.cpp:124] Setting up mnist
I0428 19:33:49.163722 23209 net.cpp:131] Top shape: 100 1 28 28 (78400)
I0428 19:33:49.163731 23209 net.cpp:131] Top shape: 100 (100)
I0428 19:33:49.163738 23209 net.cpp:139] Memory required for data: 314000
I0428 19:33:49.163744 23209 layer_factory.hpp:77] Creating layer label_mnist_1_split
I0428 19:33:49.163756 23209 net.cpp:86] Creating Layer label_mnist_1_split
I0428 19:33:49.163763 23209 net.cpp:408] label_mnist_1_split <- label
I0428 19:33:49.163774 23209 net.cpp:382] label_mnist_1_split -> label_mnist_1_split_0
I0428 19:33:49.163786 23209 net.cpp:382] label_mnist_1_split -> label_mnist_1_split_1
I0428 19:33:49.163887 23209 net.cpp:124] Setting up label_mnist_1_split
I0428 19:33:49.163898 23209 net.cpp:131] Top shape: 100 (100)
I0428 19:33:49.163907 23209 net.cpp:131] Top shape: 100 (100)
I0428 19:33:49.163913 23209 net.cpp:139] Memory required for data: 314800
I0428 19:33:49.163931 23209 layer_factory.hpp:77] Creating layer conv0
I0428 19:33:49.163949 23209 net.cpp:86] Creating Layer conv0
I0428 19:33:49.163956 23209 net.cpp:408] conv0 <- data
I0428 19:33:49.163967 23209 net.cpp:382] conv0 -> conv0
I0428 19:33:49.165644 23209 net.cpp:124] Setting up conv0
I0428 19:33:49.165663 23209 net.cpp:131] Top shape: 100 25 24 24 (1440000)
I0428 19:33:49.165670 23209 net.cpp:139] Memory required for data: 6074800
I0428 19:33:49.165688 23209 layer_factory.hpp:77] Creating layer pool0
I0428 19:33:49.165699 23209 net.cpp:86] Creating Layer pool0
I0428 19:33:49.165706 23209 net.cpp:408] pool0 <- conv0
I0428 19:33:49.165716 23209 net.cpp:382] pool0 -> pool0
I0428 19:33:49.165767 23209 net.cpp:124] Setting up pool0
I0428 19:33:49.165778 23209 net.cpp:131] Top shape: 100 25 12 12 (360000)
I0428 19:33:49.165786 23209 net.cpp:139] Memory required for data: 7514800
I0428 19:33:49.165792 23209 layer_factory.hpp:77] Creating layer ip1
I0428 19:33:49.165805 23209 net.cpp:86] Creating Layer ip1
I0428 19:33:49.165812 23209 net.cpp:408] ip1 <- pool0
I0428 19:33:49.165823 23209 net.cpp:382] ip1 -> ip1
I0428 19:33:49.168165 23209 net.cpp:124] Setting up ip1
I0428 19:33:49.168182 23209 net.cpp:131] Top shape: 100 50 (5000)
I0428 19:33:49.168190 23209 net.cpp:139] Memory required for data: 7534800
I0428 19:33:49.168205 23209 layer_factory.hpp:77] Creating layer relu1
I0428 19:33:49.168215 23209 net.cpp:86] Creating Layer relu1
I0428 19:33:49.168223 23209 net.cpp:408] relu1 <- ip1
I0428 19:33:49.168233 23209 net.cpp:369] relu1 -> ip1 (in-place)
I0428 19:33:49.168438 23209 net.cpp:124] Setting up relu1
I0428 19:33:49.168452 23209 net.cpp:131] Top shape: 100 50 (5000)
I0428 19:33:49.168460 23209 net.cpp:139] Memory required for data: 7554800
I0428 19:33:49.168467 23209 layer_factory.hpp:77] Creating layer ip2
I0428 19:33:49.168478 23209 net.cpp:86] Creating Layer ip2
I0428 19:33:49.168486 23209 net.cpp:408] ip2 <- ip1
I0428 19:33:49.168498 23209 net.cpp:382] ip2 -> ip2
I0428 19:33:49.168639 23209 net.cpp:124] Setting up ip2
I0428 19:33:49.168651 23209 net.cpp:131] Top shape: 100 25 (2500)
I0428 19:33:49.168658 23209 net.cpp:139] Memory required for data: 7564800
I0428 19:33:49.168673 23209 layer_factory.hpp:77] Creating layer relu2
I0428 19:33:49.168682 23209 net.cpp:86] Creating Layer relu2
I0428 19:33:49.168704 23209 net.cpp:408] relu2 <- ip2
I0428 19:33:49.168712 23209 net.cpp:369] relu2 -> ip2 (in-place)
I0428 19:33:49.169616 23209 net.cpp:124] Setting up relu2
I0428 19:33:49.169632 23209 net.cpp:131] Top shape: 100 25 (2500)
I0428 19:33:49.169639 23209 net.cpp:139] Memory required for data: 7574800
I0428 19:33:49.169646 23209 layer_factory.hpp:77] Creating layer ip3
I0428 19:33:49.169661 23209 net.cpp:86] Creating Layer ip3
I0428 19:33:49.169668 23209 net.cpp:408] ip3 <- ip2
I0428 19:33:49.169680 23209 net.cpp:382] ip3 -> ip3
I0428 19:33:49.169880 23209 net.cpp:124] Setting up ip3
I0428 19:33:49.169893 23209 net.cpp:131] Top shape: 100 10 (1000)
I0428 19:33:49.169899 23209 net.cpp:139] Memory required for data: 7578800
I0428 19:33:49.169911 23209 layer_factory.hpp:77] Creating layer relu3
I0428 19:33:49.169921 23209 net.cpp:86] Creating Layer relu3
I0428 19:33:49.169930 23209 net.cpp:408] relu3 <- ip3
I0428 19:33:49.169939 23209 net.cpp:369] relu3 -> ip3 (in-place)
I0428 19:33:49.170130 23209 net.cpp:124] Setting up relu3
I0428 19:33:49.170142 23209 net.cpp:131] Top shape: 100 10 (1000)
I0428 19:33:49.170148 23209 net.cpp:139] Memory required for data: 7582800
I0428 19:33:49.170155 23209 layer_factory.hpp:77] Creating layer ip3_relu3_0_split
I0428 19:33:49.170164 23209 net.cpp:86] Creating Layer ip3_relu3_0_split
I0428 19:33:49.170172 23209 net.cpp:408] ip3_relu3_0_split <- ip3
I0428 19:33:49.170181 23209 net.cpp:382] ip3_relu3_0_split -> ip3_relu3_0_split_0
I0428 19:33:49.170194 23209 net.cpp:382] ip3_relu3_0_split -> ip3_relu3_0_split_1
I0428 19:33:49.170243 23209 net.cpp:124] Setting up ip3_relu3_0_split
I0428 19:33:49.170253 23209 net.cpp:131] Top shape: 100 10 (1000)
I0428 19:33:49.170262 23209 net.cpp:131] Top shape: 100 10 (1000)
I0428 19:33:49.170284 23209 net.cpp:139] Memory required for data: 7590800
I0428 19:33:49.170290 23209 layer_factory.hpp:77] Creating layer accuracy
I0428 19:33:49.170300 23209 net.cpp:86] Creating Layer accuracy
I0428 19:33:49.170306 23209 net.cpp:408] accuracy <- ip3_relu3_0_split_0
I0428 19:33:49.170315 23209 net.cpp:408] accuracy <- label_mnist_1_split_0
I0428 19:33:49.170325 23209 net.cpp:382] accuracy -> accuracy
…
