…
I0428 19:39:46.261104 24379 net.cpp:296] The NetState phase (0) differed from the phase (1) specified by a rule in layer mnist
I0428 19:39:46.261133 24379 net.cpp:296] The NetState phase (0) differed from the phase (1) specified by a rule in layer accuracy
I0428 19:39:46.261242 24379 net.cpp:53] Initializing net from parameters: 
name: "LeNet"
state {
  phase: TRAIN
  level: 0
  stage: ""
}
layer {
  name: "mnist"
  type: "Data"
  top: "data"
  top: "label"
  include {
    phase: TRAIN
  }
  transform_param {
    scale: 0.00390625
  }
  data_param {
    source: "examples/mnist/mnist_train_lmdb"
    batch_size: 64
    backend: LMDB
  }
}
layer {
  name: "conv0"
  type: "Convolution"
  bottom: "data"
  top: "conv0"
  param {
    lr_mult: 1
  }
  param {
    lr_mult: 2
  }
  convolution_param {
    num_output: 2
    kernel_size: 5
    stride: 1
    weight_filler {
      type: "xavier"
    }
    bias_filler {
      type: "constant"
    }
  }
}
layer {
  name: "pool0"
  type: "Pooling"
  bottom: "conv0"
  top: "pool0"
  pooling_param {
    pool: MAX
    kernel_size: 2
    stride: 2
  }
}
layer {
  name: "conv1"
  type: "Convolution"
  bottom: "pool0"
  top: "conv1"
  param {
    lr_mult: 1
  }
  param {
    lr_mult: 2
  }
  convolution_param {
    num_output: 5
    kernel_size: 5
    stride: 1
    weight_filler {
      type: "xavier"
    }
    bias_filler {
      type: "constant"
    }
  }
}
layer {
  name: "pool1"
  type: "Pooling"
  bottom: "conv1"
  top: "pool1"
  pooling_param {
    pool: MAX
    kernel_size: 2
    stride: 2
  }
}
layer {
  name: "ip1"
  type: "InnerProduct"
  bottom: "pool1"
  top: "ip1"
  param {
    lr_mult: 1
  }
  param {
    lr_mult: 2
  }
  inner_product_param {
    num_output: 10
    weight_filler {
      type: "xavier"
    }
    bias_filler {
      type: "constant"
    }
  }
}
layer {
  name: "relu1"
  type: "ReLU"
  bottom: "ip1"
  top: "ip1"
}
layer {
  name: "loss"
  type: "SoftmaxWithLoss"
  bottom: "ip1"
  bottom: "label"
  top: "loss"
}
I0428 19:39:46.261292 24379 layer_factory.hpp:77] Creating layer mnist
I0428 19:39:46.261385 24379 db_lmdb.cpp:35] Opened lmdb examples/mnist/mnist_train_lmdb
I0428 19:39:46.261423 24379 net.cpp:86] Creating Layer mnist
I0428 19:39:46.261430 24379 net.cpp:382] mnist -> data
I0428 19:39:46.261451 24379 net.cpp:382] mnist -> label
I0428 19:39:46.262487 24379 data_layer.cpp:45] output data size: 64,1,28,28
I0428 19:39:46.264741 24379 net.cpp:124] Setting up mnist
I0428 19:39:46.264771 24379 net.cpp:131] Top shape: 64 1 28 28 (50176)
I0428 19:39:46.264777 24379 net.cpp:131] Top shape: 64 (64)
I0428 19:39:46.264780 24379 net.cpp:139] Memory required for data: 200960
I0428 19:39:46.264786 24379 layer_factory.hpp:77] Creating layer conv0
I0428 19:39:46.264801 24379 net.cpp:86] Creating Layer conv0
I0428 19:39:46.264807 24379 net.cpp:408] conv0 <- data
I0428 19:39:46.264843 24379 net.cpp:382] conv0 -> conv0
I0428 19:39:46.492566 24379 net.cpp:124] Setting up conv0
I0428 19:39:46.492593 24379 net.cpp:131] Top shape: 64 2 24 24 (73728)
I0428 19:39:46.492596 24379 net.cpp:139] Memory required for data: 495872
I0428 19:39:46.492609 24379 layer_factory.hpp:77] Creating layer pool0
I0428 19:39:46.492622 24379 net.cpp:86] Creating Layer pool0
I0428 19:39:46.492626 24379 net.cpp:408] pool0 <- conv0
I0428 19:39:46.492631 24379 net.cpp:382] pool0 -> pool0
I0428 19:39:46.492691 24379 net.cpp:124] Setting up pool0
I0428 19:39:46.492696 24379 net.cpp:131] Top shape: 64 2 12 12 (18432)
I0428 19:39:46.492713 24379 net.cpp:139] Memory required for data: 569600
I0428 19:39:46.492717 24379 layer_factory.hpp:77] Creating layer conv1
I0428 19:39:46.492727 24379 net.cpp:86] Creating Layer conv1
I0428 19:39:46.492730 24379 net.cpp:408] conv1 <- pool0
I0428 19:39:46.492735 24379 net.cpp:382] conv1 -> conv1
I0428 19:39:46.494621 24379 net.cpp:124] Setting up conv1
I0428 19:39:46.494652 24379 net.cpp:131] Top shape: 64 5 8 8 (20480)
I0428 19:39:46.494655 24379 net.cpp:139] Memory required for data: 651520
I0428 19:39:46.494678 24379 layer_factory.hpp:77] Creating layer pool1
I0428 19:39:46.494686 24379 net.cpp:86] Creating Layer pool1
I0428 19:39:46.494690 24379 net.cpp:408] pool1 <- conv1
I0428 19:39:46.494695 24379 net.cpp:382] pool1 -> pool1
I0428 19:39:46.494734 24379 net.cpp:124] Setting up pool1
I0428 19:39:46.494740 24379 net.cpp:131] Top shape: 64 5 4 4 (5120)
I0428 19:39:46.494742 24379 net.cpp:139] Memory required for data: 672000
I0428 19:39:46.494745 24379 layer_factory.hpp:77] Creating layer ip1
I0428 19:39:46.494752 24379 net.cpp:86] Creating Layer ip1
I0428 19:39:46.494755 24379 net.cpp:408] ip1 <- pool1
I0428 19:39:46.494760 24379 net.cpp:382] ip1 -> ip1
I0428 19:39:46.494858 24379 net.cpp:124] Setting up ip1
I0428 19:39:46.494865 24379 net.cpp:131] Top shape: 64 10 (640)
I0428 19:39:46.494868 24379 net.cpp:139] Memory required for data: 674560
I0428 19:39:46.494889 24379 layer_factory.hpp:77] Creating layer relu1
I0428 19:39:46.494894 24379 net.cpp:86] Creating Layer relu1
I0428 19:39:46.494897 24379 net.cpp:408] relu1 <- ip1
I0428 19:39:46.494902 24379 net.cpp:369] relu1 -> ip1 (in-place)
I0428 19:39:46.495079 24379 net.cpp:124] Setting up relu1
I0428 19:39:46.495087 24379 net.cpp:131] Top shape: 64 10 (640)
I0428 19:39:46.495090 24379 net.cpp:139] Memory required for data: 677120
I0428 19:39:46.495093 24379 layer_factory.hpp:77] Creating layer loss
I0428 19:39:46.495098 24379 net.cpp:86] Creating Layer loss
I0428 19:39:46.495101 24379 net.cpp:408] loss <- ip1
I0428 19:39:46.495105 24379 net.cpp:408] loss <- label
I0428 19:39:46.495110 24379 net.cpp:382] loss -> loss
I0428 19:39:46.495122 24379 layer_factory.hpp:77] Creating layer loss
…
I0428 19:39:46.496415 24379 solver.cpp:173] Creating test net (#0) specified by net file: ECE595/mnist/train_test/var_everything2/lenet_train_test314.prototxt
I0428 19:39:46.496439 24379 net.cpp:296] The NetState phase (1) differed from the phase (0) specified by a rule in layer mnist
I0428 19:39:46.496513 24379 net.cpp:53] Initializing net from parameters: 
name: "LeNet"
state {
  phase: TEST
}
layer {
  name: "mnist"
  type: "Data"
  top: "data"
  top: "label"
  include {
    phase: TEST
  }
  transform_param {
    scale: 0.00390625
  }
  data_param {
    source: "examples/mnist/mnist_test_lmdb"
    batch_size: 100
    backend: LMDB
  }
}
layer {
  name: "conv0"
  type: "Convolution"
  bottom: "data"
  top: "conv0"
  param {
    lr_mult: 1
  }
  param {
    lr_mult: 2
  }
  convolution_param {
    num_output: 2
    kernel_size: 5
    stride: 1
    weight_filler {
      type: "xavier"
    }
    bias_filler {
      type: "constant"
    }
  }
}
layer {
  name: "pool0"
  type: "Pooling"
  bottom: "conv0"
  top: "pool0"
  pooling_param {
    pool: MAX
    kernel_size: 2
    stride: 2
  }
}
layer {
  name: "conv1"
  type: "Convolution"
  bottom: "pool0"
  top: "conv1"
  param {
    lr_mult: 1
  }
  param {
    lr_mult: 2
  }
  convolution_param {
    num_output: 5
    kernel_size: 5
    stride: 1
    weight_filler {
      type: "xavier"
    }
    bias_filler {
      type: "constant"
    }
  }
}
layer {
  name: "pool1"
  type: "Pooling"
  bottom: "conv1"
  top: "pool1"
  pooling_param {
    pool: MAX
    kernel_size: 2
    stride: 2
  }
}
layer {
  name: "ip1"
  type: "InnerProduct"
  bottom: "pool1"
  top: "ip1"
  param {
    lr_mult: 1
  }
  param {
    lr_mult: 2
  }
  inner_product_param {
    num_output: 10
    weight_filler {
      type: "xavier"
    }
    bias_filler {
      type: "constant"
    }
  }
}
layer {
  name: "relu1"
  type: "ReLU"
  bottom: "ip1"
  top: "ip1"
}
layer {
  name: "accuracy"
  type: "Accuracy"
  bottom: "ip1"
  bottom: "label"
  top: "accuracy"
  include {
    phase: TEST
  }
}
layer {
  name: "loss"
  type: "SoftmaxWithLoss"
  bottom: "ip1"
  bottom: "label"
  top: "loss"
}
I0428 19:39:46.496609 24379 layer_factory.hpp:77] Creating layer mnist
I0428 19:39:46.496652 24379 db_lmdb.cpp:35] Opened lmdb examples/mnist/mnist_test_lmdb
I0428 19:39:46.496665 24379 net.cpp:86] Creating Layer mnist
I0428 19:39:46.496668 24379 net.cpp:382] mnist -> data
I0428 19:39:46.496675 24379 net.cpp:382] mnist -> label
I0428 19:39:46.496757 24379 data_layer.cpp:45] output data size: 100,1,28,28
I0428 19:39:46.498869 24379 net.cpp:124] Setting up mnist
I0428 19:39:46.498914 24379 net.cpp:131] Top shape: 100 1 28 28 (78400)
I0428 19:39:46.498919 24379 net.cpp:131] Top shape: 100 (100)
I0428 19:39:46.498922 24379 net.cpp:139] Memory required for data: 314000
I0428 19:39:46.498926 24379 layer_factory.hpp:77] Creating layer label_mnist_1_split
I0428 19:39:46.498934 24379 net.cpp:86] Creating Layer label_mnist_1_split
I0428 19:39:46.498936 24379 net.cpp:408] label_mnist_1_split <- label
I0428 19:39:46.498957 24379 net.cpp:382] label_mnist_1_split -> label_mnist_1_split_0
I0428 19:39:46.498965 24379 net.cpp:382] label_mnist_1_split -> label_mnist_1_split_1
I0428 19:39:46.499039 24379 net.cpp:124] Setting up label_mnist_1_split
I0428 19:39:46.499052 24379 net.cpp:131] Top shape: 100 (100)
I0428 19:39:46.499054 24379 net.cpp:131] Top shape: 100 (100)
I0428 19:39:46.499058 24379 net.cpp:139] Memory required for data: 314800
I0428 19:39:46.499060 24379 layer_factory.hpp:77] Creating layer conv0
I0428 19:39:46.499068 24379 net.cpp:86] Creating Layer conv0
I0428 19:39:46.499071 24379 net.cpp:408] conv0 <- data
I0428 19:39:46.499076 24379 net.cpp:382] conv0 -> conv0
I0428 19:39:46.500067 24379 net.cpp:124] Setting up conv0
I0428 19:39:46.500097 24379 net.cpp:131] Top shape: 100 2 24 24 (115200)
I0428 19:39:46.500100 24379 net.cpp:139] Memory required for data: 775600
I0428 19:39:46.500109 24379 layer_factory.hpp:77] Creating layer pool0
I0428 19:39:46.500116 24379 net.cpp:86] Creating Layer pool0
I0428 19:39:46.500119 24379 net.cpp:408] pool0 <- conv0
I0428 19:39:46.500125 24379 net.cpp:382] pool0 -> pool0
I0428 19:39:46.500191 24379 net.cpp:124] Setting up pool0
I0428 19:39:46.500197 24379 net.cpp:131] Top shape: 100 2 12 12 (28800)
I0428 19:39:46.500200 24379 net.cpp:139] Memory required for data: 890800
I0428 19:39:46.500203 24379 layer_factory.hpp:77] Creating layer conv1
I0428 19:39:46.500213 24379 net.cpp:86] Creating Layer conv1
I0428 19:39:46.500216 24379 net.cpp:408] conv1 <- pool0
I0428 19:39:46.500221 24379 net.cpp:382] conv1 -> conv1
I0428 19:39:46.501869 24379 net.cpp:124] Setting up conv1
I0428 19:39:46.501899 24379 net.cpp:131] Top shape: 100 5 8 8 (32000)
I0428 19:39:46.501902 24379 net.cpp:139] Memory required for data: 1018800
I0428 19:39:46.501919 24379 layer_factory.hpp:77] Creating layer pool1
I0428 19:39:46.501925 24379 net.cpp:86] Creating Layer pool1
I0428 19:39:46.501940 24379 net.cpp:408] pool1 <- conv1
I0428 19:39:46.501945 24379 net.cpp:382] pool1 -> pool1
I0428 19:39:46.501981 24379 net.cpp:124] Setting up pool1
I0428 19:39:46.501987 24379 net.cpp:131] Top shape: 100 5 4 4 (8000)
I0428 19:39:46.501991 24379 net.cpp:139] Memory required for data: 1050800
I0428 19:39:46.501994 24379 layer_factory.hpp:77] Creating layer ip1
I0428 19:39:46.502001 24379 net.cpp:86] Creating Layer ip1
I0428 19:39:46.502003 24379 net.cpp:408] ip1 <- pool1
I0428 19:39:46.502008 24379 net.cpp:382] ip1 -> ip1
I0428 19:39:46.502162 24379 net.cpp:124] Setting up ip1
I0428 19:39:46.502185 24379 net.cpp:131] Top shape: 100 10 (1000)
I0428 19:39:46.502189 24379 net.cpp:139] Memory required for data: 1054800
I0428 19:39:46.502197 24379 layer_factory.hpp:77] Creating layer relu1
I0428 19:39:46.502202 24379 net.cpp:86] Creating Layer relu1
I0428 19:39:46.502205 24379 net.cpp:408] relu1 <- ip1
I0428 19:39:46.502212 24379 net.cpp:369] relu1 -> ip1 (in-place)
I0428 19:39:46.503072 24379 net.cpp:124] Setting up relu1
I0428 19:39:46.503100 24379 net.cpp:131] Top shape: 100 10 (1000)
I0428 19:39:46.503103 24379 net.cpp:139] Memory required for data: 1058800
I0428 19:39:46.503108 24379 layer_factory.hpp:77] Creating layer ip1_relu1_0_split
I0428 19:39:46.503113 24379 net.cpp:86] Creating Layer ip1_relu1_0_split
I0428 19:39:46.503118 24379 net.cpp:408] ip1_relu1_0_split <- ip1
I0428 19:39:46.503123 24379 net.cpp:382] ip1_relu1_0_split -> ip1_relu1_0_split_0
I0428 19:39:46.503145 24379 net.cpp:382] ip1_relu1_0_split -> ip1_relu1_0_split_1
I0428 19:39:46.503207 24379 net.cpp:124] Setting up ip1_relu1_0_split
I0428 19:39:46.503216 24379 net.cpp:131] Top shape: 100 10 (1000)
I0428 19:39:46.503221 24379 net.cpp:131] Top shape: 100 10 (1000)
I0428 19:39:46.503234 24379 net.cpp:139] Memory required for data: 1066800
I0428 19:39:46.503237 24379 layer_factory.hpp:77] Creating layer accuracy
I0428 19:39:46.503244 24379 net.cpp:86] Creating Layer accuracy
I0428 19:39:46.503247 24379 net.cpp:408] accuracy <- ip1_relu1_0_split_0
I0428 19:39:46.503252 24379 net.cpp:408] accuracy <- label_mnist_1_split_0
I0428 19:39:46.503257 24379 net.cpp:382] accuracy -> accuracy
…
