…
I0428 19:59:50.306596 29335 net.cpp:296] The NetState phase (0) differed from the phase (1) specified by a rule in layer mnist
I0428 19:59:50.306610 29335 net.cpp:296] The NetState phase (0) differed from the phase (1) specified by a rule in layer accuracy
I0428 19:59:50.306694 29335 net.cpp:53] Initializing net from parameters: 
name: "LeNet"
state {
  phase: TRAIN
  level: 0
  stage: ""
}
layer {
  name: "mnist"
  type: "Data"
  top: "data"
  top: "label"
  include {
    phase: TRAIN
  }
  transform_param {
    scale: 0.00390625
  }
  data_param {
    source: "examples/mnist/mnist_train_lmdb"
    batch_size: 64
    backend: LMDB
  }
}
layer {
  name: "conv0"
  type: "Convolution"
  bottom: "data"
  top: "conv0"
  param {
    lr_mult: 1
  }
  param {
    lr_mult: 2
  }
  convolution_param {
    num_output: 10
    kernel_size: 5
    stride: 1
    weight_filler {
      type: "xavier"
    }
    bias_filler {
      type: "constant"
    }
  }
}
layer {
  name: "pool0"
  type: "Pooling"
  bottom: "conv0"
  top: "pool0"
  pooling_param {
    pool: MAX
    kernel_size: 2
    stride: 2
  }
}
layer {
  name: "conv1"
  type: "Convolution"
  bottom: "pool0"
  top: "conv1"
  param {
    lr_mult: 1
  }
  param {
    lr_mult: 2
  }
  convolution_param {
    num_output: 25
    kernel_size: 5
    stride: 1
    weight_filler {
      type: "xavier"
    }
    bias_filler {
      type: "constant"
    }
  }
}
layer {
  name: "pool1"
  type: "Pooling"
  bottom: "conv1"
  top: "pool1"
  pooling_param {
    pool: MAX
    kernel_size: 2
    stride: 2
  }
}
layer {
  name: "ip1"
  type: "InnerProduct"
  bottom: "pool1"
  top: "ip1"
  param {
    lr_mult: 1
  }
  param {
    lr_mult: 2
  }
  inner_product_param {
    num_output: 10
    weight_filler {
      type: "xavier"
    }
    bias_filler {
      type: "constant"
    }
  }
}
layer {
  name: "relu1"
  type: "ReLU"
  bottom: "ip1"
  top: "ip1"
}
layer {
  name: "loss"
  type: "SoftmaxWithLoss"
  bottom: "ip1"
  bottom: "label"
  top: "loss"
}
I0428 19:59:50.306777 29335 layer_factory.hpp:77] Creating layer mnist
I0428 19:59:50.306881 29335 db_lmdb.cpp:35] Opened lmdb examples/mnist/mnist_train_lmdb
I0428 19:59:50.306906 29335 net.cpp:86] Creating Layer mnist
I0428 19:59:50.306913 29335 net.cpp:382] mnist -> data
I0428 19:59:50.306937 29335 net.cpp:382] mnist -> label
I0428 19:59:50.308017 29335 data_layer.cpp:45] output data size: 64,1,28,28
I0428 19:59:50.310678 29335 net.cpp:124] Setting up mnist
I0428 19:59:50.310698 29335 net.cpp:131] Top shape: 64 1 28 28 (50176)
I0428 19:59:50.310729 29335 net.cpp:131] Top shape: 64 (64)
I0428 19:59:50.310734 29335 net.cpp:139] Memory required for data: 200960
I0428 19:59:50.310741 29335 layer_factory.hpp:77] Creating layer conv0
I0428 19:59:50.310757 29335 net.cpp:86] Creating Layer conv0
I0428 19:59:50.310762 29335 net.cpp:408] conv0 <- data
I0428 19:59:50.310776 29335 net.cpp:382] conv0 -> conv0
I0428 19:59:50.571876 29335 net.cpp:124] Setting up conv0
I0428 19:59:50.571918 29335 net.cpp:131] Top shape: 64 10 24 24 (368640)
I0428 19:59:50.571921 29335 net.cpp:139] Memory required for data: 1675520
I0428 19:59:50.571936 29335 layer_factory.hpp:77] Creating layer pool0
I0428 19:59:50.571949 29335 net.cpp:86] Creating Layer pool0
I0428 19:59:50.571952 29335 net.cpp:408] pool0 <- conv0
I0428 19:59:50.571972 29335 net.cpp:382] pool0 -> pool0
I0428 19:59:50.572018 29335 net.cpp:124] Setting up pool0
I0428 19:59:50.572023 29335 net.cpp:131] Top shape: 64 10 12 12 (92160)
I0428 19:59:50.572041 29335 net.cpp:139] Memory required for data: 2044160
I0428 19:59:50.572044 29335 layer_factory.hpp:77] Creating layer conv1
I0428 19:59:50.572055 29335 net.cpp:86] Creating Layer conv1
I0428 19:59:50.572058 29335 net.cpp:408] conv1 <- pool0
I0428 19:59:50.572063 29335 net.cpp:382] conv1 -> conv1
I0428 19:59:50.574798 29335 net.cpp:124] Setting up conv1
I0428 19:59:50.574813 29335 net.cpp:131] Top shape: 64 25 8 8 (102400)
I0428 19:59:50.574817 29335 net.cpp:139] Memory required for data: 2453760
I0428 19:59:50.574826 29335 layer_factory.hpp:77] Creating layer pool1
I0428 19:59:50.574832 29335 net.cpp:86] Creating Layer pool1
I0428 19:59:50.574836 29335 net.cpp:408] pool1 <- conv1
I0428 19:59:50.574841 29335 net.cpp:382] pool1 -> pool1
I0428 19:59:50.574877 29335 net.cpp:124] Setting up pool1
I0428 19:59:50.574904 29335 net.cpp:131] Top shape: 64 25 4 4 (25600)
I0428 19:59:50.574908 29335 net.cpp:139] Memory required for data: 2556160
I0428 19:59:50.574910 29335 layer_factory.hpp:77] Creating layer ip1
I0428 19:59:50.574916 29335 net.cpp:86] Creating Layer ip1
I0428 19:59:50.574919 29335 net.cpp:408] ip1 <- pool1
I0428 19:59:50.574923 29335 net.cpp:382] ip1 -> ip1
I0428 19:59:50.575891 29335 net.cpp:124] Setting up ip1
I0428 19:59:50.575902 29335 net.cpp:131] Top shape: 64 10 (640)
I0428 19:59:50.575906 29335 net.cpp:139] Memory required for data: 2558720
I0428 19:59:50.575913 29335 layer_factory.hpp:77] Creating layer relu1
I0428 19:59:50.575919 29335 net.cpp:86] Creating Layer relu1
I0428 19:59:50.575922 29335 net.cpp:408] relu1 <- ip1
I0428 19:59:50.575927 29335 net.cpp:369] relu1 -> ip1 (in-place)
I0428 19:59:50.576097 29335 net.cpp:124] Setting up relu1
I0428 19:59:50.576105 29335 net.cpp:131] Top shape: 64 10 (640)
I0428 19:59:50.576108 29335 net.cpp:139] Memory required for data: 2561280
I0428 19:59:50.576112 29335 layer_factory.hpp:77] Creating layer loss
I0428 19:59:50.576117 29335 net.cpp:86] Creating Layer loss
I0428 19:59:50.576126 29335 net.cpp:408] loss <- ip1
I0428 19:59:50.576130 29335 net.cpp:408] loss <- label
I0428 19:59:50.576134 29335 net.cpp:382] loss -> loss
I0428 19:59:50.576148 29335 layer_factory.hpp:77] Creating layer loss
…
I0428 19:59:50.577330 29335 solver.cpp:173] Creating test net (#0) specified by net file: ECE595/mnist/train_test/var_everything2/lenet_train_test859.prototxt
I0428 19:59:50.577353 29335 net.cpp:296] The NetState phase (1) differed from the phase (0) specified by a rule in layer mnist
I0428 19:59:50.577425 29335 net.cpp:53] Initializing net from parameters: 
name: "LeNet"
state {
  phase: TEST
}
layer {
  name: "mnist"
  type: "Data"
  top: "data"
  top: "label"
  include {
    phase: TEST
  }
  transform_param {
    scale: 0.00390625
  }
  data_param {
    source: "examples/mnist/mnist_test_lmdb"
    batch_size: 100
    backend: LMDB
  }
}
layer {
  name: "conv0"
  type: "Convolution"
  bottom: "data"
  top: "conv0"
  param {
    lr_mult: 1
  }
  param {
    lr_mult: 2
  }
  convolution_param {
    num_output: 10
    kernel_size: 5
    stride: 1
    weight_filler {
      type: "xavier"
    }
    bias_filler {
      type: "constant"
    }
  }
}
layer {
  name: "pool0"
  type: "Pooling"
  bottom: "conv0"
  top: "pool0"
  pooling_param {
    pool: MAX
    kernel_size: 2
    stride: 2
  }
}
layer {
  name: "conv1"
  type: "Convolution"
  bottom: "pool0"
  top: "conv1"
  param {
    lr_mult: 1
  }
  param {
    lr_mult: 2
  }
  convolution_param {
    num_output: 25
    kernel_size: 5
    stride: 1
    weight_filler {
      type: "xavier"
    }
    bias_filler {
      type: "constant"
    }
  }
}
layer {
  name: "pool1"
  type: "Pooling"
  bottom: "conv1"
  top: "pool1"
  pooling_param {
    pool: MAX
    kernel_size: 2
    stride: 2
  }
}
layer {
  name: "ip1"
  type: "InnerProduct"
  bottom: "pool1"
  top: "ip1"
  param {
    lr_mult: 1
  }
  param {
    lr_mult: 2
  }
  inner_product_param {
    num_output: 10
    weight_filler {
      type: "xavier"
    }
    bias_filler {
      type: "constant"
    }
  }
}
layer {
  name: "relu1"
  type: "ReLU"
  bottom: "ip1"
  top: "ip1"
}
layer {
  name: "accuracy"
  type: "Accuracy"
  bottom: "ip1"
  bottom: "label"
  top: "accuracy"
  include {
    phase: TEST
  }
}
layer {
  name: "loss"
  type: "SoftmaxWithLoss"
  bottom: "ip1"
  bottom: "label"
  top: "loss"
}
I0428 19:59:50.577491 29335 layer_factory.hpp:77] Creating layer mnist
I0428 19:59:50.577535 29335 db_lmdb.cpp:35] Opened lmdb examples/mnist/mnist_test_lmdb
I0428 19:59:50.577546 29335 net.cpp:86] Creating Layer mnist
I0428 19:59:50.577550 29335 net.cpp:382] mnist -> data
I0428 19:59:50.577558 29335 net.cpp:382] mnist -> label
I0428 19:59:50.577651 29335 data_layer.cpp:45] output data size: 100,1,28,28
I0428 19:59:50.579658 29335 net.cpp:124] Setting up mnist
I0428 19:59:50.579680 29335 net.cpp:131] Top shape: 100 1 28 28 (78400)
I0428 19:59:50.579685 29335 net.cpp:131] Top shape: 100 (100)
I0428 19:59:50.579689 29335 net.cpp:139] Memory required for data: 314000
I0428 19:59:50.579691 29335 layer_factory.hpp:77] Creating layer label_mnist_1_split
I0428 19:59:50.579699 29335 net.cpp:86] Creating Layer label_mnist_1_split
I0428 19:59:50.579701 29335 net.cpp:408] label_mnist_1_split <- label
I0428 19:59:50.579706 29335 net.cpp:382] label_mnist_1_split -> label_mnist_1_split_0
I0428 19:59:50.579712 29335 net.cpp:382] label_mnist_1_split -> label_mnist_1_split_1
I0428 19:59:50.579818 29335 net.cpp:124] Setting up label_mnist_1_split
I0428 19:59:50.579839 29335 net.cpp:131] Top shape: 100 (100)
I0428 19:59:50.579843 29335 net.cpp:131] Top shape: 100 (100)
I0428 19:59:50.579845 29335 net.cpp:139] Memory required for data: 314800
I0428 19:59:50.579849 29335 layer_factory.hpp:77] Creating layer conv0
I0428 19:59:50.579856 29335 net.cpp:86] Creating Layer conv0
I0428 19:59:50.579859 29335 net.cpp:408] conv0 <- data
I0428 19:59:50.579874 29335 net.cpp:382] conv0 -> conv0
I0428 19:59:50.580744 29335 net.cpp:124] Setting up conv0
I0428 19:59:50.580756 29335 net.cpp:131] Top shape: 100 10 24 24 (576000)
I0428 19:59:50.580760 29335 net.cpp:139] Memory required for data: 2618800
I0428 19:59:50.580767 29335 layer_factory.hpp:77] Creating layer pool0
I0428 19:59:50.580787 29335 net.cpp:86] Creating Layer pool0
I0428 19:59:50.580790 29335 net.cpp:408] pool0 <- conv0
I0428 19:59:50.580796 29335 net.cpp:382] pool0 -> pool0
I0428 19:59:50.580852 29335 net.cpp:124] Setting up pool0
I0428 19:59:50.580857 29335 net.cpp:131] Top shape: 100 10 12 12 (144000)
I0428 19:59:50.580859 29335 net.cpp:139] Memory required for data: 3194800
I0428 19:59:50.580862 29335 layer_factory.hpp:77] Creating layer conv1
I0428 19:59:50.580870 29335 net.cpp:86] Creating Layer conv1
I0428 19:59:50.580873 29335 net.cpp:408] conv1 <- pool0
I0428 19:59:50.580878 29335 net.cpp:382] conv1 -> conv1
I0428 19:59:50.582973 29335 net.cpp:124] Setting up conv1
I0428 19:59:50.582988 29335 net.cpp:131] Top shape: 100 25 8 8 (160000)
I0428 19:59:50.582991 29335 net.cpp:139] Memory required for data: 3834800
I0428 19:59:50.582999 29335 layer_factory.hpp:77] Creating layer pool1
I0428 19:59:50.583006 29335 net.cpp:86] Creating Layer pool1
I0428 19:59:50.583020 29335 net.cpp:408] pool1 <- conv1
I0428 19:59:50.583035 29335 net.cpp:382] pool1 -> pool1
I0428 19:59:50.583103 29335 net.cpp:124] Setting up pool1
I0428 19:59:50.583109 29335 net.cpp:131] Top shape: 100 25 4 4 (40000)
I0428 19:59:50.583112 29335 net.cpp:139] Memory required for data: 3994800
I0428 19:59:50.583114 29335 layer_factory.hpp:77] Creating layer ip1
I0428 19:59:50.583120 29335 net.cpp:86] Creating Layer ip1
I0428 19:59:50.583123 29335 net.cpp:408] ip1 <- pool1
I0428 19:59:50.583147 29335 net.cpp:382] ip1 -> ip1
I0428 19:59:50.583259 29335 net.cpp:124] Setting up ip1
I0428 19:59:50.583266 29335 net.cpp:131] Top shape: 100 10 (1000)
I0428 19:59:50.583269 29335 net.cpp:139] Memory required for data: 3998800
I0428 19:59:50.583276 29335 layer_factory.hpp:77] Creating layer relu1
I0428 19:59:50.583279 29335 net.cpp:86] Creating Layer relu1
I0428 19:59:50.583282 29335 net.cpp:408] relu1 <- ip1
I0428 19:59:50.583287 29335 net.cpp:369] relu1 -> ip1 (in-place)
I0428 19:59:50.584143 29335 net.cpp:124] Setting up relu1
I0428 19:59:50.584156 29335 net.cpp:131] Top shape: 100 10 (1000)
I0428 19:59:50.584159 29335 net.cpp:139] Memory required for data: 4002800
I0428 19:59:50.584163 29335 layer_factory.hpp:77] Creating layer ip1_relu1_0_split
I0428 19:59:50.584170 29335 net.cpp:86] Creating Layer ip1_relu1_0_split
I0428 19:59:50.584174 29335 net.cpp:408] ip1_relu1_0_split <- ip1
I0428 19:59:50.584180 29335 net.cpp:382] ip1_relu1_0_split -> ip1_relu1_0_split_0
I0428 19:59:50.584187 29335 net.cpp:382] ip1_relu1_0_split -> ip1_relu1_0_split_1
I0428 19:59:50.584261 29335 net.cpp:124] Setting up ip1_relu1_0_split
I0428 19:59:50.584270 29335 net.cpp:131] Top shape: 100 10 (1000)
I0428 19:59:50.584273 29335 net.cpp:131] Top shape: 100 10 (1000)
I0428 19:59:50.584275 29335 net.cpp:139] Memory required for data: 4010800
I0428 19:59:50.584278 29335 layer_factory.hpp:77] Creating layer accuracy
I0428 19:59:50.584297 29335 net.cpp:86] Creating Layer accuracy
I0428 19:59:50.584300 29335 net.cpp:408] accuracy <- ip1_relu1_0_split_0
I0428 19:59:50.584309 29335 net.cpp:408] accuracy <- label_mnist_1_split_0
I0428 19:59:50.584313 29335 net.cpp:382] accuracy -> accuracy
…
