…
I0428 20:30:39.257568  3790 net.cpp:296] The NetState phase (0) differed from the phase (1) specified by a rule in layer mnist
I0428 20:30:39.257594  3790 net.cpp:296] The NetState phase (0) differed from the phase (1) specified by a rule in layer accuracy
I0428 20:30:39.257710  3790 net.cpp:53] Initializing net from parameters: 
name: "LeNet"
state {
  phase: TRAIN
  level: 0
  stage: ""
}
layer {
  name: "mnist"
  type: "Data"
  top: "data"
  top: "label"
  include {
    phase: TRAIN
  }
  transform_param {
    scale: 0.00390625
  }
  data_param {
    source: "examples/mnist/mnist_train_lmdb"
    batch_size: 64
    backend: LMDB
  }
}
layer {
  name: "conv0"
  type: "Convolution"
  bottom: "data"
  top: "conv0"
  param {
    lr_mult: 1
  }
  param {
    lr_mult: 2
  }
  convolution_param {
    num_output: 100
    kernel_size: 5
    stride: 1
    weight_filler {
      type: "xavier"
    }
    bias_filler {
      type: "constant"
    }
  }
}
layer {
  name: "pool0"
  type: "Pooling"
  bottom: "conv0"
  top: "pool0"
  pooling_param {
    pool: MAX
    kernel_size: 2
    stride: 2
  }
}
layer {
  name: "conv1"
  type: "Convolution"
  bottom: "pool0"
  top: "conv1"
  param {
    lr_mult: 1
  }
  param {
    lr_mult: 2
  }
  convolution_param {
    num_output: 10
    kernel_size: 5
    stride: 1
    weight_filler {
      type: "xavier"
    }
    bias_filler {
      type: "constant"
    }
  }
}
layer {
  name: "pool1"
  type: "Pooling"
  bottom: "conv1"
  top: "pool1"
  pooling_param {
    pool: MAX
    kernel_size: 2
    stride: 2
  }
}
layer {
  name: "ip1"
  type: "InnerProduct"
  bottom: "pool1"
  top: "ip1"
  param {
    lr_mult: 1
  }
  param {
    lr_mult: 2
  }
  inner_product_param {
    num_output: 25
    weight_filler {
      type: "xavier"
    }
    bias_filler {
      type: "constant"
    }
  }
}
layer {
  name: "relu1"
  type: "ReLU"
  bottom: "ip1"
  top: "ip1"
}
layer {
  name: "ip2"
  type: "InnerProduct"
  bottom: "ip1"
  top: "ip2"
  param {
    lr_mult: 1
  }
  param {
    lr_mult: 2
  }
  inner_product_param {
    num_output: 10
    weight_filler {
      type: "xavier"
    }
    bias_filler {
      type: "constant"
    }
  }
}
layer {
  name: "relu2"
  type: "ReLU"
  bottom: "ip2"
  top: "ip2"
}
layer {
  name: "ip3"
  type: "InnerProduct"
  bottom: "ip2"
  top: "ip3"
  param {
    lr_mult: 1
  }
  param {
    lr_mult: 2
  }
  inner_product_param {
    num_output: 10
    weight_filler {
      type: "xavier"
    }
    bias_filler {
      type: "constant"
    }
  }
}
layer {
  name: "relu3"
  type: "ReLU"
  bottom: "ip3"
  top: "ip3"
}
layer {
  name: "loss"
  type: "SoftmaxWithLoss"
  bottom: "ip3"
  bottom: "label"
  top: "loss"
}
I0428 20:30:39.257825  3790 layer_factory.hpp:77] Creating layer mnist
I0428 20:30:39.257964  3790 db_lmdb.cpp:35] Opened lmdb examples/mnist/mnist_train_lmdb
I0428 20:30:39.257997  3790 net.cpp:86] Creating Layer mnist
I0428 20:30:39.258009  3790 net.cpp:382] mnist -> data
I0428 20:30:39.258040  3790 net.cpp:382] mnist -> label
I0428 20:30:39.259311  3790 data_layer.cpp:45] output data size: 64,1,28,28
I0428 20:30:39.261797  3790 net.cpp:124] Setting up mnist
I0428 20:30:39.261818  3790 net.cpp:131] Top shape: 64 1 28 28 (50176)
I0428 20:30:39.261828  3790 net.cpp:131] Top shape: 64 (64)
I0428 20:30:39.261834  3790 net.cpp:139] Memory required for data: 200960
I0428 20:30:39.261845  3790 layer_factory.hpp:77] Creating layer conv0
I0428 20:30:39.261873  3790 net.cpp:86] Creating Layer conv0
I0428 20:30:39.261899  3790 net.cpp:408] conv0 <- data
I0428 20:30:39.261919  3790 net.cpp:382] conv0 -> conv0
I0428 20:30:39.555322  3790 net.cpp:124] Setting up conv0
I0428 20:30:39.555357  3790 net.cpp:131] Top shape: 64 100 24 24 (3686400)
I0428 20:30:39.555364  3790 net.cpp:139] Memory required for data: 14946560
I0428 20:30:39.555388  3790 layer_factory.hpp:77] Creating layer pool0
I0428 20:30:39.555410  3790 net.cpp:86] Creating Layer pool0
I0428 20:30:39.555428  3790 net.cpp:408] pool0 <- conv0
I0428 20:30:39.555438  3790 net.cpp:382] pool0 -> pool0
I0428 20:30:39.555512  3790 net.cpp:124] Setting up pool0
I0428 20:30:39.555523  3790 net.cpp:131] Top shape: 64 100 12 12 (921600)
I0428 20:30:39.555528  3790 net.cpp:139] Memory required for data: 18632960
I0428 20:30:39.555536  3790 layer_factory.hpp:77] Creating layer conv1
I0428 20:30:39.555555  3790 net.cpp:86] Creating Layer conv1
I0428 20:30:39.555564  3790 net.cpp:408] conv1 <- pool0
I0428 20:30:39.555575  3790 net.cpp:382] conv1 -> conv1
I0428 20:30:39.557982  3790 net.cpp:124] Setting up conv1
I0428 20:30:39.558004  3790 net.cpp:131] Top shape: 64 10 8 8 (40960)
I0428 20:30:39.558012  3790 net.cpp:139] Memory required for data: 18796800
I0428 20:30:39.558028  3790 layer_factory.hpp:77] Creating layer pool1
I0428 20:30:39.558044  3790 net.cpp:86] Creating Layer pool1
I0428 20:30:39.558058  3790 net.cpp:408] pool1 <- conv1
I0428 20:30:39.558070  3790 net.cpp:382] pool1 -> pool1
I0428 20:30:39.558125  3790 net.cpp:124] Setting up pool1
I0428 20:30:39.558135  3790 net.cpp:131] Top shape: 64 10 4 4 (10240)
I0428 20:30:39.558141  3790 net.cpp:139] Memory required for data: 18837760
I0428 20:30:39.558147  3790 layer_factory.hpp:77] Creating layer ip1
I0428 20:30:39.558162  3790 net.cpp:86] Creating Layer ip1
I0428 20:30:39.558172  3790 net.cpp:408] ip1 <- pool1
I0428 20:30:39.558182  3790 net.cpp:382] ip1 -> ip1
I0428 20:30:39.558349  3790 net.cpp:124] Setting up ip1
I0428 20:30:39.558360  3790 net.cpp:131] Top shape: 64 25 (1600)
I0428 20:30:39.558367  3790 net.cpp:139] Memory required for data: 18844160
I0428 20:30:39.558382  3790 layer_factory.hpp:77] Creating layer relu1
I0428 20:30:39.558399  3790 net.cpp:86] Creating Layer relu1
I0428 20:30:39.558408  3790 net.cpp:408] relu1 <- ip1
I0428 20:30:39.558416  3790 net.cpp:369] relu1 -> ip1 (in-place)
I0428 20:30:39.558635  3790 net.cpp:124] Setting up relu1
I0428 20:30:39.558648  3790 net.cpp:131] Top shape: 64 25 (1600)
I0428 20:30:39.558658  3790 net.cpp:139] Memory required for data: 18850560
I0428 20:30:39.558665  3790 layer_factory.hpp:77] Creating layer ip2
I0428 20:30:39.558676  3790 net.cpp:86] Creating Layer ip2
I0428 20:30:39.558683  3790 net.cpp:408] ip2 <- ip1
I0428 20:30:39.558696  3790 net.cpp:382] ip2 -> ip2
I0428 20:30:39.558823  3790 net.cpp:124] Setting up ip2
I0428 20:30:39.558835  3790 net.cpp:131] Top shape: 64 10 (640)
I0428 20:30:39.558840  3790 net.cpp:139] Memory required for data: 18853120
I0428 20:30:39.558851  3790 layer_factory.hpp:77] Creating layer relu2
I0428 20:30:39.558866  3790 net.cpp:86] Creating Layer relu2
I0428 20:30:39.558872  3790 net.cpp:408] relu2 <- ip2
I0428 20:30:39.558881  3790 net.cpp:369] relu2 -> ip2 (in-place)
I0428 20:30:39.559753  3790 net.cpp:124] Setting up relu2
I0428 20:30:39.559772  3790 net.cpp:131] Top shape: 64 10 (640)
I0428 20:30:39.559778  3790 net.cpp:139] Memory required for data: 18855680
I0428 20:30:39.559785  3790 layer_factory.hpp:77] Creating layer ip3
I0428 20:30:39.559798  3790 net.cpp:86] Creating Layer ip3
I0428 20:30:39.559804  3790 net.cpp:408] ip3 <- ip2
I0428 20:30:39.559818  3790 net.cpp:382] ip3 -> ip3
I0428 20:30:39.559952  3790 net.cpp:124] Setting up ip3
I0428 20:30:39.559962  3790 net.cpp:131] Top shape: 64 10 (640)
I0428 20:30:39.559968  3790 net.cpp:139] Memory required for data: 18858240
I0428 20:30:39.559983  3790 layer_factory.hpp:77] Creating layer relu3
I0428 20:30:39.559994  3790 net.cpp:86] Creating Layer relu3
I0428 20:30:39.560001  3790 net.cpp:408] relu3 <- ip3
I0428 20:30:39.560012  3790 net.cpp:369] relu3 -> ip3 (in-place)
I0428 20:30:39.560226  3790 net.cpp:124] Setting up relu3
I0428 20:30:39.560238  3790 net.cpp:131] Top shape: 64 10 (640)
I0428 20:30:39.560245  3790 net.cpp:139] Memory required for data: 18860800
I0428 20:30:39.560251  3790 layer_factory.hpp:77] Creating layer loss
I0428 20:30:39.560267  3790 net.cpp:86] Creating Layer loss
I0428 20:30:39.560276  3790 net.cpp:408] loss <- ip3
I0428 20:30:39.560283  3790 net.cpp:408] loss <- label
I0428 20:30:39.560293  3790 net.cpp:382] loss -> loss
I0428 20:30:39.560319  3790 layer_factory.hpp:77] Creating layer loss
…
I0428 20:30:39.561173  3790 solver.cpp:173] Creating test net (#0) specified by net file: ECE595/mnist/train_test/var_everything2/lenet_train_test1542.prototxt
I0428 20:30:39.561216  3790 net.cpp:296] The NetState phase (1) differed from the phase (0) specified by a rule in layer mnist
I0428 20:30:39.561338  3790 net.cpp:53] Initializing net from parameters: 
name: "LeNet"
state {
  phase: TEST
}
layer {
  name: "mnist"
  type: "Data"
  top: "data"
  top: "label"
  include {
    phase: TEST
  }
  transform_param {
    scale: 0.00390625
  }
  data_param {
    source: "examples/mnist/mnist_test_lmdb"
    batch_size: 100
    backend: LMDB
  }
}
layer {
  name: "conv0"
  type: "Convolution"
  bottom: "data"
  top: "conv0"
  param {
    lr_mult: 1
  }
  param {
    lr_mult: 2
  }
  convolution_param {
    num_output: 100
    kernel_size: 5
    stride: 1
    weight_filler {
      type: "xavier"
    }
    bias_filler {
      type: "constant"
    }
  }
}
layer {
  name: "pool0"
  type: "Pooling"
  bottom: "conv0"
  top: "pool0"
  pooling_param {
    pool: MAX
    kernel_size: 2
    stride: 2
  }
}
layer {
  name: "conv1"
  type: "Convolution"
  bottom: "pool0"
  top: "conv1"
  param {
    lr_mult: 1
  }
  param {
    lr_mult: 2
  }
  convolution_param {
    num_output: 10
    kernel_size: 5
    stride: 1
    weight_filler {
      type: "xavier"
    }
    bias_filler {
      type: "constant"
    }
  }
}
layer {
  name: "pool1"
  type: "Pooling"
  bottom: "conv1"
  top: "pool1"
  pooling_param {
    pool: MAX
    kernel_size: 2
    stride: 2
  }
}
layer {
  name: "ip1"
  type: "InnerProduct"
  bottom: "pool1"
  top: "ip1"
  param {
    lr_mult: 1
  }
  param {
    lr_mult: 2
  }
  inner_product_param {
    num_output: 25
    weight_filler {
      type: "xavier"
    }
    bias_filler {
      type: "constant"
    }
  }
}
layer {
  name: "relu1"
  type: "ReLU"
  bottom: "ip1"
  top: "ip1"
}
layer {
  name: "ip2"
  type: "InnerProduct"
  bottom: "ip1"
  top: "ip2"
  param {
    lr_mult: 1
  }
  param {
    lr_mult: 2
  }
  inner_product_param {
    num_output: 10
    weight_filler {
      type: "xavier"
    }
    bias_filler {
      type: "constant"
    }
  }
}
layer {
  name: "relu2"
  type: "ReLU"
  bottom: "ip2"
  top: "ip2"
}
layer {
  name: "ip3"
  type: "InnerProduct"
  bottom: "ip2"
  top: "ip3"
  param {
    lr_mult: 1
  }
  param {
    lr_mult: 2
  }
  inner_product_param {
    num_output: 10
    weight_filler {
      type: "xavier"
    }
    bias_filler {
      type: "constant"
    }
  }
}
layer {
  name: "relu3"
  type: "ReLU"
  bottom: "ip3"
  top: "ip3"
}
layer {
  name: "accuracy"
  type: "Accuracy"
  bottom: "ip3"
  bottom: "label"
  top: "accuracy"
  include {
    phase: TEST
  }
}
layer {
  name: "loss"
  type: "SoftmaxWithLoss"
  bottom: "ip3"
  bottom: "label"
  top: "loss"
}
I0428 20:30:39.561484  3790 layer_factory.hpp:77] Creating layer mnist
I0428 20:30:39.561553  3790 db_lmdb.cpp:35] Opened lmdb examples/mnist/mnist_test_lmdb
I0428 20:30:39.561575  3790 net.cpp:86] Creating Layer mnist
I0428 20:30:39.561585  3790 net.cpp:382] mnist -> data
I0428 20:30:39.561600  3790 net.cpp:382] mnist -> label
I0428 20:30:39.561749  3790 data_layer.cpp:45] output data size: 100,1,28,28
I0428 20:30:39.564131  3790 net.cpp:124] Setting up mnist
I0428 20:30:39.564148  3790 net.cpp:131] Top shape: 100 1 28 28 (78400)
I0428 20:30:39.564158  3790 net.cpp:131] Top shape: 100 (100)
I0428 20:30:39.564164  3790 net.cpp:139] Memory required for data: 314000
I0428 20:30:39.564170  3790 layer_factory.hpp:77] Creating layer label_mnist_1_split
I0428 20:30:39.564204  3790 net.cpp:86] Creating Layer label_mnist_1_split
I0428 20:30:39.564211  3790 net.cpp:408] label_mnist_1_split <- label
I0428 20:30:39.564221  3790 net.cpp:382] label_mnist_1_split -> label_mnist_1_split_0
I0428 20:30:39.564236  3790 net.cpp:382] label_mnist_1_split -> label_mnist_1_split_1
I0428 20:30:39.564335  3790 net.cpp:124] Setting up label_mnist_1_split
I0428 20:30:39.564347  3790 net.cpp:131] Top shape: 100 (100)
I0428 20:30:39.564353  3790 net.cpp:131] Top shape: 100 (100)
I0428 20:30:39.564359  3790 net.cpp:139] Memory required for data: 314800
I0428 20:30:39.564365  3790 layer_factory.hpp:77] Creating layer conv0
I0428 20:30:39.564383  3790 net.cpp:86] Creating Layer conv0
I0428 20:30:39.564391  3790 net.cpp:408] conv0 <- data
I0428 20:30:39.564404  3790 net.cpp:382] conv0 -> conv0
I0428 20:30:39.566241  3790 net.cpp:124] Setting up conv0
I0428 20:30:39.566268  3790 net.cpp:131] Top shape: 100 100 24 24 (5760000)
I0428 20:30:39.566275  3790 net.cpp:139] Memory required for data: 23354800
I0428 20:30:39.566293  3790 layer_factory.hpp:77] Creating layer pool0
I0428 20:30:39.566304  3790 net.cpp:86] Creating Layer pool0
I0428 20:30:39.566313  3790 net.cpp:408] pool0 <- conv0
I0428 20:30:39.566323  3790 net.cpp:382] pool0 -> pool0
I0428 20:30:39.566375  3790 net.cpp:124] Setting up pool0
I0428 20:30:39.566386  3790 net.cpp:131] Top shape: 100 100 12 12 (1440000)
I0428 20:30:39.566391  3790 net.cpp:139] Memory required for data: 29114800
I0428 20:30:39.566397  3790 layer_factory.hpp:77] Creating layer conv1
I0428 20:30:39.566416  3790 net.cpp:86] Creating Layer conv1
I0428 20:30:39.566424  3790 net.cpp:408] conv1 <- pool0
I0428 20:30:39.566435  3790 net.cpp:382] conv1 -> conv1
I0428 20:30:39.568465  3790 net.cpp:124] Setting up conv1
I0428 20:30:39.568483  3790 net.cpp:131] Top shape: 100 10 8 8 (64000)
I0428 20:30:39.568490  3790 net.cpp:139] Memory required for data: 29370800
I0428 20:30:39.568506  3790 layer_factory.hpp:77] Creating layer pool1
I0428 20:30:39.568521  3790 net.cpp:86] Creating Layer pool1
I0428 20:30:39.568531  3790 net.cpp:408] pool1 <- conv1
I0428 20:30:39.568539  3790 net.cpp:382] pool1 -> pool1
I0428 20:30:39.568593  3790 net.cpp:124] Setting up pool1
I0428 20:30:39.568603  3790 net.cpp:131] Top shape: 100 10 4 4 (16000)
I0428 20:30:39.568608  3790 net.cpp:139] Memory required for data: 29434800
I0428 20:30:39.568614  3790 layer_factory.hpp:77] Creating layer ip1
I0428 20:30:39.568626  3790 net.cpp:86] Creating Layer ip1
I0428 20:30:39.568634  3790 net.cpp:408] ip1 <- pool1
I0428 20:30:39.568645  3790 net.cpp:382] ip1 -> ip1
I0428 20:30:39.568809  3790 net.cpp:124] Setting up ip1
I0428 20:30:39.568840  3790 net.cpp:131] Top shape: 100 25 (2500)
I0428 20:30:39.568847  3790 net.cpp:139] Memory required for data: 29444800
I0428 20:30:39.568862  3790 layer_factory.hpp:77] Creating layer relu1
I0428 20:30:39.568882  3790 net.cpp:86] Creating Layer relu1
I0428 20:30:39.568889  3790 net.cpp:408] relu1 <- ip1
I0428 20:30:39.568902  3790 net.cpp:369] relu1 -> ip1 (in-place)
I0428 20:30:39.569111  3790 net.cpp:124] Setting up relu1
I0428 20:30:39.569124  3790 net.cpp:131] Top shape: 100 25 (2500)
I0428 20:30:39.569133  3790 net.cpp:139] Memory required for data: 29454800
I0428 20:30:39.569139  3790 layer_factory.hpp:77] Creating layer ip2
I0428 20:30:39.569154  3790 net.cpp:86] Creating Layer ip2
I0428 20:30:39.569161  3790 net.cpp:408] ip2 <- ip1
I0428 20:30:39.569172  3790 net.cpp:382] ip2 -> ip2
I0428 20:30:39.569331  3790 net.cpp:124] Setting up ip2
I0428 20:30:39.569341  3790 net.cpp:131] Top shape: 100 10 (1000)
I0428 20:30:39.569347  3790 net.cpp:139] Memory required for data: 29458800
I0428 20:30:39.569358  3790 layer_factory.hpp:77] Creating layer relu2
I0428 20:30:39.569368  3790 net.cpp:86] Creating Layer relu2
I0428 20:30:39.569375  3790 net.cpp:408] relu2 <- ip2
I0428 20:30:39.569386  3790 net.cpp:369] relu2 -> ip2 (in-place)
I0428 20:30:39.569589  3790 net.cpp:124] Setting up relu2
I0428 20:30:39.569602  3790 net.cpp:131] Top shape: 100 10 (1000)
I0428 20:30:39.569608  3790 net.cpp:139] Memory required for data: 29462800
I0428 20:30:39.569614  3790 layer_factory.hpp:77] Creating layer ip3
I0428 20:30:39.569628  3790 net.cpp:86] Creating Layer ip3
I0428 20:30:39.569634  3790 net.cpp:408] ip3 <- ip2
I0428 20:30:39.569648  3790 net.cpp:382] ip3 -> ip3
I0428 20:30:39.569780  3790 net.cpp:124] Setting up ip3
I0428 20:30:39.569792  3790 net.cpp:131] Top shape: 100 10 (1000)
I0428 20:30:39.569799  3790 net.cpp:139] Memory required for data: 29466800
I0428 20:30:39.569814  3790 layer_factory.hpp:77] Creating layer relu3
I0428 20:30:39.569824  3790 net.cpp:86] Creating Layer relu3
I0428 20:30:39.569831  3790 net.cpp:408] relu3 <- ip3
I0428 20:30:39.569839  3790 net.cpp:369] relu3 -> ip3 (in-place)
I0428 20:30:39.570783  3790 net.cpp:124] Setting up relu3
I0428 20:30:39.570799  3790 net.cpp:131] Top shape: 100 10 (1000)
I0428 20:30:39.570806  3790 net.cpp:139] Memory required for data: 29470800
I0428 20:30:39.570812  3790 layer_factory.hpp:77] Creating layer ip3_relu3_0_split
I0428 20:30:39.570824  3790 net.cpp:86] Creating Layer ip3_relu3_0_split
I0428 20:30:39.570832  3790 net.cpp:408] ip3_relu3_0_split <- ip3
I0428 20:30:39.570842  3790 net.cpp:382] ip3_relu3_0_split -> ip3_relu3_0_split_0
I0428 20:30:39.570855  3790 net.cpp:382] ip3_relu3_0_split -> ip3_relu3_0_split_1
I0428 20:30:39.570909  3790 net.cpp:124] Setting up ip3_relu3_0_split
I0428 20:30:39.570919  3790 net.cpp:131] Top shape: 100 10 (1000)
I0428 20:30:39.570927  3790 net.cpp:131] Top shape: 100 10 (1000)
I0428 20:30:39.570933  3790 net.cpp:139] Memory required for data: 29478800
I0428 20:30:39.570940  3790 layer_factory.hpp:77] Creating layer accuracy
I0428 20:30:39.570952  3790 net.cpp:86] Creating Layer accuracy
I0428 20:30:39.570964  3790 net.cpp:408] accuracy <- ip3_relu3_0_split_0
I0428 20:30:39.570972  3790 net.cpp:408] accuracy <- label_mnist_1_split_0
I0428 20:30:39.570982  3790 net.cpp:382] accuracy -> accuracy
…
