…
I0428 20:09:50.003895 31710 net.cpp:296] The NetState phase (0) differed from the phase (1) specified by a rule in layer mnist
I0428 20:09:50.003924 31710 net.cpp:296] The NetState phase (0) differed from the phase (1) specified by a rule in layer accuracy
I0428 20:09:50.004007 31710 net.cpp:53] Initializing net from parameters: 
name: "LeNet"
state {
  phase: TRAIN
  level: 0
  stage: ""
}
layer {
  name: "mnist"
  type: "Data"
  top: "data"
  top: "label"
  include {
    phase: TRAIN
  }
  transform_param {
    scale: 0.00390625
  }
  data_param {
    source: "examples/mnist/mnist_train_lmdb"
    batch_size: 64
    backend: LMDB
  }
}
layer {
  name: "conv0"
  type: "Convolution"
  bottom: "data"
  top: "conv0"
  param {
    lr_mult: 1
  }
  param {
    lr_mult: 2
  }
  convolution_param {
    num_output: 25
    kernel_size: 5
    stride: 1
    weight_filler {
      type: "xavier"
    }
    bias_filler {
      type: "constant"
    }
  }
}
layer {
  name: "pool0"
  type: "Pooling"
  bottom: "conv0"
  top: "pool0"
  pooling_param {
    pool: MAX
    kernel_size: 2
    stride: 2
  }
}
layer {
  name: "conv1"
  type: "Convolution"
  bottom: "pool0"
  top: "conv1"
  param {
    lr_mult: 1
  }
  param {
    lr_mult: 2
  }
  convolution_param {
    num_output: 25
    kernel_size: 5
    stride: 1
    weight_filler {
      type: "xavier"
    }
    bias_filler {
      type: "constant"
    }
  }
}
layer {
  name: "pool1"
  type: "Pooling"
  bottom: "conv1"
  top: "pool1"
  pooling_param {
    pool: MAX
    kernel_size: 2
    stride: 2
  }
}
layer {
  name: "ip1"
  type: "InnerProduct"
  bottom: "pool1"
  top: "ip1"
  param {
    lr_mult: 1
  }
  param {
    lr_mult: 2
  }
  inner_product_param {
    num_output: 25
    weight_filler {
      type: "xavier"
    }
    bias_filler {
      type: "constant"
    }
  }
}
layer {
  name: "relu1"
  type: "ReLU"
  bottom: "ip1"
  top: "ip1"
}
layer {
  name: "ip2"
  type: "InnerProduct"
  bottom: "ip1"
  top: "ip2"
  param {
    lr_mult: 1
  }
  param {
    lr_mult: 2
  }
  inner_product_param {
    num_output: 50
    weight_filler {
      type: "xavier"
    }
    bias_filler {
      type: "constant"
    }
  }
}
layer {
  name: "relu2"
  type: "ReLU"
  bottom: "ip2"
  top: "ip2"
}
layer {
  name: "ip3"
  type: "InnerProduct"
  bottom: "ip2"
  top: "ip3"
  param {
    lr_mult: 1
  }
  param {
    lr_mult: 2
  }
  inner_product_param {
    num_output: 10
    weight_filler {
      type: "xavier"
    }
    bias_filler {
      type: "constant"
    }
  }
}
layer {
  name: "relu3"
  type: "ReLU"
  bottom: "ip3"
  top: "ip3"
}
layer {
  name: "loss"
  type: "SoftmaxWithLoss"
  bottom: "ip3"
  bottom: "label"
  top: "loss"
}
I0428 20:09:50.004070 31710 layer_factory.hpp:77] Creating layer mnist
I0428 20:09:50.004180 31710 db_lmdb.cpp:35] Opened lmdb examples/mnist/mnist_train_lmdb
I0428 20:09:50.004199 31710 net.cpp:86] Creating Layer mnist
I0428 20:09:50.004205 31710 net.cpp:382] mnist -> data
I0428 20:09:50.004223 31710 net.cpp:382] mnist -> label
I0428 20:09:50.005199 31710 data_layer.cpp:45] output data size: 64,1,28,28
I0428 20:09:50.007467 31710 net.cpp:124] Setting up mnist
I0428 20:09:50.007498 31710 net.cpp:131] Top shape: 64 1 28 28 (50176)
I0428 20:09:50.007503 31710 net.cpp:131] Top shape: 64 (64)
I0428 20:09:50.007506 31710 net.cpp:139] Memory required for data: 200960
I0428 20:09:50.007513 31710 layer_factory.hpp:77] Creating layer conv0
I0428 20:09:50.007524 31710 net.cpp:86] Creating Layer conv0
I0428 20:09:50.007542 31710 net.cpp:408] conv0 <- data
I0428 20:09:50.007552 31710 net.cpp:382] conv0 -> conv0
I0428 20:09:50.248806 31710 net.cpp:124] Setting up conv0
I0428 20:09:50.248878 31710 net.cpp:131] Top shape: 64 25 24 24 (921600)
I0428 20:09:50.248881 31710 net.cpp:139] Memory required for data: 3887360
I0428 20:09:50.248898 31710 layer_factory.hpp:77] Creating layer pool0
I0428 20:09:50.248911 31710 net.cpp:86] Creating Layer pool0
I0428 20:09:50.248915 31710 net.cpp:408] pool0 <- conv0
I0428 20:09:50.248921 31710 net.cpp:382] pool0 -> pool0
I0428 20:09:50.248968 31710 net.cpp:124] Setting up pool0
I0428 20:09:50.248975 31710 net.cpp:131] Top shape: 64 25 12 12 (230400)
I0428 20:09:50.248980 31710 net.cpp:139] Memory required for data: 4808960
I0428 20:09:50.248982 31710 layer_factory.hpp:77] Creating layer conv1
I0428 20:09:50.248993 31710 net.cpp:86] Creating Layer conv1
I0428 20:09:50.248996 31710 net.cpp:408] conv1 <- pool0
I0428 20:09:50.249002 31710 net.cpp:382] conv1 -> conv1
I0428 20:09:50.251969 31710 net.cpp:124] Setting up conv1
I0428 20:09:50.251983 31710 net.cpp:131] Top shape: 64 25 8 8 (102400)
I0428 20:09:50.251987 31710 net.cpp:139] Memory required for data: 5218560
I0428 20:09:50.252012 31710 layer_factory.hpp:77] Creating layer pool1
I0428 20:09:50.252018 31710 net.cpp:86] Creating Layer pool1
I0428 20:09:50.252022 31710 net.cpp:408] pool1 <- conv1
I0428 20:09:50.252027 31710 net.cpp:382] pool1 -> pool1
I0428 20:09:50.252063 31710 net.cpp:124] Setting up pool1
I0428 20:09:50.252069 31710 net.cpp:131] Top shape: 64 25 4 4 (25600)
I0428 20:09:50.252089 31710 net.cpp:139] Memory required for data: 5320960
I0428 20:09:50.252091 31710 layer_factory.hpp:77] Creating layer ip1
I0428 20:09:50.252099 31710 net.cpp:86] Creating Layer ip1
I0428 20:09:50.252101 31710 net.cpp:408] ip1 <- pool1
I0428 20:09:50.252106 31710 net.cpp:382] ip1 -> ip1
I0428 20:09:50.252280 31710 net.cpp:124] Setting up ip1
I0428 20:09:50.252288 31710 net.cpp:131] Top shape: 64 25 (1600)
I0428 20:09:50.252291 31710 net.cpp:139] Memory required for data: 5327360
I0428 20:09:50.252300 31710 layer_factory.hpp:77] Creating layer relu1
I0428 20:09:50.252305 31710 net.cpp:86] Creating Layer relu1
I0428 20:09:50.252308 31710 net.cpp:408] relu1 <- ip1
I0428 20:09:50.252312 31710 net.cpp:369] relu1 -> ip1 (in-place)
I0428 20:09:50.252492 31710 net.cpp:124] Setting up relu1
I0428 20:09:50.252516 31710 net.cpp:131] Top shape: 64 25 (1600)
I0428 20:09:50.252518 31710 net.cpp:139] Memory required for data: 5333760
I0428 20:09:50.252521 31710 layer_factory.hpp:77] Creating layer ip2
I0428 20:09:50.252528 31710 net.cpp:86] Creating Layer ip2
I0428 20:09:50.252532 31710 net.cpp:408] ip2 <- ip1
I0428 20:09:50.252537 31710 net.cpp:382] ip2 -> ip2
I0428 20:09:50.253605 31710 net.cpp:124] Setting up ip2
I0428 20:09:50.253618 31710 net.cpp:131] Top shape: 64 50 (3200)
I0428 20:09:50.253621 31710 net.cpp:139] Memory required for data: 5346560
I0428 20:09:50.253628 31710 layer_factory.hpp:77] Creating layer relu2
I0428 20:09:50.253634 31710 net.cpp:86] Creating Layer relu2
I0428 20:09:50.253638 31710 net.cpp:408] relu2 <- ip2
I0428 20:09:50.253643 31710 net.cpp:369] relu2 -> ip2 (in-place)
I0428 20:09:50.254348 31710 net.cpp:124] Setting up relu2
I0428 20:09:50.254361 31710 net.cpp:131] Top shape: 64 50 (3200)
I0428 20:09:50.254364 31710 net.cpp:139] Memory required for data: 5359360
I0428 20:09:50.254369 31710 layer_factory.hpp:77] Creating layer ip3
I0428 20:09:50.254375 31710 net.cpp:86] Creating Layer ip3
I0428 20:09:50.254379 31710 net.cpp:408] ip3 <- ip2
I0428 20:09:50.254384 31710 net.cpp:382] ip3 -> ip3
I0428 20:09:50.254480 31710 net.cpp:124] Setting up ip3
I0428 20:09:50.254488 31710 net.cpp:131] Top shape: 64 10 (640)
I0428 20:09:50.254492 31710 net.cpp:139] Memory required for data: 5361920
I0428 20:09:50.254498 31710 layer_factory.hpp:77] Creating layer relu3
I0428 20:09:50.254503 31710 net.cpp:86] Creating Layer relu3
I0428 20:09:50.254506 31710 net.cpp:408] relu3 <- ip3
I0428 20:09:50.254510 31710 net.cpp:369] relu3 -> ip3 (in-place)
I0428 20:09:50.254668 31710 net.cpp:124] Setting up relu3
I0428 20:09:50.254678 31710 net.cpp:131] Top shape: 64 10 (640)
I0428 20:09:50.254680 31710 net.cpp:139] Memory required for data: 5364480
I0428 20:09:50.254683 31710 layer_factory.hpp:77] Creating layer loss
I0428 20:09:50.254689 31710 net.cpp:86] Creating Layer loss
I0428 20:09:50.254693 31710 net.cpp:408] loss <- ip3
I0428 20:09:50.254696 31710 net.cpp:408] loss <- label
I0428 20:09:50.254701 31710 net.cpp:382] loss -> loss
I0428 20:09:50.254716 31710 layer_factory.hpp:77] Creating layer loss
…
I0428 20:09:50.255323 31710 solver.cpp:173] Creating test net (#0) specified by net file: ECE595/mnist/train_test/var_everything2/lenet_train_test1119.prototxt
I0428 20:09:50.255349 31710 net.cpp:296] The NetState phase (1) differed from the phase (0) specified by a rule in layer mnist
I0428 20:09:50.255441 31710 net.cpp:53] Initializing net from parameters: 
name: "LeNet"
state {
  phase: TEST
}
layer {
  name: "mnist"
  type: "Data"
  top: "data"
  top: "label"
  include {
    phase: TEST
  }
  transform_param {
    scale: 0.00390625
  }
  data_param {
    source: "examples/mnist/mnist_test_lmdb"
    batch_size: 100
    backend: LMDB
  }
}
layer {
  name: "conv0"
  type: "Convolution"
  bottom: "data"
  top: "conv0"
  param {
    lr_mult: 1
  }
  param {
    lr_mult: 2
  }
  convolution_param {
    num_output: 25
    kernel_size: 5
    stride: 1
    weight_filler {
      type: "xavier"
    }
    bias_filler {
      type: "constant"
    }
  }
}
layer {
  name: "pool0"
  type: "Pooling"
  bottom: "conv0"
  top: "pool0"
  pooling_param {
    pool: MAX
    kernel_size: 2
    stride: 2
  }
}
layer {
  name: "conv1"
  type: "Convolution"
  bottom: "pool0"
  top: "conv1"
  param {
    lr_mult: 1
  }
  param {
    lr_mult: 2
  }
  convolution_param {
    num_output: 25
    kernel_size: 5
    stride: 1
    weight_filler {
      type: "xavier"
    }
    bias_filler {
      type: "constant"
    }
  }
}
layer {
  name: "pool1"
  type: "Pooling"
  bottom: "conv1"
  top: "pool1"
  pooling_param {
    pool: MAX
    kernel_size: 2
    stride: 2
  }
}
layer {
  name: "ip1"
  type: "InnerProduct"
  bottom: "pool1"
  top: "ip1"
  param {
    lr_mult: 1
  }
  param {
    lr_mult: 2
  }
  inner_product_param {
    num_output: 25
    weight_filler {
      type: "xavier"
    }
    bias_filler {
      type: "constant"
    }
  }
}
layer {
  name: "relu1"
  type: "ReLU"
  bottom: "ip1"
  top: "ip1"
}
layer {
  name: "ip2"
  type: "InnerProduct"
  bottom: "ip1"
  top: "ip2"
  param {
    lr_mult: 1
  }
  param {
    lr_mult: 2
  }
  inner_product_param {
    num_output: 50
    weight_filler {
      type: "xavier"
    }
    bias_filler {
      type: "constant"
    }
  }
}
layer {
  name: "relu2"
  type: "ReLU"
  bottom: "ip2"
  top: "ip2"
}
layer {
  name: "ip3"
  type: "InnerProduct"
  bottom: "ip2"
  top: "ip3"
  param {
    lr_mult: 1
  }
  param {
    lr_mult: 2
  }
  inner_product_param {
    num_output: 10
    weight_filler {
      type: "xavier"
    }
    bias_filler {
      type: "constant"
    }
  }
}
layer {
  name: "relu3"
  type: "ReLU"
  bottom: "ip3"
  top: "ip3"
}
layer {
  name: "accuracy"
  type: "Accuracy"
  bottom: "ip3"
  bottom: "label"
  top: "accuracy"
  include {
    phase: TEST
  }
}
layer {
  name: "loss"
  type: "SoftmaxWithLoss"
  bottom: "ip3"
  bottom: "label"
  top: "loss"
}
I0428 20:09:50.255519 31710 layer_factory.hpp:77] Creating layer mnist
I0428 20:09:50.255560 31710 db_lmdb.cpp:35] Opened lmdb examples/mnist/mnist_test_lmdb
I0428 20:09:50.255575 31710 net.cpp:86] Creating Layer mnist
I0428 20:09:50.255579 31710 net.cpp:382] mnist -> data
I0428 20:09:50.255587 31710 net.cpp:382] mnist -> label
I0428 20:09:50.255668 31710 data_layer.cpp:45] output data size: 100,1,28,28
I0428 20:09:50.257611 31710 net.cpp:124] Setting up mnist
I0428 20:09:50.257625 31710 net.cpp:131] Top shape: 100 1 28 28 (78400)
I0428 20:09:50.257645 31710 net.cpp:131] Top shape: 100 (100)
I0428 20:09:50.257648 31710 net.cpp:139] Memory required for data: 314000
I0428 20:09:50.257652 31710 layer_factory.hpp:77] Creating layer label_mnist_1_split
I0428 20:09:50.257659 31710 net.cpp:86] Creating Layer label_mnist_1_split
I0428 20:09:50.257663 31710 net.cpp:408] label_mnist_1_split <- label
I0428 20:09:50.257668 31710 net.cpp:382] label_mnist_1_split -> label_mnist_1_split_0
I0428 20:09:50.257673 31710 net.cpp:382] label_mnist_1_split -> label_mnist_1_split_1
I0428 20:09:50.257745 31710 net.cpp:124] Setting up label_mnist_1_split
I0428 20:09:50.257752 31710 net.cpp:131] Top shape: 100 (100)
I0428 20:09:50.257756 31710 net.cpp:131] Top shape: 100 (100)
I0428 20:09:50.257760 31710 net.cpp:139] Memory required for data: 314800
I0428 20:09:50.257762 31710 layer_factory.hpp:77] Creating layer conv0
I0428 20:09:50.257771 31710 net.cpp:86] Creating Layer conv0
I0428 20:09:50.257776 31710 net.cpp:408] conv0 <- data
I0428 20:09:50.257781 31710 net.cpp:382] conv0 -> conv0
I0428 20:09:50.259472 31710 net.cpp:124] Setting up conv0
I0428 20:09:50.259487 31710 net.cpp:131] Top shape: 100 25 24 24 (1440000)
I0428 20:09:50.259491 31710 net.cpp:139] Memory required for data: 6074800
I0428 20:09:50.259501 31710 layer_factory.hpp:77] Creating layer pool0
I0428 20:09:50.259508 31710 net.cpp:86] Creating Layer pool0
I0428 20:09:50.259515 31710 net.cpp:408] pool0 <- conv0
I0428 20:09:50.259534 31710 net.cpp:382] pool0 -> pool0
I0428 20:09:50.259605 31710 net.cpp:124] Setting up pool0
I0428 20:09:50.259613 31710 net.cpp:131] Top shape: 100 25 12 12 (360000)
I0428 20:09:50.259616 31710 net.cpp:139] Memory required for data: 7514800
I0428 20:09:50.259619 31710 layer_factory.hpp:77] Creating layer conv1
I0428 20:09:50.259627 31710 net.cpp:86] Creating Layer conv1
I0428 20:09:50.259631 31710 net.cpp:408] conv1 <- pool0
I0428 20:09:50.259636 31710 net.cpp:382] conv1 -> conv1
I0428 20:09:50.261878 31710 net.cpp:124] Setting up conv1
I0428 20:09:50.261891 31710 net.cpp:131] Top shape: 100 25 8 8 (160000)
I0428 20:09:50.261895 31710 net.cpp:139] Memory required for data: 8154800
I0428 20:09:50.261904 31710 layer_factory.hpp:77] Creating layer pool1
I0428 20:09:50.261910 31710 net.cpp:86] Creating Layer pool1
I0428 20:09:50.261914 31710 net.cpp:408] pool1 <- conv1
I0428 20:09:50.261919 31710 net.cpp:382] pool1 -> pool1
I0428 20:09:50.261986 31710 net.cpp:124] Setting up pool1
I0428 20:09:50.261993 31710 net.cpp:131] Top shape: 100 25 4 4 (40000)
I0428 20:09:50.261997 31710 net.cpp:139] Memory required for data: 8314800
I0428 20:09:50.262001 31710 layer_factory.hpp:77] Creating layer ip1
I0428 20:09:50.262006 31710 net.cpp:86] Creating Layer ip1
I0428 20:09:50.262009 31710 net.cpp:408] ip1 <- pool1
I0428 20:09:50.262015 31710 net.cpp:382] ip1 -> ip1
I0428 20:09:50.262200 31710 net.cpp:124] Setting up ip1
I0428 20:09:50.262209 31710 net.cpp:131] Top shape: 100 25 (2500)
I0428 20:09:50.262224 31710 net.cpp:139] Memory required for data: 8324800
I0428 20:09:50.262231 31710 layer_factory.hpp:77] Creating layer relu1
I0428 20:09:50.262240 31710 net.cpp:86] Creating Layer relu1
I0428 20:09:50.262259 31710 net.cpp:408] relu1 <- ip1
I0428 20:09:50.262264 31710 net.cpp:369] relu1 -> ip1 (in-place)
I0428 20:09:50.262439 31710 net.cpp:124] Setting up relu1
I0428 20:09:50.262449 31710 net.cpp:131] Top shape: 100 25 (2500)
I0428 20:09:50.262454 31710 net.cpp:139] Memory required for data: 8334800
I0428 20:09:50.262457 31710 layer_factory.hpp:77] Creating layer ip2
I0428 20:09:50.262465 31710 net.cpp:86] Creating Layer ip2
I0428 20:09:50.262470 31710 net.cpp:408] ip2 <- ip1
I0428 20:09:50.262476 31710 net.cpp:382] ip2 -> ip2
I0428 20:09:50.262588 31710 net.cpp:124] Setting up ip2
I0428 20:09:50.262595 31710 net.cpp:131] Top shape: 100 50 (5000)
I0428 20:09:50.262598 31710 net.cpp:139] Memory required for data: 8354800
I0428 20:09:50.262604 31710 layer_factory.hpp:77] Creating layer relu2
I0428 20:09:50.262609 31710 net.cpp:86] Creating Layer relu2
I0428 20:09:50.262614 31710 net.cpp:408] relu2 <- ip2
I0428 20:09:50.262617 31710 net.cpp:369] relu2 -> ip2 (in-place)
I0428 20:09:50.262804 31710 net.cpp:124] Setting up relu2
I0428 20:09:50.262811 31710 net.cpp:131] Top shape: 100 50 (5000)
I0428 20:09:50.262814 31710 net.cpp:139] Memory required for data: 8374800
I0428 20:09:50.262818 31710 layer_factory.hpp:77] Creating layer ip3
I0428 20:09:50.262840 31710 net.cpp:86] Creating Layer ip3
I0428 20:09:50.262852 31710 net.cpp:408] ip3 <- ip2
I0428 20:09:50.262858 31710 net.cpp:382] ip3 -> ip3
I0428 20:09:50.262974 31710 net.cpp:124] Setting up ip3
I0428 20:09:50.262981 31710 net.cpp:131] Top shape: 100 10 (1000)
I0428 20:09:50.262984 31710 net.cpp:139] Memory required for data: 8378800
I0428 20:09:50.262992 31710 layer_factory.hpp:77] Creating layer relu3
I0428 20:09:50.263000 31710 net.cpp:86] Creating Layer relu3
I0428 20:09:50.263003 31710 net.cpp:408] relu3 <- ip3
I0428 20:09:50.263007 31710 net.cpp:369] relu3 -> ip3 (in-place)
I0428 20:09:50.263895 31710 net.cpp:124] Setting up relu3
I0428 20:09:50.263909 31710 net.cpp:131] Top shape: 100 10 (1000)
I0428 20:09:50.263919 31710 net.cpp:139] Memory required for data: 8382800
I0428 20:09:50.263924 31710 layer_factory.hpp:77] Creating layer ip3_relu3_0_split
I0428 20:09:50.263931 31710 net.cpp:86] Creating Layer ip3_relu3_0_split
I0428 20:09:50.263934 31710 net.cpp:408] ip3_relu3_0_split <- ip3
I0428 20:09:50.263939 31710 net.cpp:382] ip3_relu3_0_split -> ip3_relu3_0_split_0
I0428 20:09:50.263945 31710 net.cpp:382] ip3_relu3_0_split -> ip3_relu3_0_split_1
I0428 20:09:50.263983 31710 net.cpp:124] Setting up ip3_relu3_0_split
I0428 20:09:50.263989 31710 net.cpp:131] Top shape: 100 10 (1000)
I0428 20:09:50.263993 31710 net.cpp:131] Top shape: 100 10 (1000)
I0428 20:09:50.263996 31710 net.cpp:139] Memory required for data: 8390800
I0428 20:09:50.263999 31710 layer_factory.hpp:77] Creating layer accuracy
I0428 20:09:50.264004 31710 net.cpp:86] Creating Layer accuracy
I0428 20:09:50.264008 31710 net.cpp:408] accuracy <- ip3_relu3_0_split_0
I0428 20:09:50.264012 31710 net.cpp:408] accuracy <- label_mnist_1_split_0
I0428 20:09:50.264017 31710 net.cpp:382] accuracy -> accuracy
…
