…
I0428 20:12:08.813704 32201 net.cpp:296] The NetState phase (0) differed from the phase (1) specified by a rule in layer mnist
I0428 20:12:08.813719 32201 net.cpp:296] The NetState phase (0) differed from the phase (1) specified by a rule in layer accuracy
I0428 20:12:08.813792 32201 net.cpp:53] Initializing net from parameters: 
name: "LeNet"
state {
  phase: TRAIN
  level: 0
  stage: ""
}
layer {
  name: "mnist"
  type: "Data"
  top: "data"
  top: "label"
  include {
    phase: TRAIN
  }
  transform_param {
    scale: 0.00390625
  }
  data_param {
    source: "examples/mnist/mnist_train_lmdb"
    batch_size: 64
    backend: LMDB
  }
}
layer {
  name: "conv0"
  type: "Convolution"
  bottom: "data"
  top: "conv0"
  param {
    lr_mult: 1
  }
  param {
    lr_mult: 2
  }
  convolution_param {
    num_output: 25
    kernel_size: 5
    stride: 1
    weight_filler {
      type: "xavier"
    }
    bias_filler {
      type: "constant"
    }
  }
}
layer {
  name: "pool0"
  type: "Pooling"
  bottom: "conv0"
  top: "pool0"
  pooling_param {
    pool: MAX
    kernel_size: 2
    stride: 2
  }
}
layer {
  name: "conv1"
  type: "Convolution"
  bottom: "pool0"
  top: "conv1"
  param {
    lr_mult: 1
  }
  param {
    lr_mult: 2
  }
  convolution_param {
    num_output: 100
    kernel_size: 5
    stride: 1
    weight_filler {
      type: "xavier"
    }
    bias_filler {
      type: "constant"
    }
  }
}
layer {
  name: "pool1"
  type: "Pooling"
  bottom: "conv1"
  top: "pool1"
  pooling_param {
    pool: MAX
    kernel_size: 2
    stride: 2
  }
}
layer {
  name: "ip1"
  type: "InnerProduct"
  bottom: "pool1"
  top: "ip1"
  param {
    lr_mult: 1
  }
  param {
    lr_mult: 2
  }
  inner_product_param {
    num_output: 10
    weight_filler {
      type: "xavier"
    }
    bias_filler {
      type: "constant"
    }
  }
}
layer {
  name: "relu1"
  type: "ReLU"
  bottom: "ip1"
  top: "ip1"
}
layer {
  name: "ip2"
  type: "InnerProduct"
  bottom: "ip1"
  top: "ip2"
  param {
    lr_mult: 1
  }
  param {
    lr_mult: 2
  }
  inner_product_param {
    num_output: 10
    weight_filler {
      type: "xavier"
    }
    bias_filler {
      type: "constant"
    }
  }
}
layer {
  name: "relu2"
  type: "ReLU"
  bottom: "ip2"
  top: "ip2"
}
layer {
  name: "loss"
  type: "SoftmaxWithLoss"
  bottom: "ip2"
  bottom: "label"
  top: "loss"
}
I0428 20:12:08.813869 32201 layer_factory.hpp:77] Creating layer mnist
I0428 20:12:08.813951 32201 db_lmdb.cpp:35] Opened lmdb examples/mnist/mnist_train_lmdb
I0428 20:12:08.813971 32201 net.cpp:86] Creating Layer mnist
I0428 20:12:08.813979 32201 net.cpp:382] mnist -> data
I0428 20:12:08.813998 32201 net.cpp:382] mnist -> label
I0428 20:12:08.814924 32201 data_layer.cpp:45] output data size: 64,1,28,28
I0428 20:12:08.817081 32201 net.cpp:124] Setting up mnist
I0428 20:12:08.817111 32201 net.cpp:131] Top shape: 64 1 28 28 (50176)
I0428 20:12:08.817116 32201 net.cpp:131] Top shape: 64 (64)
I0428 20:12:08.817119 32201 net.cpp:139] Memory required for data: 200960
I0428 20:12:08.817126 32201 layer_factory.hpp:77] Creating layer conv0
I0428 20:12:08.817140 32201 net.cpp:86] Creating Layer conv0
I0428 20:12:08.817150 32201 net.cpp:408] conv0 <- data
I0428 20:12:08.817190 32201 net.cpp:382] conv0 -> conv0
I0428 20:12:09.051056 32201 net.cpp:124] Setting up conv0
I0428 20:12:09.051098 32201 net.cpp:131] Top shape: 64 25 24 24 (921600)
I0428 20:12:09.051117 32201 net.cpp:139] Memory required for data: 3887360
I0428 20:12:09.051151 32201 layer_factory.hpp:77] Creating layer pool0
I0428 20:12:09.051179 32201 net.cpp:86] Creating Layer pool0
I0428 20:12:09.051183 32201 net.cpp:408] pool0 <- conv0
I0428 20:12:09.051188 32201 net.cpp:382] pool0 -> pool0
I0428 20:12:09.051232 32201 net.cpp:124] Setting up pool0
I0428 20:12:09.051245 32201 net.cpp:131] Top shape: 64 25 12 12 (230400)
I0428 20:12:09.051249 32201 net.cpp:139] Memory required for data: 4808960
I0428 20:12:09.051251 32201 layer_factory.hpp:77] Creating layer conv1
I0428 20:12:09.051261 32201 net.cpp:86] Creating Layer conv1
I0428 20:12:09.051265 32201 net.cpp:408] conv1 <- pool0
I0428 20:12:09.051270 32201 net.cpp:382] conv1 -> conv1
I0428 20:12:09.053644 32201 net.cpp:124] Setting up conv1
I0428 20:12:09.053674 32201 net.cpp:131] Top shape: 64 100 8 8 (409600)
I0428 20:12:09.053678 32201 net.cpp:139] Memory required for data: 6447360
I0428 20:12:09.053686 32201 layer_factory.hpp:77] Creating layer pool1
I0428 20:12:09.053692 32201 net.cpp:86] Creating Layer pool1
I0428 20:12:09.053696 32201 net.cpp:408] pool1 <- conv1
I0428 20:12:09.053701 32201 net.cpp:382] pool1 -> pool1
I0428 20:12:09.053766 32201 net.cpp:124] Setting up pool1
I0428 20:12:09.053771 32201 net.cpp:131] Top shape: 64 100 4 4 (102400)
I0428 20:12:09.053773 32201 net.cpp:139] Memory required for data: 6856960
I0428 20:12:09.053776 32201 layer_factory.hpp:77] Creating layer ip1
I0428 20:12:09.053783 32201 net.cpp:86] Creating Layer ip1
I0428 20:12:09.053786 32201 net.cpp:408] ip1 <- pool1
I0428 20:12:09.053791 32201 net.cpp:382] ip1 -> ip1
I0428 20:12:09.054920 32201 net.cpp:124] Setting up ip1
I0428 20:12:09.054934 32201 net.cpp:131] Top shape: 64 10 (640)
I0428 20:12:09.054937 32201 net.cpp:139] Memory required for data: 6859520
I0428 20:12:09.054945 32201 layer_factory.hpp:77] Creating layer relu1
I0428 20:12:09.054951 32201 net.cpp:86] Creating Layer relu1
I0428 20:12:09.054955 32201 net.cpp:408] relu1 <- ip1
I0428 20:12:09.054960 32201 net.cpp:369] relu1 -> ip1 (in-place)
I0428 20:12:09.055152 32201 net.cpp:124] Setting up relu1
I0428 20:12:09.055161 32201 net.cpp:131] Top shape: 64 10 (640)
I0428 20:12:09.055164 32201 net.cpp:139] Memory required for data: 6862080
I0428 20:12:09.055167 32201 layer_factory.hpp:77] Creating layer ip2
I0428 20:12:09.055173 32201 net.cpp:86] Creating Layer ip2
I0428 20:12:09.055177 32201 net.cpp:408] ip2 <- ip1
I0428 20:12:09.055181 32201 net.cpp:382] ip2 -> ip2
I0428 20:12:09.055266 32201 net.cpp:124] Setting up ip2
I0428 20:12:09.055272 32201 net.cpp:131] Top shape: 64 10 (640)
I0428 20:12:09.055275 32201 net.cpp:139] Memory required for data: 6864640
I0428 20:12:09.055281 32201 layer_factory.hpp:77] Creating layer relu2
I0428 20:12:09.055286 32201 net.cpp:86] Creating Layer relu2
I0428 20:12:09.055289 32201 net.cpp:408] relu2 <- ip2
I0428 20:12:09.055294 32201 net.cpp:369] relu2 -> ip2 (in-place)
I0428 20:12:09.056135 32201 net.cpp:124] Setting up relu2
I0428 20:12:09.056147 32201 net.cpp:131] Top shape: 64 10 (640)
I0428 20:12:09.056166 32201 net.cpp:139] Memory required for data: 6867200
I0428 20:12:09.056169 32201 layer_factory.hpp:77] Creating layer loss
I0428 20:12:09.056175 32201 net.cpp:86] Creating Layer loss
I0428 20:12:09.056179 32201 net.cpp:408] loss <- ip2
I0428 20:12:09.056183 32201 net.cpp:408] loss <- label
I0428 20:12:09.056188 32201 net.cpp:382] loss -> loss
I0428 20:12:09.056206 32201 layer_factory.hpp:77] Creating layer loss
…
I0428 20:12:09.056859 32201 solver.cpp:173] Creating test net (#0) specified by net file: ECE595/mnist/train_test/var_everything2/lenet_train_test1174.prototxt
I0428 20:12:09.056902 32201 net.cpp:296] The NetState phase (1) differed from the phase (0) specified by a rule in layer mnist
I0428 20:12:09.056990 32201 net.cpp:53] Initializing net from parameters: 
name: "LeNet"
state {
  phase: TEST
}
layer {
  name: "mnist"
  type: "Data"
  top: "data"
  top: "label"
  include {
    phase: TEST
  }
  transform_param {
    scale: 0.00390625
  }
  data_param {
    source: "examples/mnist/mnist_test_lmdb"
    batch_size: 100
    backend: LMDB
  }
}
layer {
  name: "conv0"
  type: "Convolution"
  bottom: "data"
  top: "conv0"
  param {
    lr_mult: 1
  }
  param {
    lr_mult: 2
  }
  convolution_param {
    num_output: 25
    kernel_size: 5
    stride: 1
    weight_filler {
      type: "xavier"
    }
    bias_filler {
      type: "constant"
    }
  }
}
layer {
  name: "pool0"
  type: "Pooling"
  bottom: "conv0"
  top: "pool0"
  pooling_param {
    pool: MAX
    kernel_size: 2
    stride: 2
  }
}
layer {
  name: "conv1"
  type: "Convolution"
  bottom: "pool0"
  top: "conv1"
  param {
    lr_mult: 1
  }
  param {
    lr_mult: 2
  }
  convolution_param {
    num_output: 100
    kernel_size: 5
    stride: 1
    weight_filler {
      type: "xavier"
    }
    bias_filler {
      type: "constant"
    }
  }
}
layer {
  name: "pool1"
  type: "Pooling"
  bottom: "conv1"
  top: "pool1"
  pooling_param {
    pool: MAX
    kernel_size: 2
    stride: 2
  }
}
layer {
  name: "ip1"
  type: "InnerProduct"
  bottom: "pool1"
  top: "ip1"
  param {
    lr_mult: 1
  }
  param {
    lr_mult: 2
  }
  inner_product_param {
    num_output: 10
    weight_filler {
      type: "xavier"
    }
    bias_filler {
      type: "constant"
    }
  }
}
layer {
  name: "relu1"
  type: "ReLU"
  bottom: "ip1"
  top: "ip1"
}
layer {
  name: "ip2"
  type: "InnerProduct"
  bottom: "ip1"
  top: "ip2"
  param {
    lr_mult: 1
  }
  param {
    lr_mult: 2
  }
  inner_product_param {
    num_output: 10
    weight_filler {
      type: "xavier"
    }
    bias_filler {
      type: "constant"
    }
  }
}
layer {
  name: "relu2"
  type: "ReLU"
  bottom: "ip2"
  top: "ip2"
}
layer {
  name: "accuracy"
  type: "Accuracy"
  bottom: "ip2"
  bottom: "label"
  top: "accuracy"
  include {
    phase: TEST
  }
}
layer {
  name: "loss"
  type: "SoftmaxWithLoss"
  bottom: "ip2"
  bottom: "label"
  top: "loss"
}
I0428 20:12:09.057059 32201 layer_factory.hpp:77] Creating layer mnist
I0428 20:12:09.057106 32201 db_lmdb.cpp:35] Opened lmdb examples/mnist/mnist_test_lmdb
I0428 20:12:09.057119 32201 net.cpp:86] Creating Layer mnist
I0428 20:12:09.057126 32201 net.cpp:382] mnist -> data
I0428 20:12:09.057137 32201 net.cpp:382] mnist -> label
I0428 20:12:09.057246 32201 data_layer.cpp:45] output data size: 100,1,28,28
I0428 20:12:09.059159 32201 net.cpp:124] Setting up mnist
I0428 20:12:09.059203 32201 net.cpp:131] Top shape: 100 1 28 28 (78400)
I0428 20:12:09.059208 32201 net.cpp:131] Top shape: 100 (100)
I0428 20:12:09.059211 32201 net.cpp:139] Memory required for data: 314000
I0428 20:12:09.059216 32201 layer_factory.hpp:77] Creating layer label_mnist_1_split
I0428 20:12:09.059226 32201 net.cpp:86] Creating Layer label_mnist_1_split
I0428 20:12:09.059244 32201 net.cpp:408] label_mnist_1_split <- label
I0428 20:12:09.059250 32201 net.cpp:382] label_mnist_1_split -> label_mnist_1_split_0
I0428 20:12:09.059257 32201 net.cpp:382] label_mnist_1_split -> label_mnist_1_split_1
I0428 20:12:09.059325 32201 net.cpp:124] Setting up label_mnist_1_split
I0428 20:12:09.059334 32201 net.cpp:131] Top shape: 100 (100)
I0428 20:12:09.059339 32201 net.cpp:131] Top shape: 100 (100)
I0428 20:12:09.059341 32201 net.cpp:139] Memory required for data: 314800
I0428 20:12:09.059345 32201 layer_factory.hpp:77] Creating layer conv0
I0428 20:12:09.059355 32201 net.cpp:86] Creating Layer conv0
I0428 20:12:09.059360 32201 net.cpp:408] conv0 <- data
I0428 20:12:09.059365 32201 net.cpp:382] conv0 -> conv0
I0428 20:12:09.060906 32201 net.cpp:124] Setting up conv0
I0428 20:12:09.060936 32201 net.cpp:131] Top shape: 100 25 24 24 (1440000)
I0428 20:12:09.060940 32201 net.cpp:139] Memory required for data: 6074800
I0428 20:12:09.060964 32201 layer_factory.hpp:77] Creating layer pool0
I0428 20:12:09.060989 32201 net.cpp:86] Creating Layer pool0
I0428 20:12:09.060994 32201 net.cpp:408] pool0 <- conv0
I0428 20:12:09.060999 32201 net.cpp:382] pool0 -> pool0
I0428 20:12:09.061051 32201 net.cpp:124] Setting up pool0
I0428 20:12:09.061059 32201 net.cpp:131] Top shape: 100 25 12 12 (360000)
I0428 20:12:09.061063 32201 net.cpp:139] Memory required for data: 7514800
I0428 20:12:09.061065 32201 layer_factory.hpp:77] Creating layer conv1
I0428 20:12:09.061074 32201 net.cpp:86] Creating Layer conv1
I0428 20:12:09.061079 32201 net.cpp:408] conv1 <- pool0
I0428 20:12:09.061084 32201 net.cpp:382] conv1 -> conv1
I0428 20:12:09.062902 32201 net.cpp:124] Setting up conv1
I0428 20:12:09.062932 32201 net.cpp:131] Top shape: 100 100 8 8 (640000)
I0428 20:12:09.062937 32201 net.cpp:139] Memory required for data: 10074800
I0428 20:12:09.062960 32201 layer_factory.hpp:77] Creating layer pool1
I0428 20:12:09.062968 32201 net.cpp:86] Creating Layer pool1
I0428 20:12:09.062971 32201 net.cpp:408] pool1 <- conv1
I0428 20:12:09.062978 32201 net.cpp:382] pool1 -> pool1
I0428 20:12:09.063015 32201 net.cpp:124] Setting up pool1
I0428 20:12:09.063022 32201 net.cpp:131] Top shape: 100 100 4 4 (160000)
I0428 20:12:09.063026 32201 net.cpp:139] Memory required for data: 10714800
I0428 20:12:09.063030 32201 layer_factory.hpp:77] Creating layer ip1
I0428 20:12:09.063036 32201 net.cpp:86] Creating Layer ip1
I0428 20:12:09.063040 32201 net.cpp:408] ip1 <- pool1
I0428 20:12:09.063045 32201 net.cpp:382] ip1 -> ip1
I0428 20:12:09.063251 32201 net.cpp:124] Setting up ip1
I0428 20:12:09.063258 32201 net.cpp:131] Top shape: 100 10 (1000)
I0428 20:12:09.063277 32201 net.cpp:139] Memory required for data: 10718800
I0428 20:12:09.063283 32201 layer_factory.hpp:77] Creating layer relu1
I0428 20:12:09.063292 32201 net.cpp:86] Creating Layer relu1
I0428 20:12:09.063310 32201 net.cpp:408] relu1 <- ip1
I0428 20:12:09.063315 32201 net.cpp:369] relu1 -> ip1 (in-place)
I0428 20:12:09.063594 32201 net.cpp:124] Setting up relu1
I0428 20:12:09.063617 32201 net.cpp:131] Top shape: 100 10 (1000)
I0428 20:12:09.063621 32201 net.cpp:139] Memory required for data: 10722800
I0428 20:12:09.063623 32201 layer_factory.hpp:77] Creating layer ip2
I0428 20:12:09.063630 32201 net.cpp:86] Creating Layer ip2
I0428 20:12:09.063633 32201 net.cpp:408] ip2 <- ip1
I0428 20:12:09.063638 32201 net.cpp:382] ip2 -> ip2
I0428 20:12:09.063724 32201 net.cpp:124] Setting up ip2
I0428 20:12:09.063731 32201 net.cpp:131] Top shape: 100 10 (1000)
I0428 20:12:09.063735 32201 net.cpp:139] Memory required for data: 10726800
I0428 20:12:09.063740 32201 layer_factory.hpp:77] Creating layer relu2
I0428 20:12:09.063760 32201 net.cpp:86] Creating Layer relu2
I0428 20:12:09.063762 32201 net.cpp:408] relu2 <- ip2
I0428 20:12:09.063766 32201 net.cpp:369] relu2 -> ip2 (in-place)
I0428 20:12:09.063917 32201 net.cpp:124] Setting up relu2
I0428 20:12:09.063925 32201 net.cpp:131] Top shape: 100 10 (1000)
I0428 20:12:09.063928 32201 net.cpp:139] Memory required for data: 10730800
I0428 20:12:09.063931 32201 layer_factory.hpp:77] Creating layer ip2_relu2_0_split
I0428 20:12:09.063936 32201 net.cpp:86] Creating Layer ip2_relu2_0_split
I0428 20:12:09.063940 32201 net.cpp:408] ip2_relu2_0_split <- ip2
I0428 20:12:09.063943 32201 net.cpp:382] ip2_relu2_0_split -> ip2_relu2_0_split_0
I0428 20:12:09.063959 32201 net.cpp:382] ip2_relu2_0_split -> ip2_relu2_0_split_1
I0428 20:12:09.064009 32201 net.cpp:124] Setting up ip2_relu2_0_split
I0428 20:12:09.064018 32201 net.cpp:131] Top shape: 100 10 (1000)
I0428 20:12:09.064023 32201 net.cpp:131] Top shape: 100 10 (1000)
I0428 20:12:09.064024 32201 net.cpp:139] Memory required for data: 10738800
I0428 20:12:09.064028 32201 layer_factory.hpp:77] Creating layer accuracy
I0428 20:12:09.064047 32201 net.cpp:86] Creating Layer accuracy
I0428 20:12:09.064051 32201 net.cpp:408] accuracy <- ip2_relu2_0_split_0
I0428 20:12:09.064055 32201 net.cpp:408] accuracy <- label_mnist_1_split_0
I0428 20:12:09.064061 32201 net.cpp:382] accuracy -> accuracy
…
