…
I0428 19:39:57.929340 24431 net.cpp:296] The NetState phase (0) differed from the phase (1) specified by a rule in layer mnist
I0428 19:39:57.929364 24431 net.cpp:296] The NetState phase (0) differed from the phase (1) specified by a rule in layer accuracy
I0428 19:39:57.929468 24431 net.cpp:53] Initializing net from parameters: 
name: "LeNet"
state {
  phase: TRAIN
  level: 0
  stage: ""
}
layer {
  name: "mnist"
  type: "Data"
  top: "data"
  top: "label"
  include {
    phase: TRAIN
  }
  transform_param {
    scale: 0.00390625
  }
  data_param {
    source: "examples/mnist/mnist_train_lmdb"
    batch_size: 64
    backend: LMDB
  }
}
layer {
  name: "conv0"
  type: "Convolution"
  bottom: "data"
  top: "conv0"
  param {
    lr_mult: 1
  }
  param {
    lr_mult: 2
  }
  convolution_param {
    num_output: 2
    kernel_size: 5
    stride: 1
    weight_filler {
      type: "xavier"
    }
    bias_filler {
      type: "constant"
    }
  }
}
layer {
  name: "pool0"
  type: "Pooling"
  bottom: "conv0"
  top: "pool0"
  pooling_param {
    pool: MAX
    kernel_size: 2
    stride: 2
  }
}
layer {
  name: "conv1"
  type: "Convolution"
  bottom: "pool0"
  top: "conv1"
  param {
    lr_mult: 1
  }
  param {
    lr_mult: 2
  }
  convolution_param {
    num_output: 5
    kernel_size: 5
    stride: 1
    weight_filler {
      type: "xavier"
    }
    bias_filler {
      type: "constant"
    }
  }
}
layer {
  name: "pool1"
  type: "Pooling"
  bottom: "conv1"
  top: "pool1"
  pooling_param {
    pool: MAX
    kernel_size: 2
    stride: 2
  }
}
layer {
  name: "ip1"
  type: "InnerProduct"
  bottom: "pool1"
  top: "ip1"
  param {
    lr_mult: 1
  }
  param {
    lr_mult: 2
  }
  inner_product_param {
    num_output: 25
    weight_filler {
      type: "xavier"
    }
    bias_filler {
      type: "constant"
    }
  }
}
layer {
  name: "relu1"
  type: "ReLU"
  bottom: "ip1"
  top: "ip1"
}
layer {
  name: "ip2"
  type: "InnerProduct"
  bottom: "ip1"
  top: "ip2"
  param {
    lr_mult: 1
  }
  param {
    lr_mult: 2
  }
  inner_product_param {
    num_output: 10
    weight_filler {
      type: "xavier"
    }
    bias_filler {
      type: "constant"
    }
  }
}
layer {
  name: "relu2"
  type: "ReLU"
  bottom: "ip2"
  top: "ip2"
}
layer {
  name: "loss"
  type: "SoftmaxWithLoss"
  bottom: "ip2"
  bottom: "label"
  top: "loss"
}
I0428 19:39:57.929579 24431 layer_factory.hpp:77] Creating layer mnist
I0428 19:39:57.929713 24431 db_lmdb.cpp:35] Opened lmdb examples/mnist/mnist_train_lmdb
I0428 19:39:57.929745 24431 net.cpp:86] Creating Layer mnist
I0428 19:39:57.929759 24431 net.cpp:382] mnist -> data
I0428 19:39:57.929790 24431 net.cpp:382] mnist -> label
I0428 19:39:57.931023 24431 data_layer.cpp:45] output data size: 64,1,28,28
I0428 19:39:57.933504 24431 net.cpp:124] Setting up mnist
I0428 19:39:57.933526 24431 net.cpp:131] Top shape: 64 1 28 28 (50176)
I0428 19:39:57.933535 24431 net.cpp:131] Top shape: 64 (64)
I0428 19:39:57.933542 24431 net.cpp:139] Memory required for data: 200960
I0428 19:39:57.933552 24431 layer_factory.hpp:77] Creating layer conv0
I0428 19:39:57.933578 24431 net.cpp:86] Creating Layer conv0
I0428 19:39:57.933588 24431 net.cpp:408] conv0 <- data
I0428 19:39:57.933609 24431 net.cpp:382] conv0 -> conv0
I0428 19:39:58.223744 24431 net.cpp:124] Setting up conv0
I0428 19:39:58.223779 24431 net.cpp:131] Top shape: 64 2 24 24 (73728)
I0428 19:39:58.223788 24431 net.cpp:139] Memory required for data: 495872
I0428 19:39:58.223850 24431 layer_factory.hpp:77] Creating layer pool0
I0428 19:39:58.223870 24431 net.cpp:86] Creating Layer pool0
I0428 19:39:58.223881 24431 net.cpp:408] pool0 <- conv0
I0428 19:39:58.223892 24431 net.cpp:382] pool0 -> pool0
I0428 19:39:58.223960 24431 net.cpp:124] Setting up pool0
I0428 19:39:58.223973 24431 net.cpp:131] Top shape: 64 2 12 12 (18432)
I0428 19:39:58.223978 24431 net.cpp:139] Memory required for data: 569600
I0428 19:39:58.223984 24431 layer_factory.hpp:77] Creating layer conv1
I0428 19:39:58.224002 24431 net.cpp:86] Creating Layer conv1
I0428 19:39:58.224010 24431 net.cpp:408] conv1 <- pool0
I0428 19:39:58.224021 24431 net.cpp:382] conv1 -> conv1
I0428 19:39:58.226215 24431 net.cpp:124] Setting up conv1
I0428 19:39:58.226236 24431 net.cpp:131] Top shape: 64 5 8 8 (20480)
I0428 19:39:58.226243 24431 net.cpp:139] Memory required for data: 651520
I0428 19:39:58.226263 24431 layer_factory.hpp:77] Creating layer pool1
I0428 19:39:58.226277 24431 net.cpp:86] Creating Layer pool1
I0428 19:39:58.226292 24431 net.cpp:408] pool1 <- conv1
I0428 19:39:58.226305 24431 net.cpp:382] pool1 -> pool1
I0428 19:39:58.226366 24431 net.cpp:124] Setting up pool1
I0428 19:39:58.226375 24431 net.cpp:131] Top shape: 64 5 4 4 (5120)
I0428 19:39:58.226382 24431 net.cpp:139] Memory required for data: 672000
I0428 19:39:58.226387 24431 layer_factory.hpp:77] Creating layer ip1
I0428 19:39:58.226402 24431 net.cpp:86] Creating Layer ip1
I0428 19:39:58.226408 24431 net.cpp:408] ip1 <- pool1
I0428 19:39:58.226419 24431 net.cpp:382] ip1 -> ip1
I0428 19:39:58.227541 24431 net.cpp:124] Setting up ip1
I0428 19:39:58.227558 24431 net.cpp:131] Top shape: 64 25 (1600)
I0428 19:39:58.227565 24431 net.cpp:139] Memory required for data: 678400
I0428 19:39:58.227581 24431 layer_factory.hpp:77] Creating layer relu1
I0428 19:39:58.227593 24431 net.cpp:86] Creating Layer relu1
I0428 19:39:58.227601 24431 net.cpp:408] relu1 <- ip1
I0428 19:39:58.227612 24431 net.cpp:369] relu1 -> ip1 (in-place)
I0428 19:39:58.227834 24431 net.cpp:124] Setting up relu1
I0428 19:39:58.227847 24431 net.cpp:131] Top shape: 64 25 (1600)
I0428 19:39:58.227854 24431 net.cpp:139] Memory required for data: 684800
I0428 19:39:58.227860 24431 layer_factory.hpp:77] Creating layer ip2
I0428 19:39:58.227874 24431 net.cpp:86] Creating Layer ip2
I0428 19:39:58.227881 24431 net.cpp:408] ip2 <- ip1
I0428 19:39:58.227891 24431 net.cpp:382] ip2 -> ip2
I0428 19:39:58.228022 24431 net.cpp:124] Setting up ip2
I0428 19:39:58.228034 24431 net.cpp:131] Top shape: 64 10 (640)
I0428 19:39:58.228040 24431 net.cpp:139] Memory required for data: 687360
I0428 19:39:58.228051 24431 layer_factory.hpp:77] Creating layer relu2
I0428 19:39:58.228065 24431 net.cpp:86] Creating Layer relu2
I0428 19:39:58.228073 24431 net.cpp:408] relu2 <- ip2
I0428 19:39:58.228082 24431 net.cpp:369] relu2 -> ip2 (in-place)
I0428 19:39:58.228966 24431 net.cpp:124] Setting up relu2
I0428 19:39:58.228987 24431 net.cpp:131] Top shape: 64 10 (640)
I0428 19:39:58.228994 24431 net.cpp:139] Memory required for data: 689920
I0428 19:39:58.229001 24431 layer_factory.hpp:77] Creating layer loss
I0428 19:39:58.229018 24431 net.cpp:86] Creating Layer loss
I0428 19:39:58.229024 24431 net.cpp:408] loss <- ip2
I0428 19:39:58.229033 24431 net.cpp:408] loss <- label
I0428 19:39:58.229043 24431 net.cpp:382] loss -> loss
I0428 19:39:58.229068 24431 layer_factory.hpp:77] Creating layer loss
…
I0428 19:39:58.229885 24431 solver.cpp:173] Creating test net (#0) specified by net file: ECE595/mnist/train_test/var_everything2/lenet_train_test320.prototxt
I0428 19:39:58.229924 24431 net.cpp:296] The NetState phase (1) differed from the phase (0) specified by a rule in layer mnist
I0428 19:39:58.230037 24431 net.cpp:53] Initializing net from parameters: 
name: "LeNet"
state {
  phase: TEST
}
layer {
  name: "mnist"
  type: "Data"
  top: "data"
  top: "label"
  include {
    phase: TEST
  }
  transform_param {
    scale: 0.00390625
  }
  data_param {
    source: "examples/mnist/mnist_test_lmdb"
    batch_size: 100
    backend: LMDB
  }
}
layer {
  name: "conv0"
  type: "Convolution"
  bottom: "data"
  top: "conv0"
  param {
    lr_mult: 1
  }
  param {
    lr_mult: 2
  }
  convolution_param {
    num_output: 2
    kernel_size: 5
    stride: 1
    weight_filler {
      type: "xavier"
    }
    bias_filler {
      type: "constant"
    }
  }
}
layer {
  name: "pool0"
  type: "Pooling"
  bottom: "conv0"
  top: "pool0"
  pooling_param {
    pool: MAX
    kernel_size: 2
    stride: 2
  }
}
layer {
  name: "conv1"
  type: "Convolution"
  bottom: "pool0"
  top: "conv1"
  param {
    lr_mult: 1
  }
  param {
    lr_mult: 2
  }
  convolution_param {
    num_output: 5
    kernel_size: 5
    stride: 1
    weight_filler {
      type: "xavier"
    }
    bias_filler {
      type: "constant"
    }
  }
}
layer {
  name: "pool1"
  type: "Pooling"
  bottom: "conv1"
  top: "pool1"
  pooling_param {
    pool: MAX
    kernel_size: 2
    stride: 2
  }
}
layer {
  name: "ip1"
  type: "InnerProduct"
  bottom: "pool1"
  top: "ip1"
  param {
    lr_mult: 1
  }
  param {
    lr_mult: 2
  }
  inner_product_param {
    num_output: 25
    weight_filler {
      type: "xavier"
    }
    bias_filler {
      type: "constant"
    }
  }
}
layer {
  name: "relu1"
  type: "ReLU"
  bottom: "ip1"
  top: "ip1"
}
layer {
  name: "ip2"
  type: "InnerProduct"
  bottom: "ip1"
  top: "ip2"
  param {
    lr_mult: 1
  }
  param {
    lr_mult: 2
  }
  inner_product_param {
    num_output: 10
    weight_filler {
      type: "xavier"
    }
    bias_filler {
      type: "constant"
    }
  }
}
layer {
  name: "relu2"
  type: "ReLU"
  bottom: "ip2"
  top: "ip2"
}
layer {
  name: "accuracy"
  type: "Accuracy"
  bottom: "ip2"
  bottom: "label"
  top: "accuracy"
  include {
    phase: TEST
  }
}
layer {
  name: "loss"
  type: "SoftmaxWithLoss"
  bottom: "ip2"
  bottom: "label"
  top: "loss"
}
I0428 19:39:58.230160 24431 layer_factory.hpp:77] Creating layer mnist
I0428 19:39:58.230231 24431 db_lmdb.cpp:35] Opened lmdb examples/mnist/mnist_test_lmdb
I0428 19:39:58.230252 24431 net.cpp:86] Creating Layer mnist
I0428 19:39:58.230263 24431 net.cpp:382] mnist -> data
I0428 19:39:58.230278 24431 net.cpp:382] mnist -> label
I0428 19:39:58.230430 24431 data_layer.cpp:45] output data size: 100,1,28,28
I0428 19:39:58.232775 24431 net.cpp:124] Setting up mnist
I0428 19:39:58.232794 24431 net.cpp:131] Top shape: 100 1 28 28 (78400)
I0428 19:39:58.232803 24431 net.cpp:131] Top shape: 100 (100)
I0428 19:39:58.232817 24431 net.cpp:139] Memory required for data: 314000
I0428 19:39:58.232875 24431 layer_factory.hpp:77] Creating layer label_mnist_1_split
I0428 19:39:58.232897 24431 net.cpp:86] Creating Layer label_mnist_1_split
I0428 19:39:58.232906 24431 net.cpp:408] label_mnist_1_split <- label
I0428 19:39:58.232923 24431 net.cpp:382] label_mnist_1_split -> label_mnist_1_split_0
I0428 19:39:58.232941 24431 net.cpp:382] label_mnist_1_split -> label_mnist_1_split_1
I0428 19:39:58.233119 24431 net.cpp:124] Setting up label_mnist_1_split
I0428 19:39:58.233161 24431 net.cpp:131] Top shape: 100 (100)
I0428 19:39:58.233172 24431 net.cpp:131] Top shape: 100 (100)
I0428 19:39:58.233180 24431 net.cpp:139] Memory required for data: 314800
I0428 19:39:58.233187 24431 layer_factory.hpp:77] Creating layer conv0
I0428 19:39:58.233209 24431 net.cpp:86] Creating Layer conv0
I0428 19:39:58.233218 24431 net.cpp:408] conv0 <- data
I0428 19:39:58.233235 24431 net.cpp:382] conv0 -> conv0
I0428 19:39:58.236273 24431 net.cpp:124] Setting up conv0
I0428 19:39:58.236301 24431 net.cpp:131] Top shape: 100 2 24 24 (115200)
I0428 19:39:58.236310 24431 net.cpp:139] Memory required for data: 775600
I0428 19:39:58.236330 24431 layer_factory.hpp:77] Creating layer pool0
I0428 19:39:58.236348 24431 net.cpp:86] Creating Layer pool0
I0428 19:39:58.236357 24431 net.cpp:408] pool0 <- conv0
I0428 19:39:58.236367 24431 net.cpp:382] pool0 -> pool0
I0428 19:39:58.236446 24431 net.cpp:124] Setting up pool0
I0428 19:39:58.236465 24431 net.cpp:131] Top shape: 100 2 12 12 (28800)
I0428 19:39:58.236474 24431 net.cpp:139] Memory required for data: 890800
I0428 19:39:58.236481 24431 layer_factory.hpp:77] Creating layer conv1
I0428 19:39:58.236505 24431 net.cpp:86] Creating Layer conv1
I0428 19:39:58.236516 24431 net.cpp:408] conv1 <- pool0
I0428 19:39:58.236531 24431 net.cpp:382] conv1 -> conv1
I0428 19:39:58.239490 24431 net.cpp:124] Setting up conv1
I0428 19:39:58.239521 24431 net.cpp:131] Top shape: 100 5 8 8 (32000)
I0428 19:39:58.239532 24431 net.cpp:139] Memory required for data: 1018800
I0428 19:39:58.239550 24431 layer_factory.hpp:77] Creating layer pool1
I0428 19:39:58.239564 24431 net.cpp:86] Creating Layer pool1
I0428 19:39:58.239573 24431 net.cpp:408] pool1 <- conv1
I0428 19:39:58.239585 24431 net.cpp:382] pool1 -> pool1
I0428 19:39:58.239658 24431 net.cpp:124] Setting up pool1
I0428 19:39:58.239671 24431 net.cpp:131] Top shape: 100 5 4 4 (8000)
I0428 19:39:58.239679 24431 net.cpp:139] Memory required for data: 1050800
I0428 19:39:58.239686 24431 layer_factory.hpp:77] Creating layer ip1
I0428 19:39:58.239699 24431 net.cpp:86] Creating Layer ip1
I0428 19:39:58.239707 24431 net.cpp:408] ip1 <- pool1
I0428 19:39:58.239720 24431 net.cpp:382] ip1 -> ip1
I0428 19:39:58.239948 24431 net.cpp:124] Setting up ip1
I0428 19:39:58.239961 24431 net.cpp:131] Top shape: 100 25 (2500)
I0428 19:39:58.239969 24431 net.cpp:139] Memory required for data: 1060800
I0428 19:39:58.239984 24431 layer_factory.hpp:77] Creating layer relu1
I0428 19:39:58.239997 24431 net.cpp:86] Creating Layer relu1
I0428 19:39:58.240006 24431 net.cpp:408] relu1 <- ip1
I0428 19:39:58.240018 24431 net.cpp:369] relu1 -> ip1 (in-place)
I0428 19:39:58.240406 24431 net.cpp:124] Setting up relu1
I0428 19:39:58.240422 24431 net.cpp:131] Top shape: 100 25 (2500)
I0428 19:39:58.240430 24431 net.cpp:139] Memory required for data: 1070800
I0428 19:39:58.240437 24431 layer_factory.hpp:77] Creating layer ip2
I0428 19:39:58.240453 24431 net.cpp:86] Creating Layer ip2
I0428 19:39:58.240463 24431 net.cpp:408] ip2 <- ip1
I0428 19:39:58.240473 24431 net.cpp:382] ip2 -> ip2
I0428 19:39:58.240685 24431 net.cpp:124] Setting up ip2
I0428 19:39:58.240700 24431 net.cpp:131] Top shape: 100 10 (1000)
I0428 19:39:58.240706 24431 net.cpp:139] Memory required for data: 1074800
I0428 19:39:58.240717 24431 layer_factory.hpp:77] Creating layer relu2
I0428 19:39:58.240728 24431 net.cpp:86] Creating Layer relu2
I0428 19:39:58.240738 24431 net.cpp:408] relu2 <- ip2
I0428 19:39:58.240746 24431 net.cpp:369] relu2 -> ip2 (in-place)
I0428 19:39:58.241091 24431 net.cpp:124] Setting up relu2
I0428 19:39:58.241112 24431 net.cpp:131] Top shape: 100 10 (1000)
I0428 19:39:58.241123 24431 net.cpp:139] Memory required for data: 1078800
I0428 19:39:58.241129 24431 layer_factory.hpp:77] Creating layer ip2_relu2_0_split
I0428 19:39:58.241139 24431 net.cpp:86] Creating Layer ip2_relu2_0_split
I0428 19:39:58.241147 24431 net.cpp:408] ip2_relu2_0_split <- ip2
I0428 19:39:58.241158 24431 net.cpp:382] ip2_relu2_0_split -> ip2_relu2_0_split_0
I0428 19:39:58.241190 24431 net.cpp:382] ip2_relu2_0_split -> ip2_relu2_0_split_1
I0428 19:39:58.241264 24431 net.cpp:124] Setting up ip2_relu2_0_split
I0428 19:39:58.241276 24431 net.cpp:131] Top shape: 100 10 (1000)
I0428 19:39:58.241286 24431 net.cpp:131] Top shape: 100 10 (1000)
I0428 19:39:58.241291 24431 net.cpp:139] Memory required for data: 1086800
I0428 19:39:58.241298 24431 layer_factory.hpp:77] Creating layer accuracy
I0428 19:39:58.241310 24431 net.cpp:86] Creating Layer accuracy
I0428 19:39:58.241319 24431 net.cpp:408] accuracy <- ip2_relu2_0_split_0
I0428 19:39:58.241328 24431 net.cpp:408] accuracy <- label_mnist_1_split_0
I0428 19:39:58.241340 24431 net.cpp:382] accuracy -> accuracy
…
