…
I0428 19:58:50.354765 29092 net.cpp:296] The NetState phase (0) differed from the phase (1) specified by a rule in layer mnist
I0428 19:58:50.354782 29092 net.cpp:296] The NetState phase (0) differed from the phase (1) specified by a rule in layer accuracy
I0428 19:58:50.354868 29092 net.cpp:53] Initializing net from parameters: 
name: "LeNet"
state {
  phase: TRAIN
  level: 0
  stage: ""
}
layer {
  name: "mnist"
  type: "Data"
  top: "data"
  top: "label"
  include {
    phase: TRAIN
  }
  transform_param {
    scale: 0.00390625
  }
  data_param {
    source: "examples/mnist/mnist_train_lmdb"
    batch_size: 64
    backend: LMDB
  }
}
layer {
  name: "conv0"
  type: "Convolution"
  bottom: "data"
  top: "conv0"
  param {
    lr_mult: 1
  }
  param {
    lr_mult: 2
  }
  convolution_param {
    num_output: 10
    kernel_size: 5
    stride: 1
    weight_filler {
      type: "xavier"
    }
    bias_filler {
      type: "constant"
    }
  }
}
layer {
  name: "pool0"
  type: "Pooling"
  bottom: "conv0"
  top: "pool0"
  pooling_param {
    pool: MAX
    kernel_size: 2
    stride: 2
  }
}
layer {
  name: "conv1"
  type: "Convolution"
  bottom: "pool0"
  top: "conv1"
  param {
    lr_mult: 1
  }
  param {
    lr_mult: 2
  }
  convolution_param {
    num_output: 10
    kernel_size: 5
    stride: 1
    weight_filler {
      type: "xavier"
    }
    bias_filler {
      type: "constant"
    }
  }
}
layer {
  name: "pool1"
  type: "Pooling"
  bottom: "conv1"
  top: "pool1"
  pooling_param {
    pool: MAX
    kernel_size: 2
    stride: 2
  }
}
layer {
  name: "ip1"
  type: "InnerProduct"
  bottom: "pool1"
  top: "ip1"
  param {
    lr_mult: 1
  }
  param {
    lr_mult: 2
  }
  inner_product_param {
    num_output: 50
    weight_filler {
      type: "xavier"
    }
    bias_filler {
      type: "constant"
    }
  }
}
layer {
  name: "relu1"
  type: "ReLU"
  bottom: "ip1"
  top: "ip1"
}
layer {
  name: "ip2"
  type: "InnerProduct"
  bottom: "ip1"
  top: "ip2"
  param {
    lr_mult: 1
  }
  param {
    lr_mult: 2
  }
  inner_product_param {
    num_output: 10
    weight_filler {
      type: "xavier"
    }
    bias_filler {
      type: "constant"
    }
  }
}
layer {
  name: "relu2"
  type: "ReLU"
  bottom: "ip2"
  top: "ip2"
}
layer {
  name: "loss"
  type: "SoftmaxWithLoss"
  bottom: "ip2"
  bottom: "label"
  top: "loss"
}
I0428 19:58:50.354936 29092 layer_factory.hpp:77] Creating layer mnist
I0428 19:58:50.355039 29092 db_lmdb.cpp:35] Opened lmdb examples/mnist/mnist_train_lmdb
I0428 19:58:50.355064 29092 net.cpp:86] Creating Layer mnist
I0428 19:58:50.355072 29092 net.cpp:382] mnist -> data
I0428 19:58:50.355094 29092 net.cpp:382] mnist -> label
I0428 19:58:50.356194 29092 data_layer.cpp:45] output data size: 64,1,28,28
I0428 19:58:50.358640 29092 net.cpp:124] Setting up mnist
I0428 19:58:50.358659 29092 net.cpp:131] Top shape: 64 1 28 28 (50176)
I0428 19:58:50.358666 29092 net.cpp:131] Top shape: 64 (64)
I0428 19:58:50.358670 29092 net.cpp:139] Memory required for data: 200960
I0428 19:58:50.358677 29092 layer_factory.hpp:77] Creating layer conv0
I0428 19:58:50.358693 29092 net.cpp:86] Creating Layer conv0
I0428 19:58:50.358700 29092 net.cpp:408] conv0 <- data
I0428 19:58:50.358711 29092 net.cpp:382] conv0 -> conv0
I0428 19:58:50.648564 29092 net.cpp:124] Setting up conv0
I0428 19:58:50.648593 29092 net.cpp:131] Top shape: 64 10 24 24 (368640)
I0428 19:58:50.648597 29092 net.cpp:139] Memory required for data: 1675520
I0428 19:58:50.648635 29092 layer_factory.hpp:77] Creating layer pool0
I0428 19:58:50.648649 29092 net.cpp:86] Creating Layer pool0
I0428 19:58:50.648654 29092 net.cpp:408] pool0 <- conv0
I0428 19:58:50.648659 29092 net.cpp:382] pool0 -> pool0
I0428 19:58:50.648710 29092 net.cpp:124] Setting up pool0
I0428 19:58:50.648715 29092 net.cpp:131] Top shape: 64 10 12 12 (92160)
I0428 19:58:50.648718 29092 net.cpp:139] Memory required for data: 2044160
I0428 19:58:50.648722 29092 layer_factory.hpp:77] Creating layer conv1
I0428 19:58:50.648732 29092 net.cpp:86] Creating Layer conv1
I0428 19:58:50.648736 29092 net.cpp:408] conv1 <- pool0
I0428 19:58:50.648741 29092 net.cpp:382] conv1 -> conv1
I0428 19:58:50.651518 29092 net.cpp:124] Setting up conv1
I0428 19:58:50.651535 29092 net.cpp:131] Top shape: 64 10 8 8 (40960)
I0428 19:58:50.651538 29092 net.cpp:139] Memory required for data: 2208000
I0428 19:58:50.651547 29092 layer_factory.hpp:77] Creating layer pool1
I0428 19:58:50.651556 29092 net.cpp:86] Creating Layer pool1
I0428 19:58:50.651561 29092 net.cpp:408] pool1 <- conv1
I0428 19:58:50.651566 29092 net.cpp:382] pool1 -> pool1
I0428 19:58:50.651607 29092 net.cpp:124] Setting up pool1
I0428 19:58:50.651612 29092 net.cpp:131] Top shape: 64 10 4 4 (10240)
I0428 19:58:50.651615 29092 net.cpp:139] Memory required for data: 2248960
I0428 19:58:50.651618 29092 layer_factory.hpp:77] Creating layer ip1
I0428 19:58:50.651625 29092 net.cpp:86] Creating Layer ip1
I0428 19:58:50.651628 29092 net.cpp:408] ip1 <- pool1
I0428 19:58:50.651636 29092 net.cpp:382] ip1 -> ip1
I0428 19:58:50.652638 29092 net.cpp:124] Setting up ip1
I0428 19:58:50.652650 29092 net.cpp:131] Top shape: 64 50 (3200)
I0428 19:58:50.652653 29092 net.cpp:139] Memory required for data: 2261760
I0428 19:58:50.652662 29092 layer_factory.hpp:77] Creating layer relu1
I0428 19:58:50.652669 29092 net.cpp:86] Creating Layer relu1
I0428 19:58:50.652673 29092 net.cpp:408] relu1 <- ip1
I0428 19:58:50.652678 29092 net.cpp:369] relu1 -> ip1 (in-place)
I0428 19:58:50.652878 29092 net.cpp:124] Setting up relu1
I0428 19:58:50.652887 29092 net.cpp:131] Top shape: 64 50 (3200)
I0428 19:58:50.652891 29092 net.cpp:139] Memory required for data: 2274560
I0428 19:58:50.652894 29092 layer_factory.hpp:77] Creating layer ip2
I0428 19:58:50.652902 29092 net.cpp:86] Creating Layer ip2
I0428 19:58:50.652906 29092 net.cpp:408] ip2 <- ip1
I0428 19:58:50.652911 29092 net.cpp:382] ip2 -> ip2
I0428 19:58:50.653018 29092 net.cpp:124] Setting up ip2
I0428 19:58:50.653025 29092 net.cpp:131] Top shape: 64 10 (640)
I0428 19:58:50.653028 29092 net.cpp:139] Memory required for data: 2277120
I0428 19:58:50.653034 29092 layer_factory.hpp:77] Creating layer relu2
I0428 19:58:50.653041 29092 net.cpp:86] Creating Layer relu2
I0428 19:58:50.653044 29092 net.cpp:408] relu2 <- ip2
I0428 19:58:50.653050 29092 net.cpp:369] relu2 -> ip2 (in-place)
I0428 19:58:50.653803 29092 net.cpp:124] Setting up relu2
I0428 19:58:50.653816 29092 net.cpp:131] Top shape: 64 10 (640)
I0428 19:58:50.653820 29092 net.cpp:139] Memory required for data: 2279680
I0428 19:58:50.653823 29092 layer_factory.hpp:77] Creating layer loss
I0428 19:58:50.653836 29092 net.cpp:86] Creating Layer loss
I0428 19:58:50.653839 29092 net.cpp:408] loss <- ip2
I0428 19:58:50.653843 29092 net.cpp:408] loss <- label
I0428 19:58:50.653849 29092 net.cpp:382] loss -> loss
I0428 19:58:50.653864 29092 layer_factory.hpp:77] Creating layer loss
…
I0428 19:58:50.654489 29092 solver.cpp:173] Creating test net (#0) specified by net file: ECE595/mnist/train_test/var_everything2/lenet_train_test830.prototxt
I0428 19:58:50.654515 29092 net.cpp:296] The NetState phase (1) differed from the phase (0) specified by a rule in layer mnist
I0428 19:58:50.654603 29092 net.cpp:53] Initializing net from parameters: 
name: "LeNet"
state {
  phase: TEST
}
layer {
  name: "mnist"
  type: "Data"
  top: "data"
  top: "label"
  include {
    phase: TEST
  }
  transform_param {
    scale: 0.00390625
  }
  data_param {
    source: "examples/mnist/mnist_test_lmdb"
    batch_size: 100
    backend: LMDB
  }
}
layer {
  name: "conv0"
  type: "Convolution"
  bottom: "data"
  top: "conv0"
  param {
    lr_mult: 1
  }
  param {
    lr_mult: 2
  }
  convolution_param {
    num_output: 10
    kernel_size: 5
    stride: 1
    weight_filler {
      type: "xavier"
    }
    bias_filler {
      type: "constant"
    }
  }
}
layer {
  name: "pool0"
  type: "Pooling"
  bottom: "conv0"
  top: "pool0"
  pooling_param {
    pool: MAX
    kernel_size: 2
    stride: 2
  }
}
layer {
  name: "conv1"
  type: "Convolution"
  bottom: "pool0"
  top: "conv1"
  param {
    lr_mult: 1
  }
  param {
    lr_mult: 2
  }
  convolution_param {
    num_output: 10
    kernel_size: 5
    stride: 1
    weight_filler {
      type: "xavier"
    }
    bias_filler {
      type: "constant"
    }
  }
}
layer {
  name: "pool1"
  type: "Pooling"
  bottom: "conv1"
  top: "pool1"
  pooling_param {
    pool: MAX
    kernel_size: 2
    stride: 2
  }
}
layer {
  name: "ip1"
  type: "InnerProduct"
  bottom: "pool1"
  top: "ip1"
  param {
    lr_mult: 1
  }
  param {
    lr_mult: 2
  }
  inner_product_param {
    num_output: 50
    weight_filler {
      type: "xavier"
    }
    bias_filler {
      type: "constant"
    }
  }
}
layer {
  name: "relu1"
  type: "ReLU"
  bottom: "ip1"
  top: "ip1"
}
layer {
  name: "ip2"
  type: "InnerProduct"
  bottom: "ip1"
  top: "ip2"
  param {
    lr_mult: 1
  }
  param {
    lr_mult: 2
  }
  inner_product_param {
    num_output: 10
    weight_filler {
      type: "xavier"
    }
    bias_filler {
      type: "constant"
    }
  }
}
layer {
  name: "relu2"
  type: "ReLU"
  bottom: "ip2"
  top: "ip2"
}
layer {
  name: "accuracy"
  type: "Accuracy"
  bottom: "ip2"
  bottom: "label"
  top: "accuracy"
  include {
    phase: TEST
  }
}
layer {
  name: "loss"
  type: "SoftmaxWithLoss"
  bottom: "ip2"
  bottom: "label"
  top: "loss"
}
I0428 19:58:50.654671 29092 layer_factory.hpp:77] Creating layer mnist
I0428 19:58:50.654714 29092 db_lmdb.cpp:35] Opened lmdb examples/mnist/mnist_test_lmdb
I0428 19:58:50.654726 29092 net.cpp:86] Creating Layer mnist
I0428 19:58:50.654733 29092 net.cpp:382] mnist -> data
I0428 19:58:50.654741 29092 net.cpp:382] mnist -> label
I0428 19:58:50.654837 29092 data_layer.cpp:45] output data size: 100,1,28,28
I0428 19:58:50.656927 29092 net.cpp:124] Setting up mnist
I0428 19:58:50.656940 29092 net.cpp:131] Top shape: 100 1 28 28 (78400)
I0428 19:58:50.656945 29092 net.cpp:131] Top shape: 100 (100)
I0428 19:58:50.656949 29092 net.cpp:139] Memory required for data: 314000
I0428 19:58:50.656952 29092 layer_factory.hpp:77] Creating layer label_mnist_1_split
I0428 19:58:50.656958 29092 net.cpp:86] Creating Layer label_mnist_1_split
I0428 19:58:50.656962 29092 net.cpp:408] label_mnist_1_split <- label
I0428 19:58:50.656968 29092 net.cpp:382] label_mnist_1_split -> label_mnist_1_split_0
I0428 19:58:50.656976 29092 net.cpp:382] label_mnist_1_split -> label_mnist_1_split_1
I0428 19:58:50.657016 29092 net.cpp:124] Setting up label_mnist_1_split
I0428 19:58:50.657032 29092 net.cpp:131] Top shape: 100 (100)
I0428 19:58:50.657035 29092 net.cpp:131] Top shape: 100 (100)
I0428 19:58:50.657038 29092 net.cpp:139] Memory required for data: 314800
I0428 19:58:50.657042 29092 layer_factory.hpp:77] Creating layer conv0
I0428 19:58:50.657052 29092 net.cpp:86] Creating Layer conv0
I0428 19:58:50.657055 29092 net.cpp:408] conv0 <- data
I0428 19:58:50.657060 29092 net.cpp:382] conv0 -> conv0
I0428 19:58:50.658805 29092 net.cpp:124] Setting up conv0
I0428 19:58:50.658819 29092 net.cpp:131] Top shape: 100 10 24 24 (576000)
I0428 19:58:50.658823 29092 net.cpp:139] Memory required for data: 2618800
I0428 19:58:50.658833 29092 layer_factory.hpp:77] Creating layer pool0
I0428 19:58:50.658839 29092 net.cpp:86] Creating Layer pool0
I0428 19:58:50.658844 29092 net.cpp:408] pool0 <- conv0
I0428 19:58:50.658849 29092 net.cpp:382] pool0 -> pool0
I0428 19:58:50.658886 29092 net.cpp:124] Setting up pool0
I0428 19:58:50.658895 29092 net.cpp:131] Top shape: 100 10 12 12 (144000)
I0428 19:58:50.658898 29092 net.cpp:139] Memory required for data: 3194800
I0428 19:58:50.658901 29092 layer_factory.hpp:77] Creating layer conv1
I0428 19:58:50.658910 29092 net.cpp:86] Creating Layer conv1
I0428 19:58:50.658915 29092 net.cpp:408] conv1 <- pool0
I0428 19:58:50.658920 29092 net.cpp:382] conv1 -> conv1
I0428 19:58:50.661027 29092 net.cpp:124] Setting up conv1
I0428 19:58:50.661042 29092 net.cpp:131] Top shape: 100 10 8 8 (64000)
I0428 19:58:50.661046 29092 net.cpp:139] Memory required for data: 3450800
I0428 19:58:50.661072 29092 layer_factory.hpp:77] Creating layer pool1
I0428 19:58:50.661082 29092 net.cpp:86] Creating Layer pool1
I0428 19:58:50.661084 29092 net.cpp:408] pool1 <- conv1
I0428 19:58:50.661092 29092 net.cpp:382] pool1 -> pool1
I0428 19:58:50.661151 29092 net.cpp:124] Setting up pool1
I0428 19:58:50.661159 29092 net.cpp:131] Top shape: 100 10 4 4 (16000)
I0428 19:58:50.661164 29092 net.cpp:139] Memory required for data: 3514800
I0428 19:58:50.661181 29092 layer_factory.hpp:77] Creating layer ip1
I0428 19:58:50.661187 29092 net.cpp:86] Creating Layer ip1
I0428 19:58:50.661191 29092 net.cpp:408] ip1 <- pool1
I0428 19:58:50.661197 29092 net.cpp:382] ip1 -> ip1
I0428 19:58:50.661355 29092 net.cpp:124] Setting up ip1
I0428 19:58:50.661362 29092 net.cpp:131] Top shape: 100 50 (5000)
I0428 19:58:50.661365 29092 net.cpp:139] Memory required for data: 3534800
I0428 19:58:50.661372 29092 layer_factory.hpp:77] Creating layer relu1
I0428 19:58:50.661379 29092 net.cpp:86] Creating Layer relu1
I0428 19:58:50.661382 29092 net.cpp:408] relu1 <- ip1
I0428 19:58:50.661386 29092 net.cpp:369] relu1 -> ip1 (in-place)
I0428 19:58:50.661649 29092 net.cpp:124] Setting up relu1
I0428 19:58:50.661659 29092 net.cpp:131] Top shape: 100 50 (5000)
I0428 19:58:50.661664 29092 net.cpp:139] Memory required for data: 3554800
I0428 19:58:50.661666 29092 layer_factory.hpp:77] Creating layer ip2
I0428 19:58:50.661680 29092 net.cpp:86] Creating Layer ip2
I0428 19:58:50.661684 29092 net.cpp:408] ip2 <- ip1
I0428 19:58:50.661689 29092 net.cpp:382] ip2 -> ip2
I0428 19:58:50.661797 29092 net.cpp:124] Setting up ip2
I0428 19:58:50.661803 29092 net.cpp:131] Top shape: 100 10 (1000)
I0428 19:58:50.661806 29092 net.cpp:139] Memory required for data: 3558800
I0428 19:58:50.661813 29092 layer_factory.hpp:77] Creating layer relu2
I0428 19:58:50.661818 29092 net.cpp:86] Creating Layer relu2
I0428 19:58:50.661820 29092 net.cpp:408] relu2 <- ip2
I0428 19:58:50.661825 29092 net.cpp:369] relu2 -> ip2 (in-place)
I0428 19:58:50.662004 29092 net.cpp:124] Setting up relu2
I0428 19:58:50.662029 29092 net.cpp:131] Top shape: 100 10 (1000)
I0428 19:58:50.662032 29092 net.cpp:139] Memory required for data: 3562800
I0428 19:58:50.662035 29092 layer_factory.hpp:77] Creating layer ip2_relu2_0_split
I0428 19:58:50.662042 29092 net.cpp:86] Creating Layer ip2_relu2_0_split
I0428 19:58:50.662045 29092 net.cpp:408] ip2_relu2_0_split <- ip2
I0428 19:58:50.662050 29092 net.cpp:382] ip2_relu2_0_split -> ip2_relu2_0_split_0
I0428 19:58:50.662067 29092 net.cpp:382] ip2_relu2_0_split -> ip2_relu2_0_split_1
I0428 19:58:50.662106 29092 net.cpp:124] Setting up ip2_relu2_0_split
I0428 19:58:50.662112 29092 net.cpp:131] Top shape: 100 10 (1000)
I0428 19:58:50.662117 29092 net.cpp:131] Top shape: 100 10 (1000)
I0428 19:58:50.662120 29092 net.cpp:139] Memory required for data: 3570800
I0428 19:58:50.662123 29092 layer_factory.hpp:77] Creating layer accuracy
I0428 19:58:50.662128 29092 net.cpp:86] Creating Layer accuracy
I0428 19:58:50.662132 29092 net.cpp:408] accuracy <- ip2_relu2_0_split_0
I0428 19:58:50.662142 29092 net.cpp:408] accuracy <- label_mnist_1_split_0
I0428 19:58:50.662148 29092 net.cpp:382] accuracy -> accuracy
…
