…
I0428 20:23:48.486668  2317 net.cpp:296] The NetState phase (0) differed from the phase (1) specified by a rule in layer mnist
I0428 20:23:48.486687  2317 net.cpp:296] The NetState phase (0) differed from the phase (1) specified by a rule in layer accuracy
I0428 20:23:48.486789  2317 net.cpp:53] Initializing net from parameters: 
name: "LeNet"
state {
  phase: TRAIN
  level: 0
  stage: ""
}
layer {
  name: "mnist"
  type: "Data"
  top: "data"
  top: "label"
  include {
    phase: TRAIN
  }
  transform_param {
    scale: 0.00390625
  }
  data_param {
    source: "examples/mnist/mnist_train_lmdb"
    batch_size: 64
    backend: LMDB
  }
}
layer {
  name: "conv0"
  type: "Convolution"
  bottom: "data"
  top: "conv0"
  param {
    lr_mult: 1
  }
  param {
    lr_mult: 2
  }
  convolution_param {
    num_output: 50
    kernel_size: 5
    stride: 1
    weight_filler {
      type: "xavier"
    }
    bias_filler {
      type: "constant"
    }
  }
}
layer {
  name: "pool0"
  type: "Pooling"
  bottom: "conv0"
  top: "pool0"
  pooling_param {
    pool: MAX
    kernel_size: 2
    stride: 2
  }
}
layer {
  name: "conv1"
  type: "Convolution"
  bottom: "pool0"
  top: "conv1"
  param {
    lr_mult: 1
  }
  param {
    lr_mult: 2
  }
  convolution_param {
    num_output: 100
    kernel_size: 5
    stride: 1
    weight_filler {
      type: "xavier"
    }
    bias_filler {
      type: "constant"
    }
  }
}
layer {
  name: "pool1"
  type: "Pooling"
  bottom: "conv1"
  top: "pool1"
  pooling_param {
    pool: MAX
    kernel_size: 2
    stride: 2
  }
}
layer {
  name: "ip1"
  type: "InnerProduct"
  bottom: "pool1"
  top: "ip1"
  param {
    lr_mult: 1
  }
  param {
    lr_mult: 2
  }
  inner_product_param {
    num_output: 25
    weight_filler {
      type: "xavier"
    }
    bias_filler {
      type: "constant"
    }
  }
}
layer {
  name: "relu1"
  type: "ReLU"
  bottom: "ip1"
  top: "ip1"
}
layer {
  name: "ip2"
  type: "InnerProduct"
  bottom: "ip1"
  top: "ip2"
  param {
    lr_mult: 1
  }
  param {
    lr_mult: 2
  }
  inner_product_param {
    num_output: 10
    weight_filler {
      type: "xavier"
    }
    bias_filler {
      type: "constant"
    }
  }
}
layer {
  name: "relu2"
  type: "ReLU"
  bottom: "ip2"
  top: "ip2"
}
layer {
  name: "ip3"
  type: "InnerProduct"
  bottom: "ip2"
  top: "ip3"
  param {
    lr_mult: 1
  }
  param {
    lr_mult: 2
  }
  inner_product_param {
    num_output: 10
    weight_filler {
      type: "xavier"
    }
    bias_filler {
      type: "constant"
    }
  }
}
layer {
  name: "relu3"
  type: "ReLU"
  bottom: "ip3"
  top: "ip3"
}
layer {
  name: "loss"
  type: "SoftmaxWithLoss"
  bottom: "ip3"
  bottom: "label"
  top: "loss"
}
I0428 20:23:48.486867  2317 layer_factory.hpp:77] Creating layer mnist
I0428 20:23:48.486966  2317 db_lmdb.cpp:35] Opened lmdb examples/mnist/mnist_train_lmdb
I0428 20:23:48.486989  2317 net.cpp:86] Creating Layer mnist
I0428 20:23:48.486999  2317 net.cpp:382] mnist -> data
I0428 20:23:48.487020  2317 net.cpp:382] mnist -> label
I0428 20:23:48.488108  2317 data_layer.cpp:45] output data size: 64,1,28,28
I0428 20:23:48.490576  2317 net.cpp:124] Setting up mnist
I0428 20:23:48.490593  2317 net.cpp:131] Top shape: 64 1 28 28 (50176)
I0428 20:23:48.490600  2317 net.cpp:131] Top shape: 64 (64)
I0428 20:23:48.490603  2317 net.cpp:139] Memory required for data: 200960
I0428 20:23:48.490610  2317 layer_factory.hpp:77] Creating layer conv0
I0428 20:23:48.490628  2317 net.cpp:86] Creating Layer conv0
I0428 20:23:48.490648  2317 net.cpp:408] conv0 <- data
I0428 20:23:48.490663  2317 net.cpp:382] conv0 -> conv0
I0428 20:23:48.758292  2317 net.cpp:124] Setting up conv0
I0428 20:23:48.758317  2317 net.cpp:131] Top shape: 64 50 24 24 (1843200)
I0428 20:23:48.758322  2317 net.cpp:139] Memory required for data: 7573760
I0428 20:23:48.758335  2317 layer_factory.hpp:77] Creating layer pool0
I0428 20:23:48.758348  2317 net.cpp:86] Creating Layer pool0
I0428 20:23:48.758352  2317 net.cpp:408] pool0 <- conv0
I0428 20:23:48.758357  2317 net.cpp:382] pool0 -> pool0
I0428 20:23:48.758416  2317 net.cpp:124] Setting up pool0
I0428 20:23:48.758424  2317 net.cpp:131] Top shape: 64 50 12 12 (460800)
I0428 20:23:48.758426  2317 net.cpp:139] Memory required for data: 9416960
I0428 20:23:48.758430  2317 layer_factory.hpp:77] Creating layer conv1
I0428 20:23:48.758440  2317 net.cpp:86] Creating Layer conv1
I0428 20:23:48.758443  2317 net.cpp:408] conv1 <- pool0
I0428 20:23:48.758447  2317 net.cpp:382] conv1 -> conv1
I0428 20:23:48.762008  2317 net.cpp:124] Setting up conv1
I0428 20:23:48.762038  2317 net.cpp:131] Top shape: 64 100 8 8 (409600)
I0428 20:23:48.762042  2317 net.cpp:139] Memory required for data: 11055360
I0428 20:23:48.762050  2317 layer_factory.hpp:77] Creating layer pool1
I0428 20:23:48.762058  2317 net.cpp:86] Creating Layer pool1
I0428 20:23:48.762076  2317 net.cpp:408] pool1 <- conv1
I0428 20:23:48.762082  2317 net.cpp:382] pool1 -> pool1
I0428 20:23:48.762120  2317 net.cpp:124] Setting up pool1
I0428 20:23:48.762127  2317 net.cpp:131] Top shape: 64 100 4 4 (102400)
I0428 20:23:48.762130  2317 net.cpp:139] Memory required for data: 11464960
I0428 20:23:48.762133  2317 layer_factory.hpp:77] Creating layer ip1
I0428 20:23:48.762141  2317 net.cpp:86] Creating Layer ip1
I0428 20:23:48.762143  2317 net.cpp:408] ip1 <- pool1
I0428 20:23:48.762150  2317 net.cpp:382] ip1 -> ip1
I0428 20:23:48.762498  2317 net.cpp:124] Setting up ip1
I0428 20:23:48.762506  2317 net.cpp:131] Top shape: 64 25 (1600)
I0428 20:23:48.762508  2317 net.cpp:139] Memory required for data: 11471360
I0428 20:23:48.762531  2317 layer_factory.hpp:77] Creating layer relu1
I0428 20:23:48.762538  2317 net.cpp:86] Creating Layer relu1
I0428 20:23:48.762542  2317 net.cpp:408] relu1 <- ip1
I0428 20:23:48.762545  2317 net.cpp:369] relu1 -> ip1 (in-place)
I0428 20:23:48.762708  2317 net.cpp:124] Setting up relu1
I0428 20:23:48.762718  2317 net.cpp:131] Top shape: 64 25 (1600)
I0428 20:23:48.762722  2317 net.cpp:139] Memory required for data: 11477760
I0428 20:23:48.762724  2317 layer_factory.hpp:77] Creating layer ip2
I0428 20:23:48.762730  2317 net.cpp:86] Creating Layer ip2
I0428 20:23:48.762733  2317 net.cpp:408] ip2 <- ip1
I0428 20:23:48.762738  2317 net.cpp:382] ip2 -> ip2
I0428 20:23:48.762830  2317 net.cpp:124] Setting up ip2
I0428 20:23:48.762837  2317 net.cpp:131] Top shape: 64 10 (640)
I0428 20:23:48.762840  2317 net.cpp:139] Memory required for data: 11480320
I0428 20:23:48.762845  2317 layer_factory.hpp:77] Creating layer relu2
I0428 20:23:48.762856  2317 net.cpp:86] Creating Layer relu2
I0428 20:23:48.762859  2317 net.cpp:408] relu2 <- ip2
I0428 20:23:48.762863  2317 net.cpp:369] relu2 -> ip2 (in-place)
I0428 20:23:48.763665  2317 net.cpp:124] Setting up relu2
I0428 20:23:48.763677  2317 net.cpp:131] Top shape: 64 10 (640)
I0428 20:23:48.763680  2317 net.cpp:139] Memory required for data: 11482880
I0428 20:23:48.763684  2317 layer_factory.hpp:77] Creating layer ip3
I0428 20:23:48.763690  2317 net.cpp:86] Creating Layer ip3
I0428 20:23:48.763694  2317 net.cpp:408] ip3 <- ip2
I0428 20:23:48.763700  2317 net.cpp:382] ip3 -> ip3
I0428 20:23:48.763797  2317 net.cpp:124] Setting up ip3
I0428 20:23:48.763803  2317 net.cpp:131] Top shape: 64 10 (640)
I0428 20:23:48.763806  2317 net.cpp:139] Memory required for data: 11485440
I0428 20:23:48.763814  2317 layer_factory.hpp:77] Creating layer relu3
I0428 20:23:48.763818  2317 net.cpp:86] Creating Layer relu3
I0428 20:23:48.763821  2317 net.cpp:408] relu3 <- ip3
I0428 20:23:48.763826  2317 net.cpp:369] relu3 -> ip3 (in-place)
I0428 20:23:48.763991  2317 net.cpp:124] Setting up relu3
I0428 20:23:48.764000  2317 net.cpp:131] Top shape: 64 10 (640)
I0428 20:23:48.764003  2317 net.cpp:139] Memory required for data: 11488000
I0428 20:23:48.764006  2317 layer_factory.hpp:77] Creating layer loss
I0428 20:23:48.764012  2317 net.cpp:86] Creating Layer loss
I0428 20:23:48.764015  2317 net.cpp:408] loss <- ip3
I0428 20:23:48.764019  2317 net.cpp:408] loss <- label
I0428 20:23:48.764024  2317 net.cpp:382] loss -> loss
I0428 20:23:48.764040  2317 layer_factory.hpp:77] Creating layer loss
…
I0428 20:23:48.764703  2317 solver.cpp:173] Creating test net (#0) specified by net file: ECE595/mnist/train_test/var_everything2/lenet_train_test1427.prototxt
I0428 20:23:48.764729  2317 net.cpp:296] The NetState phase (1) differed from the phase (0) specified by a rule in layer mnist
I0428 20:23:48.764842  2317 net.cpp:53] Initializing net from parameters: 
name: "LeNet"
state {
  phase: TEST
}
layer {
  name: "mnist"
  type: "Data"
  top: "data"
  top: "label"
  include {
    phase: TEST
  }
  transform_param {
    scale: 0.00390625
  }
  data_param {
    source: "examples/mnist/mnist_test_lmdb"
    batch_size: 100
    backend: LMDB
  }
}
layer {
  name: "conv0"
  type: "Convolution"
  bottom: "data"
  top: "conv0"
  param {
    lr_mult: 1
  }
  param {
    lr_mult: 2
  }
  convolution_param {
    num_output: 50
    kernel_size: 5
    stride: 1
    weight_filler {
      type: "xavier"
    }
    bias_filler {
      type: "constant"
    }
  }
}
layer {
  name: "pool0"
  type: "Pooling"
  bottom: "conv0"
  top: "pool0"
  pooling_param {
    pool: MAX
    kernel_size: 2
    stride: 2
  }
}
layer {
  name: "conv1"
  type: "Convolution"
  bottom: "pool0"
  top: "conv1"
  param {
    lr_mult: 1
  }
  param {
    lr_mult: 2
  }
  convolution_param {
    num_output: 100
    kernel_size: 5
    stride: 1
    weight_filler {
      type: "xavier"
    }
    bias_filler {
      type: "constant"
    }
  }
}
layer {
  name: "pool1"
  type: "Pooling"
  bottom: "conv1"
  top: "pool1"
  pooling_param {
    pool: MAX
    kernel_size: 2
    stride: 2
  }
}
layer {
  name: "ip1"
  type: "InnerProduct"
  bottom: "pool1"
  top: "ip1"
  param {
    lr_mult: 1
  }
  param {
    lr_mult: 2
  }
  inner_product_param {
    num_output: 25
    weight_filler {
      type: "xavier"
    }
    bias_filler {
      type: "constant"
    }
  }
}
layer {
  name: "relu1"
  type: "ReLU"
  bottom: "ip1"
  top: "ip1"
}
layer {
  name: "ip2"
  type: "InnerProduct"
  bottom: "ip1"
  top: "ip2"
  param {
    lr_mult: 1
  }
  param {
    lr_mult: 2
  }
  inner_product_param {
    num_output: 10
    weight_filler {
      type: "xavier"
    }
    bias_filler {
      type: "constant"
    }
  }
}
layer {
  name: "relu2"
  type: "ReLU"
  bottom: "ip2"
  top: "ip2"
}
layer {
  name: "ip3"
  type: "InnerProduct"
  bottom: "ip2"
  top: "ip3"
  param {
    lr_mult: 1
  }
  param {
    lr_mult: 2
  }
  inner_product_param {
    num_output: 10
    weight_filler {
      type: "xavier"
    }
    bias_filler {
      type: "constant"
    }
  }
}
layer {
  name: "relu3"
  type: "ReLU"
  bottom: "ip3"
  top: "ip3"
}
layer {
  name: "accuracy"
  type: "Accuracy"
  bottom: "ip3"
  bottom: "label"
  top: "accuracy"
  include {
    phase: TEST
  }
}
layer {
  name: "loss"
  type: "SoftmaxWithLoss"
  bottom: "ip3"
  bottom: "label"
  top: "loss"
}
I0428 20:23:48.764920  2317 layer_factory.hpp:77] Creating layer mnist
I0428 20:23:48.764961  2317 db_lmdb.cpp:35] Opened lmdb examples/mnist/mnist_test_lmdb
I0428 20:23:48.764973  2317 net.cpp:86] Creating Layer mnist
I0428 20:23:48.764978  2317 net.cpp:382] mnist -> data
I0428 20:23:48.764986  2317 net.cpp:382] mnist -> label
I0428 20:23:48.765065  2317 data_layer.cpp:45] output data size: 100,1,28,28
I0428 20:23:48.766252  2317 net.cpp:124] Setting up mnist
I0428 20:23:48.766265  2317 net.cpp:131] Top shape: 100 1 28 28 (78400)
I0428 20:23:48.766270  2317 net.cpp:131] Top shape: 100 (100)
I0428 20:23:48.766273  2317 net.cpp:139] Memory required for data: 314000
I0428 20:23:48.766276  2317 layer_factory.hpp:77] Creating layer label_mnist_1_split
I0428 20:23:48.766286  2317 net.cpp:86] Creating Layer label_mnist_1_split
I0428 20:23:48.766290  2317 net.cpp:408] label_mnist_1_split <- label
I0428 20:23:48.766294  2317 net.cpp:382] label_mnist_1_split -> label_mnist_1_split_0
I0428 20:23:48.766300  2317 net.cpp:382] label_mnist_1_split -> label_mnist_1_split_1
I0428 20:23:48.766381  2317 net.cpp:124] Setting up label_mnist_1_split
I0428 20:23:48.766387  2317 net.cpp:131] Top shape: 100 (100)
I0428 20:23:48.766391  2317 net.cpp:131] Top shape: 100 (100)
I0428 20:23:48.766394  2317 net.cpp:139] Memory required for data: 314800
I0428 20:23:48.766396  2317 layer_factory.hpp:77] Creating layer conv0
I0428 20:23:48.766407  2317 net.cpp:86] Creating Layer conv0
I0428 20:23:48.766410  2317 net.cpp:408] conv0 <- data
I0428 20:23:48.766415  2317 net.cpp:382] conv0 -> conv0
I0428 20:23:48.768180  2317 net.cpp:124] Setting up conv0
I0428 20:23:48.768193  2317 net.cpp:131] Top shape: 100 50 24 24 (2880000)
I0428 20:23:48.768196  2317 net.cpp:139] Memory required for data: 11834800
I0428 20:23:48.768205  2317 layer_factory.hpp:77] Creating layer pool0
I0428 20:23:48.768213  2317 net.cpp:86] Creating Layer pool0
I0428 20:23:48.768215  2317 net.cpp:408] pool0 <- conv0
I0428 20:23:48.768221  2317 net.cpp:382] pool0 -> pool0
I0428 20:23:48.768255  2317 net.cpp:124] Setting up pool0
I0428 20:23:48.768262  2317 net.cpp:131] Top shape: 100 50 12 12 (720000)
I0428 20:23:48.768265  2317 net.cpp:139] Memory required for data: 14714800
I0428 20:23:48.768273  2317 layer_factory.hpp:77] Creating layer conv1
I0428 20:23:48.768281  2317 net.cpp:86] Creating Layer conv1
I0428 20:23:48.768285  2317 net.cpp:408] conv1 <- pool0
I0428 20:23:48.768290  2317 net.cpp:382] conv1 -> conv1
I0428 20:23:48.771273  2317 net.cpp:124] Setting up conv1
I0428 20:23:48.771303  2317 net.cpp:131] Top shape: 100 100 8 8 (640000)
I0428 20:23:48.771307  2317 net.cpp:139] Memory required for data: 17274800
I0428 20:23:48.771332  2317 layer_factory.hpp:77] Creating layer pool1
I0428 20:23:48.771339  2317 net.cpp:86] Creating Layer pool1
I0428 20:23:48.771351  2317 net.cpp:408] pool1 <- conv1
I0428 20:23:48.771356  2317 net.cpp:382] pool1 -> pool1
I0428 20:23:48.771394  2317 net.cpp:124] Setting up pool1
I0428 20:23:48.771400  2317 net.cpp:131] Top shape: 100 100 4 4 (160000)
I0428 20:23:48.771404  2317 net.cpp:139] Memory required for data: 17914800
I0428 20:23:48.771407  2317 layer_factory.hpp:77] Creating layer ip1
I0428 20:23:48.771414  2317 net.cpp:86] Creating Layer ip1
I0428 20:23:48.771416  2317 net.cpp:408] ip1 <- pool1
I0428 20:23:48.771422  2317 net.cpp:382] ip1 -> ip1
I0428 20:23:48.771752  2317 net.cpp:124] Setting up ip1
I0428 20:23:48.771772  2317 net.cpp:131] Top shape: 100 25 (2500)
I0428 20:23:48.771776  2317 net.cpp:139] Memory required for data: 17924800
I0428 20:23:48.771800  2317 layer_factory.hpp:77] Creating layer relu1
I0428 20:23:48.771809  2317 net.cpp:86] Creating Layer relu1
I0428 20:23:48.771813  2317 net.cpp:408] relu1 <- ip1
I0428 20:23:48.771818  2317 net.cpp:369] relu1 -> ip1 (in-place)
I0428 20:23:48.771996  2317 net.cpp:124] Setting up relu1
I0428 20:23:48.772006  2317 net.cpp:131] Top shape: 100 25 (2500)
I0428 20:23:48.772008  2317 net.cpp:139] Memory required for data: 17934800
I0428 20:23:48.772011  2317 layer_factory.hpp:77] Creating layer ip2
I0428 20:23:48.772019  2317 net.cpp:86] Creating Layer ip2
I0428 20:23:48.772022  2317 net.cpp:408] ip2 <- ip1
I0428 20:23:48.772027  2317 net.cpp:382] ip2 -> ip2
I0428 20:23:48.772140  2317 net.cpp:124] Setting up ip2
I0428 20:23:48.772146  2317 net.cpp:131] Top shape: 100 10 (1000)
I0428 20:23:48.772148  2317 net.cpp:139] Memory required for data: 17938800
I0428 20:23:48.772153  2317 layer_factory.hpp:77] Creating layer relu2
I0428 20:23:48.772159  2317 net.cpp:86] Creating Layer relu2
I0428 20:23:48.772162  2317 net.cpp:408] relu2 <- ip2
I0428 20:23:48.772166  2317 net.cpp:369] relu2 -> ip2 (in-place)
I0428 20:23:48.772332  2317 net.cpp:124] Setting up relu2
I0428 20:23:48.772341  2317 net.cpp:131] Top shape: 100 10 (1000)
I0428 20:23:48.772343  2317 net.cpp:139] Memory required for data: 17942800
I0428 20:23:48.772346  2317 layer_factory.hpp:77] Creating layer ip3
I0428 20:23:48.772352  2317 net.cpp:86] Creating Layer ip3
I0428 20:23:48.772372  2317 net.cpp:408] ip3 <- ip2
I0428 20:23:48.772378  2317 net.cpp:382] ip3 -> ip3
I0428 20:23:48.772475  2317 net.cpp:124] Setting up ip3
I0428 20:23:48.772483  2317 net.cpp:131] Top shape: 100 10 (1000)
I0428 20:23:48.772486  2317 net.cpp:139] Memory required for data: 17946800
I0428 20:23:48.772495  2317 layer_factory.hpp:77] Creating layer relu3
I0428 20:23:48.772500  2317 net.cpp:86] Creating Layer relu3
I0428 20:23:48.772502  2317 net.cpp:408] relu3 <- ip3
I0428 20:23:48.772506  2317 net.cpp:369] relu3 -> ip3 (in-place)
I0428 20:23:48.773391  2317 net.cpp:124] Setting up relu3
I0428 20:23:48.773402  2317 net.cpp:131] Top shape: 100 10 (1000)
I0428 20:23:48.773406  2317 net.cpp:139] Memory required for data: 17950800
I0428 20:23:48.773409  2317 layer_factory.hpp:77] Creating layer ip3_relu3_0_split
I0428 20:23:48.773416  2317 net.cpp:86] Creating Layer ip3_relu3_0_split
I0428 20:23:48.773418  2317 net.cpp:408] ip3_relu3_0_split <- ip3
I0428 20:23:48.773424  2317 net.cpp:382] ip3_relu3_0_split -> ip3_relu3_0_split_0
I0428 20:23:48.773430  2317 net.cpp:382] ip3_relu3_0_split -> ip3_relu3_0_split_1
I0428 20:23:48.773465  2317 net.cpp:124] Setting up ip3_relu3_0_split
I0428 20:23:48.773473  2317 net.cpp:131] Top shape: 100 10 (1000)
I0428 20:23:48.773476  2317 net.cpp:131] Top shape: 100 10 (1000)
I0428 20:23:48.773478  2317 net.cpp:139] Memory required for data: 17958800
I0428 20:23:48.773481  2317 layer_factory.hpp:77] Creating layer accuracy
I0428 20:23:48.773488  2317 net.cpp:86] Creating Layer accuracy
I0428 20:23:48.773490  2317 net.cpp:408] accuracy <- ip3_relu3_0_split_0
I0428 20:23:48.773494  2317 net.cpp:408] accuracy <- label_mnist_1_split_0
I0428 20:23:48.773499  2317 net.cpp:382] accuracy -> accuracy
…
