…
I0428 20:06:10.288542 30807 net.cpp:296] The NetState phase (0) differed from the phase (1) specified by a rule in layer mnist
I0428 20:06:10.288555 30807 net.cpp:296] The NetState phase (0) differed from the phase (1) specified by a rule in layer accuracy
I0428 20:06:10.288625 30807 net.cpp:53] Initializing net from parameters: 
name: "LeNet"
state {
  phase: TRAIN
  level: 0
  stage: ""
}
layer {
  name: "mnist"
  type: "Data"
  top: "data"
  top: "label"
  include {
    phase: TRAIN
  }
  transform_param {
    scale: 0.00390625
  }
  data_param {
    source: "examples/mnist/mnist_train_lmdb"
    batch_size: 64
    backend: LMDB
  }
}
layer {
  name: "conv0"
  type: "Convolution"
  bottom: "data"
  top: "conv0"
  param {
    lr_mult: 1
  }
  param {
    lr_mult: 2
  }
  convolution_param {
    num_output: 25
    kernel_size: 5
    stride: 1
    weight_filler {
      type: "xavier"
    }
    bias_filler {
      type: "constant"
    }
  }
}
layer {
  name: "pool0"
  type: "Pooling"
  bottom: "conv0"
  top: "pool0"
  pooling_param {
    pool: MAX
    kernel_size: 2
    stride: 2
  }
}
layer {
  name: "conv1"
  type: "Convolution"
  bottom: "pool0"
  top: "conv1"
  param {
    lr_mult: 1
  }
  param {
    lr_mult: 2
  }
  convolution_param {
    num_output: 5
    kernel_size: 5
    stride: 1
    weight_filler {
      type: "xavier"
    }
    bias_filler {
      type: "constant"
    }
  }
}
layer {
  name: "pool1"
  type: "Pooling"
  bottom: "conv1"
  top: "pool1"
  pooling_param {
    pool: MAX
    kernel_size: 2
    stride: 2
  }
}
layer {
  name: "ip1"
  type: "InnerProduct"
  bottom: "pool1"
  top: "ip1"
  param {
    lr_mult: 1
  }
  param {
    lr_mult: 2
  }
  inner_product_param {
    num_output: 25
    weight_filler {
      type: "xavier"
    }
    bias_filler {
      type: "constant"
    }
  }
}
layer {
  name: "relu1"
  type: "ReLU"
  bottom: "ip1"
  top: "ip1"
}
layer {
  name: "ip2"
  type: "InnerProduct"
  bottom: "ip1"
  top: "ip2"
  param {
    lr_mult: 1
  }
  param {
    lr_mult: 2
  }
  inner_product_param {
    num_output: 10
    weight_filler {
      type: "xavier"
    }
    bias_filler {
      type: "constant"
    }
  }
}
layer {
  name: "relu2"
  type: "ReLU"
  bottom: "ip2"
  top: "ip2"
}
layer {
  name: "loss"
  type: "SoftmaxWithLoss"
  bottom: "ip2"
  bottom: "label"
  top: "loss"
}
I0428 20:06:10.288686 30807 layer_factory.hpp:77] Creating layer mnist
I0428 20:06:10.288765 30807 db_lmdb.cpp:35] Opened lmdb examples/mnist/mnist_train_lmdb
I0428 20:06:10.288784 30807 net.cpp:86] Creating Layer mnist
I0428 20:06:10.288791 30807 net.cpp:382] mnist -> data
I0428 20:06:10.288815 30807 net.cpp:382] mnist -> label
I0428 20:06:10.289886 30807 data_layer.cpp:45] output data size: 64,1,28,28
I0428 20:06:10.292340 30807 net.cpp:124] Setting up mnist
I0428 20:06:10.292383 30807 net.cpp:131] Top shape: 64 1 28 28 (50176)
I0428 20:06:10.292388 30807 net.cpp:131] Top shape: 64 (64)
I0428 20:06:10.292392 30807 net.cpp:139] Memory required for data: 200960
I0428 20:06:10.292397 30807 layer_factory.hpp:77] Creating layer conv0
I0428 20:06:10.292429 30807 net.cpp:86] Creating Layer conv0
I0428 20:06:10.292434 30807 net.cpp:408] conv0 <- data
I0428 20:06:10.292445 30807 net.cpp:382] conv0 -> conv0
I0428 20:06:10.523887 30807 net.cpp:124] Setting up conv0
I0428 20:06:10.523913 30807 net.cpp:131] Top shape: 64 25 24 24 (921600)
I0428 20:06:10.523917 30807 net.cpp:139] Memory required for data: 3887360
I0428 20:06:10.523950 30807 layer_factory.hpp:77] Creating layer pool0
I0428 20:06:10.523962 30807 net.cpp:86] Creating Layer pool0
I0428 20:06:10.523967 30807 net.cpp:408] pool0 <- conv0
I0428 20:06:10.523972 30807 net.cpp:382] pool0 -> pool0
I0428 20:06:10.524014 30807 net.cpp:124] Setting up pool0
I0428 20:06:10.524022 30807 net.cpp:131] Top shape: 64 25 12 12 (230400)
I0428 20:06:10.524025 30807 net.cpp:139] Memory required for data: 4808960
I0428 20:06:10.524029 30807 layer_factory.hpp:77] Creating layer conv1
I0428 20:06:10.524039 30807 net.cpp:86] Creating Layer conv1
I0428 20:06:10.524041 30807 net.cpp:408] conv1 <- pool0
I0428 20:06:10.524046 30807 net.cpp:382] conv1 -> conv1
I0428 20:06:10.526872 30807 net.cpp:124] Setting up conv1
I0428 20:06:10.526887 30807 net.cpp:131] Top shape: 64 5 8 8 (20480)
I0428 20:06:10.526890 30807 net.cpp:139] Memory required for data: 4890880
I0428 20:06:10.526899 30807 layer_factory.hpp:77] Creating layer pool1
I0428 20:06:10.526906 30807 net.cpp:86] Creating Layer pool1
I0428 20:06:10.526924 30807 net.cpp:408] pool1 <- conv1
I0428 20:06:10.526929 30807 net.cpp:382] pool1 -> pool1
I0428 20:06:10.526994 30807 net.cpp:124] Setting up pool1
I0428 20:06:10.526999 30807 net.cpp:131] Top shape: 64 5 4 4 (5120)
I0428 20:06:10.527003 30807 net.cpp:139] Memory required for data: 4911360
I0428 20:06:10.527005 30807 layer_factory.hpp:77] Creating layer ip1
I0428 20:06:10.527011 30807 net.cpp:86] Creating Layer ip1
I0428 20:06:10.527014 30807 net.cpp:408] ip1 <- pool1
I0428 20:06:10.527019 30807 net.cpp:382] ip1 -> ip1
I0428 20:06:10.527115 30807 net.cpp:124] Setting up ip1
I0428 20:06:10.527123 30807 net.cpp:131] Top shape: 64 25 (1600)
I0428 20:06:10.527127 30807 net.cpp:139] Memory required for data: 4917760
I0428 20:06:10.527134 30807 layer_factory.hpp:77] Creating layer relu1
I0428 20:06:10.527139 30807 net.cpp:86] Creating Layer relu1
I0428 20:06:10.527143 30807 net.cpp:408] relu1 <- ip1
I0428 20:06:10.527146 30807 net.cpp:369] relu1 -> ip1 (in-place)
I0428 20:06:10.527336 30807 net.cpp:124] Setting up relu1
I0428 20:06:10.527345 30807 net.cpp:131] Top shape: 64 25 (1600)
I0428 20:06:10.527349 30807 net.cpp:139] Memory required for data: 4924160
I0428 20:06:10.527353 30807 layer_factory.hpp:77] Creating layer ip2
I0428 20:06:10.527359 30807 net.cpp:86] Creating Layer ip2
I0428 20:06:10.527361 30807 net.cpp:408] ip2 <- ip1
I0428 20:06:10.527366 30807 net.cpp:382] ip2 -> ip2
I0428 20:06:10.527470 30807 net.cpp:124] Setting up ip2
I0428 20:06:10.527477 30807 net.cpp:131] Top shape: 64 10 (640)
I0428 20:06:10.527480 30807 net.cpp:139] Memory required for data: 4926720
I0428 20:06:10.527485 30807 layer_factory.hpp:77] Creating layer relu2
I0428 20:06:10.527492 30807 net.cpp:86] Creating Layer relu2
I0428 20:06:10.527494 30807 net.cpp:408] relu2 <- ip2
I0428 20:06:10.527498 30807 net.cpp:369] relu2 -> ip2 (in-place)
I0428 20:06:10.528268 30807 net.cpp:124] Setting up relu2
I0428 20:06:10.528280 30807 net.cpp:131] Top shape: 64 10 (640)
I0428 20:06:10.528283 30807 net.cpp:139] Memory required for data: 4929280
I0428 20:06:10.528287 30807 layer_factory.hpp:77] Creating layer loss
I0428 20:06:10.528293 30807 net.cpp:86] Creating Layer loss
I0428 20:06:10.528296 30807 net.cpp:408] loss <- ip2
I0428 20:06:10.528316 30807 net.cpp:408] loss <- label
I0428 20:06:10.528321 30807 net.cpp:382] loss -> loss
I0428 20:06:10.528340 30807 layer_factory.hpp:77] Creating layer loss
…
I0428 20:06:10.528964 30807 solver.cpp:173] Creating test net (#0) specified by net file: ECE595/mnist/train_test/var_everything2/lenet_train_test1020.prototxt
I0428 20:06:10.528990 30807 net.cpp:296] The NetState phase (1) differed from the phase (0) specified by a rule in layer mnist
I0428 20:06:10.529073 30807 net.cpp:53] Initializing net from parameters: 
name: "LeNet"
state {
  phase: TEST
}
layer {
  name: "mnist"
  type: "Data"
  top: "data"
  top: "label"
  include {
    phase: TEST
  }
  transform_param {
    scale: 0.00390625
  }
  data_param {
    source: "examples/mnist/mnist_test_lmdb"
    batch_size: 100
    backend: LMDB
  }
}
layer {
  name: "conv0"
  type: "Convolution"
  bottom: "data"
  top: "conv0"
  param {
    lr_mult: 1
  }
  param {
    lr_mult: 2
  }
  convolution_param {
    num_output: 25
    kernel_size: 5
    stride: 1
    weight_filler {
      type: "xavier"
    }
    bias_filler {
      type: "constant"
    }
  }
}
layer {
  name: "pool0"
  type: "Pooling"
  bottom: "conv0"
  top: "pool0"
  pooling_param {
    pool: MAX
    kernel_size: 2
    stride: 2
  }
}
layer {
  name: "conv1"
  type: "Convolution"
  bottom: "pool0"
  top: "conv1"
  param {
    lr_mult: 1
  }
  param {
    lr_mult: 2
  }
  convolution_param {
    num_output: 5
    kernel_size: 5
    stride: 1
    weight_filler {
      type: "xavier"
    }
    bias_filler {
      type: "constant"
    }
  }
}
layer {
  name: "pool1"
  type: "Pooling"
  bottom: "conv1"
  top: "pool1"
  pooling_param {
    pool: MAX
    kernel_size: 2
    stride: 2
  }
}
layer {
  name: "ip1"
  type: "InnerProduct"
  bottom: "pool1"
  top: "ip1"
  param {
    lr_mult: 1
  }
  param {
    lr_mult: 2
  }
  inner_product_param {
    num_output: 25
    weight_filler {
      type: "xavier"
    }
    bias_filler {
      type: "constant"
    }
  }
}
layer {
  name: "relu1"
  type: "ReLU"
  bottom: "ip1"
  top: "ip1"
}
layer {
  name: "ip2"
  type: "InnerProduct"
  bottom: "ip1"
  top: "ip2"
  param {
    lr_mult: 1
  }
  param {
    lr_mult: 2
  }
  inner_product_param {
    num_output: 10
    weight_filler {
      type: "xavier"
    }
    bias_filler {
      type: "constant"
    }
  }
}
layer {
  name: "relu2"
  type: "ReLU"
  bottom: "ip2"
  top: "ip2"
}
layer {
  name: "accuracy"
  type: "Accuracy"
  bottom: "ip2"
  bottom: "label"
  top: "accuracy"
  include {
    phase: TEST
  }
}
layer {
  name: "loss"
  type: "SoftmaxWithLoss"
  bottom: "ip2"
  bottom: "label"
  top: "loss"
}
I0428 20:06:10.529166 30807 layer_factory.hpp:77] Creating layer mnist
I0428 20:06:10.529211 30807 db_lmdb.cpp:35] Opened lmdb examples/mnist/mnist_test_lmdb
I0428 20:06:10.529222 30807 net.cpp:86] Creating Layer mnist
I0428 20:06:10.529227 30807 net.cpp:382] mnist -> data
I0428 20:06:10.529234 30807 net.cpp:382] mnist -> label
I0428 20:06:10.529343 30807 data_layer.cpp:45] output data size: 100,1,28,28
I0428 20:06:10.531328 30807 net.cpp:124] Setting up mnist
I0428 20:06:10.531357 30807 net.cpp:131] Top shape: 100 1 28 28 (78400)
I0428 20:06:10.531361 30807 net.cpp:131] Top shape: 100 (100)
I0428 20:06:10.531364 30807 net.cpp:139] Memory required for data: 314000
I0428 20:06:10.531368 30807 layer_factory.hpp:77] Creating layer label_mnist_1_split
I0428 20:06:10.531375 30807 net.cpp:86] Creating Layer label_mnist_1_split
I0428 20:06:10.531378 30807 net.cpp:408] label_mnist_1_split <- label
I0428 20:06:10.531383 30807 net.cpp:382] label_mnist_1_split -> label_mnist_1_split_0
I0428 20:06:10.531389 30807 net.cpp:382] label_mnist_1_split -> label_mnist_1_split_1
I0428 20:06:10.531440 30807 net.cpp:124] Setting up label_mnist_1_split
I0428 20:06:10.531455 30807 net.cpp:131] Top shape: 100 (100)
I0428 20:06:10.531460 30807 net.cpp:131] Top shape: 100 (100)
I0428 20:06:10.531462 30807 net.cpp:139] Memory required for data: 314800
I0428 20:06:10.531466 30807 layer_factory.hpp:77] Creating layer conv0
I0428 20:06:10.531473 30807 net.cpp:86] Creating Layer conv0
I0428 20:06:10.531476 30807 net.cpp:408] conv0 <- data
I0428 20:06:10.531481 30807 net.cpp:382] conv0 -> conv0
I0428 20:06:10.533283 30807 net.cpp:124] Setting up conv0
I0428 20:06:10.533298 30807 net.cpp:131] Top shape: 100 25 24 24 (1440000)
I0428 20:06:10.533301 30807 net.cpp:139] Memory required for data: 6074800
I0428 20:06:10.533310 30807 layer_factory.hpp:77] Creating layer pool0
I0428 20:06:10.533316 30807 net.cpp:86] Creating Layer pool0
I0428 20:06:10.533335 30807 net.cpp:408] pool0 <- conv0
I0428 20:06:10.533339 30807 net.cpp:382] pool0 -> pool0
I0428 20:06:10.533375 30807 net.cpp:124] Setting up pool0
I0428 20:06:10.533380 30807 net.cpp:131] Top shape: 100 25 12 12 (360000)
I0428 20:06:10.533381 30807 net.cpp:139] Memory required for data: 7514800
I0428 20:06:10.533385 30807 layer_factory.hpp:77] Creating layer conv1
I0428 20:06:10.533392 30807 net.cpp:86] Creating Layer conv1
I0428 20:06:10.533396 30807 net.cpp:408] conv1 <- pool0
I0428 20:06:10.533401 30807 net.cpp:382] conv1 -> conv1
I0428 20:06:10.535554 30807 net.cpp:124] Setting up conv1
I0428 20:06:10.535567 30807 net.cpp:131] Top shape: 100 5 8 8 (32000)
I0428 20:06:10.535573 30807 net.cpp:139] Memory required for data: 7642800
I0428 20:06:10.535580 30807 layer_factory.hpp:77] Creating layer pool1
I0428 20:06:10.535603 30807 net.cpp:86] Creating Layer pool1
I0428 20:06:10.535627 30807 net.cpp:408] pool1 <- conv1
I0428 20:06:10.535655 30807 net.cpp:382] pool1 -> pool1
I0428 20:06:10.535694 30807 net.cpp:124] Setting up pool1
I0428 20:06:10.535706 30807 net.cpp:131] Top shape: 100 5 4 4 (8000)
I0428 20:06:10.535709 30807 net.cpp:139] Memory required for data: 7674800
I0428 20:06:10.535719 30807 layer_factory.hpp:77] Creating layer ip1
I0428 20:06:10.535724 30807 net.cpp:86] Creating Layer ip1
I0428 20:06:10.535728 30807 net.cpp:408] ip1 <- pool1
I0428 20:06:10.535732 30807 net.cpp:382] ip1 -> ip1
I0428 20:06:10.535837 30807 net.cpp:124] Setting up ip1
I0428 20:06:10.535845 30807 net.cpp:131] Top shape: 100 25 (2500)
I0428 20:06:10.535850 30807 net.cpp:139] Memory required for data: 7684800
I0428 20:06:10.535856 30807 layer_factory.hpp:77] Creating layer relu1
I0428 20:06:10.535861 30807 net.cpp:86] Creating Layer relu1
I0428 20:06:10.535876 30807 net.cpp:408] relu1 <- ip1
I0428 20:06:10.535879 30807 net.cpp:369] relu1 -> ip1 (in-place)
I0428 20:06:10.536067 30807 net.cpp:124] Setting up relu1
I0428 20:06:10.536087 30807 net.cpp:131] Top shape: 100 25 (2500)
I0428 20:06:10.536095 30807 net.cpp:139] Memory required for data: 7694800
I0428 20:06:10.536098 30807 layer_factory.hpp:77] Creating layer ip2
I0428 20:06:10.536104 30807 net.cpp:86] Creating Layer ip2
I0428 20:06:10.536113 30807 net.cpp:408] ip2 <- ip1
I0428 20:06:10.536118 30807 net.cpp:382] ip2 -> ip2
I0428 20:06:10.536209 30807 net.cpp:124] Setting up ip2
I0428 20:06:10.536216 30807 net.cpp:131] Top shape: 100 10 (1000)
I0428 20:06:10.536218 30807 net.cpp:139] Memory required for data: 7698800
I0428 20:06:10.536223 30807 layer_factory.hpp:77] Creating layer relu2
I0428 20:06:10.536228 30807 net.cpp:86] Creating Layer relu2
I0428 20:06:10.536237 30807 net.cpp:408] relu2 <- ip2
I0428 20:06:10.536240 30807 net.cpp:369] relu2 -> ip2 (in-place)
I0428 20:06:10.536397 30807 net.cpp:124] Setting up relu2
I0428 20:06:10.536406 30807 net.cpp:131] Top shape: 100 10 (1000)
I0428 20:06:10.536408 30807 net.cpp:139] Memory required for data: 7702800
I0428 20:06:10.536412 30807 layer_factory.hpp:77] Creating layer ip2_relu2_0_split
I0428 20:06:10.536415 30807 net.cpp:86] Creating Layer ip2_relu2_0_split
I0428 20:06:10.536418 30807 net.cpp:408] ip2_relu2_0_split <- ip2
I0428 20:06:10.536423 30807 net.cpp:382] ip2_relu2_0_split -> ip2_relu2_0_split_0
I0428 20:06:10.536439 30807 net.cpp:382] ip2_relu2_0_split -> ip2_relu2_0_split_1
I0428 20:06:10.536473 30807 net.cpp:124] Setting up ip2_relu2_0_split
I0428 20:06:10.536478 30807 net.cpp:131] Top shape: 100 10 (1000)
I0428 20:06:10.536489 30807 net.cpp:131] Top shape: 100 10 (1000)
I0428 20:06:10.536491 30807 net.cpp:139] Memory required for data: 7710800
I0428 20:06:10.536494 30807 layer_factory.hpp:77] Creating layer accuracy
I0428 20:06:10.536499 30807 net.cpp:86] Creating Layer accuracy
I0428 20:06:10.536502 30807 net.cpp:408] accuracy <- ip2_relu2_0_split_0
I0428 20:06:10.536506 30807 net.cpp:408] accuracy <- label_mnist_1_split_0
I0428 20:06:10.536510 30807 net.cpp:382] accuracy -> accuracy
…
