…
I0428 19:28:47.712285 21817 net.cpp:296] The NetState phase (0) differed from the phase (1) specified by a rule in layer mnist
I0428 19:28:47.712301 21817 net.cpp:296] The NetState phase (0) differed from the phase (1) specified by a rule in layer accuracy
I0428 19:28:47.712363 21817 net.cpp:53] Initializing net from parameters: 
name: "LeNet"
state {
  phase: TRAIN
  level: 0
  stage: ""
}
layer {
  name: "mnist"
  type: "Data"
  top: "data"
  top: "label"
  include {
    phase: TRAIN
  }
  transform_param {
    scale: 0.00390625
  }
  data_param {
    source: "examples/mnist/mnist_train_lmdb"
    batch_size: 64
    backend: LMDB
  }
}
layer {
  name: "ip1"
  type: "InnerProduct"
  bottom: "data"
  top: "ip1"
  param {
    lr_mult: 1
  }
  param {
    lr_mult: 2
  }
  inner_product_param {
    num_output: 50
    weight_filler {
      type: "xavier"
    }
    bias_filler {
      type: "constant"
    }
  }
}
layer {
  name: "relu1"
  type: "ReLU"
  bottom: "ip1"
  top: "ip1"
}
layer {
  name: "ip2"
  type: "InnerProduct"
  bottom: "ip1"
  top: "ip2"
  param {
    lr_mult: 1
  }
  param {
    lr_mult: 2
  }
  inner_product_param {
    num_output: 50
    weight_filler {
      type: "xavier"
    }
    bias_filler {
      type: "constant"
    }
  }
}
layer {
  name: "relu2"
  type: "ReLU"
  bottom: "ip2"
  top: "ip2"
}
layer {
  name: "ip3"
  type: "InnerProduct"
  bottom: "ip2"
  top: "ip3"
  param {
    lr_mult: 1
  }
  param {
    lr_mult: 2
  }
  inner_product_param {
    num_output: 10
    weight_filler {
      type: "xavier"
    }
    bias_filler {
      type: "constant"
    }
  }
}
layer {
  name: "relu3"
  type: "ReLU"
  bottom: "ip3"
  top: "ip3"
}
layer {
  name: "loss"
  type: "SoftmaxWithLoss"
  bottom: "ip3"
  bottom: "label"
  top: "loss"
}
I0428 19:28:47.712431 21817 layer_factory.hpp:77] Creating layer mnist
I0428 19:28:47.712538 21817 db_lmdb.cpp:35] Opened lmdb examples/mnist/mnist_train_lmdb
I0428 19:28:47.712564 21817 net.cpp:86] Creating Layer mnist
I0428 19:28:47.712574 21817 net.cpp:382] mnist -> data
I0428 19:28:47.712611 21817 net.cpp:382] mnist -> label
I0428 19:28:47.713728 21817 data_layer.cpp:45] output data size: 64,1,28,28
I0428 19:28:47.715874 21817 net.cpp:124] Setting up mnist
I0428 19:28:47.715906 21817 net.cpp:131] Top shape: 64 1 28 28 (50176)
I0428 19:28:47.715914 21817 net.cpp:131] Top shape: 64 (64)
I0428 19:28:47.715920 21817 net.cpp:139] Memory required for data: 200960
I0428 19:28:47.715929 21817 layer_factory.hpp:77] Creating layer ip1
I0428 19:28:47.715942 21817 net.cpp:86] Creating Layer ip1
I0428 19:28:47.715953 21817 net.cpp:408] ip1 <- data
I0428 19:28:47.715967 21817 net.cpp:382] ip1 -> ip1
I0428 19:28:47.716349 21817 net.cpp:124] Setting up ip1
I0428 19:28:47.716359 21817 net.cpp:131] Top shape: 64 50 (3200)
I0428 19:28:47.716364 21817 net.cpp:139] Memory required for data: 213760
I0428 19:28:47.716382 21817 layer_factory.hpp:77] Creating layer relu1
I0428 19:28:47.716392 21817 net.cpp:86] Creating Layer relu1
I0428 19:28:47.716400 21817 net.cpp:408] relu1 <- ip1
I0428 19:28:47.716408 21817 net.cpp:369] relu1 -> ip1 (in-place)
I0428 19:28:47.944597 21817 net.cpp:124] Setting up relu1
I0428 19:28:47.944627 21817 net.cpp:131] Top shape: 64 50 (3200)
I0428 19:28:47.944631 21817 net.cpp:139] Memory required for data: 226560
I0428 19:28:47.944638 21817 layer_factory.hpp:77] Creating layer ip2
I0428 19:28:47.944669 21817 net.cpp:86] Creating Layer ip2
I0428 19:28:47.944692 21817 net.cpp:408] ip2 <- ip1
I0428 19:28:47.944705 21817 net.cpp:382] ip2 -> ip2
I0428 19:28:47.945739 21817 net.cpp:124] Setting up ip2
I0428 19:28:47.945754 21817 net.cpp:131] Top shape: 64 50 (3200)
I0428 19:28:47.945758 21817 net.cpp:139] Memory required for data: 239360
I0428 19:28:47.945775 21817 layer_factory.hpp:77] Creating layer relu2
I0428 19:28:47.945786 21817 net.cpp:86] Creating Layer relu2
I0428 19:28:47.945794 21817 net.cpp:408] relu2 <- ip2
I0428 19:28:47.945802 21817 net.cpp:369] relu2 -> ip2 (in-place)
I0428 19:28:47.946570 21817 net.cpp:124] Setting up relu2
I0428 19:28:47.946585 21817 net.cpp:131] Top shape: 64 50 (3200)
I0428 19:28:47.946590 21817 net.cpp:139] Memory required for data: 252160
I0428 19:28:47.946596 21817 layer_factory.hpp:77] Creating layer ip3
I0428 19:28:47.946607 21817 net.cpp:86] Creating Layer ip3
I0428 19:28:47.946614 21817 net.cpp:408] ip3 <- ip2
I0428 19:28:47.946624 21817 net.cpp:382] ip3 -> ip3
I0428 19:28:47.947562 21817 net.cpp:124] Setting up ip3
I0428 19:28:47.947576 21817 net.cpp:131] Top shape: 64 10 (640)
I0428 19:28:47.947582 21817 net.cpp:139] Memory required for data: 254720
I0428 19:28:47.947597 21817 layer_factory.hpp:77] Creating layer relu3
I0428 19:28:47.947605 21817 net.cpp:86] Creating Layer relu3
I0428 19:28:47.947616 21817 net.cpp:408] relu3 <- ip3
I0428 19:28:47.947623 21817 net.cpp:369] relu3 -> ip3 (in-place)
I0428 19:28:47.947794 21817 net.cpp:124] Setting up relu3
I0428 19:28:47.947804 21817 net.cpp:131] Top shape: 64 10 (640)
I0428 19:28:47.947808 21817 net.cpp:139] Memory required for data: 257280
I0428 19:28:47.947813 21817 layer_factory.hpp:77] Creating layer loss
I0428 19:28:47.947823 21817 net.cpp:86] Creating Layer loss
I0428 19:28:47.947827 21817 net.cpp:408] loss <- ip3
I0428 19:28:47.947836 21817 net.cpp:408] loss <- label
I0428 19:28:47.947844 21817 net.cpp:382] loss -> loss
I0428 19:28:47.947868 21817 layer_factory.hpp:77] Creating layer loss
…
I0428 19:28:47.948410 21817 solver.cpp:173] Creating test net (#0) specified by net file: ECE595/mnist/train_test/var_everything2/lenet_train_test37.prototxt
I0428 19:28:47.948437 21817 net.cpp:296] The NetState phase (1) differed from the phase (0) specified by a rule in layer mnist
I0428 19:28:47.948509 21817 net.cpp:53] Initializing net from parameters: 
name: "LeNet"
state {
  phase: TEST
}
layer {
  name: "mnist"
  type: "Data"
  top: "data"
  top: "label"
  include {
    phase: TEST
  }
  transform_param {
    scale: 0.00390625
  }
  data_param {
    source: "examples/mnist/mnist_test_lmdb"
    batch_size: 100
    backend: LMDB
  }
}
layer {
  name: "ip1"
  type: "InnerProduct"
  bottom: "data"
  top: "ip1"
  param {
    lr_mult: 1
  }
  param {
    lr_mult: 2
  }
  inner_product_param {
    num_output: 50
    weight_filler {
      type: "xavier"
    }
    bias_filler {
      type: "constant"
    }
  }
}
layer {
  name: "relu1"
  type: "ReLU"
  bottom: "ip1"
  top: "ip1"
}
layer {
  name: "ip2"
  type: "InnerProduct"
  bottom: "ip1"
  top: "ip2"
  param {
    lr_mult: 1
  }
  param {
    lr_mult: 2
  }
  inner_product_param {
    num_output: 50
    weight_filler {
      type: "xavier"
    }
    bias_filler {
      type: "constant"
    }
  }
}
layer {
  name: "relu2"
  type: "ReLU"
  bottom: "ip2"
  top: "ip2"
}
layer {
  name: "ip3"
  type: "InnerProduct"
  bottom: "ip2"
  top: "ip3"
  param {
    lr_mult: 1
  }
  param {
    lr_mult: 2
  }
  inner_product_param {
    num_output: 10
    weight_filler {
      type: "xavier"
    }
    bias_filler {
      type: "constant"
    }
  }
}
layer {
  name: "relu3"
  type: "ReLU"
  bottom: "ip3"
  top: "ip3"
}
layer {
  name: "accuracy"
  type: "Accuracy"
  bottom: "ip3"
  bottom: "label"
  top: "accuracy"
  include {
    phase: TEST
  }
}
layer {
  name: "loss"
  type: "SoftmaxWithLoss"
  bottom: "ip3"
  bottom: "label"
  top: "loss"
}
I0428 19:28:47.948604 21817 layer_factory.hpp:77] Creating layer mnist
I0428 19:28:47.948663 21817 db_lmdb.cpp:35] Opened lmdb examples/mnist/mnist_test_lmdb
I0428 19:28:47.948681 21817 net.cpp:86] Creating Layer mnist
I0428 19:28:47.948688 21817 net.cpp:382] mnist -> data
I0428 19:28:47.948700 21817 net.cpp:382] mnist -> label
I0428 19:28:47.948833 21817 data_layer.cpp:45] output data size: 100,1,28,28
I0428 19:28:47.951030 21817 net.cpp:124] Setting up mnist
I0428 19:28:47.951061 21817 net.cpp:131] Top shape: 100 1 28 28 (78400)
I0428 19:28:47.951068 21817 net.cpp:131] Top shape: 100 (100)
I0428 19:28:47.951074 21817 net.cpp:139] Memory required for data: 314000
I0428 19:28:47.951081 21817 layer_factory.hpp:77] Creating layer label_mnist_1_split
I0428 19:28:47.951105 21817 net.cpp:86] Creating Layer label_mnist_1_split
I0428 19:28:47.951112 21817 net.cpp:408] label_mnist_1_split <- label
I0428 19:28:47.951122 21817 net.cpp:382] label_mnist_1_split -> label_mnist_1_split_0
I0428 19:28:47.951133 21817 net.cpp:382] label_mnist_1_split -> label_mnist_1_split_1
I0428 19:28:47.951220 21817 net.cpp:124] Setting up label_mnist_1_split
I0428 19:28:47.951228 21817 net.cpp:131] Top shape: 100 (100)
I0428 19:28:47.951236 21817 net.cpp:131] Top shape: 100 (100)
I0428 19:28:47.951241 21817 net.cpp:139] Memory required for data: 314800
I0428 19:28:47.951246 21817 layer_factory.hpp:77] Creating layer ip1
I0428 19:28:47.951256 21817 net.cpp:86] Creating Layer ip1
I0428 19:28:47.951262 21817 net.cpp:408] ip1 <- data
I0428 19:28:47.951270 21817 net.cpp:382] ip1 -> ip1
I0428 19:28:47.951619 21817 net.cpp:124] Setting up ip1
I0428 19:28:47.951629 21817 net.cpp:131] Top shape: 100 50 (5000)
I0428 19:28:47.951633 21817 net.cpp:139] Memory required for data: 334800
I0428 19:28:47.951647 21817 layer_factory.hpp:77] Creating layer relu1
I0428 19:28:47.951654 21817 net.cpp:86] Creating Layer relu1
I0428 19:28:47.951659 21817 net.cpp:408] relu1 <- ip1
I0428 19:28:47.951666 21817 net.cpp:369] relu1 -> ip1 (in-place)
I0428 19:28:47.952571 21817 net.cpp:124] Setting up relu1
I0428 19:28:47.952584 21817 net.cpp:131] Top shape: 100 50 (5000)
I0428 19:28:47.952589 21817 net.cpp:139] Memory required for data: 354800
I0428 19:28:47.952608 21817 layer_factory.hpp:77] Creating layer ip2
I0428 19:28:47.952620 21817 net.cpp:86] Creating Layer ip2
I0428 19:28:47.952625 21817 net.cpp:408] ip2 <- ip1
I0428 19:28:47.952633 21817 net.cpp:382] ip2 -> ip2
I0428 19:28:47.952747 21817 net.cpp:124] Setting up ip2
I0428 19:28:47.952755 21817 net.cpp:131] Top shape: 100 50 (5000)
I0428 19:28:47.952760 21817 net.cpp:139] Memory required for data: 374800
I0428 19:28:47.952772 21817 layer_factory.hpp:77] Creating layer relu2
I0428 19:28:47.952781 21817 net.cpp:86] Creating Layer relu2
I0428 19:28:47.952786 21817 net.cpp:408] relu2 <- ip2
I0428 19:28:47.952793 21817 net.cpp:369] relu2 -> ip2 (in-place)
I0428 19:28:47.952986 21817 net.cpp:124] Setting up relu2
I0428 19:28:47.952997 21817 net.cpp:131] Top shape: 100 50 (5000)
I0428 19:28:47.953002 21817 net.cpp:139] Memory required for data: 394800
I0428 19:28:47.953008 21817 layer_factory.hpp:77] Creating layer ip3
I0428 19:28:47.953017 21817 net.cpp:86] Creating Layer ip3
I0428 19:28:47.953022 21817 net.cpp:408] ip3 <- ip2
I0428 19:28:47.953032 21817 net.cpp:382] ip3 -> ip3
I0428 19:28:47.953156 21817 net.cpp:124] Setting up ip3
I0428 19:28:47.953166 21817 net.cpp:131] Top shape: 100 10 (1000)
I0428 19:28:47.953171 21817 net.cpp:139] Memory required for data: 398800
I0428 19:28:47.953197 21817 layer_factory.hpp:77] Creating layer relu3
I0428 19:28:47.953204 21817 net.cpp:86] Creating Layer relu3
I0428 19:28:47.953209 21817 net.cpp:408] relu3 <- ip3
I0428 19:28:47.953217 21817 net.cpp:369] relu3 -> ip3 (in-place)
I0428 19:28:47.953445 21817 net.cpp:124] Setting up relu3
I0428 19:28:47.953454 21817 net.cpp:131] Top shape: 100 10 (1000)
I0428 19:28:47.953459 21817 net.cpp:139] Memory required for data: 402800
I0428 19:28:47.953464 21817 layer_factory.hpp:77] Creating layer ip3_relu3_0_split
I0428 19:28:47.953474 21817 net.cpp:86] Creating Layer ip3_relu3_0_split
I0428 19:28:47.953479 21817 net.cpp:408] ip3_relu3_0_split <- ip3
I0428 19:28:47.953485 21817 net.cpp:382] ip3_relu3_0_split -> ip3_relu3_0_split_0
I0428 19:28:47.953495 21817 net.cpp:382] ip3_relu3_0_split -> ip3_relu3_0_split_1
I0428 19:28:47.953553 21817 net.cpp:124] Setting up ip3_relu3_0_split
I0428 19:28:47.953560 21817 net.cpp:131] Top shape: 100 10 (1000)
I0428 19:28:47.953567 21817 net.cpp:131] Top shape: 100 10 (1000)
I0428 19:28:47.953588 21817 net.cpp:139] Memory required for data: 410800
I0428 19:28:47.953593 21817 layer_factory.hpp:77] Creating layer accuracy
I0428 19:28:47.953608 21817 net.cpp:86] Creating Layer accuracy
I0428 19:28:47.953614 21817 net.cpp:408] accuracy <- ip3_relu3_0_split_0
I0428 19:28:47.953621 21817 net.cpp:408] accuracy <- label_mnist_1_split_0
I0428 19:28:47.953629 21817 net.cpp:382] accuracy -> accuracy
…
