…
I0428 19:50:09.603755 26943 net.cpp:296] The NetState phase (0) differed from the phase (1) specified by a rule in layer mnist
I0428 19:50:09.603772 26943 net.cpp:296] The NetState phase (0) differed from the phase (1) specified by a rule in layer accuracy
I0428 19:50:09.603863 26943 net.cpp:53] Initializing net from parameters: 
name: "LeNet"
state {
  phase: TRAIN
  level: 0
  stage: ""
}
layer {
  name: "mnist"
  type: "Data"
  top: "data"
  top: "label"
  include {
    phase: TRAIN
  }
  transform_param {
    scale: 0.00390625
  }
  data_param {
    source: "examples/mnist/mnist_train_lmdb"
    batch_size: 64
    backend: LMDB
  }
}
layer {
  name: "conv0"
  type: "Convolution"
  bottom: "data"
  top: "conv0"
  param {
    lr_mult: 1
  }
  param {
    lr_mult: 2
  }
  convolution_param {
    num_output: 5
    kernel_size: 5
    stride: 1
    weight_filler {
      type: "xavier"
    }
    bias_filler {
      type: "constant"
    }
  }
}
layer {
  name: "pool0"
  type: "Pooling"
  bottom: "conv0"
  top: "pool0"
  pooling_param {
    pool: MAX
    kernel_size: 2
    stride: 2
  }
}
layer {
  name: "conv1"
  type: "Convolution"
  bottom: "pool0"
  top: "conv1"
  param {
    lr_mult: 1
  }
  param {
    lr_mult: 2
  }
  convolution_param {
    num_output: 10
    kernel_size: 5
    stride: 1
    weight_filler {
      type: "xavier"
    }
    bias_filler {
      type: "constant"
    }
  }
}
layer {
  name: "pool1"
  type: "Pooling"
  bottom: "conv1"
  top: "pool1"
  pooling_param {
    pool: MAX
    kernel_size: 2
    stride: 2
  }
}
layer {
  name: "ip1"
  type: "InnerProduct"
  bottom: "pool1"
  top: "ip1"
  param {
    lr_mult: 1
  }
  param {
    lr_mult: 2
  }
  inner_product_param {
    num_output: 50
    weight_filler {
      type: "xavier"
    }
    bias_filler {
      type: "constant"
    }
  }
}
layer {
  name: "relu1"
  type: "ReLU"
  bottom: "ip1"
  top: "ip1"
}
layer {
  name: "ip2"
  type: "InnerProduct"
  bottom: "ip1"
  top: "ip2"
  param {
    lr_mult: 1
  }
  param {
    lr_mult: 2
  }
  inner_product_param {
    num_output: 10
    weight_filler {
      type: "xavier"
    }
    bias_filler {
      type: "constant"
    }
  }
}
layer {
  name: "relu2"
  type: "ReLU"
  bottom: "ip2"
  top: "ip2"
}
layer {
  name: "loss"
  type: "SoftmaxWithLoss"
  bottom: "ip2"
  bottom: "label"
  top: "loss"
}
I0428 19:50:09.603942 26943 layer_factory.hpp:77] Creating layer mnist
I0428 19:50:09.604043 26943 db_lmdb.cpp:35] Opened lmdb examples/mnist/mnist_train_lmdb
I0428 19:50:09.604068 26943 net.cpp:86] Creating Layer mnist
I0428 19:50:09.604075 26943 net.cpp:382] mnist -> data
I0428 19:50:09.604100 26943 net.cpp:382] mnist -> label
I0428 19:50:09.605195 26943 data_layer.cpp:45] output data size: 64,1,28,28
I0428 19:50:09.607648 26943 net.cpp:124] Setting up mnist
I0428 19:50:09.607668 26943 net.cpp:131] Top shape: 64 1 28 28 (50176)
I0428 19:50:09.607674 26943 net.cpp:131] Top shape: 64 (64)
I0428 19:50:09.607677 26943 net.cpp:139] Memory required for data: 200960
I0428 19:50:09.607686 26943 layer_factory.hpp:77] Creating layer conv0
I0428 19:50:09.607702 26943 net.cpp:86] Creating Layer conv0
I0428 19:50:09.607707 26943 net.cpp:408] conv0 <- data
I0428 19:50:09.607719 26943 net.cpp:382] conv0 -> conv0
I0428 19:50:09.851322 26943 net.cpp:124] Setting up conv0
I0428 19:50:09.851366 26943 net.cpp:131] Top shape: 64 5 24 24 (184320)
I0428 19:50:09.851369 26943 net.cpp:139] Memory required for data: 938240
I0428 19:50:09.851400 26943 layer_factory.hpp:77] Creating layer pool0
I0428 19:50:09.851430 26943 net.cpp:86] Creating Layer pool0
I0428 19:50:09.851434 26943 net.cpp:408] pool0 <- conv0
I0428 19:50:09.851441 26943 net.cpp:382] pool0 -> pool0
I0428 19:50:09.851491 26943 net.cpp:124] Setting up pool0
I0428 19:50:09.851500 26943 net.cpp:131] Top shape: 64 5 12 12 (46080)
I0428 19:50:09.851502 26943 net.cpp:139] Memory required for data: 1122560
I0428 19:50:09.851505 26943 layer_factory.hpp:77] Creating layer conv1
I0428 19:50:09.851517 26943 net.cpp:86] Creating Layer conv1
I0428 19:50:09.851521 26943 net.cpp:408] conv1 <- pool0
I0428 19:50:09.851526 26943 net.cpp:382] conv1 -> conv1
I0428 19:50:09.854265 26943 net.cpp:124] Setting up conv1
I0428 19:50:09.854295 26943 net.cpp:131] Top shape: 64 10 8 8 (40960)
I0428 19:50:09.854300 26943 net.cpp:139] Memory required for data: 1286400
I0428 19:50:09.854307 26943 layer_factory.hpp:77] Creating layer pool1
I0428 19:50:09.854315 26943 net.cpp:86] Creating Layer pool1
I0428 19:50:09.854318 26943 net.cpp:408] pool1 <- conv1
I0428 19:50:09.854322 26943 net.cpp:382] pool1 -> pool1
I0428 19:50:09.854374 26943 net.cpp:124] Setting up pool1
I0428 19:50:09.854384 26943 net.cpp:131] Top shape: 64 10 4 4 (10240)
I0428 19:50:09.854387 26943 net.cpp:139] Memory required for data: 1327360
I0428 19:50:09.854390 26943 layer_factory.hpp:77] Creating layer ip1
I0428 19:50:09.854398 26943 net.cpp:86] Creating Layer ip1
I0428 19:50:09.854401 26943 net.cpp:408] ip1 <- pool1
I0428 19:50:09.854405 26943 net.cpp:382] ip1 -> ip1
I0428 19:50:09.855360 26943 net.cpp:124] Setting up ip1
I0428 19:50:09.855370 26943 net.cpp:131] Top shape: 64 50 (3200)
I0428 19:50:09.855389 26943 net.cpp:139] Memory required for data: 1340160
I0428 19:50:09.855397 26943 layer_factory.hpp:77] Creating layer relu1
I0428 19:50:09.855403 26943 net.cpp:86] Creating Layer relu1
I0428 19:50:09.855406 26943 net.cpp:408] relu1 <- ip1
I0428 19:50:09.855412 26943 net.cpp:369] relu1 -> ip1 (in-place)
I0428 19:50:09.855603 26943 net.cpp:124] Setting up relu1
I0428 19:50:09.855612 26943 net.cpp:131] Top shape: 64 50 (3200)
I0428 19:50:09.855615 26943 net.cpp:139] Memory required for data: 1352960
I0428 19:50:09.855619 26943 layer_factory.hpp:77] Creating layer ip2
I0428 19:50:09.855625 26943 net.cpp:86] Creating Layer ip2
I0428 19:50:09.855629 26943 net.cpp:408] ip2 <- ip1
I0428 19:50:09.855634 26943 net.cpp:382] ip2 -> ip2
I0428 19:50:09.855731 26943 net.cpp:124] Setting up ip2
I0428 19:50:09.855737 26943 net.cpp:131] Top shape: 64 10 (640)
I0428 19:50:09.855741 26943 net.cpp:139] Memory required for data: 1355520
I0428 19:50:09.855746 26943 layer_factory.hpp:77] Creating layer relu2
I0428 19:50:09.855751 26943 net.cpp:86] Creating Layer relu2
I0428 19:50:09.855754 26943 net.cpp:408] relu2 <- ip2
I0428 19:50:09.855758 26943 net.cpp:369] relu2 -> ip2 (in-place)
I0428 19:50:09.856506 26943 net.cpp:124] Setting up relu2
I0428 19:50:09.856518 26943 net.cpp:131] Top shape: 64 10 (640)
I0428 19:50:09.856537 26943 net.cpp:139] Memory required for data: 1358080
I0428 19:50:09.856541 26943 layer_factory.hpp:77] Creating layer loss
I0428 19:50:09.856547 26943 net.cpp:86] Creating Layer loss
I0428 19:50:09.856551 26943 net.cpp:408] loss <- ip2
I0428 19:50:09.856556 26943 net.cpp:408] loss <- label
I0428 19:50:09.856561 26943 net.cpp:382] loss -> loss
I0428 19:50:09.856581 26943 layer_factory.hpp:77] Creating layer loss
…
I0428 19:50:09.857224 26943 solver.cpp:173] Creating test net (#0) specified by net file: ECE595/mnist/train_test/var_everything2/lenet_train_test596.prototxt
I0428 19:50:09.857251 26943 net.cpp:296] The NetState phase (1) differed from the phase (0) specified by a rule in layer mnist
I0428 19:50:09.857347 26943 net.cpp:53] Initializing net from parameters: 
name: "LeNet"
state {
  phase: TEST
}
layer {
  name: "mnist"
  type: "Data"
  top: "data"
  top: "label"
  include {
    phase: TEST
  }
  transform_param {
    scale: 0.00390625
  }
  data_param {
    source: "examples/mnist/mnist_test_lmdb"
    batch_size: 100
    backend: LMDB
  }
}
layer {
  name: "conv0"
  type: "Convolution"
  bottom: "data"
  top: "conv0"
  param {
    lr_mult: 1
  }
  param {
    lr_mult: 2
  }
  convolution_param {
    num_output: 5
    kernel_size: 5
    stride: 1
    weight_filler {
      type: "xavier"
    }
    bias_filler {
      type: "constant"
    }
  }
}
layer {
  name: "pool0"
  type: "Pooling"
  bottom: "conv0"
  top: "pool0"
  pooling_param {
    pool: MAX
    kernel_size: 2
    stride: 2
  }
}
layer {
  name: "conv1"
  type: "Convolution"
  bottom: "pool0"
  top: "conv1"
  param {
    lr_mult: 1
  }
  param {
    lr_mult: 2
  }
  convolution_param {
    num_output: 10
    kernel_size: 5
    stride: 1
    weight_filler {
      type: "xavier"
    }
    bias_filler {
      type: "constant"
    }
  }
}
layer {
  name: "pool1"
  type: "Pooling"
  bottom: "conv1"
  top: "pool1"
  pooling_param {
    pool: MAX
    kernel_size: 2
    stride: 2
  }
}
layer {
  name: "ip1"
  type: "InnerProduct"
  bottom: "pool1"
  top: "ip1"
  param {
    lr_mult: 1
  }
  param {
    lr_mult: 2
  }
  inner_product_param {
    num_output: 50
    weight_filler {
      type: "xavier"
    }
    bias_filler {
      type: "constant"
    }
  }
}
layer {
  name: "relu1"
  type: "ReLU"
  bottom: "ip1"
  top: "ip1"
}
layer {
  name: "ip2"
  type: "InnerProduct"
  bottom: "ip1"
  top: "ip2"
  param {
    lr_mult: 1
  }
  param {
    lr_mult: 2
  }
  inner_product_param {
    num_output: 10
    weight_filler {
      type: "xavier"
    }
    bias_filler {
      type: "constant"
    }
  }
}
layer {
  name: "relu2"
  type: "ReLU"
  bottom: "ip2"
  top: "ip2"
}
layer {
  name: "accuracy"
  type: "Accuracy"
  bottom: "ip2"
  bottom: "label"
  top: "accuracy"
  include {
    phase: TEST
  }
}
layer {
  name: "loss"
  type: "SoftmaxWithLoss"
  bottom: "ip2"
  bottom: "label"
  top: "loss"
}
I0428 19:50:09.857409 26943 layer_factory.hpp:77] Creating layer mnist
I0428 19:50:09.857452 26943 db_lmdb.cpp:35] Opened lmdb examples/mnist/mnist_test_lmdb
I0428 19:50:09.857465 26943 net.cpp:86] Creating Layer mnist
I0428 19:50:09.857470 26943 net.cpp:382] mnist -> data
I0428 19:50:09.857476 26943 net.cpp:382] mnist -> label
I0428 19:50:09.857573 26943 data_layer.cpp:45] output data size: 100,1,28,28
I0428 19:50:09.859771 26943 net.cpp:124] Setting up mnist
I0428 19:50:09.859783 26943 net.cpp:131] Top shape: 100 1 28 28 (78400)
I0428 19:50:09.859804 26943 net.cpp:131] Top shape: 100 (100)
I0428 19:50:09.859808 26943 net.cpp:139] Memory required for data: 314000
I0428 19:50:09.859812 26943 layer_factory.hpp:77] Creating layer label_mnist_1_split
I0428 19:50:09.859823 26943 net.cpp:86] Creating Layer label_mnist_1_split
I0428 19:50:09.859827 26943 net.cpp:408] label_mnist_1_split <- label
I0428 19:50:09.859832 26943 net.cpp:382] label_mnist_1_split -> label_mnist_1_split_0
I0428 19:50:09.859838 26943 net.cpp:382] label_mnist_1_split -> label_mnist_1_split_1
I0428 19:50:09.859928 26943 net.cpp:124] Setting up label_mnist_1_split
I0428 19:50:09.859944 26943 net.cpp:131] Top shape: 100 (100)
I0428 19:50:09.859948 26943 net.cpp:131] Top shape: 100 (100)
I0428 19:50:09.859951 26943 net.cpp:139] Memory required for data: 314800
I0428 19:50:09.859954 26943 layer_factory.hpp:77] Creating layer conv0
I0428 19:50:09.859963 26943 net.cpp:86] Creating Layer conv0
I0428 19:50:09.859966 26943 net.cpp:408] conv0 <- data
I0428 19:50:09.859972 26943 net.cpp:382] conv0 -> conv0
I0428 19:50:09.861773 26943 net.cpp:124] Setting up conv0
I0428 19:50:09.861801 26943 net.cpp:131] Top shape: 100 5 24 24 (288000)
I0428 19:50:09.861805 26943 net.cpp:139] Memory required for data: 1466800
I0428 19:50:09.861814 26943 layer_factory.hpp:77] Creating layer pool0
I0428 19:50:09.861819 26943 net.cpp:86] Creating Layer pool0
I0428 19:50:09.861824 26943 net.cpp:408] pool0 <- conv0
I0428 19:50:09.861827 26943 net.cpp:382] pool0 -> pool0
I0428 19:50:09.861862 26943 net.cpp:124] Setting up pool0
I0428 19:50:09.861866 26943 net.cpp:131] Top shape: 100 5 12 12 (72000)
I0428 19:50:09.861870 26943 net.cpp:139] Memory required for data: 1754800
I0428 19:50:09.861872 26943 layer_factory.hpp:77] Creating layer conv1
I0428 19:50:09.861881 26943 net.cpp:86] Creating Layer conv1
I0428 19:50:09.861883 26943 net.cpp:408] conv1 <- pool0
I0428 19:50:09.861887 26943 net.cpp:382] conv1 -> conv1
I0428 19:50:09.863936 26943 net.cpp:124] Setting up conv1
I0428 19:50:09.863948 26943 net.cpp:131] Top shape: 100 10 8 8 (64000)
I0428 19:50:09.863968 26943 net.cpp:139] Memory required for data: 2010800
I0428 19:50:09.863976 26943 layer_factory.hpp:77] Creating layer pool1
I0428 19:50:09.863984 26943 net.cpp:86] Creating Layer pool1
I0428 19:50:09.863988 26943 net.cpp:408] pool1 <- conv1
I0428 19:50:09.863992 26943 net.cpp:382] pool1 -> pool1
I0428 19:50:09.864048 26943 net.cpp:124] Setting up pool1
I0428 19:50:09.864053 26943 net.cpp:131] Top shape: 100 10 4 4 (16000)
I0428 19:50:09.864056 26943 net.cpp:139] Memory required for data: 2074800
I0428 19:50:09.864059 26943 layer_factory.hpp:77] Creating layer ip1
I0428 19:50:09.864064 26943 net.cpp:86] Creating Layer ip1
I0428 19:50:09.864068 26943 net.cpp:408] ip1 <- pool1
I0428 19:50:09.864073 26943 net.cpp:382] ip1 -> ip1
I0428 19:50:09.864210 26943 net.cpp:124] Setting up ip1
I0428 19:50:09.864218 26943 net.cpp:131] Top shape: 100 50 (5000)
I0428 19:50:09.864222 26943 net.cpp:139] Memory required for data: 2094800
I0428 19:50:09.864228 26943 layer_factory.hpp:77] Creating layer relu1
I0428 19:50:09.864233 26943 net.cpp:86] Creating Layer relu1
I0428 19:50:09.864236 26943 net.cpp:408] relu1 <- ip1
I0428 19:50:09.864240 26943 net.cpp:369] relu1 -> ip1 (in-place)
I0428 19:50:09.864419 26943 net.cpp:124] Setting up relu1
I0428 19:50:09.864428 26943 net.cpp:131] Top shape: 100 50 (5000)
I0428 19:50:09.864450 26943 net.cpp:139] Memory required for data: 2114800
I0428 19:50:09.864460 26943 layer_factory.hpp:77] Creating layer ip2
I0428 19:50:09.864469 26943 net.cpp:86] Creating Layer ip2
I0428 19:50:09.864472 26943 net.cpp:408] ip2 <- ip1
I0428 19:50:09.864478 26943 net.cpp:382] ip2 -> ip2
I0428 19:50:09.864596 26943 net.cpp:124] Setting up ip2
I0428 19:50:09.864604 26943 net.cpp:131] Top shape: 100 10 (1000)
I0428 19:50:09.864609 26943 net.cpp:139] Memory required for data: 2118800
I0428 19:50:09.864626 26943 layer_factory.hpp:77] Creating layer relu2
I0428 19:50:09.864631 26943 net.cpp:86] Creating Layer relu2
I0428 19:50:09.864635 26943 net.cpp:408] relu2 <- ip2
I0428 19:50:09.864639 26943 net.cpp:369] relu2 -> ip2 (in-place)
I0428 19:50:09.864838 26943 net.cpp:124] Setting up relu2
I0428 19:50:09.864848 26943 net.cpp:131] Top shape: 100 10 (1000)
I0428 19:50:09.864867 26943 net.cpp:139] Memory required for data: 2122800
I0428 19:50:09.864871 26943 layer_factory.hpp:77] Creating layer ip2_relu2_0_split
I0428 19:50:09.864874 26943 net.cpp:86] Creating Layer ip2_relu2_0_split
I0428 19:50:09.864877 26943 net.cpp:408] ip2_relu2_0_split <- ip2
I0428 19:50:09.864882 26943 net.cpp:382] ip2_relu2_0_split -> ip2_relu2_0_split_0
I0428 19:50:09.864899 26943 net.cpp:382] ip2_relu2_0_split -> ip2_relu2_0_split_1
I0428 19:50:09.864939 26943 net.cpp:124] Setting up ip2_relu2_0_split
I0428 19:50:09.864946 26943 net.cpp:131] Top shape: 100 10 (1000)
I0428 19:50:09.864966 26943 net.cpp:131] Top shape: 100 10 (1000)
I0428 19:50:09.864969 26943 net.cpp:139] Memory required for data: 2130800
I0428 19:50:09.864972 26943 layer_factory.hpp:77] Creating layer accuracy
I0428 19:50:09.864977 26943 net.cpp:86] Creating Layer accuracy
I0428 19:50:09.864980 26943 net.cpp:408] accuracy <- ip2_relu2_0_split_0
I0428 19:50:09.864985 26943 net.cpp:408] accuracy <- label_mnist_1_split_0
I0428 19:50:09.864990 26943 net.cpp:382] accuracy -> accuracy
…
