…
I0428 19:35:50.743410 23601 net.cpp:296] The NetState phase (0) differed from the phase (1) specified by a rule in layer mnist
I0428 19:35:50.743434 23601 net.cpp:296] The NetState phase (0) differed from the phase (1) specified by a rule in layer accuracy
I0428 19:35:50.743535 23601 net.cpp:53] Initializing net from parameters: 
name: "LeNet"
state {
  phase: TRAIN
  level: 0
  stage: ""
}
layer {
  name: "mnist"
  type: "Data"
  top: "data"
  top: "label"
  include {
    phase: TRAIN
  }
  transform_param {
    scale: 0.00390625
  }
  data_param {
    source: "examples/mnist/mnist_train_lmdb"
    batch_size: 64
    backend: LMDB
  }
}
layer {
  name: "conv0"
  type: "Convolution"
  bottom: "data"
  top: "conv0"
  param {
    lr_mult: 1
  }
  param {
    lr_mult: 2
  }
  convolution_param {
    num_output: 50
    kernel_size: 5
    stride: 1
    weight_filler {
      type: "xavier"
    }
    bias_filler {
      type: "constant"
    }
  }
}
layer {
  name: "pool0"
  type: "Pooling"
  bottom: "conv0"
  top: "pool0"
  pooling_param {
    pool: MAX
    kernel_size: 2
    stride: 2
  }
}
layer {
  name: "ip1"
  type: "InnerProduct"
  bottom: "pool0"
  top: "ip1"
  param {
    lr_mult: 1
  }
  param {
    lr_mult: 2
  }
  inner_product_param {
    num_output: 50
    weight_filler {
      type: "xavier"
    }
    bias_filler {
      type: "constant"
    }
  }
}
layer {
  name: "relu1"
  type: "ReLU"
  bottom: "ip1"
  top: "ip1"
}
layer {
  name: "ip2"
  type: "InnerProduct"
  bottom: "ip1"
  top: "ip2"
  param {
    lr_mult: 1
  }
  param {
    lr_mult: 2
  }
  inner_product_param {
    num_output: 50
    weight_filler {
      type: "xavier"
    }
    bias_filler {
      type: "constant"
    }
  }
}
layer {
  name: "relu2"
  type: "ReLU"
  bottom: "ip2"
  top: "ip2"
}
layer {
  name: "ip3"
  type: "InnerProduct"
  bottom: "ip2"
  top: "ip3"
  param {
    lr_mult: 1
  }
  param {
    lr_mult: 2
  }
  inner_product_param {
    num_output: 10
    weight_filler {
      type: "xavier"
    }
    bias_filler {
      type: "constant"
    }
  }
}
layer {
  name: "relu3"
  type: "ReLU"
  bottom: "ip3"
  top: "ip3"
}
layer {
  name: "loss"
  type: "SoftmaxWithLoss"
  bottom: "ip3"
  bottom: "label"
  top: "loss"
}
I0428 19:35:50.743646 23601 layer_factory.hpp:77] Creating layer mnist
I0428 19:35:50.743778 23601 db_lmdb.cpp:35] Opened lmdb examples/mnist/mnist_train_lmdb
I0428 19:35:50.743811 23601 net.cpp:86] Creating Layer mnist
I0428 19:35:50.743824 23601 net.cpp:382] mnist -> data
I0428 19:35:50.743856 23601 net.cpp:382] mnist -> label
I0428 19:35:50.745095 23601 data_layer.cpp:45] output data size: 64,1,28,28
I0428 19:35:50.747568 23601 net.cpp:124] Setting up mnist
I0428 19:35:50.747588 23601 net.cpp:131] Top shape: 64 1 28 28 (50176)
I0428 19:35:50.747598 23601 net.cpp:131] Top shape: 64 (64)
I0428 19:35:50.747604 23601 net.cpp:139] Memory required for data: 200960
I0428 19:35:50.747614 23601 layer_factory.hpp:77] Creating layer conv0
I0428 19:35:50.747642 23601 net.cpp:86] Creating Layer conv0
I0428 19:35:50.747653 23601 net.cpp:408] conv0 <- data
I0428 19:35:50.747670 23601 net.cpp:382] conv0 -> conv0
I0428 19:35:51.039243 23601 net.cpp:124] Setting up conv0
I0428 19:35:51.039274 23601 net.cpp:131] Top shape: 64 50 24 24 (1843200)
I0428 19:35:51.039281 23601 net.cpp:139] Memory required for data: 7573760
I0428 19:35:51.039304 23601 layer_factory.hpp:77] Creating layer pool0
I0428 19:35:51.039324 23601 net.cpp:86] Creating Layer pool0
I0428 19:35:51.039353 23601 net.cpp:408] pool0 <- conv0
I0428 19:35:51.039366 23601 net.cpp:382] pool0 -> pool0
I0428 19:35:51.039429 23601 net.cpp:124] Setting up pool0
I0428 19:35:51.039439 23601 net.cpp:131] Top shape: 64 50 12 12 (460800)
I0428 19:35:51.039445 23601 net.cpp:139] Memory required for data: 9416960
I0428 19:35:51.039451 23601 layer_factory.hpp:77] Creating layer ip1
I0428 19:35:51.039463 23601 net.cpp:86] Creating Layer ip1
I0428 19:35:51.039470 23601 net.cpp:408] ip1 <- pool0
I0428 19:35:51.039479 23601 net.cpp:382] ip1 -> ip1
I0428 19:35:51.042666 23601 net.cpp:124] Setting up ip1
I0428 19:35:51.042683 23601 net.cpp:131] Top shape: 64 50 (3200)
I0428 19:35:51.042690 23601 net.cpp:139] Memory required for data: 9429760
I0428 19:35:51.042703 23601 layer_factory.hpp:77] Creating layer relu1
I0428 19:35:51.042716 23601 net.cpp:86] Creating Layer relu1
I0428 19:35:51.042722 23601 net.cpp:408] relu1 <- ip1
I0428 19:35:51.042731 23601 net.cpp:369] relu1 -> ip1 (in-place)
I0428 19:35:51.042914 23601 net.cpp:124] Setting up relu1
I0428 19:35:51.042927 23601 net.cpp:131] Top shape: 64 50 (3200)
I0428 19:35:51.042932 23601 net.cpp:139] Memory required for data: 9442560
I0428 19:35:51.042937 23601 layer_factory.hpp:77] Creating layer ip2
I0428 19:35:51.042948 23601 net.cpp:86] Creating Layer ip2
I0428 19:35:51.042954 23601 net.cpp:408] ip2 <- ip1
I0428 19:35:51.042963 23601 net.cpp:382] ip2 -> ip2
I0428 19:35:51.043090 23601 net.cpp:124] Setting up ip2
I0428 19:35:51.043100 23601 net.cpp:131] Top shape: 64 50 (3200)
I0428 19:35:51.043107 23601 net.cpp:139] Memory required for data: 9455360
I0428 19:35:51.043119 23601 layer_factory.hpp:77] Creating layer relu2
I0428 19:35:51.043131 23601 net.cpp:86] Creating Layer relu2
I0428 19:35:51.043141 23601 net.cpp:408] relu2 <- ip2
I0428 19:35:51.043149 23601 net.cpp:369] relu2 -> ip2 (in-place)
I0428 19:35:51.043918 23601 net.cpp:124] Setting up relu2
I0428 19:35:51.043933 23601 net.cpp:131] Top shape: 64 50 (3200)
I0428 19:35:51.043939 23601 net.cpp:139] Memory required for data: 9468160
I0428 19:35:51.043946 23601 layer_factory.hpp:77] Creating layer ip3
I0428 19:35:51.043957 23601 net.cpp:86] Creating Layer ip3
I0428 19:35:51.043963 23601 net.cpp:408] ip3 <- ip2
I0428 19:35:51.043973 23601 net.cpp:382] ip3 -> ip3
I0428 19:35:51.044087 23601 net.cpp:124] Setting up ip3
I0428 19:35:51.044098 23601 net.cpp:131] Top shape: 64 10 (640)
I0428 19:35:51.044103 23601 net.cpp:139] Memory required for data: 9470720
I0428 19:35:51.044113 23601 layer_factory.hpp:77] Creating layer relu3
I0428 19:35:51.044124 23601 net.cpp:86] Creating Layer relu3
I0428 19:35:51.044133 23601 net.cpp:408] relu3 <- ip3
I0428 19:35:51.044142 23601 net.cpp:369] relu3 -> ip3 (in-place)
I0428 19:35:51.044309 23601 net.cpp:124] Setting up relu3
I0428 19:35:51.044319 23601 net.cpp:131] Top shape: 64 10 (640)
I0428 19:35:51.044325 23601 net.cpp:139] Memory required for data: 9473280
I0428 19:35:51.044332 23601 layer_factory.hpp:77] Creating layer loss
I0428 19:35:51.044340 23601 net.cpp:86] Creating Layer loss
I0428 19:35:51.044347 23601 net.cpp:408] loss <- ip3
I0428 19:35:51.044353 23601 net.cpp:408] loss <- label
I0428 19:35:51.044363 23601 net.cpp:382] loss -> loss
I0428 19:35:51.044389 23601 layer_factory.hpp:77] Creating layer loss
…
I0428 19:35:51.045100 23601 solver.cpp:173] Creating test net (#0) specified by net file: ECE595/mnist/train_test/var_everything2/lenet_train_test233.prototxt
I0428 19:35:51.045151 23601 net.cpp:296] The NetState phase (1) differed from the phase (0) specified by a rule in layer mnist
I0428 19:35:51.045243 23601 net.cpp:53] Initializing net from parameters: 
name: "LeNet"
state {
  phase: TEST
}
layer {
  name: "mnist"
  type: "Data"
  top: "data"
  top: "label"
  include {
    phase: TEST
  }
  transform_param {
    scale: 0.00390625
  }
  data_param {
    source: "examples/mnist/mnist_test_lmdb"
    batch_size: 100
    backend: LMDB
  }
}
layer {
  name: "conv0"
  type: "Convolution"
  bottom: "data"
  top: "conv0"
  param {
    lr_mult: 1
  }
  param {
    lr_mult: 2
  }
  convolution_param {
    num_output: 50
    kernel_size: 5
    stride: 1
    weight_filler {
      type: "xavier"
    }
    bias_filler {
      type: "constant"
    }
  }
}
layer {
  name: "pool0"
  type: "Pooling"
  bottom: "conv0"
  top: "pool0"
  pooling_param {
    pool: MAX
    kernel_size: 2
    stride: 2
  }
}
layer {
  name: "ip1"
  type: "InnerProduct"
  bottom: "pool0"
  top: "ip1"
  param {
    lr_mult: 1
  }
  param {
    lr_mult: 2
  }
  inner_product_param {
    num_output: 50
    weight_filler {
      type: "xavier"
    }
    bias_filler {
      type: "constant"
    }
  }
}
layer {
  name: "relu1"
  type: "ReLU"
  bottom: "ip1"
  top: "ip1"
}
layer {
  name: "ip2"
  type: "InnerProduct"
  bottom: "ip1"
  top: "ip2"
  param {
    lr_mult: 1
  }
  param {
    lr_mult: 2
  }
  inner_product_param {
    num_output: 50
    weight_filler {
      type: "xavier"
    }
    bias_filler {
      type: "constant"
    }
  }
}
layer {
  name: "relu2"
  type: "ReLU"
  bottom: "ip2"
  top: "ip2"
}
layer {
  name: "ip3"
  type: "InnerProduct"
  bottom: "ip2"
  top: "ip3"
  param {
    lr_mult: 1
  }
  param {
    lr_mult: 2
  }
  inner_product_param {
    num_output: 10
    weight_filler {
      type: "xavier"
    }
    bias_filler {
      type: "constant"
    }
  }
}
layer {
  name: "relu3"
  type: "ReLU"
  bottom: "ip3"
  top: "ip3"
}
layer {
  name: "accuracy"
  type: "Accuracy"
  bottom: "ip3"
  bottom: "label"
  top: "accuracy"
  include {
    phase: TEST
  }
}
layer {
  name: "loss"
  type: "SoftmaxWithLoss"
  bottom: "ip3"
  bottom: "label"
  top: "loss"
}
I0428 19:35:51.045343 23601 layer_factory.hpp:77] Creating layer mnist
I0428 19:35:51.045408 23601 db_lmdb.cpp:35] Opened lmdb examples/mnist/mnist_test_lmdb
I0428 19:35:51.045426 23601 net.cpp:86] Creating Layer mnist
I0428 19:35:51.045434 23601 net.cpp:382] mnist -> data
I0428 19:35:51.045446 23601 net.cpp:382] mnist -> label
I0428 19:35:51.045570 23601 data_layer.cpp:45] output data size: 100,1,28,28
I0428 19:35:51.047646 23601 net.cpp:124] Setting up mnist
I0428 19:35:51.047662 23601 net.cpp:131] Top shape: 100 1 28 28 (78400)
I0428 19:35:51.047672 23601 net.cpp:131] Top shape: 100 (100)
I0428 19:35:51.047677 23601 net.cpp:139] Memory required for data: 314000
I0428 19:35:51.047683 23601 layer_factory.hpp:77] Creating layer label_mnist_1_split
I0428 19:35:51.047698 23601 net.cpp:86] Creating Layer label_mnist_1_split
I0428 19:35:51.047706 23601 net.cpp:408] label_mnist_1_split <- label
I0428 19:35:51.047715 23601 net.cpp:382] label_mnist_1_split -> label_mnist_1_split_0
I0428 19:35:51.047727 23601 net.cpp:382] label_mnist_1_split -> label_mnist_1_split_1
I0428 19:35:51.047855 23601 net.cpp:124] Setting up label_mnist_1_split
I0428 19:35:51.047865 23601 net.cpp:131] Top shape: 100 (100)
I0428 19:35:51.047873 23601 net.cpp:131] Top shape: 100 (100)
I0428 19:35:51.047878 23601 net.cpp:139] Memory required for data: 314800
I0428 19:35:51.047896 23601 layer_factory.hpp:77] Creating layer conv0
I0428 19:35:51.047912 23601 net.cpp:86] Creating Layer conv0
I0428 19:35:51.047919 23601 net.cpp:408] conv0 <- data
I0428 19:35:51.047929 23601 net.cpp:382] conv0 -> conv0
I0428 19:35:51.049455 23601 net.cpp:124] Setting up conv0
I0428 19:35:51.049473 23601 net.cpp:131] Top shape: 100 50 24 24 (2880000)
I0428 19:35:51.049479 23601 net.cpp:139] Memory required for data: 11834800
I0428 19:35:51.049494 23601 layer_factory.hpp:77] Creating layer pool0
I0428 19:35:51.049505 23601 net.cpp:86] Creating Layer pool0
I0428 19:35:51.049513 23601 net.cpp:408] pool0 <- conv0
I0428 19:35:51.049522 23601 net.cpp:382] pool0 -> pool0
I0428 19:35:51.049567 23601 net.cpp:124] Setting up pool0
I0428 19:35:51.049577 23601 net.cpp:131] Top shape: 100 50 12 12 (720000)
I0428 19:35:51.049583 23601 net.cpp:139] Memory required for data: 14714800
I0428 19:35:51.049588 23601 layer_factory.hpp:77] Creating layer ip1
I0428 19:35:51.049599 23601 net.cpp:86] Creating Layer ip1
I0428 19:35:51.049607 23601 net.cpp:408] ip1 <- pool0
I0428 19:35:51.049615 23601 net.cpp:382] ip1 -> ip1
I0428 19:35:51.051842 23601 net.cpp:124] Setting up ip1
I0428 19:35:51.051854 23601 net.cpp:131] Top shape: 100 50 (5000)
I0428 19:35:51.051861 23601 net.cpp:139] Memory required for data: 14734800
I0428 19:35:51.051873 23601 layer_factory.hpp:77] Creating layer relu1
I0428 19:35:51.051882 23601 net.cpp:86] Creating Layer relu1
I0428 19:35:51.051894 23601 net.cpp:408] relu1 <- ip1
I0428 19:35:51.051903 23601 net.cpp:369] relu1 -> ip1 (in-place)
I0428 19:35:51.052089 23601 net.cpp:124] Setting up relu1
I0428 19:35:51.052099 23601 net.cpp:131] Top shape: 100 50 (5000)
I0428 19:35:51.052106 23601 net.cpp:139] Memory required for data: 14754800
I0428 19:35:51.052112 23601 layer_factory.hpp:77] Creating layer ip2
I0428 19:35:51.052122 23601 net.cpp:86] Creating Layer ip2
I0428 19:35:51.052129 23601 net.cpp:408] ip2 <- ip1
I0428 19:35:51.052144 23601 net.cpp:382] ip2 -> ip2
I0428 19:35:51.052269 23601 net.cpp:124] Setting up ip2
I0428 19:35:51.052278 23601 net.cpp:131] Top shape: 100 50 (5000)
I0428 19:35:51.052284 23601 net.cpp:139] Memory required for data: 14774800
I0428 19:35:51.052296 23601 layer_factory.hpp:77] Creating layer relu2
I0428 19:35:51.052305 23601 net.cpp:86] Creating Layer relu2
I0428 19:35:51.052310 23601 net.cpp:408] relu2 <- ip2
I0428 19:35:51.052319 23601 net.cpp:369] relu2 -> ip2 (in-place)
I0428 19:35:51.053154 23601 net.cpp:124] Setting up relu2
I0428 19:35:51.053169 23601 net.cpp:131] Top shape: 100 50 (5000)
I0428 19:35:51.053174 23601 net.cpp:139] Memory required for data: 14794800
I0428 19:35:51.053180 23601 layer_factory.hpp:77] Creating layer ip3
I0428 19:35:51.053192 23601 net.cpp:86] Creating Layer ip3
I0428 19:35:51.053198 23601 net.cpp:408] ip3 <- ip2
I0428 19:35:51.053208 23601 net.cpp:382] ip3 -> ip3
I0428 19:35:51.053362 23601 net.cpp:124] Setting up ip3
I0428 19:35:51.053372 23601 net.cpp:131] Top shape: 100 10 (1000)
I0428 19:35:51.053377 23601 net.cpp:139] Memory required for data: 14798800
I0428 19:35:51.053387 23601 layer_factory.hpp:77] Creating layer relu3
I0428 19:35:51.053396 23601 net.cpp:86] Creating Layer relu3
I0428 19:35:51.053403 23601 net.cpp:408] relu3 <- ip3
I0428 19:35:51.053411 23601 net.cpp:369] relu3 -> ip3 (in-place)
I0428 19:35:51.053570 23601 net.cpp:124] Setting up relu3
I0428 19:35:51.053580 23601 net.cpp:131] Top shape: 100 10 (1000)
I0428 19:35:51.053586 23601 net.cpp:139] Memory required for data: 14802800
I0428 19:35:51.053591 23601 layer_factory.hpp:77] Creating layer ip3_relu3_0_split
I0428 19:35:51.053599 23601 net.cpp:86] Creating Layer ip3_relu3_0_split
I0428 19:35:51.053609 23601 net.cpp:408] ip3_relu3_0_split <- ip3
I0428 19:35:51.053618 23601 net.cpp:382] ip3_relu3_0_split -> ip3_relu3_0_split_0
I0428 19:35:51.053628 23601 net.cpp:382] ip3_relu3_0_split -> ip3_relu3_0_split_1
I0428 19:35:51.053669 23601 net.cpp:124] Setting up ip3_relu3_0_split
I0428 19:35:51.053678 23601 net.cpp:131] Top shape: 100 10 (1000)
I0428 19:35:51.053697 23601 net.cpp:131] Top shape: 100 10 (1000)
I0428 19:35:51.053707 23601 net.cpp:139] Memory required for data: 14810800
I0428 19:35:51.053714 23601 layer_factory.hpp:77] Creating layer accuracy
I0428 19:35:51.053722 23601 net.cpp:86] Creating Layer accuracy
I0428 19:35:51.053727 23601 net.cpp:408] accuracy <- ip3_relu3_0_split_0
I0428 19:35:51.053735 23601 net.cpp:408] accuracy <- label_mnist_1_split_0
I0428 19:35:51.053742 23601 net.cpp:382] accuracy -> accuracy
…
