…
I0428 19:27:52.522372 21470 net.cpp:296] The NetState phase (0) differed from the phase (1) specified by a rule in layer mnist
I0428 19:27:52.522383 21470 net.cpp:296] The NetState phase (0) differed from the phase (1) specified by a rule in layer accuracy
I0428 19:27:52.522439 21470 net.cpp:53] Initializing net from parameters: 
name: "LeNet"
state {
  phase: TRAIN
  level: 0
  stage: ""
}
layer {
  name: "mnist"
  type: "Data"
  top: "data"
  top: "label"
  include {
    phase: TRAIN
  }
  transform_param {
    scale: 0.00390625
  }
  data_param {
    source: "examples/mnist/mnist_train_lmdb"
    batch_size: 64
    backend: LMDB
  }
}
layer {
  name: "ip1"
  type: "InnerProduct"
  bottom: "data"
  top: "ip1"
  param {
    lr_mult: 1
  }
  param {
    lr_mult: 2
  }
  inner_product_param {
    num_output: 25
    weight_filler {
      type: "xavier"
    }
    bias_filler {
      type: "constant"
    }
  }
}
layer {
  name: "relu1"
  type: "ReLU"
  bottom: "ip1"
  top: "ip1"
}
layer {
  name: "ip2"
  type: "InnerProduct"
  bottom: "ip1"
  top: "ip2"
  param {
    lr_mult: 1
  }
  param {
    lr_mult: 2
  }
  inner_product_param {
    num_output: 10
    weight_filler {
      type: "xavier"
    }
    bias_filler {
      type: "constant"
    }
  }
}
layer {
  name: "relu2"
  type: "ReLU"
  bottom: "ip2"
  top: "ip2"
}
layer {
  name: "loss"
  type: "SoftmaxWithLoss"
  bottom: "ip2"
  bottom: "label"
  top: "loss"
}
I0428 19:27:52.522497 21470 layer_factory.hpp:77] Creating layer mnist
I0428 19:27:52.522598 21470 db_lmdb.cpp:35] Opened lmdb examples/mnist/mnist_train_lmdb
I0428 19:27:52.522624 21470 net.cpp:86] Creating Layer mnist
I0428 19:27:52.522632 21470 net.cpp:382] mnist -> data
I0428 19:27:52.522657 21470 net.cpp:382] mnist -> label
I0428 19:27:52.523576 21470 data_layer.cpp:45] output data size: 64,1,28,28
I0428 19:27:52.525729 21470 net.cpp:124] Setting up mnist
I0428 19:27:52.525761 21470 net.cpp:131] Top shape: 64 1 28 28 (50176)
I0428 19:27:52.525770 21470 net.cpp:131] Top shape: 64 (64)
I0428 19:27:52.525775 21470 net.cpp:139] Memory required for data: 200960
I0428 19:27:52.525784 21470 layer_factory.hpp:77] Creating layer ip1
I0428 19:27:52.525796 21470 net.cpp:86] Creating Layer ip1
I0428 19:27:52.525810 21470 net.cpp:408] ip1 <- data
I0428 19:27:52.525826 21470 net.cpp:382] ip1 -> ip1
I0428 19:27:52.526082 21470 net.cpp:124] Setting up ip1
I0428 19:27:52.526091 21470 net.cpp:131] Top shape: 64 25 (1600)
I0428 19:27:52.526096 21470 net.cpp:139] Memory required for data: 207360
I0428 19:27:52.526113 21470 layer_factory.hpp:77] Creating layer relu1
I0428 19:27:52.526125 21470 net.cpp:86] Creating Layer relu1
I0428 19:27:52.526132 21470 net.cpp:408] relu1 <- ip1
I0428 19:27:52.526139 21470 net.cpp:369] relu1 -> ip1 (in-place)
I0428 19:27:52.753834 21470 net.cpp:124] Setting up relu1
I0428 19:27:52.753864 21470 net.cpp:131] Top shape: 64 25 (1600)
I0428 19:27:52.753868 21470 net.cpp:139] Memory required for data: 213760
I0428 19:27:52.753875 21470 layer_factory.hpp:77] Creating layer ip2
I0428 19:27:52.753890 21470 net.cpp:86] Creating Layer ip2
I0428 19:27:52.753897 21470 net.cpp:408] ip2 <- ip1
I0428 19:27:52.753908 21470 net.cpp:382] ip2 -> ip2
I0428 19:27:52.754027 21470 net.cpp:124] Setting up ip2
I0428 19:27:52.754037 21470 net.cpp:131] Top shape: 64 10 (640)
I0428 19:27:52.754041 21470 net.cpp:139] Memory required for data: 216320
I0428 19:27:52.754055 21470 layer_factory.hpp:77] Creating layer relu2
I0428 19:27:52.754082 21470 net.cpp:86] Creating Layer relu2
I0428 19:27:52.754089 21470 net.cpp:408] relu2 <- ip2
I0428 19:27:52.754096 21470 net.cpp:369] relu2 -> ip2 (in-place)
I0428 19:27:52.754817 21470 net.cpp:124] Setting up relu2
I0428 19:27:52.754830 21470 net.cpp:131] Top shape: 64 10 (640)
I0428 19:27:52.754835 21470 net.cpp:139] Memory required for data: 218880
I0428 19:27:52.754842 21470 layer_factory.hpp:77] Creating layer loss
I0428 19:27:52.754851 21470 net.cpp:86] Creating Layer loss
I0428 19:27:52.754858 21470 net.cpp:408] loss <- ip2
I0428 19:27:52.754864 21470 net.cpp:408] loss <- label
I0428 19:27:52.754873 21470 net.cpp:382] loss -> loss
I0428 19:27:52.754907 21470 layer_factory.hpp:77] Creating layer loss
…
I0428 19:27:52.756229 21470 solver.cpp:173] Creating test net (#0) specified by net file: ECE595/mnist/train_test/var_everything2/lenet_train_test6.prototxt
I0428 19:27:52.756254 21470 net.cpp:296] The NetState phase (1) differed from the phase (0) specified by a rule in layer mnist
I0428 19:27:52.756316 21470 net.cpp:53] Initializing net from parameters: 
name: "LeNet"
state {
  phase: TEST
}
layer {
  name: "mnist"
  type: "Data"
  top: "data"
  top: "label"
  include {
    phase: TEST
  }
  transform_param {
    scale: 0.00390625
  }
  data_param {
    source: "examples/mnist/mnist_test_lmdb"
    batch_size: 100
    backend: LMDB
  }
}
layer {
  name: "ip1"
  type: "InnerProduct"
  bottom: "data"
  top: "ip1"
  param {
    lr_mult: 1
  }
  param {
    lr_mult: 2
  }
  inner_product_param {
    num_output: 25
    weight_filler {
      type: "xavier"
    }
    bias_filler {
      type: "constant"
    }
  }
}
layer {
  name: "relu1"
  type: "ReLU"
  bottom: "ip1"
  top: "ip1"
}
layer {
  name: "ip2"
  type: "InnerProduct"
  bottom: "ip1"
  top: "ip2"
  param {
    lr_mult: 1
  }
  param {
    lr_mult: 2
  }
  inner_product_param {
    num_output: 10
    weight_filler {
      type: "xavier"
    }
    bias_filler {
      type: "constant"
    }
  }
}
layer {
  name: "relu2"
  type: "ReLU"
  bottom: "ip2"
  top: "ip2"
}
layer {
  name: "accuracy"
  type: "Accuracy"
  bottom: "ip2"
  bottom: "label"
  top: "accuracy"
  include {
    phase: TEST
  }
}
layer {
  name: "loss"
  type: "SoftmaxWithLoss"
  bottom: "ip2"
  bottom: "label"
  top: "loss"
}
I0428 19:27:52.756391 21470 layer_factory.hpp:77] Creating layer mnist
I0428 19:27:52.756449 21470 db_lmdb.cpp:35] Opened lmdb examples/mnist/mnist_test_lmdb
I0428 19:27:52.756466 21470 net.cpp:86] Creating Layer mnist
I0428 19:27:52.756474 21470 net.cpp:382] mnist -> data
I0428 19:27:52.756484 21470 net.cpp:382] mnist -> label
I0428 19:27:52.756595 21470 data_layer.cpp:45] output data size: 100,1,28,28
I0428 19:27:52.758787 21470 net.cpp:124] Setting up mnist
I0428 19:27:52.758817 21470 net.cpp:131] Top shape: 100 1 28 28 (78400)
I0428 19:27:52.758826 21470 net.cpp:131] Top shape: 100 (100)
I0428 19:27:52.758846 21470 net.cpp:139] Memory required for data: 314000
I0428 19:27:52.758852 21470 layer_factory.hpp:77] Creating layer label_mnist_1_split
I0428 19:27:52.758877 21470 net.cpp:86] Creating Layer label_mnist_1_split
I0428 19:27:52.758884 21470 net.cpp:408] label_mnist_1_split <- label
I0428 19:27:52.758893 21470 net.cpp:382] label_mnist_1_split -> label_mnist_1_split_0
I0428 19:27:52.758919 21470 net.cpp:382] label_mnist_1_split -> label_mnist_1_split_1
I0428 19:27:52.759011 21470 net.cpp:124] Setting up label_mnist_1_split
I0428 19:27:52.759021 21470 net.cpp:131] Top shape: 100 (100)
I0428 19:27:52.759027 21470 net.cpp:131] Top shape: 100 (100)
I0428 19:27:52.759032 21470 net.cpp:139] Memory required for data: 314800
I0428 19:27:52.759038 21470 layer_factory.hpp:77] Creating layer ip1
I0428 19:27:52.759049 21470 net.cpp:86] Creating Layer ip1
I0428 19:27:52.759057 21470 net.cpp:408] ip1 <- data
I0428 19:27:52.759065 21470 net.cpp:382] ip1 -> ip1
I0428 19:27:52.759305 21470 net.cpp:124] Setting up ip1
I0428 19:27:52.759315 21470 net.cpp:131] Top shape: 100 25 (2500)
I0428 19:27:52.759320 21470 net.cpp:139] Memory required for data: 324800
I0428 19:27:52.759335 21470 layer_factory.hpp:77] Creating layer relu1
I0428 19:27:52.759343 21470 net.cpp:86] Creating Layer relu1
I0428 19:27:52.759349 21470 net.cpp:408] relu1 <- ip1
I0428 19:27:52.759356 21470 net.cpp:369] relu1 -> ip1 (in-place)
I0428 19:27:52.759526 21470 net.cpp:124] Setting up relu1
I0428 19:27:52.759536 21470 net.cpp:131] Top shape: 100 25 (2500)
I0428 19:27:52.759541 21470 net.cpp:139] Memory required for data: 334800
I0428 19:27:52.759546 21470 layer_factory.hpp:77] Creating layer ip2
I0428 19:27:52.759557 21470 net.cpp:86] Creating Layer ip2
I0428 19:27:52.759562 21470 net.cpp:408] ip2 <- ip1
I0428 19:27:52.759570 21470 net.cpp:382] ip2 -> ip2
I0428 19:27:52.759683 21470 net.cpp:124] Setting up ip2
I0428 19:27:52.759691 21470 net.cpp:131] Top shape: 100 10 (1000)
I0428 19:27:52.759697 21470 net.cpp:139] Memory required for data: 338800
I0428 19:27:52.759709 21470 layer_factory.hpp:77] Creating layer relu2
I0428 19:27:52.759717 21470 net.cpp:86] Creating Layer relu2
I0428 19:27:52.759723 21470 net.cpp:408] relu2 <- ip2
I0428 19:27:52.759730 21470 net.cpp:369] relu2 -> ip2 (in-place)
I0428 19:27:52.760617 21470 net.cpp:124] Setting up relu2
I0428 19:27:52.760632 21470 net.cpp:131] Top shape: 100 10 (1000)
I0428 19:27:52.760637 21470 net.cpp:139] Memory required for data: 342800
I0428 19:27:52.760643 21470 layer_factory.hpp:77] Creating layer ip2_relu2_0_split
I0428 19:27:52.760651 21470 net.cpp:86] Creating Layer ip2_relu2_0_split
I0428 19:27:52.760658 21470 net.cpp:408] ip2_relu2_0_split <- ip2
I0428 19:27:52.760666 21470 net.cpp:382] ip2_relu2_0_split -> ip2_relu2_0_split_0
I0428 19:27:52.760676 21470 net.cpp:382] ip2_relu2_0_split -> ip2_relu2_0_split_1
I0428 19:27:52.760721 21470 net.cpp:124] Setting up ip2_relu2_0_split
I0428 19:27:52.760731 21470 net.cpp:131] Top shape: 100 10 (1000)
I0428 19:27:52.760738 21470 net.cpp:131] Top shape: 100 10 (1000)
I0428 19:27:52.760745 21470 net.cpp:139] Memory required for data: 350800
I0428 19:27:52.760764 21470 layer_factory.hpp:77] Creating layer accuracy
I0428 19:27:52.760772 21470 net.cpp:86] Creating Layer accuracy
I0428 19:27:52.760777 21470 net.cpp:408] accuracy <- ip2_relu2_0_split_0
I0428 19:27:52.760784 21470 net.cpp:408] accuracy <- label_mnist_1_split_0
I0428 19:27:52.760793 21470 net.cpp:382] accuracy -> accuracy
…
