…
I0428 19:36:58.678411 23754 net.cpp:296] The NetState phase (0) differed from the phase (1) specified by a rule in layer mnist
I0428 19:36:58.678433 23754 net.cpp:296] The NetState phase (0) differed from the phase (1) specified by a rule in layer accuracy
I0428 19:36:58.678527 23754 net.cpp:53] Initializing net from parameters: 
name: "LeNet"
state {
  phase: TRAIN
  level: 0
  stage: ""
}
layer {
  name: "mnist"
  type: "Data"
  top: "data"
  top: "label"
  include {
    phase: TRAIN
  }
  transform_param {
    scale: 0.00390625
  }
  data_param {
    source: "examples/mnist/mnist_train_lmdb"
    batch_size: 64
    backend: LMDB
  }
}
layer {
  name: "conv0"
  type: "Convolution"
  bottom: "data"
  top: "conv0"
  param {
    lr_mult: 1
  }
  param {
    lr_mult: 2
  }
  convolution_param {
    num_output: 100
    kernel_size: 5
    stride: 1
    weight_filler {
      type: "xavier"
    }
    bias_filler {
      type: "constant"
    }
  }
}
layer {
  name: "pool0"
  type: "Pooling"
  bottom: "conv0"
  top: "pool0"
  pooling_param {
    pool: MAX
    kernel_size: 2
    stride: 2
  }
}
layer {
  name: "ip1"
  type: "InnerProduct"
  bottom: "pool0"
  top: "ip1"
  param {
    lr_mult: 1
  }
  param {
    lr_mult: 2
  }
  inner_product_param {
    num_output: 10
    weight_filler {
      type: "xavier"
    }
    bias_filler {
      type: "constant"
    }
  }
}
layer {
  name: "relu1"
  type: "ReLU"
  bottom: "ip1"
  top: "ip1"
}
layer {
  name: "ip2"
  type: "InnerProduct"
  bottom: "ip1"
  top: "ip2"
  param {
    lr_mult: 1
  }
  param {
    lr_mult: 2
  }
  inner_product_param {
    num_output: 25
    weight_filler {
      type: "xavier"
    }
    bias_filler {
      type: "constant"
    }
  }
}
layer {
  name: "relu2"
  type: "ReLU"
  bottom: "ip2"
  top: "ip2"
}
layer {
  name: "ip3"
  type: "InnerProduct"
  bottom: "ip2"
  top: "ip3"
  param {
    lr_mult: 1
  }
  param {
    lr_mult: 2
  }
  inner_product_param {
    num_output: 10
    weight_filler {
      type: "xavier"
    }
    bias_filler {
      type: "constant"
    }
  }
}
layer {
  name: "relu3"
  type: "ReLU"
  bottom: "ip3"
  top: "ip3"
}
layer {
  name: "loss"
  type: "SoftmaxWithLoss"
  bottom: "ip3"
  bottom: "label"
  top: "loss"
}
I0428 19:36:58.678606 23754 layer_factory.hpp:77] Creating layer mnist
I0428 19:36:58.678699 23754 db_lmdb.cpp:35] Opened lmdb examples/mnist/mnist_train_lmdb
I0428 19:36:58.678719 23754 net.cpp:86] Creating Layer mnist
I0428 19:36:58.678728 23754 net.cpp:382] mnist -> data
I0428 19:36:58.678750 23754 net.cpp:382] mnist -> label
I0428 19:36:58.679813 23754 data_layer.cpp:45] output data size: 64,1,28,28
I0428 19:36:58.682240 23754 net.cpp:124] Setting up mnist
I0428 19:36:58.682256 23754 net.cpp:131] Top shape: 64 1 28 28 (50176)
I0428 19:36:58.682262 23754 net.cpp:131] Top shape: 64 (64)
I0428 19:36:58.682265 23754 net.cpp:139] Memory required for data: 200960
I0428 19:36:58.682272 23754 layer_factory.hpp:77] Creating layer conv0
I0428 19:36:58.682289 23754 net.cpp:86] Creating Layer conv0
I0428 19:36:58.682296 23754 net.cpp:408] conv0 <- data
I0428 19:36:58.682307 23754 net.cpp:382] conv0 -> conv0
I0428 19:36:58.973992 23754 net.cpp:124] Setting up conv0
I0428 19:36:58.974022 23754 net.cpp:131] Top shape: 64 100 24 24 (3686400)
I0428 19:36:58.974027 23754 net.cpp:139] Memory required for data: 14946560
I0428 19:36:58.974045 23754 layer_factory.hpp:77] Creating layer pool0
I0428 19:36:58.974059 23754 net.cpp:86] Creating Layer pool0
I0428 19:36:58.974083 23754 net.cpp:408] pool0 <- conv0
I0428 19:36:58.974090 23754 net.cpp:382] pool0 -> pool0
I0428 19:36:58.974148 23754 net.cpp:124] Setting up pool0
I0428 19:36:58.974158 23754 net.cpp:131] Top shape: 64 100 12 12 (921600)
I0428 19:36:58.974161 23754 net.cpp:139] Memory required for data: 18632960
I0428 19:36:58.974165 23754 layer_factory.hpp:77] Creating layer ip1
I0428 19:36:58.974174 23754 net.cpp:86] Creating Layer ip1
I0428 19:36:58.974177 23754 net.cpp:408] ip1 <- pool0
I0428 19:36:58.974184 23754 net.cpp:382] ip1 -> ip1
I0428 19:36:58.976250 23754 net.cpp:124] Setting up ip1
I0428 19:36:58.976267 23754 net.cpp:131] Top shape: 64 10 (640)
I0428 19:36:58.976272 23754 net.cpp:139] Memory required for data: 18635520
I0428 19:36:58.976282 23754 layer_factory.hpp:77] Creating layer relu1
I0428 19:36:58.976290 23754 net.cpp:86] Creating Layer relu1
I0428 19:36:58.976294 23754 net.cpp:408] relu1 <- ip1
I0428 19:36:58.976300 23754 net.cpp:369] relu1 -> ip1 (in-place)
I0428 19:36:58.976502 23754 net.cpp:124] Setting up relu1
I0428 19:36:58.976513 23754 net.cpp:131] Top shape: 64 10 (640)
I0428 19:36:58.976517 23754 net.cpp:139] Memory required for data: 18638080
I0428 19:36:58.976521 23754 layer_factory.hpp:77] Creating layer ip2
I0428 19:36:58.976529 23754 net.cpp:86] Creating Layer ip2
I0428 19:36:58.976532 23754 net.cpp:408] ip2 <- ip1
I0428 19:36:58.976538 23754 net.cpp:382] ip2 -> ip2
I0428 19:36:58.976652 23754 net.cpp:124] Setting up ip2
I0428 19:36:58.976661 23754 net.cpp:131] Top shape: 64 25 (1600)
I0428 19:36:58.976665 23754 net.cpp:139] Memory required for data: 18644480
I0428 19:36:58.976673 23754 layer_factory.hpp:77] Creating layer relu2
I0428 19:36:58.976680 23754 net.cpp:86] Creating Layer relu2
I0428 19:36:58.976683 23754 net.cpp:408] relu2 <- ip2
I0428 19:36:58.976689 23754 net.cpp:369] relu2 -> ip2 (in-place)
I0428 19:36:58.977561 23754 net.cpp:124] Setting up relu2
I0428 19:36:58.977577 23754 net.cpp:131] Top shape: 64 25 (1600)
I0428 19:36:58.977582 23754 net.cpp:139] Memory required for data: 18650880
I0428 19:36:58.977586 23754 layer_factory.hpp:77] Creating layer ip3
I0428 19:36:58.977594 23754 net.cpp:86] Creating Layer ip3
I0428 19:36:58.977598 23754 net.cpp:408] ip3 <- ip2
I0428 19:36:58.977605 23754 net.cpp:382] ip3 -> ip3
I0428 19:36:58.977720 23754 net.cpp:124] Setting up ip3
I0428 19:36:58.977728 23754 net.cpp:131] Top shape: 64 10 (640)
I0428 19:36:58.977732 23754 net.cpp:139] Memory required for data: 18653440
I0428 19:36:58.977740 23754 layer_factory.hpp:77] Creating layer relu3
I0428 19:36:58.977746 23754 net.cpp:86] Creating Layer relu3
I0428 19:36:58.977751 23754 net.cpp:408] relu3 <- ip3
I0428 19:36:58.977756 23754 net.cpp:369] relu3 -> ip3 (in-place)
I0428 19:36:58.977932 23754 net.cpp:124] Setting up relu3
I0428 19:36:58.977942 23754 net.cpp:131] Top shape: 64 10 (640)
I0428 19:36:58.977946 23754 net.cpp:139] Memory required for data: 18656000
I0428 19:36:58.977949 23754 layer_factory.hpp:77] Creating layer loss
I0428 19:36:58.977957 23754 net.cpp:86] Creating Layer loss
I0428 19:36:58.977960 23754 net.cpp:408] loss <- ip3
I0428 19:36:58.977967 23754 net.cpp:408] loss <- label
I0428 19:36:58.977972 23754 net.cpp:382] loss -> loss
I0428 19:36:58.977993 23754 layer_factory.hpp:77] Creating layer loss
…
I0428 19:36:58.978685 23754 solver.cpp:173] Creating test net (#0) specified by net file: ECE595/mnist/train_test/var_everything2/lenet_train_test251.prototxt
I0428 19:36:58.978716 23754 net.cpp:296] The NetState phase (1) differed from the phase (0) specified by a rule in layer mnist
I0428 19:36:58.978811 23754 net.cpp:53] Initializing net from parameters: 
name: "LeNet"
state {
  phase: TEST
}
layer {
  name: "mnist"
  type: "Data"
  top: "data"
  top: "label"
  include {
    phase: TEST
  }
  transform_param {
    scale: 0.00390625
  }
  data_param {
    source: "examples/mnist/mnist_test_lmdb"
    batch_size: 100
    backend: LMDB
  }
}
layer {
  name: "conv0"
  type: "Convolution"
  bottom: "data"
  top: "conv0"
  param {
    lr_mult: 1
  }
  param {
    lr_mult: 2
  }
  convolution_param {
    num_output: 100
    kernel_size: 5
    stride: 1
    weight_filler {
      type: "xavier"
    }
    bias_filler {
      type: "constant"
    }
  }
}
layer {
  name: "pool0"
  type: "Pooling"
  bottom: "conv0"
  top: "pool0"
  pooling_param {
    pool: MAX
    kernel_size: 2
    stride: 2
  }
}
layer {
  name: "ip1"
  type: "InnerProduct"
  bottom: "pool0"
  top: "ip1"
  param {
    lr_mult: 1
  }
  param {
    lr_mult: 2
  }
  inner_product_param {
    num_output: 10
    weight_filler {
      type: "xavier"
    }
    bias_filler {
      type: "constant"
    }
  }
}
layer {
  name: "relu1"
  type: "ReLU"
  bottom: "ip1"
  top: "ip1"
}
layer {
  name: "ip2"
  type: "InnerProduct"
  bottom: "ip1"
  top: "ip2"
  param {
    lr_mult: 1
  }
  param {
    lr_mult: 2
  }
  inner_product_param {
    num_output: 25
    weight_filler {
      type: "xavier"
    }
    bias_filler {
      type: "constant"
    }
  }
}
layer {
  name: "relu2"
  type: "ReLU"
  bottom: "ip2"
  top: "ip2"
}
layer {
  name: "ip3"
  type: "InnerProduct"
  bottom: "ip2"
  top: "ip3"
  param {
    lr_mult: 1
  }
  param {
    lr_mult: 2
  }
  inner_product_param {
    num_output: 10
    weight_filler {
      type: "xavier"
    }
    bias_filler {
      type: "constant"
    }
  }
}
layer {
  name: "relu3"
  type: "ReLU"
  bottom: "ip3"
  top: "ip3"
}
layer {
  name: "accuracy"
  type: "Accuracy"
  bottom: "ip3"
  bottom: "label"
  top: "accuracy"
  include {
    phase: TEST
  }
}
layer {
  name: "loss"
  type: "SoftmaxWithLoss"
  bottom: "ip3"
  bottom: "label"
  top: "loss"
}
I0428 19:36:58.978883 23754 layer_factory.hpp:77] Creating layer mnist
I0428 19:36:58.978934 23754 db_lmdb.cpp:35] Opened lmdb examples/mnist/mnist_test_lmdb
I0428 19:36:58.978948 23754 net.cpp:86] Creating Layer mnist
I0428 19:36:58.978955 23754 net.cpp:382] mnist -> data
I0428 19:36:58.978963 23754 net.cpp:382] mnist -> label
I0428 19:36:58.979084 23754 data_layer.cpp:45] output data size: 100,1,28,28
I0428 19:36:58.980306 23754 net.cpp:124] Setting up mnist
I0428 19:36:58.980324 23754 net.cpp:131] Top shape: 100 1 28 28 (78400)
I0428 19:36:58.980329 23754 net.cpp:131] Top shape: 100 (100)
I0428 19:36:58.980334 23754 net.cpp:139] Memory required for data: 314000
I0428 19:36:58.980339 23754 layer_factory.hpp:77] Creating layer label_mnist_1_split
I0428 19:36:58.980350 23754 net.cpp:86] Creating Layer label_mnist_1_split
I0428 19:36:58.980355 23754 net.cpp:408] label_mnist_1_split <- label
I0428 19:36:58.980361 23754 net.cpp:382] label_mnist_1_split -> label_mnist_1_split_0
I0428 19:36:58.980368 23754 net.cpp:382] label_mnist_1_split -> label_mnist_1_split_1
I0428 19:36:58.980464 23754 net.cpp:124] Setting up label_mnist_1_split
I0428 19:36:58.980474 23754 net.cpp:131] Top shape: 100 (100)
I0428 19:36:58.980479 23754 net.cpp:131] Top shape: 100 (100)
I0428 19:36:58.980482 23754 net.cpp:139] Memory required for data: 314800
I0428 19:36:58.980497 23754 layer_factory.hpp:77] Creating layer conv0
I0428 19:36:58.980509 23754 net.cpp:86] Creating Layer conv0
I0428 19:36:58.980512 23754 net.cpp:408] conv0 <- data
I0428 19:36:58.980518 23754 net.cpp:382] conv0 -> conv0
I0428 19:36:58.982239 23754 net.cpp:124] Setting up conv0
I0428 19:36:58.982256 23754 net.cpp:131] Top shape: 100 100 24 24 (5760000)
I0428 19:36:58.982260 23754 net.cpp:139] Memory required for data: 23354800
I0428 19:36:58.982272 23754 layer_factory.hpp:77] Creating layer pool0
I0428 19:36:58.982282 23754 net.cpp:86] Creating Layer pool0
I0428 19:36:58.982286 23754 net.cpp:408] pool0 <- conv0
I0428 19:36:58.982292 23754 net.cpp:382] pool0 -> pool0
I0428 19:36:58.982378 23754 net.cpp:124] Setting up pool0
I0428 19:36:58.982386 23754 net.cpp:131] Top shape: 100 100 12 12 (1440000)
I0428 19:36:58.982390 23754 net.cpp:139] Memory required for data: 29114800
I0428 19:36:58.982394 23754 layer_factory.hpp:77] Creating layer ip1
I0428 19:36:58.982403 23754 net.cpp:86] Creating Layer ip1
I0428 19:36:58.982406 23754 net.cpp:408] ip1 <- pool0
I0428 19:36:58.982414 23754 net.cpp:382] ip1 -> ip1
I0428 19:36:58.984536 23754 net.cpp:124] Setting up ip1
I0428 19:36:58.984550 23754 net.cpp:131] Top shape: 100 10 (1000)
I0428 19:36:58.984555 23754 net.cpp:139] Memory required for data: 29118800
I0428 19:36:58.984565 23754 layer_factory.hpp:77] Creating layer relu1
I0428 19:36:58.984571 23754 net.cpp:86] Creating Layer relu1
I0428 19:36:58.984575 23754 net.cpp:408] relu1 <- ip1
I0428 19:36:58.984582 23754 net.cpp:369] relu1 -> ip1 (in-place)
I0428 19:36:58.984802 23754 net.cpp:124] Setting up relu1
I0428 19:36:58.984822 23754 net.cpp:131] Top shape: 100 10 (1000)
I0428 19:36:58.984825 23754 net.cpp:139] Memory required for data: 29122800
I0428 19:36:58.984829 23754 layer_factory.hpp:77] Creating layer ip2
I0428 19:36:58.984838 23754 net.cpp:86] Creating Layer ip2
I0428 19:36:58.984843 23754 net.cpp:408] ip2 <- ip1
I0428 19:36:58.984848 23754 net.cpp:382] ip2 -> ip2
I0428 19:36:58.984972 23754 net.cpp:124] Setting up ip2
I0428 19:36:58.984980 23754 net.cpp:131] Top shape: 100 25 (2500)
I0428 19:36:58.984984 23754 net.cpp:139] Memory required for data: 29132800
I0428 19:36:58.984993 23754 layer_factory.hpp:77] Creating layer relu2
I0428 19:36:58.985000 23754 net.cpp:86] Creating Layer relu2
I0428 19:36:58.985004 23754 net.cpp:408] relu2 <- ip2
I0428 19:36:58.985010 23754 net.cpp:369] relu2 -> ip2 (in-place)
I0428 19:36:58.985935 23754 net.cpp:124] Setting up relu2
I0428 19:36:58.985949 23754 net.cpp:131] Top shape: 100 25 (2500)
I0428 19:36:58.985954 23754 net.cpp:139] Memory required for data: 29142800
I0428 19:36:58.985958 23754 layer_factory.hpp:77] Creating layer ip3
I0428 19:36:58.985967 23754 net.cpp:86] Creating Layer ip3
I0428 19:36:58.985971 23754 net.cpp:408] ip3 <- ip2
I0428 19:36:58.985980 23754 net.cpp:382] ip3 -> ip3
I0428 19:36:58.986107 23754 net.cpp:124] Setting up ip3
I0428 19:36:58.986117 23754 net.cpp:131] Top shape: 100 10 (1000)
I0428 19:36:58.986122 23754 net.cpp:139] Memory required for data: 29146800
I0428 19:36:58.986129 23754 layer_factory.hpp:77] Creating layer relu3
I0428 19:36:58.986135 23754 net.cpp:86] Creating Layer relu3
I0428 19:36:58.986138 23754 net.cpp:408] relu3 <- ip3
I0428 19:36:58.986142 23754 net.cpp:369] relu3 -> ip3 (in-place)
I0428 19:36:58.986331 23754 net.cpp:124] Setting up relu3
I0428 19:36:58.986341 23754 net.cpp:131] Top shape: 100 10 (1000)
I0428 19:36:58.986346 23754 net.cpp:139] Memory required for data: 29150800
I0428 19:36:58.986348 23754 layer_factory.hpp:77] Creating layer ip3_relu3_0_split
I0428 19:36:58.986356 23754 net.cpp:86] Creating Layer ip3_relu3_0_split
I0428 19:36:58.986359 23754 net.cpp:408] ip3_relu3_0_split <- ip3
I0428 19:36:58.986366 23754 net.cpp:382] ip3_relu3_0_split -> ip3_relu3_0_split_0
I0428 19:36:58.986374 23754 net.cpp:382] ip3_relu3_0_split -> ip3_relu3_0_split_1
I0428 19:36:58.986415 23754 net.cpp:124] Setting up ip3_relu3_0_split
I0428 19:36:58.986423 23754 net.cpp:131] Top shape: 100 10 (1000)
I0428 19:36:58.986440 23754 net.cpp:131] Top shape: 100 10 (1000)
I0428 19:36:58.986444 23754 net.cpp:139] Memory required for data: 29158800
I0428 19:36:58.986448 23754 layer_factory.hpp:77] Creating layer accuracy
I0428 19:36:58.986457 23754 net.cpp:86] Creating Layer accuracy
I0428 19:36:58.986462 23754 net.cpp:408] accuracy <- ip3_relu3_0_split_0
I0428 19:36:58.986467 23754 net.cpp:408] accuracy <- label_mnist_1_split_0
I0428 19:36:58.986472 23754 net.cpp:382] accuracy -> accuracy
…
