…
I0428 20:25:01.568131  2527 net.cpp:296] The NetState phase (0) differed from the phase (1) specified by a rule in layer mnist
I0428 20:25:01.568148  2527 net.cpp:296] The NetState phase (0) differed from the phase (1) specified by a rule in layer accuracy
I0428 20:25:01.568236  2527 net.cpp:53] Initializing net from parameters: 
name: "LeNet"
state {
  phase: TRAIN
  level: 0
  stage: ""
}
layer {
  name: "mnist"
  type: "Data"
  top: "data"
  top: "label"
  include {
    phase: TRAIN
  }
  transform_param {
    scale: 0.00390625
  }
  data_param {
    source: "examples/mnist/mnist_train_lmdb"
    batch_size: 64
    backend: LMDB
  }
}
layer {
  name: "conv0"
  type: "Convolution"
  bottom: "data"
  top: "conv0"
  param {
    lr_mult: 1
  }
  param {
    lr_mult: 2
  }
  convolution_param {
    num_output: 100
    kernel_size: 5
    stride: 1
    weight_filler {
      type: "xavier"
    }
    bias_filler {
      type: "constant"
    }
  }
}
layer {
  name: "pool0"
  type: "Pooling"
  bottom: "conv0"
  top: "pool0"
  pooling_param {
    pool: MAX
    kernel_size: 2
    stride: 2
  }
}
layer {
  name: "conv1"
  type: "Convolution"
  bottom: "pool0"
  top: "conv1"
  param {
    lr_mult: 1
  }
  param {
    lr_mult: 2
  }
  convolution_param {
    num_output: 2
    kernel_size: 5
    stride: 1
    weight_filler {
      type: "xavier"
    }
    bias_filler {
      type: "constant"
    }
  }
}
layer {
  name: "pool1"
  type: "Pooling"
  bottom: "conv1"
  top: "pool1"
  pooling_param {
    pool: MAX
    kernel_size: 2
    stride: 2
  }
}
layer {
  name: "ip1"
  type: "InnerProduct"
  bottom: "pool1"
  top: "ip1"
  param {
    lr_mult: 1
  }
  param {
    lr_mult: 2
  }
  inner_product_param {
    num_output: 10
    weight_filler {
      type: "xavier"
    }
    bias_filler {
      type: "constant"
    }
  }
}
layer {
  name: "relu1"
  type: "ReLU"
  bottom: "ip1"
  top: "ip1"
}
layer {
  name: "ip2"
  type: "InnerProduct"
  bottom: "ip1"
  top: "ip2"
  param {
    lr_mult: 1
  }
  param {
    lr_mult: 2
  }
  inner_product_param {
    num_output: 10
    weight_filler {
      type: "xavier"
    }
    bias_filler {
      type: "constant"
    }
  }
}
layer {
  name: "relu2"
  type: "ReLU"
  bottom: "ip2"
  top: "ip2"
}
layer {
  name: "loss"
  type: "SoftmaxWithLoss"
  bottom: "ip2"
  bottom: "label"
  top: "loss"
}
I0428 20:25:01.568305  2527 layer_factory.hpp:77] Creating layer mnist
I0428 20:25:01.568406  2527 db_lmdb.cpp:35] Opened lmdb examples/mnist/mnist_train_lmdb
I0428 20:25:01.568430  2527 net.cpp:86] Creating Layer mnist
I0428 20:25:01.568439  2527 net.cpp:382] mnist -> data
I0428 20:25:01.568460  2527 net.cpp:382] mnist -> label
I0428 20:25:01.569569  2527 data_layer.cpp:45] output data size: 64,1,28,28
I0428 20:25:01.572013  2527 net.cpp:124] Setting up mnist
I0428 20:25:01.572031  2527 net.cpp:131] Top shape: 64 1 28 28 (50176)
I0428 20:25:01.572037  2527 net.cpp:131] Top shape: 64 (64)
I0428 20:25:01.572042  2527 net.cpp:139] Memory required for data: 200960
I0428 20:25:01.572049  2527 layer_factory.hpp:77] Creating layer conv0
I0428 20:25:01.572065  2527 net.cpp:86] Creating Layer conv0
I0428 20:25:01.572070  2527 net.cpp:408] conv0 <- data
I0428 20:25:01.572082  2527 net.cpp:382] conv0 -> conv0
I0428 20:25:01.825786  2527 net.cpp:124] Setting up conv0
I0428 20:25:01.825814  2527 net.cpp:131] Top shape: 64 100 24 24 (3686400)
I0428 20:25:01.825819  2527 net.cpp:139] Memory required for data: 14946560
I0428 20:25:01.825852  2527 layer_factory.hpp:77] Creating layer pool0
I0428 20:25:01.825865  2527 net.cpp:86] Creating Layer pool0
I0428 20:25:01.825883  2527 net.cpp:408] pool0 <- conv0
I0428 20:25:01.825889  2527 net.cpp:382] pool0 -> pool0
I0428 20:25:01.825934  2527 net.cpp:124] Setting up pool0
I0428 20:25:01.825940  2527 net.cpp:131] Top shape: 64 100 12 12 (921600)
I0428 20:25:01.825943  2527 net.cpp:139] Memory required for data: 18632960
I0428 20:25:01.825947  2527 layer_factory.hpp:77] Creating layer conv1
I0428 20:25:01.825956  2527 net.cpp:86] Creating Layer conv1
I0428 20:25:01.825959  2527 net.cpp:408] conv1 <- pool0
I0428 20:25:01.825964  2527 net.cpp:382] conv1 -> conv1
I0428 20:25:01.828750  2527 net.cpp:124] Setting up conv1
I0428 20:25:01.828781  2527 net.cpp:131] Top shape: 64 2 8 8 (8192)
I0428 20:25:01.828785  2527 net.cpp:139] Memory required for data: 18665728
I0428 20:25:01.828794  2527 layer_factory.hpp:77] Creating layer pool1
I0428 20:25:01.828802  2527 net.cpp:86] Creating Layer pool1
I0428 20:25:01.828805  2527 net.cpp:408] pool1 <- conv1
I0428 20:25:01.828817  2527 net.cpp:382] pool1 -> pool1
I0428 20:25:01.828884  2527 net.cpp:124] Setting up pool1
I0428 20:25:01.828891  2527 net.cpp:131] Top shape: 64 2 4 4 (2048)
I0428 20:25:01.828893  2527 net.cpp:139] Memory required for data: 18673920
I0428 20:25:01.828896  2527 layer_factory.hpp:77] Creating layer ip1
I0428 20:25:01.828905  2527 net.cpp:86] Creating Layer ip1
I0428 20:25:01.828908  2527 net.cpp:408] ip1 <- pool1
I0428 20:25:01.828913  2527 net.cpp:382] ip1 -> ip1
I0428 20:25:01.829010  2527 net.cpp:124] Setting up ip1
I0428 20:25:01.829018  2527 net.cpp:131] Top shape: 64 10 (640)
I0428 20:25:01.829021  2527 net.cpp:139] Memory required for data: 18676480
I0428 20:25:01.829028  2527 layer_factory.hpp:77] Creating layer relu1
I0428 20:25:01.829036  2527 net.cpp:86] Creating Layer relu1
I0428 20:25:01.829040  2527 net.cpp:408] relu1 <- ip1
I0428 20:25:01.829043  2527 net.cpp:369] relu1 -> ip1 (in-place)
I0428 20:25:01.829226  2527 net.cpp:124] Setting up relu1
I0428 20:25:01.829236  2527 net.cpp:131] Top shape: 64 10 (640)
I0428 20:25:01.829239  2527 net.cpp:139] Memory required for data: 18679040
I0428 20:25:01.829242  2527 layer_factory.hpp:77] Creating layer ip2
I0428 20:25:01.829248  2527 net.cpp:86] Creating Layer ip2
I0428 20:25:01.829252  2527 net.cpp:408] ip2 <- ip1
I0428 20:25:01.829257  2527 net.cpp:382] ip2 -> ip2
I0428 20:25:01.829354  2527 net.cpp:124] Setting up ip2
I0428 20:25:01.829360  2527 net.cpp:131] Top shape: 64 10 (640)
I0428 20:25:01.829363  2527 net.cpp:139] Memory required for data: 18681600
I0428 20:25:01.829370  2527 layer_factory.hpp:77] Creating layer relu2
I0428 20:25:01.829375  2527 net.cpp:86] Creating Layer relu2
I0428 20:25:01.829378  2527 net.cpp:408] relu2 <- ip2
I0428 20:25:01.829383  2527 net.cpp:369] relu2 -> ip2 (in-place)
I0428 20:25:01.830152  2527 net.cpp:124] Setting up relu2
I0428 20:25:01.830173  2527 net.cpp:131] Top shape: 64 10 (640)
I0428 20:25:01.830176  2527 net.cpp:139] Memory required for data: 18684160
I0428 20:25:01.830179  2527 layer_factory.hpp:77] Creating layer loss
I0428 20:25:01.830205  2527 net.cpp:86] Creating Layer loss
I0428 20:25:01.830209  2527 net.cpp:408] loss <- ip2
I0428 20:25:01.830212  2527 net.cpp:408] loss <- label
I0428 20:25:01.830219  2527 net.cpp:382] loss -> loss
I0428 20:25:01.830234  2527 layer_factory.hpp:77] Creating layer loss
…
I0428 20:25:01.830883  2527 solver.cpp:173] Creating test net (#0) specified by net file: ECE595/mnist/train_test/var_everything2/lenet_train_test1447.prototxt
I0428 20:25:01.830938  2527 net.cpp:296] The NetState phase (1) differed from the phase (0) specified by a rule in layer mnist
I0428 20:25:01.831022  2527 net.cpp:53] Initializing net from parameters: 
name: "LeNet"
state {
  phase: TEST
}
layer {
  name: "mnist"
  type: "Data"
  top: "data"
  top: "label"
  include {
    phase: TEST
  }
  transform_param {
    scale: 0.00390625
  }
  data_param {
    source: "examples/mnist/mnist_test_lmdb"
    batch_size: 100
    backend: LMDB
  }
}
layer {
  name: "conv0"
  type: "Convolution"
  bottom: "data"
  top: "conv0"
  param {
    lr_mult: 1
  }
  param {
    lr_mult: 2
  }
  convolution_param {
    num_output: 100
    kernel_size: 5
    stride: 1
    weight_filler {
      type: "xavier"
    }
    bias_filler {
      type: "constant"
    }
  }
}
layer {
  name: "pool0"
  type: "Pooling"
  bottom: "conv0"
  top: "pool0"
  pooling_param {
    pool: MAX
    kernel_size: 2
    stride: 2
  }
}
layer {
  name: "conv1"
  type: "Convolution"
  bottom: "pool0"
  top: "conv1"
  param {
    lr_mult: 1
  }
  param {
    lr_mult: 2
  }
  convolution_param {
    num_output: 2
    kernel_size: 5
    stride: 1
    weight_filler {
      type: "xavier"
    }
    bias_filler {
      type: "constant"
    }
  }
}
layer {
  name: "pool1"
  type: "Pooling"
  bottom: "conv1"
  top: "pool1"
  pooling_param {
    pool: MAX
    kernel_size: 2
    stride: 2
  }
}
layer {
  name: "ip1"
  type: "InnerProduct"
  bottom: "pool1"
  top: "ip1"
  param {
    lr_mult: 1
  }
  param {
    lr_mult: 2
  }
  inner_product_param {
    num_output: 10
    weight_filler {
      type: "xavier"
    }
    bias_filler {
      type: "constant"
    }
  }
}
layer {
  name: "relu1"
  type: "ReLU"
  bottom: "ip1"
  top: "ip1"
}
layer {
  name: "ip2"
  type: "InnerProduct"
  bottom: "ip1"
  top: "ip2"
  param {
    lr_mult: 1
  }
  param {
    lr_mult: 2
  }
  inner_product_param {
    num_output: 10
    weight_filler {
      type: "xavier"
    }
    bias_filler {
      type: "constant"
    }
  }
}
layer {
  name: "relu2"
  type: "ReLU"
  bottom: "ip2"
  top: "ip2"
}
layer {
  name: "accuracy"
  type: "Accuracy"
  bottom: "ip2"
  bottom: "label"
  top: "accuracy"
  include {
    phase: TEST
  }
}
layer {
  name: "loss"
  type: "SoftmaxWithLoss"
  bottom: "ip2"
  bottom: "label"
  top: "loss"
}
I0428 20:25:01.831104  2527 layer_factory.hpp:77] Creating layer mnist
I0428 20:25:01.831163  2527 db_lmdb.cpp:35] Opened lmdb examples/mnist/mnist_test_lmdb
I0428 20:25:01.831176  2527 net.cpp:86] Creating Layer mnist
I0428 20:25:01.831181  2527 net.cpp:382] mnist -> data
I0428 20:25:01.831188  2527 net.cpp:382] mnist -> label
I0428 20:25:01.831277  2527 data_layer.cpp:45] output data size: 100,1,28,28
I0428 20:25:01.833230  2527 net.cpp:124] Setting up mnist
I0428 20:25:01.833242  2527 net.cpp:131] Top shape: 100 1 28 28 (78400)
I0428 20:25:01.833247  2527 net.cpp:131] Top shape: 100 (100)
I0428 20:25:01.833250  2527 net.cpp:139] Memory required for data: 314000
I0428 20:25:01.833253  2527 layer_factory.hpp:77] Creating layer label_mnist_1_split
I0428 20:25:01.833286  2527 net.cpp:86] Creating Layer label_mnist_1_split
I0428 20:25:01.833289  2527 net.cpp:408] label_mnist_1_split <- label
I0428 20:25:01.833294  2527 net.cpp:382] label_mnist_1_split -> label_mnist_1_split_0
I0428 20:25:01.833343  2527 net.cpp:382] label_mnist_1_split -> label_mnist_1_split_1
I0428 20:25:01.833405  2527 net.cpp:124] Setting up label_mnist_1_split
I0428 20:25:01.833412  2527 net.cpp:131] Top shape: 100 (100)
I0428 20:25:01.833416  2527 net.cpp:131] Top shape: 100 (100)
I0428 20:25:01.833418  2527 net.cpp:139] Memory required for data: 314800
I0428 20:25:01.833422  2527 layer_factory.hpp:77] Creating layer conv0
I0428 20:25:01.833431  2527 net.cpp:86] Creating Layer conv0
I0428 20:25:01.833434  2527 net.cpp:408] conv0 <- data
I0428 20:25:01.833441  2527 net.cpp:382] conv0 -> conv0
I0428 20:25:01.835192  2527 net.cpp:124] Setting up conv0
I0428 20:25:01.835206  2527 net.cpp:131] Top shape: 100 100 24 24 (5760000)
I0428 20:25:01.835209  2527 net.cpp:139] Memory required for data: 23354800
I0428 20:25:01.835218  2527 layer_factory.hpp:77] Creating layer pool0
I0428 20:25:01.835239  2527 net.cpp:86] Creating Layer pool0
I0428 20:25:01.835242  2527 net.cpp:408] pool0 <- conv0
I0428 20:25:01.835248  2527 net.cpp:382] pool0 -> pool0
I0428 20:25:01.835284  2527 net.cpp:124] Setting up pool0
I0428 20:25:01.835289  2527 net.cpp:131] Top shape: 100 100 12 12 (1440000)
I0428 20:25:01.835292  2527 net.cpp:139] Memory required for data: 29114800
I0428 20:25:01.835295  2527 layer_factory.hpp:77] Creating layer conv1
I0428 20:25:01.835305  2527 net.cpp:86] Creating Layer conv1
I0428 20:25:01.835309  2527 net.cpp:408] conv1 <- pool0
I0428 20:25:01.835314  2527 net.cpp:382] conv1 -> conv1
I0428 20:25:01.836936  2527 net.cpp:124] Setting up conv1
I0428 20:25:01.836951  2527 net.cpp:131] Top shape: 100 2 8 8 (12800)
I0428 20:25:01.836954  2527 net.cpp:139] Memory required for data: 29166000
I0428 20:25:01.836963  2527 layer_factory.hpp:77] Creating layer pool1
I0428 20:25:01.836971  2527 net.cpp:86] Creating Layer pool1
I0428 20:25:01.836977  2527 net.cpp:408] pool1 <- conv1
I0428 20:25:01.836983  2527 net.cpp:382] pool1 -> pool1
I0428 20:25:01.837021  2527 net.cpp:124] Setting up pool1
I0428 20:25:01.837028  2527 net.cpp:131] Top shape: 100 2 4 4 (3200)
I0428 20:25:01.837031  2527 net.cpp:139] Memory required for data: 29178800
I0428 20:25:01.837034  2527 layer_factory.hpp:77] Creating layer ip1
I0428 20:25:01.837041  2527 net.cpp:86] Creating Layer ip1
I0428 20:25:01.837044  2527 net.cpp:408] ip1 <- pool1
I0428 20:25:01.837052  2527 net.cpp:382] ip1 -> ip1
I0428 20:25:01.837167  2527 net.cpp:124] Setting up ip1
I0428 20:25:01.837175  2527 net.cpp:131] Top shape: 100 10 (1000)
I0428 20:25:01.837178  2527 net.cpp:139] Memory required for data: 29182800
I0428 20:25:01.837198  2527 layer_factory.hpp:77] Creating layer relu1
I0428 20:25:01.837203  2527 net.cpp:86] Creating Layer relu1
I0428 20:25:01.837208  2527 net.cpp:408] relu1 <- ip1
I0428 20:25:01.837221  2527 net.cpp:369] relu1 -> ip1 (in-place)
I0428 20:25:01.837376  2527 net.cpp:124] Setting up relu1
I0428 20:25:01.837385  2527 net.cpp:131] Top shape: 100 10 (1000)
I0428 20:25:01.837388  2527 net.cpp:139] Memory required for data: 29186800
I0428 20:25:01.837391  2527 layer_factory.hpp:77] Creating layer ip2
I0428 20:25:01.837399  2527 net.cpp:86] Creating Layer ip2
I0428 20:25:01.837402  2527 net.cpp:408] ip2 <- ip1
I0428 20:25:01.837407  2527 net.cpp:382] ip2 -> ip2
I0428 20:25:01.837502  2527 net.cpp:124] Setting up ip2
I0428 20:25:01.837509  2527 net.cpp:131] Top shape: 100 10 (1000)
I0428 20:25:01.837512  2527 net.cpp:139] Memory required for data: 29190800
I0428 20:25:01.837518  2527 layer_factory.hpp:77] Creating layer relu2
I0428 20:25:01.837522  2527 net.cpp:86] Creating Layer relu2
I0428 20:25:01.837525  2527 net.cpp:408] relu2 <- ip2
I0428 20:25:01.837530  2527 net.cpp:369] relu2 -> ip2 (in-place)
I0428 20:25:01.837680  2527 net.cpp:124] Setting up relu2
I0428 20:25:01.837689  2527 net.cpp:131] Top shape: 100 10 (1000)
I0428 20:25:01.837692  2527 net.cpp:139] Memory required for data: 29194800
I0428 20:25:01.837695  2527 layer_factory.hpp:77] Creating layer ip2_relu2_0_split
I0428 20:25:01.837702  2527 net.cpp:86] Creating Layer ip2_relu2_0_split
I0428 20:25:01.837707  2527 net.cpp:408] ip2_relu2_0_split <- ip2
I0428 20:25:01.837714  2527 net.cpp:382] ip2_relu2_0_split -> ip2_relu2_0_split_0
I0428 20:25:01.837730  2527 net.cpp:382] ip2_relu2_0_split -> ip2_relu2_0_split_1
I0428 20:25:01.837774  2527 net.cpp:124] Setting up ip2_relu2_0_split
I0428 20:25:01.837780  2527 net.cpp:131] Top shape: 100 10 (1000)
I0428 20:25:01.837783  2527 net.cpp:131] Top shape: 100 10 (1000)
I0428 20:25:01.837786  2527 net.cpp:139] Memory required for data: 29202800
I0428 20:25:01.837790  2527 layer_factory.hpp:77] Creating layer accuracy
I0428 20:25:01.837795  2527 net.cpp:86] Creating Layer accuracy
I0428 20:25:01.837798  2527 net.cpp:408] accuracy <- ip2_relu2_0_split_0
I0428 20:25:01.837802  2527 net.cpp:408] accuracy <- label_mnist_1_split_0
I0428 20:25:01.837807  2527 net.cpp:382] accuracy -> accuracy
…
