…
I0428 19:30:01.212371 22177 net.cpp:296] The NetState phase (0) differed from the phase (1) specified by a rule in layer mnist
I0428 19:30:01.212389 22177 net.cpp:296] The NetState phase (0) differed from the phase (1) specified by a rule in layer accuracy
I0428 19:30:01.212465 22177 net.cpp:53] Initializing net from parameters: 
name: "LeNet"
state {
  phase: TRAIN
  level: 0
  stage: ""
}
layer {
  name: "mnist"
  type: "Data"
  top: "data"
  top: "label"
  include {
    phase: TRAIN
  }
  transform_param {
    scale: 0.00390625
  }
  data_param {
    source: "examples/mnist/mnist_train_lmdb"
    batch_size: 64
    backend: LMDB
  }
}
layer {
  name: "conv0"
  type: "Convolution"
  bottom: "data"
  top: "conv0"
  param {
    lr_mult: 1
  }
  param {
    lr_mult: 2
  }
  convolution_param {
    num_output: 2
    kernel_size: 5
    stride: 1
    weight_filler {
      type: "xavier"
    }
    bias_filler {
      type: "constant"
    }
  }
}
layer {
  name: "pool0"
  type: "Pooling"
  bottom: "conv0"
  top: "pool0"
  pooling_param {
    pool: MAX
    kernel_size: 2
    stride: 2
  }
}
layer {
  name: "ip1"
  type: "InnerProduct"
  bottom: "pool0"
  top: "ip1"
  param {
    lr_mult: 1
  }
  param {
    lr_mult: 2
  }
  inner_product_param {
    num_output: 50
    weight_filler {
      type: "xavier"
    }
    bias_filler {
      type: "constant"
    }
  }
}
layer {
  name: "relu1"
  type: "ReLU"
  bottom: "ip1"
  top: "ip1"
}
layer {
  name: "ip2"
  type: "InnerProduct"
  bottom: "ip1"
  top: "ip2"
  param {
    lr_mult: 1
  }
  param {
    lr_mult: 2
  }
  inner_product_param {
    num_output: 50
    weight_filler {
      type: "xavier"
    }
    bias_filler {
      type: "constant"
    }
  }
}
layer {
  name: "relu2"
  type: "ReLU"
  bottom: "ip2"
  top: "ip2"
}
layer {
  name: "ip3"
  type: "InnerProduct"
  bottom: "ip2"
  top: "ip3"
  param {
    lr_mult: 1
  }
  param {
    lr_mult: 2
  }
  inner_product_param {
    num_output: 10
    weight_filler {
      type: "xavier"
    }
    bias_filler {
      type: "constant"
    }
  }
}
layer {
  name: "relu3"
  type: "ReLU"
  bottom: "ip3"
  top: "ip3"
}
layer {
  name: "loss"
  type: "SoftmaxWithLoss"
  bottom: "ip3"
  bottom: "label"
  top: "loss"
}
I0428 19:30:01.212551 22177 layer_factory.hpp:77] Creating layer mnist
I0428 19:30:01.212682 22177 db_lmdb.cpp:35] Opened lmdb examples/mnist/mnist_train_lmdb
I0428 19:30:01.212709 22177 net.cpp:86] Creating Layer mnist
I0428 19:30:01.212721 22177 net.cpp:382] mnist -> data
I0428 19:30:01.212746 22177 net.cpp:382] mnist -> label
I0428 19:30:01.213907 22177 data_layer.cpp:45] output data size: 64,1,28,28
I0428 19:30:01.216125 22177 net.cpp:124] Setting up mnist
I0428 19:30:01.216157 22177 net.cpp:131] Top shape: 64 1 28 28 (50176)
I0428 19:30:01.216167 22177 net.cpp:131] Top shape: 64 (64)
I0428 19:30:01.216172 22177 net.cpp:139] Memory required for data: 200960
I0428 19:30:01.216181 22177 layer_factory.hpp:77] Creating layer conv0
I0428 19:30:01.216199 22177 net.cpp:86] Creating Layer conv0
I0428 19:30:01.216207 22177 net.cpp:408] conv0 <- data
I0428 19:30:01.216223 22177 net.cpp:382] conv0 -> conv0
I0428 19:30:01.451496 22177 net.cpp:124] Setting up conv0
I0428 19:30:01.451526 22177 net.cpp:131] Top shape: 64 2 24 24 (73728)
I0428 19:30:01.451532 22177 net.cpp:139] Memory required for data: 495872
I0428 19:30:01.451566 22177 layer_factory.hpp:77] Creating layer pool0
I0428 19:30:01.451582 22177 net.cpp:86] Creating Layer pool0
I0428 19:30:01.451606 22177 net.cpp:408] pool0 <- conv0
I0428 19:30:01.451617 22177 net.cpp:382] pool0 -> pool0
I0428 19:30:01.451670 22177 net.cpp:124] Setting up pool0
I0428 19:30:01.451679 22177 net.cpp:131] Top shape: 64 2 12 12 (18432)
I0428 19:30:01.451684 22177 net.cpp:139] Memory required for data: 569600
I0428 19:30:01.451689 22177 layer_factory.hpp:77] Creating layer ip1
I0428 19:30:01.451700 22177 net.cpp:86] Creating Layer ip1
I0428 19:30:01.451709 22177 net.cpp:408] ip1 <- pool0
I0428 19:30:01.451716 22177 net.cpp:382] ip1 -> ip1
I0428 19:30:01.452765 22177 net.cpp:124] Setting up ip1
I0428 19:30:01.452781 22177 net.cpp:131] Top shape: 64 50 (3200)
I0428 19:30:01.452787 22177 net.cpp:139] Memory required for data: 582400
I0428 19:30:01.452801 22177 layer_factory.hpp:77] Creating layer relu1
I0428 19:30:01.452831 22177 net.cpp:86] Creating Layer relu1
I0428 19:30:01.452853 22177 net.cpp:408] relu1 <- ip1
I0428 19:30:01.452862 22177 net.cpp:369] relu1 -> ip1 (in-place)
I0428 19:30:01.453050 22177 net.cpp:124] Setting up relu1
I0428 19:30:01.453061 22177 net.cpp:131] Top shape: 64 50 (3200)
I0428 19:30:01.453066 22177 net.cpp:139] Memory required for data: 595200
I0428 19:30:01.453071 22177 layer_factory.hpp:77] Creating layer ip2
I0428 19:30:01.453081 22177 net.cpp:86] Creating Layer ip2
I0428 19:30:01.453088 22177 net.cpp:408] ip2 <- ip1
I0428 19:30:01.453096 22177 net.cpp:382] ip2 -> ip2
I0428 19:30:01.454116 22177 net.cpp:124] Setting up ip2
I0428 19:30:01.454131 22177 net.cpp:131] Top shape: 64 50 (3200)
I0428 19:30:01.454138 22177 net.cpp:139] Memory required for data: 608000
I0428 19:30:01.454151 22177 layer_factory.hpp:77] Creating layer relu2
I0428 19:30:01.454166 22177 net.cpp:86] Creating Layer relu2
I0428 19:30:01.454175 22177 net.cpp:408] relu2 <- ip2
I0428 19:30:01.454183 22177 net.cpp:369] relu2 -> ip2 (in-place)
I0428 19:30:01.454959 22177 net.cpp:124] Setting up relu2
I0428 19:30:01.454973 22177 net.cpp:131] Top shape: 64 50 (3200)
I0428 19:30:01.454979 22177 net.cpp:139] Memory required for data: 620800
I0428 19:30:01.454984 22177 layer_factory.hpp:77] Creating layer ip3
I0428 19:30:01.454994 22177 net.cpp:86] Creating Layer ip3
I0428 19:30:01.455000 22177 net.cpp:408] ip3 <- ip2
I0428 19:30:01.455009 22177 net.cpp:382] ip3 -> ip3
I0428 19:30:01.455113 22177 net.cpp:124] Setting up ip3
I0428 19:30:01.455122 22177 net.cpp:131] Top shape: 64 10 (640)
I0428 19:30:01.455127 22177 net.cpp:139] Memory required for data: 623360
I0428 19:30:01.455137 22177 layer_factory.hpp:77] Creating layer relu3
I0428 19:30:01.455147 22177 net.cpp:86] Creating Layer relu3
I0428 19:30:01.455153 22177 net.cpp:408] relu3 <- ip3
I0428 19:30:01.455160 22177 net.cpp:369] relu3 -> ip3 (in-place)
I0428 19:30:01.455344 22177 net.cpp:124] Setting up relu3
I0428 19:30:01.455354 22177 net.cpp:131] Top shape: 64 10 (640)
I0428 19:30:01.455359 22177 net.cpp:139] Memory required for data: 625920
I0428 19:30:01.455364 22177 layer_factory.hpp:77] Creating layer loss
I0428 19:30:01.455373 22177 net.cpp:86] Creating Layer loss
I0428 19:30:01.455377 22177 net.cpp:408] loss <- ip3
I0428 19:30:01.455384 22177 net.cpp:408] loss <- label
I0428 19:30:01.455392 22177 net.cpp:382] loss -> loss
I0428 19:30:01.455412 22177 layer_factory.hpp:77] Creating layer loss
…
I0428 19:30:01.456097 22177 solver.cpp:173] Creating test net (#0) specified by net file: ECE595/mnist/train_test/var_everything2/lenet_train_test77.prototxt
I0428 19:30:01.456146 22177 net.cpp:296] The NetState phase (1) differed from the phase (0) specified by a rule in layer mnist
I0428 19:30:01.456231 22177 net.cpp:53] Initializing net from parameters: 
name: "LeNet"
state {
  phase: TEST
}
layer {
  name: "mnist"
  type: "Data"
  top: "data"
  top: "label"
  include {
    phase: TEST
  }
  transform_param {
    scale: 0.00390625
  }
  data_param {
    source: "examples/mnist/mnist_test_lmdb"
    batch_size: 100
    backend: LMDB
  }
}
layer {
  name: "conv0"
  type: "Convolution"
  bottom: "data"
  top: "conv0"
  param {
    lr_mult: 1
  }
  param {
    lr_mult: 2
  }
  convolution_param {
    num_output: 2
    kernel_size: 5
    stride: 1
    weight_filler {
      type: "xavier"
    }
    bias_filler {
      type: "constant"
    }
  }
}
layer {
  name: "pool0"
  type: "Pooling"
  bottom: "conv0"
  top: "pool0"
  pooling_param {
    pool: MAX
    kernel_size: 2
    stride: 2
  }
}
layer {
  name: "ip1"
  type: "InnerProduct"
  bottom: "pool0"
  top: "ip1"
  param {
    lr_mult: 1
  }
  param {
    lr_mult: 2
  }
  inner_product_param {
    num_output: 50
    weight_filler {
      type: "xavier"
    }
    bias_filler {
      type: "constant"
    }
  }
}
layer {
  name: "relu1"
  type: "ReLU"
  bottom: "ip1"
  top: "ip1"
}
layer {
  name: "ip2"
  type: "InnerProduct"
  bottom: "ip1"
  top: "ip2"
  param {
    lr_mult: 1
  }
  param {
    lr_mult: 2
  }
  inner_product_param {
    num_output: 50
    weight_filler {
      type: "xavier"
    }
    bias_filler {
      type: "constant"
    }
  }
}
layer {
  name: "relu2"
  type: "ReLU"
  bottom: "ip2"
  top: "ip2"
}
layer {
  name: "ip3"
  type: "InnerProduct"
  bottom: "ip2"
  top: "ip3"
  param {
    lr_mult: 1
  }
  param {
    lr_mult: 2
  }
  inner_product_param {
    num_output: 10
    weight_filler {
      type: "xavier"
    }
    bias_filler {
      type: "constant"
    }
  }
}
layer {
  name: "relu3"
  type: "ReLU"
  bottom: "ip3"
  top: "ip3"
}
layer {
  name: "accuracy"
  type: "Accuracy"
  bottom: "ip3"
  bottom: "label"
  top: "accuracy"
  include {
    phase: TEST
  }
}
layer {
  name: "loss"
  type: "SoftmaxWithLoss"
  bottom: "ip3"
  bottom: "label"
  top: "loss"
}
I0428 19:30:01.456327 22177 layer_factory.hpp:77] Creating layer mnist
I0428 19:30:01.456387 22177 db_lmdb.cpp:35] Opened lmdb examples/mnist/mnist_test_lmdb
I0428 19:30:01.456404 22177 net.cpp:86] Creating Layer mnist
I0428 19:30:01.456413 22177 net.cpp:382] mnist -> data
I0428 19:30:01.456424 22177 net.cpp:382] mnist -> label
I0428 19:30:01.456542 22177 data_layer.cpp:45] output data size: 100,1,28,28
I0428 19:30:01.458966 22177 net.cpp:124] Setting up mnist
I0428 19:30:01.458981 22177 net.cpp:131] Top shape: 100 1 28 28 (78400)
I0428 19:30:01.459012 22177 net.cpp:131] Top shape: 100 (100)
I0428 19:30:01.459018 22177 net.cpp:139] Memory required for data: 314000
I0428 19:30:01.459024 22177 layer_factory.hpp:77] Creating layer label_mnist_1_split
I0428 19:30:01.459034 22177 net.cpp:86] Creating Layer label_mnist_1_split
I0428 19:30:01.459039 22177 net.cpp:408] label_mnist_1_split <- label
I0428 19:30:01.459048 22177 net.cpp:382] label_mnist_1_split -> label_mnist_1_split_0
I0428 19:30:01.459058 22177 net.cpp:382] label_mnist_1_split -> label_mnist_1_split_1
I0428 19:30:01.459130 22177 net.cpp:124] Setting up label_mnist_1_split
I0428 19:30:01.459139 22177 net.cpp:131] Top shape: 100 (100)
I0428 19:30:01.459146 22177 net.cpp:131] Top shape: 100 (100)
I0428 19:30:01.459151 22177 net.cpp:139] Memory required for data: 314800
I0428 19:30:01.459182 22177 layer_factory.hpp:77] Creating layer conv0
I0428 19:30:01.459197 22177 net.cpp:86] Creating Layer conv0
I0428 19:30:01.459203 22177 net.cpp:408] conv0 <- data
I0428 19:30:01.459214 22177 net.cpp:382] conv0 -> conv0
I0428 19:30:01.460840 22177 net.cpp:124] Setting up conv0
I0428 19:30:01.460872 22177 net.cpp:131] Top shape: 100 2 24 24 (115200)
I0428 19:30:01.460880 22177 net.cpp:139] Memory required for data: 775600
I0428 19:30:01.460894 22177 layer_factory.hpp:77] Creating layer pool0
I0428 19:30:01.460909 22177 net.cpp:86] Creating Layer pool0
I0428 19:30:01.460917 22177 net.cpp:408] pool0 <- conv0
I0428 19:30:01.460925 22177 net.cpp:382] pool0 -> pool0
I0428 19:30:01.460973 22177 net.cpp:124] Setting up pool0
I0428 19:30:01.460983 22177 net.cpp:131] Top shape: 100 2 12 12 (28800)
I0428 19:30:01.460988 22177 net.cpp:139] Memory required for data: 890800
I0428 19:30:01.460994 22177 layer_factory.hpp:77] Creating layer ip1
I0428 19:30:01.461006 22177 net.cpp:86] Creating Layer ip1
I0428 19:30:01.461014 22177 net.cpp:408] ip1 <- pool0
I0428 19:30:01.461022 22177 net.cpp:382] ip1 -> ip1
I0428 19:30:01.461319 22177 net.cpp:124] Setting up ip1
I0428 19:30:01.461329 22177 net.cpp:131] Top shape: 100 50 (5000)
I0428 19:30:01.461334 22177 net.cpp:139] Memory required for data: 910800
I0428 19:30:01.461346 22177 layer_factory.hpp:77] Creating layer relu1
I0428 19:30:01.461354 22177 net.cpp:86] Creating Layer relu1
I0428 19:30:01.461359 22177 net.cpp:408] relu1 <- ip1
I0428 19:30:01.461369 22177 net.cpp:369] relu1 -> ip1 (in-place)
I0428 19:30:01.461592 22177 net.cpp:124] Setting up relu1
I0428 19:30:01.461603 22177 net.cpp:131] Top shape: 100 50 (5000)
I0428 19:30:01.461609 22177 net.cpp:139] Memory required for data: 930800
I0428 19:30:01.461614 22177 layer_factory.hpp:77] Creating layer ip2
I0428 19:30:01.461625 22177 net.cpp:86] Creating Layer ip2
I0428 19:30:01.461632 22177 net.cpp:408] ip2 <- ip1
I0428 19:30:01.461642 22177 net.cpp:382] ip2 -> ip2
I0428 19:30:01.461791 22177 net.cpp:124] Setting up ip2
I0428 19:30:01.461802 22177 net.cpp:131] Top shape: 100 50 (5000)
I0428 19:30:01.461808 22177 net.cpp:139] Memory required for data: 950800
I0428 19:30:01.461822 22177 layer_factory.hpp:77] Creating layer relu2
I0428 19:30:01.461830 22177 net.cpp:86] Creating Layer relu2
I0428 19:30:01.461838 22177 net.cpp:408] relu2 <- ip2
I0428 19:30:01.461845 22177 net.cpp:369] relu2 -> ip2 (in-place)
I0428 19:30:01.462666 22177 net.cpp:124] Setting up relu2
I0428 19:30:01.462679 22177 net.cpp:131] Top shape: 100 50 (5000)
I0428 19:30:01.462684 22177 net.cpp:139] Memory required for data: 970800
I0428 19:30:01.462689 22177 layer_factory.hpp:77] Creating layer ip3
I0428 19:30:01.462702 22177 net.cpp:86] Creating Layer ip3
I0428 19:30:01.462708 22177 net.cpp:408] ip3 <- ip2
I0428 19:30:01.462718 22177 net.cpp:382] ip3 -> ip3
I0428 19:30:01.462899 22177 net.cpp:124] Setting up ip3
I0428 19:30:01.462909 22177 net.cpp:131] Top shape: 100 10 (1000)
I0428 19:30:01.462914 22177 net.cpp:139] Memory required for data: 974800
I0428 19:30:01.462924 22177 layer_factory.hpp:77] Creating layer relu3
I0428 19:30:01.462946 22177 net.cpp:86] Creating Layer relu3
I0428 19:30:01.462967 22177 net.cpp:408] relu3 <- ip3
I0428 19:30:01.462991 22177 net.cpp:369] relu3 -> ip3 (in-place)
I0428 19:30:01.463187 22177 net.cpp:124] Setting up relu3
I0428 19:30:01.463198 22177 net.cpp:131] Top shape: 100 10 (1000)
I0428 19:30:01.463203 22177 net.cpp:139] Memory required for data: 978800
I0428 19:30:01.463209 22177 layer_factory.hpp:77] Creating layer ip3_relu3_0_split
I0428 19:30:01.463218 22177 net.cpp:86] Creating Layer ip3_relu3_0_split
I0428 19:30:01.463224 22177 net.cpp:408] ip3_relu3_0_split <- ip3
I0428 19:30:01.463233 22177 net.cpp:382] ip3_relu3_0_split -> ip3_relu3_0_split_0
I0428 19:30:01.463244 22177 net.cpp:382] ip3_relu3_0_split -> ip3_relu3_0_split_1
I0428 19:30:01.463289 22177 net.cpp:124] Setting up ip3_relu3_0_split
I0428 19:30:01.463297 22177 net.cpp:131] Top shape: 100 10 (1000)
I0428 19:30:01.463304 22177 net.cpp:131] Top shape: 100 10 (1000)
I0428 19:30:01.463322 22177 net.cpp:139] Memory required for data: 986800
I0428 19:30:01.463342 22177 layer_factory.hpp:77] Creating layer accuracy
I0428 19:30:01.463352 22177 net.cpp:86] Creating Layer accuracy
I0428 19:30:01.463359 22177 net.cpp:408] accuracy <- ip3_relu3_0_split_0
I0428 19:30:01.463366 22177 net.cpp:408] accuracy <- label_mnist_1_split_0
I0428 19:30:01.463390 22177 net.cpp:382] accuracy -> accuracy
…
