…
I0428 19:40:01.947192 24447 net.cpp:296] The NetState phase (0) differed from the phase (1) specified by a rule in layer mnist
I0428 19:40:01.947209 24447 net.cpp:296] The NetState phase (0) differed from the phase (1) specified by a rule in layer accuracy
I0428 19:40:01.947296 24447 net.cpp:53] Initializing net from parameters: 
name: "LeNet"
state {
  phase: TRAIN
  level: 0
  stage: ""
}
layer {
  name: "mnist"
  type: "Data"
  top: "data"
  top: "label"
  include {
    phase: TRAIN
  }
  transform_param {
    scale: 0.00390625
  }
  data_param {
    source: "examples/mnist/mnist_train_lmdb"
    batch_size: 64
    backend: LMDB
  }
}
layer {
  name: "conv0"
  type: "Convolution"
  bottom: "data"
  top: "conv0"
  param {
    lr_mult: 1
  }
  param {
    lr_mult: 2
  }
  convolution_param {
    num_output: 2
    kernel_size: 5
    stride: 1
    weight_filler {
      type: "xavier"
    }
    bias_filler {
      type: "constant"
    }
  }
}
layer {
  name: "pool0"
  type: "Pooling"
  bottom: "conv0"
  top: "pool0"
  pooling_param {
    pool: MAX
    kernel_size: 2
    stride: 2
  }
}
layer {
  name: "conv1"
  type: "Convolution"
  bottom: "pool0"
  top: "conv1"
  param {
    lr_mult: 1
  }
  param {
    lr_mult: 2
  }
  convolution_param {
    num_output: 5
    kernel_size: 5
    stride: 1
    weight_filler {
      type: "xavier"
    }
    bias_filler {
      type: "constant"
    }
  }
}
layer {
  name: "pool1"
  type: "Pooling"
  bottom: "conv1"
  top: "pool1"
  pooling_param {
    pool: MAX
    kernel_size: 2
    stride: 2
  }
}
layer {
  name: "ip1"
  type: "InnerProduct"
  bottom: "pool1"
  top: "ip1"
  param {
    lr_mult: 1
  }
  param {
    lr_mult: 2
  }
  inner_product_param {
    num_output: 50
    weight_filler {
      type: "xavier"
    }
    bias_filler {
      type: "constant"
    }
  }
}
layer {
  name: "relu1"
  type: "ReLU"
  bottom: "ip1"
  top: "ip1"
}
layer {
  name: "ip2"
  type: "InnerProduct"
  bottom: "ip1"
  top: "ip2"
  param {
    lr_mult: 1
  }
  param {
    lr_mult: 2
  }
  inner_product_param {
    num_output: 10
    weight_filler {
      type: "xavier"
    }
    bias_filler {
      type: "constant"
    }
  }
}
layer {
  name: "relu2"
  type: "ReLU"
  bottom: "ip2"
  top: "ip2"
}
layer {
  name: "loss"
  type: "SoftmaxWithLoss"
  bottom: "ip2"
  bottom: "label"
  top: "loss"
}
I0428 19:40:01.947366 24447 layer_factory.hpp:77] Creating layer mnist
I0428 19:40:01.947463 24447 db_lmdb.cpp:35] Opened lmdb examples/mnist/mnist_train_lmdb
I0428 19:40:01.947487 24447 net.cpp:86] Creating Layer mnist
I0428 19:40:01.947494 24447 net.cpp:382] mnist -> data
I0428 19:40:01.947517 24447 net.cpp:382] mnist -> label
I0428 19:40:01.948601 24447 data_layer.cpp:45] output data size: 64,1,28,28
I0428 19:40:01.951050 24447 net.cpp:124] Setting up mnist
I0428 19:40:01.951066 24447 net.cpp:131] Top shape: 64 1 28 28 (50176)
I0428 19:40:01.951073 24447 net.cpp:131] Top shape: 64 (64)
I0428 19:40:01.951077 24447 net.cpp:139] Memory required for data: 200960
I0428 19:40:01.951084 24447 layer_factory.hpp:77] Creating layer conv0
I0428 19:40:01.951099 24447 net.cpp:86] Creating Layer conv0
I0428 19:40:01.951105 24447 net.cpp:408] conv0 <- data
I0428 19:40:01.951115 24447 net.cpp:382] conv0 -> conv0
I0428 19:40:02.234477 24447 net.cpp:124] Setting up conv0
I0428 19:40:02.234504 24447 net.cpp:131] Top shape: 64 2 24 24 (73728)
I0428 19:40:02.234508 24447 net.cpp:139] Memory required for data: 495872
I0428 19:40:02.234541 24447 layer_factory.hpp:77] Creating layer pool0
I0428 19:40:02.234553 24447 net.cpp:86] Creating Layer pool0
I0428 19:40:02.234557 24447 net.cpp:408] pool0 <- conv0
I0428 19:40:02.234563 24447 net.cpp:382] pool0 -> pool0
I0428 19:40:02.234609 24447 net.cpp:124] Setting up pool0
I0428 19:40:02.234616 24447 net.cpp:131] Top shape: 64 2 12 12 (18432)
I0428 19:40:02.234619 24447 net.cpp:139] Memory required for data: 569600
I0428 19:40:02.234622 24447 layer_factory.hpp:77] Creating layer conv1
I0428 19:40:02.234634 24447 net.cpp:86] Creating Layer conv1
I0428 19:40:02.234637 24447 net.cpp:408] conv1 <- pool0
I0428 19:40:02.234642 24447 net.cpp:382] conv1 -> conv1
I0428 19:40:02.236413 24447 net.cpp:124] Setting up conv1
I0428 19:40:02.236428 24447 net.cpp:131] Top shape: 64 5 8 8 (20480)
I0428 19:40:02.236431 24447 net.cpp:139] Memory required for data: 651520
I0428 19:40:02.236440 24447 layer_factory.hpp:77] Creating layer pool1
I0428 19:40:02.236464 24447 net.cpp:86] Creating Layer pool1
I0428 19:40:02.236467 24447 net.cpp:408] pool1 <- conv1
I0428 19:40:02.236474 24447 net.cpp:382] pool1 -> pool1
I0428 19:40:02.236511 24447 net.cpp:124] Setting up pool1
I0428 19:40:02.236518 24447 net.cpp:131] Top shape: 64 5 4 4 (5120)
I0428 19:40:02.236521 24447 net.cpp:139] Memory required for data: 672000
I0428 19:40:02.236523 24447 layer_factory.hpp:77] Creating layer ip1
I0428 19:40:02.236531 24447 net.cpp:86] Creating Layer ip1
I0428 19:40:02.236533 24447 net.cpp:408] ip1 <- pool1
I0428 19:40:02.236539 24447 net.cpp:382] ip1 -> ip1
I0428 19:40:02.237517 24447 net.cpp:124] Setting up ip1
I0428 19:40:02.237531 24447 net.cpp:131] Top shape: 64 50 (3200)
I0428 19:40:02.237534 24447 net.cpp:139] Memory required for data: 684800
I0428 19:40:02.237560 24447 layer_factory.hpp:77] Creating layer relu1
I0428 19:40:02.237565 24447 net.cpp:86] Creating Layer relu1
I0428 19:40:02.237570 24447 net.cpp:408] relu1 <- ip1
I0428 19:40:02.237573 24447 net.cpp:369] relu1 -> ip1 (in-place)
I0428 19:40:02.237754 24447 net.cpp:124] Setting up relu1
I0428 19:40:02.237763 24447 net.cpp:131] Top shape: 64 50 (3200)
I0428 19:40:02.237766 24447 net.cpp:139] Memory required for data: 697600
I0428 19:40:02.237769 24447 layer_factory.hpp:77] Creating layer ip2
I0428 19:40:02.237777 24447 net.cpp:86] Creating Layer ip2
I0428 19:40:02.237781 24447 net.cpp:408] ip2 <- ip1
I0428 19:40:02.237787 24447 net.cpp:382] ip2 -> ip2
I0428 19:40:02.237890 24447 net.cpp:124] Setting up ip2
I0428 19:40:02.237897 24447 net.cpp:131] Top shape: 64 10 (640)
I0428 19:40:02.237900 24447 net.cpp:139] Memory required for data: 700160
I0428 19:40:02.237905 24447 layer_factory.hpp:77] Creating layer relu2
I0428 19:40:02.237911 24447 net.cpp:86] Creating Layer relu2
I0428 19:40:02.237915 24447 net.cpp:408] relu2 <- ip2
I0428 19:40:02.237918 24447 net.cpp:369] relu2 -> ip2 (in-place)
I0428 19:40:02.238657 24447 net.cpp:124] Setting up relu2
I0428 19:40:02.238669 24447 net.cpp:131] Top shape: 64 10 (640)
I0428 19:40:02.238672 24447 net.cpp:139] Memory required for data: 702720
I0428 19:40:02.238675 24447 layer_factory.hpp:77] Creating layer loss
I0428 19:40:02.238682 24447 net.cpp:86] Creating Layer loss
I0428 19:40:02.238684 24447 net.cpp:408] loss <- ip2
I0428 19:40:02.238688 24447 net.cpp:408] loss <- label
I0428 19:40:02.238694 24447 net.cpp:382] loss -> loss
I0428 19:40:02.238713 24447 layer_factory.hpp:77] Creating layer loss
…
I0428 19:40:02.239385 24447 solver.cpp:173] Creating test net (#0) specified by net file: ECE595/mnist/train_test/var_everything2/lenet_train_test322.prototxt
I0428 19:40:02.239409 24447 net.cpp:296] The NetState phase (1) differed from the phase (0) specified by a rule in layer mnist
I0428 19:40:02.239504 24447 net.cpp:53] Initializing net from parameters: 
name: "LeNet"
state {
  phase: TEST
}
layer {
  name: "mnist"
  type: "Data"
  top: "data"
  top: "label"
  include {
    phase: TEST
  }
  transform_param {
    scale: 0.00390625
  }
  data_param {
    source: "examples/mnist/mnist_test_lmdb"
    batch_size: 100
    backend: LMDB
  }
}
layer {
  name: "conv0"
  type: "Convolution"
  bottom: "data"
  top: "conv0"
  param {
    lr_mult: 1
  }
  param {
    lr_mult: 2
  }
  convolution_param {
    num_output: 2
    kernel_size: 5
    stride: 1
    weight_filler {
      type: "xavier"
    }
    bias_filler {
      type: "constant"
    }
  }
}
layer {
  name: "pool0"
  type: "Pooling"
  bottom: "conv0"
  top: "pool0"
  pooling_param {
    pool: MAX
    kernel_size: 2
    stride: 2
  }
}
layer {
  name: "conv1"
  type: "Convolution"
  bottom: "pool0"
  top: "conv1"
  param {
    lr_mult: 1
  }
  param {
    lr_mult: 2
  }
  convolution_param {
    num_output: 5
    kernel_size: 5
    stride: 1
    weight_filler {
      type: "xavier"
    }
    bias_filler {
      type: "constant"
    }
  }
}
layer {
  name: "pool1"
  type: "Pooling"
  bottom: "conv1"
  top: "pool1"
  pooling_param {
    pool: MAX
    kernel_size: 2
    stride: 2
  }
}
layer {
  name: "ip1"
  type: "InnerProduct"
  bottom: "pool1"
  top: "ip1"
  param {
    lr_mult: 1
  }
  param {
    lr_mult: 2
  }
  inner_product_param {
    num_output: 50
    weight_filler {
      type: "xavier"
    }
    bias_filler {
      type: "constant"
    }
  }
}
layer {
  name: "relu1"
  type: "ReLU"
  bottom: "ip1"
  top: "ip1"
}
layer {
  name: "ip2"
  type: "InnerProduct"
  bottom: "ip1"
  top: "ip2"
  param {
    lr_mult: 1
  }
  param {
    lr_mult: 2
  }
  inner_product_param {
    num_output: 10
    weight_filler {
      type: "xavier"
    }
    bias_filler {
      type: "constant"
    }
  }
}
layer {
  name: "relu2"
  type: "ReLU"
  bottom: "ip2"
  top: "ip2"
}
layer {
  name: "accuracy"
  type: "Accuracy"
  bottom: "ip2"
  bottom: "label"
  top: "accuracy"
  include {
    phase: TEST
  }
}
layer {
  name: "loss"
  type: "SoftmaxWithLoss"
  bottom: "ip2"
  bottom: "label"
  top: "loss"
}
I0428 19:40:02.239572 24447 layer_factory.hpp:77] Creating layer mnist
I0428 19:40:02.239619 24447 db_lmdb.cpp:35] Opened lmdb examples/mnist/mnist_test_lmdb
I0428 19:40:02.239630 24447 net.cpp:86] Creating Layer mnist
I0428 19:40:02.239634 24447 net.cpp:382] mnist -> data
I0428 19:40:02.239644 24447 net.cpp:382] mnist -> label
I0428 19:40:02.239732 24447 data_layer.cpp:45] output data size: 100,1,28,28
I0428 19:40:02.241875 24447 net.cpp:124] Setting up mnist
I0428 19:40:02.241888 24447 net.cpp:131] Top shape: 100 1 28 28 (78400)
I0428 19:40:02.241894 24447 net.cpp:131] Top shape: 100 (100)
I0428 19:40:02.241896 24447 net.cpp:139] Memory required for data: 314000
I0428 19:40:02.241899 24447 layer_factory.hpp:77] Creating layer label_mnist_1_split
I0428 19:40:02.241919 24447 net.cpp:86] Creating Layer label_mnist_1_split
I0428 19:40:02.241922 24447 net.cpp:408] label_mnist_1_split <- label
I0428 19:40:02.241927 24447 net.cpp:382] label_mnist_1_split -> label_mnist_1_split_0
I0428 19:40:02.241935 24447 net.cpp:382] label_mnist_1_split -> label_mnist_1_split_1
I0428 19:40:02.241977 24447 net.cpp:124] Setting up label_mnist_1_split
I0428 19:40:02.241993 24447 net.cpp:131] Top shape: 100 (100)
I0428 19:40:02.241997 24447 net.cpp:131] Top shape: 100 (100)
I0428 19:40:02.241999 24447 net.cpp:139] Memory required for data: 314800
I0428 19:40:02.242002 24447 layer_factory.hpp:77] Creating layer conv0
I0428 19:40:02.242013 24447 net.cpp:86] Creating Layer conv0
I0428 19:40:02.242017 24447 net.cpp:408] conv0 <- data
I0428 19:40:02.242022 24447 net.cpp:382] conv0 -> conv0
I0428 19:40:02.243628 24447 net.cpp:124] Setting up conv0
I0428 19:40:02.243641 24447 net.cpp:131] Top shape: 100 2 24 24 (115200)
I0428 19:40:02.243645 24447 net.cpp:139] Memory required for data: 775600
I0428 19:40:02.243655 24447 layer_factory.hpp:77] Creating layer pool0
I0428 19:40:02.243661 24447 net.cpp:86] Creating Layer pool0
I0428 19:40:02.243664 24447 net.cpp:408] pool0 <- conv0
I0428 19:40:02.243670 24447 net.cpp:382] pool0 -> pool0
I0428 19:40:02.243705 24447 net.cpp:124] Setting up pool0
I0428 19:40:02.243715 24447 net.cpp:131] Top shape: 100 2 12 12 (28800)
I0428 19:40:02.243717 24447 net.cpp:139] Memory required for data: 890800
I0428 19:40:02.243721 24447 layer_factory.hpp:77] Creating layer conv1
I0428 19:40:02.243729 24447 net.cpp:86] Creating Layer conv1
I0428 19:40:02.243732 24447 net.cpp:408] conv1 <- pool0
I0428 19:40:02.243738 24447 net.cpp:382] conv1 -> conv1
I0428 19:40:02.245343 24447 net.cpp:124] Setting up conv1
I0428 19:40:02.245357 24447 net.cpp:131] Top shape: 100 5 8 8 (32000)
I0428 19:40:02.245362 24447 net.cpp:139] Memory required for data: 1018800
I0428 19:40:02.245370 24447 layer_factory.hpp:77] Creating layer pool1
I0428 19:40:02.245378 24447 net.cpp:86] Creating Layer pool1
I0428 19:40:02.245386 24447 net.cpp:408] pool1 <- conv1
I0428 19:40:02.245393 24447 net.cpp:382] pool1 -> pool1
I0428 19:40:02.245434 24447 net.cpp:124] Setting up pool1
I0428 19:40:02.245440 24447 net.cpp:131] Top shape: 100 5 4 4 (8000)
I0428 19:40:02.245443 24447 net.cpp:139] Memory required for data: 1050800
I0428 19:40:02.245446 24447 layer_factory.hpp:77] Creating layer ip1
I0428 19:40:02.245452 24447 net.cpp:86] Creating Layer ip1
I0428 19:40:02.245455 24447 net.cpp:408] ip1 <- pool1
I0428 19:40:02.245460 24447 net.cpp:382] ip1 -> ip1
I0428 19:40:02.245581 24447 net.cpp:124] Setting up ip1
I0428 19:40:02.245589 24447 net.cpp:131] Top shape: 100 50 (5000)
I0428 19:40:02.245592 24447 net.cpp:139] Memory required for data: 1070800
I0428 19:40:02.245599 24447 layer_factory.hpp:77] Creating layer relu1
I0428 19:40:02.245604 24447 net.cpp:86] Creating Layer relu1
I0428 19:40:02.245607 24447 net.cpp:408] relu1 <- ip1
I0428 19:40:02.245621 24447 net.cpp:369] relu1 -> ip1 (in-place)
I0428 19:40:02.245851 24447 net.cpp:124] Setting up relu1
I0428 19:40:02.245858 24447 net.cpp:131] Top shape: 100 50 (5000)
I0428 19:40:02.245862 24447 net.cpp:139] Memory required for data: 1090800
I0428 19:40:02.245865 24447 layer_factory.hpp:77] Creating layer ip2
I0428 19:40:02.245878 24447 net.cpp:86] Creating Layer ip2
I0428 19:40:02.245882 24447 net.cpp:408] ip2 <- ip1
I0428 19:40:02.245888 24447 net.cpp:382] ip2 -> ip2
I0428 19:40:02.246044 24447 net.cpp:124] Setting up ip2
I0428 19:40:02.246052 24447 net.cpp:131] Top shape: 100 10 (1000)
I0428 19:40:02.246055 24447 net.cpp:139] Memory required for data: 1094800
I0428 19:40:02.246062 24447 layer_factory.hpp:77] Creating layer relu2
I0428 19:40:02.246065 24447 net.cpp:86] Creating Layer relu2
I0428 19:40:02.246068 24447 net.cpp:408] relu2 <- ip2
I0428 19:40:02.246073 24447 net.cpp:369] relu2 -> ip2 (in-place)
I0428 19:40:02.246228 24447 net.cpp:124] Setting up relu2
I0428 19:40:02.246237 24447 net.cpp:131] Top shape: 100 10 (1000)
I0428 19:40:02.246239 24447 net.cpp:139] Memory required for data: 1098800
I0428 19:40:02.246243 24447 layer_factory.hpp:77] Creating layer ip2_relu2_0_split
I0428 19:40:02.246248 24447 net.cpp:86] Creating Layer ip2_relu2_0_split
I0428 19:40:02.246250 24447 net.cpp:408] ip2_relu2_0_split <- ip2
I0428 19:40:02.246264 24447 net.cpp:382] ip2_relu2_0_split -> ip2_relu2_0_split_0
I0428 19:40:02.246279 24447 net.cpp:382] ip2_relu2_0_split -> ip2_relu2_0_split_1
I0428 19:40:02.246315 24447 net.cpp:124] Setting up ip2_relu2_0_split
I0428 19:40:02.246321 24447 net.cpp:131] Top shape: 100 10 (1000)
I0428 19:40:02.246325 24447 net.cpp:131] Top shape: 100 10 (1000)
I0428 19:40:02.246335 24447 net.cpp:139] Memory required for data: 1106800
I0428 19:40:02.246338 24447 layer_factory.hpp:77] Creating layer accuracy
I0428 19:40:02.246343 24447 net.cpp:86] Creating Layer accuracy
I0428 19:40:02.246346 24447 net.cpp:408] accuracy <- ip2_relu2_0_split_0
I0428 19:40:02.246354 24447 net.cpp:408] accuracy <- label_mnist_1_split_0
I0428 19:40:02.246361 24447 net.cpp:382] accuracy -> accuracy
…
