…
I0428 20:37:27.377530  4945 net.cpp:296] The NetState phase (0) differed from the phase (1) specified by a rule in layer mnist
I0428 20:37:27.377544  4945 net.cpp:296] The NetState phase (0) differed from the phase (1) specified by a rule in layer accuracy
I0428 20:37:27.377619  4945 net.cpp:53] Initializing net from parameters: 
name: "LeNet"
state {
  phase: TRAIN
  level: 0
  stage: ""
}
layer {
  name: "mnist"
  type: "Data"
  top: "data"
  top: "label"
  include {
    phase: TRAIN
  }
  transform_param {
    scale: 0.00390625
  }
  data_param {
    source: "examples/mnist/mnist_train_lmdb"
    batch_size: 64
    backend: LMDB
  }
}
layer {
  name: "conv0"
  type: "Convolution"
  bottom: "data"
  top: "conv0"
  param {
    lr_mult: 1
  }
  param {
    lr_mult: 2
  }
  convolution_param {
    num_output: 100
    kernel_size: 5
    stride: 1
    weight_filler {
      type: "xavier"
    }
    bias_filler {
      type: "constant"
    }
  }
}
layer {
  name: "pool0"
  type: "Pooling"
  bottom: "conv0"
  top: "pool0"
  pooling_param {
    pool: MAX
    kernel_size: 2
    stride: 2
  }
}
layer {
  name: "conv1"
  type: "Convolution"
  bottom: "pool0"
  top: "conv1"
  param {
    lr_mult: 1
  }
  param {
    lr_mult: 2
  }
  convolution_param {
    num_output: 100
    kernel_size: 5
    stride: 1
    weight_filler {
      type: "xavier"
    }
    bias_filler {
      type: "constant"
    }
  }
}
layer {
  name: "pool1"
  type: "Pooling"
  bottom: "conv1"
  top: "pool1"
  pooling_param {
    pool: MAX
    kernel_size: 2
    stride: 2
  }
}
layer {
  name: "ip1"
  type: "InnerProduct"
  bottom: "pool1"
  top: "ip1"
  param {
    lr_mult: 1
  }
  param {
    lr_mult: 2
  }
  inner_product_param {
    num_output: 10
    weight_filler {
      type: "xavier"
    }
    bias_filler {
      type: "constant"
    }
  }
}
layer {
  name: "relu1"
  type: "ReLU"
  bottom: "ip1"
  top: "ip1"
}
layer {
  name: "ip2"
  type: "InnerProduct"
  bottom: "ip1"
  top: "ip2"
  param {
    lr_mult: 1
  }
  param {
    lr_mult: 2
  }
  inner_product_param {
    num_output: 10
    weight_filler {
      type: "xavier"
    }
    bias_filler {
      type: "constant"
    }
  }
}
layer {
  name: "relu2"
  type: "ReLU"
  bottom: "ip2"
  top: "ip2"
}
layer {
  name: "ip3"
  type: "InnerProduct"
  bottom: "ip2"
  top: "ip3"
  param {
    lr_mult: 1
  }
  param {
    lr_mult: 2
  }
  inner_product_param {
    num_output: 10
    weight_filler {
      type: "xavier"
    }
    bias_filler {
      type: "constant"
    }
  }
}
layer {
  name: "relu3"
  type: "ReLU"
  bottom: "ip3"
  top: "ip3"
}
layer {
  name: "loss"
  type: "SoftmaxWithLoss"
  bottom: "ip3"
  bottom: "label"
  top: "loss"
}
I0428 20:37:27.377678  4945 layer_factory.hpp:77] Creating layer mnist
I0428 20:37:27.377760  4945 db_lmdb.cpp:35] Opened lmdb examples/mnist/mnist_train_lmdb
I0428 20:37:27.377779  4945 net.cpp:86] Creating Layer mnist
I0428 20:37:27.377785  4945 net.cpp:382] mnist -> data
I0428 20:37:27.377804  4945 net.cpp:382] mnist -> label
I0428 20:37:27.378720  4945 data_layer.cpp:45] output data size: 64,1,28,28
I0428 20:37:27.380851  4945 net.cpp:124] Setting up mnist
I0428 20:37:27.380882  4945 net.cpp:131] Top shape: 64 1 28 28 (50176)
I0428 20:37:27.380887  4945 net.cpp:131] Top shape: 64 (64)
I0428 20:37:27.380889  4945 net.cpp:139] Memory required for data: 200960
I0428 20:37:27.380897  4945 layer_factory.hpp:77] Creating layer conv0
I0428 20:37:27.380908  4945 net.cpp:86] Creating Layer conv0
I0428 20:37:27.380941  4945 net.cpp:408] conv0 <- data
I0428 20:37:27.380952  4945 net.cpp:382] conv0 -> conv0
I0428 20:37:27.610939  4945 net.cpp:124] Setting up conv0
I0428 20:37:27.610980  4945 net.cpp:131] Top shape: 64 100 24 24 (3686400)
I0428 20:37:27.610983  4945 net.cpp:139] Memory required for data: 14946560
I0428 20:37:27.610999  4945 layer_factory.hpp:77] Creating layer pool0
I0428 20:37:27.611011  4945 net.cpp:86] Creating Layer pool0
I0428 20:37:27.611016  4945 net.cpp:408] pool0 <- conv0
I0428 20:37:27.611021  4945 net.cpp:382] pool0 -> pool0
I0428 20:37:27.611066  4945 net.cpp:124] Setting up pool0
I0428 20:37:27.611073  4945 net.cpp:131] Top shape: 64 100 12 12 (921600)
I0428 20:37:27.611075  4945 net.cpp:139] Memory required for data: 18632960
I0428 20:37:27.611078  4945 layer_factory.hpp:77] Creating layer conv1
I0428 20:37:27.611088  4945 net.cpp:86] Creating Layer conv1
I0428 20:37:27.611091  4945 net.cpp:408] conv1 <- pool0
I0428 20:37:27.611096  4945 net.cpp:382] conv1 -> conv1
I0428 20:37:27.615250  4945 net.cpp:124] Setting up conv1
I0428 20:37:27.615279  4945 net.cpp:131] Top shape: 64 100 8 8 (409600)
I0428 20:37:27.615283  4945 net.cpp:139] Memory required for data: 20271360
I0428 20:37:27.615291  4945 layer_factory.hpp:77] Creating layer pool1
I0428 20:37:27.615298  4945 net.cpp:86] Creating Layer pool1
I0428 20:37:27.615303  4945 net.cpp:408] pool1 <- conv1
I0428 20:37:27.615308  4945 net.cpp:382] pool1 -> pool1
I0428 20:37:27.615342  4945 net.cpp:124] Setting up pool1
I0428 20:37:27.615347  4945 net.cpp:131] Top shape: 64 100 4 4 (102400)
I0428 20:37:27.615350  4945 net.cpp:139] Memory required for data: 20680960
I0428 20:37:27.615353  4945 layer_factory.hpp:77] Creating layer ip1
I0428 20:37:27.615360  4945 net.cpp:86] Creating Layer ip1
I0428 20:37:27.615363  4945 net.cpp:408] ip1 <- pool1
I0428 20:37:27.615367  4945 net.cpp:382] ip1 -> ip1
I0428 20:37:27.616374  4945 net.cpp:124] Setting up ip1
I0428 20:37:27.616385  4945 net.cpp:131] Top shape: 64 10 (640)
I0428 20:37:27.616405  4945 net.cpp:139] Memory required for data: 20683520
I0428 20:37:27.616412  4945 layer_factory.hpp:77] Creating layer relu1
I0428 20:37:27.616418  4945 net.cpp:86] Creating Layer relu1
I0428 20:37:27.616421  4945 net.cpp:408] relu1 <- ip1
I0428 20:37:27.616426  4945 net.cpp:369] relu1 -> ip1 (in-place)
I0428 20:37:27.616590  4945 net.cpp:124] Setting up relu1
I0428 20:37:27.616600  4945 net.cpp:131] Top shape: 64 10 (640)
I0428 20:37:27.616603  4945 net.cpp:139] Memory required for data: 20686080
I0428 20:37:27.616606  4945 layer_factory.hpp:77] Creating layer ip2
I0428 20:37:27.616613  4945 net.cpp:86] Creating Layer ip2
I0428 20:37:27.616616  4945 net.cpp:408] ip2 <- ip1
I0428 20:37:27.616621  4945 net.cpp:382] ip2 -> ip2
I0428 20:37:27.616716  4945 net.cpp:124] Setting up ip2
I0428 20:37:27.616724  4945 net.cpp:131] Top shape: 64 10 (640)
I0428 20:37:27.616726  4945 net.cpp:139] Memory required for data: 20688640
I0428 20:37:27.616731  4945 layer_factory.hpp:77] Creating layer relu2
I0428 20:37:27.616739  4945 net.cpp:86] Creating Layer relu2
I0428 20:37:27.616741  4945 net.cpp:408] relu2 <- ip2
I0428 20:37:27.616745  4945 net.cpp:369] relu2 -> ip2 (in-place)
I0428 20:37:27.617566  4945 net.cpp:124] Setting up relu2
I0428 20:37:27.617578  4945 net.cpp:131] Top shape: 64 10 (640)
I0428 20:37:27.617597  4945 net.cpp:139] Memory required for data: 20691200
I0428 20:37:27.617600  4945 layer_factory.hpp:77] Creating layer ip3
I0428 20:37:27.617624  4945 net.cpp:86] Creating Layer ip3
I0428 20:37:27.617627  4945 net.cpp:408] ip3 <- ip2
I0428 20:37:27.617633  4945 net.cpp:382] ip3 -> ip3
I0428 20:37:27.617745  4945 net.cpp:124] Setting up ip3
I0428 20:37:27.617753  4945 net.cpp:131] Top shape: 64 10 (640)
I0428 20:37:27.617756  4945 net.cpp:139] Memory required for data: 20693760
I0428 20:37:27.617763  4945 layer_factory.hpp:77] Creating layer relu3
I0428 20:37:27.617769  4945 net.cpp:86] Creating Layer relu3
I0428 20:37:27.617771  4945 net.cpp:408] relu3 <- ip3
I0428 20:37:27.617789  4945 net.cpp:369] relu3 -> ip3 (in-place)
I0428 20:37:27.617981  4945 net.cpp:124] Setting up relu3
I0428 20:37:27.617990  4945 net.cpp:131] Top shape: 64 10 (640)
I0428 20:37:27.617993  4945 net.cpp:139] Memory required for data: 20696320
I0428 20:37:27.617996  4945 layer_factory.hpp:77] Creating layer loss
I0428 20:37:27.618002  4945 net.cpp:86] Creating Layer loss
I0428 20:37:27.618005  4945 net.cpp:408] loss <- ip3
I0428 20:37:27.618010  4945 net.cpp:408] loss <- label
I0428 20:37:27.618016  4945 net.cpp:382] loss -> loss
I0428 20:37:27.618032  4945 layer_factory.hpp:77] Creating layer loss
…
I0428 20:37:27.618675  4945 solver.cpp:173] Creating test net (#0) specified by net file: ECE595/mnist/train_test/var_everything2/lenet_train_test1651.prototxt
I0428 20:37:27.618732  4945 net.cpp:296] The NetState phase (1) differed from the phase (0) specified by a rule in layer mnist
I0428 20:37:27.618824  4945 net.cpp:53] Initializing net from parameters: 
name: "LeNet"
state {
  phase: TEST
}
layer {
  name: "mnist"
  type: "Data"
  top: "data"
  top: "label"
  include {
    phase: TEST
  }
  transform_param {
    scale: 0.00390625
  }
  data_param {
    source: "examples/mnist/mnist_test_lmdb"
    batch_size: 100
    backend: LMDB
  }
}
layer {
  name: "conv0"
  type: "Convolution"
  bottom: "data"
  top: "conv0"
  param {
    lr_mult: 1
  }
  param {
    lr_mult: 2
  }
  convolution_param {
    num_output: 100
    kernel_size: 5
    stride: 1
    weight_filler {
      type: "xavier"
    }
    bias_filler {
      type: "constant"
    }
  }
}
layer {
  name: "pool0"
  type: "Pooling"
  bottom: "conv0"
  top: "pool0"
  pooling_param {
    pool: MAX
    kernel_size: 2
    stride: 2
  }
}
layer {
  name: "conv1"
  type: "Convolution"
  bottom: "pool0"
  top: "conv1"
  param {
    lr_mult: 1
  }
  param {
    lr_mult: 2
  }
  convolution_param {
    num_output: 100
    kernel_size: 5
    stride: 1
    weight_filler {
      type: "xavier"
    }
    bias_filler {
      type: "constant"
    }
  }
}
layer {
  name: "pool1"
  type: "Pooling"
  bottom: "conv1"
  top: "pool1"
  pooling_param {
    pool: MAX
    kernel_size: 2
    stride: 2
  }
}
layer {
  name: "ip1"
  type: "InnerProduct"
  bottom: "pool1"
  top: "ip1"
  param {
    lr_mult: 1
  }
  param {
    lr_mult: 2
  }
  inner_product_param {
    num_output: 10
    weight_filler {
      type: "xavier"
    }
    bias_filler {
      type: "constant"
    }
  }
}
layer {
  name: "relu1"
  type: "ReLU"
  bottom: "ip1"
  top: "ip1"
}
layer {
  name: "ip2"
  type: "InnerProduct"
  bottom: "ip1"
  top: "ip2"
  param {
    lr_mult: 1
  }
  param {
    lr_mult: 2
  }
  inner_product_param {
    num_output: 10
    weight_filler {
      type: "xavier"
    }
    bias_filler {
      type: "constant"
    }
  }
}
layer {
  name: "relu2"
  type: "ReLU"
  bottom: "ip2"
  top: "ip2"
}
layer {
  name: "ip3"
  type: "InnerProduct"
  bottom: "ip2"
  top: "ip3"
  param {
    lr_mult: 1
  }
  param {
    lr_mult: 2
  }
  inner_product_param {
    num_output: 10
    weight_filler {
      type: "xavier"
    }
    bias_filler {
      type: "constant"
    }
  }
}
layer {
  name: "relu3"
  type: "ReLU"
  bottom: "ip3"
  top: "ip3"
}
layer {
  name: "accuracy"
  type: "Accuracy"
  bottom: "ip3"
  bottom: "label"
  top: "accuracy"
  include {
    phase: TEST
  }
}
layer {
  name: "loss"
  type: "SoftmaxWithLoss"
  bottom: "ip3"
  bottom: "label"
  top: "loss"
}
I0428 20:37:27.618906  4945 layer_factory.hpp:77] Creating layer mnist
I0428 20:37:27.618965  4945 db_lmdb.cpp:35] Opened lmdb examples/mnist/mnist_test_lmdb
I0428 20:37:27.618979  4945 net.cpp:86] Creating Layer mnist
I0428 20:37:27.618983  4945 net.cpp:382] mnist -> data
I0428 20:37:27.618991  4945 net.cpp:382] mnist -> label
I0428 20:37:27.619081  4945 data_layer.cpp:45] output data size: 100,1,28,28
I0428 20:37:27.621153  4945 net.cpp:124] Setting up mnist
I0428 20:37:27.621182  4945 net.cpp:131] Top shape: 100 1 28 28 (78400)
I0428 20:37:27.621204  4945 net.cpp:131] Top shape: 100 (100)
I0428 20:37:27.621207  4945 net.cpp:139] Memory required for data: 314000
I0428 20:37:27.621212  4945 layer_factory.hpp:77] Creating layer label_mnist_1_split
I0428 20:37:27.621222  4945 net.cpp:86] Creating Layer label_mnist_1_split
I0428 20:37:27.621224  4945 net.cpp:408] label_mnist_1_split <- label
I0428 20:37:27.621229  4945 net.cpp:382] label_mnist_1_split -> label_mnist_1_split_0
I0428 20:37:27.621235  4945 net.cpp:382] label_mnist_1_split -> label_mnist_1_split_1
I0428 20:37:27.621317  4945 net.cpp:124] Setting up label_mnist_1_split
I0428 20:37:27.621325  4945 net.cpp:131] Top shape: 100 (100)
I0428 20:37:27.621328  4945 net.cpp:131] Top shape: 100 (100)
I0428 20:37:27.621332  4945 net.cpp:139] Memory required for data: 314800
I0428 20:37:27.621335  4945 layer_factory.hpp:77] Creating layer conv0
I0428 20:37:27.621345  4945 net.cpp:86] Creating Layer conv0
I0428 20:37:27.621347  4945 net.cpp:408] conv0 <- data
I0428 20:37:27.621353  4945 net.cpp:382] conv0 -> conv0
I0428 20:37:27.623059  4945 net.cpp:124] Setting up conv0
I0428 20:37:27.623073  4945 net.cpp:131] Top shape: 100 100 24 24 (5760000)
I0428 20:37:27.623077  4945 net.cpp:139] Memory required for data: 23354800
I0428 20:37:27.623086  4945 layer_factory.hpp:77] Creating layer pool0
I0428 20:37:27.623096  4945 net.cpp:86] Creating Layer pool0
I0428 20:37:27.623100  4945 net.cpp:408] pool0 <- conv0
I0428 20:37:27.623105  4945 net.cpp:382] pool0 -> pool0
I0428 20:37:27.623142  4945 net.cpp:124] Setting up pool0
I0428 20:37:27.623147  4945 net.cpp:131] Top shape: 100 100 12 12 (1440000)
I0428 20:37:27.623150  4945 net.cpp:139] Memory required for data: 29114800
I0428 20:37:27.623153  4945 layer_factory.hpp:77] Creating layer conv1
I0428 20:37:27.623162  4945 net.cpp:86] Creating Layer conv1
I0428 20:37:27.623165  4945 net.cpp:408] conv1 <- pool0
I0428 20:37:27.623172  4945 net.cpp:382] conv1 -> conv1
I0428 20:37:27.626137  4945 net.cpp:124] Setting up conv1
I0428 20:37:27.626149  4945 net.cpp:131] Top shape: 100 100 8 8 (640000)
I0428 20:37:27.626153  4945 net.cpp:139] Memory required for data: 31674800
I0428 20:37:27.626176  4945 layer_factory.hpp:77] Creating layer pool1
I0428 20:37:27.626183  4945 net.cpp:86] Creating Layer pool1
I0428 20:37:27.626186  4945 net.cpp:408] pool1 <- conv1
I0428 20:37:27.626193  4945 net.cpp:382] pool1 -> pool1
I0428 20:37:27.626230  4945 net.cpp:124] Setting up pool1
I0428 20:37:27.626237  4945 net.cpp:131] Top shape: 100 100 4 4 (160000)
I0428 20:37:27.626240  4945 net.cpp:139] Memory required for data: 32314800
I0428 20:37:27.626243  4945 layer_factory.hpp:77] Creating layer ip1
I0428 20:37:27.626250  4945 net.cpp:86] Creating Layer ip1
I0428 20:37:27.626253  4945 net.cpp:408] ip1 <- pool1
I0428 20:37:27.626260  4945 net.cpp:382] ip1 -> ip1
I0428 20:37:27.626441  4945 net.cpp:124] Setting up ip1
I0428 20:37:27.626464  4945 net.cpp:131] Top shape: 100 10 (1000)
I0428 20:37:27.626468  4945 net.cpp:139] Memory required for data: 32318800
I0428 20:37:27.626476  4945 layer_factory.hpp:77] Creating layer relu1
I0428 20:37:27.626482  4945 net.cpp:86] Creating Layer relu1
I0428 20:37:27.626484  4945 net.cpp:408] relu1 <- ip1
I0428 20:37:27.626488  4945 net.cpp:369] relu1 -> ip1 (in-place)
I0428 20:37:27.626669  4945 net.cpp:124] Setting up relu1
I0428 20:37:27.626680  4945 net.cpp:131] Top shape: 100 10 (1000)
I0428 20:37:27.626683  4945 net.cpp:139] Memory required for data: 32322800
I0428 20:37:27.626688  4945 layer_factory.hpp:77] Creating layer ip2
I0428 20:37:27.626693  4945 net.cpp:86] Creating Layer ip2
I0428 20:37:27.626698  4945 net.cpp:408] ip2 <- ip1
I0428 20:37:27.626703  4945 net.cpp:382] ip2 -> ip2
I0428 20:37:27.626808  4945 net.cpp:124] Setting up ip2
I0428 20:37:27.626816  4945 net.cpp:131] Top shape: 100 10 (1000)
I0428 20:37:27.626818  4945 net.cpp:139] Memory required for data: 32326800
I0428 20:37:27.626824  4945 layer_factory.hpp:77] Creating layer relu2
I0428 20:37:27.626828  4945 net.cpp:86] Creating Layer relu2
I0428 20:37:27.626832  4945 net.cpp:408] relu2 <- ip2
I0428 20:37:27.626837  4945 net.cpp:369] relu2 -> ip2 (in-place)
I0428 20:37:27.627038  4945 net.cpp:124] Setting up relu2
I0428 20:37:27.627046  4945 net.cpp:131] Top shape: 100 10 (1000)
I0428 20:37:27.627049  4945 net.cpp:139] Memory required for data: 32330800
I0428 20:37:27.627053  4945 layer_factory.hpp:77] Creating layer ip3
I0428 20:37:27.627059  4945 net.cpp:86] Creating Layer ip3
I0428 20:37:27.627063  4945 net.cpp:408] ip3 <- ip2
I0428 20:37:27.627068  4945 net.cpp:382] ip3 -> ip3
I0428 20:37:27.627216  4945 net.cpp:124] Setting up ip3
I0428 20:37:27.627224  4945 net.cpp:131] Top shape: 100 10 (1000)
I0428 20:37:27.627228  4945 net.cpp:139] Memory required for data: 32334800
I0428 20:37:27.627234  4945 layer_factory.hpp:77] Creating layer relu3
I0428 20:37:27.627240  4945 net.cpp:86] Creating Layer relu3
I0428 20:37:27.627243  4945 net.cpp:408] relu3 <- ip3
I0428 20:37:27.627248  4945 net.cpp:369] relu3 -> ip3 (in-place)
I0428 20:37:27.628021  4945 net.cpp:124] Setting up relu3
I0428 20:37:27.628032  4945 net.cpp:131] Top shape: 100 10 (1000)
I0428 20:37:27.628051  4945 net.cpp:139] Memory required for data: 32338800
I0428 20:37:27.628054  4945 layer_factory.hpp:77] Creating layer ip3_relu3_0_split
I0428 20:37:27.628062  4945 net.cpp:86] Creating Layer ip3_relu3_0_split
I0428 20:37:27.628065  4945 net.cpp:408] ip3_relu3_0_split <- ip3
I0428 20:37:27.628070  4945 net.cpp:382] ip3_relu3_0_split -> ip3_relu3_0_split_0
I0428 20:37:27.628077  4945 net.cpp:382] ip3_relu3_0_split -> ip3_relu3_0_split_1
I0428 20:37:27.628115  4945 net.cpp:124] Setting up ip3_relu3_0_split
I0428 20:37:27.628123  4945 net.cpp:131] Top shape: 100 10 (1000)
I0428 20:37:27.628126  4945 net.cpp:131] Top shape: 100 10 (1000)
I0428 20:37:27.628129  4945 net.cpp:139] Memory required for data: 32346800
I0428 20:37:27.628131  4945 layer_factory.hpp:77] Creating layer accuracy
I0428 20:37:27.628136  4945 net.cpp:86] Creating Layer accuracy
I0428 20:37:27.628139  4945 net.cpp:408] accuracy <- ip3_relu3_0_split_0
I0428 20:37:27.628144  4945 net.cpp:408] accuracy <- label_mnist_1_split_0
I0428 20:37:27.628147  4945 net.cpp:382] accuracy -> accuracy
…
