…
I0428 20:05:05.964051 30535 net.cpp:296] The NetState phase (0) differed from the phase (1) specified by a rule in layer mnist
I0428 20:05:05.964066 30535 net.cpp:296] The NetState phase (0) differed from the phase (1) specified by a rule in layer accuracy
I0428 20:05:05.964146 30535 net.cpp:53] Initializing net from parameters: 
name: "LeNet"
state {
  phase: TRAIN
  level: 0
  stage: ""
}
layer {
  name: "mnist"
  type: "Data"
  top: "data"
  top: "label"
  include {
    phase: TRAIN
  }
  transform_param {
    scale: 0.00390625
  }
  data_param {
    source: "examples/mnist/mnist_train_lmdb"
    batch_size: 64
    backend: LMDB
  }
}
layer {
  name: "conv0"
  type: "Convolution"
  bottom: "data"
  top: "conv0"
  param {
    lr_mult: 1
  }
  param {
    lr_mult: 2
  }
  convolution_param {
    num_output: 25
    kernel_size: 5
    stride: 1
    weight_filler {
      type: "xavier"
    }
    bias_filler {
      type: "constant"
    }
  }
}
layer {
  name: "pool0"
  type: "Pooling"
  bottom: "conv0"
  top: "pool0"
  pooling_param {
    pool: MAX
    kernel_size: 2
    stride: 2
  }
}
layer {
  name: "conv1"
  type: "Convolution"
  bottom: "pool0"
  top: "conv1"
  param {
    lr_mult: 1
  }
  param {
    lr_mult: 2
  }
  convolution_param {
    num_output: 2
    kernel_size: 5
    stride: 1
    weight_filler {
      type: "xavier"
    }
    bias_filler {
      type: "constant"
    }
  }
}
layer {
  name: "pool1"
  type: "Pooling"
  bottom: "conv1"
  top: "pool1"
  pooling_param {
    pool: MAX
    kernel_size: 2
    stride: 2
  }
}
layer {
  name: "ip1"
  type: "InnerProduct"
  bottom: "pool1"
  top: "ip1"
  param {
    lr_mult: 1
  }
  param {
    lr_mult: 2
  }
  inner_product_param {
    num_output: 10
    weight_filler {
      type: "xavier"
    }
    bias_filler {
      type: "constant"
    }
  }
}
layer {
  name: "relu1"
  type: "ReLU"
  bottom: "ip1"
  top: "ip1"
}
layer {
  name: "ip2"
  type: "InnerProduct"
  bottom: "ip1"
  top: "ip2"
  param {
    lr_mult: 1
  }
  param {
    lr_mult: 2
  }
  inner_product_param {
    num_output: 25
    weight_filler {
      type: "xavier"
    }
    bias_filler {
      type: "constant"
    }
  }
}
layer {
  name: "relu2"
  type: "ReLU"
  bottom: "ip2"
  top: "ip2"
}
layer {
  name: "ip3"
  type: "InnerProduct"
  bottom: "ip2"
  top: "ip3"
  param {
    lr_mult: 1
  }
  param {
    lr_mult: 2
  }
  inner_product_param {
    num_output: 10
    weight_filler {
      type: "xavier"
    }
    bias_filler {
      type: "constant"
    }
  }
}
layer {
  name: "relu3"
  type: "ReLU"
  bottom: "ip3"
  top: "ip3"
}
layer {
  name: "loss"
  type: "SoftmaxWithLoss"
  bottom: "ip3"
  bottom: "label"
  top: "loss"
}
I0428 20:05:05.964215 30535 layer_factory.hpp:77] Creating layer mnist
I0428 20:05:05.964293 30535 db_lmdb.cpp:35] Opened lmdb examples/mnist/mnist_train_lmdb
I0428 20:05:05.964313 30535 net.cpp:86] Creating Layer mnist
I0428 20:05:05.964319 30535 net.cpp:382] mnist -> data
I0428 20:05:05.964339 30535 net.cpp:382] mnist -> label
I0428 20:05:05.965325 30535 data_layer.cpp:45] output data size: 64,1,28,28
I0428 20:05:05.967438 30535 net.cpp:124] Setting up mnist
I0428 20:05:05.967483 30535 net.cpp:131] Top shape: 64 1 28 28 (50176)
I0428 20:05:05.967489 30535 net.cpp:131] Top shape: 64 (64)
I0428 20:05:05.967491 30535 net.cpp:139] Memory required for data: 200960
I0428 20:05:05.967497 30535 layer_factory.hpp:77] Creating layer conv0
I0428 20:05:05.967533 30535 net.cpp:86] Creating Layer conv0
I0428 20:05:05.967550 30535 net.cpp:408] conv0 <- data
I0428 20:05:05.967561 30535 net.cpp:382] conv0 -> conv0
I0428 20:05:06.194990 30535 net.cpp:124] Setting up conv0
I0428 20:05:06.195032 30535 net.cpp:131] Top shape: 64 25 24 24 (921600)
I0428 20:05:06.195036 30535 net.cpp:139] Memory required for data: 3887360
I0428 20:05:06.195051 30535 layer_factory.hpp:77] Creating layer pool0
I0428 20:05:06.195065 30535 net.cpp:86] Creating Layer pool0
I0428 20:05:06.195070 30535 net.cpp:408] pool0 <- conv0
I0428 20:05:06.195091 30535 net.cpp:382] pool0 -> pool0
I0428 20:05:06.195155 30535 net.cpp:124] Setting up pool0
I0428 20:05:06.195165 30535 net.cpp:131] Top shape: 64 25 12 12 (230400)
I0428 20:05:06.195168 30535 net.cpp:139] Memory required for data: 4808960
I0428 20:05:06.195171 30535 layer_factory.hpp:77] Creating layer conv1
I0428 20:05:06.195183 30535 net.cpp:86] Creating Layer conv1
I0428 20:05:06.195185 30535 net.cpp:408] conv1 <- pool0
I0428 20:05:06.195189 30535 net.cpp:382] conv1 -> conv1
I0428 20:05:06.197928 30535 net.cpp:124] Setting up conv1
I0428 20:05:06.197958 30535 net.cpp:131] Top shape: 64 2 8 8 (8192)
I0428 20:05:06.197962 30535 net.cpp:139] Memory required for data: 4841728
I0428 20:05:06.197984 30535 layer_factory.hpp:77] Creating layer pool1
I0428 20:05:06.197991 30535 net.cpp:86] Creating Layer pool1
I0428 20:05:06.197994 30535 net.cpp:408] pool1 <- conv1
I0428 20:05:06.197999 30535 net.cpp:382] pool1 -> pool1
I0428 20:05:06.198050 30535 net.cpp:124] Setting up pool1
I0428 20:05:06.198055 30535 net.cpp:131] Top shape: 64 2 4 4 (2048)
I0428 20:05:06.198058 30535 net.cpp:139] Memory required for data: 4849920
I0428 20:05:06.198060 30535 layer_factory.hpp:77] Creating layer ip1
I0428 20:05:06.198084 30535 net.cpp:86] Creating Layer ip1
I0428 20:05:06.198086 30535 net.cpp:408] ip1 <- pool1
I0428 20:05:06.198092 30535 net.cpp:382] ip1 -> ip1
I0428 20:05:06.198187 30535 net.cpp:124] Setting up ip1
I0428 20:05:06.198194 30535 net.cpp:131] Top shape: 64 10 (640)
I0428 20:05:06.198197 30535 net.cpp:139] Memory required for data: 4852480
I0428 20:05:06.198204 30535 layer_factory.hpp:77] Creating layer relu1
I0428 20:05:06.198210 30535 net.cpp:86] Creating Layer relu1
I0428 20:05:06.198213 30535 net.cpp:408] relu1 <- ip1
I0428 20:05:06.198217 30535 net.cpp:369] relu1 -> ip1 (in-place)
I0428 20:05:06.198402 30535 net.cpp:124] Setting up relu1
I0428 20:05:06.198410 30535 net.cpp:131] Top shape: 64 10 (640)
I0428 20:05:06.198413 30535 net.cpp:139] Memory required for data: 4855040
I0428 20:05:06.198416 30535 layer_factory.hpp:77] Creating layer ip2
I0428 20:05:06.198426 30535 net.cpp:86] Creating Layer ip2
I0428 20:05:06.198428 30535 net.cpp:408] ip2 <- ip1
I0428 20:05:06.198433 30535 net.cpp:382] ip2 -> ip2
I0428 20:05:06.198525 30535 net.cpp:124] Setting up ip2
I0428 20:05:06.198532 30535 net.cpp:131] Top shape: 64 25 (1600)
I0428 20:05:06.198535 30535 net.cpp:139] Memory required for data: 4861440
I0428 20:05:06.198540 30535 layer_factory.hpp:77] Creating layer relu2
I0428 20:05:06.198546 30535 net.cpp:86] Creating Layer relu2
I0428 20:05:06.198549 30535 net.cpp:408] relu2 <- ip2
I0428 20:05:06.198554 30535 net.cpp:369] relu2 -> ip2 (in-place)
I0428 20:05:06.199271 30535 net.cpp:124] Setting up relu2
I0428 20:05:06.199282 30535 net.cpp:131] Top shape: 64 25 (1600)
I0428 20:05:06.199301 30535 net.cpp:139] Memory required for data: 4867840
I0428 20:05:06.199306 30535 layer_factory.hpp:77] Creating layer ip3
I0428 20:05:06.199312 30535 net.cpp:86] Creating Layer ip3
I0428 20:05:06.199316 30535 net.cpp:408] ip3 <- ip2
I0428 20:05:06.199321 30535 net.cpp:382] ip3 -> ip3
I0428 20:05:06.199417 30535 net.cpp:124] Setting up ip3
I0428 20:05:06.199424 30535 net.cpp:131] Top shape: 64 10 (640)
I0428 20:05:06.199426 30535 net.cpp:139] Memory required for data: 4870400
I0428 20:05:06.199434 30535 layer_factory.hpp:77] Creating layer relu3
I0428 20:05:06.199440 30535 net.cpp:86] Creating Layer relu3
I0428 20:05:06.199443 30535 net.cpp:408] relu3 <- ip3
I0428 20:05:06.199446 30535 net.cpp:369] relu3 -> ip3 (in-place)
I0428 20:05:06.199662 30535 net.cpp:124] Setting up relu3
I0428 20:05:06.199671 30535 net.cpp:131] Top shape: 64 10 (640)
I0428 20:05:06.199674 30535 net.cpp:139] Memory required for data: 4872960
I0428 20:05:06.199677 30535 layer_factory.hpp:77] Creating layer loss
I0428 20:05:06.199684 30535 net.cpp:86] Creating Layer loss
I0428 20:05:06.199687 30535 net.cpp:408] loss <- ip3
I0428 20:05:06.199690 30535 net.cpp:408] loss <- label
I0428 20:05:06.199697 30535 net.cpp:382] loss -> loss
I0428 20:05:06.199713 30535 layer_factory.hpp:77] Creating layer loss
…
I0428 20:05:06.200412 30535 solver.cpp:173] Creating test net (#0) specified by net file: ECE595/mnist/train_test/var_everything2/lenet_train_test990.prototxt
I0428 20:05:06.200455 30535 net.cpp:296] The NetState phase (1) differed from the phase (0) specified by a rule in layer mnist
I0428 20:05:06.200549 30535 net.cpp:53] Initializing net from parameters: 
name: "LeNet"
state {
  phase: TEST
}
layer {
  name: "mnist"
  type: "Data"
  top: "data"
  top: "label"
  include {
    phase: TEST
  }
  transform_param {
    scale: 0.00390625
  }
  data_param {
    source: "examples/mnist/mnist_test_lmdb"
    batch_size: 100
    backend: LMDB
  }
}
layer {
  name: "conv0"
  type: "Convolution"
  bottom: "data"
  top: "conv0"
  param {
    lr_mult: 1
  }
  param {
    lr_mult: 2
  }
  convolution_param {
    num_output: 25
    kernel_size: 5
    stride: 1
    weight_filler {
      type: "xavier"
    }
    bias_filler {
      type: "constant"
    }
  }
}
layer {
  name: "pool0"
  type: "Pooling"
  bottom: "conv0"
  top: "pool0"
  pooling_param {
    pool: MAX
    kernel_size: 2
    stride: 2
  }
}
layer {
  name: "conv1"
  type: "Convolution"
  bottom: "pool0"
  top: "conv1"
  param {
    lr_mult: 1
  }
  param {
    lr_mult: 2
  }
  convolution_param {
    num_output: 2
    kernel_size: 5
    stride: 1
    weight_filler {
      type: "xavier"
    }
    bias_filler {
      type: "constant"
    }
  }
}
layer {
  name: "pool1"
  type: "Pooling"
  bottom: "conv1"
  top: "pool1"
  pooling_param {
    pool: MAX
    kernel_size: 2
    stride: 2
  }
}
layer {
  name: "ip1"
  type: "InnerProduct"
  bottom: "pool1"
  top: "ip1"
  param {
    lr_mult: 1
  }
  param {
    lr_mult: 2
  }
  inner_product_param {
    num_output: 10
    weight_filler {
      type: "xavier"
    }
    bias_filler {
      type: "constant"
    }
  }
}
layer {
  name: "relu1"
  type: "ReLU"
  bottom: "ip1"
  top: "ip1"
}
layer {
  name: "ip2"
  type: "InnerProduct"
  bottom: "ip1"
  top: "ip2"
  param {
    lr_mult: 1
  }
  param {
    lr_mult: 2
  }
  inner_product_param {
    num_output: 25
    weight_filler {
      type: "xavier"
    }
    bias_filler {
      type: "constant"
    }
  }
}
layer {
  name: "relu2"
  type: "ReLU"
  bottom: "ip2"
  top: "ip2"
}
layer {
  name: "ip3"
  type: "InnerProduct"
  bottom: "ip2"
  top: "ip3"
  param {
    lr_mult: 1
  }
  param {
    lr_mult: 2
  }
  inner_product_param {
    num_output: 10
    weight_filler {
      type: "xavier"
    }
    bias_filler {
      type: "constant"
    }
  }
}
layer {
  name: "relu3"
  type: "ReLU"
  bottom: "ip3"
  top: "ip3"
}
layer {
  name: "accuracy"
  type: "Accuracy"
  bottom: "ip3"
  bottom: "label"
  top: "accuracy"
  include {
    phase: TEST
  }
}
layer {
  name: "loss"
  type: "SoftmaxWithLoss"
  bottom: "ip3"
  bottom: "label"
  top: "loss"
}
I0428 20:05:06.200644 30535 layer_factory.hpp:77] Creating layer mnist
I0428 20:05:06.200685 30535 db_lmdb.cpp:35] Opened lmdb examples/mnist/mnist_test_lmdb
I0428 20:05:06.200700 30535 net.cpp:86] Creating Layer mnist
I0428 20:05:06.200706 30535 net.cpp:382] mnist -> data
I0428 20:05:06.200727 30535 net.cpp:382] mnist -> label
I0428 20:05:06.200834 30535 data_layer.cpp:45] output data size: 100,1,28,28
I0428 20:05:06.202850 30535 net.cpp:124] Setting up mnist
I0428 20:05:06.202863 30535 net.cpp:131] Top shape: 100 1 28 28 (78400)
I0428 20:05:06.202867 30535 net.cpp:131] Top shape: 100 (100)
I0428 20:05:06.202870 30535 net.cpp:139] Memory required for data: 314000
I0428 20:05:06.202873 30535 layer_factory.hpp:77] Creating layer label_mnist_1_split
I0428 20:05:06.202896 30535 net.cpp:86] Creating Layer label_mnist_1_split
I0428 20:05:06.202900 30535 net.cpp:408] label_mnist_1_split <- label
I0428 20:05:06.202915 30535 net.cpp:382] label_mnist_1_split -> label_mnist_1_split_0
I0428 20:05:06.202921 30535 net.cpp:382] label_mnist_1_split -> label_mnist_1_split_1
I0428 20:05:06.203052 30535 net.cpp:124] Setting up label_mnist_1_split
I0428 20:05:06.203058 30535 net.cpp:131] Top shape: 100 (100)
I0428 20:05:06.203063 30535 net.cpp:131] Top shape: 100 (100)
I0428 20:05:06.203065 30535 net.cpp:139] Memory required for data: 314800
I0428 20:05:06.203068 30535 layer_factory.hpp:77] Creating layer conv0
I0428 20:05:06.203078 30535 net.cpp:86] Creating Layer conv0
I0428 20:05:06.203081 30535 net.cpp:408] conv0 <- data
I0428 20:05:06.203086 30535 net.cpp:382] conv0 -> conv0
I0428 20:05:06.204877 30535 net.cpp:124] Setting up conv0
I0428 20:05:06.204891 30535 net.cpp:131] Top shape: 100 25 24 24 (1440000)
I0428 20:05:06.204895 30535 net.cpp:139] Memory required for data: 6074800
I0428 20:05:06.204905 30535 layer_factory.hpp:77] Creating layer pool0
I0428 20:05:06.204922 30535 net.cpp:86] Creating Layer pool0
I0428 20:05:06.204926 30535 net.cpp:408] pool0 <- conv0
I0428 20:05:06.204946 30535 net.cpp:382] pool0 -> pool0
I0428 20:05:06.205015 30535 net.cpp:124] Setting up pool0
I0428 20:05:06.205037 30535 net.cpp:131] Top shape: 100 25 12 12 (360000)
I0428 20:05:06.205040 30535 net.cpp:139] Memory required for data: 7514800
I0428 20:05:06.205044 30535 layer_factory.hpp:77] Creating layer conv1
I0428 20:05:06.205054 30535 net.cpp:86] Creating Layer conv1
I0428 20:05:06.205056 30535 net.cpp:408] conv1 <- pool0
I0428 20:05:06.205062 30535 net.cpp:382] conv1 -> conv1
I0428 20:05:06.207178 30535 net.cpp:124] Setting up conv1
I0428 20:05:06.207192 30535 net.cpp:131] Top shape: 100 2 8 8 (12800)
I0428 20:05:06.207197 30535 net.cpp:139] Memory required for data: 7566000
I0428 20:05:06.207207 30535 layer_factory.hpp:77] Creating layer pool1
I0428 20:05:06.207229 30535 net.cpp:86] Creating Layer pool1
I0428 20:05:06.207233 30535 net.cpp:408] pool1 <- conv1
I0428 20:05:06.207257 30535 net.cpp:382] pool1 -> pool1
I0428 20:05:06.207315 30535 net.cpp:124] Setting up pool1
I0428 20:05:06.207321 30535 net.cpp:131] Top shape: 100 2 4 4 (3200)
I0428 20:05:06.207339 30535 net.cpp:139] Memory required for data: 7578800
I0428 20:05:06.207341 30535 layer_factory.hpp:77] Creating layer ip1
I0428 20:05:06.207347 30535 net.cpp:86] Creating Layer ip1
I0428 20:05:06.207350 30535 net.cpp:408] ip1 <- pool1
I0428 20:05:06.207355 30535 net.cpp:382] ip1 -> ip1
I0428 20:05:06.207464 30535 net.cpp:124] Setting up ip1
I0428 20:05:06.207473 30535 net.cpp:131] Top shape: 100 10 (1000)
I0428 20:05:06.207484 30535 net.cpp:139] Memory required for data: 7582800
I0428 20:05:06.207492 30535 layer_factory.hpp:77] Creating layer relu1
I0428 20:05:06.207499 30535 net.cpp:86] Creating Layer relu1
I0428 20:05:06.207501 30535 net.cpp:408] relu1 <- ip1
I0428 20:05:06.207506 30535 net.cpp:369] relu1 -> ip1 (in-place)
I0428 20:05:06.207767 30535 net.cpp:124] Setting up relu1
I0428 20:05:06.207775 30535 net.cpp:131] Top shape: 100 10 (1000)
I0428 20:05:06.207778 30535 net.cpp:139] Memory required for data: 7586800
I0428 20:05:06.207782 30535 layer_factory.hpp:77] Creating layer ip2
I0428 20:05:06.207794 30535 net.cpp:86] Creating Layer ip2
I0428 20:05:06.207798 30535 net.cpp:408] ip2 <- ip1
I0428 20:05:06.207803 30535 net.cpp:382] ip2 -> ip2
I0428 20:05:06.207940 30535 net.cpp:124] Setting up ip2
I0428 20:05:06.207962 30535 net.cpp:131] Top shape: 100 25 (2500)
I0428 20:05:06.207965 30535 net.cpp:139] Memory required for data: 7596800
I0428 20:05:06.207972 30535 layer_factory.hpp:77] Creating layer relu2
I0428 20:05:06.207978 30535 net.cpp:86] Creating Layer relu2
I0428 20:05:06.207986 30535 net.cpp:408] relu2 <- ip2
I0428 20:05:06.207990 30535 net.cpp:369] relu2 -> ip2 (in-place)
I0428 20:05:06.208160 30535 net.cpp:124] Setting up relu2
I0428 20:05:06.208169 30535 net.cpp:131] Top shape: 100 25 (2500)
I0428 20:05:06.208173 30535 net.cpp:139] Memory required for data: 7606800
I0428 20:05:06.208175 30535 layer_factory.hpp:77] Creating layer ip3
I0428 20:05:06.208183 30535 net.cpp:86] Creating Layer ip3
I0428 20:05:06.208185 30535 net.cpp:408] ip3 <- ip2
I0428 20:05:06.208191 30535 net.cpp:382] ip3 -> ip3
I0428 20:05:06.208310 30535 net.cpp:124] Setting up ip3
I0428 20:05:06.208317 30535 net.cpp:131] Top shape: 100 10 (1000)
I0428 20:05:06.208322 30535 net.cpp:139] Memory required for data: 7610800
I0428 20:05:06.208328 30535 layer_factory.hpp:77] Creating layer relu3
I0428 20:05:06.208333 30535 net.cpp:86] Creating Layer relu3
I0428 20:05:06.208336 30535 net.cpp:408] relu3 <- ip3
I0428 20:05:06.208339 30535 net.cpp:369] relu3 -> ip3 (in-place)
I0428 20:05:06.209189 30535 net.cpp:124] Setting up relu3
I0428 20:05:06.209216 30535 net.cpp:131] Top shape: 100 10 (1000)
I0428 20:05:06.209219 30535 net.cpp:139] Memory required for data: 7614800
I0428 20:05:06.209223 30535 layer_factory.hpp:77] Creating layer ip3_relu3_0_split
I0428 20:05:06.209228 30535 net.cpp:86] Creating Layer ip3_relu3_0_split
I0428 20:05:06.209231 30535 net.cpp:408] ip3_relu3_0_split <- ip3
I0428 20:05:06.209259 30535 net.cpp:382] ip3_relu3_0_split -> ip3_relu3_0_split_0
I0428 20:05:06.209264 30535 net.cpp:382] ip3_relu3_0_split -> ip3_relu3_0_split_1
I0428 20:05:06.209367 30535 net.cpp:124] Setting up ip3_relu3_0_split
I0428 20:05:06.209375 30535 net.cpp:131] Top shape: 100 10 (1000)
I0428 20:05:06.209378 30535 net.cpp:131] Top shape: 100 10 (1000)
I0428 20:05:06.209381 30535 net.cpp:139] Memory required for data: 7622800
I0428 20:05:06.209383 30535 layer_factory.hpp:77] Creating layer accuracy
I0428 20:05:06.209388 30535 net.cpp:86] Creating Layer accuracy
I0428 20:05:06.209391 30535 net.cpp:408] accuracy <- ip3_relu3_0_split_0
I0428 20:05:06.209394 30535 net.cpp:408] accuracy <- label_mnist_1_split_0
I0428 20:05:06.209398 30535 net.cpp:382] accuracy -> accuracy
…
