…
I0428 19:58:42.070580 29035 net.cpp:296] The NetState phase (0) differed from the phase (1) specified by a rule in layer mnist
I0428 19:58:42.070598 29035 net.cpp:296] The NetState phase (0) differed from the phase (1) specified by a rule in layer accuracy
I0428 19:58:42.070688 29035 net.cpp:53] Initializing net from parameters: 
name: "LeNet"
state {
  phase: TRAIN
  level: 0
  stage: ""
}
layer {
  name: "mnist"
  type: "Data"
  top: "data"
  top: "label"
  include {
    phase: TRAIN
  }
  transform_param {
    scale: 0.00390625
  }
  data_param {
    source: "examples/mnist/mnist_train_lmdb"
    batch_size: 64
    backend: LMDB
  }
}
layer {
  name: "conv0"
  type: "Convolution"
  bottom: "data"
  top: "conv0"
  param {
    lr_mult: 1
  }
  param {
    lr_mult: 2
  }
  convolution_param {
    num_output: 10
    kernel_size: 5
    stride: 1
    weight_filler {
      type: "xavier"
    }
    bias_filler {
      type: "constant"
    }
  }
}
layer {
  name: "pool0"
  type: "Pooling"
  bottom: "conv0"
  top: "pool0"
  pooling_param {
    pool: MAX
    kernel_size: 2
    stride: 2
  }
}
layer {
  name: "conv1"
  type: "Convolution"
  bottom: "pool0"
  top: "conv1"
  param {
    lr_mult: 1
  }
  param {
    lr_mult: 2
  }
  convolution_param {
    num_output: 10
    kernel_size: 5
    stride: 1
    weight_filler {
      type: "xavier"
    }
    bias_filler {
      type: "constant"
    }
  }
}
layer {
  name: "pool1"
  type: "Pooling"
  bottom: "conv1"
  top: "pool1"
  pooling_param {
    pool: MAX
    kernel_size: 2
    stride: 2
  }
}
layer {
  name: "ip1"
  type: "InnerProduct"
  bottom: "pool1"
  top: "ip1"
  param {
    lr_mult: 1
  }
  param {
    lr_mult: 2
  }
  inner_product_param {
    num_output: 25
    weight_filler {
      type: "xavier"
    }
    bias_filler {
      type: "constant"
    }
  }
}
layer {
  name: "relu1"
  type: "ReLU"
  bottom: "ip1"
  top: "ip1"
}
layer {
  name: "ip2"
  type: "InnerProduct"
  bottom: "ip1"
  top: "ip2"
  param {
    lr_mult: 1
  }
  param {
    lr_mult: 2
  }
  inner_product_param {
    num_output: 10
    weight_filler {
      type: "xavier"
    }
    bias_filler {
      type: "constant"
    }
  }
}
layer {
  name: "relu2"
  type: "ReLU"
  bottom: "ip2"
  top: "ip2"
}
layer {
  name: "loss"
  type: "SoftmaxWithLoss"
  bottom: "ip2"
  bottom: "label"
  top: "loss"
}
I0428 19:58:42.070765 29035 layer_factory.hpp:77] Creating layer mnist
I0428 19:58:42.070863 29035 db_lmdb.cpp:35] Opened lmdb examples/mnist/mnist_train_lmdb
I0428 19:58:42.070885 29035 net.cpp:86] Creating Layer mnist
I0428 19:58:42.070894 29035 net.cpp:382] mnist -> data
I0428 19:58:42.070916 29035 net.cpp:382] mnist -> label
I0428 19:58:42.072052 29035 data_layer.cpp:45] output data size: 64,1,28,28
I0428 19:58:42.074528 29035 net.cpp:124] Setting up mnist
I0428 19:58:42.074548 29035 net.cpp:131] Top shape: 64 1 28 28 (50176)
I0428 19:58:42.074555 29035 net.cpp:131] Top shape: 64 (64)
I0428 19:58:42.074558 29035 net.cpp:139] Memory required for data: 200960
I0428 19:58:42.074566 29035 layer_factory.hpp:77] Creating layer conv0
I0428 19:58:42.074584 29035 net.cpp:86] Creating Layer conv0
I0428 19:58:42.074589 29035 net.cpp:408] conv0 <- data
I0428 19:58:42.074602 29035 net.cpp:382] conv0 -> conv0
I0428 19:58:42.367297 29035 net.cpp:124] Setting up conv0
I0428 19:58:42.367329 29035 net.cpp:131] Top shape: 64 10 24 24 (368640)
I0428 19:58:42.367334 29035 net.cpp:139] Memory required for data: 1675520
I0428 19:58:42.367373 29035 layer_factory.hpp:77] Creating layer pool0
I0428 19:58:42.367388 29035 net.cpp:86] Creating Layer pool0
I0428 19:58:42.367393 29035 net.cpp:408] pool0 <- conv0
I0428 19:58:42.367398 29035 net.cpp:382] pool0 -> pool0
I0428 19:58:42.367456 29035 net.cpp:124] Setting up pool0
I0428 19:58:42.367465 29035 net.cpp:131] Top shape: 64 10 12 12 (92160)
I0428 19:58:42.367470 29035 net.cpp:139] Memory required for data: 2044160
I0428 19:58:42.367472 29035 layer_factory.hpp:77] Creating layer conv1
I0428 19:58:42.367486 29035 net.cpp:86] Creating Layer conv1
I0428 19:58:42.367489 29035 net.cpp:408] conv1 <- pool0
I0428 19:58:42.367496 29035 net.cpp:382] conv1 -> conv1
I0428 19:58:42.370687 29035 net.cpp:124] Setting up conv1
I0428 19:58:42.370707 29035 net.cpp:131] Top shape: 64 10 8 8 (40960)
I0428 19:58:42.370713 29035 net.cpp:139] Memory required for data: 2208000
I0428 19:58:42.370728 29035 layer_factory.hpp:77] Creating layer pool1
I0428 19:58:42.370741 29035 net.cpp:86] Creating Layer pool1
I0428 19:58:42.370748 29035 net.cpp:408] pool1 <- conv1
I0428 19:58:42.370756 29035 net.cpp:382] pool1 -> pool1
I0428 19:58:42.370818 29035 net.cpp:124] Setting up pool1
I0428 19:58:42.370832 29035 net.cpp:131] Top shape: 64 10 4 4 (10240)
I0428 19:58:42.370839 29035 net.cpp:139] Memory required for data: 2248960
I0428 19:58:42.370846 29035 layer_factory.hpp:77] Creating layer ip1
I0428 19:58:42.370857 29035 net.cpp:86] Creating Layer ip1
I0428 19:58:42.370863 29035 net.cpp:408] ip1 <- pool1
I0428 19:58:42.370873 29035 net.cpp:382] ip1 -> ip1
I0428 19:58:42.371081 29035 net.cpp:124] Setting up ip1
I0428 19:58:42.371095 29035 net.cpp:131] Top shape: 64 25 (1600)
I0428 19:58:42.371101 29035 net.cpp:139] Memory required for data: 2255360
I0428 19:58:42.371114 29035 layer_factory.hpp:77] Creating layer relu1
I0428 19:58:42.371125 29035 net.cpp:86] Creating Layer relu1
I0428 19:58:42.371131 29035 net.cpp:408] relu1 <- ip1
I0428 19:58:42.371140 29035 net.cpp:369] relu1 -> ip1 (in-place)
I0428 19:58:42.371417 29035 net.cpp:124] Setting up relu1
I0428 19:58:42.371434 29035 net.cpp:131] Top shape: 64 25 (1600)
I0428 19:58:42.371441 29035 net.cpp:139] Memory required for data: 2261760
I0428 19:58:42.371448 29035 layer_factory.hpp:77] Creating layer ip2
I0428 19:58:42.371461 29035 net.cpp:86] Creating Layer ip2
I0428 19:58:42.371469 29035 net.cpp:408] ip2 <- ip1
I0428 19:58:42.371479 29035 net.cpp:382] ip2 -> ip2
I0428 19:58:42.371655 29035 net.cpp:124] Setting up ip2
I0428 19:58:42.371671 29035 net.cpp:131] Top shape: 64 10 (640)
I0428 19:58:42.371678 29035 net.cpp:139] Memory required for data: 2264320
I0428 19:58:42.371690 29035 layer_factory.hpp:77] Creating layer relu2
I0428 19:58:42.371702 29035 net.cpp:86] Creating Layer relu2
I0428 19:58:42.371708 29035 net.cpp:408] relu2 <- ip2
I0428 19:58:42.371717 29035 net.cpp:369] relu2 -> ip2 (in-place)
I0428 19:58:42.372982 29035 net.cpp:124] Setting up relu2
I0428 19:58:42.373004 29035 net.cpp:131] Top shape: 64 10 (640)
I0428 19:58:42.373013 29035 net.cpp:139] Memory required for data: 2266880
I0428 19:58:42.373019 29035 layer_factory.hpp:77] Creating layer loss
I0428 19:58:42.373030 29035 net.cpp:86] Creating Layer loss
I0428 19:58:42.373037 29035 net.cpp:408] loss <- ip2
I0428 19:58:42.373046 29035 net.cpp:408] loss <- label
I0428 19:58:42.373056 29035 net.cpp:382] loss -> loss
I0428 19:58:42.373090 29035 layer_factory.hpp:77] Creating layer loss
…
I0428 19:58:42.374208 29035 solver.cpp:173] Creating test net (#0) specified by net file: ECE595/mnist/train_test/var_everything2/lenet_train_test826.prototxt
I0428 19:58:42.374258 29035 net.cpp:296] The NetState phase (1) differed from the phase (0) specified by a rule in layer mnist
I0428 19:58:42.374420 29035 net.cpp:53] Initializing net from parameters: 
name: "LeNet"
state {
  phase: TEST
}
layer {
  name: "mnist"
  type: "Data"
  top: "data"
  top: "label"
  include {
    phase: TEST
  }
  transform_param {
    scale: 0.00390625
  }
  data_param {
    source: "examples/mnist/mnist_test_lmdb"
    batch_size: 100
    backend: LMDB
  }
}
layer {
  name: "conv0"
  type: "Convolution"
  bottom: "data"
  top: "conv0"
  param {
    lr_mult: 1
  }
  param {
    lr_mult: 2
  }
  convolution_param {
    num_output: 10
    kernel_size: 5
    stride: 1
    weight_filler {
      type: "xavier"
    }
    bias_filler {
      type: "constant"
    }
  }
}
layer {
  name: "pool0"
  type: "Pooling"
  bottom: "conv0"
  top: "pool0"
  pooling_param {
    pool: MAX
    kernel_size: 2
    stride: 2
  }
}
layer {
  name: "conv1"
  type: "Convolution"
  bottom: "pool0"
  top: "conv1"
  param {
    lr_mult: 1
  }
  param {
    lr_mult: 2
  }
  convolution_param {
    num_output: 10
    kernel_size: 5
    stride: 1
    weight_filler {
      type: "xavier"
    }
    bias_filler {
      type: "constant"
    }
  }
}
layer {
  name: "pool1"
  type: "Pooling"
  bottom: "conv1"
  top: "pool1"
  pooling_param {
    pool: MAX
    kernel_size: 2
    stride: 2
  }
}
layer {
  name: "ip1"
  type: "InnerProduct"
  bottom: "pool1"
  top: "ip1"
  param {
    lr_mult: 1
  }
  param {
    lr_mult: 2
  }
  inner_product_param {
    num_output: 25
    weight_filler {
      type: "xavier"
    }
    bias_filler {
      type: "constant"
    }
  }
}
layer {
  name: "relu1"
  type: "ReLU"
  bottom: "ip1"
  top: "ip1"
}
layer {
  name: "ip2"
  type: "InnerProduct"
  bottom: "ip1"
  top: "ip2"
  param {
    lr_mult: 1
  }
  param {
    lr_mult: 2
  }
  inner_product_param {
    num_output: 10
    weight_filler {
      type: "xavier"
    }
    bias_filler {
      type: "constant"
    }
  }
}
layer {
  name: "relu2"
  type: "ReLU"
  bottom: "ip2"
  top: "ip2"
}
layer {
  name: "accuracy"
  type: "Accuracy"
  bottom: "ip2"
  bottom: "label"
  top: "accuracy"
  include {
    phase: TEST
  }
}
layer {
  name: "loss"
  type: "SoftmaxWithLoss"
  bottom: "ip2"
  bottom: "label"
  top: "loss"
}
I0428 19:58:42.374543 29035 layer_factory.hpp:77] Creating layer mnist
I0428 19:58:42.374619 29035 db_lmdb.cpp:35] Opened lmdb examples/mnist/mnist_test_lmdb
I0428 19:58:42.374641 29035 net.cpp:86] Creating Layer mnist
I0428 19:58:42.374650 29035 net.cpp:382] mnist -> data
I0428 19:58:42.374665 29035 net.cpp:382] mnist -> label
I0428 19:58:42.374812 29035 data_layer.cpp:45] output data size: 100,1,28,28
I0428 19:58:42.377985 29035 net.cpp:124] Setting up mnist
I0428 19:58:42.378007 29035 net.cpp:131] Top shape: 100 1 28 28 (78400)
I0428 19:58:42.378017 29035 net.cpp:131] Top shape: 100 (100)
I0428 19:58:42.378024 29035 net.cpp:139] Memory required for data: 314000
I0428 19:58:42.378031 29035 layer_factory.hpp:77] Creating layer label_mnist_1_split
I0428 19:58:42.378043 29035 net.cpp:86] Creating Layer label_mnist_1_split
I0428 19:58:42.378051 29035 net.cpp:408] label_mnist_1_split <- label
I0428 19:58:42.378059 29035 net.cpp:382] label_mnist_1_split -> label_mnist_1_split_0
I0428 19:58:42.378072 29035 net.cpp:382] label_mnist_1_split -> label_mnist_1_split_1
I0428 19:58:42.378223 29035 net.cpp:124] Setting up label_mnist_1_split
I0428 19:58:42.378257 29035 net.cpp:131] Top shape: 100 (100)
I0428 19:58:42.378265 29035 net.cpp:131] Top shape: 100 (100)
I0428 19:58:42.378270 29035 net.cpp:139] Memory required for data: 314800
I0428 19:58:42.378278 29035 layer_factory.hpp:77] Creating layer conv0
I0428 19:58:42.378293 29035 net.cpp:86] Creating Layer conv0
I0428 19:58:42.378309 29035 net.cpp:408] conv0 <- data
I0428 19:58:42.378321 29035 net.cpp:382] conv0 -> conv0
I0428 19:58:42.380792 29035 net.cpp:124] Setting up conv0
I0428 19:58:42.380821 29035 net.cpp:131] Top shape: 100 10 24 24 (576000)
I0428 19:58:42.380831 29035 net.cpp:139] Memory required for data: 2618800
I0428 19:58:42.380849 29035 layer_factory.hpp:77] Creating layer pool0
I0428 19:58:42.380861 29035 net.cpp:86] Creating Layer pool0
I0428 19:58:42.380868 29035 net.cpp:408] pool0 <- conv0
I0428 19:58:42.380877 29035 net.cpp:382] pool0 -> pool0
I0428 19:58:42.380942 29035 net.cpp:124] Setting up pool0
I0428 19:58:42.380959 29035 net.cpp:131] Top shape: 100 10 12 12 (144000)
I0428 19:58:42.380966 29035 net.cpp:139] Memory required for data: 3194800
I0428 19:58:42.380973 29035 layer_factory.hpp:77] Creating layer conv1
I0428 19:58:42.380988 29035 net.cpp:86] Creating Layer conv1
I0428 19:58:42.381002 29035 net.cpp:408] conv1 <- pool0
I0428 19:58:42.381013 29035 net.cpp:382] conv1 -> conv1
I0428 19:58:42.384477 29035 net.cpp:124] Setting up conv1
I0428 19:58:42.384498 29035 net.cpp:131] Top shape: 100 10 8 8 (64000)
I0428 19:58:42.384505 29035 net.cpp:139] Memory required for data: 3450800
I0428 19:58:42.384521 29035 layer_factory.hpp:77] Creating layer pool1
I0428 19:58:42.384534 29035 net.cpp:86] Creating Layer pool1
I0428 19:58:42.384542 29035 net.cpp:408] pool1 <- conv1
I0428 19:58:42.384552 29035 net.cpp:382] pool1 -> pool1
I0428 19:58:42.384658 29035 net.cpp:124] Setting up pool1
I0428 19:58:42.384675 29035 net.cpp:131] Top shape: 100 10 4 4 (16000)
I0428 19:58:42.384682 29035 net.cpp:139] Memory required for data: 3514800
I0428 19:58:42.384688 29035 layer_factory.hpp:77] Creating layer ip1
I0428 19:58:42.384701 29035 net.cpp:86] Creating Layer ip1
I0428 19:58:42.384707 29035 net.cpp:408] ip1 <- pool1
I0428 19:58:42.384717 29035 net.cpp:382] ip1 -> ip1
I0428 19:58:42.384955 29035 net.cpp:124] Setting up ip1
I0428 19:58:42.384976 29035 net.cpp:131] Top shape: 100 25 (2500)
I0428 19:58:42.384982 29035 net.cpp:139] Memory required for data: 3524800
I0428 19:58:42.384997 29035 layer_factory.hpp:77] Creating layer relu1
I0428 19:58:42.385007 29035 net.cpp:86] Creating Layer relu1
I0428 19:58:42.385015 29035 net.cpp:408] relu1 <- ip1
I0428 19:58:42.385023 29035 net.cpp:369] relu1 -> ip1 (in-place)
I0428 19:58:42.385315 29035 net.cpp:124] Setting up relu1
I0428 19:58:42.385332 29035 net.cpp:131] Top shape: 100 25 (2500)
I0428 19:58:42.385339 29035 net.cpp:139] Memory required for data: 3534800
I0428 19:58:42.385345 29035 layer_factory.hpp:77] Creating layer ip2
I0428 19:58:42.385360 29035 net.cpp:86] Creating Layer ip2
I0428 19:58:42.385367 29035 net.cpp:408] ip2 <- ip1
I0428 19:58:42.385378 29035 net.cpp:382] ip2 -> ip2
I0428 19:58:42.385597 29035 net.cpp:124] Setting up ip2
I0428 19:58:42.385614 29035 net.cpp:131] Top shape: 100 10 (1000)
I0428 19:58:42.385622 29035 net.cpp:139] Memory required for data: 3538800
I0428 19:58:42.385632 29035 layer_factory.hpp:77] Creating layer relu2
I0428 19:58:42.385643 29035 net.cpp:86] Creating Layer relu2
I0428 19:58:42.385648 29035 net.cpp:408] relu2 <- ip2
I0428 19:58:42.385658 29035 net.cpp:369] relu2 -> ip2 (in-place)
I0428 19:58:42.385946 29035 net.cpp:124] Setting up relu2
I0428 19:58:42.385962 29035 net.cpp:131] Top shape: 100 10 (1000)
I0428 19:58:42.385969 29035 net.cpp:139] Memory required for data: 3542800
I0428 19:58:42.385975 29035 layer_factory.hpp:77] Creating layer ip2_relu2_0_split
I0428 19:58:42.385985 29035 net.cpp:86] Creating Layer ip2_relu2_0_split
I0428 19:58:42.385993 29035 net.cpp:408] ip2_relu2_0_split <- ip2
I0428 19:58:42.386001 29035 net.cpp:382] ip2_relu2_0_split -> ip2_relu2_0_split_0
I0428 19:58:42.386029 29035 net.cpp:382] ip2_relu2_0_split -> ip2_relu2_0_split_1
I0428 19:58:42.386091 29035 net.cpp:124] Setting up ip2_relu2_0_split
I0428 19:58:42.386106 29035 net.cpp:131] Top shape: 100 10 (1000)
I0428 19:58:42.386114 29035 net.cpp:131] Top shape: 100 10 (1000)
I0428 19:58:42.386121 29035 net.cpp:139] Memory required for data: 3550800
I0428 19:58:42.386126 29035 layer_factory.hpp:77] Creating layer accuracy
I0428 19:58:42.386137 29035 net.cpp:86] Creating Layer accuracy
I0428 19:58:42.386143 29035 net.cpp:408] accuracy <- ip2_relu2_0_split_0
I0428 19:58:42.386152 29035 net.cpp:408] accuracy <- label_mnist_1_split_0
I0428 19:58:42.386160 29035 net.cpp:382] accuracy -> accuracy
…
