…
I0428 20:09:52.359645 31718 net.cpp:296] The NetState phase (0) differed from the phase (1) specified by a rule in layer mnist
I0428 20:09:52.359663 31718 net.cpp:296] The NetState phase (0) differed from the phase (1) specified by a rule in layer accuracy
I0428 20:09:52.359757 31718 net.cpp:53] Initializing net from parameters: 
name: "LeNet"
state {
  phase: TRAIN
  level: 0
  stage: ""
}
layer {
  name: "mnist"
  type: "Data"
  top: "data"
  top: "label"
  include {
    phase: TRAIN
  }
  transform_param {
    scale: 0.00390625
  }
  data_param {
    source: "examples/mnist/mnist_train_lmdb"
    batch_size: 64
    backend: LMDB
  }
}
layer {
  name: "conv0"
  type: "Convolution"
  bottom: "data"
  top: "conv0"
  param {
    lr_mult: 1
  }
  param {
    lr_mult: 2
  }
  convolution_param {
    num_output: 25
    kernel_size: 5
    stride: 1
    weight_filler {
      type: "xavier"
    }
    bias_filler {
      type: "constant"
    }
  }
}
layer {
  name: "pool0"
  type: "Pooling"
  bottom: "conv0"
  top: "pool0"
  pooling_param {
    pool: MAX
    kernel_size: 2
    stride: 2
  }
}
layer {
  name: "conv1"
  type: "Convolution"
  bottom: "pool0"
  top: "conv1"
  param {
    lr_mult: 1
  }
  param {
    lr_mult: 2
  }
  convolution_param {
    num_output: 25
    kernel_size: 5
    stride: 1
    weight_filler {
      type: "xavier"
    }
    bias_filler {
      type: "constant"
    }
  }
}
layer {
  name: "pool1"
  type: "Pooling"
  bottom: "conv1"
  top: "pool1"
  pooling_param {
    pool: MAX
    kernel_size: 2
    stride: 2
  }
}
layer {
  name: "ip1"
  type: "InnerProduct"
  bottom: "pool1"
  top: "ip1"
  param {
    lr_mult: 1
  }
  param {
    lr_mult: 2
  }
  inner_product_param {
    num_output: 25
    weight_filler {
      type: "xavier"
    }
    bias_filler {
      type: "constant"
    }
  }
}
layer {
  name: "relu1"
  type: "ReLU"
  bottom: "ip1"
  top: "ip1"
}
layer {
  name: "ip2"
  type: "InnerProduct"
  bottom: "ip1"
  top: "ip2"
  param {
    lr_mult: 1
  }
  param {
    lr_mult: 2
  }
  inner_product_param {
    num_output: 50
    weight_filler {
      type: "xavier"
    }
    bias_filler {
      type: "constant"
    }
  }
}
layer {
  name: "relu2"
  type: "ReLU"
  bottom: "ip2"
  top: "ip2"
}
layer {
  name: "ip3"
  type: "InnerProduct"
  bottom: "ip2"
  top: "ip3"
  param {
    lr_mult: 1
  }
  param {
    lr_mult: 2
  }
  inner_product_param {
    num_output: 10
    weight_filler {
      type: "xavier"
    }
    bias_filler {
      type: "constant"
    }
  }
}
layer {
  name: "relu3"
  type: "ReLU"
  bottom: "ip3"
  top: "ip3"
}
layer {
  name: "loss"
  type: "SoftmaxWithLoss"
  bottom: "ip3"
  bottom: "label"
  top: "loss"
}
I0428 20:09:52.359829 31718 layer_factory.hpp:77] Creating layer mnist
I0428 20:09:52.359923 31718 db_lmdb.cpp:35] Opened lmdb examples/mnist/mnist_train_lmdb
I0428 20:09:52.359946 31718 net.cpp:86] Creating Layer mnist
I0428 20:09:52.359953 31718 net.cpp:382] mnist -> data
I0428 20:09:52.359975 31718 net.cpp:382] mnist -> label
I0428 20:09:52.361073 31718 data_layer.cpp:45] output data size: 64,1,28,28
I0428 20:09:52.363512 31718 net.cpp:124] Setting up mnist
I0428 20:09:52.363530 31718 net.cpp:131] Top shape: 64 1 28 28 (50176)
I0428 20:09:52.363536 31718 net.cpp:131] Top shape: 64 (64)
I0428 20:09:52.363540 31718 net.cpp:139] Memory required for data: 200960
I0428 20:09:52.363548 31718 layer_factory.hpp:77] Creating layer conv0
I0428 20:09:52.363562 31718 net.cpp:86] Creating Layer conv0
I0428 20:09:52.363582 31718 net.cpp:408] conv0 <- data
I0428 20:09:52.363595 31718 net.cpp:382] conv0 -> conv0
I0428 20:09:52.626648 31718 net.cpp:124] Setting up conv0
I0428 20:09:52.626690 31718 net.cpp:131] Top shape: 64 25 24 24 (921600)
I0428 20:09:52.626694 31718 net.cpp:139] Memory required for data: 3887360
I0428 20:09:52.626708 31718 layer_factory.hpp:77] Creating layer pool0
I0428 20:09:52.626720 31718 net.cpp:86] Creating Layer pool0
I0428 20:09:52.626724 31718 net.cpp:408] pool0 <- conv0
I0428 20:09:52.626729 31718 net.cpp:382] pool0 -> pool0
I0428 20:09:52.626790 31718 net.cpp:124] Setting up pool0
I0428 20:09:52.626794 31718 net.cpp:131] Top shape: 64 25 12 12 (230400)
I0428 20:09:52.626797 31718 net.cpp:139] Memory required for data: 4808960
I0428 20:09:52.626801 31718 layer_factory.hpp:77] Creating layer conv1
I0428 20:09:52.626811 31718 net.cpp:86] Creating Layer conv1
I0428 20:09:52.626813 31718 net.cpp:408] conv1 <- pool0
I0428 20:09:52.626818 31718 net.cpp:382] conv1 -> conv1
I0428 20:09:52.629739 31718 net.cpp:124] Setting up conv1
I0428 20:09:52.629770 31718 net.cpp:131] Top shape: 64 25 8 8 (102400)
I0428 20:09:52.629772 31718 net.cpp:139] Memory required for data: 5218560
I0428 20:09:52.629781 31718 layer_factory.hpp:77] Creating layer pool1
I0428 20:09:52.629788 31718 net.cpp:86] Creating Layer pool1
I0428 20:09:52.629791 31718 net.cpp:408] pool1 <- conv1
I0428 20:09:52.629796 31718 net.cpp:382] pool1 -> pool1
I0428 20:09:52.629847 31718 net.cpp:124] Setting up pool1
I0428 20:09:52.629851 31718 net.cpp:131] Top shape: 64 25 4 4 (25600)
I0428 20:09:52.629854 31718 net.cpp:139] Memory required for data: 5320960
I0428 20:09:52.629858 31718 layer_factory.hpp:77] Creating layer ip1
I0428 20:09:52.629864 31718 net.cpp:86] Creating Layer ip1
I0428 20:09:52.629868 31718 net.cpp:408] ip1 <- pool1
I0428 20:09:52.629871 31718 net.cpp:382] ip1 -> ip1
I0428 20:09:52.630012 31718 net.cpp:124] Setting up ip1
I0428 20:09:52.630019 31718 net.cpp:131] Top shape: 64 25 (1600)
I0428 20:09:52.630023 31718 net.cpp:139] Memory required for data: 5327360
I0428 20:09:52.630029 31718 layer_factory.hpp:77] Creating layer relu1
I0428 20:09:52.630035 31718 net.cpp:86] Creating Layer relu1
I0428 20:09:52.630038 31718 net.cpp:408] relu1 <- ip1
I0428 20:09:52.630043 31718 net.cpp:369] relu1 -> ip1 (in-place)
I0428 20:09:52.630198 31718 net.cpp:124] Setting up relu1
I0428 20:09:52.630206 31718 net.cpp:131] Top shape: 64 25 (1600)
I0428 20:09:52.630209 31718 net.cpp:139] Memory required for data: 5333760
I0428 20:09:52.630211 31718 layer_factory.hpp:77] Creating layer ip2
I0428 20:09:52.630218 31718 net.cpp:86] Creating Layer ip2
I0428 20:09:52.630220 31718 net.cpp:408] ip2 <- ip1
I0428 20:09:52.630225 31718 net.cpp:382] ip2 -> ip2
I0428 20:09:52.631167 31718 net.cpp:124] Setting up ip2
I0428 20:09:52.631180 31718 net.cpp:131] Top shape: 64 50 (3200)
I0428 20:09:52.631199 31718 net.cpp:139] Memory required for data: 5346560
I0428 20:09:52.631206 31718 layer_factory.hpp:77] Creating layer relu2
I0428 20:09:52.631211 31718 net.cpp:86] Creating Layer relu2
I0428 20:09:52.631216 31718 net.cpp:408] relu2 <- ip2
I0428 20:09:52.631219 31718 net.cpp:369] relu2 -> ip2 (in-place)
I0428 20:09:52.631937 31718 net.cpp:124] Setting up relu2
I0428 20:09:52.631949 31718 net.cpp:131] Top shape: 64 50 (3200)
I0428 20:09:52.631968 31718 net.cpp:139] Memory required for data: 5359360
I0428 20:09:52.631971 31718 layer_factory.hpp:77] Creating layer ip3
I0428 20:09:52.631978 31718 net.cpp:86] Creating Layer ip3
I0428 20:09:52.631981 31718 net.cpp:408] ip3 <- ip2
I0428 20:09:52.631988 31718 net.cpp:382] ip3 -> ip3
I0428 20:09:52.632086 31718 net.cpp:124] Setting up ip3
I0428 20:09:52.632094 31718 net.cpp:131] Top shape: 64 10 (640)
I0428 20:09:52.632097 31718 net.cpp:139] Memory required for data: 5361920
I0428 20:09:52.632105 31718 layer_factory.hpp:77] Creating layer relu3
I0428 20:09:52.632110 31718 net.cpp:86] Creating Layer relu3
I0428 20:09:52.632113 31718 net.cpp:408] relu3 <- ip3
I0428 20:09:52.632117 31718 net.cpp:369] relu3 -> ip3 (in-place)
I0428 20:09:52.632278 31718 net.cpp:124] Setting up relu3
I0428 20:09:52.632287 31718 net.cpp:131] Top shape: 64 10 (640)
I0428 20:09:52.632289 31718 net.cpp:139] Memory required for data: 5364480
I0428 20:09:52.632292 31718 layer_factory.hpp:77] Creating layer loss
I0428 20:09:52.632298 31718 net.cpp:86] Creating Layer loss
I0428 20:09:52.632302 31718 net.cpp:408] loss <- ip3
I0428 20:09:52.632305 31718 net.cpp:408] loss <- label
I0428 20:09:52.632310 31718 net.cpp:382] loss -> loss
I0428 20:09:52.632328 31718 layer_factory.hpp:77] Creating layer loss
…
I0428 20:09:52.633046 31718 solver.cpp:173] Creating test net (#0) specified by net file: ECE595/mnist/train_test/var_everything2/lenet_train_test1120.prototxt
I0428 20:09:52.633091 31718 net.cpp:296] The NetState phase (1) differed from the phase (0) specified by a rule in layer mnist
I0428 20:09:52.633215 31718 net.cpp:53] Initializing net from parameters: 
name: "LeNet"
state {
  phase: TEST
}
layer {
  name: "mnist"
  type: "Data"
  top: "data"
  top: "label"
  include {
    phase: TEST
  }
  transform_param {
    scale: 0.00390625
  }
  data_param {
    source: "examples/mnist/mnist_test_lmdb"
    batch_size: 100
    backend: LMDB
  }
}
layer {
  name: "conv0"
  type: "Convolution"
  bottom: "data"
  top: "conv0"
  param {
    lr_mult: 1
  }
  param {
    lr_mult: 2
  }
  convolution_param {
    num_output: 25
    kernel_size: 5
    stride: 1
    weight_filler {
      type: "xavier"
    }
    bias_filler {
      type: "constant"
    }
  }
}
layer {
  name: "pool0"
  type: "Pooling"
  bottom: "conv0"
  top: "pool0"
  pooling_param {
    pool: MAX
    kernel_size: 2
    stride: 2
  }
}
layer {
  name: "conv1"
  type: "Convolution"
  bottom: "pool0"
  top: "conv1"
  param {
    lr_mult: 1
  }
  param {
    lr_mult: 2
  }
  convolution_param {
    num_output: 25
    kernel_size: 5
    stride: 1
    weight_filler {
      type: "xavier"
    }
    bias_filler {
      type: "constant"
    }
  }
}
layer {
  name: "pool1"
  type: "Pooling"
  bottom: "conv1"
  top: "pool1"
  pooling_param {
    pool: MAX
    kernel_size: 2
    stride: 2
  }
}
layer {
  name: "ip1"
  type: "InnerProduct"
  bottom: "pool1"
  top: "ip1"
  param {
    lr_mult: 1
  }
  param {
    lr_mult: 2
  }
  inner_product_param {
    num_output: 25
    weight_filler {
      type: "xavier"
    }
    bias_filler {
      type: "constant"
    }
  }
}
layer {
  name: "relu1"
  type: "ReLU"
  bottom: "ip1"
  top: "ip1"
}
layer {
  name: "ip2"
  type: "InnerProduct"
  bottom: "ip1"
  top: "ip2"
  param {
    lr_mult: 1
  }
  param {
    lr_mult: 2
  }
  inner_product_param {
    num_output: 50
    weight_filler {
      type: "xavier"
    }
    bias_filler {
      type: "constant"
    }
  }
}
layer {
  name: "relu2"
  type: "ReLU"
  bottom: "ip2"
  top: "ip2"
}
layer {
  name: "ip3"
  type: "InnerProduct"
  bottom: "ip2"
  top: "ip3"
  param {
    lr_mult: 1
  }
  param {
    lr_mult: 2
  }
  inner_product_param {
    num_output: 10
    weight_filler {
      type: "xavier"
    }
    bias_filler {
      type: "constant"
    }
  }
}
layer {
  name: "relu3"
  type: "ReLU"
  bottom: "ip3"
  top: "ip3"
}
layer {
  name: "accuracy"
  type: "Accuracy"
  bottom: "ip3"
  bottom: "label"
  top: "accuracy"
  include {
    phase: TEST
  }
}
layer {
  name: "loss"
  type: "SoftmaxWithLoss"
  bottom: "ip3"
  bottom: "label"
  top: "loss"
}
I0428 20:09:52.633294 31718 layer_factory.hpp:77] Creating layer mnist
I0428 20:09:52.633335 31718 db_lmdb.cpp:35] Opened lmdb examples/mnist/mnist_test_lmdb
I0428 20:09:52.633350 31718 net.cpp:86] Creating Layer mnist
I0428 20:09:52.633355 31718 net.cpp:382] mnist -> data
I0428 20:09:52.633363 31718 net.cpp:382] mnist -> label
I0428 20:09:52.633446 31718 data_layer.cpp:45] output data size: 100,1,28,28
I0428 20:09:52.635377 31718 net.cpp:124] Setting up mnist
I0428 20:09:52.635421 31718 net.cpp:131] Top shape: 100 1 28 28 (78400)
I0428 20:09:52.635426 31718 net.cpp:131] Top shape: 100 (100)
I0428 20:09:52.635444 31718 net.cpp:139] Memory required for data: 314000
I0428 20:09:52.635448 31718 layer_factory.hpp:77] Creating layer label_mnist_1_split
I0428 20:09:52.635458 31718 net.cpp:86] Creating Layer label_mnist_1_split
I0428 20:09:52.635462 31718 net.cpp:408] label_mnist_1_split <- label
I0428 20:09:52.635468 31718 net.cpp:382] label_mnist_1_split -> label_mnist_1_split_0
I0428 20:09:52.635473 31718 net.cpp:382] label_mnist_1_split -> label_mnist_1_split_1
I0428 20:09:52.635570 31718 net.cpp:124] Setting up label_mnist_1_split
I0428 20:09:52.635577 31718 net.cpp:131] Top shape: 100 (100)
I0428 20:09:52.635581 31718 net.cpp:131] Top shape: 100 (100)
I0428 20:09:52.635584 31718 net.cpp:139] Memory required for data: 314800
I0428 20:09:52.635587 31718 layer_factory.hpp:77] Creating layer conv0
I0428 20:09:52.635596 31718 net.cpp:86] Creating Layer conv0
I0428 20:09:52.635599 31718 net.cpp:408] conv0 <- data
I0428 20:09:52.635604 31718 net.cpp:382] conv0 -> conv0
I0428 20:09:52.637217 31718 net.cpp:124] Setting up conv0
I0428 20:09:52.637245 31718 net.cpp:131] Top shape: 100 25 24 24 (1440000)
I0428 20:09:52.637249 31718 net.cpp:139] Memory required for data: 6074800
I0428 20:09:52.637259 31718 layer_factory.hpp:77] Creating layer pool0
I0428 20:09:52.637264 31718 net.cpp:86] Creating Layer pool0
I0428 20:09:52.637267 31718 net.cpp:408] pool0 <- conv0
I0428 20:09:52.637272 31718 net.cpp:382] pool0 -> pool0
I0428 20:09:52.637307 31718 net.cpp:124] Setting up pool0
I0428 20:09:52.637313 31718 net.cpp:131] Top shape: 100 25 12 12 (360000)
I0428 20:09:52.637316 31718 net.cpp:139] Memory required for data: 7514800
I0428 20:09:52.637320 31718 layer_factory.hpp:77] Creating layer conv1
I0428 20:09:52.637327 31718 net.cpp:86] Creating Layer conv1
I0428 20:09:52.637331 31718 net.cpp:408] conv1 <- pool0
I0428 20:09:52.637336 31718 net.cpp:382] conv1 -> conv1
I0428 20:09:52.639530 31718 net.cpp:124] Setting up conv1
I0428 20:09:52.639559 31718 net.cpp:131] Top shape: 100 25 8 8 (160000)
I0428 20:09:52.639562 31718 net.cpp:139] Memory required for data: 8154800
I0428 20:09:52.639571 31718 layer_factory.hpp:77] Creating layer pool1
I0428 20:09:52.639577 31718 net.cpp:86] Creating Layer pool1
I0428 20:09:52.639580 31718 net.cpp:408] pool1 <- conv1
I0428 20:09:52.639585 31718 net.cpp:382] pool1 -> pool1
I0428 20:09:52.639644 31718 net.cpp:124] Setting up pool1
I0428 20:09:52.639667 31718 net.cpp:131] Top shape: 100 25 4 4 (40000)
I0428 20:09:52.639669 31718 net.cpp:139] Memory required for data: 8314800
I0428 20:09:52.639672 31718 layer_factory.hpp:77] Creating layer ip1
I0428 20:09:52.639678 31718 net.cpp:86] Creating Layer ip1
I0428 20:09:52.639681 31718 net.cpp:408] ip1 <- pool1
I0428 20:09:52.639686 31718 net.cpp:382] ip1 -> ip1
I0428 20:09:52.639883 31718 net.cpp:124] Setting up ip1
I0428 20:09:52.639891 31718 net.cpp:131] Top shape: 100 25 (2500)
I0428 20:09:52.639905 31718 net.cpp:139] Memory required for data: 8324800
I0428 20:09:52.639912 31718 layer_factory.hpp:77] Creating layer relu1
I0428 20:09:52.639919 31718 net.cpp:86] Creating Layer relu1
I0428 20:09:52.639921 31718 net.cpp:408] relu1 <- ip1
I0428 20:09:52.639926 31718 net.cpp:369] relu1 -> ip1 (in-place)
I0428 20:09:52.640101 31718 net.cpp:124] Setting up relu1
I0428 20:09:52.640110 31718 net.cpp:131] Top shape: 100 25 (2500)
I0428 20:09:52.640115 31718 net.cpp:139] Memory required for data: 8334800
I0428 20:09:52.640117 31718 layer_factory.hpp:77] Creating layer ip2
I0428 20:09:52.640125 31718 net.cpp:86] Creating Layer ip2
I0428 20:09:52.640127 31718 net.cpp:408] ip2 <- ip1
I0428 20:09:52.640132 31718 net.cpp:382] ip2 -> ip2
I0428 20:09:52.640236 31718 net.cpp:124] Setting up ip2
I0428 20:09:52.640244 31718 net.cpp:131] Top shape: 100 50 (5000)
I0428 20:09:52.640247 31718 net.cpp:139] Memory required for data: 8354800
I0428 20:09:52.640261 31718 layer_factory.hpp:77] Creating layer relu2
I0428 20:09:52.640265 31718 net.cpp:86] Creating Layer relu2
I0428 20:09:52.640269 31718 net.cpp:408] relu2 <- ip2
I0428 20:09:52.640274 31718 net.cpp:369] relu2 -> ip2 (in-place)
I0428 20:09:52.640449 31718 net.cpp:124] Setting up relu2
I0428 20:09:52.640457 31718 net.cpp:131] Top shape: 100 50 (5000)
I0428 20:09:52.640461 31718 net.cpp:139] Memory required for data: 8374800
I0428 20:09:52.640465 31718 layer_factory.hpp:77] Creating layer ip3
I0428 20:09:52.640471 31718 net.cpp:86] Creating Layer ip3
I0428 20:09:52.640475 31718 net.cpp:408] ip3 <- ip2
I0428 20:09:52.640480 31718 net.cpp:382] ip3 -> ip3
I0428 20:09:52.640578 31718 net.cpp:124] Setting up ip3
I0428 20:09:52.640585 31718 net.cpp:131] Top shape: 100 10 (1000)
I0428 20:09:52.640588 31718 net.cpp:139] Memory required for data: 8378800
I0428 20:09:52.640595 31718 layer_factory.hpp:77] Creating layer relu3
I0428 20:09:52.640600 31718 net.cpp:86] Creating Layer relu3
I0428 20:09:52.640604 31718 net.cpp:408] relu3 <- ip3
I0428 20:09:52.640607 31718 net.cpp:369] relu3 -> ip3 (in-place)
I0428 20:09:52.641535 31718 net.cpp:124] Setting up relu3
I0428 20:09:52.641561 31718 net.cpp:131] Top shape: 100 10 (1000)
I0428 20:09:52.641566 31718 net.cpp:139] Memory required for data: 8382800
I0428 20:09:52.641568 31718 layer_factory.hpp:77] Creating layer ip3_relu3_0_split
I0428 20:09:52.641574 31718 net.cpp:86] Creating Layer ip3_relu3_0_split
I0428 20:09:52.641578 31718 net.cpp:408] ip3_relu3_0_split <- ip3
I0428 20:09:52.641583 31718 net.cpp:382] ip3_relu3_0_split -> ip3_relu3_0_split_0
I0428 20:09:52.641589 31718 net.cpp:382] ip3_relu3_0_split -> ip3_relu3_0_split_1
I0428 20:09:52.641626 31718 net.cpp:124] Setting up ip3_relu3_0_split
I0428 20:09:52.641631 31718 net.cpp:131] Top shape: 100 10 (1000)
I0428 20:09:52.641635 31718 net.cpp:131] Top shape: 100 10 (1000)
I0428 20:09:52.641638 31718 net.cpp:139] Memory required for data: 8390800
I0428 20:09:52.641641 31718 layer_factory.hpp:77] Creating layer accuracy
I0428 20:09:52.641646 31718 net.cpp:86] Creating Layer accuracy
I0428 20:09:52.641650 31718 net.cpp:408] accuracy <- ip3_relu3_0_split_0
I0428 20:09:52.641654 31718 net.cpp:408] accuracy <- label_mnist_1_split_0
I0428 20:09:52.641665 31718 net.cpp:382] accuracy -> accuracy
…
