…
I0428 19:38:14.162565 23985 net.cpp:296] The NetState phase (0) differed from the phase (1) specified by a rule in layer mnist
I0428 19:38:14.162583 23985 net.cpp:296] The NetState phase (0) differed from the phase (1) specified by a rule in layer accuracy
I0428 19:38:14.162673 23985 net.cpp:53] Initializing net from parameters: 
name: "LeNet"
state {
  phase: TRAIN
  level: 0
  stage: ""
}
layer {
  name: "mnist"
  type: "Data"
  top: "data"
  top: "label"
  include {
    phase: TRAIN
  }
  transform_param {
    scale: 0.00390625
  }
  data_param {
    source: "examples/mnist/mnist_train_lmdb"
    batch_size: 64
    backend: LMDB
  }
}
layer {
  name: "conv0"
  type: "Convolution"
  bottom: "data"
  top: "conv0"
  param {
    lr_mult: 1
  }
  param {
    lr_mult: 2
  }
  convolution_param {
    num_output: 100
    kernel_size: 5
    stride: 1
    weight_filler {
      type: "xavier"
    }
    bias_filler {
      type: "constant"
    }
  }
}
layer {
  name: "pool0"
  type: "Pooling"
  bottom: "conv0"
  top: "pool0"
  pooling_param {
    pool: MAX
    kernel_size: 2
    stride: 2
  }
}
layer {
  name: "ip1"
  type: "InnerProduct"
  bottom: "pool0"
  top: "ip1"
  param {
    lr_mult: 1
  }
  param {
    lr_mult: 2
  }
  inner_product_param {
    num_output: 50
    weight_filler {
      type: "xavier"
    }
    bias_filler {
      type: "constant"
    }
  }
}
layer {
  name: "relu1"
  type: "ReLU"
  bottom: "ip1"
  top: "ip1"
}
layer {
  name: "ip2"
  type: "InnerProduct"
  bottom: "ip1"
  top: "ip2"
  param {
    lr_mult: 1
  }
  param {
    lr_mult: 2
  }
  inner_product_param {
    num_output: 50
    weight_filler {
      type: "xavier"
    }
    bias_filler {
      type: "constant"
    }
  }
}
layer {
  name: "relu2"
  type: "ReLU"
  bottom: "ip2"
  top: "ip2"
}
layer {
  name: "ip3"
  type: "InnerProduct"
  bottom: "ip2"
  top: "ip3"
  param {
    lr_mult: 1
  }
  param {
    lr_mult: 2
  }
  inner_product_param {
    num_output: 10
    weight_filler {
      type: "xavier"
    }
    bias_filler {
      type: "constant"
    }
  }
}
layer {
  name: "relu3"
  type: "ReLU"
  bottom: "ip3"
  top: "ip3"
}
layer {
  name: "loss"
  type: "SoftmaxWithLoss"
  bottom: "ip3"
  bottom: "label"
  top: "loss"
}
I0428 19:38:14.162750 23985 layer_factory.hpp:77] Creating layer mnist
I0428 19:38:14.162856 23985 db_lmdb.cpp:35] Opened lmdb examples/mnist/mnist_train_lmdb
I0428 19:38:14.162883 23985 net.cpp:86] Creating Layer mnist
I0428 19:38:14.162894 23985 net.cpp:382] mnist -> data
I0428 19:38:14.162919 23985 net.cpp:382] mnist -> label
I0428 19:38:14.164001 23985 data_layer.cpp:45] output data size: 64,1,28,28
I0428 19:38:14.166470 23985 net.cpp:124] Setting up mnist
I0428 19:38:14.166487 23985 net.cpp:131] Top shape: 64 1 28 28 (50176)
I0428 19:38:14.166493 23985 net.cpp:131] Top shape: 64 (64)
I0428 19:38:14.166496 23985 net.cpp:139] Memory required for data: 200960
I0428 19:38:14.166504 23985 layer_factory.hpp:77] Creating layer conv0
I0428 19:38:14.166533 23985 net.cpp:86] Creating Layer conv0
I0428 19:38:14.166541 23985 net.cpp:408] conv0 <- data
I0428 19:38:14.166554 23985 net.cpp:382] conv0 -> conv0
I0428 19:38:14.448060 23985 net.cpp:124] Setting up conv0
I0428 19:38:14.448086 23985 net.cpp:131] Top shape: 64 100 24 24 (3686400)
I0428 19:38:14.448091 23985 net.cpp:139] Memory required for data: 14946560
I0428 19:38:14.448107 23985 layer_factory.hpp:77] Creating layer pool0
I0428 19:38:14.448139 23985 net.cpp:86] Creating Layer pool0
I0428 19:38:14.448160 23985 net.cpp:408] pool0 <- conv0
I0428 19:38:14.448166 23985 net.cpp:382] pool0 -> pool0
I0428 19:38:14.448216 23985 net.cpp:124] Setting up pool0
I0428 19:38:14.448222 23985 net.cpp:131] Top shape: 64 100 12 12 (921600)
I0428 19:38:14.448225 23985 net.cpp:139] Memory required for data: 18632960
I0428 19:38:14.448228 23985 layer_factory.hpp:77] Creating layer ip1
I0428 19:38:14.448236 23985 net.cpp:86] Creating Layer ip1
I0428 19:38:14.448240 23985 net.cpp:408] ip1 <- pool0
I0428 19:38:14.448245 23985 net.cpp:382] ip1 -> ip1
I0428 19:38:14.453892 23985 net.cpp:124] Setting up ip1
I0428 19:38:14.453907 23985 net.cpp:131] Top shape: 64 50 (3200)
I0428 19:38:14.453910 23985 net.cpp:139] Memory required for data: 18645760
I0428 19:38:14.453918 23985 layer_factory.hpp:77] Creating layer relu1
I0428 19:38:14.453927 23985 net.cpp:86] Creating Layer relu1
I0428 19:38:14.453930 23985 net.cpp:408] relu1 <- ip1
I0428 19:38:14.453934 23985 net.cpp:369] relu1 -> ip1 (in-place)
I0428 19:38:14.454145 23985 net.cpp:124] Setting up relu1
I0428 19:38:14.454155 23985 net.cpp:131] Top shape: 64 50 (3200)
I0428 19:38:14.454159 23985 net.cpp:139] Memory required for data: 18658560
I0428 19:38:14.454162 23985 layer_factory.hpp:77] Creating layer ip2
I0428 19:38:14.454169 23985 net.cpp:86] Creating Layer ip2
I0428 19:38:14.454172 23985 net.cpp:408] ip2 <- ip1
I0428 19:38:14.454177 23985 net.cpp:382] ip2 -> ip2
I0428 19:38:14.454308 23985 net.cpp:124] Setting up ip2
I0428 19:38:14.454316 23985 net.cpp:131] Top shape: 64 50 (3200)
I0428 19:38:14.454319 23985 net.cpp:139] Memory required for data: 18671360
I0428 19:38:14.454326 23985 layer_factory.hpp:77] Creating layer relu2
I0428 19:38:14.454332 23985 net.cpp:86] Creating Layer relu2
I0428 19:38:14.454335 23985 net.cpp:408] relu2 <- ip2
I0428 19:38:14.454339 23985 net.cpp:369] relu2 -> ip2 (in-place)
I0428 19:38:14.455099 23985 net.cpp:124] Setting up relu2
I0428 19:38:14.455112 23985 net.cpp:131] Top shape: 64 50 (3200)
I0428 19:38:14.455116 23985 net.cpp:139] Memory required for data: 18684160
I0428 19:38:14.455137 23985 layer_factory.hpp:77] Creating layer ip3
I0428 19:38:14.455143 23985 net.cpp:86] Creating Layer ip3
I0428 19:38:14.455147 23985 net.cpp:408] ip3 <- ip2
I0428 19:38:14.455153 23985 net.cpp:382] ip3 -> ip3
I0428 19:38:14.455258 23985 net.cpp:124] Setting up ip3
I0428 19:38:14.455265 23985 net.cpp:131] Top shape: 64 10 (640)
I0428 19:38:14.455269 23985 net.cpp:139] Memory required for data: 18686720
I0428 19:38:14.455276 23985 layer_factory.hpp:77] Creating layer relu3
I0428 19:38:14.455282 23985 net.cpp:86] Creating Layer relu3
I0428 19:38:14.455286 23985 net.cpp:408] relu3 <- ip3
I0428 19:38:14.455291 23985 net.cpp:369] relu3 -> ip3 (in-place)
I0428 19:38:14.455471 23985 net.cpp:124] Setting up relu3
I0428 19:38:14.455479 23985 net.cpp:131] Top shape: 64 10 (640)
I0428 19:38:14.455482 23985 net.cpp:139] Memory required for data: 18689280
I0428 19:38:14.455485 23985 layer_factory.hpp:77] Creating layer loss
I0428 19:38:14.455492 23985 net.cpp:86] Creating Layer loss
I0428 19:38:14.455494 23985 net.cpp:408] loss <- ip3
I0428 19:38:14.455498 23985 net.cpp:408] loss <- label
I0428 19:38:14.455507 23985 net.cpp:382] loss -> loss
I0428 19:38:14.455520 23985 layer_factory.hpp:77] Creating layer loss
…
I0428 19:38:14.456158 23985 solver.cpp:173] Creating test net (#0) specified by net file: ECE595/mnist/train_test/var_everything2/lenet_train_test270.prototxt
I0428 19:38:14.456202 23985 net.cpp:296] The NetState phase (1) differed from the phase (0) specified by a rule in layer mnist
I0428 19:38:14.456313 23985 net.cpp:53] Initializing net from parameters: 
name: "LeNet"
state {
  phase: TEST
}
layer {
  name: "mnist"
  type: "Data"
  top: "data"
  top: "label"
  include {
    phase: TEST
  }
  transform_param {
    scale: 0.00390625
  }
  data_param {
    source: "examples/mnist/mnist_test_lmdb"
    batch_size: 100
    backend: LMDB
  }
}
layer {
  name: "conv0"
  type: "Convolution"
  bottom: "data"
  top: "conv0"
  param {
    lr_mult: 1
  }
  param {
    lr_mult: 2
  }
  convolution_param {
    num_output: 100
    kernel_size: 5
    stride: 1
    weight_filler {
      type: "xavier"
    }
    bias_filler {
      type: "constant"
    }
  }
}
layer {
  name: "pool0"
  type: "Pooling"
  bottom: "conv0"
  top: "pool0"
  pooling_param {
    pool: MAX
    kernel_size: 2
    stride: 2
  }
}
layer {
  name: "ip1"
  type: "InnerProduct"
  bottom: "pool0"
  top: "ip1"
  param {
    lr_mult: 1
  }
  param {
    lr_mult: 2
  }
  inner_product_param {
    num_output: 50
    weight_filler {
      type: "xavier"
    }
    bias_filler {
      type: "constant"
    }
  }
}
layer {
  name: "relu1"
  type: "ReLU"
  bottom: "ip1"
  top: "ip1"
}
layer {
  name: "ip2"
  type: "InnerProduct"
  bottom: "ip1"
  top: "ip2"
  param {
    lr_mult: 1
  }
  param {
    lr_mult: 2
  }
  inner_product_param {
    num_output: 50
    weight_filler {
      type: "xavier"
    }
    bias_filler {
      type: "constant"
    }
  }
}
layer {
  name: "relu2"
  type: "ReLU"
  bottom: "ip2"
  top: "ip2"
}
layer {
  name: "ip3"
  type: "InnerProduct"
  bottom: "ip2"
  top: "ip3"
  param {
    lr_mult: 1
  }
  param {
    lr_mult: 2
  }
  inner_product_param {
    num_output: 10
    weight_filler {
      type: "xavier"
    }
    bias_filler {
      type: "constant"
    }
  }
}
layer {
  name: "relu3"
  type: "ReLU"
  bottom: "ip3"
  top: "ip3"
}
layer {
  name: "accuracy"
  type: "Accuracy"
  bottom: "ip3"
  bottom: "label"
  top: "accuracy"
  include {
    phase: TEST
  }
}
layer {
  name: "loss"
  type: "SoftmaxWithLoss"
  bottom: "ip3"
  bottom: "label"
  top: "loss"
}
I0428 19:38:14.456380 23985 layer_factory.hpp:77] Creating layer mnist
I0428 19:38:14.456441 23985 db_lmdb.cpp:35] Opened lmdb examples/mnist/mnist_test_lmdb
I0428 19:38:14.456454 23985 net.cpp:86] Creating Layer mnist
I0428 19:38:14.456460 23985 net.cpp:382] mnist -> data
I0428 19:38:14.456468 23985 net.cpp:382] mnist -> label
I0428 19:38:14.456553 23985 data_layer.cpp:45] output data size: 100,1,28,28
I0428 19:38:14.458616 23985 net.cpp:124] Setting up mnist
I0428 19:38:14.458631 23985 net.cpp:131] Top shape: 100 1 28 28 (78400)
I0428 19:38:14.458636 23985 net.cpp:131] Top shape: 100 (100)
I0428 19:38:14.458638 23985 net.cpp:139] Memory required for data: 314000
I0428 19:38:14.458658 23985 layer_factory.hpp:77] Creating layer label_mnist_1_split
I0428 19:38:14.458680 23985 net.cpp:86] Creating Layer label_mnist_1_split
I0428 19:38:14.458684 23985 net.cpp:408] label_mnist_1_split <- label
I0428 19:38:14.458689 23985 net.cpp:382] label_mnist_1_split -> label_mnist_1_split_0
I0428 19:38:14.458696 23985 net.cpp:382] label_mnist_1_split -> label_mnist_1_split_1
I0428 19:38:14.458791 23985 net.cpp:124] Setting up label_mnist_1_split
I0428 19:38:14.458799 23985 net.cpp:131] Top shape: 100 (100)
I0428 19:38:14.458803 23985 net.cpp:131] Top shape: 100 (100)
I0428 19:38:14.458806 23985 net.cpp:139] Memory required for data: 314800
I0428 19:38:14.458819 23985 layer_factory.hpp:77] Creating layer conv0
I0428 19:38:14.458832 23985 net.cpp:86] Creating Layer conv0
I0428 19:38:14.458837 23985 net.cpp:408] conv0 <- data
I0428 19:38:14.458844 23985 net.cpp:382] conv0 -> conv0
I0428 19:38:14.460541 23985 net.cpp:124] Setting up conv0
I0428 19:38:14.460569 23985 net.cpp:131] Top shape: 100 100 24 24 (5760000)
I0428 19:38:14.460588 23985 net.cpp:139] Memory required for data: 23354800
I0428 19:38:14.460600 23985 layer_factory.hpp:77] Creating layer pool0
I0428 19:38:14.460608 23985 net.cpp:86] Creating Layer pool0
I0428 19:38:14.460613 23985 net.cpp:408] pool0 <- conv0
I0428 19:38:14.460618 23985 net.cpp:382] pool0 -> pool0
I0428 19:38:14.460659 23985 net.cpp:124] Setting up pool0
I0428 19:38:14.460667 23985 net.cpp:131] Top shape: 100 100 12 12 (1440000)
I0428 19:38:14.460670 23985 net.cpp:139] Memory required for data: 29114800
I0428 19:38:14.460675 23985 layer_factory.hpp:77] Creating layer ip1
I0428 19:38:14.460683 23985 net.cpp:86] Creating Layer ip1
I0428 19:38:14.460687 23985 net.cpp:408] ip1 <- pool0
I0428 19:38:14.460692 23985 net.cpp:382] ip1 -> ip1
I0428 19:38:14.466083 23985 net.cpp:124] Setting up ip1
I0428 19:38:14.466095 23985 net.cpp:131] Top shape: 100 50 (5000)
I0428 19:38:14.466116 23985 net.cpp:139] Memory required for data: 29134800
I0428 19:38:14.466125 23985 layer_factory.hpp:77] Creating layer relu1
I0428 19:38:14.466130 23985 net.cpp:86] Creating Layer relu1
I0428 19:38:14.466133 23985 net.cpp:408] relu1 <- ip1
I0428 19:38:14.466156 23985 net.cpp:369] relu1 -> ip1 (in-place)
I0428 19:38:14.466351 23985 net.cpp:124] Setting up relu1
I0428 19:38:14.466361 23985 net.cpp:131] Top shape: 100 50 (5000)
I0428 19:38:14.466363 23985 net.cpp:139] Memory required for data: 29154800
I0428 19:38:14.466367 23985 layer_factory.hpp:77] Creating layer ip2
I0428 19:38:14.466375 23985 net.cpp:86] Creating Layer ip2
I0428 19:38:14.466379 23985 net.cpp:408] ip2 <- ip1
I0428 19:38:14.466387 23985 net.cpp:382] ip2 -> ip2
I0428 19:38:14.466507 23985 net.cpp:124] Setting up ip2
I0428 19:38:14.466516 23985 net.cpp:131] Top shape: 100 50 (5000)
I0428 19:38:14.466519 23985 net.cpp:139] Memory required for data: 29174800
I0428 19:38:14.466527 23985 layer_factory.hpp:77] Creating layer relu2
I0428 19:38:14.466536 23985 net.cpp:86] Creating Layer relu2
I0428 19:38:14.466539 23985 net.cpp:408] relu2 <- ip2
I0428 19:38:14.466544 23985 net.cpp:369] relu2 -> ip2 (in-place)
I0428 19:38:14.467378 23985 net.cpp:124] Setting up relu2
I0428 19:38:14.467392 23985 net.cpp:131] Top shape: 100 50 (5000)
I0428 19:38:14.467412 23985 net.cpp:139] Memory required for data: 29194800
I0428 19:38:14.467417 23985 layer_factory.hpp:77] Creating layer ip3
I0428 19:38:14.467427 23985 net.cpp:86] Creating Layer ip3
I0428 19:38:14.467432 23985 net.cpp:408] ip3 <- ip2
I0428 19:38:14.467438 23985 net.cpp:382] ip3 -> ip3
I0428 19:38:14.467581 23985 net.cpp:124] Setting up ip3
I0428 19:38:14.467591 23985 net.cpp:131] Top shape: 100 10 (1000)
I0428 19:38:14.467593 23985 net.cpp:139] Memory required for data: 29198800
I0428 19:38:14.467598 23985 layer_factory.hpp:77] Creating layer relu3
I0428 19:38:14.467604 23985 net.cpp:86] Creating Layer relu3
I0428 19:38:14.467607 23985 net.cpp:408] relu3 <- ip3
I0428 19:38:14.467613 23985 net.cpp:369] relu3 -> ip3 (in-place)
I0428 19:38:14.467774 23985 net.cpp:124] Setting up relu3
I0428 19:38:14.467787 23985 net.cpp:131] Top shape: 100 10 (1000)
I0428 19:38:14.467789 23985 net.cpp:139] Memory required for data: 29202800
I0428 19:38:14.467792 23985 layer_factory.hpp:77] Creating layer ip3_relu3_0_split
I0428 19:38:14.467797 23985 net.cpp:86] Creating Layer ip3_relu3_0_split
I0428 19:38:14.467800 23985 net.cpp:408] ip3_relu3_0_split <- ip3
I0428 19:38:14.467806 23985 net.cpp:382] ip3_relu3_0_split -> ip3_relu3_0_split_0
I0428 19:38:14.467813 23985 net.cpp:382] ip3_relu3_0_split -> ip3_relu3_0_split_1
I0428 19:38:14.467864 23985 net.cpp:124] Setting up ip3_relu3_0_split
I0428 19:38:14.467871 23985 net.cpp:131] Top shape: 100 10 (1000)
I0428 19:38:14.467887 23985 net.cpp:131] Top shape: 100 10 (1000)
I0428 19:38:14.467890 23985 net.cpp:139] Memory required for data: 29210800
I0428 19:38:14.467893 23985 layer_factory.hpp:77] Creating layer accuracy
I0428 19:38:14.467900 23985 net.cpp:86] Creating Layer accuracy
I0428 19:38:14.467905 23985 net.cpp:408] accuracy <- ip3_relu3_0_split_0
I0428 19:38:14.467908 23985 net.cpp:408] accuracy <- label_mnist_1_split_0
I0428 19:38:14.467914 23985 net.cpp:382] accuracy -> accuracy
…
