…
I0428 20:10:16.079952 31800 net.cpp:296] The NetState phase (0) differed from the phase (1) specified by a rule in layer mnist
I0428 20:10:16.079972 31800 net.cpp:296] The NetState phase (0) differed from the phase (1) specified by a rule in layer accuracy
I0428 20:10:16.080073 31800 net.cpp:53] Initializing net from parameters: 
name: "LeNet"
state {
  phase: TRAIN
  level: 0
  stage: ""
}
layer {
  name: "mnist"
  type: "Data"
  top: "data"
  top: "label"
  include {
    phase: TRAIN
  }
  transform_param {
    scale: 0.00390625
  }
  data_param {
    source: "examples/mnist/mnist_train_lmdb"
    batch_size: 64
    backend: LMDB
  }
}
layer {
  name: "conv0"
  type: "Convolution"
  bottom: "data"
  top: "conv0"
  param {
    lr_mult: 1
  }
  param {
    lr_mult: 2
  }
  convolution_param {
    num_output: 25
    kernel_size: 5
    stride: 1
    weight_filler {
      type: "xavier"
    }
    bias_filler {
      type: "constant"
    }
  }
}
layer {
  name: "pool0"
  type: "Pooling"
  bottom: "conv0"
  top: "pool0"
  pooling_param {
    pool: MAX
    kernel_size: 2
    stride: 2
  }
}
layer {
  name: "conv1"
  type: "Convolution"
  bottom: "pool0"
  top: "conv1"
  param {
    lr_mult: 1
  }
  param {
    lr_mult: 2
  }
  convolution_param {
    num_output: 25
    kernel_size: 5
    stride: 1
    weight_filler {
      type: "xavier"
    }
    bias_filler {
      type: "constant"
    }
  }
}
layer {
  name: "pool1"
  type: "Pooling"
  bottom: "conv1"
  top: "pool1"
  pooling_param {
    pool: MAX
    kernel_size: 2
    stride: 2
  }
}
layer {
  name: "ip1"
  type: "InnerProduct"
  bottom: "pool1"
  top: "ip1"
  param {
    lr_mult: 1
  }
  param {
    lr_mult: 2
  }
  inner_product_param {
    num_output: 50
    weight_filler {
      type: "xavier"
    }
    bias_filler {
      type: "constant"
    }
  }
}
layer {
  name: "relu1"
  type: "ReLU"
  bottom: "ip1"
  top: "ip1"
}
layer {
  name: "ip2"
  type: "InnerProduct"
  bottom: "ip1"
  top: "ip2"
  param {
    lr_mult: 1
  }
  param {
    lr_mult: 2
  }
  inner_product_param {
    num_output: 50
    weight_filler {
      type: "xavier"
    }
    bias_filler {
      type: "constant"
    }
  }
}
layer {
  name: "relu2"
  type: "ReLU"
  bottom: "ip2"
  top: "ip2"
}
layer {
  name: "ip3"
  type: "InnerProduct"
  bottom: "ip2"
  top: "ip3"
  param {
    lr_mult: 1
  }
  param {
    lr_mult: 2
  }
  inner_product_param {
    num_output: 10
    weight_filler {
      type: "xavier"
    }
    bias_filler {
      type: "constant"
    }
  }
}
layer {
  name: "relu3"
  type: "ReLU"
  bottom: "ip3"
  top: "ip3"
}
layer {
  name: "loss"
  type: "SoftmaxWithLoss"
  bottom: "ip3"
  bottom: "label"
  top: "loss"
}
I0428 20:10:16.080153 31800 layer_factory.hpp:77] Creating layer mnist
I0428 20:10:16.080251 31800 db_lmdb.cpp:35] Opened lmdb examples/mnist/mnist_train_lmdb
I0428 20:10:16.080276 31800 net.cpp:86] Creating Layer mnist
I0428 20:10:16.080287 31800 net.cpp:382] mnist -> data
I0428 20:10:16.080312 31800 net.cpp:382] mnist -> label
I0428 20:10:16.081428 31800 data_layer.cpp:45] output data size: 64,1,28,28
I0428 20:10:16.083904 31800 net.cpp:124] Setting up mnist
I0428 20:10:16.083920 31800 net.cpp:131] Top shape: 64 1 28 28 (50176)
I0428 20:10:16.083926 31800 net.cpp:131] Top shape: 64 (64)
I0428 20:10:16.083930 31800 net.cpp:139] Memory required for data: 200960
I0428 20:10:16.083937 31800 layer_factory.hpp:77] Creating layer conv0
I0428 20:10:16.083955 31800 net.cpp:86] Creating Layer conv0
I0428 20:10:16.083976 31800 net.cpp:408] conv0 <- data
I0428 20:10:16.083991 31800 net.cpp:382] conv0 -> conv0
I0428 20:10:16.374028 31800 net.cpp:124] Setting up conv0
I0428 20:10:16.374060 31800 net.cpp:131] Top shape: 64 25 24 24 (921600)
I0428 20:10:16.374065 31800 net.cpp:139] Memory required for data: 3887360
I0428 20:10:16.374083 31800 layer_factory.hpp:77] Creating layer pool0
I0428 20:10:16.374099 31800 net.cpp:86] Creating Layer pool0
I0428 20:10:16.374104 31800 net.cpp:408] pool0 <- conv0
I0428 20:10:16.374110 31800 net.cpp:382] pool0 -> pool0
I0428 20:10:16.374163 31800 net.cpp:124] Setting up pool0
I0428 20:10:16.374171 31800 net.cpp:131] Top shape: 64 25 12 12 (230400)
I0428 20:10:16.374176 31800 net.cpp:139] Memory required for data: 4808960
I0428 20:10:16.374179 31800 layer_factory.hpp:77] Creating layer conv1
I0428 20:10:16.374191 31800 net.cpp:86] Creating Layer conv1
I0428 20:10:16.374198 31800 net.cpp:408] conv1 <- pool0
I0428 20:10:16.374204 31800 net.cpp:382] conv1 -> conv1
I0428 20:10:16.377447 31800 net.cpp:124] Setting up conv1
I0428 20:10:16.377465 31800 net.cpp:131] Top shape: 64 25 8 8 (102400)
I0428 20:10:16.377470 31800 net.cpp:139] Memory required for data: 5218560
I0428 20:10:16.377480 31800 layer_factory.hpp:77] Creating layer pool1
I0428 20:10:16.377496 31800 net.cpp:86] Creating Layer pool1
I0428 20:10:16.377501 31800 net.cpp:408] pool1 <- conv1
I0428 20:10:16.377506 31800 net.cpp:382] pool1 -> pool1
I0428 20:10:16.377552 31800 net.cpp:124] Setting up pool1
I0428 20:10:16.377560 31800 net.cpp:131] Top shape: 64 25 4 4 (25600)
I0428 20:10:16.377564 31800 net.cpp:139] Memory required for data: 5320960
I0428 20:10:16.377568 31800 layer_factory.hpp:77] Creating layer ip1
I0428 20:10:16.377576 31800 net.cpp:86] Creating Layer ip1
I0428 20:10:16.377580 31800 net.cpp:408] ip1 <- pool1
I0428 20:10:16.377585 31800 net.cpp:382] ip1 -> ip1
I0428 20:10:16.377835 31800 net.cpp:124] Setting up ip1
I0428 20:10:16.377842 31800 net.cpp:131] Top shape: 64 50 (3200)
I0428 20:10:16.377846 31800 net.cpp:139] Memory required for data: 5333760
I0428 20:10:16.377854 31800 layer_factory.hpp:77] Creating layer relu1
I0428 20:10:16.377861 31800 net.cpp:86] Creating Layer relu1
I0428 20:10:16.377866 31800 net.cpp:408] relu1 <- ip1
I0428 20:10:16.377871 31800 net.cpp:369] relu1 -> ip1 (in-place)
I0428 20:10:16.378072 31800 net.cpp:124] Setting up relu1
I0428 20:10:16.378082 31800 net.cpp:131] Top shape: 64 50 (3200)
I0428 20:10:16.378087 31800 net.cpp:139] Memory required for data: 5346560
I0428 20:10:16.378090 31800 layer_factory.hpp:77] Creating layer ip2
I0428 20:10:16.378098 31800 net.cpp:86] Creating Layer ip2
I0428 20:10:16.378101 31800 net.cpp:408] ip2 <- ip1
I0428 20:10:16.378108 31800 net.cpp:382] ip2 -> ip2
I0428 20:10:16.379225 31800 net.cpp:124] Setting up ip2
I0428 20:10:16.379240 31800 net.cpp:131] Top shape: 64 50 (3200)
I0428 20:10:16.379245 31800 net.cpp:139] Memory required for data: 5359360
I0428 20:10:16.379251 31800 layer_factory.hpp:77] Creating layer relu2
I0428 20:10:16.379259 31800 net.cpp:86] Creating Layer relu2
I0428 20:10:16.379263 31800 net.cpp:408] relu2 <- ip2
I0428 20:10:16.379269 31800 net.cpp:369] relu2 -> ip2 (in-place)
I0428 20:10:16.380121 31800 net.cpp:124] Setting up relu2
I0428 20:10:16.380137 31800 net.cpp:131] Top shape: 64 50 (3200)
I0428 20:10:16.380141 31800 net.cpp:139] Memory required for data: 5372160
I0428 20:10:16.380146 31800 layer_factory.hpp:77] Creating layer ip3
I0428 20:10:16.380154 31800 net.cpp:86] Creating Layer ip3
I0428 20:10:16.380158 31800 net.cpp:408] ip3 <- ip2
I0428 20:10:16.380164 31800 net.cpp:382] ip3 -> ip3
I0428 20:10:16.380286 31800 net.cpp:124] Setting up ip3
I0428 20:10:16.380296 31800 net.cpp:131] Top shape: 64 10 (640)
I0428 20:10:16.380300 31800 net.cpp:139] Memory required for data: 5374720
I0428 20:10:16.380309 31800 layer_factory.hpp:77] Creating layer relu3
I0428 20:10:16.380317 31800 net.cpp:86] Creating Layer relu3
I0428 20:10:16.380321 31800 net.cpp:408] relu3 <- ip3
I0428 20:10:16.380326 31800 net.cpp:369] relu3 -> ip3 (in-place)
I0428 20:10:16.380524 31800 net.cpp:124] Setting up relu3
I0428 20:10:16.380534 31800 net.cpp:131] Top shape: 64 10 (640)
I0428 20:10:16.380538 31800 net.cpp:139] Memory required for data: 5377280
I0428 20:10:16.380542 31800 layer_factory.hpp:77] Creating layer loss
I0428 20:10:16.380550 31800 net.cpp:86] Creating Layer loss
I0428 20:10:16.380553 31800 net.cpp:408] loss <- ip3
I0428 20:10:16.380558 31800 net.cpp:408] loss <- label
I0428 20:10:16.380565 31800 net.cpp:382] loss -> loss
I0428 20:10:16.380583 31800 layer_factory.hpp:77] Creating layer loss
…
I0428 20:10:16.381346 31800 solver.cpp:173] Creating test net (#0) specified by net file: ECE595/mnist/train_test/var_everything2/lenet_train_test1130.prototxt
I0428 20:10:16.381378 31800 net.cpp:296] The NetState phase (1) differed from the phase (0) specified by a rule in layer mnist
I0428 20:10:16.381485 31800 net.cpp:53] Initializing net from parameters: 
name: "LeNet"
state {
  phase: TEST
}
layer {
  name: "mnist"
  type: "Data"
  top: "data"
  top: "label"
  include {
    phase: TEST
  }
  transform_param {
    scale: 0.00390625
  }
  data_param {
    source: "examples/mnist/mnist_test_lmdb"
    batch_size: 100
    backend: LMDB
  }
}
layer {
  name: "conv0"
  type: "Convolution"
  bottom: "data"
  top: "conv0"
  param {
    lr_mult: 1
  }
  param {
    lr_mult: 2
  }
  convolution_param {
    num_output: 25
    kernel_size: 5
    stride: 1
    weight_filler {
      type: "xavier"
    }
    bias_filler {
      type: "constant"
    }
  }
}
layer {
  name: "pool0"
  type: "Pooling"
  bottom: "conv0"
  top: "pool0"
  pooling_param {
    pool: MAX
    kernel_size: 2
    stride: 2
  }
}
layer {
  name: "conv1"
  type: "Convolution"
  bottom: "pool0"
  top: "conv1"
  param {
    lr_mult: 1
  }
  param {
    lr_mult: 2
  }
  convolution_param {
    num_output: 25
    kernel_size: 5
    stride: 1
    weight_filler {
      type: "xavier"
    }
    bias_filler {
      type: "constant"
    }
  }
}
layer {
  name: "pool1"
  type: "Pooling"
  bottom: "conv1"
  top: "pool1"
  pooling_param {
    pool: MAX
    kernel_size: 2
    stride: 2
  }
}
layer {
  name: "ip1"
  type: "InnerProduct"
  bottom: "pool1"
  top: "ip1"
  param {
    lr_mult: 1
  }
  param {
    lr_mult: 2
  }
  inner_product_param {
    num_output: 50
    weight_filler {
      type: "xavier"
    }
    bias_filler {
      type: "constant"
    }
  }
}
layer {
  name: "relu1"
  type: "ReLU"
  bottom: "ip1"
  top: "ip1"
}
layer {
  name: "ip2"
  type: "InnerProduct"
  bottom: "ip1"
  top: "ip2"
  param {
    lr_mult: 1
  }
  param {
    lr_mult: 2
  }
  inner_product_param {
    num_output: 50
    weight_filler {
      type: "xavier"
    }
    bias_filler {
      type: "constant"
    }
  }
}
layer {
  name: "relu2"
  type: "ReLU"
  bottom: "ip2"
  top: "ip2"
}
layer {
  name: "ip3"
  type: "InnerProduct"
  bottom: "ip2"
  top: "ip3"
  param {
    lr_mult: 1
  }
  param {
    lr_mult: 2
  }
  inner_product_param {
    num_output: 10
    weight_filler {
      type: "xavier"
    }
    bias_filler {
      type: "constant"
    }
  }
}
layer {
  name: "relu3"
  type: "ReLU"
  bottom: "ip3"
  top: "ip3"
}
layer {
  name: "accuracy"
  type: "Accuracy"
  bottom: "ip3"
  bottom: "label"
  top: "accuracy"
  include {
    phase: TEST
  }
}
layer {
  name: "loss"
  type: "SoftmaxWithLoss"
  bottom: "ip3"
  bottom: "label"
  top: "loss"
}
I0428 20:10:16.381580 31800 layer_factory.hpp:77] Creating layer mnist
I0428 20:10:16.381634 31800 db_lmdb.cpp:35] Opened lmdb examples/mnist/mnist_test_lmdb
I0428 20:10:16.381649 31800 net.cpp:86] Creating Layer mnist
I0428 20:10:16.381654 31800 net.cpp:382] mnist -> data
I0428 20:10:16.381664 31800 net.cpp:382] mnist -> label
I0428 20:10:16.381767 31800 data_layer.cpp:45] output data size: 100,1,28,28
I0428 20:10:16.384201 31800 net.cpp:124] Setting up mnist
I0428 20:10:16.384217 31800 net.cpp:131] Top shape: 100 1 28 28 (78400)
I0428 20:10:16.384222 31800 net.cpp:131] Top shape: 100 (100)
I0428 20:10:16.384227 31800 net.cpp:139] Memory required for data: 314000
I0428 20:10:16.384230 31800 layer_factory.hpp:77] Creating layer label_mnist_1_split
I0428 20:10:16.384238 31800 net.cpp:86] Creating Layer label_mnist_1_split
I0428 20:10:16.384243 31800 net.cpp:408] label_mnist_1_split <- label
I0428 20:10:16.384270 31800 net.cpp:382] label_mnist_1_split -> label_mnist_1_split_0
I0428 20:10:16.384279 31800 net.cpp:382] label_mnist_1_split -> label_mnist_1_split_1
I0428 20:10:16.384338 31800 net.cpp:124] Setting up label_mnist_1_split
I0428 20:10:16.384346 31800 net.cpp:131] Top shape: 100 (100)
I0428 20:10:16.384351 31800 net.cpp:131] Top shape: 100 (100)
I0428 20:10:16.384354 31800 net.cpp:139] Memory required for data: 314800
I0428 20:10:16.384358 31800 layer_factory.hpp:77] Creating layer conv0
I0428 20:10:16.384369 31800 net.cpp:86] Creating Layer conv0
I0428 20:10:16.384374 31800 net.cpp:408] conv0 <- data
I0428 20:10:16.384382 31800 net.cpp:382] conv0 -> conv0
I0428 20:10:16.386371 31800 net.cpp:124] Setting up conv0
I0428 20:10:16.386389 31800 net.cpp:131] Top shape: 100 25 24 24 (1440000)
I0428 20:10:16.386392 31800 net.cpp:139] Memory required for data: 6074800
I0428 20:10:16.386404 31800 layer_factory.hpp:77] Creating layer pool0
I0428 20:10:16.386412 31800 net.cpp:86] Creating Layer pool0
I0428 20:10:16.386416 31800 net.cpp:408] pool0 <- conv0
I0428 20:10:16.386421 31800 net.cpp:382] pool0 -> pool0
I0428 20:10:16.386467 31800 net.cpp:124] Setting up pool0
I0428 20:10:16.386476 31800 net.cpp:131] Top shape: 100 25 12 12 (360000)
I0428 20:10:16.386479 31800 net.cpp:139] Memory required for data: 7514800
I0428 20:10:16.386482 31800 layer_factory.hpp:77] Creating layer conv1
I0428 20:10:16.386493 31800 net.cpp:86] Creating Layer conv1
I0428 20:10:16.386498 31800 net.cpp:408] conv1 <- pool0
I0428 20:10:16.386505 31800 net.cpp:382] conv1 -> conv1
I0428 20:10:16.388978 31800 net.cpp:124] Setting up conv1
I0428 20:10:16.388994 31800 net.cpp:131] Top shape: 100 25 8 8 (160000)
I0428 20:10:16.389000 31800 net.cpp:139] Memory required for data: 8154800
I0428 20:10:16.389010 31800 layer_factory.hpp:77] Creating layer pool1
I0428 20:10:16.389022 31800 net.cpp:86] Creating Layer pool1
I0428 20:10:16.389026 31800 net.cpp:408] pool1 <- conv1
I0428 20:10:16.389032 31800 net.cpp:382] pool1 -> pool1
I0428 20:10:16.389104 31800 net.cpp:124] Setting up pool1
I0428 20:10:16.389114 31800 net.cpp:131] Top shape: 100 25 4 4 (40000)
I0428 20:10:16.389117 31800 net.cpp:139] Memory required for data: 8314800
I0428 20:10:16.389122 31800 layer_factory.hpp:77] Creating layer ip1
I0428 20:10:16.389144 31800 net.cpp:86] Creating Layer ip1
I0428 20:10:16.389150 31800 net.cpp:408] ip1 <- pool1
I0428 20:10:16.389156 31800 net.cpp:382] ip1 -> ip1
I0428 20:10:16.389425 31800 net.cpp:124] Setting up ip1
I0428 20:10:16.389434 31800 net.cpp:131] Top shape: 100 50 (5000)
I0428 20:10:16.389451 31800 net.cpp:139] Memory required for data: 8334800
I0428 20:10:16.389461 31800 layer_factory.hpp:77] Creating layer relu1
I0428 20:10:16.389467 31800 net.cpp:86] Creating Layer relu1
I0428 20:10:16.389472 31800 net.cpp:408] relu1 <- ip1
I0428 20:10:16.389477 31800 net.cpp:369] relu1 -> ip1 (in-place)
I0428 20:10:16.389691 31800 net.cpp:124] Setting up relu1
I0428 20:10:16.389703 31800 net.cpp:131] Top shape: 100 50 (5000)
I0428 20:10:16.389709 31800 net.cpp:139] Memory required for data: 8354800
I0428 20:10:16.389720 31800 layer_factory.hpp:77] Creating layer ip2
I0428 20:10:16.389729 31800 net.cpp:86] Creating Layer ip2
I0428 20:10:16.389734 31800 net.cpp:408] ip2 <- ip1
I0428 20:10:16.389741 31800 net.cpp:382] ip2 -> ip2
I0428 20:10:16.389894 31800 net.cpp:124] Setting up ip2
I0428 20:10:16.389905 31800 net.cpp:131] Top shape: 100 50 (5000)
I0428 20:10:16.389909 31800 net.cpp:139] Memory required for data: 8374800
I0428 20:10:16.389916 31800 layer_factory.hpp:77] Creating layer relu2
I0428 20:10:16.389925 31800 net.cpp:86] Creating Layer relu2
I0428 20:10:16.389930 31800 net.cpp:408] relu2 <- ip2
I0428 20:10:16.389935 31800 net.cpp:369] relu2 -> ip2 (in-place)
I0428 20:10:16.390189 31800 net.cpp:124] Setting up relu2
I0428 20:10:16.390202 31800 net.cpp:131] Top shape: 100 50 (5000)
I0428 20:10:16.390205 31800 net.cpp:139] Memory required for data: 8394800
I0428 20:10:16.390209 31800 layer_factory.hpp:77] Creating layer ip3
I0428 20:10:16.390218 31800 net.cpp:86] Creating Layer ip3
I0428 20:10:16.390223 31800 net.cpp:408] ip3 <- ip2
I0428 20:10:16.390229 31800 net.cpp:382] ip3 -> ip3
I0428 20:10:16.390382 31800 net.cpp:124] Setting up ip3
I0428 20:10:16.390390 31800 net.cpp:131] Top shape: 100 10 (1000)
I0428 20:10:16.390394 31800 net.cpp:139] Memory required for data: 8398800
I0428 20:10:16.390403 31800 layer_factory.hpp:77] Creating layer relu3
I0428 20:10:16.390410 31800 net.cpp:86] Creating Layer relu3
I0428 20:10:16.390420 31800 net.cpp:408] relu3 <- ip3
I0428 20:10:16.390429 31800 net.cpp:369] relu3 -> ip3 (in-place)
I0428 20:10:16.391505 31800 net.cpp:124] Setting up relu3
I0428 20:10:16.391521 31800 net.cpp:131] Top shape: 100 10 (1000)
I0428 20:10:16.391531 31800 net.cpp:139] Memory required for data: 8402800
I0428 20:10:16.391535 31800 layer_factory.hpp:77] Creating layer ip3_relu3_0_split
I0428 20:10:16.391541 31800 net.cpp:86] Creating Layer ip3_relu3_0_split
I0428 20:10:16.391546 31800 net.cpp:408] ip3_relu3_0_split <- ip3
I0428 20:10:16.391553 31800 net.cpp:382] ip3_relu3_0_split -> ip3_relu3_0_split_0
I0428 20:10:16.391562 31800 net.cpp:382] ip3_relu3_0_split -> ip3_relu3_0_split_1
I0428 20:10:16.391613 31800 net.cpp:124] Setting up ip3_relu3_0_split
I0428 20:10:16.391623 31800 net.cpp:131] Top shape: 100 10 (1000)
I0428 20:10:16.391628 31800 net.cpp:131] Top shape: 100 10 (1000)
I0428 20:10:16.391631 31800 net.cpp:139] Memory required for data: 8410800
I0428 20:10:16.391635 31800 layer_factory.hpp:77] Creating layer accuracy
I0428 20:10:16.391641 31800 net.cpp:86] Creating Layer accuracy
I0428 20:10:16.391645 31800 net.cpp:408] accuracy <- ip3_relu3_0_split_0
I0428 20:10:16.391650 31800 net.cpp:408] accuracy <- label_mnist_1_split_0
I0428 20:10:16.391656 31800 net.cpp:382] accuracy -> accuracy
…
