…
I0428 20:13:38.947644 32495 net.cpp:296] The NetState phase (0) differed from the phase (1) specified by a rule in layer mnist
I0428 20:13:38.947677 32495 net.cpp:296] The NetState phase (0) differed from the phase (1) specified by a rule in layer accuracy
I0428 20:13:38.947763 32495 net.cpp:53] Initializing net from parameters: 
name: "LeNet"
state {
  phase: TRAIN
  level: 0
  stage: ""
}
layer {
  name: "mnist"
  type: "Data"
  top: "data"
  top: "label"
  include {
    phase: TRAIN
  }
  transform_param {
    scale: 0.00390625
  }
  data_param {
    source: "examples/mnist/mnist_train_lmdb"
    batch_size: 64
    backend: LMDB
  }
}
layer {
  name: "conv0"
  type: "Convolution"
  bottom: "data"
  top: "conv0"
  param {
    lr_mult: 1
  }
  param {
    lr_mult: 2
  }
  convolution_param {
    num_output: 25
    kernel_size: 5
    stride: 1
    weight_filler {
      type: "xavier"
    }
    bias_filler {
      type: "constant"
    }
  }
}
layer {
  name: "pool0"
  type: "Pooling"
  bottom: "conv0"
  top: "pool0"
  pooling_param {
    pool: MAX
    kernel_size: 2
    stride: 2
  }
}
layer {
  name: "conv1"
  type: "Convolution"
  bottom: "pool0"
  top: "conv1"
  param {
    lr_mult: 1
  }
  param {
    lr_mult: 2
  }
  convolution_param {
    num_output: 100
    kernel_size: 5
    stride: 1
    weight_filler {
      type: "xavier"
    }
    bias_filler {
      type: "constant"
    }
  }
}
layer {
  name: "pool1"
  type: "Pooling"
  bottom: "conv1"
  top: "pool1"
  pooling_param {
    pool: MAX
    kernel_size: 2
    stride: 2
  }
}
layer {
  name: "ip1"
  type: "InnerProduct"
  bottom: "pool1"
  top: "ip1"
  param {
    lr_mult: 1
  }
  param {
    lr_mult: 2
  }
  inner_product_param {
    num_output: 50
    weight_filler {
      type: "xavier"
    }
    bias_filler {
      type: "constant"
    }
  }
}
layer {
  name: "relu1"
  type: "ReLU"
  bottom: "ip1"
  top: "ip1"
}
layer {
  name: "ip2"
  type: "InnerProduct"
  bottom: "ip1"
  top: "ip2"
  param {
    lr_mult: 1
  }
  param {
    lr_mult: 2
  }
  inner_product_param {
    num_output: 25
    weight_filler {
      type: "xavier"
    }
    bias_filler {
      type: "constant"
    }
  }
}
layer {
  name: "relu2"
  type: "ReLU"
  bottom: "ip2"
  top: "ip2"
}
layer {
  name: "ip3"
  type: "InnerProduct"
  bottom: "ip2"
  top: "ip3"
  param {
    lr_mult: 1
  }
  param {
    lr_mult: 2
  }
  inner_product_param {
    num_output: 10
    weight_filler {
      type: "xavier"
    }
    bias_filler {
      type: "constant"
    }
  }
}
layer {
  name: "relu3"
  type: "ReLU"
  bottom: "ip3"
  top: "ip3"
}
layer {
  name: "loss"
  type: "SoftmaxWithLoss"
  bottom: "ip3"
  bottom: "label"
  top: "loss"
}
I0428 20:13:38.947845 32495 layer_factory.hpp:77] Creating layer mnist
I0428 20:13:38.947927 32495 db_lmdb.cpp:35] Opened lmdb examples/mnist/mnist_train_lmdb
I0428 20:13:38.947947 32495 net.cpp:86] Creating Layer mnist
I0428 20:13:38.947957 32495 net.cpp:382] mnist -> data
I0428 20:13:38.947983 32495 net.cpp:382] mnist -> label
I0428 20:13:38.948987 32495 data_layer.cpp:45] output data size: 64,1,28,28
I0428 20:13:38.951354 32495 net.cpp:124] Setting up mnist
I0428 20:13:38.951369 32495 net.cpp:131] Top shape: 64 1 28 28 (50176)
I0428 20:13:38.951373 32495 net.cpp:131] Top shape: 64 (64)
I0428 20:13:38.951376 32495 net.cpp:139] Memory required for data: 200960
I0428 20:13:38.951382 32495 layer_factory.hpp:77] Creating layer conv0
I0428 20:13:38.951398 32495 net.cpp:86] Creating Layer conv0
I0428 20:13:38.951423 32495 net.cpp:408] conv0 <- data
I0428 20:13:38.951434 32495 net.cpp:382] conv0 -> conv0
I0428 20:13:39.187388 32495 net.cpp:124] Setting up conv0
I0428 20:13:39.187430 32495 net.cpp:131] Top shape: 64 25 24 24 (921600)
I0428 20:13:39.187434 32495 net.cpp:139] Memory required for data: 3887360
I0428 20:13:39.187450 32495 layer_factory.hpp:77] Creating layer pool0
I0428 20:13:39.187463 32495 net.cpp:86] Creating Layer pool0
I0428 20:13:39.187465 32495 net.cpp:408] pool0 <- conv0
I0428 20:13:39.187471 32495 net.cpp:382] pool0 -> pool0
I0428 20:13:39.187543 32495 net.cpp:124] Setting up pool0
I0428 20:13:39.187549 32495 net.cpp:131] Top shape: 64 25 12 12 (230400)
I0428 20:13:39.187552 32495 net.cpp:139] Memory required for data: 4808960
I0428 20:13:39.187556 32495 layer_factory.hpp:77] Creating layer conv1
I0428 20:13:39.187566 32495 net.cpp:86] Creating Layer conv1
I0428 20:13:39.187568 32495 net.cpp:408] conv1 <- pool0
I0428 20:13:39.187572 32495 net.cpp:382] conv1 -> conv1
I0428 20:13:39.189890 32495 net.cpp:124] Setting up conv1
I0428 20:13:39.189919 32495 net.cpp:131] Top shape: 64 100 8 8 (409600)
I0428 20:13:39.189924 32495 net.cpp:139] Memory required for data: 6447360
I0428 20:13:39.189931 32495 layer_factory.hpp:77] Creating layer pool1
I0428 20:13:39.189939 32495 net.cpp:86] Creating Layer pool1
I0428 20:13:39.189942 32495 net.cpp:408] pool1 <- conv1
I0428 20:13:39.189947 32495 net.cpp:382] pool1 -> pool1
I0428 20:13:39.190012 32495 net.cpp:124] Setting up pool1
I0428 20:13:39.190018 32495 net.cpp:131] Top shape: 64 100 4 4 (102400)
I0428 20:13:39.190021 32495 net.cpp:139] Memory required for data: 6856960
I0428 20:13:39.190026 32495 layer_factory.hpp:77] Creating layer ip1
I0428 20:13:39.190032 32495 net.cpp:86] Creating Layer ip1
I0428 20:13:39.190035 32495 net.cpp:408] ip1 <- pool1
I0428 20:13:39.190039 32495 net.cpp:382] ip1 -> ip1
I0428 20:13:39.191602 32495 net.cpp:124] Setting up ip1
I0428 20:13:39.191614 32495 net.cpp:131] Top shape: 64 50 (3200)
I0428 20:13:39.191634 32495 net.cpp:139] Memory required for data: 6869760
I0428 20:13:39.191642 32495 layer_factory.hpp:77] Creating layer relu1
I0428 20:13:39.191648 32495 net.cpp:86] Creating Layer relu1
I0428 20:13:39.191651 32495 net.cpp:408] relu1 <- ip1
I0428 20:13:39.191656 32495 net.cpp:369] relu1 -> ip1 (in-place)
I0428 20:13:39.191846 32495 net.cpp:124] Setting up relu1
I0428 20:13:39.191870 32495 net.cpp:131] Top shape: 64 50 (3200)
I0428 20:13:39.191874 32495 net.cpp:139] Memory required for data: 6882560
I0428 20:13:39.191877 32495 layer_factory.hpp:77] Creating layer ip2
I0428 20:13:39.191884 32495 net.cpp:86] Creating Layer ip2
I0428 20:13:39.191887 32495 net.cpp:408] ip2 <- ip1
I0428 20:13:39.191892 32495 net.cpp:382] ip2 -> ip2
I0428 20:13:39.192929 32495 net.cpp:124] Setting up ip2
I0428 20:13:39.192957 32495 net.cpp:131] Top shape: 64 25 (1600)
I0428 20:13:39.192960 32495 net.cpp:139] Memory required for data: 6888960
I0428 20:13:39.192982 32495 layer_factory.hpp:77] Creating layer relu2
I0428 20:13:39.192991 32495 net.cpp:86] Creating Layer relu2
I0428 20:13:39.192993 32495 net.cpp:408] relu2 <- ip2
I0428 20:13:39.192999 32495 net.cpp:369] relu2 -> ip2 (in-place)
I0428 20:13:39.193855 32495 net.cpp:124] Setting up relu2
I0428 20:13:39.193867 32495 net.cpp:131] Top shape: 64 25 (1600)
I0428 20:13:39.193886 32495 net.cpp:139] Memory required for data: 6895360
I0428 20:13:39.193889 32495 layer_factory.hpp:77] Creating layer ip3
I0428 20:13:39.193912 32495 net.cpp:86] Creating Layer ip3
I0428 20:13:39.193917 32495 net.cpp:408] ip3 <- ip2
I0428 20:13:39.193922 32495 net.cpp:382] ip3 -> ip3
I0428 20:13:39.194023 32495 net.cpp:124] Setting up ip3
I0428 20:13:39.194031 32495 net.cpp:131] Top shape: 64 10 (640)
I0428 20:13:39.194034 32495 net.cpp:139] Memory required for data: 6897920
I0428 20:13:39.194043 32495 layer_factory.hpp:77] Creating layer relu3
I0428 20:13:39.194048 32495 net.cpp:86] Creating Layer relu3
I0428 20:13:39.194051 32495 net.cpp:408] relu3 <- ip3
I0428 20:13:39.194056 32495 net.cpp:369] relu3 -> ip3 (in-place)
I0428 20:13:39.194237 32495 net.cpp:124] Setting up relu3
I0428 20:13:39.194247 32495 net.cpp:131] Top shape: 64 10 (640)
I0428 20:13:39.194250 32495 net.cpp:139] Memory required for data: 6900480
I0428 20:13:39.194253 32495 layer_factory.hpp:77] Creating layer loss
I0428 20:13:39.194273 32495 net.cpp:86] Creating Layer loss
I0428 20:13:39.194277 32495 net.cpp:408] loss <- ip3
I0428 20:13:39.194280 32495 net.cpp:408] loss <- label
I0428 20:13:39.194285 32495 net.cpp:382] loss -> loss
I0428 20:13:39.194303 32495 layer_factory.hpp:77] Creating layer loss
…
I0428 20:13:39.195016 32495 solver.cpp:173] Creating test net (#0) specified by net file: ECE595/mnist/train_test/var_everything2/lenet_train_test1203.prototxt
I0428 20:13:39.195060 32495 net.cpp:296] The NetState phase (1) differed from the phase (0) specified by a rule in layer mnist
I0428 20:13:39.195152 32495 net.cpp:53] Initializing net from parameters: 
name: "LeNet"
state {
  phase: TEST
}
layer {
  name: "mnist"
  type: "Data"
  top: "data"
  top: "label"
  include {
    phase: TEST
  }
  transform_param {
    scale: 0.00390625
  }
  data_param {
    source: "examples/mnist/mnist_test_lmdb"
    batch_size: 100
    backend: LMDB
  }
}
layer {
  name: "conv0"
  type: "Convolution"
  bottom: "data"
  top: "conv0"
  param {
    lr_mult: 1
  }
  param {
    lr_mult: 2
  }
  convolution_param {
    num_output: 25
    kernel_size: 5
    stride: 1
    weight_filler {
      type: "xavier"
    }
    bias_filler {
      type: "constant"
    }
  }
}
layer {
  name: "pool0"
  type: "Pooling"
  bottom: "conv0"
  top: "pool0"
  pooling_param {
    pool: MAX
    kernel_size: 2
    stride: 2
  }
}
layer {
  name: "conv1"
  type: "Convolution"
  bottom: "pool0"
  top: "conv1"
  param {
    lr_mult: 1
  }
  param {
    lr_mult: 2
  }
  convolution_param {
    num_output: 100
    kernel_size: 5
    stride: 1
    weight_filler {
      type: "xavier"
    }
    bias_filler {
      type: "constant"
    }
  }
}
layer {
  name: "pool1"
  type: "Pooling"
  bottom: "conv1"
  top: "pool1"
  pooling_param {
    pool: MAX
    kernel_size: 2
    stride: 2
  }
}
layer {
  name: "ip1"
  type: "InnerProduct"
  bottom: "pool1"
  top: "ip1"
  param {
    lr_mult: 1
  }
  param {
    lr_mult: 2
  }
  inner_product_param {
    num_output: 50
    weight_filler {
      type: "xavier"
    }
    bias_filler {
      type: "constant"
    }
  }
}
layer {
  name: "relu1"
  type: "ReLU"
  bottom: "ip1"
  top: "ip1"
}
layer {
  name: "ip2"
  type: "InnerProduct"
  bottom: "ip1"
  top: "ip2"
  param {
    lr_mult: 1
  }
  param {
    lr_mult: 2
  }
  inner_product_param {
    num_output: 25
    weight_filler {
      type: "xavier"
    }
    bias_filler {
      type: "constant"
    }
  }
}
layer {
  name: "relu2"
  type: "ReLU"
  bottom: "ip2"
  top: "ip2"
}
layer {
  name: "ip3"
  type: "InnerProduct"
  bottom: "ip2"
  top: "ip3"
  param {
    lr_mult: 1
  }
  param {
    lr_mult: 2
  }
  inner_product_param {
    num_output: 10
    weight_filler {
      type: "xavier"
    }
    bias_filler {
      type: "constant"
    }
  }
}
layer {
  name: "relu3"
  type: "ReLU"
  bottom: "ip3"
  top: "ip3"
}
layer {
  name: "accuracy"
  type: "Accuracy"
  bottom: "ip3"
  bottom: "label"
  top: "accuracy"
  include {
    phase: TEST
  }
}
layer {
  name: "loss"
  type: "SoftmaxWithLoss"
  bottom: "ip3"
  bottom: "label"
  top: "loss"
}
I0428 20:13:39.195263 32495 layer_factory.hpp:77] Creating layer mnist
I0428 20:13:39.195307 32495 db_lmdb.cpp:35] Opened lmdb examples/mnist/mnist_test_lmdb
I0428 20:13:39.195319 32495 net.cpp:86] Creating Layer mnist
I0428 20:13:39.195323 32495 net.cpp:382] mnist -> data
I0428 20:13:39.195332 32495 net.cpp:382] mnist -> label
I0428 20:13:39.195410 32495 data_layer.cpp:45] output data size: 100,1,28,28
I0428 20:13:39.196518 32495 net.cpp:124] Setting up mnist
I0428 20:13:39.196547 32495 net.cpp:131] Top shape: 100 1 28 28 (78400)
I0428 20:13:39.196552 32495 net.cpp:131] Top shape: 100 (100)
I0428 20:13:39.196555 32495 net.cpp:139] Memory required for data: 314000
I0428 20:13:39.196559 32495 layer_factory.hpp:77] Creating layer label_mnist_1_split
I0428 20:13:39.196607 32495 net.cpp:86] Creating Layer label_mnist_1_split
I0428 20:13:39.196611 32495 net.cpp:408] label_mnist_1_split <- label
I0428 20:13:39.196616 32495 net.cpp:382] label_mnist_1_split -> label_mnist_1_split_0
I0428 20:13:39.196624 32495 net.cpp:382] label_mnist_1_split -> label_mnist_1_split_1
I0428 20:13:39.196666 32495 net.cpp:124] Setting up label_mnist_1_split
I0428 20:13:39.196671 32495 net.cpp:131] Top shape: 100 (100)
I0428 20:13:39.196676 32495 net.cpp:131] Top shape: 100 (100)
I0428 20:13:39.196678 32495 net.cpp:139] Memory required for data: 314800
I0428 20:13:39.196681 32495 layer_factory.hpp:77] Creating layer conv0
I0428 20:13:39.196689 32495 net.cpp:86] Creating Layer conv0
I0428 20:13:39.196692 32495 net.cpp:408] conv0 <- data
I0428 20:13:39.196697 32495 net.cpp:382] conv0 -> conv0
I0428 20:13:39.198498 32495 net.cpp:124] Setting up conv0
I0428 20:13:39.198513 32495 net.cpp:131] Top shape: 100 25 24 24 (1440000)
I0428 20:13:39.198516 32495 net.cpp:139] Memory required for data: 6074800
I0428 20:13:39.198539 32495 layer_factory.hpp:77] Creating layer pool0
I0428 20:13:39.198545 32495 net.cpp:86] Creating Layer pool0
I0428 20:13:39.198549 32495 net.cpp:408] pool0 <- conv0
I0428 20:13:39.198554 32495 net.cpp:382] pool0 -> pool0
I0428 20:13:39.198585 32495 net.cpp:124] Setting up pool0
I0428 20:13:39.198591 32495 net.cpp:131] Top shape: 100 25 12 12 (360000)
I0428 20:13:39.198593 32495 net.cpp:139] Memory required for data: 7514800
I0428 20:13:39.198596 32495 layer_factory.hpp:77] Creating layer conv1
I0428 20:13:39.198603 32495 net.cpp:86] Creating Layer conv1
I0428 20:13:39.198606 32495 net.cpp:408] conv1 <- pool0
I0428 20:13:39.198611 32495 net.cpp:382] conv1 -> conv1
I0428 20:13:39.200395 32495 net.cpp:124] Setting up conv1
I0428 20:13:39.200408 32495 net.cpp:131] Top shape: 100 100 8 8 (640000)
I0428 20:13:39.200412 32495 net.cpp:139] Memory required for data: 10074800
I0428 20:13:39.200420 32495 layer_factory.hpp:77] Creating layer pool1
I0428 20:13:39.200433 32495 net.cpp:86] Creating Layer pool1
I0428 20:13:39.200436 32495 net.cpp:408] pool1 <- conv1
I0428 20:13:39.200441 32495 net.cpp:382] pool1 -> pool1
I0428 20:13:39.200474 32495 net.cpp:124] Setting up pool1
I0428 20:13:39.200479 32495 net.cpp:131] Top shape: 100 100 4 4 (160000)
I0428 20:13:39.200482 32495 net.cpp:139] Memory required for data: 10714800
I0428 20:13:39.200484 32495 layer_factory.hpp:77] Creating layer ip1
I0428 20:13:39.200490 32495 net.cpp:86] Creating Layer ip1
I0428 20:13:39.200500 32495 net.cpp:408] ip1 <- pool1
I0428 20:13:39.200503 32495 net.cpp:382] ip1 -> ip1
I0428 20:13:39.201171 32495 net.cpp:124] Setting up ip1
I0428 20:13:39.201195 32495 net.cpp:131] Top shape: 100 50 (5000)
I0428 20:13:39.201222 32495 net.cpp:139] Memory required for data: 10734800
I0428 20:13:39.201231 32495 layer_factory.hpp:77] Creating layer relu1
I0428 20:13:39.201236 32495 net.cpp:86] Creating Layer relu1
I0428 20:13:39.201238 32495 net.cpp:408] relu1 <- ip1
I0428 20:13:39.201243 32495 net.cpp:369] relu1 -> ip1 (in-place)
I0428 20:13:39.201478 32495 net.cpp:124] Setting up relu1
I0428 20:13:39.201488 32495 net.cpp:131] Top shape: 100 50 (5000)
I0428 20:13:39.201493 32495 net.cpp:139] Memory required for data: 10754800
I0428 20:13:39.201495 32495 layer_factory.hpp:77] Creating layer ip2
I0428 20:13:39.201503 32495 net.cpp:86] Creating Layer ip2
I0428 20:13:39.201505 32495 net.cpp:408] ip2 <- ip1
I0428 20:13:39.201535 32495 net.cpp:382] ip2 -> ip2
I0428 20:13:39.201637 32495 net.cpp:124] Setting up ip2
I0428 20:13:39.201644 32495 net.cpp:131] Top shape: 100 25 (2500)
I0428 20:13:39.201647 32495 net.cpp:139] Memory required for data: 10764800
I0428 20:13:39.201653 32495 layer_factory.hpp:77] Creating layer relu2
I0428 20:13:39.201658 32495 net.cpp:86] Creating Layer relu2
I0428 20:13:39.201659 32495 net.cpp:408] relu2 <- ip2
I0428 20:13:39.201664 32495 net.cpp:369] relu2 -> ip2 (in-place)
I0428 20:13:39.201802 32495 net.cpp:124] Setting up relu2
I0428 20:13:39.201810 32495 net.cpp:131] Top shape: 100 25 (2500)
I0428 20:13:39.201813 32495 net.cpp:139] Memory required for data: 10774800
I0428 20:13:39.201817 32495 layer_factory.hpp:77] Creating layer ip3
I0428 20:13:39.201822 32495 net.cpp:86] Creating Layer ip3
I0428 20:13:39.201824 32495 net.cpp:408] ip3 <- ip2
I0428 20:13:39.201829 32495 net.cpp:382] ip3 -> ip3
I0428 20:13:39.201930 32495 net.cpp:124] Setting up ip3
I0428 20:13:39.201937 32495 net.cpp:131] Top shape: 100 10 (1000)
I0428 20:13:39.201941 32495 net.cpp:139] Memory required for data: 10778800
I0428 20:13:39.201949 32495 layer_factory.hpp:77] Creating layer relu3
I0428 20:13:39.201954 32495 net.cpp:86] Creating Layer relu3
I0428 20:13:39.201957 32495 net.cpp:408] relu3 <- ip3
I0428 20:13:39.201962 32495 net.cpp:369] relu3 -> ip3 (in-place)
I0428 20:13:39.202791 32495 net.cpp:124] Setting up relu3
I0428 20:13:39.202803 32495 net.cpp:131] Top shape: 100 10 (1000)
I0428 20:13:39.202806 32495 net.cpp:139] Memory required for data: 10782800
I0428 20:13:39.202811 32495 layer_factory.hpp:77] Creating layer ip3_relu3_0_split
I0428 20:13:39.202816 32495 net.cpp:86] Creating Layer ip3_relu3_0_split
I0428 20:13:39.202818 32495 net.cpp:408] ip3_relu3_0_split <- ip3
I0428 20:13:39.202823 32495 net.cpp:382] ip3_relu3_0_split -> ip3_relu3_0_split_0
I0428 20:13:39.202829 32495 net.cpp:382] ip3_relu3_0_split -> ip3_relu3_0_split_1
I0428 20:13:39.202895 32495 net.cpp:124] Setting up ip3_relu3_0_split
I0428 20:13:39.202908 32495 net.cpp:131] Top shape: 100 10 (1000)
I0428 20:13:39.202913 32495 net.cpp:131] Top shape: 100 10 (1000)
I0428 20:13:39.202921 32495 net.cpp:139] Memory required for data: 10790800
I0428 20:13:39.202924 32495 layer_factory.hpp:77] Creating layer accuracy
I0428 20:13:39.202929 32495 net.cpp:86] Creating Layer accuracy
I0428 20:13:39.202932 32495 net.cpp:408] accuracy <- ip3_relu3_0_split_0
I0428 20:13:39.202936 32495 net.cpp:408] accuracy <- label_mnist_1_split_0
I0428 20:13:39.202945 32495 net.cpp:382] accuracy -> accuracy
…
