…
I0428 19:40:57.785538 24702 net.cpp:296] The NetState phase (0) differed from the phase (1) specified by a rule in layer mnist
I0428 19:40:57.785564 24702 net.cpp:296] The NetState phase (0) differed from the phase (1) specified by a rule in layer accuracy
I0428 19:40:57.785678 24702 net.cpp:53] Initializing net from parameters: 
name: "LeNet"
state {
  phase: TRAIN
  level: 0
  stage: ""
}
layer {
  name: "mnist"
  type: "Data"
  top: "data"
  top: "label"
  include {
    phase: TRAIN
  }
  transform_param {
    scale: 0.00390625
  }
  data_param {
    source: "examples/mnist/mnist_train_lmdb"
    batch_size: 64
    backend: LMDB
  }
}
layer {
  name: "conv0"
  type: "Convolution"
  bottom: "data"
  top: "conv0"
  param {
    lr_mult: 1
  }
  param {
    lr_mult: 2
  }
  convolution_param {
    num_output: 2
    kernel_size: 5
    stride: 1
    weight_filler {
      type: "xavier"
    }
    bias_filler {
      type: "constant"
    }
  }
}
layer {
  name: "pool0"
  type: "Pooling"
  bottom: "conv0"
  top: "pool0"
  pooling_param {
    pool: MAX
    kernel_size: 2
    stride: 2
  }
}
layer {
  name: "conv1"
  type: "Convolution"
  bottom: "pool0"
  top: "conv1"
  param {
    lr_mult: 1
  }
  param {
    lr_mult: 2
  }
  convolution_param {
    num_output: 5
    kernel_size: 5
    stride: 1
    weight_filler {
      type: "xavier"
    }
    bias_filler {
      type: "constant"
    }
  }
}
layer {
  name: "pool1"
  type: "Pooling"
  bottom: "conv1"
  top: "pool1"
  pooling_param {
    pool: MAX
    kernel_size: 2
    stride: 2
  }
}
layer {
  name: "ip1"
  type: "InnerProduct"
  bottom: "pool1"
  top: "ip1"
  param {
    lr_mult: 1
  }
  param {
    lr_mult: 2
  }
  inner_product_param {
    num_output: 50
    weight_filler {
      type: "xavier"
    }
    bias_filler {
      type: "constant"
    }
  }
}
layer {
  name: "relu1"
  type: "ReLU"
  bottom: "ip1"
  top: "ip1"
}
layer {
  name: "ip2"
  type: "InnerProduct"
  bottom: "ip1"
  top: "ip2"
  param {
    lr_mult: 1
  }
  param {
    lr_mult: 2
  }
  inner_product_param {
    num_output: 50
    weight_filler {
      type: "xavier"
    }
    bias_filler {
      type: "constant"
    }
  }
}
layer {
  name: "relu2"
  type: "ReLU"
  bottom: "ip2"
  top: "ip2"
}
layer {
  name: "ip3"
  type: "InnerProduct"
  bottom: "ip2"
  top: "ip3"
  param {
    lr_mult: 1
  }
  param {
    lr_mult: 2
  }
  inner_product_param {
    num_output: 10
    weight_filler {
      type: "xavier"
    }
    bias_filler {
      type: "constant"
    }
  }
}
layer {
  name: "relu3"
  type: "ReLU"
  bottom: "ip3"
  top: "ip3"
}
layer {
  name: "loss"
  type: "SoftmaxWithLoss"
  bottom: "ip3"
  bottom: "label"
  top: "loss"
}
I0428 19:40:57.785795 24702 layer_factory.hpp:77] Creating layer mnist
I0428 19:40:57.785926 24702 db_lmdb.cpp:35] Opened lmdb examples/mnist/mnist_train_lmdb
I0428 19:40:57.785959 24702 net.cpp:86] Creating Layer mnist
I0428 19:40:57.785970 24702 net.cpp:382] mnist -> data
I0428 19:40:57.786005 24702 net.cpp:382] mnist -> label
I0428 19:40:57.787272 24702 data_layer.cpp:45] output data size: 64,1,28,28
I0428 19:40:57.789752 24702 net.cpp:124] Setting up mnist
I0428 19:40:57.789772 24702 net.cpp:131] Top shape: 64 1 28 28 (50176)
I0428 19:40:57.789783 24702 net.cpp:131] Top shape: 64 (64)
I0428 19:40:57.789788 24702 net.cpp:139] Memory required for data: 200960
I0428 19:40:57.789798 24702 layer_factory.hpp:77] Creating layer conv0
I0428 19:40:57.789824 24702 net.cpp:86] Creating Layer conv0
I0428 19:40:57.789849 24702 net.cpp:408] conv0 <- data
I0428 19:40:57.789868 24702 net.cpp:382] conv0 -> conv0
I0428 19:40:58.080648 24702 net.cpp:124] Setting up conv0
I0428 19:40:58.080680 24702 net.cpp:131] Top shape: 64 2 24 24 (73728)
I0428 19:40:58.080687 24702 net.cpp:139] Memory required for data: 495872
I0428 19:40:58.080709 24702 layer_factory.hpp:77] Creating layer pool0
I0428 19:40:58.080729 24702 net.cpp:86] Creating Layer pool0
I0428 19:40:58.080735 24702 net.cpp:408] pool0 <- conv0
I0428 19:40:58.080745 24702 net.cpp:382] pool0 -> pool0
I0428 19:40:58.080819 24702 net.cpp:124] Setting up pool0
I0428 19:40:58.080829 24702 net.cpp:131] Top shape: 64 2 12 12 (18432)
I0428 19:40:58.080835 24702 net.cpp:139] Memory required for data: 569600
I0428 19:40:58.080842 24702 layer_factory.hpp:77] Creating layer conv1
I0428 19:40:58.080859 24702 net.cpp:86] Creating Layer conv1
I0428 19:40:58.080868 24702 net.cpp:408] conv1 <- pool0
I0428 19:40:58.080878 24702 net.cpp:382] conv1 -> conv1
I0428 19:40:58.082866 24702 net.cpp:124] Setting up conv1
I0428 19:40:58.082885 24702 net.cpp:131] Top shape: 64 5 8 8 (20480)
I0428 19:40:58.082891 24702 net.cpp:139] Memory required for data: 651520
I0428 19:40:58.082906 24702 layer_factory.hpp:77] Creating layer pool1
I0428 19:40:58.082918 24702 net.cpp:86] Creating Layer pool1
I0428 19:40:58.082926 24702 net.cpp:408] pool1 <- conv1
I0428 19:40:58.082936 24702 net.cpp:382] pool1 -> pool1
I0428 19:40:58.082984 24702 net.cpp:124] Setting up pool1
I0428 19:40:58.082994 24702 net.cpp:131] Top shape: 64 5 4 4 (5120)
I0428 19:40:58.083000 24702 net.cpp:139] Memory required for data: 672000
I0428 19:40:58.083006 24702 layer_factory.hpp:77] Creating layer ip1
I0428 19:40:58.083019 24702 net.cpp:86] Creating Layer ip1
I0428 19:40:58.083024 24702 net.cpp:408] ip1 <- pool1
I0428 19:40:58.083034 24702 net.cpp:382] ip1 -> ip1
I0428 19:40:58.084065 24702 net.cpp:124] Setting up ip1
I0428 19:40:58.084081 24702 net.cpp:131] Top shape: 64 50 (3200)
I0428 19:40:58.084087 24702 net.cpp:139] Memory required for data: 684800
I0428 19:40:58.084101 24702 layer_factory.hpp:77] Creating layer relu1
I0428 19:40:58.084111 24702 net.cpp:86] Creating Layer relu1
I0428 19:40:58.084118 24702 net.cpp:408] relu1 <- ip1
I0428 19:40:58.084127 24702 net.cpp:369] relu1 -> ip1 (in-place)
I0428 19:40:58.084321 24702 net.cpp:124] Setting up relu1
I0428 19:40:58.084333 24702 net.cpp:131] Top shape: 64 50 (3200)
I0428 19:40:58.084339 24702 net.cpp:139] Memory required for data: 697600
I0428 19:40:58.084345 24702 layer_factory.hpp:77] Creating layer ip2
I0428 19:40:58.084357 24702 net.cpp:86] Creating Layer ip2
I0428 19:40:58.084362 24702 net.cpp:408] ip2 <- ip1
I0428 19:40:58.084372 24702 net.cpp:382] ip2 -> ip2
I0428 19:40:58.084502 24702 net.cpp:124] Setting up ip2
I0428 19:40:58.084512 24702 net.cpp:131] Top shape: 64 50 (3200)
I0428 19:40:58.084518 24702 net.cpp:139] Memory required for data: 710400
I0428 19:40:58.084528 24702 layer_factory.hpp:77] Creating layer relu2
I0428 19:40:58.084539 24702 net.cpp:86] Creating Layer relu2
I0428 19:40:58.084550 24702 net.cpp:408] relu2 <- ip2
I0428 19:40:58.084558 24702 net.cpp:369] relu2 -> ip2 (in-place)
I0428 19:40:58.085366 24702 net.cpp:124] Setting up relu2
I0428 19:40:58.085381 24702 net.cpp:131] Top shape: 64 50 (3200)
I0428 19:40:58.085388 24702 net.cpp:139] Memory required for data: 723200
I0428 19:40:58.085394 24702 layer_factory.hpp:77] Creating layer ip3
I0428 19:40:58.085405 24702 net.cpp:86] Creating Layer ip3
I0428 19:40:58.085412 24702 net.cpp:408] ip3 <- ip2
I0428 19:40:58.085422 24702 net.cpp:382] ip3 -> ip3
I0428 19:40:58.085546 24702 net.cpp:124] Setting up ip3
I0428 19:40:58.085557 24702 net.cpp:131] Top shape: 64 10 (640)
I0428 19:40:58.085563 24702 net.cpp:139] Memory required for data: 725760
I0428 19:40:58.085577 24702 layer_factory.hpp:77] Creating layer relu3
I0428 19:40:58.085592 24702 net.cpp:86] Creating Layer relu3
I0428 19:40:58.085599 24702 net.cpp:408] relu3 <- ip3
I0428 19:40:58.085608 24702 net.cpp:369] relu3 -> ip3 (in-place)
I0428 19:40:58.085798 24702 net.cpp:124] Setting up relu3
I0428 19:40:58.085808 24702 net.cpp:131] Top shape: 64 10 (640)
I0428 19:40:58.085813 24702 net.cpp:139] Memory required for data: 728320
I0428 19:40:58.085819 24702 layer_factory.hpp:77] Creating layer loss
I0428 19:40:58.085829 24702 net.cpp:86] Creating Layer loss
I0428 19:40:58.085835 24702 net.cpp:408] loss <- ip3
I0428 19:40:58.085842 24702 net.cpp:408] loss <- label
I0428 19:40:58.085852 24702 net.cpp:382] loss -> loss
I0428 19:40:58.085878 24702 layer_factory.hpp:77] Creating layer loss
…
I0428 19:40:58.086627 24702 solver.cpp:173] Creating test net (#0) specified by net file: ECE595/mnist/train_test/var_everything2/lenet_train_test350.prototxt
I0428 19:40:58.086664 24702 net.cpp:296] The NetState phase (1) differed from the phase (0) specified by a rule in layer mnist
I0428 19:40:58.086791 24702 net.cpp:53] Initializing net from parameters: 
name: "LeNet"
state {
  phase: TEST
}
layer {
  name: "mnist"
  type: "Data"
  top: "data"
  top: "label"
  include {
    phase: TEST
  }
  transform_param {
    scale: 0.00390625
  }
  data_param {
    source: "examples/mnist/mnist_test_lmdb"
    batch_size: 100
    backend: LMDB
  }
}
layer {
  name: "conv0"
  type: "Convolution"
  bottom: "data"
  top: "conv0"
  param {
    lr_mult: 1
  }
  param {
    lr_mult: 2
  }
  convolution_param {
    num_output: 2
    kernel_size: 5
    stride: 1
    weight_filler {
      type: "xavier"
    }
    bias_filler {
      type: "constant"
    }
  }
}
layer {
  name: "pool0"
  type: "Pooling"
  bottom: "conv0"
  top: "pool0"
  pooling_param {
    pool: MAX
    kernel_size: 2
    stride: 2
  }
}
layer {
  name: "conv1"
  type: "Convolution"
  bottom: "pool0"
  top: "conv1"
  param {
    lr_mult: 1
  }
  param {
    lr_mult: 2
  }
  convolution_param {
    num_output: 5
    kernel_size: 5
    stride: 1
    weight_filler {
      type: "xavier"
    }
    bias_filler {
      type: "constant"
    }
  }
}
layer {
  name: "pool1"
  type: "Pooling"
  bottom: "conv1"
  top: "pool1"
  pooling_param {
    pool: MAX
    kernel_size: 2
    stride: 2
  }
}
layer {
  name: "ip1"
  type: "InnerProduct"
  bottom: "pool1"
  top: "ip1"
  param {
    lr_mult: 1
  }
  param {
    lr_mult: 2
  }
  inner_product_param {
    num_output: 50
    weight_filler {
      type: "xavier"
    }
    bias_filler {
      type: "constant"
    }
  }
}
layer {
  name: "relu1"
  type: "ReLU"
  bottom: "ip1"
  top: "ip1"
}
layer {
  name: "ip2"
  type: "InnerProduct"
  bottom: "ip1"
  top: "ip2"
  param {
    lr_mult: 1
  }
  param {
    lr_mult: 2
  }
  inner_product_param {
    num_output: 50
    weight_filler {
      type: "xavier"
    }
    bias_filler {
      type: "constant"
    }
  }
}
layer {
  name: "relu2"
  type: "ReLU"
  bottom: "ip2"
  top: "ip2"
}
layer {
  name: "ip3"
  type: "InnerProduct"
  bottom: "ip2"
  top: "ip3"
  param {
    lr_mult: 1
  }
  param {
    lr_mult: 2
  }
  inner_product_param {
    num_output: 10
    weight_filler {
      type: "xavier"
    }
    bias_filler {
      type: "constant"
    }
  }
}
layer {
  name: "relu3"
  type: "ReLU"
  bottom: "ip3"
  top: "ip3"
}
layer {
  name: "accuracy"
  type: "Accuracy"
  bottom: "ip3"
  bottom: "label"
  top: "accuracy"
  include {
    phase: TEST
  }
}
layer {
  name: "loss"
  type: "SoftmaxWithLoss"
  bottom: "ip3"
  bottom: "label"
  top: "loss"
}
I0428 19:40:58.086916 24702 layer_factory.hpp:77] Creating layer mnist
I0428 19:40:58.086984 24702 db_lmdb.cpp:35] Opened lmdb examples/mnist/mnist_test_lmdb
I0428 19:40:58.087003 24702 net.cpp:86] Creating Layer mnist
I0428 19:40:58.087011 24702 net.cpp:382] mnist -> data
I0428 19:40:58.087024 24702 net.cpp:382] mnist -> label
I0428 19:40:58.087154 24702 data_layer.cpp:45] output data size: 100,1,28,28
I0428 19:40:58.089563 24702 net.cpp:124] Setting up mnist
I0428 19:40:58.089581 24702 net.cpp:131] Top shape: 100 1 28 28 (78400)
I0428 19:40:58.089589 24702 net.cpp:131] Top shape: 100 (100)
I0428 19:40:58.089596 24702 net.cpp:139] Memory required for data: 314000
I0428 19:40:58.089601 24702 layer_factory.hpp:77] Creating layer label_mnist_1_split
I0428 19:40:58.089617 24702 net.cpp:86] Creating Layer label_mnist_1_split
I0428 19:40:58.089624 24702 net.cpp:408] label_mnist_1_split <- label
I0428 19:40:58.089632 24702 net.cpp:382] label_mnist_1_split -> label_mnist_1_split_0
I0428 19:40:58.089644 24702 net.cpp:382] label_mnist_1_split -> label_mnist_1_split_1
I0428 19:40:58.089728 24702 net.cpp:124] Setting up label_mnist_1_split
I0428 19:40:58.089738 24702 net.cpp:131] Top shape: 100 (100)
I0428 19:40:58.089745 24702 net.cpp:131] Top shape: 100 (100)
I0428 19:40:58.089751 24702 net.cpp:139] Memory required for data: 314800
I0428 19:40:58.089756 24702 layer_factory.hpp:77] Creating layer conv0
I0428 19:40:58.089771 24702 net.cpp:86] Creating Layer conv0
I0428 19:40:58.089777 24702 net.cpp:408] conv0 <- data
I0428 19:40:58.089787 24702 net.cpp:382] conv0 -> conv0
I0428 19:40:58.091323 24702 net.cpp:124] Setting up conv0
I0428 19:40:58.091339 24702 net.cpp:131] Top shape: 100 2 24 24 (115200)
I0428 19:40:58.091346 24702 net.cpp:139] Memory required for data: 775600
I0428 19:40:58.091361 24702 layer_factory.hpp:77] Creating layer pool0
I0428 19:40:58.091373 24702 net.cpp:86] Creating Layer pool0
I0428 19:40:58.091380 24702 net.cpp:408] pool0 <- conv0
I0428 19:40:58.091389 24702 net.cpp:382] pool0 -> pool0
I0428 19:40:58.091437 24702 net.cpp:124] Setting up pool0
I0428 19:40:58.091446 24702 net.cpp:131] Top shape: 100 2 12 12 (28800)
I0428 19:40:58.091451 24702 net.cpp:139] Memory required for data: 890800
I0428 19:40:58.091456 24702 layer_factory.hpp:77] Creating layer conv1
I0428 19:40:58.091472 24702 net.cpp:86] Creating Layer conv1
I0428 19:40:58.091480 24702 net.cpp:408] conv1 <- pool0
I0428 19:40:58.091490 24702 net.cpp:382] conv1 -> conv1
I0428 19:40:58.093010 24702 net.cpp:124] Setting up conv1
I0428 19:40:58.093026 24702 net.cpp:131] Top shape: 100 5 8 8 (32000)
I0428 19:40:58.093034 24702 net.cpp:139] Memory required for data: 1018800
I0428 19:40:58.093049 24702 layer_factory.hpp:77] Creating layer pool1
I0428 19:40:58.093058 24702 net.cpp:86] Creating Layer pool1
I0428 19:40:58.093066 24702 net.cpp:408] pool1 <- conv1
I0428 19:40:58.093075 24702 net.cpp:382] pool1 -> pool1
I0428 19:40:58.093132 24702 net.cpp:124] Setting up pool1
I0428 19:40:58.093143 24702 net.cpp:131] Top shape: 100 5 4 4 (8000)
I0428 19:40:58.093164 24702 net.cpp:139] Memory required for data: 1050800
I0428 19:40:58.093170 24702 layer_factory.hpp:77] Creating layer ip1
I0428 19:40:58.093186 24702 net.cpp:86] Creating Layer ip1
I0428 19:40:58.093194 24702 net.cpp:408] ip1 <- pool1
I0428 19:40:58.093204 24702 net.cpp:382] ip1 -> ip1
I0428 19:40:58.093354 24702 net.cpp:124] Setting up ip1
I0428 19:40:58.093364 24702 net.cpp:131] Top shape: 100 50 (5000)
I0428 19:40:58.093381 24702 net.cpp:139] Memory required for data: 1070800
I0428 19:40:58.093395 24702 layer_factory.hpp:77] Creating layer relu1
I0428 19:40:58.093408 24702 net.cpp:86] Creating Layer relu1
I0428 19:40:58.093415 24702 net.cpp:408] relu1 <- ip1
I0428 19:40:58.093423 24702 net.cpp:369] relu1 -> ip1 (in-place)
I0428 19:40:58.093608 24702 net.cpp:124] Setting up relu1
I0428 19:40:58.093626 24702 net.cpp:131] Top shape: 100 50 (5000)
I0428 19:40:58.093638 24702 net.cpp:139] Memory required for data: 1090800
I0428 19:40:58.093644 24702 layer_factory.hpp:77] Creating layer ip2
I0428 19:40:58.093658 24702 net.cpp:86] Creating Layer ip2
I0428 19:40:58.093665 24702 net.cpp:408] ip2 <- ip1
I0428 19:40:58.093679 24702 net.cpp:382] ip2 -> ip2
I0428 19:40:58.093813 24702 net.cpp:124] Setting up ip2
I0428 19:40:58.093823 24702 net.cpp:131] Top shape: 100 50 (5000)
I0428 19:40:58.093828 24702 net.cpp:139] Memory required for data: 1110800
I0428 19:40:58.093838 24702 layer_factory.hpp:77] Creating layer relu2
I0428 19:40:58.093848 24702 net.cpp:86] Creating Layer relu2
I0428 19:40:58.093854 24702 net.cpp:408] relu2 <- ip2
I0428 19:40:58.093861 24702 net.cpp:369] relu2 -> ip2 (in-place)
I0428 19:40:58.094038 24702 net.cpp:124] Setting up relu2
I0428 19:40:58.094048 24702 net.cpp:131] Top shape: 100 50 (5000)
I0428 19:40:58.094053 24702 net.cpp:139] Memory required for data: 1130800
I0428 19:40:58.094059 24702 layer_factory.hpp:77] Creating layer ip3
I0428 19:40:58.094070 24702 net.cpp:86] Creating Layer ip3
I0428 19:40:58.094076 24702 net.cpp:408] ip3 <- ip2
I0428 19:40:58.094086 24702 net.cpp:382] ip3 -> ip3
I0428 19:40:58.094208 24702 net.cpp:124] Setting up ip3
I0428 19:40:58.094218 24702 net.cpp:131] Top shape: 100 10 (1000)
I0428 19:40:58.094223 24702 net.cpp:139] Memory required for data: 1134800
I0428 19:40:58.094244 24702 layer_factory.hpp:77] Creating layer relu3
I0428 19:40:58.094252 24702 net.cpp:86] Creating Layer relu3
I0428 19:40:58.094265 24702 net.cpp:408] relu3 <- ip3
I0428 19:40:58.094272 24702 net.cpp:369] relu3 -> ip3 (in-place)
I0428 19:40:58.095113 24702 net.cpp:124] Setting up relu3
I0428 19:40:58.095127 24702 net.cpp:131] Top shape: 100 10 (1000)
I0428 19:40:58.095134 24702 net.cpp:139] Memory required for data: 1138800
I0428 19:40:58.095139 24702 layer_factory.hpp:77] Creating layer ip3_relu3_0_split
I0428 19:40:58.095147 24702 net.cpp:86] Creating Layer ip3_relu3_0_split
I0428 19:40:58.095155 24702 net.cpp:408] ip3_relu3_0_split <- ip3
I0428 19:40:58.095165 24702 net.cpp:382] ip3_relu3_0_split -> ip3_relu3_0_split_0
I0428 19:40:58.095176 24702 net.cpp:382] ip3_relu3_0_split -> ip3_relu3_0_split_1
I0428 19:40:58.095242 24702 net.cpp:124] Setting up ip3_relu3_0_split
I0428 19:40:58.095252 24702 net.cpp:131] Top shape: 100 10 (1000)
I0428 19:40:58.095259 24702 net.cpp:131] Top shape: 100 10 (1000)
I0428 19:40:58.095271 24702 net.cpp:139] Memory required for data: 1146800
I0428 19:40:58.095278 24702 layer_factory.hpp:77] Creating layer accuracy
I0428 19:40:58.095286 24702 net.cpp:86] Creating Layer accuracy
I0428 19:40:58.095293 24702 net.cpp:408] accuracy <- ip3_relu3_0_split_0
I0428 19:40:58.095300 24702 net.cpp:408] accuracy <- label_mnist_1_split_0
I0428 19:40:58.095309 24702 net.cpp:382] accuracy -> accuracy
…
