…
I0428 19:27:50.763029 21462 net.cpp:296] The NetState phase (0) differed from the phase (1) specified by a rule in layer mnist
I0428 19:27:50.763043 21462 net.cpp:296] The NetState phase (0) differed from the phase (1) specified by a rule in layer accuracy
I0428 19:27:50.763108 21462 net.cpp:53] Initializing net from parameters: 
name: "LeNet"
state {
  phase: TRAIN
  level: 0
  stage: ""
}
layer {
  name: "mnist"
  type: "Data"
  top: "data"
  top: "label"
  include {
    phase: TRAIN
  }
  transform_param {
    scale: 0.00390625
  }
  data_param {
    source: "examples/mnist/mnist_train_lmdb"
    batch_size: 64
    backend: LMDB
  }
}
layer {
  name: "ip1"
  type: "InnerProduct"
  bottom: "data"
  top: "ip1"
  param {
    lr_mult: 1
  }
  param {
    lr_mult: 2
  }
  inner_product_param {
    num_output: 10
    weight_filler {
      type: "xavier"
    }
    bias_filler {
      type: "constant"
    }
  }
}
layer {
  name: "relu1"
  type: "ReLU"
  bottom: "ip1"
  top: "ip1"
}
layer {
  name: "ip2"
  type: "InnerProduct"
  bottom: "ip1"
  top: "ip2"
  param {
    lr_mult: 1
  }
  param {
    lr_mult: 2
  }
  inner_product_param {
    num_output: 10
    weight_filler {
      type: "xavier"
    }
    bias_filler {
      type: "constant"
    }
  }
}
layer {
  name: "relu2"
  type: "ReLU"
  bottom: "ip2"
  top: "ip2"
}
layer {
  name: "loss"
  type: "SoftmaxWithLoss"
  bottom: "ip2"
  bottom: "label"
  top: "loss"
}
I0428 19:27:50.763175 21462 layer_factory.hpp:77] Creating layer mnist
I0428 19:27:50.763276 21462 db_lmdb.cpp:35] Opened lmdb examples/mnist/mnist_train_lmdb
I0428 19:27:50.763300 21462 net.cpp:86] Creating Layer mnist
I0428 19:27:50.763308 21462 net.cpp:382] mnist -> data
I0428 19:27:50.763330 21462 net.cpp:382] mnist -> label
I0428 19:27:50.764423 21462 data_layer.cpp:45] output data size: 64,1,28,28
I0428 19:27:50.766885 21462 net.cpp:124] Setting up mnist
I0428 19:27:50.766903 21462 net.cpp:131] Top shape: 64 1 28 28 (50176)
I0428 19:27:50.766911 21462 net.cpp:131] Top shape: 64 (64)
I0428 19:27:50.766913 21462 net.cpp:139] Memory required for data: 200960
I0428 19:27:50.766921 21462 layer_factory.hpp:77] Creating layer ip1
I0428 19:27:50.766932 21462 net.cpp:86] Creating Layer ip1
I0428 19:27:50.766937 21462 net.cpp:408] ip1 <- data
I0428 19:27:50.766950 21462 net.cpp:382] ip1 -> ip1
I0428 19:27:50.768179 21462 net.cpp:124] Setting up ip1
I0428 19:27:50.768194 21462 net.cpp:131] Top shape: 64 10 (640)
I0428 19:27:50.768198 21462 net.cpp:139] Memory required for data: 203520
I0428 19:27:50.768214 21462 layer_factory.hpp:77] Creating layer relu1
I0428 19:27:50.768224 21462 net.cpp:86] Creating Layer relu1
I0428 19:27:50.768227 21462 net.cpp:408] relu1 <- ip1
I0428 19:27:50.768234 21462 net.cpp:369] relu1 -> ip1 (in-place)
I0428 19:27:51.054389 21462 net.cpp:124] Setting up relu1
I0428 19:27:51.054419 21462 net.cpp:131] Top shape: 64 10 (640)
I0428 19:27:51.054422 21462 net.cpp:139] Memory required for data: 206080
I0428 19:27:51.054427 21462 layer_factory.hpp:77] Creating layer ip2
I0428 19:27:51.054440 21462 net.cpp:86] Creating Layer ip2
I0428 19:27:51.054445 21462 net.cpp:408] ip2 <- ip1
I0428 19:27:51.054453 21462 net.cpp:382] ip2 -> ip2
I0428 19:27:51.054575 21462 net.cpp:124] Setting up ip2
I0428 19:27:51.054584 21462 net.cpp:131] Top shape: 64 10 (640)
I0428 19:27:51.054587 21462 net.cpp:139] Memory required for data: 208640
I0428 19:27:51.054597 21462 layer_factory.hpp:77] Creating layer relu2
I0428 19:27:51.054621 21462 net.cpp:86] Creating Layer relu2
I0428 19:27:51.054625 21462 net.cpp:408] relu2 <- ip2
I0428 19:27:51.054630 21462 net.cpp:369] relu2 -> ip2 (in-place)
I0428 19:27:51.055433 21462 net.cpp:124] Setting up relu2
I0428 19:27:51.055447 21462 net.cpp:131] Top shape: 64 10 (640)
I0428 19:27:51.055451 21462 net.cpp:139] Memory required for data: 211200
I0428 19:27:51.055454 21462 layer_factory.hpp:77] Creating layer loss
I0428 19:27:51.055461 21462 net.cpp:86] Creating Layer loss
I0428 19:27:51.055465 21462 net.cpp:408] loss <- ip2
I0428 19:27:51.055469 21462 net.cpp:408] loss <- label
I0428 19:27:51.055475 21462 net.cpp:382] loss -> loss
I0428 19:27:51.055497 21462 layer_factory.hpp:77] Creating layer loss
…
I0428 19:27:51.056897 21462 solver.cpp:173] Creating test net (#0) specified by net file: ECE595/mnist/train_test/var_everything2/lenet_train_test5.prototxt
I0428 19:27:51.056921 21462 net.cpp:296] The NetState phase (1) differed from the phase (0) specified by a rule in layer mnist
I0428 19:27:51.056988 21462 net.cpp:53] Initializing net from parameters: 
name: "LeNet"
state {
  phase: TEST
}
layer {
  name: "mnist"
  type: "Data"
  top: "data"
  top: "label"
  include {
    phase: TEST
  }
  transform_param {
    scale: 0.00390625
  }
  data_param {
    source: "examples/mnist/mnist_test_lmdb"
    batch_size: 100
    backend: LMDB
  }
}
layer {
  name: "ip1"
  type: "InnerProduct"
  bottom: "data"
  top: "ip1"
  param {
    lr_mult: 1
  }
  param {
    lr_mult: 2
  }
  inner_product_param {
    num_output: 10
    weight_filler {
      type: "xavier"
    }
    bias_filler {
      type: "constant"
    }
  }
}
layer {
  name: "relu1"
  type: "ReLU"
  bottom: "ip1"
  top: "ip1"
}
layer {
  name: "ip2"
  type: "InnerProduct"
  bottom: "ip1"
  top: "ip2"
  param {
    lr_mult: 1
  }
  param {
    lr_mult: 2
  }
  inner_product_param {
    num_output: 10
    weight_filler {
      type: "xavier"
    }
    bias_filler {
      type: "constant"
    }
  }
}
layer {
  name: "relu2"
  type: "ReLU"
  bottom: "ip2"
  top: "ip2"
}
layer {
  name: "accuracy"
  type: "Accuracy"
  bottom: "ip2"
  bottom: "label"
  top: "accuracy"
  include {
    phase: TEST
  }
}
layer {
  name: "loss"
  type: "SoftmaxWithLoss"
  bottom: "ip2"
  bottom: "label"
  top: "loss"
}
I0428 19:27:51.057042 21462 layer_factory.hpp:77] Creating layer mnist
I0428 19:27:51.057088 21462 db_lmdb.cpp:35] Opened lmdb examples/mnist/mnist_test_lmdb
I0428 19:27:51.057101 21462 net.cpp:86] Creating Layer mnist
I0428 19:27:51.057106 21462 net.cpp:382] mnist -> data
I0428 19:27:51.057113 21462 net.cpp:382] mnist -> label
I0428 19:27:51.057204 21462 data_layer.cpp:45] output data size: 100,1,28,28
I0428 19:27:51.059360 21462 net.cpp:124] Setting up mnist
I0428 19:27:51.059373 21462 net.cpp:131] Top shape: 100 1 28 28 (78400)
I0428 19:27:51.059396 21462 net.cpp:131] Top shape: 100 (100)
I0428 19:27:51.059398 21462 net.cpp:139] Memory required for data: 314000
I0428 19:27:51.059404 21462 layer_factory.hpp:77] Creating layer label_mnist_1_split
I0428 19:27:51.059415 21462 net.cpp:86] Creating Layer label_mnist_1_split
I0428 19:27:51.059419 21462 net.cpp:408] label_mnist_1_split <- label
I0428 19:27:51.059445 21462 net.cpp:382] label_mnist_1_split -> label_mnist_1_split_0
I0428 19:27:51.059470 21462 net.cpp:382] label_mnist_1_split -> label_mnist_1_split_1
I0428 19:27:51.059566 21462 net.cpp:124] Setting up label_mnist_1_split
I0428 19:27:51.059576 21462 net.cpp:131] Top shape: 100 (100)
I0428 19:27:51.059579 21462 net.cpp:131] Top shape: 100 (100)
I0428 19:27:51.059582 21462 net.cpp:139] Memory required for data: 314800
I0428 19:27:51.059587 21462 layer_factory.hpp:77] Creating layer ip1
I0428 19:27:51.059593 21462 net.cpp:86] Creating Layer ip1
I0428 19:27:51.059597 21462 net.cpp:408] ip1 <- data
I0428 19:27:51.059602 21462 net.cpp:382] ip1 -> ip1
I0428 19:27:51.059785 21462 net.cpp:124] Setting up ip1
I0428 19:27:51.059793 21462 net.cpp:131] Top shape: 100 10 (1000)
I0428 19:27:51.059798 21462 net.cpp:139] Memory required for data: 318800
I0428 19:27:51.059806 21462 layer_factory.hpp:77] Creating layer relu1
I0428 19:27:51.059811 21462 net.cpp:86] Creating Layer relu1
I0428 19:27:51.059816 21462 net.cpp:408] relu1 <- ip1
I0428 19:27:51.059821 21462 net.cpp:369] relu1 -> ip1 (in-place)
I0428 19:27:51.060008 21462 net.cpp:124] Setting up relu1
I0428 19:27:51.060017 21462 net.cpp:131] Top shape: 100 10 (1000)
I0428 19:27:51.060020 21462 net.cpp:139] Memory required for data: 322800
I0428 19:27:51.060024 21462 layer_factory.hpp:77] Creating layer ip2
I0428 19:27:51.060032 21462 net.cpp:86] Creating Layer ip2
I0428 19:27:51.060035 21462 net.cpp:408] ip2 <- ip1
I0428 19:27:51.060040 21462 net.cpp:382] ip2 -> ip2
I0428 19:27:51.060143 21462 net.cpp:124] Setting up ip2
I0428 19:27:51.060150 21462 net.cpp:131] Top shape: 100 10 (1000)
I0428 19:27:51.060153 21462 net.cpp:139] Memory required for data: 326800
I0428 19:27:51.060161 21462 layer_factory.hpp:77] Creating layer relu2
I0428 19:27:51.060166 21462 net.cpp:86] Creating Layer relu2
I0428 19:27:51.060169 21462 net.cpp:408] relu2 <- ip2
I0428 19:27:51.060173 21462 net.cpp:369] relu2 -> ip2 (in-place)
I0428 19:27:51.060997 21462 net.cpp:124] Setting up relu2
I0428 19:27:51.061012 21462 net.cpp:131] Top shape: 100 10 (1000)
I0428 19:27:51.061014 21462 net.cpp:139] Memory required for data: 330800
I0428 19:27:51.061018 21462 layer_factory.hpp:77] Creating layer ip2_relu2_0_split
I0428 19:27:51.061023 21462 net.cpp:86] Creating Layer ip2_relu2_0_split
I0428 19:27:51.061028 21462 net.cpp:408] ip2_relu2_0_split <- ip2
I0428 19:27:51.061033 21462 net.cpp:382] ip2_relu2_0_split -> ip2_relu2_0_split_0
I0428 19:27:51.061043 21462 net.cpp:382] ip2_relu2_0_split -> ip2_relu2_0_split_1
I0428 19:27:51.061084 21462 net.cpp:124] Setting up ip2_relu2_0_split
I0428 19:27:51.061090 21462 net.cpp:131] Top shape: 100 10 (1000)
I0428 19:27:51.061094 21462 net.cpp:131] Top shape: 100 10 (1000)
I0428 19:27:51.061097 21462 net.cpp:139] Memory required for data: 338800
I0428 19:27:51.061100 21462 layer_factory.hpp:77] Creating layer accuracy
I0428 19:27:51.061105 21462 net.cpp:86] Creating Layer accuracy
I0428 19:27:51.061108 21462 net.cpp:408] accuracy <- ip2_relu2_0_split_0
I0428 19:27:51.061113 21462 net.cpp:408] accuracy <- label_mnist_1_split_0
I0428 19:27:51.061117 21462 net.cpp:382] accuracy -> accuracy
…
