…
I0428 19:37:45.666136 23905 net.cpp:296] The NetState phase (0) differed from the phase (1) specified by a rule in layer mnist
I0428 19:37:45.666152 23905 net.cpp:296] The NetState phase (0) differed from the phase (1) specified by a rule in layer accuracy
I0428 19:37:45.666240 23905 net.cpp:53] Initializing net from parameters: 
name: "LeNet"
state {
  phase: TRAIN
  level: 0
  stage: ""
}
layer {
  name: "mnist"
  type: "Data"
  top: "data"
  top: "label"
  include {
    phase: TRAIN
  }
  transform_param {
    scale: 0.00390625
  }
  data_param {
    source: "examples/mnist/mnist_train_lmdb"
    batch_size: 64
    backend: LMDB
  }
}
layer {
  name: "conv0"
  type: "Convolution"
  bottom: "data"
  top: "conv0"
  param {
    lr_mult: 1
  }
  param {
    lr_mult: 2
  }
  convolution_param {
    num_output: 100
    kernel_size: 5
    stride: 1
    weight_filler {
      type: "xavier"
    }
    bias_filler {
      type: "constant"
    }
  }
}
layer {
  name: "pool0"
  type: "Pooling"
  bottom: "conv0"
  top: "pool0"
  pooling_param {
    pool: MAX
    kernel_size: 2
    stride: 2
  }
}
layer {
  name: "ip1"
  type: "InnerProduct"
  bottom: "pool0"
  top: "ip1"
  param {
    lr_mult: 1
  }
  param {
    lr_mult: 2
  }
  inner_product_param {
    num_output: 25
    weight_filler {
      type: "xavier"
    }
    bias_filler {
      type: "constant"
    }
  }
}
layer {
  name: "relu1"
  type: "ReLU"
  bottom: "ip1"
  top: "ip1"
}
layer {
  name: "ip2"
  type: "InnerProduct"
  bottom: "ip1"
  top: "ip2"
  param {
    lr_mult: 1
  }
  param {
    lr_mult: 2
  }
  inner_product_param {
    num_output: 50
    weight_filler {
      type: "xavier"
    }
    bias_filler {
      type: "constant"
    }
  }
}
layer {
  name: "relu2"
  type: "ReLU"
  bottom: "ip2"
  top: "ip2"
}
layer {
  name: "ip3"
  type: "InnerProduct"
  bottom: "ip2"
  top: "ip3"
  param {
    lr_mult: 1
  }
  param {
    lr_mult: 2
  }
  inner_product_param {
    num_output: 10
    weight_filler {
      type: "xavier"
    }
    bias_filler {
      type: "constant"
    }
  }
}
layer {
  name: "relu3"
  type: "ReLU"
  bottom: "ip3"
  top: "ip3"
}
layer {
  name: "loss"
  type: "SoftmaxWithLoss"
  bottom: "ip3"
  bottom: "label"
  top: "loss"
}
I0428 19:37:45.666316 23905 layer_factory.hpp:77] Creating layer mnist
I0428 19:37:45.666419 23905 db_lmdb.cpp:35] Opened lmdb examples/mnist/mnist_train_lmdb
I0428 19:37:45.666445 23905 net.cpp:86] Creating Layer mnist
I0428 19:37:45.666455 23905 net.cpp:382] mnist -> data
I0428 19:37:45.666481 23905 net.cpp:382] mnist -> label
I0428 19:37:45.667574 23905 data_layer.cpp:45] output data size: 64,1,28,28
I0428 19:37:45.670055 23905 net.cpp:124] Setting up mnist
I0428 19:37:45.670073 23905 net.cpp:131] Top shape: 64 1 28 28 (50176)
I0428 19:37:45.670080 23905 net.cpp:131] Top shape: 64 (64)
I0428 19:37:45.670087 23905 net.cpp:139] Memory required for data: 200960
I0428 19:37:45.670094 23905 layer_factory.hpp:77] Creating layer conv0
I0428 19:37:45.670109 23905 net.cpp:86] Creating Layer conv0
I0428 19:37:45.670114 23905 net.cpp:408] conv0 <- data
I0428 19:37:45.670127 23905 net.cpp:382] conv0 -> conv0
I0428 19:37:45.991777 23905 net.cpp:124] Setting up conv0
I0428 19:37:45.991809 23905 net.cpp:131] Top shape: 64 100 24 24 (3686400)
I0428 19:37:45.991814 23905 net.cpp:139] Memory required for data: 14946560
I0428 19:37:45.991833 23905 layer_factory.hpp:77] Creating layer pool0
I0428 19:37:45.991848 23905 net.cpp:86] Creating Layer pool0
I0428 19:37:45.991873 23905 net.cpp:408] pool0 <- conv0
I0428 19:37:45.991880 23905 net.cpp:382] pool0 -> pool0
I0428 19:37:45.991937 23905 net.cpp:124] Setting up pool0
I0428 19:37:45.991948 23905 net.cpp:131] Top shape: 64 100 12 12 (921600)
I0428 19:37:45.991951 23905 net.cpp:139] Memory required for data: 18632960
I0428 19:37:45.991955 23905 layer_factory.hpp:77] Creating layer ip1
I0428 19:37:45.991964 23905 net.cpp:86] Creating Layer ip1
I0428 19:37:45.991968 23905 net.cpp:408] ip1 <- pool0
I0428 19:37:45.991973 23905 net.cpp:382] ip1 -> ip1
I0428 19:37:45.995474 23905 net.cpp:124] Setting up ip1
I0428 19:37:45.995491 23905 net.cpp:131] Top shape: 64 25 (1600)
I0428 19:37:45.995494 23905 net.cpp:139] Memory required for data: 18639360
I0428 19:37:45.995504 23905 layer_factory.hpp:77] Creating layer relu1
I0428 19:37:45.995512 23905 net.cpp:86] Creating Layer relu1
I0428 19:37:45.995517 23905 net.cpp:408] relu1 <- ip1
I0428 19:37:45.995522 23905 net.cpp:369] relu1 -> ip1 (in-place)
I0428 19:37:45.995723 23905 net.cpp:124] Setting up relu1
I0428 19:37:45.995734 23905 net.cpp:131] Top shape: 64 25 (1600)
I0428 19:37:45.995738 23905 net.cpp:139] Memory required for data: 18645760
I0428 19:37:45.995743 23905 layer_factory.hpp:77] Creating layer ip2
I0428 19:37:45.995750 23905 net.cpp:86] Creating Layer ip2
I0428 19:37:45.995754 23905 net.cpp:408] ip2 <- ip1
I0428 19:37:45.995759 23905 net.cpp:382] ip2 -> ip2
I0428 19:37:45.995885 23905 net.cpp:124] Setting up ip2
I0428 19:37:45.995894 23905 net.cpp:131] Top shape: 64 50 (3200)
I0428 19:37:45.995898 23905 net.cpp:139] Memory required for data: 18658560
I0428 19:37:45.995906 23905 layer_factory.hpp:77] Creating layer relu2
I0428 19:37:45.995911 23905 net.cpp:86] Creating Layer relu2
I0428 19:37:45.995915 23905 net.cpp:408] relu2 <- ip2
I0428 19:37:45.995920 23905 net.cpp:369] relu2 -> ip2 (in-place)
I0428 19:37:45.996774 23905 net.cpp:124] Setting up relu2
I0428 19:37:45.996789 23905 net.cpp:131] Top shape: 64 50 (3200)
I0428 19:37:45.996793 23905 net.cpp:139] Memory required for data: 18671360
I0428 19:37:45.996798 23905 layer_factory.hpp:77] Creating layer ip3
I0428 19:37:45.996806 23905 net.cpp:86] Creating Layer ip3
I0428 19:37:45.996817 23905 net.cpp:408] ip3 <- ip2
I0428 19:37:45.996824 23905 net.cpp:382] ip3 -> ip3
I0428 19:37:45.996943 23905 net.cpp:124] Setting up ip3
I0428 19:37:45.996953 23905 net.cpp:131] Top shape: 64 10 (640)
I0428 19:37:45.996955 23905 net.cpp:139] Memory required for data: 18673920
I0428 19:37:45.996963 23905 layer_factory.hpp:77] Creating layer relu3
I0428 19:37:45.996969 23905 net.cpp:86] Creating Layer relu3
I0428 19:37:45.996973 23905 net.cpp:408] relu3 <- ip3
I0428 19:37:45.996978 23905 net.cpp:369] relu3 -> ip3 (in-place)
I0428 19:37:45.997151 23905 net.cpp:124] Setting up relu3
I0428 19:37:45.997160 23905 net.cpp:131] Top shape: 64 10 (640)
I0428 19:37:45.997164 23905 net.cpp:139] Memory required for data: 18676480
I0428 19:37:45.997169 23905 layer_factory.hpp:77] Creating layer loss
I0428 19:37:45.997174 23905 net.cpp:86] Creating Layer loss
I0428 19:37:45.997179 23905 net.cpp:408] loss <- ip3
I0428 19:37:45.997184 23905 net.cpp:408] loss <- label
I0428 19:37:45.997189 23905 net.cpp:382] loss -> loss
I0428 19:37:45.997206 23905 layer_factory.hpp:77] Creating layer loss
…
I0428 19:37:45.997906 23905 solver.cpp:173] Creating test net (#0) specified by net file: ECE595/mnist/train_test/var_everything2/lenet_train_test263.prototxt
I0428 19:37:45.997936 23905 net.cpp:296] The NetState phase (1) differed from the phase (0) specified by a rule in layer mnist
I0428 19:37:45.998031 23905 net.cpp:53] Initializing net from parameters: 
name: "LeNet"
state {
  phase: TEST
}
layer {
  name: "mnist"
  type: "Data"
  top: "data"
  top: "label"
  include {
    phase: TEST
  }
  transform_param {
    scale: 0.00390625
  }
  data_param {
    source: "examples/mnist/mnist_test_lmdb"
    batch_size: 100
    backend: LMDB
  }
}
layer {
  name: "conv0"
  type: "Convolution"
  bottom: "data"
  top: "conv0"
  param {
    lr_mult: 1
  }
  param {
    lr_mult: 2
  }
  convolution_param {
    num_output: 100
    kernel_size: 5
    stride: 1
    weight_filler {
      type: "xavier"
    }
    bias_filler {
      type: "constant"
    }
  }
}
layer {
  name: "pool0"
  type: "Pooling"
  bottom: "conv0"
  top: "pool0"
  pooling_param {
    pool: MAX
    kernel_size: 2
    stride: 2
  }
}
layer {
  name: "ip1"
  type: "InnerProduct"
  bottom: "pool0"
  top: "ip1"
  param {
    lr_mult: 1
  }
  param {
    lr_mult: 2
  }
  inner_product_param {
    num_output: 25
    weight_filler {
      type: "xavier"
    }
    bias_filler {
      type: "constant"
    }
  }
}
layer {
  name: "relu1"
  type: "ReLU"
  bottom: "ip1"
  top: "ip1"
}
layer {
  name: "ip2"
  type: "InnerProduct"
  bottom: "ip1"
  top: "ip2"
  param {
    lr_mult: 1
  }
  param {
    lr_mult: 2
  }
  inner_product_param {
    num_output: 50
    weight_filler {
      type: "xavier"
    }
    bias_filler {
      type: "constant"
    }
  }
}
layer {
  name: "relu2"
  type: "ReLU"
  bottom: "ip2"
  top: "ip2"
}
layer {
  name: "ip3"
  type: "InnerProduct"
  bottom: "ip2"
  top: "ip3"
  param {
    lr_mult: 1
  }
  param {
    lr_mult: 2
  }
  inner_product_param {
    num_output: 10
    weight_filler {
      type: "xavier"
    }
    bias_filler {
      type: "constant"
    }
  }
}
layer {
  name: "relu3"
  type: "ReLU"
  bottom: "ip3"
  top: "ip3"
}
layer {
  name: "accuracy"
  type: "Accuracy"
  bottom: "ip3"
  bottom: "label"
  top: "accuracy"
  include {
    phase: TEST
  }
}
layer {
  name: "loss"
  type: "SoftmaxWithLoss"
  bottom: "ip3"
  bottom: "label"
  top: "loss"
}
I0428 19:37:45.998106 23905 layer_factory.hpp:77] Creating layer mnist
I0428 19:37:45.998157 23905 db_lmdb.cpp:35] Opened lmdb examples/mnist/mnist_test_lmdb
I0428 19:37:45.998175 23905 net.cpp:86] Creating Layer mnist
I0428 19:37:45.998181 23905 net.cpp:382] mnist -> data
I0428 19:37:45.998190 23905 net.cpp:382] mnist -> label
I0428 19:37:45.998288 23905 data_layer.cpp:45] output data size: 100,1,28,28
I0428 19:37:46.000469 23905 net.cpp:124] Setting up mnist
I0428 19:37:46.000485 23905 net.cpp:131] Top shape: 100 1 28 28 (78400)
I0428 19:37:46.000491 23905 net.cpp:131] Top shape: 100 (100)
I0428 19:37:46.000504 23905 net.cpp:139] Memory required for data: 314000
I0428 19:37:46.000507 23905 layer_factory.hpp:77] Creating layer label_mnist_1_split
I0428 19:37:46.000515 23905 net.cpp:86] Creating Layer label_mnist_1_split
I0428 19:37:46.000519 23905 net.cpp:408] label_mnist_1_split <- label
I0428 19:37:46.000525 23905 net.cpp:382] label_mnist_1_split -> label_mnist_1_split_0
I0428 19:37:46.000532 23905 net.cpp:382] label_mnist_1_split -> label_mnist_1_split_1
I0428 19:37:46.000589 23905 net.cpp:124] Setting up label_mnist_1_split
I0428 19:37:46.000596 23905 net.cpp:131] Top shape: 100 (100)
I0428 19:37:46.000599 23905 net.cpp:131] Top shape: 100 (100)
I0428 19:37:46.000603 23905 net.cpp:139] Memory required for data: 314800
I0428 19:37:46.000618 23905 layer_factory.hpp:77] Creating layer conv0
I0428 19:37:46.000628 23905 net.cpp:86] Creating Layer conv0
I0428 19:37:46.000633 23905 net.cpp:408] conv0 <- data
I0428 19:37:46.000638 23905 net.cpp:382] conv0 -> conv0
I0428 19:37:46.002509 23905 net.cpp:124] Setting up conv0
I0428 19:37:46.002528 23905 net.cpp:131] Top shape: 100 100 24 24 (5760000)
I0428 19:37:46.002532 23905 net.cpp:139] Memory required for data: 23354800
I0428 19:37:46.002542 23905 layer_factory.hpp:77] Creating layer pool0
I0428 19:37:46.002550 23905 net.cpp:86] Creating Layer pool0
I0428 19:37:46.002554 23905 net.cpp:408] pool0 <- conv0
I0428 19:37:46.002562 23905 net.cpp:382] pool0 -> pool0
I0428 19:37:46.002606 23905 net.cpp:124] Setting up pool0
I0428 19:37:46.002612 23905 net.cpp:131] Top shape: 100 100 12 12 (1440000)
I0428 19:37:46.002616 23905 net.cpp:139] Memory required for data: 29114800
I0428 19:37:46.002619 23905 layer_factory.hpp:77] Creating layer ip1
I0428 19:37:46.002629 23905 net.cpp:86] Creating Layer ip1
I0428 19:37:46.002632 23905 net.cpp:408] ip1 <- pool0
I0428 19:37:46.002638 23905 net.cpp:382] ip1 -> ip1
I0428 19:37:46.005170 23905 net.cpp:124] Setting up ip1
I0428 19:37:46.005182 23905 net.cpp:131] Top shape: 100 25 (2500)
I0428 19:37:46.005185 23905 net.cpp:139] Memory required for data: 29124800
I0428 19:37:46.005194 23905 layer_factory.hpp:77] Creating layer relu1
I0428 19:37:46.005201 23905 net.cpp:86] Creating Layer relu1
I0428 19:37:46.005205 23905 net.cpp:408] relu1 <- ip1
I0428 19:37:46.005210 23905 net.cpp:369] relu1 -> ip1 (in-place)
I0428 19:37:46.005412 23905 net.cpp:124] Setting up relu1
I0428 19:37:46.005424 23905 net.cpp:131] Top shape: 100 25 (2500)
I0428 19:37:46.005429 23905 net.cpp:139] Memory required for data: 29134800
I0428 19:37:46.005432 23905 layer_factory.hpp:77] Creating layer ip2
I0428 19:37:46.005439 23905 net.cpp:86] Creating Layer ip2
I0428 19:37:46.005442 23905 net.cpp:408] ip2 <- ip1
I0428 19:37:46.005450 23905 net.cpp:382] ip2 -> ip2
I0428 19:37:46.005596 23905 net.cpp:124] Setting up ip2
I0428 19:37:46.005605 23905 net.cpp:131] Top shape: 100 50 (5000)
I0428 19:37:46.005609 23905 net.cpp:139] Memory required for data: 29154800
I0428 19:37:46.005617 23905 layer_factory.hpp:77] Creating layer relu2
I0428 19:37:46.005625 23905 net.cpp:86] Creating Layer relu2
I0428 19:37:46.005627 23905 net.cpp:408] relu2 <- ip2
I0428 19:37:46.005633 23905 net.cpp:369] relu2 -> ip2 (in-place)
I0428 19:37:46.006569 23905 net.cpp:124] Setting up relu2
I0428 19:37:46.006583 23905 net.cpp:131] Top shape: 100 50 (5000)
I0428 19:37:46.006587 23905 net.cpp:139] Memory required for data: 29174800
I0428 19:37:46.006592 23905 layer_factory.hpp:77] Creating layer ip3
I0428 19:37:46.006603 23905 net.cpp:86] Creating Layer ip3
I0428 19:37:46.006606 23905 net.cpp:408] ip3 <- ip2
I0428 19:37:46.006613 23905 net.cpp:382] ip3 -> ip3
I0428 19:37:46.006743 23905 net.cpp:124] Setting up ip3
I0428 19:37:46.006757 23905 net.cpp:131] Top shape: 100 10 (1000)
I0428 19:37:46.006759 23905 net.cpp:139] Memory required for data: 29178800
I0428 19:37:46.006767 23905 layer_factory.hpp:77] Creating layer relu3
I0428 19:37:46.006772 23905 net.cpp:86] Creating Layer relu3
I0428 19:37:46.006775 23905 net.cpp:408] relu3 <- ip3
I0428 19:37:46.006780 23905 net.cpp:369] relu3 -> ip3 (in-place)
I0428 19:37:46.006970 23905 net.cpp:124] Setting up relu3
I0428 19:37:46.006980 23905 net.cpp:131] Top shape: 100 10 (1000)
I0428 19:37:46.006985 23905 net.cpp:139] Memory required for data: 29182800
I0428 19:37:46.006989 23905 layer_factory.hpp:77] Creating layer ip3_relu3_0_split
I0428 19:37:46.006994 23905 net.cpp:86] Creating Layer ip3_relu3_0_split
I0428 19:37:46.006997 23905 net.cpp:408] ip3_relu3_0_split <- ip3
I0428 19:37:46.007002 23905 net.cpp:382] ip3_relu3_0_split -> ip3_relu3_0_split_0
I0428 19:37:46.007009 23905 net.cpp:382] ip3_relu3_0_split -> ip3_relu3_0_split_1
I0428 19:37:46.007050 23905 net.cpp:124] Setting up ip3_relu3_0_split
I0428 19:37:46.007057 23905 net.cpp:131] Top shape: 100 10 (1000)
I0428 19:37:46.007073 23905 net.cpp:131] Top shape: 100 10 (1000)
I0428 19:37:46.007077 23905 net.cpp:139] Memory required for data: 29190800
I0428 19:37:46.007081 23905 layer_factory.hpp:77] Creating layer accuracy
I0428 19:37:46.007087 23905 net.cpp:86] Creating Layer accuracy
I0428 19:37:46.007091 23905 net.cpp:408] accuracy <- ip3_relu3_0_split_0
I0428 19:37:46.007095 23905 net.cpp:408] accuracy <- label_mnist_1_split_0
I0428 19:37:46.007102 23905 net.cpp:382] accuracy -> accuracy
…
