…
I0428 20:15:26.409221   443 net.cpp:296] The NetState phase (0) differed from the phase (1) specified by a rule in layer mnist
I0428 20:15:26.409250   443 net.cpp:296] The NetState phase (0) differed from the phase (1) specified by a rule in layer accuracy
I0428 20:15:26.409346   443 net.cpp:53] Initializing net from parameters: 
name: "LeNet"
state {
  phase: TRAIN
  level: 0
  stage: ""
}
layer {
  name: "mnist"
  type: "Data"
  top: "data"
  top: "label"
  include {
    phase: TRAIN
  }
  transform_param {
    scale: 0.00390625
  }
  data_param {
    source: "examples/mnist/mnist_train_lmdb"
    batch_size: 64
    backend: LMDB
  }
}
layer {
  name: "conv0"
  type: "Convolution"
  bottom: "data"
  top: "conv0"
  param {
    lr_mult: 1
  }
  param {
    lr_mult: 2
  }
  convolution_param {
    num_output: 50
    kernel_size: 5
    stride: 1
    weight_filler {
      type: "xavier"
    }
    bias_filler {
      type: "constant"
    }
  }
}
layer {
  name: "pool0"
  type: "Pooling"
  bottom: "conv0"
  top: "pool0"
  pooling_param {
    pool: MAX
    kernel_size: 2
    stride: 2
  }
}
layer {
  name: "conv1"
  type: "Convolution"
  bottom: "pool0"
  top: "conv1"
  param {
    lr_mult: 1
  }
  param {
    lr_mult: 2
  }
  convolution_param {
    num_output: 2
    kernel_size: 5
    stride: 1
    weight_filler {
      type: "xavier"
    }
    bias_filler {
      type: "constant"
    }
  }
}
layer {
  name: "pool1"
  type: "Pooling"
  bottom: "conv1"
  top: "pool1"
  pooling_param {
    pool: MAX
    kernel_size: 2
    stride: 2
  }
}
layer {
  name: "ip1"
  type: "InnerProduct"
  bottom: "pool1"
  top: "ip1"
  param {
    lr_mult: 1
  }
  param {
    lr_mult: 2
  }
  inner_product_param {
    num_output: 50
    weight_filler {
      type: "xavier"
    }
    bias_filler {
      type: "constant"
    }
  }
}
layer {
  name: "relu1"
  type: "ReLU"
  bottom: "ip1"
  top: "ip1"
}
layer {
  name: "ip2"
  type: "InnerProduct"
  bottom: "ip1"
  top: "ip2"
  param {
    lr_mult: 1
  }
  param {
    lr_mult: 2
  }
  inner_product_param {
    num_output: 50
    weight_filler {
      type: "xavier"
    }
    bias_filler {
      type: "constant"
    }
  }
}
layer {
  name: "relu2"
  type: "ReLU"
  bottom: "ip2"
  top: "ip2"
}
layer {
  name: "ip3"
  type: "InnerProduct"
  bottom: "ip2"
  top: "ip3"
  param {
    lr_mult: 1
  }
  param {
    lr_mult: 2
  }
  inner_product_param {
    num_output: 10
    weight_filler {
      type: "xavier"
    }
    bias_filler {
      type: "constant"
    }
  }
}
layer {
  name: "relu3"
  type: "ReLU"
  bottom: "ip3"
  top: "ip3"
}
layer {
  name: "loss"
  type: "SoftmaxWithLoss"
  bottom: "ip3"
  bottom: "label"
  top: "loss"
}
I0428 20:15:26.409409   443 layer_factory.hpp:77] Creating layer mnist
I0428 20:15:26.409487   443 db_lmdb.cpp:35] Opened lmdb examples/mnist/mnist_train_lmdb
I0428 20:15:26.409507   443 net.cpp:86] Creating Layer mnist
I0428 20:15:26.409514   443 net.cpp:382] mnist -> data
I0428 20:15:26.409533   443 net.cpp:382] mnist -> label
I0428 20:15:26.410540   443 data_layer.cpp:45] output data size: 64,1,28,28
I0428 20:15:26.412662   443 net.cpp:124] Setting up mnist
I0428 20:15:26.412691   443 net.cpp:131] Top shape: 64 1 28 28 (50176)
I0428 20:15:26.412696   443 net.cpp:131] Top shape: 64 (64)
I0428 20:15:26.412698   443 net.cpp:139] Memory required for data: 200960
I0428 20:15:26.412704   443 layer_factory.hpp:77] Creating layer conv0
I0428 20:15:26.412744   443 net.cpp:86] Creating Layer conv0
I0428 20:15:26.412762   443 net.cpp:408] conv0 <- data
I0428 20:15:26.412773   443 net.cpp:382] conv0 -> conv0
I0428 20:15:26.637198   443 net.cpp:124] Setting up conv0
I0428 20:15:26.637224   443 net.cpp:131] Top shape: 64 50 24 24 (1843200)
I0428 20:15:26.637228   443 net.cpp:139] Memory required for data: 7573760
I0428 20:15:26.637241   443 layer_factory.hpp:77] Creating layer pool0
I0428 20:15:26.637269   443 net.cpp:86] Creating Layer pool0
I0428 20:15:26.637274   443 net.cpp:408] pool0 <- conv0
I0428 20:15:26.637279   443 net.cpp:382] pool0 -> pool0
I0428 20:15:26.637323   443 net.cpp:124] Setting up pool0
I0428 20:15:26.637333   443 net.cpp:131] Top shape: 64 50 12 12 (460800)
I0428 20:15:26.637336   443 net.cpp:139] Memory required for data: 9416960
I0428 20:15:26.637339   443 layer_factory.hpp:77] Creating layer conv1
I0428 20:15:26.637349   443 net.cpp:86] Creating Layer conv1
I0428 20:15:26.637352   443 net.cpp:408] conv1 <- pool0
I0428 20:15:26.637356   443 net.cpp:382] conv1 -> conv1
I0428 20:15:26.639175   443 net.cpp:124] Setting up conv1
I0428 20:15:26.639204   443 net.cpp:131] Top shape: 64 2 8 8 (8192)
I0428 20:15:26.639209   443 net.cpp:139] Memory required for data: 9449728
I0428 20:15:26.639221   443 layer_factory.hpp:77] Creating layer pool1
I0428 20:15:26.639231   443 net.cpp:86] Creating Layer pool1
I0428 20:15:26.639235   443 net.cpp:408] pool1 <- conv1
I0428 20:15:26.639240   443 net.cpp:382] pool1 -> pool1
I0428 20:15:26.639277   443 net.cpp:124] Setting up pool1
I0428 20:15:26.639282   443 net.cpp:131] Top shape: 64 2 4 4 (2048)
I0428 20:15:26.639286   443 net.cpp:139] Memory required for data: 9457920
I0428 20:15:26.639288   443 layer_factory.hpp:77] Creating layer ip1
I0428 20:15:26.639294   443 net.cpp:86] Creating Layer ip1
I0428 20:15:26.639297   443 net.cpp:408] ip1 <- pool1
I0428 20:15:26.639302   443 net.cpp:382] ip1 -> ip1
I0428 20:15:26.639403   443 net.cpp:124] Setting up ip1
I0428 20:15:26.639411   443 net.cpp:131] Top shape: 64 50 (3200)
I0428 20:15:26.639415   443 net.cpp:139] Memory required for data: 9470720
I0428 20:15:26.639421   443 layer_factory.hpp:77] Creating layer relu1
I0428 20:15:26.639426   443 net.cpp:86] Creating Layer relu1
I0428 20:15:26.639430   443 net.cpp:408] relu1 <- ip1
I0428 20:15:26.639433   443 net.cpp:369] relu1 -> ip1 (in-place)
I0428 20:15:26.639596   443 net.cpp:124] Setting up relu1
I0428 20:15:26.639605   443 net.cpp:131] Top shape: 64 50 (3200)
I0428 20:15:26.639607   443 net.cpp:139] Memory required for data: 9483520
I0428 20:15:26.639611   443 layer_factory.hpp:77] Creating layer ip2
I0428 20:15:26.639616   443 net.cpp:86] Creating Layer ip2
I0428 20:15:26.639619   443 net.cpp:408] ip2 <- ip1
I0428 20:15:26.639624   443 net.cpp:382] ip2 -> ip2
I0428 20:15:26.639731   443 net.cpp:124] Setting up ip2
I0428 20:15:26.639739   443 net.cpp:131] Top shape: 64 50 (3200)
I0428 20:15:26.639741   443 net.cpp:139] Memory required for data: 9496320
I0428 20:15:26.639746   443 layer_factory.hpp:77] Creating layer relu2
I0428 20:15:26.639752   443 net.cpp:86] Creating Layer relu2
I0428 20:15:26.639755   443 net.cpp:408] relu2 <- ip2
I0428 20:15:26.639760   443 net.cpp:369] relu2 -> ip2 (in-place)
I0428 20:15:26.640535   443 net.cpp:124] Setting up relu2
I0428 20:15:26.640548   443 net.cpp:131] Top shape: 64 50 (3200)
I0428 20:15:26.640552   443 net.cpp:139] Memory required for data: 9509120
I0428 20:15:26.640557   443 layer_factory.hpp:77] Creating layer ip3
I0428 20:15:26.640563   443 net.cpp:86] Creating Layer ip3
I0428 20:15:26.640566   443 net.cpp:408] ip3 <- ip2
I0428 20:15:26.640571   443 net.cpp:382] ip3 -> ip3
I0428 20:15:26.640707   443 net.cpp:124] Setting up ip3
I0428 20:15:26.640715   443 net.cpp:131] Top shape: 64 10 (640)
I0428 20:15:26.640718   443 net.cpp:139] Memory required for data: 9511680
I0428 20:15:26.640727   443 layer_factory.hpp:77] Creating layer relu3
I0428 20:15:26.640732   443 net.cpp:86] Creating Layer relu3
I0428 20:15:26.640734   443 net.cpp:408] relu3 <- ip3
I0428 20:15:26.640738   443 net.cpp:369] relu3 -> ip3 (in-place)
I0428 20:15:26.640969   443 net.cpp:124] Setting up relu3
I0428 20:15:26.640980   443 net.cpp:131] Top shape: 64 10 (640)
I0428 20:15:26.640983   443 net.cpp:139] Memory required for data: 9514240
I0428 20:15:26.640987   443 layer_factory.hpp:77] Creating layer loss
I0428 20:15:26.640993   443 net.cpp:86] Creating Layer loss
I0428 20:15:26.640996   443 net.cpp:408] loss <- ip3
I0428 20:15:26.641001   443 net.cpp:408] loss <- label
I0428 20:15:26.641007   443 net.cpp:382] loss -> loss
I0428 20:15:26.641055   443 layer_factory.hpp:77] Creating layer loss
…
I0428 20:15:26.641772   443 solver.cpp:173] Creating test net (#0) specified by net file: ECE595/mnist/train_test/var_everything2/lenet_train_test1246.prototxt
I0428 20:15:26.641815   443 net.cpp:296] The NetState phase (1) differed from the phase (0) specified by a rule in layer mnist
I0428 20:15:26.641916   443 net.cpp:53] Initializing net from parameters: 
name: "LeNet"
state {
  phase: TEST
}
layer {
  name: "mnist"
  type: "Data"
  top: "data"
  top: "label"
  include {
    phase: TEST
  }
  transform_param {
    scale: 0.00390625
  }
  data_param {
    source: "examples/mnist/mnist_test_lmdb"
    batch_size: 100
    backend: LMDB
  }
}
layer {
  name: "conv0"
  type: "Convolution"
  bottom: "data"
  top: "conv0"
  param {
    lr_mult: 1
  }
  param {
    lr_mult: 2
  }
  convolution_param {
    num_output: 50
    kernel_size: 5
    stride: 1
    weight_filler {
      type: "xavier"
    }
    bias_filler {
      type: "constant"
    }
  }
}
layer {
  name: "pool0"
  type: "Pooling"
  bottom: "conv0"
  top: "pool0"
  pooling_param {
    pool: MAX
    kernel_size: 2
    stride: 2
  }
}
layer {
  name: "conv1"
  type: "Convolution"
  bottom: "pool0"
  top: "conv1"
  param {
    lr_mult: 1
  }
  param {
    lr_mult: 2
  }
  convolution_param {
    num_output: 2
    kernel_size: 5
    stride: 1
    weight_filler {
      type: "xavier"
    }
    bias_filler {
      type: "constant"
    }
  }
}
layer {
  name: "pool1"
  type: "Pooling"
  bottom: "conv1"
  top: "pool1"
  pooling_param {
    pool: MAX
    kernel_size: 2
    stride: 2
  }
}
layer {
  name: "ip1"
  type: "InnerProduct"
  bottom: "pool1"
  top: "ip1"
  param {
    lr_mult: 1
  }
  param {
    lr_mult: 2
  }
  inner_product_param {
    num_output: 50
    weight_filler {
      type: "xavier"
    }
    bias_filler {
      type: "constant"
    }
  }
}
layer {
  name: "relu1"
  type: "ReLU"
  bottom: "ip1"
  top: "ip1"
}
layer {
  name: "ip2"
  type: "InnerProduct"
  bottom: "ip1"
  top: "ip2"
  param {
    lr_mult: 1
  }
  param {
    lr_mult: 2
  }
  inner_product_param {
    num_output: 50
    weight_filler {
      type: "xavier"
    }
    bias_filler {
      type: "constant"
    }
  }
}
layer {
  name: "relu2"
  type: "ReLU"
  bottom: "ip2"
  top: "ip2"
}
layer {
  name: "ip3"
  type: "InnerProduct"
  bottom: "ip2"
  top: "ip3"
  param {
    lr_mult: 1
  }
  param {
    lr_mult: 2
  }
  inner_product_param {
    num_output: 10
    weight_filler {
      type: "xavier"
    }
    bias_filler {
      type: "constant"
    }
  }
}
layer {
  name: "relu3"
  type: "ReLU"
  bottom: "ip3"
  top: "ip3"
}
layer {
  name: "accuracy"
  type: "Accuracy"
  bottom: "ip3"
  bottom: "label"
  top: "accuracy"
  include {
    phase: TEST
  }
}
layer {
  name: "loss"
  type: "SoftmaxWithLoss"
  bottom: "ip3"
  bottom: "label"
  top: "loss"
}
I0428 20:15:26.641991   443 layer_factory.hpp:77] Creating layer mnist
I0428 20:15:26.642031   443 db_lmdb.cpp:35] Opened lmdb examples/mnist/mnist_test_lmdb
I0428 20:15:26.642046   443 net.cpp:86] Creating Layer mnist
I0428 20:15:26.642051   443 net.cpp:382] mnist -> data
I0428 20:15:26.642058   443 net.cpp:382] mnist -> label
I0428 20:15:26.642138   443 data_layer.cpp:45] output data size: 100,1,28,28
I0428 20:15:26.644083   443 net.cpp:124] Setting up mnist
I0428 20:15:26.644107   443 net.cpp:131] Top shape: 100 1 28 28 (78400)
I0428 20:15:26.644112   443 net.cpp:131] Top shape: 100 (100)
I0428 20:15:26.644115   443 net.cpp:139] Memory required for data: 314000
I0428 20:15:26.644119   443 layer_factory.hpp:77] Creating layer label_mnist_1_split
I0428 20:15:26.644129   443 net.cpp:86] Creating Layer label_mnist_1_split
I0428 20:15:26.644132   443 net.cpp:408] label_mnist_1_split <- label
I0428 20:15:26.644136   443 net.cpp:382] label_mnist_1_split -> label_mnist_1_split_0
I0428 20:15:26.644142   443 net.cpp:382] label_mnist_1_split -> label_mnist_1_split_1
I0428 20:15:26.644186   443 net.cpp:124] Setting up label_mnist_1_split
I0428 20:15:26.644191   443 net.cpp:131] Top shape: 100 (100)
I0428 20:15:26.644194   443 net.cpp:131] Top shape: 100 (100)
I0428 20:15:26.644197   443 net.cpp:139] Memory required for data: 314800
I0428 20:15:26.644199   443 layer_factory.hpp:77] Creating layer conv0
I0428 20:15:26.644207   443 net.cpp:86] Creating Layer conv0
I0428 20:15:26.644210   443 net.cpp:408] conv0 <- data
I0428 20:15:26.644215   443 net.cpp:382] conv0 -> conv0
I0428 20:15:26.645967   443 net.cpp:124] Setting up conv0
I0428 20:15:26.645980   443 net.cpp:131] Top shape: 100 50 24 24 (2880000)
I0428 20:15:26.645984   443 net.cpp:139] Memory required for data: 11834800
I0428 20:15:26.645992   443 layer_factory.hpp:77] Creating layer pool0
I0428 20:15:26.646013   443 net.cpp:86] Creating Layer pool0
I0428 20:15:26.646018   443 net.cpp:408] pool0 <- conv0
I0428 20:15:26.646021   443 net.cpp:382] pool0 -> pool0
I0428 20:15:26.646070   443 net.cpp:124] Setting up pool0
I0428 20:15:26.646075   443 net.cpp:131] Top shape: 100 50 12 12 (720000)
I0428 20:15:26.646077   443 net.cpp:139] Memory required for data: 14714800
I0428 20:15:26.646080   443 layer_factory.hpp:77] Creating layer conv1
I0428 20:15:26.646088   443 net.cpp:86] Creating Layer conv1
I0428 20:15:26.646091   443 net.cpp:408] conv1 <- pool0
I0428 20:15:26.646095   443 net.cpp:382] conv1 -> conv1
I0428 20:15:26.647646   443 net.cpp:124] Setting up conv1
I0428 20:15:26.647662   443 net.cpp:131] Top shape: 100 2 8 8 (12800)
I0428 20:15:26.647667   443 net.cpp:139] Memory required for data: 14766000
I0428 20:15:26.647680   443 layer_factory.hpp:77] Creating layer pool1
I0428 20:15:26.647686   443 net.cpp:86] Creating Layer pool1
I0428 20:15:26.647691   443 net.cpp:408] pool1 <- conv1
I0428 20:15:26.647707   443 net.cpp:382] pool1 -> pool1
I0428 20:15:26.647742   443 net.cpp:124] Setting up pool1
I0428 20:15:26.647763   443 net.cpp:131] Top shape: 100 2 4 4 (3200)
I0428 20:15:26.647766   443 net.cpp:139] Memory required for data: 14778800
I0428 20:15:26.647769   443 layer_factory.hpp:77] Creating layer ip1
I0428 20:15:26.647774   443 net.cpp:86] Creating Layer ip1
I0428 20:15:26.647778   443 net.cpp:408] ip1 <- pool1
I0428 20:15:26.647783   443 net.cpp:382] ip1 -> ip1
I0428 20:15:26.647883   443 net.cpp:124] Setting up ip1
I0428 20:15:26.647907   443 net.cpp:131] Top shape: 100 50 (5000)
I0428 20:15:26.647943   443 net.cpp:139] Memory required for data: 14798800
I0428 20:15:26.647958   443 layer_factory.hpp:77] Creating layer relu1
I0428 20:15:26.647989   443 net.cpp:86] Creating Layer relu1
I0428 20:15:26.647994   443 net.cpp:408] relu1 <- ip1
I0428 20:15:26.648010   443 net.cpp:369] relu1 -> ip1 (in-place)
I0428 20:15:26.648195   443 net.cpp:124] Setting up relu1
I0428 20:15:26.648203   443 net.cpp:131] Top shape: 100 50 (5000)
I0428 20:15:26.648207   443 net.cpp:139] Memory required for data: 14818800
I0428 20:15:26.648237   443 layer_factory.hpp:77] Creating layer ip2
I0428 20:15:26.648263   443 net.cpp:86] Creating Layer ip2
I0428 20:15:26.648267   443 net.cpp:408] ip2 <- ip1
I0428 20:15:26.648277   443 net.cpp:382] ip2 -> ip2
I0428 20:15:26.648385   443 net.cpp:124] Setting up ip2
I0428 20:15:26.648391   443 net.cpp:131] Top shape: 100 50 (5000)
I0428 20:15:26.648396   443 net.cpp:139] Memory required for data: 14838800
I0428 20:15:26.648401   443 layer_factory.hpp:77] Creating layer relu2
I0428 20:15:26.648404   443 net.cpp:86] Creating Layer relu2
I0428 20:15:26.648407   443 net.cpp:408] relu2 <- ip2
I0428 20:15:26.648417   443 net.cpp:369] relu2 -> ip2 (in-place)
I0428 20:15:26.648561   443 net.cpp:124] Setting up relu2
I0428 20:15:26.648568   443 net.cpp:131] Top shape: 100 50 (5000)
I0428 20:15:26.648571   443 net.cpp:139] Memory required for data: 14858800
I0428 20:15:26.648574   443 layer_factory.hpp:77] Creating layer ip3
I0428 20:15:26.648579   443 net.cpp:86] Creating Layer ip3
I0428 20:15:26.648582   443 net.cpp:408] ip3 <- ip2
I0428 20:15:26.648587   443 net.cpp:382] ip3 -> ip3
I0428 20:15:26.648692   443 net.cpp:124] Setting up ip3
I0428 20:15:26.648700   443 net.cpp:131] Top shape: 100 10 (1000)
I0428 20:15:26.648703   443 net.cpp:139] Memory required for data: 14862800
I0428 20:15:26.648711   443 layer_factory.hpp:77] Creating layer relu3
I0428 20:15:26.648715   443 net.cpp:86] Creating Layer relu3
I0428 20:15:26.648718   443 net.cpp:408] relu3 <- ip3
I0428 20:15:26.648728   443 net.cpp:369] relu3 -> ip3 (in-place)
I0428 20:15:26.649689   443 net.cpp:124] Setting up relu3
I0428 20:15:26.649703   443 net.cpp:131] Top shape: 100 10 (1000)
I0428 20:15:26.649708   443 net.cpp:139] Memory required for data: 14866800
I0428 20:15:26.649710   443 layer_factory.hpp:77] Creating layer ip3_relu3_0_split
I0428 20:15:26.649715   443 net.cpp:86] Creating Layer ip3_relu3_0_split
I0428 20:15:26.649718   443 net.cpp:408] ip3_relu3_0_split <- ip3
I0428 20:15:26.649724   443 net.cpp:382] ip3_relu3_0_split -> ip3_relu3_0_split_0
I0428 20:15:26.649729   443 net.cpp:382] ip3_relu3_0_split -> ip3_relu3_0_split_1
I0428 20:15:26.649770   443 net.cpp:124] Setting up ip3_relu3_0_split
I0428 20:15:26.649775   443 net.cpp:131] Top shape: 100 10 (1000)
I0428 20:15:26.649778   443 net.cpp:131] Top shape: 100 10 (1000)
I0428 20:15:26.649781   443 net.cpp:139] Memory required for data: 14874800
I0428 20:15:26.649783   443 layer_factory.hpp:77] Creating layer accuracy
I0428 20:15:26.649788   443 net.cpp:86] Creating Layer accuracy
I0428 20:15:26.649791   443 net.cpp:408] accuracy <- ip3_relu3_0_split_0
I0428 20:15:26.649796   443 net.cpp:408] accuracy <- label_mnist_1_split_0
I0428 20:15:26.649806   443 net.cpp:382] accuracy -> accuracy
…
