…
I0428 19:38:56.996631 24174 net.cpp:296] The NetState phase (0) differed from the phase (1) specified by a rule in layer mnist
I0428 19:38:56.996649 24174 net.cpp:296] The NetState phase (0) differed from the phase (1) specified by a rule in layer accuracy
I0428 19:38:56.996737 24174 net.cpp:53] Initializing net from parameters: 
name: "LeNet"
state {
  phase: TRAIN
  level: 0
  stage: ""
}
layer {
  name: "mnist"
  type: "Data"
  top: "data"
  top: "label"
  include {
    phase: TRAIN
  }
  transform_param {
    scale: 0.00390625
  }
  data_param {
    source: "examples/mnist/mnist_train_lmdb"
    batch_size: 64
    backend: LMDB
  }
}
layer {
  name: "conv0"
  type: "Convolution"
  bottom: "data"
  top: "conv0"
  param {
    lr_mult: 1
  }
  param {
    lr_mult: 2
  }
  convolution_param {
    num_output: 2
    kernel_size: 5
    stride: 1
    weight_filler {
      type: "xavier"
    }
    bias_filler {
      type: "constant"
    }
  }
}
layer {
  name: "pool0"
  type: "Pooling"
  bottom: "conv0"
  top: "pool0"
  pooling_param {
    pool: MAX
    kernel_size: 2
    stride: 2
  }
}
layer {
  name: "conv1"
  type: "Convolution"
  bottom: "pool0"
  top: "conv1"
  param {
    lr_mult: 1
  }
  param {
    lr_mult: 2
  }
  convolution_param {
    num_output: 2
    kernel_size: 5
    stride: 1
    weight_filler {
      type: "xavier"
    }
    bias_filler {
      type: "constant"
    }
  }
}
layer {
  name: "pool1"
  type: "Pooling"
  bottom: "conv1"
  top: "pool1"
  pooling_param {
    pool: MAX
    kernel_size: 2
    stride: 2
  }
}
layer {
  name: "ip1"
  type: "InnerProduct"
  bottom: "pool1"
  top: "ip1"
  param {
    lr_mult: 1
  }
  param {
    lr_mult: 2
  }
  inner_product_param {
    num_output: 10
    weight_filler {
      type: "xavier"
    }
    bias_filler {
      type: "constant"
    }
  }
}
layer {
  name: "relu1"
  type: "ReLU"
  bottom: "ip1"
  top: "ip1"
}
layer {
  name: "ip2"
  type: "InnerProduct"
  bottom: "ip1"
  top: "ip2"
  param {
    lr_mult: 1
  }
  param {
    lr_mult: 2
  }
  inner_product_param {
    num_output: 25
    weight_filler {
      type: "xavier"
    }
    bias_filler {
      type: "constant"
    }
  }
}
layer {
  name: "relu2"
  type: "ReLU"
  bottom: "ip2"
  top: "ip2"
}
layer {
  name: "ip3"
  type: "InnerProduct"
  bottom: "ip2"
  top: "ip3"
  param {
    lr_mult: 1
  }
  param {
    lr_mult: 2
  }
  inner_product_param {
    num_output: 10
    weight_filler {
      type: "xavier"
    }
    bias_filler {
      type: "constant"
    }
  }
}
layer {
  name: "relu3"
  type: "ReLU"
  bottom: "ip3"
  top: "ip3"
}
layer {
  name: "loss"
  type: "SoftmaxWithLoss"
  bottom: "ip3"
  bottom: "label"
  top: "loss"
}
I0428 19:38:56.996846 24174 layer_factory.hpp:77] Creating layer mnist
I0428 19:38:56.996986 24174 db_lmdb.cpp:35] Opened lmdb examples/mnist/mnist_train_lmdb
I0428 19:38:56.997014 24174 net.cpp:86] Creating Layer mnist
I0428 19:38:56.997026 24174 net.cpp:382] mnist -> data
I0428 19:38:56.997052 24174 net.cpp:382] mnist -> label
I0428 19:38:56.998253 24174 data_layer.cpp:45] output data size: 64,1,28,28
I0428 19:38:57.000454 24174 net.cpp:124] Setting up mnist
I0428 19:38:57.000488 24174 net.cpp:131] Top shape: 64 1 28 28 (50176)
I0428 19:38:57.000495 24174 net.cpp:131] Top shape: 64 (64)
I0428 19:38:57.000500 24174 net.cpp:139] Memory required for data: 200960
I0428 19:38:57.000509 24174 layer_factory.hpp:77] Creating layer conv0
I0428 19:38:57.000533 24174 net.cpp:86] Creating Layer conv0
I0428 19:38:57.000552 24174 net.cpp:408] conv0 <- data
I0428 19:38:57.000567 24174 net.cpp:382] conv0 -> conv0
I0428 19:38:57.234117 24174 net.cpp:124] Setting up conv0
I0428 19:38:57.234146 24174 net.cpp:131] Top shape: 64 2 24 24 (73728)
I0428 19:38:57.234151 24174 net.cpp:139] Memory required for data: 495872
I0428 19:38:57.234171 24174 layer_factory.hpp:77] Creating layer pool0
I0428 19:38:57.234187 24174 net.cpp:86] Creating Layer pool0
I0428 19:38:57.234194 24174 net.cpp:408] pool0 <- conv0
I0428 19:38:57.234202 24174 net.cpp:382] pool0 -> pool0
I0428 19:38:57.234257 24174 net.cpp:124] Setting up pool0
I0428 19:38:57.234266 24174 net.cpp:131] Top shape: 64 2 12 12 (18432)
I0428 19:38:57.234271 24174 net.cpp:139] Memory required for data: 569600
I0428 19:38:57.234275 24174 layer_factory.hpp:77] Creating layer conv1
I0428 19:38:57.234290 24174 net.cpp:86] Creating Layer conv1
I0428 19:38:57.234297 24174 net.cpp:408] conv1 <- pool0
I0428 19:38:57.234304 24174 net.cpp:382] conv1 -> conv1
I0428 19:38:57.236230 24174 net.cpp:124] Setting up conv1
I0428 19:38:57.236248 24174 net.cpp:131] Top shape: 64 2 8 8 (8192)
I0428 19:38:57.236253 24174 net.cpp:139] Memory required for data: 602368
I0428 19:38:57.236270 24174 layer_factory.hpp:77] Creating layer pool1
I0428 19:38:57.236296 24174 net.cpp:86] Creating Layer pool1
I0428 19:38:57.236304 24174 net.cpp:408] pool1 <- conv1
I0428 19:38:57.236312 24174 net.cpp:382] pool1 -> pool1
I0428 19:38:57.236358 24174 net.cpp:124] Setting up pool1
I0428 19:38:57.236366 24174 net.cpp:131] Top shape: 64 2 4 4 (2048)
I0428 19:38:57.236371 24174 net.cpp:139] Memory required for data: 610560
I0428 19:38:57.236377 24174 layer_factory.hpp:77] Creating layer ip1
I0428 19:38:57.236387 24174 net.cpp:86] Creating Layer ip1
I0428 19:38:57.236397 24174 net.cpp:408] ip1 <- pool1
I0428 19:38:57.236407 24174 net.cpp:382] ip1 -> ip1
I0428 19:38:57.236512 24174 net.cpp:124] Setting up ip1
I0428 19:38:57.236521 24174 net.cpp:131] Top shape: 64 10 (640)
I0428 19:38:57.236526 24174 net.cpp:139] Memory required for data: 613120
I0428 19:38:57.236537 24174 layer_factory.hpp:77] Creating layer relu1
I0428 19:38:57.236548 24174 net.cpp:86] Creating Layer relu1
I0428 19:38:57.236555 24174 net.cpp:408] relu1 <- ip1
I0428 19:38:57.236563 24174 net.cpp:369] relu1 -> ip1 (in-place)
I0428 19:38:57.236734 24174 net.cpp:124] Setting up relu1
I0428 19:38:57.236744 24174 net.cpp:131] Top shape: 64 10 (640)
I0428 19:38:57.236749 24174 net.cpp:139] Memory required for data: 615680
I0428 19:38:57.236755 24174 layer_factory.hpp:77] Creating layer ip2
I0428 19:38:57.236768 24174 net.cpp:86] Creating Layer ip2
I0428 19:38:57.236773 24174 net.cpp:408] ip2 <- ip1
I0428 19:38:57.236781 24174 net.cpp:382] ip2 -> ip2
I0428 19:38:57.236912 24174 net.cpp:124] Setting up ip2
I0428 19:38:57.236922 24174 net.cpp:131] Top shape: 64 25 (1600)
I0428 19:38:57.236927 24174 net.cpp:139] Memory required for data: 622080
I0428 19:38:57.236937 24174 layer_factory.hpp:77] Creating layer relu2
I0428 19:38:57.236948 24174 net.cpp:86] Creating Layer relu2
I0428 19:38:57.236955 24174 net.cpp:408] relu2 <- ip2
I0428 19:38:57.236963 24174 net.cpp:369] relu2 -> ip2 (in-place)
I0428 19:38:57.237726 24174 net.cpp:124] Setting up relu2
I0428 19:38:57.237740 24174 net.cpp:131] Top shape: 64 25 (1600)
I0428 19:38:57.237746 24174 net.cpp:139] Memory required for data: 628480
I0428 19:38:57.237751 24174 layer_factory.hpp:77] Creating layer ip3
I0428 19:38:57.237763 24174 net.cpp:86] Creating Layer ip3
I0428 19:38:57.237769 24174 net.cpp:408] ip3 <- ip2
I0428 19:38:57.237779 24174 net.cpp:382] ip3 -> ip3
I0428 19:38:57.237884 24174 net.cpp:124] Setting up ip3
I0428 19:38:57.237892 24174 net.cpp:131] Top shape: 64 10 (640)
I0428 19:38:57.237897 24174 net.cpp:139] Memory required for data: 631040
I0428 19:38:57.237910 24174 layer_factory.hpp:77] Creating layer relu3
I0428 19:38:57.237918 24174 net.cpp:86] Creating Layer relu3
I0428 19:38:57.237923 24174 net.cpp:408] relu3 <- ip3
I0428 19:38:57.237931 24174 net.cpp:369] relu3 -> ip3 (in-place)
I0428 19:38:57.238101 24174 net.cpp:124] Setting up relu3
I0428 19:38:57.238126 24174 net.cpp:131] Top shape: 64 10 (640)
I0428 19:38:57.238131 24174 net.cpp:139] Memory required for data: 633600
I0428 19:38:57.238137 24174 layer_factory.hpp:77] Creating layer loss
I0428 19:38:57.238145 24174 net.cpp:86] Creating Layer loss
I0428 19:38:57.238150 24174 net.cpp:408] loss <- ip3
I0428 19:38:57.238157 24174 net.cpp:408] loss <- label
I0428 19:38:57.238168 24174 net.cpp:382] loss -> loss
I0428 19:38:57.238186 24174 layer_factory.hpp:77] Creating layer loss
…
I0428 19:38:57.238945 24174 solver.cpp:173] Creating test net (#0) specified by net file: ECE595/mnist/train_test/var_everything2/lenet_train_test289.prototxt
I0428 19:38:57.238977 24174 net.cpp:296] The NetState phase (1) differed from the phase (0) specified by a rule in layer mnist
I0428 19:38:57.239070 24174 net.cpp:53] Initializing net from parameters: 
name: "LeNet"
state {
  phase: TEST
}
layer {
  name: "mnist"
  type: "Data"
  top: "data"
  top: "label"
  include {
    phase: TEST
  }
  transform_param {
    scale: 0.00390625
  }
  data_param {
    source: "examples/mnist/mnist_test_lmdb"
    batch_size: 100
    backend: LMDB
  }
}
layer {
  name: "conv0"
  type: "Convolution"
  bottom: "data"
  top: "conv0"
  param {
    lr_mult: 1
  }
  param {
    lr_mult: 2
  }
  convolution_param {
    num_output: 2
    kernel_size: 5
    stride: 1
    weight_filler {
      type: "xavier"
    }
    bias_filler {
      type: "constant"
    }
  }
}
layer {
  name: "pool0"
  type: "Pooling"
  bottom: "conv0"
  top: "pool0"
  pooling_param {
    pool: MAX
    kernel_size: 2
    stride: 2
  }
}
layer {
  name: "conv1"
  type: "Convolution"
  bottom: "pool0"
  top: "conv1"
  param {
    lr_mult: 1
  }
  param {
    lr_mult: 2
  }
  convolution_param {
    num_output: 2
    kernel_size: 5
    stride: 1
    weight_filler {
      type: "xavier"
    }
    bias_filler {
      type: "constant"
    }
  }
}
layer {
  name: "pool1"
  type: "Pooling"
  bottom: "conv1"
  top: "pool1"
  pooling_param {
    pool: MAX
    kernel_size: 2
    stride: 2
  }
}
layer {
  name: "ip1"
  type: "InnerProduct"
  bottom: "pool1"
  top: "ip1"
  param {
    lr_mult: 1
  }
  param {
    lr_mult: 2
  }
  inner_product_param {
    num_output: 10
    weight_filler {
      type: "xavier"
    }
    bias_filler {
      type: "constant"
    }
  }
}
layer {
  name: "relu1"
  type: "ReLU"
  bottom: "ip1"
  top: "ip1"
}
layer {
  name: "ip2"
  type: "InnerProduct"
  bottom: "ip1"
  top: "ip2"
  param {
    lr_mult: 1
  }
  param {
    lr_mult: 2
  }
  inner_product_param {
    num_output: 25
    weight_filler {
      type: "xavier"
    }
    bias_filler {
      type: "constant"
    }
  }
}
layer {
  name: "relu2"
  type: "ReLU"
  bottom: "ip2"
  top: "ip2"
}
layer {
  name: "ip3"
  type: "InnerProduct"
  bottom: "ip2"
  top: "ip3"
  param {
    lr_mult: 1
  }
  param {
    lr_mult: 2
  }
  inner_product_param {
    num_output: 10
    weight_filler {
      type: "xavier"
    }
    bias_filler {
      type: "constant"
    }
  }
}
layer {
  name: "relu3"
  type: "ReLU"
  bottom: "ip3"
  top: "ip3"
}
layer {
  name: "accuracy"
  type: "Accuracy"
  bottom: "ip3"
  bottom: "label"
  top: "accuracy"
  include {
    phase: TEST
  }
}
layer {
  name: "loss"
  type: "SoftmaxWithLoss"
  bottom: "ip3"
  bottom: "label"
  top: "loss"
}
I0428 19:38:57.239183 24174 layer_factory.hpp:77] Creating layer mnist
I0428 19:38:57.239270 24174 db_lmdb.cpp:35] Opened lmdb examples/mnist/mnist_test_lmdb
I0428 19:38:57.239291 24174 net.cpp:86] Creating Layer mnist
I0428 19:38:57.239300 24174 net.cpp:382] mnist -> data
I0428 19:38:57.239310 24174 net.cpp:382] mnist -> label
I0428 19:38:57.239433 24174 data_layer.cpp:45] output data size: 100,1,28,28
I0428 19:38:57.241652 24174 net.cpp:124] Setting up mnist
I0428 19:38:57.241699 24174 net.cpp:131] Top shape: 100 1 28 28 (78400)
I0428 19:38:57.241720 24174 net.cpp:131] Top shape: 100 (100)
I0428 19:38:57.241727 24174 net.cpp:139] Memory required for data: 314000
I0428 19:38:57.241734 24174 layer_factory.hpp:77] Creating layer label_mnist_1_split
I0428 19:38:57.241744 24174 net.cpp:86] Creating Layer label_mnist_1_split
I0428 19:38:57.241750 24174 net.cpp:408] label_mnist_1_split <- label
I0428 19:38:57.241758 24174 net.cpp:382] label_mnist_1_split -> label_mnist_1_split_0
I0428 19:38:57.241770 24174 net.cpp:382] label_mnist_1_split -> label_mnist_1_split_1
I0428 19:38:57.241825 24174 net.cpp:124] Setting up label_mnist_1_split
I0428 19:38:57.241834 24174 net.cpp:131] Top shape: 100 (100)
I0428 19:38:57.241842 24174 net.cpp:131] Top shape: 100 (100)
I0428 19:38:57.241847 24174 net.cpp:139] Memory required for data: 314800
I0428 19:38:57.241852 24174 layer_factory.hpp:77] Creating layer conv0
I0428 19:38:57.241868 24174 net.cpp:86] Creating Layer conv0
I0428 19:38:57.241875 24174 net.cpp:408] conv0 <- data
I0428 19:38:57.241901 24174 net.cpp:382] conv0 -> conv0
I0428 19:38:57.243598 24174 net.cpp:124] Setting up conv0
I0428 19:38:57.243614 24174 net.cpp:131] Top shape: 100 2 24 24 (115200)
I0428 19:38:57.243620 24174 net.cpp:139] Memory required for data: 775600
I0428 19:38:57.243634 24174 layer_factory.hpp:77] Creating layer pool0
I0428 19:38:57.243646 24174 net.cpp:86] Creating Layer pool0
I0428 19:38:57.243654 24174 net.cpp:408] pool0 <- conv0
I0428 19:38:57.243661 24174 net.cpp:382] pool0 -> pool0
I0428 19:38:57.243706 24174 net.cpp:124] Setting up pool0
I0428 19:38:57.243715 24174 net.cpp:131] Top shape: 100 2 12 12 (28800)
I0428 19:38:57.243719 24174 net.cpp:139] Memory required for data: 890800
I0428 19:38:57.243724 24174 layer_factory.hpp:77] Creating layer conv1
I0428 19:38:57.243739 24174 net.cpp:86] Creating Layer conv1
I0428 19:38:57.243746 24174 net.cpp:408] conv1 <- pool0
I0428 19:38:57.243757 24174 net.cpp:382] conv1 -> conv1
I0428 19:38:57.245666 24174 net.cpp:124] Setting up conv1
I0428 19:38:57.245681 24174 net.cpp:131] Top shape: 100 2 8 8 (12800)
I0428 19:38:57.245685 24174 net.cpp:139] Memory required for data: 942000
I0428 19:38:57.245714 24174 layer_factory.hpp:77] Creating layer pool1
I0428 19:38:57.245724 24174 net.cpp:86] Creating Layer pool1
I0428 19:38:57.245730 24174 net.cpp:408] pool1 <- conv1
I0428 19:38:57.245740 24174 net.cpp:382] pool1 -> pool1
I0428 19:38:57.245800 24174 net.cpp:124] Setting up pool1
I0428 19:38:57.245810 24174 net.cpp:131] Top shape: 100 2 4 4 (3200)
I0428 19:38:57.245815 24174 net.cpp:139] Memory required for data: 954800
I0428 19:38:57.245820 24174 layer_factory.hpp:77] Creating layer ip1
I0428 19:38:57.245836 24174 net.cpp:86] Creating Layer ip1
I0428 19:38:57.245853 24174 net.cpp:408] ip1 <- pool1
I0428 19:38:57.245865 24174 net.cpp:382] ip1 -> ip1
I0428 19:38:57.245983 24174 net.cpp:124] Setting up ip1
I0428 19:38:57.245993 24174 net.cpp:131] Top shape: 100 10 (1000)
I0428 19:38:57.246011 24174 net.cpp:139] Memory required for data: 958800
I0428 19:38:57.246026 24174 layer_factory.hpp:77] Creating layer relu1
I0428 19:38:57.246035 24174 net.cpp:86] Creating Layer relu1
I0428 19:38:57.246044 24174 net.cpp:408] relu1 <- ip1
I0428 19:38:57.246052 24174 net.cpp:369] relu1 -> ip1 (in-place)
I0428 19:38:57.246320 24174 net.cpp:124] Setting up relu1
I0428 19:38:57.246332 24174 net.cpp:131] Top shape: 100 10 (1000)
I0428 19:38:57.246338 24174 net.cpp:139] Memory required for data: 962800
I0428 19:38:57.246345 24174 layer_factory.hpp:77] Creating layer ip2
I0428 19:38:57.246356 24174 net.cpp:86] Creating Layer ip2
I0428 19:38:57.246362 24174 net.cpp:408] ip2 <- ip1
I0428 19:38:57.246374 24174 net.cpp:382] ip2 -> ip2
I0428 19:38:57.246492 24174 net.cpp:124] Setting up ip2
I0428 19:38:57.246502 24174 net.cpp:131] Top shape: 100 25 (2500)
I0428 19:38:57.246508 24174 net.cpp:139] Memory required for data: 972800
I0428 19:38:57.246518 24174 layer_factory.hpp:77] Creating layer relu2
I0428 19:38:57.246527 24174 net.cpp:86] Creating Layer relu2
I0428 19:38:57.246533 24174 net.cpp:408] relu2 <- ip2
I0428 19:38:57.246543 24174 net.cpp:369] relu2 -> ip2 (in-place)
I0428 19:38:57.246845 24174 net.cpp:124] Setting up relu2
I0428 19:38:57.246855 24174 net.cpp:131] Top shape: 100 25 (2500)
I0428 19:38:57.246861 24174 net.cpp:139] Memory required for data: 982800
I0428 19:38:57.246877 24174 layer_factory.hpp:77] Creating layer ip3
I0428 19:38:57.246891 24174 net.cpp:86] Creating Layer ip3
I0428 19:38:57.246898 24174 net.cpp:408] ip3 <- ip2
I0428 19:38:57.246907 24174 net.cpp:382] ip3 -> ip3
I0428 19:38:57.247025 24174 net.cpp:124] Setting up ip3
I0428 19:38:57.247035 24174 net.cpp:131] Top shape: 100 10 (1000)
I0428 19:38:57.247041 24174 net.cpp:139] Memory required for data: 986800
I0428 19:38:57.247054 24174 layer_factory.hpp:77] Creating layer relu3
I0428 19:38:57.247066 24174 net.cpp:86] Creating Layer relu3
I0428 19:38:57.247073 24174 net.cpp:408] relu3 <- ip3
I0428 19:38:57.247081 24174 net.cpp:369] relu3 -> ip3 (in-place)
I0428 19:38:57.247941 24174 net.cpp:124] Setting up relu3
I0428 19:38:57.247972 24174 net.cpp:131] Top shape: 100 10 (1000)
I0428 19:38:57.247979 24174 net.cpp:139] Memory required for data: 990800
I0428 19:38:57.247985 24174 layer_factory.hpp:77] Creating layer ip3_relu3_0_split
I0428 19:38:57.247994 24174 net.cpp:86] Creating Layer ip3_relu3_0_split
I0428 19:38:57.248000 24174 net.cpp:408] ip3_relu3_0_split <- ip3
I0428 19:38:57.248009 24174 net.cpp:382] ip3_relu3_0_split -> ip3_relu3_0_split_0
I0428 19:38:57.248020 24174 net.cpp:382] ip3_relu3_0_split -> ip3_relu3_0_split_1
I0428 19:38:57.248073 24174 net.cpp:124] Setting up ip3_relu3_0_split
I0428 19:38:57.248083 24174 net.cpp:131] Top shape: 100 10 (1000)
I0428 19:38:57.248091 24174 net.cpp:131] Top shape: 100 10 (1000)
I0428 19:38:57.248096 24174 net.cpp:139] Memory required for data: 998800
I0428 19:38:57.248102 24174 layer_factory.hpp:77] Creating layer accuracy
I0428 19:38:57.248112 24174 net.cpp:86] Creating Layer accuracy
I0428 19:38:57.248119 24174 net.cpp:408] accuracy <- ip3_relu3_0_split_0
I0428 19:38:57.248126 24174 net.cpp:408] accuracy <- label_mnist_1_split_0
I0428 19:38:57.248137 24174 net.cpp:382] accuracy -> accuracy
…
