…
I0428 20:06:42.920740 30932 net.cpp:296] The NetState phase (0) differed from the phase (1) specified by a rule in layer mnist
I0428 20:06:42.920771 30932 net.cpp:296] The NetState phase (0) differed from the phase (1) specified by a rule in layer accuracy
I0428 20:06:42.920876 30932 net.cpp:53] Initializing net from parameters: 
name: "LeNet"
state {
  phase: TRAIN
  level: 0
  stage: ""
}
layer {
  name: "mnist"
  type: "Data"
  top: "data"
  top: "label"
  include {
    phase: TRAIN
  }
  transform_param {
    scale: 0.00390625
  }
  data_param {
    source: "examples/mnist/mnist_train_lmdb"
    batch_size: 64
    backend: LMDB
  }
}
layer {
  name: "conv0"
  type: "Convolution"
  bottom: "data"
  top: "conv0"
  param {
    lr_mult: 1
  }
  param {
    lr_mult: 2
  }
  convolution_param {
    num_output: 25
    kernel_size: 5
    stride: 1
    weight_filler {
      type: "xavier"
    }
    bias_filler {
      type: "constant"
    }
  }
}
layer {
  name: "pool0"
  type: "Pooling"
  bottom: "conv0"
  top: "pool0"
  pooling_param {
    pool: MAX
    kernel_size: 2
    stride: 2
  }
}
layer {
  name: "conv1"
  type: "Convolution"
  bottom: "pool0"
  top: "conv1"
  param {
    lr_mult: 1
  }
  param {
    lr_mult: 2
  }
  convolution_param {
    num_output: 5
    kernel_size: 5
    stride: 1
    weight_filler {
      type: "xavier"
    }
    bias_filler {
      type: "constant"
    }
  }
}
layer {
  name: "pool1"
  type: "Pooling"
  bottom: "conv1"
  top: "pool1"
  pooling_param {
    pool: MAX
    kernel_size: 2
    stride: 2
  }
}
layer {
  name: "ip1"
  type: "InnerProduct"
  bottom: "pool1"
  top: "ip1"
  param {
    lr_mult: 1
  }
  param {
    lr_mult: 2
  }
  inner_product_param {
    num_output: 25
    weight_filler {
      type: "xavier"
    }
    bias_filler {
      type: "constant"
    }
  }
}
layer {
  name: "relu1"
  type: "ReLU"
  bottom: "ip1"
  top: "ip1"
}
layer {
  name: "ip2"
  type: "InnerProduct"
  bottom: "ip1"
  top: "ip2"
  param {
    lr_mult: 1
  }
  param {
    lr_mult: 2
  }
  inner_product_param {
    num_output: 10
    weight_filler {
      type: "xavier"
    }
    bias_filler {
      type: "constant"
    }
  }
}
layer {
  name: "relu2"
  type: "ReLU"
  bottom: "ip2"
  top: "ip2"
}
layer {
  name: "ip3"
  type: "InnerProduct"
  bottom: "ip2"
  top: "ip3"
  param {
    lr_mult: 1
  }
  param {
    lr_mult: 2
  }
  inner_product_param {
    num_output: 10
    weight_filler {
      type: "xavier"
    }
    bias_filler {
      type: "constant"
    }
  }
}
layer {
  name: "relu3"
  type: "ReLU"
  bottom: "ip3"
  top: "ip3"
}
layer {
  name: "loss"
  type: "SoftmaxWithLoss"
  bottom: "ip3"
  bottom: "label"
  top: "loss"
}
I0428 20:06:42.920940 30932 layer_factory.hpp:77] Creating layer mnist
I0428 20:06:42.921021 30932 db_lmdb.cpp:35] Opened lmdb examples/mnist/mnist_train_lmdb
I0428 20:06:42.921041 30932 net.cpp:86] Creating Layer mnist
I0428 20:06:42.921047 30932 net.cpp:382] mnist -> data
I0428 20:06:42.921066 30932 net.cpp:382] mnist -> label
I0428 20:06:42.922021 30932 data_layer.cpp:45] output data size: 64,1,28,28
I0428 20:06:42.924299 30932 net.cpp:124] Setting up mnist
I0428 20:06:42.924329 30932 net.cpp:131] Top shape: 64 1 28 28 (50176)
I0428 20:06:42.924335 30932 net.cpp:131] Top shape: 64 (64)
I0428 20:06:42.924337 30932 net.cpp:139] Memory required for data: 200960
I0428 20:06:42.924342 30932 layer_factory.hpp:77] Creating layer conv0
I0428 20:06:42.924357 30932 net.cpp:86] Creating Layer conv0
I0428 20:06:42.924379 30932 net.cpp:408] conv0 <- data
I0428 20:06:42.924391 30932 net.cpp:382] conv0 -> conv0
I0428 20:06:43.150521 30932 net.cpp:124] Setting up conv0
I0428 20:06:43.150563 30932 net.cpp:131] Top shape: 64 25 24 24 (921600)
I0428 20:06:43.150566 30932 net.cpp:139] Memory required for data: 3887360
I0428 20:06:43.150581 30932 layer_factory.hpp:77] Creating layer pool0
I0428 20:06:43.150609 30932 net.cpp:86] Creating Layer pool0
I0428 20:06:43.150612 30932 net.cpp:408] pool0 <- conv0
I0428 20:06:43.150631 30932 net.cpp:382] pool0 -> pool0
I0428 20:06:43.150673 30932 net.cpp:124] Setting up pool0
I0428 20:06:43.150681 30932 net.cpp:131] Top shape: 64 25 12 12 (230400)
I0428 20:06:43.150682 30932 net.cpp:139] Memory required for data: 4808960
I0428 20:06:43.150686 30932 layer_factory.hpp:77] Creating layer conv1
I0428 20:06:43.150696 30932 net.cpp:86] Creating Layer conv1
I0428 20:06:43.150698 30932 net.cpp:408] conv1 <- pool0
I0428 20:06:43.150703 30932 net.cpp:382] conv1 -> conv1
I0428 20:06:43.153671 30932 net.cpp:124] Setting up conv1
I0428 20:06:43.153686 30932 net.cpp:131] Top shape: 64 5 8 8 (20480)
I0428 20:06:43.153689 30932 net.cpp:139] Memory required for data: 4890880
I0428 20:06:43.153697 30932 layer_factory.hpp:77] Creating layer pool1
I0428 20:06:43.153703 30932 net.cpp:86] Creating Layer pool1
I0428 20:06:43.153707 30932 net.cpp:408] pool1 <- conv1
I0428 20:06:43.153710 30932 net.cpp:382] pool1 -> pool1
I0428 20:06:43.153760 30932 net.cpp:124] Setting up pool1
I0428 20:06:43.153766 30932 net.cpp:131] Top shape: 64 5 4 4 (5120)
I0428 20:06:43.153769 30932 net.cpp:139] Memory required for data: 4911360
I0428 20:06:43.153772 30932 layer_factory.hpp:77] Creating layer ip1
I0428 20:06:43.153779 30932 net.cpp:86] Creating Layer ip1
I0428 20:06:43.153782 30932 net.cpp:408] ip1 <- pool1
I0428 20:06:43.153787 30932 net.cpp:382] ip1 -> ip1
I0428 20:06:43.153887 30932 net.cpp:124] Setting up ip1
I0428 20:06:43.153893 30932 net.cpp:131] Top shape: 64 25 (1600)
I0428 20:06:43.153897 30932 net.cpp:139] Memory required for data: 4917760
I0428 20:06:43.153903 30932 layer_factory.hpp:77] Creating layer relu1
I0428 20:06:43.153908 30932 net.cpp:86] Creating Layer relu1
I0428 20:06:43.153911 30932 net.cpp:408] relu1 <- ip1
I0428 20:06:43.153915 30932 net.cpp:369] relu1 -> ip1 (in-place)
I0428 20:06:43.154067 30932 net.cpp:124] Setting up relu1
I0428 20:06:43.154075 30932 net.cpp:131] Top shape: 64 25 (1600)
I0428 20:06:43.154078 30932 net.cpp:139] Memory required for data: 4924160
I0428 20:06:43.154081 30932 layer_factory.hpp:77] Creating layer ip2
I0428 20:06:43.154088 30932 net.cpp:86] Creating Layer ip2
I0428 20:06:43.154090 30932 net.cpp:408] ip2 <- ip1
I0428 20:06:43.154095 30932 net.cpp:382] ip2 -> ip2
I0428 20:06:43.154176 30932 net.cpp:124] Setting up ip2
I0428 20:06:43.154183 30932 net.cpp:131] Top shape: 64 10 (640)
I0428 20:06:43.154186 30932 net.cpp:139] Memory required for data: 4926720
I0428 20:06:43.154191 30932 layer_factory.hpp:77] Creating layer relu2
I0428 20:06:43.154196 30932 net.cpp:86] Creating Layer relu2
I0428 20:06:43.154199 30932 net.cpp:408] relu2 <- ip2
I0428 20:06:43.154202 30932 net.cpp:369] relu2 -> ip2 (in-place)
I0428 20:06:43.154904 30932 net.cpp:124] Setting up relu2
I0428 20:06:43.154917 30932 net.cpp:131] Top shape: 64 10 (640)
I0428 20:06:43.154937 30932 net.cpp:139] Memory required for data: 4929280
I0428 20:06:43.154940 30932 layer_factory.hpp:77] Creating layer ip3
I0428 20:06:43.154947 30932 net.cpp:86] Creating Layer ip3
I0428 20:06:43.154950 30932 net.cpp:408] ip3 <- ip2
I0428 20:06:43.154955 30932 net.cpp:382] ip3 -> ip3
I0428 20:06:43.155047 30932 net.cpp:124] Setting up ip3
I0428 20:06:43.155055 30932 net.cpp:131] Top shape: 64 10 (640)
I0428 20:06:43.155058 30932 net.cpp:139] Memory required for data: 4931840
I0428 20:06:43.155066 30932 layer_factory.hpp:77] Creating layer relu3
I0428 20:06:43.155071 30932 net.cpp:86] Creating Layer relu3
I0428 20:06:43.155073 30932 net.cpp:408] relu3 <- ip3
I0428 20:06:43.155077 30932 net.cpp:369] relu3 -> ip3 (in-place)
I0428 20:06:43.155236 30932 net.cpp:124] Setting up relu3
I0428 20:06:43.155244 30932 net.cpp:131] Top shape: 64 10 (640)
I0428 20:06:43.155247 30932 net.cpp:139] Memory required for data: 4934400
I0428 20:06:43.155251 30932 layer_factory.hpp:77] Creating layer loss
I0428 20:06:43.155256 30932 net.cpp:86] Creating Layer loss
I0428 20:06:43.155259 30932 net.cpp:408] loss <- ip3
I0428 20:06:43.155262 30932 net.cpp:408] loss <- label
I0428 20:06:43.155268 30932 net.cpp:382] loss -> loss
I0428 20:06:43.155282 30932 layer_factory.hpp:77] Creating layer loss
…
I0428 20:06:43.155936 30932 solver.cpp:173] Creating test net (#0) specified by net file: ECE595/mnist/train_test/var_everything2/lenet_train_test1035.prototxt
I0428 20:06:43.155977 30932 net.cpp:296] The NetState phase (1) differed from the phase (0) specified by a rule in layer mnist
I0428 20:06:43.156062 30932 net.cpp:53] Initializing net from parameters: 
name: "LeNet"
state {
  phase: TEST
}
layer {
  name: "mnist"
  type: "Data"
  top: "data"
  top: "label"
  include {
    phase: TEST
  }
  transform_param {
    scale: 0.00390625
  }
  data_param {
    source: "examples/mnist/mnist_test_lmdb"
    batch_size: 100
    backend: LMDB
  }
}
layer {
  name: "conv0"
  type: "Convolution"
  bottom: "data"
  top: "conv0"
  param {
    lr_mult: 1
  }
  param {
    lr_mult: 2
  }
  convolution_param {
    num_output: 25
    kernel_size: 5
    stride: 1
    weight_filler {
      type: "xavier"
    }
    bias_filler {
      type: "constant"
    }
  }
}
layer {
  name: "pool0"
  type: "Pooling"
  bottom: "conv0"
  top: "pool0"
  pooling_param {
    pool: MAX
    kernel_size: 2
    stride: 2
  }
}
layer {
  name: "conv1"
  type: "Convolution"
  bottom: "pool0"
  top: "conv1"
  param {
    lr_mult: 1
  }
  param {
    lr_mult: 2
  }
  convolution_param {
    num_output: 5
    kernel_size: 5
    stride: 1
    weight_filler {
      type: "xavier"
    }
    bias_filler {
      type: "constant"
    }
  }
}
layer {
  name: "pool1"
  type: "Pooling"
  bottom: "conv1"
  top: "pool1"
  pooling_param {
    pool: MAX
    kernel_size: 2
    stride: 2
  }
}
layer {
  name: "ip1"
  type: "InnerProduct"
  bottom: "pool1"
  top: "ip1"
  param {
    lr_mult: 1
  }
  param {
    lr_mult: 2
  }
  inner_product_param {
    num_output: 25
    weight_filler {
      type: "xavier"
    }
    bias_filler {
      type: "constant"
    }
  }
}
layer {
  name: "relu1"
  type: "ReLU"
  bottom: "ip1"
  top: "ip1"
}
layer {
  name: "ip2"
  type: "InnerProduct"
  bottom: "ip1"
  top: "ip2"
  param {
    lr_mult: 1
  }
  param {
    lr_mult: 2
  }
  inner_product_param {
    num_output: 10
    weight_filler {
      type: "xavier"
    }
    bias_filler {
      type: "constant"
    }
  }
}
layer {
  name: "relu2"
  type: "ReLU"
  bottom: "ip2"
  top: "ip2"
}
layer {
  name: "ip3"
  type: "InnerProduct"
  bottom: "ip2"
  top: "ip3"
  param {
    lr_mult: 1
  }
  param {
    lr_mult: 2
  }
  inner_product_param {
    num_output: 10
    weight_filler {
      type: "xavier"
    }
    bias_filler {
      type: "constant"
    }
  }
}
layer {
  name: "relu3"
  type: "ReLU"
  bottom: "ip3"
  top: "ip3"
}
layer {
  name: "accuracy"
  type: "Accuracy"
  bottom: "ip3"
  bottom: "label"
  top: "accuracy"
  include {
    phase: TEST
  }
}
layer {
  name: "loss"
  type: "SoftmaxWithLoss"
  bottom: "ip3"
  bottom: "label"
  top: "loss"
}
I0428 20:06:43.156136 30932 layer_factory.hpp:77] Creating layer mnist
I0428 20:06:43.156178 30932 db_lmdb.cpp:35] Opened lmdb examples/mnist/mnist_test_lmdb
I0428 20:06:43.156189 30932 net.cpp:86] Creating Layer mnist
I0428 20:06:43.156193 30932 net.cpp:382] mnist -> data
I0428 20:06:43.156201 30932 net.cpp:382] mnist -> label
I0428 20:06:43.156277 30932 data_layer.cpp:45] output data size: 100,1,28,28
I0428 20:06:43.158197 30932 net.cpp:124] Setting up mnist
I0428 20:06:43.158229 30932 net.cpp:131] Top shape: 100 1 28 28 (78400)
I0428 20:06:43.158234 30932 net.cpp:131] Top shape: 100 (100)
I0428 20:06:43.158237 30932 net.cpp:139] Memory required for data: 314000
I0428 20:06:43.158241 30932 layer_factory.hpp:77] Creating layer label_mnist_1_split
I0428 20:06:43.158247 30932 net.cpp:86] Creating Layer label_mnist_1_split
I0428 20:06:43.158252 30932 net.cpp:408] label_mnist_1_split <- label
I0428 20:06:43.158255 30932 net.cpp:382] label_mnist_1_split -> label_mnist_1_split_0
I0428 20:06:43.158264 30932 net.cpp:382] label_mnist_1_split -> label_mnist_1_split_1
I0428 20:06:43.158344 30932 net.cpp:124] Setting up label_mnist_1_split
I0428 20:06:43.158351 30932 net.cpp:131] Top shape: 100 (100)
I0428 20:06:43.158355 30932 net.cpp:131] Top shape: 100 (100)
I0428 20:06:43.158359 30932 net.cpp:139] Memory required for data: 314800
I0428 20:06:43.158360 30932 layer_factory.hpp:77] Creating layer conv0
I0428 20:06:43.158370 30932 net.cpp:86] Creating Layer conv0
I0428 20:06:43.158372 30932 net.cpp:408] conv0 <- data
I0428 20:06:43.158377 30932 net.cpp:382] conv0 -> conv0
I0428 20:06:43.159914 30932 net.cpp:124] Setting up conv0
I0428 20:06:43.159943 30932 net.cpp:131] Top shape: 100 25 24 24 (1440000)
I0428 20:06:43.159946 30932 net.cpp:139] Memory required for data: 6074800
I0428 20:06:43.159956 30932 layer_factory.hpp:77] Creating layer pool0
I0428 20:06:43.159963 30932 net.cpp:86] Creating Layer pool0
I0428 20:06:43.159967 30932 net.cpp:408] pool0 <- conv0
I0428 20:06:43.159971 30932 net.cpp:382] pool0 -> pool0
I0428 20:06:43.160007 30932 net.cpp:124] Setting up pool0
I0428 20:06:43.160013 30932 net.cpp:131] Top shape: 100 25 12 12 (360000)
I0428 20:06:43.160017 30932 net.cpp:139] Memory required for data: 7514800
I0428 20:06:43.160019 30932 layer_factory.hpp:77] Creating layer conv1
I0428 20:06:43.160027 30932 net.cpp:86] Creating Layer conv1
I0428 20:06:43.160030 30932 net.cpp:408] conv1 <- pool0
I0428 20:06:43.160034 30932 net.cpp:382] conv1 -> conv1
I0428 20:06:43.162019 30932 net.cpp:124] Setting up conv1
I0428 20:06:43.162047 30932 net.cpp:131] Top shape: 100 5 8 8 (32000)
I0428 20:06:43.162051 30932 net.cpp:139] Memory required for data: 7642800
I0428 20:06:43.162060 30932 layer_factory.hpp:77] Creating layer pool1
I0428 20:06:43.162065 30932 net.cpp:86] Creating Layer pool1
I0428 20:06:43.162068 30932 net.cpp:408] pool1 <- conv1
I0428 20:06:43.162073 30932 net.cpp:382] pool1 -> pool1
I0428 20:06:43.162154 30932 net.cpp:124] Setting up pool1
I0428 20:06:43.162165 30932 net.cpp:131] Top shape: 100 5 4 4 (8000)
I0428 20:06:43.162171 30932 net.cpp:139] Memory required for data: 7674800
I0428 20:06:43.162195 30932 layer_factory.hpp:77] Creating layer ip1
I0428 20:06:43.162205 30932 net.cpp:86] Creating Layer ip1
I0428 20:06:43.162210 30932 net.cpp:408] ip1 <- pool1
I0428 20:06:43.162220 30932 net.cpp:382] ip1 -> ip1
I0428 20:06:43.162358 30932 net.cpp:124] Setting up ip1
I0428 20:06:43.162367 30932 net.cpp:131] Top shape: 100 25 (2500)
I0428 20:06:43.162382 30932 net.cpp:139] Memory required for data: 7684800
I0428 20:06:43.162390 30932 layer_factory.hpp:77] Creating layer relu1
I0428 20:06:43.162396 30932 net.cpp:86] Creating Layer relu1
I0428 20:06:43.162400 30932 net.cpp:408] relu1 <- ip1
I0428 20:06:43.162405 30932 net.cpp:369] relu1 -> ip1 (in-place)
I0428 20:06:43.162586 30932 net.cpp:124] Setting up relu1
I0428 20:06:43.162598 30932 net.cpp:131] Top shape: 100 25 (2500)
I0428 20:06:43.162601 30932 net.cpp:139] Memory required for data: 7694800
I0428 20:06:43.162606 30932 layer_factory.hpp:77] Creating layer ip2
I0428 20:06:43.162612 30932 net.cpp:86] Creating Layer ip2
I0428 20:06:43.162616 30932 net.cpp:408] ip2 <- ip1
I0428 20:06:43.162619 30932 net.cpp:382] ip2 -> ip2
I0428 20:06:43.162729 30932 net.cpp:124] Setting up ip2
I0428 20:06:43.162736 30932 net.cpp:131] Top shape: 100 10 (1000)
I0428 20:06:43.162739 30932 net.cpp:139] Memory required for data: 7698800
I0428 20:06:43.162745 30932 layer_factory.hpp:77] Creating layer relu2
I0428 20:06:43.162750 30932 net.cpp:86] Creating Layer relu2
I0428 20:06:43.162753 30932 net.cpp:408] relu2 <- ip2
I0428 20:06:43.162757 30932 net.cpp:369] relu2 -> ip2 (in-place)
I0428 20:06:43.162936 30932 net.cpp:124] Setting up relu2
I0428 20:06:43.162946 30932 net.cpp:131] Top shape: 100 10 (1000)
I0428 20:06:43.162950 30932 net.cpp:139] Memory required for data: 7702800
I0428 20:06:43.162953 30932 layer_factory.hpp:77] Creating layer ip3
I0428 20:06:43.162958 30932 net.cpp:86] Creating Layer ip3
I0428 20:06:43.162961 30932 net.cpp:408] ip3 <- ip2
I0428 20:06:43.162966 30932 net.cpp:382] ip3 -> ip3
I0428 20:06:43.163074 30932 net.cpp:124] Setting up ip3
I0428 20:06:43.163084 30932 net.cpp:131] Top shape: 100 10 (1000)
I0428 20:06:43.163091 30932 net.cpp:139] Memory required for data: 7706800
I0428 20:06:43.163099 30932 layer_factory.hpp:77] Creating layer relu3
I0428 20:06:43.163105 30932 net.cpp:86] Creating Layer relu3
I0428 20:06:43.163107 30932 net.cpp:408] relu3 <- ip3
I0428 20:06:43.163111 30932 net.cpp:369] relu3 -> ip3 (in-place)
I0428 20:06:43.163964 30932 net.cpp:124] Setting up relu3
I0428 20:06:43.163975 30932 net.cpp:131] Top shape: 100 10 (1000)
I0428 20:06:43.163993 30932 net.cpp:139] Memory required for data: 7710800
I0428 20:06:43.163997 30932 layer_factory.hpp:77] Creating layer ip3_relu3_0_split
I0428 20:06:43.164002 30932 net.cpp:86] Creating Layer ip3_relu3_0_split
I0428 20:06:43.164005 30932 net.cpp:408] ip3_relu3_0_split <- ip3
I0428 20:06:43.164011 30932 net.cpp:382] ip3_relu3_0_split -> ip3_relu3_0_split_0
I0428 20:06:43.164017 30932 net.cpp:382] ip3_relu3_0_split -> ip3_relu3_0_split_1
I0428 20:06:43.164059 30932 net.cpp:124] Setting up ip3_relu3_0_split
I0428 20:06:43.164065 30932 net.cpp:131] Top shape: 100 10 (1000)
I0428 20:06:43.164069 30932 net.cpp:131] Top shape: 100 10 (1000)
I0428 20:06:43.164072 30932 net.cpp:139] Memory required for data: 7718800
I0428 20:06:43.164074 30932 layer_factory.hpp:77] Creating layer accuracy
I0428 20:06:43.164080 30932 net.cpp:86] Creating Layer accuracy
I0428 20:06:43.164084 30932 net.cpp:408] accuracy <- ip3_relu3_0_split_0
I0428 20:06:43.164088 30932 net.cpp:408] accuracy <- label_mnist_1_split_0
I0428 20:06:43.164093 30932 net.cpp:382] accuracy -> accuracy
…
