…
I0428 20:17:45.320835   979 net.cpp:296] The NetState phase (0) differed from the phase (1) specified by a rule in layer mnist
I0428 20:17:45.320849   979 net.cpp:296] The NetState phase (0) differed from the phase (1) specified by a rule in layer accuracy
I0428 20:17:45.320930   979 net.cpp:53] Initializing net from parameters: 
name: "LeNet"
state {
  phase: TRAIN
  level: 0
  stage: ""
}
layer {
  name: "mnist"
  type: "Data"
  top: "data"
  top: "label"
  include {
    phase: TRAIN
  }
  transform_param {
    scale: 0.00390625
  }
  data_param {
    source: "examples/mnist/mnist_train_lmdb"
    batch_size: 64
    backend: LMDB
  }
}
layer {
  name: "conv0"
  type: "Convolution"
  bottom: "data"
  top: "conv0"
  param {
    lr_mult: 1
  }
  param {
    lr_mult: 2
  }
  convolution_param {
    num_output: 50
    kernel_size: 5
    stride: 1
    weight_filler {
      type: "xavier"
    }
    bias_filler {
      type: "constant"
    }
  }
}
layer {
  name: "pool0"
  type: "Pooling"
  bottom: "conv0"
  top: "pool0"
  pooling_param {
    pool: MAX
    kernel_size: 2
    stride: 2
  }
}
layer {
  name: "conv1"
  type: "Convolution"
  bottom: "pool0"
  top: "conv1"
  param {
    lr_mult: 1
  }
  param {
    lr_mult: 2
  }
  convolution_param {
    num_output: 10
    kernel_size: 5
    stride: 1
    weight_filler {
      type: "xavier"
    }
    bias_filler {
      type: "constant"
    }
  }
}
layer {
  name: "pool1"
  type: "Pooling"
  bottom: "conv1"
  top: "pool1"
  pooling_param {
    pool: MAX
    kernel_size: 2
    stride: 2
  }
}
layer {
  name: "ip1"
  type: "InnerProduct"
  bottom: "pool1"
  top: "ip1"
  param {
    lr_mult: 1
  }
  param {
    lr_mult: 2
  }
  inner_product_param {
    num_output: 10
    weight_filler {
      type: "xavier"
    }
    bias_filler {
      type: "constant"
    }
  }
}
layer {
  name: "relu1"
  type: "ReLU"
  bottom: "ip1"
  top: "ip1"
}
layer {
  name: "ip2"
  type: "InnerProduct"
  bottom: "ip1"
  top: "ip2"
  param {
    lr_mult: 1
  }
  param {
    lr_mult: 2
  }
  inner_product_param {
    num_output: 25
    weight_filler {
      type: "xavier"
    }
    bias_filler {
      type: "constant"
    }
  }
}
layer {
  name: "relu2"
  type: "ReLU"
  bottom: "ip2"
  top: "ip2"
}
layer {
  name: "ip3"
  type: "InnerProduct"
  bottom: "ip2"
  top: "ip3"
  param {
    lr_mult: 1
  }
  param {
    lr_mult: 2
  }
  inner_product_param {
    num_output: 10
    weight_filler {
      type: "xavier"
    }
    bias_filler {
      type: "constant"
    }
  }
}
layer {
  name: "relu3"
  type: "ReLU"
  bottom: "ip3"
  top: "ip3"
}
layer {
  name: "loss"
  type: "SoftmaxWithLoss"
  bottom: "ip3"
  bottom: "label"
  top: "loss"
}
I0428 20:17:45.321002   979 layer_factory.hpp:77] Creating layer mnist
I0428 20:17:45.321087   979 db_lmdb.cpp:35] Opened lmdb examples/mnist/mnist_train_lmdb
I0428 20:17:45.321107   979 net.cpp:86] Creating Layer mnist
I0428 20:17:45.321115   979 net.cpp:382] mnist -> data
I0428 20:17:45.321133   979 net.cpp:382] mnist -> label
I0428 20:17:45.322073   979 data_layer.cpp:45] output data size: 64,1,28,28
I0428 20:17:45.324211   979 net.cpp:124] Setting up mnist
I0428 20:17:45.324226   979 net.cpp:131] Top shape: 64 1 28 28 (50176)
I0428 20:17:45.324231   979 net.cpp:131] Top shape: 64 (64)
I0428 20:17:45.324234   979 net.cpp:139] Memory required for data: 200960
I0428 20:17:45.324240   979 layer_factory.hpp:77] Creating layer conv0
I0428 20:17:45.324254   979 net.cpp:86] Creating Layer conv0
I0428 20:17:45.324270   979 net.cpp:408] conv0 <- data
I0428 20:17:45.324280   979 net.cpp:382] conv0 -> conv0
I0428 20:17:45.577767   979 net.cpp:124] Setting up conv0
I0428 20:17:45.577795   979 net.cpp:131] Top shape: 64 50 24 24 (1843200)
I0428 20:17:45.577798   979 net.cpp:139] Memory required for data: 7573760
I0428 20:17:45.577828   979 layer_factory.hpp:77] Creating layer pool0
I0428 20:17:45.577841   979 net.cpp:86] Creating Layer pool0
I0428 20:17:45.577847   979 net.cpp:408] pool0 <- conv0
I0428 20:17:45.577852   979 net.cpp:382] pool0 -> pool0
I0428 20:17:45.577898   979 net.cpp:124] Setting up pool0
I0428 20:17:45.577905   979 net.cpp:131] Top shape: 64 50 12 12 (460800)
I0428 20:17:45.577908   979 net.cpp:139] Memory required for data: 9416960
I0428 20:17:45.577911   979 layer_factory.hpp:77] Creating layer conv1
I0428 20:17:45.577921   979 net.cpp:86] Creating Layer conv1
I0428 20:17:45.577925   979 net.cpp:408] conv1 <- pool0
I0428 20:17:45.577930   979 net.cpp:382] conv1 -> conv1
I0428 20:17:45.580930   979 net.cpp:124] Setting up conv1
I0428 20:17:45.580945   979 net.cpp:131] Top shape: 64 10 8 8 (40960)
I0428 20:17:45.580950   979 net.cpp:139] Memory required for data: 9580800
I0428 20:17:45.580958   979 layer_factory.hpp:77] Creating layer pool1
I0428 20:17:45.580965   979 net.cpp:86] Creating Layer pool1
I0428 20:17:45.580970   979 net.cpp:408] pool1 <- conv1
I0428 20:17:45.580974   979 net.cpp:382] pool1 -> pool1
I0428 20:17:45.581012   979 net.cpp:124] Setting up pool1
I0428 20:17:45.581019   979 net.cpp:131] Top shape: 64 10 4 4 (10240)
I0428 20:17:45.581043   979 net.cpp:139] Memory required for data: 9621760
I0428 20:17:45.581063   979 layer_factory.hpp:77] Creating layer ip1
I0428 20:17:45.581071   979 net.cpp:86] Creating Layer ip1
I0428 20:17:45.581075   979 net.cpp:408] ip1 <- pool1
I0428 20:17:45.581080   979 net.cpp:382] ip1 -> ip1
I0428 20:17:45.581205   979 net.cpp:124] Setting up ip1
I0428 20:17:45.581213   979 net.cpp:131] Top shape: 64 10 (640)
I0428 20:17:45.581217   979 net.cpp:139] Memory required for data: 9624320
I0428 20:17:45.581223   979 layer_factory.hpp:77] Creating layer relu1
I0428 20:17:45.581229   979 net.cpp:86] Creating Layer relu1
I0428 20:17:45.581233   979 net.cpp:408] relu1 <- ip1
I0428 20:17:45.581238   979 net.cpp:369] relu1 -> ip1 (in-place)
I0428 20:17:45.581426   979 net.cpp:124] Setting up relu1
I0428 20:17:45.581435   979 net.cpp:131] Top shape: 64 10 (640)
I0428 20:17:45.581439   979 net.cpp:139] Memory required for data: 9626880
I0428 20:17:45.581441   979 layer_factory.hpp:77] Creating layer ip2
I0428 20:17:45.581447   979 net.cpp:86] Creating Layer ip2
I0428 20:17:45.581450   979 net.cpp:408] ip2 <- ip1
I0428 20:17:45.581455   979 net.cpp:382] ip2 -> ip2
I0428 20:17:45.581574   979 net.cpp:124] Setting up ip2
I0428 20:17:45.581581   979 net.cpp:131] Top shape: 64 25 (1600)
I0428 20:17:45.581585   979 net.cpp:139] Memory required for data: 9633280
I0428 20:17:45.581591   979 layer_factory.hpp:77] Creating layer relu2
I0428 20:17:45.581598   979 net.cpp:86] Creating Layer relu2
I0428 20:17:45.581600   979 net.cpp:408] relu2 <- ip2
I0428 20:17:45.581604   979 net.cpp:369] relu2 -> ip2 (in-place)
I0428 20:17:45.582411   979 net.cpp:124] Setting up relu2
I0428 20:17:45.582422   979 net.cpp:131] Top shape: 64 25 (1600)
I0428 20:17:45.582425   979 net.cpp:139] Memory required for data: 9639680
I0428 20:17:45.582429   979 layer_factory.hpp:77] Creating layer ip3
I0428 20:17:45.582437   979 net.cpp:86] Creating Layer ip3
I0428 20:17:45.582439   979 net.cpp:408] ip3 <- ip2
I0428 20:17:45.582445   979 net.cpp:382] ip3 -> ip3
I0428 20:17:45.582538   979 net.cpp:124] Setting up ip3
I0428 20:17:45.582546   979 net.cpp:131] Top shape: 64 10 (640)
I0428 20:17:45.582550   979 net.cpp:139] Memory required for data: 9642240
I0428 20:17:45.582557   979 layer_factory.hpp:77] Creating layer relu3
I0428 20:17:45.582562   979 net.cpp:86] Creating Layer relu3
I0428 20:17:45.582566   979 net.cpp:408] relu3 <- ip3
I0428 20:17:45.582569   979 net.cpp:369] relu3 -> ip3 (in-place)
I0428 20:17:45.582744   979 net.cpp:124] Setting up relu3
I0428 20:17:45.582753   979 net.cpp:131] Top shape: 64 10 (640)
I0428 20:17:45.582756   979 net.cpp:139] Memory required for data: 9644800
I0428 20:17:45.582759   979 layer_factory.hpp:77] Creating layer loss
I0428 20:17:45.582765   979 net.cpp:86] Creating Layer loss
I0428 20:17:45.582768   979 net.cpp:408] loss <- ip3
I0428 20:17:45.582772   979 net.cpp:408] loss <- label
I0428 20:17:45.582777   979 net.cpp:382] loss -> loss
I0428 20:17:45.582795   979 layer_factory.hpp:77] Creating layer loss
…
I0428 20:17:45.583461   979 solver.cpp:173] Creating test net (#0) specified by net file: ECE595/mnist/train_test/var_everything2/lenet_train_test1302.prototxt
I0428 20:17:45.583488   979 net.cpp:296] The NetState phase (1) differed from the phase (0) specified by a rule in layer mnist
I0428 20:17:45.583583   979 net.cpp:53] Initializing net from parameters: 
name: "LeNet"
state {
  phase: TEST
}
layer {
  name: "mnist"
  type: "Data"
  top: "data"
  top: "label"
  include {
    phase: TEST
  }
  transform_param {
    scale: 0.00390625
  }
  data_param {
    source: "examples/mnist/mnist_test_lmdb"
    batch_size: 100
    backend: LMDB
  }
}
layer {
  name: "conv0"
  type: "Convolution"
  bottom: "data"
  top: "conv0"
  param {
    lr_mult: 1
  }
  param {
    lr_mult: 2
  }
  convolution_param {
    num_output: 50
    kernel_size: 5
    stride: 1
    weight_filler {
      type: "xavier"
    }
    bias_filler {
      type: "constant"
    }
  }
}
layer {
  name: "pool0"
  type: "Pooling"
  bottom: "conv0"
  top: "pool0"
  pooling_param {
    pool: MAX
    kernel_size: 2
    stride: 2
  }
}
layer {
  name: "conv1"
  type: "Convolution"
  bottom: "pool0"
  top: "conv1"
  param {
    lr_mult: 1
  }
  param {
    lr_mult: 2
  }
  convolution_param {
    num_output: 10
    kernel_size: 5
    stride: 1
    weight_filler {
      type: "xavier"
    }
    bias_filler {
      type: "constant"
    }
  }
}
layer {
  name: "pool1"
  type: "Pooling"
  bottom: "conv1"
  top: "pool1"
  pooling_param {
    pool: MAX
    kernel_size: 2
    stride: 2
  }
}
layer {
  name: "ip1"
  type: "InnerProduct"
  bottom: "pool1"
  top: "ip1"
  param {
    lr_mult: 1
  }
  param {
    lr_mult: 2
  }
  inner_product_param {
    num_output: 10
    weight_filler {
      type: "xavier"
    }
    bias_filler {
      type: "constant"
    }
  }
}
layer {
  name: "relu1"
  type: "ReLU"
  bottom: "ip1"
  top: "ip1"
}
layer {
  name: "ip2"
  type: "InnerProduct"
  bottom: "ip1"
  top: "ip2"
  param {
    lr_mult: 1
  }
  param {
    lr_mult: 2
  }
  inner_product_param {
    num_output: 25
    weight_filler {
      type: "xavier"
    }
    bias_filler {
      type: "constant"
    }
  }
}
layer {
  name: "relu2"
  type: "ReLU"
  bottom: "ip2"
  top: "ip2"
}
layer {
  name: "ip3"
  type: "InnerProduct"
  bottom: "ip2"
  top: "ip3"
  param {
    lr_mult: 1
  }
  param {
    lr_mult: 2
  }
  inner_product_param {
    num_output: 10
    weight_filler {
      type: "xavier"
    }
    bias_filler {
      type: "constant"
    }
  }
}
layer {
  name: "relu3"
  type: "ReLU"
  bottom: "ip3"
  top: "ip3"
}
layer {
  name: "accuracy"
  type: "Accuracy"
  bottom: "ip3"
  bottom: "label"
  top: "accuracy"
  include {
    phase: TEST
  }
}
layer {
  name: "loss"
  type: "SoftmaxWithLoss"
  bottom: "ip3"
  bottom: "label"
  top: "loss"
}
I0428 20:17:45.583689   979 layer_factory.hpp:77] Creating layer mnist
I0428 20:17:45.583734   979 db_lmdb.cpp:35] Opened lmdb examples/mnist/mnist_test_lmdb
I0428 20:17:45.583757   979 net.cpp:86] Creating Layer mnist
I0428 20:17:45.583761   979 net.cpp:382] mnist -> data
I0428 20:17:45.583770   979 net.cpp:382] mnist -> label
I0428 20:17:45.583853   979 data_layer.cpp:45] output data size: 100,1,28,28
I0428 20:17:45.585830   979 net.cpp:124] Setting up mnist
I0428 20:17:45.585844   979 net.cpp:131] Top shape: 100 1 28 28 (78400)
I0428 20:17:45.585850   979 net.cpp:131] Top shape: 100 (100)
I0428 20:17:45.585852   979 net.cpp:139] Memory required for data: 314000
I0428 20:17:45.585856   979 layer_factory.hpp:77] Creating layer label_mnist_1_split
I0428 20:17:45.585863   979 net.cpp:86] Creating Layer label_mnist_1_split
I0428 20:17:45.585866   979 net.cpp:408] label_mnist_1_split <- label
I0428 20:17:45.585870   979 net.cpp:382] label_mnist_1_split -> label_mnist_1_split_0
I0428 20:17:45.585877   979 net.cpp:382] label_mnist_1_split -> label_mnist_1_split_1
I0428 20:17:45.585973   979 net.cpp:124] Setting up label_mnist_1_split
I0428 20:17:45.585980   979 net.cpp:131] Top shape: 100 (100)
I0428 20:17:45.585984   979 net.cpp:131] Top shape: 100 (100)
I0428 20:17:45.585988   979 net.cpp:139] Memory required for data: 314800
I0428 20:17:45.585990   979 layer_factory.hpp:77] Creating layer conv0
I0428 20:17:45.585999   979 net.cpp:86] Creating Layer conv0
I0428 20:17:45.586002   979 net.cpp:408] conv0 <- data
I0428 20:17:45.586007   979 net.cpp:382] conv0 -> conv0
I0428 20:17:45.587659   979 net.cpp:124] Setting up conv0
I0428 20:17:45.587673   979 net.cpp:131] Top shape: 100 50 24 24 (2880000)
I0428 20:17:45.587677   979 net.cpp:139] Memory required for data: 11834800
I0428 20:17:45.587687   979 layer_factory.hpp:77] Creating layer pool0
I0428 20:17:45.587692   979 net.cpp:86] Creating Layer pool0
I0428 20:17:45.587697   979 net.cpp:408] pool0 <- conv0
I0428 20:17:45.587700   979 net.cpp:382] pool0 -> pool0
I0428 20:17:45.587735   979 net.cpp:124] Setting up pool0
I0428 20:17:45.587743   979 net.cpp:131] Top shape: 100 50 12 12 (720000)
I0428 20:17:45.587745   979 net.cpp:139] Memory required for data: 14714800
I0428 20:17:45.587749   979 layer_factory.hpp:77] Creating layer conv1
I0428 20:17:45.587756   979 net.cpp:86] Creating Layer conv1
I0428 20:17:45.587759   979 net.cpp:408] conv1 <- pool0
I0428 20:17:45.587764   979 net.cpp:382] conv1 -> conv1
I0428 20:17:45.589424   979 net.cpp:124] Setting up conv1
I0428 20:17:45.589438   979 net.cpp:131] Top shape: 100 10 8 8 (64000)
I0428 20:17:45.589442   979 net.cpp:139] Memory required for data: 14970800
I0428 20:17:45.589452   979 layer_factory.hpp:77] Creating layer pool1
I0428 20:17:45.589458   979 net.cpp:86] Creating Layer pool1
I0428 20:17:45.589463   979 net.cpp:408] pool1 <- conv1
I0428 20:17:45.589468   979 net.cpp:382] pool1 -> pool1
I0428 20:17:45.589519   979 net.cpp:124] Setting up pool1
I0428 20:17:45.589526   979 net.cpp:131] Top shape: 100 10 4 4 (16000)
I0428 20:17:45.589530   979 net.cpp:139] Memory required for data: 15034800
I0428 20:17:45.589534   979 layer_factory.hpp:77] Creating layer ip1
I0428 20:17:45.589539   979 net.cpp:86] Creating Layer ip1
I0428 20:17:45.589541   979 net.cpp:408] ip1 <- pool1
I0428 20:17:45.589547   979 net.cpp:382] ip1 -> ip1
I0428 20:17:45.589649   979 net.cpp:124] Setting up ip1
I0428 20:17:45.589658   979 net.cpp:131] Top shape: 100 10 (1000)
I0428 20:17:45.589670   979 net.cpp:139] Memory required for data: 15038800
I0428 20:17:45.589679   979 layer_factory.hpp:77] Creating layer relu1
I0428 20:17:45.589684   979 net.cpp:86] Creating Layer relu1
I0428 20:17:45.589686   979 net.cpp:408] relu1 <- ip1
I0428 20:17:45.589690   979 net.cpp:369] relu1 -> ip1 (in-place)
I0428 20:17:45.589906   979 net.cpp:124] Setting up relu1
I0428 20:17:45.589916   979 net.cpp:131] Top shape: 100 10 (1000)
I0428 20:17:45.589920   979 net.cpp:139] Memory required for data: 15042800
I0428 20:17:45.589922   979 layer_factory.hpp:77] Creating layer ip2
I0428 20:17:45.589931   979 net.cpp:86] Creating Layer ip2
I0428 20:17:45.589936   979 net.cpp:408] ip2 <- ip1
I0428 20:17:45.589941   979 net.cpp:382] ip2 -> ip2
I0428 20:17:45.590064   979 net.cpp:124] Setting up ip2
I0428 20:17:45.590088   979 net.cpp:131] Top shape: 100 25 (2500)
I0428 20:17:45.590091   979 net.cpp:139] Memory required for data: 15052800
I0428 20:17:45.590097   979 layer_factory.hpp:77] Creating layer relu2
I0428 20:17:45.590113   979 net.cpp:86] Creating Layer relu2
I0428 20:17:45.590117   979 net.cpp:408] relu2 <- ip2
I0428 20:17:45.590122   979 net.cpp:369] relu2 -> ip2 (in-place)
I0428 20:17:45.590433   979 net.cpp:124] Setting up relu2
I0428 20:17:45.590442   979 net.cpp:131] Top shape: 100 25 (2500)
I0428 20:17:45.590446   979 net.cpp:139] Memory required for data: 15062800
I0428 20:17:45.590450   979 layer_factory.hpp:77] Creating layer ip3
I0428 20:17:45.590456   979 net.cpp:86] Creating Layer ip3
I0428 20:17:45.590459   979 net.cpp:408] ip3 <- ip2
I0428 20:17:45.590464   979 net.cpp:382] ip3 -> ip3
I0428 20:17:45.590565   979 net.cpp:124] Setting up ip3
I0428 20:17:45.590589   979 net.cpp:131] Top shape: 100 10 (1000)
I0428 20:17:45.590606   979 net.cpp:139] Memory required for data: 15066800
I0428 20:17:45.590615   979 layer_factory.hpp:77] Creating layer relu3
I0428 20:17:45.590620   979 net.cpp:86] Creating Layer relu3
I0428 20:17:45.590638   979 net.cpp:408] relu3 <- ip3
I0428 20:17:45.590642   979 net.cpp:369] relu3 -> ip3 (in-place)
I0428 20:17:45.591470   979 net.cpp:124] Setting up relu3
I0428 20:17:45.591482   979 net.cpp:131] Top shape: 100 10 (1000)
I0428 20:17:45.591486   979 net.cpp:139] Memory required for data: 15070800
I0428 20:17:45.591490   979 layer_factory.hpp:77] Creating layer ip3_relu3_0_split
I0428 20:17:45.591495   979 net.cpp:86] Creating Layer ip3_relu3_0_split
I0428 20:17:45.591498   979 net.cpp:408] ip3_relu3_0_split <- ip3
I0428 20:17:45.591503   979 net.cpp:382] ip3_relu3_0_split -> ip3_relu3_0_split_0
I0428 20:17:45.591509   979 net.cpp:382] ip3_relu3_0_split -> ip3_relu3_0_split_1
I0428 20:17:45.591584   979 net.cpp:124] Setting up ip3_relu3_0_split
I0428 20:17:45.591593   979 net.cpp:131] Top shape: 100 10 (1000)
I0428 20:17:45.591596   979 net.cpp:131] Top shape: 100 10 (1000)
I0428 20:17:45.591603   979 net.cpp:139] Memory required for data: 15078800
I0428 20:17:45.591606   979 layer_factory.hpp:77] Creating layer accuracy
I0428 20:17:45.591611   979 net.cpp:86] Creating Layer accuracy
I0428 20:17:45.591614   979 net.cpp:408] accuracy <- ip3_relu3_0_split_0
I0428 20:17:45.591620   979 net.cpp:408] accuracy <- label_mnist_1_split_0
I0428 20:17:45.591624   979 net.cpp:382] accuracy -> accuracy
…
