…
I0428 20:18:38.081904  1179 net.cpp:296] The NetState phase (0) differed from the phase (1) specified by a rule in layer mnist
I0428 20:18:38.081920  1179 net.cpp:296] The NetState phase (0) differed from the phase (1) specified by a rule in layer accuracy
I0428 20:18:38.082000  1179 net.cpp:53] Initializing net from parameters: 
name: "LeNet"
state {
  phase: TRAIN
  level: 0
  stage: ""
}
layer {
  name: "mnist"
  type: "Data"
  top: "data"
  top: "label"
  include {
    phase: TRAIN
  }
  transform_param {
    scale: 0.00390625
  }
  data_param {
    source: "examples/mnist/mnist_train_lmdb"
    batch_size: 64
    backend: LMDB
  }
}
layer {
  name: "conv0"
  type: "Convolution"
  bottom: "data"
  top: "conv0"
  param {
    lr_mult: 1
  }
  param {
    lr_mult: 2
  }
  convolution_param {
    num_output: 50
    kernel_size: 5
    stride: 1
    weight_filler {
      type: "xavier"
    }
    bias_filler {
      type: "constant"
    }
  }
}
layer {
  name: "pool0"
  type: "Pooling"
  bottom: "conv0"
  top: "pool0"
  pooling_param {
    pool: MAX
    kernel_size: 2
    stride: 2
  }
}
layer {
  name: "conv1"
  type: "Convolution"
  bottom: "pool0"
  top: "conv1"
  param {
    lr_mult: 1
  }
  param {
    lr_mult: 2
  }
  convolution_param {
    num_output: 10
    kernel_size: 5
    stride: 1
    weight_filler {
      type: "xavier"
    }
    bias_filler {
      type: "constant"
    }
  }
}
layer {
  name: "pool1"
  type: "Pooling"
  bottom: "conv1"
  top: "pool1"
  pooling_param {
    pool: MAX
    kernel_size: 2
    stride: 2
  }
}
layer {
  name: "ip1"
  type: "InnerProduct"
  bottom: "pool1"
  top: "ip1"
  param {
    lr_mult: 1
  }
  param {
    lr_mult: 2
  }
  inner_product_param {
    num_output: 50
    weight_filler {
      type: "xavier"
    }
    bias_filler {
      type: "constant"
    }
  }
}
layer {
  name: "relu1"
  type: "ReLU"
  bottom: "ip1"
  top: "ip1"
}
layer {
  name: "ip2"
  type: "InnerProduct"
  bottom: "ip1"
  top: "ip2"
  param {
    lr_mult: 1
  }
  param {
    lr_mult: 2
  }
  inner_product_param {
    num_output: 50
    weight_filler {
      type: "xavier"
    }
    bias_filler {
      type: "constant"
    }
  }
}
layer {
  name: "relu2"
  type: "ReLU"
  bottom: "ip2"
  top: "ip2"
}
layer {
  name: "ip3"
  type: "InnerProduct"
  bottom: "ip2"
  top: "ip3"
  param {
    lr_mult: 1
  }
  param {
    lr_mult: 2
  }
  inner_product_param {
    num_output: 10
    weight_filler {
      type: "xavier"
    }
    bias_filler {
      type: "constant"
    }
  }
}
layer {
  name: "relu3"
  type: "ReLU"
  bottom: "ip3"
  top: "ip3"
}
layer {
  name: "loss"
  type: "SoftmaxWithLoss"
  bottom: "ip3"
  bottom: "label"
  top: "loss"
}
I0428 20:18:38.082063  1179 layer_factory.hpp:77] Creating layer mnist
I0428 20:18:38.082156  1179 db_lmdb.cpp:35] Opened lmdb examples/mnist/mnist_train_lmdb
I0428 20:18:38.082191  1179 net.cpp:86] Creating Layer mnist
I0428 20:18:38.082197  1179 net.cpp:382] mnist -> data
I0428 20:18:38.082216  1179 net.cpp:382] mnist -> label
I0428 20:18:38.083220  1179 data_layer.cpp:45] output data size: 64,1,28,28
I0428 20:18:38.085698  1179 net.cpp:124] Setting up mnist
I0428 20:18:38.085729  1179 net.cpp:131] Top shape: 64 1 28 28 (50176)
I0428 20:18:38.085734  1179 net.cpp:131] Top shape: 64 (64)
I0428 20:18:38.085736  1179 net.cpp:139] Memory required for data: 200960
I0428 20:18:38.085742  1179 layer_factory.hpp:77] Creating layer conv0
I0428 20:18:38.085774  1179 net.cpp:86] Creating Layer conv0
I0428 20:18:38.085791  1179 net.cpp:408] conv0 <- data
I0428 20:18:38.085801  1179 net.cpp:382] conv0 -> conv0
I0428 20:18:38.320142  1179 net.cpp:124] Setting up conv0
I0428 20:18:38.320168  1179 net.cpp:131] Top shape: 64 50 24 24 (1843200)
I0428 20:18:38.320173  1179 net.cpp:139] Memory required for data: 7573760
I0428 20:18:38.320186  1179 layer_factory.hpp:77] Creating layer pool0
I0428 20:18:38.320199  1179 net.cpp:86] Creating Layer pool0
I0428 20:18:38.320204  1179 net.cpp:408] pool0 <- conv0
I0428 20:18:38.320209  1179 net.cpp:382] pool0 -> pool0
I0428 20:18:38.320267  1179 net.cpp:124] Setting up pool0
I0428 20:18:38.320273  1179 net.cpp:131] Top shape: 64 50 12 12 (460800)
I0428 20:18:38.320276  1179 net.cpp:139] Memory required for data: 9416960
I0428 20:18:38.320279  1179 layer_factory.hpp:77] Creating layer conv1
I0428 20:18:38.320291  1179 net.cpp:86] Creating Layer conv1
I0428 20:18:38.320293  1179 net.cpp:408] conv1 <- pool0
I0428 20:18:38.320297  1179 net.cpp:382] conv1 -> conv1
I0428 20:18:38.323108  1179 net.cpp:124] Setting up conv1
I0428 20:18:38.323138  1179 net.cpp:131] Top shape: 64 10 8 8 (40960)
I0428 20:18:38.323143  1179 net.cpp:139] Memory required for data: 9580800
I0428 20:18:38.323151  1179 layer_factory.hpp:77] Creating layer pool1
I0428 20:18:38.323159  1179 net.cpp:86] Creating Layer pool1
I0428 20:18:38.323163  1179 net.cpp:408] pool1 <- conv1
I0428 20:18:38.323168  1179 net.cpp:382] pool1 -> pool1
I0428 20:18:38.323235  1179 net.cpp:124] Setting up pool1
I0428 20:18:38.323241  1179 net.cpp:131] Top shape: 64 10 4 4 (10240)
I0428 20:18:38.323245  1179 net.cpp:139] Memory required for data: 9621760
I0428 20:18:38.323247  1179 layer_factory.hpp:77] Creating layer ip1
I0428 20:18:38.323254  1179 net.cpp:86] Creating Layer ip1
I0428 20:18:38.323257  1179 net.cpp:408] ip1 <- pool1
I0428 20:18:38.323261  1179 net.cpp:382] ip1 -> ip1
I0428 20:18:38.323400  1179 net.cpp:124] Setting up ip1
I0428 20:18:38.323408  1179 net.cpp:131] Top shape: 64 50 (3200)
I0428 20:18:38.323411  1179 net.cpp:139] Memory required for data: 9634560
I0428 20:18:38.323418  1179 layer_factory.hpp:77] Creating layer relu1
I0428 20:18:38.323424  1179 net.cpp:86] Creating Layer relu1
I0428 20:18:38.323427  1179 net.cpp:408] relu1 <- ip1
I0428 20:18:38.323431  1179 net.cpp:369] relu1 -> ip1 (in-place)
I0428 20:18:38.323591  1179 net.cpp:124] Setting up relu1
I0428 20:18:38.323599  1179 net.cpp:131] Top shape: 64 50 (3200)
I0428 20:18:38.323603  1179 net.cpp:139] Memory required for data: 9647360
I0428 20:18:38.323606  1179 layer_factory.hpp:77] Creating layer ip2
I0428 20:18:38.323612  1179 net.cpp:86] Creating Layer ip2
I0428 20:18:38.323616  1179 net.cpp:408] ip2 <- ip1
I0428 20:18:38.323621  1179 net.cpp:382] ip2 -> ip2
I0428 20:18:38.323741  1179 net.cpp:124] Setting up ip2
I0428 20:18:38.323748  1179 net.cpp:131] Top shape: 64 50 (3200)
I0428 20:18:38.323751  1179 net.cpp:139] Memory required for data: 9660160
I0428 20:18:38.323756  1179 layer_factory.hpp:77] Creating layer relu2
I0428 20:18:38.323761  1179 net.cpp:86] Creating Layer relu2
I0428 20:18:38.323765  1179 net.cpp:408] relu2 <- ip2
I0428 20:18:38.323770  1179 net.cpp:369] relu2 -> ip2 (in-place)
I0428 20:18:38.324503  1179 net.cpp:124] Setting up relu2
I0428 20:18:38.324514  1179 net.cpp:131] Top shape: 64 50 (3200)
I0428 20:18:38.324533  1179 net.cpp:139] Memory required for data: 9672960
I0428 20:18:38.324537  1179 layer_factory.hpp:77] Creating layer ip3
I0428 20:18:38.324543  1179 net.cpp:86] Creating Layer ip3
I0428 20:18:38.324548  1179 net.cpp:408] ip3 <- ip2
I0428 20:18:38.324553  1179 net.cpp:382] ip3 -> ip3
I0428 20:18:38.324651  1179 net.cpp:124] Setting up ip3
I0428 20:18:38.324666  1179 net.cpp:131] Top shape: 64 10 (640)
I0428 20:18:38.324669  1179 net.cpp:139] Memory required for data: 9675520
I0428 20:18:38.324676  1179 layer_factory.hpp:77] Creating layer relu3
I0428 20:18:38.324681  1179 net.cpp:86] Creating Layer relu3
I0428 20:18:38.324700  1179 net.cpp:408] relu3 <- ip3
I0428 20:18:38.324704  1179 net.cpp:369] relu3 -> ip3 (in-place)
I0428 20:18:38.324914  1179 net.cpp:124] Setting up relu3
I0428 20:18:38.324924  1179 net.cpp:131] Top shape: 64 10 (640)
I0428 20:18:38.324928  1179 net.cpp:139] Memory required for data: 9678080
I0428 20:18:38.324931  1179 layer_factory.hpp:77] Creating layer loss
I0428 20:18:38.324937  1179 net.cpp:86] Creating Layer loss
I0428 20:18:38.324940  1179 net.cpp:408] loss <- ip3
I0428 20:18:38.324944  1179 net.cpp:408] loss <- label
I0428 20:18:38.324950  1179 net.cpp:382] loss -> loss
I0428 20:18:38.324970  1179 layer_factory.hpp:77] Creating layer loss
…
I0428 20:18:38.325752  1179 solver.cpp:173] Creating test net (#0) specified by net file: ECE595/mnist/train_test/var_everything2/lenet_train_test1323.prototxt
I0428 20:18:38.325793  1179 net.cpp:296] The NetState phase (1) differed from the phase (0) specified by a rule in layer mnist
I0428 20:18:38.325901  1179 net.cpp:53] Initializing net from parameters: 
name: "LeNet"
state {
  phase: TEST
}
layer {
  name: "mnist"
  type: "Data"
  top: "data"
  top: "label"
  include {
    phase: TEST
  }
  transform_param {
    scale: 0.00390625
  }
  data_param {
    source: "examples/mnist/mnist_test_lmdb"
    batch_size: 100
    backend: LMDB
  }
}
layer {
  name: "conv0"
  type: "Convolution"
  bottom: "data"
  top: "conv0"
  param {
    lr_mult: 1
  }
  param {
    lr_mult: 2
  }
  convolution_param {
    num_output: 50
    kernel_size: 5
    stride: 1
    weight_filler {
      type: "xavier"
    }
    bias_filler {
      type: "constant"
    }
  }
}
layer {
  name: "pool0"
  type: "Pooling"
  bottom: "conv0"
  top: "pool0"
  pooling_param {
    pool: MAX
    kernel_size: 2
    stride: 2
  }
}
layer {
  name: "conv1"
  type: "Convolution"
  bottom: "pool0"
  top: "conv1"
  param {
    lr_mult: 1
  }
  param {
    lr_mult: 2
  }
  convolution_param {
    num_output: 10
    kernel_size: 5
    stride: 1
    weight_filler {
      type: "xavier"
    }
    bias_filler {
      type: "constant"
    }
  }
}
layer {
  name: "pool1"
  type: "Pooling"
  bottom: "conv1"
  top: "pool1"
  pooling_param {
    pool: MAX
    kernel_size: 2
    stride: 2
  }
}
layer {
  name: "ip1"
  type: "InnerProduct"
  bottom: "pool1"
  top: "ip1"
  param {
    lr_mult: 1
  }
  param {
    lr_mult: 2
  }
  inner_product_param {
    num_output: 50
    weight_filler {
      type: "xavier"
    }
    bias_filler {
      type: "constant"
    }
  }
}
layer {
  name: "relu1"
  type: "ReLU"
  bottom: "ip1"
  top: "ip1"
}
layer {
  name: "ip2"
  type: "InnerProduct"
  bottom: "ip1"
  top: "ip2"
  param {
    lr_mult: 1
  }
  param {
    lr_mult: 2
  }
  inner_product_param {
    num_output: 50
    weight_filler {
      type: "xavier"
    }
    bias_filler {
      type: "constant"
    }
  }
}
layer {
  name: "relu2"
  type: "ReLU"
  bottom: "ip2"
  top: "ip2"
}
layer {
  name: "ip3"
  type: "InnerProduct"
  bottom: "ip2"
  top: "ip3"
  param {
    lr_mult: 1
  }
  param {
    lr_mult: 2
  }
  inner_product_param {
    num_output: 10
    weight_filler {
      type: "xavier"
    }
    bias_filler {
      type: "constant"
    }
  }
}
layer {
  name: "relu3"
  type: "ReLU"
  bottom: "ip3"
  top: "ip3"
}
layer {
  name: "accuracy"
  type: "Accuracy"
  bottom: "ip3"
  bottom: "label"
  top: "accuracy"
  include {
    phase: TEST
  }
}
layer {
  name: "loss"
  type: "SoftmaxWithLoss"
  bottom: "ip3"
  bottom: "label"
  top: "loss"
}
I0428 20:18:38.325978  1179 layer_factory.hpp:77] Creating layer mnist
I0428 20:18:38.326019  1179 db_lmdb.cpp:35] Opened lmdb examples/mnist/mnist_test_lmdb
I0428 20:18:38.326035  1179 net.cpp:86] Creating Layer mnist
I0428 20:18:38.326038  1179 net.cpp:382] mnist -> data
I0428 20:18:38.326046  1179 net.cpp:382] mnist -> label
I0428 20:18:38.326130  1179 data_layer.cpp:45] output data size: 100,1,28,28
I0428 20:18:38.328204  1179 net.cpp:124] Setting up mnist
I0428 20:18:38.328249  1179 net.cpp:131] Top shape: 100 1 28 28 (78400)
I0428 20:18:38.328254  1179 net.cpp:131] Top shape: 100 (100)
I0428 20:18:38.328258  1179 net.cpp:139] Memory required for data: 314000
I0428 20:18:38.328261  1179 layer_factory.hpp:77] Creating layer label_mnist_1_split
I0428 20:18:38.328272  1179 net.cpp:86] Creating Layer label_mnist_1_split
I0428 20:18:38.328275  1179 net.cpp:408] label_mnist_1_split <- label
I0428 20:18:38.328280  1179 net.cpp:382] label_mnist_1_split -> label_mnist_1_split_0
I0428 20:18:38.328287  1179 net.cpp:382] label_mnist_1_split -> label_mnist_1_split_1
I0428 20:18:38.328387  1179 net.cpp:124] Setting up label_mnist_1_split
I0428 20:18:38.328395  1179 net.cpp:131] Top shape: 100 (100)
I0428 20:18:38.328398  1179 net.cpp:131] Top shape: 100 (100)
I0428 20:18:38.328402  1179 net.cpp:139] Memory required for data: 314800
I0428 20:18:38.328404  1179 layer_factory.hpp:77] Creating layer conv0
I0428 20:18:38.328413  1179 net.cpp:86] Creating Layer conv0
I0428 20:18:38.328416  1179 net.cpp:408] conv0 <- data
I0428 20:18:38.328421  1179 net.cpp:382] conv0 -> conv0
I0428 20:18:38.330046  1179 net.cpp:124] Setting up conv0
I0428 20:18:38.330060  1179 net.cpp:131] Top shape: 100 50 24 24 (2880000)
I0428 20:18:38.330080  1179 net.cpp:139] Memory required for data: 11834800
I0428 20:18:38.330088  1179 layer_factory.hpp:77] Creating layer pool0
I0428 20:18:38.330096  1179 net.cpp:86] Creating Layer pool0
I0428 20:18:38.330113  1179 net.cpp:408] pool0 <- conv0
I0428 20:18:38.330117  1179 net.cpp:382] pool0 -> pool0
I0428 20:18:38.330173  1179 net.cpp:124] Setting up pool0
I0428 20:18:38.330181  1179 net.cpp:131] Top shape: 100 50 12 12 (720000)
I0428 20:18:38.330184  1179 net.cpp:139] Memory required for data: 14714800
I0428 20:18:38.330188  1179 layer_factory.hpp:77] Creating layer conv1
I0428 20:18:38.330195  1179 net.cpp:86] Creating Layer conv1
I0428 20:18:38.330199  1179 net.cpp:408] conv1 <- pool0
I0428 20:18:38.330204  1179 net.cpp:382] conv1 -> conv1
I0428 20:18:38.331709  1179 net.cpp:124] Setting up conv1
I0428 20:18:38.331722  1179 net.cpp:131] Top shape: 100 10 8 8 (64000)
I0428 20:18:38.331743  1179 net.cpp:139] Memory required for data: 14970800
I0428 20:18:38.331751  1179 layer_factory.hpp:77] Creating layer pool1
I0428 20:18:38.331758  1179 net.cpp:86] Creating Layer pool1
I0428 20:18:38.331776  1179 net.cpp:408] pool1 <- conv1
I0428 20:18:38.331781  1179 net.cpp:382] pool1 -> pool1
I0428 20:18:38.331818  1179 net.cpp:124] Setting up pool1
I0428 20:18:38.331823  1179 net.cpp:131] Top shape: 100 10 4 4 (16000)
I0428 20:18:38.331827  1179 net.cpp:139] Memory required for data: 15034800
I0428 20:18:38.331830  1179 layer_factory.hpp:77] Creating layer ip1
I0428 20:18:38.331837  1179 net.cpp:86] Creating Layer ip1
I0428 20:18:38.331841  1179 net.cpp:408] ip1 <- pool1
I0428 20:18:38.331846  1179 net.cpp:382] ip1 -> ip1
I0428 20:18:38.331990  1179 net.cpp:124] Setting up ip1
I0428 20:18:38.332000  1179 net.cpp:131] Top shape: 100 50 (5000)
I0428 20:18:38.332036  1179 net.cpp:139] Memory required for data: 15054800
I0428 20:18:38.332044  1179 layer_factory.hpp:77] Creating layer relu1
I0428 20:18:38.332049  1179 net.cpp:86] Creating Layer relu1
I0428 20:18:38.332053  1179 net.cpp:408] relu1 <- ip1
I0428 20:18:38.332058  1179 net.cpp:369] relu1 -> ip1 (in-place)
I0428 20:18:38.332294  1179 net.cpp:124] Setting up relu1
I0428 20:18:38.332304  1179 net.cpp:131] Top shape: 100 50 (5000)
I0428 20:18:38.332307  1179 net.cpp:139] Memory required for data: 15074800
I0428 20:18:38.332310  1179 layer_factory.hpp:77] Creating layer ip2
I0428 20:18:38.332319  1179 net.cpp:86] Creating Layer ip2
I0428 20:18:38.332339  1179 net.cpp:408] ip2 <- ip1
I0428 20:18:38.332343  1179 net.cpp:382] ip2 -> ip2
I0428 20:18:38.332459  1179 net.cpp:124] Setting up ip2
I0428 20:18:38.332466  1179 net.cpp:131] Top shape: 100 50 (5000)
I0428 20:18:38.332470  1179 net.cpp:139] Memory required for data: 15094800
I0428 20:18:38.332476  1179 layer_factory.hpp:77] Creating layer relu2
I0428 20:18:38.332481  1179 net.cpp:86] Creating Layer relu2
I0428 20:18:38.332484  1179 net.cpp:408] relu2 <- ip2
I0428 20:18:38.332489  1179 net.cpp:369] relu2 -> ip2 (in-place)
I0428 20:18:38.332653  1179 net.cpp:124] Setting up relu2
I0428 20:18:38.332660  1179 net.cpp:131] Top shape: 100 50 (5000)
I0428 20:18:38.332664  1179 net.cpp:139] Memory required for data: 15114800
I0428 20:18:38.332667  1179 layer_factory.hpp:77] Creating layer ip3
I0428 20:18:38.332674  1179 net.cpp:86] Creating Layer ip3
I0428 20:18:38.332676  1179 net.cpp:408] ip3 <- ip2
I0428 20:18:38.332681  1179 net.cpp:382] ip3 -> ip3
I0428 20:18:38.332777  1179 net.cpp:124] Setting up ip3
I0428 20:18:38.332784  1179 net.cpp:131] Top shape: 100 10 (1000)
I0428 20:18:38.332788  1179 net.cpp:139] Memory required for data: 15118800
I0428 20:18:38.332797  1179 layer_factory.hpp:77] Creating layer relu3
I0428 20:18:38.332800  1179 net.cpp:86] Creating Layer relu3
I0428 20:18:38.332803  1179 net.cpp:408] relu3 <- ip3
I0428 20:18:38.332808  1179 net.cpp:369] relu3 -> ip3 (in-place)
I0428 20:18:38.333739  1179 net.cpp:124] Setting up relu3
I0428 20:18:38.333766  1179 net.cpp:131] Top shape: 100 10 (1000)
I0428 20:18:38.333770  1179 net.cpp:139] Memory required for data: 15122800
I0428 20:18:38.333773  1179 layer_factory.hpp:77] Creating layer ip3_relu3_0_split
I0428 20:18:38.333778  1179 net.cpp:86] Creating Layer ip3_relu3_0_split
I0428 20:18:38.333783  1179 net.cpp:408] ip3_relu3_0_split <- ip3
I0428 20:18:38.333788  1179 net.cpp:382] ip3_relu3_0_split -> ip3_relu3_0_split_0
I0428 20:18:38.333796  1179 net.cpp:382] ip3_relu3_0_split -> ip3_relu3_0_split_1
I0428 20:18:38.333832  1179 net.cpp:124] Setting up ip3_relu3_0_split
I0428 20:18:38.333837  1179 net.cpp:131] Top shape: 100 10 (1000)
I0428 20:18:38.333842  1179 net.cpp:131] Top shape: 100 10 (1000)
I0428 20:18:38.333844  1179 net.cpp:139] Memory required for data: 15130800
I0428 20:18:38.333847  1179 layer_factory.hpp:77] Creating layer accuracy
I0428 20:18:38.333863  1179 net.cpp:86] Creating Layer accuracy
I0428 20:18:38.333866  1179 net.cpp:408] accuracy <- ip3_relu3_0_split_0
I0428 20:18:38.333871  1179 net.cpp:408] accuracy <- label_mnist_1_split_0
I0428 20:18:38.333875  1179 net.cpp:382] accuracy -> accuracy
…
