…
I0428 20:17:23.222453   858 net.cpp:296] The NetState phase (0) differed from the phase (1) specified by a rule in layer mnist
I0428 20:17:23.222470   858 net.cpp:296] The NetState phase (0) differed from the phase (1) specified by a rule in layer accuracy
I0428 20:17:23.222543   858 net.cpp:53] Initializing net from parameters: 
name: "LeNet"
state {
  phase: TRAIN
  level: 0
  stage: ""
}
layer {
  name: "mnist"
  type: "Data"
  top: "data"
  top: "label"
  include {
    phase: TRAIN
  }
  transform_param {
    scale: 0.00390625
  }
  data_param {
    source: "examples/mnist/mnist_train_lmdb"
    batch_size: 64
    backend: LMDB
  }
}
layer {
  name: "conv0"
  type: "Convolution"
  bottom: "data"
  top: "conv0"
  param {
    lr_mult: 1
  }
  param {
    lr_mult: 2
  }
  convolution_param {
    num_output: 50
    kernel_size: 5
    stride: 1
    weight_filler {
      type: "xavier"
    }
    bias_filler {
      type: "constant"
    }
  }
}
layer {
  name: "pool0"
  type: "Pooling"
  bottom: "conv0"
  top: "pool0"
  pooling_param {
    pool: MAX
    kernel_size: 2
    stride: 2
  }
}
layer {
  name: "conv1"
  type: "Convolution"
  bottom: "pool0"
  top: "conv1"
  param {
    lr_mult: 1
  }
  param {
    lr_mult: 2
  }
  convolution_param {
    num_output: 10
    kernel_size: 5
    stride: 1
    weight_filler {
      type: "xavier"
    }
    bias_filler {
      type: "constant"
    }
  }
}
layer {
  name: "pool1"
  type: "Pooling"
  bottom: "conv1"
  top: "pool1"
  pooling_param {
    pool: MAX
    kernel_size: 2
    stride: 2
  }
}
layer {
  name: "ip1"
  type: "InnerProduct"
  bottom: "pool1"
  top: "ip1"
  param {
    lr_mult: 1
  }
  param {
    lr_mult: 2
  }
  inner_product_param {
    num_output: 25
    weight_filler {
      type: "xavier"
    }
    bias_filler {
      type: "constant"
    }
  }
}
layer {
  name: "relu1"
  type: "ReLU"
  bottom: "ip1"
  top: "ip1"
}
layer {
  name: "ip2"
  type: "InnerProduct"
  bottom: "ip1"
  top: "ip2"
  param {
    lr_mult: 1
  }
  param {
    lr_mult: 2
  }
  inner_product_param {
    num_output: 10
    weight_filler {
      type: "xavier"
    }
    bias_filler {
      type: "constant"
    }
  }
}
layer {
  name: "relu2"
  type: "ReLU"
  bottom: "ip2"
  top: "ip2"
}
layer {
  name: "loss"
  type: "SoftmaxWithLoss"
  bottom: "ip2"
  bottom: "label"
  top: "loss"
}
I0428 20:17:23.222617   858 layer_factory.hpp:77] Creating layer mnist
I0428 20:17:23.222697   858 db_lmdb.cpp:35] Opened lmdb examples/mnist/mnist_train_lmdb
I0428 20:17:23.222718   858 net.cpp:86] Creating Layer mnist
I0428 20:17:23.222723   858 net.cpp:382] mnist -> data
I0428 20:17:23.222743   858 net.cpp:382] mnist -> label
I0428 20:17:23.223634   858 data_layer.cpp:45] output data size: 64,1,28,28
I0428 20:17:23.225787   858 net.cpp:124] Setting up mnist
I0428 20:17:23.225822   858 net.cpp:131] Top shape: 64 1 28 28 (50176)
I0428 20:17:23.225841   858 net.cpp:131] Top shape: 64 (64)
I0428 20:17:23.225847   858 net.cpp:139] Memory required for data: 200960
I0428 20:17:23.225852   858 layer_factory.hpp:77] Creating layer conv0
I0428 20:17:23.225865   858 net.cpp:86] Creating Layer conv0
I0428 20:17:23.225881   858 net.cpp:408] conv0 <- data
I0428 20:17:23.225890   858 net.cpp:382] conv0 -> conv0
I0428 20:17:23.458041   858 net.cpp:124] Setting up conv0
I0428 20:17:23.458081   858 net.cpp:131] Top shape: 64 50 24 24 (1843200)
I0428 20:17:23.458086   858 net.cpp:139] Memory required for data: 7573760
I0428 20:17:23.458118   858 layer_factory.hpp:77] Creating layer pool0
I0428 20:17:23.458147   858 net.cpp:86] Creating Layer pool0
I0428 20:17:23.458149   858 net.cpp:408] pool0 <- conv0
I0428 20:17:23.458154   858 net.cpp:382] pool0 -> pool0
I0428 20:17:23.458201   858 net.cpp:124] Setting up pool0
I0428 20:17:23.458216   858 net.cpp:131] Top shape: 64 50 12 12 (460800)
I0428 20:17:23.458220   858 net.cpp:139] Memory required for data: 9416960
I0428 20:17:23.458222   858 layer_factory.hpp:77] Creating layer conv1
I0428 20:17:23.458232   858 net.cpp:86] Creating Layer conv1
I0428 20:17:23.458235   858 net.cpp:408] conv1 <- pool0
I0428 20:17:23.458240   858 net.cpp:382] conv1 -> conv1
I0428 20:17:23.461153   858 net.cpp:124] Setting up conv1
I0428 20:17:23.461181   858 net.cpp:131] Top shape: 64 10 8 8 (40960)
I0428 20:17:23.461185   858 net.cpp:139] Memory required for data: 9580800
I0428 20:17:23.461194   858 layer_factory.hpp:77] Creating layer pool1
I0428 20:17:23.461202   858 net.cpp:86] Creating Layer pool1
I0428 20:17:23.461205   858 net.cpp:408] pool1 <- conv1
I0428 20:17:23.461211   858 net.cpp:382] pool1 -> pool1
I0428 20:17:23.461247   858 net.cpp:124] Setting up pool1
I0428 20:17:23.461252   858 net.cpp:131] Top shape: 64 10 4 4 (10240)
I0428 20:17:23.461254   858 net.cpp:139] Memory required for data: 9621760
I0428 20:17:23.461257   858 layer_factory.hpp:77] Creating layer ip1
I0428 20:17:23.461266   858 net.cpp:86] Creating Layer ip1
I0428 20:17:23.461268   858 net.cpp:408] ip1 <- pool1
I0428 20:17:23.461272   858 net.cpp:382] ip1 -> ip1
I0428 20:17:23.461393   858 net.cpp:124] Setting up ip1
I0428 20:17:23.461400   858 net.cpp:131] Top shape: 64 25 (1600)
I0428 20:17:23.461403   858 net.cpp:139] Memory required for data: 9628160
I0428 20:17:23.461410   858 layer_factory.hpp:77] Creating layer relu1
I0428 20:17:23.461418   858 net.cpp:86] Creating Layer relu1
I0428 20:17:23.461421   858 net.cpp:408] relu1 <- ip1
I0428 20:17:23.461426   858 net.cpp:369] relu1 -> ip1 (in-place)
I0428 20:17:23.461589   858 net.cpp:124] Setting up relu1
I0428 20:17:23.461601   858 net.cpp:131] Top shape: 64 25 (1600)
I0428 20:17:23.461603   858 net.cpp:139] Memory required for data: 9634560
I0428 20:17:23.461606   858 layer_factory.hpp:77] Creating layer ip2
I0428 20:17:23.461612   858 net.cpp:86] Creating Layer ip2
I0428 20:17:23.461616   858 net.cpp:408] ip2 <- ip1
I0428 20:17:23.461621   858 net.cpp:382] ip2 -> ip2
I0428 20:17:23.461714   858 net.cpp:124] Setting up ip2
I0428 20:17:23.461720   858 net.cpp:131] Top shape: 64 10 (640)
I0428 20:17:23.461722   858 net.cpp:139] Memory required for data: 9637120
I0428 20:17:23.461729   858 layer_factory.hpp:77] Creating layer relu2
I0428 20:17:23.461735   858 net.cpp:86] Creating Layer relu2
I0428 20:17:23.461737   858 net.cpp:408] relu2 <- ip2
I0428 20:17:23.461742   858 net.cpp:369] relu2 -> ip2 (in-place)
I0428 20:17:23.462545   858 net.cpp:124] Setting up relu2
I0428 20:17:23.462558   858 net.cpp:131] Top shape: 64 10 (640)
I0428 20:17:23.462560   858 net.cpp:139] Memory required for data: 9639680
I0428 20:17:23.462563   858 layer_factory.hpp:77] Creating layer loss
I0428 20:17:23.462569   858 net.cpp:86] Creating Layer loss
I0428 20:17:23.462589   858 net.cpp:408] loss <- ip2
I0428 20:17:23.462592   858 net.cpp:408] loss <- label
I0428 20:17:23.462599   858 net.cpp:382] loss -> loss
I0428 20:17:23.462616   858 layer_factory.hpp:77] Creating layer loss
…
I0428 20:17:23.463229   858 solver.cpp:173] Creating test net (#0) specified by net file: ECE595/mnist/train_test/var_everything2/lenet_train_test1293.prototxt
I0428 20:17:23.463253   858 net.cpp:296] The NetState phase (1) differed from the phase (0) specified by a rule in layer mnist
I0428 20:17:23.463368   858 net.cpp:53] Initializing net from parameters: 
name: "LeNet"
state {
  phase: TEST
}
layer {
  name: "mnist"
  type: "Data"
  top: "data"
  top: "label"
  include {
    phase: TEST
  }
  transform_param {
    scale: 0.00390625
  }
  data_param {
    source: "examples/mnist/mnist_test_lmdb"
    batch_size: 100
    backend: LMDB
  }
}
layer {
  name: "conv0"
  type: "Convolution"
  bottom: "data"
  top: "conv0"
  param {
    lr_mult: 1
  }
  param {
    lr_mult: 2
  }
  convolution_param {
    num_output: 50
    kernel_size: 5
    stride: 1
    weight_filler {
      type: "xavier"
    }
    bias_filler {
      type: "constant"
    }
  }
}
layer {
  name: "pool0"
  type: "Pooling"
  bottom: "conv0"
  top: "pool0"
  pooling_param {
    pool: MAX
    kernel_size: 2
    stride: 2
  }
}
layer {
  name: "conv1"
  type: "Convolution"
  bottom: "pool0"
  top: "conv1"
  param {
    lr_mult: 1
  }
  param {
    lr_mult: 2
  }
  convolution_param {
    num_output: 10
    kernel_size: 5
    stride: 1
    weight_filler {
      type: "xavier"
    }
    bias_filler {
      type: "constant"
    }
  }
}
layer {
  name: "pool1"
  type: "Pooling"
  bottom: "conv1"
  top: "pool1"
  pooling_param {
    pool: MAX
    kernel_size: 2
    stride: 2
  }
}
layer {
  name: "ip1"
  type: "InnerProduct"
  bottom: "pool1"
  top: "ip1"
  param {
    lr_mult: 1
  }
  param {
    lr_mult: 2
  }
  inner_product_param {
    num_output: 25
    weight_filler {
      type: "xavier"
    }
    bias_filler {
      type: "constant"
    }
  }
}
layer {
  name: "relu1"
  type: "ReLU"
  bottom: "ip1"
  top: "ip1"
}
layer {
  name: "ip2"
  type: "InnerProduct"
  bottom: "ip1"
  top: "ip2"
  param {
    lr_mult: 1
  }
  param {
    lr_mult: 2
  }
  inner_product_param {
    num_output: 10
    weight_filler {
      type: "xavier"
    }
    bias_filler {
      type: "constant"
    }
  }
}
layer {
  name: "relu2"
  type: "ReLU"
  bottom: "ip2"
  top: "ip2"
}
layer {
  name: "accuracy"
  type: "Accuracy"
  bottom: "ip2"
  bottom: "label"
  top: "accuracy"
  include {
    phase: TEST
  }
}
layer {
  name: "loss"
  type: "SoftmaxWithLoss"
  bottom: "ip2"
  bottom: "label"
  top: "loss"
}
I0428 20:17:23.463474   858 layer_factory.hpp:77] Creating layer mnist
I0428 20:17:23.463521   858 db_lmdb.cpp:35] Opened lmdb examples/mnist/mnist_test_lmdb
I0428 20:17:23.463536   858 net.cpp:86] Creating Layer mnist
I0428 20:17:23.463541   858 net.cpp:382] mnist -> data
I0428 20:17:23.463549   858 net.cpp:382] mnist -> label
I0428 20:17:23.463642   858 data_layer.cpp:45] output data size: 100,1,28,28
I0428 20:17:23.465693   858 net.cpp:124] Setting up mnist
I0428 20:17:23.465723   858 net.cpp:131] Top shape: 100 1 28 28 (78400)
I0428 20:17:23.465728   858 net.cpp:131] Top shape: 100 (100)
I0428 20:17:23.465730   858 net.cpp:139] Memory required for data: 314000
I0428 20:17:23.465734   858 layer_factory.hpp:77] Creating layer label_mnist_1_split
I0428 20:17:23.465780   858 net.cpp:86] Creating Layer label_mnist_1_split
I0428 20:17:23.465798   858 net.cpp:408] label_mnist_1_split <- label
I0428 20:17:23.465803   858 net.cpp:382] label_mnist_1_split -> label_mnist_1_split_0
I0428 20:17:23.465813   858 net.cpp:382] label_mnist_1_split -> label_mnist_1_split_1
I0428 20:17:23.465865   858 net.cpp:124] Setting up label_mnist_1_split
I0428 20:17:23.465873   858 net.cpp:131] Top shape: 100 (100)
I0428 20:17:23.465875   858 net.cpp:131] Top shape: 100 (100)
I0428 20:17:23.465878   858 net.cpp:139] Memory required for data: 314800
I0428 20:17:23.465881   858 layer_factory.hpp:77] Creating layer conv0
I0428 20:17:23.465890   858 net.cpp:86] Creating Layer conv0
I0428 20:17:23.465893   858 net.cpp:408] conv0 <- data
I0428 20:17:23.465899   858 net.cpp:382] conv0 -> conv0
I0428 20:17:23.467794   858 net.cpp:124] Setting up conv0
I0428 20:17:23.467809   858 net.cpp:131] Top shape: 100 50 24 24 (2880000)
I0428 20:17:23.467813   858 net.cpp:139] Memory required for data: 11834800
I0428 20:17:23.467821   858 layer_factory.hpp:77] Creating layer pool0
I0428 20:17:23.467828   858 net.cpp:86] Creating Layer pool0
I0428 20:17:23.467830   858 net.cpp:408] pool0 <- conv0
I0428 20:17:23.467834   858 net.cpp:382] pool0 -> pool0
I0428 20:17:23.467869   858 net.cpp:124] Setting up pool0
I0428 20:17:23.467875   858 net.cpp:131] Top shape: 100 50 12 12 (720000)
I0428 20:17:23.467877   858 net.cpp:139] Memory required for data: 14714800
I0428 20:17:23.467880   858 layer_factory.hpp:77] Creating layer conv1
I0428 20:17:23.467890   858 net.cpp:86] Creating Layer conv1
I0428 20:17:23.467893   858 net.cpp:408] conv1 <- pool0
I0428 20:17:23.467897   858 net.cpp:382] conv1 -> conv1
I0428 20:17:23.469671   858 net.cpp:124] Setting up conv1
I0428 20:17:23.469686   858 net.cpp:131] Top shape: 100 10 8 8 (64000)
I0428 20:17:23.469689   858 net.cpp:139] Memory required for data: 14970800
I0428 20:17:23.469697   858 layer_factory.hpp:77] Creating layer pool1
I0428 20:17:23.469727   858 net.cpp:86] Creating Layer pool1
I0428 20:17:23.469730   858 net.cpp:408] pool1 <- conv1
I0428 20:17:23.469736   858 net.cpp:382] pool1 -> pool1
I0428 20:17:23.469772   858 net.cpp:124] Setting up pool1
I0428 20:17:23.469779   858 net.cpp:131] Top shape: 100 10 4 4 (16000)
I0428 20:17:23.469781   858 net.cpp:139] Memory required for data: 15034800
I0428 20:17:23.469784   858 layer_factory.hpp:77] Creating layer ip1
I0428 20:17:23.469790   858 net.cpp:86] Creating Layer ip1
I0428 20:17:23.469794   858 net.cpp:408] ip1 <- pool1
I0428 20:17:23.469799   858 net.cpp:382] ip1 -> ip1
I0428 20:17:23.469921   858 net.cpp:124] Setting up ip1
I0428 20:17:23.469929   858 net.cpp:131] Top shape: 100 25 (2500)
I0428 20:17:23.469933   858 net.cpp:139] Memory required for data: 15044800
I0428 20:17:23.469940   858 layer_factory.hpp:77] Creating layer relu1
I0428 20:17:23.469945   858 net.cpp:86] Creating Layer relu1
I0428 20:17:23.469949   858 net.cpp:408] relu1 <- ip1
I0428 20:17:23.469954   858 net.cpp:369] relu1 -> ip1 (in-place)
I0428 20:17:23.470124   858 net.cpp:124] Setting up relu1
I0428 20:17:23.470134   858 net.cpp:131] Top shape: 100 25 (2500)
I0428 20:17:23.470136   858 net.cpp:139] Memory required for data: 15054800
I0428 20:17:23.470139   858 layer_factory.hpp:77] Creating layer ip2
I0428 20:17:23.470146   858 net.cpp:86] Creating Layer ip2
I0428 20:17:23.470149   858 net.cpp:408] ip2 <- ip1
I0428 20:17:23.470154   858 net.cpp:382] ip2 -> ip2
I0428 20:17:23.470248   858 net.cpp:124] Setting up ip2
I0428 20:17:23.470255   858 net.cpp:131] Top shape: 100 10 (1000)
I0428 20:17:23.470258   858 net.cpp:139] Memory required for data: 15058800
I0428 20:17:23.470270   858 layer_factory.hpp:77] Creating layer relu2
I0428 20:17:23.470275   858 net.cpp:86] Creating Layer relu2
I0428 20:17:23.470278   858 net.cpp:408] relu2 <- ip2
I0428 20:17:23.470288   858 net.cpp:369] relu2 -> ip2 (in-place)
I0428 20:17:23.470438   858 net.cpp:124] Setting up relu2
I0428 20:17:23.470446   858 net.cpp:131] Top shape: 100 10 (1000)
I0428 20:17:23.470454   858 net.cpp:139] Memory required for data: 15062800
I0428 20:17:23.470458   858 layer_factory.hpp:77] Creating layer ip2_relu2_0_split
I0428 20:17:23.470463   858 net.cpp:86] Creating Layer ip2_relu2_0_split
I0428 20:17:23.470466   858 net.cpp:408] ip2_relu2_0_split <- ip2
I0428 20:17:23.470471   858 net.cpp:382] ip2_relu2_0_split -> ip2_relu2_0_split_0
I0428 20:17:23.470486   858 net.cpp:382] ip2_relu2_0_split -> ip2_relu2_0_split_1
I0428 20:17:23.470521   858 net.cpp:124] Setting up ip2_relu2_0_split
I0428 20:17:23.470542   858 net.cpp:131] Top shape: 100 10 (1000)
I0428 20:17:23.470546   858 net.cpp:131] Top shape: 100 10 (1000)
I0428 20:17:23.470548   858 net.cpp:139] Memory required for data: 15070800
I0428 20:17:23.470551   858 layer_factory.hpp:77] Creating layer accuracy
I0428 20:17:23.470562   858 net.cpp:86] Creating Layer accuracy
I0428 20:17:23.470566   858 net.cpp:408] accuracy <- ip2_relu2_0_split_0
I0428 20:17:23.470569   858 net.cpp:408] accuracy <- label_mnist_1_split_0
I0428 20:17:23.470590   858 net.cpp:382] accuracy -> accuracy
…
