…
I0428 19:54:18.371261 27970 net.cpp:296] The NetState phase (0) differed from the phase (1) specified by a rule in layer mnist
I0428 19:54:18.371280 27970 net.cpp:296] The NetState phase (0) differed from the phase (1) specified by a rule in layer accuracy
I0428 19:54:18.371376 27970 net.cpp:53] Initializing net from parameters: 
name: "LeNet"
state {
  phase: TRAIN
  level: 0
  stage: ""
}
layer {
  name: "mnist"
  type: "Data"
  top: "data"
  top: "label"
  include {
    phase: TRAIN
  }
  transform_param {
    scale: 0.00390625
  }
  data_param {
    source: "examples/mnist/mnist_train_lmdb"
    batch_size: 64
    backend: LMDB
  }
}
layer {
  name: "conv0"
  type: "Convolution"
  bottom: "data"
  top: "conv0"
  param {
    lr_mult: 1
  }
  param {
    lr_mult: 2
  }
  convolution_param {
    num_output: 5
    kernel_size: 5
    stride: 1
    weight_filler {
      type: "xavier"
    }
    bias_filler {
      type: "constant"
    }
  }
}
layer {
  name: "pool0"
  type: "Pooling"
  bottom: "conv0"
  top: "pool0"
  pooling_param {
    pool: MAX
    kernel_size: 2
    stride: 2
  }
}
layer {
  name: "conv1"
  type: "Convolution"
  bottom: "pool0"
  top: "conv1"
  param {
    lr_mult: 1
  }
  param {
    lr_mult: 2
  }
  convolution_param {
    num_output: 100
    kernel_size: 5
    stride: 1
    weight_filler {
      type: "xavier"
    }
    bias_filler {
      type: "constant"
    }
  }
}
layer {
  name: "pool1"
  type: "Pooling"
  bottom: "conv1"
  top: "pool1"
  pooling_param {
    pool: MAX
    kernel_size: 2
    stride: 2
  }
}
layer {
  name: "ip1"
  type: "InnerProduct"
  bottom: "pool1"
  top: "ip1"
  param {
    lr_mult: 1
  }
  param {
    lr_mult: 2
  }
  inner_product_param {
    num_output: 25
    weight_filler {
      type: "xavier"
    }
    bias_filler {
      type: "constant"
    }
  }
}
layer {
  name: "relu1"
  type: "ReLU"
  bottom: "ip1"
  top: "ip1"
}
layer {
  name: "ip2"
  type: "InnerProduct"
  bottom: "ip1"
  top: "ip2"
  param {
    lr_mult: 1
  }
  param {
    lr_mult: 2
  }
  inner_product_param {
    num_output: 10
    weight_filler {
      type: "xavier"
    }
    bias_filler {
      type: "constant"
    }
  }
}
layer {
  name: "relu2"
  type: "ReLU"
  bottom: "ip2"
  top: "ip2"
}
layer {
  name: "loss"
  type: "SoftmaxWithLoss"
  bottom: "ip2"
  bottom: "label"
  top: "loss"
}
I0428 19:54:18.371454 27970 layer_factory.hpp:77] Creating layer mnist
I0428 19:54:18.371557 27970 db_lmdb.cpp:35] Opened lmdb examples/mnist/mnist_train_lmdb
I0428 19:54:18.371580 27970 net.cpp:86] Creating Layer mnist
I0428 19:54:18.371589 27970 net.cpp:382] mnist -> data
I0428 19:54:18.371613 27970 net.cpp:382] mnist -> label
I0428 19:54:18.372730 27970 data_layer.cpp:45] output data size: 64,1,28,28
I0428 19:54:18.375196 27970 net.cpp:124] Setting up mnist
I0428 19:54:18.375214 27970 net.cpp:131] Top shape: 64 1 28 28 (50176)
I0428 19:54:18.375221 27970 net.cpp:131] Top shape: 64 (64)
I0428 19:54:18.375224 27970 net.cpp:139] Memory required for data: 200960
I0428 19:54:18.375231 27970 layer_factory.hpp:77] Creating layer conv0
I0428 19:54:18.375248 27970 net.cpp:86] Creating Layer conv0
I0428 19:54:18.375254 27970 net.cpp:408] conv0 <- data
I0428 19:54:18.375267 27970 net.cpp:382] conv0 -> conv0
I0428 19:54:18.666553 27970 net.cpp:124] Setting up conv0
I0428 19:54:18.666586 27970 net.cpp:131] Top shape: 64 5 24 24 (184320)
I0428 19:54:18.666591 27970 net.cpp:139] Memory required for data: 938240
I0428 19:54:18.666628 27970 layer_factory.hpp:77] Creating layer pool0
I0428 19:54:18.666645 27970 net.cpp:86] Creating Layer pool0
I0428 19:54:18.666649 27970 net.cpp:408] pool0 <- conv0
I0428 19:54:18.666656 27970 net.cpp:382] pool0 -> pool0
I0428 19:54:18.666712 27970 net.cpp:124] Setting up pool0
I0428 19:54:18.666721 27970 net.cpp:131] Top shape: 64 5 12 12 (46080)
I0428 19:54:18.666725 27970 net.cpp:139] Memory required for data: 1122560
I0428 19:54:18.666729 27970 layer_factory.hpp:77] Creating layer conv1
I0428 19:54:18.666743 27970 net.cpp:86] Creating Layer conv1
I0428 19:54:18.666746 27970 net.cpp:408] conv1 <- pool0
I0428 19:54:18.666752 27970 net.cpp:382] conv1 -> conv1
I0428 19:54:18.669948 27970 net.cpp:124] Setting up conv1
I0428 19:54:18.669966 27970 net.cpp:131] Top shape: 64 100 8 8 (409600)
I0428 19:54:18.669971 27970 net.cpp:139] Memory required for data: 2760960
I0428 19:54:18.669981 27970 layer_factory.hpp:77] Creating layer pool1
I0428 19:54:18.669991 27970 net.cpp:86] Creating Layer pool1
I0428 19:54:18.669996 27970 net.cpp:408] pool1 <- conv1
I0428 19:54:18.670002 27970 net.cpp:382] pool1 -> pool1
I0428 19:54:18.670047 27970 net.cpp:124] Setting up pool1
I0428 19:54:18.670053 27970 net.cpp:131] Top shape: 64 100 4 4 (102400)
I0428 19:54:18.670056 27970 net.cpp:139] Memory required for data: 3170560
I0428 19:54:18.670060 27970 layer_factory.hpp:77] Creating layer ip1
I0428 19:54:18.670069 27970 net.cpp:86] Creating Layer ip1
I0428 19:54:18.670073 27970 net.cpp:408] ip1 <- pool1
I0428 19:54:18.670078 27970 net.cpp:382] ip1 -> ip1
I0428 19:54:18.670466 27970 net.cpp:124] Setting up ip1
I0428 19:54:18.670475 27970 net.cpp:131] Top shape: 64 25 (1600)
I0428 19:54:18.670478 27970 net.cpp:139] Memory required for data: 3176960
I0428 19:54:18.670487 27970 layer_factory.hpp:77] Creating layer relu1
I0428 19:54:18.670495 27970 net.cpp:86] Creating Layer relu1
I0428 19:54:18.670498 27970 net.cpp:408] relu1 <- ip1
I0428 19:54:18.670503 27970 net.cpp:369] relu1 -> ip1 (in-place)
I0428 19:54:18.670697 27970 net.cpp:124] Setting up relu1
I0428 19:54:18.670707 27970 net.cpp:131] Top shape: 64 25 (1600)
I0428 19:54:18.670711 27970 net.cpp:139] Memory required for data: 3183360
I0428 19:54:18.670716 27970 layer_factory.hpp:77] Creating layer ip2
I0428 19:54:18.670723 27970 net.cpp:86] Creating Layer ip2
I0428 19:54:18.670727 27970 net.cpp:408] ip2 <- ip1
I0428 19:54:18.670732 27970 net.cpp:382] ip2 -> ip2
I0428 19:54:18.670845 27970 net.cpp:124] Setting up ip2
I0428 19:54:18.670852 27970 net.cpp:131] Top shape: 64 10 (640)
I0428 19:54:18.670856 27970 net.cpp:139] Memory required for data: 3185920
I0428 19:54:18.670862 27970 layer_factory.hpp:77] Creating layer relu2
I0428 19:54:18.670869 27970 net.cpp:86] Creating Layer relu2
I0428 19:54:18.670873 27970 net.cpp:408] relu2 <- ip2
I0428 19:54:18.670878 27970 net.cpp:369] relu2 -> ip2 (in-place)
I0428 19:54:18.671720 27970 net.cpp:124] Setting up relu2
I0428 19:54:18.671736 27970 net.cpp:131] Top shape: 64 10 (640)
I0428 19:54:18.671741 27970 net.cpp:139] Memory required for data: 3188480
I0428 19:54:18.671744 27970 layer_factory.hpp:77] Creating layer loss
I0428 19:54:18.671757 27970 net.cpp:86] Creating Layer loss
I0428 19:54:18.671761 27970 net.cpp:408] loss <- ip2
I0428 19:54:18.671767 27970 net.cpp:408] loss <- label
I0428 19:54:18.671773 27970 net.cpp:382] loss -> loss
I0428 19:54:18.671792 27970 layer_factory.hpp:77] Creating layer loss
…
I0428 19:54:18.672509 27970 solver.cpp:173] Creating test net (#0) specified by net file: ECE595/mnist/train_test/var_everything2/lenet_train_test708.prototxt
I0428 19:54:18.672540 27970 net.cpp:296] The NetState phase (1) differed from the phase (0) specified by a rule in layer mnist
I0428 19:54:18.672638 27970 net.cpp:53] Initializing net from parameters: 
name: "LeNet"
state {
  phase: TEST
}
layer {
  name: "mnist"
  type: "Data"
  top: "data"
  top: "label"
  include {
    phase: TEST
  }
  transform_param {
    scale: 0.00390625
  }
  data_param {
    source: "examples/mnist/mnist_test_lmdb"
    batch_size: 100
    backend: LMDB
  }
}
layer {
  name: "conv0"
  type: "Convolution"
  bottom: "data"
  top: "conv0"
  param {
    lr_mult: 1
  }
  param {
    lr_mult: 2
  }
  convolution_param {
    num_output: 5
    kernel_size: 5
    stride: 1
    weight_filler {
      type: "xavier"
    }
    bias_filler {
      type: "constant"
    }
  }
}
layer {
  name: "pool0"
  type: "Pooling"
  bottom: "conv0"
  top: "pool0"
  pooling_param {
    pool: MAX
    kernel_size: 2
    stride: 2
  }
}
layer {
  name: "conv1"
  type: "Convolution"
  bottom: "pool0"
  top: "conv1"
  param {
    lr_mult: 1
  }
  param {
    lr_mult: 2
  }
  convolution_param {
    num_output: 100
    kernel_size: 5
    stride: 1
    weight_filler {
      type: "xavier"
    }
    bias_filler {
      type: "constant"
    }
  }
}
layer {
  name: "pool1"
  type: "Pooling"
  bottom: "conv1"
  top: "pool1"
  pooling_param {
    pool: MAX
    kernel_size: 2
    stride: 2
  }
}
layer {
  name: "ip1"
  type: "InnerProduct"
  bottom: "pool1"
  top: "ip1"
  param {
    lr_mult: 1
  }
  param {
    lr_mult: 2
  }
  inner_product_param {
    num_output: 25
    weight_filler {
      type: "xavier"
    }
    bias_filler {
      type: "constant"
    }
  }
}
layer {
  name: "relu1"
  type: "ReLU"
  bottom: "ip1"
  top: "ip1"
}
layer {
  name: "ip2"
  type: "InnerProduct"
  bottom: "ip1"
  top: "ip2"
  param {
    lr_mult: 1
  }
  param {
    lr_mult: 2
  }
  inner_product_param {
    num_output: 10
    weight_filler {
      type: "xavier"
    }
    bias_filler {
      type: "constant"
    }
  }
}
layer {
  name: "relu2"
  type: "ReLU"
  bottom: "ip2"
  top: "ip2"
}
layer {
  name: "accuracy"
  type: "Accuracy"
  bottom: "ip2"
  bottom: "label"
  top: "accuracy"
  include {
    phase: TEST
  }
}
layer {
  name: "loss"
  type: "SoftmaxWithLoss"
  bottom: "ip2"
  bottom: "label"
  top: "loss"
}
I0428 19:54:18.672713 27970 layer_factory.hpp:77] Creating layer mnist
I0428 19:54:18.672765 27970 db_lmdb.cpp:35] Opened lmdb examples/mnist/mnist_test_lmdb
I0428 19:54:18.672780 27970 net.cpp:86] Creating Layer mnist
I0428 19:54:18.672786 27970 net.cpp:382] mnist -> data
I0428 19:54:18.672796 27970 net.cpp:382] mnist -> label
I0428 19:54:18.672905 27970 data_layer.cpp:45] output data size: 100,1,28,28
I0428 19:54:18.675093 27970 net.cpp:124] Setting up mnist
I0428 19:54:18.675109 27970 net.cpp:131] Top shape: 100 1 28 28 (78400)
I0428 19:54:18.675115 27970 net.cpp:131] Top shape: 100 (100)
I0428 19:54:18.675119 27970 net.cpp:139] Memory required for data: 314000
I0428 19:54:18.675123 27970 layer_factory.hpp:77] Creating layer label_mnist_1_split
I0428 19:54:18.675132 27970 net.cpp:86] Creating Layer label_mnist_1_split
I0428 19:54:18.675137 27970 net.cpp:408] label_mnist_1_split <- label
I0428 19:54:18.675143 27970 net.cpp:382] label_mnist_1_split -> label_mnist_1_split_0
I0428 19:54:18.675150 27970 net.cpp:382] label_mnist_1_split -> label_mnist_1_split_1
I0428 19:54:18.675215 27970 net.cpp:124] Setting up label_mnist_1_split
I0428 19:54:18.675223 27970 net.cpp:131] Top shape: 100 (100)
I0428 19:54:18.675227 27970 net.cpp:131] Top shape: 100 (100)
I0428 19:54:18.675231 27970 net.cpp:139] Memory required for data: 314800
I0428 19:54:18.675235 27970 layer_factory.hpp:77] Creating layer conv0
I0428 19:54:18.675246 27970 net.cpp:86] Creating Layer conv0
I0428 19:54:18.675248 27970 net.cpp:408] conv0 <- data
I0428 19:54:18.675254 27970 net.cpp:382] conv0 -> conv0
I0428 19:54:18.677052 27970 net.cpp:124] Setting up conv0
I0428 19:54:18.677069 27970 net.cpp:131] Top shape: 100 5 24 24 (288000)
I0428 19:54:18.677073 27970 net.cpp:139] Memory required for data: 1466800
I0428 19:54:18.677086 27970 layer_factory.hpp:77] Creating layer pool0
I0428 19:54:18.677094 27970 net.cpp:86] Creating Layer pool0
I0428 19:54:18.677098 27970 net.cpp:408] pool0 <- conv0
I0428 19:54:18.677105 27970 net.cpp:382] pool0 -> pool0
I0428 19:54:18.677150 27970 net.cpp:124] Setting up pool0
I0428 19:54:18.677160 27970 net.cpp:131] Top shape: 100 5 12 12 (72000)
I0428 19:54:18.677162 27970 net.cpp:139] Memory required for data: 1754800
I0428 19:54:18.677166 27970 layer_factory.hpp:77] Creating layer conv1
I0428 19:54:18.677177 27970 net.cpp:86] Creating Layer conv1
I0428 19:54:18.677181 27970 net.cpp:408] conv1 <- pool0
I0428 19:54:18.677188 27970 net.cpp:382] conv1 -> conv1
I0428 19:54:18.679061 27970 net.cpp:124] Setting up conv1
I0428 19:54:18.679080 27970 net.cpp:131] Top shape: 100 100 8 8 (640000)
I0428 19:54:18.679085 27970 net.cpp:139] Memory required for data: 4314800
I0428 19:54:18.679095 27970 layer_factory.hpp:77] Creating layer pool1
I0428 19:54:18.679105 27970 net.cpp:86] Creating Layer pool1
I0428 19:54:18.679111 27970 net.cpp:408] pool1 <- conv1
I0428 19:54:18.679116 27970 net.cpp:382] pool1 -> pool1
I0428 19:54:18.679162 27970 net.cpp:124] Setting up pool1
I0428 19:54:18.679169 27970 net.cpp:131] Top shape: 100 100 4 4 (160000)
I0428 19:54:18.679172 27970 net.cpp:139] Memory required for data: 4954800
I0428 19:54:18.679177 27970 layer_factory.hpp:77] Creating layer ip1
I0428 19:54:18.679185 27970 net.cpp:86] Creating Layer ip1
I0428 19:54:18.679189 27970 net.cpp:408] ip1 <- pool1
I0428 19:54:18.679194 27970 net.cpp:382] ip1 -> ip1
I0428 19:54:18.679603 27970 net.cpp:124] Setting up ip1
I0428 19:54:18.679611 27970 net.cpp:131] Top shape: 100 25 (2500)
I0428 19:54:18.679615 27970 net.cpp:139] Memory required for data: 4964800
I0428 19:54:18.679623 27970 layer_factory.hpp:77] Creating layer relu1
I0428 19:54:18.679632 27970 net.cpp:86] Creating Layer relu1
I0428 19:54:18.679637 27970 net.cpp:408] relu1 <- ip1
I0428 19:54:18.679642 27970 net.cpp:369] relu1 -> ip1 (in-place)
I0428 19:54:18.679903 27970 net.cpp:124] Setting up relu1
I0428 19:54:18.679915 27970 net.cpp:131] Top shape: 100 25 (2500)
I0428 19:54:18.679921 27970 net.cpp:139] Memory required for data: 4974800
I0428 19:54:18.679925 27970 layer_factory.hpp:77] Creating layer ip2
I0428 19:54:18.679936 27970 net.cpp:86] Creating Layer ip2
I0428 19:54:18.679941 27970 net.cpp:408] ip2 <- ip1
I0428 19:54:18.679949 27970 net.cpp:382] ip2 -> ip2
I0428 19:54:18.680066 27970 net.cpp:124] Setting up ip2
I0428 19:54:18.680075 27970 net.cpp:131] Top shape: 100 10 (1000)
I0428 19:54:18.680078 27970 net.cpp:139] Memory required for data: 4978800
I0428 19:54:18.680085 27970 layer_factory.hpp:77] Creating layer relu2
I0428 19:54:18.680091 27970 net.cpp:86] Creating Layer relu2
I0428 19:54:18.680094 27970 net.cpp:408] relu2 <- ip2
I0428 19:54:18.680100 27970 net.cpp:369] relu2 -> ip2 (in-place)
I0428 19:54:18.680286 27970 net.cpp:124] Setting up relu2
I0428 19:54:18.680297 27970 net.cpp:131] Top shape: 100 10 (1000)
I0428 19:54:18.680301 27970 net.cpp:139] Memory required for data: 4982800
I0428 19:54:18.680305 27970 layer_factory.hpp:77] Creating layer ip2_relu2_0_split
I0428 19:54:18.680311 27970 net.cpp:86] Creating Layer ip2_relu2_0_split
I0428 19:54:18.680315 27970 net.cpp:408] ip2_relu2_0_split <- ip2
I0428 19:54:18.680320 27970 net.cpp:382] ip2_relu2_0_split -> ip2_relu2_0_split_0
I0428 19:54:18.680338 27970 net.cpp:382] ip2_relu2_0_split -> ip2_relu2_0_split_1
I0428 19:54:18.680383 27970 net.cpp:124] Setting up ip2_relu2_0_split
I0428 19:54:18.680392 27970 net.cpp:131] Top shape: 100 10 (1000)
I0428 19:54:18.680397 27970 net.cpp:131] Top shape: 100 10 (1000)
I0428 19:54:18.680400 27970 net.cpp:139] Memory required for data: 4990800
I0428 19:54:18.680404 27970 layer_factory.hpp:77] Creating layer accuracy
I0428 19:54:18.680410 27970 net.cpp:86] Creating Layer accuracy
I0428 19:54:18.680414 27970 net.cpp:408] accuracy <- ip2_relu2_0_split_0
I0428 19:54:18.680420 27970 net.cpp:408] accuracy <- label_mnist_1_split_0
I0428 19:54:18.680425 27970 net.cpp:382] accuracy -> accuracy
…
