…
I0428 20:06:29.687839 30884 net.cpp:296] The NetState phase (0) differed from the phase (1) specified by a rule in layer mnist
I0428 20:06:29.687858 30884 net.cpp:296] The NetState phase (0) differed from the phase (1) specified by a rule in layer accuracy
I0428 20:06:29.687961 30884 net.cpp:53] Initializing net from parameters: 
name: "LeNet"
state {
  phase: TRAIN
  level: 0
  stage: ""
}
layer {
  name: "mnist"
  type: "Data"
  top: "data"
  top: "label"
  include {
    phase: TRAIN
  }
  transform_param {
    scale: 0.00390625
  }
  data_param {
    source: "examples/mnist/mnist_train_lmdb"
    batch_size: 64
    backend: LMDB
  }
}
layer {
  name: "conv0"
  type: "Convolution"
  bottom: "data"
  top: "conv0"
  param {
    lr_mult: 1
  }
  param {
    lr_mult: 2
  }
  convolution_param {
    num_output: 25
    kernel_size: 5
    stride: 1
    weight_filler {
      type: "xavier"
    }
    bias_filler {
      type: "constant"
    }
  }
}
layer {
  name: "pool0"
  type: "Pooling"
  bottom: "conv0"
  top: "pool0"
  pooling_param {
    pool: MAX
    kernel_size: 2
    stride: 2
  }
}
layer {
  name: "conv1"
  type: "Convolution"
  bottom: "pool0"
  top: "conv1"
  param {
    lr_mult: 1
  }
  param {
    lr_mult: 2
  }
  convolution_param {
    num_output: 5
    kernel_size: 5
    stride: 1
    weight_filler {
      type: "xavier"
    }
    bias_filler {
      type: "constant"
    }
  }
}
layer {
  name: "pool1"
  type: "Pooling"
  bottom: "conv1"
  top: "pool1"
  pooling_param {
    pool: MAX
    kernel_size: 2
    stride: 2
  }
}
layer {
  name: "ip1"
  type: "InnerProduct"
  bottom: "pool1"
  top: "ip1"
  param {
    lr_mult: 1
  }
  param {
    lr_mult: 2
  }
  inner_product_param {
    num_output: 10
    weight_filler {
      type: "xavier"
    }
    bias_filler {
      type: "constant"
    }
  }
}
layer {
  name: "relu1"
  type: "ReLU"
  bottom: "ip1"
  top: "ip1"
}
layer {
  name: "ip2"
  type: "InnerProduct"
  bottom: "ip1"
  top: "ip2"
  param {
    lr_mult: 1
  }
  param {
    lr_mult: 2
  }
  inner_product_param {
    num_output: 25
    weight_filler {
      type: "xavier"
    }
    bias_filler {
      type: "constant"
    }
  }
}
layer {
  name: "relu2"
  type: "ReLU"
  bottom: "ip2"
  top: "ip2"
}
layer {
  name: "ip3"
  type: "InnerProduct"
  bottom: "ip2"
  top: "ip3"
  param {
    lr_mult: 1
  }
  param {
    lr_mult: 2
  }
  inner_product_param {
    num_output: 10
    weight_filler {
      type: "xavier"
    }
    bias_filler {
      type: "constant"
    }
  }
}
layer {
  name: "relu3"
  type: "ReLU"
  bottom: "ip3"
  top: "ip3"
}
layer {
  name: "loss"
  type: "SoftmaxWithLoss"
  bottom: "ip3"
  bottom: "label"
  top: "loss"
}
I0428 20:06:29.688043 30884 layer_factory.hpp:77] Creating layer mnist
I0428 20:06:29.688146 30884 db_lmdb.cpp:35] Opened lmdb examples/mnist/mnist_train_lmdb
I0428 20:06:29.688171 30884 net.cpp:86] Creating Layer mnist
I0428 20:06:29.688181 30884 net.cpp:382] mnist -> data
I0428 20:06:29.688204 30884 net.cpp:382] mnist -> label
I0428 20:06:29.689399 30884 data_layer.cpp:45] output data size: 64,1,28,28
I0428 20:06:29.692123 30884 net.cpp:124] Setting up mnist
I0428 20:06:29.692143 30884 net.cpp:131] Top shape: 64 1 28 28 (50176)
I0428 20:06:29.692153 30884 net.cpp:131] Top shape: 64 (64)
I0428 20:06:29.692160 30884 net.cpp:139] Memory required for data: 200960
I0428 20:06:29.692167 30884 layer_factory.hpp:77] Creating layer conv0
I0428 20:06:29.692199 30884 net.cpp:86] Creating Layer conv0
I0428 20:06:29.692220 30884 net.cpp:408] conv0 <- data
I0428 20:06:29.692234 30884 net.cpp:382] conv0 -> conv0
I0428 20:06:29.965821 30884 net.cpp:124] Setting up conv0
I0428 20:06:29.965847 30884 net.cpp:131] Top shape: 64 25 24 24 (921600)
I0428 20:06:29.965850 30884 net.cpp:139] Memory required for data: 3887360
I0428 20:06:29.965865 30884 layer_factory.hpp:77] Creating layer pool0
I0428 20:06:29.965878 30884 net.cpp:86] Creating Layer pool0
I0428 20:06:29.965881 30884 net.cpp:408] pool0 <- conv0
I0428 20:06:29.965886 30884 net.cpp:382] pool0 -> pool0
I0428 20:06:29.965943 30884 net.cpp:124] Setting up pool0
I0428 20:06:29.965948 30884 net.cpp:131] Top shape: 64 25 12 12 (230400)
I0428 20:06:29.965951 30884 net.cpp:139] Memory required for data: 4808960
I0428 20:06:29.965955 30884 layer_factory.hpp:77] Creating layer conv1
I0428 20:06:29.965965 30884 net.cpp:86] Creating Layer conv1
I0428 20:06:29.965967 30884 net.cpp:408] conv1 <- pool0
I0428 20:06:29.965972 30884 net.cpp:382] conv1 -> conv1
I0428 20:06:29.968642 30884 net.cpp:124] Setting up conv1
I0428 20:06:29.968672 30884 net.cpp:131] Top shape: 64 5 8 8 (20480)
I0428 20:06:29.968677 30884 net.cpp:139] Memory required for data: 4890880
I0428 20:06:29.968684 30884 layer_factory.hpp:77] Creating layer pool1
I0428 20:06:29.968693 30884 net.cpp:86] Creating Layer pool1
I0428 20:06:29.968696 30884 net.cpp:408] pool1 <- conv1
I0428 20:06:29.968700 30884 net.cpp:382] pool1 -> pool1
I0428 20:06:29.968765 30884 net.cpp:124] Setting up pool1
I0428 20:06:29.968778 30884 net.cpp:131] Top shape: 64 5 4 4 (5120)
I0428 20:06:29.968782 30884 net.cpp:139] Memory required for data: 4911360
I0428 20:06:29.968786 30884 layer_factory.hpp:77] Creating layer ip1
I0428 20:06:29.968792 30884 net.cpp:86] Creating Layer ip1
I0428 20:06:29.968796 30884 net.cpp:408] ip1 <- pool1
I0428 20:06:29.968801 30884 net.cpp:382] ip1 -> ip1
I0428 20:06:29.968932 30884 net.cpp:124] Setting up ip1
I0428 20:06:29.968940 30884 net.cpp:131] Top shape: 64 10 (640)
I0428 20:06:29.968943 30884 net.cpp:139] Memory required for data: 4913920
I0428 20:06:29.968950 30884 layer_factory.hpp:77] Creating layer relu1
I0428 20:06:29.968957 30884 net.cpp:86] Creating Layer relu1
I0428 20:06:29.968961 30884 net.cpp:408] relu1 <- ip1
I0428 20:06:29.968966 30884 net.cpp:369] relu1 -> ip1 (in-place)
I0428 20:06:29.969127 30884 net.cpp:124] Setting up relu1
I0428 20:06:29.969151 30884 net.cpp:131] Top shape: 64 10 (640)
I0428 20:06:29.969153 30884 net.cpp:139] Memory required for data: 4916480
I0428 20:06:29.969156 30884 layer_factory.hpp:77] Creating layer ip2
I0428 20:06:29.969161 30884 net.cpp:86] Creating Layer ip2
I0428 20:06:29.969166 30884 net.cpp:408] ip2 <- ip1
I0428 20:06:29.969169 30884 net.cpp:382] ip2 -> ip2
I0428 20:06:29.969254 30884 net.cpp:124] Setting up ip2
I0428 20:06:29.969260 30884 net.cpp:131] Top shape: 64 25 (1600)
I0428 20:06:29.969264 30884 net.cpp:139] Memory required for data: 4922880
I0428 20:06:29.969269 30884 layer_factory.hpp:77] Creating layer relu2
I0428 20:06:29.969274 30884 net.cpp:86] Creating Layer relu2
I0428 20:06:29.969276 30884 net.cpp:408] relu2 <- ip2
I0428 20:06:29.969280 30884 net.cpp:369] relu2 -> ip2 (in-place)
I0428 20:06:29.969995 30884 net.cpp:124] Setting up relu2
I0428 20:06:29.970008 30884 net.cpp:131] Top shape: 64 25 (1600)
I0428 20:06:29.970027 30884 net.cpp:139] Memory required for data: 4929280
I0428 20:06:29.970031 30884 layer_factory.hpp:77] Creating layer ip3
I0428 20:06:29.970037 30884 net.cpp:86] Creating Layer ip3
I0428 20:06:29.970041 30884 net.cpp:408] ip3 <- ip2
I0428 20:06:29.970046 30884 net.cpp:382] ip3 -> ip3
I0428 20:06:29.970139 30884 net.cpp:124] Setting up ip3
I0428 20:06:29.970147 30884 net.cpp:131] Top shape: 64 10 (640)
I0428 20:06:29.970150 30884 net.cpp:139] Memory required for data: 4931840
I0428 20:06:29.970157 30884 layer_factory.hpp:77] Creating layer relu3
I0428 20:06:29.970162 30884 net.cpp:86] Creating Layer relu3
I0428 20:06:29.970165 30884 net.cpp:408] relu3 <- ip3
I0428 20:06:29.970170 30884 net.cpp:369] relu3 -> ip3 (in-place)
I0428 20:06:29.970326 30884 net.cpp:124] Setting up relu3
I0428 20:06:29.970335 30884 net.cpp:131] Top shape: 64 10 (640)
I0428 20:06:29.970338 30884 net.cpp:139] Memory required for data: 4934400
I0428 20:06:29.970341 30884 layer_factory.hpp:77] Creating layer loss
I0428 20:06:29.970350 30884 net.cpp:86] Creating Layer loss
I0428 20:06:29.970355 30884 net.cpp:408] loss <- ip3
I0428 20:06:29.970360 30884 net.cpp:408] loss <- label
I0428 20:06:29.970366 30884 net.cpp:382] loss -> loss
I0428 20:06:29.970381 30884 layer_factory.hpp:77] Creating layer loss
…
I0428 20:06:29.971071 30884 solver.cpp:173] Creating test net (#0) specified by net file: ECE595/mnist/train_test/var_everything2/lenet_train_test1029.prototxt
I0428 20:06:29.971115 30884 net.cpp:296] The NetState phase (1) differed from the phase (0) specified by a rule in layer mnist
I0428 20:06:29.971206 30884 net.cpp:53] Initializing net from parameters: 
name: "LeNet"
state {
  phase: TEST
}
layer {
  name: "mnist"
  type: "Data"
  top: "data"
  top: "label"
  include {
    phase: TEST
  }
  transform_param {
    scale: 0.00390625
  }
  data_param {
    source: "examples/mnist/mnist_test_lmdb"
    batch_size: 100
    backend: LMDB
  }
}
layer {
  name: "conv0"
  type: "Convolution"
  bottom: "data"
  top: "conv0"
  param {
    lr_mult: 1
  }
  param {
    lr_mult: 2
  }
  convolution_param {
    num_output: 25
    kernel_size: 5
    stride: 1
    weight_filler {
      type: "xavier"
    }
    bias_filler {
      type: "constant"
    }
  }
}
layer {
  name: "pool0"
  type: "Pooling"
  bottom: "conv0"
  top: "pool0"
  pooling_param {
    pool: MAX
    kernel_size: 2
    stride: 2
  }
}
layer {
  name: "conv1"
  type: "Convolution"
  bottom: "pool0"
  top: "conv1"
  param {
    lr_mult: 1
  }
  param {
    lr_mult: 2
  }
  convolution_param {
    num_output: 5
    kernel_size: 5
    stride: 1
    weight_filler {
      type: "xavier"
    }
    bias_filler {
      type: "constant"
    }
  }
}
layer {
  name: "pool1"
  type: "Pooling"
  bottom: "conv1"
  top: "pool1"
  pooling_param {
    pool: MAX
    kernel_size: 2
    stride: 2
  }
}
layer {
  name: "ip1"
  type: "InnerProduct"
  bottom: "pool1"
  top: "ip1"
  param {
    lr_mult: 1
  }
  param {
    lr_mult: 2
  }
  inner_product_param {
    num_output: 10
    weight_filler {
      type: "xavier"
    }
    bias_filler {
      type: "constant"
    }
  }
}
layer {
  name: "relu1"
  type: "ReLU"
  bottom: "ip1"
  top: "ip1"
}
layer {
  name: "ip2"
  type: "InnerProduct"
  bottom: "ip1"
  top: "ip2"
  param {
    lr_mult: 1
  }
  param {
    lr_mult: 2
  }
  inner_product_param {
    num_output: 25
    weight_filler {
      type: "xavier"
    }
    bias_filler {
      type: "constant"
    }
  }
}
layer {
  name: "relu2"
  type: "ReLU"
  bottom: "ip2"
  top: "ip2"
}
layer {
  name: "ip3"
  type: "InnerProduct"
  bottom: "ip2"
  top: "ip3"
  param {
    lr_mult: 1
  }
  param {
    lr_mult: 2
  }
  inner_product_param {
    num_output: 10
    weight_filler {
      type: "xavier"
    }
    bias_filler {
      type: "constant"
    }
  }
}
layer {
  name: "relu3"
  type: "ReLU"
  bottom: "ip3"
  top: "ip3"
}
layer {
  name: "accuracy"
  type: "Accuracy"
  bottom: "ip3"
  bottom: "label"
  top: "accuracy"
  include {
    phase: TEST
  }
}
layer {
  name: "loss"
  type: "SoftmaxWithLoss"
  bottom: "ip3"
  bottom: "label"
  top: "loss"
}
I0428 20:06:29.971299 30884 layer_factory.hpp:77] Creating layer mnist
I0428 20:06:29.971345 30884 db_lmdb.cpp:35] Opened lmdb examples/mnist/mnist_test_lmdb
I0428 20:06:29.971359 30884 net.cpp:86] Creating Layer mnist
I0428 20:06:29.971364 30884 net.cpp:382] mnist -> data
I0428 20:06:29.971371 30884 net.cpp:382] mnist -> label
I0428 20:06:29.971448 30884 data_layer.cpp:45] output data size: 100,1,28,28
I0428 20:06:29.973331 30884 net.cpp:124] Setting up mnist
I0428 20:06:29.973361 30884 net.cpp:131] Top shape: 100 1 28 28 (78400)
I0428 20:06:29.973366 30884 net.cpp:131] Top shape: 100 (100)
I0428 20:06:29.973371 30884 net.cpp:139] Memory required for data: 314000
I0428 20:06:29.973376 30884 layer_factory.hpp:77] Creating layer label_mnist_1_split
I0428 20:06:29.973402 30884 net.cpp:86] Creating Layer label_mnist_1_split
I0428 20:06:29.973407 30884 net.cpp:408] label_mnist_1_split <- label
I0428 20:06:29.973414 30884 net.cpp:382] label_mnist_1_split -> label_mnist_1_split_0
I0428 20:06:29.973424 30884 net.cpp:382] label_mnist_1_split -> label_mnist_1_split_1
I0428 20:06:29.973492 30884 net.cpp:124] Setting up label_mnist_1_split
I0428 20:06:29.973500 30884 net.cpp:131] Top shape: 100 (100)
I0428 20:06:29.973505 30884 net.cpp:131] Top shape: 100 (100)
I0428 20:06:29.973507 30884 net.cpp:139] Memory required for data: 314800
I0428 20:06:29.973510 30884 layer_factory.hpp:77] Creating layer conv0
I0428 20:06:29.973520 30884 net.cpp:86] Creating Layer conv0
I0428 20:06:29.973522 30884 net.cpp:408] conv0 <- data
I0428 20:06:29.973527 30884 net.cpp:382] conv0 -> conv0
I0428 20:06:29.975191 30884 net.cpp:124] Setting up conv0
I0428 20:06:29.975205 30884 net.cpp:131] Top shape: 100 25 24 24 (1440000)
I0428 20:06:29.975208 30884 net.cpp:139] Memory required for data: 6074800
I0428 20:06:29.975217 30884 layer_factory.hpp:77] Creating layer pool0
I0428 20:06:29.975239 30884 net.cpp:86] Creating Layer pool0
I0428 20:06:29.975242 30884 net.cpp:408] pool0 <- conv0
I0428 20:06:29.975263 30884 net.cpp:382] pool0 -> pool0
I0428 20:06:29.975313 30884 net.cpp:124] Setting up pool0
I0428 20:06:29.975319 30884 net.cpp:131] Top shape: 100 25 12 12 (360000)
I0428 20:06:29.975322 30884 net.cpp:139] Memory required for data: 7514800
I0428 20:06:29.975324 30884 layer_factory.hpp:77] Creating layer conv1
I0428 20:06:29.975334 30884 net.cpp:86] Creating Layer conv1
I0428 20:06:29.975337 30884 net.cpp:408] conv1 <- pool0
I0428 20:06:29.975342 30884 net.cpp:382] conv1 -> conv1
I0428 20:06:29.977458 30884 net.cpp:124] Setting up conv1
I0428 20:06:29.977473 30884 net.cpp:131] Top shape: 100 5 8 8 (32000)
I0428 20:06:29.977476 30884 net.cpp:139] Memory required for data: 7642800
I0428 20:06:29.977485 30884 layer_factory.hpp:77] Creating layer pool1
I0428 20:06:29.977493 30884 net.cpp:86] Creating Layer pool1
I0428 20:06:29.977524 30884 net.cpp:408] pool1 <- conv1
I0428 20:06:29.977531 30884 net.cpp:382] pool1 -> pool1
I0428 20:06:29.977573 30884 net.cpp:124] Setting up pool1
I0428 20:06:29.977586 30884 net.cpp:131] Top shape: 100 5 4 4 (8000)
I0428 20:06:29.977589 30884 net.cpp:139] Memory required for data: 7674800
I0428 20:06:29.977603 30884 layer_factory.hpp:77] Creating layer ip1
I0428 20:06:29.977609 30884 net.cpp:86] Creating Layer ip1
I0428 20:06:29.977619 30884 net.cpp:408] ip1 <- pool1
I0428 20:06:29.977623 30884 net.cpp:382] ip1 -> ip1
I0428 20:06:29.977732 30884 net.cpp:124] Setting up ip1
I0428 20:06:29.977740 30884 net.cpp:131] Top shape: 100 10 (1000)
I0428 20:06:29.977752 30884 net.cpp:139] Memory required for data: 7678800
I0428 20:06:29.977759 30884 layer_factory.hpp:77] Creating layer relu1
I0428 20:06:29.977764 30884 net.cpp:86] Creating Layer relu1
I0428 20:06:29.977767 30884 net.cpp:408] relu1 <- ip1
I0428 20:06:29.977777 30884 net.cpp:369] relu1 -> ip1 (in-place)
I0428 20:06:29.978031 30884 net.cpp:124] Setting up relu1
I0428 20:06:29.978040 30884 net.cpp:131] Top shape: 100 10 (1000)
I0428 20:06:29.978044 30884 net.cpp:139] Memory required for data: 7682800
I0428 20:06:29.978046 30884 layer_factory.hpp:77] Creating layer ip2
I0428 20:06:29.978054 30884 net.cpp:86] Creating Layer ip2
I0428 20:06:29.978057 30884 net.cpp:408] ip2 <- ip1
I0428 20:06:29.978068 30884 net.cpp:382] ip2 -> ip2
I0428 20:06:29.978163 30884 net.cpp:124] Setting up ip2
I0428 20:06:29.978170 30884 net.cpp:131] Top shape: 100 25 (2500)
I0428 20:06:29.978174 30884 net.cpp:139] Memory required for data: 7692800
I0428 20:06:29.978179 30884 layer_factory.hpp:77] Creating layer relu2
I0428 20:06:29.978183 30884 net.cpp:86] Creating Layer relu2
I0428 20:06:29.978186 30884 net.cpp:408] relu2 <- ip2
I0428 20:06:29.978195 30884 net.cpp:369] relu2 -> ip2 (in-place)
I0428 20:06:29.978376 30884 net.cpp:124] Setting up relu2
I0428 20:06:29.978391 30884 net.cpp:131] Top shape: 100 25 (2500)
I0428 20:06:29.978395 30884 net.cpp:139] Memory required for data: 7702800
I0428 20:06:29.978399 30884 layer_factory.hpp:77] Creating layer ip3
I0428 20:06:29.978404 30884 net.cpp:86] Creating Layer ip3
I0428 20:06:29.978407 30884 net.cpp:408] ip3 <- ip2
I0428 20:06:29.978413 30884 net.cpp:382] ip3 -> ip3
I0428 20:06:29.978510 30884 net.cpp:124] Setting up ip3
I0428 20:06:29.978518 30884 net.cpp:131] Top shape: 100 10 (1000)
I0428 20:06:29.978520 30884 net.cpp:139] Memory required for data: 7706800
I0428 20:06:29.978528 30884 layer_factory.hpp:77] Creating layer relu3
I0428 20:06:29.978533 30884 net.cpp:86] Creating Layer relu3
I0428 20:06:29.978536 30884 net.cpp:408] relu3 <- ip3
I0428 20:06:29.978540 30884 net.cpp:369] relu3 -> ip3 (in-place)
I0428 20:06:29.979333 30884 net.cpp:124] Setting up relu3
I0428 20:06:29.979346 30884 net.cpp:131] Top shape: 100 10 (1000)
I0428 20:06:29.979351 30884 net.cpp:139] Memory required for data: 7710800
I0428 20:06:29.979357 30884 layer_factory.hpp:77] Creating layer ip3_relu3_0_split
I0428 20:06:29.979363 30884 net.cpp:86] Creating Layer ip3_relu3_0_split
I0428 20:06:29.979367 30884 net.cpp:408] ip3_relu3_0_split <- ip3
I0428 20:06:29.979372 30884 net.cpp:382] ip3_relu3_0_split -> ip3_relu3_0_split_0
I0428 20:06:29.979379 30884 net.cpp:382] ip3_relu3_0_split -> ip3_relu3_0_split_1
I0428 20:06:29.979434 30884 net.cpp:124] Setting up ip3_relu3_0_split
I0428 20:06:29.979442 30884 net.cpp:131] Top shape: 100 10 (1000)
I0428 20:06:29.979446 30884 net.cpp:131] Top shape: 100 10 (1000)
I0428 20:06:29.979449 30884 net.cpp:139] Memory required for data: 7718800
I0428 20:06:29.979451 30884 layer_factory.hpp:77] Creating layer accuracy
I0428 20:06:29.979465 30884 net.cpp:86] Creating Layer accuracy
I0428 20:06:29.979467 30884 net.cpp:408] accuracy <- ip3_relu3_0_split_0
I0428 20:06:29.979471 30884 net.cpp:408] accuracy <- label_mnist_1_split_0
I0428 20:06:29.979475 30884 net.cpp:382] accuracy -> accuracy
…
