…
I0428 19:40:39.776461 24603 net.cpp:296] The NetState phase (0) differed from the phase (1) specified by a rule in layer mnist
I0428 19:40:39.776492 24603 net.cpp:296] The NetState phase (0) differed from the phase (1) specified by a rule in layer accuracy
I0428 19:40:39.776574 24603 net.cpp:53] Initializing net from parameters: 
name: "LeNet"
state {
  phase: TRAIN
  level: 0
  stage: ""
}
layer {
  name: "mnist"
  type: "Data"
  top: "data"
  top: "label"
  include {
    phase: TRAIN
  }
  transform_param {
    scale: 0.00390625
  }
  data_param {
    source: "examples/mnist/mnist_train_lmdb"
    batch_size: 64
    backend: LMDB
  }
}
layer {
  name: "conv0"
  type: "Convolution"
  bottom: "data"
  top: "conv0"
  param {
    lr_mult: 1
  }
  param {
    lr_mult: 2
  }
  convolution_param {
    num_output: 2
    kernel_size: 5
    stride: 1
    weight_filler {
      type: "xavier"
    }
    bias_filler {
      type: "constant"
    }
  }
}
layer {
  name: "pool0"
  type: "Pooling"
  bottom: "conv0"
  top: "pool0"
  pooling_param {
    pool: MAX
    kernel_size: 2
    stride: 2
  }
}
layer {
  name: "conv1"
  type: "Convolution"
  bottom: "pool0"
  top: "conv1"
  param {
    lr_mult: 1
  }
  param {
    lr_mult: 2
  }
  convolution_param {
    num_output: 5
    kernel_size: 5
    stride: 1
    weight_filler {
      type: "xavier"
    }
    bias_filler {
      type: "constant"
    }
  }
}
layer {
  name: "pool1"
  type: "Pooling"
  bottom: "conv1"
  top: "pool1"
  pooling_param {
    pool: MAX
    kernel_size: 2
    stride: 2
  }
}
layer {
  name: "ip1"
  type: "InnerProduct"
  bottom: "pool1"
  top: "ip1"
  param {
    lr_mult: 1
  }
  param {
    lr_mult: 2
  }
  inner_product_param {
    num_output: 25
    weight_filler {
      type: "xavier"
    }
    bias_filler {
      type: "constant"
    }
  }
}
layer {
  name: "relu1"
  type: "ReLU"
  bottom: "ip1"
  top: "ip1"
}
layer {
  name: "ip2"
  type: "InnerProduct"
  bottom: "ip1"
  top: "ip2"
  param {
    lr_mult: 1
  }
  param {
    lr_mult: 2
  }
  inner_product_param {
    num_output: 50
    weight_filler {
      type: "xavier"
    }
    bias_filler {
      type: "constant"
    }
  }
}
layer {
  name: "relu2"
  type: "ReLU"
  bottom: "ip2"
  top: "ip2"
}
layer {
  name: "ip3"
  type: "InnerProduct"
  bottom: "ip2"
  top: "ip3"
  param {
    lr_mult: 1
  }
  param {
    lr_mult: 2
  }
  inner_product_param {
    num_output: 10
    weight_filler {
      type: "xavier"
    }
    bias_filler {
      type: "constant"
    }
  }
}
layer {
  name: "relu3"
  type: "ReLU"
  bottom: "ip3"
  top: "ip3"
}
layer {
  name: "loss"
  type: "SoftmaxWithLoss"
  bottom: "ip3"
  bottom: "label"
  top: "loss"
}
I0428 19:40:39.776639 24603 layer_factory.hpp:77] Creating layer mnist
I0428 19:40:39.776722 24603 db_lmdb.cpp:35] Opened lmdb examples/mnist/mnist_train_lmdb
I0428 19:40:39.776757 24603 net.cpp:86] Creating Layer mnist
I0428 19:40:39.776763 24603 net.cpp:382] mnist -> data
I0428 19:40:39.776782 24603 net.cpp:382] mnist -> label
I0428 19:40:39.777761 24603 data_layer.cpp:45] output data size: 64,1,28,28
I0428 19:40:39.780131 24603 net.cpp:124] Setting up mnist
I0428 19:40:39.780163 24603 net.cpp:131] Top shape: 64 1 28 28 (50176)
I0428 19:40:39.780169 24603 net.cpp:131] Top shape: 64 (64)
I0428 19:40:39.780172 24603 net.cpp:139] Memory required for data: 200960
I0428 19:40:39.780179 24603 layer_factory.hpp:77] Creating layer conv0
I0428 19:40:39.780194 24603 net.cpp:86] Creating Layer conv0
I0428 19:40:39.780217 24603 net.cpp:408] conv0 <- data
I0428 19:40:39.780251 24603 net.cpp:382] conv0 -> conv0
I0428 19:40:40.009636 24603 net.cpp:124] Setting up conv0
I0428 19:40:40.009677 24603 net.cpp:131] Top shape: 64 2 24 24 (73728)
I0428 19:40:40.009681 24603 net.cpp:139] Memory required for data: 495872
I0428 19:40:40.009696 24603 layer_factory.hpp:77] Creating layer pool0
I0428 19:40:40.009708 24603 net.cpp:86] Creating Layer pool0
I0428 19:40:40.009712 24603 net.cpp:408] pool0 <- conv0
I0428 19:40:40.009733 24603 net.cpp:382] pool0 -> pool0
I0428 19:40:40.009780 24603 net.cpp:124] Setting up pool0
I0428 19:40:40.009786 24603 net.cpp:131] Top shape: 64 2 12 12 (18432)
I0428 19:40:40.009789 24603 net.cpp:139] Memory required for data: 569600
I0428 19:40:40.009793 24603 layer_factory.hpp:77] Creating layer conv1
I0428 19:40:40.009802 24603 net.cpp:86] Creating Layer conv1
I0428 19:40:40.009805 24603 net.cpp:408] conv1 <- pool0
I0428 19:40:40.009809 24603 net.cpp:382] conv1 -> conv1
I0428 19:40:40.011706 24603 net.cpp:124] Setting up conv1
I0428 19:40:40.011736 24603 net.cpp:131] Top shape: 64 5 8 8 (20480)
I0428 19:40:40.011740 24603 net.cpp:139] Memory required for data: 651520
I0428 19:40:40.011765 24603 layer_factory.hpp:77] Creating layer pool1
I0428 19:40:40.011775 24603 net.cpp:86] Creating Layer pool1
I0428 19:40:40.011780 24603 net.cpp:408] pool1 <- conv1
I0428 19:40:40.011785 24603 net.cpp:382] pool1 -> pool1
I0428 19:40:40.011827 24603 net.cpp:124] Setting up pool1
I0428 19:40:40.011833 24603 net.cpp:131] Top shape: 64 5 4 4 (5120)
I0428 19:40:40.011837 24603 net.cpp:139] Memory required for data: 672000
I0428 19:40:40.011839 24603 layer_factory.hpp:77] Creating layer ip1
I0428 19:40:40.011847 24603 net.cpp:86] Creating Layer ip1
I0428 19:40:40.011850 24603 net.cpp:408] ip1 <- pool1
I0428 19:40:40.011857 24603 net.cpp:382] ip1 -> ip1
I0428 19:40:40.012892 24603 net.cpp:124] Setting up ip1
I0428 19:40:40.012904 24603 net.cpp:131] Top shape: 64 25 (1600)
I0428 19:40:40.012924 24603 net.cpp:139] Memory required for data: 678400
I0428 19:40:40.012933 24603 layer_factory.hpp:77] Creating layer relu1
I0428 19:40:40.012938 24603 net.cpp:86] Creating Layer relu1
I0428 19:40:40.012943 24603 net.cpp:408] relu1 <- ip1
I0428 19:40:40.012948 24603 net.cpp:369] relu1 -> ip1 (in-place)
I0428 19:40:40.013129 24603 net.cpp:124] Setting up relu1
I0428 19:40:40.013139 24603 net.cpp:131] Top shape: 64 25 (1600)
I0428 19:40:40.013142 24603 net.cpp:139] Memory required for data: 684800
I0428 19:40:40.013145 24603 layer_factory.hpp:77] Creating layer ip2
I0428 19:40:40.013152 24603 net.cpp:86] Creating Layer ip2
I0428 19:40:40.013155 24603 net.cpp:408] ip2 <- ip1
I0428 19:40:40.013161 24603 net.cpp:382] ip2 -> ip2
I0428 19:40:40.013275 24603 net.cpp:124] Setting up ip2
I0428 19:40:40.013283 24603 net.cpp:131] Top shape: 64 50 (3200)
I0428 19:40:40.013285 24603 net.cpp:139] Memory required for data: 697600
I0428 19:40:40.013291 24603 layer_factory.hpp:77] Creating layer relu2
I0428 19:40:40.013299 24603 net.cpp:86] Creating Layer relu2
I0428 19:40:40.013303 24603 net.cpp:408] relu2 <- ip2
I0428 19:40:40.013306 24603 net.cpp:369] relu2 -> ip2 (in-place)
I0428 19:40:40.014091 24603 net.cpp:124] Setting up relu2
I0428 19:40:40.014103 24603 net.cpp:131] Top shape: 64 50 (3200)
I0428 19:40:40.014122 24603 net.cpp:139] Memory required for data: 710400
I0428 19:40:40.014125 24603 layer_factory.hpp:77] Creating layer ip3
I0428 19:40:40.014134 24603 net.cpp:86] Creating Layer ip3
I0428 19:40:40.014137 24603 net.cpp:408] ip3 <- ip2
I0428 19:40:40.014143 24603 net.cpp:382] ip3 -> ip3
I0428 19:40:40.014251 24603 net.cpp:124] Setting up ip3
I0428 19:40:40.014261 24603 net.cpp:131] Top shape: 64 10 (640)
I0428 19:40:40.014263 24603 net.cpp:139] Memory required for data: 712960
I0428 19:40:40.014271 24603 layer_factory.hpp:77] Creating layer relu3
I0428 19:40:40.014276 24603 net.cpp:86] Creating Layer relu3
I0428 19:40:40.014279 24603 net.cpp:408] relu3 <- ip3
I0428 19:40:40.014283 24603 net.cpp:369] relu3 -> ip3 (in-place)
I0428 19:40:40.014469 24603 net.cpp:124] Setting up relu3
I0428 19:40:40.014478 24603 net.cpp:131] Top shape: 64 10 (640)
I0428 19:40:40.014482 24603 net.cpp:139] Memory required for data: 715520
I0428 19:40:40.014484 24603 layer_factory.hpp:77] Creating layer loss
I0428 19:40:40.014489 24603 net.cpp:86] Creating Layer loss
I0428 19:40:40.014492 24603 net.cpp:408] loss <- ip3
I0428 19:40:40.014497 24603 net.cpp:408] loss <- label
I0428 19:40:40.014502 24603 net.cpp:382] loss -> loss
I0428 19:40:40.014518 24603 layer_factory.hpp:77] Creating layer loss
…
I0428 19:40:40.015224 24603 solver.cpp:173] Creating test net (#0) specified by net file: ECE595/mnist/train_test/var_everything2/lenet_train_test341.prototxt
I0428 19:40:40.015269 24603 net.cpp:296] The NetState phase (1) differed from the phase (0) specified by a rule in layer mnist
I0428 19:40:40.015360 24603 net.cpp:53] Initializing net from parameters: 
name: "LeNet"
state {
  phase: TEST
}
layer {
  name: "mnist"
  type: "Data"
  top: "data"
  top: "label"
  include {
    phase: TEST
  }
  transform_param {
    scale: 0.00390625
  }
  data_param {
    source: "examples/mnist/mnist_test_lmdb"
    batch_size: 100
    backend: LMDB
  }
}
layer {
  name: "conv0"
  type: "Convolution"
  bottom: "data"
  top: "conv0"
  param {
    lr_mult: 1
  }
  param {
    lr_mult: 2
  }
  convolution_param {
    num_output: 2
    kernel_size: 5
    stride: 1
    weight_filler {
      type: "xavier"
    }
    bias_filler {
      type: "constant"
    }
  }
}
layer {
  name: "pool0"
  type: "Pooling"
  bottom: "conv0"
  top: "pool0"
  pooling_param {
    pool: MAX
    kernel_size: 2
    stride: 2
  }
}
layer {
  name: "conv1"
  type: "Convolution"
  bottom: "pool0"
  top: "conv1"
  param {
    lr_mult: 1
  }
  param {
    lr_mult: 2
  }
  convolution_param {
    num_output: 5
    kernel_size: 5
    stride: 1
    weight_filler {
      type: "xavier"
    }
    bias_filler {
      type: "constant"
    }
  }
}
layer {
  name: "pool1"
  type: "Pooling"
  bottom: "conv1"
  top: "pool1"
  pooling_param {
    pool: MAX
    kernel_size: 2
    stride: 2
  }
}
layer {
  name: "ip1"
  type: "InnerProduct"
  bottom: "pool1"
  top: "ip1"
  param {
    lr_mult: 1
  }
  param {
    lr_mult: 2
  }
  inner_product_param {
    num_output: 25
    weight_filler {
      type: "xavier"
    }
    bias_filler {
      type: "constant"
    }
  }
}
layer {
  name: "relu1"
  type: "ReLU"
  bottom: "ip1"
  top: "ip1"
}
layer {
  name: "ip2"
  type: "InnerProduct"
  bottom: "ip1"
  top: "ip2"
  param {
    lr_mult: 1
  }
  param {
    lr_mult: 2
  }
  inner_product_param {
    num_output: 50
    weight_filler {
      type: "xavier"
    }
    bias_filler {
      type: "constant"
    }
  }
}
layer {
  name: "relu2"
  type: "ReLU"
  bottom: "ip2"
  top: "ip2"
}
layer {
  name: "ip3"
  type: "InnerProduct"
  bottom: "ip2"
  top: "ip3"
  param {
    lr_mult: 1
  }
  param {
    lr_mult: 2
  }
  inner_product_param {
    num_output: 10
    weight_filler {
      type: "xavier"
    }
    bias_filler {
      type: "constant"
    }
  }
}
layer {
  name: "relu3"
  type: "ReLU"
  bottom: "ip3"
  top: "ip3"
}
layer {
  name: "accuracy"
  type: "Accuracy"
  bottom: "ip3"
  bottom: "label"
  top: "accuracy"
  include {
    phase: TEST
  }
}
layer {
  name: "loss"
  type: "SoftmaxWithLoss"
  bottom: "ip3"
  bottom: "label"
  top: "loss"
}
I0428 19:40:40.015444 24603 layer_factory.hpp:77] Creating layer mnist
I0428 19:40:40.015487 24603 db_lmdb.cpp:35] Opened lmdb examples/mnist/mnist_test_lmdb
I0428 19:40:40.015501 24603 net.cpp:86] Creating Layer mnist
I0428 19:40:40.015507 24603 net.cpp:382] mnist -> data
I0428 19:40:40.015514 24603 net.cpp:382] mnist -> label
I0428 19:40:40.015601 24603 data_layer.cpp:45] output data size: 100,1,28,28
I0428 19:40:40.017863 24603 net.cpp:124] Setting up mnist
I0428 19:40:40.017892 24603 net.cpp:131] Top shape: 100 1 28 28 (78400)
I0428 19:40:40.017897 24603 net.cpp:131] Top shape: 100 (100)
I0428 19:40:40.017899 24603 net.cpp:139] Memory required for data: 314000
I0428 19:40:40.017904 24603 layer_factory.hpp:77] Creating layer label_mnist_1_split
I0428 19:40:40.017930 24603 net.cpp:86] Creating Layer label_mnist_1_split
I0428 19:40:40.017935 24603 net.cpp:408] label_mnist_1_split <- label
I0428 19:40:40.017940 24603 net.cpp:382] label_mnist_1_split -> label_mnist_1_split_0
I0428 19:40:40.017946 24603 net.cpp:382] label_mnist_1_split -> label_mnist_1_split_1
I0428 19:40:40.018033 24603 net.cpp:124] Setting up label_mnist_1_split
I0428 19:40:40.018040 24603 net.cpp:131] Top shape: 100 (100)
I0428 19:40:40.018044 24603 net.cpp:131] Top shape: 100 (100)
I0428 19:40:40.018048 24603 net.cpp:139] Memory required for data: 314800
I0428 19:40:40.018050 24603 layer_factory.hpp:77] Creating layer conv0
I0428 19:40:40.018060 24603 net.cpp:86] Creating Layer conv0
I0428 19:40:40.018064 24603 net.cpp:408] conv0 <- data
I0428 19:40:40.018070 24603 net.cpp:382] conv0 -> conv0
I0428 19:40:40.019704 24603 net.cpp:124] Setting up conv0
I0428 19:40:40.019733 24603 net.cpp:131] Top shape: 100 2 24 24 (115200)
I0428 19:40:40.019737 24603 net.cpp:139] Memory required for data: 775600
I0428 19:40:40.019745 24603 layer_factory.hpp:77] Creating layer pool0
I0428 19:40:40.019753 24603 net.cpp:86] Creating Layer pool0
I0428 19:40:40.019757 24603 net.cpp:408] pool0 <- conv0
I0428 19:40:40.019762 24603 net.cpp:382] pool0 -> pool0
I0428 19:40:40.019798 24603 net.cpp:124] Setting up pool0
I0428 19:40:40.019804 24603 net.cpp:131] Top shape: 100 2 12 12 (28800)
I0428 19:40:40.019805 24603 net.cpp:139] Memory required for data: 890800
I0428 19:40:40.019809 24603 layer_factory.hpp:77] Creating layer conv1
I0428 19:40:40.019817 24603 net.cpp:86] Creating Layer conv1
I0428 19:40:40.019820 24603 net.cpp:408] conv1 <- pool0
I0428 19:40:40.019825 24603 net.cpp:382] conv1 -> conv1
I0428 19:40:40.021751 24603 net.cpp:124] Setting up conv1
I0428 19:40:40.021765 24603 net.cpp:131] Top shape: 100 5 8 8 (32000)
I0428 19:40:40.021770 24603 net.cpp:139] Memory required for data: 1018800
I0428 19:40:40.021778 24603 layer_factory.hpp:77] Creating layer pool1
I0428 19:40:40.021785 24603 net.cpp:86] Creating Layer pool1
I0428 19:40:40.021790 24603 net.cpp:408] pool1 <- conv1
I0428 19:40:40.021796 24603 net.cpp:382] pool1 -> pool1
I0428 19:40:40.021836 24603 net.cpp:124] Setting up pool1
I0428 19:40:40.021842 24603 net.cpp:131] Top shape: 100 5 4 4 (8000)
I0428 19:40:40.021844 24603 net.cpp:139] Memory required for data: 1050800
I0428 19:40:40.021848 24603 layer_factory.hpp:77] Creating layer ip1
I0428 19:40:40.021855 24603 net.cpp:86] Creating Layer ip1
I0428 19:40:40.021858 24603 net.cpp:408] ip1 <- pool1
I0428 19:40:40.021865 24603 net.cpp:382] ip1 -> ip1
I0428 19:40:40.022014 24603 net.cpp:124] Setting up ip1
I0428 19:40:40.022023 24603 net.cpp:131] Top shape: 100 25 (2500)
I0428 19:40:40.022037 24603 net.cpp:139] Memory required for data: 1060800
I0428 19:40:40.022045 24603 layer_factory.hpp:77] Creating layer relu1
I0428 19:40:40.022050 24603 net.cpp:86] Creating Layer relu1
I0428 19:40:40.022054 24603 net.cpp:408] relu1 <- ip1
I0428 19:40:40.022058 24603 net.cpp:369] relu1 -> ip1 (in-place)
I0428 19:40:40.022220 24603 net.cpp:124] Setting up relu1
I0428 19:40:40.022230 24603 net.cpp:131] Top shape: 100 25 (2500)
I0428 19:40:40.022234 24603 net.cpp:139] Memory required for data: 1070800
I0428 19:40:40.022238 24603 layer_factory.hpp:77] Creating layer ip2
I0428 19:40:40.022243 24603 net.cpp:86] Creating Layer ip2
I0428 19:40:40.022248 24603 net.cpp:408] ip2 <- ip1
I0428 19:40:40.022253 24603 net.cpp:382] ip2 -> ip2
I0428 19:40:40.022434 24603 net.cpp:124] Setting up ip2
I0428 19:40:40.022444 24603 net.cpp:131] Top shape: 100 50 (5000)
I0428 19:40:40.022446 24603 net.cpp:139] Memory required for data: 1090800
I0428 19:40:40.022451 24603 layer_factory.hpp:77] Creating layer relu2
I0428 19:40:40.022456 24603 net.cpp:86] Creating Layer relu2
I0428 19:40:40.022459 24603 net.cpp:408] relu2 <- ip2
I0428 19:40:40.022465 24603 net.cpp:369] relu2 -> ip2 (in-place)
I0428 19:40:40.022660 24603 net.cpp:124] Setting up relu2
I0428 19:40:40.022670 24603 net.cpp:131] Top shape: 100 50 (5000)
I0428 19:40:40.022673 24603 net.cpp:139] Memory required for data: 1110800
I0428 19:40:40.022676 24603 layer_factory.hpp:77] Creating layer ip3
I0428 19:40:40.022683 24603 net.cpp:86] Creating Layer ip3
I0428 19:40:40.022686 24603 net.cpp:408] ip3 <- ip2
I0428 19:40:40.022691 24603 net.cpp:382] ip3 -> ip3
I0428 19:40:40.022809 24603 net.cpp:124] Setting up ip3
I0428 19:40:40.022816 24603 net.cpp:131] Top shape: 100 10 (1000)
I0428 19:40:40.022819 24603 net.cpp:139] Memory required for data: 1114800
I0428 19:40:40.022826 24603 layer_factory.hpp:77] Creating layer relu3
I0428 19:40:40.022842 24603 net.cpp:86] Creating Layer relu3
I0428 19:40:40.022845 24603 net.cpp:408] relu3 <- ip3
I0428 19:40:40.022850 24603 net.cpp:369] relu3 -> ip3 (in-place)
I0428 19:40:40.023699 24603 net.cpp:124] Setting up relu3
I0428 19:40:40.023710 24603 net.cpp:131] Top shape: 100 10 (1000)
I0428 19:40:40.023730 24603 net.cpp:139] Memory required for data: 1118800
I0428 19:40:40.023733 24603 layer_factory.hpp:77] Creating layer ip3_relu3_0_split
I0428 19:40:40.023741 24603 net.cpp:86] Creating Layer ip3_relu3_0_split
I0428 19:40:40.023744 24603 net.cpp:408] ip3_relu3_0_split <- ip3
I0428 19:40:40.023751 24603 net.cpp:382] ip3_relu3_0_split -> ip3_relu3_0_split_0
I0428 19:40:40.023756 24603 net.cpp:382] ip3_relu3_0_split -> ip3_relu3_0_split_1
I0428 19:40:40.023828 24603 net.cpp:124] Setting up ip3_relu3_0_split
I0428 19:40:40.023833 24603 net.cpp:131] Top shape: 100 10 (1000)
I0428 19:40:40.023836 24603 net.cpp:131] Top shape: 100 10 (1000)
I0428 19:40:40.023839 24603 net.cpp:139] Memory required for data: 1126800
I0428 19:40:40.023843 24603 layer_factory.hpp:77] Creating layer accuracy
I0428 19:40:40.023847 24603 net.cpp:86] Creating Layer accuracy
I0428 19:40:40.023850 24603 net.cpp:408] accuracy <- ip3_relu3_0_split_0
I0428 19:40:40.023854 24603 net.cpp:408] accuracy <- label_mnist_1_split_0
I0428 19:40:40.023860 24603 net.cpp:382] accuracy -> accuracy
…
