…
I0428 20:35:24.272199  4616 net.cpp:296] The NetState phase (0) differed from the phase (1) specified by a rule in layer mnist
I0428 20:35:24.272220  4616 net.cpp:296] The NetState phase (0) differed from the phase (1) specified by a rule in layer accuracy
I0428 20:35:24.272323  4616 net.cpp:53] Initializing net from parameters: 
name: "LeNet"
state {
  phase: TRAIN
  level: 0
  stage: ""
}
layer {
  name: "mnist"
  type: "Data"
  top: "data"
  top: "label"
  include {
    phase: TRAIN
  }
  transform_param {
    scale: 0.00390625
  }
  data_param {
    source: "examples/mnist/mnist_train_lmdb"
    batch_size: 64
    backend: LMDB
  }
}
layer {
  name: "conv0"
  type: "Convolution"
  bottom: "data"
  top: "conv0"
  param {
    lr_mult: 1
  }
  param {
    lr_mult: 2
  }
  convolution_param {
    num_output: 100
    kernel_size: 5
    stride: 1
    weight_filler {
      type: "xavier"
    }
    bias_filler {
      type: "constant"
    }
  }
}
layer {
  name: "pool0"
  type: "Pooling"
  bottom: "conv0"
  top: "pool0"
  pooling_param {
    pool: MAX
    kernel_size: 2
    stride: 2
  }
}
layer {
  name: "conv1"
  type: "Convolution"
  bottom: "pool0"
  top: "conv1"
  param {
    lr_mult: 1
  }
  param {
    lr_mult: 2
  }
  convolution_param {
    num_output: 50
    kernel_size: 5
    stride: 1
    weight_filler {
      type: "xavier"
    }
    bias_filler {
      type: "constant"
    }
  }
}
layer {
  name: "pool1"
  type: "Pooling"
  bottom: "conv1"
  top: "pool1"
  pooling_param {
    pool: MAX
    kernel_size: 2
    stride: 2
  }
}
layer {
  name: "ip1"
  type: "InnerProduct"
  bottom: "pool1"
  top: "ip1"
  param {
    lr_mult: 1
  }
  param {
    lr_mult: 2
  }
  inner_product_param {
    num_output: 25
    weight_filler {
      type: "xavier"
    }
    bias_filler {
      type: "constant"
    }
  }
}
layer {
  name: "relu1"
  type: "ReLU"
  bottom: "ip1"
  top: "ip1"
}
layer {
  name: "ip2"
  type: "InnerProduct"
  bottom: "ip1"
  top: "ip2"
  param {
    lr_mult: 1
  }
  param {
    lr_mult: 2
  }
  inner_product_param {
    num_output: 10
    weight_filler {
      type: "xavier"
    }
    bias_filler {
      type: "constant"
    }
  }
}
layer {
  name: "relu2"
  type: "ReLU"
  bottom: "ip2"
  top: "ip2"
}
layer {
  name: "ip3"
  type: "InnerProduct"
  bottom: "ip2"
  top: "ip3"
  param {
    lr_mult: 1
  }
  param {
    lr_mult: 2
  }
  inner_product_param {
    num_output: 10
    weight_filler {
      type: "xavier"
    }
    bias_filler {
      type: "constant"
    }
  }
}
layer {
  name: "relu3"
  type: "ReLU"
  bottom: "ip3"
  top: "ip3"
}
layer {
  name: "loss"
  type: "SoftmaxWithLoss"
  bottom: "ip3"
  bottom: "label"
  top: "loss"
}
I0428 20:35:24.272403  4616 layer_factory.hpp:77] Creating layer mnist
I0428 20:35:24.272502  4616 db_lmdb.cpp:35] Opened lmdb examples/mnist/mnist_train_lmdb
I0428 20:35:24.272527  4616 net.cpp:86] Creating Layer mnist
I0428 20:35:24.272534  4616 net.cpp:382] mnist -> data
I0428 20:35:24.272558  4616 net.cpp:382] mnist -> label
I0428 20:35:24.273666  4616 data_layer.cpp:45] output data size: 64,1,28,28
I0428 20:35:24.276121  4616 net.cpp:124] Setting up mnist
I0428 20:35:24.276139  4616 net.cpp:131] Top shape: 64 1 28 28 (50176)
I0428 20:35:24.276147  4616 net.cpp:131] Top shape: 64 (64)
I0428 20:35:24.276152  4616 net.cpp:139] Memory required for data: 200960
I0428 20:35:24.276160  4616 layer_factory.hpp:77] Creating layer conv0
I0428 20:35:24.276176  4616 net.cpp:86] Creating Layer conv0
I0428 20:35:24.276201  4616 net.cpp:408] conv0 <- data
I0428 20:35:24.276216  4616 net.cpp:382] conv0 -> conv0
I0428 20:35:24.567927  4616 net.cpp:124] Setting up conv0
I0428 20:35:24.567956  4616 net.cpp:131] Top shape: 64 100 24 24 (3686400)
I0428 20:35:24.567960  4616 net.cpp:139] Memory required for data: 14946560
I0428 20:35:24.567978  4616 layer_factory.hpp:77] Creating layer pool0
I0428 20:35:24.567992  4616 net.cpp:86] Creating Layer pool0
I0428 20:35:24.567996  4616 net.cpp:408] pool0 <- conv0
I0428 20:35:24.568002  4616 net.cpp:382] pool0 -> pool0
I0428 20:35:24.568053  4616 net.cpp:124] Setting up pool0
I0428 20:35:24.568059  4616 net.cpp:131] Top shape: 64 100 12 12 (921600)
I0428 20:35:24.568063  4616 net.cpp:139] Memory required for data: 18632960
I0428 20:35:24.568065  4616 layer_factory.hpp:77] Creating layer conv1
I0428 20:35:24.568078  4616 net.cpp:86] Creating Layer conv1
I0428 20:35:24.568080  4616 net.cpp:408] conv1 <- pool0
I0428 20:35:24.568086  4616 net.cpp:382] conv1 -> conv1
I0428 20:35:24.571763  4616 net.cpp:124] Setting up conv1
I0428 20:35:24.571781  4616 net.cpp:131] Top shape: 64 50 8 8 (204800)
I0428 20:35:24.571785  4616 net.cpp:139] Memory required for data: 19452160
I0428 20:35:24.571795  4616 layer_factory.hpp:77] Creating layer pool1
I0428 20:35:24.571806  4616 net.cpp:86] Creating Layer pool1
I0428 20:35:24.571810  4616 net.cpp:408] pool1 <- conv1
I0428 20:35:24.571816  4616 net.cpp:382] pool1 -> pool1
I0428 20:35:24.571862  4616 net.cpp:124] Setting up pool1
I0428 20:35:24.571868  4616 net.cpp:131] Top shape: 64 50 4 4 (51200)
I0428 20:35:24.571871  4616 net.cpp:139] Memory required for data: 19656960
I0428 20:35:24.571874  4616 layer_factory.hpp:77] Creating layer ip1
I0428 20:35:24.571882  4616 net.cpp:86] Creating Layer ip1
I0428 20:35:24.571885  4616 net.cpp:408] ip1 <- pool1
I0428 20:35:24.571892  4616 net.cpp:382] ip1 -> ip1
I0428 20:35:24.572126  4616 net.cpp:124] Setting up ip1
I0428 20:35:24.572135  4616 net.cpp:131] Top shape: 64 25 (1600)
I0428 20:35:24.572139  4616 net.cpp:139] Memory required for data: 19663360
I0428 20:35:24.572146  4616 layer_factory.hpp:77] Creating layer relu1
I0428 20:35:24.572154  4616 net.cpp:86] Creating Layer relu1
I0428 20:35:24.572158  4616 net.cpp:408] relu1 <- ip1
I0428 20:35:24.572162  4616 net.cpp:369] relu1 -> ip1 (in-place)
I0428 20:35:24.572350  4616 net.cpp:124] Setting up relu1
I0428 20:35:24.572362  4616 net.cpp:131] Top shape: 64 25 (1600)
I0428 20:35:24.572365  4616 net.cpp:139] Memory required for data: 19669760
I0428 20:35:24.572369  4616 layer_factory.hpp:77] Creating layer ip2
I0428 20:35:24.572376  4616 net.cpp:86] Creating Layer ip2
I0428 20:35:24.572379  4616 net.cpp:408] ip2 <- ip1
I0428 20:35:24.572386  4616 net.cpp:382] ip2 -> ip2
I0428 20:35:24.572494  4616 net.cpp:124] Setting up ip2
I0428 20:35:24.572501  4616 net.cpp:131] Top shape: 64 10 (640)
I0428 20:35:24.572505  4616 net.cpp:139] Memory required for data: 19672320
I0428 20:35:24.572511  4616 layer_factory.hpp:77] Creating layer relu2
I0428 20:35:24.572520  4616 net.cpp:86] Creating Layer relu2
I0428 20:35:24.572522  4616 net.cpp:408] relu2 <- ip2
I0428 20:35:24.572530  4616 net.cpp:369] relu2 -> ip2 (in-place)
I0428 20:35:24.573344  4616 net.cpp:124] Setting up relu2
I0428 20:35:24.573359  4616 net.cpp:131] Top shape: 64 10 (640)
I0428 20:35:24.573361  4616 net.cpp:139] Memory required for data: 19674880
I0428 20:35:24.573365  4616 layer_factory.hpp:77] Creating layer ip3
I0428 20:35:24.573374  4616 net.cpp:86] Creating Layer ip3
I0428 20:35:24.573376  4616 net.cpp:408] ip3 <- ip2
I0428 20:35:24.573384  4616 net.cpp:382] ip3 -> ip3
I0428 20:35:24.573498  4616 net.cpp:124] Setting up ip3
I0428 20:35:24.573505  4616 net.cpp:131] Top shape: 64 10 (640)
I0428 20:35:24.573509  4616 net.cpp:139] Memory required for data: 19677440
I0428 20:35:24.573518  4616 layer_factory.hpp:77] Creating layer relu3
I0428 20:35:24.573524  4616 net.cpp:86] Creating Layer relu3
I0428 20:35:24.573529  4616 net.cpp:408] relu3 <- ip3
I0428 20:35:24.573532  4616 net.cpp:369] relu3 -> ip3 (in-place)
I0428 20:35:24.573730  4616 net.cpp:124] Setting up relu3
I0428 20:35:24.573740  4616 net.cpp:131] Top shape: 64 10 (640)
I0428 20:35:24.573743  4616 net.cpp:139] Memory required for data: 19680000
I0428 20:35:24.573747  4616 layer_factory.hpp:77] Creating layer loss
I0428 20:35:24.573755  4616 net.cpp:86] Creating Layer loss
I0428 20:35:24.573757  4616 net.cpp:408] loss <- ip3
I0428 20:35:24.573761  4616 net.cpp:408] loss <- label
I0428 20:35:24.573767  4616 net.cpp:382] loss -> loss
I0428 20:35:24.573786  4616 layer_factory.hpp:77] Creating layer loss
…
I0428 20:35:24.574468  4616 solver.cpp:173] Creating test net (#0) specified by net file: ECE595/mnist/train_test/var_everything2/lenet_train_test1620.prototxt
I0428 20:35:24.574497  4616 net.cpp:296] The NetState phase (1) differed from the phase (0) specified by a rule in layer mnist
I0428 20:35:24.574599  4616 net.cpp:53] Initializing net from parameters: 
name: "LeNet"
state {
  phase: TEST
}
layer {
  name: "mnist"
  type: "Data"
  top: "data"
  top: "label"
  include {
    phase: TEST
  }
  transform_param {
    scale: 0.00390625
  }
  data_param {
    source: "examples/mnist/mnist_test_lmdb"
    batch_size: 100
    backend: LMDB
  }
}
layer {
  name: "conv0"
  type: "Convolution"
  bottom: "data"
  top: "conv0"
  param {
    lr_mult: 1
  }
  param {
    lr_mult: 2
  }
  convolution_param {
    num_output: 100
    kernel_size: 5
    stride: 1
    weight_filler {
      type: "xavier"
    }
    bias_filler {
      type: "constant"
    }
  }
}
layer {
  name: "pool0"
  type: "Pooling"
  bottom: "conv0"
  top: "pool0"
  pooling_param {
    pool: MAX
    kernel_size: 2
    stride: 2
  }
}
layer {
  name: "conv1"
  type: "Convolution"
  bottom: "pool0"
  top: "conv1"
  param {
    lr_mult: 1
  }
  param {
    lr_mult: 2
  }
  convolution_param {
    num_output: 50
    kernel_size: 5
    stride: 1
    weight_filler {
      type: "xavier"
    }
    bias_filler {
      type: "constant"
    }
  }
}
layer {
  name: "pool1"
  type: "Pooling"
  bottom: "conv1"
  top: "pool1"
  pooling_param {
    pool: MAX
    kernel_size: 2
    stride: 2
  }
}
layer {
  name: "ip1"
  type: "InnerProduct"
  bottom: "pool1"
  top: "ip1"
  param {
    lr_mult: 1
  }
  param {
    lr_mult: 2
  }
  inner_product_param {
    num_output: 25
    weight_filler {
      type: "xavier"
    }
    bias_filler {
      type: "constant"
    }
  }
}
layer {
  name: "relu1"
  type: "ReLU"
  bottom: "ip1"
  top: "ip1"
}
layer {
  name: "ip2"
  type: "InnerProduct"
  bottom: "ip1"
  top: "ip2"
  param {
    lr_mult: 1
  }
  param {
    lr_mult: 2
  }
  inner_product_param {
    num_output: 10
    weight_filler {
      type: "xavier"
    }
    bias_filler {
      type: "constant"
    }
  }
}
layer {
  name: "relu2"
  type: "ReLU"
  bottom: "ip2"
  top: "ip2"
}
layer {
  name: "ip3"
  type: "InnerProduct"
  bottom: "ip2"
  top: "ip3"
  param {
    lr_mult: 1
  }
  param {
    lr_mult: 2
  }
  inner_product_param {
    num_output: 10
    weight_filler {
      type: "xavier"
    }
    bias_filler {
      type: "constant"
    }
  }
}
layer {
  name: "relu3"
  type: "ReLU"
  bottom: "ip3"
  top: "ip3"
}
layer {
  name: "accuracy"
  type: "Accuracy"
  bottom: "ip3"
  bottom: "label"
  top: "accuracy"
  include {
    phase: TEST
  }
}
layer {
  name: "loss"
  type: "SoftmaxWithLoss"
  bottom: "ip3"
  bottom: "label"
  top: "loss"
}
I0428 20:35:24.574687  4616 layer_factory.hpp:77] Creating layer mnist
I0428 20:35:24.574736  4616 db_lmdb.cpp:35] Opened lmdb examples/mnist/mnist_test_lmdb
I0428 20:35:24.574749  4616 net.cpp:86] Creating Layer mnist
I0428 20:35:24.574756  4616 net.cpp:382] mnist -> data
I0428 20:35:24.574764  4616 net.cpp:382] mnist -> label
I0428 20:35:24.574862  4616 data_layer.cpp:45] output data size: 100,1,28,28
I0428 20:35:24.576181  4616 net.cpp:124] Setting up mnist
I0428 20:35:24.576210  4616 net.cpp:131] Top shape: 100 1 28 28 (78400)
I0428 20:35:24.576215  4616 net.cpp:131] Top shape: 100 (100)
I0428 20:35:24.576217  4616 net.cpp:139] Memory required for data: 314000
I0428 20:35:24.576221  4616 layer_factory.hpp:77] Creating layer label_mnist_1_split
I0428 20:35:24.576228  4616 net.cpp:86] Creating Layer label_mnist_1_split
I0428 20:35:24.576232  4616 net.cpp:408] label_mnist_1_split <- label
I0428 20:35:24.576237  4616 net.cpp:382] label_mnist_1_split -> label_mnist_1_split_0
I0428 20:35:24.576246  4616 net.cpp:382] label_mnist_1_split -> label_mnist_1_split_1
I0428 20:35:24.576299  4616 net.cpp:124] Setting up label_mnist_1_split
I0428 20:35:24.576305  4616 net.cpp:131] Top shape: 100 (100)
I0428 20:35:24.576309  4616 net.cpp:131] Top shape: 100 (100)
I0428 20:35:24.576313  4616 net.cpp:139] Memory required for data: 314800
I0428 20:35:24.576315  4616 layer_factory.hpp:77] Creating layer conv0
I0428 20:35:24.576328  4616 net.cpp:86] Creating Layer conv0
I0428 20:35:24.576331  4616 net.cpp:408] conv0 <- data
I0428 20:35:24.576336  4616 net.cpp:382] conv0 -> conv0
I0428 20:35:24.578204  4616 net.cpp:124] Setting up conv0
I0428 20:35:24.578219  4616 net.cpp:131] Top shape: 100 100 24 24 (5760000)
I0428 20:35:24.578223  4616 net.cpp:139] Memory required for data: 23354800
I0428 20:35:24.578234  4616 layer_factory.hpp:77] Creating layer pool0
I0428 20:35:24.578241  4616 net.cpp:86] Creating Layer pool0
I0428 20:35:24.578244  4616 net.cpp:408] pool0 <- conv0
I0428 20:35:24.578251  4616 net.cpp:382] pool0 -> pool0
I0428 20:35:24.578294  4616 net.cpp:124] Setting up pool0
I0428 20:35:24.578302  4616 net.cpp:131] Top shape: 100 100 12 12 (1440000)
I0428 20:35:24.578305  4616 net.cpp:139] Memory required for data: 29114800
I0428 20:35:24.578308  4616 layer_factory.hpp:77] Creating layer conv1
I0428 20:35:24.578320  4616 net.cpp:86] Creating Layer conv1
I0428 20:35:24.578322  4616 net.cpp:408] conv1 <- pool0
I0428 20:35:24.578328  4616 net.cpp:382] conv1 -> conv1
I0428 20:35:24.581616  4616 net.cpp:124] Setting up conv1
I0428 20:35:24.581631  4616 net.cpp:131] Top shape: 100 50 8 8 (320000)
I0428 20:35:24.581635  4616 net.cpp:139] Memory required for data: 30394800
I0428 20:35:24.581647  4616 layer_factory.hpp:77] Creating layer pool1
I0428 20:35:24.581655  4616 net.cpp:86] Creating Layer pool1
I0428 20:35:24.581657  4616 net.cpp:408] pool1 <- conv1
I0428 20:35:24.581665  4616 net.cpp:382] pool1 -> pool1
I0428 20:35:24.581707  4616 net.cpp:124] Setting up pool1
I0428 20:35:24.581712  4616 net.cpp:131] Top shape: 100 50 4 4 (80000)
I0428 20:35:24.581715  4616 net.cpp:139] Memory required for data: 30714800
I0428 20:35:24.581718  4616 layer_factory.hpp:77] Creating layer ip1
I0428 20:35:24.581725  4616 net.cpp:86] Creating Layer ip1
I0428 20:35:24.581728  4616 net.cpp:408] ip1 <- pool1
I0428 20:35:24.581734  4616 net.cpp:382] ip1 -> ip1
I0428 20:35:24.581962  4616 net.cpp:124] Setting up ip1
I0428 20:35:24.581986  4616 net.cpp:131] Top shape: 100 25 (2500)
I0428 20:35:24.581990  4616 net.cpp:139] Memory required for data: 30724800
I0428 20:35:24.581997  4616 layer_factory.hpp:77] Creating layer relu1
I0428 20:35:24.582005  4616 net.cpp:86] Creating Layer relu1
I0428 20:35:24.582008  4616 net.cpp:408] relu1 <- ip1
I0428 20:35:24.582015  4616 net.cpp:369] relu1 -> ip1 (in-place)
I0428 20:35:24.582257  4616 net.cpp:124] Setting up relu1
I0428 20:35:24.582267  4616 net.cpp:131] Top shape: 100 25 (2500)
I0428 20:35:24.582270  4616 net.cpp:139] Memory required for data: 30734800
I0428 20:35:24.582273  4616 layer_factory.hpp:77] Creating layer ip2
I0428 20:35:24.582283  4616 net.cpp:86] Creating Layer ip2
I0428 20:35:24.582286  4616 net.cpp:408] ip2 <- ip1
I0428 20:35:24.582293  4616 net.cpp:382] ip2 -> ip2
I0428 20:35:24.582417  4616 net.cpp:124] Setting up ip2
I0428 20:35:24.582425  4616 net.cpp:131] Top shape: 100 10 (1000)
I0428 20:35:24.582429  4616 net.cpp:139] Memory required for data: 30738800
I0428 20:35:24.582435  4616 layer_factory.hpp:77] Creating layer relu2
I0428 20:35:24.582442  4616 net.cpp:86] Creating Layer relu2
I0428 20:35:24.582445  4616 net.cpp:408] relu2 <- ip2
I0428 20:35:24.582450  4616 net.cpp:369] relu2 -> ip2 (in-place)
I0428 20:35:24.582620  4616 net.cpp:124] Setting up relu2
I0428 20:35:24.582630  4616 net.cpp:131] Top shape: 100 10 (1000)
I0428 20:35:24.582633  4616 net.cpp:139] Memory required for data: 30742800
I0428 20:35:24.582638  4616 layer_factory.hpp:77] Creating layer ip3
I0428 20:35:24.582644  4616 net.cpp:86] Creating Layer ip3
I0428 20:35:24.582648  4616 net.cpp:408] ip3 <- ip2
I0428 20:35:24.582654  4616 net.cpp:382] ip3 -> ip3
I0428 20:35:24.582764  4616 net.cpp:124] Setting up ip3
I0428 20:35:24.582773  4616 net.cpp:131] Top shape: 100 10 (1000)
I0428 20:35:24.582777  4616 net.cpp:139] Memory required for data: 30746800
I0428 20:35:24.582785  4616 layer_factory.hpp:77] Creating layer relu3
I0428 20:35:24.582792  4616 net.cpp:86] Creating Layer relu3
I0428 20:35:24.582794  4616 net.cpp:408] relu3 <- ip3
I0428 20:35:24.582799  4616 net.cpp:369] relu3 -> ip3 (in-place)
I0428 20:35:24.583623  4616 net.cpp:124] Setting up relu3
I0428 20:35:24.583636  4616 net.cpp:131] Top shape: 100 10 (1000)
I0428 20:35:24.583639  4616 net.cpp:139] Memory required for data: 30750800
I0428 20:35:24.583643  4616 layer_factory.hpp:77] Creating layer ip3_relu3_0_split
I0428 20:35:24.583648  4616 net.cpp:86] Creating Layer ip3_relu3_0_split
I0428 20:35:24.583652  4616 net.cpp:408] ip3_relu3_0_split <- ip3
I0428 20:35:24.583658  4616 net.cpp:382] ip3_relu3_0_split -> ip3_relu3_0_split_0
I0428 20:35:24.583664  4616 net.cpp:382] ip3_relu3_0_split -> ip3_relu3_0_split_1
I0428 20:35:24.583747  4616 net.cpp:124] Setting up ip3_relu3_0_split
I0428 20:35:24.583757  4616 net.cpp:131] Top shape: 100 10 (1000)
I0428 20:35:24.583761  4616 net.cpp:131] Top shape: 100 10 (1000)
I0428 20:35:24.583765  4616 net.cpp:139] Memory required for data: 30758800
I0428 20:35:24.583767  4616 layer_factory.hpp:77] Creating layer accuracy
I0428 20:35:24.583778  4616 net.cpp:86] Creating Layer accuracy
I0428 20:35:24.583781  4616 net.cpp:408] accuracy <- ip3_relu3_0_split_0
I0428 20:35:24.583786  4616 net.cpp:408] accuracy <- label_mnist_1_split_0
I0428 20:35:24.583791  4616 net.cpp:382] accuracy -> accuracy
…
