…
I0428 20:16:32.778792   680 net.cpp:296] The NetState phase (0) differed from the phase (1) specified by a rule in layer mnist
I0428 20:16:32.778818   680 net.cpp:296] The NetState phase (0) differed from the phase (1) specified by a rule in layer accuracy
I0428 20:16:32.778934   680 net.cpp:53] Initializing net from parameters: 
name: "LeNet"
state {
  phase: TRAIN
  level: 0
  stage: ""
}
layer {
  name: "mnist"
  type: "Data"
  top: "data"
  top: "label"
  include {
    phase: TRAIN
  }
  transform_param {
    scale: 0.00390625
  }
  data_param {
    source: "examples/mnist/mnist_train_lmdb"
    batch_size: 64
    backend: LMDB
  }
}
layer {
  name: "conv0"
  type: "Convolution"
  bottom: "data"
  top: "conv0"
  param {
    lr_mult: 1
  }
  param {
    lr_mult: 2
  }
  convolution_param {
    num_output: 50
    kernel_size: 5
    stride: 1
    weight_filler {
      type: "xavier"
    }
    bias_filler {
      type: "constant"
    }
  }
}
layer {
  name: "pool0"
  type: "Pooling"
  bottom: "conv0"
  top: "pool0"
  pooling_param {
    pool: MAX
    kernel_size: 2
    stride: 2
  }
}
layer {
  name: "conv1"
  type: "Convolution"
  bottom: "pool0"
  top: "conv1"
  param {
    lr_mult: 1
  }
  param {
    lr_mult: 2
  }
  convolution_param {
    num_output: 5
    kernel_size: 5
    stride: 1
    weight_filler {
      type: "xavier"
    }
    bias_filler {
      type: "constant"
    }
  }
}
layer {
  name: "pool1"
  type: "Pooling"
  bottom: "conv1"
  top: "pool1"
  pooling_param {
    pool: MAX
    kernel_size: 2
    stride: 2
  }
}
layer {
  name: "ip1"
  type: "InnerProduct"
  bottom: "pool1"
  top: "ip1"
  param {
    lr_mult: 1
  }
  param {
    lr_mult: 2
  }
  inner_product_param {
    num_output: 25
    weight_filler {
      type: "xavier"
    }
    bias_filler {
      type: "constant"
    }
  }
}
layer {
  name: "relu1"
  type: "ReLU"
  bottom: "ip1"
  top: "ip1"
}
layer {
  name: "ip2"
  type: "InnerProduct"
  bottom: "ip1"
  top: "ip2"
  param {
    lr_mult: 1
  }
  param {
    lr_mult: 2
  }
  inner_product_param {
    num_output: 25
    weight_filler {
      type: "xavier"
    }
    bias_filler {
      type: "constant"
    }
  }
}
layer {
  name: "relu2"
  type: "ReLU"
  bottom: "ip2"
  top: "ip2"
}
layer {
  name: "ip3"
  type: "InnerProduct"
  bottom: "ip2"
  top: "ip3"
  param {
    lr_mult: 1
  }
  param {
    lr_mult: 2
  }
  inner_product_param {
    num_output: 10
    weight_filler {
      type: "xavier"
    }
    bias_filler {
      type: "constant"
    }
  }
}
layer {
  name: "relu3"
  type: "ReLU"
  bottom: "ip3"
  top: "ip3"
}
layer {
  name: "loss"
  type: "SoftmaxWithLoss"
  bottom: "ip3"
  bottom: "label"
  top: "loss"
}
I0428 20:16:32.779049   680 layer_factory.hpp:77] Creating layer mnist
I0428 20:16:32.779181   680 db_lmdb.cpp:35] Opened lmdb examples/mnist/mnist_train_lmdb
I0428 20:16:32.779216   680 net.cpp:86] Creating Layer mnist
I0428 20:16:32.779227   680 net.cpp:382] mnist -> data
I0428 20:16:32.779258   680 net.cpp:382] mnist -> label
I0428 20:16:32.780545   680 data_layer.cpp:45] output data size: 64,1,28,28
I0428 20:16:32.783021   680 net.cpp:124] Setting up mnist
I0428 20:16:32.783041   680 net.cpp:131] Top shape: 64 1 28 28 (50176)
I0428 20:16:32.783053   680 net.cpp:131] Top shape: 64 (64)
I0428 20:16:32.783061   680 net.cpp:139] Memory required for data: 200960
I0428 20:16:32.783071   680 layer_factory.hpp:77] Creating layer conv0
I0428 20:16:32.783093   680 net.cpp:86] Creating Layer conv0
I0428 20:16:32.783116   680 net.cpp:408] conv0 <- data
I0428 20:16:32.783138   680 net.cpp:382] conv0 -> conv0
I0428 20:16:33.062916   680 net.cpp:124] Setting up conv0
I0428 20:16:33.062944   680 net.cpp:131] Top shape: 64 50 24 24 (1843200)
I0428 20:16:33.062949   680 net.cpp:139] Memory required for data: 7573760
I0428 20:16:33.062968   680 layer_factory.hpp:77] Creating layer pool0
I0428 20:16:33.062988   680 net.cpp:86] Creating Layer pool0
I0428 20:16:33.062999   680 net.cpp:408] pool0 <- conv0
I0428 20:16:33.063010   680 net.cpp:382] pool0 -> pool0
I0428 20:16:33.063064   680 net.cpp:124] Setting up pool0
I0428 20:16:33.063073   680 net.cpp:131] Top shape: 64 50 12 12 (460800)
I0428 20:16:33.063077   680 net.cpp:139] Memory required for data: 9416960
I0428 20:16:33.063081   680 layer_factory.hpp:77] Creating layer conv1
I0428 20:16:33.063098   680 net.cpp:86] Creating Layer conv1
I0428 20:16:33.063104   680 net.cpp:408] conv1 <- pool0
I0428 20:16:33.063114   680 net.cpp:382] conv1 -> conv1
I0428 20:16:33.065954   680 net.cpp:124] Setting up conv1
I0428 20:16:33.065970   680 net.cpp:131] Top shape: 64 5 8 8 (20480)
I0428 20:16:33.065975   680 net.cpp:139] Memory required for data: 9498880
I0428 20:16:33.065989   680 layer_factory.hpp:77] Creating layer pool1
I0428 20:16:33.066001   680 net.cpp:86] Creating Layer pool1
I0428 20:16:33.066006   680 net.cpp:408] pool1 <- conv1
I0428 20:16:33.066015   680 net.cpp:382] pool1 -> pool1
I0428 20:16:33.066058   680 net.cpp:124] Setting up pool1
I0428 20:16:33.066066   680 net.cpp:131] Top shape: 64 5 4 4 (5120)
I0428 20:16:33.066071   680 net.cpp:139] Memory required for data: 9519360
I0428 20:16:33.066076   680 layer_factory.hpp:77] Creating layer ip1
I0428 20:16:33.066087   680 net.cpp:86] Creating Layer ip1
I0428 20:16:33.066092   680 net.cpp:408] ip1 <- pool1
I0428 20:16:33.066100   680 net.cpp:382] ip1 -> ip1
I0428 20:16:33.066220   680 net.cpp:124] Setting up ip1
I0428 20:16:33.066228   680 net.cpp:131] Top shape: 64 25 (1600)
I0428 20:16:33.066232   680 net.cpp:139] Memory required for data: 9525760
I0428 20:16:33.066244   680 layer_factory.hpp:77] Creating layer relu1
I0428 20:16:33.066256   680 net.cpp:86] Creating Layer relu1
I0428 20:16:33.066262   680 net.cpp:408] relu1 <- ip1
I0428 20:16:33.066270   680 net.cpp:369] relu1 -> ip1 (in-place)
I0428 20:16:33.066438   680 net.cpp:124] Setting up relu1
I0428 20:16:33.066448   680 net.cpp:131] Top shape: 64 25 (1600)
I0428 20:16:33.066453   680 net.cpp:139] Memory required for data: 9532160
I0428 20:16:33.066457   680 layer_factory.hpp:77] Creating layer ip2
I0428 20:16:33.066468   680 net.cpp:86] Creating Layer ip2
I0428 20:16:33.066473   680 net.cpp:408] ip2 <- ip1
I0428 20:16:33.066481   680 net.cpp:382] ip2 -> ip2
I0428 20:16:33.066583   680 net.cpp:124] Setting up ip2
I0428 20:16:33.066592   680 net.cpp:131] Top shape: 64 25 (1600)
I0428 20:16:33.066596   680 net.cpp:139] Memory required for data: 9538560
I0428 20:16:33.066604   680 layer_factory.hpp:77] Creating layer relu2
I0428 20:16:33.066614   680 net.cpp:86] Creating Layer relu2
I0428 20:16:33.066619   680 net.cpp:408] relu2 <- ip2
I0428 20:16:33.066627   680 net.cpp:369] relu2 -> ip2 (in-place)
I0428 20:16:33.067345   680 net.cpp:124] Setting up relu2
I0428 20:16:33.067359   680 net.cpp:131] Top shape: 64 25 (1600)
I0428 20:16:33.067364   680 net.cpp:139] Memory required for data: 9544960
I0428 20:16:33.067370   680 layer_factory.hpp:77] Creating layer ip3
I0428 20:16:33.067383   680 net.cpp:86] Creating Layer ip3
I0428 20:16:33.067389   680 net.cpp:408] ip3 <- ip2
I0428 20:16:33.067397   680 net.cpp:382] ip3 -> ip3
I0428 20:16:33.067525   680 net.cpp:124] Setting up ip3
I0428 20:16:33.067535   680 net.cpp:131] Top shape: 64 10 (640)
I0428 20:16:33.067539   680 net.cpp:139] Memory required for data: 9547520
I0428 20:16:33.067553   680 layer_factory.hpp:77] Creating layer relu3
I0428 20:16:33.067564   680 net.cpp:86] Creating Layer relu3
I0428 20:16:33.067570   680 net.cpp:408] relu3 <- ip3
I0428 20:16:33.067577   680 net.cpp:369] relu3 -> ip3 (in-place)
I0428 20:16:33.067795   680 net.cpp:124] Setting up relu3
I0428 20:16:33.067804   680 net.cpp:131] Top shape: 64 10 (640)
I0428 20:16:33.067809   680 net.cpp:139] Memory required for data: 9550080
I0428 20:16:33.067814   680 layer_factory.hpp:77] Creating layer loss
I0428 20:16:33.067822   680 net.cpp:86] Creating Layer loss
I0428 20:16:33.067827   680 net.cpp:408] loss <- ip3
I0428 20:16:33.067833   680 net.cpp:408] loss <- label
I0428 20:16:33.067842   680 net.cpp:382] loss -> loss
I0428 20:16:33.067860   680 layer_factory.hpp:77] Creating layer loss
…
I0428 20:16:33.068606   680 solver.cpp:173] Creating test net (#0) specified by net file: ECE595/mnist/train_test/var_everything2/lenet_train_test1273.prototxt
I0428 20:16:33.068639   680 net.cpp:296] The NetState phase (1) differed from the phase (0) specified by a rule in layer mnist
I0428 20:16:33.068748   680 net.cpp:53] Initializing net from parameters: 
name: "LeNet"
state {
  phase: TEST
}
layer {
  name: "mnist"
  type: "Data"
  top: "data"
  top: "label"
  include {
    phase: TEST
  }
  transform_param {
    scale: 0.00390625
  }
  data_param {
    source: "examples/mnist/mnist_test_lmdb"
    batch_size: 100
    backend: LMDB
  }
}
layer {
  name: "conv0"
  type: "Convolution"
  bottom: "data"
  top: "conv0"
  param {
    lr_mult: 1
  }
  param {
    lr_mult: 2
  }
  convolution_param {
    num_output: 50
    kernel_size: 5
    stride: 1
    weight_filler {
      type: "xavier"
    }
    bias_filler {
      type: "constant"
    }
  }
}
layer {
  name: "pool0"
  type: "Pooling"
  bottom: "conv0"
  top: "pool0"
  pooling_param {
    pool: MAX
    kernel_size: 2
    stride: 2
  }
}
layer {
  name: "conv1"
  type: "Convolution"
  bottom: "pool0"
  top: "conv1"
  param {
    lr_mult: 1
  }
  param {
    lr_mult: 2
  }
  convolution_param {
    num_output: 5
    kernel_size: 5
    stride: 1
    weight_filler {
      type: "xavier"
    }
    bias_filler {
      type: "constant"
    }
  }
}
layer {
  name: "pool1"
  type: "Pooling"
  bottom: "conv1"
  top: "pool1"
  pooling_param {
    pool: MAX
    kernel_size: 2
    stride: 2
  }
}
layer {
  name: "ip1"
  type: "InnerProduct"
  bottom: "pool1"
  top: "ip1"
  param {
    lr_mult: 1
  }
  param {
    lr_mult: 2
  }
  inner_product_param {
    num_output: 25
    weight_filler {
      type: "xavier"
    }
    bias_filler {
      type: "constant"
    }
  }
}
layer {
  name: "relu1"
  type: "ReLU"
  bottom: "ip1"
  top: "ip1"
}
layer {
  name: "ip2"
  type: "InnerProduct"
  bottom: "ip1"
  top: "ip2"
  param {
    lr_mult: 1
  }
  param {
    lr_mult: 2
  }
  inner_product_param {
    num_output: 25
    weight_filler {
      type: "xavier"
    }
    bias_filler {
      type: "constant"
    }
  }
}
layer {
  name: "relu2"
  type: "ReLU"
  bottom: "ip2"
  top: "ip2"
}
layer {
  name: "ip3"
  type: "InnerProduct"
  bottom: "ip2"
  top: "ip3"
  param {
    lr_mult: 1
  }
  param {
    lr_mult: 2
  }
  inner_product_param {
    num_output: 10
    weight_filler {
      type: "xavier"
    }
    bias_filler {
      type: "constant"
    }
  }
}
layer {
  name: "relu3"
  type: "ReLU"
  bottom: "ip3"
  top: "ip3"
}
layer {
  name: "accuracy"
  type: "Accuracy"
  bottom: "ip3"
  bottom: "label"
  top: "accuracy"
  include {
    phase: TEST
  }
}
layer {
  name: "loss"
  type: "SoftmaxWithLoss"
  bottom: "ip3"
  bottom: "label"
  top: "loss"
}
I0428 20:16:33.068900   680 layer_factory.hpp:77] Creating layer mnist
I0428 20:16:33.068958   680 db_lmdb.cpp:35] Opened lmdb examples/mnist/mnist_test_lmdb
I0428 20:16:33.068975   680 net.cpp:86] Creating Layer mnist
I0428 20:16:33.068985   680 net.cpp:382] mnist -> data
I0428 20:16:33.068997   680 net.cpp:382] mnist -> label
I0428 20:16:33.069120   680 data_layer.cpp:45] output data size: 100,1,28,28
I0428 20:16:33.071478   680 net.cpp:124] Setting up mnist
I0428 20:16:33.071509   680 net.cpp:131] Top shape: 100 1 28 28 (78400)
I0428 20:16:33.071516   680 net.cpp:131] Top shape: 100 (100)
I0428 20:16:33.071521   680 net.cpp:139] Memory required for data: 314000
I0428 20:16:33.071527   680 layer_factory.hpp:77] Creating layer label_mnist_1_split
I0428 20:16:33.071552   680 net.cpp:86] Creating Layer label_mnist_1_split
I0428 20:16:33.071557   680 net.cpp:408] label_mnist_1_split <- label
I0428 20:16:33.071564   680 net.cpp:382] label_mnist_1_split -> label_mnist_1_split_0
I0428 20:16:33.071574   680 net.cpp:382] label_mnist_1_split -> label_mnist_1_split_1
I0428 20:16:33.071686   680 net.cpp:124] Setting up label_mnist_1_split
I0428 20:16:33.071694   680 net.cpp:131] Top shape: 100 (100)
I0428 20:16:33.071701   680 net.cpp:131] Top shape: 100 (100)
I0428 20:16:33.071705   680 net.cpp:139] Memory required for data: 314800
I0428 20:16:33.071710   680 layer_factory.hpp:77] Creating layer conv0
I0428 20:16:33.071724   680 net.cpp:86] Creating Layer conv0
I0428 20:16:33.071732   680 net.cpp:408] conv0 <- data
I0428 20:16:33.071741   680 net.cpp:382] conv0 -> conv0
I0428 20:16:33.073349   680 net.cpp:124] Setting up conv0
I0428 20:16:33.073364   680 net.cpp:131] Top shape: 100 50 24 24 (2880000)
I0428 20:16:33.073369   680 net.cpp:139] Memory required for data: 11834800
I0428 20:16:33.073382   680 layer_factory.hpp:77] Creating layer pool0
I0428 20:16:33.073395   680 net.cpp:86] Creating Layer pool0
I0428 20:16:33.073400   680 net.cpp:408] pool0 <- conv0
I0428 20:16:33.073407   680 net.cpp:382] pool0 -> pool0
I0428 20:16:33.073449   680 net.cpp:124] Setting up pool0
I0428 20:16:33.073457   680 net.cpp:131] Top shape: 100 50 12 12 (720000)
I0428 20:16:33.073462   680 net.cpp:139] Memory required for data: 14714800
I0428 20:16:33.073467   680 layer_factory.hpp:77] Creating layer conv1
I0428 20:16:33.073479   680 net.cpp:86] Creating Layer conv1
I0428 20:16:33.073485   680 net.cpp:408] conv1 <- pool0
I0428 20:16:33.073494   680 net.cpp:382] conv1 -> conv1
I0428 20:16:33.075229   680 net.cpp:124] Setting up conv1
I0428 20:16:33.075259   680 net.cpp:131] Top shape: 100 5 8 8 (32000)
I0428 20:16:33.075265   680 net.cpp:139] Memory required for data: 14842800
I0428 20:16:33.075278   680 layer_factory.hpp:77] Creating layer pool1
I0428 20:16:33.075292   680 net.cpp:86] Creating Layer pool1
I0428 20:16:33.075300   680 net.cpp:408] pool1 <- conv1
I0428 20:16:33.075327   680 net.cpp:382] pool1 -> pool1
I0428 20:16:33.075384   680 net.cpp:124] Setting up pool1
I0428 20:16:33.075392   680 net.cpp:131] Top shape: 100 5 4 4 (8000)
I0428 20:16:33.075397   680 net.cpp:139] Memory required for data: 14874800
I0428 20:16:33.075402   680 layer_factory.hpp:77] Creating layer ip1
I0428 20:16:33.075412   680 net.cpp:86] Creating Layer ip1
I0428 20:16:33.075419   680 net.cpp:408] ip1 <- pool1
I0428 20:16:33.075428   680 net.cpp:382] ip1 -> ip1
I0428 20:16:33.075539   680 net.cpp:124] Setting up ip1
I0428 20:16:33.075547   680 net.cpp:131] Top shape: 100 25 (2500)
I0428 20:16:33.075563   680 net.cpp:139] Memory required for data: 14884800
I0428 20:16:33.075577   680 layer_factory.hpp:77] Creating layer relu1
I0428 20:16:33.075587   680 net.cpp:86] Creating Layer relu1
I0428 20:16:33.075593   680 net.cpp:408] relu1 <- ip1
I0428 20:16:33.075600   680 net.cpp:369] relu1 -> ip1 (in-place)
I0428 20:16:33.075786   680 net.cpp:124] Setting up relu1
I0428 20:16:33.075798   680 net.cpp:131] Top shape: 100 25 (2500)
I0428 20:16:33.075801   680 net.cpp:139] Memory required for data: 14894800
I0428 20:16:33.075806   680 layer_factory.hpp:77] Creating layer ip2
I0428 20:16:33.075830   680 net.cpp:86] Creating Layer ip2
I0428 20:16:33.075836   680 net.cpp:408] ip2 <- ip1
I0428 20:16:33.075845   680 net.cpp:382] ip2 -> ip2
I0428 20:16:33.075997   680 net.cpp:124] Setting up ip2
I0428 20:16:33.076006   680 net.cpp:131] Top shape: 100 25 (2500)
I0428 20:16:33.076010   680 net.cpp:139] Memory required for data: 14904800
I0428 20:16:33.076020   680 layer_factory.hpp:77] Creating layer relu2
I0428 20:16:33.076045   680 net.cpp:86] Creating Layer relu2
I0428 20:16:33.076050   680 net.cpp:408] relu2 <- ip2
I0428 20:16:33.076058   680 net.cpp:369] relu2 -> ip2 (in-place)
I0428 20:16:33.076257   680 net.cpp:124] Setting up relu2
I0428 20:16:33.076267   680 net.cpp:131] Top shape: 100 25 (2500)
I0428 20:16:33.076272   680 net.cpp:139] Memory required for data: 14914800
I0428 20:16:33.076277   680 layer_factory.hpp:77] Creating layer ip3
I0428 20:16:33.076297   680 net.cpp:86] Creating Layer ip3
I0428 20:16:33.076303   680 net.cpp:408] ip3 <- ip2
I0428 20:16:33.076313   680 net.cpp:382] ip3 -> ip3
I0428 20:16:33.076442   680 net.cpp:124] Setting up ip3
I0428 20:16:33.076452   680 net.cpp:131] Top shape: 100 10 (1000)
I0428 20:16:33.076465   680 net.cpp:139] Memory required for data: 14918800
I0428 20:16:33.076483   680 layer_factory.hpp:77] Creating layer relu3
I0428 20:16:33.076490   680 net.cpp:86] Creating Layer relu3
I0428 20:16:33.076496   680 net.cpp:408] relu3 <- ip3
I0428 20:16:33.076504   680 net.cpp:369] relu3 -> ip3 (in-place)
I0428 20:16:33.077452   680 net.cpp:124] Setting up relu3
I0428 20:16:33.077466   680 net.cpp:131] Top shape: 100 10 (1000)
I0428 20:16:33.077471   680 net.cpp:139] Memory required for data: 14922800
I0428 20:16:33.077476   680 layer_factory.hpp:77] Creating layer ip3_relu3_0_split
I0428 20:16:33.077483   680 net.cpp:86] Creating Layer ip3_relu3_0_split
I0428 20:16:33.077488   680 net.cpp:408] ip3_relu3_0_split <- ip3
I0428 20:16:33.077497   680 net.cpp:382] ip3_relu3_0_split -> ip3_relu3_0_split_0
I0428 20:16:33.077507   680 net.cpp:382] ip3_relu3_0_split -> ip3_relu3_0_split_1
I0428 20:16:33.077556   680 net.cpp:124] Setting up ip3_relu3_0_split
I0428 20:16:33.077565   680 net.cpp:131] Top shape: 100 10 (1000)
I0428 20:16:33.077571   680 net.cpp:131] Top shape: 100 10 (1000)
I0428 20:16:33.077590   680 net.cpp:139] Memory required for data: 14930800
I0428 20:16:33.077596   680 layer_factory.hpp:77] Creating layer accuracy
I0428 20:16:33.077606   680 net.cpp:86] Creating Layer accuracy
I0428 20:16:33.077617   680 net.cpp:408] accuracy <- ip3_relu3_0_split_0
I0428 20:16:33.077625   680 net.cpp:408] accuracy <- label_mnist_1_split_0
I0428 20:16:33.077648   680 net.cpp:382] accuracy -> accuracy
…
