…
I0428 20:10:42.258503 31901 net.cpp:296] The NetState phase (0) differed from the phase (1) specified by a rule in layer mnist
I0428 20:10:42.258517 31901 net.cpp:296] The NetState phase (0) differed from the phase (1) specified by a rule in layer accuracy
I0428 20:10:42.258584 31901 net.cpp:53] Initializing net from parameters: 
name: "LeNet"
state {
  phase: TRAIN
  level: 0
  stage: ""
}
layer {
  name: "mnist"
  type: "Data"
  top: "data"
  top: "label"
  include {
    phase: TRAIN
  }
  transform_param {
    scale: 0.00390625
  }
  data_param {
    source: "examples/mnist/mnist_train_lmdb"
    batch_size: 64
    backend: LMDB
  }
}
layer {
  name: "conv0"
  type: "Convolution"
  bottom: "data"
  top: "conv0"
  param {
    lr_mult: 1
  }
  param {
    lr_mult: 2
  }
  convolution_param {
    num_output: 25
    kernel_size: 5
    stride: 1
    weight_filler {
      type: "xavier"
    }
    bias_filler {
      type: "constant"
    }
  }
}
layer {
  name: "pool0"
  type: "Pooling"
  bottom: "conv0"
  top: "pool0"
  pooling_param {
    pool: MAX
    kernel_size: 2
    stride: 2
  }
}
layer {
  name: "conv1"
  type: "Convolution"
  bottom: "pool0"
  top: "conv1"
  param {
    lr_mult: 1
  }
  param {
    lr_mult: 2
  }
  convolution_param {
    num_output: 50
    kernel_size: 5
    stride: 1
    weight_filler {
      type: "xavier"
    }
    bias_filler {
      type: "constant"
    }
  }
}
layer {
  name: "pool1"
  type: "Pooling"
  bottom: "conv1"
  top: "pool1"
  pooling_param {
    pool: MAX
    kernel_size: 2
    stride: 2
  }
}
layer {
  name: "ip1"
  type: "InnerProduct"
  bottom: "pool1"
  top: "ip1"
  param {
    lr_mult: 1
  }
  param {
    lr_mult: 2
  }
  inner_product_param {
    num_output: 50
    weight_filler {
      type: "xavier"
    }
    bias_filler {
      type: "constant"
    }
  }
}
layer {
  name: "relu1"
  type: "ReLU"
  bottom: "ip1"
  top: "ip1"
}
layer {
  name: "ip2"
  type: "InnerProduct"
  bottom: "ip1"
  top: "ip2"
  param {
    lr_mult: 1
  }
  param {
    lr_mult: 2
  }
  inner_product_param {
    num_output: 10
    weight_filler {
      type: "xavier"
    }
    bias_filler {
      type: "constant"
    }
  }
}
layer {
  name: "relu2"
  type: "ReLU"
  bottom: "ip2"
  top: "ip2"
}
layer {
  name: "loss"
  type: "SoftmaxWithLoss"
  bottom: "ip2"
  bottom: "label"
  top: "loss"
}
I0428 20:10:42.258638 31901 layer_factory.hpp:77] Creating layer mnist
I0428 20:10:42.258718 31901 db_lmdb.cpp:35] Opened lmdb examples/mnist/mnist_train_lmdb
I0428 20:10:42.258738 31901 net.cpp:86] Creating Layer mnist
I0428 20:10:42.258743 31901 net.cpp:382] mnist -> data
I0428 20:10:42.258760 31901 net.cpp:382] mnist -> label
I0428 20:10:42.259676 31901 data_layer.cpp:45] output data size: 64,1,28,28
I0428 20:10:42.261968 31901 net.cpp:124] Setting up mnist
I0428 20:10:42.261997 31901 net.cpp:131] Top shape: 64 1 28 28 (50176)
I0428 20:10:42.262002 31901 net.cpp:131] Top shape: 64 (64)
I0428 20:10:42.262006 31901 net.cpp:139] Memory required for data: 200960
I0428 20:10:42.262012 31901 layer_factory.hpp:77] Creating layer conv0
I0428 20:10:42.262024 31901 net.cpp:86] Creating Layer conv0
I0428 20:10:42.262028 31901 net.cpp:408] conv0 <- data
I0428 20:10:42.262037 31901 net.cpp:382] conv0 -> conv0
I0428 20:10:42.489519 31901 net.cpp:124] Setting up conv0
I0428 20:10:42.489547 31901 net.cpp:131] Top shape: 64 25 24 24 (921600)
I0428 20:10:42.489550 31901 net.cpp:139] Memory required for data: 3887360
I0428 20:10:42.489578 31901 layer_factory.hpp:77] Creating layer pool0
I0428 20:10:42.489591 31901 net.cpp:86] Creating Layer pool0
I0428 20:10:42.489595 31901 net.cpp:408] pool0 <- conv0
I0428 20:10:42.489600 31901 net.cpp:382] pool0 -> pool0
I0428 20:10:42.489660 31901 net.cpp:124] Setting up pool0
I0428 20:10:42.489665 31901 net.cpp:131] Top shape: 64 25 12 12 (230400)
I0428 20:10:42.489667 31901 net.cpp:139] Memory required for data: 4808960
I0428 20:10:42.489670 31901 layer_factory.hpp:77] Creating layer conv1
I0428 20:10:42.489679 31901 net.cpp:86] Creating Layer conv1
I0428 20:10:42.489682 31901 net.cpp:408] conv1 <- pool0
I0428 20:10:42.489686 31901 net.cpp:382] conv1 -> conv1
I0428 20:10:42.491585 31901 net.cpp:124] Setting up conv1
I0428 20:10:42.491616 31901 net.cpp:131] Top shape: 64 50 8 8 (204800)
I0428 20:10:42.491619 31901 net.cpp:139] Memory required for data: 5628160
I0428 20:10:42.491628 31901 layer_factory.hpp:77] Creating layer pool1
I0428 20:10:42.491636 31901 net.cpp:86] Creating Layer pool1
I0428 20:10:42.491641 31901 net.cpp:408] pool1 <- conv1
I0428 20:10:42.491646 31901 net.cpp:382] pool1 -> pool1
I0428 20:10:42.491681 31901 net.cpp:124] Setting up pool1
I0428 20:10:42.491688 31901 net.cpp:131] Top shape: 64 50 4 4 (51200)
I0428 20:10:42.491690 31901 net.cpp:139] Memory required for data: 5832960
I0428 20:10:42.491693 31901 layer_factory.hpp:77] Creating layer ip1
I0428 20:10:42.491700 31901 net.cpp:86] Creating Layer ip1
I0428 20:10:42.491704 31901 net.cpp:408] ip1 <- pool1
I0428 20:10:42.491709 31901 net.cpp:382] ip1 -> ip1
I0428 20:10:42.492067 31901 net.cpp:124] Setting up ip1
I0428 20:10:42.492074 31901 net.cpp:131] Top shape: 64 50 (3200)
I0428 20:10:42.492094 31901 net.cpp:139] Memory required for data: 5845760
I0428 20:10:42.492100 31901 layer_factory.hpp:77] Creating layer relu1
I0428 20:10:42.492105 31901 net.cpp:86] Creating Layer relu1
I0428 20:10:42.492108 31901 net.cpp:408] relu1 <- ip1
I0428 20:10:42.492112 31901 net.cpp:369] relu1 -> ip1 (in-place)
I0428 20:10:42.492281 31901 net.cpp:124] Setting up relu1
I0428 20:10:42.492290 31901 net.cpp:131] Top shape: 64 50 (3200)
I0428 20:10:42.492293 31901 net.cpp:139] Memory required for data: 5858560
I0428 20:10:42.492296 31901 layer_factory.hpp:77] Creating layer ip2
I0428 20:10:42.492302 31901 net.cpp:86] Creating Layer ip2
I0428 20:10:42.492305 31901 net.cpp:408] ip2 <- ip1
I0428 20:10:42.492310 31901 net.cpp:382] ip2 -> ip2
I0428 20:10:42.492399 31901 net.cpp:124] Setting up ip2
I0428 20:10:42.492406 31901 net.cpp:131] Top shape: 64 10 (640)
I0428 20:10:42.492409 31901 net.cpp:139] Memory required for data: 5861120
I0428 20:10:42.492415 31901 layer_factory.hpp:77] Creating layer relu2
I0428 20:10:42.492420 31901 net.cpp:86] Creating Layer relu2
I0428 20:10:42.492424 31901 net.cpp:408] relu2 <- ip2
I0428 20:10:42.492427 31901 net.cpp:369] relu2 -> ip2 (in-place)
I0428 20:10:42.493273 31901 net.cpp:124] Setting up relu2
I0428 20:10:42.493286 31901 net.cpp:131] Top shape: 64 10 (640)
I0428 20:10:42.493305 31901 net.cpp:139] Memory required for data: 5863680
I0428 20:10:42.493309 31901 layer_factory.hpp:77] Creating layer loss
I0428 20:10:42.493314 31901 net.cpp:86] Creating Layer loss
I0428 20:10:42.493317 31901 net.cpp:408] loss <- ip2
I0428 20:10:42.493322 31901 net.cpp:408] loss <- label
I0428 20:10:42.493327 31901 net.cpp:382] loss -> loss
I0428 20:10:42.493360 31901 layer_factory.hpp:77] Creating layer loss
…
I0428 20:10:42.493953 31901 solver.cpp:173] Creating test net (#0) specified by net file: ECE595/mnist/train_test/var_everything2/lenet_train_test1141.prototxt
I0428 20:10:42.493978 31901 net.cpp:296] The NetState phase (1) differed from the phase (0) specified by a rule in layer mnist
I0428 20:10:42.494055 31901 net.cpp:53] Initializing net from parameters: 
name: "LeNet"
state {
  phase: TEST
}
layer {
  name: "mnist"
  type: "Data"
  top: "data"
  top: "label"
  include {
    phase: TEST
  }
  transform_param {
    scale: 0.00390625
  }
  data_param {
    source: "examples/mnist/mnist_test_lmdb"
    batch_size: 100
    backend: LMDB
  }
}
layer {
  name: "conv0"
  type: "Convolution"
  bottom: "data"
  top: "conv0"
  param {
    lr_mult: 1
  }
  param {
    lr_mult: 2
  }
  convolution_param {
    num_output: 25
    kernel_size: 5
    stride: 1
    weight_filler {
      type: "xavier"
    }
    bias_filler {
      type: "constant"
    }
  }
}
layer {
  name: "pool0"
  type: "Pooling"
  bottom: "conv0"
  top: "pool0"
  pooling_param {
    pool: MAX
    kernel_size: 2
    stride: 2
  }
}
layer {
  name: "conv1"
  type: "Convolution"
  bottom: "pool0"
  top: "conv1"
  param {
    lr_mult: 1
  }
  param {
    lr_mult: 2
  }
  convolution_param {
    num_output: 50
    kernel_size: 5
    stride: 1
    weight_filler {
      type: "xavier"
    }
    bias_filler {
      type: "constant"
    }
  }
}
layer {
  name: "pool1"
  type: "Pooling"
  bottom: "conv1"
  top: "pool1"
  pooling_param {
    pool: MAX
    kernel_size: 2
    stride: 2
  }
}
layer {
  name: "ip1"
  type: "InnerProduct"
  bottom: "pool1"
  top: "ip1"
  param {
    lr_mult: 1
  }
  param {
    lr_mult: 2
  }
  inner_product_param {
    num_output: 50
    weight_filler {
      type: "xavier"
    }
    bias_filler {
      type: "constant"
    }
  }
}
layer {
  name: "relu1"
  type: "ReLU"
  bottom: "ip1"
  top: "ip1"
}
layer {
  name: "ip2"
  type: "InnerProduct"
  bottom: "ip1"
  top: "ip2"
  param {
    lr_mult: 1
  }
  param {
    lr_mult: 2
  }
  inner_product_param {
    num_output: 10
    weight_filler {
      type: "xavier"
    }
    bias_filler {
      type: "constant"
    }
  }
}
layer {
  name: "relu2"
  type: "ReLU"
  bottom: "ip2"
  top: "ip2"
}
layer {
  name: "accuracy"
  type: "Accuracy"
  bottom: "ip2"
  bottom: "label"
  top: "accuracy"
  include {
    phase: TEST
  }
}
layer {
  name: "loss"
  type: "SoftmaxWithLoss"
  bottom: "ip2"
  bottom: "label"
  top: "loss"
}
I0428 20:10:42.494129 31901 layer_factory.hpp:77] Creating layer mnist
I0428 20:10:42.494189 31901 db_lmdb.cpp:35] Opened lmdb examples/mnist/mnist_test_lmdb
I0428 20:10:42.494200 31901 net.cpp:86] Creating Layer mnist
I0428 20:10:42.494204 31901 net.cpp:382] mnist -> data
I0428 20:10:42.494212 31901 net.cpp:382] mnist -> label
I0428 20:10:42.494309 31901 data_layer.cpp:45] output data size: 100,1,28,28
I0428 20:10:42.496428 31901 net.cpp:124] Setting up mnist
I0428 20:10:42.496456 31901 net.cpp:131] Top shape: 100 1 28 28 (78400)
I0428 20:10:42.496462 31901 net.cpp:131] Top shape: 100 (100)
I0428 20:10:42.496465 31901 net.cpp:139] Memory required for data: 314000
I0428 20:10:42.496469 31901 layer_factory.hpp:77] Creating layer label_mnist_1_split
I0428 20:10:42.496476 31901 net.cpp:86] Creating Layer label_mnist_1_split
I0428 20:10:42.496479 31901 net.cpp:408] label_mnist_1_split <- label
I0428 20:10:42.496484 31901 net.cpp:382] label_mnist_1_split -> label_mnist_1_split_0
I0428 20:10:42.496490 31901 net.cpp:382] label_mnist_1_split -> label_mnist_1_split_1
I0428 20:10:42.496631 31901 net.cpp:124] Setting up label_mnist_1_split
I0428 20:10:42.496655 31901 net.cpp:131] Top shape: 100 (100)
I0428 20:10:42.496660 31901 net.cpp:131] Top shape: 100 (100)
I0428 20:10:42.496675 31901 net.cpp:139] Memory required for data: 314800
I0428 20:10:42.496677 31901 layer_factory.hpp:77] Creating layer conv0
I0428 20:10:42.496685 31901 net.cpp:86] Creating Layer conv0
I0428 20:10:42.496690 31901 net.cpp:408] conv0 <- data
I0428 20:10:42.496695 31901 net.cpp:382] conv0 -> conv0
I0428 20:10:42.498348 31901 net.cpp:124] Setting up conv0
I0428 20:10:42.498363 31901 net.cpp:131] Top shape: 100 25 24 24 (1440000)
I0428 20:10:42.498366 31901 net.cpp:139] Memory required for data: 6074800
I0428 20:10:42.498375 31901 layer_factory.hpp:77] Creating layer pool0
I0428 20:10:42.498381 31901 net.cpp:86] Creating Layer pool0
I0428 20:10:42.498384 31901 net.cpp:408] pool0 <- conv0
I0428 20:10:42.498389 31901 net.cpp:382] pool0 -> pool0
I0428 20:10:42.498421 31901 net.cpp:124] Setting up pool0
I0428 20:10:42.498427 31901 net.cpp:131] Top shape: 100 25 12 12 (360000)
I0428 20:10:42.498430 31901 net.cpp:139] Memory required for data: 7514800
I0428 20:10:42.498432 31901 layer_factory.hpp:77] Creating layer conv1
I0428 20:10:42.498440 31901 net.cpp:86] Creating Layer conv1
I0428 20:10:42.498443 31901 net.cpp:408] conv1 <- pool0
I0428 20:10:42.498447 31901 net.cpp:382] conv1 -> conv1
I0428 20:10:42.500180 31901 net.cpp:124] Setting up conv1
I0428 20:10:42.500193 31901 net.cpp:131] Top shape: 100 50 8 8 (320000)
I0428 20:10:42.500212 31901 net.cpp:139] Memory required for data: 8794800
I0428 20:10:42.500236 31901 layer_factory.hpp:77] Creating layer pool1
I0428 20:10:42.500242 31901 net.cpp:86] Creating Layer pool1
I0428 20:10:42.500247 31901 net.cpp:408] pool1 <- conv1
I0428 20:10:42.500265 31901 net.cpp:382] pool1 -> pool1
I0428 20:10:42.500320 31901 net.cpp:124] Setting up pool1
I0428 20:10:42.500329 31901 net.cpp:131] Top shape: 100 50 4 4 (80000)
I0428 20:10:42.500334 31901 net.cpp:139] Memory required for data: 9114800
I0428 20:10:42.500336 31901 layer_factory.hpp:77] Creating layer ip1
I0428 20:10:42.500341 31901 net.cpp:86] Creating Layer ip1
I0428 20:10:42.500344 31901 net.cpp:408] ip1 <- pool1
I0428 20:10:42.500349 31901 net.cpp:382] ip1 -> ip1
I0428 20:10:42.500715 31901 net.cpp:124] Setting up ip1
I0428 20:10:42.500723 31901 net.cpp:131] Top shape: 100 50 (5000)
I0428 20:10:42.500726 31901 net.cpp:139] Memory required for data: 9134800
I0428 20:10:42.500733 31901 layer_factory.hpp:77] Creating layer relu1
I0428 20:10:42.500738 31901 net.cpp:86] Creating Layer relu1
I0428 20:10:42.500741 31901 net.cpp:408] relu1 <- ip1
I0428 20:10:42.500746 31901 net.cpp:369] relu1 -> ip1 (in-place)
I0428 20:10:42.500916 31901 net.cpp:124] Setting up relu1
I0428 20:10:42.500926 31901 net.cpp:131] Top shape: 100 50 (5000)
I0428 20:10:42.500929 31901 net.cpp:139] Memory required for data: 9154800
I0428 20:10:42.500932 31901 layer_factory.hpp:77] Creating layer ip2
I0428 20:10:42.500938 31901 net.cpp:86] Creating Layer ip2
I0428 20:10:42.500942 31901 net.cpp:408] ip2 <- ip1
I0428 20:10:42.500946 31901 net.cpp:382] ip2 -> ip2
I0428 20:10:42.501056 31901 net.cpp:124] Setting up ip2
I0428 20:10:42.501078 31901 net.cpp:131] Top shape: 100 10 (1000)
I0428 20:10:42.501081 31901 net.cpp:139] Memory required for data: 9158800
I0428 20:10:42.501086 31901 layer_factory.hpp:77] Creating layer relu2
I0428 20:10:42.501091 31901 net.cpp:86] Creating Layer relu2
I0428 20:10:42.501094 31901 net.cpp:408] relu2 <- ip2
I0428 20:10:42.501099 31901 net.cpp:369] relu2 -> ip2 (in-place)
I0428 20:10:42.501252 31901 net.cpp:124] Setting up relu2
I0428 20:10:42.501260 31901 net.cpp:131] Top shape: 100 10 (1000)
I0428 20:10:42.501286 31901 net.cpp:139] Memory required for data: 9162800
I0428 20:10:42.501289 31901 layer_factory.hpp:77] Creating layer ip2_relu2_0_split
I0428 20:10:42.501308 31901 net.cpp:86] Creating Layer ip2_relu2_0_split
I0428 20:10:42.501312 31901 net.cpp:408] ip2_relu2_0_split <- ip2
I0428 20:10:42.501317 31901 net.cpp:382] ip2_relu2_0_split -> ip2_relu2_0_split_0
I0428 20:10:42.501333 31901 net.cpp:382] ip2_relu2_0_split -> ip2_relu2_0_split_1
I0428 20:10:42.501387 31901 net.cpp:124] Setting up ip2_relu2_0_split
I0428 20:10:42.501399 31901 net.cpp:131] Top shape: 100 10 (1000)
I0428 20:10:42.501402 31901 net.cpp:131] Top shape: 100 10 (1000)
I0428 20:10:42.501405 31901 net.cpp:139] Memory required for data: 9170800
I0428 20:10:42.501408 31901 layer_factory.hpp:77] Creating layer accuracy
I0428 20:10:42.501418 31901 net.cpp:86] Creating Layer accuracy
I0428 20:10:42.501422 31901 net.cpp:408] accuracy <- ip2_relu2_0_split_0
I0428 20:10:42.501426 31901 net.cpp:408] accuracy <- label_mnist_1_split_0
I0428 20:10:42.501430 31901 net.cpp:382] accuracy -> accuracy
…
