…
I0428 19:31:40.141330 22636 net.cpp:296] The NetState phase (0) differed from the phase (1) specified by a rule in layer mnist
I0428 19:31:40.141347 22636 net.cpp:296] The NetState phase (0) differed from the phase (1) specified by a rule in layer accuracy
I0428 19:31:40.141424 22636 net.cpp:53] Initializing net from parameters: 
name: "LeNet"
state {
  phase: TRAIN
  level: 0
  stage: ""
}
layer {
  name: "mnist"
  type: "Data"
  top: "data"
  top: "label"
  include {
    phase: TRAIN
  }
  transform_param {
    scale: 0.00390625
  }
  data_param {
    source: "examples/mnist/mnist_train_lmdb"
    batch_size: 64
    backend: LMDB
  }
}
layer {
  name: "conv0"
  type: "Convolution"
  bottom: "data"
  top: "conv0"
  param {
    lr_mult: 1
  }
  param {
    lr_mult: 2
  }
  convolution_param {
    num_output: 10
    kernel_size: 5
    stride: 1
    weight_filler {
      type: "xavier"
    }
    bias_filler {
      type: "constant"
    }
  }
}
layer {
  name: "pool0"
  type: "Pooling"
  bottom: "conv0"
  top: "pool0"
  pooling_param {
    pool: MAX
    kernel_size: 2
    stride: 2
  }
}
layer {
  name: "ip1"
  type: "InnerProduct"
  bottom: "pool0"
  top: "ip1"
  param {
    lr_mult: 1
  }
  param {
    lr_mult: 2
  }
  inner_product_param {
    num_output: 10
    weight_filler {
      type: "xavier"
    }
    bias_filler {
      type: "constant"
    }
  }
}
layer {
  name: "relu1"
  type: "ReLU"
  bottom: "ip1"
  top: "ip1"
}
layer {
  name: "ip2"
  type: "InnerProduct"
  bottom: "ip1"
  top: "ip2"
  param {
    lr_mult: 1
  }
  param {
    lr_mult: 2
  }
  inner_product_param {
    num_output: 10
    weight_filler {
      type: "xavier"
    }
    bias_filler {
      type: "constant"
    }
  }
}
layer {
  name: "relu2"
  type: "ReLU"
  bottom: "ip2"
  top: "ip2"
}
layer {
  name: "ip3"
  type: "InnerProduct"
  bottom: "ip2"
  top: "ip3"
  param {
    lr_mult: 1
  }
  param {
    lr_mult: 2
  }
  inner_product_param {
    num_output: 10
    weight_filler {
      type: "xavier"
    }
    bias_filler {
      type: "constant"
    }
  }
}
layer {
  name: "relu3"
  type: "ReLU"
  bottom: "ip3"
  top: "ip3"
}
layer {
  name: "loss"
  type: "SoftmaxWithLoss"
  bottom: "ip3"
  bottom: "label"
  top: "loss"
}
I0428 19:31:40.141510 22636 layer_factory.hpp:77] Creating layer mnist
I0428 19:31:40.141629 22636 db_lmdb.cpp:35] Opened lmdb examples/mnist/mnist_train_lmdb
I0428 19:31:40.141655 22636 net.cpp:86] Creating Layer mnist
I0428 19:31:40.141665 22636 net.cpp:382] mnist -> data
I0428 19:31:40.141690 22636 net.cpp:382] mnist -> label
I0428 19:31:40.142813 22636 data_layer.cpp:45] output data size: 64,1,28,28
I0428 19:31:40.145061 22636 net.cpp:124] Setting up mnist
I0428 19:31:40.145093 22636 net.cpp:131] Top shape: 64 1 28 28 (50176)
I0428 19:31:40.145119 22636 net.cpp:131] Top shape: 64 (64)
I0428 19:31:40.145124 22636 net.cpp:139] Memory required for data: 200960
I0428 19:31:40.145133 22636 layer_factory.hpp:77] Creating layer conv0
I0428 19:31:40.145151 22636 net.cpp:86] Creating Layer conv0
I0428 19:31:40.145159 22636 net.cpp:408] conv0 <- data
I0428 19:31:40.145175 22636 net.cpp:382] conv0 -> conv0
I0428 19:31:40.372833 22636 net.cpp:124] Setting up conv0
I0428 19:31:40.372861 22636 net.cpp:131] Top shape: 64 10 24 24 (368640)
I0428 19:31:40.372867 22636 net.cpp:139] Memory required for data: 1675520
I0428 19:31:40.372903 22636 layer_factory.hpp:77] Creating layer pool0
I0428 19:31:40.372920 22636 net.cpp:86] Creating Layer pool0
I0428 19:31:40.372943 22636 net.cpp:408] pool0 <- conv0
I0428 19:31:40.372964 22636 net.cpp:382] pool0 -> pool0
I0428 19:31:40.373034 22636 net.cpp:124] Setting up pool0
I0428 19:31:40.373042 22636 net.cpp:131] Top shape: 64 10 12 12 (92160)
I0428 19:31:40.373047 22636 net.cpp:139] Memory required for data: 2044160
I0428 19:31:40.373052 22636 layer_factory.hpp:77] Creating layer ip1
I0428 19:31:40.373064 22636 net.cpp:86] Creating Layer ip1
I0428 19:31:40.373072 22636 net.cpp:408] ip1 <- pool0
I0428 19:31:40.373080 22636 net.cpp:382] ip1 -> ip1
I0428 19:31:40.374127 22636 net.cpp:124] Setting up ip1
I0428 19:31:40.374142 22636 net.cpp:131] Top shape: 64 10 (640)
I0428 19:31:40.374148 22636 net.cpp:139] Memory required for data: 2046720
I0428 19:31:40.374161 22636 layer_factory.hpp:77] Creating layer relu1
I0428 19:31:40.374171 22636 net.cpp:86] Creating Layer relu1
I0428 19:31:40.374197 22636 net.cpp:408] relu1 <- ip1
I0428 19:31:40.374220 22636 net.cpp:369] relu1 -> ip1 (in-place)
I0428 19:31:40.374398 22636 net.cpp:124] Setting up relu1
I0428 19:31:40.374408 22636 net.cpp:131] Top shape: 64 10 (640)
I0428 19:31:40.374413 22636 net.cpp:139] Memory required for data: 2049280
I0428 19:31:40.374418 22636 layer_factory.hpp:77] Creating layer ip2
I0428 19:31:40.374428 22636 net.cpp:86] Creating Layer ip2
I0428 19:31:40.374434 22636 net.cpp:408] ip2 <- ip1
I0428 19:31:40.374442 22636 net.cpp:382] ip2 -> ip2
I0428 19:31:40.374552 22636 net.cpp:124] Setting up ip2
I0428 19:31:40.374562 22636 net.cpp:131] Top shape: 64 10 (640)
I0428 19:31:40.374565 22636 net.cpp:139] Memory required for data: 2051840
I0428 19:31:40.374577 22636 layer_factory.hpp:77] Creating layer relu2
I0428 19:31:40.374584 22636 net.cpp:86] Creating Layer relu2
I0428 19:31:40.374591 22636 net.cpp:408] relu2 <- ip2
I0428 19:31:40.374598 22636 net.cpp:369] relu2 -> ip2 (in-place)
I0428 19:31:40.375401 22636 net.cpp:124] Setting up relu2
I0428 19:31:40.375413 22636 net.cpp:131] Top shape: 64 10 (640)
I0428 19:31:40.375418 22636 net.cpp:139] Memory required for data: 2054400
I0428 19:31:40.375424 22636 layer_factory.hpp:77] Creating layer ip3
I0428 19:31:40.375434 22636 net.cpp:86] Creating Layer ip3
I0428 19:31:40.375440 22636 net.cpp:408] ip3 <- ip2
I0428 19:31:40.375448 22636 net.cpp:382] ip3 -> ip3
I0428 19:31:40.375583 22636 net.cpp:124] Setting up ip3
I0428 19:31:40.375592 22636 net.cpp:131] Top shape: 64 10 (640)
I0428 19:31:40.375612 22636 net.cpp:139] Memory required for data: 2056960
I0428 19:31:40.375622 22636 layer_factory.hpp:77] Creating layer relu3
I0428 19:31:40.375632 22636 net.cpp:86] Creating Layer relu3
I0428 19:31:40.375638 22636 net.cpp:408] relu3 <- ip3
I0428 19:31:40.375644 22636 net.cpp:369] relu3 -> ip3 (in-place)
I0428 19:31:40.375799 22636 net.cpp:124] Setting up relu3
I0428 19:31:40.375809 22636 net.cpp:131] Top shape: 64 10 (640)
I0428 19:31:40.375814 22636 net.cpp:139] Memory required for data: 2059520
I0428 19:31:40.375819 22636 layer_factory.hpp:77] Creating layer loss
I0428 19:31:40.375828 22636 net.cpp:86] Creating Layer loss
I0428 19:31:40.375833 22636 net.cpp:408] loss <- ip3
I0428 19:31:40.375840 22636 net.cpp:408] loss <- label
I0428 19:31:40.375864 22636 net.cpp:382] loss -> loss
I0428 19:31:40.375898 22636 layer_factory.hpp:77] Creating layer loss
…
I0428 19:31:40.376583 22636 solver.cpp:173] Creating test net (#0) specified by net file: ECE595/mnist/train_test/var_everything2/lenet_train_test129.prototxt
I0428 19:31:40.376615 22636 net.cpp:296] The NetState phase (1) differed from the phase (0) specified by a rule in layer mnist
I0428 19:31:40.376698 22636 net.cpp:53] Initializing net from parameters: 
name: "LeNet"
state {
  phase: TEST
}
layer {
  name: "mnist"
  type: "Data"
  top: "data"
  top: "label"
  include {
    phase: TEST
  }
  transform_param {
    scale: 0.00390625
  }
  data_param {
    source: "examples/mnist/mnist_test_lmdb"
    batch_size: 100
    backend: LMDB
  }
}
layer {
  name: "conv0"
  type: "Convolution"
  bottom: "data"
  top: "conv0"
  param {
    lr_mult: 1
  }
  param {
    lr_mult: 2
  }
  convolution_param {
    num_output: 10
    kernel_size: 5
    stride: 1
    weight_filler {
      type: "xavier"
    }
    bias_filler {
      type: "constant"
    }
  }
}
layer {
  name: "pool0"
  type: "Pooling"
  bottom: "conv0"
  top: "pool0"
  pooling_param {
    pool: MAX
    kernel_size: 2
    stride: 2
  }
}
layer {
  name: "ip1"
  type: "InnerProduct"
  bottom: "pool0"
  top: "ip1"
  param {
    lr_mult: 1
  }
  param {
    lr_mult: 2
  }
  inner_product_param {
    num_output: 10
    weight_filler {
      type: "xavier"
    }
    bias_filler {
      type: "constant"
    }
  }
}
layer {
  name: "relu1"
  type: "ReLU"
  bottom: "ip1"
  top: "ip1"
}
layer {
  name: "ip2"
  type: "InnerProduct"
  bottom: "ip1"
  top: "ip2"
  param {
    lr_mult: 1
  }
  param {
    lr_mult: 2
  }
  inner_product_param {
    num_output: 10
    weight_filler {
      type: "xavier"
    }
    bias_filler {
      type: "constant"
    }
  }
}
layer {
  name: "relu2"
  type: "ReLU"
  bottom: "ip2"
  top: "ip2"
}
layer {
  name: "ip3"
  type: "InnerProduct"
  bottom: "ip2"
  top: "ip3"
  param {
    lr_mult: 1
  }
  param {
    lr_mult: 2
  }
  inner_product_param {
    num_output: 10
    weight_filler {
      type: "xavier"
    }
    bias_filler {
      type: "constant"
    }
  }
}
layer {
  name: "relu3"
  type: "ReLU"
  bottom: "ip3"
  top: "ip3"
}
layer {
  name: "accuracy"
  type: "Accuracy"
  bottom: "ip3"
  bottom: "label"
  top: "accuracy"
  include {
    phase: TEST
  }
}
layer {
  name: "loss"
  type: "SoftmaxWithLoss"
  bottom: "ip3"
  bottom: "label"
  top: "loss"
}
I0428 19:31:40.376852 22636 layer_factory.hpp:77] Creating layer mnist
I0428 19:31:40.376956 22636 db_lmdb.cpp:35] Opened lmdb examples/mnist/mnist_test_lmdb
I0428 19:31:40.376976 22636 net.cpp:86] Creating Layer mnist
I0428 19:31:40.376983 22636 net.cpp:382] mnist -> data
I0428 19:31:40.376996 22636 net.cpp:382] mnist -> label
I0428 19:31:40.377127 22636 data_layer.cpp:45] output data size: 100,1,28,28
I0428 19:31:40.379371 22636 net.cpp:124] Setting up mnist
I0428 19:31:40.379400 22636 net.cpp:131] Top shape: 100 1 28 28 (78400)
I0428 19:31:40.379408 22636 net.cpp:131] Top shape: 100 (100)
I0428 19:31:40.379428 22636 net.cpp:139] Memory required for data: 314000
I0428 19:31:40.379434 22636 layer_factory.hpp:77] Creating layer label_mnist_1_split
I0428 19:31:40.379463 22636 net.cpp:86] Creating Layer label_mnist_1_split
I0428 19:31:40.379469 22636 net.cpp:408] label_mnist_1_split <- label
I0428 19:31:40.379477 22636 net.cpp:382] label_mnist_1_split -> label_mnist_1_split_0
I0428 19:31:40.379487 22636 net.cpp:382] label_mnist_1_split -> label_mnist_1_split_1
I0428 19:31:40.379604 22636 net.cpp:124] Setting up label_mnist_1_split
I0428 19:31:40.379613 22636 net.cpp:131] Top shape: 100 (100)
I0428 19:31:40.379621 22636 net.cpp:131] Top shape: 100 (100)
I0428 19:31:40.379624 22636 net.cpp:139] Memory required for data: 314800
I0428 19:31:40.379642 22636 layer_factory.hpp:77] Creating layer conv0
I0428 19:31:40.379670 22636 net.cpp:86] Creating Layer conv0
I0428 19:31:40.379678 22636 net.cpp:408] conv0 <- data
I0428 19:31:40.379685 22636 net.cpp:382] conv0 -> conv0
I0428 19:31:40.381352 22636 net.cpp:124] Setting up conv0
I0428 19:31:40.381367 22636 net.cpp:131] Top shape: 100 10 24 24 (576000)
I0428 19:31:40.381373 22636 net.cpp:139] Memory required for data: 2618800
I0428 19:31:40.381402 22636 layer_factory.hpp:77] Creating layer pool0
I0428 19:31:40.381412 22636 net.cpp:86] Creating Layer pool0
I0428 19:31:40.381418 22636 net.cpp:408] pool0 <- conv0
I0428 19:31:40.381427 22636 net.cpp:382] pool0 -> pool0
I0428 19:31:40.381469 22636 net.cpp:124] Setting up pool0
I0428 19:31:40.381476 22636 net.cpp:131] Top shape: 100 10 12 12 (144000)
I0428 19:31:40.381481 22636 net.cpp:139] Memory required for data: 3194800
I0428 19:31:40.381487 22636 layer_factory.hpp:77] Creating layer ip1
I0428 19:31:40.381497 22636 net.cpp:86] Creating Layer ip1
I0428 19:31:40.381503 22636 net.cpp:408] ip1 <- pool0
I0428 19:31:40.381511 22636 net.cpp:382] ip1 -> ip1
I0428 19:31:40.381690 22636 net.cpp:124] Setting up ip1
I0428 19:31:40.381712 22636 net.cpp:131] Top shape: 100 10 (1000)
I0428 19:31:40.381717 22636 net.cpp:139] Memory required for data: 3198800
I0428 19:31:40.381728 22636 layer_factory.hpp:77] Creating layer relu1
I0428 19:31:40.381737 22636 net.cpp:86] Creating Layer relu1
I0428 19:31:40.381744 22636 net.cpp:408] relu1 <- ip1
I0428 19:31:40.381752 22636 net.cpp:369] relu1 -> ip1 (in-place)
I0428 19:31:40.382030 22636 net.cpp:124] Setting up relu1
I0428 19:31:40.382041 22636 net.cpp:131] Top shape: 100 10 (1000)
I0428 19:31:40.382046 22636 net.cpp:139] Memory required for data: 3202800
I0428 19:31:40.382051 22636 layer_factory.hpp:77] Creating layer ip2
I0428 19:31:40.382061 22636 net.cpp:86] Creating Layer ip2
I0428 19:31:40.382067 22636 net.cpp:408] ip2 <- ip1
I0428 19:31:40.382076 22636 net.cpp:382] ip2 -> ip2
I0428 19:31:40.382232 22636 net.cpp:124] Setting up ip2
I0428 19:31:40.382241 22636 net.cpp:131] Top shape: 100 10 (1000)
I0428 19:31:40.382247 22636 net.cpp:139] Memory required for data: 3206800
I0428 19:31:40.382259 22636 layer_factory.hpp:77] Creating layer relu2
I0428 19:31:40.382268 22636 net.cpp:86] Creating Layer relu2
I0428 19:31:40.382288 22636 net.cpp:408] relu2 <- ip2
I0428 19:31:40.382310 22636 net.cpp:369] relu2 -> ip2 (in-place)
I0428 19:31:40.383128 22636 net.cpp:124] Setting up relu2
I0428 19:31:40.383141 22636 net.cpp:131] Top shape: 100 10 (1000)
I0428 19:31:40.383147 22636 net.cpp:139] Memory required for data: 3210800
I0428 19:31:40.383168 22636 layer_factory.hpp:77] Creating layer ip3
I0428 19:31:40.383180 22636 net.cpp:86] Creating Layer ip3
I0428 19:31:40.383203 22636 net.cpp:408] ip3 <- ip2
I0428 19:31:40.383211 22636 net.cpp:382] ip3 -> ip3
I0428 19:31:40.383355 22636 net.cpp:124] Setting up ip3
I0428 19:31:40.383365 22636 net.cpp:131] Top shape: 100 10 (1000)
I0428 19:31:40.383369 22636 net.cpp:139] Memory required for data: 3214800
I0428 19:31:40.383379 22636 layer_factory.hpp:77] Creating layer relu3
I0428 19:31:40.383388 22636 net.cpp:86] Creating Layer relu3
I0428 19:31:40.383394 22636 net.cpp:408] relu3 <- ip3
I0428 19:31:40.383400 22636 net.cpp:369] relu3 -> ip3 (in-place)
I0428 19:31:40.383549 22636 net.cpp:124] Setting up relu3
I0428 19:31:40.383560 22636 net.cpp:131] Top shape: 100 10 (1000)
I0428 19:31:40.383564 22636 net.cpp:139] Memory required for data: 3218800
I0428 19:31:40.383569 22636 layer_factory.hpp:77] Creating layer ip3_relu3_0_split
I0428 19:31:40.383577 22636 net.cpp:86] Creating Layer ip3_relu3_0_split
I0428 19:31:40.383582 22636 net.cpp:408] ip3_relu3_0_split <- ip3
I0428 19:31:40.383589 22636 net.cpp:382] ip3_relu3_0_split -> ip3_relu3_0_split_0
I0428 19:31:40.383599 22636 net.cpp:382] ip3_relu3_0_split -> ip3_relu3_0_split_1
I0428 19:31:40.383641 22636 net.cpp:124] Setting up ip3_relu3_0_split
I0428 19:31:40.383648 22636 net.cpp:131] Top shape: 100 10 (1000)
I0428 19:31:40.383656 22636 net.cpp:131] Top shape: 100 10 (1000)
I0428 19:31:40.383685 22636 net.cpp:139] Memory required for data: 3226800
I0428 19:31:40.383707 22636 layer_factory.hpp:77] Creating layer accuracy
I0428 19:31:40.383715 22636 net.cpp:86] Creating Layer accuracy
I0428 19:31:40.383720 22636 net.cpp:408] accuracy <- ip3_relu3_0_split_0
I0428 19:31:40.383728 22636 net.cpp:408] accuracy <- label_mnist_1_split_0
I0428 19:31:40.383734 22636 net.cpp:382] accuracy -> accuracy
…
