…
I0428 20:01:59.594480 29849 net.cpp:296] The NetState phase (0) differed from the phase (1) specified by a rule in layer mnist
I0428 20:01:59.594511 29849 net.cpp:296] The NetState phase (0) differed from the phase (1) specified by a rule in layer accuracy
I0428 20:01:59.594596 29849 net.cpp:53] Initializing net from parameters: 
name: "LeNet"
state {
  phase: TRAIN
  level: 0
  stage: ""
}
layer {
  name: "mnist"
  type: "Data"
  top: "data"
  top: "label"
  include {
    phase: TRAIN
  }
  transform_param {
    scale: 0.00390625
  }
  data_param {
    source: "examples/mnist/mnist_train_lmdb"
    batch_size: 64
    backend: LMDB
  }
}
layer {
  name: "conv0"
  type: "Convolution"
  bottom: "data"
  top: "conv0"
  param {
    lr_mult: 1
  }
  param {
    lr_mult: 2
  }
  convolution_param {
    num_output: 10
    kernel_size: 5
    stride: 1
    weight_filler {
      type: "xavier"
    }
    bias_filler {
      type: "constant"
    }
  }
}
layer {
  name: "pool0"
  type: "Pooling"
  bottom: "conv0"
  top: "pool0"
  pooling_param {
    pool: MAX
    kernel_size: 2
    stride: 2
  }
}
layer {
  name: "conv1"
  type: "Convolution"
  bottom: "pool0"
  top: "conv1"
  param {
    lr_mult: 1
  }
  param {
    lr_mult: 2
  }
  convolution_param {
    num_output: 50
    kernel_size: 5
    stride: 1
    weight_filler {
      type: "xavier"
    }
    bias_filler {
      type: "constant"
    }
  }
}
layer {
  name: "pool1"
  type: "Pooling"
  bottom: "conv1"
  top: "pool1"
  pooling_param {
    pool: MAX
    kernel_size: 2
    stride: 2
  }
}
layer {
  name: "ip1"
  type: "InnerProduct"
  bottom: "pool1"
  top: "ip1"
  param {
    lr_mult: 1
  }
  param {
    lr_mult: 2
  }
  inner_product_param {
    num_output: 10
    weight_filler {
      type: "xavier"
    }
    bias_filler {
      type: "constant"
    }
  }
}
layer {
  name: "relu1"
  type: "ReLU"
  bottom: "ip1"
  top: "ip1"
}
layer {
  name: "ip2"
  type: "InnerProduct"
  bottom: "ip1"
  top: "ip2"
  param {
    lr_mult: 1
  }
  param {
    lr_mult: 2
  }
  inner_product_param {
    num_output: 50
    weight_filler {
      type: "xavier"
    }
    bias_filler {
      type: "constant"
    }
  }
}
layer {
  name: "relu2"
  type: "ReLU"
  bottom: "ip2"
  top: "ip2"
}
layer {
  name: "ip3"
  type: "InnerProduct"
  bottom: "ip2"
  top: "ip3"
  param {
    lr_mult: 1
  }
  param {
    lr_mult: 2
  }
  inner_product_param {
    num_output: 10
    weight_filler {
      type: "xavier"
    }
    bias_filler {
      type: "constant"
    }
  }
}
layer {
  name: "relu3"
  type: "ReLU"
  bottom: "ip3"
  top: "ip3"
}
layer {
  name: "loss"
  type: "SoftmaxWithLoss"
  bottom: "ip3"
  bottom: "label"
  top: "loss"
}
I0428 20:01:59.594676 29849 layer_factory.hpp:77] Creating layer mnist
I0428 20:01:59.594758 29849 db_lmdb.cpp:35] Opened lmdb examples/mnist/mnist_train_lmdb
I0428 20:01:59.594777 29849 net.cpp:86] Creating Layer mnist
I0428 20:01:59.594784 29849 net.cpp:382] mnist -> data
I0428 20:01:59.594805 29849 net.cpp:382] mnist -> label
I0428 20:01:59.595877 29849 data_layer.cpp:45] output data size: 64,1,28,28
I0428 20:01:59.598150 29849 net.cpp:124] Setting up mnist
I0428 20:01:59.598166 29849 net.cpp:131] Top shape: 64 1 28 28 (50176)
I0428 20:01:59.598171 29849 net.cpp:131] Top shape: 64 (64)
I0428 20:01:59.598175 29849 net.cpp:139] Memory required for data: 200960
I0428 20:01:59.598179 29849 layer_factory.hpp:77] Creating layer conv0
I0428 20:01:59.598203 29849 net.cpp:86] Creating Layer conv0
I0428 20:01:59.598222 29849 net.cpp:408] conv0 <- data
I0428 20:01:59.598232 29849 net.cpp:382] conv0 -> conv0
I0428 20:01:59.827018 29849 net.cpp:124] Setting up conv0
I0428 20:01:59.827046 29849 net.cpp:131] Top shape: 64 10 24 24 (368640)
I0428 20:01:59.827050 29849 net.cpp:139] Memory required for data: 1675520
I0428 20:01:59.827064 29849 layer_factory.hpp:77] Creating layer pool0
I0428 20:01:59.827076 29849 net.cpp:86] Creating Layer pool0
I0428 20:01:59.827080 29849 net.cpp:408] pool0 <- conv0
I0428 20:01:59.827085 29849 net.cpp:382] pool0 -> pool0
I0428 20:01:59.827144 29849 net.cpp:124] Setting up pool0
I0428 20:01:59.827150 29849 net.cpp:131] Top shape: 64 10 12 12 (92160)
I0428 20:01:59.827153 29849 net.cpp:139] Memory required for data: 2044160
I0428 20:01:59.827155 29849 layer_factory.hpp:77] Creating layer conv1
I0428 20:01:59.827165 29849 net.cpp:86] Creating Layer conv1
I0428 20:01:59.827168 29849 net.cpp:408] conv1 <- pool0
I0428 20:01:59.827173 29849 net.cpp:382] conv1 -> conv1
I0428 20:01:59.830070 29849 net.cpp:124] Setting up conv1
I0428 20:01:59.830083 29849 net.cpp:131] Top shape: 64 50 8 8 (204800)
I0428 20:01:59.830102 29849 net.cpp:139] Memory required for data: 2863360
I0428 20:01:59.830111 29849 layer_factory.hpp:77] Creating layer pool1
I0428 20:01:59.830119 29849 net.cpp:86] Creating Layer pool1
I0428 20:01:59.830122 29849 net.cpp:408] pool1 <- conv1
I0428 20:01:59.830128 29849 net.cpp:382] pool1 -> pool1
I0428 20:01:59.830181 29849 net.cpp:124] Setting up pool1
I0428 20:01:59.830188 29849 net.cpp:131] Top shape: 64 50 4 4 (51200)
I0428 20:01:59.830190 29849 net.cpp:139] Memory required for data: 3068160
I0428 20:01:59.830193 29849 layer_factory.hpp:77] Creating layer ip1
I0428 20:01:59.830200 29849 net.cpp:86] Creating Layer ip1
I0428 20:01:59.830204 29849 net.cpp:408] ip1 <- pool1
I0428 20:01:59.830209 29849 net.cpp:382] ip1 -> ip1
I0428 20:01:59.830353 29849 net.cpp:124] Setting up ip1
I0428 20:01:59.830359 29849 net.cpp:131] Top shape: 64 10 (640)
I0428 20:01:59.830363 29849 net.cpp:139] Memory required for data: 3070720
I0428 20:01:59.830369 29849 layer_factory.hpp:77] Creating layer relu1
I0428 20:01:59.830375 29849 net.cpp:86] Creating Layer relu1
I0428 20:01:59.830379 29849 net.cpp:408] relu1 <- ip1
I0428 20:01:59.830384 29849 net.cpp:369] relu1 -> ip1 (in-place)
I0428 20:01:59.830569 29849 net.cpp:124] Setting up relu1
I0428 20:01:59.830577 29849 net.cpp:131] Top shape: 64 10 (640)
I0428 20:01:59.830580 29849 net.cpp:139] Memory required for data: 3073280
I0428 20:01:59.830584 29849 layer_factory.hpp:77] Creating layer ip2
I0428 20:01:59.830590 29849 net.cpp:86] Creating Layer ip2
I0428 20:01:59.830595 29849 net.cpp:408] ip2 <- ip1
I0428 20:01:59.830598 29849 net.cpp:382] ip2 -> ip2
I0428 20:01:59.830696 29849 net.cpp:124] Setting up ip2
I0428 20:01:59.830703 29849 net.cpp:131] Top shape: 64 50 (3200)
I0428 20:01:59.830706 29849 net.cpp:139] Memory required for data: 3086080
I0428 20:01:59.830713 29849 layer_factory.hpp:77] Creating layer relu2
I0428 20:01:59.830719 29849 net.cpp:86] Creating Layer relu2
I0428 20:01:59.830723 29849 net.cpp:408] relu2 <- ip2
I0428 20:01:59.830726 29849 net.cpp:369] relu2 -> ip2 (in-place)
I0428 20:01:59.831578 29849 net.cpp:124] Setting up relu2
I0428 20:01:59.831589 29849 net.cpp:131] Top shape: 64 50 (3200)
I0428 20:01:59.831609 29849 net.cpp:139] Memory required for data: 3098880
I0428 20:01:59.831611 29849 layer_factory.hpp:77] Creating layer ip3
I0428 20:01:59.831619 29849 net.cpp:86] Creating Layer ip3
I0428 20:01:59.831624 29849 net.cpp:408] ip3 <- ip2
I0428 20:01:59.831629 29849 net.cpp:382] ip3 -> ip3
I0428 20:01:59.831748 29849 net.cpp:124] Setting up ip3
I0428 20:01:59.831756 29849 net.cpp:131] Top shape: 64 10 (640)
I0428 20:01:59.831759 29849 net.cpp:139] Memory required for data: 3101440
I0428 20:01:59.831766 29849 layer_factory.hpp:77] Creating layer relu3
I0428 20:01:59.831771 29849 net.cpp:86] Creating Layer relu3
I0428 20:01:59.831774 29849 net.cpp:408] relu3 <- ip3
I0428 20:01:59.831779 29849 net.cpp:369] relu3 -> ip3 (in-place)
I0428 20:01:59.831940 29849 net.cpp:124] Setting up relu3
I0428 20:01:59.831948 29849 net.cpp:131] Top shape: 64 10 (640)
I0428 20:01:59.831953 29849 net.cpp:139] Memory required for data: 3104000
I0428 20:01:59.831955 29849 layer_factory.hpp:77] Creating layer loss
I0428 20:01:59.831975 29849 net.cpp:86] Creating Layer loss
I0428 20:01:59.831979 29849 net.cpp:408] loss <- ip3
I0428 20:01:59.831982 29849 net.cpp:408] loss <- label
I0428 20:01:59.832002 29849 net.cpp:382] loss -> loss
I0428 20:01:59.832031 29849 layer_factory.hpp:77] Creating layer loss
…
I0428 20:01:59.832653 29849 solver.cpp:173] Creating test net (#0) specified by net file: ECE595/mnist/train_test/var_everything2/lenet_train_test917.prototxt
I0428 20:01:59.832710 29849 net.cpp:296] The NetState phase (1) differed from the phase (0) specified by a rule in layer mnist
I0428 20:01:59.832844 29849 net.cpp:53] Initializing net from parameters: 
name: "LeNet"
state {
  phase: TEST
}
layer {
  name: "mnist"
  type: "Data"
  top: "data"
  top: "label"
  include {
    phase: TEST
  }
  transform_param {
    scale: 0.00390625
  }
  data_param {
    source: "examples/mnist/mnist_test_lmdb"
    batch_size: 100
    backend: LMDB
  }
}
layer {
  name: "conv0"
  type: "Convolution"
  bottom: "data"
  top: "conv0"
  param {
    lr_mult: 1
  }
  param {
    lr_mult: 2
  }
  convolution_param {
    num_output: 10
    kernel_size: 5
    stride: 1
    weight_filler {
      type: "xavier"
    }
    bias_filler {
      type: "constant"
    }
  }
}
layer {
  name: "pool0"
  type: "Pooling"
  bottom: "conv0"
  top: "pool0"
  pooling_param {
    pool: MAX
    kernel_size: 2
    stride: 2
  }
}
layer {
  name: "conv1"
  type: "Convolution"
  bottom: "pool0"
  top: "conv1"
  param {
    lr_mult: 1
  }
  param {
    lr_mult: 2
  }
  convolution_param {
    num_output: 50
    kernel_size: 5
    stride: 1
    weight_filler {
      type: "xavier"
    }
    bias_filler {
      type: "constant"
    }
  }
}
layer {
  name: "pool1"
  type: "Pooling"
  bottom: "conv1"
  top: "pool1"
  pooling_param {
    pool: MAX
    kernel_size: 2
    stride: 2
  }
}
layer {
  name: "ip1"
  type: "InnerProduct"
  bottom: "pool1"
  top: "ip1"
  param {
    lr_mult: 1
  }
  param {
    lr_mult: 2
  }
  inner_product_param {
    num_output: 10
    weight_filler {
      type: "xavier"
    }
    bias_filler {
      type: "constant"
    }
  }
}
layer {
  name: "relu1"
  type: "ReLU"
  bottom: "ip1"
  top: "ip1"
}
layer {
  name: "ip2"
  type: "InnerProduct"
  bottom: "ip1"
  top: "ip2"
  param {
    lr_mult: 1
  }
  param {
    lr_mult: 2
  }
  inner_product_param {
    num_output: 50
    weight_filler {
      type: "xavier"
    }
    bias_filler {
      type: "constant"
    }
  }
}
layer {
  name: "relu2"
  type: "ReLU"
  bottom: "ip2"
  top: "ip2"
}
layer {
  name: "ip3"
  type: "InnerProduct"
  bottom: "ip2"
  top: "ip3"
  param {
    lr_mult: 1
  }
  param {
    lr_mult: 2
  }
  inner_product_param {
    num_output: 10
    weight_filler {
      type: "xavier"
    }
    bias_filler {
      type: "constant"
    }
  }
}
layer {
  name: "relu3"
  type: "ReLU"
  bottom: "ip3"
  top: "ip3"
}
layer {
  name: "accuracy"
  type: "Accuracy"
  bottom: "ip3"
  bottom: "label"
  top: "accuracy"
  include {
    phase: TEST
  }
}
layer {
  name: "loss"
  type: "SoftmaxWithLoss"
  bottom: "ip3"
  bottom: "label"
  top: "loss"
}
I0428 20:01:59.832943 29849 layer_factory.hpp:77] Creating layer mnist
I0428 20:01:59.832990 29849 db_lmdb.cpp:35] Opened lmdb examples/mnist/mnist_test_lmdb
I0428 20:01:59.833003 29849 net.cpp:86] Creating Layer mnist
I0428 20:01:59.833009 29849 net.cpp:382] mnist -> data
I0428 20:01:59.833016 29849 net.cpp:382] mnist -> label
I0428 20:01:59.833117 29849 data_layer.cpp:45] output data size: 100,1,28,28
I0428 20:01:59.835191 29849 net.cpp:124] Setting up mnist
I0428 20:01:59.835219 29849 net.cpp:131] Top shape: 100 1 28 28 (78400)
I0428 20:01:59.835224 29849 net.cpp:131] Top shape: 100 (100)
I0428 20:01:59.835227 29849 net.cpp:139] Memory required for data: 314000
I0428 20:01:59.835232 29849 layer_factory.hpp:77] Creating layer label_mnist_1_split
I0428 20:01:59.835237 29849 net.cpp:86] Creating Layer label_mnist_1_split
I0428 20:01:59.835240 29849 net.cpp:408] label_mnist_1_split <- label
I0428 20:01:59.835245 29849 net.cpp:382] label_mnist_1_split -> label_mnist_1_split_0
I0428 20:01:59.835266 29849 net.cpp:382] label_mnist_1_split -> label_mnist_1_split_1
I0428 20:01:59.835316 29849 net.cpp:124] Setting up label_mnist_1_split
I0428 20:01:59.835321 29849 net.cpp:131] Top shape: 100 (100)
I0428 20:01:59.835325 29849 net.cpp:131] Top shape: 100 (100)
I0428 20:01:59.835327 29849 net.cpp:139] Memory required for data: 314800
I0428 20:01:59.835330 29849 layer_factory.hpp:77] Creating layer conv0
I0428 20:01:59.835337 29849 net.cpp:86] Creating Layer conv0
I0428 20:01:59.835340 29849 net.cpp:408] conv0 <- data
I0428 20:01:59.835345 29849 net.cpp:382] conv0 -> conv0
I0428 20:01:59.837062 29849 net.cpp:124] Setting up conv0
I0428 20:01:59.837076 29849 net.cpp:131] Top shape: 100 10 24 24 (576000)
I0428 20:01:59.837080 29849 net.cpp:139] Memory required for data: 2618800
I0428 20:01:59.837090 29849 layer_factory.hpp:77] Creating layer pool0
I0428 20:01:59.837095 29849 net.cpp:86] Creating Layer pool0
I0428 20:01:59.837115 29849 net.cpp:408] pool0 <- conv0
I0428 20:01:59.837119 29849 net.cpp:382] pool0 -> pool0
I0428 20:01:59.837185 29849 net.cpp:124] Setting up pool0
I0428 20:01:59.837190 29849 net.cpp:131] Top shape: 100 10 12 12 (144000)
I0428 20:01:59.837193 29849 net.cpp:139] Memory required for data: 3194800
I0428 20:01:59.837196 29849 layer_factory.hpp:77] Creating layer conv1
I0428 20:01:59.837204 29849 net.cpp:86] Creating Layer conv1
I0428 20:01:59.837208 29849 net.cpp:408] conv1 <- pool0
I0428 20:01:59.837213 29849 net.cpp:382] conv1 -> conv1
I0428 20:01:59.838754 29849 net.cpp:124] Setting up conv1
I0428 20:01:59.838768 29849 net.cpp:131] Top shape: 100 50 8 8 (320000)
I0428 20:01:59.838770 29849 net.cpp:139] Memory required for data: 4474800
I0428 20:01:59.838778 29849 layer_factory.hpp:77] Creating layer pool1
I0428 20:01:59.838784 29849 net.cpp:86] Creating Layer pool1
I0428 20:01:59.838788 29849 net.cpp:408] pool1 <- conv1
I0428 20:01:59.838793 29849 net.cpp:382] pool1 -> pool1
I0428 20:01:59.838863 29849 net.cpp:124] Setting up pool1
I0428 20:01:59.838871 29849 net.cpp:131] Top shape: 100 50 4 4 (80000)
I0428 20:01:59.838873 29849 net.cpp:139] Memory required for data: 4794800
I0428 20:01:59.838876 29849 layer_factory.hpp:77] Creating layer ip1
I0428 20:01:59.838882 29849 net.cpp:86] Creating Layer ip1
I0428 20:01:59.838886 29849 net.cpp:408] ip1 <- pool1
I0428 20:01:59.838889 29849 net.cpp:382] ip1 -> ip1
I0428 20:01:59.839054 29849 net.cpp:124] Setting up ip1
I0428 20:01:59.839062 29849 net.cpp:131] Top shape: 100 10 (1000)
I0428 20:01:59.839076 29849 net.cpp:139] Memory required for data: 4798800
I0428 20:01:59.839084 29849 layer_factory.hpp:77] Creating layer relu1
I0428 20:01:59.839089 29849 net.cpp:86] Creating Layer relu1
I0428 20:01:59.839094 29849 net.cpp:408] relu1 <- ip1
I0428 20:01:59.839098 29849 net.cpp:369] relu1 -> ip1 (in-place)
I0428 20:01:59.839256 29849 net.cpp:124] Setting up relu1
I0428 20:01:59.839264 29849 net.cpp:131] Top shape: 100 10 (1000)
I0428 20:01:59.839268 29849 net.cpp:139] Memory required for data: 4802800
I0428 20:01:59.839272 29849 layer_factory.hpp:77] Creating layer ip2
I0428 20:01:59.839278 29849 net.cpp:86] Creating Layer ip2
I0428 20:01:59.839282 29849 net.cpp:408] ip2 <- ip1
I0428 20:01:59.839287 29849 net.cpp:382] ip2 -> ip2
I0428 20:01:59.839416 29849 net.cpp:124] Setting up ip2
I0428 20:01:59.839423 29849 net.cpp:131] Top shape: 100 50 (5000)
I0428 20:01:59.839426 29849 net.cpp:139] Memory required for data: 4822800
I0428 20:01:59.839432 29849 layer_factory.hpp:77] Creating layer relu2
I0428 20:01:59.839437 29849 net.cpp:86] Creating Layer relu2
I0428 20:01:59.839439 29849 net.cpp:408] relu2 <- ip2
I0428 20:01:59.839443 29849 net.cpp:369] relu2 -> ip2 (in-place)
I0428 20:01:59.839594 29849 net.cpp:124] Setting up relu2
I0428 20:01:59.839601 29849 net.cpp:131] Top shape: 100 50 (5000)
I0428 20:01:59.839613 29849 net.cpp:139] Memory required for data: 4842800
I0428 20:01:59.839617 29849 layer_factory.hpp:77] Creating layer ip3
I0428 20:01:59.839622 29849 net.cpp:86] Creating Layer ip3
I0428 20:01:59.839630 29849 net.cpp:408] ip3 <- ip2
I0428 20:01:59.839635 29849 net.cpp:382] ip3 -> ip3
I0428 20:01:59.839746 29849 net.cpp:124] Setting up ip3
I0428 20:01:59.839753 29849 net.cpp:131] Top shape: 100 10 (1000)
I0428 20:01:59.839756 29849 net.cpp:139] Memory required for data: 4846800
I0428 20:01:59.839764 29849 layer_factory.hpp:77] Creating layer relu3
I0428 20:01:59.839768 29849 net.cpp:86] Creating Layer relu3
I0428 20:01:59.839771 29849 net.cpp:408] relu3 <- ip3
I0428 20:01:59.839776 29849 net.cpp:369] relu3 -> ip3 (in-place)
I0428 20:01:59.840649 29849 net.cpp:124] Setting up relu3
I0428 20:01:59.840662 29849 net.cpp:131] Top shape: 100 10 (1000)
I0428 20:01:59.840665 29849 net.cpp:139] Memory required for data: 4850800
I0428 20:01:59.840668 29849 layer_factory.hpp:77] Creating layer ip3_relu3_0_split
I0428 20:01:59.840674 29849 net.cpp:86] Creating Layer ip3_relu3_0_split
I0428 20:01:59.840677 29849 net.cpp:408] ip3_relu3_0_split <- ip3
I0428 20:01:59.840682 29849 net.cpp:382] ip3_relu3_0_split -> ip3_relu3_0_split_0
I0428 20:01:59.840689 29849 net.cpp:382] ip3_relu3_0_split -> ip3_relu3_0_split_1
I0428 20:01:59.840730 29849 net.cpp:124] Setting up ip3_relu3_0_split
I0428 20:01:59.840735 29849 net.cpp:131] Top shape: 100 10 (1000)
I0428 20:01:59.840739 29849 net.cpp:131] Top shape: 100 10 (1000)
I0428 20:01:59.840741 29849 net.cpp:139] Memory required for data: 4858800
I0428 20:01:59.840744 29849 layer_factory.hpp:77] Creating layer accuracy
I0428 20:01:59.840749 29849 net.cpp:86] Creating Layer accuracy
I0428 20:01:59.840752 29849 net.cpp:408] accuracy <- ip3_relu3_0_split_0
I0428 20:01:59.840756 29849 net.cpp:408] accuracy <- label_mnist_1_split_0
I0428 20:01:59.840780 29849 net.cpp:382] accuracy -> accuracy
…
