…
I0428 19:36:31.235303 23694 net.cpp:296] The NetState phase (0) differed from the phase (1) specified by a rule in layer mnist
I0428 19:36:31.235319 23694 net.cpp:296] The NetState phase (0) differed from the phase (1) specified by a rule in layer accuracy
I0428 19:36:31.235399 23694 net.cpp:53] Initializing net from parameters: 
name: "LeNet"
state {
  phase: TRAIN
  level: 0
  stage: ""
}
layer {
  name: "mnist"
  type: "Data"
  top: "data"
  top: "label"
  include {
    phase: TRAIN
  }
  transform_param {
    scale: 0.00390625
  }
  data_param {
    source: "examples/mnist/mnist_train_lmdb"
    batch_size: 64
    backend: LMDB
  }
}
layer {
  name: "conv0"
  type: "Convolution"
  bottom: "data"
  top: "conv0"
  param {
    lr_mult: 1
  }
  param {
    lr_mult: 2
  }
  convolution_param {
    num_output: 100
    kernel_size: 5
    stride: 1
    weight_filler {
      type: "xavier"
    }
    bias_filler {
      type: "constant"
    }
  }
}
layer {
  name: "pool0"
  type: "Pooling"
  bottom: "conv0"
  top: "pool0"
  pooling_param {
    pool: MAX
    kernel_size: 2
    stride: 2
  }
}
layer {
  name: "ip1"
  type: "InnerProduct"
  bottom: "pool0"
  top: "ip1"
  param {
    lr_mult: 1
  }
  param {
    lr_mult: 2
  }
  inner_product_param {
    num_output: 50
    weight_filler {
      type: "xavier"
    }
    bias_filler {
      type: "constant"
    }
  }
}
layer {
  name: "relu1"
  type: "ReLU"
  bottom: "ip1"
  top: "ip1"
}
layer {
  name: "ip2"
  type: "InnerProduct"
  bottom: "ip1"
  top: "ip2"
  param {
    lr_mult: 1
  }
  param {
    lr_mult: 2
  }
  inner_product_param {
    num_output: 10
    weight_filler {
      type: "xavier"
    }
    bias_filler {
      type: "constant"
    }
  }
}
layer {
  name: "relu2"
  type: "ReLU"
  bottom: "ip2"
  top: "ip2"
}
layer {
  name: "loss"
  type: "SoftmaxWithLoss"
  bottom: "ip2"
  bottom: "label"
  top: "loss"
}
I0428 19:36:31.235466 23694 layer_factory.hpp:77] Creating layer mnist
I0428 19:36:31.235570 23694 db_lmdb.cpp:35] Opened lmdb examples/mnist/mnist_train_lmdb
I0428 19:36:31.235594 23694 net.cpp:86] Creating Layer mnist
I0428 19:36:31.235604 23694 net.cpp:382] mnist -> data
I0428 19:36:31.235626 23694 net.cpp:382] mnist -> label
I0428 19:36:31.236711 23694 data_layer.cpp:45] output data size: 64,1,28,28
I0428 19:36:31.239163 23694 net.cpp:124] Setting up mnist
I0428 19:36:31.239189 23694 net.cpp:131] Top shape: 64 1 28 28 (50176)
I0428 19:36:31.239195 23694 net.cpp:131] Top shape: 64 (64)
I0428 19:36:31.239199 23694 net.cpp:139] Memory required for data: 200960
I0428 19:36:31.239207 23694 layer_factory.hpp:77] Creating layer conv0
I0428 19:36:31.239225 23694 net.cpp:86] Creating Layer conv0
I0428 19:36:31.239231 23694 net.cpp:408] conv0 <- data
I0428 19:36:31.239243 23694 net.cpp:382] conv0 -> conv0
I0428 19:36:31.531545 23694 net.cpp:124] Setting up conv0
I0428 19:36:31.531575 23694 net.cpp:131] Top shape: 64 100 24 24 (3686400)
I0428 19:36:31.531580 23694 net.cpp:139] Memory required for data: 14946560
I0428 19:36:31.531597 23694 layer_factory.hpp:77] Creating layer pool0
I0428 19:36:31.531611 23694 net.cpp:86] Creating Layer pool0
I0428 19:36:31.531616 23694 net.cpp:408] pool0 <- conv0
I0428 19:36:31.531622 23694 net.cpp:382] pool0 -> pool0
I0428 19:36:31.531677 23694 net.cpp:124] Setting up pool0
I0428 19:36:31.531685 23694 net.cpp:131] Top shape: 64 100 12 12 (921600)
I0428 19:36:31.531689 23694 net.cpp:139] Memory required for data: 18632960
I0428 19:36:31.531710 23694 layer_factory.hpp:77] Creating layer ip1
I0428 19:36:31.531719 23694 net.cpp:86] Creating Layer ip1
I0428 19:36:31.531723 23694 net.cpp:408] ip1 <- pool0
I0428 19:36:31.531728 23694 net.cpp:382] ip1 -> ip1
I0428 19:36:31.537636 23694 net.cpp:124] Setting up ip1
I0428 19:36:31.537652 23694 net.cpp:131] Top shape: 64 50 (3200)
I0428 19:36:31.537657 23694 net.cpp:139] Memory required for data: 18645760
I0428 19:36:31.537667 23694 layer_factory.hpp:77] Creating layer relu1
I0428 19:36:31.537674 23694 net.cpp:86] Creating Layer relu1
I0428 19:36:31.537678 23694 net.cpp:408] relu1 <- ip1
I0428 19:36:31.537683 23694 net.cpp:369] relu1 -> ip1 (in-place)
I0428 19:36:31.537878 23694 net.cpp:124] Setting up relu1
I0428 19:36:31.537889 23694 net.cpp:131] Top shape: 64 50 (3200)
I0428 19:36:31.537892 23694 net.cpp:139] Memory required for data: 18658560
I0428 19:36:31.537896 23694 layer_factory.hpp:77] Creating layer ip2
I0428 19:36:31.537904 23694 net.cpp:86] Creating Layer ip2
I0428 19:36:31.537909 23694 net.cpp:408] ip2 <- ip1
I0428 19:36:31.537914 23694 net.cpp:382] ip2 -> ip2
I0428 19:36:31.538024 23694 net.cpp:124] Setting up ip2
I0428 19:36:31.538033 23694 net.cpp:131] Top shape: 64 10 (640)
I0428 19:36:31.538036 23694 net.cpp:139] Memory required for data: 18661120
I0428 19:36:31.538044 23694 layer_factory.hpp:77] Creating layer relu2
I0428 19:36:31.538050 23694 net.cpp:86] Creating Layer relu2
I0428 19:36:31.538054 23694 net.cpp:408] relu2 <- ip2
I0428 19:36:31.538059 23694 net.cpp:369] relu2 -> ip2 (in-place)
I0428 19:36:31.538890 23694 net.cpp:124] Setting up relu2
I0428 19:36:31.538905 23694 net.cpp:131] Top shape: 64 10 (640)
I0428 19:36:31.538909 23694 net.cpp:139] Memory required for data: 18663680
I0428 19:36:31.538913 23694 layer_factory.hpp:77] Creating layer loss
I0428 19:36:31.538920 23694 net.cpp:86] Creating Layer loss
I0428 19:36:31.538924 23694 net.cpp:408] loss <- ip2
I0428 19:36:31.538929 23694 net.cpp:408] loss <- label
I0428 19:36:31.538936 23694 net.cpp:382] loss -> loss
I0428 19:36:31.538956 23694 layer_factory.hpp:77] Creating layer loss
…
I0428 19:36:31.539573 23694 solver.cpp:173] Creating test net (#0) specified by net file: ECE595/mnist/train_test/var_everything2/lenet_train_test244.prototxt
I0428 19:36:31.539623 23694 net.cpp:296] The NetState phase (1) differed from the phase (0) specified by a rule in layer mnist
I0428 19:36:31.539705 23694 net.cpp:53] Initializing net from parameters: 
name: "LeNet"
state {
  phase: TEST
}
layer {
  name: "mnist"
  type: "Data"
  top: "data"
  top: "label"
  include {
    phase: TEST
  }
  transform_param {
    scale: 0.00390625
  }
  data_param {
    source: "examples/mnist/mnist_test_lmdb"
    batch_size: 100
    backend: LMDB
  }
}
layer {
  name: "conv0"
  type: "Convolution"
  bottom: "data"
  top: "conv0"
  param {
    lr_mult: 1
  }
  param {
    lr_mult: 2
  }
  convolution_param {
    num_output: 100
    kernel_size: 5
    stride: 1
    weight_filler {
      type: "xavier"
    }
    bias_filler {
      type: "constant"
    }
  }
}
layer {
  name: "pool0"
  type: "Pooling"
  bottom: "conv0"
  top: "pool0"
  pooling_param {
    pool: MAX
    kernel_size: 2
    stride: 2
  }
}
layer {
  name: "ip1"
  type: "InnerProduct"
  bottom: "pool0"
  top: "ip1"
  param {
    lr_mult: 1
  }
  param {
    lr_mult: 2
  }
  inner_product_param {
    num_output: 50
    weight_filler {
      type: "xavier"
    }
    bias_filler {
      type: "constant"
    }
  }
}
layer {
  name: "relu1"
  type: "ReLU"
  bottom: "ip1"
  top: "ip1"
}
layer {
  name: "ip2"
  type: "InnerProduct"
  bottom: "ip1"
  top: "ip2"
  param {
    lr_mult: 1
  }
  param {
    lr_mult: 2
  }
  inner_product_param {
    num_output: 10
    weight_filler {
      type: "xavier"
    }
    bias_filler {
      type: "constant"
    }
  }
}
layer {
  name: "relu2"
  type: "ReLU"
  bottom: "ip2"
  top: "ip2"
}
layer {
  name: "accuracy"
  type: "Accuracy"
  bottom: "ip2"
  bottom: "label"
  top: "accuracy"
  include {
    phase: TEST
  }
}
layer {
  name: "loss"
  type: "SoftmaxWithLoss"
  bottom: "ip2"
  bottom: "label"
  top: "loss"
}
I0428 19:36:31.539782 23694 layer_factory.hpp:77] Creating layer mnist
I0428 19:36:31.539831 23694 db_lmdb.cpp:35] Opened lmdb examples/mnist/mnist_test_lmdb
I0428 19:36:31.539845 23694 net.cpp:86] Creating Layer mnist
I0428 19:36:31.539851 23694 net.cpp:382] mnist -> data
I0428 19:36:31.539860 23694 net.cpp:382] mnist -> label
I0428 19:36:31.539954 23694 data_layer.cpp:45] output data size: 100,1,28,28
I0428 19:36:31.542279 23694 net.cpp:124] Setting up mnist
I0428 19:36:31.542295 23694 net.cpp:131] Top shape: 100 1 28 28 (78400)
I0428 19:36:31.542301 23694 net.cpp:131] Top shape: 100 (100)
I0428 19:36:31.542305 23694 net.cpp:139] Memory required for data: 314000
I0428 19:36:31.542309 23694 layer_factory.hpp:77] Creating layer label_mnist_1_split
I0428 19:36:31.542332 23694 net.cpp:86] Creating Layer label_mnist_1_split
I0428 19:36:31.542337 23694 net.cpp:408] label_mnist_1_split <- label
I0428 19:36:31.542342 23694 net.cpp:382] label_mnist_1_split -> label_mnist_1_split_0
I0428 19:36:31.542351 23694 net.cpp:382] label_mnist_1_split -> label_mnist_1_split_1
I0428 19:36:31.542397 23694 net.cpp:124] Setting up label_mnist_1_split
I0428 19:36:31.542403 23694 net.cpp:131] Top shape: 100 (100)
I0428 19:36:31.542408 23694 net.cpp:131] Top shape: 100 (100)
I0428 19:36:31.542412 23694 net.cpp:139] Memory required for data: 314800
I0428 19:36:31.542415 23694 layer_factory.hpp:77] Creating layer conv0
I0428 19:36:31.542424 23694 net.cpp:86] Creating Layer conv0
I0428 19:36:31.542428 23694 net.cpp:408] conv0 <- data
I0428 19:36:31.542434 23694 net.cpp:382] conv0 -> conv0
I0428 19:36:31.544209 23694 net.cpp:124] Setting up conv0
I0428 19:36:31.544226 23694 net.cpp:131] Top shape: 100 100 24 24 (5760000)
I0428 19:36:31.544230 23694 net.cpp:139] Memory required for data: 23354800
I0428 19:36:31.544241 23694 layer_factory.hpp:77] Creating layer pool0
I0428 19:36:31.544248 23694 net.cpp:86] Creating Layer pool0
I0428 19:36:31.544252 23694 net.cpp:408] pool0 <- conv0
I0428 19:36:31.544258 23694 net.cpp:382] pool0 -> pool0
I0428 19:36:31.544301 23694 net.cpp:124] Setting up pool0
I0428 19:36:31.544306 23694 net.cpp:131] Top shape: 100 100 12 12 (1440000)
I0428 19:36:31.544311 23694 net.cpp:139] Memory required for data: 29114800
I0428 19:36:31.544313 23694 layer_factory.hpp:77] Creating layer ip1
I0428 19:36:31.544322 23694 net.cpp:86] Creating Layer ip1
I0428 19:36:31.544324 23694 net.cpp:408] ip1 <- pool0
I0428 19:36:31.544330 23694 net.cpp:382] ip1 -> ip1
I0428 19:36:31.550254 23694 net.cpp:124] Setting up ip1
I0428 19:36:31.550269 23694 net.cpp:131] Top shape: 100 50 (5000)
I0428 19:36:31.550273 23694 net.cpp:139] Memory required for data: 29134800
I0428 19:36:31.550283 23694 layer_factory.hpp:77] Creating layer relu1
I0428 19:36:31.550289 23694 net.cpp:86] Creating Layer relu1
I0428 19:36:31.550293 23694 net.cpp:408] relu1 <- ip1
I0428 19:36:31.550298 23694 net.cpp:369] relu1 -> ip1 (in-place)
I0428 19:36:31.550492 23694 net.cpp:124] Setting up relu1
I0428 19:36:31.550501 23694 net.cpp:131] Top shape: 100 50 (5000)
I0428 19:36:31.550518 23694 net.cpp:139] Memory required for data: 29154800
I0428 19:36:31.550523 23694 layer_factory.hpp:77] Creating layer ip2
I0428 19:36:31.550529 23694 net.cpp:86] Creating Layer ip2
I0428 19:36:31.550534 23694 net.cpp:408] ip2 <- ip1
I0428 19:36:31.550539 23694 net.cpp:382] ip2 -> ip2
I0428 19:36:31.550655 23694 net.cpp:124] Setting up ip2
I0428 19:36:31.550663 23694 net.cpp:131] Top shape: 100 10 (1000)
I0428 19:36:31.550668 23694 net.cpp:139] Memory required for data: 29158800
I0428 19:36:31.550676 23694 layer_factory.hpp:77] Creating layer relu2
I0428 19:36:31.550681 23694 net.cpp:86] Creating Layer relu2
I0428 19:36:31.550685 23694 net.cpp:408] relu2 <- ip2
I0428 19:36:31.550690 23694 net.cpp:369] relu2 -> ip2 (in-place)
I0428 19:36:31.550865 23694 net.cpp:124] Setting up relu2
I0428 19:36:31.550874 23694 net.cpp:131] Top shape: 100 10 (1000)
I0428 19:36:31.550879 23694 net.cpp:139] Memory required for data: 29162800
I0428 19:36:31.550882 23694 layer_factory.hpp:77] Creating layer ip2_relu2_0_split
I0428 19:36:31.550889 23694 net.cpp:86] Creating Layer ip2_relu2_0_split
I0428 19:36:31.550894 23694 net.cpp:408] ip2_relu2_0_split <- ip2
I0428 19:36:31.550899 23694 net.cpp:382] ip2_relu2_0_split -> ip2_relu2_0_split_0
I0428 19:36:31.550905 23694 net.cpp:382] ip2_relu2_0_split -> ip2_relu2_0_split_1
I0428 19:36:31.550943 23694 net.cpp:124] Setting up ip2_relu2_0_split
I0428 19:36:31.550951 23694 net.cpp:131] Top shape: 100 10 (1000)
I0428 19:36:31.550956 23694 net.cpp:131] Top shape: 100 10 (1000)
I0428 19:36:31.550958 23694 net.cpp:139] Memory required for data: 29170800
I0428 19:36:31.550961 23694 layer_factory.hpp:77] Creating layer accuracy
I0428 19:36:31.550967 23694 net.cpp:86] Creating Layer accuracy
I0428 19:36:31.550971 23694 net.cpp:408] accuracy <- ip2_relu2_0_split_0
I0428 19:36:31.550976 23694 net.cpp:408] accuracy <- label_mnist_1_split_0
I0428 19:36:31.550981 23694 net.cpp:382] accuracy -> accuracy
…
