…
I0428 19:31:24.537935 22569 net.cpp:296] The NetState phase (0) differed from the phase (1) specified by a rule in layer mnist
I0428 19:31:24.537955 22569 net.cpp:296] The NetState phase (0) differed from the phase (1) specified by a rule in layer accuracy
I0428 19:31:24.538038 22569 net.cpp:53] Initializing net from parameters: 
name: "LeNet"
state {
  phase: TRAIN
  level: 0
  stage: ""
}
layer {
  name: "mnist"
  type: "Data"
  top: "data"
  top: "label"
  include {
    phase: TRAIN
  }
  transform_param {
    scale: 0.00390625
  }
  data_param {
    source: "examples/mnist/mnist_train_lmdb"
    batch_size: 64
    backend: LMDB
  }
}
layer {
  name: "conv0"
  type: "Convolution"
  bottom: "data"
  top: "conv0"
  param {
    lr_mult: 1
  }
  param {
    lr_mult: 2
  }
  convolution_param {
    num_output: 10
    kernel_size: 5
    stride: 1
    weight_filler {
      type: "xavier"
    }
    bias_filler {
      type: "constant"
    }
  }
}
layer {
  name: "pool0"
  type: "Pooling"
  bottom: "conv0"
  top: "pool0"
  pooling_param {
    pool: MAX
    kernel_size: 2
    stride: 2
  }
}
layer {
  name: "ip1"
  type: "InnerProduct"
  bottom: "pool0"
  top: "ip1"
  param {
    lr_mult: 1
  }
  param {
    lr_mult: 2
  }
  inner_product_param {
    num_output: 10
    weight_filler {
      type: "xavier"
    }
    bias_filler {
      type: "constant"
    }
  }
}
layer {
  name: "relu1"
  type: "ReLU"
  bottom: "ip1"
  top: "ip1"
}
layer {
  name: "ip2"
  type: "InnerProduct"
  bottom: "ip1"
  top: "ip2"
  param {
    lr_mult: 1
  }
  param {
    lr_mult: 2
  }
  inner_product_param {
    num_output: 10
    weight_filler {
      type: "xavier"
    }
    bias_filler {
      type: "constant"
    }
  }
}
layer {
  name: "relu2"
  type: "ReLU"
  bottom: "ip2"
  top: "ip2"
}
layer {
  name: "loss"
  type: "SoftmaxWithLoss"
  bottom: "ip2"
  bottom: "label"
  top: "loss"
}
I0428 19:31:24.538127 22569 layer_factory.hpp:77] Creating layer mnist
I0428 19:31:24.538261 22569 db_lmdb.cpp:35] Opened lmdb examples/mnist/mnist_train_lmdb
I0428 19:31:24.538295 22569 net.cpp:86] Creating Layer mnist
I0428 19:31:24.538306 22569 net.cpp:382] mnist -> data
I0428 19:31:24.538337 22569 net.cpp:382] mnist -> label
I0428 19:31:24.539532 22569 data_layer.cpp:45] output data size: 64,1,28,28
I0428 19:31:24.542207 22569 net.cpp:124] Setting up mnist
I0428 19:31:24.542227 22569 net.cpp:131] Top shape: 64 1 28 28 (50176)
I0428 19:31:24.542237 22569 net.cpp:131] Top shape: 64 (64)
I0428 19:31:24.542244 22569 net.cpp:139] Memory required for data: 200960
I0428 19:31:24.542255 22569 layer_factory.hpp:77] Creating layer conv0
I0428 19:31:24.542279 22569 net.cpp:86] Creating Layer conv0
I0428 19:31:24.542289 22569 net.cpp:408] conv0 <- data
I0428 19:31:24.542305 22569 net.cpp:382] conv0 -> conv0
I0428 19:31:24.833379 22569 net.cpp:124] Setting up conv0
I0428 19:31:24.833415 22569 net.cpp:131] Top shape: 64 10 24 24 (368640)
I0428 19:31:24.833421 22569 net.cpp:139] Memory required for data: 1675520
I0428 19:31:24.833447 22569 layer_factory.hpp:77] Creating layer pool0
I0428 19:31:24.833468 22569 net.cpp:86] Creating Layer pool0
I0428 19:31:24.833477 22569 net.cpp:408] pool0 <- conv0
I0428 19:31:24.833488 22569 net.cpp:382] pool0 -> pool0
I0428 19:31:24.833562 22569 net.cpp:124] Setting up pool0
I0428 19:31:24.833573 22569 net.cpp:131] Top shape: 64 10 12 12 (92160)
I0428 19:31:24.833580 22569 net.cpp:139] Memory required for data: 2044160
I0428 19:31:24.833607 22569 layer_factory.hpp:77] Creating layer ip1
I0428 19:31:24.833622 22569 net.cpp:86] Creating Layer ip1
I0428 19:31:24.833631 22569 net.cpp:408] ip1 <- pool0
I0428 19:31:24.833640 22569 net.cpp:382] ip1 -> ip1
I0428 19:31:24.834841 22569 net.cpp:124] Setting up ip1
I0428 19:31:24.834858 22569 net.cpp:131] Top shape: 64 10 (640)
I0428 19:31:24.834867 22569 net.cpp:139] Memory required for data: 2046720
I0428 19:31:24.834882 22569 layer_factory.hpp:77] Creating layer relu1
I0428 19:31:24.834895 22569 net.cpp:86] Creating Layer relu1
I0428 19:31:24.834906 22569 net.cpp:408] relu1 <- ip1
I0428 19:31:24.834916 22569 net.cpp:369] relu1 -> ip1 (in-place)
I0428 19:31:24.835124 22569 net.cpp:124] Setting up relu1
I0428 19:31:24.835135 22569 net.cpp:131] Top shape: 64 10 (640)
I0428 19:31:24.835141 22569 net.cpp:139] Memory required for data: 2049280
I0428 19:31:24.835149 22569 layer_factory.hpp:77] Creating layer ip2
I0428 19:31:24.835160 22569 net.cpp:86] Creating Layer ip2
I0428 19:31:24.835167 22569 net.cpp:408] ip2 <- ip1
I0428 19:31:24.835177 22569 net.cpp:382] ip2 -> ip2
I0428 19:31:24.835299 22569 net.cpp:124] Setting up ip2
I0428 19:31:24.835310 22569 net.cpp:131] Top shape: 64 10 (640)
I0428 19:31:24.835316 22569 net.cpp:139] Memory required for data: 2051840
I0428 19:31:24.835331 22569 layer_factory.hpp:77] Creating layer relu2
I0428 19:31:24.835341 22569 net.cpp:86] Creating Layer relu2
I0428 19:31:24.835355 22569 net.cpp:408] relu2 <- ip2
I0428 19:31:24.835363 22569 net.cpp:369] relu2 -> ip2 (in-place)
I0428 19:31:24.836223 22569 net.cpp:124] Setting up relu2
I0428 19:31:24.836241 22569 net.cpp:131] Top shape: 64 10 (640)
I0428 19:31:24.836247 22569 net.cpp:139] Memory required for data: 2054400
I0428 19:31:24.836254 22569 layer_factory.hpp:77] Creating layer loss
I0428 19:31:24.836266 22569 net.cpp:86] Creating Layer loss
I0428 19:31:24.836272 22569 net.cpp:408] loss <- ip2
I0428 19:31:24.836282 22569 net.cpp:408] loss <- label
I0428 19:31:24.836292 22569 net.cpp:382] loss -> loss
I0428 19:31:24.836321 22569 layer_factory.hpp:77] Creating layer loss
…
I0428 19:31:24.837034 22569 solver.cpp:173] Creating test net (#0) specified by net file: ECE595/mnist/train_test/var_everything2/lenet_train_test121.prototxt
I0428 19:31:24.837072 22569 net.cpp:296] The NetState phase (1) differed from the phase (0) specified by a rule in layer mnist
I0428 19:31:24.837168 22569 net.cpp:53] Initializing net from parameters: 
name: "LeNet"
state {
  phase: TEST
}
layer {
  name: "mnist"
  type: "Data"
  top: "data"
  top: "label"
  include {
    phase: TEST
  }
  transform_param {
    scale: 0.00390625
  }
  data_param {
    source: "examples/mnist/mnist_test_lmdb"
    batch_size: 100
    backend: LMDB
  }
}
layer {
  name: "conv0"
  type: "Convolution"
  bottom: "data"
  top: "conv0"
  param {
    lr_mult: 1
  }
  param {
    lr_mult: 2
  }
  convolution_param {
    num_output: 10
    kernel_size: 5
    stride: 1
    weight_filler {
      type: "xavier"
    }
    bias_filler {
      type: "constant"
    }
  }
}
layer {
  name: "pool0"
  type: "Pooling"
  bottom: "conv0"
  top: "pool0"
  pooling_param {
    pool: MAX
    kernel_size: 2
    stride: 2
  }
}
layer {
  name: "ip1"
  type: "InnerProduct"
  bottom: "pool0"
  top: "ip1"
  param {
    lr_mult: 1
  }
  param {
    lr_mult: 2
  }
  inner_product_param {
    num_output: 10
    weight_filler {
      type: "xavier"
    }
    bias_filler {
      type: "constant"
    }
  }
}
layer {
  name: "relu1"
  type: "ReLU"
  bottom: "ip1"
  top: "ip1"
}
layer {
  name: "ip2"
  type: "InnerProduct"
  bottom: "ip1"
  top: "ip2"
  param {
    lr_mult: 1
  }
  param {
    lr_mult: 2
  }
  inner_product_param {
    num_output: 10
    weight_filler {
      type: "xavier"
    }
    bias_filler {
      type: "constant"
    }
  }
}
layer {
  name: "relu2"
  type: "ReLU"
  bottom: "ip2"
  top: "ip2"
}
layer {
  name: "accuracy"
  type: "Accuracy"
  bottom: "ip2"
  bottom: "label"
  top: "accuracy"
  include {
    phase: TEST
  }
}
layer {
  name: "loss"
  type: "SoftmaxWithLoss"
  bottom: "ip2"
  bottom: "label"
  top: "loss"
}
I0428 19:31:24.837285 22569 layer_factory.hpp:77] Creating layer mnist
I0428 19:31:24.837358 22569 db_lmdb.cpp:35] Opened lmdb examples/mnist/mnist_test_lmdb
I0428 19:31:24.837379 22569 net.cpp:86] Creating Layer mnist
I0428 19:31:24.837388 22569 net.cpp:382] mnist -> data
I0428 19:31:24.837402 22569 net.cpp:382] mnist -> label
I0428 19:31:24.837545 22569 data_layer.cpp:45] output data size: 100,1,28,28
I0428 19:31:24.839833 22569 net.cpp:124] Setting up mnist
I0428 19:31:24.839850 22569 net.cpp:131] Top shape: 100 1 28 28 (78400)
I0428 19:31:24.839860 22569 net.cpp:131] Top shape: 100 (100)
I0428 19:31:24.839866 22569 net.cpp:139] Memory required for data: 314000
I0428 19:31:24.839874 22569 layer_factory.hpp:77] Creating layer label_mnist_1_split
I0428 19:31:24.839886 22569 net.cpp:86] Creating Layer label_mnist_1_split
I0428 19:31:24.839893 22569 net.cpp:408] label_mnist_1_split <- label
I0428 19:31:24.839902 22569 net.cpp:382] label_mnist_1_split -> label_mnist_1_split_0
I0428 19:31:24.839915 22569 net.cpp:382] label_mnist_1_split -> label_mnist_1_split_1
I0428 19:31:24.840011 22569 net.cpp:124] Setting up label_mnist_1_split
I0428 19:31:24.840023 22569 net.cpp:131] Top shape: 100 (100)
I0428 19:31:24.840030 22569 net.cpp:131] Top shape: 100 (100)
I0428 19:31:24.840036 22569 net.cpp:139] Memory required for data: 314800
I0428 19:31:24.840042 22569 layer_factory.hpp:77] Creating layer conv0
I0428 19:31:24.840059 22569 net.cpp:86] Creating Layer conv0
I0428 19:31:24.840067 22569 net.cpp:408] conv0 <- data
I0428 19:31:24.840078 22569 net.cpp:382] conv0 -> conv0
I0428 19:31:24.841869 22569 net.cpp:124] Setting up conv0
I0428 19:31:24.841888 22569 net.cpp:131] Top shape: 100 10 24 24 (576000)
I0428 19:31:24.841897 22569 net.cpp:139] Memory required for data: 2618800
I0428 19:31:24.841913 22569 layer_factory.hpp:77] Creating layer pool0
I0428 19:31:24.841925 22569 net.cpp:86] Creating Layer pool0
I0428 19:31:24.841933 22569 net.cpp:408] pool0 <- conv0
I0428 19:31:24.841943 22569 net.cpp:382] pool0 -> pool0
I0428 19:31:24.842000 22569 net.cpp:124] Setting up pool0
I0428 19:31:24.842011 22569 net.cpp:131] Top shape: 100 10 12 12 (144000)
I0428 19:31:24.842017 22569 net.cpp:139] Memory required for data: 3194800
I0428 19:31:24.842023 22569 layer_factory.hpp:77] Creating layer ip1
I0428 19:31:24.842036 22569 net.cpp:86] Creating Layer ip1
I0428 19:31:24.842042 22569 net.cpp:408] ip1 <- pool0
I0428 19:31:24.842052 22569 net.cpp:382] ip1 -> ip1
I0428 19:31:24.842267 22569 net.cpp:124] Setting up ip1
I0428 19:31:24.842278 22569 net.cpp:131] Top shape: 100 10 (1000)
I0428 19:31:24.842283 22569 net.cpp:139] Memory required for data: 3198800
I0428 19:31:24.842298 22569 layer_factory.hpp:77] Creating layer relu1
I0428 19:31:24.842308 22569 net.cpp:86] Creating Layer relu1
I0428 19:31:24.842315 22569 net.cpp:408] relu1 <- ip1
I0428 19:31:24.842324 22569 net.cpp:369] relu1 -> ip1 (in-place)
I0428 19:31:24.842604 22569 net.cpp:124] Setting up relu1
I0428 19:31:24.842617 22569 net.cpp:131] Top shape: 100 10 (1000)
I0428 19:31:24.842639 22569 net.cpp:139] Memory required for data: 3202800
I0428 19:31:24.842646 22569 layer_factory.hpp:77] Creating layer ip2
I0428 19:31:24.842658 22569 net.cpp:86] Creating Layer ip2
I0428 19:31:24.842664 22569 net.cpp:408] ip2 <- ip1
I0428 19:31:24.842676 22569 net.cpp:382] ip2 -> ip2
I0428 19:31:24.842797 22569 net.cpp:124] Setting up ip2
I0428 19:31:24.842808 22569 net.cpp:131] Top shape: 100 10 (1000)
I0428 19:31:24.842818 22569 net.cpp:139] Memory required for data: 3206800
I0428 19:31:24.842833 22569 layer_factory.hpp:77] Creating layer relu2
I0428 19:31:24.842844 22569 net.cpp:86] Creating Layer relu2
I0428 19:31:24.842850 22569 net.cpp:408] relu2 <- ip2
I0428 19:31:24.842859 22569 net.cpp:369] relu2 -> ip2 (in-place)
I0428 19:31:24.843042 22569 net.cpp:124] Setting up relu2
I0428 19:31:24.843055 22569 net.cpp:131] Top shape: 100 10 (1000)
I0428 19:31:24.843060 22569 net.cpp:139] Memory required for data: 3210800
I0428 19:31:24.843066 22569 layer_factory.hpp:77] Creating layer ip2_relu2_0_split
I0428 19:31:24.843077 22569 net.cpp:86] Creating Layer ip2_relu2_0_split
I0428 19:31:24.843086 22569 net.cpp:408] ip2_relu2_0_split <- ip2
I0428 19:31:24.843096 22569 net.cpp:382] ip2_relu2_0_split -> ip2_relu2_0_split_0
I0428 19:31:24.843108 22569 net.cpp:382] ip2_relu2_0_split -> ip2_relu2_0_split_1
I0428 19:31:24.843158 22569 net.cpp:124] Setting up ip2_relu2_0_split
I0428 19:31:24.843168 22569 net.cpp:131] Top shape: 100 10 (1000)
I0428 19:31:24.843176 22569 net.cpp:131] Top shape: 100 10 (1000)
I0428 19:31:24.843183 22569 net.cpp:139] Memory required for data: 3218800
I0428 19:31:24.843189 22569 layer_factory.hpp:77] Creating layer accuracy
I0428 19:31:24.843199 22569 net.cpp:86] Creating Layer accuracy
I0428 19:31:24.843204 22569 net.cpp:408] accuracy <- ip2_relu2_0_split_0
I0428 19:31:24.843214 22569 net.cpp:408] accuracy <- label_mnist_1_split_0
I0428 19:31:24.843222 22569 net.cpp:382] accuracy -> accuracy
…
