…
I0428 19:44:16.240826 25565 net.cpp:296] The NetState phase (0) differed from the phase (1) specified by a rule in layer mnist
I0428 19:44:16.240856 25565 net.cpp:296] The NetState phase (0) differed from the phase (1) specified by a rule in layer accuracy
I0428 19:44:16.240970 25565 net.cpp:53] Initializing net from parameters: 
name: "LeNet"
state {
  phase: TRAIN
  level: 0
  stage: ""
}
layer {
  name: "mnist"
  type: "Data"
  top: "data"
  top: "label"
  include {
    phase: TRAIN
  }
  transform_param {
    scale: 0.00390625
  }
  data_param {
    source: "examples/mnist/mnist_train_lmdb"
    batch_size: 64
    backend: LMDB
  }
}
layer {
  name: "conv0"
  type: "Convolution"
  bottom: "data"
  top: "conv0"
  param {
    lr_mult: 1
  }
  param {
    lr_mult: 2
  }
  convolution_param {
    num_output: 2
    kernel_size: 5
    stride: 1
    weight_filler {
      type: "xavier"
    }
    bias_filler {
      type: "constant"
    }
  }
}
layer {
  name: "pool0"
  type: "Pooling"
  bottom: "conv0"
  top: "pool0"
  pooling_param {
    pool: MAX
    kernel_size: 2
    stride: 2
  }
}
layer {
  name: "conv1"
  type: "Convolution"
  bottom: "pool0"
  top: "conv1"
  param {
    lr_mult: 1
  }
  param {
    lr_mult: 2
  }
  convolution_param {
    num_output: 50
    kernel_size: 5
    stride: 1
    weight_filler {
      type: "xavier"
    }
    bias_filler {
      type: "constant"
    }
  }
}
layer {
  name: "pool1"
  type: "Pooling"
  bottom: "conv1"
  top: "pool1"
  pooling_param {
    pool: MAX
    kernel_size: 2
    stride: 2
  }
}
layer {
  name: "ip1"
  type: "InnerProduct"
  bottom: "pool1"
  top: "ip1"
  param {
    lr_mult: 1
  }
  param {
    lr_mult: 2
  }
  inner_product_param {
    num_output: 10
    weight_filler {
      type: "xavier"
    }
    bias_filler {
      type: "constant"
    }
  }
}
layer {
  name: "relu1"
  type: "ReLU"
  bottom: "ip1"
  top: "ip1"
}
layer {
  name: "ip2"
  type: "InnerProduct"
  bottom: "ip1"
  top: "ip2"
  param {
    lr_mult: 1
  }
  param {
    lr_mult: 2
  }
  inner_product_param {
    num_output: 10
    weight_filler {
      type: "xavier"
    }
    bias_filler {
      type: "constant"
    }
  }
}
layer {
  name: "relu2"
  type: "ReLU"
  bottom: "ip2"
  top: "ip2"
}
layer {
  name: "ip3"
  type: "InnerProduct"
  bottom: "ip2"
  top: "ip3"
  param {
    lr_mult: 1
  }
  param {
    lr_mult: 2
  }
  inner_product_param {
    num_output: 10
    weight_filler {
      type: "xavier"
    }
    bias_filler {
      type: "constant"
    }
  }
}
layer {
  name: "relu3"
  type: "ReLU"
  bottom: "ip3"
  top: "ip3"
}
layer {
  name: "loss"
  type: "SoftmaxWithLoss"
  bottom: "ip3"
  bottom: "label"
  top: "loss"
}
I0428 19:44:16.241087 25565 layer_factory.hpp:77] Creating layer mnist
I0428 19:44:16.241219 25565 db_lmdb.cpp:35] Opened lmdb examples/mnist/mnist_train_lmdb
I0428 19:44:16.241252 25565 net.cpp:86] Creating Layer mnist
I0428 19:44:16.241267 25565 net.cpp:382] mnist -> data
I0428 19:44:16.241298 25565 net.cpp:382] mnist -> label
I0428 19:44:16.242578 25565 data_layer.cpp:45] output data size: 64,1,28,28
I0428 19:44:16.245069 25565 net.cpp:124] Setting up mnist
I0428 19:44:16.245090 25565 net.cpp:131] Top shape: 64 1 28 28 (50176)
I0428 19:44:16.245100 25565 net.cpp:131] Top shape: 64 (64)
I0428 19:44:16.245105 25565 net.cpp:139] Memory required for data: 200960
I0428 19:44:16.245116 25565 layer_factory.hpp:77] Creating layer conv0
I0428 19:44:16.245141 25565 net.cpp:86] Creating Layer conv0
I0428 19:44:16.245165 25565 net.cpp:408] conv0 <- data
I0428 19:44:16.245187 25565 net.cpp:382] conv0 -> conv0
I0428 19:44:16.532868 25565 net.cpp:124] Setting up conv0
I0428 19:44:16.532899 25565 net.cpp:131] Top shape: 64 2 24 24 (73728)
I0428 19:44:16.532907 25565 net.cpp:139] Memory required for data: 495872
I0428 19:44:16.532929 25565 layer_factory.hpp:77] Creating layer pool0
I0428 19:44:16.532958 25565 net.cpp:86] Creating Layer pool0
I0428 19:44:16.532974 25565 net.cpp:408] pool0 <- conv0
I0428 19:44:16.532984 25565 net.cpp:382] pool0 -> pool0
I0428 19:44:16.533046 25565 net.cpp:124] Setting up pool0
I0428 19:44:16.533056 25565 net.cpp:131] Top shape: 64 2 12 12 (18432)
I0428 19:44:16.533061 25565 net.cpp:139] Memory required for data: 569600
I0428 19:44:16.533067 25565 layer_factory.hpp:77] Creating layer conv1
I0428 19:44:16.533084 25565 net.cpp:86] Creating Layer conv1
I0428 19:44:16.533092 25565 net.cpp:408] conv1 <- pool0
I0428 19:44:16.533100 25565 net.cpp:382] conv1 -> conv1
I0428 19:44:16.535873 25565 net.cpp:124] Setting up conv1
I0428 19:44:16.535890 25565 net.cpp:131] Top shape: 64 50 8 8 (204800)
I0428 19:44:16.535897 25565 net.cpp:139] Memory required for data: 1388800
I0428 19:44:16.535912 25565 layer_factory.hpp:77] Creating layer pool1
I0428 19:44:16.535923 25565 net.cpp:86] Creating Layer pool1
I0428 19:44:16.535930 25565 net.cpp:408] pool1 <- conv1
I0428 19:44:16.535939 25565 net.cpp:382] pool1 -> pool1
I0428 19:44:16.535986 25565 net.cpp:124] Setting up pool1
I0428 19:44:16.535996 25565 net.cpp:131] Top shape: 64 50 4 4 (51200)
I0428 19:44:16.536002 25565 net.cpp:139] Memory required for data: 1593600
I0428 19:44:16.536007 25565 layer_factory.hpp:77] Creating layer ip1
I0428 19:44:16.536020 25565 net.cpp:86] Creating Layer ip1
I0428 19:44:16.536031 25565 net.cpp:408] ip1 <- pool1
I0428 19:44:16.536039 25565 net.cpp:382] ip1 -> ip1
I0428 19:44:16.537060 25565 net.cpp:124] Setting up ip1
I0428 19:44:16.537076 25565 net.cpp:131] Top shape: 64 10 (640)
I0428 19:44:16.537082 25565 net.cpp:139] Memory required for data: 1596160
I0428 19:44:16.537096 25565 layer_factory.hpp:77] Creating layer relu1
I0428 19:44:16.537107 25565 net.cpp:86] Creating Layer relu1
I0428 19:44:16.537113 25565 net.cpp:408] relu1 <- ip1
I0428 19:44:16.537122 25565 net.cpp:369] relu1 -> ip1 (in-place)
I0428 19:44:16.537307 25565 net.cpp:124] Setting up relu1
I0428 19:44:16.537318 25565 net.cpp:131] Top shape: 64 10 (640)
I0428 19:44:16.537323 25565 net.cpp:139] Memory required for data: 1598720
I0428 19:44:16.537329 25565 layer_factory.hpp:77] Creating layer ip2
I0428 19:44:16.537340 25565 net.cpp:86] Creating Layer ip2
I0428 19:44:16.537346 25565 net.cpp:408] ip2 <- ip1
I0428 19:44:16.537355 25565 net.cpp:382] ip2 -> ip2
I0428 19:44:16.537466 25565 net.cpp:124] Setting up ip2
I0428 19:44:16.537475 25565 net.cpp:131] Top shape: 64 10 (640)
I0428 19:44:16.537480 25565 net.cpp:139] Memory required for data: 1601280
I0428 19:44:16.537490 25565 layer_factory.hpp:77] Creating layer relu2
I0428 19:44:16.537500 25565 net.cpp:86] Creating Layer relu2
I0428 19:44:16.537510 25565 net.cpp:408] relu2 <- ip2
I0428 19:44:16.537518 25565 net.cpp:369] relu2 -> ip2 (in-place)
I0428 19:44:16.538331 25565 net.cpp:124] Setting up relu2
I0428 19:44:16.538345 25565 net.cpp:131] Top shape: 64 10 (640)
I0428 19:44:16.538352 25565 net.cpp:139] Memory required for data: 1603840
I0428 19:44:16.538357 25565 layer_factory.hpp:77] Creating layer ip3
I0428 19:44:16.538370 25565 net.cpp:86] Creating Layer ip3
I0428 19:44:16.538377 25565 net.cpp:408] ip3 <- ip2
I0428 19:44:16.538388 25565 net.cpp:382] ip3 -> ip3
I0428 19:44:16.538504 25565 net.cpp:124] Setting up ip3
I0428 19:44:16.538517 25565 net.cpp:131] Top shape: 64 10 (640)
I0428 19:44:16.538522 25565 net.cpp:139] Memory required for data: 1606400
I0428 19:44:16.538537 25565 layer_factory.hpp:77] Creating layer relu3
I0428 19:44:16.538548 25565 net.cpp:86] Creating Layer relu3
I0428 19:44:16.538554 25565 net.cpp:408] relu3 <- ip3
I0428 19:44:16.538563 25565 net.cpp:369] relu3 -> ip3 (in-place)
I0428 19:44:16.538749 25565 net.cpp:124] Setting up relu3
I0428 19:44:16.538760 25565 net.cpp:131] Top shape: 64 10 (640)
I0428 19:44:16.538766 25565 net.cpp:139] Memory required for data: 1608960
I0428 19:44:16.538771 25565 layer_factory.hpp:77] Creating layer loss
I0428 19:44:16.538780 25565 net.cpp:86] Creating Layer loss
I0428 19:44:16.538786 25565 net.cpp:408] loss <- ip3
I0428 19:44:16.538794 25565 net.cpp:408] loss <- label
I0428 19:44:16.538802 25565 net.cpp:382] loss -> loss
I0428 19:44:16.538825 25565 layer_factory.hpp:77] Creating layer loss
…
I0428 19:44:16.539608 25565 solver.cpp:173] Creating test net (#0) specified by net file: ECE595/mnist/train_test/var_everything2/lenet_train_test443.prototxt
I0428 19:44:16.539644 25565 net.cpp:296] The NetState phase (1) differed from the phase (0) specified by a rule in layer mnist
I0428 19:44:16.539752 25565 net.cpp:53] Initializing net from parameters: 
name: "LeNet"
state {
  phase: TEST
}
layer {
  name: "mnist"
  type: "Data"
  top: "data"
  top: "label"
  include {
    phase: TEST
  }
  transform_param {
    scale: 0.00390625
  }
  data_param {
    source: "examples/mnist/mnist_test_lmdb"
    batch_size: 100
    backend: LMDB
  }
}
layer {
  name: "conv0"
  type: "Convolution"
  bottom: "data"
  top: "conv0"
  param {
    lr_mult: 1
  }
  param {
    lr_mult: 2
  }
  convolution_param {
    num_output: 2
    kernel_size: 5
    stride: 1
    weight_filler {
      type: "xavier"
    }
    bias_filler {
      type: "constant"
    }
  }
}
layer {
  name: "pool0"
  type: "Pooling"
  bottom: "conv0"
  top: "pool0"
  pooling_param {
    pool: MAX
    kernel_size: 2
    stride: 2
  }
}
layer {
  name: "conv1"
  type: "Convolution"
  bottom: "pool0"
  top: "conv1"
  param {
    lr_mult: 1
  }
  param {
    lr_mult: 2
  }
  convolution_param {
    num_output: 50
    kernel_size: 5
    stride: 1
    weight_filler {
      type: "xavier"
    }
    bias_filler {
      type: "constant"
    }
  }
}
layer {
  name: "pool1"
  type: "Pooling"
  bottom: "conv1"
  top: "pool1"
  pooling_param {
    pool: MAX
    kernel_size: 2
    stride: 2
  }
}
layer {
  name: "ip1"
  type: "InnerProduct"
  bottom: "pool1"
  top: "ip1"
  param {
    lr_mult: 1
  }
  param {
    lr_mult: 2
  }
  inner_product_param {
    num_output: 10
    weight_filler {
      type: "xavier"
    }
    bias_filler {
      type: "constant"
    }
  }
}
layer {
  name: "relu1"
  type: "ReLU"
  bottom: "ip1"
  top: "ip1"
}
layer {
  name: "ip2"
  type: "InnerProduct"
  bottom: "ip1"
  top: "ip2"
  param {
    lr_mult: 1
  }
  param {
    lr_mult: 2
  }
  inner_product_param {
    num_output: 10
    weight_filler {
      type: "xavier"
    }
    bias_filler {
      type: "constant"
    }
  }
}
layer {
  name: "relu2"
  type: "ReLU"
  bottom: "ip2"
  top: "ip2"
}
layer {
  name: "ip3"
  type: "InnerProduct"
  bottom: "ip2"
  top: "ip3"
  param {
    lr_mult: 1
  }
  param {
    lr_mult: 2
  }
  inner_product_param {
    num_output: 10
    weight_filler {
      type: "xavier"
    }
    bias_filler {
      type: "constant"
    }
  }
}
layer {
  name: "relu3"
  type: "ReLU"
  bottom: "ip3"
  top: "ip3"
}
layer {
  name: "accuracy"
  type: "Accuracy"
  bottom: "ip3"
  bottom: "label"
  top: "accuracy"
  include {
    phase: TEST
  }
}
layer {
  name: "loss"
  type: "SoftmaxWithLoss"
  bottom: "ip3"
  bottom: "label"
  top: "loss"
}
I0428 19:44:16.539878 25565 layer_factory.hpp:77] Creating layer mnist
I0428 19:44:16.539939 25565 db_lmdb.cpp:35] Opened lmdb examples/mnist/mnist_test_lmdb
I0428 19:44:16.539963 25565 net.cpp:86] Creating Layer mnist
I0428 19:44:16.539973 25565 net.cpp:382] mnist -> data
I0428 19:44:16.539985 25565 net.cpp:382] mnist -> label
I0428 19:44:16.540118 25565 data_layer.cpp:45] output data size: 100,1,28,28
I0428 19:44:16.542287 25565 net.cpp:124] Setting up mnist
I0428 19:44:16.542304 25565 net.cpp:131] Top shape: 100 1 28 28 (78400)
I0428 19:44:16.542315 25565 net.cpp:131] Top shape: 100 (100)
I0428 19:44:16.542320 25565 net.cpp:139] Memory required for data: 314000
I0428 19:44:16.542325 25565 layer_factory.hpp:77] Creating layer label_mnist_1_split
I0428 19:44:16.542351 25565 net.cpp:86] Creating Layer label_mnist_1_split
I0428 19:44:16.542358 25565 net.cpp:408] label_mnist_1_split <- label
I0428 19:44:16.542366 25565 net.cpp:382] label_mnist_1_split -> label_mnist_1_split_0
I0428 19:44:16.542377 25565 net.cpp:382] label_mnist_1_split -> label_mnist_1_split_1
I0428 19:44:16.542524 25565 net.cpp:124] Setting up label_mnist_1_split
I0428 19:44:16.542534 25565 net.cpp:131] Top shape: 100 (100)
I0428 19:44:16.542541 25565 net.cpp:131] Top shape: 100 (100)
I0428 19:44:16.542546 25565 net.cpp:139] Memory required for data: 314800
I0428 19:44:16.542552 25565 layer_factory.hpp:77] Creating layer conv0
I0428 19:44:16.542568 25565 net.cpp:86] Creating Layer conv0
I0428 19:44:16.542575 25565 net.cpp:408] conv0 <- data
I0428 19:44:16.542587 25565 net.cpp:382] conv0 -> conv0
I0428 19:44:16.544124 25565 net.cpp:124] Setting up conv0
I0428 19:44:16.544142 25565 net.cpp:131] Top shape: 100 2 24 24 (115200)
I0428 19:44:16.544147 25565 net.cpp:139] Memory required for data: 775600
I0428 19:44:16.544162 25565 layer_factory.hpp:77] Creating layer pool0
I0428 19:44:16.544175 25565 net.cpp:86] Creating Layer pool0
I0428 19:44:16.544184 25565 net.cpp:408] pool0 <- conv0
I0428 19:44:16.544193 25565 net.cpp:382] pool0 -> pool0
I0428 19:44:16.544240 25565 net.cpp:124] Setting up pool0
I0428 19:44:16.544250 25565 net.cpp:131] Top shape: 100 2 12 12 (28800)
I0428 19:44:16.544255 25565 net.cpp:139] Memory required for data: 890800
I0428 19:44:16.544260 25565 layer_factory.hpp:77] Creating layer conv1
I0428 19:44:16.544275 25565 net.cpp:86] Creating Layer conv1
I0428 19:44:16.544282 25565 net.cpp:408] conv1 <- pool0
I0428 19:44:16.544294 25565 net.cpp:382] conv1 -> conv1
I0428 19:44:16.546109 25565 net.cpp:124] Setting up conv1
I0428 19:44:16.546124 25565 net.cpp:131] Top shape: 100 50 8 8 (320000)
I0428 19:44:16.546130 25565 net.cpp:139] Memory required for data: 2170800
I0428 19:44:16.546144 25565 layer_factory.hpp:77] Creating layer pool1
I0428 19:44:16.546154 25565 net.cpp:86] Creating Layer pool1
I0428 19:44:16.546160 25565 net.cpp:408] pool1 <- conv1
I0428 19:44:16.546171 25565 net.cpp:382] pool1 -> pool1
I0428 19:44:16.546216 25565 net.cpp:124] Setting up pool1
I0428 19:44:16.546226 25565 net.cpp:131] Top shape: 100 50 4 4 (80000)
I0428 19:44:16.546231 25565 net.cpp:139] Memory required for data: 2490800
I0428 19:44:16.546236 25565 layer_factory.hpp:77] Creating layer ip1
I0428 19:44:16.546247 25565 net.cpp:86] Creating Layer ip1
I0428 19:44:16.546252 25565 net.cpp:408] ip1 <- pool1
I0428 19:44:16.546264 25565 net.cpp:382] ip1 -> ip1
I0428 19:44:16.546419 25565 net.cpp:124] Setting up ip1
I0428 19:44:16.546429 25565 net.cpp:131] Top shape: 100 10 (1000)
I0428 19:44:16.546452 25565 net.cpp:139] Memory required for data: 2494800
I0428 19:44:16.546465 25565 layer_factory.hpp:77] Creating layer relu1
I0428 19:44:16.546474 25565 net.cpp:86] Creating Layer relu1
I0428 19:44:16.546480 25565 net.cpp:408] relu1 <- ip1
I0428 19:44:16.546489 25565 net.cpp:369] relu1 -> ip1 (in-place)
I0428 19:44:16.546664 25565 net.cpp:124] Setting up relu1
I0428 19:44:16.546676 25565 net.cpp:131] Top shape: 100 10 (1000)
I0428 19:44:16.546681 25565 net.cpp:139] Memory required for data: 2498800
I0428 19:44:16.546689 25565 layer_factory.hpp:77] Creating layer ip2
I0428 19:44:16.546700 25565 net.cpp:86] Creating Layer ip2
I0428 19:44:16.546705 25565 net.cpp:408] ip2 <- ip1
I0428 19:44:16.546715 25565 net.cpp:382] ip2 -> ip2
I0428 19:44:16.546825 25565 net.cpp:124] Setting up ip2
I0428 19:44:16.546834 25565 net.cpp:131] Top shape: 100 10 (1000)
I0428 19:44:16.546839 25565 net.cpp:139] Memory required for data: 2502800
I0428 19:44:16.546849 25565 layer_factory.hpp:77] Creating layer relu2
I0428 19:44:16.546856 25565 net.cpp:86] Creating Layer relu2
I0428 19:44:16.546862 25565 net.cpp:408] relu2 <- ip2
I0428 19:44:16.546871 25565 net.cpp:369] relu2 -> ip2 (in-place)
I0428 19:44:16.547143 25565 net.cpp:124] Setting up relu2
I0428 19:44:16.547153 25565 net.cpp:131] Top shape: 100 10 (1000)
I0428 19:44:16.547159 25565 net.cpp:139] Memory required for data: 2506800
I0428 19:44:16.547165 25565 layer_factory.hpp:77] Creating layer ip3
I0428 19:44:16.547176 25565 net.cpp:86] Creating Layer ip3
I0428 19:44:16.547183 25565 net.cpp:408] ip3 <- ip2
I0428 19:44:16.547191 25565 net.cpp:382] ip3 -> ip3
I0428 19:44:16.547302 25565 net.cpp:124] Setting up ip3
I0428 19:44:16.547312 25565 net.cpp:131] Top shape: 100 10 (1000)
I0428 19:44:16.547317 25565 net.cpp:139] Memory required for data: 2510800
I0428 19:44:16.547330 25565 layer_factory.hpp:77] Creating layer relu3
I0428 19:44:16.547339 25565 net.cpp:86] Creating Layer relu3
I0428 19:44:16.547345 25565 net.cpp:408] relu3 <- ip3
I0428 19:44:16.547354 25565 net.cpp:369] relu3 -> ip3 (in-place)
I0428 19:44:16.548138 25565 net.cpp:124] Setting up relu3
I0428 19:44:16.548151 25565 net.cpp:131] Top shape: 100 10 (1000)
I0428 19:44:16.548157 25565 net.cpp:139] Memory required for data: 2514800
I0428 19:44:16.548162 25565 layer_factory.hpp:77] Creating layer ip3_relu3_0_split
I0428 19:44:16.548173 25565 net.cpp:86] Creating Layer ip3_relu3_0_split
I0428 19:44:16.548179 25565 net.cpp:408] ip3_relu3_0_split <- ip3
I0428 19:44:16.548187 25565 net.cpp:382] ip3_relu3_0_split -> ip3_relu3_0_split_0
I0428 19:44:16.548197 25565 net.cpp:382] ip3_relu3_0_split -> ip3_relu3_0_split_1
I0428 19:44:16.548271 25565 net.cpp:124] Setting up ip3_relu3_0_split
I0428 19:44:16.548280 25565 net.cpp:131] Top shape: 100 10 (1000)
I0428 19:44:16.548287 25565 net.cpp:131] Top shape: 100 10 (1000)
I0428 19:44:16.548292 25565 net.cpp:139] Memory required for data: 2522800
I0428 19:44:16.548298 25565 layer_factory.hpp:77] Creating layer accuracy
I0428 19:44:16.548307 25565 net.cpp:86] Creating Layer accuracy
I0428 19:44:16.548312 25565 net.cpp:408] accuracy <- ip3_relu3_0_split_0
I0428 19:44:16.548319 25565 net.cpp:408] accuracy <- label_mnist_1_split_0
I0428 19:44:16.548329 25565 net.cpp:382] accuracy -> accuracy
…
