…
I0428 19:53:30.889580 27787 net.cpp:296] The NetState phase (0) differed from the phase (1) specified by a rule in layer mnist
I0428 19:53:30.889600 27787 net.cpp:296] The NetState phase (0) differed from the phase (1) specified by a rule in layer accuracy
I0428 19:53:30.889704 27787 net.cpp:53] Initializing net from parameters: 
name: "LeNet"
state {
  phase: TRAIN
  level: 0
  stage: ""
}
layer {
  name: "mnist"
  type: "Data"
  top: "data"
  top: "label"
  include {
    phase: TRAIN
  }
  transform_param {
    scale: 0.00390625
  }
  data_param {
    source: "examples/mnist/mnist_train_lmdb"
    batch_size: 64
    backend: LMDB
  }
}
layer {
  name: "conv0"
  type: "Convolution"
  bottom: "data"
  top: "conv0"
  param {
    lr_mult: 1
  }
  param {
    lr_mult: 2
  }
  convolution_param {
    num_output: 5
    kernel_size: 5
    stride: 1
    weight_filler {
      type: "xavier"
    }
    bias_filler {
      type: "constant"
    }
  }
}
layer {
  name: "pool0"
  type: "Pooling"
  bottom: "conv0"
  top: "pool0"
  pooling_param {
    pool: MAX
    kernel_size: 2
    stride: 2
  }
}
layer {
  name: "conv1"
  type: "Convolution"
  bottom: "pool0"
  top: "conv1"
  param {
    lr_mult: 1
  }
  param {
    lr_mult: 2
  }
  convolution_param {
    num_output: 50
    kernel_size: 5
    stride: 1
    weight_filler {
      type: "xavier"
    }
    bias_filler {
      type: "constant"
    }
  }
}
layer {
  name: "pool1"
  type: "Pooling"
  bottom: "conv1"
  top: "pool1"
  pooling_param {
    pool: MAX
    kernel_size: 2
    stride: 2
  }
}
layer {
  name: "ip1"
  type: "InnerProduct"
  bottom: "pool1"
  top: "ip1"
  param {
    lr_mult: 1
  }
  param {
    lr_mult: 2
  }
  inner_product_param {
    num_output: 25
    weight_filler {
      type: "xavier"
    }
    bias_filler {
      type: "constant"
    }
  }
}
layer {
  name: "relu1"
  type: "ReLU"
  bottom: "ip1"
  top: "ip1"
}
layer {
  name: "ip2"
  type: "InnerProduct"
  bottom: "ip1"
  top: "ip2"
  param {
    lr_mult: 1
  }
  param {
    lr_mult: 2
  }
  inner_product_param {
    num_output: 25
    weight_filler {
      type: "xavier"
    }
    bias_filler {
      type: "constant"
    }
  }
}
layer {
  name: "relu2"
  type: "ReLU"
  bottom: "ip2"
  top: "ip2"
}
layer {
  name: "ip3"
  type: "InnerProduct"
  bottom: "ip2"
  top: "ip3"
  param {
    lr_mult: 1
  }
  param {
    lr_mult: 2
  }
  inner_product_param {
    num_output: 10
    weight_filler {
      type: "xavier"
    }
    bias_filler {
      type: "constant"
    }
  }
}
layer {
  name: "relu3"
  type: "ReLU"
  bottom: "ip3"
  top: "ip3"
}
layer {
  name: "loss"
  type: "SoftmaxWithLoss"
  bottom: "ip3"
  bottom: "label"
  top: "loss"
}
I0428 19:53:30.889788 27787 layer_factory.hpp:77] Creating layer mnist
I0428 19:53:30.889889 27787 db_lmdb.cpp:35] Opened lmdb examples/mnist/mnist_train_lmdb
I0428 19:53:30.889914 27787 net.cpp:86] Creating Layer mnist
I0428 19:53:30.889921 27787 net.cpp:382] mnist -> data
I0428 19:53:30.889943 27787 net.cpp:382] mnist -> label
I0428 19:53:30.891054 27787 data_layer.cpp:45] output data size: 64,1,28,28
I0428 19:53:30.893745 27787 net.cpp:124] Setting up mnist
I0428 19:53:30.893781 27787 net.cpp:131] Top shape: 64 1 28 28 (50176)
I0428 19:53:30.893790 27787 net.cpp:131] Top shape: 64 (64)
I0428 19:53:30.893793 27787 net.cpp:139] Memory required for data: 200960
I0428 19:53:30.893800 27787 layer_factory.hpp:77] Creating layer conv0
I0428 19:53:30.893818 27787 net.cpp:86] Creating Layer conv0
I0428 19:53:30.893839 27787 net.cpp:408] conv0 <- data
I0428 19:53:30.893852 27787 net.cpp:382] conv0 -> conv0
I0428 19:53:31.183555 27787 net.cpp:124] Setting up conv0
I0428 19:53:31.183583 27787 net.cpp:131] Top shape: 64 5 24 24 (184320)
I0428 19:53:31.183588 27787 net.cpp:139] Memory required for data: 938240
I0428 19:53:31.183604 27787 layer_factory.hpp:77] Creating layer pool0
I0428 19:53:31.183617 27787 net.cpp:86] Creating Layer pool0
I0428 19:53:31.183622 27787 net.cpp:408] pool0 <- conv0
I0428 19:53:31.183629 27787 net.cpp:382] pool0 -> pool0
I0428 19:53:31.183681 27787 net.cpp:124] Setting up pool0
I0428 19:53:31.183686 27787 net.cpp:131] Top shape: 64 5 12 12 (46080)
I0428 19:53:31.183689 27787 net.cpp:139] Memory required for data: 1122560
I0428 19:53:31.183693 27787 layer_factory.hpp:77] Creating layer conv1
I0428 19:53:31.183706 27787 net.cpp:86] Creating Layer conv1
I0428 19:53:31.183709 27787 net.cpp:408] conv1 <- pool0
I0428 19:53:31.183714 27787 net.cpp:382] conv1 -> conv1
I0428 19:53:31.186663 27787 net.cpp:124] Setting up conv1
I0428 19:53:31.186681 27787 net.cpp:131] Top shape: 64 50 8 8 (204800)
I0428 19:53:31.186684 27787 net.cpp:139] Memory required for data: 1941760
I0428 19:53:31.186693 27787 layer_factory.hpp:77] Creating layer pool1
I0428 19:53:31.186702 27787 net.cpp:86] Creating Layer pool1
I0428 19:53:31.186704 27787 net.cpp:408] pool1 <- conv1
I0428 19:53:31.186712 27787 net.cpp:382] pool1 -> pool1
I0428 19:53:31.186753 27787 net.cpp:124] Setting up pool1
I0428 19:53:31.186758 27787 net.cpp:131] Top shape: 64 50 4 4 (51200)
I0428 19:53:31.186760 27787 net.cpp:139] Memory required for data: 2146560
I0428 19:53:31.186764 27787 layer_factory.hpp:77] Creating layer ip1
I0428 19:53:31.186771 27787 net.cpp:86] Creating Layer ip1
I0428 19:53:31.186775 27787 net.cpp:408] ip1 <- pool1
I0428 19:53:31.186781 27787 net.cpp:382] ip1 -> ip1
I0428 19:53:31.187005 27787 net.cpp:124] Setting up ip1
I0428 19:53:31.187013 27787 net.cpp:131] Top shape: 64 25 (1600)
I0428 19:53:31.187016 27787 net.cpp:139] Memory required for data: 2152960
I0428 19:53:31.187024 27787 layer_factory.hpp:77] Creating layer relu1
I0428 19:53:31.187031 27787 net.cpp:86] Creating Layer relu1
I0428 19:53:31.187034 27787 net.cpp:408] relu1 <- ip1
I0428 19:53:31.187039 27787 net.cpp:369] relu1 -> ip1 (in-place)
I0428 19:53:31.187227 27787 net.cpp:124] Setting up relu1
I0428 19:53:31.187237 27787 net.cpp:131] Top shape: 64 25 (1600)
I0428 19:53:31.187240 27787 net.cpp:139] Memory required for data: 2159360
I0428 19:53:31.187243 27787 layer_factory.hpp:77] Creating layer ip2
I0428 19:53:31.187250 27787 net.cpp:86] Creating Layer ip2
I0428 19:53:31.187253 27787 net.cpp:408] ip2 <- ip1
I0428 19:53:31.187259 27787 net.cpp:382] ip2 -> ip2
I0428 19:53:31.187366 27787 net.cpp:124] Setting up ip2
I0428 19:53:31.187374 27787 net.cpp:131] Top shape: 64 25 (1600)
I0428 19:53:31.187377 27787 net.cpp:139] Memory required for data: 2165760
I0428 19:53:31.187383 27787 layer_factory.hpp:77] Creating layer relu2
I0428 19:53:31.187389 27787 net.cpp:86] Creating Layer relu2
I0428 19:53:31.187393 27787 net.cpp:408] relu2 <- ip2
I0428 19:53:31.187397 27787 net.cpp:369] relu2 -> ip2 (in-place)
I0428 19:53:31.188158 27787 net.cpp:124] Setting up relu2
I0428 19:53:31.188170 27787 net.cpp:131] Top shape: 64 25 (1600)
I0428 19:53:31.188174 27787 net.cpp:139] Memory required for data: 2172160
I0428 19:53:31.188177 27787 layer_factory.hpp:77] Creating layer ip3
I0428 19:53:31.188185 27787 net.cpp:86] Creating Layer ip3
I0428 19:53:31.188189 27787 net.cpp:408] ip3 <- ip2
I0428 19:53:31.188195 27787 net.cpp:382] ip3 -> ip3
I0428 19:53:31.188303 27787 net.cpp:124] Setting up ip3
I0428 19:53:31.188311 27787 net.cpp:131] Top shape: 64 10 (640)
I0428 19:53:31.188314 27787 net.cpp:139] Memory required for data: 2174720
I0428 19:53:31.188323 27787 layer_factory.hpp:77] Creating layer relu3
I0428 19:53:31.188328 27787 net.cpp:86] Creating Layer relu3
I0428 19:53:31.188330 27787 net.cpp:408] relu3 <- ip3
I0428 19:53:31.188335 27787 net.cpp:369] relu3 -> ip3 (in-place)
I0428 19:53:31.188520 27787 net.cpp:124] Setting up relu3
I0428 19:53:31.188529 27787 net.cpp:131] Top shape: 64 10 (640)
I0428 19:53:31.188534 27787 net.cpp:139] Memory required for data: 2177280
I0428 19:53:31.188536 27787 layer_factory.hpp:77] Creating layer loss
I0428 19:53:31.188542 27787 net.cpp:86] Creating Layer loss
I0428 19:53:31.188545 27787 net.cpp:408] loss <- ip3
I0428 19:53:31.188549 27787 net.cpp:408] loss <- label
I0428 19:53:31.188556 27787 net.cpp:382] loss -> loss
I0428 19:53:31.188570 27787 layer_factory.hpp:77] Creating layer loss
…
I0428 19:53:31.189244 27787 solver.cpp:173] Creating test net (#0) specified by net file: ECE595/mnist/train_test/var_everything2/lenet_train_test689.prototxt
I0428 19:53:31.189273 27787 net.cpp:296] The NetState phase (1) differed from the phase (0) specified by a rule in layer mnist
I0428 19:53:31.189373 27787 net.cpp:53] Initializing net from parameters: 
name: "LeNet"
state {
  phase: TEST
}
layer {
  name: "mnist"
  type: "Data"
  top: "data"
  top: "label"
  include {
    phase: TEST
  }
  transform_param {
    scale: 0.00390625
  }
  data_param {
    source: "examples/mnist/mnist_test_lmdb"
    batch_size: 100
    backend: LMDB
  }
}
layer {
  name: "conv0"
  type: "Convolution"
  bottom: "data"
  top: "conv0"
  param {
    lr_mult: 1
  }
  param {
    lr_mult: 2
  }
  convolution_param {
    num_output: 5
    kernel_size: 5
    stride: 1
    weight_filler {
      type: "xavier"
    }
    bias_filler {
      type: "constant"
    }
  }
}
layer {
  name: "pool0"
  type: "Pooling"
  bottom: "conv0"
  top: "pool0"
  pooling_param {
    pool: MAX
    kernel_size: 2
    stride: 2
  }
}
layer {
  name: "conv1"
  type: "Convolution"
  bottom: "pool0"
  top: "conv1"
  param {
    lr_mult: 1
  }
  param {
    lr_mult: 2
  }
  convolution_param {
    num_output: 50
    kernel_size: 5
    stride: 1
    weight_filler {
      type: "xavier"
    }
    bias_filler {
      type: "constant"
    }
  }
}
layer {
  name: "pool1"
  type: "Pooling"
  bottom: "conv1"
  top: "pool1"
  pooling_param {
    pool: MAX
    kernel_size: 2
    stride: 2
  }
}
layer {
  name: "ip1"
  type: "InnerProduct"
  bottom: "pool1"
  top: "ip1"
  param {
    lr_mult: 1
  }
  param {
    lr_mult: 2
  }
  inner_product_param {
    num_output: 25
    weight_filler {
      type: "xavier"
    }
    bias_filler {
      type: "constant"
    }
  }
}
layer {
  name: "relu1"
  type: "ReLU"
  bottom: "ip1"
  top: "ip1"
}
layer {
  name: "ip2"
  type: "InnerProduct"
  bottom: "ip1"
  top: "ip2"
  param {
    lr_mult: 1
  }
  param {
    lr_mult: 2
  }
  inner_product_param {
    num_output: 25
    weight_filler {
      type: "xavier"
    }
    bias_filler {
      type: "constant"
    }
  }
}
layer {
  name: "relu2"
  type: "ReLU"
  bottom: "ip2"
  top: "ip2"
}
layer {
  name: "ip3"
  type: "InnerProduct"
  bottom: "ip2"
  top: "ip3"
  param {
    lr_mult: 1
  }
  param {
    lr_mult: 2
  }
  inner_product_param {
    num_output: 10
    weight_filler {
      type: "xavier"
    }
    bias_filler {
      type: "constant"
    }
  }
}
layer {
  name: "relu3"
  type: "ReLU"
  bottom: "ip3"
  top: "ip3"
}
layer {
  name: "accuracy"
  type: "Accuracy"
  bottom: "ip3"
  bottom: "label"
  top: "accuracy"
  include {
    phase: TEST
  }
}
layer {
  name: "loss"
  type: "SoftmaxWithLoss"
  bottom: "ip3"
  bottom: "label"
  top: "loss"
}
I0428 19:53:31.189460 27787 layer_factory.hpp:77] Creating layer mnist
I0428 19:53:31.189508 27787 db_lmdb.cpp:35] Opened lmdb examples/mnist/mnist_test_lmdb
I0428 19:53:31.189522 27787 net.cpp:86] Creating Layer mnist
I0428 19:53:31.189527 27787 net.cpp:382] mnist -> data
I0428 19:53:31.189534 27787 net.cpp:382] mnist -> label
I0428 19:53:31.189626 27787 data_layer.cpp:45] output data size: 100,1,28,28
I0428 19:53:31.191584 27787 net.cpp:124] Setting up mnist
I0428 19:53:31.191599 27787 net.cpp:131] Top shape: 100 1 28 28 (78400)
I0428 19:53:31.191606 27787 net.cpp:131] Top shape: 100 (100)
I0428 19:53:31.191608 27787 net.cpp:139] Memory required for data: 314000
I0428 19:53:31.191612 27787 layer_factory.hpp:77] Creating layer label_mnist_1_split
I0428 19:53:31.191618 27787 net.cpp:86] Creating Layer label_mnist_1_split
I0428 19:53:31.191622 27787 net.cpp:408] label_mnist_1_split <- label
I0428 19:53:31.191627 27787 net.cpp:382] label_mnist_1_split -> label_mnist_1_split_0
I0428 19:53:31.191633 27787 net.cpp:382] label_mnist_1_split -> label_mnist_1_split_1
I0428 19:53:31.191741 27787 net.cpp:124] Setting up label_mnist_1_split
I0428 19:53:31.191750 27787 net.cpp:131] Top shape: 100 (100)
I0428 19:53:31.191753 27787 net.cpp:131] Top shape: 100 (100)
I0428 19:53:31.191756 27787 net.cpp:139] Memory required for data: 314800
I0428 19:53:31.191759 27787 layer_factory.hpp:77] Creating layer conv0
I0428 19:53:31.191771 27787 net.cpp:86] Creating Layer conv0
I0428 19:53:31.191773 27787 net.cpp:408] conv0 <- data
I0428 19:53:31.191779 27787 net.cpp:382] conv0 -> conv0
I0428 19:53:31.193302 27787 net.cpp:124] Setting up conv0
I0428 19:53:31.193317 27787 net.cpp:131] Top shape: 100 5 24 24 (288000)
I0428 19:53:31.193321 27787 net.cpp:139] Memory required for data: 1466800
I0428 19:53:31.193331 27787 layer_factory.hpp:77] Creating layer pool0
I0428 19:53:31.193339 27787 net.cpp:86] Creating Layer pool0
I0428 19:53:31.193342 27787 net.cpp:408] pool0 <- conv0
I0428 19:53:31.193347 27787 net.cpp:382] pool0 -> pool0
I0428 19:53:31.193416 27787 net.cpp:124] Setting up pool0
I0428 19:53:31.193424 27787 net.cpp:131] Top shape: 100 5 12 12 (72000)
I0428 19:53:31.193428 27787 net.cpp:139] Memory required for data: 1754800
I0428 19:53:31.193431 27787 layer_factory.hpp:77] Creating layer conv1
I0428 19:53:31.193441 27787 net.cpp:86] Creating Layer conv1
I0428 19:53:31.193444 27787 net.cpp:408] conv1 <- pool0
I0428 19:53:31.193451 27787 net.cpp:382] conv1 -> conv1
I0428 19:53:31.195102 27787 net.cpp:124] Setting up conv1
I0428 19:53:31.195116 27787 net.cpp:131] Top shape: 100 50 8 8 (320000)
I0428 19:53:31.195121 27787 net.cpp:139] Memory required for data: 3034800
I0428 19:53:31.195129 27787 layer_factory.hpp:77] Creating layer pool1
I0428 19:53:31.195135 27787 net.cpp:86] Creating Layer pool1
I0428 19:53:31.195139 27787 net.cpp:408] pool1 <- conv1
I0428 19:53:31.195145 27787 net.cpp:382] pool1 -> pool1
I0428 19:53:31.195184 27787 net.cpp:124] Setting up pool1
I0428 19:53:31.195190 27787 net.cpp:131] Top shape: 100 50 4 4 (80000)
I0428 19:53:31.195194 27787 net.cpp:139] Memory required for data: 3354800
I0428 19:53:31.195195 27787 layer_factory.hpp:77] Creating layer ip1
I0428 19:53:31.195204 27787 net.cpp:86] Creating Layer ip1
I0428 19:53:31.195206 27787 net.cpp:408] ip1 <- pool1
I0428 19:53:31.195212 27787 net.cpp:382] ip1 -> ip1
I0428 19:53:31.195441 27787 net.cpp:124] Setting up ip1
I0428 19:53:31.195447 27787 net.cpp:131] Top shape: 100 25 (2500)
I0428 19:53:31.195461 27787 net.cpp:139] Memory required for data: 3364800
I0428 19:53:31.195469 27787 layer_factory.hpp:77] Creating layer relu1
I0428 19:53:31.195474 27787 net.cpp:86] Creating Layer relu1
I0428 19:53:31.195477 27787 net.cpp:408] relu1 <- ip1
I0428 19:53:31.195484 27787 net.cpp:369] relu1 -> ip1 (in-place)
I0428 19:53:31.195658 27787 net.cpp:124] Setting up relu1
I0428 19:53:31.195667 27787 net.cpp:131] Top shape: 100 25 (2500)
I0428 19:53:31.195672 27787 net.cpp:139] Memory required for data: 3374800
I0428 19:53:31.195674 27787 layer_factory.hpp:77] Creating layer ip2
I0428 19:53:31.195683 27787 net.cpp:86] Creating Layer ip2
I0428 19:53:31.195685 27787 net.cpp:408] ip2 <- ip1
I0428 19:53:31.195691 27787 net.cpp:382] ip2 -> ip2
I0428 19:53:31.195801 27787 net.cpp:124] Setting up ip2
I0428 19:53:31.195811 27787 net.cpp:131] Top shape: 100 25 (2500)
I0428 19:53:31.195813 27787 net.cpp:139] Memory required for data: 3384800
I0428 19:53:31.195818 27787 layer_factory.hpp:77] Creating layer relu2
I0428 19:53:31.195830 27787 net.cpp:86] Creating Layer relu2
I0428 19:53:31.195834 27787 net.cpp:408] relu2 <- ip2
I0428 19:53:31.195840 27787 net.cpp:369] relu2 -> ip2 (in-place)
I0428 19:53:31.196120 27787 net.cpp:124] Setting up relu2
I0428 19:53:31.196128 27787 net.cpp:131] Top shape: 100 25 (2500)
I0428 19:53:31.196131 27787 net.cpp:139] Memory required for data: 3394800
I0428 19:53:31.196140 27787 layer_factory.hpp:77] Creating layer ip3
I0428 19:53:31.196151 27787 net.cpp:86] Creating Layer ip3
I0428 19:53:31.196154 27787 net.cpp:408] ip3 <- ip2
I0428 19:53:31.196159 27787 net.cpp:382] ip3 -> ip3
I0428 19:53:31.196267 27787 net.cpp:124] Setting up ip3
I0428 19:53:31.196274 27787 net.cpp:131] Top shape: 100 10 (1000)
I0428 19:53:31.196279 27787 net.cpp:139] Memory required for data: 3398800
I0428 19:53:31.196286 27787 layer_factory.hpp:77] Creating layer relu3
I0428 19:53:31.196293 27787 net.cpp:86] Creating Layer relu3
I0428 19:53:31.196296 27787 net.cpp:408] relu3 <- ip3
I0428 19:53:31.196300 27787 net.cpp:369] relu3 -> ip3 (in-place)
I0428 19:53:31.197152 27787 net.cpp:124] Setting up relu3
I0428 19:53:31.197170 27787 net.cpp:131] Top shape: 100 10 (1000)
I0428 19:53:31.197175 27787 net.cpp:139] Memory required for data: 3402800
I0428 19:53:31.197178 27787 layer_factory.hpp:77] Creating layer ip3_relu3_0_split
I0428 19:53:31.197183 27787 net.cpp:86] Creating Layer ip3_relu3_0_split
I0428 19:53:31.197186 27787 net.cpp:408] ip3_relu3_0_split <- ip3
I0428 19:53:31.197191 27787 net.cpp:382] ip3_relu3_0_split -> ip3_relu3_0_split_0
I0428 19:53:31.197197 27787 net.cpp:382] ip3_relu3_0_split -> ip3_relu3_0_split_1
I0428 19:53:31.197249 27787 net.cpp:124] Setting up ip3_relu3_0_split
I0428 19:53:31.197257 27787 net.cpp:131] Top shape: 100 10 (1000)
I0428 19:53:31.197262 27787 net.cpp:131] Top shape: 100 10 (1000)
I0428 19:53:31.197264 27787 net.cpp:139] Memory required for data: 3410800
I0428 19:53:31.197268 27787 layer_factory.hpp:77] Creating layer accuracy
I0428 19:53:31.197273 27787 net.cpp:86] Creating Layer accuracy
I0428 19:53:31.197275 27787 net.cpp:408] accuracy <- ip3_relu3_0_split_0
I0428 19:53:31.197279 27787 net.cpp:408] accuracy <- label_mnist_1_split_0
I0428 19:53:31.197291 27787 net.cpp:382] accuracy -> accuracy
…
