…
I0428 19:59:31.791381 29260 net.cpp:296] The NetState phase (0) differed from the phase (1) specified by a rule in layer mnist
I0428 19:59:31.791410 29260 net.cpp:296] The NetState phase (0) differed from the phase (1) specified by a rule in layer accuracy
I0428 19:59:31.791484 29260 net.cpp:53] Initializing net from parameters: 
name: "LeNet"
state {
  phase: TRAIN
  level: 0
  stage: ""
}
layer {
  name: "mnist"
  type: "Data"
  top: "data"
  top: "label"
  include {
    phase: TRAIN
  }
  transform_param {
    scale: 0.00390625
  }
  data_param {
    source: "examples/mnist/mnist_train_lmdb"
    batch_size: 64
    backend: LMDB
  }
}
layer {
  name: "conv0"
  type: "Convolution"
  bottom: "data"
  top: "conv0"
  param {
    lr_mult: 1
  }
  param {
    lr_mult: 2
  }
  convolution_param {
    num_output: 10
    kernel_size: 5
    stride: 1
    weight_filler {
      type: "xavier"
    }
    bias_filler {
      type: "constant"
    }
  }
}
layer {
  name: "pool0"
  type: "Pooling"
  bottom: "conv0"
  top: "pool0"
  pooling_param {
    pool: MAX
    kernel_size: 2
    stride: 2
  }
}
layer {
  name: "conv1"
  type: "Convolution"
  bottom: "pool0"
  top: "conv1"
  param {
    lr_mult: 1
  }
  param {
    lr_mult: 2
  }
  convolution_param {
    num_output: 10
    kernel_size: 5
    stride: 1
    weight_filler {
      type: "xavier"
    }
    bias_filler {
      type: "constant"
    }
  }
}
layer {
  name: "pool1"
  type: "Pooling"
  bottom: "conv1"
  top: "pool1"
  pooling_param {
    pool: MAX
    kernel_size: 2
    stride: 2
  }
}
layer {
  name: "ip1"
  type: "InnerProduct"
  bottom: "pool1"
  top: "ip1"
  param {
    lr_mult: 1
  }
  param {
    lr_mult: 2
  }
  inner_product_param {
    num_output: 50
    weight_filler {
      type: "xavier"
    }
    bias_filler {
      type: "constant"
    }
  }
}
layer {
  name: "relu1"
  type: "ReLU"
  bottom: "ip1"
  top: "ip1"
}
layer {
  name: "ip2"
  type: "InnerProduct"
  bottom: "ip1"
  top: "ip2"
  param {
    lr_mult: 1
  }
  param {
    lr_mult: 2
  }
  inner_product_param {
    num_output: 10
    weight_filler {
      type: "xavier"
    }
    bias_filler {
      type: "constant"
    }
  }
}
layer {
  name: "relu2"
  type: "ReLU"
  bottom: "ip2"
  top: "ip2"
}
layer {
  name: "ip3"
  type: "InnerProduct"
  bottom: "ip2"
  top: "ip3"
  param {
    lr_mult: 1
  }
  param {
    lr_mult: 2
  }
  inner_product_param {
    num_output: 10
    weight_filler {
      type: "xavier"
    }
    bias_filler {
      type: "constant"
    }
  }
}
layer {
  name: "relu3"
  type: "ReLU"
  bottom: "ip3"
  top: "ip3"
}
layer {
  name: "loss"
  type: "SoftmaxWithLoss"
  bottom: "ip3"
  bottom: "label"
  top: "loss"
}
I0428 19:59:31.791543 29260 layer_factory.hpp:77] Creating layer mnist
I0428 19:59:31.791625 29260 db_lmdb.cpp:35] Opened lmdb examples/mnist/mnist_train_lmdb
I0428 19:59:31.791642 29260 net.cpp:86] Creating Layer mnist
I0428 19:59:31.791648 29260 net.cpp:382] mnist -> data
I0428 19:59:31.791666 29260 net.cpp:382] mnist -> label
I0428 19:59:31.792661 29260 data_layer.cpp:45] output data size: 64,1,28,28
I0428 19:59:31.794920 29260 net.cpp:124] Setting up mnist
I0428 19:59:31.794950 29260 net.cpp:131] Top shape: 64 1 28 28 (50176)
I0428 19:59:31.794956 29260 net.cpp:131] Top shape: 64 (64)
I0428 19:59:31.794960 29260 net.cpp:139] Memory required for data: 200960
I0428 19:59:31.794965 29260 layer_factory.hpp:77] Creating layer conv0
I0428 19:59:31.794977 29260 net.cpp:86] Creating Layer conv0
I0428 19:59:31.794994 29260 net.cpp:408] conv0 <- data
I0428 19:59:31.795003 29260 net.cpp:382] conv0 -> conv0
I0428 19:59:32.020107 29260 net.cpp:124] Setting up conv0
I0428 19:59:32.020148 29260 net.cpp:131] Top shape: 64 10 24 24 (368640)
I0428 19:59:32.020153 29260 net.cpp:139] Memory required for data: 1675520
I0428 19:59:32.020167 29260 layer_factory.hpp:77] Creating layer pool0
I0428 19:59:32.020179 29260 net.cpp:86] Creating Layer pool0
I0428 19:59:32.020198 29260 net.cpp:408] pool0 <- conv0
I0428 19:59:32.020203 29260 net.cpp:382] pool0 -> pool0
I0428 19:59:32.020248 29260 net.cpp:124] Setting up pool0
I0428 19:59:32.020256 29260 net.cpp:131] Top shape: 64 10 12 12 (92160)
I0428 19:59:32.020258 29260 net.cpp:139] Memory required for data: 2044160
I0428 19:59:32.020262 29260 layer_factory.hpp:77] Creating layer conv1
I0428 19:59:32.020272 29260 net.cpp:86] Creating Layer conv1
I0428 19:59:32.020275 29260 net.cpp:408] conv1 <- pool0
I0428 19:59:32.020280 29260 net.cpp:382] conv1 -> conv1
I0428 19:59:32.023051 29260 net.cpp:124] Setting up conv1
I0428 19:59:32.023080 29260 net.cpp:131] Top shape: 64 10 8 8 (40960)
I0428 19:59:32.023084 29260 net.cpp:139] Memory required for data: 2208000
I0428 19:59:32.023092 29260 layer_factory.hpp:77] Creating layer pool1
I0428 19:59:32.023100 29260 net.cpp:86] Creating Layer pool1
I0428 19:59:32.023103 29260 net.cpp:408] pool1 <- conv1
I0428 19:59:32.023123 29260 net.cpp:382] pool1 -> pool1
I0428 19:59:32.023159 29260 net.cpp:124] Setting up pool1
I0428 19:59:32.023166 29260 net.cpp:131] Top shape: 64 10 4 4 (10240)
I0428 19:59:32.023169 29260 net.cpp:139] Memory required for data: 2248960
I0428 19:59:32.023172 29260 layer_factory.hpp:77] Creating layer ip1
I0428 19:59:32.023180 29260 net.cpp:86] Creating Layer ip1
I0428 19:59:32.023182 29260 net.cpp:408] ip1 <- pool1
I0428 19:59:32.023187 29260 net.cpp:382] ip1 -> ip1
I0428 19:59:32.024220 29260 net.cpp:124] Setting up ip1
I0428 19:59:32.024233 29260 net.cpp:131] Top shape: 64 50 (3200)
I0428 19:59:32.024236 29260 net.cpp:139] Memory required for data: 2261760
I0428 19:59:32.024245 29260 layer_factory.hpp:77] Creating layer relu1
I0428 19:59:32.024250 29260 net.cpp:86] Creating Layer relu1
I0428 19:59:32.024255 29260 net.cpp:408] relu1 <- ip1
I0428 19:59:32.024258 29260 net.cpp:369] relu1 -> ip1 (in-place)
I0428 19:59:32.024441 29260 net.cpp:124] Setting up relu1
I0428 19:59:32.024461 29260 net.cpp:131] Top shape: 64 50 (3200)
I0428 19:59:32.024464 29260 net.cpp:139] Memory required for data: 2274560
I0428 19:59:32.024467 29260 layer_factory.hpp:77] Creating layer ip2
I0428 19:59:32.024473 29260 net.cpp:86] Creating Layer ip2
I0428 19:59:32.024477 29260 net.cpp:408] ip2 <- ip1
I0428 19:59:32.024482 29260 net.cpp:382] ip2 -> ip2
I0428 19:59:32.024587 29260 net.cpp:124] Setting up ip2
I0428 19:59:32.024593 29260 net.cpp:131] Top shape: 64 10 (640)
I0428 19:59:32.024596 29260 net.cpp:139] Memory required for data: 2277120
I0428 19:59:32.024601 29260 layer_factory.hpp:77] Creating layer relu2
I0428 19:59:32.024607 29260 net.cpp:86] Creating Layer relu2
I0428 19:59:32.024610 29260 net.cpp:408] relu2 <- ip2
I0428 19:59:32.024615 29260 net.cpp:369] relu2 -> ip2 (in-place)
I0428 19:59:32.025487 29260 net.cpp:124] Setting up relu2
I0428 19:59:32.025516 29260 net.cpp:131] Top shape: 64 10 (640)
I0428 19:59:32.025519 29260 net.cpp:139] Memory required for data: 2279680
I0428 19:59:32.025522 29260 layer_factory.hpp:77] Creating layer ip3
I0428 19:59:32.025529 29260 net.cpp:86] Creating Layer ip3
I0428 19:59:32.025533 29260 net.cpp:408] ip3 <- ip2
I0428 19:59:32.025538 29260 net.cpp:382] ip3 -> ip3
I0428 19:59:32.025652 29260 net.cpp:124] Setting up ip3
I0428 19:59:32.025676 29260 net.cpp:131] Top shape: 64 10 (640)
I0428 19:59:32.025678 29260 net.cpp:139] Memory required for data: 2282240
I0428 19:59:32.025686 29260 layer_factory.hpp:77] Creating layer relu3
I0428 19:59:32.025691 29260 net.cpp:86] Creating Layer relu3
I0428 19:59:32.025694 29260 net.cpp:408] relu3 <- ip3
I0428 19:59:32.025698 29260 net.cpp:369] relu3 -> ip3 (in-place)
I0428 19:59:32.025867 29260 net.cpp:124] Setting up relu3
I0428 19:59:32.025877 29260 net.cpp:131] Top shape: 64 10 (640)
I0428 19:59:32.025880 29260 net.cpp:139] Memory required for data: 2284800
I0428 19:59:32.025883 29260 layer_factory.hpp:77] Creating layer loss
I0428 19:59:32.025888 29260 net.cpp:86] Creating Layer loss
I0428 19:59:32.025892 29260 net.cpp:408] loss <- ip3
I0428 19:59:32.025897 29260 net.cpp:408] loss <- label
I0428 19:59:32.025902 29260 net.cpp:382] loss -> loss
I0428 19:59:32.025918 29260 layer_factory.hpp:77] Creating layer loss
…
I0428 19:59:32.026602 29260 solver.cpp:173] Creating test net (#0) specified by net file: ECE595/mnist/train_test/var_everything2/lenet_train_test850.prototxt
I0428 19:59:32.026644 29260 net.cpp:296] The NetState phase (1) differed from the phase (0) specified by a rule in layer mnist
I0428 19:59:32.026746 29260 net.cpp:53] Initializing net from parameters: 
name: "LeNet"
state {
  phase: TEST
}
layer {
  name: "mnist"
  type: "Data"
  top: "data"
  top: "label"
  include {
    phase: TEST
  }
  transform_param {
    scale: 0.00390625
  }
  data_param {
    source: "examples/mnist/mnist_test_lmdb"
    batch_size: 100
    backend: LMDB
  }
}
layer {
  name: "conv0"
  type: "Convolution"
  bottom: "data"
  top: "conv0"
  param {
    lr_mult: 1
  }
  param {
    lr_mult: 2
  }
  convolution_param {
    num_output: 10
    kernel_size: 5
    stride: 1
    weight_filler {
      type: "xavier"
    }
    bias_filler {
      type: "constant"
    }
  }
}
layer {
  name: "pool0"
  type: "Pooling"
  bottom: "conv0"
  top: "pool0"
  pooling_param {
    pool: MAX
    kernel_size: 2
    stride: 2
  }
}
layer {
  name: "conv1"
  type: "Convolution"
  bottom: "pool0"
  top: "conv1"
  param {
    lr_mult: 1
  }
  param {
    lr_mult: 2
  }
  convolution_param {
    num_output: 10
    kernel_size: 5
    stride: 1
    weight_filler {
      type: "xavier"
    }
    bias_filler {
      type: "constant"
    }
  }
}
layer {
  name: "pool1"
  type: "Pooling"
  bottom: "conv1"
  top: "pool1"
  pooling_param {
    pool: MAX
    kernel_size: 2
    stride: 2
  }
}
layer {
  name: "ip1"
  type: "InnerProduct"
  bottom: "pool1"
  top: "ip1"
  param {
    lr_mult: 1
  }
  param {
    lr_mult: 2
  }
  inner_product_param {
    num_output: 50
    weight_filler {
      type: "xavier"
    }
    bias_filler {
      type: "constant"
    }
  }
}
layer {
  name: "relu1"
  type: "ReLU"
  bottom: "ip1"
  top: "ip1"
}
layer {
  name: "ip2"
  type: "InnerProduct"
  bottom: "ip1"
  top: "ip2"
  param {
    lr_mult: 1
  }
  param {
    lr_mult: 2
  }
  inner_product_param {
    num_output: 10
    weight_filler {
      type: "xavier"
    }
    bias_filler {
      type: "constant"
    }
  }
}
layer {
  name: "relu2"
  type: "ReLU"
  bottom: "ip2"
  top: "ip2"
}
layer {
  name: "ip3"
  type: "InnerProduct"
  bottom: "ip2"
  top: "ip3"
  param {
    lr_mult: 1
  }
  param {
    lr_mult: 2
  }
  inner_product_param {
    num_output: 10
    weight_filler {
      type: "xavier"
    }
    bias_filler {
      type: "constant"
    }
  }
}
layer {
  name: "relu3"
  type: "ReLU"
  bottom: "ip3"
  top: "ip3"
}
layer {
  name: "accuracy"
  type: "Accuracy"
  bottom: "ip3"
  bottom: "label"
  top: "accuracy"
  include {
    phase: TEST
  }
}
layer {
  name: "loss"
  type: "SoftmaxWithLoss"
  bottom: "ip3"
  bottom: "label"
  top: "loss"
}
I0428 19:59:32.026841 29260 layer_factory.hpp:77] Creating layer mnist
I0428 19:59:32.026886 29260 db_lmdb.cpp:35] Opened lmdb examples/mnist/mnist_test_lmdb
I0428 19:59:32.026904 29260 net.cpp:86] Creating Layer mnist
I0428 19:59:32.026909 29260 net.cpp:382] mnist -> data
I0428 19:59:32.026916 29260 net.cpp:382] mnist -> label
I0428 19:59:32.027010 29260 data_layer.cpp:45] output data size: 100,1,28,28
I0428 19:59:32.029026 29260 net.cpp:124] Setting up mnist
I0428 19:59:32.029055 29260 net.cpp:131] Top shape: 100 1 28 28 (78400)
I0428 19:59:32.029062 29260 net.cpp:131] Top shape: 100 (100)
I0428 19:59:32.029064 29260 net.cpp:139] Memory required for data: 314000
I0428 19:59:32.029069 29260 layer_factory.hpp:77] Creating layer label_mnist_1_split
I0428 19:59:32.029096 29260 net.cpp:86] Creating Layer label_mnist_1_split
I0428 19:59:32.029100 29260 net.cpp:408] label_mnist_1_split <- label
I0428 19:59:32.029105 29260 net.cpp:382] label_mnist_1_split -> label_mnist_1_split_0
I0428 19:59:32.029112 29260 net.cpp:382] label_mnist_1_split -> label_mnist_1_split_1
I0428 19:59:32.029168 29260 net.cpp:124] Setting up label_mnist_1_split
I0428 19:59:32.029175 29260 net.cpp:131] Top shape: 100 (100)
I0428 19:59:32.029180 29260 net.cpp:131] Top shape: 100 (100)
I0428 19:59:32.029182 29260 net.cpp:139] Memory required for data: 314800
I0428 19:59:32.029186 29260 layer_factory.hpp:77] Creating layer conv0
I0428 19:59:32.029193 29260 net.cpp:86] Creating Layer conv0
I0428 19:59:32.029196 29260 net.cpp:408] conv0 <- data
I0428 19:59:32.029201 29260 net.cpp:382] conv0 -> conv0
I0428 19:59:32.030895 29260 net.cpp:124] Setting up conv0
I0428 19:59:32.030910 29260 net.cpp:131] Top shape: 100 10 24 24 (576000)
I0428 19:59:32.030915 29260 net.cpp:139] Memory required for data: 2618800
I0428 19:59:32.030922 29260 layer_factory.hpp:77] Creating layer pool0
I0428 19:59:32.030943 29260 net.cpp:86] Creating Layer pool0
I0428 19:59:32.030947 29260 net.cpp:408] pool0 <- conv0
I0428 19:59:32.030951 29260 net.cpp:382] pool0 -> pool0
I0428 19:59:32.030988 29260 net.cpp:124] Setting up pool0
I0428 19:59:32.030997 29260 net.cpp:131] Top shape: 100 10 12 12 (144000)
I0428 19:59:32.030999 29260 net.cpp:139] Memory required for data: 3194800
I0428 19:59:32.031002 29260 layer_factory.hpp:77] Creating layer conv1
I0428 19:59:32.031011 29260 net.cpp:86] Creating Layer conv1
I0428 19:59:32.031014 29260 net.cpp:408] conv1 <- pool0
I0428 19:59:32.031019 29260 net.cpp:382] conv1 -> conv1
I0428 19:59:32.033367 29260 net.cpp:124] Setting up conv1
I0428 19:59:32.033380 29260 net.cpp:131] Top shape: 100 10 8 8 (64000)
I0428 19:59:32.033383 29260 net.cpp:139] Memory required for data: 3450800
I0428 19:59:32.033391 29260 layer_factory.hpp:77] Creating layer pool1
I0428 19:59:32.033412 29260 net.cpp:86] Creating Layer pool1
I0428 19:59:32.033416 29260 net.cpp:408] pool1 <- conv1
I0428 19:59:32.033421 29260 net.cpp:382] pool1 -> pool1
I0428 19:59:32.033464 29260 net.cpp:124] Setting up pool1
I0428 19:59:32.033471 29260 net.cpp:131] Top shape: 100 10 4 4 (16000)
I0428 19:59:32.033473 29260 net.cpp:139] Memory required for data: 3514800
I0428 19:59:32.033476 29260 layer_factory.hpp:77] Creating layer ip1
I0428 19:59:32.033483 29260 net.cpp:86] Creating Layer ip1
I0428 19:59:32.033486 29260 net.cpp:408] ip1 <- pool1
I0428 19:59:32.033491 29260 net.cpp:382] ip1 -> ip1
I0428 19:59:32.033676 29260 net.cpp:124] Setting up ip1
I0428 19:59:32.033684 29260 net.cpp:131] Top shape: 100 50 (5000)
I0428 19:59:32.033697 29260 net.cpp:139] Memory required for data: 3534800
I0428 19:59:32.033704 29260 layer_factory.hpp:77] Creating layer relu1
I0428 19:59:32.033710 29260 net.cpp:86] Creating Layer relu1
I0428 19:59:32.033712 29260 net.cpp:408] relu1 <- ip1
I0428 19:59:32.033717 29260 net.cpp:369] relu1 -> ip1 (in-place)
I0428 19:59:32.033888 29260 net.cpp:124] Setting up relu1
I0428 19:59:32.033897 29260 net.cpp:131] Top shape: 100 50 (5000)
I0428 19:59:32.033900 29260 net.cpp:139] Memory required for data: 3554800
I0428 19:59:32.033903 29260 layer_factory.hpp:77] Creating layer ip2
I0428 19:59:32.033910 29260 net.cpp:86] Creating Layer ip2
I0428 19:59:32.033913 29260 net.cpp:408] ip2 <- ip1
I0428 19:59:32.033920 29260 net.cpp:382] ip2 -> ip2
I0428 19:59:32.034018 29260 net.cpp:124] Setting up ip2
I0428 19:59:32.034025 29260 net.cpp:131] Top shape: 100 10 (1000)
I0428 19:59:32.034035 29260 net.cpp:139] Memory required for data: 3558800
I0428 19:59:32.034040 29260 layer_factory.hpp:77] Creating layer relu2
I0428 19:59:32.034045 29260 net.cpp:86] Creating Layer relu2
I0428 19:59:32.034049 29260 net.cpp:408] relu2 <- ip2
I0428 19:59:32.034054 29260 net.cpp:369] relu2 -> ip2 (in-place)
I0428 19:59:32.034201 29260 net.cpp:124] Setting up relu2
I0428 19:59:32.034209 29260 net.cpp:131] Top shape: 100 10 (1000)
I0428 19:59:32.034211 29260 net.cpp:139] Memory required for data: 3562800
I0428 19:59:32.034214 29260 layer_factory.hpp:77] Creating layer ip3
I0428 19:59:32.034220 29260 net.cpp:86] Creating Layer ip3
I0428 19:59:32.034224 29260 net.cpp:408] ip3 <- ip2
I0428 19:59:32.034227 29260 net.cpp:382] ip3 -> ip3
I0428 19:59:32.034394 29260 net.cpp:124] Setting up ip3
I0428 19:59:32.034401 29260 net.cpp:131] Top shape: 100 10 (1000)
I0428 19:59:32.034404 29260 net.cpp:139] Memory required for data: 3566800
I0428 19:59:32.034411 29260 layer_factory.hpp:77] Creating layer relu3
I0428 19:59:32.034416 29260 net.cpp:86] Creating Layer relu3
I0428 19:59:32.034420 29260 net.cpp:408] relu3 <- ip3
I0428 19:59:32.034425 29260 net.cpp:369] relu3 -> ip3 (in-place)
I0428 19:59:32.035241 29260 net.cpp:124] Setting up relu3
I0428 19:59:32.035254 29260 net.cpp:131] Top shape: 100 10 (1000)
I0428 19:59:32.035264 29260 net.cpp:139] Memory required for data: 3570800
I0428 19:59:32.035269 29260 layer_factory.hpp:77] Creating layer ip3_relu3_0_split
I0428 19:59:32.035274 29260 net.cpp:86] Creating Layer ip3_relu3_0_split
I0428 19:59:32.035277 29260 net.cpp:408] ip3_relu3_0_split <- ip3
I0428 19:59:32.035281 29260 net.cpp:382] ip3_relu3_0_split -> ip3_relu3_0_split_0
I0428 19:59:32.035287 29260 net.cpp:382] ip3_relu3_0_split -> ip3_relu3_0_split_1
I0428 19:59:32.035327 29260 net.cpp:124] Setting up ip3_relu3_0_split
I0428 19:59:32.035333 29260 net.cpp:131] Top shape: 100 10 (1000)
I0428 19:59:32.035346 29260 net.cpp:131] Top shape: 100 10 (1000)
I0428 19:59:32.035349 29260 net.cpp:139] Memory required for data: 3578800
I0428 19:59:32.035357 29260 layer_factory.hpp:77] Creating layer accuracy
I0428 19:59:32.035362 29260 net.cpp:86] Creating Layer accuracy
I0428 19:59:32.035370 29260 net.cpp:408] accuracy <- ip3_relu3_0_split_0
I0428 19:59:32.035374 29260 net.cpp:408] accuracy <- label_mnist_1_split_0
I0428 19:59:32.035379 29260 net.cpp:382] accuracy -> accuracy
…
