…
I0428 19:40:37.901851 24595 net.cpp:296] The NetState phase (0) differed from the phase (1) specified by a rule in layer mnist
I0428 19:40:37.901883 24595 net.cpp:296] The NetState phase (0) differed from the phase (1) specified by a rule in layer accuracy
I0428 19:40:37.901964 24595 net.cpp:53] Initializing net from parameters: 
name: "LeNet"
state {
  phase: TRAIN
  level: 0
  stage: ""
}
layer {
  name: "mnist"
  type: "Data"
  top: "data"
  top: "label"
  include {
    phase: TRAIN
  }
  transform_param {
    scale: 0.00390625
  }
  data_param {
    source: "examples/mnist/mnist_train_lmdb"
    batch_size: 64
    backend: LMDB
  }
}
layer {
  name: "conv0"
  type: "Convolution"
  bottom: "data"
  top: "conv0"
  param {
    lr_mult: 1
  }
  param {
    lr_mult: 2
  }
  convolution_param {
    num_output: 2
    kernel_size: 5
    stride: 1
    weight_filler {
      type: "xavier"
    }
    bias_filler {
      type: "constant"
    }
  }
}
layer {
  name: "pool0"
  type: "Pooling"
  bottom: "conv0"
  top: "pool0"
  pooling_param {
    pool: MAX
    kernel_size: 2
    stride: 2
  }
}
layer {
  name: "conv1"
  type: "Convolution"
  bottom: "pool0"
  top: "conv1"
  param {
    lr_mult: 1
  }
  param {
    lr_mult: 2
  }
  convolution_param {
    num_output: 5
    kernel_size: 5
    stride: 1
    weight_filler {
      type: "xavier"
    }
    bias_filler {
      type: "constant"
    }
  }
}
layer {
  name: "pool1"
  type: "Pooling"
  bottom: "conv1"
  top: "pool1"
  pooling_param {
    pool: MAX
    kernel_size: 2
    stride: 2
  }
}
layer {
  name: "ip1"
  type: "InnerProduct"
  bottom: "pool1"
  top: "ip1"
  param {
    lr_mult: 1
  }
  param {
    lr_mult: 2
  }
  inner_product_param {
    num_output: 25
    weight_filler {
      type: "xavier"
    }
    bias_filler {
      type: "constant"
    }
  }
}
layer {
  name: "relu1"
  type: "ReLU"
  bottom: "ip1"
  top: "ip1"
}
layer {
  name: "ip2"
  type: "InnerProduct"
  bottom: "ip1"
  top: "ip2"
  param {
    lr_mult: 1
  }
  param {
    lr_mult: 2
  }
  inner_product_param {
    num_output: 50
    weight_filler {
      type: "xavier"
    }
    bias_filler {
      type: "constant"
    }
  }
}
layer {
  name: "relu2"
  type: "ReLU"
  bottom: "ip2"
  top: "ip2"
}
layer {
  name: "ip3"
  type: "InnerProduct"
  bottom: "ip2"
  top: "ip3"
  param {
    lr_mult: 1
  }
  param {
    lr_mult: 2
  }
  inner_product_param {
    num_output: 10
    weight_filler {
      type: "xavier"
    }
    bias_filler {
      type: "constant"
    }
  }
}
layer {
  name: "relu3"
  type: "ReLU"
  bottom: "ip3"
  top: "ip3"
}
layer {
  name: "loss"
  type: "SoftmaxWithLoss"
  bottom: "ip3"
  bottom: "label"
  top: "loss"
}
I0428 19:40:37.902029 24595 layer_factory.hpp:77] Creating layer mnist
I0428 19:40:37.902120 24595 db_lmdb.cpp:35] Opened lmdb examples/mnist/mnist_train_lmdb
I0428 19:40:37.902140 24595 net.cpp:86] Creating Layer mnist
I0428 19:40:37.902148 24595 net.cpp:382] mnist -> data
I0428 19:40:37.902165 24595 net.cpp:382] mnist -> label
I0428 19:40:37.903069 24595 data_layer.cpp:45] output data size: 64,1,28,28
I0428 19:40:37.905395 24595 net.cpp:124] Setting up mnist
I0428 19:40:37.905426 24595 net.cpp:131] Top shape: 64 1 28 28 (50176)
I0428 19:40:37.905433 24595 net.cpp:131] Top shape: 64 (64)
I0428 19:40:37.905436 24595 net.cpp:139] Memory required for data: 200960
I0428 19:40:37.905442 24595 layer_factory.hpp:77] Creating layer conv0
I0428 19:40:37.905455 24595 net.cpp:86] Creating Layer conv0
I0428 19:40:37.905488 24595 net.cpp:408] conv0 <- data
I0428 19:40:37.905503 24595 net.cpp:382] conv0 -> conv0
I0428 19:40:38.144845 24595 net.cpp:124] Setting up conv0
I0428 19:40:38.144892 24595 net.cpp:131] Top shape: 64 2 24 24 (73728)
I0428 19:40:38.144896 24595 net.cpp:139] Memory required for data: 495872
I0428 19:40:38.144928 24595 layer_factory.hpp:77] Creating layer pool0
I0428 19:40:38.144958 24595 net.cpp:86] Creating Layer pool0
I0428 19:40:38.144963 24595 net.cpp:408] pool0 <- conv0
I0428 19:40:38.144968 24595 net.cpp:382] pool0 -> pool0
I0428 19:40:38.145017 24595 net.cpp:124] Setting up pool0
I0428 19:40:38.145025 24595 net.cpp:131] Top shape: 64 2 12 12 (18432)
I0428 19:40:38.145028 24595 net.cpp:139] Memory required for data: 569600
I0428 19:40:38.145032 24595 layer_factory.hpp:77] Creating layer conv1
I0428 19:40:38.145043 24595 net.cpp:86] Creating Layer conv1
I0428 19:40:38.145046 24595 net.cpp:408] conv1 <- pool0
I0428 19:40:38.145051 24595 net.cpp:382] conv1 -> conv1
I0428 19:40:38.147097 24595 net.cpp:124] Setting up conv1
I0428 19:40:38.147111 24595 net.cpp:131] Top shape: 64 5 8 8 (20480)
I0428 19:40:38.147115 24595 net.cpp:139] Memory required for data: 651520
I0428 19:40:38.147125 24595 layer_factory.hpp:77] Creating layer pool1
I0428 19:40:38.147148 24595 net.cpp:86] Creating Layer pool1
I0428 19:40:38.147152 24595 net.cpp:408] pool1 <- conv1
I0428 19:40:38.147157 24595 net.cpp:382] pool1 -> pool1
I0428 19:40:38.147197 24595 net.cpp:124] Setting up pool1
I0428 19:40:38.147203 24595 net.cpp:131] Top shape: 64 5 4 4 (5120)
I0428 19:40:38.147207 24595 net.cpp:139] Memory required for data: 672000
I0428 19:40:38.147209 24595 layer_factory.hpp:77] Creating layer ip1
I0428 19:40:38.147217 24595 net.cpp:86] Creating Layer ip1
I0428 19:40:38.147219 24595 net.cpp:408] ip1 <- pool1
I0428 19:40:38.147224 24595 net.cpp:382] ip1 -> ip1
I0428 19:40:38.148248 24595 net.cpp:124] Setting up ip1
I0428 19:40:38.148273 24595 net.cpp:131] Top shape: 64 25 (1600)
I0428 19:40:38.148277 24595 net.cpp:139] Memory required for data: 678400
I0428 19:40:38.148286 24595 layer_factory.hpp:77] Creating layer relu1
I0428 19:40:38.148293 24595 net.cpp:86] Creating Layer relu1
I0428 19:40:38.148295 24595 net.cpp:408] relu1 <- ip1
I0428 19:40:38.148301 24595 net.cpp:369] relu1 -> ip1 (in-place)
I0428 19:40:38.148493 24595 net.cpp:124] Setting up relu1
I0428 19:40:38.148516 24595 net.cpp:131] Top shape: 64 25 (1600)
I0428 19:40:38.148519 24595 net.cpp:139] Memory required for data: 684800
I0428 19:40:38.148522 24595 layer_factory.hpp:77] Creating layer ip2
I0428 19:40:38.148530 24595 net.cpp:86] Creating Layer ip2
I0428 19:40:38.148532 24595 net.cpp:408] ip2 <- ip1
I0428 19:40:38.148537 24595 net.cpp:382] ip2 -> ip2
I0428 19:40:38.148643 24595 net.cpp:124] Setting up ip2
I0428 19:40:38.148649 24595 net.cpp:131] Top shape: 64 50 (3200)
I0428 19:40:38.148653 24595 net.cpp:139] Memory required for data: 697600
I0428 19:40:38.148658 24595 layer_factory.hpp:77] Creating layer relu2
I0428 19:40:38.148664 24595 net.cpp:86] Creating Layer relu2
I0428 19:40:38.148668 24595 net.cpp:408] relu2 <- ip2
I0428 19:40:38.148672 24595 net.cpp:369] relu2 -> ip2 (in-place)
I0428 19:40:38.149500 24595 net.cpp:124] Setting up relu2
I0428 19:40:38.149514 24595 net.cpp:131] Top shape: 64 50 (3200)
I0428 19:40:38.149519 24595 net.cpp:139] Memory required for data: 710400
I0428 19:40:38.149523 24595 layer_factory.hpp:77] Creating layer ip3
I0428 19:40:38.149530 24595 net.cpp:86] Creating Layer ip3
I0428 19:40:38.149534 24595 net.cpp:408] ip3 <- ip2
I0428 19:40:38.149540 24595 net.cpp:382] ip3 -> ip3
I0428 19:40:38.149688 24595 net.cpp:124] Setting up ip3
I0428 19:40:38.149694 24595 net.cpp:131] Top shape: 64 10 (640)
I0428 19:40:38.149698 24595 net.cpp:139] Memory required for data: 712960
I0428 19:40:38.149705 24595 layer_factory.hpp:77] Creating layer relu3
I0428 19:40:38.149711 24595 net.cpp:86] Creating Layer relu3
I0428 19:40:38.149714 24595 net.cpp:408] relu3 <- ip3
I0428 19:40:38.149718 24595 net.cpp:369] relu3 -> ip3 (in-place)
I0428 19:40:38.149888 24595 net.cpp:124] Setting up relu3
I0428 19:40:38.149897 24595 net.cpp:131] Top shape: 64 10 (640)
I0428 19:40:38.149900 24595 net.cpp:139] Memory required for data: 715520
I0428 19:40:38.149904 24595 layer_factory.hpp:77] Creating layer loss
I0428 19:40:38.149911 24595 net.cpp:86] Creating Layer loss
I0428 19:40:38.149914 24595 net.cpp:408] loss <- ip3
I0428 19:40:38.149917 24595 net.cpp:408] loss <- label
I0428 19:40:38.149924 24595 net.cpp:382] loss -> loss
I0428 19:40:38.149952 24595 layer_factory.hpp:77] Creating layer loss
…
I0428 19:40:38.150671 24595 solver.cpp:173] Creating test net (#0) specified by net file: ECE595/mnist/train_test/var_everything2/lenet_train_test340.prototxt
I0428 19:40:38.150727 24595 net.cpp:296] The NetState phase (1) differed from the phase (0) specified by a rule in layer mnist
I0428 19:40:38.150818 24595 net.cpp:53] Initializing net from parameters: 
name: "LeNet"
state {
  phase: TEST
}
layer {
  name: "mnist"
  type: "Data"
  top: "data"
  top: "label"
  include {
    phase: TEST
  }
  transform_param {
    scale: 0.00390625
  }
  data_param {
    source: "examples/mnist/mnist_test_lmdb"
    batch_size: 100
    backend: LMDB
  }
}
layer {
  name: "conv0"
  type: "Convolution"
  bottom: "data"
  top: "conv0"
  param {
    lr_mult: 1
  }
  param {
    lr_mult: 2
  }
  convolution_param {
    num_output: 2
    kernel_size: 5
    stride: 1
    weight_filler {
      type: "xavier"
    }
    bias_filler {
      type: "constant"
    }
  }
}
layer {
  name: "pool0"
  type: "Pooling"
  bottom: "conv0"
  top: "pool0"
  pooling_param {
    pool: MAX
    kernel_size: 2
    stride: 2
  }
}
layer {
  name: "conv1"
  type: "Convolution"
  bottom: "pool0"
  top: "conv1"
  param {
    lr_mult: 1
  }
  param {
    lr_mult: 2
  }
  convolution_param {
    num_output: 5
    kernel_size: 5
    stride: 1
    weight_filler {
      type: "xavier"
    }
    bias_filler {
      type: "constant"
    }
  }
}
layer {
  name: "pool1"
  type: "Pooling"
  bottom: "conv1"
  top: "pool1"
  pooling_param {
    pool: MAX
    kernel_size: 2
    stride: 2
  }
}
layer {
  name: "ip1"
  type: "InnerProduct"
  bottom: "pool1"
  top: "ip1"
  param {
    lr_mult: 1
  }
  param {
    lr_mult: 2
  }
  inner_product_param {
    num_output: 25
    weight_filler {
      type: "xavier"
    }
    bias_filler {
      type: "constant"
    }
  }
}
layer {
  name: "relu1"
  type: "ReLU"
  bottom: "ip1"
  top: "ip1"
}
layer {
  name: "ip2"
  type: "InnerProduct"
  bottom: "ip1"
  top: "ip2"
  param {
    lr_mult: 1
  }
  param {
    lr_mult: 2
  }
  inner_product_param {
    num_output: 50
    weight_filler {
      type: "xavier"
    }
    bias_filler {
      type: "constant"
    }
  }
}
layer {
  name: "relu2"
  type: "ReLU"
  bottom: "ip2"
  top: "ip2"
}
layer {
  name: "ip3"
  type: "InnerProduct"
  bottom: "ip2"
  top: "ip3"
  param {
    lr_mult: 1
  }
  param {
    lr_mult: 2
  }
  inner_product_param {
    num_output: 10
    weight_filler {
      type: "xavier"
    }
    bias_filler {
      type: "constant"
    }
  }
}
layer {
  name: "relu3"
  type: "ReLU"
  bottom: "ip3"
  top: "ip3"
}
layer {
  name: "accuracy"
  type: "Accuracy"
  bottom: "ip3"
  bottom: "label"
  top: "accuracy"
  include {
    phase: TEST
  }
}
layer {
  name: "loss"
  type: "SoftmaxWithLoss"
  bottom: "ip3"
  bottom: "label"
  top: "loss"
}
I0428 19:40:38.150897 24595 layer_factory.hpp:77] Creating layer mnist
I0428 19:40:38.150936 24595 db_lmdb.cpp:35] Opened lmdb examples/mnist/mnist_test_lmdb
I0428 19:40:38.150950 24595 net.cpp:86] Creating Layer mnist
I0428 19:40:38.150956 24595 net.cpp:382] mnist -> data
I0428 19:40:38.150964 24595 net.cpp:382] mnist -> label
I0428 19:40:38.151059 24595 data_layer.cpp:45] output data size: 100,1,28,28
I0428 19:40:38.153117 24595 net.cpp:124] Setting up mnist
I0428 19:40:38.153146 24595 net.cpp:131] Top shape: 100 1 28 28 (78400)
I0428 19:40:38.153151 24595 net.cpp:131] Top shape: 100 (100)
I0428 19:40:38.153154 24595 net.cpp:139] Memory required for data: 314000
I0428 19:40:38.153173 24595 layer_factory.hpp:77] Creating layer label_mnist_1_split
I0428 19:40:38.153180 24595 net.cpp:86] Creating Layer label_mnist_1_split
I0428 19:40:38.153183 24595 net.cpp:408] label_mnist_1_split <- label
I0428 19:40:38.153190 24595 net.cpp:382] label_mnist_1_split -> label_mnist_1_split_0
I0428 19:40:38.153197 24595 net.cpp:382] label_mnist_1_split -> label_mnist_1_split_1
I0428 19:40:38.153241 24595 net.cpp:124] Setting up label_mnist_1_split
I0428 19:40:38.153246 24595 net.cpp:131] Top shape: 100 (100)
I0428 19:40:38.153250 24595 net.cpp:131] Top shape: 100 (100)
I0428 19:40:38.153254 24595 net.cpp:139] Memory required for data: 314800
I0428 19:40:38.153256 24595 layer_factory.hpp:77] Creating layer conv0
I0428 19:40:38.153266 24595 net.cpp:86] Creating Layer conv0
I0428 19:40:38.153270 24595 net.cpp:408] conv0 <- data
I0428 19:40:38.153275 24595 net.cpp:382] conv0 -> conv0
I0428 19:40:38.154884 24595 net.cpp:124] Setting up conv0
I0428 19:40:38.154897 24595 net.cpp:131] Top shape: 100 2 24 24 (115200)
I0428 19:40:38.154901 24595 net.cpp:139] Memory required for data: 775600
I0428 19:40:38.154911 24595 layer_factory.hpp:77] Creating layer pool0
I0428 19:40:38.154918 24595 net.cpp:86] Creating Layer pool0
I0428 19:40:38.154922 24595 net.cpp:408] pool0 <- conv0
I0428 19:40:38.154927 24595 net.cpp:382] pool0 -> pool0
I0428 19:40:38.154978 24595 net.cpp:124] Setting up pool0
I0428 19:40:38.154986 24595 net.cpp:131] Top shape: 100 2 12 12 (28800)
I0428 19:40:38.154989 24595 net.cpp:139] Memory required for data: 890800
I0428 19:40:38.154992 24595 layer_factory.hpp:77] Creating layer conv1
I0428 19:40:38.155002 24595 net.cpp:86] Creating Layer conv1
I0428 19:40:38.155005 24595 net.cpp:408] conv1 <- pool0
I0428 19:40:38.155011 24595 net.cpp:382] conv1 -> conv1
I0428 19:40:38.156760 24595 net.cpp:124] Setting up conv1
I0428 19:40:38.156772 24595 net.cpp:131] Top shape: 100 5 8 8 (32000)
I0428 19:40:38.156776 24595 net.cpp:139] Memory required for data: 1018800
I0428 19:40:38.156785 24595 layer_factory.hpp:77] Creating layer pool1
I0428 19:40:38.156808 24595 net.cpp:86] Creating Layer pool1
I0428 19:40:38.156817 24595 net.cpp:408] pool1 <- conv1
I0428 19:40:38.156839 24595 net.cpp:382] pool1 -> pool1
I0428 19:40:38.156888 24595 net.cpp:124] Setting up pool1
I0428 19:40:38.156893 24595 net.cpp:131] Top shape: 100 5 4 4 (8000)
I0428 19:40:38.156896 24595 net.cpp:139] Memory required for data: 1050800
I0428 19:40:38.156899 24595 layer_factory.hpp:77] Creating layer ip1
I0428 19:40:38.156906 24595 net.cpp:86] Creating Layer ip1
I0428 19:40:38.156909 24595 net.cpp:408] ip1 <- pool1
I0428 19:40:38.156914 24595 net.cpp:382] ip1 -> ip1
I0428 19:40:38.157032 24595 net.cpp:124] Setting up ip1
I0428 19:40:38.157040 24595 net.cpp:131] Top shape: 100 25 (2500)
I0428 19:40:38.157059 24595 net.cpp:139] Memory required for data: 1060800
I0428 19:40:38.157068 24595 layer_factory.hpp:77] Creating layer relu1
I0428 19:40:38.157080 24595 net.cpp:86] Creating Layer relu1
I0428 19:40:38.157084 24595 net.cpp:408] relu1 <- ip1
I0428 19:40:38.157089 24595 net.cpp:369] relu1 -> ip1 (in-place)
I0428 19:40:38.157275 24595 net.cpp:124] Setting up relu1
I0428 19:40:38.157289 24595 net.cpp:131] Top shape: 100 25 (2500)
I0428 19:40:38.157291 24595 net.cpp:139] Memory required for data: 1070800
I0428 19:40:38.157295 24595 layer_factory.hpp:77] Creating layer ip2
I0428 19:40:38.157304 24595 net.cpp:86] Creating Layer ip2
I0428 19:40:38.157306 24595 net.cpp:408] ip2 <- ip1
I0428 19:40:38.157312 24595 net.cpp:382] ip2 -> ip2
I0428 19:40:38.157423 24595 net.cpp:124] Setting up ip2
I0428 19:40:38.157429 24595 net.cpp:131] Top shape: 100 50 (5000)
I0428 19:40:38.157433 24595 net.cpp:139] Memory required for data: 1090800
I0428 19:40:38.157438 24595 layer_factory.hpp:77] Creating layer relu2
I0428 19:40:38.157441 24595 net.cpp:86] Creating Layer relu2
I0428 19:40:38.157444 24595 net.cpp:408] relu2 <- ip2
I0428 19:40:38.157449 24595 net.cpp:369] relu2 -> ip2 (in-place)
I0428 19:40:38.157650 24595 net.cpp:124] Setting up relu2
I0428 19:40:38.157675 24595 net.cpp:131] Top shape: 100 50 (5000)
I0428 19:40:38.157678 24595 net.cpp:139] Memory required for data: 1110800
I0428 19:40:38.157681 24595 layer_factory.hpp:77] Creating layer ip3
I0428 19:40:38.157687 24595 net.cpp:86] Creating Layer ip3
I0428 19:40:38.157691 24595 net.cpp:408] ip3 <- ip2
I0428 19:40:38.157696 24595 net.cpp:382] ip3 -> ip3
I0428 19:40:38.157835 24595 net.cpp:124] Setting up ip3
I0428 19:40:38.157842 24595 net.cpp:131] Top shape: 100 10 (1000)
I0428 19:40:38.157845 24595 net.cpp:139] Memory required for data: 1114800
I0428 19:40:38.157855 24595 layer_factory.hpp:77] Creating layer relu3
I0428 19:40:38.157860 24595 net.cpp:86] Creating Layer relu3
I0428 19:40:38.157863 24595 net.cpp:408] relu3 <- ip3
I0428 19:40:38.157868 24595 net.cpp:369] relu3 -> ip3 (in-place)
I0428 19:40:38.158687 24595 net.cpp:124] Setting up relu3
I0428 19:40:38.158699 24595 net.cpp:131] Top shape: 100 10 (1000)
I0428 19:40:38.158717 24595 net.cpp:139] Memory required for data: 1118800
I0428 19:40:38.158721 24595 layer_factory.hpp:77] Creating layer ip3_relu3_0_split
I0428 19:40:38.158726 24595 net.cpp:86] Creating Layer ip3_relu3_0_split
I0428 19:40:38.158730 24595 net.cpp:408] ip3_relu3_0_split <- ip3
I0428 19:40:38.158748 24595 net.cpp:382] ip3_relu3_0_split -> ip3_relu3_0_split_0
I0428 19:40:38.158754 24595 net.cpp:382] ip3_relu3_0_split -> ip3_relu3_0_split_1
I0428 19:40:38.158833 24595 net.cpp:124] Setting up ip3_relu3_0_split
I0428 19:40:38.158840 24595 net.cpp:131] Top shape: 100 10 (1000)
I0428 19:40:38.158844 24595 net.cpp:131] Top shape: 100 10 (1000)
I0428 19:40:38.158846 24595 net.cpp:139] Memory required for data: 1126800
I0428 19:40:38.158849 24595 layer_factory.hpp:77] Creating layer accuracy
I0428 19:40:38.158860 24595 net.cpp:86] Creating Layer accuracy
I0428 19:40:38.158879 24595 net.cpp:408] accuracy <- ip3_relu3_0_split_0
I0428 19:40:38.158885 24595 net.cpp:408] accuracy <- label_mnist_1_split_0
I0428 19:40:38.158890 24595 net.cpp:382] accuracy -> accuracy
…
