…
I0428 19:27:59.516726 21502 net.cpp:296] The NetState phase (0) differed from the phase (1) specified by a rule in layer mnist
I0428 19:27:59.516743 21502 net.cpp:296] The NetState phase (0) differed from the phase (1) specified by a rule in layer accuracy
I0428 19:27:59.516824 21502 net.cpp:53] Initializing net from parameters: 
name: "LeNet"
state {
  phase: TRAIN
  level: 0
  stage: ""
}
layer {
  name: "mnist"
  type: "Data"
  top: "data"
  top: "label"
  include {
    phase: TRAIN
  }
  transform_param {
    scale: 0.00390625
  }
  data_param {
    source: "examples/mnist/mnist_train_lmdb"
    batch_size: 64
    backend: LMDB
  }
}
layer {
  name: "ip1"
  type: "InnerProduct"
  bottom: "data"
  top: "ip1"
  param {
    lr_mult: 1
  }
  param {
    lr_mult: 2
  }
  inner_product_param {
    num_output: 50
    weight_filler {
      type: "xavier"
    }
    bias_filler {
      type: "constant"
    }
  }
}
layer {
  name: "relu1"
  type: "ReLU"
  bottom: "ip1"
  top: "ip1"
}
layer {
  name: "ip2"
  type: "InnerProduct"
  bottom: "ip1"
  top: "ip2"
  param {
    lr_mult: 1
  }
  param {
    lr_mult: 2
  }
  inner_product_param {
    num_output: 10
    weight_filler {
      type: "xavier"
    }
    bias_filler {
      type: "constant"
    }
  }
}
layer {
  name: "relu2"
  type: "ReLU"
  bottom: "ip2"
  top: "ip2"
}
layer {
  name: "loss"
  type: "SoftmaxWithLoss"
  bottom: "ip2"
  bottom: "label"
  top: "loss"
}
I0428 19:27:59.516903 21502 layer_factory.hpp:77] Creating layer mnist
I0428 19:27:59.517038 21502 db_lmdb.cpp:35] Opened lmdb examples/mnist/mnist_train_lmdb
I0428 19:27:59.517071 21502 net.cpp:86] Creating Layer mnist
I0428 19:27:59.517084 21502 net.cpp:382] mnist -> data
I0428 19:27:59.517115 21502 net.cpp:382] mnist -> label
I0428 19:27:59.518246 21502 data_layer.cpp:45] output data size: 64,1,28,28
I0428 19:27:59.520716 21502 net.cpp:124] Setting up mnist
I0428 19:27:59.520736 21502 net.cpp:131] Top shape: 64 1 28 28 (50176)
I0428 19:27:59.520746 21502 net.cpp:131] Top shape: 64 (64)
I0428 19:27:59.520753 21502 net.cpp:139] Memory required for data: 200960
I0428 19:27:59.520763 21502 layer_factory.hpp:77] Creating layer ip1
I0428 19:27:59.520778 21502 net.cpp:86] Creating Layer ip1
I0428 19:27:59.520794 21502 net.cpp:408] ip1 <- data
I0428 19:27:59.520820 21502 net.cpp:382] ip1 -> ip1
I0428 19:27:59.521286 21502 net.cpp:124] Setting up ip1
I0428 19:27:59.521298 21502 net.cpp:131] Top shape: 64 50 (3200)
I0428 19:27:59.521306 21502 net.cpp:139] Memory required for data: 213760
I0428 19:27:59.521325 21502 layer_factory.hpp:77] Creating layer relu1
I0428 19:27:59.521342 21502 net.cpp:86] Creating Layer relu1
I0428 19:27:59.521351 21502 net.cpp:408] relu1 <- ip1
I0428 19:27:59.521360 21502 net.cpp:369] relu1 -> ip1 (in-place)
I0428 19:27:59.795115 21502 net.cpp:124] Setting up relu1
I0428 19:27:59.795145 21502 net.cpp:131] Top shape: 64 50 (3200)
I0428 19:27:59.795150 21502 net.cpp:139] Memory required for data: 226560
I0428 19:27:59.795157 21502 layer_factory.hpp:77] Creating layer ip2
I0428 19:27:59.795173 21502 net.cpp:86] Creating Layer ip2
I0428 19:27:59.795181 21502 net.cpp:408] ip2 <- ip1
I0428 19:27:59.795192 21502 net.cpp:382] ip2 -> ip2
I0428 19:27:59.796152 21502 net.cpp:124] Setting up ip2
I0428 19:27:59.796183 21502 net.cpp:131] Top shape: 64 10 (640)
I0428 19:27:59.796202 21502 net.cpp:139] Memory required for data: 229120
I0428 19:27:59.796233 21502 layer_factory.hpp:77] Creating layer relu2
I0428 19:27:59.796264 21502 net.cpp:86] Creating Layer relu2
I0428 19:27:59.796288 21502 net.cpp:408] relu2 <- ip2
I0428 19:27:59.796296 21502 net.cpp:369] relu2 -> ip2 (in-place)
I0428 19:27:59.797122 21502 net.cpp:124] Setting up relu2
I0428 19:27:59.797139 21502 net.cpp:131] Top shape: 64 10 (640)
I0428 19:27:59.797145 21502 net.cpp:139] Memory required for data: 231680
I0428 19:27:59.797152 21502 layer_factory.hpp:77] Creating layer loss
I0428 19:27:59.797166 21502 net.cpp:86] Creating Layer loss
I0428 19:27:59.797178 21502 net.cpp:408] loss <- ip2
I0428 19:27:59.797186 21502 net.cpp:408] loss <- label
I0428 19:27:59.797196 21502 net.cpp:382] loss -> loss
I0428 19:27:59.797221 21502 layer_factory.hpp:77] Creating layer loss
…
I0428 19:27:59.797762 21502 solver.cpp:173] Creating test net (#0) specified by net file: ECE595/mnist/train_test/var_everything2/lenet_train_test10.prototxt
I0428 19:27:59.797788 21502 net.cpp:296] The NetState phase (1) differed from the phase (0) specified by a rule in layer mnist
I0428 19:27:59.797852 21502 net.cpp:53] Initializing net from parameters: 
name: "LeNet"
state {
  phase: TEST
}
layer {
  name: "mnist"
  type: "Data"
  top: "data"
  top: "label"
  include {
    phase: TEST
  }
  transform_param {
    scale: 0.00390625
  }
  data_param {
    source: "examples/mnist/mnist_test_lmdb"
    batch_size: 100
    backend: LMDB
  }
}
layer {
  name: "ip1"
  type: "InnerProduct"
  bottom: "data"
  top: "ip1"
  param {
    lr_mult: 1
  }
  param {
    lr_mult: 2
  }
  inner_product_param {
    num_output: 50
    weight_filler {
      type: "xavier"
    }
    bias_filler {
      type: "constant"
    }
  }
}
layer {
  name: "relu1"
  type: "ReLU"
  bottom: "ip1"
  top: "ip1"
}
layer {
  name: "ip2"
  type: "InnerProduct"
  bottom: "ip1"
  top: "ip2"
  param {
    lr_mult: 1
  }
  param {
    lr_mult: 2
  }
  inner_product_param {
    num_output: 10
    weight_filler {
      type: "xavier"
    }
    bias_filler {
      type: "constant"
    }
  }
}
layer {
  name: "relu2"
  type: "ReLU"
  bottom: "ip2"
  top: "ip2"
}
layer {
  name: "accuracy"
  type: "Accuracy"
  bottom: "ip2"
  bottom: "label"
  top: "accuracy"
  include {
    phase: TEST
  }
}
layer {
  name: "loss"
  type: "SoftmaxWithLoss"
  bottom: "ip2"
  bottom: "label"
  top: "loss"
}
I0428 19:27:59.797943 21502 layer_factory.hpp:77] Creating layer mnist
I0428 19:27:59.798003 21502 db_lmdb.cpp:35] Opened lmdb examples/mnist/mnist_test_lmdb
I0428 19:27:59.798027 21502 net.cpp:86] Creating Layer mnist
I0428 19:27:59.798034 21502 net.cpp:382] mnist -> data
I0428 19:27:59.798046 21502 net.cpp:382] mnist -> label
I0428 19:27:59.798185 21502 data_layer.cpp:45] output data size: 100,1,28,28
I0428 19:27:59.800092 21502 net.cpp:124] Setting up mnist
I0428 19:27:59.800122 21502 net.cpp:131] Top shape: 100 1 28 28 (78400)
I0428 19:27:59.800130 21502 net.cpp:131] Top shape: 100 (100)
I0428 19:27:59.800135 21502 net.cpp:139] Memory required for data: 314000
I0428 19:27:59.800142 21502 layer_factory.hpp:77] Creating layer label_mnist_1_split
I0428 19:27:59.800155 21502 net.cpp:86] Creating Layer label_mnist_1_split
I0428 19:27:59.800163 21502 net.cpp:408] label_mnist_1_split <- label
I0428 19:27:59.800170 21502 net.cpp:382] label_mnist_1_split -> label_mnist_1_split_0
I0428 19:27:59.800191 21502 net.cpp:382] label_mnist_1_split -> label_mnist_1_split_1
I0428 19:27:59.800302 21502 net.cpp:124] Setting up label_mnist_1_split
I0428 19:27:59.800312 21502 net.cpp:131] Top shape: 100 (100)
I0428 19:27:59.800318 21502 net.cpp:131] Top shape: 100 (100)
I0428 19:27:59.800323 21502 net.cpp:139] Memory required for data: 314800
I0428 19:27:59.800329 21502 layer_factory.hpp:77] Creating layer ip1
I0428 19:27:59.800341 21502 net.cpp:86] Creating Layer ip1
I0428 19:27:59.800348 21502 net.cpp:408] ip1 <- data
I0428 19:27:59.800356 21502 net.cpp:382] ip1 -> ip1
I0428 19:27:59.800760 21502 net.cpp:124] Setting up ip1
I0428 19:27:59.800770 21502 net.cpp:131] Top shape: 100 50 (5000)
I0428 19:27:59.800775 21502 net.cpp:139] Memory required for data: 334800
I0428 19:27:59.800788 21502 layer_factory.hpp:77] Creating layer relu1
I0428 19:27:59.800797 21502 net.cpp:86] Creating Layer relu1
I0428 19:27:59.800806 21502 net.cpp:408] relu1 <- ip1
I0428 19:27:59.800834 21502 net.cpp:369] relu1 -> ip1 (in-place)
I0428 19:27:59.801048 21502 net.cpp:124] Setting up relu1
I0428 19:27:59.801060 21502 net.cpp:131] Top shape: 100 50 (5000)
I0428 19:27:59.801065 21502 net.cpp:139] Memory required for data: 354800
I0428 19:27:59.801071 21502 layer_factory.hpp:77] Creating layer ip2
I0428 19:27:59.801084 21502 net.cpp:86] Creating Layer ip2
I0428 19:27:59.801090 21502 net.cpp:408] ip2 <- ip1
I0428 19:27:59.801098 21502 net.cpp:382] ip2 -> ip2
I0428 19:27:59.801230 21502 net.cpp:124] Setting up ip2
I0428 19:27:59.801254 21502 net.cpp:131] Top shape: 100 10 (1000)
I0428 19:27:59.801259 21502 net.cpp:139] Memory required for data: 358800
I0428 19:27:59.801270 21502 layer_factory.hpp:77] Creating layer relu2
I0428 19:27:59.801277 21502 net.cpp:86] Creating Layer relu2
I0428 19:27:59.801283 21502 net.cpp:408] relu2 <- ip2
I0428 19:27:59.801290 21502 net.cpp:369] relu2 -> ip2 (in-place)
I0428 19:27:59.802197 21502 net.cpp:124] Setting up relu2
I0428 19:27:59.802211 21502 net.cpp:131] Top shape: 100 10 (1000)
I0428 19:27:59.802217 21502 net.cpp:139] Memory required for data: 362800
I0428 19:27:59.802222 21502 layer_factory.hpp:77] Creating layer ip2_relu2_0_split
I0428 19:27:59.802230 21502 net.cpp:86] Creating Layer ip2_relu2_0_split
I0428 19:27:59.802251 21502 net.cpp:408] ip2_relu2_0_split <- ip2
I0428 19:27:59.802261 21502 net.cpp:382] ip2_relu2_0_split -> ip2_relu2_0_split_0
I0428 19:27:59.802271 21502 net.cpp:382] ip2_relu2_0_split -> ip2_relu2_0_split_1
I0428 19:27:59.802317 21502 net.cpp:124] Setting up ip2_relu2_0_split
I0428 19:27:59.802326 21502 net.cpp:131] Top shape: 100 10 (1000)
I0428 19:27:59.802333 21502 net.cpp:131] Top shape: 100 10 (1000)
I0428 19:27:59.802340 21502 net.cpp:139] Memory required for data: 370800
I0428 19:27:59.802345 21502 layer_factory.hpp:77] Creating layer accuracy
I0428 19:27:59.802353 21502 net.cpp:86] Creating Layer accuracy
I0428 19:27:59.802359 21502 net.cpp:408] accuracy <- ip2_relu2_0_split_0
I0428 19:27:59.802367 21502 net.cpp:408] accuracy <- label_mnist_1_split_0
I0428 19:27:59.802376 21502 net.cpp:382] accuracy -> accuracy
…
