…
I0428 20:14:42.002221 32729 net.cpp:296] The NetState phase (0) differed from the phase (1) specified by a rule in layer mnist
I0428 20:14:42.002236 32729 net.cpp:296] The NetState phase (0) differed from the phase (1) specified by a rule in layer accuracy
I0428 20:14:42.002357 32729 net.cpp:53] Initializing net from parameters: 
name: "LeNet"
state {
  phase: TRAIN
  level: 0
  stage: ""
}
layer {
  name: "mnist"
  type: "Data"
  top: "data"
  top: "label"
  include {
    phase: TRAIN
  }
  transform_param {
    scale: 0.00390625
  }
  data_param {
    source: "examples/mnist/mnist_train_lmdb"
    batch_size: 64
    backend: LMDB
  }
}
layer {
  name: "conv0"
  type: "Convolution"
  bottom: "data"
  top: "conv0"
  param {
    lr_mult: 1
  }
  param {
    lr_mult: 2
  }
  convolution_param {
    num_output: 50
    kernel_size: 5
    stride: 1
    weight_filler {
      type: "xavier"
    }
    bias_filler {
      type: "constant"
    }
  }
}
layer {
  name: "pool0"
  type: "Pooling"
  bottom: "conv0"
  top: "pool0"
  pooling_param {
    pool: MAX
    kernel_size: 2
    stride: 2
  }
}
layer {
  name: "conv1"
  type: "Convolution"
  bottom: "pool0"
  top: "conv1"
  param {
    lr_mult: 1
  }
  param {
    lr_mult: 2
  }
  convolution_param {
    num_output: 2
    kernel_size: 5
    stride: 1
    weight_filler {
      type: "xavier"
    }
    bias_filler {
      type: "constant"
    }
  }
}
layer {
  name: "pool1"
  type: "Pooling"
  bottom: "conv1"
  top: "pool1"
  pooling_param {
    pool: MAX
    kernel_size: 2
    stride: 2
  }
}
layer {
  name: "ip1"
  type: "InnerProduct"
  bottom: "pool1"
  top: "ip1"
  param {
    lr_mult: 1
  }
  param {
    lr_mult: 2
  }
  inner_product_param {
    num_output: 10
    weight_filler {
      type: "xavier"
    }
    bias_filler {
      type: "constant"
    }
  }
}
layer {
  name: "relu1"
  type: "ReLU"
  bottom: "ip1"
  top: "ip1"
}
layer {
  name: "ip2"
  type: "InnerProduct"
  bottom: "ip1"
  top: "ip2"
  param {
    lr_mult: 1
  }
  param {
    lr_mult: 2
  }
  inner_product_param {
    num_output: 50
    weight_filler {
      type: "xavier"
    }
    bias_filler {
      type: "constant"
    }
  }
}
layer {
  name: "relu2"
  type: "ReLU"
  bottom: "ip2"
  top: "ip2"
}
layer {
  name: "ip3"
  type: "InnerProduct"
  bottom: "ip2"
  top: "ip3"
  param {
    lr_mult: 1
  }
  param {
    lr_mult: 2
  }
  inner_product_param {
    num_output: 10
    weight_filler {
      type: "xavier"
    }
    bias_filler {
      type: "constant"
    }
  }
}
layer {
  name: "relu3"
  type: "ReLU"
  bottom: "ip3"
  top: "ip3"
}
layer {
  name: "loss"
  type: "SoftmaxWithLoss"
  bottom: "ip3"
  bottom: "label"
  top: "loss"
}
I0428 20:14:42.002425 32729 layer_factory.hpp:77] Creating layer mnist
I0428 20:14:42.002508 32729 db_lmdb.cpp:35] Opened lmdb examples/mnist/mnist_train_lmdb
I0428 20:14:42.002529 32729 net.cpp:86] Creating Layer mnist
I0428 20:14:42.002535 32729 net.cpp:382] mnist -> data
I0428 20:14:42.002557 32729 net.cpp:382] mnist -> label
I0428 20:14:42.003522 32729 data_layer.cpp:45] output data size: 64,1,28,28
I0428 20:14:42.005707 32729 net.cpp:124] Setting up mnist
I0428 20:14:42.005754 32729 net.cpp:131] Top shape: 64 1 28 28 (50176)
I0428 20:14:42.005759 32729 net.cpp:131] Top shape: 64 (64)
I0428 20:14:42.005762 32729 net.cpp:139] Memory required for data: 200960
I0428 20:14:42.005769 32729 layer_factory.hpp:77] Creating layer conv0
I0428 20:14:42.005784 32729 net.cpp:86] Creating Layer conv0
I0428 20:14:42.005802 32729 net.cpp:408] conv0 <- data
I0428 20:14:42.005812 32729 net.cpp:382] conv0 -> conv0
I0428 20:14:42.241422 32729 net.cpp:124] Setting up conv0
I0428 20:14:42.241461 32729 net.cpp:131] Top shape: 64 50 24 24 (1843200)
I0428 20:14:42.241466 32729 net.cpp:139] Memory required for data: 7573760
I0428 20:14:42.241480 32729 layer_factory.hpp:77] Creating layer pool0
I0428 20:14:42.241493 32729 net.cpp:86] Creating Layer pool0
I0428 20:14:42.241497 32729 net.cpp:408] pool0 <- conv0
I0428 20:14:42.241503 32729 net.cpp:382] pool0 -> pool0
I0428 20:14:42.241565 32729 net.cpp:124] Setting up pool0
I0428 20:14:42.241572 32729 net.cpp:131] Top shape: 64 50 12 12 (460800)
I0428 20:14:42.241575 32729 net.cpp:139] Memory required for data: 9416960
I0428 20:14:42.241578 32729 layer_factory.hpp:77] Creating layer conv1
I0428 20:14:42.241590 32729 net.cpp:86] Creating Layer conv1
I0428 20:14:42.241595 32729 net.cpp:408] conv1 <- pool0
I0428 20:14:42.241614 32729 net.cpp:382] conv1 -> conv1
I0428 20:14:42.243676 32729 net.cpp:124] Setting up conv1
I0428 20:14:42.243706 32729 net.cpp:131] Top shape: 64 2 8 8 (8192)
I0428 20:14:42.243710 32729 net.cpp:139] Memory required for data: 9449728
I0428 20:14:42.243733 32729 layer_factory.hpp:77] Creating layer pool1
I0428 20:14:42.243741 32729 net.cpp:86] Creating Layer pool1
I0428 20:14:42.243752 32729 net.cpp:408] pool1 <- conv1
I0428 20:14:42.243772 32729 net.cpp:382] pool1 -> pool1
I0428 20:14:42.243836 32729 net.cpp:124] Setting up pool1
I0428 20:14:42.243841 32729 net.cpp:131] Top shape: 64 2 4 4 (2048)
I0428 20:14:42.243844 32729 net.cpp:139] Memory required for data: 9457920
I0428 20:14:42.243847 32729 layer_factory.hpp:77] Creating layer ip1
I0428 20:14:42.243860 32729 net.cpp:86] Creating Layer ip1
I0428 20:14:42.243862 32729 net.cpp:408] ip1 <- pool1
I0428 20:14:42.243867 32729 net.cpp:382] ip1 -> ip1
I0428 20:14:42.243959 32729 net.cpp:124] Setting up ip1
I0428 20:14:42.243966 32729 net.cpp:131] Top shape: 64 10 (640)
I0428 20:14:42.243969 32729 net.cpp:139] Memory required for data: 9460480
I0428 20:14:42.243976 32729 layer_factory.hpp:77] Creating layer relu1
I0428 20:14:42.243983 32729 net.cpp:86] Creating Layer relu1
I0428 20:14:42.243985 32729 net.cpp:408] relu1 <- ip1
I0428 20:14:42.243989 32729 net.cpp:369] relu1 -> ip1 (in-place)
I0428 20:14:42.244174 32729 net.cpp:124] Setting up relu1
I0428 20:14:42.244184 32729 net.cpp:131] Top shape: 64 10 (640)
I0428 20:14:42.244186 32729 net.cpp:139] Memory required for data: 9463040
I0428 20:14:42.244189 32729 layer_factory.hpp:77] Creating layer ip2
I0428 20:14:42.244196 32729 net.cpp:86] Creating Layer ip2
I0428 20:14:42.244200 32729 net.cpp:408] ip2 <- ip1
I0428 20:14:42.244204 32729 net.cpp:382] ip2 -> ip2
I0428 20:14:42.244302 32729 net.cpp:124] Setting up ip2
I0428 20:14:42.244309 32729 net.cpp:131] Top shape: 64 50 (3200)
I0428 20:14:42.244313 32729 net.cpp:139] Memory required for data: 9475840
I0428 20:14:42.244318 32729 layer_factory.hpp:77] Creating layer relu2
I0428 20:14:42.244323 32729 net.cpp:86] Creating Layer relu2
I0428 20:14:42.244326 32729 net.cpp:408] relu2 <- ip2
I0428 20:14:42.244331 32729 net.cpp:369] relu2 -> ip2 (in-place)
I0428 20:14:42.245172 32729 net.cpp:124] Setting up relu2
I0428 20:14:42.245184 32729 net.cpp:131] Top shape: 64 50 (3200)
I0428 20:14:42.245203 32729 net.cpp:139] Memory required for data: 9488640
I0428 20:14:42.245208 32729 layer_factory.hpp:77] Creating layer ip3
I0428 20:14:42.245215 32729 net.cpp:86] Creating Layer ip3
I0428 20:14:42.245218 32729 net.cpp:408] ip3 <- ip2
I0428 20:14:42.245223 32729 net.cpp:382] ip3 -> ip3
I0428 20:14:42.245326 32729 net.cpp:124] Setting up ip3
I0428 20:14:42.245334 32729 net.cpp:131] Top shape: 64 10 (640)
I0428 20:14:42.245337 32729 net.cpp:139] Memory required for data: 9491200
I0428 20:14:42.245344 32729 layer_factory.hpp:77] Creating layer relu3
I0428 20:14:42.245350 32729 net.cpp:86] Creating Layer relu3
I0428 20:14:42.245353 32729 net.cpp:408] relu3 <- ip3
I0428 20:14:42.245357 32729 net.cpp:369] relu3 -> ip3 (in-place)
I0428 20:14:42.245550 32729 net.cpp:124] Setting up relu3
I0428 20:14:42.245559 32729 net.cpp:131] Top shape: 64 10 (640)
I0428 20:14:42.245563 32729 net.cpp:139] Memory required for data: 9493760
I0428 20:14:42.245565 32729 layer_factory.hpp:77] Creating layer loss
I0428 20:14:42.245571 32729 net.cpp:86] Creating Layer loss
I0428 20:14:42.245575 32729 net.cpp:408] loss <- ip3
I0428 20:14:42.245579 32729 net.cpp:408] loss <- label
I0428 20:14:42.245584 32729 net.cpp:382] loss -> loss
I0428 20:14:42.245601 32729 layer_factory.hpp:77] Creating layer loss
…
I0428 20:14:42.246202 32729 solver.cpp:173] Creating test net (#0) specified by net file: ECE595/mnist/train_test/var_everything2/lenet_train_test1228.prototxt
I0428 20:14:42.246227 32729 net.cpp:296] The NetState phase (1) differed from the phase (0) specified by a rule in layer mnist
I0428 20:14:42.246331 32729 net.cpp:53] Initializing net from parameters: 
name: "LeNet"
state {
  phase: TEST
}
layer {
  name: "mnist"
  type: "Data"
  top: "data"
  top: "label"
  include {
    phase: TEST
  }
  transform_param {
    scale: 0.00390625
  }
  data_param {
    source: "examples/mnist/mnist_test_lmdb"
    batch_size: 100
    backend: LMDB
  }
}
layer {
  name: "conv0"
  type: "Convolution"
  bottom: "data"
  top: "conv0"
  param {
    lr_mult: 1
  }
  param {
    lr_mult: 2
  }
  convolution_param {
    num_output: 50
    kernel_size: 5
    stride: 1
    weight_filler {
      type: "xavier"
    }
    bias_filler {
      type: "constant"
    }
  }
}
layer {
  name: "pool0"
  type: "Pooling"
  bottom: "conv0"
  top: "pool0"
  pooling_param {
    pool: MAX
    kernel_size: 2
    stride: 2
  }
}
layer {
  name: "conv1"
  type: "Convolution"
  bottom: "pool0"
  top: "conv1"
  param {
    lr_mult: 1
  }
  param {
    lr_mult: 2
  }
  convolution_param {
    num_output: 2
    kernel_size: 5
    stride: 1
    weight_filler {
      type: "xavier"
    }
    bias_filler {
      type: "constant"
    }
  }
}
layer {
  name: "pool1"
  type: "Pooling"
  bottom: "conv1"
  top: "pool1"
  pooling_param {
    pool: MAX
    kernel_size: 2
    stride: 2
  }
}
layer {
  name: "ip1"
  type: "InnerProduct"
  bottom: "pool1"
  top: "ip1"
  param {
    lr_mult: 1
  }
  param {
    lr_mult: 2
  }
  inner_product_param {
    num_output: 10
    weight_filler {
      type: "xavier"
    }
    bias_filler {
      type: "constant"
    }
  }
}
layer {
  name: "relu1"
  type: "ReLU"
  bottom: "ip1"
  top: "ip1"
}
layer {
  name: "ip2"
  type: "InnerProduct"
  bottom: "ip1"
  top: "ip2"
  param {
    lr_mult: 1
  }
  param {
    lr_mult: 2
  }
  inner_product_param {
    num_output: 50
    weight_filler {
      type: "xavier"
    }
    bias_filler {
      type: "constant"
    }
  }
}
layer {
  name: "relu2"
  type: "ReLU"
  bottom: "ip2"
  top: "ip2"
}
layer {
  name: "ip3"
  type: "InnerProduct"
  bottom: "ip2"
  top: "ip3"
  param {
    lr_mult: 1
  }
  param {
    lr_mult: 2
  }
  inner_product_param {
    num_output: 10
    weight_filler {
      type: "xavier"
    }
    bias_filler {
      type: "constant"
    }
  }
}
layer {
  name: "relu3"
  type: "ReLU"
  bottom: "ip3"
  top: "ip3"
}
layer {
  name: "accuracy"
  type: "Accuracy"
  bottom: "ip3"
  bottom: "label"
  top: "accuracy"
  include {
    phase: TEST
  }
}
layer {
  name: "loss"
  type: "SoftmaxWithLoss"
  bottom: "ip3"
  bottom: "label"
  top: "loss"
}
I0428 20:14:42.246412 32729 layer_factory.hpp:77] Creating layer mnist
I0428 20:14:42.246454 32729 db_lmdb.cpp:35] Opened lmdb examples/mnist/mnist_test_lmdb
I0428 20:14:42.246466 32729 net.cpp:86] Creating Layer mnist
I0428 20:14:42.246472 32729 net.cpp:382] mnist -> data
I0428 20:14:42.246480 32729 net.cpp:382] mnist -> label
I0428 20:14:42.246580 32729 data_layer.cpp:45] output data size: 100,1,28,28
I0428 20:14:42.248630 32729 net.cpp:124] Setting up mnist
I0428 20:14:42.248642 32729 net.cpp:131] Top shape: 100 1 28 28 (78400)
I0428 20:14:42.248647 32729 net.cpp:131] Top shape: 100 (100)
I0428 20:14:42.248651 32729 net.cpp:139] Memory required for data: 314000
I0428 20:14:42.248653 32729 layer_factory.hpp:77] Creating layer label_mnist_1_split
I0428 20:14:42.248692 32729 net.cpp:86] Creating Layer label_mnist_1_split
I0428 20:14:42.248695 32729 net.cpp:408] label_mnist_1_split <- label
I0428 20:14:42.248716 32729 net.cpp:382] label_mnist_1_split -> label_mnist_1_split_0
I0428 20:14:42.248723 32729 net.cpp:382] label_mnist_1_split -> label_mnist_1_split_1
I0428 20:14:42.248764 32729 net.cpp:124] Setting up label_mnist_1_split
I0428 20:14:42.248769 32729 net.cpp:131] Top shape: 100 (100)
I0428 20:14:42.248773 32729 net.cpp:131] Top shape: 100 (100)
I0428 20:14:42.248775 32729 net.cpp:139] Memory required for data: 314800
I0428 20:14:42.248778 32729 layer_factory.hpp:77] Creating layer conv0
I0428 20:14:42.248788 32729 net.cpp:86] Creating Layer conv0
I0428 20:14:42.248791 32729 net.cpp:408] conv0 <- data
I0428 20:14:42.248796 32729 net.cpp:382] conv0 -> conv0
I0428 20:14:42.250663 32729 net.cpp:124] Setting up conv0
I0428 20:14:42.250677 32729 net.cpp:131] Top shape: 100 50 24 24 (2880000)
I0428 20:14:42.250680 32729 net.cpp:139] Memory required for data: 11834800
I0428 20:14:42.250705 32729 layer_factory.hpp:77] Creating layer pool0
I0428 20:14:42.250713 32729 net.cpp:86] Creating Layer pool0
I0428 20:14:42.250716 32729 net.cpp:408] pool0 <- conv0
I0428 20:14:42.250720 32729 net.cpp:382] pool0 -> pool0
I0428 20:14:42.250756 32729 net.cpp:124] Setting up pool0
I0428 20:14:42.250761 32729 net.cpp:131] Top shape: 100 50 12 12 (720000)
I0428 20:14:42.250763 32729 net.cpp:139] Memory required for data: 14714800
I0428 20:14:42.250766 32729 layer_factory.hpp:77] Creating layer conv1
I0428 20:14:42.250775 32729 net.cpp:86] Creating Layer conv1
I0428 20:14:42.250778 32729 net.cpp:408] conv1 <- pool0
I0428 20:14:42.250784 32729 net.cpp:382] conv1 -> conv1
I0428 20:14:42.252375 32729 net.cpp:124] Setting up conv1
I0428 20:14:42.252388 32729 net.cpp:131] Top shape: 100 2 8 8 (12800)
I0428 20:14:42.252391 32729 net.cpp:139] Memory required for data: 14766000
I0428 20:14:42.252405 32729 layer_factory.hpp:77] Creating layer pool1
I0428 20:14:42.252419 32729 net.cpp:86] Creating Layer pool1
I0428 20:14:42.252423 32729 net.cpp:408] pool1 <- conv1
I0428 20:14:42.252426 32729 net.cpp:382] pool1 -> pool1
I0428 20:14:42.252462 32729 net.cpp:124] Setting up pool1
I0428 20:14:42.252467 32729 net.cpp:131] Top shape: 100 2 4 4 (3200)
I0428 20:14:42.252470 32729 net.cpp:139] Memory required for data: 14778800
I0428 20:14:42.252475 32729 layer_factory.hpp:77] Creating layer ip1
I0428 20:14:42.252480 32729 net.cpp:86] Creating Layer ip1
I0428 20:14:42.252483 32729 net.cpp:408] ip1 <- pool1
I0428 20:14:42.252488 32729 net.cpp:382] ip1 -> ip1
I0428 20:14:42.252610 32729 net.cpp:124] Setting up ip1
I0428 20:14:42.252619 32729 net.cpp:131] Top shape: 100 10 (1000)
I0428 20:14:42.252638 32729 net.cpp:139] Memory required for data: 14782800
I0428 20:14:42.252646 32729 layer_factory.hpp:77] Creating layer relu1
I0428 20:14:42.252658 32729 net.cpp:86] Creating Layer relu1
I0428 20:14:42.252661 32729 net.cpp:408] relu1 <- ip1
I0428 20:14:42.252665 32729 net.cpp:369] relu1 -> ip1 (in-place)
I0428 20:14:42.252861 32729 net.cpp:124] Setting up relu1
I0428 20:14:42.252871 32729 net.cpp:131] Top shape: 100 10 (1000)
I0428 20:14:42.252874 32729 net.cpp:139] Memory required for data: 14786800
I0428 20:14:42.252878 32729 layer_factory.hpp:77] Creating layer ip2
I0428 20:14:42.252887 32729 net.cpp:86] Creating Layer ip2
I0428 20:14:42.252890 32729 net.cpp:408] ip2 <- ip1
I0428 20:14:42.252904 32729 net.cpp:382] ip2 -> ip2
I0428 20:14:42.253036 32729 net.cpp:124] Setting up ip2
I0428 20:14:42.253044 32729 net.cpp:131] Top shape: 100 50 (5000)
I0428 20:14:42.253046 32729 net.cpp:139] Memory required for data: 14806800
I0428 20:14:42.253067 32729 layer_factory.hpp:77] Creating layer relu2
I0428 20:14:42.253072 32729 net.cpp:86] Creating Layer relu2
I0428 20:14:42.253073 32729 net.cpp:408] relu2 <- ip2
I0428 20:14:42.253077 32729 net.cpp:369] relu2 -> ip2 (in-place)
I0428 20:14:42.253226 32729 net.cpp:124] Setting up relu2
I0428 20:14:42.253237 32729 net.cpp:131] Top shape: 100 50 (5000)
I0428 20:14:42.253240 32729 net.cpp:139] Memory required for data: 14826800
I0428 20:14:42.253243 32729 layer_factory.hpp:77] Creating layer ip3
I0428 20:14:42.253248 32729 net.cpp:86] Creating Layer ip3
I0428 20:14:42.253252 32729 net.cpp:408] ip3 <- ip2
I0428 20:14:42.253257 32729 net.cpp:382] ip3 -> ip3
I0428 20:14:42.253358 32729 net.cpp:124] Setting up ip3
I0428 20:14:42.253365 32729 net.cpp:131] Top shape: 100 10 (1000)
I0428 20:14:42.253370 32729 net.cpp:139] Memory required for data: 14830800
I0428 20:14:42.253383 32729 layer_factory.hpp:77] Creating layer relu3
I0428 20:14:42.253387 32729 net.cpp:86] Creating Layer relu3
I0428 20:14:42.253396 32729 net.cpp:408] relu3 <- ip3
I0428 20:14:42.253401 32729 net.cpp:369] relu3 -> ip3 (in-place)
I0428 20:14:42.254251 32729 net.cpp:124] Setting up relu3
I0428 20:14:42.254261 32729 net.cpp:131] Top shape: 100 10 (1000)
I0428 20:14:42.254264 32729 net.cpp:139] Memory required for data: 14834800
I0428 20:14:42.254267 32729 layer_factory.hpp:77] Creating layer ip3_relu3_0_split
I0428 20:14:42.254273 32729 net.cpp:86] Creating Layer ip3_relu3_0_split
I0428 20:14:42.254276 32729 net.cpp:408] ip3_relu3_0_split <- ip3
I0428 20:14:42.254281 32729 net.cpp:382] ip3_relu3_0_split -> ip3_relu3_0_split_0
I0428 20:14:42.254287 32729 net.cpp:382] ip3_relu3_0_split -> ip3_relu3_0_split_1
I0428 20:14:42.254324 32729 net.cpp:124] Setting up ip3_relu3_0_split
I0428 20:14:42.254329 32729 net.cpp:131] Top shape: 100 10 (1000)
I0428 20:14:42.254333 32729 net.cpp:131] Top shape: 100 10 (1000)
I0428 20:14:42.254335 32729 net.cpp:139] Memory required for data: 14842800
I0428 20:14:42.254338 32729 layer_factory.hpp:77] Creating layer accuracy
I0428 20:14:42.254343 32729 net.cpp:86] Creating Layer accuracy
I0428 20:14:42.254346 32729 net.cpp:408] accuracy <- ip3_relu3_0_split_0
I0428 20:14:42.254350 32729 net.cpp:408] accuracy <- label_mnist_1_split_0
I0428 20:14:42.254354 32729 net.cpp:382] accuracy -> accuracy
…
