…
I0428 19:36:04.439406 23635 net.cpp:296] The NetState phase (0) differed from the phase (1) specified by a rule in layer mnist
I0428 19:36:04.439424 23635 net.cpp:296] The NetState phase (0) differed from the phase (1) specified by a rule in layer accuracy
I0428 19:36:04.439489 23635 net.cpp:53] Initializing net from parameters: 
name: "LeNet"
state {
  phase: TRAIN
  level: 0
  stage: ""
}
layer {
  name: "mnist"
  type: "Data"
  top: "data"
  top: "label"
  include {
    phase: TRAIN
  }
  transform_param {
    scale: 0.00390625
  }
  data_param {
    source: "examples/mnist/mnist_train_lmdb"
    batch_size: 64
    backend: LMDB
  }
}
layer {
  name: "conv0"
  type: "Convolution"
  bottom: "data"
  top: "conv0"
  param {
    lr_mult: 1
  }
  param {
    lr_mult: 2
  }
  convolution_param {
    num_output: 100
    kernel_size: 5
    stride: 1
    weight_filler {
      type: "xavier"
    }
    bias_filler {
      type: "constant"
    }
  }
}
layer {
  name: "pool0"
  type: "Pooling"
  bottom: "conv0"
  top: "pool0"
  pooling_param {
    pool: MAX
    kernel_size: 2
    stride: 2
  }
}
layer {
  name: "ip1"
  type: "InnerProduct"
  bottom: "pool0"
  top: "ip1"
  param {
    lr_mult: 1
  }
  param {
    lr_mult: 2
  }
  inner_product_param {
    num_output: 10
    weight_filler {
      type: "xavier"
    }
    bias_filler {
      type: "constant"
    }
  }
}
layer {
  name: "relu1"
  type: "ReLU"
  bottom: "ip1"
  top: "ip1"
}
layer {
  name: "ip2"
  type: "InnerProduct"
  bottom: "ip1"
  top: "ip2"
  param {
    lr_mult: 1
  }
  param {
    lr_mult: 2
  }
  inner_product_param {
    num_output: 10
    weight_filler {
      type: "xavier"
    }
    bias_filler {
      type: "constant"
    }
  }
}
layer {
  name: "relu2"
  type: "ReLU"
  bottom: "ip2"
  top: "ip2"
}
layer {
  name: "loss"
  type: "SoftmaxWithLoss"
  bottom: "ip2"
  bottom: "label"
  top: "loss"
}
I0428 19:36:04.439582 23635 layer_factory.hpp:77] Creating layer mnist
I0428 19:36:04.439692 23635 db_lmdb.cpp:35] Opened lmdb examples/mnist/mnist_train_lmdb
I0428 19:36:04.439719 23635 net.cpp:86] Creating Layer mnist
I0428 19:36:04.439729 23635 net.cpp:382] mnist -> data
I0428 19:36:04.439754 23635 net.cpp:382] mnist -> label
I0428 19:36:04.440845 23635 data_layer.cpp:45] output data size: 64,1,28,28
I0428 19:36:04.442991 23635 net.cpp:124] Setting up mnist
I0428 19:36:04.443008 23635 net.cpp:131] Top shape: 64 1 28 28 (50176)
I0428 19:36:04.443017 23635 net.cpp:131] Top shape: 64 (64)
I0428 19:36:04.443022 23635 net.cpp:139] Memory required for data: 200960
I0428 19:36:04.443030 23635 layer_factory.hpp:77] Creating layer conv0
I0428 19:36:04.443051 23635 net.cpp:86] Creating Layer conv0
I0428 19:36:04.443060 23635 net.cpp:408] conv0 <- data
I0428 19:36:04.443078 23635 net.cpp:382] conv0 -> conv0
I0428 19:36:04.678637 23635 net.cpp:124] Setting up conv0
I0428 19:36:04.678666 23635 net.cpp:131] Top shape: 64 100 24 24 (3686400)
I0428 19:36:04.678671 23635 net.cpp:139] Memory required for data: 14946560
I0428 19:36:04.678721 23635 layer_factory.hpp:77] Creating layer pool0
I0428 19:36:04.678738 23635 net.cpp:86] Creating Layer pool0
I0428 19:36:04.678745 23635 net.cpp:408] pool0 <- conv0
I0428 19:36:04.678753 23635 net.cpp:382] pool0 -> pool0
I0428 19:36:04.678814 23635 net.cpp:124] Setting up pool0
I0428 19:36:04.678823 23635 net.cpp:131] Top shape: 64 100 12 12 (921600)
I0428 19:36:04.678828 23635 net.cpp:139] Memory required for data: 18632960
I0428 19:36:04.678853 23635 layer_factory.hpp:77] Creating layer ip1
I0428 19:36:04.678864 23635 net.cpp:86] Creating Layer ip1
I0428 19:36:04.678871 23635 net.cpp:408] ip1 <- pool0
I0428 19:36:04.678879 23635 net.cpp:382] ip1 -> ip1
I0428 19:36:04.680629 23635 net.cpp:124] Setting up ip1
I0428 19:36:04.680644 23635 net.cpp:131] Top shape: 64 10 (640)
I0428 19:36:04.680649 23635 net.cpp:139] Memory required for data: 18635520
I0428 19:36:04.680661 23635 layer_factory.hpp:77] Creating layer relu1
I0428 19:36:04.680672 23635 net.cpp:86] Creating Layer relu1
I0428 19:36:04.680678 23635 net.cpp:408] relu1 <- ip1
I0428 19:36:04.680685 23635 net.cpp:369] relu1 -> ip1 (in-place)
I0428 19:36:04.680867 23635 net.cpp:124] Setting up relu1
I0428 19:36:04.680878 23635 net.cpp:131] Top shape: 64 10 (640)
I0428 19:36:04.680883 23635 net.cpp:139] Memory required for data: 18638080
I0428 19:36:04.680889 23635 layer_factory.hpp:77] Creating layer ip2
I0428 19:36:04.680899 23635 net.cpp:86] Creating Layer ip2
I0428 19:36:04.680904 23635 net.cpp:408] ip2 <- ip1
I0428 19:36:04.680913 23635 net.cpp:382] ip2 -> ip2
I0428 19:36:04.681011 23635 net.cpp:124] Setting up ip2
I0428 19:36:04.681020 23635 net.cpp:131] Top shape: 64 10 (640)
I0428 19:36:04.681025 23635 net.cpp:139] Memory required for data: 18640640
I0428 19:36:04.681037 23635 layer_factory.hpp:77] Creating layer relu2
I0428 19:36:04.681048 23635 net.cpp:86] Creating Layer relu2
I0428 19:36:04.681053 23635 net.cpp:408] relu2 <- ip2
I0428 19:36:04.681061 23635 net.cpp:369] relu2 -> ip2 (in-place)
I0428 19:36:04.681818 23635 net.cpp:124] Setting up relu2
I0428 19:36:04.681835 23635 net.cpp:131] Top shape: 64 10 (640)
I0428 19:36:04.681841 23635 net.cpp:139] Memory required for data: 18643200
I0428 19:36:04.681848 23635 layer_factory.hpp:77] Creating layer loss
I0428 19:36:04.681857 23635 net.cpp:86] Creating Layer loss
I0428 19:36:04.681864 23635 net.cpp:408] loss <- ip2
I0428 19:36:04.681871 23635 net.cpp:408] loss <- label
I0428 19:36:04.681880 23635 net.cpp:382] loss -> loss
I0428 19:36:04.681901 23635 layer_factory.hpp:77] Creating layer loss
…
I0428 19:36:04.682492 23635 solver.cpp:173] Creating test net (#0) specified by net file: ECE595/mnist/train_test/var_everything2/lenet_train_test237.prototxt
I0428 19:36:04.682521 23635 net.cpp:296] The NetState phase (1) differed from the phase (0) specified by a rule in layer mnist
I0428 19:36:04.682600 23635 net.cpp:53] Initializing net from parameters: 
name: "LeNet"
state {
  phase: TEST
}
layer {
  name: "mnist"
  type: "Data"
  top: "data"
  top: "label"
  include {
    phase: TEST
  }
  transform_param {
    scale: 0.00390625
  }
  data_param {
    source: "examples/mnist/mnist_test_lmdb"
    batch_size: 100
    backend: LMDB
  }
}
layer {
  name: "conv0"
  type: "Convolution"
  bottom: "data"
  top: "conv0"
  param {
    lr_mult: 1
  }
  param {
    lr_mult: 2
  }
  convolution_param {
    num_output: 100
    kernel_size: 5
    stride: 1
    weight_filler {
      type: "xavier"
    }
    bias_filler {
      type: "constant"
    }
  }
}
layer {
  name: "pool0"
  type: "Pooling"
  bottom: "conv0"
  top: "pool0"
  pooling_param {
    pool: MAX
    kernel_size: 2
    stride: 2
  }
}
layer {
  name: "ip1"
  type: "InnerProduct"
  bottom: "pool0"
  top: "ip1"
  param {
    lr_mult: 1
  }
  param {
    lr_mult: 2
  }
  inner_product_param {
    num_output: 10
    weight_filler {
      type: "xavier"
    }
    bias_filler {
      type: "constant"
    }
  }
}
layer {
  name: "relu1"
  type: "ReLU"
  bottom: "ip1"
  top: "ip1"
}
layer {
  name: "ip2"
  type: "InnerProduct"
  bottom: "ip1"
  top: "ip2"
  param {
    lr_mult: 1
  }
  param {
    lr_mult: 2
  }
  inner_product_param {
    num_output: 10
    weight_filler {
      type: "xavier"
    }
    bias_filler {
      type: "constant"
    }
  }
}
layer {
  name: "relu2"
  type: "ReLU"
  bottom: "ip2"
  top: "ip2"
}
layer {
  name: "accuracy"
  type: "Accuracy"
  bottom: "ip2"
  bottom: "label"
  top: "accuracy"
  include {
    phase: TEST
  }
}
layer {
  name: "loss"
  type: "SoftmaxWithLoss"
  bottom: "ip2"
  bottom: "label"
  top: "loss"
}
I0428 19:36:04.682695 23635 layer_factory.hpp:77] Creating layer mnist
I0428 19:36:04.682770 23635 db_lmdb.cpp:35] Opened lmdb examples/mnist/mnist_test_lmdb
I0428 19:36:04.682787 23635 net.cpp:86] Creating Layer mnist
I0428 19:36:04.682796 23635 net.cpp:382] mnist -> data
I0428 19:36:04.682807 23635 net.cpp:382] mnist -> label
I0428 19:36:04.682922 23635 data_layer.cpp:45] output data size: 100,1,28,28
I0428 19:36:04.684290 23635 net.cpp:124] Setting up mnist
I0428 19:36:04.684320 23635 net.cpp:131] Top shape: 100 1 28 28 (78400)
I0428 19:36:04.684329 23635 net.cpp:131] Top shape: 100 (100)
I0428 19:36:04.684348 23635 net.cpp:139] Memory required for data: 314000
I0428 19:36:04.684353 23635 layer_factory.hpp:77] Creating layer label_mnist_1_split
I0428 19:36:04.684363 23635 net.cpp:86] Creating Layer label_mnist_1_split
I0428 19:36:04.684368 23635 net.cpp:408] label_mnist_1_split <- label
I0428 19:36:04.684376 23635 net.cpp:382] label_mnist_1_split -> label_mnist_1_split_0
I0428 19:36:04.684386 23635 net.cpp:382] label_mnist_1_split -> label_mnist_1_split_1
I0428 19:36:04.684471 23635 net.cpp:124] Setting up label_mnist_1_split
I0428 19:36:04.684480 23635 net.cpp:131] Top shape: 100 (100)
I0428 19:36:04.684486 23635 net.cpp:131] Top shape: 100 (100)
I0428 19:36:04.684490 23635 net.cpp:139] Memory required for data: 314800
I0428 19:36:04.684495 23635 layer_factory.hpp:77] Creating layer conv0
I0428 19:36:04.684509 23635 net.cpp:86] Creating Layer conv0
I0428 19:36:04.684514 23635 net.cpp:408] conv0 <- data
I0428 19:36:04.684523 23635 net.cpp:382] conv0 -> conv0
I0428 19:36:04.686161 23635 net.cpp:124] Setting up conv0
I0428 19:36:04.686177 23635 net.cpp:131] Top shape: 100 100 24 24 (5760000)
I0428 19:36:04.686183 23635 net.cpp:139] Memory required for data: 23354800
I0428 19:36:04.686197 23635 layer_factory.hpp:77] Creating layer pool0
I0428 19:36:04.686208 23635 net.cpp:86] Creating Layer pool0
I0428 19:36:04.686213 23635 net.cpp:408] pool0 <- conv0
I0428 19:36:04.686221 23635 net.cpp:382] pool0 -> pool0
I0428 19:36:04.686264 23635 net.cpp:124] Setting up pool0
I0428 19:36:04.686273 23635 net.cpp:131] Top shape: 100 100 12 12 (1440000)
I0428 19:36:04.686293 23635 net.cpp:139] Memory required for data: 29114800
I0428 19:36:04.686298 23635 layer_factory.hpp:77] Creating layer ip1
I0428 19:36:04.686308 23635 net.cpp:86] Creating Layer ip1
I0428 19:36:04.686313 23635 net.cpp:408] ip1 <- pool0
I0428 19:36:04.686321 23635 net.cpp:382] ip1 -> ip1
I0428 19:36:04.688186 23635 net.cpp:124] Setting up ip1
I0428 19:36:04.688201 23635 net.cpp:131] Top shape: 100 10 (1000)
I0428 19:36:04.688207 23635 net.cpp:139] Memory required for data: 29118800
I0428 19:36:04.688221 23635 layer_factory.hpp:77] Creating layer relu1
I0428 19:36:04.688230 23635 net.cpp:86] Creating Layer relu1
I0428 19:36:04.688236 23635 net.cpp:408] relu1 <- ip1
I0428 19:36:04.688244 23635 net.cpp:369] relu1 -> ip1 (in-place)
I0428 19:36:04.688529 23635 net.cpp:124] Setting up relu1
I0428 19:36:04.688539 23635 net.cpp:131] Top shape: 100 10 (1000)
I0428 19:36:04.688561 23635 net.cpp:139] Memory required for data: 29122800
I0428 19:36:04.688568 23635 layer_factory.hpp:77] Creating layer ip2
I0428 19:36:04.688577 23635 net.cpp:86] Creating Layer ip2
I0428 19:36:04.688585 23635 net.cpp:408] ip2 <- ip1
I0428 19:36:04.688593 23635 net.cpp:382] ip2 -> ip2
I0428 19:36:04.688707 23635 net.cpp:124] Setting up ip2
I0428 19:36:04.688715 23635 net.cpp:131] Top shape: 100 10 (1000)
I0428 19:36:04.688720 23635 net.cpp:139] Memory required for data: 29126800
I0428 19:36:04.688732 23635 layer_factory.hpp:77] Creating layer relu2
I0428 19:36:04.688740 23635 net.cpp:86] Creating Layer relu2
I0428 19:36:04.688745 23635 net.cpp:408] relu2 <- ip2
I0428 19:36:04.688751 23635 net.cpp:369] relu2 -> ip2 (in-place)
I0428 19:36:04.688946 23635 net.cpp:124] Setting up relu2
I0428 19:36:04.688957 23635 net.cpp:131] Top shape: 100 10 (1000)
I0428 19:36:04.688963 23635 net.cpp:139] Memory required for data: 29130800
I0428 19:36:04.688969 23635 layer_factory.hpp:77] Creating layer ip2_relu2_0_split
I0428 19:36:04.688978 23635 net.cpp:86] Creating Layer ip2_relu2_0_split
I0428 19:36:04.688984 23635 net.cpp:408] ip2_relu2_0_split <- ip2
I0428 19:36:04.688992 23635 net.cpp:382] ip2_relu2_0_split -> ip2_relu2_0_split_0
I0428 19:36:04.689002 23635 net.cpp:382] ip2_relu2_0_split -> ip2_relu2_0_split_1
I0428 19:36:04.689044 23635 net.cpp:124] Setting up ip2_relu2_0_split
I0428 19:36:04.689052 23635 net.cpp:131] Top shape: 100 10 (1000)
I0428 19:36:04.689060 23635 net.cpp:131] Top shape: 100 10 (1000)
I0428 19:36:04.689065 23635 net.cpp:139] Memory required for data: 29138800
I0428 19:36:04.689090 23635 layer_factory.hpp:77] Creating layer accuracy
I0428 19:36:04.689098 23635 net.cpp:86] Creating Layer accuracy
I0428 19:36:04.689105 23635 net.cpp:408] accuracy <- ip2_relu2_0_split_0
I0428 19:36:04.689111 23635 net.cpp:408] accuracy <- label_mnist_1_split_0
I0428 19:36:04.689121 23635 net.cpp:382] accuracy -> accuracy
…
