…
I0428 19:31:07.164218 22495 net.cpp:296] The NetState phase (0) differed from the phase (1) specified by a rule in layer mnist
I0428 19:31:07.164235 22495 net.cpp:296] The NetState phase (0) differed from the phase (1) specified by a rule in layer accuracy
I0428 19:31:07.164326 22495 net.cpp:53] Initializing net from parameters: 
name: "LeNet"
state {
  phase: TRAIN
  level: 0
  stage: ""
}
layer {
  name: "mnist"
  type: "Data"
  top: "data"
  top: "label"
  include {
    phase: TRAIN
  }
  transform_param {
    scale: 0.00390625
  }
  data_param {
    source: "examples/mnist/mnist_train_lmdb"
    batch_size: 64
    backend: LMDB
  }
}
layer {
  name: "conv0"
  type: "Convolution"
  bottom: "data"
  top: "conv0"
  param {
    lr_mult: 1
  }
  param {
    lr_mult: 2
  }
  convolution_param {
    num_output: 5
    kernel_size: 5
    stride: 1
    weight_filler {
      type: "xavier"
    }
    bias_filler {
      type: "constant"
    }
  }
}
layer {
  name: "pool0"
  type: "Pooling"
  bottom: "conv0"
  top: "pool0"
  pooling_param {
    pool: MAX
    kernel_size: 2
    stride: 2
  }
}
layer {
  name: "ip1"
  type: "InnerProduct"
  bottom: "pool0"
  top: "ip1"
  param {
    lr_mult: 1
  }
  param {
    lr_mult: 2
  }
  inner_product_param {
    num_output: 50
    weight_filler {
      type: "xavier"
    }
    bias_filler {
      type: "constant"
    }
  }
}
layer {
  name: "relu1"
  type: "ReLU"
  bottom: "ip1"
  top: "ip1"
}
layer {
  name: "ip2"
  type: "InnerProduct"
  bottom: "ip1"
  top: "ip2"
  param {
    lr_mult: 1
  }
  param {
    lr_mult: 2
  }
  inner_product_param {
    num_output: 25
    weight_filler {
      type: "xavier"
    }
    bias_filler {
      type: "constant"
    }
  }
}
layer {
  name: "relu2"
  type: "ReLU"
  bottom: "ip2"
  top: "ip2"
}
layer {
  name: "ip3"
  type: "InnerProduct"
  bottom: "ip2"
  top: "ip3"
  param {
    lr_mult: 1
  }
  param {
    lr_mult: 2
  }
  inner_product_param {
    num_output: 10
    weight_filler {
      type: "xavier"
    }
    bias_filler {
      type: "constant"
    }
  }
}
layer {
  name: "relu3"
  type: "ReLU"
  bottom: "ip3"
  top: "ip3"
}
layer {
  name: "loss"
  type: "SoftmaxWithLoss"
  bottom: "ip3"
  bottom: "label"
  top: "loss"
}
I0428 19:31:07.164400 22495 layer_factory.hpp:77] Creating layer mnist
I0428 19:31:07.164496 22495 db_lmdb.cpp:35] Opened lmdb examples/mnist/mnist_train_lmdb
I0428 19:31:07.164518 22495 net.cpp:86] Creating Layer mnist
I0428 19:31:07.164527 22495 net.cpp:382] mnist -> data
I0428 19:31:07.164548 22495 net.cpp:382] mnist -> label
I0428 19:31:07.165643 22495 data_layer.cpp:45] output data size: 64,1,28,28
I0428 19:31:07.168085 22495 net.cpp:124] Setting up mnist
I0428 19:31:07.168102 22495 net.cpp:131] Top shape: 64 1 28 28 (50176)
I0428 19:31:07.168108 22495 net.cpp:131] Top shape: 64 (64)
I0428 19:31:07.168112 22495 net.cpp:139] Memory required for data: 200960
I0428 19:31:07.168119 22495 layer_factory.hpp:77] Creating layer conv0
I0428 19:31:07.168136 22495 net.cpp:86] Creating Layer conv0
I0428 19:31:07.168141 22495 net.cpp:408] conv0 <- data
I0428 19:31:07.168154 22495 net.cpp:382] conv0 -> conv0
I0428 19:31:07.457954 22495 net.cpp:124] Setting up conv0
I0428 19:31:07.457981 22495 net.cpp:131] Top shape: 64 5 24 24 (184320)
I0428 19:31:07.457985 22495 net.cpp:139] Memory required for data: 938240
I0428 19:31:07.458000 22495 layer_factory.hpp:77] Creating layer pool0
I0428 19:31:07.458012 22495 net.cpp:86] Creating Layer pool0
I0428 19:31:07.458050 22495 net.cpp:408] pool0 <- conv0
I0428 19:31:07.458055 22495 net.cpp:382] pool0 -> pool0
I0428 19:31:07.458101 22495 net.cpp:124] Setting up pool0
I0428 19:31:07.458107 22495 net.cpp:131] Top shape: 64 5 12 12 (46080)
I0428 19:31:07.458111 22495 net.cpp:139] Memory required for data: 1122560
I0428 19:31:07.458113 22495 layer_factory.hpp:77] Creating layer ip1
I0428 19:31:07.458122 22495 net.cpp:86] Creating Layer ip1
I0428 19:31:07.458124 22495 net.cpp:408] ip1 <- pool0
I0428 19:31:07.458128 22495 net.cpp:382] ip1 -> ip1
I0428 19:31:07.458444 22495 net.cpp:124] Setting up ip1
I0428 19:31:07.458451 22495 net.cpp:131] Top shape: 64 50 (3200)
I0428 19:31:07.458469 22495 net.cpp:139] Memory required for data: 1135360
I0428 19:31:07.458477 22495 layer_factory.hpp:77] Creating layer relu1
I0428 19:31:07.458497 22495 net.cpp:86] Creating Layer relu1
I0428 19:31:07.458499 22495 net.cpp:408] relu1 <- ip1
I0428 19:31:07.458503 22495 net.cpp:369] relu1 -> ip1 (in-place)
I0428 19:31:07.458672 22495 net.cpp:124] Setting up relu1
I0428 19:31:07.458695 22495 net.cpp:131] Top shape: 64 50 (3200)
I0428 19:31:07.458698 22495 net.cpp:139] Memory required for data: 1148160
I0428 19:31:07.458701 22495 layer_factory.hpp:77] Creating layer ip2
I0428 19:31:07.458724 22495 net.cpp:86] Creating Layer ip2
I0428 19:31:07.458741 22495 net.cpp:408] ip2 <- ip1
I0428 19:31:07.458747 22495 net.cpp:382] ip2 -> ip2
I0428 19:31:07.459821 22495 net.cpp:124] Setting up ip2
I0428 19:31:07.459851 22495 net.cpp:131] Top shape: 64 25 (1600)
I0428 19:31:07.459854 22495 net.cpp:139] Memory required for data: 1154560
I0428 19:31:07.459863 22495 layer_factory.hpp:77] Creating layer relu2
I0428 19:31:07.459869 22495 net.cpp:86] Creating Layer relu2
I0428 19:31:07.459872 22495 net.cpp:408] relu2 <- ip2
I0428 19:31:07.459877 22495 net.cpp:369] relu2 -> ip2 (in-place)
I0428 19:31:07.460774 22495 net.cpp:124] Setting up relu2
I0428 19:31:07.460786 22495 net.cpp:131] Top shape: 64 25 (1600)
I0428 19:31:07.460806 22495 net.cpp:139] Memory required for data: 1160960
I0428 19:31:07.460814 22495 layer_factory.hpp:77] Creating layer ip3
I0428 19:31:07.460822 22495 net.cpp:86] Creating Layer ip3
I0428 19:31:07.460826 22495 net.cpp:408] ip3 <- ip2
I0428 19:31:07.460834 22495 net.cpp:382] ip3 -> ip3
I0428 19:31:07.460927 22495 net.cpp:124] Setting up ip3
I0428 19:31:07.460934 22495 net.cpp:131] Top shape: 64 10 (640)
I0428 19:31:07.460937 22495 net.cpp:139] Memory required for data: 1163520
I0428 19:31:07.460943 22495 layer_factory.hpp:77] Creating layer relu3
I0428 19:31:07.460949 22495 net.cpp:86] Creating Layer relu3
I0428 19:31:07.460952 22495 net.cpp:408] relu3 <- ip3
I0428 19:31:07.460957 22495 net.cpp:369] relu3 -> ip3 (in-place)
I0428 19:31:07.461129 22495 net.cpp:124] Setting up relu3
I0428 19:31:07.461138 22495 net.cpp:131] Top shape: 64 10 (640)
I0428 19:31:07.461141 22495 net.cpp:139] Memory required for data: 1166080
I0428 19:31:07.461144 22495 layer_factory.hpp:77] Creating layer loss
I0428 19:31:07.461151 22495 net.cpp:86] Creating Layer loss
I0428 19:31:07.461155 22495 net.cpp:408] loss <- ip3
I0428 19:31:07.461159 22495 net.cpp:408] loss <- label
I0428 19:31:07.461165 22495 net.cpp:382] loss -> loss
I0428 19:31:07.461184 22495 layer_factory.hpp:77] Creating layer loss
…
I0428 19:31:07.461843 22495 solver.cpp:173] Creating test net (#0) specified by net file: ECE595/mnist/train_test/var_everything2/lenet_train_test112.prototxt
I0428 19:31:07.461915 22495 net.cpp:296] The NetState phase (1) differed from the phase (0) specified by a rule in layer mnist
I0428 19:31:07.461997 22495 net.cpp:53] Initializing net from parameters: 
name: "LeNet"
state {
  phase: TEST
}
layer {
  name: "mnist"
  type: "Data"
  top: "data"
  top: "label"
  include {
    phase: TEST
  }
  transform_param {
    scale: 0.00390625
  }
  data_param {
    source: "examples/mnist/mnist_test_lmdb"
    batch_size: 100
    backend: LMDB
  }
}
layer {
  name: "conv0"
  type: "Convolution"
  bottom: "data"
  top: "conv0"
  param {
    lr_mult: 1
  }
  param {
    lr_mult: 2
  }
  convolution_param {
    num_output: 5
    kernel_size: 5
    stride: 1
    weight_filler {
      type: "xavier"
    }
    bias_filler {
      type: "constant"
    }
  }
}
layer {
  name: "pool0"
  type: "Pooling"
  bottom: "conv0"
  top: "pool0"
  pooling_param {
    pool: MAX
    kernel_size: 2
    stride: 2
  }
}
layer {
  name: "ip1"
  type: "InnerProduct"
  bottom: "pool0"
  top: "ip1"
  param {
    lr_mult: 1
  }
  param {
    lr_mult: 2
  }
  inner_product_param {
    num_output: 50
    weight_filler {
      type: "xavier"
    }
    bias_filler {
      type: "constant"
    }
  }
}
layer {
  name: "relu1"
  type: "ReLU"
  bottom: "ip1"
  top: "ip1"
}
layer {
  name: "ip2"
  type: "InnerProduct"
  bottom: "ip1"
  top: "ip2"
  param {
    lr_mult: 1
  }
  param {
    lr_mult: 2
  }
  inner_product_param {
    num_output: 25
    weight_filler {
      type: "xavier"
    }
    bias_filler {
      type: "constant"
    }
  }
}
layer {
  name: "relu2"
  type: "ReLU"
  bottom: "ip2"
  top: "ip2"
}
layer {
  name: "ip3"
  type: "InnerProduct"
  bottom: "ip2"
  top: "ip3"
  param {
    lr_mult: 1
  }
  param {
    lr_mult: 2
  }
  inner_product_param {
    num_output: 10
    weight_filler {
      type: "xavier"
    }
    bias_filler {
      type: "constant"
    }
  }
}
layer {
  name: "relu3"
  type: "ReLU"
  bottom: "ip3"
  top: "ip3"
}
layer {
  name: "accuracy"
  type: "Accuracy"
  bottom: "ip3"
  bottom: "label"
  top: "accuracy"
  include {
    phase: TEST
  }
}
layer {
  name: "loss"
  type: "SoftmaxWithLoss"
  bottom: "ip3"
  bottom: "label"
  top: "loss"
}
I0428 19:31:07.462064 22495 layer_factory.hpp:77] Creating layer mnist
I0428 19:31:07.462107 22495 db_lmdb.cpp:35] Opened lmdb examples/mnist/mnist_test_lmdb
I0428 19:31:07.462121 22495 net.cpp:86] Creating Layer mnist
I0428 19:31:07.462126 22495 net.cpp:382] mnist -> data
I0428 19:31:07.462133 22495 net.cpp:382] mnist -> label
I0428 19:31:07.462224 22495 data_layer.cpp:45] output data size: 100,1,28,28
I0428 19:31:07.464351 22495 net.cpp:124] Setting up mnist
I0428 19:31:07.464383 22495 net.cpp:131] Top shape: 100 1 28 28 (78400)
I0428 19:31:07.464388 22495 net.cpp:131] Top shape: 100 (100)
I0428 19:31:07.464391 22495 net.cpp:139] Memory required for data: 314000
I0428 19:31:07.464395 22495 layer_factory.hpp:77] Creating layer label_mnist_1_split
I0428 19:31:07.464407 22495 net.cpp:86] Creating Layer label_mnist_1_split
I0428 19:31:07.464414 22495 net.cpp:408] label_mnist_1_split <- label
I0428 19:31:07.464419 22495 net.cpp:382] label_mnist_1_split -> label_mnist_1_split_0
I0428 19:31:07.464426 22495 net.cpp:382] label_mnist_1_split -> label_mnist_1_split_1
I0428 19:31:07.464485 22495 net.cpp:124] Setting up label_mnist_1_split
I0428 19:31:07.464493 22495 net.cpp:131] Top shape: 100 (100)
I0428 19:31:07.464496 22495 net.cpp:131] Top shape: 100 (100)
I0428 19:31:07.464499 22495 net.cpp:139] Memory required for data: 314800
I0428 19:31:07.464514 22495 layer_factory.hpp:77] Creating layer conv0
I0428 19:31:07.464524 22495 net.cpp:86] Creating Layer conv0
I0428 19:31:07.464527 22495 net.cpp:408] conv0 <- data
I0428 19:31:07.464534 22495 net.cpp:382] conv0 -> conv0
I0428 19:31:07.466267 22495 net.cpp:124] Setting up conv0
I0428 19:31:07.466280 22495 net.cpp:131] Top shape: 100 5 24 24 (288000)
I0428 19:31:07.466300 22495 net.cpp:139] Memory required for data: 1466800
I0428 19:31:07.466311 22495 layer_factory.hpp:77] Creating layer pool0
I0428 19:31:07.466318 22495 net.cpp:86] Creating Layer pool0
I0428 19:31:07.466321 22495 net.cpp:408] pool0 <- conv0
I0428 19:31:07.466325 22495 net.cpp:382] pool0 -> pool0
I0428 19:31:07.466362 22495 net.cpp:124] Setting up pool0
I0428 19:31:07.466367 22495 net.cpp:131] Top shape: 100 5 12 12 (72000)
I0428 19:31:07.466370 22495 net.cpp:139] Memory required for data: 1754800
I0428 19:31:07.466373 22495 layer_factory.hpp:77] Creating layer ip1
I0428 19:31:07.466379 22495 net.cpp:86] Creating Layer ip1
I0428 19:31:07.466382 22495 net.cpp:408] ip1 <- pool0
I0428 19:31:07.466388 22495 net.cpp:382] ip1 -> ip1
I0428 19:31:07.466763 22495 net.cpp:124] Setting up ip1
I0428 19:31:07.466770 22495 net.cpp:131] Top shape: 100 50 (5000)
I0428 19:31:07.466773 22495 net.cpp:139] Memory required for data: 1774800
I0428 19:31:07.466781 22495 layer_factory.hpp:77] Creating layer relu1
I0428 19:31:07.466801 22495 net.cpp:86] Creating Layer relu1
I0428 19:31:07.466805 22495 net.cpp:408] relu1 <- ip1
I0428 19:31:07.466823 22495 net.cpp:369] relu1 -> ip1 (in-place)
I0428 19:31:07.467154 22495 net.cpp:124] Setting up relu1
I0428 19:31:07.467162 22495 net.cpp:131] Top shape: 100 50 (5000)
I0428 19:31:07.467181 22495 net.cpp:139] Memory required for data: 1794800
I0428 19:31:07.467185 22495 layer_factory.hpp:77] Creating layer ip2
I0428 19:31:07.467190 22495 net.cpp:86] Creating Layer ip2
I0428 19:31:07.467193 22495 net.cpp:408] ip2 <- ip1
I0428 19:31:07.467200 22495 net.cpp:382] ip2 -> ip2
I0428 19:31:07.467324 22495 net.cpp:124] Setting up ip2
I0428 19:31:07.467331 22495 net.cpp:131] Top shape: 100 25 (2500)
I0428 19:31:07.467334 22495 net.cpp:139] Memory required for data: 1804800
I0428 19:31:07.467342 22495 layer_factory.hpp:77] Creating layer relu2
I0428 19:31:07.467351 22495 net.cpp:86] Creating Layer relu2
I0428 19:31:07.467371 22495 net.cpp:408] relu2 <- ip2
I0428 19:31:07.467375 22495 net.cpp:369] relu2 -> ip2 (in-place)
I0428 19:31:07.468348 22495 net.cpp:124] Setting up relu2
I0428 19:31:07.468359 22495 net.cpp:131] Top shape: 100 25 (2500)
I0428 19:31:07.468379 22495 net.cpp:139] Memory required for data: 1814800
I0428 19:31:07.468381 22495 layer_factory.hpp:77] Creating layer ip3
I0428 19:31:07.468389 22495 net.cpp:86] Creating Layer ip3
I0428 19:31:07.468392 22495 net.cpp:408] ip3 <- ip2
I0428 19:31:07.468399 22495 net.cpp:382] ip3 -> ip3
I0428 19:31:07.468539 22495 net.cpp:124] Setting up ip3
I0428 19:31:07.468547 22495 net.cpp:131] Top shape: 100 10 (1000)
I0428 19:31:07.468550 22495 net.cpp:139] Memory required for data: 1818800
I0428 19:31:07.468556 22495 layer_factory.hpp:77] Creating layer relu3
I0428 19:31:07.468561 22495 net.cpp:86] Creating Layer relu3
I0428 19:31:07.468565 22495 net.cpp:408] relu3 <- ip3
I0428 19:31:07.468570 22495 net.cpp:369] relu3 -> ip3 (in-place)
I0428 19:31:07.468734 22495 net.cpp:124] Setting up relu3
I0428 19:31:07.468742 22495 net.cpp:131] Top shape: 100 10 (1000)
I0428 19:31:07.468745 22495 net.cpp:139] Memory required for data: 1822800
I0428 19:31:07.468755 22495 layer_factory.hpp:77] Creating layer ip3_relu3_0_split
I0428 19:31:07.468760 22495 net.cpp:86] Creating Layer ip3_relu3_0_split
I0428 19:31:07.468763 22495 net.cpp:408] ip3_relu3_0_split <- ip3
I0428 19:31:07.468770 22495 net.cpp:382] ip3_relu3_0_split -> ip3_relu3_0_split_0
I0428 19:31:07.468775 22495 net.cpp:382] ip3_relu3_0_split -> ip3_relu3_0_split_1
I0428 19:31:07.468818 22495 net.cpp:124] Setting up ip3_relu3_0_split
I0428 19:31:07.468827 22495 net.cpp:131] Top shape: 100 10 (1000)
I0428 19:31:07.468849 22495 net.cpp:131] Top shape: 100 10 (1000)
I0428 19:31:07.468873 22495 net.cpp:139] Memory required for data: 1830800
I0428 19:31:07.468876 22495 layer_factory.hpp:77] Creating layer accuracy
I0428 19:31:07.468881 22495 net.cpp:86] Creating Layer accuracy
I0428 19:31:07.468885 22495 net.cpp:408] accuracy <- ip3_relu3_0_split_0
I0428 19:31:07.468889 22495 net.cpp:408] accuracy <- label_mnist_1_split_0
I0428 19:31:07.468894 22495 net.cpp:382] accuracy -> accuracy
…
