…
I0428 19:34:44.603214 23381 net.cpp:296] The NetState phase (0) differed from the phase (1) specified by a rule in layer mnist
I0428 19:34:44.603236 23381 net.cpp:296] The NetState phase (0) differed from the phase (1) specified by a rule in layer accuracy
I0428 19:34:44.603332 23381 net.cpp:53] Initializing net from parameters: 
name: "LeNet"
state {
  phase: TRAIN
  level: 0
  stage: ""
}
layer {
  name: "mnist"
  type: "Data"
  top: "data"
  top: "label"
  include {
    phase: TRAIN
  }
  transform_param {
    scale: 0.00390625
  }
  data_param {
    source: "examples/mnist/mnist_train_lmdb"
    batch_size: 64
    backend: LMDB
  }
}
layer {
  name: "conv0"
  type: "Convolution"
  bottom: "data"
  top: "conv0"
  param {
    lr_mult: 1
  }
  param {
    lr_mult: 2
  }
  convolution_param {
    num_output: 50
    kernel_size: 5
    stride: 1
    weight_filler {
      type: "xavier"
    }
    bias_filler {
      type: "constant"
    }
  }
}
layer {
  name: "pool0"
  type: "Pooling"
  bottom: "conv0"
  top: "pool0"
  pooling_param {
    pool: MAX
    kernel_size: 2
    stride: 2
  }
}
layer {
  name: "ip1"
  type: "InnerProduct"
  bottom: "pool0"
  top: "ip1"
  param {
    lr_mult: 1
  }
  param {
    lr_mult: 2
  }
  inner_product_param {
    num_output: 10
    weight_filler {
      type: "xavier"
    }
    bias_filler {
      type: "constant"
    }
  }
}
layer {
  name: "relu1"
  type: "ReLU"
  bottom: "ip1"
  top: "ip1"
}
layer {
  name: "ip2"
  type: "InnerProduct"
  bottom: "ip1"
  top: "ip2"
  param {
    lr_mult: 1
  }
  param {
    lr_mult: 2
  }
  inner_product_param {
    num_output: 25
    weight_filler {
      type: "xavier"
    }
    bias_filler {
      type: "constant"
    }
  }
}
layer {
  name: "relu2"
  type: "ReLU"
  bottom: "ip2"
  top: "ip2"
}
layer {
  name: "ip3"
  type: "InnerProduct"
  bottom: "ip2"
  top: "ip3"
  param {
    lr_mult: 1
  }
  param {
    lr_mult: 2
  }
  inner_product_param {
    num_output: 10
    weight_filler {
      type: "xavier"
    }
    bias_filler {
      type: "constant"
    }
  }
}
layer {
  name: "relu3"
  type: "ReLU"
  bottom: "ip3"
  top: "ip3"
}
layer {
  name: "loss"
  type: "SoftmaxWithLoss"
  bottom: "ip3"
  bottom: "label"
  top: "loss"
}
I0428 19:34:44.603440 23381 layer_factory.hpp:77] Creating layer mnist
I0428 19:34:44.603576 23381 db_lmdb.cpp:35] Opened lmdb examples/mnist/mnist_train_lmdb
I0428 19:34:44.603610 23381 net.cpp:86] Creating Layer mnist
I0428 19:34:44.603622 23381 net.cpp:382] mnist -> data
I0428 19:34:44.603652 23381 net.cpp:382] mnist -> label
I0428 19:34:44.604888 23381 data_layer.cpp:45] output data size: 64,1,28,28
I0428 19:34:44.607380 23381 net.cpp:124] Setting up mnist
I0428 19:34:44.607400 23381 net.cpp:131] Top shape: 64 1 28 28 (50176)
I0428 19:34:44.607410 23381 net.cpp:131] Top shape: 64 (64)
I0428 19:34:44.607416 23381 net.cpp:139] Memory required for data: 200960
I0428 19:34:44.607427 23381 layer_factory.hpp:77] Creating layer conv0
I0428 19:34:44.607455 23381 net.cpp:86] Creating Layer conv0
I0428 19:34:44.607466 23381 net.cpp:408] conv0 <- data
I0428 19:34:44.607486 23381 net.cpp:382] conv0 -> conv0
I0428 19:34:44.894892 23381 net.cpp:124] Setting up conv0
I0428 19:34:44.894923 23381 net.cpp:131] Top shape: 64 50 24 24 (1843200)
I0428 19:34:44.894929 23381 net.cpp:139] Memory required for data: 7573760
I0428 19:34:44.894950 23381 layer_factory.hpp:77] Creating layer pool0
I0428 19:34:44.894968 23381 net.cpp:86] Creating Layer pool0
I0428 19:34:44.894992 23381 net.cpp:408] pool0 <- conv0
I0428 19:34:44.895002 23381 net.cpp:382] pool0 -> pool0
I0428 19:34:44.895059 23381 net.cpp:124] Setting up pool0
I0428 19:34:44.895068 23381 net.cpp:131] Top shape: 64 50 12 12 (460800)
I0428 19:34:44.895073 23381 net.cpp:139] Memory required for data: 9416960
I0428 19:34:44.895079 23381 layer_factory.hpp:77] Creating layer ip1
I0428 19:34:44.895090 23381 net.cpp:86] Creating Layer ip1
I0428 19:34:44.895097 23381 net.cpp:408] ip1 <- pool0
I0428 19:34:44.895105 23381 net.cpp:382] ip1 -> ip1
I0428 19:34:44.896591 23381 net.cpp:124] Setting up ip1
I0428 19:34:44.896607 23381 net.cpp:131] Top shape: 64 10 (640)
I0428 19:34:44.896612 23381 net.cpp:139] Memory required for data: 9419520
I0428 19:34:44.896625 23381 layer_factory.hpp:77] Creating layer relu1
I0428 19:34:44.896637 23381 net.cpp:86] Creating Layer relu1
I0428 19:34:44.896648 23381 net.cpp:408] relu1 <- ip1
I0428 19:34:44.896656 23381 net.cpp:369] relu1 -> ip1 (in-place)
I0428 19:34:44.896844 23381 net.cpp:124] Setting up relu1
I0428 19:34:44.896855 23381 net.cpp:131] Top shape: 64 10 (640)
I0428 19:34:44.896860 23381 net.cpp:139] Memory required for data: 9422080
I0428 19:34:44.896867 23381 layer_factory.hpp:77] Creating layer ip2
I0428 19:34:44.896891 23381 net.cpp:86] Creating Layer ip2
I0428 19:34:44.896898 23381 net.cpp:408] ip2 <- ip1
I0428 19:34:44.896924 23381 net.cpp:382] ip2 -> ip2
I0428 19:34:44.897032 23381 net.cpp:124] Setting up ip2
I0428 19:34:44.897042 23381 net.cpp:131] Top shape: 64 25 (1600)
I0428 19:34:44.897048 23381 net.cpp:139] Memory required for data: 9428480
I0428 19:34:44.897061 23381 layer_factory.hpp:77] Creating layer relu2
I0428 19:34:44.897074 23381 net.cpp:86] Creating Layer relu2
I0428 19:34:44.897080 23381 net.cpp:408] relu2 <- ip2
I0428 19:34:44.897090 23381 net.cpp:369] relu2 -> ip2 (in-place)
I0428 19:34:44.897860 23381 net.cpp:124] Setting up relu2
I0428 19:34:44.897873 23381 net.cpp:131] Top shape: 64 25 (1600)
I0428 19:34:44.897879 23381 net.cpp:139] Memory required for data: 9434880
I0428 19:34:44.897884 23381 layer_factory.hpp:77] Creating layer ip3
I0428 19:34:44.897894 23381 net.cpp:86] Creating Layer ip3
I0428 19:34:44.897900 23381 net.cpp:408] ip3 <- ip2
I0428 19:34:44.897909 23381 net.cpp:382] ip3 -> ip3
I0428 19:34:44.898010 23381 net.cpp:124] Setting up ip3
I0428 19:34:44.898020 23381 net.cpp:131] Top shape: 64 10 (640)
I0428 19:34:44.898025 23381 net.cpp:139] Memory required for data: 9437440
I0428 19:34:44.898033 23381 layer_factory.hpp:77] Creating layer relu3
I0428 19:34:44.898043 23381 net.cpp:86] Creating Layer relu3
I0428 19:34:44.898049 23381 net.cpp:408] relu3 <- ip3
I0428 19:34:44.898057 23381 net.cpp:369] relu3 -> ip3 (in-place)
I0428 19:34:44.898210 23381 net.cpp:124] Setting up relu3
I0428 19:34:44.898219 23381 net.cpp:131] Top shape: 64 10 (640)
I0428 19:34:44.898224 23381 net.cpp:139] Memory required for data: 9440000
I0428 19:34:44.898229 23381 layer_factory.hpp:77] Creating layer loss
I0428 19:34:44.898238 23381 net.cpp:86] Creating Layer loss
I0428 19:34:44.898243 23381 net.cpp:408] loss <- ip3
I0428 19:34:44.898250 23381 net.cpp:408] loss <- label
I0428 19:34:44.898258 23381 net.cpp:382] loss -> loss
I0428 19:34:44.898283 23381 layer_factory.hpp:77] Creating layer loss
…
I0428 19:34:44.898907 23381 solver.cpp:173] Creating test net (#0) specified by net file: ECE595/mnist/train_test/var_everything2/lenet_train_test210.prototxt
I0428 19:34:44.898938 23381 net.cpp:296] The NetState phase (1) differed from the phase (0) specified by a rule in layer mnist
I0428 19:34:44.899024 23381 net.cpp:53] Initializing net from parameters: 
name: "LeNet"
state {
  phase: TEST
}
layer {
  name: "mnist"
  type: "Data"
  top: "data"
  top: "label"
  include {
    phase: TEST
  }
  transform_param {
    scale: 0.00390625
  }
  data_param {
    source: "examples/mnist/mnist_test_lmdb"
    batch_size: 100
    backend: LMDB
  }
}
layer {
  name: "conv0"
  type: "Convolution"
  bottom: "data"
  top: "conv0"
  param {
    lr_mult: 1
  }
  param {
    lr_mult: 2
  }
  convolution_param {
    num_output: 50
    kernel_size: 5
    stride: 1
    weight_filler {
      type: "xavier"
    }
    bias_filler {
      type: "constant"
    }
  }
}
layer {
  name: "pool0"
  type: "Pooling"
  bottom: "conv0"
  top: "pool0"
  pooling_param {
    pool: MAX
    kernel_size: 2
    stride: 2
  }
}
layer {
  name: "ip1"
  type: "InnerProduct"
  bottom: "pool0"
  top: "ip1"
  param {
    lr_mult: 1
  }
  param {
    lr_mult: 2
  }
  inner_product_param {
    num_output: 10
    weight_filler {
      type: "xavier"
    }
    bias_filler {
      type: "constant"
    }
  }
}
layer {
  name: "relu1"
  type: "ReLU"
  bottom: "ip1"
  top: "ip1"
}
layer {
  name: "ip2"
  type: "InnerProduct"
  bottom: "ip1"
  top: "ip2"
  param {
    lr_mult: 1
  }
  param {
    lr_mult: 2
  }
  inner_product_param {
    num_output: 25
    weight_filler {
      type: "xavier"
    }
    bias_filler {
      type: "constant"
    }
  }
}
layer {
  name: "relu2"
  type: "ReLU"
  bottom: "ip2"
  top: "ip2"
}
layer {
  name: "ip3"
  type: "InnerProduct"
  bottom: "ip2"
  top: "ip3"
  param {
    lr_mult: 1
  }
  param {
    lr_mult: 2
  }
  inner_product_param {
    num_output: 10
    weight_filler {
      type: "xavier"
    }
    bias_filler {
      type: "constant"
    }
  }
}
layer {
  name: "relu3"
  type: "ReLU"
  bottom: "ip3"
  top: "ip3"
}
layer {
  name: "accuracy"
  type: "Accuracy"
  bottom: "ip3"
  bottom: "label"
  top: "accuracy"
  include {
    phase: TEST
  }
}
layer {
  name: "loss"
  type: "SoftmaxWithLoss"
  bottom: "ip3"
  bottom: "label"
  top: "loss"
}
I0428 19:34:44.899117 23381 layer_factory.hpp:77] Creating layer mnist
I0428 19:34:44.899173 23381 db_lmdb.cpp:35] Opened lmdb examples/mnist/mnist_test_lmdb
I0428 19:34:44.899190 23381 net.cpp:86] Creating Layer mnist
I0428 19:34:44.899197 23381 net.cpp:382] mnist -> data
I0428 19:34:44.899209 23381 net.cpp:382] mnist -> label
I0428 19:34:44.899322 23381 data_layer.cpp:45] output data size: 100,1,28,28
I0428 19:34:44.900483 23381 net.cpp:124] Setting up mnist
I0428 19:34:44.900514 23381 net.cpp:131] Top shape: 100 1 28 28 (78400)
I0428 19:34:44.900522 23381 net.cpp:131] Top shape: 100 (100)
I0428 19:34:44.900527 23381 net.cpp:139] Memory required for data: 314000
I0428 19:34:44.900533 23381 layer_factory.hpp:77] Creating layer label_mnist_1_split
I0428 19:34:44.900543 23381 net.cpp:86] Creating Layer label_mnist_1_split
I0428 19:34:44.900549 23381 net.cpp:408] label_mnist_1_split <- label
I0428 19:34:44.900557 23381 net.cpp:382] label_mnist_1_split -> label_mnist_1_split_0
I0428 19:34:44.900578 23381 net.cpp:382] label_mnist_1_split -> label_mnist_1_split_1
I0428 19:34:44.900665 23381 net.cpp:124] Setting up label_mnist_1_split
I0428 19:34:44.900674 23381 net.cpp:131] Top shape: 100 (100)
I0428 19:34:44.900681 23381 net.cpp:131] Top shape: 100 (100)
I0428 19:34:44.900701 23381 net.cpp:139] Memory required for data: 314800
I0428 19:34:44.900717 23381 layer_factory.hpp:77] Creating layer conv0
I0428 19:34:44.900730 23381 net.cpp:86] Creating Layer conv0
I0428 19:34:44.900738 23381 net.cpp:408] conv0 <- data
I0428 19:34:44.900748 23381 net.cpp:382] conv0 -> conv0
I0428 19:34:44.902416 23381 net.cpp:124] Setting up conv0
I0428 19:34:44.902432 23381 net.cpp:131] Top shape: 100 50 24 24 (2880000)
I0428 19:34:44.902437 23381 net.cpp:139] Memory required for data: 11834800
I0428 19:34:44.902451 23381 layer_factory.hpp:77] Creating layer pool0
I0428 19:34:44.902462 23381 net.cpp:86] Creating Layer pool0
I0428 19:34:44.902467 23381 net.cpp:408] pool0 <- conv0
I0428 19:34:44.902475 23381 net.cpp:382] pool0 -> pool0
I0428 19:34:44.902515 23381 net.cpp:124] Setting up pool0
I0428 19:34:44.902524 23381 net.cpp:131] Top shape: 100 50 12 12 (720000)
I0428 19:34:44.902529 23381 net.cpp:139] Memory required for data: 14714800
I0428 19:34:44.902534 23381 layer_factory.hpp:77] Creating layer ip1
I0428 19:34:44.902544 23381 net.cpp:86] Creating Layer ip1
I0428 19:34:44.902550 23381 net.cpp:408] ip1 <- pool0
I0428 19:34:44.902559 23381 net.cpp:382] ip1 -> ip1
I0428 19:34:44.903072 23381 net.cpp:124] Setting up ip1
I0428 19:34:44.903082 23381 net.cpp:131] Top shape: 100 10 (1000)
I0428 19:34:44.903087 23381 net.cpp:139] Memory required for data: 14718800
I0428 19:34:44.903100 23381 layer_factory.hpp:77] Creating layer relu1
I0428 19:34:44.903108 23381 net.cpp:86] Creating Layer relu1
I0428 19:34:44.903115 23381 net.cpp:408] relu1 <- ip1
I0428 19:34:44.903123 23381 net.cpp:369] relu1 -> ip1 (in-place)
I0428 19:34:44.903286 23381 net.cpp:124] Setting up relu1
I0428 19:34:44.903296 23381 net.cpp:131] Top shape: 100 10 (1000)
I0428 19:34:44.903302 23381 net.cpp:139] Memory required for data: 14722800
I0428 19:34:44.903307 23381 layer_factory.hpp:77] Creating layer ip2
I0428 19:34:44.903317 23381 net.cpp:86] Creating Layer ip2
I0428 19:34:44.903324 23381 net.cpp:408] ip2 <- ip1
I0428 19:34:44.903332 23381 net.cpp:382] ip2 -> ip2
I0428 19:34:44.903450 23381 net.cpp:124] Setting up ip2
I0428 19:34:44.903458 23381 net.cpp:131] Top shape: 100 25 (2500)
I0428 19:34:44.903463 23381 net.cpp:139] Memory required for data: 14732800
I0428 19:34:44.903484 23381 layer_factory.hpp:77] Creating layer relu2
I0428 19:34:44.903496 23381 net.cpp:86] Creating Layer relu2
I0428 19:34:44.903501 23381 net.cpp:408] relu2 <- ip2
I0428 19:34:44.903508 23381 net.cpp:369] relu2 -> ip2 (in-place)
I0428 19:34:44.904363 23381 net.cpp:124] Setting up relu2
I0428 19:34:44.904376 23381 net.cpp:131] Top shape: 100 25 (2500)
I0428 19:34:44.904382 23381 net.cpp:139] Memory required for data: 14742800
I0428 19:34:44.904387 23381 layer_factory.hpp:77] Creating layer ip3
I0428 19:34:44.904399 23381 net.cpp:86] Creating Layer ip3
I0428 19:34:44.904405 23381 net.cpp:408] ip3 <- ip2
I0428 19:34:44.904414 23381 net.cpp:382] ip3 -> ip3
I0428 19:34:44.904570 23381 net.cpp:124] Setting up ip3
I0428 19:34:44.904580 23381 net.cpp:131] Top shape: 100 10 (1000)
I0428 19:34:44.904587 23381 net.cpp:139] Memory required for data: 14746800
I0428 19:34:44.904597 23381 layer_factory.hpp:77] Creating layer relu3
I0428 19:34:44.904604 23381 net.cpp:86] Creating Layer relu3
I0428 19:34:44.904613 23381 net.cpp:408] relu3 <- ip3
I0428 19:34:44.904619 23381 net.cpp:369] relu3 -> ip3 (in-place)
I0428 19:34:44.904769 23381 net.cpp:124] Setting up relu3
I0428 19:34:44.904778 23381 net.cpp:131] Top shape: 100 10 (1000)
I0428 19:34:44.904783 23381 net.cpp:139] Memory required for data: 14750800
I0428 19:34:44.904790 23381 layer_factory.hpp:77] Creating layer ip3_relu3_0_split
I0428 19:34:44.904798 23381 net.cpp:86] Creating Layer ip3_relu3_0_split
I0428 19:34:44.904803 23381 net.cpp:408] ip3_relu3_0_split <- ip3
I0428 19:34:44.904816 23381 net.cpp:382] ip3_relu3_0_split -> ip3_relu3_0_split_0
I0428 19:34:44.904839 23381 net.cpp:382] ip3_relu3_0_split -> ip3_relu3_0_split_1
I0428 19:34:44.904897 23381 net.cpp:124] Setting up ip3_relu3_0_split
I0428 19:34:44.904927 23381 net.cpp:131] Top shape: 100 10 (1000)
I0428 19:34:44.904959 23381 net.cpp:131] Top shape: 100 10 (1000)
I0428 19:34:44.904965 23381 net.cpp:139] Memory required for data: 14758800
I0428 19:34:44.904971 23381 layer_factory.hpp:77] Creating layer accuracy
I0428 19:34:44.904980 23381 net.cpp:86] Creating Layer accuracy
I0428 19:34:44.904986 23381 net.cpp:408] accuracy <- ip3_relu3_0_split_0
I0428 19:34:44.904994 23381 net.cpp:408] accuracy <- label_mnist_1_split_0
I0428 19:34:44.905001 23381 net.cpp:382] accuracy -> accuracy
…
