…
I0428 20:27:22.367192  3027 net.cpp:296] The NetState phase (0) differed from the phase (1) specified by a rule in layer mnist
I0428 20:27:22.367210  3027 net.cpp:296] The NetState phase (0) differed from the phase (1) specified by a rule in layer accuracy
I0428 20:27:22.367298  3027 net.cpp:53] Initializing net from parameters: 
name: "LeNet"
state {
  phase: TRAIN
  level: 0
  stage: ""
}
layer {
  name: "mnist"
  type: "Data"
  top: "data"
  top: "label"
  include {
    phase: TRAIN
  }
  transform_param {
    scale: 0.00390625
  }
  data_param {
    source: "examples/mnist/mnist_train_lmdb"
    batch_size: 64
    backend: LMDB
  }
}
layer {
  name: "conv0"
  type: "Convolution"
  bottom: "data"
  top: "conv0"
  param {
    lr_mult: 1
  }
  param {
    lr_mult: 2
  }
  convolution_param {
    num_output: 100
    kernel_size: 5
    stride: 1
    weight_filler {
      type: "xavier"
    }
    bias_filler {
      type: "constant"
    }
  }
}
layer {
  name: "pool0"
  type: "Pooling"
  bottom: "conv0"
  top: "pool0"
  pooling_param {
    pool: MAX
    kernel_size: 2
    stride: 2
  }
}
layer {
  name: "conv1"
  type: "Convolution"
  bottom: "pool0"
  top: "conv1"
  param {
    lr_mult: 1
  }
  param {
    lr_mult: 2
  }
  convolution_param {
    num_output: 5
    kernel_size: 5
    stride: 1
    weight_filler {
      type: "xavier"
    }
    bias_filler {
      type: "constant"
    }
  }
}
layer {
  name: "pool1"
  type: "Pooling"
  bottom: "conv1"
  top: "pool1"
  pooling_param {
    pool: MAX
    kernel_size: 2
    stride: 2
  }
}
layer {
  name: "ip1"
  type: "InnerProduct"
  bottom: "pool1"
  top: "ip1"
  param {
    lr_mult: 1
  }
  param {
    lr_mult: 2
  }
  inner_product_param {
    num_output: 10
    weight_filler {
      type: "xavier"
    }
    bias_filler {
      type: "constant"
    }
  }
}
layer {
  name: "relu1"
  type: "ReLU"
  bottom: "ip1"
  top: "ip1"
}
layer {
  name: "ip2"
  type: "InnerProduct"
  bottom: "ip1"
  top: "ip2"
  param {
    lr_mult: 1
  }
  param {
    lr_mult: 2
  }
  inner_product_param {
    num_output: 10
    weight_filler {
      type: "xavier"
    }
    bias_filler {
      type: "constant"
    }
  }
}
layer {
  name: "relu2"
  type: "ReLU"
  bottom: "ip2"
  top: "ip2"
}
layer {
  name: "loss"
  type: "SoftmaxWithLoss"
  bottom: "ip2"
  bottom: "label"
  top: "loss"
}
I0428 20:27:22.367369  3027 layer_factory.hpp:77] Creating layer mnist
I0428 20:27:22.367471  3027 db_lmdb.cpp:35] Opened lmdb examples/mnist/mnist_train_lmdb
I0428 20:27:22.367494  3027 net.cpp:86] Creating Layer mnist
I0428 20:27:22.367502  3027 net.cpp:382] mnist -> data
I0428 20:27:22.367524  3027 net.cpp:382] mnist -> label
I0428 20:27:22.368613  3027 data_layer.cpp:45] output data size: 64,1,28,28
I0428 20:27:22.371311  3027 net.cpp:124] Setting up mnist
I0428 20:27:22.371330  3027 net.cpp:131] Top shape: 64 1 28 28 (50176)
I0428 20:27:22.371336  3027 net.cpp:131] Top shape: 64 (64)
I0428 20:27:22.371340  3027 net.cpp:139] Memory required for data: 200960
I0428 20:27:22.371347  3027 layer_factory.hpp:77] Creating layer conv0
I0428 20:27:22.371363  3027 net.cpp:86] Creating Layer conv0
I0428 20:27:22.371369  3027 net.cpp:408] conv0 <- data
I0428 20:27:22.371381  3027 net.cpp:382] conv0 -> conv0
I0428 20:27:22.664062  3027 net.cpp:124] Setting up conv0
I0428 20:27:22.664093  3027 net.cpp:131] Top shape: 64 100 24 24 (3686400)
I0428 20:27:22.664098  3027 net.cpp:139] Memory required for data: 14946560
I0428 20:27:22.664137  3027 layer_factory.hpp:77] Creating layer pool0
I0428 20:27:22.664152  3027 net.cpp:86] Creating Layer pool0
I0428 20:27:22.664156  3027 net.cpp:408] pool0 <- conv0
I0428 20:27:22.664163  3027 net.cpp:382] pool0 -> pool0
I0428 20:27:22.664221  3027 net.cpp:124] Setting up pool0
I0428 20:27:22.664232  3027 net.cpp:131] Top shape: 64 100 12 12 (921600)
I0428 20:27:22.664235  3027 net.cpp:139] Memory required for data: 18632960
I0428 20:27:22.664238  3027 layer_factory.hpp:77] Creating layer conv1
I0428 20:27:22.664250  3027 net.cpp:86] Creating Layer conv1
I0428 20:27:22.664254  3027 net.cpp:408] conv1 <- pool0
I0428 20:27:22.664260  3027 net.cpp:382] conv1 -> conv1
I0428 20:27:22.667599  3027 net.cpp:124] Setting up conv1
I0428 20:27:22.667618  3027 net.cpp:131] Top shape: 64 5 8 8 (20480)
I0428 20:27:22.667623  3027 net.cpp:139] Memory required for data: 18714880
I0428 20:27:22.667632  3027 layer_factory.hpp:77] Creating layer pool1
I0428 20:27:22.667641  3027 net.cpp:86] Creating Layer pool1
I0428 20:27:22.667645  3027 net.cpp:408] pool1 <- conv1
I0428 20:27:22.667651  3027 net.cpp:382] pool1 -> pool1
I0428 20:27:22.667701  3027 net.cpp:124] Setting up pool1
I0428 20:27:22.667708  3027 net.cpp:131] Top shape: 64 5 4 4 (5120)
I0428 20:27:22.667712  3027 net.cpp:139] Memory required for data: 18735360
I0428 20:27:22.667716  3027 layer_factory.hpp:77] Creating layer ip1
I0428 20:27:22.667724  3027 net.cpp:86] Creating Layer ip1
I0428 20:27:22.667728  3027 net.cpp:408] ip1 <- pool1
I0428 20:27:22.667733  3027 net.cpp:382] ip1 -> ip1
I0428 20:27:22.667852  3027 net.cpp:124] Setting up ip1
I0428 20:27:22.667862  3027 net.cpp:131] Top shape: 64 10 (640)
I0428 20:27:22.667866  3027 net.cpp:139] Memory required for data: 18737920
I0428 20:27:22.667875  3027 layer_factory.hpp:77] Creating layer relu1
I0428 20:27:22.667881  3027 net.cpp:86] Creating Layer relu1
I0428 20:27:22.667884  3027 net.cpp:408] relu1 <- ip1
I0428 20:27:22.667889  3027 net.cpp:369] relu1 -> ip1 (in-place)
I0428 20:27:22.668092  3027 net.cpp:124] Setting up relu1
I0428 20:27:22.668102  3027 net.cpp:131] Top shape: 64 10 (640)
I0428 20:27:22.668107  3027 net.cpp:139] Memory required for data: 18740480
I0428 20:27:22.668110  3027 layer_factory.hpp:77] Creating layer ip2
I0428 20:27:22.668118  3027 net.cpp:86] Creating Layer ip2
I0428 20:27:22.668121  3027 net.cpp:408] ip2 <- ip1
I0428 20:27:22.668128  3027 net.cpp:382] ip2 -> ip2
I0428 20:27:22.668239  3027 net.cpp:124] Setting up ip2
I0428 20:27:22.668248  3027 net.cpp:131] Top shape: 64 10 (640)
I0428 20:27:22.668252  3027 net.cpp:139] Memory required for data: 18743040
I0428 20:27:22.668258  3027 layer_factory.hpp:77] Creating layer relu2
I0428 20:27:22.668265  3027 net.cpp:86] Creating Layer relu2
I0428 20:27:22.668269  3027 net.cpp:408] relu2 <- ip2
I0428 20:27:22.668274  3027 net.cpp:369] relu2 -> ip2 (in-place)
I0428 20:27:22.669126  3027 net.cpp:124] Setting up relu2
I0428 20:27:22.669142  3027 net.cpp:131] Top shape: 64 10 (640)
I0428 20:27:22.669147  3027 net.cpp:139] Memory required for data: 18745600
I0428 20:27:22.669150  3027 layer_factory.hpp:77] Creating layer loss
I0428 20:27:22.669158  3027 net.cpp:86] Creating Layer loss
I0428 20:27:22.669162  3027 net.cpp:408] loss <- ip2
I0428 20:27:22.669167  3027 net.cpp:408] loss <- label
I0428 20:27:22.669175  3027 net.cpp:382] loss -> loss
I0428 20:27:22.669195  3027 layer_factory.hpp:77] Creating layer loss
…
I0428 20:27:22.669960  3027 solver.cpp:173] Creating test net (#0) specified by net file: ECE595/mnist/train_test/var_everything2/lenet_train_test1487.prototxt
I0428 20:27:22.669991  3027 net.cpp:296] The NetState phase (1) differed from the phase (0) specified by a rule in layer mnist
I0428 20:27:22.670136  3027 net.cpp:53] Initializing net from parameters: 
name: "LeNet"
state {
  phase: TEST
}
layer {
  name: "mnist"
  type: "Data"
  top: "data"
  top: "label"
  include {
    phase: TEST
  }
  transform_param {
    scale: 0.00390625
  }
  data_param {
    source: "examples/mnist/mnist_test_lmdb"
    batch_size: 100
    backend: LMDB
  }
}
layer {
  name: "conv0"
  type: "Convolution"
  bottom: "data"
  top: "conv0"
  param {
    lr_mult: 1
  }
  param {
    lr_mult: 2
  }
  convolution_param {
    num_output: 100
    kernel_size: 5
    stride: 1
    weight_filler {
      type: "xavier"
    }
    bias_filler {
      type: "constant"
    }
  }
}
layer {
  name: "pool0"
  type: "Pooling"
  bottom: "conv0"
  top: "pool0"
  pooling_param {
    pool: MAX
    kernel_size: 2
    stride: 2
  }
}
layer {
  name: "conv1"
  type: "Convolution"
  bottom: "pool0"
  top: "conv1"
  param {
    lr_mult: 1
  }
  param {
    lr_mult: 2
  }
  convolution_param {
    num_output: 5
    kernel_size: 5
    stride: 1
    weight_filler {
      type: "xavier"
    }
    bias_filler {
      type: "constant"
    }
  }
}
layer {
  name: "pool1"
  type: "Pooling"
  bottom: "conv1"
  top: "pool1"
  pooling_param {
    pool: MAX
    kernel_size: 2
    stride: 2
  }
}
layer {
  name: "ip1"
  type: "InnerProduct"
  bottom: "pool1"
  top: "ip1"
  param {
    lr_mult: 1
  }
  param {
    lr_mult: 2
  }
  inner_product_param {
    num_output: 10
    weight_filler {
      type: "xavier"
    }
    bias_filler {
      type: "constant"
    }
  }
}
layer {
  name: "relu1"
  type: "ReLU"
  bottom: "ip1"
  top: "ip1"
}
layer {
  name: "ip2"
  type: "InnerProduct"
  bottom: "ip1"
  top: "ip2"
  param {
    lr_mult: 1
  }
  param {
    lr_mult: 2
  }
  inner_product_param {
    num_output: 10
    weight_filler {
      type: "xavier"
    }
    bias_filler {
      type: "constant"
    }
  }
}
layer {
  name: "relu2"
  type: "ReLU"
  bottom: "ip2"
  top: "ip2"
}
layer {
  name: "accuracy"
  type: "Accuracy"
  bottom: "ip2"
  bottom: "label"
  top: "accuracy"
  include {
    phase: TEST
  }
}
layer {
  name: "loss"
  type: "SoftmaxWithLoss"
  bottom: "ip2"
  bottom: "label"
  top: "loss"
}
I0428 20:27:22.670230  3027 layer_factory.hpp:77] Creating layer mnist
I0428 20:27:22.670287  3027 db_lmdb.cpp:35] Opened lmdb examples/mnist/mnist_test_lmdb
I0428 20:27:22.670301  3027 net.cpp:86] Creating Layer mnist
I0428 20:27:22.670308  3027 net.cpp:382] mnist -> data
I0428 20:27:22.670317  3027 net.cpp:382] mnist -> label
I0428 20:27:22.670426  3027 data_layer.cpp:45] output data size: 100,1,28,28
I0428 20:27:22.672703  3027 net.cpp:124] Setting up mnist
I0428 20:27:22.672719  3027 net.cpp:131] Top shape: 100 1 28 28 (78400)
I0428 20:27:22.672724  3027 net.cpp:131] Top shape: 100 (100)
I0428 20:27:22.672729  3027 net.cpp:139] Memory required for data: 314000
I0428 20:27:22.672732  3027 layer_factory.hpp:77] Creating layer label_mnist_1_split
I0428 20:27:22.672757  3027 net.cpp:86] Creating Layer label_mnist_1_split
I0428 20:27:22.672763  3027 net.cpp:408] label_mnist_1_split <- label
I0428 20:27:22.672770  3027 net.cpp:382] label_mnist_1_split -> label_mnist_1_split_0
I0428 20:27:22.672777  3027 net.cpp:382] label_mnist_1_split -> label_mnist_1_split_1
I0428 20:27:22.672963  3027 net.cpp:124] Setting up label_mnist_1_split
I0428 20:27:22.672977  3027 net.cpp:131] Top shape: 100 (100)
I0428 20:27:22.672982  3027 net.cpp:131] Top shape: 100 (100)
I0428 20:27:22.672986  3027 net.cpp:139] Memory required for data: 314800
I0428 20:27:22.672991  3027 layer_factory.hpp:77] Creating layer conv0
I0428 20:27:22.673002  3027 net.cpp:86] Creating Layer conv0
I0428 20:27:22.673007  3027 net.cpp:408] conv0 <- data
I0428 20:27:22.673013  3027 net.cpp:382] conv0 -> conv0
I0428 20:27:22.674859  3027 net.cpp:124] Setting up conv0
I0428 20:27:22.674875  3027 net.cpp:131] Top shape: 100 100 24 24 (5760000)
I0428 20:27:22.674880  3027 net.cpp:139] Memory required for data: 23354800
I0428 20:27:22.674890  3027 layer_factory.hpp:77] Creating layer pool0
I0428 20:27:22.674899  3027 net.cpp:86] Creating Layer pool0
I0428 20:27:22.674903  3027 net.cpp:408] pool0 <- conv0
I0428 20:27:22.674908  3027 net.cpp:382] pool0 -> pool0
I0428 20:27:22.674968  3027 net.cpp:124] Setting up pool0
I0428 20:27:22.674975  3027 net.cpp:131] Top shape: 100 100 12 12 (1440000)
I0428 20:27:22.674978  3027 net.cpp:139] Memory required for data: 29114800
I0428 20:27:22.674983  3027 layer_factory.hpp:77] Creating layer conv1
I0428 20:27:22.674996  3027 net.cpp:86] Creating Layer conv1
I0428 20:27:22.675000  3027 net.cpp:408] conv1 <- pool0
I0428 20:27:22.675006  3027 net.cpp:382] conv1 -> conv1
I0428 20:27:22.676882  3027 net.cpp:124] Setting up conv1
I0428 20:27:22.676898  3027 net.cpp:131] Top shape: 100 5 8 8 (32000)
I0428 20:27:22.676903  3027 net.cpp:139] Memory required for data: 29242800
I0428 20:27:22.676914  3027 layer_factory.hpp:77] Creating layer pool1
I0428 20:27:22.676921  3027 net.cpp:86] Creating Layer pool1
I0428 20:27:22.676925  3027 net.cpp:408] pool1 <- conv1
I0428 20:27:22.676934  3027 net.cpp:382] pool1 -> pool1
I0428 20:27:22.676986  3027 net.cpp:124] Setting up pool1
I0428 20:27:22.676993  3027 net.cpp:131] Top shape: 100 5 4 4 (8000)
I0428 20:27:22.676997  3027 net.cpp:139] Memory required for data: 29274800
I0428 20:27:22.677000  3027 layer_factory.hpp:77] Creating layer ip1
I0428 20:27:22.677011  3027 net.cpp:86] Creating Layer ip1
I0428 20:27:22.677013  3027 net.cpp:408] ip1 <- pool1
I0428 20:27:22.677021  3027 net.cpp:382] ip1 -> ip1
I0428 20:27:22.677153  3027 net.cpp:124] Setting up ip1
I0428 20:27:22.677166  3027 net.cpp:131] Top shape: 100 10 (1000)
I0428 20:27:22.677170  3027 net.cpp:139] Memory required for data: 29278800
I0428 20:27:22.677179  3027 layer_factory.hpp:77] Creating layer relu1
I0428 20:27:22.677186  3027 net.cpp:86] Creating Layer relu1
I0428 20:27:22.677189  3027 net.cpp:408] relu1 <- ip1
I0428 20:27:22.677194  3027 net.cpp:369] relu1 -> ip1 (in-place)
I0428 20:27:22.677402  3027 net.cpp:124] Setting up relu1
I0428 20:27:22.677413  3027 net.cpp:131] Top shape: 100 10 (1000)
I0428 20:27:22.677417  3027 net.cpp:139] Memory required for data: 29282800
I0428 20:27:22.677422  3027 layer_factory.hpp:77] Creating layer ip2
I0428 20:27:22.677431  3027 net.cpp:86] Creating Layer ip2
I0428 20:27:22.677435  3027 net.cpp:408] ip2 <- ip1
I0428 20:27:22.677443  3027 net.cpp:382] ip2 -> ip2
I0428 20:27:22.677564  3027 net.cpp:124] Setting up ip2
I0428 20:27:22.677573  3027 net.cpp:131] Top shape: 100 10 (1000)
I0428 20:27:22.677577  3027 net.cpp:139] Memory required for data: 29286800
I0428 20:27:22.677584  3027 layer_factory.hpp:77] Creating layer relu2
I0428 20:27:22.677590  3027 net.cpp:86] Creating Layer relu2
I0428 20:27:22.677593  3027 net.cpp:408] relu2 <- ip2
I0428 20:27:22.677600  3027 net.cpp:369] relu2 -> ip2 (in-place)
I0428 20:27:22.677846  3027 net.cpp:124] Setting up relu2
I0428 20:27:22.677857  3027 net.cpp:131] Top shape: 100 10 (1000)
I0428 20:27:22.677860  3027 net.cpp:139] Memory required for data: 29290800
I0428 20:27:22.677865  3027 layer_factory.hpp:77] Creating layer ip2_relu2_0_split
I0428 20:27:22.677870  3027 net.cpp:86] Creating Layer ip2_relu2_0_split
I0428 20:27:22.677873  3027 net.cpp:408] ip2_relu2_0_split <- ip2
I0428 20:27:22.677881  3027 net.cpp:382] ip2_relu2_0_split -> ip2_relu2_0_split_0
I0428 20:27:22.677899  3027 net.cpp:382] ip2_relu2_0_split -> ip2_relu2_0_split_1
I0428 20:27:22.677948  3027 net.cpp:124] Setting up ip2_relu2_0_split
I0428 20:27:22.677964  3027 net.cpp:131] Top shape: 100 10 (1000)
I0428 20:27:22.677973  3027 net.cpp:131] Top shape: 100 10 (1000)
I0428 20:27:22.677978  3027 net.cpp:139] Memory required for data: 29298800
I0428 20:27:22.677983  3027 layer_factory.hpp:77] Creating layer accuracy
I0428 20:27:22.677994  3027 net.cpp:86] Creating Layer accuracy
I0428 20:27:22.678000  3027 net.cpp:408] accuracy <- ip2_relu2_0_split_0
I0428 20:27:22.678009  3027 net.cpp:408] accuracy <- label_mnist_1_split_0
I0428 20:27:22.678020  3027 net.cpp:382] accuracy -> accuracy
…
