…
I0428 19:44:37.678954 25641 net.cpp:296] The NetState phase (0) differed from the phase (1) specified by a rule in layer mnist
I0428 19:44:37.678984 25641 net.cpp:296] The NetState phase (0) differed from the phase (1) specified by a rule in layer accuracy
I0428 19:44:37.679059 25641 net.cpp:53] Initializing net from parameters: 
name: "LeNet"
state {
  phase: TRAIN
  level: 0
  stage: ""
}
layer {
  name: "mnist"
  type: "Data"
  top: "data"
  top: "label"
  include {
    phase: TRAIN
  }
  transform_param {
    scale: 0.00390625
  }
  data_param {
    source: "examples/mnist/mnist_train_lmdb"
    batch_size: 64
    backend: LMDB
  }
}
layer {
  name: "conv0"
  type: "Convolution"
  bottom: "data"
  top: "conv0"
  param {
    lr_mult: 1
  }
  param {
    lr_mult: 2
  }
  convolution_param {
    num_output: 2
    kernel_size: 5
    stride: 1
    weight_filler {
      type: "xavier"
    }
    bias_filler {
      type: "constant"
    }
  }
}
layer {
  name: "pool0"
  type: "Pooling"
  bottom: "conv0"
  top: "pool0"
  pooling_param {
    pool: MAX
    kernel_size: 2
    stride: 2
  }
}
layer {
  name: "conv1"
  type: "Convolution"
  bottom: "pool0"
  top: "conv1"
  param {
    lr_mult: 1
  }
  param {
    lr_mult: 2
  }
  convolution_param {
    num_output: 50
    kernel_size: 5
    stride: 1
    weight_filler {
      type: "xavier"
    }
    bias_filler {
      type: "constant"
    }
  }
}
layer {
  name: "pool1"
  type: "Pooling"
  bottom: "conv1"
  top: "pool1"
  pooling_param {
    pool: MAX
    kernel_size: 2
    stride: 2
  }
}
layer {
  name: "ip1"
  type: "InnerProduct"
  bottom: "pool1"
  top: "ip1"
  param {
    lr_mult: 1
  }
  param {
    lr_mult: 2
  }
  inner_product_param {
    num_output: 25
    weight_filler {
      type: "xavier"
    }
    bias_filler {
      type: "constant"
    }
  }
}
layer {
  name: "relu1"
  type: "ReLU"
  bottom: "ip1"
  top: "ip1"
}
layer {
  name: "ip2"
  type: "InnerProduct"
  bottom: "ip1"
  top: "ip2"
  param {
    lr_mult: 1
  }
  param {
    lr_mult: 2
  }
  inner_product_param {
    num_output: 10
    weight_filler {
      type: "xavier"
    }
    bias_filler {
      type: "constant"
    }
  }
}
layer {
  name: "relu2"
  type: "ReLU"
  bottom: "ip2"
  top: "ip2"
}
layer {
  name: "ip3"
  type: "InnerProduct"
  bottom: "ip2"
  top: "ip3"
  param {
    lr_mult: 1
  }
  param {
    lr_mult: 2
  }
  inner_product_param {
    num_output: 10
    weight_filler {
      type: "xavier"
    }
    bias_filler {
      type: "constant"
    }
  }
}
layer {
  name: "relu3"
  type: "ReLU"
  bottom: "ip3"
  top: "ip3"
}
layer {
  name: "loss"
  type: "SoftmaxWithLoss"
  bottom: "ip3"
  bottom: "label"
  top: "loss"
}
I0428 19:44:37.679116 25641 layer_factory.hpp:77] Creating layer mnist
I0428 19:44:37.679198 25641 db_lmdb.cpp:35] Opened lmdb examples/mnist/mnist_train_lmdb
I0428 19:44:37.679216 25641 net.cpp:86] Creating Layer mnist
I0428 19:44:37.679222 25641 net.cpp:382] mnist -> data
I0428 19:44:37.679240 25641 net.cpp:382] mnist -> label
I0428 19:44:37.680228 25641 data_layer.cpp:45] output data size: 64,1,28,28
I0428 19:44:37.682392 25641 net.cpp:124] Setting up mnist
I0428 19:44:37.682422 25641 net.cpp:131] Top shape: 64 1 28 28 (50176)
I0428 19:44:37.682427 25641 net.cpp:131] Top shape: 64 (64)
I0428 19:44:37.682430 25641 net.cpp:139] Memory required for data: 200960
I0428 19:44:37.682436 25641 layer_factory.hpp:77] Creating layer conv0
I0428 19:44:37.682449 25641 net.cpp:86] Creating Layer conv0
I0428 19:44:37.682466 25641 net.cpp:408] conv0 <- data
I0428 19:44:37.682476 25641 net.cpp:382] conv0 -> conv0
I0428 19:44:37.914607 25641 net.cpp:124] Setting up conv0
I0428 19:44:37.914631 25641 net.cpp:131] Top shape: 64 2 24 24 (73728)
I0428 19:44:37.914635 25641 net.cpp:139] Memory required for data: 495872
I0428 19:44:37.914650 25641 layer_factory.hpp:77] Creating layer pool0
I0428 19:44:37.914661 25641 net.cpp:86] Creating Layer pool0
I0428 19:44:37.914666 25641 net.cpp:408] pool0 <- conv0
I0428 19:44:37.914671 25641 net.cpp:382] pool0 -> pool0
I0428 19:44:37.914739 25641 net.cpp:124] Setting up pool0
I0428 19:44:37.914746 25641 net.cpp:131] Top shape: 64 2 12 12 (18432)
I0428 19:44:37.914748 25641 net.cpp:139] Memory required for data: 569600
I0428 19:44:37.914752 25641 layer_factory.hpp:77] Creating layer conv1
I0428 19:44:37.914762 25641 net.cpp:86] Creating Layer conv1
I0428 19:44:37.914764 25641 net.cpp:408] conv1 <- pool0
I0428 19:44:37.914769 25641 net.cpp:382] conv1 -> conv1
I0428 19:44:37.917484 25641 net.cpp:124] Setting up conv1
I0428 19:44:37.917520 25641 net.cpp:131] Top shape: 64 50 8 8 (204800)
I0428 19:44:37.917524 25641 net.cpp:139] Memory required for data: 1388800
I0428 19:44:37.917532 25641 layer_factory.hpp:77] Creating layer pool1
I0428 19:44:37.917541 25641 net.cpp:86] Creating Layer pool1
I0428 19:44:37.917546 25641 net.cpp:408] pool1 <- conv1
I0428 19:44:37.917551 25641 net.cpp:382] pool1 -> pool1
I0428 19:44:37.917587 25641 net.cpp:124] Setting up pool1
I0428 19:44:37.917592 25641 net.cpp:131] Top shape: 64 50 4 4 (51200)
I0428 19:44:37.917594 25641 net.cpp:139] Memory required for data: 1593600
I0428 19:44:37.917598 25641 layer_factory.hpp:77] Creating layer ip1
I0428 19:44:37.917605 25641 net.cpp:86] Creating Layer ip1
I0428 19:44:37.917608 25641 net.cpp:408] ip1 <- pool1
I0428 19:44:37.917613 25641 net.cpp:382] ip1 -> ip1
I0428 19:44:37.917829 25641 net.cpp:124] Setting up ip1
I0428 19:44:37.917837 25641 net.cpp:131] Top shape: 64 25 (1600)
I0428 19:44:37.917840 25641 net.cpp:139] Memory required for data: 1600000
I0428 19:44:37.917847 25641 layer_factory.hpp:77] Creating layer relu1
I0428 19:44:37.917855 25641 net.cpp:86] Creating Layer relu1
I0428 19:44:37.917857 25641 net.cpp:408] relu1 <- ip1
I0428 19:44:37.917861 25641 net.cpp:369] relu1 -> ip1 (in-place)
I0428 19:44:37.918015 25641 net.cpp:124] Setting up relu1
I0428 19:44:37.918025 25641 net.cpp:131] Top shape: 64 25 (1600)
I0428 19:44:37.918027 25641 net.cpp:139] Memory required for data: 1606400
I0428 19:44:37.918030 25641 layer_factory.hpp:77] Creating layer ip2
I0428 19:44:37.918037 25641 net.cpp:86] Creating Layer ip2
I0428 19:44:37.918040 25641 net.cpp:408] ip2 <- ip1
I0428 19:44:37.918045 25641 net.cpp:382] ip2 -> ip2
I0428 19:44:37.918148 25641 net.cpp:124] Setting up ip2
I0428 19:44:37.918154 25641 net.cpp:131] Top shape: 64 10 (640)
I0428 19:44:37.918156 25641 net.cpp:139] Memory required for data: 1608960
I0428 19:44:37.918162 25641 layer_factory.hpp:77] Creating layer relu2
I0428 19:44:37.918167 25641 net.cpp:86] Creating Layer relu2
I0428 19:44:37.918170 25641 net.cpp:408] relu2 <- ip2
I0428 19:44:37.918174 25641 net.cpp:369] relu2 -> ip2 (in-place)
I0428 19:44:37.918925 25641 net.cpp:124] Setting up relu2
I0428 19:44:37.918936 25641 net.cpp:131] Top shape: 64 10 (640)
I0428 19:44:37.918954 25641 net.cpp:139] Memory required for data: 1611520
I0428 19:44:37.918957 25641 layer_factory.hpp:77] Creating layer ip3
I0428 19:44:37.918964 25641 net.cpp:86] Creating Layer ip3
I0428 19:44:37.918967 25641 net.cpp:408] ip3 <- ip2
I0428 19:44:37.918974 25641 net.cpp:382] ip3 -> ip3
I0428 19:44:37.919085 25641 net.cpp:124] Setting up ip3
I0428 19:44:37.919095 25641 net.cpp:131] Top shape: 64 10 (640)
I0428 19:44:37.919097 25641 net.cpp:139] Memory required for data: 1614080
I0428 19:44:37.919106 25641 layer_factory.hpp:77] Creating layer relu3
I0428 19:44:37.919111 25641 net.cpp:86] Creating Layer relu3
I0428 19:44:37.919113 25641 net.cpp:408] relu3 <- ip3
I0428 19:44:37.919117 25641 net.cpp:369] relu3 -> ip3 (in-place)
I0428 19:44:37.919283 25641 net.cpp:124] Setting up relu3
I0428 19:44:37.919291 25641 net.cpp:131] Top shape: 64 10 (640)
I0428 19:44:37.919293 25641 net.cpp:139] Memory required for data: 1616640
I0428 19:44:37.919296 25641 layer_factory.hpp:77] Creating layer loss
I0428 19:44:37.919302 25641 net.cpp:86] Creating Layer loss
I0428 19:44:37.919306 25641 net.cpp:408] loss <- ip3
I0428 19:44:37.919311 25641 net.cpp:408] loss <- label
I0428 19:44:37.919315 25641 net.cpp:382] loss -> loss
I0428 19:44:37.919332 25641 layer_factory.hpp:77] Creating layer loss
…
I0428 19:44:37.919963 25641 solver.cpp:173] Creating test net (#0) specified by net file: ECE595/mnist/train_test/var_everything2/lenet_train_test452.prototxt
I0428 19:44:37.920004 25641 net.cpp:296] The NetState phase (1) differed from the phase (0) specified by a rule in layer mnist
I0428 19:44:37.920096 25641 net.cpp:53] Initializing net from parameters: 
name: "LeNet"
state {
  phase: TEST
}
layer {
  name: "mnist"
  type: "Data"
  top: "data"
  top: "label"
  include {
    phase: TEST
  }
  transform_param {
    scale: 0.00390625
  }
  data_param {
    source: "examples/mnist/mnist_test_lmdb"
    batch_size: 100
    backend: LMDB
  }
}
layer {
  name: "conv0"
  type: "Convolution"
  bottom: "data"
  top: "conv0"
  param {
    lr_mult: 1
  }
  param {
    lr_mult: 2
  }
  convolution_param {
    num_output: 2
    kernel_size: 5
    stride: 1
    weight_filler {
      type: "xavier"
    }
    bias_filler {
      type: "constant"
    }
  }
}
layer {
  name: "pool0"
  type: "Pooling"
  bottom: "conv0"
  top: "pool0"
  pooling_param {
    pool: MAX
    kernel_size: 2
    stride: 2
  }
}
layer {
  name: "conv1"
  type: "Convolution"
  bottom: "pool0"
  top: "conv1"
  param {
    lr_mult: 1
  }
  param {
    lr_mult: 2
  }
  convolution_param {
    num_output: 50
    kernel_size: 5
    stride: 1
    weight_filler {
      type: "xavier"
    }
    bias_filler {
      type: "constant"
    }
  }
}
layer {
  name: "pool1"
  type: "Pooling"
  bottom: "conv1"
  top: "pool1"
  pooling_param {
    pool: MAX
    kernel_size: 2
    stride: 2
  }
}
layer {
  name: "ip1"
  type: "InnerProduct"
  bottom: "pool1"
  top: "ip1"
  param {
    lr_mult: 1
  }
  param {
    lr_mult: 2
  }
  inner_product_param {
    num_output: 25
    weight_filler {
      type: "xavier"
    }
    bias_filler {
      type: "constant"
    }
  }
}
layer {
  name: "relu1"
  type: "ReLU"
  bottom: "ip1"
  top: "ip1"
}
layer {
  name: "ip2"
  type: "InnerProduct"
  bottom: "ip1"
  top: "ip2"
  param {
    lr_mult: 1
  }
  param {
    lr_mult: 2
  }
  inner_product_param {
    num_output: 10
    weight_filler {
      type: "xavier"
    }
    bias_filler {
      type: "constant"
    }
  }
}
layer {
  name: "relu2"
  type: "ReLU"
  bottom: "ip2"
  top: "ip2"
}
layer {
  name: "ip3"
  type: "InnerProduct"
  bottom: "ip2"
  top: "ip3"
  param {
    lr_mult: 1
  }
  param {
    lr_mult: 2
  }
  inner_product_param {
    num_output: 10
    weight_filler {
      type: "xavier"
    }
    bias_filler {
      type: "constant"
    }
  }
}
layer {
  name: "relu3"
  type: "ReLU"
  bottom: "ip3"
  top: "ip3"
}
layer {
  name: "accuracy"
  type: "Accuracy"
  bottom: "ip3"
  bottom: "label"
  top: "accuracy"
  include {
    phase: TEST
  }
}
layer {
  name: "loss"
  type: "SoftmaxWithLoss"
  bottom: "ip3"
  bottom: "label"
  top: "loss"
}
I0428 19:44:37.920187 25641 layer_factory.hpp:77] Creating layer mnist
I0428 19:44:37.920227 25641 db_lmdb.cpp:35] Opened lmdb examples/mnist/mnist_test_lmdb
I0428 19:44:37.920240 25641 net.cpp:86] Creating Layer mnist
I0428 19:44:37.920245 25641 net.cpp:382] mnist -> data
I0428 19:44:37.920253 25641 net.cpp:382] mnist -> label
I0428 19:44:37.920333 25641 data_layer.cpp:45] output data size: 100,1,28,28
I0428 19:44:37.922346 25641 net.cpp:124] Setting up mnist
I0428 19:44:37.922374 25641 net.cpp:131] Top shape: 100 1 28 28 (78400)
I0428 19:44:37.922380 25641 net.cpp:131] Top shape: 100 (100)
I0428 19:44:37.922384 25641 net.cpp:139] Memory required for data: 314000
I0428 19:44:37.922387 25641 layer_factory.hpp:77] Creating layer label_mnist_1_split
I0428 19:44:37.922412 25641 net.cpp:86] Creating Layer label_mnist_1_split
I0428 19:44:37.922415 25641 net.cpp:408] label_mnist_1_split <- label
I0428 19:44:37.922420 25641 net.cpp:382] label_mnist_1_split -> label_mnist_1_split_0
I0428 19:44:37.922428 25641 net.cpp:382] label_mnist_1_split -> label_mnist_1_split_1
I0428 19:44:37.922528 25641 net.cpp:124] Setting up label_mnist_1_split
I0428 19:44:37.922535 25641 net.cpp:131] Top shape: 100 (100)
I0428 19:44:37.922539 25641 net.cpp:131] Top shape: 100 (100)
I0428 19:44:37.922541 25641 net.cpp:139] Memory required for data: 314800
I0428 19:44:37.922544 25641 layer_factory.hpp:77] Creating layer conv0
I0428 19:44:37.922554 25641 net.cpp:86] Creating Layer conv0
I0428 19:44:37.922557 25641 net.cpp:408] conv0 <- data
I0428 19:44:37.922564 25641 net.cpp:382] conv0 -> conv0
I0428 19:44:37.924070 25641 net.cpp:124] Setting up conv0
I0428 19:44:37.924100 25641 net.cpp:131] Top shape: 100 2 24 24 (115200)
I0428 19:44:37.924103 25641 net.cpp:139] Memory required for data: 775600
I0428 19:44:37.924113 25641 layer_factory.hpp:77] Creating layer pool0
I0428 19:44:37.924120 25641 net.cpp:86] Creating Layer pool0
I0428 19:44:37.924124 25641 net.cpp:408] pool0 <- conv0
I0428 19:44:37.924129 25641 net.cpp:382] pool0 -> pool0
I0428 19:44:37.924165 25641 net.cpp:124] Setting up pool0
I0428 19:44:37.924171 25641 net.cpp:131] Top shape: 100 2 12 12 (28800)
I0428 19:44:37.924173 25641 net.cpp:139] Memory required for data: 890800
I0428 19:44:37.924176 25641 layer_factory.hpp:77] Creating layer conv1
I0428 19:44:37.924185 25641 net.cpp:86] Creating Layer conv1
I0428 19:44:37.924188 25641 net.cpp:408] conv1 <- pool0
I0428 19:44:37.924196 25641 net.cpp:382] conv1 -> conv1
I0428 19:44:37.925953 25641 net.cpp:124] Setting up conv1
I0428 19:44:37.925982 25641 net.cpp:131] Top shape: 100 50 8 8 (320000)
I0428 19:44:37.925987 25641 net.cpp:139] Memory required for data: 2170800
I0428 19:44:37.925994 25641 layer_factory.hpp:77] Creating layer pool1
I0428 19:44:37.926002 25641 net.cpp:86] Creating Layer pool1
I0428 19:44:37.926021 25641 net.cpp:408] pool1 <- conv1
I0428 19:44:37.926028 25641 net.cpp:382] pool1 -> pool1
I0428 19:44:37.926066 25641 net.cpp:124] Setting up pool1
I0428 19:44:37.926072 25641 net.cpp:131] Top shape: 100 50 4 4 (80000)
I0428 19:44:37.926075 25641 net.cpp:139] Memory required for data: 2490800
I0428 19:44:37.926079 25641 layer_factory.hpp:77] Creating layer ip1
I0428 19:44:37.926086 25641 net.cpp:86] Creating Layer ip1
I0428 19:44:37.926090 25641 net.cpp:408] ip1 <- pool1
I0428 19:44:37.926095 25641 net.cpp:382] ip1 -> ip1
I0428 19:44:37.926316 25641 net.cpp:124] Setting up ip1
I0428 19:44:37.926327 25641 net.cpp:131] Top shape: 100 25 (2500)
I0428 19:44:37.926355 25641 net.cpp:139] Memory required for data: 2500800
I0428 19:44:37.926362 25641 layer_factory.hpp:77] Creating layer relu1
I0428 19:44:37.926368 25641 net.cpp:86] Creating Layer relu1
I0428 19:44:37.926372 25641 net.cpp:408] relu1 <- ip1
I0428 19:44:37.926375 25641 net.cpp:369] relu1 -> ip1 (in-place)
I0428 19:44:37.926610 25641 net.cpp:124] Setting up relu1
I0428 19:44:37.926621 25641 net.cpp:131] Top shape: 100 25 (2500)
I0428 19:44:37.926625 25641 net.cpp:139] Memory required for data: 2510800
I0428 19:44:37.926628 25641 layer_factory.hpp:77] Creating layer ip2
I0428 19:44:37.926635 25641 net.cpp:86] Creating Layer ip2
I0428 19:44:37.926638 25641 net.cpp:408] ip2 <- ip1
I0428 19:44:37.926645 25641 net.cpp:382] ip2 -> ip2
I0428 19:44:37.926755 25641 net.cpp:124] Setting up ip2
I0428 19:44:37.926764 25641 net.cpp:131] Top shape: 100 10 (1000)
I0428 19:44:37.926766 25641 net.cpp:139] Memory required for data: 2514800
I0428 19:44:37.926771 25641 layer_factory.hpp:77] Creating layer relu2
I0428 19:44:37.926776 25641 net.cpp:86] Creating Layer relu2
I0428 19:44:37.926779 25641 net.cpp:408] relu2 <- ip2
I0428 19:44:37.926784 25641 net.cpp:369] relu2 -> ip2 (in-place)
I0428 19:44:37.926991 25641 net.cpp:124] Setting up relu2
I0428 19:44:37.927000 25641 net.cpp:131] Top shape: 100 10 (1000)
I0428 19:44:37.927003 25641 net.cpp:139] Memory required for data: 2518800
I0428 19:44:37.927006 25641 layer_factory.hpp:77] Creating layer ip3
I0428 19:44:37.927013 25641 net.cpp:86] Creating Layer ip3
I0428 19:44:37.927016 25641 net.cpp:408] ip3 <- ip2
I0428 19:44:37.927021 25641 net.cpp:382] ip3 -> ip3
I0428 19:44:37.927135 25641 net.cpp:124] Setting up ip3
I0428 19:44:37.927144 25641 net.cpp:131] Top shape: 100 10 (1000)
I0428 19:44:37.927146 25641 net.cpp:139] Memory required for data: 2522800
I0428 19:44:37.927155 25641 layer_factory.hpp:77] Creating layer relu3
I0428 19:44:37.927160 25641 net.cpp:86] Creating Layer relu3
I0428 19:44:37.927162 25641 net.cpp:408] relu3 <- ip3
I0428 19:44:37.927167 25641 net.cpp:369] relu3 -> ip3 (in-place)
I0428 19:44:37.928036 25641 net.cpp:124] Setting up relu3
I0428 19:44:37.928050 25641 net.cpp:131] Top shape: 100 10 (1000)
I0428 19:44:37.928066 25641 net.cpp:139] Memory required for data: 2526800
I0428 19:44:37.928069 25641 layer_factory.hpp:77] Creating layer ip3_relu3_0_split
I0428 19:44:37.928092 25641 net.cpp:86] Creating Layer ip3_relu3_0_split
I0428 19:44:37.928094 25641 net.cpp:408] ip3_relu3_0_split <- ip3
I0428 19:44:37.928099 25641 net.cpp:382] ip3_relu3_0_split -> ip3_relu3_0_split_0
I0428 19:44:37.928105 25641 net.cpp:382] ip3_relu3_0_split -> ip3_relu3_0_split_1
I0428 19:44:37.928144 25641 net.cpp:124] Setting up ip3_relu3_0_split
I0428 19:44:37.928151 25641 net.cpp:131] Top shape: 100 10 (1000)
I0428 19:44:37.928155 25641 net.cpp:131] Top shape: 100 10 (1000)
I0428 19:44:37.928158 25641 net.cpp:139] Memory required for data: 2534800
I0428 19:44:37.928160 25641 layer_factory.hpp:77] Creating layer accuracy
I0428 19:44:37.928166 25641 net.cpp:86] Creating Layer accuracy
I0428 19:44:37.928169 25641 net.cpp:408] accuracy <- ip3_relu3_0_split_0
I0428 19:44:37.928174 25641 net.cpp:408] accuracy <- label_mnist_1_split_0
I0428 19:44:37.928179 25641 net.cpp:382] accuracy -> accuracy
…
