…
I0428 20:04:20.921999 30367 net.cpp:296] The NetState phase (0) differed from the phase (1) specified by a rule in layer mnist
I0428 20:04:20.922021 30367 net.cpp:296] The NetState phase (0) differed from the phase (1) specified by a rule in layer accuracy
I0428 20:04:20.922122 30367 net.cpp:53] Initializing net from parameters: 
name: "LeNet"
state {
  phase: TRAIN
  level: 0
  stage: ""
}
layer {
  name: "mnist"
  type: "Data"
  top: "data"
  top: "label"
  include {
    phase: TRAIN
  }
  transform_param {
    scale: 0.00390625
  }
  data_param {
    source: "examples/mnist/mnist_train_lmdb"
    batch_size: 64
    backend: LMDB
  }
}
layer {
  name: "conv0"
  type: "Convolution"
  bottom: "data"
  top: "conv0"
  param {
    lr_mult: 1
  }
  param {
    lr_mult: 2
  }
  convolution_param {
    num_output: 10
    kernel_size: 5
    stride: 1
    weight_filler {
      type: "xavier"
    }
    bias_filler {
      type: "constant"
    }
  }
}
layer {
  name: "pool0"
  type: "Pooling"
  bottom: "conv0"
  top: "pool0"
  pooling_param {
    pool: MAX
    kernel_size: 2
    stride: 2
  }
}
layer {
  name: "conv1"
  type: "Convolution"
  bottom: "pool0"
  top: "conv1"
  param {
    lr_mult: 1
  }
  param {
    lr_mult: 2
  }
  convolution_param {
    num_output: 100
    kernel_size: 5
    stride: 1
    weight_filler {
      type: "xavier"
    }
    bias_filler {
      type: "constant"
    }
  }
}
layer {
  name: "pool1"
  type: "Pooling"
  bottom: "conv1"
  top: "pool1"
  pooling_param {
    pool: MAX
    kernel_size: 2
    stride: 2
  }
}
layer {
  name: "ip1"
  type: "InnerProduct"
  bottom: "pool1"
  top: "ip1"
  param {
    lr_mult: 1
  }
  param {
    lr_mult: 2
  }
  inner_product_param {
    num_output: 50
    weight_filler {
      type: "xavier"
    }
    bias_filler {
      type: "constant"
    }
  }
}
layer {
  name: "relu1"
  type: "ReLU"
  bottom: "ip1"
  top: "ip1"
}
layer {
  name: "ip2"
  type: "InnerProduct"
  bottom: "ip1"
  top: "ip2"
  param {
    lr_mult: 1
  }
  param {
    lr_mult: 2
  }
  inner_product_param {
    num_output: 25
    weight_filler {
      type: "xavier"
    }
    bias_filler {
      type: "constant"
    }
  }
}
layer {
  name: "relu2"
  type: "ReLU"
  bottom: "ip2"
  top: "ip2"
}
layer {
  name: "ip3"
  type: "InnerProduct"
  bottom: "ip2"
  top: "ip3"
  param {
    lr_mult: 1
  }
  param {
    lr_mult: 2
  }
  inner_product_param {
    num_output: 10
    weight_filler {
      type: "xavier"
    }
    bias_filler {
      type: "constant"
    }
  }
}
layer {
  name: "relu3"
  type: "ReLU"
  bottom: "ip3"
  top: "ip3"
}
layer {
  name: "loss"
  type: "SoftmaxWithLoss"
  bottom: "ip3"
  bottom: "label"
  top: "loss"
}
I0428 20:04:20.922201 30367 layer_factory.hpp:77] Creating layer mnist
I0428 20:04:20.922299 30367 db_lmdb.cpp:35] Opened lmdb examples/mnist/mnist_train_lmdb
I0428 20:04:20.922322 30367 net.cpp:86] Creating Layer mnist
I0428 20:04:20.922334 30367 net.cpp:382] mnist -> data
I0428 20:04:20.922356 30367 net.cpp:382] mnist -> label
I0428 20:04:20.923454 30367 data_layer.cpp:45] output data size: 64,1,28,28
I0428 20:04:20.925909 30367 net.cpp:124] Setting up mnist
I0428 20:04:20.925927 30367 net.cpp:131] Top shape: 64 1 28 28 (50176)
I0428 20:04:20.925933 30367 net.cpp:131] Top shape: 64 (64)
I0428 20:04:20.925936 30367 net.cpp:139] Memory required for data: 200960
I0428 20:04:20.925943 30367 layer_factory.hpp:77] Creating layer conv0
I0428 20:04:20.925972 30367 net.cpp:86] Creating Layer conv0
I0428 20:04:20.925994 30367 net.cpp:408] conv0 <- data
I0428 20:04:20.926007 30367 net.cpp:382] conv0 -> conv0
I0428 20:04:21.175819 30367 net.cpp:124] Setting up conv0
I0428 20:04:21.175863 30367 net.cpp:131] Top shape: 64 10 24 24 (368640)
I0428 20:04:21.175868 30367 net.cpp:139] Memory required for data: 1675520
I0428 20:04:21.175881 30367 layer_factory.hpp:77] Creating layer pool0
I0428 20:04:21.175895 30367 net.cpp:86] Creating Layer pool0
I0428 20:04:21.175899 30367 net.cpp:408] pool0 <- conv0
I0428 20:04:21.175904 30367 net.cpp:382] pool0 -> pool0
I0428 20:04:21.175967 30367 net.cpp:124] Setting up pool0
I0428 20:04:21.175972 30367 net.cpp:131] Top shape: 64 10 12 12 (92160)
I0428 20:04:21.175976 30367 net.cpp:139] Memory required for data: 2044160
I0428 20:04:21.175978 30367 layer_factory.hpp:77] Creating layer conv1
I0428 20:04:21.175989 30367 net.cpp:86] Creating Layer conv1
I0428 20:04:21.175993 30367 net.cpp:408] conv1 <- pool0
I0428 20:04:21.175998 30367 net.cpp:382] conv1 -> conv1
I0428 20:04:21.178081 30367 net.cpp:124] Setting up conv1
I0428 20:04:21.178094 30367 net.cpp:131] Top shape: 64 100 8 8 (409600)
I0428 20:04:21.178098 30367 net.cpp:139] Memory required for data: 3682560
I0428 20:04:21.178107 30367 layer_factory.hpp:77] Creating layer pool1
I0428 20:04:21.178115 30367 net.cpp:86] Creating Layer pool1
I0428 20:04:21.178118 30367 net.cpp:408] pool1 <- conv1
I0428 20:04:21.178123 30367 net.cpp:382] pool1 -> pool1
I0428 20:04:21.178158 30367 net.cpp:124] Setting up pool1
I0428 20:04:21.178164 30367 net.cpp:131] Top shape: 64 100 4 4 (102400)
I0428 20:04:21.178166 30367 net.cpp:139] Memory required for data: 4092160
I0428 20:04:21.178169 30367 layer_factory.hpp:77] Creating layer ip1
I0428 20:04:21.178176 30367 net.cpp:86] Creating Layer ip1
I0428 20:04:21.178179 30367 net.cpp:408] ip1 <- pool1
I0428 20:04:21.178184 30367 net.cpp:382] ip1 -> ip1
I0428 20:04:21.179659 30367 net.cpp:124] Setting up ip1
I0428 20:04:21.179672 30367 net.cpp:131] Top shape: 64 50 (3200)
I0428 20:04:21.179690 30367 net.cpp:139] Memory required for data: 4104960
I0428 20:04:21.179698 30367 layer_factory.hpp:77] Creating layer relu1
I0428 20:04:21.179704 30367 net.cpp:86] Creating Layer relu1
I0428 20:04:21.179708 30367 net.cpp:408] relu1 <- ip1
I0428 20:04:21.179713 30367 net.cpp:369] relu1 -> ip1 (in-place)
I0428 20:04:21.179922 30367 net.cpp:124] Setting up relu1
I0428 20:04:21.179930 30367 net.cpp:131] Top shape: 64 50 (3200)
I0428 20:04:21.179934 30367 net.cpp:139] Memory required for data: 4117760
I0428 20:04:21.179937 30367 layer_factory.hpp:77] Creating layer ip2
I0428 20:04:21.179944 30367 net.cpp:86] Creating Layer ip2
I0428 20:04:21.179946 30367 net.cpp:408] ip2 <- ip1
I0428 20:04:21.179966 30367 net.cpp:382] ip2 -> ip2
I0428 20:04:21.181094 30367 net.cpp:124] Setting up ip2
I0428 20:04:21.181108 30367 net.cpp:131] Top shape: 64 25 (1600)
I0428 20:04:21.181113 30367 net.cpp:139] Memory required for data: 4124160
I0428 20:04:21.181133 30367 layer_factory.hpp:77] Creating layer relu2
I0428 20:04:21.181140 30367 net.cpp:86] Creating Layer relu2
I0428 20:04:21.181144 30367 net.cpp:408] relu2 <- ip2
I0428 20:04:21.181149 30367 net.cpp:369] relu2 -> ip2 (in-place)
I0428 20:04:21.181888 30367 net.cpp:124] Setting up relu2
I0428 20:04:21.181900 30367 net.cpp:131] Top shape: 64 25 (1600)
I0428 20:04:21.181905 30367 net.cpp:139] Memory required for data: 4130560
I0428 20:04:21.181908 30367 layer_factory.hpp:77] Creating layer ip3
I0428 20:04:21.181915 30367 net.cpp:86] Creating Layer ip3
I0428 20:04:21.181918 30367 net.cpp:408] ip3 <- ip2
I0428 20:04:21.181923 30367 net.cpp:382] ip3 -> ip3
I0428 20:04:21.182023 30367 net.cpp:124] Setting up ip3
I0428 20:04:21.182046 30367 net.cpp:131] Top shape: 64 10 (640)
I0428 20:04:21.182049 30367 net.cpp:139] Memory required for data: 4133120
I0428 20:04:21.182056 30367 layer_factory.hpp:77] Creating layer relu3
I0428 20:04:21.182061 30367 net.cpp:86] Creating Layer relu3
I0428 20:04:21.182065 30367 net.cpp:408] relu3 <- ip3
I0428 20:04:21.182070 30367 net.cpp:369] relu3 -> ip3 (in-place)
I0428 20:04:21.182235 30367 net.cpp:124] Setting up relu3
I0428 20:04:21.182245 30367 net.cpp:131] Top shape: 64 10 (640)
I0428 20:04:21.182248 30367 net.cpp:139] Memory required for data: 4135680
I0428 20:04:21.182251 30367 layer_factory.hpp:77] Creating layer loss
I0428 20:04:21.182257 30367 net.cpp:86] Creating Layer loss
I0428 20:04:21.182260 30367 net.cpp:408] loss <- ip3
I0428 20:04:21.182265 30367 net.cpp:408] loss <- label
I0428 20:04:21.182271 30367 net.cpp:382] loss -> loss
I0428 20:04:21.182286 30367 layer_factory.hpp:77] Creating layer loss
…
I0428 20:04:21.182942 30367 solver.cpp:173] Creating test net (#0) specified by net file: ECE595/mnist/train_test/var_everything2/lenet_train_test970.prototxt
I0428 20:04:21.182999 30367 net.cpp:296] The NetState phase (1) differed from the phase (0) specified by a rule in layer mnist
I0428 20:04:21.183086 30367 net.cpp:53] Initializing net from parameters: 
name: "LeNet"
state {
  phase: TEST
}
layer {
  name: "mnist"
  type: "Data"
  top: "data"
  top: "label"
  include {
    phase: TEST
  }
  transform_param {
    scale: 0.00390625
  }
  data_param {
    source: "examples/mnist/mnist_test_lmdb"
    batch_size: 100
    backend: LMDB
  }
}
layer {
  name: "conv0"
  type: "Convolution"
  bottom: "data"
  top: "conv0"
  param {
    lr_mult: 1
  }
  param {
    lr_mult: 2
  }
  convolution_param {
    num_output: 10
    kernel_size: 5
    stride: 1
    weight_filler {
      type: "xavier"
    }
    bias_filler {
      type: "constant"
    }
  }
}
layer {
  name: "pool0"
  type: "Pooling"
  bottom: "conv0"
  top: "pool0"
  pooling_param {
    pool: MAX
    kernel_size: 2
    stride: 2
  }
}
layer {
  name: "conv1"
  type: "Convolution"
  bottom: "pool0"
  top: "conv1"
  param {
    lr_mult: 1
  }
  param {
    lr_mult: 2
  }
  convolution_param {
    num_output: 100
    kernel_size: 5
    stride: 1
    weight_filler {
      type: "xavier"
    }
    bias_filler {
      type: "constant"
    }
  }
}
layer {
  name: "pool1"
  type: "Pooling"
  bottom: "conv1"
  top: "pool1"
  pooling_param {
    pool: MAX
    kernel_size: 2
    stride: 2
  }
}
layer {
  name: "ip1"
  type: "InnerProduct"
  bottom: "pool1"
  top: "ip1"
  param {
    lr_mult: 1
  }
  param {
    lr_mult: 2
  }
  inner_product_param {
    num_output: 50
    weight_filler {
      type: "xavier"
    }
    bias_filler {
      type: "constant"
    }
  }
}
layer {
  name: "relu1"
  type: "ReLU"
  bottom: "ip1"
  top: "ip1"
}
layer {
  name: "ip2"
  type: "InnerProduct"
  bottom: "ip1"
  top: "ip2"
  param {
    lr_mult: 1
  }
  param {
    lr_mult: 2
  }
  inner_product_param {
    num_output: 25
    weight_filler {
      type: "xavier"
    }
    bias_filler {
      type: "constant"
    }
  }
}
layer {
  name: "relu2"
  type: "ReLU"
  bottom: "ip2"
  top: "ip2"
}
layer {
  name: "ip3"
  type: "InnerProduct"
  bottom: "ip2"
  top: "ip3"
  param {
    lr_mult: 1
  }
  param {
    lr_mult: 2
  }
  inner_product_param {
    num_output: 10
    weight_filler {
      type: "xavier"
    }
    bias_filler {
      type: "constant"
    }
  }
}
layer {
  name: "relu3"
  type: "ReLU"
  bottom: "ip3"
  top: "ip3"
}
layer {
  name: "accuracy"
  type: "Accuracy"
  bottom: "ip3"
  bottom: "label"
  top: "accuracy"
  include {
    phase: TEST
  }
}
layer {
  name: "loss"
  type: "SoftmaxWithLoss"
  bottom: "ip3"
  bottom: "label"
  top: "loss"
}
I0428 20:04:21.183166 30367 layer_factory.hpp:77] Creating layer mnist
I0428 20:04:21.183209 30367 db_lmdb.cpp:35] Opened lmdb examples/mnist/mnist_test_lmdb
I0428 20:04:21.183221 30367 net.cpp:86] Creating Layer mnist
I0428 20:04:21.183225 30367 net.cpp:382] mnist -> data
I0428 20:04:21.183233 30367 net.cpp:382] mnist -> label
I0428 20:04:21.183315 30367 data_layer.cpp:45] output data size: 100,1,28,28
I0428 20:04:21.184434 30367 net.cpp:124] Setting up mnist
I0428 20:04:21.184461 30367 net.cpp:131] Top shape: 100 1 28 28 (78400)
I0428 20:04:21.184466 30367 net.cpp:131] Top shape: 100 (100)
I0428 20:04:21.184469 30367 net.cpp:139] Memory required for data: 314000
I0428 20:04:21.184473 30367 layer_factory.hpp:77] Creating layer label_mnist_1_split
I0428 20:04:21.184479 30367 net.cpp:86] Creating Layer label_mnist_1_split
I0428 20:04:21.184484 30367 net.cpp:408] label_mnist_1_split <- label
I0428 20:04:21.184487 30367 net.cpp:382] label_mnist_1_split -> label_mnist_1_split_0
I0428 20:04:21.184494 30367 net.cpp:382] label_mnist_1_split -> label_mnist_1_split_1
I0428 20:04:21.184581 30367 net.cpp:124] Setting up label_mnist_1_split
I0428 20:04:21.184587 30367 net.cpp:131] Top shape: 100 (100)
I0428 20:04:21.184592 30367 net.cpp:131] Top shape: 100 (100)
I0428 20:04:21.184593 30367 net.cpp:139] Memory required for data: 314800
I0428 20:04:21.184597 30367 layer_factory.hpp:77] Creating layer conv0
I0428 20:04:21.184605 30367 net.cpp:86] Creating Layer conv0
I0428 20:04:21.184608 30367 net.cpp:408] conv0 <- data
I0428 20:04:21.184613 30367 net.cpp:382] conv0 -> conv0
I0428 20:04:21.186316 30367 net.cpp:124] Setting up conv0
I0428 20:04:21.186344 30367 net.cpp:131] Top shape: 100 10 24 24 (576000)
I0428 20:04:21.186348 30367 net.cpp:139] Memory required for data: 2618800
I0428 20:04:21.186357 30367 layer_factory.hpp:77] Creating layer pool0
I0428 20:04:21.186362 30367 net.cpp:86] Creating Layer pool0
I0428 20:04:21.186367 30367 net.cpp:408] pool0 <- conv0
I0428 20:04:21.186370 30367 net.cpp:382] pool0 -> pool0
I0428 20:04:21.186403 30367 net.cpp:124] Setting up pool0
I0428 20:04:21.186408 30367 net.cpp:131] Top shape: 100 10 12 12 (144000)
I0428 20:04:21.186410 30367 net.cpp:139] Memory required for data: 3194800
I0428 20:04:21.186414 30367 layer_factory.hpp:77] Creating layer conv1
I0428 20:04:21.186420 30367 net.cpp:86] Creating Layer conv1
I0428 20:04:21.186424 30367 net.cpp:408] conv1 <- pool0
I0428 20:04:21.186429 30367 net.cpp:382] conv1 -> conv1
I0428 20:04:21.188045 30367 net.cpp:124] Setting up conv1
I0428 20:04:21.188072 30367 net.cpp:131] Top shape: 100 100 8 8 (640000)
I0428 20:04:21.188076 30367 net.cpp:139] Memory required for data: 5754800
I0428 20:04:21.188099 30367 layer_factory.hpp:77] Creating layer pool1
I0428 20:04:21.188107 30367 net.cpp:86] Creating Layer pool1
I0428 20:04:21.188110 30367 net.cpp:408] pool1 <- conv1
I0428 20:04:21.188115 30367 net.cpp:382] pool1 -> pool1
I0428 20:04:21.188150 30367 net.cpp:124] Setting up pool1
I0428 20:04:21.188155 30367 net.cpp:131] Top shape: 100 100 4 4 (160000)
I0428 20:04:21.188158 30367 net.cpp:139] Memory required for data: 6394800
I0428 20:04:21.188161 30367 layer_factory.hpp:77] Creating layer ip1
I0428 20:04:21.188168 30367 net.cpp:86] Creating Layer ip1
I0428 20:04:21.188170 30367 net.cpp:408] ip1 <- pool1
I0428 20:04:21.188181 30367 net.cpp:382] ip1 -> ip1
I0428 20:04:21.188771 30367 net.cpp:124] Setting up ip1
I0428 20:04:21.188778 30367 net.cpp:131] Top shape: 100 50 (5000)
I0428 20:04:21.188807 30367 net.cpp:139] Memory required for data: 6414800
I0428 20:04:21.188837 30367 layer_factory.hpp:77] Creating layer relu1
I0428 20:04:21.188841 30367 net.cpp:86] Creating Layer relu1
I0428 20:04:21.188850 30367 net.cpp:408] relu1 <- ip1
I0428 20:04:21.188855 30367 net.cpp:369] relu1 -> ip1 (in-place)
I0428 20:04:21.189035 30367 net.cpp:124] Setting up relu1
I0428 20:04:21.189044 30367 net.cpp:131] Top shape: 100 50 (5000)
I0428 20:04:21.189047 30367 net.cpp:139] Memory required for data: 6434800
I0428 20:04:21.189050 30367 layer_factory.hpp:77] Creating layer ip2
I0428 20:04:21.189057 30367 net.cpp:86] Creating Layer ip2
I0428 20:04:21.189060 30367 net.cpp:408] ip2 <- ip1
I0428 20:04:21.189065 30367 net.cpp:382] ip2 -> ip2
I0428 20:04:21.189265 30367 net.cpp:124] Setting up ip2
I0428 20:04:21.189272 30367 net.cpp:131] Top shape: 100 25 (2500)
I0428 20:04:21.189275 30367 net.cpp:139] Memory required for data: 6444800
I0428 20:04:21.189281 30367 layer_factory.hpp:77] Creating layer relu2
I0428 20:04:21.189285 30367 net.cpp:86] Creating Layer relu2
I0428 20:04:21.189290 30367 net.cpp:408] relu2 <- ip2
I0428 20:04:21.189293 30367 net.cpp:369] relu2 -> ip2 (in-place)
I0428 20:04:21.189438 30367 net.cpp:124] Setting up relu2
I0428 20:04:21.189447 30367 net.cpp:131] Top shape: 100 25 (2500)
I0428 20:04:21.189450 30367 net.cpp:139] Memory required for data: 6454800
I0428 20:04:21.189453 30367 layer_factory.hpp:77] Creating layer ip3
I0428 20:04:21.189460 30367 net.cpp:86] Creating Layer ip3
I0428 20:04:21.189462 30367 net.cpp:408] ip3 <- ip2
I0428 20:04:21.189467 30367 net.cpp:382] ip3 -> ip3
I0428 20:04:21.189584 30367 net.cpp:124] Setting up ip3
I0428 20:04:21.189590 30367 net.cpp:131] Top shape: 100 10 (1000)
I0428 20:04:21.189594 30367 net.cpp:139] Memory required for data: 6458800
I0428 20:04:21.189600 30367 layer_factory.hpp:77] Creating layer relu3
I0428 20:04:21.189604 30367 net.cpp:86] Creating Layer relu3
I0428 20:04:21.189607 30367 net.cpp:408] relu3 <- ip3
I0428 20:04:21.189611 30367 net.cpp:369] relu3 -> ip3 (in-place)
I0428 20:04:21.190407 30367 net.cpp:124] Setting up relu3
I0428 20:04:21.190419 30367 net.cpp:131] Top shape: 100 10 (1000)
I0428 20:04:21.190438 30367 net.cpp:139] Memory required for data: 6462800
I0428 20:04:21.190441 30367 layer_factory.hpp:77] Creating layer ip3_relu3_0_split
I0428 20:04:21.190446 30367 net.cpp:86] Creating Layer ip3_relu3_0_split
I0428 20:04:21.190450 30367 net.cpp:408] ip3_relu3_0_split <- ip3
I0428 20:04:21.190455 30367 net.cpp:382] ip3_relu3_0_split -> ip3_relu3_0_split_0
I0428 20:04:21.190461 30367 net.cpp:382] ip3_relu3_0_split -> ip3_relu3_0_split_1
I0428 20:04:21.190533 30367 net.cpp:124] Setting up ip3_relu3_0_split
I0428 20:04:21.190541 30367 net.cpp:131] Top shape: 100 10 (1000)
I0428 20:04:21.190544 30367 net.cpp:131] Top shape: 100 10 (1000)
I0428 20:04:21.190547 30367 net.cpp:139] Memory required for data: 6470800
I0428 20:04:21.190551 30367 layer_factory.hpp:77] Creating layer accuracy
I0428 20:04:21.190556 30367 net.cpp:86] Creating Layer accuracy
I0428 20:04:21.190559 30367 net.cpp:408] accuracy <- ip3_relu3_0_split_0
I0428 20:04:21.190563 30367 net.cpp:408] accuracy <- label_mnist_1_split_0
I0428 20:04:21.190568 30367 net.cpp:382] accuracy -> accuracy
…
