…
I0428 19:33:32.805956 23125 net.cpp:296] The NetState phase (0) differed from the phase (1) specified by a rule in layer mnist
I0428 19:33:32.805977 23125 net.cpp:296] The NetState phase (0) differed from the phase (1) specified by a rule in layer accuracy
I0428 19:33:32.806071 23125 net.cpp:53] Initializing net from parameters: 
name: "LeNet"
state {
  phase: TRAIN
  level: 0
  stage: ""
}
layer {
  name: "mnist"
  type: "Data"
  top: "data"
  top: "label"
  include {
    phase: TRAIN
  }
  transform_param {
    scale: 0.00390625
  }
  data_param {
    source: "examples/mnist/mnist_train_lmdb"
    batch_size: 64
    backend: LMDB
  }
}
layer {
  name: "conv0"
  type: "Convolution"
  bottom: "data"
  top: "conv0"
  param {
    lr_mult: 1
  }
  param {
    lr_mult: 2
  }
  convolution_param {
    num_output: 25
    kernel_size: 5
    stride: 1
    weight_filler {
      type: "xavier"
    }
    bias_filler {
      type: "constant"
    }
  }
}
layer {
  name: "pool0"
  type: "Pooling"
  bottom: "conv0"
  top: "pool0"
  pooling_param {
    pool: MAX
    kernel_size: 2
    stride: 2
  }
}
layer {
  name: "ip1"
  type: "InnerProduct"
  bottom: "pool0"
  top: "ip1"
  param {
    lr_mult: 1
  }
  param {
    lr_mult: 2
  }
  inner_product_param {
    num_output: 25
    weight_filler {
      type: "xavier"
    }
    bias_filler {
      type: "constant"
    }
  }
}
layer {
  name: "relu1"
  type: "ReLU"
  bottom: "ip1"
  top: "ip1"
}
layer {
  name: "ip2"
  type: "InnerProduct"
  bottom: "ip1"
  top: "ip2"
  param {
    lr_mult: 1
  }
  param {
    lr_mult: 2
  }
  inner_product_param {
    num_output: 25
    weight_filler {
      type: "xavier"
    }
    bias_filler {
      type: "constant"
    }
  }
}
layer {
  name: "relu2"
  type: "ReLU"
  bottom: "ip2"
  top: "ip2"
}
layer {
  name: "ip3"
  type: "InnerProduct"
  bottom: "ip2"
  top: "ip3"
  param {
    lr_mult: 1
  }
  param {
    lr_mult: 2
  }
  inner_product_param {
    num_output: 10
    weight_filler {
      type: "xavier"
    }
    bias_filler {
      type: "constant"
    }
  }
}
layer {
  name: "relu3"
  type: "ReLU"
  bottom: "ip3"
  top: "ip3"
}
layer {
  name: "loss"
  type: "SoftmaxWithLoss"
  bottom: "ip3"
  bottom: "label"
  top: "loss"
}
I0428 19:33:32.806169 23125 layer_factory.hpp:77] Creating layer mnist
I0428 19:33:32.806303 23125 db_lmdb.cpp:35] Opened lmdb examples/mnist/mnist_train_lmdb
I0428 19:33:32.806336 23125 net.cpp:86] Creating Layer mnist
I0428 19:33:32.806349 23125 net.cpp:382] mnist -> data
I0428 19:33:32.806380 23125 net.cpp:382] mnist -> label
I0428 19:33:32.807613 23125 data_layer.cpp:45] output data size: 64,1,28,28
I0428 19:33:32.810101 23125 net.cpp:124] Setting up mnist
I0428 19:33:32.810122 23125 net.cpp:131] Top shape: 64 1 28 28 (50176)
I0428 19:33:32.810132 23125 net.cpp:131] Top shape: 64 (64)
I0428 19:33:32.810137 23125 net.cpp:139] Memory required for data: 200960
I0428 19:33:32.810148 23125 layer_factory.hpp:77] Creating layer conv0
I0428 19:33:32.810171 23125 net.cpp:86] Creating Layer conv0
I0428 19:33:32.810183 23125 net.cpp:408] conv0 <- data
I0428 19:33:32.810199 23125 net.cpp:382] conv0 -> conv0
I0428 19:33:33.099582 23125 net.cpp:124] Setting up conv0
I0428 19:33:33.099611 23125 net.cpp:131] Top shape: 64 25 24 24 (921600)
I0428 19:33:33.099617 23125 net.cpp:139] Memory required for data: 3887360
I0428 19:33:33.099639 23125 layer_factory.hpp:77] Creating layer pool0
I0428 19:33:33.099658 23125 net.cpp:86] Creating Layer pool0
I0428 19:33:33.099685 23125 net.cpp:408] pool0 <- conv0
I0428 19:33:33.099696 23125 net.cpp:382] pool0 -> pool0
I0428 19:33:33.099756 23125 net.cpp:124] Setting up pool0
I0428 19:33:33.099766 23125 net.cpp:131] Top shape: 64 25 12 12 (230400)
I0428 19:33:33.099771 23125 net.cpp:139] Memory required for data: 4808960
I0428 19:33:33.099776 23125 layer_factory.hpp:77] Creating layer ip1
I0428 19:33:33.099788 23125 net.cpp:86] Creating Layer ip1
I0428 19:33:33.099799 23125 net.cpp:408] ip1 <- pool0
I0428 19:33:33.099808 23125 net.cpp:382] ip1 -> ip1
I0428 19:33:33.101372 23125 net.cpp:124] Setting up ip1
I0428 19:33:33.101387 23125 net.cpp:131] Top shape: 64 25 (1600)
I0428 19:33:33.101393 23125 net.cpp:139] Memory required for data: 4815360
I0428 19:33:33.101408 23125 layer_factory.hpp:77] Creating layer relu1
I0428 19:33:33.101419 23125 net.cpp:86] Creating Layer relu1
I0428 19:33:33.101431 23125 net.cpp:408] relu1 <- ip1
I0428 19:33:33.101440 23125 net.cpp:369] relu1 -> ip1 (in-place)
I0428 19:33:33.101622 23125 net.cpp:124] Setting up relu1
I0428 19:33:33.101634 23125 net.cpp:131] Top shape: 64 25 (1600)
I0428 19:33:33.101639 23125 net.cpp:139] Memory required for data: 4821760
I0428 19:33:33.101645 23125 layer_factory.hpp:77] Creating layer ip2
I0428 19:33:33.101657 23125 net.cpp:86] Creating Layer ip2
I0428 19:33:33.101665 23125 net.cpp:408] ip2 <- ip1
I0428 19:33:33.101673 23125 net.cpp:382] ip2 -> ip2
I0428 19:33:33.101784 23125 net.cpp:124] Setting up ip2
I0428 19:33:33.101794 23125 net.cpp:131] Top shape: 64 25 (1600)
I0428 19:33:33.101799 23125 net.cpp:139] Memory required for data: 4828160
I0428 19:33:33.101812 23125 layer_factory.hpp:77] Creating layer relu2
I0428 19:33:33.101824 23125 net.cpp:86] Creating Layer relu2
I0428 19:33:33.101831 23125 net.cpp:408] relu2 <- ip2
I0428 19:33:33.101840 23125 net.cpp:369] relu2 -> ip2 (in-place)
I0428 19:33:33.102609 23125 net.cpp:124] Setting up relu2
I0428 19:33:33.102624 23125 net.cpp:131] Top shape: 64 25 (1600)
I0428 19:33:33.102630 23125 net.cpp:139] Memory required for data: 4834560
I0428 19:33:33.102636 23125 layer_factory.hpp:77] Creating layer ip3
I0428 19:33:33.102648 23125 net.cpp:86] Creating Layer ip3
I0428 19:33:33.102653 23125 net.cpp:408] ip3 <- ip2
I0428 19:33:33.102663 23125 net.cpp:382] ip3 -> ip3
I0428 19:33:33.102769 23125 net.cpp:124] Setting up ip3
I0428 19:33:33.102779 23125 net.cpp:131] Top shape: 64 10 (640)
I0428 19:33:33.102784 23125 net.cpp:139] Memory required for data: 4837120
I0428 19:33:33.102794 23125 layer_factory.hpp:77] Creating layer relu3
I0428 19:33:33.102805 23125 net.cpp:86] Creating Layer relu3
I0428 19:33:33.102813 23125 net.cpp:408] relu3 <- ip3
I0428 19:33:33.102819 23125 net.cpp:369] relu3 -> ip3 (in-place)
I0428 19:33:33.102982 23125 net.cpp:124] Setting up relu3
I0428 19:33:33.102993 23125 net.cpp:131] Top shape: 64 10 (640)
I0428 19:33:33.102999 23125 net.cpp:139] Memory required for data: 4839680
I0428 19:33:33.103004 23125 layer_factory.hpp:77] Creating layer loss
I0428 19:33:33.103014 23125 net.cpp:86] Creating Layer loss
I0428 19:33:33.103019 23125 net.cpp:408] loss <- ip3
I0428 19:33:33.103027 23125 net.cpp:408] loss <- label
I0428 19:33:33.103036 23125 net.cpp:382] loss -> loss
I0428 19:33:33.103060 23125 layer_factory.hpp:77] Creating layer loss
…
I0428 19:33:33.103734 23125 solver.cpp:173] Creating test net (#0) specified by net file: ECE595/mnist/train_test/var_everything2/lenet_train_test182.prototxt
I0428 19:33:33.103767 23125 net.cpp:296] The NetState phase (1) differed from the phase (0) specified by a rule in layer mnist
I0428 19:33:33.103858 23125 net.cpp:53] Initializing net from parameters: 
name: "LeNet"
state {
  phase: TEST
}
layer {
  name: "mnist"
  type: "Data"
  top: "data"
  top: "label"
  include {
    phase: TEST
  }
  transform_param {
    scale: 0.00390625
  }
  data_param {
    source: "examples/mnist/mnist_test_lmdb"
    batch_size: 100
    backend: LMDB
  }
}
layer {
  name: "conv0"
  type: "Convolution"
  bottom: "data"
  top: "conv0"
  param {
    lr_mult: 1
  }
  param {
    lr_mult: 2
  }
  convolution_param {
    num_output: 25
    kernel_size: 5
    stride: 1
    weight_filler {
      type: "xavier"
    }
    bias_filler {
      type: "constant"
    }
  }
}
layer {
  name: "pool0"
  type: "Pooling"
  bottom: "conv0"
  top: "pool0"
  pooling_param {
    pool: MAX
    kernel_size: 2
    stride: 2
  }
}
layer {
  name: "ip1"
  type: "InnerProduct"
  bottom: "pool0"
  top: "ip1"
  param {
    lr_mult: 1
  }
  param {
    lr_mult: 2
  }
  inner_product_param {
    num_output: 25
    weight_filler {
      type: "xavier"
    }
    bias_filler {
      type: "constant"
    }
  }
}
layer {
  name: "relu1"
  type: "ReLU"
  bottom: "ip1"
  top: "ip1"
}
layer {
  name: "ip2"
  type: "InnerProduct"
  bottom: "ip1"
  top: "ip2"
  param {
    lr_mult: 1
  }
  param {
    lr_mult: 2
  }
  inner_product_param {
    num_output: 25
    weight_filler {
      type: "xavier"
    }
    bias_filler {
      type: "constant"
    }
  }
}
layer {
  name: "relu2"
  type: "ReLU"
  bottom: "ip2"
  top: "ip2"
}
layer {
  name: "ip3"
  type: "InnerProduct"
  bottom: "ip2"
  top: "ip3"
  param {
    lr_mult: 1
  }
  param {
    lr_mult: 2
  }
  inner_product_param {
    num_output: 10
    weight_filler {
      type: "xavier"
    }
    bias_filler {
      type: "constant"
    }
  }
}
layer {
  name: "relu3"
  type: "ReLU"
  bottom: "ip3"
  top: "ip3"
}
layer {
  name: "accuracy"
  type: "Accuracy"
  bottom: "ip3"
  bottom: "label"
  top: "accuracy"
  include {
    phase: TEST
  }
}
layer {
  name: "loss"
  type: "SoftmaxWithLoss"
  bottom: "ip3"
  bottom: "label"
  top: "loss"
}
I0428 19:33:33.103960 23125 layer_factory.hpp:77] Creating layer mnist
I0428 19:33:33.104018 23125 db_lmdb.cpp:35] Opened lmdb examples/mnist/mnist_test_lmdb
I0428 19:33:33.104041 23125 net.cpp:86] Creating Layer mnist
I0428 19:33:33.104049 23125 net.cpp:382] mnist -> data
I0428 19:33:33.104061 23125 net.cpp:382] mnist -> label
I0428 19:33:33.104184 23125 data_layer.cpp:45] output data size: 100,1,28,28
I0428 19:33:33.105428 23125 net.cpp:124] Setting up mnist
I0428 19:33:33.105444 23125 net.cpp:131] Top shape: 100 1 28 28 (78400)
I0428 19:33:33.105453 23125 net.cpp:131] Top shape: 100 (100)
I0428 19:33:33.105458 23125 net.cpp:139] Memory required for data: 314000
I0428 19:33:33.105465 23125 layer_factory.hpp:77] Creating layer label_mnist_1_split
I0428 19:33:33.105490 23125 net.cpp:86] Creating Layer label_mnist_1_split
I0428 19:33:33.105497 23125 net.cpp:408] label_mnist_1_split <- label
I0428 19:33:33.105505 23125 net.cpp:382] label_mnist_1_split -> label_mnist_1_split_0
I0428 19:33:33.105516 23125 net.cpp:382] label_mnist_1_split -> label_mnist_1_split_1
I0428 19:33:33.105589 23125 net.cpp:124] Setting up label_mnist_1_split
I0428 19:33:33.105599 23125 net.cpp:131] Top shape: 100 (100)
I0428 19:33:33.105605 23125 net.cpp:131] Top shape: 100 (100)
I0428 19:33:33.105612 23125 net.cpp:139] Memory required for data: 314800
I0428 19:33:33.105629 23125 layer_factory.hpp:77] Creating layer conv0
I0428 19:33:33.105644 23125 net.cpp:86] Creating Layer conv0
I0428 19:33:33.105651 23125 net.cpp:408] conv0 <- data
I0428 19:33:33.105660 23125 net.cpp:382] conv0 -> conv0
I0428 19:33:33.107192 23125 net.cpp:124] Setting up conv0
I0428 19:33:33.107208 23125 net.cpp:131] Top shape: 100 25 24 24 (1440000)
I0428 19:33:33.107214 23125 net.cpp:139] Memory required for data: 6074800
I0428 19:33:33.107228 23125 layer_factory.hpp:77] Creating layer pool0
I0428 19:33:33.107239 23125 net.cpp:86] Creating Layer pool0
I0428 19:33:33.107245 23125 net.cpp:408] pool0 <- conv0
I0428 19:33:33.107254 23125 net.cpp:382] pool0 -> pool0
I0428 19:33:33.107295 23125 net.cpp:124] Setting up pool0
I0428 19:33:33.107305 23125 net.cpp:131] Top shape: 100 25 12 12 (360000)
I0428 19:33:33.107311 23125 net.cpp:139] Memory required for data: 7514800
I0428 19:33:33.107316 23125 layer_factory.hpp:77] Creating layer ip1
I0428 19:33:33.107326 23125 net.cpp:86] Creating Layer ip1
I0428 19:33:33.107332 23125 net.cpp:408] ip1 <- pool0
I0428 19:33:33.107342 23125 net.cpp:382] ip1 -> ip1
I0428 19:33:33.108021 23125 net.cpp:124] Setting up ip1
I0428 19:33:33.108031 23125 net.cpp:131] Top shape: 100 25 (2500)
I0428 19:33:33.108037 23125 net.cpp:139] Memory required for data: 7524800
I0428 19:33:33.108049 23125 layer_factory.hpp:77] Creating layer relu1
I0428 19:33:33.108059 23125 net.cpp:86] Creating Layer relu1
I0428 19:33:33.108065 23125 net.cpp:408] relu1 <- ip1
I0428 19:33:33.108073 23125 net.cpp:369] relu1 -> ip1 (in-place)
I0428 19:33:33.108243 23125 net.cpp:124] Setting up relu1
I0428 19:33:33.108254 23125 net.cpp:131] Top shape: 100 25 (2500)
I0428 19:33:33.108259 23125 net.cpp:139] Memory required for data: 7534800
I0428 19:33:33.108264 23125 layer_factory.hpp:77] Creating layer ip2
I0428 19:33:33.108274 23125 net.cpp:86] Creating Layer ip2
I0428 19:33:33.108280 23125 net.cpp:408] ip2 <- ip1
I0428 19:33:33.108289 23125 net.cpp:382] ip2 -> ip2
I0428 19:33:33.108395 23125 net.cpp:124] Setting up ip2
I0428 19:33:33.108404 23125 net.cpp:131] Top shape: 100 25 (2500)
I0428 19:33:33.108409 23125 net.cpp:139] Memory required for data: 7544800
I0428 19:33:33.108422 23125 layer_factory.hpp:77] Creating layer relu2
I0428 19:33:33.108430 23125 net.cpp:86] Creating Layer relu2
I0428 19:33:33.108438 23125 net.cpp:408] relu2 <- ip2
I0428 19:33:33.108445 23125 net.cpp:369] relu2 -> ip2 (in-place)
I0428 19:33:33.109237 23125 net.cpp:124] Setting up relu2
I0428 19:33:33.109252 23125 net.cpp:131] Top shape: 100 25 (2500)
I0428 19:33:33.109258 23125 net.cpp:139] Memory required for data: 7554800
I0428 19:33:33.109263 23125 layer_factory.hpp:77] Creating layer ip3
I0428 19:33:33.109277 23125 net.cpp:86] Creating Layer ip3
I0428 19:33:33.109282 23125 net.cpp:408] ip3 <- ip2
I0428 19:33:33.109292 23125 net.cpp:382] ip3 -> ip3
I0428 19:33:33.109431 23125 net.cpp:124] Setting up ip3
I0428 19:33:33.109441 23125 net.cpp:131] Top shape: 100 10 (1000)
I0428 19:33:33.109447 23125 net.cpp:139] Memory required for data: 7558800
I0428 19:33:33.109457 23125 layer_factory.hpp:77] Creating layer relu3
I0428 19:33:33.109465 23125 net.cpp:86] Creating Layer relu3
I0428 19:33:33.109472 23125 net.cpp:408] relu3 <- ip3
I0428 19:33:33.109480 23125 net.cpp:369] relu3 -> ip3 (in-place)
I0428 19:33:33.109663 23125 net.cpp:124] Setting up relu3
I0428 19:33:33.109673 23125 net.cpp:131] Top shape: 100 10 (1000)
I0428 19:33:33.109678 23125 net.cpp:139] Memory required for data: 7562800
I0428 19:33:33.109683 23125 layer_factory.hpp:77] Creating layer ip3_relu3_0_split
I0428 19:33:33.109691 23125 net.cpp:86] Creating Layer ip3_relu3_0_split
I0428 19:33:33.109697 23125 net.cpp:408] ip3_relu3_0_split <- ip3
I0428 19:33:33.109706 23125 net.cpp:382] ip3_relu3_0_split -> ip3_relu3_0_split_0
I0428 19:33:33.109717 23125 net.cpp:382] ip3_relu3_0_split -> ip3_relu3_0_split_1
I0428 19:33:33.109760 23125 net.cpp:124] Setting up ip3_relu3_0_split
I0428 19:33:33.109769 23125 net.cpp:131] Top shape: 100 10 (1000)
I0428 19:33:33.109776 23125 net.cpp:131] Top shape: 100 10 (1000)
I0428 19:33:33.109793 23125 net.cpp:139] Memory required for data: 7570800
I0428 19:33:33.109804 23125 layer_factory.hpp:77] Creating layer accuracy
I0428 19:33:33.109813 23125 net.cpp:86] Creating Layer accuracy
I0428 19:33:33.109819 23125 net.cpp:408] accuracy <- ip3_relu3_0_split_0
I0428 19:33:33.109827 23125 net.cpp:408] accuracy <- label_mnist_1_split_0
I0428 19:33:33.109835 23125 net.cpp:382] accuracy -> accuracy
…
