…
I0428 19:34:50.244961 23397 net.cpp:296] The NetState phase (0) differed from the phase (1) specified by a rule in layer mnist
I0428 19:34:50.244990 23397 net.cpp:296] The NetState phase (0) differed from the phase (1) specified by a rule in layer accuracy
I0428 19:34:50.245062 23397 net.cpp:53] Initializing net from parameters: 
name: "LeNet"
state {
  phase: TRAIN
  level: 0
  stage: ""
}
layer {
  name: "mnist"
  type: "Data"
  top: "data"
  top: "label"
  include {
    phase: TRAIN
  }
  transform_param {
    scale: 0.00390625
  }
  data_param {
    source: "examples/mnist/mnist_train_lmdb"
    batch_size: 64
    backend: LMDB
  }
}
layer {
  name: "conv0"
  type: "Convolution"
  bottom: "data"
  top: "conv0"
  param {
    lr_mult: 1
  }
  param {
    lr_mult: 2
  }
  convolution_param {
    num_output: 50
    kernel_size: 5
    stride: 1
    weight_filler {
      type: "xavier"
    }
    bias_filler {
      type: "constant"
    }
  }
}
layer {
  name: "pool0"
  type: "Pooling"
  bottom: "conv0"
  top: "pool0"
  pooling_param {
    pool: MAX
    kernel_size: 2
    stride: 2
  }
}
layer {
  name: "ip1"
  type: "InnerProduct"
  bottom: "pool0"
  top: "ip1"
  param {
    lr_mult: 1
  }
  param {
    lr_mult: 2
  }
  inner_product_param {
    num_output: 10
    weight_filler {
      type: "xavier"
    }
    bias_filler {
      type: "constant"
    }
  }
}
layer {
  name: "relu1"
  type: "ReLU"
  bottom: "ip1"
  top: "ip1"
}
layer {
  name: "ip2"
  type: "InnerProduct"
  bottom: "ip1"
  top: "ip2"
  param {
    lr_mult: 1
  }
  param {
    lr_mult: 2
  }
  inner_product_param {
    num_output: 25
    weight_filler {
      type: "xavier"
    }
    bias_filler {
      type: "constant"
    }
  }
}
layer {
  name: "relu2"
  type: "ReLU"
  bottom: "ip2"
  top: "ip2"
}
layer {
  name: "ip3"
  type: "InnerProduct"
  bottom: "ip2"
  top: "ip3"
  param {
    lr_mult: 1
  }
  param {
    lr_mult: 2
  }
  inner_product_param {
    num_output: 10
    weight_filler {
      type: "xavier"
    }
    bias_filler {
      type: "constant"
    }
  }
}
layer {
  name: "relu3"
  type: "ReLU"
  bottom: "ip3"
  top: "ip3"
}
layer {
  name: "loss"
  type: "SoftmaxWithLoss"
  bottom: "ip3"
  bottom: "label"
  top: "loss"
}
I0428 19:34:50.245123 23397 layer_factory.hpp:77] Creating layer mnist
I0428 19:34:50.245234 23397 db_lmdb.cpp:35] Opened lmdb examples/mnist/mnist_train_lmdb
I0428 19:34:50.245252 23397 net.cpp:86] Creating Layer mnist
I0428 19:34:50.245259 23397 net.cpp:382] mnist -> data
I0428 19:34:50.245276 23397 net.cpp:382] mnist -> label
I0428 19:34:50.246230 23397 data_layer.cpp:45] output data size: 64,1,28,28
I0428 19:34:50.248492 23397 net.cpp:124] Setting up mnist
I0428 19:34:50.248522 23397 net.cpp:131] Top shape: 64 1 28 28 (50176)
I0428 19:34:50.248528 23397 net.cpp:131] Top shape: 64 (64)
I0428 19:34:50.248530 23397 net.cpp:139] Memory required for data: 200960
I0428 19:34:50.248536 23397 layer_factory.hpp:77] Creating layer conv0
I0428 19:34:50.248548 23397 net.cpp:86] Creating Layer conv0
I0428 19:34:50.248553 23397 net.cpp:408] conv0 <- data
I0428 19:34:50.248563 23397 net.cpp:382] conv0 -> conv0
I0428 19:34:50.477680 23397 net.cpp:124] Setting up conv0
I0428 19:34:50.477707 23397 net.cpp:131] Top shape: 64 50 24 24 (1843200)
I0428 19:34:50.477710 23397 net.cpp:139] Memory required for data: 7573760
I0428 19:34:50.477725 23397 layer_factory.hpp:77] Creating layer pool0
I0428 19:34:50.477752 23397 net.cpp:86] Creating Layer pool0
I0428 19:34:50.477771 23397 net.cpp:408] pool0 <- conv0
I0428 19:34:50.477782 23397 net.cpp:382] pool0 -> pool0
I0428 19:34:50.477828 23397 net.cpp:124] Setting up pool0
I0428 19:34:50.477836 23397 net.cpp:131] Top shape: 64 50 12 12 (460800)
I0428 19:34:50.477839 23397 net.cpp:139] Memory required for data: 9416960
I0428 19:34:50.477843 23397 layer_factory.hpp:77] Creating layer ip1
I0428 19:34:50.477849 23397 net.cpp:86] Creating Layer ip1
I0428 19:34:50.477852 23397 net.cpp:408] ip1 <- pool0
I0428 19:34:50.477856 23397 net.cpp:382] ip1 -> ip1
I0428 19:34:50.479235 23397 net.cpp:124] Setting up ip1
I0428 19:34:50.479248 23397 net.cpp:131] Top shape: 64 10 (640)
I0428 19:34:50.479267 23397 net.cpp:139] Memory required for data: 9419520
I0428 19:34:50.479274 23397 layer_factory.hpp:77] Creating layer relu1
I0428 19:34:50.479281 23397 net.cpp:86] Creating Layer relu1
I0428 19:34:50.479285 23397 net.cpp:408] relu1 <- ip1
I0428 19:34:50.479290 23397 net.cpp:369] relu1 -> ip1 (in-place)
I0428 19:34:50.479483 23397 net.cpp:124] Setting up relu1
I0428 19:34:50.479491 23397 net.cpp:131] Top shape: 64 10 (640)
I0428 19:34:50.479496 23397 net.cpp:139] Memory required for data: 9422080
I0428 19:34:50.479498 23397 layer_factory.hpp:77] Creating layer ip2
I0428 19:34:50.479504 23397 net.cpp:86] Creating Layer ip2
I0428 19:34:50.479507 23397 net.cpp:408] ip2 <- ip1
I0428 19:34:50.479513 23397 net.cpp:382] ip2 -> ip2
I0428 19:34:50.479625 23397 net.cpp:124] Setting up ip2
I0428 19:34:50.479631 23397 net.cpp:131] Top shape: 64 25 (1600)
I0428 19:34:50.479651 23397 net.cpp:139] Memory required for data: 9428480
I0428 19:34:50.479660 23397 layer_factory.hpp:77] Creating layer relu2
I0428 19:34:50.479665 23397 net.cpp:86] Creating Layer relu2
I0428 19:34:50.479668 23397 net.cpp:408] relu2 <- ip2
I0428 19:34:50.479672 23397 net.cpp:369] relu2 -> ip2 (in-place)
I0428 19:34:50.480502 23397 net.cpp:124] Setting up relu2
I0428 19:34:50.480515 23397 net.cpp:131] Top shape: 64 25 (1600)
I0428 19:34:50.480533 23397 net.cpp:139] Memory required for data: 9434880
I0428 19:34:50.480536 23397 layer_factory.hpp:77] Creating layer ip3
I0428 19:34:50.480545 23397 net.cpp:86] Creating Layer ip3
I0428 19:34:50.480547 23397 net.cpp:408] ip3 <- ip2
I0428 19:34:50.480553 23397 net.cpp:382] ip3 -> ip3
I0428 19:34:50.480653 23397 net.cpp:124] Setting up ip3
I0428 19:34:50.480659 23397 net.cpp:131] Top shape: 64 10 (640)
I0428 19:34:50.480662 23397 net.cpp:139] Memory required for data: 9437440
I0428 19:34:50.480669 23397 layer_factory.hpp:77] Creating layer relu3
I0428 19:34:50.480675 23397 net.cpp:86] Creating Layer relu3
I0428 19:34:50.480679 23397 net.cpp:408] relu3 <- ip3
I0428 19:34:50.480682 23397 net.cpp:369] relu3 -> ip3 (in-place)
I0428 19:34:50.480936 23397 net.cpp:124] Setting up relu3
I0428 19:34:50.480945 23397 net.cpp:131] Top shape: 64 10 (640)
I0428 19:34:50.480948 23397 net.cpp:139] Memory required for data: 9440000
I0428 19:34:50.480952 23397 layer_factory.hpp:77] Creating layer loss
I0428 19:34:50.480959 23397 net.cpp:86] Creating Layer loss
I0428 19:34:50.480963 23397 net.cpp:408] loss <- ip3
I0428 19:34:50.480967 23397 net.cpp:408] loss <- label
I0428 19:34:50.480973 23397 net.cpp:382] loss -> loss
I0428 19:34:50.480991 23397 layer_factory.hpp:77] Creating layer loss
…
I0428 19:34:50.481719 23397 solver.cpp:173] Creating test net (#0) specified by net file: ECE595/mnist/train_test/var_everything2/lenet_train_test212.prototxt
I0428 19:34:50.481758 23397 net.cpp:296] The NetState phase (1) differed from the phase (0) specified by a rule in layer mnist
I0428 19:34:50.481837 23397 net.cpp:53] Initializing net from parameters: 
name: "LeNet"
state {
  phase: TEST
}
layer {
  name: "mnist"
  type: "Data"
  top: "data"
  top: "label"
  include {
    phase: TEST
  }
  transform_param {
    scale: 0.00390625
  }
  data_param {
    source: "examples/mnist/mnist_test_lmdb"
    batch_size: 100
    backend: LMDB
  }
}
layer {
  name: "conv0"
  type: "Convolution"
  bottom: "data"
  top: "conv0"
  param {
    lr_mult: 1
  }
  param {
    lr_mult: 2
  }
  convolution_param {
    num_output: 50
    kernel_size: 5
    stride: 1
    weight_filler {
      type: "xavier"
    }
    bias_filler {
      type: "constant"
    }
  }
}
layer {
  name: "pool0"
  type: "Pooling"
  bottom: "conv0"
  top: "pool0"
  pooling_param {
    pool: MAX
    kernel_size: 2
    stride: 2
  }
}
layer {
  name: "ip1"
  type: "InnerProduct"
  bottom: "pool0"
  top: "ip1"
  param {
    lr_mult: 1
  }
  param {
    lr_mult: 2
  }
  inner_product_param {
    num_output: 10
    weight_filler {
      type: "xavier"
    }
    bias_filler {
      type: "constant"
    }
  }
}
layer {
  name: "relu1"
  type: "ReLU"
  bottom: "ip1"
  top: "ip1"
}
layer {
  name: "ip2"
  type: "InnerProduct"
  bottom: "ip1"
  top: "ip2"
  param {
    lr_mult: 1
  }
  param {
    lr_mult: 2
  }
  inner_product_param {
    num_output: 25
    weight_filler {
      type: "xavier"
    }
    bias_filler {
      type: "constant"
    }
  }
}
layer {
  name: "relu2"
  type: "ReLU"
  bottom: "ip2"
  top: "ip2"
}
layer {
  name: "ip3"
  type: "InnerProduct"
  bottom: "ip2"
  top: "ip3"
  param {
    lr_mult: 1
  }
  param {
    lr_mult: 2
  }
  inner_product_param {
    num_output: 10
    weight_filler {
      type: "xavier"
    }
    bias_filler {
      type: "constant"
    }
  }
}
layer {
  name: "relu3"
  type: "ReLU"
  bottom: "ip3"
  top: "ip3"
}
layer {
  name: "accuracy"
  type: "Accuracy"
  bottom: "ip3"
  bottom: "label"
  top: "accuracy"
  include {
    phase: TEST
  }
}
layer {
  name: "loss"
  type: "SoftmaxWithLoss"
  bottom: "ip3"
  bottom: "label"
  top: "loss"
}
I0428 19:34:50.481904 23397 layer_factory.hpp:77] Creating layer mnist
I0428 19:34:50.481961 23397 db_lmdb.cpp:35] Opened lmdb examples/mnist/mnist_test_lmdb
I0428 19:34:50.481972 23397 net.cpp:86] Creating Layer mnist
I0428 19:34:50.481978 23397 net.cpp:382] mnist -> data
I0428 19:34:50.481986 23397 net.cpp:382] mnist -> label
I0428 19:34:50.482072 23397 data_layer.cpp:45] output data size: 100,1,28,28
I0428 19:34:50.483239 23397 net.cpp:124] Setting up mnist
I0428 19:34:50.483266 23397 net.cpp:131] Top shape: 100 1 28 28 (78400)
I0428 19:34:50.483271 23397 net.cpp:131] Top shape: 100 (100)
I0428 19:34:50.483276 23397 net.cpp:139] Memory required for data: 314000
I0428 19:34:50.483279 23397 layer_factory.hpp:77] Creating layer label_mnist_1_split
I0428 19:34:50.483317 23397 net.cpp:86] Creating Layer label_mnist_1_split
I0428 19:34:50.483321 23397 net.cpp:408] label_mnist_1_split <- label
I0428 19:34:50.483343 23397 net.cpp:382] label_mnist_1_split -> label_mnist_1_split_0
I0428 19:34:50.483366 23397 net.cpp:382] label_mnist_1_split -> label_mnist_1_split_1
I0428 19:34:50.483425 23397 net.cpp:124] Setting up label_mnist_1_split
I0428 19:34:50.483433 23397 net.cpp:131] Top shape: 100 (100)
I0428 19:34:50.483436 23397 net.cpp:131] Top shape: 100 (100)
I0428 19:34:50.483438 23397 net.cpp:139] Memory required for data: 314800
I0428 19:34:50.483451 23397 layer_factory.hpp:77] Creating layer conv0
I0428 19:34:50.483463 23397 net.cpp:86] Creating Layer conv0
I0428 19:34:50.483465 23397 net.cpp:408] conv0 <- data
I0428 19:34:50.483470 23397 net.cpp:382] conv0 -> conv0
I0428 19:34:50.485306 23397 net.cpp:124] Setting up conv0
I0428 19:34:50.485321 23397 net.cpp:131] Top shape: 100 50 24 24 (2880000)
I0428 19:34:50.485325 23397 net.cpp:139] Memory required for data: 11834800
I0428 19:34:50.485335 23397 layer_factory.hpp:77] Creating layer pool0
I0428 19:34:50.485343 23397 net.cpp:86] Creating Layer pool0
I0428 19:34:50.485347 23397 net.cpp:408] pool0 <- conv0
I0428 19:34:50.485352 23397 net.cpp:382] pool0 -> pool0
I0428 19:34:50.485411 23397 net.cpp:124] Setting up pool0
I0428 19:34:50.485417 23397 net.cpp:131] Top shape: 100 50 12 12 (720000)
I0428 19:34:50.485420 23397 net.cpp:139] Memory required for data: 14714800
I0428 19:34:50.485424 23397 layer_factory.hpp:77] Creating layer ip1
I0428 19:34:50.485446 23397 net.cpp:86] Creating Layer ip1
I0428 19:34:50.485450 23397 net.cpp:408] ip1 <- pool0
I0428 19:34:50.485455 23397 net.cpp:382] ip1 -> ip1
I0428 19:34:50.486004 23397 net.cpp:124] Setting up ip1
I0428 19:34:50.486011 23397 net.cpp:131] Top shape: 100 10 (1000)
I0428 19:34:50.486014 23397 net.cpp:139] Memory required for data: 14718800
I0428 19:34:50.486021 23397 layer_factory.hpp:77] Creating layer relu1
I0428 19:34:50.486042 23397 net.cpp:86] Creating Layer relu1
I0428 19:34:50.486044 23397 net.cpp:408] relu1 <- ip1
I0428 19:34:50.486049 23397 net.cpp:369] relu1 -> ip1 (in-place)
I0428 19:34:50.486290 23397 net.cpp:124] Setting up relu1
I0428 19:34:50.486300 23397 net.cpp:131] Top shape: 100 10 (1000)
I0428 19:34:50.486304 23397 net.cpp:139] Memory required for data: 14722800
I0428 19:34:50.486307 23397 layer_factory.hpp:77] Creating layer ip2
I0428 19:34:50.486331 23397 net.cpp:86] Creating Layer ip2
I0428 19:34:50.486335 23397 net.cpp:408] ip2 <- ip1
I0428 19:34:50.486338 23397 net.cpp:382] ip2 -> ip2
I0428 19:34:50.486435 23397 net.cpp:124] Setting up ip2
I0428 19:34:50.486443 23397 net.cpp:131] Top shape: 100 25 (2500)
I0428 19:34:50.486445 23397 net.cpp:139] Memory required for data: 14732800
I0428 19:34:50.486454 23397 layer_factory.hpp:77] Creating layer relu2
I0428 19:34:50.486459 23397 net.cpp:86] Creating Layer relu2
I0428 19:34:50.486476 23397 net.cpp:408] relu2 <- ip2
I0428 19:34:50.486480 23397 net.cpp:369] relu2 -> ip2 (in-place)
I0428 19:34:50.487316 23397 net.cpp:124] Setting up relu2
I0428 19:34:50.487329 23397 net.cpp:131] Top shape: 100 25 (2500)
I0428 19:34:50.487332 23397 net.cpp:139] Memory required for data: 14742800
I0428 19:34:50.487336 23397 layer_factory.hpp:77] Creating layer ip3
I0428 19:34:50.487344 23397 net.cpp:86] Creating Layer ip3
I0428 19:34:50.487349 23397 net.cpp:408] ip3 <- ip2
I0428 19:34:50.487355 23397 net.cpp:382] ip3 -> ip3
I0428 19:34:50.487560 23397 net.cpp:124] Setting up ip3
I0428 19:34:50.487567 23397 net.cpp:131] Top shape: 100 10 (1000)
I0428 19:34:50.487571 23397 net.cpp:139] Memory required for data: 14746800
I0428 19:34:50.487577 23397 layer_factory.hpp:77] Creating layer relu3
I0428 19:34:50.487584 23397 net.cpp:86] Creating Layer relu3
I0428 19:34:50.487588 23397 net.cpp:408] relu3 <- ip3
I0428 19:34:50.487592 23397 net.cpp:369] relu3 -> ip3 (in-place)
I0428 19:34:50.487768 23397 net.cpp:124] Setting up relu3
I0428 19:34:50.487777 23397 net.cpp:131] Top shape: 100 10 (1000)
I0428 19:34:50.487782 23397 net.cpp:139] Memory required for data: 14750800
I0428 19:34:50.487784 23397 layer_factory.hpp:77] Creating layer ip3_relu3_0_split
I0428 19:34:50.487790 23397 net.cpp:86] Creating Layer ip3_relu3_0_split
I0428 19:34:50.487793 23397 net.cpp:408] ip3_relu3_0_split <- ip3
I0428 19:34:50.487798 23397 net.cpp:382] ip3_relu3_0_split -> ip3_relu3_0_split_0
I0428 19:34:50.487807 23397 net.cpp:382] ip3_relu3_0_split -> ip3_relu3_0_split_1
I0428 19:34:50.487850 23397 net.cpp:124] Setting up ip3_relu3_0_split
I0428 19:34:50.487857 23397 net.cpp:131] Top shape: 100 10 (1000)
I0428 19:34:50.487872 23397 net.cpp:131] Top shape: 100 10 (1000)
I0428 19:34:50.487876 23397 net.cpp:139] Memory required for data: 14758800
I0428 19:34:50.487879 23397 layer_factory.hpp:77] Creating layer accuracy
I0428 19:34:50.487890 23397 net.cpp:86] Creating Layer accuracy
I0428 19:34:50.487895 23397 net.cpp:408] accuracy <- ip3_relu3_0_split_0
I0428 19:34:50.487900 23397 net.cpp:408] accuracy <- label_mnist_1_split_0
I0428 19:34:50.487905 23397 net.cpp:382] accuracy -> accuracy
…
