…
I0428 20:10:13.713099 31792 net.cpp:296] The NetState phase (0) differed from the phase (1) specified by a rule in layer mnist
I0428 20:10:13.713146 31792 net.cpp:296] The NetState phase (0) differed from the phase (1) specified by a rule in layer accuracy
I0428 20:10:13.713255 31792 net.cpp:53] Initializing net from parameters: 
name: "LeNet"
state {
  phase: TRAIN
  level: 0
  stage: ""
}
layer {
  name: "mnist"
  type: "Data"
  top: "data"
  top: "label"
  include {
    phase: TRAIN
  }
  transform_param {
    scale: 0.00390625
  }
  data_param {
    source: "examples/mnist/mnist_train_lmdb"
    batch_size: 64
    backend: LMDB
  }
}
layer {
  name: "conv0"
  type: "Convolution"
  bottom: "data"
  top: "conv0"
  param {
    lr_mult: 1
  }
  param {
    lr_mult: 2
  }
  convolution_param {
    num_output: 25
    kernel_size: 5
    stride: 1
    weight_filler {
      type: "xavier"
    }
    bias_filler {
      type: "constant"
    }
  }
}
layer {
  name: "pool0"
  type: "Pooling"
  bottom: "conv0"
  top: "pool0"
  pooling_param {
    pool: MAX
    kernel_size: 2
    stride: 2
  }
}
layer {
  name: "conv1"
  type: "Convolution"
  bottom: "pool0"
  top: "conv1"
  param {
    lr_mult: 1
  }
  param {
    lr_mult: 2
  }
  convolution_param {
    num_output: 25
    kernel_size: 5
    stride: 1
    weight_filler {
      type: "xavier"
    }
    bias_filler {
      type: "constant"
    }
  }
}
layer {
  name: "pool1"
  type: "Pooling"
  bottom: "conv1"
  top: "pool1"
  pooling_param {
    pool: MAX
    kernel_size: 2
    stride: 2
  }
}
layer {
  name: "ip1"
  type: "InnerProduct"
  bottom: "pool1"
  top: "ip1"
  param {
    lr_mult: 1
  }
  param {
    lr_mult: 2
  }
  inner_product_param {
    num_output: 50
    weight_filler {
      type: "xavier"
    }
    bias_filler {
      type: "constant"
    }
  }
}
layer {
  name: "relu1"
  type: "ReLU"
  bottom: "ip1"
  top: "ip1"
}
layer {
  name: "ip2"
  type: "InnerProduct"
  bottom: "ip1"
  top: "ip2"
  param {
    lr_mult: 1
  }
  param {
    lr_mult: 2
  }
  inner_product_param {
    num_output: 50
    weight_filler {
      type: "xavier"
    }
    bias_filler {
      type: "constant"
    }
  }
}
layer {
  name: "relu2"
  type: "ReLU"
  bottom: "ip2"
  top: "ip2"
}
layer {
  name: "ip3"
  type: "InnerProduct"
  bottom: "ip2"
  top: "ip3"
  param {
    lr_mult: 1
  }
  param {
    lr_mult: 2
  }
  inner_product_param {
    num_output: 10
    weight_filler {
      type: "xavier"
    }
    bias_filler {
      type: "constant"
    }
  }
}
layer {
  name: "relu3"
  type: "ReLU"
  bottom: "ip3"
  top: "ip3"
}
layer {
  name: "loss"
  type: "SoftmaxWithLoss"
  bottom: "ip3"
  bottom: "label"
  top: "loss"
}
I0428 20:10:13.713332 31792 layer_factory.hpp:77] Creating layer mnist
I0428 20:10:13.713414 31792 db_lmdb.cpp:35] Opened lmdb examples/mnist/mnist_train_lmdb
I0428 20:10:13.713433 31792 net.cpp:86] Creating Layer mnist
I0428 20:10:13.713441 31792 net.cpp:382] mnist -> data
I0428 20:10:13.713459 31792 net.cpp:382] mnist -> label
I0428 20:10:13.714450 31792 data_layer.cpp:45] output data size: 64,1,28,28
I0428 20:10:13.716701 31792 net.cpp:124] Setting up mnist
I0428 20:10:13.716730 31792 net.cpp:131] Top shape: 64 1 28 28 (50176)
I0428 20:10:13.716735 31792 net.cpp:131] Top shape: 64 (64)
I0428 20:10:13.716738 31792 net.cpp:139] Memory required for data: 200960
I0428 20:10:13.716743 31792 layer_factory.hpp:77] Creating layer conv0
I0428 20:10:13.716783 31792 net.cpp:86] Creating Layer conv0
I0428 20:10:13.716800 31792 net.cpp:408] conv0 <- data
I0428 20:10:13.716831 31792 net.cpp:382] conv0 -> conv0
I0428 20:10:13.951766 31792 net.cpp:124] Setting up conv0
I0428 20:10:13.951807 31792 net.cpp:131] Top shape: 64 25 24 24 (921600)
I0428 20:10:13.951812 31792 net.cpp:139] Memory required for data: 3887360
I0428 20:10:13.951841 31792 layer_factory.hpp:77] Creating layer pool0
I0428 20:10:13.951854 31792 net.cpp:86] Creating Layer pool0
I0428 20:10:13.951858 31792 net.cpp:408] pool0 <- conv0
I0428 20:10:13.951864 31792 net.cpp:382] pool0 -> pool0
I0428 20:10:13.951906 31792 net.cpp:124] Setting up pool0
I0428 20:10:13.951911 31792 net.cpp:131] Top shape: 64 25 12 12 (230400)
I0428 20:10:13.951915 31792 net.cpp:139] Memory required for data: 4808960
I0428 20:10:13.951917 31792 layer_factory.hpp:77] Creating layer conv1
I0428 20:10:13.951928 31792 net.cpp:86] Creating Layer conv1
I0428 20:10:13.951931 31792 net.cpp:408] conv1 <- pool0
I0428 20:10:13.951936 31792 net.cpp:382] conv1 -> conv1
I0428 20:10:13.954751 31792 net.cpp:124] Setting up conv1
I0428 20:10:13.954782 31792 net.cpp:131] Top shape: 64 25 8 8 (102400)
I0428 20:10:13.954785 31792 net.cpp:139] Memory required for data: 5218560
I0428 20:10:13.954793 31792 layer_factory.hpp:77] Creating layer pool1
I0428 20:10:13.954802 31792 net.cpp:86] Creating Layer pool1
I0428 20:10:13.954805 31792 net.cpp:408] pool1 <- conv1
I0428 20:10:13.954810 31792 net.cpp:382] pool1 -> pool1
I0428 20:10:13.954848 31792 net.cpp:124] Setting up pool1
I0428 20:10:13.954852 31792 net.cpp:131] Top shape: 64 25 4 4 (25600)
I0428 20:10:13.954855 31792 net.cpp:139] Memory required for data: 5320960
I0428 20:10:13.954859 31792 layer_factory.hpp:77] Creating layer ip1
I0428 20:10:13.954865 31792 net.cpp:86] Creating Layer ip1
I0428 20:10:13.954869 31792 net.cpp:408] ip1 <- pool1
I0428 20:10:13.954872 31792 net.cpp:382] ip1 -> ip1
I0428 20:10:13.955091 31792 net.cpp:124] Setting up ip1
I0428 20:10:13.955099 31792 net.cpp:131] Top shape: 64 50 (3200)
I0428 20:10:13.955102 31792 net.cpp:139] Memory required for data: 5333760
I0428 20:10:13.955109 31792 layer_factory.hpp:77] Creating layer relu1
I0428 20:10:13.955116 31792 net.cpp:86] Creating Layer relu1
I0428 20:10:13.955118 31792 net.cpp:408] relu1 <- ip1
I0428 20:10:13.955122 31792 net.cpp:369] relu1 -> ip1 (in-place)
I0428 20:10:13.955298 31792 net.cpp:124] Setting up relu1
I0428 20:10:13.955307 31792 net.cpp:131] Top shape: 64 50 (3200)
I0428 20:10:13.955310 31792 net.cpp:139] Memory required for data: 5346560
I0428 20:10:13.955313 31792 layer_factory.hpp:77] Creating layer ip2
I0428 20:10:13.955319 31792 net.cpp:86] Creating Layer ip2
I0428 20:10:13.955322 31792 net.cpp:408] ip2 <- ip1
I0428 20:10:13.955327 31792 net.cpp:382] ip2 -> ip2
I0428 20:10:13.956358 31792 net.cpp:124] Setting up ip2
I0428 20:10:13.956385 31792 net.cpp:131] Top shape: 64 50 (3200)
I0428 20:10:13.956389 31792 net.cpp:139] Memory required for data: 5359360
I0428 20:10:13.956395 31792 layer_factory.hpp:77] Creating layer relu2
I0428 20:10:13.956403 31792 net.cpp:86] Creating Layer relu2
I0428 20:10:13.956405 31792 net.cpp:408] relu2 <- ip2
I0428 20:10:13.956410 31792 net.cpp:369] relu2 -> ip2 (in-place)
I0428 20:10:13.957242 31792 net.cpp:124] Setting up relu2
I0428 20:10:13.957254 31792 net.cpp:131] Top shape: 64 50 (3200)
I0428 20:10:13.957273 31792 net.cpp:139] Memory required for data: 5372160
I0428 20:10:13.957276 31792 layer_factory.hpp:77] Creating layer ip3
I0428 20:10:13.957298 31792 net.cpp:86] Creating Layer ip3
I0428 20:10:13.957303 31792 net.cpp:408] ip3 <- ip2
I0428 20:10:13.957307 31792 net.cpp:382] ip3 -> ip3
I0428 20:10:13.957406 31792 net.cpp:124] Setting up ip3
I0428 20:10:13.957414 31792 net.cpp:131] Top shape: 64 10 (640)
I0428 20:10:13.957417 31792 net.cpp:139] Memory required for data: 5374720
I0428 20:10:13.957425 31792 layer_factory.hpp:77] Creating layer relu3
I0428 20:10:13.957430 31792 net.cpp:86] Creating Layer relu3
I0428 20:10:13.957433 31792 net.cpp:408] relu3 <- ip3
I0428 20:10:13.957437 31792 net.cpp:369] relu3 -> ip3 (in-place)
I0428 20:10:13.957610 31792 net.cpp:124] Setting up relu3
I0428 20:10:13.957618 31792 net.cpp:131] Top shape: 64 10 (640)
I0428 20:10:13.957622 31792 net.cpp:139] Memory required for data: 5377280
I0428 20:10:13.957624 31792 layer_factory.hpp:77] Creating layer loss
I0428 20:10:13.957645 31792 net.cpp:86] Creating Layer loss
I0428 20:10:13.957649 31792 net.cpp:408] loss <- ip3
I0428 20:10:13.957653 31792 net.cpp:408] loss <- label
I0428 20:10:13.957659 31792 net.cpp:382] loss -> loss
I0428 20:10:13.957675 31792 layer_factory.hpp:77] Creating layer loss
…
I0428 20:10:13.958343 31792 solver.cpp:173] Creating test net (#0) specified by net file: ECE595/mnist/train_test/var_everything2/lenet_train_test1129.prototxt
I0428 20:10:13.958386 31792 net.cpp:296] The NetState phase (1) differed from the phase (0) specified by a rule in layer mnist
I0428 20:10:13.958508 31792 net.cpp:53] Initializing net from parameters: 
name: "LeNet"
state {
  phase: TEST
}
layer {
  name: "mnist"
  type: "Data"
  top: "data"
  top: "label"
  include {
    phase: TEST
  }
  transform_param {
    scale: 0.00390625
  }
  data_param {
    source: "examples/mnist/mnist_test_lmdb"
    batch_size: 100
    backend: LMDB
  }
}
layer {
  name: "conv0"
  type: "Convolution"
  bottom: "data"
  top: "conv0"
  param {
    lr_mult: 1
  }
  param {
    lr_mult: 2
  }
  convolution_param {
    num_output: 25
    kernel_size: 5
    stride: 1
    weight_filler {
      type: "xavier"
    }
    bias_filler {
      type: "constant"
    }
  }
}
layer {
  name: "pool0"
  type: "Pooling"
  bottom: "conv0"
  top: "pool0"
  pooling_param {
    pool: MAX
    kernel_size: 2
    stride: 2
  }
}
layer {
  name: "conv1"
  type: "Convolution"
  bottom: "pool0"
  top: "conv1"
  param {
    lr_mult: 1
  }
  param {
    lr_mult: 2
  }
  convolution_param {
    num_output: 25
    kernel_size: 5
    stride: 1
    weight_filler {
      type: "xavier"
    }
    bias_filler {
      type: "constant"
    }
  }
}
layer {
  name: "pool1"
  type: "Pooling"
  bottom: "conv1"
  top: "pool1"
  pooling_param {
    pool: MAX
    kernel_size: 2
    stride: 2
  }
}
layer {
  name: "ip1"
  type: "InnerProduct"
  bottom: "pool1"
  top: "ip1"
  param {
    lr_mult: 1
  }
  param {
    lr_mult: 2
  }
  inner_product_param {
    num_output: 50
    weight_filler {
      type: "xavier"
    }
    bias_filler {
      type: "constant"
    }
  }
}
layer {
  name: "relu1"
  type: "ReLU"
  bottom: "ip1"
  top: "ip1"
}
layer {
  name: "ip2"
  type: "InnerProduct"
  bottom: "ip1"
  top: "ip2"
  param {
    lr_mult: 1
  }
  param {
    lr_mult: 2
  }
  inner_product_param {
    num_output: 50
    weight_filler {
      type: "xavier"
    }
    bias_filler {
      type: "constant"
    }
  }
}
layer {
  name: "relu2"
  type: "ReLU"
  bottom: "ip2"
  top: "ip2"
}
layer {
  name: "ip3"
  type: "InnerProduct"
  bottom: "ip2"
  top: "ip3"
  param {
    lr_mult: 1
  }
  param {
    lr_mult: 2
  }
  inner_product_param {
    num_output: 10
    weight_filler {
      type: "xavier"
    }
    bias_filler {
      type: "constant"
    }
  }
}
layer {
  name: "relu3"
  type: "ReLU"
  bottom: "ip3"
  top: "ip3"
}
layer {
  name: "accuracy"
  type: "Accuracy"
  bottom: "ip3"
  bottom: "label"
  top: "accuracy"
  include {
    phase: TEST
  }
}
layer {
  name: "loss"
  type: "SoftmaxWithLoss"
  bottom: "ip3"
  bottom: "label"
  top: "loss"
}
I0428 20:10:13.958585 31792 layer_factory.hpp:77] Creating layer mnist
I0428 20:10:13.958644 31792 db_lmdb.cpp:35] Opened lmdb examples/mnist/mnist_test_lmdb
I0428 20:10:13.958657 31792 net.cpp:86] Creating Layer mnist
I0428 20:10:13.958662 31792 net.cpp:382] mnist -> data
I0428 20:10:13.958670 31792 net.cpp:382] mnist -> label
I0428 20:10:13.958767 31792 data_layer.cpp:45] output data size: 100,1,28,28
I0428 20:10:13.960950 31792 net.cpp:124] Setting up mnist
I0428 20:10:13.960980 31792 net.cpp:131] Top shape: 100 1 28 28 (78400)
I0428 20:10:13.960985 31792 net.cpp:131] Top shape: 100 (100)
I0428 20:10:13.960989 31792 net.cpp:139] Memory required for data: 314000
I0428 20:10:13.960993 31792 layer_factory.hpp:77] Creating layer label_mnist_1_split
I0428 20:10:13.961027 31792 net.cpp:86] Creating Layer label_mnist_1_split
I0428 20:10:13.961031 31792 net.cpp:408] label_mnist_1_split <- label
I0428 20:10:13.961036 31792 net.cpp:382] label_mnist_1_split -> label_mnist_1_split_0
I0428 20:10:13.961045 31792 net.cpp:382] label_mnist_1_split -> label_mnist_1_split_1
I0428 20:10:13.961088 31792 net.cpp:124] Setting up label_mnist_1_split
I0428 20:10:13.961094 31792 net.cpp:131] Top shape: 100 (100)
I0428 20:10:13.961098 31792 net.cpp:131] Top shape: 100 (100)
I0428 20:10:13.961102 31792 net.cpp:139] Memory required for data: 314800
I0428 20:10:13.961104 31792 layer_factory.hpp:77] Creating layer conv0
I0428 20:10:13.961124 31792 net.cpp:86] Creating Layer conv0
I0428 20:10:13.961127 31792 net.cpp:408] conv0 <- data
I0428 20:10:13.961146 31792 net.cpp:382] conv0 -> conv0
I0428 20:10:13.962682 31792 net.cpp:124] Setting up conv0
I0428 20:10:13.962695 31792 net.cpp:131] Top shape: 100 25 24 24 (1440000)
I0428 20:10:13.962698 31792 net.cpp:139] Memory required for data: 6074800
I0428 20:10:13.962707 31792 layer_factory.hpp:77] Creating layer pool0
I0428 20:10:13.962713 31792 net.cpp:86] Creating Layer pool0
I0428 20:10:13.962716 31792 net.cpp:408] pool0 <- conv0
I0428 20:10:13.962721 31792 net.cpp:382] pool0 -> pool0
I0428 20:10:13.962754 31792 net.cpp:124] Setting up pool0
I0428 20:10:13.962759 31792 net.cpp:131] Top shape: 100 25 12 12 (360000)
I0428 20:10:13.962762 31792 net.cpp:139] Memory required for data: 7514800
I0428 20:10:13.962765 31792 layer_factory.hpp:77] Creating layer conv1
I0428 20:10:13.962772 31792 net.cpp:86] Creating Layer conv1
I0428 20:10:13.962776 31792 net.cpp:408] conv1 <- pool0
I0428 20:10:13.962780 31792 net.cpp:382] conv1 -> conv1
I0428 20:10:13.964967 31792 net.cpp:124] Setting up conv1
I0428 20:10:13.964982 31792 net.cpp:131] Top shape: 100 25 8 8 (160000)
I0428 20:10:13.964987 31792 net.cpp:139] Memory required for data: 8154800
I0428 20:10:13.964994 31792 layer_factory.hpp:77] Creating layer pool1
I0428 20:10:13.965001 31792 net.cpp:86] Creating Layer pool1
I0428 20:10:13.965005 31792 net.cpp:408] pool1 <- conv1
I0428 20:10:13.965010 31792 net.cpp:382] pool1 -> pool1
I0428 20:10:13.965065 31792 net.cpp:124] Setting up pool1
I0428 20:10:13.965070 31792 net.cpp:131] Top shape: 100 25 4 4 (40000)
I0428 20:10:13.965073 31792 net.cpp:139] Memory required for data: 8314800
I0428 20:10:13.965077 31792 layer_factory.hpp:77] Creating layer ip1
I0428 20:10:13.965082 31792 net.cpp:86] Creating Layer ip1
I0428 20:10:13.965086 31792 net.cpp:408] ip1 <- pool1
I0428 20:10:13.965092 31792 net.cpp:382] ip1 -> ip1
I0428 20:10:13.965353 31792 net.cpp:124] Setting up ip1
I0428 20:10:13.965360 31792 net.cpp:131] Top shape: 100 50 (5000)
I0428 20:10:13.965373 31792 net.cpp:139] Memory required for data: 8334800
I0428 20:10:13.965380 31792 layer_factory.hpp:77] Creating layer relu1
I0428 20:10:13.965385 31792 net.cpp:86] Creating Layer relu1
I0428 20:10:13.965389 31792 net.cpp:408] relu1 <- ip1
I0428 20:10:13.965392 31792 net.cpp:369] relu1 -> ip1 (in-place)
I0428 20:10:13.965590 31792 net.cpp:124] Setting up relu1
I0428 20:10:13.965597 31792 net.cpp:131] Top shape: 100 50 (5000)
I0428 20:10:13.965606 31792 net.cpp:139] Memory required for data: 8354800
I0428 20:10:13.965610 31792 layer_factory.hpp:77] Creating layer ip2
I0428 20:10:13.965616 31792 net.cpp:86] Creating Layer ip2
I0428 20:10:13.965625 31792 net.cpp:408] ip2 <- ip1
I0428 20:10:13.965629 31792 net.cpp:382] ip2 -> ip2
I0428 20:10:13.965737 31792 net.cpp:124] Setting up ip2
I0428 20:10:13.965744 31792 net.cpp:131] Top shape: 100 50 (5000)
I0428 20:10:13.965747 31792 net.cpp:139] Memory required for data: 8374800
I0428 20:10:13.965754 31792 layer_factory.hpp:77] Creating layer relu2
I0428 20:10:13.965757 31792 net.cpp:86] Creating Layer relu2
I0428 20:10:13.965776 31792 net.cpp:408] relu2 <- ip2
I0428 20:10:13.965780 31792 net.cpp:369] relu2 -> ip2 (in-place)
I0428 20:10:13.965952 31792 net.cpp:124] Setting up relu2
I0428 20:10:13.965960 31792 net.cpp:131] Top shape: 100 50 (5000)
I0428 20:10:13.965963 31792 net.cpp:139] Memory required for data: 8394800
I0428 20:10:13.965966 31792 layer_factory.hpp:77] Creating layer ip3
I0428 20:10:13.965972 31792 net.cpp:86] Creating Layer ip3
I0428 20:10:13.965975 31792 net.cpp:408] ip3 <- ip2
I0428 20:10:13.965981 31792 net.cpp:382] ip3 -> ip3
I0428 20:10:13.966078 31792 net.cpp:124] Setting up ip3
I0428 20:10:13.966085 31792 net.cpp:131] Top shape: 100 10 (1000)
I0428 20:10:13.966089 31792 net.cpp:139] Memory required for data: 8398800
I0428 20:10:13.966096 31792 layer_factory.hpp:77] Creating layer relu3
I0428 20:10:13.966109 31792 net.cpp:86] Creating Layer relu3
I0428 20:10:13.966111 31792 net.cpp:408] relu3 <- ip3
I0428 20:10:13.966115 31792 net.cpp:369] relu3 -> ip3 (in-place)
I0428 20:10:13.966948 31792 net.cpp:124] Setting up relu3
I0428 20:10:13.966959 31792 net.cpp:131] Top shape: 100 10 (1000)
I0428 20:10:13.966977 31792 net.cpp:139] Memory required for data: 8402800
I0428 20:10:13.966981 31792 layer_factory.hpp:77] Creating layer ip3_relu3_0_split
I0428 20:10:13.966986 31792 net.cpp:86] Creating Layer ip3_relu3_0_split
I0428 20:10:13.966990 31792 net.cpp:408] ip3_relu3_0_split <- ip3
I0428 20:10:13.966995 31792 net.cpp:382] ip3_relu3_0_split -> ip3_relu3_0_split_0
I0428 20:10:13.967001 31792 net.cpp:382] ip3_relu3_0_split -> ip3_relu3_0_split_1
I0428 20:10:13.967074 31792 net.cpp:124] Setting up ip3_relu3_0_split
I0428 20:10:13.967079 31792 net.cpp:131] Top shape: 100 10 (1000)
I0428 20:10:13.967083 31792 net.cpp:131] Top shape: 100 10 (1000)
I0428 20:10:13.967087 31792 net.cpp:139] Memory required for data: 8410800
I0428 20:10:13.967089 31792 layer_factory.hpp:77] Creating layer accuracy
I0428 20:10:13.967094 31792 net.cpp:86] Creating Layer accuracy
I0428 20:10:13.967097 31792 net.cpp:408] accuracy <- ip3_relu3_0_split_0
I0428 20:10:13.967102 31792 net.cpp:408] accuracy <- label_mnist_1_split_0
I0428 20:10:13.967106 31792 net.cpp:382] accuracy -> accuracy
…
