…
I0428 19:57:27.520579 28685 net.cpp:296] The NetState phase (0) differed from the phase (1) specified by a rule in layer mnist
I0428 19:57:27.520593 28685 net.cpp:296] The NetState phase (0) differed from the phase (1) specified by a rule in layer accuracy
I0428 19:57:27.520673 28685 net.cpp:53] Initializing net from parameters: 
name: "LeNet"
state {
  phase: TRAIN
  level: 0
  stage: ""
}
layer {
  name: "mnist"
  type: "Data"
  top: "data"
  top: "label"
  include {
    phase: TRAIN
  }
  transform_param {
    scale: 0.00390625
  }
  data_param {
    source: "examples/mnist/mnist_train_lmdb"
    batch_size: 64
    backend: LMDB
  }
}
layer {
  name: "conv0"
  type: "Convolution"
  bottom: "data"
  top: "conv0"
  param {
    lr_mult: 1
  }
  param {
    lr_mult: 2
  }
  convolution_param {
    num_output: 10
    kernel_size: 5
    stride: 1
    weight_filler {
      type: "xavier"
    }
    bias_filler {
      type: "constant"
    }
  }
}
layer {
  name: "pool0"
  type: "Pooling"
  bottom: "conv0"
  top: "pool0"
  pooling_param {
    pool: MAX
    kernel_size: 2
    stride: 2
  }
}
layer {
  name: "conv1"
  type: "Convolution"
  bottom: "pool0"
  top: "conv1"
  param {
    lr_mult: 1
  }
  param {
    lr_mult: 2
  }
  convolution_param {
    num_output: 5
    kernel_size: 5
    stride: 1
    weight_filler {
      type: "xavier"
    }
    bias_filler {
      type: "constant"
    }
  }
}
layer {
  name: "pool1"
  type: "Pooling"
  bottom: "conv1"
  top: "pool1"
  pooling_param {
    pool: MAX
    kernel_size: 2
    stride: 2
  }
}
layer {
  name: "ip1"
  type: "InnerProduct"
  bottom: "pool1"
  top: "ip1"
  param {
    lr_mult: 1
  }
  param {
    lr_mult: 2
  }
  inner_product_param {
    num_output: 50
    weight_filler {
      type: "xavier"
    }
    bias_filler {
      type: "constant"
    }
  }
}
layer {
  name: "relu1"
  type: "ReLU"
  bottom: "ip1"
  top: "ip1"
}
layer {
  name: "ip2"
  type: "InnerProduct"
  bottom: "ip1"
  top: "ip2"
  param {
    lr_mult: 1
  }
  param {
    lr_mult: 2
  }
  inner_product_param {
    num_output: 10
    weight_filler {
      type: "xavier"
    }
    bias_filler {
      type: "constant"
    }
  }
}
layer {
  name: "relu2"
  type: "ReLU"
  bottom: "ip2"
  top: "ip2"
}
layer {
  name: "loss"
  type: "SoftmaxWithLoss"
  bottom: "ip2"
  bottom: "label"
  top: "loss"
}
I0428 19:57:27.520732 28685 layer_factory.hpp:77] Creating layer mnist
I0428 19:57:27.520817 28685 db_lmdb.cpp:35] Opened lmdb examples/mnist/mnist_train_lmdb
I0428 19:57:27.520838 28685 net.cpp:86] Creating Layer mnist
I0428 19:57:27.520844 28685 net.cpp:382] mnist -> data
I0428 19:57:27.520862 28685 net.cpp:382] mnist -> label
I0428 19:57:27.521807 28685 data_layer.cpp:45] output data size: 64,1,28,28
I0428 19:57:27.524086 28685 net.cpp:124] Setting up mnist
I0428 19:57:27.524101 28685 net.cpp:131] Top shape: 64 1 28 28 (50176)
I0428 19:57:27.524106 28685 net.cpp:131] Top shape: 64 (64)
I0428 19:57:27.524108 28685 net.cpp:139] Memory required for data: 200960
I0428 19:57:27.524114 28685 layer_factory.hpp:77] Creating layer conv0
I0428 19:57:27.524152 28685 net.cpp:86] Creating Layer conv0
I0428 19:57:27.524157 28685 net.cpp:408] conv0 <- data
I0428 19:57:27.524181 28685 net.cpp:382] conv0 -> conv0
I0428 19:57:27.759205 28685 net.cpp:124] Setting up conv0
I0428 19:57:27.759232 28685 net.cpp:131] Top shape: 64 10 24 24 (368640)
I0428 19:57:27.759237 28685 net.cpp:139] Memory required for data: 1675520
I0428 19:57:27.759268 28685 layer_factory.hpp:77] Creating layer pool0
I0428 19:57:27.759280 28685 net.cpp:86] Creating Layer pool0
I0428 19:57:27.759284 28685 net.cpp:408] pool0 <- conv0
I0428 19:57:27.759289 28685 net.cpp:382] pool0 -> pool0
I0428 19:57:27.759348 28685 net.cpp:124] Setting up pool0
I0428 19:57:27.759353 28685 net.cpp:131] Top shape: 64 10 12 12 (92160)
I0428 19:57:27.759356 28685 net.cpp:139] Memory required for data: 2044160
I0428 19:57:27.759359 28685 layer_factory.hpp:77] Creating layer conv1
I0428 19:57:27.759369 28685 net.cpp:86] Creating Layer conv1
I0428 19:57:27.759372 28685 net.cpp:408] conv1 <- pool0
I0428 19:57:27.759377 28685 net.cpp:382] conv1 -> conv1
I0428 19:57:27.762253 28685 net.cpp:124] Setting up conv1
I0428 19:57:27.762284 28685 net.cpp:131] Top shape: 64 5 8 8 (20480)
I0428 19:57:27.762287 28685 net.cpp:139] Memory required for data: 2126080
I0428 19:57:27.762295 28685 layer_factory.hpp:77] Creating layer pool1
I0428 19:57:27.762302 28685 net.cpp:86] Creating Layer pool1
I0428 19:57:27.762306 28685 net.cpp:408] pool1 <- conv1
I0428 19:57:27.762311 28685 net.cpp:382] pool1 -> pool1
I0428 19:57:27.762347 28685 net.cpp:124] Setting up pool1
I0428 19:57:27.762353 28685 net.cpp:131] Top shape: 64 5 4 4 (5120)
I0428 19:57:27.762356 28685 net.cpp:139] Memory required for data: 2146560
I0428 19:57:27.762358 28685 layer_factory.hpp:77] Creating layer ip1
I0428 19:57:27.762365 28685 net.cpp:86] Creating Layer ip1
I0428 19:57:27.762368 28685 net.cpp:408] ip1 <- pool1
I0428 19:57:27.762372 28685 net.cpp:382] ip1 -> ip1
I0428 19:57:27.762485 28685 net.cpp:124] Setting up ip1
I0428 19:57:27.762493 28685 net.cpp:131] Top shape: 64 50 (3200)
I0428 19:57:27.762496 28685 net.cpp:139] Memory required for data: 2159360
I0428 19:57:27.762502 28685 layer_factory.hpp:77] Creating layer relu1
I0428 19:57:27.762508 28685 net.cpp:86] Creating Layer relu1
I0428 19:57:27.762511 28685 net.cpp:408] relu1 <- ip1
I0428 19:57:27.762516 28685 net.cpp:369] relu1 -> ip1 (in-place)
I0428 19:57:27.762675 28685 net.cpp:124] Setting up relu1
I0428 19:57:27.762683 28685 net.cpp:131] Top shape: 64 50 (3200)
I0428 19:57:27.762686 28685 net.cpp:139] Memory required for data: 2172160
I0428 19:57:27.762689 28685 layer_factory.hpp:77] Creating layer ip2
I0428 19:57:27.762694 28685 net.cpp:86] Creating Layer ip2
I0428 19:57:27.762697 28685 net.cpp:408] ip2 <- ip1
I0428 19:57:27.762702 28685 net.cpp:382] ip2 -> ip2
I0428 19:57:27.762811 28685 net.cpp:124] Setting up ip2
I0428 19:57:27.762818 28685 net.cpp:131] Top shape: 64 10 (640)
I0428 19:57:27.762821 28685 net.cpp:139] Memory required for data: 2174720
I0428 19:57:27.762827 28685 layer_factory.hpp:77] Creating layer relu2
I0428 19:57:27.762832 28685 net.cpp:86] Creating Layer relu2
I0428 19:57:27.762835 28685 net.cpp:408] relu2 <- ip2
I0428 19:57:27.762840 28685 net.cpp:369] relu2 -> ip2 (in-place)
I0428 19:57:27.763640 28685 net.cpp:124] Setting up relu2
I0428 19:57:27.763651 28685 net.cpp:131] Top shape: 64 10 (640)
I0428 19:57:27.763670 28685 net.cpp:139] Memory required for data: 2177280
I0428 19:57:27.763674 28685 layer_factory.hpp:77] Creating layer loss
I0428 19:57:27.763680 28685 net.cpp:86] Creating Layer loss
I0428 19:57:27.763684 28685 net.cpp:408] loss <- ip2
I0428 19:57:27.763687 28685 net.cpp:408] loss <- label
I0428 19:57:27.763694 28685 net.cpp:382] loss -> loss
I0428 19:57:27.763710 28685 layer_factory.hpp:77] Creating layer loss
…
I0428 19:57:27.764353 28685 solver.cpp:173] Creating test net (#0) specified by net file: ECE595/mnist/train_test/var_everything2/lenet_train_test789.prototxt
I0428 19:57:27.764376 28685 net.cpp:296] The NetState phase (1) differed from the phase (0) specified by a rule in layer mnist
I0428 19:57:27.764454 28685 net.cpp:53] Initializing net from parameters: 
name: "LeNet"
state {
  phase: TEST
}
layer {
  name: "mnist"
  type: "Data"
  top: "data"
  top: "label"
  include {
    phase: TEST
  }
  transform_param {
    scale: 0.00390625
  }
  data_param {
    source: "examples/mnist/mnist_test_lmdb"
    batch_size: 100
    backend: LMDB
  }
}
layer {
  name: "conv0"
  type: "Convolution"
  bottom: "data"
  top: "conv0"
  param {
    lr_mult: 1
  }
  param {
    lr_mult: 2
  }
  convolution_param {
    num_output: 10
    kernel_size: 5
    stride: 1
    weight_filler {
      type: "xavier"
    }
    bias_filler {
      type: "constant"
    }
  }
}
layer {
  name: "pool0"
  type: "Pooling"
  bottom: "conv0"
  top: "pool0"
  pooling_param {
    pool: MAX
    kernel_size: 2
    stride: 2
  }
}
layer {
  name: "conv1"
  type: "Convolution"
  bottom: "pool0"
  top: "conv1"
  param {
    lr_mult: 1
  }
  param {
    lr_mult: 2
  }
  convolution_param {
    num_output: 5
    kernel_size: 5
    stride: 1
    weight_filler {
      type: "xavier"
    }
    bias_filler {
      type: "constant"
    }
  }
}
layer {
  name: "pool1"
  type: "Pooling"
  bottom: "conv1"
  top: "pool1"
  pooling_param {
    pool: MAX
    kernel_size: 2
    stride: 2
  }
}
layer {
  name: "ip1"
  type: "InnerProduct"
  bottom: "pool1"
  top: "ip1"
  param {
    lr_mult: 1
  }
  param {
    lr_mult: 2
  }
  inner_product_param {
    num_output: 50
    weight_filler {
      type: "xavier"
    }
    bias_filler {
      type: "constant"
    }
  }
}
layer {
  name: "relu1"
  type: "ReLU"
  bottom: "ip1"
  top: "ip1"
}
layer {
  name: "ip2"
  type: "InnerProduct"
  bottom: "ip1"
  top: "ip2"
  param {
    lr_mult: 1
  }
  param {
    lr_mult: 2
  }
  inner_product_param {
    num_output: 10
    weight_filler {
      type: "xavier"
    }
    bias_filler {
      type: "constant"
    }
  }
}
layer {
  name: "relu2"
  type: "ReLU"
  bottom: "ip2"
  top: "ip2"
}
layer {
  name: "accuracy"
  type: "Accuracy"
  bottom: "ip2"
  bottom: "label"
  top: "accuracy"
  include {
    phase: TEST
  }
}
layer {
  name: "loss"
  type: "SoftmaxWithLoss"
  bottom: "ip2"
  bottom: "label"
  top: "loss"
}
I0428 19:57:27.764511 28685 layer_factory.hpp:77] Creating layer mnist
I0428 19:57:27.764550 28685 db_lmdb.cpp:35] Opened lmdb examples/mnist/mnist_test_lmdb
I0428 19:57:27.764565 28685 net.cpp:86] Creating Layer mnist
I0428 19:57:27.764569 28685 net.cpp:382] mnist -> data
I0428 19:57:27.764576 28685 net.cpp:382] mnist -> label
I0428 19:57:27.764688 28685 data_layer.cpp:45] output data size: 100,1,28,28
I0428 19:57:27.766623 28685 net.cpp:124] Setting up mnist
I0428 19:57:27.766650 28685 net.cpp:131] Top shape: 100 1 28 28 (78400)
I0428 19:57:27.766655 28685 net.cpp:131] Top shape: 100 (100)
I0428 19:57:27.766659 28685 net.cpp:139] Memory required for data: 314000
I0428 19:57:27.766664 28685 layer_factory.hpp:77] Creating layer label_mnist_1_split
I0428 19:57:27.766669 28685 net.cpp:86] Creating Layer label_mnist_1_split
I0428 19:57:27.766672 28685 net.cpp:408] label_mnist_1_split <- label
I0428 19:57:27.766676 28685 net.cpp:382] label_mnist_1_split -> label_mnist_1_split_0
I0428 19:57:27.766682 28685 net.cpp:382] label_mnist_1_split -> label_mnist_1_split_1
I0428 19:57:27.766757 28685 net.cpp:124] Setting up label_mnist_1_split
I0428 19:57:27.766772 28685 net.cpp:131] Top shape: 100 (100)
I0428 19:57:27.766777 28685 net.cpp:131] Top shape: 100 (100)
I0428 19:57:27.766779 28685 net.cpp:139] Memory required for data: 314800
I0428 19:57:27.766782 28685 layer_factory.hpp:77] Creating layer conv0
I0428 19:57:27.766790 28685 net.cpp:86] Creating Layer conv0
I0428 19:57:27.766793 28685 net.cpp:408] conv0 <- data
I0428 19:57:27.766798 28685 net.cpp:382] conv0 -> conv0
I0428 19:57:27.768682 28685 net.cpp:124] Setting up conv0
I0428 19:57:27.768694 28685 net.cpp:131] Top shape: 100 10 24 24 (576000)
I0428 19:57:27.768698 28685 net.cpp:139] Memory required for data: 2618800
I0428 19:57:27.768707 28685 layer_factory.hpp:77] Creating layer pool0
I0428 19:57:27.768712 28685 net.cpp:86] Creating Layer pool0
I0428 19:57:27.768717 28685 net.cpp:408] pool0 <- conv0
I0428 19:57:27.768720 28685 net.cpp:382] pool0 -> pool0
I0428 19:57:27.768754 28685 net.cpp:124] Setting up pool0
I0428 19:57:27.768759 28685 net.cpp:131] Top shape: 100 10 12 12 (144000)
I0428 19:57:27.768761 28685 net.cpp:139] Memory required for data: 3194800
I0428 19:57:27.768764 28685 layer_factory.hpp:77] Creating layer conv1
I0428 19:57:27.768771 28685 net.cpp:86] Creating Layer conv1
I0428 19:57:27.768774 28685 net.cpp:408] conv1 <- pool0
I0428 19:57:27.768779 28685 net.cpp:382] conv1 -> conv1
I0428 19:57:27.770958 28685 net.cpp:124] Setting up conv1
I0428 19:57:27.770970 28685 net.cpp:131] Top shape: 100 5 8 8 (32000)
I0428 19:57:27.770974 28685 net.cpp:139] Memory required for data: 3322800
I0428 19:57:27.770982 28685 layer_factory.hpp:77] Creating layer pool1
I0428 19:57:27.770988 28685 net.cpp:86] Creating Layer pool1
I0428 19:57:27.770992 28685 net.cpp:408] pool1 <- conv1
I0428 19:57:27.770997 28685 net.cpp:382] pool1 -> pool1
I0428 19:57:27.771034 28685 net.cpp:124] Setting up pool1
I0428 19:57:27.771039 28685 net.cpp:131] Top shape: 100 5 4 4 (8000)
I0428 19:57:27.771041 28685 net.cpp:139] Memory required for data: 3354800
I0428 19:57:27.771052 28685 layer_factory.hpp:77] Creating layer ip1
I0428 19:57:27.771059 28685 net.cpp:86] Creating Layer ip1
I0428 19:57:27.771061 28685 net.cpp:408] ip1 <- pool1
I0428 19:57:27.771066 28685 net.cpp:382] ip1 -> ip1
I0428 19:57:27.771186 28685 net.cpp:124] Setting up ip1
I0428 19:57:27.771194 28685 net.cpp:131] Top shape: 100 50 (5000)
I0428 19:57:27.771198 28685 net.cpp:139] Memory required for data: 3374800
I0428 19:57:27.771204 28685 layer_factory.hpp:77] Creating layer relu1
I0428 19:57:27.771209 28685 net.cpp:86] Creating Layer relu1
I0428 19:57:27.771212 28685 net.cpp:408] relu1 <- ip1
I0428 19:57:27.771224 28685 net.cpp:369] relu1 -> ip1 (in-place)
I0428 19:57:27.771422 28685 net.cpp:124] Setting up relu1
I0428 19:57:27.771432 28685 net.cpp:131] Top shape: 100 50 (5000)
I0428 19:57:27.771436 28685 net.cpp:139] Memory required for data: 3394800
I0428 19:57:27.771440 28685 layer_factory.hpp:77] Creating layer ip2
I0428 19:57:27.771448 28685 net.cpp:86] Creating Layer ip2
I0428 19:57:27.771451 28685 net.cpp:408] ip2 <- ip1
I0428 19:57:27.771456 28685 net.cpp:382] ip2 -> ip2
I0428 19:57:27.771564 28685 net.cpp:124] Setting up ip2
I0428 19:57:27.771571 28685 net.cpp:131] Top shape: 100 10 (1000)
I0428 19:57:27.771574 28685 net.cpp:139] Memory required for data: 3398800
I0428 19:57:27.771579 28685 layer_factory.hpp:77] Creating layer relu2
I0428 19:57:27.771585 28685 net.cpp:86] Creating Layer relu2
I0428 19:57:27.771589 28685 net.cpp:408] relu2 <- ip2
I0428 19:57:27.771592 28685 net.cpp:369] relu2 -> ip2 (in-place)
I0428 19:57:27.771795 28685 net.cpp:124] Setting up relu2
I0428 19:57:27.771802 28685 net.cpp:131] Top shape: 100 10 (1000)
I0428 19:57:27.771806 28685 net.cpp:139] Memory required for data: 3402800
I0428 19:57:27.771811 28685 layer_factory.hpp:77] Creating layer ip2_relu2_0_split
I0428 19:57:27.771816 28685 net.cpp:86] Creating Layer ip2_relu2_0_split
I0428 19:57:27.771818 28685 net.cpp:408] ip2_relu2_0_split <- ip2
I0428 19:57:27.771844 28685 net.cpp:382] ip2_relu2_0_split -> ip2_relu2_0_split_0
I0428 19:57:27.771860 28685 net.cpp:382] ip2_relu2_0_split -> ip2_relu2_0_split_1
I0428 19:57:27.771898 28685 net.cpp:124] Setting up ip2_relu2_0_split
I0428 19:57:27.771915 28685 net.cpp:131] Top shape: 100 10 (1000)
I0428 19:57:27.771919 28685 net.cpp:131] Top shape: 100 10 (1000)
I0428 19:57:27.771929 28685 net.cpp:139] Memory required for data: 3410800
I0428 19:57:27.771931 28685 layer_factory.hpp:77] Creating layer accuracy
I0428 19:57:27.771937 28685 net.cpp:86] Creating Layer accuracy
I0428 19:57:27.771940 28685 net.cpp:408] accuracy <- ip2_relu2_0_split_0
I0428 19:57:27.771944 28685 net.cpp:408] accuracy <- label_mnist_1_split_0
I0428 19:57:27.771948 28685 net.cpp:382] accuracy -> accuracy
…
