…
I0428 19:45:48.489845 25891 net.cpp:296] The NetState phase (0) differed from the phase (1) specified by a rule in layer mnist
I0428 19:45:48.489861 25891 net.cpp:296] The NetState phase (0) differed from the phase (1) specified by a rule in layer accuracy
I0428 19:45:48.489954 25891 net.cpp:53] Initializing net from parameters: 
name: "LeNet"
state {
  phase: TRAIN
  level: 0
  stage: ""
}
layer {
  name: "mnist"
  type: "Data"
  top: "data"
  top: "label"
  include {
    phase: TRAIN
  }
  transform_param {
    scale: 0.00390625
  }
  data_param {
    source: "examples/mnist/mnist_train_lmdb"
    batch_size: 64
    backend: LMDB
  }
}
layer {
  name: "conv0"
  type: "Convolution"
  bottom: "data"
  top: "conv0"
  param {
    lr_mult: 1
  }
  param {
    lr_mult: 2
  }
  convolution_param {
    num_output: 2
    kernel_size: 5
    stride: 1
    weight_filler {
      type: "xavier"
    }
    bias_filler {
      type: "constant"
    }
  }
}
layer {
  name: "pool0"
  type: "Pooling"
  bottom: "conv0"
  top: "pool0"
  pooling_param {
    pool: MAX
    kernel_size: 2
    stride: 2
  }
}
layer {
  name: "conv1"
  type: "Convolution"
  bottom: "pool0"
  top: "conv1"
  param {
    lr_mult: 1
  }
  param {
    lr_mult: 2
  }
  convolution_param {
    num_output: 100
    kernel_size: 5
    stride: 1
    weight_filler {
      type: "xavier"
    }
    bias_filler {
      type: "constant"
    }
  }
}
layer {
  name: "pool1"
  type: "Pooling"
  bottom: "conv1"
  top: "pool1"
  pooling_param {
    pool: MAX
    kernel_size: 2
    stride: 2
  }
}
layer {
  name: "ip1"
  type: "InnerProduct"
  bottom: "pool1"
  top: "ip1"
  param {
    lr_mult: 1
  }
  param {
    lr_mult: 2
  }
  inner_product_param {
    num_output: 50
    weight_filler {
      type: "xavier"
    }
    bias_filler {
      type: "constant"
    }
  }
}
layer {
  name: "relu1"
  type: "ReLU"
  bottom: "ip1"
  top: "ip1"
}
layer {
  name: "ip2"
  type: "InnerProduct"
  bottom: "ip1"
  top: "ip2"
  param {
    lr_mult: 1
  }
  param {
    lr_mult: 2
  }
  inner_product_param {
    num_output: 10
    weight_filler {
      type: "xavier"
    }
    bias_filler {
      type: "constant"
    }
  }
}
layer {
  name: "relu2"
  type: "ReLU"
  bottom: "ip2"
  top: "ip2"
}
layer {
  name: "loss"
  type: "SoftmaxWithLoss"
  bottom: "ip2"
  bottom: "label"
  top: "loss"
}
I0428 19:45:48.490030 25891 layer_factory.hpp:77] Creating layer mnist
I0428 19:45:48.490128 25891 db_lmdb.cpp:35] Opened lmdb examples/mnist/mnist_train_lmdb
I0428 19:45:48.490152 25891 net.cpp:86] Creating Layer mnist
I0428 19:45:48.490160 25891 net.cpp:382] mnist -> data
I0428 19:45:48.490183 25891 net.cpp:382] mnist -> label
I0428 19:45:48.491286 25891 data_layer.cpp:45] output data size: 64,1,28,28
I0428 19:45:48.493746 25891 net.cpp:124] Setting up mnist
I0428 19:45:48.493767 25891 net.cpp:131] Top shape: 64 1 28 28 (50176)
I0428 19:45:48.493772 25891 net.cpp:131] Top shape: 64 (64)
I0428 19:45:48.493777 25891 net.cpp:139] Memory required for data: 200960
I0428 19:45:48.493783 25891 layer_factory.hpp:77] Creating layer conv0
I0428 19:45:48.493800 25891 net.cpp:86] Creating Layer conv0
I0428 19:45:48.493806 25891 net.cpp:408] conv0 <- data
I0428 19:45:48.493818 25891 net.cpp:382] conv0 -> conv0
I0428 19:45:48.779358 25891 net.cpp:124] Setting up conv0
I0428 19:45:48.779386 25891 net.cpp:131] Top shape: 64 2 24 24 (73728)
I0428 19:45:48.779391 25891 net.cpp:139] Memory required for data: 495872
I0428 19:45:48.779424 25891 layer_factory.hpp:77] Creating layer pool0
I0428 19:45:48.779438 25891 net.cpp:86] Creating Layer pool0
I0428 19:45:48.779443 25891 net.cpp:408] pool0 <- conv0
I0428 19:45:48.779448 25891 net.cpp:382] pool0 -> pool0
I0428 19:45:48.779496 25891 net.cpp:124] Setting up pool0
I0428 19:45:48.779502 25891 net.cpp:131] Top shape: 64 2 12 12 (18432)
I0428 19:45:48.779505 25891 net.cpp:139] Memory required for data: 569600
I0428 19:45:48.779508 25891 layer_factory.hpp:77] Creating layer conv1
I0428 19:45:48.779520 25891 net.cpp:86] Creating Layer conv1
I0428 19:45:48.779522 25891 net.cpp:408] conv1 <- pool0
I0428 19:45:48.779527 25891 net.cpp:382] conv1 -> conv1
I0428 19:45:48.782340 25891 net.cpp:124] Setting up conv1
I0428 19:45:48.782354 25891 net.cpp:131] Top shape: 64 100 8 8 (409600)
I0428 19:45:48.782358 25891 net.cpp:139] Memory required for data: 2208000
I0428 19:45:48.782366 25891 layer_factory.hpp:77] Creating layer pool1
I0428 19:45:48.782373 25891 net.cpp:86] Creating Layer pool1
I0428 19:45:48.782377 25891 net.cpp:408] pool1 <- conv1
I0428 19:45:48.782382 25891 net.cpp:382] pool1 -> pool1
I0428 19:45:48.782435 25891 net.cpp:124] Setting up pool1
I0428 19:45:48.782440 25891 net.cpp:131] Top shape: 64 100 4 4 (102400)
I0428 19:45:48.782444 25891 net.cpp:139] Memory required for data: 2617600
I0428 19:45:48.782447 25891 layer_factory.hpp:77] Creating layer ip1
I0428 19:45:48.782454 25891 net.cpp:86] Creating Layer ip1
I0428 19:45:48.782457 25891 net.cpp:408] ip1 <- pool1
I0428 19:45:48.782461 25891 net.cpp:382] ip1 -> ip1
I0428 19:45:48.783851 25891 net.cpp:124] Setting up ip1
I0428 19:45:48.783864 25891 net.cpp:131] Top shape: 64 50 (3200)
I0428 19:45:48.783867 25891 net.cpp:139] Memory required for data: 2630400
I0428 19:45:48.783875 25891 layer_factory.hpp:77] Creating layer relu1
I0428 19:45:48.783881 25891 net.cpp:86] Creating Layer relu1
I0428 19:45:48.783885 25891 net.cpp:408] relu1 <- ip1
I0428 19:45:48.783888 25891 net.cpp:369] relu1 -> ip1 (in-place)
I0428 19:45:48.784054 25891 net.cpp:124] Setting up relu1
I0428 19:45:48.784063 25891 net.cpp:131] Top shape: 64 50 (3200)
I0428 19:45:48.784066 25891 net.cpp:139] Memory required for data: 2643200
I0428 19:45:48.784070 25891 layer_factory.hpp:77] Creating layer ip2
I0428 19:45:48.784076 25891 net.cpp:86] Creating Layer ip2
I0428 19:45:48.784080 25891 net.cpp:408] ip2 <- ip1
I0428 19:45:48.784085 25891 net.cpp:382] ip2 -> ip2
I0428 19:45:48.784196 25891 net.cpp:124] Setting up ip2
I0428 19:45:48.784204 25891 net.cpp:131] Top shape: 64 10 (640)
I0428 19:45:48.784207 25891 net.cpp:139] Memory required for data: 2645760
I0428 19:45:48.784212 25891 layer_factory.hpp:77] Creating layer relu2
I0428 19:45:48.784219 25891 net.cpp:86] Creating Layer relu2
I0428 19:45:48.784222 25891 net.cpp:408] relu2 <- ip2
I0428 19:45:48.784226 25891 net.cpp:369] relu2 -> ip2 (in-place)
I0428 19:45:48.785018 25891 net.cpp:124] Setting up relu2
I0428 19:45:48.785032 25891 net.cpp:131] Top shape: 64 10 (640)
I0428 19:45:48.785051 25891 net.cpp:139] Memory required for data: 2648320
I0428 19:45:48.785055 25891 layer_factory.hpp:77] Creating layer loss
I0428 19:45:48.785064 25891 net.cpp:86] Creating Layer loss
I0428 19:45:48.785068 25891 net.cpp:408] loss <- ip2
I0428 19:45:48.785073 25891 net.cpp:408] loss <- label
I0428 19:45:48.785079 25891 net.cpp:382] loss -> loss
I0428 19:45:48.785099 25891 layer_factory.hpp:77] Creating layer loss
…
I0428 19:45:48.785787 25891 solver.cpp:173] Creating test net (#0) specified by net file: ECE595/mnist/train_test/var_everything2/lenet_train_test479.prototxt
I0428 19:45:48.785830 25891 net.cpp:296] The NetState phase (1) differed from the phase (0) specified by a rule in layer mnist
I0428 19:45:48.785931 25891 net.cpp:53] Initializing net from parameters: 
name: "LeNet"
state {
  phase: TEST
}
layer {
  name: "mnist"
  type: "Data"
  top: "data"
  top: "label"
  include {
    phase: TEST
  }
  transform_param {
    scale: 0.00390625
  }
  data_param {
    source: "examples/mnist/mnist_test_lmdb"
    batch_size: 100
    backend: LMDB
  }
}
layer {
  name: "conv0"
  type: "Convolution"
  bottom: "data"
  top: "conv0"
  param {
    lr_mult: 1
  }
  param {
    lr_mult: 2
  }
  convolution_param {
    num_output: 2
    kernel_size: 5
    stride: 1
    weight_filler {
      type: "xavier"
    }
    bias_filler {
      type: "constant"
    }
  }
}
layer {
  name: "pool0"
  type: "Pooling"
  bottom: "conv0"
  top: "pool0"
  pooling_param {
    pool: MAX
    kernel_size: 2
    stride: 2
  }
}
layer {
  name: "conv1"
  type: "Convolution"
  bottom: "pool0"
  top: "conv1"
  param {
    lr_mult: 1
  }
  param {
    lr_mult: 2
  }
  convolution_param {
    num_output: 100
    kernel_size: 5
    stride: 1
    weight_filler {
      type: "xavier"
    }
    bias_filler {
      type: "constant"
    }
  }
}
layer {
  name: "pool1"
  type: "Pooling"
  bottom: "conv1"
  top: "pool1"
  pooling_param {
    pool: MAX
    kernel_size: 2
    stride: 2
  }
}
layer {
  name: "ip1"
  type: "InnerProduct"
  bottom: "pool1"
  top: "ip1"
  param {
    lr_mult: 1
  }
  param {
    lr_mult: 2
  }
  inner_product_param {
    num_output: 50
    weight_filler {
      type: "xavier"
    }
    bias_filler {
      type: "constant"
    }
  }
}
layer {
  name: "relu1"
  type: "ReLU"
  bottom: "ip1"
  top: "ip1"
}
layer {
  name: "ip2"
  type: "InnerProduct"
  bottom: "ip1"
  top: "ip2"
  param {
    lr_mult: 1
  }
  param {
    lr_mult: 2
  }
  inner_product_param {
    num_output: 10
    weight_filler {
      type: "xavier"
    }
    bias_filler {
      type: "constant"
    }
  }
}
layer {
  name: "relu2"
  type: "ReLU"
  bottom: "ip2"
  top: "ip2"
}
layer {
  name: "accuracy"
  type: "Accuracy"
  bottom: "ip2"
  bottom: "label"
  top: "accuracy"
  include {
    phase: TEST
  }
}
layer {
  name: "loss"
  type: "SoftmaxWithLoss"
  bottom: "ip2"
  bottom: "label"
  top: "loss"
}
I0428 19:45:48.786012 25891 layer_factory.hpp:77] Creating layer mnist
I0428 19:45:48.786056 25891 db_lmdb.cpp:35] Opened lmdb examples/mnist/mnist_test_lmdb
I0428 19:45:48.786068 25891 net.cpp:86] Creating Layer mnist
I0428 19:45:48.786073 25891 net.cpp:382] mnist -> data
I0428 19:45:48.786082 25891 net.cpp:382] mnist -> label
I0428 19:45:48.786168 25891 data_layer.cpp:45] output data size: 100,1,28,28
I0428 19:45:48.787433 25891 net.cpp:124] Setting up mnist
I0428 19:45:48.787446 25891 net.cpp:131] Top shape: 100 1 28 28 (78400)
I0428 19:45:48.787451 25891 net.cpp:131] Top shape: 100 (100)
I0428 19:45:48.787453 25891 net.cpp:139] Memory required for data: 314000
I0428 19:45:48.787456 25891 layer_factory.hpp:77] Creating layer label_mnist_1_split
I0428 19:45:48.787467 25891 net.cpp:86] Creating Layer label_mnist_1_split
I0428 19:45:48.787469 25891 net.cpp:408] label_mnist_1_split <- label
I0428 19:45:48.787475 25891 net.cpp:382] label_mnist_1_split -> label_mnist_1_split_0
I0428 19:45:48.787482 25891 net.cpp:382] label_mnist_1_split -> label_mnist_1_split_1
I0428 19:45:48.787566 25891 net.cpp:124] Setting up label_mnist_1_split
I0428 19:45:48.787585 25891 net.cpp:131] Top shape: 100 (100)
I0428 19:45:48.787588 25891 net.cpp:131] Top shape: 100 (100)
I0428 19:45:48.787591 25891 net.cpp:139] Memory required for data: 314800
I0428 19:45:48.787593 25891 layer_factory.hpp:77] Creating layer conv0
I0428 19:45:48.787603 25891 net.cpp:86] Creating Layer conv0
I0428 19:45:48.787606 25891 net.cpp:408] conv0 <- data
I0428 19:45:48.787611 25891 net.cpp:382] conv0 -> conv0
I0428 19:45:48.789463 25891 net.cpp:124] Setting up conv0
I0428 19:45:48.789487 25891 net.cpp:131] Top shape: 100 2 24 24 (115200)
I0428 19:45:48.789491 25891 net.cpp:139] Memory required for data: 775600
I0428 19:45:48.789500 25891 layer_factory.hpp:77] Creating layer pool0
I0428 19:45:48.789522 25891 net.cpp:86] Creating Layer pool0
I0428 19:45:48.789525 25891 net.cpp:408] pool0 <- conv0
I0428 19:45:48.789531 25891 net.cpp:382] pool0 -> pool0
I0428 19:45:48.789583 25891 net.cpp:124] Setting up pool0
I0428 19:45:48.789590 25891 net.cpp:131] Top shape: 100 2 12 12 (28800)
I0428 19:45:48.789593 25891 net.cpp:139] Memory required for data: 890800
I0428 19:45:48.789597 25891 layer_factory.hpp:77] Creating layer conv1
I0428 19:45:48.789608 25891 net.cpp:86] Creating Layer conv1
I0428 19:45:48.789610 25891 net.cpp:408] conv1 <- pool0
I0428 19:45:48.789616 25891 net.cpp:382] conv1 -> conv1
I0428 19:45:48.791327 25891 net.cpp:124] Setting up conv1
I0428 19:45:48.791340 25891 net.cpp:131] Top shape: 100 100 8 8 (640000)
I0428 19:45:48.791354 25891 net.cpp:139] Memory required for data: 3450800
I0428 19:45:48.791363 25891 layer_factory.hpp:77] Creating layer pool1
I0428 19:45:48.791370 25891 net.cpp:86] Creating Layer pool1
I0428 19:45:48.791374 25891 net.cpp:408] pool1 <- conv1
I0428 19:45:48.791379 25891 net.cpp:382] pool1 -> pool1
I0428 19:45:48.791435 25891 net.cpp:124] Setting up pool1
I0428 19:45:48.791441 25891 net.cpp:131] Top shape: 100 100 4 4 (160000)
I0428 19:45:48.791445 25891 net.cpp:139] Memory required for data: 4090800
I0428 19:45:48.791447 25891 layer_factory.hpp:77] Creating layer ip1
I0428 19:45:48.791453 25891 net.cpp:86] Creating Layer ip1
I0428 19:45:48.791456 25891 net.cpp:408] ip1 <- pool1
I0428 19:45:48.791474 25891 net.cpp:382] ip1 -> ip1
I0428 19:45:48.792140 25891 net.cpp:124] Setting up ip1
I0428 19:45:48.792147 25891 net.cpp:131] Top shape: 100 50 (5000)
I0428 19:45:48.792150 25891 net.cpp:139] Memory required for data: 4110800
I0428 19:45:48.792157 25891 layer_factory.hpp:77] Creating layer relu1
I0428 19:45:48.792161 25891 net.cpp:86] Creating Layer relu1
I0428 19:45:48.792167 25891 net.cpp:408] relu1 <- ip1
I0428 19:45:48.792171 25891 net.cpp:369] relu1 -> ip1 (in-place)
I0428 19:45:48.792426 25891 net.cpp:124] Setting up relu1
I0428 19:45:48.792436 25891 net.cpp:131] Top shape: 100 50 (5000)
I0428 19:45:48.792439 25891 net.cpp:139] Memory required for data: 4130800
I0428 19:45:48.792443 25891 layer_factory.hpp:77] Creating layer ip2
I0428 19:45:48.792451 25891 net.cpp:86] Creating Layer ip2
I0428 19:45:48.792455 25891 net.cpp:408] ip2 <- ip1
I0428 19:45:48.792460 25891 net.cpp:382] ip2 -> ip2
I0428 19:45:48.792578 25891 net.cpp:124] Setting up ip2
I0428 19:45:48.792587 25891 net.cpp:131] Top shape: 100 10 (1000)
I0428 19:45:48.792589 25891 net.cpp:139] Memory required for data: 4134800
I0428 19:45:48.792594 25891 layer_factory.hpp:77] Creating layer relu2
I0428 19:45:48.792600 25891 net.cpp:86] Creating Layer relu2
I0428 19:45:48.792603 25891 net.cpp:408] relu2 <- ip2
I0428 19:45:48.792609 25891 net.cpp:369] relu2 -> ip2 (in-place)
I0428 19:45:48.792803 25891 net.cpp:124] Setting up relu2
I0428 19:45:48.792817 25891 net.cpp:131] Top shape: 100 10 (1000)
I0428 19:45:48.792821 25891 net.cpp:139] Memory required for data: 4138800
I0428 19:45:48.792825 25891 layer_factory.hpp:77] Creating layer ip2_relu2_0_split
I0428 19:45:48.792834 25891 net.cpp:86] Creating Layer ip2_relu2_0_split
I0428 19:45:48.792836 25891 net.cpp:408] ip2_relu2_0_split <- ip2
I0428 19:45:48.792841 25891 net.cpp:382] ip2_relu2_0_split -> ip2_relu2_0_split_0
I0428 19:45:48.792858 25891 net.cpp:382] ip2_relu2_0_split -> ip2_relu2_0_split_1
I0428 19:45:48.792898 25891 net.cpp:124] Setting up ip2_relu2_0_split
I0428 19:45:48.792906 25891 net.cpp:131] Top shape: 100 10 (1000)
I0428 19:45:48.792910 25891 net.cpp:131] Top shape: 100 10 (1000)
I0428 19:45:48.792913 25891 net.cpp:139] Memory required for data: 4146800
I0428 19:45:48.792917 25891 layer_factory.hpp:77] Creating layer accuracy
I0428 19:45:48.792922 25891 net.cpp:86] Creating Layer accuracy
I0428 19:45:48.792927 25891 net.cpp:408] accuracy <- ip2_relu2_0_split_0
I0428 19:45:48.792937 25891 net.cpp:408] accuracy <- label_mnist_1_split_0
I0428 19:45:48.792943 25891 net.cpp:382] accuracy -> accuracy
…
