…
I0428 19:51:11.472599 27217 net.cpp:296] The NetState phase (0) differed from the phase (1) specified by a rule in layer mnist
I0428 19:51:11.472611 27217 net.cpp:296] The NetState phase (0) differed from the phase (1) specified by a rule in layer accuracy
I0428 19:51:11.472676 27217 net.cpp:53] Initializing net from parameters: 
name: "LeNet"
state {
  phase: TRAIN
  level: 0
  stage: ""
}
layer {
  name: "mnist"
  type: "Data"
  top: "data"
  top: "label"
  include {
    phase: TRAIN
  }
  transform_param {
    scale: 0.00390625
  }
  data_param {
    source: "examples/mnist/mnist_train_lmdb"
    batch_size: 64
    backend: LMDB
  }
}
layer {
  name: "conv0"
  type: "Convolution"
  bottom: "data"
  top: "conv0"
  param {
    lr_mult: 1
  }
  param {
    lr_mult: 2
  }
  convolution_param {
    num_output: 5
    kernel_size: 5
    stride: 1
    weight_filler {
      type: "xavier"
    }
    bias_filler {
      type: "constant"
    }
  }
}
layer {
  name: "pool0"
  type: "Pooling"
  bottom: "conv0"
  top: "pool0"
  pooling_param {
    pool: MAX
    kernel_size: 2
    stride: 2
  }
}
layer {
  name: "conv1"
  type: "Convolution"
  bottom: "pool0"
  top: "conv1"
  param {
    lr_mult: 1
  }
  param {
    lr_mult: 2
  }
  convolution_param {
    num_output: 25
    kernel_size: 5
    stride: 1
    weight_filler {
      type: "xavier"
    }
    bias_filler {
      type: "constant"
    }
  }
}
layer {
  name: "pool1"
  type: "Pooling"
  bottom: "conv1"
  top: "pool1"
  pooling_param {
    pool: MAX
    kernel_size: 2
    stride: 2
  }
}
layer {
  name: "ip1"
  type: "InnerProduct"
  bottom: "pool1"
  top: "ip1"
  param {
    lr_mult: 1
  }
  param {
    lr_mult: 2
  }
  inner_product_param {
    num_output: 10
    weight_filler {
      type: "xavier"
    }
    bias_filler {
      type: "constant"
    }
  }
}
layer {
  name: "relu1"
  type: "ReLU"
  bottom: "ip1"
  top: "ip1"
}
layer {
  name: "loss"
  type: "SoftmaxWithLoss"
  bottom: "ip1"
  bottom: "label"
  top: "loss"
}
I0428 19:51:11.472729 27217 layer_factory.hpp:77] Creating layer mnist
I0428 19:51:11.472859 27217 db_lmdb.cpp:35] Opened lmdb examples/mnist/mnist_train_lmdb
I0428 19:51:11.472880 27217 net.cpp:86] Creating Layer mnist
I0428 19:51:11.472887 27217 net.cpp:382] mnist -> data
I0428 19:51:11.472906 27217 net.cpp:382] mnist -> label
I0428 19:51:11.473824 27217 data_layer.cpp:45] output data size: 64,1,28,28
I0428 19:51:11.476109 27217 net.cpp:124] Setting up mnist
I0428 19:51:11.476150 27217 net.cpp:131] Top shape: 64 1 28 28 (50176)
I0428 19:51:11.476155 27217 net.cpp:131] Top shape: 64 (64)
I0428 19:51:11.476157 27217 net.cpp:139] Memory required for data: 200960
I0428 19:51:11.476163 27217 layer_factory.hpp:77] Creating layer conv0
I0428 19:51:11.476177 27217 net.cpp:86] Creating Layer conv0
I0428 19:51:11.476182 27217 net.cpp:408] conv0 <- data
I0428 19:51:11.476191 27217 net.cpp:382] conv0 -> conv0
I0428 19:51:11.756767 27217 net.cpp:124] Setting up conv0
I0428 19:51:11.756803 27217 net.cpp:131] Top shape: 64 5 24 24 (184320)
I0428 19:51:11.756808 27217 net.cpp:139] Memory required for data: 938240
I0428 19:51:11.756834 27217 layer_factory.hpp:77] Creating layer pool0
I0428 19:51:11.756850 27217 net.cpp:86] Creating Layer pool0
I0428 19:51:11.756855 27217 net.cpp:408] pool0 <- conv0
I0428 19:51:11.756862 27217 net.cpp:382] pool0 -> pool0
I0428 19:51:11.756922 27217 net.cpp:124] Setting up pool0
I0428 19:51:11.756929 27217 net.cpp:131] Top shape: 64 5 12 12 (46080)
I0428 19:51:11.756980 27217 net.cpp:139] Memory required for data: 1122560
I0428 19:51:11.756986 27217 layer_factory.hpp:77] Creating layer conv1
I0428 19:51:11.757001 27217 net.cpp:86] Creating Layer conv1
I0428 19:51:11.757005 27217 net.cpp:408] conv1 <- pool0
I0428 19:51:11.757012 27217 net.cpp:382] conv1 -> conv1
I0428 19:51:11.760314 27217 net.cpp:124] Setting up conv1
I0428 19:51:11.760334 27217 net.cpp:131] Top shape: 64 25 8 8 (102400)
I0428 19:51:11.760339 27217 net.cpp:139] Memory required for data: 1532160
I0428 19:51:11.760349 27217 layer_factory.hpp:77] Creating layer pool1
I0428 19:51:11.760359 27217 net.cpp:86] Creating Layer pool1
I0428 19:51:11.760362 27217 net.cpp:408] pool1 <- conv1
I0428 19:51:11.760370 27217 net.cpp:382] pool1 -> pool1
I0428 19:51:11.760417 27217 net.cpp:124] Setting up pool1
I0428 19:51:11.760424 27217 net.cpp:131] Top shape: 64 25 4 4 (25600)
I0428 19:51:11.760428 27217 net.cpp:139] Memory required for data: 1634560
I0428 19:51:11.760432 27217 layer_factory.hpp:77] Creating layer ip1
I0428 19:51:11.760440 27217 net.cpp:86] Creating Layer ip1
I0428 19:51:11.760444 27217 net.cpp:408] ip1 <- pool1
I0428 19:51:11.760450 27217 net.cpp:382] ip1 -> ip1
I0428 19:51:11.760596 27217 net.cpp:124] Setting up ip1
I0428 19:51:11.760607 27217 net.cpp:131] Top shape: 64 10 (640)
I0428 19:51:11.760610 27217 net.cpp:139] Memory required for data: 1637120
I0428 19:51:11.760618 27217 layer_factory.hpp:77] Creating layer relu1
I0428 19:51:11.760625 27217 net.cpp:86] Creating Layer relu1
I0428 19:51:11.760629 27217 net.cpp:408] relu1 <- ip1
I0428 19:51:11.760635 27217 net.cpp:369] relu1 -> ip1 (in-place)
I0428 19:51:11.760850 27217 net.cpp:124] Setting up relu1
I0428 19:51:11.760862 27217 net.cpp:131] Top shape: 64 10 (640)
I0428 19:51:11.760867 27217 net.cpp:139] Memory required for data: 1639680
I0428 19:51:11.760871 27217 layer_factory.hpp:77] Creating layer loss
I0428 19:51:11.760879 27217 net.cpp:86] Creating Layer loss
I0428 19:51:11.760882 27217 net.cpp:408] loss <- ip1
I0428 19:51:11.760887 27217 net.cpp:408] loss <- label
I0428 19:51:11.760895 27217 net.cpp:382] loss -> loss
I0428 19:51:11.760915 27217 layer_factory.hpp:77] Creating layer loss
…
I0428 19:51:11.762300 27217 solver.cpp:173] Creating test net (#0) specified by net file: ECE595/mnist/train_test/var_everything2/lenet_train_test626.prototxt
I0428 19:51:11.762331 27217 net.cpp:296] The NetState phase (1) differed from the phase (0) specified by a rule in layer mnist
I0428 19:51:11.762421 27217 net.cpp:53] Initializing net from parameters: 
name: "LeNet"
state {
  phase: TEST
}
layer {
  name: "mnist"
  type: "Data"
  top: "data"
  top: "label"
  include {
    phase: TEST
  }
  transform_param {
    scale: 0.00390625
  }
  data_param {
    source: "examples/mnist/mnist_test_lmdb"
    batch_size: 100
    backend: LMDB
  }
}
layer {
  name: "conv0"
  type: "Convolution"
  bottom: "data"
  top: "conv0"
  param {
    lr_mult: 1
  }
  param {
    lr_mult: 2
  }
  convolution_param {
    num_output: 5
    kernel_size: 5
    stride: 1
    weight_filler {
      type: "xavier"
    }
    bias_filler {
      type: "constant"
    }
  }
}
layer {
  name: "pool0"
  type: "Pooling"
  bottom: "conv0"
  top: "pool0"
  pooling_param {
    pool: MAX
    kernel_size: 2
    stride: 2
  }
}
layer {
  name: "conv1"
  type: "Convolution"
  bottom: "pool0"
  top: "conv1"
  param {
    lr_mult: 1
  }
  param {
    lr_mult: 2
  }
  convolution_param {
    num_output: 25
    kernel_size: 5
    stride: 1
    weight_filler {
      type: "xavier"
    }
    bias_filler {
      type: "constant"
    }
  }
}
layer {
  name: "pool1"
  type: "Pooling"
  bottom: "conv1"
  top: "pool1"
  pooling_param {
    pool: MAX
    kernel_size: 2
    stride: 2
  }
}
layer {
  name: "ip1"
  type: "InnerProduct"
  bottom: "pool1"
  top: "ip1"
  param {
    lr_mult: 1
  }
  param {
    lr_mult: 2
  }
  inner_product_param {
    num_output: 10
    weight_filler {
      type: "xavier"
    }
    bias_filler {
      type: "constant"
    }
  }
}
layer {
  name: "relu1"
  type: "ReLU"
  bottom: "ip1"
  top: "ip1"
}
layer {
  name: "accuracy"
  type: "Accuracy"
  bottom: "ip1"
  bottom: "label"
  top: "accuracy"
  include {
    phase: TEST
  }
}
layer {
  name: "loss"
  type: "SoftmaxWithLoss"
  bottom: "ip1"
  bottom: "label"
  top: "loss"
}
I0428 19:51:11.762507 27217 layer_factory.hpp:77] Creating layer mnist
I0428 19:51:11.762564 27217 db_lmdb.cpp:35] Opened lmdb examples/mnist/mnist_test_lmdb
I0428 19:51:11.762579 27217 net.cpp:86] Creating Layer mnist
I0428 19:51:11.762585 27217 net.cpp:382] mnist -> data
I0428 19:51:11.762595 27217 net.cpp:382] mnist -> label
I0428 19:51:11.762701 27217 data_layer.cpp:45] output data size: 100,1,28,28
I0428 19:51:11.765002 27217 net.cpp:124] Setting up mnist
I0428 19:51:11.765019 27217 net.cpp:131] Top shape: 100 1 28 28 (78400)
I0428 19:51:11.765025 27217 net.cpp:131] Top shape: 100 (100)
I0428 19:51:11.765029 27217 net.cpp:139] Memory required for data: 314000
I0428 19:51:11.765035 27217 layer_factory.hpp:77] Creating layer label_mnist_1_split
I0428 19:51:11.765048 27217 net.cpp:86] Creating Layer label_mnist_1_split
I0428 19:51:11.765054 27217 net.cpp:408] label_mnist_1_split <- label
I0428 19:51:11.765060 27217 net.cpp:382] label_mnist_1_split -> label_mnist_1_split_0
I0428 19:51:11.765069 27217 net.cpp:382] label_mnist_1_split -> label_mnist_1_split_1
I0428 19:51:11.765131 27217 net.cpp:124] Setting up label_mnist_1_split
I0428 19:51:11.765138 27217 net.cpp:131] Top shape: 100 (100)
I0428 19:51:11.765143 27217 net.cpp:131] Top shape: 100 (100)
I0428 19:51:11.765146 27217 net.cpp:139] Memory required for data: 314800
I0428 19:51:11.765151 27217 layer_factory.hpp:77] Creating layer conv0
I0428 19:51:11.765159 27217 net.cpp:86] Creating Layer conv0
I0428 19:51:11.765163 27217 net.cpp:408] conv0 <- data
I0428 19:51:11.765169 27217 net.cpp:382] conv0 -> conv0
I0428 19:51:11.766211 27217 net.cpp:124] Setting up conv0
I0428 19:51:11.766227 27217 net.cpp:131] Top shape: 100 5 24 24 (288000)
I0428 19:51:11.766230 27217 net.cpp:139] Memory required for data: 1466800
I0428 19:51:11.766242 27217 layer_factory.hpp:77] Creating layer pool0
I0428 19:51:11.766248 27217 net.cpp:86] Creating Layer pool0
I0428 19:51:11.766252 27217 net.cpp:408] pool0 <- conv0
I0428 19:51:11.766258 27217 net.cpp:382] pool0 -> pool0
I0428 19:51:11.766300 27217 net.cpp:124] Setting up pool0
I0428 19:51:11.766306 27217 net.cpp:131] Top shape: 100 5 12 12 (72000)
I0428 19:51:11.766310 27217 net.cpp:139] Memory required for data: 1754800
I0428 19:51:11.766314 27217 layer_factory.hpp:77] Creating layer conv1
I0428 19:51:11.766324 27217 net.cpp:86] Creating Layer conv1
I0428 19:51:11.766327 27217 net.cpp:408] conv1 <- pool0
I0428 19:51:11.766333 27217 net.cpp:382] conv1 -> conv1
I0428 19:51:11.768646 27217 net.cpp:124] Setting up conv1
I0428 19:51:11.768661 27217 net.cpp:131] Top shape: 100 25 8 8 (160000)
I0428 19:51:11.768666 27217 net.cpp:139] Memory required for data: 2394800
I0428 19:51:11.768676 27217 layer_factory.hpp:77] Creating layer pool1
I0428 19:51:11.768684 27217 net.cpp:86] Creating Layer pool1
I0428 19:51:11.768702 27217 net.cpp:408] pool1 <- conv1
I0428 19:51:11.768707 27217 net.cpp:382] pool1 -> pool1
I0428 19:51:11.768759 27217 net.cpp:124] Setting up pool1
I0428 19:51:11.768766 27217 net.cpp:131] Top shape: 100 25 4 4 (40000)
I0428 19:51:11.768770 27217 net.cpp:139] Memory required for data: 2554800
I0428 19:51:11.768774 27217 layer_factory.hpp:77] Creating layer ip1
I0428 19:51:11.768781 27217 net.cpp:86] Creating Layer ip1
I0428 19:51:11.768785 27217 net.cpp:408] ip1 <- pool1
I0428 19:51:11.768790 27217 net.cpp:382] ip1 -> ip1
I0428 19:51:11.768952 27217 net.cpp:124] Setting up ip1
I0428 19:51:11.768970 27217 net.cpp:131] Top shape: 100 10 (1000)
I0428 19:51:11.768975 27217 net.cpp:139] Memory required for data: 2558800
I0428 19:51:11.768983 27217 layer_factory.hpp:77] Creating layer relu1
I0428 19:51:11.768990 27217 net.cpp:86] Creating Layer relu1
I0428 19:51:11.768993 27217 net.cpp:408] relu1 <- ip1
I0428 19:51:11.769006 27217 net.cpp:369] relu1 -> ip1 (in-place)
I0428 19:51:11.769932 27217 net.cpp:124] Setting up relu1
I0428 19:51:11.769946 27217 net.cpp:131] Top shape: 100 10 (1000)
I0428 19:51:11.769950 27217 net.cpp:139] Memory required for data: 2562800
I0428 19:51:11.769954 27217 layer_factory.hpp:77] Creating layer ip1_relu1_0_split
I0428 19:51:11.769963 27217 net.cpp:86] Creating Layer ip1_relu1_0_split
I0428 19:51:11.769966 27217 net.cpp:408] ip1_relu1_0_split <- ip1
I0428 19:51:11.769973 27217 net.cpp:382] ip1_relu1_0_split -> ip1_relu1_0_split_0
I0428 19:51:11.769980 27217 net.cpp:382] ip1_relu1_0_split -> ip1_relu1_0_split_1
I0428 19:51:11.770025 27217 net.cpp:124] Setting up ip1_relu1_0_split
I0428 19:51:11.770031 27217 net.cpp:131] Top shape: 100 10 (1000)
I0428 19:51:11.770042 27217 net.cpp:131] Top shape: 100 10 (1000)
I0428 19:51:11.770046 27217 net.cpp:139] Memory required for data: 2570800
I0428 19:51:11.770050 27217 layer_factory.hpp:77] Creating layer accuracy
I0428 19:51:11.770061 27217 net.cpp:86] Creating Layer accuracy
I0428 19:51:11.770066 27217 net.cpp:408] accuracy <- ip1_relu1_0_split_0
I0428 19:51:11.770071 27217 net.cpp:408] accuracy <- label_mnist_1_split_0
I0428 19:51:11.770076 27217 net.cpp:382] accuracy -> accuracy
…
