…
I0428 20:16:40.468585   706 net.cpp:296] The NetState phase (0) differed from the phase (1) specified by a rule in layer mnist
I0428 20:16:40.468603   706 net.cpp:296] The NetState phase (0) differed from the phase (1) specified by a rule in layer accuracy
I0428 20:16:40.468708   706 net.cpp:53] Initializing net from parameters: 
name: "LeNet"
state {
  phase: TRAIN
  level: 0
  stage: ""
}
layer {
  name: "mnist"
  type: "Data"
  top: "data"
  top: "label"
  include {
    phase: TRAIN
  }
  transform_param {
    scale: 0.00390625
  }
  data_param {
    source: "examples/mnist/mnist_train_lmdb"
    batch_size: 64
    backend: LMDB
  }
}
layer {
  name: "conv0"
  type: "Convolution"
  bottom: "data"
  top: "conv0"
  param {
    lr_mult: 1
  }
  param {
    lr_mult: 2
  }
  convolution_param {
    num_output: 50
    kernel_size: 5
    stride: 1
    weight_filler {
      type: "xavier"
    }
    bias_filler {
      type: "constant"
    }
  }
}
layer {
  name: "pool0"
  type: "Pooling"
  bottom: "conv0"
  top: "pool0"
  pooling_param {
    pool: MAX
    kernel_size: 2
    stride: 2
  }
}
layer {
  name: "conv1"
  type: "Convolution"
  bottom: "pool0"
  top: "conv1"
  param {
    lr_mult: 1
  }
  param {
    lr_mult: 2
  }
  convolution_param {
    num_output: 5
    kernel_size: 5
    stride: 1
    weight_filler {
      type: "xavier"
    }
    bias_filler {
      type: "constant"
    }
  }
}
layer {
  name: "pool1"
  type: "Pooling"
  bottom: "conv1"
  top: "pool1"
  pooling_param {
    pool: MAX
    kernel_size: 2
    stride: 2
  }
}
layer {
  name: "ip1"
  type: "InnerProduct"
  bottom: "pool1"
  top: "ip1"
  param {
    lr_mult: 1
  }
  param {
    lr_mult: 2
  }
  inner_product_param {
    num_output: 25
    weight_filler {
      type: "xavier"
    }
    bias_filler {
      type: "constant"
    }
  }
}
layer {
  name: "relu1"
  type: "ReLU"
  bottom: "ip1"
  top: "ip1"
}
layer {
  name: "ip2"
  type: "InnerProduct"
  bottom: "ip1"
  top: "ip2"
  param {
    lr_mult: 1
  }
  param {
    lr_mult: 2
  }
  inner_product_param {
    num_output: 50
    weight_filler {
      type: "xavier"
    }
    bias_filler {
      type: "constant"
    }
  }
}
layer {
  name: "relu2"
  type: "ReLU"
  bottom: "ip2"
  top: "ip2"
}
layer {
  name: "ip3"
  type: "InnerProduct"
  bottom: "ip2"
  top: "ip3"
  param {
    lr_mult: 1
  }
  param {
    lr_mult: 2
  }
  inner_product_param {
    num_output: 10
    weight_filler {
      type: "xavier"
    }
    bias_filler {
      type: "constant"
    }
  }
}
layer {
  name: "relu3"
  type: "ReLU"
  bottom: "ip3"
  top: "ip3"
}
layer {
  name: "loss"
  type: "SoftmaxWithLoss"
  bottom: "ip3"
  bottom: "label"
  top: "loss"
}
I0428 20:16:40.468786   706 layer_factory.hpp:77] Creating layer mnist
I0428 20:16:40.468895   706 db_lmdb.cpp:35] Opened lmdb examples/mnist/mnist_train_lmdb
I0428 20:16:40.468920   706 net.cpp:86] Creating Layer mnist
I0428 20:16:40.468930   706 net.cpp:382] mnist -> data
I0428 20:16:40.468952   706 net.cpp:382] mnist -> label
I0428 20:16:40.470052   706 data_layer.cpp:45] output data size: 64,1,28,28
I0428 20:16:40.472513   706 net.cpp:124] Setting up mnist
I0428 20:16:40.472530   706 net.cpp:131] Top shape: 64 1 28 28 (50176)
I0428 20:16:40.472537   706 net.cpp:131] Top shape: 64 (64)
I0428 20:16:40.472540   706 net.cpp:139] Memory required for data: 200960
I0428 20:16:40.472546   706 layer_factory.hpp:77] Creating layer conv0
I0428 20:16:40.472564   706 net.cpp:86] Creating Layer conv0
I0428 20:16:40.472585   706 net.cpp:408] conv0 <- data
I0428 20:16:40.472605   706 net.cpp:382] conv0 -> conv0
I0428 20:16:40.764720   706 net.cpp:124] Setting up conv0
I0428 20:16:40.764752   706 net.cpp:131] Top shape: 64 50 24 24 (1843200)
I0428 20:16:40.764757   706 net.cpp:139] Memory required for data: 7573760
I0428 20:16:40.764775   706 layer_factory.hpp:77] Creating layer pool0
I0428 20:16:40.764791   706 net.cpp:86] Creating Layer pool0
I0428 20:16:40.764796   706 net.cpp:408] pool0 <- conv0
I0428 20:16:40.764801   706 net.cpp:382] pool0 -> pool0
I0428 20:16:40.764866   706 net.cpp:124] Setting up pool0
I0428 20:16:40.764873   706 net.cpp:131] Top shape: 64 50 12 12 (460800)
I0428 20:16:40.764878   706 net.cpp:139] Memory required for data: 9416960
I0428 20:16:40.764881   706 layer_factory.hpp:77] Creating layer conv1
I0428 20:16:40.764894   706 net.cpp:86] Creating Layer conv1
I0428 20:16:40.764899   706 net.cpp:408] conv1 <- pool0
I0428 20:16:40.764904   706 net.cpp:382] conv1 -> conv1
I0428 20:16:40.768081   706 net.cpp:124] Setting up conv1
I0428 20:16:40.768098   706 net.cpp:131] Top shape: 64 5 8 8 (20480)
I0428 20:16:40.768102   706 net.cpp:139] Memory required for data: 9498880
I0428 20:16:40.768113   706 layer_factory.hpp:77] Creating layer pool1
I0428 20:16:40.768124   706 net.cpp:86] Creating Layer pool1
I0428 20:16:40.768128   706 net.cpp:408] pool1 <- conv1
I0428 20:16:40.768134   706 net.cpp:382] pool1 -> pool1
I0428 20:16:40.768180   706 net.cpp:124] Setting up pool1
I0428 20:16:40.768187   706 net.cpp:131] Top shape: 64 5 4 4 (5120)
I0428 20:16:40.768190   706 net.cpp:139] Memory required for data: 9519360
I0428 20:16:40.768194   706 layer_factory.hpp:77] Creating layer ip1
I0428 20:16:40.768203   706 net.cpp:86] Creating Layer ip1
I0428 20:16:40.768208   706 net.cpp:408] ip1 <- pool1
I0428 20:16:40.768213   706 net.cpp:382] ip1 -> ip1
I0428 20:16:40.768350   706 net.cpp:124] Setting up ip1
I0428 20:16:40.768359   706 net.cpp:131] Top shape: 64 25 (1600)
I0428 20:16:40.768362   706 net.cpp:139] Memory required for data: 9525760
I0428 20:16:40.768371   706 layer_factory.hpp:77] Creating layer relu1
I0428 20:16:40.768378   706 net.cpp:86] Creating Layer relu1
I0428 20:16:40.768383   706 net.cpp:408] relu1 <- ip1
I0428 20:16:40.768389   706 net.cpp:369] relu1 -> ip1 (in-place)
I0428 20:16:40.768596   706 net.cpp:124] Setting up relu1
I0428 20:16:40.768607   706 net.cpp:131] Top shape: 64 25 (1600)
I0428 20:16:40.768611   706 net.cpp:139] Memory required for data: 9532160
I0428 20:16:40.768615   706 layer_factory.hpp:77] Creating layer ip2
I0428 20:16:40.768623   706 net.cpp:86] Creating Layer ip2
I0428 20:16:40.768627   706 net.cpp:408] ip2 <- ip1
I0428 20:16:40.768632   706 net.cpp:382] ip2 -> ip2
I0428 20:16:40.768765   706 net.cpp:124] Setting up ip2
I0428 20:16:40.768774   706 net.cpp:131] Top shape: 64 50 (3200)
I0428 20:16:40.768776   706 net.cpp:139] Memory required for data: 9544960
I0428 20:16:40.768782   706 layer_factory.hpp:77] Creating layer relu2
I0428 20:16:40.768791   706 net.cpp:86] Creating Layer relu2
I0428 20:16:40.768795   706 net.cpp:408] relu2 <- ip2
I0428 20:16:40.768800   706 net.cpp:369] relu2 -> ip2 (in-place)
I0428 20:16:40.769664   706 net.cpp:124] Setting up relu2
I0428 20:16:40.769678   706 net.cpp:131] Top shape: 64 50 (3200)
I0428 20:16:40.769682   706 net.cpp:139] Memory required for data: 9557760
I0428 20:16:40.769686   706 layer_factory.hpp:77] Creating layer ip3
I0428 20:16:40.769695   706 net.cpp:86] Creating Layer ip3
I0428 20:16:40.769700   706 net.cpp:408] ip3 <- ip2
I0428 20:16:40.769706   706 net.cpp:382] ip3 -> ip3
I0428 20:16:40.769834   706 net.cpp:124] Setting up ip3
I0428 20:16:40.769842   706 net.cpp:131] Top shape: 64 10 (640)
I0428 20:16:40.769845   706 net.cpp:139] Memory required for data: 9560320
I0428 20:16:40.769856   706 layer_factory.hpp:77] Creating layer relu3
I0428 20:16:40.769863   706 net.cpp:86] Creating Layer relu3
I0428 20:16:40.769866   706 net.cpp:408] relu3 <- ip3
I0428 20:16:40.769872   706 net.cpp:369] relu3 -> ip3 (in-place)
I0428 20:16:40.770082   706 net.cpp:124] Setting up relu3
I0428 20:16:40.770092   706 net.cpp:131] Top shape: 64 10 (640)
I0428 20:16:40.770097   706 net.cpp:139] Memory required for data: 9562880
I0428 20:16:40.770099   706 layer_factory.hpp:77] Creating layer loss
I0428 20:16:40.770112   706 net.cpp:86] Creating Layer loss
I0428 20:16:40.770115   706 net.cpp:408] loss <- ip3
I0428 20:16:40.770119   706 net.cpp:408] loss <- label
I0428 20:16:40.770128   706 net.cpp:382] loss -> loss
I0428 20:16:40.770143   706 layer_factory.hpp:77] Creating layer loss
…
I0428 20:16:40.770897   706 solver.cpp:173] Creating test net (#0) specified by net file: ECE595/mnist/train_test/var_everything2/lenet_train_test1276.prototxt
I0428 20:16:40.770928   706 net.cpp:296] The NetState phase (1) differed from the phase (0) specified by a rule in layer mnist
I0428 20:16:40.771039   706 net.cpp:53] Initializing net from parameters: 
name: "LeNet"
state {
  phase: TEST
}
layer {
  name: "mnist"
  type: "Data"
  top: "data"
  top: "label"
  include {
    phase: TEST
  }
  transform_param {
    scale: 0.00390625
  }
  data_param {
    source: "examples/mnist/mnist_test_lmdb"
    batch_size: 100
    backend: LMDB
  }
}
layer {
  name: "conv0"
  type: "Convolution"
  bottom: "data"
  top: "conv0"
  param {
    lr_mult: 1
  }
  param {
    lr_mult: 2
  }
  convolution_param {
    num_output: 50
    kernel_size: 5
    stride: 1
    weight_filler {
      type: "xavier"
    }
    bias_filler {
      type: "constant"
    }
  }
}
layer {
  name: "pool0"
  type: "Pooling"
  bottom: "conv0"
  top: "pool0"
  pooling_param {
    pool: MAX
    kernel_size: 2
    stride: 2
  }
}
layer {
  name: "conv1"
  type: "Convolution"
  bottom: "pool0"
  top: "conv1"
  param {
    lr_mult: 1
  }
  param {
    lr_mult: 2
  }
  convolution_param {
    num_output: 5
    kernel_size: 5
    stride: 1
    weight_filler {
      type: "xavier"
    }
    bias_filler {
      type: "constant"
    }
  }
}
layer {
  name: "pool1"
  type: "Pooling"
  bottom: "conv1"
  top: "pool1"
  pooling_param {
    pool: MAX
    kernel_size: 2
    stride: 2
  }
}
layer {
  name: "ip1"
  type: "InnerProduct"
  bottom: "pool1"
  top: "ip1"
  param {
    lr_mult: 1
  }
  param {
    lr_mult: 2
  }
  inner_product_param {
    num_output: 25
    weight_filler {
      type: "xavier"
    }
    bias_filler {
      type: "constant"
    }
  }
}
layer {
  name: "relu1"
  type: "ReLU"
  bottom: "ip1"
  top: "ip1"
}
layer {
  name: "ip2"
  type: "InnerProduct"
  bottom: "ip1"
  top: "ip2"
  param {
    lr_mult: 1
  }
  param {
    lr_mult: 2
  }
  inner_product_param {
    num_output: 50
    weight_filler {
      type: "xavier"
    }
    bias_filler {
      type: "constant"
    }
  }
}
layer {
  name: "relu2"
  type: "ReLU"
  bottom: "ip2"
  top: "ip2"
}
layer {
  name: "ip3"
  type: "InnerProduct"
  bottom: "ip2"
  top: "ip3"
  param {
    lr_mult: 1
  }
  param {
    lr_mult: 2
  }
  inner_product_param {
    num_output: 10
    weight_filler {
      type: "xavier"
    }
    bias_filler {
      type: "constant"
    }
  }
}
layer {
  name: "relu3"
  type: "ReLU"
  bottom: "ip3"
  top: "ip3"
}
layer {
  name: "accuracy"
  type: "Accuracy"
  bottom: "ip3"
  bottom: "label"
  top: "accuracy"
  include {
    phase: TEST
  }
}
layer {
  name: "loss"
  type: "SoftmaxWithLoss"
  bottom: "ip3"
  bottom: "label"
  top: "loss"
}
I0428 20:16:40.771136   706 layer_factory.hpp:77] Creating layer mnist
I0428 20:16:40.771188   706 db_lmdb.cpp:35] Opened lmdb examples/mnist/mnist_test_lmdb
I0428 20:16:40.771203   706 net.cpp:86] Creating Layer mnist
I0428 20:16:40.771210   706 net.cpp:382] mnist -> data
I0428 20:16:40.771219   706 net.cpp:382] mnist -> label
I0428 20:16:40.771325   706 data_layer.cpp:45] output data size: 100,1,28,28
I0428 20:16:40.773739   706 net.cpp:124] Setting up mnist
I0428 20:16:40.773756   706 net.cpp:131] Top shape: 100 1 28 28 (78400)
I0428 20:16:40.773761   706 net.cpp:131] Top shape: 100 (100)
I0428 20:16:40.773764   706 net.cpp:139] Memory required for data: 314000
I0428 20:16:40.773768   706 layer_factory.hpp:77] Creating layer label_mnist_1_split
I0428 20:16:40.773777   706 net.cpp:86] Creating Layer label_mnist_1_split
I0428 20:16:40.773782   706 net.cpp:408] label_mnist_1_split <- label
I0428 20:16:40.773787   706 net.cpp:382] label_mnist_1_split -> label_mnist_1_split_0
I0428 20:16:40.773795   706 net.cpp:382] label_mnist_1_split -> label_mnist_1_split_1
I0428 20:16:40.773859   706 net.cpp:124] Setting up label_mnist_1_split
I0428 20:16:40.773865   706 net.cpp:131] Top shape: 100 (100)
I0428 20:16:40.773869   706 net.cpp:131] Top shape: 100 (100)
I0428 20:16:40.773872   706 net.cpp:139] Memory required for data: 314800
I0428 20:16:40.773876   706 layer_factory.hpp:77] Creating layer conv0
I0428 20:16:40.773887   706 net.cpp:86] Creating Layer conv0
I0428 20:16:40.773890   706 net.cpp:408] conv0 <- data
I0428 20:16:40.773898   706 net.cpp:382] conv0 -> conv0
I0428 20:16:40.775889   706 net.cpp:124] Setting up conv0
I0428 20:16:40.775905   706 net.cpp:131] Top shape: 100 50 24 24 (2880000)
I0428 20:16:40.775909   706 net.cpp:139] Memory required for data: 11834800
I0428 20:16:40.775923   706 layer_factory.hpp:77] Creating layer pool0
I0428 20:16:40.775930   706 net.cpp:86] Creating Layer pool0
I0428 20:16:40.775935   706 net.cpp:408] pool0 <- conv0
I0428 20:16:40.775940   706 net.cpp:382] pool0 -> pool0
I0428 20:16:40.775985   706 net.cpp:124] Setting up pool0
I0428 20:16:40.775992   706 net.cpp:131] Top shape: 100 50 12 12 (720000)
I0428 20:16:40.775995   706 net.cpp:139] Memory required for data: 14714800
I0428 20:16:40.776000   706 layer_factory.hpp:77] Creating layer conv1
I0428 20:16:40.776010   706 net.cpp:86] Creating Layer conv1
I0428 20:16:40.776013   706 net.cpp:408] conv1 <- pool0
I0428 20:16:40.776023   706 net.cpp:382] conv1 -> conv1
I0428 20:16:40.777858   706 net.cpp:124] Setting up conv1
I0428 20:16:40.777875   706 net.cpp:131] Top shape: 100 5 8 8 (32000)
I0428 20:16:40.777879   706 net.cpp:139] Memory required for data: 14842800
I0428 20:16:40.777891   706 layer_factory.hpp:77] Creating layer pool1
I0428 20:16:40.777899   706 net.cpp:86] Creating Layer pool1
I0428 20:16:40.777905   706 net.cpp:408] pool1 <- conv1
I0428 20:16:40.777912   706 net.cpp:382] pool1 -> pool1
I0428 20:16:40.777956   706 net.cpp:124] Setting up pool1
I0428 20:16:40.777961   706 net.cpp:131] Top shape: 100 5 4 4 (8000)
I0428 20:16:40.777964   706 net.cpp:139] Memory required for data: 14874800
I0428 20:16:40.777969   706 layer_factory.hpp:77] Creating layer ip1
I0428 20:16:40.777977   706 net.cpp:86] Creating Layer ip1
I0428 20:16:40.777981   706 net.cpp:408] ip1 <- pool1
I0428 20:16:40.777987   706 net.cpp:382] ip1 -> ip1
I0428 20:16:40.778120   706 net.cpp:124] Setting up ip1
I0428 20:16:40.778129   706 net.cpp:131] Top shape: 100 25 (2500)
I0428 20:16:40.778146   706 net.cpp:139] Memory required for data: 14884800
I0428 20:16:40.778156   706 layer_factory.hpp:77] Creating layer relu1
I0428 20:16:40.778163   706 net.cpp:86] Creating Layer relu1
I0428 20:16:40.778167   706 net.cpp:408] relu1 <- ip1
I0428 20:16:40.778173   706 net.cpp:369] relu1 -> ip1 (in-place)
I0428 20:16:40.778370   706 net.cpp:124] Setting up relu1
I0428 20:16:40.778380   706 net.cpp:131] Top shape: 100 25 (2500)
I0428 20:16:40.778384   706 net.cpp:139] Memory required for data: 14894800
I0428 20:16:40.778388   706 layer_factory.hpp:77] Creating layer ip2
I0428 20:16:40.778398   706 net.cpp:86] Creating Layer ip2
I0428 20:16:40.778403   706 net.cpp:408] ip2 <- ip1
I0428 20:16:40.778409   706 net.cpp:382] ip2 -> ip2
I0428 20:16:40.778542   706 net.cpp:124] Setting up ip2
I0428 20:16:40.778551   706 net.cpp:131] Top shape: 100 50 (5000)
I0428 20:16:40.778555   706 net.cpp:139] Memory required for data: 14914800
I0428 20:16:40.778561   706 layer_factory.hpp:77] Creating layer relu2
I0428 20:16:40.778566   706 net.cpp:86] Creating Layer relu2
I0428 20:16:40.778570   706 net.cpp:408] relu2 <- ip2
I0428 20:16:40.778574   706 net.cpp:369] relu2 -> ip2 (in-place)
I0428 20:16:40.778864   706 net.cpp:124] Setting up relu2
I0428 20:16:40.778874   706 net.cpp:131] Top shape: 100 50 (5000)
I0428 20:16:40.778878   706 net.cpp:139] Memory required for data: 14934800
I0428 20:16:40.778882   706 layer_factory.hpp:77] Creating layer ip3
I0428 20:16:40.778888   706 net.cpp:86] Creating Layer ip3
I0428 20:16:40.778892   706 net.cpp:408] ip3 <- ip2
I0428 20:16:40.778899   706 net.cpp:382] ip3 -> ip3
I0428 20:16:40.779026   706 net.cpp:124] Setting up ip3
I0428 20:16:40.779034   706 net.cpp:131] Top shape: 100 10 (1000)
I0428 20:16:40.779038   706 net.cpp:139] Memory required for data: 14938800
I0428 20:16:40.779047   706 layer_factory.hpp:77] Creating layer relu3
I0428 20:16:40.779053   706 net.cpp:86] Creating Layer relu3
I0428 20:16:40.779057   706 net.cpp:408] relu3 <- ip3
I0428 20:16:40.779063   706 net.cpp:369] relu3 -> ip3 (in-place)
I0428 20:16:40.779984   706 net.cpp:124] Setting up relu3
I0428 20:16:40.779999   706 net.cpp:131] Top shape: 100 10 (1000)
I0428 20:16:40.780004   706 net.cpp:139] Memory required for data: 14942800
I0428 20:16:40.780007   706 layer_factory.hpp:77] Creating layer ip3_relu3_0_split
I0428 20:16:40.780014   706 net.cpp:86] Creating Layer ip3_relu3_0_split
I0428 20:16:40.780017   706 net.cpp:408] ip3_relu3_0_split <- ip3
I0428 20:16:40.780025   706 net.cpp:382] ip3_relu3_0_split -> ip3_relu3_0_split_0
I0428 20:16:40.780031   706 net.cpp:382] ip3_relu3_0_split -> ip3_relu3_0_split_1
I0428 20:16:40.780093   706 net.cpp:124] Setting up ip3_relu3_0_split
I0428 20:16:40.780102   706 net.cpp:131] Top shape: 100 10 (1000)
I0428 20:16:40.780105   706 net.cpp:131] Top shape: 100 10 (1000)
I0428 20:16:40.780109   706 net.cpp:139] Memory required for data: 14950800
I0428 20:16:40.780118   706 layer_factory.hpp:77] Creating layer accuracy
I0428 20:16:40.780125   706 net.cpp:86] Creating Layer accuracy
I0428 20:16:40.780129   706 net.cpp:408] accuracy <- ip3_relu3_0_split_0
I0428 20:16:40.780134   706 net.cpp:408] accuracy <- label_mnist_1_split_0
I0428 20:16:40.780141   706 net.cpp:382] accuracy -> accuracy
…
