…
I0428 19:56:45.182862 28507 net.cpp:296] The NetState phase (0) differed from the phase (1) specified by a rule in layer mnist
I0428 19:56:45.182878 28507 net.cpp:296] The NetState phase (0) differed from the phase (1) specified by a rule in layer accuracy
I0428 19:56:45.182976 28507 net.cpp:53] Initializing net from parameters: 
name: "LeNet"
state {
  phase: TRAIN
  level: 0
  stage: ""
}
layer {
  name: "mnist"
  type: "Data"
  top: "data"
  top: "label"
  include {
    phase: TRAIN
  }
  transform_param {
    scale: 0.00390625
  }
  data_param {
    source: "examples/mnist/mnist_train_lmdb"
    batch_size: 64
    backend: LMDB
  }
}
layer {
  name: "conv0"
  type: "Convolution"
  bottom: "data"
  top: "conv0"
  param {
    lr_mult: 1
  }
  param {
    lr_mult: 2
  }
  convolution_param {
    num_output: 10
    kernel_size: 5
    stride: 1
    weight_filler {
      type: "xavier"
    }
    bias_filler {
      type: "constant"
    }
  }
}
layer {
  name: "pool0"
  type: "Pooling"
  bottom: "conv0"
  top: "pool0"
  pooling_param {
    pool: MAX
    kernel_size: 2
    stride: 2
  }
}
layer {
  name: "conv1"
  type: "Convolution"
  bottom: "pool0"
  top: "conv1"
  param {
    lr_mult: 1
  }
  param {
    lr_mult: 2
  }
  convolution_param {
    num_output: 2
    kernel_size: 5
    stride: 1
    weight_filler {
      type: "xavier"
    }
    bias_filler {
      type: "constant"
    }
  }
}
layer {
  name: "pool1"
  type: "Pooling"
  bottom: "conv1"
  top: "pool1"
  pooling_param {
    pool: MAX
    kernel_size: 2
    stride: 2
  }
}
layer {
  name: "ip1"
  type: "InnerProduct"
  bottom: "pool1"
  top: "ip1"
  param {
    lr_mult: 1
  }
  param {
    lr_mult: 2
  }
  inner_product_param {
    num_output: 25
    weight_filler {
      type: "xavier"
    }
    bias_filler {
      type: "constant"
    }
  }
}
layer {
  name: "relu1"
  type: "ReLU"
  bottom: "ip1"
  top: "ip1"
}
layer {
  name: "ip2"
  type: "InnerProduct"
  bottom: "ip1"
  top: "ip2"
  param {
    lr_mult: 1
  }
  param {
    lr_mult: 2
  }
  inner_product_param {
    num_output: 50
    weight_filler {
      type: "xavier"
    }
    bias_filler {
      type: "constant"
    }
  }
}
layer {
  name: "relu2"
  type: "ReLU"
  bottom: "ip2"
  top: "ip2"
}
layer {
  name: "ip3"
  type: "InnerProduct"
  bottom: "ip2"
  top: "ip3"
  param {
    lr_mult: 1
  }
  param {
    lr_mult: 2
  }
  inner_product_param {
    num_output: 10
    weight_filler {
      type: "xavier"
    }
    bias_filler {
      type: "constant"
    }
  }
}
layer {
  name: "relu3"
  type: "ReLU"
  bottom: "ip3"
  top: "ip3"
}
layer {
  name: "loss"
  type: "SoftmaxWithLoss"
  bottom: "ip3"
  bottom: "label"
  top: "loss"
}
I0428 19:56:45.183056 28507 layer_factory.hpp:77] Creating layer mnist
I0428 19:56:45.183137 28507 db_lmdb.cpp:35] Opened lmdb examples/mnist/mnist_train_lmdb
I0428 19:56:45.183156 28507 net.cpp:86] Creating Layer mnist
I0428 19:56:45.183164 28507 net.cpp:382] mnist -> data
I0428 19:56:45.183198 28507 net.cpp:382] mnist -> label
I0428 19:56:45.184206 28507 data_layer.cpp:45] output data size: 64,1,28,28
I0428 19:56:45.186483 28507 net.cpp:124] Setting up mnist
I0428 19:56:45.186497 28507 net.cpp:131] Top shape: 64 1 28 28 (50176)
I0428 19:56:45.186502 28507 net.cpp:131] Top shape: 64 (64)
I0428 19:56:45.186506 28507 net.cpp:139] Memory required for data: 200960
I0428 19:56:45.186511 28507 layer_factory.hpp:77] Creating layer conv0
I0428 19:56:45.186549 28507 net.cpp:86] Creating Layer conv0
I0428 19:56:45.186568 28507 net.cpp:408] conv0 <- data
I0428 19:56:45.186578 28507 net.cpp:382] conv0 -> conv0
I0428 19:56:45.431104 28507 net.cpp:124] Setting up conv0
I0428 19:56:45.431131 28507 net.cpp:131] Top shape: 64 10 24 24 (368640)
I0428 19:56:45.431135 28507 net.cpp:139] Memory required for data: 1675520
I0428 19:56:45.431152 28507 layer_factory.hpp:77] Creating layer pool0
I0428 19:56:45.431165 28507 net.cpp:86] Creating Layer pool0
I0428 19:56:45.431170 28507 net.cpp:408] pool0 <- conv0
I0428 19:56:45.431175 28507 net.cpp:382] pool0 -> pool0
I0428 19:56:45.431223 28507 net.cpp:124] Setting up pool0
I0428 19:56:45.431231 28507 net.cpp:131] Top shape: 64 10 12 12 (92160)
I0428 19:56:45.431234 28507 net.cpp:139] Memory required for data: 2044160
I0428 19:56:45.431237 28507 layer_factory.hpp:77] Creating layer conv1
I0428 19:56:45.431248 28507 net.cpp:86] Creating Layer conv1
I0428 19:56:45.431252 28507 net.cpp:408] conv1 <- pool0
I0428 19:56:45.431257 28507 net.cpp:382] conv1 -> conv1
I0428 19:56:45.433399 28507 net.cpp:124] Setting up conv1
I0428 19:56:45.433414 28507 net.cpp:131] Top shape: 64 2 8 8 (8192)
I0428 19:56:45.433418 28507 net.cpp:139] Memory required for data: 2076928
I0428 19:56:45.433428 28507 layer_factory.hpp:77] Creating layer pool1
I0428 19:56:45.433435 28507 net.cpp:86] Creating Layer pool1
I0428 19:56:45.433439 28507 net.cpp:408] pool1 <- conv1
I0428 19:56:45.433444 28507 net.cpp:382] pool1 -> pool1
I0428 19:56:45.433500 28507 net.cpp:124] Setting up pool1
I0428 19:56:45.433507 28507 net.cpp:131] Top shape: 64 2 4 4 (2048)
I0428 19:56:45.433511 28507 net.cpp:139] Memory required for data: 2085120
I0428 19:56:45.433513 28507 layer_factory.hpp:77] Creating layer ip1
I0428 19:56:45.433521 28507 net.cpp:86] Creating Layer ip1
I0428 19:56:45.433524 28507 net.cpp:408] ip1 <- pool1
I0428 19:56:45.433529 28507 net.cpp:382] ip1 -> ip1
I0428 19:56:45.433634 28507 net.cpp:124] Setting up ip1
I0428 19:56:45.433642 28507 net.cpp:131] Top shape: 64 25 (1600)
I0428 19:56:45.433645 28507 net.cpp:139] Memory required for data: 2091520
I0428 19:56:45.433653 28507 layer_factory.hpp:77] Creating layer relu1
I0428 19:56:45.433660 28507 net.cpp:86] Creating Layer relu1
I0428 19:56:45.433663 28507 net.cpp:408] relu1 <- ip1
I0428 19:56:45.433667 28507 net.cpp:369] relu1 -> ip1 (in-place)
I0428 19:56:45.433894 28507 net.cpp:124] Setting up relu1
I0428 19:56:45.433903 28507 net.cpp:131] Top shape: 64 25 (1600)
I0428 19:56:45.433907 28507 net.cpp:139] Memory required for data: 2097920
I0428 19:56:45.433912 28507 layer_factory.hpp:77] Creating layer ip2
I0428 19:56:45.433918 28507 net.cpp:86] Creating Layer ip2
I0428 19:56:45.433921 28507 net.cpp:408] ip2 <- ip1
I0428 19:56:45.433928 28507 net.cpp:382] ip2 -> ip2
I0428 19:56:45.434947 28507 net.cpp:124] Setting up ip2
I0428 19:56:45.434958 28507 net.cpp:131] Top shape: 64 50 (3200)
I0428 19:56:45.434978 28507 net.cpp:139] Memory required for data: 2110720
I0428 19:56:45.434985 28507 layer_factory.hpp:77] Creating layer relu2
I0428 19:56:45.434993 28507 net.cpp:86] Creating Layer relu2
I0428 19:56:45.434998 28507 net.cpp:408] relu2 <- ip2
I0428 19:56:45.435003 28507 net.cpp:369] relu2 -> ip2 (in-place)
I0428 19:56:45.435820 28507 net.cpp:124] Setting up relu2
I0428 19:56:45.435848 28507 net.cpp:131] Top shape: 64 50 (3200)
I0428 19:56:45.435853 28507 net.cpp:139] Memory required for data: 2123520
I0428 19:56:45.435855 28507 layer_factory.hpp:77] Creating layer ip3
I0428 19:56:45.435878 28507 net.cpp:86] Creating Layer ip3
I0428 19:56:45.435897 28507 net.cpp:408] ip3 <- ip2
I0428 19:56:45.435902 28507 net.cpp:382] ip3 -> ip3
I0428 19:56:45.436027 28507 net.cpp:124] Setting up ip3
I0428 19:56:45.436035 28507 net.cpp:131] Top shape: 64 10 (640)
I0428 19:56:45.436039 28507 net.cpp:139] Memory required for data: 2126080
I0428 19:56:45.436048 28507 layer_factory.hpp:77] Creating layer relu3
I0428 19:56:45.436054 28507 net.cpp:86] Creating Layer relu3
I0428 19:56:45.436058 28507 net.cpp:408] relu3 <- ip3
I0428 19:56:45.436063 28507 net.cpp:369] relu3 -> ip3 (in-place)
I0428 19:56:45.436256 28507 net.cpp:124] Setting up relu3
I0428 19:56:45.436266 28507 net.cpp:131] Top shape: 64 10 (640)
I0428 19:56:45.436270 28507 net.cpp:139] Memory required for data: 2128640
I0428 19:56:45.436273 28507 layer_factory.hpp:77] Creating layer loss
I0428 19:56:45.436285 28507 net.cpp:86] Creating Layer loss
I0428 19:56:45.436288 28507 net.cpp:408] loss <- ip3
I0428 19:56:45.436293 28507 net.cpp:408] loss <- label
I0428 19:56:45.436313 28507 net.cpp:382] loss -> loss
I0428 19:56:45.436332 28507 layer_factory.hpp:77] Creating layer loss
…
I0428 19:56:45.437055 28507 solver.cpp:173] Creating test net (#0) specified by net file: ECE595/mnist/train_test/var_everything2/lenet_train_test768.prototxt
I0428 19:56:45.437115 28507 net.cpp:296] The NetState phase (1) differed from the phase (0) specified by a rule in layer mnist
I0428 19:56:45.437216 28507 net.cpp:53] Initializing net from parameters: 
name: "LeNet"
state {
  phase: TEST
}
layer {
  name: "mnist"
  type: "Data"
  top: "data"
  top: "label"
  include {
    phase: TEST
  }
  transform_param {
    scale: 0.00390625
  }
  data_param {
    source: "examples/mnist/mnist_test_lmdb"
    batch_size: 100
    backend: LMDB
  }
}
layer {
  name: "conv0"
  type: "Convolution"
  bottom: "data"
  top: "conv0"
  param {
    lr_mult: 1
  }
  param {
    lr_mult: 2
  }
  convolution_param {
    num_output: 10
    kernel_size: 5
    stride: 1
    weight_filler {
      type: "xavier"
    }
    bias_filler {
      type: "constant"
    }
  }
}
layer {
  name: "pool0"
  type: "Pooling"
  bottom: "conv0"
  top: "pool0"
  pooling_param {
    pool: MAX
    kernel_size: 2
    stride: 2
  }
}
layer {
  name: "conv1"
  type: "Convolution"
  bottom: "pool0"
  top: "conv1"
  param {
    lr_mult: 1
  }
  param {
    lr_mult: 2
  }
  convolution_param {
    num_output: 2
    kernel_size: 5
    stride: 1
    weight_filler {
      type: "xavier"
    }
    bias_filler {
      type: "constant"
    }
  }
}
layer {
  name: "pool1"
  type: "Pooling"
  bottom: "conv1"
  top: "pool1"
  pooling_param {
    pool: MAX
    kernel_size: 2
    stride: 2
  }
}
layer {
  name: "ip1"
  type: "InnerProduct"
  bottom: "pool1"
  top: "ip1"
  param {
    lr_mult: 1
  }
  param {
    lr_mult: 2
  }
  inner_product_param {
    num_output: 25
    weight_filler {
      type: "xavier"
    }
    bias_filler {
      type: "constant"
    }
  }
}
layer {
  name: "relu1"
  type: "ReLU"
  bottom: "ip1"
  top: "ip1"
}
layer {
  name: "ip2"
  type: "InnerProduct"
  bottom: "ip1"
  top: "ip2"
  param {
    lr_mult: 1
  }
  param {
    lr_mult: 2
  }
  inner_product_param {
    num_output: 50
    weight_filler {
      type: "xavier"
    }
    bias_filler {
      type: "constant"
    }
  }
}
layer {
  name: "relu2"
  type: "ReLU"
  bottom: "ip2"
  top: "ip2"
}
layer {
  name: "ip3"
  type: "InnerProduct"
  bottom: "ip2"
  top: "ip3"
  param {
    lr_mult: 1
  }
  param {
    lr_mult: 2
  }
  inner_product_param {
    num_output: 10
    weight_filler {
      type: "xavier"
    }
    bias_filler {
      type: "constant"
    }
  }
}
layer {
  name: "relu3"
  type: "ReLU"
  bottom: "ip3"
  top: "ip3"
}
layer {
  name: "accuracy"
  type: "Accuracy"
  bottom: "ip3"
  bottom: "label"
  top: "accuracy"
  include {
    phase: TEST
  }
}
layer {
  name: "loss"
  type: "SoftmaxWithLoss"
  bottom: "ip3"
  bottom: "label"
  top: "loss"
}
I0428 19:56:45.437322 28507 layer_factory.hpp:77] Creating layer mnist
I0428 19:56:45.437368 28507 db_lmdb.cpp:35] Opened lmdb examples/mnist/mnist_test_lmdb
I0428 19:56:45.437381 28507 net.cpp:86] Creating Layer mnist
I0428 19:56:45.437386 28507 net.cpp:382] mnist -> data
I0428 19:56:45.437396 28507 net.cpp:382] mnist -> label
I0428 19:56:45.437500 28507 data_layer.cpp:45] output data size: 100,1,28,28
I0428 19:56:45.439697 28507 net.cpp:124] Setting up mnist
I0428 19:56:45.439710 28507 net.cpp:131] Top shape: 100 1 28 28 (78400)
I0428 19:56:45.439715 28507 net.cpp:131] Top shape: 100 (100)
I0428 19:56:45.439718 28507 net.cpp:139] Memory required for data: 314000
I0428 19:56:45.439723 28507 layer_factory.hpp:77] Creating layer label_mnist_1_split
I0428 19:56:45.439729 28507 net.cpp:86] Creating Layer label_mnist_1_split
I0428 19:56:45.439733 28507 net.cpp:408] label_mnist_1_split <- label
I0428 19:56:45.439767 28507 net.cpp:382] label_mnist_1_split -> label_mnist_1_split_0
I0428 19:56:45.439775 28507 net.cpp:382] label_mnist_1_split -> label_mnist_1_split_1
I0428 19:56:45.439815 28507 net.cpp:124] Setting up label_mnist_1_split
I0428 19:56:45.439822 28507 net.cpp:131] Top shape: 100 (100)
I0428 19:56:45.439826 28507 net.cpp:131] Top shape: 100 (100)
I0428 19:56:45.439829 28507 net.cpp:139] Memory required for data: 314800
I0428 19:56:45.439832 28507 layer_factory.hpp:77] Creating layer conv0
I0428 19:56:45.439841 28507 net.cpp:86] Creating Layer conv0
I0428 19:56:45.439846 28507 net.cpp:408] conv0 <- data
I0428 19:56:45.439851 28507 net.cpp:382] conv0 -> conv0
I0428 19:56:45.441429 28507 net.cpp:124] Setting up conv0
I0428 19:56:45.441443 28507 net.cpp:131] Top shape: 100 10 24 24 (576000)
I0428 19:56:45.441447 28507 net.cpp:139] Memory required for data: 2618800
I0428 19:56:45.441457 28507 layer_factory.hpp:77] Creating layer pool0
I0428 19:56:45.441463 28507 net.cpp:86] Creating Layer pool0
I0428 19:56:45.441468 28507 net.cpp:408] pool0 <- conv0
I0428 19:56:45.441473 28507 net.cpp:382] pool0 -> pool0
I0428 19:56:45.441511 28507 net.cpp:124] Setting up pool0
I0428 19:56:45.441516 28507 net.cpp:131] Top shape: 100 10 12 12 (144000)
I0428 19:56:45.441519 28507 net.cpp:139] Memory required for data: 3194800
I0428 19:56:45.441522 28507 layer_factory.hpp:77] Creating layer conv1
I0428 19:56:45.441535 28507 net.cpp:86] Creating Layer conv1
I0428 19:56:45.441539 28507 net.cpp:408] conv1 <- pool0
I0428 19:56:45.441543 28507 net.cpp:382] conv1 -> conv1
I0428 19:56:45.443775 28507 net.cpp:124] Setting up conv1
I0428 19:56:45.443789 28507 net.cpp:131] Top shape: 100 2 8 8 (12800)
I0428 19:56:45.443794 28507 net.cpp:139] Memory required for data: 3246000
I0428 19:56:45.443802 28507 layer_factory.hpp:77] Creating layer pool1
I0428 19:56:45.443826 28507 net.cpp:86] Creating Layer pool1
I0428 19:56:45.443830 28507 net.cpp:408] pool1 <- conv1
I0428 19:56:45.443835 28507 net.cpp:382] pool1 -> pool1
I0428 19:56:45.443892 28507 net.cpp:124] Setting up pool1
I0428 19:56:45.443898 28507 net.cpp:131] Top shape: 100 2 4 4 (3200)
I0428 19:56:45.443900 28507 net.cpp:139] Memory required for data: 3258800
I0428 19:56:45.443903 28507 layer_factory.hpp:77] Creating layer ip1
I0428 19:56:45.443909 28507 net.cpp:86] Creating Layer ip1
I0428 19:56:45.443914 28507 net.cpp:408] ip1 <- pool1
I0428 19:56:45.443920 28507 net.cpp:382] ip1 -> ip1
I0428 19:56:45.444033 28507 net.cpp:124] Setting up ip1
I0428 19:56:45.444041 28507 net.cpp:131] Top shape: 100 25 (2500)
I0428 19:56:45.444054 28507 net.cpp:139] Memory required for data: 3268800
I0428 19:56:45.444063 28507 layer_factory.hpp:77] Creating layer relu1
I0428 19:56:45.444068 28507 net.cpp:86] Creating Layer relu1
I0428 19:56:45.444072 28507 net.cpp:408] relu1 <- ip1
I0428 19:56:45.444078 28507 net.cpp:369] relu1 -> ip1 (in-place)
I0428 19:56:45.444334 28507 net.cpp:124] Setting up relu1
I0428 19:56:45.444344 28507 net.cpp:131] Top shape: 100 25 (2500)
I0428 19:56:45.444346 28507 net.cpp:139] Memory required for data: 3278800
I0428 19:56:45.444350 28507 layer_factory.hpp:77] Creating layer ip2
I0428 19:56:45.444365 28507 net.cpp:86] Creating Layer ip2
I0428 19:56:45.444373 28507 net.cpp:408] ip2 <- ip1
I0428 19:56:45.444380 28507 net.cpp:382] ip2 -> ip2
I0428 19:56:45.444494 28507 net.cpp:124] Setting up ip2
I0428 19:56:45.444504 28507 net.cpp:131] Top shape: 100 50 (5000)
I0428 19:56:45.444507 28507 net.cpp:139] Memory required for data: 3298800
I0428 19:56:45.444514 28507 layer_factory.hpp:77] Creating layer relu2
I0428 19:56:45.444517 28507 net.cpp:86] Creating Layer relu2
I0428 19:56:45.444520 28507 net.cpp:408] relu2 <- ip2
I0428 19:56:45.444525 28507 net.cpp:369] relu2 -> ip2 (in-place)
I0428 19:56:45.444711 28507 net.cpp:124] Setting up relu2
I0428 19:56:45.444725 28507 net.cpp:131] Top shape: 100 50 (5000)
I0428 19:56:45.444730 28507 net.cpp:139] Memory required for data: 3318800
I0428 19:56:45.444739 28507 layer_factory.hpp:77] Creating layer ip3
I0428 19:56:45.444744 28507 net.cpp:86] Creating Layer ip3
I0428 19:56:45.444748 28507 net.cpp:408] ip3 <- ip2
I0428 19:56:45.444759 28507 net.cpp:382] ip3 -> ip3
I0428 19:56:45.444895 28507 net.cpp:124] Setting up ip3
I0428 19:56:45.444905 28507 net.cpp:131] Top shape: 100 10 (1000)
I0428 19:56:45.444913 28507 net.cpp:139] Memory required for data: 3322800
I0428 19:56:45.444922 28507 layer_factory.hpp:77] Creating layer relu3
I0428 19:56:45.444929 28507 net.cpp:86] Creating Layer relu3
I0428 19:56:45.444932 28507 net.cpp:408] relu3 <- ip3
I0428 19:56:45.444937 28507 net.cpp:369] relu3 -> ip3 (in-place)
I0428 19:56:45.445843 28507 net.cpp:124] Setting up relu3
I0428 19:56:45.445855 28507 net.cpp:131] Top shape: 100 10 (1000)
I0428 19:56:45.445859 28507 net.cpp:139] Memory required for data: 3326800
I0428 19:56:45.445863 28507 layer_factory.hpp:77] Creating layer ip3_relu3_0_split
I0428 19:56:45.445868 28507 net.cpp:86] Creating Layer ip3_relu3_0_split
I0428 19:56:45.445871 28507 net.cpp:408] ip3_relu3_0_split <- ip3
I0428 19:56:45.445878 28507 net.cpp:382] ip3_relu3_0_split -> ip3_relu3_0_split_0
I0428 19:56:45.445885 28507 net.cpp:382] ip3_relu3_0_split -> ip3_relu3_0_split_1
I0428 19:56:45.445930 28507 net.cpp:124] Setting up ip3_relu3_0_split
I0428 19:56:45.445935 28507 net.cpp:131] Top shape: 100 10 (1000)
I0428 19:56:45.445940 28507 net.cpp:131] Top shape: 100 10 (1000)
I0428 19:56:45.445942 28507 net.cpp:139] Memory required for data: 3334800
I0428 19:56:45.445945 28507 layer_factory.hpp:77] Creating layer accuracy
I0428 19:56:45.445951 28507 net.cpp:86] Creating Layer accuracy
I0428 19:56:45.445955 28507 net.cpp:408] accuracy <- ip3_relu3_0_split_0
I0428 19:56:45.445960 28507 net.cpp:408] accuracy <- label_mnist_1_split_0
I0428 19:56:45.445964 28507 net.cpp:382] accuracy -> accuracy
…
