…
I0428 19:40:18.068673 24514 net.cpp:296] The NetState phase (0) differed from the phase (1) specified by a rule in layer mnist
I0428 19:40:18.068692 24514 net.cpp:296] The NetState phase (0) differed from the phase (1) specified by a rule in layer accuracy
I0428 19:40:18.068795 24514 net.cpp:53] Initializing net from parameters: 
name: "LeNet"
state {
  phase: TRAIN
  level: 0
  stage: ""
}
layer {
  name: "mnist"
  type: "Data"
  top: "data"
  top: "label"
  include {
    phase: TRAIN
  }
  transform_param {
    scale: 0.00390625
  }
  data_param {
    source: "examples/mnist/mnist_train_lmdb"
    batch_size: 64
    backend: LMDB
  }
}
layer {
  name: "conv0"
  type: "Convolution"
  bottom: "data"
  top: "conv0"
  param {
    lr_mult: 1
  }
  param {
    lr_mult: 2
  }
  convolution_param {
    num_output: 2
    kernel_size: 5
    stride: 1
    weight_filler {
      type: "xavier"
    }
    bias_filler {
      type: "constant"
    }
  }
}
layer {
  name: "pool0"
  type: "Pooling"
  bottom: "conv0"
  top: "pool0"
  pooling_param {
    pool: MAX
    kernel_size: 2
    stride: 2
  }
}
layer {
  name: "conv1"
  type: "Convolution"
  bottom: "pool0"
  top: "conv1"
  param {
    lr_mult: 1
  }
  param {
    lr_mult: 2
  }
  convolution_param {
    num_output: 5
    kernel_size: 5
    stride: 1
    weight_filler {
      type: "xavier"
    }
    bias_filler {
      type: "constant"
    }
  }
}
layer {
  name: "pool1"
  type: "Pooling"
  bottom: "conv1"
  top: "pool1"
  pooling_param {
    pool: MAX
    kernel_size: 2
    stride: 2
  }
}
layer {
  name: "ip1"
  type: "InnerProduct"
  bottom: "pool1"
  top: "ip1"
  param {
    lr_mult: 1
  }
  param {
    lr_mult: 2
  }
  inner_product_param {
    num_output: 10
    weight_filler {
      type: "xavier"
    }
    bias_filler {
      type: "constant"
    }
  }
}
layer {
  name: "relu1"
  type: "ReLU"
  bottom: "ip1"
  top: "ip1"
}
layer {
  name: "ip2"
  type: "InnerProduct"
  bottom: "ip1"
  top: "ip2"
  param {
    lr_mult: 1
  }
  param {
    lr_mult: 2
  }
  inner_product_param {
    num_output: 50
    weight_filler {
      type: "xavier"
    }
    bias_filler {
      type: "constant"
    }
  }
}
layer {
  name: "relu2"
  type: "ReLU"
  bottom: "ip2"
  top: "ip2"
}
layer {
  name: "ip3"
  type: "InnerProduct"
  bottom: "ip2"
  top: "ip3"
  param {
    lr_mult: 1
  }
  param {
    lr_mult: 2
  }
  inner_product_param {
    num_output: 10
    weight_filler {
      type: "xavier"
    }
    bias_filler {
      type: "constant"
    }
  }
}
layer {
  name: "relu3"
  type: "ReLU"
  bottom: "ip3"
  top: "ip3"
}
layer {
  name: "loss"
  type: "SoftmaxWithLoss"
  bottom: "ip3"
  bottom: "label"
  top: "loss"
}
I0428 19:40:18.068886 24514 layer_factory.hpp:77] Creating layer mnist
I0428 19:40:18.068986 24514 db_lmdb.cpp:35] Opened lmdb examples/mnist/mnist_train_lmdb
I0428 19:40:18.069012 24514 net.cpp:86] Creating Layer mnist
I0428 19:40:18.069020 24514 net.cpp:382] mnist -> data
I0428 19:40:18.069046 24514 net.cpp:382] mnist -> label
I0428 19:40:18.070142 24514 data_layer.cpp:45] output data size: 64,1,28,28
I0428 19:40:18.072599 24514 net.cpp:124] Setting up mnist
I0428 19:40:18.072618 24514 net.cpp:131] Top shape: 64 1 28 28 (50176)
I0428 19:40:18.072623 24514 net.cpp:131] Top shape: 64 (64)
I0428 19:40:18.072628 24514 net.cpp:139] Memory required for data: 200960
I0428 19:40:18.072634 24514 layer_factory.hpp:77] Creating layer conv0
I0428 19:40:18.072695 24514 net.cpp:86] Creating Layer conv0
I0428 19:40:18.072717 24514 net.cpp:408] conv0 <- data
I0428 19:40:18.072731 24514 net.cpp:382] conv0 -> conv0
I0428 19:40:18.364259 24514 net.cpp:124] Setting up conv0
I0428 19:40:18.364290 24514 net.cpp:131] Top shape: 64 2 24 24 (73728)
I0428 19:40:18.364295 24514 net.cpp:139] Memory required for data: 495872
I0428 19:40:18.364315 24514 layer_factory.hpp:77] Creating layer pool0
I0428 19:40:18.364331 24514 net.cpp:86] Creating Layer pool0
I0428 19:40:18.364336 24514 net.cpp:408] pool0 <- conv0
I0428 19:40:18.364343 24514 net.cpp:382] pool0 -> pool0
I0428 19:40:18.364398 24514 net.cpp:124] Setting up pool0
I0428 19:40:18.364418 24514 net.cpp:131] Top shape: 64 2 12 12 (18432)
I0428 19:40:18.364421 24514 net.cpp:139] Memory required for data: 569600
I0428 19:40:18.364424 24514 layer_factory.hpp:77] Creating layer conv1
I0428 19:40:18.364437 24514 net.cpp:86] Creating Layer conv1
I0428 19:40:18.364441 24514 net.cpp:408] conv1 <- pool0
I0428 19:40:18.364447 24514 net.cpp:382] conv1 -> conv1
I0428 19:40:18.366564 24514 net.cpp:124] Setting up conv1
I0428 19:40:18.366581 24514 net.cpp:131] Top shape: 64 5 8 8 (20480)
I0428 19:40:18.366586 24514 net.cpp:139] Memory required for data: 651520
I0428 19:40:18.366596 24514 layer_factory.hpp:77] Creating layer pool1
I0428 19:40:18.366605 24514 net.cpp:86] Creating Layer pool1
I0428 19:40:18.366610 24514 net.cpp:408] pool1 <- conv1
I0428 19:40:18.366616 24514 net.cpp:382] pool1 -> pool1
I0428 19:40:18.366660 24514 net.cpp:124] Setting up pool1
I0428 19:40:18.366667 24514 net.cpp:131] Top shape: 64 5 4 4 (5120)
I0428 19:40:18.366670 24514 net.cpp:139] Memory required for data: 672000
I0428 19:40:18.366674 24514 layer_factory.hpp:77] Creating layer ip1
I0428 19:40:18.366684 24514 net.cpp:86] Creating Layer ip1
I0428 19:40:18.366688 24514 net.cpp:408] ip1 <- pool1
I0428 19:40:18.366694 24514 net.cpp:382] ip1 -> ip1
I0428 19:40:18.366825 24514 net.cpp:124] Setting up ip1
I0428 19:40:18.366835 24514 net.cpp:131] Top shape: 64 10 (640)
I0428 19:40:18.366838 24514 net.cpp:139] Memory required for data: 674560
I0428 19:40:18.366847 24514 layer_factory.hpp:77] Creating layer relu1
I0428 19:40:18.366853 24514 net.cpp:86] Creating Layer relu1
I0428 19:40:18.366858 24514 net.cpp:408] relu1 <- ip1
I0428 19:40:18.366863 24514 net.cpp:369] relu1 -> ip1 (in-place)
I0428 19:40:18.367067 24514 net.cpp:124] Setting up relu1
I0428 19:40:18.367079 24514 net.cpp:131] Top shape: 64 10 (640)
I0428 19:40:18.367082 24514 net.cpp:139] Memory required for data: 677120
I0428 19:40:18.367085 24514 layer_factory.hpp:77] Creating layer ip2
I0428 19:40:18.367096 24514 net.cpp:86] Creating Layer ip2
I0428 19:40:18.367100 24514 net.cpp:408] ip2 <- ip1
I0428 19:40:18.367106 24514 net.cpp:382] ip2 -> ip2
I0428 19:40:18.367234 24514 net.cpp:124] Setting up ip2
I0428 19:40:18.367244 24514 net.cpp:131] Top shape: 64 50 (3200)
I0428 19:40:18.367246 24514 net.cpp:139] Memory required for data: 689920
I0428 19:40:18.367252 24514 layer_factory.hpp:77] Creating layer relu2
I0428 19:40:18.367261 24514 net.cpp:86] Creating Layer relu2
I0428 19:40:18.367265 24514 net.cpp:408] relu2 <- ip2
I0428 19:40:18.367270 24514 net.cpp:369] relu2 -> ip2 (in-place)
I0428 19:40:18.368119 24514 net.cpp:124] Setting up relu2
I0428 19:40:18.368134 24514 net.cpp:131] Top shape: 64 50 (3200)
I0428 19:40:18.368139 24514 net.cpp:139] Memory required for data: 702720
I0428 19:40:18.368142 24514 layer_factory.hpp:77] Creating layer ip3
I0428 19:40:18.368152 24514 net.cpp:86] Creating Layer ip3
I0428 19:40:18.368156 24514 net.cpp:408] ip3 <- ip2
I0428 19:40:18.368162 24514 net.cpp:382] ip3 -> ip3
I0428 19:40:18.368294 24514 net.cpp:124] Setting up ip3
I0428 19:40:18.368304 24514 net.cpp:131] Top shape: 64 10 (640)
I0428 19:40:18.368306 24514 net.cpp:139] Memory required for data: 705280
I0428 19:40:18.368317 24514 layer_factory.hpp:77] Creating layer relu3
I0428 19:40:18.368324 24514 net.cpp:86] Creating Layer relu3
I0428 19:40:18.368327 24514 net.cpp:408] relu3 <- ip3
I0428 19:40:18.368333 24514 net.cpp:369] relu3 -> ip3 (in-place)
I0428 19:40:18.368542 24514 net.cpp:124] Setting up relu3
I0428 19:40:18.368552 24514 net.cpp:131] Top shape: 64 10 (640)
I0428 19:40:18.368556 24514 net.cpp:139] Memory required for data: 707840
I0428 19:40:18.368561 24514 layer_factory.hpp:77] Creating layer loss
I0428 19:40:18.368566 24514 net.cpp:86] Creating Layer loss
I0428 19:40:18.368571 24514 net.cpp:408] loss <- ip3
I0428 19:40:18.368574 24514 net.cpp:408] loss <- label
I0428 19:40:18.368582 24514 net.cpp:382] loss -> loss
I0428 19:40:18.368603 24514 layer_factory.hpp:77] Creating layer loss
…
I0428 19:40:18.369379 24514 solver.cpp:173] Creating test net (#0) specified by net file: ECE595/mnist/train_test/var_everything2/lenet_train_test330.prototxt
I0428 19:40:18.369410 24514 net.cpp:296] The NetState phase (1) differed from the phase (0) specified by a rule in layer mnist
I0428 19:40:18.369523 24514 net.cpp:53] Initializing net from parameters: 
name: "LeNet"
state {
  phase: TEST
}
layer {
  name: "mnist"
  type: "Data"
  top: "data"
  top: "label"
  include {
    phase: TEST
  }
  transform_param {
    scale: 0.00390625
  }
  data_param {
    source: "examples/mnist/mnist_test_lmdb"
    batch_size: 100
    backend: LMDB
  }
}
layer {
  name: "conv0"
  type: "Convolution"
  bottom: "data"
  top: "conv0"
  param {
    lr_mult: 1
  }
  param {
    lr_mult: 2
  }
  convolution_param {
    num_output: 2
    kernel_size: 5
    stride: 1
    weight_filler {
      type: "xavier"
    }
    bias_filler {
      type: "constant"
    }
  }
}
layer {
  name: "pool0"
  type: "Pooling"
  bottom: "conv0"
  top: "pool0"
  pooling_param {
    pool: MAX
    kernel_size: 2
    stride: 2
  }
}
layer {
  name: "conv1"
  type: "Convolution"
  bottom: "pool0"
  top: "conv1"
  param {
    lr_mult: 1
  }
  param {
    lr_mult: 2
  }
  convolution_param {
    num_output: 5
    kernel_size: 5
    stride: 1
    weight_filler {
      type: "xavier"
    }
    bias_filler {
      type: "constant"
    }
  }
}
layer {
  name: "pool1"
  type: "Pooling"
  bottom: "conv1"
  top: "pool1"
  pooling_param {
    pool: MAX
    kernel_size: 2
    stride: 2
  }
}
layer {
  name: "ip1"
  type: "InnerProduct"
  bottom: "pool1"
  top: "ip1"
  param {
    lr_mult: 1
  }
  param {
    lr_mult: 2
  }
  inner_product_param {
    num_output: 10
    weight_filler {
      type: "xavier"
    }
    bias_filler {
      type: "constant"
    }
  }
}
layer {
  name: "relu1"
  type: "ReLU"
  bottom: "ip1"
  top: "ip1"
}
layer {
  name: "ip2"
  type: "InnerProduct"
  bottom: "ip1"
  top: "ip2"
  param {
    lr_mult: 1
  }
  param {
    lr_mult: 2
  }
  inner_product_param {
    num_output: 50
    weight_filler {
      type: "xavier"
    }
    bias_filler {
      type: "constant"
    }
  }
}
layer {
  name: "relu2"
  type: "ReLU"
  bottom: "ip2"
  top: "ip2"
}
layer {
  name: "ip3"
  type: "InnerProduct"
  bottom: "ip2"
  top: "ip3"
  param {
    lr_mult: 1
  }
  param {
    lr_mult: 2
  }
  inner_product_param {
    num_output: 10
    weight_filler {
      type: "xavier"
    }
    bias_filler {
      type: "constant"
    }
  }
}
layer {
  name: "relu3"
  type: "ReLU"
  bottom: "ip3"
  top: "ip3"
}
layer {
  name: "accuracy"
  type: "Accuracy"
  bottom: "ip3"
  bottom: "label"
  top: "accuracy"
  include {
    phase: TEST
  }
}
layer {
  name: "loss"
  type: "SoftmaxWithLoss"
  bottom: "ip3"
  bottom: "label"
  top: "loss"
}
I0428 19:40:18.369621 24514 layer_factory.hpp:77] Creating layer mnist
I0428 19:40:18.369671 24514 db_lmdb.cpp:35] Opened lmdb examples/mnist/mnist_test_lmdb
I0428 19:40:18.369691 24514 net.cpp:86] Creating Layer mnist
I0428 19:40:18.369699 24514 net.cpp:382] mnist -> data
I0428 19:40:18.369709 24514 net.cpp:382] mnist -> label
I0428 19:40:18.369812 24514 data_layer.cpp:45] output data size: 100,1,28,28
I0428 19:40:18.372018 24514 net.cpp:124] Setting up mnist
I0428 19:40:18.372035 24514 net.cpp:131] Top shape: 100 1 28 28 (78400)
I0428 19:40:18.372040 24514 net.cpp:131] Top shape: 100 (100)
I0428 19:40:18.372043 24514 net.cpp:139] Memory required for data: 314000
I0428 19:40:18.372047 24514 layer_factory.hpp:77] Creating layer label_mnist_1_split
I0428 19:40:18.372088 24514 net.cpp:86] Creating Layer label_mnist_1_split
I0428 19:40:18.372093 24514 net.cpp:408] label_mnist_1_split <- label
I0428 19:40:18.372099 24514 net.cpp:382] label_mnist_1_split -> label_mnist_1_split_0
I0428 19:40:18.372107 24514 net.cpp:382] label_mnist_1_split -> label_mnist_1_split_1
I0428 19:40:18.372164 24514 net.cpp:124] Setting up label_mnist_1_split
I0428 19:40:18.372170 24514 net.cpp:131] Top shape: 100 (100)
I0428 19:40:18.372175 24514 net.cpp:131] Top shape: 100 (100)
I0428 19:40:18.372179 24514 net.cpp:139] Memory required for data: 314800
I0428 19:40:18.372182 24514 layer_factory.hpp:77] Creating layer conv0
I0428 19:40:18.372193 24514 net.cpp:86] Creating Layer conv0
I0428 19:40:18.372197 24514 net.cpp:408] conv0 <- data
I0428 19:40:18.372205 24514 net.cpp:382] conv0 -> conv0
I0428 19:40:18.374177 24514 net.cpp:124] Setting up conv0
I0428 19:40:18.374194 24514 net.cpp:131] Top shape: 100 2 24 24 (115200)
I0428 19:40:18.374199 24514 net.cpp:139] Memory required for data: 775600
I0428 19:40:18.374212 24514 layer_factory.hpp:77] Creating layer pool0
I0428 19:40:18.374219 24514 net.cpp:86] Creating Layer pool0
I0428 19:40:18.374223 24514 net.cpp:408] pool0 <- conv0
I0428 19:40:18.374229 24514 net.cpp:382] pool0 -> pool0
I0428 19:40:18.374275 24514 net.cpp:124] Setting up pool0
I0428 19:40:18.374281 24514 net.cpp:131] Top shape: 100 2 12 12 (28800)
I0428 19:40:18.374285 24514 net.cpp:139] Memory required for data: 890800
I0428 19:40:18.374289 24514 layer_factory.hpp:77] Creating layer conv1
I0428 19:40:18.374300 24514 net.cpp:86] Creating Layer conv1
I0428 19:40:18.374303 24514 net.cpp:408] conv1 <- pool0
I0428 19:40:18.374310 24514 net.cpp:382] conv1 -> conv1
I0428 19:40:18.376066 24514 net.cpp:124] Setting up conv1
I0428 19:40:18.376085 24514 net.cpp:131] Top shape: 100 5 8 8 (32000)
I0428 19:40:18.376091 24514 net.cpp:139] Memory required for data: 1018800
I0428 19:40:18.376101 24514 layer_factory.hpp:77] Creating layer pool1
I0428 19:40:18.376109 24514 net.cpp:86] Creating Layer pool1
I0428 19:40:18.376113 24514 net.cpp:408] pool1 <- conv1
I0428 19:40:18.376121 24514 net.cpp:382] pool1 -> pool1
I0428 19:40:18.376168 24514 net.cpp:124] Setting up pool1
I0428 19:40:18.376179 24514 net.cpp:131] Top shape: 100 5 4 4 (8000)
I0428 19:40:18.376190 24514 net.cpp:139] Memory required for data: 1050800
I0428 19:40:18.376194 24514 layer_factory.hpp:77] Creating layer ip1
I0428 19:40:18.376202 24514 net.cpp:86] Creating Layer ip1
I0428 19:40:18.376206 24514 net.cpp:408] ip1 <- pool1
I0428 19:40:18.376212 24514 net.cpp:382] ip1 -> ip1
I0428 19:40:18.376346 24514 net.cpp:124] Setting up ip1
I0428 19:40:18.376356 24514 net.cpp:131] Top shape: 100 10 (1000)
I0428 19:40:18.376372 24514 net.cpp:139] Memory required for data: 1054800
I0428 19:40:18.376381 24514 layer_factory.hpp:77] Creating layer relu1
I0428 19:40:18.376389 24514 net.cpp:86] Creating Layer relu1
I0428 19:40:18.376394 24514 net.cpp:408] relu1 <- ip1
I0428 19:40:18.376399 24514 net.cpp:369] relu1 -> ip1 (in-place)
I0428 19:40:18.376595 24514 net.cpp:124] Setting up relu1
I0428 19:40:18.376605 24514 net.cpp:131] Top shape: 100 10 (1000)
I0428 19:40:18.376610 24514 net.cpp:139] Memory required for data: 1058800
I0428 19:40:18.376613 24514 layer_factory.hpp:77] Creating layer ip2
I0428 19:40:18.376622 24514 net.cpp:86] Creating Layer ip2
I0428 19:40:18.376626 24514 net.cpp:408] ip2 <- ip1
I0428 19:40:18.376633 24514 net.cpp:382] ip2 -> ip2
I0428 19:40:18.376755 24514 net.cpp:124] Setting up ip2
I0428 19:40:18.376763 24514 net.cpp:131] Top shape: 100 50 (5000)
I0428 19:40:18.376775 24514 net.cpp:139] Memory required for data: 1078800
I0428 19:40:18.376780 24514 layer_factory.hpp:77] Creating layer relu2
I0428 19:40:18.376786 24514 net.cpp:86] Creating Layer relu2
I0428 19:40:18.376791 24514 net.cpp:408] relu2 <- ip2
I0428 19:40:18.376794 24514 net.cpp:369] relu2 -> ip2 (in-place)
I0428 19:40:18.377045 24514 net.cpp:124] Setting up relu2
I0428 19:40:18.377058 24514 net.cpp:131] Top shape: 100 50 (5000)
I0428 19:40:18.377063 24514 net.cpp:139] Memory required for data: 1098800
I0428 19:40:18.377066 24514 layer_factory.hpp:77] Creating layer ip3
I0428 19:40:18.377073 24514 net.cpp:86] Creating Layer ip3
I0428 19:40:18.377075 24514 net.cpp:408] ip3 <- ip2
I0428 19:40:18.377084 24514 net.cpp:382] ip3 -> ip3
I0428 19:40:18.377271 24514 net.cpp:124] Setting up ip3
I0428 19:40:18.377280 24514 net.cpp:131] Top shape: 100 10 (1000)
I0428 19:40:18.377285 24514 net.cpp:139] Memory required for data: 1102800
I0428 19:40:18.377293 24514 layer_factory.hpp:77] Creating layer relu3
I0428 19:40:18.377300 24514 net.cpp:86] Creating Layer relu3
I0428 19:40:18.377303 24514 net.cpp:408] relu3 <- ip3
I0428 19:40:18.377310 24514 net.cpp:369] relu3 -> ip3 (in-place)
I0428 19:40:18.378235 24514 net.cpp:124] Setting up relu3
I0428 19:40:18.378250 24514 net.cpp:131] Top shape: 100 10 (1000)
I0428 19:40:18.378254 24514 net.cpp:139] Memory required for data: 1106800
I0428 19:40:18.378258 24514 layer_factory.hpp:77] Creating layer ip3_relu3_0_split
I0428 19:40:18.378264 24514 net.cpp:86] Creating Layer ip3_relu3_0_split
I0428 19:40:18.378268 24514 net.cpp:408] ip3_relu3_0_split <- ip3
I0428 19:40:18.378275 24514 net.cpp:382] ip3_relu3_0_split -> ip3_relu3_0_split_0
I0428 19:40:18.378283 24514 net.cpp:382] ip3_relu3_0_split -> ip3_relu3_0_split_1
I0428 19:40:18.378334 24514 net.cpp:124] Setting up ip3_relu3_0_split
I0428 19:40:18.378342 24514 net.cpp:131] Top shape: 100 10 (1000)
I0428 19:40:18.378346 24514 net.cpp:131] Top shape: 100 10 (1000)
I0428 19:40:18.378350 24514 net.cpp:139] Memory required for data: 1114800
I0428 19:40:18.378352 24514 layer_factory.hpp:77] Creating layer accuracy
I0428 19:40:18.378367 24514 net.cpp:86] Creating Layer accuracy
I0428 19:40:18.378371 24514 net.cpp:408] accuracy <- ip3_relu3_0_split_0
I0428 19:40:18.378376 24514 net.cpp:408] accuracy <- label_mnist_1_split_0
I0428 19:40:18.378383 24514 net.cpp:382] accuracy -> accuracy
…
