…
I0428 19:34:22.213619 23317 net.cpp:296] The NetState phase (0) differed from the phase (1) specified by a rule in layer mnist
I0428 19:34:22.213634 23317 net.cpp:296] The NetState phase (0) differed from the phase (1) specified by a rule in layer accuracy
I0428 19:34:22.213713 23317 net.cpp:53] Initializing net from parameters: 
name: "LeNet"
state {
  phase: TRAIN
  level: 0
  stage: ""
}
layer {
  name: "mnist"
  type: "Data"
  top: "data"
  top: "label"
  include {
    phase: TRAIN
  }
  transform_param {
    scale: 0.00390625
  }
  data_param {
    source: "examples/mnist/mnist_train_lmdb"
    batch_size: 64
    backend: LMDB
  }
}
layer {
  name: "conv0"
  type: "Convolution"
  bottom: "data"
  top: "conv0"
  param {
    lr_mult: 1
  }
  param {
    lr_mult: 2
  }
  convolution_param {
    num_output: 50
    kernel_size: 5
    stride: 1
    weight_filler {
      type: "xavier"
    }
    bias_filler {
      type: "constant"
    }
  }
}
layer {
  name: "pool0"
  type: "Pooling"
  bottom: "conv0"
  top: "pool0"
  pooling_param {
    pool: MAX
    kernel_size: 2
    stride: 2
  }
}
layer {
  name: "ip1"
  type: "InnerProduct"
  bottom: "pool0"
  top: "ip1"
  param {
    lr_mult: 1
  }
  param {
    lr_mult: 2
  }
  inner_product_param {
    num_output: 25
    weight_filler {
      type: "xavier"
    }
    bias_filler {
      type: "constant"
    }
  }
}
layer {
  name: "relu1"
  type: "ReLU"
  bottom: "ip1"
  top: "ip1"
}
layer {
  name: "ip2"
  type: "InnerProduct"
  bottom: "ip1"
  top: "ip2"
  param {
    lr_mult: 1
  }
  param {
    lr_mult: 2
  }
  inner_product_param {
    num_output: 10
    weight_filler {
      type: "xavier"
    }
    bias_filler {
      type: "constant"
    }
  }
}
layer {
  name: "relu2"
  type: "ReLU"
  bottom: "ip2"
  top: "ip2"
}
layer {
  name: "loss"
  type: "SoftmaxWithLoss"
  bottom: "ip2"
  bottom: "label"
  top: "loss"
}
I0428 19:34:22.213788 23317 layer_factory.hpp:77] Creating layer mnist
I0428 19:34:22.213888 23317 db_lmdb.cpp:35] Opened lmdb examples/mnist/mnist_train_lmdb
I0428 19:34:22.213915 23317 net.cpp:86] Creating Layer mnist
I0428 19:34:22.213927 23317 net.cpp:382] mnist -> data
I0428 19:34:22.213953 23317 net.cpp:382] mnist -> label
I0428 19:34:22.215039 23317 data_layer.cpp:45] output data size: 64,1,28,28
I0428 19:34:22.217492 23317 net.cpp:124] Setting up mnist
I0428 19:34:22.217509 23317 net.cpp:131] Top shape: 64 1 28 28 (50176)
I0428 19:34:22.217516 23317 net.cpp:131] Top shape: 64 (64)
I0428 19:34:22.217519 23317 net.cpp:139] Memory required for data: 200960
I0428 19:34:22.217526 23317 layer_factory.hpp:77] Creating layer conv0
I0428 19:34:22.217558 23317 net.cpp:86] Creating Layer conv0
I0428 19:34:22.217564 23317 net.cpp:408] conv0 <- data
I0428 19:34:22.217577 23317 net.cpp:382] conv0 -> conv0
I0428 19:34:22.499872 23317 net.cpp:124] Setting up conv0
I0428 19:34:22.499898 23317 net.cpp:131] Top shape: 64 50 24 24 (1843200)
I0428 19:34:22.499902 23317 net.cpp:139] Memory required for data: 7573760
I0428 19:34:22.499917 23317 layer_factory.hpp:77] Creating layer pool0
I0428 19:34:22.499933 23317 net.cpp:86] Creating Layer pool0
I0428 19:34:22.499938 23317 net.cpp:408] pool0 <- conv0
I0428 19:34:22.499943 23317 net.cpp:382] pool0 -> pool0
I0428 19:34:22.499987 23317 net.cpp:124] Setting up pool0
I0428 19:34:22.499992 23317 net.cpp:131] Top shape: 64 50 12 12 (460800)
I0428 19:34:22.499995 23317 net.cpp:139] Memory required for data: 9416960
I0428 19:34:22.500015 23317 layer_factory.hpp:77] Creating layer ip1
I0428 19:34:22.500023 23317 net.cpp:86] Creating Layer ip1
I0428 19:34:22.500026 23317 net.cpp:408] ip1 <- pool0
I0428 19:34:22.500031 23317 net.cpp:382] ip1 -> ip1
I0428 19:34:22.501986 23317 net.cpp:124] Setting up ip1
I0428 19:34:22.502001 23317 net.cpp:131] Top shape: 64 25 (1600)
I0428 19:34:22.502004 23317 net.cpp:139] Memory required for data: 9423360
I0428 19:34:22.502012 23317 layer_factory.hpp:77] Creating layer relu1
I0428 19:34:22.502035 23317 net.cpp:86] Creating Layer relu1
I0428 19:34:22.502039 23317 net.cpp:408] relu1 <- ip1
I0428 19:34:22.502044 23317 net.cpp:369] relu1 -> ip1 (in-place)
I0428 19:34:22.502244 23317 net.cpp:124] Setting up relu1
I0428 19:34:22.502254 23317 net.cpp:131] Top shape: 64 25 (1600)
I0428 19:34:22.502257 23317 net.cpp:139] Memory required for data: 9429760
I0428 19:34:22.502260 23317 layer_factory.hpp:77] Creating layer ip2
I0428 19:34:22.502267 23317 net.cpp:86] Creating Layer ip2
I0428 19:34:22.502270 23317 net.cpp:408] ip2 <- ip1
I0428 19:34:22.502275 23317 net.cpp:382] ip2 -> ip2
I0428 19:34:22.502367 23317 net.cpp:124] Setting up ip2
I0428 19:34:22.502374 23317 net.cpp:131] Top shape: 64 10 (640)
I0428 19:34:22.502378 23317 net.cpp:139] Memory required for data: 9432320
I0428 19:34:22.502385 23317 layer_factory.hpp:77] Creating layer relu2
I0428 19:34:22.502390 23317 net.cpp:86] Creating Layer relu2
I0428 19:34:22.502394 23317 net.cpp:408] relu2 <- ip2
I0428 19:34:22.502398 23317 net.cpp:369] relu2 -> ip2 (in-place)
I0428 19:34:22.503191 23317 net.cpp:124] Setting up relu2
I0428 19:34:22.503218 23317 net.cpp:131] Top shape: 64 10 (640)
I0428 19:34:22.503237 23317 net.cpp:139] Memory required for data: 9434880
I0428 19:34:22.503242 23317 layer_factory.hpp:77] Creating layer loss
I0428 19:34:22.503247 23317 net.cpp:86] Creating Layer loss
I0428 19:34:22.503252 23317 net.cpp:408] loss <- ip2
I0428 19:34:22.503257 23317 net.cpp:408] loss <- label
I0428 19:34:22.503262 23317 net.cpp:382] loss -> loss
I0428 19:34:22.503278 23317 layer_factory.hpp:77] Creating layer loss
…
I0428 19:34:22.503818 23317 solver.cpp:173] Creating test net (#0) specified by net file: ECE595/mnist/train_test/var_everything2/lenet_train_test202.prototxt
I0428 19:34:22.503841 23317 net.cpp:296] The NetState phase (1) differed from the phase (0) specified by a rule in layer mnist
I0428 19:34:22.503912 23317 net.cpp:53] Initializing net from parameters: 
name: "LeNet"
state {
  phase: TEST
}
layer {
  name: "mnist"
  type: "Data"
  top: "data"
  top: "label"
  include {
    phase: TEST
  }
  transform_param {
    scale: 0.00390625
  }
  data_param {
    source: "examples/mnist/mnist_test_lmdb"
    batch_size: 100
    backend: LMDB
  }
}
layer {
  name: "conv0"
  type: "Convolution"
  bottom: "data"
  top: "conv0"
  param {
    lr_mult: 1
  }
  param {
    lr_mult: 2
  }
  convolution_param {
    num_output: 50
    kernel_size: 5
    stride: 1
    weight_filler {
      type: "xavier"
    }
    bias_filler {
      type: "constant"
    }
  }
}
layer {
  name: "pool0"
  type: "Pooling"
  bottom: "conv0"
  top: "pool0"
  pooling_param {
    pool: MAX
    kernel_size: 2
    stride: 2
  }
}
layer {
  name: "ip1"
  type: "InnerProduct"
  bottom: "pool0"
  top: "ip1"
  param {
    lr_mult: 1
  }
  param {
    lr_mult: 2
  }
  inner_product_param {
    num_output: 25
    weight_filler {
      type: "xavier"
    }
    bias_filler {
      type: "constant"
    }
  }
}
layer {
  name: "relu1"
  type: "ReLU"
  bottom: "ip1"
  top: "ip1"
}
layer {
  name: "ip2"
  type: "InnerProduct"
  bottom: "ip1"
  top: "ip2"
  param {
    lr_mult: 1
  }
  param {
    lr_mult: 2
  }
  inner_product_param {
    num_output: 10
    weight_filler {
      type: "xavier"
    }
    bias_filler {
      type: "constant"
    }
  }
}
layer {
  name: "relu2"
  type: "ReLU"
  bottom: "ip2"
  top: "ip2"
}
layer {
  name: "accuracy"
  type: "Accuracy"
  bottom: "ip2"
  bottom: "label"
  top: "accuracy"
  include {
    phase: TEST
  }
}
layer {
  name: "loss"
  type: "SoftmaxWithLoss"
  bottom: "ip2"
  bottom: "label"
  top: "loss"
}
I0428 19:34:22.503995 23317 layer_factory.hpp:77] Creating layer mnist
I0428 19:34:22.504053 23317 db_lmdb.cpp:35] Opened lmdb examples/mnist/mnist_test_lmdb
I0428 19:34:22.504067 23317 net.cpp:86] Creating Layer mnist
I0428 19:34:22.504071 23317 net.cpp:382] mnist -> data
I0428 19:34:22.504079 23317 net.cpp:382] mnist -> label
I0428 19:34:22.504163 23317 data_layer.cpp:45] output data size: 100,1,28,28
I0428 19:34:22.505489 23317 net.cpp:124] Setting up mnist
I0428 19:34:22.505503 23317 net.cpp:131] Top shape: 100 1 28 28 (78400)
I0428 19:34:22.505509 23317 net.cpp:131] Top shape: 100 (100)
I0428 19:34:22.505513 23317 net.cpp:139] Memory required for data: 314000
I0428 19:34:22.505517 23317 layer_factory.hpp:77] Creating layer label_mnist_1_split
I0428 19:34:22.505523 23317 net.cpp:86] Creating Layer label_mnist_1_split
I0428 19:34:22.505527 23317 net.cpp:408] label_mnist_1_split <- label
I0428 19:34:22.505532 23317 net.cpp:382] label_mnist_1_split -> label_mnist_1_split_0
I0428 19:34:22.505539 23317 net.cpp:382] label_mnist_1_split -> label_mnist_1_split_1
I0428 19:34:22.505605 23317 net.cpp:124] Setting up label_mnist_1_split
I0428 19:34:22.505625 23317 net.cpp:131] Top shape: 100 (100)
I0428 19:34:22.505630 23317 net.cpp:131] Top shape: 100 (100)
I0428 19:34:22.505632 23317 net.cpp:139] Memory required for data: 314800
I0428 19:34:22.505635 23317 layer_factory.hpp:77] Creating layer conv0
I0428 19:34:22.505643 23317 net.cpp:86] Creating Layer conv0
I0428 19:34:22.505646 23317 net.cpp:408] conv0 <- data
I0428 19:34:22.505666 23317 net.cpp:382] conv0 -> conv0
I0428 19:34:22.507294 23317 net.cpp:124] Setting up conv0
I0428 19:34:22.507308 23317 net.cpp:131] Top shape: 100 50 24 24 (2880000)
I0428 19:34:22.507311 23317 net.cpp:139] Memory required for data: 11834800
I0428 19:34:22.507320 23317 layer_factory.hpp:77] Creating layer pool0
I0428 19:34:22.507326 23317 net.cpp:86] Creating Layer pool0
I0428 19:34:22.507329 23317 net.cpp:408] pool0 <- conv0
I0428 19:34:22.507334 23317 net.cpp:382] pool0 -> pool0
I0428 19:34:22.507369 23317 net.cpp:124] Setting up pool0
I0428 19:34:22.507374 23317 net.cpp:131] Top shape: 100 50 12 12 (720000)
I0428 19:34:22.507376 23317 net.cpp:139] Memory required for data: 14714800
I0428 19:34:22.507380 23317 layer_factory.hpp:77] Creating layer ip1
I0428 19:34:22.507385 23317 net.cpp:86] Creating Layer ip1
I0428 19:34:22.507388 23317 net.cpp:408] ip1 <- pool0
I0428 19:34:22.507393 23317 net.cpp:382] ip1 -> ip1
I0428 19:34:22.509376 23317 net.cpp:124] Setting up ip1
I0428 19:34:22.509387 23317 net.cpp:131] Top shape: 100 25 (2500)
I0428 19:34:22.509392 23317 net.cpp:139] Memory required for data: 14724800
I0428 19:34:22.509399 23317 layer_factory.hpp:77] Creating layer relu1
I0428 19:34:22.509404 23317 net.cpp:86] Creating Layer relu1
I0428 19:34:22.509408 23317 net.cpp:408] relu1 <- ip1
I0428 19:34:22.509413 23317 net.cpp:369] relu1 -> ip1 (in-place)
I0428 19:34:22.509589 23317 net.cpp:124] Setting up relu1
I0428 19:34:22.509599 23317 net.cpp:131] Top shape: 100 25 (2500)
I0428 19:34:22.509613 23317 net.cpp:139] Memory required for data: 14734800
I0428 19:34:22.509616 23317 layer_factory.hpp:77] Creating layer ip2
I0428 19:34:22.509621 23317 net.cpp:86] Creating Layer ip2
I0428 19:34:22.509625 23317 net.cpp:408] ip2 <- ip1
I0428 19:34:22.509630 23317 net.cpp:382] ip2 -> ip2
I0428 19:34:22.509740 23317 net.cpp:124] Setting up ip2
I0428 19:34:22.509749 23317 net.cpp:131] Top shape: 100 10 (1000)
I0428 19:34:22.509752 23317 net.cpp:139] Memory required for data: 14738800
I0428 19:34:22.509760 23317 layer_factory.hpp:77] Creating layer relu2
I0428 19:34:22.509765 23317 net.cpp:86] Creating Layer relu2
I0428 19:34:22.509768 23317 net.cpp:408] relu2 <- ip2
I0428 19:34:22.509773 23317 net.cpp:369] relu2 -> ip2 (in-place)
I0428 19:34:22.509943 23317 net.cpp:124] Setting up relu2
I0428 19:34:22.509951 23317 net.cpp:131] Top shape: 100 10 (1000)
I0428 19:34:22.509954 23317 net.cpp:139] Memory required for data: 14742800
I0428 19:34:22.509964 23317 layer_factory.hpp:77] Creating layer ip2_relu2_0_split
I0428 19:34:22.509970 23317 net.cpp:86] Creating Layer ip2_relu2_0_split
I0428 19:34:22.509974 23317 net.cpp:408] ip2_relu2_0_split <- ip2
I0428 19:34:22.509979 23317 net.cpp:382] ip2_relu2_0_split -> ip2_relu2_0_split_0
I0428 19:34:22.509984 23317 net.cpp:382] ip2_relu2_0_split -> ip2_relu2_0_split_1
I0428 19:34:22.510016 23317 net.cpp:124] Setting up ip2_relu2_0_split
I0428 19:34:22.510021 23317 net.cpp:131] Top shape: 100 10 (1000)
I0428 19:34:22.510025 23317 net.cpp:131] Top shape: 100 10 (1000)
I0428 19:34:22.510027 23317 net.cpp:139] Memory required for data: 14750800
I0428 19:34:22.510030 23317 layer_factory.hpp:77] Creating layer accuracy
I0428 19:34:22.510036 23317 net.cpp:86] Creating Layer accuracy
I0428 19:34:22.510038 23317 net.cpp:408] accuracy <- ip2_relu2_0_split_0
I0428 19:34:22.510042 23317 net.cpp:408] accuracy <- label_mnist_1_split_0
I0428 19:34:22.510047 23317 net.cpp:382] accuracy -> accuracy
…
