…
I0428 20:20:02.389344  1469 net.cpp:296] The NetState phase (0) differed from the phase (1) specified by a rule in layer mnist
I0428 20:20:02.389364  1469 net.cpp:296] The NetState phase (0) differed from the phase (1) specified by a rule in layer accuracy
I0428 20:20:02.389464  1469 net.cpp:53] Initializing net from parameters: 
name: "LeNet"
state {
  phase: TRAIN
  level: 0
  stage: ""
}
layer {
  name: "mnist"
  type: "Data"
  top: "data"
  top: "label"
  include {
    phase: TRAIN
  }
  transform_param {
    scale: 0.00390625
  }
  data_param {
    source: "examples/mnist/mnist_train_lmdb"
    batch_size: 64
    backend: LMDB
  }
}
layer {
  name: "conv0"
  type: "Convolution"
  bottom: "data"
  top: "conv0"
  param {
    lr_mult: 1
  }
  param {
    lr_mult: 2
  }
  convolution_param {
    num_output: 50
    kernel_size: 5
    stride: 1
    weight_filler {
      type: "xavier"
    }
    bias_filler {
      type: "constant"
    }
  }
}
layer {
  name: "pool0"
  type: "Pooling"
  bottom: "conv0"
  top: "pool0"
  pooling_param {
    pool: MAX
    kernel_size: 2
    stride: 2
  }
}
layer {
  name: "conv1"
  type: "Convolution"
  bottom: "pool0"
  top: "conv1"
  param {
    lr_mult: 1
  }
  param {
    lr_mult: 2
  }
  convolution_param {
    num_output: 25
    kernel_size: 5
    stride: 1
    weight_filler {
      type: "xavier"
    }
    bias_filler {
      type: "constant"
    }
  }
}
layer {
  name: "pool1"
  type: "Pooling"
  bottom: "conv1"
  top: "pool1"
  pooling_param {
    pool: MAX
    kernel_size: 2
    stride: 2
  }
}
layer {
  name: "ip1"
  type: "InnerProduct"
  bottom: "pool1"
  top: "ip1"
  param {
    lr_mult: 1
  }
  param {
    lr_mult: 2
  }
  inner_product_param {
    num_output: 25
    weight_filler {
      type: "xavier"
    }
    bias_filler {
      type: "constant"
    }
  }
}
layer {
  name: "relu1"
  type: "ReLU"
  bottom: "ip1"
  top: "ip1"
}
layer {
  name: "ip2"
  type: "InnerProduct"
  bottom: "ip1"
  top: "ip2"
  param {
    lr_mult: 1
  }
  param {
    lr_mult: 2
  }
  inner_product_param {
    num_output: 50
    weight_filler {
      type: "xavier"
    }
    bias_filler {
      type: "constant"
    }
  }
}
layer {
  name: "relu2"
  type: "ReLU"
  bottom: "ip2"
  top: "ip2"
}
layer {
  name: "ip3"
  type: "InnerProduct"
  bottom: "ip2"
  top: "ip3"
  param {
    lr_mult: 1
  }
  param {
    lr_mult: 2
  }
  inner_product_param {
    num_output: 10
    weight_filler {
      type: "xavier"
    }
    bias_filler {
      type: "constant"
    }
  }
}
layer {
  name: "relu3"
  type: "ReLU"
  bottom: "ip3"
  top: "ip3"
}
layer {
  name: "loss"
  type: "SoftmaxWithLoss"
  bottom: "ip3"
  bottom: "label"
  top: "loss"
}
I0428 20:20:02.389541  1469 layer_factory.hpp:77] Creating layer mnist
I0428 20:20:02.389636  1469 db_lmdb.cpp:35] Opened lmdb examples/mnist/mnist_train_lmdb
I0428 20:20:02.389659  1469 net.cpp:86] Creating Layer mnist
I0428 20:20:02.389668  1469 net.cpp:382] mnist -> data
I0428 20:20:02.389690  1469 net.cpp:382] mnist -> label
I0428 20:20:02.390746  1469 data_layer.cpp:45] output data size: 64,1,28,28
I0428 20:20:02.393146  1469 net.cpp:124] Setting up mnist
I0428 20:20:02.393165  1469 net.cpp:131] Top shape: 64 1 28 28 (50176)
I0428 20:20:02.393172  1469 net.cpp:131] Top shape: 64 (64)
I0428 20:20:02.393175  1469 net.cpp:139] Memory required for data: 200960
I0428 20:20:02.393182  1469 layer_factory.hpp:77] Creating layer conv0
I0428 20:20:02.393199  1469 net.cpp:86] Creating Layer conv0
I0428 20:20:02.393218  1469 net.cpp:408] conv0 <- data
I0428 20:20:02.393231  1469 net.cpp:382] conv0 -> conv0
I0428 20:20:02.674183  1469 net.cpp:124] Setting up conv0
I0428 20:20:02.674209  1469 net.cpp:131] Top shape: 64 50 24 24 (1843200)
I0428 20:20:02.674213  1469 net.cpp:139] Memory required for data: 7573760
I0428 20:20:02.674228  1469 layer_factory.hpp:77] Creating layer pool0
I0428 20:20:02.674242  1469 net.cpp:86] Creating Layer pool0
I0428 20:20:02.674247  1469 net.cpp:408] pool0 <- conv0
I0428 20:20:02.674252  1469 net.cpp:382] pool0 -> pool0
I0428 20:20:02.674299  1469 net.cpp:124] Setting up pool0
I0428 20:20:02.674305  1469 net.cpp:131] Top shape: 64 50 12 12 (460800)
I0428 20:20:02.674309  1469 net.cpp:139] Memory required for data: 9416960
I0428 20:20:02.674311  1469 layer_factory.hpp:77] Creating layer conv1
I0428 20:20:02.674322  1469 net.cpp:86] Creating Layer conv1
I0428 20:20:02.674325  1469 net.cpp:408] conv1 <- pool0
I0428 20:20:02.674330  1469 net.cpp:382] conv1 -> conv1
I0428 20:20:02.676302  1469 net.cpp:124] Setting up conv1
I0428 20:20:02.676332  1469 net.cpp:131] Top shape: 64 25 8 8 (102400)
I0428 20:20:02.676337  1469 net.cpp:139] Memory required for data: 9826560
I0428 20:20:02.676345  1469 layer_factory.hpp:77] Creating layer pool1
I0428 20:20:02.676353  1469 net.cpp:86] Creating Layer pool1
I0428 20:20:02.676357  1469 net.cpp:408] pool1 <- conv1
I0428 20:20:02.676378  1469 net.cpp:382] pool1 -> pool1
I0428 20:20:02.676429  1469 net.cpp:124] Setting up pool1
I0428 20:20:02.676434  1469 net.cpp:131] Top shape: 64 25 4 4 (25600)
I0428 20:20:02.676437  1469 net.cpp:139] Memory required for data: 9928960
I0428 20:20:02.676440  1469 layer_factory.hpp:77] Creating layer ip1
I0428 20:20:02.676447  1469 net.cpp:86] Creating Layer ip1
I0428 20:20:02.676450  1469 net.cpp:408] ip1 <- pool1
I0428 20:20:02.676455  1469 net.cpp:382] ip1 -> ip1
I0428 20:20:02.677562  1469 net.cpp:124] Setting up ip1
I0428 20:20:02.677590  1469 net.cpp:131] Top shape: 64 25 (1600)
I0428 20:20:02.677594  1469 net.cpp:139] Memory required for data: 9935360
I0428 20:20:02.677603  1469 layer_factory.hpp:77] Creating layer relu1
I0428 20:20:02.677610  1469 net.cpp:86] Creating Layer relu1
I0428 20:20:02.677613  1469 net.cpp:408] relu1 <- ip1
I0428 20:20:02.677618  1469 net.cpp:369] relu1 -> ip1 (in-place)
I0428 20:20:02.677805  1469 net.cpp:124] Setting up relu1
I0428 20:20:02.677814  1469 net.cpp:131] Top shape: 64 25 (1600)
I0428 20:20:02.677817  1469 net.cpp:139] Memory required for data: 9941760
I0428 20:20:02.677821  1469 layer_factory.hpp:77] Creating layer ip2
I0428 20:20:02.677827  1469 net.cpp:86] Creating Layer ip2
I0428 20:20:02.677831  1469 net.cpp:408] ip2 <- ip1
I0428 20:20:02.677836  1469 net.cpp:382] ip2 -> ip2
I0428 20:20:02.677959  1469 net.cpp:124] Setting up ip2
I0428 20:20:02.677983  1469 net.cpp:131] Top shape: 64 50 (3200)
I0428 20:20:02.677986  1469 net.cpp:139] Memory required for data: 9954560
I0428 20:20:02.677992  1469 layer_factory.hpp:77] Creating layer relu2
I0428 20:20:02.677999  1469 net.cpp:86] Creating Layer relu2
I0428 20:20:02.678001  1469 net.cpp:408] relu2 <- ip2
I0428 20:20:02.678005  1469 net.cpp:369] relu2 -> ip2 (in-place)
I0428 20:20:02.678732  1469 net.cpp:124] Setting up relu2
I0428 20:20:02.678743  1469 net.cpp:131] Top shape: 64 50 (3200)
I0428 20:20:02.678763  1469 net.cpp:139] Memory required for data: 9967360
I0428 20:20:02.678766  1469 layer_factory.hpp:77] Creating layer ip3
I0428 20:20:02.678773  1469 net.cpp:86] Creating Layer ip3
I0428 20:20:02.678776  1469 net.cpp:408] ip3 <- ip2
I0428 20:20:02.678782  1469 net.cpp:382] ip3 -> ip3
I0428 20:20:02.678915  1469 net.cpp:124] Setting up ip3
I0428 20:20:02.678925  1469 net.cpp:131] Top shape: 64 10 (640)
I0428 20:20:02.678927  1469 net.cpp:139] Memory required for data: 9969920
I0428 20:20:02.678936  1469 layer_factory.hpp:77] Creating layer relu3
I0428 20:20:02.678941  1469 net.cpp:86] Creating Layer relu3
I0428 20:20:02.678944  1469 net.cpp:408] relu3 <- ip3
I0428 20:20:02.678948  1469 net.cpp:369] relu3 -> ip3 (in-place)
I0428 20:20:02.679132  1469 net.cpp:124] Setting up relu3
I0428 20:20:02.679141  1469 net.cpp:131] Top shape: 64 10 (640)
I0428 20:20:02.679144  1469 net.cpp:139] Memory required for data: 9972480
I0428 20:20:02.679147  1469 layer_factory.hpp:77] Creating layer loss
I0428 20:20:02.679153  1469 net.cpp:86] Creating Layer loss
I0428 20:20:02.679157  1469 net.cpp:408] loss <- ip3
I0428 20:20:02.679160  1469 net.cpp:408] loss <- label
I0428 20:20:02.679167  1469 net.cpp:382] loss -> loss
I0428 20:20:02.679195  1469 layer_factory.hpp:77] Creating layer loss
…
I0428 20:20:02.679841  1469 solver.cpp:173] Creating test net (#0) specified by net file: ECE595/mnist/train_test/var_everything2/lenet_train_test1354.prototxt
I0428 20:20:02.679883  1469 net.cpp:296] The NetState phase (1) differed from the phase (0) specified by a rule in layer mnist
I0428 20:20:02.680019  1469 net.cpp:53] Initializing net from parameters: 
name: "LeNet"
state {
  phase: TEST
}
layer {
  name: "mnist"
  type: "Data"
  top: "data"
  top: "label"
  include {
    phase: TEST
  }
  transform_param {
    scale: 0.00390625
  }
  data_param {
    source: "examples/mnist/mnist_test_lmdb"
    batch_size: 100
    backend: LMDB
  }
}
layer {
  name: "conv0"
  type: "Convolution"
  bottom: "data"
  top: "conv0"
  param {
    lr_mult: 1
  }
  param {
    lr_mult: 2
  }
  convolution_param {
    num_output: 50
    kernel_size: 5
    stride: 1
    weight_filler {
      type: "xavier"
    }
    bias_filler {
      type: "constant"
    }
  }
}
layer {
  name: "pool0"
  type: "Pooling"
  bottom: "conv0"
  top: "pool0"
  pooling_param {
    pool: MAX
    kernel_size: 2
    stride: 2
  }
}
layer {
  name: "conv1"
  type: "Convolution"
  bottom: "pool0"
  top: "conv1"
  param {
    lr_mult: 1
  }
  param {
    lr_mult: 2
  }
  convolution_param {
    num_output: 25
    kernel_size: 5
    stride: 1
    weight_filler {
      type: "xavier"
    }
    bias_filler {
      type: "constant"
    }
  }
}
layer {
  name: "pool1"
  type: "Pooling"
  bottom: "conv1"
  top: "pool1"
  pooling_param {
    pool: MAX
    kernel_size: 2
    stride: 2
  }
}
layer {
  name: "ip1"
  type: "InnerProduct"
  bottom: "pool1"
  top: "ip1"
  param {
    lr_mult: 1
  }
  param {
    lr_mult: 2
  }
  inner_product_param {
    num_output: 25
    weight_filler {
      type: "xavier"
    }
    bias_filler {
      type: "constant"
    }
  }
}
layer {
  name: "relu1"
  type: "ReLU"
  bottom: "ip1"
  top: "ip1"
}
layer {
  name: "ip2"
  type: "InnerProduct"
  bottom: "ip1"
  top: "ip2"
  param {
    lr_mult: 1
  }
  param {
    lr_mult: 2
  }
  inner_product_param {
    num_output: 50
    weight_filler {
      type: "xavier"
    }
    bias_filler {
      type: "constant"
    }
  }
}
layer {
  name: "relu2"
  type: "ReLU"
  bottom: "ip2"
  top: "ip2"
}
layer {
  name: "ip3"
  type: "InnerProduct"
  bottom: "ip2"
  top: "ip3"
  param {
    lr_mult: 1
  }
  param {
    lr_mult: 2
  }
  inner_product_param {
    num_output: 10
    weight_filler {
      type: "xavier"
    }
    bias_filler {
      type: "constant"
    }
  }
}
layer {
  name: "relu3"
  type: "ReLU"
  bottom: "ip3"
  top: "ip3"
}
layer {
  name: "accuracy"
  type: "Accuracy"
  bottom: "ip3"
  bottom: "label"
  top: "accuracy"
  include {
    phase: TEST
  }
}
layer {
  name: "loss"
  type: "SoftmaxWithLoss"
  bottom: "ip3"
  bottom: "label"
  top: "loss"
}
I0428 20:20:02.680099  1469 layer_factory.hpp:77] Creating layer mnist
I0428 20:20:02.680146  1469 db_lmdb.cpp:35] Opened lmdb examples/mnist/mnist_test_lmdb
I0428 20:20:02.680160  1469 net.cpp:86] Creating Layer mnist
I0428 20:20:02.680164  1469 net.cpp:382] mnist -> data
I0428 20:20:02.680172  1469 net.cpp:382] mnist -> label
I0428 20:20:02.680290  1469 data_layer.cpp:45] output data size: 100,1,28,28
I0428 20:20:02.682514  1469 net.cpp:124] Setting up mnist
I0428 20:20:02.682559  1469 net.cpp:131] Top shape: 100 1 28 28 (78400)
I0428 20:20:02.682564  1469 net.cpp:131] Top shape: 100 (100)
I0428 20:20:02.682567  1469 net.cpp:139] Memory required for data: 314000
I0428 20:20:02.682571  1469 layer_factory.hpp:77] Creating layer label_mnist_1_split
I0428 20:20:02.682579  1469 net.cpp:86] Creating Layer label_mnist_1_split
I0428 20:20:02.682582  1469 net.cpp:408] label_mnist_1_split <- label
I0428 20:20:02.682587  1469 net.cpp:382] label_mnist_1_split -> label_mnist_1_split_0
I0428 20:20:02.682595  1469 net.cpp:382] label_mnist_1_split -> label_mnist_1_split_1
I0428 20:20:02.682644  1469 net.cpp:124] Setting up label_mnist_1_split
I0428 20:20:02.682651  1469 net.cpp:131] Top shape: 100 (100)
I0428 20:20:02.682654  1469 net.cpp:131] Top shape: 100 (100)
I0428 20:20:02.682657  1469 net.cpp:139] Memory required for data: 314800
I0428 20:20:02.682674  1469 layer_factory.hpp:77] Creating layer conv0
I0428 20:20:02.682682  1469 net.cpp:86] Creating Layer conv0
I0428 20:20:02.682685  1469 net.cpp:408] conv0 <- data
I0428 20:20:02.682690  1469 net.cpp:382] conv0 -> conv0
I0428 20:20:02.684190  1469 net.cpp:124] Setting up conv0
I0428 20:20:02.684203  1469 net.cpp:131] Top shape: 100 50 24 24 (2880000)
I0428 20:20:02.684207  1469 net.cpp:139] Memory required for data: 11834800
I0428 20:20:02.684216  1469 layer_factory.hpp:77] Creating layer pool0
I0428 20:20:02.684221  1469 net.cpp:86] Creating Layer pool0
I0428 20:20:02.684226  1469 net.cpp:408] pool0 <- conv0
I0428 20:20:02.684229  1469 net.cpp:382] pool0 -> pool0
I0428 20:20:02.684262  1469 net.cpp:124] Setting up pool0
I0428 20:20:02.684267  1469 net.cpp:131] Top shape: 100 50 12 12 (720000)
I0428 20:20:02.684270  1469 net.cpp:139] Memory required for data: 14714800
I0428 20:20:02.684273  1469 layer_factory.hpp:77] Creating layer conv1
I0428 20:20:02.684280  1469 net.cpp:86] Creating Layer conv1
I0428 20:20:02.684283  1469 net.cpp:408] conv1 <- pool0
I0428 20:20:02.684288  1469 net.cpp:382] conv1 -> conv1
I0428 20:20:02.685958  1469 net.cpp:124] Setting up conv1
I0428 20:20:02.685987  1469 net.cpp:131] Top shape: 100 25 8 8 (160000)
I0428 20:20:02.685992  1469 net.cpp:139] Memory required for data: 15354800
I0428 20:20:02.686000  1469 layer_factory.hpp:77] Creating layer pool1
I0428 20:20:02.686020  1469 net.cpp:86] Creating Layer pool1
I0428 20:20:02.686034  1469 net.cpp:408] pool1 <- conv1
I0428 20:20:02.686039  1469 net.cpp:382] pool1 -> pool1
I0428 20:20:02.686080  1469 net.cpp:124] Setting up pool1
I0428 20:20:02.686085  1469 net.cpp:131] Top shape: 100 25 4 4 (40000)
I0428 20:20:02.686089  1469 net.cpp:139] Memory required for data: 15514800
I0428 20:20:02.686092  1469 layer_factory.hpp:77] Creating layer ip1
I0428 20:20:02.686098  1469 net.cpp:86] Creating Layer ip1
I0428 20:20:02.686101  1469 net.cpp:408] ip1 <- pool1
I0428 20:20:02.686106  1469 net.cpp:382] ip1 -> ip1
I0428 20:20:02.686254  1469 net.cpp:124] Setting up ip1
I0428 20:20:02.686262  1469 net.cpp:131] Top shape: 100 25 (2500)
I0428 20:20:02.686275  1469 net.cpp:139] Memory required for data: 15524800
I0428 20:20:02.686283  1469 layer_factory.hpp:77] Creating layer relu1
I0428 20:20:02.686290  1469 net.cpp:86] Creating Layer relu1
I0428 20:20:02.686292  1469 net.cpp:408] relu1 <- ip1
I0428 20:20:02.686297  1469 net.cpp:369] relu1 -> ip1 (in-place)
I0428 20:20:02.686465  1469 net.cpp:124] Setting up relu1
I0428 20:20:02.686475  1469 net.cpp:131] Top shape: 100 25 (2500)
I0428 20:20:02.686478  1469 net.cpp:139] Memory required for data: 15534800
I0428 20:20:02.686481  1469 layer_factory.hpp:77] Creating layer ip2
I0428 20:20:02.686489  1469 net.cpp:86] Creating Layer ip2
I0428 20:20:02.686498  1469 net.cpp:408] ip2 <- ip1
I0428 20:20:02.686503  1469 net.cpp:382] ip2 -> ip2
I0428 20:20:02.686604  1469 net.cpp:124] Setting up ip2
I0428 20:20:02.686611  1469 net.cpp:131] Top shape: 100 50 (5000)
I0428 20:20:02.686615  1469 net.cpp:139] Memory required for data: 15554800
I0428 20:20:02.686620  1469 layer_factory.hpp:77] Creating layer relu2
I0428 20:20:02.686625  1469 net.cpp:86] Creating Layer relu2
I0428 20:20:02.686628  1469 net.cpp:408] relu2 <- ip2
I0428 20:20:02.686632  1469 net.cpp:369] relu2 -> ip2 (in-place)
I0428 20:20:02.686792  1469 net.cpp:124] Setting up relu2
I0428 20:20:02.686801  1469 net.cpp:131] Top shape: 100 50 (5000)
I0428 20:20:02.686805  1469 net.cpp:139] Memory required for data: 15574800
I0428 20:20:02.686807  1469 layer_factory.hpp:77] Creating layer ip3
I0428 20:20:02.686812  1469 net.cpp:86] Creating Layer ip3
I0428 20:20:02.686815  1469 net.cpp:408] ip3 <- ip2
I0428 20:20:02.686820  1469 net.cpp:382] ip3 -> ip3
I0428 20:20:02.686939  1469 net.cpp:124] Setting up ip3
I0428 20:20:02.686945  1469 net.cpp:131] Top shape: 100 10 (1000)
I0428 20:20:02.686949  1469 net.cpp:139] Memory required for data: 15578800
I0428 20:20:02.686956  1469 layer_factory.hpp:77] Creating layer relu3
I0428 20:20:02.686961  1469 net.cpp:86] Creating Layer relu3
I0428 20:20:02.686964  1469 net.cpp:408] relu3 <- ip3
I0428 20:20:02.686969  1469 net.cpp:369] relu3 -> ip3 (in-place)
I0428 20:20:02.687764  1469 net.cpp:124] Setting up relu3
I0428 20:20:02.687777  1469 net.cpp:131] Top shape: 100 10 (1000)
I0428 20:20:02.687798  1469 net.cpp:139] Memory required for data: 15582800
I0428 20:20:02.687800  1469 layer_factory.hpp:77] Creating layer ip3_relu3_0_split
I0428 20:20:02.687806  1469 net.cpp:86] Creating Layer ip3_relu3_0_split
I0428 20:20:02.687809  1469 net.cpp:408] ip3_relu3_0_split <- ip3
I0428 20:20:02.687815  1469 net.cpp:382] ip3_relu3_0_split -> ip3_relu3_0_split_0
I0428 20:20:02.687821  1469 net.cpp:382] ip3_relu3_0_split -> ip3_relu3_0_split_1
I0428 20:20:02.687868  1469 net.cpp:124] Setting up ip3_relu3_0_split
I0428 20:20:02.687875  1469 net.cpp:131] Top shape: 100 10 (1000)
I0428 20:20:02.687878  1469 net.cpp:131] Top shape: 100 10 (1000)
I0428 20:20:02.687881  1469 net.cpp:139] Memory required for data: 15590800
I0428 20:20:02.687885  1469 layer_factory.hpp:77] Creating layer accuracy
I0428 20:20:02.687889  1469 net.cpp:86] Creating Layer accuracy
I0428 20:20:02.687892  1469 net.cpp:408] accuracy <- ip3_relu3_0_split_0
I0428 20:20:02.687896  1469 net.cpp:408] accuracy <- label_mnist_1_split_0
I0428 20:20:02.687901  1469 net.cpp:382] accuracy -> accuracy
…
