…
I0428 20:16:37.942809   696 net.cpp:296] The NetState phase (0) differed from the phase (1) specified by a rule in layer mnist
I0428 20:16:37.942832   696 net.cpp:296] The NetState phase (0) differed from the phase (1) specified by a rule in layer accuracy
I0428 20:16:37.942937   696 net.cpp:53] Initializing net from parameters: 
name: "LeNet"
state {
  phase: TRAIN
  level: 0
  stage: ""
}
layer {
  name: "mnist"
  type: "Data"
  top: "data"
  top: "label"
  include {
    phase: TRAIN
  }
  transform_param {
    scale: 0.00390625
  }
  data_param {
    source: "examples/mnist/mnist_train_lmdb"
    batch_size: 64
    backend: LMDB
  }
}
layer {
  name: "conv0"
  type: "Convolution"
  bottom: "data"
  top: "conv0"
  param {
    lr_mult: 1
  }
  param {
    lr_mult: 2
  }
  convolution_param {
    num_output: 50
    kernel_size: 5
    stride: 1
    weight_filler {
      type: "xavier"
    }
    bias_filler {
      type: "constant"
    }
  }
}
layer {
  name: "pool0"
  type: "Pooling"
  bottom: "conv0"
  top: "pool0"
  pooling_param {
    pool: MAX
    kernel_size: 2
    stride: 2
  }
}
layer {
  name: "conv1"
  type: "Convolution"
  bottom: "pool0"
  top: "conv1"
  param {
    lr_mult: 1
  }
  param {
    lr_mult: 2
  }
  convolution_param {
    num_output: 5
    kernel_size: 5
    stride: 1
    weight_filler {
      type: "xavier"
    }
    bias_filler {
      type: "constant"
    }
  }
}
layer {
  name: "pool1"
  type: "Pooling"
  bottom: "conv1"
  top: "pool1"
  pooling_param {
    pool: MAX
    kernel_size: 2
    stride: 2
  }
}
layer {
  name: "ip1"
  type: "InnerProduct"
  bottom: "pool1"
  top: "ip1"
  param {
    lr_mult: 1
  }
  param {
    lr_mult: 2
  }
  inner_product_param {
    num_output: 25
    weight_filler {
      type: "xavier"
    }
    bias_filler {
      type: "constant"
    }
  }
}
layer {
  name: "relu1"
  type: "ReLU"
  bottom: "ip1"
  top: "ip1"
}
layer {
  name: "ip2"
  type: "InnerProduct"
  bottom: "ip1"
  top: "ip2"
  param {
    lr_mult: 1
  }
  param {
    lr_mult: 2
  }
  inner_product_param {
    num_output: 50
    weight_filler {
      type: "xavier"
    }
    bias_filler {
      type: "constant"
    }
  }
}
layer {
  name: "relu2"
  type: "ReLU"
  bottom: "ip2"
  top: "ip2"
}
layer {
  name: "ip3"
  type: "InnerProduct"
  bottom: "ip2"
  top: "ip3"
  param {
    lr_mult: 1
  }
  param {
    lr_mult: 2
  }
  inner_product_param {
    num_output: 10
    weight_filler {
      type: "xavier"
    }
    bias_filler {
      type: "constant"
    }
  }
}
layer {
  name: "relu3"
  type: "ReLU"
  bottom: "ip3"
  top: "ip3"
}
layer {
  name: "loss"
  type: "SoftmaxWithLoss"
  bottom: "ip3"
  bottom: "label"
  top: "loss"
}
I0428 20:16:37.943042   696 layer_factory.hpp:77] Creating layer mnist
I0428 20:16:37.943176   696 db_lmdb.cpp:35] Opened lmdb examples/mnist/mnist_train_lmdb
I0428 20:16:37.943210   696 net.cpp:86] Creating Layer mnist
I0428 20:16:37.943222   696 net.cpp:382] mnist -> data
I0428 20:16:37.943253   696 net.cpp:382] mnist -> label
I0428 20:16:37.944520   696 data_layer.cpp:45] output data size: 64,1,28,28
I0428 20:16:37.947011   696 net.cpp:124] Setting up mnist
I0428 20:16:37.947032   696 net.cpp:131] Top shape: 64 1 28 28 (50176)
I0428 20:16:37.947043   696 net.cpp:131] Top shape: 64 (64)
I0428 20:16:37.947049   696 net.cpp:139] Memory required for data: 200960
I0428 20:16:37.947060   696 layer_factory.hpp:77] Creating layer conv0
I0428 20:16:37.947084   696 net.cpp:86] Creating Layer conv0
I0428 20:16:37.947108   696 net.cpp:408] conv0 <- data
I0428 20:16:37.947126   696 net.cpp:382] conv0 -> conv0
I0428 20:16:38.215659   696 net.cpp:124] Setting up conv0
I0428 20:16:38.215687   696 net.cpp:131] Top shape: 64 50 24 24 (1843200)
I0428 20:16:38.215693   696 net.cpp:139] Memory required for data: 7573760
I0428 20:16:38.215713   696 layer_factory.hpp:77] Creating layer pool0
I0428 20:16:38.215729   696 net.cpp:86] Creating Layer pool0
I0428 20:16:38.215741   696 net.cpp:408] pool0 <- conv0
I0428 20:16:38.215750   696 net.cpp:382] pool0 -> pool0
I0428 20:16:38.215803   696 net.cpp:124] Setting up pool0
I0428 20:16:38.215811   696 net.cpp:131] Top shape: 64 50 12 12 (460800)
I0428 20:16:38.215816   696 net.cpp:139] Memory required for data: 9416960
I0428 20:16:38.215821   696 layer_factory.hpp:77] Creating layer conv1
I0428 20:16:38.215836   696 net.cpp:86] Creating Layer conv1
I0428 20:16:38.215842   696 net.cpp:408] conv1 <- pool0
I0428 20:16:38.215850   696 net.cpp:382] conv1 -> conv1
I0428 20:16:38.218644   696 net.cpp:124] Setting up conv1
I0428 20:16:38.218662   696 net.cpp:131] Top shape: 64 5 8 8 (20480)
I0428 20:16:38.218667   696 net.cpp:139] Memory required for data: 9498880
I0428 20:16:38.218680   696 layer_factory.hpp:77] Creating layer pool1
I0428 20:16:38.218691   696 net.cpp:86] Creating Layer pool1
I0428 20:16:38.218698   696 net.cpp:408] pool1 <- conv1
I0428 20:16:38.218706   696 net.cpp:382] pool1 -> pool1
I0428 20:16:38.218760   696 net.cpp:124] Setting up pool1
I0428 20:16:38.218770   696 net.cpp:131] Top shape: 64 5 4 4 (5120)
I0428 20:16:38.218775   696 net.cpp:139] Memory required for data: 9519360
I0428 20:16:38.218780   696 layer_factory.hpp:77] Creating layer ip1
I0428 20:16:38.218789   696 net.cpp:86] Creating Layer ip1
I0428 20:16:38.218794   696 net.cpp:408] ip1 <- pool1
I0428 20:16:38.218801   696 net.cpp:382] ip1 -> ip1
I0428 20:16:38.218914   696 net.cpp:124] Setting up ip1
I0428 20:16:38.218922   696 net.cpp:131] Top shape: 64 25 (1600)
I0428 20:16:38.218926   696 net.cpp:139] Memory required for data: 9525760
I0428 20:16:38.218938   696 layer_factory.hpp:77] Creating layer relu1
I0428 20:16:38.218950   696 net.cpp:86] Creating Layer relu1
I0428 20:16:38.218958   696 net.cpp:408] relu1 <- ip1
I0428 20:16:38.218966   696 net.cpp:369] relu1 -> ip1 (in-place)
I0428 20:16:38.219120   696 net.cpp:124] Setting up relu1
I0428 20:16:38.219130   696 net.cpp:131] Top shape: 64 25 (1600)
I0428 20:16:38.219135   696 net.cpp:139] Memory required for data: 9532160
I0428 20:16:38.219138   696 layer_factory.hpp:77] Creating layer ip2
I0428 20:16:38.219148   696 net.cpp:86] Creating Layer ip2
I0428 20:16:38.219153   696 net.cpp:408] ip2 <- ip1
I0428 20:16:38.219161   696 net.cpp:382] ip2 -> ip2
I0428 20:16:38.219269   696 net.cpp:124] Setting up ip2
I0428 20:16:38.219277   696 net.cpp:131] Top shape: 64 50 (3200)
I0428 20:16:38.219282   696 net.cpp:139] Memory required for data: 9544960
I0428 20:16:38.219291   696 layer_factory.hpp:77] Creating layer relu2
I0428 20:16:38.219300   696 net.cpp:86] Creating Layer relu2
I0428 20:16:38.219305   696 net.cpp:408] relu2 <- ip2
I0428 20:16:38.219312   696 net.cpp:369] relu2 -> ip2 (in-place)
I0428 20:16:38.220062   696 net.cpp:124] Setting up relu2
I0428 20:16:38.220077   696 net.cpp:131] Top shape: 64 50 (3200)
I0428 20:16:38.220082   696 net.cpp:139] Memory required for data: 9557760
I0428 20:16:38.220087   696 layer_factory.hpp:77] Creating layer ip3
I0428 20:16:38.220096   696 net.cpp:86] Creating Layer ip3
I0428 20:16:38.220103   696 net.cpp:408] ip3 <- ip2
I0428 20:16:38.220110   696 net.cpp:382] ip3 -> ip3
I0428 20:16:38.220211   696 net.cpp:124] Setting up ip3
I0428 20:16:38.220221   696 net.cpp:131] Top shape: 64 10 (640)
I0428 20:16:38.220224   696 net.cpp:139] Memory required for data: 9560320
I0428 20:16:38.220237   696 layer_factory.hpp:77] Creating layer relu3
I0428 20:16:38.220244   696 net.cpp:86] Creating Layer relu3
I0428 20:16:38.220250   696 net.cpp:408] relu3 <- ip3
I0428 20:16:38.220257   696 net.cpp:369] relu3 -> ip3 (in-place)
I0428 20:16:38.220414   696 net.cpp:124] Setting up relu3
I0428 20:16:38.220424   696 net.cpp:131] Top shape: 64 10 (640)
I0428 20:16:38.220429   696 net.cpp:139] Memory required for data: 9562880
I0428 20:16:38.220434   696 layer_factory.hpp:77] Creating layer loss
I0428 20:16:38.220443   696 net.cpp:86] Creating Layer loss
I0428 20:16:38.220448   696 net.cpp:408] loss <- ip3
I0428 20:16:38.220454   696 net.cpp:408] loss <- label
I0428 20:16:38.220463   696 net.cpp:382] loss -> loss
I0428 20:16:38.220484   696 layer_factory.hpp:77] Creating layer loss
…
I0428 20:16:38.221321   696 solver.cpp:173] Creating test net (#0) specified by net file: ECE595/mnist/train_test/var_everything2/lenet_train_test1275.prototxt
I0428 20:16:38.221356   696 net.cpp:296] The NetState phase (1) differed from the phase (0) specified by a rule in layer mnist
I0428 20:16:38.221463   696 net.cpp:53] Initializing net from parameters: 
name: "LeNet"
state {
  phase: TEST
}
layer {
  name: "mnist"
  type: "Data"
  top: "data"
  top: "label"
  include {
    phase: TEST
  }
  transform_param {
    scale: 0.00390625
  }
  data_param {
    source: "examples/mnist/mnist_test_lmdb"
    batch_size: 100
    backend: LMDB
  }
}
layer {
  name: "conv0"
  type: "Convolution"
  bottom: "data"
  top: "conv0"
  param {
    lr_mult: 1
  }
  param {
    lr_mult: 2
  }
  convolution_param {
    num_output: 50
    kernel_size: 5
    stride: 1
    weight_filler {
      type: "xavier"
    }
    bias_filler {
      type: "constant"
    }
  }
}
layer {
  name: "pool0"
  type: "Pooling"
  bottom: "conv0"
  top: "pool0"
  pooling_param {
    pool: MAX
    kernel_size: 2
    stride: 2
  }
}
layer {
  name: "conv1"
  type: "Convolution"
  bottom: "pool0"
  top: "conv1"
  param {
    lr_mult: 1
  }
  param {
    lr_mult: 2
  }
  convolution_param {
    num_output: 5
    kernel_size: 5
    stride: 1
    weight_filler {
      type: "xavier"
    }
    bias_filler {
      type: "constant"
    }
  }
}
layer {
  name: "pool1"
  type: "Pooling"
  bottom: "conv1"
  top: "pool1"
  pooling_param {
    pool: MAX
    kernel_size: 2
    stride: 2
  }
}
layer {
  name: "ip1"
  type: "InnerProduct"
  bottom: "pool1"
  top: "ip1"
  param {
    lr_mult: 1
  }
  param {
    lr_mult: 2
  }
  inner_product_param {
    num_output: 25
    weight_filler {
      type: "xavier"
    }
    bias_filler {
      type: "constant"
    }
  }
}
layer {
  name: "relu1"
  type: "ReLU"
  bottom: "ip1"
  top: "ip1"
}
layer {
  name: "ip2"
  type: "InnerProduct"
  bottom: "ip1"
  top: "ip2"
  param {
    lr_mult: 1
  }
  param {
    lr_mult: 2
  }
  inner_product_param {
    num_output: 50
    weight_filler {
      type: "xavier"
    }
    bias_filler {
      type: "constant"
    }
  }
}
layer {
  name: "relu2"
  type: "ReLU"
  bottom: "ip2"
  top: "ip2"
}
layer {
  name: "ip3"
  type: "InnerProduct"
  bottom: "ip2"
  top: "ip3"
  param {
    lr_mult: 1
  }
  param {
    lr_mult: 2
  }
  inner_product_param {
    num_output: 10
    weight_filler {
      type: "xavier"
    }
    bias_filler {
      type: "constant"
    }
  }
}
layer {
  name: "relu3"
  type: "ReLU"
  bottom: "ip3"
  top: "ip3"
}
layer {
  name: "accuracy"
  type: "Accuracy"
  bottom: "ip3"
  bottom: "label"
  top: "accuracy"
  include {
    phase: TEST
  }
}
layer {
  name: "loss"
  type: "SoftmaxWithLoss"
  bottom: "ip3"
  bottom: "label"
  top: "loss"
}
I0428 20:16:38.221583   696 layer_factory.hpp:77] Creating layer mnist
I0428 20:16:38.221637   696 db_lmdb.cpp:35] Opened lmdb examples/mnist/mnist_test_lmdb
I0428 20:16:38.221655   696 net.cpp:86] Creating Layer mnist
I0428 20:16:38.221662   696 net.cpp:382] mnist -> data
I0428 20:16:38.221673   696 net.cpp:382] mnist -> label
I0428 20:16:38.221797   696 data_layer.cpp:45] output data size: 100,1,28,28
I0428 20:16:38.223857   696 net.cpp:124] Setting up mnist
I0428 20:16:38.223902   696 net.cpp:131] Top shape: 100 1 28 28 (78400)
I0428 20:16:38.223911   696 net.cpp:131] Top shape: 100 (100)
I0428 20:16:38.223915   696 net.cpp:139] Memory required for data: 314000
I0428 20:16:38.223920   696 layer_factory.hpp:77] Creating layer label_mnist_1_split
I0428 20:16:38.223930   696 net.cpp:86] Creating Layer label_mnist_1_split
I0428 20:16:38.223937   696 net.cpp:408] label_mnist_1_split <- label
I0428 20:16:38.223943   696 net.cpp:382] label_mnist_1_split -> label_mnist_1_split_0
I0428 20:16:38.223953   696 net.cpp:382] label_mnist_1_split -> label_mnist_1_split_1
I0428 20:16:38.224033   696 net.cpp:124] Setting up label_mnist_1_split
I0428 20:16:38.224042   696 net.cpp:131] Top shape: 100 (100)
I0428 20:16:38.224048   696 net.cpp:131] Top shape: 100 (100)
I0428 20:16:38.224053   696 net.cpp:139] Memory required for data: 314800
I0428 20:16:38.224058   696 layer_factory.hpp:77] Creating layer conv0
I0428 20:16:38.224071   696 net.cpp:86] Creating Layer conv0
I0428 20:16:38.224077   696 net.cpp:408] conv0 <- data
I0428 20:16:38.224086   696 net.cpp:382] conv0 -> conv0
I0428 20:16:38.225738   696 net.cpp:124] Setting up conv0
I0428 20:16:38.225754   696 net.cpp:131] Top shape: 100 50 24 24 (2880000)
I0428 20:16:38.225759   696 net.cpp:139] Memory required for data: 11834800
I0428 20:16:38.225771   696 layer_factory.hpp:77] Creating layer pool0
I0428 20:16:38.225781   696 net.cpp:86] Creating Layer pool0
I0428 20:16:38.225788   696 net.cpp:408] pool0 <- conv0
I0428 20:16:38.225796   696 net.cpp:382] pool0 -> pool0
I0428 20:16:38.225836   696 net.cpp:124] Setting up pool0
I0428 20:16:38.225844   696 net.cpp:131] Top shape: 100 50 12 12 (720000)
I0428 20:16:38.225849   696 net.cpp:139] Memory required for data: 14714800
I0428 20:16:38.225854   696 layer_factory.hpp:77] Creating layer conv1
I0428 20:16:38.225867   696 net.cpp:86] Creating Layer conv1
I0428 20:16:38.225872   696 net.cpp:408] conv1 <- pool0
I0428 20:16:38.225880   696 net.cpp:382] conv1 -> conv1
I0428 20:16:38.227581   696 net.cpp:124] Setting up conv1
I0428 20:16:38.227609   696 net.cpp:131] Top shape: 100 5 8 8 (32000)
I0428 20:16:38.227632   696 net.cpp:139] Memory required for data: 14842800
I0428 20:16:38.227645   696 layer_factory.hpp:77] Creating layer pool1
I0428 20:16:38.227660   696 net.cpp:86] Creating Layer pool1
I0428 20:16:38.227668   696 net.cpp:408] pool1 <- conv1
I0428 20:16:38.227680   696 net.cpp:382] pool1 -> pool1
I0428 20:16:38.227721   696 net.cpp:124] Setting up pool1
I0428 20:16:38.227730   696 net.cpp:131] Top shape: 100 5 4 4 (8000)
I0428 20:16:38.227735   696 net.cpp:139] Memory required for data: 14874800
I0428 20:16:38.227741   696 layer_factory.hpp:77] Creating layer ip1
I0428 20:16:38.227751   696 net.cpp:86] Creating Layer ip1
I0428 20:16:38.227757   696 net.cpp:408] ip1 <- pool1
I0428 20:16:38.227768   696 net.cpp:382] ip1 -> ip1
I0428 20:16:38.227883   696 net.cpp:124] Setting up ip1
I0428 20:16:38.227892   696 net.cpp:131] Top shape: 100 25 (2500)
I0428 20:16:38.227910   696 net.cpp:139] Memory required for data: 14884800
I0428 20:16:38.227923   696 layer_factory.hpp:77] Creating layer relu1
I0428 20:16:38.227932   696 net.cpp:86] Creating Layer relu1
I0428 20:16:38.227939   696 net.cpp:408] relu1 <- ip1
I0428 20:16:38.227946   696 net.cpp:369] relu1 -> ip1 (in-place)
I0428 20:16:38.228145   696 net.cpp:124] Setting up relu1
I0428 20:16:38.228154   696 net.cpp:131] Top shape: 100 25 (2500)
I0428 20:16:38.228159   696 net.cpp:139] Memory required for data: 14894800
I0428 20:16:38.228164   696 layer_factory.hpp:77] Creating layer ip2
I0428 20:16:38.228175   696 net.cpp:86] Creating Layer ip2
I0428 20:16:38.228180   696 net.cpp:408] ip2 <- ip1
I0428 20:16:38.228189   696 net.cpp:382] ip2 -> ip2
I0428 20:16:38.228338   696 net.cpp:124] Setting up ip2
I0428 20:16:38.228348   696 net.cpp:131] Top shape: 100 50 (5000)
I0428 20:16:38.228353   696 net.cpp:139] Memory required for data: 14914800
I0428 20:16:38.228363   696 layer_factory.hpp:77] Creating layer relu2
I0428 20:16:38.228370   696 net.cpp:86] Creating Layer relu2
I0428 20:16:38.228376   696 net.cpp:408] relu2 <- ip2
I0428 20:16:38.228384   696 net.cpp:369] relu2 -> ip2 (in-place)
I0428 20:16:38.228554   696 net.cpp:124] Setting up relu2
I0428 20:16:38.228564   696 net.cpp:131] Top shape: 100 50 (5000)
I0428 20:16:38.228570   696 net.cpp:139] Memory required for data: 14934800
I0428 20:16:38.228575   696 layer_factory.hpp:77] Creating layer ip3
I0428 20:16:38.228586   696 net.cpp:86] Creating Layer ip3
I0428 20:16:38.228592   696 net.cpp:408] ip3 <- ip2
I0428 20:16:38.228601   696 net.cpp:382] ip3 -> ip3
I0428 20:16:38.228721   696 net.cpp:124] Setting up ip3
I0428 20:16:38.228730   696 net.cpp:131] Top shape: 100 10 (1000)
I0428 20:16:38.228744   696 net.cpp:139] Memory required for data: 14938800
I0428 20:16:38.228757   696 layer_factory.hpp:77] Creating layer relu3
I0428 20:16:38.228767   696 net.cpp:86] Creating Layer relu3
I0428 20:16:38.228773   696 net.cpp:408] relu3 <- ip3
I0428 20:16:38.228781   696 net.cpp:369] relu3 -> ip3 (in-place)
I0428 20:16:38.229624   696 net.cpp:124] Setting up relu3
I0428 20:16:38.229637   696 net.cpp:131] Top shape: 100 10 (1000)
I0428 20:16:38.229643   696 net.cpp:139] Memory required for data: 14942800
I0428 20:16:38.229650   696 layer_factory.hpp:77] Creating layer ip3_relu3_0_split
I0428 20:16:38.229657   696 net.cpp:86] Creating Layer ip3_relu3_0_split
I0428 20:16:38.229662   696 net.cpp:408] ip3_relu3_0_split <- ip3
I0428 20:16:38.229684   696 net.cpp:382] ip3_relu3_0_split -> ip3_relu3_0_split_0
I0428 20:16:38.229694   696 net.cpp:382] ip3_relu3_0_split -> ip3_relu3_0_split_1
I0428 20:16:38.229750   696 net.cpp:124] Setting up ip3_relu3_0_split
I0428 20:16:38.229758   696 net.cpp:131] Top shape: 100 10 (1000)
I0428 20:16:38.229764   696 net.cpp:131] Top shape: 100 10 (1000)
I0428 20:16:38.229769   696 net.cpp:139] Memory required for data: 14950800
I0428 20:16:38.229774   696 layer_factory.hpp:77] Creating layer accuracy
I0428 20:16:38.229786   696 net.cpp:86] Creating Layer accuracy
I0428 20:16:38.229792   696 net.cpp:408] accuracy <- ip3_relu3_0_split_0
I0428 20:16:38.229802   696 net.cpp:408] accuracy <- label_mnist_1_split_0
I0428 20:16:38.229810   696 net.cpp:382] accuracy -> accuracy
…
