…
I0428 19:30:14.343816 22233 net.cpp:296] The NetState phase (0) differed from the phase (1) specified by a rule in layer mnist
I0428 19:30:14.343834 22233 net.cpp:296] The NetState phase (0) differed from the phase (1) specified by a rule in layer accuracy
I0428 19:30:14.343920 22233 net.cpp:53] Initializing net from parameters: 
name: "LeNet"
state {
  phase: TRAIN
  level: 0
  stage: ""
}
layer {
  name: "mnist"
  type: "Data"
  top: "data"
  top: "label"
  include {
    phase: TRAIN
  }
  transform_param {
    scale: 0.00390625
  }
  data_param {
    source: "examples/mnist/mnist_train_lmdb"
    batch_size: 64
    backend: LMDB
  }
}
layer {
  name: "conv0"
  type: "Convolution"
  bottom: "data"
  top: "conv0"
  param {
    lr_mult: 1
  }
  param {
    lr_mult: 2
  }
  convolution_param {
    num_output: 5
    kernel_size: 5
    stride: 1
    weight_filler {
      type: "xavier"
    }
    bias_filler {
      type: "constant"
    }
  }
}
layer {
  name: "pool0"
  type: "Pooling"
  bottom: "conv0"
  top: "pool0"
  pooling_param {
    pool: MAX
    kernel_size: 2
    stride: 2
  }
}
layer {
  name: "ip1"
  type: "InnerProduct"
  bottom: "pool0"
  top: "ip1"
  param {
    lr_mult: 1
  }
  param {
    lr_mult: 2
  }
  inner_product_param {
    num_output: 25
    weight_filler {
      type: "xavier"
    }
    bias_filler {
      type: "constant"
    }
  }
}
layer {
  name: "relu1"
  type: "ReLU"
  bottom: "ip1"
  top: "ip1"
}
layer {
  name: "ip2"
  type: "InnerProduct"
  bottom: "ip1"
  top: "ip2"
  param {
    lr_mult: 1
  }
  param {
    lr_mult: 2
  }
  inner_product_param {
    num_output: 10
    weight_filler {
      type: "xavier"
    }
    bias_filler {
      type: "constant"
    }
  }
}
layer {
  name: "relu2"
  type: "ReLU"
  bottom: "ip2"
  top: "ip2"
}
layer {
  name: "loss"
  type: "SoftmaxWithLoss"
  bottom: "ip2"
  bottom: "label"
  top: "loss"
}
I0428 19:30:14.344019 22233 layer_factory.hpp:77] Creating layer mnist
I0428 19:30:14.344144 22233 db_lmdb.cpp:35] Opened lmdb examples/mnist/mnist_train_lmdb
I0428 19:30:14.344178 22233 net.cpp:86] Creating Layer mnist
I0428 19:30:14.344190 22233 net.cpp:382] mnist -> data
I0428 19:30:14.344221 22233 net.cpp:382] mnist -> label
I0428 19:30:14.345419 22233 data_layer.cpp:45] output data size: 64,1,28,28
I0428 19:30:14.347882 22233 net.cpp:124] Setting up mnist
I0428 19:30:14.347903 22233 net.cpp:131] Top shape: 64 1 28 28 (50176)
I0428 19:30:14.347913 22233 net.cpp:131] Top shape: 64 (64)
I0428 19:30:14.347919 22233 net.cpp:139] Memory required for data: 200960
I0428 19:30:14.347930 22233 layer_factory.hpp:77] Creating layer conv0
I0428 19:30:14.347954 22233 net.cpp:86] Creating Layer conv0
I0428 19:30:14.347966 22233 net.cpp:408] conv0 <- data
I0428 19:30:14.347983 22233 net.cpp:382] conv0 -> conv0
I0428 19:30:14.640051 22233 net.cpp:124] Setting up conv0
I0428 19:30:14.640085 22233 net.cpp:131] Top shape: 64 5 24 24 (184320)
I0428 19:30:14.640091 22233 net.cpp:139] Memory required for data: 938240
I0428 19:30:14.640115 22233 layer_factory.hpp:77] Creating layer pool0
I0428 19:30:14.640136 22233 net.cpp:86] Creating Layer pool0
I0428 19:30:14.640153 22233 net.cpp:408] pool0 <- conv0
I0428 19:30:14.640164 22233 net.cpp:382] pool0 -> pool0
I0428 19:30:14.640233 22233 net.cpp:124] Setting up pool0
I0428 19:30:14.640244 22233 net.cpp:131] Top shape: 64 5 12 12 (46080)
I0428 19:30:14.640249 22233 net.cpp:139] Memory required for data: 1122560
I0428 19:30:14.640681 22233 layer_factory.hpp:77] Creating layer ip1
I0428 19:30:14.640714 22233 net.cpp:86] Creating Layer ip1
I0428 19:30:14.640724 22233 net.cpp:408] ip1 <- pool0
I0428 19:30:14.640736 22233 net.cpp:382] ip1 -> ip1
I0428 19:30:14.641278 22233 net.cpp:124] Setting up ip1
I0428 19:30:14.641300 22233 net.cpp:131] Top shape: 64 25 (1600)
I0428 19:30:14.641309 22233 net.cpp:139] Memory required for data: 1128960
I0428 19:30:14.641326 22233 layer_factory.hpp:77] Creating layer relu1
I0428 19:30:14.641341 22233 net.cpp:86] Creating Layer relu1
I0428 19:30:14.641350 22233 net.cpp:408] relu1 <- ip1
I0428 19:30:14.641360 22233 net.cpp:369] relu1 -> ip1 (in-place)
I0428 19:30:14.641731 22233 net.cpp:124] Setting up relu1
I0428 19:30:14.641748 22233 net.cpp:131] Top shape: 64 25 (1600)
I0428 19:30:14.641757 22233 net.cpp:139] Memory required for data: 1135360
I0428 19:30:14.641763 22233 layer_factory.hpp:77] Creating layer ip2
I0428 19:30:14.641779 22233 net.cpp:86] Creating Layer ip2
I0428 19:30:14.641788 22233 net.cpp:408] ip2 <- ip1
I0428 19:30:14.641798 22233 net.cpp:382] ip2 -> ip2
I0428 19:30:14.642007 22233 net.cpp:124] Setting up ip2
I0428 19:30:14.642020 22233 net.cpp:131] Top shape: 64 10 (640)
I0428 19:30:14.642029 22233 net.cpp:139] Memory required for data: 1137920
I0428 19:30:14.642043 22233 layer_factory.hpp:77] Creating layer relu2
I0428 19:30:14.642057 22233 net.cpp:86] Creating Layer relu2
I0428 19:30:14.642066 22233 net.cpp:408] relu2 <- ip2
I0428 19:30:14.642076 22233 net.cpp:369] relu2 -> ip2 (in-place)
I0428 19:30:14.643591 22233 net.cpp:124] Setting up relu2
I0428 19:30:14.643617 22233 net.cpp:131] Top shape: 64 10 (640)
I0428 19:30:14.643626 22233 net.cpp:139] Memory required for data: 1140480
I0428 19:30:14.643635 22233 layer_factory.hpp:77] Creating layer loss
I0428 19:30:14.643651 22233 net.cpp:86] Creating Layer loss
I0428 19:30:14.643661 22233 net.cpp:408] loss <- ip2
I0428 19:30:14.643671 22233 net.cpp:408] loss <- label
I0428 19:30:14.643683 22233 net.cpp:382] loss -> loss
I0428 19:30:14.643718 22233 layer_factory.hpp:77] Creating layer loss
…
I0428 19:30:14.644886 22233 solver.cpp:173] Creating test net (#0) specified by net file: ECE595/mnist/train_test/var_everything2/lenet_train_test84.prototxt
I0428 19:30:14.644934 22233 net.cpp:296] The NetState phase (1) differed from the phase (0) specified by a rule in layer mnist
I0428 19:30:14.645079 22233 net.cpp:53] Initializing net from parameters: 
name: "LeNet"
state {
  phase: TEST
}
layer {
  name: "mnist"
  type: "Data"
  top: "data"
  top: "label"
  include {
    phase: TEST
  }
  transform_param {
    scale: 0.00390625
  }
  data_param {
    source: "examples/mnist/mnist_test_lmdb"
    batch_size: 100
    backend: LMDB
  }
}
layer {
  name: "conv0"
  type: "Convolution"
  bottom: "data"
  top: "conv0"
  param {
    lr_mult: 1
  }
  param {
    lr_mult: 2
  }
  convolution_param {
    num_output: 5
    kernel_size: 5
    stride: 1
    weight_filler {
      type: "xavier"
    }
    bias_filler {
      type: "constant"
    }
  }
}
layer {
  name: "pool0"
  type: "Pooling"
  bottom: "conv0"
  top: "pool0"
  pooling_param {
    pool: MAX
    kernel_size: 2
    stride: 2
  }
}
layer {
  name: "ip1"
  type: "InnerProduct"
  bottom: "pool0"
  top: "ip1"
  param {
    lr_mult: 1
  }
  param {
    lr_mult: 2
  }
  inner_product_param {
    num_output: 25
    weight_filler {
      type: "xavier"
    }
    bias_filler {
      type: "constant"
    }
  }
}
layer {
  name: "relu1"
  type: "ReLU"
  bottom: "ip1"
  top: "ip1"
}
layer {
  name: "ip2"
  type: "InnerProduct"
  bottom: "ip1"
  top: "ip2"
  param {
    lr_mult: 1
  }
  param {
    lr_mult: 2
  }
  inner_product_param {
    num_output: 10
    weight_filler {
      type: "xavier"
    }
    bias_filler {
      type: "constant"
    }
  }
}
layer {
  name: "relu2"
  type: "ReLU"
  bottom: "ip2"
  top: "ip2"
}
layer {
  name: "accuracy"
  type: "Accuracy"
  bottom: "ip2"
  bottom: "label"
  top: "accuracy"
  include {
    phase: TEST
  }
}
layer {
  name: "loss"
  type: "SoftmaxWithLoss"
  bottom: "ip2"
  bottom: "label"
  top: "loss"
}
I0428 19:30:14.645223 22233 layer_factory.hpp:77] Creating layer mnist
I0428 19:30:14.645308 22233 db_lmdb.cpp:35] Opened lmdb examples/mnist/mnist_test_lmdb
I0428 19:30:14.645332 22233 net.cpp:86] Creating Layer mnist
I0428 19:30:14.645345 22233 net.cpp:382] mnist -> data
I0428 19:30:14.645361 22233 net.cpp:382] mnist -> label
I0428 19:30:14.645541 22233 data_layer.cpp:45] output data size: 100,1,28,28
I0428 19:30:14.649052 22233 net.cpp:124] Setting up mnist
I0428 19:30:14.649078 22233 net.cpp:131] Top shape: 100 1 28 28 (78400)
I0428 19:30:14.649089 22233 net.cpp:131] Top shape: 100 (100)
I0428 19:30:14.649096 22233 net.cpp:139] Memory required for data: 314000
I0428 19:30:14.649103 22233 layer_factory.hpp:77] Creating layer label_mnist_1_split
I0428 19:30:14.649124 22233 net.cpp:86] Creating Layer label_mnist_1_split
I0428 19:30:14.649133 22233 net.cpp:408] label_mnist_1_split <- label
I0428 19:30:14.649145 22233 net.cpp:382] label_mnist_1_split -> label_mnist_1_split_0
I0428 19:30:14.649159 22233 net.cpp:382] label_mnist_1_split -> label_mnist_1_split_1
I0428 19:30:14.649323 22233 net.cpp:124] Setting up label_mnist_1_split
I0428 19:30:14.649339 22233 net.cpp:131] Top shape: 100 (100)
I0428 19:30:14.649348 22233 net.cpp:131] Top shape: 100 (100)
I0428 19:30:14.649356 22233 net.cpp:139] Memory required for data: 314800
I0428 19:30:14.649363 22233 layer_factory.hpp:77] Creating layer conv0
I0428 19:30:14.649384 22233 net.cpp:86] Creating Layer conv0
I0428 19:30:14.649391 22233 net.cpp:408] conv0 <- data
I0428 19:30:14.649404 22233 net.cpp:382] conv0 -> conv0
I0428 19:30:14.652112 22233 net.cpp:124] Setting up conv0
I0428 19:30:14.652142 22233 net.cpp:131] Top shape: 100 5 24 24 (288000)
I0428 19:30:14.652150 22233 net.cpp:139] Memory required for data: 1466800
I0428 19:30:14.652168 22233 layer_factory.hpp:77] Creating layer pool0
I0428 19:30:14.652186 22233 net.cpp:86] Creating Layer pool0
I0428 19:30:14.652194 22233 net.cpp:408] pool0 <- conv0
I0428 19:30:14.652207 22233 net.cpp:382] pool0 -> pool0
I0428 19:30:14.652281 22233 net.cpp:124] Setting up pool0
I0428 19:30:14.652297 22233 net.cpp:131] Top shape: 100 5 12 12 (72000)
I0428 19:30:14.652304 22233 net.cpp:139] Memory required for data: 1754800
I0428 19:30:14.652310 22233 layer_factory.hpp:77] Creating layer ip1
I0428 19:30:14.652325 22233 net.cpp:86] Creating Layer ip1
I0428 19:30:14.652333 22233 net.cpp:408] ip1 <- pool0
I0428 19:30:14.652343 22233 net.cpp:382] ip1 -> ip1
I0428 19:30:14.652747 22233 net.cpp:124] Setting up ip1
I0428 19:30:14.652760 22233 net.cpp:131] Top shape: 100 25 (2500)
I0428 19:30:14.652768 22233 net.cpp:139] Memory required for data: 1764800
I0428 19:30:14.652782 22233 layer_factory.hpp:77] Creating layer relu1
I0428 19:30:14.652792 22233 net.cpp:86] Creating Layer relu1
I0428 19:30:14.652801 22233 net.cpp:408] relu1 <- ip1
I0428 19:30:14.652822 22233 net.cpp:369] relu1 -> ip1 (in-place)
I0428 19:30:14.653240 22233 net.cpp:124] Setting up relu1
I0428 19:30:14.653259 22233 net.cpp:131] Top shape: 100 25 (2500)
I0428 19:30:14.653286 22233 net.cpp:139] Memory required for data: 1774800
I0428 19:30:14.653293 22233 layer_factory.hpp:77] Creating layer ip2
I0428 19:30:14.653307 22233 net.cpp:86] Creating Layer ip2
I0428 19:30:14.653316 22233 net.cpp:408] ip2 <- ip1
I0428 19:30:14.653327 22233 net.cpp:382] ip2 -> ip2
I0428 19:30:14.653523 22233 net.cpp:124] Setting up ip2
I0428 19:30:14.653537 22233 net.cpp:131] Top shape: 100 10 (1000)
I0428 19:30:14.653545 22233 net.cpp:139] Memory required for data: 1778800
I0428 19:30:14.653560 22233 layer_factory.hpp:77] Creating layer relu2
I0428 19:30:14.653570 22233 net.cpp:86] Creating Layer relu2
I0428 19:30:14.653580 22233 net.cpp:408] relu2 <- ip2
I0428 19:30:14.653589 22233 net.cpp:369] relu2 -> ip2 (in-place)
I0428 19:30:14.653900 22233 net.cpp:124] Setting up relu2
I0428 19:30:14.653921 22233 net.cpp:131] Top shape: 100 10 (1000)
I0428 19:30:14.653929 22233 net.cpp:139] Memory required for data: 1782800
I0428 19:30:14.653934 22233 layer_factory.hpp:77] Creating layer ip2_relu2_0_split
I0428 19:30:14.653946 22233 net.cpp:86] Creating Layer ip2_relu2_0_split
I0428 19:30:14.653954 22233 net.cpp:408] ip2_relu2_0_split <- ip2
I0428 19:30:14.653962 22233 net.cpp:382] ip2_relu2_0_split -> ip2_relu2_0_split_0
I0428 19:30:14.653980 22233 net.cpp:382] ip2_relu2_0_split -> ip2_relu2_0_split_1
I0428 19:30:14.654127 22233 net.cpp:124] Setting up ip2_relu2_0_split
I0428 19:30:14.654141 22233 net.cpp:131] Top shape: 100 10 (1000)
I0428 19:30:14.654150 22233 net.cpp:131] Top shape: 100 10 (1000)
I0428 19:30:14.654155 22233 net.cpp:139] Memory required for data: 1790800
I0428 19:30:14.654163 22233 layer_factory.hpp:77] Creating layer accuracy
I0428 19:30:14.654180 22233 net.cpp:86] Creating Layer accuracy
I0428 19:30:14.654188 22233 net.cpp:408] accuracy <- ip2_relu2_0_split_0
I0428 19:30:14.654197 22233 net.cpp:408] accuracy <- label_mnist_1_split_0
I0428 19:30:14.654209 22233 net.cpp:382] accuracy -> accuracy
…
