…
I0428 20:19:04.017902  1289 net.cpp:296] The NetState phase (0) differed from the phase (1) specified by a rule in layer mnist
I0428 20:19:04.017918  1289 net.cpp:296] The NetState phase (0) differed from the phase (1) specified by a rule in layer accuracy
I0428 20:19:04.018009  1289 net.cpp:53] Initializing net from parameters: 
name: "LeNet"
state {
  phase: TRAIN
  level: 0
  stage: ""
}
layer {
  name: "mnist"
  type: "Data"
  top: "data"
  top: "label"
  include {
    phase: TRAIN
  }
  transform_param {
    scale: 0.00390625
  }
  data_param {
    source: "examples/mnist/mnist_train_lmdb"
    batch_size: 64
    backend: LMDB
  }
}
layer {
  name: "conv0"
  type: "Convolution"
  bottom: "data"
  top: "conv0"
  param {
    lr_mult: 1
  }
  param {
    lr_mult: 2
  }
  convolution_param {
    num_output: 50
    kernel_size: 5
    stride: 1
    weight_filler {
      type: "xavier"
    }
    bias_filler {
      type: "constant"
    }
  }
}
layer {
  name: "pool0"
  type: "Pooling"
  bottom: "conv0"
  top: "pool0"
  pooling_param {
    pool: MAX
    kernel_size: 2
    stride: 2
  }
}
layer {
  name: "conv1"
  type: "Convolution"
  bottom: "pool0"
  top: "conv1"
  param {
    lr_mult: 1
  }
  param {
    lr_mult: 2
  }
  convolution_param {
    num_output: 25
    kernel_size: 5
    stride: 1
    weight_filler {
      type: "xavier"
    }
    bias_filler {
      type: "constant"
    }
  }
}
layer {
  name: "pool1"
  type: "Pooling"
  bottom: "conv1"
  top: "pool1"
  pooling_param {
    pool: MAX
    kernel_size: 2
    stride: 2
  }
}
layer {
  name: "ip1"
  type: "InnerProduct"
  bottom: "pool1"
  top: "ip1"
  param {
    lr_mult: 1
  }
  param {
    lr_mult: 2
  }
  inner_product_param {
    num_output: 25
    weight_filler {
      type: "xavier"
    }
    bias_filler {
      type: "constant"
    }
  }
}
layer {
  name: "relu1"
  type: "ReLU"
  bottom: "ip1"
  top: "ip1"
}
layer {
  name: "ip2"
  type: "InnerProduct"
  bottom: "ip1"
  top: "ip2"
  param {
    lr_mult: 1
  }
  param {
    lr_mult: 2
  }
  inner_product_param {
    num_output: 10
    weight_filler {
      type: "xavier"
    }
    bias_filler {
      type: "constant"
    }
  }
}
layer {
  name: "relu2"
  type: "ReLU"
  bottom: "ip2"
  top: "ip2"
}
layer {
  name: "loss"
  type: "SoftmaxWithLoss"
  bottom: "ip2"
  bottom: "label"
  top: "loss"
}
I0428 20:19:04.018085  1289 layer_factory.hpp:77] Creating layer mnist
I0428 20:19:04.018184  1289 db_lmdb.cpp:35] Opened lmdb examples/mnist/mnist_train_lmdb
I0428 20:19:04.018206  1289 net.cpp:86] Creating Layer mnist
I0428 20:19:04.018215  1289 net.cpp:382] mnist -> data
I0428 20:19:04.018237  1289 net.cpp:382] mnist -> label
I0428 20:19:04.019328  1289 data_layer.cpp:45] output data size: 64,1,28,28
I0428 20:19:04.021773  1289 net.cpp:124] Setting up mnist
I0428 20:19:04.021791  1289 net.cpp:131] Top shape: 64 1 28 28 (50176)
I0428 20:19:04.021797  1289 net.cpp:131] Top shape: 64 (64)
I0428 20:19:04.021801  1289 net.cpp:139] Memory required for data: 200960
I0428 20:19:04.021808  1289 layer_factory.hpp:77] Creating layer conv0
I0428 20:19:04.021826  1289 net.cpp:86] Creating Layer conv0
I0428 20:19:04.021831  1289 net.cpp:408] conv0 <- data
I0428 20:19:04.021843  1289 net.cpp:382] conv0 -> conv0
I0428 20:19:04.267484  1289 net.cpp:124] Setting up conv0
I0428 20:19:04.267527  1289 net.cpp:131] Top shape: 64 50 24 24 (1843200)
I0428 20:19:04.267532  1289 net.cpp:139] Memory required for data: 7573760
I0428 20:19:04.267582  1289 layer_factory.hpp:77] Creating layer pool0
I0428 20:19:04.267596  1289 net.cpp:86] Creating Layer pool0
I0428 20:19:04.267601  1289 net.cpp:408] pool0 <- conv0
I0428 20:19:04.267607  1289 net.cpp:382] pool0 -> pool0
I0428 20:19:04.267655  1289 net.cpp:124] Setting up pool0
I0428 20:19:04.267663  1289 net.cpp:131] Top shape: 64 50 12 12 (460800)
I0428 20:19:04.267666  1289 net.cpp:139] Memory required for data: 9416960
I0428 20:19:04.267669  1289 layer_factory.hpp:77] Creating layer conv1
I0428 20:19:04.267680  1289 net.cpp:86] Creating Layer conv1
I0428 20:19:04.267684  1289 net.cpp:408] conv1 <- pool0
I0428 20:19:04.267690  1289 net.cpp:382] conv1 -> conv1
I0428 20:19:04.269881  1289 net.cpp:124] Setting up conv1
I0428 20:19:04.269913  1289 net.cpp:131] Top shape: 64 25 8 8 (102400)
I0428 20:19:04.269917  1289 net.cpp:139] Memory required for data: 9826560
I0428 20:19:04.269927  1289 layer_factory.hpp:77] Creating layer pool1
I0428 20:19:04.269934  1289 net.cpp:86] Creating Layer pool1
I0428 20:19:04.269954  1289 net.cpp:408] pool1 <- conv1
I0428 20:19:04.269960  1289 net.cpp:382] pool1 -> pool1
I0428 20:19:04.269999  1289 net.cpp:124] Setting up pool1
I0428 20:19:04.270009  1289 net.cpp:131] Top shape: 64 25 4 4 (25600)
I0428 20:19:04.270011  1289 net.cpp:139] Memory required for data: 9928960
I0428 20:19:04.270015  1289 layer_factory.hpp:77] Creating layer ip1
I0428 20:19:04.270022  1289 net.cpp:86] Creating Layer ip1
I0428 20:19:04.270025  1289 net.cpp:408] ip1 <- pool1
I0428 20:19:04.270030  1289 net.cpp:382] ip1 -> ip1
I0428 20:19:04.271100  1289 net.cpp:124] Setting up ip1
I0428 20:19:04.271113  1289 net.cpp:131] Top shape: 64 25 (1600)
I0428 20:19:04.271118  1289 net.cpp:139] Memory required for data: 9935360
I0428 20:19:04.271126  1289 layer_factory.hpp:77] Creating layer relu1
I0428 20:19:04.271133  1289 net.cpp:86] Creating Layer relu1
I0428 20:19:04.271137  1289 net.cpp:408] relu1 <- ip1
I0428 20:19:04.271148  1289 net.cpp:369] relu1 -> ip1 (in-place)
I0428 20:19:04.271342  1289 net.cpp:124] Setting up relu1
I0428 20:19:04.271366  1289 net.cpp:131] Top shape: 64 25 (1600)
I0428 20:19:04.271369  1289 net.cpp:139] Memory required for data: 9941760
I0428 20:19:04.271373  1289 layer_factory.hpp:77] Creating layer ip2
I0428 20:19:04.271379  1289 net.cpp:86] Creating Layer ip2
I0428 20:19:04.271385  1289 net.cpp:408] ip2 <- ip1
I0428 20:19:04.271390  1289 net.cpp:382] ip2 -> ip2
I0428 20:19:04.271487  1289 net.cpp:124] Setting up ip2
I0428 20:19:04.271495  1289 net.cpp:131] Top shape: 64 10 (640)
I0428 20:19:04.271498  1289 net.cpp:139] Memory required for data: 9944320
I0428 20:19:04.271503  1289 layer_factory.hpp:77] Creating layer relu2
I0428 20:19:04.271509  1289 net.cpp:86] Creating Layer relu2
I0428 20:19:04.271512  1289 net.cpp:408] relu2 <- ip2
I0428 20:19:04.271517  1289 net.cpp:369] relu2 -> ip2 (in-place)
I0428 20:19:04.272358  1289 net.cpp:124] Setting up relu2
I0428 20:19:04.272372  1289 net.cpp:131] Top shape: 64 10 (640)
I0428 20:19:04.272375  1289 net.cpp:139] Memory required for data: 9946880
I0428 20:19:04.272379  1289 layer_factory.hpp:77] Creating layer loss
I0428 20:19:04.272387  1289 net.cpp:86] Creating Layer loss
I0428 20:19:04.272390  1289 net.cpp:408] loss <- ip2
I0428 20:19:04.272395  1289 net.cpp:408] loss <- label
I0428 20:19:04.272402  1289 net.cpp:382] loss -> loss
I0428 20:19:04.272421  1289 layer_factory.hpp:77] Creating layer loss
…
I0428 20:19:04.273198  1289 solver.cpp:173] Creating test net (#0) specified by net file: ECE595/mnist/train_test/var_everything2/lenet_train_test1333.prototxt
I0428 20:19:04.273253  1289 net.cpp:296] The NetState phase (1) differed from the phase (0) specified by a rule in layer mnist
I0428 20:19:04.273339  1289 net.cpp:53] Initializing net from parameters: 
name: "LeNet"
state {
  phase: TEST
}
layer {
  name: "mnist"
  type: "Data"
  top: "data"
  top: "label"
  include {
    phase: TEST
  }
  transform_param {
    scale: 0.00390625
  }
  data_param {
    source: "examples/mnist/mnist_test_lmdb"
    batch_size: 100
    backend: LMDB
  }
}
layer {
  name: "conv0"
  type: "Convolution"
  bottom: "data"
  top: "conv0"
  param {
    lr_mult: 1
  }
  param {
    lr_mult: 2
  }
  convolution_param {
    num_output: 50
    kernel_size: 5
    stride: 1
    weight_filler {
      type: "xavier"
    }
    bias_filler {
      type: "constant"
    }
  }
}
layer {
  name: "pool0"
  type: "Pooling"
  bottom: "conv0"
  top: "pool0"
  pooling_param {
    pool: MAX
    kernel_size: 2
    stride: 2
  }
}
layer {
  name: "conv1"
  type: "Convolution"
  bottom: "pool0"
  top: "conv1"
  param {
    lr_mult: 1
  }
  param {
    lr_mult: 2
  }
  convolution_param {
    num_output: 25
    kernel_size: 5
    stride: 1
    weight_filler {
      type: "xavier"
    }
    bias_filler {
      type: "constant"
    }
  }
}
layer {
  name: "pool1"
  type: "Pooling"
  bottom: "conv1"
  top: "pool1"
  pooling_param {
    pool: MAX
    kernel_size: 2
    stride: 2
  }
}
layer {
  name: "ip1"
  type: "InnerProduct"
  bottom: "pool1"
  top: "ip1"
  param {
    lr_mult: 1
  }
  param {
    lr_mult: 2
  }
  inner_product_param {
    num_output: 25
    weight_filler {
      type: "xavier"
    }
    bias_filler {
      type: "constant"
    }
  }
}
layer {
  name: "relu1"
  type: "ReLU"
  bottom: "ip1"
  top: "ip1"
}
layer {
  name: "ip2"
  type: "InnerProduct"
  bottom: "ip1"
  top: "ip2"
  param {
    lr_mult: 1
  }
  param {
    lr_mult: 2
  }
  inner_product_param {
    num_output: 10
    weight_filler {
      type: "xavier"
    }
    bias_filler {
      type: "constant"
    }
  }
}
layer {
  name: "relu2"
  type: "ReLU"
  bottom: "ip2"
  top: "ip2"
}
layer {
  name: "accuracy"
  type: "Accuracy"
  bottom: "ip2"
  bottom: "label"
  top: "accuracy"
  include {
    phase: TEST
  }
}
layer {
  name: "loss"
  type: "SoftmaxWithLoss"
  bottom: "ip2"
  bottom: "label"
  top: "loss"
}
I0428 20:19:04.273406  1289 layer_factory.hpp:77] Creating layer mnist
I0428 20:19:04.273452  1289 db_lmdb.cpp:35] Opened lmdb examples/mnist/mnist_test_lmdb
I0428 20:19:04.273465  1289 net.cpp:86] Creating Layer mnist
I0428 20:19:04.273470  1289 net.cpp:382] mnist -> data
I0428 20:19:04.273478  1289 net.cpp:382] mnist -> label
I0428 20:19:04.273579  1289 data_layer.cpp:45] output data size: 100,1,28,28
I0428 20:19:04.275776  1289 net.cpp:124] Setting up mnist
I0428 20:19:04.275789  1289 net.cpp:131] Top shape: 100 1 28 28 (78400)
I0428 20:19:04.275810  1289 net.cpp:131] Top shape: 100 (100)
I0428 20:19:04.275812  1289 net.cpp:139] Memory required for data: 314000
I0428 20:19:04.275816  1289 layer_factory.hpp:77] Creating layer label_mnist_1_split
I0428 20:19:04.275822  1289 net.cpp:86] Creating Layer label_mnist_1_split
I0428 20:19:04.275826  1289 net.cpp:408] label_mnist_1_split <- label
I0428 20:19:04.275831  1289 net.cpp:382] label_mnist_1_split -> label_mnist_1_split_0
I0428 20:19:04.275837  1289 net.cpp:382] label_mnist_1_split -> label_mnist_1_split_1
I0428 20:19:04.275928  1289 net.cpp:124] Setting up label_mnist_1_split
I0428 20:19:04.275936  1289 net.cpp:131] Top shape: 100 (100)
I0428 20:19:04.275940  1289 net.cpp:131] Top shape: 100 (100)
I0428 20:19:04.275943  1289 net.cpp:139] Memory required for data: 314800
I0428 20:19:04.275945  1289 layer_factory.hpp:77] Creating layer conv0
I0428 20:19:04.275954  1289 net.cpp:86] Creating Layer conv0
I0428 20:19:04.275957  1289 net.cpp:408] conv0 <- data
I0428 20:19:04.275961  1289 net.cpp:382] conv0 -> conv0
I0428 20:19:04.277722  1289 net.cpp:124] Setting up conv0
I0428 20:19:04.277752  1289 net.cpp:131] Top shape: 100 50 24 24 (2880000)
I0428 20:19:04.277755  1289 net.cpp:139] Memory required for data: 11834800
I0428 20:19:04.277765  1289 layer_factory.hpp:77] Creating layer pool0
I0428 20:19:04.277773  1289 net.cpp:86] Creating Layer pool0
I0428 20:19:04.277776  1289 net.cpp:408] pool0 <- conv0
I0428 20:19:04.277782  1289 net.cpp:382] pool0 -> pool0
I0428 20:19:04.277817  1289 net.cpp:124] Setting up pool0
I0428 20:19:04.277837  1289 net.cpp:131] Top shape: 100 50 12 12 (720000)
I0428 20:19:04.277840  1289 net.cpp:139] Memory required for data: 14714800
I0428 20:19:04.277842  1289 layer_factory.hpp:77] Creating layer conv1
I0428 20:19:04.277853  1289 net.cpp:86] Creating Layer conv1
I0428 20:19:04.277856  1289 net.cpp:408] conv1 <- pool0
I0428 20:19:04.277861  1289 net.cpp:382] conv1 -> conv1
I0428 20:19:04.279592  1289 net.cpp:124] Setting up conv1
I0428 20:19:04.279621  1289 net.cpp:131] Top shape: 100 25 8 8 (160000)
I0428 20:19:04.279624  1289 net.cpp:139] Memory required for data: 15354800
I0428 20:19:04.279636  1289 layer_factory.hpp:77] Creating layer pool1
I0428 20:19:04.279657  1289 net.cpp:86] Creating Layer pool1
I0428 20:19:04.279661  1289 net.cpp:408] pool1 <- conv1
I0428 20:19:04.279680  1289 net.cpp:382] pool1 -> pool1
I0428 20:19:04.279733  1289 net.cpp:124] Setting up pool1
I0428 20:19:04.279738  1289 net.cpp:131] Top shape: 100 25 4 4 (40000)
I0428 20:19:04.279742  1289 net.cpp:139] Memory required for data: 15514800
I0428 20:19:04.279745  1289 layer_factory.hpp:77] Creating layer ip1
I0428 20:19:04.279752  1289 net.cpp:86] Creating Layer ip1
I0428 20:19:04.279755  1289 net.cpp:408] ip1 <- pool1
I0428 20:19:04.279762  1289 net.cpp:382] ip1 -> ip1
I0428 20:19:04.279930  1289 net.cpp:124] Setting up ip1
I0428 20:19:04.279939  1289 net.cpp:131] Top shape: 100 25 (2500)
I0428 20:19:04.279942  1289 net.cpp:139] Memory required for data: 15524800
I0428 20:19:04.279949  1289 layer_factory.hpp:77] Creating layer relu1
I0428 20:19:04.279955  1289 net.cpp:86] Creating Layer relu1
I0428 20:19:04.279958  1289 net.cpp:408] relu1 <- ip1
I0428 20:19:04.279963  1289 net.cpp:369] relu1 -> ip1 (in-place)
I0428 20:19:04.280215  1289 net.cpp:124] Setting up relu1
I0428 20:19:04.280225  1289 net.cpp:131] Top shape: 100 25 (2500)
I0428 20:19:04.280228  1289 net.cpp:139] Memory required for data: 15534800
I0428 20:19:04.280231  1289 layer_factory.hpp:77] Creating layer ip2
I0428 20:19:04.280239  1289 net.cpp:86] Creating Layer ip2
I0428 20:19:04.280242  1289 net.cpp:408] ip2 <- ip1
I0428 20:19:04.280248  1289 net.cpp:382] ip2 -> ip2
I0428 20:19:04.280354  1289 net.cpp:124] Setting up ip2
I0428 20:19:04.280362  1289 net.cpp:131] Top shape: 100 10 (1000)
I0428 20:19:04.280364  1289 net.cpp:139] Memory required for data: 15538800
I0428 20:19:04.280370  1289 layer_factory.hpp:77] Creating layer relu2
I0428 20:19:04.280376  1289 net.cpp:86] Creating Layer relu2
I0428 20:19:04.280380  1289 net.cpp:408] relu2 <- ip2
I0428 20:19:04.280385  1289 net.cpp:369] relu2 -> ip2 (in-place)
I0428 20:19:04.280547  1289 net.cpp:124] Setting up relu2
I0428 20:19:04.280557  1289 net.cpp:131] Top shape: 100 10 (1000)
I0428 20:19:04.280560  1289 net.cpp:139] Memory required for data: 15542800
I0428 20:19:04.280563  1289 layer_factory.hpp:77] Creating layer ip2_relu2_0_split
I0428 20:19:04.280568  1289 net.cpp:86] Creating Layer ip2_relu2_0_split
I0428 20:19:04.280572  1289 net.cpp:408] ip2_relu2_0_split <- ip2
I0428 20:19:04.280576  1289 net.cpp:382] ip2_relu2_0_split -> ip2_relu2_0_split_0
I0428 20:19:04.280592  1289 net.cpp:382] ip2_relu2_0_split -> ip2_relu2_0_split_1
I0428 20:19:04.280632  1289 net.cpp:124] Setting up ip2_relu2_0_split
I0428 20:19:04.280637  1289 net.cpp:131] Top shape: 100 10 (1000)
I0428 20:19:04.280642  1289 net.cpp:131] Top shape: 100 10 (1000)
I0428 20:19:04.280643  1289 net.cpp:139] Memory required for data: 15550800
I0428 20:19:04.280647  1289 layer_factory.hpp:77] Creating layer accuracy
I0428 20:19:04.280654  1289 net.cpp:86] Creating Layer accuracy
I0428 20:19:04.280658  1289 net.cpp:408] accuracy <- ip2_relu2_0_split_0
I0428 20:19:04.280661  1289 net.cpp:408] accuracy <- label_mnist_1_split_0
I0428 20:19:04.280665  1289 net.cpp:382] accuracy -> accuracy
…
