…
I0428 20:05:44.892616 30683 net.cpp:296] The NetState phase (0) differed from the phase (1) specified by a rule in layer mnist
I0428 20:05:44.892633 30683 net.cpp:296] The NetState phase (0) differed from the phase (1) specified by a rule in layer accuracy
I0428 20:05:44.892746 30683 net.cpp:53] Initializing net from parameters: 
name: "LeNet"
state {
  phase: TRAIN
  level: 0
  stage: ""
}
layer {
  name: "mnist"
  type: "Data"
  top: "data"
  top: "label"
  include {
    phase: TRAIN
  }
  transform_param {
    scale: 0.00390625
  }
  data_param {
    source: "examples/mnist/mnist_train_lmdb"
    batch_size: 64
    backend: LMDB
  }
}
layer {
  name: "conv0"
  type: "Convolution"
  bottom: "data"
  top: "conv0"
  param {
    lr_mult: 1
  }
  param {
    lr_mult: 2
  }
  convolution_param {
    num_output: 25
    kernel_size: 5
    stride: 1
    weight_filler {
      type: "xavier"
    }
    bias_filler {
      type: "constant"
    }
  }
}
layer {
  name: "pool0"
  type: "Pooling"
  bottom: "conv0"
  top: "pool0"
  pooling_param {
    pool: MAX
    kernel_size: 2
    stride: 2
  }
}
layer {
  name: "conv1"
  type: "Convolution"
  bottom: "pool0"
  top: "conv1"
  param {
    lr_mult: 1
  }
  param {
    lr_mult: 2
  }
  convolution_param {
    num_output: 2
    kernel_size: 5
    stride: 1
    weight_filler {
      type: "xavier"
    }
    bias_filler {
      type: "constant"
    }
  }
}
layer {
  name: "pool1"
  type: "Pooling"
  bottom: "conv1"
  top: "pool1"
  pooling_param {
    pool: MAX
    kernel_size: 2
    stride: 2
  }
}
layer {
  name: "ip1"
  type: "InnerProduct"
  bottom: "pool1"
  top: "ip1"
  param {
    lr_mult: 1
  }
  param {
    lr_mult: 2
  }
  inner_product_param {
    num_output: 50
    weight_filler {
      type: "xavier"
    }
    bias_filler {
      type: "constant"
    }
  }
}
layer {
  name: "relu1"
  type: "ReLU"
  bottom: "ip1"
  top: "ip1"
}
layer {
  name: "ip2"
  type: "InnerProduct"
  bottom: "ip1"
  top: "ip2"
  param {
    lr_mult: 1
  }
  param {
    lr_mult: 2
  }
  inner_product_param {
    num_output: 25
    weight_filler {
      type: "xavier"
    }
    bias_filler {
      type: "constant"
    }
  }
}
layer {
  name: "relu2"
  type: "ReLU"
  bottom: "ip2"
  top: "ip2"
}
layer {
  name: "ip3"
  type: "InnerProduct"
  bottom: "ip2"
  top: "ip3"
  param {
    lr_mult: 1
  }
  param {
    lr_mult: 2
  }
  inner_product_param {
    num_output: 10
    weight_filler {
      type: "xavier"
    }
    bias_filler {
      type: "constant"
    }
  }
}
layer {
  name: "relu3"
  type: "ReLU"
  bottom: "ip3"
  top: "ip3"
}
layer {
  name: "loss"
  type: "SoftmaxWithLoss"
  bottom: "ip3"
  bottom: "label"
  top: "loss"
}
I0428 20:05:44.892829 30683 layer_factory.hpp:77] Creating layer mnist
I0428 20:05:44.892930 30683 db_lmdb.cpp:35] Opened lmdb examples/mnist/mnist_train_lmdb
I0428 20:05:44.892952 30683 net.cpp:86] Creating Layer mnist
I0428 20:05:44.892959 30683 net.cpp:382] mnist -> data
I0428 20:05:44.892982 30683 net.cpp:382] mnist -> label
I0428 20:05:44.894059 30683 data_layer.cpp:45] output data size: 64,1,28,28
I0428 20:05:44.896477 30683 net.cpp:124] Setting up mnist
I0428 20:05:44.896494 30683 net.cpp:131] Top shape: 64 1 28 28 (50176)
I0428 20:05:44.896500 30683 net.cpp:131] Top shape: 64 (64)
I0428 20:05:44.896504 30683 net.cpp:139] Memory required for data: 200960
I0428 20:05:44.896512 30683 layer_factory.hpp:77] Creating layer conv0
I0428 20:05:44.896528 30683 net.cpp:86] Creating Layer conv0
I0428 20:05:44.896548 30683 net.cpp:408] conv0 <- data
I0428 20:05:44.896559 30683 net.cpp:382] conv0 -> conv0
I0428 20:05:45.165698 30683 net.cpp:124] Setting up conv0
I0428 20:05:45.165722 30683 net.cpp:131] Top shape: 64 25 24 24 (921600)
I0428 20:05:45.165725 30683 net.cpp:139] Memory required for data: 3887360
I0428 20:05:45.165740 30683 layer_factory.hpp:77] Creating layer pool0
I0428 20:05:45.165751 30683 net.cpp:86] Creating Layer pool0
I0428 20:05:45.165755 30683 net.cpp:408] pool0 <- conv0
I0428 20:05:45.165760 30683 net.cpp:382] pool0 -> pool0
I0428 20:05:45.165817 30683 net.cpp:124] Setting up pool0
I0428 20:05:45.165823 30683 net.cpp:131] Top shape: 64 25 12 12 (230400)
I0428 20:05:45.165825 30683 net.cpp:139] Memory required for data: 4808960
I0428 20:05:45.165828 30683 layer_factory.hpp:77] Creating layer conv1
I0428 20:05:45.165839 30683 net.cpp:86] Creating Layer conv1
I0428 20:05:45.165841 30683 net.cpp:408] conv1 <- pool0
I0428 20:05:45.165846 30683 net.cpp:382] conv1 -> conv1
I0428 20:05:45.168529 30683 net.cpp:124] Setting up conv1
I0428 20:05:45.168558 30683 net.cpp:131] Top shape: 64 2 8 8 (8192)
I0428 20:05:45.168562 30683 net.cpp:139] Memory required for data: 4841728
I0428 20:05:45.168586 30683 layer_factory.hpp:77] Creating layer pool1
I0428 20:05:45.168593 30683 net.cpp:86] Creating Layer pool1
I0428 20:05:45.168597 30683 net.cpp:408] pool1 <- conv1
I0428 20:05:45.168601 30683 net.cpp:382] pool1 -> pool1
I0428 20:05:45.168653 30683 net.cpp:124] Setting up pool1
I0428 20:05:45.168658 30683 net.cpp:131] Top shape: 64 2 4 4 (2048)
I0428 20:05:45.168660 30683 net.cpp:139] Memory required for data: 4849920
I0428 20:05:45.168663 30683 layer_factory.hpp:77] Creating layer ip1
I0428 20:05:45.168670 30683 net.cpp:86] Creating Layer ip1
I0428 20:05:45.168680 30683 net.cpp:408] ip1 <- pool1
I0428 20:05:45.168684 30683 net.cpp:382] ip1 -> ip1
I0428 20:05:45.168790 30683 net.cpp:124] Setting up ip1
I0428 20:05:45.168798 30683 net.cpp:131] Top shape: 64 50 (3200)
I0428 20:05:45.168802 30683 net.cpp:139] Memory required for data: 4862720
I0428 20:05:45.168808 30683 layer_factory.hpp:77] Creating layer relu1
I0428 20:05:45.168820 30683 net.cpp:86] Creating Layer relu1
I0428 20:05:45.168824 30683 net.cpp:408] relu1 <- ip1
I0428 20:05:45.168843 30683 net.cpp:369] relu1 -> ip1 (in-place)
I0428 20:05:45.169026 30683 net.cpp:124] Setting up relu1
I0428 20:05:45.169035 30683 net.cpp:131] Top shape: 64 50 (3200)
I0428 20:05:45.169039 30683 net.cpp:139] Memory required for data: 4875520
I0428 20:05:45.169042 30683 layer_factory.hpp:77] Creating layer ip2
I0428 20:05:45.169049 30683 net.cpp:86] Creating Layer ip2
I0428 20:05:45.169051 30683 net.cpp:408] ip2 <- ip1
I0428 20:05:45.169056 30683 net.cpp:382] ip2 -> ip2
I0428 20:05:45.169168 30683 net.cpp:124] Setting up ip2
I0428 20:05:45.169176 30683 net.cpp:131] Top shape: 64 25 (1600)
I0428 20:05:45.169179 30683 net.cpp:139] Memory required for data: 4881920
I0428 20:05:45.169184 30683 layer_factory.hpp:77] Creating layer relu2
I0428 20:05:45.169191 30683 net.cpp:86] Creating Layer relu2
I0428 20:05:45.169194 30683 net.cpp:408] relu2 <- ip2
I0428 20:05:45.169198 30683 net.cpp:369] relu2 -> ip2 (in-place)
I0428 20:05:45.170001 30683 net.cpp:124] Setting up relu2
I0428 20:05:45.170013 30683 net.cpp:131] Top shape: 64 25 (1600)
I0428 20:05:45.170032 30683 net.cpp:139] Memory required for data: 4888320
I0428 20:05:45.170035 30683 layer_factory.hpp:77] Creating layer ip3
I0428 20:05:45.170042 30683 net.cpp:86] Creating Layer ip3
I0428 20:05:45.170044 30683 net.cpp:408] ip3 <- ip2
I0428 20:05:45.170049 30683 net.cpp:382] ip3 -> ip3
I0428 20:05:45.170140 30683 net.cpp:124] Setting up ip3
I0428 20:05:45.170150 30683 net.cpp:131] Top shape: 64 10 (640)
I0428 20:05:45.170152 30683 net.cpp:139] Memory required for data: 4890880
I0428 20:05:45.170159 30683 layer_factory.hpp:77] Creating layer relu3
I0428 20:05:45.170164 30683 net.cpp:86] Creating Layer relu3
I0428 20:05:45.170167 30683 net.cpp:408] relu3 <- ip3
I0428 20:05:45.170171 30683 net.cpp:369] relu3 -> ip3 (in-place)
I0428 20:05:45.170341 30683 net.cpp:124] Setting up relu3
I0428 20:05:45.170348 30683 net.cpp:131] Top shape: 64 10 (640)
I0428 20:05:45.170352 30683 net.cpp:139] Memory required for data: 4893440
I0428 20:05:45.170356 30683 layer_factory.hpp:77] Creating layer loss
I0428 20:05:45.170361 30683 net.cpp:86] Creating Layer loss
I0428 20:05:45.170363 30683 net.cpp:408] loss <- ip3
I0428 20:05:45.170367 30683 net.cpp:408] loss <- label
I0428 20:05:45.170372 30683 net.cpp:382] loss -> loss
I0428 20:05:45.170390 30683 layer_factory.hpp:77] Creating layer loss
…
I0428 20:05:45.171049 30683 solver.cpp:173] Creating test net (#0) specified by net file: ECE595/mnist/train_test/var_everything2/lenet_train_test1008.prototxt
I0428 20:05:45.171092 30683 net.cpp:296] The NetState phase (1) differed from the phase (0) specified by a rule in layer mnist
I0428 20:05:45.171198 30683 net.cpp:53] Initializing net from parameters: 
name: "LeNet"
state {
  phase: TEST
}
layer {
  name: "mnist"
  type: "Data"
  top: "data"
  top: "label"
  include {
    phase: TEST
  }
  transform_param {
    scale: 0.00390625
  }
  data_param {
    source: "examples/mnist/mnist_test_lmdb"
    batch_size: 100
    backend: LMDB
  }
}
layer {
  name: "conv0"
  type: "Convolution"
  bottom: "data"
  top: "conv0"
  param {
    lr_mult: 1
  }
  param {
    lr_mult: 2
  }
  convolution_param {
    num_output: 25
    kernel_size: 5
    stride: 1
    weight_filler {
      type: "xavier"
    }
    bias_filler {
      type: "constant"
    }
  }
}
layer {
  name: "pool0"
  type: "Pooling"
  bottom: "conv0"
  top: "pool0"
  pooling_param {
    pool: MAX
    kernel_size: 2
    stride: 2
  }
}
layer {
  name: "conv1"
  type: "Convolution"
  bottom: "pool0"
  top: "conv1"
  param {
    lr_mult: 1
  }
  param {
    lr_mult: 2
  }
  convolution_param {
    num_output: 2
    kernel_size: 5
    stride: 1
    weight_filler {
      type: "xavier"
    }
    bias_filler {
      type: "constant"
    }
  }
}
layer {
  name: "pool1"
  type: "Pooling"
  bottom: "conv1"
  top: "pool1"
  pooling_param {
    pool: MAX
    kernel_size: 2
    stride: 2
  }
}
layer {
  name: "ip1"
  type: "InnerProduct"
  bottom: "pool1"
  top: "ip1"
  param {
    lr_mult: 1
  }
  param {
    lr_mult: 2
  }
  inner_product_param {
    num_output: 50
    weight_filler {
      type: "xavier"
    }
    bias_filler {
      type: "constant"
    }
  }
}
layer {
  name: "relu1"
  type: "ReLU"
  bottom: "ip1"
  top: "ip1"
}
layer {
  name: "ip2"
  type: "InnerProduct"
  bottom: "ip1"
  top: "ip2"
  param {
    lr_mult: 1
  }
  param {
    lr_mult: 2
  }
  inner_product_param {
    num_output: 25
    weight_filler {
      type: "xavier"
    }
    bias_filler {
      type: "constant"
    }
  }
}
layer {
  name: "relu2"
  type: "ReLU"
  bottom: "ip2"
  top: "ip2"
}
layer {
  name: "ip3"
  type: "InnerProduct"
  bottom: "ip2"
  top: "ip3"
  param {
    lr_mult: 1
  }
  param {
    lr_mult: 2
  }
  inner_product_param {
    num_output: 10
    weight_filler {
      type: "xavier"
    }
    bias_filler {
      type: "constant"
    }
  }
}
layer {
  name: "relu3"
  type: "ReLU"
  bottom: "ip3"
  top: "ip3"
}
layer {
  name: "accuracy"
  type: "Accuracy"
  bottom: "ip3"
  bottom: "label"
  top: "accuracy"
  include {
    phase: TEST
  }
}
layer {
  name: "loss"
  type: "SoftmaxWithLoss"
  bottom: "ip3"
  bottom: "label"
  top: "loss"
}
I0428 20:05:45.171274 30683 layer_factory.hpp:77] Creating layer mnist
I0428 20:05:45.171316 30683 db_lmdb.cpp:35] Opened lmdb examples/mnist/mnist_test_lmdb
I0428 20:05:45.171327 30683 net.cpp:86] Creating Layer mnist
I0428 20:05:45.171332 30683 net.cpp:382] mnist -> data
I0428 20:05:45.171340 30683 net.cpp:382] mnist -> label
I0428 20:05:45.171422 30683 data_layer.cpp:45] output data size: 100,1,28,28
I0428 20:05:45.173569 30683 net.cpp:124] Setting up mnist
I0428 20:05:45.173598 30683 net.cpp:131] Top shape: 100 1 28 28 (78400)
I0428 20:05:45.173602 30683 net.cpp:131] Top shape: 100 (100)
I0428 20:05:45.173606 30683 net.cpp:139] Memory required for data: 314000
I0428 20:05:45.173609 30683 layer_factory.hpp:77] Creating layer label_mnist_1_split
I0428 20:05:45.173635 30683 net.cpp:86] Creating Layer label_mnist_1_split
I0428 20:05:45.173640 30683 net.cpp:408] label_mnist_1_split <- label
I0428 20:05:45.173643 30683 net.cpp:382] label_mnist_1_split -> label_mnist_1_split_0
I0428 20:05:45.173650 30683 net.cpp:382] label_mnist_1_split -> label_mnist_1_split_1
I0428 20:05:45.173686 30683 net.cpp:124] Setting up label_mnist_1_split
I0428 20:05:45.173691 30683 net.cpp:131] Top shape: 100 (100)
I0428 20:05:45.173694 30683 net.cpp:131] Top shape: 100 (100)
I0428 20:05:45.173696 30683 net.cpp:139] Memory required for data: 314800
I0428 20:05:45.173699 30683 layer_factory.hpp:77] Creating layer conv0
I0428 20:05:45.173707 30683 net.cpp:86] Creating Layer conv0
I0428 20:05:45.173710 30683 net.cpp:408] conv0 <- data
I0428 20:05:45.173714 30683 net.cpp:382] conv0 -> conv0
I0428 20:05:45.175539 30683 net.cpp:124] Setting up conv0
I0428 20:05:45.175554 30683 net.cpp:131] Top shape: 100 25 24 24 (1440000)
I0428 20:05:45.175559 30683 net.cpp:139] Memory required for data: 6074800
I0428 20:05:45.175566 30683 layer_factory.hpp:77] Creating layer pool0
I0428 20:05:45.175572 30683 net.cpp:86] Creating Layer pool0
I0428 20:05:45.175575 30683 net.cpp:408] pool0 <- conv0
I0428 20:05:45.175580 30683 net.cpp:382] pool0 -> pool0
I0428 20:05:45.175616 30683 net.cpp:124] Setting up pool0
I0428 20:05:45.175621 30683 net.cpp:131] Top shape: 100 25 12 12 (360000)
I0428 20:05:45.175623 30683 net.cpp:139] Memory required for data: 7514800
I0428 20:05:45.175626 30683 layer_factory.hpp:77] Creating layer conv1
I0428 20:05:45.175635 30683 net.cpp:86] Creating Layer conv1
I0428 20:05:45.175638 30683 net.cpp:408] conv1 <- pool0
I0428 20:05:45.175642 30683 net.cpp:382] conv1 -> conv1
I0428 20:05:45.177893 30683 net.cpp:124] Setting up conv1
I0428 20:05:45.177907 30683 net.cpp:131] Top shape: 100 2 8 8 (12800)
I0428 20:05:45.177918 30683 net.cpp:139] Memory required for data: 7566000
I0428 20:05:45.177927 30683 layer_factory.hpp:77] Creating layer pool1
I0428 20:05:45.177954 30683 net.cpp:86] Creating Layer pool1
I0428 20:05:45.177958 30683 net.cpp:408] pool1 <- conv1
I0428 20:05:45.177963 30683 net.cpp:382] pool1 -> pool1
I0428 20:05:45.178001 30683 net.cpp:124] Setting up pool1
I0428 20:05:45.178007 30683 net.cpp:131] Top shape: 100 2 4 4 (3200)
I0428 20:05:45.178010 30683 net.cpp:139] Memory required for data: 7578800
I0428 20:05:45.178014 30683 layer_factory.hpp:77] Creating layer ip1
I0428 20:05:45.178020 30683 net.cpp:86] Creating Layer ip1
I0428 20:05:45.178022 30683 net.cpp:408] ip1 <- pool1
I0428 20:05:45.178028 30683 net.cpp:382] ip1 -> ip1
I0428 20:05:45.178182 30683 net.cpp:124] Setting up ip1
I0428 20:05:45.178189 30683 net.cpp:131] Top shape: 100 50 (5000)
I0428 20:05:45.178202 30683 net.cpp:139] Memory required for data: 7598800
I0428 20:05:45.178210 30683 layer_factory.hpp:77] Creating layer relu1
I0428 20:05:45.178215 30683 net.cpp:86] Creating Layer relu1
I0428 20:05:45.178218 30683 net.cpp:408] relu1 <- ip1
I0428 20:05:45.178226 30683 net.cpp:369] relu1 -> ip1 (in-place)
I0428 20:05:45.178517 30683 net.cpp:124] Setting up relu1
I0428 20:05:45.178526 30683 net.cpp:131] Top shape: 100 50 (5000)
I0428 20:05:45.178529 30683 net.cpp:139] Memory required for data: 7618800
I0428 20:05:45.178532 30683 layer_factory.hpp:77] Creating layer ip2
I0428 20:05:45.178542 30683 net.cpp:86] Creating Layer ip2
I0428 20:05:45.178545 30683 net.cpp:408] ip2 <- ip1
I0428 20:05:45.178550 30683 net.cpp:382] ip2 -> ip2
I0428 20:05:45.178654 30683 net.cpp:124] Setting up ip2
I0428 20:05:45.178663 30683 net.cpp:131] Top shape: 100 25 (2500)
I0428 20:05:45.178664 30683 net.cpp:139] Memory required for data: 7628800
I0428 20:05:45.178670 30683 layer_factory.hpp:77] Creating layer relu2
I0428 20:05:45.178680 30683 net.cpp:86] Creating Layer relu2
I0428 20:05:45.178683 30683 net.cpp:408] relu2 <- ip2
I0428 20:05:45.178689 30683 net.cpp:369] relu2 -> ip2 (in-place)
I0428 20:05:45.178894 30683 net.cpp:124] Setting up relu2
I0428 20:05:45.178903 30683 net.cpp:131] Top shape: 100 25 (2500)
I0428 20:05:45.178908 30683 net.cpp:139] Memory required for data: 7638800
I0428 20:05:45.178911 30683 layer_factory.hpp:77] Creating layer ip3
I0428 20:05:45.178917 30683 net.cpp:86] Creating Layer ip3
I0428 20:05:45.178926 30683 net.cpp:408] ip3 <- ip2
I0428 20:05:45.178931 30683 net.cpp:382] ip3 -> ip3
I0428 20:05:45.179028 30683 net.cpp:124] Setting up ip3
I0428 20:05:45.179035 30683 net.cpp:131] Top shape: 100 10 (1000)
I0428 20:05:45.179039 30683 net.cpp:139] Memory required for data: 7642800
I0428 20:05:45.179052 30683 layer_factory.hpp:77] Creating layer relu3
I0428 20:05:45.179059 30683 net.cpp:86] Creating Layer relu3
I0428 20:05:45.179062 30683 net.cpp:408] relu3 <- ip3
I0428 20:05:45.179071 30683 net.cpp:369] relu3 -> ip3 (in-place)
I0428 20:05:45.179872 30683 net.cpp:124] Setting up relu3
I0428 20:05:45.179904 30683 net.cpp:131] Top shape: 100 10 (1000)
I0428 20:05:45.179908 30683 net.cpp:139] Memory required for data: 7646800
I0428 20:05:45.179910 30683 layer_factory.hpp:77] Creating layer ip3_relu3_0_split
I0428 20:05:45.179930 30683 net.cpp:86] Creating Layer ip3_relu3_0_split
I0428 20:05:45.179934 30683 net.cpp:408] ip3_relu3_0_split <- ip3
I0428 20:05:45.179939 30683 net.cpp:382] ip3_relu3_0_split -> ip3_relu3_0_split_0
I0428 20:05:45.179944 30683 net.cpp:382] ip3_relu3_0_split -> ip3_relu3_0_split_1
I0428 20:05:45.179986 30683 net.cpp:124] Setting up ip3_relu3_0_split
I0428 20:05:45.179991 30683 net.cpp:131] Top shape: 100 10 (1000)
I0428 20:05:45.179994 30683 net.cpp:131] Top shape: 100 10 (1000)
I0428 20:05:45.179997 30683 net.cpp:139] Memory required for data: 7654800
I0428 20:05:45.179999 30683 layer_factory.hpp:77] Creating layer accuracy
I0428 20:05:45.180006 30683 net.cpp:86] Creating Layer accuracy
I0428 20:05:45.180008 30683 net.cpp:408] accuracy <- ip3_relu3_0_split_0
I0428 20:05:45.180018 30683 net.cpp:408] accuracy <- label_mnist_1_split_0
I0428 20:05:45.180039 30683 net.cpp:382] accuracy -> accuracy
…
