…
I0428 20:21:47.230100  1825 net.cpp:296] The NetState phase (0) differed from the phase (1) specified by a rule in layer mnist
I0428 20:21:47.230118  1825 net.cpp:296] The NetState phase (0) differed from the phase (1) specified by a rule in layer accuracy
I0428 20:21:47.230217  1825 net.cpp:53] Initializing net from parameters: 
name: "LeNet"
state {
  phase: TRAIN
  level: 0
  stage: ""
}
layer {
  name: "mnist"
  type: "Data"
  top: "data"
  top: "label"
  include {
    phase: TRAIN
  }
  transform_param {
    scale: 0.00390625
  }
  data_param {
    source: "examples/mnist/mnist_train_lmdb"
    batch_size: 64
    backend: LMDB
  }
}
layer {
  name: "conv0"
  type: "Convolution"
  bottom: "data"
  top: "conv0"
  param {
    lr_mult: 1
  }
  param {
    lr_mult: 2
  }
  convolution_param {
    num_output: 50
    kernel_size: 5
    stride: 1
    weight_filler {
      type: "xavier"
    }
    bias_filler {
      type: "constant"
    }
  }
}
layer {
  name: "pool0"
  type: "Pooling"
  bottom: "conv0"
  top: "pool0"
  pooling_param {
    pool: MAX
    kernel_size: 2
    stride: 2
  }
}
layer {
  name: "conv1"
  type: "Convolution"
  bottom: "pool0"
  top: "conv1"
  param {
    lr_mult: 1
  }
  param {
    lr_mult: 2
  }
  convolution_param {
    num_output: 50
    kernel_size: 5
    stride: 1
    weight_filler {
      type: "xavier"
    }
    bias_filler {
      type: "constant"
    }
  }
}
layer {
  name: "pool1"
  type: "Pooling"
  bottom: "conv1"
  top: "pool1"
  pooling_param {
    pool: MAX
    kernel_size: 2
    stride: 2
  }
}
layer {
  name: "ip1"
  type: "InnerProduct"
  bottom: "pool1"
  top: "ip1"
  param {
    lr_mult: 1
  }
  param {
    lr_mult: 2
  }
  inner_product_param {
    num_output: 25
    weight_filler {
      type: "xavier"
    }
    bias_filler {
      type: "constant"
    }
  }
}
layer {
  name: "relu1"
  type: "ReLU"
  bottom: "ip1"
  top: "ip1"
}
layer {
  name: "ip2"
  type: "InnerProduct"
  bottom: "ip1"
  top: "ip2"
  param {
    lr_mult: 1
  }
  param {
    lr_mult: 2
  }
  inner_product_param {
    num_output: 25
    weight_filler {
      type: "xavier"
    }
    bias_filler {
      type: "constant"
    }
  }
}
layer {
  name: "relu2"
  type: "ReLU"
  bottom: "ip2"
  top: "ip2"
}
layer {
  name: "ip3"
  type: "InnerProduct"
  bottom: "ip2"
  top: "ip3"
  param {
    lr_mult: 1
  }
  param {
    lr_mult: 2
  }
  inner_product_param {
    num_output: 10
    weight_filler {
      type: "xavier"
    }
    bias_filler {
      type: "constant"
    }
  }
}
layer {
  name: "relu3"
  type: "ReLU"
  bottom: "ip3"
  top: "ip3"
}
layer {
  name: "loss"
  type: "SoftmaxWithLoss"
  bottom: "ip3"
  bottom: "label"
  top: "loss"
}
I0428 20:21:47.230298  1825 layer_factory.hpp:77] Creating layer mnist
I0428 20:21:47.230408  1825 db_lmdb.cpp:35] Opened lmdb examples/mnist/mnist_train_lmdb
I0428 20:21:47.230429  1825 net.cpp:86] Creating Layer mnist
I0428 20:21:47.230437  1825 net.cpp:382] mnist -> data
I0428 20:21:47.230455  1825 net.cpp:382] mnist -> label
I0428 20:21:47.231492  1825 data_layer.cpp:45] output data size: 64,1,28,28
I0428 20:21:47.233757  1825 net.cpp:124] Setting up mnist
I0428 20:21:47.233788  1825 net.cpp:131] Top shape: 64 1 28 28 (50176)
I0428 20:21:47.233808  1825 net.cpp:131] Top shape: 64 (64)
I0428 20:21:47.233811  1825 net.cpp:139] Memory required for data: 200960
I0428 20:21:47.233816  1825 layer_factory.hpp:77] Creating layer conv0
I0428 20:21:47.233830  1825 net.cpp:86] Creating Layer conv0
I0428 20:21:47.233849  1825 net.cpp:408] conv0 <- data
I0428 20:21:47.233860  1825 net.cpp:382] conv0 -> conv0
I0428 20:21:47.454990  1825 net.cpp:124] Setting up conv0
I0428 20:21:47.455016  1825 net.cpp:131] Top shape: 64 50 24 24 (1843200)
I0428 20:21:47.455020  1825 net.cpp:139] Memory required for data: 7573760
I0428 20:21:47.455034  1825 layer_factory.hpp:77] Creating layer pool0
I0428 20:21:47.455046  1825 net.cpp:86] Creating Layer pool0
I0428 20:21:47.455050  1825 net.cpp:408] pool0 <- conv0
I0428 20:21:47.455054  1825 net.cpp:382] pool0 -> pool0
I0428 20:21:47.455114  1825 net.cpp:124] Setting up pool0
I0428 20:21:47.455121  1825 net.cpp:131] Top shape: 64 50 12 12 (460800)
I0428 20:21:47.455123  1825 net.cpp:139] Memory required for data: 9416960
I0428 20:21:47.455127  1825 layer_factory.hpp:77] Creating layer conv1
I0428 20:21:47.455137  1825 net.cpp:86] Creating Layer conv1
I0428 20:21:47.455140  1825 net.cpp:408] conv1 <- pool0
I0428 20:21:47.455145  1825 net.cpp:382] conv1 -> conv1
I0428 20:21:47.457373  1825 net.cpp:124] Setting up conv1
I0428 20:21:47.457402  1825 net.cpp:131] Top shape: 64 50 8 8 (204800)
I0428 20:21:47.457406  1825 net.cpp:139] Memory required for data: 10236160
I0428 20:21:47.457417  1825 layer_factory.hpp:77] Creating layer pool1
I0428 20:21:47.457438  1825 net.cpp:86] Creating Layer pool1
I0428 20:21:47.457442  1825 net.cpp:408] pool1 <- conv1
I0428 20:21:47.457446  1825 net.cpp:382] pool1 -> pool1
I0428 20:21:47.457482  1825 net.cpp:124] Setting up pool1
I0428 20:21:47.457489  1825 net.cpp:131] Top shape: 64 50 4 4 (51200)
I0428 20:21:47.457492  1825 net.cpp:139] Memory required for data: 10440960
I0428 20:21:47.457495  1825 layer_factory.hpp:77] Creating layer ip1
I0428 20:21:47.457502  1825 net.cpp:86] Creating Layer ip1
I0428 20:21:47.457505  1825 net.cpp:408] ip1 <- pool1
I0428 20:21:47.457509  1825 net.cpp:382] ip1 -> ip1
I0428 20:21:47.457711  1825 net.cpp:124] Setting up ip1
I0428 20:21:47.457732  1825 net.cpp:131] Top shape: 64 25 (1600)
I0428 20:21:47.457743  1825 net.cpp:139] Memory required for data: 10447360
I0428 20:21:47.457751  1825 layer_factory.hpp:77] Creating layer relu1
I0428 20:21:47.457756  1825 net.cpp:86] Creating Layer relu1
I0428 20:21:47.457758  1825 net.cpp:408] relu1 <- ip1
I0428 20:21:47.457762  1825 net.cpp:369] relu1 -> ip1 (in-place)
I0428 20:21:47.457921  1825 net.cpp:124] Setting up relu1
I0428 20:21:47.457929  1825 net.cpp:131] Top shape: 64 25 (1600)
I0428 20:21:47.457932  1825 net.cpp:139] Memory required for data: 10453760
I0428 20:21:47.457936  1825 layer_factory.hpp:77] Creating layer ip2
I0428 20:21:47.457940  1825 net.cpp:86] Creating Layer ip2
I0428 20:21:47.457943  1825 net.cpp:408] ip2 <- ip1
I0428 20:21:47.457948  1825 net.cpp:382] ip2 -> ip2
I0428 20:21:47.458053  1825 net.cpp:124] Setting up ip2
I0428 20:21:47.458060  1825 net.cpp:131] Top shape: 64 25 (1600)
I0428 20:21:47.458063  1825 net.cpp:139] Memory required for data: 10460160
I0428 20:21:47.458068  1825 layer_factory.hpp:77] Creating layer relu2
I0428 20:21:47.458073  1825 net.cpp:86] Creating Layer relu2
I0428 20:21:47.458076  1825 net.cpp:408] relu2 <- ip2
I0428 20:21:47.458081  1825 net.cpp:369] relu2 -> ip2 (in-place)
I0428 20:21:47.458849  1825 net.cpp:124] Setting up relu2
I0428 20:21:47.458861  1825 net.cpp:131] Top shape: 64 25 (1600)
I0428 20:21:47.458880  1825 net.cpp:139] Memory required for data: 10466560
I0428 20:21:47.458884  1825 layer_factory.hpp:77] Creating layer ip3
I0428 20:21:47.458890  1825 net.cpp:86] Creating Layer ip3
I0428 20:21:47.458894  1825 net.cpp:408] ip3 <- ip2
I0428 20:21:47.458899  1825 net.cpp:382] ip3 -> ip3
I0428 20:21:47.458988  1825 net.cpp:124] Setting up ip3
I0428 20:21:47.458998  1825 net.cpp:131] Top shape: 64 10 (640)
I0428 20:21:47.459002  1825 net.cpp:139] Memory required for data: 10469120
I0428 20:21:47.459008  1825 layer_factory.hpp:77] Creating layer relu3
I0428 20:21:47.459017  1825 net.cpp:86] Creating Layer relu3
I0428 20:21:47.459019  1825 net.cpp:408] relu3 <- ip3
I0428 20:21:47.459023  1825 net.cpp:369] relu3 -> ip3 (in-place)
I0428 20:21:47.459182  1825 net.cpp:124] Setting up relu3
I0428 20:21:47.459192  1825 net.cpp:131] Top shape: 64 10 (640)
I0428 20:21:47.459195  1825 net.cpp:139] Memory required for data: 10471680
I0428 20:21:47.459198  1825 layer_factory.hpp:77] Creating layer loss
I0428 20:21:47.459204  1825 net.cpp:86] Creating Layer loss
I0428 20:21:47.459208  1825 net.cpp:408] loss <- ip3
I0428 20:21:47.459210  1825 net.cpp:408] loss <- label
I0428 20:21:47.459216  1825 net.cpp:382] loss -> loss
I0428 20:21:47.459229  1825 layer_factory.hpp:77] Creating layer loss
…
I0428 20:21:47.459848  1825 solver.cpp:173] Creating test net (#0) specified by net file: ECE595/mnist/train_test/var_everything2/lenet_train_test1391.prototxt
I0428 20:21:47.459889  1825 net.cpp:296] The NetState phase (1) differed from the phase (0) specified by a rule in layer mnist
I0428 20:21:47.459975  1825 net.cpp:53] Initializing net from parameters: 
name: "LeNet"
state {
  phase: TEST
}
layer {
  name: "mnist"
  type: "Data"
  top: "data"
  top: "label"
  include {
    phase: TEST
  }
  transform_param {
    scale: 0.00390625
  }
  data_param {
    source: "examples/mnist/mnist_test_lmdb"
    batch_size: 100
    backend: LMDB
  }
}
layer {
  name: "conv0"
  type: "Convolution"
  bottom: "data"
  top: "conv0"
  param {
    lr_mult: 1
  }
  param {
    lr_mult: 2
  }
  convolution_param {
    num_output: 50
    kernel_size: 5
    stride: 1
    weight_filler {
      type: "xavier"
    }
    bias_filler {
      type: "constant"
    }
  }
}
layer {
  name: "pool0"
  type: "Pooling"
  bottom: "conv0"
  top: "pool0"
  pooling_param {
    pool: MAX
    kernel_size: 2
    stride: 2
  }
}
layer {
  name: "conv1"
  type: "Convolution"
  bottom: "pool0"
  top: "conv1"
  param {
    lr_mult: 1
  }
  param {
    lr_mult: 2
  }
  convolution_param {
    num_output: 50
    kernel_size: 5
    stride: 1
    weight_filler {
      type: "xavier"
    }
    bias_filler {
      type: "constant"
    }
  }
}
layer {
  name: "pool1"
  type: "Pooling"
  bottom: "conv1"
  top: "pool1"
  pooling_param {
    pool: MAX
    kernel_size: 2
    stride: 2
  }
}
layer {
  name: "ip1"
  type: "InnerProduct"
  bottom: "pool1"
  top: "ip1"
  param {
    lr_mult: 1
  }
  param {
    lr_mult: 2
  }
  inner_product_param {
    num_output: 25
    weight_filler {
      type: "xavier"
    }
    bias_filler {
      type: "constant"
    }
  }
}
layer {
  name: "relu1"
  type: "ReLU"
  bottom: "ip1"
  top: "ip1"
}
layer {
  name: "ip2"
  type: "InnerProduct"
  bottom: "ip1"
  top: "ip2"
  param {
    lr_mult: 1
  }
  param {
    lr_mult: 2
  }
  inner_product_param {
    num_output: 25
    weight_filler {
      type: "xavier"
    }
    bias_filler {
      type: "constant"
    }
  }
}
layer {
  name: "relu2"
  type: "ReLU"
  bottom: "ip2"
  top: "ip2"
}
layer {
  name: "ip3"
  type: "InnerProduct"
  bottom: "ip2"
  top: "ip3"
  param {
    lr_mult: 1
  }
  param {
    lr_mult: 2
  }
  inner_product_param {
    num_output: 10
    weight_filler {
      type: "xavier"
    }
    bias_filler {
      type: "constant"
    }
  }
}
layer {
  name: "relu3"
  type: "ReLU"
  bottom: "ip3"
  top: "ip3"
}
layer {
  name: "accuracy"
  type: "Accuracy"
  bottom: "ip3"
  bottom: "label"
  top: "accuracy"
  include {
    phase: TEST
  }
}
layer {
  name: "loss"
  type: "SoftmaxWithLoss"
  bottom: "ip3"
  bottom: "label"
  top: "loss"
}
I0428 20:21:47.460072  1825 layer_factory.hpp:77] Creating layer mnist
I0428 20:21:47.460114  1825 db_lmdb.cpp:35] Opened lmdb examples/mnist/mnist_test_lmdb
I0428 20:21:47.460126  1825 net.cpp:86] Creating Layer mnist
I0428 20:21:47.460130  1825 net.cpp:382] mnist -> data
I0428 20:21:47.460137  1825 net.cpp:382] mnist -> label
I0428 20:21:47.460214  1825 data_layer.cpp:45] output data size: 100,1,28,28
I0428 20:21:47.462307  1825 net.cpp:124] Setting up mnist
I0428 20:21:47.462337  1825 net.cpp:131] Top shape: 100 1 28 28 (78400)
I0428 20:21:47.462342  1825 net.cpp:131] Top shape: 100 (100)
I0428 20:21:47.462347  1825 net.cpp:139] Memory required for data: 314000
I0428 20:21:47.462352  1825 layer_factory.hpp:77] Creating layer label_mnist_1_split
I0428 20:21:47.462360  1825 net.cpp:86] Creating Layer label_mnist_1_split
I0428 20:21:47.462364  1825 net.cpp:408] label_mnist_1_split <- label
I0428 20:21:47.462369  1825 net.cpp:382] label_mnist_1_split -> label_mnist_1_split_0
I0428 20:21:47.462375  1825 net.cpp:382] label_mnist_1_split -> label_mnist_1_split_1
I0428 20:21:47.462455  1825 net.cpp:124] Setting up label_mnist_1_split
I0428 20:21:47.462461  1825 net.cpp:131] Top shape: 100 (100)
I0428 20:21:47.462465  1825 net.cpp:131] Top shape: 100 (100)
I0428 20:21:47.462467  1825 net.cpp:139] Memory required for data: 314800
I0428 20:21:47.462471  1825 layer_factory.hpp:77] Creating layer conv0
I0428 20:21:47.462478  1825 net.cpp:86] Creating Layer conv0
I0428 20:21:47.462481  1825 net.cpp:408] conv0 <- data
I0428 20:21:47.462486  1825 net.cpp:382] conv0 -> conv0
I0428 20:21:47.464022  1825 net.cpp:124] Setting up conv0
I0428 20:21:47.464040  1825 net.cpp:131] Top shape: 100 50 24 24 (2880000)
I0428 20:21:47.464043  1825 net.cpp:139] Memory required for data: 11834800
I0428 20:21:47.464067  1825 layer_factory.hpp:77] Creating layer pool0
I0428 20:21:47.464073  1825 net.cpp:86] Creating Layer pool0
I0428 20:21:47.464076  1825 net.cpp:408] pool0 <- conv0
I0428 20:21:47.464082  1825 net.cpp:382] pool0 -> pool0
I0428 20:21:47.464119  1825 net.cpp:124] Setting up pool0
I0428 20:21:47.464125  1825 net.cpp:131] Top shape: 100 50 12 12 (720000)
I0428 20:21:47.464128  1825 net.cpp:139] Memory required for data: 14714800
I0428 20:21:47.464136  1825 layer_factory.hpp:77] Creating layer conv1
I0428 20:21:47.464144  1825 net.cpp:86] Creating Layer conv1
I0428 20:21:47.464148  1825 net.cpp:408] conv1 <- pool0
I0428 20:21:47.464153  1825 net.cpp:382] conv1 -> conv1
I0428 20:21:47.466054  1825 net.cpp:124] Setting up conv1
I0428 20:21:47.466069  1825 net.cpp:131] Top shape: 100 50 8 8 (320000)
I0428 20:21:47.466073  1825 net.cpp:139] Memory required for data: 15994800
I0428 20:21:47.466083  1825 layer_factory.hpp:77] Creating layer pool1
I0428 20:21:47.466089  1825 net.cpp:86] Creating Layer pool1
I0428 20:21:47.466101  1825 net.cpp:408] pool1 <- conv1
I0428 20:21:47.466112  1825 net.cpp:382] pool1 -> pool1
I0428 20:21:47.466150  1825 net.cpp:124] Setting up pool1
I0428 20:21:47.466156  1825 net.cpp:131] Top shape: 100 50 4 4 (80000)
I0428 20:21:47.466159  1825 net.cpp:139] Memory required for data: 16314800
I0428 20:21:47.466162  1825 layer_factory.hpp:77] Creating layer ip1
I0428 20:21:47.466173  1825 net.cpp:86] Creating Layer ip1
I0428 20:21:47.466176  1825 net.cpp:408] ip1 <- pool1
I0428 20:21:47.466181  1825 net.cpp:382] ip1 -> ip1
I0428 20:21:47.466413  1825 net.cpp:124] Setting up ip1
I0428 20:21:47.466420  1825 net.cpp:131] Top shape: 100 25 (2500)
I0428 20:21:47.466434  1825 net.cpp:139] Memory required for data: 16324800
I0428 20:21:47.466440  1825 layer_factory.hpp:77] Creating layer relu1
I0428 20:21:47.466445  1825 net.cpp:86] Creating Layer relu1
I0428 20:21:47.466447  1825 net.cpp:408] relu1 <- ip1
I0428 20:21:47.466451  1825 net.cpp:369] relu1 -> ip1 (in-place)
I0428 20:21:47.466701  1825 net.cpp:124] Setting up relu1
I0428 20:21:47.466711  1825 net.cpp:131] Top shape: 100 25 (2500)
I0428 20:21:47.466714  1825 net.cpp:139] Memory required for data: 16334800
I0428 20:21:47.466717  1825 layer_factory.hpp:77] Creating layer ip2
I0428 20:21:47.466724  1825 net.cpp:86] Creating Layer ip2
I0428 20:21:47.466728  1825 net.cpp:408] ip2 <- ip1
I0428 20:21:47.466733  1825 net.cpp:382] ip2 -> ip2
I0428 20:21:47.466831  1825 net.cpp:124] Setting up ip2
I0428 20:21:47.466840  1825 net.cpp:131] Top shape: 100 25 (2500)
I0428 20:21:47.466842  1825 net.cpp:139] Memory required for data: 16344800
I0428 20:21:47.466847  1825 layer_factory.hpp:77] Creating layer relu2
I0428 20:21:47.466852  1825 net.cpp:86] Creating Layer relu2
I0428 20:21:47.466856  1825 net.cpp:408] relu2 <- ip2
I0428 20:21:47.466859  1825 net.cpp:369] relu2 -> ip2 (in-place)
I0428 20:21:47.467077  1825 net.cpp:124] Setting up relu2
I0428 20:21:47.467085  1825 net.cpp:131] Top shape: 100 25 (2500)
I0428 20:21:47.467089  1825 net.cpp:139] Memory required for data: 16354800
I0428 20:21:47.467108  1825 layer_factory.hpp:77] Creating layer ip3
I0428 20:21:47.467118  1825 net.cpp:86] Creating Layer ip3
I0428 20:21:47.467123  1825 net.cpp:408] ip3 <- ip2
I0428 20:21:47.467128  1825 net.cpp:382] ip3 -> ip3
I0428 20:21:47.467239  1825 net.cpp:124] Setting up ip3
I0428 20:21:47.467247  1825 net.cpp:131] Top shape: 100 10 (1000)
I0428 20:21:47.467250  1825 net.cpp:139] Memory required for data: 16358800
I0428 20:21:47.467257  1825 layer_factory.hpp:77] Creating layer relu3
I0428 20:21:47.467263  1825 net.cpp:86] Creating Layer relu3
I0428 20:21:47.467267  1825 net.cpp:408] relu3 <- ip3
I0428 20:21:47.467272  1825 net.cpp:369] relu3 -> ip3 (in-place)
I0428 20:21:47.468055  1825 net.cpp:124] Setting up relu3
I0428 20:21:47.468066  1825 net.cpp:131] Top shape: 100 10 (1000)
I0428 20:21:47.468070  1825 net.cpp:139] Memory required for data: 16362800
I0428 20:21:47.468073  1825 layer_factory.hpp:77] Creating layer ip3_relu3_0_split
I0428 20:21:47.468078  1825 net.cpp:86] Creating Layer ip3_relu3_0_split
I0428 20:21:47.468081  1825 net.cpp:408] ip3_relu3_0_split <- ip3
I0428 20:21:47.468086  1825 net.cpp:382] ip3_relu3_0_split -> ip3_relu3_0_split_0
I0428 20:21:47.468093  1825 net.cpp:382] ip3_relu3_0_split -> ip3_relu3_0_split_1
I0428 20:21:47.468129  1825 net.cpp:124] Setting up ip3_relu3_0_split
I0428 20:21:47.468137  1825 net.cpp:131] Top shape: 100 10 (1000)
I0428 20:21:47.468139  1825 net.cpp:131] Top shape: 100 10 (1000)
I0428 20:21:47.468142  1825 net.cpp:139] Memory required for data: 16370800
I0428 20:21:47.468145  1825 layer_factory.hpp:77] Creating layer accuracy
I0428 20:21:47.468150  1825 net.cpp:86] Creating Layer accuracy
I0428 20:21:47.468153  1825 net.cpp:408] accuracy <- ip3_relu3_0_split_0
I0428 20:21:47.468158  1825 net.cpp:408] accuracy <- label_mnist_1_split_0
I0428 20:21:47.468161  1825 net.cpp:382] accuracy -> accuracy
…
