…
I0428 19:30:27.623961 22292 net.cpp:296] The NetState phase (0) differed from the phase (1) specified by a rule in layer mnist
I0428 19:30:27.623980 22292 net.cpp:296] The NetState phase (0) differed from the phase (1) specified by a rule in layer accuracy
I0428 19:30:27.624065 22292 net.cpp:53] Initializing net from parameters: 
name: "LeNet"
state {
  phase: TRAIN
  level: 0
  stage: ""
}
layer {
  name: "mnist"
  type: "Data"
  top: "data"
  top: "label"
  include {
    phase: TRAIN
  }
  transform_param {
    scale: 0.00390625
  }
  data_param {
    source: "examples/mnist/mnist_train_lmdb"
    batch_size: 64
    backend: LMDB
  }
}
layer {
  name: "conv0"
  type: "Convolution"
  bottom: "data"
  top: "conv0"
  param {
    lr_mult: 1
  }
  param {
    lr_mult: 2
  }
  convolution_param {
    num_output: 5
    kernel_size: 5
    stride: 1
    weight_filler {
      type: "xavier"
    }
    bias_filler {
      type: "constant"
    }
  }
}
layer {
  name: "pool0"
  type: "Pooling"
  bottom: "conv0"
  top: "pool0"
  pooling_param {
    pool: MAX
    kernel_size: 2
    stride: 2
  }
}
layer {
  name: "ip1"
  type: "InnerProduct"
  bottom: "pool0"
  top: "ip1"
  param {
    lr_mult: 1
  }
  param {
    lr_mult: 2
  }
  inner_product_param {
    num_output: 10
    weight_filler {
      type: "xavier"
    }
    bias_filler {
      type: "constant"
    }
  }
}
layer {
  name: "relu1"
  type: "ReLU"
  bottom: "ip1"
  top: "ip1"
}
layer {
  name: "ip2"
  type: "InnerProduct"
  bottom: "ip1"
  top: "ip2"
  param {
    lr_mult: 1
  }
  param {
    lr_mult: 2
  }
  inner_product_param {
    num_output: 10
    weight_filler {
      type: "xavier"
    }
    bias_filler {
      type: "constant"
    }
  }
}
layer {
  name: "relu2"
  type: "ReLU"
  bottom: "ip2"
  top: "ip2"
}
layer {
  name: "ip3"
  type: "InnerProduct"
  bottom: "ip2"
  top: "ip3"
  param {
    lr_mult: 1
  }
  param {
    lr_mult: 2
  }
  inner_product_param {
    num_output: 10
    weight_filler {
      type: "xavier"
    }
    bias_filler {
      type: "constant"
    }
  }
}
layer {
  name: "relu3"
  type: "ReLU"
  bottom: "ip3"
  top: "ip3"
}
layer {
  name: "loss"
  type: "SoftmaxWithLoss"
  bottom: "ip3"
  bottom: "label"
  top: "loss"
}
I0428 19:30:27.624142 22292 layer_factory.hpp:77] Creating layer mnist
I0428 19:30:27.624241 22292 db_lmdb.cpp:35] Opened lmdb examples/mnist/mnist_train_lmdb
I0428 19:30:27.624267 22292 net.cpp:86] Creating Layer mnist
I0428 19:30:27.624276 22292 net.cpp:382] mnist -> data
I0428 19:30:27.624301 22292 net.cpp:382] mnist -> label
I0428 19:30:27.625412 22292 data_layer.cpp:45] output data size: 64,1,28,28
I0428 19:30:27.627874 22292 net.cpp:124] Setting up mnist
I0428 19:30:27.627892 22292 net.cpp:131] Top shape: 64 1 28 28 (50176)
I0428 19:30:27.627897 22292 net.cpp:131] Top shape: 64 (64)
I0428 19:30:27.627900 22292 net.cpp:139] Memory required for data: 200960
I0428 19:30:27.627907 22292 layer_factory.hpp:77] Creating layer conv0
I0428 19:30:27.627954 22292 net.cpp:86] Creating Layer conv0
I0428 19:30:27.627964 22292 net.cpp:408] conv0 <- data
I0428 19:30:27.627975 22292 net.cpp:382] conv0 -> conv0
I0428 19:30:27.918542 22292 net.cpp:124] Setting up conv0
I0428 19:30:27.918571 22292 net.cpp:131] Top shape: 64 5 24 24 (184320)
I0428 19:30:27.918576 22292 net.cpp:139] Memory required for data: 938240
I0428 19:30:27.918593 22292 layer_factory.hpp:77] Creating layer pool0
I0428 19:30:27.918609 22292 net.cpp:86] Creating Layer pool0
I0428 19:30:27.918633 22292 net.cpp:408] pool0 <- conv0
I0428 19:30:27.918642 22292 net.cpp:382] pool0 -> pool0
I0428 19:30:27.918699 22292 net.cpp:124] Setting up pool0
I0428 19:30:27.918707 22292 net.cpp:131] Top shape: 64 5 12 12 (46080)
I0428 19:30:27.918710 22292 net.cpp:139] Memory required for data: 1122560
I0428 19:30:27.918715 22292 layer_factory.hpp:77] Creating layer ip1
I0428 19:30:27.918723 22292 net.cpp:86] Creating Layer ip1
I0428 19:30:27.918727 22292 net.cpp:408] ip1 <- pool0
I0428 19:30:27.918735 22292 net.cpp:382] ip1 -> ip1
I0428 19:30:27.919852 22292 net.cpp:124] Setting up ip1
I0428 19:30:27.919867 22292 net.cpp:131] Top shape: 64 10 (640)
I0428 19:30:27.919872 22292 net.cpp:139] Memory required for data: 1125120
I0428 19:30:27.919880 22292 layer_factory.hpp:77] Creating layer relu1
I0428 19:30:27.919889 22292 net.cpp:86] Creating Layer relu1
I0428 19:30:27.919893 22292 net.cpp:408] relu1 <- ip1
I0428 19:30:27.919899 22292 net.cpp:369] relu1 -> ip1 (in-place)
I0428 19:30:27.920125 22292 net.cpp:124] Setting up relu1
I0428 19:30:27.920135 22292 net.cpp:131] Top shape: 64 10 (640)
I0428 19:30:27.920138 22292 net.cpp:139] Memory required for data: 1127680
I0428 19:30:27.920141 22292 layer_factory.hpp:77] Creating layer ip2
I0428 19:30:27.920151 22292 net.cpp:86] Creating Layer ip2
I0428 19:30:27.920155 22292 net.cpp:408] ip2 <- ip1
I0428 19:30:27.920162 22292 net.cpp:382] ip2 -> ip2
I0428 19:30:27.920274 22292 net.cpp:124] Setting up ip2
I0428 19:30:27.920282 22292 net.cpp:131] Top shape: 64 10 (640)
I0428 19:30:27.920285 22292 net.cpp:139] Memory required for data: 1130240
I0428 19:30:27.920295 22292 layer_factory.hpp:77] Creating layer relu2
I0428 19:30:27.920301 22292 net.cpp:86] Creating Layer relu2
I0428 19:30:27.920305 22292 net.cpp:408] relu2 <- ip2
I0428 19:30:27.920310 22292 net.cpp:369] relu2 -> ip2 (in-place)
I0428 19:30:27.921151 22292 net.cpp:124] Setting up relu2
I0428 19:30:27.921165 22292 net.cpp:131] Top shape: 64 10 (640)
I0428 19:30:27.921169 22292 net.cpp:139] Memory required for data: 1132800
I0428 19:30:27.921174 22292 layer_factory.hpp:77] Creating layer ip3
I0428 19:30:27.921182 22292 net.cpp:86] Creating Layer ip3
I0428 19:30:27.921185 22292 net.cpp:408] ip3 <- ip2
I0428 19:30:27.921192 22292 net.cpp:382] ip3 -> ip3
I0428 19:30:27.921314 22292 net.cpp:124] Setting up ip3
I0428 19:30:27.921322 22292 net.cpp:131] Top shape: 64 10 (640)
I0428 19:30:27.921325 22292 net.cpp:139] Memory required for data: 1135360
I0428 19:30:27.921332 22292 layer_factory.hpp:77] Creating layer relu3
I0428 19:30:27.921339 22292 net.cpp:86] Creating Layer relu3
I0428 19:30:27.921342 22292 net.cpp:408] relu3 <- ip3
I0428 19:30:27.921347 22292 net.cpp:369] relu3 -> ip3 (in-place)
I0428 19:30:27.921527 22292 net.cpp:124] Setting up relu3
I0428 19:30:27.921538 22292 net.cpp:131] Top shape: 64 10 (640)
I0428 19:30:27.921541 22292 net.cpp:139] Memory required for data: 1137920
I0428 19:30:27.921545 22292 layer_factory.hpp:77] Creating layer loss
I0428 19:30:27.921551 22292 net.cpp:86] Creating Layer loss
I0428 19:30:27.921555 22292 net.cpp:408] loss <- ip3
I0428 19:30:27.921560 22292 net.cpp:408] loss <- label
I0428 19:30:27.921564 22292 net.cpp:382] loss -> loss
I0428 19:30:27.921584 22292 layer_factory.hpp:77] Creating layer loss
…
I0428 19:30:27.922286 22292 solver.cpp:173] Creating test net (#0) specified by net file: ECE595/mnist/train_test/var_everything2/lenet_train_test91.prototxt
I0428 19:30:27.922314 22292 net.cpp:296] The NetState phase (1) differed from the phase (0) specified by a rule in layer mnist
I0428 19:30:27.922406 22292 net.cpp:53] Initializing net from parameters: 
name: "LeNet"
state {
  phase: TEST
}
layer {
  name: "mnist"
  type: "Data"
  top: "data"
  top: "label"
  include {
    phase: TEST
  }
  transform_param {
    scale: 0.00390625
  }
  data_param {
    source: "examples/mnist/mnist_test_lmdb"
    batch_size: 100
    backend: LMDB
  }
}
layer {
  name: "conv0"
  type: "Convolution"
  bottom: "data"
  top: "conv0"
  param {
    lr_mult: 1
  }
  param {
    lr_mult: 2
  }
  convolution_param {
    num_output: 5
    kernel_size: 5
    stride: 1
    weight_filler {
      type: "xavier"
    }
    bias_filler {
      type: "constant"
    }
  }
}
layer {
  name: "pool0"
  type: "Pooling"
  bottom: "conv0"
  top: "pool0"
  pooling_param {
    pool: MAX
    kernel_size: 2
    stride: 2
  }
}
layer {
  name: "ip1"
  type: "InnerProduct"
  bottom: "pool0"
  top: "ip1"
  param {
    lr_mult: 1
  }
  param {
    lr_mult: 2
  }
  inner_product_param {
    num_output: 10
    weight_filler {
      type: "xavier"
    }
    bias_filler {
      type: "constant"
    }
  }
}
layer {
  name: "relu1"
  type: "ReLU"
  bottom: "ip1"
  top: "ip1"
}
layer {
  name: "ip2"
  type: "InnerProduct"
  bottom: "ip1"
  top: "ip2"
  param {
    lr_mult: 1
  }
  param {
    lr_mult: 2
  }
  inner_product_param {
    num_output: 10
    weight_filler {
      type: "xavier"
    }
    bias_filler {
      type: "constant"
    }
  }
}
layer {
  name: "relu2"
  type: "ReLU"
  bottom: "ip2"
  top: "ip2"
}
layer {
  name: "ip3"
  type: "InnerProduct"
  bottom: "ip2"
  top: "ip3"
  param {
    lr_mult: 1
  }
  param {
    lr_mult: 2
  }
  inner_product_param {
    num_output: 10
    weight_filler {
      type: "xavier"
    }
    bias_filler {
      type: "constant"
    }
  }
}
layer {
  name: "relu3"
  type: "ReLU"
  bottom: "ip3"
  top: "ip3"
}
layer {
  name: "accuracy"
  type: "Accuracy"
  bottom: "ip3"
  bottom: "label"
  top: "accuracy"
  include {
    phase: TEST
  }
}
layer {
  name: "loss"
  type: "SoftmaxWithLoss"
  bottom: "ip3"
  bottom: "label"
  top: "loss"
}
I0428 19:30:27.922484 22292 layer_factory.hpp:77] Creating layer mnist
I0428 19:30:27.922535 22292 db_lmdb.cpp:35] Opened lmdb examples/mnist/mnist_test_lmdb
I0428 19:30:27.922550 22292 net.cpp:86] Creating Layer mnist
I0428 19:30:27.922555 22292 net.cpp:382] mnist -> data
I0428 19:30:27.922564 22292 net.cpp:382] mnist -> label
I0428 19:30:27.922663 22292 data_layer.cpp:45] output data size: 100,1,28,28
I0428 19:30:27.924767 22292 net.cpp:124] Setting up mnist
I0428 19:30:27.924782 22292 net.cpp:131] Top shape: 100 1 28 28 (78400)
I0428 19:30:27.924789 22292 net.cpp:131] Top shape: 100 (100)
I0428 19:30:27.924793 22292 net.cpp:139] Memory required for data: 314000
I0428 19:30:27.924798 22292 layer_factory.hpp:77] Creating layer label_mnist_1_split
I0428 19:30:27.924804 22292 net.cpp:86] Creating Layer label_mnist_1_split
I0428 19:30:27.924808 22292 net.cpp:408] label_mnist_1_split <- label
I0428 19:30:27.924821 22292 net.cpp:382] label_mnist_1_split -> label_mnist_1_split_0
I0428 19:30:27.924829 22292 net.cpp:382] label_mnist_1_split -> label_mnist_1_split_1
I0428 19:30:27.924895 22292 net.cpp:124] Setting up label_mnist_1_split
I0428 19:30:27.924901 22292 net.cpp:131] Top shape: 100 (100)
I0428 19:30:27.924904 22292 net.cpp:131] Top shape: 100 (100)
I0428 19:30:27.924907 22292 net.cpp:139] Memory required for data: 314800
I0428 19:30:27.924922 22292 layer_factory.hpp:77] Creating layer conv0
I0428 19:30:27.924934 22292 net.cpp:86] Creating Layer conv0
I0428 19:30:27.924938 22292 net.cpp:408] conv0 <- data
I0428 19:30:27.924945 22292 net.cpp:382] conv0 -> conv0
I0428 19:30:27.926658 22292 net.cpp:124] Setting up conv0
I0428 19:30:27.926674 22292 net.cpp:131] Top shape: 100 5 24 24 (288000)
I0428 19:30:27.926678 22292 net.cpp:139] Memory required for data: 1466800
I0428 19:30:27.926689 22292 layer_factory.hpp:77] Creating layer pool0
I0428 19:30:27.926697 22292 net.cpp:86] Creating Layer pool0
I0428 19:30:27.926702 22292 net.cpp:408] pool0 <- conv0
I0428 19:30:27.926707 22292 net.cpp:382] pool0 -> pool0
I0428 19:30:27.926751 22292 net.cpp:124] Setting up pool0
I0428 19:30:27.926758 22292 net.cpp:131] Top shape: 100 5 12 12 (72000)
I0428 19:30:27.926760 22292 net.cpp:139] Memory required for data: 1754800
I0428 19:30:27.926764 22292 layer_factory.hpp:77] Creating layer ip1
I0428 19:30:27.926772 22292 net.cpp:86] Creating Layer ip1
I0428 19:30:27.926776 22292 net.cpp:408] ip1 <- pool0
I0428 19:30:27.926781 22292 net.cpp:382] ip1 -> ip1
I0428 19:30:27.926944 22292 net.cpp:124] Setting up ip1
I0428 19:30:27.926952 22292 net.cpp:131] Top shape: 100 10 (1000)
I0428 19:30:27.926956 22292 net.cpp:139] Memory required for data: 1758800
I0428 19:30:27.926964 22292 layer_factory.hpp:77] Creating layer relu1
I0428 19:30:27.926970 22292 net.cpp:86] Creating Layer relu1
I0428 19:30:27.926972 22292 net.cpp:408] relu1 <- ip1
I0428 19:30:27.926978 22292 net.cpp:369] relu1 -> ip1 (in-place)
I0428 19:30:27.927168 22292 net.cpp:124] Setting up relu1
I0428 19:30:27.927177 22292 net.cpp:131] Top shape: 100 10 (1000)
I0428 19:30:27.927181 22292 net.cpp:139] Memory required for data: 1762800
I0428 19:30:27.927186 22292 layer_factory.hpp:77] Creating layer ip2
I0428 19:30:27.927192 22292 net.cpp:86] Creating Layer ip2
I0428 19:30:27.927196 22292 net.cpp:408] ip2 <- ip1
I0428 19:30:27.927202 22292 net.cpp:382] ip2 -> ip2
I0428 19:30:27.927314 22292 net.cpp:124] Setting up ip2
I0428 19:30:27.927323 22292 net.cpp:131] Top shape: 100 10 (1000)
I0428 19:30:27.927326 22292 net.cpp:139] Memory required for data: 1766800
I0428 19:30:27.927335 22292 layer_factory.hpp:77] Creating layer relu2
I0428 19:30:27.927340 22292 net.cpp:86] Creating Layer relu2
I0428 19:30:27.927345 22292 net.cpp:408] relu2 <- ip2
I0428 19:30:27.927350 22292 net.cpp:369] relu2 -> ip2 (in-place)
I0428 19:30:27.928264 22292 net.cpp:124] Setting up relu2
I0428 19:30:27.928277 22292 net.cpp:131] Top shape: 100 10 (1000)
I0428 19:30:27.928282 22292 net.cpp:139] Memory required for data: 1770800
I0428 19:30:27.928285 22292 layer_factory.hpp:77] Creating layer ip3
I0428 19:30:27.928295 22292 net.cpp:86] Creating Layer ip3
I0428 19:30:27.928299 22292 net.cpp:408] ip3 <- ip2
I0428 19:30:27.928306 22292 net.cpp:382] ip3 -> ip3
I0428 19:30:27.928463 22292 net.cpp:124] Setting up ip3
I0428 19:30:27.928472 22292 net.cpp:131] Top shape: 100 10 (1000)
I0428 19:30:27.928477 22292 net.cpp:139] Memory required for data: 1774800
I0428 19:30:27.928483 22292 layer_factory.hpp:77] Creating layer relu3
I0428 19:30:27.928488 22292 net.cpp:86] Creating Layer relu3
I0428 19:30:27.928491 22292 net.cpp:408] relu3 <- ip3
I0428 19:30:27.928499 22292 net.cpp:369] relu3 -> ip3 (in-place)
I0428 19:30:27.928684 22292 net.cpp:124] Setting up relu3
I0428 19:30:27.928694 22292 net.cpp:131] Top shape: 100 10 (1000)
I0428 19:30:27.928699 22292 net.cpp:139] Memory required for data: 1778800
I0428 19:30:27.928702 22292 layer_factory.hpp:77] Creating layer ip3_relu3_0_split
I0428 19:30:27.928709 22292 net.cpp:86] Creating Layer ip3_relu3_0_split
I0428 19:30:27.928712 22292 net.cpp:408] ip3_relu3_0_split <- ip3
I0428 19:30:27.928719 22292 net.cpp:382] ip3_relu3_0_split -> ip3_relu3_0_split_0
I0428 19:30:27.928725 22292 net.cpp:382] ip3_relu3_0_split -> ip3_relu3_0_split_1
I0428 19:30:27.928766 22292 net.cpp:124] Setting up ip3_relu3_0_split
I0428 19:30:27.928774 22292 net.cpp:131] Top shape: 100 10 (1000)
I0428 19:30:27.928778 22292 net.cpp:131] Top shape: 100 10 (1000)
I0428 19:30:27.928792 22292 net.cpp:139] Memory required for data: 1786800
I0428 19:30:27.928797 22292 layer_factory.hpp:77] Creating layer accuracy
I0428 19:30:27.928807 22292 net.cpp:86] Creating Layer accuracy
I0428 19:30:27.928820 22292 net.cpp:408] accuracy <- ip3_relu3_0_split_0
I0428 19:30:27.928825 22292 net.cpp:408] accuracy <- label_mnist_1_split_0
I0428 19:30:27.928833 22292 net.cpp:382] accuracy -> accuracy
…
