…
I0428 20:35:35.458107  4643 net.cpp:296] The NetState phase (0) differed from the phase (1) specified by a rule in layer mnist
I0428 20:35:35.458140  4643 net.cpp:296] The NetState phase (0) differed from the phase (1) specified by a rule in layer accuracy
I0428 20:35:35.458220  4643 net.cpp:53] Initializing net from parameters: 
name: "LeNet"
state {
  phase: TRAIN
  level: 0
  stage: ""
}
layer {
  name: "mnist"
  type: "Data"
  top: "data"
  top: "label"
  include {
    phase: TRAIN
  }
  transform_param {
    scale: 0.00390625
  }
  data_param {
    source: "examples/mnist/mnist_train_lmdb"
    batch_size: 64
    backend: LMDB
  }
}
layer {
  name: "conv0"
  type: "Convolution"
  bottom: "data"
  top: "conv0"
  param {
    lr_mult: 1
  }
  param {
    lr_mult: 2
  }
  convolution_param {
    num_output: 100
    kernel_size: 5
    stride: 1
    weight_filler {
      type: "xavier"
    }
    bias_filler {
      type: "constant"
    }
  }
}
layer {
  name: "pool0"
  type: "Pooling"
  bottom: "conv0"
  top: "pool0"
  pooling_param {
    pool: MAX
    kernel_size: 2
    stride: 2
  }
}
layer {
  name: "conv1"
  type: "Convolution"
  bottom: "pool0"
  top: "conv1"
  param {
    lr_mult: 1
  }
  param {
    lr_mult: 2
  }
  convolution_param {
    num_output: 50
    kernel_size: 5
    stride: 1
    weight_filler {
      type: "xavier"
    }
    bias_filler {
      type: "constant"
    }
  }
}
layer {
  name: "pool1"
  type: "Pooling"
  bottom: "conv1"
  top: "pool1"
  pooling_param {
    pool: MAX
    kernel_size: 2
    stride: 2
  }
}
layer {
  name: "ip1"
  type: "InnerProduct"
  bottom: "pool1"
  top: "ip1"
  param {
    lr_mult: 1
  }
  param {
    lr_mult: 2
  }
  inner_product_param {
    num_output: 25
    weight_filler {
      type: "xavier"
    }
    bias_filler {
      type: "constant"
    }
  }
}
layer {
  name: "relu1"
  type: "ReLU"
  bottom: "ip1"
  top: "ip1"
}
layer {
  name: "ip2"
  type: "InnerProduct"
  bottom: "ip1"
  top: "ip2"
  param {
    lr_mult: 1
  }
  param {
    lr_mult: 2
  }
  inner_product_param {
    num_output: 25
    weight_filler {
      type: "xavier"
    }
    bias_filler {
      type: "constant"
    }
  }
}
layer {
  name: "relu2"
  type: "ReLU"
  bottom: "ip2"
  top: "ip2"
}
layer {
  name: "ip3"
  type: "InnerProduct"
  bottom: "ip2"
  top: "ip3"
  param {
    lr_mult: 1
  }
  param {
    lr_mult: 2
  }
  inner_product_param {
    num_output: 10
    weight_filler {
      type: "xavier"
    }
    bias_filler {
      type: "constant"
    }
  }
}
layer {
  name: "relu3"
  type: "ReLU"
  bottom: "ip3"
  top: "ip3"
}
layer {
  name: "loss"
  type: "SoftmaxWithLoss"
  bottom: "ip3"
  bottom: "label"
  top: "loss"
}
I0428 20:35:35.458283  4643 layer_factory.hpp:77] Creating layer mnist
I0428 20:35:35.458366  4643 db_lmdb.cpp:35] Opened lmdb examples/mnist/mnist_train_lmdb
I0428 20:35:35.458385  4643 net.cpp:86] Creating Layer mnist
I0428 20:35:35.458394  4643 net.cpp:382] mnist -> data
I0428 20:35:35.458411  4643 net.cpp:382] mnist -> label
I0428 20:35:35.459409  4643 data_layer.cpp:45] output data size: 64,1,28,28
I0428 20:35:35.461699  4643 net.cpp:124] Setting up mnist
I0428 20:35:35.461726  4643 net.cpp:131] Top shape: 64 1 28 28 (50176)
I0428 20:35:35.461732  4643 net.cpp:131] Top shape: 64 (64)
I0428 20:35:35.461735  4643 net.cpp:139] Memory required for data: 200960
I0428 20:35:35.461742  4643 layer_factory.hpp:77] Creating layer conv0
I0428 20:35:35.461757  4643 net.cpp:86] Creating Layer conv0
I0428 20:35:35.461777  4643 net.cpp:408] conv0 <- data
I0428 20:35:35.461789  4643 net.cpp:382] conv0 -> conv0
I0428 20:35:35.695857  4643 net.cpp:124] Setting up conv0
I0428 20:35:35.695881  4643 net.cpp:131] Top shape: 64 100 24 24 (3686400)
I0428 20:35:35.695885  4643 net.cpp:139] Memory required for data: 14946560
I0428 20:35:35.695900  4643 layer_factory.hpp:77] Creating layer pool0
I0428 20:35:35.695912  4643 net.cpp:86] Creating Layer pool0
I0428 20:35:35.695916  4643 net.cpp:408] pool0 <- conv0
I0428 20:35:35.695921  4643 net.cpp:382] pool0 -> pool0
I0428 20:35:35.695996  4643 net.cpp:124] Setting up pool0
I0428 20:35:35.696002  4643 net.cpp:131] Top shape: 64 100 12 12 (921600)
I0428 20:35:35.696005  4643 net.cpp:139] Memory required for data: 18632960
I0428 20:35:35.696008  4643 layer_factory.hpp:77] Creating layer conv1
I0428 20:35:35.696019  4643 net.cpp:86] Creating Layer conv1
I0428 20:35:35.696022  4643 net.cpp:408] conv1 <- pool0
I0428 20:35:35.696027  4643 net.cpp:382] conv1 -> conv1
I0428 20:35:35.699378  4643 net.cpp:124] Setting up conv1
I0428 20:35:35.699409  4643 net.cpp:131] Top shape: 64 50 8 8 (204800)
I0428 20:35:35.699412  4643 net.cpp:139] Memory required for data: 19452160
I0428 20:35:35.699420  4643 layer_factory.hpp:77] Creating layer pool1
I0428 20:35:35.699427  4643 net.cpp:86] Creating Layer pool1
I0428 20:35:35.699431  4643 net.cpp:408] pool1 <- conv1
I0428 20:35:35.699436  4643 net.cpp:382] pool1 -> pool1
I0428 20:35:35.699471  4643 net.cpp:124] Setting up pool1
I0428 20:35:35.699477  4643 net.cpp:131] Top shape: 64 50 4 4 (51200)
I0428 20:35:35.699481  4643 net.cpp:139] Memory required for data: 19656960
I0428 20:35:35.699483  4643 layer_factory.hpp:77] Creating layer ip1
I0428 20:35:35.699491  4643 net.cpp:86] Creating Layer ip1
I0428 20:35:35.699493  4643 net.cpp:408] ip1 <- pool1
I0428 20:35:35.699497  4643 net.cpp:382] ip1 -> ip1
I0428 20:35:35.699708  4643 net.cpp:124] Setting up ip1
I0428 20:35:35.699717  4643 net.cpp:131] Top shape: 64 25 (1600)
I0428 20:35:35.699719  4643 net.cpp:139] Memory required for data: 19663360
I0428 20:35:35.699725  4643 layer_factory.hpp:77] Creating layer relu1
I0428 20:35:35.699731  4643 net.cpp:86] Creating Layer relu1
I0428 20:35:35.699735  4643 net.cpp:408] relu1 <- ip1
I0428 20:35:35.699739  4643 net.cpp:369] relu1 -> ip1 (in-place)
I0428 20:35:35.699892  4643 net.cpp:124] Setting up relu1
I0428 20:35:35.699900  4643 net.cpp:131] Top shape: 64 25 (1600)
I0428 20:35:35.699903  4643 net.cpp:139] Memory required for data: 19669760
I0428 20:35:35.699906  4643 layer_factory.hpp:77] Creating layer ip2
I0428 20:35:35.699913  4643 net.cpp:86] Creating Layer ip2
I0428 20:35:35.699915  4643 net.cpp:408] ip2 <- ip1
I0428 20:35:35.699919  4643 net.cpp:382] ip2 -> ip2
I0428 20:35:35.700007  4643 net.cpp:124] Setting up ip2
I0428 20:35:35.700014  4643 net.cpp:131] Top shape: 64 25 (1600)
I0428 20:35:35.700017  4643 net.cpp:139] Memory required for data: 19676160
I0428 20:35:35.700022  4643 layer_factory.hpp:77] Creating layer relu2
I0428 20:35:35.700028  4643 net.cpp:86] Creating Layer relu2
I0428 20:35:35.700031  4643 net.cpp:408] relu2 <- ip2
I0428 20:35:35.700036  4643 net.cpp:369] relu2 -> ip2 (in-place)
I0428 20:35:35.700745  4643 net.cpp:124] Setting up relu2
I0428 20:35:35.700757  4643 net.cpp:131] Top shape: 64 25 (1600)
I0428 20:35:35.700775  4643 net.cpp:139] Memory required for data: 19682560
I0428 20:35:35.700779  4643 layer_factory.hpp:77] Creating layer ip3
I0428 20:35:35.700785  4643 net.cpp:86] Creating Layer ip3
I0428 20:35:35.700788  4643 net.cpp:408] ip3 <- ip2
I0428 20:35:35.700794  4643 net.cpp:382] ip3 -> ip3
I0428 20:35:35.700944  4643 net.cpp:124] Setting up ip3
I0428 20:35:35.700953  4643 net.cpp:131] Top shape: 64 10 (640)
I0428 20:35:35.700956  4643 net.cpp:139] Memory required for data: 19685120
I0428 20:35:35.700964  4643 layer_factory.hpp:77] Creating layer relu3
I0428 20:35:35.700969  4643 net.cpp:86] Creating Layer relu3
I0428 20:35:35.700973  4643 net.cpp:408] relu3 <- ip3
I0428 20:35:35.701004  4643 net.cpp:369] relu3 -> ip3 (in-place)
I0428 20:35:35.701164  4643 net.cpp:124] Setting up relu3
I0428 20:35:35.701174  4643 net.cpp:131] Top shape: 64 10 (640)
I0428 20:35:35.701176  4643 net.cpp:139] Memory required for data: 19687680
I0428 20:35:35.701180  4643 layer_factory.hpp:77] Creating layer loss
I0428 20:35:35.701186  4643 net.cpp:86] Creating Layer loss
I0428 20:35:35.701189  4643 net.cpp:408] loss <- ip3
I0428 20:35:35.701208  4643 net.cpp:408] loss <- label
I0428 20:35:35.701213  4643 net.cpp:382] loss -> loss
I0428 20:35:35.701241  4643 layer_factory.hpp:77] Creating layer loss
…
I0428 20:35:35.701864  4643 solver.cpp:173] Creating test net (#0) specified by net file: ECE595/mnist/train_test/var_everything2/lenet_train_test1623.prototxt
I0428 20:35:35.701918  4643 net.cpp:296] The NetState phase (1) differed from the phase (0) specified by a rule in layer mnist
I0428 20:35:35.702003  4643 net.cpp:53] Initializing net from parameters: 
name: "LeNet"
state {
  phase: TEST
}
layer {
  name: "mnist"
  type: "Data"
  top: "data"
  top: "label"
  include {
    phase: TEST
  }
  transform_param {
    scale: 0.00390625
  }
  data_param {
    source: "examples/mnist/mnist_test_lmdb"
    batch_size: 100
    backend: LMDB
  }
}
layer {
  name: "conv0"
  type: "Convolution"
  bottom: "data"
  top: "conv0"
  param {
    lr_mult: 1
  }
  param {
    lr_mult: 2
  }
  convolution_param {
    num_output: 100
    kernel_size: 5
    stride: 1
    weight_filler {
      type: "xavier"
    }
    bias_filler {
      type: "constant"
    }
  }
}
layer {
  name: "pool0"
  type: "Pooling"
  bottom: "conv0"
  top: "pool0"
  pooling_param {
    pool: MAX
    kernel_size: 2
    stride: 2
  }
}
layer {
  name: "conv1"
  type: "Convolution"
  bottom: "pool0"
  top: "conv1"
  param {
    lr_mult: 1
  }
  param {
    lr_mult: 2
  }
  convolution_param {
    num_output: 50
    kernel_size: 5
    stride: 1
    weight_filler {
      type: "xavier"
    }
    bias_filler {
      type: "constant"
    }
  }
}
layer {
  name: "pool1"
  type: "Pooling"
  bottom: "conv1"
  top: "pool1"
  pooling_param {
    pool: MAX
    kernel_size: 2
    stride: 2
  }
}
layer {
  name: "ip1"
  type: "InnerProduct"
  bottom: "pool1"
  top: "ip1"
  param {
    lr_mult: 1
  }
  param {
    lr_mult: 2
  }
  inner_product_param {
    num_output: 25
    weight_filler {
      type: "xavier"
    }
    bias_filler {
      type: "constant"
    }
  }
}
layer {
  name: "relu1"
  type: "ReLU"
  bottom: "ip1"
  top: "ip1"
}
layer {
  name: "ip2"
  type: "InnerProduct"
  bottom: "ip1"
  top: "ip2"
  param {
    lr_mult: 1
  }
  param {
    lr_mult: 2
  }
  inner_product_param {
    num_output: 25
    weight_filler {
      type: "xavier"
    }
    bias_filler {
      type: "constant"
    }
  }
}
layer {
  name: "relu2"
  type: "ReLU"
  bottom: "ip2"
  top: "ip2"
}
layer {
  name: "ip3"
  type: "InnerProduct"
  bottom: "ip2"
  top: "ip3"
  param {
    lr_mult: 1
  }
  param {
    lr_mult: 2
  }
  inner_product_param {
    num_output: 10
    weight_filler {
      type: "xavier"
    }
    bias_filler {
      type: "constant"
    }
  }
}
layer {
  name: "relu3"
  type: "ReLU"
  bottom: "ip3"
  top: "ip3"
}
layer {
  name: "accuracy"
  type: "Accuracy"
  bottom: "ip3"
  bottom: "label"
  top: "accuracy"
  include {
    phase: TEST
  }
}
layer {
  name: "loss"
  type: "SoftmaxWithLoss"
  bottom: "ip3"
  bottom: "label"
  top: "loss"
}
I0428 20:35:35.702080  4643 layer_factory.hpp:77] Creating layer mnist
I0428 20:35:35.702118  4643 db_lmdb.cpp:35] Opened lmdb examples/mnist/mnist_test_lmdb
I0428 20:35:35.702133  4643 net.cpp:86] Creating Layer mnist
I0428 20:35:35.702138  4643 net.cpp:382] mnist -> data
I0428 20:35:35.702147  4643 net.cpp:382] mnist -> label
I0428 20:35:35.702225  4643 data_layer.cpp:45] output data size: 100,1,28,28
I0428 20:35:35.703287  4643 net.cpp:124] Setting up mnist
I0428 20:35:35.703317  4643 net.cpp:131] Top shape: 100 1 28 28 (78400)
I0428 20:35:35.703337  4643 net.cpp:131] Top shape: 100 (100)
I0428 20:35:35.703339  4643 net.cpp:139] Memory required for data: 314000
I0428 20:35:35.703343  4643 layer_factory.hpp:77] Creating layer label_mnist_1_split
I0428 20:35:35.703349  4643 net.cpp:86] Creating Layer label_mnist_1_split
I0428 20:35:35.703353  4643 net.cpp:408] label_mnist_1_split <- label
I0428 20:35:35.703357  4643 net.cpp:382] label_mnist_1_split -> label_mnist_1_split_0
I0428 20:35:35.703363  4643 net.cpp:382] label_mnist_1_split -> label_mnist_1_split_1
I0428 20:35:35.703450  4643 net.cpp:124] Setting up label_mnist_1_split
I0428 20:35:35.703459  4643 net.cpp:131] Top shape: 100 (100)
I0428 20:35:35.703462  4643 net.cpp:131] Top shape: 100 (100)
I0428 20:35:35.703465  4643 net.cpp:139] Memory required for data: 314800
I0428 20:35:35.703469  4643 layer_factory.hpp:77] Creating layer conv0
I0428 20:35:35.703479  4643 net.cpp:86] Creating Layer conv0
I0428 20:35:35.703481  4643 net.cpp:408] conv0 <- data
I0428 20:35:35.703487  4643 net.cpp:382] conv0 -> conv0
I0428 20:35:35.705013  4643 net.cpp:124] Setting up conv0
I0428 20:35:35.705042  4643 net.cpp:131] Top shape: 100 100 24 24 (5760000)
I0428 20:35:35.705063  4643 net.cpp:139] Memory required for data: 23354800
I0428 20:35:35.705072  4643 layer_factory.hpp:77] Creating layer pool0
I0428 20:35:35.705083  4643 net.cpp:86] Creating Layer pool0
I0428 20:35:35.705087  4643 net.cpp:408] pool0 <- conv0
I0428 20:35:35.705092  4643 net.cpp:382] pool0 -> pool0
I0428 20:35:35.705132  4643 net.cpp:124] Setting up pool0
I0428 20:35:35.705137  4643 net.cpp:131] Top shape: 100 100 12 12 (1440000)
I0428 20:35:35.705142  4643 net.cpp:139] Memory required for data: 29114800
I0428 20:35:35.705158  4643 layer_factory.hpp:77] Creating layer conv1
I0428 20:35:35.705168  4643 net.cpp:86] Creating Layer conv1
I0428 20:35:35.705171  4643 net.cpp:408] conv1 <- pool0
I0428 20:35:35.705178  4643 net.cpp:382] conv1 -> conv1
I0428 20:35:35.708432  4643 net.cpp:124] Setting up conv1
I0428 20:35:35.708461  4643 net.cpp:131] Top shape: 100 50 8 8 (320000)
I0428 20:35:35.708465  4643 net.cpp:139] Memory required for data: 30394800
I0428 20:35:35.708473  4643 layer_factory.hpp:77] Creating layer pool1
I0428 20:35:35.708479  4643 net.cpp:86] Creating Layer pool1
I0428 20:35:35.708483  4643 net.cpp:408] pool1 <- conv1
I0428 20:35:35.708489  4643 net.cpp:382] pool1 -> pool1
I0428 20:35:35.708525  4643 net.cpp:124] Setting up pool1
I0428 20:35:35.708533  4643 net.cpp:131] Top shape: 100 50 4 4 (80000)
I0428 20:35:35.708535  4643 net.cpp:139] Memory required for data: 30714800
I0428 20:35:35.708537  4643 layer_factory.hpp:77] Creating layer ip1
I0428 20:35:35.708544  4643 net.cpp:86] Creating Layer ip1
I0428 20:35:35.708547  4643 net.cpp:408] ip1 <- pool1
I0428 20:35:35.708552  4643 net.cpp:382] ip1 -> ip1
I0428 20:35:35.708767  4643 net.cpp:124] Setting up ip1
I0428 20:35:35.708786  4643 net.cpp:131] Top shape: 100 25 (2500)
I0428 20:35:35.708788  4643 net.cpp:139] Memory required for data: 30724800
I0428 20:35:35.708797  4643 layer_factory.hpp:77] Creating layer relu1
I0428 20:35:35.708802  4643 net.cpp:86] Creating Layer relu1
I0428 20:35:35.708806  4643 net.cpp:408] relu1 <- ip1
I0428 20:35:35.708850  4643 net.cpp:369] relu1 -> ip1 (in-place)
I0428 20:35:35.709043  4643 net.cpp:124] Setting up relu1
I0428 20:35:35.709053  4643 net.cpp:131] Top shape: 100 25 (2500)
I0428 20:35:35.709056  4643 net.cpp:139] Memory required for data: 30734800
I0428 20:35:35.709060  4643 layer_factory.hpp:77] Creating layer ip2
I0428 20:35:35.709069  4643 net.cpp:86] Creating Layer ip2
I0428 20:35:35.709072  4643 net.cpp:408] ip2 <- ip1
I0428 20:35:35.709077  4643 net.cpp:382] ip2 -> ip2
I0428 20:35:35.709236  4643 net.cpp:124] Setting up ip2
I0428 20:35:35.709244  4643 net.cpp:131] Top shape: 100 25 (2500)
I0428 20:35:35.709246  4643 net.cpp:139] Memory required for data: 30744800
I0428 20:35:35.709252  4643 layer_factory.hpp:77] Creating layer relu2
I0428 20:35:35.709257  4643 net.cpp:86] Creating Layer relu2
I0428 20:35:35.709260  4643 net.cpp:408] relu2 <- ip2
I0428 20:35:35.709265  4643 net.cpp:369] relu2 -> ip2 (in-place)
I0428 20:35:35.709462  4643 net.cpp:124] Setting up relu2
I0428 20:35:35.709470  4643 net.cpp:131] Top shape: 100 25 (2500)
I0428 20:35:35.709475  4643 net.cpp:139] Memory required for data: 30754800
I0428 20:35:35.709477  4643 layer_factory.hpp:77] Creating layer ip3
I0428 20:35:35.709483  4643 net.cpp:86] Creating Layer ip3
I0428 20:35:35.709487  4643 net.cpp:408] ip3 <- ip2
I0428 20:35:35.709491  4643 net.cpp:382] ip3 -> ip3
I0428 20:35:35.709594  4643 net.cpp:124] Setting up ip3
I0428 20:35:35.709600  4643 net.cpp:131] Top shape: 100 10 (1000)
I0428 20:35:35.709604  4643 net.cpp:139] Memory required for data: 30758800
I0428 20:35:35.709610  4643 layer_factory.hpp:77] Creating layer relu3
I0428 20:35:35.709616  4643 net.cpp:86] Creating Layer relu3
I0428 20:35:35.709619  4643 net.cpp:408] relu3 <- ip3
I0428 20:35:35.709623  4643 net.cpp:369] relu3 -> ip3 (in-place)
I0428 20:35:35.710388  4643 net.cpp:124] Setting up relu3
I0428 20:35:35.710402  4643 net.cpp:131] Top shape: 100 10 (1000)
I0428 20:35:35.710420  4643 net.cpp:139] Memory required for data: 30762800
I0428 20:35:35.710423  4643 layer_factory.hpp:77] Creating layer ip3_relu3_0_split
I0428 20:35:35.710430  4643 net.cpp:86] Creating Layer ip3_relu3_0_split
I0428 20:35:35.710434  4643 net.cpp:408] ip3_relu3_0_split <- ip3
I0428 20:35:35.710439  4643 net.cpp:382] ip3_relu3_0_split -> ip3_relu3_0_split_0
I0428 20:35:35.710445  4643 net.cpp:382] ip3_relu3_0_split -> ip3_relu3_0_split_1
I0428 20:35:35.710485  4643 net.cpp:124] Setting up ip3_relu3_0_split
I0428 20:35:35.710490  4643 net.cpp:131] Top shape: 100 10 (1000)
I0428 20:35:35.710510  4643 net.cpp:131] Top shape: 100 10 (1000)
I0428 20:35:35.710512  4643 net.cpp:139] Memory required for data: 30770800
I0428 20:35:35.710515  4643 layer_factory.hpp:77] Creating layer accuracy
I0428 20:35:35.710520  4643 net.cpp:86] Creating Layer accuracy
I0428 20:35:35.710523  4643 net.cpp:408] accuracy <- ip3_relu3_0_split_0
I0428 20:35:35.710528  4643 net.cpp:408] accuracy <- label_mnist_1_split_0
I0428 20:35:35.710532  4643 net.cpp:382] accuracy -> accuracy
…
