…
I0428 20:33:58.369105  4397 net.cpp:296] The NetState phase (0) differed from the phase (1) specified by a rule in layer mnist
I0428 20:33:58.369125  4397 net.cpp:296] The NetState phase (0) differed from the phase (1) specified by a rule in layer accuracy
I0428 20:33:58.369232  4397 net.cpp:53] Initializing net from parameters: 
name: "LeNet"
state {
  phase: TRAIN
  level: 0
  stage: ""
}
layer {
  name: "mnist"
  type: "Data"
  top: "data"
  top: "label"
  include {
    phase: TRAIN
  }
  transform_param {
    scale: 0.00390625
  }
  data_param {
    source: "examples/mnist/mnist_train_lmdb"
    batch_size: 64
    backend: LMDB
  }
}
layer {
  name: "conv0"
  type: "Convolution"
  bottom: "data"
  top: "conv0"
  param {
    lr_mult: 1
  }
  param {
    lr_mult: 2
  }
  convolution_param {
    num_output: 100
    kernel_size: 5
    stride: 1
    weight_filler {
      type: "xavier"
    }
    bias_filler {
      type: "constant"
    }
  }
}
layer {
  name: "pool0"
  type: "Pooling"
  bottom: "conv0"
  top: "pool0"
  pooling_param {
    pool: MAX
    kernel_size: 2
    stride: 2
  }
}
layer {
  name: "conv1"
  type: "Convolution"
  bottom: "pool0"
  top: "conv1"
  param {
    lr_mult: 1
  }
  param {
    lr_mult: 2
  }
  convolution_param {
    num_output: 25
    kernel_size: 5
    stride: 1
    weight_filler {
      type: "xavier"
    }
    bias_filler {
      type: "constant"
    }
  }
}
layer {
  name: "pool1"
  type: "Pooling"
  bottom: "conv1"
  top: "pool1"
  pooling_param {
    pool: MAX
    kernel_size: 2
    stride: 2
  }
}
layer {
  name: "ip1"
  type: "InnerProduct"
  bottom: "pool1"
  top: "ip1"
  param {
    lr_mult: 1
  }
  param {
    lr_mult: 2
  }
  inner_product_param {
    num_output: 50
    weight_filler {
      type: "xavier"
    }
    bias_filler {
      type: "constant"
    }
  }
}
layer {
  name: "relu1"
  type: "ReLU"
  bottom: "ip1"
  top: "ip1"
}
layer {
  name: "ip2"
  type: "InnerProduct"
  bottom: "ip1"
  top: "ip2"
  param {
    lr_mult: 1
  }
  param {
    lr_mult: 2
  }
  inner_product_param {
    num_output: 50
    weight_filler {
      type: "xavier"
    }
    bias_filler {
      type: "constant"
    }
  }
}
layer {
  name: "relu2"
  type: "ReLU"
  bottom: "ip2"
  top: "ip2"
}
layer {
  name: "ip3"
  type: "InnerProduct"
  bottom: "ip2"
  top: "ip3"
  param {
    lr_mult: 1
  }
  param {
    lr_mult: 2
  }
  inner_product_param {
    num_output: 10
    weight_filler {
      type: "xavier"
    }
    bias_filler {
      type: "constant"
    }
  }
}
layer {
  name: "relu3"
  type: "ReLU"
  bottom: "ip3"
  top: "ip3"
}
layer {
  name: "loss"
  type: "SoftmaxWithLoss"
  bottom: "ip3"
  bottom: "label"
  top: "loss"
}
I0428 20:33:58.369313  4397 layer_factory.hpp:77] Creating layer mnist
I0428 20:33:58.369411  4397 db_lmdb.cpp:35] Opened lmdb examples/mnist/mnist_train_lmdb
I0428 20:33:58.369438  4397 net.cpp:86] Creating Layer mnist
I0428 20:33:58.369447  4397 net.cpp:382] mnist -> data
I0428 20:33:58.369472  4397 net.cpp:382] mnist -> label
I0428 20:33:58.370571  4397 data_layer.cpp:45] output data size: 64,1,28,28
I0428 20:33:58.373054  4397 net.cpp:124] Setting up mnist
I0428 20:33:58.373072  4397 net.cpp:131] Top shape: 64 1 28 28 (50176)
I0428 20:33:58.373078  4397 net.cpp:131] Top shape: 64 (64)
I0428 20:33:58.373082  4397 net.cpp:139] Memory required for data: 200960
I0428 20:33:58.373090  4397 layer_factory.hpp:77] Creating layer conv0
I0428 20:33:58.373108  4397 net.cpp:86] Creating Layer conv0
I0428 20:33:58.373129  4397 net.cpp:408] conv0 <- data
I0428 20:33:58.373142  4397 net.cpp:382] conv0 -> conv0
I0428 20:33:58.656494  4397 net.cpp:124] Setting up conv0
I0428 20:33:58.656520  4397 net.cpp:131] Top shape: 64 100 24 24 (3686400)
I0428 20:33:58.656524  4397 net.cpp:139] Memory required for data: 14946560
I0428 20:33:58.656539  4397 layer_factory.hpp:77] Creating layer pool0
I0428 20:33:58.656551  4397 net.cpp:86] Creating Layer pool0
I0428 20:33:58.656554  4397 net.cpp:408] pool0 <- conv0
I0428 20:33:58.656560  4397 net.cpp:382] pool0 -> pool0
I0428 20:33:58.656605  4397 net.cpp:124] Setting up pool0
I0428 20:33:58.656610  4397 net.cpp:131] Top shape: 64 100 12 12 (921600)
I0428 20:33:58.656613  4397 net.cpp:139] Memory required for data: 18632960
I0428 20:33:58.656615  4397 layer_factory.hpp:77] Creating layer conv1
I0428 20:33:58.656626  4397 net.cpp:86] Creating Layer conv1
I0428 20:33:58.656630  4397 net.cpp:408] conv1 <- pool0
I0428 20:33:58.656633  4397 net.cpp:382] conv1 -> conv1
I0428 20:33:58.658838  4397 net.cpp:124] Setting up conv1
I0428 20:33:58.658869  4397 net.cpp:131] Top shape: 64 25 8 8 (102400)
I0428 20:33:58.658872  4397 net.cpp:139] Memory required for data: 19042560
I0428 20:33:58.658880  4397 layer_factory.hpp:77] Creating layer pool1
I0428 20:33:58.658887  4397 net.cpp:86] Creating Layer pool1
I0428 20:33:58.658891  4397 net.cpp:408] pool1 <- conv1
I0428 20:33:58.658896  4397 net.cpp:382] pool1 -> pool1
I0428 20:33:58.658947  4397 net.cpp:124] Setting up pool1
I0428 20:33:58.658952  4397 net.cpp:131] Top shape: 64 25 4 4 (25600)
I0428 20:33:58.658956  4397 net.cpp:139] Memory required for data: 19144960
I0428 20:33:58.658958  4397 layer_factory.hpp:77] Creating layer ip1
I0428 20:33:58.658965  4397 net.cpp:86] Creating Layer ip1
I0428 20:33:58.658968  4397 net.cpp:408] ip1 <- pool1
I0428 20:33:58.658973  4397 net.cpp:382] ip1 -> ip1
I0428 20:33:58.659178  4397 net.cpp:124] Setting up ip1
I0428 20:33:58.659188  4397 net.cpp:131] Top shape: 64 50 (3200)
I0428 20:33:58.659190  4397 net.cpp:139] Memory required for data: 19157760
I0428 20:33:58.659198  4397 layer_factory.hpp:77] Creating layer relu1
I0428 20:33:58.659202  4397 net.cpp:86] Creating Layer relu1
I0428 20:33:58.659206  4397 net.cpp:408] relu1 <- ip1
I0428 20:33:58.659210  4397 net.cpp:369] relu1 -> ip1 (in-place)
I0428 20:33:58.659370  4397 net.cpp:124] Setting up relu1
I0428 20:33:58.659379  4397 net.cpp:131] Top shape: 64 50 (3200)
I0428 20:33:58.659382  4397 net.cpp:139] Memory required for data: 19170560
I0428 20:33:58.659385  4397 layer_factory.hpp:77] Creating layer ip2
I0428 20:33:58.659391  4397 net.cpp:86] Creating Layer ip2
I0428 20:33:58.659394  4397 net.cpp:408] ip2 <- ip1
I0428 20:33:58.659399  4397 net.cpp:382] ip2 -> ip2
I0428 20:33:58.659507  4397 net.cpp:124] Setting up ip2
I0428 20:33:58.659513  4397 net.cpp:131] Top shape: 64 50 (3200)
I0428 20:33:58.659517  4397 net.cpp:139] Memory required for data: 19183360
I0428 20:33:58.659523  4397 layer_factory.hpp:77] Creating layer relu2
I0428 20:33:58.659528  4397 net.cpp:86] Creating Layer relu2
I0428 20:33:58.659531  4397 net.cpp:408] relu2 <- ip2
I0428 20:33:58.659535  4397 net.cpp:369] relu2 -> ip2 (in-place)
I0428 20:33:58.660270  4397 net.cpp:124] Setting up relu2
I0428 20:33:58.660297  4397 net.cpp:131] Top shape: 64 50 (3200)
I0428 20:33:58.660315  4397 net.cpp:139] Memory required for data: 19196160
I0428 20:33:58.660320  4397 layer_factory.hpp:77] Creating layer ip3
I0428 20:33:58.660326  4397 net.cpp:86] Creating Layer ip3
I0428 20:33:58.660329  4397 net.cpp:408] ip3 <- ip2
I0428 20:33:58.660334  4397 net.cpp:382] ip3 -> ip3
I0428 20:33:58.660429  4397 net.cpp:124] Setting up ip3
I0428 20:33:58.660435  4397 net.cpp:131] Top shape: 64 10 (640)
I0428 20:33:58.660439  4397 net.cpp:139] Memory required for data: 19198720
I0428 20:33:58.660446  4397 layer_factory.hpp:77] Creating layer relu3
I0428 20:33:58.660451  4397 net.cpp:86] Creating Layer relu3
I0428 20:33:58.660454  4397 net.cpp:408] relu3 <- ip3
I0428 20:33:58.660472  4397 net.cpp:369] relu3 -> ip3 (in-place)
I0428 20:33:58.660630  4397 net.cpp:124] Setting up relu3
I0428 20:33:58.660640  4397 net.cpp:131] Top shape: 64 10 (640)
I0428 20:33:58.660642  4397 net.cpp:139] Memory required for data: 19201280
I0428 20:33:58.660645  4397 layer_factory.hpp:77] Creating layer loss
I0428 20:33:58.660656  4397 net.cpp:86] Creating Layer loss
I0428 20:33:58.660660  4397 net.cpp:408] loss <- ip3
I0428 20:33:58.660665  4397 net.cpp:408] loss <- label
I0428 20:33:58.660670  4397 net.cpp:382] loss -> loss
I0428 20:33:58.660682  4397 layer_factory.hpp:77] Creating layer loss
…
I0428 20:33:58.661324  4397 solver.cpp:173] Creating test net (#0) specified by net file: ECE595/mnist/train_test/var_everything2/lenet_train_test1597.prototxt
I0428 20:33:58.661394  4397 net.cpp:296] The NetState phase (1) differed from the phase (0) specified by a rule in layer mnist
I0428 20:33:58.661487  4397 net.cpp:53] Initializing net from parameters: 
name: "LeNet"
state {
  phase: TEST
}
layer {
  name: "mnist"
  type: "Data"
  top: "data"
  top: "label"
  include {
    phase: TEST
  }
  transform_param {
    scale: 0.00390625
  }
  data_param {
    source: "examples/mnist/mnist_test_lmdb"
    batch_size: 100
    backend: LMDB
  }
}
layer {
  name: "conv0"
  type: "Convolution"
  bottom: "data"
  top: "conv0"
  param {
    lr_mult: 1
  }
  param {
    lr_mult: 2
  }
  convolution_param {
    num_output: 100
    kernel_size: 5
    stride: 1
    weight_filler {
      type: "xavier"
    }
    bias_filler {
      type: "constant"
    }
  }
}
layer {
  name: "pool0"
  type: "Pooling"
  bottom: "conv0"
  top: "pool0"
  pooling_param {
    pool: MAX
    kernel_size: 2
    stride: 2
  }
}
layer {
  name: "conv1"
  type: "Convolution"
  bottom: "pool0"
  top: "conv1"
  param {
    lr_mult: 1
  }
  param {
    lr_mult: 2
  }
  convolution_param {
    num_output: 25
    kernel_size: 5
    stride: 1
    weight_filler {
      type: "xavier"
    }
    bias_filler {
      type: "constant"
    }
  }
}
layer {
  name: "pool1"
  type: "Pooling"
  bottom: "conv1"
  top: "pool1"
  pooling_param {
    pool: MAX
    kernel_size: 2
    stride: 2
  }
}
layer {
  name: "ip1"
  type: "InnerProduct"
  bottom: "pool1"
  top: "ip1"
  param {
    lr_mult: 1
  }
  param {
    lr_mult: 2
  }
  inner_product_param {
    num_output: 50
    weight_filler {
      type: "xavier"
    }
    bias_filler {
      type: "constant"
    }
  }
}
layer {
  name: "relu1"
  type: "ReLU"
  bottom: "ip1"
  top: "ip1"
}
layer {
  name: "ip2"
  type: "InnerProduct"
  bottom: "ip1"
  top: "ip2"
  param {
    lr_mult: 1
  }
  param {
    lr_mult: 2
  }
  inner_product_param {
    num_output: 50
    weight_filler {
      type: "xavier"
    }
    bias_filler {
      type: "constant"
    }
  }
}
layer {
  name: "relu2"
  type: "ReLU"
  bottom: "ip2"
  top: "ip2"
}
layer {
  name: "ip3"
  type: "InnerProduct"
  bottom: "ip2"
  top: "ip3"
  param {
    lr_mult: 1
  }
  param {
    lr_mult: 2
  }
  inner_product_param {
    num_output: 10
    weight_filler {
      type: "xavier"
    }
    bias_filler {
      type: "constant"
    }
  }
}
layer {
  name: "relu3"
  type: "ReLU"
  bottom: "ip3"
  top: "ip3"
}
layer {
  name: "accuracy"
  type: "Accuracy"
  bottom: "ip3"
  bottom: "label"
  top: "accuracy"
  include {
    phase: TEST
  }
}
layer {
  name: "loss"
  type: "SoftmaxWithLoss"
  bottom: "ip3"
  bottom: "label"
  top: "loss"
}
I0428 20:33:58.661571  4397 layer_factory.hpp:77] Creating layer mnist
I0428 20:33:58.661612  4397 db_lmdb.cpp:35] Opened lmdb examples/mnist/mnist_test_lmdb
I0428 20:33:58.661628  4397 net.cpp:86] Creating Layer mnist
I0428 20:33:58.661635  4397 net.cpp:382] mnist -> data
I0428 20:33:58.661643  4397 net.cpp:382] mnist -> label
I0428 20:33:58.661739  4397 data_layer.cpp:45] output data size: 100,1,28,28
I0428 20:33:58.663630  4397 net.cpp:124] Setting up mnist
I0428 20:33:58.663643  4397 net.cpp:131] Top shape: 100 1 28 28 (78400)
I0428 20:33:58.663663  4397 net.cpp:131] Top shape: 100 (100)
I0428 20:33:58.663666  4397 net.cpp:139] Memory required for data: 314000
I0428 20:33:58.663671  4397 layer_factory.hpp:77] Creating layer label_mnist_1_split
I0428 20:33:58.663689  4397 net.cpp:86] Creating Layer label_mnist_1_split
I0428 20:33:58.663692  4397 net.cpp:408] label_mnist_1_split <- label
I0428 20:33:58.663697  4397 net.cpp:382] label_mnist_1_split -> label_mnist_1_split_0
I0428 20:33:58.663703  4397 net.cpp:382] label_mnist_1_split -> label_mnist_1_split_1
I0428 20:33:58.663802  4397 net.cpp:124] Setting up label_mnist_1_split
I0428 20:33:58.663825  4397 net.cpp:131] Top shape: 100 (100)
I0428 20:33:58.663828  4397 net.cpp:131] Top shape: 100 (100)
I0428 20:33:58.663831  4397 net.cpp:139] Memory required for data: 314800
I0428 20:33:58.663835  4397 layer_factory.hpp:77] Creating layer conv0
I0428 20:33:58.663844  4397 net.cpp:86] Creating Layer conv0
I0428 20:33:58.663847  4397 net.cpp:408] conv0 <- data
I0428 20:33:58.663853  4397 net.cpp:382] conv0 -> conv0
I0428 20:33:58.665627  4397 net.cpp:124] Setting up conv0
I0428 20:33:58.665640  4397 net.cpp:131] Top shape: 100 100 24 24 (5760000)
I0428 20:33:58.665643  4397 net.cpp:139] Memory required for data: 23354800
I0428 20:33:58.665653  4397 layer_factory.hpp:77] Creating layer pool0
I0428 20:33:58.665658  4397 net.cpp:86] Creating Layer pool0
I0428 20:33:58.665662  4397 net.cpp:408] pool0 <- conv0
I0428 20:33:58.665666  4397 net.cpp:382] pool0 -> pool0
I0428 20:33:58.665719  4397 net.cpp:124] Setting up pool0
I0428 20:33:58.665724  4397 net.cpp:131] Top shape: 100 100 12 12 (1440000)
I0428 20:33:58.665726  4397 net.cpp:139] Memory required for data: 29114800
I0428 20:33:58.665729  4397 layer_factory.hpp:77] Creating layer conv1
I0428 20:33:58.665737  4397 net.cpp:86] Creating Layer conv1
I0428 20:33:58.665740  4397 net.cpp:408] conv1 <- pool0
I0428 20:33:58.665746  4397 net.cpp:382] conv1 -> conv1
I0428 20:33:58.667600  4397 net.cpp:124] Setting up conv1
I0428 20:33:58.667634  4397 net.cpp:131] Top shape: 100 25 8 8 (160000)
I0428 20:33:58.667639  4397 net.cpp:139] Memory required for data: 29754800
I0428 20:33:58.667647  4397 layer_factory.hpp:77] Creating layer pool1
I0428 20:33:58.667654  4397 net.cpp:86] Creating Layer pool1
I0428 20:33:58.667659  4397 net.cpp:408] pool1 <- conv1
I0428 20:33:58.667665  4397 net.cpp:382] pool1 -> pool1
I0428 20:33:58.667717  4397 net.cpp:124] Setting up pool1
I0428 20:33:58.667724  4397 net.cpp:131] Top shape: 100 25 4 4 (40000)
I0428 20:33:58.667726  4397 net.cpp:139] Memory required for data: 29914800
I0428 20:33:58.667735  4397 layer_factory.hpp:77] Creating layer ip1
I0428 20:33:58.667742  4397 net.cpp:86] Creating Layer ip1
I0428 20:33:58.667744  4397 net.cpp:408] ip1 <- pool1
I0428 20:33:58.667750  4397 net.cpp:382] ip1 -> ip1
I0428 20:33:58.667970  4397 net.cpp:124] Setting up ip1
I0428 20:33:58.667990  4397 net.cpp:131] Top shape: 100 50 (5000)
I0428 20:33:58.667994  4397 net.cpp:139] Memory required for data: 29934800
I0428 20:33:58.668001  4397 layer_factory.hpp:77] Creating layer relu1
I0428 20:33:58.668007  4397 net.cpp:86] Creating Layer relu1
I0428 20:33:58.668010  4397 net.cpp:408] relu1 <- ip1
I0428 20:33:58.668016  4397 net.cpp:369] relu1 -> ip1 (in-place)
I0428 20:33:58.668180  4397 net.cpp:124] Setting up relu1
I0428 20:33:58.668190  4397 net.cpp:131] Top shape: 100 50 (5000)
I0428 20:33:58.668200  4397 net.cpp:139] Memory required for data: 29954800
I0428 20:33:58.668202  4397 layer_factory.hpp:77] Creating layer ip2
I0428 20:33:58.668216  4397 net.cpp:86] Creating Layer ip2
I0428 20:33:58.668220  4397 net.cpp:408] ip2 <- ip1
I0428 20:33:58.668231  4397 net.cpp:382] ip2 -> ip2
I0428 20:33:58.668421  4397 net.cpp:124] Setting up ip2
I0428 20:33:58.668436  4397 net.cpp:131] Top shape: 100 50 (5000)
I0428 20:33:58.668442  4397 net.cpp:139] Memory required for data: 29974800
I0428 20:33:58.668450  4397 layer_factory.hpp:77] Creating layer relu2
I0428 20:33:58.668458  4397 net.cpp:86] Creating Layer relu2
I0428 20:33:58.668464  4397 net.cpp:408] relu2 <- ip2
I0428 20:33:58.668472  4397 net.cpp:369] relu2 -> ip2 (in-place)
I0428 20:33:58.668751  4397 net.cpp:124] Setting up relu2
I0428 20:33:58.668763  4397 net.cpp:131] Top shape: 100 50 (5000)
I0428 20:33:58.668766  4397 net.cpp:139] Memory required for data: 29994800
I0428 20:33:58.668771  4397 layer_factory.hpp:77] Creating layer ip3
I0428 20:33:58.668777  4397 net.cpp:86] Creating Layer ip3
I0428 20:33:58.668781  4397 net.cpp:408] ip3 <- ip2
I0428 20:33:58.668787  4397 net.cpp:382] ip3 -> ip3
I0428 20:33:58.668921  4397 net.cpp:124] Setting up ip3
I0428 20:33:58.668931  4397 net.cpp:131] Top shape: 100 10 (1000)
I0428 20:33:58.668941  4397 net.cpp:139] Memory required for data: 29998800
I0428 20:33:58.668949  4397 layer_factory.hpp:77] Creating layer relu3
I0428 20:33:58.668956  4397 net.cpp:86] Creating Layer relu3
I0428 20:33:58.668958  4397 net.cpp:408] relu3 <- ip3
I0428 20:33:58.668964  4397 net.cpp:369] relu3 -> ip3 (in-place)
I0428 20:33:58.669818  4397 net.cpp:124] Setting up relu3
I0428 20:33:58.669829  4397 net.cpp:131] Top shape: 100 10 (1000)
I0428 20:33:58.669850  4397 net.cpp:139] Memory required for data: 30002800
I0428 20:33:58.669854  4397 layer_factory.hpp:77] Creating layer ip3_relu3_0_split
I0428 20:33:58.669860  4397 net.cpp:86] Creating Layer ip3_relu3_0_split
I0428 20:33:58.669864  4397 net.cpp:408] ip3_relu3_0_split <- ip3
I0428 20:33:58.669868  4397 net.cpp:382] ip3_relu3_0_split -> ip3_relu3_0_split_0
I0428 20:33:58.669874  4397 net.cpp:382] ip3_relu3_0_split -> ip3_relu3_0_split_1
I0428 20:33:58.669939  4397 net.cpp:124] Setting up ip3_relu3_0_split
I0428 20:33:58.669947  4397 net.cpp:131] Top shape: 100 10 (1000)
I0428 20:33:58.669951  4397 net.cpp:131] Top shape: 100 10 (1000)
I0428 20:33:58.669960  4397 net.cpp:139] Memory required for data: 30010800
I0428 20:33:58.669962  4397 layer_factory.hpp:77] Creating layer accuracy
I0428 20:33:58.669968  4397 net.cpp:86] Creating Layer accuracy
I0428 20:33:58.669972  4397 net.cpp:408] accuracy <- ip3_relu3_0_split_0
I0428 20:33:58.669987  4397 net.cpp:408] accuracy <- label_mnist_1_split_0
I0428 20:33:58.669991  4397 net.cpp:382] accuracy -> accuracy
…
