…
I0428 20:35:20.506970  4607 net.cpp:296] The NetState phase (0) differed from the phase (1) specified by a rule in layer mnist
I0428 20:35:20.507017  4607 net.cpp:296] The NetState phase (0) differed from the phase (1) specified by a rule in layer accuracy
I0428 20:35:20.507097  4607 net.cpp:53] Initializing net from parameters: 
name: "LeNet"
state {
  phase: TRAIN
  level: 0
  stage: ""
}
layer {
  name: "mnist"
  type: "Data"
  top: "data"
  top: "label"
  include {
    phase: TRAIN
  }
  transform_param {
    scale: 0.00390625
  }
  data_param {
    source: "examples/mnist/mnist_train_lmdb"
    batch_size: 64
    backend: LMDB
  }
}
layer {
  name: "conv0"
  type: "Convolution"
  bottom: "data"
  top: "conv0"
  param {
    lr_mult: 1
  }
  param {
    lr_mult: 2
  }
  convolution_param {
    num_output: 100
    kernel_size: 5
    stride: 1
    weight_filler {
      type: "xavier"
    }
    bias_filler {
      type: "constant"
    }
  }
}
layer {
  name: "pool0"
  type: "Pooling"
  bottom: "conv0"
  top: "pool0"
  pooling_param {
    pool: MAX
    kernel_size: 2
    stride: 2
  }
}
layer {
  name: "conv1"
  type: "Convolution"
  bottom: "pool0"
  top: "conv1"
  param {
    lr_mult: 1
  }
  param {
    lr_mult: 2
  }
  convolution_param {
    num_output: 50
    kernel_size: 5
    stride: 1
    weight_filler {
      type: "xavier"
    }
    bias_filler {
      type: "constant"
    }
  }
}
layer {
  name: "pool1"
  type: "Pooling"
  bottom: "conv1"
  top: "pool1"
  pooling_param {
    pool: MAX
    kernel_size: 2
    stride: 2
  }
}
layer {
  name: "ip1"
  type: "InnerProduct"
  bottom: "pool1"
  top: "ip1"
  param {
    lr_mult: 1
  }
  param {
    lr_mult: 2
  }
  inner_product_param {
    num_output: 10
    weight_filler {
      type: "xavier"
    }
    bias_filler {
      type: "constant"
    }
  }
}
layer {
  name: "relu1"
  type: "ReLU"
  bottom: "ip1"
  top: "ip1"
}
layer {
  name: "ip2"
  type: "InnerProduct"
  bottom: "ip1"
  top: "ip2"
  param {
    lr_mult: 1
  }
  param {
    lr_mult: 2
  }
  inner_product_param {
    num_output: 50
    weight_filler {
      type: "xavier"
    }
    bias_filler {
      type: "constant"
    }
  }
}
layer {
  name: "relu2"
  type: "ReLU"
  bottom: "ip2"
  top: "ip2"
}
layer {
  name: "ip3"
  type: "InnerProduct"
  bottom: "ip2"
  top: "ip3"
  param {
    lr_mult: 1
  }
  param {
    lr_mult: 2
  }
  inner_product_param {
    num_output: 10
    weight_filler {
      type: "xavier"
    }
    bias_filler {
      type: "constant"
    }
  }
}
layer {
  name: "relu3"
  type: "ReLU"
  bottom: "ip3"
  top: "ip3"
}
layer {
  name: "loss"
  type: "SoftmaxWithLoss"
  bottom: "ip3"
  bottom: "label"
  top: "loss"
}
I0428 20:35:20.507158  4607 layer_factory.hpp:77] Creating layer mnist
I0428 20:35:20.507238  4607 db_lmdb.cpp:35] Opened lmdb examples/mnist/mnist_train_lmdb
I0428 20:35:20.507264  4607 net.cpp:86] Creating Layer mnist
I0428 20:35:20.507273  4607 net.cpp:382] mnist -> data
I0428 20:35:20.507292  4607 net.cpp:382] mnist -> label
I0428 20:35:20.508211  4607 data_layer.cpp:45] output data size: 64,1,28,28
I0428 20:35:20.510426  4607 net.cpp:124] Setting up mnist
I0428 20:35:20.510457  4607 net.cpp:131] Top shape: 64 1 28 28 (50176)
I0428 20:35:20.510463  4607 net.cpp:131] Top shape: 64 (64)
I0428 20:35:20.510466  4607 net.cpp:139] Memory required for data: 200960
I0428 20:35:20.510473  4607 layer_factory.hpp:77] Creating layer conv0
I0428 20:35:20.510485  4607 net.cpp:86] Creating Layer conv0
I0428 20:35:20.510506  4607 net.cpp:408] conv0 <- data
I0428 20:35:20.510535  4607 net.cpp:382] conv0 -> conv0
I0428 20:35:20.737529  4607 net.cpp:124] Setting up conv0
I0428 20:35:20.737572  4607 net.cpp:131] Top shape: 64 100 24 24 (3686400)
I0428 20:35:20.737576  4607 net.cpp:139] Memory required for data: 14946560
I0428 20:35:20.737591  4607 layer_factory.hpp:77] Creating layer pool0
I0428 20:35:20.737603  4607 net.cpp:86] Creating Layer pool0
I0428 20:35:20.737607  4607 net.cpp:408] pool0 <- conv0
I0428 20:35:20.737612  4607 net.cpp:382] pool0 -> pool0
I0428 20:35:20.737681  4607 net.cpp:124] Setting up pool0
I0428 20:35:20.737687  4607 net.cpp:131] Top shape: 64 100 12 12 (921600)
I0428 20:35:20.737690  4607 net.cpp:139] Memory required for data: 18632960
I0428 20:35:20.737694  4607 layer_factory.hpp:77] Creating layer conv1
I0428 20:35:20.737704  4607 net.cpp:86] Creating Layer conv1
I0428 20:35:20.737706  4607 net.cpp:408] conv1 <- pool0
I0428 20:35:20.737711  4607 net.cpp:382] conv1 -> conv1
I0428 20:35:20.740958  4607 net.cpp:124] Setting up conv1
I0428 20:35:20.740988  4607 net.cpp:131] Top shape: 64 50 8 8 (204800)
I0428 20:35:20.740993  4607 net.cpp:139] Memory required for data: 19452160
I0428 20:35:20.741000  4607 layer_factory.hpp:77] Creating layer pool1
I0428 20:35:20.741008  4607 net.cpp:86] Creating Layer pool1
I0428 20:35:20.741011  4607 net.cpp:408] pool1 <- conv1
I0428 20:35:20.741016  4607 net.cpp:382] pool1 -> pool1
I0428 20:35:20.741070  4607 net.cpp:124] Setting up pool1
I0428 20:35:20.741075  4607 net.cpp:131] Top shape: 64 50 4 4 (51200)
I0428 20:35:20.741078  4607 net.cpp:139] Memory required for data: 19656960
I0428 20:35:20.741081  4607 layer_factory.hpp:77] Creating layer ip1
I0428 20:35:20.741088  4607 net.cpp:86] Creating Layer ip1
I0428 20:35:20.741091  4607 net.cpp:408] ip1 <- pool1
I0428 20:35:20.741096  4607 net.cpp:382] ip1 -> ip1
I0428 20:35:20.742072  4607 net.cpp:124] Setting up ip1
I0428 20:35:20.742084  4607 net.cpp:131] Top shape: 64 10 (640)
I0428 20:35:20.742103  4607 net.cpp:139] Memory required for data: 19659520
I0428 20:35:20.742111  4607 layer_factory.hpp:77] Creating layer relu1
I0428 20:35:20.742117  4607 net.cpp:86] Creating Layer relu1
I0428 20:35:20.742121  4607 net.cpp:408] relu1 <- ip1
I0428 20:35:20.742125  4607 net.cpp:369] relu1 -> ip1 (in-place)
I0428 20:35:20.742290  4607 net.cpp:124] Setting up relu1
I0428 20:35:20.742300  4607 net.cpp:131] Top shape: 64 10 (640)
I0428 20:35:20.742302  4607 net.cpp:139] Memory required for data: 19662080
I0428 20:35:20.742306  4607 layer_factory.hpp:77] Creating layer ip2
I0428 20:35:20.742312  4607 net.cpp:86] Creating Layer ip2
I0428 20:35:20.742316  4607 net.cpp:408] ip2 <- ip1
I0428 20:35:20.742321  4607 net.cpp:382] ip2 -> ip2
I0428 20:35:20.742414  4607 net.cpp:124] Setting up ip2
I0428 20:35:20.742422  4607 net.cpp:131] Top shape: 64 50 (3200)
I0428 20:35:20.742425  4607 net.cpp:139] Memory required for data: 19674880
I0428 20:35:20.742430  4607 layer_factory.hpp:77] Creating layer relu2
I0428 20:35:20.742436  4607 net.cpp:86] Creating Layer relu2
I0428 20:35:20.742439  4607 net.cpp:408] relu2 <- ip2
I0428 20:35:20.742444  4607 net.cpp:369] relu2 -> ip2 (in-place)
I0428 20:35:20.743163  4607 net.cpp:124] Setting up relu2
I0428 20:35:20.743191  4607 net.cpp:131] Top shape: 64 50 (3200)
I0428 20:35:20.743196  4607 net.cpp:139] Memory required for data: 19687680
I0428 20:35:20.743198  4607 layer_factory.hpp:77] Creating layer ip3
I0428 20:35:20.743206  4607 net.cpp:86] Creating Layer ip3
I0428 20:35:20.743208  4607 net.cpp:408] ip3 <- ip2
I0428 20:35:20.743214  4607 net.cpp:382] ip3 -> ip3
I0428 20:35:20.743316  4607 net.cpp:124] Setting up ip3
I0428 20:35:20.743324  4607 net.cpp:131] Top shape: 64 10 (640)
I0428 20:35:20.743327  4607 net.cpp:139] Memory required for data: 19690240
I0428 20:35:20.743335  4607 layer_factory.hpp:77] Creating layer relu3
I0428 20:35:20.743340  4607 net.cpp:86] Creating Layer relu3
I0428 20:35:20.743342  4607 net.cpp:408] relu3 <- ip3
I0428 20:35:20.743346  4607 net.cpp:369] relu3 -> ip3 (in-place)
I0428 20:35:20.743507  4607 net.cpp:124] Setting up relu3
I0428 20:35:20.743516  4607 net.cpp:131] Top shape: 64 10 (640)
I0428 20:35:20.743520  4607 net.cpp:139] Memory required for data: 19692800
I0428 20:35:20.743522  4607 layer_factory.hpp:77] Creating layer loss
I0428 20:35:20.743528  4607 net.cpp:86] Creating Layer loss
I0428 20:35:20.743531  4607 net.cpp:408] loss <- ip3
I0428 20:35:20.743535  4607 net.cpp:408] loss <- label
I0428 20:35:20.743541  4607 net.cpp:382] loss -> loss
I0428 20:35:20.743554  4607 layer_factory.hpp:77] Creating layer loss
…
I0428 20:35:20.744212  4607 solver.cpp:173] Creating test net (#0) specified by net file: ECE595/mnist/train_test/var_everything2/lenet_train_test1619.prototxt
I0428 20:35:20.744254  4607 net.cpp:296] The NetState phase (1) differed from the phase (0) specified by a rule in layer mnist
I0428 20:35:20.744343  4607 net.cpp:53] Initializing net from parameters: 
name: "LeNet"
state {
  phase: TEST
}
layer {
  name: "mnist"
  type: "Data"
  top: "data"
  top: "label"
  include {
    phase: TEST
  }
  transform_param {
    scale: 0.00390625
  }
  data_param {
    source: "examples/mnist/mnist_test_lmdb"
    batch_size: 100
    backend: LMDB
  }
}
layer {
  name: "conv0"
  type: "Convolution"
  bottom: "data"
  top: "conv0"
  param {
    lr_mult: 1
  }
  param {
    lr_mult: 2
  }
  convolution_param {
    num_output: 100
    kernel_size: 5
    stride: 1
    weight_filler {
      type: "xavier"
    }
    bias_filler {
      type: "constant"
    }
  }
}
layer {
  name: "pool0"
  type: "Pooling"
  bottom: "conv0"
  top: "pool0"
  pooling_param {
    pool: MAX
    kernel_size: 2
    stride: 2
  }
}
layer {
  name: "conv1"
  type: "Convolution"
  bottom: "pool0"
  top: "conv1"
  param {
    lr_mult: 1
  }
  param {
    lr_mult: 2
  }
  convolution_param {
    num_output: 50
    kernel_size: 5
    stride: 1
    weight_filler {
      type: "xavier"
    }
    bias_filler {
      type: "constant"
    }
  }
}
layer {
  name: "pool1"
  type: "Pooling"
  bottom: "conv1"
  top: "pool1"
  pooling_param {
    pool: MAX
    kernel_size: 2
    stride: 2
  }
}
layer {
  name: "ip1"
  type: "InnerProduct"
  bottom: "pool1"
  top: "ip1"
  param {
    lr_mult: 1
  }
  param {
    lr_mult: 2
  }
  inner_product_param {
    num_output: 10
    weight_filler {
      type: "xavier"
    }
    bias_filler {
      type: "constant"
    }
  }
}
layer {
  name: "relu1"
  type: "ReLU"
  bottom: "ip1"
  top: "ip1"
}
layer {
  name: "ip2"
  type: "InnerProduct"
  bottom: "ip1"
  top: "ip2"
  param {
    lr_mult: 1
  }
  param {
    lr_mult: 2
  }
  inner_product_param {
    num_output: 50
    weight_filler {
      type: "xavier"
    }
    bias_filler {
      type: "constant"
    }
  }
}
layer {
  name: "relu2"
  type: "ReLU"
  bottom: "ip2"
  top: "ip2"
}
layer {
  name: "ip3"
  type: "InnerProduct"
  bottom: "ip2"
  top: "ip3"
  param {
    lr_mult: 1
  }
  param {
    lr_mult: 2
  }
  inner_product_param {
    num_output: 10
    weight_filler {
      type: "xavier"
    }
    bias_filler {
      type: "constant"
    }
  }
}
layer {
  name: "relu3"
  type: "ReLU"
  bottom: "ip3"
  top: "ip3"
}
layer {
  name: "accuracy"
  type: "Accuracy"
  bottom: "ip3"
  bottom: "label"
  top: "accuracy"
  include {
    phase: TEST
  }
}
layer {
  name: "loss"
  type: "SoftmaxWithLoss"
  bottom: "ip3"
  bottom: "label"
  top: "loss"
}
I0428 20:35:20.744420  4607 layer_factory.hpp:77] Creating layer mnist
I0428 20:35:20.744462  4607 db_lmdb.cpp:35] Opened lmdb examples/mnist/mnist_test_lmdb
I0428 20:35:20.744475  4607 net.cpp:86] Creating Layer mnist
I0428 20:35:20.744480  4607 net.cpp:382] mnist -> data
I0428 20:35:20.744488  4607 net.cpp:382] mnist -> label
I0428 20:35:20.744571  4607 data_layer.cpp:45] output data size: 100,1,28,28
I0428 20:35:20.745739  4607 net.cpp:124] Setting up mnist
I0428 20:35:20.745782  4607 net.cpp:131] Top shape: 100 1 28 28 (78400)
I0428 20:35:20.745787  4607 net.cpp:131] Top shape: 100 (100)
I0428 20:35:20.745790  4607 net.cpp:139] Memory required for data: 314000
I0428 20:35:20.745795  4607 layer_factory.hpp:77] Creating layer label_mnist_1_split
I0428 20:35:20.745800  4607 net.cpp:86] Creating Layer label_mnist_1_split
I0428 20:35:20.745803  4607 net.cpp:408] label_mnist_1_split <- label
I0428 20:35:20.745808  4607 net.cpp:382] label_mnist_1_split -> label_mnist_1_split_0
I0428 20:35:20.745815  4607 net.cpp:382] label_mnist_1_split -> label_mnist_1_split_1
I0428 20:35:20.745857  4607 net.cpp:124] Setting up label_mnist_1_split
I0428 20:35:20.745862  4607 net.cpp:131] Top shape: 100 (100)
I0428 20:35:20.745865  4607 net.cpp:131] Top shape: 100 (100)
I0428 20:35:20.745868  4607 net.cpp:139] Memory required for data: 314800
I0428 20:35:20.745870  4607 layer_factory.hpp:77] Creating layer conv0
I0428 20:35:20.745878  4607 net.cpp:86] Creating Layer conv0
I0428 20:35:20.745882  4607 net.cpp:408] conv0 <- data
I0428 20:35:20.745885  4607 net.cpp:382] conv0 -> conv0
I0428 20:35:20.747432  4607 net.cpp:124] Setting up conv0
I0428 20:35:20.747462  4607 net.cpp:131] Top shape: 100 100 24 24 (5760000)
I0428 20:35:20.747467  4607 net.cpp:139] Memory required for data: 23354800
I0428 20:35:20.747475  4607 layer_factory.hpp:77] Creating layer pool0
I0428 20:35:20.747481  4607 net.cpp:86] Creating Layer pool0
I0428 20:35:20.747484  4607 net.cpp:408] pool0 <- conv0
I0428 20:35:20.747489  4607 net.cpp:382] pool0 -> pool0
I0428 20:35:20.747524  4607 net.cpp:124] Setting up pool0
I0428 20:35:20.747529  4607 net.cpp:131] Top shape: 100 100 12 12 (1440000)
I0428 20:35:20.747532  4607 net.cpp:139] Memory required for data: 29114800
I0428 20:35:20.747535  4607 layer_factory.hpp:77] Creating layer conv1
I0428 20:35:20.747544  4607 net.cpp:86] Creating Layer conv1
I0428 20:35:20.747547  4607 net.cpp:408] conv1 <- pool0
I0428 20:35:20.747551  4607 net.cpp:382] conv1 -> conv1
I0428 20:35:20.750633  4607 net.cpp:124] Setting up conv1
I0428 20:35:20.750660  4607 net.cpp:131] Top shape: 100 50 8 8 (320000)
I0428 20:35:20.750664  4607 net.cpp:139] Memory required for data: 30394800
I0428 20:35:20.750672  4607 layer_factory.hpp:77] Creating layer pool1
I0428 20:35:20.750679  4607 net.cpp:86] Creating Layer pool1
I0428 20:35:20.750682  4607 net.cpp:408] pool1 <- conv1
I0428 20:35:20.750689  4607 net.cpp:382] pool1 -> pool1
I0428 20:35:20.750737  4607 net.cpp:124] Setting up pool1
I0428 20:35:20.750743  4607 net.cpp:131] Top shape: 100 50 4 4 (80000)
I0428 20:35:20.750747  4607 net.cpp:139] Memory required for data: 30714800
I0428 20:35:20.750751  4607 layer_factory.hpp:77] Creating layer ip1
I0428 20:35:20.750756  4607 net.cpp:86] Creating Layer ip1
I0428 20:35:20.750758  4607 net.cpp:408] ip1 <- pool1
I0428 20:35:20.750763  4607 net.cpp:382] ip1 -> ip1
I0428 20:35:20.750911  4607 net.cpp:124] Setting up ip1
I0428 20:35:20.750931  4607 net.cpp:131] Top shape: 100 10 (1000)
I0428 20:35:20.750934  4607 net.cpp:139] Memory required for data: 30718800
I0428 20:35:20.750942  4607 layer_factory.hpp:77] Creating layer relu1
I0428 20:35:20.750947  4607 net.cpp:86] Creating Layer relu1
I0428 20:35:20.750950  4607 net.cpp:408] relu1 <- ip1
I0428 20:35:20.750955  4607 net.cpp:369] relu1 -> ip1 (in-place)
I0428 20:35:20.751108  4607 net.cpp:124] Setting up relu1
I0428 20:35:20.751117  4607 net.cpp:131] Top shape: 100 10 (1000)
I0428 20:35:20.751128  4607 net.cpp:139] Memory required for data: 30722800
I0428 20:35:20.751132  4607 layer_factory.hpp:77] Creating layer ip2
I0428 20:35:20.751139  4607 net.cpp:86] Creating Layer ip2
I0428 20:35:20.751142  4607 net.cpp:408] ip2 <- ip1
I0428 20:35:20.751161  4607 net.cpp:382] ip2 -> ip2
I0428 20:35:20.751255  4607 net.cpp:124] Setting up ip2
I0428 20:35:20.751263  4607 net.cpp:131] Top shape: 100 50 (5000)
I0428 20:35:20.751266  4607 net.cpp:139] Memory required for data: 30742800
I0428 20:35:20.751274  4607 layer_factory.hpp:77] Creating layer relu2
I0428 20:35:20.751288  4607 net.cpp:86] Creating Layer relu2
I0428 20:35:20.751291  4607 net.cpp:408] relu2 <- ip2
I0428 20:35:20.751296  4607 net.cpp:369] relu2 -> ip2 (in-place)
I0428 20:35:20.751437  4607 net.cpp:124] Setting up relu2
I0428 20:35:20.751446  4607 net.cpp:131] Top shape: 100 50 (5000)
I0428 20:35:20.751449  4607 net.cpp:139] Memory required for data: 30762800
I0428 20:35:20.751452  4607 layer_factory.hpp:77] Creating layer ip3
I0428 20:35:20.751457  4607 net.cpp:86] Creating Layer ip3
I0428 20:35:20.751461  4607 net.cpp:408] ip3 <- ip2
I0428 20:35:20.751466  4607 net.cpp:382] ip3 -> ip3
I0428 20:35:20.751585  4607 net.cpp:124] Setting up ip3
I0428 20:35:20.751591  4607 net.cpp:131] Top shape: 100 10 (1000)
I0428 20:35:20.751595  4607 net.cpp:139] Memory required for data: 30766800
I0428 20:35:20.751602  4607 layer_factory.hpp:77] Creating layer relu3
I0428 20:35:20.751606  4607 net.cpp:86] Creating Layer relu3
I0428 20:35:20.751610  4607 net.cpp:408] relu3 <- ip3
I0428 20:35:20.751612  4607 net.cpp:369] relu3 -> ip3 (in-place)
I0428 20:35:20.752439  4607 net.cpp:124] Setting up relu3
I0428 20:35:20.752450  4607 net.cpp:131] Top shape: 100 10 (1000)
I0428 20:35:20.752470  4607 net.cpp:139] Memory required for data: 30770800
I0428 20:35:20.752473  4607 layer_factory.hpp:77] Creating layer ip3_relu3_0_split
I0428 20:35:20.752478  4607 net.cpp:86] Creating Layer ip3_relu3_0_split
I0428 20:35:20.752481  4607 net.cpp:408] ip3_relu3_0_split <- ip3
I0428 20:35:20.752487  4607 net.cpp:382] ip3_relu3_0_split -> ip3_relu3_0_split_0
I0428 20:35:20.752493  4607 net.cpp:382] ip3_relu3_0_split -> ip3_relu3_0_split_1
I0428 20:35:20.752544  4607 net.cpp:124] Setting up ip3_relu3_0_split
I0428 20:35:20.752564  4607 net.cpp:131] Top shape: 100 10 (1000)
I0428 20:35:20.752568  4607 net.cpp:131] Top shape: 100 10 (1000)
I0428 20:35:20.752571  4607 net.cpp:139] Memory required for data: 30778800
I0428 20:35:20.752574  4607 layer_factory.hpp:77] Creating layer accuracy
I0428 20:35:20.752579  4607 net.cpp:86] Creating Layer accuracy
I0428 20:35:20.752588  4607 net.cpp:408] accuracy <- ip3_relu3_0_split_0
I0428 20:35:20.752593  4607 net.cpp:408] accuracy <- label_mnist_1_split_0
I0428 20:35:20.752598  4607 net.cpp:382] accuracy -> accuracy
…
