…
I0428 19:58:03.763358 28879 net.cpp:296] The NetState phase (0) differed from the phase (1) specified by a rule in layer mnist
I0428 19:58:03.763388 28879 net.cpp:296] The NetState phase (0) differed from the phase (1) specified by a rule in layer accuracy
I0428 19:58:03.763485 28879 net.cpp:53] Initializing net from parameters: 
name: "LeNet"
state {
  phase: TRAIN
  level: 0
  stage: ""
}
layer {
  name: "mnist"
  type: "Data"
  top: "data"
  top: "label"
  include {
    phase: TRAIN
  }
  transform_param {
    scale: 0.00390625
  }
  data_param {
    source: "examples/mnist/mnist_train_lmdb"
    batch_size: 64
    backend: LMDB
  }
}
layer {
  name: "conv0"
  type: "Convolution"
  bottom: "data"
  top: "conv0"
  param {
    lr_mult: 1
  }
  param {
    lr_mult: 2
  }
  convolution_param {
    num_output: 10
    kernel_size: 5
    stride: 1
    weight_filler {
      type: "xavier"
    }
    bias_filler {
      type: "constant"
    }
  }
}
layer {
  name: "pool0"
  type: "Pooling"
  bottom: "conv0"
  top: "pool0"
  pooling_param {
    pool: MAX
    kernel_size: 2
    stride: 2
  }
}
layer {
  name: "conv1"
  type: "Convolution"
  bottom: "pool0"
  top: "conv1"
  param {
    lr_mult: 1
  }
  param {
    lr_mult: 2
  }
  convolution_param {
    num_output: 5
    kernel_size: 5
    stride: 1
    weight_filler {
      type: "xavier"
    }
    bias_filler {
      type: "constant"
    }
  }
}
layer {
  name: "pool1"
  type: "Pooling"
  bottom: "conv1"
  top: "pool1"
  pooling_param {
    pool: MAX
    kernel_size: 2
    stride: 2
  }
}
layer {
  name: "ip1"
  type: "InnerProduct"
  bottom: "pool1"
  top: "ip1"
  param {
    lr_mult: 1
  }
  param {
    lr_mult: 2
  }
  inner_product_param {
    num_output: 25
    weight_filler {
      type: "xavier"
    }
    bias_filler {
      type: "constant"
    }
  }
}
layer {
  name: "relu1"
  type: "ReLU"
  bottom: "ip1"
  top: "ip1"
}
layer {
  name: "ip2"
  type: "InnerProduct"
  bottom: "ip1"
  top: "ip2"
  param {
    lr_mult: 1
  }
  param {
    lr_mult: 2
  }
  inner_product_param {
    num_output: 50
    weight_filler {
      type: "xavier"
    }
    bias_filler {
      type: "constant"
    }
  }
}
layer {
  name: "relu2"
  type: "ReLU"
  bottom: "ip2"
  top: "ip2"
}
layer {
  name: "ip3"
  type: "InnerProduct"
  bottom: "ip2"
  top: "ip3"
  param {
    lr_mult: 1
  }
  param {
    lr_mult: 2
  }
  inner_product_param {
    num_output: 10
    weight_filler {
      type: "xavier"
    }
    bias_filler {
      type: "constant"
    }
  }
}
layer {
  name: "relu3"
  type: "ReLU"
  bottom: "ip3"
  top: "ip3"
}
layer {
  name: "loss"
  type: "SoftmaxWithLoss"
  bottom: "ip3"
  bottom: "label"
  top: "loss"
}
I0428 19:58:03.763548 28879 layer_factory.hpp:77] Creating layer mnist
I0428 19:58:03.763628 28879 db_lmdb.cpp:35] Opened lmdb examples/mnist/mnist_train_lmdb
I0428 19:58:03.763645 28879 net.cpp:86] Creating Layer mnist
I0428 19:58:03.763653 28879 net.cpp:382] mnist -> data
I0428 19:58:03.763671 28879 net.cpp:382] mnist -> label
I0428 19:58:03.764713 28879 data_layer.cpp:45] output data size: 64,1,28,28
I0428 19:58:03.766854 28879 net.cpp:124] Setting up mnist
I0428 19:58:03.766868 28879 net.cpp:131] Top shape: 64 1 28 28 (50176)
I0428 19:58:03.766873 28879 net.cpp:131] Top shape: 64 (64)
I0428 19:58:03.766876 28879 net.cpp:139] Memory required for data: 200960
I0428 19:58:03.766881 28879 layer_factory.hpp:77] Creating layer conv0
I0428 19:58:03.766909 28879 net.cpp:86] Creating Layer conv0
I0428 19:58:03.766927 28879 net.cpp:408] conv0 <- data
I0428 19:58:03.766937 28879 net.cpp:382] conv0 -> conv0
I0428 19:58:04.001487 28879 net.cpp:124] Setting up conv0
I0428 19:58:04.001513 28879 net.cpp:131] Top shape: 64 10 24 24 (368640)
I0428 19:58:04.001518 28879 net.cpp:139] Memory required for data: 1675520
I0428 19:58:04.001531 28879 layer_factory.hpp:77] Creating layer pool0
I0428 19:58:04.001545 28879 net.cpp:86] Creating Layer pool0
I0428 19:58:04.001549 28879 net.cpp:408] pool0 <- conv0
I0428 19:58:04.001554 28879 net.cpp:382] pool0 -> pool0
I0428 19:58:04.001615 28879 net.cpp:124] Setting up pool0
I0428 19:58:04.001622 28879 net.cpp:131] Top shape: 64 10 12 12 (92160)
I0428 19:58:04.001626 28879 net.cpp:139] Memory required for data: 2044160
I0428 19:58:04.001628 28879 layer_factory.hpp:77] Creating layer conv1
I0428 19:58:04.001639 28879 net.cpp:86] Creating Layer conv1
I0428 19:58:04.001642 28879 net.cpp:408] conv1 <- pool0
I0428 19:58:04.001646 28879 net.cpp:382] conv1 -> conv1
I0428 19:58:04.004390 28879 net.cpp:124] Setting up conv1
I0428 19:58:04.004405 28879 net.cpp:131] Top shape: 64 5 8 8 (20480)
I0428 19:58:04.004408 28879 net.cpp:139] Memory required for data: 2126080
I0428 19:58:04.004417 28879 layer_factory.hpp:77] Creating layer pool1
I0428 19:58:04.004439 28879 net.cpp:86] Creating Layer pool1
I0428 19:58:04.004443 28879 net.cpp:408] pool1 <- conv1
I0428 19:58:04.004448 28879 net.cpp:382] pool1 -> pool1
I0428 19:58:04.004484 28879 net.cpp:124] Setting up pool1
I0428 19:58:04.004490 28879 net.cpp:131] Top shape: 64 5 4 4 (5120)
I0428 19:58:04.004494 28879 net.cpp:139] Memory required for data: 2146560
I0428 19:58:04.004498 28879 layer_factory.hpp:77] Creating layer ip1
I0428 19:58:04.004503 28879 net.cpp:86] Creating Layer ip1
I0428 19:58:04.004506 28879 net.cpp:408] ip1 <- pool1
I0428 19:58:04.004511 28879 net.cpp:382] ip1 -> ip1
I0428 19:58:04.004627 28879 net.cpp:124] Setting up ip1
I0428 19:58:04.004634 28879 net.cpp:131] Top shape: 64 25 (1600)
I0428 19:58:04.004637 28879 net.cpp:139] Memory required for data: 2152960
I0428 19:58:04.004643 28879 layer_factory.hpp:77] Creating layer relu1
I0428 19:58:04.004648 28879 net.cpp:86] Creating Layer relu1
I0428 19:58:04.004652 28879 net.cpp:408] relu1 <- ip1
I0428 19:58:04.004655 28879 net.cpp:369] relu1 -> ip1 (in-place)
I0428 19:58:04.004835 28879 net.cpp:124] Setting up relu1
I0428 19:58:04.004844 28879 net.cpp:131] Top shape: 64 25 (1600)
I0428 19:58:04.004848 28879 net.cpp:139] Memory required for data: 2159360
I0428 19:58:04.004851 28879 layer_factory.hpp:77] Creating layer ip2
I0428 19:58:04.004858 28879 net.cpp:86] Creating Layer ip2
I0428 19:58:04.004860 28879 net.cpp:408] ip2 <- ip1
I0428 19:58:04.004880 28879 net.cpp:382] ip2 -> ip2
I0428 19:58:04.005007 28879 net.cpp:124] Setting up ip2
I0428 19:58:04.005013 28879 net.cpp:131] Top shape: 64 50 (3200)
I0428 19:58:04.005017 28879 net.cpp:139] Memory required for data: 2172160
I0428 19:58:04.005023 28879 layer_factory.hpp:77] Creating layer relu2
I0428 19:58:04.005028 28879 net.cpp:86] Creating Layer relu2
I0428 19:58:04.005033 28879 net.cpp:408] relu2 <- ip2
I0428 19:58:04.005036 28879 net.cpp:369] relu2 -> ip2 (in-place)
I0428 19:58:04.005832 28879 net.cpp:124] Setting up relu2
I0428 19:58:04.005844 28879 net.cpp:131] Top shape: 64 50 (3200)
I0428 19:58:04.005864 28879 net.cpp:139] Memory required for data: 2184960
I0428 19:58:04.005868 28879 layer_factory.hpp:77] Creating layer ip3
I0428 19:58:04.005874 28879 net.cpp:86] Creating Layer ip3
I0428 19:58:04.005878 28879 net.cpp:408] ip3 <- ip2
I0428 19:58:04.005883 28879 net.cpp:382] ip3 -> ip3
I0428 19:58:04.005981 28879 net.cpp:124] Setting up ip3
I0428 19:58:04.005988 28879 net.cpp:131] Top shape: 64 10 (640)
I0428 19:58:04.005992 28879 net.cpp:139] Memory required for data: 2187520
I0428 19:58:04.006000 28879 layer_factory.hpp:77] Creating layer relu3
I0428 19:58:04.006005 28879 net.cpp:86] Creating Layer relu3
I0428 19:58:04.006007 28879 net.cpp:408] relu3 <- ip3
I0428 19:58:04.006011 28879 net.cpp:369] relu3 -> ip3 (in-place)
I0428 19:58:04.006170 28879 net.cpp:124] Setting up relu3
I0428 19:58:04.006178 28879 net.cpp:131] Top shape: 64 10 (640)
I0428 19:58:04.006181 28879 net.cpp:139] Memory required for data: 2190080
I0428 19:58:04.006184 28879 layer_factory.hpp:77] Creating layer loss
I0428 19:58:04.006191 28879 net.cpp:86] Creating Layer loss
I0428 19:58:04.006193 28879 net.cpp:408] loss <- ip3
I0428 19:58:04.006198 28879 net.cpp:408] loss <- label
I0428 19:58:04.006203 28879 net.cpp:382] loss -> loss
I0428 19:58:04.006230 28879 layer_factory.hpp:77] Creating layer loss
…
I0428 19:58:04.006847 28879 solver.cpp:173] Creating test net (#0) specified by net file: ECE595/mnist/train_test/var_everything2/lenet_train_test807.prototxt
I0428 19:58:04.006889 28879 net.cpp:296] The NetState phase (1) differed from the phase (0) specified by a rule in layer mnist
I0428 19:58:04.006978 28879 net.cpp:53] Initializing net from parameters: 
name: "LeNet"
state {
  phase: TEST
}
layer {
  name: "mnist"
  type: "Data"
  top: "data"
  top: "label"
  include {
    phase: TEST
  }
  transform_param {
    scale: 0.00390625
  }
  data_param {
    source: "examples/mnist/mnist_test_lmdb"
    batch_size: 100
    backend: LMDB
  }
}
layer {
  name: "conv0"
  type: "Convolution"
  bottom: "data"
  top: "conv0"
  param {
    lr_mult: 1
  }
  param {
    lr_mult: 2
  }
  convolution_param {
    num_output: 10
    kernel_size: 5
    stride: 1
    weight_filler {
      type: "xavier"
    }
    bias_filler {
      type: "constant"
    }
  }
}
layer {
  name: "pool0"
  type: "Pooling"
  bottom: "conv0"
  top: "pool0"
  pooling_param {
    pool: MAX
    kernel_size: 2
    stride: 2
  }
}
layer {
  name: "conv1"
  type: "Convolution"
  bottom: "pool0"
  top: "conv1"
  param {
    lr_mult: 1
  }
  param {
    lr_mult: 2
  }
  convolution_param {
    num_output: 5
    kernel_size: 5
    stride: 1
    weight_filler {
      type: "xavier"
    }
    bias_filler {
      type: "constant"
    }
  }
}
layer {
  name: "pool1"
  type: "Pooling"
  bottom: "conv1"
  top: "pool1"
  pooling_param {
    pool: MAX
    kernel_size: 2
    stride: 2
  }
}
layer {
  name: "ip1"
  type: "InnerProduct"
  bottom: "pool1"
  top: "ip1"
  param {
    lr_mult: 1
  }
  param {
    lr_mult: 2
  }
  inner_product_param {
    num_output: 25
    weight_filler {
      type: "xavier"
    }
    bias_filler {
      type: "constant"
    }
  }
}
layer {
  name: "relu1"
  type: "ReLU"
  bottom: "ip1"
  top: "ip1"
}
layer {
  name: "ip2"
  type: "InnerProduct"
  bottom: "ip1"
  top: "ip2"
  param {
    lr_mult: 1
  }
  param {
    lr_mult: 2
  }
  inner_product_param {
    num_output: 50
    weight_filler {
      type: "xavier"
    }
    bias_filler {
      type: "constant"
    }
  }
}
layer {
  name: "relu2"
  type: "ReLU"
  bottom: "ip2"
  top: "ip2"
}
layer {
  name: "ip3"
  type: "InnerProduct"
  bottom: "ip2"
  top: "ip3"
  param {
    lr_mult: 1
  }
  param {
    lr_mult: 2
  }
  inner_product_param {
    num_output: 10
    weight_filler {
      type: "xavier"
    }
    bias_filler {
      type: "constant"
    }
  }
}
layer {
  name: "relu3"
  type: "ReLU"
  bottom: "ip3"
  top: "ip3"
}
layer {
  name: "accuracy"
  type: "Accuracy"
  bottom: "ip3"
  bottom: "label"
  top: "accuracy"
  include {
    phase: TEST
  }
}
layer {
  name: "loss"
  type: "SoftmaxWithLoss"
  bottom: "ip3"
  bottom: "label"
  top: "loss"
}
I0428 19:58:04.007055 28879 layer_factory.hpp:77] Creating layer mnist
I0428 19:58:04.007112 28879 db_lmdb.cpp:35] Opened lmdb examples/mnist/mnist_test_lmdb
I0428 19:58:04.007124 28879 net.cpp:86] Creating Layer mnist
I0428 19:58:04.007128 28879 net.cpp:382] mnist -> data
I0428 19:58:04.007135 28879 net.cpp:382] mnist -> label
I0428 19:58:04.007215 28879 data_layer.cpp:45] output data size: 100,1,28,28
I0428 19:58:04.009104 28879 net.cpp:124] Setting up mnist
I0428 19:58:04.009148 28879 net.cpp:131] Top shape: 100 1 28 28 (78400)
I0428 19:58:04.009153 28879 net.cpp:131] Top shape: 100 (100)
I0428 19:58:04.009171 28879 net.cpp:139] Memory required for data: 314000
I0428 19:58:04.009174 28879 layer_factory.hpp:77] Creating layer label_mnist_1_split
I0428 19:58:04.009181 28879 net.cpp:86] Creating Layer label_mnist_1_split
I0428 19:58:04.009184 28879 net.cpp:408] label_mnist_1_split <- label
I0428 19:58:04.009189 28879 net.cpp:382] label_mnist_1_split -> label_mnist_1_split_0
I0428 19:58:04.009196 28879 net.cpp:382] label_mnist_1_split -> label_mnist_1_split_1
I0428 19:58:04.009234 28879 net.cpp:124] Setting up label_mnist_1_split
I0428 19:58:04.009243 28879 net.cpp:131] Top shape: 100 (100)
I0428 19:58:04.009261 28879 net.cpp:131] Top shape: 100 (100)
I0428 19:58:04.009264 28879 net.cpp:139] Memory required for data: 314800
I0428 19:58:04.009268 28879 layer_factory.hpp:77] Creating layer conv0
I0428 19:58:04.009281 28879 net.cpp:86] Creating Layer conv0
I0428 19:58:04.009286 28879 net.cpp:408] conv0 <- data
I0428 19:58:04.009290 28879 net.cpp:382] conv0 -> conv0
I0428 19:58:04.010980 28879 net.cpp:124] Setting up conv0
I0428 19:58:04.011009 28879 net.cpp:131] Top shape: 100 10 24 24 (576000)
I0428 19:58:04.011013 28879 net.cpp:139] Memory required for data: 2618800
I0428 19:58:04.011021 28879 layer_factory.hpp:77] Creating layer pool0
I0428 19:58:04.011029 28879 net.cpp:86] Creating Layer pool0
I0428 19:58:04.011031 28879 net.cpp:408] pool0 <- conv0
I0428 19:58:04.011036 28879 net.cpp:382] pool0 -> pool0
I0428 19:58:04.011086 28879 net.cpp:124] Setting up pool0
I0428 19:58:04.011092 28879 net.cpp:131] Top shape: 100 10 12 12 (144000)
I0428 19:58:04.011096 28879 net.cpp:139] Memory required for data: 3194800
I0428 19:58:04.011099 28879 layer_factory.hpp:77] Creating layer conv1
I0428 19:58:04.011107 28879 net.cpp:86] Creating Layer conv1
I0428 19:58:04.011111 28879 net.cpp:408] conv1 <- pool0
I0428 19:58:04.011116 28879 net.cpp:382] conv1 -> conv1
I0428 19:58:04.013370 28879 net.cpp:124] Setting up conv1
I0428 19:58:04.013382 28879 net.cpp:131] Top shape: 100 5 8 8 (32000)
I0428 19:58:04.013401 28879 net.cpp:139] Memory required for data: 3322800
I0428 19:58:04.013409 28879 layer_factory.hpp:77] Creating layer pool1
I0428 19:58:04.013417 28879 net.cpp:86] Creating Layer pool1
I0428 19:58:04.013419 28879 net.cpp:408] pool1 <- conv1
I0428 19:58:04.013425 28879 net.cpp:382] pool1 -> pool1
I0428 19:58:04.013484 28879 net.cpp:124] Setting up pool1
I0428 19:58:04.013489 28879 net.cpp:131] Top shape: 100 5 4 4 (8000)
I0428 19:58:04.013492 28879 net.cpp:139] Memory required for data: 3354800
I0428 19:58:04.013495 28879 layer_factory.hpp:77] Creating layer ip1
I0428 19:58:04.013501 28879 net.cpp:86] Creating Layer ip1
I0428 19:58:04.013504 28879 net.cpp:408] ip1 <- pool1
I0428 19:58:04.013509 28879 net.cpp:382] ip1 -> ip1
I0428 19:58:04.013643 28879 net.cpp:124] Setting up ip1
I0428 19:58:04.013653 28879 net.cpp:131] Top shape: 100 25 (2500)
I0428 19:58:04.013665 28879 net.cpp:139] Memory required for data: 3364800
I0428 19:58:04.013674 28879 layer_factory.hpp:77] Creating layer relu1
I0428 19:58:04.013679 28879 net.cpp:86] Creating Layer relu1
I0428 19:58:04.013682 28879 net.cpp:408] relu1 <- ip1
I0428 19:58:04.013689 28879 net.cpp:369] relu1 -> ip1 (in-place)
I0428 19:58:04.013849 28879 net.cpp:124] Setting up relu1
I0428 19:58:04.013859 28879 net.cpp:131] Top shape: 100 25 (2500)
I0428 19:58:04.013861 28879 net.cpp:139] Memory required for data: 3374800
I0428 19:58:04.013865 28879 layer_factory.hpp:77] Creating layer ip2
I0428 19:58:04.013872 28879 net.cpp:86] Creating Layer ip2
I0428 19:58:04.013875 28879 net.cpp:408] ip2 <- ip1
I0428 19:58:04.013880 28879 net.cpp:382] ip2 -> ip2
I0428 19:58:04.013981 28879 net.cpp:124] Setting up ip2
I0428 19:58:04.013988 28879 net.cpp:131] Top shape: 100 50 (5000)
I0428 19:58:04.013991 28879 net.cpp:139] Memory required for data: 3394800
I0428 19:58:04.013998 28879 layer_factory.hpp:77] Creating layer relu2
I0428 19:58:04.014003 28879 net.cpp:86] Creating Layer relu2
I0428 19:58:04.014005 28879 net.cpp:408] relu2 <- ip2
I0428 19:58:04.014009 28879 net.cpp:369] relu2 -> ip2 (in-place)
I0428 19:58:04.014163 28879 net.cpp:124] Setting up relu2
I0428 19:58:04.014171 28879 net.cpp:131] Top shape: 100 50 (5000)
I0428 19:58:04.014175 28879 net.cpp:139] Memory required for data: 3414800
I0428 19:58:04.014178 28879 layer_factory.hpp:77] Creating layer ip3
I0428 19:58:04.014183 28879 net.cpp:86] Creating Layer ip3
I0428 19:58:04.014188 28879 net.cpp:408] ip3 <- ip2
I0428 19:58:04.014192 28879 net.cpp:382] ip3 -> ip3
I0428 19:58:04.014283 28879 net.cpp:124] Setting up ip3
I0428 19:58:04.014291 28879 net.cpp:131] Top shape: 100 10 (1000)
I0428 19:58:04.014293 28879 net.cpp:139] Memory required for data: 3418800
I0428 19:58:04.014302 28879 layer_factory.hpp:77] Creating layer relu3
I0428 19:58:04.014307 28879 net.cpp:86] Creating Layer relu3
I0428 19:58:04.014309 28879 net.cpp:408] relu3 <- ip3
I0428 19:58:04.014313 28879 net.cpp:369] relu3 -> ip3 (in-place)
I0428 19:58:04.015156 28879 net.cpp:124] Setting up relu3
I0428 19:58:04.015183 28879 net.cpp:131] Top shape: 100 10 (1000)
I0428 19:58:04.015187 28879 net.cpp:139] Memory required for data: 3422800
I0428 19:58:04.015192 28879 layer_factory.hpp:77] Creating layer ip3_relu3_0_split
I0428 19:58:04.015197 28879 net.cpp:86] Creating Layer ip3_relu3_0_split
I0428 19:58:04.015200 28879 net.cpp:408] ip3_relu3_0_split <- ip3
I0428 19:58:04.015205 28879 net.cpp:382] ip3_relu3_0_split -> ip3_relu3_0_split_0
I0428 19:58:04.015211 28879 net.cpp:382] ip3_relu3_0_split -> ip3_relu3_0_split_1
I0428 19:58:04.015262 28879 net.cpp:124] Setting up ip3_relu3_0_split
I0428 19:58:04.015267 28879 net.cpp:131] Top shape: 100 10 (1000)
I0428 19:58:04.015271 28879 net.cpp:131] Top shape: 100 10 (1000)
I0428 19:58:04.015275 28879 net.cpp:139] Memory required for data: 3430800
I0428 19:58:04.015278 28879 layer_factory.hpp:77] Creating layer accuracy
I0428 19:58:04.015283 28879 net.cpp:86] Creating Layer accuracy
I0428 19:58:04.015287 28879 net.cpp:408] accuracy <- ip3_relu3_0_split_0
I0428 19:58:04.015291 28879 net.cpp:408] accuracy <- label_mnist_1_split_0
I0428 19:58:04.015296 28879 net.cpp:382] accuracy -> accuracy
…
