…
I0428 20:28:18.830763  3333 net.cpp:296] The NetState phase (0) differed from the phase (1) specified by a rule in layer mnist
I0428 20:28:18.830783  3333 net.cpp:296] The NetState phase (0) differed from the phase (1) specified by a rule in layer accuracy
I0428 20:28:18.830886  3333 net.cpp:53] Initializing net from parameters: 
name: "LeNet"
state {
  phase: TRAIN
  level: 0
  stage: ""
}
layer {
  name: "mnist"
  type: "Data"
  top: "data"
  top: "label"
  include {
    phase: TRAIN
  }
  transform_param {
    scale: 0.00390625
  }
  data_param {
    source: "examples/mnist/mnist_train_lmdb"
    batch_size: 64
    backend: LMDB
  }
}
layer {
  name: "conv0"
  type: "Convolution"
  bottom: "data"
  top: "conv0"
  param {
    lr_mult: 1
  }
  param {
    lr_mult: 2
  }
  convolution_param {
    num_output: 100
    kernel_size: 5
    stride: 1
    weight_filler {
      type: "xavier"
    }
    bias_filler {
      type: "constant"
    }
  }
}
layer {
  name: "pool0"
  type: "Pooling"
  bottom: "conv0"
  top: "pool0"
  pooling_param {
    pool: MAX
    kernel_size: 2
    stride: 2
  }
}
layer {
  name: "conv1"
  type: "Convolution"
  bottom: "pool0"
  top: "conv1"
  param {
    lr_mult: 1
  }
  param {
    lr_mult: 2
  }
  convolution_param {
    num_output: 5
    kernel_size: 5
    stride: 1
    weight_filler {
      type: "xavier"
    }
    bias_filler {
      type: "constant"
    }
  }
}
layer {
  name: "pool1"
  type: "Pooling"
  bottom: "conv1"
  top: "pool1"
  pooling_param {
    pool: MAX
    kernel_size: 2
    stride: 2
  }
}
layer {
  name: "ip1"
  type: "InnerProduct"
  bottom: "pool1"
  top: "ip1"
  param {
    lr_mult: 1
  }
  param {
    lr_mult: 2
  }
  inner_product_param {
    num_output: 25
    weight_filler {
      type: "xavier"
    }
    bias_filler {
      type: "constant"
    }
  }
}
layer {
  name: "relu1"
  type: "ReLU"
  bottom: "ip1"
  top: "ip1"
}
layer {
  name: "ip2"
  type: "InnerProduct"
  bottom: "ip1"
  top: "ip2"
  param {
    lr_mult: 1
  }
  param {
    lr_mult: 2
  }
  inner_product_param {
    num_output: 10
    weight_filler {
      type: "xavier"
    }
    bias_filler {
      type: "constant"
    }
  }
}
layer {
  name: "relu2"
  type: "ReLU"
  bottom: "ip2"
  top: "ip2"
}
layer {
  name: "ip3"
  type: "InnerProduct"
  bottom: "ip2"
  top: "ip3"
  param {
    lr_mult: 1
  }
  param {
    lr_mult: 2
  }
  inner_product_param {
    num_output: 10
    weight_filler {
      type: "xavier"
    }
    bias_filler {
      type: "constant"
    }
  }
}
layer {
  name: "relu3"
  type: "ReLU"
  bottom: "ip3"
  top: "ip3"
}
layer {
  name: "loss"
  type: "SoftmaxWithLoss"
  bottom: "ip3"
  bottom: "label"
  top: "loss"
}
I0428 20:28:18.830966  3333 layer_factory.hpp:77] Creating layer mnist
I0428 20:28:18.831068  3333 db_lmdb.cpp:35] Opened lmdb examples/mnist/mnist_train_lmdb
I0428 20:28:18.831094  3333 net.cpp:86] Creating Layer mnist
I0428 20:28:18.831101  3333 net.cpp:382] mnist -> data
I0428 20:28:18.831125  3333 net.cpp:382] mnist -> label
I0428 20:28:18.832221  3333 data_layer.cpp:45] output data size: 64,1,28,28
I0428 20:28:18.834683  3333 net.cpp:124] Setting up mnist
I0428 20:28:18.834702  3333 net.cpp:131] Top shape: 64 1 28 28 (50176)
I0428 20:28:18.834710  3333 net.cpp:131] Top shape: 64 (64)
I0428 20:28:18.834713  3333 net.cpp:139] Memory required for data: 200960
I0428 20:28:18.834722  3333 layer_factory.hpp:77] Creating layer conv0
I0428 20:28:18.834738  3333 net.cpp:86] Creating Layer conv0
I0428 20:28:18.834758  3333 net.cpp:408] conv0 <- data
I0428 20:28:18.834774  3333 net.cpp:382] conv0 -> conv0
I0428 20:28:19.129410  3333 net.cpp:124] Setting up conv0
I0428 20:28:19.129441  3333 net.cpp:131] Top shape: 64 100 24 24 (3686400)
I0428 20:28:19.129446  3333 net.cpp:139] Memory required for data: 14946560
I0428 20:28:19.129472  3333 layer_factory.hpp:77] Creating layer pool0
I0428 20:28:19.129487  3333 net.cpp:86] Creating Layer pool0
I0428 20:28:19.129492  3333 net.cpp:408] pool0 <- conv0
I0428 20:28:19.129498  3333 net.cpp:382] pool0 -> pool0
I0428 20:28:19.129560  3333 net.cpp:124] Setting up pool0
I0428 20:28:19.129570  3333 net.cpp:131] Top shape: 64 100 12 12 (921600)
I0428 20:28:19.129573  3333 net.cpp:139] Memory required for data: 18632960
I0428 20:28:19.129577  3333 layer_factory.hpp:77] Creating layer conv1
I0428 20:28:19.129591  3333 net.cpp:86] Creating Layer conv1
I0428 20:28:19.129595  3333 net.cpp:408] conv1 <- pool0
I0428 20:28:19.129602  3333 net.cpp:382] conv1 -> conv1
I0428 20:28:19.132822  3333 net.cpp:124] Setting up conv1
I0428 20:28:19.132839  3333 net.cpp:131] Top shape: 64 5 8 8 (20480)
I0428 20:28:19.132844  3333 net.cpp:139] Memory required for data: 18714880
I0428 20:28:19.132855  3333 layer_factory.hpp:77] Creating layer pool1
I0428 20:28:19.132864  3333 net.cpp:86] Creating Layer pool1
I0428 20:28:19.132869  3333 net.cpp:408] pool1 <- conv1
I0428 20:28:19.132875  3333 net.cpp:382] pool1 -> pool1
I0428 20:28:19.132921  3333 net.cpp:124] Setting up pool1
I0428 20:28:19.132930  3333 net.cpp:131] Top shape: 64 5 4 4 (5120)
I0428 20:28:19.132935  3333 net.cpp:139] Memory required for data: 18735360
I0428 20:28:19.132938  3333 layer_factory.hpp:77] Creating layer ip1
I0428 20:28:19.132947  3333 net.cpp:86] Creating Layer ip1
I0428 20:28:19.132951  3333 net.cpp:408] ip1 <- pool1
I0428 20:28:19.132956  3333 net.cpp:382] ip1 -> ip1
I0428 20:28:19.133092  3333 net.cpp:124] Setting up ip1
I0428 20:28:19.133101  3333 net.cpp:131] Top shape: 64 25 (1600)
I0428 20:28:19.133105  3333 net.cpp:139] Memory required for data: 18741760
I0428 20:28:19.133113  3333 layer_factory.hpp:77] Creating layer relu1
I0428 20:28:19.133121  3333 net.cpp:86] Creating Layer relu1
I0428 20:28:19.133126  3333 net.cpp:408] relu1 <- ip1
I0428 20:28:19.133131  3333 net.cpp:369] relu1 -> ip1 (in-place)
I0428 20:28:19.133327  3333 net.cpp:124] Setting up relu1
I0428 20:28:19.133337  3333 net.cpp:131] Top shape: 64 25 (1600)
I0428 20:28:19.133342  3333 net.cpp:139] Memory required for data: 18748160
I0428 20:28:19.133345  3333 layer_factory.hpp:77] Creating layer ip2
I0428 20:28:19.133353  3333 net.cpp:86] Creating Layer ip2
I0428 20:28:19.133358  3333 net.cpp:408] ip2 <- ip1
I0428 20:28:19.133363  3333 net.cpp:382] ip2 -> ip2
I0428 20:28:19.133474  3333 net.cpp:124] Setting up ip2
I0428 20:28:19.133483  3333 net.cpp:131] Top shape: 64 10 (640)
I0428 20:28:19.133487  3333 net.cpp:139] Memory required for data: 18750720
I0428 20:28:19.133494  3333 layer_factory.hpp:77] Creating layer relu2
I0428 20:28:19.133502  3333 net.cpp:86] Creating Layer relu2
I0428 20:28:19.133505  3333 net.cpp:408] relu2 <- ip2
I0428 20:28:19.133512  3333 net.cpp:369] relu2 -> ip2 (in-place)
I0428 20:28:19.134361  3333 net.cpp:124] Setting up relu2
I0428 20:28:19.134377  3333 net.cpp:131] Top shape: 64 10 (640)
I0428 20:28:19.134382  3333 net.cpp:139] Memory required for data: 18753280
I0428 20:28:19.134385  3333 layer_factory.hpp:77] Creating layer ip3
I0428 20:28:19.134395  3333 net.cpp:86] Creating Layer ip3
I0428 20:28:19.134399  3333 net.cpp:408] ip3 <- ip2
I0428 20:28:19.134407  3333 net.cpp:382] ip3 -> ip3
I0428 20:28:19.134533  3333 net.cpp:124] Setting up ip3
I0428 20:28:19.134543  3333 net.cpp:131] Top shape: 64 10 (640)
I0428 20:28:19.134547  3333 net.cpp:139] Memory required for data: 18755840
I0428 20:28:19.134557  3333 layer_factory.hpp:77] Creating layer relu3
I0428 20:28:19.134563  3333 net.cpp:86] Creating Layer relu3
I0428 20:28:19.134569  3333 net.cpp:408] relu3 <- ip3
I0428 20:28:19.134577  3333 net.cpp:369] relu3 -> ip3 (in-place)
I0428 20:28:19.134790  3333 net.cpp:124] Setting up relu3
I0428 20:28:19.134801  3333 net.cpp:131] Top shape: 64 10 (640)
I0428 20:28:19.134805  3333 net.cpp:139] Memory required for data: 18758400
I0428 20:28:19.134809  3333 layer_factory.hpp:77] Creating layer loss
I0428 20:28:19.134816  3333 net.cpp:86] Creating Layer loss
I0428 20:28:19.134819  3333 net.cpp:408] loss <- ip3
I0428 20:28:19.134824  3333 net.cpp:408] loss <- label
I0428 20:28:19.134832  3333 net.cpp:382] loss -> loss
I0428 20:28:19.134853  3333 layer_factory.hpp:77] Creating layer loss
…
I0428 20:28:19.135620  3333 solver.cpp:173] Creating test net (#0) specified by net file: ECE595/mnist/train_test/var_everything2/lenet_train_test1503.prototxt
I0428 20:28:19.135653  3333 net.cpp:296] The NetState phase (1) differed from the phase (0) specified by a rule in layer mnist
I0428 20:28:19.135764  3333 net.cpp:53] Initializing net from parameters: 
name: "LeNet"
state {
  phase: TEST
}
layer {
  name: "mnist"
  type: "Data"
  top: "data"
  top: "label"
  include {
    phase: TEST
  }
  transform_param {
    scale: 0.00390625
  }
  data_param {
    source: "examples/mnist/mnist_test_lmdb"
    batch_size: 100
    backend: LMDB
  }
}
layer {
  name: "conv0"
  type: "Convolution"
  bottom: "data"
  top: "conv0"
  param {
    lr_mult: 1
  }
  param {
    lr_mult: 2
  }
  convolution_param {
    num_output: 100
    kernel_size: 5
    stride: 1
    weight_filler {
      type: "xavier"
    }
    bias_filler {
      type: "constant"
    }
  }
}
layer {
  name: "pool0"
  type: "Pooling"
  bottom: "conv0"
  top: "pool0"
  pooling_param {
    pool: MAX
    kernel_size: 2
    stride: 2
  }
}
layer {
  name: "conv1"
  type: "Convolution"
  bottom: "pool0"
  top: "conv1"
  param {
    lr_mult: 1
  }
  param {
    lr_mult: 2
  }
  convolution_param {
    num_output: 5
    kernel_size: 5
    stride: 1
    weight_filler {
      type: "xavier"
    }
    bias_filler {
      type: "constant"
    }
  }
}
layer {
  name: "pool1"
  type: "Pooling"
  bottom: "conv1"
  top: "pool1"
  pooling_param {
    pool: MAX
    kernel_size: 2
    stride: 2
  }
}
layer {
  name: "ip1"
  type: "InnerProduct"
  bottom: "pool1"
  top: "ip1"
  param {
    lr_mult: 1
  }
  param {
    lr_mult: 2
  }
  inner_product_param {
    num_output: 25
    weight_filler {
      type: "xavier"
    }
    bias_filler {
      type: "constant"
    }
  }
}
layer {
  name: "relu1"
  type: "ReLU"
  bottom: "ip1"
  top: "ip1"
}
layer {
  name: "ip2"
  type: "InnerProduct"
  bottom: "ip1"
  top: "ip2"
  param {
    lr_mult: 1
  }
  param {
    lr_mult: 2
  }
  inner_product_param {
    num_output: 10
    weight_filler {
      type: "xavier"
    }
    bias_filler {
      type: "constant"
    }
  }
}
layer {
  name: "relu2"
  type: "ReLU"
  bottom: "ip2"
  top: "ip2"
}
layer {
  name: "ip3"
  type: "InnerProduct"
  bottom: "ip2"
  top: "ip3"
  param {
    lr_mult: 1
  }
  param {
    lr_mult: 2
  }
  inner_product_param {
    num_output: 10
    weight_filler {
      type: "xavier"
    }
    bias_filler {
      type: "constant"
    }
  }
}
layer {
  name: "relu3"
  type: "ReLU"
  bottom: "ip3"
  top: "ip3"
}
layer {
  name: "accuracy"
  type: "Accuracy"
  bottom: "ip3"
  bottom: "label"
  top: "accuracy"
  include {
    phase: TEST
  }
}
layer {
  name: "loss"
  type: "SoftmaxWithLoss"
  bottom: "ip3"
  bottom: "label"
  top: "loss"
}
I0428 20:28:19.135864  3333 layer_factory.hpp:77] Creating layer mnist
I0428 20:28:19.135915  3333 db_lmdb.cpp:35] Opened lmdb examples/mnist/mnist_test_lmdb
I0428 20:28:19.135931  3333 net.cpp:86] Creating Layer mnist
I0428 20:28:19.135937  3333 net.cpp:382] mnist -> data
I0428 20:28:19.135946  3333 net.cpp:382] mnist -> label
I0428 20:28:19.136054  3333 data_layer.cpp:45] output data size: 100,1,28,28
I0428 20:28:19.138489  3333 net.cpp:124] Setting up mnist
I0428 20:28:19.138530  3333 net.cpp:131] Top shape: 100 1 28 28 (78400)
I0428 20:28:19.138540  3333 net.cpp:131] Top shape: 100 (100)
I0428 20:28:19.138543  3333 net.cpp:139] Memory required for data: 314000
I0428 20:28:19.138547  3333 layer_factory.hpp:77] Creating layer label_mnist_1_split
I0428 20:28:19.138561  3333 net.cpp:86] Creating Layer label_mnist_1_split
I0428 20:28:19.138564  3333 net.cpp:408] label_mnist_1_split <- label
I0428 20:28:19.138571  3333 net.cpp:382] label_mnist_1_split -> label_mnist_1_split_0
I0428 20:28:19.138579  3333 net.cpp:382] label_mnist_1_split -> label_mnist_1_split_1
I0428 20:28:19.138691  3333 net.cpp:124] Setting up label_mnist_1_split
I0428 20:28:19.138701  3333 net.cpp:131] Top shape: 100 (100)
I0428 20:28:19.138705  3333 net.cpp:131] Top shape: 100 (100)
I0428 20:28:19.138710  3333 net.cpp:139] Memory required for data: 314800
I0428 20:28:19.138713  3333 layer_factory.hpp:77] Creating layer conv0
I0428 20:28:19.138725  3333 net.cpp:86] Creating Layer conv0
I0428 20:28:19.138730  3333 net.cpp:408] conv0 <- data
I0428 20:28:19.138736  3333 net.cpp:382] conv0 -> conv0
I0428 20:28:19.140705  3333 net.cpp:124] Setting up conv0
I0428 20:28:19.140722  3333 net.cpp:131] Top shape: 100 100 24 24 (5760000)
I0428 20:28:19.140727  3333 net.cpp:139] Memory required for data: 23354800
I0428 20:28:19.140739  3333 layer_factory.hpp:77] Creating layer pool0
I0428 20:28:19.140748  3333 net.cpp:86] Creating Layer pool0
I0428 20:28:19.140753  3333 net.cpp:408] pool0 <- conv0
I0428 20:28:19.140759  3333 net.cpp:382] pool0 -> pool0
I0428 20:28:19.140807  3333 net.cpp:124] Setting up pool0
I0428 20:28:19.140825  3333 net.cpp:131] Top shape: 100 100 12 12 (1440000)
I0428 20:28:19.140830  3333 net.cpp:139] Memory required for data: 29114800
I0428 20:28:19.140832  3333 layer_factory.hpp:77] Creating layer conv1
I0428 20:28:19.140844  3333 net.cpp:86] Creating Layer conv1
I0428 20:28:19.140849  3333 net.cpp:408] conv1 <- pool0
I0428 20:28:19.140856  3333 net.cpp:382] conv1 -> conv1
I0428 20:28:19.142762  3333 net.cpp:124] Setting up conv1
I0428 20:28:19.142779  3333 net.cpp:131] Top shape: 100 5 8 8 (32000)
I0428 20:28:19.142784  3333 net.cpp:139] Memory required for data: 29242800
I0428 20:28:19.142803  3333 layer_factory.hpp:77] Creating layer pool1
I0428 20:28:19.142819  3333 net.cpp:86] Creating Layer pool1
I0428 20:28:19.142824  3333 net.cpp:408] pool1 <- conv1
I0428 20:28:19.142832  3333 net.cpp:382] pool1 -> pool1
I0428 20:28:19.142879  3333 net.cpp:124] Setting up pool1
I0428 20:28:19.142886  3333 net.cpp:131] Top shape: 100 5 4 4 (8000)
I0428 20:28:19.142899  3333 net.cpp:139] Memory required for data: 29274800
I0428 20:28:19.142902  3333 layer_factory.hpp:77] Creating layer ip1
I0428 20:28:19.142916  3333 net.cpp:86] Creating Layer ip1
I0428 20:28:19.142921  3333 net.cpp:408] ip1 <- pool1
I0428 20:28:19.142935  3333 net.cpp:382] ip1 -> ip1
I0428 20:28:19.143074  3333 net.cpp:124] Setting up ip1
I0428 20:28:19.143084  3333 net.cpp:131] Top shape: 100 25 (2500)
I0428 20:28:19.143105  3333 net.cpp:139] Memory required for data: 29284800
I0428 20:28:19.143115  3333 layer_factory.hpp:77] Creating layer relu1
I0428 20:28:19.143122  3333 net.cpp:86] Creating Layer relu1
I0428 20:28:19.143126  3333 net.cpp:408] relu1 <- ip1
I0428 20:28:19.143131  3333 net.cpp:369] relu1 -> ip1 (in-place)
I0428 20:28:19.143331  3333 net.cpp:124] Setting up relu1
I0428 20:28:19.143342  3333 net.cpp:131] Top shape: 100 25 (2500)
I0428 20:28:19.143347  3333 net.cpp:139] Memory required for data: 29294800
I0428 20:28:19.143350  3333 layer_factory.hpp:77] Creating layer ip2
I0428 20:28:19.143358  3333 net.cpp:86] Creating Layer ip2
I0428 20:28:19.143362  3333 net.cpp:408] ip2 <- ip1
I0428 20:28:19.143370  3333 net.cpp:382] ip2 -> ip2
I0428 20:28:19.143493  3333 net.cpp:124] Setting up ip2
I0428 20:28:19.143510  3333 net.cpp:131] Top shape: 100 10 (1000)
I0428 20:28:19.143514  3333 net.cpp:139] Memory required for data: 29298800
I0428 20:28:19.143522  3333 layer_factory.hpp:77] Creating layer relu2
I0428 20:28:19.143527  3333 net.cpp:86] Creating Layer relu2
I0428 20:28:19.143532  3333 net.cpp:408] relu2 <- ip2
I0428 20:28:19.143537  3333 net.cpp:369] relu2 -> ip2 (in-place)
I0428 20:28:19.143728  3333 net.cpp:124] Setting up relu2
I0428 20:28:19.143739  3333 net.cpp:131] Top shape: 100 10 (1000)
I0428 20:28:19.143743  3333 net.cpp:139] Memory required for data: 29302800
I0428 20:28:19.143748  3333 layer_factory.hpp:77] Creating layer ip3
I0428 20:28:19.143755  3333 net.cpp:86] Creating Layer ip3
I0428 20:28:19.143759  3333 net.cpp:408] ip3 <- ip2
I0428 20:28:19.143764  3333 net.cpp:382] ip3 -> ip3
I0428 20:28:19.143893  3333 net.cpp:124] Setting up ip3
I0428 20:28:19.143900  3333 net.cpp:131] Top shape: 100 10 (1000)
I0428 20:28:19.143904  3333 net.cpp:139] Memory required for data: 29306800
I0428 20:28:19.143913  3333 layer_factory.hpp:77] Creating layer relu3
I0428 20:28:19.143919  3333 net.cpp:86] Creating Layer relu3
I0428 20:28:19.143923  3333 net.cpp:408] relu3 <- ip3
I0428 20:28:19.143929  3333 net.cpp:369] relu3 -> ip3 (in-place)
I0428 20:28:19.144845  3333 net.cpp:124] Setting up relu3
I0428 20:28:19.144860  3333 net.cpp:131] Top shape: 100 10 (1000)
I0428 20:28:19.144865  3333 net.cpp:139] Memory required for data: 29310800
I0428 20:28:19.144870  3333 layer_factory.hpp:77] Creating layer ip3_relu3_0_split
I0428 20:28:19.144877  3333 net.cpp:86] Creating Layer ip3_relu3_0_split
I0428 20:28:19.144882  3333 net.cpp:408] ip3_relu3_0_split <- ip3
I0428 20:28:19.144888  3333 net.cpp:382] ip3_relu3_0_split -> ip3_relu3_0_split_0
I0428 20:28:19.144896  3333 net.cpp:382] ip3_relu3_0_split -> ip3_relu3_0_split_1
I0428 20:28:19.144958  3333 net.cpp:124] Setting up ip3_relu3_0_split
I0428 20:28:19.144966  3333 net.cpp:131] Top shape: 100 10 (1000)
I0428 20:28:19.144971  3333 net.cpp:131] Top shape: 100 10 (1000)
I0428 20:28:19.144975  3333 net.cpp:139] Memory required for data: 29318800
I0428 20:28:19.144979  3333 layer_factory.hpp:77] Creating layer accuracy
I0428 20:28:19.144985  3333 net.cpp:86] Creating Layer accuracy
I0428 20:28:19.144989  3333 net.cpp:408] accuracy <- ip3_relu3_0_split_0
I0428 20:28:19.144994  3333 net.cpp:408] accuracy <- label_mnist_1_split_0
I0428 20:28:19.145001  3333 net.cpp:382] accuracy -> accuracy
…
