…
I0428 19:31:41.991991 22644 net.cpp:296] The NetState phase (0) differed from the phase (1) specified by a rule in layer mnist
I0428 19:31:41.992020 22644 net.cpp:296] The NetState phase (0) differed from the phase (1) specified by a rule in layer accuracy
I0428 19:31:41.992094 22644 net.cpp:53] Initializing net from parameters: 
name: "LeNet"
state {
  phase: TRAIN
  level: 0
  stage: ""
}
layer {
  name: "mnist"
  type: "Data"
  top: "data"
  top: "label"
  include {
    phase: TRAIN
  }
  transform_param {
    scale: 0.00390625
  }
  data_param {
    source: "examples/mnist/mnist_train_lmdb"
    batch_size: 64
    backend: LMDB
  }
}
layer {
  name: "conv0"
  type: "Convolution"
  bottom: "data"
  top: "conv0"
  param {
    lr_mult: 1
  }
  param {
    lr_mult: 2
  }
  convolution_param {
    num_output: 10
    kernel_size: 5
    stride: 1
    weight_filler {
      type: "xavier"
    }
    bias_filler {
      type: "constant"
    }
  }
}
layer {
  name: "pool0"
  type: "Pooling"
  bottom: "conv0"
  top: "pool0"
  pooling_param {
    pool: MAX
    kernel_size: 2
    stride: 2
  }
}
layer {
  name: "ip1"
  type: "InnerProduct"
  bottom: "pool0"
  top: "ip1"
  param {
    lr_mult: 1
  }
  param {
    lr_mult: 2
  }
  inner_product_param {
    num_output: 10
    weight_filler {
      type: "xavier"
    }
    bias_filler {
      type: "constant"
    }
  }
}
layer {
  name: "relu1"
  type: "ReLU"
  bottom: "ip1"
  top: "ip1"
}
layer {
  name: "ip2"
  type: "InnerProduct"
  bottom: "ip1"
  top: "ip2"
  param {
    lr_mult: 1
  }
  param {
    lr_mult: 2
  }
  inner_product_param {
    num_output: 10
    weight_filler {
      type: "xavier"
    }
    bias_filler {
      type: "constant"
    }
  }
}
layer {
  name: "relu2"
  type: "ReLU"
  bottom: "ip2"
  top: "ip2"
}
layer {
  name: "ip3"
  type: "InnerProduct"
  bottom: "ip2"
  top: "ip3"
  param {
    lr_mult: 1
  }
  param {
    lr_mult: 2
  }
  inner_product_param {
    num_output: 10
    weight_filler {
      type: "xavier"
    }
    bias_filler {
      type: "constant"
    }
  }
}
layer {
  name: "relu3"
  type: "ReLU"
  bottom: "ip3"
  top: "ip3"
}
layer {
  name: "loss"
  type: "SoftmaxWithLoss"
  bottom: "ip3"
  bottom: "label"
  top: "loss"
}
I0428 19:31:41.992156 22644 layer_factory.hpp:77] Creating layer mnist
I0428 19:31:41.992238 22644 db_lmdb.cpp:35] Opened lmdb examples/mnist/mnist_train_lmdb
I0428 19:31:41.992256 22644 net.cpp:86] Creating Layer mnist
I0428 19:31:41.992262 22644 net.cpp:382] mnist -> data
I0428 19:31:41.992281 22644 net.cpp:382] mnist -> label
I0428 19:31:41.993294 22644 data_layer.cpp:45] output data size: 64,1,28,28
I0428 19:31:41.995542 22644 net.cpp:124] Setting up mnist
I0428 19:31:41.995573 22644 net.cpp:131] Top shape: 64 1 28 28 (50176)
I0428 19:31:41.995579 22644 net.cpp:131] Top shape: 64 (64)
I0428 19:31:41.995581 22644 net.cpp:139] Memory required for data: 200960
I0428 19:31:41.995586 22644 layer_factory.hpp:77] Creating layer conv0
I0428 19:31:41.995602 22644 net.cpp:86] Creating Layer conv0
I0428 19:31:41.995621 22644 net.cpp:408] conv0 <- data
I0428 19:31:41.995630 22644 net.cpp:382] conv0 -> conv0
I0428 19:31:42.233688 22644 net.cpp:124] Setting up conv0
I0428 19:31:42.233731 22644 net.cpp:131] Top shape: 64 10 24 24 (368640)
I0428 19:31:42.233736 22644 net.cpp:139] Memory required for data: 1675520
I0428 19:31:42.233750 22644 layer_factory.hpp:77] Creating layer pool0
I0428 19:31:42.233778 22644 net.cpp:86] Creating Layer pool0
I0428 19:31:42.233814 22644 net.cpp:408] pool0 <- conv0
I0428 19:31:42.233819 22644 net.cpp:382] pool0 -> pool0
I0428 19:31:42.233868 22644 net.cpp:124] Setting up pool0
I0428 19:31:42.233876 22644 net.cpp:131] Top shape: 64 10 12 12 (92160)
I0428 19:31:42.233880 22644 net.cpp:139] Memory required for data: 2044160
I0428 19:31:42.233883 22644 layer_factory.hpp:77] Creating layer ip1
I0428 19:31:42.233891 22644 net.cpp:86] Creating Layer ip1
I0428 19:31:42.233894 22644 net.cpp:408] ip1 <- pool0
I0428 19:31:42.233898 22644 net.cpp:382] ip1 -> ip1
I0428 19:31:42.234987 22644 net.cpp:124] Setting up ip1
I0428 19:31:42.235002 22644 net.cpp:131] Top shape: 64 10 (640)
I0428 19:31:42.235021 22644 net.cpp:139] Memory required for data: 2046720
I0428 19:31:42.235030 22644 layer_factory.hpp:77] Creating layer relu1
I0428 19:31:42.235038 22644 net.cpp:86] Creating Layer relu1
I0428 19:31:42.235041 22644 net.cpp:408] relu1 <- ip1
I0428 19:31:42.235046 22644 net.cpp:369] relu1 -> ip1 (in-place)
I0428 19:31:42.235258 22644 net.cpp:124] Setting up relu1
I0428 19:31:42.235268 22644 net.cpp:131] Top shape: 64 10 (640)
I0428 19:31:42.235272 22644 net.cpp:139] Memory required for data: 2049280
I0428 19:31:42.235275 22644 layer_factory.hpp:77] Creating layer ip2
I0428 19:31:42.235282 22644 net.cpp:86] Creating Layer ip2
I0428 19:31:42.235285 22644 net.cpp:408] ip2 <- ip1
I0428 19:31:42.235291 22644 net.cpp:382] ip2 -> ip2
I0428 19:31:42.235388 22644 net.cpp:124] Setting up ip2
I0428 19:31:42.235395 22644 net.cpp:131] Top shape: 64 10 (640)
I0428 19:31:42.235399 22644 net.cpp:139] Memory required for data: 2051840
I0428 19:31:42.235406 22644 layer_factory.hpp:77] Creating layer relu2
I0428 19:31:42.235411 22644 net.cpp:86] Creating Layer relu2
I0428 19:31:42.235414 22644 net.cpp:408] relu2 <- ip2
I0428 19:31:42.235419 22644 net.cpp:369] relu2 -> ip2 (in-place)
I0428 19:31:42.236243 22644 net.cpp:124] Setting up relu2
I0428 19:31:42.236255 22644 net.cpp:131] Top shape: 64 10 (640)
I0428 19:31:42.236275 22644 net.cpp:139] Memory required for data: 2054400
I0428 19:31:42.236279 22644 layer_factory.hpp:77] Creating layer ip3
I0428 19:31:42.236286 22644 net.cpp:86] Creating Layer ip3
I0428 19:31:42.236291 22644 net.cpp:408] ip3 <- ip2
I0428 19:31:42.236297 22644 net.cpp:382] ip3 -> ip3
I0428 19:31:42.236421 22644 net.cpp:124] Setting up ip3
I0428 19:31:42.236429 22644 net.cpp:131] Top shape: 64 10 (640)
I0428 19:31:42.236433 22644 net.cpp:139] Memory required for data: 2056960
I0428 19:31:42.236438 22644 layer_factory.hpp:77] Creating layer relu3
I0428 19:31:42.236459 22644 net.cpp:86] Creating Layer relu3
I0428 19:31:42.236465 22644 net.cpp:408] relu3 <- ip3
I0428 19:31:42.236470 22644 net.cpp:369] relu3 -> ip3 (in-place)
I0428 19:31:42.236620 22644 net.cpp:124] Setting up relu3
I0428 19:31:42.236629 22644 net.cpp:131] Top shape: 64 10 (640)
I0428 19:31:42.236631 22644 net.cpp:139] Memory required for data: 2059520
I0428 19:31:42.236635 22644 layer_factory.hpp:77] Creating layer loss
I0428 19:31:42.236641 22644 net.cpp:86] Creating Layer loss
I0428 19:31:42.236644 22644 net.cpp:408] loss <- ip3
I0428 19:31:42.236649 22644 net.cpp:408] loss <- label
I0428 19:31:42.236654 22644 net.cpp:382] loss -> loss
I0428 19:31:42.236672 22644 layer_factory.hpp:77] Creating layer loss
…
I0428 19:31:42.237366 22644 solver.cpp:173] Creating test net (#0) specified by net file: ECE595/mnist/train_test/var_everything2/lenet_train_test130.prototxt
I0428 19:31:42.237407 22644 net.cpp:296] The NetState phase (1) differed from the phase (0) specified by a rule in layer mnist
I0428 19:31:42.237496 22644 net.cpp:53] Initializing net from parameters: 
name: "LeNet"
state {
  phase: TEST
}
layer {
  name: "mnist"
  type: "Data"
  top: "data"
  top: "label"
  include {
    phase: TEST
  }
  transform_param {
    scale: 0.00390625
  }
  data_param {
    source: "examples/mnist/mnist_test_lmdb"
    batch_size: 100
    backend: LMDB
  }
}
layer {
  name: "conv0"
  type: "Convolution"
  bottom: "data"
  top: "conv0"
  param {
    lr_mult: 1
  }
  param {
    lr_mult: 2
  }
  convolution_param {
    num_output: 10
    kernel_size: 5
    stride: 1
    weight_filler {
      type: "xavier"
    }
    bias_filler {
      type: "constant"
    }
  }
}
layer {
  name: "pool0"
  type: "Pooling"
  bottom: "conv0"
  top: "pool0"
  pooling_param {
    pool: MAX
    kernel_size: 2
    stride: 2
  }
}
layer {
  name: "ip1"
  type: "InnerProduct"
  bottom: "pool0"
  top: "ip1"
  param {
    lr_mult: 1
  }
  param {
    lr_mult: 2
  }
  inner_product_param {
    num_output: 10
    weight_filler {
      type: "xavier"
    }
    bias_filler {
      type: "constant"
    }
  }
}
layer {
  name: "relu1"
  type: "ReLU"
  bottom: "ip1"
  top: "ip1"
}
layer {
  name: "ip2"
  type: "InnerProduct"
  bottom: "ip1"
  top: "ip2"
  param {
    lr_mult: 1
  }
  param {
    lr_mult: 2
  }
  inner_product_param {
    num_output: 10
    weight_filler {
      type: "xavier"
    }
    bias_filler {
      type: "constant"
    }
  }
}
layer {
  name: "relu2"
  type: "ReLU"
  bottom: "ip2"
  top: "ip2"
}
layer {
  name: "ip3"
  type: "InnerProduct"
  bottom: "ip2"
  top: "ip3"
  param {
    lr_mult: 1
  }
  param {
    lr_mult: 2
  }
  inner_product_param {
    num_output: 10
    weight_filler {
      type: "xavier"
    }
    bias_filler {
      type: "constant"
    }
  }
}
layer {
  name: "relu3"
  type: "ReLU"
  bottom: "ip3"
  top: "ip3"
}
layer {
  name: "accuracy"
  type: "Accuracy"
  bottom: "ip3"
  bottom: "label"
  top: "accuracy"
  include {
    phase: TEST
  }
}
layer {
  name: "loss"
  type: "SoftmaxWithLoss"
  bottom: "ip3"
  bottom: "label"
  top: "loss"
}
I0428 19:31:42.237561 22644 layer_factory.hpp:77] Creating layer mnist
I0428 19:31:42.237607 22644 db_lmdb.cpp:35] Opened lmdb examples/mnist/mnist_test_lmdb
I0428 19:31:42.237622 22644 net.cpp:86] Creating Layer mnist
I0428 19:31:42.237625 22644 net.cpp:382] mnist -> data
I0428 19:31:42.237633 22644 net.cpp:382] mnist -> label
I0428 19:31:42.237721 22644 data_layer.cpp:45] output data size: 100,1,28,28
I0428 19:31:42.240000 22644 net.cpp:124] Setting up mnist
I0428 19:31:42.240046 22644 net.cpp:131] Top shape: 100 1 28 28 (78400)
I0428 19:31:42.240051 22644 net.cpp:131] Top shape: 100 (100)
I0428 19:31:42.240056 22644 net.cpp:139] Memory required for data: 314000
I0428 19:31:42.240059 22644 layer_factory.hpp:77] Creating layer label_mnist_1_split
I0428 19:31:42.240067 22644 net.cpp:86] Creating Layer label_mnist_1_split
I0428 19:31:42.240070 22644 net.cpp:408] label_mnist_1_split <- label
I0428 19:31:42.240075 22644 net.cpp:382] label_mnist_1_split -> label_mnist_1_split_0
I0428 19:31:42.240083 22644 net.cpp:382] label_mnist_1_split -> label_mnist_1_split_1
I0428 19:31:42.240128 22644 net.cpp:124] Setting up label_mnist_1_split
I0428 19:31:42.240146 22644 net.cpp:131] Top shape: 100 (100)
I0428 19:31:42.240150 22644 net.cpp:131] Top shape: 100 (100)
I0428 19:31:42.240154 22644 net.cpp:139] Memory required for data: 314800
I0428 19:31:42.240167 22644 layer_factory.hpp:77] Creating layer conv0
I0428 19:31:42.240177 22644 net.cpp:86] Creating Layer conv0
I0428 19:31:42.240181 22644 net.cpp:408] conv0 <- data
I0428 19:31:42.240186 22644 net.cpp:382] conv0 -> conv0
I0428 19:31:42.241847 22644 net.cpp:124] Setting up conv0
I0428 19:31:42.241860 22644 net.cpp:131] Top shape: 100 10 24 24 (576000)
I0428 19:31:42.241880 22644 net.cpp:139] Memory required for data: 2618800
I0428 19:31:42.241889 22644 layer_factory.hpp:77] Creating layer pool0
I0428 19:31:42.241895 22644 net.cpp:86] Creating Layer pool0
I0428 19:31:42.241899 22644 net.cpp:408] pool0 <- conv0
I0428 19:31:42.241904 22644 net.cpp:382] pool0 -> pool0
I0428 19:31:42.241938 22644 net.cpp:124] Setting up pool0
I0428 19:31:42.241943 22644 net.cpp:131] Top shape: 100 10 12 12 (144000)
I0428 19:31:42.241946 22644 net.cpp:139] Memory required for data: 3194800
I0428 19:31:42.241950 22644 layer_factory.hpp:77] Creating layer ip1
I0428 19:31:42.241955 22644 net.cpp:86] Creating Layer ip1
I0428 19:31:42.241958 22644 net.cpp:408] ip1 <- pool0
I0428 19:31:42.241962 22644 net.cpp:382] ip1 -> ip1
I0428 19:31:42.242131 22644 net.cpp:124] Setting up ip1
I0428 19:31:42.242139 22644 net.cpp:131] Top shape: 100 10 (1000)
I0428 19:31:42.242142 22644 net.cpp:139] Memory required for data: 3198800
I0428 19:31:42.242148 22644 layer_factory.hpp:77] Creating layer relu1
I0428 19:31:42.242153 22644 net.cpp:86] Creating Layer relu1
I0428 19:31:42.242156 22644 net.cpp:408] relu1 <- ip1
I0428 19:31:42.242161 22644 net.cpp:369] relu1 -> ip1 (in-place)
I0428 19:31:42.242457 22644 net.cpp:124] Setting up relu1
I0428 19:31:42.242466 22644 net.cpp:131] Top shape: 100 10 (1000)
I0428 19:31:42.242470 22644 net.cpp:139] Memory required for data: 3202800
I0428 19:31:42.242473 22644 layer_factory.hpp:77] Creating layer ip2
I0428 19:31:42.242480 22644 net.cpp:86] Creating Layer ip2
I0428 19:31:42.242483 22644 net.cpp:408] ip2 <- ip1
I0428 19:31:42.242488 22644 net.cpp:382] ip2 -> ip2
I0428 19:31:42.242624 22644 net.cpp:124] Setting up ip2
I0428 19:31:42.242632 22644 net.cpp:131] Top shape: 100 10 (1000)
I0428 19:31:42.242635 22644 net.cpp:139] Memory required for data: 3206800
I0428 19:31:42.242643 22644 layer_factory.hpp:77] Creating layer relu2
I0428 19:31:42.242648 22644 net.cpp:86] Creating Layer relu2
I0428 19:31:42.242652 22644 net.cpp:408] relu2 <- ip2
I0428 19:31:42.242657 22644 net.cpp:369] relu2 -> ip2 (in-place)
I0428 19:31:42.243557 22644 net.cpp:124] Setting up relu2
I0428 19:31:42.243587 22644 net.cpp:131] Top shape: 100 10 (1000)
I0428 19:31:42.243590 22644 net.cpp:139] Memory required for data: 3210800
I0428 19:31:42.243594 22644 layer_factory.hpp:77] Creating layer ip3
I0428 19:31:42.243602 22644 net.cpp:86] Creating Layer ip3
I0428 19:31:42.243607 22644 net.cpp:408] ip3 <- ip2
I0428 19:31:42.243613 22644 net.cpp:382] ip3 -> ip3
I0428 19:31:42.243727 22644 net.cpp:124] Setting up ip3
I0428 19:31:42.243736 22644 net.cpp:131] Top shape: 100 10 (1000)
I0428 19:31:42.243739 22644 net.cpp:139] Memory required for data: 3214800
I0428 19:31:42.243746 22644 layer_factory.hpp:77] Creating layer relu3
I0428 19:31:42.243752 22644 net.cpp:86] Creating Layer relu3
I0428 19:31:42.243754 22644 net.cpp:408] relu3 <- ip3
I0428 19:31:42.243760 22644 net.cpp:369] relu3 -> ip3 (in-place)
I0428 19:31:42.243949 22644 net.cpp:124] Setting up relu3
I0428 19:31:42.243958 22644 net.cpp:131] Top shape: 100 10 (1000)
I0428 19:31:42.243962 22644 net.cpp:139] Memory required for data: 3218800
I0428 19:31:42.243964 22644 layer_factory.hpp:77] Creating layer ip3_relu3_0_split
I0428 19:31:42.243969 22644 net.cpp:86] Creating Layer ip3_relu3_0_split
I0428 19:31:42.243973 22644 net.cpp:408] ip3_relu3_0_split <- ip3
I0428 19:31:42.243983 22644 net.cpp:382] ip3_relu3_0_split -> ip3_relu3_0_split_0
I0428 19:31:42.243989 22644 net.cpp:382] ip3_relu3_0_split -> ip3_relu3_0_split_1
I0428 19:31:42.244024 22644 net.cpp:124] Setting up ip3_relu3_0_split
I0428 19:31:42.244031 22644 net.cpp:131] Top shape: 100 10 (1000)
I0428 19:31:42.244035 22644 net.cpp:131] Top shape: 100 10 (1000)
I0428 19:31:42.244048 22644 net.cpp:139] Memory required for data: 3226800
I0428 19:31:42.244052 22644 layer_factory.hpp:77] Creating layer accuracy
I0428 19:31:42.244062 22644 net.cpp:86] Creating Layer accuracy
I0428 19:31:42.244065 22644 net.cpp:408] accuracy <- ip3_relu3_0_split_0
I0428 19:31:42.244071 22644 net.cpp:408] accuracy <- label_mnist_1_split_0
I0428 19:31:42.244076 22644 net.cpp:382] accuracy -> accuracy
…
