…
I0428 20:35:46.906667  4698 net.cpp:296] The NetState phase (0) differed from the phase (1) specified by a rule in layer mnist
I0428 20:35:46.906687  4698 net.cpp:296] The NetState phase (0) differed from the phase (1) specified by a rule in layer accuracy
I0428 20:35:46.906790  4698 net.cpp:53] Initializing net from parameters: 
name: "LeNet"
state {
  phase: TRAIN
  level: 0
  stage: ""
}
layer {
  name: "mnist"
  type: "Data"
  top: "data"
  top: "label"
  include {
    phase: TRAIN
  }
  transform_param {
    scale: 0.00390625
  }
  data_param {
    source: "examples/mnist/mnist_train_lmdb"
    batch_size: 64
    backend: LMDB
  }
}
layer {
  name: "conv0"
  type: "Convolution"
  bottom: "data"
  top: "conv0"
  param {
    lr_mult: 1
  }
  param {
    lr_mult: 2
  }
  convolution_param {
    num_output: 100
    kernel_size: 5
    stride: 1
    weight_filler {
      type: "xavier"
    }
    bias_filler {
      type: "constant"
    }
  }
}
layer {
  name: "pool0"
  type: "Pooling"
  bottom: "conv0"
  top: "pool0"
  pooling_param {
    pool: MAX
    kernel_size: 2
    stride: 2
  }
}
layer {
  name: "conv1"
  type: "Convolution"
  bottom: "pool0"
  top: "conv1"
  param {
    lr_mult: 1
  }
  param {
    lr_mult: 2
  }
  convolution_param {
    num_output: 50
    kernel_size: 5
    stride: 1
    weight_filler {
      type: "xavier"
    }
    bias_filler {
      type: "constant"
    }
  }
}
layer {
  name: "pool1"
  type: "Pooling"
  bottom: "conv1"
  top: "pool1"
  pooling_param {
    pool: MAX
    kernel_size: 2
    stride: 2
  }
}
layer {
  name: "ip1"
  type: "InnerProduct"
  bottom: "pool1"
  top: "ip1"
  param {
    lr_mult: 1
  }
  param {
    lr_mult: 2
  }
  inner_product_param {
    num_output: 25
    weight_filler {
      type: "xavier"
    }
    bias_filler {
      type: "constant"
    }
  }
}
layer {
  name: "relu1"
  type: "ReLU"
  bottom: "ip1"
  top: "ip1"
}
layer {
  name: "ip2"
  type: "InnerProduct"
  bottom: "ip1"
  top: "ip2"
  param {
    lr_mult: 1
  }
  param {
    lr_mult: 2
  }
  inner_product_param {
    num_output: 50
    weight_filler {
      type: "xavier"
    }
    bias_filler {
      type: "constant"
    }
  }
}
layer {
  name: "relu2"
  type: "ReLU"
  bottom: "ip2"
  top: "ip2"
}
layer {
  name: "ip3"
  type: "InnerProduct"
  bottom: "ip2"
  top: "ip3"
  param {
    lr_mult: 1
  }
  param {
    lr_mult: 2
  }
  inner_product_param {
    num_output: 10
    weight_filler {
      type: "xavier"
    }
    bias_filler {
      type: "constant"
    }
  }
}
layer {
  name: "relu3"
  type: "ReLU"
  bottom: "ip3"
  top: "ip3"
}
layer {
  name: "loss"
  type: "SoftmaxWithLoss"
  bottom: "ip3"
  bottom: "label"
  top: "loss"
}
I0428 20:35:46.906872  4698 layer_factory.hpp:77] Creating layer mnist
I0428 20:35:46.906975  4698 db_lmdb.cpp:35] Opened lmdb examples/mnist/mnist_train_lmdb
I0428 20:35:46.906998  4698 net.cpp:86] Creating Layer mnist
I0428 20:35:46.907006  4698 net.cpp:382] mnist -> data
I0428 20:35:46.907030  4698 net.cpp:382] mnist -> label
I0428 20:35:46.908133  4698 data_layer.cpp:45] output data size: 64,1,28,28
I0428 20:35:46.910606  4698 net.cpp:124] Setting up mnist
I0428 20:35:46.910625  4698 net.cpp:131] Top shape: 64 1 28 28 (50176)
I0428 20:35:46.910631  4698 net.cpp:131] Top shape: 64 (64)
I0428 20:35:46.910635  4698 net.cpp:139] Memory required for data: 200960
I0428 20:35:46.910642  4698 layer_factory.hpp:77] Creating layer conv0
I0428 20:35:46.910661  4698 net.cpp:86] Creating Layer conv0
I0428 20:35:46.910682  4698 net.cpp:408] conv0 <- data
I0428 20:35:46.910694  4698 net.cpp:382] conv0 -> conv0
I0428 20:35:47.192327  4698 net.cpp:124] Setting up conv0
I0428 20:35:47.192354  4698 net.cpp:131] Top shape: 64 100 24 24 (3686400)
I0428 20:35:47.192359  4698 net.cpp:139] Memory required for data: 14946560
I0428 20:35:47.192374  4698 layer_factory.hpp:77] Creating layer pool0
I0428 20:35:47.192387  4698 net.cpp:86] Creating Layer pool0
I0428 20:35:47.192391  4698 net.cpp:408] pool0 <- conv0
I0428 20:35:47.192396  4698 net.cpp:382] pool0 -> pool0
I0428 20:35:47.192443  4698 net.cpp:124] Setting up pool0
I0428 20:35:47.192450  4698 net.cpp:131] Top shape: 64 100 12 12 (921600)
I0428 20:35:47.192452  4698 net.cpp:139] Memory required for data: 18632960
I0428 20:35:47.192456  4698 layer_factory.hpp:77] Creating layer conv1
I0428 20:35:47.192466  4698 net.cpp:86] Creating Layer conv1
I0428 20:35:47.192469  4698 net.cpp:408] conv1 <- pool0
I0428 20:35:47.192474  4698 net.cpp:382] conv1 -> conv1
I0428 20:35:47.195682  4698 net.cpp:124] Setting up conv1
I0428 20:35:47.195695  4698 net.cpp:131] Top shape: 64 50 8 8 (204800)
I0428 20:35:47.195699  4698 net.cpp:139] Memory required for data: 19452160
I0428 20:35:47.195708  4698 layer_factory.hpp:77] Creating layer pool1
I0428 20:35:47.195714  4698 net.cpp:86] Creating Layer pool1
I0428 20:35:47.195719  4698 net.cpp:408] pool1 <- conv1
I0428 20:35:47.195724  4698 net.cpp:382] pool1 -> pool1
I0428 20:35:47.195775  4698 net.cpp:124] Setting up pool1
I0428 20:35:47.195780  4698 net.cpp:131] Top shape: 64 50 4 4 (51200)
I0428 20:35:47.195783  4698 net.cpp:139] Memory required for data: 19656960
I0428 20:35:47.195785  4698 layer_factory.hpp:77] Creating layer ip1
I0428 20:35:47.195793  4698 net.cpp:86] Creating Layer ip1
I0428 20:35:47.195796  4698 net.cpp:408] ip1 <- pool1
I0428 20:35:47.195801  4698 net.cpp:382] ip1 -> ip1
I0428 20:35:47.196005  4698 net.cpp:124] Setting up ip1
I0428 20:35:47.196013  4698 net.cpp:131] Top shape: 64 25 (1600)
I0428 20:35:47.196017  4698 net.cpp:139] Memory required for data: 19663360
I0428 20:35:47.196023  4698 layer_factory.hpp:77] Creating layer relu1
I0428 20:35:47.196029  4698 net.cpp:86] Creating Layer relu1
I0428 20:35:47.196033  4698 net.cpp:408] relu1 <- ip1
I0428 20:35:47.196036  4698 net.cpp:369] relu1 -> ip1 (in-place)
I0428 20:35:47.196218  4698 net.cpp:124] Setting up relu1
I0428 20:35:47.196228  4698 net.cpp:131] Top shape: 64 25 (1600)
I0428 20:35:47.196231  4698 net.cpp:139] Memory required for data: 19669760
I0428 20:35:47.196234  4698 layer_factory.hpp:77] Creating layer ip2
I0428 20:35:47.196240  4698 net.cpp:86] Creating Layer ip2
I0428 20:35:47.196244  4698 net.cpp:408] ip2 <- ip1
I0428 20:35:47.196249  4698 net.cpp:382] ip2 -> ip2
I0428 20:35:47.196365  4698 net.cpp:124] Setting up ip2
I0428 20:35:47.196372  4698 net.cpp:131] Top shape: 64 50 (3200)
I0428 20:35:47.196375  4698 net.cpp:139] Memory required for data: 19682560
I0428 20:35:47.196380  4698 layer_factory.hpp:77] Creating layer relu2
I0428 20:35:47.196386  4698 net.cpp:86] Creating Layer relu2
I0428 20:35:47.196389  4698 net.cpp:408] relu2 <- ip2
I0428 20:35:47.196393  4698 net.cpp:369] relu2 -> ip2 (in-place)
I0428 20:35:47.197103  4698 net.cpp:124] Setting up relu2
I0428 20:35:47.197130  4698 net.cpp:131] Top shape: 64 50 (3200)
I0428 20:35:47.197134  4698 net.cpp:139] Memory required for data: 19695360
I0428 20:35:47.197137  4698 layer_factory.hpp:77] Creating layer ip3
I0428 20:35:47.197158  4698 net.cpp:86] Creating Layer ip3
I0428 20:35:47.197162  4698 net.cpp:408] ip3 <- ip2
I0428 20:35:47.197167  4698 net.cpp:382] ip3 -> ip3
I0428 20:35:47.197265  4698 net.cpp:124] Setting up ip3
I0428 20:35:47.197273  4698 net.cpp:131] Top shape: 64 10 (640)
I0428 20:35:47.197276  4698 net.cpp:139] Memory required for data: 19697920
I0428 20:35:47.197284  4698 layer_factory.hpp:77] Creating layer relu3
I0428 20:35:47.197288  4698 net.cpp:86] Creating Layer relu3
I0428 20:35:47.197307  4698 net.cpp:408] relu3 <- ip3
I0428 20:35:47.197341  4698 net.cpp:369] relu3 -> ip3 (in-place)
I0428 20:35:47.197494  4698 net.cpp:124] Setting up relu3
I0428 20:35:47.197504  4698 net.cpp:131] Top shape: 64 10 (640)
I0428 20:35:47.197507  4698 net.cpp:139] Memory required for data: 19700480
I0428 20:35:47.197510  4698 layer_factory.hpp:77] Creating layer loss
I0428 20:35:47.197516  4698 net.cpp:86] Creating Layer loss
I0428 20:35:47.197520  4698 net.cpp:408] loss <- ip3
I0428 20:35:47.197523  4698 net.cpp:408] loss <- label
I0428 20:35:47.197530  4698 net.cpp:382] loss -> loss
I0428 20:35:47.197543  4698 layer_factory.hpp:77] Creating layer loss
…
I0428 20:35:47.198185  4698 solver.cpp:173] Creating test net (#0) specified by net file: ECE595/mnist/train_test/var_everything2/lenet_train_test1626.prototxt
I0428 20:35:47.198211  4698 net.cpp:296] The NetState phase (1) differed from the phase (0) specified by a rule in layer mnist
I0428 20:35:47.198302  4698 net.cpp:53] Initializing net from parameters: 
name: "LeNet"
state {
  phase: TEST
}
layer {
  name: "mnist"
  type: "Data"
  top: "data"
  top: "label"
  include {
    phase: TEST
  }
  transform_param {
    scale: 0.00390625
  }
  data_param {
    source: "examples/mnist/mnist_test_lmdb"
    batch_size: 100
    backend: LMDB
  }
}
layer {
  name: "conv0"
  type: "Convolution"
  bottom: "data"
  top: "conv0"
  param {
    lr_mult: 1
  }
  param {
    lr_mult: 2
  }
  convolution_param {
    num_output: 100
    kernel_size: 5
    stride: 1
    weight_filler {
      type: "xavier"
    }
    bias_filler {
      type: "constant"
    }
  }
}
layer {
  name: "pool0"
  type: "Pooling"
  bottom: "conv0"
  top: "pool0"
  pooling_param {
    pool: MAX
    kernel_size: 2
    stride: 2
  }
}
layer {
  name: "conv1"
  type: "Convolution"
  bottom: "pool0"
  top: "conv1"
  param {
    lr_mult: 1
  }
  param {
    lr_mult: 2
  }
  convolution_param {
    num_output: 50
    kernel_size: 5
    stride: 1
    weight_filler {
      type: "xavier"
    }
    bias_filler {
      type: "constant"
    }
  }
}
layer {
  name: "pool1"
  type: "Pooling"
  bottom: "conv1"
  top: "pool1"
  pooling_param {
    pool: MAX
    kernel_size: 2
    stride: 2
  }
}
layer {
  name: "ip1"
  type: "InnerProduct"
  bottom: "pool1"
  top: "ip1"
  param {
    lr_mult: 1
  }
  param {
    lr_mult: 2
  }
  inner_product_param {
    num_output: 25
    weight_filler {
      type: "xavier"
    }
    bias_filler {
      type: "constant"
    }
  }
}
layer {
  name: "relu1"
  type: "ReLU"
  bottom: "ip1"
  top: "ip1"
}
layer {
  name: "ip2"
  type: "InnerProduct"
  bottom: "ip1"
  top: "ip2"
  param {
    lr_mult: 1
  }
  param {
    lr_mult: 2
  }
  inner_product_param {
    num_output: 50
    weight_filler {
      type: "xavier"
    }
    bias_filler {
      type: "constant"
    }
  }
}
layer {
  name: "relu2"
  type: "ReLU"
  bottom: "ip2"
  top: "ip2"
}
layer {
  name: "ip3"
  type: "InnerProduct"
  bottom: "ip2"
  top: "ip3"
  param {
    lr_mult: 1
  }
  param {
    lr_mult: 2
  }
  inner_product_param {
    num_output: 10
    weight_filler {
      type: "xavier"
    }
    bias_filler {
      type: "constant"
    }
  }
}
layer {
  name: "relu3"
  type: "ReLU"
  bottom: "ip3"
  top: "ip3"
}
layer {
  name: "accuracy"
  type: "Accuracy"
  bottom: "ip3"
  bottom: "label"
  top: "accuracy"
  include {
    phase: TEST
  }
}
layer {
  name: "loss"
  type: "SoftmaxWithLoss"
  bottom: "ip3"
  bottom: "label"
  top: "loss"
}
I0428 20:35:47.198379  4698 layer_factory.hpp:77] Creating layer mnist
I0428 20:35:47.198438  4698 db_lmdb.cpp:35] Opened lmdb examples/mnist/mnist_test_lmdb
I0428 20:35:47.198451  4698 net.cpp:86] Creating Layer mnist
I0428 20:35:47.198470  4698 net.cpp:382] mnist -> data
I0428 20:35:47.198478  4698 net.cpp:382] mnist -> label
I0428 20:35:47.198561  4698 data_layer.cpp:45] output data size: 100,1,28,28
I0428 20:35:47.199807  4698 net.cpp:124] Setting up mnist
I0428 20:35:47.199851  4698 net.cpp:131] Top shape: 100 1 28 28 (78400)
I0428 20:35:47.199856  4698 net.cpp:131] Top shape: 100 (100)
I0428 20:35:47.199873  4698 net.cpp:139] Memory required for data: 314000
I0428 20:35:47.199877  4698 layer_factory.hpp:77] Creating layer label_mnist_1_split
I0428 20:35:47.199884  4698 net.cpp:86] Creating Layer label_mnist_1_split
I0428 20:35:47.199887  4698 net.cpp:408] label_mnist_1_split <- label
I0428 20:35:47.199893  4698 net.cpp:382] label_mnist_1_split -> label_mnist_1_split_0
I0428 20:35:47.199900  4698 net.cpp:382] label_mnist_1_split -> label_mnist_1_split_1
I0428 20:35:47.199945  4698 net.cpp:124] Setting up label_mnist_1_split
I0428 20:35:47.199951  4698 net.cpp:131] Top shape: 100 (100)
I0428 20:35:47.199955  4698 net.cpp:131] Top shape: 100 (100)
I0428 20:35:47.199957  4698 net.cpp:139] Memory required for data: 314800
I0428 20:35:47.199960  4698 layer_factory.hpp:77] Creating layer conv0
I0428 20:35:47.199968  4698 net.cpp:86] Creating Layer conv0
I0428 20:35:47.199971  4698 net.cpp:408] conv0 <- data
I0428 20:35:47.199976  4698 net.cpp:382] conv0 -> conv0
I0428 20:35:47.201808  4698 net.cpp:124] Setting up conv0
I0428 20:35:47.201838  4698 net.cpp:131] Top shape: 100 100 24 24 (5760000)
I0428 20:35:47.201843  4698 net.cpp:139] Memory required for data: 23354800
I0428 20:35:47.201851  4698 layer_factory.hpp:77] Creating layer pool0
I0428 20:35:47.201858  4698 net.cpp:86] Creating Layer pool0
I0428 20:35:47.201863  4698 net.cpp:408] pool0 <- conv0
I0428 20:35:47.201867  4698 net.cpp:382] pool0 -> pool0
I0428 20:35:47.201903  4698 net.cpp:124] Setting up pool0
I0428 20:35:47.201910  4698 net.cpp:131] Top shape: 100 100 12 12 (1440000)
I0428 20:35:47.201912  4698 net.cpp:139] Memory required for data: 29114800
I0428 20:35:47.201915  4698 layer_factory.hpp:77] Creating layer conv1
I0428 20:35:47.201923  4698 net.cpp:86] Creating Layer conv1
I0428 20:35:47.201926  4698 net.cpp:408] conv1 <- pool0
I0428 20:35:47.201931  4698 net.cpp:382] conv1 -> conv1
I0428 20:35:47.204906  4698 net.cpp:124] Setting up conv1
I0428 20:35:47.204919  4698 net.cpp:131] Top shape: 100 50 8 8 (320000)
I0428 20:35:47.204923  4698 net.cpp:139] Memory required for data: 30394800
I0428 20:35:47.204931  4698 layer_factory.hpp:77] Creating layer pool1
I0428 20:35:47.204953  4698 net.cpp:86] Creating Layer pool1
I0428 20:35:47.204957  4698 net.cpp:408] pool1 <- conv1
I0428 20:35:47.204962  4698 net.cpp:382] pool1 -> pool1
I0428 20:35:47.205013  4698 net.cpp:124] Setting up pool1
I0428 20:35:47.205018  4698 net.cpp:131] Top shape: 100 50 4 4 (80000)
I0428 20:35:47.205021  4698 net.cpp:139] Memory required for data: 30714800
I0428 20:35:47.205024  4698 layer_factory.hpp:77] Creating layer ip1
I0428 20:35:47.205030  4698 net.cpp:86] Creating Layer ip1
I0428 20:35:47.205034  4698 net.cpp:408] ip1 <- pool1
I0428 20:35:47.205039  4698 net.cpp:382] ip1 -> ip1
I0428 20:35:47.205248  4698 net.cpp:124] Setting up ip1
I0428 20:35:47.205268  4698 net.cpp:131] Top shape: 100 25 (2500)
I0428 20:35:47.205272  4698 net.cpp:139] Memory required for data: 30724800
I0428 20:35:47.205279  4698 layer_factory.hpp:77] Creating layer relu1
I0428 20:35:47.205286  4698 net.cpp:86] Creating Layer relu1
I0428 20:35:47.205288  4698 net.cpp:408] relu1 <- ip1
I0428 20:35:47.205308  4698 net.cpp:369] relu1 -> ip1 (in-place)
I0428 20:35:47.205468  4698 net.cpp:124] Setting up relu1
I0428 20:35:47.205477  4698 net.cpp:131] Top shape: 100 25 (2500)
I0428 20:35:47.205480  4698 net.cpp:139] Memory required for data: 30734800
I0428 20:35:47.205483  4698 layer_factory.hpp:77] Creating layer ip2
I0428 20:35:47.205489  4698 net.cpp:86] Creating Layer ip2
I0428 20:35:47.205492  4698 net.cpp:408] ip2 <- ip1
I0428 20:35:47.205497  4698 net.cpp:382] ip2 -> ip2
I0428 20:35:47.205615  4698 net.cpp:124] Setting up ip2
I0428 20:35:47.205621  4698 net.cpp:131] Top shape: 100 50 (5000)
I0428 20:35:47.205624  4698 net.cpp:139] Memory required for data: 30754800
I0428 20:35:47.205631  4698 layer_factory.hpp:77] Creating layer relu2
I0428 20:35:47.205636  4698 net.cpp:86] Creating Layer relu2
I0428 20:35:47.205638  4698 net.cpp:408] relu2 <- ip2
I0428 20:35:47.205642  4698 net.cpp:369] relu2 -> ip2 (in-place)
I0428 20:35:47.205801  4698 net.cpp:124] Setting up relu2
I0428 20:35:47.205811  4698 net.cpp:131] Top shape: 100 50 (5000)
I0428 20:35:47.205813  4698 net.cpp:139] Memory required for data: 30774800
I0428 20:35:47.205816  4698 layer_factory.hpp:77] Creating layer ip3
I0428 20:35:47.205821  4698 net.cpp:86] Creating Layer ip3
I0428 20:35:47.205824  4698 net.cpp:408] ip3 <- ip2
I0428 20:35:47.205829  4698 net.cpp:382] ip3 -> ip3
I0428 20:35:47.205936  4698 net.cpp:124] Setting up ip3
I0428 20:35:47.205943  4698 net.cpp:131] Top shape: 100 10 (1000)
I0428 20:35:47.205946  4698 net.cpp:139] Memory required for data: 30778800
I0428 20:35:47.205953  4698 layer_factory.hpp:77] Creating layer relu3
I0428 20:35:47.205958  4698 net.cpp:86] Creating Layer relu3
I0428 20:35:47.205961  4698 net.cpp:408] relu3 <- ip3
I0428 20:35:47.205965  4698 net.cpp:369] relu3 -> ip3 (in-place)
I0428 20:35:47.206753  4698 net.cpp:124] Setting up relu3
I0428 20:35:47.206766  4698 net.cpp:131] Top shape: 100 10 (1000)
I0428 20:35:47.206775  4698 net.cpp:139] Memory required for data: 30782800
I0428 20:35:47.206779  4698 layer_factory.hpp:77] Creating layer ip3_relu3_0_split
I0428 20:35:47.206785  4698 net.cpp:86] Creating Layer ip3_relu3_0_split
I0428 20:35:47.206794  4698 net.cpp:408] ip3_relu3_0_split <- ip3
I0428 20:35:47.206799  4698 net.cpp:382] ip3_relu3_0_split -> ip3_relu3_0_split_0
I0428 20:35:47.206804  4698 net.cpp:382] ip3_relu3_0_split -> ip3_relu3_0_split_1
I0428 20:35:47.206840  4698 net.cpp:124] Setting up ip3_relu3_0_split
I0428 20:35:47.206846  4698 net.cpp:131] Top shape: 100 10 (1000)
I0428 20:35:47.206851  4698 net.cpp:131] Top shape: 100 10 (1000)
I0428 20:35:47.206853  4698 net.cpp:139] Memory required for data: 30790800
I0428 20:35:47.206856  4698 layer_factory.hpp:77] Creating layer accuracy
I0428 20:35:47.206861  4698 net.cpp:86] Creating Layer accuracy
I0428 20:35:47.206864  4698 net.cpp:408] accuracy <- ip3_relu3_0_split_0
I0428 20:35:47.206868  4698 net.cpp:408] accuracy <- label_mnist_1_split_0
I0428 20:35:47.206872  4698 net.cpp:382] accuracy -> accuracy
…
