…
I0428 20:07:08.511867 31033 net.cpp:296] The NetState phase (0) differed from the phase (1) specified by a rule in layer mnist
I0428 20:07:08.511900 31033 net.cpp:296] The NetState phase (0) differed from the phase (1) specified by a rule in layer accuracy
I0428 20:07:08.511982 31033 net.cpp:53] Initializing net from parameters: 
name: "LeNet"
state {
  phase: TRAIN
  level: 0
  stage: ""
}
layer {
  name: "mnist"
  type: "Data"
  top: "data"
  top: "label"
  include {
    phase: TRAIN
  }
  transform_param {
    scale: 0.00390625
  }
  data_param {
    source: "examples/mnist/mnist_train_lmdb"
    batch_size: 64
    backend: LMDB
  }
}
layer {
  name: "conv0"
  type: "Convolution"
  bottom: "data"
  top: "conv0"
  param {
    lr_mult: 1
  }
  param {
    lr_mult: 2
  }
  convolution_param {
    num_output: 25
    kernel_size: 5
    stride: 1
    weight_filler {
      type: "xavier"
    }
    bias_filler {
      type: "constant"
    }
  }
}
layer {
  name: "pool0"
  type: "Pooling"
  bottom: "conv0"
  top: "pool0"
  pooling_param {
    pool: MAX
    kernel_size: 2
    stride: 2
  }
}
layer {
  name: "conv1"
  type: "Convolution"
  bottom: "pool0"
  top: "conv1"
  param {
    lr_mult: 1
  }
  param {
    lr_mult: 2
  }
  convolution_param {
    num_output: 5
    kernel_size: 5
    stride: 1
    weight_filler {
      type: "xavier"
    }
    bias_filler {
      type: "constant"
    }
  }
}
layer {
  name: "pool1"
  type: "Pooling"
  bottom: "conv1"
  top: "pool1"
  pooling_param {
    pool: MAX
    kernel_size: 2
    stride: 2
  }
}
layer {
  name: "ip1"
  type: "InnerProduct"
  bottom: "pool1"
  top: "ip1"
  param {
    lr_mult: 1
  }
  param {
    lr_mult: 2
  }
  inner_product_param {
    num_output: 50
    weight_filler {
      type: "xavier"
    }
    bias_filler {
      type: "constant"
    }
  }
}
layer {
  name: "relu1"
  type: "ReLU"
  bottom: "ip1"
  top: "ip1"
}
layer {
  name: "ip2"
  type: "InnerProduct"
  bottom: "ip1"
  top: "ip2"
  param {
    lr_mult: 1
  }
  param {
    lr_mult: 2
  }
  inner_product_param {
    num_output: 25
    weight_filler {
      type: "xavier"
    }
    bias_filler {
      type: "constant"
    }
  }
}
layer {
  name: "relu2"
  type: "ReLU"
  bottom: "ip2"
  top: "ip2"
}
layer {
  name: "ip3"
  type: "InnerProduct"
  bottom: "ip2"
  top: "ip3"
  param {
    lr_mult: 1
  }
  param {
    lr_mult: 2
  }
  inner_product_param {
    num_output: 10
    weight_filler {
      type: "xavier"
    }
    bias_filler {
      type: "constant"
    }
  }
}
layer {
  name: "relu3"
  type: "ReLU"
  bottom: "ip3"
  top: "ip3"
}
layer {
  name: "loss"
  type: "SoftmaxWithLoss"
  bottom: "ip3"
  bottom: "label"
  top: "loss"
}
I0428 20:07:08.512045 31033 layer_factory.hpp:77] Creating layer mnist
I0428 20:07:08.512125 31033 db_lmdb.cpp:35] Opened lmdb examples/mnist/mnist_train_lmdb
I0428 20:07:08.512143 31033 net.cpp:86] Creating Layer mnist
I0428 20:07:08.512151 31033 net.cpp:382] mnist -> data
I0428 20:07:08.512169 31033 net.cpp:382] mnist -> label
I0428 20:07:08.513200 31033 data_layer.cpp:45] output data size: 64,1,28,28
I0428 20:07:08.515445 31033 net.cpp:124] Setting up mnist
I0428 20:07:08.515493 31033 net.cpp:131] Top shape: 64 1 28 28 (50176)
I0428 20:07:08.515498 31033 net.cpp:131] Top shape: 64 (64)
I0428 20:07:08.515501 31033 net.cpp:139] Memory required for data: 200960
I0428 20:07:08.515507 31033 layer_factory.hpp:77] Creating layer conv0
I0428 20:07:08.515522 31033 net.cpp:86] Creating Layer conv0
I0428 20:07:08.515538 31033 net.cpp:408] conv0 <- data
I0428 20:07:08.515550 31033 net.cpp:382] conv0 -> conv0
I0428 20:07:08.751819 31033 net.cpp:124] Setting up conv0
I0428 20:07:08.751860 31033 net.cpp:131] Top shape: 64 25 24 24 (921600)
I0428 20:07:08.751865 31033 net.cpp:139] Memory required for data: 3887360
I0428 20:07:08.751880 31033 layer_factory.hpp:77] Creating layer pool0
I0428 20:07:08.751907 31033 net.cpp:86] Creating Layer pool0
I0428 20:07:08.751925 31033 net.cpp:408] pool0 <- conv0
I0428 20:07:08.751930 31033 net.cpp:382] pool0 -> pool0
I0428 20:07:08.751989 31033 net.cpp:124] Setting up pool0
I0428 20:07:08.752002 31033 net.cpp:131] Top shape: 64 25 12 12 (230400)
I0428 20:07:08.752005 31033 net.cpp:139] Memory required for data: 4808960
I0428 20:07:08.752008 31033 layer_factory.hpp:77] Creating layer conv1
I0428 20:07:08.752018 31033 net.cpp:86] Creating Layer conv1
I0428 20:07:08.752022 31033 net.cpp:408] conv1 <- pool0
I0428 20:07:08.752027 31033 net.cpp:382] conv1 -> conv1
I0428 20:07:08.754752 31033 net.cpp:124] Setting up conv1
I0428 20:07:08.754782 31033 net.cpp:131] Top shape: 64 5 8 8 (20480)
I0428 20:07:08.754786 31033 net.cpp:139] Memory required for data: 4890880
I0428 20:07:08.754793 31033 layer_factory.hpp:77] Creating layer pool1
I0428 20:07:08.754817 31033 net.cpp:86] Creating Layer pool1
I0428 20:07:08.754819 31033 net.cpp:408] pool1 <- conv1
I0428 20:07:08.754824 31033 net.cpp:382] pool1 -> pool1
I0428 20:07:08.754875 31033 net.cpp:124] Setting up pool1
I0428 20:07:08.754881 31033 net.cpp:131] Top shape: 64 5 4 4 (5120)
I0428 20:07:08.754884 31033 net.cpp:139] Memory required for data: 4911360
I0428 20:07:08.754887 31033 layer_factory.hpp:77] Creating layer ip1
I0428 20:07:08.754894 31033 net.cpp:86] Creating Layer ip1
I0428 20:07:08.754910 31033 net.cpp:408] ip1 <- pool1
I0428 20:07:08.754915 31033 net.cpp:382] ip1 -> ip1
I0428 20:07:08.755023 31033 net.cpp:124] Setting up ip1
I0428 20:07:08.755030 31033 net.cpp:131] Top shape: 64 50 (3200)
I0428 20:07:08.755033 31033 net.cpp:139] Memory required for data: 4924160
I0428 20:07:08.755040 31033 layer_factory.hpp:77] Creating layer relu1
I0428 20:07:08.755045 31033 net.cpp:86] Creating Layer relu1
I0428 20:07:08.755048 31033 net.cpp:408] relu1 <- ip1
I0428 20:07:08.755053 31033 net.cpp:369] relu1 -> ip1 (in-place)
I0428 20:07:08.755221 31033 net.cpp:124] Setting up relu1
I0428 20:07:08.755229 31033 net.cpp:131] Top shape: 64 50 (3200)
I0428 20:07:08.755233 31033 net.cpp:139] Memory required for data: 4936960
I0428 20:07:08.755235 31033 layer_factory.hpp:77] Creating layer ip2
I0428 20:07:08.755240 31033 net.cpp:86] Creating Layer ip2
I0428 20:07:08.755244 31033 net.cpp:408] ip2 <- ip1
I0428 20:07:08.755249 31033 net.cpp:382] ip2 -> ip2
I0428 20:07:08.755339 31033 net.cpp:124] Setting up ip2
I0428 20:07:08.755347 31033 net.cpp:131] Top shape: 64 25 (1600)
I0428 20:07:08.755349 31033 net.cpp:139] Memory required for data: 4943360
I0428 20:07:08.755354 31033 layer_factory.hpp:77] Creating layer relu2
I0428 20:07:08.755360 31033 net.cpp:86] Creating Layer relu2
I0428 20:07:08.755362 31033 net.cpp:408] relu2 <- ip2
I0428 20:07:08.755367 31033 net.cpp:369] relu2 -> ip2 (in-place)
I0428 20:07:08.756114 31033 net.cpp:124] Setting up relu2
I0428 20:07:08.756126 31033 net.cpp:131] Top shape: 64 25 (1600)
I0428 20:07:08.756145 31033 net.cpp:139] Memory required for data: 4949760
I0428 20:07:08.756148 31033 layer_factory.hpp:77] Creating layer ip3
I0428 20:07:08.756155 31033 net.cpp:86] Creating Layer ip3
I0428 20:07:08.756158 31033 net.cpp:408] ip3 <- ip2
I0428 20:07:08.756163 31033 net.cpp:382] ip3 -> ip3
I0428 20:07:08.756270 31033 net.cpp:124] Setting up ip3
I0428 20:07:08.756278 31033 net.cpp:131] Top shape: 64 10 (640)
I0428 20:07:08.756280 31033 net.cpp:139] Memory required for data: 4952320
I0428 20:07:08.756289 31033 layer_factory.hpp:77] Creating layer relu3
I0428 20:07:08.756294 31033 net.cpp:86] Creating Layer relu3
I0428 20:07:08.756311 31033 net.cpp:408] relu3 <- ip3
I0428 20:07:08.756315 31033 net.cpp:369] relu3 -> ip3 (in-place)
I0428 20:07:08.756472 31033 net.cpp:124] Setting up relu3
I0428 20:07:08.756480 31033 net.cpp:131] Top shape: 64 10 (640)
I0428 20:07:08.756484 31033 net.cpp:139] Memory required for data: 4954880
I0428 20:07:08.756486 31033 layer_factory.hpp:77] Creating layer loss
I0428 20:07:08.756494 31033 net.cpp:86] Creating Layer loss
I0428 20:07:08.756496 31033 net.cpp:408] loss <- ip3
I0428 20:07:08.756500 31033 net.cpp:408] loss <- label
I0428 20:07:08.756505 31033 net.cpp:382] loss -> loss
I0428 20:07:08.756522 31033 layer_factory.hpp:77] Creating layer loss
…
I0428 20:07:08.757355 31033 solver.cpp:173] Creating test net (#0) specified by net file: ECE595/mnist/train_test/var_everything2/lenet_train_test1047.prototxt
I0428 20:07:08.757400 31033 net.cpp:296] The NetState phase (1) differed from the phase (0) specified by a rule in layer mnist
I0428 20:07:08.757489 31033 net.cpp:53] Initializing net from parameters: 
name: "LeNet"
state {
  phase: TEST
}
layer {
  name: "mnist"
  type: "Data"
  top: "data"
  top: "label"
  include {
    phase: TEST
  }
  transform_param {
    scale: 0.00390625
  }
  data_param {
    source: "examples/mnist/mnist_test_lmdb"
    batch_size: 100
    backend: LMDB
  }
}
layer {
  name: "conv0"
  type: "Convolution"
  bottom: "data"
  top: "conv0"
  param {
    lr_mult: 1
  }
  param {
    lr_mult: 2
  }
  convolution_param {
    num_output: 25
    kernel_size: 5
    stride: 1
    weight_filler {
      type: "xavier"
    }
    bias_filler {
      type: "constant"
    }
  }
}
layer {
  name: "pool0"
  type: "Pooling"
  bottom: "conv0"
  top: "pool0"
  pooling_param {
    pool: MAX
    kernel_size: 2
    stride: 2
  }
}
layer {
  name: "conv1"
  type: "Convolution"
  bottom: "pool0"
  top: "conv1"
  param {
    lr_mult: 1
  }
  param {
    lr_mult: 2
  }
  convolution_param {
    num_output: 5
    kernel_size: 5
    stride: 1
    weight_filler {
      type: "xavier"
    }
    bias_filler {
      type: "constant"
    }
  }
}
layer {
  name: "pool1"
  type: "Pooling"
  bottom: "conv1"
  top: "pool1"
  pooling_param {
    pool: MAX
    kernel_size: 2
    stride: 2
  }
}
layer {
  name: "ip1"
  type: "InnerProduct"
  bottom: "pool1"
  top: "ip1"
  param {
    lr_mult: 1
  }
  param {
    lr_mult: 2
  }
  inner_product_param {
    num_output: 50
    weight_filler {
      type: "xavier"
    }
    bias_filler {
      type: "constant"
    }
  }
}
layer {
  name: "relu1"
  type: "ReLU"
  bottom: "ip1"
  top: "ip1"
}
layer {
  name: "ip2"
  type: "InnerProduct"
  bottom: "ip1"
  top: "ip2"
  param {
    lr_mult: 1
  }
  param {
    lr_mult: 2
  }
  inner_product_param {
    num_output: 25
    weight_filler {
      type: "xavier"
    }
    bias_filler {
      type: "constant"
    }
  }
}
layer {
  name: "relu2"
  type: "ReLU"
  bottom: "ip2"
  top: "ip2"
}
layer {
  name: "ip3"
  type: "InnerProduct"
  bottom: "ip2"
  top: "ip3"
  param {
    lr_mult: 1
  }
  param {
    lr_mult: 2
  }
  inner_product_param {
    num_output: 10
    weight_filler {
      type: "xavier"
    }
    bias_filler {
      type: "constant"
    }
  }
}
layer {
  name: "relu3"
  type: "ReLU"
  bottom: "ip3"
  top: "ip3"
}
layer {
  name: "accuracy"
  type: "Accuracy"
  bottom: "ip3"
  bottom: "label"
  top: "accuracy"
  include {
    phase: TEST
  }
}
layer {
  name: "loss"
  type: "SoftmaxWithLoss"
  bottom: "ip3"
  bottom: "label"
  top: "loss"
}
I0428 20:07:08.757587 31033 layer_factory.hpp:77] Creating layer mnist
I0428 20:07:08.757632 31033 db_lmdb.cpp:35] Opened lmdb examples/mnist/mnist_test_lmdb
I0428 20:07:08.757644 31033 net.cpp:86] Creating Layer mnist
I0428 20:07:08.757649 31033 net.cpp:382] mnist -> data
I0428 20:07:08.757657 31033 net.cpp:382] mnist -> label
I0428 20:07:08.757735 31033 data_layer.cpp:45] output data size: 100,1,28,28
I0428 20:07:08.759829 31033 net.cpp:124] Setting up mnist
I0428 20:07:08.759856 31033 net.cpp:131] Top shape: 100 1 28 28 (78400)
I0428 20:07:08.759876 31033 net.cpp:131] Top shape: 100 (100)
I0428 20:07:08.759879 31033 net.cpp:139] Memory required for data: 314000
I0428 20:07:08.759883 31033 layer_factory.hpp:77] Creating layer label_mnist_1_split
I0428 20:07:08.759889 31033 net.cpp:86] Creating Layer label_mnist_1_split
I0428 20:07:08.759892 31033 net.cpp:408] label_mnist_1_split <- label
I0428 20:07:08.759897 31033 net.cpp:382] label_mnist_1_split -> label_mnist_1_split_0
I0428 20:07:08.759903 31033 net.cpp:382] label_mnist_1_split -> label_mnist_1_split_1
I0428 20:07:08.759953 31033 net.cpp:124] Setting up label_mnist_1_split
I0428 20:07:08.759958 31033 net.cpp:131] Top shape: 100 (100)
I0428 20:07:08.759963 31033 net.cpp:131] Top shape: 100 (100)
I0428 20:07:08.759964 31033 net.cpp:139] Memory required for data: 314800
I0428 20:07:08.759968 31033 layer_factory.hpp:77] Creating layer conv0
I0428 20:07:08.759975 31033 net.cpp:86] Creating Layer conv0
I0428 20:07:08.759979 31033 net.cpp:408] conv0 <- data
I0428 20:07:08.759982 31033 net.cpp:382] conv0 -> conv0
I0428 20:07:08.761744 31033 net.cpp:124] Setting up conv0
I0428 20:07:08.761772 31033 net.cpp:131] Top shape: 100 25 24 24 (1440000)
I0428 20:07:08.761776 31033 net.cpp:139] Memory required for data: 6074800
I0428 20:07:08.761785 31033 layer_factory.hpp:77] Creating layer pool0
I0428 20:07:08.761791 31033 net.cpp:86] Creating Layer pool0
I0428 20:07:08.761795 31033 net.cpp:408] pool0 <- conv0
I0428 20:07:08.761800 31033 net.cpp:382] pool0 -> pool0
I0428 20:07:08.761850 31033 net.cpp:124] Setting up pool0
I0428 20:07:08.761855 31033 net.cpp:131] Top shape: 100 25 12 12 (360000)
I0428 20:07:08.761858 31033 net.cpp:139] Memory required for data: 7514800
I0428 20:07:08.761860 31033 layer_factory.hpp:77] Creating layer conv1
I0428 20:07:08.761869 31033 net.cpp:86] Creating Layer conv1
I0428 20:07:08.761873 31033 net.cpp:408] conv1 <- pool0
I0428 20:07:08.761878 31033 net.cpp:382] conv1 -> conv1
I0428 20:07:08.763980 31033 net.cpp:124] Setting up conv1
I0428 20:07:08.763993 31033 net.cpp:131] Top shape: 100 5 8 8 (32000)
I0428 20:07:08.764011 31033 net.cpp:139] Memory required for data: 7642800
I0428 20:07:08.764020 31033 layer_factory.hpp:77] Creating layer pool1
I0428 20:07:08.764029 31033 net.cpp:86] Creating Layer pool1
I0428 20:07:08.764032 31033 net.cpp:408] pool1 <- conv1
I0428 20:07:08.764037 31033 net.cpp:382] pool1 -> pool1
I0428 20:07:08.764101 31033 net.cpp:124] Setting up pool1
I0428 20:07:08.764108 31033 net.cpp:131] Top shape: 100 5 4 4 (8000)
I0428 20:07:08.764111 31033 net.cpp:139] Memory required for data: 7674800
I0428 20:07:08.764114 31033 layer_factory.hpp:77] Creating layer ip1
I0428 20:07:08.764120 31033 net.cpp:86] Creating Layer ip1
I0428 20:07:08.764123 31033 net.cpp:408] ip1 <- pool1
I0428 20:07:08.764130 31033 net.cpp:382] ip1 -> ip1
I0428 20:07:08.764256 31033 net.cpp:124] Setting up ip1
I0428 20:07:08.764266 31033 net.cpp:131] Top shape: 100 50 (5000)
I0428 20:07:08.764279 31033 net.cpp:139] Memory required for data: 7694800
I0428 20:07:08.764287 31033 layer_factory.hpp:77] Creating layer relu1
I0428 20:07:08.764292 31033 net.cpp:86] Creating Layer relu1
I0428 20:07:08.764295 31033 net.cpp:408] relu1 <- ip1
I0428 20:07:08.764302 31033 net.cpp:369] relu1 -> ip1 (in-place)
I0428 20:07:08.764474 31033 net.cpp:124] Setting up relu1
I0428 20:07:08.764483 31033 net.cpp:131] Top shape: 100 50 (5000)
I0428 20:07:08.764487 31033 net.cpp:139] Memory required for data: 7714800
I0428 20:07:08.764489 31033 layer_factory.hpp:77] Creating layer ip2
I0428 20:07:08.764498 31033 net.cpp:86] Creating Layer ip2
I0428 20:07:08.764502 31033 net.cpp:408] ip2 <- ip1
I0428 20:07:08.764506 31033 net.cpp:382] ip2 -> ip2
I0428 20:07:08.764619 31033 net.cpp:124] Setting up ip2
I0428 20:07:08.764626 31033 net.cpp:131] Top shape: 100 25 (2500)
I0428 20:07:08.764629 31033 net.cpp:139] Memory required for data: 7724800
I0428 20:07:08.764636 31033 layer_factory.hpp:77] Creating layer relu2
I0428 20:07:08.764641 31033 net.cpp:86] Creating Layer relu2
I0428 20:07:08.764643 31033 net.cpp:408] relu2 <- ip2
I0428 20:07:08.764648 31033 net.cpp:369] relu2 -> ip2 (in-place)
I0428 20:07:08.764807 31033 net.cpp:124] Setting up relu2
I0428 20:07:08.764842 31033 net.cpp:131] Top shape: 100 25 (2500)
I0428 20:07:08.764847 31033 net.cpp:139] Memory required for data: 7734800
I0428 20:07:08.764853 31033 layer_factory.hpp:77] Creating layer ip3
I0428 20:07:08.764861 31033 net.cpp:86] Creating Layer ip3
I0428 20:07:08.764865 31033 net.cpp:408] ip3 <- ip2
I0428 20:07:08.764870 31033 net.cpp:382] ip3 -> ip3
I0428 20:07:08.764988 31033 net.cpp:124] Setting up ip3
I0428 20:07:08.764995 31033 net.cpp:131] Top shape: 100 10 (1000)
I0428 20:07:08.764998 31033 net.cpp:139] Memory required for data: 7738800
I0428 20:07:08.765008 31033 layer_factory.hpp:77] Creating layer relu3
I0428 20:07:08.765013 31033 net.cpp:86] Creating Layer relu3
I0428 20:07:08.765017 31033 net.cpp:408] relu3 <- ip3
I0428 20:07:08.765020 31033 net.cpp:369] relu3 -> ip3 (in-place)
I0428 20:07:08.765853 31033 net.cpp:124] Setting up relu3
I0428 20:07:08.765866 31033 net.cpp:131] Top shape: 100 10 (1000)
I0428 20:07:08.765884 31033 net.cpp:139] Memory required for data: 7742800
I0428 20:07:08.765887 31033 layer_factory.hpp:77] Creating layer ip3_relu3_0_split
I0428 20:07:08.765894 31033 net.cpp:86] Creating Layer ip3_relu3_0_split
I0428 20:07:08.765899 31033 net.cpp:408] ip3_relu3_0_split <- ip3
I0428 20:07:08.765904 31033 net.cpp:382] ip3_relu3_0_split -> ip3_relu3_0_split_0
I0428 20:07:08.765910 31033 net.cpp:382] ip3_relu3_0_split -> ip3_relu3_0_split_1
I0428 20:07:08.765949 31033 net.cpp:124] Setting up ip3_relu3_0_split
I0428 20:07:08.765954 31033 net.cpp:131] Top shape: 100 10 (1000)
I0428 20:07:08.765957 31033 net.cpp:131] Top shape: 100 10 (1000)
I0428 20:07:08.765960 31033 net.cpp:139] Memory required for data: 7750800
I0428 20:07:08.765964 31033 layer_factory.hpp:77] Creating layer accuracy
I0428 20:07:08.765974 31033 net.cpp:86] Creating Layer accuracy
I0428 20:07:08.765976 31033 net.cpp:408] accuracy <- ip3_relu3_0_split_0
I0428 20:07:08.765980 31033 net.cpp:408] accuracy <- label_mnist_1_split_0
I0428 20:07:08.765985 31033 net.cpp:382] accuracy -> accuracy
…
