…
I0428 19:41:27.657367 24829 net.cpp:296] The NetState phase (0) differed from the phase (1) specified by a rule in layer mnist
I0428 19:41:27.657382 24829 net.cpp:296] The NetState phase (0) differed from the phase (1) specified by a rule in layer accuracy
I0428 19:41:27.657479 24829 net.cpp:53] Initializing net from parameters: 
name: "LeNet"
state {
  phase: TRAIN
  level: 0
  stage: ""
}
layer {
  name: "mnist"
  type: "Data"
  top: "data"
  top: "label"
  include {
    phase: TRAIN
  }
  transform_param {
    scale: 0.00390625
  }
  data_param {
    source: "examples/mnist/mnist_train_lmdb"
    batch_size: 64
    backend: LMDB
  }
}
layer {
  name: "conv0"
  type: "Convolution"
  bottom: "data"
  top: "conv0"
  param {
    lr_mult: 1
  }
  param {
    lr_mult: 2
  }
  convolution_param {
    num_output: 2
    kernel_size: 5
    stride: 1
    weight_filler {
      type: "xavier"
    }
    bias_filler {
      type: "constant"
    }
  }
}
layer {
  name: "pool0"
  type: "Pooling"
  bottom: "conv0"
  top: "pool0"
  pooling_param {
    pool: MAX
    kernel_size: 2
    stride: 2
  }
}
layer {
  name: "conv1"
  type: "Convolution"
  bottom: "pool0"
  top: "conv1"
  param {
    lr_mult: 1
  }
  param {
    lr_mult: 2
  }
  convolution_param {
    num_output: 10
    kernel_size: 5
    stride: 1
    weight_filler {
      type: "xavier"
    }
    bias_filler {
      type: "constant"
    }
  }
}
layer {
  name: "pool1"
  type: "Pooling"
  bottom: "conv1"
  top: "pool1"
  pooling_param {
    pool: MAX
    kernel_size: 2
    stride: 2
  }
}
layer {
  name: "ip1"
  type: "InnerProduct"
  bottom: "pool1"
  top: "ip1"
  param {
    lr_mult: 1
  }
  param {
    lr_mult: 2
  }
  inner_product_param {
    num_output: 10
    weight_filler {
      type: "xavier"
    }
    bias_filler {
      type: "constant"
    }
  }
}
layer {
  name: "relu1"
  type: "ReLU"
  bottom: "ip1"
  top: "ip1"
}
layer {
  name: "ip2"
  type: "InnerProduct"
  bottom: "ip1"
  top: "ip2"
  param {
    lr_mult: 1
  }
  param {
    lr_mult: 2
  }
  inner_product_param {
    num_output: 10
    weight_filler {
      type: "xavier"
    }
    bias_filler {
      type: "constant"
    }
  }
}
layer {
  name: "relu2"
  type: "ReLU"
  bottom: "ip2"
  top: "ip2"
}
layer {
  name: "ip3"
  type: "InnerProduct"
  bottom: "ip2"
  top: "ip3"
  param {
    lr_mult: 1
  }
  param {
    lr_mult: 2
  }
  inner_product_param {
    num_output: 10
    weight_filler {
      type: "xavier"
    }
    bias_filler {
      type: "constant"
    }
  }
}
layer {
  name: "relu3"
  type: "ReLU"
  bottom: "ip3"
  top: "ip3"
}
layer {
  name: "loss"
  type: "SoftmaxWithLoss"
  bottom: "ip3"
  bottom: "label"
  top: "loss"
}
I0428 19:41:27.657542 24829 layer_factory.hpp:77] Creating layer mnist
I0428 19:41:27.657622 24829 db_lmdb.cpp:35] Opened lmdb examples/mnist/mnist_train_lmdb
I0428 19:41:27.657644 24829 net.cpp:86] Creating Layer mnist
I0428 19:41:27.657649 24829 net.cpp:382] mnist -> data
I0428 19:41:27.657670 24829 net.cpp:382] mnist -> label
I0428 19:41:27.658676 24829 data_layer.cpp:45] output data size: 64,1,28,28
I0428 19:41:27.660969 24829 net.cpp:124] Setting up mnist
I0428 19:41:27.660984 24829 net.cpp:131] Top shape: 64 1 28 28 (50176)
I0428 19:41:27.660991 24829 net.cpp:131] Top shape: 64 (64)
I0428 19:41:27.660995 24829 net.cpp:139] Memory required for data: 200960
I0428 19:41:27.661000 24829 layer_factory.hpp:77] Creating layer conv0
I0428 19:41:27.661015 24829 net.cpp:86] Creating Layer conv0
I0428 19:41:27.661038 24829 net.cpp:408] conv0 <- data
I0428 19:41:27.661049 24829 net.cpp:382] conv0 -> conv0
I0428 19:41:27.886317 24829 net.cpp:124] Setting up conv0
I0428 19:41:27.886343 24829 net.cpp:131] Top shape: 64 2 24 24 (73728)
I0428 19:41:27.886346 24829 net.cpp:139] Memory required for data: 495872
I0428 19:41:27.886360 24829 layer_factory.hpp:77] Creating layer pool0
I0428 19:41:27.886389 24829 net.cpp:86] Creating Layer pool0
I0428 19:41:27.886392 24829 net.cpp:408] pool0 <- conv0
I0428 19:41:27.886414 24829 net.cpp:382] pool0 -> pool0
I0428 19:41:27.886457 24829 net.cpp:124] Setting up pool0
I0428 19:41:27.886476 24829 net.cpp:131] Top shape: 64 2 12 12 (18432)
I0428 19:41:27.886478 24829 net.cpp:139] Memory required for data: 569600
I0428 19:41:27.886482 24829 layer_factory.hpp:77] Creating layer conv1
I0428 19:41:27.886492 24829 net.cpp:86] Creating Layer conv1
I0428 19:41:27.886495 24829 net.cpp:408] conv1 <- pool0
I0428 19:41:27.886499 24829 net.cpp:382] conv1 -> conv1
I0428 19:41:27.888706 24829 net.cpp:124] Setting up conv1
I0428 19:41:27.888721 24829 net.cpp:131] Top shape: 64 10 8 8 (40960)
I0428 19:41:27.888725 24829 net.cpp:139] Memory required for data: 733440
I0428 19:41:27.888749 24829 layer_factory.hpp:77] Creating layer pool1
I0428 19:41:27.888757 24829 net.cpp:86] Creating Layer pool1
I0428 19:41:27.888761 24829 net.cpp:408] pool1 <- conv1
I0428 19:41:27.888767 24829 net.cpp:382] pool1 -> pool1
I0428 19:41:27.888803 24829 net.cpp:124] Setting up pool1
I0428 19:41:27.888818 24829 net.cpp:131] Top shape: 64 10 4 4 (10240)
I0428 19:41:27.888821 24829 net.cpp:139] Memory required for data: 774400
I0428 19:41:27.888824 24829 layer_factory.hpp:77] Creating layer ip1
I0428 19:41:27.888847 24829 net.cpp:86] Creating Layer ip1
I0428 19:41:27.888851 24829 net.cpp:408] ip1 <- pool1
I0428 19:41:27.888857 24829 net.cpp:382] ip1 -> ip1
I0428 19:41:27.889925 24829 net.cpp:124] Setting up ip1
I0428 19:41:27.889952 24829 net.cpp:131] Top shape: 64 10 (640)
I0428 19:41:27.889956 24829 net.cpp:139] Memory required for data: 776960
I0428 19:41:27.889964 24829 layer_factory.hpp:77] Creating layer relu1
I0428 19:41:27.889971 24829 net.cpp:86] Creating Layer relu1
I0428 19:41:27.889974 24829 net.cpp:408] relu1 <- ip1
I0428 19:41:27.889979 24829 net.cpp:369] relu1 -> ip1 (in-place)
I0428 19:41:27.890167 24829 net.cpp:124] Setting up relu1
I0428 19:41:27.890177 24829 net.cpp:131] Top shape: 64 10 (640)
I0428 19:41:27.890178 24829 net.cpp:139] Memory required for data: 779520
I0428 19:41:27.890182 24829 layer_factory.hpp:77] Creating layer ip2
I0428 19:41:27.890192 24829 net.cpp:86] Creating Layer ip2
I0428 19:41:27.890195 24829 net.cpp:408] ip2 <- ip1
I0428 19:41:27.890200 24829 net.cpp:382] ip2 -> ip2
I0428 19:41:27.890297 24829 net.cpp:124] Setting up ip2
I0428 19:41:27.890305 24829 net.cpp:131] Top shape: 64 10 (640)
I0428 19:41:27.890306 24829 net.cpp:139] Memory required for data: 782080
I0428 19:41:27.890312 24829 layer_factory.hpp:77] Creating layer relu2
I0428 19:41:27.890317 24829 net.cpp:86] Creating Layer relu2
I0428 19:41:27.890321 24829 net.cpp:408] relu2 <- ip2
I0428 19:41:27.890341 24829 net.cpp:369] relu2 -> ip2 (in-place)
I0428 19:41:27.891173 24829 net.cpp:124] Setting up relu2
I0428 19:41:27.891185 24829 net.cpp:131] Top shape: 64 10 (640)
I0428 19:41:27.891204 24829 net.cpp:139] Memory required for data: 784640
I0428 19:41:27.891208 24829 layer_factory.hpp:77] Creating layer ip3
I0428 19:41:27.891216 24829 net.cpp:86] Creating Layer ip3
I0428 19:41:27.891221 24829 net.cpp:408] ip3 <- ip2
I0428 19:41:27.891225 24829 net.cpp:382] ip3 -> ip3
I0428 19:41:27.891324 24829 net.cpp:124] Setting up ip3
I0428 19:41:27.891331 24829 net.cpp:131] Top shape: 64 10 (640)
I0428 19:41:27.891335 24829 net.cpp:139] Memory required for data: 787200
I0428 19:41:27.891342 24829 layer_factory.hpp:77] Creating layer relu3
I0428 19:41:27.891347 24829 net.cpp:86] Creating Layer relu3
I0428 19:41:27.891350 24829 net.cpp:408] relu3 <- ip3
I0428 19:41:27.891355 24829 net.cpp:369] relu3 -> ip3 (in-place)
I0428 19:41:27.891566 24829 net.cpp:124] Setting up relu3
I0428 19:41:27.891574 24829 net.cpp:131] Top shape: 64 10 (640)
I0428 19:41:27.891577 24829 net.cpp:139] Memory required for data: 789760
I0428 19:41:27.891580 24829 layer_factory.hpp:77] Creating layer loss
I0428 19:41:27.891587 24829 net.cpp:86] Creating Layer loss
I0428 19:41:27.891590 24829 net.cpp:408] loss <- ip3
I0428 19:41:27.891594 24829 net.cpp:408] loss <- label
I0428 19:41:27.891600 24829 net.cpp:382] loss -> loss
I0428 19:41:27.891618 24829 layer_factory.hpp:77] Creating layer loss
…
I0428 19:41:27.892395 24829 solver.cpp:173] Creating test net (#0) specified by net file: ECE595/mnist/train_test/var_everything2/lenet_train_test365.prototxt
I0428 19:41:27.892436 24829 net.cpp:296] The NetState phase (1) differed from the phase (0) specified by a rule in layer mnist
I0428 19:41:27.892544 24829 net.cpp:53] Initializing net from parameters: 
name: "LeNet"
state {
  phase: TEST
}
layer {
  name: "mnist"
  type: "Data"
  top: "data"
  top: "label"
  include {
    phase: TEST
  }
  transform_param {
    scale: 0.00390625
  }
  data_param {
    source: "examples/mnist/mnist_test_lmdb"
    batch_size: 100
    backend: LMDB
  }
}
layer {
  name: "conv0"
  type: "Convolution"
  bottom: "data"
  top: "conv0"
  param {
    lr_mult: 1
  }
  param {
    lr_mult: 2
  }
  convolution_param {
    num_output: 2
    kernel_size: 5
    stride: 1
    weight_filler {
      type: "xavier"
    }
    bias_filler {
      type: "constant"
    }
  }
}
layer {
  name: "pool0"
  type: "Pooling"
  bottom: "conv0"
  top: "pool0"
  pooling_param {
    pool: MAX
    kernel_size: 2
    stride: 2
  }
}
layer {
  name: "conv1"
  type: "Convolution"
  bottom: "pool0"
  top: "conv1"
  param {
    lr_mult: 1
  }
  param {
    lr_mult: 2
  }
  convolution_param {
    num_output: 10
    kernel_size: 5
    stride: 1
    weight_filler {
      type: "xavier"
    }
    bias_filler {
      type: "constant"
    }
  }
}
layer {
  name: "pool1"
  type: "Pooling"
  bottom: "conv1"
  top: "pool1"
  pooling_param {
    pool: MAX
    kernel_size: 2
    stride: 2
  }
}
layer {
  name: "ip1"
  type: "InnerProduct"
  bottom: "pool1"
  top: "ip1"
  param {
    lr_mult: 1
  }
  param {
    lr_mult: 2
  }
  inner_product_param {
    num_output: 10
    weight_filler {
      type: "xavier"
    }
    bias_filler {
      type: "constant"
    }
  }
}
layer {
  name: "relu1"
  type: "ReLU"
  bottom: "ip1"
  top: "ip1"
}
layer {
  name: "ip2"
  type: "InnerProduct"
  bottom: "ip1"
  top: "ip2"
  param {
    lr_mult: 1
  }
  param {
    lr_mult: 2
  }
  inner_product_param {
    num_output: 10
    weight_filler {
      type: "xavier"
    }
    bias_filler {
      type: "constant"
    }
  }
}
layer {
  name: "relu2"
  type: "ReLU"
  bottom: "ip2"
  top: "ip2"
}
layer {
  name: "ip3"
  type: "InnerProduct"
  bottom: "ip2"
  top: "ip3"
  param {
    lr_mult: 1
  }
  param {
    lr_mult: 2
  }
  inner_product_param {
    num_output: 10
    weight_filler {
      type: "xavier"
    }
    bias_filler {
      type: "constant"
    }
  }
}
layer {
  name: "relu3"
  type: "ReLU"
  bottom: "ip3"
  top: "ip3"
}
layer {
  name: "accuracy"
  type: "Accuracy"
  bottom: "ip3"
  bottom: "label"
  top: "accuracy"
  include {
    phase: TEST
  }
}
layer {
  name: "loss"
  type: "SoftmaxWithLoss"
  bottom: "ip3"
  bottom: "label"
  top: "loss"
}
I0428 19:41:27.892628 24829 layer_factory.hpp:77] Creating layer mnist
I0428 19:41:27.892673 24829 db_lmdb.cpp:35] Opened lmdb examples/mnist/mnist_test_lmdb
I0428 19:41:27.892685 24829 net.cpp:86] Creating Layer mnist
I0428 19:41:27.892689 24829 net.cpp:382] mnist -> data
I0428 19:41:27.892699 24829 net.cpp:382] mnist -> label
I0428 19:41:27.892797 24829 data_layer.cpp:45] output data size: 100,1,28,28
I0428 19:41:27.894878 24829 net.cpp:124] Setting up mnist
I0428 19:41:27.894908 24829 net.cpp:131] Top shape: 100 1 28 28 (78400)
I0428 19:41:27.894913 24829 net.cpp:131] Top shape: 100 (100)
I0428 19:41:27.894917 24829 net.cpp:139] Memory required for data: 314000
I0428 19:41:27.894920 24829 layer_factory.hpp:77] Creating layer label_mnist_1_split
I0428 19:41:27.894942 24829 net.cpp:86] Creating Layer label_mnist_1_split
I0428 19:41:27.894948 24829 net.cpp:408] label_mnist_1_split <- label
I0428 19:41:27.894954 24829 net.cpp:382] label_mnist_1_split -> label_mnist_1_split_0
I0428 19:41:27.894961 24829 net.cpp:382] label_mnist_1_split -> label_mnist_1_split_1
I0428 19:41:27.895009 24829 net.cpp:124] Setting up label_mnist_1_split
I0428 19:41:27.895014 24829 net.cpp:131] Top shape: 100 (100)
I0428 19:41:27.895018 24829 net.cpp:131] Top shape: 100 (100)
I0428 19:41:27.895021 24829 net.cpp:139] Memory required for data: 314800
I0428 19:41:27.895025 24829 layer_factory.hpp:77] Creating layer conv0
I0428 19:41:27.895035 24829 net.cpp:86] Creating Layer conv0
I0428 19:41:27.895040 24829 net.cpp:408] conv0 <- data
I0428 19:41:27.895045 24829 net.cpp:382] conv0 -> conv0
I0428 19:41:27.896920 24829 net.cpp:124] Setting up conv0
I0428 19:41:27.896950 24829 net.cpp:131] Top shape: 100 2 24 24 (115200)
I0428 19:41:27.896955 24829 net.cpp:139] Memory required for data: 775600
I0428 19:41:27.896965 24829 layer_factory.hpp:77] Creating layer pool0
I0428 19:41:27.896972 24829 net.cpp:86] Creating Layer pool0
I0428 19:41:27.896976 24829 net.cpp:408] pool0 <- conv0
I0428 19:41:27.896982 24829 net.cpp:382] pool0 -> pool0
I0428 19:41:27.897022 24829 net.cpp:124] Setting up pool0
I0428 19:41:27.897029 24829 net.cpp:131] Top shape: 100 2 12 12 (28800)
I0428 19:41:27.897032 24829 net.cpp:139] Memory required for data: 890800
I0428 19:41:27.897035 24829 layer_factory.hpp:77] Creating layer conv1
I0428 19:41:27.897045 24829 net.cpp:86] Creating Layer conv1
I0428 19:41:27.897048 24829 net.cpp:408] conv1 <- pool0
I0428 19:41:27.897053 24829 net.cpp:382] conv1 -> conv1
I0428 19:41:27.898841 24829 net.cpp:124] Setting up conv1
I0428 19:41:27.898854 24829 net.cpp:131] Top shape: 100 10 8 8 (64000)
I0428 19:41:27.898874 24829 net.cpp:139] Memory required for data: 1146800
I0428 19:41:27.898881 24829 layer_factory.hpp:77] Creating layer pool1
I0428 19:41:27.898888 24829 net.cpp:86] Creating Layer pool1
I0428 19:41:27.898892 24829 net.cpp:408] pool1 <- conv1
I0428 19:41:27.898898 24829 net.cpp:382] pool1 -> pool1
I0428 19:41:27.898949 24829 net.cpp:124] Setting up pool1
I0428 19:41:27.898954 24829 net.cpp:131] Top shape: 100 10 4 4 (16000)
I0428 19:41:27.898957 24829 net.cpp:139] Memory required for data: 1210800
I0428 19:41:27.898960 24829 layer_factory.hpp:77] Creating layer ip1
I0428 19:41:27.898967 24829 net.cpp:86] Creating Layer ip1
I0428 19:41:27.898970 24829 net.cpp:408] ip1 <- pool1
I0428 19:41:27.898975 24829 net.cpp:382] ip1 -> ip1
I0428 19:41:27.899104 24829 net.cpp:124] Setting up ip1
I0428 19:41:27.899113 24829 net.cpp:131] Top shape: 100 10 (1000)
I0428 19:41:27.899127 24829 net.cpp:139] Memory required for data: 1214800
I0428 19:41:27.899135 24829 layer_factory.hpp:77] Creating layer relu1
I0428 19:41:27.899140 24829 net.cpp:86] Creating Layer relu1
I0428 19:41:27.899144 24829 net.cpp:408] relu1 <- ip1
I0428 19:41:27.899152 24829 net.cpp:369] relu1 -> ip1 (in-place)
I0428 19:41:27.899340 24829 net.cpp:124] Setting up relu1
I0428 19:41:27.899349 24829 net.cpp:131] Top shape: 100 10 (1000)
I0428 19:41:27.899353 24829 net.cpp:139] Memory required for data: 1218800
I0428 19:41:27.899356 24829 layer_factory.hpp:77] Creating layer ip2
I0428 19:41:27.899364 24829 net.cpp:86] Creating Layer ip2
I0428 19:41:27.899369 24829 net.cpp:408] ip2 <- ip1
I0428 19:41:27.899374 24829 net.cpp:382] ip2 -> ip2
I0428 19:41:27.899523 24829 net.cpp:124] Setting up ip2
I0428 19:41:27.899531 24829 net.cpp:131] Top shape: 100 10 (1000)
I0428 19:41:27.899534 24829 net.cpp:139] Memory required for data: 1222800
I0428 19:41:27.899539 24829 layer_factory.hpp:77] Creating layer relu2
I0428 19:41:27.899545 24829 net.cpp:86] Creating Layer relu2
I0428 19:41:27.899549 24829 net.cpp:408] relu2 <- ip2
I0428 19:41:27.899552 24829 net.cpp:369] relu2 -> ip2 (in-place)
I0428 19:41:27.899780 24829 net.cpp:124] Setting up relu2
I0428 19:41:27.899790 24829 net.cpp:131] Top shape: 100 10 (1000)
I0428 19:41:27.899803 24829 net.cpp:139] Memory required for data: 1226800
I0428 19:41:27.899807 24829 layer_factory.hpp:77] Creating layer ip3
I0428 19:41:27.899813 24829 net.cpp:86] Creating Layer ip3
I0428 19:41:27.899817 24829 net.cpp:408] ip3 <- ip2
I0428 19:41:27.899821 24829 net.cpp:382] ip3 -> ip3
I0428 19:41:27.899945 24829 net.cpp:124] Setting up ip3
I0428 19:41:27.899952 24829 net.cpp:131] Top shape: 100 10 (1000)
I0428 19:41:27.899955 24829 net.cpp:139] Memory required for data: 1230800
I0428 19:41:27.899963 24829 layer_factory.hpp:77] Creating layer relu3
I0428 19:41:27.899969 24829 net.cpp:86] Creating Layer relu3
I0428 19:41:27.899972 24829 net.cpp:408] relu3 <- ip3
I0428 19:41:27.899977 24829 net.cpp:369] relu3 -> ip3 (in-place)
I0428 19:41:27.900882 24829 net.cpp:124] Setting up relu3
I0428 19:41:27.900912 24829 net.cpp:131] Top shape: 100 10 (1000)
I0428 19:41:27.900915 24829 net.cpp:139] Memory required for data: 1234800
I0428 19:41:27.900918 24829 layer_factory.hpp:77] Creating layer ip3_relu3_0_split
I0428 19:41:27.900923 24829 net.cpp:86] Creating Layer ip3_relu3_0_split
I0428 19:41:27.900926 24829 net.cpp:408] ip3_relu3_0_split <- ip3
I0428 19:41:27.900931 24829 net.cpp:382] ip3_relu3_0_split -> ip3_relu3_0_split_0
I0428 19:41:27.900938 24829 net.cpp:382] ip3_relu3_0_split -> ip3_relu3_0_split_1
I0428 19:41:27.900982 24829 net.cpp:124] Setting up ip3_relu3_0_split
I0428 19:41:27.900987 24829 net.cpp:131] Top shape: 100 10 (1000)
I0428 19:41:27.900991 24829 net.cpp:131] Top shape: 100 10 (1000)
I0428 19:41:27.900993 24829 net.cpp:139] Memory required for data: 1242800
I0428 19:41:27.900996 24829 layer_factory.hpp:77] Creating layer accuracy
I0428 19:41:27.901003 24829 net.cpp:86] Creating Layer accuracy
I0428 19:41:27.901006 24829 net.cpp:408] accuracy <- ip3_relu3_0_split_0
I0428 19:41:27.901010 24829 net.cpp:408] accuracy <- label_mnist_1_split_0
I0428 19:41:27.901015 24829 net.cpp:382] accuracy -> accuracy
…
