…
I0428 19:56:04.809945 28342 net.cpp:296] The NetState phase (0) differed from the phase (1) specified by a rule in layer mnist
I0428 19:56:04.809964 28342 net.cpp:296] The NetState phase (0) differed from the phase (1) specified by a rule in layer accuracy
I0428 19:56:04.810068 28342 net.cpp:53] Initializing net from parameters: 
name: "LeNet"
state {
  phase: TRAIN
  level: 0
  stage: ""
}
layer {
  name: "mnist"
  type: "Data"
  top: "data"
  top: "label"
  include {
    phase: TRAIN
  }
  transform_param {
    scale: 0.00390625
  }
  data_param {
    source: "examples/mnist/mnist_train_lmdb"
    batch_size: 64
    backend: LMDB
  }
}
layer {
  name: "conv0"
  type: "Convolution"
  bottom: "data"
  top: "conv0"
  param {
    lr_mult: 1
  }
  param {
    lr_mult: 2
  }
  convolution_param {
    num_output: 10
    kernel_size: 5
    stride: 1
    weight_filler {
      type: "xavier"
    }
    bias_filler {
      type: "constant"
    }
  }
}
layer {
  name: "pool0"
  type: "Pooling"
  bottom: "conv0"
  top: "pool0"
  pooling_param {
    pool: MAX
    kernel_size: 2
    stride: 2
  }
}
layer {
  name: "conv1"
  type: "Convolution"
  bottom: "pool0"
  top: "conv1"
  param {
    lr_mult: 1
  }
  param {
    lr_mult: 2
  }
  convolution_param {
    num_output: 2
    kernel_size: 5
    stride: 1
    weight_filler {
      type: "xavier"
    }
    bias_filler {
      type: "constant"
    }
  }
}
layer {
  name: "pool1"
  type: "Pooling"
  bottom: "conv1"
  top: "pool1"
  pooling_param {
    pool: MAX
    kernel_size: 2
    stride: 2
  }
}
layer {
  name: "ip1"
  type: "InnerProduct"
  bottom: "pool1"
  top: "ip1"
  param {
    lr_mult: 1
  }
  param {
    lr_mult: 2
  }
  inner_product_param {
    num_output: 25
    weight_filler {
      type: "xavier"
    }
    bias_filler {
      type: "constant"
    }
  }
}
layer {
  name: "relu1"
  type: "ReLU"
  bottom: "ip1"
  top: "ip1"
}
layer {
  name: "ip2"
  type: "InnerProduct"
  bottom: "ip1"
  top: "ip2"
  param {
    lr_mult: 1
  }
  param {
    lr_mult: 2
  }
  inner_product_param {
    num_output: 10
    weight_filler {
      type: "xavier"
    }
    bias_filler {
      type: "constant"
    }
  }
}
layer {
  name: "relu2"
  type: "ReLU"
  bottom: "ip2"
  top: "ip2"
}
layer {
  name: "loss"
  type: "SoftmaxWithLoss"
  bottom: "ip2"
  bottom: "label"
  top: "loss"
}
I0428 19:56:04.810142 28342 layer_factory.hpp:77] Creating layer mnist
I0428 19:56:04.810243 28342 db_lmdb.cpp:35] Opened lmdb examples/mnist/mnist_train_lmdb
I0428 19:56:04.810286 28342 net.cpp:86] Creating Layer mnist
I0428 19:56:04.810297 28342 net.cpp:382] mnist -> data
I0428 19:56:04.810338 28342 net.cpp:382] mnist -> label
I0428 19:56:04.811669 28342 data_layer.cpp:45] output data size: 64,1,28,28
I0428 19:56:04.813953 28342 net.cpp:124] Setting up mnist
I0428 19:56:04.813984 28342 net.cpp:131] Top shape: 64 1 28 28 (50176)
I0428 19:56:04.813989 28342 net.cpp:131] Top shape: 64 (64)
I0428 19:56:04.813993 28342 net.cpp:139] Memory required for data: 200960
I0428 19:56:04.814002 28342 layer_factory.hpp:77] Creating layer conv0
I0428 19:56:04.814018 28342 net.cpp:86] Creating Layer conv0
I0428 19:56:04.814025 28342 net.cpp:408] conv0 <- data
I0428 19:56:04.814038 28342 net.cpp:382] conv0 -> conv0
I0428 19:56:05.034214 28342 net.cpp:124] Setting up conv0
I0428 19:56:05.034255 28342 net.cpp:131] Top shape: 64 10 24 24 (368640)
I0428 19:56:05.034258 28342 net.cpp:139] Memory required for data: 1675520
I0428 19:56:05.034291 28342 layer_factory.hpp:77] Creating layer pool0
I0428 19:56:05.034307 28342 net.cpp:86] Creating Layer pool0
I0428 19:56:05.034312 28342 net.cpp:408] pool0 <- conv0
I0428 19:56:05.034319 28342 net.cpp:382] pool0 -> pool0
I0428 19:56:05.034391 28342 net.cpp:124] Setting up pool0
I0428 19:56:05.034402 28342 net.cpp:131] Top shape: 64 10 12 12 (92160)
I0428 19:56:05.034407 28342 net.cpp:139] Memory required for data: 2044160
I0428 19:56:05.034411 28342 layer_factory.hpp:77] Creating layer conv1
I0428 19:56:05.034425 28342 net.cpp:86] Creating Layer conv1
I0428 19:56:05.034430 28342 net.cpp:408] conv1 <- pool0
I0428 19:56:05.034437 28342 net.cpp:382] conv1 -> conv1
I0428 19:56:05.036675 28342 net.cpp:124] Setting up conv1
I0428 19:56:05.036689 28342 net.cpp:131] Top shape: 64 2 8 8 (8192)
I0428 19:56:05.036710 28342 net.cpp:139] Memory required for data: 2076928
I0428 19:56:05.036718 28342 layer_factory.hpp:77] Creating layer pool1
I0428 19:56:05.036725 28342 net.cpp:86] Creating Layer pool1
I0428 19:56:05.036730 28342 net.cpp:408] pool1 <- conv1
I0428 19:56:05.036734 28342 net.cpp:382] pool1 -> pool1
I0428 19:56:05.036782 28342 net.cpp:124] Setting up pool1
I0428 19:56:05.036792 28342 net.cpp:131] Top shape: 64 2 4 4 (2048)
I0428 19:56:05.036798 28342 net.cpp:139] Memory required for data: 2085120
I0428 19:56:05.036803 28342 layer_factory.hpp:77] Creating layer ip1
I0428 19:56:05.036836 28342 net.cpp:86] Creating Layer ip1
I0428 19:56:05.036842 28342 net.cpp:408] ip1 <- pool1
I0428 19:56:05.036851 28342 net.cpp:382] ip1 -> ip1
I0428 19:56:05.037029 28342 net.cpp:124] Setting up ip1
I0428 19:56:05.037041 28342 net.cpp:131] Top shape: 64 25 (1600)
I0428 19:56:05.037046 28342 net.cpp:139] Memory required for data: 2091520
I0428 19:56:05.037058 28342 layer_factory.hpp:77] Creating layer relu1
I0428 19:56:05.037067 28342 net.cpp:86] Creating Layer relu1
I0428 19:56:05.037072 28342 net.cpp:408] relu1 <- ip1
I0428 19:56:05.037081 28342 net.cpp:369] relu1 -> ip1 (in-place)
I0428 19:56:05.037329 28342 net.cpp:124] Setting up relu1
I0428 19:56:05.037358 28342 net.cpp:131] Top shape: 64 25 (1600)
I0428 19:56:05.037362 28342 net.cpp:139] Memory required for data: 2097920
I0428 19:56:05.037367 28342 layer_factory.hpp:77] Creating layer ip2
I0428 19:56:05.037376 28342 net.cpp:86] Creating Layer ip2
I0428 19:56:05.037381 28342 net.cpp:408] ip2 <- ip1
I0428 19:56:05.037389 28342 net.cpp:382] ip2 -> ip2
I0428 19:56:05.037520 28342 net.cpp:124] Setting up ip2
I0428 19:56:05.037530 28342 net.cpp:131] Top shape: 64 10 (640)
I0428 19:56:05.037534 28342 net.cpp:139] Memory required for data: 2100480
I0428 19:56:05.037544 28342 layer_factory.hpp:77] Creating layer relu2
I0428 19:56:05.037566 28342 net.cpp:86] Creating Layer relu2
I0428 19:56:05.037572 28342 net.cpp:408] relu2 <- ip2
I0428 19:56:05.037580 28342 net.cpp:369] relu2 -> ip2 (in-place)
I0428 19:56:05.038642 28342 net.cpp:124] Setting up relu2
I0428 19:56:05.038674 28342 net.cpp:131] Top shape: 64 10 (640)
I0428 19:56:05.038681 28342 net.cpp:139] Memory required for data: 2103040
I0428 19:56:05.038686 28342 layer_factory.hpp:77] Creating layer loss
I0428 19:56:05.038696 28342 net.cpp:86] Creating Layer loss
I0428 19:56:05.038702 28342 net.cpp:408] loss <- ip2
I0428 19:56:05.038708 28342 net.cpp:408] loss <- label
I0428 19:56:05.038717 28342 net.cpp:382] loss -> loss
I0428 19:56:05.038739 28342 layer_factory.hpp:77] Creating layer loss
…
I0428 19:56:05.039852 28342 solver.cpp:173] Creating test net (#0) specified by net file: ECE595/mnist/train_test/var_everything2/lenet_train_test748.prototxt
I0428 19:56:05.039906 28342 net.cpp:296] The NetState phase (1) differed from the phase (0) specified by a rule in layer mnist
I0428 19:56:05.040032 28342 net.cpp:53] Initializing net from parameters: 
name: "LeNet"
state {
  phase: TEST
}
layer {
  name: "mnist"
  type: "Data"
  top: "data"
  top: "label"
  include {
    phase: TEST
  }
  transform_param {
    scale: 0.00390625
  }
  data_param {
    source: "examples/mnist/mnist_test_lmdb"
    batch_size: 100
    backend: LMDB
  }
}
layer {
  name: "conv0"
  type: "Convolution"
  bottom: "data"
  top: "conv0"
  param {
    lr_mult: 1
  }
  param {
    lr_mult: 2
  }
  convolution_param {
    num_output: 10
    kernel_size: 5
    stride: 1
    weight_filler {
      type: "xavier"
    }
    bias_filler {
      type: "constant"
    }
  }
}
layer {
  name: "pool0"
  type: "Pooling"
  bottom: "conv0"
  top: "pool0"
  pooling_param {
    pool: MAX
    kernel_size: 2
    stride: 2
  }
}
layer {
  name: "conv1"
  type: "Convolution"
  bottom: "pool0"
  top: "conv1"
  param {
    lr_mult: 1
  }
  param {
    lr_mult: 2
  }
  convolution_param {
    num_output: 2
    kernel_size: 5
    stride: 1
    weight_filler {
      type: "xavier"
    }
    bias_filler {
      type: "constant"
    }
  }
}
layer {
  name: "pool1"
  type: "Pooling"
  bottom: "conv1"
  top: "pool1"
  pooling_param {
    pool: MAX
    kernel_size: 2
    stride: 2
  }
}
layer {
  name: "ip1"
  type: "InnerProduct"
  bottom: "pool1"
  top: "ip1"
  param {
    lr_mult: 1
  }
  param {
    lr_mult: 2
  }
  inner_product_param {
    num_output: 25
    weight_filler {
      type: "xavier"
    }
    bias_filler {
      type: "constant"
    }
  }
}
layer {
  name: "relu1"
  type: "ReLU"
  bottom: "ip1"
  top: "ip1"
}
layer {
  name: "ip2"
  type: "InnerProduct"
  bottom: "ip1"
  top: "ip2"
  param {
    lr_mult: 1
  }
  param {
    lr_mult: 2
  }
  inner_product_param {
    num_output: 10
    weight_filler {
      type: "xavier"
    }
    bias_filler {
      type: "constant"
    }
  }
}
layer {
  name: "relu2"
  type: "ReLU"
  bottom: "ip2"
  top: "ip2"
}
layer {
  name: "accuracy"
  type: "Accuracy"
  bottom: "ip2"
  bottom: "label"
  top: "accuracy"
  include {
    phase: TEST
  }
}
layer {
  name: "loss"
  type: "SoftmaxWithLoss"
  bottom: "ip2"
  bottom: "label"
  top: "loss"
}
I0428 19:56:05.040189 28342 layer_factory.hpp:77] Creating layer mnist
I0428 19:56:05.040248 28342 db_lmdb.cpp:35] Opened lmdb examples/mnist/mnist_test_lmdb
I0428 19:56:05.040266 28342 net.cpp:86] Creating Layer mnist
I0428 19:56:05.040273 28342 net.cpp:382] mnist -> data
I0428 19:56:05.040285 28342 net.cpp:382] mnist -> label
I0428 19:56:05.040410 28342 data_layer.cpp:45] output data size: 100,1,28,28
I0428 19:56:05.043221 28342 net.cpp:124] Setting up mnist
I0428 19:56:05.043251 28342 net.cpp:131] Top shape: 100 1 28 28 (78400)
I0428 19:56:05.043256 28342 net.cpp:131] Top shape: 100 (100)
I0428 19:56:05.043259 28342 net.cpp:139] Memory required for data: 314000
I0428 19:56:05.043263 28342 layer_factory.hpp:77] Creating layer label_mnist_1_split
I0428 19:56:05.043270 28342 net.cpp:86] Creating Layer label_mnist_1_split
I0428 19:56:05.043273 28342 net.cpp:408] label_mnist_1_split <- label
I0428 19:56:05.043279 28342 net.cpp:382] label_mnist_1_split -> label_mnist_1_split_0
I0428 19:56:05.043289 28342 net.cpp:382] label_mnist_1_split -> label_mnist_1_split_1
I0428 19:56:05.043359 28342 net.cpp:124] Setting up label_mnist_1_split
I0428 19:56:05.043382 28342 net.cpp:131] Top shape: 100 (100)
I0428 19:56:05.043390 28342 net.cpp:131] Top shape: 100 (100)
I0428 19:56:05.043395 28342 net.cpp:139] Memory required for data: 314800
I0428 19:56:05.043400 28342 layer_factory.hpp:77] Creating layer conv0
I0428 19:56:05.043412 28342 net.cpp:86] Creating Layer conv0
I0428 19:56:05.043417 28342 net.cpp:408] conv0 <- data
I0428 19:56:05.043426 28342 net.cpp:382] conv0 -> conv0
I0428 19:56:05.045583 28342 net.cpp:124] Setting up conv0
I0428 19:56:05.045598 28342 net.cpp:131] Top shape: 100 10 24 24 (576000)
I0428 19:56:05.045600 28342 net.cpp:139] Memory required for data: 2618800
I0428 19:56:05.045610 28342 layer_factory.hpp:77] Creating layer pool0
I0428 19:56:05.045617 28342 net.cpp:86] Creating Layer pool0
I0428 19:56:05.045624 28342 net.cpp:408] pool0 <- conv0
I0428 19:56:05.045630 28342 net.cpp:382] pool0 -> pool0
I0428 19:56:05.045680 28342 net.cpp:124] Setting up pool0
I0428 19:56:05.045688 28342 net.cpp:131] Top shape: 100 10 12 12 (144000)
I0428 19:56:05.045703 28342 net.cpp:139] Memory required for data: 3194800
I0428 19:56:05.045708 28342 layer_factory.hpp:77] Creating layer conv1
I0428 19:56:05.045720 28342 net.cpp:86] Creating Layer conv1
I0428 19:56:05.045725 28342 net.cpp:408] conv1 <- pool0
I0428 19:56:05.045733 28342 net.cpp:382] conv1 -> conv1
I0428 19:56:05.048221 28342 net.cpp:124] Setting up conv1
I0428 19:56:05.048250 28342 net.cpp:131] Top shape: 100 2 8 8 (12800)
I0428 19:56:05.048254 28342 net.cpp:139] Memory required for data: 3246000
I0428 19:56:05.048264 28342 layer_factory.hpp:77] Creating layer pool1
I0428 19:56:05.048272 28342 net.cpp:86] Creating Layer pool1
I0428 19:56:05.048277 28342 net.cpp:408] pool1 <- conv1
I0428 19:56:05.048303 28342 net.cpp:382] pool1 -> pool1
I0428 19:56:05.048364 28342 net.cpp:124] Setting up pool1
I0428 19:56:05.048377 28342 net.cpp:131] Top shape: 100 2 4 4 (3200)
I0428 19:56:05.048382 28342 net.cpp:139] Memory required for data: 3258800
I0428 19:56:05.048388 28342 layer_factory.hpp:77] Creating layer ip1
I0428 19:56:05.048395 28342 net.cpp:86] Creating Layer ip1
I0428 19:56:05.048401 28342 net.cpp:408] ip1 <- pool1
I0428 19:56:05.048408 28342 net.cpp:382] ip1 -> ip1
I0428 19:56:05.048590 28342 net.cpp:124] Setting up ip1
I0428 19:56:05.048601 28342 net.cpp:131] Top shape: 100 25 (2500)
I0428 19:56:05.048606 28342 net.cpp:139] Memory required for data: 3268800
I0428 19:56:05.048617 28342 layer_factory.hpp:77] Creating layer relu1
I0428 19:56:05.048625 28342 net.cpp:86] Creating Layer relu1
I0428 19:56:05.048630 28342 net.cpp:408] relu1 <- ip1
I0428 19:56:05.048637 28342 net.cpp:369] relu1 -> ip1 (in-place)
I0428 19:56:05.048997 28342 net.cpp:124] Setting up relu1
I0428 19:56:05.049011 28342 net.cpp:131] Top shape: 100 25 (2500)
I0428 19:56:05.049017 28342 net.cpp:139] Memory required for data: 3278800
I0428 19:56:05.049023 28342 layer_factory.hpp:77] Creating layer ip2
I0428 19:56:05.049036 28342 net.cpp:86] Creating Layer ip2
I0428 19:56:05.049041 28342 net.cpp:408] ip2 <- ip1
I0428 19:56:05.049051 28342 net.cpp:382] ip2 -> ip2
I0428 19:56:05.049206 28342 net.cpp:124] Setting up ip2
I0428 19:56:05.049217 28342 net.cpp:131] Top shape: 100 10 (1000)
I0428 19:56:05.049230 28342 net.cpp:139] Memory required for data: 3282800
I0428 19:56:05.049240 28342 layer_factory.hpp:77] Creating layer relu2
I0428 19:56:05.049248 28342 net.cpp:86] Creating Layer relu2
I0428 19:56:05.049268 28342 net.cpp:408] relu2 <- ip2
I0428 19:56:05.049275 28342 net.cpp:369] relu2 -> ip2 (in-place)
I0428 19:56:05.049513 28342 net.cpp:124] Setting up relu2
I0428 19:56:05.049525 28342 net.cpp:131] Top shape: 100 10 (1000)
I0428 19:56:05.049530 28342 net.cpp:139] Memory required for data: 3286800
I0428 19:56:05.049535 28342 layer_factory.hpp:77] Creating layer ip2_relu2_0_split
I0428 19:56:05.049542 28342 net.cpp:86] Creating Layer ip2_relu2_0_split
I0428 19:56:05.049548 28342 net.cpp:408] ip2_relu2_0_split <- ip2
I0428 19:56:05.049556 28342 net.cpp:382] ip2_relu2_0_split -> ip2_relu2_0_split_0
I0428 19:56:05.049576 28342 net.cpp:382] ip2_relu2_0_split -> ip2_relu2_0_split_1
I0428 19:56:05.049635 28342 net.cpp:124] Setting up ip2_relu2_0_split
I0428 19:56:05.049643 28342 net.cpp:131] Top shape: 100 10 (1000)
I0428 19:56:05.049655 28342 net.cpp:131] Top shape: 100 10 (1000)
I0428 19:56:05.049676 28342 net.cpp:139] Memory required for data: 3294800
I0428 19:56:05.049681 28342 layer_factory.hpp:77] Creating layer accuracy
I0428 19:56:05.049690 28342 net.cpp:86] Creating Layer accuracy
I0428 19:56:05.049695 28342 net.cpp:408] accuracy <- ip2_relu2_0_split_0
I0428 19:56:05.049706 28342 net.cpp:408] accuracy <- label_mnist_1_split_0
I0428 19:56:05.049713 28342 net.cpp:382] accuracy -> accuracy
…
