…
I0428 20:28:04.689714  3288 net.cpp:296] The NetState phase (0) differed from the phase (1) specified by a rule in layer mnist
I0428 20:28:04.689736  3288 net.cpp:296] The NetState phase (0) differed from the phase (1) specified by a rule in layer accuracy
I0428 20:28:04.689841  3288 net.cpp:53] Initializing net from parameters: 
name: "LeNet"
state {
  phase: TRAIN
  level: 0
  stage: ""
}
layer {
  name: "mnist"
  type: "Data"
  top: "data"
  top: "label"
  include {
    phase: TRAIN
  }
  transform_param {
    scale: 0.00390625
  }
  data_param {
    source: "examples/mnist/mnist_train_lmdb"
    batch_size: 64
    backend: LMDB
  }
}
layer {
  name: "conv0"
  type: "Convolution"
  bottom: "data"
  top: "conv0"
  param {
    lr_mult: 1
  }
  param {
    lr_mult: 2
  }
  convolution_param {
    num_output: 100
    kernel_size: 5
    stride: 1
    weight_filler {
      type: "xavier"
    }
    bias_filler {
      type: "constant"
    }
  }
}
layer {
  name: "pool0"
  type: "Pooling"
  bottom: "conv0"
  top: "pool0"
  pooling_param {
    pool: MAX
    kernel_size: 2
    stride: 2
  }
}
layer {
  name: "conv1"
  type: "Convolution"
  bottom: "pool0"
  top: "conv1"
  param {
    lr_mult: 1
  }
  param {
    lr_mult: 2
  }
  convolution_param {
    num_output: 5
    kernel_size: 5
    stride: 1
    weight_filler {
      type: "xavier"
    }
    bias_filler {
      type: "constant"
    }
  }
}
layer {
  name: "pool1"
  type: "Pooling"
  bottom: "conv1"
  top: "pool1"
  pooling_param {
    pool: MAX
    kernel_size: 2
    stride: 2
  }
}
layer {
  name: "ip1"
  type: "InnerProduct"
  bottom: "pool1"
  top: "ip1"
  param {
    lr_mult: 1
  }
  param {
    lr_mult: 2
  }
  inner_product_param {
    num_output: 10
    weight_filler {
      type: "xavier"
    }
    bias_filler {
      type: "constant"
    }
  }
}
layer {
  name: "relu1"
  type: "ReLU"
  bottom: "ip1"
  top: "ip1"
}
layer {
  name: "ip2"
  type: "InnerProduct"
  bottom: "ip1"
  top: "ip2"
  param {
    lr_mult: 1
  }
  param {
    lr_mult: 2
  }
  inner_product_param {
    num_output: 25
    weight_filler {
      type: "xavier"
    }
    bias_filler {
      type: "constant"
    }
  }
}
layer {
  name: "relu2"
  type: "ReLU"
  bottom: "ip2"
  top: "ip2"
}
layer {
  name: "ip3"
  type: "InnerProduct"
  bottom: "ip2"
  top: "ip3"
  param {
    lr_mult: 1
  }
  param {
    lr_mult: 2
  }
  inner_product_param {
    num_output: 10
    weight_filler {
      type: "xavier"
    }
    bias_filler {
      type: "constant"
    }
  }
}
layer {
  name: "relu3"
  type: "ReLU"
  bottom: "ip3"
  top: "ip3"
}
layer {
  name: "loss"
  type: "SoftmaxWithLoss"
  bottom: "ip3"
  bottom: "label"
  top: "loss"
}
I0428 20:28:04.689921  3288 layer_factory.hpp:77] Creating layer mnist
I0428 20:28:04.690022  3288 db_lmdb.cpp:35] Opened lmdb examples/mnist/mnist_train_lmdb
I0428 20:28:04.690047  3288 net.cpp:86] Creating Layer mnist
I0428 20:28:04.690053  3288 net.cpp:382] mnist -> data
I0428 20:28:04.690078  3288 net.cpp:382] mnist -> label
I0428 20:28:04.691166  3288 data_layer.cpp:45] output data size: 64,1,28,28
I0428 20:28:04.693629  3288 net.cpp:124] Setting up mnist
I0428 20:28:04.693650  3288 net.cpp:131] Top shape: 64 1 28 28 (50176)
I0428 20:28:04.693655  3288 net.cpp:131] Top shape: 64 (64)
I0428 20:28:04.693660  3288 net.cpp:139] Memory required for data: 200960
I0428 20:28:04.693666  3288 layer_factory.hpp:77] Creating layer conv0
I0428 20:28:04.693683  3288 net.cpp:86] Creating Layer conv0
I0428 20:28:04.693704  3288 net.cpp:408] conv0 <- data
I0428 20:28:04.693717  3288 net.cpp:382] conv0 -> conv0
I0428 20:28:04.986209  3288 net.cpp:124] Setting up conv0
I0428 20:28:04.986238  3288 net.cpp:131] Top shape: 64 100 24 24 (3686400)
I0428 20:28:04.986243  3288 net.cpp:139] Memory required for data: 14946560
I0428 20:28:04.986258  3288 layer_factory.hpp:77] Creating layer pool0
I0428 20:28:04.986271  3288 net.cpp:86] Creating Layer pool0
I0428 20:28:04.986276  3288 net.cpp:408] pool0 <- conv0
I0428 20:28:04.986282  3288 net.cpp:382] pool0 -> pool0
I0428 20:28:04.986332  3288 net.cpp:124] Setting up pool0
I0428 20:28:04.986340  3288 net.cpp:131] Top shape: 64 100 12 12 (921600)
I0428 20:28:04.986343  3288 net.cpp:139] Memory required for data: 18632960
I0428 20:28:04.986346  3288 layer_factory.hpp:77] Creating layer conv1
I0428 20:28:04.986358  3288 net.cpp:86] Creating Layer conv1
I0428 20:28:04.986361  3288 net.cpp:408] conv1 <- pool0
I0428 20:28:04.986366  3288 net.cpp:382] conv1 -> conv1
I0428 20:28:04.989213  3288 net.cpp:124] Setting up conv1
I0428 20:28:04.989229  3288 net.cpp:131] Top shape: 64 5 8 8 (20480)
I0428 20:28:04.989233  3288 net.cpp:139] Memory required for data: 18714880
I0428 20:28:04.989243  3288 layer_factory.hpp:77] Creating layer pool1
I0428 20:28:04.989251  3288 net.cpp:86] Creating Layer pool1
I0428 20:28:04.989254  3288 net.cpp:408] pool1 <- conv1
I0428 20:28:04.989260  3288 net.cpp:382] pool1 -> pool1
I0428 20:28:04.989300  3288 net.cpp:124] Setting up pool1
I0428 20:28:04.989307  3288 net.cpp:131] Top shape: 64 5 4 4 (5120)
I0428 20:28:04.989310  3288 net.cpp:139] Memory required for data: 18735360
I0428 20:28:04.989315  3288 layer_factory.hpp:77] Creating layer ip1
I0428 20:28:04.989321  3288 net.cpp:86] Creating Layer ip1
I0428 20:28:04.989325  3288 net.cpp:408] ip1 <- pool1
I0428 20:28:04.989329  3288 net.cpp:382] ip1 -> ip1
I0428 20:28:04.989433  3288 net.cpp:124] Setting up ip1
I0428 20:28:04.989440  3288 net.cpp:131] Top shape: 64 10 (640)
I0428 20:28:04.989444  3288 net.cpp:139] Memory required for data: 18737920
I0428 20:28:04.989450  3288 layer_factory.hpp:77] Creating layer relu1
I0428 20:28:04.989456  3288 net.cpp:86] Creating Layer relu1
I0428 20:28:04.989460  3288 net.cpp:408] relu1 <- ip1
I0428 20:28:04.989464  3288 net.cpp:369] relu1 -> ip1 (in-place)
I0428 20:28:04.989640  3288 net.cpp:124] Setting up relu1
I0428 20:28:04.989650  3288 net.cpp:131] Top shape: 64 10 (640)
I0428 20:28:04.989653  3288 net.cpp:139] Memory required for data: 18740480
I0428 20:28:04.989657  3288 layer_factory.hpp:77] Creating layer ip2
I0428 20:28:04.989665  3288 net.cpp:86] Creating Layer ip2
I0428 20:28:04.989667  3288 net.cpp:408] ip2 <- ip1
I0428 20:28:04.989672  3288 net.cpp:382] ip2 -> ip2
I0428 20:28:04.989770  3288 net.cpp:124] Setting up ip2
I0428 20:28:04.989778  3288 net.cpp:131] Top shape: 64 25 (1600)
I0428 20:28:04.989783  3288 net.cpp:139] Memory required for data: 18746880
I0428 20:28:04.989787  3288 layer_factory.hpp:77] Creating layer relu2
I0428 20:28:04.989796  3288 net.cpp:86] Creating Layer relu2
I0428 20:28:04.989800  3288 net.cpp:408] relu2 <- ip2
I0428 20:28:04.989804  3288 net.cpp:369] relu2 -> ip2 (in-place)
I0428 20:28:04.990561  3288 net.cpp:124] Setting up relu2
I0428 20:28:04.990574  3288 net.cpp:131] Top shape: 64 25 (1600)
I0428 20:28:04.990578  3288 net.cpp:139] Memory required for data: 18753280
I0428 20:28:04.990581  3288 layer_factory.hpp:77] Creating layer ip3
I0428 20:28:04.990591  3288 net.cpp:86] Creating Layer ip3
I0428 20:28:04.990593  3288 net.cpp:408] ip3 <- ip2
I0428 20:28:04.990598  3288 net.cpp:382] ip3 -> ip3
I0428 20:28:04.990710  3288 net.cpp:124] Setting up ip3
I0428 20:28:04.990718  3288 net.cpp:131] Top shape: 64 10 (640)
I0428 20:28:04.990722  3288 net.cpp:139] Memory required for data: 18755840
I0428 20:28:04.990731  3288 layer_factory.hpp:77] Creating layer relu3
I0428 20:28:04.990739  3288 net.cpp:86] Creating Layer relu3
I0428 20:28:04.990742  3288 net.cpp:408] relu3 <- ip3
I0428 20:28:04.990746  3288 net.cpp:369] relu3 -> ip3 (in-place)
I0428 20:28:04.990947  3288 net.cpp:124] Setting up relu3
I0428 20:28:04.990954  3288 net.cpp:131] Top shape: 64 10 (640)
I0428 20:28:04.990958  3288 net.cpp:139] Memory required for data: 18758400
I0428 20:28:04.990962  3288 layer_factory.hpp:77] Creating layer loss
I0428 20:28:04.990968  3288 net.cpp:86] Creating Layer loss
I0428 20:28:04.990972  3288 net.cpp:408] loss <- ip3
I0428 20:28:04.990975  3288 net.cpp:408] loss <- label
I0428 20:28:04.990984  3288 net.cpp:382] loss -> loss
I0428 20:28:04.990998  3288 layer_factory.hpp:77] Creating layer loss
…
I0428 20:28:04.991669  3288 solver.cpp:173] Creating test net (#0) specified by net file: ECE595/mnist/train_test/var_everything2/lenet_train_test1499.prototxt
I0428 20:28:04.991698  3288 net.cpp:296] The NetState phase (1) differed from the phase (0) specified by a rule in layer mnist
I0428 20:28:04.991796  3288 net.cpp:53] Initializing net from parameters: 
name: "LeNet"
state {
  phase: TEST
}
layer {
  name: "mnist"
  type: "Data"
  top: "data"
  top: "label"
  include {
    phase: TEST
  }
  transform_param {
    scale: 0.00390625
  }
  data_param {
    source: "examples/mnist/mnist_test_lmdb"
    batch_size: 100
    backend: LMDB
  }
}
layer {
  name: "conv0"
  type: "Convolution"
  bottom: "data"
  top: "conv0"
  param {
    lr_mult: 1
  }
  param {
    lr_mult: 2
  }
  convolution_param {
    num_output: 100
    kernel_size: 5
    stride: 1
    weight_filler {
      type: "xavier"
    }
    bias_filler {
      type: "constant"
    }
  }
}
layer {
  name: "pool0"
  type: "Pooling"
  bottom: "conv0"
  top: "pool0"
  pooling_param {
    pool: MAX
    kernel_size: 2
    stride: 2
  }
}
layer {
  name: "conv1"
  type: "Convolution"
  bottom: "pool0"
  top: "conv1"
  param {
    lr_mult: 1
  }
  param {
    lr_mult: 2
  }
  convolution_param {
    num_output: 5
    kernel_size: 5
    stride: 1
    weight_filler {
      type: "xavier"
    }
    bias_filler {
      type: "constant"
    }
  }
}
layer {
  name: "pool1"
  type: "Pooling"
  bottom: "conv1"
  top: "pool1"
  pooling_param {
    pool: MAX
    kernel_size: 2
    stride: 2
  }
}
layer {
  name: "ip1"
  type: "InnerProduct"
  bottom: "pool1"
  top: "ip1"
  param {
    lr_mult: 1
  }
  param {
    lr_mult: 2
  }
  inner_product_param {
    num_output: 10
    weight_filler {
      type: "xavier"
    }
    bias_filler {
      type: "constant"
    }
  }
}
layer {
  name: "relu1"
  type: "ReLU"
  bottom: "ip1"
  top: "ip1"
}
layer {
  name: "ip2"
  type: "InnerProduct"
  bottom: "ip1"
  top: "ip2"
  param {
    lr_mult: 1
  }
  param {
    lr_mult: 2
  }
  inner_product_param {
    num_output: 25
    weight_filler {
      type: "xavier"
    }
    bias_filler {
      type: "constant"
    }
  }
}
layer {
  name: "relu2"
  type: "ReLU"
  bottom: "ip2"
  top: "ip2"
}
layer {
  name: "ip3"
  type: "InnerProduct"
  bottom: "ip2"
  top: "ip3"
  param {
    lr_mult: 1
  }
  param {
    lr_mult: 2
  }
  inner_product_param {
    num_output: 10
    weight_filler {
      type: "xavier"
    }
    bias_filler {
      type: "constant"
    }
  }
}
layer {
  name: "relu3"
  type: "ReLU"
  bottom: "ip3"
  top: "ip3"
}
layer {
  name: "accuracy"
  type: "Accuracy"
  bottom: "ip3"
  bottom: "label"
  top: "accuracy"
  include {
    phase: TEST
  }
}
layer {
  name: "loss"
  type: "SoftmaxWithLoss"
  bottom: "ip3"
  bottom: "label"
  top: "loss"
}
I0428 20:28:04.991883  3288 layer_factory.hpp:77] Creating layer mnist
I0428 20:28:04.991930  3288 db_lmdb.cpp:35] Opened lmdb examples/mnist/mnist_test_lmdb
I0428 20:28:04.991942  3288 net.cpp:86] Creating Layer mnist
I0428 20:28:04.991948  3288 net.cpp:382] mnist -> data
I0428 20:28:04.991956  3288 net.cpp:382] mnist -> label
I0428 20:28:04.992048  3288 data_layer.cpp:45] output data size: 100,1,28,28
I0428 20:28:04.994173  3288 net.cpp:124] Setting up mnist
I0428 20:28:04.994185  3288 net.cpp:131] Top shape: 100 1 28 28 (78400)
I0428 20:28:04.994190  3288 net.cpp:131] Top shape: 100 (100)
I0428 20:28:04.994194  3288 net.cpp:139] Memory required for data: 314000
I0428 20:28:04.994196  3288 layer_factory.hpp:77] Creating layer label_mnist_1_split
I0428 20:28:04.994204  3288 net.cpp:86] Creating Layer label_mnist_1_split
I0428 20:28:04.994207  3288 net.cpp:408] label_mnist_1_split <- label
I0428 20:28:04.994237  3288 net.cpp:382] label_mnist_1_split -> label_mnist_1_split_0
I0428 20:28:04.994246  3288 net.cpp:382] label_mnist_1_split -> label_mnist_1_split_1
I0428 20:28:04.994285  3288 net.cpp:124] Setting up label_mnist_1_split
I0428 20:28:04.994292  3288 net.cpp:131] Top shape: 100 (100)
I0428 20:28:04.994294  3288 net.cpp:131] Top shape: 100 (100)
I0428 20:28:04.994297  3288 net.cpp:139] Memory required for data: 314800
I0428 20:28:04.994300  3288 layer_factory.hpp:77] Creating layer conv0
I0428 20:28:04.994309  3288 net.cpp:86] Creating Layer conv0
I0428 20:28:04.994313  3288 net.cpp:408] conv0 <- data
I0428 20:28:04.994319  3288 net.cpp:382] conv0 -> conv0
I0428 20:28:04.996032  3288 net.cpp:124] Setting up conv0
I0428 20:28:04.996047  3288 net.cpp:131] Top shape: 100 100 24 24 (5760000)
I0428 20:28:04.996050  3288 net.cpp:139] Memory required for data: 23354800
I0428 20:28:04.996060  3288 layer_factory.hpp:77] Creating layer pool0
I0428 20:28:04.996068  3288 net.cpp:86] Creating Layer pool0
I0428 20:28:04.996071  3288 net.cpp:408] pool0 <- conv0
I0428 20:28:04.996076  3288 net.cpp:382] pool0 -> pool0
I0428 20:28:04.996114  3288 net.cpp:124] Setting up pool0
I0428 20:28:04.996119  3288 net.cpp:131] Top shape: 100 100 12 12 (1440000)
I0428 20:28:04.996122  3288 net.cpp:139] Memory required for data: 29114800
I0428 20:28:04.996129  3288 layer_factory.hpp:77] Creating layer conv1
I0428 20:28:04.996139  3288 net.cpp:86] Creating Layer conv1
I0428 20:28:04.996142  3288 net.cpp:408] conv1 <- pool0
I0428 20:28:04.996148  3288 net.cpp:382] conv1 -> conv1
I0428 20:28:04.997869  3288 net.cpp:124] Setting up conv1
I0428 20:28:04.997882  3288 net.cpp:131] Top shape: 100 5 8 8 (32000)
I0428 20:28:04.997887  3288 net.cpp:139] Memory required for data: 29242800
I0428 20:28:04.997896  3288 layer_factory.hpp:77] Creating layer pool1
I0428 20:28:04.997906  3288 net.cpp:86] Creating Layer pool1
I0428 20:28:04.997910  3288 net.cpp:408] pool1 <- conv1
I0428 20:28:04.997915  3288 net.cpp:382] pool1 -> pool1
I0428 20:28:04.997953  3288 net.cpp:124] Setting up pool1
I0428 20:28:04.997958  3288 net.cpp:131] Top shape: 100 5 4 4 (8000)
I0428 20:28:04.997962  3288 net.cpp:139] Memory required for data: 29274800
I0428 20:28:04.997966  3288 layer_factory.hpp:77] Creating layer ip1
I0428 20:28:04.997972  3288 net.cpp:86] Creating Layer ip1
I0428 20:28:04.997982  3288 net.cpp:408] ip1 <- pool1
I0428 20:28:04.997985  3288 net.cpp:382] ip1 -> ip1
I0428 20:28:04.998093  3288 net.cpp:124] Setting up ip1
I0428 20:28:04.998101  3288 net.cpp:131] Top shape: 100 10 (1000)
I0428 20:28:04.998121  3288 net.cpp:139] Memory required for data: 29278800
I0428 20:28:04.998129  3288 layer_factory.hpp:77] Creating layer relu1
I0428 20:28:04.998136  3288 net.cpp:86] Creating Layer relu1
I0428 20:28:04.998144  3288 net.cpp:408] relu1 <- ip1
I0428 20:28:04.998148  3288 net.cpp:369] relu1 -> ip1 (in-place)
I0428 20:28:04.998313  3288 net.cpp:124] Setting up relu1
I0428 20:28:04.998322  3288 net.cpp:131] Top shape: 100 10 (1000)
I0428 20:28:04.998327  3288 net.cpp:139] Memory required for data: 29282800
I0428 20:28:04.998329  3288 layer_factory.hpp:77] Creating layer ip2
I0428 20:28:04.998337  3288 net.cpp:86] Creating Layer ip2
I0428 20:28:04.998342  3288 net.cpp:408] ip2 <- ip1
I0428 20:28:04.998347  3288 net.cpp:382] ip2 -> ip2
I0428 20:28:04.998448  3288 net.cpp:124] Setting up ip2
I0428 20:28:04.998456  3288 net.cpp:131] Top shape: 100 25 (2500)
I0428 20:28:04.998458  3288 net.cpp:139] Memory required for data: 29292800
I0428 20:28:04.998463  3288 layer_factory.hpp:77] Creating layer relu2
I0428 20:28:04.998468  3288 net.cpp:86] Creating Layer relu2
I0428 20:28:04.998471  3288 net.cpp:408] relu2 <- ip2
I0428 20:28:04.998476  3288 net.cpp:369] relu2 -> ip2 (in-place)
I0428 20:28:04.998636  3288 net.cpp:124] Setting up relu2
I0428 20:28:04.998643  3288 net.cpp:131] Top shape: 100 25 (2500)
I0428 20:28:04.998646  3288 net.cpp:139] Memory required for data: 29302800
I0428 20:28:04.998649  3288 layer_factory.hpp:77] Creating layer ip3
I0428 20:28:04.998654  3288 net.cpp:86] Creating Layer ip3
I0428 20:28:04.998673  3288 net.cpp:408] ip3 <- ip2
I0428 20:28:04.998680  3288 net.cpp:382] ip3 -> ip3
I0428 20:28:04.998798  3288 net.cpp:124] Setting up ip3
I0428 20:28:04.998805  3288 net.cpp:131] Top shape: 100 10 (1000)
I0428 20:28:04.998808  3288 net.cpp:139] Memory required for data: 29306800
I0428 20:28:04.998816  3288 layer_factory.hpp:77] Creating layer relu3
I0428 20:28:04.998821  3288 net.cpp:86] Creating Layer relu3
I0428 20:28:04.998823  3288 net.cpp:408] relu3 <- ip3
I0428 20:28:04.998828  3288 net.cpp:369] relu3 -> ip3 (in-place)
I0428 20:28:04.999632  3288 net.cpp:124] Setting up relu3
I0428 20:28:04.999645  3288 net.cpp:131] Top shape: 100 10 (1000)
I0428 20:28:04.999649  3288 net.cpp:139] Memory required for data: 29310800
I0428 20:28:04.999652  3288 layer_factory.hpp:77] Creating layer ip3_relu3_0_split
I0428 20:28:04.999657  3288 net.cpp:86] Creating Layer ip3_relu3_0_split
I0428 20:28:04.999660  3288 net.cpp:408] ip3_relu3_0_split <- ip3
I0428 20:28:04.999666  3288 net.cpp:382] ip3_relu3_0_split -> ip3_relu3_0_split_0
I0428 20:28:04.999673  3288 net.cpp:382] ip3_relu3_0_split -> ip3_relu3_0_split_1
I0428 20:28:04.999714  3288 net.cpp:124] Setting up ip3_relu3_0_split
I0428 20:28:04.999721  3288 net.cpp:131] Top shape: 100 10 (1000)
I0428 20:28:04.999723  3288 net.cpp:131] Top shape: 100 10 (1000)
I0428 20:28:04.999727  3288 net.cpp:139] Memory required for data: 29318800
I0428 20:28:04.999729  3288 layer_factory.hpp:77] Creating layer accuracy
I0428 20:28:04.999735  3288 net.cpp:86] Creating Layer accuracy
I0428 20:28:04.999738  3288 net.cpp:408] accuracy <- ip3_relu3_0_split_0
I0428 20:28:04.999743  3288 net.cpp:408] accuracy <- label_mnist_1_split_0
I0428 20:28:04.999748  3288 net.cpp:382] accuracy -> accuracy
…
