…
I0428 19:41:29.629705 24838 net.cpp:296] The NetState phase (0) differed from the phase (1) specified by a rule in layer mnist
I0428 19:41:29.629724 24838 net.cpp:296] The NetState phase (0) differed from the phase (1) specified by a rule in layer accuracy
I0428 19:41:29.629809 24838 net.cpp:53] Initializing net from parameters: 
name: "LeNet"
state {
  phase: TRAIN
  level: 0
  stage: ""
}
layer {
  name: "mnist"
  type: "Data"
  top: "data"
  top: "label"
  include {
    phase: TRAIN
  }
  transform_param {
    scale: 0.00390625
  }
  data_param {
    source: "examples/mnist/mnist_train_lmdb"
    batch_size: 64
    backend: LMDB
  }
}
layer {
  name: "conv0"
  type: "Convolution"
  bottom: "data"
  top: "conv0"
  param {
    lr_mult: 1
  }
  param {
    lr_mult: 2
  }
  convolution_param {
    num_output: 2
    kernel_size: 5
    stride: 1
    weight_filler {
      type: "xavier"
    }
    bias_filler {
      type: "constant"
    }
  }
}
layer {
  name: "pool0"
  type: "Pooling"
  bottom: "conv0"
  top: "pool0"
  pooling_param {
    pool: MAX
    kernel_size: 2
    stride: 2
  }
}
layer {
  name: "conv1"
  type: "Convolution"
  bottom: "pool0"
  top: "conv1"
  param {
    lr_mult: 1
  }
  param {
    lr_mult: 2
  }
  convolution_param {
    num_output: 10
    kernel_size: 5
    stride: 1
    weight_filler {
      type: "xavier"
    }
    bias_filler {
      type: "constant"
    }
  }
}
layer {
  name: "pool1"
  type: "Pooling"
  bottom: "conv1"
  top: "pool1"
  pooling_param {
    pool: MAX
    kernel_size: 2
    stride: 2
  }
}
layer {
  name: "ip1"
  type: "InnerProduct"
  bottom: "pool1"
  top: "ip1"
  param {
    lr_mult: 1
  }
  param {
    lr_mult: 2
  }
  inner_product_param {
    num_output: 10
    weight_filler {
      type: "xavier"
    }
    bias_filler {
      type: "constant"
    }
  }
}
layer {
  name: "relu1"
  type: "ReLU"
  bottom: "ip1"
  top: "ip1"
}
layer {
  name: "ip2"
  type: "InnerProduct"
  bottom: "ip1"
  top: "ip2"
  param {
    lr_mult: 1
  }
  param {
    lr_mult: 2
  }
  inner_product_param {
    num_output: 25
    weight_filler {
      type: "xavier"
    }
    bias_filler {
      type: "constant"
    }
  }
}
layer {
  name: "relu2"
  type: "ReLU"
  bottom: "ip2"
  top: "ip2"
}
layer {
  name: "ip3"
  type: "InnerProduct"
  bottom: "ip2"
  top: "ip3"
  param {
    lr_mult: 1
  }
  param {
    lr_mult: 2
  }
  inner_product_param {
    num_output: 10
    weight_filler {
      type: "xavier"
    }
    bias_filler {
      type: "constant"
    }
  }
}
layer {
  name: "relu3"
  type: "ReLU"
  bottom: "ip3"
  top: "ip3"
}
layer {
  name: "loss"
  type: "SoftmaxWithLoss"
  bottom: "ip3"
  bottom: "label"
  top: "loss"
}
I0428 19:41:29.629899 24838 layer_factory.hpp:77] Creating layer mnist
I0428 19:41:29.630002 24838 db_lmdb.cpp:35] Opened lmdb examples/mnist/mnist_train_lmdb
I0428 19:41:29.630029 24838 net.cpp:86] Creating Layer mnist
I0428 19:41:29.630038 24838 net.cpp:382] mnist -> data
I0428 19:41:29.630065 24838 net.cpp:382] mnist -> label
I0428 19:41:29.631171 24838 data_layer.cpp:45] output data size: 64,1,28,28
I0428 19:41:29.633534 24838 net.cpp:124] Setting up mnist
I0428 19:41:29.633551 24838 net.cpp:131] Top shape: 64 1 28 28 (50176)
I0428 19:41:29.633561 24838 net.cpp:131] Top shape: 64 (64)
I0428 19:41:29.633566 24838 net.cpp:139] Memory required for data: 200960
I0428 19:41:29.633575 24838 layer_factory.hpp:77] Creating layer conv0
I0428 19:41:29.633592 24838 net.cpp:86] Creating Layer conv0
I0428 19:41:29.633612 24838 net.cpp:408] conv0 <- data
I0428 19:41:29.633630 24838 net.cpp:382] conv0 -> conv0
I0428 19:41:29.858774 24838 net.cpp:124] Setting up conv0
I0428 19:41:29.858803 24838 net.cpp:131] Top shape: 64 2 24 24 (73728)
I0428 19:41:29.858808 24838 net.cpp:139] Memory required for data: 495872
I0428 19:41:29.858842 24838 layer_factory.hpp:77] Creating layer pool0
I0428 19:41:29.858860 24838 net.cpp:86] Creating Layer pool0
I0428 19:41:29.858865 24838 net.cpp:408] pool0 <- conv0
I0428 19:41:29.858875 24838 net.cpp:382] pool0 -> pool0
I0428 19:41:29.858932 24838 net.cpp:124] Setting up pool0
I0428 19:41:29.858939 24838 net.cpp:131] Top shape: 64 2 12 12 (18432)
I0428 19:41:29.858944 24838 net.cpp:139] Memory required for data: 569600
I0428 19:41:29.858949 24838 layer_factory.hpp:77] Creating layer conv1
I0428 19:41:29.858964 24838 net.cpp:86] Creating Layer conv1
I0428 19:41:29.858970 24838 net.cpp:408] conv1 <- pool0
I0428 19:41:29.858992 24838 net.cpp:382] conv1 -> conv1
I0428 19:41:29.860755 24838 net.cpp:124] Setting up conv1
I0428 19:41:29.860771 24838 net.cpp:131] Top shape: 64 10 8 8 (40960)
I0428 19:41:29.860777 24838 net.cpp:139] Memory required for data: 733440
I0428 19:41:29.860790 24838 layer_factory.hpp:77] Creating layer pool1
I0428 19:41:29.860801 24838 net.cpp:86] Creating Layer pool1
I0428 19:41:29.860807 24838 net.cpp:408] pool1 <- conv1
I0428 19:41:29.860836 24838 net.cpp:382] pool1 -> pool1
I0428 19:41:29.860914 24838 net.cpp:124] Setting up pool1
I0428 19:41:29.860924 24838 net.cpp:131] Top shape: 64 10 4 4 (10240)
I0428 19:41:29.860930 24838 net.cpp:139] Memory required for data: 774400
I0428 19:41:29.860935 24838 layer_factory.hpp:77] Creating layer ip1
I0428 19:41:29.860947 24838 net.cpp:86] Creating Layer ip1
I0428 19:41:29.860954 24838 net.cpp:408] ip1 <- pool1
I0428 19:41:29.860962 24838 net.cpp:382] ip1 -> ip1
I0428 19:41:29.861969 24838 net.cpp:124] Setting up ip1
I0428 19:41:29.861984 24838 net.cpp:131] Top shape: 64 10 (640)
I0428 19:41:29.861989 24838 net.cpp:139] Memory required for data: 776960
I0428 19:41:29.862001 24838 layer_factory.hpp:77] Creating layer relu1
I0428 19:41:29.862010 24838 net.cpp:86] Creating Layer relu1
I0428 19:41:29.862016 24838 net.cpp:408] relu1 <- ip1
I0428 19:41:29.862023 24838 net.cpp:369] relu1 -> ip1 (in-place)
I0428 19:41:29.862210 24838 net.cpp:124] Setting up relu1
I0428 19:41:29.862220 24838 net.cpp:131] Top shape: 64 10 (640)
I0428 19:41:29.862224 24838 net.cpp:139] Memory required for data: 779520
I0428 19:41:29.862229 24838 layer_factory.hpp:77] Creating layer ip2
I0428 19:41:29.862239 24838 net.cpp:86] Creating Layer ip2
I0428 19:41:29.862244 24838 net.cpp:408] ip2 <- ip1
I0428 19:41:29.862267 24838 net.cpp:382] ip2 -> ip2
I0428 19:41:29.862381 24838 net.cpp:124] Setting up ip2
I0428 19:41:29.862390 24838 net.cpp:131] Top shape: 64 25 (1600)
I0428 19:41:29.862411 24838 net.cpp:139] Memory required for data: 785920
I0428 19:41:29.862419 24838 layer_factory.hpp:77] Creating layer relu2
I0428 19:41:29.862428 24838 net.cpp:86] Creating Layer relu2
I0428 19:41:29.862438 24838 net.cpp:408] relu2 <- ip2
I0428 19:41:29.862445 24838 net.cpp:369] relu2 -> ip2 (in-place)
I0428 19:41:29.863193 24838 net.cpp:124] Setting up relu2
I0428 19:41:29.863206 24838 net.cpp:131] Top shape: 64 25 (1600)
I0428 19:41:29.863212 24838 net.cpp:139] Memory required for data: 792320
I0428 19:41:29.863217 24838 layer_factory.hpp:77] Creating layer ip3
I0428 19:41:29.863227 24838 net.cpp:86] Creating Layer ip3
I0428 19:41:29.863234 24838 net.cpp:408] ip3 <- ip2
I0428 19:41:29.863241 24838 net.cpp:382] ip3 -> ip3
I0428 19:41:29.863374 24838 net.cpp:124] Setting up ip3
I0428 19:41:29.863384 24838 net.cpp:131] Top shape: 64 10 (640)
I0428 19:41:29.863389 24838 net.cpp:139] Memory required for data: 794880
I0428 19:41:29.863400 24838 layer_factory.hpp:77] Creating layer relu3
I0428 19:41:29.863411 24838 net.cpp:86] Creating Layer relu3
I0428 19:41:29.863418 24838 net.cpp:408] relu3 <- ip3
I0428 19:41:29.863425 24838 net.cpp:369] relu3 -> ip3 (in-place)
I0428 19:41:29.863593 24838 net.cpp:124] Setting up relu3
I0428 19:41:29.863603 24838 net.cpp:131] Top shape: 64 10 (640)
I0428 19:41:29.863607 24838 net.cpp:139] Memory required for data: 797440
I0428 19:41:29.863612 24838 layer_factory.hpp:77] Creating layer loss
I0428 19:41:29.863623 24838 net.cpp:86] Creating Layer loss
I0428 19:41:29.863628 24838 net.cpp:408] loss <- ip3
I0428 19:41:29.863634 24838 net.cpp:408] loss <- label
I0428 19:41:29.863644 24838 net.cpp:382] loss -> loss
I0428 19:41:29.863665 24838 layer_factory.hpp:77] Creating layer loss
…
I0428 19:41:29.864378 24838 solver.cpp:173] Creating test net (#0) specified by net file: ECE595/mnist/train_test/var_everything2/lenet_train_test366.prototxt
I0428 19:41:29.864410 24838 net.cpp:296] The NetState phase (1) differed from the phase (0) specified by a rule in layer mnist
I0428 19:41:29.864521 24838 net.cpp:53] Initializing net from parameters: 
name: "LeNet"
state {
  phase: TEST
}
layer {
  name: "mnist"
  type: "Data"
  top: "data"
  top: "label"
  include {
    phase: TEST
  }
  transform_param {
    scale: 0.00390625
  }
  data_param {
    source: "examples/mnist/mnist_test_lmdb"
    batch_size: 100
    backend: LMDB
  }
}
layer {
  name: "conv0"
  type: "Convolution"
  bottom: "data"
  top: "conv0"
  param {
    lr_mult: 1
  }
  param {
    lr_mult: 2
  }
  convolution_param {
    num_output: 2
    kernel_size: 5
    stride: 1
    weight_filler {
      type: "xavier"
    }
    bias_filler {
      type: "constant"
    }
  }
}
layer {
  name: "pool0"
  type: "Pooling"
  bottom: "conv0"
  top: "pool0"
  pooling_param {
    pool: MAX
    kernel_size: 2
    stride: 2
  }
}
layer {
  name: "conv1"
  type: "Convolution"
  bottom: "pool0"
  top: "conv1"
  param {
    lr_mult: 1
  }
  param {
    lr_mult: 2
  }
  convolution_param {
    num_output: 10
    kernel_size: 5
    stride: 1
    weight_filler {
      type: "xavier"
    }
    bias_filler {
      type: "constant"
    }
  }
}
layer {
  name: "pool1"
  type: "Pooling"
  bottom: "conv1"
  top: "pool1"
  pooling_param {
    pool: MAX
    kernel_size: 2
    stride: 2
  }
}
layer {
  name: "ip1"
  type: "InnerProduct"
  bottom: "pool1"
  top: "ip1"
  param {
    lr_mult: 1
  }
  param {
    lr_mult: 2
  }
  inner_product_param {
    num_output: 10
    weight_filler {
      type: "xavier"
    }
    bias_filler {
      type: "constant"
    }
  }
}
layer {
  name: "relu1"
  type: "ReLU"
  bottom: "ip1"
  top: "ip1"
}
layer {
  name: "ip2"
  type: "InnerProduct"
  bottom: "ip1"
  top: "ip2"
  param {
    lr_mult: 1
  }
  param {
    lr_mult: 2
  }
  inner_product_param {
    num_output: 25
    weight_filler {
      type: "xavier"
    }
    bias_filler {
      type: "constant"
    }
  }
}
layer {
  name: "relu2"
  type: "ReLU"
  bottom: "ip2"
  top: "ip2"
}
layer {
  name: "ip3"
  type: "InnerProduct"
  bottom: "ip2"
  top: "ip3"
  param {
    lr_mult: 1
  }
  param {
    lr_mult: 2
  }
  inner_product_param {
    num_output: 10
    weight_filler {
      type: "xavier"
    }
    bias_filler {
      type: "constant"
    }
  }
}
layer {
  name: "relu3"
  type: "ReLU"
  bottom: "ip3"
  top: "ip3"
}
layer {
  name: "accuracy"
  type: "Accuracy"
  bottom: "ip3"
  bottom: "label"
  top: "accuracy"
  include {
    phase: TEST
  }
}
layer {
  name: "loss"
  type: "SoftmaxWithLoss"
  bottom: "ip3"
  bottom: "label"
  top: "loss"
}
I0428 19:41:29.864648 24838 layer_factory.hpp:77] Creating layer mnist
I0428 19:41:29.864706 24838 db_lmdb.cpp:35] Opened lmdb examples/mnist/mnist_test_lmdb
I0428 19:41:29.864723 24838 net.cpp:86] Creating Layer mnist
I0428 19:41:29.864732 24838 net.cpp:382] mnist -> data
I0428 19:41:29.864743 24838 net.cpp:382] mnist -> label
I0428 19:41:29.864884 24838 data_layer.cpp:45] output data size: 100,1,28,28
I0428 19:41:29.867252 24838 net.cpp:124] Setting up mnist
I0428 19:41:29.867282 24838 net.cpp:131] Top shape: 100 1 28 28 (78400)
I0428 19:41:29.867290 24838 net.cpp:131] Top shape: 100 (100)
I0428 19:41:29.867295 24838 net.cpp:139] Memory required for data: 314000
I0428 19:41:29.867300 24838 layer_factory.hpp:77] Creating layer label_mnist_1_split
I0428 19:41:29.867328 24838 net.cpp:86] Creating Layer label_mnist_1_split
I0428 19:41:29.867334 24838 net.cpp:408] label_mnist_1_split <- label
I0428 19:41:29.867343 24838 net.cpp:382] label_mnist_1_split -> label_mnist_1_split_0
I0428 19:41:29.867354 24838 net.cpp:382] label_mnist_1_split -> label_mnist_1_split_1
I0428 19:41:29.867460 24838 net.cpp:124] Setting up label_mnist_1_split
I0428 19:41:29.867482 24838 net.cpp:131] Top shape: 100 (100)
I0428 19:41:29.867488 24838 net.cpp:131] Top shape: 100 (100)
I0428 19:41:29.867504 24838 net.cpp:139] Memory required for data: 314800
I0428 19:41:29.867509 24838 layer_factory.hpp:77] Creating layer conv0
I0428 19:41:29.867523 24838 net.cpp:86] Creating Layer conv0
I0428 19:41:29.867530 24838 net.cpp:408] conv0 <- data
I0428 19:41:29.867539 24838 net.cpp:382] conv0 -> conv0
I0428 19:41:29.869220 24838 net.cpp:124] Setting up conv0
I0428 19:41:29.869235 24838 net.cpp:131] Top shape: 100 2 24 24 (115200)
I0428 19:41:29.869240 24838 net.cpp:139] Memory required for data: 775600
I0428 19:41:29.869269 24838 layer_factory.hpp:77] Creating layer pool0
I0428 19:41:29.869282 24838 net.cpp:86] Creating Layer pool0
I0428 19:41:29.869287 24838 net.cpp:408] pool0 <- conv0
I0428 19:41:29.869294 24838 net.cpp:382] pool0 -> pool0
I0428 19:41:29.869339 24838 net.cpp:124] Setting up pool0
I0428 19:41:29.869349 24838 net.cpp:131] Top shape: 100 2 12 12 (28800)
I0428 19:41:29.869354 24838 net.cpp:139] Memory required for data: 890800
I0428 19:41:29.869357 24838 layer_factory.hpp:77] Creating layer conv1
I0428 19:41:29.869372 24838 net.cpp:86] Creating Layer conv1
I0428 19:41:29.869379 24838 net.cpp:408] conv1 <- pool0
I0428 19:41:29.869390 24838 net.cpp:382] conv1 -> conv1
I0428 19:41:29.870980 24838 net.cpp:124] Setting up conv1
I0428 19:41:29.870997 24838 net.cpp:131] Top shape: 100 10 8 8 (64000)
I0428 19:41:29.871017 24838 net.cpp:139] Memory required for data: 1146800
I0428 19:41:29.871031 24838 layer_factory.hpp:77] Creating layer pool1
I0428 19:41:29.871042 24838 net.cpp:86] Creating Layer pool1
I0428 19:41:29.871047 24838 net.cpp:408] pool1 <- conv1
I0428 19:41:29.871055 24838 net.cpp:382] pool1 -> pool1
I0428 19:41:29.871098 24838 net.cpp:124] Setting up pool1
I0428 19:41:29.871106 24838 net.cpp:131] Top shape: 100 10 4 4 (16000)
I0428 19:41:29.871121 24838 net.cpp:139] Memory required for data: 1210800
I0428 19:41:29.871126 24838 layer_factory.hpp:77] Creating layer ip1
I0428 19:41:29.871137 24838 net.cpp:86] Creating Layer ip1
I0428 19:41:29.871143 24838 net.cpp:408] ip1 <- pool1
I0428 19:41:29.871150 24838 net.cpp:382] ip1 -> ip1
I0428 19:41:29.871268 24838 net.cpp:124] Setting up ip1
I0428 19:41:29.871278 24838 net.cpp:131] Top shape: 100 10 (1000)
I0428 19:41:29.871294 24838 net.cpp:139] Memory required for data: 1214800
I0428 19:41:29.871309 24838 layer_factory.hpp:77] Creating layer relu1
I0428 19:41:29.871320 24838 net.cpp:86] Creating Layer relu1
I0428 19:41:29.871325 24838 net.cpp:408] relu1 <- ip1
I0428 19:41:29.871335 24838 net.cpp:369] relu1 -> ip1 (in-place)
I0428 19:41:29.871498 24838 net.cpp:124] Setting up relu1
I0428 19:41:29.871508 24838 net.cpp:131] Top shape: 100 10 (1000)
I0428 19:41:29.871513 24838 net.cpp:139] Memory required for data: 1218800
I0428 19:41:29.871518 24838 layer_factory.hpp:77] Creating layer ip2
I0428 19:41:29.871531 24838 net.cpp:86] Creating Layer ip2
I0428 19:41:29.871536 24838 net.cpp:408] ip2 <- ip1
I0428 19:41:29.871546 24838 net.cpp:382] ip2 -> ip2
I0428 19:41:29.871675 24838 net.cpp:124] Setting up ip2
I0428 19:41:29.871683 24838 net.cpp:131] Top shape: 100 25 (2500)
I0428 19:41:29.871688 24838 net.cpp:139] Memory required for data: 1228800
I0428 19:41:29.871696 24838 layer_factory.hpp:77] Creating layer relu2
I0428 19:41:29.871718 24838 net.cpp:86] Creating Layer relu2
I0428 19:41:29.871723 24838 net.cpp:408] relu2 <- ip2
I0428 19:41:29.871729 24838 net.cpp:369] relu2 -> ip2 (in-place)
I0428 19:41:29.871938 24838 net.cpp:124] Setting up relu2
I0428 19:41:29.871949 24838 net.cpp:131] Top shape: 100 25 (2500)
I0428 19:41:29.871954 24838 net.cpp:139] Memory required for data: 1238800
I0428 19:41:29.871959 24838 layer_factory.hpp:77] Creating layer ip3
I0428 19:41:29.871968 24838 net.cpp:86] Creating Layer ip3
I0428 19:41:29.871974 24838 net.cpp:408] ip3 <- ip2
I0428 19:41:29.871985 24838 net.cpp:382] ip3 -> ip3
I0428 19:41:29.872093 24838 net.cpp:124] Setting up ip3
I0428 19:41:29.872103 24838 net.cpp:131] Top shape: 100 10 (1000)
I0428 19:41:29.872123 24838 net.cpp:139] Memory required for data: 1242800
I0428 19:41:29.872134 24838 layer_factory.hpp:77] Creating layer relu3
I0428 19:41:29.872143 24838 net.cpp:86] Creating Layer relu3
I0428 19:41:29.872149 24838 net.cpp:408] relu3 <- ip3
I0428 19:41:29.872159 24838 net.cpp:369] relu3 -> ip3 (in-place)
I0428 19:41:29.873028 24838 net.cpp:124] Setting up relu3
I0428 19:41:29.873044 24838 net.cpp:131] Top shape: 100 10 (1000)
I0428 19:41:29.873049 24838 net.cpp:139] Memory required for data: 1246800
I0428 19:41:29.873054 24838 layer_factory.hpp:77] Creating layer ip3_relu3_0_split
I0428 19:41:29.873062 24838 net.cpp:86] Creating Layer ip3_relu3_0_split
I0428 19:41:29.873069 24838 net.cpp:408] ip3_relu3_0_split <- ip3
I0428 19:41:29.873078 24838 net.cpp:382] ip3_relu3_0_split -> ip3_relu3_0_split_0
I0428 19:41:29.873088 24838 net.cpp:382] ip3_relu3_0_split -> ip3_relu3_0_split_1
I0428 19:41:29.873133 24838 net.cpp:124] Setting up ip3_relu3_0_split
I0428 19:41:29.873143 24838 net.cpp:131] Top shape: 100 10 (1000)
I0428 19:41:29.873149 24838 net.cpp:131] Top shape: 100 10 (1000)
I0428 19:41:29.873155 24838 net.cpp:139] Memory required for data: 1254800
I0428 19:41:29.873160 24838 layer_factory.hpp:77] Creating layer accuracy
I0428 19:41:29.873170 24838 net.cpp:86] Creating Layer accuracy
I0428 19:41:29.873177 24838 net.cpp:408] accuracy <- ip3_relu3_0_split_0
I0428 19:41:29.873198 24838 net.cpp:408] accuracy <- label_mnist_1_split_0
I0428 19:41:29.873216 24838 net.cpp:382] accuracy -> accuracy
…
