…
I0428 19:47:26.988906 26193 net.cpp:296] The NetState phase (0) differed from the phase (1) specified by a rule in layer mnist
I0428 19:47:26.988931 26193 net.cpp:296] The NetState phase (0) differed from the phase (1) specified by a rule in layer accuracy
I0428 19:47:26.989030 26193 net.cpp:53] Initializing net from parameters: 
name: "LeNet"
state {
  phase: TRAIN
  level: 0
  stage: ""
}
layer {
  name: "mnist"
  type: "Data"
  top: "data"
  top: "label"
  include {
    phase: TRAIN
  }
  transform_param {
    scale: 0.00390625
  }
  data_param {
    source: "examples/mnist/mnist_train_lmdb"
    batch_size: 64
    backend: LMDB
  }
}
layer {
  name: "conv0"
  type: "Convolution"
  bottom: "data"
  top: "conv0"
  param {
    lr_mult: 1
  }
  param {
    lr_mult: 2
  }
  convolution_param {
    num_output: 5
    kernel_size: 5
    stride: 1
    weight_filler {
      type: "xavier"
    }
    bias_filler {
      type: "constant"
    }
  }
}
layer {
  name: "pool0"
  type: "Pooling"
  bottom: "conv0"
  top: "pool0"
  pooling_param {
    pool: MAX
    kernel_size: 2
    stride: 2
  }
}
layer {
  name: "conv1"
  type: "Convolution"
  bottom: "pool0"
  top: "conv1"
  param {
    lr_mult: 1
  }
  param {
    lr_mult: 2
  }
  convolution_param {
    num_output: 2
    kernel_size: 5
    stride: 1
    weight_filler {
      type: "xavier"
    }
    bias_filler {
      type: "constant"
    }
  }
}
layer {
  name: "pool1"
  type: "Pooling"
  bottom: "conv1"
  top: "pool1"
  pooling_param {
    pool: MAX
    kernel_size: 2
    stride: 2
  }
}
layer {
  name: "ip1"
  type: "InnerProduct"
  bottom: "pool1"
  top: "ip1"
  param {
    lr_mult: 1
  }
  param {
    lr_mult: 2
  }
  inner_product_param {
    num_output: 25
    weight_filler {
      type: "xavier"
    }
    bias_filler {
      type: "constant"
    }
  }
}
layer {
  name: "relu1"
  type: "ReLU"
  bottom: "ip1"
  top: "ip1"
}
layer {
  name: "ip2"
  type: "InnerProduct"
  bottom: "ip1"
  top: "ip2"
  param {
    lr_mult: 1
  }
  param {
    lr_mult: 2
  }
  inner_product_param {
    num_output: 10
    weight_filler {
      type: "xavier"
    }
    bias_filler {
      type: "constant"
    }
  }
}
layer {
  name: "relu2"
  type: "ReLU"
  bottom: "ip2"
  top: "ip2"
}
layer {
  name: "loss"
  type: "SoftmaxWithLoss"
  bottom: "ip2"
  bottom: "label"
  top: "loss"
}
I0428 19:47:26.989137 26193 layer_factory.hpp:77] Creating layer mnist
I0428 19:47:26.989262 26193 db_lmdb.cpp:35] Opened lmdb examples/mnist/mnist_train_lmdb
I0428 19:47:26.989295 26193 net.cpp:86] Creating Layer mnist
I0428 19:47:26.989307 26193 net.cpp:382] mnist -> data
I0428 19:47:26.989337 26193 net.cpp:382] mnist -> label
I0428 19:47:26.990550 26193 data_layer.cpp:45] output data size: 64,1,28,28
I0428 19:47:26.992962 26193 net.cpp:124] Setting up mnist
I0428 19:47:26.992982 26193 net.cpp:131] Top shape: 64 1 28 28 (50176)
I0428 19:47:26.992995 26193 net.cpp:131] Top shape: 64 (64)
I0428 19:47:26.993001 26193 net.cpp:139] Memory required for data: 200960
I0428 19:47:26.993011 26193 layer_factory.hpp:77] Creating layer conv0
I0428 19:47:26.993033 26193 net.cpp:86] Creating Layer conv0
I0428 19:47:26.993043 26193 net.cpp:408] conv0 <- data
I0428 19:47:26.993062 26193 net.cpp:382] conv0 -> conv0
I0428 19:47:27.276612 26193 net.cpp:124] Setting up conv0
I0428 19:47:27.276645 26193 net.cpp:131] Top shape: 64 5 24 24 (184320)
I0428 19:47:27.276654 26193 net.cpp:139] Memory required for data: 938240
I0428 19:47:27.276705 26193 layer_factory.hpp:77] Creating layer pool0
I0428 19:47:27.276727 26193 net.cpp:86] Creating Layer pool0
I0428 19:47:27.276736 26193 net.cpp:408] pool0 <- conv0
I0428 19:47:27.276747 26193 net.cpp:382] pool0 -> pool0
I0428 19:47:27.276818 26193 net.cpp:124] Setting up pool0
I0428 19:47:27.276829 26193 net.cpp:131] Top shape: 64 5 12 12 (46080)
I0428 19:47:27.276835 26193 net.cpp:139] Memory required for data: 1122560
I0428 19:47:27.276841 26193 layer_factory.hpp:77] Creating layer conv1
I0428 19:47:27.276860 26193 net.cpp:86] Creating Layer conv1
I0428 19:47:27.276870 26193 net.cpp:408] conv1 <- pool0
I0428 19:47:27.276880 26193 net.cpp:382] conv1 -> conv1
I0428 19:47:27.279003 26193 net.cpp:124] Setting up conv1
I0428 19:47:27.279021 26193 net.cpp:131] Top shape: 64 2 8 8 (8192)
I0428 19:47:27.279028 26193 net.cpp:139] Memory required for data: 1155328
I0428 19:47:27.279044 26193 layer_factory.hpp:77] Creating layer pool1
I0428 19:47:27.279057 26193 net.cpp:86] Creating Layer pool1
I0428 19:47:27.279072 26193 net.cpp:408] pool1 <- conv1
I0428 19:47:27.279083 26193 net.cpp:382] pool1 -> pool1
I0428 19:47:27.279131 26193 net.cpp:124] Setting up pool1
I0428 19:47:27.279141 26193 net.cpp:131] Top shape: 64 2 4 4 (2048)
I0428 19:47:27.279147 26193 net.cpp:139] Memory required for data: 1163520
I0428 19:47:27.279153 26193 layer_factory.hpp:77] Creating layer ip1
I0428 19:47:27.279165 26193 net.cpp:86] Creating Layer ip1
I0428 19:47:27.279172 26193 net.cpp:408] ip1 <- pool1
I0428 19:47:27.279181 26193 net.cpp:382] ip1 -> ip1
I0428 19:47:27.279300 26193 net.cpp:124] Setting up ip1
I0428 19:47:27.279311 26193 net.cpp:131] Top shape: 64 25 (1600)
I0428 19:47:27.279316 26193 net.cpp:139] Memory required for data: 1169920
I0428 19:47:27.279330 26193 layer_factory.hpp:77] Creating layer relu1
I0428 19:47:27.279345 26193 net.cpp:86] Creating Layer relu1
I0428 19:47:27.279352 26193 net.cpp:408] relu1 <- ip1
I0428 19:47:27.279361 26193 net.cpp:369] relu1 -> ip1 (in-place)
I0428 19:47:27.279552 26193 net.cpp:124] Setting up relu1
I0428 19:47:27.279564 26193 net.cpp:131] Top shape: 64 25 (1600)
I0428 19:47:27.279570 26193 net.cpp:139] Memory required for data: 1176320
I0428 19:47:27.279577 26193 layer_factory.hpp:77] Creating layer ip2
I0428 19:47:27.279587 26193 net.cpp:86] Creating Layer ip2
I0428 19:47:27.279594 26193 net.cpp:408] ip2 <- ip1
I0428 19:47:27.279603 26193 net.cpp:382] ip2 -> ip2
I0428 19:47:27.279721 26193 net.cpp:124] Setting up ip2
I0428 19:47:27.279731 26193 net.cpp:131] Top shape: 64 10 (640)
I0428 19:47:27.279736 26193 net.cpp:139] Memory required for data: 1178880
I0428 19:47:27.279747 26193 layer_factory.hpp:77] Creating layer relu2
I0428 19:47:27.279758 26193 net.cpp:86] Creating Layer relu2
I0428 19:47:27.279764 26193 net.cpp:408] relu2 <- ip2
I0428 19:47:27.279772 26193 net.cpp:369] relu2 -> ip2 (in-place)
I0428 19:47:27.280582 26193 net.cpp:124] Setting up relu2
I0428 19:47:27.280598 26193 net.cpp:131] Top shape: 64 10 (640)
I0428 19:47:27.280604 26193 net.cpp:139] Memory required for data: 1181440
I0428 19:47:27.280611 26193 layer_factory.hpp:77] Creating layer loss
I0428 19:47:27.280628 26193 net.cpp:86] Creating Layer loss
I0428 19:47:27.280635 26193 net.cpp:408] loss <- ip2
I0428 19:47:27.280643 26193 net.cpp:408] loss <- label
I0428 19:47:27.280653 26193 net.cpp:382] loss -> loss
I0428 19:47:27.280678 26193 layer_factory.hpp:77] Creating layer loss
…
I0428 19:47:27.281430 26193 solver.cpp:173] Creating test net (#0) specified by net file: ECE595/mnist/train_test/var_everything2/lenet_train_test515.prototxt
I0428 19:47:27.281466 26193 net.cpp:296] The NetState phase (1) differed from the phase (0) specified by a rule in layer mnist
I0428 19:47:27.281568 26193 net.cpp:53] Initializing net from parameters: 
name: "LeNet"
state {
  phase: TEST
}
layer {
  name: "mnist"
  type: "Data"
  top: "data"
  top: "label"
  include {
    phase: TEST
  }
  transform_param {
    scale: 0.00390625
  }
  data_param {
    source: "examples/mnist/mnist_test_lmdb"
    batch_size: 100
    backend: LMDB
  }
}
layer {
  name: "conv0"
  type: "Convolution"
  bottom: "data"
  top: "conv0"
  param {
    lr_mult: 1
  }
  param {
    lr_mult: 2
  }
  convolution_param {
    num_output: 5
    kernel_size: 5
    stride: 1
    weight_filler {
      type: "xavier"
    }
    bias_filler {
      type: "constant"
    }
  }
}
layer {
  name: "pool0"
  type: "Pooling"
  bottom: "conv0"
  top: "pool0"
  pooling_param {
    pool: MAX
    kernel_size: 2
    stride: 2
  }
}
layer {
  name: "conv1"
  type: "Convolution"
  bottom: "pool0"
  top: "conv1"
  param {
    lr_mult: 1
  }
  param {
    lr_mult: 2
  }
  convolution_param {
    num_output: 2
    kernel_size: 5
    stride: 1
    weight_filler {
      type: "xavier"
    }
    bias_filler {
      type: "constant"
    }
  }
}
layer {
  name: "pool1"
  type: "Pooling"
  bottom: "conv1"
  top: "pool1"
  pooling_param {
    pool: MAX
    kernel_size: 2
    stride: 2
  }
}
layer {
  name: "ip1"
  type: "InnerProduct"
  bottom: "pool1"
  top: "ip1"
  param {
    lr_mult: 1
  }
  param {
    lr_mult: 2
  }
  inner_product_param {
    num_output: 25
    weight_filler {
      type: "xavier"
    }
    bias_filler {
      type: "constant"
    }
  }
}
layer {
  name: "relu1"
  type: "ReLU"
  bottom: "ip1"
  top: "ip1"
}
layer {
  name: "ip2"
  type: "InnerProduct"
  bottom: "ip1"
  top: "ip2"
  param {
    lr_mult: 1
  }
  param {
    lr_mult: 2
  }
  inner_product_param {
    num_output: 10
    weight_filler {
      type: "xavier"
    }
    bias_filler {
      type: "constant"
    }
  }
}
layer {
  name: "relu2"
  type: "ReLU"
  bottom: "ip2"
  top: "ip2"
}
layer {
  name: "accuracy"
  type: "Accuracy"
  bottom: "ip2"
  bottom: "label"
  top: "accuracy"
  include {
    phase: TEST
  }
}
layer {
  name: "loss"
  type: "SoftmaxWithLoss"
  bottom: "ip2"
  bottom: "label"
  top: "loss"
}
I0428 19:47:27.281677 26193 layer_factory.hpp:77] Creating layer mnist
I0428 19:47:27.281744 26193 db_lmdb.cpp:35] Opened lmdb examples/mnist/mnist_test_lmdb
I0428 19:47:27.281764 26193 net.cpp:86] Creating Layer mnist
I0428 19:47:27.281771 26193 net.cpp:382] mnist -> data
I0428 19:47:27.281785 26193 net.cpp:382] mnist -> label
I0428 19:47:27.281919 26193 data_layer.cpp:45] output data size: 100,1,28,28
I0428 19:47:27.284137 26193 net.cpp:124] Setting up mnist
I0428 19:47:27.284153 26193 net.cpp:131] Top shape: 100 1 28 28 (78400)
I0428 19:47:27.284163 26193 net.cpp:131] Top shape: 100 (100)
I0428 19:47:27.284169 26193 net.cpp:139] Memory required for data: 314000
I0428 19:47:27.284176 26193 layer_factory.hpp:77] Creating layer label_mnist_1_split
I0428 19:47:27.284188 26193 net.cpp:86] Creating Layer label_mnist_1_split
I0428 19:47:27.284194 26193 net.cpp:408] label_mnist_1_split <- label
I0428 19:47:27.284204 26193 net.cpp:382] label_mnist_1_split -> label_mnist_1_split_0
I0428 19:47:27.284215 26193 net.cpp:382] label_mnist_1_split -> label_mnist_1_split_1
I0428 19:47:27.284318 26193 net.cpp:124] Setting up label_mnist_1_split
I0428 19:47:27.284337 26193 net.cpp:131] Top shape: 100 (100)
I0428 19:47:27.284345 26193 net.cpp:131] Top shape: 100 (100)
I0428 19:47:27.284351 26193 net.cpp:139] Memory required for data: 314800
I0428 19:47:27.284358 26193 layer_factory.hpp:77] Creating layer conv0
I0428 19:47:27.284373 26193 net.cpp:86] Creating Layer conv0
I0428 19:47:27.284381 26193 net.cpp:408] conv0 <- data
I0428 19:47:27.284392 26193 net.cpp:382] conv0 -> conv0
I0428 19:47:27.286052 26193 net.cpp:124] Setting up conv0
I0428 19:47:27.286072 26193 net.cpp:131] Top shape: 100 5 24 24 (288000)
I0428 19:47:27.286080 26193 net.cpp:139] Memory required for data: 1466800
I0428 19:47:27.286098 26193 layer_factory.hpp:77] Creating layer pool0
I0428 19:47:27.286113 26193 net.cpp:86] Creating Layer pool0
I0428 19:47:27.286121 26193 net.cpp:408] pool0 <- conv0
I0428 19:47:27.286135 26193 net.cpp:382] pool0 -> pool0
I0428 19:47:27.286185 26193 net.cpp:124] Setting up pool0
I0428 19:47:27.286195 26193 net.cpp:131] Top shape: 100 5 12 12 (72000)
I0428 19:47:27.286201 26193 net.cpp:139] Memory required for data: 1754800
I0428 19:47:27.286206 26193 layer_factory.hpp:77] Creating layer conv1
I0428 19:47:27.286226 26193 net.cpp:86] Creating Layer conv1
I0428 19:47:27.286232 26193 net.cpp:408] conv1 <- pool0
I0428 19:47:27.286252 26193 net.cpp:382] conv1 -> conv1
I0428 19:47:27.288400 26193 net.cpp:124] Setting up conv1
I0428 19:47:27.288416 26193 net.cpp:131] Top shape: 100 2 8 8 (12800)
I0428 19:47:27.288424 26193 net.cpp:139] Memory required for data: 1806000
I0428 19:47:27.288439 26193 layer_factory.hpp:77] Creating layer pool1
I0428 19:47:27.288451 26193 net.cpp:86] Creating Layer pool1
I0428 19:47:27.288460 26193 net.cpp:408] pool1 <- conv1
I0428 19:47:27.288468 26193 net.cpp:382] pool1 -> pool1
I0428 19:47:27.288522 26193 net.cpp:124] Setting up pool1
I0428 19:47:27.288532 26193 net.cpp:131] Top shape: 100 2 4 4 (3200)
I0428 19:47:27.288538 26193 net.cpp:139] Memory required for data: 1818800
I0428 19:47:27.288544 26193 layer_factory.hpp:77] Creating layer ip1
I0428 19:47:27.288556 26193 net.cpp:86] Creating Layer ip1
I0428 19:47:27.288563 26193 net.cpp:408] ip1 <- pool1
I0428 19:47:27.288573 26193 net.cpp:382] ip1 -> ip1
I0428 19:47:27.288702 26193 net.cpp:124] Setting up ip1
I0428 19:47:27.288714 26193 net.cpp:131] Top shape: 100 25 (2500)
I0428 19:47:27.288719 26193 net.cpp:139] Memory required for data: 1828800
I0428 19:47:27.288733 26193 layer_factory.hpp:77] Creating layer relu1
I0428 19:47:27.288743 26193 net.cpp:86] Creating Layer relu1
I0428 19:47:27.288749 26193 net.cpp:408] relu1 <- ip1
I0428 19:47:27.288760 26193 net.cpp:369] relu1 -> ip1 (in-place)
I0428 19:47:27.288964 26193 net.cpp:124] Setting up relu1
I0428 19:47:27.288980 26193 net.cpp:131] Top shape: 100 25 (2500)
I0428 19:47:27.288990 26193 net.cpp:139] Memory required for data: 1838800
I0428 19:47:27.288995 26193 layer_factory.hpp:77] Creating layer ip2
I0428 19:47:27.289012 26193 net.cpp:86] Creating Layer ip2
I0428 19:47:27.289022 26193 net.cpp:408] ip2 <- ip1
I0428 19:47:27.289034 26193 net.cpp:382] ip2 -> ip2
I0428 19:47:27.289156 26193 net.cpp:124] Setting up ip2
I0428 19:47:27.289168 26193 net.cpp:131] Top shape: 100 10 (1000)
I0428 19:47:27.289177 26193 net.cpp:139] Memory required for data: 1842800
I0428 19:47:27.289188 26193 layer_factory.hpp:77] Creating layer relu2
I0428 19:47:27.289199 26193 net.cpp:86] Creating Layer relu2
I0428 19:47:27.289206 26193 net.cpp:408] relu2 <- ip2
I0428 19:47:27.289221 26193 net.cpp:369] relu2 -> ip2 (in-place)
I0428 19:47:27.289512 26193 net.cpp:124] Setting up relu2
I0428 19:47:27.289527 26193 net.cpp:131] Top shape: 100 10 (1000)
I0428 19:47:27.289533 26193 net.cpp:139] Memory required for data: 1846800
I0428 19:47:27.289539 26193 layer_factory.hpp:77] Creating layer ip2_relu2_0_split
I0428 19:47:27.289548 26193 net.cpp:86] Creating Layer ip2_relu2_0_split
I0428 19:47:27.289556 26193 net.cpp:408] ip2_relu2_0_split <- ip2
I0428 19:47:27.289566 26193 net.cpp:382] ip2_relu2_0_split -> ip2_relu2_0_split_0
I0428 19:47:27.289590 26193 net.cpp:382] ip2_relu2_0_split -> ip2_relu2_0_split_1
I0428 19:47:27.289644 26193 net.cpp:124] Setting up ip2_relu2_0_split
I0428 19:47:27.289652 26193 net.cpp:131] Top shape: 100 10 (1000)
I0428 19:47:27.289660 26193 net.cpp:131] Top shape: 100 10 (1000)
I0428 19:47:27.289665 26193 net.cpp:139] Memory required for data: 1854800
I0428 19:47:27.289675 26193 layer_factory.hpp:77] Creating layer accuracy
I0428 19:47:27.289685 26193 net.cpp:86] Creating Layer accuracy
I0428 19:47:27.289692 26193 net.cpp:408] accuracy <- ip2_relu2_0_split_0
I0428 19:47:27.289700 26193 net.cpp:408] accuracy <- label_mnist_1_split_0
I0428 19:47:27.289710 26193 net.cpp:382] accuracy -> accuracy
…
