…
I0428 19:41:17.659291 24788 net.cpp:296] The NetState phase (0) differed from the phase (1) specified by a rule in layer mnist
I0428 19:41:17.659322 24788 net.cpp:296] The NetState phase (0) differed from the phase (1) specified by a rule in layer accuracy
I0428 19:41:17.659395 24788 net.cpp:53] Initializing net from parameters: 
name: "LeNet"
state {
  phase: TRAIN
  level: 0
  stage: ""
}
layer {
  name: "mnist"
  type: "Data"
  top: "data"
  top: "label"
  include {
    phase: TRAIN
  }
  transform_param {
    scale: 0.00390625
  }
  data_param {
    source: "examples/mnist/mnist_train_lmdb"
    batch_size: 64
    backend: LMDB
  }
}
layer {
  name: "conv0"
  type: "Convolution"
  bottom: "data"
  top: "conv0"
  param {
    lr_mult: 1
  }
  param {
    lr_mult: 2
  }
  convolution_param {
    num_output: 2
    kernel_size: 5
    stride: 1
    weight_filler {
      type: "xavier"
    }
    bias_filler {
      type: "constant"
    }
  }
}
layer {
  name: "pool0"
  type: "Pooling"
  bottom: "conv0"
  top: "pool0"
  pooling_param {
    pool: MAX
    kernel_size: 2
    stride: 2
  }
}
layer {
  name: "conv1"
  type: "Convolution"
  bottom: "pool0"
  top: "conv1"
  param {
    lr_mult: 1
  }
  param {
    lr_mult: 2
  }
  convolution_param {
    num_output: 10
    kernel_size: 5
    stride: 1
    weight_filler {
      type: "xavier"
    }
    bias_filler {
      type: "constant"
    }
  }
}
layer {
  name: "pool1"
  type: "Pooling"
  bottom: "conv1"
  top: "pool1"
  pooling_param {
    pool: MAX
    kernel_size: 2
    stride: 2
  }
}
layer {
  name: "ip1"
  type: "InnerProduct"
  bottom: "pool1"
  top: "ip1"
  param {
    lr_mult: 1
  }
  param {
    lr_mult: 2
  }
  inner_product_param {
    num_output: 50
    weight_filler {
      type: "xavier"
    }
    bias_filler {
      type: "constant"
    }
  }
}
layer {
  name: "relu1"
  type: "ReLU"
  bottom: "ip1"
  top: "ip1"
}
layer {
  name: "ip2"
  type: "InnerProduct"
  bottom: "ip1"
  top: "ip2"
  param {
    lr_mult: 1
  }
  param {
    lr_mult: 2
  }
  inner_product_param {
    num_output: 10
    weight_filler {
      type: "xavier"
    }
    bias_filler {
      type: "constant"
    }
  }
}
layer {
  name: "relu2"
  type: "ReLU"
  bottom: "ip2"
  top: "ip2"
}
layer {
  name: "loss"
  type: "SoftmaxWithLoss"
  bottom: "ip2"
  bottom: "label"
  top: "loss"
}
I0428 19:41:17.659456 24788 layer_factory.hpp:77] Creating layer mnist
I0428 19:41:17.659538 24788 db_lmdb.cpp:35] Opened lmdb examples/mnist/mnist_train_lmdb
I0428 19:41:17.659571 24788 net.cpp:86] Creating Layer mnist
I0428 19:41:17.659577 24788 net.cpp:382] mnist -> data
I0428 19:41:17.659596 24788 net.cpp:382] mnist -> label
I0428 19:41:17.660594 24788 data_layer.cpp:45] output data size: 64,1,28,28
I0428 19:41:17.662870 24788 net.cpp:124] Setting up mnist
I0428 19:41:17.662901 24788 net.cpp:131] Top shape: 64 1 28 28 (50176)
I0428 19:41:17.662919 24788 net.cpp:131] Top shape: 64 (64)
I0428 19:41:17.662920 24788 net.cpp:139] Memory required for data: 200960
I0428 19:41:17.662926 24788 layer_factory.hpp:77] Creating layer conv0
I0428 19:41:17.662940 24788 net.cpp:86] Creating Layer conv0
I0428 19:41:17.662943 24788 net.cpp:408] conv0 <- data
I0428 19:41:17.662955 24788 net.cpp:382] conv0 -> conv0
I0428 19:41:17.896173 24788 net.cpp:124] Setting up conv0
I0428 19:41:17.896215 24788 net.cpp:131] Top shape: 64 2 24 24 (73728)
I0428 19:41:17.896219 24788 net.cpp:139] Memory required for data: 495872
I0428 19:41:17.896268 24788 layer_factory.hpp:77] Creating layer pool0
I0428 19:41:17.896281 24788 net.cpp:86] Creating Layer pool0
I0428 19:41:17.896294 24788 net.cpp:408] pool0 <- conv0
I0428 19:41:17.896301 24788 net.cpp:382] pool0 -> pool0
I0428 19:41:17.896350 24788 net.cpp:124] Setting up pool0
I0428 19:41:17.896358 24788 net.cpp:131] Top shape: 64 2 12 12 (18432)
I0428 19:41:17.896360 24788 net.cpp:139] Memory required for data: 569600
I0428 19:41:17.896363 24788 layer_factory.hpp:77] Creating layer conv1
I0428 19:41:17.896374 24788 net.cpp:86] Creating Layer conv1
I0428 19:41:17.896380 24788 net.cpp:408] conv1 <- pool0
I0428 19:41:17.896385 24788 net.cpp:382] conv1 -> conv1
I0428 19:41:17.898360 24788 net.cpp:124] Setting up conv1
I0428 19:41:17.898391 24788 net.cpp:131] Top shape: 64 10 8 8 (40960)
I0428 19:41:17.898396 24788 net.cpp:139] Memory required for data: 733440
I0428 19:41:17.898404 24788 layer_factory.hpp:77] Creating layer pool1
I0428 19:41:17.898412 24788 net.cpp:86] Creating Layer pool1
I0428 19:41:17.898416 24788 net.cpp:408] pool1 <- conv1
I0428 19:41:17.898421 24788 net.cpp:382] pool1 -> pool1
I0428 19:41:17.898460 24788 net.cpp:124] Setting up pool1
I0428 19:41:17.898468 24788 net.cpp:131] Top shape: 64 10 4 4 (10240)
I0428 19:41:17.898470 24788 net.cpp:139] Memory required for data: 774400
I0428 19:41:17.898473 24788 layer_factory.hpp:77] Creating layer ip1
I0428 19:41:17.898499 24788 net.cpp:86] Creating Layer ip1
I0428 19:41:17.898504 24788 net.cpp:408] ip1 <- pool1
I0428 19:41:17.898510 24788 net.cpp:382] ip1 -> ip1
I0428 19:41:17.899529 24788 net.cpp:124] Setting up ip1
I0428 19:41:17.899541 24788 net.cpp:131] Top shape: 64 50 (3200)
I0428 19:41:17.899561 24788 net.cpp:139] Memory required for data: 787200
I0428 19:41:17.899586 24788 layer_factory.hpp:77] Creating layer relu1
I0428 19:41:17.899593 24788 net.cpp:86] Creating Layer relu1
I0428 19:41:17.899596 24788 net.cpp:408] relu1 <- ip1
I0428 19:41:17.899602 24788 net.cpp:369] relu1 -> ip1 (in-place)
I0428 19:41:17.899786 24788 net.cpp:124] Setting up relu1
I0428 19:41:17.899796 24788 net.cpp:131] Top shape: 64 50 (3200)
I0428 19:41:17.899798 24788 net.cpp:139] Memory required for data: 800000
I0428 19:41:17.899802 24788 layer_factory.hpp:77] Creating layer ip2
I0428 19:41:17.899809 24788 net.cpp:86] Creating Layer ip2
I0428 19:41:17.899812 24788 net.cpp:408] ip2 <- ip1
I0428 19:41:17.899819 24788 net.cpp:382] ip2 -> ip2
I0428 19:41:17.899924 24788 net.cpp:124] Setting up ip2
I0428 19:41:17.899932 24788 net.cpp:131] Top shape: 64 10 (640)
I0428 19:41:17.899935 24788 net.cpp:139] Memory required for data: 802560
I0428 19:41:17.899940 24788 layer_factory.hpp:77] Creating layer relu2
I0428 19:41:17.899946 24788 net.cpp:86] Creating Layer relu2
I0428 19:41:17.899950 24788 net.cpp:408] relu2 <- ip2
I0428 19:41:17.899955 24788 net.cpp:369] relu2 -> ip2 (in-place)
I0428 19:41:17.900722 24788 net.cpp:124] Setting up relu2
I0428 19:41:17.900734 24788 net.cpp:131] Top shape: 64 10 (640)
I0428 19:41:17.900754 24788 net.cpp:139] Memory required for data: 805120
I0428 19:41:17.900758 24788 layer_factory.hpp:77] Creating layer loss
I0428 19:41:17.900765 24788 net.cpp:86] Creating Layer loss
I0428 19:41:17.900768 24788 net.cpp:408] loss <- ip2
I0428 19:41:17.900773 24788 net.cpp:408] loss <- label
I0428 19:41:17.900779 24788 net.cpp:382] loss -> loss
I0428 19:41:17.900799 24788 layer_factory.hpp:77] Creating layer loss
…
I0428 19:41:17.901535 24788 solver.cpp:173] Creating test net (#0) specified by net file: ECE595/mnist/train_test/var_everything2/lenet_train_test360.prototxt
I0428 19:41:17.901559 24788 net.cpp:296] The NetState phase (1) differed from the phase (0) specified by a rule in layer mnist
I0428 19:41:17.901645 24788 net.cpp:53] Initializing net from parameters: 
name: "LeNet"
state {
  phase: TEST
}
layer {
  name: "mnist"
  type: "Data"
  top: "data"
  top: "label"
  include {
    phase: TEST
  }
  transform_param {
    scale: 0.00390625
  }
  data_param {
    source: "examples/mnist/mnist_test_lmdb"
    batch_size: 100
    backend: LMDB
  }
}
layer {
  name: "conv0"
  type: "Convolution"
  bottom: "data"
  top: "conv0"
  param {
    lr_mult: 1
  }
  param {
    lr_mult: 2
  }
  convolution_param {
    num_output: 2
    kernel_size: 5
    stride: 1
    weight_filler {
      type: "xavier"
    }
    bias_filler {
      type: "constant"
    }
  }
}
layer {
  name: "pool0"
  type: "Pooling"
  bottom: "conv0"
  top: "pool0"
  pooling_param {
    pool: MAX
    kernel_size: 2
    stride: 2
  }
}
layer {
  name: "conv1"
  type: "Convolution"
  bottom: "pool0"
  top: "conv1"
  param {
    lr_mult: 1
  }
  param {
    lr_mult: 2
  }
  convolution_param {
    num_output: 10
    kernel_size: 5
    stride: 1
    weight_filler {
      type: "xavier"
    }
    bias_filler {
      type: "constant"
    }
  }
}
layer {
  name: "pool1"
  type: "Pooling"
  bottom: "conv1"
  top: "pool1"
  pooling_param {
    pool: MAX
    kernel_size: 2
    stride: 2
  }
}
layer {
  name: "ip1"
  type: "InnerProduct"
  bottom: "pool1"
  top: "ip1"
  param {
    lr_mult: 1
  }
  param {
    lr_mult: 2
  }
  inner_product_param {
    num_output: 50
    weight_filler {
      type: "xavier"
    }
    bias_filler {
      type: "constant"
    }
  }
}
layer {
  name: "relu1"
  type: "ReLU"
  bottom: "ip1"
  top: "ip1"
}
layer {
  name: "ip2"
  type: "InnerProduct"
  bottom: "ip1"
  top: "ip2"
  param {
    lr_mult: 1
  }
  param {
    lr_mult: 2
  }
  inner_product_param {
    num_output: 10
    weight_filler {
      type: "xavier"
    }
    bias_filler {
      type: "constant"
    }
  }
}
layer {
  name: "relu2"
  type: "ReLU"
  bottom: "ip2"
  top: "ip2"
}
layer {
  name: "accuracy"
  type: "Accuracy"
  bottom: "ip2"
  bottom: "label"
  top: "accuracy"
  include {
    phase: TEST
  }
}
layer {
  name: "loss"
  type: "SoftmaxWithLoss"
  bottom: "ip2"
  bottom: "label"
  top: "loss"
}
I0428 19:41:17.901710 24788 layer_factory.hpp:77] Creating layer mnist
I0428 19:41:17.901768 24788 db_lmdb.cpp:35] Opened lmdb examples/mnist/mnist_test_lmdb
I0428 19:41:17.901779 24788 net.cpp:86] Creating Layer mnist
I0428 19:41:17.901784 24788 net.cpp:382] mnist -> data
I0428 19:41:17.901792 24788 net.cpp:382] mnist -> label
I0428 19:41:17.901882 24788 data_layer.cpp:45] output data size: 100,1,28,28
I0428 19:41:17.904032 24788 net.cpp:124] Setting up mnist
I0428 19:41:17.904045 24788 net.cpp:131] Top shape: 100 1 28 28 (78400)
I0428 19:41:17.904049 24788 net.cpp:131] Top shape: 100 (100)
I0428 19:41:17.904052 24788 net.cpp:139] Memory required for data: 314000
I0428 19:41:17.904055 24788 layer_factory.hpp:77] Creating layer label_mnist_1_split
I0428 19:41:17.904090 24788 net.cpp:86] Creating Layer label_mnist_1_split
I0428 19:41:17.904094 24788 net.cpp:408] label_mnist_1_split <- label
I0428 19:41:17.904114 24788 net.cpp:382] label_mnist_1_split -> label_mnist_1_split_0
I0428 19:41:17.904120 24788 net.cpp:382] label_mnist_1_split -> label_mnist_1_split_1
I0428 19:41:17.904158 24788 net.cpp:124] Setting up label_mnist_1_split
I0428 19:41:17.904175 24788 net.cpp:131] Top shape: 100 (100)
I0428 19:41:17.904180 24788 net.cpp:131] Top shape: 100 (100)
I0428 19:41:17.904182 24788 net.cpp:139] Memory required for data: 314800
I0428 19:41:17.904184 24788 layer_factory.hpp:77] Creating layer conv0
I0428 19:41:17.904193 24788 net.cpp:86] Creating Layer conv0
I0428 19:41:17.904196 24788 net.cpp:408] conv0 <- data
I0428 19:41:17.904201 24788 net.cpp:382] conv0 -> conv0
I0428 19:41:17.905807 24788 net.cpp:124] Setting up conv0
I0428 19:41:17.905820 24788 net.cpp:131] Top shape: 100 2 24 24 (115200)
I0428 19:41:17.905824 24788 net.cpp:139] Memory required for data: 775600
I0428 19:41:17.905833 24788 layer_factory.hpp:77] Creating layer pool0
I0428 19:41:17.905838 24788 net.cpp:86] Creating Layer pool0
I0428 19:41:17.905841 24788 net.cpp:408] pool0 <- conv0
I0428 19:41:17.905846 24788 net.cpp:382] pool0 -> pool0
I0428 19:41:17.905880 24788 net.cpp:124] Setting up pool0
I0428 19:41:17.905884 24788 net.cpp:131] Top shape: 100 2 12 12 (28800)
I0428 19:41:17.905887 24788 net.cpp:139] Memory required for data: 890800
I0428 19:41:17.905890 24788 layer_factory.hpp:77] Creating layer conv1
I0428 19:41:17.905900 24788 net.cpp:86] Creating Layer conv1
I0428 19:41:17.905903 24788 net.cpp:408] conv1 <- pool0
I0428 19:41:17.905908 24788 net.cpp:382] conv1 -> conv1
I0428 19:41:17.907491 24788 net.cpp:124] Setting up conv1
I0428 19:41:17.907503 24788 net.cpp:131] Top shape: 100 10 8 8 (64000)
I0428 19:41:17.907513 24788 net.cpp:139] Memory required for data: 1146800
I0428 19:41:17.907521 24788 layer_factory.hpp:77] Creating layer pool1
I0428 19:41:17.907529 24788 net.cpp:86] Creating Layer pool1
I0428 19:41:17.907533 24788 net.cpp:408] pool1 <- conv1
I0428 19:41:17.907544 24788 net.cpp:382] pool1 -> pool1
I0428 19:41:17.907593 24788 net.cpp:124] Setting up pool1
I0428 19:41:17.907598 24788 net.cpp:131] Top shape: 100 10 4 4 (16000)
I0428 19:41:17.907601 24788 net.cpp:139] Memory required for data: 1210800
I0428 19:41:17.907604 24788 layer_factory.hpp:77] Creating layer ip1
I0428 19:41:17.907610 24788 net.cpp:86] Creating Layer ip1
I0428 19:41:17.907613 24788 net.cpp:408] ip1 <- pool1
I0428 19:41:17.907619 24788 net.cpp:382] ip1 -> ip1
I0428 19:41:17.907788 24788 net.cpp:124] Setting up ip1
I0428 19:41:17.907795 24788 net.cpp:131] Top shape: 100 50 (5000)
I0428 19:41:17.907799 24788 net.cpp:139] Memory required for data: 1230800
I0428 19:41:17.907806 24788 layer_factory.hpp:77] Creating layer relu1
I0428 19:41:17.907812 24788 net.cpp:86] Creating Layer relu1
I0428 19:41:17.907816 24788 net.cpp:408] relu1 <- ip1
I0428 19:41:17.907821 24788 net.cpp:369] relu1 -> ip1 (in-place)
I0428 19:41:17.907992 24788 net.cpp:124] Setting up relu1
I0428 19:41:17.908000 24788 net.cpp:131] Top shape: 100 50 (5000)
I0428 19:41:17.908004 24788 net.cpp:139] Memory required for data: 1250800
I0428 19:41:17.908006 24788 layer_factory.hpp:77] Creating layer ip2
I0428 19:41:17.908015 24788 net.cpp:86] Creating Layer ip2
I0428 19:41:17.908017 24788 net.cpp:408] ip2 <- ip1
I0428 19:41:17.908022 24788 net.cpp:382] ip2 -> ip2
I0428 19:41:17.908119 24788 net.cpp:124] Setting up ip2
I0428 19:41:17.908126 24788 net.cpp:131] Top shape: 100 10 (1000)
I0428 19:41:17.908129 24788 net.cpp:139] Memory required for data: 1254800
I0428 19:41:17.908134 24788 layer_factory.hpp:77] Creating layer relu2
I0428 19:41:17.908138 24788 net.cpp:86] Creating Layer relu2
I0428 19:41:17.908141 24788 net.cpp:408] relu2 <- ip2
I0428 19:41:17.908146 24788 net.cpp:369] relu2 -> ip2 (in-place)
I0428 19:41:17.908316 24788 net.cpp:124] Setting up relu2
I0428 19:41:17.908324 24788 net.cpp:131] Top shape: 100 10 (1000)
I0428 19:41:17.908327 24788 net.cpp:139] Memory required for data: 1258800
I0428 19:41:17.908330 24788 layer_factory.hpp:77] Creating layer ip2_relu2_0_split
I0428 19:41:17.908336 24788 net.cpp:86] Creating Layer ip2_relu2_0_split
I0428 19:41:17.908339 24788 net.cpp:408] ip2_relu2_0_split <- ip2
I0428 19:41:17.908344 24788 net.cpp:382] ip2_relu2_0_split -> ip2_relu2_0_split_0
I0428 19:41:17.908359 24788 net.cpp:382] ip2_relu2_0_split -> ip2_relu2_0_split_1
I0428 19:41:17.908396 24788 net.cpp:124] Setting up ip2_relu2_0_split
I0428 19:41:17.908401 24788 net.cpp:131] Top shape: 100 10 (1000)
I0428 19:41:17.908406 24788 net.cpp:131] Top shape: 100 10 (1000)
I0428 19:41:17.908407 24788 net.cpp:139] Memory required for data: 1266800
I0428 19:41:17.908411 24788 layer_factory.hpp:77] Creating layer accuracy
I0428 19:41:17.908416 24788 net.cpp:86] Creating Layer accuracy
I0428 19:41:17.908418 24788 net.cpp:408] accuracy <- ip2_relu2_0_split_0
I0428 19:41:17.908423 24788 net.cpp:408] accuracy <- label_mnist_1_split_0
I0428 19:41:17.908428 24788 net.cpp:382] accuracy -> accuracy
…
