…
I0428 19:57:25.634539 28675 net.cpp:296] The NetState phase (0) differed from the phase (1) specified by a rule in layer mnist
I0428 19:57:25.634553 28675 net.cpp:296] The NetState phase (0) differed from the phase (1) specified by a rule in layer accuracy
I0428 19:57:25.634637 28675 net.cpp:53] Initializing net from parameters: 
name: "LeNet"
state {
  phase: TRAIN
  level: 0
  stage: ""
}
layer {
  name: "mnist"
  type: "Data"
  top: "data"
  top: "label"
  include {
    phase: TRAIN
  }
  transform_param {
    scale: 0.00390625
  }
  data_param {
    source: "examples/mnist/mnist_train_lmdb"
    batch_size: 64
    backend: LMDB
  }
}
layer {
  name: "conv0"
  type: "Convolution"
  bottom: "data"
  top: "conv0"
  param {
    lr_mult: 1
  }
  param {
    lr_mult: 2
  }
  convolution_param {
    num_output: 10
    kernel_size: 5
    stride: 1
    weight_filler {
      type: "xavier"
    }
    bias_filler {
      type: "constant"
    }
  }
}
layer {
  name: "pool0"
  type: "Pooling"
  bottom: "conv0"
  top: "pool0"
  pooling_param {
    pool: MAX
    kernel_size: 2
    stride: 2
  }
}
layer {
  name: "conv1"
  type: "Convolution"
  bottom: "pool0"
  top: "conv1"
  param {
    lr_mult: 1
  }
  param {
    lr_mult: 2
  }
  convolution_param {
    num_output: 5
    kernel_size: 5
    stride: 1
    weight_filler {
      type: "xavier"
    }
    bias_filler {
      type: "constant"
    }
  }
}
layer {
  name: "pool1"
  type: "Pooling"
  bottom: "conv1"
  top: "pool1"
  pooling_param {
    pool: MAX
    kernel_size: 2
    stride: 2
  }
}
layer {
  name: "ip1"
  type: "InnerProduct"
  bottom: "pool1"
  top: "ip1"
  param {
    lr_mult: 1
  }
  param {
    lr_mult: 2
  }
  inner_product_param {
    num_output: 25
    weight_filler {
      type: "xavier"
    }
    bias_filler {
      type: "constant"
    }
  }
}
layer {
  name: "relu1"
  type: "ReLU"
  bottom: "ip1"
  top: "ip1"
}
layer {
  name: "ip2"
  type: "InnerProduct"
  bottom: "ip1"
  top: "ip2"
  param {
    lr_mult: 1
  }
  param {
    lr_mult: 2
  }
  inner_product_param {
    num_output: 10
    weight_filler {
      type: "xavier"
    }
    bias_filler {
      type: "constant"
    }
  }
}
layer {
  name: "relu2"
  type: "ReLU"
  bottom: "ip2"
  top: "ip2"
}
layer {
  name: "loss"
  type: "SoftmaxWithLoss"
  bottom: "ip2"
  bottom: "label"
  top: "loss"
}
I0428 19:57:25.634696 28675 layer_factory.hpp:77] Creating layer mnist
I0428 19:57:25.634775 28675 db_lmdb.cpp:35] Opened lmdb examples/mnist/mnist_train_lmdb
I0428 19:57:25.634798 28675 net.cpp:86] Creating Layer mnist
I0428 19:57:25.634804 28675 net.cpp:382] mnist -> data
I0428 19:57:25.634822 28675 net.cpp:382] mnist -> label
I0428 19:57:25.635895 28675 data_layer.cpp:45] output data size: 64,1,28,28
I0428 19:57:25.638171 28675 net.cpp:124] Setting up mnist
I0428 19:57:25.638217 28675 net.cpp:131] Top shape: 64 1 28 28 (50176)
I0428 19:57:25.638222 28675 net.cpp:131] Top shape: 64 (64)
I0428 19:57:25.638226 28675 net.cpp:139] Memory required for data: 200960
I0428 19:57:25.638231 28675 layer_factory.hpp:77] Creating layer conv0
I0428 19:57:25.638245 28675 net.cpp:86] Creating Layer conv0
I0428 19:57:25.638250 28675 net.cpp:408] conv0 <- data
I0428 19:57:25.638259 28675 net.cpp:382] conv0 -> conv0
I0428 19:57:25.870496 28675 net.cpp:124] Setting up conv0
I0428 19:57:25.870537 28675 net.cpp:131] Top shape: 64 10 24 24 (368640)
I0428 19:57:25.870542 28675 net.cpp:139] Memory required for data: 1675520
I0428 19:57:25.870591 28675 layer_factory.hpp:77] Creating layer pool0
I0428 19:57:25.870604 28675 net.cpp:86] Creating Layer pool0
I0428 19:57:25.870609 28675 net.cpp:408] pool0 <- conv0
I0428 19:57:25.870615 28675 net.cpp:382] pool0 -> pool0
I0428 19:57:25.870676 28675 net.cpp:124] Setting up pool0
I0428 19:57:25.870698 28675 net.cpp:131] Top shape: 64 10 12 12 (92160)
I0428 19:57:25.870700 28675 net.cpp:139] Memory required for data: 2044160
I0428 19:57:25.870703 28675 layer_factory.hpp:77] Creating layer conv1
I0428 19:57:25.870714 28675 net.cpp:86] Creating Layer conv1
I0428 19:57:25.870718 28675 net.cpp:408] conv1 <- pool0
I0428 19:57:25.870723 28675 net.cpp:382] conv1 -> conv1
I0428 19:57:25.873447 28675 net.cpp:124] Setting up conv1
I0428 19:57:25.873478 28675 net.cpp:131] Top shape: 64 5 8 8 (20480)
I0428 19:57:25.873482 28675 net.cpp:139] Memory required for data: 2126080
I0428 19:57:25.873491 28675 layer_factory.hpp:77] Creating layer pool1
I0428 19:57:25.873498 28675 net.cpp:86] Creating Layer pool1
I0428 19:57:25.873502 28675 net.cpp:408] pool1 <- conv1
I0428 19:57:25.873507 28675 net.cpp:382] pool1 -> pool1
I0428 19:57:25.873541 28675 net.cpp:124] Setting up pool1
I0428 19:57:25.873553 28675 net.cpp:131] Top shape: 64 5 4 4 (5120)
I0428 19:57:25.873555 28675 net.cpp:139] Memory required for data: 2146560
I0428 19:57:25.873558 28675 layer_factory.hpp:77] Creating layer ip1
I0428 19:57:25.873565 28675 net.cpp:86] Creating Layer ip1
I0428 19:57:25.873569 28675 net.cpp:408] ip1 <- pool1
I0428 19:57:25.873572 28675 net.cpp:382] ip1 -> ip1
I0428 19:57:25.873682 28675 net.cpp:124] Setting up ip1
I0428 19:57:25.873688 28675 net.cpp:131] Top shape: 64 25 (1600)
I0428 19:57:25.873692 28675 net.cpp:139] Memory required for data: 2152960
I0428 19:57:25.873698 28675 layer_factory.hpp:77] Creating layer relu1
I0428 19:57:25.873703 28675 net.cpp:86] Creating Layer relu1
I0428 19:57:25.873708 28675 net.cpp:408] relu1 <- ip1
I0428 19:57:25.873711 28675 net.cpp:369] relu1 -> ip1 (in-place)
I0428 19:57:25.873880 28675 net.cpp:124] Setting up relu1
I0428 19:57:25.873889 28675 net.cpp:131] Top shape: 64 25 (1600)
I0428 19:57:25.873891 28675 net.cpp:139] Memory required for data: 2159360
I0428 19:57:25.873894 28675 layer_factory.hpp:77] Creating layer ip2
I0428 19:57:25.873900 28675 net.cpp:86] Creating Layer ip2
I0428 19:57:25.873903 28675 net.cpp:408] ip2 <- ip1
I0428 19:57:25.873908 28675 net.cpp:382] ip2 -> ip2
I0428 19:57:25.873993 28675 net.cpp:124] Setting up ip2
I0428 19:57:25.874001 28675 net.cpp:131] Top shape: 64 10 (640)
I0428 19:57:25.874003 28675 net.cpp:139] Memory required for data: 2161920
I0428 19:57:25.874008 28675 layer_factory.hpp:77] Creating layer relu2
I0428 19:57:25.874013 28675 net.cpp:86] Creating Layer relu2
I0428 19:57:25.874017 28675 net.cpp:408] relu2 <- ip2
I0428 19:57:25.874020 28675 net.cpp:369] relu2 -> ip2 (in-place)
I0428 19:57:25.874706 28675 net.cpp:124] Setting up relu2
I0428 19:57:25.874732 28675 net.cpp:131] Top shape: 64 10 (640)
I0428 19:57:25.874735 28675 net.cpp:139] Memory required for data: 2164480
I0428 19:57:25.874739 28675 layer_factory.hpp:77] Creating layer loss
I0428 19:57:25.874760 28675 net.cpp:86] Creating Layer loss
I0428 19:57:25.874764 28675 net.cpp:408] loss <- ip2
I0428 19:57:25.874769 28675 net.cpp:408] loss <- label
I0428 19:57:25.874774 28675 net.cpp:382] loss -> loss
I0428 19:57:25.874794 28675 layer_factory.hpp:77] Creating layer loss
…
I0428 19:57:25.875519 28675 solver.cpp:173] Creating test net (#0) specified by net file: ECE595/mnist/train_test/var_everything2/lenet_train_test788.prototxt
I0428 19:57:25.875560 28675 net.cpp:296] The NetState phase (1) differed from the phase (0) specified by a rule in layer mnist
I0428 19:57:25.875638 28675 net.cpp:53] Initializing net from parameters: 
name: "LeNet"
state {
  phase: TEST
}
layer {
  name: "mnist"
  type: "Data"
  top: "data"
  top: "label"
  include {
    phase: TEST
  }
  transform_param {
    scale: 0.00390625
  }
  data_param {
    source: "examples/mnist/mnist_test_lmdb"
    batch_size: 100
    backend: LMDB
  }
}
layer {
  name: "conv0"
  type: "Convolution"
  bottom: "data"
  top: "conv0"
  param {
    lr_mult: 1
  }
  param {
    lr_mult: 2
  }
  convolution_param {
    num_output: 10
    kernel_size: 5
    stride: 1
    weight_filler {
      type: "xavier"
    }
    bias_filler {
      type: "constant"
    }
  }
}
layer {
  name: "pool0"
  type: "Pooling"
  bottom: "conv0"
  top: "pool0"
  pooling_param {
    pool: MAX
    kernel_size: 2
    stride: 2
  }
}
layer {
  name: "conv1"
  type: "Convolution"
  bottom: "pool0"
  top: "conv1"
  param {
    lr_mult: 1
  }
  param {
    lr_mult: 2
  }
  convolution_param {
    num_output: 5
    kernel_size: 5
    stride: 1
    weight_filler {
      type: "xavier"
    }
    bias_filler {
      type: "constant"
    }
  }
}
layer {
  name: "pool1"
  type: "Pooling"
  bottom: "conv1"
  top: "pool1"
  pooling_param {
    pool: MAX
    kernel_size: 2
    stride: 2
  }
}
layer {
  name: "ip1"
  type: "InnerProduct"
  bottom: "pool1"
  top: "ip1"
  param {
    lr_mult: 1
  }
  param {
    lr_mult: 2
  }
  inner_product_param {
    num_output: 25
    weight_filler {
      type: "xavier"
    }
    bias_filler {
      type: "constant"
    }
  }
}
layer {
  name: "relu1"
  type: "ReLU"
  bottom: "ip1"
  top: "ip1"
}
layer {
  name: "ip2"
  type: "InnerProduct"
  bottom: "ip1"
  top: "ip2"
  param {
    lr_mult: 1
  }
  param {
    lr_mult: 2
  }
  inner_product_param {
    num_output: 10
    weight_filler {
      type: "xavier"
    }
    bias_filler {
      type: "constant"
    }
  }
}
layer {
  name: "relu2"
  type: "ReLU"
  bottom: "ip2"
  top: "ip2"
}
layer {
  name: "accuracy"
  type: "Accuracy"
  bottom: "ip2"
  bottom: "label"
  top: "accuracy"
  include {
    phase: TEST
  }
}
layer {
  name: "loss"
  type: "SoftmaxWithLoss"
  bottom: "ip2"
  bottom: "label"
  top: "loss"
}
I0428 19:57:25.875697 28675 layer_factory.hpp:77] Creating layer mnist
I0428 19:57:25.875741 28675 db_lmdb.cpp:35] Opened lmdb examples/mnist/mnist_test_lmdb
I0428 19:57:25.875753 28675 net.cpp:86] Creating Layer mnist
I0428 19:57:25.875758 28675 net.cpp:382] mnist -> data
I0428 19:57:25.875766 28675 net.cpp:382] mnist -> label
I0428 19:57:25.875877 28675 data_layer.cpp:45] output data size: 100,1,28,28
I0428 19:57:25.878173 28675 net.cpp:124] Setting up mnist
I0428 19:57:25.878186 28675 net.cpp:131] Top shape: 100 1 28 28 (78400)
I0428 19:57:25.878208 28675 net.cpp:131] Top shape: 100 (100)
I0428 19:57:25.878211 28675 net.cpp:139] Memory required for data: 314000
I0428 19:57:25.878216 28675 layer_factory.hpp:77] Creating layer label_mnist_1_split
I0428 19:57:25.878221 28675 net.cpp:86] Creating Layer label_mnist_1_split
I0428 19:57:25.878226 28675 net.cpp:408] label_mnist_1_split <- label
I0428 19:57:25.878231 28675 net.cpp:382] label_mnist_1_split -> label_mnist_1_split_0
I0428 19:57:25.878237 28675 net.cpp:382] label_mnist_1_split -> label_mnist_1_split_1
I0428 19:57:25.878322 28675 net.cpp:124] Setting up label_mnist_1_split
I0428 19:57:25.878340 28675 net.cpp:131] Top shape: 100 (100)
I0428 19:57:25.878345 28675 net.cpp:131] Top shape: 100 (100)
I0428 19:57:25.878346 28675 net.cpp:139] Memory required for data: 314800
I0428 19:57:25.878350 28675 layer_factory.hpp:77] Creating layer conv0
I0428 19:57:25.878358 28675 net.cpp:86] Creating Layer conv0
I0428 19:57:25.878361 28675 net.cpp:408] conv0 <- data
I0428 19:57:25.878366 28675 net.cpp:382] conv0 -> conv0
I0428 19:57:25.880054 28675 net.cpp:124] Setting up conv0
I0428 19:57:25.880084 28675 net.cpp:131] Top shape: 100 10 24 24 (576000)
I0428 19:57:25.880089 28675 net.cpp:139] Memory required for data: 2618800
I0428 19:57:25.880097 28675 layer_factory.hpp:77] Creating layer pool0
I0428 19:57:25.880105 28675 net.cpp:86] Creating Layer pool0
I0428 19:57:25.880108 28675 net.cpp:408] pool0 <- conv0
I0428 19:57:25.880112 28675 net.cpp:382] pool0 -> pool0
I0428 19:57:25.880149 28675 net.cpp:124] Setting up pool0
I0428 19:57:25.880156 28675 net.cpp:131] Top shape: 100 10 12 12 (144000)
I0428 19:57:25.880159 28675 net.cpp:139] Memory required for data: 3194800
I0428 19:57:25.880162 28675 layer_factory.hpp:77] Creating layer conv1
I0428 19:57:25.880172 28675 net.cpp:86] Creating Layer conv1
I0428 19:57:25.880174 28675 net.cpp:408] conv1 <- pool0
I0428 19:57:25.880182 28675 net.cpp:382] conv1 -> conv1
I0428 19:57:25.882371 28675 net.cpp:124] Setting up conv1
I0428 19:57:25.882400 28675 net.cpp:131] Top shape: 100 5 8 8 (32000)
I0428 19:57:25.882405 28675 net.cpp:139] Memory required for data: 3322800
I0428 19:57:25.882414 28675 layer_factory.hpp:77] Creating layer pool1
I0428 19:57:25.882421 28675 net.cpp:86] Creating Layer pool1
I0428 19:57:25.882424 28675 net.cpp:408] pool1 <- conv1
I0428 19:57:25.882446 28675 net.cpp:382] pool1 -> pool1
I0428 19:57:25.882488 28675 net.cpp:124] Setting up pool1
I0428 19:57:25.882495 28675 net.cpp:131] Top shape: 100 5 4 4 (8000)
I0428 19:57:25.882498 28675 net.cpp:139] Memory required for data: 3354800
I0428 19:57:25.882501 28675 layer_factory.hpp:77] Creating layer ip1
I0428 19:57:25.882506 28675 net.cpp:86] Creating Layer ip1
I0428 19:57:25.882517 28675 net.cpp:408] ip1 <- pool1
I0428 19:57:25.882524 28675 net.cpp:382] ip1 -> ip1
I0428 19:57:25.882664 28675 net.cpp:124] Setting up ip1
I0428 19:57:25.882673 28675 net.cpp:131] Top shape: 100 25 (2500)
I0428 19:57:25.882675 28675 net.cpp:139] Memory required for data: 3364800
I0428 19:57:25.882683 28675 layer_factory.hpp:77] Creating layer relu1
I0428 19:57:25.882689 28675 net.cpp:86] Creating Layer relu1
I0428 19:57:25.882692 28675 net.cpp:408] relu1 <- ip1
I0428 19:57:25.882696 28675 net.cpp:369] relu1 -> ip1 (in-place)
I0428 19:57:25.882906 28675 net.cpp:124] Setting up relu1
I0428 19:57:25.882928 28675 net.cpp:131] Top shape: 100 25 (2500)
I0428 19:57:25.882931 28675 net.cpp:139] Memory required for data: 3374800
I0428 19:57:25.882935 28675 layer_factory.hpp:77] Creating layer ip2
I0428 19:57:25.882942 28675 net.cpp:86] Creating Layer ip2
I0428 19:57:25.882946 28675 net.cpp:408] ip2 <- ip1
I0428 19:57:25.882952 28675 net.cpp:382] ip2 -> ip2
I0428 19:57:25.883074 28675 net.cpp:124] Setting up ip2
I0428 19:57:25.883081 28675 net.cpp:131] Top shape: 100 10 (1000)
I0428 19:57:25.883085 28675 net.cpp:139] Memory required for data: 3378800
I0428 19:57:25.883090 28675 layer_factory.hpp:77] Creating layer relu2
I0428 19:57:25.883096 28675 net.cpp:86] Creating Layer relu2
I0428 19:57:25.883100 28675 net.cpp:408] relu2 <- ip2
I0428 19:57:25.883105 28675 net.cpp:369] relu2 -> ip2 (in-place)
I0428 19:57:25.883268 28675 net.cpp:124] Setting up relu2
I0428 19:57:25.883276 28675 net.cpp:131] Top shape: 100 10 (1000)
I0428 19:57:25.883280 28675 net.cpp:139] Memory required for data: 3382800
I0428 19:57:25.883283 28675 layer_factory.hpp:77] Creating layer ip2_relu2_0_split
I0428 19:57:25.883291 28675 net.cpp:86] Creating Layer ip2_relu2_0_split
I0428 19:57:25.883293 28675 net.cpp:408] ip2_relu2_0_split <- ip2
I0428 19:57:25.883297 28675 net.cpp:382] ip2_relu2_0_split -> ip2_relu2_0_split_0
I0428 19:57:25.883314 28675 net.cpp:382] ip2_relu2_0_split -> ip2_relu2_0_split_1
I0428 19:57:25.883365 28675 net.cpp:124] Setting up ip2_relu2_0_split
I0428 19:57:25.883373 28675 net.cpp:131] Top shape: 100 10 (1000)
I0428 19:57:25.883376 28675 net.cpp:131] Top shape: 100 10 (1000)
I0428 19:57:25.883379 28675 net.cpp:139] Memory required for data: 3390800
I0428 19:57:25.883383 28675 layer_factory.hpp:77] Creating layer accuracy
I0428 19:57:25.883393 28675 net.cpp:86] Creating Layer accuracy
I0428 19:57:25.883396 28675 net.cpp:408] accuracy <- ip2_relu2_0_split_0
I0428 19:57:25.883399 28675 net.cpp:408] accuracy <- label_mnist_1_split_0
I0428 19:57:25.883404 28675 net.cpp:382] accuracy -> accuracy
…
