…
I0428 19:31:45.981626 22660 net.cpp:296] The NetState phase (0) differed from the phase (1) specified by a rule in layer mnist
I0428 19:31:45.981643 22660 net.cpp:296] The NetState phase (0) differed from the phase (1) specified by a rule in layer accuracy
I0428 19:31:45.981730 22660 net.cpp:53] Initializing net from parameters: 
name: "LeNet"
state {
  phase: TRAIN
  level: 0
  stage: ""
}
layer {
  name: "mnist"
  type: "Data"
  top: "data"
  top: "label"
  include {
    phase: TRAIN
  }
  transform_param {
    scale: 0.00390625
  }
  data_param {
    source: "examples/mnist/mnist_train_lmdb"
    batch_size: 64
    backend: LMDB
  }
}
layer {
  name: "conv0"
  type: "Convolution"
  bottom: "data"
  top: "conv0"
  param {
    lr_mult: 1
  }
  param {
    lr_mult: 2
  }
  convolution_param {
    num_output: 10
    kernel_size: 5
    stride: 1
    weight_filler {
      type: "xavier"
    }
    bias_filler {
      type: "constant"
    }
  }
}
layer {
  name: "pool0"
  type: "Pooling"
  bottom: "conv0"
  top: "pool0"
  pooling_param {
    pool: MAX
    kernel_size: 2
    stride: 2
  }
}
layer {
  name: "ip1"
  type: "InnerProduct"
  bottom: "pool0"
  top: "ip1"
  param {
    lr_mult: 1
  }
  param {
    lr_mult: 2
  }
  inner_product_param {
    num_output: 10
    weight_filler {
      type: "xavier"
    }
    bias_filler {
      type: "constant"
    }
  }
}
layer {
  name: "relu1"
  type: "ReLU"
  bottom: "ip1"
  top: "ip1"
}
layer {
  name: "ip2"
  type: "InnerProduct"
  bottom: "ip1"
  top: "ip2"
  param {
    lr_mult: 1
  }
  param {
    lr_mult: 2
  }
  inner_product_param {
    num_output: 25
    weight_filler {
      type: "xavier"
    }
    bias_filler {
      type: "constant"
    }
  }
}
layer {
  name: "relu2"
  type: "ReLU"
  bottom: "ip2"
  top: "ip2"
}
layer {
  name: "ip3"
  type: "InnerProduct"
  bottom: "ip2"
  top: "ip3"
  param {
    lr_mult: 1
  }
  param {
    lr_mult: 2
  }
  inner_product_param {
    num_output: 10
    weight_filler {
      type: "xavier"
    }
    bias_filler {
      type: "constant"
    }
  }
}
layer {
  name: "relu3"
  type: "ReLU"
  bottom: "ip3"
  top: "ip3"
}
layer {
  name: "loss"
  type: "SoftmaxWithLoss"
  bottom: "ip3"
  bottom: "label"
  top: "loss"
}
I0428 19:31:45.981804 22660 layer_factory.hpp:77] Creating layer mnist
I0428 19:31:45.981904 22660 db_lmdb.cpp:35] Opened lmdb examples/mnist/mnist_train_lmdb
I0428 19:31:45.981928 22660 net.cpp:86] Creating Layer mnist
I0428 19:31:45.981936 22660 net.cpp:382] mnist -> data
I0428 19:31:45.981958 22660 net.cpp:382] mnist -> label
I0428 19:31:45.983047 22660 data_layer.cpp:45] output data size: 64,1,28,28
I0428 19:31:45.985507 22660 net.cpp:124] Setting up mnist
I0428 19:31:45.985525 22660 net.cpp:131] Top shape: 64 1 28 28 (50176)
I0428 19:31:45.985533 22660 net.cpp:131] Top shape: 64 (64)
I0428 19:31:45.985538 22660 net.cpp:139] Memory required for data: 200960
I0428 19:31:45.985544 22660 layer_factory.hpp:77] Creating layer conv0
I0428 19:31:45.985559 22660 net.cpp:86] Creating Layer conv0
I0428 19:31:45.985565 22660 net.cpp:408] conv0 <- data
I0428 19:31:45.985579 22660 net.cpp:382] conv0 -> conv0
I0428 19:31:46.238823 22660 net.cpp:124] Setting up conv0
I0428 19:31:46.238855 22660 net.cpp:131] Top shape: 64 10 24 24 (368640)
I0428 19:31:46.238860 22660 net.cpp:139] Memory required for data: 1675520
I0428 19:31:46.238895 22660 layer_factory.hpp:77] Creating layer pool0
I0428 19:31:46.238911 22660 net.cpp:86] Creating Layer pool0
I0428 19:31:46.238935 22660 net.cpp:408] pool0 <- conv0
I0428 19:31:46.238943 22660 net.cpp:382] pool0 -> pool0
I0428 19:31:46.239001 22660 net.cpp:124] Setting up pool0
I0428 19:31:46.239011 22660 net.cpp:131] Top shape: 64 10 12 12 (92160)
I0428 19:31:46.239014 22660 net.cpp:139] Memory required for data: 2044160
I0428 19:31:46.239019 22660 layer_factory.hpp:77] Creating layer ip1
I0428 19:31:46.239029 22660 net.cpp:86] Creating Layer ip1
I0428 19:31:46.239033 22660 net.cpp:408] ip1 <- pool0
I0428 19:31:46.239040 22660 net.cpp:382] ip1 -> ip1
I0428 19:31:46.240422 22660 net.cpp:124] Setting up ip1
I0428 19:31:46.240447 22660 net.cpp:131] Top shape: 64 10 (640)
I0428 19:31:46.240453 22660 net.cpp:139] Memory required for data: 2046720
I0428 19:31:46.240463 22660 layer_factory.hpp:77] Creating layer relu1
I0428 19:31:46.240473 22660 net.cpp:86] Creating Layer relu1
I0428 19:31:46.240478 22660 net.cpp:408] relu1 <- ip1
I0428 19:31:46.240485 22660 net.cpp:369] relu1 -> ip1 (in-place)
I0428 19:31:46.240696 22660 net.cpp:124] Setting up relu1
I0428 19:31:46.240710 22660 net.cpp:131] Top shape: 64 10 (640)
I0428 19:31:46.240715 22660 net.cpp:139] Memory required for data: 2049280
I0428 19:31:46.240720 22660 layer_factory.hpp:77] Creating layer ip2
I0428 19:31:46.240728 22660 net.cpp:86] Creating Layer ip2
I0428 19:31:46.240732 22660 net.cpp:408] ip2 <- ip1
I0428 19:31:46.240739 22660 net.cpp:382] ip2 -> ip2
I0428 19:31:46.240917 22660 net.cpp:124] Setting up ip2
I0428 19:31:46.240929 22660 net.cpp:131] Top shape: 64 25 (1600)
I0428 19:31:46.240936 22660 net.cpp:139] Memory required for data: 2055680
I0428 19:31:46.240948 22660 layer_factory.hpp:77] Creating layer relu2
I0428 19:31:46.240957 22660 net.cpp:86] Creating Layer relu2
I0428 19:31:46.240962 22660 net.cpp:408] relu2 <- ip2
I0428 19:31:46.240968 22660 net.cpp:369] relu2 -> ip2 (in-place)
I0428 19:31:46.241991 22660 net.cpp:124] Setting up relu2
I0428 19:31:46.242007 22660 net.cpp:131] Top shape: 64 25 (1600)
I0428 19:31:46.242012 22660 net.cpp:139] Memory required for data: 2062080
I0428 19:31:46.242018 22660 layer_factory.hpp:77] Creating layer ip3
I0428 19:31:46.242027 22660 net.cpp:86] Creating Layer ip3
I0428 19:31:46.242033 22660 net.cpp:408] ip3 <- ip2
I0428 19:31:46.242040 22660 net.cpp:382] ip3 -> ip3
I0428 19:31:46.242159 22660 net.cpp:124] Setting up ip3
I0428 19:31:46.242169 22660 net.cpp:131] Top shape: 64 10 (640)
I0428 19:31:46.242174 22660 net.cpp:139] Memory required for data: 2064640
I0428 19:31:46.242182 22660 layer_factory.hpp:77] Creating layer relu3
I0428 19:31:46.242190 22660 net.cpp:86] Creating Layer relu3
I0428 19:31:46.242195 22660 net.cpp:408] relu3 <- ip3
I0428 19:31:46.242202 22660 net.cpp:369] relu3 -> ip3 (in-place)
I0428 19:31:46.242398 22660 net.cpp:124] Setting up relu3
I0428 19:31:46.242408 22660 net.cpp:131] Top shape: 64 10 (640)
I0428 19:31:46.242413 22660 net.cpp:139] Memory required for data: 2067200
I0428 19:31:46.242418 22660 layer_factory.hpp:77] Creating layer loss
I0428 19:31:46.242425 22660 net.cpp:86] Creating Layer loss
I0428 19:31:46.242429 22660 net.cpp:408] loss <- ip3
I0428 19:31:46.242435 22660 net.cpp:408] loss <- label
I0428 19:31:46.242442 22660 net.cpp:382] loss -> loss
I0428 19:31:46.242465 22660 layer_factory.hpp:77] Creating layer loss
…
I0428 19:31:46.243278 22660 solver.cpp:173] Creating test net (#0) specified by net file: ECE595/mnist/train_test/var_everything2/lenet_train_test132.prototxt
I0428 19:31:46.243312 22660 net.cpp:296] The NetState phase (1) differed from the phase (0) specified by a rule in layer mnist
I0428 19:31:46.243432 22660 net.cpp:53] Initializing net from parameters: 
name: "LeNet"
state {
  phase: TEST
}
layer {
  name: "mnist"
  type: "Data"
  top: "data"
  top: "label"
  include {
    phase: TEST
  }
  transform_param {
    scale: 0.00390625
  }
  data_param {
    source: "examples/mnist/mnist_test_lmdb"
    batch_size: 100
    backend: LMDB
  }
}
layer {
  name: "conv0"
  type: "Convolution"
  bottom: "data"
  top: "conv0"
  param {
    lr_mult: 1
  }
  param {
    lr_mult: 2
  }
  convolution_param {
    num_output: 10
    kernel_size: 5
    stride: 1
    weight_filler {
      type: "xavier"
    }
    bias_filler {
      type: "constant"
    }
  }
}
layer {
  name: "pool0"
  type: "Pooling"
  bottom: "conv0"
  top: "pool0"
  pooling_param {
    pool: MAX
    kernel_size: 2
    stride: 2
  }
}
layer {
  name: "ip1"
  type: "InnerProduct"
  bottom: "pool0"
  top: "ip1"
  param {
    lr_mult: 1
  }
  param {
    lr_mult: 2
  }
  inner_product_param {
    num_output: 10
    weight_filler {
      type: "xavier"
    }
    bias_filler {
      type: "constant"
    }
  }
}
layer {
  name: "relu1"
  type: "ReLU"
  bottom: "ip1"
  top: "ip1"
}
layer {
  name: "ip2"
  type: "InnerProduct"
  bottom: "ip1"
  top: "ip2"
  param {
    lr_mult: 1
  }
  param {
    lr_mult: 2
  }
  inner_product_param {
    num_output: 25
    weight_filler {
      type: "xavier"
    }
    bias_filler {
      type: "constant"
    }
  }
}
layer {
  name: "relu2"
  type: "ReLU"
  bottom: "ip2"
  top: "ip2"
}
layer {
  name: "ip3"
  type: "InnerProduct"
  bottom: "ip2"
  top: "ip3"
  param {
    lr_mult: 1
  }
  param {
    lr_mult: 2
  }
  inner_product_param {
    num_output: 10
    weight_filler {
      type: "xavier"
    }
    bias_filler {
      type: "constant"
    }
  }
}
layer {
  name: "relu3"
  type: "ReLU"
  bottom: "ip3"
  top: "ip3"
}
layer {
  name: "accuracy"
  type: "Accuracy"
  bottom: "ip3"
  bottom: "label"
  top: "accuracy"
  include {
    phase: TEST
  }
}
layer {
  name: "loss"
  type: "SoftmaxWithLoss"
  bottom: "ip3"
  bottom: "label"
  top: "loss"
}
I0428 19:31:46.243513 22660 layer_factory.hpp:77] Creating layer mnist
I0428 19:31:46.243577 22660 db_lmdb.cpp:35] Opened lmdb examples/mnist/mnist_test_lmdb
I0428 19:31:46.243592 22660 net.cpp:86] Creating Layer mnist
I0428 19:31:46.243599 22660 net.cpp:382] mnist -> data
I0428 19:31:46.243608 22660 net.cpp:382] mnist -> label
I0428 19:31:46.243711 22660 data_layer.cpp:45] output data size: 100,1,28,28
I0428 19:31:46.246210 22660 net.cpp:124] Setting up mnist
I0428 19:31:46.246242 22660 net.cpp:131] Top shape: 100 1 28 28 (78400)
I0428 19:31:46.246248 22660 net.cpp:131] Top shape: 100 (100)
I0428 19:31:46.246253 22660 net.cpp:139] Memory required for data: 314000
I0428 19:31:46.246258 22660 layer_factory.hpp:77] Creating layer label_mnist_1_split
I0428 19:31:46.246270 22660 net.cpp:86] Creating Layer label_mnist_1_split
I0428 19:31:46.246290 22660 net.cpp:408] label_mnist_1_split <- label
I0428 19:31:46.246297 22660 net.cpp:382] label_mnist_1_split -> label_mnist_1_split_0
I0428 19:31:46.246306 22660 net.cpp:382] label_mnist_1_split -> label_mnist_1_split_1
I0428 19:31:46.246389 22660 net.cpp:124] Setting up label_mnist_1_split
I0428 19:31:46.246399 22660 net.cpp:131] Top shape: 100 (100)
I0428 19:31:46.246405 22660 net.cpp:131] Top shape: 100 (100)
I0428 19:31:46.246410 22660 net.cpp:139] Memory required for data: 314800
I0428 19:31:46.246426 22660 layer_factory.hpp:77] Creating layer conv0
I0428 19:31:46.246439 22660 net.cpp:86] Creating Layer conv0
I0428 19:31:46.246448 22660 net.cpp:408] conv0 <- data
I0428 19:31:46.246470 22660 net.cpp:382] conv0 -> conv0
I0428 19:31:46.248522 22660 net.cpp:124] Setting up conv0
I0428 19:31:46.248553 22660 net.cpp:131] Top shape: 100 10 24 24 (576000)
I0428 19:31:46.248558 22660 net.cpp:139] Memory required for data: 2618800
I0428 19:31:46.248572 22660 layer_factory.hpp:77] Creating layer pool0
I0428 19:31:46.248580 22660 net.cpp:86] Creating Layer pool0
I0428 19:31:46.248585 22660 net.cpp:408] pool0 <- conv0
I0428 19:31:46.248606 22660 net.cpp:382] pool0 -> pool0
I0428 19:31:46.248649 22660 net.cpp:124] Setting up pool0
I0428 19:31:46.248667 22660 net.cpp:131] Top shape: 100 10 12 12 (144000)
I0428 19:31:46.248672 22660 net.cpp:139] Memory required for data: 3194800
I0428 19:31:46.248675 22660 layer_factory.hpp:77] Creating layer ip1
I0428 19:31:46.248684 22660 net.cpp:86] Creating Layer ip1
I0428 19:31:46.248689 22660 net.cpp:408] ip1 <- pool0
I0428 19:31:46.248695 22660 net.cpp:382] ip1 -> ip1
I0428 19:31:46.249032 22660 net.cpp:124] Setting up ip1
I0428 19:31:46.249043 22660 net.cpp:131] Top shape: 100 10 (1000)
I0428 19:31:46.249063 22660 net.cpp:139] Memory required for data: 3198800
I0428 19:31:46.249074 22660 layer_factory.hpp:77] Creating layer relu1
I0428 19:31:46.249083 22660 net.cpp:86] Creating Layer relu1
I0428 19:31:46.249088 22660 net.cpp:408] relu1 <- ip1
I0428 19:31:46.249094 22660 net.cpp:369] relu1 -> ip1 (in-place)
I0428 19:31:46.249342 22660 net.cpp:124] Setting up relu1
I0428 19:31:46.249354 22660 net.cpp:131] Top shape: 100 10 (1000)
I0428 19:31:46.249358 22660 net.cpp:139] Memory required for data: 3202800
I0428 19:31:46.249363 22660 layer_factory.hpp:77] Creating layer ip2
I0428 19:31:46.249372 22660 net.cpp:86] Creating Layer ip2
I0428 19:31:46.249375 22660 net.cpp:408] ip2 <- ip1
I0428 19:31:46.249382 22660 net.cpp:382] ip2 -> ip2
I0428 19:31:46.249496 22660 net.cpp:124] Setting up ip2
I0428 19:31:46.249505 22660 net.cpp:131] Top shape: 100 25 (2500)
I0428 19:31:46.249510 22660 net.cpp:139] Memory required for data: 3212800
I0428 19:31:46.249521 22660 layer_factory.hpp:77] Creating layer relu2
I0428 19:31:46.249526 22660 net.cpp:86] Creating Layer relu2
I0428 19:31:46.249532 22660 net.cpp:408] relu2 <- ip2
I0428 19:31:46.249537 22660 net.cpp:369] relu2 -> ip2 (in-place)
I0428 19:31:46.250735 22660 net.cpp:124] Setting up relu2
I0428 19:31:46.250768 22660 net.cpp:131] Top shape: 100 25 (2500)
I0428 19:31:46.250773 22660 net.cpp:139] Memory required for data: 3222800
I0428 19:31:46.250778 22660 layer_factory.hpp:77] Creating layer ip3
I0428 19:31:46.250788 22660 net.cpp:86] Creating Layer ip3
I0428 19:31:46.250793 22660 net.cpp:408] ip3 <- ip2
I0428 19:31:46.250802 22660 net.cpp:382] ip3 -> ip3
I0428 19:31:46.250936 22660 net.cpp:124] Setting up ip3
I0428 19:31:46.250957 22660 net.cpp:131] Top shape: 100 10 (1000)
I0428 19:31:46.250962 22660 net.cpp:139] Memory required for data: 3226800
I0428 19:31:46.250972 22660 layer_factory.hpp:77] Creating layer relu3
I0428 19:31:46.250994 22660 net.cpp:86] Creating Layer relu3
I0428 19:31:46.250999 22660 net.cpp:408] relu3 <- ip3
I0428 19:31:46.251005 22660 net.cpp:369] relu3 -> ip3 (in-place)
I0428 19:31:46.251225 22660 net.cpp:124] Setting up relu3
I0428 19:31:46.251241 22660 net.cpp:131] Top shape: 100 10 (1000)
I0428 19:31:46.251247 22660 net.cpp:139] Memory required for data: 3230800
I0428 19:31:46.251253 22660 layer_factory.hpp:77] Creating layer ip3_relu3_0_split
I0428 19:31:46.251260 22660 net.cpp:86] Creating Layer ip3_relu3_0_split
I0428 19:31:46.251266 22660 net.cpp:408] ip3_relu3_0_split <- ip3
I0428 19:31:46.251272 22660 net.cpp:382] ip3_relu3_0_split -> ip3_relu3_0_split_0
I0428 19:31:46.251281 22660 net.cpp:382] ip3_relu3_0_split -> ip3_relu3_0_split_1
I0428 19:31:46.251348 22660 net.cpp:124] Setting up ip3_relu3_0_split
I0428 19:31:46.251358 22660 net.cpp:131] Top shape: 100 10 (1000)
I0428 19:31:46.251364 22660 net.cpp:131] Top shape: 100 10 (1000)
I0428 19:31:46.251381 22660 net.cpp:139] Memory required for data: 3238800
I0428 19:31:46.251387 22660 layer_factory.hpp:77] Creating layer accuracy
I0428 19:31:46.251394 22660 net.cpp:86] Creating Layer accuracy
I0428 19:31:46.251399 22660 net.cpp:408] accuracy <- ip3_relu3_0_split_0
I0428 19:31:46.251416 22660 net.cpp:408] accuracy <- label_mnist_1_split_0
I0428 19:31:46.251422 22660 net.cpp:382] accuracy -> accuracy
…
