…
I0428 19:27:55.958108 21486 net.cpp:296] The NetState phase (0) differed from the phase (1) specified by a rule in layer mnist
I0428 19:27:55.958122 21486 net.cpp:296] The NetState phase (0) differed from the phase (1) specified by a rule in layer accuracy
I0428 19:27:55.958186 21486 net.cpp:53] Initializing net from parameters: 
name: "LeNet"
state {
  phase: TRAIN
  level: 0
  stage: ""
}
layer {
  name: "mnist"
  type: "Data"
  top: "data"
  top: "label"
  include {
    phase: TRAIN
  }
  transform_param {
    scale: 0.00390625
  }
  data_param {
    source: "examples/mnist/mnist_train_lmdb"
    batch_size: 64
    backend: LMDB
  }
}
layer {
  name: "ip1"
  type: "InnerProduct"
  bottom: "data"
  top: "ip1"
  param {
    lr_mult: 1
  }
  param {
    lr_mult: 2
  }
  inner_product_param {
    num_output: 25
    weight_filler {
      type: "xavier"
    }
    bias_filler {
      type: "constant"
    }
  }
}
layer {
  name: "relu1"
  type: "ReLU"
  bottom: "ip1"
  top: "ip1"
}
layer {
  name: "ip2"
  type: "InnerProduct"
  bottom: "ip1"
  top: "ip2"
  param {
    lr_mult: 1
  }
  param {
    lr_mult: 2
  }
  inner_product_param {
    num_output: 10
    weight_filler {
      type: "xavier"
    }
    bias_filler {
      type: "constant"
    }
  }
}
layer {
  name: "relu2"
  type: "ReLU"
  bottom: "ip2"
  top: "ip2"
}
layer {
  name: "loss"
  type: "SoftmaxWithLoss"
  bottom: "ip2"
  bottom: "label"
  top: "loss"
}
I0428 19:27:55.958245 21486 layer_factory.hpp:77] Creating layer mnist
I0428 19:27:55.958345 21486 db_lmdb.cpp:35] Opened lmdb examples/mnist/mnist_train_lmdb
I0428 19:27:55.958370 21486 net.cpp:86] Creating Layer mnist
I0428 19:27:55.958381 21486 net.cpp:382] mnist -> data
I0428 19:27:55.958405 21486 net.cpp:382] mnist -> label
I0428 19:27:55.959507 21486 data_layer.cpp:45] output data size: 64,1,28,28
I0428 19:27:55.961968 21486 net.cpp:124] Setting up mnist
I0428 19:27:55.961985 21486 net.cpp:131] Top shape: 64 1 28 28 (50176)
I0428 19:27:55.961992 21486 net.cpp:131] Top shape: 64 (64)
I0428 19:27:55.961995 21486 net.cpp:139] Memory required for data: 200960
I0428 19:27:55.962002 21486 layer_factory.hpp:77] Creating layer ip1
I0428 19:27:55.962028 21486 net.cpp:86] Creating Layer ip1
I0428 19:27:55.962036 21486 net.cpp:408] ip1 <- data
I0428 19:27:55.962047 21486 net.cpp:382] ip1 -> ip1
I0428 19:27:55.962363 21486 net.cpp:124] Setting up ip1
I0428 19:27:55.962373 21486 net.cpp:131] Top shape: 64 25 (1600)
I0428 19:27:55.962378 21486 net.cpp:139] Memory required for data: 207360
I0428 19:27:55.962390 21486 layer_factory.hpp:77] Creating layer relu1
I0428 19:27:55.962399 21486 net.cpp:86] Creating Layer relu1
I0428 19:27:55.962402 21486 net.cpp:408] relu1 <- ip1
I0428 19:27:55.962409 21486 net.cpp:369] relu1 -> ip1 (in-place)
I0428 19:27:56.249228 21486 net.cpp:124] Setting up relu1
I0428 19:27:56.249258 21486 net.cpp:131] Top shape: 64 25 (1600)
I0428 19:27:56.249261 21486 net.cpp:139] Memory required for data: 213760
I0428 19:27:56.249267 21486 layer_factory.hpp:77] Creating layer ip2
I0428 19:27:56.249280 21486 net.cpp:86] Creating Layer ip2
I0428 19:27:56.249285 21486 net.cpp:408] ip2 <- ip1
I0428 19:27:56.249294 21486 net.cpp:382] ip2 -> ip2
I0428 19:27:56.249413 21486 net.cpp:124] Setting up ip2
I0428 19:27:56.249420 21486 net.cpp:131] Top shape: 64 10 (640)
I0428 19:27:56.249424 21486 net.cpp:139] Memory required for data: 216320
I0428 19:27:56.249434 21486 layer_factory.hpp:77] Creating layer relu2
I0428 19:27:56.249459 21486 net.cpp:86] Creating Layer relu2
I0428 19:27:56.249464 21486 net.cpp:408] relu2 <- ip2
I0428 19:27:56.249469 21486 net.cpp:369] relu2 -> ip2 (in-place)
I0428 19:27:56.250269 21486 net.cpp:124] Setting up relu2
I0428 19:27:56.250283 21486 net.cpp:131] Top shape: 64 10 (640)
I0428 19:27:56.250288 21486 net.cpp:139] Memory required for data: 218880
I0428 19:27:56.250291 21486 layer_factory.hpp:77] Creating layer loss
I0428 19:27:56.250298 21486 net.cpp:86] Creating Layer loss
I0428 19:27:56.250301 21486 net.cpp:408] loss <- ip2
I0428 19:27:56.250306 21486 net.cpp:408] loss <- label
I0428 19:27:56.250313 21486 net.cpp:382] loss -> loss
I0428 19:27:56.250331 21486 layer_factory.hpp:77] Creating layer loss
…
I0428 19:27:56.251742 21486 solver.cpp:173] Creating test net (#0) specified by net file: ECE595/mnist/train_test/var_everything2/lenet_train_test8.prototxt
I0428 19:27:56.251765 21486 net.cpp:296] The NetState phase (1) differed from the phase (0) specified by a rule in layer mnist
I0428 19:27:56.251829 21486 net.cpp:53] Initializing net from parameters: 
name: "LeNet"
state {
  phase: TEST
}
layer {
  name: "mnist"
  type: "Data"
  top: "data"
  top: "label"
  include {
    phase: TEST
  }
  transform_param {
    scale: 0.00390625
  }
  data_param {
    source: "examples/mnist/mnist_test_lmdb"
    batch_size: 100
    backend: LMDB
  }
}
layer {
  name: "ip1"
  type: "InnerProduct"
  bottom: "data"
  top: "ip1"
  param {
    lr_mult: 1
  }
  param {
    lr_mult: 2
  }
  inner_product_param {
    num_output: 25
    weight_filler {
      type: "xavier"
    }
    bias_filler {
      type: "constant"
    }
  }
}
layer {
  name: "relu1"
  type: "ReLU"
  bottom: "ip1"
  top: "ip1"
}
layer {
  name: "ip2"
  type: "InnerProduct"
  bottom: "ip1"
  top: "ip2"
  param {
    lr_mult: 1
  }
  param {
    lr_mult: 2
  }
  inner_product_param {
    num_output: 10
    weight_filler {
      type: "xavier"
    }
    bias_filler {
      type: "constant"
    }
  }
}
layer {
  name: "relu2"
  type: "ReLU"
  bottom: "ip2"
  top: "ip2"
}
layer {
  name: "accuracy"
  type: "Accuracy"
  bottom: "ip2"
  bottom: "label"
  top: "accuracy"
  include {
    phase: TEST
  }
}
layer {
  name: "loss"
  type: "SoftmaxWithLoss"
  bottom: "ip2"
  bottom: "label"
  top: "loss"
}
I0428 19:27:56.251881 21486 layer_factory.hpp:77] Creating layer mnist
I0428 19:27:56.251929 21486 db_lmdb.cpp:35] Opened lmdb examples/mnist/mnist_test_lmdb
I0428 19:27:56.251942 21486 net.cpp:86] Creating Layer mnist
I0428 19:27:56.251947 21486 net.cpp:382] mnist -> data
I0428 19:27:56.251955 21486 net.cpp:382] mnist -> label
I0428 19:27:56.252044 21486 data_layer.cpp:45] output data size: 100,1,28,28
I0428 19:27:56.253993 21486 net.cpp:124] Setting up mnist
I0428 19:27:56.254007 21486 net.cpp:131] Top shape: 100 1 28 28 (78400)
I0428 19:27:56.254012 21486 net.cpp:131] Top shape: 100 (100)
I0428 19:27:56.254015 21486 net.cpp:139] Memory required for data: 314000
I0428 19:27:56.254019 21486 layer_factory.hpp:77] Creating layer label_mnist_1_split
I0428 19:27:56.254040 21486 net.cpp:86] Creating Layer label_mnist_1_split
I0428 19:27:56.254045 21486 net.cpp:408] label_mnist_1_split <- label
I0428 19:27:56.254050 21486 net.cpp:382] label_mnist_1_split -> label_mnist_1_split_0
I0428 19:27:56.254067 21486 net.cpp:382] label_mnist_1_split -> label_mnist_1_split_1
I0428 19:27:56.254148 21486 net.cpp:124] Setting up label_mnist_1_split
I0428 19:27:56.254156 21486 net.cpp:131] Top shape: 100 (100)
I0428 19:27:56.254160 21486 net.cpp:131] Top shape: 100 (100)
I0428 19:27:56.254163 21486 net.cpp:139] Memory required for data: 314800
I0428 19:27:56.254166 21486 layer_factory.hpp:77] Creating layer ip1
I0428 19:27:56.254173 21486 net.cpp:86] Creating Layer ip1
I0428 19:27:56.254178 21486 net.cpp:408] ip1 <- data
I0428 19:27:56.254182 21486 net.cpp:382] ip1 -> ip1
I0428 19:27:56.254400 21486 net.cpp:124] Setting up ip1
I0428 19:27:56.254422 21486 net.cpp:131] Top shape: 100 25 (2500)
I0428 19:27:56.254426 21486 net.cpp:139] Memory required for data: 324800
I0428 19:27:56.254436 21486 layer_factory.hpp:77] Creating layer relu1
I0428 19:27:56.254441 21486 net.cpp:86] Creating Layer relu1
I0428 19:27:56.254446 21486 net.cpp:408] relu1 <- ip1
I0428 19:27:56.254451 21486 net.cpp:369] relu1 -> ip1 (in-place)
I0428 19:27:56.254626 21486 net.cpp:124] Setting up relu1
I0428 19:27:56.254634 21486 net.cpp:131] Top shape: 100 25 (2500)
I0428 19:27:56.254638 21486 net.cpp:139] Memory required for data: 334800
I0428 19:27:56.254642 21486 layer_factory.hpp:77] Creating layer ip2
I0428 19:27:56.254648 21486 net.cpp:86] Creating Layer ip2
I0428 19:27:56.254652 21486 net.cpp:408] ip2 <- ip1
I0428 19:27:56.254657 21486 net.cpp:382] ip2 -> ip2
I0428 19:27:56.254767 21486 net.cpp:124] Setting up ip2
I0428 19:27:56.254775 21486 net.cpp:131] Top shape: 100 10 (1000)
I0428 19:27:56.254777 21486 net.cpp:139] Memory required for data: 338800
I0428 19:27:56.254784 21486 layer_factory.hpp:77] Creating layer relu2
I0428 19:27:56.254789 21486 net.cpp:86] Creating Layer relu2
I0428 19:27:56.254792 21486 net.cpp:408] relu2 <- ip2
I0428 19:27:56.254796 21486 net.cpp:369] relu2 -> ip2 (in-place)
I0428 19:27:56.255553 21486 net.cpp:124] Setting up relu2
I0428 19:27:56.255566 21486 net.cpp:131] Top shape: 100 10 (1000)
I0428 19:27:56.255570 21486 net.cpp:139] Memory required for data: 342800
I0428 19:27:56.255573 21486 layer_factory.hpp:77] Creating layer ip2_relu2_0_split
I0428 19:27:56.255579 21486 net.cpp:86] Creating Layer ip2_relu2_0_split
I0428 19:27:56.255583 21486 net.cpp:408] ip2_relu2_0_split <- ip2
I0428 19:27:56.255589 21486 net.cpp:382] ip2_relu2_0_split -> ip2_relu2_0_split_0
I0428 19:27:56.255594 21486 net.cpp:382] ip2_relu2_0_split -> ip2_relu2_0_split_1
I0428 19:27:56.255664 21486 net.cpp:124] Setting up ip2_relu2_0_split
I0428 19:27:56.255669 21486 net.cpp:131] Top shape: 100 10 (1000)
I0428 19:27:56.255673 21486 net.cpp:131] Top shape: 100 10 (1000)
I0428 19:27:56.255677 21486 net.cpp:139] Memory required for data: 350800
I0428 19:27:56.255681 21486 layer_factory.hpp:77] Creating layer accuracy
I0428 19:27:56.255689 21486 net.cpp:86] Creating Layer accuracy
I0428 19:27:56.255692 21486 net.cpp:408] accuracy <- ip2_relu2_0_split_0
I0428 19:27:56.255697 21486 net.cpp:408] accuracy <- label_mnist_1_split_0
I0428 19:27:56.255702 21486 net.cpp:382] accuracy -> accuracy
…
