…
I0428 20:23:11.967437  2199 net.cpp:296] The NetState phase (0) differed from the phase (1) specified by a rule in layer mnist
I0428 20:23:11.967455  2199 net.cpp:296] The NetState phase (0) differed from the phase (1) specified by a rule in layer accuracy
I0428 20:23:11.967561  2199 net.cpp:53] Initializing net from parameters: 
name: "LeNet"
state {
  phase: TRAIN
  level: 0
  stage: ""
}
layer {
  name: "mnist"
  type: "Data"
  top: "data"
  top: "label"
  include {
    phase: TRAIN
  }
  transform_param {
    scale: 0.00390625
  }
  data_param {
    source: "examples/mnist/mnist_train_lmdb"
    batch_size: 64
    backend: LMDB
  }
}
layer {
  name: "conv0"
  type: "Convolution"
  bottom: "data"
  top: "conv0"
  param {
    lr_mult: 1
  }
  param {
    lr_mult: 2
  }
  convolution_param {
    num_output: 50
    kernel_size: 5
    stride: 1
    weight_filler {
      type: "xavier"
    }
    bias_filler {
      type: "constant"
    }
  }
}
layer {
  name: "pool0"
  type: "Pooling"
  bottom: "conv0"
  top: "pool0"
  pooling_param {
    pool: MAX
    kernel_size: 2
    stride: 2
  }
}
layer {
  name: "conv1"
  type: "Convolution"
  bottom: "pool0"
  top: "conv1"
  param {
    lr_mult: 1
  }
  param {
    lr_mult: 2
  }
  convolution_param {
    num_output: 100
    kernel_size: 5
    stride: 1
    weight_filler {
      type: "xavier"
    }
    bias_filler {
      type: "constant"
    }
  }
}
layer {
  name: "pool1"
  type: "Pooling"
  bottom: "conv1"
  top: "pool1"
  pooling_param {
    pool: MAX
    kernel_size: 2
    stride: 2
  }
}
layer {
  name: "ip1"
  type: "InnerProduct"
  bottom: "pool1"
  top: "ip1"
  param {
    lr_mult: 1
  }
  param {
    lr_mult: 2
  }
  inner_product_param {
    num_output: 10
    weight_filler {
      type: "xavier"
    }
    bias_filler {
      type: "constant"
    }
  }
}
layer {
  name: "relu1"
  type: "ReLU"
  bottom: "ip1"
  top: "ip1"
}
layer {
  name: "ip2"
  type: "InnerProduct"
  bottom: "ip1"
  top: "ip2"
  param {
    lr_mult: 1
  }
  param {
    lr_mult: 2
  }
  inner_product_param {
    num_output: 10
    weight_filler {
      type: "xavier"
    }
    bias_filler {
      type: "constant"
    }
  }
}
layer {
  name: "relu2"
  type: "ReLU"
  bottom: "ip2"
  top: "ip2"
}
layer {
  name: "ip3"
  type: "InnerProduct"
  bottom: "ip2"
  top: "ip3"
  param {
    lr_mult: 1
  }
  param {
    lr_mult: 2
  }
  inner_product_param {
    num_output: 10
    weight_filler {
      type: "xavier"
    }
    bias_filler {
      type: "constant"
    }
  }
}
layer {
  name: "relu3"
  type: "ReLU"
  bottom: "ip3"
  top: "ip3"
}
layer {
  name: "loss"
  type: "SoftmaxWithLoss"
  bottom: "ip3"
  bottom: "label"
  top: "loss"
}
I0428 20:23:11.967639  2199 layer_factory.hpp:77] Creating layer mnist
I0428 20:23:11.967739  2199 db_lmdb.cpp:35] Opened lmdb examples/mnist/mnist_train_lmdb
I0428 20:23:11.967762  2199 net.cpp:86] Creating Layer mnist
I0428 20:23:11.967772  2199 net.cpp:382] mnist -> data
I0428 20:23:11.967793  2199 net.cpp:382] mnist -> label
I0428 20:23:11.968904  2199 data_layer.cpp:45] output data size: 64,1,28,28
I0428 20:23:11.971374  2199 net.cpp:124] Setting up mnist
I0428 20:23:11.971391  2199 net.cpp:131] Top shape: 64 1 28 28 (50176)
I0428 20:23:11.971397  2199 net.cpp:131] Top shape: 64 (64)
I0428 20:23:11.971401  2199 net.cpp:139] Memory required for data: 200960
I0428 20:23:11.971408  2199 layer_factory.hpp:77] Creating layer conv0
I0428 20:23:11.971443  2199 net.cpp:86] Creating Layer conv0
I0428 20:23:11.971464  2199 net.cpp:408] conv0 <- data
I0428 20:23:11.971480  2199 net.cpp:382] conv0 -> conv0
I0428 20:23:12.220315  2199 net.cpp:124] Setting up conv0
I0428 20:23:12.220355  2199 net.cpp:131] Top shape: 64 50 24 24 (1843200)
I0428 20:23:12.220360  2199 net.cpp:139] Memory required for data: 7573760
I0428 20:23:12.220373  2199 layer_factory.hpp:77] Creating layer pool0
I0428 20:23:12.220386  2199 net.cpp:86] Creating Layer pool0
I0428 20:23:12.220389  2199 net.cpp:408] pool0 <- conv0
I0428 20:23:12.220394  2199 net.cpp:382] pool0 -> pool0
I0428 20:23:12.220454  2199 net.cpp:124] Setting up pool0
I0428 20:23:12.220460  2199 net.cpp:131] Top shape: 64 50 12 12 (460800)
I0428 20:23:12.220463  2199 net.cpp:139] Memory required for data: 9416960
I0428 20:23:12.220466  2199 layer_factory.hpp:77] Creating layer conv1
I0428 20:23:12.220476  2199 net.cpp:86] Creating Layer conv1
I0428 20:23:12.220479  2199 net.cpp:408] conv1 <- pool0
I0428 20:23:12.220484  2199 net.cpp:382] conv1 -> conv1
I0428 20:23:12.223935  2199 net.cpp:124] Setting up conv1
I0428 20:23:12.223950  2199 net.cpp:131] Top shape: 64 100 8 8 (409600)
I0428 20:23:12.223954  2199 net.cpp:139] Memory required for data: 11055360
I0428 20:23:12.223963  2199 layer_factory.hpp:77] Creating layer pool1
I0428 20:23:12.223969  2199 net.cpp:86] Creating Layer pool1
I0428 20:23:12.223987  2199 net.cpp:408] pool1 <- conv1
I0428 20:23:12.223992  2199 net.cpp:382] pool1 -> pool1
I0428 20:23:12.224027  2199 net.cpp:124] Setting up pool1
I0428 20:23:12.224032  2199 net.cpp:131] Top shape: 64 100 4 4 (102400)
I0428 20:23:12.224035  2199 net.cpp:139] Memory required for data: 11464960
I0428 20:23:12.224038  2199 layer_factory.hpp:77] Creating layer ip1
I0428 20:23:12.224045  2199 net.cpp:86] Creating Layer ip1
I0428 20:23:12.224048  2199 net.cpp:408] ip1 <- pool1
I0428 20:23:12.224052  2199 net.cpp:382] ip1 -> ip1
I0428 20:23:12.225198  2199 net.cpp:124] Setting up ip1
I0428 20:23:12.225230  2199 net.cpp:131] Top shape: 64 10 (640)
I0428 20:23:12.225236  2199 net.cpp:139] Memory required for data: 11467520
I0428 20:23:12.225248  2199 layer_factory.hpp:77] Creating layer relu1
I0428 20:23:12.225257  2199 net.cpp:86] Creating Layer relu1
I0428 20:23:12.225272  2199 net.cpp:408] relu1 <- ip1
I0428 20:23:12.225281  2199 net.cpp:369] relu1 -> ip1 (in-place)
I0428 20:23:12.225564  2199 net.cpp:124] Setting up relu1
I0428 20:23:12.225580  2199 net.cpp:131] Top shape: 64 10 (640)
I0428 20:23:12.225587  2199 net.cpp:139] Memory required for data: 11470080
I0428 20:23:12.225594  2199 layer_factory.hpp:77] Creating layer ip2
I0428 20:23:12.225605  2199 net.cpp:86] Creating Layer ip2
I0428 20:23:12.225610  2199 net.cpp:408] ip2 <- ip1
I0428 20:23:12.225620  2199 net.cpp:382] ip2 -> ip2
I0428 20:23:12.225782  2199 net.cpp:124] Setting up ip2
I0428 20:23:12.225796  2199 net.cpp:131] Top shape: 64 10 (640)
I0428 20:23:12.225801  2199 net.cpp:139] Memory required for data: 11472640
I0428 20:23:12.225811  2199 layer_factory.hpp:77] Creating layer relu2
I0428 20:23:12.225836  2199 net.cpp:86] Creating Layer relu2
I0428 20:23:12.225857  2199 net.cpp:408] relu2 <- ip2
I0428 20:23:12.225869  2199 net.cpp:369] relu2 -> ip2 (in-place)
I0428 20:23:12.226979  2199 net.cpp:124] Setting up relu2
I0428 20:23:12.227011  2199 net.cpp:131] Top shape: 64 10 (640)
I0428 20:23:12.227017  2199 net.cpp:139] Memory required for data: 11475200
I0428 20:23:12.227023  2199 layer_factory.hpp:77] Creating layer ip3
I0428 20:23:12.227033  2199 net.cpp:86] Creating Layer ip3
I0428 20:23:12.227038  2199 net.cpp:408] ip3 <- ip2
I0428 20:23:12.227047  2199 net.cpp:382] ip3 -> ip3
I0428 20:23:12.227200  2199 net.cpp:124] Setting up ip3
I0428 20:23:12.227214  2199 net.cpp:131] Top shape: 64 10 (640)
I0428 20:23:12.227221  2199 net.cpp:139] Memory required for data: 11477760
I0428 20:23:12.227233  2199 layer_factory.hpp:77] Creating layer relu3
I0428 20:23:12.227242  2199 net.cpp:86] Creating Layer relu3
I0428 20:23:12.227247  2199 net.cpp:408] relu3 <- ip3
I0428 20:23:12.227253  2199 net.cpp:369] relu3 -> ip3 (in-place)
I0428 20:23:12.227488  2199 net.cpp:124] Setting up relu3
I0428 20:23:12.227504  2199 net.cpp:131] Top shape: 64 10 (640)
I0428 20:23:12.227509  2199 net.cpp:139] Memory required for data: 11480320
I0428 20:23:12.227516  2199 layer_factory.hpp:77] Creating layer loss
I0428 20:23:12.227524  2199 net.cpp:86] Creating Layer loss
I0428 20:23:12.227530  2199 net.cpp:408] loss <- ip3
I0428 20:23:12.227551  2199 net.cpp:408] loss <- label
I0428 20:23:12.227560  2199 net.cpp:382] loss -> loss
I0428 20:23:12.227582  2199 layer_factory.hpp:77] Creating layer loss
…
I0428 20:23:12.228461  2199 solver.cpp:173] Creating test net (#0) specified by net file: ECE595/mnist/train_test/var_everything2/lenet_train_test1417.prototxt
I0428 20:23:12.228503  2199 net.cpp:296] The NetState phase (1) differed from the phase (0) specified by a rule in layer mnist
I0428 20:23:12.228590  2199 net.cpp:53] Initializing net from parameters: 
name: "LeNet"
state {
  phase: TEST
}
layer {
  name: "mnist"
  type: "Data"
  top: "data"
  top: "label"
  include {
    phase: TEST
  }
  transform_param {
    scale: 0.00390625
  }
  data_param {
    source: "examples/mnist/mnist_test_lmdb"
    batch_size: 100
    backend: LMDB
  }
}
layer {
  name: "conv0"
  type: "Convolution"
  bottom: "data"
  top: "conv0"
  param {
    lr_mult: 1
  }
  param {
    lr_mult: 2
  }
  convolution_param {
    num_output: 50
    kernel_size: 5
    stride: 1
    weight_filler {
      type: "xavier"
    }
    bias_filler {
      type: "constant"
    }
  }
}
layer {
  name: "pool0"
  type: "Pooling"
  bottom: "conv0"
  top: "pool0"
  pooling_param {
    pool: MAX
    kernel_size: 2
    stride: 2
  }
}
layer {
  name: "conv1"
  type: "Convolution"
  bottom: "pool0"
  top: "conv1"
  param {
    lr_mult: 1
  }
  param {
    lr_mult: 2
  }
  convolution_param {
    num_output: 100
    kernel_size: 5
    stride: 1
    weight_filler {
      type: "xavier"
    }
    bias_filler {
      type: "constant"
    }
  }
}
layer {
  name: "pool1"
  type: "Pooling"
  bottom: "conv1"
  top: "pool1"
  pooling_param {
    pool: MAX
    kernel_size: 2
    stride: 2
  }
}
layer {
  name: "ip1"
  type: "InnerProduct"
  bottom: "pool1"
  top: "ip1"
  param {
    lr_mult: 1
  }
  param {
    lr_mult: 2
  }
  inner_product_param {
    num_output: 10
    weight_filler {
      type: "xavier"
    }
    bias_filler {
      type: "constant"
    }
  }
}
layer {
  name: "relu1"
  type: "ReLU"
  bottom: "ip1"
  top: "ip1"
}
layer {
  name: "ip2"
  type: "InnerProduct"
  bottom: "ip1"
  top: "ip2"
  param {
    lr_mult: 1
  }
  param {
    lr_mult: 2
  }
  inner_product_param {
    num_output: 10
    weight_filler {
      type: "xavier"
    }
    bias_filler {
      type: "constant"
    }
  }
}
layer {
  name: "relu2"
  type: "ReLU"
  bottom: "ip2"
  top: "ip2"
}
layer {
  name: "ip3"
  type: "InnerProduct"
  bottom: "ip2"
  top: "ip3"
  param {
    lr_mult: 1
  }
  param {
    lr_mult: 2
  }
  inner_product_param {
    num_output: 10
    weight_filler {
      type: "xavier"
    }
    bias_filler {
      type: "constant"
    }
  }
}
layer {
  name: "relu3"
  type: "ReLU"
  bottom: "ip3"
  top: "ip3"
}
layer {
  name: "accuracy"
  type: "Accuracy"
  bottom: "ip3"
  bottom: "label"
  top: "accuracy"
  include {
    phase: TEST
  }
}
layer {
  name: "loss"
  type: "SoftmaxWithLoss"
  bottom: "ip3"
  bottom: "label"
  top: "loss"
}
I0428 20:23:12.228683  2199 layer_factory.hpp:77] Creating layer mnist
I0428 20:23:12.228729  2199 db_lmdb.cpp:35] Opened lmdb examples/mnist/mnist_test_lmdb
I0428 20:23:12.228740  2199 net.cpp:86] Creating Layer mnist
I0428 20:23:12.228744  2199 net.cpp:382] mnist -> data
I0428 20:23:12.228752  2199 net.cpp:382] mnist -> label
I0428 20:23:12.228894  2199 data_layer.cpp:45] output data size: 100,1,28,28
I0428 20:23:12.230069  2199 net.cpp:124] Setting up mnist
I0428 20:23:12.230095  2199 net.cpp:131] Top shape: 100 1 28 28 (78400)
I0428 20:23:12.230100  2199 net.cpp:131] Top shape: 100 (100)
I0428 20:23:12.230104  2199 net.cpp:139] Memory required for data: 314000
I0428 20:23:12.230108  2199 layer_factory.hpp:77] Creating layer label_mnist_1_split
I0428 20:23:12.230113  2199 net.cpp:86] Creating Layer label_mnist_1_split
I0428 20:23:12.230116  2199 net.cpp:408] label_mnist_1_split <- label
I0428 20:23:12.230147  2199 net.cpp:382] label_mnist_1_split -> label_mnist_1_split_0
I0428 20:23:12.230155  2199 net.cpp:382] label_mnist_1_split -> label_mnist_1_split_1
I0428 20:23:12.230213  2199 net.cpp:124] Setting up label_mnist_1_split
I0428 20:23:12.230218  2199 net.cpp:131] Top shape: 100 (100)
I0428 20:23:12.230222  2199 net.cpp:131] Top shape: 100 (100)
I0428 20:23:12.230240  2199 net.cpp:139] Memory required for data: 314800
I0428 20:23:12.230243  2199 layer_factory.hpp:77] Creating layer conv0
I0428 20:23:12.230253  2199 net.cpp:86] Creating Layer conv0
I0428 20:23:12.230257  2199 net.cpp:408] conv0 <- data
I0428 20:23:12.230262  2199 net.cpp:382] conv0 -> conv0
I0428 20:23:12.232094  2199 net.cpp:124] Setting up conv0
I0428 20:23:12.232107  2199 net.cpp:131] Top shape: 100 50 24 24 (2880000)
I0428 20:23:12.232111  2199 net.cpp:139] Memory required for data: 11834800
I0428 20:23:12.232120  2199 layer_factory.hpp:77] Creating layer pool0
I0428 20:23:12.232131  2199 net.cpp:86] Creating Layer pool0
I0428 20:23:12.232133  2199 net.cpp:408] pool0 <- conv0
I0428 20:23:12.232138  2199 net.cpp:382] pool0 -> pool0
I0428 20:23:12.232175  2199 net.cpp:124] Setting up pool0
I0428 20:23:12.232182  2199 net.cpp:131] Top shape: 100 50 12 12 (720000)
I0428 20:23:12.232184  2199 net.cpp:139] Memory required for data: 14714800
I0428 20:23:12.232187  2199 layer_factory.hpp:77] Creating layer conv1
I0428 20:23:12.232197  2199 net.cpp:86] Creating Layer conv1
I0428 20:23:12.232199  2199 net.cpp:408] conv1 <- pool0
I0428 20:23:12.232205  2199 net.cpp:382] conv1 -> conv1
I0428 20:23:12.235384  2199 net.cpp:124] Setting up conv1
I0428 20:23:12.235399  2199 net.cpp:131] Top shape: 100 100 8 8 (640000)
I0428 20:23:12.235402  2199 net.cpp:139] Memory required for data: 17274800
I0428 20:23:12.235411  2199 layer_factory.hpp:77] Creating layer pool1
I0428 20:23:12.235417  2199 net.cpp:86] Creating Layer pool1
I0428 20:23:12.235435  2199 net.cpp:408] pool1 <- conv1
I0428 20:23:12.235442  2199 net.cpp:382] pool1 -> pool1
I0428 20:23:12.235505  2199 net.cpp:124] Setting up pool1
I0428 20:23:12.235510  2199 net.cpp:131] Top shape: 100 100 4 4 (160000)
I0428 20:23:12.235513  2199 net.cpp:139] Memory required for data: 17914800
I0428 20:23:12.235517  2199 layer_factory.hpp:77] Creating layer ip1
I0428 20:23:12.235522  2199 net.cpp:86] Creating Layer ip1
I0428 20:23:12.235525  2199 net.cpp:408] ip1 <- pool1
I0428 20:23:12.235530  2199 net.cpp:382] ip1 -> ip1
I0428 20:23:12.235718  2199 net.cpp:124] Setting up ip1
I0428 20:23:12.235735  2199 net.cpp:131] Top shape: 100 10 (1000)
I0428 20:23:12.235740  2199 net.cpp:139] Memory required for data: 17918800
I0428 20:23:12.235761  2199 layer_factory.hpp:77] Creating layer relu1
I0428 20:23:12.235767  2199 net.cpp:86] Creating Layer relu1
I0428 20:23:12.235770  2199 net.cpp:408] relu1 <- ip1
I0428 20:23:12.235788  2199 net.cpp:369] relu1 -> ip1 (in-place)
I0428 20:23:12.235954  2199 net.cpp:124] Setting up relu1
I0428 20:23:12.235962  2199 net.cpp:131] Top shape: 100 10 (1000)
I0428 20:23:12.235965  2199 net.cpp:139] Memory required for data: 17922800
I0428 20:23:12.235968  2199 layer_factory.hpp:77] Creating layer ip2
I0428 20:23:12.235975  2199 net.cpp:86] Creating Layer ip2
I0428 20:23:12.235978  2199 net.cpp:408] ip2 <- ip1
I0428 20:23:12.235991  2199 net.cpp:382] ip2 -> ip2
I0428 20:23:12.236079  2199 net.cpp:124] Setting up ip2
I0428 20:23:12.236086  2199 net.cpp:131] Top shape: 100 10 (1000)
I0428 20:23:12.236088  2199 net.cpp:139] Memory required for data: 17926800
I0428 20:23:12.236093  2199 layer_factory.hpp:77] Creating layer relu2
I0428 20:23:12.236099  2199 net.cpp:86] Creating Layer relu2
I0428 20:23:12.236101  2199 net.cpp:408] relu2 <- ip2
I0428 20:23:12.236105  2199 net.cpp:369] relu2 -> ip2 (in-place)
I0428 20:23:12.236245  2199 net.cpp:124] Setting up relu2
I0428 20:23:12.236253  2199 net.cpp:131] Top shape: 100 10 (1000)
I0428 20:23:12.236256  2199 net.cpp:139] Memory required for data: 17930800
I0428 20:23:12.236259  2199 layer_factory.hpp:77] Creating layer ip3
I0428 20:23:12.236265  2199 net.cpp:86] Creating Layer ip3
I0428 20:23:12.236268  2199 net.cpp:408] ip3 <- ip2
I0428 20:23:12.236274  2199 net.cpp:382] ip3 -> ip3
I0428 20:23:12.236361  2199 net.cpp:124] Setting up ip3
I0428 20:23:12.236385  2199 net.cpp:131] Top shape: 100 10 (1000)
I0428 20:23:12.236388  2199 net.cpp:139] Memory required for data: 17934800
I0428 20:23:12.236395  2199 layer_factory.hpp:77] Creating layer relu3
I0428 20:23:12.236399  2199 net.cpp:86] Creating Layer relu3
I0428 20:23:12.236402  2199 net.cpp:408] relu3 <- ip3
I0428 20:23:12.236405  2199 net.cpp:369] relu3 -> ip3 (in-place)
I0428 20:23:12.237345  2199 net.cpp:124] Setting up relu3
I0428 20:23:12.237357  2199 net.cpp:131] Top shape: 100 10 (1000)
I0428 20:23:12.237361  2199 net.cpp:139] Memory required for data: 17938800
I0428 20:23:12.237365  2199 layer_factory.hpp:77] Creating layer ip3_relu3_0_split
I0428 20:23:12.237370  2199 net.cpp:86] Creating Layer ip3_relu3_0_split
I0428 20:23:12.237372  2199 net.cpp:408] ip3_relu3_0_split <- ip3
I0428 20:23:12.237378  2199 net.cpp:382] ip3_relu3_0_split -> ip3_relu3_0_split_0
I0428 20:23:12.237383  2199 net.cpp:382] ip3_relu3_0_split -> ip3_relu3_0_split_1
I0428 20:23:12.237423  2199 net.cpp:124] Setting up ip3_relu3_0_split
I0428 20:23:12.237429  2199 net.cpp:131] Top shape: 100 10 (1000)
I0428 20:23:12.237432  2199 net.cpp:131] Top shape: 100 10 (1000)
I0428 20:23:12.237435  2199 net.cpp:139] Memory required for data: 17946800
I0428 20:23:12.237437  2199 layer_factory.hpp:77] Creating layer accuracy
I0428 20:23:12.237442  2199 net.cpp:86] Creating Layer accuracy
I0428 20:23:12.237445  2199 net.cpp:408] accuracy <- ip3_relu3_0_split_0
I0428 20:23:12.237457  2199 net.cpp:408] accuracy <- label_mnist_1_split_0
I0428 20:23:12.237460  2199 net.cpp:382] accuracy -> accuracy
…
