…
I0428 20:22:10.644246  1910 net.cpp:296] The NetState phase (0) differed from the phase (1) specified by a rule in layer mnist
I0428 20:22:10.644268  1910 net.cpp:296] The NetState phase (0) differed from the phase (1) specified by a rule in layer accuracy
I0428 20:22:10.644371  1910 net.cpp:53] Initializing net from parameters: 
name: "LeNet"
state {
  phase: TRAIN
  level: 0
  stage: ""
}
layer {
  name: "mnist"
  type: "Data"
  top: "data"
  top: "label"
  include {
    phase: TRAIN
  }
  transform_param {
    scale: 0.00390625
  }
  data_param {
    source: "examples/mnist/mnist_train_lmdb"
    batch_size: 64
    backend: LMDB
  }
}
layer {
  name: "conv0"
  type: "Convolution"
  bottom: "data"
  top: "conv0"
  param {
    lr_mult: 1
  }
  param {
    lr_mult: 2
  }
  convolution_param {
    num_output: 50
    kernel_size: 5
    stride: 1
    weight_filler {
      type: "xavier"
    }
    bias_filler {
      type: "constant"
    }
  }
}
layer {
  name: "pool0"
  type: "Pooling"
  bottom: "conv0"
  top: "pool0"
  pooling_param {
    pool: MAX
    kernel_size: 2
    stride: 2
  }
}
layer {
  name: "conv1"
  type: "Convolution"
  bottom: "pool0"
  top: "conv1"
  param {
    lr_mult: 1
  }
  param {
    lr_mult: 2
  }
  convolution_param {
    num_output: 50
    kernel_size: 5
    stride: 1
    weight_filler {
      type: "xavier"
    }
    bias_filler {
      type: "constant"
    }
  }
}
layer {
  name: "pool1"
  type: "Pooling"
  bottom: "conv1"
  top: "pool1"
  pooling_param {
    pool: MAX
    kernel_size: 2
    stride: 2
  }
}
layer {
  name: "ip1"
  type: "InnerProduct"
  bottom: "pool1"
  top: "ip1"
  param {
    lr_mult: 1
  }
  param {
    lr_mult: 2
  }
  inner_product_param {
    num_output: 50
    weight_filler {
      type: "xavier"
    }
    bias_filler {
      type: "constant"
    }
  }
}
layer {
  name: "relu1"
  type: "ReLU"
  bottom: "ip1"
  top: "ip1"
}
layer {
  name: "ip2"
  type: "InnerProduct"
  bottom: "ip1"
  top: "ip2"
  param {
    lr_mult: 1
  }
  param {
    lr_mult: 2
  }
  inner_product_param {
    num_output: 25
    weight_filler {
      type: "xavier"
    }
    bias_filler {
      type: "constant"
    }
  }
}
layer {
  name: "relu2"
  type: "ReLU"
  bottom: "ip2"
  top: "ip2"
}
layer {
  name: "ip3"
  type: "InnerProduct"
  bottom: "ip2"
  top: "ip3"
  param {
    lr_mult: 1
  }
  param {
    lr_mult: 2
  }
  inner_product_param {
    num_output: 10
    weight_filler {
      type: "xavier"
    }
    bias_filler {
      type: "constant"
    }
  }
}
layer {
  name: "relu3"
  type: "ReLU"
  bottom: "ip3"
  top: "ip3"
}
layer {
  name: "loss"
  type: "SoftmaxWithLoss"
  bottom: "ip3"
  bottom: "label"
  top: "loss"
}
I0428 20:22:10.644450  1910 layer_factory.hpp:77] Creating layer mnist
I0428 20:22:10.644549  1910 db_lmdb.cpp:35] Opened lmdb examples/mnist/mnist_train_lmdb
I0428 20:22:10.644572  1910 net.cpp:86] Creating Layer mnist
I0428 20:22:10.644582  1910 net.cpp:382] mnist -> data
I0428 20:22:10.644603  1910 net.cpp:382] mnist -> label
I0428 20:22:10.645763  1910 data_layer.cpp:45] output data size: 64,1,28,28
I0428 20:22:10.648342  1910 net.cpp:124] Setting up mnist
I0428 20:22:10.648360  1910 net.cpp:131] Top shape: 64 1 28 28 (50176)
I0428 20:22:10.648366  1910 net.cpp:131] Top shape: 64 (64)
I0428 20:22:10.648370  1910 net.cpp:139] Memory required for data: 200960
I0428 20:22:10.648377  1910 layer_factory.hpp:77] Creating layer conv0
I0428 20:22:10.648419  1910 net.cpp:86] Creating Layer conv0
I0428 20:22:10.648442  1910 net.cpp:408] conv0 <- data
I0428 20:22:10.648457  1910 net.cpp:382] conv0 -> conv0
I0428 20:22:10.936714  1910 net.cpp:124] Setting up conv0
I0428 20:22:10.936743  1910 net.cpp:131] Top shape: 64 50 24 24 (1843200)
I0428 20:22:10.936746  1910 net.cpp:139] Memory required for data: 7573760
I0428 20:22:10.936761  1910 layer_factory.hpp:77] Creating layer pool0
I0428 20:22:10.936775  1910 net.cpp:86] Creating Layer pool0
I0428 20:22:10.936780  1910 net.cpp:408] pool0 <- conv0
I0428 20:22:10.936785  1910 net.cpp:382] pool0 -> pool0
I0428 20:22:10.936836  1910 net.cpp:124] Setting up pool0
I0428 20:22:10.936859  1910 net.cpp:131] Top shape: 64 50 12 12 (460800)
I0428 20:22:10.936862  1910 net.cpp:139] Memory required for data: 9416960
I0428 20:22:10.936866  1910 layer_factory.hpp:77] Creating layer conv1
I0428 20:22:10.936877  1910 net.cpp:86] Creating Layer conv1
I0428 20:22:10.936879  1910 net.cpp:408] conv1 <- pool0
I0428 20:22:10.936884  1910 net.cpp:382] conv1 -> conv1
I0428 20:22:10.939157  1910 net.cpp:124] Setting up conv1
I0428 20:22:10.939173  1910 net.cpp:131] Top shape: 64 50 8 8 (204800)
I0428 20:22:10.939177  1910 net.cpp:139] Memory required for data: 10236160
I0428 20:22:10.939185  1910 layer_factory.hpp:77] Creating layer pool1
I0428 20:22:10.939193  1910 net.cpp:86] Creating Layer pool1
I0428 20:22:10.939196  1910 net.cpp:408] pool1 <- conv1
I0428 20:22:10.939203  1910 net.cpp:382] pool1 -> pool1
I0428 20:22:10.939237  1910 net.cpp:124] Setting up pool1
I0428 20:22:10.939244  1910 net.cpp:131] Top shape: 64 50 4 4 (51200)
I0428 20:22:10.939246  1910 net.cpp:139] Memory required for data: 10440960
I0428 20:22:10.939249  1910 layer_factory.hpp:77] Creating layer ip1
I0428 20:22:10.939255  1910 net.cpp:86] Creating Layer ip1
I0428 20:22:10.939258  1910 net.cpp:408] ip1 <- pool1
I0428 20:22:10.939263  1910 net.cpp:382] ip1 -> ip1
I0428 20:22:10.939586  1910 net.cpp:124] Setting up ip1
I0428 20:22:10.939594  1910 net.cpp:131] Top shape: 64 50 (3200)
I0428 20:22:10.939597  1910 net.cpp:139] Memory required for data: 10453760
I0428 20:22:10.939604  1910 layer_factory.hpp:77] Creating layer relu1
I0428 20:22:10.939610  1910 net.cpp:86] Creating Layer relu1
I0428 20:22:10.939613  1910 net.cpp:408] relu1 <- ip1
I0428 20:22:10.939617  1910 net.cpp:369] relu1 -> ip1 (in-place)
I0428 20:22:10.939795  1910 net.cpp:124] Setting up relu1
I0428 20:22:10.939805  1910 net.cpp:131] Top shape: 64 50 (3200)
I0428 20:22:10.939808  1910 net.cpp:139] Memory required for data: 10466560
I0428 20:22:10.939811  1910 layer_factory.hpp:77] Creating layer ip2
I0428 20:22:10.939818  1910 net.cpp:86] Creating Layer ip2
I0428 20:22:10.939821  1910 net.cpp:408] ip2 <- ip1
I0428 20:22:10.939826  1910 net.cpp:382] ip2 -> ip2
I0428 20:22:10.939934  1910 net.cpp:124] Setting up ip2
I0428 20:22:10.939941  1910 net.cpp:131] Top shape: 64 25 (1600)
I0428 20:22:10.939944  1910 net.cpp:139] Memory required for data: 10472960
I0428 20:22:10.939949  1910 layer_factory.hpp:77] Creating layer relu2
I0428 20:22:10.939955  1910 net.cpp:86] Creating Layer relu2
I0428 20:22:10.939959  1910 net.cpp:408] relu2 <- ip2
I0428 20:22:10.939962  1910 net.cpp:369] relu2 -> ip2 (in-place)
I0428 20:22:10.940675  1910 net.cpp:124] Setting up relu2
I0428 20:22:10.940687  1910 net.cpp:131] Top shape: 64 25 (1600)
I0428 20:22:10.940706  1910 net.cpp:139] Memory required for data: 10479360
I0428 20:22:10.940711  1910 layer_factory.hpp:77] Creating layer ip3
I0428 20:22:10.940718  1910 net.cpp:86] Creating Layer ip3
I0428 20:22:10.940723  1910 net.cpp:408] ip3 <- ip2
I0428 20:22:10.940732  1910 net.cpp:382] ip3 -> ip3
I0428 20:22:10.940874  1910 net.cpp:124] Setting up ip3
I0428 20:22:10.940886  1910 net.cpp:131] Top shape: 64 10 (640)
I0428 20:22:10.940888  1910 net.cpp:139] Memory required for data: 10481920
I0428 20:22:10.940896  1910 layer_factory.hpp:77] Creating layer relu3
I0428 20:22:10.940902  1910 net.cpp:86] Creating Layer relu3
I0428 20:22:10.940906  1910 net.cpp:408] relu3 <- ip3
I0428 20:22:10.940909  1910 net.cpp:369] relu3 -> ip3 (in-place)
I0428 20:22:10.941095  1910 net.cpp:124] Setting up relu3
I0428 20:22:10.941119  1910 net.cpp:131] Top shape: 64 10 (640)
I0428 20:22:10.941123  1910 net.cpp:139] Memory required for data: 10484480
I0428 20:22:10.941125  1910 layer_factory.hpp:77] Creating layer loss
I0428 20:22:10.941131  1910 net.cpp:86] Creating Layer loss
I0428 20:22:10.941134  1910 net.cpp:408] loss <- ip3
I0428 20:22:10.941138  1910 net.cpp:408] loss <- label
I0428 20:22:10.941143  1910 net.cpp:382] loss -> loss
I0428 20:22:10.941156  1910 layer_factory.hpp:77] Creating layer loss
…
I0428 20:22:10.941787  1910 solver.cpp:173] Creating test net (#0) specified by net file: ECE595/mnist/train_test/var_everything2/lenet_train_test1399.prototxt
I0428 20:22:10.941814  1910 net.cpp:296] The NetState phase (1) differed from the phase (0) specified by a rule in layer mnist
I0428 20:22:10.941905  1910 net.cpp:53] Initializing net from parameters: 
name: "LeNet"
state {
  phase: TEST
}
layer {
  name: "mnist"
  type: "Data"
  top: "data"
  top: "label"
  include {
    phase: TEST
  }
  transform_param {
    scale: 0.00390625
  }
  data_param {
    source: "examples/mnist/mnist_test_lmdb"
    batch_size: 100
    backend: LMDB
  }
}
layer {
  name: "conv0"
  type: "Convolution"
  bottom: "data"
  top: "conv0"
  param {
    lr_mult: 1
  }
  param {
    lr_mult: 2
  }
  convolution_param {
    num_output: 50
    kernel_size: 5
    stride: 1
    weight_filler {
      type: "xavier"
    }
    bias_filler {
      type: "constant"
    }
  }
}
layer {
  name: "pool0"
  type: "Pooling"
  bottom: "conv0"
  top: "pool0"
  pooling_param {
    pool: MAX
    kernel_size: 2
    stride: 2
  }
}
layer {
  name: "conv1"
  type: "Convolution"
  bottom: "pool0"
  top: "conv1"
  param {
    lr_mult: 1
  }
  param {
    lr_mult: 2
  }
  convolution_param {
    num_output: 50
    kernel_size: 5
    stride: 1
    weight_filler {
      type: "xavier"
    }
    bias_filler {
      type: "constant"
    }
  }
}
layer {
  name: "pool1"
  type: "Pooling"
  bottom: "conv1"
  top: "pool1"
  pooling_param {
    pool: MAX
    kernel_size: 2
    stride: 2
  }
}
layer {
  name: "ip1"
  type: "InnerProduct"
  bottom: "pool1"
  top: "ip1"
  param {
    lr_mult: 1
  }
  param {
    lr_mult: 2
  }
  inner_product_param {
    num_output: 50
    weight_filler {
      type: "xavier"
    }
    bias_filler {
      type: "constant"
    }
  }
}
layer {
  name: "relu1"
  type: "ReLU"
  bottom: "ip1"
  top: "ip1"
}
layer {
  name: "ip2"
  type: "InnerProduct"
  bottom: "ip1"
  top: "ip2"
  param {
    lr_mult: 1
  }
  param {
    lr_mult: 2
  }
  inner_product_param {
    num_output: 25
    weight_filler {
      type: "xavier"
    }
    bias_filler {
      type: "constant"
    }
  }
}
layer {
  name: "relu2"
  type: "ReLU"
  bottom: "ip2"
  top: "ip2"
}
layer {
  name: "ip3"
  type: "InnerProduct"
  bottom: "ip2"
  top: "ip3"
  param {
    lr_mult: 1
  }
  param {
    lr_mult: 2
  }
  inner_product_param {
    num_output: 10
    weight_filler {
      type: "xavier"
    }
    bias_filler {
      type: "constant"
    }
  }
}
layer {
  name: "relu3"
  type: "ReLU"
  bottom: "ip3"
  top: "ip3"
}
layer {
  name: "accuracy"
  type: "Accuracy"
  bottom: "ip3"
  bottom: "label"
  top: "accuracy"
  include {
    phase: TEST
  }
}
layer {
  name: "loss"
  type: "SoftmaxWithLoss"
  bottom: "ip3"
  bottom: "label"
  top: "loss"
}
I0428 20:22:10.941988  1910 layer_factory.hpp:77] Creating layer mnist
I0428 20:22:10.942034  1910 db_lmdb.cpp:35] Opened lmdb examples/mnist/mnist_test_lmdb
I0428 20:22:10.942045  1910 net.cpp:86] Creating Layer mnist
I0428 20:22:10.942049  1910 net.cpp:382] mnist -> data
I0428 20:22:10.942056  1910 net.cpp:382] mnist -> label
I0428 20:22:10.942157  1910 data_layer.cpp:45] output data size: 100,1,28,28
I0428 20:22:10.944077  1910 net.cpp:124] Setting up mnist
I0428 20:22:10.944089  1910 net.cpp:131] Top shape: 100 1 28 28 (78400)
I0428 20:22:10.944095  1910 net.cpp:131] Top shape: 100 (100)
I0428 20:22:10.944098  1910 net.cpp:139] Memory required for data: 314000
I0428 20:22:10.944102  1910 layer_factory.hpp:77] Creating layer label_mnist_1_split
I0428 20:22:10.944108  1910 net.cpp:86] Creating Layer label_mnist_1_split
I0428 20:22:10.944111  1910 net.cpp:408] label_mnist_1_split <- label
I0428 20:22:10.944116  1910 net.cpp:382] label_mnist_1_split -> label_mnist_1_split_0
I0428 20:22:10.944123  1910 net.cpp:382] label_mnist_1_split -> label_mnist_1_split_1
I0428 20:22:10.944159  1910 net.cpp:124] Setting up label_mnist_1_split
I0428 20:22:10.944164  1910 net.cpp:131] Top shape: 100 (100)
I0428 20:22:10.944166  1910 net.cpp:131] Top shape: 100 (100)
I0428 20:22:10.944169  1910 net.cpp:139] Memory required for data: 314800
I0428 20:22:10.944172  1910 layer_factory.hpp:77] Creating layer conv0
I0428 20:22:10.944180  1910 net.cpp:86] Creating Layer conv0
I0428 20:22:10.944183  1910 net.cpp:408] conv0 <- data
I0428 20:22:10.944187  1910 net.cpp:382] conv0 -> conv0
I0428 20:22:10.945966  1910 net.cpp:124] Setting up conv0
I0428 20:22:10.945979  1910 net.cpp:131] Top shape: 100 50 24 24 (2880000)
I0428 20:22:10.945983  1910 net.cpp:139] Memory required for data: 11834800
I0428 20:22:10.945992  1910 layer_factory.hpp:77] Creating layer pool0
I0428 20:22:10.945999  1910 net.cpp:86] Creating Layer pool0
I0428 20:22:10.946002  1910 net.cpp:408] pool0 <- conv0
I0428 20:22:10.946007  1910 net.cpp:382] pool0 -> pool0
I0428 20:22:10.946040  1910 net.cpp:124] Setting up pool0
I0428 20:22:10.946045  1910 net.cpp:131] Top shape: 100 50 12 12 (720000)
I0428 20:22:10.946048  1910 net.cpp:139] Memory required for data: 14714800
I0428 20:22:10.946051  1910 layer_factory.hpp:77] Creating layer conv1
I0428 20:22:10.946059  1910 net.cpp:86] Creating Layer conv1
I0428 20:22:10.946063  1910 net.cpp:408] conv1 <- pool0
I0428 20:22:10.946066  1910 net.cpp:382] conv1 -> conv1
I0428 20:22:10.947937  1910 net.cpp:124] Setting up conv1
I0428 20:22:10.947950  1910 net.cpp:131] Top shape: 100 50 8 8 (320000)
I0428 20:22:10.947955  1910 net.cpp:139] Memory required for data: 15994800
I0428 20:22:10.947963  1910 layer_factory.hpp:77] Creating layer pool1
I0428 20:22:10.947976  1910 net.cpp:86] Creating Layer pool1
I0428 20:22:10.947984  1910 net.cpp:408] pool1 <- conv1
I0428 20:22:10.947991  1910 net.cpp:382] pool1 -> pool1
I0428 20:22:10.948029  1910 net.cpp:124] Setting up pool1
I0428 20:22:10.948034  1910 net.cpp:131] Top shape: 100 50 4 4 (80000)
I0428 20:22:10.948036  1910 net.cpp:139] Memory required for data: 16314800
I0428 20:22:10.948040  1910 layer_factory.hpp:77] Creating layer ip1
I0428 20:22:10.948046  1910 net.cpp:86] Creating Layer ip1
I0428 20:22:10.948050  1910 net.cpp:408] ip1 <- pool1
I0428 20:22:10.948058  1910 net.cpp:382] ip1 -> ip1
I0428 20:22:10.948384  1910 net.cpp:124] Setting up ip1
I0428 20:22:10.948391  1910 net.cpp:131] Top shape: 100 50 (5000)
I0428 20:22:10.948405  1910 net.cpp:139] Memory required for data: 16334800
I0428 20:22:10.948411  1910 layer_factory.hpp:77] Creating layer relu1
I0428 20:22:10.948417  1910 net.cpp:86] Creating Layer relu1
I0428 20:22:10.948421  1910 net.cpp:408] relu1 <- ip1
I0428 20:22:10.948426  1910 net.cpp:369] relu1 -> ip1 (in-place)
I0428 20:22:10.948726  1910 net.cpp:124] Setting up relu1
I0428 20:22:10.948736  1910 net.cpp:131] Top shape: 100 50 (5000)
I0428 20:22:10.948740  1910 net.cpp:139] Memory required for data: 16354800
I0428 20:22:10.948743  1910 layer_factory.hpp:77] Creating layer ip2
I0428 20:22:10.948751  1910 net.cpp:86] Creating Layer ip2
I0428 20:22:10.948757  1910 net.cpp:408] ip2 <- ip1
I0428 20:22:10.948766  1910 net.cpp:382] ip2 -> ip2
I0428 20:22:10.948982  1910 net.cpp:124] Setting up ip2
I0428 20:22:10.949007  1910 net.cpp:131] Top shape: 100 25 (2500)
I0428 20:22:10.949012  1910 net.cpp:139] Memory required for data: 16364800
I0428 20:22:10.949019  1910 layer_factory.hpp:77] Creating layer relu2
I0428 20:22:10.949024  1910 net.cpp:86] Creating Layer relu2
I0428 20:22:10.949039  1910 net.cpp:408] relu2 <- ip2
I0428 20:22:10.949044  1910 net.cpp:369] relu2 -> ip2 (in-place)
I0428 20:22:10.949205  1910 net.cpp:124] Setting up relu2
I0428 20:22:10.949214  1910 net.cpp:131] Top shape: 100 25 (2500)
I0428 20:22:10.949218  1910 net.cpp:139] Memory required for data: 16374800
I0428 20:22:10.949220  1910 layer_factory.hpp:77] Creating layer ip3
I0428 20:22:10.949226  1910 net.cpp:86] Creating Layer ip3
I0428 20:22:10.949229  1910 net.cpp:408] ip3 <- ip2
I0428 20:22:10.949235  1910 net.cpp:382] ip3 -> ip3
I0428 20:22:10.949333  1910 net.cpp:124] Setting up ip3
I0428 20:22:10.949340  1910 net.cpp:131] Top shape: 100 10 (1000)
I0428 20:22:10.949343  1910 net.cpp:139] Memory required for data: 16378800
I0428 20:22:10.949352  1910 layer_factory.hpp:77] Creating layer relu3
I0428 20:22:10.949355  1910 net.cpp:86] Creating Layer relu3
I0428 20:22:10.949358  1910 net.cpp:408] relu3 <- ip3
I0428 20:22:10.949363  1910 net.cpp:369] relu3 -> ip3 (in-place)
I0428 20:22:10.950132  1910 net.cpp:124] Setting up relu3
I0428 20:22:10.950145  1910 net.cpp:131] Top shape: 100 10 (1000)
I0428 20:22:10.950148  1910 net.cpp:139] Memory required for data: 16382800
I0428 20:22:10.950151  1910 layer_factory.hpp:77] Creating layer ip3_relu3_0_split
I0428 20:22:10.950156  1910 net.cpp:86] Creating Layer ip3_relu3_0_split
I0428 20:22:10.950160  1910 net.cpp:408] ip3_relu3_0_split <- ip3
I0428 20:22:10.950166  1910 net.cpp:382] ip3_relu3_0_split -> ip3_relu3_0_split_0
I0428 20:22:10.950176  1910 net.cpp:382] ip3_relu3_0_split -> ip3_relu3_0_split_1
I0428 20:22:10.950234  1910 net.cpp:124] Setting up ip3_relu3_0_split
I0428 20:22:10.950248  1910 net.cpp:131] Top shape: 100 10 (1000)
I0428 20:22:10.950253  1910 net.cpp:131] Top shape: 100 10 (1000)
I0428 20:22:10.950258  1910 net.cpp:139] Memory required for data: 16390800
I0428 20:22:10.950263  1910 layer_factory.hpp:77] Creating layer accuracy
I0428 20:22:10.950269  1910 net.cpp:86] Creating Layer accuracy
I0428 20:22:10.950273  1910 net.cpp:408] accuracy <- ip3_relu3_0_split_0
I0428 20:22:10.950276  1910 net.cpp:408] accuracy <- label_mnist_1_split_0
I0428 20:22:10.950281  1910 net.cpp:382] accuracy -> accuracy
…
