…
I0428 19:39:51.917582 24405 net.cpp:296] The NetState phase (0) differed from the phase (1) specified by a rule in layer mnist
I0428 19:39:51.917603 24405 net.cpp:296] The NetState phase (0) differed from the phase (1) specified by a rule in layer accuracy
I0428 19:39:51.917708 24405 net.cpp:53] Initializing net from parameters: 
name: "LeNet"
state {
  phase: TRAIN
  level: 0
  stage: ""
}
layer {
  name: "mnist"
  type: "Data"
  top: "data"
  top: "label"
  include {
    phase: TRAIN
  }
  transform_param {
    scale: 0.00390625
  }
  data_param {
    source: "examples/mnist/mnist_train_lmdb"
    batch_size: 64
    backend: LMDB
  }
}
layer {
  name: "conv0"
  type: "Convolution"
  bottom: "data"
  top: "conv0"
  param {
    lr_mult: 1
  }
  param {
    lr_mult: 2
  }
  convolution_param {
    num_output: 2
    kernel_size: 5
    stride: 1
    weight_filler {
      type: "xavier"
    }
    bias_filler {
      type: "constant"
    }
  }
}
layer {
  name: "pool0"
  type: "Pooling"
  bottom: "conv0"
  top: "pool0"
  pooling_param {
    pool: MAX
    kernel_size: 2
    stride: 2
  }
}
layer {
  name: "conv1"
  type: "Convolution"
  bottom: "pool0"
  top: "conv1"
  param {
    lr_mult: 1
  }
  param {
    lr_mult: 2
  }
  convolution_param {
    num_output: 5
    kernel_size: 5
    stride: 1
    weight_filler {
      type: "xavier"
    }
    bias_filler {
      type: "constant"
    }
  }
}
layer {
  name: "pool1"
  type: "Pooling"
  bottom: "conv1"
  top: "pool1"
  pooling_param {
    pool: MAX
    kernel_size: 2
    stride: 2
  }
}
layer {
  name: "ip1"
  type: "InnerProduct"
  bottom: "pool1"
  top: "ip1"
  param {
    lr_mult: 1
  }
  param {
    lr_mult: 2
  }
  inner_product_param {
    num_output: 10
    weight_filler {
      type: "xavier"
    }
    bias_filler {
      type: "constant"
    }
  }
}
layer {
  name: "relu1"
  type: "ReLU"
  bottom: "ip1"
  top: "ip1"
}
layer {
  name: "ip2"
  type: "InnerProduct"
  bottom: "ip1"
  top: "ip2"
  param {
    lr_mult: 1
  }
  param {
    lr_mult: 2
  }
  inner_product_param {
    num_output: 10
    weight_filler {
      type: "xavier"
    }
    bias_filler {
      type: "constant"
    }
  }
}
layer {
  name: "relu2"
  type: "ReLU"
  bottom: "ip2"
  top: "ip2"
}
layer {
  name: "loss"
  type: "SoftmaxWithLoss"
  bottom: "ip2"
  bottom: "label"
  top: "loss"
}
I0428 19:39:51.917817 24405 layer_factory.hpp:77] Creating layer mnist
I0428 19:39:51.917948 24405 db_lmdb.cpp:35] Opened lmdb examples/mnist/mnist_train_lmdb
I0428 19:39:51.917984 24405 net.cpp:86] Creating Layer mnist
I0428 19:39:51.917994 24405 net.cpp:382] mnist -> data
I0428 19:39:51.918027 24405 net.cpp:382] mnist -> label
I0428 19:39:51.919261 24405 data_layer.cpp:45] output data size: 64,1,28,28
I0428 19:39:51.921741 24405 net.cpp:124] Setting up mnist
I0428 19:39:51.921764 24405 net.cpp:131] Top shape: 64 1 28 28 (50176)
I0428 19:39:51.921774 24405 net.cpp:131] Top shape: 64 (64)
I0428 19:39:51.921780 24405 net.cpp:139] Memory required for data: 200960
I0428 19:39:51.921793 24405 layer_factory.hpp:77] Creating layer conv0
I0428 19:39:51.921818 24405 net.cpp:86] Creating Layer conv0
I0428 19:39:51.921828 24405 net.cpp:408] conv0 <- data
I0428 19:39:51.921845 24405 net.cpp:382] conv0 -> conv0
I0428 19:39:52.204974 24405 net.cpp:124] Setting up conv0
I0428 19:39:52.205004 24405 net.cpp:131] Top shape: 64 2 24 24 (73728)
I0428 19:39:52.205011 24405 net.cpp:139] Memory required for data: 495872
I0428 19:39:52.205062 24405 layer_factory.hpp:77] Creating layer pool0
I0428 19:39:52.205081 24405 net.cpp:86] Creating Layer pool0
I0428 19:39:52.205088 24405 net.cpp:408] pool0 <- conv0
I0428 19:39:52.205098 24405 net.cpp:382] pool0 -> pool0
I0428 19:39:52.205152 24405 net.cpp:124] Setting up pool0
I0428 19:39:52.205160 24405 net.cpp:131] Top shape: 64 2 12 12 (18432)
I0428 19:39:52.205165 24405 net.cpp:139] Memory required for data: 569600
I0428 19:39:52.205170 24405 layer_factory.hpp:77] Creating layer conv1
I0428 19:39:52.205186 24405 net.cpp:86] Creating Layer conv1
I0428 19:39:52.205193 24405 net.cpp:408] conv1 <- pool0
I0428 19:39:52.205202 24405 net.cpp:382] conv1 -> conv1
I0428 19:39:52.207012 24405 net.cpp:124] Setting up conv1
I0428 19:39:52.207028 24405 net.cpp:131] Top shape: 64 5 8 8 (20480)
I0428 19:39:52.207034 24405 net.cpp:139] Memory required for data: 651520
I0428 19:39:52.207046 24405 layer_factory.hpp:77] Creating layer pool1
I0428 19:39:52.207058 24405 net.cpp:86] Creating Layer pool1
I0428 19:39:52.207064 24405 net.cpp:408] pool1 <- conv1
I0428 19:39:52.207072 24405 net.cpp:382] pool1 -> pool1
I0428 19:39:52.207116 24405 net.cpp:124] Setting up pool1
I0428 19:39:52.207124 24405 net.cpp:131] Top shape: 64 5 4 4 (5120)
I0428 19:39:52.207129 24405 net.cpp:139] Memory required for data: 672000
I0428 19:39:52.207135 24405 layer_factory.hpp:77] Creating layer ip1
I0428 19:39:52.207145 24405 net.cpp:86] Creating Layer ip1
I0428 19:39:52.207150 24405 net.cpp:408] ip1 <- pool1
I0428 19:39:52.207159 24405 net.cpp:382] ip1 -> ip1
I0428 19:39:52.207263 24405 net.cpp:124] Setting up ip1
I0428 19:39:52.207273 24405 net.cpp:131] Top shape: 64 10 (640)
I0428 19:39:52.207278 24405 net.cpp:139] Memory required for data: 674560
I0428 19:39:52.207288 24405 layer_factory.hpp:77] Creating layer relu1
I0428 19:39:52.207301 24405 net.cpp:86] Creating Layer relu1
I0428 19:39:52.207307 24405 net.cpp:408] relu1 <- ip1
I0428 19:39:52.207315 24405 net.cpp:369] relu1 -> ip1 (in-place)
I0428 19:39:52.207481 24405 net.cpp:124] Setting up relu1
I0428 19:39:52.207491 24405 net.cpp:131] Top shape: 64 10 (640)
I0428 19:39:52.207496 24405 net.cpp:139] Memory required for data: 677120
I0428 19:39:52.207501 24405 layer_factory.hpp:77] Creating layer ip2
I0428 19:39:52.207511 24405 net.cpp:86] Creating Layer ip2
I0428 19:39:52.207516 24405 net.cpp:408] ip2 <- ip1
I0428 19:39:52.207525 24405 net.cpp:382] ip2 -> ip2
I0428 19:39:52.207625 24405 net.cpp:124] Setting up ip2
I0428 19:39:52.207633 24405 net.cpp:131] Top shape: 64 10 (640)
I0428 19:39:52.207638 24405 net.cpp:139] Memory required for data: 679680
I0428 19:39:52.207648 24405 layer_factory.hpp:77] Creating layer relu2
I0428 19:39:52.207657 24405 net.cpp:86] Creating Layer relu2
I0428 19:39:52.207662 24405 net.cpp:408] relu2 <- ip2
I0428 19:39:52.207669 24405 net.cpp:369] relu2 -> ip2 (in-place)
I0428 19:39:52.208618 24405 net.cpp:124] Setting up relu2
I0428 19:39:52.208631 24405 net.cpp:131] Top shape: 64 10 (640)
I0428 19:39:52.208637 24405 net.cpp:139] Memory required for data: 682240
I0428 19:39:52.208642 24405 layer_factory.hpp:77] Creating layer loss
I0428 19:39:52.208652 24405 net.cpp:86] Creating Layer loss
I0428 19:39:52.208658 24405 net.cpp:408] loss <- ip2
I0428 19:39:52.208667 24405 net.cpp:408] loss <- label
I0428 19:39:52.208674 24405 net.cpp:382] loss -> loss
I0428 19:39:52.208695 24405 layer_factory.hpp:77] Creating layer loss
…
I0428 19:39:52.209414 24405 solver.cpp:173] Creating test net (#0) specified by net file: ECE595/mnist/train_test/var_everything2/lenet_train_test317.prototxt
I0428 19:39:52.209446 24405 net.cpp:296] The NetState phase (1) differed from the phase (0) specified by a rule in layer mnist
I0428 19:39:52.209537 24405 net.cpp:53] Initializing net from parameters: 
name: "LeNet"
state {
  phase: TEST
}
layer {
  name: "mnist"
  type: "Data"
  top: "data"
  top: "label"
  include {
    phase: TEST
  }
  transform_param {
    scale: 0.00390625
  }
  data_param {
    source: "examples/mnist/mnist_test_lmdb"
    batch_size: 100
    backend: LMDB
  }
}
layer {
  name: "conv0"
  type: "Convolution"
  bottom: "data"
  top: "conv0"
  param {
    lr_mult: 1
  }
  param {
    lr_mult: 2
  }
  convolution_param {
    num_output: 2
    kernel_size: 5
    stride: 1
    weight_filler {
      type: "xavier"
    }
    bias_filler {
      type: "constant"
    }
  }
}
layer {
  name: "pool0"
  type: "Pooling"
  bottom: "conv0"
  top: "pool0"
  pooling_param {
    pool: MAX
    kernel_size: 2
    stride: 2
  }
}
layer {
  name: "conv1"
  type: "Convolution"
  bottom: "pool0"
  top: "conv1"
  param {
    lr_mult: 1
  }
  param {
    lr_mult: 2
  }
  convolution_param {
    num_output: 5
    kernel_size: 5
    stride: 1
    weight_filler {
      type: "xavier"
    }
    bias_filler {
      type: "constant"
    }
  }
}
layer {
  name: "pool1"
  type: "Pooling"
  bottom: "conv1"
  top: "pool1"
  pooling_param {
    pool: MAX
    kernel_size: 2
    stride: 2
  }
}
layer {
  name: "ip1"
  type: "InnerProduct"
  bottom: "pool1"
  top: "ip1"
  param {
    lr_mult: 1
  }
  param {
    lr_mult: 2
  }
  inner_product_param {
    num_output: 10
    weight_filler {
      type: "xavier"
    }
    bias_filler {
      type: "constant"
    }
  }
}
layer {
  name: "relu1"
  type: "ReLU"
  bottom: "ip1"
  top: "ip1"
}
layer {
  name: "ip2"
  type: "InnerProduct"
  bottom: "ip1"
  top: "ip2"
  param {
    lr_mult: 1
  }
  param {
    lr_mult: 2
  }
  inner_product_param {
    num_output: 10
    weight_filler {
      type: "xavier"
    }
    bias_filler {
      type: "constant"
    }
  }
}
layer {
  name: "relu2"
  type: "ReLU"
  bottom: "ip2"
  top: "ip2"
}
layer {
  name: "accuracy"
  type: "Accuracy"
  bottom: "ip2"
  bottom: "label"
  top: "accuracy"
  include {
    phase: TEST
  }
}
layer {
  name: "loss"
  type: "SoftmaxWithLoss"
  bottom: "ip2"
  bottom: "label"
  top: "loss"
}
I0428 19:39:52.209631 24405 layer_factory.hpp:77] Creating layer mnist
I0428 19:39:52.209691 24405 db_lmdb.cpp:35] Opened lmdb examples/mnist/mnist_test_lmdb
I0428 19:39:52.209708 24405 net.cpp:86] Creating Layer mnist
I0428 19:39:52.209715 24405 net.cpp:382] mnist -> data
I0428 19:39:52.209728 24405 net.cpp:382] mnist -> label
I0428 19:39:52.209841 24405 data_layer.cpp:45] output data size: 100,1,28,28
I0428 19:39:52.212000 24405 net.cpp:124] Setting up mnist
I0428 19:39:52.212015 24405 net.cpp:131] Top shape: 100 1 28 28 (78400)
I0428 19:39:52.212023 24405 net.cpp:131] Top shape: 100 (100)
I0428 19:39:52.212028 24405 net.cpp:139] Memory required for data: 314000
I0428 19:39:52.212034 24405 layer_factory.hpp:77] Creating layer label_mnist_1_split
I0428 19:39:52.212044 24405 net.cpp:86] Creating Layer label_mnist_1_split
I0428 19:39:52.212050 24405 net.cpp:408] label_mnist_1_split <- label
I0428 19:39:52.212057 24405 net.cpp:382] label_mnist_1_split -> label_mnist_1_split_0
I0428 19:39:52.212069 24405 net.cpp:382] label_mnist_1_split -> label_mnist_1_split_1
I0428 19:39:52.212117 24405 net.cpp:124] Setting up label_mnist_1_split
I0428 19:39:52.212134 24405 net.cpp:131] Top shape: 100 (100)
I0428 19:39:52.212141 24405 net.cpp:131] Top shape: 100 (100)
I0428 19:39:52.212146 24405 net.cpp:139] Memory required for data: 314800
I0428 19:39:52.212152 24405 layer_factory.hpp:77] Creating layer conv0
I0428 19:39:52.212164 24405 net.cpp:86] Creating Layer conv0
I0428 19:39:52.212172 24405 net.cpp:408] conv0 <- data
I0428 19:39:52.212179 24405 net.cpp:382] conv0 -> conv0
I0428 19:39:52.213778 24405 net.cpp:124] Setting up conv0
I0428 19:39:52.213793 24405 net.cpp:131] Top shape: 100 2 24 24 (115200)
I0428 19:39:52.213799 24405 net.cpp:139] Memory required for data: 775600
I0428 19:39:52.213814 24405 layer_factory.hpp:77] Creating layer pool0
I0428 19:39:52.213824 24405 net.cpp:86] Creating Layer pool0
I0428 19:39:52.213829 24405 net.cpp:408] pool0 <- conv0
I0428 19:39:52.213836 24405 net.cpp:382] pool0 -> pool0
I0428 19:39:52.213879 24405 net.cpp:124] Setting up pool0
I0428 19:39:52.213887 24405 net.cpp:131] Top shape: 100 2 12 12 (28800)
I0428 19:39:52.213892 24405 net.cpp:139] Memory required for data: 890800
I0428 19:39:52.213898 24405 layer_factory.hpp:77] Creating layer conv1
I0428 19:39:52.213912 24405 net.cpp:86] Creating Layer conv1
I0428 19:39:52.213917 24405 net.cpp:408] conv1 <- pool0
I0428 19:39:52.213927 24405 net.cpp:382] conv1 -> conv1
I0428 19:39:52.215385 24405 net.cpp:124] Setting up conv1
I0428 19:39:52.215399 24405 net.cpp:131] Top shape: 100 5 8 8 (32000)
I0428 19:39:52.215405 24405 net.cpp:139] Memory required for data: 1018800
I0428 19:39:52.215418 24405 layer_factory.hpp:77] Creating layer pool1
I0428 19:39:52.215430 24405 net.cpp:86] Creating Layer pool1
I0428 19:39:52.215436 24405 net.cpp:408] pool1 <- conv1
I0428 19:39:52.215445 24405 net.cpp:382] pool1 -> pool1
I0428 19:39:52.215504 24405 net.cpp:124] Setting up pool1
I0428 19:39:52.215513 24405 net.cpp:131] Top shape: 100 5 4 4 (8000)
I0428 19:39:52.215519 24405 net.cpp:139] Memory required for data: 1050800
I0428 19:39:52.215524 24405 layer_factory.hpp:77] Creating layer ip1
I0428 19:39:52.215534 24405 net.cpp:86] Creating Layer ip1
I0428 19:39:52.215539 24405 net.cpp:408] ip1 <- pool1
I0428 19:39:52.215548 24405 net.cpp:382] ip1 -> ip1
I0428 19:39:52.215654 24405 net.cpp:124] Setting up ip1
I0428 19:39:52.215664 24405 net.cpp:131] Top shape: 100 10 (1000)
I0428 19:39:52.215669 24405 net.cpp:139] Memory required for data: 1054800
I0428 19:39:52.215682 24405 layer_factory.hpp:77] Creating layer relu1
I0428 19:39:52.215690 24405 net.cpp:86] Creating Layer relu1
I0428 19:39:52.215711 24405 net.cpp:408] relu1 <- ip1
I0428 19:39:52.215718 24405 net.cpp:369] relu1 -> ip1 (in-place)
I0428 19:39:52.215870 24405 net.cpp:124] Setting up relu1
I0428 19:39:52.215880 24405 net.cpp:131] Top shape: 100 10 (1000)
I0428 19:39:52.215885 24405 net.cpp:139] Memory required for data: 1058800
I0428 19:39:52.215891 24405 layer_factory.hpp:77] Creating layer ip2
I0428 19:39:52.215903 24405 net.cpp:86] Creating Layer ip2
I0428 19:39:52.215909 24405 net.cpp:408] ip2 <- ip1
I0428 19:39:52.215917 24405 net.cpp:382] ip2 -> ip2
I0428 19:39:52.216014 24405 net.cpp:124] Setting up ip2
I0428 19:39:52.216024 24405 net.cpp:131] Top shape: 100 10 (1000)
I0428 19:39:52.216029 24405 net.cpp:139] Memory required for data: 1062800
I0428 19:39:52.216038 24405 layer_factory.hpp:77] Creating layer relu2
I0428 19:39:52.216045 24405 net.cpp:86] Creating Layer relu2
I0428 19:39:52.216050 24405 net.cpp:408] relu2 <- ip2
I0428 19:39:52.216058 24405 net.cpp:369] relu2 -> ip2 (in-place)
I0428 19:39:52.216205 24405 net.cpp:124] Setting up relu2
I0428 19:39:52.216214 24405 net.cpp:131] Top shape: 100 10 (1000)
I0428 19:39:52.216220 24405 net.cpp:139] Memory required for data: 1066800
I0428 19:39:52.216225 24405 layer_factory.hpp:77] Creating layer ip2_relu2_0_split
I0428 19:39:52.216233 24405 net.cpp:86] Creating Layer ip2_relu2_0_split
I0428 19:39:52.216238 24405 net.cpp:408] ip2_relu2_0_split <- ip2
I0428 19:39:52.216244 24405 net.cpp:382] ip2_relu2_0_split -> ip2_relu2_0_split_0
I0428 19:39:52.216282 24405 net.cpp:382] ip2_relu2_0_split -> ip2_relu2_0_split_1
I0428 19:39:52.216328 24405 net.cpp:124] Setting up ip2_relu2_0_split
I0428 19:39:52.216337 24405 net.cpp:131] Top shape: 100 10 (1000)
I0428 19:39:52.216343 24405 net.cpp:131] Top shape: 100 10 (1000)
I0428 19:39:52.216348 24405 net.cpp:139] Memory required for data: 1074800
I0428 19:39:52.216354 24405 layer_factory.hpp:77] Creating layer accuracy
I0428 19:39:52.216362 24405 net.cpp:86] Creating Layer accuracy
I0428 19:39:52.216367 24405 net.cpp:408] accuracy <- ip2_relu2_0_split_0
I0428 19:39:52.216374 24405 net.cpp:408] accuracy <- label_mnist_1_split_0
I0428 19:39:52.216382 24405 net.cpp:382] accuracy -> accuracy
…
