…
I0428 20:39:13.934558  5245 net.cpp:296] The NetState phase (0) differed from the phase (1) specified by a rule in layer mnist
I0428 20:39:13.934578  5245 net.cpp:296] The NetState phase (0) differed from the phase (1) specified by a rule in layer accuracy
I0428 20:39:13.934682  5245 net.cpp:53] Initializing net from parameters: 
name: "LeNet"
state {
  phase: TRAIN
  level: 0
  stage: ""
}
layer {
  name: "mnist"
  type: "Data"
  top: "data"
  top: "label"
  include {
    phase: TRAIN
  }
  transform_param {
    scale: 0.00390625
  }
  data_param {
    source: "examples/mnist/mnist_train_lmdb"
    batch_size: 64
    backend: LMDB
  }
}
layer {
  name: "conv0"
  type: "Convolution"
  bottom: "data"
  top: "conv0"
  param {
    lr_mult: 1
  }
  param {
    lr_mult: 2
  }
  convolution_param {
    num_output: 100
    kernel_size: 5
    stride: 1
    weight_filler {
      type: "xavier"
    }
    bias_filler {
      type: "constant"
    }
  }
}
layer {
  name: "pool0"
  type: "Pooling"
  bottom: "conv0"
  top: "pool0"
  pooling_param {
    pool: MAX
    kernel_size: 2
    stride: 2
  }
}
layer {
  name: "conv1"
  type: "Convolution"
  bottom: "pool0"
  top: "conv1"
  param {
    lr_mult: 1
  }
  param {
    lr_mult: 2
  }
  convolution_param {
    num_output: 100
    kernel_size: 5
    stride: 1
    weight_filler {
      type: "xavier"
    }
    bias_filler {
      type: "constant"
    }
  }
}
layer {
  name: "pool1"
  type: "Pooling"
  bottom: "conv1"
  top: "pool1"
  pooling_param {
    pool: MAX
    kernel_size: 2
    stride: 2
  }
}
layer {
  name: "ip1"
  type: "InnerProduct"
  bottom: "pool1"
  top: "ip1"
  param {
    lr_mult: 1
  }
  param {
    lr_mult: 2
  }
  inner_product_param {
    num_output: 50
    weight_filler {
      type: "xavier"
    }
    bias_filler {
      type: "constant"
    }
  }
}
layer {
  name: "relu1"
  type: "ReLU"
  bottom: "ip1"
  top: "ip1"
}
layer {
  name: "ip2"
  type: "InnerProduct"
  bottom: "ip1"
  top: "ip2"
  param {
    lr_mult: 1
  }
  param {
    lr_mult: 2
  }
  inner_product_param {
    num_output: 50
    weight_filler {
      type: "xavier"
    }
    bias_filler {
      type: "constant"
    }
  }
}
layer {
  name: "relu2"
  type: "ReLU"
  bottom: "ip2"
  top: "ip2"
}
layer {
  name: "ip3"
  type: "InnerProduct"
  bottom: "ip2"
  top: "ip3"
  param {
    lr_mult: 1
  }
  param {
    lr_mult: 2
  }
  inner_product_param {
    num_output: 10
    weight_filler {
      type: "xavier"
    }
    bias_filler {
      type: "constant"
    }
  }
}
layer {
  name: "relu3"
  type: "ReLU"
  bottom: "ip3"
  top: "ip3"
}
layer {
  name: "loss"
  type: "SoftmaxWithLoss"
  bottom: "ip3"
  bottom: "label"
  top: "loss"
}
I0428 20:39:13.934762  5245 layer_factory.hpp:77] Creating layer mnist
I0428 20:39:13.934864  5245 db_lmdb.cpp:35] Opened lmdb examples/mnist/mnist_train_lmdb
I0428 20:39:13.934887  5245 net.cpp:86] Creating Layer mnist
I0428 20:39:13.934896  5245 net.cpp:382] mnist -> data
I0428 20:39:13.934918  5245 net.cpp:382] mnist -> label
I0428 20:39:13.936023  5245 data_layer.cpp:45] output data size: 64,1,28,28
I0428 20:39:13.938742  5245 net.cpp:124] Setting up mnist
I0428 20:39:13.938765  5245 net.cpp:131] Top shape: 64 1 28 28 (50176)
I0428 20:39:13.938771  5245 net.cpp:131] Top shape: 64 (64)
I0428 20:39:13.938774  5245 net.cpp:139] Memory required for data: 200960
I0428 20:39:13.938781  5245 layer_factory.hpp:77] Creating layer conv0
I0428 20:39:13.938818  5245 net.cpp:86] Creating Layer conv0
I0428 20:39:13.938848  5245 net.cpp:408] conv0 <- data
I0428 20:39:13.938861  5245 net.cpp:382] conv0 -> conv0
I0428 20:39:14.201663  5245 net.cpp:124] Setting up conv0
I0428 20:39:14.201689  5245 net.cpp:131] Top shape: 64 100 24 24 (3686400)
I0428 20:39:14.201692  5245 net.cpp:139] Memory required for data: 14946560
I0428 20:39:14.201707  5245 layer_factory.hpp:77] Creating layer pool0
I0428 20:39:14.201720  5245 net.cpp:86] Creating Layer pool0
I0428 20:39:14.201725  5245 net.cpp:408] pool0 <- conv0
I0428 20:39:14.201730  5245 net.cpp:382] pool0 -> pool0
I0428 20:39:14.201776  5245 net.cpp:124] Setting up pool0
I0428 20:39:14.201781  5245 net.cpp:131] Top shape: 64 100 12 12 (921600)
I0428 20:39:14.201783  5245 net.cpp:139] Memory required for data: 18632960
I0428 20:39:14.201786  5245 layer_factory.hpp:77] Creating layer conv1
I0428 20:39:14.201797  5245 net.cpp:86] Creating Layer conv1
I0428 20:39:14.201799  5245 net.cpp:408] conv1 <- pool0
I0428 20:39:14.201804  5245 net.cpp:382] conv1 -> conv1
I0428 20:39:14.205771  5245 net.cpp:124] Setting up conv1
I0428 20:39:14.205786  5245 net.cpp:131] Top shape: 64 100 8 8 (409600)
I0428 20:39:14.205790  5245 net.cpp:139] Memory required for data: 20271360
I0428 20:39:14.205798  5245 layer_factory.hpp:77] Creating layer pool1
I0428 20:39:14.205807  5245 net.cpp:86] Creating Layer pool1
I0428 20:39:14.205811  5245 net.cpp:408] pool1 <- conv1
I0428 20:39:14.205816  5245 net.cpp:382] pool1 -> pool1
I0428 20:39:14.205852  5245 net.cpp:124] Setting up pool1
I0428 20:39:14.205857  5245 net.cpp:131] Top shape: 64 100 4 4 (102400)
I0428 20:39:14.205859  5245 net.cpp:139] Memory required for data: 20680960
I0428 20:39:14.205862  5245 layer_factory.hpp:77] Creating layer ip1
I0428 20:39:14.205870  5245 net.cpp:86] Creating Layer ip1
I0428 20:39:14.205873  5245 net.cpp:408] ip1 <- pool1
I0428 20:39:14.205878  5245 net.cpp:382] ip1 -> ip1
I0428 20:39:14.206394  5245 net.cpp:124] Setting up ip1
I0428 20:39:14.206403  5245 net.cpp:131] Top shape: 64 50 (3200)
I0428 20:39:14.206405  5245 net.cpp:139] Memory required for data: 20693760
I0428 20:39:14.206413  5245 layer_factory.hpp:77] Creating layer relu1
I0428 20:39:14.206420  5245 net.cpp:86] Creating Layer relu1
I0428 20:39:14.206423  5245 net.cpp:408] relu1 <- ip1
I0428 20:39:14.206428  5245 net.cpp:369] relu1 -> ip1 (in-place)
I0428 20:39:14.206593  5245 net.cpp:124] Setting up relu1
I0428 20:39:14.206601  5245 net.cpp:131] Top shape: 64 50 (3200)
I0428 20:39:14.206604  5245 net.cpp:139] Memory required for data: 20706560
I0428 20:39:14.206607  5245 layer_factory.hpp:77] Creating layer ip2
I0428 20:39:14.206614  5245 net.cpp:86] Creating Layer ip2
I0428 20:39:14.206617  5245 net.cpp:408] ip2 <- ip1
I0428 20:39:14.206622  5245 net.cpp:382] ip2 -> ip2
I0428 20:39:14.206732  5245 net.cpp:124] Setting up ip2
I0428 20:39:14.206740  5245 net.cpp:131] Top shape: 64 50 (3200)
I0428 20:39:14.206758  5245 net.cpp:139] Memory required for data: 20719360
I0428 20:39:14.206763  5245 layer_factory.hpp:77] Creating layer relu2
I0428 20:39:14.206771  5245 net.cpp:86] Creating Layer relu2
I0428 20:39:14.206774  5245 net.cpp:408] relu2 <- ip2
I0428 20:39:14.206779  5245 net.cpp:369] relu2 -> ip2 (in-place)
I0428 20:39:14.207502  5245 net.cpp:124] Setting up relu2
I0428 20:39:14.207516  5245 net.cpp:131] Top shape: 64 50 (3200)
I0428 20:39:14.207520  5245 net.cpp:139] Memory required for data: 20732160
I0428 20:39:14.207523  5245 layer_factory.hpp:77] Creating layer ip3
I0428 20:39:14.207530  5245 net.cpp:86] Creating Layer ip3
I0428 20:39:14.207532  5245 net.cpp:408] ip3 <- ip2
I0428 20:39:14.207538  5245 net.cpp:382] ip3 -> ip3
I0428 20:39:14.207643  5245 net.cpp:124] Setting up ip3
I0428 20:39:14.207651  5245 net.cpp:131] Top shape: 64 10 (640)
I0428 20:39:14.207654  5245 net.cpp:139] Memory required for data: 20734720
I0428 20:39:14.207661  5245 layer_factory.hpp:77] Creating layer relu3
I0428 20:39:14.207665  5245 net.cpp:86] Creating Layer relu3
I0428 20:39:14.207669  5245 net.cpp:408] relu3 <- ip3
I0428 20:39:14.207687  5245 net.cpp:369] relu3 -> ip3 (in-place)
I0428 20:39:14.207862  5245 net.cpp:124] Setting up relu3
I0428 20:39:14.207871  5245 net.cpp:131] Top shape: 64 10 (640)
I0428 20:39:14.207875  5245 net.cpp:139] Memory required for data: 20737280
I0428 20:39:14.207877  5245 layer_factory.hpp:77] Creating layer loss
I0428 20:39:14.207883  5245 net.cpp:86] Creating Layer loss
I0428 20:39:14.207886  5245 net.cpp:408] loss <- ip3
I0428 20:39:14.207891  5245 net.cpp:408] loss <- label
I0428 20:39:14.207896  5245 net.cpp:382] loss -> loss
I0428 20:39:14.207909  5245 layer_factory.hpp:77] Creating layer loss
…
I0428 20:39:14.208576  5245 solver.cpp:173] Creating test net (#0) specified by net file: ECE595/mnist/train_test/var_everything2/lenet_train_test1676.prototxt
I0428 20:39:14.208618  5245 net.cpp:296] The NetState phase (1) differed from the phase (0) specified by a rule in layer mnist
I0428 20:39:14.208714  5245 net.cpp:53] Initializing net from parameters: 
name: "LeNet"
state {
  phase: TEST
}
layer {
  name: "mnist"
  type: "Data"
  top: "data"
  top: "label"
  include {
    phase: TEST
  }
  transform_param {
    scale: 0.00390625
  }
  data_param {
    source: "examples/mnist/mnist_test_lmdb"
    batch_size: 100
    backend: LMDB
  }
}
layer {
  name: "conv0"
  type: "Convolution"
  bottom: "data"
  top: "conv0"
  param {
    lr_mult: 1
  }
  param {
    lr_mult: 2
  }
  convolution_param {
    num_output: 100
    kernel_size: 5
    stride: 1
    weight_filler {
      type: "xavier"
    }
    bias_filler {
      type: "constant"
    }
  }
}
layer {
  name: "pool0"
  type: "Pooling"
  bottom: "conv0"
  top: "pool0"
  pooling_param {
    pool: MAX
    kernel_size: 2
    stride: 2
  }
}
layer {
  name: "conv1"
  type: "Convolution"
  bottom: "pool0"
  top: "conv1"
  param {
    lr_mult: 1
  }
  param {
    lr_mult: 2
  }
  convolution_param {
    num_output: 100
    kernel_size: 5
    stride: 1
    weight_filler {
      type: "xavier"
    }
    bias_filler {
      type: "constant"
    }
  }
}
layer {
  name: "pool1"
  type: "Pooling"
  bottom: "conv1"
  top: "pool1"
  pooling_param {
    pool: MAX
    kernel_size: 2
    stride: 2
  }
}
layer {
  name: "ip1"
  type: "InnerProduct"
  bottom: "pool1"
  top: "ip1"
  param {
    lr_mult: 1
  }
  param {
    lr_mult: 2
  }
  inner_product_param {
    num_output: 50
    weight_filler {
      type: "xavier"
    }
    bias_filler {
      type: "constant"
    }
  }
}
layer {
  name: "relu1"
  type: "ReLU"
  bottom: "ip1"
  top: "ip1"
}
layer {
  name: "ip2"
  type: "InnerProduct"
  bottom: "ip1"
  top: "ip2"
  param {
    lr_mult: 1
  }
  param {
    lr_mult: 2
  }
  inner_product_param {
    num_output: 50
    weight_filler {
      type: "xavier"
    }
    bias_filler {
      type: "constant"
    }
  }
}
layer {
  name: "relu2"
  type: "ReLU"
  bottom: "ip2"
  top: "ip2"
}
layer {
  name: "ip3"
  type: "InnerProduct"
  bottom: "ip2"
  top: "ip3"
  param {
    lr_mult: 1
  }
  param {
    lr_mult: 2
  }
  inner_product_param {
    num_output: 10
    weight_filler {
      type: "xavier"
    }
    bias_filler {
      type: "constant"
    }
  }
}
layer {
  name: "relu3"
  type: "ReLU"
  bottom: "ip3"
  top: "ip3"
}
layer {
  name: "accuracy"
  type: "Accuracy"
  bottom: "ip3"
  bottom: "label"
  top: "accuracy"
  include {
    phase: TEST
  }
}
layer {
  name: "loss"
  type: "SoftmaxWithLoss"
  bottom: "ip3"
  bottom: "label"
  top: "loss"
}
I0428 20:39:14.208796  5245 layer_factory.hpp:77] Creating layer mnist
I0428 20:39:14.208881  5245 db_lmdb.cpp:35] Opened lmdb examples/mnist/mnist_test_lmdb
I0428 20:39:14.208900  5245 net.cpp:86] Creating Layer mnist
I0428 20:39:14.208909  5245 net.cpp:382] mnist -> data
I0428 20:39:14.208917  5245 net.cpp:382] mnist -> label
I0428 20:39:14.209017  5245 data_layer.cpp:45] output data size: 100,1,28,28
I0428 20:39:14.210904  5245 net.cpp:124] Setting up mnist
I0428 20:39:14.210947  5245 net.cpp:131] Top shape: 100 1 28 28 (78400)
I0428 20:39:14.210952  5245 net.cpp:131] Top shape: 100 (100)
I0428 20:39:14.210969  5245 net.cpp:139] Memory required for data: 314000
I0428 20:39:14.210973  5245 layer_factory.hpp:77] Creating layer label_mnist_1_split
I0428 20:39:14.210979  5245 net.cpp:86] Creating Layer label_mnist_1_split
I0428 20:39:14.210983  5245 net.cpp:408] label_mnist_1_split <- label
I0428 20:39:14.210990  5245 net.cpp:382] label_mnist_1_split -> label_mnist_1_split_0
I0428 20:39:14.210996  5245 net.cpp:382] label_mnist_1_split -> label_mnist_1_split_1
I0428 20:39:14.211040  5245 net.cpp:124] Setting up label_mnist_1_split
I0428 20:39:14.211046  5245 net.cpp:131] Top shape: 100 (100)
I0428 20:39:14.211050  5245 net.cpp:131] Top shape: 100 (100)
I0428 20:39:14.211052  5245 net.cpp:139] Memory required for data: 314800
I0428 20:39:14.211055  5245 layer_factory.hpp:77] Creating layer conv0
I0428 20:39:14.211063  5245 net.cpp:86] Creating Layer conv0
I0428 20:39:14.211067  5245 net.cpp:408] conv0 <- data
I0428 20:39:14.211072  5245 net.cpp:382] conv0 -> conv0
I0428 20:39:14.212877  5245 net.cpp:124] Setting up conv0
I0428 20:39:14.212893  5245 net.cpp:131] Top shape: 100 100 24 24 (5760000)
I0428 20:39:14.212896  5245 net.cpp:139] Memory required for data: 23354800
I0428 20:39:14.212905  5245 layer_factory.hpp:77] Creating layer pool0
I0428 20:39:14.212913  5245 net.cpp:86] Creating Layer pool0
I0428 20:39:14.212916  5245 net.cpp:408] pool0 <- conv0
I0428 20:39:14.212921  5245 net.cpp:382] pool0 -> pool0
I0428 20:39:14.212962  5245 net.cpp:124] Setting up pool0
I0428 20:39:14.212980  5245 net.cpp:131] Top shape: 100 100 12 12 (1440000)
I0428 20:39:14.212985  5245 net.cpp:139] Memory required for data: 29114800
I0428 20:39:14.212987  5245 layer_factory.hpp:77] Creating layer conv1
I0428 20:39:14.212997  5245 net.cpp:86] Creating Layer conv1
I0428 20:39:14.213001  5245 net.cpp:408] conv1 <- pool0
I0428 20:39:14.213007  5245 net.cpp:382] conv1 -> conv1
I0428 20:39:14.215911  5245 net.cpp:124] Setting up conv1
I0428 20:39:14.215924  5245 net.cpp:131] Top shape: 100 100 8 8 (640000)
I0428 20:39:14.215929  5245 net.cpp:139] Memory required for data: 31674800
I0428 20:39:14.215937  5245 layer_factory.hpp:77] Creating layer pool1
I0428 20:39:14.215945  5245 net.cpp:86] Creating Layer pool1
I0428 20:39:14.215947  5245 net.cpp:408] pool1 <- conv1
I0428 20:39:14.215953  5245 net.cpp:382] pool1 -> pool1
I0428 20:39:14.215998  5245 net.cpp:124] Setting up pool1
I0428 20:39:14.216009  5245 net.cpp:131] Top shape: 100 100 4 4 (160000)
I0428 20:39:14.216012  5245 net.cpp:139] Memory required for data: 32314800
I0428 20:39:14.216015  5245 layer_factory.hpp:77] Creating layer ip1
I0428 20:39:14.216022  5245 net.cpp:86] Creating Layer ip1
I0428 20:39:14.216025  5245 net.cpp:408] ip1 <- pool1
I0428 20:39:14.216029  5245 net.cpp:382] ip1 -> ip1
I0428 20:39:14.216569  5245 net.cpp:124] Setting up ip1
I0428 20:39:14.216588  5245 net.cpp:131] Top shape: 100 50 (5000)
I0428 20:39:14.216603  5245 net.cpp:139] Memory required for data: 32334800
I0428 20:39:14.216610  5245 layer_factory.hpp:77] Creating layer relu1
I0428 20:39:14.216617  5245 net.cpp:86] Creating Layer relu1
I0428 20:39:14.216627  5245 net.cpp:408] relu1 <- ip1
I0428 20:39:14.216634  5245 net.cpp:369] relu1 -> ip1 (in-place)
I0428 20:39:14.216835  5245 net.cpp:124] Setting up relu1
I0428 20:39:14.216845  5245 net.cpp:131] Top shape: 100 50 (5000)
I0428 20:39:14.216866  5245 net.cpp:139] Memory required for data: 32354800
I0428 20:39:14.216869  5245 layer_factory.hpp:77] Creating layer ip2
I0428 20:39:14.216894  5245 net.cpp:86] Creating Layer ip2
I0428 20:39:14.216900  5245 net.cpp:408] ip2 <- ip1
I0428 20:39:14.216905  5245 net.cpp:382] ip2 -> ip2
I0428 20:39:14.217077  5245 net.cpp:124] Setting up ip2
I0428 20:39:14.217087  5245 net.cpp:131] Top shape: 100 50 (5000)
I0428 20:39:14.217089  5245 net.cpp:139] Memory required for data: 32374800
I0428 20:39:14.217095  5245 layer_factory.hpp:77] Creating layer relu2
I0428 20:39:14.217103  5245 net.cpp:86] Creating Layer relu2
I0428 20:39:14.217110  5245 net.cpp:408] relu2 <- ip2
I0428 20:39:14.217116  5245 net.cpp:369] relu2 -> ip2 (in-place)
I0428 20:39:14.217321  5245 net.cpp:124] Setting up relu2
I0428 20:39:14.217330  5245 net.cpp:131] Top shape: 100 50 (5000)
I0428 20:39:14.217334  5245 net.cpp:139] Memory required for data: 32394800
I0428 20:39:14.217336  5245 layer_factory.hpp:77] Creating layer ip3
I0428 20:39:14.217341  5245 net.cpp:86] Creating Layer ip3
I0428 20:39:14.217345  5245 net.cpp:408] ip3 <- ip2
I0428 20:39:14.217353  5245 net.cpp:382] ip3 -> ip3
I0428 20:39:14.217485  5245 net.cpp:124] Setting up ip3
I0428 20:39:14.217494  5245 net.cpp:131] Top shape: 100 10 (1000)
I0428 20:39:14.217496  5245 net.cpp:139] Memory required for data: 32398800
I0428 20:39:14.217504  5245 layer_factory.hpp:77] Creating layer relu3
I0428 20:39:14.217520  5245 net.cpp:86] Creating Layer relu3
I0428 20:39:14.217523  5245 net.cpp:408] relu3 <- ip3
I0428 20:39:14.217527  5245 net.cpp:369] relu3 -> ip3 (in-place)
I0428 20:39:14.218331  5245 net.cpp:124] Setting up relu3
I0428 20:39:14.218343  5245 net.cpp:131] Top shape: 100 10 (1000)
I0428 20:39:14.218363  5245 net.cpp:139] Memory required for data: 32402800
I0428 20:39:14.218365  5245 layer_factory.hpp:77] Creating layer ip3_relu3_0_split
I0428 20:39:14.218371  5245 net.cpp:86] Creating Layer ip3_relu3_0_split
I0428 20:39:14.218375  5245 net.cpp:408] ip3_relu3_0_split <- ip3
I0428 20:39:14.218381  5245 net.cpp:382] ip3_relu3_0_split -> ip3_relu3_0_split_0
I0428 20:39:14.218387  5245 net.cpp:382] ip3_relu3_0_split -> ip3_relu3_0_split_1
I0428 20:39:14.218426  5245 net.cpp:124] Setting up ip3_relu3_0_split
I0428 20:39:14.218432  5245 net.cpp:131] Top shape: 100 10 (1000)
I0428 20:39:14.218437  5245 net.cpp:131] Top shape: 100 10 (1000)
I0428 20:39:14.218442  5245 net.cpp:139] Memory required for data: 32410800
I0428 20:39:14.218447  5245 layer_factory.hpp:77] Creating layer accuracy
I0428 20:39:14.218452  5245 net.cpp:86] Creating Layer accuracy
I0428 20:39:14.218456  5245 net.cpp:408] accuracy <- ip3_relu3_0_split_0
I0428 20:39:14.218461  5245 net.cpp:408] accuracy <- label_mnist_1_split_0
I0428 20:39:14.218477  5245 net.cpp:382] accuracy -> accuracy
…
