…
I0428 20:30:57.399693  3881 net.cpp:296] The NetState phase (0) differed from the phase (1) specified by a rule in layer mnist
I0428 20:30:57.399713  3881 net.cpp:296] The NetState phase (0) differed from the phase (1) specified by a rule in layer accuracy
I0428 20:30:57.399806  3881 net.cpp:53] Initializing net from parameters: 
name: "LeNet"
state {
  phase: TRAIN
  level: 0
  stage: ""
}
layer {
  name: "mnist"
  type: "Data"
  top: "data"
  top: "label"
  include {
    phase: TRAIN
  }
  transform_param {
    scale: 0.00390625
  }
  data_param {
    source: "examples/mnist/mnist_train_lmdb"
    batch_size: 64
    backend: LMDB
  }
}
layer {
  name: "conv0"
  type: "Convolution"
  bottom: "data"
  top: "conv0"
  param {
    lr_mult: 1
  }
  param {
    lr_mult: 2
  }
  convolution_param {
    num_output: 100
    kernel_size: 5
    stride: 1
    weight_filler {
      type: "xavier"
    }
    bias_filler {
      type: "constant"
    }
  }
}
layer {
  name: "pool0"
  type: "Pooling"
  bottom: "conv0"
  top: "pool0"
  pooling_param {
    pool: MAX
    kernel_size: 2
    stride: 2
  }
}
layer {
  name: "conv1"
  type: "Convolution"
  bottom: "pool0"
  top: "conv1"
  param {
    lr_mult: 1
  }
  param {
    lr_mult: 2
  }
  convolution_param {
    num_output: 10
    kernel_size: 5
    stride: 1
    weight_filler {
      type: "xavier"
    }
    bias_filler {
      type: "constant"
    }
  }
}
layer {
  name: "pool1"
  type: "Pooling"
  bottom: "conv1"
  top: "pool1"
  pooling_param {
    pool: MAX
    kernel_size: 2
    stride: 2
  }
}
layer {
  name: "ip1"
  type: "InnerProduct"
  bottom: "pool1"
  top: "ip1"
  param {
    lr_mult: 1
  }
  param {
    lr_mult: 2
  }
  inner_product_param {
    num_output: 25
    weight_filler {
      type: "xavier"
    }
    bias_filler {
      type: "constant"
    }
  }
}
layer {
  name: "relu1"
  type: "ReLU"
  bottom: "ip1"
  top: "ip1"
}
layer {
  name: "ip2"
  type: "InnerProduct"
  bottom: "ip1"
  top: "ip2"
  param {
    lr_mult: 1
  }
  param {
    lr_mult: 2
  }
  inner_product_param {
    num_output: 25
    weight_filler {
      type: "xavier"
    }
    bias_filler {
      type: "constant"
    }
  }
}
layer {
  name: "relu2"
  type: "ReLU"
  bottom: "ip2"
  top: "ip2"
}
layer {
  name: "ip3"
  type: "InnerProduct"
  bottom: "ip2"
  top: "ip3"
  param {
    lr_mult: 1
  }
  param {
    lr_mult: 2
  }
  inner_product_param {
    num_output: 10
    weight_filler {
      type: "xavier"
    }
    bias_filler {
      type: "constant"
    }
  }
}
layer {
  name: "relu3"
  type: "ReLU"
  bottom: "ip3"
  top: "ip3"
}
layer {
  name: "loss"
  type: "SoftmaxWithLoss"
  bottom: "ip3"
  bottom: "label"
  top: "loss"
}
I0428 20:30:57.399927  3881 layer_factory.hpp:77] Creating layer mnist
I0428 20:30:57.400034  3881 db_lmdb.cpp:35] Opened lmdb examples/mnist/mnist_train_lmdb
I0428 20:30:57.400063  3881 net.cpp:86] Creating Layer mnist
I0428 20:30:57.400073  3881 net.cpp:382] mnist -> data
I0428 20:30:57.400099  3881 net.cpp:382] mnist -> label
I0428 20:30:57.401306  3881 data_layer.cpp:45] output data size: 64,1,28,28
I0428 20:30:57.403468  3881 net.cpp:124] Setting up mnist
I0428 20:30:57.403501  3881 net.cpp:131] Top shape: 64 1 28 28 (50176)
I0428 20:30:57.403518  3881 net.cpp:131] Top shape: 64 (64)
I0428 20:30:57.403528  3881 net.cpp:139] Memory required for data: 200960
I0428 20:30:57.403537  3881 layer_factory.hpp:77] Creating layer conv0
I0428 20:30:57.403558  3881 net.cpp:86] Creating Layer conv0
I0428 20:30:57.403578  3881 net.cpp:408] conv0 <- data
I0428 20:30:57.403594  3881 net.cpp:382] conv0 -> conv0
I0428 20:30:57.631991  3881 net.cpp:124] Setting up conv0
I0428 20:30:57.632019  3881 net.cpp:131] Top shape: 64 100 24 24 (3686400)
I0428 20:30:57.632024  3881 net.cpp:139] Memory required for data: 14946560
I0428 20:30:57.632042  3881 layer_factory.hpp:77] Creating layer pool0
I0428 20:30:57.632057  3881 net.cpp:86] Creating Layer pool0
I0428 20:30:57.632064  3881 net.cpp:408] pool0 <- conv0
I0428 20:30:57.632072  3881 net.cpp:382] pool0 -> pool0
I0428 20:30:57.632146  3881 net.cpp:124] Setting up pool0
I0428 20:30:57.632155  3881 net.cpp:131] Top shape: 64 100 12 12 (921600)
I0428 20:30:57.632160  3881 net.cpp:139] Memory required for data: 18632960
I0428 20:30:57.632165  3881 layer_factory.hpp:77] Creating layer conv1
I0428 20:30:57.632180  3881 net.cpp:86] Creating Layer conv1
I0428 20:30:57.632186  3881 net.cpp:408] conv1 <- pool0
I0428 20:30:57.632194  3881 net.cpp:382] conv1 -> conv1
I0428 20:30:57.634346  3881 net.cpp:124] Setting up conv1
I0428 20:30:57.634363  3881 net.cpp:131] Top shape: 64 10 8 8 (40960)
I0428 20:30:57.634369  3881 net.cpp:139] Memory required for data: 18796800
I0428 20:30:57.634398  3881 layer_factory.hpp:77] Creating layer pool1
I0428 20:30:57.634410  3881 net.cpp:86] Creating Layer pool1
I0428 20:30:57.634418  3881 net.cpp:408] pool1 <- conv1
I0428 20:30:57.634425  3881 net.cpp:382] pool1 -> pool1
I0428 20:30:57.634472  3881 net.cpp:124] Setting up pool1
I0428 20:30:57.634483  3881 net.cpp:131] Top shape: 64 10 4 4 (10240)
I0428 20:30:57.634488  3881 net.cpp:139] Memory required for data: 18837760
I0428 20:30:57.634495  3881 layer_factory.hpp:77] Creating layer ip1
I0428 20:30:57.634506  3881 net.cpp:86] Creating Layer ip1
I0428 20:30:57.634517  3881 net.cpp:408] ip1 <- pool1
I0428 20:30:57.634526  3881 net.cpp:382] ip1 -> ip1
I0428 20:30:57.634685  3881 net.cpp:124] Setting up ip1
I0428 20:30:57.634694  3881 net.cpp:131] Top shape: 64 25 (1600)
I0428 20:30:57.634699  3881 net.cpp:139] Memory required for data: 18844160
I0428 20:30:57.634711  3881 layer_factory.hpp:77] Creating layer relu1
I0428 20:30:57.634723  3881 net.cpp:86] Creating Layer relu1
I0428 20:30:57.634732  3881 net.cpp:408] relu1 <- ip1
I0428 20:30:57.634739  3881 net.cpp:369] relu1 -> ip1 (in-place)
I0428 20:30:57.634919  3881 net.cpp:124] Setting up relu1
I0428 20:30:57.634929  3881 net.cpp:131] Top shape: 64 25 (1600)
I0428 20:30:57.634934  3881 net.cpp:139] Memory required for data: 18850560
I0428 20:30:57.634939  3881 layer_factory.hpp:77] Creating layer ip2
I0428 20:30:57.634948  3881 net.cpp:86] Creating Layer ip2
I0428 20:30:57.634953  3881 net.cpp:408] ip2 <- ip1
I0428 20:30:57.634963  3881 net.cpp:382] ip2 -> ip2
I0428 20:30:57.635074  3881 net.cpp:124] Setting up ip2
I0428 20:30:57.635083  3881 net.cpp:131] Top shape: 64 25 (1600)
I0428 20:30:57.635087  3881 net.cpp:139] Memory required for data: 18856960
I0428 20:30:57.635097  3881 layer_factory.hpp:77] Creating layer relu2
I0428 20:30:57.635105  3881 net.cpp:86] Creating Layer relu2
I0428 20:30:57.635110  3881 net.cpp:408] relu2 <- ip2
I0428 20:30:57.635118  3881 net.cpp:369] relu2 -> ip2 (in-place)
I0428 20:30:57.635910  3881 net.cpp:124] Setting up relu2
I0428 20:30:57.635923  3881 net.cpp:131] Top shape: 64 25 (1600)
I0428 20:30:57.635929  3881 net.cpp:139] Memory required for data: 18863360
I0428 20:30:57.635934  3881 layer_factory.hpp:77] Creating layer ip3
I0428 20:30:57.635943  3881 net.cpp:86] Creating Layer ip3
I0428 20:30:57.635949  3881 net.cpp:408] ip3 <- ip2
I0428 20:30:57.635957  3881 net.cpp:382] ip3 -> ip3
I0428 20:30:57.636071  3881 net.cpp:124] Setting up ip3
I0428 20:30:57.636081  3881 net.cpp:131] Top shape: 64 10 (640)
I0428 20:30:57.636085  3881 net.cpp:139] Memory required for data: 18865920
I0428 20:30:57.636098  3881 layer_factory.hpp:77] Creating layer relu3
I0428 20:30:57.636107  3881 net.cpp:86] Creating Layer relu3
I0428 20:30:57.636127  3881 net.cpp:408] relu3 <- ip3
I0428 20:30:57.636134  3881 net.cpp:369] relu3 -> ip3 (in-place)
I0428 20:30:57.636293  3881 net.cpp:124] Setting up relu3
I0428 20:30:57.636303  3881 net.cpp:131] Top shape: 64 10 (640)
I0428 20:30:57.636307  3881 net.cpp:139] Memory required for data: 18868480
I0428 20:30:57.636312  3881 layer_factory.hpp:77] Creating layer loss
I0428 20:30:57.636320  3881 net.cpp:86] Creating Layer loss
I0428 20:30:57.636327  3881 net.cpp:408] loss <- ip3
I0428 20:30:57.636332  3881 net.cpp:408] loss <- label
I0428 20:30:57.636340  3881 net.cpp:382] loss -> loss
I0428 20:30:57.636363  3881 layer_factory.hpp:77] Creating layer loss
…
I0428 20:30:57.637073  3881 solver.cpp:173] Creating test net (#0) specified by net file: ECE595/mnist/train_test/var_everything2/lenet_train_test1547.prototxt
I0428 20:30:57.637107  3881 net.cpp:296] The NetState phase (1) differed from the phase (0) specified by a rule in layer mnist
I0428 20:30:57.637225  3881 net.cpp:53] Initializing net from parameters: 
name: "LeNet"
state {
  phase: TEST
}
layer {
  name: "mnist"
  type: "Data"
  top: "data"
  top: "label"
  include {
    phase: TEST
  }
  transform_param {
    scale: 0.00390625
  }
  data_param {
    source: "examples/mnist/mnist_test_lmdb"
    batch_size: 100
    backend: LMDB
  }
}
layer {
  name: "conv0"
  type: "Convolution"
  bottom: "data"
  top: "conv0"
  param {
    lr_mult: 1
  }
  param {
    lr_mult: 2
  }
  convolution_param {
    num_output: 100
    kernel_size: 5
    stride: 1
    weight_filler {
      type: "xavier"
    }
    bias_filler {
      type: "constant"
    }
  }
}
layer {
  name: "pool0"
  type: "Pooling"
  bottom: "conv0"
  top: "pool0"
  pooling_param {
    pool: MAX
    kernel_size: 2
    stride: 2
  }
}
layer {
  name: "conv1"
  type: "Convolution"
  bottom: "pool0"
  top: "conv1"
  param {
    lr_mult: 1
  }
  param {
    lr_mult: 2
  }
  convolution_param {
    num_output: 10
    kernel_size: 5
    stride: 1
    weight_filler {
      type: "xavier"
    }
    bias_filler {
      type: "constant"
    }
  }
}
layer {
  name: "pool1"
  type: "Pooling"
  bottom: "conv1"
  top: "pool1"
  pooling_param {
    pool: MAX
    kernel_size: 2
    stride: 2
  }
}
layer {
  name: "ip1"
  type: "InnerProduct"
  bottom: "pool1"
  top: "ip1"
  param {
    lr_mult: 1
  }
  param {
    lr_mult: 2
  }
  inner_product_param {
    num_output: 25
    weight_filler {
      type: "xavier"
    }
    bias_filler {
      type: "constant"
    }
  }
}
layer {
  name: "relu1"
  type: "ReLU"
  bottom: "ip1"
  top: "ip1"
}
layer {
  name: "ip2"
  type: "InnerProduct"
  bottom: "ip1"
  top: "ip2"
  param {
    lr_mult: 1
  }
  param {
    lr_mult: 2
  }
  inner_product_param {
    num_output: 25
    weight_filler {
      type: "xavier"
    }
    bias_filler {
      type: "constant"
    }
  }
}
layer {
  name: "relu2"
  type: "ReLU"
  bottom: "ip2"
  top: "ip2"
}
layer {
  name: "ip3"
  type: "InnerProduct"
  bottom: "ip2"
  top: "ip3"
  param {
    lr_mult: 1
  }
  param {
    lr_mult: 2
  }
  inner_product_param {
    num_output: 10
    weight_filler {
      type: "xavier"
    }
    bias_filler {
      type: "constant"
    }
  }
}
layer {
  name: "relu3"
  type: "ReLU"
  bottom: "ip3"
  top: "ip3"
}
layer {
  name: "accuracy"
  type: "Accuracy"
  bottom: "ip3"
  bottom: "label"
  top: "accuracy"
  include {
    phase: TEST
  }
}
layer {
  name: "loss"
  type: "SoftmaxWithLoss"
  bottom: "ip3"
  bottom: "label"
  top: "loss"
}
I0428 20:30:57.637332  3881 layer_factory.hpp:77] Creating layer mnist
I0428 20:30:57.637387  3881 db_lmdb.cpp:35] Opened lmdb examples/mnist/mnist_test_lmdb
I0428 20:30:57.637404  3881 net.cpp:86] Creating Layer mnist
I0428 20:30:57.637411  3881 net.cpp:382] mnist -> data
I0428 20:30:57.637423  3881 net.cpp:382] mnist -> label
I0428 20:30:57.637544  3881 data_layer.cpp:45] output data size: 100,1,28,28
I0428 20:30:57.639761  3881 net.cpp:124] Setting up mnist
I0428 20:30:57.639807  3881 net.cpp:131] Top shape: 100 1 28 28 (78400)
I0428 20:30:57.639816  3881 net.cpp:131] Top shape: 100 (100)
I0428 20:30:57.639822  3881 net.cpp:139] Memory required for data: 314000
I0428 20:30:57.639828  3881 layer_factory.hpp:77] Creating layer label_mnist_1_split
I0428 20:30:57.639842  3881 net.cpp:86] Creating Layer label_mnist_1_split
I0428 20:30:57.639849  3881 net.cpp:408] label_mnist_1_split <- label
I0428 20:30:57.639858  3881 net.cpp:382] label_mnist_1_split -> label_mnist_1_split_0
I0428 20:30:57.639869  3881 net.cpp:382] label_mnist_1_split -> label_mnist_1_split_1
I0428 20:30:57.639976  3881 net.cpp:124] Setting up label_mnist_1_split
I0428 20:30:57.639984  3881 net.cpp:131] Top shape: 100 (100)
I0428 20:30:57.639991  3881 net.cpp:131] Top shape: 100 (100)
I0428 20:30:57.639995  3881 net.cpp:139] Memory required for data: 314800
I0428 20:30:57.640000  3881 layer_factory.hpp:77] Creating layer conv0
I0428 20:30:57.640012  3881 net.cpp:86] Creating Layer conv0
I0428 20:30:57.640018  3881 net.cpp:408] conv0 <- data
I0428 20:30:57.640027  3881 net.cpp:382] conv0 -> conv0
I0428 20:30:57.641661  3881 net.cpp:124] Setting up conv0
I0428 20:30:57.641679  3881 net.cpp:131] Top shape: 100 100 24 24 (5760000)
I0428 20:30:57.641683  3881 net.cpp:139] Memory required for data: 23354800
I0428 20:30:57.641700  3881 layer_factory.hpp:77] Creating layer pool0
I0428 20:30:57.641710  3881 net.cpp:86] Creating Layer pool0
I0428 20:30:57.641717  3881 net.cpp:408] pool0 <- conv0
I0428 20:30:57.641724  3881 net.cpp:382] pool0 -> pool0
I0428 20:30:57.641764  3881 net.cpp:124] Setting up pool0
I0428 20:30:57.641772  3881 net.cpp:131] Top shape: 100 100 12 12 (1440000)
I0428 20:30:57.641777  3881 net.cpp:139] Memory required for data: 29114800
I0428 20:30:57.641782  3881 layer_factory.hpp:77] Creating layer conv1
I0428 20:30:57.641794  3881 net.cpp:86] Creating Layer conv1
I0428 20:30:57.641800  3881 net.cpp:408] conv1 <- pool0
I0428 20:30:57.641811  3881 net.cpp:382] conv1 -> conv1
I0428 20:30:57.643460  3881 net.cpp:124] Setting up conv1
I0428 20:30:57.643476  3881 net.cpp:131] Top shape: 100 10 8 8 (64000)
I0428 20:30:57.643482  3881 net.cpp:139] Memory required for data: 29370800
I0428 20:30:57.643496  3881 layer_factory.hpp:77] Creating layer pool1
I0428 20:30:57.643506  3881 net.cpp:86] Creating Layer pool1
I0428 20:30:57.643515  3881 net.cpp:408] pool1 <- conv1
I0428 20:30:57.643523  3881 net.cpp:382] pool1 -> pool1
I0428 20:30:57.643568  3881 net.cpp:124] Setting up pool1
I0428 20:30:57.643575  3881 net.cpp:131] Top shape: 100 10 4 4 (16000)
I0428 20:30:57.643580  3881 net.cpp:139] Memory required for data: 29434800
I0428 20:30:57.643585  3881 layer_factory.hpp:77] Creating layer ip1
I0428 20:30:57.643594  3881 net.cpp:86] Creating Layer ip1
I0428 20:30:57.643600  3881 net.cpp:408] ip1 <- pool1
I0428 20:30:57.643610  3881 net.cpp:382] ip1 -> ip1
I0428 20:30:57.643748  3881 net.cpp:124] Setting up ip1
I0428 20:30:57.643769  3881 net.cpp:131] Top shape: 100 25 (2500)
I0428 20:30:57.643774  3881 net.cpp:139] Memory required for data: 29444800
I0428 20:30:57.643786  3881 layer_factory.hpp:77] Creating layer relu1
I0428 20:30:57.643795  3881 net.cpp:86] Creating Layer relu1
I0428 20:30:57.643801  3881 net.cpp:408] relu1 <- ip1
I0428 20:30:57.643810  3881 net.cpp:369] relu1 -> ip1 (in-place)
I0428 20:30:57.644037  3881 net.cpp:124] Setting up relu1
I0428 20:30:57.644047  3881 net.cpp:131] Top shape: 100 25 (2500)
I0428 20:30:57.644052  3881 net.cpp:139] Memory required for data: 29454800
I0428 20:30:57.644057  3881 layer_factory.hpp:77] Creating layer ip2
I0428 20:30:57.644068  3881 net.cpp:86] Creating Layer ip2
I0428 20:30:57.644074  3881 net.cpp:408] ip2 <- ip1
I0428 20:30:57.644083  3881 net.cpp:382] ip2 -> ip2
I0428 20:30:57.644220  3881 net.cpp:124] Setting up ip2
I0428 20:30:57.644232  3881 net.cpp:131] Top shape: 100 25 (2500)
I0428 20:30:57.644237  3881 net.cpp:139] Memory required for data: 29464800
I0428 20:30:57.644246  3881 layer_factory.hpp:77] Creating layer relu2
I0428 20:30:57.644254  3881 net.cpp:86] Creating Layer relu2
I0428 20:30:57.644260  3881 net.cpp:408] relu2 <- ip2
I0428 20:30:57.644268  3881 net.cpp:369] relu2 -> ip2 (in-place)
I0428 20:30:57.644454  3881 net.cpp:124] Setting up relu2
I0428 20:30:57.644465  3881 net.cpp:131] Top shape: 100 25 (2500)
I0428 20:30:57.644470  3881 net.cpp:139] Memory required for data: 29474800
I0428 20:30:57.644479  3881 layer_factory.hpp:77] Creating layer ip3
I0428 20:30:57.644489  3881 net.cpp:86] Creating Layer ip3
I0428 20:30:57.644495  3881 net.cpp:408] ip3 <- ip2
I0428 20:30:57.644505  3881 net.cpp:382] ip3 -> ip3
I0428 20:30:57.644616  3881 net.cpp:124] Setting up ip3
I0428 20:30:57.644625  3881 net.cpp:131] Top shape: 100 10 (1000)
I0428 20:30:57.644630  3881 net.cpp:139] Memory required for data: 29478800
I0428 20:30:57.644644  3881 layer_factory.hpp:77] Creating layer relu3
I0428 20:30:57.644651  3881 net.cpp:86] Creating Layer relu3
I0428 20:30:57.644659  3881 net.cpp:408] relu3 <- ip3
I0428 20:30:57.644666  3881 net.cpp:369] relu3 -> ip3 (in-place)
I0428 20:30:57.645499  3881 net.cpp:124] Setting up relu3
I0428 20:30:57.645514  3881 net.cpp:131] Top shape: 100 10 (1000)
I0428 20:30:57.645520  3881 net.cpp:139] Memory required for data: 29482800
I0428 20:30:57.645525  3881 layer_factory.hpp:77] Creating layer ip3_relu3_0_split
I0428 20:30:57.645534  3881 net.cpp:86] Creating Layer ip3_relu3_0_split
I0428 20:30:57.645539  3881 net.cpp:408] ip3_relu3_0_split <- ip3
I0428 20:30:57.645547  3881 net.cpp:382] ip3_relu3_0_split -> ip3_relu3_0_split_0
I0428 20:30:57.645557  3881 net.cpp:382] ip3_relu3_0_split -> ip3_relu3_0_split_1
I0428 20:30:57.645612  3881 net.cpp:124] Setting up ip3_relu3_0_split
I0428 20:30:57.645620  3881 net.cpp:131] Top shape: 100 10 (1000)
I0428 20:30:57.645627  3881 net.cpp:131] Top shape: 100 10 (1000)
I0428 20:30:57.645632  3881 net.cpp:139] Memory required for data: 29490800
I0428 20:30:57.645637  3881 layer_factory.hpp:77] Creating layer accuracy
I0428 20:30:57.645644  3881 net.cpp:86] Creating Layer accuracy
I0428 20:30:57.645649  3881 net.cpp:408] accuracy <- ip3_relu3_0_split_0
I0428 20:30:57.645656  3881 net.cpp:408] accuracy <- label_mnist_1_split_0
I0428 20:30:57.645663  3881 net.cpp:382] accuracy -> accuracy
…
