…
I0428 19:37:22.187651 23805 net.cpp:296] The NetState phase (0) differed from the phase (1) specified by a rule in layer mnist
I0428 19:37:22.187681 23805 net.cpp:296] The NetState phase (0) differed from the phase (1) specified by a rule in layer accuracy
I0428 19:37:22.187752 23805 net.cpp:53] Initializing net from parameters: 
name: "LeNet"
state {
  phase: TRAIN
  level: 0
  stage: ""
}
layer {
  name: "mnist"
  type: "Data"
  top: "data"
  top: "label"
  include {
    phase: TRAIN
  }
  transform_param {
    scale: 0.00390625
  }
  data_param {
    source: "examples/mnist/mnist_train_lmdb"
    batch_size: 64
    backend: LMDB
  }
}
layer {
  name: "conv0"
  type: "Convolution"
  bottom: "data"
  top: "conv0"
  param {
    lr_mult: 1
  }
  param {
    lr_mult: 2
  }
  convolution_param {
    num_output: 100
    kernel_size: 5
    stride: 1
    weight_filler {
      type: "xavier"
    }
    bias_filler {
      type: "constant"
    }
  }
}
layer {
  name: "pool0"
  type: "Pooling"
  bottom: "conv0"
  top: "pool0"
  pooling_param {
    pool: MAX
    kernel_size: 2
    stride: 2
  }
}
layer {
  name: "ip1"
  type: "InnerProduct"
  bottom: "pool0"
  top: "ip1"
  param {
    lr_mult: 1
  }
  param {
    lr_mult: 2
  }
  inner_product_param {
    num_output: 25
    weight_filler {
      type: "xavier"
    }
    bias_filler {
      type: "constant"
    }
  }
}
layer {
  name: "relu1"
  type: "ReLU"
  bottom: "ip1"
  top: "ip1"
}
layer {
  name: "ip2"
  type: "InnerProduct"
  bottom: "ip1"
  top: "ip2"
  param {
    lr_mult: 1
  }
  param {
    lr_mult: 2
  }
  inner_product_param {
    num_output: 10
    weight_filler {
      type: "xavier"
    }
    bias_filler {
      type: "constant"
    }
  }
}
layer {
  name: "relu2"
  type: "ReLU"
  bottom: "ip2"
  top: "ip2"
}
layer {
  name: "ip3"
  type: "InnerProduct"
  bottom: "ip2"
  top: "ip3"
  param {
    lr_mult: 1
  }
  param {
    lr_mult: 2
  }
  inner_product_param {
    num_output: 10
    weight_filler {
      type: "xavier"
    }
    bias_filler {
      type: "constant"
    }
  }
}
layer {
  name: "relu3"
  type: "ReLU"
  bottom: "ip3"
  top: "ip3"
}
layer {
  name: "loss"
  type: "SoftmaxWithLoss"
  bottom: "ip3"
  bottom: "label"
  top: "loss"
}
I0428 19:37:22.187811 23805 layer_factory.hpp:77] Creating layer mnist
I0428 19:37:22.187904 23805 db_lmdb.cpp:35] Opened lmdb examples/mnist/mnist_train_lmdb
I0428 19:37:22.187922 23805 net.cpp:86] Creating Layer mnist
I0428 19:37:22.187929 23805 net.cpp:382] mnist -> data
I0428 19:37:22.187947 23805 net.cpp:382] mnist -> label
I0428 19:37:22.188895 23805 data_layer.cpp:45] output data size: 64,1,28,28
I0428 19:37:22.191313 23805 net.cpp:124] Setting up mnist
I0428 19:37:22.191359 23805 net.cpp:131] Top shape: 64 1 28 28 (50176)
I0428 19:37:22.191381 23805 net.cpp:131] Top shape: 64 (64)
I0428 19:37:22.191385 23805 net.cpp:139] Memory required for data: 200960
I0428 19:37:22.191390 23805 layer_factory.hpp:77] Creating layer conv0
I0428 19:37:22.191402 23805 net.cpp:86] Creating Layer conv0
I0428 19:37:22.191407 23805 net.cpp:408] conv0 <- data
I0428 19:37:22.191417 23805 net.cpp:382] conv0 -> conv0
I0428 19:37:22.421299 23805 net.cpp:124] Setting up conv0
I0428 19:37:22.421325 23805 net.cpp:131] Top shape: 64 100 24 24 (3686400)
I0428 19:37:22.421329 23805 net.cpp:139] Memory required for data: 14946560
I0428 19:37:22.421344 23805 layer_factory.hpp:77] Creating layer pool0
I0428 19:37:22.421357 23805 net.cpp:86] Creating Layer pool0
I0428 19:37:22.421393 23805 net.cpp:408] pool0 <- conv0
I0428 19:37:22.421401 23805 net.cpp:382] pool0 -> pool0
I0428 19:37:22.421447 23805 net.cpp:124] Setting up pool0
I0428 19:37:22.421453 23805 net.cpp:131] Top shape: 64 100 12 12 (921600)
I0428 19:37:22.421456 23805 net.cpp:139] Memory required for data: 18632960
I0428 19:37:22.421459 23805 layer_factory.hpp:77] Creating layer ip1
I0428 19:37:22.421466 23805 net.cpp:86] Creating Layer ip1
I0428 19:37:22.421469 23805 net.cpp:408] ip1 <- pool0
I0428 19:37:22.421476 23805 net.cpp:382] ip1 -> ip1
I0428 19:37:22.424595 23805 net.cpp:124] Setting up ip1
I0428 19:37:22.424608 23805 net.cpp:131] Top shape: 64 25 (1600)
I0428 19:37:22.424628 23805 net.cpp:139] Memory required for data: 18639360
I0428 19:37:22.424635 23805 layer_factory.hpp:77] Creating layer relu1
I0428 19:37:22.424643 23805 net.cpp:86] Creating Layer relu1
I0428 19:37:22.424645 23805 net.cpp:408] relu1 <- ip1
I0428 19:37:22.424649 23805 net.cpp:369] relu1 -> ip1 (in-place)
I0428 19:37:22.424845 23805 net.cpp:124] Setting up relu1
I0428 19:37:22.424854 23805 net.cpp:131] Top shape: 64 25 (1600)
I0428 19:37:22.424857 23805 net.cpp:139] Memory required for data: 18645760
I0428 19:37:22.424860 23805 layer_factory.hpp:77] Creating layer ip2
I0428 19:37:22.424867 23805 net.cpp:86] Creating Layer ip2
I0428 19:37:22.424886 23805 net.cpp:408] ip2 <- ip1
I0428 19:37:22.424892 23805 net.cpp:382] ip2 -> ip2
I0428 19:37:22.425026 23805 net.cpp:124] Setting up ip2
I0428 19:37:22.425034 23805 net.cpp:131] Top shape: 64 10 (640)
I0428 19:37:22.425037 23805 net.cpp:139] Memory required for data: 18648320
I0428 19:37:22.425046 23805 layer_factory.hpp:77] Creating layer relu2
I0428 19:37:22.425052 23805 net.cpp:86] Creating Layer relu2
I0428 19:37:22.425055 23805 net.cpp:408] relu2 <- ip2
I0428 19:37:22.425060 23805 net.cpp:369] relu2 -> ip2 (in-place)
I0428 19:37:22.425927 23805 net.cpp:124] Setting up relu2
I0428 19:37:22.425953 23805 net.cpp:131] Top shape: 64 10 (640)
I0428 19:37:22.425973 23805 net.cpp:139] Memory required for data: 18650880
I0428 19:37:22.425976 23805 layer_factory.hpp:77] Creating layer ip3
I0428 19:37:22.425983 23805 net.cpp:86] Creating Layer ip3
I0428 19:37:22.425987 23805 net.cpp:408] ip3 <- ip2
I0428 19:37:22.425992 23805 net.cpp:382] ip3 -> ip3
I0428 19:37:22.426084 23805 net.cpp:124] Setting up ip3
I0428 19:37:22.426090 23805 net.cpp:131] Top shape: 64 10 (640)
I0428 19:37:22.426092 23805 net.cpp:139] Memory required for data: 18653440
I0428 19:37:22.426098 23805 layer_factory.hpp:77] Creating layer relu3
I0428 19:37:22.426105 23805 net.cpp:86] Creating Layer relu3
I0428 19:37:22.426107 23805 net.cpp:408] relu3 <- ip3
I0428 19:37:22.426111 23805 net.cpp:369] relu3 -> ip3 (in-place)
I0428 19:37:22.426270 23805 net.cpp:124] Setting up relu3
I0428 19:37:22.426276 23805 net.cpp:131] Top shape: 64 10 (640)
I0428 19:37:22.426280 23805 net.cpp:139] Memory required for data: 18656000
I0428 19:37:22.426282 23805 layer_factory.hpp:77] Creating layer loss
I0428 19:37:22.426287 23805 net.cpp:86] Creating Layer loss
I0428 19:37:22.426290 23805 net.cpp:408] loss <- ip3
I0428 19:37:22.426295 23805 net.cpp:408] loss <- label
I0428 19:37:22.426300 23805 net.cpp:382] loss -> loss
I0428 19:37:22.426312 23805 layer_factory.hpp:77] Creating layer loss
…
I0428 19:37:22.426928 23805 solver.cpp:173] Creating test net (#0) specified by net file: ECE595/mnist/train_test/var_everything2/lenet_train_test257.prototxt
I0428 19:37:22.426954 23805 net.cpp:296] The NetState phase (1) differed from the phase (0) specified by a rule in layer mnist
I0428 19:37:22.427055 23805 net.cpp:53] Initializing net from parameters: 
name: "LeNet"
state {
  phase: TEST
}
layer {
  name: "mnist"
  type: "Data"
  top: "data"
  top: "label"
  include {
    phase: TEST
  }
  transform_param {
    scale: 0.00390625
  }
  data_param {
    source: "examples/mnist/mnist_test_lmdb"
    batch_size: 100
    backend: LMDB
  }
}
layer {
  name: "conv0"
  type: "Convolution"
  bottom: "data"
  top: "conv0"
  param {
    lr_mult: 1
  }
  param {
    lr_mult: 2
  }
  convolution_param {
    num_output: 100
    kernel_size: 5
    stride: 1
    weight_filler {
      type: "xavier"
    }
    bias_filler {
      type: "constant"
    }
  }
}
layer {
  name: "pool0"
  type: "Pooling"
  bottom: "conv0"
  top: "pool0"
  pooling_param {
    pool: MAX
    kernel_size: 2
    stride: 2
  }
}
layer {
  name: "ip1"
  type: "InnerProduct"
  bottom: "pool0"
  top: "ip1"
  param {
    lr_mult: 1
  }
  param {
    lr_mult: 2
  }
  inner_product_param {
    num_output: 25
    weight_filler {
      type: "xavier"
    }
    bias_filler {
      type: "constant"
    }
  }
}
layer {
  name: "relu1"
  type: "ReLU"
  bottom: "ip1"
  top: "ip1"
}
layer {
  name: "ip2"
  type: "InnerProduct"
  bottom: "ip1"
  top: "ip2"
  param {
    lr_mult: 1
  }
  param {
    lr_mult: 2
  }
  inner_product_param {
    num_output: 10
    weight_filler {
      type: "xavier"
    }
    bias_filler {
      type: "constant"
    }
  }
}
layer {
  name: "relu2"
  type: "ReLU"
  bottom: "ip2"
  top: "ip2"
}
layer {
  name: "ip3"
  type: "InnerProduct"
  bottom: "ip2"
  top: "ip3"
  param {
    lr_mult: 1
  }
  param {
    lr_mult: 2
  }
  inner_product_param {
    num_output: 10
    weight_filler {
      type: "xavier"
    }
    bias_filler {
      type: "constant"
    }
  }
}
layer {
  name: "relu3"
  type: "ReLU"
  bottom: "ip3"
  top: "ip3"
}
layer {
  name: "accuracy"
  type: "Accuracy"
  bottom: "ip3"
  bottom: "label"
  top: "accuracy"
  include {
    phase: TEST
  }
}
layer {
  name: "loss"
  type: "SoftmaxWithLoss"
  bottom: "ip3"
  bottom: "label"
  top: "loss"
}
I0428 19:37:22.427144 23805 layer_factory.hpp:77] Creating layer mnist
I0428 19:37:22.427186 23805 db_lmdb.cpp:35] Opened lmdb examples/mnist/mnist_test_lmdb
I0428 19:37:22.427197 23805 net.cpp:86] Creating Layer mnist
I0428 19:37:22.427202 23805 net.cpp:382] mnist -> data
I0428 19:37:22.427209 23805 net.cpp:382] mnist -> label
I0428 19:37:22.427289 23805 data_layer.cpp:45] output data size: 100,1,28,28
I0428 19:37:22.429567 23805 net.cpp:124] Setting up mnist
I0428 19:37:22.429595 23805 net.cpp:131] Top shape: 100 1 28 28 (78400)
I0428 19:37:22.429600 23805 net.cpp:131] Top shape: 100 (100)
I0428 19:37:22.429605 23805 net.cpp:139] Memory required for data: 314000
I0428 19:37:22.429607 23805 layer_factory.hpp:77] Creating layer label_mnist_1_split
I0428 19:37:22.429615 23805 net.cpp:86] Creating Layer label_mnist_1_split
I0428 19:37:22.429617 23805 net.cpp:408] label_mnist_1_split <- label
I0428 19:37:22.429621 23805 net.cpp:382] label_mnist_1_split -> label_mnist_1_split_0
I0428 19:37:22.429627 23805 net.cpp:382] label_mnist_1_split -> label_mnist_1_split_1
I0428 19:37:22.429661 23805 net.cpp:124] Setting up label_mnist_1_split
I0428 19:37:22.429666 23805 net.cpp:131] Top shape: 100 (100)
I0428 19:37:22.429668 23805 net.cpp:131] Top shape: 100 (100)
I0428 19:37:22.429672 23805 net.cpp:139] Memory required for data: 314800
I0428 19:37:22.429683 23805 layer_factory.hpp:77] Creating layer conv0
I0428 19:37:22.429692 23805 net.cpp:86] Creating Layer conv0
I0428 19:37:22.429694 23805 net.cpp:408] conv0 <- data
I0428 19:37:22.429698 23805 net.cpp:382] conv0 -> conv0
I0428 19:37:22.431324 23805 net.cpp:124] Setting up conv0
I0428 19:37:22.431336 23805 net.cpp:131] Top shape: 100 100 24 24 (5760000)
I0428 19:37:22.431339 23805 net.cpp:139] Memory required for data: 23354800
I0428 19:37:22.431349 23805 layer_factory.hpp:77] Creating layer pool0
I0428 19:37:22.431354 23805 net.cpp:86] Creating Layer pool0
I0428 19:37:22.431357 23805 net.cpp:408] pool0 <- conv0
I0428 19:37:22.431361 23805 net.cpp:382] pool0 -> pool0
I0428 19:37:22.431409 23805 net.cpp:124] Setting up pool0
I0428 19:37:22.431416 23805 net.cpp:131] Top shape: 100 100 12 12 (1440000)
I0428 19:37:22.431419 23805 net.cpp:139] Memory required for data: 29114800
I0428 19:37:22.431421 23805 layer_factory.hpp:77] Creating layer ip1
I0428 19:37:22.431427 23805 net.cpp:86] Creating Layer ip1
I0428 19:37:22.431432 23805 net.cpp:408] ip1 <- pool0
I0428 19:37:22.431435 23805 net.cpp:382] ip1 -> ip1
I0428 19:37:22.433755 23805 net.cpp:124] Setting up ip1
I0428 19:37:22.433764 23805 net.cpp:131] Top shape: 100 25 (2500)
I0428 19:37:22.433768 23805 net.cpp:139] Memory required for data: 29124800
I0428 19:37:22.433775 23805 layer_factory.hpp:77] Creating layer relu1
I0428 19:37:22.433781 23805 net.cpp:86] Creating Layer relu1
I0428 19:37:22.433784 23805 net.cpp:408] relu1 <- ip1
I0428 19:37:22.433789 23805 net.cpp:369] relu1 -> ip1 (in-place)
I0428 19:37:22.433969 23805 net.cpp:124] Setting up relu1
I0428 19:37:22.433980 23805 net.cpp:131] Top shape: 100 25 (2500)
I0428 19:37:22.433984 23805 net.cpp:139] Memory required for data: 29134800
I0428 19:37:22.433993 23805 layer_factory.hpp:77] Creating layer ip2
I0428 19:37:22.434000 23805 net.cpp:86] Creating Layer ip2
I0428 19:37:22.434002 23805 net.cpp:408] ip2 <- ip1
I0428 19:37:22.434006 23805 net.cpp:382] ip2 -> ip2
I0428 19:37:22.434092 23805 net.cpp:124] Setting up ip2
I0428 19:37:22.434099 23805 net.cpp:131] Top shape: 100 10 (1000)
I0428 19:37:22.434103 23805 net.cpp:139] Memory required for data: 29138800
I0428 19:37:22.434108 23805 layer_factory.hpp:77] Creating layer relu2
I0428 19:37:22.434113 23805 net.cpp:86] Creating Layer relu2
I0428 19:37:22.434116 23805 net.cpp:408] relu2 <- ip2
I0428 19:37:22.434119 23805 net.cpp:369] relu2 -> ip2 (in-place)
I0428 19:37:22.434880 23805 net.cpp:124] Setting up relu2
I0428 19:37:22.434892 23805 net.cpp:131] Top shape: 100 10 (1000)
I0428 19:37:22.434896 23805 net.cpp:139] Memory required for data: 29142800
I0428 19:37:22.434900 23805 layer_factory.hpp:77] Creating layer ip3
I0428 19:37:22.434907 23805 net.cpp:86] Creating Layer ip3
I0428 19:37:22.434911 23805 net.cpp:408] ip3 <- ip2
I0428 19:37:22.434916 23805 net.cpp:382] ip3 -> ip3
I0428 19:37:22.435031 23805 net.cpp:124] Setting up ip3
I0428 19:37:22.435052 23805 net.cpp:131] Top shape: 100 10 (1000)
I0428 19:37:22.435055 23805 net.cpp:139] Memory required for data: 29146800
I0428 19:37:22.435060 23805 layer_factory.hpp:77] Creating layer relu3
I0428 19:37:22.435065 23805 net.cpp:86] Creating Layer relu3
I0428 19:37:22.435068 23805 net.cpp:408] relu3 <- ip3
I0428 19:37:22.435071 23805 net.cpp:369] relu3 -> ip3 (in-place)
I0428 19:37:22.435211 23805 net.cpp:124] Setting up relu3
I0428 19:37:22.435219 23805 net.cpp:131] Top shape: 100 10 (1000)
I0428 19:37:22.435221 23805 net.cpp:139] Memory required for data: 29150800
I0428 19:37:22.435225 23805 layer_factory.hpp:77] Creating layer ip3_relu3_0_split
I0428 19:37:22.435228 23805 net.cpp:86] Creating Layer ip3_relu3_0_split
I0428 19:37:22.435231 23805 net.cpp:408] ip3_relu3_0_split <- ip3
I0428 19:37:22.435235 23805 net.cpp:382] ip3_relu3_0_split -> ip3_relu3_0_split_0
I0428 19:37:22.435240 23805 net.cpp:382] ip3_relu3_0_split -> ip3_relu3_0_split_1
I0428 19:37:22.435271 23805 net.cpp:124] Setting up ip3_relu3_0_split
I0428 19:37:22.435277 23805 net.cpp:131] Top shape: 100 10 (1000)
I0428 19:37:22.435292 23805 net.cpp:131] Top shape: 100 10 (1000)
I0428 19:37:22.435295 23805 net.cpp:139] Memory required for data: 29158800
I0428 19:37:22.435298 23805 layer_factory.hpp:77] Creating layer accuracy
I0428 19:37:22.435303 23805 net.cpp:86] Creating Layer accuracy
I0428 19:37:22.435307 23805 net.cpp:408] accuracy <- ip3_relu3_0_split_0
I0428 19:37:22.435310 23805 net.cpp:408] accuracy <- label_mnist_1_split_0
I0428 19:37:22.435314 23805 net.cpp:382] accuracy -> accuracy
…
