…
I0428 19:27:54.188783 21478 net.cpp:296] The NetState phase (0) differed from the phase (1) specified by a rule in layer mnist
I0428 19:27:54.188796 21478 net.cpp:296] The NetState phase (0) differed from the phase (1) specified by a rule in layer accuracy
I0428 19:27:54.188879 21478 net.cpp:53] Initializing net from parameters: 
name: "LeNet"
state {
  phase: TRAIN
  level: 0
  stage: ""
}
layer {
  name: "mnist"
  type: "Data"
  top: "data"
  top: "label"
  include {
    phase: TRAIN
  }
  transform_param {
    scale: 0.00390625
  }
  data_param {
    source: "examples/mnist/mnist_train_lmdb"
    batch_size: 64
    backend: LMDB
  }
}
layer {
  name: "ip1"
  type: "InnerProduct"
  bottom: "data"
  top: "ip1"
  param {
    lr_mult: 1
  }
  param {
    lr_mult: 2
  }
  inner_product_param {
    num_output: 25
    weight_filler {
      type: "xavier"
    }
    bias_filler {
      type: "constant"
    }
  }
}
layer {
  name: "relu1"
  type: "ReLU"
  bottom: "ip1"
  top: "ip1"
}
layer {
  name: "ip2"
  type: "InnerProduct"
  bottom: "ip1"
  top: "ip2"
  param {
    lr_mult: 1
  }
  param {
    lr_mult: 2
  }
  inner_product_param {
    num_output: 10
    weight_filler {
      type: "xavier"
    }
    bias_filler {
      type: "constant"
    }
  }
}
layer {
  name: "relu2"
  type: "ReLU"
  bottom: "ip2"
  top: "ip2"
}
layer {
  name: "loss"
  type: "SoftmaxWithLoss"
  bottom: "ip2"
  bottom: "label"
  top: "loss"
}
I0428 19:27:54.188947 21478 layer_factory.hpp:77] Creating layer mnist
I0428 19:27:54.189064 21478 db_lmdb.cpp:35] Opened lmdb examples/mnist/mnist_train_lmdb
I0428 19:27:54.189090 21478 net.cpp:86] Creating Layer mnist
I0428 19:27:54.189100 21478 net.cpp:382] mnist -> data
I0428 19:27:54.189141 21478 net.cpp:382] mnist -> label
I0428 19:27:54.190090 21478 data_layer.cpp:45] output data size: 64,1,28,28
I0428 19:27:54.192337 21478 net.cpp:124] Setting up mnist
I0428 19:27:54.192353 21478 net.cpp:131] Top shape: 64 1 28 28 (50176)
I0428 19:27:54.192378 21478 net.cpp:131] Top shape: 64 (64)
I0428 19:27:54.192383 21478 net.cpp:139] Memory required for data: 200960
I0428 19:27:54.192392 21478 layer_factory.hpp:77] Creating layer ip1
I0428 19:27:54.192405 21478 net.cpp:86] Creating Layer ip1
I0428 19:27:54.192412 21478 net.cpp:408] ip1 <- data
I0428 19:27:54.192428 21478 net.cpp:382] ip1 -> ip1
I0428 19:27:54.192678 21478 net.cpp:124] Setting up ip1
I0428 19:27:54.192689 21478 net.cpp:131] Top shape: 64 25 (1600)
I0428 19:27:54.192694 21478 net.cpp:139] Memory required for data: 207360
I0428 19:27:54.192713 21478 layer_factory.hpp:77] Creating layer relu1
I0428 19:27:54.192726 21478 net.cpp:86] Creating Layer relu1
I0428 19:27:54.192735 21478 net.cpp:408] relu1 <- ip1
I0428 19:27:54.192749 21478 net.cpp:369] relu1 -> ip1 (in-place)
I0428 19:27:54.425000 21478 net.cpp:124] Setting up relu1
I0428 19:27:54.425029 21478 net.cpp:131] Top shape: 64 25 (1600)
I0428 19:27:54.425034 21478 net.cpp:139] Memory required for data: 213760
I0428 19:27:54.425058 21478 layer_factory.hpp:77] Creating layer ip2
I0428 19:27:54.425074 21478 net.cpp:86] Creating Layer ip2
I0428 19:27:54.425097 21478 net.cpp:408] ip2 <- ip1
I0428 19:27:54.425109 21478 net.cpp:382] ip2 -> ip2
I0428 19:27:54.425254 21478 net.cpp:124] Setting up ip2
I0428 19:27:54.425264 21478 net.cpp:131] Top shape: 64 10 (640)
I0428 19:27:54.425269 21478 net.cpp:139] Memory required for data: 216320
I0428 19:27:54.425284 21478 layer_factory.hpp:77] Creating layer relu2
I0428 19:27:54.425308 21478 net.cpp:86] Creating Layer relu2
I0428 19:27:54.425317 21478 net.cpp:408] relu2 <- ip2
I0428 19:27:54.425324 21478 net.cpp:369] relu2 -> ip2 (in-place)
I0428 19:27:54.426128 21478 net.cpp:124] Setting up relu2
I0428 19:27:54.426143 21478 net.cpp:131] Top shape: 64 10 (640)
I0428 19:27:54.426149 21478 net.cpp:139] Memory required for data: 218880
I0428 19:27:54.426154 21478 layer_factory.hpp:77] Creating layer loss
I0428 19:27:54.426163 21478 net.cpp:86] Creating Layer loss
I0428 19:27:54.426169 21478 net.cpp:408] loss <- ip2
I0428 19:27:54.426193 21478 net.cpp:408] loss <- label
I0428 19:27:54.426203 21478 net.cpp:382] loss -> loss
I0428 19:27:54.426229 21478 layer_factory.hpp:77] Creating layer loss
…
I0428 19:27:54.427716 21478 solver.cpp:173] Creating test net (#0) specified by net file: ECE595/mnist/train_test/var_everything2/lenet_train_test7.prototxt
I0428 19:27:54.427743 21478 net.cpp:296] The NetState phase (1) differed from the phase (0) specified by a rule in layer mnist
I0428 19:27:54.427810 21478 net.cpp:53] Initializing net from parameters: 
name: "LeNet"
state {
  phase: TEST
}
layer {
  name: "mnist"
  type: "Data"
  top: "data"
  top: "label"
  include {
    phase: TEST
  }
  transform_param {
    scale: 0.00390625
  }
  data_param {
    source: "examples/mnist/mnist_test_lmdb"
    batch_size: 100
    backend: LMDB
  }
}
layer {
  name: "ip1"
  type: "InnerProduct"
  bottom: "data"
  top: "ip1"
  param {
    lr_mult: 1
  }
  param {
    lr_mult: 2
  }
  inner_product_param {
    num_output: 25
    weight_filler {
      type: "xavier"
    }
    bias_filler {
      type: "constant"
    }
  }
}
layer {
  name: "relu1"
  type: "ReLU"
  bottom: "ip1"
  top: "ip1"
}
layer {
  name: "ip2"
  type: "InnerProduct"
  bottom: "ip1"
  top: "ip2"
  param {
    lr_mult: 1
  }
  param {
    lr_mult: 2
  }
  inner_product_param {
    num_output: 10
    weight_filler {
      type: "xavier"
    }
    bias_filler {
      type: "constant"
    }
  }
}
layer {
  name: "relu2"
  type: "ReLU"
  bottom: "ip2"
  top: "ip2"
}
layer {
  name: "accuracy"
  type: "Accuracy"
  bottom: "ip2"
  bottom: "label"
  top: "accuracy"
  include {
    phase: TEST
  }
}
layer {
  name: "loss"
  type: "SoftmaxWithLoss"
  bottom: "ip2"
  bottom: "label"
  top: "loss"
}
I0428 19:27:54.427886 21478 layer_factory.hpp:77] Creating layer mnist
I0428 19:27:54.427945 21478 db_lmdb.cpp:35] Opened lmdb examples/mnist/mnist_test_lmdb
I0428 19:27:54.427963 21478 net.cpp:86] Creating Layer mnist
I0428 19:27:54.427970 21478 net.cpp:382] mnist -> data
I0428 19:27:54.427983 21478 net.cpp:382] mnist -> label
I0428 19:27:54.428102 21478 data_layer.cpp:45] output data size: 100,1,28,28
I0428 19:27:54.430187 21478 net.cpp:124] Setting up mnist
I0428 19:27:54.430217 21478 net.cpp:131] Top shape: 100 1 28 28 (78400)
I0428 19:27:54.430227 21478 net.cpp:131] Top shape: 100 (100)
I0428 19:27:54.430248 21478 net.cpp:139] Memory required for data: 314000
I0428 19:27:54.430253 21478 layer_factory.hpp:77] Creating layer label_mnist_1_split
I0428 19:27:54.430268 21478 net.cpp:86] Creating Layer label_mnist_1_split
I0428 19:27:54.430274 21478 net.cpp:408] label_mnist_1_split <- label
I0428 19:27:54.430281 21478 net.cpp:382] label_mnist_1_split -> label_mnist_1_split_0
I0428 19:27:54.430307 21478 net.cpp:382] label_mnist_1_split -> label_mnist_1_split_1
I0428 19:27:54.430369 21478 net.cpp:124] Setting up label_mnist_1_split
I0428 19:27:54.430378 21478 net.cpp:131] Top shape: 100 (100)
I0428 19:27:54.430385 21478 net.cpp:131] Top shape: 100 (100)
I0428 19:27:54.430390 21478 net.cpp:139] Memory required for data: 314800
I0428 19:27:54.430395 21478 layer_factory.hpp:77] Creating layer ip1
I0428 19:27:54.430407 21478 net.cpp:86] Creating Layer ip1
I0428 19:27:54.430413 21478 net.cpp:408] ip1 <- data
I0428 19:27:54.430420 21478 net.cpp:382] ip1 -> ip1
I0428 19:27:54.430686 21478 net.cpp:124] Setting up ip1
I0428 19:27:54.430697 21478 net.cpp:131] Top shape: 100 25 (2500)
I0428 19:27:54.430703 21478 net.cpp:139] Memory required for data: 324800
I0428 19:27:54.430718 21478 layer_factory.hpp:77] Creating layer relu1
I0428 19:27:54.430727 21478 net.cpp:86] Creating Layer relu1
I0428 19:27:54.430735 21478 net.cpp:408] relu1 <- ip1
I0428 19:27:54.430743 21478 net.cpp:369] relu1 -> ip1 (in-place)
I0428 19:27:54.430941 21478 net.cpp:124] Setting up relu1
I0428 19:27:54.430953 21478 net.cpp:131] Top shape: 100 25 (2500)
I0428 19:27:54.430958 21478 net.cpp:139] Memory required for data: 334800
I0428 19:27:54.430963 21478 layer_factory.hpp:77] Creating layer ip2
I0428 19:27:54.430974 21478 net.cpp:86] Creating Layer ip2
I0428 19:27:54.430979 21478 net.cpp:408] ip2 <- ip1
I0428 19:27:54.430989 21478 net.cpp:382] ip2 -> ip2
I0428 19:27:54.431092 21478 net.cpp:124] Setting up ip2
I0428 19:27:54.431102 21478 net.cpp:131] Top shape: 100 10 (1000)
I0428 19:27:54.431108 21478 net.cpp:139] Memory required for data: 338800
I0428 19:27:54.431120 21478 layer_factory.hpp:77] Creating layer relu2
I0428 19:27:54.431130 21478 net.cpp:86] Creating Layer relu2
I0428 19:27:54.431138 21478 net.cpp:408] relu2 <- ip2
I0428 19:27:54.431144 21478 net.cpp:369] relu2 -> ip2 (in-place)
I0428 19:27:54.432173 21478 net.cpp:124] Setting up relu2
I0428 19:27:54.432188 21478 net.cpp:131] Top shape: 100 10 (1000)
I0428 19:27:54.432194 21478 net.cpp:139] Memory required for data: 342800
I0428 19:27:54.432201 21478 layer_factory.hpp:77] Creating layer ip2_relu2_0_split
I0428 19:27:54.432210 21478 net.cpp:86] Creating Layer ip2_relu2_0_split
I0428 19:27:54.432231 21478 net.cpp:408] ip2_relu2_0_split <- ip2
I0428 19:27:54.432240 21478 net.cpp:382] ip2_relu2_0_split -> ip2_relu2_0_split_0
I0428 19:27:54.432262 21478 net.cpp:382] ip2_relu2_0_split -> ip2_relu2_0_split_1
I0428 19:27:54.432308 21478 net.cpp:124] Setting up ip2_relu2_0_split
I0428 19:27:54.432317 21478 net.cpp:131] Top shape: 100 10 (1000)
I0428 19:27:54.432323 21478 net.cpp:131] Top shape: 100 10 (1000)
I0428 19:27:54.432329 21478 net.cpp:139] Memory required for data: 350800
I0428 19:27:54.432334 21478 layer_factory.hpp:77] Creating layer accuracy
I0428 19:27:54.432363 21478 net.cpp:86] Creating Layer accuracy
I0428 19:27:54.432370 21478 net.cpp:408] accuracy <- ip2_relu2_0_split_0
I0428 19:27:54.432379 21478 net.cpp:408] accuracy <- label_mnist_1_split_0
I0428 19:27:54.432387 21478 net.cpp:382] accuracy -> accuracy
…
