…
I0428 19:48:42.202513 26548 net.cpp:296] The NetState phase (0) differed from the phase (1) specified by a rule in layer mnist
I0428 19:48:42.202527 26548 net.cpp:296] The NetState phase (0) differed from the phase (1) specified by a rule in layer accuracy
I0428 19:48:42.202600 26548 net.cpp:53] Initializing net from parameters: 
name: "LeNet"
state {
  phase: TRAIN
  level: 0
  stage: ""
}
layer {
  name: "mnist"
  type: "Data"
  top: "data"
  top: "label"
  include {
    phase: TRAIN
  }
  transform_param {
    scale: 0.00390625
  }
  data_param {
    source: "examples/mnist/mnist_train_lmdb"
    batch_size: 64
    backend: LMDB
  }
}
layer {
  name: "conv0"
  type: "Convolution"
  bottom: "data"
  top: "conv0"
  param {
    lr_mult: 1
  }
  param {
    lr_mult: 2
  }
  convolution_param {
    num_output: 5
    kernel_size: 5
    stride: 1
    weight_filler {
      type: "xavier"
    }
    bias_filler {
      type: "constant"
    }
  }
}
layer {
  name: "pool0"
  type: "Pooling"
  bottom: "conv0"
  top: "pool0"
  pooling_param {
    pool: MAX
    kernel_size: 2
    stride: 2
  }
}
layer {
  name: "conv1"
  type: "Convolution"
  bottom: "pool0"
  top: "conv1"
  param {
    lr_mult: 1
  }
  param {
    lr_mult: 2
  }
  convolution_param {
    num_output: 5
    kernel_size: 5
    stride: 1
    weight_filler {
      type: "xavier"
    }
    bias_filler {
      type: "constant"
    }
  }
}
layer {
  name: "pool1"
  type: "Pooling"
  bottom: "conv1"
  top: "pool1"
  pooling_param {
    pool: MAX
    kernel_size: 2
    stride: 2
  }
}
layer {
  name: "ip1"
  type: "InnerProduct"
  bottom: "pool1"
  top: "ip1"
  param {
    lr_mult: 1
  }
  param {
    lr_mult: 2
  }
  inner_product_param {
    num_output: 25
    weight_filler {
      type: "xavier"
    }
    bias_filler {
      type: "constant"
    }
  }
}
layer {
  name: "relu1"
  type: "ReLU"
  bottom: "ip1"
  top: "ip1"
}
layer {
  name: "ip2"
  type: "InnerProduct"
  bottom: "ip1"
  top: "ip2"
  param {
    lr_mult: 1
  }
  param {
    lr_mult: 2
  }
  inner_product_param {
    num_output: 10
    weight_filler {
      type: "xavier"
    }
    bias_filler {
      type: "constant"
    }
  }
}
layer {
  name: "relu2"
  type: "ReLU"
  bottom: "ip2"
  top: "ip2"
}
layer {
  name: "loss"
  type: "SoftmaxWithLoss"
  bottom: "ip2"
  bottom: "label"
  top: "loss"
}
I0428 19:48:42.202661 26548 layer_factory.hpp:77] Creating layer mnist
I0428 19:48:42.202759 26548 db_lmdb.cpp:35] Opened lmdb examples/mnist/mnist_train_lmdb
I0428 19:48:42.202780 26548 net.cpp:86] Creating Layer mnist
I0428 19:48:42.202786 26548 net.cpp:382] mnist -> data
I0428 19:48:42.202805 26548 net.cpp:382] mnist -> label
I0428 19:48:42.203825 26548 data_layer.cpp:45] output data size: 64,1,28,28
I0428 19:48:42.206050 26548 net.cpp:124] Setting up mnist
I0428 19:48:42.206084 26548 net.cpp:131] Top shape: 64 1 28 28 (50176)
I0428 19:48:42.206089 26548 net.cpp:131] Top shape: 64 (64)
I0428 19:48:42.206091 26548 net.cpp:139] Memory required for data: 200960
I0428 19:48:42.206099 26548 layer_factory.hpp:77] Creating layer conv0
I0428 19:48:42.206111 26548 net.cpp:86] Creating Layer conv0
I0428 19:48:42.206116 26548 net.cpp:408] conv0 <- data
I0428 19:48:42.206127 26548 net.cpp:382] conv0 -> conv0
I0428 19:48:42.439419 26548 net.cpp:124] Setting up conv0
I0428 19:48:42.439445 26548 net.cpp:131] Top shape: 64 5 24 24 (184320)
I0428 19:48:42.439465 26548 net.cpp:139] Memory required for data: 938240
I0428 19:48:42.439498 26548 layer_factory.hpp:77] Creating layer pool0
I0428 19:48:42.439527 26548 net.cpp:86] Creating Layer pool0
I0428 19:48:42.439529 26548 net.cpp:408] pool0 <- conv0
I0428 19:48:42.439535 26548 net.cpp:382] pool0 -> pool0
I0428 19:48:42.439581 26548 net.cpp:124] Setting up pool0
I0428 19:48:42.439601 26548 net.cpp:131] Top shape: 64 5 12 12 (46080)
I0428 19:48:42.439604 26548 net.cpp:139] Memory required for data: 1122560
I0428 19:48:42.439607 26548 layer_factory.hpp:77] Creating layer conv1
I0428 19:48:42.439618 26548 net.cpp:86] Creating Layer conv1
I0428 19:48:42.439621 26548 net.cpp:408] conv1 <- pool0
I0428 19:48:42.439626 26548 net.cpp:382] conv1 -> conv1
I0428 19:48:42.441526 26548 net.cpp:124] Setting up conv1
I0428 19:48:42.441556 26548 net.cpp:131] Top shape: 64 5 8 8 (20480)
I0428 19:48:42.441560 26548 net.cpp:139] Memory required for data: 1204480
I0428 19:48:42.441570 26548 layer_factory.hpp:77] Creating layer pool1
I0428 19:48:42.441578 26548 net.cpp:86] Creating Layer pool1
I0428 19:48:42.441582 26548 net.cpp:408] pool1 <- conv1
I0428 19:48:42.441587 26548 net.cpp:382] pool1 -> pool1
I0428 19:48:42.441625 26548 net.cpp:124] Setting up pool1
I0428 19:48:42.441632 26548 net.cpp:131] Top shape: 64 5 4 4 (5120)
I0428 19:48:42.441650 26548 net.cpp:139] Memory required for data: 1224960
I0428 19:48:42.441653 26548 layer_factory.hpp:77] Creating layer ip1
I0428 19:48:42.441660 26548 net.cpp:86] Creating Layer ip1
I0428 19:48:42.441663 26548 net.cpp:408] ip1 <- pool1
I0428 19:48:42.441668 26548 net.cpp:382] ip1 -> ip1
I0428 19:48:42.442773 26548 net.cpp:124] Setting up ip1
I0428 19:48:42.442785 26548 net.cpp:131] Top shape: 64 25 (1600)
I0428 19:48:42.442806 26548 net.cpp:139] Memory required for data: 1231360
I0428 19:48:42.442828 26548 layer_factory.hpp:77] Creating layer relu1
I0428 19:48:42.442836 26548 net.cpp:86] Creating Layer relu1
I0428 19:48:42.442838 26548 net.cpp:408] relu1 <- ip1
I0428 19:48:42.442843 26548 net.cpp:369] relu1 -> ip1 (in-place)
I0428 19:48:42.443015 26548 net.cpp:124] Setting up relu1
I0428 19:48:42.443024 26548 net.cpp:131] Top shape: 64 25 (1600)
I0428 19:48:42.443027 26548 net.cpp:139] Memory required for data: 1237760
I0428 19:48:42.443030 26548 layer_factory.hpp:77] Creating layer ip2
I0428 19:48:42.443037 26548 net.cpp:86] Creating Layer ip2
I0428 19:48:42.443040 26548 net.cpp:408] ip2 <- ip1
I0428 19:48:42.443045 26548 net.cpp:382] ip2 -> ip2
I0428 19:48:42.443141 26548 net.cpp:124] Setting up ip2
I0428 19:48:42.443148 26548 net.cpp:131] Top shape: 64 10 (640)
I0428 19:48:42.443151 26548 net.cpp:139] Memory required for data: 1240320
I0428 19:48:42.443156 26548 layer_factory.hpp:77] Creating layer relu2
I0428 19:48:42.443162 26548 net.cpp:86] Creating Layer relu2
I0428 19:48:42.443166 26548 net.cpp:408] relu2 <- ip2
I0428 19:48:42.443171 26548 net.cpp:369] relu2 -> ip2 (in-place)
I0428 19:48:42.443924 26548 net.cpp:124] Setting up relu2
I0428 19:48:42.443938 26548 net.cpp:131] Top shape: 64 10 (640)
I0428 19:48:42.443956 26548 net.cpp:139] Memory required for data: 1242880
I0428 19:48:42.443960 26548 layer_factory.hpp:77] Creating layer loss
I0428 19:48:42.443966 26548 net.cpp:86] Creating Layer loss
I0428 19:48:42.443970 26548 net.cpp:408] loss <- ip2
I0428 19:48:42.443974 26548 net.cpp:408] loss <- label
I0428 19:48:42.443980 26548 net.cpp:382] loss -> loss
I0428 19:48:42.444000 26548 layer_factory.hpp:77] Creating layer loss
…
I0428 19:48:42.444653 26548 solver.cpp:173] Creating test net (#0) specified by net file: ECE595/mnist/train_test/var_everything2/lenet_train_test552.prototxt
I0428 19:48:42.444694 26548 net.cpp:296] The NetState phase (1) differed from the phase (0) specified by a rule in layer mnist
I0428 19:48:42.444798 26548 net.cpp:53] Initializing net from parameters: 
name: "LeNet"
state {
  phase: TEST
}
layer {
  name: "mnist"
  type: "Data"
  top: "data"
  top: "label"
  include {
    phase: TEST
  }
  transform_param {
    scale: 0.00390625
  }
  data_param {
    source: "examples/mnist/mnist_test_lmdb"
    batch_size: 100
    backend: LMDB
  }
}
layer {
  name: "conv0"
  type: "Convolution"
  bottom: "data"
  top: "conv0"
  param {
    lr_mult: 1
  }
  param {
    lr_mult: 2
  }
  convolution_param {
    num_output: 5
    kernel_size: 5
    stride: 1
    weight_filler {
      type: "xavier"
    }
    bias_filler {
      type: "constant"
    }
  }
}
layer {
  name: "pool0"
  type: "Pooling"
  bottom: "conv0"
  top: "pool0"
  pooling_param {
    pool: MAX
    kernel_size: 2
    stride: 2
  }
}
layer {
  name: "conv1"
  type: "Convolution"
  bottom: "pool0"
  top: "conv1"
  param {
    lr_mult: 1
  }
  param {
    lr_mult: 2
  }
  convolution_param {
    num_output: 5
    kernel_size: 5
    stride: 1
    weight_filler {
      type: "xavier"
    }
    bias_filler {
      type: "constant"
    }
  }
}
layer {
  name: "pool1"
  type: "Pooling"
  bottom: "conv1"
  top: "pool1"
  pooling_param {
    pool: MAX
    kernel_size: 2
    stride: 2
  }
}
layer {
  name: "ip1"
  type: "InnerProduct"
  bottom: "pool1"
  top: "ip1"
  param {
    lr_mult: 1
  }
  param {
    lr_mult: 2
  }
  inner_product_param {
    num_output: 25
    weight_filler {
      type: "xavier"
    }
    bias_filler {
      type: "constant"
    }
  }
}
layer {
  name: "relu1"
  type: "ReLU"
  bottom: "ip1"
  top: "ip1"
}
layer {
  name: "ip2"
  type: "InnerProduct"
  bottom: "ip1"
  top: "ip2"
  param {
    lr_mult: 1
  }
  param {
    lr_mult: 2
  }
  inner_product_param {
    num_output: 10
    weight_filler {
      type: "xavier"
    }
    bias_filler {
      type: "constant"
    }
  }
}
layer {
  name: "relu2"
  type: "ReLU"
  bottom: "ip2"
  top: "ip2"
}
layer {
  name: "accuracy"
  type: "Accuracy"
  bottom: "ip2"
  bottom: "label"
  top: "accuracy"
  include {
    phase: TEST
  }
}
layer {
  name: "loss"
  type: "SoftmaxWithLoss"
  bottom: "ip2"
  bottom: "label"
  top: "loss"
}
I0428 19:48:42.444905 26548 layer_factory.hpp:77] Creating layer mnist
I0428 19:48:42.444957 26548 db_lmdb.cpp:35] Opened lmdb examples/mnist/mnist_test_lmdb
I0428 19:48:42.444972 26548 net.cpp:86] Creating Layer mnist
I0428 19:48:42.444977 26548 net.cpp:382] mnist -> data
I0428 19:48:42.445000 26548 net.cpp:382] mnist -> label
I0428 19:48:42.445106 26548 data_layer.cpp:45] output data size: 100,1,28,28
I0428 19:48:42.447108 26548 net.cpp:124] Setting up mnist
I0428 19:48:42.447152 26548 net.cpp:131] Top shape: 100 1 28 28 (78400)
I0428 19:48:42.447156 26548 net.cpp:131] Top shape: 100 (100)
I0428 19:48:42.447160 26548 net.cpp:139] Memory required for data: 314000
I0428 19:48:42.447163 26548 layer_factory.hpp:77] Creating layer label_mnist_1_split
I0428 19:48:42.447187 26548 net.cpp:86] Creating Layer label_mnist_1_split
I0428 19:48:42.447191 26548 net.cpp:408] label_mnist_1_split <- label
I0428 19:48:42.447196 26548 net.cpp:382] label_mnist_1_split -> label_mnist_1_split_0
I0428 19:48:42.447202 26548 net.cpp:382] label_mnist_1_split -> label_mnist_1_split_1
I0428 19:48:42.447248 26548 net.cpp:124] Setting up label_mnist_1_split
I0428 19:48:42.447263 26548 net.cpp:131] Top shape: 100 (100)
I0428 19:48:42.447268 26548 net.cpp:131] Top shape: 100 (100)
I0428 19:48:42.447270 26548 net.cpp:139] Memory required for data: 314800
I0428 19:48:42.447273 26548 layer_factory.hpp:77] Creating layer conv0
I0428 19:48:42.447283 26548 net.cpp:86] Creating Layer conv0
I0428 19:48:42.447285 26548 net.cpp:408] conv0 <- data
I0428 19:48:42.447293 26548 net.cpp:382] conv0 -> conv0
I0428 19:48:42.449292 26548 net.cpp:124] Setting up conv0
I0428 19:48:42.449306 26548 net.cpp:131] Top shape: 100 5 24 24 (288000)
I0428 19:48:42.449311 26548 net.cpp:139] Memory required for data: 1466800
I0428 19:48:42.449319 26548 layer_factory.hpp:77] Creating layer pool0
I0428 19:48:42.449326 26548 net.cpp:86] Creating Layer pool0
I0428 19:48:42.449331 26548 net.cpp:408] pool0 <- conv0
I0428 19:48:42.449335 26548 net.cpp:382] pool0 -> pool0
I0428 19:48:42.449370 26548 net.cpp:124] Setting up pool0
I0428 19:48:42.449375 26548 net.cpp:131] Top shape: 100 5 12 12 (72000)
I0428 19:48:42.449378 26548 net.cpp:139] Memory required for data: 1754800
I0428 19:48:42.449381 26548 layer_factory.hpp:77] Creating layer conv1
I0428 19:48:42.449390 26548 net.cpp:86] Creating Layer conv1
I0428 19:48:42.449393 26548 net.cpp:408] conv1 <- pool0
I0428 19:48:42.449400 26548 net.cpp:382] conv1 -> conv1
I0428 19:48:42.451704 26548 net.cpp:124] Setting up conv1
I0428 19:48:42.451732 26548 net.cpp:131] Top shape: 100 5 8 8 (32000)
I0428 19:48:42.451736 26548 net.cpp:139] Memory required for data: 1882800
I0428 19:48:42.451746 26548 layer_factory.hpp:77] Creating layer pool1
I0428 19:48:42.451752 26548 net.cpp:86] Creating Layer pool1
I0428 19:48:42.451771 26548 net.cpp:408] pool1 <- conv1
I0428 19:48:42.451777 26548 net.cpp:382] pool1 -> pool1
I0428 19:48:42.451817 26548 net.cpp:124] Setting up pool1
I0428 19:48:42.451848 26548 net.cpp:131] Top shape: 100 5 4 4 (8000)
I0428 19:48:42.451850 26548 net.cpp:139] Memory required for data: 1914800
I0428 19:48:42.451853 26548 layer_factory.hpp:77] Creating layer ip1
I0428 19:48:42.451859 26548 net.cpp:86] Creating Layer ip1
I0428 19:48:42.451863 26548 net.cpp:408] ip1 <- pool1
I0428 19:48:42.451867 26548 net.cpp:382] ip1 -> ip1
I0428 19:48:42.452008 26548 net.cpp:124] Setting up ip1
I0428 19:48:42.452016 26548 net.cpp:131] Top shape: 100 25 (2500)
I0428 19:48:42.452019 26548 net.cpp:139] Memory required for data: 1924800
I0428 19:48:42.452026 26548 layer_factory.hpp:77] Creating layer relu1
I0428 19:48:42.452033 26548 net.cpp:86] Creating Layer relu1
I0428 19:48:42.452035 26548 net.cpp:408] relu1 <- ip1
I0428 19:48:42.452041 26548 net.cpp:369] relu1 -> ip1 (in-place)
I0428 19:48:42.452266 26548 net.cpp:124] Setting up relu1
I0428 19:48:42.452275 26548 net.cpp:131] Top shape: 100 25 (2500)
I0428 19:48:42.452277 26548 net.cpp:139] Memory required for data: 1934800
I0428 19:48:42.452280 26548 layer_factory.hpp:77] Creating layer ip2
I0428 19:48:42.452288 26548 net.cpp:86] Creating Layer ip2
I0428 19:48:42.452292 26548 net.cpp:408] ip2 <- ip1
I0428 19:48:42.452297 26548 net.cpp:382] ip2 -> ip2
I0428 19:48:42.452392 26548 net.cpp:124] Setting up ip2
I0428 19:48:42.452399 26548 net.cpp:131] Top shape: 100 10 (1000)
I0428 19:48:42.452402 26548 net.cpp:139] Memory required for data: 1938800
I0428 19:48:42.452409 26548 layer_factory.hpp:77] Creating layer relu2
I0428 19:48:42.452412 26548 net.cpp:86] Creating Layer relu2
I0428 19:48:42.452415 26548 net.cpp:408] relu2 <- ip2
I0428 19:48:42.452419 26548 net.cpp:369] relu2 -> ip2 (in-place)
I0428 19:48:42.452590 26548 net.cpp:124] Setting up relu2
I0428 19:48:42.452599 26548 net.cpp:131] Top shape: 100 10 (1000)
I0428 19:48:42.452601 26548 net.cpp:139] Memory required for data: 1942800
I0428 19:48:42.452603 26548 layer_factory.hpp:77] Creating layer ip2_relu2_0_split
I0428 19:48:42.452608 26548 net.cpp:86] Creating Layer ip2_relu2_0_split
I0428 19:48:42.452618 26548 net.cpp:408] ip2_relu2_0_split <- ip2
I0428 19:48:42.452625 26548 net.cpp:382] ip2_relu2_0_split -> ip2_relu2_0_split_0
I0428 19:48:42.452641 26548 net.cpp:382] ip2_relu2_0_split -> ip2_relu2_0_split_1
I0428 19:48:42.452675 26548 net.cpp:124] Setting up ip2_relu2_0_split
I0428 19:48:42.452680 26548 net.cpp:131] Top shape: 100 10 (1000)
I0428 19:48:42.452684 26548 net.cpp:131] Top shape: 100 10 (1000)
I0428 19:48:42.452687 26548 net.cpp:139] Memory required for data: 1950800
I0428 19:48:42.452690 26548 layer_factory.hpp:77] Creating layer accuracy
I0428 19:48:42.452695 26548 net.cpp:86] Creating Layer accuracy
I0428 19:48:42.452698 26548 net.cpp:408] accuracy <- ip2_relu2_0_split_0
I0428 19:48:42.452719 26548 net.cpp:408] accuracy <- label_mnist_1_split_0
I0428 19:48:42.452723 26548 net.cpp:382] accuracy -> accuracy
…
