…
I0428 19:32:51.303777 22971 net.cpp:296] The NetState phase (0) differed from the phase (1) specified by a rule in layer mnist
I0428 19:32:51.303798 22971 net.cpp:296] The NetState phase (0) differed from the phase (1) specified by a rule in layer accuracy
I0428 19:32:51.303886 22971 net.cpp:53] Initializing net from parameters: 
name: "LeNet"
state {
  phase: TRAIN
  level: 0
  stage: ""
}
layer {
  name: "mnist"
  type: "Data"
  top: "data"
  top: "label"
  include {
    phase: TRAIN
  }
  transform_param {
    scale: 0.00390625
  }
  data_param {
    source: "examples/mnist/mnist_train_lmdb"
    batch_size: 64
    backend: LMDB
  }
}
layer {
  name: "conv0"
  type: "Convolution"
  bottom: "data"
  top: "conv0"
  param {
    lr_mult: 1
  }
  param {
    lr_mult: 2
  }
  convolution_param {
    num_output: 25
    kernel_size: 5
    stride: 1
    weight_filler {
      type: "xavier"
    }
    bias_filler {
      type: "constant"
    }
  }
}
layer {
  name: "pool0"
  type: "Pooling"
  bottom: "conv0"
  top: "pool0"
  pooling_param {
    pool: MAX
    kernel_size: 2
    stride: 2
  }
}
layer {
  name: "ip1"
  type: "InnerProduct"
  bottom: "pool0"
  top: "ip1"
  param {
    lr_mult: 1
  }
  param {
    lr_mult: 2
  }
  inner_product_param {
    num_output: 25
    weight_filler {
      type: "xavier"
    }
    bias_filler {
      type: "constant"
    }
  }
}
layer {
  name: "relu1"
  type: "ReLU"
  bottom: "ip1"
  top: "ip1"
}
layer {
  name: "ip2"
  type: "InnerProduct"
  bottom: "ip1"
  top: "ip2"
  param {
    lr_mult: 1
  }
  param {
    lr_mult: 2
  }
  inner_product_param {
    num_output: 10
    weight_filler {
      type: "xavier"
    }
    bias_filler {
      type: "constant"
    }
  }
}
layer {
  name: "relu2"
  type: "ReLU"
  bottom: "ip2"
  top: "ip2"
}
layer {
  name: "loss"
  type: "SoftmaxWithLoss"
  bottom: "ip2"
  bottom: "label"
  top: "loss"
}
I0428 19:32:51.303985 22971 layer_factory.hpp:77] Creating layer mnist
I0428 19:32:51.304117 22971 db_lmdb.cpp:35] Opened lmdb examples/mnist/mnist_train_lmdb
I0428 19:32:51.304149 22971 net.cpp:86] Creating Layer mnist
I0428 19:32:51.304163 22971 net.cpp:382] mnist -> data
I0428 19:32:51.304194 22971 net.cpp:382] mnist -> label
I0428 19:32:51.305402 22971 data_layer.cpp:45] output data size: 64,1,28,28
I0428 19:32:51.307871 22971 net.cpp:124] Setting up mnist
I0428 19:32:51.307891 22971 net.cpp:131] Top shape: 64 1 28 28 (50176)
I0428 19:32:51.307901 22971 net.cpp:131] Top shape: 64 (64)
I0428 19:32:51.307907 22971 net.cpp:139] Memory required for data: 200960
I0428 19:32:51.307919 22971 layer_factory.hpp:77] Creating layer conv0
I0428 19:32:51.307942 22971 net.cpp:86] Creating Layer conv0
I0428 19:32:51.307955 22971 net.cpp:408] conv0 <- data
I0428 19:32:51.307974 22971 net.cpp:382] conv0 -> conv0
I0428 19:32:51.599731 22971 net.cpp:124] Setting up conv0
I0428 19:32:51.599763 22971 net.cpp:131] Top shape: 64 25 24 24 (921600)
I0428 19:32:51.599771 22971 net.cpp:139] Memory required for data: 3887360
I0428 19:32:51.599794 22971 layer_factory.hpp:77] Creating layer pool0
I0428 19:32:51.599815 22971 net.cpp:86] Creating Layer pool0
I0428 19:32:51.599831 22971 net.cpp:408] pool0 <- conv0
I0428 19:32:51.599843 22971 net.cpp:382] pool0 -> pool0
I0428 19:32:51.599906 22971 net.cpp:124] Setting up pool0
I0428 19:32:51.599917 22971 net.cpp:131] Top shape: 64 25 12 12 (230400)
I0428 19:32:51.599923 22971 net.cpp:139] Memory required for data: 4808960
I0428 19:32:51.599948 22971 layer_factory.hpp:77] Creating layer ip1
I0428 19:32:51.599963 22971 net.cpp:86] Creating Layer ip1
I0428 19:32:51.599969 22971 net.cpp:408] ip1 <- pool0
I0428 19:32:51.599979 22971 net.cpp:382] ip1 -> ip1
I0428 19:32:51.601650 22971 net.cpp:124] Setting up ip1
I0428 19:32:51.601667 22971 net.cpp:131] Top shape: 64 25 (1600)
I0428 19:32:51.601675 22971 net.cpp:139] Memory required for data: 4815360
I0428 19:32:51.601688 22971 layer_factory.hpp:77] Creating layer relu1
I0428 19:32:51.601701 22971 net.cpp:86] Creating Layer relu1
I0428 19:32:51.601707 22971 net.cpp:408] relu1 <- ip1
I0428 19:32:51.601716 22971 net.cpp:369] relu1 -> ip1 (in-place)
I0428 19:32:51.601920 22971 net.cpp:124] Setting up relu1
I0428 19:32:51.601933 22971 net.cpp:131] Top shape: 64 25 (1600)
I0428 19:32:51.601938 22971 net.cpp:139] Memory required for data: 4821760
I0428 19:32:51.601945 22971 layer_factory.hpp:77] Creating layer ip2
I0428 19:32:51.601958 22971 net.cpp:86] Creating Layer ip2
I0428 19:32:51.601963 22971 net.cpp:408] ip2 <- ip1
I0428 19:32:51.601974 22971 net.cpp:382] ip2 -> ip2
I0428 19:32:51.602092 22971 net.cpp:124] Setting up ip2
I0428 19:32:51.602102 22971 net.cpp:131] Top shape: 64 10 (640)
I0428 19:32:51.602108 22971 net.cpp:139] Memory required for data: 4824320
I0428 19:32:51.602121 22971 layer_factory.hpp:77] Creating layer relu2
I0428 19:32:51.602134 22971 net.cpp:86] Creating Layer relu2
I0428 19:32:51.602140 22971 net.cpp:408] relu2 <- ip2
I0428 19:32:51.602149 22971 net.cpp:369] relu2 -> ip2 (in-place)
I0428 19:32:51.602985 22971 net.cpp:124] Setting up relu2
I0428 19:32:51.603001 22971 net.cpp:131] Top shape: 64 10 (640)
I0428 19:32:51.603008 22971 net.cpp:139] Memory required for data: 4826880
I0428 19:32:51.603014 22971 layer_factory.hpp:77] Creating layer loss
I0428 19:32:51.603025 22971 net.cpp:86] Creating Layer loss
I0428 19:32:51.603031 22971 net.cpp:408] loss <- ip2
I0428 19:32:51.603040 22971 net.cpp:408] loss <- label
I0428 19:32:51.603049 22971 net.cpp:382] loss -> loss
I0428 19:32:51.603076 22971 layer_factory.hpp:77] Creating layer loss
…
I0428 19:32:51.603757 22971 solver.cpp:173] Creating test net (#0) specified by net file: ECE595/mnist/train_test/var_everything2/lenet_train_test164.prototxt
I0428 19:32:51.603793 22971 net.cpp:296] The NetState phase (1) differed from the phase (0) specified by a rule in layer mnist
I0428 19:32:51.603884 22971 net.cpp:53] Initializing net from parameters: 
name: "LeNet"
state {
  phase: TEST
}
layer {
  name: "mnist"
  type: "Data"
  top: "data"
  top: "label"
  include {
    phase: TEST
  }
  transform_param {
    scale: 0.00390625
  }
  data_param {
    source: "examples/mnist/mnist_test_lmdb"
    batch_size: 100
    backend: LMDB
  }
}
layer {
  name: "conv0"
  type: "Convolution"
  bottom: "data"
  top: "conv0"
  param {
    lr_mult: 1
  }
  param {
    lr_mult: 2
  }
  convolution_param {
    num_output: 25
    kernel_size: 5
    stride: 1
    weight_filler {
      type: "xavier"
    }
    bias_filler {
      type: "constant"
    }
  }
}
layer {
  name: "pool0"
  type: "Pooling"
  bottom: "conv0"
  top: "pool0"
  pooling_param {
    pool: MAX
    kernel_size: 2
    stride: 2
  }
}
layer {
  name: "ip1"
  type: "InnerProduct"
  bottom: "pool0"
  top: "ip1"
  param {
    lr_mult: 1
  }
  param {
    lr_mult: 2
  }
  inner_product_param {
    num_output: 25
    weight_filler {
      type: "xavier"
    }
    bias_filler {
      type: "constant"
    }
  }
}
layer {
  name: "relu1"
  type: "ReLU"
  bottom: "ip1"
  top: "ip1"
}
layer {
  name: "ip2"
  type: "InnerProduct"
  bottom: "ip1"
  top: "ip2"
  param {
    lr_mult: 1
  }
  param {
    lr_mult: 2
  }
  inner_product_param {
    num_output: 10
    weight_filler {
      type: "xavier"
    }
    bias_filler {
      type: "constant"
    }
  }
}
layer {
  name: "relu2"
  type: "ReLU"
  bottom: "ip2"
  top: "ip2"
}
layer {
  name: "accuracy"
  type: "Accuracy"
  bottom: "ip2"
  bottom: "label"
  top: "accuracy"
  include {
    phase: TEST
  }
}
layer {
  name: "loss"
  type: "SoftmaxWithLoss"
  bottom: "ip2"
  bottom: "label"
  top: "loss"
}
I0428 19:32:51.603997 22971 layer_factory.hpp:77] Creating layer mnist
I0428 19:32:51.604066 22971 db_lmdb.cpp:35] Opened lmdb examples/mnist/mnist_test_lmdb
I0428 19:32:51.604085 22971 net.cpp:86] Creating Layer mnist
I0428 19:32:51.604094 22971 net.cpp:382] mnist -> data
I0428 19:32:51.604107 22971 net.cpp:382] mnist -> label
I0428 19:32:51.604243 22971 data_layer.cpp:45] output data size: 100,1,28,28
I0428 19:32:51.605530 22971 net.cpp:124] Setting up mnist
I0428 19:32:51.605547 22971 net.cpp:131] Top shape: 100 1 28 28 (78400)
I0428 19:32:51.605557 22971 net.cpp:131] Top shape: 100 (100)
I0428 19:32:51.605563 22971 net.cpp:139] Memory required for data: 314000
I0428 19:32:51.605569 22971 layer_factory.hpp:77] Creating layer label_mnist_1_split
I0428 19:32:51.605581 22971 net.cpp:86] Creating Layer label_mnist_1_split
I0428 19:32:51.605587 22971 net.cpp:408] label_mnist_1_split <- label
I0428 19:32:51.605597 22971 net.cpp:382] label_mnist_1_split -> label_mnist_1_split_0
I0428 19:32:51.605608 22971 net.cpp:382] label_mnist_1_split -> label_mnist_1_split_1
I0428 19:32:51.605674 22971 net.cpp:124] Setting up label_mnist_1_split
I0428 19:32:51.605684 22971 net.cpp:131] Top shape: 100 (100)
I0428 19:32:51.605691 22971 net.cpp:131] Top shape: 100 (100)
I0428 19:32:51.605697 22971 net.cpp:139] Memory required for data: 314800
I0428 19:32:51.605703 22971 layer_factory.hpp:77] Creating layer conv0
I0428 19:32:51.605720 22971 net.cpp:86] Creating Layer conv0
I0428 19:32:51.605726 22971 net.cpp:408] conv0 <- data
I0428 19:32:51.605736 22971 net.cpp:382] conv0 -> conv0
I0428 19:32:51.607475 22971 net.cpp:124] Setting up conv0
I0428 19:32:51.607492 22971 net.cpp:131] Top shape: 100 25 24 24 (1440000)
I0428 19:32:51.607499 22971 net.cpp:139] Memory required for data: 6074800
I0428 19:32:51.607517 22971 layer_factory.hpp:77] Creating layer pool0
I0428 19:32:51.607527 22971 net.cpp:86] Creating Layer pool0
I0428 19:32:51.607534 22971 net.cpp:408] pool0 <- conv0
I0428 19:32:51.607543 22971 net.cpp:382] pool0 -> pool0
I0428 19:32:51.607592 22971 net.cpp:124] Setting up pool0
I0428 19:32:51.607602 22971 net.cpp:131] Top shape: 100 25 12 12 (360000)
I0428 19:32:51.607609 22971 net.cpp:139] Memory required for data: 7514800
I0428 19:32:51.607614 22971 layer_factory.hpp:77] Creating layer ip1
I0428 19:32:51.607626 22971 net.cpp:86] Creating Layer ip1
I0428 19:32:51.607633 22971 net.cpp:408] ip1 <- pool0
I0428 19:32:51.607643 22971 net.cpp:382] ip1 -> ip1
I0428 19:32:51.608336 22971 net.cpp:124] Setting up ip1
I0428 19:32:51.608348 22971 net.cpp:131] Top shape: 100 25 (2500)
I0428 19:32:51.608355 22971 net.cpp:139] Memory required for data: 7524800
I0428 19:32:51.608369 22971 layer_factory.hpp:77] Creating layer relu1
I0428 19:32:51.608379 22971 net.cpp:86] Creating Layer relu1
I0428 19:32:51.608388 22971 net.cpp:408] relu1 <- ip1
I0428 19:32:51.608397 22971 net.cpp:369] relu1 -> ip1 (in-place)
I0428 19:32:51.608592 22971 net.cpp:124] Setting up relu1
I0428 19:32:51.608603 22971 net.cpp:131] Top shape: 100 25 (2500)
I0428 19:32:51.608625 22971 net.cpp:139] Memory required for data: 7534800
I0428 19:32:51.608639 22971 layer_factory.hpp:77] Creating layer ip2
I0428 19:32:51.608649 22971 net.cpp:86] Creating Layer ip2
I0428 19:32:51.608656 22971 net.cpp:408] ip2 <- ip1
I0428 19:32:51.608666 22971 net.cpp:382] ip2 -> ip2
I0428 19:32:51.608785 22971 net.cpp:124] Setting up ip2
I0428 19:32:51.608803 22971 net.cpp:131] Top shape: 100 10 (1000)
I0428 19:32:51.608819 22971 net.cpp:139] Memory required for data: 7538800
I0428 19:32:51.608834 22971 layer_factory.hpp:77] Creating layer relu2
I0428 19:32:51.608845 22971 net.cpp:86] Creating Layer relu2
I0428 19:32:51.608853 22971 net.cpp:408] relu2 <- ip2
I0428 19:32:51.608862 22971 net.cpp:369] relu2 -> ip2 (in-place)
I0428 19:32:51.609130 22971 net.cpp:124] Setting up relu2
I0428 19:32:51.609143 22971 net.cpp:131] Top shape: 100 10 (1000)
I0428 19:32:51.609148 22971 net.cpp:139] Memory required for data: 7542800
I0428 19:32:51.609154 22971 layer_factory.hpp:77] Creating layer ip2_relu2_0_split
I0428 19:32:51.609166 22971 net.cpp:86] Creating Layer ip2_relu2_0_split
I0428 19:32:51.609172 22971 net.cpp:408] ip2_relu2_0_split <- ip2
I0428 19:32:51.609181 22971 net.cpp:382] ip2_relu2_0_split -> ip2_relu2_0_split_0
I0428 19:32:51.609194 22971 net.cpp:382] ip2_relu2_0_split -> ip2_relu2_0_split_1
I0428 19:32:51.609247 22971 net.cpp:124] Setting up ip2_relu2_0_split
I0428 19:32:51.609257 22971 net.cpp:131] Top shape: 100 10 (1000)
I0428 19:32:51.609266 22971 net.cpp:131] Top shape: 100 10 (1000)
I0428 19:32:51.609272 22971 net.cpp:139] Memory required for data: 7550800
I0428 19:32:51.609278 22971 layer_factory.hpp:77] Creating layer accuracy
I0428 19:32:51.609288 22971 net.cpp:86] Creating Layer accuracy
I0428 19:32:51.609295 22971 net.cpp:408] accuracy <- ip2_relu2_0_split_0
I0428 19:32:51.609304 22971 net.cpp:408] accuracy <- label_mnist_1_split_0
I0428 19:32:51.609313 22971 net.cpp:382] accuracy -> accuracy
…
