…
I0428 19:53:54.610873 27893 net.cpp:296] The NetState phase (0) differed from the phase (1) specified by a rule in layer mnist
I0428 19:53:54.610905 27893 net.cpp:296] The NetState phase (0) differed from the phase (1) specified by a rule in layer accuracy
I0428 19:53:54.610983 27893 net.cpp:53] Initializing net from parameters: 
name: "LeNet"
state {
  phase: TRAIN
  level: 0
  stage: ""
}
layer {
  name: "mnist"
  type: "Data"
  top: "data"
  top: "label"
  include {
    phase: TRAIN
  }
  transform_param {
    scale: 0.00390625
  }
  data_param {
    source: "examples/mnist/mnist_train_lmdb"
    batch_size: 64
    backend: LMDB
  }
}
layer {
  name: "conv0"
  type: "Convolution"
  bottom: "data"
  top: "conv0"
  param {
    lr_mult: 1
  }
  param {
    lr_mult: 2
  }
  convolution_param {
    num_output: 5
    kernel_size: 5
    stride: 1
    weight_filler {
      type: "xavier"
    }
    bias_filler {
      type: "constant"
    }
  }
}
layer {
  name: "pool0"
  type: "Pooling"
  bottom: "conv0"
  top: "pool0"
  pooling_param {
    pool: MAX
    kernel_size: 2
    stride: 2
  }
}
layer {
  name: "conv1"
  type: "Convolution"
  bottom: "pool0"
  top: "conv1"
  param {
    lr_mult: 1
  }
  param {
    lr_mult: 2
  }
  convolution_param {
    num_output: 50
    kernel_size: 5
    stride: 1
    weight_filler {
      type: "xavier"
    }
    bias_filler {
      type: "constant"
    }
  }
}
layer {
  name: "pool1"
  type: "Pooling"
  bottom: "conv1"
  top: "pool1"
  pooling_param {
    pool: MAX
    kernel_size: 2
    stride: 2
  }
}
layer {
  name: "ip1"
  type: "InnerProduct"
  bottom: "pool1"
  top: "ip1"
  param {
    lr_mult: 1
  }
  param {
    lr_mult: 2
  }
  inner_product_param {
    num_output: 50
    weight_filler {
      type: "xavier"
    }
    bias_filler {
      type: "constant"
    }
  }
}
layer {
  name: "relu1"
  type: "ReLU"
  bottom: "ip1"
  top: "ip1"
}
layer {
  name: "ip2"
  type: "InnerProduct"
  bottom: "ip1"
  top: "ip2"
  param {
    lr_mult: 1
  }
  param {
    lr_mult: 2
  }
  inner_product_param {
    num_output: 50
    weight_filler {
      type: "xavier"
    }
    bias_filler {
      type: "constant"
    }
  }
}
layer {
  name: "relu2"
  type: "ReLU"
  bottom: "ip2"
  top: "ip2"
}
layer {
  name: "ip3"
  type: "InnerProduct"
  bottom: "ip2"
  top: "ip3"
  param {
    lr_mult: 1
  }
  param {
    lr_mult: 2
  }
  inner_product_param {
    num_output: 10
    weight_filler {
      type: "xavier"
    }
    bias_filler {
      type: "constant"
    }
  }
}
layer {
  name: "relu3"
  type: "ReLU"
  bottom: "ip3"
  top: "ip3"
}
layer {
  name: "loss"
  type: "SoftmaxWithLoss"
  bottom: "ip3"
  bottom: "label"
  top: "loss"
}
I0428 19:53:54.611047 27893 layer_factory.hpp:77] Creating layer mnist
I0428 19:53:54.611126 27893 db_lmdb.cpp:35] Opened lmdb examples/mnist/mnist_train_lmdb
I0428 19:53:54.611146 27893 net.cpp:86] Creating Layer mnist
I0428 19:53:54.611153 27893 net.cpp:382] mnist -> data
I0428 19:53:54.611173 27893 net.cpp:382] mnist -> label
I0428 19:53:54.612087 27893 data_layer.cpp:45] output data size: 64,1,28,28
I0428 19:53:54.614329 27893 net.cpp:124] Setting up mnist
I0428 19:53:54.614344 27893 net.cpp:131] Top shape: 64 1 28 28 (50176)
I0428 19:53:54.614349 27893 net.cpp:131] Top shape: 64 (64)
I0428 19:53:54.614352 27893 net.cpp:139] Memory required for data: 200960
I0428 19:53:54.614358 27893 layer_factory.hpp:77] Creating layer conv0
I0428 19:53:54.614373 27893 net.cpp:86] Creating Layer conv0
I0428 19:53:54.614390 27893 net.cpp:408] conv0 <- data
I0428 19:53:54.614400 27893 net.cpp:382] conv0 -> conv0
I0428 19:53:54.845705 27893 net.cpp:124] Setting up conv0
I0428 19:53:54.845746 27893 net.cpp:131] Top shape: 64 5 24 24 (184320)
I0428 19:53:54.845749 27893 net.cpp:139] Memory required for data: 938240
I0428 19:53:54.845763 27893 layer_factory.hpp:77] Creating layer pool0
I0428 19:53:54.845775 27893 net.cpp:86] Creating Layer pool0
I0428 19:53:54.845779 27893 net.cpp:408] pool0 <- conv0
I0428 19:53:54.845783 27893 net.cpp:382] pool0 -> pool0
I0428 19:53:54.845849 27893 net.cpp:124] Setting up pool0
I0428 19:53:54.845857 27893 net.cpp:131] Top shape: 64 5 12 12 (46080)
I0428 19:53:54.845860 27893 net.cpp:139] Memory required for data: 1122560
I0428 19:53:54.845863 27893 layer_factory.hpp:77] Creating layer conv1
I0428 19:53:54.845875 27893 net.cpp:86] Creating Layer conv1
I0428 19:53:54.845880 27893 net.cpp:408] conv1 <- pool0
I0428 19:53:54.845901 27893 net.cpp:382] conv1 -> conv1
I0428 19:53:54.848709 27893 net.cpp:124] Setting up conv1
I0428 19:53:54.848738 27893 net.cpp:131] Top shape: 64 50 8 8 (204800)
I0428 19:53:54.848742 27893 net.cpp:139] Memory required for data: 1941760
I0428 19:53:54.848752 27893 layer_factory.hpp:77] Creating layer pool1
I0428 19:53:54.848758 27893 net.cpp:86] Creating Layer pool1
I0428 19:53:54.848762 27893 net.cpp:408] pool1 <- conv1
I0428 19:53:54.848767 27893 net.cpp:382] pool1 -> pool1
I0428 19:53:54.848825 27893 net.cpp:124] Setting up pool1
I0428 19:53:54.848834 27893 net.cpp:131] Top shape: 64 50 4 4 (51200)
I0428 19:53:54.848852 27893 net.cpp:139] Memory required for data: 2146560
I0428 19:53:54.848855 27893 layer_factory.hpp:77] Creating layer ip1
I0428 19:53:54.848866 27893 net.cpp:86] Creating Layer ip1
I0428 19:53:54.848870 27893 net.cpp:408] ip1 <- pool1
I0428 19:53:54.848878 27893 net.cpp:382] ip1 -> ip1
I0428 19:53:54.849300 27893 net.cpp:124] Setting up ip1
I0428 19:53:54.849308 27893 net.cpp:131] Top shape: 64 50 (3200)
I0428 19:53:54.849325 27893 net.cpp:139] Memory required for data: 2159360
I0428 19:53:54.849334 27893 layer_factory.hpp:77] Creating layer relu1
I0428 19:53:54.849339 27893 net.cpp:86] Creating Layer relu1
I0428 19:53:54.849342 27893 net.cpp:408] relu1 <- ip1
I0428 19:53:54.849362 27893 net.cpp:369] relu1 -> ip1 (in-place)
I0428 19:53:54.849545 27893 net.cpp:124] Setting up relu1
I0428 19:53:54.849553 27893 net.cpp:131] Top shape: 64 50 (3200)
I0428 19:53:54.849556 27893 net.cpp:139] Memory required for data: 2172160
I0428 19:53:54.849560 27893 layer_factory.hpp:77] Creating layer ip2
I0428 19:53:54.849566 27893 net.cpp:86] Creating Layer ip2
I0428 19:53:54.849570 27893 net.cpp:408] ip2 <- ip1
I0428 19:53:54.849575 27893 net.cpp:382] ip2 -> ip2
I0428 19:53:54.850540 27893 net.cpp:124] Setting up ip2
I0428 19:53:54.850553 27893 net.cpp:131] Top shape: 64 50 (3200)
I0428 19:53:54.850571 27893 net.cpp:139] Memory required for data: 2184960
I0428 19:53:54.850577 27893 layer_factory.hpp:77] Creating layer relu2
I0428 19:53:54.850584 27893 net.cpp:86] Creating Layer relu2
I0428 19:53:54.850587 27893 net.cpp:408] relu2 <- ip2
I0428 19:53:54.850594 27893 net.cpp:369] relu2 -> ip2 (in-place)
I0428 19:53:54.851366 27893 net.cpp:124] Setting up relu2
I0428 19:53:54.851393 27893 net.cpp:131] Top shape: 64 50 (3200)
I0428 19:53:54.851397 27893 net.cpp:139] Memory required for data: 2197760
I0428 19:53:54.851399 27893 layer_factory.hpp:77] Creating layer ip3
I0428 19:53:54.851423 27893 net.cpp:86] Creating Layer ip3
I0428 19:53:54.851426 27893 net.cpp:408] ip3 <- ip2
I0428 19:53:54.851431 27893 net.cpp:382] ip3 -> ip3
I0428 19:53:54.851538 27893 net.cpp:124] Setting up ip3
I0428 19:53:54.851547 27893 net.cpp:131] Top shape: 64 10 (640)
I0428 19:53:54.851548 27893 net.cpp:139] Memory required for data: 2200320
I0428 19:53:54.851557 27893 layer_factory.hpp:77] Creating layer relu3
I0428 19:53:54.851564 27893 net.cpp:86] Creating Layer relu3
I0428 19:53:54.851584 27893 net.cpp:408] relu3 <- ip3
I0428 19:53:54.851588 27893 net.cpp:369] relu3 -> ip3 (in-place)
I0428 19:53:54.851775 27893 net.cpp:124] Setting up relu3
I0428 19:53:54.851785 27893 net.cpp:131] Top shape: 64 10 (640)
I0428 19:53:54.851788 27893 net.cpp:139] Memory required for data: 2202880
I0428 19:53:54.851791 27893 layer_factory.hpp:77] Creating layer loss
I0428 19:53:54.851799 27893 net.cpp:86] Creating Layer loss
I0428 19:53:54.851801 27893 net.cpp:408] loss <- ip3
I0428 19:53:54.851805 27893 net.cpp:408] loss <- label
I0428 19:53:54.851810 27893 net.cpp:382] loss -> loss
I0428 19:53:54.851828 27893 layer_factory.hpp:77] Creating layer loss
…
I0428 19:53:54.852541 27893 solver.cpp:173] Creating test net (#0) specified by net file: ECE595/mnist/train_test/var_everything2/lenet_train_test699.prototxt
I0428 19:53:54.852581 27893 net.cpp:296] The NetState phase (1) differed from the phase (0) specified by a rule in layer mnist
I0428 19:53:54.852669 27893 net.cpp:53] Initializing net from parameters: 
name: "LeNet"
state {
  phase: TEST
}
layer {
  name: "mnist"
  type: "Data"
  top: "data"
  top: "label"
  include {
    phase: TEST
  }
  transform_param {
    scale: 0.00390625
  }
  data_param {
    source: "examples/mnist/mnist_test_lmdb"
    batch_size: 100
    backend: LMDB
  }
}
layer {
  name: "conv0"
  type: "Convolution"
  bottom: "data"
  top: "conv0"
  param {
    lr_mult: 1
  }
  param {
    lr_mult: 2
  }
  convolution_param {
    num_output: 5
    kernel_size: 5
    stride: 1
    weight_filler {
      type: "xavier"
    }
    bias_filler {
      type: "constant"
    }
  }
}
layer {
  name: "pool0"
  type: "Pooling"
  bottom: "conv0"
  top: "pool0"
  pooling_param {
    pool: MAX
    kernel_size: 2
    stride: 2
  }
}
layer {
  name: "conv1"
  type: "Convolution"
  bottom: "pool0"
  top: "conv1"
  param {
    lr_mult: 1
  }
  param {
    lr_mult: 2
  }
  convolution_param {
    num_output: 50
    kernel_size: 5
    stride: 1
    weight_filler {
      type: "xavier"
    }
    bias_filler {
      type: "constant"
    }
  }
}
layer {
  name: "pool1"
  type: "Pooling"
  bottom: "conv1"
  top: "pool1"
  pooling_param {
    pool: MAX
    kernel_size: 2
    stride: 2
  }
}
layer {
  name: "ip1"
  type: "InnerProduct"
  bottom: "pool1"
  top: "ip1"
  param {
    lr_mult: 1
  }
  param {
    lr_mult: 2
  }
  inner_product_param {
    num_output: 50
    weight_filler {
      type: "xavier"
    }
    bias_filler {
      type: "constant"
    }
  }
}
layer {
  name: "relu1"
  type: "ReLU"
  bottom: "ip1"
  top: "ip1"
}
layer {
  name: "ip2"
  type: "InnerProduct"
  bottom: "ip1"
  top: "ip2"
  param {
    lr_mult: 1
  }
  param {
    lr_mult: 2
  }
  inner_product_param {
    num_output: 50
    weight_filler {
      type: "xavier"
    }
    bias_filler {
      type: "constant"
    }
  }
}
layer {
  name: "relu2"
  type: "ReLU"
  bottom: "ip2"
  top: "ip2"
}
layer {
  name: "ip3"
  type: "InnerProduct"
  bottom: "ip2"
  top: "ip3"
  param {
    lr_mult: 1
  }
  param {
    lr_mult: 2
  }
  inner_product_param {
    num_output: 10
    weight_filler {
      type: "xavier"
    }
    bias_filler {
      type: "constant"
    }
  }
}
layer {
  name: "relu3"
  type: "ReLU"
  bottom: "ip3"
  top: "ip3"
}
layer {
  name: "accuracy"
  type: "Accuracy"
  bottom: "ip3"
  bottom: "label"
  top: "accuracy"
  include {
    phase: TEST
  }
}
layer {
  name: "loss"
  type: "SoftmaxWithLoss"
  bottom: "ip3"
  bottom: "label"
  top: "loss"
}
I0428 19:53:54.852748 27893 layer_factory.hpp:77] Creating layer mnist
I0428 19:53:54.852787 27893 db_lmdb.cpp:35] Opened lmdb examples/mnist/mnist_test_lmdb
I0428 19:53:54.852804 27893 net.cpp:86] Creating Layer mnist
I0428 19:53:54.852828 27893 net.cpp:382] mnist -> data
I0428 19:53:54.852836 27893 net.cpp:382] mnist -> label
I0428 19:53:54.852955 27893 data_layer.cpp:45] output data size: 100,1,28,28
I0428 19:53:54.854944 27893 net.cpp:124] Setting up mnist
I0428 19:53:54.854957 27893 net.cpp:131] Top shape: 100 1 28 28 (78400)
I0428 19:53:54.854964 27893 net.cpp:131] Top shape: 100 (100)
I0428 19:53:54.854966 27893 net.cpp:139] Memory required for data: 314000
I0428 19:53:54.854969 27893 layer_factory.hpp:77] Creating layer label_mnist_1_split
I0428 19:53:54.854979 27893 net.cpp:86] Creating Layer label_mnist_1_split
I0428 19:53:54.854984 27893 net.cpp:408] label_mnist_1_split <- label
I0428 19:53:54.854990 27893 net.cpp:382] label_mnist_1_split -> label_mnist_1_split_0
I0428 19:53:54.854996 27893 net.cpp:382] label_mnist_1_split -> label_mnist_1_split_1
I0428 19:53:54.855134 27893 net.cpp:124] Setting up label_mnist_1_split
I0428 19:53:54.855140 27893 net.cpp:131] Top shape: 100 (100)
I0428 19:53:54.855144 27893 net.cpp:131] Top shape: 100 (100)
I0428 19:53:54.855147 27893 net.cpp:139] Memory required for data: 314800
I0428 19:53:54.855150 27893 layer_factory.hpp:77] Creating layer conv0
I0428 19:53:54.855176 27893 net.cpp:86] Creating Layer conv0
I0428 19:53:54.855180 27893 net.cpp:408] conv0 <- data
I0428 19:53:54.855185 27893 net.cpp:382] conv0 -> conv0
I0428 19:53:54.857081 27893 net.cpp:124] Setting up conv0
I0428 19:53:54.857096 27893 net.cpp:131] Top shape: 100 5 24 24 (288000)
I0428 19:53:54.857100 27893 net.cpp:139] Memory required for data: 1466800
I0428 19:53:54.857110 27893 layer_factory.hpp:77] Creating layer pool0
I0428 19:53:54.857118 27893 net.cpp:86] Creating Layer pool0
I0428 19:53:54.857121 27893 net.cpp:408] pool0 <- conv0
I0428 19:53:54.857126 27893 net.cpp:382] pool0 -> pool0
I0428 19:53:54.857180 27893 net.cpp:124] Setting up pool0
I0428 19:53:54.857188 27893 net.cpp:131] Top shape: 100 5 12 12 (72000)
I0428 19:53:54.857192 27893 net.cpp:139] Memory required for data: 1754800
I0428 19:53:54.857194 27893 layer_factory.hpp:77] Creating layer conv1
I0428 19:53:54.857203 27893 net.cpp:86] Creating Layer conv1
I0428 19:53:54.857208 27893 net.cpp:408] conv1 <- pool0
I0428 19:53:54.857229 27893 net.cpp:382] conv1 -> conv1
I0428 19:53:54.858877 27893 net.cpp:124] Setting up conv1
I0428 19:53:54.858896 27893 net.cpp:131] Top shape: 100 50 8 8 (320000)
I0428 19:53:54.858911 27893 net.cpp:139] Memory required for data: 3034800
I0428 19:53:54.858921 27893 layer_factory.hpp:77] Creating layer pool1
I0428 19:53:54.858928 27893 net.cpp:86] Creating Layer pool1
I0428 19:53:54.858932 27893 net.cpp:408] pool1 <- conv1
I0428 19:53:54.858938 27893 net.cpp:382] pool1 -> pool1
I0428 19:53:54.858978 27893 net.cpp:124] Setting up pool1
I0428 19:53:54.858985 27893 net.cpp:131] Top shape: 100 50 4 4 (80000)
I0428 19:53:54.858989 27893 net.cpp:139] Memory required for data: 3354800
I0428 19:53:54.858991 27893 layer_factory.hpp:77] Creating layer ip1
I0428 19:53:54.858999 27893 net.cpp:86] Creating Layer ip1
I0428 19:53:54.859002 27893 net.cpp:408] ip1 <- pool1
I0428 19:53:54.859007 27893 net.cpp:382] ip1 -> ip1
I0428 19:53:54.859413 27893 net.cpp:124] Setting up ip1
I0428 19:53:54.859422 27893 net.cpp:131] Top shape: 100 50 (5000)
I0428 19:53:54.859436 27893 net.cpp:139] Memory required for data: 3374800
I0428 19:53:54.859446 27893 layer_factory.hpp:77] Creating layer relu1
I0428 19:53:54.859469 27893 net.cpp:86] Creating Layer relu1
I0428 19:53:54.859498 27893 net.cpp:408] relu1 <- ip1
I0428 19:53:54.859501 27893 net.cpp:369] relu1 -> ip1 (in-place)
I0428 19:53:54.859699 27893 net.cpp:124] Setting up relu1
I0428 19:53:54.859707 27893 net.cpp:131] Top shape: 100 50 (5000)
I0428 19:53:54.859711 27893 net.cpp:139] Memory required for data: 3394800
I0428 19:53:54.859714 27893 layer_factory.hpp:77] Creating layer ip2
I0428 19:53:54.859722 27893 net.cpp:86] Creating Layer ip2
I0428 19:53:54.859725 27893 net.cpp:408] ip2 <- ip1
I0428 19:53:54.859731 27893 net.cpp:382] ip2 -> ip2
I0428 19:53:54.859904 27893 net.cpp:124] Setting up ip2
I0428 19:53:54.859912 27893 net.cpp:131] Top shape: 100 50 (5000)
I0428 19:53:54.859915 27893 net.cpp:139] Memory required for data: 3414800
I0428 19:53:54.859921 27893 layer_factory.hpp:77] Creating layer relu2
I0428 19:53:54.859926 27893 net.cpp:86] Creating Layer relu2
I0428 19:53:54.859930 27893 net.cpp:408] relu2 <- ip2
I0428 19:53:54.859935 27893 net.cpp:369] relu2 -> ip2 (in-place)
I0428 19:53:54.860175 27893 net.cpp:124] Setting up relu2
I0428 19:53:54.860184 27893 net.cpp:131] Top shape: 100 50 (5000)
I0428 19:53:54.860188 27893 net.cpp:139] Memory required for data: 3434800
I0428 19:53:54.860191 27893 layer_factory.hpp:77] Creating layer ip3
I0428 19:53:54.860198 27893 net.cpp:86] Creating Layer ip3
I0428 19:53:54.860200 27893 net.cpp:408] ip3 <- ip2
I0428 19:53:54.860206 27893 net.cpp:382] ip3 -> ip3
I0428 19:53:54.860330 27893 net.cpp:124] Setting up ip3
I0428 19:53:54.860335 27893 net.cpp:131] Top shape: 100 10 (1000)
I0428 19:53:54.860338 27893 net.cpp:139] Memory required for data: 3438800
I0428 19:53:54.860348 27893 layer_factory.hpp:77] Creating layer relu3
I0428 19:53:54.860353 27893 net.cpp:86] Creating Layer relu3
I0428 19:53:54.860357 27893 net.cpp:408] relu3 <- ip3
I0428 19:53:54.860361 27893 net.cpp:369] relu3 -> ip3 (in-place)
I0428 19:53:54.861264 27893 net.cpp:124] Setting up relu3
I0428 19:53:54.861276 27893 net.cpp:131] Top shape: 100 10 (1000)
I0428 19:53:54.861280 27893 net.cpp:139] Memory required for data: 3442800
I0428 19:53:54.861284 27893 layer_factory.hpp:77] Creating layer ip3_relu3_0_split
I0428 19:53:54.861289 27893 net.cpp:86] Creating Layer ip3_relu3_0_split
I0428 19:53:54.861292 27893 net.cpp:408] ip3_relu3_0_split <- ip3
I0428 19:53:54.861299 27893 net.cpp:382] ip3_relu3_0_split -> ip3_relu3_0_split_0
I0428 19:53:54.861304 27893 net.cpp:382] ip3_relu3_0_split -> ip3_relu3_0_split_1
I0428 19:53:54.861354 27893 net.cpp:124] Setting up ip3_relu3_0_split
I0428 19:53:54.861361 27893 net.cpp:131] Top shape: 100 10 (1000)
I0428 19:53:54.861366 27893 net.cpp:131] Top shape: 100 10 (1000)
I0428 19:53:54.861369 27893 net.cpp:139] Memory required for data: 3450800
I0428 19:53:54.861378 27893 layer_factory.hpp:77] Creating layer accuracy
I0428 19:53:54.861384 27893 net.cpp:86] Creating Layer accuracy
I0428 19:53:54.861388 27893 net.cpp:408] accuracy <- ip3_relu3_0_split_0
I0428 19:53:54.861392 27893 net.cpp:408] accuracy <- label_mnist_1_split_0
I0428 19:53:54.861397 27893 net.cpp:382] accuracy -> accuracy
…
