…
I0428 19:59:05.022868 29153 net.cpp:296] The NetState phase (0) differed from the phase (1) specified by a rule in layer mnist
I0428 19:59:05.022887 29153 net.cpp:296] The NetState phase (0) differed from the phase (1) specified by a rule in layer accuracy
I0428 19:59:05.022982 29153 net.cpp:53] Initializing net from parameters: 
name: "LeNet"
state {
  phase: TRAIN
  level: 0
  stage: ""
}
layer {
  name: "mnist"
  type: "Data"
  top: "data"
  top: "label"
  include {
    phase: TRAIN
  }
  transform_param {
    scale: 0.00390625
  }
  data_param {
    source: "examples/mnist/mnist_train_lmdb"
    batch_size: 64
    backend: LMDB
  }
}
layer {
  name: "conv0"
  type: "Convolution"
  bottom: "data"
  top: "conv0"
  param {
    lr_mult: 1
  }
  param {
    lr_mult: 2
  }
  convolution_param {
    num_output: 10
    kernel_size: 5
    stride: 1
    weight_filler {
      type: "xavier"
    }
    bias_filler {
      type: "constant"
    }
  }
}
layer {
  name: "pool0"
  type: "Pooling"
  bottom: "conv0"
  top: "pool0"
  pooling_param {
    pool: MAX
    kernel_size: 2
    stride: 2
  }
}
layer {
  name: "conv1"
  type: "Convolution"
  bottom: "pool0"
  top: "conv1"
  param {
    lr_mult: 1
  }
  param {
    lr_mult: 2
  }
  convolution_param {
    num_output: 10
    kernel_size: 5
    stride: 1
    weight_filler {
      type: "xavier"
    }
    bias_filler {
      type: "constant"
    }
  }
}
layer {
  name: "pool1"
  type: "Pooling"
  bottom: "conv1"
  top: "pool1"
  pooling_param {
    pool: MAX
    kernel_size: 2
    stride: 2
  }
}
layer {
  name: "ip1"
  type: "InnerProduct"
  bottom: "pool1"
  top: "ip1"
  param {
    lr_mult: 1
  }
  param {
    lr_mult: 2
  }
  inner_product_param {
    num_output: 10
    weight_filler {
      type: "xavier"
    }
    bias_filler {
      type: "constant"
    }
  }
}
layer {
  name: "relu1"
  type: "ReLU"
  bottom: "ip1"
  top: "ip1"
}
layer {
  name: "ip2"
  type: "InnerProduct"
  bottom: "ip1"
  top: "ip2"
  param {
    lr_mult: 1
  }
  param {
    lr_mult: 2
  }
  inner_product_param {
    num_output: 50
    weight_filler {
      type: "xavier"
    }
    bias_filler {
      type: "constant"
    }
  }
}
layer {
  name: "relu2"
  type: "ReLU"
  bottom: "ip2"
  top: "ip2"
}
layer {
  name: "ip3"
  type: "InnerProduct"
  bottom: "ip2"
  top: "ip3"
  param {
    lr_mult: 1
  }
  param {
    lr_mult: 2
  }
  inner_product_param {
    num_output: 10
    weight_filler {
      type: "xavier"
    }
    bias_filler {
      type: "constant"
    }
  }
}
layer {
  name: "relu3"
  type: "ReLU"
  bottom: "ip3"
  top: "ip3"
}
layer {
  name: "loss"
  type: "SoftmaxWithLoss"
  bottom: "ip3"
  bottom: "label"
  top: "loss"
}
I0428 19:59:05.023056 29153 layer_factory.hpp:77] Creating layer mnist
I0428 19:59:05.023156 29153 db_lmdb.cpp:35] Opened lmdb examples/mnist/mnist_train_lmdb
I0428 19:59:05.023180 29153 net.cpp:86] Creating Layer mnist
I0428 19:59:05.023187 29153 net.cpp:382] mnist -> data
I0428 19:59:05.023211 29153 net.cpp:382] mnist -> label
I0428 19:59:05.024294 29153 data_layer.cpp:45] output data size: 64,1,28,28
I0428 19:59:05.026747 29153 net.cpp:124] Setting up mnist
I0428 19:59:05.026764 29153 net.cpp:131] Top shape: 64 1 28 28 (50176)
I0428 19:59:05.026770 29153 net.cpp:131] Top shape: 64 (64)
I0428 19:59:05.026774 29153 net.cpp:139] Memory required for data: 200960
I0428 19:59:05.026782 29153 layer_factory.hpp:77] Creating layer conv0
I0428 19:59:05.026798 29153 net.cpp:86] Creating Layer conv0
I0428 19:59:05.026819 29153 net.cpp:408] conv0 <- data
I0428 19:59:05.026831 29153 net.cpp:382] conv0 -> conv0
I0428 19:59:05.316129 29153 net.cpp:124] Setting up conv0
I0428 19:59:05.316157 29153 net.cpp:131] Top shape: 64 10 24 24 (368640)
I0428 19:59:05.316162 29153 net.cpp:139] Memory required for data: 1675520
I0428 19:59:05.316177 29153 layer_factory.hpp:77] Creating layer pool0
I0428 19:59:05.316190 29153 net.cpp:86] Creating Layer pool0
I0428 19:59:05.316195 29153 net.cpp:408] pool0 <- conv0
I0428 19:59:05.316200 29153 net.cpp:382] pool0 -> pool0
I0428 19:59:05.316249 29153 net.cpp:124] Setting up pool0
I0428 19:59:05.316256 29153 net.cpp:131] Top shape: 64 10 12 12 (92160)
I0428 19:59:05.316258 29153 net.cpp:139] Memory required for data: 2044160
I0428 19:59:05.316262 29153 layer_factory.hpp:77] Creating layer conv1
I0428 19:59:05.316273 29153 net.cpp:86] Creating Layer conv1
I0428 19:59:05.316277 29153 net.cpp:408] conv1 <- pool0
I0428 19:59:05.316282 29153 net.cpp:382] conv1 -> conv1
I0428 19:59:05.319063 29153 net.cpp:124] Setting up conv1
I0428 19:59:05.319079 29153 net.cpp:131] Top shape: 64 10 8 8 (40960)
I0428 19:59:05.319083 29153 net.cpp:139] Memory required for data: 2208000
I0428 19:59:05.319092 29153 layer_factory.hpp:77] Creating layer pool1
I0428 19:59:05.319099 29153 net.cpp:86] Creating Layer pool1
I0428 19:59:05.319103 29153 net.cpp:408] pool1 <- conv1
I0428 19:59:05.319108 29153 net.cpp:382] pool1 -> pool1
I0428 19:59:05.319149 29153 net.cpp:124] Setting up pool1
I0428 19:59:05.319154 29153 net.cpp:131] Top shape: 64 10 4 4 (10240)
I0428 19:59:05.319157 29153 net.cpp:139] Memory required for data: 2248960
I0428 19:59:05.319160 29153 layer_factory.hpp:77] Creating layer ip1
I0428 19:59:05.319167 29153 net.cpp:86] Creating Layer ip1
I0428 19:59:05.319170 29153 net.cpp:408] ip1 <- pool1
I0428 19:59:05.319175 29153 net.cpp:382] ip1 -> ip1
I0428 19:59:05.319288 29153 net.cpp:124] Setting up ip1
I0428 19:59:05.319296 29153 net.cpp:131] Top shape: 64 10 (640)
I0428 19:59:05.319299 29153 net.cpp:139] Memory required for data: 2251520
I0428 19:59:05.319306 29153 layer_factory.hpp:77] Creating layer relu1
I0428 19:59:05.319313 29153 net.cpp:86] Creating Layer relu1
I0428 19:59:05.319315 29153 net.cpp:408] relu1 <- ip1
I0428 19:59:05.319320 29153 net.cpp:369] relu1 -> ip1 (in-place)
I0428 19:59:05.319494 29153 net.cpp:124] Setting up relu1
I0428 19:59:05.319504 29153 net.cpp:131] Top shape: 64 10 (640)
I0428 19:59:05.319506 29153 net.cpp:139] Memory required for data: 2254080
I0428 19:59:05.319510 29153 layer_factory.hpp:77] Creating layer ip2
I0428 19:59:05.319516 29153 net.cpp:86] Creating Layer ip2
I0428 19:59:05.319519 29153 net.cpp:408] ip2 <- ip1
I0428 19:59:05.319525 29153 net.cpp:382] ip2 -> ip2
I0428 19:59:05.319629 29153 net.cpp:124] Setting up ip2
I0428 19:59:05.319636 29153 net.cpp:131] Top shape: 64 50 (3200)
I0428 19:59:05.319639 29153 net.cpp:139] Memory required for data: 2266880
I0428 19:59:05.319645 29153 layer_factory.hpp:77] Creating layer relu2
I0428 19:59:05.319651 29153 net.cpp:86] Creating Layer relu2
I0428 19:59:05.319654 29153 net.cpp:408] relu2 <- ip2
I0428 19:59:05.319658 29153 net.cpp:369] relu2 -> ip2 (in-place)
I0428 19:59:05.320408 29153 net.cpp:124] Setting up relu2
I0428 19:59:05.320421 29153 net.cpp:131] Top shape: 64 50 (3200)
I0428 19:59:05.320425 29153 net.cpp:139] Memory required for data: 2279680
I0428 19:59:05.320430 29153 layer_factory.hpp:77] Creating layer ip3
I0428 19:59:05.320436 29153 net.cpp:86] Creating Layer ip3
I0428 19:59:05.320439 29153 net.cpp:408] ip3 <- ip2
I0428 19:59:05.320446 29153 net.cpp:382] ip3 -> ip3
I0428 19:59:05.320554 29153 net.cpp:124] Setting up ip3
I0428 19:59:05.320561 29153 net.cpp:131] Top shape: 64 10 (640)
I0428 19:59:05.320564 29153 net.cpp:139] Memory required for data: 2282240
I0428 19:59:05.320572 29153 layer_factory.hpp:77] Creating layer relu3
I0428 19:59:05.320577 29153 net.cpp:86] Creating Layer relu3
I0428 19:59:05.320580 29153 net.cpp:408] relu3 <- ip3
I0428 19:59:05.320585 29153 net.cpp:369] relu3 -> ip3 (in-place)
I0428 19:59:05.320761 29153 net.cpp:124] Setting up relu3
I0428 19:59:05.320770 29153 net.cpp:131] Top shape: 64 10 (640)
I0428 19:59:05.320775 29153 net.cpp:139] Memory required for data: 2284800
I0428 19:59:05.320777 29153 layer_factory.hpp:77] Creating layer loss
I0428 19:59:05.320783 29153 net.cpp:86] Creating Layer loss
I0428 19:59:05.320786 29153 net.cpp:408] loss <- ip3
I0428 19:59:05.320791 29153 net.cpp:408] loss <- label
I0428 19:59:05.320796 29153 net.cpp:382] loss -> loss
I0428 19:59:05.320822 29153 layer_factory.hpp:77] Creating layer loss
…
I0428 19:59:05.321507 29153 solver.cpp:173] Creating test net (#0) specified by net file: ECE595/mnist/train_test/var_everything2/lenet_train_test837.prototxt
I0428 19:59:05.321535 29153 net.cpp:296] The NetState phase (1) differed from the phase (0) specified by a rule in layer mnist
I0428 19:59:05.321629 29153 net.cpp:53] Initializing net from parameters: 
name: "LeNet"
state {
  phase: TEST
}
layer {
  name: "mnist"
  type: "Data"
  top: "data"
  top: "label"
  include {
    phase: TEST
  }
  transform_param {
    scale: 0.00390625
  }
  data_param {
    source: "examples/mnist/mnist_test_lmdb"
    batch_size: 100
    backend: LMDB
  }
}
layer {
  name: "conv0"
  type: "Convolution"
  bottom: "data"
  top: "conv0"
  param {
    lr_mult: 1
  }
  param {
    lr_mult: 2
  }
  convolution_param {
    num_output: 10
    kernel_size: 5
    stride: 1
    weight_filler {
      type: "xavier"
    }
    bias_filler {
      type: "constant"
    }
  }
}
layer {
  name: "pool0"
  type: "Pooling"
  bottom: "conv0"
  top: "pool0"
  pooling_param {
    pool: MAX
    kernel_size: 2
    stride: 2
  }
}
layer {
  name: "conv1"
  type: "Convolution"
  bottom: "pool0"
  top: "conv1"
  param {
    lr_mult: 1
  }
  param {
    lr_mult: 2
  }
  convolution_param {
    num_output: 10
    kernel_size: 5
    stride: 1
    weight_filler {
      type: "xavier"
    }
    bias_filler {
      type: "constant"
    }
  }
}
layer {
  name: "pool1"
  type: "Pooling"
  bottom: "conv1"
  top: "pool1"
  pooling_param {
    pool: MAX
    kernel_size: 2
    stride: 2
  }
}
layer {
  name: "ip1"
  type: "InnerProduct"
  bottom: "pool1"
  top: "ip1"
  param {
    lr_mult: 1
  }
  param {
    lr_mult: 2
  }
  inner_product_param {
    num_output: 10
    weight_filler {
      type: "xavier"
    }
    bias_filler {
      type: "constant"
    }
  }
}
layer {
  name: "relu1"
  type: "ReLU"
  bottom: "ip1"
  top: "ip1"
}
layer {
  name: "ip2"
  type: "InnerProduct"
  bottom: "ip1"
  top: "ip2"
  param {
    lr_mult: 1
  }
  param {
    lr_mult: 2
  }
  inner_product_param {
    num_output: 50
    weight_filler {
      type: "xavier"
    }
    bias_filler {
      type: "constant"
    }
  }
}
layer {
  name: "relu2"
  type: "ReLU"
  bottom: "ip2"
  top: "ip2"
}
layer {
  name: "ip3"
  type: "InnerProduct"
  bottom: "ip2"
  top: "ip3"
  param {
    lr_mult: 1
  }
  param {
    lr_mult: 2
  }
  inner_product_param {
    num_output: 10
    weight_filler {
      type: "xavier"
    }
    bias_filler {
      type: "constant"
    }
  }
}
layer {
  name: "relu3"
  type: "ReLU"
  bottom: "ip3"
  top: "ip3"
}
layer {
  name: "accuracy"
  type: "Accuracy"
  bottom: "ip3"
  bottom: "label"
  top: "accuracy"
  include {
    phase: TEST
  }
}
layer {
  name: "loss"
  type: "SoftmaxWithLoss"
  bottom: "ip3"
  bottom: "label"
  top: "loss"
}
I0428 19:59:05.321713 29153 layer_factory.hpp:77] Creating layer mnist
I0428 19:59:05.321759 29153 db_lmdb.cpp:35] Opened lmdb examples/mnist/mnist_test_lmdb
I0428 19:59:05.321772 29153 net.cpp:86] Creating Layer mnist
I0428 19:59:05.321777 29153 net.cpp:382] mnist -> data
I0428 19:59:05.321785 29153 net.cpp:382] mnist -> label
I0428 19:59:05.321874 29153 data_layer.cpp:45] output data size: 100,1,28,28
I0428 19:59:05.324040 29153 net.cpp:124] Setting up mnist
I0428 19:59:05.324054 29153 net.cpp:131] Top shape: 100 1 28 28 (78400)
I0428 19:59:05.324059 29153 net.cpp:131] Top shape: 100 (100)
I0428 19:59:05.324064 29153 net.cpp:139] Memory required for data: 314000
I0428 19:59:05.324067 29153 layer_factory.hpp:77] Creating layer label_mnist_1_split
I0428 19:59:05.324074 29153 net.cpp:86] Creating Layer label_mnist_1_split
I0428 19:59:05.324077 29153 net.cpp:408] label_mnist_1_split <- label
I0428 19:59:05.324082 29153 net.cpp:382] label_mnist_1_split -> label_mnist_1_split_0
I0428 19:59:05.324091 29153 net.cpp:382] label_mnist_1_split -> label_mnist_1_split_1
I0428 19:59:05.324131 29153 net.cpp:124] Setting up label_mnist_1_split
I0428 19:59:05.324136 29153 net.cpp:131] Top shape: 100 (100)
I0428 19:59:05.324141 29153 net.cpp:131] Top shape: 100 (100)
I0428 19:59:05.324143 29153 net.cpp:139] Memory required for data: 314800
I0428 19:59:05.324146 29153 layer_factory.hpp:77] Creating layer conv0
I0428 19:59:05.324156 29153 net.cpp:86] Creating Layer conv0
I0428 19:59:05.324158 29153 net.cpp:408] conv0 <- data
I0428 19:59:05.324163 29153 net.cpp:382] conv0 -> conv0
I0428 19:59:05.325883 29153 net.cpp:124] Setting up conv0
I0428 19:59:05.325897 29153 net.cpp:131] Top shape: 100 10 24 24 (576000)
I0428 19:59:05.325901 29153 net.cpp:139] Memory required for data: 2618800
I0428 19:59:05.325911 29153 layer_factory.hpp:77] Creating layer pool0
I0428 19:59:05.325917 29153 net.cpp:86] Creating Layer pool0
I0428 19:59:05.325920 29153 net.cpp:408] pool0 <- conv0
I0428 19:59:05.325925 29153 net.cpp:382] pool0 -> pool0
I0428 19:59:05.325960 29153 net.cpp:124] Setting up pool0
I0428 19:59:05.325965 29153 net.cpp:131] Top shape: 100 10 12 12 (144000)
I0428 19:59:05.325968 29153 net.cpp:139] Memory required for data: 3194800
I0428 19:59:05.325971 29153 layer_factory.hpp:77] Creating layer conv1
I0428 19:59:05.325979 29153 net.cpp:86] Creating Layer conv1
I0428 19:59:05.325983 29153 net.cpp:408] conv1 <- pool0
I0428 19:59:05.325987 29153 net.cpp:382] conv1 -> conv1
I0428 19:59:05.328014 29153 net.cpp:124] Setting up conv1
I0428 19:59:05.328028 29153 net.cpp:131] Top shape: 100 10 8 8 (64000)
I0428 19:59:05.328032 29153 net.cpp:139] Memory required for data: 3450800
I0428 19:59:05.328040 29153 layer_factory.hpp:77] Creating layer pool1
I0428 19:59:05.328048 29153 net.cpp:86] Creating Layer pool1
I0428 19:59:05.328052 29153 net.cpp:408] pool1 <- conv1
I0428 19:59:05.328057 29153 net.cpp:382] pool1 -> pool1
I0428 19:59:05.328099 29153 net.cpp:124] Setting up pool1
I0428 19:59:05.328105 29153 net.cpp:131] Top shape: 100 10 4 4 (16000)
I0428 19:59:05.328107 29153 net.cpp:139] Memory required for data: 3514800
I0428 19:59:05.328110 29153 layer_factory.hpp:77] Creating layer ip1
I0428 19:59:05.328116 29153 net.cpp:86] Creating Layer ip1
I0428 19:59:05.328120 29153 net.cpp:408] ip1 <- pool1
I0428 19:59:05.328125 29153 net.cpp:382] ip1 -> ip1
I0428 19:59:05.328246 29153 net.cpp:124] Setting up ip1
I0428 19:59:05.328253 29153 net.cpp:131] Top shape: 100 10 (1000)
I0428 19:59:05.328266 29153 net.cpp:139] Memory required for data: 3518800
I0428 19:59:05.328274 29153 layer_factory.hpp:77] Creating layer relu1
I0428 19:59:05.328279 29153 net.cpp:86] Creating Layer relu1
I0428 19:59:05.328282 29153 net.cpp:408] relu1 <- ip1
I0428 19:59:05.328286 29153 net.cpp:369] relu1 -> ip1 (in-place)
I0428 19:59:05.328461 29153 net.cpp:124] Setting up relu1
I0428 19:59:05.328470 29153 net.cpp:131] Top shape: 100 10 (1000)
I0428 19:59:05.328474 29153 net.cpp:139] Memory required for data: 3522800
I0428 19:59:05.328476 29153 layer_factory.hpp:77] Creating layer ip2
I0428 19:59:05.328483 29153 net.cpp:86] Creating Layer ip2
I0428 19:59:05.328486 29153 net.cpp:408] ip2 <- ip1
I0428 19:59:05.328491 29153 net.cpp:382] ip2 -> ip2
I0428 19:59:05.328594 29153 net.cpp:124] Setting up ip2
I0428 19:59:05.328601 29153 net.cpp:131] Top shape: 100 50 (5000)
I0428 19:59:05.328604 29153 net.cpp:139] Memory required for data: 3542800
I0428 19:59:05.328610 29153 layer_factory.hpp:77] Creating layer relu2
I0428 19:59:05.328614 29153 net.cpp:86] Creating Layer relu2
I0428 19:59:05.328619 29153 net.cpp:408] relu2 <- ip2
I0428 19:59:05.328621 29153 net.cpp:369] relu2 -> ip2 (in-place)
I0428 19:59:05.328773 29153 net.cpp:124] Setting up relu2
I0428 19:59:05.328780 29153 net.cpp:131] Top shape: 100 50 (5000)
I0428 19:59:05.328784 29153 net.cpp:139] Memory required for data: 3562800
I0428 19:59:05.328788 29153 layer_factory.hpp:77] Creating layer ip3
I0428 19:59:05.328794 29153 net.cpp:86] Creating Layer ip3
I0428 19:59:05.328796 29153 net.cpp:408] ip3 <- ip2
I0428 19:59:05.328806 29153 net.cpp:382] ip3 -> ip3
I0428 19:59:05.328915 29153 net.cpp:124] Setting up ip3
I0428 19:59:05.328922 29153 net.cpp:131] Top shape: 100 10 (1000)
I0428 19:59:05.328927 29153 net.cpp:139] Memory required for data: 3566800
I0428 19:59:05.328934 29153 layer_factory.hpp:77] Creating layer relu3
I0428 19:59:05.328938 29153 net.cpp:86] Creating Layer relu3
I0428 19:59:05.328941 29153 net.cpp:408] relu3 <- ip3
I0428 19:59:05.328953 29153 net.cpp:369] relu3 -> ip3 (in-place)
I0428 19:59:05.329848 29153 net.cpp:124] Setting up relu3
I0428 19:59:05.329859 29153 net.cpp:131] Top shape: 100 10 (1000)
I0428 19:59:05.329862 29153 net.cpp:139] Memory required for data: 3570800
I0428 19:59:05.329866 29153 layer_factory.hpp:77] Creating layer ip3_relu3_0_split
I0428 19:59:05.329871 29153 net.cpp:86] Creating Layer ip3_relu3_0_split
I0428 19:59:05.329874 29153 net.cpp:408] ip3_relu3_0_split <- ip3
I0428 19:59:05.329879 29153 net.cpp:382] ip3_relu3_0_split -> ip3_relu3_0_split_0
I0428 19:59:05.329885 29153 net.cpp:382] ip3_relu3_0_split -> ip3_relu3_0_split_1
I0428 19:59:05.329926 29153 net.cpp:124] Setting up ip3_relu3_0_split
I0428 19:59:05.329931 29153 net.cpp:131] Top shape: 100 10 (1000)
I0428 19:59:05.329936 29153 net.cpp:131] Top shape: 100 10 (1000)
I0428 19:59:05.329937 29153 net.cpp:139] Memory required for data: 3578800
I0428 19:59:05.329941 29153 layer_factory.hpp:77] Creating layer accuracy
I0428 19:59:05.329952 29153 net.cpp:86] Creating Layer accuracy
I0428 19:59:05.329954 29153 net.cpp:408] accuracy <- ip3_relu3_0_split_0
I0428 19:59:05.329958 29153 net.cpp:408] accuracy <- label_mnist_1_split_0
I0428 19:59:05.329962 29153 net.cpp:382] accuracy -> accuracy
…
