…
I0428 19:31:28.315464 22585 net.cpp:296] The NetState phase (0) differed from the phase (1) specified by a rule in layer mnist
I0428 19:31:28.315491 22585 net.cpp:296] The NetState phase (0) differed from the phase (1) specified by a rule in layer accuracy
I0428 19:31:28.315557 22585 net.cpp:53] Initializing net from parameters: 
name: "LeNet"
state {
  phase: TRAIN
  level: 0
  stage: ""
}
layer {
  name: "mnist"
  type: "Data"
  top: "data"
  top: "label"
  include {
    phase: TRAIN
  }
  transform_param {
    scale: 0.00390625
  }
  data_param {
    source: "examples/mnist/mnist_train_lmdb"
    batch_size: 64
    backend: LMDB
  }
}
layer {
  name: "conv0"
  type: "Convolution"
  bottom: "data"
  top: "conv0"
  param {
    lr_mult: 1
  }
  param {
    lr_mult: 2
  }
  convolution_param {
    num_output: 10
    kernel_size: 5
    stride: 1
    weight_filler {
      type: "xavier"
    }
    bias_filler {
      type: "constant"
    }
  }
}
layer {
  name: "pool0"
  type: "Pooling"
  bottom: "conv0"
  top: "pool0"
  pooling_param {
    pool: MAX
    kernel_size: 2
    stride: 2
  }
}
layer {
  name: "ip1"
  type: "InnerProduct"
  bottom: "pool0"
  top: "ip1"
  param {
    lr_mult: 1
  }
  param {
    lr_mult: 2
  }
  inner_product_param {
    num_output: 25
    weight_filler {
      type: "xavier"
    }
    bias_filler {
      type: "constant"
    }
  }
}
layer {
  name: "relu1"
  type: "ReLU"
  bottom: "ip1"
  top: "ip1"
}
layer {
  name: "ip2"
  type: "InnerProduct"
  bottom: "ip1"
  top: "ip2"
  param {
    lr_mult: 1
  }
  param {
    lr_mult: 2
  }
  inner_product_param {
    num_output: 10
    weight_filler {
      type: "xavier"
    }
    bias_filler {
      type: "constant"
    }
  }
}
layer {
  name: "relu2"
  type: "ReLU"
  bottom: "ip2"
  top: "ip2"
}
layer {
  name: "loss"
  type: "SoftmaxWithLoss"
  bottom: "ip2"
  bottom: "label"
  top: "loss"
}
I0428 19:31:28.315615 22585 layer_factory.hpp:77] Creating layer mnist
I0428 19:31:28.315742 22585 db_lmdb.cpp:35] Opened lmdb examples/mnist/mnist_train_lmdb
I0428 19:31:28.315762 22585 net.cpp:86] Creating Layer mnist
I0428 19:31:28.315774 22585 net.cpp:382] mnist -> data
I0428 19:31:28.315793 22585 net.cpp:382] mnist -> label
I0428 19:31:28.316722 22585 data_layer.cpp:45] output data size: 64,1,28,28
I0428 19:31:28.319211 22585 net.cpp:124] Setting up mnist
I0428 19:31:28.319241 22585 net.cpp:131] Top shape: 64 1 28 28 (50176)
I0428 19:31:28.319247 22585 net.cpp:131] Top shape: 64 (64)
I0428 19:31:28.319264 22585 net.cpp:139] Memory required for data: 200960
I0428 19:31:28.319272 22585 layer_factory.hpp:77] Creating layer conv0
I0428 19:31:28.319284 22585 net.cpp:86] Creating Layer conv0
I0428 19:31:28.319305 22585 net.cpp:408] conv0 <- data
I0428 19:31:28.319317 22585 net.cpp:382] conv0 -> conv0
I0428 19:31:28.547178 22585 net.cpp:124] Setting up conv0
I0428 19:31:28.547204 22585 net.cpp:131] Top shape: 64 10 24 24 (368640)
I0428 19:31:28.547207 22585 net.cpp:139] Memory required for data: 1675520
I0428 19:31:28.547221 22585 layer_factory.hpp:77] Creating layer pool0
I0428 19:31:28.547233 22585 net.cpp:86] Creating Layer pool0
I0428 19:31:28.547237 22585 net.cpp:408] pool0 <- conv0
I0428 19:31:28.547242 22585 net.cpp:382] pool0 -> pool0
I0428 19:31:28.547319 22585 net.cpp:124] Setting up pool0
I0428 19:31:28.547324 22585 net.cpp:131] Top shape: 64 10 12 12 (92160)
I0428 19:31:28.547327 22585 net.cpp:139] Memory required for data: 2044160
I0428 19:31:28.547380 22585 layer_factory.hpp:77] Creating layer ip1
I0428 19:31:28.547391 22585 net.cpp:86] Creating Layer ip1
I0428 19:31:28.547394 22585 net.cpp:408] ip1 <- pool0
I0428 19:31:28.547399 22585 net.cpp:382] ip1 -> ip1
I0428 19:31:28.547700 22585 net.cpp:124] Setting up ip1
I0428 19:31:28.547708 22585 net.cpp:131] Top shape: 64 25 (1600)
I0428 19:31:28.547711 22585 net.cpp:139] Memory required for data: 2050560
I0428 19:31:28.547719 22585 layer_factory.hpp:77] Creating layer relu1
I0428 19:31:28.547724 22585 net.cpp:86] Creating Layer relu1
I0428 19:31:28.547726 22585 net.cpp:408] relu1 <- ip1
I0428 19:31:28.547731 22585 net.cpp:369] relu1 -> ip1 (in-place)
I0428 19:31:28.547891 22585 net.cpp:124] Setting up relu1
I0428 19:31:28.547900 22585 net.cpp:131] Top shape: 64 25 (1600)
I0428 19:31:28.547904 22585 net.cpp:139] Memory required for data: 2056960
I0428 19:31:28.547905 22585 layer_factory.hpp:77] Creating layer ip2
I0428 19:31:28.547912 22585 net.cpp:86] Creating Layer ip2
I0428 19:31:28.547915 22585 net.cpp:408] ip2 <- ip1
I0428 19:31:28.547919 22585 net.cpp:382] ip2 -> ip2
I0428 19:31:28.548012 22585 net.cpp:124] Setting up ip2
I0428 19:31:28.548018 22585 net.cpp:131] Top shape: 64 10 (640)
I0428 19:31:28.548020 22585 net.cpp:139] Memory required for data: 2059520
I0428 19:31:28.548027 22585 layer_factory.hpp:77] Creating layer relu2
I0428 19:31:28.548033 22585 net.cpp:86] Creating Layer relu2
I0428 19:31:28.548036 22585 net.cpp:408] relu2 <- ip2
I0428 19:31:28.548040 22585 net.cpp:369] relu2 -> ip2 (in-place)
I0428 19:31:28.548753 22585 net.cpp:124] Setting up relu2
I0428 19:31:28.548763 22585 net.cpp:131] Top shape: 64 10 (640)
I0428 19:31:28.548766 22585 net.cpp:139] Memory required for data: 2062080
I0428 19:31:28.548770 22585 layer_factory.hpp:77] Creating layer loss
I0428 19:31:28.548777 22585 net.cpp:86] Creating Layer loss
I0428 19:31:28.548780 22585 net.cpp:408] loss <- ip2
I0428 19:31:28.548784 22585 net.cpp:408] loss <- label
I0428 19:31:28.548789 22585 net.cpp:382] loss -> loss
I0428 19:31:28.548805 22585 layer_factory.hpp:77] Creating layer loss
…
I0428 19:31:28.549504 22585 solver.cpp:173] Creating test net (#0) specified by net file: ECE595/mnist/train_test/var_everything2/lenet_train_test123.prototxt
I0428 19:31:28.549526 22585 net.cpp:296] The NetState phase (1) differed from the phase (0) specified by a rule in layer mnist
I0428 19:31:28.549593 22585 net.cpp:53] Initializing net from parameters: 
name: "LeNet"
state {
  phase: TEST
}
layer {
  name: "mnist"
  type: "Data"
  top: "data"
  top: "label"
  include {
    phase: TEST
  }
  transform_param {
    scale: 0.00390625
  }
  data_param {
    source: "examples/mnist/mnist_test_lmdb"
    batch_size: 100
    backend: LMDB
  }
}
layer {
  name: "conv0"
  type: "Convolution"
  bottom: "data"
  top: "conv0"
  param {
    lr_mult: 1
  }
  param {
    lr_mult: 2
  }
  convolution_param {
    num_output: 10
    kernel_size: 5
    stride: 1
    weight_filler {
      type: "xavier"
    }
    bias_filler {
      type: "constant"
    }
  }
}
layer {
  name: "pool0"
  type: "Pooling"
  bottom: "conv0"
  top: "pool0"
  pooling_param {
    pool: MAX
    kernel_size: 2
    stride: 2
  }
}
layer {
  name: "ip1"
  type: "InnerProduct"
  bottom: "pool0"
  top: "ip1"
  param {
    lr_mult: 1
  }
  param {
    lr_mult: 2
  }
  inner_product_param {
    num_output: 25
    weight_filler {
      type: "xavier"
    }
    bias_filler {
      type: "constant"
    }
  }
}
layer {
  name: "relu1"
  type: "ReLU"
  bottom: "ip1"
  top: "ip1"
}
layer {
  name: "ip2"
  type: "InnerProduct"
  bottom: "ip1"
  top: "ip2"
  param {
    lr_mult: 1
  }
  param {
    lr_mult: 2
  }
  inner_product_param {
    num_output: 10
    weight_filler {
      type: "xavier"
    }
    bias_filler {
      type: "constant"
    }
  }
}
layer {
  name: "relu2"
  type: "ReLU"
  bottom: "ip2"
  top: "ip2"
}
layer {
  name: "accuracy"
  type: "Accuracy"
  bottom: "ip2"
  bottom: "label"
  top: "accuracy"
  include {
    phase: TEST
  }
}
layer {
  name: "loss"
  type: "SoftmaxWithLoss"
  bottom: "ip2"
  bottom: "label"
  top: "loss"
}
I0428 19:31:28.549679 22585 layer_factory.hpp:77] Creating layer mnist
I0428 19:31:28.549721 22585 db_lmdb.cpp:35] Opened lmdb examples/mnist/mnist_test_lmdb
I0428 19:31:28.549732 22585 net.cpp:86] Creating Layer mnist
I0428 19:31:28.549737 22585 net.cpp:382] mnist -> data
I0428 19:31:28.549744 22585 net.cpp:382] mnist -> label
I0428 19:31:28.549825 22585 data_layer.cpp:45] output data size: 100,1,28,28
I0428 19:31:28.551651 22585 net.cpp:124] Setting up mnist
I0428 19:31:28.551662 22585 net.cpp:131] Top shape: 100 1 28 28 (78400)
I0428 19:31:28.551682 22585 net.cpp:131] Top shape: 100 (100)
I0428 19:31:28.551686 22585 net.cpp:139] Memory required for data: 314000
I0428 19:31:28.551688 22585 layer_factory.hpp:77] Creating layer label_mnist_1_split
I0428 19:31:28.551714 22585 net.cpp:86] Creating Layer label_mnist_1_split
I0428 19:31:28.551718 22585 net.cpp:408] label_mnist_1_split <- label
I0428 19:31:28.551724 22585 net.cpp:382] label_mnist_1_split -> label_mnist_1_split_0
I0428 19:31:28.551731 22585 net.cpp:382] label_mnist_1_split -> label_mnist_1_split_1
I0428 19:31:28.551772 22585 net.cpp:124] Setting up label_mnist_1_split
I0428 19:31:28.551779 22585 net.cpp:131] Top shape: 100 (100)
I0428 19:31:28.551782 22585 net.cpp:131] Top shape: 100 (100)
I0428 19:31:28.551785 22585 net.cpp:139] Memory required for data: 314800
I0428 19:31:28.551789 22585 layer_factory.hpp:77] Creating layer conv0
I0428 19:31:28.551797 22585 net.cpp:86] Creating Layer conv0
I0428 19:31:28.551800 22585 net.cpp:408] conv0 <- data
I0428 19:31:28.551821 22585 net.cpp:382] conv0 -> conv0
I0428 19:31:28.553629 22585 net.cpp:124] Setting up conv0
I0428 19:31:28.553659 22585 net.cpp:131] Top shape: 100 10 24 24 (576000)
I0428 19:31:28.553663 22585 net.cpp:139] Memory required for data: 2618800
I0428 19:31:28.553673 22585 layer_factory.hpp:77] Creating layer pool0
I0428 19:31:28.553683 22585 net.cpp:86] Creating Layer pool0
I0428 19:31:28.553686 22585 net.cpp:408] pool0 <- conv0
I0428 19:31:28.553691 22585 net.cpp:382] pool0 -> pool0
I0428 19:31:28.553745 22585 net.cpp:124] Setting up pool0
I0428 19:31:28.553750 22585 net.cpp:131] Top shape: 100 10 12 12 (144000)
I0428 19:31:28.553753 22585 net.cpp:139] Memory required for data: 3194800
I0428 19:31:28.553756 22585 layer_factory.hpp:77] Creating layer ip1
I0428 19:31:28.553764 22585 net.cpp:86] Creating Layer ip1
I0428 19:31:28.553767 22585 net.cpp:408] ip1 <- pool0
I0428 19:31:28.553772 22585 net.cpp:382] ip1 -> ip1
I0428 19:31:28.554128 22585 net.cpp:124] Setting up ip1
I0428 19:31:28.554136 22585 net.cpp:131] Top shape: 100 25 (2500)
I0428 19:31:28.554154 22585 net.cpp:139] Memory required for data: 3204800
I0428 19:31:28.554162 22585 layer_factory.hpp:77] Creating layer relu1
I0428 19:31:28.554167 22585 net.cpp:86] Creating Layer relu1
I0428 19:31:28.554170 22585 net.cpp:408] relu1 <- ip1
I0428 19:31:28.554177 22585 net.cpp:369] relu1 -> ip1 (in-place)
I0428 19:31:28.554437 22585 net.cpp:124] Setting up relu1
I0428 19:31:28.554447 22585 net.cpp:131] Top shape: 100 25 (2500)
I0428 19:31:28.554462 22585 net.cpp:139] Memory required for data: 3214800
I0428 19:31:28.554467 22585 layer_factory.hpp:77] Creating layer ip2
I0428 19:31:28.554476 22585 net.cpp:86] Creating Layer ip2
I0428 19:31:28.554478 22585 net.cpp:408] ip2 <- ip1
I0428 19:31:28.554499 22585 net.cpp:382] ip2 -> ip2
I0428 19:31:28.554603 22585 net.cpp:124] Setting up ip2
I0428 19:31:28.554612 22585 net.cpp:131] Top shape: 100 10 (1000)
I0428 19:31:28.554616 22585 net.cpp:139] Memory required for data: 3218800
I0428 19:31:28.554625 22585 layer_factory.hpp:77] Creating layer relu2
I0428 19:31:28.554630 22585 net.cpp:86] Creating Layer relu2
I0428 19:31:28.554633 22585 net.cpp:408] relu2 <- ip2
I0428 19:31:28.554637 22585 net.cpp:369] relu2 -> ip2 (in-place)
I0428 19:31:28.554810 22585 net.cpp:124] Setting up relu2
I0428 19:31:28.554818 22585 net.cpp:131] Top shape: 100 10 (1000)
I0428 19:31:28.554822 22585 net.cpp:139] Memory required for data: 3222800
I0428 19:31:28.554831 22585 layer_factory.hpp:77] Creating layer ip2_relu2_0_split
I0428 19:31:28.554836 22585 net.cpp:86] Creating Layer ip2_relu2_0_split
I0428 19:31:28.554839 22585 net.cpp:408] ip2_relu2_0_split <- ip2
I0428 19:31:28.554844 22585 net.cpp:382] ip2_relu2_0_split -> ip2_relu2_0_split_0
I0428 19:31:28.554852 22585 net.cpp:382] ip2_relu2_0_split -> ip2_relu2_0_split_1
I0428 19:31:28.554889 22585 net.cpp:124] Setting up ip2_relu2_0_split
I0428 19:31:28.554896 22585 net.cpp:131] Top shape: 100 10 (1000)
I0428 19:31:28.554900 22585 net.cpp:131] Top shape: 100 10 (1000)
I0428 19:31:28.554903 22585 net.cpp:139] Memory required for data: 3230800
I0428 19:31:28.554906 22585 layer_factory.hpp:77] Creating layer accuracy
I0428 19:31:28.554913 22585 net.cpp:86] Creating Layer accuracy
I0428 19:31:28.554916 22585 net.cpp:408] accuracy <- ip2_relu2_0_split_0
I0428 19:31:28.554920 22585 net.cpp:408] accuracy <- label_mnist_1_split_0
I0428 19:31:28.554925 22585 net.cpp:382] accuracy -> accuracy
…
