…
I0428 20:30:53.916280  3850 net.cpp:296] The NetState phase (0) differed from the phase (1) specified by a rule in layer mnist
I0428 20:30:53.916296  3850 net.cpp:296] The NetState phase (0) differed from the phase (1) specified by a rule in layer accuracy
I0428 20:30:53.916395  3850 net.cpp:53] Initializing net from parameters: 
name: "LeNet"
state {
  phase: TRAIN
  level: 0
  stage: ""
}
layer {
  name: "mnist"
  type: "Data"
  top: "data"
  top: "label"
  include {
    phase: TRAIN
  }
  transform_param {
    scale: 0.00390625
  }
  data_param {
    source: "examples/mnist/mnist_train_lmdb"
    batch_size: 64
    backend: LMDB
  }
}
layer {
  name: "conv0"
  type: "Convolution"
  bottom: "data"
  top: "conv0"
  param {
    lr_mult: 1
  }
  param {
    lr_mult: 2
  }
  convolution_param {
    num_output: 100
    kernel_size: 5
    stride: 1
    weight_filler {
      type: "xavier"
    }
    bias_filler {
      type: "constant"
    }
  }
}
layer {
  name: "pool0"
  type: "Pooling"
  bottom: "conv0"
  top: "pool0"
  pooling_param {
    pool: MAX
    kernel_size: 2
    stride: 2
  }
}
layer {
  name: "conv1"
  type: "Convolution"
  bottom: "pool0"
  top: "conv1"
  param {
    lr_mult: 1
  }
  param {
    lr_mult: 2
  }
  convolution_param {
    num_output: 10
    kernel_size: 5
    stride: 1
    weight_filler {
      type: "xavier"
    }
    bias_filler {
      type: "constant"
    }
  }
}
layer {
  name: "pool1"
  type: "Pooling"
  bottom: "conv1"
  top: "pool1"
  pooling_param {
    pool: MAX
    kernel_size: 2
    stride: 2
  }
}
layer {
  name: "ip1"
  type: "InnerProduct"
  bottom: "pool1"
  top: "ip1"
  param {
    lr_mult: 1
  }
  param {
    lr_mult: 2
  }
  inner_product_param {
    num_output: 25
    weight_filler {
      type: "xavier"
    }
    bias_filler {
      type: "constant"
    }
  }
}
layer {
  name: "relu1"
  type: "ReLU"
  bottom: "ip1"
  top: "ip1"
}
layer {
  name: "ip2"
  type: "InnerProduct"
  bottom: "ip1"
  top: "ip2"
  param {
    lr_mult: 1
  }
  param {
    lr_mult: 2
  }
  inner_product_param {
    num_output: 25
    weight_filler {
      type: "xavier"
    }
    bias_filler {
      type: "constant"
    }
  }
}
layer {
  name: "relu2"
  type: "ReLU"
  bottom: "ip2"
  top: "ip2"
}
layer {
  name: "ip3"
  type: "InnerProduct"
  bottom: "ip2"
  top: "ip3"
  param {
    lr_mult: 1
  }
  param {
    lr_mult: 2
  }
  inner_product_param {
    num_output: 10
    weight_filler {
      type: "xavier"
    }
    bias_filler {
      type: "constant"
    }
  }
}
layer {
  name: "relu3"
  type: "ReLU"
  bottom: "ip3"
  top: "ip3"
}
layer {
  name: "loss"
  type: "SoftmaxWithLoss"
  bottom: "ip3"
  bottom: "label"
  top: "loss"
}
I0428 20:30:53.916462  3850 layer_factory.hpp:77] Creating layer mnist
I0428 20:30:53.916544  3850 db_lmdb.cpp:35] Opened lmdb examples/mnist/mnist_train_lmdb
I0428 20:30:53.916565  3850 net.cpp:86] Creating Layer mnist
I0428 20:30:53.916573  3850 net.cpp:382] mnist -> data
I0428 20:30:53.916590  3850 net.cpp:382] mnist -> label
I0428 20:30:53.917677  3850 data_layer.cpp:45] output data size: 64,1,28,28
I0428 20:30:53.919824  3850 net.cpp:124] Setting up mnist
I0428 20:30:53.919869  3850 net.cpp:131] Top shape: 64 1 28 28 (50176)
I0428 20:30:53.919875  3850 net.cpp:131] Top shape: 64 (64)
I0428 20:30:53.919878  3850 net.cpp:139] Memory required for data: 200960
I0428 20:30:53.919884  3850 layer_factory.hpp:77] Creating layer conv0
I0428 20:30:53.919896  3850 net.cpp:86] Creating Layer conv0
I0428 20:30:53.919914  3850 net.cpp:408] conv0 <- data
I0428 20:30:53.919925  3850 net.cpp:382] conv0 -> conv0
I0428 20:30:54.153981  3850 net.cpp:124] Setting up conv0
I0428 20:30:54.154007  3850 net.cpp:131] Top shape: 64 100 24 24 (3686400)
I0428 20:30:54.154011  3850 net.cpp:139] Memory required for data: 14946560
I0428 20:30:54.154026  3850 layer_factory.hpp:77] Creating layer pool0
I0428 20:30:54.154054  3850 net.cpp:86] Creating Layer pool0
I0428 20:30:54.154058  3850 net.cpp:408] pool0 <- conv0
I0428 20:30:54.154063  3850 net.cpp:382] pool0 -> pool0
I0428 20:30:54.154108  3850 net.cpp:124] Setting up pool0
I0428 20:30:54.154120  3850 net.cpp:131] Top shape: 64 100 12 12 (921600)
I0428 20:30:54.154124  3850 net.cpp:139] Memory required for data: 18632960
I0428 20:30:54.154126  3850 layer_factory.hpp:77] Creating layer conv1
I0428 20:30:54.154136  3850 net.cpp:86] Creating Layer conv1
I0428 20:30:54.154139  3850 net.cpp:408] conv1 <- pool0
I0428 20:30:54.154145  3850 net.cpp:382] conv1 -> conv1
I0428 20:30:54.156159  3850 net.cpp:124] Setting up conv1
I0428 20:30:54.156175  3850 net.cpp:131] Top shape: 64 10 8 8 (40960)
I0428 20:30:54.156179  3850 net.cpp:139] Memory required for data: 18796800
I0428 20:30:54.156188  3850 layer_factory.hpp:77] Creating layer pool1
I0428 20:30:54.156196  3850 net.cpp:86] Creating Layer pool1
I0428 20:30:54.156200  3850 net.cpp:408] pool1 <- conv1
I0428 20:30:54.156205  3850 net.cpp:382] pool1 -> pool1
I0428 20:30:54.156242  3850 net.cpp:124] Setting up pool1
I0428 20:30:54.156247  3850 net.cpp:131] Top shape: 64 10 4 4 (10240)
I0428 20:30:54.156251  3850 net.cpp:139] Memory required for data: 18837760
I0428 20:30:54.156255  3850 layer_factory.hpp:77] Creating layer ip1
I0428 20:30:54.156261  3850 net.cpp:86] Creating Layer ip1
I0428 20:30:54.156265  3850 net.cpp:408] ip1 <- pool1
I0428 20:30:54.156270  3850 net.cpp:382] ip1 -> ip1
I0428 20:30:54.156404  3850 net.cpp:124] Setting up ip1
I0428 20:30:54.156412  3850 net.cpp:131] Top shape: 64 25 (1600)
I0428 20:30:54.156415  3850 net.cpp:139] Memory required for data: 18844160
I0428 20:30:54.156422  3850 layer_factory.hpp:77] Creating layer relu1
I0428 20:30:54.156428  3850 net.cpp:86] Creating Layer relu1
I0428 20:30:54.156442  3850 net.cpp:408] relu1 <- ip1
I0428 20:30:54.156447  3850 net.cpp:369] relu1 -> ip1 (in-place)
I0428 20:30:54.156605  3850 net.cpp:124] Setting up relu1
I0428 20:30:54.156615  3850 net.cpp:131] Top shape: 64 25 (1600)
I0428 20:30:54.156617  3850 net.cpp:139] Memory required for data: 18850560
I0428 20:30:54.156620  3850 layer_factory.hpp:77] Creating layer ip2
I0428 20:30:54.156626  3850 net.cpp:86] Creating Layer ip2
I0428 20:30:54.156630  3850 net.cpp:408] ip2 <- ip1
I0428 20:30:54.156635  3850 net.cpp:382] ip2 -> ip2
I0428 20:30:54.156738  3850 net.cpp:124] Setting up ip2
I0428 20:30:54.156744  3850 net.cpp:131] Top shape: 64 25 (1600)
I0428 20:30:54.156749  3850 net.cpp:139] Memory required for data: 18856960
I0428 20:30:54.156754  3850 layer_factory.hpp:77] Creating layer relu2
I0428 20:30:54.156759  3850 net.cpp:86] Creating Layer relu2
I0428 20:30:54.156762  3850 net.cpp:408] relu2 <- ip2
I0428 20:30:54.156767  3850 net.cpp:369] relu2 -> ip2 (in-place)
I0428 20:30:54.157618  3850 net.cpp:124] Setting up relu2
I0428 20:30:54.157630  3850 net.cpp:131] Top shape: 64 25 (1600)
I0428 20:30:54.157634  3850 net.cpp:139] Memory required for data: 18863360
I0428 20:30:54.157637  3850 layer_factory.hpp:77] Creating layer ip3
I0428 20:30:54.157644  3850 net.cpp:86] Creating Layer ip3
I0428 20:30:54.157647  3850 net.cpp:408] ip3 <- ip2
I0428 20:30:54.157652  3850 net.cpp:382] ip3 -> ip3
I0428 20:30:54.157745  3850 net.cpp:124] Setting up ip3
I0428 20:30:54.157752  3850 net.cpp:131] Top shape: 64 10 (640)
I0428 20:30:54.157757  3850 net.cpp:139] Memory required for data: 18865920
I0428 20:30:54.157763  3850 layer_factory.hpp:77] Creating layer relu3
I0428 20:30:54.157768  3850 net.cpp:86] Creating Layer relu3
I0428 20:30:54.157771  3850 net.cpp:408] relu3 <- ip3
I0428 20:30:54.157775  3850 net.cpp:369] relu3 -> ip3 (in-place)
I0428 20:30:54.157958  3850 net.cpp:124] Setting up relu3
I0428 20:30:54.157965  3850 net.cpp:131] Top shape: 64 10 (640)
I0428 20:30:54.157969  3850 net.cpp:139] Memory required for data: 18868480
I0428 20:30:54.157973  3850 layer_factory.hpp:77] Creating layer loss
I0428 20:30:54.157979  3850 net.cpp:86] Creating Layer loss
I0428 20:30:54.157981  3850 net.cpp:408] loss <- ip3
I0428 20:30:54.157985  3850 net.cpp:408] loss <- label
I0428 20:30:54.157990  3850 net.cpp:382] loss -> loss
I0428 20:30:54.158004  3850 layer_factory.hpp:77] Creating layer loss
…
I0428 20:30:54.158677  3850 solver.cpp:173] Creating test net (#0) specified by net file: ECE595/mnist/train_test/var_everything2/lenet_train_test1546.prototxt
I0428 20:30:54.158715  3850 net.cpp:296] The NetState phase (1) differed from the phase (0) specified by a rule in layer mnist
I0428 20:30:54.158823  3850 net.cpp:53] Initializing net from parameters: 
name: "LeNet"
state {
  phase: TEST
}
layer {
  name: "mnist"
  type: "Data"
  top: "data"
  top: "label"
  include {
    phase: TEST
  }
  transform_param {
    scale: 0.00390625
  }
  data_param {
    source: "examples/mnist/mnist_test_lmdb"
    batch_size: 100
    backend: LMDB
  }
}
layer {
  name: "conv0"
  type: "Convolution"
  bottom: "data"
  top: "conv0"
  param {
    lr_mult: 1
  }
  param {
    lr_mult: 2
  }
  convolution_param {
    num_output: 100
    kernel_size: 5
    stride: 1
    weight_filler {
      type: "xavier"
    }
    bias_filler {
      type: "constant"
    }
  }
}
layer {
  name: "pool0"
  type: "Pooling"
  bottom: "conv0"
  top: "pool0"
  pooling_param {
    pool: MAX
    kernel_size: 2
    stride: 2
  }
}
layer {
  name: "conv1"
  type: "Convolution"
  bottom: "pool0"
  top: "conv1"
  param {
    lr_mult: 1
  }
  param {
    lr_mult: 2
  }
  convolution_param {
    num_output: 10
    kernel_size: 5
    stride: 1
    weight_filler {
      type: "xavier"
    }
    bias_filler {
      type: "constant"
    }
  }
}
layer {
  name: "pool1"
  type: "Pooling"
  bottom: "conv1"
  top: "pool1"
  pooling_param {
    pool: MAX
    kernel_size: 2
    stride: 2
  }
}
layer {
  name: "ip1"
  type: "InnerProduct"
  bottom: "pool1"
  top: "ip1"
  param {
    lr_mult: 1
  }
  param {
    lr_mult: 2
  }
  inner_product_param {
    num_output: 25
    weight_filler {
      type: "xavier"
    }
    bias_filler {
      type: "constant"
    }
  }
}
layer {
  name: "relu1"
  type: "ReLU"
  bottom: "ip1"
  top: "ip1"
}
layer {
  name: "ip2"
  type: "InnerProduct"
  bottom: "ip1"
  top: "ip2"
  param {
    lr_mult: 1
  }
  param {
    lr_mult: 2
  }
  inner_product_param {
    num_output: 25
    weight_filler {
      type: "xavier"
    }
    bias_filler {
      type: "constant"
    }
  }
}
layer {
  name: "relu2"
  type: "ReLU"
  bottom: "ip2"
  top: "ip2"
}
layer {
  name: "ip3"
  type: "InnerProduct"
  bottom: "ip2"
  top: "ip3"
  param {
    lr_mult: 1
  }
  param {
    lr_mult: 2
  }
  inner_product_param {
    num_output: 10
    weight_filler {
      type: "xavier"
    }
    bias_filler {
      type: "constant"
    }
  }
}
layer {
  name: "relu3"
  type: "ReLU"
  bottom: "ip3"
  top: "ip3"
}
layer {
  name: "accuracy"
  type: "Accuracy"
  bottom: "ip3"
  bottom: "label"
  top: "accuracy"
  include {
    phase: TEST
  }
}
layer {
  name: "loss"
  type: "SoftmaxWithLoss"
  bottom: "ip3"
  bottom: "label"
  top: "loss"
}
I0428 20:30:54.158920  3850 layer_factory.hpp:77] Creating layer mnist
I0428 20:30:54.158962  3850 db_lmdb.cpp:35] Opened lmdb examples/mnist/mnist_test_lmdb
I0428 20:30:54.158974  3850 net.cpp:86] Creating Layer mnist
I0428 20:30:54.158980  3850 net.cpp:382] mnist -> data
I0428 20:30:54.158988  3850 net.cpp:382] mnist -> label
I0428 20:30:54.159071  3850 data_layer.cpp:45] output data size: 100,1,28,28
I0428 20:30:54.161116  3850 net.cpp:124] Setting up mnist
I0428 20:30:54.161160  3850 net.cpp:131] Top shape: 100 1 28 28 (78400)
I0428 20:30:54.161165  3850 net.cpp:131] Top shape: 100 (100)
I0428 20:30:54.161168  3850 net.cpp:139] Memory required for data: 314000
I0428 20:30:54.161172  3850 layer_factory.hpp:77] Creating layer label_mnist_1_split
I0428 20:30:54.161178  3850 net.cpp:86] Creating Layer label_mnist_1_split
I0428 20:30:54.161182  3850 net.cpp:408] label_mnist_1_split <- label
I0428 20:30:54.161198  3850 net.cpp:382] label_mnist_1_split -> label_mnist_1_split_0
I0428 20:30:54.161206  3850 net.cpp:382] label_mnist_1_split -> label_mnist_1_split_1
I0428 20:30:54.161264  3850 net.cpp:124] Setting up label_mnist_1_split
I0428 20:30:54.161272  3850 net.cpp:131] Top shape: 100 (100)
I0428 20:30:54.161274  3850 net.cpp:131] Top shape: 100 (100)
I0428 20:30:54.161278  3850 net.cpp:139] Memory required for data: 314800
I0428 20:30:54.161280  3850 layer_factory.hpp:77] Creating layer conv0
I0428 20:30:54.161289  3850 net.cpp:86] Creating Layer conv0
I0428 20:30:54.161293  3850 net.cpp:408] conv0 <- data
I0428 20:30:54.161298  3850 net.cpp:382] conv0 -> conv0
I0428 20:30:54.163192  3850 net.cpp:124] Setting up conv0
I0428 20:30:54.163205  3850 net.cpp:131] Top shape: 100 100 24 24 (5760000)
I0428 20:30:54.163208  3850 net.cpp:139] Memory required for data: 23354800
I0428 20:30:54.163218  3850 layer_factory.hpp:77] Creating layer pool0
I0428 20:30:54.163223  3850 net.cpp:86] Creating Layer pool0
I0428 20:30:54.163226  3850 net.cpp:408] pool0 <- conv0
I0428 20:30:54.163233  3850 net.cpp:382] pool0 -> pool0
I0428 20:30:54.163267  3850 net.cpp:124] Setting up pool0
I0428 20:30:54.163272  3850 net.cpp:131] Top shape: 100 100 12 12 (1440000)
I0428 20:30:54.163275  3850 net.cpp:139] Memory required for data: 29114800
I0428 20:30:54.163278  3850 layer_factory.hpp:77] Creating layer conv1
I0428 20:30:54.163288  3850 net.cpp:86] Creating Layer conv1
I0428 20:30:54.163291  3850 net.cpp:408] conv1 <- pool0
I0428 20:30:54.163296  3850 net.cpp:382] conv1 -> conv1
I0428 20:30:54.165246  3850 net.cpp:124] Setting up conv1
I0428 20:30:54.165261  3850 net.cpp:131] Top shape: 100 10 8 8 (64000)
I0428 20:30:54.165271  3850 net.cpp:139] Memory required for data: 29370800
I0428 20:30:54.165279  3850 layer_factory.hpp:77] Creating layer pool1
I0428 20:30:54.165287  3850 net.cpp:86] Creating Layer pool1
I0428 20:30:54.165292  3850 net.cpp:408] pool1 <- conv1
I0428 20:30:54.165302  3850 net.cpp:382] pool1 -> pool1
I0428 20:30:54.165343  3850 net.cpp:124] Setting up pool1
I0428 20:30:54.165364  3850 net.cpp:131] Top shape: 100 10 4 4 (16000)
I0428 20:30:54.165366  3850 net.cpp:139] Memory required for data: 29434800
I0428 20:30:54.165369  3850 layer_factory.hpp:77] Creating layer ip1
I0428 20:30:54.165375  3850 net.cpp:86] Creating Layer ip1
I0428 20:30:54.165379  3850 net.cpp:408] ip1 <- pool1
I0428 20:30:54.165385  3850 net.cpp:382] ip1 -> ip1
I0428 20:30:54.165531  3850 net.cpp:124] Setting up ip1
I0428 20:30:54.165549  3850 net.cpp:131] Top shape: 100 25 (2500)
I0428 20:30:54.165551  3850 net.cpp:139] Memory required for data: 29444800
I0428 20:30:54.165560  3850 layer_factory.hpp:77] Creating layer relu1
I0428 20:30:54.165565  3850 net.cpp:86] Creating Layer relu1
I0428 20:30:54.165567  3850 net.cpp:408] relu1 <- ip1
I0428 20:30:54.165572  3850 net.cpp:369] relu1 -> ip1 (in-place)
I0428 20:30:54.165741  3850 net.cpp:124] Setting up relu1
I0428 20:30:54.165766  3850 net.cpp:131] Top shape: 100 25 (2500)
I0428 20:30:54.165771  3850 net.cpp:139] Memory required for data: 29454800
I0428 20:30:54.165773  3850 layer_factory.hpp:77] Creating layer ip2
I0428 20:30:54.165781  3850 net.cpp:86] Creating Layer ip2
I0428 20:30:54.165792  3850 net.cpp:408] ip2 <- ip1
I0428 20:30:54.165797  3850 net.cpp:382] ip2 -> ip2
I0428 20:30:54.165908  3850 net.cpp:124] Setting up ip2
I0428 20:30:54.165915  3850 net.cpp:131] Top shape: 100 25 (2500)
I0428 20:30:54.165920  3850 net.cpp:139] Memory required for data: 29464800
I0428 20:30:54.165925  3850 layer_factory.hpp:77] Creating layer relu2
I0428 20:30:54.165930  3850 net.cpp:86] Creating Layer relu2
I0428 20:30:54.165932  3850 net.cpp:408] relu2 <- ip2
I0428 20:30:54.165949  3850 net.cpp:369] relu2 -> ip2 (in-place)
I0428 20:30:54.166148  3850 net.cpp:124] Setting up relu2
I0428 20:30:54.166157  3850 net.cpp:131] Top shape: 100 25 (2500)
I0428 20:30:54.166175  3850 net.cpp:139] Memory required for data: 29474800
I0428 20:30:54.166178  3850 layer_factory.hpp:77] Creating layer ip3
I0428 20:30:54.166185  3850 net.cpp:86] Creating Layer ip3
I0428 20:30:54.166188  3850 net.cpp:408] ip3 <- ip2
I0428 20:30:54.166208  3850 net.cpp:382] ip3 -> ip3
I0428 20:30:54.166378  3850 net.cpp:124] Setting up ip3
I0428 20:30:54.166388  3850 net.cpp:131] Top shape: 100 10 (1000)
I0428 20:30:54.166390  3850 net.cpp:139] Memory required for data: 29478800
I0428 20:30:54.166404  3850 layer_factory.hpp:77] Creating layer relu3
I0428 20:30:54.166410  3850 net.cpp:86] Creating Layer relu3
I0428 20:30:54.166414  3850 net.cpp:408] relu3 <- ip3
I0428 20:30:54.166417  3850 net.cpp:369] relu3 -> ip3 (in-place)
I0428 20:30:54.167338  3850 net.cpp:124] Setting up relu3
I0428 20:30:54.167351  3850 net.cpp:131] Top shape: 100 10 (1000)
I0428 20:30:54.167359  3850 net.cpp:139] Memory required for data: 29482800
I0428 20:30:54.167363  3850 layer_factory.hpp:77] Creating layer ip3_relu3_0_split
I0428 20:30:54.167369  3850 net.cpp:86] Creating Layer ip3_relu3_0_split
I0428 20:30:54.167372  3850 net.cpp:408] ip3_relu3_0_split <- ip3
I0428 20:30:54.167377  3850 net.cpp:382] ip3_relu3_0_split -> ip3_relu3_0_split_0
I0428 20:30:54.167384  3850 net.cpp:382] ip3_relu3_0_split -> ip3_relu3_0_split_1
I0428 20:30:54.167420  3850 net.cpp:124] Setting up ip3_relu3_0_split
I0428 20:30:54.167425  3850 net.cpp:131] Top shape: 100 10 (1000)
I0428 20:30:54.167428  3850 net.cpp:131] Top shape: 100 10 (1000)
I0428 20:30:54.167431  3850 net.cpp:139] Memory required for data: 29490800
I0428 20:30:54.167434  3850 layer_factory.hpp:77] Creating layer accuracy
I0428 20:30:54.167445  3850 net.cpp:86] Creating Layer accuracy
I0428 20:30:54.167448  3850 net.cpp:408] accuracy <- ip3_relu3_0_split_0
I0428 20:30:54.167453  3850 net.cpp:408] accuracy <- label_mnist_1_split_0
I0428 20:30:54.167457  3850 net.cpp:382] accuracy -> accuracy
…
