…
I0428 19:47:13.190759 26135 net.cpp:296] The NetState phase (0) differed from the phase (1) specified by a rule in layer mnist
I0428 19:47:13.190773 26135 net.cpp:296] The NetState phase (0) differed from the phase (1) specified by a rule in layer accuracy
I0428 19:47:13.190855 26135 net.cpp:53] Initializing net from parameters: 
name: "LeNet"
state {
  phase: TRAIN
  level: 0
  stage: ""
}
layer {
  name: "mnist"
  type: "Data"
  top: "data"
  top: "label"
  include {
    phase: TRAIN
  }
  transform_param {
    scale: 0.00390625
  }
  data_param {
    source: "examples/mnist/mnist_train_lmdb"
    batch_size: 64
    backend: LMDB
  }
}
layer {
  name: "conv0"
  type: "Convolution"
  bottom: "data"
  top: "conv0"
  param {
    lr_mult: 1
  }
  param {
    lr_mult: 2
  }
  convolution_param {
    num_output: 5
    kernel_size: 5
    stride: 1
    weight_filler {
      type: "xavier"
    }
    bias_filler {
      type: "constant"
    }
  }
}
layer {
  name: "pool0"
  type: "Pooling"
  bottom: "conv0"
  top: "pool0"
  pooling_param {
    pool: MAX
    kernel_size: 2
    stride: 2
  }
}
layer {
  name: "conv1"
  type: "Convolution"
  bottom: "pool0"
  top: "conv1"
  param {
    lr_mult: 1
  }
  param {
    lr_mult: 2
  }
  convolution_param {
    num_output: 2
    kernel_size: 5
    stride: 1
    weight_filler {
      type: "xavier"
    }
    bias_filler {
      type: "constant"
    }
  }
}
layer {
  name: "pool1"
  type: "Pooling"
  bottom: "conv1"
  top: "pool1"
  pooling_param {
    pool: MAX
    kernel_size: 2
    stride: 2
  }
}
layer {
  name: "ip1"
  type: "InnerProduct"
  bottom: "pool1"
  top: "ip1"
  param {
    lr_mult: 1
  }
  param {
    lr_mult: 2
  }
  inner_product_param {
    num_output: 10
    weight_filler {
      type: "xavier"
    }
    bias_filler {
      type: "constant"
    }
  }
}
layer {
  name: "relu1"
  type: "ReLU"
  bottom: "ip1"
  top: "ip1"
}
layer {
  name: "loss"
  type: "SoftmaxWithLoss"
  bottom: "ip1"
  bottom: "label"
  top: "loss"
}
I0428 19:47:13.190924 26135 layer_factory.hpp:77] Creating layer mnist
I0428 19:47:13.191028 26135 db_lmdb.cpp:35] Opened lmdb examples/mnist/mnist_train_lmdb
I0428 19:47:13.191053 26135 net.cpp:86] Creating Layer mnist
I0428 19:47:13.191063 26135 net.cpp:382] mnist -> data
I0428 19:47:13.191088 26135 net.cpp:382] mnist -> label
I0428 19:47:13.192179 26135 data_layer.cpp:45] output data size: 64,1,28,28
I0428 19:47:13.194645 26135 net.cpp:124] Setting up mnist
I0428 19:47:13.194664 26135 net.cpp:131] Top shape: 64 1 28 28 (50176)
I0428 19:47:13.194671 26135 net.cpp:131] Top shape: 64 (64)
I0428 19:47:13.194674 26135 net.cpp:139] Memory required for data: 200960
I0428 19:47:13.194681 26135 layer_factory.hpp:77] Creating layer conv0
I0428 19:47:13.194716 26135 net.cpp:86] Creating Layer conv0
I0428 19:47:13.194725 26135 net.cpp:408] conv0 <- data
I0428 19:47:13.194736 26135 net.cpp:382] conv0 -> conv0
I0428 19:47:13.485590 26135 net.cpp:124] Setting up conv0
I0428 19:47:13.485620 26135 net.cpp:131] Top shape: 64 5 24 24 (184320)
I0428 19:47:13.485625 26135 net.cpp:139] Memory required for data: 938240
I0428 19:47:13.485642 26135 layer_factory.hpp:77] Creating layer pool0
I0428 19:47:13.485656 26135 net.cpp:86] Creating Layer pool0
I0428 19:47:13.485661 26135 net.cpp:408] pool0 <- conv0
I0428 19:47:13.485667 26135 net.cpp:382] pool0 -> pool0
I0428 19:47:13.485720 26135 net.cpp:124] Setting up pool0
I0428 19:47:13.485726 26135 net.cpp:131] Top shape: 64 5 12 12 (46080)
I0428 19:47:13.485746 26135 net.cpp:139] Memory required for data: 1122560
I0428 19:47:13.485750 26135 layer_factory.hpp:77] Creating layer conv1
I0428 19:47:13.485762 26135 net.cpp:86] Creating Layer conv1
I0428 19:47:13.485766 26135 net.cpp:408] conv1 <- pool0
I0428 19:47:13.485772 26135 net.cpp:382] conv1 -> conv1
I0428 19:47:13.487828 26135 net.cpp:124] Setting up conv1
I0428 19:47:13.487844 26135 net.cpp:131] Top shape: 64 2 8 8 (8192)
I0428 19:47:13.487849 26135 net.cpp:139] Memory required for data: 1155328
I0428 19:47:13.487859 26135 layer_factory.hpp:77] Creating layer pool1
I0428 19:47:13.487867 26135 net.cpp:86] Creating Layer pool1
I0428 19:47:13.487871 26135 net.cpp:408] pool1 <- conv1
I0428 19:47:13.487877 26135 net.cpp:382] pool1 -> pool1
I0428 19:47:13.487920 26135 net.cpp:124] Setting up pool1
I0428 19:47:13.487926 26135 net.cpp:131] Top shape: 64 2 4 4 (2048)
I0428 19:47:13.487928 26135 net.cpp:139] Memory required for data: 1163520
I0428 19:47:13.487932 26135 layer_factory.hpp:77] Creating layer ip1
I0428 19:47:13.487939 26135 net.cpp:86] Creating Layer ip1
I0428 19:47:13.487943 26135 net.cpp:408] ip1 <- pool1
I0428 19:47:13.487948 26135 net.cpp:382] ip1 -> ip1
I0428 19:47:13.488057 26135 net.cpp:124] Setting up ip1
I0428 19:47:13.488065 26135 net.cpp:131] Top shape: 64 10 (640)
I0428 19:47:13.488070 26135 net.cpp:139] Memory required for data: 1166080
I0428 19:47:13.488078 26135 layer_factory.hpp:77] Creating layer relu1
I0428 19:47:13.488085 26135 net.cpp:86] Creating Layer relu1
I0428 19:47:13.488088 26135 net.cpp:408] relu1 <- ip1
I0428 19:47:13.488092 26135 net.cpp:369] relu1 -> ip1 (in-place)
I0428 19:47:13.488277 26135 net.cpp:124] Setting up relu1
I0428 19:47:13.488287 26135 net.cpp:131] Top shape: 64 10 (640)
I0428 19:47:13.488291 26135 net.cpp:139] Memory required for data: 1168640
I0428 19:47:13.488294 26135 layer_factory.hpp:77] Creating layer loss
I0428 19:47:13.488301 26135 net.cpp:86] Creating Layer loss
I0428 19:47:13.488304 26135 net.cpp:408] loss <- ip1
I0428 19:47:13.488309 26135 net.cpp:408] loss <- label
I0428 19:47:13.488314 26135 net.cpp:382] loss -> loss
I0428 19:47:13.488333 26135 layer_factory.hpp:77] Creating layer loss
…
I0428 19:47:13.489599 26135 solver.cpp:173] Creating test net (#0) specified by net file: ECE595/mnist/train_test/var_everything2/lenet_train_test508.prototxt
I0428 19:47:13.489626 26135 net.cpp:296] The NetState phase (1) differed from the phase (0) specified by a rule in layer mnist
I0428 19:47:13.489711 26135 net.cpp:53] Initializing net from parameters: 
name: "LeNet"
state {
  phase: TEST
}
layer {
  name: "mnist"
  type: "Data"
  top: "data"
  top: "label"
  include {
    phase: TEST
  }
  transform_param {
    scale: 0.00390625
  }
  data_param {
    source: "examples/mnist/mnist_test_lmdb"
    batch_size: 100
    backend: LMDB
  }
}
layer {
  name: "conv0"
  type: "Convolution"
  bottom: "data"
  top: "conv0"
  param {
    lr_mult: 1
  }
  param {
    lr_mult: 2
  }
  convolution_param {
    num_output: 5
    kernel_size: 5
    stride: 1
    weight_filler {
      type: "xavier"
    }
    bias_filler {
      type: "constant"
    }
  }
}
layer {
  name: "pool0"
  type: "Pooling"
  bottom: "conv0"
  top: "pool0"
  pooling_param {
    pool: MAX
    kernel_size: 2
    stride: 2
  }
}
layer {
  name: "conv1"
  type: "Convolution"
  bottom: "pool0"
  top: "conv1"
  param {
    lr_mult: 1
  }
  param {
    lr_mult: 2
  }
  convolution_param {
    num_output: 2
    kernel_size: 5
    stride: 1
    weight_filler {
      type: "xavier"
    }
    bias_filler {
      type: "constant"
    }
  }
}
layer {
  name: "pool1"
  type: "Pooling"
  bottom: "conv1"
  top: "pool1"
  pooling_param {
    pool: MAX
    kernel_size: 2
    stride: 2
  }
}
layer {
  name: "ip1"
  type: "InnerProduct"
  bottom: "pool1"
  top: "ip1"
  param {
    lr_mult: 1
  }
  param {
    lr_mult: 2
  }
  inner_product_param {
    num_output: 10
    weight_filler {
      type: "xavier"
    }
    bias_filler {
      type: "constant"
    }
  }
}
layer {
  name: "relu1"
  type: "ReLU"
  bottom: "ip1"
  top: "ip1"
}
layer {
  name: "accuracy"
  type: "Accuracy"
  bottom: "ip1"
  bottom: "label"
  top: "accuracy"
  include {
    phase: TEST
  }
}
layer {
  name: "loss"
  type: "SoftmaxWithLoss"
  bottom: "ip1"
  bottom: "label"
  top: "loss"
}
I0428 19:47:13.489790 26135 layer_factory.hpp:77] Creating layer mnist
I0428 19:47:13.489840 26135 db_lmdb.cpp:35] Opened lmdb examples/mnist/mnist_test_lmdb
I0428 19:47:13.489853 26135 net.cpp:86] Creating Layer mnist
I0428 19:47:13.489859 26135 net.cpp:382] mnist -> data
I0428 19:47:13.489867 26135 net.cpp:382] mnist -> label
I0428 19:47:13.489964 26135 data_layer.cpp:45] output data size: 100,1,28,28
I0428 19:47:13.492269 26135 net.cpp:124] Setting up mnist
I0428 19:47:13.492285 26135 net.cpp:131] Top shape: 100 1 28 28 (78400)
I0428 19:47:13.492290 26135 net.cpp:131] Top shape: 100 (100)
I0428 19:47:13.492295 26135 net.cpp:139] Memory required for data: 314000
I0428 19:47:13.492300 26135 layer_factory.hpp:77] Creating layer label_mnist_1_split
I0428 19:47:13.492316 26135 net.cpp:86] Creating Layer label_mnist_1_split
I0428 19:47:13.492321 26135 net.cpp:408] label_mnist_1_split <- label
I0428 19:47:13.492326 26135 net.cpp:382] label_mnist_1_split -> label_mnist_1_split_0
I0428 19:47:13.492333 26135 net.cpp:382] label_mnist_1_split -> label_mnist_1_split_1
I0428 19:47:13.492388 26135 net.cpp:124] Setting up label_mnist_1_split
I0428 19:47:13.492393 26135 net.cpp:131] Top shape: 100 (100)
I0428 19:47:13.492398 26135 net.cpp:131] Top shape: 100 (100)
I0428 19:47:13.492401 26135 net.cpp:139] Memory required for data: 314800
I0428 19:47:13.492404 26135 layer_factory.hpp:77] Creating layer conv0
I0428 19:47:13.492413 26135 net.cpp:86] Creating Layer conv0
I0428 19:47:13.492418 26135 net.cpp:408] conv0 <- data
I0428 19:47:13.492425 26135 net.cpp:382] conv0 -> conv0
I0428 19:47:13.493485 26135 net.cpp:124] Setting up conv0
I0428 19:47:13.493499 26135 net.cpp:131] Top shape: 100 5 24 24 (288000)
I0428 19:47:13.493504 26135 net.cpp:139] Memory required for data: 1466800
I0428 19:47:13.493515 26135 layer_factory.hpp:77] Creating layer pool0
I0428 19:47:13.493522 26135 net.cpp:86] Creating Layer pool0
I0428 19:47:13.493526 26135 net.cpp:408] pool0 <- conv0
I0428 19:47:13.493532 26135 net.cpp:382] pool0 -> pool0
I0428 19:47:13.493574 26135 net.cpp:124] Setting up pool0
I0428 19:47:13.493580 26135 net.cpp:131] Top shape: 100 5 12 12 (72000)
I0428 19:47:13.493583 26135 net.cpp:139] Memory required for data: 1754800
I0428 19:47:13.493587 26135 layer_factory.hpp:77] Creating layer conv1
I0428 19:47:13.493597 26135 net.cpp:86] Creating Layer conv1
I0428 19:47:13.493600 26135 net.cpp:408] conv1 <- pool0
I0428 19:47:13.493608 26135 net.cpp:382] conv1 -> conv1
I0428 19:47:13.495906 26135 net.cpp:124] Setting up conv1
I0428 19:47:13.495920 26135 net.cpp:131] Top shape: 100 2 8 8 (12800)
I0428 19:47:13.495924 26135 net.cpp:139] Memory required for data: 1806000
I0428 19:47:13.495936 26135 layer_factory.hpp:77] Creating layer pool1
I0428 19:47:13.495944 26135 net.cpp:86] Creating Layer pool1
I0428 19:47:13.495961 26135 net.cpp:408] pool1 <- conv1
I0428 19:47:13.495970 26135 net.cpp:382] pool1 -> pool1
I0428 19:47:13.496059 26135 net.cpp:124] Setting up pool1
I0428 19:47:13.496068 26135 net.cpp:131] Top shape: 100 2 4 4 (3200)
I0428 19:47:13.496073 26135 net.cpp:139] Memory required for data: 1818800
I0428 19:47:13.496075 26135 layer_factory.hpp:77] Creating layer ip1
I0428 19:47:13.496083 26135 net.cpp:86] Creating Layer ip1
I0428 19:47:13.496088 26135 net.cpp:408] ip1 <- pool1
I0428 19:47:13.496093 26135 net.cpp:382] ip1 -> ip1
I0428 19:47:13.496215 26135 net.cpp:124] Setting up ip1
I0428 19:47:13.496223 26135 net.cpp:131] Top shape: 100 10 (1000)
I0428 19:47:13.496227 26135 net.cpp:139] Memory required for data: 1822800
I0428 19:47:13.496237 26135 layer_factory.hpp:77] Creating layer relu1
I0428 19:47:13.496243 26135 net.cpp:86] Creating Layer relu1
I0428 19:47:13.496248 26135 net.cpp:408] relu1 <- ip1
I0428 19:47:13.496253 26135 net.cpp:369] relu1 -> ip1 (in-place)
I0428 19:47:13.497153 26135 net.cpp:124] Setting up relu1
I0428 19:47:13.497166 26135 net.cpp:131] Top shape: 100 10 (1000)
I0428 19:47:13.497170 26135 net.cpp:139] Memory required for data: 1826800
I0428 19:47:13.497174 26135 layer_factory.hpp:77] Creating layer ip1_relu1_0_split
I0428 19:47:13.497181 26135 net.cpp:86] Creating Layer ip1_relu1_0_split
I0428 19:47:13.497184 26135 net.cpp:408] ip1_relu1_0_split <- ip1
I0428 19:47:13.497190 26135 net.cpp:382] ip1_relu1_0_split -> ip1_relu1_0_split_0
I0428 19:47:13.497198 26135 net.cpp:382] ip1_relu1_0_split -> ip1_relu1_0_split_1
I0428 19:47:13.497254 26135 net.cpp:124] Setting up ip1_relu1_0_split
I0428 19:47:13.497262 26135 net.cpp:131] Top shape: 100 10 (1000)
I0428 19:47:13.497267 26135 net.cpp:131] Top shape: 100 10 (1000)
I0428 19:47:13.497269 26135 net.cpp:139] Memory required for data: 1834800
I0428 19:47:13.497273 26135 layer_factory.hpp:77] Creating layer accuracy
I0428 19:47:13.497280 26135 net.cpp:86] Creating Layer accuracy
I0428 19:47:13.497285 26135 net.cpp:408] accuracy <- ip1_relu1_0_split_0
I0428 19:47:13.497289 26135 net.cpp:408] accuracy <- label_mnist_1_split_0
I0428 19:47:13.497300 26135 net.cpp:382] accuracy -> accuracy
…
