…
I0428 20:20:43.827654  1616 net.cpp:296] The NetState phase (0) differed from the phase (1) specified by a rule in layer mnist
I0428 20:20:43.827673  1616 net.cpp:296] The NetState phase (0) differed from the phase (1) specified by a rule in layer accuracy
I0428 20:20:43.827762  1616 net.cpp:53] Initializing net from parameters: 
name: "LeNet"
state {
  phase: TRAIN
  level: 0
  stage: ""
}
layer {
  name: "mnist"
  type: "Data"
  top: "data"
  top: "label"
  include {
    phase: TRAIN
  }
  transform_param {
    scale: 0.00390625
  }
  data_param {
    source: "examples/mnist/mnist_train_lmdb"
    batch_size: 64
    backend: LMDB
  }
}
layer {
  name: "conv0"
  type: "Convolution"
  bottom: "data"
  top: "conv0"
  param {
    lr_mult: 1
  }
  param {
    lr_mult: 2
  }
  convolution_param {
    num_output: 50
    kernel_size: 5
    stride: 1
    weight_filler {
      type: "xavier"
    }
    bias_filler {
      type: "constant"
    }
  }
}
layer {
  name: "pool0"
  type: "Pooling"
  bottom: "conv0"
  top: "pool0"
  pooling_param {
    pool: MAX
    kernel_size: 2
    stride: 2
  }
}
layer {
  name: "conv1"
  type: "Convolution"
  bottom: "pool0"
  top: "conv1"
  param {
    lr_mult: 1
  }
  param {
    lr_mult: 2
  }
  convolution_param {
    num_output: 50
    kernel_size: 5
    stride: 1
    weight_filler {
      type: "xavier"
    }
    bias_filler {
      type: "constant"
    }
  }
}
layer {
  name: "pool1"
  type: "Pooling"
  bottom: "conv1"
  top: "pool1"
  pooling_param {
    pool: MAX
    kernel_size: 2
    stride: 2
  }
}
layer {
  name: "ip1"
  type: "InnerProduct"
  bottom: "pool1"
  top: "ip1"
  param {
    lr_mult: 1
  }
  param {
    lr_mult: 2
  }
  inner_product_param {
    num_output: 10
    weight_filler {
      type: "xavier"
    }
    bias_filler {
      type: "constant"
    }
  }
}
layer {
  name: "relu1"
  type: "ReLU"
  bottom: "ip1"
  top: "ip1"
}
layer {
  name: "ip2"
  type: "InnerProduct"
  bottom: "ip1"
  top: "ip2"
  param {
    lr_mult: 1
  }
  param {
    lr_mult: 2
  }
  inner_product_param {
    num_output: 10
    weight_filler {
      type: "xavier"
    }
    bias_filler {
      type: "constant"
    }
  }
}
layer {
  name: "relu2"
  type: "ReLU"
  bottom: "ip2"
  top: "ip2"
}
layer {
  name: "loss"
  type: "SoftmaxWithLoss"
  bottom: "ip2"
  bottom: "label"
  top: "loss"
}
I0428 20:20:43.827836  1616 layer_factory.hpp:77] Creating layer mnist
I0428 20:20:43.827932  1616 db_lmdb.cpp:35] Opened lmdb examples/mnist/mnist_train_lmdb
I0428 20:20:43.827955  1616 net.cpp:86] Creating Layer mnist
I0428 20:20:43.827963  1616 net.cpp:382] mnist -> data
I0428 20:20:43.827986  1616 net.cpp:382] mnist -> label
I0428 20:20:43.829121  1616 data_layer.cpp:45] output data size: 64,1,28,28
I0428 20:20:43.831804  1616 net.cpp:124] Setting up mnist
I0428 20:20:43.831822  1616 net.cpp:131] Top shape: 64 1 28 28 (50176)
I0428 20:20:43.831828  1616 net.cpp:131] Top shape: 64 (64)
I0428 20:20:43.831832  1616 net.cpp:139] Memory required for data: 200960
I0428 20:20:43.831840  1616 layer_factory.hpp:77] Creating layer conv0
I0428 20:20:43.831877  1616 net.cpp:86] Creating Layer conv0
I0428 20:20:43.831884  1616 net.cpp:408] conv0 <- data
I0428 20:20:43.831898  1616 net.cpp:382] conv0 -> conv0
I0428 20:20:44.082051  1616 net.cpp:124] Setting up conv0
I0428 20:20:44.082092  1616 net.cpp:131] Top shape: 64 50 24 24 (1843200)
I0428 20:20:44.082095  1616 net.cpp:139] Memory required for data: 7573760
I0428 20:20:44.082130  1616 layer_factory.hpp:77] Creating layer pool0
I0428 20:20:44.082159  1616 net.cpp:86] Creating Layer pool0
I0428 20:20:44.082162  1616 net.cpp:408] pool0 <- conv0
I0428 20:20:44.082167  1616 net.cpp:382] pool0 -> pool0
I0428 20:20:44.082216  1616 net.cpp:124] Setting up pool0
I0428 20:20:44.082223  1616 net.cpp:131] Top shape: 64 50 12 12 (460800)
I0428 20:20:44.082226  1616 net.cpp:139] Memory required for data: 9416960
I0428 20:20:44.082229  1616 layer_factory.hpp:77] Creating layer conv1
I0428 20:20:44.082240  1616 net.cpp:86] Creating Layer conv1
I0428 20:20:44.082243  1616 net.cpp:408] conv1 <- pool0
I0428 20:20:44.082248  1616 net.cpp:382] conv1 -> conv1
I0428 20:20:44.084594  1616 net.cpp:124] Setting up conv1
I0428 20:20:44.084609  1616 net.cpp:131] Top shape: 64 50 8 8 (204800)
I0428 20:20:44.084612  1616 net.cpp:139] Memory required for data: 10236160
I0428 20:20:44.084620  1616 layer_factory.hpp:77] Creating layer pool1
I0428 20:20:44.084627  1616 net.cpp:86] Creating Layer pool1
I0428 20:20:44.084646  1616 net.cpp:408] pool1 <- conv1
I0428 20:20:44.084651  1616 net.cpp:382] pool1 -> pool1
I0428 20:20:44.084686  1616 net.cpp:124] Setting up pool1
I0428 20:20:44.084692  1616 net.cpp:131] Top shape: 64 50 4 4 (51200)
I0428 20:20:44.084695  1616 net.cpp:139] Memory required for data: 10440960
I0428 20:20:44.084698  1616 layer_factory.hpp:77] Creating layer ip1
I0428 20:20:44.084705  1616 net.cpp:86] Creating Layer ip1
I0428 20:20:44.084708  1616 net.cpp:408] ip1 <- pool1
I0428 20:20:44.084713  1616 net.cpp:382] ip1 -> ip1
I0428 20:20:44.085808  1616 net.cpp:124] Setting up ip1
I0428 20:20:44.085820  1616 net.cpp:131] Top shape: 64 10 (640)
I0428 20:20:44.085824  1616 net.cpp:139] Memory required for data: 10443520
I0428 20:20:44.085832  1616 layer_factory.hpp:77] Creating layer relu1
I0428 20:20:44.085839  1616 net.cpp:86] Creating Layer relu1
I0428 20:20:44.085842  1616 net.cpp:408] relu1 <- ip1
I0428 20:20:44.085847  1616 net.cpp:369] relu1 -> ip1 (in-place)
I0428 20:20:44.086033  1616 net.cpp:124] Setting up relu1
I0428 20:20:44.086041  1616 net.cpp:131] Top shape: 64 10 (640)
I0428 20:20:44.086045  1616 net.cpp:139] Memory required for data: 10446080
I0428 20:20:44.086048  1616 layer_factory.hpp:77] Creating layer ip2
I0428 20:20:44.086055  1616 net.cpp:86] Creating Layer ip2
I0428 20:20:44.086060  1616 net.cpp:408] ip2 <- ip1
I0428 20:20:44.086078  1616 net.cpp:382] ip2 -> ip2
I0428 20:20:44.086186  1616 net.cpp:124] Setting up ip2
I0428 20:20:44.086194  1616 net.cpp:131] Top shape: 64 10 (640)
I0428 20:20:44.086196  1616 net.cpp:139] Memory required for data: 10448640
I0428 20:20:44.086201  1616 layer_factory.hpp:77] Creating layer relu2
I0428 20:20:44.086207  1616 net.cpp:86] Creating Layer relu2
I0428 20:20:44.086211  1616 net.cpp:408] relu2 <- ip2
I0428 20:20:44.086215  1616 net.cpp:369] relu2 -> ip2 (in-place)
I0428 20:20:44.087090  1616 net.cpp:124] Setting up relu2
I0428 20:20:44.087102  1616 net.cpp:131] Top shape: 64 10 (640)
I0428 20:20:44.087105  1616 net.cpp:139] Memory required for data: 10451200
I0428 20:20:44.087110  1616 layer_factory.hpp:77] Creating layer loss
I0428 20:20:44.087116  1616 net.cpp:86] Creating Layer loss
I0428 20:20:44.087119  1616 net.cpp:408] loss <- ip2
I0428 20:20:44.087124  1616 net.cpp:408] loss <- label
I0428 20:20:44.087131  1616 net.cpp:382] loss -> loss
I0428 20:20:44.087147  1616 layer_factory.hpp:77] Creating layer loss
…
I0428 20:20:44.087837  1616 solver.cpp:173] Creating test net (#0) specified by net file: ECE595/mnist/train_test/var_everything2/lenet_train_test1369.prototxt
I0428 20:20:44.087891  1616 net.cpp:296] The NetState phase (1) differed from the phase (0) specified by a rule in layer mnist
I0428 20:20:44.087976  1616 net.cpp:53] Initializing net from parameters: 
name: "LeNet"
state {
  phase: TEST
}
layer {
  name: "mnist"
  type: "Data"
  top: "data"
  top: "label"
  include {
    phase: TEST
  }
  transform_param {
    scale: 0.00390625
  }
  data_param {
    source: "examples/mnist/mnist_test_lmdb"
    batch_size: 100
    backend: LMDB
  }
}
layer {
  name: "conv0"
  type: "Convolution"
  bottom: "data"
  top: "conv0"
  param {
    lr_mult: 1
  }
  param {
    lr_mult: 2
  }
  convolution_param {
    num_output: 50
    kernel_size: 5
    stride: 1
    weight_filler {
      type: "xavier"
    }
    bias_filler {
      type: "constant"
    }
  }
}
layer {
  name: "pool0"
  type: "Pooling"
  bottom: "conv0"
  top: "pool0"
  pooling_param {
    pool: MAX
    kernel_size: 2
    stride: 2
  }
}
layer {
  name: "conv1"
  type: "Convolution"
  bottom: "pool0"
  top: "conv1"
  param {
    lr_mult: 1
  }
  param {
    lr_mult: 2
  }
  convolution_param {
    num_output: 50
    kernel_size: 5
    stride: 1
    weight_filler {
      type: "xavier"
    }
    bias_filler {
      type: "constant"
    }
  }
}
layer {
  name: "pool1"
  type: "Pooling"
  bottom: "conv1"
  top: "pool1"
  pooling_param {
    pool: MAX
    kernel_size: 2
    stride: 2
  }
}
layer {
  name: "ip1"
  type: "InnerProduct"
  bottom: "pool1"
  top: "ip1"
  param {
    lr_mult: 1
  }
  param {
    lr_mult: 2
  }
  inner_product_param {
    num_output: 10
    weight_filler {
      type: "xavier"
    }
    bias_filler {
      type: "constant"
    }
  }
}
layer {
  name: "relu1"
  type: "ReLU"
  bottom: "ip1"
  top: "ip1"
}
layer {
  name: "ip2"
  type: "InnerProduct"
  bottom: "ip1"
  top: "ip2"
  param {
    lr_mult: 1
  }
  param {
    lr_mult: 2
  }
  inner_product_param {
    num_output: 10
    weight_filler {
      type: "xavier"
    }
    bias_filler {
      type: "constant"
    }
  }
}
layer {
  name: "relu2"
  type: "ReLU"
  bottom: "ip2"
  top: "ip2"
}
layer {
  name: "accuracy"
  type: "Accuracy"
  bottom: "ip2"
  bottom: "label"
  top: "accuracy"
  include {
    phase: TEST
  }
}
layer {
  name: "loss"
  type: "SoftmaxWithLoss"
  bottom: "ip2"
  bottom: "label"
  top: "loss"
}
I0428 20:20:44.088040  1616 layer_factory.hpp:77] Creating layer mnist
I0428 20:20:44.088109  1616 db_lmdb.cpp:35] Opened lmdb examples/mnist/mnist_test_lmdb
I0428 20:20:44.088121  1616 net.cpp:86] Creating Layer mnist
I0428 20:20:44.088140  1616 net.cpp:382] mnist -> data
I0428 20:20:44.088148  1616 net.cpp:382] mnist -> label
I0428 20:20:44.088233  1616 data_layer.cpp:45] output data size: 100,1,28,28
I0428 20:20:44.090207  1616 net.cpp:124] Setting up mnist
I0428 20:20:44.090239  1616 net.cpp:131] Top shape: 100 1 28 28 (78400)
I0428 20:20:44.090243  1616 net.cpp:131] Top shape: 100 (100)
I0428 20:20:44.090247  1616 net.cpp:139] Memory required for data: 314000
I0428 20:20:44.090251  1616 layer_factory.hpp:77] Creating layer label_mnist_1_split
I0428 20:20:44.090258  1616 net.cpp:86] Creating Layer label_mnist_1_split
I0428 20:20:44.090261  1616 net.cpp:408] label_mnist_1_split <- label
I0428 20:20:44.090267  1616 net.cpp:382] label_mnist_1_split -> label_mnist_1_split_0
I0428 20:20:44.090275  1616 net.cpp:382] label_mnist_1_split -> label_mnist_1_split_1
I0428 20:20:44.090404  1616 net.cpp:124] Setting up label_mnist_1_split
I0428 20:20:44.090426  1616 net.cpp:131] Top shape: 100 (100)
I0428 20:20:44.090430  1616 net.cpp:131] Top shape: 100 (100)
I0428 20:20:44.090433  1616 net.cpp:139] Memory required for data: 314800
I0428 20:20:44.090436  1616 layer_factory.hpp:77] Creating layer conv0
I0428 20:20:44.090445  1616 net.cpp:86] Creating Layer conv0
I0428 20:20:44.090448  1616 net.cpp:408] conv0 <- data
I0428 20:20:44.090453  1616 net.cpp:382] conv0 -> conv0
I0428 20:20:44.092012  1616 net.cpp:124] Setting up conv0
I0428 20:20:44.092042  1616 net.cpp:131] Top shape: 100 50 24 24 (2880000)
I0428 20:20:44.092046  1616 net.cpp:139] Memory required for data: 11834800
I0428 20:20:44.092057  1616 layer_factory.hpp:77] Creating layer pool0
I0428 20:20:44.092064  1616 net.cpp:86] Creating Layer pool0
I0428 20:20:44.092067  1616 net.cpp:408] pool0 <- conv0
I0428 20:20:44.092073  1616 net.cpp:382] pool0 -> pool0
I0428 20:20:44.092113  1616 net.cpp:124] Setting up pool0
I0428 20:20:44.092119  1616 net.cpp:131] Top shape: 100 50 12 12 (720000)
I0428 20:20:44.092123  1616 net.cpp:139] Memory required for data: 14714800
I0428 20:20:44.092125  1616 layer_factory.hpp:77] Creating layer conv1
I0428 20:20:44.092134  1616 net.cpp:86] Creating Layer conv1
I0428 20:20:44.092139  1616 net.cpp:408] conv1 <- pool0
I0428 20:20:44.092144  1616 net.cpp:382] conv1 -> conv1
I0428 20:20:44.094396  1616 net.cpp:124] Setting up conv1
I0428 20:20:44.094409  1616 net.cpp:131] Top shape: 100 50 8 8 (320000)
I0428 20:20:44.094413  1616 net.cpp:139] Memory required for data: 15994800
I0428 20:20:44.094421  1616 layer_factory.hpp:77] Creating layer pool1
I0428 20:20:44.094429  1616 net.cpp:86] Creating Layer pool1
I0428 20:20:44.094452  1616 net.cpp:408] pool1 <- conv1
I0428 20:20:44.094457  1616 net.cpp:382] pool1 -> pool1
I0428 20:20:44.094496  1616 net.cpp:124] Setting up pool1
I0428 20:20:44.094501  1616 net.cpp:131] Top shape: 100 50 4 4 (80000)
I0428 20:20:44.094504  1616 net.cpp:139] Memory required for data: 16314800
I0428 20:20:44.094507  1616 layer_factory.hpp:77] Creating layer ip1
I0428 20:20:44.094514  1616 net.cpp:86] Creating Layer ip1
I0428 20:20:44.094517  1616 net.cpp:408] ip1 <- pool1
I0428 20:20:44.094522  1616 net.cpp:382] ip1 -> ip1
I0428 20:20:44.094666  1616 net.cpp:124] Setting up ip1
I0428 20:20:44.094673  1616 net.cpp:131] Top shape: 100 10 (1000)
I0428 20:20:44.094676  1616 net.cpp:139] Memory required for data: 16318800
I0428 20:20:44.094684  1616 layer_factory.hpp:77] Creating layer relu1
I0428 20:20:44.094691  1616 net.cpp:86] Creating Layer relu1
I0428 20:20:44.094698  1616 net.cpp:408] relu1 <- ip1
I0428 20:20:44.094703  1616 net.cpp:369] relu1 -> ip1 (in-place)
I0428 20:20:44.094885  1616 net.cpp:124] Setting up relu1
I0428 20:20:44.094894  1616 net.cpp:131] Top shape: 100 10 (1000)
I0428 20:20:44.094898  1616 net.cpp:139] Memory required for data: 16322800
I0428 20:20:44.094902  1616 layer_factory.hpp:77] Creating layer ip2
I0428 20:20:44.094908  1616 net.cpp:86] Creating Layer ip2
I0428 20:20:44.094911  1616 net.cpp:408] ip2 <- ip1
I0428 20:20:44.094919  1616 net.cpp:382] ip2 -> ip2
I0428 20:20:44.095054  1616 net.cpp:124] Setting up ip2
I0428 20:20:44.095062  1616 net.cpp:131] Top shape: 100 10 (1000)
I0428 20:20:44.095065  1616 net.cpp:139] Memory required for data: 16326800
I0428 20:20:44.095070  1616 layer_factory.hpp:77] Creating layer relu2
I0428 20:20:44.095077  1616 net.cpp:86] Creating Layer relu2
I0428 20:20:44.095080  1616 net.cpp:408] relu2 <- ip2
I0428 20:20:44.095084  1616 net.cpp:369] relu2 -> ip2 (in-place)
I0428 20:20:44.095259  1616 net.cpp:124] Setting up relu2
I0428 20:20:44.095268  1616 net.cpp:131] Top shape: 100 10 (1000)
I0428 20:20:44.095270  1616 net.cpp:139] Memory required for data: 16330800
I0428 20:20:44.095273  1616 layer_factory.hpp:77] Creating layer ip2_relu2_0_split
I0428 20:20:44.095278  1616 net.cpp:86] Creating Layer ip2_relu2_0_split
I0428 20:20:44.095283  1616 net.cpp:408] ip2_relu2_0_split <- ip2
I0428 20:20:44.095286  1616 net.cpp:382] ip2_relu2_0_split -> ip2_relu2_0_split_0
I0428 20:20:44.095304  1616 net.cpp:382] ip2_relu2_0_split -> ip2_relu2_0_split_1
I0428 20:20:44.095340  1616 net.cpp:124] Setting up ip2_relu2_0_split
I0428 20:20:44.095347  1616 net.cpp:131] Top shape: 100 10 (1000)
I0428 20:20:44.095350  1616 net.cpp:131] Top shape: 100 10 (1000)
I0428 20:20:44.095353  1616 net.cpp:139] Memory required for data: 16338800
I0428 20:20:44.095356  1616 layer_factory.hpp:77] Creating layer accuracy
I0428 20:20:44.095362  1616 net.cpp:86] Creating Layer accuracy
I0428 20:20:44.095366  1616 net.cpp:408] accuracy <- ip2_relu2_0_split_0
I0428 20:20:44.095369  1616 net.cpp:408] accuracy <- label_mnist_1_split_0
I0428 20:20:44.095373  1616 net.cpp:382] accuracy -> accuracy
…
