…
I0428 20:00:37.823261 29517 net.cpp:296] The NetState phase (0) differed from the phase (1) specified by a rule in layer mnist
I0428 20:00:37.823282 29517 net.cpp:296] The NetState phase (0) differed from the phase (1) specified by a rule in layer accuracy
I0428 20:00:37.823382 29517 net.cpp:53] Initializing net from parameters: 
name: "LeNet"
state {
  phase: TRAIN
  level: 0
  stage: ""
}
layer {
  name: "mnist"
  type: "Data"
  top: "data"
  top: "label"
  include {
    phase: TRAIN
  }
  transform_param {
    scale: 0.00390625
  }
  data_param {
    source: "examples/mnist/mnist_train_lmdb"
    batch_size: 64
    backend: LMDB
  }
}
layer {
  name: "conv0"
  type: "Convolution"
  bottom: "data"
  top: "conv0"
  param {
    lr_mult: 1
  }
  param {
    lr_mult: 2
  }
  convolution_param {
    num_output: 10
    kernel_size: 5
    stride: 1
    weight_filler {
      type: "xavier"
    }
    bias_filler {
      type: "constant"
    }
  }
}
layer {
  name: "pool0"
  type: "Pooling"
  bottom: "conv0"
  top: "pool0"
  pooling_param {
    pool: MAX
    kernel_size: 2
    stride: 2
  }
}
layer {
  name: "conv1"
  type: "Convolution"
  bottom: "pool0"
  top: "conv1"
  param {
    lr_mult: 1
  }
  param {
    lr_mult: 2
  }
  convolution_param {
    num_output: 25
    kernel_size: 5
    stride: 1
    weight_filler {
      type: "xavier"
    }
    bias_filler {
      type: "constant"
    }
  }
}
layer {
  name: "pool1"
  type: "Pooling"
  bottom: "conv1"
  top: "pool1"
  pooling_param {
    pool: MAX
    kernel_size: 2
    stride: 2
  }
}
layer {
  name: "ip1"
  type: "InnerProduct"
  bottom: "pool1"
  top: "ip1"
  param {
    lr_mult: 1
  }
  param {
    lr_mult: 2
  }
  inner_product_param {
    num_output: 25
    weight_filler {
      type: "xavier"
    }
    bias_filler {
      type: "constant"
    }
  }
}
layer {
  name: "relu1"
  type: "ReLU"
  bottom: "ip1"
  top: "ip1"
}
layer {
  name: "ip2"
  type: "InnerProduct"
  bottom: "ip1"
  top: "ip2"
  param {
    lr_mult: 1
  }
  param {
    lr_mult: 2
  }
  inner_product_param {
    num_output: 10
    weight_filler {
      type: "xavier"
    }
    bias_filler {
      type: "constant"
    }
  }
}
layer {
  name: "relu2"
  type: "ReLU"
  bottom: "ip2"
  top: "ip2"
}
layer {
  name: "ip3"
  type: "InnerProduct"
  bottom: "ip2"
  top: "ip3"
  param {
    lr_mult: 1
  }
  param {
    lr_mult: 2
  }
  inner_product_param {
    num_output: 10
    weight_filler {
      type: "xavier"
    }
    bias_filler {
      type: "constant"
    }
  }
}
layer {
  name: "relu3"
  type: "ReLU"
  bottom: "ip3"
  top: "ip3"
}
layer {
  name: "loss"
  type: "SoftmaxWithLoss"
  bottom: "ip3"
  bottom: "label"
  top: "loss"
}
I0428 20:00:37.823465 29517 layer_factory.hpp:77] Creating layer mnist
I0428 20:00:37.823580 29517 db_lmdb.cpp:35] Opened lmdb examples/mnist/mnist_train_lmdb
I0428 20:00:37.823602 29517 net.cpp:86] Creating Layer mnist
I0428 20:00:37.823611 29517 net.cpp:382] mnist -> data
I0428 20:00:37.823632 29517 net.cpp:382] mnist -> label
I0428 20:00:37.824720 29517 data_layer.cpp:45] output data size: 64,1,28,28
I0428 20:00:37.827174 29517 net.cpp:124] Setting up mnist
I0428 20:00:37.827193 29517 net.cpp:131] Top shape: 64 1 28 28 (50176)
I0428 20:00:37.827199 29517 net.cpp:131] Top shape: 64 (64)
I0428 20:00:37.827203 29517 net.cpp:139] Memory required for data: 200960
I0428 20:00:37.827210 29517 layer_factory.hpp:77] Creating layer conv0
I0428 20:00:37.827227 29517 net.cpp:86] Creating Layer conv0
I0428 20:00:37.827249 29517 net.cpp:408] conv0 <- data
I0428 20:00:37.827261 29517 net.cpp:382] conv0 -> conv0
I0428 20:00:38.116827 29517 net.cpp:124] Setting up conv0
I0428 20:00:38.116858 29517 net.cpp:131] Top shape: 64 10 24 24 (368640)
I0428 20:00:38.116863 29517 net.cpp:139] Memory required for data: 1675520
I0428 20:00:38.116881 29517 layer_factory.hpp:77] Creating layer pool0
I0428 20:00:38.116899 29517 net.cpp:86] Creating Layer pool0
I0428 20:00:38.116907 29517 net.cpp:408] pool0 <- conv0
I0428 20:00:38.116925 29517 net.cpp:382] pool0 -> pool0
I0428 20:00:38.116979 29517 net.cpp:124] Setting up pool0
I0428 20:00:38.116991 29517 net.cpp:131] Top shape: 64 10 12 12 (92160)
I0428 20:00:38.116994 29517 net.cpp:139] Memory required for data: 2044160
I0428 20:00:38.116998 29517 layer_factory.hpp:77] Creating layer conv1
I0428 20:00:38.117010 29517 net.cpp:86] Creating Layer conv1
I0428 20:00:38.117014 29517 net.cpp:408] conv1 <- pool0
I0428 20:00:38.117020 29517 net.cpp:382] conv1 -> conv1
I0428 20:00:38.120146 29517 net.cpp:124] Setting up conv1
I0428 20:00:38.120162 29517 net.cpp:131] Top shape: 64 25 8 8 (102400)
I0428 20:00:38.120167 29517 net.cpp:139] Memory required for data: 2453760
I0428 20:00:38.120178 29517 layer_factory.hpp:77] Creating layer pool1
I0428 20:00:38.120187 29517 net.cpp:86] Creating Layer pool1
I0428 20:00:38.120193 29517 net.cpp:408] pool1 <- conv1
I0428 20:00:38.120198 29517 net.cpp:382] pool1 -> pool1
I0428 20:00:38.120242 29517 net.cpp:124] Setting up pool1
I0428 20:00:38.120249 29517 net.cpp:131] Top shape: 64 25 4 4 (25600)
I0428 20:00:38.120252 29517 net.cpp:139] Memory required for data: 2556160
I0428 20:00:38.120256 29517 layer_factory.hpp:77] Creating layer ip1
I0428 20:00:38.120265 29517 net.cpp:86] Creating Layer ip1
I0428 20:00:38.120268 29517 net.cpp:408] ip1 <- pool1
I0428 20:00:38.120275 29517 net.cpp:382] ip1 -> ip1
I0428 20:00:38.120450 29517 net.cpp:124] Setting up ip1
I0428 20:00:38.120458 29517 net.cpp:131] Top shape: 64 25 (1600)
I0428 20:00:38.120462 29517 net.cpp:139] Memory required for data: 2562560
I0428 20:00:38.120471 29517 layer_factory.hpp:77] Creating layer relu1
I0428 20:00:38.120477 29517 net.cpp:86] Creating Layer relu1
I0428 20:00:38.120481 29517 net.cpp:408] relu1 <- ip1
I0428 20:00:38.120486 29517 net.cpp:369] relu1 -> ip1 (in-place)
I0428 20:00:38.120674 29517 net.cpp:124] Setting up relu1
I0428 20:00:38.120684 29517 net.cpp:131] Top shape: 64 25 (1600)
I0428 20:00:38.120688 29517 net.cpp:139] Memory required for data: 2568960
I0428 20:00:38.120692 29517 layer_factory.hpp:77] Creating layer ip2
I0428 20:00:38.120700 29517 net.cpp:86] Creating Layer ip2
I0428 20:00:38.120703 29517 net.cpp:408] ip2 <- ip1
I0428 20:00:38.120709 29517 net.cpp:382] ip2 -> ip2
I0428 20:00:38.120826 29517 net.cpp:124] Setting up ip2
I0428 20:00:38.120834 29517 net.cpp:131] Top shape: 64 10 (640)
I0428 20:00:38.120838 29517 net.cpp:139] Memory required for data: 2571520
I0428 20:00:38.120846 29517 layer_factory.hpp:77] Creating layer relu2
I0428 20:00:38.120852 29517 net.cpp:86] Creating Layer relu2
I0428 20:00:38.120857 29517 net.cpp:408] relu2 <- ip2
I0428 20:00:38.120862 29517 net.cpp:369] relu2 -> ip2 (in-place)
I0428 20:00:38.121791 29517 net.cpp:124] Setting up relu2
I0428 20:00:38.121806 29517 net.cpp:131] Top shape: 64 10 (640)
I0428 20:00:38.121810 29517 net.cpp:139] Memory required for data: 2574080
I0428 20:00:38.121815 29517 layer_factory.hpp:77] Creating layer ip3
I0428 20:00:38.121824 29517 net.cpp:86] Creating Layer ip3
I0428 20:00:38.121827 29517 net.cpp:408] ip3 <- ip2
I0428 20:00:38.121834 29517 net.cpp:382] ip3 -> ip3
I0428 20:00:38.121953 29517 net.cpp:124] Setting up ip3
I0428 20:00:38.121961 29517 net.cpp:131] Top shape: 64 10 (640)
I0428 20:00:38.121965 29517 net.cpp:139] Memory required for data: 2576640
I0428 20:00:38.121975 29517 layer_factory.hpp:77] Creating layer relu3
I0428 20:00:38.121981 29517 net.cpp:86] Creating Layer relu3
I0428 20:00:38.121985 29517 net.cpp:408] relu3 <- ip3
I0428 20:00:38.121990 29517 net.cpp:369] relu3 -> ip3 (in-place)
I0428 20:00:38.122184 29517 net.cpp:124] Setting up relu3
I0428 20:00:38.122193 29517 net.cpp:131] Top shape: 64 10 (640)
I0428 20:00:38.122197 29517 net.cpp:139] Memory required for data: 2579200
I0428 20:00:38.122201 29517 layer_factory.hpp:77] Creating layer loss
I0428 20:00:38.122210 29517 net.cpp:86] Creating Layer loss
I0428 20:00:38.122213 29517 net.cpp:408] loss <- ip3
I0428 20:00:38.122217 29517 net.cpp:408] loss <- label
I0428 20:00:38.122225 29517 net.cpp:382] loss -> loss
I0428 20:00:38.122246 29517 layer_factory.hpp:77] Creating layer loss
…
I0428 20:00:38.122995 29517 solver.cpp:173] Creating test net (#0) specified by net file: ECE595/mnist/train_test/var_everything2/lenet_train_test881.prototxt
I0428 20:00:38.123028 29517 net.cpp:296] The NetState phase (1) differed from the phase (0) specified by a rule in layer mnist
I0428 20:00:38.123134 29517 net.cpp:53] Initializing net from parameters: 
name: "LeNet"
state {
  phase: TEST
}
layer {
  name: "mnist"
  type: "Data"
  top: "data"
  top: "label"
  include {
    phase: TEST
  }
  transform_param {
    scale: 0.00390625
  }
  data_param {
    source: "examples/mnist/mnist_test_lmdb"
    batch_size: 100
    backend: LMDB
  }
}
layer {
  name: "conv0"
  type: "Convolution"
  bottom: "data"
  top: "conv0"
  param {
    lr_mult: 1
  }
  param {
    lr_mult: 2
  }
  convolution_param {
    num_output: 10
    kernel_size: 5
    stride: 1
    weight_filler {
      type: "xavier"
    }
    bias_filler {
      type: "constant"
    }
  }
}
layer {
  name: "pool0"
  type: "Pooling"
  bottom: "conv0"
  top: "pool0"
  pooling_param {
    pool: MAX
    kernel_size: 2
    stride: 2
  }
}
layer {
  name: "conv1"
  type: "Convolution"
  bottom: "pool0"
  top: "conv1"
  param {
    lr_mult: 1
  }
  param {
    lr_mult: 2
  }
  convolution_param {
    num_output: 25
    kernel_size: 5
    stride: 1
    weight_filler {
      type: "xavier"
    }
    bias_filler {
      type: "constant"
    }
  }
}
layer {
  name: "pool1"
  type: "Pooling"
  bottom: "conv1"
  top: "pool1"
  pooling_param {
    pool: MAX
    kernel_size: 2
    stride: 2
  }
}
layer {
  name: "ip1"
  type: "InnerProduct"
  bottom: "pool1"
  top: "ip1"
  param {
    lr_mult: 1
  }
  param {
    lr_mult: 2
  }
  inner_product_param {
    num_output: 25
    weight_filler {
      type: "xavier"
    }
    bias_filler {
      type: "constant"
    }
  }
}
layer {
  name: "relu1"
  type: "ReLU"
  bottom: "ip1"
  top: "ip1"
}
layer {
  name: "ip2"
  type: "InnerProduct"
  bottom: "ip1"
  top: "ip2"
  param {
    lr_mult: 1
  }
  param {
    lr_mult: 2
  }
  inner_product_param {
    num_output: 10
    weight_filler {
      type: "xavier"
    }
    bias_filler {
      type: "constant"
    }
  }
}
layer {
  name: "relu2"
  type: "ReLU"
  bottom: "ip2"
  top: "ip2"
}
layer {
  name: "ip3"
  type: "InnerProduct"
  bottom: "ip2"
  top: "ip3"
  param {
    lr_mult: 1
  }
  param {
    lr_mult: 2
  }
  inner_product_param {
    num_output: 10
    weight_filler {
      type: "xavier"
    }
    bias_filler {
      type: "constant"
    }
  }
}
layer {
  name: "relu3"
  type: "ReLU"
  bottom: "ip3"
  top: "ip3"
}
layer {
  name: "accuracy"
  type: "Accuracy"
  bottom: "ip3"
  bottom: "label"
  top: "accuracy"
  include {
    phase: TEST
  }
}
layer {
  name: "loss"
  type: "SoftmaxWithLoss"
  bottom: "ip3"
  bottom: "label"
  top: "loss"
}
I0428 20:00:38.123229 29517 layer_factory.hpp:77] Creating layer mnist
I0428 20:00:38.123282 29517 db_lmdb.cpp:35] Opened lmdb examples/mnist/mnist_test_lmdb
I0428 20:00:38.123296 29517 net.cpp:86] Creating Layer mnist
I0428 20:00:38.123302 29517 net.cpp:382] mnist -> data
I0428 20:00:38.123311 29517 net.cpp:382] mnist -> label
I0428 20:00:38.123409 29517 data_layer.cpp:45] output data size: 100,1,28,28
I0428 20:00:38.125627 29517 net.cpp:124] Setting up mnist
I0428 20:00:38.125643 29517 net.cpp:131] Top shape: 100 1 28 28 (78400)
I0428 20:00:38.125649 29517 net.cpp:131] Top shape: 100 (100)
I0428 20:00:38.125653 29517 net.cpp:139] Memory required for data: 314000
I0428 20:00:38.125658 29517 layer_factory.hpp:77] Creating layer label_mnist_1_split
I0428 20:00:38.125666 29517 net.cpp:86] Creating Layer label_mnist_1_split
I0428 20:00:38.125670 29517 net.cpp:408] label_mnist_1_split <- label
I0428 20:00:38.125676 29517 net.cpp:382] label_mnist_1_split -> label_mnist_1_split_0
I0428 20:00:38.125684 29517 net.cpp:382] label_mnist_1_split -> label_mnist_1_split_1
I0428 20:00:38.125735 29517 net.cpp:124] Setting up label_mnist_1_split
I0428 20:00:38.125751 29517 net.cpp:131] Top shape: 100 (100)
I0428 20:00:38.125756 29517 net.cpp:131] Top shape: 100 (100)
I0428 20:00:38.125759 29517 net.cpp:139] Memory required for data: 314800
I0428 20:00:38.125763 29517 layer_factory.hpp:77] Creating layer conv0
I0428 20:00:38.125773 29517 net.cpp:86] Creating Layer conv0
I0428 20:00:38.125777 29517 net.cpp:408] conv0 <- data
I0428 20:00:38.125783 29517 net.cpp:382] conv0 -> conv0
I0428 20:00:38.127658 29517 net.cpp:124] Setting up conv0
I0428 20:00:38.127676 29517 net.cpp:131] Top shape: 100 10 24 24 (576000)
I0428 20:00:38.127679 29517 net.cpp:139] Memory required for data: 2618800
I0428 20:00:38.127691 29517 layer_factory.hpp:77] Creating layer pool0
I0428 20:00:38.127698 29517 net.cpp:86] Creating Layer pool0
I0428 20:00:38.127702 29517 net.cpp:408] pool0 <- conv0
I0428 20:00:38.127708 29517 net.cpp:382] pool0 -> pool0
I0428 20:00:38.127749 29517 net.cpp:124] Setting up pool0
I0428 20:00:38.127756 29517 net.cpp:131] Top shape: 100 10 12 12 (144000)
I0428 20:00:38.127759 29517 net.cpp:139] Memory required for data: 3194800
I0428 20:00:38.127763 29517 layer_factory.hpp:77] Creating layer conv1
I0428 20:00:38.127774 29517 net.cpp:86] Creating Layer conv1
I0428 20:00:38.127777 29517 net.cpp:408] conv1 <- pool0
I0428 20:00:38.127782 29517 net.cpp:382] conv1 -> conv1
I0428 20:00:38.130074 29517 net.cpp:124] Setting up conv1
I0428 20:00:38.130090 29517 net.cpp:131] Top shape: 100 25 8 8 (160000)
I0428 20:00:38.130095 29517 net.cpp:139] Memory required for data: 3834800
I0428 20:00:38.130106 29517 layer_factory.hpp:77] Creating layer pool1
I0428 20:00:38.130113 29517 net.cpp:86] Creating Layer pool1
I0428 20:00:38.130117 29517 net.cpp:408] pool1 <- conv1
I0428 20:00:38.130125 29517 net.cpp:382] pool1 -> pool1
I0428 20:00:38.130173 29517 net.cpp:124] Setting up pool1
I0428 20:00:38.130179 29517 net.cpp:131] Top shape: 100 25 4 4 (40000)
I0428 20:00:38.130183 29517 net.cpp:139] Memory required for data: 3994800
I0428 20:00:38.130187 29517 layer_factory.hpp:77] Creating layer ip1
I0428 20:00:38.130193 29517 net.cpp:86] Creating Layer ip1
I0428 20:00:38.130198 29517 net.cpp:408] ip1 <- pool1
I0428 20:00:38.130203 29517 net.cpp:382] ip1 -> ip1
I0428 20:00:38.130395 29517 net.cpp:124] Setting up ip1
I0428 20:00:38.130405 29517 net.cpp:131] Top shape: 100 25 (2500)
I0428 20:00:38.130422 29517 net.cpp:139] Memory required for data: 4004800
I0428 20:00:38.130432 29517 layer_factory.hpp:77] Creating layer relu1
I0428 20:00:38.130439 29517 net.cpp:86] Creating Layer relu1
I0428 20:00:38.130442 29517 net.cpp:408] relu1 <- ip1
I0428 20:00:38.130447 29517 net.cpp:369] relu1 -> ip1 (in-place)
I0428 20:00:38.130636 29517 net.cpp:124] Setting up relu1
I0428 20:00:38.130646 29517 net.cpp:131] Top shape: 100 25 (2500)
I0428 20:00:38.130650 29517 net.cpp:139] Memory required for data: 4014800
I0428 20:00:38.130656 29517 layer_factory.hpp:77] Creating layer ip2
I0428 20:00:38.130663 29517 net.cpp:86] Creating Layer ip2
I0428 20:00:38.130667 29517 net.cpp:408] ip2 <- ip1
I0428 20:00:38.130674 29517 net.cpp:382] ip2 -> ip2
I0428 20:00:38.130785 29517 net.cpp:124] Setting up ip2
I0428 20:00:38.130795 29517 net.cpp:131] Top shape: 100 10 (1000)
I0428 20:00:38.130797 29517 net.cpp:139] Memory required for data: 4018800
I0428 20:00:38.130805 29517 layer_factory.hpp:77] Creating layer relu2
I0428 20:00:38.130810 29517 net.cpp:86] Creating Layer relu2
I0428 20:00:38.130813 29517 net.cpp:408] relu2 <- ip2
I0428 20:00:38.130818 29517 net.cpp:369] relu2 -> ip2 (in-place)
I0428 20:00:38.130990 29517 net.cpp:124] Setting up relu2
I0428 20:00:38.131000 29517 net.cpp:131] Top shape: 100 10 (1000)
I0428 20:00:38.131002 29517 net.cpp:139] Memory required for data: 4022800
I0428 20:00:38.131006 29517 layer_factory.hpp:77] Creating layer ip3
I0428 20:00:38.131013 29517 net.cpp:86] Creating Layer ip3
I0428 20:00:38.131017 29517 net.cpp:408] ip3 <- ip2
I0428 20:00:38.131023 29517 net.cpp:382] ip3 -> ip3
I0428 20:00:38.131137 29517 net.cpp:124] Setting up ip3
I0428 20:00:38.131145 29517 net.cpp:131] Top shape: 100 10 (1000)
I0428 20:00:38.131150 29517 net.cpp:139] Memory required for data: 4026800
I0428 20:00:38.131158 29517 layer_factory.hpp:77] Creating layer relu3
I0428 20:00:38.131163 29517 net.cpp:86] Creating Layer relu3
I0428 20:00:38.131167 29517 net.cpp:408] relu3 <- ip3
I0428 20:00:38.131172 29517 net.cpp:369] relu3 -> ip3 (in-place)
I0428 20:00:38.132127 29517 net.cpp:124] Setting up relu3
I0428 20:00:38.132140 29517 net.cpp:131] Top shape: 100 10 (1000)
I0428 20:00:38.132144 29517 net.cpp:139] Memory required for data: 4030800
I0428 20:00:38.132148 29517 layer_factory.hpp:77] Creating layer ip3_relu3_0_split
I0428 20:00:38.132156 29517 net.cpp:86] Creating Layer ip3_relu3_0_split
I0428 20:00:38.132160 29517 net.cpp:408] ip3_relu3_0_split <- ip3
I0428 20:00:38.132166 29517 net.cpp:382] ip3_relu3_0_split -> ip3_relu3_0_split_0
I0428 20:00:38.132175 29517 net.cpp:382] ip3_relu3_0_split -> ip3_relu3_0_split_1
I0428 20:00:38.132223 29517 net.cpp:124] Setting up ip3_relu3_0_split
I0428 20:00:38.132230 29517 net.cpp:131] Top shape: 100 10 (1000)
I0428 20:00:38.132235 29517 net.cpp:131] Top shape: 100 10 (1000)
I0428 20:00:38.132238 29517 net.cpp:139] Memory required for data: 4038800
I0428 20:00:38.132241 29517 layer_factory.hpp:77] Creating layer accuracy
I0428 20:00:38.132253 29517 net.cpp:86] Creating Layer accuracy
I0428 20:00:38.132257 29517 net.cpp:408] accuracy <- ip3_relu3_0_split_0
I0428 20:00:38.132262 29517 net.cpp:408] accuracy <- label_mnist_1_split_0
I0428 20:00:38.132268 29517 net.cpp:382] accuracy -> accuracy
…
