…
I0428 19:34:03.246084 23259 net.cpp:296] The NetState phase (0) differed from the phase (1) specified by a rule in layer mnist
I0428 19:34:03.246100 23259 net.cpp:296] The NetState phase (0) differed from the phase (1) specified by a rule in layer accuracy
I0428 19:34:03.246170 23259 net.cpp:53] Initializing net from parameters: 
name: "LeNet"
state {
  phase: TRAIN
  level: 0
  stage: ""
}
layer {
  name: "mnist"
  type: "Data"
  top: "data"
  top: "label"
  include {
    phase: TRAIN
  }
  transform_param {
    scale: 0.00390625
  }
  data_param {
    source: "examples/mnist/mnist_train_lmdb"
    batch_size: 64
    backend: LMDB
  }
}
layer {
  name: "conv0"
  type: "Convolution"
  bottom: "data"
  top: "conv0"
  param {
    lr_mult: 1
  }
  param {
    lr_mult: 2
  }
  convolution_param {
    num_output: 50
    kernel_size: 5
    stride: 1
    weight_filler {
      type: "xavier"
    }
    bias_filler {
      type: "constant"
    }
  }
}
layer {
  name: "pool0"
  type: "Pooling"
  bottom: "conv0"
  top: "pool0"
  pooling_param {
    pool: MAX
    kernel_size: 2
    stride: 2
  }
}
layer {
  name: "ip1"
  type: "InnerProduct"
  bottom: "pool0"
  top: "ip1"
  param {
    lr_mult: 1
  }
  param {
    lr_mult: 2
  }
  inner_product_param {
    num_output: 10
    weight_filler {
      type: "xavier"
    }
    bias_filler {
      type: "constant"
    }
  }
}
layer {
  name: "relu1"
  type: "ReLU"
  bottom: "ip1"
  top: "ip1"
}
layer {
  name: "loss"
  type: "SoftmaxWithLoss"
  bottom: "ip1"
  bottom: "label"
  top: "loss"
}
I0428 19:34:03.246232 23259 layer_factory.hpp:77] Creating layer mnist
I0428 19:34:03.246335 23259 db_lmdb.cpp:35] Opened lmdb examples/mnist/mnist_train_lmdb
I0428 19:34:03.246361 23259 net.cpp:86] Creating Layer mnist
I0428 19:34:03.246368 23259 net.cpp:382] mnist -> data
I0428 19:34:03.246392 23259 net.cpp:382] mnist -> label
I0428 19:34:03.247519 23259 data_layer.cpp:45] output data size: 64,1,28,28
I0428 19:34:03.250005 23259 net.cpp:124] Setting up mnist
I0428 19:34:03.250025 23259 net.cpp:131] Top shape: 64 1 28 28 (50176)
I0428 19:34:03.250030 23259 net.cpp:131] Top shape: 64 (64)
I0428 19:34:03.250035 23259 net.cpp:139] Memory required for data: 200960
I0428 19:34:03.250041 23259 layer_factory.hpp:77] Creating layer conv0
I0428 19:34:03.250088 23259 net.cpp:86] Creating Layer conv0
I0428 19:34:03.250095 23259 net.cpp:408] conv0 <- data
I0428 19:34:03.250108 23259 net.cpp:382] conv0 -> conv0
I0428 19:34:03.528681 23259 net.cpp:124] Setting up conv0
I0428 19:34:03.528708 23259 net.cpp:131] Top shape: 64 50 24 24 (1843200)
I0428 19:34:03.528712 23259 net.cpp:139] Memory required for data: 7573760
I0428 19:34:03.528726 23259 layer_factory.hpp:77] Creating layer pool0
I0428 19:34:03.528754 23259 net.cpp:86] Creating Layer pool0
I0428 19:34:03.528774 23259 net.cpp:408] pool0 <- conv0
I0428 19:34:03.528779 23259 net.cpp:382] pool0 -> pool0
I0428 19:34:03.528836 23259 net.cpp:124] Setting up pool0
I0428 19:34:03.528848 23259 net.cpp:131] Top shape: 64 50 12 12 (460800)
I0428 19:34:03.528851 23259 net.cpp:139] Memory required for data: 9416960
I0428 19:34:03.528856 23259 layer_factory.hpp:77] Creating layer ip1
I0428 19:34:03.528867 23259 net.cpp:86] Creating Layer ip1
I0428 19:34:03.528869 23259 net.cpp:408] ip1 <- pool0
I0428 19:34:03.528874 23259 net.cpp:382] ip1 -> ip1
I0428 19:34:03.530164 23259 net.cpp:124] Setting up ip1
I0428 19:34:03.530190 23259 net.cpp:131] Top shape: 64 10 (640)
I0428 19:34:03.530210 23259 net.cpp:139] Memory required for data: 9419520
I0428 19:34:03.530217 23259 layer_factory.hpp:77] Creating layer relu1
I0428 19:34:03.530223 23259 net.cpp:86] Creating Layer relu1
I0428 19:34:03.530227 23259 net.cpp:408] relu1 <- ip1
I0428 19:34:03.530231 23259 net.cpp:369] relu1 -> ip1 (in-place)
I0428 19:34:03.530387 23259 net.cpp:124] Setting up relu1
I0428 19:34:03.530395 23259 net.cpp:131] Top shape: 64 10 (640)
I0428 19:34:03.530398 23259 net.cpp:139] Memory required for data: 9422080
I0428 19:34:03.530402 23259 layer_factory.hpp:77] Creating layer loss
I0428 19:34:03.530407 23259 net.cpp:86] Creating Layer loss
I0428 19:34:03.530411 23259 net.cpp:408] loss <- ip1
I0428 19:34:03.530414 23259 net.cpp:408] loss <- label
I0428 19:34:03.530419 23259 net.cpp:382] loss -> loss
I0428 19:34:03.530436 23259 layer_factory.hpp:77] Creating layer loss
…
I0428 19:34:03.531455 23259 solver.cpp:173] Creating test net (#0) specified by net file: ECE595/mnist/train_test/var_everything2/lenet_train_test195.prototxt
I0428 19:34:03.531476 23259 net.cpp:296] The NetState phase (1) differed from the phase (0) specified by a rule in layer mnist
I0428 19:34:03.531538 23259 net.cpp:53] Initializing net from parameters: 
name: "LeNet"
state {
  phase: TEST
}
layer {
  name: "mnist"
  type: "Data"
  top: "data"
  top: "label"
  include {
    phase: TEST
  }
  transform_param {
    scale: 0.00390625
  }
  data_param {
    source: "examples/mnist/mnist_test_lmdb"
    batch_size: 100
    backend: LMDB
  }
}
layer {
  name: "conv0"
  type: "Convolution"
  bottom: "data"
  top: "conv0"
  param {
    lr_mult: 1
  }
  param {
    lr_mult: 2
  }
  convolution_param {
    num_output: 50
    kernel_size: 5
    stride: 1
    weight_filler {
      type: "xavier"
    }
    bias_filler {
      type: "constant"
    }
  }
}
layer {
  name: "pool0"
  type: "Pooling"
  bottom: "conv0"
  top: "pool0"
  pooling_param {
    pool: MAX
    kernel_size: 2
    stride: 2
  }
}
layer {
  name: "ip1"
  type: "InnerProduct"
  bottom: "pool0"
  top: "ip1"
  param {
    lr_mult: 1
  }
  param {
    lr_mult: 2
  }
  inner_product_param {
    num_output: 10
    weight_filler {
      type: "xavier"
    }
    bias_filler {
      type: "constant"
    }
  }
}
layer {
  name: "relu1"
  type: "ReLU"
  bottom: "ip1"
  top: "ip1"
}
layer {
  name: "accuracy"
  type: "Accuracy"
  bottom: "ip1"
  bottom: "label"
  top: "accuracy"
  include {
    phase: TEST
  }
}
layer {
  name: "loss"
  type: "SoftmaxWithLoss"
  bottom: "ip1"
  bottom: "label"
  top: "loss"
}
I0428 19:34:03.531587 23259 layer_factory.hpp:77] Creating layer mnist
I0428 19:34:03.531627 23259 db_lmdb.cpp:35] Opened lmdb examples/mnist/mnist_test_lmdb
I0428 19:34:03.531641 23259 net.cpp:86] Creating Layer mnist
I0428 19:34:03.531646 23259 net.cpp:382] mnist -> data
I0428 19:34:03.531652 23259 net.cpp:382] mnist -> label
I0428 19:34:03.531729 23259 data_layer.cpp:45] output data size: 100,1,28,28
I0428 19:34:03.532732 23259 net.cpp:124] Setting up mnist
I0428 19:34:03.532759 23259 net.cpp:131] Top shape: 100 1 28 28 (78400)
I0428 19:34:03.532763 23259 net.cpp:131] Top shape: 100 (100)
I0428 19:34:03.532766 23259 net.cpp:139] Memory required for data: 314000
I0428 19:34:03.532794 23259 layer_factory.hpp:77] Creating layer label_mnist_1_split
I0428 19:34:03.532840 23259 net.cpp:86] Creating Layer label_mnist_1_split
I0428 19:34:03.532845 23259 net.cpp:408] label_mnist_1_split <- label
I0428 19:34:03.532848 23259 net.cpp:382] label_mnist_1_split -> label_mnist_1_split_0
I0428 19:34:03.532855 23259 net.cpp:382] label_mnist_1_split -> label_mnist_1_split_1
I0428 19:34:03.532919 23259 net.cpp:124] Setting up label_mnist_1_split
I0428 19:34:03.532925 23259 net.cpp:131] Top shape: 100 (100)
I0428 19:34:03.532929 23259 net.cpp:131] Top shape: 100 (100)
I0428 19:34:03.532932 23259 net.cpp:139] Memory required for data: 314800
I0428 19:34:03.532935 23259 layer_factory.hpp:77] Creating layer conv0
I0428 19:34:03.532943 23259 net.cpp:86] Creating Layer conv0
I0428 19:34:03.532948 23259 net.cpp:408] conv0 <- data
I0428 19:34:03.532953 23259 net.cpp:382] conv0 -> conv0
I0428 19:34:03.534665 23259 net.cpp:124] Setting up conv0
I0428 19:34:03.534678 23259 net.cpp:131] Top shape: 100 50 24 24 (2880000)
I0428 19:34:03.534682 23259 net.cpp:139] Memory required for data: 11834800
I0428 19:34:03.534690 23259 layer_factory.hpp:77] Creating layer pool0
I0428 19:34:03.534696 23259 net.cpp:86] Creating Layer pool0
I0428 19:34:03.534700 23259 net.cpp:408] pool0 <- conv0
I0428 19:34:03.534705 23259 net.cpp:382] pool0 -> pool0
I0428 19:34:03.534737 23259 net.cpp:124] Setting up pool0
I0428 19:34:03.534741 23259 net.cpp:131] Top shape: 100 50 12 12 (720000)
I0428 19:34:03.534744 23259 net.cpp:139] Memory required for data: 14714800
I0428 19:34:03.534747 23259 layer_factory.hpp:77] Creating layer ip1
I0428 19:34:03.534754 23259 net.cpp:86] Creating Layer ip1
I0428 19:34:03.534756 23259 net.cpp:408] ip1 <- pool0
I0428 19:34:03.534760 23259 net.cpp:382] ip1 -> ip1
I0428 19:34:03.535236 23259 net.cpp:124] Setting up ip1
I0428 19:34:03.535244 23259 net.cpp:131] Top shape: 100 10 (1000)
I0428 19:34:03.535248 23259 net.cpp:139] Memory required for data: 14718800
I0428 19:34:03.535254 23259 layer_factory.hpp:77] Creating layer relu1
I0428 19:34:03.535259 23259 net.cpp:86] Creating Layer relu1
I0428 19:34:03.535261 23259 net.cpp:408] relu1 <- ip1
I0428 19:34:03.535265 23259 net.cpp:369] relu1 -> ip1 (in-place)
I0428 19:34:03.535430 23259 net.cpp:124] Setting up relu1
I0428 19:34:03.535439 23259 net.cpp:131] Top shape: 100 10 (1000)
I0428 19:34:03.535442 23259 net.cpp:139] Memory required for data: 14722800
I0428 19:34:03.535444 23259 layer_factory.hpp:77] Creating layer ip1_relu1_0_split
I0428 19:34:03.535449 23259 net.cpp:86] Creating Layer ip1_relu1_0_split
I0428 19:34:03.535451 23259 net.cpp:408] ip1_relu1_0_split <- ip1
I0428 19:34:03.535456 23259 net.cpp:382] ip1_relu1_0_split -> ip1_relu1_0_split_0
I0428 19:34:03.535461 23259 net.cpp:382] ip1_relu1_0_split -> ip1_relu1_0_split_1
I0428 19:34:03.535495 23259 net.cpp:124] Setting up ip1_relu1_0_split
I0428 19:34:03.535498 23259 net.cpp:131] Top shape: 100 10 (1000)
I0428 19:34:03.535501 23259 net.cpp:131] Top shape: 100 10 (1000)
I0428 19:34:03.535504 23259 net.cpp:139] Memory required for data: 14730800
I0428 19:34:03.535507 23259 layer_factory.hpp:77] Creating layer accuracy
I0428 19:34:03.535512 23259 net.cpp:86] Creating Layer accuracy
I0428 19:34:03.535516 23259 net.cpp:408] accuracy <- ip1_relu1_0_split_0
I0428 19:34:03.535519 23259 net.cpp:408] accuracy <- label_mnist_1_split_0
I0428 19:34:03.535523 23259 net.cpp:382] accuracy -> accuracy
…
