…
I0428 19:33:37.313025 23142 net.cpp:296] The NetState phase (0) differed from the phase (1) specified by a rule in layer mnist
I0428 19:33:37.313045 23142 net.cpp:296] The NetState phase (0) differed from the phase (1) specified by a rule in layer accuracy
I0428 19:33:37.313141 23142 net.cpp:53] Initializing net from parameters: 
name: "LeNet"
state {
  phase: TRAIN
  level: 0
  stage: ""
}
layer {
  name: "mnist"
  type: "Data"
  top: "data"
  top: "label"
  include {
    phase: TRAIN
  }
  transform_param {
    scale: 0.00390625
  }
  data_param {
    source: "examples/mnist/mnist_train_lmdb"
    batch_size: 64
    backend: LMDB
  }
}
layer {
  name: "conv0"
  type: "Convolution"
  bottom: "data"
  top: "conv0"
  param {
    lr_mult: 1
  }
  param {
    lr_mult: 2
  }
  convolution_param {
    num_output: 25
    kernel_size: 5
    stride: 1
    weight_filler {
      type: "xavier"
    }
    bias_filler {
      type: "constant"
    }
  }
}
layer {
  name: "pool0"
  type: "Pooling"
  bottom: "conv0"
  top: "pool0"
  pooling_param {
    pool: MAX
    kernel_size: 2
    stride: 2
  }
}
layer {
  name: "ip1"
  type: "InnerProduct"
  bottom: "pool0"
  top: "ip1"
  param {
    lr_mult: 1
  }
  param {
    lr_mult: 2
  }
  inner_product_param {
    num_output: 25
    weight_filler {
      type: "xavier"
    }
    bias_filler {
      type: "constant"
    }
  }
}
layer {
  name: "relu1"
  type: "ReLU"
  bottom: "ip1"
  top: "ip1"
}
layer {
  name: "ip2"
  type: "InnerProduct"
  bottom: "ip1"
  top: "ip2"
  param {
    lr_mult: 1
  }
  param {
    lr_mult: 2
  }
  inner_product_param {
    num_output: 50
    weight_filler {
      type: "xavier"
    }
    bias_filler {
      type: "constant"
    }
  }
}
layer {
  name: "relu2"
  type: "ReLU"
  bottom: "ip2"
  top: "ip2"
}
layer {
  name: "ip3"
  type: "InnerProduct"
  bottom: "ip2"
  top: "ip3"
  param {
    lr_mult: 1
  }
  param {
    lr_mult: 2
  }
  inner_product_param {
    num_output: 10
    weight_filler {
      type: "xavier"
    }
    bias_filler {
      type: "constant"
    }
  }
}
layer {
  name: "relu3"
  type: "ReLU"
  bottom: "ip3"
  top: "ip3"
}
layer {
  name: "loss"
  type: "SoftmaxWithLoss"
  bottom: "ip3"
  bottom: "label"
  top: "loss"
}
I0428 19:33:37.313233 23142 layer_factory.hpp:77] Creating layer mnist
I0428 19:33:37.313380 23142 db_lmdb.cpp:35] Opened lmdb examples/mnist/mnist_train_lmdb
I0428 19:33:37.313417 23142 net.cpp:86] Creating Layer mnist
I0428 19:33:37.313426 23142 net.cpp:382] mnist -> data
I0428 19:33:37.313480 23142 net.cpp:382] mnist -> label
I0428 19:33:37.314576 23142 data_layer.cpp:45] output data size: 64,1,28,28
I0428 19:33:37.317008 23142 net.cpp:124] Setting up mnist
I0428 19:33:37.317040 23142 net.cpp:131] Top shape: 64 1 28 28 (50176)
I0428 19:33:37.317065 23142 net.cpp:131] Top shape: 64 (64)
I0428 19:33:37.317070 23142 net.cpp:139] Memory required for data: 200960
I0428 19:33:37.317078 23142 layer_factory.hpp:77] Creating layer conv0
I0428 19:33:37.317096 23142 net.cpp:86] Creating Layer conv0
I0428 19:33:37.317121 23142 net.cpp:408] conv0 <- data
I0428 19:33:37.317137 23142 net.cpp:382] conv0 -> conv0
I0428 19:33:37.544414 23142 net.cpp:124] Setting up conv0
I0428 19:33:37.544443 23142 net.cpp:131] Top shape: 64 25 24 24 (921600)
I0428 19:33:37.544448 23142 net.cpp:139] Memory required for data: 3887360
I0428 19:33:37.544483 23142 layer_factory.hpp:77] Creating layer pool0
I0428 19:33:37.544515 23142 net.cpp:86] Creating Layer pool0
I0428 19:33:37.544543 23142 net.cpp:408] pool0 <- conv0
I0428 19:33:37.544554 23142 net.cpp:382] pool0 -> pool0
I0428 19:33:37.544610 23142 net.cpp:124] Setting up pool0
I0428 19:33:37.544618 23142 net.cpp:131] Top shape: 64 25 12 12 (230400)
I0428 19:33:37.544623 23142 net.cpp:139] Memory required for data: 4808960
I0428 19:33:37.544628 23142 layer_factory.hpp:77] Creating layer ip1
I0428 19:33:37.544641 23142 net.cpp:86] Creating Layer ip1
I0428 19:33:37.544648 23142 net.cpp:408] ip1 <- pool0
I0428 19:33:37.544658 23142 net.cpp:382] ip1 -> ip1
I0428 19:33:37.546205 23142 net.cpp:124] Setting up ip1
I0428 19:33:37.546219 23142 net.cpp:131] Top shape: 64 25 (1600)
I0428 19:33:37.546226 23142 net.cpp:139] Memory required for data: 4815360
I0428 19:33:37.546237 23142 layer_factory.hpp:77] Creating layer relu1
I0428 19:33:37.546249 23142 net.cpp:86] Creating Layer relu1
I0428 19:33:37.546259 23142 net.cpp:408] relu1 <- ip1
I0428 19:33:37.546269 23142 net.cpp:369] relu1 -> ip1 (in-place)
I0428 19:33:37.546468 23142 net.cpp:124] Setting up relu1
I0428 19:33:37.546480 23142 net.cpp:131] Top shape: 64 25 (1600)
I0428 19:33:37.546486 23142 net.cpp:139] Memory required for data: 4821760
I0428 19:33:37.546491 23142 layer_factory.hpp:77] Creating layer ip2
I0428 19:33:37.546501 23142 net.cpp:86] Creating Layer ip2
I0428 19:33:37.546506 23142 net.cpp:408] ip2 <- ip1
I0428 19:33:37.546517 23142 net.cpp:382] ip2 -> ip2
I0428 19:33:37.547528 23142 net.cpp:124] Setting up ip2
I0428 19:33:37.547556 23142 net.cpp:131] Top shape: 64 50 (3200)
I0428 19:33:37.547577 23142 net.cpp:139] Memory required for data: 4834560
I0428 19:33:37.547593 23142 layer_factory.hpp:77] Creating layer relu2
I0428 19:33:37.547605 23142 net.cpp:86] Creating Layer relu2
I0428 19:33:37.547612 23142 net.cpp:408] relu2 <- ip2
I0428 19:33:37.547621 23142 net.cpp:369] relu2 -> ip2 (in-place)
I0428 19:33:37.548460 23142 net.cpp:124] Setting up relu2
I0428 19:33:37.548475 23142 net.cpp:131] Top shape: 64 50 (3200)
I0428 19:33:37.548480 23142 net.cpp:139] Memory required for data: 4847360
I0428 19:33:37.548486 23142 layer_factory.hpp:77] Creating layer ip3
I0428 19:33:37.548496 23142 net.cpp:86] Creating Layer ip3
I0428 19:33:37.548502 23142 net.cpp:408] ip3 <- ip2
I0428 19:33:37.548511 23142 net.cpp:382] ip3 -> ip3
I0428 19:33:37.548629 23142 net.cpp:124] Setting up ip3
I0428 19:33:37.548638 23142 net.cpp:131] Top shape: 64 10 (640)
I0428 19:33:37.548643 23142 net.cpp:139] Memory required for data: 4849920
I0428 19:33:37.548653 23142 layer_factory.hpp:77] Creating layer relu3
I0428 19:33:37.548665 23142 net.cpp:86] Creating Layer relu3
I0428 19:33:37.548671 23142 net.cpp:408] relu3 <- ip3
I0428 19:33:37.548677 23142 net.cpp:369] relu3 -> ip3 (in-place)
I0428 19:33:37.548868 23142 net.cpp:124] Setting up relu3
I0428 19:33:37.548879 23142 net.cpp:131] Top shape: 64 10 (640)
I0428 19:33:37.548885 23142 net.cpp:139] Memory required for data: 4852480
I0428 19:33:37.548904 23142 layer_factory.hpp:77] Creating layer loss
I0428 19:33:37.548914 23142 net.cpp:86] Creating Layer loss
I0428 19:33:37.548919 23142 net.cpp:408] loss <- ip3
I0428 19:33:37.548926 23142 net.cpp:408] loss <- label
I0428 19:33:37.548934 23142 net.cpp:382] loss -> loss
I0428 19:33:37.548959 23142 layer_factory.hpp:77] Creating layer loss
…
I0428 19:33:37.549643 23142 solver.cpp:173] Creating test net (#0) specified by net file: ECE595/mnist/train_test/var_everything2/lenet_train_test184.prototxt
I0428 19:33:37.549685 23142 net.cpp:296] The NetState phase (1) differed from the phase (0) specified by a rule in layer mnist
I0428 19:33:37.549801 23142 net.cpp:53] Initializing net from parameters: 
name: "LeNet"
state {
  phase: TEST
}
layer {
  name: "mnist"
  type: "Data"
  top: "data"
  top: "label"
  include {
    phase: TEST
  }
  transform_param {
    scale: 0.00390625
  }
  data_param {
    source: "examples/mnist/mnist_test_lmdb"
    batch_size: 100
    backend: LMDB
  }
}
layer {
  name: "conv0"
  type: "Convolution"
  bottom: "data"
  top: "conv0"
  param {
    lr_mult: 1
  }
  param {
    lr_mult: 2
  }
  convolution_param {
    num_output: 25
    kernel_size: 5
    stride: 1
    weight_filler {
      type: "xavier"
    }
    bias_filler {
      type: "constant"
    }
  }
}
layer {
  name: "pool0"
  type: "Pooling"
  bottom: "conv0"
  top: "pool0"
  pooling_param {
    pool: MAX
    kernel_size: 2
    stride: 2
  }
}
layer {
  name: "ip1"
  type: "InnerProduct"
  bottom: "pool0"
  top: "ip1"
  param {
    lr_mult: 1
  }
  param {
    lr_mult: 2
  }
  inner_product_param {
    num_output: 25
    weight_filler {
      type: "xavier"
    }
    bias_filler {
      type: "constant"
    }
  }
}
layer {
  name: "relu1"
  type: "ReLU"
  bottom: "ip1"
  top: "ip1"
}
layer {
  name: "ip2"
  type: "InnerProduct"
  bottom: "ip1"
  top: "ip2"
  param {
    lr_mult: 1
  }
  param {
    lr_mult: 2
  }
  inner_product_param {
    num_output: 50
    weight_filler {
      type: "xavier"
    }
    bias_filler {
      type: "constant"
    }
  }
}
layer {
  name: "relu2"
  type: "ReLU"
  bottom: "ip2"
  top: "ip2"
}
layer {
  name: "ip3"
  type: "InnerProduct"
  bottom: "ip2"
  top: "ip3"
  param {
    lr_mult: 1
  }
  param {
    lr_mult: 2
  }
  inner_product_param {
    num_output: 10
    weight_filler {
      type: "xavier"
    }
    bias_filler {
      type: "constant"
    }
  }
}
layer {
  name: "relu3"
  type: "ReLU"
  bottom: "ip3"
  top: "ip3"
}
layer {
  name: "accuracy"
  type: "Accuracy"
  bottom: "ip3"
  bottom: "label"
  top: "accuracy"
  include {
    phase: TEST
  }
}
layer {
  name: "loss"
  type: "SoftmaxWithLoss"
  bottom: "ip3"
  bottom: "label"
  top: "loss"
}
I0428 19:33:37.549897 23142 layer_factory.hpp:77] Creating layer mnist
I0428 19:33:37.549957 23142 db_lmdb.cpp:35] Opened lmdb examples/mnist/mnist_test_lmdb
I0428 19:33:37.549989 23142 net.cpp:86] Creating Layer mnist
I0428 19:33:37.549998 23142 net.cpp:382] mnist -> data
I0428 19:33:37.550009 23142 net.cpp:382] mnist -> label
I0428 19:33:37.550148 23142 data_layer.cpp:45] output data size: 100,1,28,28
I0428 19:33:37.551455 23142 net.cpp:124] Setting up mnist
I0428 19:33:37.551470 23142 net.cpp:131] Top shape: 100 1 28 28 (78400)
I0428 19:33:37.551492 23142 net.cpp:131] Top shape: 100 (100)
I0428 19:33:37.551497 23142 net.cpp:139] Memory required for data: 314000
I0428 19:33:37.551503 23142 layer_factory.hpp:77] Creating layer label_mnist_1_split
I0428 19:33:37.551518 23142 net.cpp:86] Creating Layer label_mnist_1_split
I0428 19:33:37.551540 23142 net.cpp:408] label_mnist_1_split <- label
I0428 19:33:37.551548 23142 net.cpp:382] label_mnist_1_split -> label_mnist_1_split_0
I0428 19:33:37.551559 23142 net.cpp:382] label_mnist_1_split -> label_mnist_1_split_1
I0428 19:33:37.551652 23142 net.cpp:124] Setting up label_mnist_1_split
I0428 19:33:37.551662 23142 net.cpp:131] Top shape: 100 (100)
I0428 19:33:37.551668 23142 net.cpp:131] Top shape: 100 (100)
I0428 19:33:37.551673 23142 net.cpp:139] Memory required for data: 314800
I0428 19:33:37.551690 23142 layer_factory.hpp:77] Creating layer conv0
I0428 19:33:37.551719 23142 net.cpp:86] Creating Layer conv0
I0428 19:33:37.551725 23142 net.cpp:408] conv0 <- data
I0428 19:33:37.551734 23142 net.cpp:382] conv0 -> conv0
I0428 19:33:37.553326 23142 net.cpp:124] Setting up conv0
I0428 19:33:37.553344 23142 net.cpp:131] Top shape: 100 25 24 24 (1440000)
I0428 19:33:37.553364 23142 net.cpp:139] Memory required for data: 6074800
I0428 19:33:37.553392 23142 layer_factory.hpp:77] Creating layer pool0
I0428 19:33:37.553402 23142 net.cpp:86] Creating Layer pool0
I0428 19:33:37.553408 23142 net.cpp:408] pool0 <- conv0
I0428 19:33:37.553416 23142 net.cpp:382] pool0 -> pool0
I0428 19:33:37.553457 23142 net.cpp:124] Setting up pool0
I0428 19:33:37.553467 23142 net.cpp:131] Top shape: 100 25 12 12 (360000)
I0428 19:33:37.553472 23142 net.cpp:139] Memory required for data: 7514800
I0428 19:33:37.553478 23142 layer_factory.hpp:77] Creating layer ip1
I0428 19:33:37.553488 23142 net.cpp:86] Creating Layer ip1
I0428 19:33:37.553493 23142 net.cpp:408] ip1 <- pool0
I0428 19:33:37.553501 23142 net.cpp:382] ip1 -> ip1
I0428 19:33:37.554128 23142 net.cpp:124] Setting up ip1
I0428 19:33:37.554137 23142 net.cpp:131] Top shape: 100 25 (2500)
I0428 19:33:37.554142 23142 net.cpp:139] Memory required for data: 7524800
I0428 19:33:37.554155 23142 layer_factory.hpp:77] Creating layer relu1
I0428 19:33:37.554164 23142 net.cpp:86] Creating Layer relu1
I0428 19:33:37.554170 23142 net.cpp:408] relu1 <- ip1
I0428 19:33:37.554178 23142 net.cpp:369] relu1 -> ip1 (in-place)
I0428 19:33:37.554347 23142 net.cpp:124] Setting up relu1
I0428 19:33:37.554358 23142 net.cpp:131] Top shape: 100 25 (2500)
I0428 19:33:37.554363 23142 net.cpp:139] Memory required for data: 7534800
I0428 19:33:37.554383 23142 layer_factory.hpp:77] Creating layer ip2
I0428 19:33:37.554407 23142 net.cpp:86] Creating Layer ip2
I0428 19:33:37.554414 23142 net.cpp:408] ip2 <- ip1
I0428 19:33:37.554424 23142 net.cpp:382] ip2 -> ip2
I0428 19:33:37.554539 23142 net.cpp:124] Setting up ip2
I0428 19:33:37.554548 23142 net.cpp:131] Top shape: 100 50 (5000)
I0428 19:33:37.554554 23142 net.cpp:139] Memory required for data: 7554800
I0428 19:33:37.554567 23142 layer_factory.hpp:77] Creating layer relu2
I0428 19:33:37.554576 23142 net.cpp:86] Creating Layer relu2
I0428 19:33:37.554584 23142 net.cpp:408] relu2 <- ip2
I0428 19:33:37.554590 23142 net.cpp:369] relu2 -> ip2 (in-place)
I0428 19:33:37.555402 23142 net.cpp:124] Setting up relu2
I0428 19:33:37.555415 23142 net.cpp:131] Top shape: 100 50 (5000)
I0428 19:33:37.555420 23142 net.cpp:139] Memory required for data: 7574800
I0428 19:33:37.555425 23142 layer_factory.hpp:77] Creating layer ip3
I0428 19:33:37.555438 23142 net.cpp:86] Creating Layer ip3
I0428 19:33:37.555443 23142 net.cpp:408] ip3 <- ip2
I0428 19:33:37.555466 23142 net.cpp:382] ip3 -> ip3
I0428 19:33:37.555650 23142 net.cpp:124] Setting up ip3
I0428 19:33:37.555662 23142 net.cpp:131] Top shape: 100 10 (1000)
I0428 19:33:37.555668 23142 net.cpp:139] Memory required for data: 7578800
I0428 19:33:37.555678 23142 layer_factory.hpp:77] Creating layer relu3
I0428 19:33:37.555691 23142 net.cpp:86] Creating Layer relu3
I0428 19:33:37.555698 23142 net.cpp:408] relu3 <- ip3
I0428 19:33:37.555707 23142 net.cpp:369] relu3 -> ip3 (in-place)
I0428 19:33:37.555888 23142 net.cpp:124] Setting up relu3
I0428 19:33:37.555898 23142 net.cpp:131] Top shape: 100 10 (1000)
I0428 19:33:37.555903 23142 net.cpp:139] Memory required for data: 7582800
I0428 19:33:37.555908 23142 layer_factory.hpp:77] Creating layer ip3_relu3_0_split
I0428 19:33:37.555917 23142 net.cpp:86] Creating Layer ip3_relu3_0_split
I0428 19:33:37.555923 23142 net.cpp:408] ip3_relu3_0_split <- ip3
I0428 19:33:37.555932 23142 net.cpp:382] ip3_relu3_0_split -> ip3_relu3_0_split_0
I0428 19:33:37.555944 23142 net.cpp:382] ip3_relu3_0_split -> ip3_relu3_0_split_1
I0428 19:33:37.555985 23142 net.cpp:124] Setting up ip3_relu3_0_split
I0428 19:33:37.555994 23142 net.cpp:131] Top shape: 100 10 (1000)
I0428 19:33:37.555999 23142 net.cpp:131] Top shape: 100 10 (1000)
I0428 19:33:37.556015 23142 net.cpp:139] Memory required for data: 7590800
I0428 19:33:37.556021 23142 layer_factory.hpp:77] Creating layer accuracy
I0428 19:33:37.556030 23142 net.cpp:86] Creating Layer accuracy
I0428 19:33:37.556035 23142 net.cpp:408] accuracy <- ip3_relu3_0_split_0
I0428 19:33:37.556056 23142 net.cpp:408] accuracy <- label_mnist_1_split_0
I0428 19:33:37.556066 23142 net.cpp:382] accuracy -> accuracy
…
