…
I0428 19:28:11.980351 21558 net.cpp:296] The NetState phase (0) differed from the phase (1) specified by a rule in layer mnist
I0428 19:28:11.980365 21558 net.cpp:296] The NetState phase (0) differed from the phase (1) specified by a rule in layer accuracy
I0428 19:28:11.980437 21558 net.cpp:53] Initializing net from parameters: 
name: "LeNet"
state {
  phase: TRAIN
  level: 0
  stage: ""
}
layer {
  name: "mnist"
  type: "Data"
  top: "data"
  top: "label"
  include {
    phase: TRAIN
  }
  transform_param {
    scale: 0.00390625
  }
  data_param {
    source: "examples/mnist/mnist_train_lmdb"
    batch_size: 64
    backend: LMDB
  }
}
layer {
  name: "ip1"
  type: "InnerProduct"
  bottom: "data"
  top: "ip1"
  param {
    lr_mult: 1
  }
  param {
    lr_mult: 2
  }
  inner_product_param {
    num_output: 10
    weight_filler {
      type: "xavier"
    }
    bias_filler {
      type: "constant"
    }
  }
}
layer {
  name: "relu1"
  type: "ReLU"
  bottom: "ip1"
  top: "ip1"
}
layer {
  name: "ip2"
  type: "InnerProduct"
  bottom: "ip1"
  top: "ip2"
  param {
    lr_mult: 1
  }
  param {
    lr_mult: 2
  }
  inner_product_param {
    num_output: 25
    weight_filler {
      type: "xavier"
    }
    bias_filler {
      type: "constant"
    }
  }
}
layer {
  name: "relu2"
  type: "ReLU"
  bottom: "ip2"
  top: "ip2"
}
layer {
  name: "ip3"
  type: "InnerProduct"
  bottom: "ip2"
  top: "ip3"
  param {
    lr_mult: 1
  }
  param {
    lr_mult: 2
  }
  inner_product_param {
    num_output: 10
    weight_filler {
      type: "xavier"
    }
    bias_filler {
      type: "constant"
    }
  }
}
layer {
  name: "relu3"
  type: "ReLU"
  bottom: "ip3"
  top: "ip3"
}
layer {
  name: "loss"
  type: "SoftmaxWithLoss"
  bottom: "ip3"
  bottom: "label"
  top: "loss"
}
I0428 19:28:11.980505 21558 layer_factory.hpp:77] Creating layer mnist
I0428 19:28:11.980607 21558 db_lmdb.cpp:35] Opened lmdb examples/mnist/mnist_train_lmdb
I0428 19:28:11.980629 21558 net.cpp:86] Creating Layer mnist
I0428 19:28:11.980639 21558 net.cpp:382] mnist -> data
I0428 19:28:11.980662 21558 net.cpp:382] mnist -> label
I0428 19:28:11.981775 21558 data_layer.cpp:45] output data size: 64,1,28,28
I0428 19:28:11.984251 21558 net.cpp:124] Setting up mnist
I0428 19:28:11.984269 21558 net.cpp:131] Top shape: 64 1 28 28 (50176)
I0428 19:28:11.984277 21558 net.cpp:131] Top shape: 64 (64)
I0428 19:28:11.984280 21558 net.cpp:139] Memory required for data: 200960
I0428 19:28:11.984287 21558 layer_factory.hpp:77] Creating layer ip1
I0428 19:28:11.984297 21558 net.cpp:86] Creating Layer ip1
I0428 19:28:11.984304 21558 net.cpp:408] ip1 <- data
I0428 19:28:11.984314 21558 net.cpp:382] ip1 -> ip1
I0428 19:28:11.985553 21558 net.cpp:124] Setting up ip1
I0428 19:28:11.985569 21558 net.cpp:131] Top shape: 64 10 (640)
I0428 19:28:11.985572 21558 net.cpp:139] Memory required for data: 203520
I0428 19:28:11.985585 21558 layer_factory.hpp:77] Creating layer relu1
I0428 19:28:11.985595 21558 net.cpp:86] Creating Layer relu1
I0428 19:28:11.985600 21558 net.cpp:408] relu1 <- ip1
I0428 19:28:11.985605 21558 net.cpp:369] relu1 -> ip1 (in-place)
I0428 19:28:12.275188 21558 net.cpp:124] Setting up relu1
I0428 19:28:12.275220 21558 net.cpp:131] Top shape: 64 10 (640)
I0428 19:28:12.275225 21558 net.cpp:139] Memory required for data: 206080
I0428 19:28:12.275233 21558 layer_factory.hpp:77] Creating layer ip2
I0428 19:28:12.275246 21558 net.cpp:86] Creating Layer ip2
I0428 19:28:12.275272 21558 net.cpp:408] ip2 <- ip1
I0428 19:28:12.275282 21558 net.cpp:382] ip2 -> ip2
I0428 19:28:12.275427 21558 net.cpp:124] Setting up ip2
I0428 19:28:12.275437 21558 net.cpp:131] Top shape: 64 25 (1600)
I0428 19:28:12.275441 21558 net.cpp:139] Memory required for data: 212480
I0428 19:28:12.275452 21558 layer_factory.hpp:77] Creating layer relu2
I0428 19:28:12.275462 21558 net.cpp:86] Creating Layer relu2
I0428 19:28:12.275467 21558 net.cpp:408] relu2 <- ip2
I0428 19:28:12.275471 21558 net.cpp:369] relu2 -> ip2 (in-place)
I0428 19:28:12.276389 21558 net.cpp:124] Setting up relu2
I0428 19:28:12.276412 21558 net.cpp:131] Top shape: 64 25 (1600)
I0428 19:28:12.276417 21558 net.cpp:139] Memory required for data: 218880
I0428 19:28:12.276420 21558 layer_factory.hpp:77] Creating layer ip3
I0428 19:28:12.276430 21558 net.cpp:86] Creating Layer ip3
I0428 19:28:12.276434 21558 net.cpp:408] ip3 <- ip2
I0428 19:28:12.276440 21558 net.cpp:382] ip3 -> ip3
I0428 19:28:12.276563 21558 net.cpp:124] Setting up ip3
I0428 19:28:12.276572 21558 net.cpp:131] Top shape: 64 10 (640)
I0428 19:28:12.276576 21558 net.cpp:139] Memory required for data: 221440
I0428 19:28:12.276587 21558 layer_factory.hpp:77] Creating layer relu3
I0428 19:28:12.276593 21558 net.cpp:86] Creating Layer relu3
I0428 19:28:12.276597 21558 net.cpp:408] relu3 <- ip3
I0428 19:28:12.276602 21558 net.cpp:369] relu3 -> ip3 (in-place)
I0428 19:28:12.276787 21558 net.cpp:124] Setting up relu3
I0428 19:28:12.276798 21558 net.cpp:131] Top shape: 64 10 (640)
I0428 19:28:12.276801 21558 net.cpp:139] Memory required for data: 224000
I0428 19:28:12.276804 21558 layer_factory.hpp:77] Creating layer loss
I0428 19:28:12.276818 21558 net.cpp:86] Creating Layer loss
I0428 19:28:12.276823 21558 net.cpp:408] loss <- ip3
I0428 19:28:12.276826 21558 net.cpp:408] loss <- label
I0428 19:28:12.276834 21558 net.cpp:382] loss -> loss
I0428 19:28:12.276855 21558 layer_factory.hpp:77] Creating layer loss
…
I0428 19:28:12.278497 21558 solver.cpp:173] Creating test net (#0) specified by net file: ECE595/mnist/train_test/var_everything2/lenet_train_test17.prototxt
I0428 19:28:12.278524 21558 net.cpp:296] The NetState phase (1) differed from the phase (0) specified by a rule in layer mnist
I0428 19:28:12.278604 21558 net.cpp:53] Initializing net from parameters: 
name: "LeNet"
state {
  phase: TEST
}
layer {
  name: "mnist"
  type: "Data"
  top: "data"
  top: "label"
  include {
    phase: TEST
  }
  transform_param {
    scale: 0.00390625
  }
  data_param {
    source: "examples/mnist/mnist_test_lmdb"
    batch_size: 100
    backend: LMDB
  }
}
layer {
  name: "ip1"
  type: "InnerProduct"
  bottom: "data"
  top: "ip1"
  param {
    lr_mult: 1
  }
  param {
    lr_mult: 2
  }
  inner_product_param {
    num_output: 10
    weight_filler {
      type: "xavier"
    }
    bias_filler {
      type: "constant"
    }
  }
}
layer {
  name: "relu1"
  type: "ReLU"
  bottom: "ip1"
  top: "ip1"
}
layer {
  name: "ip2"
  type: "InnerProduct"
  bottom: "ip1"
  top: "ip2"
  param {
    lr_mult: 1
  }
  param {
    lr_mult: 2
  }
  inner_product_param {
    num_output: 25
    weight_filler {
      type: "xavier"
    }
    bias_filler {
      type: "constant"
    }
  }
}
layer {
  name: "relu2"
  type: "ReLU"
  bottom: "ip2"
  top: "ip2"
}
layer {
  name: "ip3"
  type: "InnerProduct"
  bottom: "ip2"
  top: "ip3"
  param {
    lr_mult: 1
  }
  param {
    lr_mult: 2
  }
  inner_product_param {
    num_output: 10
    weight_filler {
      type: "xavier"
    }
    bias_filler {
      type: "constant"
    }
  }
}
layer {
  name: "relu3"
  type: "ReLU"
  bottom: "ip3"
  top: "ip3"
}
layer {
  name: "accuracy"
  type: "Accuracy"
  bottom: "ip3"
  bottom: "label"
  top: "accuracy"
  include {
    phase: TEST
  }
}
layer {
  name: "loss"
  type: "SoftmaxWithLoss"
  bottom: "ip3"
  bottom: "label"
  top: "loss"
}
I0428 19:28:12.278684 21558 layer_factory.hpp:77] Creating layer mnist
I0428 19:28:12.278735 21558 db_lmdb.cpp:35] Opened lmdb examples/mnist/mnist_test_lmdb
I0428 19:28:12.278754 21558 net.cpp:86] Creating Layer mnist
I0428 19:28:12.278760 21558 net.cpp:382] mnist -> data
I0428 19:28:12.278770 21558 net.cpp:382] mnist -> label
I0428 19:28:12.278872 21558 data_layer.cpp:45] output data size: 100,1,28,28
I0428 19:28:12.281071 21558 net.cpp:124] Setting up mnist
I0428 19:28:12.281088 21558 net.cpp:131] Top shape: 100 1 28 28 (78400)
I0428 19:28:12.281095 21558 net.cpp:131] Top shape: 100 (100)
I0428 19:28:12.281098 21558 net.cpp:139] Memory required for data: 314000
I0428 19:28:12.281103 21558 layer_factory.hpp:77] Creating layer label_mnist_1_split
I0428 19:28:12.281116 21558 net.cpp:86] Creating Layer label_mnist_1_split
I0428 19:28:12.281119 21558 net.cpp:408] label_mnist_1_split <- label
I0428 19:28:12.281126 21558 net.cpp:382] label_mnist_1_split -> label_mnist_1_split_0
I0428 19:28:12.281133 21558 net.cpp:382] label_mnist_1_split -> label_mnist_1_split_1
I0428 19:28:12.281224 21558 net.cpp:124] Setting up label_mnist_1_split
I0428 19:28:12.281232 21558 net.cpp:131] Top shape: 100 (100)
I0428 19:28:12.281237 21558 net.cpp:131] Top shape: 100 (100)
I0428 19:28:12.281241 21558 net.cpp:139] Memory required for data: 314800
I0428 19:28:12.281244 21558 layer_factory.hpp:77] Creating layer ip1
I0428 19:28:12.281253 21558 net.cpp:86] Creating Layer ip1
I0428 19:28:12.281256 21558 net.cpp:408] ip1 <- data
I0428 19:28:12.281262 21558 net.cpp:382] ip1 -> ip1
I0428 19:28:12.281426 21558 net.cpp:124] Setting up ip1
I0428 19:28:12.281442 21558 net.cpp:131] Top shape: 100 10 (1000)
I0428 19:28:12.281446 21558 net.cpp:139] Memory required for data: 318800
I0428 19:28:12.281456 21558 layer_factory.hpp:77] Creating layer relu1
I0428 19:28:12.281462 21558 net.cpp:86] Creating Layer relu1
I0428 19:28:12.281466 21558 net.cpp:408] relu1 <- ip1
I0428 19:28:12.281471 21558 net.cpp:369] relu1 -> ip1 (in-place)
I0428 19:28:12.282445 21558 net.cpp:124] Setting up relu1
I0428 19:28:12.282460 21558 net.cpp:131] Top shape: 100 10 (1000)
I0428 19:28:12.282464 21558 net.cpp:139] Memory required for data: 322800
I0428 19:28:12.282469 21558 layer_factory.hpp:77] Creating layer ip2
I0428 19:28:12.282479 21558 net.cpp:86] Creating Layer ip2
I0428 19:28:12.282482 21558 net.cpp:408] ip2 <- ip1
I0428 19:28:12.282488 21558 net.cpp:382] ip2 -> ip2
I0428 19:28:12.282604 21558 net.cpp:124] Setting up ip2
I0428 19:28:12.282613 21558 net.cpp:131] Top shape: 100 25 (2500)
I0428 19:28:12.282616 21558 net.cpp:139] Memory required for data: 332800
I0428 19:28:12.282625 21558 layer_factory.hpp:77] Creating layer relu2
I0428 19:28:12.282631 21558 net.cpp:86] Creating Layer relu2
I0428 19:28:12.282634 21558 net.cpp:408] relu2 <- ip2
I0428 19:28:12.282640 21558 net.cpp:369] relu2 -> ip2 (in-place)
I0428 19:28:12.282876 21558 net.cpp:124] Setting up relu2
I0428 19:28:12.282886 21558 net.cpp:131] Top shape: 100 25 (2500)
I0428 19:28:12.282891 21558 net.cpp:139] Memory required for data: 342800
I0428 19:28:12.282894 21558 layer_factory.hpp:77] Creating layer ip3
I0428 19:28:12.282901 21558 net.cpp:86] Creating Layer ip3
I0428 19:28:12.282904 21558 net.cpp:408] ip3 <- ip2
I0428 19:28:12.282910 21558 net.cpp:382] ip3 -> ip3
I0428 19:28:12.283046 21558 net.cpp:124] Setting up ip3
I0428 19:28:12.283056 21558 net.cpp:131] Top shape: 100 10 (1000)
I0428 19:28:12.283061 21558 net.cpp:139] Memory required for data: 346800
I0428 19:28:12.283071 21558 layer_factory.hpp:77] Creating layer relu3
I0428 19:28:12.283076 21558 net.cpp:86] Creating Layer relu3
I0428 19:28:12.283079 21558 net.cpp:408] relu3 <- ip3
I0428 19:28:12.283085 21558 net.cpp:369] relu3 -> ip3 (in-place)
I0428 19:28:12.283270 21558 net.cpp:124] Setting up relu3
I0428 19:28:12.283279 21558 net.cpp:131] Top shape: 100 10 (1000)
I0428 19:28:12.283283 21558 net.cpp:139] Memory required for data: 350800
I0428 19:28:12.283288 21558 layer_factory.hpp:77] Creating layer ip3_relu3_0_split
I0428 19:28:12.283293 21558 net.cpp:86] Creating Layer ip3_relu3_0_split
I0428 19:28:12.283298 21558 net.cpp:408] ip3_relu3_0_split <- ip3
I0428 19:28:12.283303 21558 net.cpp:382] ip3_relu3_0_split -> ip3_relu3_0_split_0
I0428 19:28:12.283310 21558 net.cpp:382] ip3_relu3_0_split -> ip3_relu3_0_split_1
I0428 19:28:12.283350 21558 net.cpp:124] Setting up ip3_relu3_0_split
I0428 19:28:12.283357 21558 net.cpp:131] Top shape: 100 10 (1000)
I0428 19:28:12.283363 21558 net.cpp:131] Top shape: 100 10 (1000)
I0428 19:28:12.283366 21558 net.cpp:139] Memory required for data: 358800
I0428 19:28:12.283370 21558 layer_factory.hpp:77] Creating layer accuracy
I0428 19:28:12.283377 21558 net.cpp:86] Creating Layer accuracy
I0428 19:28:12.283380 21558 net.cpp:408] accuracy <- ip3_relu3_0_split_0
I0428 19:28:12.283387 21558 net.cpp:408] accuracy <- label_mnist_1_split_0
I0428 19:28:12.283392 21558 net.cpp:382] accuracy -> accuracy
…
