…
I0428 19:29:48.253402 22118 net.cpp:296] The NetState phase (0) differed from the phase (1) specified by a rule in layer mnist
I0428 19:29:48.253419 22118 net.cpp:296] The NetState phase (0) differed from the phase (1) specified by a rule in layer accuracy
I0428 19:29:48.253491 22118 net.cpp:53] Initializing net from parameters: 
name: "LeNet"
state {
  phase: TRAIN
  level: 0
  stage: ""
}
layer {
  name: "mnist"
  type: "Data"
  top: "data"
  top: "label"
  include {
    phase: TRAIN
  }
  transform_param {
    scale: 0.00390625
  }
  data_param {
    source: "examples/mnist/mnist_train_lmdb"
    batch_size: 64
    backend: LMDB
  }
}
layer {
  name: "conv0"
  type: "Convolution"
  bottom: "data"
  top: "conv0"
  param {
    lr_mult: 1
  }
  param {
    lr_mult: 2
  }
  convolution_param {
    num_output: 2
    kernel_size: 5
    stride: 1
    weight_filler {
      type: "xavier"
    }
    bias_filler {
      type: "constant"
    }
  }
}
layer {
  name: "pool0"
  type: "Pooling"
  bottom: "conv0"
  top: "pool0"
  pooling_param {
    pool: MAX
    kernel_size: 2
    stride: 2
  }
}
layer {
  name: "ip1"
  type: "InnerProduct"
  bottom: "pool0"
  top: "ip1"
  param {
    lr_mult: 1
  }
  param {
    lr_mult: 2
  }
  inner_product_param {
    num_output: 50
    weight_filler {
      type: "xavier"
    }
    bias_filler {
      type: "constant"
    }
  }
}
layer {
  name: "relu1"
  type: "ReLU"
  bottom: "ip1"
  top: "ip1"
}
layer {
  name: "ip2"
  type: "InnerProduct"
  bottom: "ip1"
  top: "ip2"
  param {
    lr_mult: 1
  }
  param {
    lr_mult: 2
  }
  inner_product_param {
    num_output: 10
    weight_filler {
      type: "xavier"
    }
    bias_filler {
      type: "constant"
    }
  }
}
layer {
  name: "relu2"
  type: "ReLU"
  bottom: "ip2"
  top: "ip2"
}
layer {
  name: "ip3"
  type: "InnerProduct"
  bottom: "ip2"
  top: "ip3"
  param {
    lr_mult: 1
  }
  param {
    lr_mult: 2
  }
  inner_product_param {
    num_output: 10
    weight_filler {
      type: "xavier"
    }
    bias_filler {
      type: "constant"
    }
  }
}
layer {
  name: "relu3"
  type: "ReLU"
  bottom: "ip3"
  top: "ip3"
}
layer {
  name: "loss"
  type: "SoftmaxWithLoss"
  bottom: "ip3"
  bottom: "label"
  top: "loss"
}
I0428 19:29:48.253569 22118 layer_factory.hpp:77] Creating layer mnist
I0428 19:29:48.253676 22118 db_lmdb.cpp:35] Opened lmdb examples/mnist/mnist_train_lmdb
I0428 19:29:48.253702 22118 net.cpp:86] Creating Layer mnist
I0428 19:29:48.253712 22118 net.cpp:382] mnist -> data
I0428 19:29:48.253738 22118 net.cpp:382] mnist -> label
I0428 19:29:48.254703 22118 data_layer.cpp:45] output data size: 64,1,28,28
I0428 19:29:48.256911 22118 net.cpp:124] Setting up mnist
I0428 19:29:48.256944 22118 net.cpp:131] Top shape: 64 1 28 28 (50176)
I0428 19:29:48.256954 22118 net.cpp:131] Top shape: 64 (64)
I0428 19:29:48.256960 22118 net.cpp:139] Memory required for data: 200960
I0428 19:29:48.256970 22118 layer_factory.hpp:77] Creating layer conv0
I0428 19:29:48.256994 22118 net.cpp:86] Creating Layer conv0
I0428 19:29:48.257002 22118 net.cpp:408] conv0 <- data
I0428 19:29:48.257017 22118 net.cpp:382] conv0 -> conv0
I0428 19:29:48.549252 22118 net.cpp:124] Setting up conv0
I0428 19:29:48.549285 22118 net.cpp:131] Top shape: 64 2 24 24 (73728)
I0428 19:29:48.549291 22118 net.cpp:139] Memory required for data: 495872
I0428 19:29:48.549309 22118 layer_factory.hpp:77] Creating layer pool0
I0428 19:29:48.549324 22118 net.cpp:86] Creating Layer pool0
I0428 19:29:48.549352 22118 net.cpp:408] pool0 <- conv0
I0428 19:29:48.549360 22118 net.cpp:382] pool0 -> pool0
I0428 19:29:48.549417 22118 net.cpp:124] Setting up pool0
I0428 19:29:48.549427 22118 net.cpp:131] Top shape: 64 2 12 12 (18432)
I0428 19:29:48.549432 22118 net.cpp:139] Memory required for data: 569600
I0428 19:29:48.549435 22118 layer_factory.hpp:77] Creating layer ip1
I0428 19:29:48.549443 22118 net.cpp:86] Creating Layer ip1
I0428 19:29:48.549448 22118 net.cpp:408] ip1 <- pool0
I0428 19:29:48.549453 22118 net.cpp:382] ip1 -> ip1
I0428 19:29:48.550647 22118 net.cpp:124] Setting up ip1
I0428 19:29:48.550663 22118 net.cpp:131] Top shape: 64 50 (3200)
I0428 19:29:48.550668 22118 net.cpp:139] Memory required for data: 582400
I0428 19:29:48.550678 22118 layer_factory.hpp:77] Creating layer relu1
I0428 19:29:48.550685 22118 net.cpp:86] Creating Layer relu1
I0428 19:29:48.550700 22118 net.cpp:408] relu1 <- ip1
I0428 19:29:48.550706 22118 net.cpp:369] relu1 -> ip1 (in-place)
I0428 19:29:48.550907 22118 net.cpp:124] Setting up relu1
I0428 19:29:48.550918 22118 net.cpp:131] Top shape: 64 50 (3200)
I0428 19:29:48.550922 22118 net.cpp:139] Memory required for data: 595200
I0428 19:29:48.550926 22118 layer_factory.hpp:77] Creating layer ip2
I0428 19:29:48.550935 22118 net.cpp:86] Creating Layer ip2
I0428 19:29:48.550938 22118 net.cpp:408] ip2 <- ip1
I0428 19:29:48.550945 22118 net.cpp:382] ip2 -> ip2
I0428 19:29:48.551059 22118 net.cpp:124] Setting up ip2
I0428 19:29:48.551066 22118 net.cpp:131] Top shape: 64 10 (640)
I0428 19:29:48.551070 22118 net.cpp:139] Memory required for data: 597760
I0428 19:29:48.551079 22118 layer_factory.hpp:77] Creating layer relu2
I0428 19:29:48.551086 22118 net.cpp:86] Creating Layer relu2
I0428 19:29:48.551090 22118 net.cpp:408] relu2 <- ip2
I0428 19:29:48.551095 22118 net.cpp:369] relu2 -> ip2 (in-place)
I0428 19:29:48.551949 22118 net.cpp:124] Setting up relu2
I0428 19:29:48.551964 22118 net.cpp:131] Top shape: 64 10 (640)
I0428 19:29:48.551969 22118 net.cpp:139] Memory required for data: 600320
I0428 19:29:48.551972 22118 layer_factory.hpp:77] Creating layer ip3
I0428 19:29:48.551980 22118 net.cpp:86] Creating Layer ip3
I0428 19:29:48.551985 22118 net.cpp:408] ip3 <- ip2
I0428 19:29:48.551991 22118 net.cpp:382] ip3 -> ip3
I0428 19:29:48.552111 22118 net.cpp:124] Setting up ip3
I0428 19:29:48.552120 22118 net.cpp:131] Top shape: 64 10 (640)
I0428 19:29:48.552124 22118 net.cpp:139] Memory required for data: 602880
I0428 19:29:48.552131 22118 layer_factory.hpp:77] Creating layer relu3
I0428 19:29:48.552139 22118 net.cpp:86] Creating Layer relu3
I0428 19:29:48.552145 22118 net.cpp:408] relu3 <- ip3
I0428 19:29:48.552150 22118 net.cpp:369] relu3 -> ip3 (in-place)
I0428 19:29:48.552327 22118 net.cpp:124] Setting up relu3
I0428 19:29:48.552336 22118 net.cpp:131] Top shape: 64 10 (640)
I0428 19:29:48.552340 22118 net.cpp:139] Memory required for data: 605440
I0428 19:29:48.552345 22118 layer_factory.hpp:77] Creating layer loss
I0428 19:29:48.552350 22118 net.cpp:86] Creating Layer loss
I0428 19:29:48.552356 22118 net.cpp:408] loss <- ip3
I0428 19:29:48.552361 22118 net.cpp:408] loss <- label
I0428 19:29:48.552368 22118 net.cpp:382] loss -> loss
I0428 19:29:48.552397 22118 layer_factory.hpp:77] Creating layer loss
…
I0428 19:29:48.553107 22118 solver.cpp:173] Creating test net (#0) specified by net file: ECE595/mnist/train_test/var_everything2/lenet_train_test70.prototxt
I0428 19:29:48.553140 22118 net.cpp:296] The NetState phase (1) differed from the phase (0) specified by a rule in layer mnist
I0428 19:29:48.553246 22118 net.cpp:53] Initializing net from parameters: 
name: "LeNet"
state {
  phase: TEST
}
layer {
  name: "mnist"
  type: "Data"
  top: "data"
  top: "label"
  include {
    phase: TEST
  }
  transform_param {
    scale: 0.00390625
  }
  data_param {
    source: "examples/mnist/mnist_test_lmdb"
    batch_size: 100
    backend: LMDB
  }
}
layer {
  name: "conv0"
  type: "Convolution"
  bottom: "data"
  top: "conv0"
  param {
    lr_mult: 1
  }
  param {
    lr_mult: 2
  }
  convolution_param {
    num_output: 2
    kernel_size: 5
    stride: 1
    weight_filler {
      type: "xavier"
    }
    bias_filler {
      type: "constant"
    }
  }
}
layer {
  name: "pool0"
  type: "Pooling"
  bottom: "conv0"
  top: "pool0"
  pooling_param {
    pool: MAX
    kernel_size: 2
    stride: 2
  }
}
layer {
  name: "ip1"
  type: "InnerProduct"
  bottom: "pool0"
  top: "ip1"
  param {
    lr_mult: 1
  }
  param {
    lr_mult: 2
  }
  inner_product_param {
    num_output: 50
    weight_filler {
      type: "xavier"
    }
    bias_filler {
      type: "constant"
    }
  }
}
layer {
  name: "relu1"
  type: "ReLU"
  bottom: "ip1"
  top: "ip1"
}
layer {
  name: "ip2"
  type: "InnerProduct"
  bottom: "ip1"
  top: "ip2"
  param {
    lr_mult: 1
  }
  param {
    lr_mult: 2
  }
  inner_product_param {
    num_output: 10
    weight_filler {
      type: "xavier"
    }
    bias_filler {
      type: "constant"
    }
  }
}
layer {
  name: "relu2"
  type: "ReLU"
  bottom: "ip2"
  top: "ip2"
}
layer {
  name: "ip3"
  type: "InnerProduct"
  bottom: "ip2"
  top: "ip3"
  param {
    lr_mult: 1
  }
  param {
    lr_mult: 2
  }
  inner_product_param {
    num_output: 10
    weight_filler {
      type: "xavier"
    }
    bias_filler {
      type: "constant"
    }
  }
}
layer {
  name: "relu3"
  type: "ReLU"
  bottom: "ip3"
  top: "ip3"
}
layer {
  name: "accuracy"
  type: "Accuracy"
  bottom: "ip3"
  bottom: "label"
  top: "accuracy"
  include {
    phase: TEST
  }
}
layer {
  name: "loss"
  type: "SoftmaxWithLoss"
  bottom: "ip3"
  bottom: "label"
  top: "loss"
}
I0428 19:29:48.553323 22118 layer_factory.hpp:77] Creating layer mnist
I0428 19:29:48.553376 22118 db_lmdb.cpp:35] Opened lmdb examples/mnist/mnist_test_lmdb
I0428 19:29:48.553391 22118 net.cpp:86] Creating Layer mnist
I0428 19:29:48.553397 22118 net.cpp:382] mnist -> data
I0428 19:29:48.553413 22118 net.cpp:382] mnist -> label
I0428 19:29:48.553515 22118 data_layer.cpp:45] output data size: 100,1,28,28
I0428 19:29:48.555691 22118 net.cpp:124] Setting up mnist
I0428 19:29:48.555707 22118 net.cpp:131] Top shape: 100 1 28 28 (78400)
I0428 19:29:48.555713 22118 net.cpp:131] Top shape: 100 (100)
I0428 19:29:48.555717 22118 net.cpp:139] Memory required for data: 314000
I0428 19:29:48.555722 22118 layer_factory.hpp:77] Creating layer label_mnist_1_split
I0428 19:29:48.555737 22118 net.cpp:86] Creating Layer label_mnist_1_split
I0428 19:29:48.555742 22118 net.cpp:408] label_mnist_1_split <- label
I0428 19:29:48.555761 22118 net.cpp:382] label_mnist_1_split -> label_mnist_1_split_0
I0428 19:29:48.555768 22118 net.cpp:382] label_mnist_1_split -> label_mnist_1_split_1
I0428 19:29:48.555821 22118 net.cpp:124] Setting up label_mnist_1_split
I0428 19:29:48.555830 22118 net.cpp:131] Top shape: 100 (100)
I0428 19:29:48.555835 22118 net.cpp:131] Top shape: 100 (100)
I0428 19:29:48.555837 22118 net.cpp:139] Memory required for data: 314800
I0428 19:29:48.555855 22118 layer_factory.hpp:77] Creating layer conv0
I0428 19:29:48.555866 22118 net.cpp:86] Creating Layer conv0
I0428 19:29:48.555869 22118 net.cpp:408] conv0 <- data
I0428 19:29:48.555876 22118 net.cpp:382] conv0 -> conv0
I0428 19:29:48.557857 22118 net.cpp:124] Setting up conv0
I0428 19:29:48.557874 22118 net.cpp:131] Top shape: 100 2 24 24 (115200)
I0428 19:29:48.557878 22118 net.cpp:139] Memory required for data: 775600
I0428 19:29:48.557889 22118 layer_factory.hpp:77] Creating layer pool0
I0428 19:29:48.557898 22118 net.cpp:86] Creating Layer pool0
I0428 19:29:48.557904 22118 net.cpp:408] pool0 <- conv0
I0428 19:29:48.557910 22118 net.cpp:382] pool0 -> pool0
I0428 19:29:48.557955 22118 net.cpp:124] Setting up pool0
I0428 19:29:48.557961 22118 net.cpp:131] Top shape: 100 2 12 12 (28800)
I0428 19:29:48.557965 22118 net.cpp:139] Memory required for data: 890800
I0428 19:29:48.557968 22118 layer_factory.hpp:77] Creating layer ip1
I0428 19:29:48.557976 22118 net.cpp:86] Creating Layer ip1
I0428 19:29:48.557981 22118 net.cpp:408] ip1 <- pool0
I0428 19:29:48.557987 22118 net.cpp:382] ip1 -> ip1
I0428 19:29:48.558204 22118 net.cpp:124] Setting up ip1
I0428 19:29:48.558214 22118 net.cpp:131] Top shape: 100 50 (5000)
I0428 19:29:48.558218 22118 net.cpp:139] Memory required for data: 910800
I0428 19:29:48.558226 22118 layer_factory.hpp:77] Creating layer relu1
I0428 19:29:48.558231 22118 net.cpp:86] Creating Layer relu1
I0428 19:29:48.558235 22118 net.cpp:408] relu1 <- ip1
I0428 19:29:48.558241 22118 net.cpp:369] relu1 -> ip1 (in-place)
I0428 19:29:48.558527 22118 net.cpp:124] Setting up relu1
I0428 19:29:48.558538 22118 net.cpp:131] Top shape: 100 50 (5000)
I0428 19:29:48.558542 22118 net.cpp:139] Memory required for data: 930800
I0428 19:29:48.558547 22118 layer_factory.hpp:77] Creating layer ip2
I0428 19:29:48.558554 22118 net.cpp:86] Creating Layer ip2
I0428 19:29:48.558558 22118 net.cpp:408] ip2 <- ip1
I0428 19:29:48.558563 22118 net.cpp:382] ip2 -> ip2
I0428 19:29:48.558703 22118 net.cpp:124] Setting up ip2
I0428 19:29:48.558713 22118 net.cpp:131] Top shape: 100 10 (1000)
I0428 19:29:48.558717 22118 net.cpp:139] Memory required for data: 934800
I0428 19:29:48.558727 22118 layer_factory.hpp:77] Creating layer relu2
I0428 19:29:48.558734 22118 net.cpp:86] Creating Layer relu2
I0428 19:29:48.558738 22118 net.cpp:408] relu2 <- ip2
I0428 19:29:48.558743 22118 net.cpp:369] relu2 -> ip2 (in-place)
I0428 19:29:48.559686 22118 net.cpp:124] Setting up relu2
I0428 19:29:48.559701 22118 net.cpp:131] Top shape: 100 10 (1000)
I0428 19:29:48.559706 22118 net.cpp:139] Memory required for data: 938800
I0428 19:29:48.559710 22118 layer_factory.hpp:77] Creating layer ip3
I0428 19:29:48.559720 22118 net.cpp:86] Creating Layer ip3
I0428 19:29:48.559725 22118 net.cpp:408] ip3 <- ip2
I0428 19:29:48.559732 22118 net.cpp:382] ip3 -> ip3
I0428 19:29:48.559859 22118 net.cpp:124] Setting up ip3
I0428 19:29:48.559867 22118 net.cpp:131] Top shape: 100 10 (1000)
I0428 19:29:48.559871 22118 net.cpp:139] Memory required for data: 942800
I0428 19:29:48.559878 22118 layer_factory.hpp:77] Creating layer relu3
I0428 19:29:48.559885 22118 net.cpp:86] Creating Layer relu3
I0428 19:29:48.559890 22118 net.cpp:408] relu3 <- ip3
I0428 19:29:48.559896 22118 net.cpp:369] relu3 -> ip3 (in-place)
I0428 19:29:48.560096 22118 net.cpp:124] Setting up relu3
I0428 19:29:48.560106 22118 net.cpp:131] Top shape: 100 10 (1000)
I0428 19:29:48.560111 22118 net.cpp:139] Memory required for data: 946800
I0428 19:29:48.560114 22118 layer_factory.hpp:77] Creating layer ip3_relu3_0_split
I0428 19:29:48.560122 22118 net.cpp:86] Creating Layer ip3_relu3_0_split
I0428 19:29:48.560127 22118 net.cpp:408] ip3_relu3_0_split <- ip3
I0428 19:29:48.560132 22118 net.cpp:382] ip3_relu3_0_split -> ip3_relu3_0_split_0
I0428 19:29:48.560139 22118 net.cpp:382] ip3_relu3_0_split -> ip3_relu3_0_split_1
I0428 19:29:48.560181 22118 net.cpp:124] Setting up ip3_relu3_0_split
I0428 19:29:48.560189 22118 net.cpp:131] Top shape: 100 10 (1000)
I0428 19:29:48.560194 22118 net.cpp:131] Top shape: 100 10 (1000)
I0428 19:29:48.560209 22118 net.cpp:139] Memory required for data: 954800
I0428 19:29:48.560214 22118 layer_factory.hpp:77] Creating layer accuracy
I0428 19:29:48.560221 22118 net.cpp:86] Creating Layer accuracy
I0428 19:29:48.560225 22118 net.cpp:408] accuracy <- ip3_relu3_0_split_0
I0428 19:29:48.560230 22118 net.cpp:408] accuracy <- label_mnist_1_split_0
I0428 19:29:48.560235 22118 net.cpp:382] accuracy -> accuracy
…
