…
I0428 19:38:53.014538 24156 net.cpp:296] The NetState phase (0) differed from the phase (1) specified by a rule in layer mnist
I0428 19:38:53.014557 24156 net.cpp:296] The NetState phase (0) differed from the phase (1) specified by a rule in layer accuracy
I0428 19:38:53.014644 24156 net.cpp:53] Initializing net from parameters: 
name: "LeNet"
state {
  phase: TRAIN
  level: 0
  stage: ""
}
layer {
  name: "mnist"
  type: "Data"
  top: "data"
  top: "label"
  include {
    phase: TRAIN
  }
  transform_param {
    scale: 0.00390625
  }
  data_param {
    source: "examples/mnist/mnist_train_lmdb"
    batch_size: 64
    backend: LMDB
  }
}
layer {
  name: "conv0"
  type: "Convolution"
  bottom: "data"
  top: "conv0"
  param {
    lr_mult: 1
  }
  param {
    lr_mult: 2
  }
  convolution_param {
    num_output: 2
    kernel_size: 5
    stride: 1
    weight_filler {
      type: "xavier"
    }
    bias_filler {
      type: "constant"
    }
  }
}
layer {
  name: "pool0"
  type: "Pooling"
  bottom: "conv0"
  top: "pool0"
  pooling_param {
    pool: MAX
    kernel_size: 2
    stride: 2
  }
}
layer {
  name: "conv1"
  type: "Convolution"
  bottom: "pool0"
  top: "conv1"
  param {
    lr_mult: 1
  }
  param {
    lr_mult: 2
  }
  convolution_param {
    num_output: 2
    kernel_size: 5
    stride: 1
    weight_filler {
      type: "xavier"
    }
    bias_filler {
      type: "constant"
    }
  }
}
layer {
  name: "pool1"
  type: "Pooling"
  bottom: "conv1"
  top: "pool1"
  pooling_param {
    pool: MAX
    kernel_size: 2
    stride: 2
  }
}
layer {
  name: "ip1"
  type: "InnerProduct"
  bottom: "pool1"
  top: "ip1"
  param {
    lr_mult: 1
  }
  param {
    lr_mult: 2
  }
  inner_product_param {
    num_output: 10
    weight_filler {
      type: "xavier"
    }
    bias_filler {
      type: "constant"
    }
  }
}
layer {
  name: "relu1"
  type: "ReLU"
  bottom: "ip1"
  top: "ip1"
}
layer {
  name: "ip2"
  type: "InnerProduct"
  bottom: "ip1"
  top: "ip2"
  param {
    lr_mult: 1
  }
  param {
    lr_mult: 2
  }
  inner_product_param {
    num_output: 10
    weight_filler {
      type: "xavier"
    }
    bias_filler {
      type: "constant"
    }
  }
}
layer {
  name: "relu2"
  type: "ReLU"
  bottom: "ip2"
  top: "ip2"
}
layer {
  name: "ip3"
  type: "InnerProduct"
  bottom: "ip2"
  top: "ip3"
  param {
    lr_mult: 1
  }
  param {
    lr_mult: 2
  }
  inner_product_param {
    num_output: 10
    weight_filler {
      type: "xavier"
    }
    bias_filler {
      type: "constant"
    }
  }
}
layer {
  name: "relu3"
  type: "ReLU"
  bottom: "ip3"
  top: "ip3"
}
layer {
  name: "loss"
  type: "SoftmaxWithLoss"
  bottom: "ip3"
  bottom: "label"
  top: "loss"
}
I0428 19:38:53.014734 24156 layer_factory.hpp:77] Creating layer mnist
I0428 19:38:53.014837 24156 db_lmdb.cpp:35] Opened lmdb examples/mnist/mnist_train_lmdb
I0428 19:38:53.014865 24156 net.cpp:86] Creating Layer mnist
I0428 19:38:53.014875 24156 net.cpp:382] mnist -> data
I0428 19:38:53.014899 24156 net.cpp:382] mnist -> label
I0428 19:38:53.015921 24156 data_layer.cpp:45] output data size: 64,1,28,28
I0428 19:38:53.018328 24156 net.cpp:124] Setting up mnist
I0428 19:38:53.018362 24156 net.cpp:131] Top shape: 64 1 28 28 (50176)
I0428 19:38:53.018373 24156 net.cpp:131] Top shape: 64 (64)
I0428 19:38:53.018378 24156 net.cpp:139] Memory required for data: 200960
I0428 19:38:53.018388 24156 layer_factory.hpp:77] Creating layer conv0
I0428 19:38:53.018405 24156 net.cpp:86] Creating Layer conv0
I0428 19:38:53.018425 24156 net.cpp:408] conv0 <- data
I0428 19:38:53.018460 24156 net.cpp:382] conv0 -> conv0
I0428 19:38:53.250597 24156 net.cpp:124] Setting up conv0
I0428 19:38:53.250623 24156 net.cpp:131] Top shape: 64 2 24 24 (73728)
I0428 19:38:53.250628 24156 net.cpp:139] Memory required for data: 495872
I0428 19:38:53.250648 24156 layer_factory.hpp:77] Creating layer pool0
I0428 19:38:53.250664 24156 net.cpp:86] Creating Layer pool0
I0428 19:38:53.250677 24156 net.cpp:408] pool0 <- conv0
I0428 19:38:53.250686 24156 net.cpp:382] pool0 -> pool0
I0428 19:38:53.250737 24156 net.cpp:124] Setting up pool0
I0428 19:38:53.250746 24156 net.cpp:131] Top shape: 64 2 12 12 (18432)
I0428 19:38:53.250751 24156 net.cpp:139] Memory required for data: 569600
I0428 19:38:53.250756 24156 layer_factory.hpp:77] Creating layer conv1
I0428 19:38:53.250771 24156 net.cpp:86] Creating Layer conv1
I0428 19:38:53.250777 24156 net.cpp:408] conv1 <- pool0
I0428 19:38:53.250784 24156 net.cpp:382] conv1 -> conv1
I0428 19:38:53.252583 24156 net.cpp:124] Setting up conv1
I0428 19:38:53.252601 24156 net.cpp:131] Top shape: 64 2 8 8 (8192)
I0428 19:38:53.252607 24156 net.cpp:139] Memory required for data: 602368
I0428 19:38:53.252620 24156 layer_factory.hpp:77] Creating layer pool1
I0428 19:38:53.252631 24156 net.cpp:86] Creating Layer pool1
I0428 19:38:53.252643 24156 net.cpp:408] pool1 <- conv1
I0428 19:38:53.252651 24156 net.cpp:382] pool1 -> pool1
I0428 19:38:53.252710 24156 net.cpp:124] Setting up pool1
I0428 19:38:53.252720 24156 net.cpp:131] Top shape: 64 2 4 4 (2048)
I0428 19:38:53.252725 24156 net.cpp:139] Memory required for data: 610560
I0428 19:38:53.252730 24156 layer_factory.hpp:77] Creating layer ip1
I0428 19:38:53.252741 24156 net.cpp:86] Creating Layer ip1
I0428 19:38:53.252751 24156 net.cpp:408] ip1 <- pool1
I0428 19:38:53.252759 24156 net.cpp:382] ip1 -> ip1
I0428 19:38:53.252892 24156 net.cpp:124] Setting up ip1
I0428 19:38:53.252902 24156 net.cpp:131] Top shape: 64 10 (640)
I0428 19:38:53.252907 24156 net.cpp:139] Memory required for data: 613120
I0428 19:38:53.252918 24156 layer_factory.hpp:77] Creating layer relu1
I0428 19:38:53.252931 24156 net.cpp:86] Creating Layer relu1
I0428 19:38:53.252938 24156 net.cpp:408] relu1 <- ip1
I0428 19:38:53.252945 24156 net.cpp:369] relu1 -> ip1 (in-place)
I0428 19:38:53.253120 24156 net.cpp:124] Setting up relu1
I0428 19:38:53.253131 24156 net.cpp:131] Top shape: 64 10 (640)
I0428 19:38:53.253150 24156 net.cpp:139] Memory required for data: 615680
I0428 19:38:53.253155 24156 layer_factory.hpp:77] Creating layer ip2
I0428 19:38:53.253166 24156 net.cpp:86] Creating Layer ip2
I0428 19:38:53.253171 24156 net.cpp:408] ip2 <- ip1
I0428 19:38:53.253181 24156 net.cpp:382] ip2 -> ip2
I0428 19:38:53.253284 24156 net.cpp:124] Setting up ip2
I0428 19:38:53.253293 24156 net.cpp:131] Top shape: 64 10 (640)
I0428 19:38:53.253298 24156 net.cpp:139] Memory required for data: 618240
I0428 19:38:53.253305 24156 layer_factory.hpp:77] Creating layer relu2
I0428 19:38:53.253315 24156 net.cpp:86] Creating Layer relu2
I0428 19:38:53.253320 24156 net.cpp:408] relu2 <- ip2
I0428 19:38:53.253327 24156 net.cpp:369] relu2 -> ip2 (in-place)
I0428 19:38:53.254046 24156 net.cpp:124] Setting up relu2
I0428 19:38:53.254060 24156 net.cpp:131] Top shape: 64 10 (640)
I0428 19:38:53.254065 24156 net.cpp:139] Memory required for data: 620800
I0428 19:38:53.254086 24156 layer_factory.hpp:77] Creating layer ip3
I0428 19:38:53.254097 24156 net.cpp:86] Creating Layer ip3
I0428 19:38:53.254103 24156 net.cpp:408] ip3 <- ip2
I0428 19:38:53.254113 24156 net.cpp:382] ip3 -> ip3
I0428 19:38:53.254220 24156 net.cpp:124] Setting up ip3
I0428 19:38:53.254230 24156 net.cpp:131] Top shape: 64 10 (640)
I0428 19:38:53.254235 24156 net.cpp:139] Memory required for data: 623360
I0428 19:38:53.254246 24156 layer_factory.hpp:77] Creating layer relu3
I0428 19:38:53.254256 24156 net.cpp:86] Creating Layer relu3
I0428 19:38:53.254261 24156 net.cpp:408] relu3 <- ip3
I0428 19:38:53.254269 24156 net.cpp:369] relu3 -> ip3 (in-place)
I0428 19:38:53.254461 24156 net.cpp:124] Setting up relu3
I0428 19:38:53.254470 24156 net.cpp:131] Top shape: 64 10 (640)
I0428 19:38:53.254475 24156 net.cpp:139] Memory required for data: 625920
I0428 19:38:53.254479 24156 layer_factory.hpp:77] Creating layer loss
I0428 19:38:53.254488 24156 net.cpp:86] Creating Layer loss
I0428 19:38:53.254492 24156 net.cpp:408] loss <- ip3
I0428 19:38:53.254499 24156 net.cpp:408] loss <- label
I0428 19:38:53.254508 24156 net.cpp:382] loss -> loss
I0428 19:38:53.254530 24156 layer_factory.hpp:77] Creating layer loss
…
I0428 19:38:53.255235 24156 solver.cpp:173] Creating test net (#0) specified by net file: ECE595/mnist/train_test/var_everything2/lenet_train_test287.prototxt
I0428 19:38:53.255269 24156 net.cpp:296] The NetState phase (1) differed from the phase (0) specified by a rule in layer mnist
I0428 19:38:53.255365 24156 net.cpp:53] Initializing net from parameters: 
name: "LeNet"
state {
  phase: TEST
}
layer {
  name: "mnist"
  type: "Data"
  top: "data"
  top: "label"
  include {
    phase: TEST
  }
  transform_param {
    scale: 0.00390625
  }
  data_param {
    source: "examples/mnist/mnist_test_lmdb"
    batch_size: 100
    backend: LMDB
  }
}
layer {
  name: "conv0"
  type: "Convolution"
  bottom: "data"
  top: "conv0"
  param {
    lr_mult: 1
  }
  param {
    lr_mult: 2
  }
  convolution_param {
    num_output: 2
    kernel_size: 5
    stride: 1
    weight_filler {
      type: "xavier"
    }
    bias_filler {
      type: "constant"
    }
  }
}
layer {
  name: "pool0"
  type: "Pooling"
  bottom: "conv0"
  top: "pool0"
  pooling_param {
    pool: MAX
    kernel_size: 2
    stride: 2
  }
}
layer {
  name: "conv1"
  type: "Convolution"
  bottom: "pool0"
  top: "conv1"
  param {
    lr_mult: 1
  }
  param {
    lr_mult: 2
  }
  convolution_param {
    num_output: 2
    kernel_size: 5
    stride: 1
    weight_filler {
      type: "xavier"
    }
    bias_filler {
      type: "constant"
    }
  }
}
layer {
  name: "pool1"
  type: "Pooling"
  bottom: "conv1"
  top: "pool1"
  pooling_param {
    pool: MAX
    kernel_size: 2
    stride: 2
  }
}
layer {
  name: "ip1"
  type: "InnerProduct"
  bottom: "pool1"
  top: "ip1"
  param {
    lr_mult: 1
  }
  param {
    lr_mult: 2
  }
  inner_product_param {
    num_output: 10
    weight_filler {
      type: "xavier"
    }
    bias_filler {
      type: "constant"
    }
  }
}
layer {
  name: "relu1"
  type: "ReLU"
  bottom: "ip1"
  top: "ip1"
}
layer {
  name: "ip2"
  type: "InnerProduct"
  bottom: "ip1"
  top: "ip2"
  param {
    lr_mult: 1
  }
  param {
    lr_mult: 2
  }
  inner_product_param {
    num_output: 10
    weight_filler {
      type: "xavier"
    }
    bias_filler {
      type: "constant"
    }
  }
}
layer {
  name: "relu2"
  type: "ReLU"
  bottom: "ip2"
  top: "ip2"
}
layer {
  name: "ip3"
  type: "InnerProduct"
  bottom: "ip2"
  top: "ip3"
  param {
    lr_mult: 1
  }
  param {
    lr_mult: 2
  }
  inner_product_param {
    num_output: 10
    weight_filler {
      type: "xavier"
    }
    bias_filler {
      type: "constant"
    }
  }
}
layer {
  name: "relu3"
  type: "ReLU"
  bottom: "ip3"
  top: "ip3"
}
layer {
  name: "accuracy"
  type: "Accuracy"
  bottom: "ip3"
  bottom: "label"
  top: "accuracy"
  include {
    phase: TEST
  }
}
layer {
  name: "loss"
  type: "SoftmaxWithLoss"
  bottom: "ip3"
  bottom: "label"
  top: "loss"
}
I0428 19:38:53.255482 24156 layer_factory.hpp:77] Creating layer mnist
I0428 19:38:53.255542 24156 db_lmdb.cpp:35] Opened lmdb examples/mnist/mnist_test_lmdb
I0428 19:38:53.255559 24156 net.cpp:86] Creating Layer mnist
I0428 19:38:53.255568 24156 net.cpp:382] mnist -> data
I0428 19:38:53.255578 24156 net.cpp:382] mnist -> label
I0428 19:38:53.255695 24156 data_layer.cpp:45] output data size: 100,1,28,28
I0428 19:38:53.257877 24156 net.cpp:124] Setting up mnist
I0428 19:38:53.257910 24156 net.cpp:131] Top shape: 100 1 28 28 (78400)
I0428 19:38:53.257917 24156 net.cpp:131] Top shape: 100 (100)
I0428 19:38:53.257922 24156 net.cpp:139] Memory required for data: 314000
I0428 19:38:53.257942 24156 layer_factory.hpp:77] Creating layer label_mnist_1_split
I0428 19:38:53.257958 24156 net.cpp:86] Creating Layer label_mnist_1_split
I0428 19:38:53.257964 24156 net.cpp:408] label_mnist_1_split <- label
I0428 19:38:53.257973 24156 net.cpp:382] label_mnist_1_split -> label_mnist_1_split_0
I0428 19:38:53.257984 24156 net.cpp:382] label_mnist_1_split -> label_mnist_1_split_1
I0428 19:38:53.258097 24156 net.cpp:124] Setting up label_mnist_1_split
I0428 19:38:53.258106 24156 net.cpp:131] Top shape: 100 (100)
I0428 19:38:53.258113 24156 net.cpp:131] Top shape: 100 (100)
I0428 19:38:53.258118 24156 net.cpp:139] Memory required for data: 314800
I0428 19:38:53.258124 24156 layer_factory.hpp:77] Creating layer conv0
I0428 19:38:53.258139 24156 net.cpp:86] Creating Layer conv0
I0428 19:38:53.258159 24156 net.cpp:408] conv0 <- data
I0428 19:38:53.258183 24156 net.cpp:382] conv0 -> conv0
I0428 19:38:53.259760 24156 net.cpp:124] Setting up conv0
I0428 19:38:53.259775 24156 net.cpp:131] Top shape: 100 2 24 24 (115200)
I0428 19:38:53.259780 24156 net.cpp:139] Memory required for data: 775600
I0428 19:38:53.259793 24156 layer_factory.hpp:77] Creating layer pool0
I0428 19:38:53.259804 24156 net.cpp:86] Creating Layer pool0
I0428 19:38:53.259811 24156 net.cpp:408] pool0 <- conv0
I0428 19:38:53.259820 24156 net.cpp:382] pool0 -> pool0
I0428 19:38:53.259860 24156 net.cpp:124] Setting up pool0
I0428 19:38:53.259867 24156 net.cpp:131] Top shape: 100 2 12 12 (28800)
I0428 19:38:53.259871 24156 net.cpp:139] Memory required for data: 890800
I0428 19:38:53.259876 24156 layer_factory.hpp:77] Creating layer conv1
I0428 19:38:53.259889 24156 net.cpp:86] Creating Layer conv1
I0428 19:38:53.259896 24156 net.cpp:408] conv1 <- pool0
I0428 19:38:53.259905 24156 net.cpp:382] conv1 -> conv1
I0428 19:38:53.261729 24156 net.cpp:124] Setting up conv1
I0428 19:38:53.261757 24156 net.cpp:131] Top shape: 100 2 8 8 (12800)
I0428 19:38:53.261762 24156 net.cpp:139] Memory required for data: 942000
I0428 19:38:53.261790 24156 layer_factory.hpp:77] Creating layer pool1
I0428 19:38:53.261801 24156 net.cpp:86] Creating Layer pool1
I0428 19:38:53.261806 24156 net.cpp:408] pool1 <- conv1
I0428 19:38:53.261819 24156 net.cpp:382] pool1 -> pool1
I0428 19:38:53.261862 24156 net.cpp:124] Setting up pool1
I0428 19:38:53.261869 24156 net.cpp:131] Top shape: 100 2 4 4 (3200)
I0428 19:38:53.261874 24156 net.cpp:139] Memory required for data: 954800
I0428 19:38:53.261879 24156 layer_factory.hpp:77] Creating layer ip1
I0428 19:38:53.261890 24156 net.cpp:86] Creating Layer ip1
I0428 19:38:53.261898 24156 net.cpp:408] ip1 <- pool1
I0428 19:38:53.261906 24156 net.cpp:382] ip1 -> ip1
I0428 19:38:53.262012 24156 net.cpp:124] Setting up ip1
I0428 19:38:53.262020 24156 net.cpp:131] Top shape: 100 10 (1000)
I0428 19:38:53.262037 24156 net.cpp:139] Memory required for data: 958800
I0428 19:38:53.262049 24156 layer_factory.hpp:77] Creating layer relu1
I0428 19:38:53.262058 24156 net.cpp:86] Creating Layer relu1
I0428 19:38:53.262065 24156 net.cpp:408] relu1 <- ip1
I0428 19:38:53.262073 24156 net.cpp:369] relu1 -> ip1 (in-place)
I0428 19:38:53.262297 24156 net.cpp:124] Setting up relu1
I0428 19:38:53.262307 24156 net.cpp:131] Top shape: 100 10 (1000)
I0428 19:38:53.262313 24156 net.cpp:139] Memory required for data: 962800
I0428 19:38:53.262320 24156 layer_factory.hpp:77] Creating layer ip2
I0428 19:38:53.262331 24156 net.cpp:86] Creating Layer ip2
I0428 19:38:53.262336 24156 net.cpp:408] ip2 <- ip1
I0428 19:38:53.262346 24156 net.cpp:382] ip2 -> ip2
I0428 19:38:53.262495 24156 net.cpp:124] Setting up ip2
I0428 19:38:53.262502 24156 net.cpp:131] Top shape: 100 10 (1000)
I0428 19:38:53.262506 24156 net.cpp:139] Memory required for data: 966800
I0428 19:38:53.262516 24156 layer_factory.hpp:77] Creating layer relu2
I0428 19:38:53.262522 24156 net.cpp:86] Creating Layer relu2
I0428 19:38:53.262527 24156 net.cpp:408] relu2 <- ip2
I0428 19:38:53.262537 24156 net.cpp:369] relu2 -> ip2 (in-place)
I0428 19:38:53.262712 24156 net.cpp:124] Setting up relu2
I0428 19:38:53.262722 24156 net.cpp:131] Top shape: 100 10 (1000)
I0428 19:38:53.262727 24156 net.cpp:139] Memory required for data: 970800
I0428 19:38:53.262732 24156 layer_factory.hpp:77] Creating layer ip3
I0428 19:38:53.262756 24156 net.cpp:86] Creating Layer ip3
I0428 19:38:53.262761 24156 net.cpp:408] ip3 <- ip2
I0428 19:38:53.262769 24156 net.cpp:382] ip3 -> ip3
I0428 19:38:53.262899 24156 net.cpp:124] Setting up ip3
I0428 19:38:53.262909 24156 net.cpp:131] Top shape: 100 10 (1000)
I0428 19:38:53.262914 24156 net.cpp:139] Memory required for data: 974800
I0428 19:38:53.262928 24156 layer_factory.hpp:77] Creating layer relu3
I0428 19:38:53.262938 24156 net.cpp:86] Creating Layer relu3
I0428 19:38:53.262943 24156 net.cpp:408] relu3 <- ip3
I0428 19:38:53.262951 24156 net.cpp:369] relu3 -> ip3 (in-place)
I0428 19:38:53.263880 24156 net.cpp:124] Setting up relu3
I0428 19:38:53.263893 24156 net.cpp:131] Top shape: 100 10 (1000)
I0428 19:38:53.263900 24156 net.cpp:139] Memory required for data: 978800
I0428 19:38:53.263906 24156 layer_factory.hpp:77] Creating layer ip3_relu3_0_split
I0428 19:38:53.263913 24156 net.cpp:86] Creating Layer ip3_relu3_0_split
I0428 19:38:53.263919 24156 net.cpp:408] ip3_relu3_0_split <- ip3
I0428 19:38:53.263926 24156 net.cpp:382] ip3_relu3_0_split -> ip3_relu3_0_split_0
I0428 19:38:53.263936 24156 net.cpp:382] ip3_relu3_0_split -> ip3_relu3_0_split_1
I0428 19:38:53.263980 24156 net.cpp:124] Setting up ip3_relu3_0_split
I0428 19:38:53.263988 24156 net.cpp:131] Top shape: 100 10 (1000)
I0428 19:38:53.263994 24156 net.cpp:131] Top shape: 100 10 (1000)
I0428 19:38:53.264000 24156 net.cpp:139] Memory required for data: 986800
I0428 19:38:53.264005 24156 layer_factory.hpp:77] Creating layer accuracy
I0428 19:38:53.264014 24156 net.cpp:86] Creating Layer accuracy
I0428 19:38:53.264019 24156 net.cpp:408] accuracy <- ip3_relu3_0_split_0
I0428 19:38:53.264025 24156 net.cpp:408] accuracy <- label_mnist_1_split_0
I0428 19:38:53.264034 24156 net.cpp:382] accuracy -> accuracy
…
