…
I0428 19:44:30.457396 25615 net.cpp:296] The NetState phase (0) differed from the phase (1) specified by a rule in layer mnist
I0428 19:44:30.457414 25615 net.cpp:296] The NetState phase (0) differed from the phase (1) specified by a rule in layer accuracy
I0428 19:44:30.457516 25615 net.cpp:53] Initializing net from parameters: 
name: "LeNet"
state {
  phase: TRAIN
  level: 0
  stage: ""
}
layer {
  name: "mnist"
  type: "Data"
  top: "data"
  top: "label"
  include {
    phase: TRAIN
  }
  transform_param {
    scale: 0.00390625
  }
  data_param {
    source: "examples/mnist/mnist_train_lmdb"
    batch_size: 64
    backend: LMDB
  }
}
layer {
  name: "conv0"
  type: "Convolution"
  bottom: "data"
  top: "conv0"
  param {
    lr_mult: 1
  }
  param {
    lr_mult: 2
  }
  convolution_param {
    num_output: 2
    kernel_size: 5
    stride: 1
    weight_filler {
      type: "xavier"
    }
    bias_filler {
      type: "constant"
    }
  }
}
layer {
  name: "pool0"
  type: "Pooling"
  bottom: "conv0"
  top: "pool0"
  pooling_param {
    pool: MAX
    kernel_size: 2
    stride: 2
  }
}
layer {
  name: "conv1"
  type: "Convolution"
  bottom: "pool0"
  top: "conv1"
  param {
    lr_mult: 1
  }
  param {
    lr_mult: 2
  }
  convolution_param {
    num_output: 50
    kernel_size: 5
    stride: 1
    weight_filler {
      type: "xavier"
    }
    bias_filler {
      type: "constant"
    }
  }
}
layer {
  name: "pool1"
  type: "Pooling"
  bottom: "conv1"
  top: "pool1"
  pooling_param {
    pool: MAX
    kernel_size: 2
    stride: 2
  }
}
layer {
  name: "ip1"
  type: "InnerProduct"
  bottom: "pool1"
  top: "ip1"
  param {
    lr_mult: 1
  }
  param {
    lr_mult: 2
  }
  inner_product_param {
    num_output: 10
    weight_filler {
      type: "xavier"
    }
    bias_filler {
      type: "constant"
    }
  }
}
layer {
  name: "relu1"
  type: "ReLU"
  bottom: "ip1"
  top: "ip1"
}
layer {
  name: "ip2"
  type: "InnerProduct"
  bottom: "ip1"
  top: "ip2"
  param {
    lr_mult: 1
  }
  param {
    lr_mult: 2
  }
  inner_product_param {
    num_output: 50
    weight_filler {
      type: "xavier"
    }
    bias_filler {
      type: "constant"
    }
  }
}
layer {
  name: "relu2"
  type: "ReLU"
  bottom: "ip2"
  top: "ip2"
}
layer {
  name: "ip3"
  type: "InnerProduct"
  bottom: "ip2"
  top: "ip3"
  param {
    lr_mult: 1
  }
  param {
    lr_mult: 2
  }
  inner_product_param {
    num_output: 10
    weight_filler {
      type: "xavier"
    }
    bias_filler {
      type: "constant"
    }
  }
}
layer {
  name: "relu3"
  type: "ReLU"
  bottom: "ip3"
  top: "ip3"
}
layer {
  name: "loss"
  type: "SoftmaxWithLoss"
  bottom: "ip3"
  bottom: "label"
  top: "loss"
}
I0428 19:44:30.457598 25615 layer_factory.hpp:77] Creating layer mnist
I0428 19:44:30.457696 25615 db_lmdb.cpp:35] Opened lmdb examples/mnist/mnist_train_lmdb
I0428 19:44:30.457725 25615 net.cpp:86] Creating Layer mnist
I0428 19:44:30.457733 25615 net.cpp:382] mnist -> data
I0428 19:44:30.457757 25615 net.cpp:382] mnist -> label
I0428 19:44:30.458839 25615 data_layer.cpp:45] output data size: 64,1,28,28
I0428 19:44:30.461309 25615 net.cpp:124] Setting up mnist
I0428 19:44:30.461326 25615 net.cpp:131] Top shape: 64 1 28 28 (50176)
I0428 19:44:30.461345 25615 net.cpp:131] Top shape: 64 (64)
I0428 19:44:30.461349 25615 net.cpp:139] Memory required for data: 200960
I0428 19:44:30.461356 25615 layer_factory.hpp:77] Creating layer conv0
I0428 19:44:30.461374 25615 net.cpp:86] Creating Layer conv0
I0428 19:44:30.461397 25615 net.cpp:408] conv0 <- data
I0428 19:44:30.461411 25615 net.cpp:382] conv0 -> conv0
I0428 19:44:30.750754 25615 net.cpp:124] Setting up conv0
I0428 19:44:30.750782 25615 net.cpp:131] Top shape: 64 2 24 24 (73728)
I0428 19:44:30.750787 25615 net.cpp:139] Memory required for data: 495872
I0428 19:44:30.750802 25615 layer_factory.hpp:77] Creating layer pool0
I0428 19:44:30.750816 25615 net.cpp:86] Creating Layer pool0
I0428 19:44:30.750819 25615 net.cpp:408] pool0 <- conv0
I0428 19:44:30.750825 25615 net.cpp:382] pool0 -> pool0
I0428 19:44:30.750874 25615 net.cpp:124] Setting up pool0
I0428 19:44:30.750880 25615 net.cpp:131] Top shape: 64 2 12 12 (18432)
I0428 19:44:30.750883 25615 net.cpp:139] Memory required for data: 569600
I0428 19:44:30.750886 25615 layer_factory.hpp:77] Creating layer conv1
I0428 19:44:30.750897 25615 net.cpp:86] Creating Layer conv1
I0428 19:44:30.750900 25615 net.cpp:408] conv1 <- pool0
I0428 19:44:30.750907 25615 net.cpp:382] conv1 -> conv1
I0428 19:44:30.753659 25615 net.cpp:124] Setting up conv1
I0428 19:44:30.753675 25615 net.cpp:131] Top shape: 64 50 8 8 (204800)
I0428 19:44:30.753679 25615 net.cpp:139] Memory required for data: 1388800
I0428 19:44:30.753689 25615 layer_factory.hpp:77] Creating layer pool1
I0428 19:44:30.753695 25615 net.cpp:86] Creating Layer pool1
I0428 19:44:30.753700 25615 net.cpp:408] pool1 <- conv1
I0428 19:44:30.753705 25615 net.cpp:382] pool1 -> pool1
I0428 19:44:30.753746 25615 net.cpp:124] Setting up pool1
I0428 19:44:30.753752 25615 net.cpp:131] Top shape: 64 50 4 4 (51200)
I0428 19:44:30.753756 25615 net.cpp:139] Memory required for data: 1593600
I0428 19:44:30.753758 25615 layer_factory.hpp:77] Creating layer ip1
I0428 19:44:30.753765 25615 net.cpp:86] Creating Layer ip1
I0428 19:44:30.753769 25615 net.cpp:408] ip1 <- pool1
I0428 19:44:30.753774 25615 net.cpp:382] ip1 -> ip1
I0428 19:44:30.754753 25615 net.cpp:124] Setting up ip1
I0428 19:44:30.754767 25615 net.cpp:131] Top shape: 64 10 (640)
I0428 19:44:30.754771 25615 net.cpp:139] Memory required for data: 1596160
I0428 19:44:30.754779 25615 layer_factory.hpp:77] Creating layer relu1
I0428 19:44:30.754786 25615 net.cpp:86] Creating Layer relu1
I0428 19:44:30.754788 25615 net.cpp:408] relu1 <- ip1
I0428 19:44:30.754793 25615 net.cpp:369] relu1 -> ip1 (in-place)
I0428 19:44:30.754979 25615 net.cpp:124] Setting up relu1
I0428 19:44:30.754989 25615 net.cpp:131] Top shape: 64 10 (640)
I0428 19:44:30.754992 25615 net.cpp:139] Memory required for data: 1598720
I0428 19:44:30.754995 25615 layer_factory.hpp:77] Creating layer ip2
I0428 19:44:30.755003 25615 net.cpp:86] Creating Layer ip2
I0428 19:44:30.755007 25615 net.cpp:408] ip2 <- ip1
I0428 19:44:30.755012 25615 net.cpp:382] ip2 -> ip2
I0428 19:44:30.755120 25615 net.cpp:124] Setting up ip2
I0428 19:44:30.755126 25615 net.cpp:131] Top shape: 64 50 (3200)
I0428 19:44:30.755129 25615 net.cpp:139] Memory required for data: 1611520
I0428 19:44:30.755136 25615 layer_factory.hpp:77] Creating layer relu2
I0428 19:44:30.755141 25615 net.cpp:86] Creating Layer relu2
I0428 19:44:30.755144 25615 net.cpp:408] relu2 <- ip2
I0428 19:44:30.755151 25615 net.cpp:369] relu2 -> ip2 (in-place)
I0428 19:44:30.755890 25615 net.cpp:124] Setting up relu2
I0428 19:44:30.755903 25615 net.cpp:131] Top shape: 64 50 (3200)
I0428 19:44:30.755906 25615 net.cpp:139] Memory required for data: 1624320
I0428 19:44:30.755909 25615 layer_factory.hpp:77] Creating layer ip3
I0428 19:44:30.755918 25615 net.cpp:86] Creating Layer ip3
I0428 19:44:30.755920 25615 net.cpp:408] ip3 <- ip2
I0428 19:44:30.755925 25615 net.cpp:382] ip3 -> ip3
I0428 19:44:30.756036 25615 net.cpp:124] Setting up ip3
I0428 19:44:30.756045 25615 net.cpp:131] Top shape: 64 10 (640)
I0428 19:44:30.756048 25615 net.cpp:139] Memory required for data: 1626880
I0428 19:44:30.756055 25615 layer_factory.hpp:77] Creating layer relu3
I0428 19:44:30.756064 25615 net.cpp:86] Creating Layer relu3
I0428 19:44:30.756067 25615 net.cpp:408] relu3 <- ip3
I0428 19:44:30.756072 25615 net.cpp:369] relu3 -> ip3 (in-place)
I0428 19:44:30.756248 25615 net.cpp:124] Setting up relu3
I0428 19:44:30.756258 25615 net.cpp:131] Top shape: 64 10 (640)
I0428 19:44:30.756261 25615 net.cpp:139] Memory required for data: 1629440
I0428 19:44:30.756280 25615 layer_factory.hpp:77] Creating layer loss
I0428 19:44:30.756288 25615 net.cpp:86] Creating Layer loss
I0428 19:44:30.756290 25615 net.cpp:408] loss <- ip3
I0428 19:44:30.756294 25615 net.cpp:408] loss <- label
I0428 19:44:30.756300 25615 net.cpp:382] loss -> loss
I0428 19:44:30.756314 25615 layer_factory.hpp:77] Creating layer loss
…
I0428 19:44:30.757027 25615 solver.cpp:173] Creating test net (#0) specified by net file: ECE595/mnist/train_test/var_everything2/lenet_train_test449.prototxt
I0428 19:44:30.757072 25615 net.cpp:296] The NetState phase (1) differed from the phase (0) specified by a rule in layer mnist
I0428 19:44:30.757182 25615 net.cpp:53] Initializing net from parameters: 
name: "LeNet"
state {
  phase: TEST
}
layer {
  name: "mnist"
  type: "Data"
  top: "data"
  top: "label"
  include {
    phase: TEST
  }
  transform_param {
    scale: 0.00390625
  }
  data_param {
    source: "examples/mnist/mnist_test_lmdb"
    batch_size: 100
    backend: LMDB
  }
}
layer {
  name: "conv0"
  type: "Convolution"
  bottom: "data"
  top: "conv0"
  param {
    lr_mult: 1
  }
  param {
    lr_mult: 2
  }
  convolution_param {
    num_output: 2
    kernel_size: 5
    stride: 1
    weight_filler {
      type: "xavier"
    }
    bias_filler {
      type: "constant"
    }
  }
}
layer {
  name: "pool0"
  type: "Pooling"
  bottom: "conv0"
  top: "pool0"
  pooling_param {
    pool: MAX
    kernel_size: 2
    stride: 2
  }
}
layer {
  name: "conv1"
  type: "Convolution"
  bottom: "pool0"
  top: "conv1"
  param {
    lr_mult: 1
  }
  param {
    lr_mult: 2
  }
  convolution_param {
    num_output: 50
    kernel_size: 5
    stride: 1
    weight_filler {
      type: "xavier"
    }
    bias_filler {
      type: "constant"
    }
  }
}
layer {
  name: "pool1"
  type: "Pooling"
  bottom: "conv1"
  top: "pool1"
  pooling_param {
    pool: MAX
    kernel_size: 2
    stride: 2
  }
}
layer {
  name: "ip1"
  type: "InnerProduct"
  bottom: "pool1"
  top: "ip1"
  param {
    lr_mult: 1
  }
  param {
    lr_mult: 2
  }
  inner_product_param {
    num_output: 10
    weight_filler {
      type: "xavier"
    }
    bias_filler {
      type: "constant"
    }
  }
}
layer {
  name: "relu1"
  type: "ReLU"
  bottom: "ip1"
  top: "ip1"
}
layer {
  name: "ip2"
  type: "InnerProduct"
  bottom: "ip1"
  top: "ip2"
  param {
    lr_mult: 1
  }
  param {
    lr_mult: 2
  }
  inner_product_param {
    num_output: 50
    weight_filler {
      type: "xavier"
    }
    bias_filler {
      type: "constant"
    }
  }
}
layer {
  name: "relu2"
  type: "ReLU"
  bottom: "ip2"
  top: "ip2"
}
layer {
  name: "ip3"
  type: "InnerProduct"
  bottom: "ip2"
  top: "ip3"
  param {
    lr_mult: 1
  }
  param {
    lr_mult: 2
  }
  inner_product_param {
    num_output: 10
    weight_filler {
      type: "xavier"
    }
    bias_filler {
      type: "constant"
    }
  }
}
layer {
  name: "relu3"
  type: "ReLU"
  bottom: "ip3"
  top: "ip3"
}
layer {
  name: "accuracy"
  type: "Accuracy"
  bottom: "ip3"
  bottom: "label"
  top: "accuracy"
  include {
    phase: TEST
  }
}
layer {
  name: "loss"
  type: "SoftmaxWithLoss"
  bottom: "ip3"
  bottom: "label"
  top: "loss"
}
I0428 19:44:30.757269 25615 layer_factory.hpp:77] Creating layer mnist
I0428 19:44:30.757311 25615 db_lmdb.cpp:35] Opened lmdb examples/mnist/mnist_test_lmdb
I0428 19:44:30.757324 25615 net.cpp:86] Creating Layer mnist
I0428 19:44:30.757328 25615 net.cpp:382] mnist -> data
I0428 19:44:30.757338 25615 net.cpp:382] mnist -> label
I0428 19:44:30.757426 25615 data_layer.cpp:45] output data size: 100,1,28,28
I0428 19:44:30.759516 25615 net.cpp:124] Setting up mnist
I0428 19:44:30.759528 25615 net.cpp:131] Top shape: 100 1 28 28 (78400)
I0428 19:44:30.759533 25615 net.cpp:131] Top shape: 100 (100)
I0428 19:44:30.759536 25615 net.cpp:139] Memory required for data: 314000
I0428 19:44:30.759539 25615 layer_factory.hpp:77] Creating layer label_mnist_1_split
I0428 19:44:30.759546 25615 net.cpp:86] Creating Layer label_mnist_1_split
I0428 19:44:30.759565 25615 net.cpp:408] label_mnist_1_split <- label
I0428 19:44:30.759582 25615 net.cpp:382] label_mnist_1_split -> label_mnist_1_split_0
I0428 19:44:30.759590 25615 net.cpp:382] label_mnist_1_split -> label_mnist_1_split_1
I0428 19:44:30.759644 25615 net.cpp:124] Setting up label_mnist_1_split
I0428 19:44:30.759650 25615 net.cpp:131] Top shape: 100 (100)
I0428 19:44:30.759654 25615 net.cpp:131] Top shape: 100 (100)
I0428 19:44:30.759657 25615 net.cpp:139] Memory required for data: 314800
I0428 19:44:30.759660 25615 layer_factory.hpp:77] Creating layer conv0
I0428 19:44:30.759671 25615 net.cpp:86] Creating Layer conv0
I0428 19:44:30.759675 25615 net.cpp:408] conv0 <- data
I0428 19:44:30.759680 25615 net.cpp:382] conv0 -> conv0
I0428 19:44:30.761451 25615 net.cpp:124] Setting up conv0
I0428 19:44:30.761466 25615 net.cpp:131] Top shape: 100 2 24 24 (115200)
I0428 19:44:30.761469 25615 net.cpp:139] Memory required for data: 775600
I0428 19:44:30.761478 25615 layer_factory.hpp:77] Creating layer pool0
I0428 19:44:30.761484 25615 net.cpp:86] Creating Layer pool0
I0428 19:44:30.761487 25615 net.cpp:408] pool0 <- conv0
I0428 19:44:30.761493 25615 net.cpp:382] pool0 -> pool0
I0428 19:44:30.761531 25615 net.cpp:124] Setting up pool0
I0428 19:44:30.761538 25615 net.cpp:131] Top shape: 100 2 12 12 (28800)
I0428 19:44:30.761541 25615 net.cpp:139] Memory required for data: 890800
I0428 19:44:30.761543 25615 layer_factory.hpp:77] Creating layer conv1
I0428 19:44:30.761554 25615 net.cpp:86] Creating Layer conv1
I0428 19:44:30.761556 25615 net.cpp:408] conv1 <- pool0
I0428 19:44:30.761561 25615 net.cpp:382] conv1 -> conv1
I0428 19:44:30.763154 25615 net.cpp:124] Setting up conv1
I0428 19:44:30.763167 25615 net.cpp:131] Top shape: 100 50 8 8 (320000)
I0428 19:44:30.763171 25615 net.cpp:139] Memory required for data: 2170800
I0428 19:44:30.763180 25615 layer_factory.hpp:77] Creating layer pool1
I0428 19:44:30.763188 25615 net.cpp:86] Creating Layer pool1
I0428 19:44:30.763191 25615 net.cpp:408] pool1 <- conv1
I0428 19:44:30.763197 25615 net.cpp:382] pool1 -> pool1
I0428 19:44:30.763242 25615 net.cpp:124] Setting up pool1
I0428 19:44:30.763248 25615 net.cpp:131] Top shape: 100 50 4 4 (80000)
I0428 19:44:30.763250 25615 net.cpp:139] Memory required for data: 2490800
I0428 19:44:30.763253 25615 layer_factory.hpp:77] Creating layer ip1
I0428 19:44:30.763260 25615 net.cpp:86] Creating Layer ip1
I0428 19:44:30.763263 25615 net.cpp:408] ip1 <- pool1
I0428 19:44:30.763269 25615 net.cpp:382] ip1 -> ip1
I0428 19:44:30.763434 25615 net.cpp:124] Setting up ip1
I0428 19:44:30.763444 25615 net.cpp:131] Top shape: 100 10 (1000)
I0428 19:44:30.763483 25615 net.cpp:139] Memory required for data: 2494800
I0428 19:44:30.763492 25615 layer_factory.hpp:77] Creating layer relu1
I0428 19:44:30.763499 25615 net.cpp:86] Creating Layer relu1
I0428 19:44:30.763502 25615 net.cpp:408] relu1 <- ip1
I0428 19:44:30.763509 25615 net.cpp:369] relu1 -> ip1 (in-place)
I0428 19:44:30.763702 25615 net.cpp:124] Setting up relu1
I0428 19:44:30.763712 25615 net.cpp:131] Top shape: 100 10 (1000)
I0428 19:44:30.763715 25615 net.cpp:139] Memory required for data: 2498800
I0428 19:44:30.763720 25615 layer_factory.hpp:77] Creating layer ip2
I0428 19:44:30.763727 25615 net.cpp:86] Creating Layer ip2
I0428 19:44:30.763731 25615 net.cpp:408] ip2 <- ip1
I0428 19:44:30.763736 25615 net.cpp:382] ip2 -> ip2
I0428 19:44:30.763859 25615 net.cpp:124] Setting up ip2
I0428 19:44:30.763865 25615 net.cpp:131] Top shape: 100 50 (5000)
I0428 19:44:30.763870 25615 net.cpp:139] Memory required for data: 2518800
I0428 19:44:30.763875 25615 layer_factory.hpp:77] Creating layer relu2
I0428 19:44:30.763880 25615 net.cpp:86] Creating Layer relu2
I0428 19:44:30.763885 25615 net.cpp:408] relu2 <- ip2
I0428 19:44:30.763887 25615 net.cpp:369] relu2 -> ip2 (in-place)
I0428 19:44:30.764137 25615 net.cpp:124] Setting up relu2
I0428 19:44:30.764147 25615 net.cpp:131] Top shape: 100 50 (5000)
I0428 19:44:30.764152 25615 net.cpp:139] Memory required for data: 2538800
I0428 19:44:30.764154 25615 layer_factory.hpp:77] Creating layer ip3
I0428 19:44:30.764161 25615 net.cpp:86] Creating Layer ip3
I0428 19:44:30.764170 25615 net.cpp:408] ip3 <- ip2
I0428 19:44:30.764175 25615 net.cpp:382] ip3 -> ip3
I0428 19:44:30.764297 25615 net.cpp:124] Setting up ip3
I0428 19:44:30.764305 25615 net.cpp:131] Top shape: 100 10 (1000)
I0428 19:44:30.764308 25615 net.cpp:139] Memory required for data: 2542800
I0428 19:44:30.764320 25615 layer_factory.hpp:77] Creating layer relu3
I0428 19:44:30.764328 25615 net.cpp:86] Creating Layer relu3
I0428 19:44:30.764330 25615 net.cpp:408] relu3 <- ip3
I0428 19:44:30.764334 25615 net.cpp:369] relu3 -> ip3 (in-place)
I0428 19:44:30.765218 25615 net.cpp:124] Setting up relu3
I0428 19:44:30.765230 25615 net.cpp:131] Top shape: 100 10 (1000)
I0428 19:44:30.765233 25615 net.cpp:139] Memory required for data: 2546800
I0428 19:44:30.765236 25615 layer_factory.hpp:77] Creating layer ip3_relu3_0_split
I0428 19:44:30.765241 25615 net.cpp:86] Creating Layer ip3_relu3_0_split
I0428 19:44:30.765245 25615 net.cpp:408] ip3_relu3_0_split <- ip3
I0428 19:44:30.765250 25615 net.cpp:382] ip3_relu3_0_split -> ip3_relu3_0_split_0
I0428 19:44:30.765256 25615 net.cpp:382] ip3_relu3_0_split -> ip3_relu3_0_split_1
I0428 19:44:30.765300 25615 net.cpp:124] Setting up ip3_relu3_0_split
I0428 19:44:30.765307 25615 net.cpp:131] Top shape: 100 10 (1000)
I0428 19:44:30.765311 25615 net.cpp:131] Top shape: 100 10 (1000)
I0428 19:44:30.765313 25615 net.cpp:139] Memory required for data: 2554800
I0428 19:44:30.765316 25615 layer_factory.hpp:77] Creating layer accuracy
I0428 19:44:30.765322 25615 net.cpp:86] Creating Layer accuracy
I0428 19:44:30.765326 25615 net.cpp:408] accuracy <- ip3_relu3_0_split_0
I0428 19:44:30.765329 25615 net.cpp:408] accuracy <- label_mnist_1_split_0
I0428 19:44:30.765333 25615 net.cpp:382] accuracy -> accuracy
…
