…
I0428 20:17:40.402887   924 net.cpp:296] The NetState phase (0) differed from the phase (1) specified by a rule in layer mnist
I0428 20:17:40.402920   924 net.cpp:296] The NetState phase (0) differed from the phase (1) specified by a rule in layer accuracy
I0428 20:17:40.403003   924 net.cpp:53] Initializing net from parameters: 
name: "LeNet"
state {
  phase: TRAIN
  level: 0
  stage: ""
}
layer {
  name: "mnist"
  type: "Data"
  top: "data"
  top: "label"
  include {
    phase: TRAIN
  }
  transform_param {
    scale: 0.00390625
  }
  data_param {
    source: "examples/mnist/mnist_train_lmdb"
    batch_size: 64
    backend: LMDB
  }
}
layer {
  name: "conv0"
  type: "Convolution"
  bottom: "data"
  top: "conv0"
  param {
    lr_mult: 1
  }
  param {
    lr_mult: 2
  }
  convolution_param {
    num_output: 50
    kernel_size: 5
    stride: 1
    weight_filler {
      type: "xavier"
    }
    bias_filler {
      type: "constant"
    }
  }
}
layer {
  name: "pool0"
  type: "Pooling"
  bottom: "conv0"
  top: "pool0"
  pooling_param {
    pool: MAX
    kernel_size: 2
    stride: 2
  }
}
layer {
  name: "conv1"
  type: "Convolution"
  bottom: "pool0"
  top: "conv1"
  param {
    lr_mult: 1
  }
  param {
    lr_mult: 2
  }
  convolution_param {
    num_output: 10
    kernel_size: 5
    stride: 1
    weight_filler {
      type: "xavier"
    }
    bias_filler {
      type: "constant"
    }
  }
}
layer {
  name: "pool1"
  type: "Pooling"
  bottom: "conv1"
  top: "pool1"
  pooling_param {
    pool: MAX
    kernel_size: 2
    stride: 2
  }
}
layer {
  name: "ip1"
  type: "InnerProduct"
  bottom: "pool1"
  top: "ip1"
  param {
    lr_mult: 1
  }
  param {
    lr_mult: 2
  }
  inner_product_param {
    num_output: 10
    weight_filler {
      type: "xavier"
    }
    bias_filler {
      type: "constant"
    }
  }
}
layer {
  name: "relu1"
  type: "ReLU"
  bottom: "ip1"
  top: "ip1"
}
layer {
  name: "ip2"
  type: "InnerProduct"
  bottom: "ip1"
  top: "ip2"
  param {
    lr_mult: 1
  }
  param {
    lr_mult: 2
  }
  inner_product_param {
    num_output: 10
    weight_filler {
      type: "xavier"
    }
    bias_filler {
      type: "constant"
    }
  }
}
layer {
  name: "relu2"
  type: "ReLU"
  bottom: "ip2"
  top: "ip2"
}
layer {
  name: "ip3"
  type: "InnerProduct"
  bottom: "ip2"
  top: "ip3"
  param {
    lr_mult: 1
  }
  param {
    lr_mult: 2
  }
  inner_product_param {
    num_output: 10
    weight_filler {
      type: "xavier"
    }
    bias_filler {
      type: "constant"
    }
  }
}
layer {
  name: "relu3"
  type: "ReLU"
  bottom: "ip3"
  top: "ip3"
}
layer {
  name: "loss"
  type: "SoftmaxWithLoss"
  bottom: "ip3"
  bottom: "label"
  top: "loss"
}
I0428 20:17:40.403085   924 layer_factory.hpp:77] Creating layer mnist
I0428 20:17:40.403183   924 db_lmdb.cpp:35] Opened lmdb examples/mnist/mnist_train_lmdb
I0428 20:17:40.403205   924 net.cpp:86] Creating Layer mnist
I0428 20:17:40.403211   924 net.cpp:382] mnist -> data
I0428 20:17:40.403229   924 net.cpp:382] mnist -> label
I0428 20:17:40.404274   924 data_layer.cpp:45] output data size: 64,1,28,28
I0428 20:17:40.406417   924 net.cpp:124] Setting up mnist
I0428 20:17:40.406446   924 net.cpp:131] Top shape: 64 1 28 28 (50176)
I0428 20:17:40.406452   924 net.cpp:131] Top shape: 64 (64)
I0428 20:17:40.406455   924 net.cpp:139] Memory required for data: 200960
I0428 20:17:40.406461   924 layer_factory.hpp:77] Creating layer conv0
I0428 20:17:40.406474   924 net.cpp:86] Creating Layer conv0
I0428 20:17:40.406491   924 net.cpp:408] conv0 <- data
I0428 20:17:40.406502   924 net.cpp:382] conv0 -> conv0
I0428 20:17:40.642858   924 net.cpp:124] Setting up conv0
I0428 20:17:40.642899   924 net.cpp:131] Top shape: 64 50 24 24 (1843200)
I0428 20:17:40.642902   924 net.cpp:139] Memory required for data: 7573760
I0428 20:17:40.642917   924 layer_factory.hpp:77] Creating layer pool0
I0428 20:17:40.642945   924 net.cpp:86] Creating Layer pool0
I0428 20:17:40.642963   924 net.cpp:408] pool0 <- conv0
I0428 20:17:40.642968   924 net.cpp:382] pool0 -> pool0
I0428 20:17:40.643014   924 net.cpp:124] Setting up pool0
I0428 20:17:40.643021   924 net.cpp:131] Top shape: 64 50 12 12 (460800)
I0428 20:17:40.643024   924 net.cpp:139] Memory required for data: 9416960
I0428 20:17:40.643028   924 layer_factory.hpp:77] Creating layer conv1
I0428 20:17:40.643038   924 net.cpp:86] Creating Layer conv1
I0428 20:17:40.643041   924 net.cpp:408] conv1 <- pool0
I0428 20:17:40.643045   924 net.cpp:382] conv1 -> conv1
I0428 20:17:40.645941   924 net.cpp:124] Setting up conv1
I0428 20:17:40.645970   924 net.cpp:131] Top shape: 64 10 8 8 (40960)
I0428 20:17:40.645973   924 net.cpp:139] Memory required for data: 9580800
I0428 20:17:40.645982   924 layer_factory.hpp:77] Creating layer pool1
I0428 20:17:40.645989   924 net.cpp:86] Creating Layer pool1
I0428 20:17:40.645992   924 net.cpp:408] pool1 <- conv1
I0428 20:17:40.645998   924 net.cpp:382] pool1 -> pool1
I0428 20:17:40.646033   924 net.cpp:124] Setting up pool1
I0428 20:17:40.646037   924 net.cpp:131] Top shape: 64 10 4 4 (10240)
I0428 20:17:40.646040   924 net.cpp:139] Memory required for data: 9621760
I0428 20:17:40.646044   924 layer_factory.hpp:77] Creating layer ip1
I0428 20:17:40.646049   924 net.cpp:86] Creating Layer ip1
I0428 20:17:40.646052   924 net.cpp:408] ip1 <- pool1
I0428 20:17:40.646056   924 net.cpp:382] ip1 -> ip1
I0428 20:17:40.646173   924 net.cpp:124] Setting up ip1
I0428 20:17:40.646181   924 net.cpp:131] Top shape: 64 10 (640)
I0428 20:17:40.646184   924 net.cpp:139] Memory required for data: 9624320
I0428 20:17:40.646191   924 layer_factory.hpp:77] Creating layer relu1
I0428 20:17:40.646196   924 net.cpp:86] Creating Layer relu1
I0428 20:17:40.646199   924 net.cpp:408] relu1 <- ip1
I0428 20:17:40.646204   924 net.cpp:369] relu1 -> ip1 (in-place)
I0428 20:17:40.646363   924 net.cpp:124] Setting up relu1
I0428 20:17:40.646370   924 net.cpp:131] Top shape: 64 10 (640)
I0428 20:17:40.646373   924 net.cpp:139] Memory required for data: 9626880
I0428 20:17:40.646376   924 layer_factory.hpp:77] Creating layer ip2
I0428 20:17:40.646383   924 net.cpp:86] Creating Layer ip2
I0428 20:17:40.646385   924 net.cpp:408] ip2 <- ip1
I0428 20:17:40.646404   924 net.cpp:382] ip2 -> ip2
I0428 20:17:40.646507   924 net.cpp:124] Setting up ip2
I0428 20:17:40.646512   924 net.cpp:131] Top shape: 64 10 (640)
I0428 20:17:40.646515   924 net.cpp:139] Memory required for data: 9629440
I0428 20:17:40.646520   924 layer_factory.hpp:77] Creating layer relu2
I0428 20:17:40.646526   924 net.cpp:86] Creating Layer relu2
I0428 20:17:40.646529   924 net.cpp:408] relu2 <- ip2
I0428 20:17:40.646533   924 net.cpp:369] relu2 -> ip2 (in-place)
I0428 20:17:40.647294   924 net.cpp:124] Setting up relu2
I0428 20:17:40.647322   924 net.cpp:131] Top shape: 64 10 (640)
I0428 20:17:40.647326   924 net.cpp:139] Memory required for data: 9632000
I0428 20:17:40.647330   924 layer_factory.hpp:77] Creating layer ip3
I0428 20:17:40.647336   924 net.cpp:86] Creating Layer ip3
I0428 20:17:40.647339   924 net.cpp:408] ip3 <- ip2
I0428 20:17:40.647344   924 net.cpp:382] ip3 -> ip3
I0428 20:17:40.647436   924 net.cpp:124] Setting up ip3
I0428 20:17:40.647444   924 net.cpp:131] Top shape: 64 10 (640)
I0428 20:17:40.647446   924 net.cpp:139] Memory required for data: 9634560
I0428 20:17:40.647454   924 layer_factory.hpp:77] Creating layer relu3
I0428 20:17:40.647459   924 net.cpp:86] Creating Layer relu3
I0428 20:17:40.647461   924 net.cpp:408] relu3 <- ip3
I0428 20:17:40.647465   924 net.cpp:369] relu3 -> ip3 (in-place)
I0428 20:17:40.647632   924 net.cpp:124] Setting up relu3
I0428 20:17:40.647641   924 net.cpp:131] Top shape: 64 10 (640)
I0428 20:17:40.647644   924 net.cpp:139] Memory required for data: 9637120
I0428 20:17:40.647646   924 layer_factory.hpp:77] Creating layer loss
I0428 20:17:40.647652   924 net.cpp:86] Creating Layer loss
I0428 20:17:40.647656   924 net.cpp:408] loss <- ip3
I0428 20:17:40.647660   924 net.cpp:408] loss <- label
I0428 20:17:40.647665   924 net.cpp:382] loss -> loss
I0428 20:17:40.647696   924 layer_factory.hpp:77] Creating layer loss
…
I0428 20:17:40.648334   924 solver.cpp:173] Creating test net (#0) specified by net file: ECE595/mnist/train_test/var_everything2/lenet_train_test1300.prototxt
I0428 20:17:40.648360   924 net.cpp:296] The NetState phase (1) differed from the phase (0) specified by a rule in layer mnist
I0428 20:17:40.648452   924 net.cpp:53] Initializing net from parameters: 
name: "LeNet"
state {
  phase: TEST
}
layer {
  name: "mnist"
  type: "Data"
  top: "data"
  top: "label"
  include {
    phase: TEST
  }
  transform_param {
    scale: 0.00390625
  }
  data_param {
    source: "examples/mnist/mnist_test_lmdb"
    batch_size: 100
    backend: LMDB
  }
}
layer {
  name: "conv0"
  type: "Convolution"
  bottom: "data"
  top: "conv0"
  param {
    lr_mult: 1
  }
  param {
    lr_mult: 2
  }
  convolution_param {
    num_output: 50
    kernel_size: 5
    stride: 1
    weight_filler {
      type: "xavier"
    }
    bias_filler {
      type: "constant"
    }
  }
}
layer {
  name: "pool0"
  type: "Pooling"
  bottom: "conv0"
  top: "pool0"
  pooling_param {
    pool: MAX
    kernel_size: 2
    stride: 2
  }
}
layer {
  name: "conv1"
  type: "Convolution"
  bottom: "pool0"
  top: "conv1"
  param {
    lr_mult: 1
  }
  param {
    lr_mult: 2
  }
  convolution_param {
    num_output: 10
    kernel_size: 5
    stride: 1
    weight_filler {
      type: "xavier"
    }
    bias_filler {
      type: "constant"
    }
  }
}
layer {
  name: "pool1"
  type: "Pooling"
  bottom: "conv1"
  top: "pool1"
  pooling_param {
    pool: MAX
    kernel_size: 2
    stride: 2
  }
}
layer {
  name: "ip1"
  type: "InnerProduct"
  bottom: "pool1"
  top: "ip1"
  param {
    lr_mult: 1
  }
  param {
    lr_mult: 2
  }
  inner_product_param {
    num_output: 10
    weight_filler {
      type: "xavier"
    }
    bias_filler {
      type: "constant"
    }
  }
}
layer {
  name: "relu1"
  type: "ReLU"
  bottom: "ip1"
  top: "ip1"
}
layer {
  name: "ip2"
  type: "InnerProduct"
  bottom: "ip1"
  top: "ip2"
  param {
    lr_mult: 1
  }
  param {
    lr_mult: 2
  }
  inner_product_param {
    num_output: 10
    weight_filler {
      type: "xavier"
    }
    bias_filler {
      type: "constant"
    }
  }
}
layer {
  name: "relu2"
  type: "ReLU"
  bottom: "ip2"
  top: "ip2"
}
layer {
  name: "ip3"
  type: "InnerProduct"
  bottom: "ip2"
  top: "ip3"
  param {
    lr_mult: 1
  }
  param {
    lr_mult: 2
  }
  inner_product_param {
    num_output: 10
    weight_filler {
      type: "xavier"
    }
    bias_filler {
      type: "constant"
    }
  }
}
layer {
  name: "relu3"
  type: "ReLU"
  bottom: "ip3"
  top: "ip3"
}
layer {
  name: "accuracy"
  type: "Accuracy"
  bottom: "ip3"
  bottom: "label"
  top: "accuracy"
  include {
    phase: TEST
  }
}
layer {
  name: "loss"
  type: "SoftmaxWithLoss"
  bottom: "ip3"
  bottom: "label"
  top: "loss"
}
I0428 20:17:40.648528   924 layer_factory.hpp:77] Creating layer mnist
I0428 20:17:40.648571   924 db_lmdb.cpp:35] Opened lmdb examples/mnist/mnist_test_lmdb
I0428 20:17:40.648582   924 net.cpp:86] Creating Layer mnist
I0428 20:17:40.648586   924 net.cpp:382] mnist -> data
I0428 20:17:40.648594   924 net.cpp:382] mnist -> label
I0428 20:17:40.648701   924 data_layer.cpp:45] output data size: 100,1,28,28
I0428 20:17:40.650842   924 net.cpp:124] Setting up mnist
I0428 20:17:40.650871   924 net.cpp:131] Top shape: 100 1 28 28 (78400)
I0428 20:17:40.650876   924 net.cpp:131] Top shape: 100 (100)
I0428 20:17:40.650880   924 net.cpp:139] Memory required for data: 314000
I0428 20:17:40.650883   924 layer_factory.hpp:77] Creating layer label_mnist_1_split
I0428 20:17:40.650890   924 net.cpp:86] Creating Layer label_mnist_1_split
I0428 20:17:40.650893   924 net.cpp:408] label_mnist_1_split <- label
I0428 20:17:40.650897   924 net.cpp:382] label_mnist_1_split -> label_mnist_1_split_0
I0428 20:17:40.650903   924 net.cpp:382] label_mnist_1_split -> label_mnist_1_split_1
I0428 20:17:40.650956   924 net.cpp:124] Setting up label_mnist_1_split
I0428 20:17:40.650962   924 net.cpp:131] Top shape: 100 (100)
I0428 20:17:40.650965   924 net.cpp:131] Top shape: 100 (100)
I0428 20:17:40.650969   924 net.cpp:139] Memory required for data: 314800
I0428 20:17:40.650971   924 layer_factory.hpp:77] Creating layer conv0
I0428 20:17:40.650979   924 net.cpp:86] Creating Layer conv0
I0428 20:17:40.650981   924 net.cpp:408] conv0 <- data
I0428 20:17:40.650986   924 net.cpp:382] conv0 -> conv0
I0428 20:17:40.652530   924 net.cpp:124] Setting up conv0
I0428 20:17:40.652544   924 net.cpp:131] Top shape: 100 50 24 24 (2880000)
I0428 20:17:40.652547   924 net.cpp:139] Memory required for data: 11834800
I0428 20:17:40.652556   924 layer_factory.hpp:77] Creating layer pool0
I0428 20:17:40.652562   924 net.cpp:86] Creating Layer pool0
I0428 20:17:40.652565   924 net.cpp:408] pool0 <- conv0
I0428 20:17:40.652570   924 net.cpp:382] pool0 -> pool0
I0428 20:17:40.652604   924 net.cpp:124] Setting up pool0
I0428 20:17:40.652609   924 net.cpp:131] Top shape: 100 50 12 12 (720000)
I0428 20:17:40.652612   924 net.cpp:139] Memory required for data: 14714800
I0428 20:17:40.652614   924 layer_factory.hpp:77] Creating layer conv1
I0428 20:17:40.652622   924 net.cpp:86] Creating Layer conv1
I0428 20:17:40.652626   924 net.cpp:408] conv1 <- pool0
I0428 20:17:40.652629   924 net.cpp:382] conv1 -> conv1
I0428 20:17:40.654279   924 net.cpp:124] Setting up conv1
I0428 20:17:40.654294   924 net.cpp:131] Top shape: 100 10 8 8 (64000)
I0428 20:17:40.654304   924 net.cpp:139] Memory required for data: 14970800
I0428 20:17:40.654311   924 layer_factory.hpp:77] Creating layer pool1
I0428 20:17:40.654320   924 net.cpp:86] Creating Layer pool1
I0428 20:17:40.654325   924 net.cpp:408] pool1 <- conv1
I0428 20:17:40.654330   924 net.cpp:382] pool1 -> pool1
I0428 20:17:40.654381   924 net.cpp:124] Setting up pool1
I0428 20:17:40.654387   924 net.cpp:131] Top shape: 100 10 4 4 (16000)
I0428 20:17:40.654391   924 net.cpp:139] Memory required for data: 15034800
I0428 20:17:40.654393   924 layer_factory.hpp:77] Creating layer ip1
I0428 20:17:40.654398   924 net.cpp:86] Creating Layer ip1
I0428 20:17:40.654417   924 net.cpp:408] ip1 <- pool1
I0428 20:17:40.654422   924 net.cpp:382] ip1 -> ip1
I0428 20:17:40.654531   924 net.cpp:124] Setting up ip1
I0428 20:17:40.654538   924 net.cpp:131] Top shape: 100 10 (1000)
I0428 20:17:40.654553   924 net.cpp:139] Memory required for data: 15038800
I0428 20:17:40.654561   924 layer_factory.hpp:77] Creating layer relu1
I0428 20:17:40.654567   924 net.cpp:86] Creating Layer relu1
I0428 20:17:40.654570   924 net.cpp:408] relu1 <- ip1
I0428 20:17:40.654575   924 net.cpp:369] relu1 -> ip1 (in-place)
I0428 20:17:40.654765   924 net.cpp:124] Setting up relu1
I0428 20:17:40.654790   924 net.cpp:131] Top shape: 100 10 (1000)
I0428 20:17:40.654793   924 net.cpp:139] Memory required for data: 15042800
I0428 20:17:40.654796   924 layer_factory.hpp:77] Creating layer ip2
I0428 20:17:40.654814   924 net.cpp:86] Creating Layer ip2
I0428 20:17:40.654816   924 net.cpp:408] ip2 <- ip1
I0428 20:17:40.654821   924 net.cpp:382] ip2 -> ip2
I0428 20:17:40.654917   924 net.cpp:124] Setting up ip2
I0428 20:17:40.654924   924 net.cpp:131] Top shape: 100 10 (1000)
I0428 20:17:40.654927   924 net.cpp:139] Memory required for data: 15046800
I0428 20:17:40.654932   924 layer_factory.hpp:77] Creating layer relu2
I0428 20:17:40.654937   924 net.cpp:86] Creating Layer relu2
I0428 20:17:40.654947   924 net.cpp:408] relu2 <- ip2
I0428 20:17:40.654953   924 net.cpp:369] relu2 -> ip2 (in-place)
I0428 20:17:40.655133   924 net.cpp:124] Setting up relu2
I0428 20:17:40.655141   924 net.cpp:131] Top shape: 100 10 (1000)
I0428 20:17:40.655144   924 net.cpp:139] Memory required for data: 15050800
I0428 20:17:40.655154   924 layer_factory.hpp:77] Creating layer ip3
I0428 20:17:40.655159   924 net.cpp:86] Creating Layer ip3
I0428 20:17:40.655163   924 net.cpp:408] ip3 <- ip2
I0428 20:17:40.655175   924 net.cpp:382] ip3 -> ip3
I0428 20:17:40.655292   924 net.cpp:124] Setting up ip3
I0428 20:17:40.655299   924 net.cpp:131] Top shape: 100 10 (1000)
I0428 20:17:40.655303   924 net.cpp:139] Memory required for data: 15054800
I0428 20:17:40.655310   924 layer_factory.hpp:77] Creating layer relu3
I0428 20:17:40.655316   924 net.cpp:86] Creating Layer relu3
I0428 20:17:40.655319   924 net.cpp:408] relu3 <- ip3
I0428 20:17:40.655339   924 net.cpp:369] relu3 -> ip3 (in-place)
I0428 20:17:40.656216   924 net.cpp:124] Setting up relu3
I0428 20:17:40.656229   924 net.cpp:131] Top shape: 100 10 (1000)
I0428 20:17:40.656231   924 net.cpp:139] Memory required for data: 15058800
I0428 20:17:40.656235   924 layer_factory.hpp:77] Creating layer ip3_relu3_0_split
I0428 20:17:40.656241   924 net.cpp:86] Creating Layer ip3_relu3_0_split
I0428 20:17:40.656244   924 net.cpp:408] ip3_relu3_0_split <- ip3
I0428 20:17:40.656250   924 net.cpp:382] ip3_relu3_0_split -> ip3_relu3_0_split_0
I0428 20:17:40.656255   924 net.cpp:382] ip3_relu3_0_split -> ip3_relu3_0_split_1
I0428 20:17:40.656292   924 net.cpp:124] Setting up ip3_relu3_0_split
I0428 20:17:40.656298   924 net.cpp:131] Top shape: 100 10 (1000)
I0428 20:17:40.656301   924 net.cpp:131] Top shape: 100 10 (1000)
I0428 20:17:40.656303   924 net.cpp:139] Memory required for data: 15066800
I0428 20:17:40.656306   924 layer_factory.hpp:77] Creating layer accuracy
I0428 20:17:40.656314   924 net.cpp:86] Creating Layer accuracy
I0428 20:17:40.656317   924 net.cpp:408] accuracy <- ip3_relu3_0_split_0
I0428 20:17:40.656322   924 net.cpp:408] accuracy <- label_mnist_1_split_0
I0428 20:17:40.656327   924 net.cpp:382] accuracy -> accuracy
…
