…
I0428 20:37:44.136620  4988 net.cpp:296] The NetState phase (0) differed from the phase (1) specified by a rule in layer mnist
I0428 20:37:44.136637  4988 net.cpp:296] The NetState phase (0) differed from the phase (1) specified by a rule in layer accuracy
I0428 20:37:44.136740  4988 net.cpp:53] Initializing net from parameters: 
name: "LeNet"
state {
  phase: TRAIN
  level: 0
  stage: ""
}
layer {
  name: "mnist"
  type: "Data"
  top: "data"
  top: "label"
  include {
    phase: TRAIN
  }
  transform_param {
    scale: 0.00390625
  }
  data_param {
    source: "examples/mnist/mnist_train_lmdb"
    batch_size: 64
    backend: LMDB
  }
}
layer {
  name: "conv0"
  type: "Convolution"
  bottom: "data"
  top: "conv0"
  param {
    lr_mult: 1
  }
  param {
    lr_mult: 2
  }
  convolution_param {
    num_output: 100
    kernel_size: 5
    stride: 1
    weight_filler {
      type: "xavier"
    }
    bias_filler {
      type: "constant"
    }
  }
}
layer {
  name: "pool0"
  type: "Pooling"
  bottom: "conv0"
  top: "pool0"
  pooling_param {
    pool: MAX
    kernel_size: 2
    stride: 2
  }
}
layer {
  name: "conv1"
  type: "Convolution"
  bottom: "pool0"
  top: "conv1"
  param {
    lr_mult: 1
  }
  param {
    lr_mult: 2
  }
  convolution_param {
    num_output: 100
    kernel_size: 5
    stride: 1
    weight_filler {
      type: "xavier"
    }
    bias_filler {
      type: "constant"
    }
  }
}
layer {
  name: "pool1"
  type: "Pooling"
  bottom: "conv1"
  top: "pool1"
  pooling_param {
    pool: MAX
    kernel_size: 2
    stride: 2
  }
}
layer {
  name: "ip1"
  type: "InnerProduct"
  bottom: "pool1"
  top: "ip1"
  param {
    lr_mult: 1
  }
  param {
    lr_mult: 2
  }
  inner_product_param {
    num_output: 10
    weight_filler {
      type: "xavier"
    }
    bias_filler {
      type: "constant"
    }
  }
}
layer {
  name: "relu1"
  type: "ReLU"
  bottom: "ip1"
  top: "ip1"
}
layer {
  name: "ip2"
  type: "InnerProduct"
  bottom: "ip1"
  top: "ip2"
  param {
    lr_mult: 1
  }
  param {
    lr_mult: 2
  }
  inner_product_param {
    num_output: 25
    weight_filler {
      type: "xavier"
    }
    bias_filler {
      type: "constant"
    }
  }
}
layer {
  name: "relu2"
  type: "ReLU"
  bottom: "ip2"
  top: "ip2"
}
layer {
  name: "ip3"
  type: "InnerProduct"
  bottom: "ip2"
  top: "ip3"
  param {
    lr_mult: 1
  }
  param {
    lr_mult: 2
  }
  inner_product_param {
    num_output: 10
    weight_filler {
      type: "xavier"
    }
    bias_filler {
      type: "constant"
    }
  }
}
layer {
  name: "relu3"
  type: "ReLU"
  bottom: "ip3"
  top: "ip3"
}
layer {
  name: "loss"
  type: "SoftmaxWithLoss"
  bottom: "ip3"
  bottom: "label"
  top: "loss"
}
I0428 20:37:44.136832  4988 layer_factory.hpp:77] Creating layer mnist
I0428 20:37:44.136934  4988 db_lmdb.cpp:35] Opened lmdb examples/mnist/mnist_train_lmdb
I0428 20:37:44.136957  4988 net.cpp:86] Creating Layer mnist
I0428 20:37:44.136967  4988 net.cpp:382] mnist -> data
I0428 20:37:44.136991  4988 net.cpp:382] mnist -> label
I0428 20:37:44.138080  4988 data_layer.cpp:45] output data size: 64,1,28,28
I0428 20:37:44.140911  4988 net.cpp:124] Setting up mnist
I0428 20:37:44.140952  4988 net.cpp:131] Top shape: 64 1 28 28 (50176)
I0428 20:37:44.140967  4988 net.cpp:131] Top shape: 64 (64)
I0428 20:37:44.140972  4988 net.cpp:139] Memory required for data: 200960
I0428 20:37:44.140980  4988 layer_factory.hpp:77] Creating layer conv0
I0428 20:37:44.140997  4988 net.cpp:86] Creating Layer conv0
I0428 20:37:44.141017  4988 net.cpp:408] conv0 <- data
I0428 20:37:44.141034  4988 net.cpp:382] conv0 -> conv0
I0428 20:37:44.404371  4988 net.cpp:124] Setting up conv0
I0428 20:37:44.404412  4988 net.cpp:131] Top shape: 64 100 24 24 (3686400)
I0428 20:37:44.404417  4988 net.cpp:139] Memory required for data: 14946560
I0428 20:37:44.404433  4988 layer_factory.hpp:77] Creating layer pool0
I0428 20:37:44.404445  4988 net.cpp:86] Creating Layer pool0
I0428 20:37:44.404449  4988 net.cpp:408] pool0 <- conv0
I0428 20:37:44.404454  4988 net.cpp:382] pool0 -> pool0
I0428 20:37:44.404517  4988 net.cpp:124] Setting up pool0
I0428 20:37:44.404525  4988 net.cpp:131] Top shape: 64 100 12 12 (921600)
I0428 20:37:44.404527  4988 net.cpp:139] Memory required for data: 18632960
I0428 20:37:44.404531  4988 layer_factory.hpp:77] Creating layer conv1
I0428 20:37:44.404541  4988 net.cpp:86] Creating Layer conv1
I0428 20:37:44.404546  4988 net.cpp:408] conv1 <- pool0
I0428 20:37:44.404567  4988 net.cpp:382] conv1 -> conv1
I0428 20:37:44.408613  4988 net.cpp:124] Setting up conv1
I0428 20:37:44.408643  4988 net.cpp:131] Top shape: 64 100 8 8 (409600)
I0428 20:37:44.408648  4988 net.cpp:139] Memory required for data: 20271360
I0428 20:37:44.408655  4988 layer_factory.hpp:77] Creating layer pool1
I0428 20:37:44.408663  4988 net.cpp:86] Creating Layer pool1
I0428 20:37:44.408666  4988 net.cpp:408] pool1 <- conv1
I0428 20:37:44.408670  4988 net.cpp:382] pool1 -> pool1
I0428 20:37:44.408705  4988 net.cpp:124] Setting up pool1
I0428 20:37:44.408710  4988 net.cpp:131] Top shape: 64 100 4 4 (102400)
I0428 20:37:44.408713  4988 net.cpp:139] Memory required for data: 20680960
I0428 20:37:44.408716  4988 layer_factory.hpp:77] Creating layer ip1
I0428 20:37:44.408722  4988 net.cpp:86] Creating Layer ip1
I0428 20:37:44.408725  4988 net.cpp:408] ip1 <- pool1
I0428 20:37:44.408730  4988 net.cpp:382] ip1 -> ip1
I0428 20:37:44.409883  4988 net.cpp:124] Setting up ip1
I0428 20:37:44.409896  4988 net.cpp:131] Top shape: 64 10 (640)
I0428 20:37:44.409915  4988 net.cpp:139] Memory required for data: 20683520
I0428 20:37:44.409924  4988 layer_factory.hpp:77] Creating layer relu1
I0428 20:37:44.409930  4988 net.cpp:86] Creating Layer relu1
I0428 20:37:44.409934  4988 net.cpp:408] relu1 <- ip1
I0428 20:37:44.409939  4988 net.cpp:369] relu1 -> ip1 (in-place)
I0428 20:37:44.410114  4988 net.cpp:124] Setting up relu1
I0428 20:37:44.410122  4988 net.cpp:131] Top shape: 64 10 (640)
I0428 20:37:44.410126  4988 net.cpp:139] Memory required for data: 20686080
I0428 20:37:44.410130  4988 layer_factory.hpp:77] Creating layer ip2
I0428 20:37:44.410135  4988 net.cpp:86] Creating Layer ip2
I0428 20:37:44.410138  4988 net.cpp:408] ip2 <- ip1
I0428 20:37:44.410143  4988 net.cpp:382] ip2 -> ip2
I0428 20:37:44.410249  4988 net.cpp:124] Setting up ip2
I0428 20:37:44.410256  4988 net.cpp:131] Top shape: 64 25 (1600)
I0428 20:37:44.410260  4988 net.cpp:139] Memory required for data: 20692480
I0428 20:37:44.410265  4988 layer_factory.hpp:77] Creating layer relu2
I0428 20:37:44.410272  4988 net.cpp:86] Creating Layer relu2
I0428 20:37:44.410275  4988 net.cpp:408] relu2 <- ip2
I0428 20:37:44.410279  4988 net.cpp:369] relu2 -> ip2 (in-place)
I0428 20:37:44.411043  4988 net.cpp:124] Setting up relu2
I0428 20:37:44.411056  4988 net.cpp:131] Top shape: 64 25 (1600)
I0428 20:37:44.411074  4988 net.cpp:139] Memory required for data: 20698880
I0428 20:37:44.411077  4988 layer_factory.hpp:77] Creating layer ip3
I0428 20:37:44.411085  4988 net.cpp:86] Creating Layer ip3
I0428 20:37:44.411088  4988 net.cpp:408] ip3 <- ip2
I0428 20:37:44.411093  4988 net.cpp:382] ip3 -> ip3
I0428 20:37:44.411202  4988 net.cpp:124] Setting up ip3
I0428 20:37:44.411209  4988 net.cpp:131] Top shape: 64 10 (640)
I0428 20:37:44.411212  4988 net.cpp:139] Memory required for data: 20701440
I0428 20:37:44.411221  4988 layer_factory.hpp:77] Creating layer relu3
I0428 20:37:44.411226  4988 net.cpp:86] Creating Layer relu3
I0428 20:37:44.411228  4988 net.cpp:408] relu3 <- ip3
I0428 20:37:44.411278  4988 net.cpp:369] relu3 -> ip3 (in-place)
I0428 20:37:44.411433  4988 net.cpp:124] Setting up relu3
I0428 20:37:44.411442  4988 net.cpp:131] Top shape: 64 10 (640)
I0428 20:37:44.411447  4988 net.cpp:139] Memory required for data: 20704000
I0428 20:37:44.411449  4988 layer_factory.hpp:77] Creating layer loss
I0428 20:37:44.411455  4988 net.cpp:86] Creating Layer loss
I0428 20:37:44.411458  4988 net.cpp:408] loss <- ip3
I0428 20:37:44.411463  4988 net.cpp:408] loss <- label
I0428 20:37:44.411468  4988 net.cpp:382] loss -> loss
I0428 20:37:44.411487  4988 layer_factory.hpp:77] Creating layer loss
…
I0428 20:37:44.412125  4988 solver.cpp:173] Creating test net (#0) specified by net file: ECE595/mnist/train_test/var_everything2/lenet_train_test1655.prototxt
I0428 20:37:44.412180  4988 net.cpp:296] The NetState phase (1) differed from the phase (0) specified by a rule in layer mnist
I0428 20:37:44.412282  4988 net.cpp:53] Initializing net from parameters: 
name: "LeNet"
state {
  phase: TEST
}
layer {
  name: "mnist"
  type: "Data"
  top: "data"
  top: "label"
  include {
    phase: TEST
  }
  transform_param {
    scale: 0.00390625
  }
  data_param {
    source: "examples/mnist/mnist_test_lmdb"
    batch_size: 100
    backend: LMDB
  }
}
layer {
  name: "conv0"
  type: "Convolution"
  bottom: "data"
  top: "conv0"
  param {
    lr_mult: 1
  }
  param {
    lr_mult: 2
  }
  convolution_param {
    num_output: 100
    kernel_size: 5
    stride: 1
    weight_filler {
      type: "xavier"
    }
    bias_filler {
      type: "constant"
    }
  }
}
layer {
  name: "pool0"
  type: "Pooling"
  bottom: "conv0"
  top: "pool0"
  pooling_param {
    pool: MAX
    kernel_size: 2
    stride: 2
  }
}
layer {
  name: "conv1"
  type: "Convolution"
  bottom: "pool0"
  top: "conv1"
  param {
    lr_mult: 1
  }
  param {
    lr_mult: 2
  }
  convolution_param {
    num_output: 100
    kernel_size: 5
    stride: 1
    weight_filler {
      type: "xavier"
    }
    bias_filler {
      type: "constant"
    }
  }
}
layer {
  name: "pool1"
  type: "Pooling"
  bottom: "conv1"
  top: "pool1"
  pooling_param {
    pool: MAX
    kernel_size: 2
    stride: 2
  }
}
layer {
  name: "ip1"
  type: "InnerProduct"
  bottom: "pool1"
  top: "ip1"
  param {
    lr_mult: 1
  }
  param {
    lr_mult: 2
  }
  inner_product_param {
    num_output: 10
    weight_filler {
      type: "xavier"
    }
    bias_filler {
      type: "constant"
    }
  }
}
layer {
  name: "relu1"
  type: "ReLU"
  bottom: "ip1"
  top: "ip1"
}
layer {
  name: "ip2"
  type: "InnerProduct"
  bottom: "ip1"
  top: "ip2"
  param {
    lr_mult: 1
  }
  param {
    lr_mult: 2
  }
  inner_product_param {
    num_output: 25
    weight_filler {
      type: "xavier"
    }
    bias_filler {
      type: "constant"
    }
  }
}
layer {
  name: "relu2"
  type: "ReLU"
  bottom: "ip2"
  top: "ip2"
}
layer {
  name: "ip3"
  type: "InnerProduct"
  bottom: "ip2"
  top: "ip3"
  param {
    lr_mult: 1
  }
  param {
    lr_mult: 2
  }
  inner_product_param {
    num_output: 10
    weight_filler {
      type: "xavier"
    }
    bias_filler {
      type: "constant"
    }
  }
}
layer {
  name: "relu3"
  type: "ReLU"
  bottom: "ip3"
  top: "ip3"
}
layer {
  name: "accuracy"
  type: "Accuracy"
  bottom: "ip3"
  bottom: "label"
  top: "accuracy"
  include {
    phase: TEST
  }
}
layer {
  name: "loss"
  type: "SoftmaxWithLoss"
  bottom: "ip3"
  bottom: "label"
  top: "loss"
}
I0428 20:37:44.412374  4988 layer_factory.hpp:77] Creating layer mnist
I0428 20:37:44.412417  4988 db_lmdb.cpp:35] Opened lmdb examples/mnist/mnist_test_lmdb
I0428 20:37:44.412431  4988 net.cpp:86] Creating Layer mnist
I0428 20:37:44.412434  4988 net.cpp:382] mnist -> data
I0428 20:37:44.412441  4988 net.cpp:382] mnist -> label
I0428 20:37:44.412525  4988 data_layer.cpp:45] output data size: 100,1,28,28
I0428 20:37:44.414677  4988 net.cpp:124] Setting up mnist
I0428 20:37:44.414706  4988 net.cpp:131] Top shape: 100 1 28 28 (78400)
I0428 20:37:44.414711  4988 net.cpp:131] Top shape: 100 (100)
I0428 20:37:44.414714  4988 net.cpp:139] Memory required for data: 314000
I0428 20:37:44.414718  4988 layer_factory.hpp:77] Creating layer label_mnist_1_split
I0428 20:37:44.414754  4988 net.cpp:86] Creating Layer label_mnist_1_split
I0428 20:37:44.414759  4988 net.cpp:408] label_mnist_1_split <- label
I0428 20:37:44.414764  4988 net.cpp:382] label_mnist_1_split -> label_mnist_1_split_0
I0428 20:37:44.414770  4988 net.cpp:382] label_mnist_1_split -> label_mnist_1_split_1
I0428 20:37:44.414899  4988 net.cpp:124] Setting up label_mnist_1_split
I0428 20:37:44.414906  4988 net.cpp:131] Top shape: 100 (100)
I0428 20:37:44.414911  4988 net.cpp:131] Top shape: 100 (100)
I0428 20:37:44.414913  4988 net.cpp:139] Memory required for data: 314800
I0428 20:37:44.414916  4988 layer_factory.hpp:77] Creating layer conv0
I0428 20:37:44.414924  4988 net.cpp:86] Creating Layer conv0
I0428 20:37:44.414927  4988 net.cpp:408] conv0 <- data
I0428 20:37:44.414932  4988 net.cpp:382] conv0 -> conv0
I0428 20:37:44.416596  4988 net.cpp:124] Setting up conv0
I0428 20:37:44.416610  4988 net.cpp:131] Top shape: 100 100 24 24 (5760000)
I0428 20:37:44.416615  4988 net.cpp:139] Memory required for data: 23354800
I0428 20:37:44.416622  4988 layer_factory.hpp:77] Creating layer pool0
I0428 20:37:44.416628  4988 net.cpp:86] Creating Layer pool0
I0428 20:37:44.416632  4988 net.cpp:408] pool0 <- conv0
I0428 20:37:44.416636  4988 net.cpp:382] pool0 -> pool0
I0428 20:37:44.416671  4988 net.cpp:124] Setting up pool0
I0428 20:37:44.416676  4988 net.cpp:131] Top shape: 100 100 12 12 (1440000)
I0428 20:37:44.416678  4988 net.cpp:139] Memory required for data: 29114800
I0428 20:37:44.416681  4988 layer_factory.hpp:77] Creating layer conv1
I0428 20:37:44.416688  4988 net.cpp:86] Creating Layer conv1
I0428 20:37:44.416692  4988 net.cpp:408] conv1 <- pool0
I0428 20:37:44.416697  4988 net.cpp:382] conv1 -> conv1
I0428 20:37:44.419797  4988 net.cpp:124] Setting up conv1
I0428 20:37:44.419811  4988 net.cpp:131] Top shape: 100 100 8 8 (640000)
I0428 20:37:44.419814  4988 net.cpp:139] Memory required for data: 31674800
I0428 20:37:44.419822  4988 layer_factory.hpp:77] Creating layer pool1
I0428 20:37:44.419828  4988 net.cpp:86] Creating Layer pool1
I0428 20:37:44.419832  4988 net.cpp:408] pool1 <- conv1
I0428 20:37:44.419837  4988 net.cpp:382] pool1 -> pool1
I0428 20:37:44.419870  4988 net.cpp:124] Setting up pool1
I0428 20:37:44.419881  4988 net.cpp:131] Top shape: 100 100 4 4 (160000)
I0428 20:37:44.419884  4988 net.cpp:139] Memory required for data: 32314800
I0428 20:37:44.419888  4988 layer_factory.hpp:77] Creating layer ip1
I0428 20:37:44.419893  4988 net.cpp:86] Creating Layer ip1
I0428 20:37:44.419896  4988 net.cpp:408] ip1 <- pool1
I0428 20:37:44.419900  4988 net.cpp:382] ip1 -> ip1
I0428 20:37:44.420089  4988 net.cpp:124] Setting up ip1
I0428 20:37:44.420109  4988 net.cpp:131] Top shape: 100 10 (1000)
I0428 20:37:44.420112  4988 net.cpp:139] Memory required for data: 32318800
I0428 20:37:44.420120  4988 layer_factory.hpp:77] Creating layer relu1
I0428 20:37:44.420125  4988 net.cpp:86] Creating Layer relu1
I0428 20:37:44.420127  4988 net.cpp:408] relu1 <- ip1
I0428 20:37:44.420132  4988 net.cpp:369] relu1 -> ip1 (in-place)
I0428 20:37:44.420281  4988 net.cpp:124] Setting up relu1
I0428 20:37:44.420290  4988 net.cpp:131] Top shape: 100 10 (1000)
I0428 20:37:44.420315  4988 net.cpp:139] Memory required for data: 32322800
I0428 20:37:44.420317  4988 layer_factory.hpp:77] Creating layer ip2
I0428 20:37:44.420323  4988 net.cpp:86] Creating Layer ip2
I0428 20:37:44.420326  4988 net.cpp:408] ip2 <- ip1
I0428 20:37:44.420331  4988 net.cpp:382] ip2 -> ip2
I0428 20:37:44.420419  4988 net.cpp:124] Setting up ip2
I0428 20:37:44.420425  4988 net.cpp:131] Top shape: 100 25 (2500)
I0428 20:37:44.420429  4988 net.cpp:139] Memory required for data: 32332800
I0428 20:37:44.420434  4988 layer_factory.hpp:77] Creating layer relu2
I0428 20:37:44.420439  4988 net.cpp:86] Creating Layer relu2
I0428 20:37:44.420447  4988 net.cpp:408] relu2 <- ip2
I0428 20:37:44.420450  4988 net.cpp:369] relu2 -> ip2 (in-place)
I0428 20:37:44.420585  4988 net.cpp:124] Setting up relu2
I0428 20:37:44.420593  4988 net.cpp:131] Top shape: 100 25 (2500)
I0428 20:37:44.420596  4988 net.cpp:139] Memory required for data: 32342800
I0428 20:37:44.420599  4988 layer_factory.hpp:77] Creating layer ip3
I0428 20:37:44.420604  4988 net.cpp:86] Creating Layer ip3
I0428 20:37:44.420614  4988 net.cpp:408] ip3 <- ip2
I0428 20:37:44.420634  4988 net.cpp:382] ip3 -> ip3
I0428 20:37:44.420728  4988 net.cpp:124] Setting up ip3
I0428 20:37:44.420734  4988 net.cpp:131] Top shape: 100 10 (1000)
I0428 20:37:44.420754  4988 net.cpp:139] Memory required for data: 32346800
I0428 20:37:44.420763  4988 layer_factory.hpp:77] Creating layer relu3
I0428 20:37:44.420766  4988 net.cpp:86] Creating Layer relu3
I0428 20:37:44.420770  4988 net.cpp:408] relu3 <- ip3
I0428 20:37:44.420773  4988 net.cpp:369] relu3 -> ip3 (in-place)
I0428 20:37:44.421656  4988 net.cpp:124] Setting up relu3
I0428 20:37:44.421669  4988 net.cpp:131] Top shape: 100 10 (1000)
I0428 20:37:44.421672  4988 net.cpp:139] Memory required for data: 32350800
I0428 20:37:44.421675  4988 layer_factory.hpp:77] Creating layer ip3_relu3_0_split
I0428 20:37:44.421687  4988 net.cpp:86] Creating Layer ip3_relu3_0_split
I0428 20:37:44.421696  4988 net.cpp:408] ip3_relu3_0_split <- ip3
I0428 20:37:44.421702  4988 net.cpp:382] ip3_relu3_0_split -> ip3_relu3_0_split_0
I0428 20:37:44.421708  4988 net.cpp:382] ip3_relu3_0_split -> ip3_relu3_0_split_1
I0428 20:37:44.421797  4988 net.cpp:124] Setting up ip3_relu3_0_split
I0428 20:37:44.421804  4988 net.cpp:131] Top shape: 100 10 (1000)
I0428 20:37:44.421808  4988 net.cpp:131] Top shape: 100 10 (1000)
I0428 20:37:44.421811  4988 net.cpp:139] Memory required for data: 32358800
I0428 20:37:44.421814  4988 layer_factory.hpp:77] Creating layer accuracy
I0428 20:37:44.421819  4988 net.cpp:86] Creating Layer accuracy
I0428 20:37:44.421828  4988 net.cpp:408] accuracy <- ip3_relu3_0_split_0
I0428 20:37:44.421833  4988 net.cpp:408] accuracy <- label_mnist_1_split_0
I0428 20:37:44.421836  4988 net.cpp:382] accuracy -> accuracy
…
