…
I0428 19:28:42.701262 21755 net.cpp:296] The NetState phase (0) differed from the phase (1) specified by a rule in layer mnist
I0428 19:28:42.701277 21755 net.cpp:296] The NetState phase (0) differed from the phase (1) specified by a rule in layer accuracy
I0428 19:28:42.701349 21755 net.cpp:53] Initializing net from parameters: 
name: "LeNet"
state {
  phase: TRAIN
  level: 0
  stage: ""
}
layer {
  name: "mnist"
  type: "Data"
  top: "data"
  top: "label"
  include {
    phase: TRAIN
  }
  transform_param {
    scale: 0.00390625
  }
  data_param {
    source: "examples/mnist/mnist_train_lmdb"
    batch_size: 64
    backend: LMDB
  }
}
layer {
  name: "ip1"
  type: "InnerProduct"
  bottom: "data"
  top: "ip1"
  param {
    lr_mult: 1
  }
  param {
    lr_mult: 2
  }
  inner_product_param {
    num_output: 50
    weight_filler {
      type: "xavier"
    }
    bias_filler {
      type: "constant"
    }
  }
}
layer {
  name: "relu1"
  type: "ReLU"
  bottom: "ip1"
  top: "ip1"
}
layer {
  name: "ip2"
  type: "InnerProduct"
  bottom: "ip1"
  top: "ip2"
  param {
    lr_mult: 1
  }
  param {
    lr_mult: 2
  }
  inner_product_param {
    num_output: 25
    weight_filler {
      type: "xavier"
    }
    bias_filler {
      type: "constant"
    }
  }
}
layer {
  name: "relu2"
  type: "ReLU"
  bottom: "ip2"
  top: "ip2"
}
layer {
  name: "ip3"
  type: "InnerProduct"
  bottom: "ip2"
  top: "ip3"
  param {
    lr_mult: 1
  }
  param {
    lr_mult: 2
  }
  inner_product_param {
    num_output: 10
    weight_filler {
      type: "xavier"
    }
    bias_filler {
      type: "constant"
    }
  }
}
layer {
  name: "relu3"
  type: "ReLU"
  bottom: "ip3"
  top: "ip3"
}
layer {
  name: "loss"
  type: "SoftmaxWithLoss"
  bottom: "ip3"
  bottom: "label"
  top: "loss"
}
I0428 19:28:42.701411 21755 layer_factory.hpp:77] Creating layer mnist
I0428 19:28:42.701509 21755 db_lmdb.cpp:35] Opened lmdb examples/mnist/mnist_train_lmdb
I0428 19:28:42.701532 21755 net.cpp:86] Creating Layer mnist
I0428 19:28:42.701539 21755 net.cpp:382] mnist -> data
I0428 19:28:42.701562 21755 net.cpp:382] mnist -> label
I0428 19:28:42.702647 21755 data_layer.cpp:45] output data size: 64,1,28,28
I0428 19:28:42.705312 21755 net.cpp:124] Setting up mnist
I0428 19:28:42.705329 21755 net.cpp:131] Top shape: 64 1 28 28 (50176)
I0428 19:28:42.705335 21755 net.cpp:131] Top shape: 64 (64)
I0428 19:28:42.705339 21755 net.cpp:139] Memory required for data: 200960
I0428 19:28:42.705348 21755 layer_factory.hpp:77] Creating layer ip1
I0428 19:28:42.705358 21755 net.cpp:86] Creating Layer ip1
I0428 19:28:42.705363 21755 net.cpp:408] ip1 <- data
I0428 19:28:42.705375 21755 net.cpp:382] ip1 -> ip1
I0428 19:28:42.705822 21755 net.cpp:124] Setting up ip1
I0428 19:28:42.705833 21755 net.cpp:131] Top shape: 64 50 (3200)
I0428 19:28:42.705837 21755 net.cpp:139] Memory required for data: 213760
I0428 19:28:42.705850 21755 layer_factory.hpp:77] Creating layer relu1
I0428 19:28:42.705858 21755 net.cpp:86] Creating Layer relu1
I0428 19:28:42.705863 21755 net.cpp:408] relu1 <- ip1
I0428 19:28:42.705868 21755 net.cpp:369] relu1 -> ip1 (in-place)
I0428 19:28:43.000820 21755 net.cpp:124] Setting up relu1
I0428 19:28:43.000851 21755 net.cpp:131] Top shape: 64 50 (3200)
I0428 19:28:43.000855 21755 net.cpp:139] Memory required for data: 226560
I0428 19:28:43.000861 21755 layer_factory.hpp:77] Creating layer ip2
I0428 19:28:43.000874 21755 net.cpp:86] Creating Layer ip2
I0428 19:28:43.000898 21755 net.cpp:408] ip2 <- ip1
I0428 19:28:43.000907 21755 net.cpp:382] ip2 -> ip2
I0428 19:28:43.001991 21755 net.cpp:124] Setting up ip2
I0428 19:28:43.002005 21755 net.cpp:131] Top shape: 64 25 (1600)
I0428 19:28:43.002009 21755 net.cpp:139] Memory required for data: 232960
I0428 19:28:43.002019 21755 layer_factory.hpp:77] Creating layer relu2
I0428 19:28:43.002028 21755 net.cpp:86] Creating Layer relu2
I0428 19:28:43.002032 21755 net.cpp:408] relu2 <- ip2
I0428 19:28:43.002038 21755 net.cpp:369] relu2 -> ip2 (in-place)
I0428 19:28:43.002841 21755 net.cpp:124] Setting up relu2
I0428 19:28:43.002856 21755 net.cpp:131] Top shape: 64 25 (1600)
I0428 19:28:43.002859 21755 net.cpp:139] Memory required for data: 239360
I0428 19:28:43.002863 21755 layer_factory.hpp:77] Creating layer ip3
I0428 19:28:43.002871 21755 net.cpp:86] Creating Layer ip3
I0428 19:28:43.002874 21755 net.cpp:408] ip3 <- ip2
I0428 19:28:43.002881 21755 net.cpp:382] ip3 -> ip3
I0428 19:28:43.002985 21755 net.cpp:124] Setting up ip3
I0428 19:28:43.002995 21755 net.cpp:131] Top shape: 64 10 (640)
I0428 19:28:43.002998 21755 net.cpp:139] Memory required for data: 241920
I0428 19:28:43.003007 21755 layer_factory.hpp:77] Creating layer relu3
I0428 19:28:43.003012 21755 net.cpp:86] Creating Layer relu3
I0428 19:28:43.003017 21755 net.cpp:408] relu3 <- ip3
I0428 19:28:43.003022 21755 net.cpp:369] relu3 -> ip3 (in-place)
I0428 19:28:43.003180 21755 net.cpp:124] Setting up relu3
I0428 19:28:43.003190 21755 net.cpp:131] Top shape: 64 10 (640)
I0428 19:28:43.003193 21755 net.cpp:139] Memory required for data: 244480
I0428 19:28:43.003196 21755 layer_factory.hpp:77] Creating layer loss
I0428 19:28:43.003203 21755 net.cpp:86] Creating Layer loss
I0428 19:28:43.003206 21755 net.cpp:408] loss <- ip3
I0428 19:28:43.003211 21755 net.cpp:408] loss <- label
I0428 19:28:43.003216 21755 net.cpp:382] loss -> loss
I0428 19:28:43.003237 21755 layer_factory.hpp:77] Creating layer loss
…
I0428 19:28:43.004716 21755 solver.cpp:173] Creating test net (#0) specified by net file: ECE595/mnist/train_test/var_everything2/lenet_train_test34.prototxt
I0428 19:28:43.004741 21755 net.cpp:296] The NetState phase (1) differed from the phase (0) specified by a rule in layer mnist
I0428 19:28:43.004822 21755 net.cpp:53] Initializing net from parameters: 
name: "LeNet"
state {
  phase: TEST
}
layer {
  name: "mnist"
  type: "Data"
  top: "data"
  top: "label"
  include {
    phase: TEST
  }
  transform_param {
    scale: 0.00390625
  }
  data_param {
    source: "examples/mnist/mnist_test_lmdb"
    batch_size: 100
    backend: LMDB
  }
}
layer {
  name: "ip1"
  type: "InnerProduct"
  bottom: "data"
  top: "ip1"
  param {
    lr_mult: 1
  }
  param {
    lr_mult: 2
  }
  inner_product_param {
    num_output: 50
    weight_filler {
      type: "xavier"
    }
    bias_filler {
      type: "constant"
    }
  }
}
layer {
  name: "relu1"
  type: "ReLU"
  bottom: "ip1"
  top: "ip1"
}
layer {
  name: "ip2"
  type: "InnerProduct"
  bottom: "ip1"
  top: "ip2"
  param {
    lr_mult: 1
  }
  param {
    lr_mult: 2
  }
  inner_product_param {
    num_output: 25
    weight_filler {
      type: "xavier"
    }
    bias_filler {
      type: "constant"
    }
  }
}
layer {
  name: "relu2"
  type: "ReLU"
  bottom: "ip2"
  top: "ip2"
}
layer {
  name: "ip3"
  type: "InnerProduct"
  bottom: "ip2"
  top: "ip3"
  param {
    lr_mult: 1
  }
  param {
    lr_mult: 2
  }
  inner_product_param {
    num_output: 10
    weight_filler {
      type: "xavier"
    }
    bias_filler {
      type: "constant"
    }
  }
}
layer {
  name: "relu3"
  type: "ReLU"
  bottom: "ip3"
  top: "ip3"
}
layer {
  name: "accuracy"
  type: "Accuracy"
  bottom: "ip3"
  bottom: "label"
  top: "accuracy"
  include {
    phase: TEST
  }
}
layer {
  name: "loss"
  type: "SoftmaxWithLoss"
  bottom: "ip3"
  bottom: "label"
  top: "loss"
}
I0428 19:28:43.004899 21755 layer_factory.hpp:77] Creating layer mnist
I0428 19:28:43.004948 21755 db_lmdb.cpp:35] Opened lmdb examples/mnist/mnist_test_lmdb
I0428 19:28:43.004961 21755 net.cpp:86] Creating Layer mnist
I0428 19:28:43.004966 21755 net.cpp:382] mnist -> data
I0428 19:28:43.004976 21755 net.cpp:382] mnist -> label
I0428 19:28:43.005066 21755 data_layer.cpp:45] output data size: 100,1,28,28
I0428 19:28:43.007093 21755 net.cpp:124] Setting up mnist
I0428 19:28:43.007108 21755 net.cpp:131] Top shape: 100 1 28 28 (78400)
I0428 19:28:43.007114 21755 net.cpp:131] Top shape: 100 (100)
I0428 19:28:43.007117 21755 net.cpp:139] Memory required for data: 314000
I0428 19:28:43.007122 21755 layer_factory.hpp:77] Creating layer label_mnist_1_split
I0428 19:28:43.007133 21755 net.cpp:86] Creating Layer label_mnist_1_split
I0428 19:28:43.007138 21755 net.cpp:408] label_mnist_1_split <- label
I0428 19:28:43.007143 21755 net.cpp:382] label_mnist_1_split -> label_mnist_1_split_0
I0428 19:28:43.007151 21755 net.cpp:382] label_mnist_1_split -> label_mnist_1_split_1
I0428 19:28:43.007200 21755 net.cpp:124] Setting up label_mnist_1_split
I0428 19:28:43.007206 21755 net.cpp:131] Top shape: 100 (100)
I0428 19:28:43.007210 21755 net.cpp:131] Top shape: 100 (100)
I0428 19:28:43.007213 21755 net.cpp:139] Memory required for data: 314800
I0428 19:28:43.007216 21755 layer_factory.hpp:77] Creating layer ip1
I0428 19:28:43.007223 21755 net.cpp:86] Creating Layer ip1
I0428 19:28:43.007227 21755 net.cpp:408] ip1 <- data
I0428 19:28:43.007232 21755 net.cpp:382] ip1 -> ip1
I0428 19:28:43.007609 21755 net.cpp:124] Setting up ip1
I0428 19:28:43.007619 21755 net.cpp:131] Top shape: 100 50 (5000)
I0428 19:28:43.007622 21755 net.cpp:139] Memory required for data: 334800
I0428 19:28:43.007632 21755 layer_factory.hpp:77] Creating layer relu1
I0428 19:28:43.007637 21755 net.cpp:86] Creating Layer relu1
I0428 19:28:43.007642 21755 net.cpp:408] relu1 <- ip1
I0428 19:28:43.007647 21755 net.cpp:369] relu1 -> ip1 (in-place)
I0428 19:28:43.008606 21755 net.cpp:124] Setting up relu1
I0428 19:28:43.008620 21755 net.cpp:131] Top shape: 100 50 (5000)
I0428 19:28:43.008625 21755 net.cpp:139] Memory required for data: 354800
I0428 19:28:43.008628 21755 layer_factory.hpp:77] Creating layer ip2
I0428 19:28:43.008636 21755 net.cpp:86] Creating Layer ip2
I0428 19:28:43.008641 21755 net.cpp:408] ip2 <- ip1
I0428 19:28:43.008646 21755 net.cpp:382] ip2 -> ip2
I0428 19:28:43.008764 21755 net.cpp:124] Setting up ip2
I0428 19:28:43.008772 21755 net.cpp:131] Top shape: 100 25 (2500)
I0428 19:28:43.008776 21755 net.cpp:139] Memory required for data: 364800
I0428 19:28:43.008785 21755 layer_factory.hpp:77] Creating layer relu2
I0428 19:28:43.008790 21755 net.cpp:86] Creating Layer relu2
I0428 19:28:43.008793 21755 net.cpp:408] relu2 <- ip2
I0428 19:28:43.008797 21755 net.cpp:369] relu2 -> ip2 (in-place)
I0428 19:28:43.008968 21755 net.cpp:124] Setting up relu2
I0428 19:28:43.008978 21755 net.cpp:131] Top shape: 100 25 (2500)
I0428 19:28:43.008981 21755 net.cpp:139] Memory required for data: 374800
I0428 19:28:43.008985 21755 layer_factory.hpp:77] Creating layer ip3
I0428 19:28:43.008991 21755 net.cpp:86] Creating Layer ip3
I0428 19:28:43.008994 21755 net.cpp:408] ip3 <- ip2
I0428 19:28:43.008999 21755 net.cpp:382] ip3 -> ip3
I0428 19:28:43.009111 21755 net.cpp:124] Setting up ip3
I0428 19:28:43.009119 21755 net.cpp:131] Top shape: 100 10 (1000)
I0428 19:28:43.009124 21755 net.cpp:139] Memory required for data: 378800
I0428 19:28:43.009131 21755 layer_factory.hpp:77] Creating layer relu3
I0428 19:28:43.009136 21755 net.cpp:86] Creating Layer relu3
I0428 19:28:43.009140 21755 net.cpp:408] relu3 <- ip3
I0428 19:28:43.009155 21755 net.cpp:369] relu3 -> ip3 (in-place)
I0428 19:28:43.009304 21755 net.cpp:124] Setting up relu3
I0428 19:28:43.009312 21755 net.cpp:131] Top shape: 100 10 (1000)
I0428 19:28:43.009316 21755 net.cpp:139] Memory required for data: 382800
I0428 19:28:43.009320 21755 layer_factory.hpp:77] Creating layer ip3_relu3_0_split
I0428 19:28:43.009325 21755 net.cpp:86] Creating Layer ip3_relu3_0_split
I0428 19:28:43.009328 21755 net.cpp:408] ip3_relu3_0_split <- ip3
I0428 19:28:43.009333 21755 net.cpp:382] ip3_relu3_0_split -> ip3_relu3_0_split_0
I0428 19:28:43.009341 21755 net.cpp:382] ip3_relu3_0_split -> ip3_relu3_0_split_1
I0428 19:28:43.009380 21755 net.cpp:124] Setting up ip3_relu3_0_split
I0428 19:28:43.009387 21755 net.cpp:131] Top shape: 100 10 (1000)
I0428 19:28:43.009392 21755 net.cpp:131] Top shape: 100 10 (1000)
I0428 19:28:43.009395 21755 net.cpp:139] Memory required for data: 390800
I0428 19:28:43.009398 21755 layer_factory.hpp:77] Creating layer accuracy
I0428 19:28:43.009408 21755 net.cpp:86] Creating Layer accuracy
I0428 19:28:43.009412 21755 net.cpp:408] accuracy <- ip3_relu3_0_split_0
I0428 19:28:43.009415 21755 net.cpp:408] accuracy <- label_mnist_1_split_0
I0428 19:28:43.009420 21755 net.cpp:382] accuracy -> accuracy
…
