…
I0428 20:18:40.555160  1187 net.cpp:296] The NetState phase (0) differed from the phase (1) specified by a rule in layer mnist
I0428 20:18:40.555191  1187 net.cpp:296] The NetState phase (0) differed from the phase (1) specified by a rule in layer accuracy
I0428 20:18:40.555292  1187 net.cpp:53] Initializing net from parameters: 
name: "LeNet"
state {
  phase: TRAIN
  level: 0
  stage: ""
}
layer {
  name: "mnist"
  type: "Data"
  top: "data"
  top: "label"
  include {
    phase: TRAIN
  }
  transform_param {
    scale: 0.00390625
  }
  data_param {
    source: "examples/mnist/mnist_train_lmdb"
    batch_size: 64
    backend: LMDB
  }
}
layer {
  name: "conv0"
  type: "Convolution"
  bottom: "data"
  top: "conv0"
  param {
    lr_mult: 1
  }
  param {
    lr_mult: 2
  }
  convolution_param {
    num_output: 50
    kernel_size: 5
    stride: 1
    weight_filler {
      type: "xavier"
    }
    bias_filler {
      type: "constant"
    }
  }
}
layer {
  name: "pool0"
  type: "Pooling"
  bottom: "conv0"
  top: "pool0"
  pooling_param {
    pool: MAX
    kernel_size: 2
    stride: 2
  }
}
layer {
  name: "conv1"
  type: "Convolution"
  bottom: "pool0"
  top: "conv1"
  param {
    lr_mult: 1
  }
  param {
    lr_mult: 2
  }
  convolution_param {
    num_output: 10
    kernel_size: 5
    stride: 1
    weight_filler {
      type: "xavier"
    }
    bias_filler {
      type: "constant"
    }
  }
}
layer {
  name: "pool1"
  type: "Pooling"
  bottom: "conv1"
  top: "pool1"
  pooling_param {
    pool: MAX
    kernel_size: 2
    stride: 2
  }
}
layer {
  name: "ip1"
  type: "InnerProduct"
  bottom: "pool1"
  top: "ip1"
  param {
    lr_mult: 1
  }
  param {
    lr_mult: 2
  }
  inner_product_param {
    num_output: 50
    weight_filler {
      type: "xavier"
    }
    bias_filler {
      type: "constant"
    }
  }
}
layer {
  name: "relu1"
  type: "ReLU"
  bottom: "ip1"
  top: "ip1"
}
layer {
  name: "ip2"
  type: "InnerProduct"
  bottom: "ip1"
  top: "ip2"
  param {
    lr_mult: 1
  }
  param {
    lr_mult: 2
  }
  inner_product_param {
    num_output: 50
    weight_filler {
      type: "xavier"
    }
    bias_filler {
      type: "constant"
    }
  }
}
layer {
  name: "relu2"
  type: "ReLU"
  bottom: "ip2"
  top: "ip2"
}
layer {
  name: "ip3"
  type: "InnerProduct"
  bottom: "ip2"
  top: "ip3"
  param {
    lr_mult: 1
  }
  param {
    lr_mult: 2
  }
  inner_product_param {
    num_output: 10
    weight_filler {
      type: "xavier"
    }
    bias_filler {
      type: "constant"
    }
  }
}
layer {
  name: "relu3"
  type: "ReLU"
  bottom: "ip3"
  top: "ip3"
}
layer {
  name: "loss"
  type: "SoftmaxWithLoss"
  bottom: "ip3"
  bottom: "label"
  top: "loss"
}
I0428 20:18:40.555358  1187 layer_factory.hpp:77] Creating layer mnist
I0428 20:18:40.555444  1187 db_lmdb.cpp:35] Opened lmdb examples/mnist/mnist_train_lmdb
I0428 20:18:40.555464  1187 net.cpp:86] Creating Layer mnist
I0428 20:18:40.555471  1187 net.cpp:382] mnist -> data
I0428 20:18:40.555490  1187 net.cpp:382] mnist -> label
I0428 20:18:40.556432  1187 data_layer.cpp:45] output data size: 64,1,28,28
I0428 20:18:40.558895  1187 net.cpp:124] Setting up mnist
I0428 20:18:40.558926  1187 net.cpp:131] Top shape: 64 1 28 28 (50176)
I0428 20:18:40.558933  1187 net.cpp:131] Top shape: 64 (64)
I0428 20:18:40.558935  1187 net.cpp:139] Memory required for data: 200960
I0428 20:18:40.558941  1187 layer_factory.hpp:77] Creating layer conv0
I0428 20:18:40.558954  1187 net.cpp:86] Creating Layer conv0
I0428 20:18:40.558970  1187 net.cpp:408] conv0 <- data
I0428 20:18:40.558981  1187 net.cpp:382] conv0 -> conv0
I0428 20:18:40.793190  1187 net.cpp:124] Setting up conv0
I0428 20:18:40.793215  1187 net.cpp:131] Top shape: 64 50 24 24 (1843200)
I0428 20:18:40.793220  1187 net.cpp:139] Memory required for data: 7573760
I0428 20:18:40.793232  1187 layer_factory.hpp:77] Creating layer pool0
I0428 20:18:40.793248  1187 net.cpp:86] Creating Layer pool0
I0428 20:18:40.793252  1187 net.cpp:408] pool0 <- conv0
I0428 20:18:40.793273  1187 net.cpp:382] pool0 -> pool0
I0428 20:18:40.793323  1187 net.cpp:124] Setting up pool0
I0428 20:18:40.793329  1187 net.cpp:131] Top shape: 64 50 12 12 (460800)
I0428 20:18:40.793332  1187 net.cpp:139] Memory required for data: 9416960
I0428 20:18:40.793334  1187 layer_factory.hpp:77] Creating layer conv1
I0428 20:18:40.793345  1187 net.cpp:86] Creating Layer conv1
I0428 20:18:40.793349  1187 net.cpp:408] conv1 <- pool0
I0428 20:18:40.793355  1187 net.cpp:382] conv1 -> conv1
I0428 20:18:40.796308  1187 net.cpp:124] Setting up conv1
I0428 20:18:40.796322  1187 net.cpp:131] Top shape: 64 10 8 8 (40960)
I0428 20:18:40.796342  1187 net.cpp:139] Memory required for data: 9580800
I0428 20:18:40.796365  1187 layer_factory.hpp:77] Creating layer pool1
I0428 20:18:40.796372  1187 net.cpp:86] Creating Layer pool1
I0428 20:18:40.796391  1187 net.cpp:408] pool1 <- conv1
I0428 20:18:40.796396  1187 net.cpp:382] pool1 -> pool1
I0428 20:18:40.796434  1187 net.cpp:124] Setting up pool1
I0428 20:18:40.796440  1187 net.cpp:131] Top shape: 64 10 4 4 (10240)
I0428 20:18:40.796443  1187 net.cpp:139] Memory required for data: 9621760
I0428 20:18:40.796447  1187 layer_factory.hpp:77] Creating layer ip1
I0428 20:18:40.796453  1187 net.cpp:86] Creating Layer ip1
I0428 20:18:40.796456  1187 net.cpp:408] ip1 <- pool1
I0428 20:18:40.796461  1187 net.cpp:382] ip1 -> ip1
I0428 20:18:40.796607  1187 net.cpp:124] Setting up ip1
I0428 20:18:40.796613  1187 net.cpp:131] Top shape: 64 50 (3200)
I0428 20:18:40.796615  1187 net.cpp:139] Memory required for data: 9634560
I0428 20:18:40.796622  1187 layer_factory.hpp:77] Creating layer relu1
I0428 20:18:40.796628  1187 net.cpp:86] Creating Layer relu1
I0428 20:18:40.796632  1187 net.cpp:408] relu1 <- ip1
I0428 20:18:40.796653  1187 net.cpp:369] relu1 -> ip1 (in-place)
I0428 20:18:40.796818  1187 net.cpp:124] Setting up relu1
I0428 20:18:40.796844  1187 net.cpp:131] Top shape: 64 50 (3200)
I0428 20:18:40.796847  1187 net.cpp:139] Memory required for data: 9647360
I0428 20:18:40.796850  1187 layer_factory.hpp:77] Creating layer ip2
I0428 20:18:40.796859  1187 net.cpp:86] Creating Layer ip2
I0428 20:18:40.796862  1187 net.cpp:408] ip2 <- ip1
I0428 20:18:40.796886  1187 net.cpp:382] ip2 -> ip2
I0428 20:18:40.797022  1187 net.cpp:124] Setting up ip2
I0428 20:18:40.797029  1187 net.cpp:131] Top shape: 64 50 (3200)
I0428 20:18:40.797032  1187 net.cpp:139] Memory required for data: 9660160
I0428 20:18:40.797039  1187 layer_factory.hpp:77] Creating layer relu2
I0428 20:18:40.797044  1187 net.cpp:86] Creating Layer relu2
I0428 20:18:40.797047  1187 net.cpp:408] relu2 <- ip2
I0428 20:18:40.797052  1187 net.cpp:369] relu2 -> ip2 (in-place)
I0428 20:18:40.797884  1187 net.cpp:124] Setting up relu2
I0428 20:18:40.797896  1187 net.cpp:131] Top shape: 64 50 (3200)
I0428 20:18:40.797916  1187 net.cpp:139] Memory required for data: 9672960
I0428 20:18:40.797919  1187 layer_factory.hpp:77] Creating layer ip3
I0428 20:18:40.797929  1187 net.cpp:86] Creating Layer ip3
I0428 20:18:40.797931  1187 net.cpp:408] ip3 <- ip2
I0428 20:18:40.797936  1187 net.cpp:382] ip3 -> ip3
I0428 20:18:40.798058  1187 net.cpp:124] Setting up ip3
I0428 20:18:40.798064  1187 net.cpp:131] Top shape: 64 10 (640)
I0428 20:18:40.798068  1187 net.cpp:139] Memory required for data: 9675520
I0428 20:18:40.798075  1187 layer_factory.hpp:77] Creating layer relu3
I0428 20:18:40.798081  1187 net.cpp:86] Creating Layer relu3
I0428 20:18:40.798084  1187 net.cpp:408] relu3 <- ip3
I0428 20:18:40.798089  1187 net.cpp:369] relu3 -> ip3 (in-place)
I0428 20:18:40.798277  1187 net.cpp:124] Setting up relu3
I0428 20:18:40.798286  1187 net.cpp:131] Top shape: 64 10 (640)
I0428 20:18:40.798290  1187 net.cpp:139] Memory required for data: 9678080
I0428 20:18:40.798293  1187 layer_factory.hpp:77] Creating layer loss
I0428 20:18:40.798300  1187 net.cpp:86] Creating Layer loss
I0428 20:18:40.798303  1187 net.cpp:408] loss <- ip3
I0428 20:18:40.798307  1187 net.cpp:408] loss <- label
I0428 20:18:40.798313  1187 net.cpp:382] loss -> loss
I0428 20:18:40.798346  1187 layer_factory.hpp:77] Creating layer loss
…
I0428 20:18:40.799082  1187 solver.cpp:173] Creating test net (#0) specified by net file: ECE595/mnist/train_test/var_everything2/lenet_train_test1324.prototxt
I0428 20:18:40.799135  1187 net.cpp:296] The NetState phase (1) differed from the phase (0) specified by a rule in layer mnist
I0428 20:18:40.799226  1187 net.cpp:53] Initializing net from parameters: 
name: "LeNet"
state {
  phase: TEST
}
layer {
  name: "mnist"
  type: "Data"
  top: "data"
  top: "label"
  include {
    phase: TEST
  }
  transform_param {
    scale: 0.00390625
  }
  data_param {
    source: "examples/mnist/mnist_test_lmdb"
    batch_size: 100
    backend: LMDB
  }
}
layer {
  name: "conv0"
  type: "Convolution"
  bottom: "data"
  top: "conv0"
  param {
    lr_mult: 1
  }
  param {
    lr_mult: 2
  }
  convolution_param {
    num_output: 50
    kernel_size: 5
    stride: 1
    weight_filler {
      type: "xavier"
    }
    bias_filler {
      type: "constant"
    }
  }
}
layer {
  name: "pool0"
  type: "Pooling"
  bottom: "conv0"
  top: "pool0"
  pooling_param {
    pool: MAX
    kernel_size: 2
    stride: 2
  }
}
layer {
  name: "conv1"
  type: "Convolution"
  bottom: "pool0"
  top: "conv1"
  param {
    lr_mult: 1
  }
  param {
    lr_mult: 2
  }
  convolution_param {
    num_output: 10
    kernel_size: 5
    stride: 1
    weight_filler {
      type: "xavier"
    }
    bias_filler {
      type: "constant"
    }
  }
}
layer {
  name: "pool1"
  type: "Pooling"
  bottom: "conv1"
  top: "pool1"
  pooling_param {
    pool: MAX
    kernel_size: 2
    stride: 2
  }
}
layer {
  name: "ip1"
  type: "InnerProduct"
  bottom: "pool1"
  top: "ip1"
  param {
    lr_mult: 1
  }
  param {
    lr_mult: 2
  }
  inner_product_param {
    num_output: 50
    weight_filler {
      type: "xavier"
    }
    bias_filler {
      type: "constant"
    }
  }
}
layer {
  name: "relu1"
  type: "ReLU"
  bottom: "ip1"
  top: "ip1"
}
layer {
  name: "ip2"
  type: "InnerProduct"
  bottom: "ip1"
  top: "ip2"
  param {
    lr_mult: 1
  }
  param {
    lr_mult: 2
  }
  inner_product_param {
    num_output: 50
    weight_filler {
      type: "xavier"
    }
    bias_filler {
      type: "constant"
    }
  }
}
layer {
  name: "relu2"
  type: "ReLU"
  bottom: "ip2"
  top: "ip2"
}
layer {
  name: "ip3"
  type: "InnerProduct"
  bottom: "ip2"
  top: "ip3"
  param {
    lr_mult: 1
  }
  param {
    lr_mult: 2
  }
  inner_product_param {
    num_output: 10
    weight_filler {
      type: "xavier"
    }
    bias_filler {
      type: "constant"
    }
  }
}
layer {
  name: "relu3"
  type: "ReLU"
  bottom: "ip3"
  top: "ip3"
}
layer {
  name: "accuracy"
  type: "Accuracy"
  bottom: "ip3"
  bottom: "label"
  top: "accuracy"
  include {
    phase: TEST
  }
}
layer {
  name: "loss"
  type: "SoftmaxWithLoss"
  bottom: "ip3"
  bottom: "label"
  top: "loss"
}
I0428 20:18:40.799306  1187 layer_factory.hpp:77] Creating layer mnist
I0428 20:18:40.799351  1187 db_lmdb.cpp:35] Opened lmdb examples/mnist/mnist_test_lmdb
I0428 20:18:40.799363  1187 net.cpp:86] Creating Layer mnist
I0428 20:18:40.799370  1187 net.cpp:382] mnist -> data
I0428 20:18:40.799376  1187 net.cpp:382] mnist -> label
I0428 20:18:40.799476  1187 data_layer.cpp:45] output data size: 100,1,28,28
I0428 20:18:40.801846  1187 net.cpp:124] Setting up mnist
I0428 20:18:40.801874  1187 net.cpp:131] Top shape: 100 1 28 28 (78400)
I0428 20:18:40.801879  1187 net.cpp:131] Top shape: 100 (100)
I0428 20:18:40.801882  1187 net.cpp:139] Memory required for data: 314000
I0428 20:18:40.801884  1187 layer_factory.hpp:77] Creating layer label_mnist_1_split
I0428 20:18:40.801894  1187 net.cpp:86] Creating Layer label_mnist_1_split
I0428 20:18:40.801898  1187 net.cpp:408] label_mnist_1_split <- label
I0428 20:18:40.801903  1187 net.cpp:382] label_mnist_1_split -> label_mnist_1_split_0
I0428 20:18:40.801909  1187 net.cpp:382] label_mnist_1_split -> label_mnist_1_split_1
I0428 20:18:40.802032  1187 net.cpp:124] Setting up label_mnist_1_split
I0428 20:18:40.802042  1187 net.cpp:131] Top shape: 100 (100)
I0428 20:18:40.802044  1187 net.cpp:131] Top shape: 100 (100)
I0428 20:18:40.802047  1187 net.cpp:139] Memory required for data: 314800
I0428 20:18:40.802050  1187 layer_factory.hpp:77] Creating layer conv0
I0428 20:18:40.802074  1187 net.cpp:86] Creating Layer conv0
I0428 20:18:40.802078  1187 net.cpp:408] conv0 <- data
I0428 20:18:40.802083  1187 net.cpp:382] conv0 -> conv0
I0428 20:18:40.803728  1187 net.cpp:124] Setting up conv0
I0428 20:18:40.803741  1187 net.cpp:131] Top shape: 100 50 24 24 (2880000)
I0428 20:18:40.803745  1187 net.cpp:139] Memory required for data: 11834800
I0428 20:18:40.803753  1187 layer_factory.hpp:77] Creating layer pool0
I0428 20:18:40.803761  1187 net.cpp:86] Creating Layer pool0
I0428 20:18:40.803763  1187 net.cpp:408] pool0 <- conv0
I0428 20:18:40.803767  1187 net.cpp:382] pool0 -> pool0
I0428 20:18:40.803833  1187 net.cpp:124] Setting up pool0
I0428 20:18:40.803839  1187 net.cpp:131] Top shape: 100 50 12 12 (720000)
I0428 20:18:40.803843  1187 net.cpp:139] Memory required for data: 14714800
I0428 20:18:40.803845  1187 layer_factory.hpp:77] Creating layer conv1
I0428 20:18:40.803854  1187 net.cpp:86] Creating Layer conv1
I0428 20:18:40.803858  1187 net.cpp:408] conv1 <- pool0
I0428 20:18:40.803867  1187 net.cpp:382] conv1 -> conv1
I0428 20:18:40.805685  1187 net.cpp:124] Setting up conv1
I0428 20:18:40.805713  1187 net.cpp:131] Top shape: 100 10 8 8 (64000)
I0428 20:18:40.805717  1187 net.cpp:139] Memory required for data: 14970800
I0428 20:18:40.805743  1187 layer_factory.hpp:77] Creating layer pool1
I0428 20:18:40.805749  1187 net.cpp:86] Creating Layer pool1
I0428 20:18:40.805753  1187 net.cpp:408] pool1 <- conv1
I0428 20:18:40.805759  1187 net.cpp:382] pool1 -> pool1
I0428 20:18:40.805797  1187 net.cpp:124] Setting up pool1
I0428 20:18:40.805804  1187 net.cpp:131] Top shape: 100 10 4 4 (16000)
I0428 20:18:40.805807  1187 net.cpp:139] Memory required for data: 15034800
I0428 20:18:40.805810  1187 layer_factory.hpp:77] Creating layer ip1
I0428 20:18:40.805817  1187 net.cpp:86] Creating Layer ip1
I0428 20:18:40.805820  1187 net.cpp:408] ip1 <- pool1
I0428 20:18:40.805824  1187 net.cpp:382] ip1 -> ip1
I0428 20:18:40.805984  1187 net.cpp:124] Setting up ip1
I0428 20:18:40.805990  1187 net.cpp:131] Top shape: 100 50 (5000)
I0428 20:18:40.806005  1187 net.cpp:139] Memory required for data: 15054800
I0428 20:18:40.806012  1187 layer_factory.hpp:77] Creating layer relu1
I0428 20:18:40.806018  1187 net.cpp:86] Creating Layer relu1
I0428 20:18:40.806022  1187 net.cpp:408] relu1 <- ip1
I0428 20:18:40.806041  1187 net.cpp:369] relu1 -> ip1 (in-place)
I0428 20:18:40.806254  1187 net.cpp:124] Setting up relu1
I0428 20:18:40.806262  1187 net.cpp:131] Top shape: 100 50 (5000)
I0428 20:18:40.806265  1187 net.cpp:139] Memory required for data: 15074800
I0428 20:18:40.806268  1187 layer_factory.hpp:77] Creating layer ip2
I0428 20:18:40.806277  1187 net.cpp:86] Creating Layer ip2
I0428 20:18:40.806279  1187 net.cpp:408] ip2 <- ip1
I0428 20:18:40.806285  1187 net.cpp:382] ip2 -> ip2
I0428 20:18:40.806411  1187 net.cpp:124] Setting up ip2
I0428 20:18:40.806418  1187 net.cpp:131] Top shape: 100 50 (5000)
I0428 20:18:40.806421  1187 net.cpp:139] Memory required for data: 15094800
I0428 20:18:40.806427  1187 layer_factory.hpp:77] Creating layer relu2
I0428 20:18:40.806430  1187 net.cpp:86] Creating Layer relu2
I0428 20:18:40.806433  1187 net.cpp:408] relu2 <- ip2
I0428 20:18:40.806437  1187 net.cpp:369] relu2 -> ip2 (in-place)
I0428 20:18:40.806589  1187 net.cpp:124] Setting up relu2
I0428 20:18:40.806597  1187 net.cpp:131] Top shape: 100 50 (5000)
I0428 20:18:40.806601  1187 net.cpp:139] Memory required for data: 15114800
I0428 20:18:40.806603  1187 layer_factory.hpp:77] Creating layer ip3
I0428 20:18:40.806608  1187 net.cpp:86] Creating Layer ip3
I0428 20:18:40.806612  1187 net.cpp:408] ip3 <- ip2
I0428 20:18:40.806617  1187 net.cpp:382] ip3 -> ip3
I0428 20:18:40.806728  1187 net.cpp:124] Setting up ip3
I0428 20:18:40.806735  1187 net.cpp:131] Top shape: 100 10 (1000)
I0428 20:18:40.806736  1187 net.cpp:139] Memory required for data: 15118800
I0428 20:18:40.806743  1187 layer_factory.hpp:77] Creating layer relu3
I0428 20:18:40.806751  1187 net.cpp:86] Creating Layer relu3
I0428 20:18:40.806752  1187 net.cpp:408] relu3 <- ip3
I0428 20:18:40.806756  1187 net.cpp:369] relu3 -> ip3 (in-place)
I0428 20:18:40.807648  1187 net.cpp:124] Setting up relu3
I0428 20:18:40.807659  1187 net.cpp:131] Top shape: 100 10 (1000)
I0428 20:18:40.807663  1187 net.cpp:139] Memory required for data: 15122800
I0428 20:18:40.807667  1187 layer_factory.hpp:77] Creating layer ip3_relu3_0_split
I0428 20:18:40.807672  1187 net.cpp:86] Creating Layer ip3_relu3_0_split
I0428 20:18:40.807674  1187 net.cpp:408] ip3_relu3_0_split <- ip3
I0428 20:18:40.807680  1187 net.cpp:382] ip3_relu3_0_split -> ip3_relu3_0_split_0
I0428 20:18:40.807687  1187 net.cpp:382] ip3_relu3_0_split -> ip3_relu3_0_split_1
I0428 20:18:40.807735  1187 net.cpp:124] Setting up ip3_relu3_0_split
I0428 20:18:40.807742  1187 net.cpp:131] Top shape: 100 10 (1000)
I0428 20:18:40.807746  1187 net.cpp:131] Top shape: 100 10 (1000)
I0428 20:18:40.807749  1187 net.cpp:139] Memory required for data: 15130800
I0428 20:18:40.807751  1187 layer_factory.hpp:77] Creating layer accuracy
I0428 20:18:40.807756  1187 net.cpp:86] Creating Layer accuracy
I0428 20:18:40.807760  1187 net.cpp:408] accuracy <- ip3_relu3_0_split_0
I0428 20:18:40.807763  1187 net.cpp:408] accuracy <- label_mnist_1_split_0
I0428 20:18:40.807770  1187 net.cpp:382] accuracy -> accuracy
…
