…
I0428 19:32:46.775818 22954 net.cpp:296] The NetState phase (0) differed from the phase (1) specified by a rule in layer mnist
I0428 19:32:46.775830 22954 net.cpp:296] The NetState phase (0) differed from the phase (1) specified by a rule in layer accuracy
I0428 19:32:46.775892 22954 net.cpp:53] Initializing net from parameters: 
name: "LeNet"
state {
  phase: TRAIN
  level: 0
  stage: ""
}
layer {
  name: "mnist"
  type: "Data"
  top: "data"
  top: "label"
  include {
    phase: TRAIN
  }
  transform_param {
    scale: 0.00390625
  }
  data_param {
    source: "examples/mnist/mnist_train_lmdb"
    batch_size: 64
    backend: LMDB
  }
}
layer {
  name: "conv0"
  type: "Convolution"
  bottom: "data"
  top: "conv0"
  param {
    lr_mult: 1
  }
  param {
    lr_mult: 2
  }
  convolution_param {
    num_output: 25
    kernel_size: 5
    stride: 1
    weight_filler {
      type: "xavier"
    }
    bias_filler {
      type: "constant"
    }
  }
}
layer {
  name: "pool0"
  type: "Pooling"
  bottom: "conv0"
  top: "pool0"
  pooling_param {
    pool: MAX
    kernel_size: 2
    stride: 2
  }
}
layer {
  name: "ip1"
  type: "InnerProduct"
  bottom: "pool0"
  top: "ip1"
  param {
    lr_mult: 1
  }
  param {
    lr_mult: 2
  }
  inner_product_param {
    num_output: 25
    weight_filler {
      type: "xavier"
    }
    bias_filler {
      type: "constant"
    }
  }
}
layer {
  name: "relu1"
  type: "ReLU"
  bottom: "ip1"
  top: "ip1"
}
layer {
  name: "ip2"
  type: "InnerProduct"
  bottom: "ip1"
  top: "ip2"
  param {
    lr_mult: 1
  }
  param {
    lr_mult: 2
  }
  inner_product_param {
    num_output: 10
    weight_filler {
      type: "xavier"
    }
    bias_filler {
      type: "constant"
    }
  }
}
layer {
  name: "relu2"
  type: "ReLU"
  bottom: "ip2"
  top: "ip2"
}
layer {
  name: "loss"
  type: "SoftmaxWithLoss"
  bottom: "ip2"
  bottom: "label"
  top: "loss"
}
I0428 19:32:46.775956 22954 layer_factory.hpp:77] Creating layer mnist
I0428 19:32:46.776039 22954 db_lmdb.cpp:35] Opened lmdb examples/mnist/mnist_train_lmdb
I0428 19:32:46.776059 22954 net.cpp:86] Creating Layer mnist
I0428 19:32:46.776067 22954 net.cpp:382] mnist -> data
I0428 19:32:46.776085 22954 net.cpp:382] mnist -> label
I0428 19:32:46.776983 22954 data_layer.cpp:45] output data size: 64,1,28,28
I0428 19:32:46.779232 22954 net.cpp:124] Setting up mnist
I0428 19:32:46.779245 22954 net.cpp:131] Top shape: 64 1 28 28 (50176)
I0428 19:32:46.779250 22954 net.cpp:131] Top shape: 64 (64)
I0428 19:32:46.779254 22954 net.cpp:139] Memory required for data: 200960
I0428 19:32:46.779259 22954 layer_factory.hpp:77] Creating layer conv0
I0428 19:32:46.779271 22954 net.cpp:86] Creating Layer conv0
I0428 19:32:46.779278 22954 net.cpp:408] conv0 <- data
I0428 19:32:46.779285 22954 net.cpp:382] conv0 -> conv0
I0428 19:32:47.007833 22954 net.cpp:124] Setting up conv0
I0428 19:32:47.007859 22954 net.cpp:131] Top shape: 64 25 24 24 (921600)
I0428 19:32:47.007863 22954 net.cpp:139] Memory required for data: 3887360
I0428 19:32:47.007877 22954 layer_factory.hpp:77] Creating layer pool0
I0428 19:32:47.007889 22954 net.cpp:86] Creating Layer pool0
I0428 19:32:47.007894 22954 net.cpp:408] pool0 <- conv0
I0428 19:32:47.007899 22954 net.cpp:382] pool0 -> pool0
I0428 19:32:47.007957 22954 net.cpp:124] Setting up pool0
I0428 19:32:47.007962 22954 net.cpp:131] Top shape: 64 25 12 12 (230400)
I0428 19:32:47.007966 22954 net.cpp:139] Memory required for data: 4808960
I0428 19:32:47.007982 22954 layer_factory.hpp:77] Creating layer ip1
I0428 19:32:47.007990 22954 net.cpp:86] Creating Layer ip1
I0428 19:32:47.007993 22954 net.cpp:408] ip1 <- pool0
I0428 19:32:47.007997 22954 net.cpp:382] ip1 -> ip1
I0428 19:32:47.009526 22954 net.cpp:124] Setting up ip1
I0428 19:32:47.009555 22954 net.cpp:131] Top shape: 64 25 (1600)
I0428 19:32:47.009558 22954 net.cpp:139] Memory required for data: 4815360
I0428 19:32:47.009567 22954 layer_factory.hpp:77] Creating layer relu1
I0428 19:32:47.009573 22954 net.cpp:86] Creating Layer relu1
I0428 19:32:47.009577 22954 net.cpp:408] relu1 <- ip1
I0428 19:32:47.009582 22954 net.cpp:369] relu1 -> ip1 (in-place)
I0428 19:32:47.009747 22954 net.cpp:124] Setting up relu1
I0428 19:32:47.009757 22954 net.cpp:131] Top shape: 64 25 (1600)
I0428 19:32:47.009759 22954 net.cpp:139] Memory required for data: 4821760
I0428 19:32:47.009763 22954 layer_factory.hpp:77] Creating layer ip2
I0428 19:32:47.009768 22954 net.cpp:86] Creating Layer ip2
I0428 19:32:47.009771 22954 net.cpp:408] ip2 <- ip1
I0428 19:32:47.009776 22954 net.cpp:382] ip2 -> ip2
I0428 19:32:47.009878 22954 net.cpp:124] Setting up ip2
I0428 19:32:47.009899 22954 net.cpp:131] Top shape: 64 10 (640)
I0428 19:32:47.009902 22954 net.cpp:139] Memory required for data: 4824320
I0428 19:32:47.009910 22954 layer_factory.hpp:77] Creating layer relu2
I0428 19:32:47.009915 22954 net.cpp:86] Creating Layer relu2
I0428 19:32:47.009918 22954 net.cpp:408] relu2 <- ip2
I0428 19:32:47.009922 22954 net.cpp:369] relu2 -> ip2 (in-place)
I0428 19:32:47.010635 22954 net.cpp:124] Setting up relu2
I0428 19:32:47.010649 22954 net.cpp:131] Top shape: 64 10 (640)
I0428 19:32:47.010668 22954 net.cpp:139] Memory required for data: 4826880
I0428 19:32:47.010671 22954 layer_factory.hpp:77] Creating layer loss
I0428 19:32:47.010677 22954 net.cpp:86] Creating Layer loss
I0428 19:32:47.010681 22954 net.cpp:408] loss <- ip2
I0428 19:32:47.010685 22954 net.cpp:408] loss <- label
I0428 19:32:47.010690 22954 net.cpp:382] loss -> loss
I0428 19:32:47.010710 22954 layer_factory.hpp:77] Creating layer loss
…
I0428 19:32:47.011307 22954 solver.cpp:173] Creating test net (#0) specified by net file: ECE595/mnist/train_test/var_everything2/lenet_train_test162.prototxt
I0428 19:32:47.011330 22954 net.cpp:296] The NetState phase (1) differed from the phase (0) specified by a rule in layer mnist
I0428 19:32:47.011404 22954 net.cpp:53] Initializing net from parameters: 
name: "LeNet"
state {
  phase: TEST
}
layer {
  name: "mnist"
  type: "Data"
  top: "data"
  top: "label"
  include {
    phase: TEST
  }
  transform_param {
    scale: 0.00390625
  }
  data_param {
    source: "examples/mnist/mnist_test_lmdb"
    batch_size: 100
    backend: LMDB
  }
}
layer {
  name: "conv0"
  type: "Convolution"
  bottom: "data"
  top: "conv0"
  param {
    lr_mult: 1
  }
  param {
    lr_mult: 2
  }
  convolution_param {
    num_output: 25
    kernel_size: 5
    stride: 1
    weight_filler {
      type: "xavier"
    }
    bias_filler {
      type: "constant"
    }
  }
}
layer {
  name: "pool0"
  type: "Pooling"
  bottom: "conv0"
  top: "pool0"
  pooling_param {
    pool: MAX
    kernel_size: 2
    stride: 2
  }
}
layer {
  name: "ip1"
  type: "InnerProduct"
  bottom: "pool0"
  top: "ip1"
  param {
    lr_mult: 1
  }
  param {
    lr_mult: 2
  }
  inner_product_param {
    num_output: 25
    weight_filler {
      type: "xavier"
    }
    bias_filler {
      type: "constant"
    }
  }
}
layer {
  name: "relu1"
  type: "ReLU"
  bottom: "ip1"
  top: "ip1"
}
layer {
  name: "ip2"
  type: "InnerProduct"
  bottom: "ip1"
  top: "ip2"
  param {
    lr_mult: 1
  }
  param {
    lr_mult: 2
  }
  inner_product_param {
    num_output: 10
    weight_filler {
      type: "xavier"
    }
    bias_filler {
      type: "constant"
    }
  }
}
layer {
  name: "relu2"
  type: "ReLU"
  bottom: "ip2"
  top: "ip2"
}
layer {
  name: "accuracy"
  type: "Accuracy"
  bottom: "ip2"
  bottom: "label"
  top: "accuracy"
  include {
    phase: TEST
  }
}
layer {
  name: "loss"
  type: "SoftmaxWithLoss"
  bottom: "ip2"
  bottom: "label"
  top: "loss"
}
I0428 19:32:47.011472 22954 layer_factory.hpp:77] Creating layer mnist
I0428 19:32:47.011514 22954 db_lmdb.cpp:35] Opened lmdb examples/mnist/mnist_test_lmdb
I0428 19:32:47.011529 22954 net.cpp:86] Creating Layer mnist
I0428 19:32:47.011534 22954 net.cpp:382] mnist -> data
I0428 19:32:47.011541 22954 net.cpp:382] mnist -> label
I0428 19:32:47.011641 22954 data_layer.cpp:45] output data size: 100,1,28,28
I0428 19:32:47.012800 22954 net.cpp:124] Setting up mnist
I0428 19:32:47.012851 22954 net.cpp:131] Top shape: 100 1 28 28 (78400)
I0428 19:32:47.012856 22954 net.cpp:131] Top shape: 100 (100)
I0428 19:32:47.012859 22954 net.cpp:139] Memory required for data: 314000
I0428 19:32:47.012878 22954 layer_factory.hpp:77] Creating layer label_mnist_1_split
I0428 19:32:47.012886 22954 net.cpp:86] Creating Layer label_mnist_1_split
I0428 19:32:47.012889 22954 net.cpp:408] label_mnist_1_split <- label
I0428 19:32:47.012894 22954 net.cpp:382] label_mnist_1_split -> label_mnist_1_split_0
I0428 19:32:47.012902 22954 net.cpp:382] label_mnist_1_split -> label_mnist_1_split_1
I0428 19:32:47.013002 22954 net.cpp:124] Setting up label_mnist_1_split
I0428 19:32:47.013010 22954 net.cpp:131] Top shape: 100 (100)
I0428 19:32:47.013015 22954 net.cpp:131] Top shape: 100 (100)
I0428 19:32:47.013017 22954 net.cpp:139] Memory required for data: 314800
I0428 19:32:47.013020 22954 layer_factory.hpp:77] Creating layer conv0
I0428 19:32:47.013029 22954 net.cpp:86] Creating Layer conv0
I0428 19:32:47.013033 22954 net.cpp:408] conv0 <- data
I0428 19:32:47.013038 22954 net.cpp:382] conv0 -> conv0
I0428 19:32:47.014533 22954 net.cpp:124] Setting up conv0
I0428 19:32:47.014561 22954 net.cpp:131] Top shape: 100 25 24 24 (1440000)
I0428 19:32:47.014564 22954 net.cpp:139] Memory required for data: 6074800
I0428 19:32:47.014572 22954 layer_factory.hpp:77] Creating layer pool0
I0428 19:32:47.014580 22954 net.cpp:86] Creating Layer pool0
I0428 19:32:47.014583 22954 net.cpp:408] pool0 <- conv0
I0428 19:32:47.014587 22954 net.cpp:382] pool0 -> pool0
I0428 19:32:47.014637 22954 net.cpp:124] Setting up pool0
I0428 19:32:47.014643 22954 net.cpp:131] Top shape: 100 25 12 12 (360000)
I0428 19:32:47.014647 22954 net.cpp:139] Memory required for data: 7514800
I0428 19:32:47.014648 22954 layer_factory.hpp:77] Creating layer ip1
I0428 19:32:47.014655 22954 net.cpp:86] Creating Layer ip1
I0428 19:32:47.014658 22954 net.cpp:408] ip1 <- pool0
I0428 19:32:47.014663 22954 net.cpp:382] ip1 -> ip1
I0428 19:32:47.015254 22954 net.cpp:124] Setting up ip1
I0428 19:32:47.015262 22954 net.cpp:131] Top shape: 100 25 (2500)
I0428 19:32:47.015280 22954 net.cpp:139] Memory required for data: 7524800
I0428 19:32:47.015287 22954 layer_factory.hpp:77] Creating layer relu1
I0428 19:32:47.015292 22954 net.cpp:86] Creating Layer relu1
I0428 19:32:47.015295 22954 net.cpp:408] relu1 <- ip1
I0428 19:32:47.015300 22954 net.cpp:369] relu1 -> ip1 (in-place)
I0428 19:32:47.015446 22954 net.cpp:124] Setting up relu1
I0428 19:32:47.015457 22954 net.cpp:131] Top shape: 100 25 (2500)
I0428 19:32:47.015470 22954 net.cpp:139] Memory required for data: 7534800
I0428 19:32:47.015473 22954 layer_factory.hpp:77] Creating layer ip2
I0428 19:32:47.015478 22954 net.cpp:86] Creating Layer ip2
I0428 19:32:47.015481 22954 net.cpp:408] ip2 <- ip1
I0428 19:32:47.015486 22954 net.cpp:382] ip2 -> ip2
I0428 19:32:47.015682 22954 net.cpp:124] Setting up ip2
I0428 19:32:47.015691 22954 net.cpp:131] Top shape: 100 10 (1000)
I0428 19:32:47.015696 22954 net.cpp:139] Memory required for data: 7538800
I0428 19:32:47.015702 22954 layer_factory.hpp:77] Creating layer relu2
I0428 19:32:47.015707 22954 net.cpp:86] Creating Layer relu2
I0428 19:32:47.015710 22954 net.cpp:408] relu2 <- ip2
I0428 19:32:47.015715 22954 net.cpp:369] relu2 -> ip2 (in-place)
I0428 19:32:47.015884 22954 net.cpp:124] Setting up relu2
I0428 19:32:47.015893 22954 net.cpp:131] Top shape: 100 10 (1000)
I0428 19:32:47.015897 22954 net.cpp:139] Memory required for data: 7542800
I0428 19:32:47.015899 22954 layer_factory.hpp:77] Creating layer ip2_relu2_0_split
I0428 19:32:47.015905 22954 net.cpp:86] Creating Layer ip2_relu2_0_split
I0428 19:32:47.015908 22954 net.cpp:408] ip2_relu2_0_split <- ip2
I0428 19:32:47.015913 22954 net.cpp:382] ip2_relu2_0_split -> ip2_relu2_0_split_0
I0428 19:32:47.015920 22954 net.cpp:382] ip2_relu2_0_split -> ip2_relu2_0_split_1
I0428 19:32:47.015952 22954 net.cpp:124] Setting up ip2_relu2_0_split
I0428 19:32:47.015959 22954 net.cpp:131] Top shape: 100 10 (1000)
I0428 19:32:47.015964 22954 net.cpp:131] Top shape: 100 10 (1000)
I0428 19:32:47.015966 22954 net.cpp:139] Memory required for data: 7550800
I0428 19:32:47.015985 22954 layer_factory.hpp:77] Creating layer accuracy
I0428 19:32:47.015988 22954 net.cpp:86] Creating Layer accuracy
I0428 19:32:47.015992 22954 net.cpp:408] accuracy <- ip2_relu2_0_split_0
I0428 19:32:47.015996 22954 net.cpp:408] accuracy <- label_mnist_1_split_0
I0428 19:32:47.016000 22954 net.cpp:382] accuracy -> accuracy
…
