…
I0428 19:38:29.936519 24029 net.cpp:296] The NetState phase (0) differed from the phase (1) specified by a rule in layer mnist
I0428 19:38:29.936535 24029 net.cpp:296] The NetState phase (0) differed from the phase (1) specified by a rule in layer accuracy
I0428 19:38:29.936614 24029 net.cpp:53] Initializing net from parameters: 
name: "LeNet"
state {
  phase: TRAIN
  level: 0
  stage: ""
}
layer {
  name: "mnist"
  type: "Data"
  top: "data"
  top: "label"
  include {
    phase: TRAIN
  }
  transform_param {
    scale: 0.00390625
  }
  data_param {
    source: "examples/mnist/mnist_train_lmdb"
    batch_size: 64
    backend: LMDB
  }
}
layer {
  name: "conv0"
  type: "Convolution"
  bottom: "data"
  top: "conv0"
  param {
    lr_mult: 1
  }
  param {
    lr_mult: 2
  }
  convolution_param {
    num_output: 2
    kernel_size: 5
    stride: 1
    weight_filler {
      type: "xavier"
    }
    bias_filler {
      type: "constant"
    }
  }
}
layer {
  name: "pool0"
  type: "Pooling"
  bottom: "conv0"
  top: "pool0"
  pooling_param {
    pool: MAX
    kernel_size: 2
    stride: 2
  }
}
layer {
  name: "conv1"
  type: "Convolution"
  bottom: "pool0"
  top: "conv1"
  param {
    lr_mult: 1
  }
  param {
    lr_mult: 2
  }
  convolution_param {
    num_output: 2
    kernel_size: 5
    stride: 1
    weight_filler {
      type: "xavier"
    }
    bias_filler {
      type: "constant"
    }
  }
}
layer {
  name: "pool1"
  type: "Pooling"
  bottom: "conv1"
  top: "pool1"
  pooling_param {
    pool: MAX
    kernel_size: 2
    stride: 2
  }
}
layer {
  name: "ip1"
  type: "InnerProduct"
  bottom: "pool1"
  top: "ip1"
  param {
    lr_mult: 1
  }
  param {
    lr_mult: 2
  }
  inner_product_param {
    num_output: 10
    weight_filler {
      type: "xavier"
    }
    bias_filler {
      type: "constant"
    }
  }
}
layer {
  name: "relu1"
  type: "ReLU"
  bottom: "ip1"
  top: "ip1"
}
layer {
  name: "loss"
  type: "SoftmaxWithLoss"
  bottom: "ip1"
  bottom: "label"
  top: "loss"
}
I0428 19:38:29.936686 24029 layer_factory.hpp:77] Creating layer mnist
I0428 19:38:29.936779 24029 db_lmdb.cpp:35] Opened lmdb examples/mnist/mnist_train_lmdb
I0428 19:38:29.936801 24029 net.cpp:86] Creating Layer mnist
I0428 19:38:29.936818 24029 net.cpp:382] mnist -> data
I0428 19:38:29.936842 24029 net.cpp:382] mnist -> label
I0428 19:38:29.937896 24029 data_layer.cpp:45] output data size: 64,1,28,28
I0428 19:38:29.940280 24029 net.cpp:124] Setting up mnist
I0428 19:38:29.940310 24029 net.cpp:131] Top shape: 64 1 28 28 (50176)
I0428 19:38:29.940316 24029 net.cpp:131] Top shape: 64 (64)
I0428 19:38:29.940320 24029 net.cpp:139] Memory required for data: 200960
I0428 19:38:29.940326 24029 layer_factory.hpp:77] Creating layer conv0
I0428 19:38:29.940342 24029 net.cpp:86] Creating Layer conv0
I0428 19:38:29.940348 24029 net.cpp:408] conv0 <- data
I0428 19:38:29.940359 24029 net.cpp:382] conv0 -> conv0
I0428 19:38:30.226783 24029 net.cpp:124] Setting up conv0
I0428 19:38:30.226810 24029 net.cpp:131] Top shape: 64 2 24 24 (73728)
I0428 19:38:30.226814 24029 net.cpp:139] Memory required for data: 495872
I0428 19:38:30.226830 24029 layer_factory.hpp:77] Creating layer pool0
I0428 19:38:30.226841 24029 net.cpp:86] Creating Layer pool0
I0428 19:38:30.226846 24029 net.cpp:408] pool0 <- conv0
I0428 19:38:30.226852 24029 net.cpp:382] pool0 -> pool0
I0428 19:38:30.226898 24029 net.cpp:124] Setting up pool0
I0428 19:38:30.226903 24029 net.cpp:131] Top shape: 64 2 12 12 (18432)
I0428 19:38:30.226922 24029 net.cpp:139] Memory required for data: 569600
I0428 19:38:30.226927 24029 layer_factory.hpp:77] Creating layer conv1
I0428 19:38:30.226938 24029 net.cpp:86] Creating Layer conv1
I0428 19:38:30.226940 24029 net.cpp:408] conv1 <- pool0
I0428 19:38:30.226946 24029 net.cpp:382] conv1 -> conv1
I0428 19:38:30.228765 24029 net.cpp:124] Setting up conv1
I0428 19:38:30.228780 24029 net.cpp:131] Top shape: 64 2 8 8 (8192)
I0428 19:38:30.228782 24029 net.cpp:139] Memory required for data: 602368
I0428 19:38:30.228791 24029 layer_factory.hpp:77] Creating layer pool1
I0428 19:38:30.228799 24029 net.cpp:86] Creating Layer pool1
I0428 19:38:30.228802 24029 net.cpp:408] pool1 <- conv1
I0428 19:38:30.228807 24029 net.cpp:382] pool1 -> pool1
I0428 19:38:30.228868 24029 net.cpp:124] Setting up pool1
I0428 19:38:30.228873 24029 net.cpp:131] Top shape: 64 2 4 4 (2048)
I0428 19:38:30.228876 24029 net.cpp:139] Memory required for data: 610560
I0428 19:38:30.228880 24029 layer_factory.hpp:77] Creating layer ip1
I0428 19:38:30.228888 24029 net.cpp:86] Creating Layer ip1
I0428 19:38:30.228890 24029 net.cpp:408] ip1 <- pool1
I0428 19:38:30.228895 24029 net.cpp:382] ip1 -> ip1
I0428 19:38:30.228992 24029 net.cpp:124] Setting up ip1
I0428 19:38:30.229001 24029 net.cpp:131] Top shape: 64 10 (640)
I0428 19:38:30.229003 24029 net.cpp:139] Memory required for data: 613120
I0428 19:38:30.229010 24029 layer_factory.hpp:77] Creating layer relu1
I0428 19:38:30.229017 24029 net.cpp:86] Creating Layer relu1
I0428 19:38:30.229027 24029 net.cpp:408] relu1 <- ip1
I0428 19:38:30.229032 24029 net.cpp:369] relu1 -> ip1 (in-place)
I0428 19:38:30.229212 24029 net.cpp:124] Setting up relu1
I0428 19:38:30.229221 24029 net.cpp:131] Top shape: 64 10 (640)
I0428 19:38:30.229224 24029 net.cpp:139] Memory required for data: 615680
I0428 19:38:30.229228 24029 layer_factory.hpp:77] Creating layer loss
I0428 19:38:30.229233 24029 net.cpp:86] Creating Layer loss
I0428 19:38:30.229236 24029 net.cpp:408] loss <- ip1
I0428 19:38:30.229240 24029 net.cpp:408] loss <- label
I0428 19:38:30.229246 24029 net.cpp:382] loss -> loss
I0428 19:38:30.229264 24029 layer_factory.hpp:77] Creating layer loss
…
I0428 19:38:30.230398 24029 solver.cpp:173] Creating test net (#0) specified by net file: ECE595/mnist/train_test/var_everything2/lenet_train_test275.prototxt
I0428 19:38:30.230422 24029 net.cpp:296] The NetState phase (1) differed from the phase (0) specified by a rule in layer mnist
I0428 19:38:30.230499 24029 net.cpp:53] Initializing net from parameters: 
name: "LeNet"
state {
  phase: TEST
}
layer {
  name: "mnist"
  type: "Data"
  top: "data"
  top: "label"
  include {
    phase: TEST
  }
  transform_param {
    scale: 0.00390625
  }
  data_param {
    source: "examples/mnist/mnist_test_lmdb"
    batch_size: 100
    backend: LMDB
  }
}
layer {
  name: "conv0"
  type: "Convolution"
  bottom: "data"
  top: "conv0"
  param {
    lr_mult: 1
  }
  param {
    lr_mult: 2
  }
  convolution_param {
    num_output: 2
    kernel_size: 5
    stride: 1
    weight_filler {
      type: "xavier"
    }
    bias_filler {
      type: "constant"
    }
  }
}
layer {
  name: "pool0"
  type: "Pooling"
  bottom: "conv0"
  top: "pool0"
  pooling_param {
    pool: MAX
    kernel_size: 2
    stride: 2
  }
}
layer {
  name: "conv1"
  type: "Convolution"
  bottom: "pool0"
  top: "conv1"
  param {
    lr_mult: 1
  }
  param {
    lr_mult: 2
  }
  convolution_param {
    num_output: 2
    kernel_size: 5
    stride: 1
    weight_filler {
      type: "xavier"
    }
    bias_filler {
      type: "constant"
    }
  }
}
layer {
  name: "pool1"
  type: "Pooling"
  bottom: "conv1"
  top: "pool1"
  pooling_param {
    pool: MAX
    kernel_size: 2
    stride: 2
  }
}
layer {
  name: "ip1"
  type: "InnerProduct"
  bottom: "pool1"
  top: "ip1"
  param {
    lr_mult: 1
  }
  param {
    lr_mult: 2
  }
  inner_product_param {
    num_output: 10
    weight_filler {
      type: "xavier"
    }
    bias_filler {
      type: "constant"
    }
  }
}
layer {
  name: "relu1"
  type: "ReLU"
  bottom: "ip1"
  top: "ip1"
}
layer {
  name: "accuracy"
  type: "Accuracy"
  bottom: "ip1"
  bottom: "label"
  top: "accuracy"
  include {
    phase: TEST
  }
}
layer {
  name: "loss"
  type: "SoftmaxWithLoss"
  bottom: "ip1"
  bottom: "label"
  top: "loss"
}
I0428 19:38:30.230571 24029 layer_factory.hpp:77] Creating layer mnist
I0428 19:38:30.230618 24029 db_lmdb.cpp:35] Opened lmdb examples/mnist/mnist_test_lmdb
I0428 19:38:30.230631 24029 net.cpp:86] Creating Layer mnist
I0428 19:38:30.230635 24029 net.cpp:382] mnist -> data
I0428 19:38:30.230643 24029 net.cpp:382] mnist -> label
I0428 19:38:30.230728 24029 data_layer.cpp:45] output data size: 100,1,28,28
I0428 19:38:30.232805 24029 net.cpp:124] Setting up mnist
I0428 19:38:30.232823 24029 net.cpp:131] Top shape: 100 1 28 28 (78400)
I0428 19:38:30.232828 24029 net.cpp:131] Top shape: 100 (100)
I0428 19:38:30.232831 24029 net.cpp:139] Memory required for data: 314000
I0428 19:38:30.232836 24029 layer_factory.hpp:77] Creating layer label_mnist_1_split
I0428 19:38:30.232846 24029 net.cpp:86] Creating Layer label_mnist_1_split
I0428 19:38:30.232849 24029 net.cpp:408] label_mnist_1_split <- label
I0428 19:38:30.232854 24029 net.cpp:382] label_mnist_1_split -> label_mnist_1_split_0
I0428 19:38:30.232861 24029 net.cpp:382] label_mnist_1_split -> label_mnist_1_split_1
I0428 19:38:30.232921 24029 net.cpp:124] Setting up label_mnist_1_split
I0428 19:38:30.232926 24029 net.cpp:131] Top shape: 100 (100)
I0428 19:38:30.232930 24029 net.cpp:131] Top shape: 100 (100)
I0428 19:38:30.232933 24029 net.cpp:139] Memory required for data: 314800
I0428 19:38:30.232936 24029 layer_factory.hpp:77] Creating layer conv0
I0428 19:38:30.232945 24029 net.cpp:86] Creating Layer conv0
I0428 19:38:30.232949 24029 net.cpp:408] conv0 <- data
I0428 19:38:30.232954 24029 net.cpp:382] conv0 -> conv0
I0428 19:38:30.233912 24029 net.cpp:124] Setting up conv0
I0428 19:38:30.233924 24029 net.cpp:131] Top shape: 100 2 24 24 (115200)
I0428 19:38:30.233928 24029 net.cpp:139] Memory required for data: 775600
I0428 19:38:30.233937 24029 layer_factory.hpp:77] Creating layer pool0
I0428 19:38:30.233943 24029 net.cpp:86] Creating Layer pool0
I0428 19:38:30.233947 24029 net.cpp:408] pool0 <- conv0
I0428 19:38:30.233952 24029 net.cpp:382] pool0 -> pool0
I0428 19:38:30.233985 24029 net.cpp:124] Setting up pool0
I0428 19:38:30.233990 24029 net.cpp:131] Top shape: 100 2 12 12 (28800)
I0428 19:38:30.233994 24029 net.cpp:139] Memory required for data: 890800
I0428 19:38:30.233996 24029 layer_factory.hpp:77] Creating layer conv1
I0428 19:38:30.234004 24029 net.cpp:86] Creating Layer conv1
I0428 19:38:30.234007 24029 net.cpp:408] conv1 <- pool0
I0428 19:38:30.234012 24029 net.cpp:382] conv1 -> conv1
I0428 19:38:30.235446 24029 net.cpp:124] Setting up conv1
I0428 19:38:30.235460 24029 net.cpp:131] Top shape: 100 2 8 8 (12800)
I0428 19:38:30.235463 24029 net.cpp:139] Memory required for data: 942000
I0428 19:38:30.235472 24029 layer_factory.hpp:77] Creating layer pool1
I0428 19:38:30.235478 24029 net.cpp:86] Creating Layer pool1
I0428 19:38:30.235492 24029 net.cpp:408] pool1 <- conv1
I0428 19:38:30.235498 24029 net.cpp:382] pool1 -> pool1
I0428 19:38:30.235535 24029 net.cpp:124] Setting up pool1
I0428 19:38:30.235540 24029 net.cpp:131] Top shape: 100 2 4 4 (3200)
I0428 19:38:30.235543 24029 net.cpp:139] Memory required for data: 954800
I0428 19:38:30.235546 24029 layer_factory.hpp:77] Creating layer ip1
I0428 19:38:30.235553 24029 net.cpp:86] Creating Layer ip1
I0428 19:38:30.235555 24029 net.cpp:408] ip1 <- pool1
I0428 19:38:30.235560 24029 net.cpp:382] ip1 -> ip1
I0428 19:38:30.235661 24029 net.cpp:124] Setting up ip1
I0428 19:38:30.235668 24029 net.cpp:131] Top shape: 100 10 (1000)
I0428 19:38:30.235671 24029 net.cpp:139] Memory required for data: 958800
I0428 19:38:30.235678 24029 layer_factory.hpp:77] Creating layer relu1
I0428 19:38:30.235684 24029 net.cpp:86] Creating Layer relu1
I0428 19:38:30.235687 24029 net.cpp:408] relu1 <- ip1
I0428 19:38:30.235692 24029 net.cpp:369] relu1 -> ip1 (in-place)
I0428 19:38:30.236490 24029 net.cpp:124] Setting up relu1
I0428 19:38:30.236501 24029 net.cpp:131] Top shape: 100 10 (1000)
I0428 19:38:30.236505 24029 net.cpp:139] Memory required for data: 962800
I0428 19:38:30.236508 24029 layer_factory.hpp:77] Creating layer ip1_relu1_0_split
I0428 19:38:30.236515 24029 net.cpp:86] Creating Layer ip1_relu1_0_split
I0428 19:38:30.236518 24029 net.cpp:408] ip1_relu1_0_split <- ip1
I0428 19:38:30.236523 24029 net.cpp:382] ip1_relu1_0_split -> ip1_relu1_0_split_0
I0428 19:38:30.236531 24029 net.cpp:382] ip1_relu1_0_split -> ip1_relu1_0_split_1
I0428 19:38:30.236572 24029 net.cpp:124] Setting up ip1_relu1_0_split
I0428 19:38:30.236577 24029 net.cpp:131] Top shape: 100 10 (1000)
I0428 19:38:30.236580 24029 net.cpp:131] Top shape: 100 10 (1000)
I0428 19:38:30.236583 24029 net.cpp:139] Memory required for data: 970800
I0428 19:38:30.236587 24029 layer_factory.hpp:77] Creating layer accuracy
I0428 19:38:30.236590 24029 net.cpp:86] Creating Layer accuracy
I0428 19:38:30.236595 24029 net.cpp:408] accuracy <- ip1_relu1_0_split_0
I0428 19:38:30.236599 24029 net.cpp:408] accuracy <- label_mnist_1_split_0
I0428 19:38:30.236603 24029 net.cpp:382] accuracy -> accuracy
…
