…
I0428 20:27:29.442273  3045 net.cpp:296] The NetState phase (0) differed from the phase (1) specified by a rule in layer mnist
I0428 20:27:29.442293  3045 net.cpp:296] The NetState phase (0) differed from the phase (1) specified by a rule in layer accuracy
I0428 20:27:29.442384  3045 net.cpp:53] Initializing net from parameters: 
name: "LeNet"
state {
  phase: TRAIN
  level: 0
  stage: ""
}
layer {
  name: "mnist"
  type: "Data"
  top: "data"
  top: "label"
  include {
    phase: TRAIN
  }
  transform_param {
    scale: 0.00390625
  }
  data_param {
    source: "examples/mnist/mnist_train_lmdb"
    batch_size: 64
    backend: LMDB
  }
}
layer {
  name: "conv0"
  type: "Convolution"
  bottom: "data"
  top: "conv0"
  param {
    lr_mult: 1
  }
  param {
    lr_mult: 2
  }
  convolution_param {
    num_output: 100
    kernel_size: 5
    stride: 1
    weight_filler {
      type: "xavier"
    }
    bias_filler {
      type: "constant"
    }
  }
}
layer {
  name: "pool0"
  type: "Pooling"
  bottom: "conv0"
  top: "pool0"
  pooling_param {
    pool: MAX
    kernel_size: 2
    stride: 2
  }
}
layer {
  name: "conv1"
  type: "Convolution"
  bottom: "pool0"
  top: "conv1"
  param {
    lr_mult: 1
  }
  param {
    lr_mult: 2
  }
  convolution_param {
    num_output: 5
    kernel_size: 5
    stride: 1
    weight_filler {
      type: "xavier"
    }
    bias_filler {
      type: "constant"
    }
  }
}
layer {
  name: "pool1"
  type: "Pooling"
  bottom: "conv1"
  top: "pool1"
  pooling_param {
    pool: MAX
    kernel_size: 2
    stride: 2
  }
}
layer {
  name: "ip1"
  type: "InnerProduct"
  bottom: "pool1"
  top: "ip1"
  param {
    lr_mult: 1
  }
  param {
    lr_mult: 2
  }
  inner_product_param {
    num_output: 25
    weight_filler {
      type: "xavier"
    }
    bias_filler {
      type: "constant"
    }
  }
}
layer {
  name: "relu1"
  type: "ReLU"
  bottom: "ip1"
  top: "ip1"
}
layer {
  name: "ip2"
  type: "InnerProduct"
  bottom: "ip1"
  top: "ip2"
  param {
    lr_mult: 1
  }
  param {
    lr_mult: 2
  }
  inner_product_param {
    num_output: 10
    weight_filler {
      type: "xavier"
    }
    bias_filler {
      type: "constant"
    }
  }
}
layer {
  name: "relu2"
  type: "ReLU"
  bottom: "ip2"
  top: "ip2"
}
layer {
  name: "loss"
  type: "SoftmaxWithLoss"
  bottom: "ip2"
  bottom: "label"
  top: "loss"
}
I0428 20:27:29.442461  3045 layer_factory.hpp:77] Creating layer mnist
I0428 20:27:29.442562  3045 db_lmdb.cpp:35] Opened lmdb examples/mnist/mnist_train_lmdb
I0428 20:27:29.442587  3045 net.cpp:86] Creating Layer mnist
I0428 20:27:29.442595  3045 net.cpp:382] mnist -> data
I0428 20:27:29.442618  3045 net.cpp:382] mnist -> label
I0428 20:27:29.443709  3045 data_layer.cpp:45] output data size: 64,1,28,28
I0428 20:27:29.446310  3045 net.cpp:124] Setting up mnist
I0428 20:27:29.446329  3045 net.cpp:131] Top shape: 64 1 28 28 (50176)
I0428 20:27:29.446336  3045 net.cpp:131] Top shape: 64 (64)
I0428 20:27:29.446338  3045 net.cpp:139] Memory required for data: 200960
I0428 20:27:29.446346  3045 layer_factory.hpp:77] Creating layer conv0
I0428 20:27:29.446405  3045 net.cpp:86] Creating Layer conv0
I0428 20:27:29.446411  3045 net.cpp:408] conv0 <- data
I0428 20:27:29.446424  3045 net.cpp:382] conv0 -> conv0
I0428 20:27:29.738306  3045 net.cpp:124] Setting up conv0
I0428 20:27:29.738339  3045 net.cpp:131] Top shape: 64 100 24 24 (3686400)
I0428 20:27:29.738343  3045 net.cpp:139] Memory required for data: 14946560
I0428 20:27:29.738384  3045 layer_factory.hpp:77] Creating layer pool0
I0428 20:27:29.738399  3045 net.cpp:86] Creating Layer pool0
I0428 20:27:29.738404  3045 net.cpp:408] pool0 <- conv0
I0428 20:27:29.738410  3045 net.cpp:382] pool0 -> pool0
I0428 20:27:29.738468  3045 net.cpp:124] Setting up pool0
I0428 20:27:29.738478  3045 net.cpp:131] Top shape: 64 100 12 12 (921600)
I0428 20:27:29.738482  3045 net.cpp:139] Memory required for data: 18632960
I0428 20:27:29.738487  3045 layer_factory.hpp:77] Creating layer conv1
I0428 20:27:29.738499  3045 net.cpp:86] Creating Layer conv1
I0428 20:27:29.738503  3045 net.cpp:408] conv1 <- pool0
I0428 20:27:29.738508  3045 net.cpp:382] conv1 -> conv1
I0428 20:27:29.741847  3045 net.cpp:124] Setting up conv1
I0428 20:27:29.741865  3045 net.cpp:131] Top shape: 64 5 8 8 (20480)
I0428 20:27:29.741870  3045 net.cpp:139] Memory required for data: 18714880
I0428 20:27:29.741881  3045 layer_factory.hpp:77] Creating layer pool1
I0428 20:27:29.741890  3045 net.cpp:86] Creating Layer pool1
I0428 20:27:29.741895  3045 net.cpp:408] pool1 <- conv1
I0428 20:27:29.741901  3045 net.cpp:382] pool1 -> pool1
I0428 20:27:29.741946  3045 net.cpp:124] Setting up pool1
I0428 20:27:29.741953  3045 net.cpp:131] Top shape: 64 5 4 4 (5120)
I0428 20:27:29.741956  3045 net.cpp:139] Memory required for data: 18735360
I0428 20:27:29.741961  3045 layer_factory.hpp:77] Creating layer ip1
I0428 20:27:29.741968  3045 net.cpp:86] Creating Layer ip1
I0428 20:27:29.741971  3045 net.cpp:408] ip1 <- pool1
I0428 20:27:29.741977  3045 net.cpp:382] ip1 -> ip1
I0428 20:27:29.742110  3045 net.cpp:124] Setting up ip1
I0428 20:27:29.742118  3045 net.cpp:131] Top shape: 64 25 (1600)
I0428 20:27:29.742122  3045 net.cpp:139] Memory required for data: 18741760
I0428 20:27:29.742131  3045 layer_factory.hpp:77] Creating layer relu1
I0428 20:27:29.742137  3045 net.cpp:86] Creating Layer relu1
I0428 20:27:29.742141  3045 net.cpp:408] relu1 <- ip1
I0428 20:27:29.742146  3045 net.cpp:369] relu1 -> ip1 (in-place)
I0428 20:27:29.742346  3045 net.cpp:124] Setting up relu1
I0428 20:27:29.742357  3045 net.cpp:131] Top shape: 64 25 (1600)
I0428 20:27:29.742360  3045 net.cpp:139] Memory required for data: 18748160
I0428 20:27:29.742363  3045 layer_factory.hpp:77] Creating layer ip2
I0428 20:27:29.742372  3045 net.cpp:86] Creating Layer ip2
I0428 20:27:29.742374  3045 net.cpp:408] ip2 <- ip1
I0428 20:27:29.742380  3045 net.cpp:382] ip2 -> ip2
I0428 20:27:29.742488  3045 net.cpp:124] Setting up ip2
I0428 20:27:29.742496  3045 net.cpp:131] Top shape: 64 10 (640)
I0428 20:27:29.742501  3045 net.cpp:139] Memory required for data: 18750720
I0428 20:27:29.742506  3045 layer_factory.hpp:77] Creating layer relu2
I0428 20:27:29.742513  3045 net.cpp:86] Creating Layer relu2
I0428 20:27:29.742516  3045 net.cpp:408] relu2 <- ip2
I0428 20:27:29.742522  3045 net.cpp:369] relu2 -> ip2 (in-place)
I0428 20:27:29.743401  3045 net.cpp:124] Setting up relu2
I0428 20:27:29.743417  3045 net.cpp:131] Top shape: 64 10 (640)
I0428 20:27:29.743422  3045 net.cpp:139] Memory required for data: 18753280
I0428 20:27:29.743425  3045 layer_factory.hpp:77] Creating layer loss
I0428 20:27:29.743433  3045 net.cpp:86] Creating Layer loss
I0428 20:27:29.743438  3045 net.cpp:408] loss <- ip2
I0428 20:27:29.743443  3045 net.cpp:408] loss <- label
I0428 20:27:29.743450  3045 net.cpp:382] loss -> loss
I0428 20:27:29.743469  3045 layer_factory.hpp:77] Creating layer loss
…
I0428 20:27:29.744246  3045 solver.cpp:173] Creating test net (#0) specified by net file: ECE595/mnist/train_test/var_everything2/lenet_train_test1489.prototxt
I0428 20:27:29.744278  3045 net.cpp:296] The NetState phase (1) differed from the phase (0) specified by a rule in layer mnist
I0428 20:27:29.744381  3045 net.cpp:53] Initializing net from parameters: 
name: "LeNet"
state {
  phase: TEST
}
layer {
  name: "mnist"
  type: "Data"
  top: "data"
  top: "label"
  include {
    phase: TEST
  }
  transform_param {
    scale: 0.00390625
  }
  data_param {
    source: "examples/mnist/mnist_test_lmdb"
    batch_size: 100
    backend: LMDB
  }
}
layer {
  name: "conv0"
  type: "Convolution"
  bottom: "data"
  top: "conv0"
  param {
    lr_mult: 1
  }
  param {
    lr_mult: 2
  }
  convolution_param {
    num_output: 100
    kernel_size: 5
    stride: 1
    weight_filler {
      type: "xavier"
    }
    bias_filler {
      type: "constant"
    }
  }
}
layer {
  name: "pool0"
  type: "Pooling"
  bottom: "conv0"
  top: "pool0"
  pooling_param {
    pool: MAX
    kernel_size: 2
    stride: 2
  }
}
layer {
  name: "conv1"
  type: "Convolution"
  bottom: "pool0"
  top: "conv1"
  param {
    lr_mult: 1
  }
  param {
    lr_mult: 2
  }
  convolution_param {
    num_output: 5
    kernel_size: 5
    stride: 1
    weight_filler {
      type: "xavier"
    }
    bias_filler {
      type: "constant"
    }
  }
}
layer {
  name: "pool1"
  type: "Pooling"
  bottom: "conv1"
  top: "pool1"
  pooling_param {
    pool: MAX
    kernel_size: 2
    stride: 2
  }
}
layer {
  name: "ip1"
  type: "InnerProduct"
  bottom: "pool1"
  top: "ip1"
  param {
    lr_mult: 1
  }
  param {
    lr_mult: 2
  }
  inner_product_param {
    num_output: 25
    weight_filler {
      type: "xavier"
    }
    bias_filler {
      type: "constant"
    }
  }
}
layer {
  name: "relu1"
  type: "ReLU"
  bottom: "ip1"
  top: "ip1"
}
layer {
  name: "ip2"
  type: "InnerProduct"
  bottom: "ip1"
  top: "ip2"
  param {
    lr_mult: 1
  }
  param {
    lr_mult: 2
  }
  inner_product_param {
    num_output: 10
    weight_filler {
      type: "xavier"
    }
    bias_filler {
      type: "constant"
    }
  }
}
layer {
  name: "relu2"
  type: "ReLU"
  bottom: "ip2"
  top: "ip2"
}
layer {
  name: "accuracy"
  type: "Accuracy"
  bottom: "ip2"
  bottom: "label"
  top: "accuracy"
  include {
    phase: TEST
  }
}
layer {
  name: "loss"
  type: "SoftmaxWithLoss"
  bottom: "ip2"
  bottom: "label"
  top: "loss"
}
I0428 20:27:29.744457  3045 layer_factory.hpp:77] Creating layer mnist
I0428 20:27:29.744510  3045 db_lmdb.cpp:35] Opened lmdb examples/mnist/mnist_test_lmdb
I0428 20:27:29.744526  3045 net.cpp:86] Creating Layer mnist
I0428 20:27:29.744532  3045 net.cpp:382] mnist -> data
I0428 20:27:29.744541  3045 net.cpp:382] mnist -> label
I0428 20:27:29.744642  3045 data_layer.cpp:45] output data size: 100,1,28,28
I0428 20:27:29.746937  3045 net.cpp:124] Setting up mnist
I0428 20:27:29.746953  3045 net.cpp:131] Top shape: 100 1 28 28 (78400)
I0428 20:27:29.746959  3045 net.cpp:131] Top shape: 100 (100)
I0428 20:27:29.746963  3045 net.cpp:139] Memory required for data: 314000
I0428 20:27:29.746968  3045 layer_factory.hpp:77] Creating layer label_mnist_1_split
I0428 20:27:29.746975  3045 net.cpp:86] Creating Layer label_mnist_1_split
I0428 20:27:29.746979  3045 net.cpp:408] label_mnist_1_split <- label
I0428 20:27:29.746985  3045 net.cpp:382] label_mnist_1_split -> label_mnist_1_split_0
I0428 20:27:29.746994  3045 net.cpp:382] label_mnist_1_split -> label_mnist_1_split_1
I0428 20:27:29.747067  3045 net.cpp:124] Setting up label_mnist_1_split
I0428 20:27:29.747074  3045 net.cpp:131] Top shape: 100 (100)
I0428 20:27:29.747078  3045 net.cpp:131] Top shape: 100 (100)
I0428 20:27:29.747081  3045 net.cpp:139] Memory required for data: 314800
I0428 20:27:29.747086  3045 layer_factory.hpp:77] Creating layer conv0
I0428 20:27:29.747094  3045 net.cpp:86] Creating Layer conv0
I0428 20:27:29.747098  3045 net.cpp:408] conv0 <- data
I0428 20:27:29.747104  3045 net.cpp:382] conv0 -> conv0
I0428 20:27:29.749171  3045 net.cpp:124] Setting up conv0
I0428 20:27:29.749191  3045 net.cpp:131] Top shape: 100 100 24 24 (5760000)
I0428 20:27:29.749197  3045 net.cpp:139] Memory required for data: 23354800
I0428 20:27:29.749214  3045 layer_factory.hpp:77] Creating layer pool0
I0428 20:27:29.749228  3045 net.cpp:86] Creating Layer pool0
I0428 20:27:29.749235  3045 net.cpp:408] pool0 <- conv0
I0428 20:27:29.749244  3045 net.cpp:382] pool0 -> pool0
I0428 20:27:29.749302  3045 net.cpp:124] Setting up pool0
I0428 20:27:29.749313  3045 net.cpp:131] Top shape: 100 100 12 12 (1440000)
I0428 20:27:29.749316  3045 net.cpp:139] Memory required for data: 29114800
I0428 20:27:29.749320  3045 layer_factory.hpp:77] Creating layer conv1
I0428 20:27:29.749333  3045 net.cpp:86] Creating Layer conv1
I0428 20:27:29.749337  3045 net.cpp:408] conv1 <- pool0
I0428 20:27:29.749346  3045 net.cpp:382] conv1 -> conv1
I0428 20:27:29.751274  3045 net.cpp:124] Setting up conv1
I0428 20:27:29.751292  3045 net.cpp:131] Top shape: 100 5 8 8 (32000)
I0428 20:27:29.751297  3045 net.cpp:139] Memory required for data: 29242800
I0428 20:27:29.751309  3045 layer_factory.hpp:77] Creating layer pool1
I0428 20:27:29.751317  3045 net.cpp:86] Creating Layer pool1
I0428 20:27:29.751322  3045 net.cpp:408] pool1 <- conv1
I0428 20:27:29.751327  3045 net.cpp:382] pool1 -> pool1
I0428 20:27:29.751371  3045 net.cpp:124] Setting up pool1
I0428 20:27:29.751379  3045 net.cpp:131] Top shape: 100 5 4 4 (8000)
I0428 20:27:29.751381  3045 net.cpp:139] Memory required for data: 29274800
I0428 20:27:29.751386  3045 layer_factory.hpp:77] Creating layer ip1
I0428 20:27:29.751394  3045 net.cpp:86] Creating Layer ip1
I0428 20:27:29.751399  3045 net.cpp:408] ip1 <- pool1
I0428 20:27:29.751407  3045 net.cpp:382] ip1 -> ip1
I0428 20:27:29.751539  3045 net.cpp:124] Setting up ip1
I0428 20:27:29.751549  3045 net.cpp:131] Top shape: 100 25 (2500)
I0428 20:27:29.751554  3045 net.cpp:139] Memory required for data: 29284800
I0428 20:27:29.751561  3045 layer_factory.hpp:77] Creating layer relu1
I0428 20:27:29.751567  3045 net.cpp:86] Creating Layer relu1
I0428 20:27:29.751571  3045 net.cpp:408] relu1 <- ip1
I0428 20:27:29.751576  3045 net.cpp:369] relu1 -> ip1 (in-place)
I0428 20:27:29.751771  3045 net.cpp:124] Setting up relu1
I0428 20:27:29.751783  3045 net.cpp:131] Top shape: 100 25 (2500)
I0428 20:27:29.751787  3045 net.cpp:139] Memory required for data: 29294800
I0428 20:27:29.751791  3045 layer_factory.hpp:77] Creating layer ip2
I0428 20:27:29.751799  3045 net.cpp:86] Creating Layer ip2
I0428 20:27:29.751803  3045 net.cpp:408] ip2 <- ip1
I0428 20:27:29.751811  3045 net.cpp:382] ip2 -> ip2
I0428 20:27:29.751938  3045 net.cpp:124] Setting up ip2
I0428 20:27:29.751947  3045 net.cpp:131] Top shape: 100 10 (1000)
I0428 20:27:29.751950  3045 net.cpp:139] Memory required for data: 29298800
I0428 20:27:29.751957  3045 layer_factory.hpp:77] Creating layer relu2
I0428 20:27:29.751962  3045 net.cpp:86] Creating Layer relu2
I0428 20:27:29.751966  3045 net.cpp:408] relu2 <- ip2
I0428 20:27:29.751972  3045 net.cpp:369] relu2 -> ip2 (in-place)
I0428 20:27:29.752189  3045 net.cpp:124] Setting up relu2
I0428 20:27:29.752205  3045 net.cpp:131] Top shape: 100 10 (1000)
I0428 20:27:29.752213  3045 net.cpp:139] Memory required for data: 29302800
I0428 20:27:29.752218  3045 layer_factory.hpp:77] Creating layer ip2_relu2_0_split
I0428 20:27:29.752228  3045 net.cpp:86] Creating Layer ip2_relu2_0_split
I0428 20:27:29.752233  3045 net.cpp:408] ip2_relu2_0_split <- ip2
I0428 20:27:29.752246  3045 net.cpp:382] ip2_relu2_0_split -> ip2_relu2_0_split_0
I0428 20:27:29.752274  3045 net.cpp:382] ip2_relu2_0_split -> ip2_relu2_0_split_1
I0428 20:27:29.752344  3045 net.cpp:124] Setting up ip2_relu2_0_split
I0428 20:27:29.752358  3045 net.cpp:131] Top shape: 100 10 (1000)
I0428 20:27:29.752364  3045 net.cpp:131] Top shape: 100 10 (1000)
I0428 20:27:29.752367  3045 net.cpp:139] Memory required for data: 29310800
I0428 20:27:29.752372  3045 layer_factory.hpp:77] Creating layer accuracy
I0428 20:27:29.752378  3045 net.cpp:86] Creating Layer accuracy
I0428 20:27:29.752383  3045 net.cpp:408] accuracy <- ip2_relu2_0_split_0
I0428 20:27:29.752388  3045 net.cpp:408] accuracy <- label_mnist_1_split_0
I0428 20:27:29.752393  3045 net.cpp:382] accuracy -> accuracy
…
