…
I0428 20:22:49.960348  2134 net.cpp:296] The NetState phase (0) differed from the phase (1) specified by a rule in layer mnist
I0428 20:22:49.960367  2134 net.cpp:296] The NetState phase (0) differed from the phase (1) specified by a rule in layer accuracy
I0428 20:22:49.960458  2134 net.cpp:53] Initializing net from parameters: 
name: "LeNet"
state {
  phase: TRAIN
  level: 0
  stage: ""
}
layer {
  name: "mnist"
  type: "Data"
  top: "data"
  top: "label"
  include {
    phase: TRAIN
  }
  transform_param {
    scale: 0.00390625
  }
  data_param {
    source: "examples/mnist/mnist_train_lmdb"
    batch_size: 64
    backend: LMDB
  }
}
layer {
  name: "conv0"
  type: "Convolution"
  bottom: "data"
  top: "conv0"
  param {
    lr_mult: 1
  }
  param {
    lr_mult: 2
  }
  convolution_param {
    num_output: 50
    kernel_size: 5
    stride: 1
    weight_filler {
      type: "xavier"
    }
    bias_filler {
      type: "constant"
    }
  }
}
layer {
  name: "pool0"
  type: "Pooling"
  bottom: "conv0"
  top: "pool0"
  pooling_param {
    pool: MAX
    kernel_size: 2
    stride: 2
  }
}
layer {
  name: "conv1"
  type: "Convolution"
  bottom: "pool0"
  top: "conv1"
  param {
    lr_mult: 1
  }
  param {
    lr_mult: 2
  }
  convolution_param {
    num_output: 100
    kernel_size: 5
    stride: 1
    weight_filler {
      type: "xavier"
    }
    bias_filler {
      type: "constant"
    }
  }
}
layer {
  name: "pool1"
  type: "Pooling"
  bottom: "conv1"
  top: "pool1"
  pooling_param {
    pool: MAX
    kernel_size: 2
    stride: 2
  }
}
layer {
  name: "ip1"
  type: "InnerProduct"
  bottom: "pool1"
  top: "ip1"
  param {
    lr_mult: 1
  }
  param {
    lr_mult: 2
  }
  inner_product_param {
    num_output: 25
    weight_filler {
      type: "xavier"
    }
    bias_filler {
      type: "constant"
    }
  }
}
layer {
  name: "relu1"
  type: "ReLU"
  bottom: "ip1"
  top: "ip1"
}
layer {
  name: "ip2"
  type: "InnerProduct"
  bottom: "ip1"
  top: "ip2"
  param {
    lr_mult: 1
  }
  param {
    lr_mult: 2
  }
  inner_product_param {
    num_output: 10
    weight_filler {
      type: "xavier"
    }
    bias_filler {
      type: "constant"
    }
  }
}
layer {
  name: "relu2"
  type: "ReLU"
  bottom: "ip2"
  top: "ip2"
}
layer {
  name: "loss"
  type: "SoftmaxWithLoss"
  bottom: "ip2"
  bottom: "label"
  top: "loss"
}
I0428 20:22:49.960535  2134 layer_factory.hpp:77] Creating layer mnist
I0428 20:22:49.960633  2134 db_lmdb.cpp:35] Opened lmdb examples/mnist/mnist_train_lmdb
I0428 20:22:49.960659  2134 net.cpp:86] Creating Layer mnist
I0428 20:22:49.960667  2134 net.cpp:382] mnist -> data
I0428 20:22:49.960691  2134 net.cpp:382] mnist -> label
I0428 20:22:49.961805  2134 data_layer.cpp:45] output data size: 64,1,28,28
I0428 20:22:49.964256  2134 net.cpp:124] Setting up mnist
I0428 20:22:49.964272  2134 net.cpp:131] Top shape: 64 1 28 28 (50176)
I0428 20:22:49.964279  2134 net.cpp:131] Top shape: 64 (64)
I0428 20:22:49.964283  2134 net.cpp:139] Memory required for data: 200960
I0428 20:22:49.964290  2134 layer_factory.hpp:77] Creating layer conv0
I0428 20:22:49.964308  2134 net.cpp:86] Creating Layer conv0
I0428 20:22:49.964313  2134 net.cpp:408] conv0 <- data
I0428 20:22:49.964325  2134 net.cpp:382] conv0 -> conv0
I0428 20:22:50.229847  2134 net.cpp:124] Setting up conv0
I0428 20:22:50.229888  2134 net.cpp:131] Top shape: 64 50 24 24 (1843200)
I0428 20:22:50.229892  2134 net.cpp:139] Memory required for data: 7573760
I0428 20:22:50.229926  2134 layer_factory.hpp:77] Creating layer pool0
I0428 20:22:50.229954  2134 net.cpp:86] Creating Layer pool0
I0428 20:22:50.229959  2134 net.cpp:408] pool0 <- conv0
I0428 20:22:50.229964  2134 net.cpp:382] pool0 -> pool0
I0428 20:22:50.230010  2134 net.cpp:124] Setting up pool0
I0428 20:22:50.230022  2134 net.cpp:131] Top shape: 64 50 12 12 (460800)
I0428 20:22:50.230026  2134 net.cpp:139] Memory required for data: 9416960
I0428 20:22:50.230028  2134 layer_factory.hpp:77] Creating layer conv1
I0428 20:22:50.230039  2134 net.cpp:86] Creating Layer conv1
I0428 20:22:50.230042  2134 net.cpp:408] conv1 <- pool0
I0428 20:22:50.230046  2134 net.cpp:382] conv1 -> conv1
I0428 20:22:50.233620  2134 net.cpp:124] Setting up conv1
I0428 20:22:50.233633  2134 net.cpp:131] Top shape: 64 100 8 8 (409600)
I0428 20:22:50.233638  2134 net.cpp:139] Memory required for data: 11055360
I0428 20:22:50.233645  2134 layer_factory.hpp:77] Creating layer pool1
I0428 20:22:50.233652  2134 net.cpp:86] Creating Layer pool1
I0428 20:22:50.233655  2134 net.cpp:408] pool1 <- conv1
I0428 20:22:50.233659  2134 net.cpp:382] pool1 -> pool1
I0428 20:22:50.233711  2134 net.cpp:124] Setting up pool1
I0428 20:22:50.233716  2134 net.cpp:131] Top shape: 64 100 4 4 (102400)
I0428 20:22:50.233718  2134 net.cpp:139] Memory required for data: 11464960
I0428 20:22:50.233721  2134 layer_factory.hpp:77] Creating layer ip1
I0428 20:22:50.233727  2134 net.cpp:86] Creating Layer ip1
I0428 20:22:50.233731  2134 net.cpp:408] ip1 <- pool1
I0428 20:22:50.233734  2134 net.cpp:382] ip1 -> ip1
I0428 20:22:50.234051  2134 net.cpp:124] Setting up ip1
I0428 20:22:50.234058  2134 net.cpp:131] Top shape: 64 25 (1600)
I0428 20:22:50.234061  2134 net.cpp:139] Memory required for data: 11471360
I0428 20:22:50.234068  2134 layer_factory.hpp:77] Creating layer relu1
I0428 20:22:50.234073  2134 net.cpp:86] Creating Layer relu1
I0428 20:22:50.234076  2134 net.cpp:408] relu1 <- ip1
I0428 20:22:50.234081  2134 net.cpp:369] relu1 -> ip1 (in-place)
I0428 20:22:50.234266  2134 net.cpp:124] Setting up relu1
I0428 20:22:50.234274  2134 net.cpp:131] Top shape: 64 25 (1600)
I0428 20:22:50.234277  2134 net.cpp:139] Memory required for data: 11477760
I0428 20:22:50.234280  2134 layer_factory.hpp:77] Creating layer ip2
I0428 20:22:50.234287  2134 net.cpp:86] Creating Layer ip2
I0428 20:22:50.234289  2134 net.cpp:408] ip2 <- ip1
I0428 20:22:50.234294  2134 net.cpp:382] ip2 -> ip2
I0428 20:22:50.234381  2134 net.cpp:124] Setting up ip2
I0428 20:22:50.234388  2134 net.cpp:131] Top shape: 64 10 (640)
I0428 20:22:50.234391  2134 net.cpp:139] Memory required for data: 11480320
I0428 20:22:50.234396  2134 layer_factory.hpp:77] Creating layer relu2
I0428 20:22:50.234401  2134 net.cpp:86] Creating Layer relu2
I0428 20:22:50.234405  2134 net.cpp:408] relu2 <- ip2
I0428 20:22:50.234408  2134 net.cpp:369] relu2 -> ip2 (in-place)
I0428 20:22:50.235198  2134 net.cpp:124] Setting up relu2
I0428 20:22:50.235208  2134 net.cpp:131] Top shape: 64 10 (640)
I0428 20:22:50.235227  2134 net.cpp:139] Memory required for data: 11482880
I0428 20:22:50.235231  2134 layer_factory.hpp:77] Creating layer loss
I0428 20:22:50.235241  2134 net.cpp:86] Creating Layer loss
I0428 20:22:50.235245  2134 net.cpp:408] loss <- ip2
I0428 20:22:50.235250  2134 net.cpp:408] loss <- label
I0428 20:22:50.235271  2134 net.cpp:382] loss -> loss
I0428 20:22:50.235286  2134 layer_factory.hpp:77] Creating layer loss
…
I0428 20:22:50.235913  2134 solver.cpp:173] Creating test net (#0) specified by net file: ECE595/mnist/train_test/var_everything2/lenet_train_test1411.prototxt
I0428 20:22:50.235936  2134 net.cpp:296] The NetState phase (1) differed from the phase (0) specified by a rule in layer mnist
I0428 20:22:50.236032  2134 net.cpp:53] Initializing net from parameters: 
name: "LeNet"
state {
  phase: TEST
}
layer {
  name: "mnist"
  type: "Data"
  top: "data"
  top: "label"
  include {
    phase: TEST
  }
  transform_param {
    scale: 0.00390625
  }
  data_param {
    source: "examples/mnist/mnist_test_lmdb"
    batch_size: 100
    backend: LMDB
  }
}
layer {
  name: "conv0"
  type: "Convolution"
  bottom: "data"
  top: "conv0"
  param {
    lr_mult: 1
  }
  param {
    lr_mult: 2
  }
  convolution_param {
    num_output: 50
    kernel_size: 5
    stride: 1
    weight_filler {
      type: "xavier"
    }
    bias_filler {
      type: "constant"
    }
  }
}
layer {
  name: "pool0"
  type: "Pooling"
  bottom: "conv0"
  top: "pool0"
  pooling_param {
    pool: MAX
    kernel_size: 2
    stride: 2
  }
}
layer {
  name: "conv1"
  type: "Convolution"
  bottom: "pool0"
  top: "conv1"
  param {
    lr_mult: 1
  }
  param {
    lr_mult: 2
  }
  convolution_param {
    num_output: 100
    kernel_size: 5
    stride: 1
    weight_filler {
      type: "xavier"
    }
    bias_filler {
      type: "constant"
    }
  }
}
layer {
  name: "pool1"
  type: "Pooling"
  bottom: "conv1"
  top: "pool1"
  pooling_param {
    pool: MAX
    kernel_size: 2
    stride: 2
  }
}
layer {
  name: "ip1"
  type: "InnerProduct"
  bottom: "pool1"
  top: "ip1"
  param {
    lr_mult: 1
  }
  param {
    lr_mult: 2
  }
  inner_product_param {
    num_output: 25
    weight_filler {
      type: "xavier"
    }
    bias_filler {
      type: "constant"
    }
  }
}
layer {
  name: "relu1"
  type: "ReLU"
  bottom: "ip1"
  top: "ip1"
}
layer {
  name: "ip2"
  type: "InnerProduct"
  bottom: "ip1"
  top: "ip2"
  param {
    lr_mult: 1
  }
  param {
    lr_mult: 2
  }
  inner_product_param {
    num_output: 10
    weight_filler {
      type: "xavier"
    }
    bias_filler {
      type: "constant"
    }
  }
}
layer {
  name: "relu2"
  type: "ReLU"
  bottom: "ip2"
  top: "ip2"
}
layer {
  name: "accuracy"
  type: "Accuracy"
  bottom: "ip2"
  bottom: "label"
  top: "accuracy"
  include {
    phase: TEST
  }
}
layer {
  name: "loss"
  type: "SoftmaxWithLoss"
  bottom: "ip2"
  bottom: "label"
  top: "loss"
}
I0428 20:22:50.236110  2134 layer_factory.hpp:77] Creating layer mnist
I0428 20:22:50.236171  2134 db_lmdb.cpp:35] Opened lmdb examples/mnist/mnist_test_lmdb
I0428 20:22:50.236183  2134 net.cpp:86] Creating Layer mnist
I0428 20:22:50.236188  2134 net.cpp:382] mnist -> data
I0428 20:22:50.236196  2134 net.cpp:382] mnist -> label
I0428 20:22:50.236282  2134 data_layer.cpp:45] output data size: 100,1,28,28
I0428 20:22:50.237671  2134 net.cpp:124] Setting up mnist
I0428 20:22:50.237700  2134 net.cpp:131] Top shape: 100 1 28 28 (78400)
I0428 20:22:50.237706  2134 net.cpp:131] Top shape: 100 (100)
I0428 20:22:50.237709  2134 net.cpp:139] Memory required for data: 314000
I0428 20:22:50.237713  2134 layer_factory.hpp:77] Creating layer label_mnist_1_split
I0428 20:22:50.237720  2134 net.cpp:86] Creating Layer label_mnist_1_split
I0428 20:22:50.237723  2134 net.cpp:408] label_mnist_1_split <- label
I0428 20:22:50.237743  2134 net.cpp:382] label_mnist_1_split -> label_mnist_1_split_0
I0428 20:22:50.237751  2134 net.cpp:382] label_mnist_1_split -> label_mnist_1_split_1
I0428 20:22:50.237833  2134 net.cpp:124] Setting up label_mnist_1_split
I0428 20:22:50.237840  2134 net.cpp:131] Top shape: 100 (100)
I0428 20:22:50.237843  2134 net.cpp:131] Top shape: 100 (100)
I0428 20:22:50.237846  2134 net.cpp:139] Memory required for data: 314800
I0428 20:22:50.237849  2134 layer_factory.hpp:77] Creating layer conv0
I0428 20:22:50.237859  2134 net.cpp:86] Creating Layer conv0
I0428 20:22:50.237861  2134 net.cpp:408] conv0 <- data
I0428 20:22:50.237866  2134 net.cpp:382] conv0 -> conv0
I0428 20:22:50.239739  2134 net.cpp:124] Setting up conv0
I0428 20:22:50.239753  2134 net.cpp:131] Top shape: 100 50 24 24 (2880000)
I0428 20:22:50.239758  2134 net.cpp:139] Memory required for data: 11834800
I0428 20:22:50.239766  2134 layer_factory.hpp:77] Creating layer pool0
I0428 20:22:50.239789  2134 net.cpp:86] Creating Layer pool0
I0428 20:22:50.239792  2134 net.cpp:408] pool0 <- conv0
I0428 20:22:50.239797  2134 net.cpp:382] pool0 -> pool0
I0428 20:22:50.239846  2134 net.cpp:124] Setting up pool0
I0428 20:22:50.239851  2134 net.cpp:131] Top shape: 100 50 12 12 (720000)
I0428 20:22:50.239855  2134 net.cpp:139] Memory required for data: 14714800
I0428 20:22:50.239857  2134 layer_factory.hpp:77] Creating layer conv1
I0428 20:22:50.239866  2134 net.cpp:86] Creating Layer conv1
I0428 20:22:50.239869  2134 net.cpp:408] conv1 <- pool0
I0428 20:22:50.239873  2134 net.cpp:382] conv1 -> conv1
I0428 20:22:50.242935  2134 net.cpp:124] Setting up conv1
I0428 20:22:50.242949  2134 net.cpp:131] Top shape: 100 100 8 8 (640000)
I0428 20:22:50.242954  2134 net.cpp:139] Memory required for data: 17274800
I0428 20:22:50.242961  2134 layer_factory.hpp:77] Creating layer pool1
I0428 20:22:50.242967  2134 net.cpp:86] Creating Layer pool1
I0428 20:22:50.242985  2134 net.cpp:408] pool1 <- conv1
I0428 20:22:50.242990  2134 net.cpp:382] pool1 -> pool1
I0428 20:22:50.243046  2134 net.cpp:124] Setting up pool1
I0428 20:22:50.243052  2134 net.cpp:131] Top shape: 100 100 4 4 (160000)
I0428 20:22:50.243055  2134 net.cpp:139] Memory required for data: 17914800
I0428 20:22:50.243058  2134 layer_factory.hpp:77] Creating layer ip1
I0428 20:22:50.243064  2134 net.cpp:86] Creating Layer ip1
I0428 20:22:50.243075  2134 net.cpp:408] ip1 <- pool1
I0428 20:22:50.243080  2134 net.cpp:382] ip1 -> ip1
I0428 20:22:50.243420  2134 net.cpp:124] Setting up ip1
I0428 20:22:50.243432  2134 net.cpp:131] Top shape: 100 25 (2500)
I0428 20:22:50.243435  2134 net.cpp:139] Memory required for data: 17924800
I0428 20:22:50.243448  2134 layer_factory.hpp:77] Creating layer relu1
I0428 20:22:50.243453  2134 net.cpp:86] Creating Layer relu1
I0428 20:22:50.243458  2134 net.cpp:408] relu1 <- ip1
I0428 20:22:50.243468  2134 net.cpp:369] relu1 -> ip1 (in-place)
I0428 20:22:50.243623  2134 net.cpp:124] Setting up relu1
I0428 20:22:50.243633  2134 net.cpp:131] Top shape: 100 25 (2500)
I0428 20:22:50.243635  2134 net.cpp:139] Memory required for data: 17934800
I0428 20:22:50.243639  2134 layer_factory.hpp:77] Creating layer ip2
I0428 20:22:50.243645  2134 net.cpp:86] Creating Layer ip2
I0428 20:22:50.243649  2134 net.cpp:408] ip2 <- ip1
I0428 20:22:50.243654  2134 net.cpp:382] ip2 -> ip2
I0428 20:22:50.243749  2134 net.cpp:124] Setting up ip2
I0428 20:22:50.243757  2134 net.cpp:131] Top shape: 100 10 (1000)
I0428 20:22:50.243759  2134 net.cpp:139] Memory required for data: 17938800
I0428 20:22:50.243764  2134 layer_factory.hpp:77] Creating layer relu2
I0428 20:22:50.243768  2134 net.cpp:86] Creating Layer relu2
I0428 20:22:50.243772  2134 net.cpp:408] relu2 <- ip2
I0428 20:22:50.243774  2134 net.cpp:369] relu2 -> ip2 (in-place)
I0428 20:22:50.243940  2134 net.cpp:124] Setting up relu2
I0428 20:22:50.243949  2134 net.cpp:131] Top shape: 100 10 (1000)
I0428 20:22:50.243952  2134 net.cpp:139] Memory required for data: 17942800
I0428 20:22:50.243971  2134 layer_factory.hpp:77] Creating layer ip2_relu2_0_split
I0428 20:22:50.243976  2134 net.cpp:86] Creating Layer ip2_relu2_0_split
I0428 20:22:50.243986  2134 net.cpp:408] ip2_relu2_0_split <- ip2
I0428 20:22:50.243993  2134 net.cpp:382] ip2_relu2_0_split -> ip2_relu2_0_split_0
I0428 20:22:50.244009  2134 net.cpp:382] ip2_relu2_0_split -> ip2_relu2_0_split_1
I0428 20:22:50.244046  2134 net.cpp:124] Setting up ip2_relu2_0_split
I0428 20:22:50.244052  2134 net.cpp:131] Top shape: 100 10 (1000)
I0428 20:22:50.244056  2134 net.cpp:131] Top shape: 100 10 (1000)
I0428 20:22:50.244069  2134 net.cpp:139] Memory required for data: 17950800
I0428 20:22:50.244072  2134 layer_factory.hpp:77] Creating layer accuracy
I0428 20:22:50.244078  2134 net.cpp:86] Creating Layer accuracy
I0428 20:22:50.244082  2134 net.cpp:408] accuracy <- ip2_relu2_0_split_0
I0428 20:22:50.244086  2134 net.cpp:408] accuracy <- label_mnist_1_split_0
I0428 20:22:50.244091  2134 net.cpp:382] accuracy -> accuracy
…
