…
I0428 19:58:07.753949 28895 net.cpp:296] The NetState phase (0) differed from the phase (1) specified by a rule in layer mnist
I0428 19:58:07.753968 28895 net.cpp:296] The NetState phase (0) differed from the phase (1) specified by a rule in layer accuracy
I0428 19:58:07.754068 28895 net.cpp:53] Initializing net from parameters: 
name: "LeNet"
state {
  phase: TRAIN
  level: 0
  stage: ""
}
layer {
  name: "mnist"
  type: "Data"
  top: "data"
  top: "label"
  include {
    phase: TRAIN
  }
  transform_param {
    scale: 0.00390625
  }
  data_param {
    source: "examples/mnist/mnist_train_lmdb"
    batch_size: 64
    backend: LMDB
  }
}
layer {
  name: "conv0"
  type: "Convolution"
  bottom: "data"
  top: "conv0"
  param {
    lr_mult: 1
  }
  param {
    lr_mult: 2
  }
  convolution_param {
    num_output: 10
    kernel_size: 5
    stride: 1
    weight_filler {
      type: "xavier"
    }
    bias_filler {
      type: "constant"
    }
  }
}
layer {
  name: "pool0"
  type: "Pooling"
  bottom: "conv0"
  top: "pool0"
  pooling_param {
    pool: MAX
    kernel_size: 2
    stride: 2
  }
}
layer {
  name: "conv1"
  type: "Convolution"
  bottom: "pool0"
  top: "conv1"
  param {
    lr_mult: 1
  }
  param {
    lr_mult: 2
  }
  convolution_param {
    num_output: 5
    kernel_size: 5
    stride: 1
    weight_filler {
      type: "xavier"
    }
    bias_filler {
      type: "constant"
    }
  }
}
layer {
  name: "pool1"
  type: "Pooling"
  bottom: "conv1"
  top: "pool1"
  pooling_param {
    pool: MAX
    kernel_size: 2
    stride: 2
  }
}
layer {
  name: "ip1"
  type: "InnerProduct"
  bottom: "pool1"
  top: "ip1"
  param {
    lr_mult: 1
  }
  param {
    lr_mult: 2
  }
  inner_product_param {
    num_output: 25
    weight_filler {
      type: "xavier"
    }
    bias_filler {
      type: "constant"
    }
  }
}
layer {
  name: "relu1"
  type: "ReLU"
  bottom: "ip1"
  top: "ip1"
}
layer {
  name: "ip2"
  type: "InnerProduct"
  bottom: "ip1"
  top: "ip2"
  param {
    lr_mult: 1
  }
  param {
    lr_mult: 2
  }
  inner_product_param {
    num_output: 50
    weight_filler {
      type: "xavier"
    }
    bias_filler {
      type: "constant"
    }
  }
}
layer {
  name: "relu2"
  type: "ReLU"
  bottom: "ip2"
  top: "ip2"
}
layer {
  name: "ip3"
  type: "InnerProduct"
  bottom: "ip2"
  top: "ip3"
  param {
    lr_mult: 1
  }
  param {
    lr_mult: 2
  }
  inner_product_param {
    num_output: 10
    weight_filler {
      type: "xavier"
    }
    bias_filler {
      type: "constant"
    }
  }
}
layer {
  name: "relu3"
  type: "ReLU"
  bottom: "ip3"
  top: "ip3"
}
layer {
  name: "loss"
  type: "SoftmaxWithLoss"
  bottom: "ip3"
  bottom: "label"
  top: "loss"
}
I0428 19:58:07.754144 28895 layer_factory.hpp:77] Creating layer mnist
I0428 19:58:07.754236 28895 db_lmdb.cpp:35] Opened lmdb examples/mnist/mnist_train_lmdb
I0428 19:58:07.754261 28895 net.cpp:86] Creating Layer mnist
I0428 19:58:07.754267 28895 net.cpp:382] mnist -> data
I0428 19:58:07.754289 28895 net.cpp:382] mnist -> label
I0428 19:58:07.755342 28895 data_layer.cpp:45] output data size: 64,1,28,28
I0428 19:58:07.757895 28895 net.cpp:124] Setting up mnist
I0428 19:58:07.757912 28895 net.cpp:131] Top shape: 64 1 28 28 (50176)
I0428 19:58:07.757920 28895 net.cpp:131] Top shape: 64 (64)
I0428 19:58:07.757923 28895 net.cpp:139] Memory required for data: 200960
I0428 19:58:07.757930 28895 layer_factory.hpp:77] Creating layer conv0
I0428 19:58:07.757946 28895 net.cpp:86] Creating Layer conv0
I0428 19:58:07.757964 28895 net.cpp:408] conv0 <- data
I0428 19:58:07.757977 28895 net.cpp:382] conv0 -> conv0
I0428 19:58:08.028951 28895 net.cpp:124] Setting up conv0
I0428 19:58:08.028993 28895 net.cpp:131] Top shape: 64 10 24 24 (368640)
I0428 19:58:08.028997 28895 net.cpp:139] Memory required for data: 1675520
I0428 19:58:08.029026 28895 layer_factory.hpp:77] Creating layer pool0
I0428 19:58:08.029039 28895 net.cpp:86] Creating Layer pool0
I0428 19:58:08.029043 28895 net.cpp:408] pool0 <- conv0
I0428 19:58:08.029049 28895 net.cpp:382] pool0 -> pool0
I0428 19:58:08.029098 28895 net.cpp:124] Setting up pool0
I0428 19:58:08.029104 28895 net.cpp:131] Top shape: 64 10 12 12 (92160)
I0428 19:58:08.029108 28895 net.cpp:139] Memory required for data: 2044160
I0428 19:58:08.029110 28895 layer_factory.hpp:77] Creating layer conv1
I0428 19:58:08.029122 28895 net.cpp:86] Creating Layer conv1
I0428 19:58:08.029125 28895 net.cpp:408] conv1 <- pool0
I0428 19:58:08.029145 28895 net.cpp:382] conv1 -> conv1
I0428 19:58:08.032148 28895 net.cpp:124] Setting up conv1
I0428 19:58:08.032162 28895 net.cpp:131] Top shape: 64 5 8 8 (20480)
I0428 19:58:08.032166 28895 net.cpp:139] Memory required for data: 2126080
I0428 19:58:08.032191 28895 layer_factory.hpp:77] Creating layer pool1
I0428 19:58:08.032198 28895 net.cpp:86] Creating Layer pool1
I0428 19:58:08.032202 28895 net.cpp:408] pool1 <- conv1
I0428 19:58:08.032205 28895 net.cpp:382] pool1 -> pool1
I0428 19:58:08.032243 28895 net.cpp:124] Setting up pool1
I0428 19:58:08.032249 28895 net.cpp:131] Top shape: 64 5 4 4 (5120)
I0428 19:58:08.032253 28895 net.cpp:139] Memory required for data: 2146560
I0428 19:58:08.032255 28895 layer_factory.hpp:77] Creating layer ip1
I0428 19:58:08.032263 28895 net.cpp:86] Creating Layer ip1
I0428 19:58:08.032265 28895 net.cpp:408] ip1 <- pool1
I0428 19:58:08.032270 28895 net.cpp:382] ip1 -> ip1
I0428 19:58:08.032392 28895 net.cpp:124] Setting up ip1
I0428 19:58:08.032397 28895 net.cpp:131] Top shape: 64 25 (1600)
I0428 19:58:08.032400 28895 net.cpp:139] Memory required for data: 2152960
I0428 19:58:08.032407 28895 layer_factory.hpp:77] Creating layer relu1
I0428 19:58:08.032413 28895 net.cpp:86] Creating Layer relu1
I0428 19:58:08.032416 28895 net.cpp:408] relu1 <- ip1
I0428 19:58:08.032420 28895 net.cpp:369] relu1 -> ip1 (in-place)
I0428 19:58:08.032582 28895 net.cpp:124] Setting up relu1
I0428 19:58:08.032591 28895 net.cpp:131] Top shape: 64 25 (1600)
I0428 19:58:08.032594 28895 net.cpp:139] Memory required for data: 2159360
I0428 19:58:08.032596 28895 layer_factory.hpp:77] Creating layer ip2
I0428 19:58:08.032603 28895 net.cpp:86] Creating Layer ip2
I0428 19:58:08.032606 28895 net.cpp:408] ip2 <- ip1
I0428 19:58:08.032610 28895 net.cpp:382] ip2 -> ip2
I0428 19:58:08.032713 28895 net.cpp:124] Setting up ip2
I0428 19:58:08.032719 28895 net.cpp:131] Top shape: 64 50 (3200)
I0428 19:58:08.032722 28895 net.cpp:139] Memory required for data: 2172160
I0428 19:58:08.032727 28895 layer_factory.hpp:77] Creating layer relu2
I0428 19:58:08.032733 28895 net.cpp:86] Creating Layer relu2
I0428 19:58:08.032737 28895 net.cpp:408] relu2 <- ip2
I0428 19:58:08.032740 28895 net.cpp:369] relu2 -> ip2 (in-place)
I0428 19:58:08.033568 28895 net.cpp:124] Setting up relu2
I0428 19:58:08.033579 28895 net.cpp:131] Top shape: 64 50 (3200)
I0428 19:58:08.033598 28895 net.cpp:139] Memory required for data: 2184960
I0428 19:58:08.033601 28895 layer_factory.hpp:77] Creating layer ip3
I0428 19:58:08.033608 28895 net.cpp:86] Creating Layer ip3
I0428 19:58:08.033612 28895 net.cpp:408] ip3 <- ip2
I0428 19:58:08.033619 28895 net.cpp:382] ip3 -> ip3
I0428 19:58:08.033735 28895 net.cpp:124] Setting up ip3
I0428 19:58:08.033741 28895 net.cpp:131] Top shape: 64 10 (640)
I0428 19:58:08.033745 28895 net.cpp:139] Memory required for data: 2187520
I0428 19:58:08.033751 28895 layer_factory.hpp:77] Creating layer relu3
I0428 19:58:08.033756 28895 net.cpp:86] Creating Layer relu3
I0428 19:58:08.033759 28895 net.cpp:408] relu3 <- ip3
I0428 19:58:08.033779 28895 net.cpp:369] relu3 -> ip3 (in-place)
I0428 19:58:08.033993 28895 net.cpp:124] Setting up relu3
I0428 19:58:08.034003 28895 net.cpp:131] Top shape: 64 10 (640)
I0428 19:58:08.034005 28895 net.cpp:139] Memory required for data: 2190080
I0428 19:58:08.034008 28895 layer_factory.hpp:77] Creating layer loss
I0428 19:58:08.034014 28895 net.cpp:86] Creating Layer loss
I0428 19:58:08.034018 28895 net.cpp:408] loss <- ip3
I0428 19:58:08.034021 28895 net.cpp:408] loss <- label
I0428 19:58:08.034029 28895 net.cpp:382] loss -> loss
I0428 19:58:08.034045 28895 layer_factory.hpp:77] Creating layer loss
…
I0428 19:58:08.034785 28895 solver.cpp:173] Creating test net (#0) specified by net file: ECE595/mnist/train_test/var_everything2/lenet_train_test809.prototxt
I0428 19:58:08.034827 28895 net.cpp:296] The NetState phase (1) differed from the phase (0) specified by a rule in layer mnist
I0428 19:58:08.034920 28895 net.cpp:53] Initializing net from parameters: 
name: "LeNet"
state {
  phase: TEST
}
layer {
  name: "mnist"
  type: "Data"
  top: "data"
  top: "label"
  include {
    phase: TEST
  }
  transform_param {
    scale: 0.00390625
  }
  data_param {
    source: "examples/mnist/mnist_test_lmdb"
    batch_size: 100
    backend: LMDB
  }
}
layer {
  name: "conv0"
  type: "Convolution"
  bottom: "data"
  top: "conv0"
  param {
    lr_mult: 1
  }
  param {
    lr_mult: 2
  }
  convolution_param {
    num_output: 10
    kernel_size: 5
    stride: 1
    weight_filler {
      type: "xavier"
    }
    bias_filler {
      type: "constant"
    }
  }
}
layer {
  name: "pool0"
  type: "Pooling"
  bottom: "conv0"
  top: "pool0"
  pooling_param {
    pool: MAX
    kernel_size: 2
    stride: 2
  }
}
layer {
  name: "conv1"
  type: "Convolution"
  bottom: "pool0"
  top: "conv1"
  param {
    lr_mult: 1
  }
  param {
    lr_mult: 2
  }
  convolution_param {
    num_output: 5
    kernel_size: 5
    stride: 1
    weight_filler {
      type: "xavier"
    }
    bias_filler {
      type: "constant"
    }
  }
}
layer {
  name: "pool1"
  type: "Pooling"
  bottom: "conv1"
  top: "pool1"
  pooling_param {
    pool: MAX
    kernel_size: 2
    stride: 2
  }
}
layer {
  name: "ip1"
  type: "InnerProduct"
  bottom: "pool1"
  top: "ip1"
  param {
    lr_mult: 1
  }
  param {
    lr_mult: 2
  }
  inner_product_param {
    num_output: 25
    weight_filler {
      type: "xavier"
    }
    bias_filler {
      type: "constant"
    }
  }
}
layer {
  name: "relu1"
  type: "ReLU"
  bottom: "ip1"
  top: "ip1"
}
layer {
  name: "ip2"
  type: "InnerProduct"
  bottom: "ip1"
  top: "ip2"
  param {
    lr_mult: 1
  }
  param {
    lr_mult: 2
  }
  inner_product_param {
    num_output: 50
    weight_filler {
      type: "xavier"
    }
    bias_filler {
      type: "constant"
    }
  }
}
layer {
  name: "relu2"
  type: "ReLU"
  bottom: "ip2"
  top: "ip2"
}
layer {
  name: "ip3"
  type: "InnerProduct"
  bottom: "ip2"
  top: "ip3"
  param {
    lr_mult: 1
  }
  param {
    lr_mult: 2
  }
  inner_product_param {
    num_output: 10
    weight_filler {
      type: "xavier"
    }
    bias_filler {
      type: "constant"
    }
  }
}
layer {
  name: "relu3"
  type: "ReLU"
  bottom: "ip3"
  top: "ip3"
}
layer {
  name: "accuracy"
  type: "Accuracy"
  bottom: "ip3"
  bottom: "label"
  top: "accuracy"
  include {
    phase: TEST
  }
}
layer {
  name: "loss"
  type: "SoftmaxWithLoss"
  bottom: "ip3"
  bottom: "label"
  top: "loss"
}
I0428 19:58:08.035017 28895 layer_factory.hpp:77] Creating layer mnist
I0428 19:58:08.035091 28895 db_lmdb.cpp:35] Opened lmdb examples/mnist/mnist_test_lmdb
I0428 19:58:08.035104 28895 net.cpp:86] Creating Layer mnist
I0428 19:58:08.035109 28895 net.cpp:382] mnist -> data
I0428 19:58:08.035116 28895 net.cpp:382] mnist -> label
I0428 19:58:08.035200 28895 data_layer.cpp:45] output data size: 100,1,28,28
I0428 19:58:08.037248 28895 net.cpp:124] Setting up mnist
I0428 19:58:08.037276 28895 net.cpp:131] Top shape: 100 1 28 28 (78400)
I0428 19:58:08.037282 28895 net.cpp:131] Top shape: 100 (100)
I0428 19:58:08.037286 28895 net.cpp:139] Memory required for data: 314000
I0428 19:58:08.037289 28895 layer_factory.hpp:77] Creating layer label_mnist_1_split
I0428 19:58:08.037325 28895 net.cpp:86] Creating Layer label_mnist_1_split
I0428 19:58:08.037329 28895 net.cpp:408] label_mnist_1_split <- label
I0428 19:58:08.037334 28895 net.cpp:382] label_mnist_1_split -> label_mnist_1_split_0
I0428 19:58:08.037340 28895 net.cpp:382] label_mnist_1_split -> label_mnist_1_split_1
I0428 19:58:08.037389 28895 net.cpp:124] Setting up label_mnist_1_split
I0428 19:58:08.037394 28895 net.cpp:131] Top shape: 100 (100)
I0428 19:58:08.037397 28895 net.cpp:131] Top shape: 100 (100)
I0428 19:58:08.037400 28895 net.cpp:139] Memory required for data: 314800
I0428 19:58:08.037402 28895 layer_factory.hpp:77] Creating layer conv0
I0428 19:58:08.037411 28895 net.cpp:86] Creating Layer conv0
I0428 19:58:08.037415 28895 net.cpp:408] conv0 <- data
I0428 19:58:08.037420 28895 net.cpp:382] conv0 -> conv0
I0428 19:58:08.039096 28895 net.cpp:124] Setting up conv0
I0428 19:58:08.039109 28895 net.cpp:131] Top shape: 100 10 24 24 (576000)
I0428 19:58:08.039113 28895 net.cpp:139] Memory required for data: 2618800
I0428 19:58:08.039121 28895 layer_factory.hpp:77] Creating layer pool0
I0428 19:58:08.039144 28895 net.cpp:86] Creating Layer pool0
I0428 19:58:08.039147 28895 net.cpp:408] pool0 <- conv0
I0428 19:58:08.039152 28895 net.cpp:382] pool0 -> pool0
I0428 19:58:08.039187 28895 net.cpp:124] Setting up pool0
I0428 19:58:08.039192 28895 net.cpp:131] Top shape: 100 10 12 12 (144000)
I0428 19:58:08.039196 28895 net.cpp:139] Memory required for data: 3194800
I0428 19:58:08.039198 28895 layer_factory.hpp:77] Creating layer conv1
I0428 19:58:08.039206 28895 net.cpp:86] Creating Layer conv1
I0428 19:58:08.039211 28895 net.cpp:408] conv1 <- pool0
I0428 19:58:08.039216 28895 net.cpp:382] conv1 -> conv1
I0428 19:58:08.041415 28895 net.cpp:124] Setting up conv1
I0428 19:58:08.041429 28895 net.cpp:131] Top shape: 100 5 8 8 (32000)
I0428 19:58:08.041432 28895 net.cpp:139] Memory required for data: 3322800
I0428 19:58:08.041440 28895 layer_factory.hpp:77] Creating layer pool1
I0428 19:58:08.041447 28895 net.cpp:86] Creating Layer pool1
I0428 19:58:08.041450 28895 net.cpp:408] pool1 <- conv1
I0428 19:58:08.041471 28895 net.cpp:382] pool1 -> pool1
I0428 19:58:08.041508 28895 net.cpp:124] Setting up pool1
I0428 19:58:08.041513 28895 net.cpp:131] Top shape: 100 5 4 4 (8000)
I0428 19:58:08.041517 28895 net.cpp:139] Memory required for data: 3354800
I0428 19:58:08.041519 28895 layer_factory.hpp:77] Creating layer ip1
I0428 19:58:08.041527 28895 net.cpp:86] Creating Layer ip1
I0428 19:58:08.041537 28895 net.cpp:408] ip1 <- pool1
I0428 19:58:08.041546 28895 net.cpp:382] ip1 -> ip1
I0428 19:58:08.041684 28895 net.cpp:124] Setting up ip1
I0428 19:58:08.041692 28895 net.cpp:131] Top shape: 100 25 (2500)
I0428 19:58:08.041704 28895 net.cpp:139] Memory required for data: 3364800
I0428 19:58:08.041712 28895 layer_factory.hpp:77] Creating layer relu1
I0428 19:58:08.041718 28895 net.cpp:86] Creating Layer relu1
I0428 19:58:08.041721 28895 net.cpp:408] relu1 <- ip1
I0428 19:58:08.041725 28895 net.cpp:369] relu1 -> ip1 (in-place)
I0428 19:58:08.041997 28895 net.cpp:124] Setting up relu1
I0428 19:58:08.042006 28895 net.cpp:131] Top shape: 100 25 (2500)
I0428 19:58:08.042016 28895 net.cpp:139] Memory required for data: 3374800
I0428 19:58:08.042019 28895 layer_factory.hpp:77] Creating layer ip2
I0428 19:58:08.042028 28895 net.cpp:86] Creating Layer ip2
I0428 19:58:08.042032 28895 net.cpp:408] ip2 <- ip1
I0428 19:58:08.042044 28895 net.cpp:382] ip2 -> ip2
I0428 19:58:08.042167 28895 net.cpp:124] Setting up ip2
I0428 19:58:08.042174 28895 net.cpp:131] Top shape: 100 50 (5000)
I0428 19:58:08.042176 28895 net.cpp:139] Memory required for data: 3394800
I0428 19:58:08.042182 28895 layer_factory.hpp:77] Creating layer relu2
I0428 19:58:08.042186 28895 net.cpp:86] Creating Layer relu2
I0428 19:58:08.042194 28895 net.cpp:408] relu2 <- ip2
I0428 19:58:08.042198 28895 net.cpp:369] relu2 -> ip2 (in-place)
I0428 19:58:08.042348 28895 net.cpp:124] Setting up relu2
I0428 19:58:08.042356 28895 net.cpp:131] Top shape: 100 50 (5000)
I0428 19:58:08.042359 28895 net.cpp:139] Memory required for data: 3414800
I0428 19:58:08.042362 28895 layer_factory.hpp:77] Creating layer ip3
I0428 19:58:08.042368 28895 net.cpp:86] Creating Layer ip3
I0428 19:58:08.042371 28895 net.cpp:408] ip3 <- ip2
I0428 19:58:08.042376 28895 net.cpp:382] ip3 -> ip3
I0428 19:58:08.042474 28895 net.cpp:124] Setting up ip3
I0428 19:58:08.042481 28895 net.cpp:131] Top shape: 100 10 (1000)
I0428 19:58:08.042498 28895 net.cpp:139] Memory required for data: 3418800
I0428 19:58:08.042505 28895 layer_factory.hpp:77] Creating layer relu3
I0428 19:58:08.042510 28895 net.cpp:86] Creating Layer relu3
I0428 19:58:08.042512 28895 net.cpp:408] relu3 <- ip3
I0428 19:58:08.042516 28895 net.cpp:369] relu3 -> ip3 (in-place)
I0428 19:58:08.043349 28895 net.cpp:124] Setting up relu3
I0428 19:58:08.043361 28895 net.cpp:131] Top shape: 100 10 (1000)
I0428 19:58:08.043365 28895 net.cpp:139] Memory required for data: 3422800
I0428 19:58:08.043370 28895 layer_factory.hpp:77] Creating layer ip3_relu3_0_split
I0428 19:58:08.043375 28895 net.cpp:86] Creating Layer ip3_relu3_0_split
I0428 19:58:08.043378 28895 net.cpp:408] ip3_relu3_0_split <- ip3
I0428 19:58:08.043385 28895 net.cpp:382] ip3_relu3_0_split -> ip3_relu3_0_split_0
I0428 19:58:08.043391 28895 net.cpp:382] ip3_relu3_0_split -> ip3_relu3_0_split_1
I0428 19:58:08.043499 28895 net.cpp:124] Setting up ip3_relu3_0_split
I0428 19:58:08.043506 28895 net.cpp:131] Top shape: 100 10 (1000)
I0428 19:58:08.043515 28895 net.cpp:131] Top shape: 100 10 (1000)
I0428 19:58:08.043517 28895 net.cpp:139] Memory required for data: 3430800
I0428 19:58:08.043520 28895 layer_factory.hpp:77] Creating layer accuracy
I0428 19:58:08.043531 28895 net.cpp:86] Creating Layer accuracy
I0428 19:58:08.043534 28895 net.cpp:408] accuracy <- ip3_relu3_0_split_0
I0428 19:58:08.043539 28895 net.cpp:408] accuracy <- label_mnist_1_split_0
I0428 19:58:08.043550 28895 net.cpp:382] accuracy -> accuracy
…
