…
I0428 19:55:23.578884 28171 net.cpp:296] The NetState phase (0) differed from the phase (1) specified by a rule in layer mnist
I0428 19:55:23.578900 28171 net.cpp:296] The NetState phase (0) differed from the phase (1) specified by a rule in layer accuracy
I0428 19:55:23.579005 28171 net.cpp:53] Initializing net from parameters: 
name: "LeNet"
state {
  phase: TRAIN
  level: 0
  stage: ""
}
layer {
  name: "mnist"
  type: "Data"
  top: "data"
  top: "label"
  include {
    phase: TRAIN
  }
  transform_param {
    scale: 0.00390625
  }
  data_param {
    source: "examples/mnist/mnist_train_lmdb"
    batch_size: 64
    backend: LMDB
  }
}
layer {
  name: "conv0"
  type: "Convolution"
  bottom: "data"
  top: "conv0"
  param {
    lr_mult: 1
  }
  param {
    lr_mult: 2
  }
  convolution_param {
    num_output: 5
    kernel_size: 5
    stride: 1
    weight_filler {
      type: "xavier"
    }
    bias_filler {
      type: "constant"
    }
  }
}
layer {
  name: "pool0"
  type: "Pooling"
  bottom: "conv0"
  top: "pool0"
  pooling_param {
    pool: MAX
    kernel_size: 2
    stride: 2
  }
}
layer {
  name: "conv1"
  type: "Convolution"
  bottom: "pool0"
  top: "conv1"
  param {
    lr_mult: 1
  }
  param {
    lr_mult: 2
  }
  convolution_param {
    num_output: 100
    kernel_size: 5
    stride: 1
    weight_filler {
      type: "xavier"
    }
    bias_filler {
      type: "constant"
    }
  }
}
layer {
  name: "pool1"
  type: "Pooling"
  bottom: "conv1"
  top: "pool1"
  pooling_param {
    pool: MAX
    kernel_size: 2
    stride: 2
  }
}
layer {
  name: "ip1"
  type: "InnerProduct"
  bottom: "pool1"
  top: "ip1"
  param {
    lr_mult: 1
  }
  param {
    lr_mult: 2
  }
  inner_product_param {
    num_output: 25
    weight_filler {
      type: "xavier"
    }
    bias_filler {
      type: "constant"
    }
  }
}
layer {
  name: "relu1"
  type: "ReLU"
  bottom: "ip1"
  top: "ip1"
}
layer {
  name: "ip2"
  type: "InnerProduct"
  bottom: "ip1"
  top: "ip2"
  param {
    lr_mult: 1
  }
  param {
    lr_mult: 2
  }
  inner_product_param {
    num_output: 50
    weight_filler {
      type: "xavier"
    }
    bias_filler {
      type: "constant"
    }
  }
}
layer {
  name: "relu2"
  type: "ReLU"
  bottom: "ip2"
  top: "ip2"
}
layer {
  name: "ip3"
  type: "InnerProduct"
  bottom: "ip2"
  top: "ip3"
  param {
    lr_mult: 1
  }
  param {
    lr_mult: 2
  }
  inner_product_param {
    num_output: 10
    weight_filler {
      type: "xavier"
    }
    bias_filler {
      type: "constant"
    }
  }
}
layer {
  name: "relu3"
  type: "ReLU"
  bottom: "ip3"
  top: "ip3"
}
layer {
  name: "loss"
  type: "SoftmaxWithLoss"
  bottom: "ip3"
  bottom: "label"
  top: "loss"
}
I0428 19:55:23.579083 28171 layer_factory.hpp:77] Creating layer mnist
I0428 19:55:23.579185 28171 db_lmdb.cpp:35] Opened lmdb examples/mnist/mnist_train_lmdb
I0428 19:55:23.579210 28171 net.cpp:86] Creating Layer mnist
I0428 19:55:23.579216 28171 net.cpp:382] mnist -> data
I0428 19:55:23.579241 28171 net.cpp:382] mnist -> label
I0428 19:55:23.580329 28171 data_layer.cpp:45] output data size: 64,1,28,28
I0428 19:55:23.582788 28171 net.cpp:124] Setting up mnist
I0428 19:55:23.582808 28171 net.cpp:131] Top shape: 64 1 28 28 (50176)
I0428 19:55:23.582813 28171 net.cpp:131] Top shape: 64 (64)
I0428 19:55:23.582816 28171 net.cpp:139] Memory required for data: 200960
I0428 19:55:23.582824 28171 layer_factory.hpp:77] Creating layer conv0
I0428 19:55:23.582844 28171 net.cpp:86] Creating Layer conv0
I0428 19:55:23.582864 28171 net.cpp:408] conv0 <- data
I0428 19:55:23.582876 28171 net.cpp:382] conv0 -> conv0
I0428 19:55:23.852620 28171 net.cpp:124] Setting up conv0
I0428 19:55:23.852646 28171 net.cpp:131] Top shape: 64 5 24 24 (184320)
I0428 19:55:23.852650 28171 net.cpp:139] Memory required for data: 938240
I0428 19:55:23.852664 28171 layer_factory.hpp:77] Creating layer pool0
I0428 19:55:23.852692 28171 net.cpp:86] Creating Layer pool0
I0428 19:55:23.852696 28171 net.cpp:408] pool0 <- conv0
I0428 19:55:23.852701 28171 net.cpp:382] pool0 -> pool0
I0428 19:55:23.852748 28171 net.cpp:124] Setting up pool0
I0428 19:55:23.852756 28171 net.cpp:131] Top shape: 64 5 12 12 (46080)
I0428 19:55:23.852759 28171 net.cpp:139] Memory required for data: 1122560
I0428 19:55:23.852762 28171 layer_factory.hpp:77] Creating layer conv1
I0428 19:55:23.852772 28171 net.cpp:86] Creating Layer conv1
I0428 19:55:23.852776 28171 net.cpp:408] conv1 <- pool0
I0428 19:55:23.852780 28171 net.cpp:382] conv1 -> conv1
I0428 19:55:23.855692 28171 net.cpp:124] Setting up conv1
I0428 19:55:23.855706 28171 net.cpp:131] Top shape: 64 100 8 8 (409600)
I0428 19:55:23.855710 28171 net.cpp:139] Memory required for data: 2760960
I0428 19:55:23.855734 28171 layer_factory.hpp:77] Creating layer pool1
I0428 19:55:23.855742 28171 net.cpp:86] Creating Layer pool1
I0428 19:55:23.855746 28171 net.cpp:408] pool1 <- conv1
I0428 19:55:23.855751 28171 net.cpp:382] pool1 -> pool1
I0428 19:55:23.855788 28171 net.cpp:124] Setting up pool1
I0428 19:55:23.855795 28171 net.cpp:131] Top shape: 64 100 4 4 (102400)
I0428 19:55:23.855798 28171 net.cpp:139] Memory required for data: 3170560
I0428 19:55:23.855800 28171 layer_factory.hpp:77] Creating layer ip1
I0428 19:55:23.855808 28171 net.cpp:86] Creating Layer ip1
I0428 19:55:23.855810 28171 net.cpp:408] ip1 <- pool1
I0428 19:55:23.855815 28171 net.cpp:382] ip1 -> ip1
I0428 19:55:23.856143 28171 net.cpp:124] Setting up ip1
I0428 19:55:23.856151 28171 net.cpp:131] Top shape: 64 25 (1600)
I0428 19:55:23.856154 28171 net.cpp:139] Memory required for data: 3176960
I0428 19:55:23.856161 28171 layer_factory.hpp:77] Creating layer relu1
I0428 19:55:23.856166 28171 net.cpp:86] Creating Layer relu1
I0428 19:55:23.856169 28171 net.cpp:408] relu1 <- ip1
I0428 19:55:23.856173 28171 net.cpp:369] relu1 -> ip1 (in-place)
I0428 19:55:23.856343 28171 net.cpp:124] Setting up relu1
I0428 19:55:23.856351 28171 net.cpp:131] Top shape: 64 25 (1600)
I0428 19:55:23.856354 28171 net.cpp:139] Memory required for data: 3183360
I0428 19:55:23.856358 28171 layer_factory.hpp:77] Creating layer ip2
I0428 19:55:23.856364 28171 net.cpp:86] Creating Layer ip2
I0428 19:55:23.856366 28171 net.cpp:408] ip2 <- ip1
I0428 19:55:23.856371 28171 net.cpp:382] ip2 -> ip2
I0428 19:55:23.857440 28171 net.cpp:124] Setting up ip2
I0428 19:55:23.857455 28171 net.cpp:131] Top shape: 64 50 (3200)
I0428 19:55:23.857457 28171 net.cpp:139] Memory required for data: 3196160
I0428 19:55:23.857465 28171 layer_factory.hpp:77] Creating layer relu2
I0428 19:55:23.857471 28171 net.cpp:86] Creating Layer relu2
I0428 19:55:23.857475 28171 net.cpp:408] relu2 <- ip2
I0428 19:55:23.857480 28171 net.cpp:369] relu2 -> ip2 (in-place)
I0428 19:55:23.858247 28171 net.cpp:124] Setting up relu2
I0428 19:55:23.858259 28171 net.cpp:131] Top shape: 64 50 (3200)
I0428 19:55:23.858263 28171 net.cpp:139] Memory required for data: 3208960
I0428 19:55:23.858268 28171 layer_factory.hpp:77] Creating layer ip3
I0428 19:55:23.858274 28171 net.cpp:86] Creating Layer ip3
I0428 19:55:23.858278 28171 net.cpp:408] ip3 <- ip2
I0428 19:55:23.858283 28171 net.cpp:382] ip3 -> ip3
I0428 19:55:23.858404 28171 net.cpp:124] Setting up ip3
I0428 19:55:23.858412 28171 net.cpp:131] Top shape: 64 10 (640)
I0428 19:55:23.858415 28171 net.cpp:139] Memory required for data: 3211520
I0428 19:55:23.858423 28171 layer_factory.hpp:77] Creating layer relu3
I0428 19:55:23.858428 28171 net.cpp:86] Creating Layer relu3
I0428 19:55:23.858431 28171 net.cpp:408] relu3 <- ip3
I0428 19:55:23.858449 28171 net.cpp:369] relu3 -> ip3 (in-place)
I0428 19:55:23.858624 28171 net.cpp:124] Setting up relu3
I0428 19:55:23.858633 28171 net.cpp:131] Top shape: 64 10 (640)
I0428 19:55:23.858636 28171 net.cpp:139] Memory required for data: 3214080
I0428 19:55:23.858639 28171 layer_factory.hpp:77] Creating layer loss
I0428 19:55:23.858644 28171 net.cpp:86] Creating Layer loss
I0428 19:55:23.858649 28171 net.cpp:408] loss <- ip3
I0428 19:55:23.858651 28171 net.cpp:408] loss <- label
I0428 19:55:23.858657 28171 net.cpp:382] loss -> loss
I0428 19:55:23.858675 28171 layer_factory.hpp:77] Creating layer loss
…
I0428 19:55:23.859354 28171 solver.cpp:173] Creating test net (#0) specified by net file: ECE595/mnist/train_test/var_everything2/lenet_train_test731.prototxt
I0428 19:55:23.859395 28171 net.cpp:296] The NetState phase (1) differed from the phase (0) specified by a rule in layer mnist
I0428 19:55:23.859483 28171 net.cpp:53] Initializing net from parameters: 
name: "LeNet"
state {
  phase: TEST
}
layer {
  name: "mnist"
  type: "Data"
  top: "data"
  top: "label"
  include {
    phase: TEST
  }
  transform_param {
    scale: 0.00390625
  }
  data_param {
    source: "examples/mnist/mnist_test_lmdb"
    batch_size: 100
    backend: LMDB
  }
}
layer {
  name: "conv0"
  type: "Convolution"
  bottom: "data"
  top: "conv0"
  param {
    lr_mult: 1
  }
  param {
    lr_mult: 2
  }
  convolution_param {
    num_output: 5
    kernel_size: 5
    stride: 1
    weight_filler {
      type: "xavier"
    }
    bias_filler {
      type: "constant"
    }
  }
}
layer {
  name: "pool0"
  type: "Pooling"
  bottom: "conv0"
  top: "pool0"
  pooling_param {
    pool: MAX
    kernel_size: 2
    stride: 2
  }
}
layer {
  name: "conv1"
  type: "Convolution"
  bottom: "pool0"
  top: "conv1"
  param {
    lr_mult: 1
  }
  param {
    lr_mult: 2
  }
  convolution_param {
    num_output: 100
    kernel_size: 5
    stride: 1
    weight_filler {
      type: "xavier"
    }
    bias_filler {
      type: "constant"
    }
  }
}
layer {
  name: "pool1"
  type: "Pooling"
  bottom: "conv1"
  top: "pool1"
  pooling_param {
    pool: MAX
    kernel_size: 2
    stride: 2
  }
}
layer {
  name: "ip1"
  type: "InnerProduct"
  bottom: "pool1"
  top: "ip1"
  param {
    lr_mult: 1
  }
  param {
    lr_mult: 2
  }
  inner_product_param {
    num_output: 25
    weight_filler {
      type: "xavier"
    }
    bias_filler {
      type: "constant"
    }
  }
}
layer {
  name: "relu1"
  type: "ReLU"
  bottom: "ip1"
  top: "ip1"
}
layer {
  name: "ip2"
  type: "InnerProduct"
  bottom: "ip1"
  top: "ip2"
  param {
    lr_mult: 1
  }
  param {
    lr_mult: 2
  }
  inner_product_param {
    num_output: 50
    weight_filler {
      type: "xavier"
    }
    bias_filler {
      type: "constant"
    }
  }
}
layer {
  name: "relu2"
  type: "ReLU"
  bottom: "ip2"
  top: "ip2"
}
layer {
  name: "ip3"
  type: "InnerProduct"
  bottom: "ip2"
  top: "ip3"
  param {
    lr_mult: 1
  }
  param {
    lr_mult: 2
  }
  inner_product_param {
    num_output: 10
    weight_filler {
      type: "xavier"
    }
    bias_filler {
      type: "constant"
    }
  }
}
layer {
  name: "relu3"
  type: "ReLU"
  bottom: "ip3"
  top: "ip3"
}
layer {
  name: "accuracy"
  type: "Accuracy"
  bottom: "ip3"
  bottom: "label"
  top: "accuracy"
  include {
    phase: TEST
  }
}
layer {
  name: "loss"
  type: "SoftmaxWithLoss"
  bottom: "ip3"
  bottom: "label"
  top: "loss"
}
I0428 19:55:23.859557 28171 layer_factory.hpp:77] Creating layer mnist
I0428 19:55:23.859616 28171 db_lmdb.cpp:35] Opened lmdb examples/mnist/mnist_test_lmdb
I0428 19:55:23.859643 28171 net.cpp:86] Creating Layer mnist
I0428 19:55:23.859648 28171 net.cpp:382] mnist -> data
I0428 19:55:23.859655 28171 net.cpp:382] mnist -> label
I0428 19:55:23.859740 28171 data_layer.cpp:45] output data size: 100,1,28,28
I0428 19:55:23.861870 28171 net.cpp:124] Setting up mnist
I0428 19:55:23.861901 28171 net.cpp:131] Top shape: 100 1 28 28 (78400)
I0428 19:55:23.861907 28171 net.cpp:131] Top shape: 100 (100)
I0428 19:55:23.861910 28171 net.cpp:139] Memory required for data: 314000
I0428 19:55:23.861914 28171 layer_factory.hpp:77] Creating layer label_mnist_1_split
I0428 19:55:23.861925 28171 net.cpp:86] Creating Layer label_mnist_1_split
I0428 19:55:23.861929 28171 net.cpp:408] label_mnist_1_split <- label
I0428 19:55:23.861934 28171 net.cpp:382] label_mnist_1_split -> label_mnist_1_split_0
I0428 19:55:23.861943 28171 net.cpp:382] label_mnist_1_split -> label_mnist_1_split_1
I0428 19:55:23.862016 28171 net.cpp:124] Setting up label_mnist_1_split
I0428 19:55:23.862025 28171 net.cpp:131] Top shape: 100 (100)
I0428 19:55:23.862043 28171 net.cpp:131] Top shape: 100 (100)
I0428 19:55:23.862046 28171 net.cpp:139] Memory required for data: 314800
I0428 19:55:23.862049 28171 layer_factory.hpp:77] Creating layer conv0
I0428 19:55:23.862058 28171 net.cpp:86] Creating Layer conv0
I0428 19:55:23.862061 28171 net.cpp:408] conv0 <- data
I0428 19:55:23.862066 28171 net.cpp:382] conv0 -> conv0
I0428 19:55:23.863622 28171 net.cpp:124] Setting up conv0
I0428 19:55:23.863636 28171 net.cpp:131] Top shape: 100 5 24 24 (288000)
I0428 19:55:23.863641 28171 net.cpp:139] Memory required for data: 1466800
I0428 19:55:23.863649 28171 layer_factory.hpp:77] Creating layer pool0
I0428 19:55:23.863656 28171 net.cpp:86] Creating Layer pool0
I0428 19:55:23.863659 28171 net.cpp:408] pool0 <- conv0
I0428 19:55:23.863663 28171 net.cpp:382] pool0 -> pool0
I0428 19:55:23.863713 28171 net.cpp:124] Setting up pool0
I0428 19:55:23.863720 28171 net.cpp:131] Top shape: 100 5 12 12 (72000)
I0428 19:55:23.863723 28171 net.cpp:139] Memory required for data: 1754800
I0428 19:55:23.863726 28171 layer_factory.hpp:77] Creating layer conv1
I0428 19:55:23.863734 28171 net.cpp:86] Creating Layer conv1
I0428 19:55:23.863739 28171 net.cpp:408] conv1 <- pool0
I0428 19:55:23.863742 28171 net.cpp:382] conv1 -> conv1
I0428 19:55:23.865448 28171 net.cpp:124] Setting up conv1
I0428 19:55:23.865463 28171 net.cpp:131] Top shape: 100 100 8 8 (640000)
I0428 19:55:23.865468 28171 net.cpp:139] Memory required for data: 4314800
I0428 19:55:23.865476 28171 layer_factory.hpp:77] Creating layer pool1
I0428 19:55:23.865483 28171 net.cpp:86] Creating Layer pool1
I0428 19:55:23.865487 28171 net.cpp:408] pool1 <- conv1
I0428 19:55:23.865492 28171 net.cpp:382] pool1 -> pool1
I0428 19:55:23.865545 28171 net.cpp:124] Setting up pool1
I0428 19:55:23.865551 28171 net.cpp:131] Top shape: 100 100 4 4 (160000)
I0428 19:55:23.865556 28171 net.cpp:139] Memory required for data: 4954800
I0428 19:55:23.865559 28171 layer_factory.hpp:77] Creating layer ip1
I0428 19:55:23.865566 28171 net.cpp:86] Creating Layer ip1
I0428 19:55:23.865569 28171 net.cpp:408] ip1 <- pool1
I0428 19:55:23.865576 28171 net.cpp:382] ip1 -> ip1
I0428 19:55:23.865942 28171 net.cpp:124] Setting up ip1
I0428 19:55:23.865949 28171 net.cpp:131] Top shape: 100 25 (2500)
I0428 19:55:23.865963 28171 net.cpp:139] Memory required for data: 4964800
I0428 19:55:23.865972 28171 layer_factory.hpp:77] Creating layer relu1
I0428 19:55:23.865977 28171 net.cpp:86] Creating Layer relu1
I0428 19:55:23.865979 28171 net.cpp:408] relu1 <- ip1
I0428 19:55:23.865984 28171 net.cpp:369] relu1 -> ip1 (in-place)
I0428 19:55:23.866173 28171 net.cpp:124] Setting up relu1
I0428 19:55:23.866183 28171 net.cpp:131] Top shape: 100 25 (2500)
I0428 19:55:23.866189 28171 net.cpp:139] Memory required for data: 4974800
I0428 19:55:23.866192 28171 layer_factory.hpp:77] Creating layer ip2
I0428 19:55:23.866201 28171 net.cpp:86] Creating Layer ip2
I0428 19:55:23.866204 28171 net.cpp:408] ip2 <- ip1
I0428 19:55:23.866209 28171 net.cpp:382] ip2 -> ip2
I0428 19:55:23.866394 28171 net.cpp:124] Setting up ip2
I0428 19:55:23.866402 28171 net.cpp:131] Top shape: 100 50 (5000)
I0428 19:55:23.866405 28171 net.cpp:139] Memory required for data: 4994800
I0428 19:55:23.866411 28171 layer_factory.hpp:77] Creating layer relu2
I0428 19:55:23.866418 28171 net.cpp:86] Creating Layer relu2
I0428 19:55:23.866421 28171 net.cpp:408] relu2 <- ip2
I0428 19:55:23.866426 28171 net.cpp:369] relu2 -> ip2 (in-place)
I0428 19:55:23.866637 28171 net.cpp:124] Setting up relu2
I0428 19:55:23.866647 28171 net.cpp:131] Top shape: 100 50 (5000)
I0428 19:55:23.866650 28171 net.cpp:139] Memory required for data: 5014800
I0428 19:55:23.866653 28171 layer_factory.hpp:77] Creating layer ip3
I0428 19:55:23.866675 28171 net.cpp:86] Creating Layer ip3
I0428 19:55:23.866678 28171 net.cpp:408] ip3 <- ip2
I0428 19:55:23.866683 28171 net.cpp:382] ip3 -> ip3
I0428 19:55:23.866792 28171 net.cpp:124] Setting up ip3
I0428 19:55:23.866801 28171 net.cpp:131] Top shape: 100 10 (1000)
I0428 19:55:23.866804 28171 net.cpp:139] Memory required for data: 5018800
I0428 19:55:23.866811 28171 layer_factory.hpp:77] Creating layer relu3
I0428 19:55:23.866817 28171 net.cpp:86] Creating Layer relu3
I0428 19:55:23.866822 28171 net.cpp:408] relu3 <- ip3
I0428 19:55:23.866824 28171 net.cpp:369] relu3 -> ip3 (in-place)
I0428 19:55:23.867676 28171 net.cpp:124] Setting up relu3
I0428 19:55:23.867691 28171 net.cpp:131] Top shape: 100 10 (1000)
I0428 19:55:23.867694 28171 net.cpp:139] Memory required for data: 5022800
I0428 19:55:23.867697 28171 layer_factory.hpp:77] Creating layer ip3_relu3_0_split
I0428 19:55:23.867703 28171 net.cpp:86] Creating Layer ip3_relu3_0_split
I0428 19:55:23.867707 28171 net.cpp:408] ip3_relu3_0_split <- ip3
I0428 19:55:23.867712 28171 net.cpp:382] ip3_relu3_0_split -> ip3_relu3_0_split_0
I0428 19:55:23.867718 28171 net.cpp:382] ip3_relu3_0_split -> ip3_relu3_0_split_1
I0428 19:55:23.867759 28171 net.cpp:124] Setting up ip3_relu3_0_split
I0428 19:55:23.867766 28171 net.cpp:131] Top shape: 100 10 (1000)
I0428 19:55:23.867785 28171 net.cpp:131] Top shape: 100 10 (1000)
I0428 19:55:23.867787 28171 net.cpp:139] Memory required for data: 5030800
I0428 19:55:23.867790 28171 layer_factory.hpp:77] Creating layer accuracy
I0428 19:55:23.867796 28171 net.cpp:86] Creating Layer accuracy
I0428 19:55:23.867799 28171 net.cpp:408] accuracy <- ip3_relu3_0_split_0
I0428 19:55:23.867804 28171 net.cpp:408] accuracy <- label_mnist_1_split_0
I0428 19:55:23.867807 28171 net.cpp:382] accuracy -> accuracy
…
