…
I0428 20:10:04.266716 31760 net.cpp:296] The NetState phase (0) differed from the phase (1) specified by a rule in layer mnist
I0428 20:10:04.266736 31760 net.cpp:296] The NetState phase (0) differed from the phase (1) specified by a rule in layer accuracy
I0428 20:10:04.266839 31760 net.cpp:53] Initializing net from parameters: 
name: "LeNet"
state {
  phase: TRAIN
  level: 0
  stage: ""
}
layer {
  name: "mnist"
  type: "Data"
  top: "data"
  top: "label"
  include {
    phase: TRAIN
  }
  transform_param {
    scale: 0.00390625
  }
  data_param {
    source: "examples/mnist/mnist_train_lmdb"
    batch_size: 64
    backend: LMDB
  }
}
layer {
  name: "conv0"
  type: "Convolution"
  bottom: "data"
  top: "conv0"
  param {
    lr_mult: 1
  }
  param {
    lr_mult: 2
  }
  convolution_param {
    num_output: 25
    kernel_size: 5
    stride: 1
    weight_filler {
      type: "xavier"
    }
    bias_filler {
      type: "constant"
    }
  }
}
layer {
  name: "pool0"
  type: "Pooling"
  bottom: "conv0"
  top: "pool0"
  pooling_param {
    pool: MAX
    kernel_size: 2
    stride: 2
  }
}
layer {
  name: "conv1"
  type: "Convolution"
  bottom: "pool0"
  top: "conv1"
  param {
    lr_mult: 1
  }
  param {
    lr_mult: 2
  }
  convolution_param {
    num_output: 25
    kernel_size: 5
    stride: 1
    weight_filler {
      type: "xavier"
    }
    bias_filler {
      type: "constant"
    }
  }
}
layer {
  name: "pool1"
  type: "Pooling"
  bottom: "conv1"
  top: "pool1"
  pooling_param {
    pool: MAX
    kernel_size: 2
    stride: 2
  }
}
layer {
  name: "ip1"
  type: "InnerProduct"
  bottom: "pool1"
  top: "ip1"
  param {
    lr_mult: 1
  }
  param {
    lr_mult: 2
  }
  inner_product_param {
    num_output: 50
    weight_filler {
      type: "xavier"
    }
    bias_filler {
      type: "constant"
    }
  }
}
layer {
  name: "relu1"
  type: "ReLU"
  bottom: "ip1"
  top: "ip1"
}
layer {
  name: "ip2"
  type: "InnerProduct"
  bottom: "ip1"
  top: "ip2"
  param {
    lr_mult: 1
  }
  param {
    lr_mult: 2
  }
  inner_product_param {
    num_output: 25
    weight_filler {
      type: "xavier"
    }
    bias_filler {
      type: "constant"
    }
  }
}
layer {
  name: "relu2"
  type: "ReLU"
  bottom: "ip2"
  top: "ip2"
}
layer {
  name: "ip3"
  type: "InnerProduct"
  bottom: "ip2"
  top: "ip3"
  param {
    lr_mult: 1
  }
  param {
    lr_mult: 2
  }
  inner_product_param {
    num_output: 10
    weight_filler {
      type: "xavier"
    }
    bias_filler {
      type: "constant"
    }
  }
}
layer {
  name: "relu3"
  type: "ReLU"
  bottom: "ip3"
  top: "ip3"
}
layer {
  name: "loss"
  type: "SoftmaxWithLoss"
  bottom: "ip3"
  bottom: "label"
  top: "loss"
}
I0428 20:10:04.266918 31760 layer_factory.hpp:77] Creating layer mnist
I0428 20:10:04.267017 31760 db_lmdb.cpp:35] Opened lmdb examples/mnist/mnist_train_lmdb
I0428 20:10:04.267040 31760 net.cpp:86] Creating Layer mnist
I0428 20:10:04.267050 31760 net.cpp:382] mnist -> data
I0428 20:10:04.267072 31760 net.cpp:382] mnist -> label
I0428 20:10:04.268167 31760 data_layer.cpp:45] output data size: 64,1,28,28
I0428 20:10:04.270627 31760 net.cpp:124] Setting up mnist
I0428 20:10:04.270644 31760 net.cpp:131] Top shape: 64 1 28 28 (50176)
I0428 20:10:04.270650 31760 net.cpp:131] Top shape: 64 (64)
I0428 20:10:04.270653 31760 net.cpp:139] Memory required for data: 200960
I0428 20:10:04.270661 31760 layer_factory.hpp:77] Creating layer conv0
I0428 20:10:04.270678 31760 net.cpp:86] Creating Layer conv0
I0428 20:10:04.270699 31760 net.cpp:408] conv0 <- data
I0428 20:10:04.270711 31760 net.cpp:382] conv0 -> conv0
I0428 20:10:04.562371 31760 net.cpp:124] Setting up conv0
I0428 20:10:04.562402 31760 net.cpp:131] Top shape: 64 25 24 24 (921600)
I0428 20:10:04.562408 31760 net.cpp:139] Memory required for data: 3887360
I0428 20:10:04.562427 31760 layer_factory.hpp:77] Creating layer pool0
I0428 20:10:04.562441 31760 net.cpp:86] Creating Layer pool0
I0428 20:10:04.562446 31760 net.cpp:408] pool0 <- conv0
I0428 20:10:04.562453 31760 net.cpp:382] pool0 -> pool0
I0428 20:10:04.562505 31760 net.cpp:124] Setting up pool0
I0428 20:10:04.562511 31760 net.cpp:131] Top shape: 64 25 12 12 (230400)
I0428 20:10:04.562515 31760 net.cpp:139] Memory required for data: 4808960
I0428 20:10:04.562520 31760 layer_factory.hpp:77] Creating layer conv1
I0428 20:10:04.562532 31760 net.cpp:86] Creating Layer conv1
I0428 20:10:04.562536 31760 net.cpp:408] conv1 <- pool0
I0428 20:10:04.562542 31760 net.cpp:382] conv1 -> conv1
I0428 20:10:04.565793 31760 net.cpp:124] Setting up conv1
I0428 20:10:04.565810 31760 net.cpp:131] Top shape: 64 25 8 8 (102400)
I0428 20:10:04.565815 31760 net.cpp:139] Memory required for data: 5218560
I0428 20:10:04.565825 31760 layer_factory.hpp:77] Creating layer pool1
I0428 20:10:04.565834 31760 net.cpp:86] Creating Layer pool1
I0428 20:10:04.565840 31760 net.cpp:408] pool1 <- conv1
I0428 20:10:04.565845 31760 net.cpp:382] pool1 -> pool1
I0428 20:10:04.565891 31760 net.cpp:124] Setting up pool1
I0428 20:10:04.565897 31760 net.cpp:131] Top shape: 64 25 4 4 (25600)
I0428 20:10:04.565901 31760 net.cpp:139] Memory required for data: 5320960
I0428 20:10:04.565904 31760 layer_factory.hpp:77] Creating layer ip1
I0428 20:10:04.565912 31760 net.cpp:86] Creating Layer ip1
I0428 20:10:04.565917 31760 net.cpp:408] ip1 <- pool1
I0428 20:10:04.565922 31760 net.cpp:382] ip1 -> ip1
I0428 20:10:04.566170 31760 net.cpp:124] Setting up ip1
I0428 20:10:04.566179 31760 net.cpp:131] Top shape: 64 50 (3200)
I0428 20:10:04.566184 31760 net.cpp:139] Memory required for data: 5333760
I0428 20:10:04.566191 31760 layer_factory.hpp:77] Creating layer relu1
I0428 20:10:04.566200 31760 net.cpp:86] Creating Layer relu1
I0428 20:10:04.566205 31760 net.cpp:408] relu1 <- ip1
I0428 20:10:04.566210 31760 net.cpp:369] relu1 -> ip1 (in-place)
I0428 20:10:04.566417 31760 net.cpp:124] Setting up relu1
I0428 20:10:04.566431 31760 net.cpp:131] Top shape: 64 50 (3200)
I0428 20:10:04.566434 31760 net.cpp:139] Memory required for data: 5346560
I0428 20:10:04.566438 31760 layer_factory.hpp:77] Creating layer ip2
I0428 20:10:04.566445 31760 net.cpp:86] Creating Layer ip2
I0428 20:10:04.566449 31760 net.cpp:408] ip2 <- ip1
I0428 20:10:04.566457 31760 net.cpp:382] ip2 -> ip2
I0428 20:10:04.567566 31760 net.cpp:124] Setting up ip2
I0428 20:10:04.567582 31760 net.cpp:131] Top shape: 64 25 (1600)
I0428 20:10:04.567586 31760 net.cpp:139] Memory required for data: 5352960
I0428 20:10:04.567594 31760 layer_factory.hpp:77] Creating layer relu2
I0428 20:10:04.567601 31760 net.cpp:86] Creating Layer relu2
I0428 20:10:04.567605 31760 net.cpp:408] relu2 <- ip2
I0428 20:10:04.567611 31760 net.cpp:369] relu2 -> ip2 (in-place)
I0428 20:10:04.568470 31760 net.cpp:124] Setting up relu2
I0428 20:10:04.568485 31760 net.cpp:131] Top shape: 64 25 (1600)
I0428 20:10:04.568490 31760 net.cpp:139] Memory required for data: 5359360
I0428 20:10:04.568495 31760 layer_factory.hpp:77] Creating layer ip3
I0428 20:10:04.568503 31760 net.cpp:86] Creating Layer ip3
I0428 20:10:04.568507 31760 net.cpp:408] ip3 <- ip2
I0428 20:10:04.568516 31760 net.cpp:382] ip3 -> ip3
I0428 20:10:04.568639 31760 net.cpp:124] Setting up ip3
I0428 20:10:04.568655 31760 net.cpp:131] Top shape: 64 10 (640)
I0428 20:10:04.568658 31760 net.cpp:139] Memory required for data: 5361920
I0428 20:10:04.568667 31760 layer_factory.hpp:77] Creating layer relu3
I0428 20:10:04.568673 31760 net.cpp:86] Creating Layer relu3
I0428 20:10:04.568677 31760 net.cpp:408] relu3 <- ip3
I0428 20:10:04.568683 31760 net.cpp:369] relu3 -> ip3 (in-place)
I0428 20:10:04.568903 31760 net.cpp:124] Setting up relu3
I0428 20:10:04.568914 31760 net.cpp:131] Top shape: 64 10 (640)
I0428 20:10:04.568918 31760 net.cpp:139] Memory required for data: 5364480
I0428 20:10:04.568922 31760 layer_factory.hpp:77] Creating layer loss
I0428 20:10:04.568929 31760 net.cpp:86] Creating Layer loss
I0428 20:10:04.568933 31760 net.cpp:408] loss <- ip3
I0428 20:10:04.568939 31760 net.cpp:408] loss <- label
I0428 20:10:04.568945 31760 net.cpp:382] loss -> loss
I0428 20:10:04.568966 31760 layer_factory.hpp:77] Creating layer loss
…
I0428 20:10:04.569735 31760 solver.cpp:173] Creating test net (#0) specified by net file: ECE595/mnist/train_test/var_everything2/lenet_train_test1125.prototxt
I0428 20:10:04.569766 31760 net.cpp:296] The NetState phase (1) differed from the phase (0) specified by a rule in layer mnist
I0428 20:10:04.569875 31760 net.cpp:53] Initializing net from parameters: 
name: "LeNet"
state {
  phase: TEST
}
layer {
  name: "mnist"
  type: "Data"
  top: "data"
  top: "label"
  include {
    phase: TEST
  }
  transform_param {
    scale: 0.00390625
  }
  data_param {
    source: "examples/mnist/mnist_test_lmdb"
    batch_size: 100
    backend: LMDB
  }
}
layer {
  name: "conv0"
  type: "Convolution"
  bottom: "data"
  top: "conv0"
  param {
    lr_mult: 1
  }
  param {
    lr_mult: 2
  }
  convolution_param {
    num_output: 25
    kernel_size: 5
    stride: 1
    weight_filler {
      type: "xavier"
    }
    bias_filler {
      type: "constant"
    }
  }
}
layer {
  name: "pool0"
  type: "Pooling"
  bottom: "conv0"
  top: "pool0"
  pooling_param {
    pool: MAX
    kernel_size: 2
    stride: 2
  }
}
layer {
  name: "conv1"
  type: "Convolution"
  bottom: "pool0"
  top: "conv1"
  param {
    lr_mult: 1
  }
  param {
    lr_mult: 2
  }
  convolution_param {
    num_output: 25
    kernel_size: 5
    stride: 1
    weight_filler {
      type: "xavier"
    }
    bias_filler {
      type: "constant"
    }
  }
}
layer {
  name: "pool1"
  type: "Pooling"
  bottom: "conv1"
  top: "pool1"
  pooling_param {
    pool: MAX
    kernel_size: 2
    stride: 2
  }
}
layer {
  name: "ip1"
  type: "InnerProduct"
  bottom: "pool1"
  top: "ip1"
  param {
    lr_mult: 1
  }
  param {
    lr_mult: 2
  }
  inner_product_param {
    num_output: 50
    weight_filler {
      type: "xavier"
    }
    bias_filler {
      type: "constant"
    }
  }
}
layer {
  name: "relu1"
  type: "ReLU"
  bottom: "ip1"
  top: "ip1"
}
layer {
  name: "ip2"
  type: "InnerProduct"
  bottom: "ip1"
  top: "ip2"
  param {
    lr_mult: 1
  }
  param {
    lr_mult: 2
  }
  inner_product_param {
    num_output: 25
    weight_filler {
      type: "xavier"
    }
    bias_filler {
      type: "constant"
    }
  }
}
layer {
  name: "relu2"
  type: "ReLU"
  bottom: "ip2"
  top: "ip2"
}
layer {
  name: "ip3"
  type: "InnerProduct"
  bottom: "ip2"
  top: "ip3"
  param {
    lr_mult: 1
  }
  param {
    lr_mult: 2
  }
  inner_product_param {
    num_output: 10
    weight_filler {
      type: "xavier"
    }
    bias_filler {
      type: "constant"
    }
  }
}
layer {
  name: "relu3"
  type: "ReLU"
  bottom: "ip3"
  top: "ip3"
}
layer {
  name: "accuracy"
  type: "Accuracy"
  bottom: "ip3"
  bottom: "label"
  top: "accuracy"
  include {
    phase: TEST
  }
}
layer {
  name: "loss"
  type: "SoftmaxWithLoss"
  bottom: "ip3"
  bottom: "label"
  top: "loss"
}
I0428 20:10:04.569975 31760 layer_factory.hpp:77] Creating layer mnist
I0428 20:10:04.570029 31760 db_lmdb.cpp:35] Opened lmdb examples/mnist/mnist_test_lmdb
I0428 20:10:04.570044 31760 net.cpp:86] Creating Layer mnist
I0428 20:10:04.570050 31760 net.cpp:382] mnist -> data
I0428 20:10:04.570058 31760 net.cpp:382] mnist -> label
I0428 20:10:04.570163 31760 data_layer.cpp:45] output data size: 100,1,28,28
I0428 20:10:04.572579 31760 net.cpp:124] Setting up mnist
I0428 20:10:04.572597 31760 net.cpp:131] Top shape: 100 1 28 28 (78400)
I0428 20:10:04.572602 31760 net.cpp:131] Top shape: 100 (100)
I0428 20:10:04.572607 31760 net.cpp:139] Memory required for data: 314000
I0428 20:10:04.572610 31760 layer_factory.hpp:77] Creating layer label_mnist_1_split
I0428 20:10:04.572623 31760 net.cpp:86] Creating Layer label_mnist_1_split
I0428 20:10:04.572626 31760 net.cpp:408] label_mnist_1_split <- label
I0428 20:10:04.572633 31760 net.cpp:382] label_mnist_1_split -> label_mnist_1_split_0
I0428 20:10:04.572640 31760 net.cpp:382] label_mnist_1_split -> label_mnist_1_split_1
I0428 20:10:04.572702 31760 net.cpp:124] Setting up label_mnist_1_split
I0428 20:10:04.572713 31760 net.cpp:131] Top shape: 100 (100)
I0428 20:10:04.572718 31760 net.cpp:131] Top shape: 100 (100)
I0428 20:10:04.572721 31760 net.cpp:139] Memory required for data: 314800
I0428 20:10:04.572726 31760 layer_factory.hpp:77] Creating layer conv0
I0428 20:10:04.572737 31760 net.cpp:86] Creating Layer conv0
I0428 20:10:04.572742 31760 net.cpp:408] conv0 <- data
I0428 20:10:04.572748 31760 net.cpp:382] conv0 -> conv0
I0428 20:10:04.574738 31760 net.cpp:124] Setting up conv0
I0428 20:10:04.574754 31760 net.cpp:131] Top shape: 100 25 24 24 (1440000)
I0428 20:10:04.574759 31760 net.cpp:139] Memory required for data: 6074800
I0428 20:10:04.574770 31760 layer_factory.hpp:77] Creating layer pool0
I0428 20:10:04.574779 31760 net.cpp:86] Creating Layer pool0
I0428 20:10:04.574784 31760 net.cpp:408] pool0 <- conv0
I0428 20:10:04.574790 31760 net.cpp:382] pool0 -> pool0
I0428 20:10:04.574834 31760 net.cpp:124] Setting up pool0
I0428 20:10:04.574841 31760 net.cpp:131] Top shape: 100 25 12 12 (360000)
I0428 20:10:04.574844 31760 net.cpp:139] Memory required for data: 7514800
I0428 20:10:04.574848 31760 layer_factory.hpp:77] Creating layer conv1
I0428 20:10:04.574859 31760 net.cpp:86] Creating Layer conv1
I0428 20:10:04.574863 31760 net.cpp:408] conv1 <- pool0
I0428 20:10:04.574870 31760 net.cpp:382] conv1 -> conv1
I0428 20:10:04.577435 31760 net.cpp:124] Setting up conv1
I0428 20:10:04.577451 31760 net.cpp:131] Top shape: 100 25 8 8 (160000)
I0428 20:10:04.577455 31760 net.cpp:139] Memory required for data: 8154800
I0428 20:10:04.577466 31760 layer_factory.hpp:77] Creating layer pool1
I0428 20:10:04.577482 31760 net.cpp:86] Creating Layer pool1
I0428 20:10:04.577487 31760 net.cpp:408] pool1 <- conv1
I0428 20:10:04.577493 31760 net.cpp:382] pool1 -> pool1
I0428 20:10:04.577591 31760 net.cpp:124] Setting up pool1
I0428 20:10:04.577600 31760 net.cpp:131] Top shape: 100 25 4 4 (40000)
I0428 20:10:04.577605 31760 net.cpp:139] Memory required for data: 8314800
I0428 20:10:04.577608 31760 layer_factory.hpp:77] Creating layer ip1
I0428 20:10:04.577616 31760 net.cpp:86] Creating Layer ip1
I0428 20:10:04.577620 31760 net.cpp:408] ip1 <- pool1
I0428 20:10:04.577626 31760 net.cpp:382] ip1 -> ip1
I0428 20:10:04.577889 31760 net.cpp:124] Setting up ip1
I0428 20:10:04.577899 31760 net.cpp:131] Top shape: 100 50 (5000)
I0428 20:10:04.577914 31760 net.cpp:139] Memory required for data: 8334800
I0428 20:10:04.577924 31760 layer_factory.hpp:77] Creating layer relu1
I0428 20:10:04.577931 31760 net.cpp:86] Creating Layer relu1
I0428 20:10:04.577936 31760 net.cpp:408] relu1 <- ip1
I0428 20:10:04.577941 31760 net.cpp:369] relu1 -> ip1 (in-place)
I0428 20:10:04.578150 31760 net.cpp:124] Setting up relu1
I0428 20:10:04.578161 31760 net.cpp:131] Top shape: 100 50 (5000)
I0428 20:10:04.578163 31760 net.cpp:139] Memory required for data: 8354800
I0428 20:10:04.578168 31760 layer_factory.hpp:77] Creating layer ip2
I0428 20:10:04.578177 31760 net.cpp:86] Creating Layer ip2
I0428 20:10:04.578181 31760 net.cpp:408] ip2 <- ip1
I0428 20:10:04.578187 31760 net.cpp:382] ip2 -> ip2
I0428 20:10:04.578348 31760 net.cpp:124] Setting up ip2
I0428 20:10:04.578358 31760 net.cpp:131] Top shape: 100 25 (2500)
I0428 20:10:04.578361 31760 net.cpp:139] Memory required for data: 8364800
I0428 20:10:04.578368 31760 layer_factory.hpp:77] Creating layer relu2
I0428 20:10:04.578374 31760 net.cpp:86] Creating Layer relu2
I0428 20:10:04.578377 31760 net.cpp:408] relu2 <- ip2
I0428 20:10:04.578384 31760 net.cpp:369] relu2 -> ip2 (in-place)
I0428 20:10:04.578649 31760 net.cpp:124] Setting up relu2
I0428 20:10:04.578658 31760 net.cpp:131] Top shape: 100 25 (2500)
I0428 20:10:04.578662 31760 net.cpp:139] Memory required for data: 8374800
I0428 20:10:04.578665 31760 layer_factory.hpp:77] Creating layer ip3
I0428 20:10:04.578673 31760 net.cpp:86] Creating Layer ip3
I0428 20:10:04.578677 31760 net.cpp:408] ip3 <- ip2
I0428 20:10:04.578685 31760 net.cpp:382] ip3 -> ip3
I0428 20:10:04.578805 31760 net.cpp:124] Setting up ip3
I0428 20:10:04.578815 31760 net.cpp:131] Top shape: 100 10 (1000)
I0428 20:10:04.578819 31760 net.cpp:139] Memory required for data: 8378800
I0428 20:10:04.578829 31760 layer_factory.hpp:77] Creating layer relu3
I0428 20:10:04.578835 31760 net.cpp:86] Creating Layer relu3
I0428 20:10:04.578838 31760 net.cpp:408] relu3 <- ip3
I0428 20:10:04.578843 31760 net.cpp:369] relu3 -> ip3 (in-place)
I0428 20:10:04.579756 31760 net.cpp:124] Setting up relu3
I0428 20:10:04.579771 31760 net.cpp:131] Top shape: 100 10 (1000)
I0428 20:10:04.579774 31760 net.cpp:139] Memory required for data: 8382800
I0428 20:10:04.579778 31760 layer_factory.hpp:77] Creating layer ip3_relu3_0_split
I0428 20:10:04.579785 31760 net.cpp:86] Creating Layer ip3_relu3_0_split
I0428 20:10:04.579789 31760 net.cpp:408] ip3_relu3_0_split <- ip3
I0428 20:10:04.579797 31760 net.cpp:382] ip3_relu3_0_split -> ip3_relu3_0_split_0
I0428 20:10:04.579804 31760 net.cpp:382] ip3_relu3_0_split -> ip3_relu3_0_split_1
I0428 20:10:04.579849 31760 net.cpp:124] Setting up ip3_relu3_0_split
I0428 20:10:04.579854 31760 net.cpp:131] Top shape: 100 10 (1000)
I0428 20:10:04.579859 31760 net.cpp:131] Top shape: 100 10 (1000)
I0428 20:10:04.579864 31760 net.cpp:139] Memory required for data: 8390800
I0428 20:10:04.579866 31760 layer_factory.hpp:77] Creating layer accuracy
I0428 20:10:04.579874 31760 net.cpp:86] Creating Layer accuracy
I0428 20:10:04.579877 31760 net.cpp:408] accuracy <- ip3_relu3_0_split_0
I0428 20:10:04.579881 31760 net.cpp:408] accuracy <- label_mnist_1_split_0
I0428 20:10:04.579886 31760 net.cpp:382] accuracy -> accuracy
…
