…
I0428 20:23:44.809625  2281 net.cpp:296] The NetState phase (0) differed from the phase (1) specified by a rule in layer mnist
I0428 20:23:44.809645  2281 net.cpp:296] The NetState phase (0) differed from the phase (1) specified by a rule in layer accuracy
I0428 20:23:44.809749  2281 net.cpp:53] Initializing net from parameters: 
name: "LeNet"
state {
  phase: TRAIN
  level: 0
  stage: ""
}
layer {
  name: "mnist"
  type: "Data"
  top: "data"
  top: "label"
  include {
    phase: TRAIN
  }
  transform_param {
    scale: 0.00390625
  }
  data_param {
    source: "examples/mnist/mnist_train_lmdb"
    batch_size: 64
    backend: LMDB
  }
}
layer {
  name: "conv0"
  type: "Convolution"
  bottom: "data"
  top: "conv0"
  param {
    lr_mult: 1
  }
  param {
    lr_mult: 2
  }
  convolution_param {
    num_output: 50
    kernel_size: 5
    stride: 1
    weight_filler {
      type: "xavier"
    }
    bias_filler {
      type: "constant"
    }
  }
}
layer {
  name: "pool0"
  type: "Pooling"
  bottom: "conv0"
  top: "pool0"
  pooling_param {
    pool: MAX
    kernel_size: 2
    stride: 2
  }
}
layer {
  name: "conv1"
  type: "Convolution"
  bottom: "pool0"
  top: "conv1"
  param {
    lr_mult: 1
  }
  param {
    lr_mult: 2
  }
  convolution_param {
    num_output: 100
    kernel_size: 5
    stride: 1
    weight_filler {
      type: "xavier"
    }
    bias_filler {
      type: "constant"
    }
  }
}
layer {
  name: "pool1"
  type: "Pooling"
  bottom: "conv1"
  top: "pool1"
  pooling_param {
    pool: MAX
    kernel_size: 2
    stride: 2
  }
}
layer {
  name: "ip1"
  type: "InnerProduct"
  bottom: "pool1"
  top: "ip1"
  param {
    lr_mult: 1
  }
  param {
    lr_mult: 2
  }
  inner_product_param {
    num_output: 25
    weight_filler {
      type: "xavier"
    }
    bias_filler {
      type: "constant"
    }
  }
}
layer {
  name: "relu1"
  type: "ReLU"
  bottom: "ip1"
  top: "ip1"
}
layer {
  name: "ip2"
  type: "InnerProduct"
  bottom: "ip1"
  top: "ip2"
  param {
    lr_mult: 1
  }
  param {
    lr_mult: 2
  }
  inner_product_param {
    num_output: 10
    weight_filler {
      type: "xavier"
    }
    bias_filler {
      type: "constant"
    }
  }
}
layer {
  name: "relu2"
  type: "ReLU"
  bottom: "ip2"
  top: "ip2"
}
layer {
  name: "ip3"
  type: "InnerProduct"
  bottom: "ip2"
  top: "ip3"
  param {
    lr_mult: 1
  }
  param {
    lr_mult: 2
  }
  inner_product_param {
    num_output: 10
    weight_filler {
      type: "xavier"
    }
    bias_filler {
      type: "constant"
    }
  }
}
layer {
  name: "relu3"
  type: "ReLU"
  bottom: "ip3"
  top: "ip3"
}
layer {
  name: "loss"
  type: "SoftmaxWithLoss"
  bottom: "ip3"
  bottom: "label"
  top: "loss"
}
I0428 20:23:44.809833  2281 layer_factory.hpp:77] Creating layer mnist
I0428 20:23:44.809931  2281 db_lmdb.cpp:35] Opened lmdb examples/mnist/mnist_train_lmdb
I0428 20:23:44.809957  2281 net.cpp:86] Creating Layer mnist
I0428 20:23:44.809967  2281 net.cpp:382] mnist -> data
I0428 20:23:44.809993  2281 net.cpp:382] mnist -> label
I0428 20:23:44.811084  2281 data_layer.cpp:45] output data size: 64,1,28,28
I0428 20:23:44.813550  2281 net.cpp:124] Setting up mnist
I0428 20:23:44.813568  2281 net.cpp:131] Top shape: 64 1 28 28 (50176)
I0428 20:23:44.813575  2281 net.cpp:131] Top shape: 64 (64)
I0428 20:23:44.813580  2281 net.cpp:139] Memory required for data: 200960
I0428 20:23:44.813586  2281 layer_factory.hpp:77] Creating layer conv0
I0428 20:23:44.813606  2281 net.cpp:86] Creating Layer conv0
I0428 20:23:44.813632  2281 net.cpp:408] conv0 <- data
I0428 20:23:44.813644  2281 net.cpp:382] conv0 -> conv0
I0428 20:23:45.088418  2281 net.cpp:124] Setting up conv0
I0428 20:23:45.088444  2281 net.cpp:131] Top shape: 64 50 24 24 (1843200)
I0428 20:23:45.088449  2281 net.cpp:139] Memory required for data: 7573760
I0428 20:23:45.088464  2281 layer_factory.hpp:77] Creating layer pool0
I0428 20:23:45.088475  2281 net.cpp:86] Creating Layer pool0
I0428 20:23:45.088480  2281 net.cpp:408] pool0 <- conv0
I0428 20:23:45.088485  2281 net.cpp:382] pool0 -> pool0
I0428 20:23:45.088560  2281 net.cpp:124] Setting up pool0
I0428 20:23:45.088568  2281 net.cpp:131] Top shape: 64 50 12 12 (460800)
I0428 20:23:45.088572  2281 net.cpp:139] Memory required for data: 9416960
I0428 20:23:45.088574  2281 layer_factory.hpp:77] Creating layer conv1
I0428 20:23:45.088600  2281 net.cpp:86] Creating Layer conv1
I0428 20:23:45.088605  2281 net.cpp:408] conv1 <- pool0
I0428 20:23:45.088611  2281 net.cpp:382] conv1 -> conv1
I0428 20:23:45.092038  2281 net.cpp:124] Setting up conv1
I0428 20:23:45.092068  2281 net.cpp:131] Top shape: 64 100 8 8 (409600)
I0428 20:23:45.092072  2281 net.cpp:139] Memory required for data: 11055360
I0428 20:23:45.092080  2281 layer_factory.hpp:77] Creating layer pool1
I0428 20:23:45.092089  2281 net.cpp:86] Creating Layer pool1
I0428 20:23:45.092092  2281 net.cpp:408] pool1 <- conv1
I0428 20:23:45.092097  2281 net.cpp:382] pool1 -> pool1
I0428 20:23:45.092166  2281 net.cpp:124] Setting up pool1
I0428 20:23:45.092173  2281 net.cpp:131] Top shape: 64 100 4 4 (102400)
I0428 20:23:45.092176  2281 net.cpp:139] Memory required for data: 11464960
I0428 20:23:45.092178  2281 layer_factory.hpp:77] Creating layer ip1
I0428 20:23:45.092185  2281 net.cpp:86] Creating Layer ip1
I0428 20:23:45.092190  2281 net.cpp:408] ip1 <- pool1
I0428 20:23:45.092195  2281 net.cpp:382] ip1 -> ip1
I0428 20:23:45.092511  2281 net.cpp:124] Setting up ip1
I0428 20:23:45.092519  2281 net.cpp:131] Top shape: 64 25 (1600)
I0428 20:23:45.092521  2281 net.cpp:139] Memory required for data: 11471360
I0428 20:23:45.092543  2281 layer_factory.hpp:77] Creating layer relu1
I0428 20:23:45.092550  2281 net.cpp:86] Creating Layer relu1
I0428 20:23:45.092553  2281 net.cpp:408] relu1 <- ip1
I0428 20:23:45.092557  2281 net.cpp:369] relu1 -> ip1 (in-place)
I0428 20:23:45.092717  2281 net.cpp:124] Setting up relu1
I0428 20:23:45.092725  2281 net.cpp:131] Top shape: 64 25 (1600)
I0428 20:23:45.092728  2281 net.cpp:139] Memory required for data: 11477760
I0428 20:23:45.092731  2281 layer_factory.hpp:77] Creating layer ip2
I0428 20:23:45.092737  2281 net.cpp:86] Creating Layer ip2
I0428 20:23:45.092741  2281 net.cpp:408] ip2 <- ip1
I0428 20:23:45.092746  2281 net.cpp:382] ip2 -> ip2
I0428 20:23:45.092893  2281 net.cpp:124] Setting up ip2
I0428 20:23:45.092918  2281 net.cpp:131] Top shape: 64 10 (640)
I0428 20:23:45.092921  2281 net.cpp:139] Memory required for data: 11480320
I0428 20:23:45.092942  2281 layer_factory.hpp:77] Creating layer relu2
I0428 20:23:45.092952  2281 net.cpp:86] Creating Layer relu2
I0428 20:23:45.092955  2281 net.cpp:408] relu2 <- ip2
I0428 20:23:45.092962  2281 net.cpp:369] relu2 -> ip2 (in-place)
I0428 20:23:45.093798  2281 net.cpp:124] Setting up relu2
I0428 20:23:45.093811  2281 net.cpp:131] Top shape: 64 10 (640)
I0428 20:23:45.093813  2281 net.cpp:139] Memory required for data: 11482880
I0428 20:23:45.093817  2281 layer_factory.hpp:77] Creating layer ip3
I0428 20:23:45.093824  2281 net.cpp:86] Creating Layer ip3
I0428 20:23:45.093828  2281 net.cpp:408] ip3 <- ip2
I0428 20:23:45.093833  2281 net.cpp:382] ip3 -> ip3
I0428 20:23:45.093946  2281 net.cpp:124] Setting up ip3
I0428 20:23:45.093955  2281 net.cpp:131] Top shape: 64 10 (640)
I0428 20:23:45.093957  2281 net.cpp:139] Memory required for data: 11485440
I0428 20:23:45.093966  2281 layer_factory.hpp:77] Creating layer relu3
I0428 20:23:45.093973  2281 net.cpp:86] Creating Layer relu3
I0428 20:23:45.093978  2281 net.cpp:408] relu3 <- ip3
I0428 20:23:45.093998  2281 net.cpp:369] relu3 -> ip3 (in-place)
I0428 20:23:45.094172  2281 net.cpp:124] Setting up relu3
I0428 20:23:45.094182  2281 net.cpp:131] Top shape: 64 10 (640)
I0428 20:23:45.094184  2281 net.cpp:139] Memory required for data: 11488000
I0428 20:23:45.094188  2281 layer_factory.hpp:77] Creating layer loss
I0428 20:23:45.094195  2281 net.cpp:86] Creating Layer loss
I0428 20:23:45.094198  2281 net.cpp:408] loss <- ip3
I0428 20:23:45.094202  2281 net.cpp:408] loss <- label
I0428 20:23:45.094208  2281 net.cpp:382] loss -> loss
I0428 20:23:45.094224  2281 layer_factory.hpp:77] Creating layer loss
…
I0428 20:23:45.094880  2281 solver.cpp:173] Creating test net (#0) specified by net file: ECE595/mnist/train_test/var_everything2/lenet_train_test1426.prototxt
I0428 20:23:45.094916  2281 net.cpp:296] The NetState phase (1) differed from the phase (0) specified by a rule in layer mnist
I0428 20:23:45.095002  2281 net.cpp:53] Initializing net from parameters: 
name: "LeNet"
state {
  phase: TEST
}
layer {
  name: "mnist"
  type: "Data"
  top: "data"
  top: "label"
  include {
    phase: TEST
  }
  transform_param {
    scale: 0.00390625
  }
  data_param {
    source: "examples/mnist/mnist_test_lmdb"
    batch_size: 100
    backend: LMDB
  }
}
layer {
  name: "conv0"
  type: "Convolution"
  bottom: "data"
  top: "conv0"
  param {
    lr_mult: 1
  }
  param {
    lr_mult: 2
  }
  convolution_param {
    num_output: 50
    kernel_size: 5
    stride: 1
    weight_filler {
      type: "xavier"
    }
    bias_filler {
      type: "constant"
    }
  }
}
layer {
  name: "pool0"
  type: "Pooling"
  bottom: "conv0"
  top: "pool0"
  pooling_param {
    pool: MAX
    kernel_size: 2
    stride: 2
  }
}
layer {
  name: "conv1"
  type: "Convolution"
  bottom: "pool0"
  top: "conv1"
  param {
    lr_mult: 1
  }
  param {
    lr_mult: 2
  }
  convolution_param {
    num_output: 100
    kernel_size: 5
    stride: 1
    weight_filler {
      type: "xavier"
    }
    bias_filler {
      type: "constant"
    }
  }
}
layer {
  name: "pool1"
  type: "Pooling"
  bottom: "conv1"
  top: "pool1"
  pooling_param {
    pool: MAX
    kernel_size: 2
    stride: 2
  }
}
layer {
  name: "ip1"
  type: "InnerProduct"
  bottom: "pool1"
  top: "ip1"
  param {
    lr_mult: 1
  }
  param {
    lr_mult: 2
  }
  inner_product_param {
    num_output: 25
    weight_filler {
      type: "xavier"
    }
    bias_filler {
      type: "constant"
    }
  }
}
layer {
  name: "relu1"
  type: "ReLU"
  bottom: "ip1"
  top: "ip1"
}
layer {
  name: "ip2"
  type: "InnerProduct"
  bottom: "ip1"
  top: "ip2"
  param {
    lr_mult: 1
  }
  param {
    lr_mult: 2
  }
  inner_product_param {
    num_output: 10
    weight_filler {
      type: "xavier"
    }
    bias_filler {
      type: "constant"
    }
  }
}
layer {
  name: "relu2"
  type: "ReLU"
  bottom: "ip2"
  top: "ip2"
}
layer {
  name: "ip3"
  type: "InnerProduct"
  bottom: "ip2"
  top: "ip3"
  param {
    lr_mult: 1
  }
  param {
    lr_mult: 2
  }
  inner_product_param {
    num_output: 10
    weight_filler {
      type: "xavier"
    }
    bias_filler {
      type: "constant"
    }
  }
}
layer {
  name: "relu3"
  type: "ReLU"
  bottom: "ip3"
  top: "ip3"
}
layer {
  name: "accuracy"
  type: "Accuracy"
  bottom: "ip3"
  bottom: "label"
  top: "accuracy"
  include {
    phase: TEST
  }
}
layer {
  name: "loss"
  type: "SoftmaxWithLoss"
  bottom: "ip3"
  bottom: "label"
  top: "loss"
}
I0428 20:23:45.095134  2281 layer_factory.hpp:77] Creating layer mnist
I0428 20:23:45.095199  2281 db_lmdb.cpp:35] Opened lmdb examples/mnist/mnist_test_lmdb
I0428 20:23:45.095213  2281 net.cpp:86] Creating Layer mnist
I0428 20:23:45.095221  2281 net.cpp:382] mnist -> data
I0428 20:23:45.095229  2281 net.cpp:382] mnist -> label
I0428 20:23:45.095321  2281 data_layer.cpp:45] output data size: 100,1,28,28
I0428 20:23:45.096640  2281 net.cpp:124] Setting up mnist
I0428 20:23:45.096669  2281 net.cpp:131] Top shape: 100 1 28 28 (78400)
I0428 20:23:45.096675  2281 net.cpp:131] Top shape: 100 (100)
I0428 20:23:45.096678  2281 net.cpp:139] Memory required for data: 314000
I0428 20:23:45.096683  2281 layer_factory.hpp:77] Creating layer label_mnist_1_split
I0428 20:23:45.096689  2281 net.cpp:86] Creating Layer label_mnist_1_split
I0428 20:23:45.096693  2281 net.cpp:408] label_mnist_1_split <- label
I0428 20:23:45.096699  2281 net.cpp:382] label_mnist_1_split -> label_mnist_1_split_0
I0428 20:23:45.096706  2281 net.cpp:382] label_mnist_1_split -> label_mnist_1_split_1
I0428 20:23:45.096804  2281 net.cpp:124] Setting up label_mnist_1_split
I0428 20:23:45.096835  2281 net.cpp:131] Top shape: 100 (100)
I0428 20:23:45.096854  2281 net.cpp:131] Top shape: 100 (100)
I0428 20:23:45.096860  2281 net.cpp:139] Memory required for data: 314800
I0428 20:23:45.096864  2281 layer_factory.hpp:77] Creating layer conv0
I0428 20:23:45.096874  2281 net.cpp:86] Creating Layer conv0
I0428 20:23:45.096877  2281 net.cpp:408] conv0 <- data
I0428 20:23:45.096884  2281 net.cpp:382] conv0 -> conv0
I0428 20:23:45.098698  2281 net.cpp:124] Setting up conv0
I0428 20:23:45.098727  2281 net.cpp:131] Top shape: 100 50 24 24 (2880000)
I0428 20:23:45.098731  2281 net.cpp:139] Memory required for data: 11834800
I0428 20:23:45.098757  2281 layer_factory.hpp:77] Creating layer pool0
I0428 20:23:45.098764  2281 net.cpp:86] Creating Layer pool0
I0428 20:23:45.098767  2281 net.cpp:408] pool0 <- conv0
I0428 20:23:45.098773  2281 net.cpp:382] pool0 -> pool0
I0428 20:23:45.098827  2281 net.cpp:124] Setting up pool0
I0428 20:23:45.098835  2281 net.cpp:131] Top shape: 100 50 12 12 (720000)
I0428 20:23:45.098839  2281 net.cpp:139] Memory required for data: 14714800
I0428 20:23:45.098841  2281 layer_factory.hpp:77] Creating layer conv1
I0428 20:23:45.098852  2281 net.cpp:86] Creating Layer conv1
I0428 20:23:45.098860  2281 net.cpp:408] conv1 <- pool0
I0428 20:23:45.098881  2281 net.cpp:382] conv1 -> conv1
I0428 20:23:45.102303  2281 net.cpp:124] Setting up conv1
I0428 20:23:45.102315  2281 net.cpp:131] Top shape: 100 100 8 8 (640000)
I0428 20:23:45.102334  2281 net.cpp:139] Memory required for data: 17274800
I0428 20:23:45.102358  2281 layer_factory.hpp:77] Creating layer pool1
I0428 20:23:45.102372  2281 net.cpp:86] Creating Layer pool1
I0428 20:23:45.102376  2281 net.cpp:408] pool1 <- conv1
I0428 20:23:45.102382  2281 net.cpp:382] pool1 -> pool1
I0428 20:23:45.102433  2281 net.cpp:124] Setting up pool1
I0428 20:23:45.102440  2281 net.cpp:131] Top shape: 100 100 4 4 (160000)
I0428 20:23:45.102443  2281 net.cpp:139] Memory required for data: 17914800
I0428 20:23:45.102447  2281 layer_factory.hpp:77] Creating layer ip1
I0428 20:23:45.102453  2281 net.cpp:86] Creating Layer ip1
I0428 20:23:45.102458  2281 net.cpp:408] ip1 <- pool1
I0428 20:23:45.102463  2281 net.cpp:382] ip1 -> ip1
I0428 20:23:45.102809  2281 net.cpp:124] Setting up ip1
I0428 20:23:45.102826  2281 net.cpp:131] Top shape: 100 25 (2500)
I0428 20:23:45.102841  2281 net.cpp:139] Memory required for data: 17924800
I0428 20:23:45.102864  2281 layer_factory.hpp:77] Creating layer relu1
I0428 20:23:45.102874  2281 net.cpp:86] Creating Layer relu1
I0428 20:23:45.102892  2281 net.cpp:408] relu1 <- ip1
I0428 20:23:45.102897  2281 net.cpp:369] relu1 -> ip1 (in-place)
I0428 20:23:45.103058  2281 net.cpp:124] Setting up relu1
I0428 20:23:45.103067  2281 net.cpp:131] Top shape: 100 25 (2500)
I0428 20:23:45.103071  2281 net.cpp:139] Memory required for data: 17934800
I0428 20:23:45.103075  2281 layer_factory.hpp:77] Creating layer ip2
I0428 20:23:45.103106  2281 net.cpp:86] Creating Layer ip2
I0428 20:23:45.103111  2281 net.cpp:408] ip2 <- ip1
I0428 20:23:45.103116  2281 net.cpp:382] ip2 -> ip2
I0428 20:23:45.103226  2281 net.cpp:124] Setting up ip2
I0428 20:23:45.103235  2281 net.cpp:131] Top shape: 100 10 (1000)
I0428 20:23:45.103237  2281 net.cpp:139] Memory required for data: 17938800
I0428 20:23:45.103243  2281 layer_factory.hpp:77] Creating layer relu2
I0428 20:23:45.103250  2281 net.cpp:86] Creating Layer relu2
I0428 20:23:45.103253  2281 net.cpp:408] relu2 <- ip2
I0428 20:23:45.103257  2281 net.cpp:369] relu2 -> ip2 (in-place)
I0428 20:23:45.103533  2281 net.cpp:124] Setting up relu2
I0428 20:23:45.103556  2281 net.cpp:131] Top shape: 100 10 (1000)
I0428 20:23:45.103559  2281 net.cpp:139] Memory required for data: 17942800
I0428 20:23:45.103562  2281 layer_factory.hpp:77] Creating layer ip3
I0428 20:23:45.103584  2281 net.cpp:86] Creating Layer ip3
I0428 20:23:45.103586  2281 net.cpp:408] ip3 <- ip2
I0428 20:23:45.103607  2281 net.cpp:382] ip3 -> ip3
I0428 20:23:45.103744  2281 net.cpp:124] Setting up ip3
I0428 20:23:45.103750  2281 net.cpp:131] Top shape: 100 10 (1000)
I0428 20:23:45.103754  2281 net.cpp:139] Memory required for data: 17946800
I0428 20:23:45.103762  2281 layer_factory.hpp:77] Creating layer relu3
I0428 20:23:45.103767  2281 net.cpp:86] Creating Layer relu3
I0428 20:23:45.103771  2281 net.cpp:408] relu3 <- ip3
I0428 20:23:45.103776  2281 net.cpp:369] relu3 -> ip3 (in-place)
I0428 20:23:45.104609  2281 net.cpp:124] Setting up relu3
I0428 20:23:45.104619  2281 net.cpp:131] Top shape: 100 10 (1000)
I0428 20:23:45.104645  2281 net.cpp:139] Memory required for data: 17950800
I0428 20:23:45.104648  2281 layer_factory.hpp:77] Creating layer ip3_relu3_0_split
I0428 20:23:45.104655  2281 net.cpp:86] Creating Layer ip3_relu3_0_split
I0428 20:23:45.104657  2281 net.cpp:408] ip3_relu3_0_split <- ip3
I0428 20:23:45.104663  2281 net.cpp:382] ip3_relu3_0_split -> ip3_relu3_0_split_0
I0428 20:23:45.104670  2281 net.cpp:382] ip3_relu3_0_split -> ip3_relu3_0_split_1
I0428 20:23:45.104722  2281 net.cpp:124] Setting up ip3_relu3_0_split
I0428 20:23:45.104727  2281 net.cpp:131] Top shape: 100 10 (1000)
I0428 20:23:45.104732  2281 net.cpp:131] Top shape: 100 10 (1000)
I0428 20:23:45.104750  2281 net.cpp:139] Memory required for data: 17958800
I0428 20:23:45.104753  2281 layer_factory.hpp:77] Creating layer accuracy
I0428 20:23:45.104759  2281 net.cpp:86] Creating Layer accuracy
I0428 20:23:45.104763  2281 net.cpp:408] accuracy <- ip3_relu3_0_split_0
I0428 20:23:45.104768  2281 net.cpp:408] accuracy <- label_mnist_1_split_0
I0428 20:23:45.104773  2281 net.cpp:382] accuracy -> accuracy
…
