…
I0428 19:59:54.281025 29351 net.cpp:296] The NetState phase (0) differed from the phase (1) specified by a rule in layer mnist
I0428 19:59:54.281040 29351 net.cpp:296] The NetState phase (0) differed from the phase (1) specified by a rule in layer accuracy
I0428 19:59:54.281114 29351 net.cpp:53] Initializing net from parameters: 
name: "LeNet"
state {
  phase: TRAIN
  level: 0
  stage: ""
}
layer {
  name: "mnist"
  type: "Data"
  top: "data"
  top: "label"
  include {
    phase: TRAIN
  }
  transform_param {
    scale: 0.00390625
  }
  data_param {
    source: "examples/mnist/mnist_train_lmdb"
    batch_size: 64
    backend: LMDB
  }
}
layer {
  name: "conv0"
  type: "Convolution"
  bottom: "data"
  top: "conv0"
  param {
    lr_mult: 1
  }
  param {
    lr_mult: 2
  }
  convolution_param {
    num_output: 10
    kernel_size: 5
    stride: 1
    weight_filler {
      type: "xavier"
    }
    bias_filler {
      type: "constant"
    }
  }
}
layer {
  name: "pool0"
  type: "Pooling"
  bottom: "conv0"
  top: "pool0"
  pooling_param {
    pool: MAX
    kernel_size: 2
    stride: 2
  }
}
layer {
  name: "conv1"
  type: "Convolution"
  bottom: "pool0"
  top: "conv1"
  param {
    lr_mult: 1
  }
  param {
    lr_mult: 2
  }
  convolution_param {
    num_output: 25
    kernel_size: 5
    stride: 1
    weight_filler {
      type: "xavier"
    }
    bias_filler {
      type: "constant"
    }
  }
}
layer {
  name: "pool1"
  type: "Pooling"
  bottom: "conv1"
  top: "pool1"
  pooling_param {
    pool: MAX
    kernel_size: 2
    stride: 2
  }
}
layer {
  name: "ip1"
  type: "InnerProduct"
  bottom: "pool1"
  top: "ip1"
  param {
    lr_mult: 1
  }
  param {
    lr_mult: 2
  }
  inner_product_param {
    num_output: 10
    weight_filler {
      type: "xavier"
    }
    bias_filler {
      type: "constant"
    }
  }
}
layer {
  name: "relu1"
  type: "ReLU"
  bottom: "ip1"
  top: "ip1"
}
layer {
  name: "ip2"
  type: "InnerProduct"
  bottom: "ip1"
  top: "ip2"
  param {
    lr_mult: 1
  }
  param {
    lr_mult: 2
  }
  inner_product_param {
    num_output: 10
    weight_filler {
      type: "xavier"
    }
    bias_filler {
      type: "constant"
    }
  }
}
layer {
  name: "relu2"
  type: "ReLU"
  bottom: "ip2"
  top: "ip2"
}
layer {
  name: "loss"
  type: "SoftmaxWithLoss"
  bottom: "ip2"
  bottom: "label"
  top: "loss"
}
I0428 19:59:54.281205 29351 layer_factory.hpp:77] Creating layer mnist
I0428 19:59:54.281286 29351 db_lmdb.cpp:35] Opened lmdb examples/mnist/mnist_train_lmdb
I0428 19:59:54.281318 29351 net.cpp:86] Creating Layer mnist
I0428 19:59:54.281325 29351 net.cpp:382] mnist -> data
I0428 19:59:54.281342 29351 net.cpp:382] mnist -> label
I0428 19:59:54.282213 29351 data_layer.cpp:45] output data size: 64,1,28,28
I0428 19:59:54.284335 29351 net.cpp:124] Setting up mnist
I0428 19:59:54.284350 29351 net.cpp:131] Top shape: 64 1 28 28 (50176)
I0428 19:59:54.284355 29351 net.cpp:131] Top shape: 64 (64)
I0428 19:59:54.284358 29351 net.cpp:139] Memory required for data: 200960
I0428 19:59:54.284364 29351 layer_factory.hpp:77] Creating layer conv0
I0428 19:59:54.284379 29351 net.cpp:86] Creating Layer conv0
I0428 19:59:54.284384 29351 net.cpp:408] conv0 <- data
I0428 19:59:54.284394 29351 net.cpp:382] conv0 -> conv0
I0428 19:59:54.517855 29351 net.cpp:124] Setting up conv0
I0428 19:59:54.517882 29351 net.cpp:131] Top shape: 64 10 24 24 (368640)
I0428 19:59:54.517886 29351 net.cpp:139] Memory required for data: 1675520
I0428 19:59:54.517935 29351 layer_factory.hpp:77] Creating layer pool0
I0428 19:59:54.517947 29351 net.cpp:86] Creating Layer pool0
I0428 19:59:54.517954 29351 net.cpp:408] pool0 <- conv0
I0428 19:59:54.517959 29351 net.cpp:382] pool0 -> pool0
I0428 19:59:54.518007 29351 net.cpp:124] Setting up pool0
I0428 19:59:54.518013 29351 net.cpp:131] Top shape: 64 10 12 12 (92160)
I0428 19:59:54.518016 29351 net.cpp:139] Memory required for data: 2044160
I0428 19:59:54.518019 29351 layer_factory.hpp:77] Creating layer conv1
I0428 19:59:54.518030 29351 net.cpp:86] Creating Layer conv1
I0428 19:59:54.518033 29351 net.cpp:408] conv1 <- pool0
I0428 19:59:54.518038 29351 net.cpp:382] conv1 -> conv1
I0428 19:59:54.520843 29351 net.cpp:124] Setting up conv1
I0428 19:59:54.520872 29351 net.cpp:131] Top shape: 64 25 8 8 (102400)
I0428 19:59:54.520876 29351 net.cpp:139] Memory required for data: 2453760
I0428 19:59:54.520885 29351 layer_factory.hpp:77] Creating layer pool1
I0428 19:59:54.520892 29351 net.cpp:86] Creating Layer pool1
I0428 19:59:54.520895 29351 net.cpp:408] pool1 <- conv1
I0428 19:59:54.520900 29351 net.cpp:382] pool1 -> pool1
I0428 19:59:54.520937 29351 net.cpp:124] Setting up pool1
I0428 19:59:54.520944 29351 net.cpp:131] Top shape: 64 25 4 4 (25600)
I0428 19:59:54.520947 29351 net.cpp:139] Memory required for data: 2556160
I0428 19:59:54.520951 29351 layer_factory.hpp:77] Creating layer ip1
I0428 19:59:54.520957 29351 net.cpp:86] Creating Layer ip1
I0428 19:59:54.520961 29351 net.cpp:408] ip1 <- pool1
I0428 19:59:54.520965 29351 net.cpp:382] ip1 -> ip1
I0428 19:59:54.521945 29351 net.cpp:124] Setting up ip1
I0428 19:59:54.521957 29351 net.cpp:131] Top shape: 64 10 (640)
I0428 19:59:54.521977 29351 net.cpp:139] Memory required for data: 2558720
I0428 19:59:54.521986 29351 layer_factory.hpp:77] Creating layer relu1
I0428 19:59:54.521992 29351 net.cpp:86] Creating Layer relu1
I0428 19:59:54.521996 29351 net.cpp:408] relu1 <- ip1
I0428 19:59:54.522001 29351 net.cpp:369] relu1 -> ip1 (in-place)
I0428 19:59:54.522192 29351 net.cpp:124] Setting up relu1
I0428 19:59:54.522199 29351 net.cpp:131] Top shape: 64 10 (640)
I0428 19:59:54.522203 29351 net.cpp:139] Memory required for data: 2561280
I0428 19:59:54.522207 29351 layer_factory.hpp:77] Creating layer ip2
I0428 19:59:54.522213 29351 net.cpp:86] Creating Layer ip2
I0428 19:59:54.522217 29351 net.cpp:408] ip2 <- ip1
I0428 19:59:54.522222 29351 net.cpp:382] ip2 -> ip2
I0428 19:59:54.522332 29351 net.cpp:124] Setting up ip2
I0428 19:59:54.522339 29351 net.cpp:131] Top shape: 64 10 (640)
I0428 19:59:54.522342 29351 net.cpp:139] Memory required for data: 2563840
I0428 19:59:54.522347 29351 layer_factory.hpp:77] Creating layer relu2
I0428 19:59:54.522353 29351 net.cpp:86] Creating Layer relu2
I0428 19:59:54.522356 29351 net.cpp:408] relu2 <- ip2
I0428 19:59:54.522361 29351 net.cpp:369] relu2 -> ip2 (in-place)
I0428 19:59:54.523082 29351 net.cpp:124] Setting up relu2
I0428 19:59:54.523094 29351 net.cpp:131] Top shape: 64 10 (640)
I0428 19:59:54.523114 29351 net.cpp:139] Memory required for data: 2566400
I0428 19:59:54.523118 29351 layer_factory.hpp:77] Creating layer loss
I0428 19:59:54.523125 29351 net.cpp:86] Creating Layer loss
I0428 19:59:54.523128 29351 net.cpp:408] loss <- ip2
I0428 19:59:54.523133 29351 net.cpp:408] loss <- label
I0428 19:59:54.523138 29351 net.cpp:382] loss -> loss
I0428 19:59:54.523155 29351 layer_factory.hpp:77] Creating layer loss
…
I0428 19:59:54.523826 29351 solver.cpp:173] Creating test net (#0) specified by net file: ECE595/mnist/train_test/var_everything2/lenet_train_test861.prototxt
I0428 19:59:54.523866 29351 net.cpp:296] The NetState phase (1) differed from the phase (0) specified by a rule in layer mnist
I0428 19:59:54.523947 29351 net.cpp:53] Initializing net from parameters: 
name: "LeNet"
state {
  phase: TEST
}
layer {
  name: "mnist"
  type: "Data"
  top: "data"
  top: "label"
  include {
    phase: TEST
  }
  transform_param {
    scale: 0.00390625
  }
  data_param {
    source: "examples/mnist/mnist_test_lmdb"
    batch_size: 100
    backend: LMDB
  }
}
layer {
  name: "conv0"
  type: "Convolution"
  bottom: "data"
  top: "conv0"
  param {
    lr_mult: 1
  }
  param {
    lr_mult: 2
  }
  convolution_param {
    num_output: 10
    kernel_size: 5
    stride: 1
    weight_filler {
      type: "xavier"
    }
    bias_filler {
      type: "constant"
    }
  }
}
layer {
  name: "pool0"
  type: "Pooling"
  bottom: "conv0"
  top: "pool0"
  pooling_param {
    pool: MAX
    kernel_size: 2
    stride: 2
  }
}
layer {
  name: "conv1"
  type: "Convolution"
  bottom: "pool0"
  top: "conv1"
  param {
    lr_mult: 1
  }
  param {
    lr_mult: 2
  }
  convolution_param {
    num_output: 25
    kernel_size: 5
    stride: 1
    weight_filler {
      type: "xavier"
    }
    bias_filler {
      type: "constant"
    }
  }
}
layer {
  name: "pool1"
  type: "Pooling"
  bottom: "conv1"
  top: "pool1"
  pooling_param {
    pool: MAX
    kernel_size: 2
    stride: 2
  }
}
layer {
  name: "ip1"
  type: "InnerProduct"
  bottom: "pool1"
  top: "ip1"
  param {
    lr_mult: 1
  }
  param {
    lr_mult: 2
  }
  inner_product_param {
    num_output: 10
    weight_filler {
      type: "xavier"
    }
    bias_filler {
      type: "constant"
    }
  }
}
layer {
  name: "relu1"
  type: "ReLU"
  bottom: "ip1"
  top: "ip1"
}
layer {
  name: "ip2"
  type: "InnerProduct"
  bottom: "ip1"
  top: "ip2"
  param {
    lr_mult: 1
  }
  param {
    lr_mult: 2
  }
  inner_product_param {
    num_output: 10
    weight_filler {
      type: "xavier"
    }
    bias_filler {
      type: "constant"
    }
  }
}
layer {
  name: "relu2"
  type: "ReLU"
  bottom: "ip2"
  top: "ip2"
}
layer {
  name: "accuracy"
  type: "Accuracy"
  bottom: "ip2"
  bottom: "label"
  top: "accuracy"
  include {
    phase: TEST
  }
}
layer {
  name: "loss"
  type: "SoftmaxWithLoss"
  bottom: "ip2"
  bottom: "label"
  top: "loss"
}
I0428 19:59:54.524031 29351 layer_factory.hpp:77] Creating layer mnist
I0428 19:59:54.524101 29351 db_lmdb.cpp:35] Opened lmdb examples/mnist/mnist_test_lmdb
I0428 19:59:54.524112 29351 net.cpp:86] Creating Layer mnist
I0428 19:59:54.524117 29351 net.cpp:382] mnist -> data
I0428 19:59:54.524125 29351 net.cpp:382] mnist -> label
I0428 19:59:54.524214 29351 data_layer.cpp:45] output data size: 100,1,28,28
I0428 19:59:54.526546 29351 net.cpp:124] Setting up mnist
I0428 19:59:54.526590 29351 net.cpp:131] Top shape: 100 1 28 28 (78400)
I0428 19:59:54.526595 29351 net.cpp:131] Top shape: 100 (100)
I0428 19:59:54.526599 29351 net.cpp:139] Memory required for data: 314000
I0428 19:59:54.526602 29351 layer_factory.hpp:77] Creating layer label_mnist_1_split
I0428 19:59:54.526609 29351 net.cpp:86] Creating Layer label_mnist_1_split
I0428 19:59:54.526612 29351 net.cpp:408] label_mnist_1_split <- label
I0428 19:59:54.526618 29351 net.cpp:382] label_mnist_1_split -> label_mnist_1_split_0
I0428 19:59:54.526624 29351 net.cpp:382] label_mnist_1_split -> label_mnist_1_split_1
I0428 19:59:54.526746 29351 net.cpp:124] Setting up label_mnist_1_split
I0428 19:59:54.526765 29351 net.cpp:131] Top shape: 100 (100)
I0428 19:59:54.526769 29351 net.cpp:131] Top shape: 100 (100)
I0428 19:59:54.526772 29351 net.cpp:139] Memory required for data: 314800
I0428 19:59:54.526775 29351 layer_factory.hpp:77] Creating layer conv0
I0428 19:59:54.526784 29351 net.cpp:86] Creating Layer conv0
I0428 19:59:54.526787 29351 net.cpp:408] conv0 <- data
I0428 19:59:54.526793 29351 net.cpp:382] conv0 -> conv0
I0428 19:59:54.528363 29351 net.cpp:124] Setting up conv0
I0428 19:59:54.528379 29351 net.cpp:131] Top shape: 100 10 24 24 (576000)
I0428 19:59:54.528383 29351 net.cpp:139] Memory required for data: 2618800
I0428 19:59:54.528393 29351 layer_factory.hpp:77] Creating layer pool0
I0428 19:59:54.528414 29351 net.cpp:86] Creating Layer pool0
I0428 19:59:54.528429 29351 net.cpp:408] pool0 <- conv0
I0428 19:59:54.528435 29351 net.cpp:382] pool0 -> pool0
I0428 19:59:54.528471 29351 net.cpp:124] Setting up pool0
I0428 19:59:54.528478 29351 net.cpp:131] Top shape: 100 10 12 12 (144000)
I0428 19:59:54.528481 29351 net.cpp:139] Memory required for data: 3194800
I0428 19:59:54.528484 29351 layer_factory.hpp:77] Creating layer conv1
I0428 19:59:54.528494 29351 net.cpp:86] Creating Layer conv1
I0428 19:59:54.528498 29351 net.cpp:408] conv1 <- pool0
I0428 19:59:54.528503 29351 net.cpp:382] conv1 -> conv1
I0428 19:59:54.530711 29351 net.cpp:124] Setting up conv1
I0428 19:59:54.530725 29351 net.cpp:131] Top shape: 100 25 8 8 (160000)
I0428 19:59:54.530728 29351 net.cpp:139] Memory required for data: 3834800
I0428 19:59:54.530752 29351 layer_factory.hpp:77] Creating layer pool1
I0428 19:59:54.530761 29351 net.cpp:86] Creating Layer pool1
I0428 19:59:54.530763 29351 net.cpp:408] pool1 <- conv1
I0428 19:59:54.530768 29351 net.cpp:382] pool1 -> pool1
I0428 19:59:54.530807 29351 net.cpp:124] Setting up pool1
I0428 19:59:54.530813 29351 net.cpp:131] Top shape: 100 25 4 4 (40000)
I0428 19:59:54.530817 29351 net.cpp:139] Memory required for data: 3994800
I0428 19:59:54.530820 29351 layer_factory.hpp:77] Creating layer ip1
I0428 19:59:54.530825 29351 net.cpp:86] Creating Layer ip1
I0428 19:59:54.530828 29351 net.cpp:408] ip1 <- pool1
I0428 19:59:54.530834 29351 net.cpp:382] ip1 -> ip1
I0428 19:59:54.530961 29351 net.cpp:124] Setting up ip1
I0428 19:59:54.530968 29351 net.cpp:131] Top shape: 100 10 (1000)
I0428 19:59:54.530972 29351 net.cpp:139] Memory required for data: 3998800
I0428 19:59:54.530978 29351 layer_factory.hpp:77] Creating layer relu1
I0428 19:59:54.530983 29351 net.cpp:86] Creating Layer relu1
I0428 19:59:54.530987 29351 net.cpp:408] relu1 <- ip1
I0428 19:59:54.530992 29351 net.cpp:369] relu1 -> ip1 (in-place)
I0428 19:59:54.531159 29351 net.cpp:124] Setting up relu1
I0428 19:59:54.531167 29351 net.cpp:131] Top shape: 100 10 (1000)
I0428 19:59:54.531170 29351 net.cpp:139] Memory required for data: 4002800
I0428 19:59:54.531172 29351 layer_factory.hpp:77] Creating layer ip2
I0428 19:59:54.531180 29351 net.cpp:86] Creating Layer ip2
I0428 19:59:54.531183 29351 net.cpp:408] ip2 <- ip1
I0428 19:59:54.531189 29351 net.cpp:382] ip2 -> ip2
I0428 19:59:54.531277 29351 net.cpp:124] Setting up ip2
I0428 19:59:54.531283 29351 net.cpp:131] Top shape: 100 10 (1000)
I0428 19:59:54.531286 29351 net.cpp:139] Memory required for data: 4006800
I0428 19:59:54.531302 29351 layer_factory.hpp:77] Creating layer relu2
I0428 19:59:54.531307 29351 net.cpp:86] Creating Layer relu2
I0428 19:59:54.531325 29351 net.cpp:408] relu2 <- ip2
I0428 19:59:54.531329 29351 net.cpp:369] relu2 -> ip2 (in-place)
I0428 19:59:54.531550 29351 net.cpp:124] Setting up relu2
I0428 19:59:54.531559 29351 net.cpp:131] Top shape: 100 10 (1000)
I0428 19:59:54.531563 29351 net.cpp:139] Memory required for data: 4010800
I0428 19:59:54.531565 29351 layer_factory.hpp:77] Creating layer ip2_relu2_0_split
I0428 19:59:54.531571 29351 net.cpp:86] Creating Layer ip2_relu2_0_split
I0428 19:59:54.531580 29351 net.cpp:408] ip2_relu2_0_split <- ip2
I0428 19:59:54.531584 29351 net.cpp:382] ip2_relu2_0_split -> ip2_relu2_0_split_0
I0428 19:59:54.531601 29351 net.cpp:382] ip2_relu2_0_split -> ip2_relu2_0_split_1
I0428 19:59:54.531668 29351 net.cpp:124] Setting up ip2_relu2_0_split
I0428 19:59:54.531690 29351 net.cpp:131] Top shape: 100 10 (1000)
I0428 19:59:54.531694 29351 net.cpp:131] Top shape: 100 10 (1000)
I0428 19:59:54.531697 29351 net.cpp:139] Memory required for data: 4018800
I0428 19:59:54.531700 29351 layer_factory.hpp:77] Creating layer accuracy
I0428 19:59:54.531704 29351 net.cpp:86] Creating Layer accuracy
I0428 19:59:54.531713 29351 net.cpp:408] accuracy <- ip2_relu2_0_split_0
I0428 19:59:54.531716 29351 net.cpp:408] accuracy <- label_mnist_1_split_0
I0428 19:59:54.531729 29351 net.cpp:382] accuracy -> accuracy
…
