…
I0428 19:30:44.482002 22371 net.cpp:296] The NetState phase (0) differed from the phase (1) specified by a rule in layer mnist
I0428 19:30:44.482019 22371 net.cpp:296] The NetState phase (0) differed from the phase (1) specified by a rule in layer accuracy
I0428 19:30:44.482096 22371 net.cpp:53] Initializing net from parameters: 
name: "LeNet"
state {
  phase: TRAIN
  level: 0
  stage: ""
}
layer {
  name: "mnist"
  type: "Data"
  top: "data"
  top: "label"
  include {
    phase: TRAIN
  }
  transform_param {
    scale: 0.00390625
  }
  data_param {
    source: "examples/mnist/mnist_train_lmdb"
    batch_size: 64
    backend: LMDB
  }
}
layer {
  name: "conv0"
  type: "Convolution"
  bottom: "data"
  top: "conv0"
  param {
    lr_mult: 1
  }
  param {
    lr_mult: 2
  }
  convolution_param {
    num_output: 5
    kernel_size: 5
    stride: 1
    weight_filler {
      type: "xavier"
    }
    bias_filler {
      type: "constant"
    }
  }
}
layer {
  name: "pool0"
  type: "Pooling"
  bottom: "conv0"
  top: "pool0"
  pooling_param {
    pool: MAX
    kernel_size: 2
    stride: 2
  }
}
layer {
  name: "ip1"
  type: "InnerProduct"
  bottom: "pool0"
  top: "ip1"
  param {
    lr_mult: 1
  }
  param {
    lr_mult: 2
  }
  inner_product_param {
    num_output: 25
    weight_filler {
      type: "xavier"
    }
    bias_filler {
      type: "constant"
    }
  }
}
layer {
  name: "relu1"
  type: "ReLU"
  bottom: "ip1"
  top: "ip1"
}
layer {
  name: "ip2"
  type: "InnerProduct"
  bottom: "ip1"
  top: "ip2"
  param {
    lr_mult: 1
  }
  param {
    lr_mult: 2
  }
  inner_product_param {
    num_output: 10
    weight_filler {
      type: "xavier"
    }
    bias_filler {
      type: "constant"
    }
  }
}
layer {
  name: "relu2"
  type: "ReLU"
  bottom: "ip2"
  top: "ip2"
}
layer {
  name: "ip3"
  type: "InnerProduct"
  bottom: "ip2"
  top: "ip3"
  param {
    lr_mult: 1
  }
  param {
    lr_mult: 2
  }
  inner_product_param {
    num_output: 10
    weight_filler {
      type: "xavier"
    }
    bias_filler {
      type: "constant"
    }
  }
}
layer {
  name: "relu3"
  type: "ReLU"
  bottom: "ip3"
  top: "ip3"
}
layer {
  name: "loss"
  type: "SoftmaxWithLoss"
  bottom: "ip3"
  bottom: "label"
  top: "loss"
}
I0428 19:30:44.482177 22371 layer_factory.hpp:77] Creating layer mnist
I0428 19:30:44.482281 22371 db_lmdb.cpp:35] Opened lmdb examples/mnist/mnist_train_lmdb
I0428 19:30:44.482307 22371 net.cpp:86] Creating Layer mnist
I0428 19:30:44.482318 22371 net.cpp:382] mnist -> data
I0428 19:30:44.482342 22371 net.cpp:382] mnist -> label
I0428 19:30:44.483477 22371 data_layer.cpp:45] output data size: 64,1,28,28
I0428 19:30:44.485776 22371 net.cpp:124] Setting up mnist
I0428 19:30:44.485808 22371 net.cpp:131] Top shape: 64 1 28 28 (50176)
I0428 19:30:44.485831 22371 net.cpp:131] Top shape: 64 (64)
I0428 19:30:44.485836 22371 net.cpp:139] Memory required for data: 200960
I0428 19:30:44.485846 22371 layer_factory.hpp:77] Creating layer conv0
I0428 19:30:44.485867 22371 net.cpp:86] Creating Layer conv0
I0428 19:30:44.485875 22371 net.cpp:408] conv0 <- data
I0428 19:30:44.485891 22371 net.cpp:382] conv0 -> conv0
I0428 19:30:44.714920 22371 net.cpp:124] Setting up conv0
I0428 19:30:44.714951 22371 net.cpp:131] Top shape: 64 5 24 24 (184320)
I0428 19:30:44.714956 22371 net.cpp:139] Memory required for data: 938240
I0428 19:30:44.715005 22371 layer_factory.hpp:77] Creating layer pool0
I0428 19:30:44.715020 22371 net.cpp:86] Creating Layer pool0
I0428 19:30:44.715047 22371 net.cpp:408] pool0 <- conv0
I0428 19:30:44.715056 22371 net.cpp:382] pool0 -> pool0
I0428 19:30:44.715109 22371 net.cpp:124] Setting up pool0
I0428 19:30:44.715117 22371 net.cpp:131] Top shape: 64 5 12 12 (46080)
I0428 19:30:44.715122 22371 net.cpp:139] Memory required for data: 1122560
I0428 19:30:44.715127 22371 layer_factory.hpp:77] Creating layer ip1
I0428 19:30:44.715137 22371 net.cpp:86] Creating Layer ip1
I0428 19:30:44.715147 22371 net.cpp:408] ip1 <- pool0
I0428 19:30:44.715155 22371 net.cpp:382] ip1 -> ip1
I0428 19:30:44.715348 22371 net.cpp:124] Setting up ip1
I0428 19:30:44.715355 22371 net.cpp:131] Top shape: 64 25 (1600)
I0428 19:30:44.715360 22371 net.cpp:139] Memory required for data: 1128960
I0428 19:30:44.715370 22371 layer_factory.hpp:77] Creating layer relu1
I0428 19:30:44.715380 22371 net.cpp:86] Creating Layer relu1
I0428 19:30:44.715386 22371 net.cpp:408] relu1 <- ip1
I0428 19:30:44.715394 22371 net.cpp:369] relu1 -> ip1 (in-place)
I0428 19:30:44.715545 22371 net.cpp:124] Setting up relu1
I0428 19:30:44.715555 22371 net.cpp:131] Top shape: 64 25 (1600)
I0428 19:30:44.715559 22371 net.cpp:139] Memory required for data: 1135360
I0428 19:30:44.715564 22371 layer_factory.hpp:77] Creating layer ip2
I0428 19:30:44.715574 22371 net.cpp:86] Creating Layer ip2
I0428 19:30:44.715579 22371 net.cpp:408] ip2 <- ip1
I0428 19:30:44.715586 22371 net.cpp:382] ip2 -> ip2
I0428 19:30:44.715677 22371 net.cpp:124] Setting up ip2
I0428 19:30:44.715685 22371 net.cpp:131] Top shape: 64 10 (640)
I0428 19:30:44.715689 22371 net.cpp:139] Memory required for data: 1137920
I0428 19:30:44.715700 22371 layer_factory.hpp:77] Creating layer relu2
I0428 19:30:44.715708 22371 net.cpp:86] Creating Layer relu2
I0428 19:30:44.715713 22371 net.cpp:408] relu2 <- ip2
I0428 19:30:44.715719 22371 net.cpp:369] relu2 -> ip2 (in-place)
I0428 19:30:44.716544 22371 net.cpp:124] Setting up relu2
I0428 19:30:44.716558 22371 net.cpp:131] Top shape: 64 10 (640)
I0428 19:30:44.716563 22371 net.cpp:139] Memory required for data: 1140480
I0428 19:30:44.716569 22371 layer_factory.hpp:77] Creating layer ip3
I0428 19:30:44.716579 22371 net.cpp:86] Creating Layer ip3
I0428 19:30:44.716585 22371 net.cpp:408] ip3 <- ip2
I0428 19:30:44.716594 22371 net.cpp:382] ip3 -> ip3
I0428 19:30:44.716703 22371 net.cpp:124] Setting up ip3
I0428 19:30:44.716711 22371 net.cpp:131] Top shape: 64 10 (640)
I0428 19:30:44.716732 22371 net.cpp:139] Memory required for data: 1143040
I0428 19:30:44.716742 22371 layer_factory.hpp:77] Creating layer relu3
I0428 19:30:44.716750 22371 net.cpp:86] Creating Layer relu3
I0428 19:30:44.716756 22371 net.cpp:408] relu3 <- ip3
I0428 19:30:44.716764 22371 net.cpp:369] relu3 -> ip3 (in-place)
I0428 19:30:44.716938 22371 net.cpp:124] Setting up relu3
I0428 19:30:44.716948 22371 net.cpp:131] Top shape: 64 10 (640)
I0428 19:30:44.716953 22371 net.cpp:139] Memory required for data: 1145600
I0428 19:30:44.716958 22371 layer_factory.hpp:77] Creating layer loss
I0428 19:30:44.716969 22371 net.cpp:86] Creating Layer loss
I0428 19:30:44.716974 22371 net.cpp:408] loss <- ip3
I0428 19:30:44.716980 22371 net.cpp:408] loss <- label
I0428 19:30:44.716989 22371 net.cpp:382] loss -> loss
I0428 19:30:44.717022 22371 layer_factory.hpp:77] Creating layer loss
…
I0428 19:30:44.717787 22371 solver.cpp:173] Creating test net (#0) specified by net file: ECE595/mnist/train_test/var_everything2/lenet_train_test100.prototxt
I0428 19:30:44.717818 22371 net.cpp:296] The NetState phase (1) differed from the phase (0) specified by a rule in layer mnist
I0428 19:30:44.717900 22371 net.cpp:53] Initializing net from parameters: 
name: "LeNet"
state {
  phase: TEST
}
layer {
  name: "mnist"
  type: "Data"
  top: "data"
  top: "label"
  include {
    phase: TEST
  }
  transform_param {
    scale: 0.00390625
  }
  data_param {
    source: "examples/mnist/mnist_test_lmdb"
    batch_size: 100
    backend: LMDB
  }
}
layer {
  name: "conv0"
  type: "Convolution"
  bottom: "data"
  top: "conv0"
  param {
    lr_mult: 1
  }
  param {
    lr_mult: 2
  }
  convolution_param {
    num_output: 5
    kernel_size: 5
    stride: 1
    weight_filler {
      type: "xavier"
    }
    bias_filler {
      type: "constant"
    }
  }
}
layer {
  name: "pool0"
  type: "Pooling"
  bottom: "conv0"
  top: "pool0"
  pooling_param {
    pool: MAX
    kernel_size: 2
    stride: 2
  }
}
layer {
  name: "ip1"
  type: "InnerProduct"
  bottom: "pool0"
  top: "ip1"
  param {
    lr_mult: 1
  }
  param {
    lr_mult: 2
  }
  inner_product_param {
    num_output: 25
    weight_filler {
      type: "xavier"
    }
    bias_filler {
      type: "constant"
    }
  }
}
layer {
  name: "relu1"
  type: "ReLU"
  bottom: "ip1"
  top: "ip1"
}
layer {
  name: "ip2"
  type: "InnerProduct"
  bottom: "ip1"
  top: "ip2"
  param {
    lr_mult: 1
  }
  param {
    lr_mult: 2
  }
  inner_product_param {
    num_output: 10
    weight_filler {
      type: "xavier"
    }
    bias_filler {
      type: "constant"
    }
  }
}
layer {
  name: "relu2"
  type: "ReLU"
  bottom: "ip2"
  top: "ip2"
}
layer {
  name: "ip3"
  type: "InnerProduct"
  bottom: "ip2"
  top: "ip3"
  param {
    lr_mult: 1
  }
  param {
    lr_mult: 2
  }
  inner_product_param {
    num_output: 10
    weight_filler {
      type: "xavier"
    }
    bias_filler {
      type: "constant"
    }
  }
}
layer {
  name: "relu3"
  type: "ReLU"
  bottom: "ip3"
  top: "ip3"
}
layer {
  name: "accuracy"
  type: "Accuracy"
  bottom: "ip3"
  bottom: "label"
  top: "accuracy"
  include {
    phase: TEST
  }
}
layer {
  name: "loss"
  type: "SoftmaxWithLoss"
  bottom: "ip3"
  bottom: "label"
  top: "loss"
}
I0428 19:30:44.718004 22371 layer_factory.hpp:77] Creating layer mnist
I0428 19:30:44.718065 22371 db_lmdb.cpp:35] Opened lmdb examples/mnist/mnist_test_lmdb
I0428 19:30:44.718096 22371 net.cpp:86] Creating Layer mnist
I0428 19:30:44.718104 22371 net.cpp:382] mnist -> data
I0428 19:30:44.718116 22371 net.cpp:382] mnist -> label
I0428 19:30:44.718224 22371 data_layer.cpp:45] output data size: 100,1,28,28
I0428 19:30:44.720533 22371 net.cpp:124] Setting up mnist
I0428 19:30:44.720563 22371 net.cpp:131] Top shape: 100 1 28 28 (78400)
I0428 19:30:44.720587 22371 net.cpp:131] Top shape: 100 (100)
I0428 19:30:44.720592 22371 net.cpp:139] Memory required for data: 314000
I0428 19:30:44.720612 22371 layer_factory.hpp:77] Creating layer label_mnist_1_split
I0428 19:30:44.720621 22371 net.cpp:86] Creating Layer label_mnist_1_split
I0428 19:30:44.720626 22371 net.cpp:408] label_mnist_1_split <- label
I0428 19:30:44.720634 22371 net.cpp:382] label_mnist_1_split -> label_mnist_1_split_0
I0428 19:30:44.720644 22371 net.cpp:382] label_mnist_1_split -> label_mnist_1_split_1
I0428 19:30:44.720736 22371 net.cpp:124] Setting up label_mnist_1_split
I0428 19:30:44.720744 22371 net.cpp:131] Top shape: 100 (100)
I0428 19:30:44.720751 22371 net.cpp:131] Top shape: 100 (100)
I0428 19:30:44.720755 22371 net.cpp:139] Memory required for data: 314800
I0428 19:30:44.720770 22371 layer_factory.hpp:77] Creating layer conv0
I0428 19:30:44.720783 22371 net.cpp:86] Creating Layer conv0
I0428 19:30:44.720789 22371 net.cpp:408] conv0 <- data
I0428 19:30:44.720798 22371 net.cpp:382] conv0 -> conv0
I0428 19:30:44.722406 22371 net.cpp:124] Setting up conv0
I0428 19:30:44.722421 22371 net.cpp:131] Top shape: 100 5 24 24 (288000)
I0428 19:30:44.722427 22371 net.cpp:139] Memory required for data: 1466800
I0428 19:30:44.722457 22371 layer_factory.hpp:77] Creating layer pool0
I0428 19:30:44.722466 22371 net.cpp:86] Creating Layer pool0
I0428 19:30:44.722472 22371 net.cpp:408] pool0 <- conv0
I0428 19:30:44.722481 22371 net.cpp:382] pool0 -> pool0
I0428 19:30:44.722522 22371 net.cpp:124] Setting up pool0
I0428 19:30:44.722530 22371 net.cpp:131] Top shape: 100 5 12 12 (72000)
I0428 19:30:44.722535 22371 net.cpp:139] Memory required for data: 1754800
I0428 19:30:44.722540 22371 layer_factory.hpp:77] Creating layer ip1
I0428 19:30:44.722550 22371 net.cpp:86] Creating Layer ip1
I0428 19:30:44.722556 22371 net.cpp:408] ip1 <- pool0
I0428 19:30:44.722579 22371 net.cpp:382] ip1 -> ip1
I0428 19:30:44.722808 22371 net.cpp:124] Setting up ip1
I0428 19:30:44.722817 22371 net.cpp:131] Top shape: 100 25 (2500)
I0428 19:30:44.722822 22371 net.cpp:139] Memory required for data: 1764800
I0428 19:30:44.722833 22371 layer_factory.hpp:77] Creating layer relu1
I0428 19:30:44.722841 22371 net.cpp:86] Creating Layer relu1
I0428 19:30:44.722847 22371 net.cpp:408] relu1 <- ip1
I0428 19:30:44.722854 22371 net.cpp:369] relu1 -> ip1 (in-place)
I0428 19:30:44.723109 22371 net.cpp:124] Setting up relu1
I0428 19:30:44.723129 22371 net.cpp:131] Top shape: 100 25 (2500)
I0428 19:30:44.723134 22371 net.cpp:139] Memory required for data: 1774800
I0428 19:30:44.723140 22371 layer_factory.hpp:77] Creating layer ip2
I0428 19:30:44.723148 22371 net.cpp:86] Creating Layer ip2
I0428 19:30:44.723153 22371 net.cpp:408] ip2 <- ip1
I0428 19:30:44.723161 22371 net.cpp:382] ip2 -> ip2
I0428 19:30:44.723284 22371 net.cpp:124] Setting up ip2
I0428 19:30:44.723292 22371 net.cpp:131] Top shape: 100 10 (1000)
I0428 19:30:44.723297 22371 net.cpp:139] Memory required for data: 1778800
I0428 19:30:44.723309 22371 layer_factory.hpp:77] Creating layer relu2
I0428 19:30:44.723315 22371 net.cpp:86] Creating Layer relu2
I0428 19:30:44.723321 22371 net.cpp:408] relu2 <- ip2
I0428 19:30:44.723327 22371 net.cpp:369] relu2 -> ip2 (in-place)
I0428 19:30:44.724192 22371 net.cpp:124] Setting up relu2
I0428 19:30:44.724206 22371 net.cpp:131] Top shape: 100 10 (1000)
I0428 19:30:44.724212 22371 net.cpp:139] Memory required for data: 1782800
I0428 19:30:44.724217 22371 layer_factory.hpp:77] Creating layer ip3
I0428 19:30:44.724230 22371 net.cpp:86] Creating Layer ip3
I0428 19:30:44.724236 22371 net.cpp:408] ip3 <- ip2
I0428 19:30:44.724244 22371 net.cpp:382] ip3 -> ip3
I0428 19:30:44.724346 22371 net.cpp:124] Setting up ip3
I0428 19:30:44.724356 22371 net.cpp:131] Top shape: 100 10 (1000)
I0428 19:30:44.724362 22371 net.cpp:139] Memory required for data: 1786800
I0428 19:30:44.724372 22371 layer_factory.hpp:77] Creating layer relu3
I0428 19:30:44.724380 22371 net.cpp:86] Creating Layer relu3
I0428 19:30:44.724385 22371 net.cpp:408] relu3 <- ip3
I0428 19:30:44.724392 22371 net.cpp:369] relu3 -> ip3 (in-place)
I0428 19:30:44.724561 22371 net.cpp:124] Setting up relu3
I0428 19:30:44.724573 22371 net.cpp:131] Top shape: 100 10 (1000)
I0428 19:30:44.724580 22371 net.cpp:139] Memory required for data: 1790800
I0428 19:30:44.724586 22371 layer_factory.hpp:77] Creating layer ip3_relu3_0_split
I0428 19:30:44.724593 22371 net.cpp:86] Creating Layer ip3_relu3_0_split
I0428 19:30:44.724598 22371 net.cpp:408] ip3_relu3_0_split <- ip3
I0428 19:30:44.724606 22371 net.cpp:382] ip3_relu3_0_split -> ip3_relu3_0_split_0
I0428 19:30:44.724617 22371 net.cpp:382] ip3_relu3_0_split -> ip3_relu3_0_split_1
I0428 19:30:44.724656 22371 net.cpp:124] Setting up ip3_relu3_0_split
I0428 19:30:44.724664 22371 net.cpp:131] Top shape: 100 10 (1000)
I0428 19:30:44.724671 22371 net.cpp:131] Top shape: 100 10 (1000)
I0428 19:30:44.724689 22371 net.cpp:139] Memory required for data: 1798800
I0428 19:30:44.724694 22371 layer_factory.hpp:77] Creating layer accuracy
I0428 19:30:44.724704 22371 net.cpp:86] Creating Layer accuracy
I0428 19:30:44.724709 22371 net.cpp:408] accuracy <- ip3_relu3_0_split_0
I0428 19:30:44.724716 22371 net.cpp:408] accuracy <- label_mnist_1_split_0
I0428 19:30:44.724723 22371 net.cpp:382] accuracy -> accuracy
…
