…
I0428 20:32:28.155053  4103 net.cpp:296] The NetState phase (0) differed from the phase (1) specified by a rule in layer mnist
I0428 20:32:28.155071  4103 net.cpp:296] The NetState phase (0) differed from the phase (1) specified by a rule in layer accuracy
I0428 20:32:28.155174  4103 net.cpp:53] Initializing net from parameters: 
name: "LeNet"
state {
  phase: TRAIN
  level: 0
  stage: ""
}
layer {
  name: "mnist"
  type: "Data"
  top: "data"
  top: "label"
  include {
    phase: TRAIN
  }
  transform_param {
    scale: 0.00390625
  }
  data_param {
    source: "examples/mnist/mnist_train_lmdb"
    batch_size: 64
    backend: LMDB
  }
}
layer {
  name: "conv0"
  type: "Convolution"
  bottom: "data"
  top: "conv0"
  param {
    lr_mult: 1
  }
  param {
    lr_mult: 2
  }
  convolution_param {
    num_output: 100
    kernel_size: 5
    stride: 1
    weight_filler {
      type: "xavier"
    }
    bias_filler {
      type: "constant"
    }
  }
}
layer {
  name: "pool0"
  type: "Pooling"
  bottom: "conv0"
  top: "pool0"
  pooling_param {
    pool: MAX
    kernel_size: 2
    stride: 2
  }
}
layer {
  name: "conv1"
  type: "Convolution"
  bottom: "pool0"
  top: "conv1"
  param {
    lr_mult: 1
  }
  param {
    lr_mult: 2
  }
  convolution_param {
    num_output: 25
    kernel_size: 5
    stride: 1
    weight_filler {
      type: "xavier"
    }
    bias_filler {
      type: "constant"
    }
  }
}
layer {
  name: "pool1"
  type: "Pooling"
  bottom: "conv1"
  top: "pool1"
  pooling_param {
    pool: MAX
    kernel_size: 2
    stride: 2
  }
}
layer {
  name: "ip1"
  type: "InnerProduct"
  bottom: "pool1"
  top: "ip1"
  param {
    lr_mult: 1
  }
  param {
    lr_mult: 2
  }
  inner_product_param {
    num_output: 10
    weight_filler {
      type: "xavier"
    }
    bias_filler {
      type: "constant"
    }
  }
}
layer {
  name: "relu1"
  type: "ReLU"
  bottom: "ip1"
  top: "ip1"
}
layer {
  name: "ip2"
  type: "InnerProduct"
  bottom: "ip1"
  top: "ip2"
  param {
    lr_mult: 1
  }
  param {
    lr_mult: 2
  }
  inner_product_param {
    num_output: 10
    weight_filler {
      type: "xavier"
    }
    bias_filler {
      type: "constant"
    }
  }
}
layer {
  name: "relu2"
  type: "ReLU"
  bottom: "ip2"
  top: "ip2"
}
layer {
  name: "ip3"
  type: "InnerProduct"
  bottom: "ip2"
  top: "ip3"
  param {
    lr_mult: 1
  }
  param {
    lr_mult: 2
  }
  inner_product_param {
    num_output: 10
    weight_filler {
      type: "xavier"
    }
    bias_filler {
      type: "constant"
    }
  }
}
layer {
  name: "relu3"
  type: "ReLU"
  bottom: "ip3"
  top: "ip3"
}
layer {
  name: "loss"
  type: "SoftmaxWithLoss"
  bottom: "ip3"
  bottom: "label"
  top: "loss"
}
I0428 20:32:28.155256  4103 layer_factory.hpp:77] Creating layer mnist
I0428 20:32:28.155357  4103 db_lmdb.cpp:35] Opened lmdb examples/mnist/mnist_train_lmdb
I0428 20:32:28.155382  4103 net.cpp:86] Creating Layer mnist
I0428 20:32:28.155391  4103 net.cpp:382] mnist -> data
I0428 20:32:28.155413  4103 net.cpp:382] mnist -> label
I0428 20:32:28.156509  4103 data_layer.cpp:45] output data size: 64,1,28,28
I0428 20:32:28.158978  4103 net.cpp:124] Setting up mnist
I0428 20:32:28.158996  4103 net.cpp:131] Top shape: 64 1 28 28 (50176)
I0428 20:32:28.159004  4103 net.cpp:131] Top shape: 64 (64)
I0428 20:32:28.159008  4103 net.cpp:139] Memory required for data: 200960
I0428 20:32:28.159014  4103 layer_factory.hpp:77] Creating layer conv0
I0428 20:32:28.159031  4103 net.cpp:86] Creating Layer conv0
I0428 20:32:28.159052  4103 net.cpp:408] conv0 <- data
I0428 20:32:28.159066  4103 net.cpp:382] conv0 -> conv0
I0428 20:32:28.452729  4103 net.cpp:124] Setting up conv0
I0428 20:32:28.452761  4103 net.cpp:131] Top shape: 64 100 24 24 (3686400)
I0428 20:32:28.452766  4103 net.cpp:139] Memory required for data: 14946560
I0428 20:32:28.452785  4103 layer_factory.hpp:77] Creating layer pool0
I0428 20:32:28.452801  4103 net.cpp:86] Creating Layer pool0
I0428 20:32:28.452805  4103 net.cpp:408] pool0 <- conv0
I0428 20:32:28.452819  4103 net.cpp:382] pool0 -> pool0
I0428 20:32:28.452878  4103 net.cpp:124] Setting up pool0
I0428 20:32:28.452888  4103 net.cpp:131] Top shape: 64 100 12 12 (921600)
I0428 20:32:28.452890  4103 net.cpp:139] Memory required for data: 18632960
I0428 20:32:28.452894  4103 layer_factory.hpp:77] Creating layer conv1
I0428 20:32:28.452908  4103 net.cpp:86] Creating Layer conv1
I0428 20:32:28.452913  4103 net.cpp:408] conv1 <- pool0
I0428 20:32:28.452919  4103 net.cpp:382] conv1 -> conv1
I0428 20:32:28.455478  4103 net.cpp:124] Setting up conv1
I0428 20:32:28.455497  4103 net.cpp:131] Top shape: 64 25 8 8 (102400)
I0428 20:32:28.455502  4103 net.cpp:139] Memory required for data: 19042560
I0428 20:32:28.455512  4103 layer_factory.hpp:77] Creating layer pool1
I0428 20:32:28.455520  4103 net.cpp:86] Creating Layer pool1
I0428 20:32:28.455525  4103 net.cpp:408] pool1 <- conv1
I0428 20:32:28.455531  4103 net.cpp:382] pool1 -> pool1
I0428 20:32:28.455575  4103 net.cpp:124] Setting up pool1
I0428 20:32:28.455582  4103 net.cpp:131] Top shape: 64 25 4 4 (25600)
I0428 20:32:28.455586  4103 net.cpp:139] Memory required for data: 19144960
I0428 20:32:28.455590  4103 layer_factory.hpp:77] Creating layer ip1
I0428 20:32:28.455597  4103 net.cpp:86] Creating Layer ip1
I0428 20:32:28.455601  4103 net.cpp:408] ip1 <- pool1
I0428 20:32:28.455607  4103 net.cpp:382] ip1 -> ip1
I0428 20:32:28.455749  4103 net.cpp:124] Setting up ip1
I0428 20:32:28.455757  4103 net.cpp:131] Top shape: 64 10 (640)
I0428 20:32:28.455760  4103 net.cpp:139] Memory required for data: 19147520
I0428 20:32:28.455770  4103 layer_factory.hpp:77] Creating layer relu1
I0428 20:32:28.455776  4103 net.cpp:86] Creating Layer relu1
I0428 20:32:28.455780  4103 net.cpp:408] relu1 <- ip1
I0428 20:32:28.455785  4103 net.cpp:369] relu1 -> ip1 (in-place)
I0428 20:32:28.455978  4103 net.cpp:124] Setting up relu1
I0428 20:32:28.455989  4103 net.cpp:131] Top shape: 64 10 (640)
I0428 20:32:28.455993  4103 net.cpp:139] Memory required for data: 19150080
I0428 20:32:28.455997  4103 layer_factory.hpp:77] Creating layer ip2
I0428 20:32:28.456006  4103 net.cpp:86] Creating Layer ip2
I0428 20:32:28.456008  4103 net.cpp:408] ip2 <- ip1
I0428 20:32:28.456014  4103 net.cpp:382] ip2 -> ip2
I0428 20:32:28.456120  4103 net.cpp:124] Setting up ip2
I0428 20:32:28.456130  4103 net.cpp:131] Top shape: 64 10 (640)
I0428 20:32:28.456133  4103 net.cpp:139] Memory required for data: 19152640
I0428 20:32:28.456140  4103 layer_factory.hpp:77] Creating layer relu2
I0428 20:32:28.456146  4103 net.cpp:86] Creating Layer relu2
I0428 20:32:28.456151  4103 net.cpp:408] relu2 <- ip2
I0428 20:32:28.456156  4103 net.cpp:369] relu2 -> ip2 (in-place)
I0428 20:32:28.457005  4103 net.cpp:124] Setting up relu2
I0428 20:32:28.457020  4103 net.cpp:131] Top shape: 64 10 (640)
I0428 20:32:28.457025  4103 net.cpp:139] Memory required for data: 19155200
I0428 20:32:28.457029  4103 layer_factory.hpp:77] Creating layer ip3
I0428 20:32:28.457037  4103 net.cpp:86] Creating Layer ip3
I0428 20:32:28.457041  4103 net.cpp:408] ip3 <- ip2
I0428 20:32:28.457047  4103 net.cpp:382] ip3 -> ip3
I0428 20:32:28.457161  4103 net.cpp:124] Setting up ip3
I0428 20:32:28.457171  4103 net.cpp:131] Top shape: 64 10 (640)
I0428 20:32:28.457175  4103 net.cpp:139] Memory required for data: 19157760
I0428 20:32:28.457185  4103 layer_factory.hpp:77] Creating layer relu3
I0428 20:32:28.457191  4103 net.cpp:86] Creating Layer relu3
I0428 20:32:28.457195  4103 net.cpp:408] relu3 <- ip3
I0428 20:32:28.457201  4103 net.cpp:369] relu3 -> ip3 (in-place)
I0428 20:32:28.457398  4103 net.cpp:124] Setting up relu3
I0428 20:32:28.457408  4103 net.cpp:131] Top shape: 64 10 (640)
I0428 20:32:28.457412  4103 net.cpp:139] Memory required for data: 19160320
I0428 20:32:28.457417  4103 layer_factory.hpp:77] Creating layer loss
I0428 20:32:28.457423  4103 net.cpp:86] Creating Layer loss
I0428 20:32:28.457427  4103 net.cpp:408] loss <- ip3
I0428 20:32:28.457432  4103 net.cpp:408] loss <- label
I0428 20:32:28.457437  4103 net.cpp:382] loss -> loss
I0428 20:32:28.457458  4103 layer_factory.hpp:77] Creating layer loss
…
I0428 20:32:28.458194  4103 solver.cpp:173] Creating test net (#0) specified by net file: ECE595/mnist/train_test/var_everything2/lenet_train_test1572.prototxt
I0428 20:32:28.458225  4103 net.cpp:296] The NetState phase (1) differed from the phase (0) specified by a rule in layer mnist
I0428 20:32:28.458333  4103 net.cpp:53] Initializing net from parameters: 
name: "LeNet"
state {
  phase: TEST
}
layer {
  name: "mnist"
  type: "Data"
  top: "data"
  top: "label"
  include {
    phase: TEST
  }
  transform_param {
    scale: 0.00390625
  }
  data_param {
    source: "examples/mnist/mnist_test_lmdb"
    batch_size: 100
    backend: LMDB
  }
}
layer {
  name: "conv0"
  type: "Convolution"
  bottom: "data"
  top: "conv0"
  param {
    lr_mult: 1
  }
  param {
    lr_mult: 2
  }
  convolution_param {
    num_output: 100
    kernel_size: 5
    stride: 1
    weight_filler {
      type: "xavier"
    }
    bias_filler {
      type: "constant"
    }
  }
}
layer {
  name: "pool0"
  type: "Pooling"
  bottom: "conv0"
  top: "pool0"
  pooling_param {
    pool: MAX
    kernel_size: 2
    stride: 2
  }
}
layer {
  name: "conv1"
  type: "Convolution"
  bottom: "pool0"
  top: "conv1"
  param {
    lr_mult: 1
  }
  param {
    lr_mult: 2
  }
  convolution_param {
    num_output: 25
    kernel_size: 5
    stride: 1
    weight_filler {
      type: "xavier"
    }
    bias_filler {
      type: "constant"
    }
  }
}
layer {
  name: "pool1"
  type: "Pooling"
  bottom: "conv1"
  top: "pool1"
  pooling_param {
    pool: MAX
    kernel_size: 2
    stride: 2
  }
}
layer {
  name: "ip1"
  type: "InnerProduct"
  bottom: "pool1"
  top: "ip1"
  param {
    lr_mult: 1
  }
  param {
    lr_mult: 2
  }
  inner_product_param {
    num_output: 10
    weight_filler {
      type: "xavier"
    }
    bias_filler {
      type: "constant"
    }
  }
}
layer {
  name: "relu1"
  type: "ReLU"
  bottom: "ip1"
  top: "ip1"
}
layer {
  name: "ip2"
  type: "InnerProduct"
  bottom: "ip1"
  top: "ip2"
  param {
    lr_mult: 1
  }
  param {
    lr_mult: 2
  }
  inner_product_param {
    num_output: 10
    weight_filler {
      type: "xavier"
    }
    bias_filler {
      type: "constant"
    }
  }
}
layer {
  name: "relu2"
  type: "ReLU"
  bottom: "ip2"
  top: "ip2"
}
layer {
  name: "ip3"
  type: "InnerProduct"
  bottom: "ip2"
  top: "ip3"
  param {
    lr_mult: 1
  }
  param {
    lr_mult: 2
  }
  inner_product_param {
    num_output: 10
    weight_filler {
      type: "xavier"
    }
    bias_filler {
      type: "constant"
    }
  }
}
layer {
  name: "relu3"
  type: "ReLU"
  bottom: "ip3"
  top: "ip3"
}
layer {
  name: "accuracy"
  type: "Accuracy"
  bottom: "ip3"
  bottom: "label"
  top: "accuracy"
  include {
    phase: TEST
  }
}
layer {
  name: "loss"
  type: "SoftmaxWithLoss"
  bottom: "ip3"
  bottom: "label"
  top: "loss"
}
I0428 20:32:28.458425  4103 layer_factory.hpp:77] Creating layer mnist
I0428 20:32:28.458477  4103 db_lmdb.cpp:35] Opened lmdb examples/mnist/mnist_test_lmdb
I0428 20:32:28.458490  4103 net.cpp:86] Creating Layer mnist
I0428 20:32:28.458497  4103 net.cpp:382] mnist -> data
I0428 20:32:28.458505  4103 net.cpp:382] mnist -> label
I0428 20:32:28.458606  4103 data_layer.cpp:45] output data size: 100,1,28,28
I0428 20:32:28.461019  4103 net.cpp:124] Setting up mnist
I0428 20:32:28.461035  4103 net.cpp:131] Top shape: 100 1 28 28 (78400)
I0428 20:32:28.461041  4103 net.cpp:131] Top shape: 100 (100)
I0428 20:32:28.461045  4103 net.cpp:139] Memory required for data: 314000
I0428 20:32:28.461050  4103 layer_factory.hpp:77] Creating layer label_mnist_1_split
I0428 20:32:28.461057  4103 net.cpp:86] Creating Layer label_mnist_1_split
I0428 20:32:28.461063  4103 net.cpp:408] label_mnist_1_split <- label
I0428 20:32:28.461069  4103 net.cpp:382] label_mnist_1_split -> label_mnist_1_split_0
I0428 20:32:28.461077  4103 net.cpp:382] label_mnist_1_split -> label_mnist_1_split_1
I0428 20:32:28.461172  4103 net.cpp:124] Setting up label_mnist_1_split
I0428 20:32:28.461182  4103 net.cpp:131] Top shape: 100 (100)
I0428 20:32:28.461186  4103 net.cpp:131] Top shape: 100 (100)
I0428 20:32:28.461190  4103 net.cpp:139] Memory required for data: 314800
I0428 20:32:28.461194  4103 layer_factory.hpp:77] Creating layer conv0
I0428 20:32:28.461203  4103 net.cpp:86] Creating Layer conv0
I0428 20:32:28.461207  4103 net.cpp:408] conv0 <- data
I0428 20:32:28.461213  4103 net.cpp:382] conv0 -> conv0
I0428 20:32:28.462996  4103 net.cpp:124] Setting up conv0
I0428 20:32:28.463013  4103 net.cpp:131] Top shape: 100 100 24 24 (5760000)
I0428 20:32:28.463018  4103 net.cpp:139] Memory required for data: 23354800
I0428 20:32:28.463029  4103 layer_factory.hpp:77] Creating layer pool0
I0428 20:32:28.463037  4103 net.cpp:86] Creating Layer pool0
I0428 20:32:28.463042  4103 net.cpp:408] pool0 <- conv0
I0428 20:32:28.463047  4103 net.cpp:382] pool0 -> pool0
I0428 20:32:28.463088  4103 net.cpp:124] Setting up pool0
I0428 20:32:28.463098  4103 net.cpp:131] Top shape: 100 100 12 12 (1440000)
I0428 20:32:28.463101  4103 net.cpp:139] Memory required for data: 29114800
I0428 20:32:28.463104  4103 layer_factory.hpp:77] Creating layer conv1
I0428 20:32:28.463114  4103 net.cpp:86] Creating Layer conv1
I0428 20:32:28.463119  4103 net.cpp:408] conv1 <- pool0
I0428 20:32:28.463124  4103 net.cpp:382] conv1 -> conv1
I0428 20:32:28.465224  4103 net.cpp:124] Setting up conv1
I0428 20:32:28.465243  4103 net.cpp:131] Top shape: 100 25 8 8 (160000)
I0428 20:32:28.465247  4103 net.cpp:139] Memory required for data: 29754800
I0428 20:32:28.465260  4103 layer_factory.hpp:77] Creating layer pool1
I0428 20:32:28.465267  4103 net.cpp:86] Creating Layer pool1
I0428 20:32:28.465273  4103 net.cpp:408] pool1 <- conv1
I0428 20:32:28.465279  4103 net.cpp:382] pool1 -> pool1
I0428 20:32:28.465322  4103 net.cpp:124] Setting up pool1
I0428 20:32:28.465328  4103 net.cpp:131] Top shape: 100 25 4 4 (40000)
I0428 20:32:28.465332  4103 net.cpp:139] Memory required for data: 29914800
I0428 20:32:28.465337  4103 layer_factory.hpp:77] Creating layer ip1
I0428 20:32:28.465343  4103 net.cpp:86] Creating Layer ip1
I0428 20:32:28.465347  4103 net.cpp:408] ip1 <- pool1
I0428 20:32:28.465353  4103 net.cpp:382] ip1 -> ip1
I0428 20:32:28.465492  4103 net.cpp:124] Setting up ip1
I0428 20:32:28.465515  4103 net.cpp:131] Top shape: 100 10 (1000)
I0428 20:32:28.465519  4103 net.cpp:139] Memory required for data: 29918800
I0428 20:32:28.465528  4103 layer_factory.hpp:77] Creating layer relu1
I0428 20:32:28.465534  4103 net.cpp:86] Creating Layer relu1
I0428 20:32:28.465539  4103 net.cpp:408] relu1 <- ip1
I0428 20:32:28.465544  4103 net.cpp:369] relu1 -> ip1 (in-place)
I0428 20:32:28.465731  4103 net.cpp:124] Setting up relu1
I0428 20:32:28.465741  4103 net.cpp:131] Top shape: 100 10 (1000)
I0428 20:32:28.465745  4103 net.cpp:139] Memory required for data: 29922800
I0428 20:32:28.465749  4103 layer_factory.hpp:77] Creating layer ip2
I0428 20:32:28.465759  4103 net.cpp:86] Creating Layer ip2
I0428 20:32:28.465764  4103 net.cpp:408] ip2 <- ip1
I0428 20:32:28.465775  4103 net.cpp:382] ip2 -> ip2
I0428 20:32:28.465894  4103 net.cpp:124] Setting up ip2
I0428 20:32:28.465903  4103 net.cpp:131] Top shape: 100 10 (1000)
I0428 20:32:28.465906  4103 net.cpp:139] Memory required for data: 29926800
I0428 20:32:28.465914  4103 layer_factory.hpp:77] Creating layer relu2
I0428 20:32:28.465919  4103 net.cpp:86] Creating Layer relu2
I0428 20:32:28.465922  4103 net.cpp:408] relu2 <- ip2
I0428 20:32:28.465926  4103 net.cpp:369] relu2 -> ip2 (in-place)
I0428 20:32:28.466162  4103 net.cpp:124] Setting up relu2
I0428 20:32:28.466173  4103 net.cpp:131] Top shape: 100 10 (1000)
I0428 20:32:28.466177  4103 net.cpp:139] Memory required for data: 29930800
I0428 20:32:28.466181  4103 layer_factory.hpp:77] Creating layer ip3
I0428 20:32:28.466189  4103 net.cpp:86] Creating Layer ip3
I0428 20:32:28.466192  4103 net.cpp:408] ip3 <- ip2
I0428 20:32:28.466198  4103 net.cpp:382] ip3 -> ip3
I0428 20:32:28.466323  4103 net.cpp:124] Setting up ip3
I0428 20:32:28.466333  4103 net.cpp:131] Top shape: 100 10 (1000)
I0428 20:32:28.466336  4103 net.cpp:139] Memory required for data: 29934800
I0428 20:32:28.466346  4103 layer_factory.hpp:77] Creating layer relu3
I0428 20:32:28.466351  4103 net.cpp:86] Creating Layer relu3
I0428 20:32:28.466354  4103 net.cpp:408] relu3 <- ip3
I0428 20:32:28.466362  4103 net.cpp:369] relu3 -> ip3 (in-place)
I0428 20:32:28.467330  4103 net.cpp:124] Setting up relu3
I0428 20:32:28.467345  4103 net.cpp:131] Top shape: 100 10 (1000)
I0428 20:32:28.467350  4103 net.cpp:139] Memory required for data: 29938800
I0428 20:32:28.467353  4103 layer_factory.hpp:77] Creating layer ip3_relu3_0_split
I0428 20:32:28.467362  4103 net.cpp:86] Creating Layer ip3_relu3_0_split
I0428 20:32:28.467366  4103 net.cpp:408] ip3_relu3_0_split <- ip3
I0428 20:32:28.467373  4103 net.cpp:382] ip3_relu3_0_split -> ip3_relu3_0_split_0
I0428 20:32:28.467381  4103 net.cpp:382] ip3_relu3_0_split -> ip3_relu3_0_split_1
I0428 20:32:28.467428  4103 net.cpp:124] Setting up ip3_relu3_0_split
I0428 20:32:28.467435  4103 net.cpp:131] Top shape: 100 10 (1000)
I0428 20:32:28.467440  4103 net.cpp:131] Top shape: 100 10 (1000)
I0428 20:32:28.467444  4103 net.cpp:139] Memory required for data: 29946800
I0428 20:32:28.467448  4103 layer_factory.hpp:77] Creating layer accuracy
I0428 20:32:28.467454  4103 net.cpp:86] Creating Layer accuracy
I0428 20:32:28.467458  4103 net.cpp:408] accuracy <- ip3_relu3_0_split_0
I0428 20:32:28.467463  4103 net.cpp:408] accuracy <- label_mnist_1_split_0
I0428 20:32:28.467469  4103 net.cpp:382] accuracy -> accuracy
…
