…
I0428 20:14:27.525550 32680 net.cpp:296] The NetState phase (0) differed from the phase (1) specified by a rule in layer mnist
I0428 20:14:27.525570 32680 net.cpp:296] The NetState phase (0) differed from the phase (1) specified by a rule in layer accuracy
I0428 20:14:27.525672 32680 net.cpp:53] Initializing net from parameters: 
name: "LeNet"
state {
  phase: TRAIN
  level: 0
  stage: ""
}
layer {
  name: "mnist"
  type: "Data"
  top: "data"
  top: "label"
  include {
    phase: TRAIN
  }
  transform_param {
    scale: 0.00390625
  }
  data_param {
    source: "examples/mnist/mnist_train_lmdb"
    batch_size: 64
    backend: LMDB
  }
}
layer {
  name: "conv0"
  type: "Convolution"
  bottom: "data"
  top: "conv0"
  param {
    lr_mult: 1
  }
  param {
    lr_mult: 2
  }
  convolution_param {
    num_output: 50
    kernel_size: 5
    stride: 1
    weight_filler {
      type: "xavier"
    }
    bias_filler {
      type: "constant"
    }
  }
}
layer {
  name: "pool0"
  type: "Pooling"
  bottom: "conv0"
  top: "pool0"
  pooling_param {
    pool: MAX
    kernel_size: 2
    stride: 2
  }
}
layer {
  name: "conv1"
  type: "Convolution"
  bottom: "pool0"
  top: "conv1"
  param {
    lr_mult: 1
  }
  param {
    lr_mult: 2
  }
  convolution_param {
    num_output: 2
    kernel_size: 5
    stride: 1
    weight_filler {
      type: "xavier"
    }
    bias_filler {
      type: "constant"
    }
  }
}
layer {
  name: "pool1"
  type: "Pooling"
  bottom: "conv1"
  top: "pool1"
  pooling_param {
    pool: MAX
    kernel_size: 2
    stride: 2
  }
}
layer {
  name: "ip1"
  type: "InnerProduct"
  bottom: "pool1"
  top: "ip1"
  param {
    lr_mult: 1
  }
  param {
    lr_mult: 2
  }
  inner_product_param {
    num_output: 10
    weight_filler {
      type: "xavier"
    }
    bias_filler {
      type: "constant"
    }
  }
}
layer {
  name: "relu1"
  type: "ReLU"
  bottom: "ip1"
  top: "ip1"
}
layer {
  name: "ip2"
  type: "InnerProduct"
  bottom: "ip1"
  top: "ip2"
  param {
    lr_mult: 1
  }
  param {
    lr_mult: 2
  }
  inner_product_param {
    num_output: 10
    weight_filler {
      type: "xavier"
    }
    bias_filler {
      type: "constant"
    }
  }
}
layer {
  name: "relu2"
  type: "ReLU"
  bottom: "ip2"
  top: "ip2"
}
layer {
  name: "ip3"
  type: "InnerProduct"
  bottom: "ip2"
  top: "ip3"
  param {
    lr_mult: 1
  }
  param {
    lr_mult: 2
  }
  inner_product_param {
    num_output: 10
    weight_filler {
      type: "xavier"
    }
    bias_filler {
      type: "constant"
    }
  }
}
layer {
  name: "relu3"
  type: "ReLU"
  bottom: "ip3"
  top: "ip3"
}
layer {
  name: "loss"
  type: "SoftmaxWithLoss"
  bottom: "ip3"
  bottom: "label"
  top: "loss"
}
I0428 20:14:27.525753 32680 layer_factory.hpp:77] Creating layer mnist
I0428 20:14:27.525856 32680 db_lmdb.cpp:35] Opened lmdb examples/mnist/mnist_train_lmdb
I0428 20:14:27.525880 32680 net.cpp:86] Creating Layer mnist
I0428 20:14:27.525892 32680 net.cpp:382] mnist -> data
I0428 20:14:27.525914 32680 net.cpp:382] mnist -> label
I0428 20:14:27.527020 32680 data_layer.cpp:45] output data size: 64,1,28,28
I0428 20:14:27.529469 32680 net.cpp:124] Setting up mnist
I0428 20:14:27.529486 32680 net.cpp:131] Top shape: 64 1 28 28 (50176)
I0428 20:14:27.529492 32680 net.cpp:131] Top shape: 64 (64)
I0428 20:14:27.529495 32680 net.cpp:139] Memory required for data: 200960
I0428 20:14:27.529502 32680 layer_factory.hpp:77] Creating layer conv0
I0428 20:14:27.529520 32680 net.cpp:86] Creating Layer conv0
I0428 20:14:27.529541 32680 net.cpp:408] conv0 <- data
I0428 20:14:27.529556 32680 net.cpp:382] conv0 -> conv0
I0428 20:14:27.786713 32680 net.cpp:124] Setting up conv0
I0428 20:14:27.786738 32680 net.cpp:131] Top shape: 64 50 24 24 (1843200)
I0428 20:14:27.786742 32680 net.cpp:139] Memory required for data: 7573760
I0428 20:14:27.786757 32680 layer_factory.hpp:77] Creating layer pool0
I0428 20:14:27.786769 32680 net.cpp:86] Creating Layer pool0
I0428 20:14:27.786772 32680 net.cpp:408] pool0 <- conv0
I0428 20:14:27.786777 32680 net.cpp:382] pool0 -> pool0
I0428 20:14:27.786840 32680 net.cpp:124] Setting up pool0
I0428 20:14:27.786847 32680 net.cpp:131] Top shape: 64 50 12 12 (460800)
I0428 20:14:27.786850 32680 net.cpp:139] Memory required for data: 9416960
I0428 20:14:27.786854 32680 layer_factory.hpp:77] Creating layer conv1
I0428 20:14:27.786864 32680 net.cpp:86] Creating Layer conv1
I0428 20:14:27.786870 32680 net.cpp:408] conv1 <- pool0
I0428 20:14:27.786891 32680 net.cpp:382] conv1 -> conv1
I0428 20:14:27.788871 32680 net.cpp:124] Setting up conv1
I0428 20:14:27.788885 32680 net.cpp:131] Top shape: 64 2 8 8 (8192)
I0428 20:14:27.788889 32680 net.cpp:139] Memory required for data: 9449728
I0428 20:14:27.788898 32680 layer_factory.hpp:77] Creating layer pool1
I0428 20:14:27.788907 32680 net.cpp:86] Creating Layer pool1
I0428 20:14:27.788909 32680 net.cpp:408] pool1 <- conv1
I0428 20:14:27.788916 32680 net.cpp:382] pool1 -> pool1
I0428 20:14:27.788954 32680 net.cpp:124] Setting up pool1
I0428 20:14:27.788962 32680 net.cpp:131] Top shape: 64 2 4 4 (2048)
I0428 20:14:27.788966 32680 net.cpp:139] Memory required for data: 9457920
I0428 20:14:27.788969 32680 layer_factory.hpp:77] Creating layer ip1
I0428 20:14:27.788977 32680 net.cpp:86] Creating Layer ip1
I0428 20:14:27.788980 32680 net.cpp:408] ip1 <- pool1
I0428 20:14:27.788986 32680 net.cpp:382] ip1 -> ip1
I0428 20:14:27.789093 32680 net.cpp:124] Setting up ip1
I0428 20:14:27.789100 32680 net.cpp:131] Top shape: 64 10 (640)
I0428 20:14:27.789104 32680 net.cpp:139] Memory required for data: 9460480
I0428 20:14:27.789127 32680 layer_factory.hpp:77] Creating layer relu1
I0428 20:14:27.789146 32680 net.cpp:86] Creating Layer relu1
I0428 20:14:27.789151 32680 net.cpp:408] relu1 <- ip1
I0428 20:14:27.789157 32680 net.cpp:369] relu1 -> ip1 (in-place)
I0428 20:14:27.789335 32680 net.cpp:124] Setting up relu1
I0428 20:14:27.789345 32680 net.cpp:131] Top shape: 64 10 (640)
I0428 20:14:27.789347 32680 net.cpp:139] Memory required for data: 9463040
I0428 20:14:27.789350 32680 layer_factory.hpp:77] Creating layer ip2
I0428 20:14:27.789357 32680 net.cpp:86] Creating Layer ip2
I0428 20:14:27.789361 32680 net.cpp:408] ip2 <- ip1
I0428 20:14:27.789366 32680 net.cpp:382] ip2 -> ip2
I0428 20:14:27.789504 32680 net.cpp:124] Setting up ip2
I0428 20:14:27.789510 32680 net.cpp:131] Top shape: 64 10 (640)
I0428 20:14:27.789513 32680 net.cpp:139] Memory required for data: 9465600
I0428 20:14:27.789518 32680 layer_factory.hpp:77] Creating layer relu2
I0428 20:14:27.789525 32680 net.cpp:86] Creating Layer relu2
I0428 20:14:27.789528 32680 net.cpp:408] relu2 <- ip2
I0428 20:14:27.789533 32680 net.cpp:369] relu2 -> ip2 (in-place)
I0428 20:14:27.790323 32680 net.cpp:124] Setting up relu2
I0428 20:14:27.790336 32680 net.cpp:131] Top shape: 64 10 (640)
I0428 20:14:27.790339 32680 net.cpp:139] Memory required for data: 9468160
I0428 20:14:27.790343 32680 layer_factory.hpp:77] Creating layer ip3
I0428 20:14:27.790351 32680 net.cpp:86] Creating Layer ip3
I0428 20:14:27.790357 32680 net.cpp:408] ip3 <- ip2
I0428 20:14:27.790364 32680 net.cpp:382] ip3 -> ip3
I0428 20:14:27.790465 32680 net.cpp:124] Setting up ip3
I0428 20:14:27.790473 32680 net.cpp:131] Top shape: 64 10 (640)
I0428 20:14:27.790477 32680 net.cpp:139] Memory required for data: 9470720
I0428 20:14:27.790484 32680 layer_factory.hpp:77] Creating layer relu3
I0428 20:14:27.790493 32680 net.cpp:86] Creating Layer relu3
I0428 20:14:27.790496 32680 net.cpp:408] relu3 <- ip3
I0428 20:14:27.790500 32680 net.cpp:369] relu3 -> ip3 (in-place)
I0428 20:14:27.790691 32680 net.cpp:124] Setting up relu3
I0428 20:14:27.790700 32680 net.cpp:131] Top shape: 64 10 (640)
I0428 20:14:27.790704 32680 net.cpp:139] Memory required for data: 9473280
I0428 20:14:27.790706 32680 layer_factory.hpp:77] Creating layer loss
I0428 20:14:27.790714 32680 net.cpp:86] Creating Layer loss
I0428 20:14:27.790716 32680 net.cpp:408] loss <- ip3
I0428 20:14:27.790720 32680 net.cpp:408] loss <- label
I0428 20:14:27.790725 32680 net.cpp:382] loss -> loss
I0428 20:14:27.790740 32680 layer_factory.hpp:77] Creating layer loss
…
I0428 20:14:27.791446 32680 solver.cpp:173] Creating test net (#0) specified by net file: ECE595/mnist/train_test/var_everything2/lenet_train_test1222.prototxt
I0428 20:14:27.791474 32680 net.cpp:296] The NetState phase (1) differed from the phase (0) specified by a rule in layer mnist
I0428 20:14:27.791585 32680 net.cpp:53] Initializing net from parameters: 
name: "LeNet"
state {
  phase: TEST
}
layer {
  name: "mnist"
  type: "Data"
  top: "data"
  top: "label"
  include {
    phase: TEST
  }
  transform_param {
    scale: 0.00390625
  }
  data_param {
    source: "examples/mnist/mnist_test_lmdb"
    batch_size: 100
    backend: LMDB
  }
}
layer {
  name: "conv0"
  type: "Convolution"
  bottom: "data"
  top: "conv0"
  param {
    lr_mult: 1
  }
  param {
    lr_mult: 2
  }
  convolution_param {
    num_output: 50
    kernel_size: 5
    stride: 1
    weight_filler {
      type: "xavier"
    }
    bias_filler {
      type: "constant"
    }
  }
}
layer {
  name: "pool0"
  type: "Pooling"
  bottom: "conv0"
  top: "pool0"
  pooling_param {
    pool: MAX
    kernel_size: 2
    stride: 2
  }
}
layer {
  name: "conv1"
  type: "Convolution"
  bottom: "pool0"
  top: "conv1"
  param {
    lr_mult: 1
  }
  param {
    lr_mult: 2
  }
  convolution_param {
    num_output: 2
    kernel_size: 5
    stride: 1
    weight_filler {
      type: "xavier"
    }
    bias_filler {
      type: "constant"
    }
  }
}
layer {
  name: "pool1"
  type: "Pooling"
  bottom: "conv1"
  top: "pool1"
  pooling_param {
    pool: MAX
    kernel_size: 2
    stride: 2
  }
}
layer {
  name: "ip1"
  type: "InnerProduct"
  bottom: "pool1"
  top: "ip1"
  param {
    lr_mult: 1
  }
  param {
    lr_mult: 2
  }
  inner_product_param {
    num_output: 10
    weight_filler {
      type: "xavier"
    }
    bias_filler {
      type: "constant"
    }
  }
}
layer {
  name: "relu1"
  type: "ReLU"
  bottom: "ip1"
  top: "ip1"
}
layer {
  name: "ip2"
  type: "InnerProduct"
  bottom: "ip1"
  top: "ip2"
  param {
    lr_mult: 1
  }
  param {
    lr_mult: 2
  }
  inner_product_param {
    num_output: 10
    weight_filler {
      type: "xavier"
    }
    bias_filler {
      type: "constant"
    }
  }
}
layer {
  name: "relu2"
  type: "ReLU"
  bottom: "ip2"
  top: "ip2"
}
layer {
  name: "ip3"
  type: "InnerProduct"
  bottom: "ip2"
  top: "ip3"
  param {
    lr_mult: 1
  }
  param {
    lr_mult: 2
  }
  inner_product_param {
    num_output: 10
    weight_filler {
      type: "xavier"
    }
    bias_filler {
      type: "constant"
    }
  }
}
layer {
  name: "relu3"
  type: "ReLU"
  bottom: "ip3"
  top: "ip3"
}
layer {
  name: "accuracy"
  type: "Accuracy"
  bottom: "ip3"
  bottom: "label"
  top: "accuracy"
  include {
    phase: TEST
  }
}
layer {
  name: "loss"
  type: "SoftmaxWithLoss"
  bottom: "ip3"
  bottom: "label"
  top: "loss"
}
I0428 20:14:27.791695 32680 layer_factory.hpp:77] Creating layer mnist
I0428 20:14:27.791735 32680 db_lmdb.cpp:35] Opened lmdb examples/mnist/mnist_test_lmdb
I0428 20:14:27.791749 32680 net.cpp:86] Creating Layer mnist
I0428 20:14:27.791756 32680 net.cpp:382] mnist -> data
I0428 20:14:27.791764 32680 net.cpp:382] mnist -> label
I0428 20:14:27.791872 32680 data_layer.cpp:45] output data size: 100,1,28,28
I0428 20:14:27.793953 32680 net.cpp:124] Setting up mnist
I0428 20:14:27.793982 32680 net.cpp:131] Top shape: 100 1 28 28 (78400)
I0428 20:14:27.793987 32680 net.cpp:131] Top shape: 100 (100)
I0428 20:14:27.793988 32680 net.cpp:139] Memory required for data: 314000
I0428 20:14:27.793992 32680 layer_factory.hpp:77] Creating layer label_mnist_1_split
I0428 20:14:27.793998 32680 net.cpp:86] Creating Layer label_mnist_1_split
I0428 20:14:27.794001 32680 net.cpp:408] label_mnist_1_split <- label
I0428 20:14:27.794008 32680 net.cpp:382] label_mnist_1_split -> label_mnist_1_split_0
I0428 20:14:27.794013 32680 net.cpp:382] label_mnist_1_split -> label_mnist_1_split_1
I0428 20:14:27.794108 32680 net.cpp:124] Setting up label_mnist_1_split
I0428 20:14:27.794116 32680 net.cpp:131] Top shape: 100 (100)
I0428 20:14:27.794121 32680 net.cpp:131] Top shape: 100 (100)
I0428 20:14:27.794122 32680 net.cpp:139] Memory required for data: 314800
I0428 20:14:27.794126 32680 layer_factory.hpp:77] Creating layer conv0
I0428 20:14:27.794136 32680 net.cpp:86] Creating Layer conv0
I0428 20:14:27.794140 32680 net.cpp:408] conv0 <- data
I0428 20:14:27.794145 32680 net.cpp:382] conv0 -> conv0
I0428 20:14:27.795855 32680 net.cpp:124] Setting up conv0
I0428 20:14:27.795867 32680 net.cpp:131] Top shape: 100 50 24 24 (2880000)
I0428 20:14:27.795886 32680 net.cpp:139] Memory required for data: 11834800
I0428 20:14:27.795895 32680 layer_factory.hpp:77] Creating layer pool0
I0428 20:14:27.795904 32680 net.cpp:86] Creating Layer pool0
I0428 20:14:27.795908 32680 net.cpp:408] pool0 <- conv0
I0428 20:14:27.795912 32680 net.cpp:382] pool0 -> pool0
I0428 20:14:27.795950 32680 net.cpp:124] Setting up pool0
I0428 20:14:27.795956 32680 net.cpp:131] Top shape: 100 50 12 12 (720000)
I0428 20:14:27.795959 32680 net.cpp:139] Memory required for data: 14714800
I0428 20:14:27.795963 32680 layer_factory.hpp:77] Creating layer conv1
I0428 20:14:27.795972 32680 net.cpp:86] Creating Layer conv1
I0428 20:14:27.795975 32680 net.cpp:408] conv1 <- pool0
I0428 20:14:27.795981 32680 net.cpp:382] conv1 -> conv1
I0428 20:14:27.797478 32680 net.cpp:124] Setting up conv1
I0428 20:14:27.797507 32680 net.cpp:131] Top shape: 100 2 8 8 (12800)
I0428 20:14:27.797510 32680 net.cpp:139] Memory required for data: 14766000
I0428 20:14:27.797518 32680 layer_factory.hpp:77] Creating layer pool1
I0428 20:14:27.797526 32680 net.cpp:86] Creating Layer pool1
I0428 20:14:27.797529 32680 net.cpp:408] pool1 <- conv1
I0428 20:14:27.797535 32680 net.cpp:382] pool1 -> pool1
I0428 20:14:27.797574 32680 net.cpp:124] Setting up pool1
I0428 20:14:27.797581 32680 net.cpp:131] Top shape: 100 2 4 4 (3200)
I0428 20:14:27.797585 32680 net.cpp:139] Memory required for data: 14778800
I0428 20:14:27.797586 32680 layer_factory.hpp:77] Creating layer ip1
I0428 20:14:27.797593 32680 net.cpp:86] Creating Layer ip1
I0428 20:14:27.797596 32680 net.cpp:408] ip1 <- pool1
I0428 20:14:27.797601 32680 net.cpp:382] ip1 -> ip1
I0428 20:14:27.797739 32680 net.cpp:124] Setting up ip1
I0428 20:14:27.797747 32680 net.cpp:131] Top shape: 100 10 (1000)
I0428 20:14:27.797760 32680 net.cpp:139] Memory required for data: 14782800
I0428 20:14:27.797767 32680 layer_factory.hpp:77] Creating layer relu1
I0428 20:14:27.797773 32680 net.cpp:86] Creating Layer relu1
I0428 20:14:27.797776 32680 net.cpp:408] relu1 <- ip1
I0428 20:14:27.797781 32680 net.cpp:369] relu1 -> ip1 (in-place)
I0428 20:14:27.797971 32680 net.cpp:124] Setting up relu1
I0428 20:14:27.797981 32680 net.cpp:131] Top shape: 100 10 (1000)
I0428 20:14:27.797984 32680 net.cpp:139] Memory required for data: 14786800
I0428 20:14:27.797987 32680 layer_factory.hpp:77] Creating layer ip2
I0428 20:14:27.797996 32680 net.cpp:86] Creating Layer ip2
I0428 20:14:27.798002 32680 net.cpp:408] ip2 <- ip1
I0428 20:14:27.798008 32680 net.cpp:382] ip2 -> ip2
I0428 20:14:27.798105 32680 net.cpp:124] Setting up ip2
I0428 20:14:27.798112 32680 net.cpp:131] Top shape: 100 10 (1000)
I0428 20:14:27.798115 32680 net.cpp:139] Memory required for data: 14790800
I0428 20:14:27.798131 32680 layer_factory.hpp:77] Creating layer relu2
I0428 20:14:27.798137 32680 net.cpp:86] Creating Layer relu2
I0428 20:14:27.798156 32680 net.cpp:408] relu2 <- ip2
I0428 20:14:27.798161 32680 net.cpp:369] relu2 -> ip2 (in-place)
I0428 20:14:27.798389 32680 net.cpp:124] Setting up relu2
I0428 20:14:27.798399 32680 net.cpp:131] Top shape: 100 10 (1000)
I0428 20:14:27.798403 32680 net.cpp:139] Memory required for data: 14794800
I0428 20:14:27.798422 32680 layer_factory.hpp:77] Creating layer ip3
I0428 20:14:27.798444 32680 net.cpp:86] Creating Layer ip3
I0428 20:14:27.798446 32680 net.cpp:408] ip3 <- ip2
I0428 20:14:27.798452 32680 net.cpp:382] ip3 -> ip3
I0428 20:14:27.798564 32680 net.cpp:124] Setting up ip3
I0428 20:14:27.798571 32680 net.cpp:131] Top shape: 100 10 (1000)
I0428 20:14:27.798574 32680 net.cpp:139] Memory required for data: 14798800
I0428 20:14:27.798583 32680 layer_factory.hpp:77] Creating layer relu3
I0428 20:14:27.798588 32680 net.cpp:86] Creating Layer relu3
I0428 20:14:27.798590 32680 net.cpp:408] relu3 <- ip3
I0428 20:14:27.798595 32680 net.cpp:369] relu3 -> ip3 (in-place)
I0428 20:14:27.799464 32680 net.cpp:124] Setting up relu3
I0428 20:14:27.799476 32680 net.cpp:131] Top shape: 100 10 (1000)
I0428 20:14:27.799496 32680 net.cpp:139] Memory required for data: 14802800
I0428 20:14:27.799499 32680 layer_factory.hpp:77] Creating layer ip3_relu3_0_split
I0428 20:14:27.799505 32680 net.cpp:86] Creating Layer ip3_relu3_0_split
I0428 20:14:27.799510 32680 net.cpp:408] ip3_relu3_0_split <- ip3
I0428 20:14:27.799515 32680 net.cpp:382] ip3_relu3_0_split -> ip3_relu3_0_split_0
I0428 20:14:27.799522 32680 net.cpp:382] ip3_relu3_0_split -> ip3_relu3_0_split_1
I0428 20:14:27.799576 32680 net.cpp:124] Setting up ip3_relu3_0_split
I0428 20:14:27.799582 32680 net.cpp:131] Top shape: 100 10 (1000)
I0428 20:14:27.799592 32680 net.cpp:131] Top shape: 100 10 (1000)
I0428 20:14:27.799593 32680 net.cpp:139] Memory required for data: 14810800
I0428 20:14:27.799597 32680 layer_factory.hpp:77] Creating layer accuracy
I0428 20:14:27.799603 32680 net.cpp:86] Creating Layer accuracy
I0428 20:14:27.799607 32680 net.cpp:408] accuracy <- ip3_relu3_0_split_0
I0428 20:14:27.799610 32680 net.cpp:408] accuracy <- label_mnist_1_split_0
I0428 20:14:27.799614 32680 net.cpp:382] accuracy -> accuracy
…
