…
I0428 19:33:04.957535 23023 net.cpp:296] The NetState phase (0) differed from the phase (1) specified by a rule in layer mnist
I0428 19:33:04.957564 23023 net.cpp:296] The NetState phase (0) differed from the phase (1) specified by a rule in layer accuracy
I0428 19:33:04.957631 23023 net.cpp:53] Initializing net from parameters: 
name: "LeNet"
state {
  phase: TRAIN
  level: 0
  stage: ""
}
layer {
  name: "mnist"
  type: "Data"
  top: "data"
  top: "label"
  include {
    phase: TRAIN
  }
  transform_param {
    scale: 0.00390625
  }
  data_param {
    source: "examples/mnist/mnist_train_lmdb"
    batch_size: 64
    backend: LMDB
  }
}
layer {
  name: "conv0"
  type: "Convolution"
  bottom: "data"
  top: "conv0"
  param {
    lr_mult: 1
  }
  param {
    lr_mult: 2
  }
  convolution_param {
    num_output: 25
    kernel_size: 5
    stride: 1
    weight_filler {
      type: "xavier"
    }
    bias_filler {
      type: "constant"
    }
  }
}
layer {
  name: "pool0"
  type: "Pooling"
  bottom: "conv0"
  top: "pool0"
  pooling_param {
    pool: MAX
    kernel_size: 2
    stride: 2
  }
}
layer {
  name: "ip1"
  type: "InnerProduct"
  bottom: "pool0"
  top: "ip1"
  param {
    lr_mult: 1
  }
  param {
    lr_mult: 2
  }
  inner_product_param {
    num_output: 10
    weight_filler {
      type: "xavier"
    }
    bias_filler {
      type: "constant"
    }
  }
}
layer {
  name: "relu1"
  type: "ReLU"
  bottom: "ip1"
  top: "ip1"
}
layer {
  name: "ip2"
  type: "InnerProduct"
  bottom: "ip1"
  top: "ip2"
  param {
    lr_mult: 1
  }
  param {
    lr_mult: 2
  }
  inner_product_param {
    num_output: 10
    weight_filler {
      type: "xavier"
    }
    bias_filler {
      type: "constant"
    }
  }
}
layer {
  name: "relu2"
  type: "ReLU"
  bottom: "ip2"
  top: "ip2"
}
layer {
  name: "ip3"
  type: "InnerProduct"
  bottom: "ip2"
  top: "ip3"
  param {
    lr_mult: 1
  }
  param {
    lr_mult: 2
  }
  inner_product_param {
    num_output: 10
    weight_filler {
      type: "xavier"
    }
    bias_filler {
      type: "constant"
    }
  }
}
layer {
  name: "relu3"
  type: "ReLU"
  bottom: "ip3"
  top: "ip3"
}
layer {
  name: "loss"
  type: "SoftmaxWithLoss"
  bottom: "ip3"
  bottom: "label"
  top: "loss"
}
I0428 19:33:04.957690 23023 layer_factory.hpp:77] Creating layer mnist
I0428 19:33:04.957770 23023 db_lmdb.cpp:35] Opened lmdb examples/mnist/mnist_train_lmdb
I0428 19:33:04.957789 23023 net.cpp:86] Creating Layer mnist
I0428 19:33:04.957795 23023 net.cpp:382] mnist -> data
I0428 19:33:04.957813 23023 net.cpp:382] mnist -> label
I0428 19:33:04.958744 23023 data_layer.cpp:45] output data size: 64,1,28,28
I0428 19:33:04.961246 23023 net.cpp:124] Setting up mnist
I0428 19:33:04.961277 23023 net.cpp:131] Top shape: 64 1 28 28 (50176)
I0428 19:33:04.961282 23023 net.cpp:131] Top shape: 64 (64)
I0428 19:33:04.961284 23023 net.cpp:139] Memory required for data: 200960
I0428 19:33:04.961289 23023 layer_factory.hpp:77] Creating layer conv0
I0428 19:33:04.961344 23023 net.cpp:86] Creating Layer conv0
I0428 19:33:04.961350 23023 net.cpp:408] conv0 <- data
I0428 19:33:04.961375 23023 net.cpp:382] conv0 -> conv0
I0428 19:33:05.189255 23023 net.cpp:124] Setting up conv0
I0428 19:33:05.189281 23023 net.cpp:131] Top shape: 64 25 24 24 (921600)
I0428 19:33:05.189285 23023 net.cpp:139] Memory required for data: 3887360
I0428 19:33:05.189299 23023 layer_factory.hpp:77] Creating layer pool0
I0428 19:33:05.189311 23023 net.cpp:86] Creating Layer pool0
I0428 19:33:05.189349 23023 net.cpp:408] pool0 <- conv0
I0428 19:33:05.189355 23023 net.cpp:382] pool0 -> pool0
I0428 19:33:05.189399 23023 net.cpp:124] Setting up pool0
I0428 19:33:05.189404 23023 net.cpp:131] Top shape: 64 25 12 12 (230400)
I0428 19:33:05.189407 23023 net.cpp:139] Memory required for data: 4808960
I0428 19:33:05.189410 23023 layer_factory.hpp:77] Creating layer ip1
I0428 19:33:05.189417 23023 net.cpp:86] Creating Layer ip1
I0428 19:33:05.189421 23023 net.cpp:408] ip1 <- pool0
I0428 19:33:05.189425 23023 net.cpp:382] ip1 -> ip1
I0428 19:33:05.189723 23023 net.cpp:124] Setting up ip1
I0428 19:33:05.189731 23023 net.cpp:131] Top shape: 64 10 (640)
I0428 19:33:05.189749 23023 net.cpp:139] Memory required for data: 4811520
I0428 19:33:05.189755 23023 layer_factory.hpp:77] Creating layer relu1
I0428 19:33:05.189776 23023 net.cpp:86] Creating Layer relu1
I0428 19:33:05.189779 23023 net.cpp:408] relu1 <- ip1
I0428 19:33:05.189784 23023 net.cpp:369] relu1 -> ip1 (in-place)
I0428 19:33:05.189952 23023 net.cpp:124] Setting up relu1
I0428 19:33:05.189963 23023 net.cpp:131] Top shape: 64 10 (640)
I0428 19:33:05.189966 23023 net.cpp:139] Memory required for data: 4814080
I0428 19:33:05.189985 23023 layer_factory.hpp:77] Creating layer ip2
I0428 19:33:05.189990 23023 net.cpp:86] Creating Layer ip2
I0428 19:33:05.189993 23023 net.cpp:408] ip2 <- ip1
I0428 19:33:05.189997 23023 net.cpp:382] ip2 -> ip2
I0428 19:33:05.190102 23023 net.cpp:124] Setting up ip2
I0428 19:33:05.190109 23023 net.cpp:131] Top shape: 64 10 (640)
I0428 19:33:05.190112 23023 net.cpp:139] Memory required for data: 4816640
I0428 19:33:05.190119 23023 layer_factory.hpp:77] Creating layer relu2
I0428 19:33:05.190124 23023 net.cpp:86] Creating Layer relu2
I0428 19:33:05.190127 23023 net.cpp:408] relu2 <- ip2
I0428 19:33:05.190131 23023 net.cpp:369] relu2 -> ip2 (in-place)
I0428 19:33:05.190944 23023 net.cpp:124] Setting up relu2
I0428 19:33:05.190956 23023 net.cpp:131] Top shape: 64 10 (640)
I0428 19:33:05.190975 23023 net.cpp:139] Memory required for data: 4819200
I0428 19:33:05.190979 23023 layer_factory.hpp:77] Creating layer ip3
I0428 19:33:05.190985 23023 net.cpp:86] Creating Layer ip3
I0428 19:33:05.190989 23023 net.cpp:408] ip3 <- ip2
I0428 19:33:05.190994 23023 net.cpp:382] ip3 -> ip3
I0428 19:33:05.191082 23023 net.cpp:124] Setting up ip3
I0428 19:33:05.191103 23023 net.cpp:131] Top shape: 64 10 (640)
I0428 19:33:05.191107 23023 net.cpp:139] Memory required for data: 4821760
I0428 19:33:05.191112 23023 layer_factory.hpp:77] Creating layer relu3
I0428 19:33:05.191118 23023 net.cpp:86] Creating Layer relu3
I0428 19:33:05.191120 23023 net.cpp:408] relu3 <- ip3
I0428 19:33:05.191124 23023 net.cpp:369] relu3 -> ip3 (in-place)
I0428 19:33:05.191293 23023 net.cpp:124] Setting up relu3
I0428 19:33:05.191303 23023 net.cpp:131] Top shape: 64 10 (640)
I0428 19:33:05.191306 23023 net.cpp:139] Memory required for data: 4824320
I0428 19:33:05.191309 23023 layer_factory.hpp:77] Creating layer loss
I0428 19:33:05.191314 23023 net.cpp:86] Creating Layer loss
I0428 19:33:05.191318 23023 net.cpp:408] loss <- ip3
I0428 19:33:05.191321 23023 net.cpp:408] loss <- label
I0428 19:33:05.191328 23023 net.cpp:382] loss -> loss
I0428 19:33:05.191344 23023 layer_factory.hpp:77] Creating layer loss
…
I0428 19:33:05.192003 23023 solver.cpp:173] Creating test net (#0) specified by net file: ECE595/mnist/train_test/var_everything2/lenet_train_test170.prototxt
I0428 19:33:05.192040 23023 net.cpp:296] The NetState phase (1) differed from the phase (0) specified by a rule in layer mnist
I0428 19:33:05.192148 23023 net.cpp:53] Initializing net from parameters: 
name: "LeNet"
state {
  phase: TEST
}
layer {
  name: "mnist"
  type: "Data"
  top: "data"
  top: "label"
  include {
    phase: TEST
  }
  transform_param {
    scale: 0.00390625
  }
  data_param {
    source: "examples/mnist/mnist_test_lmdb"
    batch_size: 100
    backend: LMDB
  }
}
layer {
  name: "conv0"
  type: "Convolution"
  bottom: "data"
  top: "conv0"
  param {
    lr_mult: 1
  }
  param {
    lr_mult: 2
  }
  convolution_param {
    num_output: 25
    kernel_size: 5
    stride: 1
    weight_filler {
      type: "xavier"
    }
    bias_filler {
      type: "constant"
    }
  }
}
layer {
  name: "pool0"
  type: "Pooling"
  bottom: "conv0"
  top: "pool0"
  pooling_param {
    pool: MAX
    kernel_size: 2
    stride: 2
  }
}
layer {
  name: "ip1"
  type: "InnerProduct"
  bottom: "pool0"
  top: "ip1"
  param {
    lr_mult: 1
  }
  param {
    lr_mult: 2
  }
  inner_product_param {
    num_output: 10
    weight_filler {
      type: "xavier"
    }
    bias_filler {
      type: "constant"
    }
  }
}
layer {
  name: "relu1"
  type: "ReLU"
  bottom: "ip1"
  top: "ip1"
}
layer {
  name: "ip2"
  type: "InnerProduct"
  bottom: "ip1"
  top: "ip2"
  param {
    lr_mult: 1
  }
  param {
    lr_mult: 2
  }
  inner_product_param {
    num_output: 10
    weight_filler {
      type: "xavier"
    }
    bias_filler {
      type: "constant"
    }
  }
}
layer {
  name: "relu2"
  type: "ReLU"
  bottom: "ip2"
  top: "ip2"
}
layer {
  name: "ip3"
  type: "InnerProduct"
  bottom: "ip2"
  top: "ip3"
  param {
    lr_mult: 1
  }
  param {
    lr_mult: 2
  }
  inner_product_param {
    num_output: 10
    weight_filler {
      type: "xavier"
    }
    bias_filler {
      type: "constant"
    }
  }
}
layer {
  name: "relu3"
  type: "ReLU"
  bottom: "ip3"
  top: "ip3"
}
layer {
  name: "accuracy"
  type: "Accuracy"
  bottom: "ip3"
  bottom: "label"
  top: "accuracy"
  include {
    phase: TEST
  }
}
layer {
  name: "loss"
  type: "SoftmaxWithLoss"
  bottom: "ip3"
  bottom: "label"
  top: "loss"
}
I0428 19:33:05.192222 23023 layer_factory.hpp:77] Creating layer mnist
I0428 19:33:05.192266 23023 db_lmdb.cpp:35] Opened lmdb examples/mnist/mnist_test_lmdb
I0428 19:33:05.192277 23023 net.cpp:86] Creating Layer mnist
I0428 19:33:05.192281 23023 net.cpp:382] mnist -> data
I0428 19:33:05.192288 23023 net.cpp:382] mnist -> label
I0428 19:33:05.192363 23023 data_layer.cpp:45] output data size: 100,1,28,28
I0428 19:33:05.194420 23023 net.cpp:124] Setting up mnist
I0428 19:33:05.194465 23023 net.cpp:131] Top shape: 100 1 28 28 (78400)
I0428 19:33:05.194470 23023 net.cpp:131] Top shape: 100 (100)
I0428 19:33:05.194473 23023 net.cpp:139] Memory required for data: 314000
I0428 19:33:05.194478 23023 layer_factory.hpp:77] Creating layer label_mnist_1_split
I0428 19:33:05.194484 23023 net.cpp:86] Creating Layer label_mnist_1_split
I0428 19:33:05.194488 23023 net.cpp:408] label_mnist_1_split <- label
I0428 19:33:05.194492 23023 net.cpp:382] label_mnist_1_split -> label_mnist_1_split_0
I0428 19:33:05.194499 23023 net.cpp:382] label_mnist_1_split -> label_mnist_1_split_1
I0428 19:33:05.194540 23023 net.cpp:124] Setting up label_mnist_1_split
I0428 19:33:05.194545 23023 net.cpp:131] Top shape: 100 (100)
I0428 19:33:05.194550 23023 net.cpp:131] Top shape: 100 (100)
I0428 19:33:05.194551 23023 net.cpp:139] Memory required for data: 314800
I0428 19:33:05.194564 23023 layer_factory.hpp:77] Creating layer conv0
I0428 19:33:05.194573 23023 net.cpp:86] Creating Layer conv0
I0428 19:33:05.194576 23023 net.cpp:408] conv0 <- data
I0428 19:33:05.194581 23023 net.cpp:382] conv0 -> conv0
I0428 19:33:05.196403 23023 net.cpp:124] Setting up conv0
I0428 19:33:05.196434 23023 net.cpp:131] Top shape: 100 25 24 24 (1440000)
I0428 19:33:05.196437 23023 net.cpp:139] Memory required for data: 6074800
I0428 19:33:05.196447 23023 layer_factory.hpp:77] Creating layer pool0
I0428 19:33:05.196455 23023 net.cpp:86] Creating Layer pool0
I0428 19:33:05.196457 23023 net.cpp:408] pool0 <- conv0
I0428 19:33:05.196462 23023 net.cpp:382] pool0 -> pool0
I0428 19:33:05.196498 23023 net.cpp:124] Setting up pool0
I0428 19:33:05.196504 23023 net.cpp:131] Top shape: 100 25 12 12 (360000)
I0428 19:33:05.196507 23023 net.cpp:139] Memory required for data: 7514800
I0428 19:33:05.196511 23023 layer_factory.hpp:77] Creating layer ip1
I0428 19:33:05.196516 23023 net.cpp:86] Creating Layer ip1
I0428 19:33:05.196519 23023 net.cpp:408] ip1 <- pool0
I0428 19:33:05.196524 23023 net.cpp:382] ip1 -> ip1
I0428 19:33:05.196883 23023 net.cpp:124] Setting up ip1
I0428 19:33:05.196907 23023 net.cpp:131] Top shape: 100 10 (1000)
I0428 19:33:05.196910 23023 net.cpp:139] Memory required for data: 7518800
I0428 19:33:05.196933 23023 layer_factory.hpp:77] Creating layer relu1
I0428 19:33:05.196938 23023 net.cpp:86] Creating Layer relu1
I0428 19:33:05.196940 23023 net.cpp:408] relu1 <- ip1
I0428 19:33:05.196944 23023 net.cpp:369] relu1 -> ip1 (in-place)
I0428 19:33:05.197252 23023 net.cpp:124] Setting up relu1
I0428 19:33:05.197260 23023 net.cpp:131] Top shape: 100 10 (1000)
I0428 19:33:05.197264 23023 net.cpp:139] Memory required for data: 7522800
I0428 19:33:05.197268 23023 layer_factory.hpp:77] Creating layer ip2
I0428 19:33:05.197273 23023 net.cpp:86] Creating Layer ip2
I0428 19:33:05.197276 23023 net.cpp:408] ip2 <- ip1
I0428 19:33:05.197281 23023 net.cpp:382] ip2 -> ip2
I0428 19:33:05.197439 23023 net.cpp:124] Setting up ip2
I0428 19:33:05.197446 23023 net.cpp:131] Top shape: 100 10 (1000)
I0428 19:33:05.197449 23023 net.cpp:139] Memory required for data: 7526800
I0428 19:33:05.197458 23023 layer_factory.hpp:77] Creating layer relu2
I0428 19:33:05.197461 23023 net.cpp:86] Creating Layer relu2
I0428 19:33:05.197464 23023 net.cpp:408] relu2 <- ip2
I0428 19:33:05.197469 23023 net.cpp:369] relu2 -> ip2 (in-place)
I0428 19:33:05.198212 23023 net.cpp:124] Setting up relu2
I0428 19:33:05.198225 23023 net.cpp:131] Top shape: 100 10 (1000)
I0428 19:33:05.198245 23023 net.cpp:139] Memory required for data: 7530800
I0428 19:33:05.198248 23023 layer_factory.hpp:77] Creating layer ip3
I0428 19:33:05.198256 23023 net.cpp:86] Creating Layer ip3
I0428 19:33:05.198259 23023 net.cpp:408] ip3 <- ip2
I0428 19:33:05.198264 23023 net.cpp:382] ip3 -> ip3
I0428 19:33:05.198397 23023 net.cpp:124] Setting up ip3
I0428 19:33:05.198405 23023 net.cpp:131] Top shape: 100 10 (1000)
I0428 19:33:05.198408 23023 net.cpp:139] Memory required for data: 7534800
I0428 19:33:05.198413 23023 layer_factory.hpp:77] Creating layer relu3
I0428 19:33:05.198418 23023 net.cpp:86] Creating Layer relu3
I0428 19:33:05.198421 23023 net.cpp:408] relu3 <- ip3
I0428 19:33:05.198426 23023 net.cpp:369] relu3 -> ip3 (in-place)
I0428 19:33:05.198700 23023 net.cpp:124] Setting up relu3
I0428 19:33:05.198710 23023 net.cpp:131] Top shape: 100 10 (1000)
I0428 19:33:05.198714 23023 net.cpp:139] Memory required for data: 7538800
I0428 19:33:05.198716 23023 layer_factory.hpp:77] Creating layer ip3_relu3_0_split
I0428 19:33:05.198721 23023 net.cpp:86] Creating Layer ip3_relu3_0_split
I0428 19:33:05.198725 23023 net.cpp:408] ip3_relu3_0_split <- ip3
I0428 19:33:05.198730 23023 net.cpp:382] ip3_relu3_0_split -> ip3_relu3_0_split_0
I0428 19:33:05.198736 23023 net.cpp:382] ip3_relu3_0_split -> ip3_relu3_0_split_1
I0428 19:33:05.198776 23023 net.cpp:124] Setting up ip3_relu3_0_split
I0428 19:33:05.198784 23023 net.cpp:131] Top shape: 100 10 (1000)
I0428 19:33:05.198803 23023 net.cpp:131] Top shape: 100 10 (1000)
I0428 19:33:05.198817 23023 net.cpp:139] Memory required for data: 7546800
I0428 19:33:05.198822 23023 layer_factory.hpp:77] Creating layer accuracy
I0428 19:33:05.198827 23023 net.cpp:86] Creating Layer accuracy
I0428 19:33:05.198844 23023 net.cpp:408] accuracy <- ip3_relu3_0_split_0
I0428 19:33:05.198854 23023 net.cpp:408] accuracy <- label_mnist_1_split_0
I0428 19:33:05.198858 23023 net.cpp:382] accuracy -> accuracy
…
