…
I0428 19:42:25.609719 25063 net.cpp:296] The NetState phase (0) differed from the phase (1) specified by a rule in layer mnist
I0428 19:42:25.609735 25063 net.cpp:296] The NetState phase (0) differed from the phase (1) specified by a rule in layer accuracy
I0428 19:42:25.609825 25063 net.cpp:53] Initializing net from parameters: 
name: "LeNet"
state {
  phase: TRAIN
  level: 0
  stage: ""
}
layer {
  name: "mnist"
  type: "Data"
  top: "data"
  top: "label"
  include {
    phase: TRAIN
  }
  transform_param {
    scale: 0.00390625
  }
  data_param {
    source: "examples/mnist/mnist_train_lmdb"
    batch_size: 64
    backend: LMDB
  }
}
layer {
  name: "conv0"
  type: "Convolution"
  bottom: "data"
  top: "conv0"
  param {
    lr_mult: 1
  }
  param {
    lr_mult: 2
  }
  convolution_param {
    num_output: 2
    kernel_size: 5
    stride: 1
    weight_filler {
      type: "xavier"
    }
    bias_filler {
      type: "constant"
    }
  }
}
layer {
  name: "pool0"
  type: "Pooling"
  bottom: "conv0"
  top: "pool0"
  pooling_param {
    pool: MAX
    kernel_size: 2
    stride: 2
  }
}
layer {
  name: "conv1"
  type: "Convolution"
  bottom: "pool0"
  top: "conv1"
  param {
    lr_mult: 1
  }
  param {
    lr_mult: 2
  }
  convolution_param {
    num_output: 25
    kernel_size: 5
    stride: 1
    weight_filler {
      type: "xavier"
    }
    bias_filler {
      type: "constant"
    }
  }
}
layer {
  name: "pool1"
  type: "Pooling"
  bottom: "conv1"
  top: "pool1"
  pooling_param {
    pool: MAX
    kernel_size: 2
    stride: 2
  }
}
layer {
  name: "ip1"
  type: "InnerProduct"
  bottom: "pool1"
  top: "ip1"
  param {
    lr_mult: 1
  }
  param {
    lr_mult: 2
  }
  inner_product_param {
    num_output: 10
    weight_filler {
      type: "xavier"
    }
    bias_filler {
      type: "constant"
    }
  }
}
layer {
  name: "relu1"
  type: "ReLU"
  bottom: "ip1"
  top: "ip1"
}
layer {
  name: "ip2"
  type: "InnerProduct"
  bottom: "ip1"
  top: "ip2"
  param {
    lr_mult: 1
  }
  param {
    lr_mult: 2
  }
  inner_product_param {
    num_output: 10
    weight_filler {
      type: "xavier"
    }
    bias_filler {
      type: "constant"
    }
  }
}
layer {
  name: "relu2"
  type: "ReLU"
  bottom: "ip2"
  top: "ip2"
}
layer {
  name: "loss"
  type: "SoftmaxWithLoss"
  bottom: "ip2"
  bottom: "label"
  top: "loss"
}
I0428 19:42:25.609901 25063 layer_factory.hpp:77] Creating layer mnist
I0428 19:42:25.609999 25063 db_lmdb.cpp:35] Opened lmdb examples/mnist/mnist_train_lmdb
I0428 19:42:25.610023 25063 net.cpp:86] Creating Layer mnist
I0428 19:42:25.610030 25063 net.cpp:382] mnist -> data
I0428 19:42:25.610054 25063 net.cpp:382] mnist -> label
I0428 19:42:25.611135 25063 data_layer.cpp:45] output data size: 64,1,28,28
I0428 19:42:25.613595 25063 net.cpp:124] Setting up mnist
I0428 19:42:25.613634 25063 net.cpp:131] Top shape: 64 1 28 28 (50176)
I0428 19:42:25.613642 25063 net.cpp:131] Top shape: 64 (64)
I0428 19:42:25.613646 25063 net.cpp:139] Memory required for data: 200960
I0428 19:42:25.613652 25063 layer_factory.hpp:77] Creating layer conv0
I0428 19:42:25.613669 25063 net.cpp:86] Creating Layer conv0
I0428 19:42:25.613674 25063 net.cpp:408] conv0 <- data
I0428 19:42:25.613687 25063 net.cpp:382] conv0 -> conv0
I0428 19:42:25.866016 25063 net.cpp:124] Setting up conv0
I0428 19:42:25.866058 25063 net.cpp:131] Top shape: 64 2 24 24 (73728)
I0428 19:42:25.866062 25063 net.cpp:139] Memory required for data: 495872
I0428 19:42:25.866094 25063 layer_factory.hpp:77] Creating layer pool0
I0428 19:42:25.866122 25063 net.cpp:86] Creating Layer pool0
I0428 19:42:25.866127 25063 net.cpp:408] pool0 <- conv0
I0428 19:42:25.866132 25063 net.cpp:382] pool0 -> pool0
I0428 19:42:25.866178 25063 net.cpp:124] Setting up pool0
I0428 19:42:25.866185 25063 net.cpp:131] Top shape: 64 2 12 12 (18432)
I0428 19:42:25.866189 25063 net.cpp:139] Memory required for data: 569600
I0428 19:42:25.866191 25063 layer_factory.hpp:77] Creating layer conv1
I0428 19:42:25.866201 25063 net.cpp:86] Creating Layer conv1
I0428 19:42:25.866204 25063 net.cpp:408] conv1 <- pool0
I0428 19:42:25.866209 25063 net.cpp:382] conv1 -> conv1
I0428 19:42:25.868983 25063 net.cpp:124] Setting up conv1
I0428 19:42:25.868996 25063 net.cpp:131] Top shape: 64 25 8 8 (102400)
I0428 19:42:25.868999 25063 net.cpp:139] Memory required for data: 979200
I0428 19:42:25.869007 25063 layer_factory.hpp:77] Creating layer pool1
I0428 19:42:25.869016 25063 net.cpp:86] Creating Layer pool1
I0428 19:42:25.869019 25063 net.cpp:408] pool1 <- conv1
I0428 19:42:25.869038 25063 net.cpp:382] pool1 -> pool1
I0428 19:42:25.869076 25063 net.cpp:124] Setting up pool1
I0428 19:42:25.869081 25063 net.cpp:131] Top shape: 64 25 4 4 (25600)
I0428 19:42:25.869083 25063 net.cpp:139] Memory required for data: 1081600
I0428 19:42:25.869086 25063 layer_factory.hpp:77] Creating layer ip1
I0428 19:42:25.869093 25063 net.cpp:86] Creating Layer ip1
I0428 19:42:25.869096 25063 net.cpp:408] ip1 <- pool1
I0428 19:42:25.869102 25063 net.cpp:382] ip1 -> ip1
I0428 19:42:25.869231 25063 net.cpp:124] Setting up ip1
I0428 19:42:25.869240 25063 net.cpp:131] Top shape: 64 10 (640)
I0428 19:42:25.869242 25063 net.cpp:139] Memory required for data: 1084160
I0428 19:42:25.869248 25063 layer_factory.hpp:77] Creating layer relu1
I0428 19:42:25.869269 25063 net.cpp:86] Creating Layer relu1
I0428 19:42:25.869272 25063 net.cpp:408] relu1 <- ip1
I0428 19:42:25.869277 25063 net.cpp:369] relu1 -> ip1 (in-place)
I0428 19:42:25.869439 25063 net.cpp:124] Setting up relu1
I0428 19:42:25.869448 25063 net.cpp:131] Top shape: 64 10 (640)
I0428 19:42:25.869451 25063 net.cpp:139] Memory required for data: 1086720
I0428 19:42:25.869453 25063 layer_factory.hpp:77] Creating layer ip2
I0428 19:42:25.869459 25063 net.cpp:86] Creating Layer ip2
I0428 19:42:25.869462 25063 net.cpp:408] ip2 <- ip1
I0428 19:42:25.869468 25063 net.cpp:382] ip2 -> ip2
I0428 19:42:25.869560 25063 net.cpp:124] Setting up ip2
I0428 19:42:25.869566 25063 net.cpp:131] Top shape: 64 10 (640)
I0428 19:42:25.869570 25063 net.cpp:139] Memory required for data: 1089280
I0428 19:42:25.869575 25063 layer_factory.hpp:77] Creating layer relu2
I0428 19:42:25.869595 25063 net.cpp:86] Creating Layer relu2
I0428 19:42:25.869597 25063 net.cpp:408] relu2 <- ip2
I0428 19:42:25.869602 25063 net.cpp:369] relu2 -> ip2 (in-place)
I0428 19:42:25.870278 25063 net.cpp:124] Setting up relu2
I0428 19:42:25.870290 25063 net.cpp:131] Top shape: 64 10 (640)
I0428 19:42:25.870293 25063 net.cpp:139] Memory required for data: 1091840
I0428 19:42:25.870296 25063 layer_factory.hpp:77] Creating layer loss
I0428 19:42:25.870301 25063 net.cpp:86] Creating Layer loss
I0428 19:42:25.870304 25063 net.cpp:408] loss <- ip2
I0428 19:42:25.870308 25063 net.cpp:408] loss <- label
I0428 19:42:25.870316 25063 net.cpp:382] loss -> loss
I0428 19:42:25.870332 25063 layer_factory.hpp:77] Creating layer loss
…
I0428 19:42:25.870936 25063 solver.cpp:173] Creating test net (#0) specified by net file: ECE595/mnist/train_test/var_everything2/lenet_train_test393.prototxt
I0428 19:42:25.870960 25063 net.cpp:296] The NetState phase (1) differed from the phase (0) specified by a rule in layer mnist
I0428 19:42:25.871040 25063 net.cpp:53] Initializing net from parameters: 
name: "LeNet"
state {
  phase: TEST
}
layer {
  name: "mnist"
  type: "Data"
  top: "data"
  top: "label"
  include {
    phase: TEST
  }
  transform_param {
    scale: 0.00390625
  }
  data_param {
    source: "examples/mnist/mnist_test_lmdb"
    batch_size: 100
    backend: LMDB
  }
}
layer {
  name: "conv0"
  type: "Convolution"
  bottom: "data"
  top: "conv0"
  param {
    lr_mult: 1
  }
  param {
    lr_mult: 2
  }
  convolution_param {
    num_output: 2
    kernel_size: 5
    stride: 1
    weight_filler {
      type: "xavier"
    }
    bias_filler {
      type: "constant"
    }
  }
}
layer {
  name: "pool0"
  type: "Pooling"
  bottom: "conv0"
  top: "pool0"
  pooling_param {
    pool: MAX
    kernel_size: 2
    stride: 2
  }
}
layer {
  name: "conv1"
  type: "Convolution"
  bottom: "pool0"
  top: "conv1"
  param {
    lr_mult: 1
  }
  param {
    lr_mult: 2
  }
  convolution_param {
    num_output: 25
    kernel_size: 5
    stride: 1
    weight_filler {
      type: "xavier"
    }
    bias_filler {
      type: "constant"
    }
  }
}
layer {
  name: "pool1"
  type: "Pooling"
  bottom: "conv1"
  top: "pool1"
  pooling_param {
    pool: MAX
    kernel_size: 2
    stride: 2
  }
}
layer {
  name: "ip1"
  type: "InnerProduct"
  bottom: "pool1"
  top: "ip1"
  param {
    lr_mult: 1
  }
  param {
    lr_mult: 2
  }
  inner_product_param {
    num_output: 10
    weight_filler {
      type: "xavier"
    }
    bias_filler {
      type: "constant"
    }
  }
}
layer {
  name: "relu1"
  type: "ReLU"
  bottom: "ip1"
  top: "ip1"
}
layer {
  name: "ip2"
  type: "InnerProduct"
  bottom: "ip1"
  top: "ip2"
  param {
    lr_mult: 1
  }
  param {
    lr_mult: 2
  }
  inner_product_param {
    num_output: 10
    weight_filler {
      type: "xavier"
    }
    bias_filler {
      type: "constant"
    }
  }
}
layer {
  name: "relu2"
  type: "ReLU"
  bottom: "ip2"
  top: "ip2"
}
layer {
  name: "accuracy"
  type: "Accuracy"
  bottom: "ip2"
  bottom: "label"
  top: "accuracy"
  include {
    phase: TEST
  }
}
layer {
  name: "loss"
  type: "SoftmaxWithLoss"
  bottom: "ip2"
  bottom: "label"
  top: "loss"
}
I0428 19:42:25.871103 25063 layer_factory.hpp:77] Creating layer mnist
I0428 19:42:25.871143 25063 db_lmdb.cpp:35] Opened lmdb examples/mnist/mnist_test_lmdb
I0428 19:42:25.871155 25063 net.cpp:86] Creating Layer mnist
I0428 19:42:25.871160 25063 net.cpp:382] mnist -> data
I0428 19:42:25.871167 25063 net.cpp:382] mnist -> label
I0428 19:42:25.871248 25063 data_layer.cpp:45] output data size: 100,1,28,28
I0428 19:42:25.873208 25063 net.cpp:124] Setting up mnist
I0428 19:42:25.873224 25063 net.cpp:131] Top shape: 100 1 28 28 (78400)
I0428 19:42:25.873229 25063 net.cpp:131] Top shape: 100 (100)
I0428 19:42:25.873232 25063 net.cpp:139] Memory required for data: 314000
I0428 19:42:25.873235 25063 layer_factory.hpp:77] Creating layer label_mnist_1_split
I0428 19:42:25.873272 25063 net.cpp:86] Creating Layer label_mnist_1_split
I0428 19:42:25.873276 25063 net.cpp:408] label_mnist_1_split <- label
I0428 19:42:25.873283 25063 net.cpp:382] label_mnist_1_split -> label_mnist_1_split_0
I0428 19:42:25.873289 25063 net.cpp:382] label_mnist_1_split -> label_mnist_1_split_1
I0428 19:42:25.873332 25063 net.cpp:124] Setting up label_mnist_1_split
I0428 19:42:25.873349 25063 net.cpp:131] Top shape: 100 (100)
I0428 19:42:25.873353 25063 net.cpp:131] Top shape: 100 (100)
I0428 19:42:25.873355 25063 net.cpp:139] Memory required for data: 314800
I0428 19:42:25.873358 25063 layer_factory.hpp:77] Creating layer conv0
I0428 19:42:25.873368 25063 net.cpp:86] Creating Layer conv0
I0428 19:42:25.873370 25063 net.cpp:408] conv0 <- data
I0428 19:42:25.873375 25063 net.cpp:382] conv0 -> conv0
I0428 19:42:25.875156 25063 net.cpp:124] Setting up conv0
I0428 19:42:25.875185 25063 net.cpp:131] Top shape: 100 2 24 24 (115200)
I0428 19:42:25.875187 25063 net.cpp:139] Memory required for data: 775600
I0428 19:42:25.875196 25063 layer_factory.hpp:77] Creating layer pool0
I0428 19:42:25.875202 25063 net.cpp:86] Creating Layer pool0
I0428 19:42:25.875205 25063 net.cpp:408] pool0 <- conv0
I0428 19:42:25.875211 25063 net.cpp:382] pool0 -> pool0
I0428 19:42:25.875246 25063 net.cpp:124] Setting up pool0
I0428 19:42:25.875250 25063 net.cpp:131] Top shape: 100 2 12 12 (28800)
I0428 19:42:25.875253 25063 net.cpp:139] Memory required for data: 890800
I0428 19:42:25.875255 25063 layer_factory.hpp:77] Creating layer conv1
I0428 19:42:25.875267 25063 net.cpp:86] Creating Layer conv1
I0428 19:42:25.875269 25063 net.cpp:408] conv1 <- pool0
I0428 19:42:25.875274 25063 net.cpp:382] conv1 -> conv1
I0428 19:42:25.876778 25063 net.cpp:124] Setting up conv1
I0428 19:42:25.876791 25063 net.cpp:131] Top shape: 100 25 8 8 (160000)
I0428 19:42:25.876794 25063 net.cpp:139] Memory required for data: 1530800
I0428 19:42:25.876806 25063 layer_factory.hpp:77] Creating layer pool1
I0428 19:42:25.876818 25063 net.cpp:86] Creating Layer pool1
I0428 19:42:25.876837 25063 net.cpp:408] pool1 <- conv1
I0428 19:42:25.876864 25063 net.cpp:382] pool1 -> pool1
I0428 19:42:25.876922 25063 net.cpp:124] Setting up pool1
I0428 19:42:25.876929 25063 net.cpp:131] Top shape: 100 25 4 4 (40000)
I0428 19:42:25.876932 25063 net.cpp:139] Memory required for data: 1690800
I0428 19:42:25.876935 25063 layer_factory.hpp:77] Creating layer ip1
I0428 19:42:25.876942 25063 net.cpp:86] Creating Layer ip1
I0428 19:42:25.876946 25063 net.cpp:408] ip1 <- pool1
I0428 19:42:25.876952 25063 net.cpp:382] ip1 -> ip1
I0428 19:42:25.877089 25063 net.cpp:124] Setting up ip1
I0428 19:42:25.877099 25063 net.cpp:131] Top shape: 100 10 (1000)
I0428 19:42:25.877101 25063 net.cpp:139] Memory required for data: 1694800
I0428 19:42:25.877110 25063 layer_factory.hpp:77] Creating layer relu1
I0428 19:42:25.877116 25063 net.cpp:86] Creating Layer relu1
I0428 19:42:25.877120 25063 net.cpp:408] relu1 <- ip1
I0428 19:42:25.877125 25063 net.cpp:369] relu1 -> ip1 (in-place)
I0428 19:42:25.877351 25063 net.cpp:124] Setting up relu1
I0428 19:42:25.877359 25063 net.cpp:131] Top shape: 100 10 (1000)
I0428 19:42:25.877362 25063 net.cpp:139] Memory required for data: 1698800
I0428 19:42:25.877367 25063 layer_factory.hpp:77] Creating layer ip2
I0428 19:42:25.877373 25063 net.cpp:86] Creating Layer ip2
I0428 19:42:25.877377 25063 net.cpp:408] ip2 <- ip1
I0428 19:42:25.877382 25063 net.cpp:382] ip2 -> ip2
I0428 19:42:25.877475 25063 net.cpp:124] Setting up ip2
I0428 19:42:25.877482 25063 net.cpp:131] Top shape: 100 10 (1000)
I0428 19:42:25.877485 25063 net.cpp:139] Memory required for data: 1702800
I0428 19:42:25.877490 25063 layer_factory.hpp:77] Creating layer relu2
I0428 19:42:25.877497 25063 net.cpp:86] Creating Layer relu2
I0428 19:42:25.877501 25063 net.cpp:408] relu2 <- ip2
I0428 19:42:25.877504 25063 net.cpp:369] relu2 -> ip2 (in-place)
I0428 19:42:25.877661 25063 net.cpp:124] Setting up relu2
I0428 19:42:25.877670 25063 net.cpp:131] Top shape: 100 10 (1000)
I0428 19:42:25.877671 25063 net.cpp:139] Memory required for data: 1706800
I0428 19:42:25.877674 25063 layer_factory.hpp:77] Creating layer ip2_relu2_0_split
I0428 19:42:25.877679 25063 net.cpp:86] Creating Layer ip2_relu2_0_split
I0428 19:42:25.877682 25063 net.cpp:408] ip2_relu2_0_split <- ip2
I0428 19:42:25.877686 25063 net.cpp:382] ip2_relu2_0_split -> ip2_relu2_0_split_0
I0428 19:42:25.877701 25063 net.cpp:382] ip2_relu2_0_split -> ip2_relu2_0_split_1
I0428 19:42:25.877741 25063 net.cpp:124] Setting up ip2_relu2_0_split
I0428 19:42:25.877746 25063 net.cpp:131] Top shape: 100 10 (1000)
I0428 19:42:25.877749 25063 net.cpp:131] Top shape: 100 10 (1000)
I0428 19:42:25.877753 25063 net.cpp:139] Memory required for data: 1714800
I0428 19:42:25.877754 25063 layer_factory.hpp:77] Creating layer accuracy
I0428 19:42:25.877759 25063 net.cpp:86] Creating Layer accuracy
I0428 19:42:25.877763 25063 net.cpp:408] accuracy <- ip2_relu2_0_split_0
I0428 19:42:25.877766 25063 net.cpp:408] accuracy <- label_mnist_1_split_0
I0428 19:42:25.877771 25063 net.cpp:382] accuracy -> accuracy
…
