…
I0428 20:03:06.391774 30121 net.cpp:296] The NetState phase (0) differed from the phase (1) specified by a rule in layer mnist
I0428 20:03:06.391789 30121 net.cpp:296] The NetState phase (0) differed from the phase (1) specified by a rule in layer accuracy
I0428 20:03:06.391865 30121 net.cpp:53] Initializing net from parameters: 
name: "LeNet"
state {
  phase: TRAIN
  level: 0
  stage: ""
}
layer {
  name: "mnist"
  type: "Data"
  top: "data"
  top: "label"
  include {
    phase: TRAIN
  }
  transform_param {
    scale: 0.00390625
  }
  data_param {
    source: "examples/mnist/mnist_train_lmdb"
    batch_size: 64
    backend: LMDB
  }
}
layer {
  name: "conv0"
  type: "Convolution"
  bottom: "data"
  top: "conv0"
  param {
    lr_mult: 1
  }
  param {
    lr_mult: 2
  }
  convolution_param {
    num_output: 10
    kernel_size: 5
    stride: 1
    weight_filler {
      type: "xavier"
    }
    bias_filler {
      type: "constant"
    }
  }
}
layer {
  name: "pool0"
  type: "Pooling"
  bottom: "conv0"
  top: "pool0"
  pooling_param {
    pool: MAX
    kernel_size: 2
    stride: 2
  }
}
layer {
  name: "conv1"
  type: "Convolution"
  bottom: "pool0"
  top: "conv1"
  param {
    lr_mult: 1
  }
  param {
    lr_mult: 2
  }
  convolution_param {
    num_output: 100
    kernel_size: 5
    stride: 1
    weight_filler {
      type: "xavier"
    }
    bias_filler {
      type: "constant"
    }
  }
}
layer {
  name: "pool1"
  type: "Pooling"
  bottom: "conv1"
  top: "pool1"
  pooling_param {
    pool: MAX
    kernel_size: 2
    stride: 2
  }
}
layer {
  name: "ip1"
  type: "InnerProduct"
  bottom: "pool1"
  top: "ip1"
  param {
    lr_mult: 1
  }
  param {
    lr_mult: 2
  }
  inner_product_param {
    num_output: 25
    weight_filler {
      type: "xavier"
    }
    bias_filler {
      type: "constant"
    }
  }
}
layer {
  name: "relu1"
  type: "ReLU"
  bottom: "ip1"
  top: "ip1"
}
layer {
  name: "ip2"
  type: "InnerProduct"
  bottom: "ip1"
  top: "ip2"
  param {
    lr_mult: 1
  }
  param {
    lr_mult: 2
  }
  inner_product_param {
    num_output: 10
    weight_filler {
      type: "xavier"
    }
    bias_filler {
      type: "constant"
    }
  }
}
layer {
  name: "relu2"
  type: "ReLU"
  bottom: "ip2"
  top: "ip2"
}
layer {
  name: "loss"
  type: "SoftmaxWithLoss"
  bottom: "ip2"
  bottom: "label"
  top: "loss"
}
I0428 20:03:06.391924 30121 layer_factory.hpp:77] Creating layer mnist
I0428 20:03:06.392006 30121 db_lmdb.cpp:35] Opened lmdb examples/mnist/mnist_train_lmdb
I0428 20:03:06.392025 30121 net.cpp:86] Creating Layer mnist
I0428 20:03:06.392032 30121 net.cpp:382] mnist -> data
I0428 20:03:06.392050 30121 net.cpp:382] mnist -> label
I0428 20:03:06.393084 30121 data_layer.cpp:45] output data size: 64,1,28,28
I0428 20:03:06.395515 30121 net.cpp:124] Setting up mnist
I0428 20:03:06.395545 30121 net.cpp:131] Top shape: 64 1 28 28 (50176)
I0428 20:03:06.395551 30121 net.cpp:131] Top shape: 64 (64)
I0428 20:03:06.395555 30121 net.cpp:139] Memory required for data: 200960
I0428 20:03:06.395560 30121 layer_factory.hpp:77] Creating layer conv0
I0428 20:03:06.395572 30121 net.cpp:86] Creating Layer conv0
I0428 20:03:06.395576 30121 net.cpp:408] conv0 <- data
I0428 20:03:06.395587 30121 net.cpp:382] conv0 -> conv0
I0428 20:03:06.628582 30121 net.cpp:124] Setting up conv0
I0428 20:03:06.628624 30121 net.cpp:131] Top shape: 64 10 24 24 (368640)
I0428 20:03:06.628629 30121 net.cpp:139] Memory required for data: 1675520
I0428 20:03:06.628662 30121 layer_factory.hpp:77] Creating layer pool0
I0428 20:03:06.628691 30121 net.cpp:86] Creating Layer pool0
I0428 20:03:06.628695 30121 net.cpp:408] pool0 <- conv0
I0428 20:03:06.628700 30121 net.cpp:382] pool0 -> pool0
I0428 20:03:06.628747 30121 net.cpp:124] Setting up pool0
I0428 20:03:06.628756 30121 net.cpp:131] Top shape: 64 10 12 12 (92160)
I0428 20:03:06.628758 30121 net.cpp:139] Memory required for data: 2044160
I0428 20:03:06.628762 30121 layer_factory.hpp:77] Creating layer conv1
I0428 20:03:06.628772 30121 net.cpp:86] Creating Layer conv1
I0428 20:03:06.628775 30121 net.cpp:408] conv1 <- pool0
I0428 20:03:06.628780 30121 net.cpp:382] conv1 -> conv1
I0428 20:03:06.630951 30121 net.cpp:124] Setting up conv1
I0428 20:03:06.630981 30121 net.cpp:131] Top shape: 64 100 8 8 (409600)
I0428 20:03:06.630985 30121 net.cpp:139] Memory required for data: 3682560
I0428 20:03:06.631008 30121 layer_factory.hpp:77] Creating layer pool1
I0428 20:03:06.631016 30121 net.cpp:86] Creating Layer pool1
I0428 20:03:06.631021 30121 net.cpp:408] pool1 <- conv1
I0428 20:03:06.631041 30121 net.cpp:382] pool1 -> pool1
I0428 20:03:06.631099 30121 net.cpp:124] Setting up pool1
I0428 20:03:06.631108 30121 net.cpp:131] Top shape: 64 100 4 4 (102400)
I0428 20:03:06.631110 30121 net.cpp:139] Memory required for data: 4092160
I0428 20:03:06.631114 30121 layer_factory.hpp:77] Creating layer ip1
I0428 20:03:06.631121 30121 net.cpp:86] Creating Layer ip1
I0428 20:03:06.631124 30121 net.cpp:408] ip1 <- pool1
I0428 20:03:06.631129 30121 net.cpp:382] ip1 -> ip1
I0428 20:03:06.631497 30121 net.cpp:124] Setting up ip1
I0428 20:03:06.631516 30121 net.cpp:131] Top shape: 64 25 (1600)
I0428 20:03:06.631534 30121 net.cpp:139] Memory required for data: 4098560
I0428 20:03:06.631541 30121 layer_factory.hpp:77] Creating layer relu1
I0428 20:03:06.631547 30121 net.cpp:86] Creating Layer relu1
I0428 20:03:06.631551 30121 net.cpp:408] relu1 <- ip1
I0428 20:03:06.631556 30121 net.cpp:369] relu1 -> ip1 (in-place)
I0428 20:03:06.631712 30121 net.cpp:124] Setting up relu1
I0428 20:03:06.631721 30121 net.cpp:131] Top shape: 64 25 (1600)
I0428 20:03:06.631724 30121 net.cpp:139] Memory required for data: 4104960
I0428 20:03:06.631727 30121 layer_factory.hpp:77] Creating layer ip2
I0428 20:03:06.631733 30121 net.cpp:86] Creating Layer ip2
I0428 20:03:06.631736 30121 net.cpp:408] ip2 <- ip1
I0428 20:03:06.631742 30121 net.cpp:382] ip2 -> ip2
I0428 20:03:06.631832 30121 net.cpp:124] Setting up ip2
I0428 20:03:06.631839 30121 net.cpp:131] Top shape: 64 10 (640)
I0428 20:03:06.631842 30121 net.cpp:139] Memory required for data: 4107520
I0428 20:03:06.631849 30121 layer_factory.hpp:77] Creating layer relu2
I0428 20:03:06.631855 30121 net.cpp:86] Creating Layer relu2
I0428 20:03:06.631858 30121 net.cpp:408] relu2 <- ip2
I0428 20:03:06.631862 30121 net.cpp:369] relu2 -> ip2 (in-place)
I0428 20:03:06.632712 30121 net.cpp:124] Setting up relu2
I0428 20:03:06.632725 30121 net.cpp:131] Top shape: 64 10 (640)
I0428 20:03:06.632743 30121 net.cpp:139] Memory required for data: 4110080
I0428 20:03:06.632747 30121 layer_factory.hpp:77] Creating layer loss
I0428 20:03:06.632753 30121 net.cpp:86] Creating Layer loss
I0428 20:03:06.632757 30121 net.cpp:408] loss <- ip2
I0428 20:03:06.632761 30121 net.cpp:408] loss <- label
I0428 20:03:06.632767 30121 net.cpp:382] loss -> loss
I0428 20:03:06.632786 30121 layer_factory.hpp:77] Creating layer loss
…
I0428 20:03:06.633489 30121 solver.cpp:173] Creating test net (#0) specified by net file: ECE595/mnist/train_test/var_everything2/lenet_train_test944.prototxt
I0428 20:03:06.633533 30121 net.cpp:296] The NetState phase (1) differed from the phase (0) specified by a rule in layer mnist
I0428 20:03:06.633635 30121 net.cpp:53] Initializing net from parameters: 
name: "LeNet"
state {
  phase: TEST
}
layer {
  name: "mnist"
  type: "Data"
  top: "data"
  top: "label"
  include {
    phase: TEST
  }
  transform_param {
    scale: 0.00390625
  }
  data_param {
    source: "examples/mnist/mnist_test_lmdb"
    batch_size: 100
    backend: LMDB
  }
}
layer {
  name: "conv0"
  type: "Convolution"
  bottom: "data"
  top: "conv0"
  param {
    lr_mult: 1
  }
  param {
    lr_mult: 2
  }
  convolution_param {
    num_output: 10
    kernel_size: 5
    stride: 1
    weight_filler {
      type: "xavier"
    }
    bias_filler {
      type: "constant"
    }
  }
}
layer {
  name: "pool0"
  type: "Pooling"
  bottom: "conv0"
  top: "pool0"
  pooling_param {
    pool: MAX
    kernel_size: 2
    stride: 2
  }
}
layer {
  name: "conv1"
  type: "Convolution"
  bottom: "pool0"
  top: "conv1"
  param {
    lr_mult: 1
  }
  param {
    lr_mult: 2
  }
  convolution_param {
    num_output: 100
    kernel_size: 5
    stride: 1
    weight_filler {
      type: "xavier"
    }
    bias_filler {
      type: "constant"
    }
  }
}
layer {
  name: "pool1"
  type: "Pooling"
  bottom: "conv1"
  top: "pool1"
  pooling_param {
    pool: MAX
    kernel_size: 2
    stride: 2
  }
}
layer {
  name: "ip1"
  type: "InnerProduct"
  bottom: "pool1"
  top: "ip1"
  param {
    lr_mult: 1
  }
  param {
    lr_mult: 2
  }
  inner_product_param {
    num_output: 25
    weight_filler {
      type: "xavier"
    }
    bias_filler {
      type: "constant"
    }
  }
}
layer {
  name: "relu1"
  type: "ReLU"
  bottom: "ip1"
  top: "ip1"
}
layer {
  name: "ip2"
  type: "InnerProduct"
  bottom: "ip1"
  top: "ip2"
  param {
    lr_mult: 1
  }
  param {
    lr_mult: 2
  }
  inner_product_param {
    num_output: 10
    weight_filler {
      type: "xavier"
    }
    bias_filler {
      type: "constant"
    }
  }
}
layer {
  name: "relu2"
  type: "ReLU"
  bottom: "ip2"
  top: "ip2"
}
layer {
  name: "accuracy"
  type: "Accuracy"
  bottom: "ip2"
  bottom: "label"
  top: "accuracy"
  include {
    phase: TEST
  }
}
layer {
  name: "loss"
  type: "SoftmaxWithLoss"
  bottom: "ip2"
  bottom: "label"
  top: "loss"
}
I0428 20:03:06.633707 30121 layer_factory.hpp:77] Creating layer mnist
I0428 20:03:06.633769 30121 db_lmdb.cpp:35] Opened lmdb examples/mnist/mnist_test_lmdb
I0428 20:03:06.633781 30121 net.cpp:86] Creating Layer mnist
I0428 20:03:06.633786 30121 net.cpp:382] mnist -> data
I0428 20:03:06.633795 30121 net.cpp:382] mnist -> label
I0428 20:03:06.633894 30121 data_layer.cpp:45] output data size: 100,1,28,28
I0428 20:03:06.636008 30121 net.cpp:124] Setting up mnist
I0428 20:03:06.636037 30121 net.cpp:131] Top shape: 100 1 28 28 (78400)
I0428 20:03:06.636044 30121 net.cpp:131] Top shape: 100 (100)
I0428 20:03:06.636046 30121 net.cpp:139] Memory required for data: 314000
I0428 20:03:06.636050 30121 layer_factory.hpp:77] Creating layer label_mnist_1_split
I0428 20:03:06.636082 30121 net.cpp:86] Creating Layer label_mnist_1_split
I0428 20:03:06.636087 30121 net.cpp:408] label_mnist_1_split <- label
I0428 20:03:06.636092 30121 net.cpp:382] label_mnist_1_split -> label_mnist_1_split_0
I0428 20:03:06.636111 30121 net.cpp:382] label_mnist_1_split -> label_mnist_1_split_1
I0428 20:03:06.636212 30121 net.cpp:124] Setting up label_mnist_1_split
I0428 20:03:06.636220 30121 net.cpp:131] Top shape: 100 (100)
I0428 20:03:06.636224 30121 net.cpp:131] Top shape: 100 (100)
I0428 20:03:06.636227 30121 net.cpp:139] Memory required for data: 314800
I0428 20:03:06.636230 30121 layer_factory.hpp:77] Creating layer conv0
I0428 20:03:06.636238 30121 net.cpp:86] Creating Layer conv0
I0428 20:03:06.636242 30121 net.cpp:408] conv0 <- data
I0428 20:03:06.636247 30121 net.cpp:382] conv0 -> conv0
I0428 20:03:06.638027 30121 net.cpp:124] Setting up conv0
I0428 20:03:06.638041 30121 net.cpp:131] Top shape: 100 10 24 24 (576000)
I0428 20:03:06.638046 30121 net.cpp:139] Memory required for data: 2618800
I0428 20:03:06.638054 30121 layer_factory.hpp:77] Creating layer pool0
I0428 20:03:06.638061 30121 net.cpp:86] Creating Layer pool0
I0428 20:03:06.638064 30121 net.cpp:408] pool0 <- conv0
I0428 20:03:06.638069 30121 net.cpp:382] pool0 -> pool0
I0428 20:03:06.638103 30121 net.cpp:124] Setting up pool0
I0428 20:03:06.638111 30121 net.cpp:131] Top shape: 100 10 12 12 (144000)
I0428 20:03:06.638113 30121 net.cpp:139] Memory required for data: 3194800
I0428 20:03:06.638116 30121 layer_factory.hpp:77] Creating layer conv1
I0428 20:03:06.638125 30121 net.cpp:86] Creating Layer conv1
I0428 20:03:06.638128 30121 net.cpp:408] conv1 <- pool0
I0428 20:03:06.638134 30121 net.cpp:382] conv1 -> conv1
I0428 20:03:06.640063 30121 net.cpp:124] Setting up conv1
I0428 20:03:06.640075 30121 net.cpp:131] Top shape: 100 100 8 8 (640000)
I0428 20:03:06.640079 30121 net.cpp:139] Memory required for data: 5754800
I0428 20:03:06.640086 30121 layer_factory.hpp:77] Creating layer pool1
I0428 20:03:06.640110 30121 net.cpp:86] Creating Layer pool1
I0428 20:03:06.640115 30121 net.cpp:408] pool1 <- conv1
I0428 20:03:06.640135 30121 net.cpp:382] pool1 -> pool1
I0428 20:03:06.640171 30121 net.cpp:124] Setting up pool1
I0428 20:03:06.640177 30121 net.cpp:131] Top shape: 100 100 4 4 (160000)
I0428 20:03:06.640179 30121 net.cpp:139] Memory required for data: 6394800
I0428 20:03:06.640182 30121 layer_factory.hpp:77] Creating layer ip1
I0428 20:03:06.640189 30121 net.cpp:86] Creating Layer ip1
I0428 20:03:06.640192 30121 net.cpp:408] ip1 <- pool1
I0428 20:03:06.640197 30121 net.cpp:382] ip1 -> ip1
I0428 20:03:06.640554 30121 net.cpp:124] Setting up ip1
I0428 20:03:06.640563 30121 net.cpp:131] Top shape: 100 25 (2500)
I0428 20:03:06.640566 30121 net.cpp:139] Memory required for data: 6404800
I0428 20:03:06.640573 30121 layer_factory.hpp:77] Creating layer relu1
I0428 20:03:06.640581 30121 net.cpp:86] Creating Layer relu1
I0428 20:03:06.640584 30121 net.cpp:408] relu1 <- ip1
I0428 20:03:06.640588 30121 net.cpp:369] relu1 -> ip1 (in-place)
I0428 20:03:06.640750 30121 net.cpp:124] Setting up relu1
I0428 20:03:06.640759 30121 net.cpp:131] Top shape: 100 25 (2500)
I0428 20:03:06.640763 30121 net.cpp:139] Memory required for data: 6414800
I0428 20:03:06.640766 30121 layer_factory.hpp:77] Creating layer ip2
I0428 20:03:06.640774 30121 net.cpp:86] Creating Layer ip2
I0428 20:03:06.640777 30121 net.cpp:408] ip2 <- ip1
I0428 20:03:06.640790 30121 net.cpp:382] ip2 -> ip2
I0428 20:03:06.640933 30121 net.cpp:124] Setting up ip2
I0428 20:03:06.640943 30121 net.cpp:131] Top shape: 100 10 (1000)
I0428 20:03:06.640946 30121 net.cpp:139] Memory required for data: 6418800
I0428 20:03:06.640959 30121 layer_factory.hpp:77] Creating layer relu2
I0428 20:03:06.640964 30121 net.cpp:86] Creating Layer relu2
I0428 20:03:06.640966 30121 net.cpp:408] relu2 <- ip2
I0428 20:03:06.640971 30121 net.cpp:369] relu2 -> ip2 (in-place)
I0428 20:03:06.641244 30121 net.cpp:124] Setting up relu2
I0428 20:03:06.641254 30121 net.cpp:131] Top shape: 100 10 (1000)
I0428 20:03:06.641258 30121 net.cpp:139] Memory required for data: 6422800
I0428 20:03:06.641261 30121 layer_factory.hpp:77] Creating layer ip2_relu2_0_split
I0428 20:03:06.641266 30121 net.cpp:86] Creating Layer ip2_relu2_0_split
I0428 20:03:06.641269 30121 net.cpp:408] ip2_relu2_0_split <- ip2
I0428 20:03:06.641274 30121 net.cpp:382] ip2_relu2_0_split -> ip2_relu2_0_split_0
I0428 20:03:06.641291 30121 net.cpp:382] ip2_relu2_0_split -> ip2_relu2_0_split_1
I0428 20:03:06.641345 30121 net.cpp:124] Setting up ip2_relu2_0_split
I0428 20:03:06.641355 30121 net.cpp:131] Top shape: 100 10 (1000)
I0428 20:03:06.641358 30121 net.cpp:131] Top shape: 100 10 (1000)
I0428 20:03:06.641361 30121 net.cpp:139] Memory required for data: 6430800
I0428 20:03:06.641365 30121 layer_factory.hpp:77] Creating layer accuracy
I0428 20:03:06.641369 30121 net.cpp:86] Creating Layer accuracy
I0428 20:03:06.641373 30121 net.cpp:408] accuracy <- ip2_relu2_0_split_0
I0428 20:03:06.641377 30121 net.cpp:408] accuracy <- label_mnist_1_split_0
I0428 20:03:06.641386 30121 net.cpp:382] accuracy -> accuracy
…
