…
I0428 19:45:22.076793 25790 net.cpp:296] The NetState phase (0) differed from the phase (1) specified by a rule in layer mnist
I0428 19:45:22.076815 25790 net.cpp:296] The NetState phase (0) differed from the phase (1) specified by a rule in layer accuracy
I0428 19:45:22.076898 25790 net.cpp:53] Initializing net from parameters: 
name: "LeNet"
state {
  phase: TRAIN
  level: 0
  stage: ""
}
layer {
  name: "mnist"
  type: "Data"
  top: "data"
  top: "label"
  include {
    phase: TRAIN
  }
  transform_param {
    scale: 0.00390625
  }
  data_param {
    source: "examples/mnist/mnist_train_lmdb"
    batch_size: 64
    backend: LMDB
  }
}
layer {
  name: "conv0"
  type: "Convolution"
  bottom: "data"
  top: "conv0"
  param {
    lr_mult: 1
  }
  param {
    lr_mult: 2
  }
  convolution_param {
    num_output: 2
    kernel_size: 5
    stride: 1
    weight_filler {
      type: "xavier"
    }
    bias_filler {
      type: "constant"
    }
  }
}
layer {
  name: "pool0"
  type: "Pooling"
  bottom: "conv0"
  top: "pool0"
  pooling_param {
    pool: MAX
    kernel_size: 2
    stride: 2
  }
}
layer {
  name: "conv1"
  type: "Convolution"
  bottom: "pool0"
  top: "conv1"
  param {
    lr_mult: 1
  }
  param {
    lr_mult: 2
  }
  convolution_param {
    num_output: 100
    kernel_size: 5
    stride: 1
    weight_filler {
      type: "xavier"
    }
    bias_filler {
      type: "constant"
    }
  }
}
layer {
  name: "pool1"
  type: "Pooling"
  bottom: "conv1"
  top: "pool1"
  pooling_param {
    pool: MAX
    kernel_size: 2
    stride: 2
  }
}
layer {
  name: "ip1"
  type: "InnerProduct"
  bottom: "pool1"
  top: "ip1"
  param {
    lr_mult: 1
  }
  param {
    lr_mult: 2
  }
  inner_product_param {
    num_output: 10
    weight_filler {
      type: "xavier"
    }
    bias_filler {
      type: "constant"
    }
  }
}
layer {
  name: "relu1"
  type: "ReLU"
  bottom: "ip1"
  top: "ip1"
}
layer {
  name: "loss"
  type: "SoftmaxWithLoss"
  bottom: "ip1"
  bottom: "label"
  top: "loss"
}
I0428 19:45:22.076967 25790 layer_factory.hpp:77] Creating layer mnist
I0428 19:45:22.077069 25790 db_lmdb.cpp:35] Opened lmdb examples/mnist/mnist_train_lmdb
I0428 19:45:22.077092 25790 net.cpp:86] Creating Layer mnist
I0428 19:45:22.077101 25790 net.cpp:382] mnist -> data
I0428 19:45:22.077121 25790 net.cpp:382] mnist -> label
I0428 19:45:22.078171 25790 data_layer.cpp:45] output data size: 64,1,28,28
I0428 19:45:22.080549 25790 net.cpp:124] Setting up mnist
I0428 19:45:22.080567 25790 net.cpp:131] Top shape: 64 1 28 28 (50176)
I0428 19:45:22.080574 25790 net.cpp:131] Top shape: 64 (64)
I0428 19:45:22.080577 25790 net.cpp:139] Memory required for data: 200960
I0428 19:45:22.080584 25790 layer_factory.hpp:77] Creating layer conv0
I0428 19:45:22.080636 25790 net.cpp:86] Creating Layer conv0
I0428 19:45:22.080642 25790 net.cpp:408] conv0 <- data
I0428 19:45:22.080653 25790 net.cpp:382] conv0 -> conv0
I0428 19:45:22.366300 25790 net.cpp:124] Setting up conv0
I0428 19:45:22.366330 25790 net.cpp:131] Top shape: 64 2 24 24 (73728)
I0428 19:45:22.366334 25790 net.cpp:139] Memory required for data: 495872
I0428 19:45:22.366353 25790 layer_factory.hpp:77] Creating layer pool0
I0428 19:45:22.366367 25790 net.cpp:86] Creating Layer pool0
I0428 19:45:22.366372 25790 net.cpp:408] pool0 <- conv0
I0428 19:45:22.366379 25790 net.cpp:382] pool0 -> pool0
I0428 19:45:22.366430 25790 net.cpp:124] Setting up pool0
I0428 19:45:22.366436 25790 net.cpp:131] Top shape: 64 2 12 12 (18432)
I0428 19:45:22.366454 25790 net.cpp:139] Memory required for data: 569600
I0428 19:45:22.366458 25790 layer_factory.hpp:77] Creating layer conv1
I0428 19:45:22.366470 25790 net.cpp:86] Creating Layer conv1
I0428 19:45:22.366474 25790 net.cpp:408] conv1 <- pool0
I0428 19:45:22.366479 25790 net.cpp:382] conv1 -> conv1
I0428 19:45:22.369380 25790 net.cpp:124] Setting up conv1
I0428 19:45:22.369396 25790 net.cpp:131] Top shape: 64 100 8 8 (409600)
I0428 19:45:22.369400 25790 net.cpp:139] Memory required for data: 2208000
I0428 19:45:22.369410 25790 layer_factory.hpp:77] Creating layer pool1
I0428 19:45:22.369417 25790 net.cpp:86] Creating Layer pool1
I0428 19:45:22.369421 25790 net.cpp:408] pool1 <- conv1
I0428 19:45:22.369427 25790 net.cpp:382] pool1 -> pool1
I0428 19:45:22.369467 25790 net.cpp:124] Setting up pool1
I0428 19:45:22.369472 25790 net.cpp:131] Top shape: 64 100 4 4 (102400)
I0428 19:45:22.369475 25790 net.cpp:139] Memory required for data: 2617600
I0428 19:45:22.369478 25790 layer_factory.hpp:77] Creating layer ip1
I0428 19:45:22.369485 25790 net.cpp:86] Creating Layer ip1
I0428 19:45:22.369489 25790 net.cpp:408] ip1 <- pool1
I0428 19:45:22.369493 25790 net.cpp:382] ip1 -> ip1
I0428 19:45:22.369685 25790 net.cpp:124] Setting up ip1
I0428 19:45:22.369693 25790 net.cpp:131] Top shape: 64 10 (640)
I0428 19:45:22.369696 25790 net.cpp:139] Memory required for data: 2620160
I0428 19:45:22.369704 25790 layer_factory.hpp:77] Creating layer relu1
I0428 19:45:22.369709 25790 net.cpp:86] Creating Layer relu1
I0428 19:45:22.369714 25790 net.cpp:408] relu1 <- ip1
I0428 19:45:22.369717 25790 net.cpp:369] relu1 -> ip1 (in-place)
I0428 19:45:22.369894 25790 net.cpp:124] Setting up relu1
I0428 19:45:22.369904 25790 net.cpp:131] Top shape: 64 10 (640)
I0428 19:45:22.369907 25790 net.cpp:139] Memory required for data: 2622720
I0428 19:45:22.369910 25790 layer_factory.hpp:77] Creating layer loss
I0428 19:45:22.369916 25790 net.cpp:86] Creating Layer loss
I0428 19:45:22.369920 25790 net.cpp:408] loss <- ip1
I0428 19:45:22.369923 25790 net.cpp:408] loss <- label
I0428 19:45:22.369928 25790 net.cpp:382] loss -> loss
I0428 19:45:22.369947 25790 layer_factory.hpp:77] Creating layer loss
…
I0428 19:45:22.371137 25790 solver.cpp:173] Creating test net (#0) specified by net file: ECE595/mnist/train_test/var_everything2/lenet_train_test470.prototxt
I0428 19:45:22.371162 25790 net.cpp:296] The NetState phase (1) differed from the phase (0) specified by a rule in layer mnist
I0428 19:45:22.371242 25790 net.cpp:53] Initializing net from parameters: 
name: "LeNet"
state {
  phase: TEST
}
layer {
  name: "mnist"
  type: "Data"
  top: "data"
  top: "label"
  include {
    phase: TEST
  }
  transform_param {
    scale: 0.00390625
  }
  data_param {
    source: "examples/mnist/mnist_test_lmdb"
    batch_size: 100
    backend: LMDB
  }
}
layer {
  name: "conv0"
  type: "Convolution"
  bottom: "data"
  top: "conv0"
  param {
    lr_mult: 1
  }
  param {
    lr_mult: 2
  }
  convolution_param {
    num_output: 2
    kernel_size: 5
    stride: 1
    weight_filler {
      type: "xavier"
    }
    bias_filler {
      type: "constant"
    }
  }
}
layer {
  name: "pool0"
  type: "Pooling"
  bottom: "conv0"
  top: "pool0"
  pooling_param {
    pool: MAX
    kernel_size: 2
    stride: 2
  }
}
layer {
  name: "conv1"
  type: "Convolution"
  bottom: "pool0"
  top: "conv1"
  param {
    lr_mult: 1
  }
  param {
    lr_mult: 2
  }
  convolution_param {
    num_output: 100
    kernel_size: 5
    stride: 1
    weight_filler {
      type: "xavier"
    }
    bias_filler {
      type: "constant"
    }
  }
}
layer {
  name: "pool1"
  type: "Pooling"
  bottom: "conv1"
  top: "pool1"
  pooling_param {
    pool: MAX
    kernel_size: 2
    stride: 2
  }
}
layer {
  name: "ip1"
  type: "InnerProduct"
  bottom: "pool1"
  top: "ip1"
  param {
    lr_mult: 1
  }
  param {
    lr_mult: 2
  }
  inner_product_param {
    num_output: 10
    weight_filler {
      type: "xavier"
    }
    bias_filler {
      type: "constant"
    }
  }
}
layer {
  name: "relu1"
  type: "ReLU"
  bottom: "ip1"
  top: "ip1"
}
layer {
  name: "accuracy"
  type: "Accuracy"
  bottom: "ip1"
  bottom: "label"
  top: "accuracy"
  include {
    phase: TEST
  }
}
layer {
  name: "loss"
  type: "SoftmaxWithLoss"
  bottom: "ip1"
  bottom: "label"
  top: "loss"
}
I0428 19:45:22.371312 25790 layer_factory.hpp:77] Creating layer mnist
I0428 19:45:22.371358 25790 db_lmdb.cpp:35] Opened lmdb examples/mnist/mnist_test_lmdb
I0428 19:45:22.371371 25790 net.cpp:86] Creating Layer mnist
I0428 19:45:22.371376 25790 net.cpp:382] mnist -> data
I0428 19:45:22.371383 25790 net.cpp:382] mnist -> label
I0428 19:45:22.371470 25790 data_layer.cpp:45] output data size: 100,1,28,28
I0428 19:45:22.373515 25790 net.cpp:124] Setting up mnist
I0428 19:45:22.373530 25790 net.cpp:131] Top shape: 100 1 28 28 (78400)
I0428 19:45:22.373536 25790 net.cpp:131] Top shape: 100 (100)
I0428 19:45:22.373539 25790 net.cpp:139] Memory required for data: 314000
I0428 19:45:22.373543 25790 layer_factory.hpp:77] Creating layer label_mnist_1_split
I0428 19:45:22.373550 25790 net.cpp:86] Creating Layer label_mnist_1_split
I0428 19:45:22.373554 25790 net.cpp:408] label_mnist_1_split <- label
I0428 19:45:22.373559 25790 net.cpp:382] label_mnist_1_split -> label_mnist_1_split_0
I0428 19:45:22.373566 25790 net.cpp:382] label_mnist_1_split -> label_mnist_1_split_1
I0428 19:45:22.373616 25790 net.cpp:124] Setting up label_mnist_1_split
I0428 19:45:22.373621 25790 net.cpp:131] Top shape: 100 (100)
I0428 19:45:22.373625 25790 net.cpp:131] Top shape: 100 (100)
I0428 19:45:22.373628 25790 net.cpp:139] Memory required for data: 314800
I0428 19:45:22.373631 25790 layer_factory.hpp:77] Creating layer conv0
I0428 19:45:22.373639 25790 net.cpp:86] Creating Layer conv0
I0428 19:45:22.373644 25790 net.cpp:408] conv0 <- data
I0428 19:45:22.373649 25790 net.cpp:382] conv0 -> conv0
I0428 19:45:22.374608 25790 net.cpp:124] Setting up conv0
I0428 19:45:22.374620 25790 net.cpp:131] Top shape: 100 2 24 24 (115200)
I0428 19:45:22.374624 25790 net.cpp:139] Memory required for data: 775600
I0428 19:45:22.374634 25790 layer_factory.hpp:77] Creating layer pool0
I0428 19:45:22.374639 25790 net.cpp:86] Creating Layer pool0
I0428 19:45:22.374642 25790 net.cpp:408] pool0 <- conv0
I0428 19:45:22.374647 25790 net.cpp:382] pool0 -> pool0
I0428 19:45:22.374685 25790 net.cpp:124] Setting up pool0
I0428 19:45:22.374691 25790 net.cpp:131] Top shape: 100 2 12 12 (28800)
I0428 19:45:22.374692 25790 net.cpp:139] Memory required for data: 890800
I0428 19:45:22.374696 25790 layer_factory.hpp:77] Creating layer conv1
I0428 19:45:22.374704 25790 net.cpp:86] Creating Layer conv1
I0428 19:45:22.374707 25790 net.cpp:408] conv1 <- pool0
I0428 19:45:22.374712 25790 net.cpp:382] conv1 -> conv1
I0428 19:45:22.376253 25790 net.cpp:124] Setting up conv1
I0428 19:45:22.376271 25790 net.cpp:131] Top shape: 100 100 8 8 (640000)
I0428 19:45:22.376276 25790 net.cpp:139] Memory required for data: 3450800
I0428 19:45:22.376283 25790 layer_factory.hpp:77] Creating layer pool1
I0428 19:45:22.376291 25790 net.cpp:86] Creating Layer pool1
I0428 19:45:22.376304 25790 net.cpp:408] pool1 <- conv1
I0428 19:45:22.376312 25790 net.cpp:382] pool1 -> pool1
I0428 19:45:22.376350 25790 net.cpp:124] Setting up pool1
I0428 19:45:22.376356 25790 net.cpp:131] Top shape: 100 100 4 4 (160000)
I0428 19:45:22.376360 25790 net.cpp:139] Memory required for data: 4090800
I0428 19:45:22.376363 25790 layer_factory.hpp:77] Creating layer ip1
I0428 19:45:22.376369 25790 net.cpp:86] Creating Layer ip1
I0428 19:45:22.376372 25790 net.cpp:408] ip1 <- pool1
I0428 19:45:22.376377 25790 net.cpp:382] ip1 -> ip1
I0428 19:45:22.376569 25790 net.cpp:124] Setting up ip1
I0428 19:45:22.376579 25790 net.cpp:131] Top shape: 100 10 (1000)
I0428 19:45:22.376581 25790 net.cpp:139] Memory required for data: 4094800
I0428 19:45:22.376590 25790 layer_factory.hpp:77] Creating layer relu1
I0428 19:45:22.376603 25790 net.cpp:86] Creating Layer relu1
I0428 19:45:22.376607 25790 net.cpp:408] relu1 <- ip1
I0428 19:45:22.376611 25790 net.cpp:369] relu1 -> ip1 (in-place)
I0428 19:45:22.377480 25790 net.cpp:124] Setting up relu1
I0428 19:45:22.377493 25790 net.cpp:131] Top shape: 100 10 (1000)
I0428 19:45:22.377497 25790 net.cpp:139] Memory required for data: 4098800
I0428 19:45:22.377501 25790 layer_factory.hpp:77] Creating layer ip1_relu1_0_split
I0428 19:45:22.377508 25790 net.cpp:86] Creating Layer ip1_relu1_0_split
I0428 19:45:22.377511 25790 net.cpp:408] ip1_relu1_0_split <- ip1
I0428 19:45:22.377517 25790 net.cpp:382] ip1_relu1_0_split -> ip1_relu1_0_split_0
I0428 19:45:22.377524 25790 net.cpp:382] ip1_relu1_0_split -> ip1_relu1_0_split_1
I0428 19:45:22.377568 25790 net.cpp:124] Setting up ip1_relu1_0_split
I0428 19:45:22.377573 25790 net.cpp:131] Top shape: 100 10 (1000)
I0428 19:45:22.377576 25790 net.cpp:131] Top shape: 100 10 (1000)
I0428 19:45:22.377579 25790 net.cpp:139] Memory required for data: 4106800
I0428 19:45:22.377583 25790 layer_factory.hpp:77] Creating layer accuracy
I0428 19:45:22.377588 25790 net.cpp:86] Creating Layer accuracy
I0428 19:45:22.377591 25790 net.cpp:408] accuracy <- ip1_relu1_0_split_0
I0428 19:45:22.377595 25790 net.cpp:408] accuracy <- label_mnist_1_split_0
I0428 19:45:22.377599 25790 net.cpp:382] accuracy -> accuracy
…
