…
I0428 20:16:00.058636   565 net.cpp:296] The NetState phase (0) differed from the phase (1) specified by a rule in layer mnist
I0428 20:16:00.058681   565 net.cpp:296] The NetState phase (0) differed from the phase (1) specified by a rule in layer accuracy
I0428 20:16:00.058764   565 net.cpp:53] Initializing net from parameters: 
name: "LeNet"
state {
  phase: TRAIN
  level: 0
  stage: ""
}
layer {
  name: "mnist"
  type: "Data"
  top: "data"
  top: "label"
  include {
    phase: TRAIN
  }
  transform_param {
    scale: 0.00390625
  }
  data_param {
    source: "examples/mnist/mnist_train_lmdb"
    batch_size: 64
    backend: LMDB
  }
}
layer {
  name: "conv0"
  type: "Convolution"
  bottom: "data"
  top: "conv0"
  param {
    lr_mult: 1
  }
  param {
    lr_mult: 2
  }
  convolution_param {
    num_output: 50
    kernel_size: 5
    stride: 1
    weight_filler {
      type: "xavier"
    }
    bias_filler {
      type: "constant"
    }
  }
}
layer {
  name: "pool0"
  type: "Pooling"
  bottom: "conv0"
  top: "pool0"
  pooling_param {
    pool: MAX
    kernel_size: 2
    stride: 2
  }
}
layer {
  name: "conv1"
  type: "Convolution"
  bottom: "pool0"
  top: "conv1"
  param {
    lr_mult: 1
  }
  param {
    lr_mult: 2
  }
  convolution_param {
    num_output: 5
    kernel_size: 5
    stride: 1
    weight_filler {
      type: "xavier"
    }
    bias_filler {
      type: "constant"
    }
  }
}
layer {
  name: "pool1"
  type: "Pooling"
  bottom: "conv1"
  top: "pool1"
  pooling_param {
    pool: MAX
    kernel_size: 2
    stride: 2
  }
}
layer {
  name: "ip1"
  type: "InnerProduct"
  bottom: "pool1"
  top: "ip1"
  param {
    lr_mult: 1
  }
  param {
    lr_mult: 2
  }
  inner_product_param {
    num_output: 10
    weight_filler {
      type: "xavier"
    }
    bias_filler {
      type: "constant"
    }
  }
}
layer {
  name: "relu1"
  type: "ReLU"
  bottom: "ip1"
  top: "ip1"
}
layer {
  name: "ip2"
  type: "InnerProduct"
  bottom: "ip1"
  top: "ip2"
  param {
    lr_mult: 1
  }
  param {
    lr_mult: 2
  }
  inner_product_param {
    num_output: 10
    weight_filler {
      type: "xavier"
    }
    bias_filler {
      type: "constant"
    }
  }
}
layer {
  name: "relu2"
  type: "ReLU"
  bottom: "ip2"
  top: "ip2"
}
layer {
  name: "ip3"
  type: "InnerProduct"
  bottom: "ip2"
  top: "ip3"
  param {
    lr_mult: 1
  }
  param {
    lr_mult: 2
  }
  inner_product_param {
    num_output: 10
    weight_filler {
      type: "xavier"
    }
    bias_filler {
      type: "constant"
    }
  }
}
layer {
  name: "relu3"
  type: "ReLU"
  bottom: "ip3"
  top: "ip3"
}
layer {
  name: "loss"
  type: "SoftmaxWithLoss"
  bottom: "ip3"
  bottom: "label"
  top: "loss"
}
I0428 20:16:00.058830   565 layer_factory.hpp:77] Creating layer mnist
I0428 20:16:00.058912   565 db_lmdb.cpp:35] Opened lmdb examples/mnist/mnist_train_lmdb
I0428 20:16:00.058933   565 net.cpp:86] Creating Layer mnist
I0428 20:16:00.058938   565 net.cpp:382] mnist -> data
I0428 20:16:00.058959   565 net.cpp:382] mnist -> label
I0428 20:16:00.059957   565 data_layer.cpp:45] output data size: 64,1,28,28
I0428 20:16:00.062163   565 net.cpp:124] Setting up mnist
I0428 20:16:00.062209   565 net.cpp:131] Top shape: 64 1 28 28 (50176)
I0428 20:16:00.062216   565 net.cpp:131] Top shape: 64 (64)
I0428 20:16:00.062218   565 net.cpp:139] Memory required for data: 200960
I0428 20:16:00.062225   565 layer_factory.hpp:77] Creating layer conv0
I0428 20:16:00.062237   565 net.cpp:86] Creating Layer conv0
I0428 20:16:00.062259   565 net.cpp:408] conv0 <- data
I0428 20:16:00.062271   565 net.cpp:382] conv0 -> conv0
I0428 20:16:00.296452   565 net.cpp:124] Setting up conv0
I0428 20:16:00.296495   565 net.cpp:131] Top shape: 64 50 24 24 (1843200)
I0428 20:16:00.296500   565 net.cpp:139] Memory required for data: 7573760
I0428 20:16:00.296515   565 layer_factory.hpp:77] Creating layer pool0
I0428 20:16:00.296542   565 net.cpp:86] Creating Layer pool0
I0428 20:16:00.296546   565 net.cpp:408] pool0 <- conv0
I0428 20:16:00.296552   565 net.cpp:382] pool0 -> pool0
I0428 20:16:00.296599   565 net.cpp:124] Setting up pool0
I0428 20:16:00.296607   565 net.cpp:131] Top shape: 64 50 12 12 (460800)
I0428 20:16:00.296609   565 net.cpp:139] Memory required for data: 9416960
I0428 20:16:00.296612   565 layer_factory.hpp:77] Creating layer conv1
I0428 20:16:00.296624   565 net.cpp:86] Creating Layer conv1
I0428 20:16:00.296629   565 net.cpp:408] conv1 <- pool0
I0428 20:16:00.296634   565 net.cpp:382] conv1 -> conv1
I0428 20:16:00.299401   565 net.cpp:124] Setting up conv1
I0428 20:16:00.299432   565 net.cpp:131] Top shape: 64 5 8 8 (20480)
I0428 20:16:00.299437   565 net.cpp:139] Memory required for data: 9498880
I0428 20:16:00.299446   565 layer_factory.hpp:77] Creating layer pool1
I0428 20:16:00.299469   565 net.cpp:86] Creating Layer pool1
I0428 20:16:00.299474   565 net.cpp:408] pool1 <- conv1
I0428 20:16:00.299479   565 net.cpp:382] pool1 -> pool1
I0428 20:16:00.299518   565 net.cpp:124] Setting up pool1
I0428 20:16:00.299525   565 net.cpp:131] Top shape: 64 5 4 4 (5120)
I0428 20:16:00.299528   565 net.cpp:139] Memory required for data: 9519360
I0428 20:16:00.299531   565 layer_factory.hpp:77] Creating layer ip1
I0428 20:16:00.299538   565 net.cpp:86] Creating Layer ip1
I0428 20:16:00.299541   565 net.cpp:408] ip1 <- pool1
I0428 20:16:00.299547   565 net.cpp:382] ip1 -> ip1
I0428 20:16:00.299659   565 net.cpp:124] Setting up ip1
I0428 20:16:00.299665   565 net.cpp:131] Top shape: 64 10 (640)
I0428 20:16:00.299669   565 net.cpp:139] Memory required for data: 9521920
I0428 20:16:00.299676   565 layer_factory.hpp:77] Creating layer relu1
I0428 20:16:00.299684   565 net.cpp:86] Creating Layer relu1
I0428 20:16:00.299688   565 net.cpp:408] relu1 <- ip1
I0428 20:16:00.299692   565 net.cpp:369] relu1 -> ip1 (in-place)
I0428 20:16:00.299868   565 net.cpp:124] Setting up relu1
I0428 20:16:00.299887   565 net.cpp:131] Top shape: 64 10 (640)
I0428 20:16:00.299890   565 net.cpp:139] Memory required for data: 9524480
I0428 20:16:00.299893   565 layer_factory.hpp:77] Creating layer ip2
I0428 20:16:00.299901   565 net.cpp:86] Creating Layer ip2
I0428 20:16:00.299904   565 net.cpp:408] ip2 <- ip1
I0428 20:16:00.299909   565 net.cpp:382] ip2 -> ip2
I0428 20:16:00.300006   565 net.cpp:124] Setting up ip2
I0428 20:16:00.300014   565 net.cpp:131] Top shape: 64 10 (640)
I0428 20:16:00.300016   565 net.cpp:139] Memory required for data: 9527040
I0428 20:16:00.300021   565 layer_factory.hpp:77] Creating layer relu2
I0428 20:16:00.300029   565 net.cpp:86] Creating Layer relu2
I0428 20:16:00.300031   565 net.cpp:408] relu2 <- ip2
I0428 20:16:00.300035   565 net.cpp:369] relu2 -> ip2 (in-place)
I0428 20:16:00.300882   565 net.cpp:124] Setting up relu2
I0428 20:16:00.300894   565 net.cpp:131] Top shape: 64 10 (640)
I0428 20:16:00.300915   565 net.cpp:139] Memory required for data: 9529600
I0428 20:16:00.300917   565 layer_factory.hpp:77] Creating layer ip3
I0428 20:16:00.300926   565 net.cpp:86] Creating Layer ip3
I0428 20:16:00.300930   565 net.cpp:408] ip3 <- ip2
I0428 20:16:00.300936   565 net.cpp:382] ip3 -> ip3
I0428 20:16:00.301035   565 net.cpp:124] Setting up ip3
I0428 20:16:00.301043   565 net.cpp:131] Top shape: 64 10 (640)
I0428 20:16:00.301046   565 net.cpp:139] Memory required for data: 9532160
I0428 20:16:00.301054   565 layer_factory.hpp:77] Creating layer relu3
I0428 20:16:00.301059   565 net.cpp:86] Creating Layer relu3
I0428 20:16:00.301062   565 net.cpp:408] relu3 <- ip3
I0428 20:16:00.301066   565 net.cpp:369] relu3 -> ip3 (in-place)
I0428 20:16:00.301259   565 net.cpp:124] Setting up relu3
I0428 20:16:00.301268   565 net.cpp:131] Top shape: 64 10 (640)
I0428 20:16:00.301271   565 net.cpp:139] Memory required for data: 9534720
I0428 20:16:00.301275   565 layer_factory.hpp:77] Creating layer loss
I0428 20:16:00.301280   565 net.cpp:86] Creating Layer loss
I0428 20:16:00.301283   565 net.cpp:408] loss <- ip3
I0428 20:16:00.301287   565 net.cpp:408] loss <- label
I0428 20:16:00.301293   565 net.cpp:382] loss -> loss
I0428 20:16:00.301319   565 layer_factory.hpp:77] Creating layer loss
…
I0428 20:16:00.302109   565 solver.cpp:173] Creating test net (#0) specified by net file: ECE595/mnist/train_test/var_everything2/lenet_train_test1260.prototxt
I0428 20:16:00.302155   565 net.cpp:296] The NetState phase (1) differed from the phase (0) specified by a rule in layer mnist
I0428 20:16:00.302271   565 net.cpp:53] Initializing net from parameters: 
name: "LeNet"
state {
  phase: TEST
}
layer {
  name: "mnist"
  type: "Data"
  top: "data"
  top: "label"
  include {
    phase: TEST
  }
  transform_param {
    scale: 0.00390625
  }
  data_param {
    source: "examples/mnist/mnist_test_lmdb"
    batch_size: 100
    backend: LMDB
  }
}
layer {
  name: "conv0"
  type: "Convolution"
  bottom: "data"
  top: "conv0"
  param {
    lr_mult: 1
  }
  param {
    lr_mult: 2
  }
  convolution_param {
    num_output: 50
    kernel_size: 5
    stride: 1
    weight_filler {
      type: "xavier"
    }
    bias_filler {
      type: "constant"
    }
  }
}
layer {
  name: "pool0"
  type: "Pooling"
  bottom: "conv0"
  top: "pool0"
  pooling_param {
    pool: MAX
    kernel_size: 2
    stride: 2
  }
}
layer {
  name: "conv1"
  type: "Convolution"
  bottom: "pool0"
  top: "conv1"
  param {
    lr_mult: 1
  }
  param {
    lr_mult: 2
  }
  convolution_param {
    num_output: 5
    kernel_size: 5
    stride: 1
    weight_filler {
      type: "xavier"
    }
    bias_filler {
      type: "constant"
    }
  }
}
layer {
  name: "pool1"
  type: "Pooling"
  bottom: "conv1"
  top: "pool1"
  pooling_param {
    pool: MAX
    kernel_size: 2
    stride: 2
  }
}
layer {
  name: "ip1"
  type: "InnerProduct"
  bottom: "pool1"
  top: "ip1"
  param {
    lr_mult: 1
  }
  param {
    lr_mult: 2
  }
  inner_product_param {
    num_output: 10
    weight_filler {
      type: "xavier"
    }
    bias_filler {
      type: "constant"
    }
  }
}
layer {
  name: "relu1"
  type: "ReLU"
  bottom: "ip1"
  top: "ip1"
}
layer {
  name: "ip2"
  type: "InnerProduct"
  bottom: "ip1"
  top: "ip2"
  param {
    lr_mult: 1
  }
  param {
    lr_mult: 2
  }
  inner_product_param {
    num_output: 10
    weight_filler {
      type: "xavier"
    }
    bias_filler {
      type: "constant"
    }
  }
}
layer {
  name: "relu2"
  type: "ReLU"
  bottom: "ip2"
  top: "ip2"
}
layer {
  name: "ip3"
  type: "InnerProduct"
  bottom: "ip2"
  top: "ip3"
  param {
    lr_mult: 1
  }
  param {
    lr_mult: 2
  }
  inner_product_param {
    num_output: 10
    weight_filler {
      type: "xavier"
    }
    bias_filler {
      type: "constant"
    }
  }
}
layer {
  name: "relu3"
  type: "ReLU"
  bottom: "ip3"
  top: "ip3"
}
layer {
  name: "accuracy"
  type: "Accuracy"
  bottom: "ip3"
  bottom: "label"
  top: "accuracy"
  include {
    phase: TEST
  }
}
layer {
  name: "loss"
  type: "SoftmaxWithLoss"
  bottom: "ip3"
  bottom: "label"
  top: "loss"
}
I0428 20:16:00.302356   565 layer_factory.hpp:77] Creating layer mnist
I0428 20:16:00.302397   565 db_lmdb.cpp:35] Opened lmdb examples/mnist/mnist_test_lmdb
I0428 20:16:00.302410   565 net.cpp:86] Creating Layer mnist
I0428 20:16:00.302428   565 net.cpp:382] mnist -> data
I0428 20:16:00.302435   565 net.cpp:382] mnist -> label
I0428 20:16:00.302523   565 data_layer.cpp:45] output data size: 100,1,28,28
I0428 20:16:00.304558   565 net.cpp:124] Setting up mnist
I0428 20:16:00.304570   565 net.cpp:131] Top shape: 100 1 28 28 (78400)
I0428 20:16:00.304592   565 net.cpp:131] Top shape: 100 (100)
I0428 20:16:00.304595   565 net.cpp:139] Memory required for data: 314000
I0428 20:16:00.304600   565 layer_factory.hpp:77] Creating layer label_mnist_1_split
I0428 20:16:00.304605   565 net.cpp:86] Creating Layer label_mnist_1_split
I0428 20:16:00.304608   565 net.cpp:408] label_mnist_1_split <- label
I0428 20:16:00.304613   565 net.cpp:382] label_mnist_1_split -> label_mnist_1_split_0
I0428 20:16:00.304620   565 net.cpp:382] label_mnist_1_split -> label_mnist_1_split_1
I0428 20:16:00.304702   565 net.cpp:124] Setting up label_mnist_1_split
I0428 20:16:00.304710   565 net.cpp:131] Top shape: 100 (100)
I0428 20:16:00.304713   565 net.cpp:131] Top shape: 100 (100)
I0428 20:16:00.304716   565 net.cpp:139] Memory required for data: 314800
I0428 20:16:00.304719   565 layer_factory.hpp:77] Creating layer conv0
I0428 20:16:00.304728   565 net.cpp:86] Creating Layer conv0
I0428 20:16:00.304733   565 net.cpp:408] conv0 <- data
I0428 20:16:00.304739   565 net.cpp:382] conv0 -> conv0
I0428 20:16:00.306376   565 net.cpp:124] Setting up conv0
I0428 20:16:00.306396   565 net.cpp:131] Top shape: 100 50 24 24 (2880000)
I0428 20:16:00.306416   565 net.cpp:139] Memory required for data: 11834800
I0428 20:16:00.306440   565 layer_factory.hpp:77] Creating layer pool0
I0428 20:16:00.306463   565 net.cpp:86] Creating Layer pool0
I0428 20:16:00.306468   565 net.cpp:408] pool0 <- conv0
I0428 20:16:00.306471   565 net.cpp:382] pool0 -> pool0
I0428 20:16:00.306510   565 net.cpp:124] Setting up pool0
I0428 20:16:00.306517   565 net.cpp:131] Top shape: 100 50 12 12 (720000)
I0428 20:16:00.306520   565 net.cpp:139] Memory required for data: 14714800
I0428 20:16:00.306524   565 layer_factory.hpp:77] Creating layer conv1
I0428 20:16:00.306532   565 net.cpp:86] Creating Layer conv1
I0428 20:16:00.306537   565 net.cpp:408] conv1 <- pool0
I0428 20:16:00.306545   565 net.cpp:382] conv1 -> conv1
I0428 20:16:00.308203   565 net.cpp:124] Setting up conv1
I0428 20:16:00.308235   565 net.cpp:131] Top shape: 100 5 8 8 (32000)
I0428 20:16:00.308238   565 net.cpp:139] Memory required for data: 14842800
I0428 20:16:00.308254   565 layer_factory.hpp:77] Creating layer pool1
I0428 20:16:00.308261   565 net.cpp:86] Creating Layer pool1
I0428 20:16:00.308264   565 net.cpp:408] pool1 <- conv1
I0428 20:16:00.308269   565 net.cpp:382] pool1 -> pool1
I0428 20:16:00.308310   565 net.cpp:124] Setting up pool1
I0428 20:16:00.308316   565 net.cpp:131] Top shape: 100 5 4 4 (8000)
I0428 20:16:00.308320   565 net.cpp:139] Memory required for data: 14874800
I0428 20:16:00.308323   565 layer_factory.hpp:77] Creating layer ip1
I0428 20:16:00.308331   565 net.cpp:86] Creating Layer ip1
I0428 20:16:00.308333   565 net.cpp:408] ip1 <- pool1
I0428 20:16:00.308338   565 net.cpp:382] ip1 -> ip1
I0428 20:16:00.308459   565 net.cpp:124] Setting up ip1
I0428 20:16:00.308466   565 net.cpp:131] Top shape: 100 10 (1000)
I0428 20:16:00.308482   565 net.cpp:139] Memory required for data: 14878800
I0428 20:16:00.308492   565 layer_factory.hpp:77] Creating layer relu1
I0428 20:16:00.308500   565 net.cpp:86] Creating Layer relu1
I0428 20:16:00.308503   565 net.cpp:408] relu1 <- ip1
I0428 20:16:00.308507   565 net.cpp:369] relu1 -> ip1 (in-place)
I0428 20:16:00.308679   565 net.cpp:124] Setting up relu1
I0428 20:16:00.308689   565 net.cpp:131] Top shape: 100 10 (1000)
I0428 20:16:00.308692   565 net.cpp:139] Memory required for data: 14882800
I0428 20:16:00.308696   565 layer_factory.hpp:77] Creating layer ip2
I0428 20:16:00.308703   565 net.cpp:86] Creating Layer ip2
I0428 20:16:00.308707   565 net.cpp:408] ip2 <- ip1
I0428 20:16:00.308713   565 net.cpp:382] ip2 -> ip2
I0428 20:16:00.308861   565 net.cpp:124] Setting up ip2
I0428 20:16:00.308871   565 net.cpp:131] Top shape: 100 10 (1000)
I0428 20:16:00.308873   565 net.cpp:139] Memory required for data: 14886800
I0428 20:16:00.308879   565 layer_factory.hpp:77] Creating layer relu2
I0428 20:16:00.308886   565 net.cpp:86] Creating Layer relu2
I0428 20:16:00.308888   565 net.cpp:408] relu2 <- ip2
I0428 20:16:00.308892   565 net.cpp:369] relu2 -> ip2 (in-place)
I0428 20:16:00.309131   565 net.cpp:124] Setting up relu2
I0428 20:16:00.309156   565 net.cpp:131] Top shape: 100 10 (1000)
I0428 20:16:00.309159   565 net.cpp:139] Memory required for data: 14890800
I0428 20:16:00.309164   565 layer_factory.hpp:77] Creating layer ip3
I0428 20:16:00.309170   565 net.cpp:86] Creating Layer ip3
I0428 20:16:00.309173   565 net.cpp:408] ip3 <- ip2
I0428 20:16:00.309180   565 net.cpp:382] ip3 -> ip3
I0428 20:16:00.309284   565 net.cpp:124] Setting up ip3
I0428 20:16:00.309291   565 net.cpp:131] Top shape: 100 10 (1000)
I0428 20:16:00.309295   565 net.cpp:139] Memory required for data: 14894800
I0428 20:16:00.309303   565 layer_factory.hpp:77] Creating layer relu3
I0428 20:16:00.309309   565 net.cpp:86] Creating Layer relu3
I0428 20:16:00.309314   565 net.cpp:408] relu3 <- ip3
I0428 20:16:00.309319   565 net.cpp:369] relu3 -> ip3 (in-place)
I0428 20:16:00.310221   565 net.cpp:124] Setting up relu3
I0428 20:16:00.310235   565 net.cpp:131] Top shape: 100 10 (1000)
I0428 20:16:00.310255   565 net.cpp:139] Memory required for data: 14898800
I0428 20:16:00.310257   565 layer_factory.hpp:77] Creating layer ip3_relu3_0_split
I0428 20:16:00.310263   565 net.cpp:86] Creating Layer ip3_relu3_0_split
I0428 20:16:00.310266   565 net.cpp:408] ip3_relu3_0_split <- ip3
I0428 20:16:00.310273   565 net.cpp:382] ip3_relu3_0_split -> ip3_relu3_0_split_0
I0428 20:16:00.310279   565 net.cpp:382] ip3_relu3_0_split -> ip3_relu3_0_split_1
I0428 20:16:00.310331   565 net.cpp:124] Setting up ip3_relu3_0_split
I0428 20:16:00.310338   565 net.cpp:131] Top shape: 100 10 (1000)
I0428 20:16:00.310341   565 net.cpp:131] Top shape: 100 10 (1000)
I0428 20:16:00.310344   565 net.cpp:139] Memory required for data: 14906800
I0428 20:16:00.310348   565 layer_factory.hpp:77] Creating layer accuracy
I0428 20:16:00.310353   565 net.cpp:86] Creating Layer accuracy
I0428 20:16:00.310356   565 net.cpp:408] accuracy <- ip3_relu3_0_split_0
I0428 20:16:00.310360   565 net.cpp:408] accuracy <- label_mnist_1_split_0
I0428 20:16:00.310365   565 net.cpp:382] accuracy -> accuracy
…
