…
I0428 19:28:35.624135 21668 net.cpp:296] The NetState phase (0) differed from the phase (1) specified by a rule in layer mnist
I0428 19:28:35.624150 21668 net.cpp:296] The NetState phase (0) differed from the phase (1) specified by a rule in layer accuracy
I0428 19:28:35.624213 21668 net.cpp:53] Initializing net from parameters: 
name: "LeNet"
state {
  phase: TRAIN
  level: 0
  stage: ""
}
layer {
  name: "mnist"
  type: "Data"
  top: "data"
  top: "label"
  include {
    phase: TRAIN
  }
  transform_param {
    scale: 0.00390625
  }
  data_param {
    source: "examples/mnist/mnist_train_lmdb"
    batch_size: 64
    backend: LMDB
  }
}
layer {
  name: "ip1"
  type: "InnerProduct"
  bottom: "data"
  top: "ip1"
  param {
    lr_mult: 1
  }
  param {
    lr_mult: 2
  }
  inner_product_param {
    num_output: 50
    weight_filler {
      type: "xavier"
    }
    bias_filler {
      type: "constant"
    }
  }
}
layer {
  name: "relu1"
  type: "ReLU"
  bottom: "ip1"
  top: "ip1"
}
layer {
  name: "ip2"
  type: "InnerProduct"
  bottom: "ip1"
  top: "ip2"
  param {
    lr_mult: 1
  }
  param {
    lr_mult: 2
  }
  inner_product_param {
    num_output: 10
    weight_filler {
      type: "xavier"
    }
    bias_filler {
      type: "constant"
    }
  }
}
layer {
  name: "relu2"
  type: "ReLU"
  bottom: "ip2"
  top: "ip2"
}
layer {
  name: "ip3"
  type: "InnerProduct"
  bottom: "ip2"
  top: "ip3"
  param {
    lr_mult: 1
  }
  param {
    lr_mult: 2
  }
  inner_product_param {
    num_output: 10
    weight_filler {
      type: "xavier"
    }
    bias_filler {
      type: "constant"
    }
  }
}
layer {
  name: "relu3"
  type: "ReLU"
  bottom: "ip3"
  top: "ip3"
}
layer {
  name: "loss"
  type: "SoftmaxWithLoss"
  bottom: "ip3"
  bottom: "label"
  top: "loss"
}
I0428 19:28:35.624301 21668 layer_factory.hpp:77] Creating layer mnist
I0428 19:28:35.624408 21668 db_lmdb.cpp:35] Opened lmdb examples/mnist/mnist_train_lmdb
I0428 19:28:35.624433 21668 net.cpp:86] Creating Layer mnist
I0428 19:28:35.624444 21668 net.cpp:382] mnist -> data
I0428 19:28:35.624469 21668 net.cpp:382] mnist -> label
I0428 19:28:35.625574 21668 data_layer.cpp:45] output data size: 64,1,28,28
I0428 19:28:35.627774 21668 net.cpp:124] Setting up mnist
I0428 19:28:35.627806 21668 net.cpp:131] Top shape: 64 1 28 28 (50176)
I0428 19:28:35.627815 21668 net.cpp:131] Top shape: 64 (64)
I0428 19:28:35.627820 21668 net.cpp:139] Memory required for data: 200960
I0428 19:28:35.627827 21668 layer_factory.hpp:77] Creating layer ip1
I0428 19:28:35.627841 21668 net.cpp:86] Creating Layer ip1
I0428 19:28:35.627851 21668 net.cpp:408] ip1 <- data
I0428 19:28:35.627864 21668 net.cpp:382] ip1 -> ip1
I0428 19:28:35.628243 21668 net.cpp:124] Setting up ip1
I0428 19:28:35.628253 21668 net.cpp:131] Top shape: 64 50 (3200)
I0428 19:28:35.628258 21668 net.cpp:139] Memory required for data: 213760
I0428 19:28:35.628275 21668 layer_factory.hpp:77] Creating layer relu1
I0428 19:28:35.628286 21668 net.cpp:86] Creating Layer relu1
I0428 19:28:35.628311 21668 net.cpp:408] relu1 <- ip1
I0428 19:28:35.628335 21668 net.cpp:369] relu1 -> ip1 (in-place)
I0428 19:28:35.856570 21668 net.cpp:124] Setting up relu1
I0428 19:28:35.856598 21668 net.cpp:131] Top shape: 64 50 (3200)
I0428 19:28:35.856604 21668 net.cpp:139] Memory required for data: 226560
I0428 19:28:35.856611 21668 layer_factory.hpp:77] Creating layer ip2
I0428 19:28:35.856626 21668 net.cpp:86] Creating Layer ip2
I0428 19:28:35.856648 21668 net.cpp:408] ip2 <- ip1
I0428 19:28:35.856660 21668 net.cpp:382] ip2 -> ip2
I0428 19:28:35.857687 21668 net.cpp:124] Setting up ip2
I0428 19:28:35.857702 21668 net.cpp:131] Top shape: 64 10 (640)
I0428 19:28:35.857708 21668 net.cpp:139] Memory required for data: 229120
I0428 19:28:35.857723 21668 layer_factory.hpp:77] Creating layer relu2
I0428 19:28:35.857734 21668 net.cpp:86] Creating Layer relu2
I0428 19:28:35.857744 21668 net.cpp:408] relu2 <- ip2
I0428 19:28:35.857753 21668 net.cpp:369] relu2 -> ip2 (in-place)
I0428 19:28:35.858561 21668 net.cpp:124] Setting up relu2
I0428 19:28:35.858577 21668 net.cpp:131] Top shape: 64 10 (640)
I0428 19:28:35.858582 21668 net.cpp:139] Memory required for data: 231680
I0428 19:28:35.858588 21668 layer_factory.hpp:77] Creating layer ip3
I0428 19:28:35.858599 21668 net.cpp:86] Creating Layer ip3
I0428 19:28:35.858605 21668 net.cpp:408] ip3 <- ip2
I0428 19:28:35.858614 21668 net.cpp:382] ip3 -> ip3
I0428 19:28:35.858734 21668 net.cpp:124] Setting up ip3
I0428 19:28:35.858744 21668 net.cpp:131] Top shape: 64 10 (640)
I0428 19:28:35.858763 21668 net.cpp:139] Memory required for data: 234240
I0428 19:28:35.858775 21668 layer_factory.hpp:77] Creating layer relu3
I0428 19:28:35.858783 21668 net.cpp:86] Creating Layer relu3
I0428 19:28:35.858793 21668 net.cpp:408] relu3 <- ip3
I0428 19:28:35.858800 21668 net.cpp:369] relu3 -> ip3 (in-place)
I0428 19:28:35.858952 21668 net.cpp:124] Setting up relu3
I0428 19:28:35.858960 21668 net.cpp:131] Top shape: 64 10 (640)
I0428 19:28:35.858965 21668 net.cpp:139] Memory required for data: 236800
I0428 19:28:35.858970 21668 layer_factory.hpp:77] Creating layer loss
I0428 19:28:35.858978 21668 net.cpp:86] Creating Layer loss
I0428 19:28:35.858984 21668 net.cpp:408] loss <- ip3
I0428 19:28:35.858990 21668 net.cpp:408] loss <- label
I0428 19:28:35.858999 21668 net.cpp:382] loss -> loss
I0428 19:28:35.859021 21668 layer_factory.hpp:77] Creating layer loss
…
I0428 19:28:35.859586 21668 solver.cpp:173] Creating test net (#0) specified by net file: ECE595/mnist/train_test/var_everything2/lenet_train_test30.prototxt
I0428 19:28:35.859616 21668 net.cpp:296] The NetState phase (1) differed from the phase (0) specified by a rule in layer mnist
I0428 19:28:35.859688 21668 net.cpp:53] Initializing net from parameters: 
name: "LeNet"
state {
  phase: TEST
}
layer {
  name: "mnist"
  type: "Data"
  top: "data"
  top: "label"
  include {
    phase: TEST
  }
  transform_param {
    scale: 0.00390625
  }
  data_param {
    source: "examples/mnist/mnist_test_lmdb"
    batch_size: 100
    backend: LMDB
  }
}
layer {
  name: "ip1"
  type: "InnerProduct"
  bottom: "data"
  top: "ip1"
  param {
    lr_mult: 1
  }
  param {
    lr_mult: 2
  }
  inner_product_param {
    num_output: 50
    weight_filler {
      type: "xavier"
    }
    bias_filler {
      type: "constant"
    }
  }
}
layer {
  name: "relu1"
  type: "ReLU"
  bottom: "ip1"
  top: "ip1"
}
layer {
  name: "ip2"
  type: "InnerProduct"
  bottom: "ip1"
  top: "ip2"
  param {
    lr_mult: 1
  }
  param {
    lr_mult: 2
  }
  inner_product_param {
    num_output: 10
    weight_filler {
      type: "xavier"
    }
    bias_filler {
      type: "constant"
    }
  }
}
layer {
  name: "relu2"
  type: "ReLU"
  bottom: "ip2"
  top: "ip2"
}
layer {
  name: "ip3"
  type: "InnerProduct"
  bottom: "ip2"
  top: "ip3"
  param {
    lr_mult: 1
  }
  param {
    lr_mult: 2
  }
  inner_product_param {
    num_output: 10
    weight_filler {
      type: "xavier"
    }
    bias_filler {
      type: "constant"
    }
  }
}
layer {
  name: "relu3"
  type: "ReLU"
  bottom: "ip3"
  top: "ip3"
}
layer {
  name: "accuracy"
  type: "Accuracy"
  bottom: "ip3"
  bottom: "label"
  top: "accuracy"
  include {
    phase: TEST
  }
}
layer {
  name: "loss"
  type: "SoftmaxWithLoss"
  bottom: "ip3"
  bottom: "label"
  top: "loss"
}
I0428 19:28:35.859796 21668 layer_factory.hpp:77] Creating layer mnist
I0428 19:28:35.859850 21668 db_lmdb.cpp:35] Opened lmdb examples/mnist/mnist_test_lmdb
I0428 19:28:35.859866 21668 net.cpp:86] Creating Layer mnist
I0428 19:28:35.859874 21668 net.cpp:382] mnist -> data
I0428 19:28:35.859885 21668 net.cpp:382] mnist -> label
I0428 19:28:35.859997 21668 data_layer.cpp:45] output data size: 100,1,28,28
I0428 19:28:35.862082 21668 net.cpp:124] Setting up mnist
I0428 19:28:35.862128 21668 net.cpp:131] Top shape: 100 1 28 28 (78400)
I0428 19:28:35.862135 21668 net.cpp:131] Top shape: 100 (100)
I0428 19:28:35.862139 21668 net.cpp:139] Memory required for data: 314000
I0428 19:28:35.862145 21668 layer_factory.hpp:77] Creating layer label_mnist_1_split
I0428 19:28:35.862169 21668 net.cpp:86] Creating Layer label_mnist_1_split
I0428 19:28:35.862177 21668 net.cpp:408] label_mnist_1_split <- label
I0428 19:28:35.862185 21668 net.cpp:382] label_mnist_1_split -> label_mnist_1_split_0
I0428 19:28:35.862210 21668 net.cpp:382] label_mnist_1_split -> label_mnist_1_split_1
I0428 19:28:35.862314 21668 net.cpp:124] Setting up label_mnist_1_split
I0428 19:28:35.862323 21668 net.cpp:131] Top shape: 100 (100)
I0428 19:28:35.862330 21668 net.cpp:131] Top shape: 100 (100)
I0428 19:28:35.862335 21668 net.cpp:139] Memory required for data: 314800
I0428 19:28:35.862340 21668 layer_factory.hpp:77] Creating layer ip1
I0428 19:28:35.862350 21668 net.cpp:86] Creating Layer ip1
I0428 19:28:35.862356 21668 net.cpp:408] ip1 <- data
I0428 19:28:35.862365 21668 net.cpp:382] ip1 -> ip1
I0428 19:28:35.862733 21668 net.cpp:124] Setting up ip1
I0428 19:28:35.862743 21668 net.cpp:131] Top shape: 100 50 (5000)
I0428 19:28:35.862747 21668 net.cpp:139] Memory required for data: 334800
I0428 19:28:35.862761 21668 layer_factory.hpp:77] Creating layer relu1
I0428 19:28:35.862768 21668 net.cpp:86] Creating Layer relu1
I0428 19:28:35.862774 21668 net.cpp:408] relu1 <- ip1
I0428 19:28:35.862782 21668 net.cpp:369] relu1 -> ip1 (in-place)
I0428 19:28:35.863701 21668 net.cpp:124] Setting up relu1
I0428 19:28:35.863715 21668 net.cpp:131] Top shape: 100 50 (5000)
I0428 19:28:35.863720 21668 net.cpp:139] Memory required for data: 354800
I0428 19:28:35.863740 21668 layer_factory.hpp:77] Creating layer ip2
I0428 19:28:35.863751 21668 net.cpp:86] Creating Layer ip2
I0428 19:28:35.863757 21668 net.cpp:408] ip2 <- ip1
I0428 19:28:35.863765 21668 net.cpp:382] ip2 -> ip2
I0428 19:28:35.863881 21668 net.cpp:124] Setting up ip2
I0428 19:28:35.863890 21668 net.cpp:131] Top shape: 100 10 (1000)
I0428 19:28:35.863895 21668 net.cpp:139] Memory required for data: 358800
I0428 19:28:35.863919 21668 layer_factory.hpp:77] Creating layer relu2
I0428 19:28:35.863926 21668 net.cpp:86] Creating Layer relu2
I0428 19:28:35.863932 21668 net.cpp:408] relu2 <- ip2
I0428 19:28:35.863940 21668 net.cpp:369] relu2 -> ip2 (in-place)
I0428 19:28:35.864091 21668 net.cpp:124] Setting up relu2
I0428 19:28:35.864100 21668 net.cpp:131] Top shape: 100 10 (1000)
I0428 19:28:35.864120 21668 net.cpp:139] Memory required for data: 362800
I0428 19:28:35.864125 21668 layer_factory.hpp:77] Creating layer ip3
I0428 19:28:35.864132 21668 net.cpp:86] Creating Layer ip3
I0428 19:28:35.864137 21668 net.cpp:408] ip3 <- ip2
I0428 19:28:35.864145 21668 net.cpp:382] ip3 -> ip3
I0428 19:28:35.864248 21668 net.cpp:124] Setting up ip3
I0428 19:28:35.864258 21668 net.cpp:131] Top shape: 100 10 (1000)
I0428 19:28:35.864261 21668 net.cpp:139] Memory required for data: 366800
I0428 19:28:35.864272 21668 layer_factory.hpp:77] Creating layer relu3
I0428 19:28:35.864280 21668 net.cpp:86] Creating Layer relu3
I0428 19:28:35.864286 21668 net.cpp:408] relu3 <- ip3
I0428 19:28:35.864295 21668 net.cpp:369] relu3 -> ip3 (in-place)
I0428 19:28:35.864557 21668 net.cpp:124] Setting up relu3
I0428 19:28:35.864567 21668 net.cpp:131] Top shape: 100 10 (1000)
I0428 19:28:35.864570 21668 net.cpp:139] Memory required for data: 370800
I0428 19:28:35.864575 21668 layer_factory.hpp:77] Creating layer ip3_relu3_0_split
I0428 19:28:35.864584 21668 net.cpp:86] Creating Layer ip3_relu3_0_split
I0428 19:28:35.864589 21668 net.cpp:408] ip3_relu3_0_split <- ip3
I0428 19:28:35.864598 21668 net.cpp:382] ip3_relu3_0_split -> ip3_relu3_0_split_0
I0428 19:28:35.864608 21668 net.cpp:382] ip3_relu3_0_split -> ip3_relu3_0_split_1
I0428 19:28:35.864701 21668 net.cpp:124] Setting up ip3_relu3_0_split
I0428 19:28:35.864708 21668 net.cpp:131] Top shape: 100 10 (1000)
I0428 19:28:35.864715 21668 net.cpp:131] Top shape: 100 10 (1000)
I0428 19:28:35.864719 21668 net.cpp:139] Memory required for data: 378800
I0428 19:28:35.864724 21668 layer_factory.hpp:77] Creating layer accuracy
I0428 19:28:35.864733 21668 net.cpp:86] Creating Layer accuracy
I0428 19:28:35.864738 21668 net.cpp:408] accuracy <- ip3_relu3_0_split_0
I0428 19:28:35.864745 21668 net.cpp:408] accuracy <- label_mnist_1_split_0
I0428 19:28:35.864754 21668 net.cpp:382] accuracy -> accuracy
…
