…
I0428 19:59:56.405911 29359 net.cpp:296] The NetState phase (0) differed from the phase (1) specified by a rule in layer mnist
I0428 19:59:56.405930 29359 net.cpp:296] The NetState phase (0) differed from the phase (1) specified by a rule in layer accuracy
I0428 19:59:56.406020 29359 net.cpp:53] Initializing net from parameters: 
name: "LeNet"
state {
  phase: TRAIN
  level: 0
  stage: ""
}
layer {
  name: "mnist"
  type: "Data"
  top: "data"
  top: "label"
  include {
    phase: TRAIN
  }
  transform_param {
    scale: 0.00390625
  }
  data_param {
    source: "examples/mnist/mnist_train_lmdb"
    batch_size: 64
    backend: LMDB
  }
}
layer {
  name: "conv0"
  type: "Convolution"
  bottom: "data"
  top: "conv0"
  param {
    lr_mult: 1
  }
  param {
    lr_mult: 2
  }
  convolution_param {
    num_output: 10
    kernel_size: 5
    stride: 1
    weight_filler {
      type: "xavier"
    }
    bias_filler {
      type: "constant"
    }
  }
}
layer {
  name: "pool0"
  type: "Pooling"
  bottom: "conv0"
  top: "pool0"
  pooling_param {
    pool: MAX
    kernel_size: 2
    stride: 2
  }
}
layer {
  name: "conv1"
  type: "Convolution"
  bottom: "pool0"
  top: "conv1"
  param {
    lr_mult: 1
  }
  param {
    lr_mult: 2
  }
  convolution_param {
    num_output: 25
    kernel_size: 5
    stride: 1
    weight_filler {
      type: "xavier"
    }
    bias_filler {
      type: "constant"
    }
  }
}
layer {
  name: "pool1"
  type: "Pooling"
  bottom: "conv1"
  top: "pool1"
  pooling_param {
    pool: MAX
    kernel_size: 2
    stride: 2
  }
}
layer {
  name: "ip1"
  type: "InnerProduct"
  bottom: "pool1"
  top: "ip1"
  param {
    lr_mult: 1
  }
  param {
    lr_mult: 2
  }
  inner_product_param {
    num_output: 10
    weight_filler {
      type: "xavier"
    }
    bias_filler {
      type: "constant"
    }
  }
}
layer {
  name: "relu1"
  type: "ReLU"
  bottom: "ip1"
  top: "ip1"
}
layer {
  name: "ip2"
  type: "InnerProduct"
  bottom: "ip1"
  top: "ip2"
  param {
    lr_mult: 1
  }
  param {
    lr_mult: 2
  }
  inner_product_param {
    num_output: 10
    weight_filler {
      type: "xavier"
    }
    bias_filler {
      type: "constant"
    }
  }
}
layer {
  name: "relu2"
  type: "ReLU"
  bottom: "ip2"
  top: "ip2"
}
layer {
  name: "loss"
  type: "SoftmaxWithLoss"
  bottom: "ip2"
  bottom: "label"
  top: "loss"
}
I0428 19:59:56.406098 29359 layer_factory.hpp:77] Creating layer mnist
I0428 19:59:56.406201 29359 db_lmdb.cpp:35] Opened lmdb examples/mnist/mnist_train_lmdb
I0428 19:59:56.406225 29359 net.cpp:86] Creating Layer mnist
I0428 19:59:56.406234 29359 net.cpp:382] mnist -> data
I0428 19:59:56.406256 29359 net.cpp:382] mnist -> label
I0428 19:59:56.407344 29359 data_layer.cpp:45] output data size: 64,1,28,28
I0428 19:59:56.409914 29359 net.cpp:124] Setting up mnist
I0428 19:59:56.409934 29359 net.cpp:131] Top shape: 64 1 28 28 (50176)
I0428 19:59:56.409940 29359 net.cpp:131] Top shape: 64 (64)
I0428 19:59:56.409943 29359 net.cpp:139] Memory required for data: 200960
I0428 19:59:56.409950 29359 layer_factory.hpp:77] Creating layer conv0
I0428 19:59:56.409967 29359 net.cpp:86] Creating Layer conv0
I0428 19:59:56.409973 29359 net.cpp:408] conv0 <- data
I0428 19:59:56.409986 29359 net.cpp:382] conv0 -> conv0
I0428 19:59:56.666380 29359 net.cpp:124] Setting up conv0
I0428 19:59:56.666424 29359 net.cpp:131] Top shape: 64 10 24 24 (368640)
I0428 19:59:56.666442 29359 net.cpp:139] Memory required for data: 1675520
I0428 19:59:56.666474 29359 layer_factory.hpp:77] Creating layer pool0
I0428 19:59:56.666501 29359 net.cpp:86] Creating Layer pool0
I0428 19:59:56.666505 29359 net.cpp:408] pool0 <- conv0
I0428 19:59:56.666510 29359 net.cpp:382] pool0 -> pool0
I0428 19:59:56.666554 29359 net.cpp:124] Setting up pool0
I0428 19:59:56.666575 29359 net.cpp:131] Top shape: 64 10 12 12 (92160)
I0428 19:59:56.666579 29359 net.cpp:139] Memory required for data: 2044160
I0428 19:59:56.666581 29359 layer_factory.hpp:77] Creating layer conv1
I0428 19:59:56.666591 29359 net.cpp:86] Creating Layer conv1
I0428 19:59:56.666594 29359 net.cpp:408] conv1 <- pool0
I0428 19:59:56.666599 29359 net.cpp:382] conv1 -> conv1
I0428 19:59:56.669531 29359 net.cpp:124] Setting up conv1
I0428 19:59:56.669562 29359 net.cpp:131] Top shape: 64 25 8 8 (102400)
I0428 19:59:56.669566 29359 net.cpp:139] Memory required for data: 2453760
I0428 19:59:56.669574 29359 layer_factory.hpp:77] Creating layer pool1
I0428 19:59:56.669582 29359 net.cpp:86] Creating Layer pool1
I0428 19:59:56.669585 29359 net.cpp:408] pool1 <- conv1
I0428 19:59:56.669606 29359 net.cpp:382] pool1 -> pool1
I0428 19:59:56.669643 29359 net.cpp:124] Setting up pool1
I0428 19:59:56.669651 29359 net.cpp:131] Top shape: 64 25 4 4 (25600)
I0428 19:59:56.669653 29359 net.cpp:139] Memory required for data: 2556160
I0428 19:59:56.669656 29359 layer_factory.hpp:77] Creating layer ip1
I0428 19:59:56.669663 29359 net.cpp:86] Creating Layer ip1
I0428 19:59:56.669667 29359 net.cpp:408] ip1 <- pool1
I0428 19:59:56.669672 29359 net.cpp:382] ip1 -> ip1
I0428 19:59:56.670645 29359 net.cpp:124] Setting up ip1
I0428 19:59:56.670658 29359 net.cpp:131] Top shape: 64 10 (640)
I0428 19:59:56.670678 29359 net.cpp:139] Memory required for data: 2558720
I0428 19:59:56.670702 29359 layer_factory.hpp:77] Creating layer relu1
I0428 19:59:56.670709 29359 net.cpp:86] Creating Layer relu1
I0428 19:59:56.670712 29359 net.cpp:408] relu1 <- ip1
I0428 19:59:56.670717 29359 net.cpp:369] relu1 -> ip1 (in-place)
I0428 19:59:56.670922 29359 net.cpp:124] Setting up relu1
I0428 19:59:56.670930 29359 net.cpp:131] Top shape: 64 10 (640)
I0428 19:59:56.670948 29359 net.cpp:139] Memory required for data: 2561280
I0428 19:59:56.670951 29359 layer_factory.hpp:77] Creating layer ip2
I0428 19:59:56.670958 29359 net.cpp:86] Creating Layer ip2
I0428 19:59:56.670961 29359 net.cpp:408] ip2 <- ip1
I0428 19:59:56.670966 29359 net.cpp:382] ip2 -> ip2
I0428 19:59:56.671056 29359 net.cpp:124] Setting up ip2
I0428 19:59:56.671062 29359 net.cpp:131] Top shape: 64 10 (640)
I0428 19:59:56.671066 29359 net.cpp:139] Memory required for data: 2563840
I0428 19:59:56.671072 29359 layer_factory.hpp:77] Creating layer relu2
I0428 19:59:56.671077 29359 net.cpp:86] Creating Layer relu2
I0428 19:59:56.671080 29359 net.cpp:408] relu2 <- ip2
I0428 19:59:56.671084 29359 net.cpp:369] relu2 -> ip2 (in-place)
I0428 19:59:56.671818 29359 net.cpp:124] Setting up relu2
I0428 19:59:56.671830 29359 net.cpp:131] Top shape: 64 10 (640)
I0428 19:59:56.671849 29359 net.cpp:139] Memory required for data: 2566400
I0428 19:59:56.671854 29359 layer_factory.hpp:77] Creating layer loss
I0428 19:59:56.671860 29359 net.cpp:86] Creating Layer loss
I0428 19:59:56.671864 29359 net.cpp:408] loss <- ip2
I0428 19:59:56.671869 29359 net.cpp:408] loss <- label
I0428 19:59:56.671874 29359 net.cpp:382] loss -> loss
I0428 19:59:56.671893 29359 layer_factory.hpp:77] Creating layer loss
…
I0428 19:59:56.672572 29359 solver.cpp:173] Creating test net (#0) specified by net file: ECE595/mnist/train_test/var_everything2/lenet_train_test862.prototxt
I0428 19:59:56.672596 29359 net.cpp:296] The NetState phase (1) differed from the phase (0) specified by a rule in layer mnist
I0428 19:59:56.672693 29359 net.cpp:53] Initializing net from parameters: 
name: "LeNet"
state {
  phase: TEST
}
layer {
  name: "mnist"
  type: "Data"
  top: "data"
  top: "label"
  include {
    phase: TEST
  }
  transform_param {
    scale: 0.00390625
  }
  data_param {
    source: "examples/mnist/mnist_test_lmdb"
    batch_size: 100
    backend: LMDB
  }
}
layer {
  name: "conv0"
  type: "Convolution"
  bottom: "data"
  top: "conv0"
  param {
    lr_mult: 1
  }
  param {
    lr_mult: 2
  }
  convolution_param {
    num_output: 10
    kernel_size: 5
    stride: 1
    weight_filler {
      type: "xavier"
    }
    bias_filler {
      type: "constant"
    }
  }
}
layer {
  name: "pool0"
  type: "Pooling"
  bottom: "conv0"
  top: "pool0"
  pooling_param {
    pool: MAX
    kernel_size: 2
    stride: 2
  }
}
layer {
  name: "conv1"
  type: "Convolution"
  bottom: "pool0"
  top: "conv1"
  param {
    lr_mult: 1
  }
  param {
    lr_mult: 2
  }
  convolution_param {
    num_output: 25
    kernel_size: 5
    stride: 1
    weight_filler {
      type: "xavier"
    }
    bias_filler {
      type: "constant"
    }
  }
}
layer {
  name: "pool1"
  type: "Pooling"
  bottom: "conv1"
  top: "pool1"
  pooling_param {
    pool: MAX
    kernel_size: 2
    stride: 2
  }
}
layer {
  name: "ip1"
  type: "InnerProduct"
  bottom: "pool1"
  top: "ip1"
  param {
    lr_mult: 1
  }
  param {
    lr_mult: 2
  }
  inner_product_param {
    num_output: 10
    weight_filler {
      type: "xavier"
    }
    bias_filler {
      type: "constant"
    }
  }
}
layer {
  name: "relu1"
  type: "ReLU"
  bottom: "ip1"
  top: "ip1"
}
layer {
  name: "ip2"
  type: "InnerProduct"
  bottom: "ip1"
  top: "ip2"
  param {
    lr_mult: 1
  }
  param {
    lr_mult: 2
  }
  inner_product_param {
    num_output: 10
    weight_filler {
      type: "xavier"
    }
    bias_filler {
      type: "constant"
    }
  }
}
layer {
  name: "relu2"
  type: "ReLU"
  bottom: "ip2"
  top: "ip2"
}
layer {
  name: "accuracy"
  type: "Accuracy"
  bottom: "ip2"
  bottom: "label"
  top: "accuracy"
  include {
    phase: TEST
  }
}
layer {
  name: "loss"
  type: "SoftmaxWithLoss"
  bottom: "ip2"
  bottom: "label"
  top: "loss"
}
I0428 19:59:56.672775 29359 layer_factory.hpp:77] Creating layer mnist
I0428 19:59:56.672840 29359 db_lmdb.cpp:35] Opened lmdb examples/mnist/mnist_test_lmdb
I0428 19:59:56.672857 29359 net.cpp:86] Creating Layer mnist
I0428 19:59:56.672863 29359 net.cpp:382] mnist -> data
I0428 19:59:56.672870 29359 net.cpp:382] mnist -> label
I0428 19:59:56.672958 29359 data_layer.cpp:45] output data size: 100,1,28,28
I0428 19:59:56.675029 29359 net.cpp:124] Setting up mnist
I0428 19:59:56.675057 29359 net.cpp:131] Top shape: 100 1 28 28 (78400)
I0428 19:59:56.675063 29359 net.cpp:131] Top shape: 100 (100)
I0428 19:59:56.675066 29359 net.cpp:139] Memory required for data: 314000
I0428 19:59:56.675071 29359 layer_factory.hpp:77] Creating layer label_mnist_1_split
I0428 19:59:56.675082 29359 net.cpp:86] Creating Layer label_mnist_1_split
I0428 19:59:56.675086 29359 net.cpp:408] label_mnist_1_split <- label
I0428 19:59:56.675091 29359 net.cpp:382] label_mnist_1_split -> label_mnist_1_split_0
I0428 19:59:56.675097 29359 net.cpp:382] label_mnist_1_split -> label_mnist_1_split_1
I0428 19:59:56.675142 29359 net.cpp:124] Setting up label_mnist_1_split
I0428 19:59:56.675159 29359 net.cpp:131] Top shape: 100 (100)
I0428 19:59:56.675163 29359 net.cpp:131] Top shape: 100 (100)
I0428 19:59:56.675166 29359 net.cpp:139] Memory required for data: 314800
I0428 19:59:56.675170 29359 layer_factory.hpp:77] Creating layer conv0
I0428 19:59:56.675179 29359 net.cpp:86] Creating Layer conv0
I0428 19:59:56.675182 29359 net.cpp:408] conv0 <- data
I0428 19:59:56.675187 29359 net.cpp:382] conv0 -> conv0
I0428 19:59:56.676658 29359 net.cpp:124] Setting up conv0
I0428 19:59:56.676672 29359 net.cpp:131] Top shape: 100 10 24 24 (576000)
I0428 19:59:56.676692 29359 net.cpp:139] Memory required for data: 2618800
I0428 19:59:56.676702 29359 layer_factory.hpp:77] Creating layer pool0
I0428 19:59:56.676708 29359 net.cpp:86] Creating Layer pool0
I0428 19:59:56.676712 29359 net.cpp:408] pool0 <- conv0
I0428 19:59:56.676731 29359 net.cpp:382] pool0 -> pool0
I0428 19:59:56.676765 29359 net.cpp:124] Setting up pool0
I0428 19:59:56.676772 29359 net.cpp:131] Top shape: 100 10 12 12 (144000)
I0428 19:59:56.676775 29359 net.cpp:139] Memory required for data: 3194800
I0428 19:59:56.676779 29359 layer_factory.hpp:77] Creating layer conv1
I0428 19:59:56.676786 29359 net.cpp:86] Creating Layer conv1
I0428 19:59:56.676790 29359 net.cpp:408] conv1 <- pool0
I0428 19:59:56.676795 29359 net.cpp:382] conv1 -> conv1
I0428 19:59:56.678941 29359 net.cpp:124] Setting up conv1
I0428 19:59:56.678969 29359 net.cpp:131] Top shape: 100 25 8 8 (160000)
I0428 19:59:56.678973 29359 net.cpp:139] Memory required for data: 3834800
I0428 19:59:56.678982 29359 layer_factory.hpp:77] Creating layer pool1
I0428 19:59:56.678990 29359 net.cpp:86] Creating Layer pool1
I0428 19:59:56.678993 29359 net.cpp:408] pool1 <- conv1
I0428 19:59:56.679013 29359 net.cpp:382] pool1 -> pool1
I0428 19:59:56.679052 29359 net.cpp:124] Setting up pool1
I0428 19:59:56.679059 29359 net.cpp:131] Top shape: 100 25 4 4 (40000)
I0428 19:59:56.679064 29359 net.cpp:139] Memory required for data: 3994800
I0428 19:59:56.679066 29359 layer_factory.hpp:77] Creating layer ip1
I0428 19:59:56.679074 29359 net.cpp:86] Creating Layer ip1
I0428 19:59:56.679076 29359 net.cpp:408] ip1 <- pool1
I0428 19:59:56.679081 29359 net.cpp:382] ip1 -> ip1
I0428 19:59:56.679213 29359 net.cpp:124] Setting up ip1
I0428 19:59:56.679220 29359 net.cpp:131] Top shape: 100 10 (1000)
I0428 19:59:56.679224 29359 net.cpp:139] Memory required for data: 3998800
I0428 19:59:56.679230 29359 layer_factory.hpp:77] Creating layer relu1
I0428 19:59:56.679236 29359 net.cpp:86] Creating Layer relu1
I0428 19:59:56.679240 29359 net.cpp:408] relu1 <- ip1
I0428 19:59:56.679244 29359 net.cpp:369] relu1 -> ip1 (in-place)
I0428 19:59:56.679574 29359 net.cpp:124] Setting up relu1
I0428 19:59:56.679582 29359 net.cpp:131] Top shape: 100 10 (1000)
I0428 19:59:56.679601 29359 net.cpp:139] Memory required for data: 4002800
I0428 19:59:56.679605 29359 layer_factory.hpp:77] Creating layer ip2
I0428 19:59:56.679631 29359 net.cpp:86] Creating Layer ip2
I0428 19:59:56.679651 29359 net.cpp:408] ip2 <- ip1
I0428 19:59:56.679656 29359 net.cpp:382] ip2 -> ip2
I0428 19:59:56.679778 29359 net.cpp:124] Setting up ip2
I0428 19:59:56.679786 29359 net.cpp:131] Top shape: 100 10 (1000)
I0428 19:59:56.679790 29359 net.cpp:139] Memory required for data: 4006800
I0428 19:59:56.679795 29359 layer_factory.hpp:77] Creating layer relu2
I0428 19:59:56.679805 29359 net.cpp:86] Creating Layer relu2
I0428 19:59:56.679808 29359 net.cpp:408] relu2 <- ip2
I0428 19:59:56.679812 29359 net.cpp:369] relu2 -> ip2 (in-place)
I0428 19:59:56.679985 29359 net.cpp:124] Setting up relu2
I0428 19:59:56.679994 29359 net.cpp:131] Top shape: 100 10 (1000)
I0428 19:59:56.679997 29359 net.cpp:139] Memory required for data: 4010800
I0428 19:59:56.680001 29359 layer_factory.hpp:77] Creating layer ip2_relu2_0_split
I0428 19:59:56.680004 29359 net.cpp:86] Creating Layer ip2_relu2_0_split
I0428 19:59:56.680008 29359 net.cpp:408] ip2_relu2_0_split <- ip2
I0428 19:59:56.680012 29359 net.cpp:382] ip2_relu2_0_split -> ip2_relu2_0_split_0
I0428 19:59:56.680027 29359 net.cpp:382] ip2_relu2_0_split -> ip2_relu2_0_split_1
I0428 19:59:56.680064 29359 net.cpp:124] Setting up ip2_relu2_0_split
I0428 19:59:56.680071 29359 net.cpp:131] Top shape: 100 10 (1000)
I0428 19:59:56.680075 29359 net.cpp:131] Top shape: 100 10 (1000)
I0428 19:59:56.680078 29359 net.cpp:139] Memory required for data: 4018800
I0428 19:59:56.680080 29359 layer_factory.hpp:77] Creating layer accuracy
I0428 19:59:56.680086 29359 net.cpp:86] Creating Layer accuracy
I0428 19:59:56.680089 29359 net.cpp:408] accuracy <- ip2_relu2_0_split_0
I0428 19:59:56.680100 29359 net.cpp:408] accuracy <- label_mnist_1_split_0
I0428 19:59:56.680104 29359 net.cpp:382] accuracy -> accuracy
…
