…
I0428 19:59:58.545701 29368 net.cpp:296] The NetState phase (0) differed from the phase (1) specified by a rule in layer mnist
I0428 19:59:58.545716 29368 net.cpp:296] The NetState phase (0) differed from the phase (1) specified by a rule in layer accuracy
I0428 19:59:58.545802 29368 net.cpp:53] Initializing net from parameters: 
name: "LeNet"
state {
  phase: TRAIN
  level: 0
  stage: ""
}
layer {
  name: "mnist"
  type: "Data"
  top: "data"
  top: "label"
  include {
    phase: TRAIN
  }
  transform_param {
    scale: 0.00390625
  }
  data_param {
    source: "examples/mnist/mnist_train_lmdb"
    batch_size: 64
    backend: LMDB
  }
}
layer {
  name: "conv0"
  type: "Convolution"
  bottom: "data"
  top: "conv0"
  param {
    lr_mult: 1
  }
  param {
    lr_mult: 2
  }
  convolution_param {
    num_output: 10
    kernel_size: 5
    stride: 1
    weight_filler {
      type: "xavier"
    }
    bias_filler {
      type: "constant"
    }
  }
}
layer {
  name: "pool0"
  type: "Pooling"
  bottom: "conv0"
  top: "pool0"
  pooling_param {
    pool: MAX
    kernel_size: 2
    stride: 2
  }
}
layer {
  name: "conv1"
  type: "Convolution"
  bottom: "pool0"
  top: "conv1"
  param {
    lr_mult: 1
  }
  param {
    lr_mult: 2
  }
  convolution_param {
    num_output: 25
    kernel_size: 5
    stride: 1
    weight_filler {
      type: "xavier"
    }
    bias_filler {
      type: "constant"
    }
  }
}
layer {
  name: "pool1"
  type: "Pooling"
  bottom: "conv1"
  top: "pool1"
  pooling_param {
    pool: MAX
    kernel_size: 2
    stride: 2
  }
}
layer {
  name: "ip1"
  type: "InnerProduct"
  bottom: "pool1"
  top: "ip1"
  param {
    lr_mult: 1
  }
  param {
    lr_mult: 2
  }
  inner_product_param {
    num_output: 10
    weight_filler {
      type: "xavier"
    }
    bias_filler {
      type: "constant"
    }
  }
}
layer {
  name: "relu1"
  type: "ReLU"
  bottom: "ip1"
  top: "ip1"
}
layer {
  name: "ip2"
  type: "InnerProduct"
  bottom: "ip1"
  top: "ip2"
  param {
    lr_mult: 1
  }
  param {
    lr_mult: 2
  }
  inner_product_param {
    num_output: 10
    weight_filler {
      type: "xavier"
    }
    bias_filler {
      type: "constant"
    }
  }
}
layer {
  name: "relu2"
  type: "ReLU"
  bottom: "ip2"
  top: "ip2"
}
layer {
  name: "loss"
  type: "SoftmaxWithLoss"
  bottom: "ip2"
  bottom: "label"
  top: "loss"
}
I0428 19:59:58.545871 29368 layer_factory.hpp:77] Creating layer mnist
I0428 19:59:58.545970 29368 db_lmdb.cpp:35] Opened lmdb examples/mnist/mnist_train_lmdb
I0428 19:59:58.545994 29368 net.cpp:86] Creating Layer mnist
I0428 19:59:58.546000 29368 net.cpp:382] mnist -> data
I0428 19:59:58.546022 29368 net.cpp:382] mnist -> label
I0428 19:59:58.547118 29368 data_layer.cpp:45] output data size: 64,1,28,28
I0428 19:59:58.549569 29368 net.cpp:124] Setting up mnist
I0428 19:59:58.549587 29368 net.cpp:131] Top shape: 64 1 28 28 (50176)
I0428 19:59:58.549594 29368 net.cpp:131] Top shape: 64 (64)
I0428 19:59:58.549597 29368 net.cpp:139] Memory required for data: 200960
I0428 19:59:58.549605 29368 layer_factory.hpp:77] Creating layer conv0
I0428 19:59:58.549620 29368 net.cpp:86] Creating Layer conv0
I0428 19:59:58.549626 29368 net.cpp:408] conv0 <- data
I0428 19:59:58.549638 29368 net.cpp:382] conv0 -> conv0
I0428 19:59:58.817353 29368 net.cpp:124] Setting up conv0
I0428 19:59:58.817394 29368 net.cpp:131] Top shape: 64 10 24 24 (368640)
I0428 19:59:58.817399 29368 net.cpp:139] Memory required for data: 1675520
I0428 19:59:58.817432 29368 layer_factory.hpp:77] Creating layer pool0
I0428 19:59:58.817445 29368 net.cpp:86] Creating Layer pool0
I0428 19:59:58.817448 29368 net.cpp:408] pool0 <- conv0
I0428 19:59:58.817453 29368 net.cpp:382] pool0 -> pool0
I0428 19:59:58.817498 29368 net.cpp:124] Setting up pool0
I0428 19:59:58.817504 29368 net.cpp:131] Top shape: 64 10 12 12 (92160)
I0428 19:59:58.817507 29368 net.cpp:139] Memory required for data: 2044160
I0428 19:59:58.817510 29368 layer_factory.hpp:77] Creating layer conv1
I0428 19:59:58.817520 29368 net.cpp:86] Creating Layer conv1
I0428 19:59:58.817523 29368 net.cpp:408] conv1 <- pool0
I0428 19:59:58.817528 29368 net.cpp:382] conv1 -> conv1
I0428 19:59:58.820365 29368 net.cpp:124] Setting up conv1
I0428 19:59:58.820395 29368 net.cpp:131] Top shape: 64 25 8 8 (102400)
I0428 19:59:58.820399 29368 net.cpp:139] Memory required for data: 2453760
I0428 19:59:58.820410 29368 layer_factory.hpp:77] Creating layer pool1
I0428 19:59:58.820417 29368 net.cpp:86] Creating Layer pool1
I0428 19:59:58.820420 29368 net.cpp:408] pool1 <- conv1
I0428 19:59:58.820425 29368 net.cpp:382] pool1 -> pool1
I0428 19:59:58.820477 29368 net.cpp:124] Setting up pool1
I0428 19:59:58.820484 29368 net.cpp:131] Top shape: 64 25 4 4 (25600)
I0428 19:59:58.820487 29368 net.cpp:139] Memory required for data: 2556160
I0428 19:59:58.820489 29368 layer_factory.hpp:77] Creating layer ip1
I0428 19:59:58.820497 29368 net.cpp:86] Creating Layer ip1
I0428 19:59:58.820500 29368 net.cpp:408] ip1 <- pool1
I0428 19:59:58.820504 29368 net.cpp:382] ip1 -> ip1
I0428 19:59:58.821491 29368 net.cpp:124] Setting up ip1
I0428 19:59:58.821519 29368 net.cpp:131] Top shape: 64 10 (640)
I0428 19:59:58.821538 29368 net.cpp:139] Memory required for data: 2558720
I0428 19:59:58.821547 29368 layer_factory.hpp:77] Creating layer relu1
I0428 19:59:58.821553 29368 net.cpp:86] Creating Layer relu1
I0428 19:59:58.821557 29368 net.cpp:408] relu1 <- ip1
I0428 19:59:58.821561 29368 net.cpp:369] relu1 -> ip1 (in-place)
I0428 19:59:58.821764 29368 net.cpp:124] Setting up relu1
I0428 19:59:58.821774 29368 net.cpp:131] Top shape: 64 10 (640)
I0428 19:59:58.821776 29368 net.cpp:139] Memory required for data: 2561280
I0428 19:59:58.821779 29368 layer_factory.hpp:77] Creating layer ip2
I0428 19:59:58.821786 29368 net.cpp:86] Creating Layer ip2
I0428 19:59:58.821789 29368 net.cpp:408] ip2 <- ip1
I0428 19:59:58.821795 29368 net.cpp:382] ip2 -> ip2
I0428 19:59:58.821919 29368 net.cpp:124] Setting up ip2
I0428 19:59:58.821926 29368 net.cpp:131] Top shape: 64 10 (640)
I0428 19:59:58.821929 29368 net.cpp:139] Memory required for data: 2563840
I0428 19:59:58.821934 29368 layer_factory.hpp:77] Creating layer relu2
I0428 19:59:58.821959 29368 net.cpp:86] Creating Layer relu2
I0428 19:59:58.821961 29368 net.cpp:408] relu2 <- ip2
I0428 19:59:58.821965 29368 net.cpp:369] relu2 -> ip2 (in-place)
I0428 19:59:58.822703 29368 net.cpp:124] Setting up relu2
I0428 19:59:58.822731 29368 net.cpp:131] Top shape: 64 10 (640)
I0428 19:59:58.822734 29368 net.cpp:139] Memory required for data: 2566400
I0428 19:59:58.822737 29368 layer_factory.hpp:77] Creating layer loss
I0428 19:59:58.822744 29368 net.cpp:86] Creating Layer loss
I0428 19:59:58.822747 29368 net.cpp:408] loss <- ip2
I0428 19:59:58.822751 29368 net.cpp:408] loss <- label
I0428 19:59:58.822757 29368 net.cpp:382] loss -> loss
I0428 19:59:58.822772 29368 layer_factory.hpp:77] Creating layer loss
…
I0428 19:59:58.823452 29368 solver.cpp:173] Creating test net (#0) specified by net file: ECE595/mnist/train_test/var_everything2/lenet_train_test863.prototxt
I0428 19:59:58.823493 29368 net.cpp:296] The NetState phase (1) differed from the phase (0) specified by a rule in layer mnist
I0428 19:59:58.823571 29368 net.cpp:53] Initializing net from parameters: 
name: "LeNet"
state {
  phase: TEST
}
layer {
  name: "mnist"
  type: "Data"
  top: "data"
  top: "label"
  include {
    phase: TEST
  }
  transform_param {
    scale: 0.00390625
  }
  data_param {
    source: "examples/mnist/mnist_test_lmdb"
    batch_size: 100
    backend: LMDB
  }
}
layer {
  name: "conv0"
  type: "Convolution"
  bottom: "data"
  top: "conv0"
  param {
    lr_mult: 1
  }
  param {
    lr_mult: 2
  }
  convolution_param {
    num_output: 10
    kernel_size: 5
    stride: 1
    weight_filler {
      type: "xavier"
    }
    bias_filler {
      type: "constant"
    }
  }
}
layer {
  name: "pool0"
  type: "Pooling"
  bottom: "conv0"
  top: "pool0"
  pooling_param {
    pool: MAX
    kernel_size: 2
    stride: 2
  }
}
layer {
  name: "conv1"
  type: "Convolution"
  bottom: "pool0"
  top: "conv1"
  param {
    lr_mult: 1
  }
  param {
    lr_mult: 2
  }
  convolution_param {
    num_output: 25
    kernel_size: 5
    stride: 1
    weight_filler {
      type: "xavier"
    }
    bias_filler {
      type: "constant"
    }
  }
}
layer {
  name: "pool1"
  type: "Pooling"
  bottom: "conv1"
  top: "pool1"
  pooling_param {
    pool: MAX
    kernel_size: 2
    stride: 2
  }
}
layer {
  name: "ip1"
  type: "InnerProduct"
  bottom: "pool1"
  top: "ip1"
  param {
    lr_mult: 1
  }
  param {
    lr_mult: 2
  }
  inner_product_param {
    num_output: 10
    weight_filler {
      type: "xavier"
    }
    bias_filler {
      type: "constant"
    }
  }
}
layer {
  name: "relu1"
  type: "ReLU"
  bottom: "ip1"
  top: "ip1"
}
layer {
  name: "ip2"
  type: "InnerProduct"
  bottom: "ip1"
  top: "ip2"
  param {
    lr_mult: 1
  }
  param {
    lr_mult: 2
  }
  inner_product_param {
    num_output: 10
    weight_filler {
      type: "xavier"
    }
    bias_filler {
      type: "constant"
    }
  }
}
layer {
  name: "relu2"
  type: "ReLU"
  bottom: "ip2"
  top: "ip2"
}
layer {
  name: "accuracy"
  type: "Accuracy"
  bottom: "ip2"
  bottom: "label"
  top: "accuracy"
  include {
    phase: TEST
  }
}
layer {
  name: "loss"
  type: "SoftmaxWithLoss"
  bottom: "ip2"
  bottom: "label"
  top: "loss"
}
I0428 19:59:58.823647 29368 layer_factory.hpp:77] Creating layer mnist
I0428 19:59:58.823690 29368 db_lmdb.cpp:35] Opened lmdb examples/mnist/mnist_test_lmdb
I0428 19:59:58.823714 29368 net.cpp:86] Creating Layer mnist
I0428 19:59:58.823719 29368 net.cpp:382] mnist -> data
I0428 19:59:58.823725 29368 net.cpp:382] mnist -> label
I0428 19:59:58.823824 29368 data_layer.cpp:45] output data size: 100,1,28,28
I0428 19:59:58.826196 29368 net.cpp:124] Setting up mnist
I0428 19:59:58.826225 29368 net.cpp:131] Top shape: 100 1 28 28 (78400)
I0428 19:59:58.826231 29368 net.cpp:131] Top shape: 100 (100)
I0428 19:59:58.826234 29368 net.cpp:139] Memory required for data: 314000
I0428 19:59:58.826238 29368 layer_factory.hpp:77] Creating layer label_mnist_1_split
I0428 19:59:58.826246 29368 net.cpp:86] Creating Layer label_mnist_1_split
I0428 19:59:58.826248 29368 net.cpp:408] label_mnist_1_split <- label
I0428 19:59:58.826253 29368 net.cpp:382] label_mnist_1_split -> label_mnist_1_split_0
I0428 19:59:58.826261 29368 net.cpp:382] label_mnist_1_split -> label_mnist_1_split_1
I0428 19:59:58.826370 29368 net.cpp:124] Setting up label_mnist_1_split
I0428 19:59:58.826387 29368 net.cpp:131] Top shape: 100 (100)
I0428 19:59:58.826391 29368 net.cpp:131] Top shape: 100 (100)
I0428 19:59:58.826395 29368 net.cpp:139] Memory required for data: 314800
I0428 19:59:58.826397 29368 layer_factory.hpp:77] Creating layer conv0
I0428 19:59:58.826406 29368 net.cpp:86] Creating Layer conv0
I0428 19:59:58.826409 29368 net.cpp:408] conv0 <- data
I0428 19:59:58.826414 29368 net.cpp:382] conv0 -> conv0
I0428 19:59:58.828074 29368 net.cpp:124] Setting up conv0
I0428 19:59:58.828086 29368 net.cpp:131] Top shape: 100 10 24 24 (576000)
I0428 19:59:58.828106 29368 net.cpp:139] Memory required for data: 2618800
I0428 19:59:58.828115 29368 layer_factory.hpp:77] Creating layer pool0
I0428 19:59:58.828121 29368 net.cpp:86] Creating Layer pool0
I0428 19:59:58.828125 29368 net.cpp:408] pool0 <- conv0
I0428 19:59:58.828128 29368 net.cpp:382] pool0 -> pool0
I0428 19:59:58.828161 29368 net.cpp:124] Setting up pool0
I0428 19:59:58.828171 29368 net.cpp:131] Top shape: 100 10 12 12 (144000)
I0428 19:59:58.828173 29368 net.cpp:139] Memory required for data: 3194800
I0428 19:59:58.828176 29368 layer_factory.hpp:77] Creating layer conv1
I0428 19:59:58.828184 29368 net.cpp:86] Creating Layer conv1
I0428 19:59:58.828187 29368 net.cpp:408] conv1 <- pool0
I0428 19:59:58.828191 29368 net.cpp:382] conv1 -> conv1
I0428 19:59:58.830344 29368 net.cpp:124] Setting up conv1
I0428 19:59:58.830356 29368 net.cpp:131] Top shape: 100 25 8 8 (160000)
I0428 19:59:58.830376 29368 net.cpp:139] Memory required for data: 3834800
I0428 19:59:58.830384 29368 layer_factory.hpp:77] Creating layer pool1
I0428 19:59:58.830391 29368 net.cpp:86] Creating Layer pool1
I0428 19:59:58.830394 29368 net.cpp:408] pool1 <- conv1
I0428 19:59:58.830399 29368 net.cpp:382] pool1 -> pool1
I0428 19:59:58.830467 29368 net.cpp:124] Setting up pool1
I0428 19:59:58.830476 29368 net.cpp:131] Top shape: 100 25 4 4 (40000)
I0428 19:59:58.830479 29368 net.cpp:139] Memory required for data: 3994800
I0428 19:59:58.830482 29368 layer_factory.hpp:77] Creating layer ip1
I0428 19:59:58.830487 29368 net.cpp:86] Creating Layer ip1
I0428 19:59:58.830490 29368 net.cpp:408] ip1 <- pool1
I0428 19:59:58.830495 29368 net.cpp:382] ip1 -> ip1
I0428 19:59:58.830610 29368 net.cpp:124] Setting up ip1
I0428 19:59:58.830617 29368 net.cpp:131] Top shape: 100 10 (1000)
I0428 19:59:58.830621 29368 net.cpp:139] Memory required for data: 3998800
I0428 19:59:58.830628 29368 layer_factory.hpp:77] Creating layer relu1
I0428 19:59:58.830633 29368 net.cpp:86] Creating Layer relu1
I0428 19:59:58.830636 29368 net.cpp:408] relu1 <- ip1
I0428 19:59:58.830641 29368 net.cpp:369] relu1 -> ip1 (in-place)
I0428 19:59:58.830811 29368 net.cpp:124] Setting up relu1
I0428 19:59:58.830834 29368 net.cpp:131] Top shape: 100 10 (1000)
I0428 19:59:58.830837 29368 net.cpp:139] Memory required for data: 4002800
I0428 19:59:58.830840 29368 layer_factory.hpp:77] Creating layer ip2
I0428 19:59:58.830847 29368 net.cpp:86] Creating Layer ip2
I0428 19:59:58.830850 29368 net.cpp:408] ip2 <- ip1
I0428 19:59:58.830855 29368 net.cpp:382] ip2 -> ip2
I0428 19:59:58.830942 29368 net.cpp:124] Setting up ip2
I0428 19:59:58.830955 29368 net.cpp:131] Top shape: 100 10 (1000)
I0428 19:59:58.830958 29368 net.cpp:139] Memory required for data: 4006800
I0428 19:59:58.830965 29368 layer_factory.hpp:77] Creating layer relu2
I0428 19:59:58.830968 29368 net.cpp:86] Creating Layer relu2
I0428 19:59:58.830971 29368 net.cpp:408] relu2 <- ip2
I0428 19:59:58.830976 29368 net.cpp:369] relu2 -> ip2 (in-place)
I0428 19:59:58.831115 29368 net.cpp:124] Setting up relu2
I0428 19:59:58.831123 29368 net.cpp:131] Top shape: 100 10 (1000)
I0428 19:59:58.831126 29368 net.cpp:139] Memory required for data: 4010800
I0428 19:59:58.831130 29368 layer_factory.hpp:77] Creating layer ip2_relu2_0_split
I0428 19:59:58.831133 29368 net.cpp:86] Creating Layer ip2_relu2_0_split
I0428 19:59:58.831137 29368 net.cpp:408] ip2_relu2_0_split <- ip2
I0428 19:59:58.831141 29368 net.cpp:382] ip2_relu2_0_split -> ip2_relu2_0_split_0
I0428 19:59:58.831157 29368 net.cpp:382] ip2_relu2_0_split -> ip2_relu2_0_split_1
I0428 19:59:58.831189 29368 net.cpp:124] Setting up ip2_relu2_0_split
I0428 19:59:58.831197 29368 net.cpp:131] Top shape: 100 10 (1000)
I0428 19:59:58.831199 29368 net.cpp:131] Top shape: 100 10 (1000)
I0428 19:59:58.831202 29368 net.cpp:139] Memory required for data: 4018800
I0428 19:59:58.831205 29368 layer_factory.hpp:77] Creating layer accuracy
I0428 19:59:58.831210 29368 net.cpp:86] Creating Layer accuracy
I0428 19:59:58.831213 29368 net.cpp:408] accuracy <- ip2_relu2_0_split_0
I0428 19:59:58.831218 29368 net.cpp:408] accuracy <- label_mnist_1_split_0
I0428 19:59:58.831221 29368 net.cpp:382] accuracy -> accuracy
…
