…
I0428 20:06:45.017475 30940 net.cpp:296] The NetState phase (0) differed from the phase (1) specified by a rule in layer mnist
I0428 20:06:45.017505 30940 net.cpp:296] The NetState phase (0) differed from the phase (1) specified by a rule in layer accuracy
I0428 20:06:45.017585 30940 net.cpp:53] Initializing net from parameters: 
name: "LeNet"
state {
  phase: TRAIN
  level: 0
  stage: ""
}
layer {
  name: "mnist"
  type: "Data"
  top: "data"
  top: "label"
  include {
    phase: TRAIN
  }
  transform_param {
    scale: 0.00390625
  }
  data_param {
    source: "examples/mnist/mnist_train_lmdb"
    batch_size: 64
    backend: LMDB
  }
}
layer {
  name: "conv0"
  type: "Convolution"
  bottom: "data"
  top: "conv0"
  param {
    lr_mult: 1
  }
  param {
    lr_mult: 2
  }
  convolution_param {
    num_output: 25
    kernel_size: 5
    stride: 1
    weight_filler {
      type: "xavier"
    }
    bias_filler {
      type: "constant"
    }
  }
}
layer {
  name: "pool0"
  type: "Pooling"
  bottom: "conv0"
  top: "pool0"
  pooling_param {
    pool: MAX
    kernel_size: 2
    stride: 2
  }
}
layer {
  name: "conv1"
  type: "Convolution"
  bottom: "pool0"
  top: "conv1"
  param {
    lr_mult: 1
  }
  param {
    lr_mult: 2
  }
  convolution_param {
    num_output: 5
    kernel_size: 5
    stride: 1
    weight_filler {
      type: "xavier"
    }
    bias_filler {
      type: "constant"
    }
  }
}
layer {
  name: "pool1"
  type: "Pooling"
  bottom: "conv1"
  top: "pool1"
  pooling_param {
    pool: MAX
    kernel_size: 2
    stride: 2
  }
}
layer {
  name: "ip1"
  type: "InnerProduct"
  bottom: "pool1"
  top: "ip1"
  param {
    lr_mult: 1
  }
  param {
    lr_mult: 2
  }
  inner_product_param {
    num_output: 25
    weight_filler {
      type: "xavier"
    }
    bias_filler {
      type: "constant"
    }
  }
}
layer {
  name: "relu1"
  type: "ReLU"
  bottom: "ip1"
  top: "ip1"
}
layer {
  name: "ip2"
  type: "InnerProduct"
  bottom: "ip1"
  top: "ip2"
  param {
    lr_mult: 1
  }
  param {
    lr_mult: 2
  }
  inner_product_param {
    num_output: 10
    weight_filler {
      type: "xavier"
    }
    bias_filler {
      type: "constant"
    }
  }
}
layer {
  name: "relu2"
  type: "ReLU"
  bottom: "ip2"
  top: "ip2"
}
layer {
  name: "ip3"
  type: "InnerProduct"
  bottom: "ip2"
  top: "ip3"
  param {
    lr_mult: 1
  }
  param {
    lr_mult: 2
  }
  inner_product_param {
    num_output: 10
    weight_filler {
      type: "xavier"
    }
    bias_filler {
      type: "constant"
    }
  }
}
layer {
  name: "relu3"
  type: "ReLU"
  bottom: "ip3"
  top: "ip3"
}
layer {
  name: "loss"
  type: "SoftmaxWithLoss"
  bottom: "ip3"
  bottom: "label"
  top: "loss"
}
I0428 20:06:45.017648 30940 layer_factory.hpp:77] Creating layer mnist
I0428 20:06:45.017729 30940 db_lmdb.cpp:35] Opened lmdb examples/mnist/mnist_train_lmdb
I0428 20:06:45.017747 30940 net.cpp:86] Creating Layer mnist
I0428 20:06:45.017753 30940 net.cpp:382] mnist -> data
I0428 20:06:45.017772 30940 net.cpp:382] mnist -> label
I0428 20:06:45.018690 30940 data_layer.cpp:45] output data size: 64,1,28,28
I0428 20:06:45.020874 30940 net.cpp:124] Setting up mnist
I0428 20:06:45.020923 30940 net.cpp:131] Top shape: 64 1 28 28 (50176)
I0428 20:06:45.020928 30940 net.cpp:131] Top shape: 64 (64)
I0428 20:06:45.020931 30940 net.cpp:139] Memory required for data: 200960
I0428 20:06:45.020936 30940 layer_factory.hpp:77] Creating layer conv0
I0428 20:06:45.020951 30940 net.cpp:86] Creating Layer conv0
I0428 20:06:45.020967 30940 net.cpp:408] conv0 <- data
I0428 20:06:45.020977 30940 net.cpp:382] conv0 -> conv0
I0428 20:06:45.251752 30940 net.cpp:124] Setting up conv0
I0428 20:06:45.251778 30940 net.cpp:131] Top shape: 64 25 24 24 (921600)
I0428 20:06:45.251783 30940 net.cpp:139] Memory required for data: 3887360
I0428 20:06:45.251798 30940 layer_factory.hpp:77] Creating layer pool0
I0428 20:06:45.251811 30940 net.cpp:86] Creating Layer pool0
I0428 20:06:45.251816 30940 net.cpp:408] pool0 <- conv0
I0428 20:06:45.251821 30940 net.cpp:382] pool0 -> pool0
I0428 20:06:45.251878 30940 net.cpp:124] Setting up pool0
I0428 20:06:45.251884 30940 net.cpp:131] Top shape: 64 25 12 12 (230400)
I0428 20:06:45.251886 30940 net.cpp:139] Memory required for data: 4808960
I0428 20:06:45.251889 30940 layer_factory.hpp:77] Creating layer conv1
I0428 20:06:45.251901 30940 net.cpp:86] Creating Layer conv1
I0428 20:06:45.251904 30940 net.cpp:408] conv1 <- pool0
I0428 20:06:45.251909 30940 net.cpp:382] conv1 -> conv1
I0428 20:06:45.254739 30940 net.cpp:124] Setting up conv1
I0428 20:06:45.254770 30940 net.cpp:131] Top shape: 64 5 8 8 (20480)
I0428 20:06:45.254773 30940 net.cpp:139] Memory required for data: 4890880
I0428 20:06:45.254781 30940 layer_factory.hpp:77] Creating layer pool1
I0428 20:06:45.254788 30940 net.cpp:86] Creating Layer pool1
I0428 20:06:45.254791 30940 net.cpp:408] pool1 <- conv1
I0428 20:06:45.254796 30940 net.cpp:382] pool1 -> pool1
I0428 20:06:45.254860 30940 net.cpp:124] Setting up pool1
I0428 20:06:45.254865 30940 net.cpp:131] Top shape: 64 5 4 4 (5120)
I0428 20:06:45.254868 30940 net.cpp:139] Memory required for data: 4911360
I0428 20:06:45.254870 30940 layer_factory.hpp:77] Creating layer ip1
I0428 20:06:45.254878 30940 net.cpp:86] Creating Layer ip1
I0428 20:06:45.254880 30940 net.cpp:408] ip1 <- pool1
I0428 20:06:45.254884 30940 net.cpp:382] ip1 -> ip1
I0428 20:06:45.254986 30940 net.cpp:124] Setting up ip1
I0428 20:06:45.254993 30940 net.cpp:131] Top shape: 64 25 (1600)
I0428 20:06:45.254997 30940 net.cpp:139] Memory required for data: 4917760
I0428 20:06:45.255003 30940 layer_factory.hpp:77] Creating layer relu1
I0428 20:06:45.255008 30940 net.cpp:86] Creating Layer relu1
I0428 20:06:45.255012 30940 net.cpp:408] relu1 <- ip1
I0428 20:06:45.255015 30940 net.cpp:369] relu1 -> ip1 (in-place)
I0428 20:06:45.255167 30940 net.cpp:124] Setting up relu1
I0428 20:06:45.255174 30940 net.cpp:131] Top shape: 64 25 (1600)
I0428 20:06:45.255177 30940 net.cpp:139] Memory required for data: 4924160
I0428 20:06:45.255180 30940 layer_factory.hpp:77] Creating layer ip2
I0428 20:06:45.255187 30940 net.cpp:86] Creating Layer ip2
I0428 20:06:45.255189 30940 net.cpp:408] ip2 <- ip1
I0428 20:06:45.255193 30940 net.cpp:382] ip2 -> ip2
I0428 20:06:45.255278 30940 net.cpp:124] Setting up ip2
I0428 20:06:45.255285 30940 net.cpp:131] Top shape: 64 10 (640)
I0428 20:06:45.255287 30940 net.cpp:139] Memory required for data: 4926720
I0428 20:06:45.255292 30940 layer_factory.hpp:77] Creating layer relu2
I0428 20:06:45.255298 30940 net.cpp:86] Creating Layer relu2
I0428 20:06:45.255301 30940 net.cpp:408] relu2 <- ip2
I0428 20:06:45.255304 30940 net.cpp:369] relu2 -> ip2 (in-place)
I0428 20:06:45.256088 30940 net.cpp:124] Setting up relu2
I0428 20:06:45.256100 30940 net.cpp:131] Top shape: 64 10 (640)
I0428 20:06:45.256119 30940 net.cpp:139] Memory required for data: 4929280
I0428 20:06:45.256122 30940 layer_factory.hpp:77] Creating layer ip3
I0428 20:06:45.256129 30940 net.cpp:86] Creating Layer ip3
I0428 20:06:45.256134 30940 net.cpp:408] ip3 <- ip2
I0428 20:06:45.256139 30940 net.cpp:382] ip3 -> ip3
I0428 20:06:45.256233 30940 net.cpp:124] Setting up ip3
I0428 20:06:45.256242 30940 net.cpp:131] Top shape: 64 10 (640)
I0428 20:06:45.256244 30940 net.cpp:139] Memory required for data: 4931840
I0428 20:06:45.256252 30940 layer_factory.hpp:77] Creating layer relu3
I0428 20:06:45.256256 30940 net.cpp:86] Creating Layer relu3
I0428 20:06:45.256259 30940 net.cpp:408] relu3 <- ip3
I0428 20:06:45.256263 30940 net.cpp:369] relu3 -> ip3 (in-place)
I0428 20:06:45.256419 30940 net.cpp:124] Setting up relu3
I0428 20:06:45.256428 30940 net.cpp:131] Top shape: 64 10 (640)
I0428 20:06:45.256431 30940 net.cpp:139] Memory required for data: 4934400
I0428 20:06:45.256434 30940 layer_factory.hpp:77] Creating layer loss
I0428 20:06:45.256439 30940 net.cpp:86] Creating Layer loss
I0428 20:06:45.256443 30940 net.cpp:408] loss <- ip3
I0428 20:06:45.256446 30940 net.cpp:408] loss <- label
I0428 20:06:45.256451 30940 net.cpp:382] loss -> loss
I0428 20:06:45.256469 30940 layer_factory.hpp:77] Creating layer loss
…
I0428 20:06:45.257275 30940 solver.cpp:173] Creating test net (#0) specified by net file: ECE595/mnist/train_test/var_everything2/lenet_train_test1036.prototxt
I0428 20:06:45.257320 30940 net.cpp:296] The NetState phase (1) differed from the phase (0) specified by a rule in layer mnist
I0428 20:06:45.257408 30940 net.cpp:53] Initializing net from parameters: 
name: "LeNet"
state {
  phase: TEST
}
layer {
  name: "mnist"
  type: "Data"
  top: "data"
  top: "label"
  include {
    phase: TEST
  }
  transform_param {
    scale: 0.00390625
  }
  data_param {
    source: "examples/mnist/mnist_test_lmdb"
    batch_size: 100
    backend: LMDB
  }
}
layer {
  name: "conv0"
  type: "Convolution"
  bottom: "data"
  top: "conv0"
  param {
    lr_mult: 1
  }
  param {
    lr_mult: 2
  }
  convolution_param {
    num_output: 25
    kernel_size: 5
    stride: 1
    weight_filler {
      type: "xavier"
    }
    bias_filler {
      type: "constant"
    }
  }
}
layer {
  name: "pool0"
  type: "Pooling"
  bottom: "conv0"
  top: "pool0"
  pooling_param {
    pool: MAX
    kernel_size: 2
    stride: 2
  }
}
layer {
  name: "conv1"
  type: "Convolution"
  bottom: "pool0"
  top: "conv1"
  param {
    lr_mult: 1
  }
  param {
    lr_mult: 2
  }
  convolution_param {
    num_output: 5
    kernel_size: 5
    stride: 1
    weight_filler {
      type: "xavier"
    }
    bias_filler {
      type: "constant"
    }
  }
}
layer {
  name: "pool1"
  type: "Pooling"
  bottom: "conv1"
  top: "pool1"
  pooling_param {
    pool: MAX
    kernel_size: 2
    stride: 2
  }
}
layer {
  name: "ip1"
  type: "InnerProduct"
  bottom: "pool1"
  top: "ip1"
  param {
    lr_mult: 1
  }
  param {
    lr_mult: 2
  }
  inner_product_param {
    num_output: 25
    weight_filler {
      type: "xavier"
    }
    bias_filler {
      type: "constant"
    }
  }
}
layer {
  name: "relu1"
  type: "ReLU"
  bottom: "ip1"
  top: "ip1"
}
layer {
  name: "ip2"
  type: "InnerProduct"
  bottom: "ip1"
  top: "ip2"
  param {
    lr_mult: 1
  }
  param {
    lr_mult: 2
  }
  inner_product_param {
    num_output: 10
    weight_filler {
      type: "xavier"
    }
    bias_filler {
      type: "constant"
    }
  }
}
layer {
  name: "relu2"
  type: "ReLU"
  bottom: "ip2"
  top: "ip2"
}
layer {
  name: "ip3"
  type: "InnerProduct"
  bottom: "ip2"
  top: "ip3"
  param {
    lr_mult: 1
  }
  param {
    lr_mult: 2
  }
  inner_product_param {
    num_output: 10
    weight_filler {
      type: "xavier"
    }
    bias_filler {
      type: "constant"
    }
  }
}
layer {
  name: "relu3"
  type: "ReLU"
  bottom: "ip3"
  top: "ip3"
}
layer {
  name: "accuracy"
  type: "Accuracy"
  bottom: "ip3"
  bottom: "label"
  top: "accuracy"
  include {
    phase: TEST
  }
}
layer {
  name: "loss"
  type: "SoftmaxWithLoss"
  bottom: "ip3"
  bottom: "label"
  top: "loss"
}
I0428 20:06:45.257503 30940 layer_factory.hpp:77] Creating layer mnist
I0428 20:06:45.257544 30940 db_lmdb.cpp:35] Opened lmdb examples/mnist/mnist_test_lmdb
I0428 20:06:45.257557 30940 net.cpp:86] Creating Layer mnist
I0428 20:06:45.257561 30940 net.cpp:382] mnist -> data
I0428 20:06:45.257570 30940 net.cpp:382] mnist -> label
I0428 20:06:45.257648 30940 data_layer.cpp:45] output data size: 100,1,28,28
I0428 20:06:45.259905 30940 net.cpp:124] Setting up mnist
I0428 20:06:45.259951 30940 net.cpp:131] Top shape: 100 1 28 28 (78400)
I0428 20:06:45.259956 30940 net.cpp:131] Top shape: 100 (100)
I0428 20:06:45.259959 30940 net.cpp:139] Memory required for data: 314000
I0428 20:06:45.259963 30940 layer_factory.hpp:77] Creating layer label_mnist_1_split
I0428 20:06:45.259973 30940 net.cpp:86] Creating Layer label_mnist_1_split
I0428 20:06:45.259975 30940 net.cpp:408] label_mnist_1_split <- label
I0428 20:06:45.259980 30940 net.cpp:382] label_mnist_1_split -> label_mnist_1_split_0
I0428 20:06:45.259987 30940 net.cpp:382] label_mnist_1_split -> label_mnist_1_split_1
I0428 20:06:45.260077 30940 net.cpp:124] Setting up label_mnist_1_split
I0428 20:06:45.260084 30940 net.cpp:131] Top shape: 100 (100)
I0428 20:06:45.260088 30940 net.cpp:131] Top shape: 100 (100)
I0428 20:06:45.260092 30940 net.cpp:139] Memory required for data: 314800
I0428 20:06:45.260094 30940 layer_factory.hpp:77] Creating layer conv0
I0428 20:06:45.260102 30940 net.cpp:86] Creating Layer conv0
I0428 20:06:45.260105 30940 net.cpp:408] conv0 <- data
I0428 20:06:45.260110 30940 net.cpp:382] conv0 -> conv0
I0428 20:06:45.261678 30940 net.cpp:124] Setting up conv0
I0428 20:06:45.261708 30940 net.cpp:131] Top shape: 100 25 24 24 (1440000)
I0428 20:06:45.261711 30940 net.cpp:139] Memory required for data: 6074800
I0428 20:06:45.261720 30940 layer_factory.hpp:77] Creating layer pool0
I0428 20:06:45.261726 30940 net.cpp:86] Creating Layer pool0
I0428 20:06:45.261729 30940 net.cpp:408] pool0 <- conv0
I0428 20:06:45.261734 30940 net.cpp:382] pool0 -> pool0
I0428 20:06:45.261788 30940 net.cpp:124] Setting up pool0
I0428 20:06:45.261793 30940 net.cpp:131] Top shape: 100 25 12 12 (360000)
I0428 20:06:45.261796 30940 net.cpp:139] Memory required for data: 7514800
I0428 20:06:45.261801 30940 layer_factory.hpp:77] Creating layer conv1
I0428 20:06:45.261808 30940 net.cpp:86] Creating Layer conv1
I0428 20:06:45.261811 30940 net.cpp:408] conv1 <- pool0
I0428 20:06:45.261816 30940 net.cpp:382] conv1 -> conv1
I0428 20:06:45.263914 30940 net.cpp:124] Setting up conv1
I0428 20:06:45.263927 30940 net.cpp:131] Top shape: 100 5 8 8 (32000)
I0428 20:06:45.263931 30940 net.cpp:139] Memory required for data: 7642800
I0428 20:06:45.263939 30940 layer_factory.hpp:77] Creating layer pool1
I0428 20:06:45.263945 30940 net.cpp:86] Creating Layer pool1
I0428 20:06:45.263948 30940 net.cpp:408] pool1 <- conv1
I0428 20:06:45.263953 30940 net.cpp:382] pool1 -> pool1
I0428 20:06:45.264009 30940 net.cpp:124] Setting up pool1
I0428 20:06:45.264015 30940 net.cpp:131] Top shape: 100 5 4 4 (8000)
I0428 20:06:45.264017 30940 net.cpp:139] Memory required for data: 7674800
I0428 20:06:45.264020 30940 layer_factory.hpp:77] Creating layer ip1
I0428 20:06:45.264026 30940 net.cpp:86] Creating Layer ip1
I0428 20:06:45.264029 30940 net.cpp:408] ip1 <- pool1
I0428 20:06:45.264034 30940 net.cpp:382] ip1 -> ip1
I0428 20:06:45.264153 30940 net.cpp:124] Setting up ip1
I0428 20:06:45.264163 30940 net.cpp:131] Top shape: 100 25 (2500)
I0428 20:06:45.264178 30940 net.cpp:139] Memory required for data: 7684800
I0428 20:06:45.264185 30940 layer_factory.hpp:77] Creating layer relu1
I0428 20:06:45.264190 30940 net.cpp:86] Creating Layer relu1
I0428 20:06:45.264194 30940 net.cpp:408] relu1 <- ip1
I0428 20:06:45.264199 30940 net.cpp:369] relu1 -> ip1 (in-place)
I0428 20:06:45.264385 30940 net.cpp:124] Setting up relu1
I0428 20:06:45.264395 30940 net.cpp:131] Top shape: 100 25 (2500)
I0428 20:06:45.264400 30940 net.cpp:139] Memory required for data: 7694800
I0428 20:06:45.264403 30940 layer_factory.hpp:77] Creating layer ip2
I0428 20:06:45.264410 30940 net.cpp:86] Creating Layer ip2
I0428 20:06:45.264413 30940 net.cpp:408] ip2 <- ip1
I0428 20:06:45.264420 30940 net.cpp:382] ip2 -> ip2
I0428 20:06:45.264518 30940 net.cpp:124] Setting up ip2
I0428 20:06:45.264526 30940 net.cpp:131] Top shape: 100 10 (1000)
I0428 20:06:45.264531 30940 net.cpp:139] Memory required for data: 7698800
I0428 20:06:45.264538 30940 layer_factory.hpp:77] Creating layer relu2
I0428 20:06:45.264542 30940 net.cpp:86] Creating Layer relu2
I0428 20:06:45.264545 30940 net.cpp:408] relu2 <- ip2
I0428 20:06:45.264549 30940 net.cpp:369] relu2 -> ip2 (in-place)
I0428 20:06:45.264791 30940 net.cpp:124] Setting up relu2
I0428 20:06:45.264799 30940 net.cpp:131] Top shape: 100 10 (1000)
I0428 20:06:45.264803 30940 net.cpp:139] Memory required for data: 7702800
I0428 20:06:45.264806 30940 layer_factory.hpp:77] Creating layer ip3
I0428 20:06:45.264834 30940 net.cpp:86] Creating Layer ip3
I0428 20:06:45.264839 30940 net.cpp:408] ip3 <- ip2
I0428 20:06:45.264849 30940 net.cpp:382] ip3 -> ip3
I0428 20:06:45.264997 30940 net.cpp:124] Setting up ip3
I0428 20:06:45.265004 30940 net.cpp:131] Top shape: 100 10 (1000)
I0428 20:06:45.265008 30940 net.cpp:139] Memory required for data: 7706800
I0428 20:06:45.265017 30940 layer_factory.hpp:77] Creating layer relu3
I0428 20:06:45.265022 30940 net.cpp:86] Creating Layer relu3
I0428 20:06:45.265027 30940 net.cpp:408] relu3 <- ip3
I0428 20:06:45.265031 30940 net.cpp:369] relu3 -> ip3 (in-place)
I0428 20:06:45.265887 30940 net.cpp:124] Setting up relu3
I0428 20:06:45.265899 30940 net.cpp:131] Top shape: 100 10 (1000)
I0428 20:06:45.265918 30940 net.cpp:139] Memory required for data: 7710800
I0428 20:06:45.265921 30940 layer_factory.hpp:77] Creating layer ip3_relu3_0_split
I0428 20:06:45.265926 30940 net.cpp:86] Creating Layer ip3_relu3_0_split
I0428 20:06:45.265929 30940 net.cpp:408] ip3_relu3_0_split <- ip3
I0428 20:06:45.265935 30940 net.cpp:382] ip3_relu3_0_split -> ip3_relu3_0_split_0
I0428 20:06:45.265941 30940 net.cpp:382] ip3_relu3_0_split -> ip3_relu3_0_split_1
I0428 20:06:45.265977 30940 net.cpp:124] Setting up ip3_relu3_0_split
I0428 20:06:45.265982 30940 net.cpp:131] Top shape: 100 10 (1000)
I0428 20:06:45.265986 30940 net.cpp:131] Top shape: 100 10 (1000)
I0428 20:06:45.265990 30940 net.cpp:139] Memory required for data: 7718800
I0428 20:06:45.265991 30940 layer_factory.hpp:77] Creating layer accuracy
I0428 20:06:45.265996 30940 net.cpp:86] Creating Layer accuracy
I0428 20:06:45.266000 30940 net.cpp:408] accuracy <- ip3_relu3_0_split_0
I0428 20:06:45.266003 30940 net.cpp:408] accuracy <- label_mnist_1_split_0
I0428 20:06:45.266007 30940 net.cpp:382] accuracy -> accuracy
…
