…
I0428 20:31:19.291627  3933 net.cpp:296] The NetState phase (0) differed from the phase (1) specified by a rule in layer mnist
I0428 20:31:19.291653  3933 net.cpp:296] The NetState phase (0) differed from the phase (1) specified by a rule in layer accuracy
I0428 20:31:19.291769  3933 net.cpp:53] Initializing net from parameters: 
name: "LeNet"
state {
  phase: TRAIN
  level: 0
  stage: ""
}
layer {
  name: "mnist"
  type: "Data"
  top: "data"
  top: "label"
  include {
    phase: TRAIN
  }
  transform_param {
    scale: 0.00390625
  }
  data_param {
    source: "examples/mnist/mnist_train_lmdb"
    batch_size: 64
    backend: LMDB
  }
}
layer {
  name: "conv0"
  type: "Convolution"
  bottom: "data"
  top: "conv0"
  param {
    lr_mult: 1
  }
  param {
    lr_mult: 2
  }
  convolution_param {
    num_output: 100
    kernel_size: 5
    stride: 1
    weight_filler {
      type: "xavier"
    }
    bias_filler {
      type: "constant"
    }
  }
}
layer {
  name: "pool0"
  type: "Pooling"
  bottom: "conv0"
  top: "pool0"
  pooling_param {
    pool: MAX
    kernel_size: 2
    stride: 2
  }
}
layer {
  name: "conv1"
  type: "Convolution"
  bottom: "pool0"
  top: "conv1"
  param {
    lr_mult: 1
  }
  param {
    lr_mult: 2
  }
  convolution_param {
    num_output: 10
    kernel_size: 5
    stride: 1
    weight_filler {
      type: "xavier"
    }
    bias_filler {
      type: "constant"
    }
  }
}
layer {
  name: "pool1"
  type: "Pooling"
  bottom: "conv1"
  top: "pool1"
  pooling_param {
    pool: MAX
    kernel_size: 2
    stride: 2
  }
}
layer {
  name: "ip1"
  type: "InnerProduct"
  bottom: "pool1"
  top: "ip1"
  param {
    lr_mult: 1
  }
  param {
    lr_mult: 2
  }
  inner_product_param {
    num_output: 50
    weight_filler {
      type: "xavier"
    }
    bias_filler {
      type: "constant"
    }
  }
}
layer {
  name: "relu1"
  type: "ReLU"
  bottom: "ip1"
  top: "ip1"
}
layer {
  name: "ip2"
  type: "InnerProduct"
  bottom: "ip1"
  top: "ip2"
  param {
    lr_mult: 1
  }
  param {
    lr_mult: 2
  }
  inner_product_param {
    num_output: 10
    weight_filler {
      type: "xavier"
    }
    bias_filler {
      type: "constant"
    }
  }
}
layer {
  name: "relu2"
  type: "ReLU"
  bottom: "ip2"
  top: "ip2"
}
layer {
  name: "ip3"
  type: "InnerProduct"
  bottom: "ip2"
  top: "ip3"
  param {
    lr_mult: 1
  }
  param {
    lr_mult: 2
  }
  inner_product_param {
    num_output: 10
    weight_filler {
      type: "xavier"
    }
    bias_filler {
      type: "constant"
    }
  }
}
layer {
  name: "relu3"
  type: "ReLU"
  bottom: "ip3"
  top: "ip3"
}
layer {
  name: "loss"
  type: "SoftmaxWithLoss"
  bottom: "ip3"
  bottom: "label"
  top: "loss"
}
I0428 20:31:19.291885  3933 layer_factory.hpp:77] Creating layer mnist
I0428 20:31:19.292017  3933 db_lmdb.cpp:35] Opened lmdb examples/mnist/mnist_train_lmdb
I0428 20:31:19.292052  3933 net.cpp:86] Creating Layer mnist
I0428 20:31:19.292063  3933 net.cpp:382] mnist -> data
I0428 20:31:19.292095  3933 net.cpp:382] mnist -> label
I0428 20:31:19.293370  3933 data_layer.cpp:45] output data size: 64,1,28,28
I0428 20:31:19.295819  3933 net.cpp:124] Setting up mnist
I0428 20:31:19.295840  3933 net.cpp:131] Top shape: 64 1 28 28 (50176)
I0428 20:31:19.295850  3933 net.cpp:131] Top shape: 64 (64)
I0428 20:31:19.295857  3933 net.cpp:139] Memory required for data: 200960
I0428 20:31:19.295867  3933 layer_factory.hpp:77] Creating layer conv0
I0428 20:31:19.295892  3933 net.cpp:86] Creating Layer conv0
I0428 20:31:19.295917  3933 net.cpp:408] conv0 <- data
I0428 20:31:19.295935  3933 net.cpp:382] conv0 -> conv0
I0428 20:31:19.586797  3933 net.cpp:124] Setting up conv0
I0428 20:31:19.586832  3933 net.cpp:131] Top shape: 64 100 24 24 (3686400)
I0428 20:31:19.586838  3933 net.cpp:139] Memory required for data: 14946560
I0428 20:31:19.586863  3933 layer_factory.hpp:77] Creating layer pool0
I0428 20:31:19.586882  3933 net.cpp:86] Creating Layer pool0
I0428 20:31:19.586890  3933 net.cpp:408] pool0 <- conv0
I0428 20:31:19.586904  3933 net.cpp:382] pool0 -> pool0
I0428 20:31:19.586978  3933 net.cpp:124] Setting up pool0
I0428 20:31:19.586989  3933 net.cpp:131] Top shape: 64 100 12 12 (921600)
I0428 20:31:19.586995  3933 net.cpp:139] Memory required for data: 18632960
I0428 20:31:19.587002  3933 layer_factory.hpp:77] Creating layer conv1
I0428 20:31:19.587023  3933 net.cpp:86] Creating Layer conv1
I0428 20:31:19.587031  3933 net.cpp:408] conv1 <- pool0
I0428 20:31:19.587043  3933 net.cpp:382] conv1 -> conv1
I0428 20:31:19.589424  3933 net.cpp:124] Setting up conv1
I0428 20:31:19.589444  3933 net.cpp:131] Top shape: 64 10 8 8 (40960)
I0428 20:31:19.589452  3933 net.cpp:139] Memory required for data: 18796800
I0428 20:31:19.589468  3933 layer_factory.hpp:77] Creating layer pool1
I0428 20:31:19.589483  3933 net.cpp:86] Creating Layer pool1
I0428 20:31:19.589490  3933 net.cpp:408] pool1 <- conv1
I0428 20:31:19.589500  3933 net.cpp:382] pool1 -> pool1
I0428 20:31:19.589555  3933 net.cpp:124] Setting up pool1
I0428 20:31:19.589568  3933 net.cpp:131] Top shape: 64 10 4 4 (10240)
I0428 20:31:19.589576  3933 net.cpp:139] Memory required for data: 18837760
I0428 20:31:19.589581  3933 layer_factory.hpp:77] Creating layer ip1
I0428 20:31:19.589596  3933 net.cpp:86] Creating Layer ip1
I0428 20:31:19.589608  3933 net.cpp:408] ip1 <- pool1
I0428 20:31:19.589618  3933 net.cpp:382] ip1 -> ip1
I0428 20:31:19.590781  3933 net.cpp:124] Setting up ip1
I0428 20:31:19.590798  3933 net.cpp:131] Top shape: 64 50 (3200)
I0428 20:31:19.590806  3933 net.cpp:139] Memory required for data: 18850560
I0428 20:31:19.590821  3933 layer_factory.hpp:77] Creating layer relu1
I0428 20:31:19.590836  3933 net.cpp:86] Creating Layer relu1
I0428 20:31:19.590848  3933 net.cpp:408] relu1 <- ip1
I0428 20:31:19.590858  3933 net.cpp:369] relu1 -> ip1 (in-place)
I0428 20:31:19.591081  3933 net.cpp:124] Setting up relu1
I0428 20:31:19.591094  3933 net.cpp:131] Top shape: 64 50 (3200)
I0428 20:31:19.591100  3933 net.cpp:139] Memory required for data: 18863360
I0428 20:31:19.591107  3933 layer_factory.hpp:77] Creating layer ip2
I0428 20:31:19.591121  3933 net.cpp:86] Creating Layer ip2
I0428 20:31:19.591127  3933 net.cpp:408] ip2 <- ip1
I0428 20:31:19.591137  3933 net.cpp:382] ip2 -> ip2
I0428 20:31:19.591270  3933 net.cpp:124] Setting up ip2
I0428 20:31:19.591280  3933 net.cpp:131] Top shape: 64 10 (640)
I0428 20:31:19.591286  3933 net.cpp:139] Memory required for data: 18865920
I0428 20:31:19.591297  3933 layer_factory.hpp:77] Creating layer relu2
I0428 20:31:19.591313  3933 net.cpp:86] Creating Layer relu2
I0428 20:31:19.591321  3933 net.cpp:408] relu2 <- ip2
I0428 20:31:19.591331  3933 net.cpp:369] relu2 -> ip2 (in-place)
I0428 20:31:19.592209  3933 net.cpp:124] Setting up relu2
I0428 20:31:19.592226  3933 net.cpp:131] Top shape: 64 10 (640)
I0428 20:31:19.592232  3933 net.cpp:139] Memory required for data: 18868480
I0428 20:31:19.592239  3933 layer_factory.hpp:77] Creating layer ip3
I0428 20:31:19.592253  3933 net.cpp:86] Creating Layer ip3
I0428 20:31:19.592260  3933 net.cpp:408] ip3 <- ip2
I0428 20:31:19.592273  3933 net.cpp:382] ip3 -> ip3
I0428 20:31:19.592406  3933 net.cpp:124] Setting up ip3
I0428 20:31:19.592417  3933 net.cpp:131] Top shape: 64 10 (640)
I0428 20:31:19.592423  3933 net.cpp:139] Memory required for data: 18871040
I0428 20:31:19.592438  3933 layer_factory.hpp:77] Creating layer relu3
I0428 20:31:19.592449  3933 net.cpp:86] Creating Layer relu3
I0428 20:31:19.592456  3933 net.cpp:408] relu3 <- ip3
I0428 20:31:19.592464  3933 net.cpp:369] relu3 -> ip3 (in-place)
I0428 20:31:19.592685  3933 net.cpp:124] Setting up relu3
I0428 20:31:19.592697  3933 net.cpp:131] Top shape: 64 10 (640)
I0428 20:31:19.592703  3933 net.cpp:139] Memory required for data: 18873600
I0428 20:31:19.592710  3933 layer_factory.hpp:77] Creating layer loss
I0428 20:31:19.592720  3933 net.cpp:86] Creating Layer loss
I0428 20:31:19.592726  3933 net.cpp:408] loss <- ip3
I0428 20:31:19.592734  3933 net.cpp:408] loss <- label
I0428 20:31:19.592744  3933 net.cpp:382] loss -> loss
I0428 20:31:19.592772  3933 layer_factory.hpp:77] Creating layer loss
…
I0428 20:31:19.593621  3933 solver.cpp:173] Creating test net (#0) specified by net file: ECE595/mnist/train_test/var_everything2/lenet_train_test1553.prototxt
I0428 20:31:19.593660  3933 net.cpp:296] The NetState phase (1) differed from the phase (0) specified by a rule in layer mnist
I0428 20:31:19.593783  3933 net.cpp:53] Initializing net from parameters: 
name: "LeNet"
state {
  phase: TEST
}
layer {
  name: "mnist"
  type: "Data"
  top: "data"
  top: "label"
  include {
    phase: TEST
  }
  transform_param {
    scale: 0.00390625
  }
  data_param {
    source: "examples/mnist/mnist_test_lmdb"
    batch_size: 100
    backend: LMDB
  }
}
layer {
  name: "conv0"
  type: "Convolution"
  bottom: "data"
  top: "conv0"
  param {
    lr_mult: 1
  }
  param {
    lr_mult: 2
  }
  convolution_param {
    num_output: 100
    kernel_size: 5
    stride: 1
    weight_filler {
      type: "xavier"
    }
    bias_filler {
      type: "constant"
    }
  }
}
layer {
  name: "pool0"
  type: "Pooling"
  bottom: "conv0"
  top: "pool0"
  pooling_param {
    pool: MAX
    kernel_size: 2
    stride: 2
  }
}
layer {
  name: "conv1"
  type: "Convolution"
  bottom: "pool0"
  top: "conv1"
  param {
    lr_mult: 1
  }
  param {
    lr_mult: 2
  }
  convolution_param {
    num_output: 10
    kernel_size: 5
    stride: 1
    weight_filler {
      type: "xavier"
    }
    bias_filler {
      type: "constant"
    }
  }
}
layer {
  name: "pool1"
  type: "Pooling"
  bottom: "conv1"
  top: "pool1"
  pooling_param {
    pool: MAX
    kernel_size: 2
    stride: 2
  }
}
layer {
  name: "ip1"
  type: "InnerProduct"
  bottom: "pool1"
  top: "ip1"
  param {
    lr_mult: 1
  }
  param {
    lr_mult: 2
  }
  inner_product_param {
    num_output: 50
    weight_filler {
      type: "xavier"
    }
    bias_filler {
      type: "constant"
    }
  }
}
layer {
  name: "relu1"
  type: "ReLU"
  bottom: "ip1"
  top: "ip1"
}
layer {
  name: "ip2"
  type: "InnerProduct"
  bottom: "ip1"
  top: "ip2"
  param {
    lr_mult: 1
  }
  param {
    lr_mult: 2
  }
  inner_product_param {
    num_output: 10
    weight_filler {
      type: "xavier"
    }
    bias_filler {
      type: "constant"
    }
  }
}
layer {
  name: "relu2"
  type: "ReLU"
  bottom: "ip2"
  top: "ip2"
}
layer {
  name: "ip3"
  type: "InnerProduct"
  bottom: "ip2"
  top: "ip3"
  param {
    lr_mult: 1
  }
  param {
    lr_mult: 2
  }
  inner_product_param {
    num_output: 10
    weight_filler {
      type: "xavier"
    }
    bias_filler {
      type: "constant"
    }
  }
}
layer {
  name: "relu3"
  type: "ReLU"
  bottom: "ip3"
  top: "ip3"
}
layer {
  name: "accuracy"
  type: "Accuracy"
  bottom: "ip3"
  bottom: "label"
  top: "accuracy"
  include {
    phase: TEST
  }
}
layer {
  name: "loss"
  type: "SoftmaxWithLoss"
  bottom: "ip3"
  bottom: "label"
  top: "loss"
}
I0428 20:31:19.593931  3933 layer_factory.hpp:77] Creating layer mnist
I0428 20:31:19.594002  3933 db_lmdb.cpp:35] Opened lmdb examples/mnist/mnist_test_lmdb
I0428 20:31:19.594024  3933 net.cpp:86] Creating Layer mnist
I0428 20:31:19.594034  3933 net.cpp:382] mnist -> data
I0428 20:31:19.594048  3933 net.cpp:382] mnist -> label
I0428 20:31:19.594197  3933 data_layer.cpp:45] output data size: 100,1,28,28
I0428 20:31:19.596575  3933 net.cpp:124] Setting up mnist
I0428 20:31:19.596603  3933 net.cpp:131] Top shape: 100 1 28 28 (78400)
I0428 20:31:19.596616  3933 net.cpp:131] Top shape: 100 (100)
I0428 20:31:19.596621  3933 net.cpp:139] Memory required for data: 314000
I0428 20:31:19.596628  3933 layer_factory.hpp:77] Creating layer label_mnist_1_split
I0428 20:31:19.596644  3933 net.cpp:86] Creating Layer label_mnist_1_split
I0428 20:31:19.596652  3933 net.cpp:408] label_mnist_1_split <- label
I0428 20:31:19.596662  3933 net.cpp:382] label_mnist_1_split -> label_mnist_1_split_0
I0428 20:31:19.596673  3933 net.cpp:382] label_mnist_1_split -> label_mnist_1_split_1
I0428 20:31:19.596758  3933 net.cpp:124] Setting up label_mnist_1_split
I0428 20:31:19.596770  3933 net.cpp:131] Top shape: 100 (100)
I0428 20:31:19.596777  3933 net.cpp:131] Top shape: 100 (100)
I0428 20:31:19.596782  3933 net.cpp:139] Memory required for data: 314800
I0428 20:31:19.596789  3933 layer_factory.hpp:77] Creating layer conv0
I0428 20:31:19.596807  3933 net.cpp:86] Creating Layer conv0
I0428 20:31:19.596823  3933 net.cpp:408] conv0 <- data
I0428 20:31:19.596837  3933 net.cpp:382] conv0 -> conv0
I0428 20:31:19.598636  3933 net.cpp:124] Setting up conv0
I0428 20:31:19.598655  3933 net.cpp:131] Top shape: 100 100 24 24 (5760000)
I0428 20:31:19.598662  3933 net.cpp:139] Memory required for data: 23354800
I0428 20:31:19.598680  3933 layer_factory.hpp:77] Creating layer pool0
I0428 20:31:19.598693  3933 net.cpp:86] Creating Layer pool0
I0428 20:31:19.598701  3933 net.cpp:408] pool0 <- conv0
I0428 20:31:19.598711  3933 net.cpp:382] pool0 -> pool0
I0428 20:31:19.598764  3933 net.cpp:124] Setting up pool0
I0428 20:31:19.598774  3933 net.cpp:131] Top shape: 100 100 12 12 (1440000)
I0428 20:31:19.598780  3933 net.cpp:139] Memory required for data: 29114800
I0428 20:31:19.598786  3933 layer_factory.hpp:77] Creating layer conv1
I0428 20:31:19.598803  3933 net.cpp:86] Creating Layer conv1
I0428 20:31:19.598811  3933 net.cpp:408] conv1 <- pool0
I0428 20:31:19.598824  3933 net.cpp:382] conv1 -> conv1
I0428 20:31:19.600739  3933 net.cpp:124] Setting up conv1
I0428 20:31:19.600759  3933 net.cpp:131] Top shape: 100 10 8 8 (64000)
I0428 20:31:19.600766  3933 net.cpp:139] Memory required for data: 29370800
I0428 20:31:19.600782  3933 layer_factory.hpp:77] Creating layer pool1
I0428 20:31:19.600793  3933 net.cpp:86] Creating Layer pool1
I0428 20:31:19.600800  3933 net.cpp:408] pool1 <- conv1
I0428 20:31:19.600821  3933 net.cpp:382] pool1 -> pool1
I0428 20:31:19.600873  3933 net.cpp:124] Setting up pool1
I0428 20:31:19.600884  3933 net.cpp:131] Top shape: 100 10 4 4 (16000)
I0428 20:31:19.600891  3933 net.cpp:139] Memory required for data: 29434800
I0428 20:31:19.600898  3933 layer_factory.hpp:77] Creating layer ip1
I0428 20:31:19.600911  3933 net.cpp:86] Creating Layer ip1
I0428 20:31:19.600917  3933 net.cpp:408] ip1 <- pool1
I0428 20:31:19.600929  3933 net.cpp:382] ip1 -> ip1
I0428 20:31:19.601122  3933 net.cpp:124] Setting up ip1
I0428 20:31:19.601145  3933 net.cpp:131] Top shape: 100 50 (5000)
I0428 20:31:19.601151  3933 net.cpp:139] Memory required for data: 29454800
I0428 20:31:19.601166  3933 layer_factory.hpp:77] Creating layer relu1
I0428 20:31:19.601176  3933 net.cpp:86] Creating Layer relu1
I0428 20:31:19.601184  3933 net.cpp:408] relu1 <- ip1
I0428 20:31:19.601193  3933 net.cpp:369] relu1 -> ip1 (in-place)
I0428 20:31:19.601402  3933 net.cpp:124] Setting up relu1
I0428 20:31:19.601415  3933 net.cpp:131] Top shape: 100 50 (5000)
I0428 20:31:19.601421  3933 net.cpp:139] Memory required for data: 29474800
I0428 20:31:19.601428  3933 layer_factory.hpp:77] Creating layer ip2
I0428 20:31:19.601440  3933 net.cpp:86] Creating Layer ip2
I0428 20:31:19.601447  3933 net.cpp:408] ip2 <- ip1
I0428 20:31:19.601459  3933 net.cpp:382] ip2 -> ip2
I0428 20:31:19.601655  3933 net.cpp:124] Setting up ip2
I0428 20:31:19.601665  3933 net.cpp:131] Top shape: 100 10 (1000)
I0428 20:31:19.601670  3933 net.cpp:139] Memory required for data: 29478800
I0428 20:31:19.601681  3933 layer_factory.hpp:77] Creating layer relu2
I0428 20:31:19.601691  3933 net.cpp:86] Creating Layer relu2
I0428 20:31:19.601702  3933 net.cpp:408] relu2 <- ip2
I0428 20:31:19.601713  3933 net.cpp:369] relu2 -> ip2 (in-place)
I0428 20:31:19.601912  3933 net.cpp:124] Setting up relu2
I0428 20:31:19.601924  3933 net.cpp:131] Top shape: 100 10 (1000)
I0428 20:31:19.601938  3933 net.cpp:139] Memory required for data: 29482800
I0428 20:31:19.601944  3933 layer_factory.hpp:77] Creating layer ip3
I0428 20:31:19.601958  3933 net.cpp:86] Creating Layer ip3
I0428 20:31:19.601966  3933 net.cpp:408] ip3 <- ip2
I0428 20:31:19.601976  3933 net.cpp:382] ip3 -> ip3
I0428 20:31:19.602103  3933 net.cpp:124] Setting up ip3
I0428 20:31:19.602114  3933 net.cpp:131] Top shape: 100 10 (1000)
I0428 20:31:19.602120  3933 net.cpp:139] Memory required for data: 29486800
I0428 20:31:19.602135  3933 layer_factory.hpp:77] Creating layer relu3
I0428 20:31:19.602145  3933 net.cpp:86] Creating Layer relu3
I0428 20:31:19.602151  3933 net.cpp:408] relu3 <- ip3
I0428 20:31:19.602162  3933 net.cpp:369] relu3 -> ip3 (in-place)
I0428 20:31:19.603099  3933 net.cpp:124] Setting up relu3
I0428 20:31:19.603116  3933 net.cpp:131] Top shape: 100 10 (1000)
I0428 20:31:19.603127  3933 net.cpp:139] Memory required for data: 29490800
I0428 20:31:19.603132  3933 layer_factory.hpp:77] Creating layer ip3_relu3_0_split
I0428 20:31:19.603144  3933 net.cpp:86] Creating Layer ip3_relu3_0_split
I0428 20:31:19.603152  3933 net.cpp:408] ip3_relu3_0_split <- ip3
I0428 20:31:19.603160  3933 net.cpp:382] ip3_relu3_0_split -> ip3_relu3_0_split_0
I0428 20:31:19.603173  3933 net.cpp:382] ip3_relu3_0_split -> ip3_relu3_0_split_1
I0428 20:31:19.603230  3933 net.cpp:124] Setting up ip3_relu3_0_split
I0428 20:31:19.603240  3933 net.cpp:131] Top shape: 100 10 (1000)
I0428 20:31:19.603248  3933 net.cpp:131] Top shape: 100 10 (1000)
I0428 20:31:19.603255  3933 net.cpp:139] Memory required for data: 29498800
I0428 20:31:19.603263  3933 layer_factory.hpp:77] Creating layer accuracy
I0428 20:31:19.603272  3933 net.cpp:86] Creating Layer accuracy
I0428 20:31:19.603279  3933 net.cpp:408] accuracy <- ip3_relu3_0_split_0
I0428 20:31:19.603288  3933 net.cpp:408] accuracy <- label_mnist_1_split_0
I0428 20:31:19.603299  3933 net.cpp:382] accuracy -> accuracy
…
