…
I0428 19:39:59.965240 24439 net.cpp:296] The NetState phase (0) differed from the phase (1) specified by a rule in layer mnist
I0428 19:39:59.965257 24439 net.cpp:296] The NetState phase (0) differed from the phase (1) specified by a rule in layer accuracy
I0428 19:39:59.965344 24439 net.cpp:53] Initializing net from parameters: 
name: "LeNet"
state {
  phase: TRAIN
  level: 0
  stage: ""
}
layer {
  name: "mnist"
  type: "Data"
  top: "data"
  top: "label"
  include {
    phase: TRAIN
  }
  transform_param {
    scale: 0.00390625
  }
  data_param {
    source: "examples/mnist/mnist_train_lmdb"
    batch_size: 64
    backend: LMDB
  }
}
layer {
  name: "conv0"
  type: "Convolution"
  bottom: "data"
  top: "conv0"
  param {
    lr_mult: 1
  }
  param {
    lr_mult: 2
  }
  convolution_param {
    num_output: 2
    kernel_size: 5
    stride: 1
    weight_filler {
      type: "xavier"
    }
    bias_filler {
      type: "constant"
    }
  }
}
layer {
  name: "pool0"
  type: "Pooling"
  bottom: "conv0"
  top: "pool0"
  pooling_param {
    pool: MAX
    kernel_size: 2
    stride: 2
  }
}
layer {
  name: "conv1"
  type: "Convolution"
  bottom: "pool0"
  top: "conv1"
  param {
    lr_mult: 1
  }
  param {
    lr_mult: 2
  }
  convolution_param {
    num_output: 5
    kernel_size: 5
    stride: 1
    weight_filler {
      type: "xavier"
    }
    bias_filler {
      type: "constant"
    }
  }
}
layer {
  name: "pool1"
  type: "Pooling"
  bottom: "conv1"
  top: "pool1"
  pooling_param {
    pool: MAX
    kernel_size: 2
    stride: 2
  }
}
layer {
  name: "ip1"
  type: "InnerProduct"
  bottom: "pool1"
  top: "ip1"
  param {
    lr_mult: 1
  }
  param {
    lr_mult: 2
  }
  inner_product_param {
    num_output: 50
    weight_filler {
      type: "xavier"
    }
    bias_filler {
      type: "constant"
    }
  }
}
layer {
  name: "relu1"
  type: "ReLU"
  bottom: "ip1"
  top: "ip1"
}
layer {
  name: "ip2"
  type: "InnerProduct"
  bottom: "ip1"
  top: "ip2"
  param {
    lr_mult: 1
  }
  param {
    lr_mult: 2
  }
  inner_product_param {
    num_output: 10
    weight_filler {
      type: "xavier"
    }
    bias_filler {
      type: "constant"
    }
  }
}
layer {
  name: "relu2"
  type: "ReLU"
  bottom: "ip2"
  top: "ip2"
}
layer {
  name: "loss"
  type: "SoftmaxWithLoss"
  bottom: "ip2"
  bottom: "label"
  top: "loss"
}
I0428 19:39:59.965417 24439 layer_factory.hpp:77] Creating layer mnist
I0428 19:39:59.965512 24439 db_lmdb.cpp:35] Opened lmdb examples/mnist/mnist_train_lmdb
I0428 19:39:59.965535 24439 net.cpp:86] Creating Layer mnist
I0428 19:39:59.965543 24439 net.cpp:382] mnist -> data
I0428 19:39:59.965564 24439 net.cpp:382] mnist -> label
I0428 19:39:59.966624 24439 data_layer.cpp:45] output data size: 64,1,28,28
I0428 19:39:59.969003 24439 net.cpp:124] Setting up mnist
I0428 19:39:59.969022 24439 net.cpp:131] Top shape: 64 1 28 28 (50176)
I0428 19:39:59.969028 24439 net.cpp:131] Top shape: 64 (64)
I0428 19:39:59.969032 24439 net.cpp:139] Memory required for data: 200960
I0428 19:39:59.969038 24439 layer_factory.hpp:77] Creating layer conv0
I0428 19:39:59.969053 24439 net.cpp:86] Creating Layer conv0
I0428 19:39:59.969058 24439 net.cpp:408] conv0 <- data
I0428 19:39:59.969070 24439 net.cpp:382] conv0 -> conv0
I0428 19:40:00.214802 24439 net.cpp:124] Setting up conv0
I0428 19:40:00.214844 24439 net.cpp:131] Top shape: 64 2 24 24 (73728)
I0428 19:40:00.214848 24439 net.cpp:139] Memory required for data: 495872
I0428 19:40:00.214881 24439 layer_factory.hpp:77] Creating layer pool0
I0428 19:40:00.214893 24439 net.cpp:86] Creating Layer pool0
I0428 19:40:00.214898 24439 net.cpp:408] pool0 <- conv0
I0428 19:40:00.214903 24439 net.cpp:382] pool0 -> pool0
I0428 19:40:00.214962 24439 net.cpp:124] Setting up pool0
I0428 19:40:00.214970 24439 net.cpp:131] Top shape: 64 2 12 12 (18432)
I0428 19:40:00.214973 24439 net.cpp:139] Memory required for data: 569600
I0428 19:40:00.214975 24439 layer_factory.hpp:77] Creating layer conv1
I0428 19:40:00.214987 24439 net.cpp:86] Creating Layer conv1
I0428 19:40:00.214993 24439 net.cpp:408] conv1 <- pool0
I0428 19:40:00.215013 24439 net.cpp:382] conv1 -> conv1
I0428 19:40:00.216730 24439 net.cpp:124] Setting up conv1
I0428 19:40:00.216743 24439 net.cpp:131] Top shape: 64 5 8 8 (20480)
I0428 19:40:00.216747 24439 net.cpp:139] Memory required for data: 651520
I0428 19:40:00.216770 24439 layer_factory.hpp:77] Creating layer pool1
I0428 19:40:00.216778 24439 net.cpp:86] Creating Layer pool1
I0428 19:40:00.216781 24439 net.cpp:408] pool1 <- conv1
I0428 19:40:00.216786 24439 net.cpp:382] pool1 -> pool1
I0428 19:40:00.216859 24439 net.cpp:124] Setting up pool1
I0428 19:40:00.216873 24439 net.cpp:131] Top shape: 64 5 4 4 (5120)
I0428 19:40:00.216876 24439 net.cpp:139] Memory required for data: 672000
I0428 19:40:00.216879 24439 layer_factory.hpp:77] Creating layer ip1
I0428 19:40:00.216886 24439 net.cpp:86] Creating Layer ip1
I0428 19:40:00.216889 24439 net.cpp:408] ip1 <- pool1
I0428 19:40:00.216894 24439 net.cpp:382] ip1 -> ip1
I0428 19:40:00.217928 24439 net.cpp:124] Setting up ip1
I0428 19:40:00.217953 24439 net.cpp:131] Top shape: 64 50 (3200)
I0428 19:40:00.217957 24439 net.cpp:139] Memory required for data: 684800
I0428 19:40:00.217979 24439 layer_factory.hpp:77] Creating layer relu1
I0428 19:40:00.217985 24439 net.cpp:86] Creating Layer relu1
I0428 19:40:00.217989 24439 net.cpp:408] relu1 <- ip1
I0428 19:40:00.217993 24439 net.cpp:369] relu1 -> ip1 (in-place)
I0428 19:40:00.218158 24439 net.cpp:124] Setting up relu1
I0428 19:40:00.218165 24439 net.cpp:131] Top shape: 64 50 (3200)
I0428 19:40:00.218168 24439 net.cpp:139] Memory required for data: 697600
I0428 19:40:00.218171 24439 layer_factory.hpp:77] Creating layer ip2
I0428 19:40:00.218178 24439 net.cpp:86] Creating Layer ip2
I0428 19:40:00.218181 24439 net.cpp:408] ip2 <- ip1
I0428 19:40:00.218185 24439 net.cpp:382] ip2 -> ip2
I0428 19:40:00.218281 24439 net.cpp:124] Setting up ip2
I0428 19:40:00.218288 24439 net.cpp:131] Top shape: 64 10 (640)
I0428 19:40:00.218291 24439 net.cpp:139] Memory required for data: 700160
I0428 19:40:00.218297 24439 layer_factory.hpp:77] Creating layer relu2
I0428 19:40:00.218302 24439 net.cpp:86] Creating Layer relu2
I0428 19:40:00.218304 24439 net.cpp:408] relu2 <- ip2
I0428 19:40:00.218308 24439 net.cpp:369] relu2 -> ip2 (in-place)
I0428 19:40:00.219040 24439 net.cpp:124] Setting up relu2
I0428 19:40:00.219051 24439 net.cpp:131] Top shape: 64 10 (640)
I0428 19:40:00.219070 24439 net.cpp:139] Memory required for data: 702720
I0428 19:40:00.219074 24439 layer_factory.hpp:77] Creating layer loss
I0428 19:40:00.219079 24439 net.cpp:86] Creating Layer loss
I0428 19:40:00.219082 24439 net.cpp:408] loss <- ip2
I0428 19:40:00.219087 24439 net.cpp:408] loss <- label
I0428 19:40:00.219094 24439 net.cpp:382] loss -> loss
I0428 19:40:00.219111 24439 layer_factory.hpp:77] Creating layer loss
…
I0428 19:40:00.219707 24439 solver.cpp:173] Creating test net (#0) specified by net file: ECE595/mnist/train_test/var_everything2/lenet_train_test321.prototxt
I0428 19:40:00.219748 24439 net.cpp:296] The NetState phase (1) differed from the phase (0) specified by a rule in layer mnist
I0428 19:40:00.219859 24439 net.cpp:53] Initializing net from parameters: 
name: "LeNet"
state {
  phase: TEST
}
layer {
  name: "mnist"
  type: "Data"
  top: "data"
  top: "label"
  include {
    phase: TEST
  }
  transform_param {
    scale: 0.00390625
  }
  data_param {
    source: "examples/mnist/mnist_test_lmdb"
    batch_size: 100
    backend: LMDB
  }
}
layer {
  name: "conv0"
  type: "Convolution"
  bottom: "data"
  top: "conv0"
  param {
    lr_mult: 1
  }
  param {
    lr_mult: 2
  }
  convolution_param {
    num_output: 2
    kernel_size: 5
    stride: 1
    weight_filler {
      type: "xavier"
    }
    bias_filler {
      type: "constant"
    }
  }
}
layer {
  name: "pool0"
  type: "Pooling"
  bottom: "conv0"
  top: "pool0"
  pooling_param {
    pool: MAX
    kernel_size: 2
    stride: 2
  }
}
layer {
  name: "conv1"
  type: "Convolution"
  bottom: "pool0"
  top: "conv1"
  param {
    lr_mult: 1
  }
  param {
    lr_mult: 2
  }
  convolution_param {
    num_output: 5
    kernel_size: 5
    stride: 1
    weight_filler {
      type: "xavier"
    }
    bias_filler {
      type: "constant"
    }
  }
}
layer {
  name: "pool1"
  type: "Pooling"
  bottom: "conv1"
  top: "pool1"
  pooling_param {
    pool: MAX
    kernel_size: 2
    stride: 2
  }
}
layer {
  name: "ip1"
  type: "InnerProduct"
  bottom: "pool1"
  top: "ip1"
  param {
    lr_mult: 1
  }
  param {
    lr_mult: 2
  }
  inner_product_param {
    num_output: 50
    weight_filler {
      type: "xavier"
    }
    bias_filler {
      type: "constant"
    }
  }
}
layer {
  name: "relu1"
  type: "ReLU"
  bottom: "ip1"
  top: "ip1"
}
layer {
  name: "ip2"
  type: "InnerProduct"
  bottom: "ip1"
  top: "ip2"
  param {
    lr_mult: 1
  }
  param {
    lr_mult: 2
  }
  inner_product_param {
    num_output: 10
    weight_filler {
      type: "xavier"
    }
    bias_filler {
      type: "constant"
    }
  }
}
layer {
  name: "relu2"
  type: "ReLU"
  bottom: "ip2"
  top: "ip2"
}
layer {
  name: "accuracy"
  type: "Accuracy"
  bottom: "ip2"
  bottom: "label"
  top: "accuracy"
  include {
    phase: TEST
  }
}
layer {
  name: "loss"
  type: "SoftmaxWithLoss"
  bottom: "ip2"
  bottom: "label"
  top: "loss"
}
I0428 19:40:00.219923 24439 layer_factory.hpp:77] Creating layer mnist
I0428 19:40:00.219966 24439 db_lmdb.cpp:35] Opened lmdb examples/mnist/mnist_test_lmdb
I0428 19:40:00.219980 24439 net.cpp:86] Creating Layer mnist
I0428 19:40:00.219983 24439 net.cpp:382] mnist -> data
I0428 19:40:00.219991 24439 net.cpp:382] mnist -> label
I0428 19:40:00.220072 24439 data_layer.cpp:45] output data size: 100,1,28,28
I0428 19:40:00.221936 24439 net.cpp:124] Setting up mnist
I0428 19:40:00.221981 24439 net.cpp:131] Top shape: 100 1 28 28 (78400)
I0428 19:40:00.221985 24439 net.cpp:131] Top shape: 100 (100)
I0428 19:40:00.221988 24439 net.cpp:139] Memory required for data: 314000
I0428 19:40:00.221992 24439 layer_factory.hpp:77] Creating layer label_mnist_1_split
I0428 19:40:00.221998 24439 net.cpp:86] Creating Layer label_mnist_1_split
I0428 19:40:00.222002 24439 net.cpp:408] label_mnist_1_split <- label
I0428 19:40:00.222007 24439 net.cpp:382] label_mnist_1_split -> label_mnist_1_split_0
I0428 19:40:00.222013 24439 net.cpp:382] label_mnist_1_split -> label_mnist_1_split_1
I0428 19:40:00.222072 24439 net.cpp:124] Setting up label_mnist_1_split
I0428 19:40:00.222088 24439 net.cpp:131] Top shape: 100 (100)
I0428 19:40:00.222092 24439 net.cpp:131] Top shape: 100 (100)
I0428 19:40:00.222095 24439 net.cpp:139] Memory required for data: 314800
I0428 19:40:00.222098 24439 layer_factory.hpp:77] Creating layer conv0
I0428 19:40:00.222106 24439 net.cpp:86] Creating Layer conv0
I0428 19:40:00.222110 24439 net.cpp:408] conv0 <- data
I0428 19:40:00.222115 24439 net.cpp:382] conv0 -> conv0
I0428 19:40:00.224038 24439 net.cpp:124] Setting up conv0
I0428 19:40:00.224067 24439 net.cpp:131] Top shape: 100 2 24 24 (115200)
I0428 19:40:00.224072 24439 net.cpp:139] Memory required for data: 775600
I0428 19:40:00.224081 24439 layer_factory.hpp:77] Creating layer pool0
I0428 19:40:00.224089 24439 net.cpp:86] Creating Layer pool0
I0428 19:40:00.224093 24439 net.cpp:408] pool0 <- conv0
I0428 19:40:00.224099 24439 net.cpp:382] pool0 -> pool0
I0428 19:40:00.224154 24439 net.cpp:124] Setting up pool0
I0428 19:40:00.224160 24439 net.cpp:131] Top shape: 100 2 12 12 (28800)
I0428 19:40:00.224164 24439 net.cpp:139] Memory required for data: 890800
I0428 19:40:00.224167 24439 layer_factory.hpp:77] Creating layer conv1
I0428 19:40:00.224179 24439 net.cpp:86] Creating Layer conv1
I0428 19:40:00.224184 24439 net.cpp:408] conv1 <- pool0
I0428 19:40:00.224189 24439 net.cpp:382] conv1 -> conv1
I0428 19:40:00.225828 24439 net.cpp:124] Setting up conv1
I0428 19:40:00.225858 24439 net.cpp:131] Top shape: 100 5 8 8 (32000)
I0428 19:40:00.225863 24439 net.cpp:139] Memory required for data: 1018800
I0428 19:40:00.225872 24439 layer_factory.hpp:77] Creating layer pool1
I0428 19:40:00.225879 24439 net.cpp:86] Creating Layer pool1
I0428 19:40:00.225883 24439 net.cpp:408] pool1 <- conv1
I0428 19:40:00.225890 24439 net.cpp:382] pool1 -> pool1
I0428 19:40:00.225931 24439 net.cpp:124] Setting up pool1
I0428 19:40:00.225936 24439 net.cpp:131] Top shape: 100 5 4 4 (8000)
I0428 19:40:00.225940 24439 net.cpp:139] Memory required for data: 1050800
I0428 19:40:00.225949 24439 layer_factory.hpp:77] Creating layer ip1
I0428 19:40:00.225956 24439 net.cpp:86] Creating Layer ip1
I0428 19:40:00.225960 24439 net.cpp:408] ip1 <- pool1
I0428 19:40:00.225971 24439 net.cpp:382] ip1 -> ip1
I0428 19:40:00.226121 24439 net.cpp:124] Setting up ip1
I0428 19:40:00.226131 24439 net.cpp:131] Top shape: 100 50 (5000)
I0428 19:40:00.226135 24439 net.cpp:139] Memory required for data: 1070800
I0428 19:40:00.226145 24439 layer_factory.hpp:77] Creating layer relu1
I0428 19:40:00.226150 24439 net.cpp:86] Creating Layer relu1
I0428 19:40:00.226153 24439 net.cpp:408] relu1 <- ip1
I0428 19:40:00.226158 24439 net.cpp:369] relu1 -> ip1 (in-place)
I0428 19:40:00.226339 24439 net.cpp:124] Setting up relu1
I0428 19:40:00.226351 24439 net.cpp:131] Top shape: 100 50 (5000)
I0428 19:40:00.226353 24439 net.cpp:139] Memory required for data: 1090800
I0428 19:40:00.226357 24439 layer_factory.hpp:77] Creating layer ip2
I0428 19:40:00.226364 24439 net.cpp:86] Creating Layer ip2
I0428 19:40:00.226382 24439 net.cpp:408] ip2 <- ip1
I0428 19:40:00.226390 24439 net.cpp:382] ip2 -> ip2
I0428 19:40:00.226503 24439 net.cpp:124] Setting up ip2
I0428 19:40:00.226511 24439 net.cpp:131] Top shape: 100 10 (1000)
I0428 19:40:00.226514 24439 net.cpp:139] Memory required for data: 1094800
I0428 19:40:00.226521 24439 layer_factory.hpp:77] Creating layer relu2
I0428 19:40:00.226526 24439 net.cpp:86] Creating Layer relu2
I0428 19:40:00.226531 24439 net.cpp:408] relu2 <- ip2
I0428 19:40:00.226534 24439 net.cpp:369] relu2 -> ip2 (in-place)
I0428 19:40:00.226713 24439 net.cpp:124] Setting up relu2
I0428 19:40:00.226722 24439 net.cpp:131] Top shape: 100 10 (1000)
I0428 19:40:00.226727 24439 net.cpp:139] Memory required for data: 1098800
I0428 19:40:00.226729 24439 layer_factory.hpp:77] Creating layer ip2_relu2_0_split
I0428 19:40:00.226734 24439 net.cpp:86] Creating Layer ip2_relu2_0_split
I0428 19:40:00.226737 24439 net.cpp:408] ip2_relu2_0_split <- ip2
I0428 19:40:00.226743 24439 net.cpp:382] ip2_relu2_0_split -> ip2_relu2_0_split_0
I0428 19:40:00.226763 24439 net.cpp:382] ip2_relu2_0_split -> ip2_relu2_0_split_1
I0428 19:40:00.226806 24439 net.cpp:124] Setting up ip2_relu2_0_split
I0428 19:40:00.226814 24439 net.cpp:131] Top shape: 100 10 (1000)
I0428 19:40:00.226817 24439 net.cpp:131] Top shape: 100 10 (1000)
I0428 19:40:00.226820 24439 net.cpp:139] Memory required for data: 1106800
I0428 19:40:00.226824 24439 layer_factory.hpp:77] Creating layer accuracy
I0428 19:40:00.226830 24439 net.cpp:86] Creating Layer accuracy
I0428 19:40:00.226833 24439 net.cpp:408] accuracy <- ip2_relu2_0_split_0
I0428 19:40:00.226837 24439 net.cpp:408] accuracy <- label_mnist_1_split_0
I0428 19:40:00.226842 24439 net.cpp:382] accuracy -> accuracy
…
