…
I0428 19:48:36.335230 26523 net.cpp:296] The NetState phase (0) differed from the phase (1) specified by a rule in layer mnist
I0428 19:48:36.335247 26523 net.cpp:296] The NetState phase (0) differed from the phase (1) specified by a rule in layer accuracy
I0428 19:48:36.335325 26523 net.cpp:53] Initializing net from parameters: 
name: "LeNet"
state {
  phase: TRAIN
  level: 0
  stage: ""
}
layer {
  name: "mnist"
  type: "Data"
  top: "data"
  top: "label"
  include {
    phase: TRAIN
  }
  transform_param {
    scale: 0.00390625
  }
  data_param {
    source: "examples/mnist/mnist_train_lmdb"
    batch_size: 64
    backend: LMDB
  }
}
layer {
  name: "conv0"
  type: "Convolution"
  bottom: "data"
  top: "conv0"
  param {
    lr_mult: 1
  }
  param {
    lr_mult: 2
  }
  convolution_param {
    num_output: 5
    kernel_size: 5
    stride: 1
    weight_filler {
      type: "xavier"
    }
    bias_filler {
      type: "constant"
    }
  }
}
layer {
  name: "pool0"
  type: "Pooling"
  bottom: "conv0"
  top: "pool0"
  pooling_param {
    pool: MAX
    kernel_size: 2
    stride: 2
  }
}
layer {
  name: "conv1"
  type: "Convolution"
  bottom: "pool0"
  top: "conv1"
  param {
    lr_mult: 1
  }
  param {
    lr_mult: 2
  }
  convolution_param {
    num_output: 5
    kernel_size: 5
    stride: 1
    weight_filler {
      type: "xavier"
    }
    bias_filler {
      type: "constant"
    }
  }
}
layer {
  name: "pool1"
  type: "Pooling"
  bottom: "conv1"
  top: "pool1"
  pooling_param {
    pool: MAX
    kernel_size: 2
    stride: 2
  }
}
layer {
  name: "ip1"
  type: "InnerProduct"
  bottom: "pool1"
  top: "ip1"
  param {
    lr_mult: 1
  }
  param {
    lr_mult: 2
  }
  inner_product_param {
    num_output: 10
    weight_filler {
      type: "xavier"
    }
    bias_filler {
      type: "constant"
    }
  }
}
layer {
  name: "relu1"
  type: "ReLU"
  bottom: "ip1"
  top: "ip1"
}
layer {
  name: "ip2"
  type: "InnerProduct"
  bottom: "ip1"
  top: "ip2"
  param {
    lr_mult: 1
  }
  param {
    lr_mult: 2
  }
  inner_product_param {
    num_output: 10
    weight_filler {
      type: "xavier"
    }
    bias_filler {
      type: "constant"
    }
  }
}
layer {
  name: "relu2"
  type: "ReLU"
  bottom: "ip2"
  top: "ip2"
}
layer {
  name: "loss"
  type: "SoftmaxWithLoss"
  bottom: "ip2"
  bottom: "label"
  top: "loss"
}
I0428 19:48:36.335408 26523 layer_factory.hpp:77] Creating layer mnist
I0428 19:48:36.335549 26523 db_lmdb.cpp:35] Opened lmdb examples/mnist/mnist_train_lmdb
I0428 19:48:36.335579 26523 net.cpp:86] Creating Layer mnist
I0428 19:48:36.335592 26523 net.cpp:382] mnist -> data
I0428 19:48:36.335633 26523 net.cpp:382] mnist -> label
I0428 19:48:36.336918 26523 data_layer.cpp:45] output data size: 64,1,28,28
I0428 19:48:36.339103 26523 net.cpp:124] Setting up mnist
I0428 19:48:36.339138 26523 net.cpp:131] Top shape: 64 1 28 28 (50176)
I0428 19:48:36.339145 26523 net.cpp:131] Top shape: 64 (64)
I0428 19:48:36.339150 26523 net.cpp:139] Memory required for data: 200960
I0428 19:48:36.339159 26523 layer_factory.hpp:77] Creating layer conv0
I0428 19:48:36.339179 26523 net.cpp:86] Creating Layer conv0
I0428 19:48:36.339187 26523 net.cpp:408] conv0 <- data
I0428 19:48:36.339203 26523 net.cpp:382] conv0 -> conv0
I0428 19:48:36.567096 26523 net.cpp:124] Setting up conv0
I0428 19:48:36.567126 26523 net.cpp:131] Top shape: 64 5 24 24 (184320)
I0428 19:48:36.567131 26523 net.cpp:139] Memory required for data: 938240
I0428 19:48:36.567173 26523 layer_factory.hpp:77] Creating layer pool0
I0428 19:48:36.567191 26523 net.cpp:86] Creating Layer pool0
I0428 19:48:36.567198 26523 net.cpp:408] pool0 <- conv0
I0428 19:48:36.567206 26523 net.cpp:382] pool0 -> pool0
I0428 19:48:36.567255 26523 net.cpp:124] Setting up pool0
I0428 19:48:36.567263 26523 net.cpp:131] Top shape: 64 5 12 12 (46080)
I0428 19:48:36.567267 26523 net.cpp:139] Memory required for data: 1122560
I0428 19:48:36.567272 26523 layer_factory.hpp:77] Creating layer conv1
I0428 19:48:36.567287 26523 net.cpp:86] Creating Layer conv1
I0428 19:48:36.567293 26523 net.cpp:408] conv1 <- pool0
I0428 19:48:36.567301 26523 net.cpp:382] conv1 -> conv1
I0428 19:48:36.569264 26523 net.cpp:124] Setting up conv1
I0428 19:48:36.569280 26523 net.cpp:131] Top shape: 64 5 8 8 (20480)
I0428 19:48:36.569285 26523 net.cpp:139] Memory required for data: 1204480
I0428 19:48:36.569314 26523 layer_factory.hpp:77] Creating layer pool1
I0428 19:48:36.569324 26523 net.cpp:86] Creating Layer pool1
I0428 19:48:36.569330 26523 net.cpp:408] pool1 <- conv1
I0428 19:48:36.569339 26523 net.cpp:382] pool1 -> pool1
I0428 19:48:36.569380 26523 net.cpp:124] Setting up pool1
I0428 19:48:36.569388 26523 net.cpp:131] Top shape: 64 5 4 4 (5120)
I0428 19:48:36.569393 26523 net.cpp:139] Memory required for data: 1224960
I0428 19:48:36.569398 26523 layer_factory.hpp:77] Creating layer ip1
I0428 19:48:36.569408 26523 net.cpp:86] Creating Layer ip1
I0428 19:48:36.569418 26523 net.cpp:408] ip1 <- pool1
I0428 19:48:36.569428 26523 net.cpp:382] ip1 -> ip1
I0428 19:48:36.569543 26523 net.cpp:124] Setting up ip1
I0428 19:48:36.569551 26523 net.cpp:131] Top shape: 64 10 (640)
I0428 19:48:36.569555 26523 net.cpp:139] Memory required for data: 1227520
I0428 19:48:36.569566 26523 layer_factory.hpp:77] Creating layer relu1
I0428 19:48:36.569574 26523 net.cpp:86] Creating Layer relu1
I0428 19:48:36.569581 26523 net.cpp:408] relu1 <- ip1
I0428 19:48:36.569587 26523 net.cpp:369] relu1 -> ip1 (in-place)
I0428 19:48:36.569741 26523 net.cpp:124] Setting up relu1
I0428 19:48:36.569751 26523 net.cpp:131] Top shape: 64 10 (640)
I0428 19:48:36.569756 26523 net.cpp:139] Memory required for data: 1230080
I0428 19:48:36.569759 26523 layer_factory.hpp:77] Creating layer ip2
I0428 19:48:36.569768 26523 net.cpp:86] Creating Layer ip2
I0428 19:48:36.569773 26523 net.cpp:408] ip2 <- ip1
I0428 19:48:36.569782 26523 net.cpp:382] ip2 -> ip2
I0428 19:48:36.569888 26523 net.cpp:124] Setting up ip2
I0428 19:48:36.569912 26523 net.cpp:131] Top shape: 64 10 (640)
I0428 19:48:36.569917 26523 net.cpp:139] Memory required for data: 1232640
I0428 19:48:36.569926 26523 layer_factory.hpp:77] Creating layer relu2
I0428 19:48:36.569936 26523 net.cpp:86] Creating Layer relu2
I0428 19:48:36.569942 26523 net.cpp:408] relu2 <- ip2
I0428 19:48:36.569949 26523 net.cpp:369] relu2 -> ip2 (in-place)
I0428 19:48:36.570732 26523 net.cpp:124] Setting up relu2
I0428 19:48:36.570746 26523 net.cpp:131] Top shape: 64 10 (640)
I0428 19:48:36.570751 26523 net.cpp:139] Memory required for data: 1235200
I0428 19:48:36.570757 26523 layer_factory.hpp:77] Creating layer loss
I0428 19:48:36.570766 26523 net.cpp:86] Creating Layer loss
I0428 19:48:36.570771 26523 net.cpp:408] loss <- ip2
I0428 19:48:36.570780 26523 net.cpp:408] loss <- label
I0428 19:48:36.570787 26523 net.cpp:382] loss -> loss
I0428 19:48:36.570812 26523 layer_factory.hpp:77] Creating layer loss
…
I0428 19:48:36.571522 26523 solver.cpp:173] Creating test net (#0) specified by net file: ECE595/mnist/train_test/var_everything2/lenet_train_test549.prototxt
I0428 19:48:36.571553 26523 net.cpp:296] The NetState phase (1) differed from the phase (0) specified by a rule in layer mnist
I0428 19:48:36.571657 26523 net.cpp:53] Initializing net from parameters: 
name: "LeNet"
state {
  phase: TEST
}
layer {
  name: "mnist"
  type: "Data"
  top: "data"
  top: "label"
  include {
    phase: TEST
  }
  transform_param {
    scale: 0.00390625
  }
  data_param {
    source: "examples/mnist/mnist_test_lmdb"
    batch_size: 100
    backend: LMDB
  }
}
layer {
  name: "conv0"
  type: "Convolution"
  bottom: "data"
  top: "conv0"
  param {
    lr_mult: 1
  }
  param {
    lr_mult: 2
  }
  convolution_param {
    num_output: 5
    kernel_size: 5
    stride: 1
    weight_filler {
      type: "xavier"
    }
    bias_filler {
      type: "constant"
    }
  }
}
layer {
  name: "pool0"
  type: "Pooling"
  bottom: "conv0"
  top: "pool0"
  pooling_param {
    pool: MAX
    kernel_size: 2
    stride: 2
  }
}
layer {
  name: "conv1"
  type: "Convolution"
  bottom: "pool0"
  top: "conv1"
  param {
    lr_mult: 1
  }
  param {
    lr_mult: 2
  }
  convolution_param {
    num_output: 5
    kernel_size: 5
    stride: 1
    weight_filler {
      type: "xavier"
    }
    bias_filler {
      type: "constant"
    }
  }
}
layer {
  name: "pool1"
  type: "Pooling"
  bottom: "conv1"
  top: "pool1"
  pooling_param {
    pool: MAX
    kernel_size: 2
    stride: 2
  }
}
layer {
  name: "ip1"
  type: "InnerProduct"
  bottom: "pool1"
  top: "ip1"
  param {
    lr_mult: 1
  }
  param {
    lr_mult: 2
  }
  inner_product_param {
    num_output: 10
    weight_filler {
      type: "xavier"
    }
    bias_filler {
      type: "constant"
    }
  }
}
layer {
  name: "relu1"
  type: "ReLU"
  bottom: "ip1"
  top: "ip1"
}
layer {
  name: "ip2"
  type: "InnerProduct"
  bottom: "ip1"
  top: "ip2"
  param {
    lr_mult: 1
  }
  param {
    lr_mult: 2
  }
  inner_product_param {
    num_output: 10
    weight_filler {
      type: "xavier"
    }
    bias_filler {
      type: "constant"
    }
  }
}
layer {
  name: "relu2"
  type: "ReLU"
  bottom: "ip2"
  top: "ip2"
}
layer {
  name: "accuracy"
  type: "Accuracy"
  bottom: "ip2"
  bottom: "label"
  top: "accuracy"
  include {
    phase: TEST
  }
}
layer {
  name: "loss"
  type: "SoftmaxWithLoss"
  bottom: "ip2"
  bottom: "label"
  top: "loss"
}
I0428 19:48:36.571753 26523 layer_factory.hpp:77] Creating layer mnist
I0428 19:48:36.571811 26523 db_lmdb.cpp:35] Opened lmdb examples/mnist/mnist_test_lmdb
I0428 19:48:36.571828 26523 net.cpp:86] Creating Layer mnist
I0428 19:48:36.571836 26523 net.cpp:382] mnist -> data
I0428 19:48:36.571847 26523 net.cpp:382] mnist -> label
I0428 19:48:36.571974 26523 data_layer.cpp:45] output data size: 100,1,28,28
I0428 19:48:36.574172 26523 net.cpp:124] Setting up mnist
I0428 19:48:36.574203 26523 net.cpp:131] Top shape: 100 1 28 28 (78400)
I0428 19:48:36.574211 26523 net.cpp:131] Top shape: 100 (100)
I0428 19:48:36.574216 26523 net.cpp:139] Memory required for data: 314000
I0428 19:48:36.574223 26523 layer_factory.hpp:77] Creating layer label_mnist_1_split
I0428 19:48:36.574236 26523 net.cpp:86] Creating Layer label_mnist_1_split
I0428 19:48:36.574242 26523 net.cpp:408] label_mnist_1_split <- label
I0428 19:48:36.574250 26523 net.cpp:382] label_mnist_1_split -> label_mnist_1_split_0
I0428 19:48:36.574260 26523 net.cpp:382] label_mnist_1_split -> label_mnist_1_split_1
I0428 19:48:36.574362 26523 net.cpp:124] Setting up label_mnist_1_split
I0428 19:48:36.574380 26523 net.cpp:131] Top shape: 100 (100)
I0428 19:48:36.574388 26523 net.cpp:131] Top shape: 100 (100)
I0428 19:48:36.574391 26523 net.cpp:139] Memory required for data: 314800
I0428 19:48:36.574398 26523 layer_factory.hpp:77] Creating layer conv0
I0428 19:48:36.574414 26523 net.cpp:86] Creating Layer conv0
I0428 19:48:36.574436 26523 net.cpp:408] conv0 <- data
I0428 19:48:36.574445 26523 net.cpp:382] conv0 -> conv0
I0428 19:48:36.575896 26523 net.cpp:124] Setting up conv0
I0428 19:48:36.575911 26523 net.cpp:131] Top shape: 100 5 24 24 (288000)
I0428 19:48:36.575915 26523 net.cpp:139] Memory required for data: 1466800
I0428 19:48:36.575928 26523 layer_factory.hpp:77] Creating layer pool0
I0428 19:48:36.575937 26523 net.cpp:86] Creating Layer pool0
I0428 19:48:36.575944 26523 net.cpp:408] pool0 <- conv0
I0428 19:48:36.575951 26523 net.cpp:382] pool0 -> pool0
I0428 19:48:36.575989 26523 net.cpp:124] Setting up pool0
I0428 19:48:36.575996 26523 net.cpp:131] Top shape: 100 5 12 12 (72000)
I0428 19:48:36.576009 26523 net.cpp:139] Memory required for data: 1754800
I0428 19:48:36.576014 26523 layer_factory.hpp:77] Creating layer conv1
I0428 19:48:36.576025 26523 net.cpp:86] Creating Layer conv1
I0428 19:48:36.576032 26523 net.cpp:408] conv1 <- pool0
I0428 19:48:36.576040 26523 net.cpp:382] conv1 -> conv1
I0428 19:48:36.578398 26523 net.cpp:124] Setting up conv1
I0428 19:48:36.578413 26523 net.cpp:131] Top shape: 100 5 8 8 (32000)
I0428 19:48:36.578418 26523 net.cpp:139] Memory required for data: 1882800
I0428 19:48:36.578446 26523 layer_factory.hpp:77] Creating layer pool1
I0428 19:48:36.578456 26523 net.cpp:86] Creating Layer pool1
I0428 19:48:36.578462 26523 net.cpp:408] pool1 <- conv1
I0428 19:48:36.578469 26523 net.cpp:382] pool1 -> pool1
I0428 19:48:36.578512 26523 net.cpp:124] Setting up pool1
I0428 19:48:36.578521 26523 net.cpp:131] Top shape: 100 5 4 4 (8000)
I0428 19:48:36.578526 26523 net.cpp:139] Memory required for data: 1914800
I0428 19:48:36.578531 26523 layer_factory.hpp:77] Creating layer ip1
I0428 19:48:36.578539 26523 net.cpp:86] Creating Layer ip1
I0428 19:48:36.578547 26523 net.cpp:408] ip1 <- pool1
I0428 19:48:36.578557 26523 net.cpp:382] ip1 -> ip1
I0428 19:48:36.578670 26523 net.cpp:124] Setting up ip1
I0428 19:48:36.578677 26523 net.cpp:131] Top shape: 100 10 (1000)
I0428 19:48:36.578682 26523 net.cpp:139] Memory required for data: 1918800
I0428 19:48:36.578693 26523 layer_factory.hpp:77] Creating layer relu1
I0428 19:48:36.578701 26523 net.cpp:86] Creating Layer relu1
I0428 19:48:36.578706 26523 net.cpp:408] relu1 <- ip1
I0428 19:48:36.578713 26523 net.cpp:369] relu1 -> ip1 (in-place)
I0428 19:48:36.578953 26523 net.cpp:124] Setting up relu1
I0428 19:48:36.578963 26523 net.cpp:131] Top shape: 100 10 (1000)
I0428 19:48:36.578969 26523 net.cpp:139] Memory required for data: 1922800
I0428 19:48:36.578974 26523 layer_factory.hpp:77] Creating layer ip2
I0428 19:48:36.578984 26523 net.cpp:86] Creating Layer ip2
I0428 19:48:36.578990 26523 net.cpp:408] ip2 <- ip1
I0428 19:48:36.578999 26523 net.cpp:382] ip2 -> ip2
I0428 19:48:36.579092 26523 net.cpp:124] Setting up ip2
I0428 19:48:36.579100 26523 net.cpp:131] Top shape: 100 10 (1000)
I0428 19:48:36.579105 26523 net.cpp:139] Memory required for data: 1926800
I0428 19:48:36.579128 26523 layer_factory.hpp:77] Creating layer relu2
I0428 19:48:36.579136 26523 net.cpp:86] Creating Layer relu2
I0428 19:48:36.579141 26523 net.cpp:408] relu2 <- ip2
I0428 19:48:36.579147 26523 net.cpp:369] relu2 -> ip2 (in-place)
I0428 19:48:36.579291 26523 net.cpp:124] Setting up relu2
I0428 19:48:36.579301 26523 net.cpp:131] Top shape: 100 10 (1000)
I0428 19:48:36.579306 26523 net.cpp:139] Memory required for data: 1930800
I0428 19:48:36.579313 26523 layer_factory.hpp:77] Creating layer ip2_relu2_0_split
I0428 19:48:36.579319 26523 net.cpp:86] Creating Layer ip2_relu2_0_split
I0428 19:48:36.579324 26523 net.cpp:408] ip2_relu2_0_split <- ip2
I0428 19:48:36.579332 26523 net.cpp:382] ip2_relu2_0_split -> ip2_relu2_0_split_0
I0428 19:48:36.579352 26523 net.cpp:382] ip2_relu2_0_split -> ip2_relu2_0_split_1
I0428 19:48:36.579391 26523 net.cpp:124] Setting up ip2_relu2_0_split
I0428 19:48:36.579399 26523 net.cpp:131] Top shape: 100 10 (1000)
I0428 19:48:36.579406 26523 net.cpp:131] Top shape: 100 10 (1000)
I0428 19:48:36.579411 26523 net.cpp:139] Memory required for data: 1938800
I0428 19:48:36.579414 26523 layer_factory.hpp:77] Creating layer accuracy
I0428 19:48:36.579422 26523 net.cpp:86] Creating Layer accuracy
I0428 19:48:36.579427 26523 net.cpp:408] accuracy <- ip2_relu2_0_split_0
I0428 19:48:36.579433 26523 net.cpp:408] accuracy <- label_mnist_1_split_0
I0428 19:48:36.579440 26523 net.cpp:382] accuracy -> accuracy
…
