…
I0428 19:47:18.968273 26160 net.cpp:296] The NetState phase (0) differed from the phase (1) specified by a rule in layer mnist
I0428 19:47:18.968289 26160 net.cpp:296] The NetState phase (0) differed from the phase (1) specified by a rule in layer accuracy
I0428 19:47:18.968379 26160 net.cpp:53] Initializing net from parameters: 
name: "LeNet"
state {
  phase: TRAIN
  level: 0
  stage: ""
}
layer {
  name: "mnist"
  type: "Data"
  top: "data"
  top: "label"
  include {
    phase: TRAIN
  }
  transform_param {
    scale: 0.00390625
  }
  data_param {
    source: "examples/mnist/mnist_train_lmdb"
    batch_size: 64
    backend: LMDB
  }
}
layer {
  name: "conv0"
  type: "Convolution"
  bottom: "data"
  top: "conv0"
  param {
    lr_mult: 1
  }
  param {
    lr_mult: 2
  }
  convolution_param {
    num_output: 5
    kernel_size: 5
    stride: 1
    weight_filler {
      type: "xavier"
    }
    bias_filler {
      type: "constant"
    }
  }
}
layer {
  name: "pool0"
  type: "Pooling"
  bottom: "conv0"
  top: "pool0"
  pooling_param {
    pool: MAX
    kernel_size: 2
    stride: 2
  }
}
layer {
  name: "conv1"
  type: "Convolution"
  bottom: "pool0"
  top: "conv1"
  param {
    lr_mult: 1
  }
  param {
    lr_mult: 2
  }
  convolution_param {
    num_output: 2
    kernel_size: 5
    stride: 1
    weight_filler {
      type: "xavier"
    }
    bias_filler {
      type: "constant"
    }
  }
}
layer {
  name: "pool1"
  type: "Pooling"
  bottom: "conv1"
  top: "pool1"
  pooling_param {
    pool: MAX
    kernel_size: 2
    stride: 2
  }
}
layer {
  name: "ip1"
  type: "InnerProduct"
  bottom: "pool1"
  top: "ip1"
  param {
    lr_mult: 1
  }
  param {
    lr_mult: 2
  }
  inner_product_param {
    num_output: 10
    weight_filler {
      type: "xavier"
    }
    bias_filler {
      type: "constant"
    }
  }
}
layer {
  name: "relu1"
  type: "ReLU"
  bottom: "ip1"
  top: "ip1"
}
layer {
  name: "ip2"
  type: "InnerProduct"
  bottom: "ip1"
  top: "ip2"
  param {
    lr_mult: 1
  }
  param {
    lr_mult: 2
  }
  inner_product_param {
    num_output: 10
    weight_filler {
      type: "xavier"
    }
    bias_filler {
      type: "constant"
    }
  }
}
layer {
  name: "relu2"
  type: "ReLU"
  bottom: "ip2"
  top: "ip2"
}
layer {
  name: "loss"
  type: "SoftmaxWithLoss"
  bottom: "ip2"
  bottom: "label"
  top: "loss"
}
I0428 19:47:18.968451 26160 layer_factory.hpp:77] Creating layer mnist
I0428 19:47:18.968547 26160 db_lmdb.cpp:35] Opened lmdb examples/mnist/mnist_train_lmdb
I0428 19:47:18.968570 26160 net.cpp:86] Creating Layer mnist
I0428 19:47:18.968580 26160 net.cpp:382] mnist -> data
I0428 19:47:18.968602 26160 net.cpp:382] mnist -> label
I0428 19:47:18.969702 26160 data_layer.cpp:45] output data size: 64,1,28,28
I0428 19:47:18.972160 26160 net.cpp:124] Setting up mnist
I0428 19:47:18.972180 26160 net.cpp:131] Top shape: 64 1 28 28 (50176)
I0428 19:47:18.972187 26160 net.cpp:131] Top shape: 64 (64)
I0428 19:47:18.972189 26160 net.cpp:139] Memory required for data: 200960
I0428 19:47:18.972198 26160 layer_factory.hpp:77] Creating layer conv0
I0428 19:47:18.972229 26160 net.cpp:86] Creating Layer conv0
I0428 19:47:18.972234 26160 net.cpp:408] conv0 <- data
I0428 19:47:18.972246 26160 net.cpp:382] conv0 -> conv0
I0428 19:47:19.258895 26160 net.cpp:124] Setting up conv0
I0428 19:47:19.258939 26160 net.cpp:131] Top shape: 64 5 24 24 (184320)
I0428 19:47:19.258942 26160 net.cpp:139] Memory required for data: 938240
I0428 19:47:19.258993 26160 layer_factory.hpp:77] Creating layer pool0
I0428 19:47:19.259007 26160 net.cpp:86] Creating Layer pool0
I0428 19:47:19.259011 26160 net.cpp:408] pool0 <- conv0
I0428 19:47:19.259017 26160 net.cpp:382] pool0 -> pool0
I0428 19:47:19.259068 26160 net.cpp:124] Setting up pool0
I0428 19:47:19.259075 26160 net.cpp:131] Top shape: 64 5 12 12 (46080)
I0428 19:47:19.259078 26160 net.cpp:139] Memory required for data: 1122560
I0428 19:47:19.259083 26160 layer_factory.hpp:77] Creating layer conv1
I0428 19:47:19.259093 26160 net.cpp:86] Creating Layer conv1
I0428 19:47:19.259095 26160 net.cpp:408] conv1 <- pool0
I0428 19:47:19.259100 26160 net.cpp:382] conv1 -> conv1
I0428 19:47:19.261137 26160 net.cpp:124] Setting up conv1
I0428 19:47:19.261153 26160 net.cpp:131] Top shape: 64 2 8 8 (8192)
I0428 19:47:19.261157 26160 net.cpp:139] Memory required for data: 1155328
I0428 19:47:19.261168 26160 layer_factory.hpp:77] Creating layer pool1
I0428 19:47:19.261175 26160 net.cpp:86] Creating Layer pool1
I0428 19:47:19.261178 26160 net.cpp:408] pool1 <- conv1
I0428 19:47:19.261198 26160 net.cpp:382] pool1 -> pool1
I0428 19:47:19.261265 26160 net.cpp:124] Setting up pool1
I0428 19:47:19.261270 26160 net.cpp:131] Top shape: 64 2 4 4 (2048)
I0428 19:47:19.261272 26160 net.cpp:139] Memory required for data: 1163520
I0428 19:47:19.261276 26160 layer_factory.hpp:77] Creating layer ip1
I0428 19:47:19.261282 26160 net.cpp:86] Creating Layer ip1
I0428 19:47:19.261286 26160 net.cpp:408] ip1 <- pool1
I0428 19:47:19.261291 26160 net.cpp:382] ip1 -> ip1
I0428 19:47:19.261399 26160 net.cpp:124] Setting up ip1
I0428 19:47:19.261407 26160 net.cpp:131] Top shape: 64 10 (640)
I0428 19:47:19.261410 26160 net.cpp:139] Memory required for data: 1166080
I0428 19:47:19.261417 26160 layer_factory.hpp:77] Creating layer relu1
I0428 19:47:19.261423 26160 net.cpp:86] Creating Layer relu1
I0428 19:47:19.261426 26160 net.cpp:408] relu1 <- ip1
I0428 19:47:19.261430 26160 net.cpp:369] relu1 -> ip1 (in-place)
I0428 19:47:19.261633 26160 net.cpp:124] Setting up relu1
I0428 19:47:19.261642 26160 net.cpp:131] Top shape: 64 10 (640)
I0428 19:47:19.261646 26160 net.cpp:139] Memory required for data: 1168640
I0428 19:47:19.261649 26160 layer_factory.hpp:77] Creating layer ip2
I0428 19:47:19.261656 26160 net.cpp:86] Creating Layer ip2
I0428 19:47:19.261659 26160 net.cpp:408] ip2 <- ip1
I0428 19:47:19.261665 26160 net.cpp:382] ip2 -> ip2
I0428 19:47:19.261765 26160 net.cpp:124] Setting up ip2
I0428 19:47:19.261787 26160 net.cpp:131] Top shape: 64 10 (640)
I0428 19:47:19.261790 26160 net.cpp:139] Memory required for data: 1171200
I0428 19:47:19.261796 26160 layer_factory.hpp:77] Creating layer relu2
I0428 19:47:19.261802 26160 net.cpp:86] Creating Layer relu2
I0428 19:47:19.261806 26160 net.cpp:408] relu2 <- ip2
I0428 19:47:19.261811 26160 net.cpp:369] relu2 -> ip2 (in-place)
I0428 19:47:19.262586 26160 net.cpp:124] Setting up relu2
I0428 19:47:19.262615 26160 net.cpp:131] Top shape: 64 10 (640)
I0428 19:47:19.262619 26160 net.cpp:139] Memory required for data: 1173760
I0428 19:47:19.262622 26160 layer_factory.hpp:77] Creating layer loss
I0428 19:47:19.262629 26160 net.cpp:86] Creating Layer loss
I0428 19:47:19.262634 26160 net.cpp:408] loss <- ip2
I0428 19:47:19.262639 26160 net.cpp:408] loss <- label
I0428 19:47:19.262645 26160 net.cpp:382] loss -> loss
I0428 19:47:19.262661 26160 layer_factory.hpp:77] Creating layer loss
…
I0428 19:47:19.263352 26160 solver.cpp:173] Creating test net (#0) specified by net file: ECE595/mnist/train_test/var_everything2/lenet_train_test511.prototxt
I0428 19:47:19.263392 26160 net.cpp:296] The NetState phase (1) differed from the phase (0) specified by a rule in layer mnist
I0428 19:47:19.263476 26160 net.cpp:53] Initializing net from parameters: 
name: "LeNet"
state {
  phase: TEST
}
layer {
  name: "mnist"
  type: "Data"
  top: "data"
  top: "label"
  include {
    phase: TEST
  }
  transform_param {
    scale: 0.00390625
  }
  data_param {
    source: "examples/mnist/mnist_test_lmdb"
    batch_size: 100
    backend: LMDB
  }
}
layer {
  name: "conv0"
  type: "Convolution"
  bottom: "data"
  top: "conv0"
  param {
    lr_mult: 1
  }
  param {
    lr_mult: 2
  }
  convolution_param {
    num_output: 5
    kernel_size: 5
    stride: 1
    weight_filler {
      type: "xavier"
    }
    bias_filler {
      type: "constant"
    }
  }
}
layer {
  name: "pool0"
  type: "Pooling"
  bottom: "conv0"
  top: "pool0"
  pooling_param {
    pool: MAX
    kernel_size: 2
    stride: 2
  }
}
layer {
  name: "conv1"
  type: "Convolution"
  bottom: "pool0"
  top: "conv1"
  param {
    lr_mult: 1
  }
  param {
    lr_mult: 2
  }
  convolution_param {
    num_output: 2
    kernel_size: 5
    stride: 1
    weight_filler {
      type: "xavier"
    }
    bias_filler {
      type: "constant"
    }
  }
}
layer {
  name: "pool1"
  type: "Pooling"
  bottom: "conv1"
  top: "pool1"
  pooling_param {
    pool: MAX
    kernel_size: 2
    stride: 2
  }
}
layer {
  name: "ip1"
  type: "InnerProduct"
  bottom: "pool1"
  top: "ip1"
  param {
    lr_mult: 1
  }
  param {
    lr_mult: 2
  }
  inner_product_param {
    num_output: 10
    weight_filler {
      type: "xavier"
    }
    bias_filler {
      type: "constant"
    }
  }
}
layer {
  name: "relu1"
  type: "ReLU"
  bottom: "ip1"
  top: "ip1"
}
layer {
  name: "ip2"
  type: "InnerProduct"
  bottom: "ip1"
  top: "ip2"
  param {
    lr_mult: 1
  }
  param {
    lr_mult: 2
  }
  inner_product_param {
    num_output: 10
    weight_filler {
      type: "xavier"
    }
    bias_filler {
      type: "constant"
    }
  }
}
layer {
  name: "relu2"
  type: "ReLU"
  bottom: "ip2"
  top: "ip2"
}
layer {
  name: "accuracy"
  type: "Accuracy"
  bottom: "ip2"
  bottom: "label"
  top: "accuracy"
  include {
    phase: TEST
  }
}
layer {
  name: "loss"
  type: "SoftmaxWithLoss"
  bottom: "ip2"
  bottom: "label"
  top: "loss"
}
I0428 19:47:19.263540 26160 layer_factory.hpp:77] Creating layer mnist
I0428 19:47:19.263583 26160 db_lmdb.cpp:35] Opened lmdb examples/mnist/mnist_test_lmdb
I0428 19:47:19.263595 26160 net.cpp:86] Creating Layer mnist
I0428 19:47:19.263599 26160 net.cpp:382] mnist -> data
I0428 19:47:19.263607 26160 net.cpp:382] mnist -> label
I0428 19:47:19.263726 26160 data_layer.cpp:45] output data size: 100,1,28,28
I0428 19:47:19.266053 26160 net.cpp:124] Setting up mnist
I0428 19:47:19.266083 26160 net.cpp:131] Top shape: 100 1 28 28 (78400)
I0428 19:47:19.266089 26160 net.cpp:131] Top shape: 100 (100)
I0428 19:47:19.266093 26160 net.cpp:139] Memory required for data: 314000
I0428 19:47:19.266096 26160 layer_factory.hpp:77] Creating layer label_mnist_1_split
I0428 19:47:19.266104 26160 net.cpp:86] Creating Layer label_mnist_1_split
I0428 19:47:19.266108 26160 net.cpp:408] label_mnist_1_split <- label
I0428 19:47:19.266113 26160 net.cpp:382] label_mnist_1_split -> label_mnist_1_split_0
I0428 19:47:19.266120 26160 net.cpp:382] label_mnist_1_split -> label_mnist_1_split_1
I0428 19:47:19.266207 26160 net.cpp:124] Setting up label_mnist_1_split
I0428 19:47:19.266227 26160 net.cpp:131] Top shape: 100 (100)
I0428 19:47:19.266232 26160 net.cpp:131] Top shape: 100 (100)
I0428 19:47:19.266234 26160 net.cpp:139] Memory required for data: 314800
I0428 19:47:19.266237 26160 layer_factory.hpp:77] Creating layer conv0
I0428 19:47:19.266247 26160 net.cpp:86] Creating Layer conv0
I0428 19:47:19.266250 26160 net.cpp:408] conv0 <- data
I0428 19:47:19.266255 26160 net.cpp:382] conv0 -> conv0
I0428 19:47:19.267910 26160 net.cpp:124] Setting up conv0
I0428 19:47:19.267940 26160 net.cpp:131] Top shape: 100 5 24 24 (288000)
I0428 19:47:19.267945 26160 net.cpp:139] Memory required for data: 1466800
I0428 19:47:19.267954 26160 layer_factory.hpp:77] Creating layer pool0
I0428 19:47:19.267961 26160 net.cpp:86] Creating Layer pool0
I0428 19:47:19.267964 26160 net.cpp:408] pool0 <- conv0
I0428 19:47:19.267968 26160 net.cpp:382] pool0 -> pool0
I0428 19:47:19.268021 26160 net.cpp:124] Setting up pool0
I0428 19:47:19.268043 26160 net.cpp:131] Top shape: 100 5 12 12 (72000)
I0428 19:47:19.268045 26160 net.cpp:139] Memory required for data: 1754800
I0428 19:47:19.268049 26160 layer_factory.hpp:77] Creating layer conv1
I0428 19:47:19.268057 26160 net.cpp:86] Creating Layer conv1
I0428 19:47:19.268061 26160 net.cpp:408] conv1 <- pool0
I0428 19:47:19.268066 26160 net.cpp:382] conv1 -> conv1
I0428 19:47:19.270324 26160 net.cpp:124] Setting up conv1
I0428 19:47:19.270354 26160 net.cpp:131] Top shape: 100 2 8 8 (12800)
I0428 19:47:19.270359 26160 net.cpp:139] Memory required for data: 1806000
I0428 19:47:19.270368 26160 layer_factory.hpp:77] Creating layer pool1
I0428 19:47:19.270375 26160 net.cpp:86] Creating Layer pool1
I0428 19:47:19.270380 26160 net.cpp:408] pool1 <- conv1
I0428 19:47:19.270385 26160 net.cpp:382] pool1 -> pool1
I0428 19:47:19.270457 26160 net.cpp:124] Setting up pool1
I0428 19:47:19.270463 26160 net.cpp:131] Top shape: 100 2 4 4 (3200)
I0428 19:47:19.270467 26160 net.cpp:139] Memory required for data: 1818800
I0428 19:47:19.270470 26160 layer_factory.hpp:77] Creating layer ip1
I0428 19:47:19.270476 26160 net.cpp:86] Creating Layer ip1
I0428 19:47:19.270480 26160 net.cpp:408] ip1 <- pool1
I0428 19:47:19.270485 26160 net.cpp:382] ip1 -> ip1
I0428 19:47:19.270629 26160 net.cpp:124] Setting up ip1
I0428 19:47:19.270638 26160 net.cpp:131] Top shape: 100 10 (1000)
I0428 19:47:19.270642 26160 net.cpp:139] Memory required for data: 1822800
I0428 19:47:19.270649 26160 layer_factory.hpp:77] Creating layer relu1
I0428 19:47:19.270654 26160 net.cpp:86] Creating Layer relu1
I0428 19:47:19.270658 26160 net.cpp:408] relu1 <- ip1
I0428 19:47:19.270663 26160 net.cpp:369] relu1 -> ip1 (in-place)
I0428 19:47:19.270877 26160 net.cpp:124] Setting up relu1
I0428 19:47:19.270887 26160 net.cpp:131] Top shape: 100 10 (1000)
I0428 19:47:19.270891 26160 net.cpp:139] Memory required for data: 1826800
I0428 19:47:19.270895 26160 layer_factory.hpp:77] Creating layer ip2
I0428 19:47:19.270902 26160 net.cpp:86] Creating Layer ip2
I0428 19:47:19.270906 26160 net.cpp:408] ip2 <- ip1
I0428 19:47:19.270911 26160 net.cpp:382] ip2 -> ip2
I0428 19:47:19.271013 26160 net.cpp:124] Setting up ip2
I0428 19:47:19.271021 26160 net.cpp:131] Top shape: 100 10 (1000)
I0428 19:47:19.271025 26160 net.cpp:139] Memory required for data: 1830800
I0428 19:47:19.271031 26160 layer_factory.hpp:77] Creating layer relu2
I0428 19:47:19.271036 26160 net.cpp:86] Creating Layer relu2
I0428 19:47:19.271039 26160 net.cpp:408] relu2 <- ip2
I0428 19:47:19.271044 26160 net.cpp:369] relu2 -> ip2 (in-place)
I0428 19:47:19.271214 26160 net.cpp:124] Setting up relu2
I0428 19:47:19.271222 26160 net.cpp:131] Top shape: 100 10 (1000)
I0428 19:47:19.271226 26160 net.cpp:139] Memory required for data: 1834800
I0428 19:47:19.271229 26160 layer_factory.hpp:77] Creating layer ip2_relu2_0_split
I0428 19:47:19.271234 26160 net.cpp:86] Creating Layer ip2_relu2_0_split
I0428 19:47:19.271236 26160 net.cpp:408] ip2_relu2_0_split <- ip2
I0428 19:47:19.271241 26160 net.cpp:382] ip2_relu2_0_split -> ip2_relu2_0_split_0
I0428 19:47:19.271260 26160 net.cpp:382] ip2_relu2_0_split -> ip2_relu2_0_split_1
I0428 19:47:19.271297 26160 net.cpp:124] Setting up ip2_relu2_0_split
I0428 19:47:19.271304 26160 net.cpp:131] Top shape: 100 10 (1000)
I0428 19:47:19.271308 26160 net.cpp:131] Top shape: 100 10 (1000)
I0428 19:47:19.271311 26160 net.cpp:139] Memory required for data: 1842800
I0428 19:47:19.271314 26160 layer_factory.hpp:77] Creating layer accuracy
I0428 19:47:19.271337 26160 net.cpp:86] Creating Layer accuracy
I0428 19:47:19.271340 26160 net.cpp:408] accuracy <- ip2_relu2_0_split_0
I0428 19:47:19.271345 26160 net.cpp:408] accuracy <- label_mnist_1_split_0
I0428 19:47:19.271349 26160 net.cpp:382] accuracy -> accuracy
…
