…
I0428 19:42:42.684763 25131 net.cpp:296] The NetState phase (0) differed from the phase (1) specified by a rule in layer mnist
I0428 19:42:42.684792 25131 net.cpp:296] The NetState phase (0) differed from the phase (1) specified by a rule in layer accuracy
I0428 19:42:42.684919 25131 net.cpp:53] Initializing net from parameters: 
name: "LeNet"
state {
  phase: TRAIN
  level: 0
  stage: ""
}
layer {
  name: "mnist"
  type: "Data"
  top: "data"
  top: "label"
  include {
    phase: TRAIN
  }
  transform_param {
    scale: 0.00390625
  }
  data_param {
    source: "examples/mnist/mnist_train_lmdb"
    batch_size: 64
    backend: LMDB
  }
}
layer {
  name: "conv0"
  type: "Convolution"
  bottom: "data"
  top: "conv0"
  param {
    lr_mult: 1
  }
  param {
    lr_mult: 2
  }
  convolution_param {
    num_output: 2
    kernel_size: 5
    stride: 1
    weight_filler {
      type: "xavier"
    }
    bias_filler {
      type: "constant"
    }
  }
}
layer {
  name: "pool0"
  type: "Pooling"
  bottom: "conv0"
  top: "pool0"
  pooling_param {
    pool: MAX
    kernel_size: 2
    stride: 2
  }
}
layer {
  name: "conv1"
  type: "Convolution"
  bottom: "pool0"
  top: "conv1"
  param {
    lr_mult: 1
  }
  param {
    lr_mult: 2
  }
  convolution_param {
    num_output: 25
    kernel_size: 5
    stride: 1
    weight_filler {
      type: "xavier"
    }
    bias_filler {
      type: "constant"
    }
  }
}
layer {
  name: "pool1"
  type: "Pooling"
  bottom: "conv1"
  top: "pool1"
  pooling_param {
    pool: MAX
    kernel_size: 2
    stride: 2
  }
}
layer {
  name: "ip1"
  type: "InnerProduct"
  bottom: "pool1"
  top: "ip1"
  param {
    lr_mult: 1
  }
  param {
    lr_mult: 2
  }
  inner_product_param {
    num_output: 50
    weight_filler {
      type: "xavier"
    }
    bias_filler {
      type: "constant"
    }
  }
}
layer {
  name: "relu1"
  type: "ReLU"
  bottom: "ip1"
  top: "ip1"
}
layer {
  name: "ip2"
  type: "InnerProduct"
  bottom: "ip1"
  top: "ip2"
  param {
    lr_mult: 1
  }
  param {
    lr_mult: 2
  }
  inner_product_param {
    num_output: 10
    weight_filler {
      type: "xavier"
    }
    bias_filler {
      type: "constant"
    }
  }
}
layer {
  name: "relu2"
  type: "ReLU"
  bottom: "ip2"
  top: "ip2"
}
layer {
  name: "loss"
  type: "SoftmaxWithLoss"
  bottom: "ip2"
  bottom: "label"
  top: "loss"
}
I0428 19:42:42.684979 25131 layer_factory.hpp:77] Creating layer mnist
I0428 19:42:42.685066 25131 db_lmdb.cpp:35] Opened lmdb examples/mnist/mnist_train_lmdb
I0428 19:42:42.685088 25131 net.cpp:86] Creating Layer mnist
I0428 19:42:42.685096 25131 net.cpp:382] mnist -> data
I0428 19:42:42.685114 25131 net.cpp:382] mnist -> label
I0428 19:42:42.686069 25131 data_layer.cpp:45] output data size: 64,1,28,28
I0428 19:42:42.688251 25131 net.cpp:124] Setting up mnist
I0428 19:42:42.688282 25131 net.cpp:131] Top shape: 64 1 28 28 (50176)
I0428 19:42:42.688287 25131 net.cpp:131] Top shape: 64 (64)
I0428 19:42:42.688289 25131 net.cpp:139] Memory required for data: 200960
I0428 19:42:42.688297 25131 layer_factory.hpp:77] Creating layer conv0
I0428 19:42:42.688309 25131 net.cpp:86] Creating Layer conv0
I0428 19:42:42.688314 25131 net.cpp:408] conv0 <- data
I0428 19:42:42.688323 25131 net.cpp:382] conv0 -> conv0
I0428 19:42:42.916553 25131 net.cpp:124] Setting up conv0
I0428 19:42:42.916594 25131 net.cpp:131] Top shape: 64 2 24 24 (73728)
I0428 19:42:42.916597 25131 net.cpp:139] Memory required for data: 495872
I0428 19:42:42.916628 25131 layer_factory.hpp:77] Creating layer pool0
I0428 19:42:42.916641 25131 net.cpp:86] Creating Layer pool0
I0428 19:42:42.916645 25131 net.cpp:408] pool0 <- conv0
I0428 19:42:42.916651 25131 net.cpp:382] pool0 -> pool0
I0428 19:42:42.916712 25131 net.cpp:124] Setting up pool0
I0428 19:42:42.916720 25131 net.cpp:131] Top shape: 64 2 12 12 (18432)
I0428 19:42:42.916723 25131 net.cpp:139] Memory required for data: 569600
I0428 19:42:42.916726 25131 layer_factory.hpp:77] Creating layer conv1
I0428 19:42:42.916739 25131 net.cpp:86] Creating Layer conv1
I0428 19:42:42.916744 25131 net.cpp:408] conv1 <- pool0
I0428 19:42:42.916749 25131 net.cpp:382] conv1 -> conv1
I0428 19:42:42.919685 25131 net.cpp:124] Setting up conv1
I0428 19:42:42.919715 25131 net.cpp:131] Top shape: 64 25 8 8 (102400)
I0428 19:42:42.919720 25131 net.cpp:139] Memory required for data: 979200
I0428 19:42:42.919728 25131 layer_factory.hpp:77] Creating layer pool1
I0428 19:42:42.919735 25131 net.cpp:86] Creating Layer pool1
I0428 19:42:42.919739 25131 net.cpp:408] pool1 <- conv1
I0428 19:42:42.919744 25131 net.cpp:382] pool1 -> pool1
I0428 19:42:42.919826 25131 net.cpp:124] Setting up pool1
I0428 19:42:42.919832 25131 net.cpp:131] Top shape: 64 25 4 4 (25600)
I0428 19:42:42.919836 25131 net.cpp:139] Memory required for data: 1081600
I0428 19:42:42.919838 25131 layer_factory.hpp:77] Creating layer ip1
I0428 19:42:42.919847 25131 net.cpp:86] Creating Layer ip1
I0428 19:42:42.919850 25131 net.cpp:408] ip1 <- pool1
I0428 19:42:42.919855 25131 net.cpp:382] ip1 -> ip1
I0428 19:42:42.920064 25131 net.cpp:124] Setting up ip1
I0428 19:42:42.920073 25131 net.cpp:131] Top shape: 64 50 (3200)
I0428 19:42:42.920075 25131 net.cpp:139] Memory required for data: 1094400
I0428 19:42:42.920083 25131 layer_factory.hpp:77] Creating layer relu1
I0428 19:42:42.920090 25131 net.cpp:86] Creating Layer relu1
I0428 19:42:42.920110 25131 net.cpp:408] relu1 <- ip1
I0428 19:42:42.920115 25131 net.cpp:369] relu1 -> ip1 (in-place)
I0428 19:42:42.920298 25131 net.cpp:124] Setting up relu1
I0428 19:42:42.920307 25131 net.cpp:131] Top shape: 64 50 (3200)
I0428 19:42:42.920310 25131 net.cpp:139] Memory required for data: 1107200
I0428 19:42:42.920313 25131 layer_factory.hpp:77] Creating layer ip2
I0428 19:42:42.920320 25131 net.cpp:86] Creating Layer ip2
I0428 19:42:42.920323 25131 net.cpp:408] ip2 <- ip1
I0428 19:42:42.920327 25131 net.cpp:382] ip2 -> ip2
I0428 19:42:42.920508 25131 net.cpp:124] Setting up ip2
I0428 19:42:42.920516 25131 net.cpp:131] Top shape: 64 10 (640)
I0428 19:42:42.920518 25131 net.cpp:139] Memory required for data: 1109760
I0428 19:42:42.920524 25131 layer_factory.hpp:77] Creating layer relu2
I0428 19:42:42.920532 25131 net.cpp:86] Creating Layer relu2
I0428 19:42:42.920538 25131 net.cpp:408] relu2 <- ip2
I0428 19:42:42.920542 25131 net.cpp:369] relu2 -> ip2 (in-place)
I0428 19:42:42.921389 25131 net.cpp:124] Setting up relu2
I0428 19:42:42.921401 25131 net.cpp:131] Top shape: 64 10 (640)
I0428 19:42:42.921419 25131 net.cpp:139] Memory required for data: 1112320
I0428 19:42:42.921422 25131 layer_factory.hpp:77] Creating layer loss
I0428 19:42:42.921429 25131 net.cpp:86] Creating Layer loss
I0428 19:42:42.921432 25131 net.cpp:408] loss <- ip2
I0428 19:42:42.921437 25131 net.cpp:408] loss <- label
I0428 19:42:42.921442 25131 net.cpp:382] loss -> loss
I0428 19:42:42.921460 25131 layer_factory.hpp:77] Creating layer loss
…
I0428 19:42:42.922063 25131 solver.cpp:173] Creating test net (#0) specified by net file: ECE595/mnist/train_test/var_everything2/lenet_train_test401.prototxt
I0428 19:42:42.922087 25131 net.cpp:296] The NetState phase (1) differed from the phase (0) specified by a rule in layer mnist
I0428 19:42:42.922173 25131 net.cpp:53] Initializing net from parameters: 
name: "LeNet"
state {
  phase: TEST
}
layer {
  name: "mnist"
  type: "Data"
  top: "data"
  top: "label"
  include {
    phase: TEST
  }
  transform_param {
    scale: 0.00390625
  }
  data_param {
    source: "examples/mnist/mnist_test_lmdb"
    batch_size: 100
    backend: LMDB
  }
}
layer {
  name: "conv0"
  type: "Convolution"
  bottom: "data"
  top: "conv0"
  param {
    lr_mult: 1
  }
  param {
    lr_mult: 2
  }
  convolution_param {
    num_output: 2
    kernel_size: 5
    stride: 1
    weight_filler {
      type: "xavier"
    }
    bias_filler {
      type: "constant"
    }
  }
}
layer {
  name: "pool0"
  type: "Pooling"
  bottom: "conv0"
  top: "pool0"
  pooling_param {
    pool: MAX
    kernel_size: 2
    stride: 2
  }
}
layer {
  name: "conv1"
  type: "Convolution"
  bottom: "pool0"
  top: "conv1"
  param {
    lr_mult: 1
  }
  param {
    lr_mult: 2
  }
  convolution_param {
    num_output: 25
    kernel_size: 5
    stride: 1
    weight_filler {
      type: "xavier"
    }
    bias_filler {
      type: "constant"
    }
  }
}
layer {
  name: "pool1"
  type: "Pooling"
  bottom: "conv1"
  top: "pool1"
  pooling_param {
    pool: MAX
    kernel_size: 2
    stride: 2
  }
}
layer {
  name: "ip1"
  type: "InnerProduct"
  bottom: "pool1"
  top: "ip1"
  param {
    lr_mult: 1
  }
  param {
    lr_mult: 2
  }
  inner_product_param {
    num_output: 50
    weight_filler {
      type: "xavier"
    }
    bias_filler {
      type: "constant"
    }
  }
}
layer {
  name: "relu1"
  type: "ReLU"
  bottom: "ip1"
  top: "ip1"
}
layer {
  name: "ip2"
  type: "InnerProduct"
  bottom: "ip1"
  top: "ip2"
  param {
    lr_mult: 1
  }
  param {
    lr_mult: 2
  }
  inner_product_param {
    num_output: 10
    weight_filler {
      type: "xavier"
    }
    bias_filler {
      type: "constant"
    }
  }
}
layer {
  name: "relu2"
  type: "ReLU"
  bottom: "ip2"
  top: "ip2"
}
layer {
  name: "accuracy"
  type: "Accuracy"
  bottom: "ip2"
  bottom: "label"
  top: "accuracy"
  include {
    phase: TEST
  }
}
layer {
  name: "loss"
  type: "SoftmaxWithLoss"
  bottom: "ip2"
  bottom: "label"
  top: "loss"
}
I0428 19:42:42.922251 25131 layer_factory.hpp:77] Creating layer mnist
I0428 19:42:42.922292 25131 db_lmdb.cpp:35] Opened lmdb examples/mnist/mnist_test_lmdb
I0428 19:42:42.922305 25131 net.cpp:86] Creating Layer mnist
I0428 19:42:42.922313 25131 net.cpp:382] mnist -> data
I0428 19:42:42.922319 25131 net.cpp:382] mnist -> label
I0428 19:42:42.922418 25131 data_layer.cpp:45] output data size: 100,1,28,28
I0428 19:42:42.924391 25131 net.cpp:124] Setting up mnist
I0428 19:42:42.924434 25131 net.cpp:131] Top shape: 100 1 28 28 (78400)
I0428 19:42:42.924439 25131 net.cpp:131] Top shape: 100 (100)
I0428 19:42:42.924443 25131 net.cpp:139] Memory required for data: 314000
I0428 19:42:42.924461 25131 layer_factory.hpp:77] Creating layer label_mnist_1_split
I0428 19:42:42.924487 25131 net.cpp:86] Creating Layer label_mnist_1_split
I0428 19:42:42.924494 25131 net.cpp:408] label_mnist_1_split <- label
I0428 19:42:42.924499 25131 net.cpp:382] label_mnist_1_split -> label_mnist_1_split_0
I0428 19:42:42.924520 25131 net.cpp:382] label_mnist_1_split -> label_mnist_1_split_1
I0428 19:42:42.924563 25131 net.cpp:124] Setting up label_mnist_1_split
I0428 19:42:42.924581 25131 net.cpp:131] Top shape: 100 (100)
I0428 19:42:42.924584 25131 net.cpp:131] Top shape: 100 (100)
I0428 19:42:42.924587 25131 net.cpp:139] Memory required for data: 314800
I0428 19:42:42.924590 25131 layer_factory.hpp:77] Creating layer conv0
I0428 19:42:42.924599 25131 net.cpp:86] Creating Layer conv0
I0428 19:42:42.924604 25131 net.cpp:408] conv0 <- data
I0428 19:42:42.924610 25131 net.cpp:382] conv0 -> conv0
I0428 19:42:42.926535 25131 net.cpp:124] Setting up conv0
I0428 19:42:42.926549 25131 net.cpp:131] Top shape: 100 2 24 24 (115200)
I0428 19:42:42.926564 25131 net.cpp:139] Memory required for data: 775600
I0428 19:42:42.926573 25131 layer_factory.hpp:77] Creating layer pool0
I0428 19:42:42.926581 25131 net.cpp:86] Creating Layer pool0
I0428 19:42:42.926585 25131 net.cpp:408] pool0 <- conv0
I0428 19:42:42.926589 25131 net.cpp:382] pool0 -> pool0
I0428 19:42:42.926630 25131 net.cpp:124] Setting up pool0
I0428 19:42:42.926636 25131 net.cpp:131] Top shape: 100 2 12 12 (28800)
I0428 19:42:42.926640 25131 net.cpp:139] Memory required for data: 890800
I0428 19:42:42.926642 25131 layer_factory.hpp:77] Creating layer conv1
I0428 19:42:42.926652 25131 net.cpp:86] Creating Layer conv1
I0428 19:42:42.926658 25131 net.cpp:408] conv1 <- pool0
I0428 19:42:42.926664 25131 net.cpp:382] conv1 -> conv1
I0428 19:42:42.928282 25131 net.cpp:124] Setting up conv1
I0428 19:42:42.928295 25131 net.cpp:131] Top shape: 100 25 8 8 (160000)
I0428 19:42:42.928300 25131 net.cpp:139] Memory required for data: 1530800
I0428 19:42:42.928309 25131 layer_factory.hpp:77] Creating layer pool1
I0428 19:42:42.928316 25131 net.cpp:86] Creating Layer pool1
I0428 19:42:42.928319 25131 net.cpp:408] pool1 <- conv1
I0428 19:42:42.928324 25131 net.cpp:382] pool1 -> pool1
I0428 19:42:42.928361 25131 net.cpp:124] Setting up pool1
I0428 19:42:42.928369 25131 net.cpp:131] Top shape: 100 25 4 4 (40000)
I0428 19:42:42.928371 25131 net.cpp:139] Memory required for data: 1690800
I0428 19:42:42.928375 25131 layer_factory.hpp:77] Creating layer ip1
I0428 19:42:42.928395 25131 net.cpp:86] Creating Layer ip1
I0428 19:42:42.928398 25131 net.cpp:408] ip1 <- pool1
I0428 19:42:42.928405 25131 net.cpp:382] ip1 -> ip1
I0428 19:42:42.928652 25131 net.cpp:124] Setting up ip1
I0428 19:42:42.928659 25131 net.cpp:131] Top shape: 100 50 (5000)
I0428 19:42:42.928663 25131 net.cpp:139] Memory required for data: 1710800
I0428 19:42:42.928670 25131 layer_factory.hpp:77] Creating layer relu1
I0428 19:42:42.928678 25131 net.cpp:86] Creating Layer relu1
I0428 19:42:42.928680 25131 net.cpp:408] relu1 <- ip1
I0428 19:42:42.928685 25131 net.cpp:369] relu1 -> ip1 (in-place)
I0428 19:42:42.928881 25131 net.cpp:124] Setting up relu1
I0428 19:42:42.928890 25131 net.cpp:131] Top shape: 100 50 (5000)
I0428 19:42:42.928894 25131 net.cpp:139] Memory required for data: 1730800
I0428 19:42:42.928897 25131 layer_factory.hpp:77] Creating layer ip2
I0428 19:42:42.928905 25131 net.cpp:86] Creating Layer ip2
I0428 19:42:42.928907 25131 net.cpp:408] ip2 <- ip1
I0428 19:42:42.928913 25131 net.cpp:382] ip2 -> ip2
I0428 19:42:42.929014 25131 net.cpp:124] Setting up ip2
I0428 19:42:42.929021 25131 net.cpp:131] Top shape: 100 10 (1000)
I0428 19:42:42.929024 25131 net.cpp:139] Memory required for data: 1734800
I0428 19:42:42.929029 25131 layer_factory.hpp:77] Creating layer relu2
I0428 19:42:42.929035 25131 net.cpp:86] Creating Layer relu2
I0428 19:42:42.929039 25131 net.cpp:408] relu2 <- ip2
I0428 19:42:42.929041 25131 net.cpp:369] relu2 -> ip2 (in-place)
I0428 19:42:42.929234 25131 net.cpp:124] Setting up relu2
I0428 19:42:42.929241 25131 net.cpp:131] Top shape: 100 10 (1000)
I0428 19:42:42.929245 25131 net.cpp:139] Memory required for data: 1738800
I0428 19:42:42.929247 25131 layer_factory.hpp:77] Creating layer ip2_relu2_0_split
I0428 19:42:42.929253 25131 net.cpp:86] Creating Layer ip2_relu2_0_split
I0428 19:42:42.929257 25131 net.cpp:408] ip2_relu2_0_split <- ip2
I0428 19:42:42.929261 25131 net.cpp:382] ip2_relu2_0_split -> ip2_relu2_0_split_0
I0428 19:42:42.929278 25131 net.cpp:382] ip2_relu2_0_split -> ip2_relu2_0_split_1
I0428 19:42:42.929381 25131 net.cpp:124] Setting up ip2_relu2_0_split
I0428 19:42:42.929388 25131 net.cpp:131] Top shape: 100 10 (1000)
I0428 19:42:42.929392 25131 net.cpp:131] Top shape: 100 10 (1000)
I0428 19:42:42.929395 25131 net.cpp:139] Memory required for data: 1746800
I0428 19:42:42.929399 25131 layer_factory.hpp:77] Creating layer accuracy
I0428 19:42:42.929404 25131 net.cpp:86] Creating Layer accuracy
I0428 19:42:42.929407 25131 net.cpp:408] accuracy <- ip2_relu2_0_split_0
I0428 19:42:42.929412 25131 net.cpp:408] accuracy <- label_mnist_1_split_0
I0428 19:42:42.929416 25131 net.cpp:382] accuracy -> accuracy
…
