…
I0428 20:07:12.880476 31049 net.cpp:296] The NetState phase (0) differed from the phase (1) specified by a rule in layer mnist
I0428 20:07:12.880497 31049 net.cpp:296] The NetState phase (0) differed from the phase (1) specified by a rule in layer accuracy
I0428 20:07:12.880604 31049 net.cpp:53] Initializing net from parameters: 
name: "LeNet"
state {
  phase: TRAIN
  level: 0
  stage: ""
}
layer {
  name: "mnist"
  type: "Data"
  top: "data"
  top: "label"
  include {
    phase: TRAIN
  }
  transform_param {
    scale: 0.00390625
  }
  data_param {
    source: "examples/mnist/mnist_train_lmdb"
    batch_size: 64
    backend: LMDB
  }
}
layer {
  name: "conv0"
  type: "Convolution"
  bottom: "data"
  top: "conv0"
  param {
    lr_mult: 1
  }
  param {
    lr_mult: 2
  }
  convolution_param {
    num_output: 25
    kernel_size: 5
    stride: 1
    weight_filler {
      type: "xavier"
    }
    bias_filler {
      type: "constant"
    }
  }
}
layer {
  name: "pool0"
  type: "Pooling"
  bottom: "conv0"
  top: "pool0"
  pooling_param {
    pool: MAX
    kernel_size: 2
    stride: 2
  }
}
layer {
  name: "conv1"
  type: "Convolution"
  bottom: "pool0"
  top: "conv1"
  param {
    lr_mult: 1
  }
  param {
    lr_mult: 2
  }
  convolution_param {
    num_output: 5
    kernel_size: 5
    stride: 1
    weight_filler {
      type: "xavier"
    }
    bias_filler {
      type: "constant"
    }
  }
}
layer {
  name: "pool1"
  type: "Pooling"
  bottom: "conv1"
  top: "pool1"
  pooling_param {
    pool: MAX
    kernel_size: 2
    stride: 2
  }
}
layer {
  name: "ip1"
  type: "InnerProduct"
  bottom: "pool1"
  top: "ip1"
  param {
    lr_mult: 1
  }
  param {
    lr_mult: 2
  }
  inner_product_param {
    num_output: 50
    weight_filler {
      type: "xavier"
    }
    bias_filler {
      type: "constant"
    }
  }
}
layer {
  name: "relu1"
  type: "ReLU"
  bottom: "ip1"
  top: "ip1"
}
layer {
  name: "ip2"
  type: "InnerProduct"
  bottom: "ip1"
  top: "ip2"
  param {
    lr_mult: 1
  }
  param {
    lr_mult: 2
  }
  inner_product_param {
    num_output: 25
    weight_filler {
      type: "xavier"
    }
    bias_filler {
      type: "constant"
    }
  }
}
layer {
  name: "relu2"
  type: "ReLU"
  bottom: "ip2"
  top: "ip2"
}
layer {
  name: "ip3"
  type: "InnerProduct"
  bottom: "ip2"
  top: "ip3"
  param {
    lr_mult: 1
  }
  param {
    lr_mult: 2
  }
  inner_product_param {
    num_output: 10
    weight_filler {
      type: "xavier"
    }
    bias_filler {
      type: "constant"
    }
  }
}
layer {
  name: "relu3"
  type: "ReLU"
  bottom: "ip3"
  top: "ip3"
}
layer {
  name: "loss"
  type: "SoftmaxWithLoss"
  bottom: "ip3"
  bottom: "label"
  top: "loss"
}
I0428 20:07:12.880686 31049 layer_factory.hpp:77] Creating layer mnist
I0428 20:07:12.880785 31049 db_lmdb.cpp:35] Opened lmdb examples/mnist/mnist_train_lmdb
I0428 20:07:12.880817 31049 net.cpp:86] Creating Layer mnist
I0428 20:07:12.880828 31049 net.cpp:382] mnist -> data
I0428 20:07:12.880851 31049 net.cpp:382] mnist -> label
I0428 20:07:12.881989 31049 data_layer.cpp:45] output data size: 64,1,28,28
I0428 20:07:12.884496 31049 net.cpp:124] Setting up mnist
I0428 20:07:12.884521 31049 net.cpp:131] Top shape: 64 1 28 28 (50176)
I0428 20:07:12.884532 31049 net.cpp:131] Top shape: 64 (64)
I0428 20:07:12.884538 31049 net.cpp:139] Memory required for data: 200960
I0428 20:07:12.884549 31049 layer_factory.hpp:77] Creating layer conv0
I0428 20:07:12.884572 31049 net.cpp:86] Creating Layer conv0
I0428 20:07:12.884601 31049 net.cpp:408] conv0 <- data
I0428 20:07:12.884623 31049 net.cpp:382] conv0 -> conv0
I0428 20:07:13.159744 31049 net.cpp:124] Setting up conv0
I0428 20:07:13.159771 31049 net.cpp:131] Top shape: 64 25 24 24 (921600)
I0428 20:07:13.159775 31049 net.cpp:139] Memory required for data: 3887360
I0428 20:07:13.159790 31049 layer_factory.hpp:77] Creating layer pool0
I0428 20:07:13.159801 31049 net.cpp:86] Creating Layer pool0
I0428 20:07:13.159806 31049 net.cpp:408] pool0 <- conv0
I0428 20:07:13.159811 31049 net.cpp:382] pool0 -> pool0
I0428 20:07:13.159870 31049 net.cpp:124] Setting up pool0
I0428 20:07:13.159876 31049 net.cpp:131] Top shape: 64 25 12 12 (230400)
I0428 20:07:13.159879 31049 net.cpp:139] Memory required for data: 4808960
I0428 20:07:13.159883 31049 layer_factory.hpp:77] Creating layer conv1
I0428 20:07:13.159893 31049 net.cpp:86] Creating Layer conv1
I0428 20:07:13.159895 31049 net.cpp:408] conv1 <- pool0
I0428 20:07:13.159900 31049 net.cpp:382] conv1 -> conv1
I0428 20:07:13.162664 31049 net.cpp:124] Setting up conv1
I0428 20:07:13.162678 31049 net.cpp:131] Top shape: 64 5 8 8 (20480)
I0428 20:07:13.162698 31049 net.cpp:139] Memory required for data: 4890880
I0428 20:07:13.162708 31049 layer_factory.hpp:77] Creating layer pool1
I0428 20:07:13.162715 31049 net.cpp:86] Creating Layer pool1
I0428 20:07:13.162719 31049 net.cpp:408] pool1 <- conv1
I0428 20:07:13.162724 31049 net.cpp:382] pool1 -> pool1
I0428 20:07:13.162791 31049 net.cpp:124] Setting up pool1
I0428 20:07:13.162796 31049 net.cpp:131] Top shape: 64 5 4 4 (5120)
I0428 20:07:13.162798 31049 net.cpp:139] Memory required for data: 4911360
I0428 20:07:13.162801 31049 layer_factory.hpp:77] Creating layer ip1
I0428 20:07:13.162808 31049 net.cpp:86] Creating Layer ip1
I0428 20:07:13.162811 31049 net.cpp:408] ip1 <- pool1
I0428 20:07:13.162817 31049 net.cpp:382] ip1 -> ip1
I0428 20:07:13.162928 31049 net.cpp:124] Setting up ip1
I0428 20:07:13.162936 31049 net.cpp:131] Top shape: 64 50 (3200)
I0428 20:07:13.162940 31049 net.cpp:139] Memory required for data: 4924160
I0428 20:07:13.162946 31049 layer_factory.hpp:77] Creating layer relu1
I0428 20:07:13.162952 31049 net.cpp:86] Creating Layer relu1
I0428 20:07:13.162955 31049 net.cpp:408] relu1 <- ip1
I0428 20:07:13.162959 31049 net.cpp:369] relu1 -> ip1 (in-place)
I0428 20:07:13.163116 31049 net.cpp:124] Setting up relu1
I0428 20:07:13.163125 31049 net.cpp:131] Top shape: 64 50 (3200)
I0428 20:07:13.163128 31049 net.cpp:139] Memory required for data: 4936960
I0428 20:07:13.163131 31049 layer_factory.hpp:77] Creating layer ip2
I0428 20:07:13.163137 31049 net.cpp:86] Creating Layer ip2
I0428 20:07:13.163141 31049 net.cpp:408] ip2 <- ip1
I0428 20:07:13.163146 31049 net.cpp:382] ip2 -> ip2
I0428 20:07:13.163242 31049 net.cpp:124] Setting up ip2
I0428 20:07:13.163249 31049 net.cpp:131] Top shape: 64 25 (1600)
I0428 20:07:13.163254 31049 net.cpp:139] Memory required for data: 4943360
I0428 20:07:13.163259 31049 layer_factory.hpp:77] Creating layer relu2
I0428 20:07:13.163265 31049 net.cpp:86] Creating Layer relu2
I0428 20:07:13.163269 31049 net.cpp:408] relu2 <- ip2
I0428 20:07:13.163272 31049 net.cpp:369] relu2 -> ip2 (in-place)
I0428 20:07:13.164113 31049 net.cpp:124] Setting up relu2
I0428 20:07:13.164125 31049 net.cpp:131] Top shape: 64 25 (1600)
I0428 20:07:13.164144 31049 net.cpp:139] Memory required for data: 4949760
I0428 20:07:13.164149 31049 layer_factory.hpp:77] Creating layer ip3
I0428 20:07:13.164155 31049 net.cpp:86] Creating Layer ip3
I0428 20:07:13.164160 31049 net.cpp:408] ip3 <- ip2
I0428 20:07:13.164165 31049 net.cpp:382] ip3 -> ip3
I0428 20:07:13.164260 31049 net.cpp:124] Setting up ip3
I0428 20:07:13.164268 31049 net.cpp:131] Top shape: 64 10 (640)
I0428 20:07:13.164271 31049 net.cpp:139] Memory required for data: 4952320
I0428 20:07:13.164279 31049 layer_factory.hpp:77] Creating layer relu3
I0428 20:07:13.164284 31049 net.cpp:86] Creating Layer relu3
I0428 20:07:13.164288 31049 net.cpp:408] relu3 <- ip3
I0428 20:07:13.164291 31049 net.cpp:369] relu3 -> ip3 (in-place)
I0428 20:07:13.164470 31049 net.cpp:124] Setting up relu3
I0428 20:07:13.164479 31049 net.cpp:131] Top shape: 64 10 (640)
I0428 20:07:13.164484 31049 net.cpp:139] Memory required for data: 4954880
I0428 20:07:13.164486 31049 layer_factory.hpp:77] Creating layer loss
I0428 20:07:13.164492 31049 net.cpp:86] Creating Layer loss
I0428 20:07:13.164495 31049 net.cpp:408] loss <- ip3
I0428 20:07:13.164499 31049 net.cpp:408] loss <- label
I0428 20:07:13.164505 31049 net.cpp:382] loss -> loss
I0428 20:07:13.164522 31049 layer_factory.hpp:77] Creating layer loss
…
I0428 20:07:13.165370 31049 solver.cpp:173] Creating test net (#0) specified by net file: ECE595/mnist/train_test/var_everything2/lenet_train_test1049.prototxt
I0428 20:07:13.165415 31049 net.cpp:296] The NetState phase (1) differed from the phase (0) specified by a rule in layer mnist
I0428 20:07:13.165532 31049 net.cpp:53] Initializing net from parameters: 
name: "LeNet"
state {
  phase: TEST
}
layer {
  name: "mnist"
  type: "Data"
  top: "data"
  top: "label"
  include {
    phase: TEST
  }
  transform_param {
    scale: 0.00390625
  }
  data_param {
    source: "examples/mnist/mnist_test_lmdb"
    batch_size: 100
    backend: LMDB
  }
}
layer {
  name: "conv0"
  type: "Convolution"
  bottom: "data"
  top: "conv0"
  param {
    lr_mult: 1
  }
  param {
    lr_mult: 2
  }
  convolution_param {
    num_output: 25
    kernel_size: 5
    stride: 1
    weight_filler {
      type: "xavier"
    }
    bias_filler {
      type: "constant"
    }
  }
}
layer {
  name: "pool0"
  type: "Pooling"
  bottom: "conv0"
  top: "pool0"
  pooling_param {
    pool: MAX
    kernel_size: 2
    stride: 2
  }
}
layer {
  name: "conv1"
  type: "Convolution"
  bottom: "pool0"
  top: "conv1"
  param {
    lr_mult: 1
  }
  param {
    lr_mult: 2
  }
  convolution_param {
    num_output: 5
    kernel_size: 5
    stride: 1
    weight_filler {
      type: "xavier"
    }
    bias_filler {
      type: "constant"
    }
  }
}
layer {
  name: "pool1"
  type: "Pooling"
  bottom: "conv1"
  top: "pool1"
  pooling_param {
    pool: MAX
    kernel_size: 2
    stride: 2
  }
}
layer {
  name: "ip1"
  type: "InnerProduct"
  bottom: "pool1"
  top: "ip1"
  param {
    lr_mult: 1
  }
  param {
    lr_mult: 2
  }
  inner_product_param {
    num_output: 50
    weight_filler {
      type: "xavier"
    }
    bias_filler {
      type: "constant"
    }
  }
}
layer {
  name: "relu1"
  type: "ReLU"
  bottom: "ip1"
  top: "ip1"
}
layer {
  name: "ip2"
  type: "InnerProduct"
  bottom: "ip1"
  top: "ip2"
  param {
    lr_mult: 1
  }
  param {
    lr_mult: 2
  }
  inner_product_param {
    num_output: 25
    weight_filler {
      type: "xavier"
    }
    bias_filler {
      type: "constant"
    }
  }
}
layer {
  name: "relu2"
  type: "ReLU"
  bottom: "ip2"
  top: "ip2"
}
layer {
  name: "ip3"
  type: "InnerProduct"
  bottom: "ip2"
  top: "ip3"
  param {
    lr_mult: 1
  }
  param {
    lr_mult: 2
  }
  inner_product_param {
    num_output: 10
    weight_filler {
      type: "xavier"
    }
    bias_filler {
      type: "constant"
    }
  }
}
layer {
  name: "relu3"
  type: "ReLU"
  bottom: "ip3"
  top: "ip3"
}
layer {
  name: "accuracy"
  type: "Accuracy"
  bottom: "ip3"
  bottom: "label"
  top: "accuracy"
  include {
    phase: TEST
  }
}
layer {
  name: "loss"
  type: "SoftmaxWithLoss"
  bottom: "ip3"
  bottom: "label"
  top: "loss"
}
I0428 20:07:13.165612 31049 layer_factory.hpp:77] Creating layer mnist
I0428 20:07:13.165658 31049 db_lmdb.cpp:35] Opened lmdb examples/mnist/mnist_test_lmdb
I0428 20:07:13.165671 31049 net.cpp:86] Creating Layer mnist
I0428 20:07:13.165676 31049 net.cpp:382] mnist -> data
I0428 20:07:13.165684 31049 net.cpp:382] mnist -> label
I0428 20:07:13.165768 31049 data_layer.cpp:45] output data size: 100,1,28,28
I0428 20:07:13.167738 31049 net.cpp:124] Setting up mnist
I0428 20:07:13.167771 31049 net.cpp:131] Top shape: 100 1 28 28 (78400)
I0428 20:07:13.167778 31049 net.cpp:131] Top shape: 100 (100)
I0428 20:07:13.167781 31049 net.cpp:139] Memory required for data: 314000
I0428 20:07:13.167784 31049 layer_factory.hpp:77] Creating layer label_mnist_1_split
I0428 20:07:13.167791 31049 net.cpp:86] Creating Layer label_mnist_1_split
I0428 20:07:13.167795 31049 net.cpp:408] label_mnist_1_split <- label
I0428 20:07:13.167800 31049 net.cpp:382] label_mnist_1_split -> label_mnist_1_split_0
I0428 20:07:13.167806 31049 net.cpp:382] label_mnist_1_split -> label_mnist_1_split_1
I0428 20:07:13.167915 31049 net.cpp:124] Setting up label_mnist_1_split
I0428 20:07:13.167923 31049 net.cpp:131] Top shape: 100 (100)
I0428 20:07:13.167928 31049 net.cpp:131] Top shape: 100 (100)
I0428 20:07:13.167932 31049 net.cpp:139] Memory required for data: 314800
I0428 20:07:13.167934 31049 layer_factory.hpp:77] Creating layer conv0
I0428 20:07:13.167943 31049 net.cpp:86] Creating Layer conv0
I0428 20:07:13.167946 31049 net.cpp:408] conv0 <- data
I0428 20:07:13.167951 31049 net.cpp:382] conv0 -> conv0
I0428 20:07:13.169592 31049 net.cpp:124] Setting up conv0
I0428 20:07:13.169606 31049 net.cpp:131] Top shape: 100 25 24 24 (1440000)
I0428 20:07:13.169610 31049 net.cpp:139] Memory required for data: 6074800
I0428 20:07:13.169618 31049 layer_factory.hpp:77] Creating layer pool0
I0428 20:07:13.169641 31049 net.cpp:86] Creating Layer pool0
I0428 20:07:13.169644 31049 net.cpp:408] pool0 <- conv0
I0428 20:07:13.169649 31049 net.cpp:382] pool0 -> pool0
I0428 20:07:13.169683 31049 net.cpp:124] Setting up pool0
I0428 20:07:13.169689 31049 net.cpp:131] Top shape: 100 25 12 12 (360000)
I0428 20:07:13.169692 31049 net.cpp:139] Memory required for data: 7514800
I0428 20:07:13.169695 31049 layer_factory.hpp:77] Creating layer conv1
I0428 20:07:13.169703 31049 net.cpp:86] Creating Layer conv1
I0428 20:07:13.169706 31049 net.cpp:408] conv1 <- pool0
I0428 20:07:13.169711 31049 net.cpp:382] conv1 -> conv1
I0428 20:07:13.171865 31049 net.cpp:124] Setting up conv1
I0428 20:07:13.171880 31049 net.cpp:131] Top shape: 100 5 8 8 (32000)
I0428 20:07:13.171885 31049 net.cpp:139] Memory required for data: 7642800
I0428 20:07:13.171893 31049 layer_factory.hpp:77] Creating layer pool1
I0428 20:07:13.171914 31049 net.cpp:86] Creating Layer pool1
I0428 20:07:13.171919 31049 net.cpp:408] pool1 <- conv1
I0428 20:07:13.171924 31049 net.cpp:382] pool1 -> pool1
I0428 20:07:13.171963 31049 net.cpp:124] Setting up pool1
I0428 20:07:13.171977 31049 net.cpp:131] Top shape: 100 5 4 4 (8000)
I0428 20:07:13.171980 31049 net.cpp:139] Memory required for data: 7674800
I0428 20:07:13.171983 31049 layer_factory.hpp:77] Creating layer ip1
I0428 20:07:13.171990 31049 net.cpp:86] Creating Layer ip1
I0428 20:07:13.171993 31049 net.cpp:408] ip1 <- pool1
I0428 20:07:13.171998 31049 net.cpp:382] ip1 -> ip1
I0428 20:07:13.172144 31049 net.cpp:124] Setting up ip1
I0428 20:07:13.172152 31049 net.cpp:131] Top shape: 100 50 (5000)
I0428 20:07:13.172165 31049 net.cpp:139] Memory required for data: 7694800
I0428 20:07:13.172173 31049 layer_factory.hpp:77] Creating layer relu1
I0428 20:07:13.172178 31049 net.cpp:86] Creating Layer relu1
I0428 20:07:13.172183 31049 net.cpp:408] relu1 <- ip1
I0428 20:07:13.172188 31049 net.cpp:369] relu1 -> ip1 (in-place)
I0428 20:07:13.172454 31049 net.cpp:124] Setting up relu1
I0428 20:07:13.172464 31049 net.cpp:131] Top shape: 100 50 (5000)
I0428 20:07:13.172468 31049 net.cpp:139] Memory required for data: 7714800
I0428 20:07:13.172472 31049 layer_factory.hpp:77] Creating layer ip2
I0428 20:07:13.172479 31049 net.cpp:86] Creating Layer ip2
I0428 20:07:13.172482 31049 net.cpp:408] ip2 <- ip1
I0428 20:07:13.172488 31049 net.cpp:382] ip2 -> ip2
I0428 20:07:13.172587 31049 net.cpp:124] Setting up ip2
I0428 20:07:13.172595 31049 net.cpp:131] Top shape: 100 25 (2500)
I0428 20:07:13.172598 31049 net.cpp:139] Memory required for data: 7724800
I0428 20:07:13.172605 31049 layer_factory.hpp:77] Creating layer relu2
I0428 20:07:13.172608 31049 net.cpp:86] Creating Layer relu2
I0428 20:07:13.172612 31049 net.cpp:408] relu2 <- ip2
I0428 20:07:13.172616 31049 net.cpp:369] relu2 -> ip2 (in-place)
I0428 20:07:13.172760 31049 net.cpp:124] Setting up relu2
I0428 20:07:13.172770 31049 net.cpp:131] Top shape: 100 25 (2500)
I0428 20:07:13.172780 31049 net.cpp:139] Memory required for data: 7734800
I0428 20:07:13.172782 31049 layer_factory.hpp:77] Creating layer ip3
I0428 20:07:13.172788 31049 net.cpp:86] Creating Layer ip3
I0428 20:07:13.172797 31049 net.cpp:408] ip3 <- ip2
I0428 20:07:13.172802 31049 net.cpp:382] ip3 -> ip3
I0428 20:07:13.172979 31049 net.cpp:124] Setting up ip3
I0428 20:07:13.172991 31049 net.cpp:131] Top shape: 100 10 (1000)
I0428 20:07:13.173001 31049 net.cpp:139] Memory required for data: 7738800
I0428 20:07:13.173010 31049 layer_factory.hpp:77] Creating layer relu3
I0428 20:07:13.173022 31049 net.cpp:86] Creating Layer relu3
I0428 20:07:13.173025 31049 net.cpp:408] relu3 <- ip3
I0428 20:07:13.173034 31049 net.cpp:369] relu3 -> ip3 (in-place)
I0428 20:07:13.173877 31049 net.cpp:124] Setting up relu3
I0428 20:07:13.173889 31049 net.cpp:131] Top shape: 100 10 (1000)
I0428 20:07:13.173893 31049 net.cpp:139] Memory required for data: 7742800
I0428 20:07:13.173897 31049 layer_factory.hpp:77] Creating layer ip3_relu3_0_split
I0428 20:07:13.173902 31049 net.cpp:86] Creating Layer ip3_relu3_0_split
I0428 20:07:13.173905 31049 net.cpp:408] ip3_relu3_0_split <- ip3
I0428 20:07:13.173910 31049 net.cpp:382] ip3_relu3_0_split -> ip3_relu3_0_split_0
I0428 20:07:13.173918 31049 net.cpp:382] ip3_relu3_0_split -> ip3_relu3_0_split_1
I0428 20:07:13.173955 31049 net.cpp:124] Setting up ip3_relu3_0_split
I0428 20:07:13.173961 31049 net.cpp:131] Top shape: 100 10 (1000)
I0428 20:07:13.173964 31049 net.cpp:131] Top shape: 100 10 (1000)
I0428 20:07:13.173967 31049 net.cpp:139] Memory required for data: 7750800
I0428 20:07:13.173970 31049 layer_factory.hpp:77] Creating layer accuracy
I0428 20:07:13.173975 31049 net.cpp:86] Creating Layer accuracy
I0428 20:07:13.173979 31049 net.cpp:408] accuracy <- ip3_relu3_0_split_0
I0428 20:07:13.173982 31049 net.cpp:408] accuracy <- label_mnist_1_split_0
I0428 20:07:13.173987 31049 net.cpp:382] accuracy -> accuracy
…
