…
I0428 19:52:10.067553 27451 net.cpp:296] The NetState phase (0) differed from the phase (1) specified by a rule in layer mnist
I0428 19:52:10.067581 27451 net.cpp:296] The NetState phase (0) differed from the phase (1) specified by a rule in layer accuracy
I0428 19:52:10.067656 27451 net.cpp:53] Initializing net from parameters: 
name: "LeNet"
state {
  phase: TRAIN
  level: 0
  stage: ""
}
layer {
  name: "mnist"
  type: "Data"
  top: "data"
  top: "label"
  include {
    phase: TRAIN
  }
  transform_param {
    scale: 0.00390625
  }
  data_param {
    source: "examples/mnist/mnist_train_lmdb"
    batch_size: 64
    backend: LMDB
  }
}
layer {
  name: "conv0"
  type: "Convolution"
  bottom: "data"
  top: "conv0"
  param {
    lr_mult: 1
  }
  param {
    lr_mult: 2
  }
  convolution_param {
    num_output: 5
    kernel_size: 5
    stride: 1
    weight_filler {
      type: "xavier"
    }
    bias_filler {
      type: "constant"
    }
  }
}
layer {
  name: "pool0"
  type: "Pooling"
  bottom: "conv0"
  top: "pool0"
  pooling_param {
    pool: MAX
    kernel_size: 2
    stride: 2
  }
}
layer {
  name: "conv1"
  type: "Convolution"
  bottom: "pool0"
  top: "conv1"
  param {
    lr_mult: 1
  }
  param {
    lr_mult: 2
  }
  convolution_param {
    num_output: 25
    kernel_size: 5
    stride: 1
    weight_filler {
      type: "xavier"
    }
    bias_filler {
      type: "constant"
    }
  }
}
layer {
  name: "pool1"
  type: "Pooling"
  bottom: "conv1"
  top: "pool1"
  pooling_param {
    pool: MAX
    kernel_size: 2
    stride: 2
  }
}
layer {
  name: "ip1"
  type: "InnerProduct"
  bottom: "pool1"
  top: "ip1"
  param {
    lr_mult: 1
  }
  param {
    lr_mult: 2
  }
  inner_product_param {
    num_output: 50
    weight_filler {
      type: "xavier"
    }
    bias_filler {
      type: "constant"
    }
  }
}
layer {
  name: "relu1"
  type: "ReLU"
  bottom: "ip1"
  top: "ip1"
}
layer {
  name: "ip2"
  type: "InnerProduct"
  bottom: "ip1"
  top: "ip2"
  param {
    lr_mult: 1
  }
  param {
    lr_mult: 2
  }
  inner_product_param {
    num_output: 10
    weight_filler {
      type: "xavier"
    }
    bias_filler {
      type: "constant"
    }
  }
}
layer {
  name: "relu2"
  type: "ReLU"
  bottom: "ip2"
  top: "ip2"
}
layer {
  name: "ip3"
  type: "InnerProduct"
  bottom: "ip2"
  top: "ip3"
  param {
    lr_mult: 1
  }
  param {
    lr_mult: 2
  }
  inner_product_param {
    num_output: 10
    weight_filler {
      type: "xavier"
    }
    bias_filler {
      type: "constant"
    }
  }
}
layer {
  name: "relu3"
  type: "ReLU"
  bottom: "ip3"
  top: "ip3"
}
layer {
  name: "loss"
  type: "SoftmaxWithLoss"
  bottom: "ip3"
  bottom: "label"
  top: "loss"
}
I0428 19:52:10.067714 27451 layer_factory.hpp:77] Creating layer mnist
I0428 19:52:10.067795 27451 db_lmdb.cpp:35] Opened lmdb examples/mnist/mnist_train_lmdb
I0428 19:52:10.067812 27451 net.cpp:86] Creating Layer mnist
I0428 19:52:10.067818 27451 net.cpp:382] mnist -> data
I0428 19:52:10.067852 27451 net.cpp:382] mnist -> label
I0428 19:52:10.068765 27451 data_layer.cpp:45] output data size: 64,1,28,28
I0428 19:52:10.071036 27451 net.cpp:124] Setting up mnist
I0428 19:52:10.071066 27451 net.cpp:131] Top shape: 64 1 28 28 (50176)
I0428 19:52:10.071071 27451 net.cpp:131] Top shape: 64 (64)
I0428 19:52:10.071074 27451 net.cpp:139] Memory required for data: 200960
I0428 19:52:10.071080 27451 layer_factory.hpp:77] Creating layer conv0
I0428 19:52:10.071092 27451 net.cpp:86] Creating Layer conv0
I0428 19:52:10.071110 27451 net.cpp:408] conv0 <- data
I0428 19:52:10.071135 27451 net.cpp:382] conv0 -> conv0
I0428 19:52:10.302397 27451 net.cpp:124] Setting up conv0
I0428 19:52:10.302436 27451 net.cpp:131] Top shape: 64 5 24 24 (184320)
I0428 19:52:10.302440 27451 net.cpp:139] Memory required for data: 938240
I0428 19:52:10.302455 27451 layer_factory.hpp:77] Creating layer pool0
I0428 19:52:10.302469 27451 net.cpp:86] Creating Layer pool0
I0428 19:52:10.302471 27451 net.cpp:408] pool0 <- conv0
I0428 19:52:10.302477 27451 net.cpp:382] pool0 -> pool0
I0428 19:52:10.302538 27451 net.cpp:124] Setting up pool0
I0428 19:52:10.302544 27451 net.cpp:131] Top shape: 64 5 12 12 (46080)
I0428 19:52:10.302547 27451 net.cpp:139] Memory required for data: 1122560
I0428 19:52:10.302551 27451 layer_factory.hpp:77] Creating layer conv1
I0428 19:52:10.302561 27451 net.cpp:86] Creating Layer conv1
I0428 19:52:10.302563 27451 net.cpp:408] conv1 <- pool0
I0428 19:52:10.302568 27451 net.cpp:382] conv1 -> conv1
I0428 19:52:10.305480 27451 net.cpp:124] Setting up conv1
I0428 19:52:10.305495 27451 net.cpp:131] Top shape: 64 25 8 8 (102400)
I0428 19:52:10.305498 27451 net.cpp:139] Memory required for data: 1532160
I0428 19:52:10.305507 27451 layer_factory.hpp:77] Creating layer pool1
I0428 19:52:10.305515 27451 net.cpp:86] Creating Layer pool1
I0428 19:52:10.305517 27451 net.cpp:408] pool1 <- conv1
I0428 19:52:10.305539 27451 net.cpp:382] pool1 -> pool1
I0428 19:52:10.305578 27451 net.cpp:124] Setting up pool1
I0428 19:52:10.305583 27451 net.cpp:131] Top shape: 64 25 4 4 (25600)
I0428 19:52:10.305586 27451 net.cpp:139] Memory required for data: 1634560
I0428 19:52:10.305589 27451 layer_factory.hpp:77] Creating layer ip1
I0428 19:52:10.305598 27451 net.cpp:86] Creating Layer ip1
I0428 19:52:10.305600 27451 net.cpp:408] ip1 <- pool1
I0428 19:52:10.305608 27451 net.cpp:382] ip1 -> ip1
I0428 19:52:10.305824 27451 net.cpp:124] Setting up ip1
I0428 19:52:10.305846 27451 net.cpp:131] Top shape: 64 50 (3200)
I0428 19:52:10.305850 27451 net.cpp:139] Memory required for data: 1647360
I0428 19:52:10.305856 27451 layer_factory.hpp:77] Creating layer relu1
I0428 19:52:10.305862 27451 net.cpp:86] Creating Layer relu1
I0428 19:52:10.305866 27451 net.cpp:408] relu1 <- ip1
I0428 19:52:10.305869 27451 net.cpp:369] relu1 -> ip1 (in-place)
I0428 19:52:10.306041 27451 net.cpp:124] Setting up relu1
I0428 19:52:10.306051 27451 net.cpp:131] Top shape: 64 50 (3200)
I0428 19:52:10.306053 27451 net.cpp:139] Memory required for data: 1660160
I0428 19:52:10.306056 27451 layer_factory.hpp:77] Creating layer ip2
I0428 19:52:10.306063 27451 net.cpp:86] Creating Layer ip2
I0428 19:52:10.306066 27451 net.cpp:408] ip2 <- ip1
I0428 19:52:10.306087 27451 net.cpp:382] ip2 -> ip2
I0428 19:52:10.306191 27451 net.cpp:124] Setting up ip2
I0428 19:52:10.306198 27451 net.cpp:131] Top shape: 64 10 (640)
I0428 19:52:10.306201 27451 net.cpp:139] Memory required for data: 1662720
I0428 19:52:10.306206 27451 layer_factory.hpp:77] Creating layer relu2
I0428 19:52:10.306212 27451 net.cpp:86] Creating Layer relu2
I0428 19:52:10.306216 27451 net.cpp:408] relu2 <- ip2
I0428 19:52:10.306219 27451 net.cpp:369] relu2 -> ip2 (in-place)
I0428 19:52:10.307029 27451 net.cpp:124] Setting up relu2
I0428 19:52:10.307041 27451 net.cpp:131] Top shape: 64 10 (640)
I0428 19:52:10.307044 27451 net.cpp:139] Memory required for data: 1665280
I0428 19:52:10.307049 27451 layer_factory.hpp:77] Creating layer ip3
I0428 19:52:10.307054 27451 net.cpp:86] Creating Layer ip3
I0428 19:52:10.307057 27451 net.cpp:408] ip3 <- ip2
I0428 19:52:10.307063 27451 net.cpp:382] ip3 -> ip3
I0428 19:52:10.307181 27451 net.cpp:124] Setting up ip3
I0428 19:52:10.307189 27451 net.cpp:131] Top shape: 64 10 (640)
I0428 19:52:10.307193 27451 net.cpp:139] Memory required for data: 1667840
I0428 19:52:10.307199 27451 layer_factory.hpp:77] Creating layer relu3
I0428 19:52:10.307205 27451 net.cpp:86] Creating Layer relu3
I0428 19:52:10.307209 27451 net.cpp:408] relu3 <- ip3
I0428 19:52:10.307212 27451 net.cpp:369] relu3 -> ip3 (in-place)
I0428 19:52:10.307412 27451 net.cpp:124] Setting up relu3
I0428 19:52:10.307422 27451 net.cpp:131] Top shape: 64 10 (640)
I0428 19:52:10.307425 27451 net.cpp:139] Memory required for data: 1670400
I0428 19:52:10.307428 27451 layer_factory.hpp:77] Creating layer loss
I0428 19:52:10.307436 27451 net.cpp:86] Creating Layer loss
I0428 19:52:10.307440 27451 net.cpp:408] loss <- ip3
I0428 19:52:10.307443 27451 net.cpp:408] loss <- label
I0428 19:52:10.307448 27451 net.cpp:382] loss -> loss
I0428 19:52:10.307466 27451 layer_factory.hpp:77] Creating layer loss
…
I0428 19:52:10.308181 27451 solver.cpp:173] Creating test net (#0) specified by net file: ECE595/mnist/train_test/var_everything2/lenet_train_test654.prototxt
I0428 19:52:10.308209 27451 net.cpp:296] The NetState phase (1) differed from the phase (0) specified by a rule in layer mnist
I0428 19:52:10.308353 27451 net.cpp:53] Initializing net from parameters: 
name: "LeNet"
state {
  phase: TEST
}
layer {
  name: "mnist"
  type: "Data"
  top: "data"
  top: "label"
  include {
    phase: TEST
  }
  transform_param {
    scale: 0.00390625
  }
  data_param {
    source: "examples/mnist/mnist_test_lmdb"
    batch_size: 100
    backend: LMDB
  }
}
layer {
  name: "conv0"
  type: "Convolution"
  bottom: "data"
  top: "conv0"
  param {
    lr_mult: 1
  }
  param {
    lr_mult: 2
  }
  convolution_param {
    num_output: 5
    kernel_size: 5
    stride: 1
    weight_filler {
      type: "xavier"
    }
    bias_filler {
      type: "constant"
    }
  }
}
layer {
  name: "pool0"
  type: "Pooling"
  bottom: "conv0"
  top: "pool0"
  pooling_param {
    pool: MAX
    kernel_size: 2
    stride: 2
  }
}
layer {
  name: "conv1"
  type: "Convolution"
  bottom: "pool0"
  top: "conv1"
  param {
    lr_mult: 1
  }
  param {
    lr_mult: 2
  }
  convolution_param {
    num_output: 25
    kernel_size: 5
    stride: 1
    weight_filler {
      type: "xavier"
    }
    bias_filler {
      type: "constant"
    }
  }
}
layer {
  name: "pool1"
  type: "Pooling"
  bottom: "conv1"
  top: "pool1"
  pooling_param {
    pool: MAX
    kernel_size: 2
    stride: 2
  }
}
layer {
  name: "ip1"
  type: "InnerProduct"
  bottom: "pool1"
  top: "ip1"
  param {
    lr_mult: 1
  }
  param {
    lr_mult: 2
  }
  inner_product_param {
    num_output: 50
    weight_filler {
      type: "xavier"
    }
    bias_filler {
      type: "constant"
    }
  }
}
layer {
  name: "relu1"
  type: "ReLU"
  bottom: "ip1"
  top: "ip1"
}
layer {
  name: "ip2"
  type: "InnerProduct"
  bottom: "ip1"
  top: "ip2"
  param {
    lr_mult: 1
  }
  param {
    lr_mult: 2
  }
  inner_product_param {
    num_output: 10
    weight_filler {
      type: "xavier"
    }
    bias_filler {
      type: "constant"
    }
  }
}
layer {
  name: "relu2"
  type: "ReLU"
  bottom: "ip2"
  top: "ip2"
}
layer {
  name: "ip3"
  type: "InnerProduct"
  bottom: "ip2"
  top: "ip3"
  param {
    lr_mult: 1
  }
  param {
    lr_mult: 2
  }
  inner_product_param {
    num_output: 10
    weight_filler {
      type: "xavier"
    }
    bias_filler {
      type: "constant"
    }
  }
}
layer {
  name: "relu3"
  type: "ReLU"
  bottom: "ip3"
  top: "ip3"
}
layer {
  name: "accuracy"
  type: "Accuracy"
  bottom: "ip3"
  bottom: "label"
  top: "accuracy"
  include {
    phase: TEST
  }
}
layer {
  name: "loss"
  type: "SoftmaxWithLoss"
  bottom: "ip3"
  bottom: "label"
  top: "loss"
}
I0428 19:52:10.308437 27451 layer_factory.hpp:77] Creating layer mnist
I0428 19:52:10.308483 27451 db_lmdb.cpp:35] Opened lmdb examples/mnist/mnist_test_lmdb
I0428 19:52:10.308495 27451 net.cpp:86] Creating Layer mnist
I0428 19:52:10.308500 27451 net.cpp:382] mnist -> data
I0428 19:52:10.308508 27451 net.cpp:382] mnist -> label
I0428 19:52:10.308626 27451 data_layer.cpp:45] output data size: 100,1,28,28
I0428 19:52:10.310701 27451 net.cpp:124] Setting up mnist
I0428 19:52:10.310716 27451 net.cpp:131] Top shape: 100 1 28 28 (78400)
I0428 19:52:10.310721 27451 net.cpp:131] Top shape: 100 (100)
I0428 19:52:10.310724 27451 net.cpp:139] Memory required for data: 314000
I0428 19:52:10.310729 27451 layer_factory.hpp:77] Creating layer label_mnist_1_split
I0428 19:52:10.310735 27451 net.cpp:86] Creating Layer label_mnist_1_split
I0428 19:52:10.310739 27451 net.cpp:408] label_mnist_1_split <- label
I0428 19:52:10.310744 27451 net.cpp:382] label_mnist_1_split -> label_mnist_1_split_0
I0428 19:52:10.310752 27451 net.cpp:382] label_mnist_1_split -> label_mnist_1_split_1
I0428 19:52:10.310817 27451 net.cpp:124] Setting up label_mnist_1_split
I0428 19:52:10.310837 27451 net.cpp:131] Top shape: 100 (100)
I0428 19:52:10.310842 27451 net.cpp:131] Top shape: 100 (100)
I0428 19:52:10.310844 27451 net.cpp:139] Memory required for data: 314800
I0428 19:52:10.310847 27451 layer_factory.hpp:77] Creating layer conv0
I0428 19:52:10.310856 27451 net.cpp:86] Creating Layer conv0
I0428 19:52:10.310860 27451 net.cpp:408] conv0 <- data
I0428 19:52:10.310865 27451 net.cpp:382] conv0 -> conv0
I0428 19:52:10.312705 27451 net.cpp:124] Setting up conv0
I0428 19:52:10.312719 27451 net.cpp:131] Top shape: 100 5 24 24 (288000)
I0428 19:52:10.312723 27451 net.cpp:139] Memory required for data: 1466800
I0428 19:52:10.312736 27451 layer_factory.hpp:77] Creating layer pool0
I0428 19:52:10.312742 27451 net.cpp:86] Creating Layer pool0
I0428 19:52:10.312746 27451 net.cpp:408] pool0 <- conv0
I0428 19:52:10.312752 27451 net.cpp:382] pool0 -> pool0
I0428 19:52:10.312789 27451 net.cpp:124] Setting up pool0
I0428 19:52:10.312795 27451 net.cpp:131] Top shape: 100 5 12 12 (72000)
I0428 19:52:10.312798 27451 net.cpp:139] Memory required for data: 1754800
I0428 19:52:10.312800 27451 layer_factory.hpp:77] Creating layer conv1
I0428 19:52:10.312815 27451 net.cpp:86] Creating Layer conv1
I0428 19:52:10.312830 27451 net.cpp:408] conv1 <- pool0
I0428 19:52:10.312837 27451 net.cpp:382] conv1 -> conv1
I0428 19:52:10.315199 27451 net.cpp:124] Setting up conv1
I0428 19:52:10.315213 27451 net.cpp:131] Top shape: 100 25 8 8 (160000)
I0428 19:52:10.315217 27451 net.cpp:139] Memory required for data: 2394800
I0428 19:52:10.315227 27451 layer_factory.hpp:77] Creating layer pool1
I0428 19:52:10.315248 27451 net.cpp:86] Creating Layer pool1
I0428 19:52:10.315253 27451 net.cpp:408] pool1 <- conv1
I0428 19:52:10.315258 27451 net.cpp:382] pool1 -> pool1
I0428 19:52:10.315297 27451 net.cpp:124] Setting up pool1
I0428 19:52:10.315302 27451 net.cpp:131] Top shape: 100 25 4 4 (40000)
I0428 19:52:10.315304 27451 net.cpp:139] Memory required for data: 2554800
I0428 19:52:10.315315 27451 layer_factory.hpp:77] Creating layer ip1
I0428 19:52:10.315321 27451 net.cpp:86] Creating Layer ip1
I0428 19:52:10.315325 27451 net.cpp:408] ip1 <- pool1
I0428 19:52:10.315330 27451 net.cpp:382] ip1 -> ip1
I0428 19:52:10.315587 27451 net.cpp:124] Setting up ip1
I0428 19:52:10.315594 27451 net.cpp:131] Top shape: 100 50 (5000)
I0428 19:52:10.315608 27451 net.cpp:139] Memory required for data: 2574800
I0428 19:52:10.315614 27451 layer_factory.hpp:77] Creating layer relu1
I0428 19:52:10.315620 27451 net.cpp:86] Creating Layer relu1
I0428 19:52:10.315629 27451 net.cpp:408] relu1 <- ip1
I0428 19:52:10.315635 27451 net.cpp:369] relu1 -> ip1 (in-place)
I0428 19:52:10.315809 27451 net.cpp:124] Setting up relu1
I0428 19:52:10.315819 27451 net.cpp:131] Top shape: 100 50 (5000)
I0428 19:52:10.315821 27451 net.cpp:139] Memory required for data: 2594800
I0428 19:52:10.315825 27451 layer_factory.hpp:77] Creating layer ip2
I0428 19:52:10.315834 27451 net.cpp:86] Creating Layer ip2
I0428 19:52:10.315836 27451 net.cpp:408] ip2 <- ip1
I0428 19:52:10.315841 27451 net.cpp:382] ip2 -> ip2
I0428 19:52:10.315970 27451 net.cpp:124] Setting up ip2
I0428 19:52:10.315978 27451 net.cpp:131] Top shape: 100 10 (1000)
I0428 19:52:10.315979 27451 net.cpp:139] Memory required for data: 2598800
I0428 19:52:10.315985 27451 layer_factory.hpp:77] Creating layer relu2
I0428 19:52:10.315990 27451 net.cpp:86] Creating Layer relu2
I0428 19:52:10.316000 27451 net.cpp:408] relu2 <- ip2
I0428 19:52:10.316007 27451 net.cpp:369] relu2 -> ip2 (in-place)
I0428 19:52:10.316179 27451 net.cpp:124] Setting up relu2
I0428 19:52:10.316187 27451 net.cpp:131] Top shape: 100 10 (1000)
I0428 19:52:10.316190 27451 net.cpp:139] Memory required for data: 2602800
I0428 19:52:10.316193 27451 layer_factory.hpp:77] Creating layer ip3
I0428 19:52:10.316200 27451 net.cpp:86] Creating Layer ip3
I0428 19:52:10.316224 27451 net.cpp:408] ip3 <- ip2
I0428 19:52:10.316229 27451 net.cpp:382] ip3 -> ip3
I0428 19:52:10.316345 27451 net.cpp:124] Setting up ip3
I0428 19:52:10.316354 27451 net.cpp:131] Top shape: 100 10 (1000)
I0428 19:52:10.316356 27451 net.cpp:139] Memory required for data: 2606800
I0428 19:52:10.316366 27451 layer_factory.hpp:77] Creating layer relu3
I0428 19:52:10.316370 27451 net.cpp:86] Creating Layer relu3
I0428 19:52:10.316373 27451 net.cpp:408] relu3 <- ip3
I0428 19:52:10.316377 27451 net.cpp:369] relu3 -> ip3 (in-place)
I0428 19:52:10.317186 27451 net.cpp:124] Setting up relu3
I0428 19:52:10.317198 27451 net.cpp:131] Top shape: 100 10 (1000)
I0428 19:52:10.317203 27451 net.cpp:139] Memory required for data: 2610800
I0428 19:52:10.317205 27451 layer_factory.hpp:77] Creating layer ip3_relu3_0_split
I0428 19:52:10.317211 27451 net.cpp:86] Creating Layer ip3_relu3_0_split
I0428 19:52:10.317215 27451 net.cpp:408] ip3_relu3_0_split <- ip3
I0428 19:52:10.317220 27451 net.cpp:382] ip3_relu3_0_split -> ip3_relu3_0_split_0
I0428 19:52:10.317226 27451 net.cpp:382] ip3_relu3_0_split -> ip3_relu3_0_split_1
I0428 19:52:10.317270 27451 net.cpp:124] Setting up ip3_relu3_0_split
I0428 19:52:10.317275 27451 net.cpp:131] Top shape: 100 10 (1000)
I0428 19:52:10.317278 27451 net.cpp:131] Top shape: 100 10 (1000)
I0428 19:52:10.317281 27451 net.cpp:139] Memory required for data: 2618800
I0428 19:52:10.317292 27451 layer_factory.hpp:77] Creating layer accuracy
I0428 19:52:10.317298 27451 net.cpp:86] Creating Layer accuracy
I0428 19:52:10.317302 27451 net.cpp:408] accuracy <- ip3_relu3_0_split_0
I0428 19:52:10.317306 27451 net.cpp:408] accuracy <- label_mnist_1_split_0
I0428 19:52:10.317311 27451 net.cpp:382] accuracy -> accuracy
…
