…
I0428 20:12:02.870097 32184 net.cpp:296] The NetState phase (0) differed from the phase (1) specified by a rule in layer mnist
I0428 20:12:02.870113 32184 net.cpp:296] The NetState phase (0) differed from the phase (1) specified by a rule in layer accuracy
I0428 20:12:02.870193 32184 net.cpp:53] Initializing net from parameters: 
name: "LeNet"
state {
  phase: TRAIN
  level: 0
  stage: ""
}
layer {
  name: "mnist"
  type: "Data"
  top: "data"
  top: "label"
  include {
    phase: TRAIN
  }
  transform_param {
    scale: 0.00390625
  }
  data_param {
    source: "examples/mnist/mnist_train_lmdb"
    batch_size: 64
    backend: LMDB
  }
}
layer {
  name: "conv0"
  type: "Convolution"
  bottom: "data"
  top: "conv0"
  param {
    lr_mult: 1
  }
  param {
    lr_mult: 2
  }
  convolution_param {
    num_output: 25
    kernel_size: 5
    stride: 1
    weight_filler {
      type: "xavier"
    }
    bias_filler {
      type: "constant"
    }
  }
}
layer {
  name: "pool0"
  type: "Pooling"
  bottom: "conv0"
  top: "pool0"
  pooling_param {
    pool: MAX
    kernel_size: 2
    stride: 2
  }
}
layer {
  name: "conv1"
  type: "Convolution"
  bottom: "pool0"
  top: "conv1"
  param {
    lr_mult: 1
  }
  param {
    lr_mult: 2
  }
  convolution_param {
    num_output: 100
    kernel_size: 5
    stride: 1
    weight_filler {
      type: "xavier"
    }
    bias_filler {
      type: "constant"
    }
  }
}
layer {
  name: "pool1"
  type: "Pooling"
  bottom: "conv1"
  top: "pool1"
  pooling_param {
    pool: MAX
    kernel_size: 2
    stride: 2
  }
}
layer {
  name: "ip1"
  type: "InnerProduct"
  bottom: "pool1"
  top: "ip1"
  param {
    lr_mult: 1
  }
  param {
    lr_mult: 2
  }
  inner_product_param {
    num_output: 10
    weight_filler {
      type: "xavier"
    }
    bias_filler {
      type: "constant"
    }
  }
}
layer {
  name: "relu1"
  type: "ReLU"
  bottom: "ip1"
  top: "ip1"
}
layer {
  name: "loss"
  type: "SoftmaxWithLoss"
  bottom: "ip1"
  bottom: "label"
  top: "loss"
}
I0428 20:12:02.870255 32184 layer_factory.hpp:77] Creating layer mnist
I0428 20:12:02.870362 32184 db_lmdb.cpp:35] Opened lmdb examples/mnist/mnist_train_lmdb
I0428 20:12:02.870386 32184 net.cpp:86] Creating Layer mnist
I0428 20:12:02.870393 32184 net.cpp:382] mnist -> data
I0428 20:12:02.870416 32184 net.cpp:382] mnist -> label
I0428 20:12:02.871515 32184 data_layer.cpp:45] output data size: 64,1,28,28
I0428 20:12:02.874213 32184 net.cpp:124] Setting up mnist
I0428 20:12:02.874231 32184 net.cpp:131] Top shape: 64 1 28 28 (50176)
I0428 20:12:02.874239 32184 net.cpp:131] Top shape: 64 (64)
I0428 20:12:02.874243 32184 net.cpp:139] Memory required for data: 200960
I0428 20:12:02.874251 32184 layer_factory.hpp:77] Creating layer conv0
I0428 20:12:02.874269 32184 net.cpp:86] Creating Layer conv0
I0428 20:12:02.874274 32184 net.cpp:408] conv0 <- data
I0428 20:12:02.874285 32184 net.cpp:382] conv0 -> conv0
I0428 20:12:03.158536 32184 net.cpp:124] Setting up conv0
I0428 20:12:03.158562 32184 net.cpp:131] Top shape: 64 25 24 24 (921600)
I0428 20:12:03.158566 32184 net.cpp:139] Memory required for data: 3887360
I0428 20:12:03.158581 32184 layer_factory.hpp:77] Creating layer pool0
I0428 20:12:03.158594 32184 net.cpp:86] Creating Layer pool0
I0428 20:12:03.158598 32184 net.cpp:408] pool0 <- conv0
I0428 20:12:03.158603 32184 net.cpp:382] pool0 -> pool0
I0428 20:12:03.158648 32184 net.cpp:124] Setting up pool0
I0428 20:12:03.158653 32184 net.cpp:131] Top shape: 64 25 12 12 (230400)
I0428 20:12:03.158673 32184 net.cpp:139] Memory required for data: 4808960
I0428 20:12:03.158676 32184 layer_factory.hpp:77] Creating layer conv1
I0428 20:12:03.158687 32184 net.cpp:86] Creating Layer conv1
I0428 20:12:03.158690 32184 net.cpp:408] conv1 <- pool0
I0428 20:12:03.158695 32184 net.cpp:382] conv1 -> conv1
I0428 20:12:03.160851 32184 net.cpp:124] Setting up conv1
I0428 20:12:03.160866 32184 net.cpp:131] Top shape: 64 100 8 8 (409600)
I0428 20:12:03.160869 32184 net.cpp:139] Memory required for data: 6447360
I0428 20:12:03.160878 32184 layer_factory.hpp:77] Creating layer pool1
I0428 20:12:03.160887 32184 net.cpp:86] Creating Layer pool1
I0428 20:12:03.160904 32184 net.cpp:408] pool1 <- conv1
I0428 20:12:03.160910 32184 net.cpp:382] pool1 -> pool1
I0428 20:12:03.160953 32184 net.cpp:124] Setting up pool1
I0428 20:12:03.160961 32184 net.cpp:131] Top shape: 64 100 4 4 (102400)
I0428 20:12:03.160964 32184 net.cpp:139] Memory required for data: 6856960
I0428 20:12:03.160967 32184 layer_factory.hpp:77] Creating layer ip1
I0428 20:12:03.160974 32184 net.cpp:86] Creating Layer ip1
I0428 20:12:03.160977 32184 net.cpp:408] ip1 <- pool1
I0428 20:12:03.160981 32184 net.cpp:382] ip1 -> ip1
I0428 20:12:03.162005 32184 net.cpp:124] Setting up ip1
I0428 20:12:03.162019 32184 net.cpp:131] Top shape: 64 10 (640)
I0428 20:12:03.162037 32184 net.cpp:139] Memory required for data: 6859520
I0428 20:12:03.162046 32184 layer_factory.hpp:77] Creating layer relu1
I0428 20:12:03.162052 32184 net.cpp:86] Creating Layer relu1
I0428 20:12:03.162058 32184 net.cpp:408] relu1 <- ip1
I0428 20:12:03.162063 32184 net.cpp:369] relu1 -> ip1 (in-place)
I0428 20:12:03.162252 32184 net.cpp:124] Setting up relu1
I0428 20:12:03.162261 32184 net.cpp:131] Top shape: 64 10 (640)
I0428 20:12:03.162266 32184 net.cpp:139] Memory required for data: 6862080
I0428 20:12:03.162268 32184 layer_factory.hpp:77] Creating layer loss
I0428 20:12:03.162274 32184 net.cpp:86] Creating Layer loss
I0428 20:12:03.162277 32184 net.cpp:408] loss <- ip1
I0428 20:12:03.162281 32184 net.cpp:408] loss <- label
I0428 20:12:03.162286 32184 net.cpp:382] loss -> loss
I0428 20:12:03.162307 32184 layer_factory.hpp:77] Creating layer loss
…
I0428 20:12:03.163426 32184 solver.cpp:173] Creating test net (#0) specified by net file: ECE595/mnist/train_test/var_everything2/lenet_train_test1172.prototxt
I0428 20:12:03.163450 32184 net.cpp:296] The NetState phase (1) differed from the phase (0) specified by a rule in layer mnist
I0428 20:12:03.163522 32184 net.cpp:53] Initializing net from parameters: 
name: "LeNet"
state {
  phase: TEST
}
layer {
  name: "mnist"
  type: "Data"
  top: "data"
  top: "label"
  include {
    phase: TEST
  }
  transform_param {
    scale: 0.00390625
  }
  data_param {
    source: "examples/mnist/mnist_test_lmdb"
    batch_size: 100
    backend: LMDB
  }
}
layer {
  name: "conv0"
  type: "Convolution"
  bottom: "data"
  top: "conv0"
  param {
    lr_mult: 1
  }
  param {
    lr_mult: 2
  }
  convolution_param {
    num_output: 25
    kernel_size: 5
    stride: 1
    weight_filler {
      type: "xavier"
    }
    bias_filler {
      type: "constant"
    }
  }
}
layer {
  name: "pool0"
  type: "Pooling"
  bottom: "conv0"
  top: "pool0"
  pooling_param {
    pool: MAX
    kernel_size: 2
    stride: 2
  }
}
layer {
  name: "conv1"
  type: "Convolution"
  bottom: "pool0"
  top: "conv1"
  param {
    lr_mult: 1
  }
  param {
    lr_mult: 2
  }
  convolution_param {
    num_output: 100
    kernel_size: 5
    stride: 1
    weight_filler {
      type: "xavier"
    }
    bias_filler {
      type: "constant"
    }
  }
}
layer {
  name: "pool1"
  type: "Pooling"
  bottom: "conv1"
  top: "pool1"
  pooling_param {
    pool: MAX
    kernel_size: 2
    stride: 2
  }
}
layer {
  name: "ip1"
  type: "InnerProduct"
  bottom: "pool1"
  top: "ip1"
  param {
    lr_mult: 1
  }
  param {
    lr_mult: 2
  }
  inner_product_param {
    num_output: 10
    weight_filler {
      type: "xavier"
    }
    bias_filler {
      type: "constant"
    }
  }
}
layer {
  name: "relu1"
  type: "ReLU"
  bottom: "ip1"
  top: "ip1"
}
layer {
  name: "accuracy"
  type: "Accuracy"
  bottom: "ip1"
  bottom: "label"
  top: "accuracy"
  include {
    phase: TEST
  }
}
layer {
  name: "loss"
  type: "SoftmaxWithLoss"
  bottom: "ip1"
  bottom: "label"
  top: "loss"
}
I0428 20:12:03.163589 32184 layer_factory.hpp:77] Creating layer mnist
I0428 20:12:03.163637 32184 db_lmdb.cpp:35] Opened lmdb examples/mnist/mnist_test_lmdb
I0428 20:12:03.163650 32184 net.cpp:86] Creating Layer mnist
I0428 20:12:03.163655 32184 net.cpp:382] mnist -> data
I0428 20:12:03.163661 32184 net.cpp:382] mnist -> label
I0428 20:12:03.163743 32184 data_layer.cpp:45] output data size: 100,1,28,28
I0428 20:12:03.165658 32184 net.cpp:124] Setting up mnist
I0428 20:12:03.165671 32184 net.cpp:131] Top shape: 100 1 28 28 (78400)
I0428 20:12:03.165676 32184 net.cpp:131] Top shape: 100 (100)
I0428 20:12:03.165679 32184 net.cpp:139] Memory required for data: 314000
I0428 20:12:03.165683 32184 layer_factory.hpp:77] Creating layer label_mnist_1_split
I0428 20:12:03.165690 32184 net.cpp:86] Creating Layer label_mnist_1_split
I0428 20:12:03.165693 32184 net.cpp:408] label_mnist_1_split <- label
I0428 20:12:03.165699 32184 net.cpp:382] label_mnist_1_split -> label_mnist_1_split_0
I0428 20:12:03.165704 32184 net.cpp:382] label_mnist_1_split -> label_mnist_1_split_1
I0428 20:12:03.165747 32184 net.cpp:124] Setting up label_mnist_1_split
I0428 20:12:03.165755 32184 net.cpp:131] Top shape: 100 (100)
I0428 20:12:03.165760 32184 net.cpp:131] Top shape: 100 (100)
I0428 20:12:03.165762 32184 net.cpp:139] Memory required for data: 314800
I0428 20:12:03.165766 32184 layer_factory.hpp:77] Creating layer conv0
I0428 20:12:03.165773 32184 net.cpp:86] Creating Layer conv0
I0428 20:12:03.165776 32184 net.cpp:408] conv0 <- data
I0428 20:12:03.165781 32184 net.cpp:382] conv0 -> conv0
I0428 20:12:03.166606 32184 net.cpp:124] Setting up conv0
I0428 20:12:03.166620 32184 net.cpp:131] Top shape: 100 25 24 24 (1440000)
I0428 20:12:03.166623 32184 net.cpp:139] Memory required for data: 6074800
I0428 20:12:03.166632 32184 layer_factory.hpp:77] Creating layer pool0
I0428 20:12:03.166638 32184 net.cpp:86] Creating Layer pool0
I0428 20:12:03.166641 32184 net.cpp:408] pool0 <- conv0
I0428 20:12:03.166646 32184 net.cpp:382] pool0 -> pool0
I0428 20:12:03.166682 32184 net.cpp:124] Setting up pool0
I0428 20:12:03.166688 32184 net.cpp:131] Top shape: 100 25 12 12 (360000)
I0428 20:12:03.166692 32184 net.cpp:139] Memory required for data: 7514800
I0428 20:12:03.166694 32184 layer_factory.hpp:77] Creating layer conv1
I0428 20:12:03.166703 32184 net.cpp:86] Creating Layer conv1
I0428 20:12:03.166707 32184 net.cpp:408] conv1 <- pool0
I0428 20:12:03.166712 32184 net.cpp:382] conv1 -> conv1
I0428 20:12:03.168577 32184 net.cpp:124] Setting up conv1
I0428 20:12:03.168591 32184 net.cpp:131] Top shape: 100 100 8 8 (640000)
I0428 20:12:03.168601 32184 net.cpp:139] Memory required for data: 10074800
I0428 20:12:03.168617 32184 layer_factory.hpp:77] Creating layer pool1
I0428 20:12:03.168622 32184 net.cpp:86] Creating Layer pool1
I0428 20:12:03.168637 32184 net.cpp:408] pool1 <- conv1
I0428 20:12:03.168642 32184 net.cpp:382] pool1 -> pool1
I0428 20:12:03.168679 32184 net.cpp:124] Setting up pool1
I0428 20:12:03.168686 32184 net.cpp:131] Top shape: 100 100 4 4 (160000)
I0428 20:12:03.168689 32184 net.cpp:139] Memory required for data: 10714800
I0428 20:12:03.168692 32184 layer_factory.hpp:77] Creating layer ip1
I0428 20:12:03.168699 32184 net.cpp:86] Creating Layer ip1
I0428 20:12:03.168701 32184 net.cpp:408] ip1 <- pool1
I0428 20:12:03.168712 32184 net.cpp:382] ip1 -> ip1
I0428 20:12:03.169008 32184 net.cpp:124] Setting up ip1
I0428 20:12:03.169018 32184 net.cpp:131] Top shape: 100 10 (1000)
I0428 20:12:03.169021 32184 net.cpp:139] Memory required for data: 10718800
I0428 20:12:03.169029 32184 layer_factory.hpp:77] Creating layer relu1
I0428 20:12:03.169034 32184 net.cpp:86] Creating Layer relu1
I0428 20:12:03.169044 32184 net.cpp:408] relu1 <- ip1
I0428 20:12:03.169049 32184 net.cpp:369] relu1 -> ip1 (in-place)
I0428 20:12:03.169961 32184 net.cpp:124] Setting up relu1
I0428 20:12:03.169973 32184 net.cpp:131] Top shape: 100 10 (1000)
I0428 20:12:03.169977 32184 net.cpp:139] Memory required for data: 10722800
I0428 20:12:03.169981 32184 layer_factory.hpp:77] Creating layer ip1_relu1_0_split
I0428 20:12:03.169988 32184 net.cpp:86] Creating Layer ip1_relu1_0_split
I0428 20:12:03.169991 32184 net.cpp:408] ip1_relu1_0_split <- ip1
I0428 20:12:03.169997 32184 net.cpp:382] ip1_relu1_0_split -> ip1_relu1_0_split_0
I0428 20:12:03.170004 32184 net.cpp:382] ip1_relu1_0_split -> ip1_relu1_0_split_1
I0428 20:12:03.170047 32184 net.cpp:124] Setting up ip1_relu1_0_split
I0428 20:12:03.170053 32184 net.cpp:131] Top shape: 100 10 (1000)
I0428 20:12:03.170056 32184 net.cpp:131] Top shape: 100 10 (1000)
I0428 20:12:03.170059 32184 net.cpp:139] Memory required for data: 10730800
I0428 20:12:03.170066 32184 layer_factory.hpp:77] Creating layer accuracy
I0428 20:12:03.170076 32184 net.cpp:86] Creating Layer accuracy
I0428 20:12:03.170080 32184 net.cpp:408] accuracy <- ip1_relu1_0_split_0
I0428 20:12:03.170084 32184 net.cpp:408] accuracy <- label_mnist_1_split_0
I0428 20:12:03.170089 32184 net.cpp:382] accuracy -> accuracy
…
