…
I0428 19:47:02.275362 26103 net.cpp:296] The NetState phase (0) differed from the phase (1) specified by a rule in layer mnist
I0428 19:47:02.275388 26103 net.cpp:296] The NetState phase (0) differed from the phase (1) specified by a rule in layer accuracy
I0428 19:47:02.275526 26103 net.cpp:53] Initializing net from parameters: 
name: "LeNet"
state {
  phase: TRAIN
  level: 0
  stage: ""
}
layer {
  name: "mnist"
  type: "Data"
  top: "data"
  top: "label"
  include {
    phase: TRAIN
  }
  transform_param {
    scale: 0.00390625
  }
  data_param {
    source: "examples/mnist/mnist_train_lmdb"
    batch_size: 64
    backend: LMDB
  }
}
layer {
  name: "conv0"
  type: "Convolution"
  bottom: "data"
  top: "conv0"
  param {
    lr_mult: 1
  }
  param {
    lr_mult: 2
  }
  convolution_param {
    num_output: 2
    kernel_size: 5
    stride: 1
    weight_filler {
      type: "xavier"
    }
    bias_filler {
      type: "constant"
    }
  }
}
layer {
  name: "pool0"
  type: "Pooling"
  bottom: "conv0"
  top: "pool0"
  pooling_param {
    pool: MAX
    kernel_size: 2
    stride: 2
  }
}
layer {
  name: "conv1"
  type: "Convolution"
  bottom: "pool0"
  top: "conv1"
  param {
    lr_mult: 1
  }
  param {
    lr_mult: 2
  }
  convolution_param {
    num_output: 100
    kernel_size: 5
    stride: 1
    weight_filler {
      type: "xavier"
    }
    bias_filler {
      type: "constant"
    }
  }
}
layer {
  name: "pool1"
  type: "Pooling"
  bottom: "conv1"
  top: "pool1"
  pooling_param {
    pool: MAX
    kernel_size: 2
    stride: 2
  }
}
layer {
  name: "ip1"
  type: "InnerProduct"
  bottom: "pool1"
  top: "ip1"
  param {
    lr_mult: 1
  }
  param {
    lr_mult: 2
  }
  inner_product_param {
    num_output: 50
    weight_filler {
      type: "xavier"
    }
    bias_filler {
      type: "constant"
    }
  }
}
layer {
  name: "relu1"
  type: "ReLU"
  bottom: "ip1"
  top: "ip1"
}
layer {
  name: "ip2"
  type: "InnerProduct"
  bottom: "ip1"
  top: "ip2"
  param {
    lr_mult: 1
  }
  param {
    lr_mult: 2
  }
  inner_product_param {
    num_output: 50
    weight_filler {
      type: "xavier"
    }
    bias_filler {
      type: "constant"
    }
  }
}
layer {
  name: "relu2"
  type: "ReLU"
  bottom: "ip2"
  top: "ip2"
}
layer {
  name: "ip3"
  type: "InnerProduct"
  bottom: "ip2"
  top: "ip3"
  param {
    lr_mult: 1
  }
  param {
    lr_mult: 2
  }
  inner_product_param {
    num_output: 10
    weight_filler {
      type: "xavier"
    }
    bias_filler {
      type: "constant"
    }
  }
}
layer {
  name: "relu3"
  type: "ReLU"
  bottom: "ip3"
  top: "ip3"
}
layer {
  name: "loss"
  type: "SoftmaxWithLoss"
  bottom: "ip3"
  bottom: "label"
  top: "loss"
}
I0428 19:47:02.275625 26103 layer_factory.hpp:77] Creating layer mnist
I0428 19:47:02.275750 26103 db_lmdb.cpp:35] Opened lmdb examples/mnist/mnist_train_lmdb
I0428 19:47:02.275780 26103 net.cpp:86] Creating Layer mnist
I0428 19:47:02.275791 26103 net.cpp:382] mnist -> data
I0428 19:47:02.275820 26103 net.cpp:382] mnist -> label
I0428 19:47:02.277225 26103 data_layer.cpp:45] output data size: 64,1,28,28
I0428 19:47:02.280400 26103 net.cpp:124] Setting up mnist
I0428 19:47:02.280421 26103 net.cpp:131] Top shape: 64 1 28 28 (50176)
I0428 19:47:02.280431 26103 net.cpp:131] Top shape: 64 (64)
I0428 19:47:02.280436 26103 net.cpp:139] Memory required for data: 200960
I0428 19:47:02.280447 26103 layer_factory.hpp:77] Creating layer conv0
I0428 19:47:02.280467 26103 net.cpp:86] Creating Layer conv0
I0428 19:47:02.280494 26103 net.cpp:408] conv0 <- data
I0428 19:47:02.280510 26103 net.cpp:382] conv0 -> conv0
I0428 19:47:02.589736 26103 net.cpp:124] Setting up conv0
I0428 19:47:02.589767 26103 net.cpp:131] Top shape: 64 2 24 24 (73728)
I0428 19:47:02.589773 26103 net.cpp:139] Memory required for data: 495872
I0428 19:47:02.589808 26103 layer_factory.hpp:77] Creating layer pool0
I0428 19:47:02.589825 26103 net.cpp:86] Creating Layer pool0
I0428 19:47:02.589830 26103 net.cpp:408] pool0 <- conv0
I0428 19:47:02.589838 26103 net.cpp:382] pool0 -> pool0
I0428 19:47:02.589897 26103 net.cpp:124] Setting up pool0
I0428 19:47:02.589907 26103 net.cpp:131] Top shape: 64 2 12 12 (18432)
I0428 19:47:02.589911 26103 net.cpp:139] Memory required for data: 569600
I0428 19:47:02.589916 26103 layer_factory.hpp:77] Creating layer conv1
I0428 19:47:02.589929 26103 net.cpp:86] Creating Layer conv1
I0428 19:47:02.589934 26103 net.cpp:408] conv1 <- pool0
I0428 19:47:02.589941 26103 net.cpp:382] conv1 -> conv1
I0428 19:47:02.593722 26103 net.cpp:124] Setting up conv1
I0428 19:47:02.593739 26103 net.cpp:131] Top shape: 64 100 8 8 (409600)
I0428 19:47:02.593744 26103 net.cpp:139] Memory required for data: 2208000
I0428 19:47:02.593770 26103 layer_factory.hpp:77] Creating layer pool1
I0428 19:47:02.593780 26103 net.cpp:86] Creating Layer pool1
I0428 19:47:02.593786 26103 net.cpp:408] pool1 <- conv1
I0428 19:47:02.593792 26103 net.cpp:382] pool1 -> pool1
I0428 19:47:02.593834 26103 net.cpp:124] Setting up pool1
I0428 19:47:02.593843 26103 net.cpp:131] Top shape: 64 100 4 4 (102400)
I0428 19:47:02.593848 26103 net.cpp:139] Memory required for data: 2617600
I0428 19:47:02.593852 26103 layer_factory.hpp:77] Creating layer ip1
I0428 19:47:02.593868 26103 net.cpp:86] Creating Layer ip1
I0428 19:47:02.593871 26103 net.cpp:408] ip1 <- pool1
I0428 19:47:02.593878 26103 net.cpp:382] ip1 -> ip1
I0428 19:47:02.595885 26103 net.cpp:124] Setting up ip1
I0428 19:47:02.595901 26103 net.cpp:131] Top shape: 64 50 (3200)
I0428 19:47:02.595906 26103 net.cpp:139] Memory required for data: 2630400
I0428 19:47:02.595918 26103 layer_factory.hpp:77] Creating layer relu1
I0428 19:47:02.595927 26103 net.cpp:86] Creating Layer relu1
I0428 19:47:02.595932 26103 net.cpp:408] relu1 <- ip1
I0428 19:47:02.595939 26103 net.cpp:369] relu1 -> ip1 (in-place)
I0428 19:47:02.596174 26103 net.cpp:124] Setting up relu1
I0428 19:47:02.596185 26103 net.cpp:131] Top shape: 64 50 (3200)
I0428 19:47:02.596190 26103 net.cpp:139] Memory required for data: 2643200
I0428 19:47:02.596195 26103 layer_factory.hpp:77] Creating layer ip2
I0428 19:47:02.596205 26103 net.cpp:86] Creating Layer ip2
I0428 19:47:02.596210 26103 net.cpp:408] ip2 <- ip1
I0428 19:47:02.596217 26103 net.cpp:382] ip2 -> ip2
I0428 19:47:02.597609 26103 net.cpp:124] Setting up ip2
I0428 19:47:02.597635 26103 net.cpp:131] Top shape: 64 50 (3200)
I0428 19:47:02.597640 26103 net.cpp:139] Memory required for data: 2656000
I0428 19:47:02.597650 26103 layer_factory.hpp:77] Creating layer relu2
I0428 19:47:02.597658 26103 net.cpp:86] Creating Layer relu2
I0428 19:47:02.597663 26103 net.cpp:408] relu2 <- ip2
I0428 19:47:02.597671 26103 net.cpp:369] relu2 -> ip2 (in-place)
I0428 19:47:02.598707 26103 net.cpp:124] Setting up relu2
I0428 19:47:02.598723 26103 net.cpp:131] Top shape: 64 50 (3200)
I0428 19:47:02.598728 26103 net.cpp:139] Memory required for data: 2668800
I0428 19:47:02.598733 26103 layer_factory.hpp:77] Creating layer ip3
I0428 19:47:02.598743 26103 net.cpp:86] Creating Layer ip3
I0428 19:47:02.598748 26103 net.cpp:408] ip3 <- ip2
I0428 19:47:02.598757 26103 net.cpp:382] ip3 -> ip3
I0428 19:47:02.598906 26103 net.cpp:124] Setting up ip3
I0428 19:47:02.598917 26103 net.cpp:131] Top shape: 64 10 (640)
I0428 19:47:02.598922 26103 net.cpp:139] Memory required for data: 2671360
I0428 19:47:02.598933 26103 layer_factory.hpp:77] Creating layer relu3
I0428 19:47:02.598940 26103 net.cpp:86] Creating Layer relu3
I0428 19:47:02.598945 26103 net.cpp:408] relu3 <- ip3
I0428 19:47:02.598953 26103 net.cpp:369] relu3 -> ip3 (in-place)
I0428 19:47:02.599196 26103 net.cpp:124] Setting up relu3
I0428 19:47:02.599207 26103 net.cpp:131] Top shape: 64 10 (640)
I0428 19:47:02.599212 26103 net.cpp:139] Memory required for data: 2673920
I0428 19:47:02.599217 26103 layer_factory.hpp:77] Creating layer loss
I0428 19:47:02.599225 26103 net.cpp:86] Creating Layer loss
I0428 19:47:02.599230 26103 net.cpp:408] loss <- ip3
I0428 19:47:02.599236 26103 net.cpp:408] loss <- label
I0428 19:47:02.599242 26103 net.cpp:382] loss -> loss
I0428 19:47:02.599263 26103 layer_factory.hpp:77] Creating layer loss
…
I0428 19:47:02.600162 26103 solver.cpp:173] Creating test net (#0) specified by net file: ECE595/mnist/train_test/var_everything2/lenet_train_test504.prototxt
I0428 19:47:02.600199 26103 net.cpp:296] The NetState phase (1) differed from the phase (0) specified by a rule in layer mnist
I0428 19:47:02.600353 26103 net.cpp:53] Initializing net from parameters: 
name: "LeNet"
state {
  phase: TEST
}
layer {
  name: "mnist"
  type: "Data"
  top: "data"
  top: "label"
  include {
    phase: TEST
  }
  transform_param {
    scale: 0.00390625
  }
  data_param {
    source: "examples/mnist/mnist_test_lmdb"
    batch_size: 100
    backend: LMDB
  }
}
layer {
  name: "conv0"
  type: "Convolution"
  bottom: "data"
  top: "conv0"
  param {
    lr_mult: 1
  }
  param {
    lr_mult: 2
  }
  convolution_param {
    num_output: 2
    kernel_size: 5
    stride: 1
    weight_filler {
      type: "xavier"
    }
    bias_filler {
      type: "constant"
    }
  }
}
layer {
  name: "pool0"
  type: "Pooling"
  bottom: "conv0"
  top: "pool0"
  pooling_param {
    pool: MAX
    kernel_size: 2
    stride: 2
  }
}
layer {
  name: "conv1"
  type: "Convolution"
  bottom: "pool0"
  top: "conv1"
  param {
    lr_mult: 1
  }
  param {
    lr_mult: 2
  }
  convolution_param {
    num_output: 100
    kernel_size: 5
    stride: 1
    weight_filler {
      type: "xavier"
    }
    bias_filler {
      type: "constant"
    }
  }
}
layer {
  name: "pool1"
  type: "Pooling"
  bottom: "conv1"
  top: "pool1"
  pooling_param {
    pool: MAX
    kernel_size: 2
    stride: 2
  }
}
layer {
  name: "ip1"
  type: "InnerProduct"
  bottom: "pool1"
  top: "ip1"
  param {
    lr_mult: 1
  }
  param {
    lr_mult: 2
  }
  inner_product_param {
    num_output: 50
    weight_filler {
      type: "xavier"
    }
    bias_filler {
      type: "constant"
    }
  }
}
layer {
  name: "relu1"
  type: "ReLU"
  bottom: "ip1"
  top: "ip1"
}
layer {
  name: "ip2"
  type: "InnerProduct"
  bottom: "ip1"
  top: "ip2"
  param {
    lr_mult: 1
  }
  param {
    lr_mult: 2
  }
  inner_product_param {
    num_output: 50
    weight_filler {
      type: "xavier"
    }
    bias_filler {
      type: "constant"
    }
  }
}
layer {
  name: "relu2"
  type: "ReLU"
  bottom: "ip2"
  top: "ip2"
}
layer {
  name: "ip3"
  type: "InnerProduct"
  bottom: "ip2"
  top: "ip3"
  param {
    lr_mult: 1
  }
  param {
    lr_mult: 2
  }
  inner_product_param {
    num_output: 10
    weight_filler {
      type: "xavier"
    }
    bias_filler {
      type: "constant"
    }
  }
}
layer {
  name: "relu3"
  type: "ReLU"
  bottom: "ip3"
  top: "ip3"
}
layer {
  name: "accuracy"
  type: "Accuracy"
  bottom: "ip3"
  bottom: "label"
  top: "accuracy"
  include {
    phase: TEST
  }
}
layer {
  name: "loss"
  type: "SoftmaxWithLoss"
  bottom: "ip3"
  bottom: "label"
  top: "loss"
}
I0428 19:47:02.600455 26103 layer_factory.hpp:77] Creating layer mnist
I0428 19:47:02.600522 26103 db_lmdb.cpp:35] Opened lmdb examples/mnist/mnist_test_lmdb
I0428 19:47:02.600538 26103 net.cpp:86] Creating Layer mnist
I0428 19:47:02.600544 26103 net.cpp:382] mnist -> data
I0428 19:47:02.600569 26103 net.cpp:382] mnist -> label
I0428 19:47:02.600708 26103 data_layer.cpp:45] output data size: 100,1,28,28
I0428 19:47:02.602421 26103 net.cpp:124] Setting up mnist
I0428 19:47:02.602437 26103 net.cpp:131] Top shape: 100 1 28 28 (78400)
I0428 19:47:02.602444 26103 net.cpp:131] Top shape: 100 (100)
I0428 19:47:02.602449 26103 net.cpp:139] Memory required for data: 314000
I0428 19:47:02.602454 26103 layer_factory.hpp:77] Creating layer label_mnist_1_split
I0428 19:47:02.602468 26103 net.cpp:86] Creating Layer label_mnist_1_split
I0428 19:47:02.602474 26103 net.cpp:408] label_mnist_1_split <- label
I0428 19:47:02.602497 26103 net.cpp:382] label_mnist_1_split -> label_mnist_1_split_0
I0428 19:47:02.602506 26103 net.cpp:382] label_mnist_1_split -> label_mnist_1_split_1
I0428 19:47:02.602596 26103 net.cpp:124] Setting up label_mnist_1_split
I0428 19:47:02.602607 26103 net.cpp:131] Top shape: 100 (100)
I0428 19:47:02.602612 26103 net.cpp:131] Top shape: 100 (100)
I0428 19:47:02.602617 26103 net.cpp:139] Memory required for data: 314800
I0428 19:47:02.602622 26103 layer_factory.hpp:77] Creating layer conv0
I0428 19:47:02.602634 26103 net.cpp:86] Creating Layer conv0
I0428 19:47:02.602640 26103 net.cpp:408] conv0 <- data
I0428 19:47:02.602648 26103 net.cpp:382] conv0 -> conv0
I0428 19:47:02.604655 26103 net.cpp:124] Setting up conv0
I0428 19:47:02.604686 26103 net.cpp:131] Top shape: 100 2 24 24 (115200)
I0428 19:47:02.604691 26103 net.cpp:139] Memory required for data: 775600
I0428 19:47:02.604704 26103 layer_factory.hpp:77] Creating layer pool0
I0428 19:47:02.604713 26103 net.cpp:86] Creating Layer pool0
I0428 19:47:02.604718 26103 net.cpp:408] pool0 <- conv0
I0428 19:47:02.604724 26103 net.cpp:382] pool0 -> pool0
I0428 19:47:02.604775 26103 net.cpp:124] Setting up pool0
I0428 19:47:02.604785 26103 net.cpp:131] Top shape: 100 2 12 12 (28800)
I0428 19:47:02.604790 26103 net.cpp:139] Memory required for data: 890800
I0428 19:47:02.604794 26103 layer_factory.hpp:77] Creating layer conv1
I0428 19:47:02.604807 26103 net.cpp:86] Creating Layer conv1
I0428 19:47:02.604818 26103 net.cpp:408] conv1 <- pool0
I0428 19:47:02.604859 26103 net.cpp:382] conv1 -> conv1
I0428 19:47:02.607095 26103 net.cpp:124] Setting up conv1
I0428 19:47:02.607110 26103 net.cpp:131] Top shape: 100 100 8 8 (640000)
I0428 19:47:02.607134 26103 net.cpp:139] Memory required for data: 3450800
I0428 19:47:02.607146 26103 layer_factory.hpp:77] Creating layer pool1
I0428 19:47:02.607156 26103 net.cpp:86] Creating Layer pool1
I0428 19:47:02.607177 26103 net.cpp:408] pool1 <- conv1
I0428 19:47:02.607184 26103 net.cpp:382] pool1 -> pool1
I0428 19:47:02.607234 26103 net.cpp:124] Setting up pool1
I0428 19:47:02.607255 26103 net.cpp:131] Top shape: 100 100 4 4 (160000)
I0428 19:47:02.607260 26103 net.cpp:139] Memory required for data: 4090800
I0428 19:47:02.607265 26103 layer_factory.hpp:77] Creating layer ip1
I0428 19:47:02.607273 26103 net.cpp:86] Creating Layer ip1
I0428 19:47:02.607278 26103 net.cpp:408] ip1 <- pool1
I0428 19:47:02.607286 26103 net.cpp:382] ip1 -> ip1
I0428 19:47:02.608140 26103 net.cpp:124] Setting up ip1
I0428 19:47:02.608170 26103 net.cpp:131] Top shape: 100 50 (5000)
I0428 19:47:02.608201 26103 net.cpp:139] Memory required for data: 4110800
I0428 19:47:02.608212 26103 layer_factory.hpp:77] Creating layer relu1
I0428 19:47:02.608234 26103 net.cpp:86] Creating Layer relu1
I0428 19:47:02.608239 26103 net.cpp:408] relu1 <- ip1
I0428 19:47:02.608249 26103 net.cpp:369] relu1 -> ip1 (in-place)
I0428 19:47:02.608481 26103 net.cpp:124] Setting up relu1
I0428 19:47:02.608494 26103 net.cpp:131] Top shape: 100 50 (5000)
I0428 19:47:02.608500 26103 net.cpp:139] Memory required for data: 4130800
I0428 19:47:02.608505 26103 layer_factory.hpp:77] Creating layer ip2
I0428 19:47:02.608516 26103 net.cpp:86] Creating Layer ip2
I0428 19:47:02.608521 26103 net.cpp:408] ip2 <- ip1
I0428 19:47:02.608530 26103 net.cpp:382] ip2 -> ip2
I0428 19:47:02.608716 26103 net.cpp:124] Setting up ip2
I0428 19:47:02.608726 26103 net.cpp:131] Top shape: 100 50 (5000)
I0428 19:47:02.608731 26103 net.cpp:139] Memory required for data: 4150800
I0428 19:47:02.608738 26103 layer_factory.hpp:77] Creating layer relu2
I0428 19:47:02.608744 26103 net.cpp:86] Creating Layer relu2
I0428 19:47:02.608750 26103 net.cpp:408] relu2 <- ip2
I0428 19:47:02.608757 26103 net.cpp:369] relu2 -> ip2 (in-place)
I0428 19:47:02.609128 26103 net.cpp:124] Setting up relu2
I0428 19:47:02.609158 26103 net.cpp:131] Top shape: 100 50 (5000)
I0428 19:47:02.609163 26103 net.cpp:139] Memory required for data: 4170800
I0428 19:47:02.609169 26103 layer_factory.hpp:77] Creating layer ip3
I0428 19:47:02.609192 26103 net.cpp:86] Creating Layer ip3
I0428 19:47:02.609199 26103 net.cpp:408] ip3 <- ip2
I0428 19:47:02.609206 26103 net.cpp:382] ip3 -> ip3
I0428 19:47:02.609364 26103 net.cpp:124] Setting up ip3
I0428 19:47:02.609375 26103 net.cpp:131] Top shape: 100 10 (1000)
I0428 19:47:02.609380 26103 net.cpp:139] Memory required for data: 4174800
I0428 19:47:02.609395 26103 layer_factory.hpp:77] Creating layer relu3
I0428 19:47:02.609410 26103 net.cpp:86] Creating Layer relu3
I0428 19:47:02.609414 26103 net.cpp:408] relu3 <- ip3
I0428 19:47:02.609421 26103 net.cpp:369] relu3 -> ip3 (in-place)
I0428 19:47:02.610700 26103 net.cpp:124] Setting up relu3
I0428 19:47:02.610729 26103 net.cpp:131] Top shape: 100 10 (1000)
I0428 19:47:02.610734 26103 net.cpp:139] Memory required for data: 4178800
I0428 19:47:02.610739 26103 layer_factory.hpp:77] Creating layer ip3_relu3_0_split
I0428 19:47:02.610747 26103 net.cpp:86] Creating Layer ip3_relu3_0_split
I0428 19:47:02.610752 26103 net.cpp:408] ip3_relu3_0_split <- ip3
I0428 19:47:02.610759 26103 net.cpp:382] ip3_relu3_0_split -> ip3_relu3_0_split_0
I0428 19:47:02.610769 26103 net.cpp:382] ip3_relu3_0_split -> ip3_relu3_0_split_1
I0428 19:47:02.610816 26103 net.cpp:124] Setting up ip3_relu3_0_split
I0428 19:47:02.610832 26103 net.cpp:131] Top shape: 100 10 (1000)
I0428 19:47:02.610838 26103 net.cpp:131] Top shape: 100 10 (1000)
I0428 19:47:02.610843 26103 net.cpp:139] Memory required for data: 4186800
I0428 19:47:02.610847 26103 layer_factory.hpp:77] Creating layer accuracy
I0428 19:47:02.610857 26103 net.cpp:86] Creating Layer accuracy
I0428 19:47:02.610860 26103 net.cpp:408] accuracy <- ip3_relu3_0_split_0
I0428 19:47:02.610867 26103 net.cpp:408] accuracy <- label_mnist_1_split_0
I0428 19:47:02.610873 26103 net.cpp:382] accuracy -> accuracy
…
