…
I0428 20:08:17.990787 31348 net.cpp:296] The NetState phase (0) differed from the phase (1) specified by a rule in layer mnist
I0428 20:08:17.990828 31348 net.cpp:296] The NetState phase (0) differed from the phase (1) specified by a rule in layer accuracy
I0428 20:08:17.990912 31348 net.cpp:53] Initializing net from parameters: 
name: "LeNet"
state {
  phase: TRAIN
  level: 0
  stage: ""
}
layer {
  name: "mnist"
  type: "Data"
  top: "data"
  top: "label"
  include {
    phase: TRAIN
  }
  transform_param {
    scale: 0.00390625
  }
  data_param {
    source: "examples/mnist/mnist_train_lmdb"
    batch_size: 64
    backend: LMDB
  }
}
layer {
  name: "conv0"
  type: "Convolution"
  bottom: "data"
  top: "conv0"
  param {
    lr_mult: 1
  }
  param {
    lr_mult: 2
  }
  convolution_param {
    num_output: 25
    kernel_size: 5
    stride: 1
    weight_filler {
      type: "xavier"
    }
    bias_filler {
      type: "constant"
    }
  }
}
layer {
  name: "pool0"
  type: "Pooling"
  bottom: "conv0"
  top: "pool0"
  pooling_param {
    pool: MAX
    kernel_size: 2
    stride: 2
  }
}
layer {
  name: "conv1"
  type: "Convolution"
  bottom: "pool0"
  top: "conv1"
  param {
    lr_mult: 1
  }
  param {
    lr_mult: 2
  }
  convolution_param {
    num_output: 10
    kernel_size: 5
    stride: 1
    weight_filler {
      type: "xavier"
    }
    bias_filler {
      type: "constant"
    }
  }
}
layer {
  name: "pool1"
  type: "Pooling"
  bottom: "conv1"
  top: "pool1"
  pooling_param {
    pool: MAX
    kernel_size: 2
    stride: 2
  }
}
layer {
  name: "ip1"
  type: "InnerProduct"
  bottom: "pool1"
  top: "ip1"
  param {
    lr_mult: 1
  }
  param {
    lr_mult: 2
  }
  inner_product_param {
    num_output: 25
    weight_filler {
      type: "xavier"
    }
    bias_filler {
      type: "constant"
    }
  }
}
layer {
  name: "relu1"
  type: "ReLU"
  bottom: "ip1"
  top: "ip1"
}
layer {
  name: "ip2"
  type: "InnerProduct"
  bottom: "ip1"
  top: "ip2"
  param {
    lr_mult: 1
  }
  param {
    lr_mult: 2
  }
  inner_product_param {
    num_output: 25
    weight_filler {
      type: "xavier"
    }
    bias_filler {
      type: "constant"
    }
  }
}
layer {
  name: "relu2"
  type: "ReLU"
  bottom: "ip2"
  top: "ip2"
}
layer {
  name: "ip3"
  type: "InnerProduct"
  bottom: "ip2"
  top: "ip3"
  param {
    lr_mult: 1
  }
  param {
    lr_mult: 2
  }
  inner_product_param {
    num_output: 10
    weight_filler {
      type: "xavier"
    }
    bias_filler {
      type: "constant"
    }
  }
}
layer {
  name: "relu3"
  type: "ReLU"
  bottom: "ip3"
  top: "ip3"
}
layer {
  name: "loss"
  type: "SoftmaxWithLoss"
  bottom: "ip3"
  bottom: "label"
  top: "loss"
}
I0428 20:08:17.990978 31348 layer_factory.hpp:77] Creating layer mnist
I0428 20:08:17.991063 31348 db_lmdb.cpp:35] Opened lmdb examples/mnist/mnist_train_lmdb
I0428 20:08:17.991086 31348 net.cpp:86] Creating Layer mnist
I0428 20:08:17.991108 31348 net.cpp:382] mnist -> data
I0428 20:08:17.991128 31348 net.cpp:382] mnist -> label
I0428 20:08:17.992041 31348 data_layer.cpp:45] output data size: 64,1,28,28
I0428 20:08:17.994333 31348 net.cpp:124] Setting up mnist
I0428 20:08:17.994348 31348 net.cpp:131] Top shape: 64 1 28 28 (50176)
I0428 20:08:17.994352 31348 net.cpp:131] Top shape: 64 (64)
I0428 20:08:17.994355 31348 net.cpp:139] Memory required for data: 200960
I0428 20:08:17.994361 31348 layer_factory.hpp:77] Creating layer conv0
I0428 20:08:17.994375 31348 net.cpp:86] Creating Layer conv0
I0428 20:08:17.994393 31348 net.cpp:408] conv0 <- data
I0428 20:08:17.994421 31348 net.cpp:382] conv0 -> conv0
I0428 20:08:18.222285 31348 net.cpp:124] Setting up conv0
I0428 20:08:18.222311 31348 net.cpp:131] Top shape: 64 25 24 24 (921600)
I0428 20:08:18.222316 31348 net.cpp:139] Memory required for data: 3887360
I0428 20:08:18.222329 31348 layer_factory.hpp:77] Creating layer pool0
I0428 20:08:18.222340 31348 net.cpp:86] Creating Layer pool0
I0428 20:08:18.222344 31348 net.cpp:408] pool0 <- conv0
I0428 20:08:18.222349 31348 net.cpp:382] pool0 -> pool0
I0428 20:08:18.222406 31348 net.cpp:124] Setting up pool0
I0428 20:08:18.222414 31348 net.cpp:131] Top shape: 64 25 12 12 (230400)
I0428 20:08:18.222416 31348 net.cpp:139] Memory required for data: 4808960
I0428 20:08:18.222419 31348 layer_factory.hpp:77] Creating layer conv1
I0428 20:08:18.222429 31348 net.cpp:86] Creating Layer conv1
I0428 20:08:18.222435 31348 net.cpp:408] conv1 <- pool0
I0428 20:08:18.222455 31348 net.cpp:382] conv1 -> conv1
I0428 20:08:18.225304 31348 net.cpp:124] Setting up conv1
I0428 20:08:18.225318 31348 net.cpp:131] Top shape: 64 10 8 8 (40960)
I0428 20:08:18.225322 31348 net.cpp:139] Memory required for data: 4972800
I0428 20:08:18.225330 31348 layer_factory.hpp:77] Creating layer pool1
I0428 20:08:18.225337 31348 net.cpp:86] Creating Layer pool1
I0428 20:08:18.225340 31348 net.cpp:408] pool1 <- conv1
I0428 20:08:18.225344 31348 net.cpp:382] pool1 -> pool1
I0428 20:08:18.225394 31348 net.cpp:124] Setting up pool1
I0428 20:08:18.225401 31348 net.cpp:131] Top shape: 64 10 4 4 (10240)
I0428 20:08:18.225404 31348 net.cpp:139] Memory required for data: 5013760
I0428 20:08:18.225407 31348 layer_factory.hpp:77] Creating layer ip1
I0428 20:08:18.225414 31348 net.cpp:86] Creating Layer ip1
I0428 20:08:18.225417 31348 net.cpp:408] ip1 <- pool1
I0428 20:08:18.225421 31348 net.cpp:382] ip1 -> ip1
I0428 20:08:18.226336 31348 net.cpp:124] Setting up ip1
I0428 20:08:18.226346 31348 net.cpp:131] Top shape: 64 25 (1600)
I0428 20:08:18.226366 31348 net.cpp:139] Memory required for data: 5020160
I0428 20:08:18.226374 31348 layer_factory.hpp:77] Creating layer relu1
I0428 20:08:18.226395 31348 net.cpp:86] Creating Layer relu1
I0428 20:08:18.226399 31348 net.cpp:408] relu1 <- ip1
I0428 20:08:18.226403 31348 net.cpp:369] relu1 -> ip1 (in-place)
I0428 20:08:18.226590 31348 net.cpp:124] Setting up relu1
I0428 20:08:18.226599 31348 net.cpp:131] Top shape: 64 25 (1600)
I0428 20:08:18.226603 31348 net.cpp:139] Memory required for data: 5026560
I0428 20:08:18.226608 31348 layer_factory.hpp:77] Creating layer ip2
I0428 20:08:18.226613 31348 net.cpp:86] Creating Layer ip2
I0428 20:08:18.226618 31348 net.cpp:408] ip2 <- ip1
I0428 20:08:18.226622 31348 net.cpp:382] ip2 -> ip2
I0428 20:08:18.226735 31348 net.cpp:124] Setting up ip2
I0428 20:08:18.226742 31348 net.cpp:131] Top shape: 64 25 (1600)
I0428 20:08:18.226763 31348 net.cpp:139] Memory required for data: 5032960
I0428 20:08:18.226768 31348 layer_factory.hpp:77] Creating layer relu2
I0428 20:08:18.226774 31348 net.cpp:86] Creating Layer relu2
I0428 20:08:18.226778 31348 net.cpp:408] relu2 <- ip2
I0428 20:08:18.226781 31348 net.cpp:369] relu2 -> ip2 (in-place)
I0428 20:08:18.227566 31348 net.cpp:124] Setting up relu2
I0428 20:08:18.227578 31348 net.cpp:131] Top shape: 64 25 (1600)
I0428 20:08:18.227582 31348 net.cpp:139] Memory required for data: 5039360
I0428 20:08:18.227586 31348 layer_factory.hpp:77] Creating layer ip3
I0428 20:08:18.227593 31348 net.cpp:86] Creating Layer ip3
I0428 20:08:18.227596 31348 net.cpp:408] ip3 <- ip2
I0428 20:08:18.227602 31348 net.cpp:382] ip3 -> ip3
I0428 20:08:18.227711 31348 net.cpp:124] Setting up ip3
I0428 20:08:18.227720 31348 net.cpp:131] Top shape: 64 10 (640)
I0428 20:08:18.227722 31348 net.cpp:139] Memory required for data: 5041920
I0428 20:08:18.227730 31348 layer_factory.hpp:77] Creating layer relu3
I0428 20:08:18.227737 31348 net.cpp:86] Creating Layer relu3
I0428 20:08:18.227741 31348 net.cpp:408] relu3 <- ip3
I0428 20:08:18.227744 31348 net.cpp:369] relu3 -> ip3 (in-place)
I0428 20:08:18.227908 31348 net.cpp:124] Setting up relu3
I0428 20:08:18.227917 31348 net.cpp:131] Top shape: 64 10 (640)
I0428 20:08:18.227921 31348 net.cpp:139] Memory required for data: 5044480
I0428 20:08:18.227923 31348 layer_factory.hpp:77] Creating layer loss
I0428 20:08:18.227929 31348 net.cpp:86] Creating Layer loss
I0428 20:08:18.227932 31348 net.cpp:408] loss <- ip3
I0428 20:08:18.227936 31348 net.cpp:408] loss <- label
I0428 20:08:18.227941 31348 net.cpp:382] loss -> loss
I0428 20:08:18.227973 31348 layer_factory.hpp:77] Creating layer loss
…
I0428 20:08:18.228597 31348 solver.cpp:173] Creating test net (#0) specified by net file: ECE595/mnist/train_test/var_everything2/lenet_train_test1079.prototxt
I0428 20:08:18.228639 31348 net.cpp:296] The NetState phase (1) differed from the phase (0) specified by a rule in layer mnist
I0428 20:08:18.228729 31348 net.cpp:53] Initializing net from parameters: 
name: "LeNet"
state {
  phase: TEST
}
layer {
  name: "mnist"
  type: "Data"
  top: "data"
  top: "label"
  include {
    phase: TEST
  }
  transform_param {
    scale: 0.00390625
  }
  data_param {
    source: "examples/mnist/mnist_test_lmdb"
    batch_size: 100
    backend: LMDB
  }
}
layer {
  name: "conv0"
  type: "Convolution"
  bottom: "data"
  top: "conv0"
  param {
    lr_mult: 1
  }
  param {
    lr_mult: 2
  }
  convolution_param {
    num_output: 25
    kernel_size: 5
    stride: 1
    weight_filler {
      type: "xavier"
    }
    bias_filler {
      type: "constant"
    }
  }
}
layer {
  name: "pool0"
  type: "Pooling"
  bottom: "conv0"
  top: "pool0"
  pooling_param {
    pool: MAX
    kernel_size: 2
    stride: 2
  }
}
layer {
  name: "conv1"
  type: "Convolution"
  bottom: "pool0"
  top: "conv1"
  param {
    lr_mult: 1
  }
  param {
    lr_mult: 2
  }
  convolution_param {
    num_output: 10
    kernel_size: 5
    stride: 1
    weight_filler {
      type: "xavier"
    }
    bias_filler {
      type: "constant"
    }
  }
}
layer {
  name: "pool1"
  type: "Pooling"
  bottom: "conv1"
  top: "pool1"
  pooling_param {
    pool: MAX
    kernel_size: 2
    stride: 2
  }
}
layer {
  name: "ip1"
  type: "InnerProduct"
  bottom: "pool1"
  top: "ip1"
  param {
    lr_mult: 1
  }
  param {
    lr_mult: 2
  }
  inner_product_param {
    num_output: 25
    weight_filler {
      type: "xavier"
    }
    bias_filler {
      type: "constant"
    }
  }
}
layer {
  name: "relu1"
  type: "ReLU"
  bottom: "ip1"
  top: "ip1"
}
layer {
  name: "ip2"
  type: "InnerProduct"
  bottom: "ip1"
  top: "ip2"
  param {
    lr_mult: 1
  }
  param {
    lr_mult: 2
  }
  inner_product_param {
    num_output: 25
    weight_filler {
      type: "xavier"
    }
    bias_filler {
      type: "constant"
    }
  }
}
layer {
  name: "relu2"
  type: "ReLU"
  bottom: "ip2"
  top: "ip2"
}
layer {
  name: "ip3"
  type: "InnerProduct"
  bottom: "ip2"
  top: "ip3"
  param {
    lr_mult: 1
  }
  param {
    lr_mult: 2
  }
  inner_product_param {
    num_output: 10
    weight_filler {
      type: "xavier"
    }
    bias_filler {
      type: "constant"
    }
  }
}
layer {
  name: "relu3"
  type: "ReLU"
  bottom: "ip3"
  top: "ip3"
}
layer {
  name: "accuracy"
  type: "Accuracy"
  bottom: "ip3"
  bottom: "label"
  top: "accuracy"
  include {
    phase: TEST
  }
}
layer {
  name: "loss"
  type: "SoftmaxWithLoss"
  bottom: "ip3"
  bottom: "label"
  top: "loss"
}
I0428 20:08:18.228808 31348 layer_factory.hpp:77] Creating layer mnist
I0428 20:08:18.228893 31348 db_lmdb.cpp:35] Opened lmdb examples/mnist/mnist_test_lmdb
I0428 20:08:18.228906 31348 net.cpp:86] Creating Layer mnist
I0428 20:08:18.228926 31348 net.cpp:382] mnist -> data
I0428 20:08:18.228935 31348 net.cpp:382] mnist -> label
I0428 20:08:18.229027 31348 data_layer.cpp:45] output data size: 100,1,28,28
I0428 20:08:18.231009 31348 net.cpp:124] Setting up mnist
I0428 20:08:18.231053 31348 net.cpp:131] Top shape: 100 1 28 28 (78400)
I0428 20:08:18.231058 31348 net.cpp:131] Top shape: 100 (100)
I0428 20:08:18.231061 31348 net.cpp:139] Memory required for data: 314000
I0428 20:08:18.231065 31348 layer_factory.hpp:77] Creating layer label_mnist_1_split
I0428 20:08:18.231092 31348 net.cpp:86] Creating Layer label_mnist_1_split
I0428 20:08:18.231096 31348 net.cpp:408] label_mnist_1_split <- label
I0428 20:08:18.231101 31348 net.cpp:382] label_mnist_1_split -> label_mnist_1_split_0
I0428 20:08:18.231108 31348 net.cpp:382] label_mnist_1_split -> label_mnist_1_split_1
I0428 20:08:18.231168 31348 net.cpp:124] Setting up label_mnist_1_split
I0428 20:08:18.231174 31348 net.cpp:131] Top shape: 100 (100)
I0428 20:08:18.231178 31348 net.cpp:131] Top shape: 100 (100)
I0428 20:08:18.231181 31348 net.cpp:139] Memory required for data: 314800
I0428 20:08:18.231184 31348 layer_factory.hpp:77] Creating layer conv0
I0428 20:08:18.231194 31348 net.cpp:86] Creating Layer conv0
I0428 20:08:18.231196 31348 net.cpp:408] conv0 <- data
I0428 20:08:18.231201 31348 net.cpp:382] conv0 -> conv0
I0428 20:08:18.233222 31348 net.cpp:124] Setting up conv0
I0428 20:08:18.233250 31348 net.cpp:131] Top shape: 100 25 24 24 (1440000)
I0428 20:08:18.233254 31348 net.cpp:139] Memory required for data: 6074800
I0428 20:08:18.233274 31348 layer_factory.hpp:77] Creating layer pool0
I0428 20:08:18.233280 31348 net.cpp:86] Creating Layer pool0
I0428 20:08:18.233284 31348 net.cpp:408] pool0 <- conv0
I0428 20:08:18.233289 31348 net.cpp:382] pool0 -> pool0
I0428 20:08:18.233340 31348 net.cpp:124] Setting up pool0
I0428 20:08:18.233346 31348 net.cpp:131] Top shape: 100 25 12 12 (360000)
I0428 20:08:18.233350 31348 net.cpp:139] Memory required for data: 7514800
I0428 20:08:18.233352 31348 layer_factory.hpp:77] Creating layer conv1
I0428 20:08:18.233361 31348 net.cpp:86] Creating Layer conv1
I0428 20:08:18.233363 31348 net.cpp:408] conv1 <- pool0
I0428 20:08:18.233368 31348 net.cpp:382] conv1 -> conv1
I0428 20:08:18.235543 31348 net.cpp:124] Setting up conv1
I0428 20:08:18.235556 31348 net.cpp:131] Top shape: 100 10 8 8 (64000)
I0428 20:08:18.235575 31348 net.cpp:139] Memory required for data: 7770800
I0428 20:08:18.235584 31348 layer_factory.hpp:77] Creating layer pool1
I0428 20:08:18.235590 31348 net.cpp:86] Creating Layer pool1
I0428 20:08:18.235605 31348 net.cpp:408] pool1 <- conv1
I0428 20:08:18.235610 31348 net.cpp:382] pool1 -> pool1
I0428 20:08:18.235669 31348 net.cpp:124] Setting up pool1
I0428 20:08:18.235676 31348 net.cpp:131] Top shape: 100 10 4 4 (16000)
I0428 20:08:18.235678 31348 net.cpp:139] Memory required for data: 7834800
I0428 20:08:18.235682 31348 layer_factory.hpp:77] Creating layer ip1
I0428 20:08:18.235699 31348 net.cpp:86] Creating Layer ip1
I0428 20:08:18.235702 31348 net.cpp:408] ip1 <- pool1
I0428 20:08:18.235707 31348 net.cpp:382] ip1 -> ip1
I0428 20:08:18.235895 31348 net.cpp:124] Setting up ip1
I0428 20:08:18.235904 31348 net.cpp:131] Top shape: 100 25 (2500)
I0428 20:08:18.235919 31348 net.cpp:139] Memory required for data: 7844800
I0428 20:08:18.235936 31348 layer_factory.hpp:77] Creating layer relu1
I0428 20:08:18.235941 31348 net.cpp:86] Creating Layer relu1
I0428 20:08:18.235945 31348 net.cpp:408] relu1 <- ip1
I0428 20:08:18.235954 31348 net.cpp:369] relu1 -> ip1 (in-place)
I0428 20:08:18.236136 31348 net.cpp:124] Setting up relu1
I0428 20:08:18.236145 31348 net.cpp:131] Top shape: 100 25 (2500)
I0428 20:08:18.236148 31348 net.cpp:139] Memory required for data: 7854800
I0428 20:08:18.236151 31348 layer_factory.hpp:77] Creating layer ip2
I0428 20:08:18.236160 31348 net.cpp:86] Creating Layer ip2
I0428 20:08:18.236163 31348 net.cpp:408] ip2 <- ip1
I0428 20:08:18.236168 31348 net.cpp:382] ip2 -> ip2
I0428 20:08:18.236268 31348 net.cpp:124] Setting up ip2
I0428 20:08:18.236275 31348 net.cpp:131] Top shape: 100 25 (2500)
I0428 20:08:18.236279 31348 net.cpp:139] Memory required for data: 7864800
I0428 20:08:18.236284 31348 layer_factory.hpp:77] Creating layer relu2
I0428 20:08:18.236289 31348 net.cpp:86] Creating Layer relu2
I0428 20:08:18.236292 31348 net.cpp:408] relu2 <- ip2
I0428 20:08:18.236296 31348 net.cpp:369] relu2 -> ip2 (in-place)
I0428 20:08:18.236452 31348 net.cpp:124] Setting up relu2
I0428 20:08:18.236460 31348 net.cpp:131] Top shape: 100 25 (2500)
I0428 20:08:18.236464 31348 net.cpp:139] Memory required for data: 7874800
I0428 20:08:18.236466 31348 layer_factory.hpp:77] Creating layer ip3
I0428 20:08:18.236472 31348 net.cpp:86] Creating Layer ip3
I0428 20:08:18.236475 31348 net.cpp:408] ip3 <- ip2
I0428 20:08:18.236480 31348 net.cpp:382] ip3 -> ip3
I0428 20:08:18.236573 31348 net.cpp:124] Setting up ip3
I0428 20:08:18.236580 31348 net.cpp:131] Top shape: 100 10 (1000)
I0428 20:08:18.236583 31348 net.cpp:139] Memory required for data: 7878800
I0428 20:08:18.236591 31348 layer_factory.hpp:77] Creating layer relu3
I0428 20:08:18.236596 31348 net.cpp:86] Creating Layer relu3
I0428 20:08:18.236614 31348 net.cpp:408] relu3 <- ip3
I0428 20:08:18.236619 31348 net.cpp:369] relu3 -> ip3 (in-place)
I0428 20:08:18.237543 31348 net.cpp:124] Setting up relu3
I0428 20:08:18.237555 31348 net.cpp:131] Top shape: 100 10 (1000)
I0428 20:08:18.237571 31348 net.cpp:139] Memory required for data: 7882800
I0428 20:08:18.237574 31348 layer_factory.hpp:77] Creating layer ip3_relu3_0_split
I0428 20:08:18.237581 31348 net.cpp:86] Creating Layer ip3_relu3_0_split
I0428 20:08:18.237601 31348 net.cpp:408] ip3_relu3_0_split <- ip3
I0428 20:08:18.237622 31348 net.cpp:382] ip3_relu3_0_split -> ip3_relu3_0_split_0
I0428 20:08:18.237629 31348 net.cpp:382] ip3_relu3_0_split -> ip3_relu3_0_split_1
I0428 20:08:18.237686 31348 net.cpp:124] Setting up ip3_relu3_0_split
I0428 20:08:18.237694 31348 net.cpp:131] Top shape: 100 10 (1000)
I0428 20:08:18.237713 31348 net.cpp:131] Top shape: 100 10 (1000)
I0428 20:08:18.237716 31348 net.cpp:139] Memory required for data: 7890800
I0428 20:08:18.237721 31348 layer_factory.hpp:77] Creating layer accuracy
I0428 20:08:18.237726 31348 net.cpp:86] Creating Layer accuracy
I0428 20:08:18.237730 31348 net.cpp:408] accuracy <- ip3_relu3_0_split_0
I0428 20:08:18.237735 31348 net.cpp:408] accuracy <- label_mnist_1_split_0
I0428 20:08:18.237740 31348 net.cpp:382] accuracy -> accuracy
…
