…
I0428 19:46:30.279350 26010 net.cpp:296] The NetState phase (0) differed from the phase (1) specified by a rule in layer mnist
I0428 19:46:30.279369 26010 net.cpp:296] The NetState phase (0) differed from the phase (1) specified by a rule in layer accuracy
I0428 19:46:30.279471 26010 net.cpp:53] Initializing net from parameters: 
name: "LeNet"
state {
  phase: TRAIN
  level: 0
  stage: ""
}
layer {
  name: "mnist"
  type: "Data"
  top: "data"
  top: "label"
  include {
    phase: TRAIN
  }
  transform_param {
    scale: 0.00390625
  }
  data_param {
    source: "examples/mnist/mnist_train_lmdb"
    batch_size: 64
    backend: LMDB
  }
}
layer {
  name: "conv0"
  type: "Convolution"
  bottom: "data"
  top: "conv0"
  param {
    lr_mult: 1
  }
  param {
    lr_mult: 2
  }
  convolution_param {
    num_output: 2
    kernel_size: 5
    stride: 1
    weight_filler {
      type: "xavier"
    }
    bias_filler {
      type: "constant"
    }
  }
}
layer {
  name: "pool0"
  type: "Pooling"
  bottom: "conv0"
  top: "pool0"
  pooling_param {
    pool: MAX
    kernel_size: 2
    stride: 2
  }
}
layer {
  name: "conv1"
  type: "Convolution"
  bottom: "pool0"
  top: "conv1"
  param {
    lr_mult: 1
  }
  param {
    lr_mult: 2
  }
  convolution_param {
    num_output: 100
    kernel_size: 5
    stride: 1
    weight_filler {
      type: "xavier"
    }
    bias_filler {
      type: "constant"
    }
  }
}
layer {
  name: "pool1"
  type: "Pooling"
  bottom: "conv1"
  top: "pool1"
  pooling_param {
    pool: MAX
    kernel_size: 2
    stride: 2
  }
}
layer {
  name: "ip1"
  type: "InnerProduct"
  bottom: "pool1"
  top: "ip1"
  param {
    lr_mult: 1
  }
  param {
    lr_mult: 2
  }
  inner_product_param {
    num_output: 25
    weight_filler {
      type: "xavier"
    }
    bias_filler {
      type: "constant"
    }
  }
}
layer {
  name: "relu1"
  type: "ReLU"
  bottom: "ip1"
  top: "ip1"
}
layer {
  name: "ip2"
  type: "InnerProduct"
  bottom: "ip1"
  top: "ip2"
  param {
    lr_mult: 1
  }
  param {
    lr_mult: 2
  }
  inner_product_param {
    num_output: 25
    weight_filler {
      type: "xavier"
    }
    bias_filler {
      type: "constant"
    }
  }
}
layer {
  name: "relu2"
  type: "ReLU"
  bottom: "ip2"
  top: "ip2"
}
layer {
  name: "ip3"
  type: "InnerProduct"
  bottom: "ip2"
  top: "ip3"
  param {
    lr_mult: 1
  }
  param {
    lr_mult: 2
  }
  inner_product_param {
    num_output: 10
    weight_filler {
      type: "xavier"
    }
    bias_filler {
      type: "constant"
    }
  }
}
layer {
  name: "relu3"
  type: "ReLU"
  bottom: "ip3"
  top: "ip3"
}
layer {
  name: "loss"
  type: "SoftmaxWithLoss"
  bottom: "ip3"
  bottom: "label"
  top: "loss"
}
I0428 19:46:30.279551 26010 layer_factory.hpp:77] Creating layer mnist
I0428 19:46:30.279649 26010 db_lmdb.cpp:35] Opened lmdb examples/mnist/mnist_train_lmdb
I0428 19:46:30.279675 26010 net.cpp:86] Creating Layer mnist
I0428 19:46:30.279682 26010 net.cpp:382] mnist -> data
I0428 19:46:30.279706 26010 net.cpp:382] mnist -> label
I0428 19:46:30.280802 26010 data_layer.cpp:45] output data size: 64,1,28,28
I0428 19:46:30.283258 26010 net.cpp:124] Setting up mnist
I0428 19:46:30.283275 26010 net.cpp:131] Top shape: 64 1 28 28 (50176)
I0428 19:46:30.283283 26010 net.cpp:131] Top shape: 64 (64)
I0428 19:46:30.283287 26010 net.cpp:139] Memory required for data: 200960
I0428 19:46:30.283293 26010 layer_factory.hpp:77] Creating layer conv0
I0428 19:46:30.283309 26010 net.cpp:86] Creating Layer conv0
I0428 19:46:30.283329 26010 net.cpp:408] conv0 <- data
I0428 19:46:30.283342 26010 net.cpp:382] conv0 -> conv0
I0428 19:46:30.561970 26010 net.cpp:124] Setting up conv0
I0428 19:46:30.561995 26010 net.cpp:131] Top shape: 64 2 24 24 (73728)
I0428 19:46:30.561998 26010 net.cpp:139] Memory required for data: 495872
I0428 19:46:30.562011 26010 layer_factory.hpp:77] Creating layer pool0
I0428 19:46:30.562023 26010 net.cpp:86] Creating Layer pool0
I0428 19:46:30.562027 26010 net.cpp:408] pool0 <- conv0
I0428 19:46:30.562032 26010 net.cpp:382] pool0 -> pool0
I0428 19:46:30.562093 26010 net.cpp:124] Setting up pool0
I0428 19:46:30.562098 26010 net.cpp:131] Top shape: 64 2 12 12 (18432)
I0428 19:46:30.562100 26010 net.cpp:139] Memory required for data: 569600
I0428 19:46:30.562103 26010 layer_factory.hpp:77] Creating layer conv1
I0428 19:46:30.562114 26010 net.cpp:86] Creating Layer conv1
I0428 19:46:30.562116 26010 net.cpp:408] conv1 <- pool0
I0428 19:46:30.562120 26010 net.cpp:382] conv1 -> conv1
I0428 19:46:30.564798 26010 net.cpp:124] Setting up conv1
I0428 19:46:30.564832 26010 net.cpp:131] Top shape: 64 100 8 8 (409600)
I0428 19:46:30.564836 26010 net.cpp:139] Memory required for data: 2208000
I0428 19:46:30.564844 26010 layer_factory.hpp:77] Creating layer pool1
I0428 19:46:30.564851 26010 net.cpp:86] Creating Layer pool1
I0428 19:46:30.564855 26010 net.cpp:408] pool1 <- conv1
I0428 19:46:30.564860 26010 net.cpp:382] pool1 -> pool1
I0428 19:46:30.564911 26010 net.cpp:124] Setting up pool1
I0428 19:46:30.564916 26010 net.cpp:131] Top shape: 64 100 4 4 (102400)
I0428 19:46:30.564919 26010 net.cpp:139] Memory required for data: 2617600
I0428 19:46:30.564923 26010 layer_factory.hpp:77] Creating layer ip1
I0428 19:46:30.564929 26010 net.cpp:86] Creating Layer ip1
I0428 19:46:30.564932 26010 net.cpp:408] ip1 <- pool1
I0428 19:46:30.564937 26010 net.cpp:382] ip1 -> ip1
I0428 19:46:30.565296 26010 net.cpp:124] Setting up ip1
I0428 19:46:30.565304 26010 net.cpp:131] Top shape: 64 25 (1600)
I0428 19:46:30.565322 26010 net.cpp:139] Memory required for data: 2624000
I0428 19:46:30.565330 26010 layer_factory.hpp:77] Creating layer relu1
I0428 19:46:30.565335 26010 net.cpp:86] Creating Layer relu1
I0428 19:46:30.565338 26010 net.cpp:408] relu1 <- ip1
I0428 19:46:30.565342 26010 net.cpp:369] relu1 -> ip1 (in-place)
I0428 19:46:30.565501 26010 net.cpp:124] Setting up relu1
I0428 19:46:30.565510 26010 net.cpp:131] Top shape: 64 25 (1600)
I0428 19:46:30.565512 26010 net.cpp:139] Memory required for data: 2630400
I0428 19:46:30.565515 26010 layer_factory.hpp:77] Creating layer ip2
I0428 19:46:30.565522 26010 net.cpp:86] Creating Layer ip2
I0428 19:46:30.565526 26010 net.cpp:408] ip2 <- ip1
I0428 19:46:30.565543 26010 net.cpp:382] ip2 -> ip2
I0428 19:46:30.565634 26010 net.cpp:124] Setting up ip2
I0428 19:46:30.565640 26010 net.cpp:131] Top shape: 64 25 (1600)
I0428 19:46:30.565644 26010 net.cpp:139] Memory required for data: 2636800
I0428 19:46:30.565649 26010 layer_factory.hpp:77] Creating layer relu2
I0428 19:46:30.565654 26010 net.cpp:86] Creating Layer relu2
I0428 19:46:30.565657 26010 net.cpp:408] relu2 <- ip2
I0428 19:46:30.565661 26010 net.cpp:369] relu2 -> ip2 (in-place)
I0428 19:46:30.566422 26010 net.cpp:124] Setting up relu2
I0428 19:46:30.566435 26010 net.cpp:131] Top shape: 64 25 (1600)
I0428 19:46:30.566455 26010 net.cpp:139] Memory required for data: 2643200
I0428 19:46:30.566458 26010 layer_factory.hpp:77] Creating layer ip3
I0428 19:46:30.566467 26010 net.cpp:86] Creating Layer ip3
I0428 19:46:30.566469 26010 net.cpp:408] ip3 <- ip2
I0428 19:46:30.566475 26010 net.cpp:382] ip3 -> ip3
I0428 19:46:30.566581 26010 net.cpp:124] Setting up ip3
I0428 19:46:30.566588 26010 net.cpp:131] Top shape: 64 10 (640)
I0428 19:46:30.566591 26010 net.cpp:139] Memory required for data: 2645760
I0428 19:46:30.566601 26010 layer_factory.hpp:77] Creating layer relu3
I0428 19:46:30.566606 26010 net.cpp:86] Creating Layer relu3
I0428 19:46:30.566608 26010 net.cpp:408] relu3 <- ip3
I0428 19:46:30.566612 26010 net.cpp:369] relu3 -> ip3 (in-place)
I0428 19:46:30.566802 26010 net.cpp:124] Setting up relu3
I0428 19:46:30.566810 26010 net.cpp:131] Top shape: 64 10 (640)
I0428 19:46:30.566813 26010 net.cpp:139] Memory required for data: 2648320
I0428 19:46:30.566817 26010 layer_factory.hpp:77] Creating layer loss
I0428 19:46:30.566823 26010 net.cpp:86] Creating Layer loss
I0428 19:46:30.566839 26010 net.cpp:408] loss <- ip3
I0428 19:46:30.566843 26010 net.cpp:408] loss <- label
I0428 19:46:30.566848 26010 net.cpp:382] loss -> loss
I0428 19:46:30.566862 26010 layer_factory.hpp:77] Creating layer loss
…
I0428 19:46:30.567524 26010 solver.cpp:173] Creating test net (#0) specified by net file: ECE595/mnist/train_test/var_everything2/lenet_train_test493.prototxt
I0428 19:46:30.567566 26010 net.cpp:296] The NetState phase (1) differed from the phase (0) specified by a rule in layer mnist
I0428 19:46:30.567654 26010 net.cpp:53] Initializing net from parameters: 
name: "LeNet"
state {
  phase: TEST
}
layer {
  name: "mnist"
  type: "Data"
  top: "data"
  top: "label"
  include {
    phase: TEST
  }
  transform_param {
    scale: 0.00390625
  }
  data_param {
    source: "examples/mnist/mnist_test_lmdb"
    batch_size: 100
    backend: LMDB
  }
}
layer {
  name: "conv0"
  type: "Convolution"
  bottom: "data"
  top: "conv0"
  param {
    lr_mult: 1
  }
  param {
    lr_mult: 2
  }
  convolution_param {
    num_output: 2
    kernel_size: 5
    stride: 1
    weight_filler {
      type: "xavier"
    }
    bias_filler {
      type: "constant"
    }
  }
}
layer {
  name: "pool0"
  type: "Pooling"
  bottom: "conv0"
  top: "pool0"
  pooling_param {
    pool: MAX
    kernel_size: 2
    stride: 2
  }
}
layer {
  name: "conv1"
  type: "Convolution"
  bottom: "pool0"
  top: "conv1"
  param {
    lr_mult: 1
  }
  param {
    lr_mult: 2
  }
  convolution_param {
    num_output: 100
    kernel_size: 5
    stride: 1
    weight_filler {
      type: "xavier"
    }
    bias_filler {
      type: "constant"
    }
  }
}
layer {
  name: "pool1"
  type: "Pooling"
  bottom: "conv1"
  top: "pool1"
  pooling_param {
    pool: MAX
    kernel_size: 2
    stride: 2
  }
}
layer {
  name: "ip1"
  type: "InnerProduct"
  bottom: "pool1"
  top: "ip1"
  param {
    lr_mult: 1
  }
  param {
    lr_mult: 2
  }
  inner_product_param {
    num_output: 25
    weight_filler {
      type: "xavier"
    }
    bias_filler {
      type: "constant"
    }
  }
}
layer {
  name: "relu1"
  type: "ReLU"
  bottom: "ip1"
  top: "ip1"
}
layer {
  name: "ip2"
  type: "InnerProduct"
  bottom: "ip1"
  top: "ip2"
  param {
    lr_mult: 1
  }
  param {
    lr_mult: 2
  }
  inner_product_param {
    num_output: 25
    weight_filler {
      type: "xavier"
    }
    bias_filler {
      type: "constant"
    }
  }
}
layer {
  name: "relu2"
  type: "ReLU"
  bottom: "ip2"
  top: "ip2"
}
layer {
  name: "ip3"
  type: "InnerProduct"
  bottom: "ip2"
  top: "ip3"
  param {
    lr_mult: 1
  }
  param {
    lr_mult: 2
  }
  inner_product_param {
    num_output: 10
    weight_filler {
      type: "xavier"
    }
    bias_filler {
      type: "constant"
    }
  }
}
layer {
  name: "relu3"
  type: "ReLU"
  bottom: "ip3"
  top: "ip3"
}
layer {
  name: "accuracy"
  type: "Accuracy"
  bottom: "ip3"
  bottom: "label"
  top: "accuracy"
  include {
    phase: TEST
  }
}
layer {
  name: "loss"
  type: "SoftmaxWithLoss"
  bottom: "ip3"
  bottom: "label"
  top: "loss"
}
I0428 19:46:30.567744 26010 layer_factory.hpp:77] Creating layer mnist
I0428 19:46:30.567786 26010 db_lmdb.cpp:35] Opened lmdb examples/mnist/mnist_test_lmdb
I0428 19:46:30.567797 26010 net.cpp:86] Creating Layer mnist
I0428 19:46:30.567802 26010 net.cpp:382] mnist -> data
I0428 19:46:30.567809 26010 net.cpp:382] mnist -> label
I0428 19:46:30.567888 26010 data_layer.cpp:45] output data size: 100,1,28,28
I0428 19:46:30.570065 26010 net.cpp:124] Setting up mnist
I0428 19:46:30.570094 26010 net.cpp:131] Top shape: 100 1 28 28 (78400)
I0428 19:46:30.570116 26010 net.cpp:131] Top shape: 100 (100)
I0428 19:46:30.570118 26010 net.cpp:139] Memory required for data: 314000
I0428 19:46:30.570122 26010 layer_factory.hpp:77] Creating layer label_mnist_1_split
I0428 19:46:30.570128 26010 net.cpp:86] Creating Layer label_mnist_1_split
I0428 19:46:30.570132 26010 net.cpp:408] label_mnist_1_split <- label
I0428 19:46:30.570137 26010 net.cpp:382] label_mnist_1_split -> label_mnist_1_split_0
I0428 19:46:30.570143 26010 net.cpp:382] label_mnist_1_split -> label_mnist_1_split_1
I0428 19:46:30.570192 26010 net.cpp:124] Setting up label_mnist_1_split
I0428 19:46:30.570199 26010 net.cpp:131] Top shape: 100 (100)
I0428 19:46:30.570202 26010 net.cpp:131] Top shape: 100 (100)
I0428 19:46:30.570205 26010 net.cpp:139] Memory required for data: 314800
I0428 19:46:30.570209 26010 layer_factory.hpp:77] Creating layer conv0
I0428 19:46:30.570216 26010 net.cpp:86] Creating Layer conv0
I0428 19:46:30.570219 26010 net.cpp:408] conv0 <- data
I0428 19:46:30.570225 26010 net.cpp:382] conv0 -> conv0
I0428 19:46:30.571943 26010 net.cpp:124] Setting up conv0
I0428 19:46:30.571972 26010 net.cpp:131] Top shape: 100 2 24 24 (115200)
I0428 19:46:30.571976 26010 net.cpp:139] Memory required for data: 775600
I0428 19:46:30.571985 26010 layer_factory.hpp:77] Creating layer pool0
I0428 19:46:30.571993 26010 net.cpp:86] Creating Layer pool0
I0428 19:46:30.571996 26010 net.cpp:408] pool0 <- conv0
I0428 19:46:30.572001 26010 net.cpp:382] pool0 -> pool0
I0428 19:46:30.572037 26010 net.cpp:124] Setting up pool0
I0428 19:46:30.572043 26010 net.cpp:131] Top shape: 100 2 12 12 (28800)
I0428 19:46:30.572047 26010 net.cpp:139] Memory required for data: 890800
I0428 19:46:30.572051 26010 layer_factory.hpp:77] Creating layer conv1
I0428 19:46:30.572058 26010 net.cpp:86] Creating Layer conv1
I0428 19:46:30.572062 26010 net.cpp:408] conv1 <- pool0
I0428 19:46:30.572067 26010 net.cpp:382] conv1 -> conv1
I0428 19:46:30.573654 26010 net.cpp:124] Setting up conv1
I0428 19:46:30.573683 26010 net.cpp:131] Top shape: 100 100 8 8 (640000)
I0428 19:46:30.573688 26010 net.cpp:139] Memory required for data: 3450800
I0428 19:46:30.573695 26010 layer_factory.hpp:77] Creating layer pool1
I0428 19:46:30.573703 26010 net.cpp:86] Creating Layer pool1
I0428 19:46:30.573719 26010 net.cpp:408] pool1 <- conv1
I0428 19:46:30.573724 26010 net.cpp:382] pool1 -> pool1
I0428 19:46:30.573763 26010 net.cpp:124] Setting up pool1
I0428 19:46:30.573771 26010 net.cpp:131] Top shape: 100 100 4 4 (160000)
I0428 19:46:30.573774 26010 net.cpp:139] Memory required for data: 4090800
I0428 19:46:30.573777 26010 layer_factory.hpp:77] Creating layer ip1
I0428 19:46:30.573783 26010 net.cpp:86] Creating Layer ip1
I0428 19:46:30.573786 26010 net.cpp:408] ip1 <- pool1
I0428 19:46:30.573791 26010 net.cpp:382] ip1 -> ip1
I0428 19:46:30.574226 26010 net.cpp:124] Setting up ip1
I0428 19:46:30.574234 26010 net.cpp:131] Top shape: 100 25 (2500)
I0428 19:46:30.574262 26010 net.cpp:139] Memory required for data: 4100800
I0428 19:46:30.574270 26010 layer_factory.hpp:77] Creating layer relu1
I0428 19:46:30.574275 26010 net.cpp:86] Creating Layer relu1
I0428 19:46:30.574277 26010 net.cpp:408] relu1 <- ip1
I0428 19:46:30.574283 26010 net.cpp:369] relu1 -> ip1 (in-place)
I0428 19:46:30.574533 26010 net.cpp:124] Setting up relu1
I0428 19:46:30.574542 26010 net.cpp:131] Top shape: 100 25 (2500)
I0428 19:46:30.574545 26010 net.cpp:139] Memory required for data: 4110800
I0428 19:46:30.574548 26010 layer_factory.hpp:77] Creating layer ip2
I0428 19:46:30.574556 26010 net.cpp:86] Creating Layer ip2
I0428 19:46:30.574559 26010 net.cpp:408] ip2 <- ip1
I0428 19:46:30.574564 26010 net.cpp:382] ip2 -> ip2
I0428 19:46:30.574682 26010 net.cpp:124] Setting up ip2
I0428 19:46:30.574690 26010 net.cpp:131] Top shape: 100 25 (2500)
I0428 19:46:30.574693 26010 net.cpp:139] Memory required for data: 4120800
I0428 19:46:30.574698 26010 layer_factory.hpp:77] Creating layer relu2
I0428 19:46:30.574703 26010 net.cpp:86] Creating Layer relu2
I0428 19:46:30.574707 26010 net.cpp:408] relu2 <- ip2
I0428 19:46:30.574712 26010 net.cpp:369] relu2 -> ip2 (in-place)
I0428 19:46:30.574898 26010 net.cpp:124] Setting up relu2
I0428 19:46:30.574906 26010 net.cpp:131] Top shape: 100 25 (2500)
I0428 19:46:30.574910 26010 net.cpp:139] Memory required for data: 4130800
I0428 19:46:30.574913 26010 layer_factory.hpp:77] Creating layer ip3
I0428 19:46:30.574934 26010 net.cpp:86] Creating Layer ip3
I0428 19:46:30.574936 26010 net.cpp:408] ip3 <- ip2
I0428 19:46:30.574941 26010 net.cpp:382] ip3 -> ip3
I0428 19:46:30.575053 26010 net.cpp:124] Setting up ip3
I0428 19:46:30.575062 26010 net.cpp:131] Top shape: 100 10 (1000)
I0428 19:46:30.575064 26010 net.cpp:139] Memory required for data: 4134800
I0428 19:46:30.575073 26010 layer_factory.hpp:77] Creating layer relu3
I0428 19:46:30.575094 26010 net.cpp:86] Creating Layer relu3
I0428 19:46:30.575114 26010 net.cpp:408] relu3 <- ip3
I0428 19:46:30.575119 26010 net.cpp:369] relu3 -> ip3 (in-place)
I0428 19:46:30.576010 26010 net.cpp:124] Setting up relu3
I0428 19:46:30.576021 26010 net.cpp:131] Top shape: 100 10 (1000)
I0428 19:46:30.576042 26010 net.cpp:139] Memory required for data: 4138800
I0428 19:46:30.576045 26010 layer_factory.hpp:77] Creating layer ip3_relu3_0_split
I0428 19:46:30.576064 26010 net.cpp:86] Creating Layer ip3_relu3_0_split
I0428 19:46:30.576078 26010 net.cpp:408] ip3_relu3_0_split <- ip3
I0428 19:46:30.576083 26010 net.cpp:382] ip3_relu3_0_split -> ip3_relu3_0_split_0
I0428 19:46:30.576091 26010 net.cpp:382] ip3_relu3_0_split -> ip3_relu3_0_split_1
I0428 19:46:30.576131 26010 net.cpp:124] Setting up ip3_relu3_0_split
I0428 19:46:30.576146 26010 net.cpp:131] Top shape: 100 10 (1000)
I0428 19:46:30.576151 26010 net.cpp:131] Top shape: 100 10 (1000)
I0428 19:46:30.576153 26010 net.cpp:139] Memory required for data: 4146800
I0428 19:46:30.576162 26010 layer_factory.hpp:77] Creating layer accuracy
I0428 19:46:30.576167 26010 net.cpp:86] Creating Layer accuracy
I0428 19:46:30.576171 26010 net.cpp:408] accuracy <- ip3_relu3_0_split_0
I0428 19:46:30.576176 26010 net.cpp:408] accuracy <- label_mnist_1_split_0
I0428 19:46:30.576196 26010 net.cpp:382] accuracy -> accuracy
…
