…
I0428 20:31:48.314473  4006 net.cpp:296] The NetState phase (0) differed from the phase (1) specified by a rule in layer mnist
I0428 20:31:48.314491  4006 net.cpp:296] The NetState phase (0) differed from the phase (1) specified by a rule in layer accuracy
I0428 20:31:48.314571  4006 net.cpp:53] Initializing net from parameters: 
name: "LeNet"
state {
  phase: TRAIN
  level: 0
  stage: ""
}
layer {
  name: "mnist"
  type: "Data"
  top: "data"
  top: "label"
  include {
    phase: TRAIN
  }
  transform_param {
    scale: 0.00390625
  }
  data_param {
    source: "examples/mnist/mnist_train_lmdb"
    batch_size: 64
    backend: LMDB
  }
}
layer {
  name: "conv0"
  type: "Convolution"
  bottom: "data"
  top: "conv0"
  param {
    lr_mult: 1
  }
  param {
    lr_mult: 2
  }
  convolution_param {
    num_output: 100
    kernel_size: 5
    stride: 1
    weight_filler {
      type: "xavier"
    }
    bias_filler {
      type: "constant"
    }
  }
}
layer {
  name: "pool0"
  type: "Pooling"
  bottom: "conv0"
  top: "pool0"
  pooling_param {
    pool: MAX
    kernel_size: 2
    stride: 2
  }
}
layer {
  name: "conv1"
  type: "Convolution"
  bottom: "pool0"
  top: "conv1"
  param {
    lr_mult: 1
  }
  param {
    lr_mult: 2
  }
  convolution_param {
    num_output: 25
    kernel_size: 5
    stride: 1
    weight_filler {
      type: "xavier"
    }
    bias_filler {
      type: "constant"
    }
  }
}
layer {
  name: "pool1"
  type: "Pooling"
  bottom: "conv1"
  top: "pool1"
  pooling_param {
    pool: MAX
    kernel_size: 2
    stride: 2
  }
}
layer {
  name: "ip1"
  type: "InnerProduct"
  bottom: "pool1"
  top: "ip1"
  param {
    lr_mult: 1
  }
  param {
    lr_mult: 2
  }
  inner_product_param {
    num_output: 10
    weight_filler {
      type: "xavier"
    }
    bias_filler {
      type: "constant"
    }
  }
}
layer {
  name: "relu1"
  type: "ReLU"
  bottom: "ip1"
  top: "ip1"
}
layer {
  name: "loss"
  type: "SoftmaxWithLoss"
  bottom: "ip1"
  bottom: "label"
  top: "loss"
}
I0428 20:31:48.314643  4006 layer_factory.hpp:77] Creating layer mnist
I0428 20:31:48.314744  4006 db_lmdb.cpp:35] Opened lmdb examples/mnist/mnist_train_lmdb
I0428 20:31:48.314769  4006 net.cpp:86] Creating Layer mnist
I0428 20:31:48.314777  4006 net.cpp:382] mnist -> data
I0428 20:31:48.314800  4006 net.cpp:382] mnist -> label
I0428 20:31:48.315898  4006 data_layer.cpp:45] output data size: 64,1,28,28
I0428 20:31:48.318373  4006 net.cpp:124] Setting up mnist
I0428 20:31:48.318392  4006 net.cpp:131] Top shape: 64 1 28 28 (50176)
I0428 20:31:48.318397  4006 net.cpp:131] Top shape: 64 (64)
I0428 20:31:48.318401  4006 net.cpp:139] Memory required for data: 200960
I0428 20:31:48.318408  4006 layer_factory.hpp:77] Creating layer conv0
I0428 20:31:48.318451  4006 net.cpp:86] Creating Layer conv0
I0428 20:31:48.318467  4006 net.cpp:408] conv0 <- data
I0428 20:31:48.318482  4006 net.cpp:382] conv0 -> conv0
I0428 20:31:48.611393  4006 net.cpp:124] Setting up conv0
I0428 20:31:48.611426  4006 net.cpp:131] Top shape: 64 100 24 24 (3686400)
I0428 20:31:48.611431  4006 net.cpp:139] Memory required for data: 14946560
I0428 20:31:48.611449  4006 layer_factory.hpp:77] Creating layer pool0
I0428 20:31:48.611464  4006 net.cpp:86] Creating Layer pool0
I0428 20:31:48.611469  4006 net.cpp:408] pool0 <- conv0
I0428 20:31:48.611475  4006 net.cpp:382] pool0 -> pool0
I0428 20:31:48.611532  4006 net.cpp:124] Setting up pool0
I0428 20:31:48.611539  4006 net.cpp:131] Top shape: 64 100 12 12 (921600)
I0428 20:31:48.611562  4006 net.cpp:139] Memory required for data: 18632960
I0428 20:31:48.611565  4006 layer_factory.hpp:77] Creating layer conv1
I0428 20:31:48.611578  4006 net.cpp:86] Creating Layer conv1
I0428 20:31:48.611582  4006 net.cpp:408] conv1 <- pool0
I0428 20:31:48.611589  4006 net.cpp:382] conv1 -> conv1
I0428 20:31:48.614187  4006 net.cpp:124] Setting up conv1
I0428 20:31:48.614205  4006 net.cpp:131] Top shape: 64 25 8 8 (102400)
I0428 20:31:48.614210  4006 net.cpp:139] Memory required for data: 19042560
I0428 20:31:48.614222  4006 layer_factory.hpp:77] Creating layer pool1
I0428 20:31:48.614229  4006 net.cpp:86] Creating Layer pool1
I0428 20:31:48.614234  4006 net.cpp:408] pool1 <- conv1
I0428 20:31:48.614241  4006 net.cpp:382] pool1 -> pool1
I0428 20:31:48.614287  4006 net.cpp:124] Setting up pool1
I0428 20:31:48.614295  4006 net.cpp:131] Top shape: 64 25 4 4 (25600)
I0428 20:31:48.614298  4006 net.cpp:139] Memory required for data: 19144960
I0428 20:31:48.614302  4006 layer_factory.hpp:77] Creating layer ip1
I0428 20:31:48.614315  4006 net.cpp:86] Creating Layer ip1
I0428 20:31:48.614318  4006 net.cpp:408] ip1 <- pool1
I0428 20:31:48.614325  4006 net.cpp:382] ip1 -> ip1
I0428 20:31:48.614478  4006 net.cpp:124] Setting up ip1
I0428 20:31:48.614490  4006 net.cpp:131] Top shape: 64 10 (640)
I0428 20:31:48.614492  4006 net.cpp:139] Memory required for data: 19147520
I0428 20:31:48.614501  4006 layer_factory.hpp:77] Creating layer relu1
I0428 20:31:48.614509  4006 net.cpp:86] Creating Layer relu1
I0428 20:31:48.614513  4006 net.cpp:408] relu1 <- ip1
I0428 20:31:48.614518  4006 net.cpp:369] relu1 -> ip1 (in-place)
I0428 20:31:48.614729  4006 net.cpp:124] Setting up relu1
I0428 20:31:48.614742  4006 net.cpp:131] Top shape: 64 10 (640)
I0428 20:31:48.614745  4006 net.cpp:139] Memory required for data: 19150080
I0428 20:31:48.614748  4006 layer_factory.hpp:77] Creating layer loss
I0428 20:31:48.614758  4006 net.cpp:86] Creating Layer loss
I0428 20:31:48.614761  4006 net.cpp:408] loss <- ip1
I0428 20:31:48.614766  4006 net.cpp:408] loss <- label
I0428 20:31:48.614773  4006 net.cpp:382] loss -> loss
I0428 20:31:48.614792  4006 layer_factory.hpp:77] Creating layer loss
…
I0428 20:31:48.616140  4006 solver.cpp:173] Creating test net (#0) specified by net file: ECE595/mnist/train_test/var_everything2/lenet_train_test1561.prototxt
I0428 20:31:48.616168  4006 net.cpp:296] The NetState phase (1) differed from the phase (0) specified by a rule in layer mnist
I0428 20:31:48.616256  4006 net.cpp:53] Initializing net from parameters: 
name: "LeNet"
state {
  phase: TEST
}
layer {
  name: "mnist"
  type: "Data"
  top: "data"
  top: "label"
  include {
    phase: TEST
  }
  transform_param {
    scale: 0.00390625
  }
  data_param {
    source: "examples/mnist/mnist_test_lmdb"
    batch_size: 100
    backend: LMDB
  }
}
layer {
  name: "conv0"
  type: "Convolution"
  bottom: "data"
  top: "conv0"
  param {
    lr_mult: 1
  }
  param {
    lr_mult: 2
  }
  convolution_param {
    num_output: 100
    kernel_size: 5
    stride: 1
    weight_filler {
      type: "xavier"
    }
    bias_filler {
      type: "constant"
    }
  }
}
layer {
  name: "pool0"
  type: "Pooling"
  bottom: "conv0"
  top: "pool0"
  pooling_param {
    pool: MAX
    kernel_size: 2
    stride: 2
  }
}
layer {
  name: "conv1"
  type: "Convolution"
  bottom: "pool0"
  top: "conv1"
  param {
    lr_mult: 1
  }
  param {
    lr_mult: 2
  }
  convolution_param {
    num_output: 25
    kernel_size: 5
    stride: 1
    weight_filler {
      type: "xavier"
    }
    bias_filler {
      type: "constant"
    }
  }
}
layer {
  name: "pool1"
  type: "Pooling"
  bottom: "conv1"
  top: "pool1"
  pooling_param {
    pool: MAX
    kernel_size: 2
    stride: 2
  }
}
layer {
  name: "ip1"
  type: "InnerProduct"
  bottom: "pool1"
  top: "ip1"
  param {
    lr_mult: 1
  }
  param {
    lr_mult: 2
  }
  inner_product_param {
    num_output: 10
    weight_filler {
      type: "xavier"
    }
    bias_filler {
      type: "constant"
    }
  }
}
layer {
  name: "relu1"
  type: "ReLU"
  bottom: "ip1"
  top: "ip1"
}
layer {
  name: "accuracy"
  type: "Accuracy"
  bottom: "ip1"
  bottom: "label"
  top: "accuracy"
  include {
    phase: TEST
  }
}
layer {
  name: "loss"
  type: "SoftmaxWithLoss"
  bottom: "ip1"
  bottom: "label"
  top: "loss"
}
I0428 20:31:48.616348  4006 layer_factory.hpp:77] Creating layer mnist
I0428 20:31:48.616397  4006 db_lmdb.cpp:35] Opened lmdb examples/mnist/mnist_test_lmdb
I0428 20:31:48.616415  4006 net.cpp:86] Creating Layer mnist
I0428 20:31:48.616421  4006 net.cpp:382] mnist -> data
I0428 20:31:48.616430  4006 net.cpp:382] mnist -> label
I0428 20:31:48.616539  4006 data_layer.cpp:45] output data size: 100,1,28,28
I0428 20:31:48.618738  4006 net.cpp:124] Setting up mnist
I0428 20:31:48.618757  4006 net.cpp:131] Top shape: 100 1 28 28 (78400)
I0428 20:31:48.618762  4006 net.cpp:131] Top shape: 100 (100)
I0428 20:31:48.618767  4006 net.cpp:139] Memory required for data: 314000
I0428 20:31:48.618770  4006 layer_factory.hpp:77] Creating layer label_mnist_1_split
I0428 20:31:48.618788  4006 net.cpp:86] Creating Layer label_mnist_1_split
I0428 20:31:48.618791  4006 net.cpp:408] label_mnist_1_split <- label
I0428 20:31:48.618798  4006 net.cpp:382] label_mnist_1_split -> label_mnist_1_split_0
I0428 20:31:48.618805  4006 net.cpp:382] label_mnist_1_split -> label_mnist_1_split_1
I0428 20:31:48.618857  4006 net.cpp:124] Setting up label_mnist_1_split
I0428 20:31:48.618865  4006 net.cpp:131] Top shape: 100 (100)
I0428 20:31:48.618870  4006 net.cpp:131] Top shape: 100 (100)
I0428 20:31:48.618872  4006 net.cpp:139] Memory required for data: 314800
I0428 20:31:48.618876  4006 layer_factory.hpp:77] Creating layer conv0
I0428 20:31:48.618887  4006 net.cpp:86] Creating Layer conv0
I0428 20:31:48.618892  4006 net.cpp:408] conv0 <- data
I0428 20:31:48.618898  4006 net.cpp:382] conv0 -> conv0
I0428 20:31:48.620009  4006 net.cpp:124] Setting up conv0
I0428 20:31:48.620028  4006 net.cpp:131] Top shape: 100 100 24 24 (5760000)
I0428 20:31:48.620031  4006 net.cpp:139] Memory required for data: 23354800
I0428 20:31:48.620043  4006 layer_factory.hpp:77] Creating layer pool0
I0428 20:31:48.620050  4006 net.cpp:86] Creating Layer pool0
I0428 20:31:48.620054  4006 net.cpp:408] pool0 <- conv0
I0428 20:31:48.620060  4006 net.cpp:382] pool0 -> pool0
I0428 20:31:48.620105  4006 net.cpp:124] Setting up pool0
I0428 20:31:48.620112  4006 net.cpp:131] Top shape: 100 100 12 12 (1440000)
I0428 20:31:48.620116  4006 net.cpp:139] Memory required for data: 29114800
I0428 20:31:48.620120  4006 layer_factory.hpp:77] Creating layer conv1
I0428 20:31:48.620131  4006 net.cpp:86] Creating Layer conv1
I0428 20:31:48.620136  4006 net.cpp:408] conv1 <- pool0
I0428 20:31:48.620141  4006 net.cpp:382] conv1 -> conv1
I0428 20:31:48.622452  4006 net.cpp:124] Setting up conv1
I0428 20:31:48.622468  4006 net.cpp:131] Top shape: 100 25 8 8 (160000)
I0428 20:31:48.622473  4006 net.cpp:139] Memory required for data: 29754800
I0428 20:31:48.622484  4006 layer_factory.hpp:77] Creating layer pool1
I0428 20:31:48.622493  4006 net.cpp:86] Creating Layer pool1
I0428 20:31:48.622509  4006 net.cpp:408] pool1 <- conv1
I0428 20:31:48.622517  4006 net.cpp:382] pool1 -> pool1
I0428 20:31:48.622563  4006 net.cpp:124] Setting up pool1
I0428 20:31:48.622572  4006 net.cpp:131] Top shape: 100 25 4 4 (40000)
I0428 20:31:48.622584  4006 net.cpp:139] Memory required for data: 29914800
I0428 20:31:48.622588  4006 layer_factory.hpp:77] Creating layer ip1
I0428 20:31:48.622596  4006 net.cpp:86] Creating Layer ip1
I0428 20:31:48.622601  4006 net.cpp:408] ip1 <- pool1
I0428 20:31:48.622607  4006 net.cpp:382] ip1 -> ip1
I0428 20:31:48.622758  4006 net.cpp:124] Setting up ip1
I0428 20:31:48.622768  4006 net.cpp:131] Top shape: 100 10 (1000)
I0428 20:31:48.622772  4006 net.cpp:139] Memory required for data: 29918800
I0428 20:31:48.622782  4006 layer_factory.hpp:77] Creating layer relu1
I0428 20:31:48.622788  4006 net.cpp:86] Creating Layer relu1
I0428 20:31:48.622792  4006 net.cpp:408] relu1 <- ip1
I0428 20:31:48.622799  4006 net.cpp:369] relu1 -> ip1 (in-place)
I0428 20:31:48.623755  4006 net.cpp:124] Setting up relu1
I0428 20:31:48.623770  4006 net.cpp:131] Top shape: 100 10 (1000)
I0428 20:31:48.623775  4006 net.cpp:139] Memory required for data: 29922800
I0428 20:31:48.623778  4006 layer_factory.hpp:77] Creating layer ip1_relu1_0_split
I0428 20:31:48.623786  4006 net.cpp:86] Creating Layer ip1_relu1_0_split
I0428 20:31:48.623791  4006 net.cpp:408] ip1_relu1_0_split <- ip1
I0428 20:31:48.623798  4006 net.cpp:382] ip1_relu1_0_split -> ip1_relu1_0_split_0
I0428 20:31:48.623806  4006 net.cpp:382] ip1_relu1_0_split -> ip1_relu1_0_split_1
I0428 20:31:48.623854  4006 net.cpp:124] Setting up ip1_relu1_0_split
I0428 20:31:48.623863  4006 net.cpp:131] Top shape: 100 10 (1000)
I0428 20:31:48.623868  4006 net.cpp:131] Top shape: 100 10 (1000)
I0428 20:31:48.623872  4006 net.cpp:139] Memory required for data: 29930800
I0428 20:31:48.623877  4006 layer_factory.hpp:77] Creating layer accuracy
I0428 20:31:48.623883  4006 net.cpp:86] Creating Layer accuracy
I0428 20:31:48.623888  4006 net.cpp:408] accuracy <- ip1_relu1_0_split_0
I0428 20:31:48.623893  4006 net.cpp:408] accuracy <- label_mnist_1_split_0
I0428 20:31:48.623898  4006 net.cpp:382] accuracy -> accuracy
…
