…
I0428 20:17:10.626466   812 net.cpp:296] The NetState phase (0) differed from the phase (1) specified by a rule in layer mnist
I0428 20:17:10.626480   812 net.cpp:296] The NetState phase (0) differed from the phase (1) specified by a rule in layer accuracy
I0428 20:17:10.626546   812 net.cpp:53] Initializing net from parameters: 
name: "LeNet"
state {
  phase: TRAIN
  level: 0
  stage: ""
}
layer {
  name: "mnist"
  type: "Data"
  top: "data"
  top: "label"
  include {
    phase: TRAIN
  }
  transform_param {
    scale: 0.00390625
  }
  data_param {
    source: "examples/mnist/mnist_train_lmdb"
    batch_size: 64
    backend: LMDB
  }
}
layer {
  name: "conv0"
  type: "Convolution"
  bottom: "data"
  top: "conv0"
  param {
    lr_mult: 1
  }
  param {
    lr_mult: 2
  }
  convolution_param {
    num_output: 50
    kernel_size: 5
    stride: 1
    weight_filler {
      type: "xavier"
    }
    bias_filler {
      type: "constant"
    }
  }
}
layer {
  name: "pool0"
  type: "Pooling"
  bottom: "conv0"
  top: "pool0"
  pooling_param {
    pool: MAX
    kernel_size: 2
    stride: 2
  }
}
layer {
  name: "conv1"
  type: "Convolution"
  bottom: "pool0"
  top: "conv1"
  param {
    lr_mult: 1
  }
  param {
    lr_mult: 2
  }
  convolution_param {
    num_output: 10
    kernel_size: 5
    stride: 1
    weight_filler {
      type: "xavier"
    }
    bias_filler {
      type: "constant"
    }
  }
}
layer {
  name: "pool1"
  type: "Pooling"
  bottom: "conv1"
  top: "pool1"
  pooling_param {
    pool: MAX
    kernel_size: 2
    stride: 2
  }
}
layer {
  name: "ip1"
  type: "InnerProduct"
  bottom: "pool1"
  top: "ip1"
  param {
    lr_mult: 1
  }
  param {
    lr_mult: 2
  }
  inner_product_param {
    num_output: 10
    weight_filler {
      type: "xavier"
    }
    bias_filler {
      type: "constant"
    }
  }
}
layer {
  name: "relu1"
  type: "ReLU"
  bottom: "ip1"
  top: "ip1"
}
layer {
  name: "loss"
  type: "SoftmaxWithLoss"
  bottom: "ip1"
  bottom: "label"
  top: "loss"
}
I0428 20:17:10.626600   812 layer_factory.hpp:77] Creating layer mnist
I0428 20:17:10.626683   812 db_lmdb.cpp:35] Opened lmdb examples/mnist/mnist_train_lmdb
I0428 20:17:10.626734   812 net.cpp:86] Creating Layer mnist
I0428 20:17:10.626740   812 net.cpp:382] mnist -> data
I0428 20:17:10.626758   812 net.cpp:382] mnist -> label
I0428 20:17:10.627768   812 data_layer.cpp:45] output data size: 64,1,28,28
I0428 20:17:10.630168   812 net.cpp:124] Setting up mnist
I0428 20:17:10.630198   812 net.cpp:131] Top shape: 64 1 28 28 (50176)
I0428 20:17:10.630203   812 net.cpp:131] Top shape: 64 (64)
I0428 20:17:10.630208   812 net.cpp:139] Memory required for data: 200960
I0428 20:17:10.630213   812 layer_factory.hpp:77] Creating layer conv0
I0428 20:17:10.630225   812 net.cpp:86] Creating Layer conv0
I0428 20:17:10.630230   812 net.cpp:408] conv0 <- data
I0428 20:17:10.630239   812 net.cpp:382] conv0 -> conv0
I0428 20:17:10.859302   812 net.cpp:124] Setting up conv0
I0428 20:17:10.859344   812 net.cpp:131] Top shape: 64 50 24 24 (1843200)
I0428 20:17:10.859349   812 net.cpp:139] Memory required for data: 7573760
I0428 20:17:10.859362   812 layer_factory.hpp:77] Creating layer pool0
I0428 20:17:10.859376   812 net.cpp:86] Creating Layer pool0
I0428 20:17:10.859380   812 net.cpp:408] pool0 <- conv0
I0428 20:17:10.859385   812 net.cpp:382] pool0 -> pool0
I0428 20:17:10.859447   812 net.cpp:124] Setting up pool0
I0428 20:17:10.859453   812 net.cpp:131] Top shape: 64 50 12 12 (460800)
I0428 20:17:10.859472   812 net.cpp:139] Memory required for data: 9416960
I0428 20:17:10.859474   812 layer_factory.hpp:77] Creating layer conv1
I0428 20:17:10.859486   812 net.cpp:86] Creating Layer conv1
I0428 20:17:10.859489   812 net.cpp:408] conv1 <- pool0
I0428 20:17:10.859495   812 net.cpp:382] conv1 -> conv1
I0428 20:17:10.862380   812 net.cpp:124] Setting up conv1
I0428 20:17:10.862408   812 net.cpp:131] Top shape: 64 10 8 8 (40960)
I0428 20:17:10.862412   812 net.cpp:139] Memory required for data: 9580800
I0428 20:17:10.862421   812 layer_factory.hpp:77] Creating layer pool1
I0428 20:17:10.862431   812 net.cpp:86] Creating Layer pool1
I0428 20:17:10.862433   812 net.cpp:408] pool1 <- conv1
I0428 20:17:10.862439   812 net.cpp:382] pool1 -> pool1
I0428 20:17:10.862501   812 net.cpp:124] Setting up pool1
I0428 20:17:10.862507   812 net.cpp:131] Top shape: 64 10 4 4 (10240)
I0428 20:17:10.862509   812 net.cpp:139] Memory required for data: 9621760
I0428 20:17:10.862512   812 layer_factory.hpp:77] Creating layer ip1
I0428 20:17:10.862520   812 net.cpp:86] Creating Layer ip1
I0428 20:17:10.862522   812 net.cpp:408] ip1 <- pool1
I0428 20:17:10.862526   812 net.cpp:382] ip1 -> ip1
I0428 20:17:10.862644   812 net.cpp:124] Setting up ip1
I0428 20:17:10.862653   812 net.cpp:131] Top shape: 64 10 (640)
I0428 20:17:10.862655   812 net.cpp:139] Memory required for data: 9624320
I0428 20:17:10.862663   812 layer_factory.hpp:77] Creating layer relu1
I0428 20:17:10.862668   812 net.cpp:86] Creating Layer relu1
I0428 20:17:10.862673   812 net.cpp:408] relu1 <- ip1
I0428 20:17:10.862676   812 net.cpp:369] relu1 -> ip1 (in-place)
I0428 20:17:10.862875   812 net.cpp:124] Setting up relu1
I0428 20:17:10.862885   812 net.cpp:131] Top shape: 64 10 (640)
I0428 20:17:10.862889   812 net.cpp:139] Memory required for data: 9626880
I0428 20:17:10.862891   812 layer_factory.hpp:77] Creating layer loss
I0428 20:17:10.862901   812 net.cpp:86] Creating Layer loss
I0428 20:17:10.862905   812 net.cpp:408] loss <- ip1
I0428 20:17:10.862908   812 net.cpp:408] loss <- label
I0428 20:17:10.862912   812 net.cpp:382] loss -> loss
I0428 20:17:10.862926   812 layer_factory.hpp:77] Creating layer loss
…
I0428 20:17:10.864102   812 solver.cpp:173] Creating test net (#0) specified by net file: ECE595/mnist/train_test/var_everything2/lenet_train_test1288.prototxt
I0428 20:17:10.864127   812 net.cpp:296] The NetState phase (1) differed from the phase (0) specified by a rule in layer mnist
I0428 20:17:10.864217   812 net.cpp:53] Initializing net from parameters: 
name: "LeNet"
state {
  phase: TEST
}
layer {
  name: "mnist"
  type: "Data"
  top: "data"
  top: "label"
  include {
    phase: TEST
  }
  transform_param {
    scale: 0.00390625
  }
  data_param {
    source: "examples/mnist/mnist_test_lmdb"
    batch_size: 100
    backend: LMDB
  }
}
layer {
  name: "conv0"
  type: "Convolution"
  bottom: "data"
  top: "conv0"
  param {
    lr_mult: 1
  }
  param {
    lr_mult: 2
  }
  convolution_param {
    num_output: 50
    kernel_size: 5
    stride: 1
    weight_filler {
      type: "xavier"
    }
    bias_filler {
      type: "constant"
    }
  }
}
layer {
  name: "pool0"
  type: "Pooling"
  bottom: "conv0"
  top: "pool0"
  pooling_param {
    pool: MAX
    kernel_size: 2
    stride: 2
  }
}
layer {
  name: "conv1"
  type: "Convolution"
  bottom: "pool0"
  top: "conv1"
  param {
    lr_mult: 1
  }
  param {
    lr_mult: 2
  }
  convolution_param {
    num_output: 10
    kernel_size: 5
    stride: 1
    weight_filler {
      type: "xavier"
    }
    bias_filler {
      type: "constant"
    }
  }
}
layer {
  name: "pool1"
  type: "Pooling"
  bottom: "conv1"
  top: "pool1"
  pooling_param {
    pool: MAX
    kernel_size: 2
    stride: 2
  }
}
layer {
  name: "ip1"
  type: "InnerProduct"
  bottom: "pool1"
  top: "ip1"
  param {
    lr_mult: 1
  }
  param {
    lr_mult: 2
  }
  inner_product_param {
    num_output: 10
    weight_filler {
      type: "xavier"
    }
    bias_filler {
      type: "constant"
    }
  }
}
layer {
  name: "relu1"
  type: "ReLU"
  bottom: "ip1"
  top: "ip1"
}
layer {
  name: "accuracy"
  type: "Accuracy"
  bottom: "ip1"
  bottom: "label"
  top: "accuracy"
  include {
    phase: TEST
  }
}
layer {
  name: "loss"
  type: "SoftmaxWithLoss"
  bottom: "ip1"
  bottom: "label"
  top: "loss"
}
I0428 20:17:10.864293   812 layer_factory.hpp:77] Creating layer mnist
I0428 20:17:10.864334   812 db_lmdb.cpp:35] Opened lmdb examples/mnist/mnist_test_lmdb
I0428 20:17:10.864348   812 net.cpp:86] Creating Layer mnist
I0428 20:17:10.864352   812 net.cpp:382] mnist -> data
I0428 20:17:10.864359   812 net.cpp:382] mnist -> label
I0428 20:17:10.864464   812 data_layer.cpp:45] output data size: 100,1,28,28
I0428 20:17:10.866439   812 net.cpp:124] Setting up mnist
I0428 20:17:10.866468   812 net.cpp:131] Top shape: 100 1 28 28 (78400)
I0428 20:17:10.866473   812 net.cpp:131] Top shape: 100 (100)
I0428 20:17:10.866477   812 net.cpp:139] Memory required for data: 314000
I0428 20:17:10.866480   812 layer_factory.hpp:77] Creating layer label_mnist_1_split
I0428 20:17:10.866513   812 net.cpp:86] Creating Layer label_mnist_1_split
I0428 20:17:10.866518   812 net.cpp:408] label_mnist_1_split <- label
I0428 20:17:10.866523   812 net.cpp:382] label_mnist_1_split -> label_mnist_1_split_0
I0428 20:17:10.866530   812 net.cpp:382] label_mnist_1_split -> label_mnist_1_split_1
I0428 20:17:10.866580   812 net.cpp:124] Setting up label_mnist_1_split
I0428 20:17:10.866585   812 net.cpp:131] Top shape: 100 (100)
I0428 20:17:10.866588   812 net.cpp:131] Top shape: 100 (100)
I0428 20:17:10.866591   812 net.cpp:139] Memory required for data: 314800
I0428 20:17:10.866595   812 layer_factory.hpp:77] Creating layer conv0
I0428 20:17:10.866602   812 net.cpp:86] Creating Layer conv0
I0428 20:17:10.866605   812 net.cpp:408] conv0 <- data
I0428 20:17:10.866611   812 net.cpp:382] conv0 -> conv0
I0428 20:17:10.867620   812 net.cpp:124] Setting up conv0
I0428 20:17:10.867632   812 net.cpp:131] Top shape: 100 50 24 24 (2880000)
I0428 20:17:10.867636   812 net.cpp:139] Memory required for data: 11834800
I0428 20:17:10.867645   812 layer_factory.hpp:77] Creating layer pool0
I0428 20:17:10.867667   812 net.cpp:86] Creating Layer pool0
I0428 20:17:10.867671   812 net.cpp:408] pool0 <- conv0
I0428 20:17:10.867676   812 net.cpp:382] pool0 -> pool0
I0428 20:17:10.867710   812 net.cpp:124] Setting up pool0
I0428 20:17:10.867715   812 net.cpp:131] Top shape: 100 50 12 12 (720000)
I0428 20:17:10.867717   812 net.cpp:139] Memory required for data: 14714800
I0428 20:17:10.867720   812 layer_factory.hpp:77] Creating layer conv1
I0428 20:17:10.867729   812 net.cpp:86] Creating Layer conv1
I0428 20:17:10.867733   812 net.cpp:408] conv1 <- pool0
I0428 20:17:10.867738   812 net.cpp:382] conv1 -> conv1
I0428 20:17:10.869491   812 net.cpp:124] Setting up conv1
I0428 20:17:10.869505   812 net.cpp:131] Top shape: 100 10 8 8 (64000)
I0428 20:17:10.869509   812 net.cpp:139] Memory required for data: 14970800
I0428 20:17:10.869518   812 layer_factory.hpp:77] Creating layer pool1
I0428 20:17:10.869524   812 net.cpp:86] Creating Layer pool1
I0428 20:17:10.869551   812 net.cpp:408] pool1 <- conv1
I0428 20:17:10.869559   812 net.cpp:382] pool1 -> pool1
I0428 20:17:10.869611   812 net.cpp:124] Setting up pool1
I0428 20:17:10.869617   812 net.cpp:131] Top shape: 100 10 4 4 (16000)
I0428 20:17:10.869621   812 net.cpp:139] Memory required for data: 15034800
I0428 20:17:10.869623   812 layer_factory.hpp:77] Creating layer ip1
I0428 20:17:10.869632   812 net.cpp:86] Creating Layer ip1
I0428 20:17:10.869635   812 net.cpp:408] ip1 <- pool1
I0428 20:17:10.869642   812 net.cpp:382] ip1 -> ip1
I0428 20:17:10.869765   812 net.cpp:124] Setting up ip1
I0428 20:17:10.869772   812 net.cpp:131] Top shape: 100 10 (1000)
I0428 20:17:10.869776   812 net.cpp:139] Memory required for data: 15038800
I0428 20:17:10.869782   812 layer_factory.hpp:77] Creating layer relu1
I0428 20:17:10.869787   812 net.cpp:86] Creating Layer relu1
I0428 20:17:10.869791   812 net.cpp:408] relu1 <- ip1
I0428 20:17:10.869796   812 net.cpp:369] relu1 -> ip1 (in-place)
I0428 20:17:10.870571   812 net.cpp:124] Setting up relu1
I0428 20:17:10.870584   812 net.cpp:131] Top shape: 100 10 (1000)
I0428 20:17:10.870586   812 net.cpp:139] Memory required for data: 15042800
I0428 20:17:10.870590   812 layer_factory.hpp:77] Creating layer ip1_relu1_0_split
I0428 20:17:10.870597   812 net.cpp:86] Creating Layer ip1_relu1_0_split
I0428 20:17:10.870600   812 net.cpp:408] ip1_relu1_0_split <- ip1
I0428 20:17:10.870606   812 net.cpp:382] ip1_relu1_0_split -> ip1_relu1_0_split_0
I0428 20:17:10.870612   812 net.cpp:382] ip1_relu1_0_split -> ip1_relu1_0_split_1
I0428 20:17:10.870662   812 net.cpp:124] Setting up ip1_relu1_0_split
I0428 20:17:10.870668   812 net.cpp:131] Top shape: 100 10 (1000)
I0428 20:17:10.870674   812 net.cpp:131] Top shape: 100 10 (1000)
I0428 20:17:10.870677   812 net.cpp:139] Memory required for data: 15050800
I0428 20:17:10.870681   812 layer_factory.hpp:77] Creating layer accuracy
I0428 20:17:10.870685   812 net.cpp:86] Creating Layer accuracy
I0428 20:17:10.870689   812 net.cpp:408] accuracy <- ip1_relu1_0_split_0
I0428 20:17:10.870693   812 net.cpp:408] accuracy <- label_mnist_1_split_0
I0428 20:17:10.870697   812 net.cpp:382] accuracy -> accuracy
…
