…
I0428 19:29:12.648035 21953 net.cpp:296] The NetState phase (0) differed from the phase (1) specified by a rule in layer mnist
I0428 19:29:12.648059 21953 net.cpp:296] The NetState phase (0) differed from the phase (1) specified by a rule in layer accuracy
I0428 19:29:12.648161 21953 net.cpp:53] Initializing net from parameters: 
name: "LeNet"
state {
  phase: TRAIN
  level: 0
  stage: ""
}
layer {
  name: "mnist"
  type: "Data"
  top: "data"
  top: "label"
  include {
    phase: TRAIN
  }
  transform_param {
    scale: 0.00390625
  }
  data_param {
    source: "examples/mnist/mnist_train_lmdb"
    batch_size: 64
    backend: LMDB
  }
}
layer {
  name: "conv0"
  type: "Convolution"
  bottom: "data"
  top: "conv0"
  param {
    lr_mult: 1
  }
  param {
    lr_mult: 2
  }
  convolution_param {
    num_output: 2
    kernel_size: 5
    stride: 1
    weight_filler {
      type: "xavier"
    }
    bias_filler {
      type: "constant"
    }
  }
}
layer {
  name: "pool0"
  type: "Pooling"
  bottom: "conv0"
  top: "pool0"
  pooling_param {
    pool: MAX
    kernel_size: 2
    stride: 2
  }
}
layer {
  name: "ip1"
  type: "InnerProduct"
  bottom: "pool0"
  top: "ip1"
  param {
    lr_mult: 1
  }
  param {
    lr_mult: 2
  }
  inner_product_param {
    num_output: 10
    weight_filler {
      type: "xavier"
    }
    bias_filler {
      type: "constant"
    }
  }
}
layer {
  name: "relu1"
  type: "ReLU"
  bottom: "ip1"
  top: "ip1"
}
layer {
  name: "ip2"
  type: "InnerProduct"
  bottom: "ip1"
  top: "ip2"
  param {
    lr_mult: 1
  }
  param {
    lr_mult: 2
  }
  inner_product_param {
    num_output: 10
    weight_filler {
      type: "xavier"
    }
    bias_filler {
      type: "constant"
    }
  }
}
layer {
  name: "relu2"
  type: "ReLU"
  bottom: "ip2"
  top: "ip2"
}
layer {
  name: "ip3"
  type: "InnerProduct"
  bottom: "ip2"
  top: "ip3"
  param {
    lr_mult: 1
  }
  param {
    lr_mult: 2
  }
  inner_product_param {
    num_output: 10
    weight_filler {
      type: "xavier"
    }
    bias_filler {
      type: "constant"
    }
  }
}
layer {
  name: "relu3"
  type: "ReLU"
  bottom: "ip3"
  top: "ip3"
}
layer {
  name: "loss"
  type: "SoftmaxWithLoss"
  bottom: "ip3"
  bottom: "label"
  top: "loss"
}
I0428 19:29:12.648268 21953 layer_factory.hpp:77] Creating layer mnist
I0428 19:29:12.648398 21953 db_lmdb.cpp:35] Opened lmdb examples/mnist/mnist_train_lmdb
I0428 19:29:12.648429 21953 net.cpp:86] Creating Layer mnist
I0428 19:29:12.648442 21953 net.cpp:382] mnist -> data
I0428 19:29:12.648474 21953 net.cpp:382] mnist -> label
I0428 19:29:12.649713 21953 data_layer.cpp:45] output data size: 64,1,28,28
I0428 19:29:12.652184 21953 net.cpp:124] Setting up mnist
I0428 19:29:12.652204 21953 net.cpp:131] Top shape: 64 1 28 28 (50176)
I0428 19:29:12.652215 21953 net.cpp:131] Top shape: 64 (64)
I0428 19:29:12.652221 21953 net.cpp:139] Memory required for data: 200960
I0428 19:29:12.652232 21953 layer_factory.hpp:77] Creating layer conv0
I0428 19:29:12.652259 21953 net.cpp:86] Creating Layer conv0
I0428 19:29:12.652269 21953 net.cpp:408] conv0 <- data
I0428 19:29:12.652287 21953 net.cpp:382] conv0 -> conv0
I0428 19:29:12.943439 21953 net.cpp:124] Setting up conv0
I0428 19:29:12.943471 21953 net.cpp:131] Top shape: 64 2 24 24 (73728)
I0428 19:29:12.943478 21953 net.cpp:139] Memory required for data: 495872
I0428 19:29:12.943501 21953 layer_factory.hpp:77] Creating layer pool0
I0428 19:29:12.943521 21953 net.cpp:86] Creating Layer pool0
I0428 19:29:12.943548 21953 net.cpp:408] pool0 <- conv0
I0428 19:29:12.943560 21953 net.cpp:382] pool0 -> pool0
I0428 19:29:12.943624 21953 net.cpp:124] Setting up pool0
I0428 19:29:12.943635 21953 net.cpp:131] Top shape: 64 2 12 12 (18432)
I0428 19:29:12.943641 21953 net.cpp:139] Memory required for data: 569600
I0428 19:29:12.943648 21953 layer_factory.hpp:77] Creating layer ip1
I0428 19:29:12.943666 21953 net.cpp:86] Creating Layer ip1
I0428 19:29:12.943675 21953 net.cpp:408] ip1 <- pool0
I0428 19:29:12.943684 21953 net.cpp:382] ip1 -> ip1
I0428 19:29:12.944761 21953 net.cpp:124] Setting up ip1
I0428 19:29:12.944778 21953 net.cpp:131] Top shape: 64 10 (640)
I0428 19:29:12.944784 21953 net.cpp:139] Memory required for data: 572160
I0428 19:29:12.944799 21953 layer_factory.hpp:77] Creating layer relu1
I0428 19:29:12.944818 21953 net.cpp:86] Creating Layer relu1
I0428 19:29:12.944825 21953 net.cpp:408] relu1 <- ip1
I0428 19:29:12.944834 21953 net.cpp:369] relu1 -> ip1 (in-place)
I0428 19:29:12.945050 21953 net.cpp:124] Setting up relu1
I0428 19:29:12.945062 21953 net.cpp:131] Top shape: 64 10 (640)
I0428 19:29:12.945068 21953 net.cpp:139] Memory required for data: 574720
I0428 19:29:12.945075 21953 layer_factory.hpp:77] Creating layer ip2
I0428 19:29:12.945088 21953 net.cpp:86] Creating Layer ip2
I0428 19:29:12.945096 21953 net.cpp:408] ip2 <- ip1
I0428 19:29:12.945106 21953 net.cpp:382] ip2 -> ip2
I0428 19:29:12.945233 21953 net.cpp:124] Setting up ip2
I0428 19:29:12.945245 21953 net.cpp:131] Top shape: 64 10 (640)
I0428 19:29:12.945250 21953 net.cpp:139] Memory required for data: 577280
I0428 19:29:12.945266 21953 layer_factory.hpp:77] Creating layer relu2
I0428 19:29:12.945277 21953 net.cpp:86] Creating Layer relu2
I0428 19:29:12.945283 21953 net.cpp:408] relu2 <- ip2
I0428 19:29:12.945292 21953 net.cpp:369] relu2 -> ip2 (in-place)
I0428 19:29:12.946131 21953 net.cpp:124] Setting up relu2
I0428 19:29:12.946148 21953 net.cpp:131] Top shape: 64 10 (640)
I0428 19:29:12.946154 21953 net.cpp:139] Memory required for data: 579840
I0428 19:29:12.946161 21953 layer_factory.hpp:77] Creating layer ip3
I0428 19:29:12.946174 21953 net.cpp:86] Creating Layer ip3
I0428 19:29:12.946182 21953 net.cpp:408] ip3 <- ip2
I0428 19:29:12.946192 21953 net.cpp:382] ip3 -> ip3
I0428 19:29:12.946317 21953 net.cpp:124] Setting up ip3
I0428 19:29:12.946328 21953 net.cpp:131] Top shape: 64 10 (640)
I0428 19:29:12.946334 21953 net.cpp:139] Memory required for data: 582400
I0428 19:29:12.946344 21953 layer_factory.hpp:77] Creating layer relu3
I0428 19:29:12.946357 21953 net.cpp:86] Creating Layer relu3
I0428 19:29:12.946363 21953 net.cpp:408] relu3 <- ip3
I0428 19:29:12.946372 21953 net.cpp:369] relu3 -> ip3 (in-place)
I0428 19:29:12.946565 21953 net.cpp:124] Setting up relu3
I0428 19:29:12.946578 21953 net.cpp:131] Top shape: 64 10 (640)
I0428 19:29:12.946583 21953 net.cpp:139] Memory required for data: 584960
I0428 19:29:12.946589 21953 layer_factory.hpp:77] Creating layer loss
I0428 19:29:12.946599 21953 net.cpp:86] Creating Layer loss
I0428 19:29:12.946605 21953 net.cpp:408] loss <- ip3
I0428 19:29:12.946614 21953 net.cpp:408] loss <- label
I0428 19:29:12.946622 21953 net.cpp:382] loss -> loss
I0428 19:29:12.946647 21953 layer_factory.hpp:77] Creating layer loss
…
I0428 19:29:12.947397 21953 solver.cpp:173] Creating test net (#0) specified by net file: ECE595/mnist/train_test/var_everything2/lenet_train_test51.prototxt
I0428 19:29:12.947434 21953 net.cpp:296] The NetState phase (1) differed from the phase (0) specified by a rule in layer mnist
I0428 19:29:12.947535 21953 net.cpp:53] Initializing net from parameters: 
name: "LeNet"
state {
  phase: TEST
}
layer {
  name: "mnist"
  type: "Data"
  top: "data"
  top: "label"
  include {
    phase: TEST
  }
  transform_param {
    scale: 0.00390625
  }
  data_param {
    source: "examples/mnist/mnist_test_lmdb"
    batch_size: 100
    backend: LMDB
  }
}
layer {
  name: "conv0"
  type: "Convolution"
  bottom: "data"
  top: "conv0"
  param {
    lr_mult: 1
  }
  param {
    lr_mult: 2
  }
  convolution_param {
    num_output: 2
    kernel_size: 5
    stride: 1
    weight_filler {
      type: "xavier"
    }
    bias_filler {
      type: "constant"
    }
  }
}
layer {
  name: "pool0"
  type: "Pooling"
  bottom: "conv0"
  top: "pool0"
  pooling_param {
    pool: MAX
    kernel_size: 2
    stride: 2
  }
}
layer {
  name: "ip1"
  type: "InnerProduct"
  bottom: "pool0"
  top: "ip1"
  param {
    lr_mult: 1
  }
  param {
    lr_mult: 2
  }
  inner_product_param {
    num_output: 10
    weight_filler {
      type: "xavier"
    }
    bias_filler {
      type: "constant"
    }
  }
}
layer {
  name: "relu1"
  type: "ReLU"
  bottom: "ip1"
  top: "ip1"
}
layer {
  name: "ip2"
  type: "InnerProduct"
  bottom: "ip1"
  top: "ip2"
  param {
    lr_mult: 1
  }
  param {
    lr_mult: 2
  }
  inner_product_param {
    num_output: 10
    weight_filler {
      type: "xavier"
    }
    bias_filler {
      type: "constant"
    }
  }
}
layer {
  name: "relu2"
  type: "ReLU"
  bottom: "ip2"
  top: "ip2"
}
layer {
  name: "ip3"
  type: "InnerProduct"
  bottom: "ip2"
  top: "ip3"
  param {
    lr_mult: 1
  }
  param {
    lr_mult: 2
  }
  inner_product_param {
    num_output: 10
    weight_filler {
      type: "xavier"
    }
    bias_filler {
      type: "constant"
    }
  }
}
layer {
  name: "relu3"
  type: "ReLU"
  bottom: "ip3"
  top: "ip3"
}
layer {
  name: "accuracy"
  type: "Accuracy"
  bottom: "ip3"
  bottom: "label"
  top: "accuracy"
  include {
    phase: TEST
  }
}
layer {
  name: "loss"
  type: "SoftmaxWithLoss"
  bottom: "ip3"
  bottom: "label"
  top: "loss"
}
I0428 19:29:12.947652 21953 layer_factory.hpp:77] Creating layer mnist
I0428 19:29:12.947720 21953 db_lmdb.cpp:35] Opened lmdb examples/mnist/mnist_test_lmdb
I0428 19:29:12.947741 21953 net.cpp:86] Creating Layer mnist
I0428 19:29:12.947749 21953 net.cpp:382] mnist -> data
I0428 19:29:12.947762 21953 net.cpp:382] mnist -> label
I0428 19:29:12.947901 21953 data_layer.cpp:45] output data size: 100,1,28,28
I0428 19:29:12.950135 21953 net.cpp:124] Setting up mnist
I0428 19:29:12.950153 21953 net.cpp:131] Top shape: 100 1 28 28 (78400)
I0428 19:29:12.950165 21953 net.cpp:131] Top shape: 100 (100)
I0428 19:29:12.950170 21953 net.cpp:139] Memory required for data: 314000
I0428 19:29:12.950177 21953 layer_factory.hpp:77] Creating layer label_mnist_1_split
I0428 19:29:12.950212 21953 net.cpp:86] Creating Layer label_mnist_1_split
I0428 19:29:12.950219 21953 net.cpp:408] label_mnist_1_split <- label
I0428 19:29:12.950228 21953 net.cpp:382] label_mnist_1_split -> label_mnist_1_split_0
I0428 19:29:12.950239 21953 net.cpp:382] label_mnist_1_split -> label_mnist_1_split_1
I0428 19:29:12.950333 21953 net.cpp:124] Setting up label_mnist_1_split
I0428 19:29:12.950343 21953 net.cpp:131] Top shape: 100 (100)
I0428 19:29:12.950350 21953 net.cpp:131] Top shape: 100 (100)
I0428 19:29:12.950356 21953 net.cpp:139] Memory required for data: 314800
I0428 19:29:12.950376 21953 layer_factory.hpp:77] Creating layer conv0
I0428 19:29:12.950392 21953 net.cpp:86] Creating Layer conv0
I0428 19:29:12.950399 21953 net.cpp:408] conv0 <- data
I0428 19:29:12.950412 21953 net.cpp:382] conv0 -> conv0
I0428 19:29:12.952170 21953 net.cpp:124] Setting up conv0
I0428 19:29:12.952188 21953 net.cpp:131] Top shape: 100 2 24 24 (115200)
I0428 19:29:12.952195 21953 net.cpp:139] Memory required for data: 775600
I0428 19:29:12.952210 21953 layer_factory.hpp:77] Creating layer pool0
I0428 19:29:12.952224 21953 net.cpp:86] Creating Layer pool0
I0428 19:29:12.952231 21953 net.cpp:408] pool0 <- conv0
I0428 19:29:12.952240 21953 net.cpp:382] pool0 -> pool0
I0428 19:29:12.952291 21953 net.cpp:124] Setting up pool0
I0428 19:29:12.952301 21953 net.cpp:131] Top shape: 100 2 12 12 (28800)
I0428 19:29:12.952306 21953 net.cpp:139] Memory required for data: 890800
I0428 19:29:12.952311 21953 layer_factory.hpp:77] Creating layer ip1
I0428 19:29:12.952325 21953 net.cpp:86] Creating Layer ip1
I0428 19:29:12.952332 21953 net.cpp:408] ip1 <- pool0
I0428 19:29:12.952340 21953 net.cpp:382] ip1 -> ip1
I0428 19:29:12.952472 21953 net.cpp:124] Setting up ip1
I0428 19:29:12.952483 21953 net.cpp:131] Top shape: 100 10 (1000)
I0428 19:29:12.952488 21953 net.cpp:139] Memory required for data: 894800
I0428 19:29:12.952502 21953 layer_factory.hpp:77] Creating layer relu1
I0428 19:29:12.952510 21953 net.cpp:86] Creating Layer relu1
I0428 19:29:12.952517 21953 net.cpp:408] relu1 <- ip1
I0428 19:29:12.952529 21953 net.cpp:369] relu1 -> ip1 (in-place)
I0428 19:29:12.952788 21953 net.cpp:124] Setting up relu1
I0428 19:29:12.952800 21953 net.cpp:131] Top shape: 100 10 (1000)
I0428 19:29:12.952807 21953 net.cpp:139] Memory required for data: 898800
I0428 19:29:12.952819 21953 layer_factory.hpp:77] Creating layer ip2
I0428 19:29:12.952831 21953 net.cpp:86] Creating Layer ip2
I0428 19:29:12.952837 21953 net.cpp:408] ip2 <- ip1
I0428 19:29:12.952848 21953 net.cpp:382] ip2 -> ip2
I0428 19:29:12.952996 21953 net.cpp:124] Setting up ip2
I0428 19:29:12.953008 21953 net.cpp:131] Top shape: 100 10 (1000)
I0428 19:29:12.953022 21953 net.cpp:139] Memory required for data: 902800
I0428 19:29:12.953037 21953 layer_factory.hpp:77] Creating layer relu2
I0428 19:29:12.953047 21953 net.cpp:86] Creating Layer relu2
I0428 19:29:12.953052 21953 net.cpp:408] relu2 <- ip2
I0428 19:29:12.953060 21953 net.cpp:369] relu2 -> ip2 (in-place)
I0428 19:29:12.953933 21953 net.cpp:124] Setting up relu2
I0428 19:29:12.953948 21953 net.cpp:131] Top shape: 100 10 (1000)
I0428 19:29:12.953954 21953 net.cpp:139] Memory required for data: 906800
I0428 19:29:12.953960 21953 layer_factory.hpp:77] Creating layer ip3
I0428 19:29:12.953975 21953 net.cpp:86] Creating Layer ip3
I0428 19:29:12.953982 21953 net.cpp:408] ip3 <- ip2
I0428 19:29:12.953994 21953 net.cpp:382] ip3 -> ip3
I0428 19:29:12.954118 21953 net.cpp:124] Setting up ip3
I0428 19:29:12.954128 21953 net.cpp:131] Top shape: 100 10 (1000)
I0428 19:29:12.954134 21953 net.cpp:139] Memory required for data: 910800
I0428 19:29:12.954144 21953 layer_factory.hpp:77] Creating layer relu3
I0428 19:29:12.954152 21953 net.cpp:86] Creating Layer relu3
I0428 19:29:12.954161 21953 net.cpp:408] relu3 <- ip3
I0428 19:29:12.954171 21953 net.cpp:369] relu3 -> ip3 (in-place)
I0428 19:29:12.954357 21953 net.cpp:124] Setting up relu3
I0428 19:29:12.954370 21953 net.cpp:131] Top shape: 100 10 (1000)
I0428 19:29:12.954376 21953 net.cpp:139] Memory required for data: 914800
I0428 19:29:12.954382 21953 layer_factory.hpp:77] Creating layer ip3_relu3_0_split
I0428 19:29:12.954391 21953 net.cpp:86] Creating Layer ip3_relu3_0_split
I0428 19:29:12.954396 21953 net.cpp:408] ip3_relu3_0_split <- ip3
I0428 19:29:12.954407 21953 net.cpp:382] ip3_relu3_0_split -> ip3_relu3_0_split_0
I0428 19:29:12.954417 21953 net.cpp:382] ip3_relu3_0_split -> ip3_relu3_0_split_1
I0428 19:29:12.954465 21953 net.cpp:124] Setting up ip3_relu3_0_split
I0428 19:29:12.954474 21953 net.cpp:131] Top shape: 100 10 (1000)
I0428 19:29:12.954483 21953 net.cpp:131] Top shape: 100 10 (1000)
I0428 19:29:12.954500 21953 net.cpp:139] Memory required for data: 922800
I0428 19:29:12.954512 21953 layer_factory.hpp:77] Creating layer accuracy
I0428 19:29:12.954524 21953 net.cpp:86] Creating Layer accuracy
I0428 19:29:12.954531 21953 net.cpp:408] accuracy <- ip3_relu3_0_split_0
I0428 19:29:12.954540 21953 net.cpp:408] accuracy <- label_mnist_1_split_0
I0428 19:29:12.954550 21953 net.cpp:382] accuracy -> accuracy
…
