…
I0428 19:47:11.274610 26127 net.cpp:296] The NetState phase (0) differed from the phase (1) specified by a rule in layer mnist
I0428 19:47:11.274631 26127 net.cpp:296] The NetState phase (0) differed from the phase (1) specified by a rule in layer accuracy
I0428 19:47:11.274718 26127 net.cpp:53] Initializing net from parameters: 
name: "LeNet"
state {
  phase: TRAIN
  level: 0
  stage: ""
}
layer {
  name: "mnist"
  type: "Data"
  top: "data"
  top: "label"
  include {
    phase: TRAIN
  }
  transform_param {
    scale: 0.00390625
  }
  data_param {
    source: "examples/mnist/mnist_train_lmdb"
    batch_size: 64
    backend: LMDB
  }
}
layer {
  name: "conv0"
  type: "Convolution"
  bottom: "data"
  top: "conv0"
  param {
    lr_mult: 1
  }
  param {
    lr_mult: 2
  }
  convolution_param {
    num_output: 5
    kernel_size: 5
    stride: 1
    weight_filler {
      type: "xavier"
    }
    bias_filler {
      type: "constant"
    }
  }
}
layer {
  name: "pool0"
  type: "Pooling"
  bottom: "conv0"
  top: "pool0"
  pooling_param {
    pool: MAX
    kernel_size: 2
    stride: 2
  }
}
layer {
  name: "conv1"
  type: "Convolution"
  bottom: "pool0"
  top: "conv1"
  param {
    lr_mult: 1
  }
  param {
    lr_mult: 2
  }
  convolution_param {
    num_output: 2
    kernel_size: 5
    stride: 1
    weight_filler {
      type: "xavier"
    }
    bias_filler {
      type: "constant"
    }
  }
}
layer {
  name: "pool1"
  type: "Pooling"
  bottom: "conv1"
  top: "pool1"
  pooling_param {
    pool: MAX
    kernel_size: 2
    stride: 2
  }
}
layer {
  name: "ip1"
  type: "InnerProduct"
  bottom: "pool1"
  top: "ip1"
  param {
    lr_mult: 1
  }
  param {
    lr_mult: 2
  }
  inner_product_param {
    num_output: 10
    weight_filler {
      type: "xavier"
    }
    bias_filler {
      type: "constant"
    }
  }
}
layer {
  name: "relu1"
  type: "ReLU"
  bottom: "ip1"
  top: "ip1"
}
layer {
  name: "loss"
  type: "SoftmaxWithLoss"
  bottom: "ip1"
  bottom: "label"
  top: "loss"
}
I0428 19:47:11.274808 26127 layer_factory.hpp:77] Creating layer mnist
I0428 19:47:11.274940 26127 db_lmdb.cpp:35] Opened lmdb examples/mnist/mnist_train_lmdb
I0428 19:47:11.274972 26127 net.cpp:86] Creating Layer mnist
I0428 19:47:11.274984 26127 net.cpp:382] mnist -> data
I0428 19:47:11.275015 26127 net.cpp:382] mnist -> label
I0428 19:47:11.276211 26127 data_layer.cpp:45] output data size: 64,1,28,28
I0428 19:47:11.278695 26127 net.cpp:124] Setting up mnist
I0428 19:47:11.278717 26127 net.cpp:131] Top shape: 64 1 28 28 (50176)
I0428 19:47:11.278728 26127 net.cpp:131] Top shape: 64 (64)
I0428 19:47:11.278733 26127 net.cpp:139] Memory required for data: 200960
I0428 19:47:11.278744 26127 layer_factory.hpp:77] Creating layer conv0
I0428 19:47:11.278766 26127 net.cpp:86] Creating Layer conv0
I0428 19:47:11.278777 26127 net.cpp:408] conv0 <- data
I0428 19:47:11.278795 26127 net.cpp:382] conv0 -> conv0
I0428 19:47:11.570925 26127 net.cpp:124] Setting up conv0
I0428 19:47:11.570958 26127 net.cpp:131] Top shape: 64 5 24 24 (184320)
I0428 19:47:11.570966 26127 net.cpp:139] Memory required for data: 938240
I0428 19:47:11.570991 26127 layer_factory.hpp:77] Creating layer pool0
I0428 19:47:11.571010 26127 net.cpp:86] Creating Layer pool0
I0428 19:47:11.571025 26127 net.cpp:408] pool0 <- conv0
I0428 19:47:11.571036 26127 net.cpp:382] pool0 -> pool0
I0428 19:47:11.571104 26127 net.cpp:124] Setting up pool0
I0428 19:47:11.571115 26127 net.cpp:131] Top shape: 64 5 12 12 (46080)
I0428 19:47:11.571142 26127 net.cpp:139] Memory required for data: 1122560
I0428 19:47:11.571151 26127 layer_factory.hpp:77] Creating layer conv1
I0428 19:47:11.571168 26127 net.cpp:86] Creating Layer conv1
I0428 19:47:11.571177 26127 net.cpp:408] conv1 <- pool0
I0428 19:47:11.571187 26127 net.cpp:382] conv1 -> conv1
I0428 19:47:11.573284 26127 net.cpp:124] Setting up conv1
I0428 19:47:11.573304 26127 net.cpp:131] Top shape: 64 2 8 8 (8192)
I0428 19:47:11.573312 26127 net.cpp:139] Memory required for data: 1155328
I0428 19:47:11.573328 26127 layer_factory.hpp:77] Creating layer pool1
I0428 19:47:11.573340 26127 net.cpp:86] Creating Layer pool1
I0428 19:47:11.573348 26127 net.cpp:408] pool1 <- conv1
I0428 19:47:11.573359 26127 net.cpp:382] pool1 -> pool1
I0428 19:47:11.573410 26127 net.cpp:124] Setting up pool1
I0428 19:47:11.573421 26127 net.cpp:131] Top shape: 64 2 4 4 (2048)
I0428 19:47:11.573427 26127 net.cpp:139] Memory required for data: 1163520
I0428 19:47:11.573433 26127 layer_factory.hpp:77] Creating layer ip1
I0428 19:47:11.573446 26127 net.cpp:86] Creating Layer ip1
I0428 19:47:11.573452 26127 net.cpp:408] ip1 <- pool1
I0428 19:47:11.573462 26127 net.cpp:382] ip1 -> ip1
I0428 19:47:11.573585 26127 net.cpp:124] Setting up ip1
I0428 19:47:11.573596 26127 net.cpp:131] Top shape: 64 10 (640)
I0428 19:47:11.573601 26127 net.cpp:139] Memory required for data: 1166080
I0428 19:47:11.573614 26127 layer_factory.hpp:77] Creating layer relu1
I0428 19:47:11.573631 26127 net.cpp:86] Creating Layer relu1
I0428 19:47:11.573639 26127 net.cpp:408] relu1 <- ip1
I0428 19:47:11.573648 26127 net.cpp:369] relu1 -> ip1 (in-place)
I0428 19:47:11.573848 26127 net.cpp:124] Setting up relu1
I0428 19:47:11.573861 26127 net.cpp:131] Top shape: 64 10 (640)
I0428 19:47:11.573866 26127 net.cpp:139] Memory required for data: 1168640
I0428 19:47:11.573873 26127 layer_factory.hpp:77] Creating layer loss
I0428 19:47:11.573884 26127 net.cpp:86] Creating Layer loss
I0428 19:47:11.573889 26127 net.cpp:408] loss <- ip1
I0428 19:47:11.573897 26127 net.cpp:408] loss <- label
I0428 19:47:11.573907 26127 net.cpp:382] loss -> loss
I0428 19:47:11.573935 26127 layer_factory.hpp:77] Creating layer loss
…
I0428 19:47:11.575273 26127 solver.cpp:173] Creating test net (#0) specified by net file: ECE595/mnist/train_test/var_everything2/lenet_train_test507.prototxt
I0428 19:47:11.575309 26127 net.cpp:296] The NetState phase (1) differed from the phase (0) specified by a rule in layer mnist
I0428 19:47:11.575400 26127 net.cpp:53] Initializing net from parameters: 
name: "LeNet"
state {
  phase: TEST
}
layer {
  name: "mnist"
  type: "Data"
  top: "data"
  top: "label"
  include {
    phase: TEST
  }
  transform_param {
    scale: 0.00390625
  }
  data_param {
    source: "examples/mnist/mnist_test_lmdb"
    batch_size: 100
    backend: LMDB
  }
}
layer {
  name: "conv0"
  type: "Convolution"
  bottom: "data"
  top: "conv0"
  param {
    lr_mult: 1
  }
  param {
    lr_mult: 2
  }
  convolution_param {
    num_output: 5
    kernel_size: 5
    stride: 1
    weight_filler {
      type: "xavier"
    }
    bias_filler {
      type: "constant"
    }
  }
}
layer {
  name: "pool0"
  type: "Pooling"
  bottom: "conv0"
  top: "pool0"
  pooling_param {
    pool: MAX
    kernel_size: 2
    stride: 2
  }
}
layer {
  name: "conv1"
  type: "Convolution"
  bottom: "pool0"
  top: "conv1"
  param {
    lr_mult: 1
  }
  param {
    lr_mult: 2
  }
  convolution_param {
    num_output: 2
    kernel_size: 5
    stride: 1
    weight_filler {
      type: "xavier"
    }
    bias_filler {
      type: "constant"
    }
  }
}
layer {
  name: "pool1"
  type: "Pooling"
  bottom: "conv1"
  top: "pool1"
  pooling_param {
    pool: MAX
    kernel_size: 2
    stride: 2
  }
}
layer {
  name: "ip1"
  type: "InnerProduct"
  bottom: "pool1"
  top: "ip1"
  param {
    lr_mult: 1
  }
  param {
    lr_mult: 2
  }
  inner_product_param {
    num_output: 10
    weight_filler {
      type: "xavier"
    }
    bias_filler {
      type: "constant"
    }
  }
}
layer {
  name: "relu1"
  type: "ReLU"
  bottom: "ip1"
  top: "ip1"
}
layer {
  name: "accuracy"
  type: "Accuracy"
  bottom: "ip1"
  bottom: "label"
  top: "accuracy"
  include {
    phase: TEST
  }
}
layer {
  name: "loss"
  type: "SoftmaxWithLoss"
  bottom: "ip1"
  bottom: "label"
  top: "loss"
}
I0428 19:47:11.575517 26127 layer_factory.hpp:77] Creating layer mnist
I0428 19:47:11.575585 26127 db_lmdb.cpp:35] Opened lmdb examples/mnist/mnist_test_lmdb
I0428 19:47:11.575604 26127 net.cpp:86] Creating Layer mnist
I0428 19:47:11.575613 26127 net.cpp:382] mnist -> data
I0428 19:47:11.575628 26127 net.cpp:382] mnist -> label
I0428 19:47:11.575767 26127 data_layer.cpp:45] output data size: 100,1,28,28
I0428 19:47:11.578228 26127 net.cpp:124] Setting up mnist
I0428 19:47:11.578246 26127 net.cpp:131] Top shape: 100 1 28 28 (78400)
I0428 19:47:11.578256 26127 net.cpp:131] Top shape: 100 (100)
I0428 19:47:11.578263 26127 net.cpp:139] Memory required for data: 314000
I0428 19:47:11.578269 26127 layer_factory.hpp:77] Creating layer label_mnist_1_split
I0428 19:47:11.578281 26127 net.cpp:86] Creating Layer label_mnist_1_split
I0428 19:47:11.578289 26127 net.cpp:408] label_mnist_1_split <- label
I0428 19:47:11.578297 26127 net.cpp:382] label_mnist_1_split -> label_mnist_1_split_0
I0428 19:47:11.578310 26127 net.cpp:382] label_mnist_1_split -> label_mnist_1_split_1
I0428 19:47:11.578420 26127 net.cpp:124] Setting up label_mnist_1_split
I0428 19:47:11.578433 26127 net.cpp:131] Top shape: 100 (100)
I0428 19:47:11.578439 26127 net.cpp:131] Top shape: 100 (100)
I0428 19:47:11.578445 26127 net.cpp:139] Memory required for data: 314800
I0428 19:47:11.578451 26127 layer_factory.hpp:77] Creating layer conv0
I0428 19:47:11.578467 26127 net.cpp:86] Creating Layer conv0
I0428 19:47:11.578475 26127 net.cpp:408] conv0 <- data
I0428 19:47:11.578486 26127 net.cpp:382] conv0 -> conv0
I0428 19:47:11.579376 26127 net.cpp:124] Setting up conv0
I0428 19:47:11.579396 26127 net.cpp:131] Top shape: 100 5 24 24 (288000)
I0428 19:47:11.579401 26127 net.cpp:139] Memory required for data: 1466800
I0428 19:47:11.579417 26127 layer_factory.hpp:77] Creating layer pool0
I0428 19:47:11.579429 26127 net.cpp:86] Creating Layer pool0
I0428 19:47:11.579437 26127 net.cpp:408] pool0 <- conv0
I0428 19:47:11.579448 26127 net.cpp:382] pool0 -> pool0
I0428 19:47:11.579499 26127 net.cpp:124] Setting up pool0
I0428 19:47:11.579509 26127 net.cpp:131] Top shape: 100 5 12 12 (72000)
I0428 19:47:11.579514 26127 net.cpp:139] Memory required for data: 1754800
I0428 19:47:11.579519 26127 layer_factory.hpp:77] Creating layer conv1
I0428 19:47:11.579538 26127 net.cpp:86] Creating Layer conv1
I0428 19:47:11.579546 26127 net.cpp:408] conv1 <- pool0
I0428 19:47:11.579556 26127 net.cpp:382] conv1 -> conv1
I0428 19:47:11.581871 26127 net.cpp:124] Setting up conv1
I0428 19:47:11.581888 26127 net.cpp:131] Top shape: 100 2 8 8 (12800)
I0428 19:47:11.581895 26127 net.cpp:139] Memory required for data: 1806000
I0428 19:47:11.581910 26127 layer_factory.hpp:77] Creating layer pool1
I0428 19:47:11.581923 26127 net.cpp:86] Creating Layer pool1
I0428 19:47:11.581943 26127 net.cpp:408] pool1 <- conv1
I0428 19:47:11.581956 26127 net.cpp:382] pool1 -> pool1
I0428 19:47:11.582042 26127 net.cpp:124] Setting up pool1
I0428 19:47:11.582054 26127 net.cpp:131] Top shape: 100 2 4 4 (3200)
I0428 19:47:11.582059 26127 net.cpp:139] Memory required for data: 1818800
I0428 19:47:11.582067 26127 layer_factory.hpp:77] Creating layer ip1
I0428 19:47:11.582083 26127 net.cpp:86] Creating Layer ip1
I0428 19:47:11.582093 26127 net.cpp:408] ip1 <- pool1
I0428 19:47:11.582105 26127 net.cpp:382] ip1 -> ip1
I0428 19:47:11.582238 26127 net.cpp:124] Setting up ip1
I0428 19:47:11.582253 26127 net.cpp:131] Top shape: 100 10 (1000)
I0428 19:47:11.582258 26127 net.cpp:139] Memory required for data: 1822800
I0428 19:47:11.582273 26127 layer_factory.hpp:77] Creating layer relu1
I0428 19:47:11.582283 26127 net.cpp:86] Creating Layer relu1
I0428 19:47:11.582291 26127 net.cpp:408] relu1 <- ip1
I0428 19:47:11.582303 26127 net.cpp:369] relu1 -> ip1 (in-place)
I0428 19:47:11.583214 26127 net.cpp:124] Setting up relu1
I0428 19:47:11.583230 26127 net.cpp:131] Top shape: 100 10 (1000)
I0428 19:47:11.583237 26127 net.cpp:139] Memory required for data: 1826800
I0428 19:47:11.583243 26127 layer_factory.hpp:77] Creating layer ip1_relu1_0_split
I0428 19:47:11.583254 26127 net.cpp:86] Creating Layer ip1_relu1_0_split
I0428 19:47:11.583261 26127 net.cpp:408] ip1_relu1_0_split <- ip1
I0428 19:47:11.583276 26127 net.cpp:382] ip1_relu1_0_split -> ip1_relu1_0_split_0
I0428 19:47:11.583290 26127 net.cpp:382] ip1_relu1_0_split -> ip1_relu1_0_split_1
I0428 19:47:11.583345 26127 net.cpp:124] Setting up ip1_relu1_0_split
I0428 19:47:11.583359 26127 net.cpp:131] Top shape: 100 10 (1000)
I0428 19:47:11.583366 26127 net.cpp:131] Top shape: 100 10 (1000)
I0428 19:47:11.583372 26127 net.cpp:139] Memory required for data: 1834800
I0428 19:47:11.583379 26127 layer_factory.hpp:77] Creating layer accuracy
I0428 19:47:11.583389 26127 net.cpp:86] Creating Layer accuracy
I0428 19:47:11.583395 26127 net.cpp:408] accuracy <- ip1_relu1_0_split_0
I0428 19:47:11.583403 26127 net.cpp:408] accuracy <- label_mnist_1_split_0
I0428 19:47:11.583411 26127 net.cpp:382] accuracy -> accuracy
…
