…
I0428 20:12:57.431802 32377 net.cpp:296] The NetState phase (0) differed from the phase (1) specified by a rule in layer mnist
I0428 20:12:57.431828 32377 net.cpp:296] The NetState phase (0) differed from the phase (1) specified by a rule in layer accuracy
I0428 20:12:57.431922 32377 net.cpp:53] Initializing net from parameters: 
name: "LeNet"
state {
  phase: TRAIN
  level: 0
  stage: ""
}
layer {
  name: "mnist"
  type: "Data"
  top: "data"
  top: "label"
  include {
    phase: TRAIN
  }
  transform_param {
    scale: 0.00390625
  }
  data_param {
    source: "examples/mnist/mnist_train_lmdb"
    batch_size: 64
    backend: LMDB
  }
}
layer {
  name: "conv0"
  type: "Convolution"
  bottom: "data"
  top: "conv0"
  param {
    lr_mult: 1
  }
  param {
    lr_mult: 2
  }
  convolution_param {
    num_output: 25
    kernel_size: 5
    stride: 1
    weight_filler {
      type: "xavier"
    }
    bias_filler {
      type: "constant"
    }
  }
}
layer {
  name: "pool0"
  type: "Pooling"
  bottom: "conv0"
  top: "pool0"
  pooling_param {
    pool: MAX
    kernel_size: 2
    stride: 2
  }
}
layer {
  name: "conv1"
  type: "Convolution"
  bottom: "pool0"
  top: "conv1"
  param {
    lr_mult: 1
  }
  param {
    lr_mult: 2
  }
  convolution_param {
    num_output: 100
    kernel_size: 5
    stride: 1
    weight_filler {
      type: "xavier"
    }
    bias_filler {
      type: "constant"
    }
  }
}
layer {
  name: "pool1"
  type: "Pooling"
  bottom: "conv1"
  top: "pool1"
  pooling_param {
    pool: MAX
    kernel_size: 2
    stride: 2
  }
}
layer {
  name: "ip1"
  type: "InnerProduct"
  bottom: "pool1"
  top: "ip1"
  param {
    lr_mult: 1
  }
  param {
    lr_mult: 2
  }
  inner_product_param {
    num_output: 10
    weight_filler {
      type: "xavier"
    }
    bias_filler {
      type: "constant"
    }
  }
}
layer {
  name: "relu1"
  type: "ReLU"
  bottom: "ip1"
  top: "ip1"
}
layer {
  name: "ip2"
  type: "InnerProduct"
  bottom: "ip1"
  top: "ip2"
  param {
    lr_mult: 1
  }
  param {
    lr_mult: 2
  }
  inner_product_param {
    num_output: 50
    weight_filler {
      type: "xavier"
    }
    bias_filler {
      type: "constant"
    }
  }
}
layer {
  name: "relu2"
  type: "ReLU"
  bottom: "ip2"
  top: "ip2"
}
layer {
  name: "ip3"
  type: "InnerProduct"
  bottom: "ip2"
  top: "ip3"
  param {
    lr_mult: 1
  }
  param {
    lr_mult: 2
  }
  inner_product_param {
    num_output: 10
    weight_filler {
      type: "xavier"
    }
    bias_filler {
      type: "constant"
    }
  }
}
layer {
  name: "relu3"
  type: "ReLU"
  bottom: "ip3"
  top: "ip3"
}
layer {
  name: "loss"
  type: "SoftmaxWithLoss"
  bottom: "ip3"
  bottom: "label"
  top: "loss"
}
I0428 20:12:57.432001 32377 layer_factory.hpp:77] Creating layer mnist
I0428 20:12:57.432082 32377 db_lmdb.cpp:35] Opened lmdb examples/mnist/mnist_train_lmdb
I0428 20:12:57.432101 32377 net.cpp:86] Creating Layer mnist
I0428 20:12:57.432108 32377 net.cpp:382] mnist -> data
I0428 20:12:57.432126 32377 net.cpp:382] mnist -> label
I0428 20:12:57.433210 32377 data_layer.cpp:45] output data size: 64,1,28,28
I0428 20:12:57.435598 32377 net.cpp:124] Setting up mnist
I0428 20:12:57.435616 32377 net.cpp:131] Top shape: 64 1 28 28 (50176)
I0428 20:12:57.435621 32377 net.cpp:131] Top shape: 64 (64)
I0428 20:12:57.435623 32377 net.cpp:139] Memory required for data: 200960
I0428 20:12:57.435631 32377 layer_factory.hpp:77] Creating layer conv0
I0428 20:12:57.435660 32377 net.cpp:86] Creating Layer conv0
I0428 20:12:57.435693 32377 net.cpp:408] conv0 <- data
I0428 20:12:57.435703 32377 net.cpp:382] conv0 -> conv0
I0428 20:12:57.665419 32377 net.cpp:124] Setting up conv0
I0428 20:12:57.665444 32377 net.cpp:131] Top shape: 64 25 24 24 (921600)
I0428 20:12:57.665448 32377 net.cpp:139] Memory required for data: 3887360
I0428 20:12:57.665462 32377 layer_factory.hpp:77] Creating layer pool0
I0428 20:12:57.665473 32377 net.cpp:86] Creating Layer pool0
I0428 20:12:57.665477 32377 net.cpp:408] pool0 <- conv0
I0428 20:12:57.665482 32377 net.cpp:382] pool0 -> pool0
I0428 20:12:57.665539 32377 net.cpp:124] Setting up pool0
I0428 20:12:57.665544 32377 net.cpp:131] Top shape: 64 25 12 12 (230400)
I0428 20:12:57.665547 32377 net.cpp:139] Memory required for data: 4808960
I0428 20:12:57.665549 32377 layer_factory.hpp:77] Creating layer conv1
I0428 20:12:57.665560 32377 net.cpp:86] Creating Layer conv1
I0428 20:12:57.665563 32377 net.cpp:408] conv1 <- pool0
I0428 20:12:57.665567 32377 net.cpp:382] conv1 -> conv1
I0428 20:12:57.667742 32377 net.cpp:124] Setting up conv1
I0428 20:12:57.667769 32377 net.cpp:131] Top shape: 64 100 8 8 (409600)
I0428 20:12:57.667773 32377 net.cpp:139] Memory required for data: 6447360
I0428 20:12:57.667781 32377 layer_factory.hpp:77] Creating layer pool1
I0428 20:12:57.667788 32377 net.cpp:86] Creating Layer pool1
I0428 20:12:57.667791 32377 net.cpp:408] pool1 <- conv1
I0428 20:12:57.667796 32377 net.cpp:382] pool1 -> pool1
I0428 20:12:57.667846 32377 net.cpp:124] Setting up pool1
I0428 20:12:57.667851 32377 net.cpp:131] Top shape: 64 100 4 4 (102400)
I0428 20:12:57.667855 32377 net.cpp:139] Memory required for data: 6856960
I0428 20:12:57.667857 32377 layer_factory.hpp:77] Creating layer ip1
I0428 20:12:57.667865 32377 net.cpp:86] Creating Layer ip1
I0428 20:12:57.667866 32377 net.cpp:408] ip1 <- pool1
I0428 20:12:57.667871 32377 net.cpp:382] ip1 -> ip1
I0428 20:12:57.668962 32377 net.cpp:124] Setting up ip1
I0428 20:12:57.668975 32377 net.cpp:131] Top shape: 64 10 (640)
I0428 20:12:57.668980 32377 net.cpp:139] Memory required for data: 6859520
I0428 20:12:57.668988 32377 layer_factory.hpp:77] Creating layer relu1
I0428 20:12:57.668995 32377 net.cpp:86] Creating Layer relu1
I0428 20:12:57.668998 32377 net.cpp:408] relu1 <- ip1
I0428 20:12:57.669003 32377 net.cpp:369] relu1 -> ip1 (in-place)
I0428 20:12:57.669222 32377 net.cpp:124] Setting up relu1
I0428 20:12:57.669232 32377 net.cpp:131] Top shape: 64 10 (640)
I0428 20:12:57.669235 32377 net.cpp:139] Memory required for data: 6862080
I0428 20:12:57.669239 32377 layer_factory.hpp:77] Creating layer ip2
I0428 20:12:57.669245 32377 net.cpp:86] Creating Layer ip2
I0428 20:12:57.669248 32377 net.cpp:408] ip2 <- ip1
I0428 20:12:57.669253 32377 net.cpp:382] ip2 -> ip2
I0428 20:12:57.669373 32377 net.cpp:124] Setting up ip2
I0428 20:12:57.669379 32377 net.cpp:131] Top shape: 64 50 (3200)
I0428 20:12:57.669383 32377 net.cpp:139] Memory required for data: 6874880
I0428 20:12:57.669387 32377 layer_factory.hpp:77] Creating layer relu2
I0428 20:12:57.669394 32377 net.cpp:86] Creating Layer relu2
I0428 20:12:57.669396 32377 net.cpp:408] relu2 <- ip2
I0428 20:12:57.669400 32377 net.cpp:369] relu2 -> ip2 (in-place)
I0428 20:12:57.670114 32377 net.cpp:124] Setting up relu2
I0428 20:12:57.670126 32377 net.cpp:131] Top shape: 64 50 (3200)
I0428 20:12:57.670145 32377 net.cpp:139] Memory required for data: 6887680
I0428 20:12:57.670148 32377 layer_factory.hpp:77] Creating layer ip3
I0428 20:12:57.670156 32377 net.cpp:86] Creating Layer ip3
I0428 20:12:57.670158 32377 net.cpp:408] ip3 <- ip2
I0428 20:12:57.670163 32377 net.cpp:382] ip3 -> ip3
I0428 20:12:57.670271 32377 net.cpp:124] Setting up ip3
I0428 20:12:57.670279 32377 net.cpp:131] Top shape: 64 10 (640)
I0428 20:12:57.670281 32377 net.cpp:139] Memory required for data: 6890240
I0428 20:12:57.670289 32377 layer_factory.hpp:77] Creating layer relu3
I0428 20:12:57.670294 32377 net.cpp:86] Creating Layer relu3
I0428 20:12:57.670296 32377 net.cpp:408] relu3 <- ip3
I0428 20:12:57.670300 32377 net.cpp:369] relu3 -> ip3 (in-place)
I0428 20:12:57.670470 32377 net.cpp:124] Setting up relu3
I0428 20:12:57.670478 32377 net.cpp:131] Top shape: 64 10 (640)
I0428 20:12:57.670482 32377 net.cpp:139] Memory required for data: 6892800
I0428 20:12:57.670485 32377 layer_factory.hpp:77] Creating layer loss
I0428 20:12:57.670490 32377 net.cpp:86] Creating Layer loss
I0428 20:12:57.670493 32377 net.cpp:408] loss <- ip3
I0428 20:12:57.670497 32377 net.cpp:408] loss <- label
I0428 20:12:57.670502 32377 net.cpp:382] loss -> loss
I0428 20:12:57.670519 32377 layer_factory.hpp:77] Creating layer loss
…
I0428 20:12:57.671123 32377 solver.cpp:173] Creating test net (#0) specified by net file: ECE595/mnist/train_test/var_everything2/lenet_train_test1190.prototxt
I0428 20:12:57.671147 32377 net.cpp:296] The NetState phase (1) differed from the phase (0) specified by a rule in layer mnist
I0428 20:12:57.671238 32377 net.cpp:53] Initializing net from parameters: 
name: "LeNet"
state {
  phase: TEST
}
layer {
  name: "mnist"
  type: "Data"
  top: "data"
  top: "label"
  include {
    phase: TEST
  }
  transform_param {
    scale: 0.00390625
  }
  data_param {
    source: "examples/mnist/mnist_test_lmdb"
    batch_size: 100
    backend: LMDB
  }
}
layer {
  name: "conv0"
  type: "Convolution"
  bottom: "data"
  top: "conv0"
  param {
    lr_mult: 1
  }
  param {
    lr_mult: 2
  }
  convolution_param {
    num_output: 25
    kernel_size: 5
    stride: 1
    weight_filler {
      type: "xavier"
    }
    bias_filler {
      type: "constant"
    }
  }
}
layer {
  name: "pool0"
  type: "Pooling"
  bottom: "conv0"
  top: "pool0"
  pooling_param {
    pool: MAX
    kernel_size: 2
    stride: 2
  }
}
layer {
  name: "conv1"
  type: "Convolution"
  bottom: "pool0"
  top: "conv1"
  param {
    lr_mult: 1
  }
  param {
    lr_mult: 2
  }
  convolution_param {
    num_output: 100
    kernel_size: 5
    stride: 1
    weight_filler {
      type: "xavier"
    }
    bias_filler {
      type: "constant"
    }
  }
}
layer {
  name: "pool1"
  type: "Pooling"
  bottom: "conv1"
  top: "pool1"
  pooling_param {
    pool: MAX
    kernel_size: 2
    stride: 2
  }
}
layer {
  name: "ip1"
  type: "InnerProduct"
  bottom: "pool1"
  top: "ip1"
  param {
    lr_mult: 1
  }
  param {
    lr_mult: 2
  }
  inner_product_param {
    num_output: 10
    weight_filler {
      type: "xavier"
    }
    bias_filler {
      type: "constant"
    }
  }
}
layer {
  name: "relu1"
  type: "ReLU"
  bottom: "ip1"
  top: "ip1"
}
layer {
  name: "ip2"
  type: "InnerProduct"
  bottom: "ip1"
  top: "ip2"
  param {
    lr_mult: 1
  }
  param {
    lr_mult: 2
  }
  inner_product_param {
    num_output: 50
    weight_filler {
      type: "xavier"
    }
    bias_filler {
      type: "constant"
    }
  }
}
layer {
  name: "relu2"
  type: "ReLU"
  bottom: "ip2"
  top: "ip2"
}
layer {
  name: "ip3"
  type: "InnerProduct"
  bottom: "ip2"
  top: "ip3"
  param {
    lr_mult: 1
  }
  param {
    lr_mult: 2
  }
  inner_product_param {
    num_output: 10
    weight_filler {
      type: "xavier"
    }
    bias_filler {
      type: "constant"
    }
  }
}
layer {
  name: "relu3"
  type: "ReLU"
  bottom: "ip3"
  top: "ip3"
}
layer {
  name: "accuracy"
  type: "Accuracy"
  bottom: "ip3"
  bottom: "label"
  top: "accuracy"
  include {
    phase: TEST
  }
}
layer {
  name: "loss"
  type: "SoftmaxWithLoss"
  bottom: "ip3"
  bottom: "label"
  top: "loss"
}
I0428 20:12:57.671329 32377 layer_factory.hpp:77] Creating layer mnist
I0428 20:12:57.671372 32377 db_lmdb.cpp:35] Opened lmdb examples/mnist/mnist_test_lmdb
I0428 20:12:57.671385 32377 net.cpp:86] Creating Layer mnist
I0428 20:12:57.671389 32377 net.cpp:382] mnist -> data
I0428 20:12:57.671396 32377 net.cpp:382] mnist -> label
I0428 20:12:57.671489 32377 data_layer.cpp:45] output data size: 100,1,28,28
I0428 20:12:57.673598 32377 net.cpp:124] Setting up mnist
I0428 20:12:57.673625 32377 net.cpp:131] Top shape: 100 1 28 28 (78400)
I0428 20:12:57.673630 32377 net.cpp:131] Top shape: 100 (100)
I0428 20:12:57.673633 32377 net.cpp:139] Memory required for data: 314000
I0428 20:12:57.673636 32377 layer_factory.hpp:77] Creating layer label_mnist_1_split
I0428 20:12:57.673681 32377 net.cpp:86] Creating Layer label_mnist_1_split
I0428 20:12:57.673686 32377 net.cpp:408] label_mnist_1_split <- label
I0428 20:12:57.673709 32377 net.cpp:382] label_mnist_1_split -> label_mnist_1_split_0
I0428 20:12:57.673717 32377 net.cpp:382] label_mnist_1_split -> label_mnist_1_split_1
I0428 20:12:57.673756 32377 net.cpp:124] Setting up label_mnist_1_split
I0428 20:12:57.673763 32377 net.cpp:131] Top shape: 100 (100)
I0428 20:12:57.673765 32377 net.cpp:131] Top shape: 100 (100)
I0428 20:12:57.673768 32377 net.cpp:139] Memory required for data: 314800
I0428 20:12:57.673771 32377 layer_factory.hpp:77] Creating layer conv0
I0428 20:12:57.673780 32377 net.cpp:86] Creating Layer conv0
I0428 20:12:57.673784 32377 net.cpp:408] conv0 <- data
I0428 20:12:57.673789 32377 net.cpp:382] conv0 -> conv0
I0428 20:12:57.675619 32377 net.cpp:124] Setting up conv0
I0428 20:12:57.675633 32377 net.cpp:131] Top shape: 100 25 24 24 (1440000)
I0428 20:12:57.675637 32377 net.cpp:139] Memory required for data: 6074800
I0428 20:12:57.675645 32377 layer_factory.hpp:77] Creating layer pool0
I0428 20:12:57.675652 32377 net.cpp:86] Creating Layer pool0
I0428 20:12:57.675654 32377 net.cpp:408] pool0 <- conv0
I0428 20:12:57.675659 32377 net.cpp:382] pool0 -> pool0
I0428 20:12:57.675694 32377 net.cpp:124] Setting up pool0
I0428 20:12:57.675699 32377 net.cpp:131] Top shape: 100 25 12 12 (360000)
I0428 20:12:57.675703 32377 net.cpp:139] Memory required for data: 7514800
I0428 20:12:57.675704 32377 layer_factory.hpp:77] Creating layer conv1
I0428 20:12:57.675714 32377 net.cpp:86] Creating Layer conv1
I0428 20:12:57.675716 32377 net.cpp:408] conv1 <- pool0
I0428 20:12:57.675721 32377 net.cpp:382] conv1 -> conv1
I0428 20:12:57.677742 32377 net.cpp:124] Setting up conv1
I0428 20:12:57.677758 32377 net.cpp:131] Top shape: 100 100 8 8 (640000)
I0428 20:12:57.677784 32377 net.cpp:139] Memory required for data: 10074800
I0428 20:12:57.677835 32377 layer_factory.hpp:77] Creating layer pool1
I0428 20:12:57.677842 32377 net.cpp:86] Creating Layer pool1
I0428 20:12:57.677860 32377 net.cpp:408] pool1 <- conv1
I0428 20:12:57.677865 32377 net.cpp:382] pool1 -> pool1
I0428 20:12:57.677901 32377 net.cpp:124] Setting up pool1
I0428 20:12:57.677907 32377 net.cpp:131] Top shape: 100 100 4 4 (160000)
I0428 20:12:57.677916 32377 net.cpp:139] Memory required for data: 10714800
I0428 20:12:57.677918 32377 layer_factory.hpp:77] Creating layer ip1
I0428 20:12:57.677924 32377 net.cpp:86] Creating Layer ip1
I0428 20:12:57.677927 32377 net.cpp:408] ip1 <- pool1
I0428 20:12:57.677932 32377 net.cpp:382] ip1 -> ip1
I0428 20:12:57.678124 32377 net.cpp:124] Setting up ip1
I0428 20:12:57.678133 32377 net.cpp:131] Top shape: 100 10 (1000)
I0428 20:12:57.678161 32377 net.cpp:139] Memory required for data: 10718800
I0428 20:12:57.678169 32377 layer_factory.hpp:77] Creating layer relu1
I0428 20:12:57.678176 32377 net.cpp:86] Creating Layer relu1
I0428 20:12:57.678179 32377 net.cpp:408] relu1 <- ip1
I0428 20:12:57.678184 32377 net.cpp:369] relu1 -> ip1 (in-place)
I0428 20:12:57.678359 32377 net.cpp:124] Setting up relu1
I0428 20:12:57.678367 32377 net.cpp:131] Top shape: 100 10 (1000)
I0428 20:12:57.678371 32377 net.cpp:139] Memory required for data: 10722800
I0428 20:12:57.678373 32377 layer_factory.hpp:77] Creating layer ip2
I0428 20:12:57.678381 32377 net.cpp:86] Creating Layer ip2
I0428 20:12:57.678385 32377 net.cpp:408] ip2 <- ip1
I0428 20:12:57.678391 32377 net.cpp:382] ip2 -> ip2
I0428 20:12:57.678493 32377 net.cpp:124] Setting up ip2
I0428 20:12:57.678500 32377 net.cpp:131] Top shape: 100 50 (5000)
I0428 20:12:57.678503 32377 net.cpp:139] Memory required for data: 10742800
I0428 20:12:57.678508 32377 layer_factory.hpp:77] Creating layer relu2
I0428 20:12:57.678513 32377 net.cpp:86] Creating Layer relu2
I0428 20:12:57.678522 32377 net.cpp:408] relu2 <- ip2
I0428 20:12:57.678526 32377 net.cpp:369] relu2 -> ip2 (in-place)
I0428 20:12:57.678726 32377 net.cpp:124] Setting up relu2
I0428 20:12:57.678735 32377 net.cpp:131] Top shape: 100 50 (5000)
I0428 20:12:57.678737 32377 net.cpp:139] Memory required for data: 10762800
I0428 20:12:57.678740 32377 layer_factory.hpp:77] Creating layer ip3
I0428 20:12:57.678745 32377 net.cpp:86] Creating Layer ip3
I0428 20:12:57.678747 32377 net.cpp:408] ip3 <- ip2
I0428 20:12:57.678753 32377 net.cpp:382] ip3 -> ip3
I0428 20:12:57.678875 32377 net.cpp:124] Setting up ip3
I0428 20:12:57.678882 32377 net.cpp:131] Top shape: 100 10 (1000)
I0428 20:12:57.678885 32377 net.cpp:139] Memory required for data: 10766800
I0428 20:12:57.678892 32377 layer_factory.hpp:77] Creating layer relu3
I0428 20:12:57.678896 32377 net.cpp:86] Creating Layer relu3
I0428 20:12:57.678900 32377 net.cpp:408] relu3 <- ip3
I0428 20:12:57.678905 32377 net.cpp:369] relu3 -> ip3 (in-place)
I0428 20:12:57.679714 32377 net.cpp:124] Setting up relu3
I0428 20:12:57.679726 32377 net.cpp:131] Top shape: 100 10 (1000)
I0428 20:12:57.679729 32377 net.cpp:139] Memory required for data: 10770800
I0428 20:12:57.679733 32377 layer_factory.hpp:77] Creating layer ip3_relu3_0_split
I0428 20:12:57.679738 32377 net.cpp:86] Creating Layer ip3_relu3_0_split
I0428 20:12:57.679740 32377 net.cpp:408] ip3_relu3_0_split <- ip3
I0428 20:12:57.679746 32377 net.cpp:382] ip3_relu3_0_split -> ip3_relu3_0_split_0
I0428 20:12:57.679759 32377 net.cpp:382] ip3_relu3_0_split -> ip3_relu3_0_split_1
I0428 20:12:57.679795 32377 net.cpp:124] Setting up ip3_relu3_0_split
I0428 20:12:57.679806 32377 net.cpp:131] Top shape: 100 10 (1000)
I0428 20:12:57.679811 32377 net.cpp:131] Top shape: 100 10 (1000)
I0428 20:12:57.679812 32377 net.cpp:139] Memory required for data: 10778800
I0428 20:12:57.679816 32377 layer_factory.hpp:77] Creating layer accuracy
I0428 20:12:57.679826 32377 net.cpp:86] Creating Layer accuracy
I0428 20:12:57.679829 32377 net.cpp:408] accuracy <- ip3_relu3_0_split_0
I0428 20:12:57.679832 32377 net.cpp:408] accuracy <- label_mnist_1_split_0
I0428 20:12:57.679838 32377 net.cpp:382] accuracy -> accuracy
…
