…
I0428 20:15:57.697726   557 net.cpp:296] The NetState phase (0) differed from the phase (1) specified by a rule in layer mnist
I0428 20:15:57.697744   557 net.cpp:296] The NetState phase (0) differed from the phase (1) specified by a rule in layer accuracy
I0428 20:15:57.697834   557 net.cpp:53] Initializing net from parameters: 
name: "LeNet"
state {
  phase: TRAIN
  level: 0
  stage: ""
}
layer {
  name: "mnist"
  type: "Data"
  top: "data"
  top: "label"
  include {
    phase: TRAIN
  }
  transform_param {
    scale: 0.00390625
  }
  data_param {
    source: "examples/mnist/mnist_train_lmdb"
    batch_size: 64
    backend: LMDB
  }
}
layer {
  name: "conv0"
  type: "Convolution"
  bottom: "data"
  top: "conv0"
  param {
    lr_mult: 1
  }
  param {
    lr_mult: 2
  }
  convolution_param {
    num_output: 50
    kernel_size: 5
    stride: 1
    weight_filler {
      type: "xavier"
    }
    bias_filler {
      type: "constant"
    }
  }
}
layer {
  name: "pool0"
  type: "Pooling"
  bottom: "conv0"
  top: "pool0"
  pooling_param {
    pool: MAX
    kernel_size: 2
    stride: 2
  }
}
layer {
  name: "conv1"
  type: "Convolution"
  bottom: "pool0"
  top: "conv1"
  param {
    lr_mult: 1
  }
  param {
    lr_mult: 2
  }
  convolution_param {
    num_output: 5
    kernel_size: 5
    stride: 1
    weight_filler {
      type: "xavier"
    }
    bias_filler {
      type: "constant"
    }
  }
}
layer {
  name: "pool1"
  type: "Pooling"
  bottom: "conv1"
  top: "pool1"
  pooling_param {
    pool: MAX
    kernel_size: 2
    stride: 2
  }
}
layer {
  name: "ip1"
  type: "InnerProduct"
  bottom: "pool1"
  top: "ip1"
  param {
    lr_mult: 1
  }
  param {
    lr_mult: 2
  }
  inner_product_param {
    num_output: 50
    weight_filler {
      type: "xavier"
    }
    bias_filler {
      type: "constant"
    }
  }
}
layer {
  name: "relu1"
  type: "ReLU"
  bottom: "ip1"
  top: "ip1"
}
layer {
  name: "ip2"
  type: "InnerProduct"
  bottom: "ip1"
  top: "ip2"
  param {
    lr_mult: 1
  }
  param {
    lr_mult: 2
  }
  inner_product_param {
    num_output: 10
    weight_filler {
      type: "xavier"
    }
    bias_filler {
      type: "constant"
    }
  }
}
layer {
  name: "relu2"
  type: "ReLU"
  bottom: "ip2"
  top: "ip2"
}
layer {
  name: "loss"
  type: "SoftmaxWithLoss"
  bottom: "ip2"
  bottom: "label"
  top: "loss"
}
I0428 20:15:57.697916   557 layer_factory.hpp:77] Creating layer mnist
I0428 20:15:57.698021   557 db_lmdb.cpp:35] Opened lmdb examples/mnist/mnist_train_lmdb
I0428 20:15:57.698047   557 net.cpp:86] Creating Layer mnist
I0428 20:15:57.698055   557 net.cpp:382] mnist -> data
I0428 20:15:57.698081   557 net.cpp:382] mnist -> label
I0428 20:15:57.699218   557 data_layer.cpp:45] output data size: 64,1,28,28
I0428 20:15:57.701807   557 net.cpp:124] Setting up mnist
I0428 20:15:57.701825   557 net.cpp:131] Top shape: 64 1 28 28 (50176)
I0428 20:15:57.701831   557 net.cpp:131] Top shape: 64 (64)
I0428 20:15:57.701836   557 net.cpp:139] Memory required for data: 200960
I0428 20:15:57.701843   557 layer_factory.hpp:77] Creating layer conv0
I0428 20:15:57.701887   557 net.cpp:86] Creating Layer conv0
I0428 20:15:57.701894   557 net.cpp:408] conv0 <- data
I0428 20:15:57.701906   557 net.cpp:382] conv0 -> conv0
I0428 20:15:57.988193   557 net.cpp:124] Setting up conv0
I0428 20:15:57.988219   557 net.cpp:131] Top shape: 64 50 24 24 (1843200)
I0428 20:15:57.988222   557 net.cpp:139] Memory required for data: 7573760
I0428 20:15:57.988255   557 layer_factory.hpp:77] Creating layer pool0
I0428 20:15:57.988270   557 net.cpp:86] Creating Layer pool0
I0428 20:15:57.988275   557 net.cpp:408] pool0 <- conv0
I0428 20:15:57.988281   557 net.cpp:382] pool0 -> pool0
I0428 20:15:57.988332   557 net.cpp:124] Setting up pool0
I0428 20:15:57.988340   557 net.cpp:131] Top shape: 64 50 12 12 (460800)
I0428 20:15:57.988343   557 net.cpp:139] Memory required for data: 9416960
I0428 20:15:57.988346   557 layer_factory.hpp:77] Creating layer conv1
I0428 20:15:57.988359   557 net.cpp:86] Creating Layer conv1
I0428 20:15:57.988364   557 net.cpp:408] conv1 <- pool0
I0428 20:15:57.988369   557 net.cpp:382] conv1 -> conv1
I0428 20:15:57.991473   557 net.cpp:124] Setting up conv1
I0428 20:15:57.991490   557 net.cpp:131] Top shape: 64 5 8 8 (20480)
I0428 20:15:57.991494   557 net.cpp:139] Memory required for data: 9498880
I0428 20:15:57.991503   557 layer_factory.hpp:77] Creating layer pool1
I0428 20:15:57.991510   557 net.cpp:86] Creating Layer pool1
I0428 20:15:57.991513   557 net.cpp:408] pool1 <- conv1
I0428 20:15:57.991520   557 net.cpp:382] pool1 -> pool1
I0428 20:15:57.991559   557 net.cpp:124] Setting up pool1
I0428 20:15:57.991569   557 net.cpp:131] Top shape: 64 5 4 4 (5120)
I0428 20:15:57.991571   557 net.cpp:139] Memory required for data: 9519360
I0428 20:15:57.991575   557 layer_factory.hpp:77] Creating layer ip1
I0428 20:15:57.991582   557 net.cpp:86] Creating Layer ip1
I0428 20:15:57.991585   557 net.cpp:408] ip1 <- pool1
I0428 20:15:57.991591   557 net.cpp:382] ip1 -> ip1
I0428 20:15:57.991725   557 net.cpp:124] Setting up ip1
I0428 20:15:57.991734   557 net.cpp:131] Top shape: 64 50 (3200)
I0428 20:15:57.991737   557 net.cpp:139] Memory required for data: 9532160
I0428 20:15:57.991745   557 layer_factory.hpp:77] Creating layer relu1
I0428 20:15:57.991750   557 net.cpp:86] Creating Layer relu1
I0428 20:15:57.991755   557 net.cpp:408] relu1 <- ip1
I0428 20:15:57.991758   557 net.cpp:369] relu1 -> ip1 (in-place)
I0428 20:15:57.991937   557 net.cpp:124] Setting up relu1
I0428 20:15:57.991947   557 net.cpp:131] Top shape: 64 50 (3200)
I0428 20:15:57.991950   557 net.cpp:139] Memory required for data: 9544960
I0428 20:15:57.991953   557 layer_factory.hpp:77] Creating layer ip2
I0428 20:15:57.991961   557 net.cpp:86] Creating Layer ip2
I0428 20:15:57.991964   557 net.cpp:408] ip2 <- ip1
I0428 20:15:57.991971   557 net.cpp:382] ip2 -> ip2
I0428 20:15:57.992074   557 net.cpp:124] Setting up ip2
I0428 20:15:57.992081   557 net.cpp:131] Top shape: 64 10 (640)
I0428 20:15:57.992084   557 net.cpp:139] Memory required for data: 9547520
I0428 20:15:57.992089   557 layer_factory.hpp:77] Creating layer relu2
I0428 20:15:57.992095   557 net.cpp:86] Creating Layer relu2
I0428 20:15:57.992100   557 net.cpp:408] relu2 <- ip2
I0428 20:15:57.992103   557 net.cpp:369] relu2 -> ip2 (in-place)
I0428 20:15:57.992871   557 net.cpp:124] Setting up relu2
I0428 20:15:57.992885   557 net.cpp:131] Top shape: 64 10 (640)
I0428 20:15:57.992889   557 net.cpp:139] Memory required for data: 9550080
I0428 20:15:57.992893   557 layer_factory.hpp:77] Creating layer loss
I0428 20:15:57.992899   557 net.cpp:86] Creating Layer loss
I0428 20:15:57.992918   557 net.cpp:408] loss <- ip2
I0428 20:15:57.992923   557 net.cpp:408] loss <- label
I0428 20:15:57.992930   557 net.cpp:382] loss -> loss
I0428 20:15:57.992947   557 layer_factory.hpp:77] Creating layer loss
…
I0428 20:15:57.993618   557 solver.cpp:173] Creating test net (#0) specified by net file: ECE595/mnist/train_test/var_everything2/lenet_train_test1259.prototxt
I0428 20:15:57.993644   557 net.cpp:296] The NetState phase (1) differed from the phase (0) specified by a rule in layer mnist
I0428 20:15:57.993729   557 net.cpp:53] Initializing net from parameters: 
name: "LeNet"
state {
  phase: TEST
}
layer {
  name: "mnist"
  type: "Data"
  top: "data"
  top: "label"
  include {
    phase: TEST
  }
  transform_param {
    scale: 0.00390625
  }
  data_param {
    source: "examples/mnist/mnist_test_lmdb"
    batch_size: 100
    backend: LMDB
  }
}
layer {
  name: "conv0"
  type: "Convolution"
  bottom: "data"
  top: "conv0"
  param {
    lr_mult: 1
  }
  param {
    lr_mult: 2
  }
  convolution_param {
    num_output: 50
    kernel_size: 5
    stride: 1
    weight_filler {
      type: "xavier"
    }
    bias_filler {
      type: "constant"
    }
  }
}
layer {
  name: "pool0"
  type: "Pooling"
  bottom: "conv0"
  top: "pool0"
  pooling_param {
    pool: MAX
    kernel_size: 2
    stride: 2
  }
}
layer {
  name: "conv1"
  type: "Convolution"
  bottom: "pool0"
  top: "conv1"
  param {
    lr_mult: 1
  }
  param {
    lr_mult: 2
  }
  convolution_param {
    num_output: 5
    kernel_size: 5
    stride: 1
    weight_filler {
      type: "xavier"
    }
    bias_filler {
      type: "constant"
    }
  }
}
layer {
  name: "pool1"
  type: "Pooling"
  bottom: "conv1"
  top: "pool1"
  pooling_param {
    pool: MAX
    kernel_size: 2
    stride: 2
  }
}
layer {
  name: "ip1"
  type: "InnerProduct"
  bottom: "pool1"
  top: "ip1"
  param {
    lr_mult: 1
  }
  param {
    lr_mult: 2
  }
  inner_product_param {
    num_output: 50
    weight_filler {
      type: "xavier"
    }
    bias_filler {
      type: "constant"
    }
  }
}
layer {
  name: "relu1"
  type: "ReLU"
  bottom: "ip1"
  top: "ip1"
}
layer {
  name: "ip2"
  type: "InnerProduct"
  bottom: "ip1"
  top: "ip2"
  param {
    lr_mult: 1
  }
  param {
    lr_mult: 2
  }
  inner_product_param {
    num_output: 10
    weight_filler {
      type: "xavier"
    }
    bias_filler {
      type: "constant"
    }
  }
}
layer {
  name: "relu2"
  type: "ReLU"
  bottom: "ip2"
  top: "ip2"
}
layer {
  name: "accuracy"
  type: "Accuracy"
  bottom: "ip2"
  bottom: "label"
  top: "accuracy"
  include {
    phase: TEST
  }
}
layer {
  name: "loss"
  type: "SoftmaxWithLoss"
  bottom: "ip2"
  bottom: "label"
  top: "loss"
}
I0428 20:15:57.993795   557 layer_factory.hpp:77] Creating layer mnist
I0428 20:15:57.993849   557 db_lmdb.cpp:35] Opened lmdb examples/mnist/mnist_test_lmdb
I0428 20:15:57.993872   557 net.cpp:86] Creating Layer mnist
I0428 20:15:57.993880   557 net.cpp:382] mnist -> data
I0428 20:15:57.993891   557 net.cpp:382] mnist -> label
I0428 20:15:57.993976   557 data_layer.cpp:45] output data size: 100,1,28,28
I0428 20:15:57.995854   557 net.cpp:124] Setting up mnist
I0428 20:15:57.995867   557 net.cpp:131] Top shape: 100 1 28 28 (78400)
I0428 20:15:57.995872   557 net.cpp:131] Top shape: 100 (100)
I0428 20:15:57.995874   557 net.cpp:139] Memory required for data: 314000
I0428 20:15:57.995878   557 layer_factory.hpp:77] Creating layer label_mnist_1_split
I0428 20:15:57.995884   557 net.cpp:86] Creating Layer label_mnist_1_split
I0428 20:15:57.995887   557 net.cpp:408] label_mnist_1_split <- label
I0428 20:15:57.995893   557 net.cpp:382] label_mnist_1_split -> label_mnist_1_split_0
I0428 20:15:57.995899   557 net.cpp:382] label_mnist_1_split -> label_mnist_1_split_1
I0428 20:15:57.995944   557 net.cpp:124] Setting up label_mnist_1_split
I0428 20:15:57.995966   557 net.cpp:131] Top shape: 100 (100)
I0428 20:15:57.995972   557 net.cpp:131] Top shape: 100 (100)
I0428 20:15:57.995977   557 net.cpp:139] Memory required for data: 314800
I0428 20:15:57.995982   557 layer_factory.hpp:77] Creating layer conv0
I0428 20:15:57.996012   557 net.cpp:86] Creating Layer conv0
I0428 20:15:57.996017   557 net.cpp:408] conv0 <- data
I0428 20:15:57.996026   557 net.cpp:382] conv0 -> conv0
I0428 20:15:57.998034   557 net.cpp:124] Setting up conv0
I0428 20:15:57.998067   557 net.cpp:131] Top shape: 100 50 24 24 (2880000)
I0428 20:15:57.998087   557 net.cpp:139] Memory required for data: 11834800
I0428 20:15:57.998102   557 layer_factory.hpp:77] Creating layer pool0
I0428 20:15:57.998112   557 net.cpp:86] Creating Layer pool0
I0428 20:15:57.998118   557 net.cpp:408] pool0 <- conv0
I0428 20:15:57.998129   557 net.cpp:382] pool0 -> pool0
I0428 20:15:57.998180   557 net.cpp:124] Setting up pool0
I0428 20:15:57.998193   557 net.cpp:131] Top shape: 100 50 12 12 (720000)
I0428 20:15:57.998199   557 net.cpp:139] Memory required for data: 14714800
I0428 20:15:57.998206   557 layer_factory.hpp:77] Creating layer conv1
I0428 20:15:57.998221   557 net.cpp:86] Creating Layer conv1
I0428 20:15:57.998226   557 net.cpp:408] conv1 <- pool0
I0428 20:15:57.998235   557 net.cpp:382] conv1 -> conv1
I0428 20:15:58.000207   557 net.cpp:124] Setting up conv1
I0428 20:15:58.000224   557 net.cpp:131] Top shape: 100 5 8 8 (32000)
I0428 20:15:58.000231   557 net.cpp:139] Memory required for data: 14842800
I0428 20:15:58.000246   557 layer_factory.hpp:77] Creating layer pool1
I0428 20:15:58.000257   557 net.cpp:86] Creating Layer pool1
I0428 20:15:58.000262   557 net.cpp:408] pool1 <- conv1
I0428 20:15:58.000269   557 net.cpp:382] pool1 -> pool1
I0428 20:15:58.000319   557 net.cpp:124] Setting up pool1
I0428 20:15:58.000339   557 net.cpp:131] Top shape: 100 5 4 4 (8000)
I0428 20:15:58.000344   557 net.cpp:139] Memory required for data: 14874800
I0428 20:15:58.000349   557 layer_factory.hpp:77] Creating layer ip1
I0428 20:15:58.000357   557 net.cpp:86] Creating Layer ip1
I0428 20:15:58.000370   557 net.cpp:408] ip1 <- pool1
I0428 20:15:58.000377   557 net.cpp:382] ip1 -> ip1
I0428 20:15:58.000560   557 net.cpp:124] Setting up ip1
I0428 20:15:58.000571   557 net.cpp:131] Top shape: 100 50 (5000)
I0428 20:15:58.000576   557 net.cpp:139] Memory required for data: 14894800
I0428 20:15:58.000587   557 layer_factory.hpp:77] Creating layer relu1
I0428 20:15:58.000596   557 net.cpp:86] Creating Layer relu1
I0428 20:15:58.000600   557 net.cpp:408] relu1 <- ip1
I0428 20:15:58.000608   557 net.cpp:369] relu1 -> ip1 (in-place)
I0428 20:15:58.000857   557 net.cpp:124] Setting up relu1
I0428 20:15:58.000888   557 net.cpp:131] Top shape: 100 50 (5000)
I0428 20:15:58.000895   557 net.cpp:139] Memory required for data: 14914800
I0428 20:15:58.000900   557 layer_factory.hpp:77] Creating layer ip2
I0428 20:15:58.000912   557 net.cpp:86] Creating Layer ip2
I0428 20:15:58.000918   557 net.cpp:408] ip2 <- ip1
I0428 20:15:58.000928   557 net.cpp:382] ip2 -> ip2
I0428 20:15:58.001092   557 net.cpp:124] Setting up ip2
I0428 20:15:58.001116   557 net.cpp:131] Top shape: 100 10 (1000)
I0428 20:15:58.001121   557 net.cpp:139] Memory required for data: 14918800
I0428 20:15:58.001130   557 layer_factory.hpp:77] Creating layer relu2
I0428 20:15:58.001137   557 net.cpp:86] Creating Layer relu2
I0428 20:15:58.001142   557 net.cpp:408] relu2 <- ip2
I0428 20:15:58.001148   557 net.cpp:369] relu2 -> ip2 (in-place)
I0428 20:15:58.001370   557 net.cpp:124] Setting up relu2
I0428 20:15:58.001382   557 net.cpp:131] Top shape: 100 10 (1000)
I0428 20:15:58.001387   557 net.cpp:139] Memory required for data: 14922800
I0428 20:15:58.001392   557 layer_factory.hpp:77] Creating layer ip2_relu2_0_split
I0428 20:15:58.001399   557 net.cpp:86] Creating Layer ip2_relu2_0_split
I0428 20:15:58.001407   557 net.cpp:408] ip2_relu2_0_split <- ip2
I0428 20:15:58.001415   557 net.cpp:382] ip2_relu2_0_split -> ip2_relu2_0_split_0
I0428 20:15:58.001437   557 net.cpp:382] ip2_relu2_0_split -> ip2_relu2_0_split_1
I0428 20:15:58.001487   557 net.cpp:124] Setting up ip2_relu2_0_split
I0428 20:15:58.001498   557 net.cpp:131] Top shape: 100 10 (1000)
I0428 20:15:58.001504   557 net.cpp:131] Top shape: 100 10 (1000)
I0428 20:15:58.001508   557 net.cpp:139] Memory required for data: 14930800
I0428 20:15:58.001513   557 layer_factory.hpp:77] Creating layer accuracy
I0428 20:15:58.001520   557 net.cpp:86] Creating Layer accuracy
I0428 20:15:58.001525   557 net.cpp:408] accuracy <- ip2_relu2_0_split_0
I0428 20:15:58.001531   557 net.cpp:408] accuracy <- label_mnist_1_split_0
I0428 20:15:58.001543   557 net.cpp:382] accuracy -> accuracy
…
