…
I0428 19:53:49.807234 27877 net.cpp:296] The NetState phase (0) differed from the phase (1) specified by a rule in layer mnist
I0428 19:53:49.807255 27877 net.cpp:296] The NetState phase (0) differed from the phase (1) specified by a rule in layer accuracy
I0428 19:53:49.807358 27877 net.cpp:53] Initializing net from parameters: 
name: "LeNet"
state {
  phase: TRAIN
  level: 0
  stage: ""
}
layer {
  name: "mnist"
  type: "Data"
  top: "data"
  top: "label"
  include {
    phase: TRAIN
  }
  transform_param {
    scale: 0.00390625
  }
  data_param {
    source: "examples/mnist/mnist_train_lmdb"
    batch_size: 64
    backend: LMDB
  }
}
layer {
  name: "conv0"
  type: "Convolution"
  bottom: "data"
  top: "conv0"
  param {
    lr_mult: 1
  }
  param {
    lr_mult: 2
  }
  convolution_param {
    num_output: 5
    kernel_size: 5
    stride: 1
    weight_filler {
      type: "xavier"
    }
    bias_filler {
      type: "constant"
    }
  }
}
layer {
  name: "pool0"
  type: "Pooling"
  bottom: "conv0"
  top: "pool0"
  pooling_param {
    pool: MAX
    kernel_size: 2
    stride: 2
  }
}
layer {
  name: "conv1"
  type: "Convolution"
  bottom: "pool0"
  top: "conv1"
  param {
    lr_mult: 1
  }
  param {
    lr_mult: 2
  }
  convolution_param {
    num_output: 50
    kernel_size: 5
    stride: 1
    weight_filler {
      type: "xavier"
    }
    bias_filler {
      type: "constant"
    }
  }
}
layer {
  name: "pool1"
  type: "Pooling"
  bottom: "conv1"
  top: "pool1"
  pooling_param {
    pool: MAX
    kernel_size: 2
    stride: 2
  }
}
layer {
  name: "ip1"
  type: "InnerProduct"
  bottom: "pool1"
  top: "ip1"
  param {
    lr_mult: 1
  }
  param {
    lr_mult: 2
  }
  inner_product_param {
    num_output: 50
    weight_filler {
      type: "xavier"
    }
    bias_filler {
      type: "constant"
    }
  }
}
layer {
  name: "relu1"
  type: "ReLU"
  bottom: "ip1"
  top: "ip1"
}
layer {
  name: "ip2"
  type: "InnerProduct"
  bottom: "ip1"
  top: "ip2"
  param {
    lr_mult: 1
  }
  param {
    lr_mult: 2
  }
  inner_product_param {
    num_output: 25
    weight_filler {
      type: "xavier"
    }
    bias_filler {
      type: "constant"
    }
  }
}
layer {
  name: "relu2"
  type: "ReLU"
  bottom: "ip2"
  top: "ip2"
}
layer {
  name: "ip3"
  type: "InnerProduct"
  bottom: "ip2"
  top: "ip3"
  param {
    lr_mult: 1
  }
  param {
    lr_mult: 2
  }
  inner_product_param {
    num_output: 10
    weight_filler {
      type: "xavier"
    }
    bias_filler {
      type: "constant"
    }
  }
}
layer {
  name: "relu3"
  type: "ReLU"
  bottom: "ip3"
  top: "ip3"
}
layer {
  name: "loss"
  type: "SoftmaxWithLoss"
  bottom: "ip3"
  bottom: "label"
  top: "loss"
}
I0428 19:53:49.807438 27877 layer_factory.hpp:77] Creating layer mnist
I0428 19:53:49.807535 27877 db_lmdb.cpp:35] Opened lmdb examples/mnist/mnist_train_lmdb
I0428 19:53:49.807557 27877 net.cpp:86] Creating Layer mnist
I0428 19:53:49.807566 27877 net.cpp:382] mnist -> data
I0428 19:53:49.807588 27877 net.cpp:382] mnist -> label
I0428 19:53:49.808676 27877 data_layer.cpp:45] output data size: 64,1,28,28
I0428 19:53:49.811174 27877 net.cpp:124] Setting up mnist
I0428 19:53:49.811192 27877 net.cpp:131] Top shape: 64 1 28 28 (50176)
I0428 19:53:49.811198 27877 net.cpp:131] Top shape: 64 (64)
I0428 19:53:49.811202 27877 net.cpp:139] Memory required for data: 200960
I0428 19:53:49.811208 27877 layer_factory.hpp:77] Creating layer conv0
I0428 19:53:49.811238 27877 net.cpp:86] Creating Layer conv0
I0428 19:53:49.811259 27877 net.cpp:408] conv0 <- data
I0428 19:53:49.811273 27877 net.cpp:382] conv0 -> conv0
I0428 19:53:50.070855 27877 net.cpp:124] Setting up conv0
I0428 19:53:50.070899 27877 net.cpp:131] Top shape: 64 5 24 24 (184320)
I0428 19:53:50.070902 27877 net.cpp:139] Memory required for data: 938240
I0428 19:53:50.070917 27877 layer_factory.hpp:77] Creating layer pool0
I0428 19:53:50.070930 27877 net.cpp:86] Creating Layer pool0
I0428 19:53:50.070933 27877 net.cpp:408] pool0 <- conv0
I0428 19:53:50.070940 27877 net.cpp:382] pool0 -> pool0
I0428 19:53:50.071022 27877 net.cpp:124] Setting up pool0
I0428 19:53:50.071043 27877 net.cpp:131] Top shape: 64 5 12 12 (46080)
I0428 19:53:50.071048 27877 net.cpp:139] Memory required for data: 1122560
I0428 19:53:50.071053 27877 layer_factory.hpp:77] Creating layer conv1
I0428 19:53:50.071068 27877 net.cpp:86] Creating Layer conv1
I0428 19:53:50.071072 27877 net.cpp:408] conv1 <- pool0
I0428 19:53:50.071079 27877 net.cpp:382] conv1 -> conv1
I0428 19:53:50.073889 27877 net.cpp:124] Setting up conv1
I0428 19:53:50.073920 27877 net.cpp:131] Top shape: 64 50 8 8 (204800)
I0428 19:53:50.073922 27877 net.cpp:139] Memory required for data: 1941760
I0428 19:53:50.073931 27877 layer_factory.hpp:77] Creating layer pool1
I0428 19:53:50.073940 27877 net.cpp:86] Creating Layer pool1
I0428 19:53:50.073943 27877 net.cpp:408] pool1 <- conv1
I0428 19:53:50.073948 27877 net.cpp:382] pool1 -> pool1
I0428 19:53:50.074000 27877 net.cpp:124] Setting up pool1
I0428 19:53:50.074007 27877 net.cpp:131] Top shape: 64 50 4 4 (51200)
I0428 19:53:50.074009 27877 net.cpp:139] Memory required for data: 2146560
I0428 19:53:50.074012 27877 layer_factory.hpp:77] Creating layer ip1
I0428 19:53:50.074019 27877 net.cpp:86] Creating Layer ip1
I0428 19:53:50.074023 27877 net.cpp:408] ip1 <- pool1
I0428 19:53:50.074028 27877 net.cpp:382] ip1 -> ip1
I0428 19:53:50.074369 27877 net.cpp:124] Setting up ip1
I0428 19:53:50.074378 27877 net.cpp:131] Top shape: 64 50 (3200)
I0428 19:53:50.074395 27877 net.cpp:139] Memory required for data: 2159360
I0428 19:53:50.074403 27877 layer_factory.hpp:77] Creating layer relu1
I0428 19:53:50.074407 27877 net.cpp:86] Creating Layer relu1
I0428 19:53:50.074411 27877 net.cpp:408] relu1 <- ip1
I0428 19:53:50.074415 27877 net.cpp:369] relu1 -> ip1 (in-place)
I0428 19:53:50.074574 27877 net.cpp:124] Setting up relu1
I0428 19:53:50.074584 27877 net.cpp:131] Top shape: 64 50 (3200)
I0428 19:53:50.074586 27877 net.cpp:139] Memory required for data: 2172160
I0428 19:53:50.074589 27877 layer_factory.hpp:77] Creating layer ip2
I0428 19:53:50.074595 27877 net.cpp:86] Creating Layer ip2
I0428 19:53:50.074599 27877 net.cpp:408] ip2 <- ip1
I0428 19:53:50.074604 27877 net.cpp:382] ip2 -> ip2
I0428 19:53:50.075557 27877 net.cpp:124] Setting up ip2
I0428 19:53:50.075569 27877 net.cpp:131] Top shape: 64 25 (1600)
I0428 19:53:50.075588 27877 net.cpp:139] Memory required for data: 2178560
I0428 19:53:50.075594 27877 layer_factory.hpp:77] Creating layer relu2
I0428 19:53:50.075618 27877 net.cpp:86] Creating Layer relu2
I0428 19:53:50.075620 27877 net.cpp:408] relu2 <- ip2
I0428 19:53:50.075625 27877 net.cpp:369] relu2 -> ip2 (in-place)
I0428 19:53:50.076396 27877 net.cpp:124] Setting up relu2
I0428 19:53:50.076408 27877 net.cpp:131] Top shape: 64 25 (1600)
I0428 19:53:50.076426 27877 net.cpp:139] Memory required for data: 2184960
I0428 19:53:50.076431 27877 layer_factory.hpp:77] Creating layer ip3
I0428 19:53:50.076437 27877 net.cpp:86] Creating Layer ip3
I0428 19:53:50.076441 27877 net.cpp:408] ip3 <- ip2
I0428 19:53:50.076447 27877 net.cpp:382] ip3 -> ip3
I0428 19:53:50.076578 27877 net.cpp:124] Setting up ip3
I0428 19:53:50.076586 27877 net.cpp:131] Top shape: 64 10 (640)
I0428 19:53:50.076591 27877 net.cpp:139] Memory required for data: 2187520
I0428 19:53:50.076598 27877 layer_factory.hpp:77] Creating layer relu3
I0428 19:53:50.076604 27877 net.cpp:86] Creating Layer relu3
I0428 19:53:50.076607 27877 net.cpp:408] relu3 <- ip3
I0428 19:53:50.076611 27877 net.cpp:369] relu3 -> ip3 (in-place)
I0428 19:53:50.076830 27877 net.cpp:124] Setting up relu3
I0428 19:53:50.076841 27877 net.cpp:131] Top shape: 64 10 (640)
I0428 19:53:50.076844 27877 net.cpp:139] Memory required for data: 2190080
I0428 19:53:50.076848 27877 layer_factory.hpp:77] Creating layer loss
I0428 19:53:50.076854 27877 net.cpp:86] Creating Layer loss
I0428 19:53:50.076858 27877 net.cpp:408] loss <- ip3
I0428 19:53:50.076863 27877 net.cpp:408] loss <- label
I0428 19:53:50.076869 27877 net.cpp:382] loss -> loss
I0428 19:53:50.076887 27877 layer_factory.hpp:77] Creating layer loss
…
I0428 19:53:50.077600 27877 solver.cpp:173] Creating test net (#0) specified by net file: ECE595/mnist/train_test/var_everything2/lenet_train_test697.prototxt
I0428 19:53:50.077642 27877 net.cpp:296] The NetState phase (1) differed from the phase (0) specified by a rule in layer mnist
I0428 19:53:50.077733 27877 net.cpp:53] Initializing net from parameters: 
name: "LeNet"
state {
  phase: TEST
}
layer {
  name: "mnist"
  type: "Data"
  top: "data"
  top: "label"
  include {
    phase: TEST
  }
  transform_param {
    scale: 0.00390625
  }
  data_param {
    source: "examples/mnist/mnist_test_lmdb"
    batch_size: 100
    backend: LMDB
  }
}
layer {
  name: "conv0"
  type: "Convolution"
  bottom: "data"
  top: "conv0"
  param {
    lr_mult: 1
  }
  param {
    lr_mult: 2
  }
  convolution_param {
    num_output: 5
    kernel_size: 5
    stride: 1
    weight_filler {
      type: "xavier"
    }
    bias_filler {
      type: "constant"
    }
  }
}
layer {
  name: "pool0"
  type: "Pooling"
  bottom: "conv0"
  top: "pool0"
  pooling_param {
    pool: MAX
    kernel_size: 2
    stride: 2
  }
}
layer {
  name: "conv1"
  type: "Convolution"
  bottom: "pool0"
  top: "conv1"
  param {
    lr_mult: 1
  }
  param {
    lr_mult: 2
  }
  convolution_param {
    num_output: 50
    kernel_size: 5
    stride: 1
    weight_filler {
      type: "xavier"
    }
    bias_filler {
      type: "constant"
    }
  }
}
layer {
  name: "pool1"
  type: "Pooling"
  bottom: "conv1"
  top: "pool1"
  pooling_param {
    pool: MAX
    kernel_size: 2
    stride: 2
  }
}
layer {
  name: "ip1"
  type: "InnerProduct"
  bottom: "pool1"
  top: "ip1"
  param {
    lr_mult: 1
  }
  param {
    lr_mult: 2
  }
  inner_product_param {
    num_output: 50
    weight_filler {
      type: "xavier"
    }
    bias_filler {
      type: "constant"
    }
  }
}
layer {
  name: "relu1"
  type: "ReLU"
  bottom: "ip1"
  top: "ip1"
}
layer {
  name: "ip2"
  type: "InnerProduct"
  bottom: "ip1"
  top: "ip2"
  param {
    lr_mult: 1
  }
  param {
    lr_mult: 2
  }
  inner_product_param {
    num_output: 25
    weight_filler {
      type: "xavier"
    }
    bias_filler {
      type: "constant"
    }
  }
}
layer {
  name: "relu2"
  type: "ReLU"
  bottom: "ip2"
  top: "ip2"
}
layer {
  name: "ip3"
  type: "InnerProduct"
  bottom: "ip2"
  top: "ip3"
  param {
    lr_mult: 1
  }
  param {
    lr_mult: 2
  }
  inner_product_param {
    num_output: 10
    weight_filler {
      type: "xavier"
    }
    bias_filler {
      type: "constant"
    }
  }
}
layer {
  name: "relu3"
  type: "ReLU"
  bottom: "ip3"
  top: "ip3"
}
layer {
  name: "accuracy"
  type: "Accuracy"
  bottom: "ip3"
  bottom: "label"
  top: "accuracy"
  include {
    phase: TEST
  }
}
layer {
  name: "loss"
  type: "SoftmaxWithLoss"
  bottom: "ip3"
  bottom: "label"
  top: "loss"
}
I0428 19:53:50.077813 27877 layer_factory.hpp:77] Creating layer mnist
I0428 19:53:50.077857 27877 db_lmdb.cpp:35] Opened lmdb examples/mnist/mnist_test_lmdb
I0428 19:53:50.077872 27877 net.cpp:86] Creating Layer mnist
I0428 19:53:50.077875 27877 net.cpp:382] mnist -> data
I0428 19:53:50.077883 27877 net.cpp:382] mnist -> label
I0428 19:53:50.077970 27877 data_layer.cpp:45] output data size: 100,1,28,28
I0428 19:53:50.079952 27877 net.cpp:124] Setting up mnist
I0428 19:53:50.079979 27877 net.cpp:131] Top shape: 100 1 28 28 (78400)
I0428 19:53:50.079984 27877 net.cpp:131] Top shape: 100 (100)
I0428 19:53:50.079988 27877 net.cpp:139] Memory required for data: 314000
I0428 19:53:50.079991 27877 layer_factory.hpp:77] Creating layer label_mnist_1_split
I0428 19:53:50.079998 27877 net.cpp:86] Creating Layer label_mnist_1_split
I0428 19:53:50.080001 27877 net.cpp:408] label_mnist_1_split <- label
I0428 19:53:50.080005 27877 net.cpp:382] label_mnist_1_split -> label_mnist_1_split_0
I0428 19:53:50.080011 27877 net.cpp:382] label_mnist_1_split -> label_mnist_1_split_1
I0428 19:53:50.080076 27877 net.cpp:124] Setting up label_mnist_1_split
I0428 19:53:50.080081 27877 net.cpp:131] Top shape: 100 (100)
I0428 19:53:50.080085 27877 net.cpp:131] Top shape: 100 (100)
I0428 19:53:50.080088 27877 net.cpp:139] Memory required for data: 314800
I0428 19:53:50.080091 27877 layer_factory.hpp:77] Creating layer conv0
I0428 19:53:50.080099 27877 net.cpp:86] Creating Layer conv0
I0428 19:53:50.080102 27877 net.cpp:408] conv0 <- data
I0428 19:53:50.080107 27877 net.cpp:382] conv0 -> conv0
I0428 19:53:50.081924 27877 net.cpp:124] Setting up conv0
I0428 19:53:50.081938 27877 net.cpp:131] Top shape: 100 5 24 24 (288000)
I0428 19:53:50.081943 27877 net.cpp:139] Memory required for data: 1466800
I0428 19:53:50.081951 27877 layer_factory.hpp:77] Creating layer pool0
I0428 19:53:50.081957 27877 net.cpp:86] Creating Layer pool0
I0428 19:53:50.081976 27877 net.cpp:408] pool0 <- conv0
I0428 19:53:50.081981 27877 net.cpp:382] pool0 -> pool0
I0428 19:53:50.082016 27877 net.cpp:124] Setting up pool0
I0428 19:53:50.082021 27877 net.cpp:131] Top shape: 100 5 12 12 (72000)
I0428 19:53:50.082025 27877 net.cpp:139] Memory required for data: 1754800
I0428 19:53:50.082027 27877 layer_factory.hpp:77] Creating layer conv1
I0428 19:53:50.082036 27877 net.cpp:86] Creating Layer conv1
I0428 19:53:50.082039 27877 net.cpp:408] conv1 <- pool0
I0428 19:53:50.082044 27877 net.cpp:382] conv1 -> conv1
I0428 19:53:50.083541 27877 net.cpp:124] Setting up conv1
I0428 19:53:50.083556 27877 net.cpp:131] Top shape: 100 50 8 8 (320000)
I0428 19:53:50.083560 27877 net.cpp:139] Memory required for data: 3034800
I0428 19:53:50.083575 27877 layer_factory.hpp:77] Creating layer pool1
I0428 19:53:50.083581 27877 net.cpp:86] Creating Layer pool1
I0428 19:53:50.083585 27877 net.cpp:408] pool1 <- conv1
I0428 19:53:50.083590 27877 net.cpp:382] pool1 -> pool1
I0428 19:53:50.083629 27877 net.cpp:124] Setting up pool1
I0428 19:53:50.083634 27877 net.cpp:131] Top shape: 100 50 4 4 (80000)
I0428 19:53:50.083637 27877 net.cpp:139] Memory required for data: 3354800
I0428 19:53:50.083667 27877 layer_factory.hpp:77] Creating layer ip1
I0428 19:53:50.083673 27877 net.cpp:86] Creating Layer ip1
I0428 19:53:50.083685 27877 net.cpp:408] ip1 <- pool1
I0428 19:53:50.083690 27877 net.cpp:382] ip1 -> ip1
I0428 19:53:50.084051 27877 net.cpp:124] Setting up ip1
I0428 19:53:50.084060 27877 net.cpp:131] Top shape: 100 50 (5000)
I0428 19:53:50.084080 27877 net.cpp:139] Memory required for data: 3374800
I0428 19:53:50.084089 27877 layer_factory.hpp:77] Creating layer relu1
I0428 19:53:50.084095 27877 net.cpp:86] Creating Layer relu1
I0428 19:53:50.084098 27877 net.cpp:408] relu1 <- ip1
I0428 19:53:50.084102 27877 net.cpp:369] relu1 -> ip1 (in-place)
I0428 19:53:50.084275 27877 net.cpp:124] Setting up relu1
I0428 19:53:50.084283 27877 net.cpp:131] Top shape: 100 50 (5000)
I0428 19:53:50.084286 27877 net.cpp:139] Memory required for data: 3394800
I0428 19:53:50.084290 27877 layer_factory.hpp:77] Creating layer ip2
I0428 19:53:50.084296 27877 net.cpp:86] Creating Layer ip2
I0428 19:53:50.084300 27877 net.cpp:408] ip2 <- ip1
I0428 19:53:50.084306 27877 net.cpp:382] ip2 -> ip2
I0428 19:53:50.084414 27877 net.cpp:124] Setting up ip2
I0428 19:53:50.084422 27877 net.cpp:131] Top shape: 100 25 (2500)
I0428 19:53:50.084426 27877 net.cpp:139] Memory required for data: 3404800
I0428 19:53:50.084437 27877 layer_factory.hpp:77] Creating layer relu2
I0428 19:53:50.084442 27877 net.cpp:86] Creating Layer relu2
I0428 19:53:50.084445 27877 net.cpp:408] relu2 <- ip2
I0428 19:53:50.084450 27877 net.cpp:369] relu2 -> ip2 (in-place)
I0428 19:53:50.084611 27877 net.cpp:124] Setting up relu2
I0428 19:53:50.084619 27877 net.cpp:131] Top shape: 100 25 (2500)
I0428 19:53:50.084622 27877 net.cpp:139] Memory required for data: 3414800
I0428 19:53:50.084625 27877 layer_factory.hpp:77] Creating layer ip3
I0428 19:53:50.084630 27877 net.cpp:86] Creating Layer ip3
I0428 19:53:50.084633 27877 net.cpp:408] ip3 <- ip2
I0428 19:53:50.084638 27877 net.cpp:382] ip3 -> ip3
I0428 19:53:50.084745 27877 net.cpp:124] Setting up ip3
I0428 19:53:50.084753 27877 net.cpp:131] Top shape: 100 10 (1000)
I0428 19:53:50.084755 27877 net.cpp:139] Memory required for data: 3418800
I0428 19:53:50.084764 27877 layer_factory.hpp:77] Creating layer relu3
I0428 19:53:50.084767 27877 net.cpp:86] Creating Layer relu3
I0428 19:53:50.084770 27877 net.cpp:408] relu3 <- ip3
I0428 19:53:50.084775 27877 net.cpp:369] relu3 -> ip3 (in-place)
I0428 19:53:50.085718 27877 net.cpp:124] Setting up relu3
I0428 19:53:50.085741 27877 net.cpp:131] Top shape: 100 10 (1000)
I0428 19:53:50.085746 27877 net.cpp:139] Memory required for data: 3422800
I0428 19:53:50.085749 27877 layer_factory.hpp:77] Creating layer ip3_relu3_0_split
I0428 19:53:50.085754 27877 net.cpp:86] Creating Layer ip3_relu3_0_split
I0428 19:53:50.085758 27877 net.cpp:408] ip3_relu3_0_split <- ip3
I0428 19:53:50.085763 27877 net.cpp:382] ip3_relu3_0_split -> ip3_relu3_0_split_0
I0428 19:53:50.085769 27877 net.cpp:382] ip3_relu3_0_split -> ip3_relu3_0_split_1
I0428 19:53:50.085806 27877 net.cpp:124] Setting up ip3_relu3_0_split
I0428 19:53:50.085811 27877 net.cpp:131] Top shape: 100 10 (1000)
I0428 19:53:50.085815 27877 net.cpp:131] Top shape: 100 10 (1000)
I0428 19:53:50.085819 27877 net.cpp:139] Memory required for data: 3430800
I0428 19:53:50.085821 27877 layer_factory.hpp:77] Creating layer accuracy
I0428 19:53:50.085831 27877 net.cpp:86] Creating Layer accuracy
I0428 19:53:50.085834 27877 net.cpp:408] accuracy <- ip3_relu3_0_split_0
I0428 19:53:50.085839 27877 net.cpp:408] accuracy <- label_mnist_1_split_0
I0428 19:53:50.085844 27877 net.cpp:382] accuracy -> accuracy
…
