…
I0428 19:30:37.160537 22339 net.cpp:296] The NetState phase (0) differed from the phase (1) specified by a rule in layer mnist
I0428 19:30:37.160550 22339 net.cpp:296] The NetState phase (0) differed from the phase (1) specified by a rule in layer accuracy
I0428 19:30:37.160640 22339 net.cpp:53] Initializing net from parameters: 
name: "LeNet"
state {
  phase: TRAIN
  level: 0
  stage: ""
}
layer {
  name: "mnist"
  type: "Data"
  top: "data"
  top: "label"
  include {
    phase: TRAIN
  }
  transform_param {
    scale: 0.00390625
  }
  data_param {
    source: "examples/mnist/mnist_train_lmdb"
    batch_size: 64
    backend: LMDB
  }
}
layer {
  name: "conv0"
  type: "Convolution"
  bottom: "data"
  top: "conv0"
  param {
    lr_mult: 1
  }
  param {
    lr_mult: 2
  }
  convolution_param {
    num_output: 5
    kernel_size: 5
    stride: 1
    weight_filler {
      type: "xavier"
    }
    bias_filler {
      type: "constant"
    }
  }
}
layer {
  name: "pool0"
  type: "Pooling"
  bottom: "conv0"
  top: "pool0"
  pooling_param {
    pool: MAX
    kernel_size: 2
    stride: 2
  }
}
layer {
  name: "ip1"
  type: "InnerProduct"
  bottom: "pool0"
  top: "ip1"
  param {
    lr_mult: 1
  }
  param {
    lr_mult: 2
  }
  inner_product_param {
    num_output: 10
    weight_filler {
      type: "xavier"
    }
    bias_filler {
      type: "constant"
    }
  }
}
layer {
  name: "relu1"
  type: "ReLU"
  bottom: "ip1"
  top: "ip1"
}
layer {
  name: "ip2"
  type: "InnerProduct"
  bottom: "ip1"
  top: "ip2"
  param {
    lr_mult: 1
  }
  param {
    lr_mult: 2
  }
  inner_product_param {
    num_output: 50
    weight_filler {
      type: "xavier"
    }
    bias_filler {
      type: "constant"
    }
  }
}
layer {
  name: "relu2"
  type: "ReLU"
  bottom: "ip2"
  top: "ip2"
}
layer {
  name: "ip3"
  type: "InnerProduct"
  bottom: "ip2"
  top: "ip3"
  param {
    lr_mult: 1
  }
  param {
    lr_mult: 2
  }
  inner_product_param {
    num_output: 10
    weight_filler {
      type: "xavier"
    }
    bias_filler {
      type: "constant"
    }
  }
}
layer {
  name: "relu3"
  type: "ReLU"
  bottom: "ip3"
  top: "ip3"
}
layer {
  name: "loss"
  type: "SoftmaxWithLoss"
  bottom: "ip3"
  bottom: "label"
  top: "loss"
}
I0428 19:30:37.160704 22339 layer_factory.hpp:77] Creating layer mnist
I0428 19:30:37.160790 22339 db_lmdb.cpp:35] Opened lmdb examples/mnist/mnist_train_lmdb
I0428 19:30:37.160833 22339 net.cpp:86] Creating Layer mnist
I0428 19:30:37.160841 22339 net.cpp:382] mnist -> data
I0428 19:30:37.160863 22339 net.cpp:382] mnist -> label
I0428 19:30:37.161903 22339 data_layer.cpp:45] output data size: 64,1,28,28
I0428 19:30:37.164381 22339 net.cpp:124] Setting up mnist
I0428 19:30:37.164420 22339 net.cpp:131] Top shape: 64 1 28 28 (50176)
I0428 19:30:37.164425 22339 net.cpp:131] Top shape: 64 (64)
I0428 19:30:37.164429 22339 net.cpp:139] Memory required for data: 200960
I0428 19:30:37.164435 22339 layer_factory.hpp:77] Creating layer conv0
I0428 19:30:37.164449 22339 net.cpp:86] Creating Layer conv0
I0428 19:30:37.164454 22339 net.cpp:408] conv0 <- data
I0428 19:30:37.164464 22339 net.cpp:382] conv0 -> conv0
I0428 19:30:37.402707 22339 net.cpp:124] Setting up conv0
I0428 19:30:37.402750 22339 net.cpp:131] Top shape: 64 5 24 24 (184320)
I0428 19:30:37.402755 22339 net.cpp:139] Memory required for data: 938240
I0428 19:30:37.402768 22339 layer_factory.hpp:77] Creating layer pool0
I0428 19:30:37.402781 22339 net.cpp:86] Creating Layer pool0
I0428 19:30:37.402802 22339 net.cpp:408] pool0 <- conv0
I0428 19:30:37.402808 22339 net.cpp:382] pool0 -> pool0
I0428 19:30:37.402870 22339 net.cpp:124] Setting up pool0
I0428 19:30:37.402879 22339 net.cpp:131] Top shape: 64 5 12 12 (46080)
I0428 19:30:37.402882 22339 net.cpp:139] Memory required for data: 1122560
I0428 19:30:37.402886 22339 layer_factory.hpp:77] Creating layer ip1
I0428 19:30:37.402894 22339 net.cpp:86] Creating Layer ip1
I0428 19:30:37.402896 22339 net.cpp:408] ip1 <- pool0
I0428 19:30:37.402901 22339 net.cpp:382] ip1 -> ip1
I0428 19:30:37.403872 22339 net.cpp:124] Setting up ip1
I0428 19:30:37.403885 22339 net.cpp:131] Top shape: 64 10 (640)
I0428 19:30:37.403904 22339 net.cpp:139] Memory required for data: 1125120
I0428 19:30:37.403913 22339 layer_factory.hpp:77] Creating layer relu1
I0428 19:30:37.403919 22339 net.cpp:86] Creating Layer relu1
I0428 19:30:37.403923 22339 net.cpp:408] relu1 <- ip1
I0428 19:30:37.403944 22339 net.cpp:369] relu1 -> ip1 (in-place)
I0428 19:30:37.404142 22339 net.cpp:124] Setting up relu1
I0428 19:30:37.404150 22339 net.cpp:131] Top shape: 64 10 (640)
I0428 19:30:37.404155 22339 net.cpp:139] Memory required for data: 1127680
I0428 19:30:37.404157 22339 layer_factory.hpp:77] Creating layer ip2
I0428 19:30:37.404163 22339 net.cpp:86] Creating Layer ip2
I0428 19:30:37.404166 22339 net.cpp:408] ip2 <- ip1
I0428 19:30:37.404171 22339 net.cpp:382] ip2 -> ip2
I0428 19:30:37.404276 22339 net.cpp:124] Setting up ip2
I0428 19:30:37.404284 22339 net.cpp:131] Top shape: 64 50 (3200)
I0428 19:30:37.404286 22339 net.cpp:139] Memory required for data: 1140480
I0428 19:30:37.404294 22339 layer_factory.hpp:77] Creating layer relu2
I0428 19:30:37.404297 22339 net.cpp:86] Creating Layer relu2
I0428 19:30:37.404300 22339 net.cpp:408] relu2 <- ip2
I0428 19:30:37.404304 22339 net.cpp:369] relu2 -> ip2 (in-place)
I0428 19:30:37.405149 22339 net.cpp:124] Setting up relu2
I0428 19:30:37.405161 22339 net.cpp:131] Top shape: 64 50 (3200)
I0428 19:30:37.405180 22339 net.cpp:139] Memory required for data: 1153280
I0428 19:30:37.405184 22339 layer_factory.hpp:77] Creating layer ip3
I0428 19:30:37.405190 22339 net.cpp:86] Creating Layer ip3
I0428 19:30:37.405194 22339 net.cpp:408] ip3 <- ip2
I0428 19:30:37.405200 22339 net.cpp:382] ip3 -> ip3
I0428 19:30:37.405297 22339 net.cpp:124] Setting up ip3
I0428 19:30:37.405304 22339 net.cpp:131] Top shape: 64 10 (640)
I0428 19:30:37.405308 22339 net.cpp:139] Memory required for data: 1155840
I0428 19:30:37.405313 22339 layer_factory.hpp:77] Creating layer relu3
I0428 19:30:37.405319 22339 net.cpp:86] Creating Layer relu3
I0428 19:30:37.405323 22339 net.cpp:408] relu3 <- ip3
I0428 19:30:37.405326 22339 net.cpp:369] relu3 -> ip3 (in-place)
I0428 19:30:37.405480 22339 net.cpp:124] Setting up relu3
I0428 19:30:37.405488 22339 net.cpp:131] Top shape: 64 10 (640)
I0428 19:30:37.405491 22339 net.cpp:139] Memory required for data: 1158400
I0428 19:30:37.405494 22339 layer_factory.hpp:77] Creating layer loss
I0428 19:30:37.405499 22339 net.cpp:86] Creating Layer loss
I0428 19:30:37.405503 22339 net.cpp:408] loss <- ip3
I0428 19:30:37.405506 22339 net.cpp:408] loss <- label
I0428 19:30:37.405511 22339 net.cpp:382] loss -> loss
I0428 19:30:37.405529 22339 layer_factory.hpp:77] Creating layer loss
…
I0428 19:30:37.406129 22339 solver.cpp:173] Creating test net (#0) specified by net file: ECE595/mnist/train_test/var_everything2/lenet_train_test96.prototxt
I0428 19:30:37.406172 22339 net.cpp:296] The NetState phase (1) differed from the phase (0) specified by a rule in layer mnist
I0428 19:30:37.406253 22339 net.cpp:53] Initializing net from parameters: 
name: "LeNet"
state {
  phase: TEST
}
layer {
  name: "mnist"
  type: "Data"
  top: "data"
  top: "label"
  include {
    phase: TEST
  }
  transform_param {
    scale: 0.00390625
  }
  data_param {
    source: "examples/mnist/mnist_test_lmdb"
    batch_size: 100
    backend: LMDB
  }
}
layer {
  name: "conv0"
  type: "Convolution"
  bottom: "data"
  top: "conv0"
  param {
    lr_mult: 1
  }
  param {
    lr_mult: 2
  }
  convolution_param {
    num_output: 5
    kernel_size: 5
    stride: 1
    weight_filler {
      type: "xavier"
    }
    bias_filler {
      type: "constant"
    }
  }
}
layer {
  name: "pool0"
  type: "Pooling"
  bottom: "conv0"
  top: "pool0"
  pooling_param {
    pool: MAX
    kernel_size: 2
    stride: 2
  }
}
layer {
  name: "ip1"
  type: "InnerProduct"
  bottom: "pool0"
  top: "ip1"
  param {
    lr_mult: 1
  }
  param {
    lr_mult: 2
  }
  inner_product_param {
    num_output: 10
    weight_filler {
      type: "xavier"
    }
    bias_filler {
      type: "constant"
    }
  }
}
layer {
  name: "relu1"
  type: "ReLU"
  bottom: "ip1"
  top: "ip1"
}
layer {
  name: "ip2"
  type: "InnerProduct"
  bottom: "ip1"
  top: "ip2"
  param {
    lr_mult: 1
  }
  param {
    lr_mult: 2
  }
  inner_product_param {
    num_output: 50
    weight_filler {
      type: "xavier"
    }
    bias_filler {
      type: "constant"
    }
  }
}
layer {
  name: "relu2"
  type: "ReLU"
  bottom: "ip2"
  top: "ip2"
}
layer {
  name: "ip3"
  type: "InnerProduct"
  bottom: "ip2"
  top: "ip3"
  param {
    lr_mult: 1
  }
  param {
    lr_mult: 2
  }
  inner_product_param {
    num_output: 10
    weight_filler {
      type: "xavier"
    }
    bias_filler {
      type: "constant"
    }
  }
}
layer {
  name: "relu3"
  type: "ReLU"
  bottom: "ip3"
  top: "ip3"
}
layer {
  name: "accuracy"
  type: "Accuracy"
  bottom: "ip3"
  bottom: "label"
  top: "accuracy"
  include {
    phase: TEST
  }
}
layer {
  name: "loss"
  type: "SoftmaxWithLoss"
  bottom: "ip3"
  bottom: "label"
  top: "loss"
}
I0428 19:30:37.406314 22339 layer_factory.hpp:77] Creating layer mnist
I0428 19:30:37.406373 22339 db_lmdb.cpp:35] Opened lmdb examples/mnist/mnist_test_lmdb
I0428 19:30:37.406385 22339 net.cpp:86] Creating Layer mnist
I0428 19:30:37.406389 22339 net.cpp:382] mnist -> data
I0428 19:30:37.406397 22339 net.cpp:382] mnist -> label
I0428 19:30:37.406491 22339 data_layer.cpp:45] output data size: 100,1,28,28
I0428 19:30:37.408486 22339 net.cpp:124] Setting up mnist
I0428 19:30:37.408499 22339 net.cpp:131] Top shape: 100 1 28 28 (78400)
I0428 19:30:37.408504 22339 net.cpp:131] Top shape: 100 (100)
I0428 19:30:37.408524 22339 net.cpp:139] Memory required for data: 314000
I0428 19:30:37.408527 22339 layer_factory.hpp:77] Creating layer label_mnist_1_split
I0428 19:30:37.408535 22339 net.cpp:86] Creating Layer label_mnist_1_split
I0428 19:30:37.408538 22339 net.cpp:408] label_mnist_1_split <- label
I0428 19:30:37.408543 22339 net.cpp:382] label_mnist_1_split -> label_mnist_1_split_0
I0428 19:30:37.408550 22339 net.cpp:382] label_mnist_1_split -> label_mnist_1_split_1
I0428 19:30:37.408645 22339 net.cpp:124] Setting up label_mnist_1_split
I0428 19:30:37.408653 22339 net.cpp:131] Top shape: 100 (100)
I0428 19:30:37.408671 22339 net.cpp:131] Top shape: 100 (100)
I0428 19:30:37.408674 22339 net.cpp:139] Memory required for data: 314800
I0428 19:30:37.408687 22339 layer_factory.hpp:77] Creating layer conv0
I0428 19:30:37.408697 22339 net.cpp:86] Creating Layer conv0
I0428 19:30:37.408701 22339 net.cpp:408] conv0 <- data
I0428 19:30:37.408706 22339 net.cpp:382] conv0 -> conv0
I0428 19:30:37.410337 22339 net.cpp:124] Setting up conv0
I0428 19:30:37.410367 22339 net.cpp:131] Top shape: 100 5 24 24 (288000)
I0428 19:30:37.410372 22339 net.cpp:139] Memory required for data: 1466800
I0428 19:30:37.410382 22339 layer_factory.hpp:77] Creating layer pool0
I0428 19:30:37.410389 22339 net.cpp:86] Creating Layer pool0
I0428 19:30:37.410392 22339 net.cpp:408] pool0 <- conv0
I0428 19:30:37.410396 22339 net.cpp:382] pool0 -> pool0
I0428 19:30:37.410437 22339 net.cpp:124] Setting up pool0
I0428 19:30:37.410444 22339 net.cpp:131] Top shape: 100 5 12 12 (72000)
I0428 19:30:37.410446 22339 net.cpp:139] Memory required for data: 1754800
I0428 19:30:37.410449 22339 layer_factory.hpp:77] Creating layer ip1
I0428 19:30:37.410455 22339 net.cpp:86] Creating Layer ip1
I0428 19:30:37.410459 22339 net.cpp:408] ip1 <- pool0
I0428 19:30:37.410466 22339 net.cpp:382] ip1 -> ip1
I0428 19:30:37.410650 22339 net.cpp:124] Setting up ip1
I0428 19:30:37.410660 22339 net.cpp:131] Top shape: 100 10 (1000)
I0428 19:30:37.410662 22339 net.cpp:139] Memory required for data: 1758800
I0428 19:30:37.410670 22339 layer_factory.hpp:77] Creating layer relu1
I0428 19:30:37.410676 22339 net.cpp:86] Creating Layer relu1
I0428 19:30:37.410681 22339 net.cpp:408] relu1 <- ip1
I0428 19:30:37.410686 22339 net.cpp:369] relu1 -> ip1 (in-place)
I0428 19:30:37.410866 22339 net.cpp:124] Setting up relu1
I0428 19:30:37.410873 22339 net.cpp:131] Top shape: 100 10 (1000)
I0428 19:30:37.410878 22339 net.cpp:139] Memory required for data: 1762800
I0428 19:30:37.410881 22339 layer_factory.hpp:77] Creating layer ip2
I0428 19:30:37.410887 22339 net.cpp:86] Creating Layer ip2
I0428 19:30:37.410890 22339 net.cpp:408] ip2 <- ip1
I0428 19:30:37.410897 22339 net.cpp:382] ip2 -> ip2
I0428 19:30:37.411008 22339 net.cpp:124] Setting up ip2
I0428 19:30:37.411015 22339 net.cpp:131] Top shape: 100 50 (5000)
I0428 19:30:37.411018 22339 net.cpp:139] Memory required for data: 1782800
I0428 19:30:37.411026 22339 layer_factory.hpp:77] Creating layer relu2
I0428 19:30:37.411031 22339 net.cpp:86] Creating Layer relu2
I0428 19:30:37.411034 22339 net.cpp:408] relu2 <- ip2
I0428 19:30:37.411038 22339 net.cpp:369] relu2 -> ip2 (in-place)
I0428 19:30:37.411949 22339 net.cpp:124] Setting up relu2
I0428 19:30:37.411978 22339 net.cpp:131] Top shape: 100 50 (5000)
I0428 19:30:37.411980 22339 net.cpp:139] Memory required for data: 1802800
I0428 19:30:37.411983 22339 layer_factory.hpp:77] Creating layer ip3
I0428 19:30:37.411991 22339 net.cpp:86] Creating Layer ip3
I0428 19:30:37.411999 22339 net.cpp:408] ip3 <- ip2
I0428 19:30:37.412006 22339 net.cpp:382] ip3 -> ip3
I0428 19:30:37.412117 22339 net.cpp:124] Setting up ip3
I0428 19:30:37.412124 22339 net.cpp:131] Top shape: 100 10 (1000)
I0428 19:30:37.412127 22339 net.cpp:139] Memory required for data: 1806800
I0428 19:30:37.412133 22339 layer_factory.hpp:77] Creating layer relu3
I0428 19:30:37.412137 22339 net.cpp:86] Creating Layer relu3
I0428 19:30:37.412140 22339 net.cpp:408] relu3 <- ip3
I0428 19:30:37.412147 22339 net.cpp:369] relu3 -> ip3 (in-place)
I0428 19:30:37.412304 22339 net.cpp:124] Setting up relu3
I0428 19:30:37.412313 22339 net.cpp:131] Top shape: 100 10 (1000)
I0428 19:30:37.412317 22339 net.cpp:139] Memory required for data: 1810800
I0428 19:30:37.412319 22339 layer_factory.hpp:77] Creating layer ip3_relu3_0_split
I0428 19:30:37.412324 22339 net.cpp:86] Creating Layer ip3_relu3_0_split
I0428 19:30:37.412328 22339 net.cpp:408] ip3_relu3_0_split <- ip3
I0428 19:30:37.412334 22339 net.cpp:382] ip3_relu3_0_split -> ip3_relu3_0_split_0
I0428 19:30:37.412339 22339 net.cpp:382] ip3_relu3_0_split -> ip3_relu3_0_split_1
I0428 19:30:37.412379 22339 net.cpp:124] Setting up ip3_relu3_0_split
I0428 19:30:37.412386 22339 net.cpp:131] Top shape: 100 10 (1000)
I0428 19:30:37.412390 22339 net.cpp:131] Top shape: 100 10 (1000)
I0428 19:30:37.412402 22339 net.cpp:139] Memory required for data: 1818800
I0428 19:30:37.412405 22339 layer_factory.hpp:77] Creating layer accuracy
I0428 19:30:37.412413 22339 net.cpp:86] Creating Layer accuracy
I0428 19:30:37.412417 22339 net.cpp:408] accuracy <- ip3_relu3_0_split_0
I0428 19:30:37.412421 22339 net.cpp:408] accuracy <- label_mnist_1_split_0
I0428 19:30:37.412431 22339 net.cpp:382] accuracy -> accuracy
…
