…
I0428 19:48:26.355067 26480 net.cpp:296] The NetState phase (0) differed from the phase (1) specified by a rule in layer mnist
I0428 19:48:26.355085 26480 net.cpp:296] The NetState phase (0) differed from the phase (1) specified by a rule in layer accuracy
I0428 19:48:26.355190 26480 net.cpp:53] Initializing net from parameters: 
name: "LeNet"
state {
  phase: TRAIN
  level: 0
  stage: ""
}
layer {
  name: "mnist"
  type: "Data"
  top: "data"
  top: "label"
  include {
    phase: TRAIN
  }
  transform_param {
    scale: 0.00390625
  }
  data_param {
    source: "examples/mnist/mnist_train_lmdb"
    batch_size: 64
    backend: LMDB
  }
}
layer {
  name: "conv0"
  type: "Convolution"
  bottom: "data"
  top: "conv0"
  param {
    lr_mult: 1
  }
  param {
    lr_mult: 2
  }
  convolution_param {
    num_output: 5
    kernel_size: 5
    stride: 1
    weight_filler {
      type: "xavier"
    }
    bias_filler {
      type: "constant"
    }
  }
}
layer {
  name: "pool0"
  type: "Pooling"
  bottom: "conv0"
  top: "pool0"
  pooling_param {
    pool: MAX
    kernel_size: 2
    stride: 2
  }
}
layer {
  name: "conv1"
  type: "Convolution"
  bottom: "pool0"
  top: "conv1"
  param {
    lr_mult: 1
  }
  param {
    lr_mult: 2
  }
  convolution_param {
    num_output: 2
    kernel_size: 5
    stride: 1
    weight_filler {
      type: "xavier"
    }
    bias_filler {
      type: "constant"
    }
  }
}
layer {
  name: "pool1"
  type: "Pooling"
  bottom: "conv1"
  top: "pool1"
  pooling_param {
    pool: MAX
    kernel_size: 2
    stride: 2
  }
}
layer {
  name: "ip1"
  type: "InnerProduct"
  bottom: "pool1"
  top: "ip1"
  param {
    lr_mult: 1
  }
  param {
    lr_mult: 2
  }
  inner_product_param {
    num_output: 50
    weight_filler {
      type: "xavier"
    }
    bias_filler {
      type: "constant"
    }
  }
}
layer {
  name: "relu1"
  type: "ReLU"
  bottom: "ip1"
  top: "ip1"
}
layer {
  name: "ip2"
  type: "InnerProduct"
  bottom: "ip1"
  top: "ip2"
  param {
    lr_mult: 1
  }
  param {
    lr_mult: 2
  }
  inner_product_param {
    num_output: 50
    weight_filler {
      type: "xavier"
    }
    bias_filler {
      type: "constant"
    }
  }
}
layer {
  name: "relu2"
  type: "ReLU"
  bottom: "ip2"
  top: "ip2"
}
layer {
  name: "ip3"
  type: "InnerProduct"
  bottom: "ip2"
  top: "ip3"
  param {
    lr_mult: 1
  }
  param {
    lr_mult: 2
  }
  inner_product_param {
    num_output: 10
    weight_filler {
      type: "xavier"
    }
    bias_filler {
      type: "constant"
    }
  }
}
layer {
  name: "relu3"
  type: "ReLU"
  bottom: "ip3"
  top: "ip3"
}
layer {
  name: "loss"
  type: "SoftmaxWithLoss"
  bottom: "ip3"
  bottom: "label"
  top: "loss"
}
I0428 19:48:26.355268 26480 layer_factory.hpp:77] Creating layer mnist
I0428 19:48:26.355368 26480 db_lmdb.cpp:35] Opened lmdb examples/mnist/mnist_train_lmdb
I0428 19:48:26.355391 26480 net.cpp:86] Creating Layer mnist
I0428 19:48:26.355401 26480 net.cpp:382] mnist -> data
I0428 19:48:26.355423 26480 net.cpp:382] mnist -> label
I0428 19:48:26.356513 26480 data_layer.cpp:45] output data size: 64,1,28,28
I0428 19:48:26.358995 26480 net.cpp:124] Setting up mnist
I0428 19:48:26.359026 26480 net.cpp:131] Top shape: 64 1 28 28 (50176)
I0428 19:48:26.359033 26480 net.cpp:131] Top shape: 64 (64)
I0428 19:48:26.359036 26480 net.cpp:139] Memory required for data: 200960
I0428 19:48:26.359043 26480 layer_factory.hpp:77] Creating layer conv0
I0428 19:48:26.359061 26480 net.cpp:86] Creating Layer conv0
I0428 19:48:26.359081 26480 net.cpp:408] conv0 <- data
I0428 19:48:26.359092 26480 net.cpp:382] conv0 -> conv0
I0428 19:48:26.649222 26480 net.cpp:124] Setting up conv0
I0428 19:48:26.649253 26480 net.cpp:131] Top shape: 64 5 24 24 (184320)
I0428 19:48:26.649258 26480 net.cpp:139] Memory required for data: 938240
I0428 19:48:26.649276 26480 layer_factory.hpp:77] Creating layer pool0
I0428 19:48:26.649291 26480 net.cpp:86] Creating Layer pool0
I0428 19:48:26.649297 26480 net.cpp:408] pool0 <- conv0
I0428 19:48:26.649303 26480 net.cpp:382] pool0 -> pool0
I0428 19:48:26.649360 26480 net.cpp:124] Setting up pool0
I0428 19:48:26.649366 26480 net.cpp:131] Top shape: 64 5 12 12 (46080)
I0428 19:48:26.649370 26480 net.cpp:139] Memory required for data: 1122560
I0428 19:48:26.649374 26480 layer_factory.hpp:77] Creating layer conv1
I0428 19:48:26.649387 26480 net.cpp:86] Creating Layer conv1
I0428 19:48:26.649391 26480 net.cpp:408] conv1 <- pool0
I0428 19:48:26.649397 26480 net.cpp:382] conv1 -> conv1
I0428 19:48:26.651593 26480 net.cpp:124] Setting up conv1
I0428 19:48:26.651610 26480 net.cpp:131] Top shape: 64 2 8 8 (8192)
I0428 19:48:26.651615 26480 net.cpp:139] Memory required for data: 1155328
I0428 19:48:26.651625 26480 layer_factory.hpp:77] Creating layer pool1
I0428 19:48:26.651634 26480 net.cpp:86] Creating Layer pool1
I0428 19:48:26.651638 26480 net.cpp:408] pool1 <- conv1
I0428 19:48:26.651645 26480 net.cpp:382] pool1 -> pool1
I0428 19:48:26.651691 26480 net.cpp:124] Setting up pool1
I0428 19:48:26.651697 26480 net.cpp:131] Top shape: 64 2 4 4 (2048)
I0428 19:48:26.651701 26480 net.cpp:139] Memory required for data: 1163520
I0428 19:48:26.651705 26480 layer_factory.hpp:77] Creating layer ip1
I0428 19:48:26.651715 26480 net.cpp:86] Creating Layer ip1
I0428 19:48:26.651717 26480 net.cpp:408] ip1 <- pool1
I0428 19:48:26.651724 26480 net.cpp:382] ip1 -> ip1
I0428 19:48:26.652840 26480 net.cpp:124] Setting up ip1
I0428 19:48:26.652855 26480 net.cpp:131] Top shape: 64 50 (3200)
I0428 19:48:26.652859 26480 net.cpp:139] Memory required for data: 1176320
I0428 19:48:26.652869 26480 layer_factory.hpp:77] Creating layer relu1
I0428 19:48:26.652878 26480 net.cpp:86] Creating Layer relu1
I0428 19:48:26.652884 26480 net.cpp:408] relu1 <- ip1
I0428 19:48:26.652889 26480 net.cpp:369] relu1 -> ip1 (in-place)
I0428 19:48:26.653111 26480 net.cpp:124] Setting up relu1
I0428 19:48:26.653122 26480 net.cpp:131] Top shape: 64 50 (3200)
I0428 19:48:26.653126 26480 net.cpp:139] Memory required for data: 1189120
I0428 19:48:26.653129 26480 layer_factory.hpp:77] Creating layer ip2
I0428 19:48:26.653137 26480 net.cpp:86] Creating Layer ip2
I0428 19:48:26.653141 26480 net.cpp:408] ip2 <- ip1
I0428 19:48:26.653148 26480 net.cpp:382] ip2 -> ip2
I0428 19:48:26.653285 26480 net.cpp:124] Setting up ip2
I0428 19:48:26.653293 26480 net.cpp:131] Top shape: 64 50 (3200)
I0428 19:48:26.653296 26480 net.cpp:139] Memory required for data: 1201920
I0428 19:48:26.653303 26480 layer_factory.hpp:77] Creating layer relu2
I0428 19:48:26.653311 26480 net.cpp:86] Creating Layer relu2
I0428 19:48:26.653314 26480 net.cpp:408] relu2 <- ip2
I0428 19:48:26.653321 26480 net.cpp:369] relu2 -> ip2 (in-place)
I0428 19:48:26.654182 26480 net.cpp:124] Setting up relu2
I0428 19:48:26.654196 26480 net.cpp:131] Top shape: 64 50 (3200)
I0428 19:48:26.654201 26480 net.cpp:139] Memory required for data: 1214720
I0428 19:48:26.654206 26480 layer_factory.hpp:77] Creating layer ip3
I0428 19:48:26.654213 26480 net.cpp:86] Creating Layer ip3
I0428 19:48:26.654217 26480 net.cpp:408] ip3 <- ip2
I0428 19:48:26.654224 26480 net.cpp:382] ip3 -> ip3
I0428 19:48:26.654353 26480 net.cpp:124] Setting up ip3
I0428 19:48:26.654363 26480 net.cpp:131] Top shape: 64 10 (640)
I0428 19:48:26.654366 26480 net.cpp:139] Memory required for data: 1217280
I0428 19:48:26.654376 26480 layer_factory.hpp:77] Creating layer relu3
I0428 19:48:26.654383 26480 net.cpp:86] Creating Layer relu3
I0428 19:48:26.654386 26480 net.cpp:408] relu3 <- ip3
I0428 19:48:26.654392 26480 net.cpp:369] relu3 -> ip3 (in-place)
I0428 19:48:26.654603 26480 net.cpp:124] Setting up relu3
I0428 19:48:26.654614 26480 net.cpp:131] Top shape: 64 10 (640)
I0428 19:48:26.654618 26480 net.cpp:139] Memory required for data: 1219840
I0428 19:48:26.654623 26480 layer_factory.hpp:77] Creating layer loss
I0428 19:48:26.654630 26480 net.cpp:86] Creating Layer loss
I0428 19:48:26.654634 26480 net.cpp:408] loss <- ip3
I0428 19:48:26.654639 26480 net.cpp:408] loss <- label
I0428 19:48:26.654644 26480 net.cpp:382] loss -> loss
I0428 19:48:26.654664 26480 layer_factory.hpp:77] Creating layer loss
…
I0428 19:48:26.655429 26480 solver.cpp:173] Creating test net (#0) specified by net file: ECE595/mnist/train_test/var_everything2/lenet_train_test544.prototxt
I0428 19:48:26.655462 26480 net.cpp:296] The NetState phase (1) differed from the phase (0) specified by a rule in layer mnist
I0428 19:48:26.655572 26480 net.cpp:53] Initializing net from parameters: 
name: "LeNet"
state {
  phase: TEST
}
layer {
  name: "mnist"
  type: "Data"
  top: "data"
  top: "label"
  include {
    phase: TEST
  }
  transform_param {
    scale: 0.00390625
  }
  data_param {
    source: "examples/mnist/mnist_test_lmdb"
    batch_size: 100
    backend: LMDB
  }
}
layer {
  name: "conv0"
  type: "Convolution"
  bottom: "data"
  top: "conv0"
  param {
    lr_mult: 1
  }
  param {
    lr_mult: 2
  }
  convolution_param {
    num_output: 5
    kernel_size: 5
    stride: 1
    weight_filler {
      type: "xavier"
    }
    bias_filler {
      type: "constant"
    }
  }
}
layer {
  name: "pool0"
  type: "Pooling"
  bottom: "conv0"
  top: "pool0"
  pooling_param {
    pool: MAX
    kernel_size: 2
    stride: 2
  }
}
layer {
  name: "conv1"
  type: "Convolution"
  bottom: "pool0"
  top: "conv1"
  param {
    lr_mult: 1
  }
  param {
    lr_mult: 2
  }
  convolution_param {
    num_output: 2
    kernel_size: 5
    stride: 1
    weight_filler {
      type: "xavier"
    }
    bias_filler {
      type: "constant"
    }
  }
}
layer {
  name: "pool1"
  type: "Pooling"
  bottom: "conv1"
  top: "pool1"
  pooling_param {
    pool: MAX
    kernel_size: 2
    stride: 2
  }
}
layer {
  name: "ip1"
  type: "InnerProduct"
  bottom: "pool1"
  top: "ip1"
  param {
    lr_mult: 1
  }
  param {
    lr_mult: 2
  }
  inner_product_param {
    num_output: 50
    weight_filler {
      type: "xavier"
    }
    bias_filler {
      type: "constant"
    }
  }
}
layer {
  name: "relu1"
  type: "ReLU"
  bottom: "ip1"
  top: "ip1"
}
layer {
  name: "ip2"
  type: "InnerProduct"
  bottom: "ip1"
  top: "ip2"
  param {
    lr_mult: 1
  }
  param {
    lr_mult: 2
  }
  inner_product_param {
    num_output: 50
    weight_filler {
      type: "xavier"
    }
    bias_filler {
      type: "constant"
    }
  }
}
layer {
  name: "relu2"
  type: "ReLU"
  bottom: "ip2"
  top: "ip2"
}
layer {
  name: "ip3"
  type: "InnerProduct"
  bottom: "ip2"
  top: "ip3"
  param {
    lr_mult: 1
  }
  param {
    lr_mult: 2
  }
  inner_product_param {
    num_output: 10
    weight_filler {
      type: "xavier"
    }
    bias_filler {
      type: "constant"
    }
  }
}
layer {
  name: "relu3"
  type: "ReLU"
  bottom: "ip3"
  top: "ip3"
}
layer {
  name: "accuracy"
  type: "Accuracy"
  bottom: "ip3"
  bottom: "label"
  top: "accuracy"
  include {
    phase: TEST
  }
}
layer {
  name: "loss"
  type: "SoftmaxWithLoss"
  bottom: "ip3"
  bottom: "label"
  top: "loss"
}
I0428 19:48:26.655673 26480 layer_factory.hpp:77] Creating layer mnist
I0428 19:48:26.655725 26480 db_lmdb.cpp:35] Opened lmdb examples/mnist/mnist_test_lmdb
I0428 19:48:26.655740 26480 net.cpp:86] Creating Layer mnist
I0428 19:48:26.655746 26480 net.cpp:382] mnist -> data
I0428 19:48:26.655755 26480 net.cpp:382] mnist -> label
I0428 19:48:26.655858 26480 data_layer.cpp:45] output data size: 100,1,28,28
I0428 19:48:26.658076 26480 net.cpp:124] Setting up mnist
I0428 19:48:26.658092 26480 net.cpp:131] Top shape: 100 1 28 28 (78400)
I0428 19:48:26.658099 26480 net.cpp:131] Top shape: 100 (100)
I0428 19:48:26.658102 26480 net.cpp:139] Memory required for data: 314000
I0428 19:48:26.658107 26480 layer_factory.hpp:77] Creating layer label_mnist_1_split
I0428 19:48:26.658121 26480 net.cpp:86] Creating Layer label_mnist_1_split
I0428 19:48:26.658125 26480 net.cpp:408] label_mnist_1_split <- label
I0428 19:48:26.658144 26480 net.cpp:382] label_mnist_1_split -> label_mnist_1_split_0
I0428 19:48:26.658154 26480 net.cpp:382] label_mnist_1_split -> label_mnist_1_split_1
I0428 19:48:26.658215 26480 net.cpp:124] Setting up label_mnist_1_split
I0428 19:48:26.658234 26480 net.cpp:131] Top shape: 100 (100)
I0428 19:48:26.658239 26480 net.cpp:131] Top shape: 100 (100)
I0428 19:48:26.658242 26480 net.cpp:139] Memory required for data: 314800
I0428 19:48:26.658246 26480 layer_factory.hpp:77] Creating layer conv0
I0428 19:48:26.658258 26480 net.cpp:86] Creating Layer conv0
I0428 19:48:26.658262 26480 net.cpp:408] conv0 <- data
I0428 19:48:26.658268 26480 net.cpp:382] conv0 -> conv0
I0428 19:48:26.660238 26480 net.cpp:124] Setting up conv0
I0428 19:48:26.660256 26480 net.cpp:131] Top shape: 100 5 24 24 (288000)
I0428 19:48:26.660261 26480 net.cpp:139] Memory required for data: 1466800
I0428 19:48:26.660271 26480 layer_factory.hpp:77] Creating layer pool0
I0428 19:48:26.660279 26480 net.cpp:86] Creating Layer pool0
I0428 19:48:26.660284 26480 net.cpp:408] pool0 <- conv0
I0428 19:48:26.660292 26480 net.cpp:382] pool0 -> pool0
I0428 19:48:26.660338 26480 net.cpp:124] Setting up pool0
I0428 19:48:26.660346 26480 net.cpp:131] Top shape: 100 5 12 12 (72000)
I0428 19:48:26.660348 26480 net.cpp:139] Memory required for data: 1754800
I0428 19:48:26.660352 26480 layer_factory.hpp:77] Creating layer conv1
I0428 19:48:26.660364 26480 net.cpp:86] Creating Layer conv1
I0428 19:48:26.660368 26480 net.cpp:408] conv1 <- pool0
I0428 19:48:26.660374 26480 net.cpp:382] conv1 -> conv1
I0428 19:48:26.662750 26480 net.cpp:124] Setting up conv1
I0428 19:48:26.662765 26480 net.cpp:131] Top shape: 100 2 8 8 (12800)
I0428 19:48:26.662770 26480 net.cpp:139] Memory required for data: 1806000
I0428 19:48:26.662781 26480 layer_factory.hpp:77] Creating layer pool1
I0428 19:48:26.662787 26480 net.cpp:86] Creating Layer pool1
I0428 19:48:26.662791 26480 net.cpp:408] pool1 <- conv1
I0428 19:48:26.662801 26480 net.cpp:382] pool1 -> pool1
I0428 19:48:26.662853 26480 net.cpp:124] Setting up pool1
I0428 19:48:26.662860 26480 net.cpp:131] Top shape: 100 2 4 4 (3200)
I0428 19:48:26.662864 26480 net.cpp:139] Memory required for data: 1818800
I0428 19:48:26.662868 26480 layer_factory.hpp:77] Creating layer ip1
I0428 19:48:26.662876 26480 net.cpp:86] Creating Layer ip1
I0428 19:48:26.662879 26480 net.cpp:408] ip1 <- pool1
I0428 19:48:26.662886 26480 net.cpp:382] ip1 -> ip1
I0428 19:48:26.663064 26480 net.cpp:124] Setting up ip1
I0428 19:48:26.663074 26480 net.cpp:131] Top shape: 100 50 (5000)
I0428 19:48:26.663090 26480 net.cpp:139] Memory required for data: 1838800
I0428 19:48:26.663100 26480 layer_factory.hpp:77] Creating layer relu1
I0428 19:48:26.663106 26480 net.cpp:86] Creating Layer relu1
I0428 19:48:26.663110 26480 net.cpp:408] relu1 <- ip1
I0428 19:48:26.663118 26480 net.cpp:369] relu1 -> ip1 (in-place)
I0428 19:48:26.663322 26480 net.cpp:124] Setting up relu1
I0428 19:48:26.663336 26480 net.cpp:131] Top shape: 100 50 (5000)
I0428 19:48:26.663341 26480 net.cpp:139] Memory required for data: 1858800
I0428 19:48:26.663344 26480 layer_factory.hpp:77] Creating layer ip2
I0428 19:48:26.663355 26480 net.cpp:86] Creating Layer ip2
I0428 19:48:26.663359 26480 net.cpp:408] ip2 <- ip1
I0428 19:48:26.663365 26480 net.cpp:382] ip2 -> ip2
I0428 19:48:26.663506 26480 net.cpp:124] Setting up ip2
I0428 19:48:26.663514 26480 net.cpp:131] Top shape: 100 50 (5000)
I0428 19:48:26.663518 26480 net.cpp:139] Memory required for data: 1878800
I0428 19:48:26.663524 26480 layer_factory.hpp:77] Creating layer relu2
I0428 19:48:26.663530 26480 net.cpp:86] Creating Layer relu2
I0428 19:48:26.663535 26480 net.cpp:408] relu2 <- ip2
I0428 19:48:26.663540 26480 net.cpp:369] relu2 -> ip2 (in-place)
I0428 19:48:26.663733 26480 net.cpp:124] Setting up relu2
I0428 19:48:26.663743 26480 net.cpp:131] Top shape: 100 50 (5000)
I0428 19:48:26.663748 26480 net.cpp:139] Memory required for data: 1898800
I0428 19:48:26.663750 26480 layer_factory.hpp:77] Creating layer ip3
I0428 19:48:26.663759 26480 net.cpp:86] Creating Layer ip3
I0428 19:48:26.663763 26480 net.cpp:408] ip3 <- ip2
I0428 19:48:26.663769 26480 net.cpp:382] ip3 -> ip3
I0428 19:48:26.663908 26480 net.cpp:124] Setting up ip3
I0428 19:48:26.663916 26480 net.cpp:131] Top shape: 100 10 (1000)
I0428 19:48:26.663919 26480 net.cpp:139] Memory required for data: 1902800
I0428 19:48:26.663928 26480 layer_factory.hpp:77] Creating layer relu3
I0428 19:48:26.663935 26480 net.cpp:86] Creating Layer relu3
I0428 19:48:26.663939 26480 net.cpp:408] relu3 <- ip3
I0428 19:48:26.663944 26480 net.cpp:369] relu3 -> ip3 (in-place)
I0428 19:48:26.664866 26480 net.cpp:124] Setting up relu3
I0428 19:48:26.664883 26480 net.cpp:131] Top shape: 100 10 (1000)
I0428 19:48:26.664887 26480 net.cpp:139] Memory required for data: 1906800
I0428 19:48:26.664892 26480 layer_factory.hpp:77] Creating layer ip3_relu3_0_split
I0428 19:48:26.664899 26480 net.cpp:86] Creating Layer ip3_relu3_0_split
I0428 19:48:26.664903 26480 net.cpp:408] ip3_relu3_0_split <- ip3
I0428 19:48:26.664908 26480 net.cpp:382] ip3_relu3_0_split -> ip3_relu3_0_split_0
I0428 19:48:26.664916 26480 net.cpp:382] ip3_relu3_0_split -> ip3_relu3_0_split_1
I0428 19:48:26.664963 26480 net.cpp:124] Setting up ip3_relu3_0_split
I0428 19:48:26.664969 26480 net.cpp:131] Top shape: 100 10 (1000)
I0428 19:48:26.664974 26480 net.cpp:131] Top shape: 100 10 (1000)
I0428 19:48:26.664978 26480 net.cpp:139] Memory required for data: 1914800
I0428 19:48:26.664981 26480 layer_factory.hpp:77] Creating layer accuracy
I0428 19:48:26.664988 26480 net.cpp:86] Creating Layer accuracy
I0428 19:48:26.664990 26480 net.cpp:408] accuracy <- ip3_relu3_0_split_0
I0428 19:48:26.664996 26480 net.cpp:408] accuracy <- label_mnist_1_split_0
I0428 19:48:26.665004 26480 net.cpp:382] accuracy -> accuracy
…
