…
I0428 20:09:12.655555 31575 net.cpp:296] The NetState phase (0) differed from the phase (1) specified by a rule in layer mnist
I0428 20:09:12.655571 31575 net.cpp:296] The NetState phase (0) differed from the phase (1) specified by a rule in layer accuracy
I0428 20:09:12.655659 31575 net.cpp:53] Initializing net from parameters: 
name: "LeNet"
state {
  phase: TRAIN
  level: 0
  stage: ""
}
layer {
  name: "mnist"
  type: "Data"
  top: "data"
  top: "label"
  include {
    phase: TRAIN
  }
  transform_param {
    scale: 0.00390625
  }
  data_param {
    source: "examples/mnist/mnist_train_lmdb"
    batch_size: 64
    backend: LMDB
  }
}
layer {
  name: "conv0"
  type: "Convolution"
  bottom: "data"
  top: "conv0"
  param {
    lr_mult: 1
  }
  param {
    lr_mult: 2
  }
  convolution_param {
    num_output: 25
    kernel_size: 5
    stride: 1
    weight_filler {
      type: "xavier"
    }
    bias_filler {
      type: "constant"
    }
  }
}
layer {
  name: "pool0"
  type: "Pooling"
  bottom: "conv0"
  top: "pool0"
  pooling_param {
    pool: MAX
    kernel_size: 2
    stride: 2
  }
}
layer {
  name: "conv1"
  type: "Convolution"
  bottom: "pool0"
  top: "conv1"
  param {
    lr_mult: 1
  }
  param {
    lr_mult: 2
  }
  convolution_param {
    num_output: 25
    kernel_size: 5
    stride: 1
    weight_filler {
      type: "xavier"
    }
    bias_filler {
      type: "constant"
    }
  }
}
layer {
  name: "pool1"
  type: "Pooling"
  bottom: "conv1"
  top: "pool1"
  pooling_param {
    pool: MAX
    kernel_size: 2
    stride: 2
  }
}
layer {
  name: "ip1"
  type: "InnerProduct"
  bottom: "pool1"
  top: "ip1"
  param {
    lr_mult: 1
  }
  param {
    lr_mult: 2
  }
  inner_product_param {
    num_output: 50
    weight_filler {
      type: "xavier"
    }
    bias_filler {
      type: "constant"
    }
  }
}
layer {
  name: "relu1"
  type: "ReLU"
  bottom: "ip1"
  top: "ip1"
}
layer {
  name: "ip2"
  type: "InnerProduct"
  bottom: "ip1"
  top: "ip2"
  param {
    lr_mult: 1
  }
  param {
    lr_mult: 2
  }
  inner_product_param {
    num_output: 10
    weight_filler {
      type: "xavier"
    }
    bias_filler {
      type: "constant"
    }
  }
}
layer {
  name: "relu2"
  type: "ReLU"
  bottom: "ip2"
  top: "ip2"
}
layer {
  name: "loss"
  type: "SoftmaxWithLoss"
  bottom: "ip2"
  bottom: "label"
  top: "loss"
}
I0428 20:09:12.655727 31575 layer_factory.hpp:77] Creating layer mnist
I0428 20:09:12.655827 31575 db_lmdb.cpp:35] Opened lmdb examples/mnist/mnist_train_lmdb
I0428 20:09:12.655850 31575 net.cpp:86] Creating Layer mnist
I0428 20:09:12.655858 31575 net.cpp:382] mnist -> data
I0428 20:09:12.655880 31575 net.cpp:382] mnist -> label
I0428 20:09:12.656973 31575 data_layer.cpp:45] output data size: 64,1,28,28
I0428 20:09:12.659412 31575 net.cpp:124] Setting up mnist
I0428 20:09:12.659430 31575 net.cpp:131] Top shape: 64 1 28 28 (50176)
I0428 20:09:12.659435 31575 net.cpp:131] Top shape: 64 (64)
I0428 20:09:12.659440 31575 net.cpp:139] Memory required for data: 200960
I0428 20:09:12.659448 31575 layer_factory.hpp:77] Creating layer conv0
I0428 20:09:12.659464 31575 net.cpp:86] Creating Layer conv0
I0428 20:09:12.659469 31575 net.cpp:408] conv0 <- data
I0428 20:09:12.659482 31575 net.cpp:382] conv0 -> conv0
I0428 20:09:12.951437 31575 net.cpp:124] Setting up conv0
I0428 20:09:12.951468 31575 net.cpp:131] Top shape: 64 25 24 24 (921600)
I0428 20:09:12.951473 31575 net.cpp:139] Memory required for data: 3887360
I0428 20:09:12.951512 31575 layer_factory.hpp:77] Creating layer pool0
I0428 20:09:12.951527 31575 net.cpp:86] Creating Layer pool0
I0428 20:09:12.951532 31575 net.cpp:408] pool0 <- conv0
I0428 20:09:12.951539 31575 net.cpp:382] pool0 -> pool0
I0428 20:09:12.951592 31575 net.cpp:124] Setting up pool0
I0428 20:09:12.951608 31575 net.cpp:131] Top shape: 64 25 12 12 (230400)
I0428 20:09:12.951612 31575 net.cpp:139] Memory required for data: 4808960
I0428 20:09:12.951617 31575 layer_factory.hpp:77] Creating layer conv1
I0428 20:09:12.951628 31575 net.cpp:86] Creating Layer conv1
I0428 20:09:12.951632 31575 net.cpp:408] conv1 <- pool0
I0428 20:09:12.951638 31575 net.cpp:382] conv1 -> conv1
I0428 20:09:12.954879 31575 net.cpp:124] Setting up conv1
I0428 20:09:12.954896 31575 net.cpp:131] Top shape: 64 25 8 8 (102400)
I0428 20:09:12.954901 31575 net.cpp:139] Memory required for data: 5218560
I0428 20:09:12.954911 31575 layer_factory.hpp:77] Creating layer pool1
I0428 20:09:12.954921 31575 net.cpp:86] Creating Layer pool1
I0428 20:09:12.954926 31575 net.cpp:408] pool1 <- conv1
I0428 20:09:12.954932 31575 net.cpp:382] pool1 -> pool1
I0428 20:09:12.954977 31575 net.cpp:124] Setting up pool1
I0428 20:09:12.954982 31575 net.cpp:131] Top shape: 64 25 4 4 (25600)
I0428 20:09:12.954987 31575 net.cpp:139] Memory required for data: 5320960
I0428 20:09:12.954990 31575 layer_factory.hpp:77] Creating layer ip1
I0428 20:09:12.954998 31575 net.cpp:86] Creating Layer ip1
I0428 20:09:12.955001 31575 net.cpp:408] ip1 <- pool1
I0428 20:09:12.955008 31575 net.cpp:382] ip1 -> ip1
I0428 20:09:12.955255 31575 net.cpp:124] Setting up ip1
I0428 20:09:12.955265 31575 net.cpp:131] Top shape: 64 50 (3200)
I0428 20:09:12.955268 31575 net.cpp:139] Memory required for data: 5333760
I0428 20:09:12.955277 31575 layer_factory.hpp:77] Creating layer relu1
I0428 20:09:12.955284 31575 net.cpp:86] Creating Layer relu1
I0428 20:09:12.955288 31575 net.cpp:408] relu1 <- ip1
I0428 20:09:12.955293 31575 net.cpp:369] relu1 -> ip1 (in-place)
I0428 20:09:12.955487 31575 net.cpp:124] Setting up relu1
I0428 20:09:12.955497 31575 net.cpp:131] Top shape: 64 50 (3200)
I0428 20:09:12.955502 31575 net.cpp:139] Memory required for data: 5346560
I0428 20:09:12.955505 31575 layer_factory.hpp:77] Creating layer ip2
I0428 20:09:12.955513 31575 net.cpp:86] Creating Layer ip2
I0428 20:09:12.955516 31575 net.cpp:408] ip2 <- ip1
I0428 20:09:12.955523 31575 net.cpp:382] ip2 -> ip2
I0428 20:09:12.955638 31575 net.cpp:124] Setting up ip2
I0428 20:09:12.955646 31575 net.cpp:131] Top shape: 64 10 (640)
I0428 20:09:12.955651 31575 net.cpp:139] Memory required for data: 5349120
I0428 20:09:12.955657 31575 layer_factory.hpp:77] Creating layer relu2
I0428 20:09:12.955664 31575 net.cpp:86] Creating Layer relu2
I0428 20:09:12.955668 31575 net.cpp:408] relu2 <- ip2
I0428 20:09:12.955672 31575 net.cpp:369] relu2 -> ip2 (in-place)
I0428 20:09:12.956511 31575 net.cpp:124] Setting up relu2
I0428 20:09:12.956526 31575 net.cpp:131] Top shape: 64 10 (640)
I0428 20:09:12.956529 31575 net.cpp:139] Memory required for data: 5351680
I0428 20:09:12.956533 31575 layer_factory.hpp:77] Creating layer loss
I0428 20:09:12.956542 31575 net.cpp:86] Creating Layer loss
I0428 20:09:12.956545 31575 net.cpp:408] loss <- ip2
I0428 20:09:12.956550 31575 net.cpp:408] loss <- label
I0428 20:09:12.956557 31575 net.cpp:382] loss -> loss
I0428 20:09:12.956580 31575 layer_factory.hpp:77] Creating layer loss
…
I0428 20:09:12.957311 31575 solver.cpp:173] Creating test net (#0) specified by net file: ECE595/mnist/train_test/var_everything2/lenet_train_test1103.prototxt
I0428 20:09:12.957343 31575 net.cpp:296] The NetState phase (1) differed from the phase (0) specified by a rule in layer mnist
I0428 20:09:12.957442 31575 net.cpp:53] Initializing net from parameters: 
name: "LeNet"
state {
  phase: TEST
}
layer {
  name: "mnist"
  type: "Data"
  top: "data"
  top: "label"
  include {
    phase: TEST
  }
  transform_param {
    scale: 0.00390625
  }
  data_param {
    source: "examples/mnist/mnist_test_lmdb"
    batch_size: 100
    backend: LMDB
  }
}
layer {
  name: "conv0"
  type: "Convolution"
  bottom: "data"
  top: "conv0"
  param {
    lr_mult: 1
  }
  param {
    lr_mult: 2
  }
  convolution_param {
    num_output: 25
    kernel_size: 5
    stride: 1
    weight_filler {
      type: "xavier"
    }
    bias_filler {
      type: "constant"
    }
  }
}
layer {
  name: "pool0"
  type: "Pooling"
  bottom: "conv0"
  top: "pool0"
  pooling_param {
    pool: MAX
    kernel_size: 2
    stride: 2
  }
}
layer {
  name: "conv1"
  type: "Convolution"
  bottom: "pool0"
  top: "conv1"
  param {
    lr_mult: 1
  }
  param {
    lr_mult: 2
  }
  convolution_param {
    num_output: 25
    kernel_size: 5
    stride: 1
    weight_filler {
      type: "xavier"
    }
    bias_filler {
      type: "constant"
    }
  }
}
layer {
  name: "pool1"
  type: "Pooling"
  bottom: "conv1"
  top: "pool1"
  pooling_param {
    pool: MAX
    kernel_size: 2
    stride: 2
  }
}
layer {
  name: "ip1"
  type: "InnerProduct"
  bottom: "pool1"
  top: "ip1"
  param {
    lr_mult: 1
  }
  param {
    lr_mult: 2
  }
  inner_product_param {
    num_output: 50
    weight_filler {
      type: "xavier"
    }
    bias_filler {
      type: "constant"
    }
  }
}
layer {
  name: "relu1"
  type: "ReLU"
  bottom: "ip1"
  top: "ip1"
}
layer {
  name: "ip2"
  type: "InnerProduct"
  bottom: "ip1"
  top: "ip2"
  param {
    lr_mult: 1
  }
  param {
    lr_mult: 2
  }
  inner_product_param {
    num_output: 10
    weight_filler {
      type: "xavier"
    }
    bias_filler {
      type: "constant"
    }
  }
}
layer {
  name: "relu2"
  type: "ReLU"
  bottom: "ip2"
  top: "ip2"
}
layer {
  name: "accuracy"
  type: "Accuracy"
  bottom: "ip2"
  bottom: "label"
  top: "accuracy"
  include {
    phase: TEST
  }
}
layer {
  name: "loss"
  type: "SoftmaxWithLoss"
  bottom: "ip2"
  bottom: "label"
  top: "loss"
}
I0428 20:09:12.957516 31575 layer_factory.hpp:77] Creating layer mnist
I0428 20:09:12.957568 31575 db_lmdb.cpp:35] Opened lmdb examples/mnist/mnist_test_lmdb
I0428 20:09:12.957584 31575 net.cpp:86] Creating Layer mnist
I0428 20:09:12.957589 31575 net.cpp:382] mnist -> data
I0428 20:09:12.957598 31575 net.cpp:382] mnist -> label
I0428 20:09:12.957700 31575 data_layer.cpp:45] output data size: 100,1,28,28
I0428 20:09:12.960109 31575 net.cpp:124] Setting up mnist
I0428 20:09:12.960124 31575 net.cpp:131] Top shape: 100 1 28 28 (78400)
I0428 20:09:12.960131 31575 net.cpp:131] Top shape: 100 (100)
I0428 20:09:12.960135 31575 net.cpp:139] Memory required for data: 314000
I0428 20:09:12.960139 31575 layer_factory.hpp:77] Creating layer label_mnist_1_split
I0428 20:09:12.960155 31575 net.cpp:86] Creating Layer label_mnist_1_split
I0428 20:09:12.960160 31575 net.cpp:408] label_mnist_1_split <- label
I0428 20:09:12.960165 31575 net.cpp:382] label_mnist_1_split -> label_mnist_1_split_0
I0428 20:09:12.960172 31575 net.cpp:382] label_mnist_1_split -> label_mnist_1_split_1
I0428 20:09:12.960250 31575 net.cpp:124] Setting up label_mnist_1_split
I0428 20:09:12.960258 31575 net.cpp:131] Top shape: 100 (100)
I0428 20:09:12.960261 31575 net.cpp:131] Top shape: 100 (100)
I0428 20:09:12.960265 31575 net.cpp:139] Memory required for data: 314800
I0428 20:09:12.960268 31575 layer_factory.hpp:77] Creating layer conv0
I0428 20:09:12.960278 31575 net.cpp:86] Creating Layer conv0
I0428 20:09:12.960283 31575 net.cpp:408] conv0 <- data
I0428 20:09:12.960289 31575 net.cpp:382] conv0 -> conv0
I0428 20:09:12.962222 31575 net.cpp:124] Setting up conv0
I0428 20:09:12.962239 31575 net.cpp:131] Top shape: 100 25 24 24 (1440000)
I0428 20:09:12.962244 31575 net.cpp:139] Memory required for data: 6074800
I0428 20:09:12.962255 31575 layer_factory.hpp:77] Creating layer pool0
I0428 20:09:12.962263 31575 net.cpp:86] Creating Layer pool0
I0428 20:09:12.962267 31575 net.cpp:408] pool0 <- conv0
I0428 20:09:12.962272 31575 net.cpp:382] pool0 -> pool0
I0428 20:09:12.962316 31575 net.cpp:124] Setting up pool0
I0428 20:09:12.962323 31575 net.cpp:131] Top shape: 100 25 12 12 (360000)
I0428 20:09:12.962327 31575 net.cpp:139] Memory required for data: 7514800
I0428 20:09:12.962332 31575 layer_factory.hpp:77] Creating layer conv1
I0428 20:09:12.962340 31575 net.cpp:86] Creating Layer conv1
I0428 20:09:12.962344 31575 net.cpp:408] conv1 <- pool0
I0428 20:09:12.962350 31575 net.cpp:382] conv1 -> conv1
I0428 20:09:12.964741 31575 net.cpp:124] Setting up conv1
I0428 20:09:12.964762 31575 net.cpp:131] Top shape: 100 25 8 8 (160000)
I0428 20:09:12.964776 31575 net.cpp:139] Memory required for data: 8154800
I0428 20:09:12.964785 31575 layer_factory.hpp:77] Creating layer pool1
I0428 20:09:12.964793 31575 net.cpp:86] Creating Layer pool1
I0428 20:09:12.964804 31575 net.cpp:408] pool1 <- conv1
I0428 20:09:12.964818 31575 net.cpp:382] pool1 -> pool1
I0428 20:09:12.964870 31575 net.cpp:124] Setting up pool1
I0428 20:09:12.964885 31575 net.cpp:131] Top shape: 100 25 4 4 (40000)
I0428 20:09:12.964890 31575 net.cpp:139] Memory required for data: 8314800
I0428 20:09:12.964892 31575 layer_factory.hpp:77] Creating layer ip1
I0428 20:09:12.964900 31575 net.cpp:86] Creating Layer ip1
I0428 20:09:12.964903 31575 net.cpp:408] ip1 <- pool1
I0428 20:09:12.964910 31575 net.cpp:382] ip1 -> ip1
I0428 20:09:12.965164 31575 net.cpp:124] Setting up ip1
I0428 20:09:12.965174 31575 net.cpp:131] Top shape: 100 50 (5000)
I0428 20:09:12.965179 31575 net.cpp:139] Memory required for data: 8334800
I0428 20:09:12.965188 31575 layer_factory.hpp:77] Creating layer relu1
I0428 20:09:12.965201 31575 net.cpp:86] Creating Layer relu1
I0428 20:09:12.965205 31575 net.cpp:408] relu1 <- ip1
I0428 20:09:12.965210 31575 net.cpp:369] relu1 -> ip1 (in-place)
I0428 20:09:12.965405 31575 net.cpp:124] Setting up relu1
I0428 20:09:12.965416 31575 net.cpp:131] Top shape: 100 50 (5000)
I0428 20:09:12.965420 31575 net.cpp:139] Memory required for data: 8354800
I0428 20:09:12.965425 31575 layer_factory.hpp:77] Creating layer ip2
I0428 20:09:12.965432 31575 net.cpp:86] Creating Layer ip2
I0428 20:09:12.965443 31575 net.cpp:408] ip2 <- ip1
I0428 20:09:12.965450 31575 net.cpp:382] ip2 -> ip2
I0428 20:09:12.965569 31575 net.cpp:124] Setting up ip2
I0428 20:09:12.965579 31575 net.cpp:131] Top shape: 100 10 (1000)
I0428 20:09:12.965581 31575 net.cpp:139] Memory required for data: 8358800
I0428 20:09:12.965589 31575 layer_factory.hpp:77] Creating layer relu2
I0428 20:09:12.965593 31575 net.cpp:86] Creating Layer relu2
I0428 20:09:12.965597 31575 net.cpp:408] relu2 <- ip2
I0428 20:09:12.965602 31575 net.cpp:369] relu2 -> ip2 (in-place)
I0428 20:09:12.965788 31575 net.cpp:124] Setting up relu2
I0428 20:09:12.965800 31575 net.cpp:131] Top shape: 100 10 (1000)
I0428 20:09:12.965802 31575 net.cpp:139] Memory required for data: 8362800
I0428 20:09:12.965806 31575 layer_factory.hpp:77] Creating layer ip2_relu2_0_split
I0428 20:09:12.965811 31575 net.cpp:86] Creating Layer ip2_relu2_0_split
I0428 20:09:12.965816 31575 net.cpp:408] ip2_relu2_0_split <- ip2
I0428 20:09:12.965821 31575 net.cpp:382] ip2_relu2_0_split -> ip2_relu2_0_split_0
I0428 20:09:12.965840 31575 net.cpp:382] ip2_relu2_0_split -> ip2_relu2_0_split_1
I0428 20:09:12.965883 31575 net.cpp:124] Setting up ip2_relu2_0_split
I0428 20:09:12.965888 31575 net.cpp:131] Top shape: 100 10 (1000)
I0428 20:09:12.965893 31575 net.cpp:131] Top shape: 100 10 (1000)
I0428 20:09:12.965896 31575 net.cpp:139] Memory required for data: 8370800
I0428 20:09:12.965900 31575 layer_factory.hpp:77] Creating layer accuracy
I0428 20:09:12.965906 31575 net.cpp:86] Creating Layer accuracy
I0428 20:09:12.965925 31575 net.cpp:408] accuracy <- ip2_relu2_0_split_0
I0428 20:09:12.965929 31575 net.cpp:408] accuracy <- label_mnist_1_split_0
I0428 20:09:12.965940 31575 net.cpp:382] accuracy -> accuracy
…
