…
I0428 19:34:05.949136 23267 net.cpp:296] The NetState phase (0) differed from the phase (1) specified by a rule in layer mnist
I0428 19:34:05.949149 23267 net.cpp:296] The NetState phase (0) differed from the phase (1) specified by a rule in layer accuracy
I0428 19:34:05.949221 23267 net.cpp:53] Initializing net from parameters: 
name: "LeNet"
state {
  phase: TRAIN
  level: 0
  stage: ""
}
layer {
  name: "mnist"
  type: "Data"
  top: "data"
  top: "label"
  include {
    phase: TRAIN
  }
  transform_param {
    scale: 0.00390625
  }
  data_param {
    source: "examples/mnist/mnist_train_lmdb"
    batch_size: 64
    backend: LMDB
  }
}
layer {
  name: "conv0"
  type: "Convolution"
  bottom: "data"
  top: "conv0"
  param {
    lr_mult: 1
  }
  param {
    lr_mult: 2
  }
  convolution_param {
    num_output: 50
    kernel_size: 5
    stride: 1
    weight_filler {
      type: "xavier"
    }
    bias_filler {
      type: "constant"
    }
  }
}
layer {
  name: "pool0"
  type: "Pooling"
  bottom: "conv0"
  top: "pool0"
  pooling_param {
    pool: MAX
    kernel_size: 2
    stride: 2
  }
}
layer {
  name: "ip1"
  type: "InnerProduct"
  bottom: "pool0"
  top: "ip1"
  param {
    lr_mult: 1
  }
  param {
    lr_mult: 2
  }
  inner_product_param {
    num_output: 10
    weight_filler {
      type: "xavier"
    }
    bias_filler {
      type: "constant"
    }
  }
}
layer {
  name: "relu1"
  type: "ReLU"
  bottom: "ip1"
  top: "ip1"
}
layer {
  name: "loss"
  type: "SoftmaxWithLoss"
  bottom: "ip1"
  bottom: "label"
  top: "loss"
}
I0428 19:34:05.949290 23267 layer_factory.hpp:77] Creating layer mnist
I0428 19:34:05.949386 23267 db_lmdb.cpp:35] Opened lmdb examples/mnist/mnist_train_lmdb
I0428 19:34:05.949410 23267 net.cpp:86] Creating Layer mnist
I0428 19:34:05.949417 23267 net.cpp:382] mnist -> data
I0428 19:34:05.949440 23267 net.cpp:382] mnist -> label
I0428 19:34:05.950525 23267 data_layer.cpp:45] output data size: 64,1,28,28
I0428 19:34:05.952981 23267 net.cpp:124] Setting up mnist
I0428 19:34:05.952999 23267 net.cpp:131] Top shape: 64 1 28 28 (50176)
I0428 19:34:05.953007 23267 net.cpp:131] Top shape: 64 (64)
I0428 19:34:05.953011 23267 net.cpp:139] Memory required for data: 200960
I0428 19:34:05.953018 23267 layer_factory.hpp:77] Creating layer conv0
I0428 19:34:05.953050 23267 net.cpp:86] Creating Layer conv0
I0428 19:34:05.953058 23267 net.cpp:408] conv0 <- data
I0428 19:34:05.953069 23267 net.cpp:382] conv0 -> conv0
I0428 19:34:06.243886 23267 net.cpp:124] Setting up conv0
I0428 19:34:06.243916 23267 net.cpp:131] Top shape: 64 50 24 24 (1843200)
I0428 19:34:06.243921 23267 net.cpp:139] Memory required for data: 7573760
I0428 19:34:06.243939 23267 layer_factory.hpp:77] Creating layer pool0
I0428 19:34:06.243953 23267 net.cpp:86] Creating Layer pool0
I0428 19:34:06.243958 23267 net.cpp:408] pool0 <- conv0
I0428 19:34:06.243965 23267 net.cpp:382] pool0 -> pool0
I0428 19:34:06.244025 23267 net.cpp:124] Setting up pool0
I0428 19:34:06.244035 23267 net.cpp:131] Top shape: 64 50 12 12 (460800)
I0428 19:34:06.244040 23267 net.cpp:139] Memory required for data: 9416960
I0428 19:34:06.244043 23267 layer_factory.hpp:77] Creating layer ip1
I0428 19:34:06.244052 23267 net.cpp:86] Creating Layer ip1
I0428 19:34:06.244061 23267 net.cpp:408] ip1 <- pool0
I0428 19:34:06.244067 23267 net.cpp:382] ip1 -> ip1
I0428 19:34:06.245645 23267 net.cpp:124] Setting up ip1
I0428 19:34:06.245661 23267 net.cpp:131] Top shape: 64 10 (640)
I0428 19:34:06.245682 23267 net.cpp:139] Memory required for data: 9419520
I0428 19:34:06.245692 23267 layer_factory.hpp:77] Creating layer relu1
I0428 19:34:06.245700 23267 net.cpp:86] Creating Layer relu1
I0428 19:34:06.245704 23267 net.cpp:408] relu1 <- ip1
I0428 19:34:06.245710 23267 net.cpp:369] relu1 -> ip1 (in-place)
I0428 19:34:06.245934 23267 net.cpp:124] Setting up relu1
I0428 19:34:06.245946 23267 net.cpp:131] Top shape: 64 10 (640)
I0428 19:34:06.245950 23267 net.cpp:139] Memory required for data: 9422080
I0428 19:34:06.245954 23267 layer_factory.hpp:77] Creating layer loss
I0428 19:34:06.245961 23267 net.cpp:86] Creating Layer loss
I0428 19:34:06.245965 23267 net.cpp:408] loss <- ip1
I0428 19:34:06.245970 23267 net.cpp:408] loss <- label
I0428 19:34:06.245975 23267 net.cpp:382] loss -> loss
I0428 19:34:06.245997 23267 layer_factory.hpp:77] Creating layer loss
…
I0428 19:34:06.247274 23267 solver.cpp:173] Creating test net (#0) specified by net file: ECE595/mnist/train_test/var_everything2/lenet_train_test196.prototxt
I0428 19:34:06.247301 23267 net.cpp:296] The NetState phase (1) differed from the phase (0) specified by a rule in layer mnist
I0428 19:34:06.247378 23267 net.cpp:53] Initializing net from parameters: 
name: "LeNet"
state {
  phase: TEST
}
layer {
  name: "mnist"
  type: "Data"
  top: "data"
  top: "label"
  include {
    phase: TEST
  }
  transform_param {
    scale: 0.00390625
  }
  data_param {
    source: "examples/mnist/mnist_test_lmdb"
    batch_size: 100
    backend: LMDB
  }
}
layer {
  name: "conv0"
  type: "Convolution"
  bottom: "data"
  top: "conv0"
  param {
    lr_mult: 1
  }
  param {
    lr_mult: 2
  }
  convolution_param {
    num_output: 50
    kernel_size: 5
    stride: 1
    weight_filler {
      type: "xavier"
    }
    bias_filler {
      type: "constant"
    }
  }
}
layer {
  name: "pool0"
  type: "Pooling"
  bottom: "conv0"
  top: "pool0"
  pooling_param {
    pool: MAX
    kernel_size: 2
    stride: 2
  }
}
layer {
  name: "ip1"
  type: "InnerProduct"
  bottom: "pool0"
  top: "ip1"
  param {
    lr_mult: 1
  }
  param {
    lr_mult: 2
  }
  inner_product_param {
    num_output: 10
    weight_filler {
      type: "xavier"
    }
    bias_filler {
      type: "constant"
    }
  }
}
layer {
  name: "relu1"
  type: "ReLU"
  bottom: "ip1"
  top: "ip1"
}
layer {
  name: "accuracy"
  type: "Accuracy"
  bottom: "ip1"
  bottom: "label"
  top: "accuracy"
  include {
    phase: TEST
  }
}
layer {
  name: "loss"
  type: "SoftmaxWithLoss"
  bottom: "ip1"
  bottom: "label"
  top: "loss"
}
I0428 19:34:06.247442 23267 layer_factory.hpp:77] Creating layer mnist
I0428 19:34:06.247490 23267 db_lmdb.cpp:35] Opened lmdb examples/mnist/mnist_test_lmdb
I0428 19:34:06.247509 23267 net.cpp:86] Creating Layer mnist
I0428 19:34:06.247515 23267 net.cpp:382] mnist -> data
I0428 19:34:06.247524 23267 net.cpp:382] mnist -> label
I0428 19:34:06.247623 23267 data_layer.cpp:45] output data size: 100,1,28,28
I0428 19:34:06.248848 23267 net.cpp:124] Setting up mnist
I0428 19:34:06.248864 23267 net.cpp:131] Top shape: 100 1 28 28 (78400)
I0428 19:34:06.248870 23267 net.cpp:131] Top shape: 100 (100)
I0428 19:34:06.248874 23267 net.cpp:139] Memory required for data: 314000
I0428 19:34:06.248891 23267 layer_factory.hpp:77] Creating layer label_mnist_1_split
I0428 19:34:06.248899 23267 net.cpp:86] Creating Layer label_mnist_1_split
I0428 19:34:06.248903 23267 net.cpp:408] label_mnist_1_split <- label
I0428 19:34:06.248909 23267 net.cpp:382] label_mnist_1_split -> label_mnist_1_split_0
I0428 19:34:06.248917 23267 net.cpp:382] label_mnist_1_split -> label_mnist_1_split_1
I0428 19:34:06.248967 23267 net.cpp:124] Setting up label_mnist_1_split
I0428 19:34:06.248976 23267 net.cpp:131] Top shape: 100 (100)
I0428 19:34:06.248980 23267 net.cpp:131] Top shape: 100 (100)
I0428 19:34:06.248984 23267 net.cpp:139] Memory required for data: 314800
I0428 19:34:06.248988 23267 layer_factory.hpp:77] Creating layer conv0
I0428 19:34:06.248998 23267 net.cpp:86] Creating Layer conv0
I0428 19:34:06.249003 23267 net.cpp:408] conv0 <- data
I0428 19:34:06.249009 23267 net.cpp:382] conv0 -> conv0
I0428 19:34:06.250895 23267 net.cpp:124] Setting up conv0
I0428 19:34:06.250911 23267 net.cpp:131] Top shape: 100 50 24 24 (2880000)
I0428 19:34:06.250916 23267 net.cpp:139] Memory required for data: 11834800
I0428 19:34:06.250926 23267 layer_factory.hpp:77] Creating layer pool0
I0428 19:34:06.250936 23267 net.cpp:86] Creating Layer pool0
I0428 19:34:06.250941 23267 net.cpp:408] pool0 <- conv0
I0428 19:34:06.250946 23267 net.cpp:382] pool0 -> pool0
I0428 19:34:06.250990 23267 net.cpp:124] Setting up pool0
I0428 19:34:06.250998 23267 net.cpp:131] Top shape: 100 50 12 12 (720000)
I0428 19:34:06.251003 23267 net.cpp:139] Memory required for data: 14714800
I0428 19:34:06.251005 23267 layer_factory.hpp:77] Creating layer ip1
I0428 19:34:06.251013 23267 net.cpp:86] Creating Layer ip1
I0428 19:34:06.251019 23267 net.cpp:408] ip1 <- pool0
I0428 19:34:06.251024 23267 net.cpp:382] ip1 -> ip1
I0428 19:34:06.251631 23267 net.cpp:124] Setting up ip1
I0428 19:34:06.251641 23267 net.cpp:131] Top shape: 100 10 (1000)
I0428 19:34:06.251644 23267 net.cpp:139] Memory required for data: 14718800
I0428 19:34:06.251654 23267 layer_factory.hpp:77] Creating layer relu1
I0428 19:34:06.251660 23267 net.cpp:86] Creating Layer relu1
I0428 19:34:06.251663 23267 net.cpp:408] relu1 <- ip1
I0428 19:34:06.251670 23267 net.cpp:369] relu1 -> ip1 (in-place)
I0428 19:34:06.251866 23267 net.cpp:124] Setting up relu1
I0428 19:34:06.251878 23267 net.cpp:131] Top shape: 100 10 (1000)
I0428 19:34:06.251881 23267 net.cpp:139] Memory required for data: 14722800
I0428 19:34:06.251885 23267 layer_factory.hpp:77] Creating layer ip1_relu1_0_split
I0428 19:34:06.251891 23267 net.cpp:86] Creating Layer ip1_relu1_0_split
I0428 19:34:06.251895 23267 net.cpp:408] ip1_relu1_0_split <- ip1
I0428 19:34:06.251901 23267 net.cpp:382] ip1_relu1_0_split -> ip1_relu1_0_split_0
I0428 19:34:06.251915 23267 net.cpp:382] ip1_relu1_0_split -> ip1_relu1_0_split_1
I0428 19:34:06.251960 23267 net.cpp:124] Setting up ip1_relu1_0_split
I0428 19:34:06.251969 23267 net.cpp:131] Top shape: 100 10 (1000)
I0428 19:34:06.251974 23267 net.cpp:131] Top shape: 100 10 (1000)
I0428 19:34:06.251978 23267 net.cpp:139] Memory required for data: 14730800
I0428 19:34:06.251982 23267 layer_factory.hpp:77] Creating layer accuracy
I0428 19:34:06.251988 23267 net.cpp:86] Creating Layer accuracy
I0428 19:34:06.251992 23267 net.cpp:408] accuracy <- ip1_relu1_0_split_0
I0428 19:34:06.251996 23267 net.cpp:408] accuracy <- label_mnist_1_split_0
I0428 19:34:06.252003 23267 net.cpp:382] accuracy -> accuracy
…
