…
I0428 19:34:33.260921 23349 net.cpp:296] The NetState phase (0) differed from the phase (1) specified by a rule in layer mnist
I0428 19:34:33.260936 23349 net.cpp:296] The NetState phase (0) differed from the phase (1) specified by a rule in layer accuracy
I0428 19:34:33.261008 23349 net.cpp:53] Initializing net from parameters: 
name: "LeNet"
state {
  phase: TRAIN
  level: 0
  stage: ""
}
layer {
  name: "mnist"
  type: "Data"
  top: "data"
  top: "label"
  include {
    phase: TRAIN
  }
  transform_param {
    scale: 0.00390625
  }
  data_param {
    source: "examples/mnist/mnist_train_lmdb"
    batch_size: 64
    backend: LMDB
  }
}
layer {
  name: "conv0"
  type: "Convolution"
  bottom: "data"
  top: "conv0"
  param {
    lr_mult: 1
  }
  param {
    lr_mult: 2
  }
  convolution_param {
    num_output: 50
    kernel_size: 5
    stride: 1
    weight_filler {
      type: "xavier"
    }
    bias_filler {
      type: "constant"
    }
  }
}
layer {
  name: "pool0"
  type: "Pooling"
  bottom: "conv0"
  top: "pool0"
  pooling_param {
    pool: MAX
    kernel_size: 2
    stride: 2
  }
}
layer {
  name: "ip1"
  type: "InnerProduct"
  bottom: "pool0"
  top: "ip1"
  param {
    lr_mult: 1
  }
  param {
    lr_mult: 2
  }
  inner_product_param {
    num_output: 50
    weight_filler {
      type: "xavier"
    }
    bias_filler {
      type: "constant"
    }
  }
}
layer {
  name: "relu1"
  type: "ReLU"
  bottom: "ip1"
  top: "ip1"
}
layer {
  name: "ip2"
  type: "InnerProduct"
  bottom: "ip1"
  top: "ip2"
  param {
    lr_mult: 1
  }
  param {
    lr_mult: 2
  }
  inner_product_param {
    num_output: 10
    weight_filler {
      type: "xavier"
    }
    bias_filler {
      type: "constant"
    }
  }
}
layer {
  name: "relu2"
  type: "ReLU"
  bottom: "ip2"
  top: "ip2"
}
layer {
  name: "loss"
  type: "SoftmaxWithLoss"
  bottom: "ip2"
  bottom: "label"
  top: "loss"
}
I0428 19:34:33.261070 23349 layer_factory.hpp:77] Creating layer mnist
I0428 19:34:33.261169 23349 db_lmdb.cpp:35] Opened lmdb examples/mnist/mnist_train_lmdb
I0428 19:34:33.261219 23349 net.cpp:86] Creating Layer mnist
I0428 19:34:33.261225 23349 net.cpp:382] mnist -> data
I0428 19:34:33.261245 23349 net.cpp:382] mnist -> label
I0428 19:34:33.262306 23349 data_layer.cpp:45] output data size: 64,1,28,28
I0428 19:34:33.264674 23349 net.cpp:124] Setting up mnist
I0428 19:34:33.264688 23349 net.cpp:131] Top shape: 64 1 28 28 (50176)
I0428 19:34:33.264694 23349 net.cpp:131] Top shape: 64 (64)
I0428 19:34:33.264698 23349 net.cpp:139] Memory required for data: 200960
I0428 19:34:33.264703 23349 layer_factory.hpp:77] Creating layer conv0
I0428 19:34:33.264719 23349 net.cpp:86] Creating Layer conv0
I0428 19:34:33.264722 23349 net.cpp:408] conv0 <- data
I0428 19:34:33.264734 23349 net.cpp:382] conv0 -> conv0
I0428 19:34:33.497926 23349 net.cpp:124] Setting up conv0
I0428 19:34:33.497952 23349 net.cpp:131] Top shape: 64 50 24 24 (1843200)
I0428 19:34:33.497956 23349 net.cpp:139] Memory required for data: 7573760
I0428 19:34:33.497970 23349 layer_factory.hpp:77] Creating layer pool0
I0428 19:34:33.497982 23349 net.cpp:86] Creating Layer pool0
I0428 19:34:33.497987 23349 net.cpp:408] pool0 <- conv0
I0428 19:34:33.497992 23349 net.cpp:382] pool0 -> pool0
I0428 19:34:33.498050 23349 net.cpp:124] Setting up pool0
I0428 19:34:33.498055 23349 net.cpp:131] Top shape: 64 50 12 12 (460800)
I0428 19:34:33.498059 23349 net.cpp:139] Memory required for data: 9416960
I0428 19:34:33.498075 23349 layer_factory.hpp:77] Creating layer ip1
I0428 19:34:33.498083 23349 net.cpp:86] Creating Layer ip1
I0428 19:34:33.498086 23349 net.cpp:408] ip1 <- pool0
I0428 19:34:33.498091 23349 net.cpp:382] ip1 -> ip1
I0428 19:34:33.501112 23349 net.cpp:124] Setting up ip1
I0428 19:34:33.501127 23349 net.cpp:131] Top shape: 64 50 (3200)
I0428 19:34:33.501130 23349 net.cpp:139] Memory required for data: 9429760
I0428 19:34:33.501139 23349 layer_factory.hpp:77] Creating layer relu1
I0428 19:34:33.501147 23349 net.cpp:86] Creating Layer relu1
I0428 19:34:33.501149 23349 net.cpp:408] relu1 <- ip1
I0428 19:34:33.501154 23349 net.cpp:369] relu1 -> ip1 (in-place)
I0428 19:34:33.501348 23349 net.cpp:124] Setting up relu1
I0428 19:34:33.501358 23349 net.cpp:131] Top shape: 64 50 (3200)
I0428 19:34:33.501360 23349 net.cpp:139] Memory required for data: 9442560
I0428 19:34:33.501363 23349 layer_factory.hpp:77] Creating layer ip2
I0428 19:34:33.501370 23349 net.cpp:86] Creating Layer ip2
I0428 19:34:33.501374 23349 net.cpp:408] ip2 <- ip1
I0428 19:34:33.501379 23349 net.cpp:382] ip2 -> ip2
I0428 19:34:33.501483 23349 net.cpp:124] Setting up ip2
I0428 19:34:33.501490 23349 net.cpp:131] Top shape: 64 10 (640)
I0428 19:34:33.501493 23349 net.cpp:139] Memory required for data: 9445120
I0428 19:34:33.501515 23349 layer_factory.hpp:77] Creating layer relu2
I0428 19:34:33.501520 23349 net.cpp:86] Creating Layer relu2
I0428 19:34:33.501525 23349 net.cpp:408] relu2 <- ip2
I0428 19:34:33.501533 23349 net.cpp:369] relu2 -> ip2 (in-place)
I0428 19:34:33.502372 23349 net.cpp:124] Setting up relu2
I0428 19:34:33.502400 23349 net.cpp:131] Top shape: 64 10 (640)
I0428 19:34:33.502405 23349 net.cpp:139] Memory required for data: 9447680
I0428 19:34:33.502411 23349 layer_factory.hpp:77] Creating layer loss
I0428 19:34:33.502419 23349 net.cpp:86] Creating Layer loss
I0428 19:34:33.502423 23349 net.cpp:408] loss <- ip2
I0428 19:34:33.502441 23349 net.cpp:408] loss <- label
I0428 19:34:33.502449 23349 net.cpp:382] loss -> loss
I0428 19:34:33.502466 23349 layer_factory.hpp:77] Creating layer loss
…
I0428 19:34:33.503053 23349 solver.cpp:173] Creating test net (#0) specified by net file: ECE595/mnist/train_test/var_everything2/lenet_train_test206.prototxt
I0428 19:34:33.503077 23349 net.cpp:296] The NetState phase (1) differed from the phase (0) specified by a rule in layer mnist
I0428 19:34:33.503146 23349 net.cpp:53] Initializing net from parameters: 
name: "LeNet"
state {
  phase: TEST
}
layer {
  name: "mnist"
  type: "Data"
  top: "data"
  top: "label"
  include {
    phase: TEST
  }
  transform_param {
    scale: 0.00390625
  }
  data_param {
    source: "examples/mnist/mnist_test_lmdb"
    batch_size: 100
    backend: LMDB
  }
}
layer {
  name: "conv0"
  type: "Convolution"
  bottom: "data"
  top: "conv0"
  param {
    lr_mult: 1
  }
  param {
    lr_mult: 2
  }
  convolution_param {
    num_output: 50
    kernel_size: 5
    stride: 1
    weight_filler {
      type: "xavier"
    }
    bias_filler {
      type: "constant"
    }
  }
}
layer {
  name: "pool0"
  type: "Pooling"
  bottom: "conv0"
  top: "pool0"
  pooling_param {
    pool: MAX
    kernel_size: 2
    stride: 2
  }
}
layer {
  name: "ip1"
  type: "InnerProduct"
  bottom: "pool0"
  top: "ip1"
  param {
    lr_mult: 1
  }
  param {
    lr_mult: 2
  }
  inner_product_param {
    num_output: 50
    weight_filler {
      type: "xavier"
    }
    bias_filler {
      type: "constant"
    }
  }
}
layer {
  name: "relu1"
  type: "ReLU"
  bottom: "ip1"
  top: "ip1"
}
layer {
  name: "ip2"
  type: "InnerProduct"
  bottom: "ip1"
  top: "ip2"
  param {
    lr_mult: 1
  }
  param {
    lr_mult: 2
  }
  inner_product_param {
    num_output: 10
    weight_filler {
      type: "xavier"
    }
    bias_filler {
      type: "constant"
    }
  }
}
layer {
  name: "relu2"
  type: "ReLU"
  bottom: "ip2"
  top: "ip2"
}
layer {
  name: "accuracy"
  type: "Accuracy"
  bottom: "ip2"
  bottom: "label"
  top: "accuracy"
  include {
    phase: TEST
  }
}
layer {
  name: "loss"
  type: "SoftmaxWithLoss"
  bottom: "ip2"
  bottom: "label"
  top: "loss"
}
I0428 19:34:33.503216 23349 layer_factory.hpp:77] Creating layer mnist
I0428 19:34:33.503259 23349 db_lmdb.cpp:35] Opened lmdb examples/mnist/mnist_test_lmdb
I0428 19:34:33.503270 23349 net.cpp:86] Creating Layer mnist
I0428 19:34:33.503276 23349 net.cpp:382] mnist -> data
I0428 19:34:33.503283 23349 net.cpp:382] mnist -> label
I0428 19:34:33.503366 23349 data_layer.cpp:45] output data size: 100,1,28,28
I0428 19:34:33.505295 23349 net.cpp:124] Setting up mnist
I0428 19:34:33.505307 23349 net.cpp:131] Top shape: 100 1 28 28 (78400)
I0428 19:34:33.505313 23349 net.cpp:131] Top shape: 100 (100)
I0428 19:34:33.505316 23349 net.cpp:139] Memory required for data: 314000
I0428 19:34:33.505319 23349 layer_factory.hpp:77] Creating layer label_mnist_1_split
I0428 19:34:33.505347 23349 net.cpp:86] Creating Layer label_mnist_1_split
I0428 19:34:33.505350 23349 net.cpp:408] label_mnist_1_split <- label
I0428 19:34:33.505362 23349 net.cpp:382] label_mnist_1_split -> label_mnist_1_split_0
I0428 19:34:33.505368 23349 net.cpp:382] label_mnist_1_split -> label_mnist_1_split_1
I0428 19:34:33.505414 23349 net.cpp:124] Setting up label_mnist_1_split
I0428 19:34:33.505430 23349 net.cpp:131] Top shape: 100 (100)
I0428 19:34:33.505434 23349 net.cpp:131] Top shape: 100 (100)
I0428 19:34:33.505436 23349 net.cpp:139] Memory required for data: 314800
I0428 19:34:33.505439 23349 layer_factory.hpp:77] Creating layer conv0
I0428 19:34:33.505450 23349 net.cpp:86] Creating Layer conv0
I0428 19:34:33.505453 23349 net.cpp:408] conv0 <- data
I0428 19:34:33.505458 23349 net.cpp:382] conv0 -> conv0
I0428 19:34:33.507285 23349 net.cpp:124] Setting up conv0
I0428 19:34:33.507300 23349 net.cpp:131] Top shape: 100 50 24 24 (2880000)
I0428 19:34:33.507304 23349 net.cpp:139] Memory required for data: 11834800
I0428 19:34:33.507314 23349 layer_factory.hpp:77] Creating layer pool0
I0428 19:34:33.507320 23349 net.cpp:86] Creating Layer pool0
I0428 19:34:33.507324 23349 net.cpp:408] pool0 <- conv0
I0428 19:34:33.507331 23349 net.cpp:382] pool0 -> pool0
I0428 19:34:33.507385 23349 net.cpp:124] Setting up pool0
I0428 19:34:33.507391 23349 net.cpp:131] Top shape: 100 50 12 12 (720000)
I0428 19:34:33.507395 23349 net.cpp:139] Memory required for data: 14714800
I0428 19:34:33.507397 23349 layer_factory.hpp:77] Creating layer ip1
I0428 19:34:33.507405 23349 net.cpp:86] Creating Layer ip1
I0428 19:34:33.507408 23349 net.cpp:408] ip1 <- pool0
I0428 19:34:33.507413 23349 net.cpp:382] ip1 -> ip1
I0428 19:34:33.509825 23349 net.cpp:124] Setting up ip1
I0428 19:34:33.509835 23349 net.cpp:131] Top shape: 100 50 (5000)
I0428 19:34:33.509836 23349 net.cpp:139] Memory required for data: 14734800
I0428 19:34:33.509845 23349 layer_factory.hpp:77] Creating layer relu1
I0428 19:34:33.509848 23349 net.cpp:86] Creating Layer relu1
I0428 19:34:33.509851 23349 net.cpp:408] relu1 <- ip1
I0428 19:34:33.509855 23349 net.cpp:369] relu1 -> ip1 (in-place)
I0428 19:34:33.510035 23349 net.cpp:124] Setting up relu1
I0428 19:34:33.510045 23349 net.cpp:131] Top shape: 100 50 (5000)
I0428 19:34:33.510058 23349 net.cpp:139] Memory required for data: 14754800
I0428 19:34:33.510061 23349 layer_factory.hpp:77] Creating layer ip2
I0428 19:34:33.510066 23349 net.cpp:86] Creating Layer ip2
I0428 19:34:33.510071 23349 net.cpp:408] ip2 <- ip1
I0428 19:34:33.510076 23349 net.cpp:382] ip2 -> ip2
I0428 19:34:33.510179 23349 net.cpp:124] Setting up ip2
I0428 19:34:33.510185 23349 net.cpp:131] Top shape: 100 10 (1000)
I0428 19:34:33.510188 23349 net.cpp:139] Memory required for data: 14758800
I0428 19:34:33.510205 23349 layer_factory.hpp:77] Creating layer relu2
I0428 19:34:33.510211 23349 net.cpp:86] Creating Layer relu2
I0428 19:34:33.510215 23349 net.cpp:408] relu2 <- ip2
I0428 19:34:33.510220 23349 net.cpp:369] relu2 -> ip2 (in-place)
I0428 19:34:33.510393 23349 net.cpp:124] Setting up relu2
I0428 19:34:33.510402 23349 net.cpp:131] Top shape: 100 10 (1000)
I0428 19:34:33.510406 23349 net.cpp:139] Memory required for data: 14762800
I0428 19:34:33.510408 23349 layer_factory.hpp:77] Creating layer ip2_relu2_0_split
I0428 19:34:33.510416 23349 net.cpp:86] Creating Layer ip2_relu2_0_split
I0428 19:34:33.510418 23349 net.cpp:408] ip2_relu2_0_split <- ip2
I0428 19:34:33.510423 23349 net.cpp:382] ip2_relu2_0_split -> ip2_relu2_0_split_0
I0428 19:34:33.510429 23349 net.cpp:382] ip2_relu2_0_split -> ip2_relu2_0_split_1
I0428 19:34:33.510478 23349 net.cpp:124] Setting up ip2_relu2_0_split
I0428 19:34:33.510483 23349 net.cpp:131] Top shape: 100 10 (1000)
I0428 19:34:33.510485 23349 net.cpp:131] Top shape: 100 10 (1000)
I0428 19:34:33.510488 23349 net.cpp:139] Memory required for data: 14770800
I0428 19:34:33.510491 23349 layer_factory.hpp:77] Creating layer accuracy
I0428 19:34:33.510496 23349 net.cpp:86] Creating Layer accuracy
I0428 19:34:33.510499 23349 net.cpp:408] accuracy <- ip2_relu2_0_split_0
I0428 19:34:33.510504 23349 net.cpp:408] accuracy <- label_mnist_1_split_0
I0428 19:34:33.510509 23349 net.cpp:382] accuracy -> accuracy
…
