…
I0428 19:58:31.814594 28995 net.cpp:296] The NetState phase (0) differed from the phase (1) specified by a rule in layer mnist
I0428 19:58:31.814610 28995 net.cpp:296] The NetState phase (0) differed from the phase (1) specified by a rule in layer accuracy
I0428 19:58:31.814688 28995 net.cpp:53] Initializing net from parameters: 
name: "LeNet"
state {
  phase: TRAIN
  level: 0
  stage: ""
}
layer {
  name: "mnist"
  type: "Data"
  top: "data"
  top: "label"
  include {
    phase: TRAIN
  }
  transform_param {
    scale: 0.00390625
  }
  data_param {
    source: "examples/mnist/mnist_train_lmdb"
    batch_size: 64
    backend: LMDB
  }
}
layer {
  name: "conv0"
  type: "Convolution"
  bottom: "data"
  top: "conv0"
  param {
    lr_mult: 1
  }
  param {
    lr_mult: 2
  }
  convolution_param {
    num_output: 10
    kernel_size: 5
    stride: 1
    weight_filler {
      type: "xavier"
    }
    bias_filler {
      type: "constant"
    }
  }
}
layer {
  name: "pool0"
  type: "Pooling"
  bottom: "conv0"
  top: "pool0"
  pooling_param {
    pool: MAX
    kernel_size: 2
    stride: 2
  }
}
layer {
  name: "conv1"
  type: "Convolution"
  bottom: "pool0"
  top: "conv1"
  param {
    lr_mult: 1
  }
  param {
    lr_mult: 2
  }
  convolution_param {
    num_output: 10
    kernel_size: 5
    stride: 1
    weight_filler {
      type: "xavier"
    }
    bias_filler {
      type: "constant"
    }
  }
}
layer {
  name: "pool1"
  type: "Pooling"
  bottom: "conv1"
  top: "pool1"
  pooling_param {
    pool: MAX
    kernel_size: 2
    stride: 2
  }
}
layer {
  name: "ip1"
  type: "InnerProduct"
  bottom: "pool1"
  top: "ip1"
  param {
    lr_mult: 1
  }
  param {
    lr_mult: 2
  }
  inner_product_param {
    num_output: 10
    weight_filler {
      type: "xavier"
    }
    bias_filler {
      type: "constant"
    }
  }
}
layer {
  name: "relu1"
  type: "ReLU"
  bottom: "ip1"
  top: "ip1"
}
layer {
  name: "loss"
  type: "SoftmaxWithLoss"
  bottom: "ip1"
  bottom: "label"
  top: "loss"
}
I0428 19:58:31.814751 28995 layer_factory.hpp:77] Creating layer mnist
I0428 19:58:31.814849 28995 db_lmdb.cpp:35] Opened lmdb examples/mnist/mnist_train_lmdb
I0428 19:58:31.814872 28995 net.cpp:86] Creating Layer mnist
I0428 19:58:31.814879 28995 net.cpp:382] mnist -> data
I0428 19:58:31.814901 28995 net.cpp:382] mnist -> label
I0428 19:58:31.815990 28995 data_layer.cpp:45] output data size: 64,1,28,28
I0428 19:58:31.818819 28995 net.cpp:124] Setting up mnist
I0428 19:58:31.818837 28995 net.cpp:131] Top shape: 64 1 28 28 (50176)
I0428 19:58:31.818843 28995 net.cpp:131] Top shape: 64 (64)
I0428 19:58:31.818847 28995 net.cpp:139] Memory required for data: 200960
I0428 19:58:31.818856 28995 layer_factory.hpp:77] Creating layer conv0
I0428 19:58:31.818871 28995 net.cpp:86] Creating Layer conv0
I0428 19:58:31.818876 28995 net.cpp:408] conv0 <- data
I0428 19:58:31.818888 28995 net.cpp:382] conv0 -> conv0
I0428 19:58:32.139186 28995 net.cpp:124] Setting up conv0
I0428 19:58:32.139220 28995 net.cpp:131] Top shape: 64 10 24 24 (368640)
I0428 19:58:32.139226 28995 net.cpp:139] Memory required for data: 1675520
I0428 19:58:32.139243 28995 layer_factory.hpp:77] Creating layer pool0
I0428 19:58:32.139258 28995 net.cpp:86] Creating Layer pool0
I0428 19:58:32.139264 28995 net.cpp:408] pool0 <- conv0
I0428 19:58:32.139271 28995 net.cpp:382] pool0 -> pool0
I0428 19:58:32.139327 28995 net.cpp:124] Setting up pool0
I0428 19:58:32.139340 28995 net.cpp:131] Top shape: 64 10 12 12 (92160)
I0428 19:58:32.139363 28995 net.cpp:139] Memory required for data: 2044160
I0428 19:58:32.139366 28995 layer_factory.hpp:77] Creating layer conv1
I0428 19:58:32.139379 28995 net.cpp:86] Creating Layer conv1
I0428 19:58:32.139384 28995 net.cpp:408] conv1 <- pool0
I0428 19:58:32.139389 28995 net.cpp:382] conv1 -> conv1
I0428 19:58:32.142525 28995 net.cpp:124] Setting up conv1
I0428 19:58:32.142544 28995 net.cpp:131] Top shape: 64 10 8 8 (40960)
I0428 19:58:32.142549 28995 net.cpp:139] Memory required for data: 2208000
I0428 19:58:32.142559 28995 layer_factory.hpp:77] Creating layer pool1
I0428 19:58:32.142568 28995 net.cpp:86] Creating Layer pool1
I0428 19:58:32.142572 28995 net.cpp:408] pool1 <- conv1
I0428 19:58:32.142578 28995 net.cpp:382] pool1 -> pool1
I0428 19:58:32.142623 28995 net.cpp:124] Setting up pool1
I0428 19:58:32.142630 28995 net.cpp:131] Top shape: 64 10 4 4 (10240)
I0428 19:58:32.142633 28995 net.cpp:139] Memory required for data: 2248960
I0428 19:58:32.142637 28995 layer_factory.hpp:77] Creating layer ip1
I0428 19:58:32.142647 28995 net.cpp:86] Creating Layer ip1
I0428 19:58:32.142650 28995 net.cpp:408] ip1 <- pool1
I0428 19:58:32.142655 28995 net.cpp:382] ip1 -> ip1
I0428 19:58:32.142782 28995 net.cpp:124] Setting up ip1
I0428 19:58:32.142792 28995 net.cpp:131] Top shape: 64 10 (640)
I0428 19:58:32.142796 28995 net.cpp:139] Memory required for data: 2251520
I0428 19:58:32.142803 28995 layer_factory.hpp:77] Creating layer relu1
I0428 19:58:32.142810 28995 net.cpp:86] Creating Layer relu1
I0428 19:58:32.142814 28995 net.cpp:408] relu1 <- ip1
I0428 19:58:32.142819 28995 net.cpp:369] relu1 -> ip1 (in-place)
I0428 19:58:32.143014 28995 net.cpp:124] Setting up relu1
I0428 19:58:32.143025 28995 net.cpp:131] Top shape: 64 10 (640)
I0428 19:58:32.143028 28995 net.cpp:139] Memory required for data: 2254080
I0428 19:58:32.143033 28995 layer_factory.hpp:77] Creating layer loss
I0428 19:58:32.143040 28995 net.cpp:86] Creating Layer loss
I0428 19:58:32.143044 28995 net.cpp:408] loss <- ip1
I0428 19:58:32.143049 28995 net.cpp:408] loss <- label
I0428 19:58:32.143054 28995 net.cpp:382] loss -> loss
I0428 19:58:32.143076 28995 layer_factory.hpp:77] Creating layer loss
…
I0428 19:58:32.144400 28995 solver.cpp:173] Creating test net (#0) specified by net file: ECE595/mnist/train_test/var_everything2/lenet_train_test821.prototxt
I0428 19:58:32.144429 28995 net.cpp:296] The NetState phase (1) differed from the phase (0) specified by a rule in layer mnist
I0428 19:58:32.144516 28995 net.cpp:53] Initializing net from parameters: 
name: "LeNet"
state {
  phase: TEST
}
layer {
  name: "mnist"
  type: "Data"
  top: "data"
  top: "label"
  include {
    phase: TEST
  }
  transform_param {
    scale: 0.00390625
  }
  data_param {
    source: "examples/mnist/mnist_test_lmdb"
    batch_size: 100
    backend: LMDB
  }
}
layer {
  name: "conv0"
  type: "Convolution"
  bottom: "data"
  top: "conv0"
  param {
    lr_mult: 1
  }
  param {
    lr_mult: 2
  }
  convolution_param {
    num_output: 10
    kernel_size: 5
    stride: 1
    weight_filler {
      type: "xavier"
    }
    bias_filler {
      type: "constant"
    }
  }
}
layer {
  name: "pool0"
  type: "Pooling"
  bottom: "conv0"
  top: "pool0"
  pooling_param {
    pool: MAX
    kernel_size: 2
    stride: 2
  }
}
layer {
  name: "conv1"
  type: "Convolution"
  bottom: "pool0"
  top: "conv1"
  param {
    lr_mult: 1
  }
  param {
    lr_mult: 2
  }
  convolution_param {
    num_output: 10
    kernel_size: 5
    stride: 1
    weight_filler {
      type: "xavier"
    }
    bias_filler {
      type: "constant"
    }
  }
}
layer {
  name: "pool1"
  type: "Pooling"
  bottom: "conv1"
  top: "pool1"
  pooling_param {
    pool: MAX
    kernel_size: 2
    stride: 2
  }
}
layer {
  name: "ip1"
  type: "InnerProduct"
  bottom: "pool1"
  top: "ip1"
  param {
    lr_mult: 1
  }
  param {
    lr_mult: 2
  }
  inner_product_param {
    num_output: 10
    weight_filler {
      type: "xavier"
    }
    bias_filler {
      type: "constant"
    }
  }
}
layer {
  name: "relu1"
  type: "ReLU"
  bottom: "ip1"
  top: "ip1"
}
layer {
  name: "accuracy"
  type: "Accuracy"
  bottom: "ip1"
  bottom: "label"
  top: "accuracy"
  include {
    phase: TEST
  }
}
layer {
  name: "loss"
  type: "SoftmaxWithLoss"
  bottom: "ip1"
  bottom: "label"
  top: "loss"
}
I0428 19:58:32.144598 28995 layer_factory.hpp:77] Creating layer mnist
I0428 19:58:32.144651 28995 db_lmdb.cpp:35] Opened lmdb examples/mnist/mnist_test_lmdb
I0428 19:58:32.144666 28995 net.cpp:86] Creating Layer mnist
I0428 19:58:32.144671 28995 net.cpp:382] mnist -> data
I0428 19:58:32.144680 28995 net.cpp:382] mnist -> label
I0428 19:58:32.144781 28995 data_layer.cpp:45] output data size: 100,1,28,28
I0428 19:58:32.146998 28995 net.cpp:124] Setting up mnist
I0428 19:58:32.147014 28995 net.cpp:131] Top shape: 100 1 28 28 (78400)
I0428 19:58:32.147020 28995 net.cpp:131] Top shape: 100 (100)
I0428 19:58:32.147024 28995 net.cpp:139] Memory required for data: 314000
I0428 19:58:32.147028 28995 layer_factory.hpp:77] Creating layer label_mnist_1_split
I0428 19:58:32.147045 28995 net.cpp:86] Creating Layer label_mnist_1_split
I0428 19:58:32.147049 28995 net.cpp:408] label_mnist_1_split <- label
I0428 19:58:32.147055 28995 net.cpp:382] label_mnist_1_split -> label_mnist_1_split_0
I0428 19:58:32.147063 28995 net.cpp:382] label_mnist_1_split -> label_mnist_1_split_1
I0428 19:58:32.147117 28995 net.cpp:124] Setting up label_mnist_1_split
I0428 19:58:32.147125 28995 net.cpp:131] Top shape: 100 (100)
I0428 19:58:32.147128 28995 net.cpp:131] Top shape: 100 (100)
I0428 19:58:32.147132 28995 net.cpp:139] Memory required for data: 314800
I0428 19:58:32.147136 28995 layer_factory.hpp:77] Creating layer conv0
I0428 19:58:32.147145 28995 net.cpp:86] Creating Layer conv0
I0428 19:58:32.147150 28995 net.cpp:408] conv0 <- data
I0428 19:58:32.147156 28995 net.cpp:382] conv0 -> conv0
I0428 19:58:32.148205 28995 net.cpp:124] Setting up conv0
I0428 19:58:32.148219 28995 net.cpp:131] Top shape: 100 10 24 24 (576000)
I0428 19:58:32.148224 28995 net.cpp:139] Memory required for data: 2618800
I0428 19:58:32.148234 28995 layer_factory.hpp:77] Creating layer pool0
I0428 19:58:32.148242 28995 net.cpp:86] Creating Layer pool0
I0428 19:58:32.148247 28995 net.cpp:408] pool0 <- conv0
I0428 19:58:32.148252 28995 net.cpp:382] pool0 -> pool0
I0428 19:58:32.148294 28995 net.cpp:124] Setting up pool0
I0428 19:58:32.148300 28995 net.cpp:131] Top shape: 100 10 12 12 (144000)
I0428 19:58:32.148303 28995 net.cpp:139] Memory required for data: 3194800
I0428 19:58:32.148308 28995 layer_factory.hpp:77] Creating layer conv1
I0428 19:58:32.148317 28995 net.cpp:86] Creating Layer conv1
I0428 19:58:32.148320 28995 net.cpp:408] conv1 <- pool0
I0428 19:58:32.148326 28995 net.cpp:382] conv1 -> conv1
I0428 19:58:32.150650 28995 net.cpp:124] Setting up conv1
I0428 19:58:32.150665 28995 net.cpp:131] Top shape: 100 10 8 8 (64000)
I0428 19:58:32.150670 28995 net.cpp:139] Memory required for data: 3450800
I0428 19:58:32.150679 28995 layer_factory.hpp:77] Creating layer pool1
I0428 19:58:32.150687 28995 net.cpp:86] Creating Layer pool1
I0428 19:58:32.150704 28995 net.cpp:408] pool1 <- conv1
I0428 19:58:32.150712 28995 net.cpp:382] pool1 -> pool1
I0428 19:58:32.150774 28995 net.cpp:124] Setting up pool1
I0428 19:58:32.150781 28995 net.cpp:131] Top shape: 100 10 4 4 (16000)
I0428 19:58:32.150784 28995 net.cpp:139] Memory required for data: 3514800
I0428 19:58:32.150789 28995 layer_factory.hpp:77] Creating layer ip1
I0428 19:58:32.150794 28995 net.cpp:86] Creating Layer ip1
I0428 19:58:32.150799 28995 net.cpp:408] ip1 <- pool1
I0428 19:58:32.150804 28995 net.cpp:382] ip1 -> ip1
I0428 19:58:32.150938 28995 net.cpp:124] Setting up ip1
I0428 19:58:32.150949 28995 net.cpp:131] Top shape: 100 10 (1000)
I0428 19:58:32.150952 28995 net.cpp:139] Memory required for data: 3518800
I0428 19:58:32.150960 28995 layer_factory.hpp:77] Creating layer relu1
I0428 19:58:32.150966 28995 net.cpp:86] Creating Layer relu1
I0428 19:58:32.150969 28995 net.cpp:408] relu1 <- ip1
I0428 19:58:32.150975 28995 net.cpp:369] relu1 -> ip1 (in-place)
I0428 19:58:32.151887 28995 net.cpp:124] Setting up relu1
I0428 19:58:32.151901 28995 net.cpp:131] Top shape: 100 10 (1000)
I0428 19:58:32.151906 28995 net.cpp:139] Memory required for data: 3522800
I0428 19:58:32.151911 28995 layer_factory.hpp:77] Creating layer ip1_relu1_0_split
I0428 19:58:32.151918 28995 net.cpp:86] Creating Layer ip1_relu1_0_split
I0428 19:58:32.151922 28995 net.cpp:408] ip1_relu1_0_split <- ip1
I0428 19:58:32.151928 28995 net.cpp:382] ip1_relu1_0_split -> ip1_relu1_0_split_0
I0428 19:58:32.151937 28995 net.cpp:382] ip1_relu1_0_split -> ip1_relu1_0_split_1
I0428 19:58:32.151989 28995 net.cpp:124] Setting up ip1_relu1_0_split
I0428 19:58:32.151998 28995 net.cpp:131] Top shape: 100 10 (1000)
I0428 19:58:32.152003 28995 net.cpp:131] Top shape: 100 10 (1000)
I0428 19:58:32.152005 28995 net.cpp:139] Memory required for data: 3530800
I0428 19:58:32.152009 28995 layer_factory.hpp:77] Creating layer accuracy
I0428 19:58:32.152015 28995 net.cpp:86] Creating Layer accuracy
I0428 19:58:32.152019 28995 net.cpp:408] accuracy <- ip1_relu1_0_split_0
I0428 19:58:32.152024 28995 net.cpp:408] accuracy <- label_mnist_1_split_0
I0428 19:58:32.152029 28995 net.cpp:382] accuracy -> accuracy
…
