…
I0428 19:57:15.727474 28632 net.cpp:296] The NetState phase (0) differed from the phase (1) specified by a rule in layer mnist
I0428 19:57:15.727494 28632 net.cpp:296] The NetState phase (0) differed from the phase (1) specified by a rule in layer accuracy
I0428 19:57:15.727584 28632 net.cpp:53] Initializing net from parameters: 
name: "LeNet"
state {
  phase: TRAIN
  level: 0
  stage: ""
}
layer {
  name: "mnist"
  type: "Data"
  top: "data"
  top: "label"
  include {
    phase: TRAIN
  }
  transform_param {
    scale: 0.00390625
  }
  data_param {
    source: "examples/mnist/mnist_train_lmdb"
    batch_size: 64
    backend: LMDB
  }
}
layer {
  name: "conv0"
  type: "Convolution"
  bottom: "data"
  top: "conv0"
  param {
    lr_mult: 1
  }
  param {
    lr_mult: 2
  }
  convolution_param {
    num_output: 10
    kernel_size: 5
    stride: 1
    weight_filler {
      type: "xavier"
    }
    bias_filler {
      type: "constant"
    }
  }
}
layer {
  name: "pool0"
  type: "Pooling"
  bottom: "conv0"
  top: "pool0"
  pooling_param {
    pool: MAX
    kernel_size: 2
    stride: 2
  }
}
layer {
  name: "conv1"
  type: "Convolution"
  bottom: "pool0"
  top: "conv1"
  param {
    lr_mult: 1
  }
  param {
    lr_mult: 2
  }
  convolution_param {
    num_output: 5
    kernel_size: 5
    stride: 1
    weight_filler {
      type: "xavier"
    }
    bias_filler {
      type: "constant"
    }
  }
}
layer {
  name: "pool1"
  type: "Pooling"
  bottom: "conv1"
  top: "pool1"
  pooling_param {
    pool: MAX
    kernel_size: 2
    stride: 2
  }
}
layer {
  name: "ip1"
  type: "InnerProduct"
  bottom: "pool1"
  top: "ip1"
  param {
    lr_mult: 1
  }
  param {
    lr_mult: 2
  }
  inner_product_param {
    num_output: 10
    weight_filler {
      type: "xavier"
    }
    bias_filler {
      type: "constant"
    }
  }
}
layer {
  name: "relu1"
  type: "ReLU"
  bottom: "ip1"
  top: "ip1"
}
layer {
  name: "ip2"
  type: "InnerProduct"
  bottom: "ip1"
  top: "ip2"
  param {
    lr_mult: 1
  }
  param {
    lr_mult: 2
  }
  inner_product_param {
    num_output: 10
    weight_filler {
      type: "xavier"
    }
    bias_filler {
      type: "constant"
    }
  }
}
layer {
  name: "relu2"
  type: "ReLU"
  bottom: "ip2"
  top: "ip2"
}
layer {
  name: "loss"
  type: "SoftmaxWithLoss"
  bottom: "ip2"
  bottom: "label"
  top: "loss"
}
I0428 19:57:15.727661 28632 layer_factory.hpp:77] Creating layer mnist
I0428 19:57:15.727759 28632 db_lmdb.cpp:35] Opened lmdb examples/mnist/mnist_train_lmdb
I0428 19:57:15.727784 28632 net.cpp:86] Creating Layer mnist
I0428 19:57:15.727795 28632 net.cpp:382] mnist -> data
I0428 19:57:15.727821 28632 net.cpp:382] mnist -> label
I0428 19:57:15.728906 28632 data_layer.cpp:45] output data size: 64,1,28,28
I0428 19:57:15.731395 28632 net.cpp:124] Setting up mnist
I0428 19:57:15.731415 28632 net.cpp:131] Top shape: 64 1 28 28 (50176)
I0428 19:57:15.731422 28632 net.cpp:131] Top shape: 64 (64)
I0428 19:57:15.731426 28632 net.cpp:139] Memory required for data: 200960
I0428 19:57:15.731432 28632 layer_factory.hpp:77] Creating layer conv0
I0428 19:57:15.731449 28632 net.cpp:86] Creating Layer conv0
I0428 19:57:15.731456 28632 net.cpp:408] conv0 <- data
I0428 19:57:15.731467 28632 net.cpp:382] conv0 -> conv0
I0428 19:57:16.020144 28632 net.cpp:124] Setting up conv0
I0428 19:57:16.020185 28632 net.cpp:131] Top shape: 64 10 24 24 (368640)
I0428 19:57:16.020189 28632 net.cpp:139] Memory required for data: 1675520
I0428 19:57:16.020236 28632 layer_factory.hpp:77] Creating layer pool0
I0428 19:57:16.020264 28632 net.cpp:86] Creating Layer pool0
I0428 19:57:16.020268 28632 net.cpp:408] pool0 <- conv0
I0428 19:57:16.020273 28632 net.cpp:382] pool0 -> pool0
I0428 19:57:16.020319 28632 net.cpp:124] Setting up pool0
I0428 19:57:16.020331 28632 net.cpp:131] Top shape: 64 10 12 12 (92160)
I0428 19:57:16.020334 28632 net.cpp:139] Memory required for data: 2044160
I0428 19:57:16.020337 28632 layer_factory.hpp:77] Creating layer conv1
I0428 19:57:16.020349 28632 net.cpp:86] Creating Layer conv1
I0428 19:57:16.020351 28632 net.cpp:408] conv1 <- pool0
I0428 19:57:16.020355 28632 net.cpp:382] conv1 -> conv1
I0428 19:57:16.023169 28632 net.cpp:124] Setting up conv1
I0428 19:57:16.023182 28632 net.cpp:131] Top shape: 64 5 8 8 (20480)
I0428 19:57:16.023201 28632 net.cpp:139] Memory required for data: 2126080
I0428 19:57:16.023210 28632 layer_factory.hpp:77] Creating layer pool1
I0428 19:57:16.023216 28632 net.cpp:86] Creating Layer pool1
I0428 19:57:16.023221 28632 net.cpp:408] pool1 <- conv1
I0428 19:57:16.023226 28632 net.cpp:382] pool1 -> pool1
I0428 19:57:16.023277 28632 net.cpp:124] Setting up pool1
I0428 19:57:16.023283 28632 net.cpp:131] Top shape: 64 5 4 4 (5120)
I0428 19:57:16.023285 28632 net.cpp:139] Memory required for data: 2146560
I0428 19:57:16.023288 28632 layer_factory.hpp:77] Creating layer ip1
I0428 19:57:16.023295 28632 net.cpp:86] Creating Layer ip1
I0428 19:57:16.023298 28632 net.cpp:408] ip1 <- pool1
I0428 19:57:16.023303 28632 net.cpp:382] ip1 -> ip1
I0428 19:57:16.023398 28632 net.cpp:124] Setting up ip1
I0428 19:57:16.023406 28632 net.cpp:131] Top shape: 64 10 (640)
I0428 19:57:16.023409 28632 net.cpp:139] Memory required for data: 2149120
I0428 19:57:16.023416 28632 layer_factory.hpp:77] Creating layer relu1
I0428 19:57:16.023422 28632 net.cpp:86] Creating Layer relu1
I0428 19:57:16.023424 28632 net.cpp:408] relu1 <- ip1
I0428 19:57:16.023429 28632 net.cpp:369] relu1 -> ip1 (in-place)
I0428 19:57:16.023596 28632 net.cpp:124] Setting up relu1
I0428 19:57:16.023603 28632 net.cpp:131] Top shape: 64 10 (640)
I0428 19:57:16.023607 28632 net.cpp:139] Memory required for data: 2151680
I0428 19:57:16.023609 28632 layer_factory.hpp:77] Creating layer ip2
I0428 19:57:16.023615 28632 net.cpp:86] Creating Layer ip2
I0428 19:57:16.023618 28632 net.cpp:408] ip2 <- ip1
I0428 19:57:16.023623 28632 net.cpp:382] ip2 -> ip2
I0428 19:57:16.023715 28632 net.cpp:124] Setting up ip2
I0428 19:57:16.023721 28632 net.cpp:131] Top shape: 64 10 (640)
I0428 19:57:16.023725 28632 net.cpp:139] Memory required for data: 2154240
I0428 19:57:16.023730 28632 layer_factory.hpp:77] Creating layer relu2
I0428 19:57:16.023736 28632 net.cpp:86] Creating Layer relu2
I0428 19:57:16.023738 28632 net.cpp:408] relu2 <- ip2
I0428 19:57:16.023742 28632 net.cpp:369] relu2 -> ip2 (in-place)
I0428 19:57:16.024538 28632 net.cpp:124] Setting up relu2
I0428 19:57:16.024549 28632 net.cpp:131] Top shape: 64 10 (640)
I0428 19:57:16.024554 28632 net.cpp:139] Memory required for data: 2156800
I0428 19:57:16.024557 28632 layer_factory.hpp:77] Creating layer loss
I0428 19:57:16.024564 28632 net.cpp:86] Creating Layer loss
I0428 19:57:16.024567 28632 net.cpp:408] loss <- ip2
I0428 19:57:16.024571 28632 net.cpp:408] loss <- label
I0428 19:57:16.024576 28632 net.cpp:382] loss -> loss
I0428 19:57:16.024603 28632 layer_factory.hpp:77] Creating layer loss
…
I0428 19:57:16.025362 28632 solver.cpp:173] Creating test net (#0) specified by net file: ECE595/mnist/train_test/var_everything2/lenet_train_test783.prototxt
I0428 19:57:16.025401 28632 net.cpp:296] The NetState phase (1) differed from the phase (0) specified by a rule in layer mnist
I0428 19:57:16.025486 28632 net.cpp:53] Initializing net from parameters: 
name: "LeNet"
state {
  phase: TEST
}
layer {
  name: "mnist"
  type: "Data"
  top: "data"
  top: "label"
  include {
    phase: TEST
  }
  transform_param {
    scale: 0.00390625
  }
  data_param {
    source: "examples/mnist/mnist_test_lmdb"
    batch_size: 100
    backend: LMDB
  }
}
layer {
  name: "conv0"
  type: "Convolution"
  bottom: "data"
  top: "conv0"
  param {
    lr_mult: 1
  }
  param {
    lr_mult: 2
  }
  convolution_param {
    num_output: 10
    kernel_size: 5
    stride: 1
    weight_filler {
      type: "xavier"
    }
    bias_filler {
      type: "constant"
    }
  }
}
layer {
  name: "pool0"
  type: "Pooling"
  bottom: "conv0"
  top: "pool0"
  pooling_param {
    pool: MAX
    kernel_size: 2
    stride: 2
  }
}
layer {
  name: "conv1"
  type: "Convolution"
  bottom: "pool0"
  top: "conv1"
  param {
    lr_mult: 1
  }
  param {
    lr_mult: 2
  }
  convolution_param {
    num_output: 5
    kernel_size: 5
    stride: 1
    weight_filler {
      type: "xavier"
    }
    bias_filler {
      type: "constant"
    }
  }
}
layer {
  name: "pool1"
  type: "Pooling"
  bottom: "conv1"
  top: "pool1"
  pooling_param {
    pool: MAX
    kernel_size: 2
    stride: 2
  }
}
layer {
  name: "ip1"
  type: "InnerProduct"
  bottom: "pool1"
  top: "ip1"
  param {
    lr_mult: 1
  }
  param {
    lr_mult: 2
  }
  inner_product_param {
    num_output: 10
    weight_filler {
      type: "xavier"
    }
    bias_filler {
      type: "constant"
    }
  }
}
layer {
  name: "relu1"
  type: "ReLU"
  bottom: "ip1"
  top: "ip1"
}
layer {
  name: "ip2"
  type: "InnerProduct"
  bottom: "ip1"
  top: "ip2"
  param {
    lr_mult: 1
  }
  param {
    lr_mult: 2
  }
  inner_product_param {
    num_output: 10
    weight_filler {
      type: "xavier"
    }
    bias_filler {
      type: "constant"
    }
  }
}
layer {
  name: "relu2"
  type: "ReLU"
  bottom: "ip2"
  top: "ip2"
}
layer {
  name: "accuracy"
  type: "Accuracy"
  bottom: "ip2"
  bottom: "label"
  top: "accuracy"
  include {
    phase: TEST
  }
}
layer {
  name: "loss"
  type: "SoftmaxWithLoss"
  bottom: "ip2"
  bottom: "label"
  top: "loss"
}
I0428 19:57:16.025564 28632 layer_factory.hpp:77] Creating layer mnist
I0428 19:57:16.025619 28632 db_lmdb.cpp:35] Opened lmdb examples/mnist/mnist_test_lmdb
I0428 19:57:16.025630 28632 net.cpp:86] Creating Layer mnist
I0428 19:57:16.025637 28632 net.cpp:382] mnist -> data
I0428 19:57:16.025648 28632 net.cpp:382] mnist -> label
I0428 19:57:16.025748 28632 data_layer.cpp:45] output data size: 100,1,28,28
I0428 19:57:16.028059 28632 net.cpp:124] Setting up mnist
I0428 19:57:16.028072 28632 net.cpp:131] Top shape: 100 1 28 28 (78400)
I0428 19:57:16.028077 28632 net.cpp:131] Top shape: 100 (100)
I0428 19:57:16.028080 28632 net.cpp:139] Memory required for data: 314000
I0428 19:57:16.028084 28632 layer_factory.hpp:77] Creating layer label_mnist_1_split
I0428 19:57:16.028101 28632 net.cpp:86] Creating Layer label_mnist_1_split
I0428 19:57:16.028105 28632 net.cpp:408] label_mnist_1_split <- label
I0428 19:57:16.028110 28632 net.cpp:382] label_mnist_1_split -> label_mnist_1_split_0
I0428 19:57:16.028117 28632 net.cpp:382] label_mnist_1_split -> label_mnist_1_split_1
I0428 19:57:16.028208 28632 net.cpp:124] Setting up label_mnist_1_split
I0428 19:57:16.028225 28632 net.cpp:131] Top shape: 100 (100)
I0428 19:57:16.028229 28632 net.cpp:131] Top shape: 100 (100)
I0428 19:57:16.028233 28632 net.cpp:139] Memory required for data: 314800
I0428 19:57:16.028235 28632 layer_factory.hpp:77] Creating layer conv0
I0428 19:57:16.028261 28632 net.cpp:86] Creating Layer conv0
I0428 19:57:16.028264 28632 net.cpp:408] conv0 <- data
I0428 19:57:16.028271 28632 net.cpp:382] conv0 -> conv0
I0428 19:57:16.030087 28632 net.cpp:124] Setting up conv0
I0428 19:57:16.030100 28632 net.cpp:131] Top shape: 100 10 24 24 (576000)
I0428 19:57:16.030119 28632 net.cpp:139] Memory required for data: 2618800
I0428 19:57:16.030128 28632 layer_factory.hpp:77] Creating layer pool0
I0428 19:57:16.030135 28632 net.cpp:86] Creating Layer pool0
I0428 19:57:16.030139 28632 net.cpp:408] pool0 <- conv0
I0428 19:57:16.030143 28632 net.cpp:382] pool0 -> pool0
I0428 19:57:16.030196 28632 net.cpp:124] Setting up pool0
I0428 19:57:16.030201 28632 net.cpp:131] Top shape: 100 10 12 12 (144000)
I0428 19:57:16.030205 28632 net.cpp:139] Memory required for data: 3194800
I0428 19:57:16.030207 28632 layer_factory.hpp:77] Creating layer conv1
I0428 19:57:16.030216 28632 net.cpp:86] Creating Layer conv1
I0428 19:57:16.030220 28632 net.cpp:408] conv1 <- pool0
I0428 19:57:16.030228 28632 net.cpp:382] conv1 -> conv1
I0428 19:57:16.032327 28632 net.cpp:124] Setting up conv1
I0428 19:57:16.032342 28632 net.cpp:131] Top shape: 100 5 8 8 (32000)
I0428 19:57:16.032346 28632 net.cpp:139] Memory required for data: 3322800
I0428 19:57:16.032356 28632 layer_factory.hpp:77] Creating layer pool1
I0428 19:57:16.032377 28632 net.cpp:86] Creating Layer pool1
I0428 19:57:16.032380 28632 net.cpp:408] pool1 <- conv1
I0428 19:57:16.032384 28632 net.cpp:382] pool1 -> pool1
I0428 19:57:16.032424 28632 net.cpp:124] Setting up pool1
I0428 19:57:16.032429 28632 net.cpp:131] Top shape: 100 5 4 4 (8000)
I0428 19:57:16.032433 28632 net.cpp:139] Memory required for data: 3354800
I0428 19:57:16.032436 28632 layer_factory.hpp:77] Creating layer ip1
I0428 19:57:16.032443 28632 net.cpp:86] Creating Layer ip1
I0428 19:57:16.032446 28632 net.cpp:408] ip1 <- pool1
I0428 19:57:16.032450 28632 net.cpp:382] ip1 -> ip1
I0428 19:57:16.032552 28632 net.cpp:124] Setting up ip1
I0428 19:57:16.032559 28632 net.cpp:131] Top shape: 100 10 (1000)
I0428 19:57:16.032562 28632 net.cpp:139] Memory required for data: 3358800
I0428 19:57:16.032568 28632 layer_factory.hpp:77] Creating layer relu1
I0428 19:57:16.032574 28632 net.cpp:86] Creating Layer relu1
I0428 19:57:16.032578 28632 net.cpp:408] relu1 <- ip1
I0428 19:57:16.032582 28632 net.cpp:369] relu1 -> ip1 (in-place)
I0428 19:57:16.032814 28632 net.cpp:124] Setting up relu1
I0428 19:57:16.032841 28632 net.cpp:131] Top shape: 100 10 (1000)
I0428 19:57:16.032845 28632 net.cpp:139] Memory required for data: 3362800
I0428 19:57:16.032847 28632 layer_factory.hpp:77] Creating layer ip2
I0428 19:57:16.032855 28632 net.cpp:86] Creating Layer ip2
I0428 19:57:16.032857 28632 net.cpp:408] ip2 <- ip1
I0428 19:57:16.032863 28632 net.cpp:382] ip2 -> ip2
I0428 19:57:16.033016 28632 net.cpp:124] Setting up ip2
I0428 19:57:16.033041 28632 net.cpp:131] Top shape: 100 10 (1000)
I0428 19:57:16.033046 28632 net.cpp:139] Memory required for data: 3366800
I0428 19:57:16.033051 28632 layer_factory.hpp:77] Creating layer relu2
I0428 19:57:16.033058 28632 net.cpp:86] Creating Layer relu2
I0428 19:57:16.033067 28632 net.cpp:408] relu2 <- ip2
I0428 19:57:16.033072 28632 net.cpp:369] relu2 -> ip2 (in-place)
I0428 19:57:16.033298 28632 net.cpp:124] Setting up relu2
I0428 19:57:16.033306 28632 net.cpp:131] Top shape: 100 10 (1000)
I0428 19:57:16.033309 28632 net.cpp:139] Memory required for data: 3370800
I0428 19:57:16.033313 28632 layer_factory.hpp:77] Creating layer ip2_relu2_0_split
I0428 19:57:16.033319 28632 net.cpp:86] Creating Layer ip2_relu2_0_split
I0428 19:57:16.033323 28632 net.cpp:408] ip2_relu2_0_split <- ip2
I0428 19:57:16.033327 28632 net.cpp:382] ip2_relu2_0_split -> ip2_relu2_0_split_0
I0428 19:57:16.033344 28632 net.cpp:382] ip2_relu2_0_split -> ip2_relu2_0_split_1
I0428 19:57:16.033385 28632 net.cpp:124] Setting up ip2_relu2_0_split
I0428 19:57:16.033393 28632 net.cpp:131] Top shape: 100 10 (1000)
I0428 19:57:16.033397 28632 net.cpp:131] Top shape: 100 10 (1000)
I0428 19:57:16.033399 28632 net.cpp:139] Memory required for data: 3378800
I0428 19:57:16.033402 28632 layer_factory.hpp:77] Creating layer accuracy
I0428 19:57:16.033409 28632 net.cpp:86] Creating Layer accuracy
I0428 19:57:16.033412 28632 net.cpp:408] accuracy <- ip2_relu2_0_split_0
I0428 19:57:16.033417 28632 net.cpp:408] accuracy <- label_mnist_1_split_0
I0428 19:57:16.033421 28632 net.cpp:382] accuracy -> accuracy
…
