…
I0428 19:54:21.173760 27978 net.cpp:296] The NetState phase (0) differed from the phase (1) specified by a rule in layer mnist
I0428 19:54:21.173779 27978 net.cpp:296] The NetState phase (0) differed from the phase (1) specified by a rule in layer accuracy
I0428 19:54:21.173869 27978 net.cpp:53] Initializing net from parameters: 
name: "LeNet"
state {
  phase: TRAIN
  level: 0
  stage: ""
}
layer {
  name: "mnist"
  type: "Data"
  top: "data"
  top: "label"
  include {
    phase: TRAIN
  }
  transform_param {
    scale: 0.00390625
  }
  data_param {
    source: "examples/mnist/mnist_train_lmdb"
    batch_size: 64
    backend: LMDB
  }
}
layer {
  name: "conv0"
  type: "Convolution"
  bottom: "data"
  top: "conv0"
  param {
    lr_mult: 1
  }
  param {
    lr_mult: 2
  }
  convolution_param {
    num_output: 5
    kernel_size: 5
    stride: 1
    weight_filler {
      type: "xavier"
    }
    bias_filler {
      type: "constant"
    }
  }
}
layer {
  name: "pool0"
  type: "Pooling"
  bottom: "conv0"
  top: "pool0"
  pooling_param {
    pool: MAX
    kernel_size: 2
    stride: 2
  }
}
layer {
  name: "conv1"
  type: "Convolution"
  bottom: "pool0"
  top: "conv1"
  param {
    lr_mult: 1
  }
  param {
    lr_mult: 2
  }
  convolution_param {
    num_output: 100
    kernel_size: 5
    stride: 1
    weight_filler {
      type: "xavier"
    }
    bias_filler {
      type: "constant"
    }
  }
}
layer {
  name: "pool1"
  type: "Pooling"
  bottom: "conv1"
  top: "pool1"
  pooling_param {
    pool: MAX
    kernel_size: 2
    stride: 2
  }
}
layer {
  name: "ip1"
  type: "InnerProduct"
  bottom: "pool1"
  top: "ip1"
  param {
    lr_mult: 1
  }
  param {
    lr_mult: 2
  }
  inner_product_param {
    num_output: 25
    weight_filler {
      type: "xavier"
    }
    bias_filler {
      type: "constant"
    }
  }
}
layer {
  name: "relu1"
  type: "ReLU"
  bottom: "ip1"
  top: "ip1"
}
layer {
  name: "ip2"
  type: "InnerProduct"
  bottom: "ip1"
  top: "ip2"
  param {
    lr_mult: 1
  }
  param {
    lr_mult: 2
  }
  inner_product_param {
    num_output: 10
    weight_filler {
      type: "xavier"
    }
    bias_filler {
      type: "constant"
    }
  }
}
layer {
  name: "relu2"
  type: "ReLU"
  bottom: "ip2"
  top: "ip2"
}
layer {
  name: "loss"
  type: "SoftmaxWithLoss"
  bottom: "ip2"
  bottom: "label"
  top: "loss"
}
I0428 19:54:21.173946 27978 layer_factory.hpp:77] Creating layer mnist
I0428 19:54:21.174046 27978 db_lmdb.cpp:35] Opened lmdb examples/mnist/mnist_train_lmdb
I0428 19:54:21.174068 27978 net.cpp:86] Creating Layer mnist
I0428 19:54:21.174077 27978 net.cpp:382] mnist -> data
I0428 19:54:21.174099 27978 net.cpp:382] mnist -> label
I0428 19:54:21.175190 27978 data_layer.cpp:45] output data size: 64,1,28,28
I0428 19:54:21.177644 27978 net.cpp:124] Setting up mnist
I0428 19:54:21.177661 27978 net.cpp:131] Top shape: 64 1 28 28 (50176)
I0428 19:54:21.177667 27978 net.cpp:131] Top shape: 64 (64)
I0428 19:54:21.177671 27978 net.cpp:139] Memory required for data: 200960
I0428 19:54:21.177678 27978 layer_factory.hpp:77] Creating layer conv0
I0428 19:54:21.177722 27978 net.cpp:86] Creating Layer conv0
I0428 19:54:21.177729 27978 net.cpp:408] conv0 <- data
I0428 19:54:21.177742 27978 net.cpp:382] conv0 -> conv0
I0428 19:54:21.459012 27978 net.cpp:124] Setting up conv0
I0428 19:54:21.459039 27978 net.cpp:131] Top shape: 64 5 24 24 (184320)
I0428 19:54:21.459043 27978 net.cpp:139] Memory required for data: 938240
I0428 19:54:21.459075 27978 layer_factory.hpp:77] Creating layer pool0
I0428 19:54:21.459087 27978 net.cpp:86] Creating Layer pool0
I0428 19:54:21.459091 27978 net.cpp:408] pool0 <- conv0
I0428 19:54:21.459097 27978 net.cpp:382] pool0 -> pool0
I0428 19:54:21.459153 27978 net.cpp:124] Setting up pool0
I0428 19:54:21.459159 27978 net.cpp:131] Top shape: 64 5 12 12 (46080)
I0428 19:54:21.459162 27978 net.cpp:139] Memory required for data: 1122560
I0428 19:54:21.459166 27978 layer_factory.hpp:77] Creating layer conv1
I0428 19:54:21.459177 27978 net.cpp:86] Creating Layer conv1
I0428 19:54:21.459179 27978 net.cpp:408] conv1 <- pool0
I0428 19:54:21.459184 27978 net.cpp:382] conv1 -> conv1
I0428 19:54:21.462076 27978 net.cpp:124] Setting up conv1
I0428 19:54:21.462091 27978 net.cpp:131] Top shape: 64 100 8 8 (409600)
I0428 19:54:21.462095 27978 net.cpp:139] Memory required for data: 2760960
I0428 19:54:21.462121 27978 layer_factory.hpp:77] Creating layer pool1
I0428 19:54:21.462128 27978 net.cpp:86] Creating Layer pool1
I0428 19:54:21.462132 27978 net.cpp:408] pool1 <- conv1
I0428 19:54:21.462137 27978 net.cpp:382] pool1 -> pool1
I0428 19:54:21.462190 27978 net.cpp:124] Setting up pool1
I0428 19:54:21.462198 27978 net.cpp:131] Top shape: 64 100 4 4 (102400)
I0428 19:54:21.462201 27978 net.cpp:139] Memory required for data: 3170560
I0428 19:54:21.462204 27978 layer_factory.hpp:77] Creating layer ip1
I0428 19:54:21.462215 27978 net.cpp:86] Creating Layer ip1
I0428 19:54:21.462219 27978 net.cpp:408] ip1 <- pool1
I0428 19:54:21.462224 27978 net.cpp:382] ip1 -> ip1
I0428 19:54:21.462565 27978 net.cpp:124] Setting up ip1
I0428 19:54:21.462574 27978 net.cpp:131] Top shape: 64 25 (1600)
I0428 19:54:21.462577 27978 net.cpp:139] Memory required for data: 3176960
I0428 19:54:21.462584 27978 layer_factory.hpp:77] Creating layer relu1
I0428 19:54:21.462590 27978 net.cpp:86] Creating Layer relu1
I0428 19:54:21.462594 27978 net.cpp:408] relu1 <- ip1
I0428 19:54:21.462599 27978 net.cpp:369] relu1 -> ip1 (in-place)
I0428 19:54:21.462792 27978 net.cpp:124] Setting up relu1
I0428 19:54:21.462800 27978 net.cpp:131] Top shape: 64 25 (1600)
I0428 19:54:21.462805 27978 net.cpp:139] Memory required for data: 3183360
I0428 19:54:21.462807 27978 layer_factory.hpp:77] Creating layer ip2
I0428 19:54:21.462813 27978 net.cpp:86] Creating Layer ip2
I0428 19:54:21.462816 27978 net.cpp:408] ip2 <- ip1
I0428 19:54:21.462821 27978 net.cpp:382] ip2 -> ip2
I0428 19:54:21.462909 27978 net.cpp:124] Setting up ip2
I0428 19:54:21.462915 27978 net.cpp:131] Top shape: 64 10 (640)
I0428 19:54:21.462918 27978 net.cpp:139] Memory required for data: 3185920
I0428 19:54:21.462924 27978 layer_factory.hpp:77] Creating layer relu2
I0428 19:54:21.462929 27978 net.cpp:86] Creating Layer relu2
I0428 19:54:21.462934 27978 net.cpp:408] relu2 <- ip2
I0428 19:54:21.462937 27978 net.cpp:369] relu2 -> ip2 (in-place)
I0428 19:54:21.463707 27978 net.cpp:124] Setting up relu2
I0428 19:54:21.463719 27978 net.cpp:131] Top shape: 64 10 (640)
I0428 19:54:21.463738 27978 net.cpp:139] Memory required for data: 3188480
I0428 19:54:21.463742 27978 layer_factory.hpp:77] Creating layer loss
I0428 19:54:21.463764 27978 net.cpp:86] Creating Layer loss
I0428 19:54:21.463768 27978 net.cpp:408] loss <- ip2
I0428 19:54:21.463773 27978 net.cpp:408] loss <- label
I0428 19:54:21.463778 27978 net.cpp:382] loss -> loss
I0428 19:54:21.463798 27978 layer_factory.hpp:77] Creating layer loss
…
I0428 19:54:21.464423 27978 solver.cpp:173] Creating test net (#0) specified by net file: ECE595/mnist/train_test/var_everything2/lenet_train_test709.prototxt
I0428 19:54:21.464464 27978 net.cpp:296] The NetState phase (1) differed from the phase (0) specified by a rule in layer mnist
I0428 19:54:21.464570 27978 net.cpp:53] Initializing net from parameters: 
name: "LeNet"
state {
  phase: TEST
}
layer {
  name: "mnist"
  type: "Data"
  top: "data"
  top: "label"
  include {
    phase: TEST
  }
  transform_param {
    scale: 0.00390625
  }
  data_param {
    source: "examples/mnist/mnist_test_lmdb"
    batch_size: 100
    backend: LMDB
  }
}
layer {
  name: "conv0"
  type: "Convolution"
  bottom: "data"
  top: "conv0"
  param {
    lr_mult: 1
  }
  param {
    lr_mult: 2
  }
  convolution_param {
    num_output: 5
    kernel_size: 5
    stride: 1
    weight_filler {
      type: "xavier"
    }
    bias_filler {
      type: "constant"
    }
  }
}
layer {
  name: "pool0"
  type: "Pooling"
  bottom: "conv0"
  top: "pool0"
  pooling_param {
    pool: MAX
    kernel_size: 2
    stride: 2
  }
}
layer {
  name: "conv1"
  type: "Convolution"
  bottom: "pool0"
  top: "conv1"
  param {
    lr_mult: 1
  }
  param {
    lr_mult: 2
  }
  convolution_param {
    num_output: 100
    kernel_size: 5
    stride: 1
    weight_filler {
      type: "xavier"
    }
    bias_filler {
      type: "constant"
    }
  }
}
layer {
  name: "pool1"
  type: "Pooling"
  bottom: "conv1"
  top: "pool1"
  pooling_param {
    pool: MAX
    kernel_size: 2
    stride: 2
  }
}
layer {
  name: "ip1"
  type: "InnerProduct"
  bottom: "pool1"
  top: "ip1"
  param {
    lr_mult: 1
  }
  param {
    lr_mult: 2
  }
  inner_product_param {
    num_output: 25
    weight_filler {
      type: "xavier"
    }
    bias_filler {
      type: "constant"
    }
  }
}
layer {
  name: "relu1"
  type: "ReLU"
  bottom: "ip1"
  top: "ip1"
}
layer {
  name: "ip2"
  type: "InnerProduct"
  bottom: "ip1"
  top: "ip2"
  param {
    lr_mult: 1
  }
  param {
    lr_mult: 2
  }
  inner_product_param {
    num_output: 10
    weight_filler {
      type: "xavier"
    }
    bias_filler {
      type: "constant"
    }
  }
}
layer {
  name: "relu2"
  type: "ReLU"
  bottom: "ip2"
  top: "ip2"
}
layer {
  name: "accuracy"
  type: "Accuracy"
  bottom: "ip2"
  bottom: "label"
  top: "accuracy"
  include {
    phase: TEST
  }
}
layer {
  name: "loss"
  type: "SoftmaxWithLoss"
  bottom: "ip2"
  bottom: "label"
  top: "loss"
}
I0428 19:54:21.464635 27978 layer_factory.hpp:77] Creating layer mnist
I0428 19:54:21.464681 27978 db_lmdb.cpp:35] Opened lmdb examples/mnist/mnist_test_lmdb
I0428 19:54:21.464694 27978 net.cpp:86] Creating Layer mnist
I0428 19:54:21.464699 27978 net.cpp:382] mnist -> data
I0428 19:54:21.464707 27978 net.cpp:382] mnist -> label
I0428 19:54:21.464797 27978 data_layer.cpp:45] output data size: 100,1,28,28
I0428 19:54:21.467030 27978 net.cpp:124] Setting up mnist
I0428 19:54:21.467058 27978 net.cpp:131] Top shape: 100 1 28 28 (78400)
I0428 19:54:21.467064 27978 net.cpp:131] Top shape: 100 (100)
I0428 19:54:21.467067 27978 net.cpp:139] Memory required for data: 314000
I0428 19:54:21.467072 27978 layer_factory.hpp:77] Creating layer label_mnist_1_split
I0428 19:54:21.467105 27978 net.cpp:86] Creating Layer label_mnist_1_split
I0428 19:54:21.467109 27978 net.cpp:408] label_mnist_1_split <- label
I0428 19:54:21.467114 27978 net.cpp:382] label_mnist_1_split -> label_mnist_1_split_0
I0428 19:54:21.467121 27978 net.cpp:382] label_mnist_1_split -> label_mnist_1_split_1
I0428 19:54:21.467180 27978 net.cpp:124] Setting up label_mnist_1_split
I0428 19:54:21.467185 27978 net.cpp:131] Top shape: 100 (100)
I0428 19:54:21.467190 27978 net.cpp:131] Top shape: 100 (100)
I0428 19:54:21.467192 27978 net.cpp:139] Memory required for data: 314800
I0428 19:54:21.467195 27978 layer_factory.hpp:77] Creating layer conv0
I0428 19:54:21.467203 27978 net.cpp:86] Creating Layer conv0
I0428 19:54:21.467217 27978 net.cpp:408] conv0 <- data
I0428 19:54:21.467223 27978 net.cpp:382] conv0 -> conv0
I0428 19:54:21.468981 27978 net.cpp:124] Setting up conv0
I0428 19:54:21.468996 27978 net.cpp:131] Top shape: 100 5 24 24 (288000)
I0428 19:54:21.468998 27978 net.cpp:139] Memory required for data: 1466800
I0428 19:54:21.469007 27978 layer_factory.hpp:77] Creating layer pool0
I0428 19:54:21.469013 27978 net.cpp:86] Creating Layer pool0
I0428 19:54:21.469017 27978 net.cpp:408] pool0 <- conv0
I0428 19:54:21.469022 27978 net.cpp:382] pool0 -> pool0
I0428 19:54:21.469055 27978 net.cpp:124] Setting up pool0
I0428 19:54:21.469060 27978 net.cpp:131] Top shape: 100 5 12 12 (72000)
I0428 19:54:21.469063 27978 net.cpp:139] Memory required for data: 1754800
I0428 19:54:21.469066 27978 layer_factory.hpp:77] Creating layer conv1
I0428 19:54:21.469074 27978 net.cpp:86] Creating Layer conv1
I0428 19:54:21.469077 27978 net.cpp:408] conv1 <- pool0
I0428 19:54:21.469082 27978 net.cpp:382] conv1 -> conv1
I0428 19:54:21.470648 27978 net.cpp:124] Setting up conv1
I0428 19:54:21.470661 27978 net.cpp:131] Top shape: 100 100 8 8 (640000)
I0428 19:54:21.470665 27978 net.cpp:139] Memory required for data: 4314800
I0428 19:54:21.470674 27978 layer_factory.hpp:77] Creating layer pool1
I0428 19:54:21.470680 27978 net.cpp:86] Creating Layer pool1
I0428 19:54:21.470685 27978 net.cpp:408] pool1 <- conv1
I0428 19:54:21.470691 27978 net.cpp:382] pool1 -> pool1
I0428 19:54:21.470729 27978 net.cpp:124] Setting up pool1
I0428 19:54:21.470736 27978 net.cpp:131] Top shape: 100 100 4 4 (160000)
I0428 19:54:21.470738 27978 net.cpp:139] Memory required for data: 4954800
I0428 19:54:21.470742 27978 layer_factory.hpp:77] Creating layer ip1
I0428 19:54:21.470755 27978 net.cpp:86] Creating Layer ip1
I0428 19:54:21.470758 27978 net.cpp:408] ip1 <- pool1
I0428 19:54:21.470763 27978 net.cpp:382] ip1 -> ip1
I0428 19:54:21.471132 27978 net.cpp:124] Setting up ip1
I0428 19:54:21.471143 27978 net.cpp:131] Top shape: 100 25 (2500)
I0428 19:54:21.471145 27978 net.cpp:139] Memory required for data: 4964800
I0428 19:54:21.471153 27978 layer_factory.hpp:77] Creating layer relu1
I0428 19:54:21.471158 27978 net.cpp:86] Creating Layer relu1
I0428 19:54:21.471163 27978 net.cpp:408] relu1 <- ip1
I0428 19:54:21.471166 27978 net.cpp:369] relu1 -> ip1 (in-place)
I0428 19:54:21.471338 27978 net.cpp:124] Setting up relu1
I0428 19:54:21.471348 27978 net.cpp:131] Top shape: 100 25 (2500)
I0428 19:54:21.471350 27978 net.cpp:139] Memory required for data: 4974800
I0428 19:54:21.471354 27978 layer_factory.hpp:77] Creating layer ip2
I0428 19:54:21.471379 27978 net.cpp:86] Creating Layer ip2
I0428 19:54:21.471388 27978 net.cpp:408] ip2 <- ip1
I0428 19:54:21.471393 27978 net.cpp:382] ip2 -> ip2
I0428 19:54:21.471504 27978 net.cpp:124] Setting up ip2
I0428 19:54:21.471513 27978 net.cpp:131] Top shape: 100 10 (1000)
I0428 19:54:21.471515 27978 net.cpp:139] Memory required for data: 4978800
I0428 19:54:21.471521 27978 layer_factory.hpp:77] Creating layer relu2
I0428 19:54:21.471531 27978 net.cpp:86] Creating Layer relu2
I0428 19:54:21.471535 27978 net.cpp:408] relu2 <- ip2
I0428 19:54:21.471540 27978 net.cpp:369] relu2 -> ip2 (in-place)
I0428 19:54:21.471702 27978 net.cpp:124] Setting up relu2
I0428 19:54:21.471711 27978 net.cpp:131] Top shape: 100 10 (1000)
I0428 19:54:21.471715 27978 net.cpp:139] Memory required for data: 4982800
I0428 19:54:21.471719 27978 layer_factory.hpp:77] Creating layer ip2_relu2_0_split
I0428 19:54:21.471724 27978 net.cpp:86] Creating Layer ip2_relu2_0_split
I0428 19:54:21.471726 27978 net.cpp:408] ip2_relu2_0_split <- ip2
I0428 19:54:21.471731 27978 net.cpp:382] ip2_relu2_0_split -> ip2_relu2_0_split_0
I0428 19:54:21.471748 27978 net.cpp:382] ip2_relu2_0_split -> ip2_relu2_0_split_1
I0428 19:54:21.471794 27978 net.cpp:124] Setting up ip2_relu2_0_split
I0428 19:54:21.471801 27978 net.cpp:131] Top shape: 100 10 (1000)
I0428 19:54:21.471804 27978 net.cpp:131] Top shape: 100 10 (1000)
I0428 19:54:21.471808 27978 net.cpp:139] Memory required for data: 4990800
I0428 19:54:21.471818 27978 layer_factory.hpp:77] Creating layer accuracy
I0428 19:54:21.471823 27978 net.cpp:86] Creating Layer accuracy
I0428 19:54:21.471827 27978 net.cpp:408] accuracy <- ip2_relu2_0_split_0
I0428 19:54:21.471832 27978 net.cpp:408] accuracy <- label_mnist_1_split_0
I0428 19:54:21.471837 27978 net.cpp:382] accuracy -> accuracy
…
