…
I0428 20:22:13.557606  1924 net.cpp:296] The NetState phase (0) differed from the phase (1) specified by a rule in layer mnist
I0428 20:22:13.557623  1924 net.cpp:296] The NetState phase (0) differed from the phase (1) specified by a rule in layer accuracy
I0428 20:22:13.557701  1924 net.cpp:53] Initializing net from parameters: 
name: "LeNet"
state {
  phase: TRAIN
  level: 0
  stage: ""
}
layer {
  name: "mnist"
  type: "Data"
  top: "data"
  top: "label"
  include {
    phase: TRAIN
  }
  transform_param {
    scale: 0.00390625
  }
  data_param {
    source: "examples/mnist/mnist_train_lmdb"
    batch_size: 64
    backend: LMDB
  }
}
layer {
  name: "conv0"
  type: "Convolution"
  bottom: "data"
  top: "conv0"
  param {
    lr_mult: 1
  }
  param {
    lr_mult: 2
  }
  convolution_param {
    num_output: 50
    kernel_size: 5
    stride: 1
    weight_filler {
      type: "xavier"
    }
    bias_filler {
      type: "constant"
    }
  }
}
layer {
  name: "pool0"
  type: "Pooling"
  bottom: "conv0"
  top: "pool0"
  pooling_param {
    pool: MAX
    kernel_size: 2
    stride: 2
  }
}
layer {
  name: "conv1"
  type: "Convolution"
  bottom: "pool0"
  top: "conv1"
  param {
    lr_mult: 1
  }
  param {
    lr_mult: 2
  }
  convolution_param {
    num_output: 50
    kernel_size: 5
    stride: 1
    weight_filler {
      type: "xavier"
    }
    bias_filler {
      type: "constant"
    }
  }
}
layer {
  name: "pool1"
  type: "Pooling"
  bottom: "conv1"
  top: "pool1"
  pooling_param {
    pool: MAX
    kernel_size: 2
    stride: 2
  }
}
layer {
  name: "ip1"
  type: "InnerProduct"
  bottom: "pool1"
  top: "ip1"
  param {
    lr_mult: 1
  }
  param {
    lr_mult: 2
  }
  inner_product_param {
    num_output: 50
    weight_filler {
      type: "xavier"
    }
    bias_filler {
      type: "constant"
    }
  }
}
layer {
  name: "relu1"
  type: "ReLU"
  bottom: "ip1"
  top: "ip1"
}
layer {
  name: "ip2"
  type: "InnerProduct"
  bottom: "ip1"
  top: "ip2"
  param {
    lr_mult: 1
  }
  param {
    lr_mult: 2
  }
  inner_product_param {
    num_output: 25
    weight_filler {
      type: "xavier"
    }
    bias_filler {
      type: "constant"
    }
  }
}
layer {
  name: "relu2"
  type: "ReLU"
  bottom: "ip2"
  top: "ip2"
}
layer {
  name: "ip3"
  type: "InnerProduct"
  bottom: "ip2"
  top: "ip3"
  param {
    lr_mult: 1
  }
  param {
    lr_mult: 2
  }
  inner_product_param {
    num_output: 10
    weight_filler {
      type: "xavier"
    }
    bias_filler {
      type: "constant"
    }
  }
}
layer {
  name: "relu3"
  type: "ReLU"
  bottom: "ip3"
  top: "ip3"
}
layer {
  name: "loss"
  type: "SoftmaxWithLoss"
  bottom: "ip3"
  bottom: "label"
  top: "loss"
}
I0428 20:22:13.557767  1924 layer_factory.hpp:77] Creating layer mnist
I0428 20:22:13.557868  1924 db_lmdb.cpp:35] Opened lmdb examples/mnist/mnist_train_lmdb
I0428 20:22:13.557888  1924 net.cpp:86] Creating Layer mnist
I0428 20:22:13.557894  1924 net.cpp:382] mnist -> data
I0428 20:22:13.557914  1924 net.cpp:382] mnist -> label
I0428 20:22:13.558799  1924 data_layer.cpp:45] output data size: 64,1,28,28
I0428 20:22:13.560982  1924 net.cpp:124] Setting up mnist
I0428 20:22:13.561014  1924 net.cpp:131] Top shape: 64 1 28 28 (50176)
I0428 20:22:13.561019  1924 net.cpp:131] Top shape: 64 (64)
I0428 20:22:13.561022  1924 net.cpp:139] Memory required for data: 200960
I0428 20:22:13.561028  1924 layer_factory.hpp:77] Creating layer conv0
I0428 20:22:13.561051  1924 net.cpp:86] Creating Layer conv0
I0428 20:22:13.561069  1924 net.cpp:408] conv0 <- data
I0428 20:22:13.561079  1924 net.cpp:382] conv0 -> conv0
I0428 20:22:13.788620  1924 net.cpp:124] Setting up conv0
I0428 20:22:13.788646  1924 net.cpp:131] Top shape: 64 50 24 24 (1843200)
I0428 20:22:13.788650  1924 net.cpp:139] Memory required for data: 7573760
I0428 20:22:13.788666  1924 layer_factory.hpp:77] Creating layer pool0
I0428 20:22:13.788677  1924 net.cpp:86] Creating Layer pool0
I0428 20:22:13.788681  1924 net.cpp:408] pool0 <- conv0
I0428 20:22:13.788686  1924 net.cpp:382] pool0 -> pool0
I0428 20:22:13.788748  1924 net.cpp:124] Setting up pool0
I0428 20:22:13.788753  1924 net.cpp:131] Top shape: 64 50 12 12 (460800)
I0428 20:22:13.788755  1924 net.cpp:139] Memory required for data: 9416960
I0428 20:22:13.788758  1924 layer_factory.hpp:77] Creating layer conv1
I0428 20:22:13.788769  1924 net.cpp:86] Creating Layer conv1
I0428 20:22:13.788771  1924 net.cpp:408] conv1 <- pool0
I0428 20:22:13.788776  1924 net.cpp:382] conv1 -> conv1
I0428 20:22:13.791175  1924 net.cpp:124] Setting up conv1
I0428 20:22:13.791205  1924 net.cpp:131] Top shape: 64 50 8 8 (204800)
I0428 20:22:13.791209  1924 net.cpp:139] Memory required for data: 10236160
I0428 20:22:13.791218  1924 layer_factory.hpp:77] Creating layer pool1
I0428 20:22:13.791224  1924 net.cpp:86] Creating Layer pool1
I0428 20:22:13.791229  1924 net.cpp:408] pool1 <- conv1
I0428 20:22:13.791234  1924 net.cpp:382] pool1 -> pool1
I0428 20:22:13.791290  1924 net.cpp:124] Setting up pool1
I0428 20:22:13.791296  1924 net.cpp:131] Top shape: 64 50 4 4 (51200)
I0428 20:22:13.791298  1924 net.cpp:139] Memory required for data: 10440960
I0428 20:22:13.791301  1924 layer_factory.hpp:77] Creating layer ip1
I0428 20:22:13.791308  1924 net.cpp:86] Creating Layer ip1
I0428 20:22:13.791311  1924 net.cpp:408] ip1 <- pool1
I0428 20:22:13.791316  1924 net.cpp:382] ip1 -> ip1
I0428 20:22:13.791667  1924 net.cpp:124] Setting up ip1
I0428 20:22:13.791676  1924 net.cpp:131] Top shape: 64 50 (3200)
I0428 20:22:13.791694  1924 net.cpp:139] Memory required for data: 10453760
I0428 20:22:13.791702  1924 layer_factory.hpp:77] Creating layer relu1
I0428 20:22:13.791721  1924 net.cpp:86] Creating Layer relu1
I0428 20:22:13.791724  1924 net.cpp:408] relu1 <- ip1
I0428 20:22:13.791728  1924 net.cpp:369] relu1 -> ip1 (in-place)
I0428 20:22:13.791889  1924 net.cpp:124] Setting up relu1
I0428 20:22:13.791899  1924 net.cpp:131] Top shape: 64 50 (3200)
I0428 20:22:13.791901  1924 net.cpp:139] Memory required for data: 10466560
I0428 20:22:13.791904  1924 layer_factory.hpp:77] Creating layer ip2
I0428 20:22:13.791910  1924 net.cpp:86] Creating Layer ip2
I0428 20:22:13.791913  1924 net.cpp:408] ip2 <- ip1
I0428 20:22:13.791918  1924 net.cpp:382] ip2 -> ip2
I0428 20:22:13.792024  1924 net.cpp:124] Setting up ip2
I0428 20:22:13.792031  1924 net.cpp:131] Top shape: 64 25 (1600)
I0428 20:22:13.792033  1924 net.cpp:139] Memory required for data: 10472960
I0428 20:22:13.792038  1924 layer_factory.hpp:77] Creating layer relu2
I0428 20:22:13.792044  1924 net.cpp:86] Creating Layer relu2
I0428 20:22:13.792047  1924 net.cpp:408] relu2 <- ip2
I0428 20:22:13.792050  1924 net.cpp:369] relu2 -> ip2 (in-place)
I0428 20:22:13.792899  1924 net.cpp:124] Setting up relu2
I0428 20:22:13.792912  1924 net.cpp:131] Top shape: 64 25 (1600)
I0428 20:22:13.792932  1924 net.cpp:139] Memory required for data: 10479360
I0428 20:22:13.792934  1924 layer_factory.hpp:77] Creating layer ip3
I0428 20:22:13.792942  1924 net.cpp:86] Creating Layer ip3
I0428 20:22:13.792944  1924 net.cpp:408] ip3 <- ip2
I0428 20:22:13.792951  1924 net.cpp:382] ip3 -> ip3
I0428 20:22:13.793074  1924 net.cpp:124] Setting up ip3
I0428 20:22:13.793083  1924 net.cpp:131] Top shape: 64 10 (640)
I0428 20:22:13.793085  1924 net.cpp:139] Memory required for data: 10481920
I0428 20:22:13.793093  1924 layer_factory.hpp:77] Creating layer relu3
I0428 20:22:13.793098  1924 net.cpp:86] Creating Layer relu3
I0428 20:22:13.793102  1924 net.cpp:408] relu3 <- ip3
I0428 20:22:13.793107  1924 net.cpp:369] relu3 -> ip3 (in-place)
I0428 20:22:13.793289  1924 net.cpp:124] Setting up relu3
I0428 20:22:13.793298  1924 net.cpp:131] Top shape: 64 10 (640)
I0428 20:22:13.793301  1924 net.cpp:139] Memory required for data: 10484480
I0428 20:22:13.793304  1924 layer_factory.hpp:77] Creating layer loss
I0428 20:22:13.793311  1924 net.cpp:86] Creating Layer loss
I0428 20:22:13.793314  1924 net.cpp:408] loss <- ip3
I0428 20:22:13.793334  1924 net.cpp:408] loss <- label
I0428 20:22:13.793339  1924 net.cpp:382] loss -> loss
I0428 20:22:13.793351  1924 layer_factory.hpp:77] Creating layer loss
…
I0428 20:22:13.794080  1924 solver.cpp:173] Creating test net (#0) specified by net file: ECE595/mnist/train_test/var_everything2/lenet_train_test1400.prototxt
I0428 20:22:13.794122  1924 net.cpp:296] The NetState phase (1) differed from the phase (0) specified by a rule in layer mnist
I0428 20:22:13.794211  1924 net.cpp:53] Initializing net from parameters: 
name: "LeNet"
state {
  phase: TEST
}
layer {
  name: "mnist"
  type: "Data"
  top: "data"
  top: "label"
  include {
    phase: TEST
  }
  transform_param {
    scale: 0.00390625
  }
  data_param {
    source: "examples/mnist/mnist_test_lmdb"
    batch_size: 100
    backend: LMDB
  }
}
layer {
  name: "conv0"
  type: "Convolution"
  bottom: "data"
  top: "conv0"
  param {
    lr_mult: 1
  }
  param {
    lr_mult: 2
  }
  convolution_param {
    num_output: 50
    kernel_size: 5
    stride: 1
    weight_filler {
      type: "xavier"
    }
    bias_filler {
      type: "constant"
    }
  }
}
layer {
  name: "pool0"
  type: "Pooling"
  bottom: "conv0"
  top: "pool0"
  pooling_param {
    pool: MAX
    kernel_size: 2
    stride: 2
  }
}
layer {
  name: "conv1"
  type: "Convolution"
  bottom: "pool0"
  top: "conv1"
  param {
    lr_mult: 1
  }
  param {
    lr_mult: 2
  }
  convolution_param {
    num_output: 50
    kernel_size: 5
    stride: 1
    weight_filler {
      type: "xavier"
    }
    bias_filler {
      type: "constant"
    }
  }
}
layer {
  name: "pool1"
  type: "Pooling"
  bottom: "conv1"
  top: "pool1"
  pooling_param {
    pool: MAX
    kernel_size: 2
    stride: 2
  }
}
layer {
  name: "ip1"
  type: "InnerProduct"
  bottom: "pool1"
  top: "ip1"
  param {
    lr_mult: 1
  }
  param {
    lr_mult: 2
  }
  inner_product_param {
    num_output: 50
    weight_filler {
      type: "xavier"
    }
    bias_filler {
      type: "constant"
    }
  }
}
layer {
  name: "relu1"
  type: "ReLU"
  bottom: "ip1"
  top: "ip1"
}
layer {
  name: "ip2"
  type: "InnerProduct"
  bottom: "ip1"
  top: "ip2"
  param {
    lr_mult: 1
  }
  param {
    lr_mult: 2
  }
  inner_product_param {
    num_output: 25
    weight_filler {
      type: "xavier"
    }
    bias_filler {
      type: "constant"
    }
  }
}
layer {
  name: "relu2"
  type: "ReLU"
  bottom: "ip2"
  top: "ip2"
}
layer {
  name: "ip3"
  type: "InnerProduct"
  bottom: "ip2"
  top: "ip3"
  param {
    lr_mult: 1
  }
  param {
    lr_mult: 2
  }
  inner_product_param {
    num_output: 10
    weight_filler {
      type: "xavier"
    }
    bias_filler {
      type: "constant"
    }
  }
}
layer {
  name: "relu3"
  type: "ReLU"
  bottom: "ip3"
  top: "ip3"
}
layer {
  name: "accuracy"
  type: "Accuracy"
  bottom: "ip3"
  bottom: "label"
  top: "accuracy"
  include {
    phase: TEST
  }
}
layer {
  name: "loss"
  type: "SoftmaxWithLoss"
  bottom: "ip3"
  bottom: "label"
  top: "loss"
}
I0428 20:22:13.794293  1924 layer_factory.hpp:77] Creating layer mnist
I0428 20:22:13.794337  1924 db_lmdb.cpp:35] Opened lmdb examples/mnist/mnist_test_lmdb
I0428 20:22:13.794350  1924 net.cpp:86] Creating Layer mnist
I0428 20:22:13.794355  1924 net.cpp:382] mnist -> data
I0428 20:22:13.794363  1924 net.cpp:382] mnist -> label
I0428 20:22:13.794469  1924 data_layer.cpp:45] output data size: 100,1,28,28
I0428 20:22:13.796425  1924 net.cpp:124] Setting up mnist
I0428 20:22:13.796440  1924 net.cpp:131] Top shape: 100 1 28 28 (78400)
I0428 20:22:13.796448  1924 net.cpp:131] Top shape: 100 (100)
I0428 20:22:13.796453  1924 net.cpp:139] Memory required for data: 314000
I0428 20:22:13.796459  1924 layer_factory.hpp:77] Creating layer label_mnist_1_split
I0428 20:22:13.796468  1924 net.cpp:86] Creating Layer label_mnist_1_split
I0428 20:22:13.796473  1924 net.cpp:408] label_mnist_1_split <- label
I0428 20:22:13.796480  1924 net.cpp:382] label_mnist_1_split -> label_mnist_1_split_0
I0428 20:22:13.796492  1924 net.cpp:382] label_mnist_1_split -> label_mnist_1_split_1
I0428 20:22:13.796630  1924 net.cpp:124] Setting up label_mnist_1_split
I0428 20:22:13.796641  1924 net.cpp:131] Top shape: 100 (100)
I0428 20:22:13.796645  1924 net.cpp:131] Top shape: 100 (100)
I0428 20:22:13.796648  1924 net.cpp:139] Memory required for data: 314800
I0428 20:22:13.796651  1924 layer_factory.hpp:77] Creating layer conv0
I0428 20:22:13.796661  1924 net.cpp:86] Creating Layer conv0
I0428 20:22:13.796665  1924 net.cpp:408] conv0 <- data
I0428 20:22:13.796670  1924 net.cpp:382] conv0 -> conv0
I0428 20:22:13.798413  1924 net.cpp:124] Setting up conv0
I0428 20:22:13.798426  1924 net.cpp:131] Top shape: 100 50 24 24 (2880000)
I0428 20:22:13.798429  1924 net.cpp:139] Memory required for data: 11834800
I0428 20:22:13.798439  1924 layer_factory.hpp:77] Creating layer pool0
I0428 20:22:13.798445  1924 net.cpp:86] Creating Layer pool0
I0428 20:22:13.798449  1924 net.cpp:408] pool0 <- conv0
I0428 20:22:13.798465  1924 net.cpp:382] pool0 -> pool0
I0428 20:22:13.798501  1924 net.cpp:124] Setting up pool0
I0428 20:22:13.798506  1924 net.cpp:131] Top shape: 100 50 12 12 (720000)
I0428 20:22:13.798508  1924 net.cpp:139] Memory required for data: 14714800
I0428 20:22:13.798511  1924 layer_factory.hpp:77] Creating layer conv1
I0428 20:22:13.798521  1924 net.cpp:86] Creating Layer conv1
I0428 20:22:13.798523  1924 net.cpp:408] conv1 <- pool0
I0428 20:22:13.798528  1924 net.cpp:382] conv1 -> conv1
I0428 20:22:13.800511  1924 net.cpp:124] Setting up conv1
I0428 20:22:13.800525  1924 net.cpp:131] Top shape: 100 50 8 8 (320000)
I0428 20:22:13.800529  1924 net.cpp:139] Memory required for data: 15994800
I0428 20:22:13.800544  1924 layer_factory.hpp:77] Creating layer pool1
I0428 20:22:13.800565  1924 net.cpp:86] Creating Layer pool1
I0428 20:22:13.800568  1924 net.cpp:408] pool1 <- conv1
I0428 20:22:13.800575  1924 net.cpp:382] pool1 -> pool1
I0428 20:22:13.800622  1924 net.cpp:124] Setting up pool1
I0428 20:22:13.800627  1924 net.cpp:131] Top shape: 100 50 4 4 (80000)
I0428 20:22:13.800631  1924 net.cpp:139] Memory required for data: 16314800
I0428 20:22:13.800633  1924 layer_factory.hpp:77] Creating layer ip1
I0428 20:22:13.800640  1924 net.cpp:86] Creating Layer ip1
I0428 20:22:13.800643  1924 net.cpp:408] ip1 <- pool1
I0428 20:22:13.800649  1924 net.cpp:382] ip1 -> ip1
I0428 20:22:13.801020  1924 net.cpp:124] Setting up ip1
I0428 20:22:13.801031  1924 net.cpp:131] Top shape: 100 50 (5000)
I0428 20:22:13.801045  1924 net.cpp:139] Memory required for data: 16334800
I0428 20:22:13.801054  1924 layer_factory.hpp:77] Creating layer relu1
I0428 20:22:13.801059  1924 net.cpp:86] Creating Layer relu1
I0428 20:22:13.801070  1924 net.cpp:408] relu1 <- ip1
I0428 20:22:13.801077  1924 net.cpp:369] relu1 -> ip1 (in-place)
I0428 20:22:13.801319  1924 net.cpp:124] Setting up relu1
I0428 20:22:13.801328  1924 net.cpp:131] Top shape: 100 50 (5000)
I0428 20:22:13.801331  1924 net.cpp:139] Memory required for data: 16354800
I0428 20:22:13.801334  1924 layer_factory.hpp:77] Creating layer ip2
I0428 20:22:13.801342  1924 net.cpp:86] Creating Layer ip2
I0428 20:22:13.801344  1924 net.cpp:408] ip2 <- ip1
I0428 20:22:13.801349  1924 net.cpp:382] ip2 -> ip2
I0428 20:22:13.801465  1924 net.cpp:124] Setting up ip2
I0428 20:22:13.801471  1924 net.cpp:131] Top shape: 100 25 (2500)
I0428 20:22:13.801475  1924 net.cpp:139] Memory required for data: 16364800
I0428 20:22:13.801479  1924 layer_factory.hpp:77] Creating layer relu2
I0428 20:22:13.801484  1924 net.cpp:86] Creating Layer relu2
I0428 20:22:13.801488  1924 net.cpp:408] relu2 <- ip2
I0428 20:22:13.801491  1924 net.cpp:369] relu2 -> ip2 (in-place)
I0428 20:22:13.801743  1924 net.cpp:124] Setting up relu2
I0428 20:22:13.801753  1924 net.cpp:131] Top shape: 100 25 (2500)
I0428 20:22:13.801755  1924 net.cpp:139] Memory required for data: 16374800
I0428 20:22:13.801759  1924 layer_factory.hpp:77] Creating layer ip3
I0428 20:22:13.801765  1924 net.cpp:86] Creating Layer ip3
I0428 20:22:13.801769  1924 net.cpp:408] ip3 <- ip2
I0428 20:22:13.801772  1924 net.cpp:382] ip3 -> ip3
I0428 20:22:13.801872  1924 net.cpp:124] Setting up ip3
I0428 20:22:13.801879  1924 net.cpp:131] Top shape: 100 10 (1000)
I0428 20:22:13.801882  1924 net.cpp:139] Memory required for data: 16378800
I0428 20:22:13.801889  1924 layer_factory.hpp:77] Creating layer relu3
I0428 20:22:13.801894  1924 net.cpp:86] Creating Layer relu3
I0428 20:22:13.801904  1924 net.cpp:408] relu3 <- ip3
I0428 20:22:13.801908  1924 net.cpp:369] relu3 -> ip3 (in-place)
I0428 20:22:13.802706  1924 net.cpp:124] Setting up relu3
I0428 20:22:13.802719  1924 net.cpp:131] Top shape: 100 10 (1000)
I0428 20:22:13.802723  1924 net.cpp:139] Memory required for data: 16382800
I0428 20:22:13.802726  1924 layer_factory.hpp:77] Creating layer ip3_relu3_0_split
I0428 20:22:13.802731  1924 net.cpp:86] Creating Layer ip3_relu3_0_split
I0428 20:22:13.802734  1924 net.cpp:408] ip3_relu3_0_split <- ip3
I0428 20:22:13.802739  1924 net.cpp:382] ip3_relu3_0_split -> ip3_relu3_0_split_0
I0428 20:22:13.802744  1924 net.cpp:382] ip3_relu3_0_split -> ip3_relu3_0_split_1
I0428 20:22:13.802811  1924 net.cpp:124] Setting up ip3_relu3_0_split
I0428 20:22:13.802824  1924 net.cpp:131] Top shape: 100 10 (1000)
I0428 20:22:13.802829  1924 net.cpp:131] Top shape: 100 10 (1000)
I0428 20:22:13.802836  1924 net.cpp:139] Memory required for data: 16390800
I0428 20:22:13.802845  1924 layer_factory.hpp:77] Creating layer accuracy
I0428 20:22:13.802850  1924 net.cpp:86] Creating Layer accuracy
I0428 20:22:13.802852  1924 net.cpp:408] accuracy <- ip3_relu3_0_split_0
I0428 20:22:13.802856  1924 net.cpp:408] accuracy <- label_mnist_1_split_0
I0428 20:22:13.802861  1924 net.cpp:382] accuracy -> accuracy
…
