…
I0428 19:51:27.752239 27286 net.cpp:296] The NetState phase (0) differed from the phase (1) specified by a rule in layer mnist
I0428 19:51:27.752269 27286 net.cpp:296] The NetState phase (0) differed from the phase (1) specified by a rule in layer accuracy
I0428 19:51:27.752338 27286 net.cpp:53] Initializing net from parameters: 
name: "LeNet"
state {
  phase: TRAIN
  level: 0
  stage: ""
}
layer {
  name: "mnist"
  type: "Data"
  top: "data"
  top: "label"
  include {
    phase: TRAIN
  }
  transform_param {
    scale: 0.00390625
  }
  data_param {
    source: "examples/mnist/mnist_train_lmdb"
    batch_size: 64
    backend: LMDB
  }
}
layer {
  name: "conv0"
  type: "Convolution"
  bottom: "data"
  top: "conv0"
  param {
    lr_mult: 1
  }
  param {
    lr_mult: 2
  }
  convolution_param {
    num_output: 5
    kernel_size: 5
    stride: 1
    weight_filler {
      type: "xavier"
    }
    bias_filler {
      type: "constant"
    }
  }
}
layer {
  name: "pool0"
  type: "Pooling"
  bottom: "conv0"
  top: "pool0"
  pooling_param {
    pool: MAX
    kernel_size: 2
    stride: 2
  }
}
layer {
  name: "conv1"
  type: "Convolution"
  bottom: "pool0"
  top: "conv1"
  param {
    lr_mult: 1
  }
  param {
    lr_mult: 2
  }
  convolution_param {
    num_output: 25
    kernel_size: 5
    stride: 1
    weight_filler {
      type: "xavier"
    }
    bias_filler {
      type: "constant"
    }
  }
}
layer {
  name: "pool1"
  type: "Pooling"
  bottom: "conv1"
  top: "pool1"
  pooling_param {
    pool: MAX
    kernel_size: 2
    stride: 2
  }
}
layer {
  name: "ip1"
  type: "InnerProduct"
  bottom: "pool1"
  top: "ip1"
  param {
    lr_mult: 1
  }
  param {
    lr_mult: 2
  }
  inner_product_param {
    num_output: 50
    weight_filler {
      type: "xavier"
    }
    bias_filler {
      type: "constant"
    }
  }
}
layer {
  name: "relu1"
  type: "ReLU"
  bottom: "ip1"
  top: "ip1"
}
layer {
  name: "ip2"
  type: "InnerProduct"
  bottom: "ip1"
  top: "ip2"
  param {
    lr_mult: 1
  }
  param {
    lr_mult: 2
  }
  inner_product_param {
    num_output: 10
    weight_filler {
      type: "xavier"
    }
    bias_filler {
      type: "constant"
    }
  }
}
layer {
  name: "relu2"
  type: "ReLU"
  bottom: "ip2"
  top: "ip2"
}
layer {
  name: "loss"
  type: "SoftmaxWithLoss"
  bottom: "ip2"
  bottom: "label"
  top: "loss"
}
I0428 19:51:27.752398 27286 layer_factory.hpp:77] Creating layer mnist
I0428 19:51:27.752478 27286 db_lmdb.cpp:35] Opened lmdb examples/mnist/mnist_train_lmdb
I0428 19:51:27.752497 27286 net.cpp:86] Creating Layer mnist
I0428 19:51:27.752504 27286 net.cpp:382] mnist -> data
I0428 19:51:27.752522 27286 net.cpp:382] mnist -> label
I0428 19:51:27.753451 27286 data_layer.cpp:45] output data size: 64,1,28,28
I0428 19:51:27.755538 27286 net.cpp:124] Setting up mnist
I0428 19:51:27.755568 27286 net.cpp:131] Top shape: 64 1 28 28 (50176)
I0428 19:51:27.755571 27286 net.cpp:131] Top shape: 64 (64)
I0428 19:51:27.755574 27286 net.cpp:139] Memory required for data: 200960
I0428 19:51:27.755579 27286 layer_factory.hpp:77] Creating layer conv0
I0428 19:51:27.755633 27286 net.cpp:86] Creating Layer conv0
I0428 19:51:27.755638 27286 net.cpp:408] conv0 <- data
I0428 19:51:27.755656 27286 net.cpp:382] conv0 -> conv0
I0428 19:51:27.983793 27286 net.cpp:124] Setting up conv0
I0428 19:51:27.983817 27286 net.cpp:131] Top shape: 64 5 24 24 (184320)
I0428 19:51:27.983821 27286 net.cpp:139] Memory required for data: 938240
I0428 19:51:27.983852 27286 layer_factory.hpp:77] Creating layer pool0
I0428 19:51:27.983880 27286 net.cpp:86] Creating Layer pool0
I0428 19:51:27.983883 27286 net.cpp:408] pool0 <- conv0
I0428 19:51:27.983888 27286 net.cpp:382] pool0 -> pool0
I0428 19:51:27.983932 27286 net.cpp:124] Setting up pool0
I0428 19:51:27.983939 27286 net.cpp:131] Top shape: 64 5 12 12 (46080)
I0428 19:51:27.983942 27286 net.cpp:139] Memory required for data: 1122560
I0428 19:51:27.983945 27286 layer_factory.hpp:77] Creating layer conv1
I0428 19:51:27.983956 27286 net.cpp:86] Creating Layer conv1
I0428 19:51:27.983959 27286 net.cpp:408] conv1 <- pool0
I0428 19:51:27.983964 27286 net.cpp:382] conv1 -> conv1
I0428 19:51:27.986618 27286 net.cpp:124] Setting up conv1
I0428 19:51:27.986632 27286 net.cpp:131] Top shape: 64 25 8 8 (102400)
I0428 19:51:27.986635 27286 net.cpp:139] Memory required for data: 1532160
I0428 19:51:27.986644 27286 layer_factory.hpp:77] Creating layer pool1
I0428 19:51:27.986652 27286 net.cpp:86] Creating Layer pool1
I0428 19:51:27.986655 27286 net.cpp:408] pool1 <- conv1
I0428 19:51:27.986660 27286 net.cpp:382] pool1 -> pool1
I0428 19:51:27.986696 27286 net.cpp:124] Setting up pool1
I0428 19:51:27.986701 27286 net.cpp:131] Top shape: 64 25 4 4 (25600)
I0428 19:51:27.986704 27286 net.cpp:139] Memory required for data: 1634560
I0428 19:51:27.986707 27286 layer_factory.hpp:77] Creating layer ip1
I0428 19:51:27.986713 27286 net.cpp:86] Creating Layer ip1
I0428 19:51:27.986716 27286 net.cpp:408] ip1 <- pool1
I0428 19:51:27.986721 27286 net.cpp:382] ip1 -> ip1
I0428 19:51:27.986917 27286 net.cpp:124] Setting up ip1
I0428 19:51:27.986923 27286 net.cpp:131] Top shape: 64 50 (3200)
I0428 19:51:27.986927 27286 net.cpp:139] Memory required for data: 1647360
I0428 19:51:27.986933 27286 layer_factory.hpp:77] Creating layer relu1
I0428 19:51:27.986938 27286 net.cpp:86] Creating Layer relu1
I0428 19:51:27.986941 27286 net.cpp:408] relu1 <- ip1
I0428 19:51:27.986945 27286 net.cpp:369] relu1 -> ip1 (in-place)
I0428 19:51:27.987097 27286 net.cpp:124] Setting up relu1
I0428 19:51:27.987104 27286 net.cpp:131] Top shape: 64 50 (3200)
I0428 19:51:27.987107 27286 net.cpp:139] Memory required for data: 1660160
I0428 19:51:27.987110 27286 layer_factory.hpp:77] Creating layer ip2
I0428 19:51:27.987116 27286 net.cpp:86] Creating Layer ip2
I0428 19:51:27.987119 27286 net.cpp:408] ip2 <- ip1
I0428 19:51:27.987123 27286 net.cpp:382] ip2 -> ip2
I0428 19:51:27.987228 27286 net.cpp:124] Setting up ip2
I0428 19:51:27.987236 27286 net.cpp:131] Top shape: 64 10 (640)
I0428 19:51:27.987237 27286 net.cpp:139] Memory required for data: 1662720
I0428 19:51:27.987242 27286 layer_factory.hpp:77] Creating layer relu2
I0428 19:51:27.987248 27286 net.cpp:86] Creating Layer relu2
I0428 19:51:27.987251 27286 net.cpp:408] relu2 <- ip2
I0428 19:51:27.987254 27286 net.cpp:369] relu2 -> ip2 (in-place)
I0428 19:51:27.987982 27286 net.cpp:124] Setting up relu2
I0428 19:51:27.987994 27286 net.cpp:131] Top shape: 64 10 (640)
I0428 19:51:27.987998 27286 net.cpp:139] Memory required for data: 1665280
I0428 19:51:27.988000 27286 layer_factory.hpp:77] Creating layer loss
I0428 19:51:27.988011 27286 net.cpp:86] Creating Layer loss
I0428 19:51:27.988014 27286 net.cpp:408] loss <- ip2
I0428 19:51:27.988018 27286 net.cpp:408] loss <- label
I0428 19:51:27.988023 27286 net.cpp:382] loss -> loss
I0428 19:51:27.988037 27286 layer_factory.hpp:77] Creating layer loss
…
I0428 19:51:27.988620 27286 solver.cpp:173] Creating test net (#0) specified by net file: ECE595/mnist/train_test/var_everything2/lenet_train_test634.prototxt
I0428 19:51:27.988642 27286 net.cpp:296] The NetState phase (1) differed from the phase (0) specified by a rule in layer mnist
I0428 19:51:27.988723 27286 net.cpp:53] Initializing net from parameters: 
name: "LeNet"
state {
  phase: TEST
}
layer {
  name: "mnist"
  type: "Data"
  top: "data"
  top: "label"
  include {
    phase: TEST
  }
  transform_param {
    scale: 0.00390625
  }
  data_param {
    source: "examples/mnist/mnist_test_lmdb"
    batch_size: 100
    backend: LMDB
  }
}
layer {
  name: "conv0"
  type: "Convolution"
  bottom: "data"
  top: "conv0"
  param {
    lr_mult: 1
  }
  param {
    lr_mult: 2
  }
  convolution_param {
    num_output: 5
    kernel_size: 5
    stride: 1
    weight_filler {
      type: "xavier"
    }
    bias_filler {
      type: "constant"
    }
  }
}
layer {
  name: "pool0"
  type: "Pooling"
  bottom: "conv0"
  top: "pool0"
  pooling_param {
    pool: MAX
    kernel_size: 2
    stride: 2
  }
}
layer {
  name: "conv1"
  type: "Convolution"
  bottom: "pool0"
  top: "conv1"
  param {
    lr_mult: 1
  }
  param {
    lr_mult: 2
  }
  convolution_param {
    num_output: 25
    kernel_size: 5
    stride: 1
    weight_filler {
      type: "xavier"
    }
    bias_filler {
      type: "constant"
    }
  }
}
layer {
  name: "pool1"
  type: "Pooling"
  bottom: "conv1"
  top: "pool1"
  pooling_param {
    pool: MAX
    kernel_size: 2
    stride: 2
  }
}
layer {
  name: "ip1"
  type: "InnerProduct"
  bottom: "pool1"
  top: "ip1"
  param {
    lr_mult: 1
  }
  param {
    lr_mult: 2
  }
  inner_product_param {
    num_output: 50
    weight_filler {
      type: "xavier"
    }
    bias_filler {
      type: "constant"
    }
  }
}
layer {
  name: "relu1"
  type: "ReLU"
  bottom: "ip1"
  top: "ip1"
}
layer {
  name: "ip2"
  type: "InnerProduct"
  bottom: "ip1"
  top: "ip2"
  param {
    lr_mult: 1
  }
  param {
    lr_mult: 2
  }
  inner_product_param {
    num_output: 10
    weight_filler {
      type: "xavier"
    }
    bias_filler {
      type: "constant"
    }
  }
}
layer {
  name: "relu2"
  type: "ReLU"
  bottom: "ip2"
  top: "ip2"
}
layer {
  name: "accuracy"
  type: "Accuracy"
  bottom: "ip2"
  bottom: "label"
  top: "accuracy"
  include {
    phase: TEST
  }
}
layer {
  name: "loss"
  type: "SoftmaxWithLoss"
  bottom: "ip2"
  bottom: "label"
  top: "loss"
}
I0428 19:51:27.988781 27286 layer_factory.hpp:77] Creating layer mnist
I0428 19:51:27.988847 27286 db_lmdb.cpp:35] Opened lmdb examples/mnist/mnist_test_lmdb
I0428 19:51:27.988858 27286 net.cpp:86] Creating Layer mnist
I0428 19:51:27.988863 27286 net.cpp:382] mnist -> data
I0428 19:51:27.988888 27286 net.cpp:382] mnist -> label
I0428 19:51:27.988998 27286 data_layer.cpp:45] output data size: 100,1,28,28
I0428 19:51:27.990957 27286 net.cpp:124] Setting up mnist
I0428 19:51:27.990970 27286 net.cpp:131] Top shape: 100 1 28 28 (78400)
I0428 19:51:27.990993 27286 net.cpp:131] Top shape: 100 (100)
I0428 19:51:27.990995 27286 net.cpp:139] Memory required for data: 314000
I0428 19:51:27.990998 27286 layer_factory.hpp:77] Creating layer label_mnist_1_split
I0428 19:51:27.991005 27286 net.cpp:86] Creating Layer label_mnist_1_split
I0428 19:51:27.991008 27286 net.cpp:408] label_mnist_1_split <- label
I0428 19:51:27.991014 27286 net.cpp:382] label_mnist_1_split -> label_mnist_1_split_0
I0428 19:51:27.991027 27286 net.cpp:382] label_mnist_1_split -> label_mnist_1_split_1
I0428 19:51:27.991067 27286 net.cpp:124] Setting up label_mnist_1_split
I0428 19:51:27.991082 27286 net.cpp:131] Top shape: 100 (100)
I0428 19:51:27.991086 27286 net.cpp:131] Top shape: 100 (100)
I0428 19:51:27.991089 27286 net.cpp:139] Memory required for data: 314800
I0428 19:51:27.991092 27286 layer_factory.hpp:77] Creating layer conv0
I0428 19:51:27.991101 27286 net.cpp:86] Creating Layer conv0
I0428 19:51:27.991104 27286 net.cpp:408] conv0 <- data
I0428 19:51:27.991108 27286 net.cpp:382] conv0 -> conv0
I0428 19:51:27.992745 27286 net.cpp:124] Setting up conv0
I0428 19:51:27.992774 27286 net.cpp:131] Top shape: 100 5 24 24 (288000)
I0428 19:51:27.992779 27286 net.cpp:139] Memory required for data: 1466800
I0428 19:51:27.992787 27286 layer_factory.hpp:77] Creating layer pool0
I0428 19:51:27.992794 27286 net.cpp:86] Creating Layer pool0
I0428 19:51:27.992796 27286 net.cpp:408] pool0 <- conv0
I0428 19:51:27.992800 27286 net.cpp:382] pool0 -> pool0
I0428 19:51:27.992857 27286 net.cpp:124] Setting up pool0
I0428 19:51:27.992864 27286 net.cpp:131] Top shape: 100 5 12 12 (72000)
I0428 19:51:27.992867 27286 net.cpp:139] Memory required for data: 1754800
I0428 19:51:27.992871 27286 layer_factory.hpp:77] Creating layer conv1
I0428 19:51:27.992879 27286 net.cpp:86] Creating Layer conv1
I0428 19:51:27.992885 27286 net.cpp:408] conv1 <- pool0
I0428 19:51:27.992890 27286 net.cpp:382] conv1 -> conv1
I0428 19:51:27.994865 27286 net.cpp:124] Setting up conv1
I0428 19:51:27.994877 27286 net.cpp:131] Top shape: 100 25 8 8 (160000)
I0428 19:51:27.994897 27286 net.cpp:139] Memory required for data: 2394800
I0428 19:51:27.994905 27286 layer_factory.hpp:77] Creating layer pool1
I0428 19:51:27.994912 27286 net.cpp:86] Creating Layer pool1
I0428 19:51:27.994915 27286 net.cpp:408] pool1 <- conv1
I0428 19:51:27.994937 27286 net.cpp:382] pool1 -> pool1
I0428 19:51:27.995007 27286 net.cpp:124] Setting up pool1
I0428 19:51:27.995013 27286 net.cpp:131] Top shape: 100 25 4 4 (40000)
I0428 19:51:27.995018 27286 net.cpp:139] Memory required for data: 2554800
I0428 19:51:27.995020 27286 layer_factory.hpp:77] Creating layer ip1
I0428 19:51:27.995025 27286 net.cpp:86] Creating Layer ip1
I0428 19:51:27.995028 27286 net.cpp:408] ip1 <- pool1
I0428 19:51:27.995033 27286 net.cpp:382] ip1 -> ip1
I0428 19:51:27.995239 27286 net.cpp:124] Setting up ip1
I0428 19:51:27.995247 27286 net.cpp:131] Top shape: 100 50 (5000)
I0428 19:51:27.995250 27286 net.cpp:139] Memory required for data: 2574800
I0428 19:51:27.995257 27286 layer_factory.hpp:77] Creating layer relu1
I0428 19:51:27.995265 27286 net.cpp:86] Creating Layer relu1
I0428 19:51:27.995268 27286 net.cpp:408] relu1 <- ip1
I0428 19:51:27.995272 27286 net.cpp:369] relu1 -> ip1 (in-place)
I0428 19:51:27.995427 27286 net.cpp:124] Setting up relu1
I0428 19:51:27.995435 27286 net.cpp:131] Top shape: 100 50 (5000)
I0428 19:51:27.995438 27286 net.cpp:139] Memory required for data: 2594800
I0428 19:51:27.995441 27286 layer_factory.hpp:77] Creating layer ip2
I0428 19:51:27.995448 27286 net.cpp:86] Creating Layer ip2
I0428 19:51:27.995452 27286 net.cpp:408] ip2 <- ip1
I0428 19:51:27.995457 27286 net.cpp:382] ip2 -> ip2
I0428 19:51:27.995553 27286 net.cpp:124] Setting up ip2
I0428 19:51:27.995559 27286 net.cpp:131] Top shape: 100 10 (1000)
I0428 19:51:27.995563 27286 net.cpp:139] Memory required for data: 2598800
I0428 19:51:27.995568 27286 layer_factory.hpp:77] Creating layer relu2
I0428 19:51:27.995573 27286 net.cpp:86] Creating Layer relu2
I0428 19:51:27.995575 27286 net.cpp:408] relu2 <- ip2
I0428 19:51:27.995579 27286 net.cpp:369] relu2 -> ip2 (in-place)
I0428 19:51:27.995750 27286 net.cpp:124] Setting up relu2
I0428 19:51:27.995759 27286 net.cpp:131] Top shape: 100 10 (1000)
I0428 19:51:27.995761 27286 net.cpp:139] Memory required for data: 2602800
I0428 19:51:27.995764 27286 layer_factory.hpp:77] Creating layer ip2_relu2_0_split
I0428 19:51:27.995769 27286 net.cpp:86] Creating Layer ip2_relu2_0_split
I0428 19:51:27.995771 27286 net.cpp:408] ip2_relu2_0_split <- ip2
I0428 19:51:27.995776 27286 net.cpp:382] ip2_relu2_0_split -> ip2_relu2_0_split_0
I0428 19:51:27.995795 27286 net.cpp:382] ip2_relu2_0_split -> ip2_relu2_0_split_1
I0428 19:51:27.995831 27286 net.cpp:124] Setting up ip2_relu2_0_split
I0428 19:51:27.995837 27286 net.cpp:131] Top shape: 100 10 (1000)
I0428 19:51:27.995841 27286 net.cpp:131] Top shape: 100 10 (1000)
I0428 19:51:27.995844 27286 net.cpp:139] Memory required for data: 2610800
I0428 19:51:27.995847 27286 layer_factory.hpp:77] Creating layer accuracy
I0428 19:51:27.995852 27286 net.cpp:86] Creating Layer accuracy
I0428 19:51:27.995856 27286 net.cpp:408] accuracy <- ip2_relu2_0_split_0
I0428 19:51:27.995859 27286 net.cpp:408] accuracy <- label_mnist_1_split_0
I0428 19:51:27.995863 27286 net.cpp:382] accuracy -> accuracy
…
