…
I0428 19:27:57.747841 21494 net.cpp:296] The NetState phase (0) differed from the phase (1) specified by a rule in layer mnist
I0428 19:27:57.747856 21494 net.cpp:296] The NetState phase (0) differed from the phase (1) specified by a rule in layer accuracy
I0428 19:27:57.747921 21494 net.cpp:53] Initializing net from parameters: 
name: "LeNet"
state {
  phase: TRAIN
  level: 0
  stage: ""
}
layer {
  name: "mnist"
  type: "Data"
  top: "data"
  top: "label"
  include {
    phase: TRAIN
  }
  transform_param {
    scale: 0.00390625
  }
  data_param {
    source: "examples/mnist/mnist_train_lmdb"
    batch_size: 64
    backend: LMDB
  }
}
layer {
  name: "ip1"
  type: "InnerProduct"
  bottom: "data"
  top: "ip1"
  param {
    lr_mult: 1
  }
  param {
    lr_mult: 2
  }
  inner_product_param {
    num_output: 50
    weight_filler {
      type: "xavier"
    }
    bias_filler {
      type: "constant"
    }
  }
}
layer {
  name: "relu1"
  type: "ReLU"
  bottom: "ip1"
  top: "ip1"
}
layer {
  name: "ip2"
  type: "InnerProduct"
  bottom: "ip1"
  top: "ip2"
  param {
    lr_mult: 1
  }
  param {
    lr_mult: 2
  }
  inner_product_param {
    num_output: 10
    weight_filler {
      type: "xavier"
    }
    bias_filler {
      type: "constant"
    }
  }
}
layer {
  name: "relu2"
  type: "ReLU"
  bottom: "ip2"
  top: "ip2"
}
layer {
  name: "loss"
  type: "SoftmaxWithLoss"
  bottom: "ip2"
  bottom: "label"
  top: "loss"
}
I0428 19:27:57.747980 21494 layer_factory.hpp:77] Creating layer mnist
I0428 19:27:57.748080 21494 db_lmdb.cpp:35] Opened lmdb examples/mnist/mnist_train_lmdb
I0428 19:27:57.748107 21494 net.cpp:86] Creating Layer mnist
I0428 19:27:57.748116 21494 net.cpp:382] mnist -> data
I0428 19:27:57.748138 21494 net.cpp:382] mnist -> label
I0428 19:27:57.749254 21494 data_layer.cpp:45] output data size: 64,1,28,28
I0428 19:27:57.751720 21494 net.cpp:124] Setting up mnist
I0428 19:27:57.751737 21494 net.cpp:131] Top shape: 64 1 28 28 (50176)
I0428 19:27:57.751744 21494 net.cpp:131] Top shape: 64 (64)
I0428 19:27:57.751747 21494 net.cpp:139] Memory required for data: 200960
I0428 19:27:57.751755 21494 layer_factory.hpp:77] Creating layer ip1
I0428 19:27:57.751793 21494 net.cpp:86] Creating Layer ip1
I0428 19:27:57.751802 21494 net.cpp:408] ip1 <- data
I0428 19:27:57.751816 21494 net.cpp:382] ip1 -> ip1
I0428 19:27:57.752257 21494 net.cpp:124] Setting up ip1
I0428 19:27:57.752269 21494 net.cpp:131] Top shape: 64 50 (3200)
I0428 19:27:57.752271 21494 net.cpp:139] Memory required for data: 213760
I0428 19:27:57.752285 21494 layer_factory.hpp:77] Creating layer relu1
I0428 19:27:57.752295 21494 net.cpp:86] Creating Layer relu1
I0428 19:27:57.752298 21494 net.cpp:408] relu1 <- ip1
I0428 19:27:57.752303 21494 net.cpp:369] relu1 -> ip1 (in-place)
I0428 19:27:58.040442 21494 net.cpp:124] Setting up relu1
I0428 19:27:58.040473 21494 net.cpp:131] Top shape: 64 50 (3200)
I0428 19:27:58.040478 21494 net.cpp:139] Memory required for data: 226560
I0428 19:27:58.040484 21494 layer_factory.hpp:77] Creating layer ip2
I0428 19:27:58.040498 21494 net.cpp:86] Creating Layer ip2
I0428 19:27:58.040503 21494 net.cpp:408] ip2 <- ip1
I0428 19:27:58.040511 21494 net.cpp:382] ip2 -> ip2
I0428 19:27:58.041666 21494 net.cpp:124] Setting up ip2
I0428 19:27:58.041684 21494 net.cpp:131] Top shape: 64 10 (640)
I0428 19:27:58.041689 21494 net.cpp:139] Memory required for data: 229120
I0428 19:27:58.041702 21494 layer_factory.hpp:77] Creating layer relu2
I0428 19:27:58.041728 21494 net.cpp:86] Creating Layer relu2
I0428 19:27:58.041731 21494 net.cpp:408] relu2 <- ip2
I0428 19:27:58.041738 21494 net.cpp:369] relu2 -> ip2 (in-place)
I0428 19:27:58.042578 21494 net.cpp:124] Setting up relu2
I0428 19:27:58.042594 21494 net.cpp:131] Top shape: 64 10 (640)
I0428 19:27:58.042598 21494 net.cpp:139] Memory required for data: 231680
I0428 19:27:58.042603 21494 layer_factory.hpp:77] Creating layer loss
I0428 19:27:58.042609 21494 net.cpp:86] Creating Layer loss
I0428 19:27:58.042613 21494 net.cpp:408] loss <- ip2
I0428 19:27:58.042618 21494 net.cpp:408] loss <- label
I0428 19:27:58.042625 21494 net.cpp:382] loss -> loss
I0428 19:27:58.042649 21494 layer_factory.hpp:77] Creating layer loss
…
I0428 19:27:58.043210 21494 solver.cpp:173] Creating test net (#0) specified by net file: ECE595/mnist/train_test/var_everything2/lenet_train_test9.prototxt
I0428 19:27:58.043233 21494 net.cpp:296] The NetState phase (1) differed from the phase (0) specified by a rule in layer mnist
I0428 19:27:58.043301 21494 net.cpp:53] Initializing net from parameters: 
name: "LeNet"
state {
  phase: TEST
}
layer {
  name: "mnist"
  type: "Data"
  top: "data"
  top: "label"
  include {
    phase: TEST
  }
  transform_param {
    scale: 0.00390625
  }
  data_param {
    source: "examples/mnist/mnist_test_lmdb"
    batch_size: 100
    backend: LMDB
  }
}
layer {
  name: "ip1"
  type: "InnerProduct"
  bottom: "data"
  top: "ip1"
  param {
    lr_mult: 1
  }
  param {
    lr_mult: 2
  }
  inner_product_param {
    num_output: 50
    weight_filler {
      type: "xavier"
    }
    bias_filler {
      type: "constant"
    }
  }
}
layer {
  name: "relu1"
  type: "ReLU"
  bottom: "ip1"
  top: "ip1"
}
layer {
  name: "ip2"
  type: "InnerProduct"
  bottom: "ip1"
  top: "ip2"
  param {
    lr_mult: 1
  }
  param {
    lr_mult: 2
  }
  inner_product_param {
    num_output: 10
    weight_filler {
      type: "xavier"
    }
    bias_filler {
      type: "constant"
    }
  }
}
layer {
  name: "relu2"
  type: "ReLU"
  bottom: "ip2"
  top: "ip2"
}
layer {
  name: "accuracy"
  type: "Accuracy"
  bottom: "ip2"
  bottom: "label"
  top: "accuracy"
  include {
    phase: TEST
  }
}
layer {
  name: "loss"
  type: "SoftmaxWithLoss"
  bottom: "ip2"
  bottom: "label"
  top: "loss"
}
I0428 19:27:58.043359 21494 layer_factory.hpp:77] Creating layer mnist
I0428 19:27:58.043407 21494 db_lmdb.cpp:35] Opened lmdb examples/mnist/mnist_test_lmdb
I0428 19:27:58.043426 21494 net.cpp:86] Creating Layer mnist
I0428 19:27:58.043431 21494 net.cpp:382] mnist -> data
I0428 19:27:58.043439 21494 net.cpp:382] mnist -> label
I0428 19:27:58.043535 21494 data_layer.cpp:45] output data size: 100,1,28,28
I0428 19:27:58.045650 21494 net.cpp:124] Setting up mnist
I0428 19:27:58.045665 21494 net.cpp:131] Top shape: 100 1 28 28 (78400)
I0428 19:27:58.045671 21494 net.cpp:131] Top shape: 100 (100)
I0428 19:27:58.045675 21494 net.cpp:139] Memory required for data: 314000
I0428 19:27:58.045680 21494 layer_factory.hpp:77] Creating layer label_mnist_1_split
I0428 19:27:58.045691 21494 net.cpp:86] Creating Layer label_mnist_1_split
I0428 19:27:58.045696 21494 net.cpp:408] label_mnist_1_split <- label
I0428 19:27:58.045701 21494 net.cpp:382] label_mnist_1_split -> label_mnist_1_split_0
I0428 19:27:58.045720 21494 net.cpp:382] label_mnist_1_split -> label_mnist_1_split_1
I0428 19:27:58.045817 21494 net.cpp:124] Setting up label_mnist_1_split
I0428 19:27:58.045827 21494 net.cpp:131] Top shape: 100 (100)
I0428 19:27:58.045831 21494 net.cpp:131] Top shape: 100 (100)
I0428 19:27:58.045835 21494 net.cpp:139] Memory required for data: 314800
I0428 19:27:58.045838 21494 layer_factory.hpp:77] Creating layer ip1
I0428 19:27:58.045846 21494 net.cpp:86] Creating Layer ip1
I0428 19:27:58.045850 21494 net.cpp:408] ip1 <- data
I0428 19:27:58.045855 21494 net.cpp:382] ip1 -> ip1
I0428 19:27:58.046262 21494 net.cpp:124] Setting up ip1
I0428 19:27:58.046272 21494 net.cpp:131] Top shape: 100 50 (5000)
I0428 19:27:58.046274 21494 net.cpp:139] Memory required for data: 334800
I0428 19:27:58.046284 21494 layer_factory.hpp:77] Creating layer relu1
I0428 19:27:58.046290 21494 net.cpp:86] Creating Layer relu1
I0428 19:27:58.046294 21494 net.cpp:408] relu1 <- ip1
I0428 19:27:58.046299 21494 net.cpp:369] relu1 -> ip1 (in-place)
I0428 19:27:58.046491 21494 net.cpp:124] Setting up relu1
I0428 19:27:58.046502 21494 net.cpp:131] Top shape: 100 50 (5000)
I0428 19:27:58.046505 21494 net.cpp:139] Memory required for data: 354800
I0428 19:27:58.046509 21494 layer_factory.hpp:77] Creating layer ip2
I0428 19:27:58.046517 21494 net.cpp:86] Creating Layer ip2
I0428 19:27:58.046520 21494 net.cpp:408] ip2 <- ip1
I0428 19:27:58.046526 21494 net.cpp:382] ip2 -> ip2
I0428 19:27:58.046629 21494 net.cpp:124] Setting up ip2
I0428 19:27:58.046638 21494 net.cpp:131] Top shape: 100 10 (1000)
I0428 19:27:58.046641 21494 net.cpp:139] Memory required for data: 358800
I0428 19:27:58.046649 21494 layer_factory.hpp:77] Creating layer relu2
I0428 19:27:58.046654 21494 net.cpp:86] Creating Layer relu2
I0428 19:27:58.046658 21494 net.cpp:408] relu2 <- ip2
I0428 19:27:58.046663 21494 net.cpp:369] relu2 -> ip2 (in-place)
I0428 19:27:58.047572 21494 net.cpp:124] Setting up relu2
I0428 19:27:58.047586 21494 net.cpp:131] Top shape: 100 10 (1000)
I0428 19:27:58.047590 21494 net.cpp:139] Memory required for data: 362800
I0428 19:27:58.047595 21494 layer_factory.hpp:77] Creating layer ip2_relu2_0_split
I0428 19:27:58.047601 21494 net.cpp:86] Creating Layer ip2_relu2_0_split
I0428 19:27:58.047605 21494 net.cpp:408] ip2_relu2_0_split <- ip2
I0428 19:27:58.047610 21494 net.cpp:382] ip2_relu2_0_split -> ip2_relu2_0_split_0
I0428 19:27:58.047617 21494 net.cpp:382] ip2_relu2_0_split -> ip2_relu2_0_split_1
I0428 19:27:58.047663 21494 net.cpp:124] Setting up ip2_relu2_0_split
I0428 19:27:58.047670 21494 net.cpp:131] Top shape: 100 10 (1000)
I0428 19:27:58.047675 21494 net.cpp:131] Top shape: 100 10 (1000)
I0428 19:27:58.047678 21494 net.cpp:139] Memory required for data: 370800
I0428 19:27:58.047683 21494 layer_factory.hpp:77] Creating layer accuracy
I0428 19:27:58.047693 21494 net.cpp:86] Creating Layer accuracy
I0428 19:27:58.047698 21494 net.cpp:408] accuracy <- ip2_relu2_0_split_0
I0428 19:27:58.047701 21494 net.cpp:408] accuracy <- label_mnist_1_split_0
I0428 19:27:58.047713 21494 net.cpp:382] accuracy -> accuracy
…
