…
I0428 20:34:34.833372  4491 net.cpp:296] The NetState phase (0) differed from the phase (1) specified by a rule in layer mnist
I0428 20:34:34.833390  4491 net.cpp:296] The NetState phase (0) differed from the phase (1) specified by a rule in layer accuracy
I0428 20:34:34.833480  4491 net.cpp:53] Initializing net from parameters: 
name: "LeNet"
state {
  phase: TRAIN
  level: 0
  stage: ""
}
layer {
  name: "mnist"
  type: "Data"
  top: "data"
  top: "label"
  include {
    phase: TRAIN
  }
  transform_param {
    scale: 0.00390625
  }
  data_param {
    source: "examples/mnist/mnist_train_lmdb"
    batch_size: 64
    backend: LMDB
  }
}
layer {
  name: "conv0"
  type: "Convolution"
  bottom: "data"
  top: "conv0"
  param {
    lr_mult: 1
  }
  param {
    lr_mult: 2
  }
  convolution_param {
    num_output: 100
    kernel_size: 5
    stride: 1
    weight_filler {
      type: "xavier"
    }
    bias_filler {
      type: "constant"
    }
  }
}
layer {
  name: "pool0"
  type: "Pooling"
  bottom: "conv0"
  top: "pool0"
  pooling_param {
    pool: MAX
    kernel_size: 2
    stride: 2
  }
}
layer {
  name: "conv1"
  type: "Convolution"
  bottom: "pool0"
  top: "conv1"
  param {
    lr_mult: 1
  }
  param {
    lr_mult: 2
  }
  convolution_param {
    num_output: 50
    kernel_size: 5
    stride: 1
    weight_filler {
      type: "xavier"
    }
    bias_filler {
      type: "constant"
    }
  }
}
layer {
  name: "pool1"
  type: "Pooling"
  bottom: "conv1"
  top: "pool1"
  pooling_param {
    pool: MAX
    kernel_size: 2
    stride: 2
  }
}
layer {
  name: "ip1"
  type: "InnerProduct"
  bottom: "pool1"
  top: "ip1"
  param {
    lr_mult: 1
  }
  param {
    lr_mult: 2
  }
  inner_product_param {
    num_output: 25
    weight_filler {
      type: "xavier"
    }
    bias_filler {
      type: "constant"
    }
  }
}
layer {
  name: "relu1"
  type: "ReLU"
  bottom: "ip1"
  top: "ip1"
}
layer {
  name: "ip2"
  type: "InnerProduct"
  bottom: "ip1"
  top: "ip2"
  param {
    lr_mult: 1
  }
  param {
    lr_mult: 2
  }
  inner_product_param {
    num_output: 10
    weight_filler {
      type: "xavier"
    }
    bias_filler {
      type: "constant"
    }
  }
}
layer {
  name: "relu2"
  type: "ReLU"
  bottom: "ip2"
  top: "ip2"
}
layer {
  name: "loss"
  type: "SoftmaxWithLoss"
  bottom: "ip2"
  bottom: "label"
  top: "loss"
}
I0428 20:34:34.833555  4491 layer_factory.hpp:77] Creating layer mnist
I0428 20:34:34.833653  4491 db_lmdb.cpp:35] Opened lmdb examples/mnist/mnist_train_lmdb
I0428 20:34:34.833678  4491 net.cpp:86] Creating Layer mnist
I0428 20:34:34.833684  4491 net.cpp:382] mnist -> data
I0428 20:34:34.833706  4491 net.cpp:382] mnist -> label
I0428 20:34:34.834805  4491 data_layer.cpp:45] output data size: 64,1,28,28
I0428 20:34:34.837499  4491 net.cpp:124] Setting up mnist
I0428 20:34:34.837517  4491 net.cpp:131] Top shape: 64 1 28 28 (50176)
I0428 20:34:34.837525  4491 net.cpp:131] Top shape: 64 (64)
I0428 20:34:34.837528  4491 net.cpp:139] Memory required for data: 200960
I0428 20:34:34.837535  4491 layer_factory.hpp:77] Creating layer conv0
I0428 20:34:34.837550  4491 net.cpp:86] Creating Layer conv0
I0428 20:34:34.837555  4491 net.cpp:408] conv0 <- data
I0428 20:34:34.837568  4491 net.cpp:382] conv0 -> conv0
I0428 20:34:35.100566  4491 net.cpp:124] Setting up conv0
I0428 20:34:35.100592  4491 net.cpp:131] Top shape: 64 100 24 24 (3686400)
I0428 20:34:35.100596  4491 net.cpp:139] Memory required for data: 14946560
I0428 20:34:35.100627  4491 layer_factory.hpp:77] Creating layer pool0
I0428 20:34:35.100641  4491 net.cpp:86] Creating Layer pool0
I0428 20:34:35.100644  4491 net.cpp:408] pool0 <- conv0
I0428 20:34:35.100664  4491 net.cpp:382] pool0 -> pool0
I0428 20:34:35.100709  4491 net.cpp:124] Setting up pool0
I0428 20:34:35.100715  4491 net.cpp:131] Top shape: 64 100 12 12 (921600)
I0428 20:34:35.100718  4491 net.cpp:139] Memory required for data: 18632960
I0428 20:34:35.100720  4491 layer_factory.hpp:77] Creating layer conv1
I0428 20:34:35.100730  4491 net.cpp:86] Creating Layer conv1
I0428 20:34:35.100733  4491 net.cpp:408] conv1 <- pool0
I0428 20:34:35.100739  4491 net.cpp:382] conv1 -> conv1
I0428 20:34:35.104039  4491 net.cpp:124] Setting up conv1
I0428 20:34:35.104053  4491 net.cpp:131] Top shape: 64 50 8 8 (204800)
I0428 20:34:35.104073  4491 net.cpp:139] Memory required for data: 19452160
I0428 20:34:35.104080  4491 layer_factory.hpp:77] Creating layer pool1
I0428 20:34:35.104087  4491 net.cpp:86] Creating Layer pool1
I0428 20:34:35.104090  4491 net.cpp:408] pool1 <- conv1
I0428 20:34:35.104095  4491 net.cpp:382] pool1 -> pool1
I0428 20:34:35.104162  4491 net.cpp:124] Setting up pool1
I0428 20:34:35.104167  4491 net.cpp:131] Top shape: 64 50 4 4 (51200)
I0428 20:34:35.104171  4491 net.cpp:139] Memory required for data: 19656960
I0428 20:34:35.104173  4491 layer_factory.hpp:77] Creating layer ip1
I0428 20:34:35.104181  4491 net.cpp:86] Creating Layer ip1
I0428 20:34:35.104183  4491 net.cpp:408] ip1 <- pool1
I0428 20:34:35.104187  4491 net.cpp:382] ip1 -> ip1
I0428 20:34:35.104409  4491 net.cpp:124] Setting up ip1
I0428 20:34:35.104418  4491 net.cpp:131] Top shape: 64 25 (1600)
I0428 20:34:35.104420  4491 net.cpp:139] Memory required for data: 19663360
I0428 20:34:35.104427  4491 layer_factory.hpp:77] Creating layer relu1
I0428 20:34:35.104432  4491 net.cpp:86] Creating Layer relu1
I0428 20:34:35.104435  4491 net.cpp:408] relu1 <- ip1
I0428 20:34:35.104439  4491 net.cpp:369] relu1 -> ip1 (in-place)
I0428 20:34:35.104604  4491 net.cpp:124] Setting up relu1
I0428 20:34:35.104611  4491 net.cpp:131] Top shape: 64 25 (1600)
I0428 20:34:35.104614  4491 net.cpp:139] Memory required for data: 19669760
I0428 20:34:35.104616  4491 layer_factory.hpp:77] Creating layer ip2
I0428 20:34:35.104622  4491 net.cpp:86] Creating Layer ip2
I0428 20:34:35.104625  4491 net.cpp:408] ip2 <- ip1
I0428 20:34:35.104629  4491 net.cpp:382] ip2 -> ip2
I0428 20:34:35.104714  4491 net.cpp:124] Setting up ip2
I0428 20:34:35.104722  4491 net.cpp:131] Top shape: 64 10 (640)
I0428 20:34:35.104724  4491 net.cpp:139] Memory required for data: 19672320
I0428 20:34:35.104729  4491 layer_factory.hpp:77] Creating layer relu2
I0428 20:34:35.104734  4491 net.cpp:86] Creating Layer relu2
I0428 20:34:35.104737  4491 net.cpp:408] relu2 <- ip2
I0428 20:34:35.104742  4491 net.cpp:369] relu2 -> ip2 (in-place)
I0428 20:34:35.105540  4491 net.cpp:124] Setting up relu2
I0428 20:34:35.105567  4491 net.cpp:131] Top shape: 64 10 (640)
I0428 20:34:35.105571  4491 net.cpp:139] Memory required for data: 19674880
I0428 20:34:35.105574  4491 layer_factory.hpp:77] Creating layer loss
I0428 20:34:35.105594  4491 net.cpp:86] Creating Layer loss
I0428 20:34:35.105598  4491 net.cpp:408] loss <- ip2
I0428 20:34:35.105602  4491 net.cpp:408] loss <- label
I0428 20:34:35.105607  4491 net.cpp:382] loss -> loss
I0428 20:34:35.105623  4491 layer_factory.hpp:77] Creating layer loss
…
I0428 20:34:35.106220  4491 solver.cpp:173] Creating test net (#0) specified by net file: ECE595/mnist/train_test/var_everything2/lenet_train_test1607.prototxt
I0428 20:34:35.106261  4491 net.cpp:296] The NetState phase (1) differed from the phase (0) specified by a rule in layer mnist
I0428 20:34:35.106356  4491 net.cpp:53] Initializing net from parameters: 
name: "LeNet"
state {
  phase: TEST
}
layer {
  name: "mnist"
  type: "Data"
  top: "data"
  top: "label"
  include {
    phase: TEST
  }
  transform_param {
    scale: 0.00390625
  }
  data_param {
    source: "examples/mnist/mnist_test_lmdb"
    batch_size: 100
    backend: LMDB
  }
}
layer {
  name: "conv0"
  type: "Convolution"
  bottom: "data"
  top: "conv0"
  param {
    lr_mult: 1
  }
  param {
    lr_mult: 2
  }
  convolution_param {
    num_output: 100
    kernel_size: 5
    stride: 1
    weight_filler {
      type: "xavier"
    }
    bias_filler {
      type: "constant"
    }
  }
}
layer {
  name: "pool0"
  type: "Pooling"
  bottom: "conv0"
  top: "pool0"
  pooling_param {
    pool: MAX
    kernel_size: 2
    stride: 2
  }
}
layer {
  name: "conv1"
  type: "Convolution"
  bottom: "pool0"
  top: "conv1"
  param {
    lr_mult: 1
  }
  param {
    lr_mult: 2
  }
  convolution_param {
    num_output: 50
    kernel_size: 5
    stride: 1
    weight_filler {
      type: "xavier"
    }
    bias_filler {
      type: "constant"
    }
  }
}
layer {
  name: "pool1"
  type: "Pooling"
  bottom: "conv1"
  top: "pool1"
  pooling_param {
    pool: MAX
    kernel_size: 2
    stride: 2
  }
}
layer {
  name: "ip1"
  type: "InnerProduct"
  bottom: "pool1"
  top: "ip1"
  param {
    lr_mult: 1
  }
  param {
    lr_mult: 2
  }
  inner_product_param {
    num_output: 25
    weight_filler {
      type: "xavier"
    }
    bias_filler {
      type: "constant"
    }
  }
}
layer {
  name: "relu1"
  type: "ReLU"
  bottom: "ip1"
  top: "ip1"
}
layer {
  name: "ip2"
  type: "InnerProduct"
  bottom: "ip1"
  top: "ip2"
  param {
    lr_mult: 1
  }
  param {
    lr_mult: 2
  }
  inner_product_param {
    num_output: 10
    weight_filler {
      type: "xavier"
    }
    bias_filler {
      type: "constant"
    }
  }
}
layer {
  name: "relu2"
  type: "ReLU"
  bottom: "ip2"
  top: "ip2"
}
layer {
  name: "accuracy"
  type: "Accuracy"
  bottom: "ip2"
  bottom: "label"
  top: "accuracy"
  include {
    phase: TEST
  }
}
layer {
  name: "loss"
  type: "SoftmaxWithLoss"
  bottom: "ip2"
  bottom: "label"
  top: "loss"
}
I0428 20:34:35.106420  4491 layer_factory.hpp:77] Creating layer mnist
I0428 20:34:35.106464  4491 db_lmdb.cpp:35] Opened lmdb examples/mnist/mnist_test_lmdb
I0428 20:34:35.106474  4491 net.cpp:86] Creating Layer mnist
I0428 20:34:35.106479  4491 net.cpp:382] mnist -> data
I0428 20:34:35.106487  4491 net.cpp:382] mnist -> label
I0428 20:34:35.106567  4491 data_layer.cpp:45] output data size: 100,1,28,28
I0428 20:34:35.107717  4491 net.cpp:124] Setting up mnist
I0428 20:34:35.107761  4491 net.cpp:131] Top shape: 100 1 28 28 (78400)
I0428 20:34:35.107769  4491 net.cpp:131] Top shape: 100 (100)
I0428 20:34:35.107785  4491 net.cpp:139] Memory required for data: 314000
I0428 20:34:35.107790  4491 layer_factory.hpp:77] Creating layer label_mnist_1_split
I0428 20:34:35.107796  4491 net.cpp:86] Creating Layer label_mnist_1_split
I0428 20:34:35.107800  4491 net.cpp:408] label_mnist_1_split <- label
I0428 20:34:35.107805  4491 net.cpp:382] label_mnist_1_split -> label_mnist_1_split_0
I0428 20:34:35.107810  4491 net.cpp:382] label_mnist_1_split -> label_mnist_1_split_1
I0428 20:34:35.107924  4491 net.cpp:124] Setting up label_mnist_1_split
I0428 20:34:35.107933  4491 net.cpp:131] Top shape: 100 (100)
I0428 20:34:35.107936  4491 net.cpp:131] Top shape: 100 (100)
I0428 20:34:35.107939  4491 net.cpp:139] Memory required for data: 314800
I0428 20:34:35.107942  4491 layer_factory.hpp:77] Creating layer conv0
I0428 20:34:35.107951  4491 net.cpp:86] Creating Layer conv0
I0428 20:34:35.107954  4491 net.cpp:408] conv0 <- data
I0428 20:34:35.107961  4491 net.cpp:382] conv0 -> conv0
I0428 20:34:35.109738  4491 net.cpp:124] Setting up conv0
I0428 20:34:35.109767  4491 net.cpp:131] Top shape: 100 100 24 24 (5760000)
I0428 20:34:35.109771  4491 net.cpp:139] Memory required for data: 23354800
I0428 20:34:35.109781  4491 layer_factory.hpp:77] Creating layer pool0
I0428 20:34:35.109788  4491 net.cpp:86] Creating Layer pool0
I0428 20:34:35.109792  4491 net.cpp:408] pool0 <- conv0
I0428 20:34:35.109797  4491 net.cpp:382] pool0 -> pool0
I0428 20:34:35.109849  4491 net.cpp:124] Setting up pool0
I0428 20:34:35.109855  4491 net.cpp:131] Top shape: 100 100 12 12 (1440000)
I0428 20:34:35.109858  4491 net.cpp:139] Memory required for data: 29114800
I0428 20:34:35.109861  4491 layer_factory.hpp:77] Creating layer conv1
I0428 20:34:35.109872  4491 net.cpp:86] Creating Layer conv1
I0428 20:34:35.109875  4491 net.cpp:408] conv1 <- pool0
I0428 20:34:35.109881  4491 net.cpp:382] conv1 -> conv1
I0428 20:34:35.113179  4491 net.cpp:124] Setting up conv1
I0428 20:34:35.113193  4491 net.cpp:131] Top shape: 100 50 8 8 (320000)
I0428 20:34:35.113211  4491 net.cpp:139] Memory required for data: 30394800
I0428 20:34:35.113234  4491 layer_factory.hpp:77] Creating layer pool1
I0428 20:34:35.113241  4491 net.cpp:86] Creating Layer pool1
I0428 20:34:35.113245  4491 net.cpp:408] pool1 <- conv1
I0428 20:34:35.113250  4491 net.cpp:382] pool1 -> pool1
I0428 20:34:35.113299  4491 net.cpp:124] Setting up pool1
I0428 20:34:35.113306  4491 net.cpp:131] Top shape: 100 50 4 4 (80000)
I0428 20:34:35.113308  4491 net.cpp:139] Memory required for data: 30714800
I0428 20:34:35.113310  4491 layer_factory.hpp:77] Creating layer ip1
I0428 20:34:35.113318  4491 net.cpp:86] Creating Layer ip1
I0428 20:34:35.113322  4491 net.cpp:408] ip1 <- pool1
I0428 20:34:35.113325  4491 net.cpp:382] ip1 -> ip1
I0428 20:34:35.113533  4491 net.cpp:124] Setting up ip1
I0428 20:34:35.113540  4491 net.cpp:131] Top shape: 100 25 (2500)
I0428 20:34:35.113543  4491 net.cpp:139] Memory required for data: 30724800
I0428 20:34:35.113550  4491 layer_factory.hpp:77] Creating layer relu1
I0428 20:34:35.113556  4491 net.cpp:86] Creating Layer relu1
I0428 20:34:35.113559  4491 net.cpp:408] relu1 <- ip1
I0428 20:34:35.113564  4491 net.cpp:369] relu1 -> ip1 (in-place)
I0428 20:34:35.113716  4491 net.cpp:124] Setting up relu1
I0428 20:34:35.113725  4491 net.cpp:131] Top shape: 100 25 (2500)
I0428 20:34:35.113729  4491 net.cpp:139] Memory required for data: 30734800
I0428 20:34:35.113732  4491 layer_factory.hpp:77] Creating layer ip2
I0428 20:34:35.113740  4491 net.cpp:86] Creating Layer ip2
I0428 20:34:35.113744  4491 net.cpp:408] ip2 <- ip1
I0428 20:34:35.113750  4491 net.cpp:382] ip2 -> ip2
I0428 20:34:35.113847  4491 net.cpp:124] Setting up ip2
I0428 20:34:35.113853  4491 net.cpp:131] Top shape: 100 10 (1000)
I0428 20:34:35.113857  4491 net.cpp:139] Memory required for data: 30738800
I0428 20:34:35.113862  4491 layer_factory.hpp:77] Creating layer relu2
I0428 20:34:35.113867  4491 net.cpp:86] Creating Layer relu2
I0428 20:34:35.113869  4491 net.cpp:408] relu2 <- ip2
I0428 20:34:35.113873  4491 net.cpp:369] relu2 -> ip2 (in-place)
I0428 20:34:35.114095  4491 net.cpp:124] Setting up relu2
I0428 20:34:35.114104  4491 net.cpp:131] Top shape: 100 10 (1000)
I0428 20:34:35.114107  4491 net.cpp:139] Memory required for data: 30742800
I0428 20:34:35.114110  4491 layer_factory.hpp:77] Creating layer ip2_relu2_0_split
I0428 20:34:35.114115  4491 net.cpp:86] Creating Layer ip2_relu2_0_split
I0428 20:34:35.114118  4491 net.cpp:408] ip2_relu2_0_split <- ip2
I0428 20:34:35.114123  4491 net.cpp:382] ip2_relu2_0_split -> ip2_relu2_0_split_0
I0428 20:34:35.114140  4491 net.cpp:382] ip2_relu2_0_split -> ip2_relu2_0_split_1
I0428 20:34:35.114179  4491 net.cpp:124] Setting up ip2_relu2_0_split
I0428 20:34:35.114186  4491 net.cpp:131] Top shape: 100 10 (1000)
I0428 20:34:35.114189  4491 net.cpp:131] Top shape: 100 10 (1000)
I0428 20:34:35.114192  4491 net.cpp:139] Memory required for data: 30750800
I0428 20:34:35.114195  4491 layer_factory.hpp:77] Creating layer accuracy
I0428 20:34:35.114202  4491 net.cpp:86] Creating Layer accuracy
I0428 20:34:35.114205  4491 net.cpp:408] accuracy <- ip2_relu2_0_split_0
I0428 20:34:35.114209  4491 net.cpp:408] accuracy <- label_mnist_1_split_0
I0428 20:34:35.114213  4491 net.cpp:382] accuracy -> accuracy
…
