…
I0428 20:00:44.593878 29543 net.cpp:296] The NetState phase (0) differed from the phase (1) specified by a rule in layer mnist
I0428 20:00:44.593899 29543 net.cpp:296] The NetState phase (0) differed from the phase (1) specified by a rule in layer accuracy
I0428 20:00:44.594002 29543 net.cpp:53] Initializing net from parameters: 
name: "LeNet"
state {
  phase: TRAIN
  level: 0
  stage: ""
}
layer {
  name: "mnist"
  type: "Data"
  top: "data"
  top: "label"
  include {
    phase: TRAIN
  }
  transform_param {
    scale: 0.00390625
  }
  data_param {
    source: "examples/mnist/mnist_train_lmdb"
    batch_size: 64
    backend: LMDB
  }
}
layer {
  name: "conv0"
  type: "Convolution"
  bottom: "data"
  top: "conv0"
  param {
    lr_mult: 1
  }
  param {
    lr_mult: 2
  }
  convolution_param {
    num_output: 10
    kernel_size: 5
    stride: 1
    weight_filler {
      type: "xavier"
    }
    bias_filler {
      type: "constant"
    }
  }
}
layer {
  name: "pool0"
  type: "Pooling"
  bottom: "conv0"
  top: "pool0"
  pooling_param {
    pool: MAX
    kernel_size: 2
    stride: 2
  }
}
layer {
  name: "conv1"
  type: "Convolution"
  bottom: "pool0"
  top: "conv1"
  param {
    lr_mult: 1
  }
  param {
    lr_mult: 2
  }
  convolution_param {
    num_output: 25
    kernel_size: 5
    stride: 1
    weight_filler {
      type: "xavier"
    }
    bias_filler {
      type: "constant"
    }
  }
}
layer {
  name: "pool1"
  type: "Pooling"
  bottom: "conv1"
  top: "pool1"
  pooling_param {
    pool: MAX
    kernel_size: 2
    stride: 2
  }
}
layer {
  name: "ip1"
  type: "InnerProduct"
  bottom: "pool1"
  top: "ip1"
  param {
    lr_mult: 1
  }
  param {
    lr_mult: 2
  }
  inner_product_param {
    num_output: 25
    weight_filler {
      type: "xavier"
    }
    bias_filler {
      type: "constant"
    }
  }
}
layer {
  name: "relu1"
  type: "ReLU"
  bottom: "ip1"
  top: "ip1"
}
layer {
  name: "ip2"
  type: "InnerProduct"
  bottom: "ip1"
  top: "ip2"
  param {
    lr_mult: 1
  }
  param {
    lr_mult: 2
  }
  inner_product_param {
    num_output: 25
    weight_filler {
      type: "xavier"
    }
    bias_filler {
      type: "constant"
    }
  }
}
layer {
  name: "relu2"
  type: "ReLU"
  bottom: "ip2"
  top: "ip2"
}
layer {
  name: "ip3"
  type: "InnerProduct"
  bottom: "ip2"
  top: "ip3"
  param {
    lr_mult: 1
  }
  param {
    lr_mult: 2
  }
  inner_product_param {
    num_output: 10
    weight_filler {
      type: "xavier"
    }
    bias_filler {
      type: "constant"
    }
  }
}
layer {
  name: "relu3"
  type: "ReLU"
  bottom: "ip3"
  top: "ip3"
}
layer {
  name: "loss"
  type: "SoftmaxWithLoss"
  bottom: "ip3"
  bottom: "label"
  top: "loss"
}
I0428 20:00:44.594079 29543 layer_factory.hpp:77] Creating layer mnist
I0428 20:00:44.594184 29543 db_lmdb.cpp:35] Opened lmdb examples/mnist/mnist_train_lmdb
I0428 20:00:44.594210 29543 net.cpp:86] Creating Layer mnist
I0428 20:00:44.594218 29543 net.cpp:382] mnist -> data
I0428 20:00:44.594240 29543 net.cpp:382] mnist -> label
I0428 20:00:44.595306 29543 data_layer.cpp:45] output data size: 64,1,28,28
I0428 20:00:44.597683 29543 net.cpp:124] Setting up mnist
I0428 20:00:44.597702 29543 net.cpp:131] Top shape: 64 1 28 28 (50176)
I0428 20:00:44.597708 29543 net.cpp:131] Top shape: 64 (64)
I0428 20:00:44.597712 29543 net.cpp:139] Memory required for data: 200960
I0428 20:00:44.597719 29543 layer_factory.hpp:77] Creating layer conv0
I0428 20:00:44.597734 29543 net.cpp:86] Creating Layer conv0
I0428 20:00:44.597754 29543 net.cpp:408] conv0 <- data
I0428 20:00:44.597767 29543 net.cpp:382] conv0 -> conv0
I0428 20:00:44.884013 29543 net.cpp:124] Setting up conv0
I0428 20:00:44.884045 29543 net.cpp:131] Top shape: 64 10 24 24 (368640)
I0428 20:00:44.884050 29543 net.cpp:139] Memory required for data: 1675520
I0428 20:00:44.884068 29543 layer_factory.hpp:77] Creating layer pool0
I0428 20:00:44.884084 29543 net.cpp:86] Creating Layer pool0
I0428 20:00:44.884088 29543 net.cpp:408] pool0 <- conv0
I0428 20:00:44.884095 29543 net.cpp:382] pool0 -> pool0
I0428 20:00:44.884151 29543 net.cpp:124] Setting up pool0
I0428 20:00:44.884158 29543 net.cpp:131] Top shape: 64 10 12 12 (92160)
I0428 20:00:44.884162 29543 net.cpp:139] Memory required for data: 2044160
I0428 20:00:44.884166 29543 layer_factory.hpp:77] Creating layer conv1
I0428 20:00:44.884179 29543 net.cpp:86] Creating Layer conv1
I0428 20:00:44.884183 29543 net.cpp:408] conv1 <- pool0
I0428 20:00:44.884189 29543 net.cpp:382] conv1 -> conv1
I0428 20:00:44.887398 29543 net.cpp:124] Setting up conv1
I0428 20:00:44.887416 29543 net.cpp:131] Top shape: 64 25 8 8 (102400)
I0428 20:00:44.887421 29543 net.cpp:139] Memory required for data: 2453760
I0428 20:00:44.887431 29543 layer_factory.hpp:77] Creating layer pool1
I0428 20:00:44.887442 29543 net.cpp:86] Creating Layer pool1
I0428 20:00:44.887446 29543 net.cpp:408] pool1 <- conv1
I0428 20:00:44.887452 29543 net.cpp:382] pool1 -> pool1
I0428 20:00:44.887503 29543 net.cpp:124] Setting up pool1
I0428 20:00:44.887512 29543 net.cpp:131] Top shape: 64 25 4 4 (25600)
I0428 20:00:44.887516 29543 net.cpp:139] Memory required for data: 2556160
I0428 20:00:44.887519 29543 layer_factory.hpp:77] Creating layer ip1
I0428 20:00:44.887527 29543 net.cpp:86] Creating Layer ip1
I0428 20:00:44.887531 29543 net.cpp:408] ip1 <- pool1
I0428 20:00:44.887538 29543 net.cpp:382] ip1 -> ip1
I0428 20:00:44.887725 29543 net.cpp:124] Setting up ip1
I0428 20:00:44.887735 29543 net.cpp:131] Top shape: 64 25 (1600)
I0428 20:00:44.887739 29543 net.cpp:139] Memory required for data: 2562560
I0428 20:00:44.887748 29543 layer_factory.hpp:77] Creating layer relu1
I0428 20:00:44.887755 29543 net.cpp:86] Creating Layer relu1
I0428 20:00:44.887759 29543 net.cpp:408] relu1 <- ip1
I0428 20:00:44.887766 29543 net.cpp:369] relu1 -> ip1 (in-place)
I0428 20:00:44.887969 29543 net.cpp:124] Setting up relu1
I0428 20:00:44.887980 29543 net.cpp:131] Top shape: 64 25 (1600)
I0428 20:00:44.887984 29543 net.cpp:139] Memory required for data: 2568960
I0428 20:00:44.887989 29543 layer_factory.hpp:77] Creating layer ip2
I0428 20:00:44.887996 29543 net.cpp:86] Creating Layer ip2
I0428 20:00:44.888000 29543 net.cpp:408] ip2 <- ip1
I0428 20:00:44.888005 29543 net.cpp:382] ip2 -> ip2
I0428 20:00:44.888128 29543 net.cpp:124] Setting up ip2
I0428 20:00:44.888137 29543 net.cpp:131] Top shape: 64 25 (1600)
I0428 20:00:44.888140 29543 net.cpp:139] Memory required for data: 2575360
I0428 20:00:44.888147 29543 layer_factory.hpp:77] Creating layer relu2
I0428 20:00:44.888154 29543 net.cpp:86] Creating Layer relu2
I0428 20:00:44.888159 29543 net.cpp:408] relu2 <- ip2
I0428 20:00:44.888164 29543 net.cpp:369] relu2 -> ip2 (in-place)
I0428 20:00:44.889024 29543 net.cpp:124] Setting up relu2
I0428 20:00:44.889039 29543 net.cpp:131] Top shape: 64 25 (1600)
I0428 20:00:44.889044 29543 net.cpp:139] Memory required for data: 2581760
I0428 20:00:44.889047 29543 layer_factory.hpp:77] Creating layer ip3
I0428 20:00:44.889057 29543 net.cpp:86] Creating Layer ip3
I0428 20:00:44.889061 29543 net.cpp:408] ip3 <- ip2
I0428 20:00:44.889067 29543 net.cpp:382] ip3 -> ip3
I0428 20:00:44.889197 29543 net.cpp:124] Setting up ip3
I0428 20:00:44.889206 29543 net.cpp:131] Top shape: 64 10 (640)
I0428 20:00:44.889210 29543 net.cpp:139] Memory required for data: 2584320
I0428 20:00:44.889219 29543 layer_factory.hpp:77] Creating layer relu3
I0428 20:00:44.889227 29543 net.cpp:86] Creating Layer relu3
I0428 20:00:44.889230 29543 net.cpp:408] relu3 <- ip3
I0428 20:00:44.889235 29543 net.cpp:369] relu3 -> ip3 (in-place)
I0428 20:00:44.889446 29543 net.cpp:124] Setting up relu3
I0428 20:00:44.889457 29543 net.cpp:131] Top shape: 64 10 (640)
I0428 20:00:44.889461 29543 net.cpp:139] Memory required for data: 2586880
I0428 20:00:44.889466 29543 layer_factory.hpp:77] Creating layer loss
I0428 20:00:44.889473 29543 net.cpp:86] Creating Layer loss
I0428 20:00:44.889477 29543 net.cpp:408] loss <- ip3
I0428 20:00:44.889482 29543 net.cpp:408] loss <- label
I0428 20:00:44.889489 29543 net.cpp:382] loss -> loss
I0428 20:00:44.889509 29543 layer_factory.hpp:77] Creating layer loss
…
I0428 20:00:44.890274 29543 solver.cpp:173] Creating test net (#0) specified by net file: ECE595/mnist/train_test/var_everything2/lenet_train_test884.prototxt
I0428 20:00:44.890306 29543 net.cpp:296] The NetState phase (1) differed from the phase (0) specified by a rule in layer mnist
I0428 20:00:44.890419 29543 net.cpp:53] Initializing net from parameters: 
name: "LeNet"
state {
  phase: TEST
}
layer {
  name: "mnist"
  type: "Data"
  top: "data"
  top: "label"
  include {
    phase: TEST
  }
  transform_param {
    scale: 0.00390625
  }
  data_param {
    source: "examples/mnist/mnist_test_lmdb"
    batch_size: 100
    backend: LMDB
  }
}
layer {
  name: "conv0"
  type: "Convolution"
  bottom: "data"
  top: "conv0"
  param {
    lr_mult: 1
  }
  param {
    lr_mult: 2
  }
  convolution_param {
    num_output: 10
    kernel_size: 5
    stride: 1
    weight_filler {
      type: "xavier"
    }
    bias_filler {
      type: "constant"
    }
  }
}
layer {
  name: "pool0"
  type: "Pooling"
  bottom: "conv0"
  top: "pool0"
  pooling_param {
    pool: MAX
    kernel_size: 2
    stride: 2
  }
}
layer {
  name: "conv1"
  type: "Convolution"
  bottom: "pool0"
  top: "conv1"
  param {
    lr_mult: 1
  }
  param {
    lr_mult: 2
  }
  convolution_param {
    num_output: 25
    kernel_size: 5
    stride: 1
    weight_filler {
      type: "xavier"
    }
    bias_filler {
      type: "constant"
    }
  }
}
layer {
  name: "pool1"
  type: "Pooling"
  bottom: "conv1"
  top: "pool1"
  pooling_param {
    pool: MAX
    kernel_size: 2
    stride: 2
  }
}
layer {
  name: "ip1"
  type: "InnerProduct"
  bottom: "pool1"
  top: "ip1"
  param {
    lr_mult: 1
  }
  param {
    lr_mult: 2
  }
  inner_product_param {
    num_output: 25
    weight_filler {
      type: "xavier"
    }
    bias_filler {
      type: "constant"
    }
  }
}
layer {
  name: "relu1"
  type: "ReLU"
  bottom: "ip1"
  top: "ip1"
}
layer {
  name: "ip2"
  type: "InnerProduct"
  bottom: "ip1"
  top: "ip2"
  param {
    lr_mult: 1
  }
  param {
    lr_mult: 2
  }
  inner_product_param {
    num_output: 25
    weight_filler {
      type: "xavier"
    }
    bias_filler {
      type: "constant"
    }
  }
}
layer {
  name: "relu2"
  type: "ReLU"
  bottom: "ip2"
  top: "ip2"
}
layer {
  name: "ip3"
  type: "InnerProduct"
  bottom: "ip2"
  top: "ip3"
  param {
    lr_mult: 1
  }
  param {
    lr_mult: 2
  }
  inner_product_param {
    num_output: 10
    weight_filler {
      type: "xavier"
    }
    bias_filler {
      type: "constant"
    }
  }
}
layer {
  name: "relu3"
  type: "ReLU"
  bottom: "ip3"
  top: "ip3"
}
layer {
  name: "accuracy"
  type: "Accuracy"
  bottom: "ip3"
  bottom: "label"
  top: "accuracy"
  include {
    phase: TEST
  }
}
layer {
  name: "loss"
  type: "SoftmaxWithLoss"
  bottom: "ip3"
  bottom: "label"
  top: "loss"
}
I0428 20:00:44.890521 29543 layer_factory.hpp:77] Creating layer mnist
I0428 20:00:44.890571 29543 db_lmdb.cpp:35] Opened lmdb examples/mnist/mnist_test_lmdb
I0428 20:00:44.890588 29543 net.cpp:86] Creating Layer mnist
I0428 20:00:44.890594 29543 net.cpp:382] mnist -> data
I0428 20:00:44.890604 29543 net.cpp:382] mnist -> label
I0428 20:00:44.890707 29543 data_layer.cpp:45] output data size: 100,1,28,28
I0428 20:00:44.892910 29543 net.cpp:124] Setting up mnist
I0428 20:00:44.892926 29543 net.cpp:131] Top shape: 100 1 28 28 (78400)
I0428 20:00:44.892932 29543 net.cpp:131] Top shape: 100 (100)
I0428 20:00:44.892936 29543 net.cpp:139] Memory required for data: 314000
I0428 20:00:44.892940 29543 layer_factory.hpp:77] Creating layer label_mnist_1_split
I0428 20:00:44.892948 29543 net.cpp:86] Creating Layer label_mnist_1_split
I0428 20:00:44.892952 29543 net.cpp:408] label_mnist_1_split <- label
I0428 20:00:44.892982 29543 net.cpp:382] label_mnist_1_split -> label_mnist_1_split_0
I0428 20:00:44.892990 29543 net.cpp:382] label_mnist_1_split -> label_mnist_1_split_1
I0428 20:00:44.893045 29543 net.cpp:124] Setting up label_mnist_1_split
I0428 20:00:44.893054 29543 net.cpp:131] Top shape: 100 (100)
I0428 20:00:44.893059 29543 net.cpp:131] Top shape: 100 (100)
I0428 20:00:44.893062 29543 net.cpp:139] Memory required for data: 314800
I0428 20:00:44.893066 29543 layer_factory.hpp:77] Creating layer conv0
I0428 20:00:44.893077 29543 net.cpp:86] Creating Layer conv0
I0428 20:00:44.893081 29543 net.cpp:408] conv0 <- data
I0428 20:00:44.893087 29543 net.cpp:382] conv0 -> conv0
I0428 20:00:44.895069 29543 net.cpp:124] Setting up conv0
I0428 20:00:44.895087 29543 net.cpp:131] Top shape: 100 10 24 24 (576000)
I0428 20:00:44.895092 29543 net.cpp:139] Memory required for data: 2618800
I0428 20:00:44.895102 29543 layer_factory.hpp:77] Creating layer pool0
I0428 20:00:44.895112 29543 net.cpp:86] Creating Layer pool0
I0428 20:00:44.895115 29543 net.cpp:408] pool0 <- conv0
I0428 20:00:44.895122 29543 net.cpp:382] pool0 -> pool0
I0428 20:00:44.895169 29543 net.cpp:124] Setting up pool0
I0428 20:00:44.895175 29543 net.cpp:131] Top shape: 100 10 12 12 (144000)
I0428 20:00:44.895179 29543 net.cpp:139] Memory required for data: 3194800
I0428 20:00:44.895182 29543 layer_factory.hpp:77] Creating layer conv1
I0428 20:00:44.895193 29543 net.cpp:86] Creating Layer conv1
I0428 20:00:44.895197 29543 net.cpp:408] conv1 <- pool0
I0428 20:00:44.895205 29543 net.cpp:382] conv1 -> conv1
I0428 20:00:44.897588 29543 net.cpp:124] Setting up conv1
I0428 20:00:44.897603 29543 net.cpp:131] Top shape: 100 25 8 8 (160000)
I0428 20:00:44.897608 29543 net.cpp:139] Memory required for data: 3834800
I0428 20:00:44.897620 29543 layer_factory.hpp:77] Creating layer pool1
I0428 20:00:44.897627 29543 net.cpp:86] Creating Layer pool1
I0428 20:00:44.897631 29543 net.cpp:408] pool1 <- conv1
I0428 20:00:44.897637 29543 net.cpp:382] pool1 -> pool1
I0428 20:00:44.897692 29543 net.cpp:124] Setting up pool1
I0428 20:00:44.897699 29543 net.cpp:131] Top shape: 100 25 4 4 (40000)
I0428 20:00:44.897702 29543 net.cpp:139] Memory required for data: 3994800
I0428 20:00:44.897706 29543 layer_factory.hpp:77] Creating layer ip1
I0428 20:00:44.897714 29543 net.cpp:86] Creating Layer ip1
I0428 20:00:44.897718 29543 net.cpp:408] ip1 <- pool1
I0428 20:00:44.897723 29543 net.cpp:382] ip1 -> ip1
I0428 20:00:44.897935 29543 net.cpp:124] Setting up ip1
I0428 20:00:44.897946 29543 net.cpp:131] Top shape: 100 25 (2500)
I0428 20:00:44.897961 29543 net.cpp:139] Memory required for data: 4004800
I0428 20:00:44.897971 29543 layer_factory.hpp:77] Creating layer relu1
I0428 20:00:44.897979 29543 net.cpp:86] Creating Layer relu1
I0428 20:00:44.897985 29543 net.cpp:408] relu1 <- ip1
I0428 20:00:44.897990 29543 net.cpp:369] relu1 -> ip1 (in-place)
I0428 20:00:44.898195 29543 net.cpp:124] Setting up relu1
I0428 20:00:44.898210 29543 net.cpp:131] Top shape: 100 25 (2500)
I0428 20:00:44.898217 29543 net.cpp:139] Memory required for data: 4014800
I0428 20:00:44.898222 29543 layer_factory.hpp:77] Creating layer ip2
I0428 20:00:44.898231 29543 net.cpp:86] Creating Layer ip2
I0428 20:00:44.898234 29543 net.cpp:408] ip2 <- ip1
I0428 20:00:44.898241 29543 net.cpp:382] ip2 -> ip2
I0428 20:00:44.898367 29543 net.cpp:124] Setting up ip2
I0428 20:00:44.898377 29543 net.cpp:131] Top shape: 100 25 (2500)
I0428 20:00:44.898381 29543 net.cpp:139] Memory required for data: 4024800
I0428 20:00:44.898388 29543 layer_factory.hpp:77] Creating layer relu2
I0428 20:00:44.898396 29543 net.cpp:86] Creating Layer relu2
I0428 20:00:44.898399 29543 net.cpp:408] relu2 <- ip2
I0428 20:00:44.898404 29543 net.cpp:369] relu2 -> ip2 (in-place)
I0428 20:00:44.898619 29543 net.cpp:124] Setting up relu2
I0428 20:00:44.898632 29543 net.cpp:131] Top shape: 100 25 (2500)
I0428 20:00:44.898634 29543 net.cpp:139] Memory required for data: 4034800
I0428 20:00:44.898638 29543 layer_factory.hpp:77] Creating layer ip3
I0428 20:00:44.898646 29543 net.cpp:86] Creating Layer ip3
I0428 20:00:44.898650 29543 net.cpp:408] ip3 <- ip2
I0428 20:00:44.898656 29543 net.cpp:382] ip3 -> ip3
I0428 20:00:44.898795 29543 net.cpp:124] Setting up ip3
I0428 20:00:44.898805 29543 net.cpp:131] Top shape: 100 10 (1000)
I0428 20:00:44.898808 29543 net.cpp:139] Memory required for data: 4038800
I0428 20:00:44.898818 29543 layer_factory.hpp:77] Creating layer relu3
I0428 20:00:44.898824 29543 net.cpp:86] Creating Layer relu3
I0428 20:00:44.898828 29543 net.cpp:408] relu3 <- ip3
I0428 20:00:44.898834 29543 net.cpp:369] relu3 -> ip3 (in-place)
I0428 20:00:44.899757 29543 net.cpp:124] Setting up relu3
I0428 20:00:44.899772 29543 net.cpp:131] Top shape: 100 10 (1000)
I0428 20:00:44.899776 29543 net.cpp:139] Memory required for data: 4042800
I0428 20:00:44.899780 29543 layer_factory.hpp:77] Creating layer ip3_relu3_0_split
I0428 20:00:44.899787 29543 net.cpp:86] Creating Layer ip3_relu3_0_split
I0428 20:00:44.899791 29543 net.cpp:408] ip3_relu3_0_split <- ip3
I0428 20:00:44.899798 29543 net.cpp:382] ip3_relu3_0_split -> ip3_relu3_0_split_0
I0428 20:00:44.899806 29543 net.cpp:382] ip3_relu3_0_split -> ip3_relu3_0_split_1
I0428 20:00:44.899857 29543 net.cpp:124] Setting up ip3_relu3_0_split
I0428 20:00:44.899868 29543 net.cpp:131] Top shape: 100 10 (1000)
I0428 20:00:44.899873 29543 net.cpp:131] Top shape: 100 10 (1000)
I0428 20:00:44.899875 29543 net.cpp:139] Memory required for data: 4050800
I0428 20:00:44.899879 29543 layer_factory.hpp:77] Creating layer accuracy
I0428 20:00:44.899889 29543 net.cpp:86] Creating Layer accuracy
I0428 20:00:44.899893 29543 net.cpp:408] accuracy <- ip3_relu3_0_split_0
I0428 20:00:44.899899 29543 net.cpp:408] accuracy <- label_mnist_1_split_0
I0428 20:00:44.899909 29543 net.cpp:382] accuracy -> accuracy
…
