…
I0428 20:06:01.758486 30775 net.cpp:296] The NetState phase (0) differed from the phase (1) specified by a rule in layer mnist
I0428 20:06:01.758499 30775 net.cpp:296] The NetState phase (0) differed from the phase (1) specified by a rule in layer accuracy
I0428 20:06:01.758563 30775 net.cpp:53] Initializing net from parameters: 
name: "LeNet"
state {
  phase: TRAIN
  level: 0
  stage: ""
}
layer {
  name: "mnist"
  type: "Data"
  top: "data"
  top: "label"
  include {
    phase: TRAIN
  }
  transform_param {
    scale: 0.00390625
  }
  data_param {
    source: "examples/mnist/mnist_train_lmdb"
    batch_size: 64
    backend: LMDB
  }
}
layer {
  name: "conv0"
  type: "Convolution"
  bottom: "data"
  top: "conv0"
  param {
    lr_mult: 1
  }
  param {
    lr_mult: 2
  }
  convolution_param {
    num_output: 25
    kernel_size: 5
    stride: 1
    weight_filler {
      type: "xavier"
    }
    bias_filler {
      type: "constant"
    }
  }
}
layer {
  name: "pool0"
  type: "Pooling"
  bottom: "conv0"
  top: "pool0"
  pooling_param {
    pool: MAX
    kernel_size: 2
    stride: 2
  }
}
layer {
  name: "conv1"
  type: "Convolution"
  bottom: "pool0"
  top: "conv1"
  param {
    lr_mult: 1
  }
  param {
    lr_mult: 2
  }
  convolution_param {
    num_output: 5
    kernel_size: 5
    stride: 1
    weight_filler {
      type: "xavier"
    }
    bias_filler {
      type: "constant"
    }
  }
}
layer {
  name: "pool1"
  type: "Pooling"
  bottom: "conv1"
  top: "pool1"
  pooling_param {
    pool: MAX
    kernel_size: 2
    stride: 2
  }
}
layer {
  name: "ip1"
  type: "InnerProduct"
  bottom: "pool1"
  top: "ip1"
  param {
    lr_mult: 1
  }
  param {
    lr_mult: 2
  }
  inner_product_param {
    num_output: 10
    weight_filler {
      type: "xavier"
    }
    bias_filler {
      type: "constant"
    }
  }
}
layer {
  name: "relu1"
  type: "ReLU"
  bottom: "ip1"
  top: "ip1"
}
layer {
  name: "loss"
  type: "SoftmaxWithLoss"
  bottom: "ip1"
  bottom: "label"
  top: "loss"
}
I0428 20:06:01.758616 30775 layer_factory.hpp:77] Creating layer mnist
I0428 20:06:01.758700 30775 db_lmdb.cpp:35] Opened lmdb examples/mnist/mnist_train_lmdb
I0428 20:06:01.758734 30775 net.cpp:86] Creating Layer mnist
I0428 20:06:01.758743 30775 net.cpp:382] mnist -> data
I0428 20:06:01.758792 30775 net.cpp:382] mnist -> label
I0428 20:06:01.759786 30775 data_layer.cpp:45] output data size: 64,1,28,28
I0428 20:06:01.762138 30775 net.cpp:124] Setting up mnist
I0428 20:06:01.762169 30775 net.cpp:131] Top shape: 64 1 28 28 (50176)
I0428 20:06:01.762176 30775 net.cpp:131] Top shape: 64 (64)
I0428 20:06:01.762177 30775 net.cpp:139] Memory required for data: 200960
I0428 20:06:01.762184 30775 layer_factory.hpp:77] Creating layer conv0
I0428 20:06:01.762199 30775 net.cpp:86] Creating Layer conv0
I0428 20:06:01.762204 30775 net.cpp:408] conv0 <- data
I0428 20:06:01.762215 30775 net.cpp:382] conv0 -> conv0
I0428 20:06:01.993559 30775 net.cpp:124] Setting up conv0
I0428 20:06:01.993584 30775 net.cpp:131] Top shape: 64 25 24 24 (921600)
I0428 20:06:01.993588 30775 net.cpp:139] Memory required for data: 3887360
I0428 20:06:01.993602 30775 layer_factory.hpp:77] Creating layer pool0
I0428 20:06:01.993615 30775 net.cpp:86] Creating Layer pool0
I0428 20:06:01.993618 30775 net.cpp:408] pool0 <- conv0
I0428 20:06:01.993624 30775 net.cpp:382] pool0 -> pool0
I0428 20:06:01.993682 30775 net.cpp:124] Setting up pool0
I0428 20:06:01.993687 30775 net.cpp:131] Top shape: 64 25 12 12 (230400)
I0428 20:06:01.993706 30775 net.cpp:139] Memory required for data: 4808960
I0428 20:06:01.993710 30775 layer_factory.hpp:77] Creating layer conv1
I0428 20:06:01.993719 30775 net.cpp:86] Creating Layer conv1
I0428 20:06:01.993723 30775 net.cpp:408] conv1 <- pool0
I0428 20:06:01.993728 30775 net.cpp:382] conv1 -> conv1
I0428 20:06:01.996466 30775 net.cpp:124] Setting up conv1
I0428 20:06:01.996496 30775 net.cpp:131] Top shape: 64 5 8 8 (20480)
I0428 20:06:01.996500 30775 net.cpp:139] Memory required for data: 4890880
I0428 20:06:01.996508 30775 layer_factory.hpp:77] Creating layer pool1
I0428 20:06:01.996515 30775 net.cpp:86] Creating Layer pool1
I0428 20:06:01.996520 30775 net.cpp:408] pool1 <- conv1
I0428 20:06:01.996523 30775 net.cpp:382] pool1 -> pool1
I0428 20:06:01.996574 30775 net.cpp:124] Setting up pool1
I0428 20:06:01.996579 30775 net.cpp:131] Top shape: 64 5 4 4 (5120)
I0428 20:06:01.996582 30775 net.cpp:139] Memory required for data: 4911360
I0428 20:06:01.996585 30775 layer_factory.hpp:77] Creating layer ip1
I0428 20:06:01.996592 30775 net.cpp:86] Creating Layer ip1
I0428 20:06:01.996595 30775 net.cpp:408] ip1 <- pool1
I0428 20:06:01.996599 30775 net.cpp:382] ip1 -> ip1
I0428 20:06:01.996690 30775 net.cpp:124] Setting up ip1
I0428 20:06:01.996697 30775 net.cpp:131] Top shape: 64 10 (640)
I0428 20:06:01.996701 30775 net.cpp:139] Memory required for data: 4913920
I0428 20:06:01.996707 30775 layer_factory.hpp:77] Creating layer relu1
I0428 20:06:01.996714 30775 net.cpp:86] Creating Layer relu1
I0428 20:06:01.996717 30775 net.cpp:408] relu1 <- ip1
I0428 20:06:01.996721 30775 net.cpp:369] relu1 -> ip1 (in-place)
I0428 20:06:01.996918 30775 net.cpp:124] Setting up relu1
I0428 20:06:01.996928 30775 net.cpp:131] Top shape: 64 10 (640)
I0428 20:06:01.996932 30775 net.cpp:139] Memory required for data: 4916480
I0428 20:06:01.996935 30775 layer_factory.hpp:77] Creating layer loss
I0428 20:06:01.996942 30775 net.cpp:86] Creating Layer loss
I0428 20:06:01.996944 30775 net.cpp:408] loss <- ip1
I0428 20:06:01.996948 30775 net.cpp:408] loss <- label
I0428 20:06:01.996953 30775 net.cpp:382] loss -> loss
I0428 20:06:01.996973 30775 layer_factory.hpp:77] Creating layer loss
…
I0428 20:06:01.998229 30775 solver.cpp:173] Creating test net (#0) specified by net file: ECE595/mnist/train_test/var_everything2/lenet_train_test1016.prototxt
I0428 20:06:01.998252 30775 net.cpp:296] The NetState phase (1) differed from the phase (0) specified by a rule in layer mnist
I0428 20:06:01.998323 30775 net.cpp:53] Initializing net from parameters: 
name: "LeNet"
state {
  phase: TEST
}
layer {
  name: "mnist"
  type: "Data"
  top: "data"
  top: "label"
  include {
    phase: TEST
  }
  transform_param {
    scale: 0.00390625
  }
  data_param {
    source: "examples/mnist/mnist_test_lmdb"
    batch_size: 100
    backend: LMDB
  }
}
layer {
  name: "conv0"
  type: "Convolution"
  bottom: "data"
  top: "conv0"
  param {
    lr_mult: 1
  }
  param {
    lr_mult: 2
  }
  convolution_param {
    num_output: 25
    kernel_size: 5
    stride: 1
    weight_filler {
      type: "xavier"
    }
    bias_filler {
      type: "constant"
    }
  }
}
layer {
  name: "pool0"
  type: "Pooling"
  bottom: "conv0"
  top: "pool0"
  pooling_param {
    pool: MAX
    kernel_size: 2
    stride: 2
  }
}
layer {
  name: "conv1"
  type: "Convolution"
  bottom: "pool0"
  top: "conv1"
  param {
    lr_mult: 1
  }
  param {
    lr_mult: 2
  }
  convolution_param {
    num_output: 5
    kernel_size: 5
    stride: 1
    weight_filler {
      type: "xavier"
    }
    bias_filler {
      type: "constant"
    }
  }
}
layer {
  name: "pool1"
  type: "Pooling"
  bottom: "conv1"
  top: "pool1"
  pooling_param {
    pool: MAX
    kernel_size: 2
    stride: 2
  }
}
layer {
  name: "ip1"
  type: "InnerProduct"
  bottom: "pool1"
  top: "ip1"
  param {
    lr_mult: 1
  }
  param {
    lr_mult: 2
  }
  inner_product_param {
    num_output: 10
    weight_filler {
      type: "xavier"
    }
    bias_filler {
      type: "constant"
    }
  }
}
layer {
  name: "relu1"
  type: "ReLU"
  bottom: "ip1"
  top: "ip1"
}
layer {
  name: "accuracy"
  type: "Accuracy"
  bottom: "ip1"
  bottom: "label"
  top: "accuracy"
  include {
    phase: TEST
  }
}
layer {
  name: "loss"
  type: "SoftmaxWithLoss"
  bottom: "ip1"
  bottom: "label"
  top: "loss"
}
I0428 20:06:01.998390 30775 layer_factory.hpp:77] Creating layer mnist
I0428 20:06:01.998450 30775 db_lmdb.cpp:35] Opened lmdb examples/mnist/mnist_test_lmdb
I0428 20:06:01.998463 30775 net.cpp:86] Creating Layer mnist
I0428 20:06:01.998468 30775 net.cpp:382] mnist -> data
I0428 20:06:01.998476 30775 net.cpp:382] mnist -> label
I0428 20:06:01.998554 30775 data_layer.cpp:45] output data size: 100,1,28,28
I0428 20:06:02.000538 30775 net.cpp:124] Setting up mnist
I0428 20:06:02.000567 30775 net.cpp:131] Top shape: 100 1 28 28 (78400)
I0428 20:06:02.000573 30775 net.cpp:131] Top shape: 100 (100)
I0428 20:06:02.000577 30775 net.cpp:139] Memory required for data: 314000
I0428 20:06:02.000581 30775 layer_factory.hpp:77] Creating layer label_mnist_1_split
I0428 20:06:02.000589 30775 net.cpp:86] Creating Layer label_mnist_1_split
I0428 20:06:02.000592 30775 net.cpp:408] label_mnist_1_split <- label
I0428 20:06:02.000598 30775 net.cpp:382] label_mnist_1_split -> label_mnist_1_split_0
I0428 20:06:02.000617 30775 net.cpp:382] label_mnist_1_split -> label_mnist_1_split_1
I0428 20:06:02.000730 30775 net.cpp:124] Setting up label_mnist_1_split
I0428 20:06:02.000740 30775 net.cpp:131] Top shape: 100 (100)
I0428 20:06:02.000743 30775 net.cpp:131] Top shape: 100 (100)
I0428 20:06:02.000746 30775 net.cpp:139] Memory required for data: 314800
I0428 20:06:02.000749 30775 layer_factory.hpp:77] Creating layer conv0
I0428 20:06:02.000758 30775 net.cpp:86] Creating Layer conv0
I0428 20:06:02.000761 30775 net.cpp:408] conv0 <- data
I0428 20:06:02.000766 30775 net.cpp:382] conv0 -> conv0
I0428 20:06:02.001600 30775 net.cpp:124] Setting up conv0
I0428 20:06:02.001612 30775 net.cpp:131] Top shape: 100 25 24 24 (1440000)
I0428 20:06:02.001631 30775 net.cpp:139] Memory required for data: 6074800
I0428 20:06:02.001641 30775 layer_factory.hpp:77] Creating layer pool0
I0428 20:06:02.001646 30775 net.cpp:86] Creating Layer pool0
I0428 20:06:02.001664 30775 net.cpp:408] pool0 <- conv0
I0428 20:06:02.001668 30775 net.cpp:382] pool0 -> pool0
I0428 20:06:02.001731 30775 net.cpp:124] Setting up pool0
I0428 20:06:02.001736 30775 net.cpp:131] Top shape: 100 25 12 12 (360000)
I0428 20:06:02.001739 30775 net.cpp:139] Memory required for data: 7514800
I0428 20:06:02.001741 30775 layer_factory.hpp:77] Creating layer conv1
I0428 20:06:02.001749 30775 net.cpp:86] Creating Layer conv1
I0428 20:06:02.001752 30775 net.cpp:408] conv1 <- pool0
I0428 20:06:02.001757 30775 net.cpp:382] conv1 -> conv1
I0428 20:06:02.003762 30775 net.cpp:124] Setting up conv1
I0428 20:06:02.003793 30775 net.cpp:131] Top shape: 100 5 8 8 (32000)
I0428 20:06:02.003796 30775 net.cpp:139] Memory required for data: 7642800
I0428 20:06:02.003805 30775 layer_factory.hpp:77] Creating layer pool1
I0428 20:06:02.003813 30775 net.cpp:86] Creating Layer pool1
I0428 20:06:02.003828 30775 net.cpp:408] pool1 <- conv1
I0428 20:06:02.003834 30775 net.cpp:382] pool1 -> pool1
I0428 20:06:02.003887 30775 net.cpp:124] Setting up pool1
I0428 20:06:02.003893 30775 net.cpp:131] Top shape: 100 5 4 4 (8000)
I0428 20:06:02.003896 30775 net.cpp:139] Memory required for data: 7674800
I0428 20:06:02.003900 30775 layer_factory.hpp:77] Creating layer ip1
I0428 20:06:02.003906 30775 net.cpp:86] Creating Layer ip1
I0428 20:06:02.003908 30775 net.cpp:408] ip1 <- pool1
I0428 20:06:02.003913 30775 net.cpp:382] ip1 -> ip1
I0428 20:06:02.004007 30775 net.cpp:124] Setting up ip1
I0428 20:06:02.004016 30775 net.cpp:131] Top shape: 100 10 (1000)
I0428 20:06:02.004020 30775 net.cpp:139] Memory required for data: 7678800
I0428 20:06:02.004027 30775 layer_factory.hpp:77] Creating layer relu1
I0428 20:06:02.004040 30775 net.cpp:86] Creating Layer relu1
I0428 20:06:02.004043 30775 net.cpp:408] relu1 <- ip1
I0428 20:06:02.004048 30775 net.cpp:369] relu1 -> ip1 (in-place)
I0428 20:06:02.004932 30775 net.cpp:124] Setting up relu1
I0428 20:06:02.004946 30775 net.cpp:131] Top shape: 100 10 (1000)
I0428 20:06:02.004951 30775 net.cpp:139] Memory required for data: 7682800
I0428 20:06:02.004956 30775 layer_factory.hpp:77] Creating layer ip1_relu1_0_split
I0428 20:06:02.004962 30775 net.cpp:86] Creating Layer ip1_relu1_0_split
I0428 20:06:02.004966 30775 net.cpp:408] ip1_relu1_0_split <- ip1
I0428 20:06:02.004972 30775 net.cpp:382] ip1_relu1_0_split -> ip1_relu1_0_split_0
I0428 20:06:02.004979 30775 net.cpp:382] ip1_relu1_0_split -> ip1_relu1_0_split_1
I0428 20:06:02.005045 30775 net.cpp:124] Setting up ip1_relu1_0_split
I0428 20:06:02.005054 30775 net.cpp:131] Top shape: 100 10 (1000)
I0428 20:06:02.005059 30775 net.cpp:131] Top shape: 100 10 (1000)
I0428 20:06:02.005062 30775 net.cpp:139] Memory required for data: 7690800
I0428 20:06:02.005065 30775 layer_factory.hpp:77] Creating layer accuracy
I0428 20:06:02.005071 30775 net.cpp:86] Creating Layer accuracy
I0428 20:06:02.005075 30775 net.cpp:408] accuracy <- ip1_relu1_0_split_0
I0428 20:06:02.005079 30775 net.cpp:408] accuracy <- label_mnist_1_split_0
I0428 20:06:02.005084 30775 net.cpp:382] accuracy -> accuracy
…
