…
I0428 19:29:54.036484 22142 net.cpp:296] The NetState phase (0) differed from the phase (1) specified by a rule in layer mnist
I0428 19:29:54.036497 22142 net.cpp:296] The NetState phase (0) differed from the phase (1) specified by a rule in layer accuracy
I0428 19:29:54.036581 22142 net.cpp:53] Initializing net from parameters: 
name: "LeNet"
state {
  phase: TRAIN
  level: 0
  stage: ""
}
layer {
  name: "mnist"
  type: "Data"
  top: "data"
  top: "label"
  include {
    phase: TRAIN
  }
  transform_param {
    scale: 0.00390625
  }
  data_param {
    source: "examples/mnist/mnist_train_lmdb"
    batch_size: 64
    backend: LMDB
  }
}
layer {
  name: "conv0"
  type: "Convolution"
  bottom: "data"
  top: "conv0"
  param {
    lr_mult: 1
  }
  param {
    lr_mult: 2
  }
  convolution_param {
    num_output: 2
    kernel_size: 5
    stride: 1
    weight_filler {
      type: "xavier"
    }
    bias_filler {
      type: "constant"
    }
  }
}
layer {
  name: "pool0"
  type: "Pooling"
  bottom: "conv0"
  top: "pool0"
  pooling_param {
    pool: MAX
    kernel_size: 2
    stride: 2
  }
}
layer {
  name: "ip1"
  type: "InnerProduct"
  bottom: "pool0"
  top: "ip1"
  param {
    lr_mult: 1
  }
  param {
    lr_mult: 2
  }
  inner_product_param {
    num_output: 50
    weight_filler {
      type: "xavier"
    }
    bias_filler {
      type: "constant"
    }
  }
}
layer {
  name: "relu1"
  type: "ReLU"
  bottom: "ip1"
  top: "ip1"
}
layer {
  name: "ip2"
  type: "InnerProduct"
  bottom: "ip1"
  top: "ip2"
  param {
    lr_mult: 1
  }
  param {
    lr_mult: 2
  }
  inner_product_param {
    num_output: 25
    weight_filler {
      type: "xavier"
    }
    bias_filler {
      type: "constant"
    }
  }
}
layer {
  name: "relu2"
  type: "ReLU"
  bottom: "ip2"
  top: "ip2"
}
layer {
  name: "ip3"
  type: "InnerProduct"
  bottom: "ip2"
  top: "ip3"
  param {
    lr_mult: 1
  }
  param {
    lr_mult: 2
  }
  inner_product_param {
    num_output: 10
    weight_filler {
      type: "xavier"
    }
    bias_filler {
      type: "constant"
    }
  }
}
layer {
  name: "relu3"
  type: "ReLU"
  bottom: "ip3"
  top: "ip3"
}
layer {
  name: "loss"
  type: "SoftmaxWithLoss"
  bottom: "ip3"
  bottom: "label"
  top: "loss"
}
I0428 19:29:54.036656 22142 layer_factory.hpp:77] Creating layer mnist
I0428 19:29:54.036737 22142 db_lmdb.cpp:35] Opened lmdb examples/mnist/mnist_train_lmdb
I0428 19:29:54.036756 22142 net.cpp:86] Creating Layer mnist
I0428 19:29:54.036762 22142 net.cpp:382] mnist -> data
I0428 19:29:54.036782 22142 net.cpp:382] mnist -> label
I0428 19:29:54.037869 22142 data_layer.cpp:45] output data size: 64,1,28,28
I0428 19:29:54.040094 22142 net.cpp:124] Setting up mnist
I0428 19:29:54.040124 22142 net.cpp:131] Top shape: 64 1 28 28 (50176)
I0428 19:29:54.040129 22142 net.cpp:131] Top shape: 64 (64)
I0428 19:29:54.040132 22142 net.cpp:139] Memory required for data: 200960
I0428 19:29:54.040138 22142 layer_factory.hpp:77] Creating layer conv0
I0428 19:29:54.040184 22142 net.cpp:86] Creating Layer conv0
I0428 19:29:54.040189 22142 net.cpp:408] conv0 <- data
I0428 19:29:54.040199 22142 net.cpp:382] conv0 -> conv0
I0428 19:29:54.269456 22142 net.cpp:124] Setting up conv0
I0428 19:29:54.269485 22142 net.cpp:131] Top shape: 64 2 24 24 (73728)
I0428 19:29:54.269490 22142 net.cpp:139] Memory required for data: 495872
I0428 19:29:54.269537 22142 layer_factory.hpp:77] Creating layer pool0
I0428 19:29:54.269551 22142 net.cpp:86] Creating Layer pool0
I0428 19:29:54.269573 22142 net.cpp:408] pool0 <- conv0
I0428 19:29:54.269580 22142 net.cpp:382] pool0 -> pool0
I0428 19:29:54.269635 22142 net.cpp:124] Setting up pool0
I0428 19:29:54.269644 22142 net.cpp:131] Top shape: 64 2 12 12 (18432)
I0428 19:29:54.269649 22142 net.cpp:139] Memory required for data: 569600
I0428 19:29:54.269651 22142 layer_factory.hpp:77] Creating layer ip1
I0428 19:29:54.269659 22142 net.cpp:86] Creating Layer ip1
I0428 19:29:54.269662 22142 net.cpp:408] ip1 <- pool0
I0428 19:29:54.269667 22142 net.cpp:382] ip1 -> ip1
I0428 19:29:54.270699 22142 net.cpp:124] Setting up ip1
I0428 19:29:54.270727 22142 net.cpp:131] Top shape: 64 50 (3200)
I0428 19:29:54.270730 22142 net.cpp:139] Memory required for data: 582400
I0428 19:29:54.270738 22142 layer_factory.hpp:77] Creating layer relu1
I0428 19:29:54.270745 22142 net.cpp:86] Creating Layer relu1
I0428 19:29:54.270748 22142 net.cpp:408] relu1 <- ip1
I0428 19:29:54.270752 22142 net.cpp:369] relu1 -> ip1 (in-place)
I0428 19:29:54.270922 22142 net.cpp:124] Setting up relu1
I0428 19:29:54.270931 22142 net.cpp:131] Top shape: 64 50 (3200)
I0428 19:29:54.270933 22142 net.cpp:139] Memory required for data: 595200
I0428 19:29:54.270937 22142 layer_factory.hpp:77] Creating layer ip2
I0428 19:29:54.270943 22142 net.cpp:86] Creating Layer ip2
I0428 19:29:54.270946 22142 net.cpp:408] ip2 <- ip1
I0428 19:29:54.270951 22142 net.cpp:382] ip2 -> ip2
I0428 19:29:54.271847 22142 net.cpp:124] Setting up ip2
I0428 19:29:54.271857 22142 net.cpp:131] Top shape: 64 25 (1600)
I0428 19:29:54.271877 22142 net.cpp:139] Memory required for data: 601600
I0428 19:29:54.271884 22142 layer_factory.hpp:77] Creating layer relu2
I0428 19:29:54.271889 22142 net.cpp:86] Creating Layer relu2
I0428 19:29:54.271893 22142 net.cpp:408] relu2 <- ip2
I0428 19:29:54.271896 22142 net.cpp:369] relu2 -> ip2 (in-place)
I0428 19:29:54.272611 22142 net.cpp:124] Setting up relu2
I0428 19:29:54.272622 22142 net.cpp:131] Top shape: 64 25 (1600)
I0428 19:29:54.272641 22142 net.cpp:139] Memory required for data: 608000
I0428 19:29:54.272644 22142 layer_factory.hpp:77] Creating layer ip3
I0428 19:29:54.272650 22142 net.cpp:86] Creating Layer ip3
I0428 19:29:54.272653 22142 net.cpp:408] ip3 <- ip2
I0428 19:29:54.272658 22142 net.cpp:382] ip3 -> ip3
I0428 19:29:54.272749 22142 net.cpp:124] Setting up ip3
I0428 19:29:54.272756 22142 net.cpp:131] Top shape: 64 10 (640)
I0428 19:29:54.272758 22142 net.cpp:139] Memory required for data: 610560
I0428 19:29:54.272764 22142 layer_factory.hpp:77] Creating layer relu3
I0428 19:29:54.272769 22142 net.cpp:86] Creating Layer relu3
I0428 19:29:54.272773 22142 net.cpp:408] relu3 <- ip3
I0428 19:29:54.272776 22142 net.cpp:369] relu3 -> ip3 (in-place)
I0428 19:29:54.272955 22142 net.cpp:124] Setting up relu3
I0428 19:29:54.272964 22142 net.cpp:131] Top shape: 64 10 (640)
I0428 19:29:54.272966 22142 net.cpp:139] Memory required for data: 613120
I0428 19:29:54.272969 22142 layer_factory.hpp:77] Creating layer loss
I0428 19:29:54.272975 22142 net.cpp:86] Creating Layer loss
I0428 19:29:54.272979 22142 net.cpp:408] loss <- ip3
I0428 19:29:54.272982 22142 net.cpp:408] loss <- label
I0428 19:29:54.272987 22142 net.cpp:382] loss -> loss
I0428 19:29:54.273005 22142 layer_factory.hpp:77] Creating layer loss
…
I0428 19:29:54.273636 22142 solver.cpp:173] Creating test net (#0) specified by net file: ECE595/mnist/train_test/var_everything2/lenet_train_test73.prototxt
I0428 19:29:54.273661 22142 net.cpp:296] The NetState phase (1) differed from the phase (0) specified by a rule in layer mnist
I0428 19:29:54.273739 22142 net.cpp:53] Initializing net from parameters: 
name: "LeNet"
state {
  phase: TEST
}
layer {
  name: "mnist"
  type: "Data"
  top: "data"
  top: "label"
  include {
    phase: TEST
  }
  transform_param {
    scale: 0.00390625
  }
  data_param {
    source: "examples/mnist/mnist_test_lmdb"
    batch_size: 100
    backend: LMDB
  }
}
layer {
  name: "conv0"
  type: "Convolution"
  bottom: "data"
  top: "conv0"
  param {
    lr_mult: 1
  }
  param {
    lr_mult: 2
  }
  convolution_param {
    num_output: 2
    kernel_size: 5
    stride: 1
    weight_filler {
      type: "xavier"
    }
    bias_filler {
      type: "constant"
    }
  }
}
layer {
  name: "pool0"
  type: "Pooling"
  bottom: "conv0"
  top: "pool0"
  pooling_param {
    pool: MAX
    kernel_size: 2
    stride: 2
  }
}
layer {
  name: "ip1"
  type: "InnerProduct"
  bottom: "pool0"
  top: "ip1"
  param {
    lr_mult: 1
  }
  param {
    lr_mult: 2
  }
  inner_product_param {
    num_output: 50
    weight_filler {
      type: "xavier"
    }
    bias_filler {
      type: "constant"
    }
  }
}
layer {
  name: "relu1"
  type: "ReLU"
  bottom: "ip1"
  top: "ip1"
}
layer {
  name: "ip2"
  type: "InnerProduct"
  bottom: "ip1"
  top: "ip2"
  param {
    lr_mult: 1
  }
  param {
    lr_mult: 2
  }
  inner_product_param {
    num_output: 25
    weight_filler {
      type: "xavier"
    }
    bias_filler {
      type: "constant"
    }
  }
}
layer {
  name: "relu2"
  type: "ReLU"
  bottom: "ip2"
  top: "ip2"
}
layer {
  name: "ip3"
  type: "InnerProduct"
  bottom: "ip2"
  top: "ip3"
  param {
    lr_mult: 1
  }
  param {
    lr_mult: 2
  }
  inner_product_param {
    num_output: 10
    weight_filler {
      type: "xavier"
    }
    bias_filler {
      type: "constant"
    }
  }
}
layer {
  name: "relu3"
  type: "ReLU"
  bottom: "ip3"
  top: "ip3"
}
layer {
  name: "accuracy"
  type: "Accuracy"
  bottom: "ip3"
  bottom: "label"
  top: "accuracy"
  include {
    phase: TEST
  }
}
layer {
  name: "loss"
  type: "SoftmaxWithLoss"
  bottom: "ip3"
  bottom: "label"
  top: "loss"
}
I0428 19:29:54.273798 22142 layer_factory.hpp:77] Creating layer mnist
I0428 19:29:54.273840 22142 db_lmdb.cpp:35] Opened lmdb examples/mnist/mnist_test_lmdb
I0428 19:29:54.273854 22142 net.cpp:86] Creating Layer mnist
I0428 19:29:54.273857 22142 net.cpp:382] mnist -> data
I0428 19:29:54.273864 22142 net.cpp:382] mnist -> label
I0428 19:29:54.273957 22142 data_layer.cpp:45] output data size: 100,1,28,28
I0428 19:29:54.275773 22142 net.cpp:124] Setting up mnist
I0428 19:29:54.275800 22142 net.cpp:131] Top shape: 100 1 28 28 (78400)
I0428 19:29:54.275805 22142 net.cpp:131] Top shape: 100 (100)
I0428 19:29:54.275809 22142 net.cpp:139] Memory required for data: 314000
I0428 19:29:54.275811 22142 layer_factory.hpp:77] Creating layer label_mnist_1_split
I0428 19:29:54.275821 22142 net.cpp:86] Creating Layer label_mnist_1_split
I0428 19:29:54.275825 22142 net.cpp:408] label_mnist_1_split <- label
I0428 19:29:54.275830 22142 net.cpp:382] label_mnist_1_split -> label_mnist_1_split_0
I0428 19:29:54.275835 22142 net.cpp:382] label_mnist_1_split -> label_mnist_1_split_1
I0428 19:29:54.275871 22142 net.cpp:124] Setting up label_mnist_1_split
I0428 19:29:54.275876 22142 net.cpp:131] Top shape: 100 (100)
I0428 19:29:54.275878 22142 net.cpp:131] Top shape: 100 (100)
I0428 19:29:54.275882 22142 net.cpp:139] Memory required for data: 314800
I0428 19:29:54.275892 22142 layer_factory.hpp:77] Creating layer conv0
I0428 19:29:54.275900 22142 net.cpp:86] Creating Layer conv0
I0428 19:29:54.275903 22142 net.cpp:408] conv0 <- data
I0428 19:29:54.275908 22142 net.cpp:382] conv0 -> conv0
I0428 19:29:54.277674 22142 net.cpp:124] Setting up conv0
I0428 19:29:54.277690 22142 net.cpp:131] Top shape: 100 2 24 24 (115200)
I0428 19:29:54.277694 22142 net.cpp:139] Memory required for data: 775600
I0428 19:29:54.277704 22142 layer_factory.hpp:77] Creating layer pool0
I0428 19:29:54.277712 22142 net.cpp:86] Creating Layer pool0
I0428 19:29:54.277716 22142 net.cpp:408] pool0 <- conv0
I0428 19:29:54.277722 22142 net.cpp:382] pool0 -> pool0
I0428 19:29:54.277762 22142 net.cpp:124] Setting up pool0
I0428 19:29:54.277768 22142 net.cpp:131] Top shape: 100 2 12 12 (28800)
I0428 19:29:54.277771 22142 net.cpp:139] Memory required for data: 890800
I0428 19:29:54.277776 22142 layer_factory.hpp:77] Creating layer ip1
I0428 19:29:54.277782 22142 net.cpp:86] Creating Layer ip1
I0428 19:29:54.277786 22142 net.cpp:408] ip1 <- pool0
I0428 19:29:54.277792 22142 net.cpp:382] ip1 -> ip1
I0428 19:29:54.277988 22142 net.cpp:124] Setting up ip1
I0428 19:29:54.277997 22142 net.cpp:131] Top shape: 100 50 (5000)
I0428 19:29:54.278000 22142 net.cpp:139] Memory required for data: 910800
I0428 19:29:54.278008 22142 layer_factory.hpp:77] Creating layer relu1
I0428 19:29:54.278012 22142 net.cpp:86] Creating Layer relu1
I0428 19:29:54.278017 22142 net.cpp:408] relu1 <- ip1
I0428 19:29:54.278022 22142 net.cpp:369] relu1 -> ip1 (in-place)
I0428 19:29:54.278200 22142 net.cpp:124] Setting up relu1
I0428 19:29:54.278209 22142 net.cpp:131] Top shape: 100 50 (5000)
I0428 19:29:54.278213 22142 net.cpp:139] Memory required for data: 930800
I0428 19:29:54.278216 22142 layer_factory.hpp:77] Creating layer ip2
I0428 19:29:54.278223 22142 net.cpp:86] Creating Layer ip2
I0428 19:29:54.278226 22142 net.cpp:408] ip2 <- ip1
I0428 19:29:54.278231 22142 net.cpp:382] ip2 -> ip2
I0428 19:29:54.278352 22142 net.cpp:124] Setting up ip2
I0428 19:29:54.278360 22142 net.cpp:131] Top shape: 100 25 (2500)
I0428 19:29:54.278363 22142 net.cpp:139] Memory required for data: 940800
I0428 19:29:54.278370 22142 layer_factory.hpp:77] Creating layer relu2
I0428 19:29:54.278378 22142 net.cpp:86] Creating Layer relu2
I0428 19:29:54.278380 22142 net.cpp:408] relu2 <- ip2
I0428 19:29:54.278384 22142 net.cpp:369] relu2 -> ip2 (in-place)
I0428 19:29:54.279263 22142 net.cpp:124] Setting up relu2
I0428 19:29:54.279276 22142 net.cpp:131] Top shape: 100 25 (2500)
I0428 19:29:54.279280 22142 net.cpp:139] Memory required for data: 950800
I0428 19:29:54.279284 22142 layer_factory.hpp:77] Creating layer ip3
I0428 19:29:54.279294 22142 net.cpp:86] Creating Layer ip3
I0428 19:29:54.279296 22142 net.cpp:408] ip3 <- ip2
I0428 19:29:54.279304 22142 net.cpp:382] ip3 -> ip3
I0428 19:29:54.279446 22142 net.cpp:124] Setting up ip3
I0428 19:29:54.279455 22142 net.cpp:131] Top shape: 100 10 (1000)
I0428 19:29:54.279458 22142 net.cpp:139] Memory required for data: 954800
I0428 19:29:54.279464 22142 layer_factory.hpp:77] Creating layer relu3
I0428 19:29:54.279469 22142 net.cpp:86] Creating Layer relu3
I0428 19:29:54.279474 22142 net.cpp:408] relu3 <- ip3
I0428 19:29:54.279479 22142 net.cpp:369] relu3 -> ip3 (in-place)
I0428 19:29:54.279677 22142 net.cpp:124] Setting up relu3
I0428 19:29:54.279686 22142 net.cpp:131] Top shape: 100 10 (1000)
I0428 19:29:54.279690 22142 net.cpp:139] Memory required for data: 958800
I0428 19:29:54.279700 22142 layer_factory.hpp:77] Creating layer ip3_relu3_0_split
I0428 19:29:54.279706 22142 net.cpp:86] Creating Layer ip3_relu3_0_split
I0428 19:29:54.279708 22142 net.cpp:408] ip3_relu3_0_split <- ip3
I0428 19:29:54.279721 22142 net.cpp:382] ip3_relu3_0_split -> ip3_relu3_0_split_0
I0428 19:29:54.279726 22142 net.cpp:382] ip3_relu3_0_split -> ip3_relu3_0_split_1
I0428 19:29:54.279770 22142 net.cpp:124] Setting up ip3_relu3_0_split
I0428 19:29:54.279778 22142 net.cpp:131] Top shape: 100 10 (1000)
I0428 19:29:54.279781 22142 net.cpp:131] Top shape: 100 10 (1000)
I0428 19:29:54.279795 22142 net.cpp:139] Memory required for data: 966800
I0428 19:29:54.279798 22142 layer_factory.hpp:77] Creating layer accuracy
I0428 19:29:54.279804 22142 net.cpp:86] Creating Layer accuracy
I0428 19:29:54.279808 22142 net.cpp:408] accuracy <- ip3_relu3_0_split_0
I0428 19:29:54.279813 22142 net.cpp:408] accuracy <- label_mnist_1_split_0
I0428 19:29:54.279816 22142 net.cpp:382] accuracy -> accuracy
…
