…
I0428 19:48:05.477100 26396 net.cpp:296] The NetState phase (0) differed from the phase (1) specified by a rule in layer mnist
I0428 19:48:05.477121 26396 net.cpp:296] The NetState phase (0) differed from the phase (1) specified by a rule in layer accuracy
I0428 19:48:05.477224 26396 net.cpp:53] Initializing net from parameters: 
name: "LeNet"
state {
  phase: TRAIN
  level: 0
  stage: ""
}
layer {
  name: "mnist"
  type: "Data"
  top: "data"
  top: "label"
  include {
    phase: TRAIN
  }
  transform_param {
    scale: 0.00390625
  }
  data_param {
    source: "examples/mnist/mnist_train_lmdb"
    batch_size: 64
    backend: LMDB
  }
}
layer {
  name: "conv0"
  type: "Convolution"
  bottom: "data"
  top: "conv0"
  param {
    lr_mult: 1
  }
  param {
    lr_mult: 2
  }
  convolution_param {
    num_output: 5
    kernel_size: 5
    stride: 1
    weight_filler {
      type: "xavier"
    }
    bias_filler {
      type: "constant"
    }
  }
}
layer {
  name: "pool0"
  type: "Pooling"
  bottom: "conv0"
  top: "pool0"
  pooling_param {
    pool: MAX
    kernel_size: 2
    stride: 2
  }
}
layer {
  name: "conv1"
  type: "Convolution"
  bottom: "pool0"
  top: "conv1"
  param {
    lr_mult: 1
  }
  param {
    lr_mult: 2
  }
  convolution_param {
    num_output: 2
    kernel_size: 5
    stride: 1
    weight_filler {
      type: "xavier"
    }
    bias_filler {
      type: "constant"
    }
  }
}
layer {
  name: "pool1"
  type: "Pooling"
  bottom: "conv1"
  top: "pool1"
  pooling_param {
    pool: MAX
    kernel_size: 2
    stride: 2
  }
}
layer {
  name: "ip1"
  type: "InnerProduct"
  bottom: "pool1"
  top: "ip1"
  param {
    lr_mult: 1
  }
  param {
    lr_mult: 2
  }
  inner_product_param {
    num_output: 25
    weight_filler {
      type: "xavier"
    }
    bias_filler {
      type: "constant"
    }
  }
}
layer {
  name: "relu1"
  type: "ReLU"
  bottom: "ip1"
  top: "ip1"
}
layer {
  name: "ip2"
  type: "InnerProduct"
  bottom: "ip1"
  top: "ip2"
  param {
    lr_mult: 1
  }
  param {
    lr_mult: 2
  }
  inner_product_param {
    num_output: 50
    weight_filler {
      type: "xavier"
    }
    bias_filler {
      type: "constant"
    }
  }
}
layer {
  name: "relu2"
  type: "ReLU"
  bottom: "ip2"
  top: "ip2"
}
layer {
  name: "ip3"
  type: "InnerProduct"
  bottom: "ip2"
  top: "ip3"
  param {
    lr_mult: 1
  }
  param {
    lr_mult: 2
  }
  inner_product_param {
    num_output: 10
    weight_filler {
      type: "xavier"
    }
    bias_filler {
      type: "constant"
    }
  }
}
layer {
  name: "relu3"
  type: "ReLU"
  bottom: "ip3"
  top: "ip3"
}
layer {
  name: "loss"
  type: "SoftmaxWithLoss"
  bottom: "ip3"
  bottom: "label"
  top: "loss"
}
I0428 19:48:05.477303 26396 layer_factory.hpp:77] Creating layer mnist
I0428 19:48:05.477403 26396 db_lmdb.cpp:35] Opened lmdb examples/mnist/mnist_train_lmdb
I0428 19:48:05.477432 26396 net.cpp:86] Creating Layer mnist
I0428 19:48:05.477442 26396 net.cpp:382] mnist -> data
I0428 19:48:05.477463 26396 net.cpp:382] mnist -> label
I0428 19:48:05.478539 26396 data_layer.cpp:45] output data size: 64,1,28,28
I0428 19:48:05.481104 26396 net.cpp:124] Setting up mnist
I0428 19:48:05.481122 26396 net.cpp:131] Top shape: 64 1 28 28 (50176)
I0428 19:48:05.481130 26396 net.cpp:131] Top shape: 64 (64)
I0428 19:48:05.481134 26396 net.cpp:139] Memory required for data: 200960
I0428 19:48:05.481140 26396 layer_factory.hpp:77] Creating layer conv0
I0428 19:48:05.481156 26396 net.cpp:86] Creating Layer conv0
I0428 19:48:05.481185 26396 net.cpp:408] conv0 <- data
I0428 19:48:05.481206 26396 net.cpp:382] conv0 -> conv0
I0428 19:48:05.765365 26396 net.cpp:124] Setting up conv0
I0428 19:48:05.765391 26396 net.cpp:131] Top shape: 64 5 24 24 (184320)
I0428 19:48:05.765395 26396 net.cpp:139] Memory required for data: 938240
I0428 19:48:05.765409 26396 layer_factory.hpp:77] Creating layer pool0
I0428 19:48:05.765422 26396 net.cpp:86] Creating Layer pool0
I0428 19:48:05.765426 26396 net.cpp:408] pool0 <- conv0
I0428 19:48:05.765432 26396 net.cpp:382] pool0 -> pool0
I0428 19:48:05.765478 26396 net.cpp:124] Setting up pool0
I0428 19:48:05.765486 26396 net.cpp:131] Top shape: 64 5 12 12 (46080)
I0428 19:48:05.765488 26396 net.cpp:139] Memory required for data: 1122560
I0428 19:48:05.765491 26396 layer_factory.hpp:77] Creating layer conv1
I0428 19:48:05.765501 26396 net.cpp:86] Creating Layer conv1
I0428 19:48:05.765507 26396 net.cpp:408] conv1 <- pool0
I0428 19:48:05.765512 26396 net.cpp:382] conv1 -> conv1
I0428 19:48:05.767328 26396 net.cpp:124] Setting up conv1
I0428 19:48:05.767346 26396 net.cpp:131] Top shape: 64 2 8 8 (8192)
I0428 19:48:05.767352 26396 net.cpp:139] Memory required for data: 1155328
I0428 19:48:05.767361 26396 layer_factory.hpp:77] Creating layer pool1
I0428 19:48:05.767369 26396 net.cpp:86] Creating Layer pool1
I0428 19:48:05.767374 26396 net.cpp:408] pool1 <- conv1
I0428 19:48:05.767379 26396 net.cpp:382] pool1 -> pool1
I0428 19:48:05.767426 26396 net.cpp:124] Setting up pool1
I0428 19:48:05.767431 26396 net.cpp:131] Top shape: 64 2 4 4 (2048)
I0428 19:48:05.767432 26396 net.cpp:139] Memory required for data: 1163520
I0428 19:48:05.767436 26396 layer_factory.hpp:77] Creating layer ip1
I0428 19:48:05.767442 26396 net.cpp:86] Creating Layer ip1
I0428 19:48:05.767446 26396 net.cpp:408] ip1 <- pool1
I0428 19:48:05.767449 26396 net.cpp:382] ip1 -> ip1
I0428 19:48:05.767541 26396 net.cpp:124] Setting up ip1
I0428 19:48:05.767549 26396 net.cpp:131] Top shape: 64 25 (1600)
I0428 19:48:05.767551 26396 net.cpp:139] Memory required for data: 1169920
I0428 19:48:05.767559 26396 layer_factory.hpp:77] Creating layer relu1
I0428 19:48:05.767563 26396 net.cpp:86] Creating Layer relu1
I0428 19:48:05.767566 26396 net.cpp:408] relu1 <- ip1
I0428 19:48:05.767570 26396 net.cpp:369] relu1 -> ip1 (in-place)
I0428 19:48:05.767730 26396 net.cpp:124] Setting up relu1
I0428 19:48:05.767740 26396 net.cpp:131] Top shape: 64 25 (1600)
I0428 19:48:05.767742 26396 net.cpp:139] Memory required for data: 1176320
I0428 19:48:05.767745 26396 layer_factory.hpp:77] Creating layer ip2
I0428 19:48:05.767751 26396 net.cpp:86] Creating Layer ip2
I0428 19:48:05.767755 26396 net.cpp:408] ip2 <- ip1
I0428 19:48:05.767760 26396 net.cpp:382] ip2 -> ip2
I0428 19:48:05.768707 26396 net.cpp:124] Setting up ip2
I0428 19:48:05.768720 26396 net.cpp:131] Top shape: 64 50 (3200)
I0428 19:48:05.768723 26396 net.cpp:139] Memory required for data: 1189120
I0428 19:48:05.768729 26396 layer_factory.hpp:77] Creating layer relu2
I0428 19:48:05.768736 26396 net.cpp:86] Creating Layer relu2
I0428 19:48:05.768739 26396 net.cpp:408] relu2 <- ip2
I0428 19:48:05.768743 26396 net.cpp:369] relu2 -> ip2 (in-place)
I0428 19:48:05.769573 26396 net.cpp:124] Setting up relu2
I0428 19:48:05.769587 26396 net.cpp:131] Top shape: 64 50 (3200)
I0428 19:48:05.769589 26396 net.cpp:139] Memory required for data: 1201920
I0428 19:48:05.769593 26396 layer_factory.hpp:77] Creating layer ip3
I0428 19:48:05.769601 26396 net.cpp:86] Creating Layer ip3
I0428 19:48:05.769605 26396 net.cpp:408] ip3 <- ip2
I0428 19:48:05.769613 26396 net.cpp:382] ip3 -> ip3
I0428 19:48:05.769767 26396 net.cpp:124] Setting up ip3
I0428 19:48:05.769778 26396 net.cpp:131] Top shape: 64 10 (640)
I0428 19:48:05.769780 26396 net.cpp:139] Memory required for data: 1204480
I0428 19:48:05.769788 26396 layer_factory.hpp:77] Creating layer relu3
I0428 19:48:05.769793 26396 net.cpp:86] Creating Layer relu3
I0428 19:48:05.769796 26396 net.cpp:408] relu3 <- ip3
I0428 19:48:05.769800 26396 net.cpp:369] relu3 -> ip3 (in-place)
I0428 19:48:05.769973 26396 net.cpp:124] Setting up relu3
I0428 19:48:05.769982 26396 net.cpp:131] Top shape: 64 10 (640)
I0428 19:48:05.769985 26396 net.cpp:139] Memory required for data: 1207040
I0428 19:48:05.769989 26396 layer_factory.hpp:77] Creating layer loss
I0428 19:48:05.769994 26396 net.cpp:86] Creating Layer loss
I0428 19:48:05.769997 26396 net.cpp:408] loss <- ip3
I0428 19:48:05.770001 26396 net.cpp:408] loss <- label
I0428 19:48:05.770006 26396 net.cpp:382] loss -> loss
I0428 19:48:05.770023 26396 layer_factory.hpp:77] Creating layer loss
…
I0428 19:48:05.770675 26396 solver.cpp:173] Creating test net (#0) specified by net file: ECE595/mnist/train_test/var_everything2/lenet_train_test534.prototxt
I0428 19:48:05.770704 26396 net.cpp:296] The NetState phase (1) differed from the phase (0) specified by a rule in layer mnist
I0428 19:48:05.770792 26396 net.cpp:53] Initializing net from parameters: 
name: "LeNet"
state {
  phase: TEST
}
layer {
  name: "mnist"
  type: "Data"
  top: "data"
  top: "label"
  include {
    phase: TEST
  }
  transform_param {
    scale: 0.00390625
  }
  data_param {
    source: "examples/mnist/mnist_test_lmdb"
    batch_size: 100
    backend: LMDB
  }
}
layer {
  name: "conv0"
  type: "Convolution"
  bottom: "data"
  top: "conv0"
  param {
    lr_mult: 1
  }
  param {
    lr_mult: 2
  }
  convolution_param {
    num_output: 5
    kernel_size: 5
    stride: 1
    weight_filler {
      type: "xavier"
    }
    bias_filler {
      type: "constant"
    }
  }
}
layer {
  name: "pool0"
  type: "Pooling"
  bottom: "conv0"
  top: "pool0"
  pooling_param {
    pool: MAX
    kernel_size: 2
    stride: 2
  }
}
layer {
  name: "conv1"
  type: "Convolution"
  bottom: "pool0"
  top: "conv1"
  param {
    lr_mult: 1
  }
  param {
    lr_mult: 2
  }
  convolution_param {
    num_output: 2
    kernel_size: 5
    stride: 1
    weight_filler {
      type: "xavier"
    }
    bias_filler {
      type: "constant"
    }
  }
}
layer {
  name: "pool1"
  type: "Pooling"
  bottom: "conv1"
  top: "pool1"
  pooling_param {
    pool: MAX
    kernel_size: 2
    stride: 2
  }
}
layer {
  name: "ip1"
  type: "InnerProduct"
  bottom: "pool1"
  top: "ip1"
  param {
    lr_mult: 1
  }
  param {
    lr_mult: 2
  }
  inner_product_param {
    num_output: 25
    weight_filler {
      type: "xavier"
    }
    bias_filler {
      type: "constant"
    }
  }
}
layer {
  name: "relu1"
  type: "ReLU"
  bottom: "ip1"
  top: "ip1"
}
layer {
  name: "ip2"
  type: "InnerProduct"
  bottom: "ip1"
  top: "ip2"
  param {
    lr_mult: 1
  }
  param {
    lr_mult: 2
  }
  inner_product_param {
    num_output: 50
    weight_filler {
      type: "xavier"
    }
    bias_filler {
      type: "constant"
    }
  }
}
layer {
  name: "relu2"
  type: "ReLU"
  bottom: "ip2"
  top: "ip2"
}
layer {
  name: "ip3"
  type: "InnerProduct"
  bottom: "ip2"
  top: "ip3"
  param {
    lr_mult: 1
  }
  param {
    lr_mult: 2
  }
  inner_product_param {
    num_output: 10
    weight_filler {
      type: "xavier"
    }
    bias_filler {
      type: "constant"
    }
  }
}
layer {
  name: "relu3"
  type: "ReLU"
  bottom: "ip3"
  top: "ip3"
}
layer {
  name: "accuracy"
  type: "Accuracy"
  bottom: "ip3"
  bottom: "label"
  top: "accuracy"
  include {
    phase: TEST
  }
}
layer {
  name: "loss"
  type: "SoftmaxWithLoss"
  bottom: "ip3"
  bottom: "label"
  top: "loss"
}
I0428 19:48:05.770891 26396 layer_factory.hpp:77] Creating layer mnist
I0428 19:48:05.770936 26396 db_lmdb.cpp:35] Opened lmdb examples/mnist/mnist_test_lmdb
I0428 19:48:05.770948 26396 net.cpp:86] Creating Layer mnist
I0428 19:48:05.770952 26396 net.cpp:382] mnist -> data
I0428 19:48:05.770961 26396 net.cpp:382] mnist -> label
I0428 19:48:05.771044 26396 data_layer.cpp:45] output data size: 100,1,28,28
I0428 19:48:05.772920 26396 net.cpp:124] Setting up mnist
I0428 19:48:05.772933 26396 net.cpp:131] Top shape: 100 1 28 28 (78400)
I0428 19:48:05.772954 26396 net.cpp:131] Top shape: 100 (100)
I0428 19:48:05.772958 26396 net.cpp:139] Memory required for data: 314000
I0428 19:48:05.772960 26396 layer_factory.hpp:77] Creating layer label_mnist_1_split
I0428 19:48:05.772966 26396 net.cpp:86] Creating Layer label_mnist_1_split
I0428 19:48:05.772970 26396 net.cpp:408] label_mnist_1_split <- label
I0428 19:48:05.772974 26396 net.cpp:382] label_mnist_1_split -> label_mnist_1_split_0
I0428 19:48:05.772990 26396 net.cpp:382] label_mnist_1_split -> label_mnist_1_split_1
I0428 19:48:05.773048 26396 net.cpp:124] Setting up label_mnist_1_split
I0428 19:48:05.773062 26396 net.cpp:131] Top shape: 100 (100)
I0428 19:48:05.773066 26396 net.cpp:131] Top shape: 100 (100)
I0428 19:48:05.773069 26396 net.cpp:139] Memory required for data: 314800
I0428 19:48:05.773072 26396 layer_factory.hpp:77] Creating layer conv0
I0428 19:48:05.773082 26396 net.cpp:86] Creating Layer conv0
I0428 19:48:05.773085 26396 net.cpp:408] conv0 <- data
I0428 19:48:05.773090 26396 net.cpp:382] conv0 -> conv0
I0428 19:48:05.774871 26396 net.cpp:124] Setting up conv0
I0428 19:48:05.774885 26396 net.cpp:131] Top shape: 100 5 24 24 (288000)
I0428 19:48:05.774888 26396 net.cpp:139] Memory required for data: 1466800
I0428 19:48:05.774899 26396 layer_factory.hpp:77] Creating layer pool0
I0428 19:48:05.774904 26396 net.cpp:86] Creating Layer pool0
I0428 19:48:05.774907 26396 net.cpp:408] pool0 <- conv0
I0428 19:48:05.774914 26396 net.cpp:382] pool0 -> pool0
I0428 19:48:05.774950 26396 net.cpp:124] Setting up pool0
I0428 19:48:05.774962 26396 net.cpp:131] Top shape: 100 5 12 12 (72000)
I0428 19:48:05.774966 26396 net.cpp:139] Memory required for data: 1754800
I0428 19:48:05.774968 26396 layer_factory.hpp:77] Creating layer conv1
I0428 19:48:05.774976 26396 net.cpp:86] Creating Layer conv1
I0428 19:48:05.774979 26396 net.cpp:408] conv1 <- pool0
I0428 19:48:05.774984 26396 net.cpp:382] conv1 -> conv1
I0428 19:48:05.777055 26396 net.cpp:124] Setting up conv1
I0428 19:48:05.777088 26396 net.cpp:131] Top shape: 100 2 8 8 (12800)
I0428 19:48:05.777093 26396 net.cpp:139] Memory required for data: 1806000
I0428 19:48:05.777103 26396 layer_factory.hpp:77] Creating layer pool1
I0428 19:48:05.777118 26396 net.cpp:86] Creating Layer pool1
I0428 19:48:05.777122 26396 net.cpp:408] pool1 <- conv1
I0428 19:48:05.777127 26396 net.cpp:382] pool1 -> pool1
I0428 19:48:05.777170 26396 net.cpp:124] Setting up pool1
I0428 19:48:05.777191 26396 net.cpp:131] Top shape: 100 2 4 4 (3200)
I0428 19:48:05.777197 26396 net.cpp:139] Memory required for data: 1818800
I0428 19:48:05.777215 26396 layer_factory.hpp:77] Creating layer ip1
I0428 19:48:05.777221 26396 net.cpp:86] Creating Layer ip1
I0428 19:48:05.777225 26396 net.cpp:408] ip1 <- pool1
I0428 19:48:05.777230 26396 net.cpp:382] ip1 -> ip1
I0428 19:48:05.777367 26396 net.cpp:124] Setting up ip1
I0428 19:48:05.777375 26396 net.cpp:131] Top shape: 100 25 (2500)
I0428 19:48:05.777389 26396 net.cpp:139] Memory required for data: 1828800
I0428 19:48:05.777395 26396 layer_factory.hpp:77] Creating layer relu1
I0428 19:48:05.777400 26396 net.cpp:86] Creating Layer relu1
I0428 19:48:05.777403 26396 net.cpp:408] relu1 <- ip1
I0428 19:48:05.777408 26396 net.cpp:369] relu1 -> ip1 (in-place)
I0428 19:48:05.777601 26396 net.cpp:124] Setting up relu1
I0428 19:48:05.777611 26396 net.cpp:131] Top shape: 100 25 (2500)
I0428 19:48:05.777614 26396 net.cpp:139] Memory required for data: 1838800
I0428 19:48:05.777617 26396 layer_factory.hpp:77] Creating layer ip2
I0428 19:48:05.777626 26396 net.cpp:86] Creating Layer ip2
I0428 19:48:05.777628 26396 net.cpp:408] ip2 <- ip1
I0428 19:48:05.777633 26396 net.cpp:382] ip2 -> ip2
I0428 19:48:05.777739 26396 net.cpp:124] Setting up ip2
I0428 19:48:05.777745 26396 net.cpp:131] Top shape: 100 50 (5000)
I0428 19:48:05.777748 26396 net.cpp:139] Memory required for data: 1858800
I0428 19:48:05.777755 26396 layer_factory.hpp:77] Creating layer relu2
I0428 19:48:05.777758 26396 net.cpp:86] Creating Layer relu2
I0428 19:48:05.777761 26396 net.cpp:408] relu2 <- ip2
I0428 19:48:05.777766 26396 net.cpp:369] relu2 -> ip2 (in-place)
I0428 19:48:05.777938 26396 net.cpp:124] Setting up relu2
I0428 19:48:05.777945 26396 net.cpp:131] Top shape: 100 50 (5000)
I0428 19:48:05.777948 26396 net.cpp:139] Memory required for data: 1878800
I0428 19:48:05.777952 26396 layer_factory.hpp:77] Creating layer ip3
I0428 19:48:05.777958 26396 net.cpp:86] Creating Layer ip3
I0428 19:48:05.777961 26396 net.cpp:408] ip3 <- ip2
I0428 19:48:05.777967 26396 net.cpp:382] ip3 -> ip3
I0428 19:48:05.778110 26396 net.cpp:124] Setting up ip3
I0428 19:48:05.778117 26396 net.cpp:131] Top shape: 100 10 (1000)
I0428 19:48:05.778120 26396 net.cpp:139] Memory required for data: 1882800
I0428 19:48:05.778129 26396 layer_factory.hpp:77] Creating layer relu3
I0428 19:48:05.778136 26396 net.cpp:86] Creating Layer relu3
I0428 19:48:05.778138 26396 net.cpp:408] relu3 <- ip3
I0428 19:48:05.778141 26396 net.cpp:369] relu3 -> ip3 (in-place)
I0428 19:48:05.778931 26396 net.cpp:124] Setting up relu3
I0428 19:48:05.778944 26396 net.cpp:131] Top shape: 100 10 (1000)
I0428 19:48:05.778964 26396 net.cpp:139] Memory required for data: 1886800
I0428 19:48:05.778967 26396 layer_factory.hpp:77] Creating layer ip3_relu3_0_split
I0428 19:48:05.778973 26396 net.cpp:86] Creating Layer ip3_relu3_0_split
I0428 19:48:05.778976 26396 net.cpp:408] ip3_relu3_0_split <- ip3
I0428 19:48:05.778981 26396 net.cpp:382] ip3_relu3_0_split -> ip3_relu3_0_split_0
I0428 19:48:05.778988 26396 net.cpp:382] ip3_relu3_0_split -> ip3_relu3_0_split_1
I0428 19:48:05.779037 26396 net.cpp:124] Setting up ip3_relu3_0_split
I0428 19:48:05.779042 26396 net.cpp:131] Top shape: 100 10 (1000)
I0428 19:48:05.779047 26396 net.cpp:131] Top shape: 100 10 (1000)
I0428 19:48:05.779050 26396 net.cpp:139] Memory required for data: 1894800
I0428 19:48:05.779053 26396 layer_factory.hpp:77] Creating layer accuracy
I0428 19:48:05.779059 26396 net.cpp:86] Creating Layer accuracy
I0428 19:48:05.779062 26396 net.cpp:408] accuracy <- ip3_relu3_0_split_0
I0428 19:48:05.779067 26396 net.cpp:408] accuracy <- label_mnist_1_split_0
I0428 19:48:05.779072 26396 net.cpp:382] accuracy -> accuracy
…
