…
I0428 19:43:15.030247 25299 net.cpp:296] The NetState phase (0) differed from the phase (1) specified by a rule in layer mnist
I0428 19:43:15.030267 25299 net.cpp:296] The NetState phase (0) differed from the phase (1) specified by a rule in layer accuracy
I0428 19:43:15.030372 25299 net.cpp:53] Initializing net from parameters: 
name: "LeNet"
state {
  phase: TRAIN
  level: 0
  stage: ""
}
layer {
  name: "mnist"
  type: "Data"
  top: "data"
  top: "label"
  include {
    phase: TRAIN
  }
  transform_param {
    scale: 0.00390625
  }
  data_param {
    source: "examples/mnist/mnist_train_lmdb"
    batch_size: 64
    backend: LMDB
  }
}
layer {
  name: "conv0"
  type: "Convolution"
  bottom: "data"
  top: "conv0"
  param {
    lr_mult: 1
  }
  param {
    lr_mult: 2
  }
  convolution_param {
    num_output: 2
    kernel_size: 5
    stride: 1
    weight_filler {
      type: "xavier"
    }
    bias_filler {
      type: "constant"
    }
  }
}
layer {
  name: "pool0"
  type: "Pooling"
  bottom: "conv0"
  top: "pool0"
  pooling_param {
    pool: MAX
    kernel_size: 2
    stride: 2
  }
}
layer {
  name: "conv1"
  type: "Convolution"
  bottom: "pool0"
  top: "conv1"
  param {
    lr_mult: 1
  }
  param {
    lr_mult: 2
  }
  convolution_param {
    num_output: 25
    kernel_size: 5
    stride: 1
    weight_filler {
      type: "xavier"
    }
    bias_filler {
      type: "constant"
    }
  }
}
layer {
  name: "pool1"
  type: "Pooling"
  bottom: "conv1"
  top: "pool1"
  pooling_param {
    pool: MAX
    kernel_size: 2
    stride: 2
  }
}
layer {
  name: "ip1"
  type: "InnerProduct"
  bottom: "pool1"
  top: "ip1"
  param {
    lr_mult: 1
  }
  param {
    lr_mult: 2
  }
  inner_product_param {
    num_output: 25
    weight_filler {
      type: "xavier"
    }
    bias_filler {
      type: "constant"
    }
  }
}
layer {
  name: "relu1"
  type: "ReLU"
  bottom: "ip1"
  top: "ip1"
}
layer {
  name: "ip2"
  type: "InnerProduct"
  bottom: "ip1"
  top: "ip2"
  param {
    lr_mult: 1
  }
  param {
    lr_mult: 2
  }
  inner_product_param {
    num_output: 25
    weight_filler {
      type: "xavier"
    }
    bias_filler {
      type: "constant"
    }
  }
}
layer {
  name: "relu2"
  type: "ReLU"
  bottom: "ip2"
  top: "ip2"
}
layer {
  name: "ip3"
  type: "InnerProduct"
  bottom: "ip2"
  top: "ip3"
  param {
    lr_mult: 1
  }
  param {
    lr_mult: 2
  }
  inner_product_param {
    num_output: 10
    weight_filler {
      type: "xavier"
    }
    bias_filler {
      type: "constant"
    }
  }
}
layer {
  name: "relu3"
  type: "ReLU"
  bottom: "ip3"
  top: "ip3"
}
layer {
  name: "loss"
  type: "SoftmaxWithLoss"
  bottom: "ip3"
  bottom: "label"
  top: "loss"
}
I0428 19:43:15.030453 25299 layer_factory.hpp:77] Creating layer mnist
I0428 19:43:15.030551 25299 db_lmdb.cpp:35] Opened lmdb examples/mnist/mnist_train_lmdb
I0428 19:43:15.030575 25299 net.cpp:86] Creating Layer mnist
I0428 19:43:15.030585 25299 net.cpp:382] mnist -> data
I0428 19:43:15.030607 25299 net.cpp:382] mnist -> label
I0428 19:43:15.031703 25299 data_layer.cpp:45] output data size: 64,1,28,28
I0428 19:43:15.034373 25299 net.cpp:124] Setting up mnist
I0428 19:43:15.034392 25299 net.cpp:131] Top shape: 64 1 28 28 (50176)
I0428 19:43:15.034399 25299 net.cpp:131] Top shape: 64 (64)
I0428 19:43:15.034401 25299 net.cpp:139] Memory required for data: 200960
I0428 19:43:15.034409 25299 layer_factory.hpp:77] Creating layer conv0
I0428 19:43:15.034440 25299 net.cpp:86] Creating Layer conv0
I0428 19:43:15.034461 25299 net.cpp:408] conv0 <- data
I0428 19:43:15.034477 25299 net.cpp:382] conv0 -> conv0
I0428 19:43:15.324698 25299 net.cpp:124] Setting up conv0
I0428 19:43:15.324730 25299 net.cpp:131] Top shape: 64 2 24 24 (73728)
I0428 19:43:15.324735 25299 net.cpp:139] Memory required for data: 495872
I0428 19:43:15.324753 25299 layer_factory.hpp:77] Creating layer pool0
I0428 19:43:15.324769 25299 net.cpp:86] Creating Layer pool0
I0428 19:43:15.324774 25299 net.cpp:408] pool0 <- conv0
I0428 19:43:15.324780 25299 net.cpp:382] pool0 -> pool0
I0428 19:43:15.324844 25299 net.cpp:124] Setting up pool0
I0428 19:43:15.324854 25299 net.cpp:131] Top shape: 64 2 12 12 (18432)
I0428 19:43:15.324858 25299 net.cpp:139] Memory required for data: 569600
I0428 19:43:15.324862 25299 layer_factory.hpp:77] Creating layer conv1
I0428 19:43:15.324874 25299 net.cpp:86] Creating Layer conv1
I0428 19:43:15.324880 25299 net.cpp:408] conv1 <- pool0
I0428 19:43:15.324887 25299 net.cpp:382] conv1 -> conv1
I0428 19:43:15.327980 25299 net.cpp:124] Setting up conv1
I0428 19:43:15.327996 25299 net.cpp:131] Top shape: 64 25 8 8 (102400)
I0428 19:43:15.328001 25299 net.cpp:139] Memory required for data: 979200
I0428 19:43:15.328012 25299 layer_factory.hpp:77] Creating layer pool1
I0428 19:43:15.328022 25299 net.cpp:86] Creating Layer pool1
I0428 19:43:15.328025 25299 net.cpp:408] pool1 <- conv1
I0428 19:43:15.328032 25299 net.cpp:382] pool1 -> pool1
I0428 19:43:15.328078 25299 net.cpp:124] Setting up pool1
I0428 19:43:15.328084 25299 net.cpp:131] Top shape: 64 25 4 4 (25600)
I0428 19:43:15.328088 25299 net.cpp:139] Memory required for data: 1081600
I0428 19:43:15.328091 25299 layer_factory.hpp:77] Creating layer ip1
I0428 19:43:15.328099 25299 net.cpp:86] Creating Layer ip1
I0428 19:43:15.328104 25299 net.cpp:408] ip1 <- pool1
I0428 19:43:15.328109 25299 net.cpp:382] ip1 -> ip1
I0428 19:43:15.329274 25299 net.cpp:124] Setting up ip1
I0428 19:43:15.329289 25299 net.cpp:131] Top shape: 64 25 (1600)
I0428 19:43:15.329293 25299 net.cpp:139] Memory required for data: 1088000
I0428 19:43:15.329303 25299 layer_factory.hpp:77] Creating layer relu1
I0428 19:43:15.329311 25299 net.cpp:86] Creating Layer relu1
I0428 19:43:15.329315 25299 net.cpp:408] relu1 <- ip1
I0428 19:43:15.329322 25299 net.cpp:369] relu1 -> ip1 (in-place)
I0428 19:43:15.329540 25299 net.cpp:124] Setting up relu1
I0428 19:43:15.329551 25299 net.cpp:131] Top shape: 64 25 (1600)
I0428 19:43:15.329555 25299 net.cpp:139] Memory required for data: 1094400
I0428 19:43:15.329558 25299 layer_factory.hpp:77] Creating layer ip2
I0428 19:43:15.329566 25299 net.cpp:86] Creating Layer ip2
I0428 19:43:15.329571 25299 net.cpp:408] ip2 <- ip1
I0428 19:43:15.329577 25299 net.cpp:382] ip2 -> ip2
I0428 19:43:15.329700 25299 net.cpp:124] Setting up ip2
I0428 19:43:15.329710 25299 net.cpp:131] Top shape: 64 25 (1600)
I0428 19:43:15.329712 25299 net.cpp:139] Memory required for data: 1100800
I0428 19:43:15.329720 25299 layer_factory.hpp:77] Creating layer relu2
I0428 19:43:15.329726 25299 net.cpp:86] Creating Layer relu2
I0428 19:43:15.329730 25299 net.cpp:408] relu2 <- ip2
I0428 19:43:15.329736 25299 net.cpp:369] relu2 -> ip2 (in-place)
I0428 19:43:15.330597 25299 net.cpp:124] Setting up relu2
I0428 19:43:15.330612 25299 net.cpp:131] Top shape: 64 25 (1600)
I0428 19:43:15.330616 25299 net.cpp:139] Memory required for data: 1107200
I0428 19:43:15.330621 25299 layer_factory.hpp:77] Creating layer ip3
I0428 19:43:15.330628 25299 net.cpp:86] Creating Layer ip3
I0428 19:43:15.330632 25299 net.cpp:408] ip3 <- ip2
I0428 19:43:15.330641 25299 net.cpp:382] ip3 -> ip3
I0428 19:43:15.330763 25299 net.cpp:124] Setting up ip3
I0428 19:43:15.330772 25299 net.cpp:131] Top shape: 64 10 (640)
I0428 19:43:15.330776 25299 net.cpp:139] Memory required for data: 1109760
I0428 19:43:15.330786 25299 layer_factory.hpp:77] Creating layer relu3
I0428 19:43:15.330793 25299 net.cpp:86] Creating Layer relu3
I0428 19:43:15.330796 25299 net.cpp:408] relu3 <- ip3
I0428 19:43:15.330801 25299 net.cpp:369] relu3 -> ip3 (in-place)
I0428 19:43:15.331007 25299 net.cpp:124] Setting up relu3
I0428 19:43:15.331019 25299 net.cpp:131] Top shape: 64 10 (640)
I0428 19:43:15.331022 25299 net.cpp:139] Memory required for data: 1112320
I0428 19:43:15.331027 25299 layer_factory.hpp:77] Creating layer loss
I0428 19:43:15.331034 25299 net.cpp:86] Creating Layer loss
I0428 19:43:15.331037 25299 net.cpp:408] loss <- ip3
I0428 19:43:15.331043 25299 net.cpp:408] loss <- label
I0428 19:43:15.331048 25299 net.cpp:382] loss -> loss
I0428 19:43:15.331069 25299 layer_factory.hpp:77] Creating layer loss
…
I0428 19:43:15.331832 25299 solver.cpp:173] Creating test net (#0) specified by net file: ECE595/mnist/train_test/var_everything2/lenet_train_test416.prototxt
I0428 19:43:15.331864 25299 net.cpp:296] The NetState phase (1) differed from the phase (0) specified by a rule in layer mnist
I0428 19:43:15.331975 25299 net.cpp:53] Initializing net from parameters: 
name: "LeNet"
state {
  phase: TEST
}
layer {
  name: "mnist"
  type: "Data"
  top: "data"
  top: "label"
  include {
    phase: TEST
  }
  transform_param {
    scale: 0.00390625
  }
  data_param {
    source: "examples/mnist/mnist_test_lmdb"
    batch_size: 100
    backend: LMDB
  }
}
layer {
  name: "conv0"
  type: "Convolution"
  bottom: "data"
  top: "conv0"
  param {
    lr_mult: 1
  }
  param {
    lr_mult: 2
  }
  convolution_param {
    num_output: 2
    kernel_size: 5
    stride: 1
    weight_filler {
      type: "xavier"
    }
    bias_filler {
      type: "constant"
    }
  }
}
layer {
  name: "pool0"
  type: "Pooling"
  bottom: "conv0"
  top: "pool0"
  pooling_param {
    pool: MAX
    kernel_size: 2
    stride: 2
  }
}
layer {
  name: "conv1"
  type: "Convolution"
  bottom: "pool0"
  top: "conv1"
  param {
    lr_mult: 1
  }
  param {
    lr_mult: 2
  }
  convolution_param {
    num_output: 25
    kernel_size: 5
    stride: 1
    weight_filler {
      type: "xavier"
    }
    bias_filler {
      type: "constant"
    }
  }
}
layer {
  name: "pool1"
  type: "Pooling"
  bottom: "conv1"
  top: "pool1"
  pooling_param {
    pool: MAX
    kernel_size: 2
    stride: 2
  }
}
layer {
  name: "ip1"
  type: "InnerProduct"
  bottom: "pool1"
  top: "ip1"
  param {
    lr_mult: 1
  }
  param {
    lr_mult: 2
  }
  inner_product_param {
    num_output: 25
    weight_filler {
      type: "xavier"
    }
    bias_filler {
      type: "constant"
    }
  }
}
layer {
  name: "relu1"
  type: "ReLU"
  bottom: "ip1"
  top: "ip1"
}
layer {
  name: "ip2"
  type: "InnerProduct"
  bottom: "ip1"
  top: "ip2"
  param {
    lr_mult: 1
  }
  param {
    lr_mult: 2
  }
  inner_product_param {
    num_output: 25
    weight_filler {
      type: "xavier"
    }
    bias_filler {
      type: "constant"
    }
  }
}
layer {
  name: "relu2"
  type: "ReLU"
  bottom: "ip2"
  top: "ip2"
}
layer {
  name: "ip3"
  type: "InnerProduct"
  bottom: "ip2"
  top: "ip3"
  param {
    lr_mult: 1
  }
  param {
    lr_mult: 2
  }
  inner_product_param {
    num_output: 10
    weight_filler {
      type: "xavier"
    }
    bias_filler {
      type: "constant"
    }
  }
}
layer {
  name: "relu3"
  type: "ReLU"
  bottom: "ip3"
  top: "ip3"
}
layer {
  name: "accuracy"
  type: "Accuracy"
  bottom: "ip3"
  bottom: "label"
  top: "accuracy"
  include {
    phase: TEST
  }
}
layer {
  name: "loss"
  type: "SoftmaxWithLoss"
  bottom: "ip3"
  bottom: "label"
  top: "loss"
}
I0428 19:43:15.332075 25299 layer_factory.hpp:77] Creating layer mnist
I0428 19:43:15.332132 25299 db_lmdb.cpp:35] Opened lmdb examples/mnist/mnist_test_lmdb
I0428 19:43:15.332146 25299 net.cpp:86] Creating Layer mnist
I0428 19:43:15.332154 25299 net.cpp:382] mnist -> data
I0428 19:43:15.332162 25299 net.cpp:382] mnist -> label
I0428 19:43:15.332268 25299 data_layer.cpp:45] output data size: 100,1,28,28
I0428 19:43:15.334463 25299 net.cpp:124] Setting up mnist
I0428 19:43:15.334481 25299 net.cpp:131] Top shape: 100 1 28 28 (78400)
I0428 19:43:15.334486 25299 net.cpp:131] Top shape: 100 (100)
I0428 19:43:15.334489 25299 net.cpp:139] Memory required for data: 314000
I0428 19:43:15.334493 25299 layer_factory.hpp:77] Creating layer label_mnist_1_split
I0428 19:43:15.334501 25299 net.cpp:86] Creating Layer label_mnist_1_split
I0428 19:43:15.334506 25299 net.cpp:408] label_mnist_1_split <- label
I0428 19:43:15.334513 25299 net.cpp:382] label_mnist_1_split -> label_mnist_1_split_0
I0428 19:43:15.334522 25299 net.cpp:382] label_mnist_1_split -> label_mnist_1_split_1
I0428 19:43:15.334575 25299 net.cpp:124] Setting up label_mnist_1_split
I0428 19:43:15.334583 25299 net.cpp:131] Top shape: 100 (100)
I0428 19:43:15.334589 25299 net.cpp:131] Top shape: 100 (100)
I0428 19:43:15.334591 25299 net.cpp:139] Memory required for data: 314800
I0428 19:43:15.334594 25299 layer_factory.hpp:77] Creating layer conv0
I0428 19:43:15.334605 25299 net.cpp:86] Creating Layer conv0
I0428 19:43:15.334609 25299 net.cpp:408] conv0 <- data
I0428 19:43:15.334615 25299 net.cpp:382] conv0 -> conv0
I0428 19:43:15.336424 25299 net.cpp:124] Setting up conv0
I0428 19:43:15.336442 25299 net.cpp:131] Top shape: 100 2 24 24 (115200)
I0428 19:43:15.336448 25299 net.cpp:139] Memory required for data: 775600
I0428 19:43:15.336459 25299 layer_factory.hpp:77] Creating layer pool0
I0428 19:43:15.336467 25299 net.cpp:86] Creating Layer pool0
I0428 19:43:15.336472 25299 net.cpp:408] pool0 <- conv0
I0428 19:43:15.336479 25299 net.cpp:382] pool0 -> pool0
I0428 19:43:15.336525 25299 net.cpp:124] Setting up pool0
I0428 19:43:15.336534 25299 net.cpp:131] Top shape: 100 2 12 12 (28800)
I0428 19:43:15.336537 25299 net.cpp:139] Memory required for data: 890800
I0428 19:43:15.336541 25299 layer_factory.hpp:77] Creating layer conv1
I0428 19:43:15.336554 25299 net.cpp:86] Creating Layer conv1
I0428 19:43:15.336557 25299 net.cpp:408] conv1 <- pool0
I0428 19:43:15.336563 25299 net.cpp:382] conv1 -> conv1
I0428 19:43:15.338275 25299 net.cpp:124] Setting up conv1
I0428 19:43:15.338294 25299 net.cpp:131] Top shape: 100 25 8 8 (160000)
I0428 19:43:15.338299 25299 net.cpp:139] Memory required for data: 1530800
I0428 19:43:15.338309 25299 layer_factory.hpp:77] Creating layer pool1
I0428 19:43:15.338317 25299 net.cpp:86] Creating Layer pool1
I0428 19:43:15.338323 25299 net.cpp:408] pool1 <- conv1
I0428 19:43:15.338330 25299 net.cpp:382] pool1 -> pool1
I0428 19:43:15.338376 25299 net.cpp:124] Setting up pool1
I0428 19:43:15.338382 25299 net.cpp:131] Top shape: 100 25 4 4 (40000)
I0428 19:43:15.338387 25299 net.cpp:139] Memory required for data: 1690800
I0428 19:43:15.338389 25299 layer_factory.hpp:77] Creating layer ip1
I0428 19:43:15.338397 25299 net.cpp:86] Creating Layer ip1
I0428 19:43:15.338400 25299 net.cpp:408] ip1 <- pool1
I0428 19:43:15.338407 25299 net.cpp:382] ip1 -> ip1
I0428 19:43:15.338603 25299 net.cpp:124] Setting up ip1
I0428 19:43:15.338613 25299 net.cpp:131] Top shape: 100 25 (2500)
I0428 19:43:15.338629 25299 net.cpp:139] Memory required for data: 1700800
I0428 19:43:15.338640 25299 layer_factory.hpp:77] Creating layer relu1
I0428 19:43:15.338646 25299 net.cpp:86] Creating Layer relu1
I0428 19:43:15.338651 25299 net.cpp:408] relu1 <- ip1
I0428 19:43:15.338656 25299 net.cpp:369] relu1 -> ip1 (in-place)
I0428 19:43:15.338856 25299 net.cpp:124] Setting up relu1
I0428 19:43:15.338868 25299 net.cpp:131] Top shape: 100 25 (2500)
I0428 19:43:15.338872 25299 net.cpp:139] Memory required for data: 1710800
I0428 19:43:15.338876 25299 layer_factory.hpp:77] Creating layer ip2
I0428 19:43:15.338884 25299 net.cpp:86] Creating Layer ip2
I0428 19:43:15.338887 25299 net.cpp:408] ip2 <- ip1
I0428 19:43:15.338894 25299 net.cpp:382] ip2 -> ip2
I0428 19:43:15.339047 25299 net.cpp:124] Setting up ip2
I0428 19:43:15.339061 25299 net.cpp:131] Top shape: 100 25 (2500)
I0428 19:43:15.339066 25299 net.cpp:139] Memory required for data: 1720800
I0428 19:43:15.339072 25299 layer_factory.hpp:77] Creating layer relu2
I0428 19:43:15.339079 25299 net.cpp:86] Creating Layer relu2
I0428 19:43:15.339083 25299 net.cpp:408] relu2 <- ip2
I0428 19:43:15.339087 25299 net.cpp:369] relu2 -> ip2 (in-place)
I0428 19:43:15.339287 25299 net.cpp:124] Setting up relu2
I0428 19:43:15.339296 25299 net.cpp:131] Top shape: 100 25 (2500)
I0428 19:43:15.339301 25299 net.cpp:139] Memory required for data: 1730800
I0428 19:43:15.339304 25299 layer_factory.hpp:77] Creating layer ip3
I0428 19:43:15.339313 25299 net.cpp:86] Creating Layer ip3
I0428 19:43:15.339316 25299 net.cpp:408] ip3 <- ip2
I0428 19:43:15.339323 25299 net.cpp:382] ip3 -> ip3
I0428 19:43:15.339445 25299 net.cpp:124] Setting up ip3
I0428 19:43:15.339454 25299 net.cpp:131] Top shape: 100 10 (1000)
I0428 19:43:15.339457 25299 net.cpp:139] Memory required for data: 1734800
I0428 19:43:15.339468 25299 layer_factory.hpp:77] Creating layer relu3
I0428 19:43:15.339473 25299 net.cpp:86] Creating Layer relu3
I0428 19:43:15.339476 25299 net.cpp:408] relu3 <- ip3
I0428 19:43:15.339483 25299 net.cpp:369] relu3 -> ip3 (in-place)
I0428 19:43:15.340389 25299 net.cpp:124] Setting up relu3
I0428 19:43:15.340402 25299 net.cpp:131] Top shape: 100 10 (1000)
I0428 19:43:15.340406 25299 net.cpp:139] Memory required for data: 1738800
I0428 19:43:15.340410 25299 layer_factory.hpp:77] Creating layer ip3_relu3_0_split
I0428 19:43:15.340417 25299 net.cpp:86] Creating Layer ip3_relu3_0_split
I0428 19:43:15.340421 25299 net.cpp:408] ip3_relu3_0_split <- ip3
I0428 19:43:15.340428 25299 net.cpp:382] ip3_relu3_0_split -> ip3_relu3_0_split_0
I0428 19:43:15.340436 25299 net.cpp:382] ip3_relu3_0_split -> ip3_relu3_0_split_1
I0428 19:43:15.340481 25299 net.cpp:124] Setting up ip3_relu3_0_split
I0428 19:43:15.340488 25299 net.cpp:131] Top shape: 100 10 (1000)
I0428 19:43:15.340492 25299 net.cpp:131] Top shape: 100 10 (1000)
I0428 19:43:15.340497 25299 net.cpp:139] Memory required for data: 1746800
I0428 19:43:15.340500 25299 layer_factory.hpp:77] Creating layer accuracy
I0428 19:43:15.340510 25299 net.cpp:86] Creating Layer accuracy
I0428 19:43:15.340514 25299 net.cpp:408] accuracy <- ip3_relu3_0_split_0
I0428 19:43:15.340520 25299 net.cpp:408] accuracy <- label_mnist_1_split_0
I0428 19:43:15.340525 25299 net.cpp:382] accuracy -> accuracy
…
