…
I0428 19:34:11.124800 23283 net.cpp:296] The NetState phase (0) differed from the phase (1) specified by a rule in layer mnist
I0428 19:34:11.124850 23283 net.cpp:296] The NetState phase (0) differed from the phase (1) specified by a rule in layer accuracy
I0428 19:34:11.124948 23283 net.cpp:53] Initializing net from parameters: 
name: "LeNet"
state {
  phase: TRAIN
  level: 0
  stage: ""
}
layer {
  name: "mnist"
  type: "Data"
  top: "data"
  top: "label"
  include {
    phase: TRAIN
  }
  transform_param {
    scale: 0.00390625
  }
  data_param {
    source: "examples/mnist/mnist_train_lmdb"
    batch_size: 64
    backend: LMDB
  }
}
layer {
  name: "conv0"
  type: "Convolution"
  bottom: "data"
  top: "conv0"
  param {
    lr_mult: 1
  }
  param {
    lr_mult: 2
  }
  convolution_param {
    num_output: 50
    kernel_size: 5
    stride: 1
    weight_filler {
      type: "xavier"
    }
    bias_filler {
      type: "constant"
    }
  }
}
layer {
  name: "pool0"
  type: "Pooling"
  bottom: "conv0"
  top: "pool0"
  pooling_param {
    pool: MAX
    kernel_size: 2
    stride: 2
  }
}
layer {
  name: "ip1"
  type: "InnerProduct"
  bottom: "pool0"
  top: "ip1"
  param {
    lr_mult: 1
  }
  param {
    lr_mult: 2
  }
  inner_product_param {
    num_output: 10
    weight_filler {
      type: "xavier"
    }
    bias_filler {
      type: "constant"
    }
  }
}
layer {
  name: "relu1"
  type: "ReLU"
  bottom: "ip1"
  top: "ip1"
}
layer {
  name: "ip2"
  type: "InnerProduct"
  bottom: "ip1"
  top: "ip2"
  param {
    lr_mult: 1
  }
  param {
    lr_mult: 2
  }
  inner_product_param {
    num_output: 10
    weight_filler {
      type: "xavier"
    }
    bias_filler {
      type: "constant"
    }
  }
}
layer {
  name: "relu2"
  type: "ReLU"
  bottom: "ip2"
  top: "ip2"
}
layer {
  name: "loss"
  type: "SoftmaxWithLoss"
  bottom: "ip2"
  bottom: "label"
  top: "loss"
}
I0428 19:34:11.125011 23283 layer_factory.hpp:77] Creating layer mnist
I0428 19:34:11.125108 23283 db_lmdb.cpp:35] Opened lmdb examples/mnist/mnist_train_lmdb
I0428 19:34:11.125128 23283 net.cpp:86] Creating Layer mnist
I0428 19:34:11.125138 23283 net.cpp:382] mnist -> data
I0428 19:34:11.125156 23283 net.cpp:382] mnist -> label
I0428 19:34:11.126085 23283 data_layer.cpp:45] output data size: 64,1,28,28
I0428 19:34:11.128532 23283 net.cpp:124] Setting up mnist
I0428 19:34:11.128562 23283 net.cpp:131] Top shape: 64 1 28 28 (50176)
I0428 19:34:11.128566 23283 net.cpp:131] Top shape: 64 (64)
I0428 19:34:11.128569 23283 net.cpp:139] Memory required for data: 200960
I0428 19:34:11.128574 23283 layer_factory.hpp:77] Creating layer conv0
I0428 19:34:11.128588 23283 net.cpp:86] Creating Layer conv0
I0428 19:34:11.128594 23283 net.cpp:408] conv0 <- data
I0428 19:34:11.128633 23283 net.cpp:382] conv0 -> conv0
I0428 19:34:11.359400 23283 net.cpp:124] Setting up conv0
I0428 19:34:11.359426 23283 net.cpp:131] Top shape: 64 50 24 24 (1843200)
I0428 19:34:11.359428 23283 net.cpp:139] Memory required for data: 7573760
I0428 19:34:11.359442 23283 layer_factory.hpp:77] Creating layer pool0
I0428 19:34:11.359454 23283 net.cpp:86] Creating Layer pool0
I0428 19:34:11.359458 23283 net.cpp:408] pool0 <- conv0
I0428 19:34:11.359463 23283 net.cpp:382] pool0 -> pool0
I0428 19:34:11.359524 23283 net.cpp:124] Setting up pool0
I0428 19:34:11.359529 23283 net.cpp:131] Top shape: 64 50 12 12 (460800)
I0428 19:34:11.359531 23283 net.cpp:139] Memory required for data: 9416960
I0428 19:34:11.359550 23283 layer_factory.hpp:77] Creating layer ip1
I0428 19:34:11.359558 23283 net.cpp:86] Creating Layer ip1
I0428 19:34:11.359561 23283 net.cpp:408] ip1 <- pool0
I0428 19:34:11.359565 23283 net.cpp:382] ip1 -> ip1
I0428 19:34:11.360985 23283 net.cpp:124] Setting up ip1
I0428 19:34:11.361014 23283 net.cpp:131] Top shape: 64 10 (640)
I0428 19:34:11.361018 23283 net.cpp:139] Memory required for data: 9419520
I0428 19:34:11.361027 23283 layer_factory.hpp:77] Creating layer relu1
I0428 19:34:11.361035 23283 net.cpp:86] Creating Layer relu1
I0428 19:34:11.361039 23283 net.cpp:408] relu1 <- ip1
I0428 19:34:11.361044 23283 net.cpp:369] relu1 -> ip1 (in-place)
I0428 19:34:11.361279 23283 net.cpp:124] Setting up relu1
I0428 19:34:11.361287 23283 net.cpp:131] Top shape: 64 10 (640)
I0428 19:34:11.361290 23283 net.cpp:139] Memory required for data: 9422080
I0428 19:34:11.361294 23283 layer_factory.hpp:77] Creating layer ip2
I0428 19:34:11.361299 23283 net.cpp:86] Creating Layer ip2
I0428 19:34:11.361302 23283 net.cpp:408] ip2 <- ip1
I0428 19:34:11.361306 23283 net.cpp:382] ip2 -> ip2
I0428 19:34:11.361420 23283 net.cpp:124] Setting up ip2
I0428 19:34:11.361443 23283 net.cpp:131] Top shape: 64 10 (640)
I0428 19:34:11.361445 23283 net.cpp:139] Memory required for data: 9424640
I0428 19:34:11.361459 23283 layer_factory.hpp:77] Creating layer relu2
I0428 19:34:11.361464 23283 net.cpp:86] Creating Layer relu2
I0428 19:34:11.361466 23283 net.cpp:408] relu2 <- ip2
I0428 19:34:11.361470 23283 net.cpp:369] relu2 -> ip2 (in-place)
I0428 19:34:11.362246 23283 net.cpp:124] Setting up relu2
I0428 19:34:11.362257 23283 net.cpp:131] Top shape: 64 10 (640)
I0428 19:34:11.362277 23283 net.cpp:139] Memory required for data: 9427200
I0428 19:34:11.362280 23283 layer_factory.hpp:77] Creating layer loss
I0428 19:34:11.362287 23283 net.cpp:86] Creating Layer loss
I0428 19:34:11.362289 23283 net.cpp:408] loss <- ip2
I0428 19:34:11.362308 23283 net.cpp:408] loss <- label
I0428 19:34:11.362313 23283 net.cpp:382] loss -> loss
I0428 19:34:11.362327 23283 layer_factory.hpp:77] Creating layer loss
…
I0428 19:34:11.362985 23283 solver.cpp:173] Creating test net (#0) specified by net file: ECE595/mnist/train_test/var_everything2/lenet_train_test198.prototxt
I0428 19:34:11.363008 23283 net.cpp:296] The NetState phase (1) differed from the phase (0) specified by a rule in layer mnist
I0428 19:34:11.363077 23283 net.cpp:53] Initializing net from parameters: 
name: "LeNet"
state {
  phase: TEST
}
layer {
  name: "mnist"
  type: "Data"
  top: "data"
  top: "label"
  include {
    phase: TEST
  }
  transform_param {
    scale: 0.00390625
  }
  data_param {
    source: "examples/mnist/mnist_test_lmdb"
    batch_size: 100
    backend: LMDB
  }
}
layer {
  name: "conv0"
  type: "Convolution"
  bottom: "data"
  top: "conv0"
  param {
    lr_mult: 1
  }
  param {
    lr_mult: 2
  }
  convolution_param {
    num_output: 50
    kernel_size: 5
    stride: 1
    weight_filler {
      type: "xavier"
    }
    bias_filler {
      type: "constant"
    }
  }
}
layer {
  name: "pool0"
  type: "Pooling"
  bottom: "conv0"
  top: "pool0"
  pooling_param {
    pool: MAX
    kernel_size: 2
    stride: 2
  }
}
layer {
  name: "ip1"
  type: "InnerProduct"
  bottom: "pool0"
  top: "ip1"
  param {
    lr_mult: 1
  }
  param {
    lr_mult: 2
  }
  inner_product_param {
    num_output: 10
    weight_filler {
      type: "xavier"
    }
    bias_filler {
      type: "constant"
    }
  }
}
layer {
  name: "relu1"
  type: "ReLU"
  bottom: "ip1"
  top: "ip1"
}
layer {
  name: "ip2"
  type: "InnerProduct"
  bottom: "ip1"
  top: "ip2"
  param {
    lr_mult: 1
  }
  param {
    lr_mult: 2
  }
  inner_product_param {
    num_output: 10
    weight_filler {
      type: "xavier"
    }
    bias_filler {
      type: "constant"
    }
  }
}
layer {
  name: "relu2"
  type: "ReLU"
  bottom: "ip2"
  top: "ip2"
}
layer {
  name: "accuracy"
  type: "Accuracy"
  bottom: "ip2"
  bottom: "label"
  top: "accuracy"
  include {
    phase: TEST
  }
}
layer {
  name: "loss"
  type: "SoftmaxWithLoss"
  bottom: "ip2"
  bottom: "label"
  top: "loss"
}
I0428 19:34:11.363160 23283 layer_factory.hpp:77] Creating layer mnist
I0428 19:34:11.363204 23283 db_lmdb.cpp:35] Opened lmdb examples/mnist/mnist_test_lmdb
I0428 19:34:11.363215 23283 net.cpp:86] Creating Layer mnist
I0428 19:34:11.363219 23283 net.cpp:382] mnist -> data
I0428 19:34:11.363226 23283 net.cpp:382] mnist -> label
I0428 19:34:11.363306 23283 data_layer.cpp:45] output data size: 100,1,28,28
I0428 19:34:11.364665 23283 net.cpp:124] Setting up mnist
I0428 19:34:11.364707 23283 net.cpp:131] Top shape: 100 1 28 28 (78400)
I0428 19:34:11.364712 23283 net.cpp:131] Top shape: 100 (100)
I0428 19:34:11.364715 23283 net.cpp:139] Memory required for data: 314000
I0428 19:34:11.364719 23283 layer_factory.hpp:77] Creating layer label_mnist_1_split
I0428 19:34:11.364725 23283 net.cpp:86] Creating Layer label_mnist_1_split
I0428 19:34:11.364729 23283 net.cpp:408] label_mnist_1_split <- label
I0428 19:34:11.364733 23283 net.cpp:382] label_mnist_1_split -> label_mnist_1_split_0
I0428 19:34:11.364739 23283 net.cpp:382] label_mnist_1_split -> label_mnist_1_split_1
I0428 19:34:11.364794 23283 net.cpp:124] Setting up label_mnist_1_split
I0428 19:34:11.364809 23283 net.cpp:131] Top shape: 100 (100)
I0428 19:34:11.364832 23283 net.cpp:131] Top shape: 100 (100)
I0428 19:34:11.364835 23283 net.cpp:139] Memory required for data: 314800
I0428 19:34:11.364838 23283 layer_factory.hpp:77] Creating layer conv0
I0428 19:34:11.364846 23283 net.cpp:86] Creating Layer conv0
I0428 19:34:11.364850 23283 net.cpp:408] conv0 <- data
I0428 19:34:11.364855 23283 net.cpp:382] conv0 -> conv0
I0428 19:34:11.366643 23283 net.cpp:124] Setting up conv0
I0428 19:34:11.366657 23283 net.cpp:131] Top shape: 100 50 24 24 (2880000)
I0428 19:34:11.366677 23283 net.cpp:139] Memory required for data: 11834800
I0428 19:34:11.366685 23283 layer_factory.hpp:77] Creating layer pool0
I0428 19:34:11.366691 23283 net.cpp:86] Creating Layer pool0
I0428 19:34:11.366695 23283 net.cpp:408] pool0 <- conv0
I0428 19:34:11.366714 23283 net.cpp:382] pool0 -> pool0
I0428 19:34:11.366749 23283 net.cpp:124] Setting up pool0
I0428 19:34:11.366753 23283 net.cpp:131] Top shape: 100 50 12 12 (720000)
I0428 19:34:11.366757 23283 net.cpp:139] Memory required for data: 14714800
I0428 19:34:11.366760 23283 layer_factory.hpp:77] Creating layer ip1
I0428 19:34:11.366766 23283 net.cpp:86] Creating Layer ip1
I0428 19:34:11.366768 23283 net.cpp:408] ip1 <- pool0
I0428 19:34:11.366773 23283 net.cpp:382] ip1 -> ip1
I0428 19:34:11.367280 23283 net.cpp:124] Setting up ip1
I0428 19:34:11.367288 23283 net.cpp:131] Top shape: 100 10 (1000)
I0428 19:34:11.367307 23283 net.cpp:139] Memory required for data: 14718800
I0428 19:34:11.367314 23283 layer_factory.hpp:77] Creating layer relu1
I0428 19:34:11.367318 23283 net.cpp:86] Creating Layer relu1
I0428 19:34:11.367322 23283 net.cpp:408] relu1 <- ip1
I0428 19:34:11.367326 23283 net.cpp:369] relu1 -> ip1 (in-place)
I0428 19:34:11.367558 23283 net.cpp:124] Setting up relu1
I0428 19:34:11.367568 23283 net.cpp:131] Top shape: 100 10 (1000)
I0428 19:34:11.367596 23283 net.cpp:139] Memory required for data: 14722800
I0428 19:34:11.367600 23283 layer_factory.hpp:77] Creating layer ip2
I0428 19:34:11.367606 23283 net.cpp:86] Creating Layer ip2
I0428 19:34:11.367609 23283 net.cpp:408] ip2 <- ip1
I0428 19:34:11.367614 23283 net.cpp:382] ip2 -> ip2
I0428 19:34:11.367723 23283 net.cpp:124] Setting up ip2
I0428 19:34:11.367732 23283 net.cpp:131] Top shape: 100 10 (1000)
I0428 19:34:11.367735 23283 net.cpp:139] Memory required for data: 14726800
I0428 19:34:11.367743 23283 layer_factory.hpp:77] Creating layer relu2
I0428 19:34:11.367748 23283 net.cpp:86] Creating Layer relu2
I0428 19:34:11.367751 23283 net.cpp:408] relu2 <- ip2
I0428 19:34:11.367755 23283 net.cpp:369] relu2 -> ip2 (in-place)
I0428 19:34:11.367957 23283 net.cpp:124] Setting up relu2
I0428 19:34:11.367966 23283 net.cpp:131] Top shape: 100 10 (1000)
I0428 19:34:11.367970 23283 net.cpp:139] Memory required for data: 14730800
I0428 19:34:11.367974 23283 layer_factory.hpp:77] Creating layer ip2_relu2_0_split
I0428 19:34:11.367980 23283 net.cpp:86] Creating Layer ip2_relu2_0_split
I0428 19:34:11.367982 23283 net.cpp:408] ip2_relu2_0_split <- ip2
I0428 19:34:11.367987 23283 net.cpp:382] ip2_relu2_0_split -> ip2_relu2_0_split_0
I0428 19:34:11.367995 23283 net.cpp:382] ip2_relu2_0_split -> ip2_relu2_0_split_1
I0428 19:34:11.368031 23283 net.cpp:124] Setting up ip2_relu2_0_split
I0428 19:34:11.368036 23283 net.cpp:131] Top shape: 100 10 (1000)
I0428 19:34:11.368041 23283 net.cpp:131] Top shape: 100 10 (1000)
I0428 19:34:11.368044 23283 net.cpp:139] Memory required for data: 14738800
I0428 19:34:11.368047 23283 layer_factory.hpp:77] Creating layer accuracy
I0428 19:34:11.368052 23283 net.cpp:86] Creating Layer accuracy
I0428 19:34:11.368057 23283 net.cpp:408] accuracy <- ip2_relu2_0_split_0
I0428 19:34:11.368060 23283 net.cpp:408] accuracy <- label_mnist_1_split_0
I0428 19:34:11.368064 23283 net.cpp:382] accuracy -> accuracy
…
