…
I0428 20:11:25.818697 32065 net.cpp:296] The NetState phase (0) differed from the phase (1) specified by a rule in layer mnist
I0428 20:11:25.818728 32065 net.cpp:296] The NetState phase (0) differed from the phase (1) specified by a rule in layer accuracy
I0428 20:11:25.818809 32065 net.cpp:53] Initializing net from parameters: 
name: "LeNet"
state {
  phase: TRAIN
  level: 0
  stage: ""
}
layer {
  name: "mnist"
  type: "Data"
  top: "data"
  top: "label"
  include {
    phase: TRAIN
  }
  transform_param {
    scale: 0.00390625
  }
  data_param {
    source: "examples/mnist/mnist_train_lmdb"
    batch_size: 64
    backend: LMDB
  }
}
layer {
  name: "conv0"
  type: "Convolution"
  bottom: "data"
  top: "conv0"
  param {
    lr_mult: 1
  }
  param {
    lr_mult: 2
  }
  convolution_param {
    num_output: 25
    kernel_size: 5
    stride: 1
    weight_filler {
      type: "xavier"
    }
    bias_filler {
      type: "constant"
    }
  }
}
layer {
  name: "pool0"
  type: "Pooling"
  bottom: "conv0"
  top: "pool0"
  pooling_param {
    pool: MAX
    kernel_size: 2
    stride: 2
  }
}
layer {
  name: "conv1"
  type: "Convolution"
  bottom: "pool0"
  top: "conv1"
  param {
    lr_mult: 1
  }
  param {
    lr_mult: 2
  }
  convolution_param {
    num_output: 50
    kernel_size: 5
    stride: 1
    weight_filler {
      type: "xavier"
    }
    bias_filler {
      type: "constant"
    }
  }
}
layer {
  name: "pool1"
  type: "Pooling"
  bottom: "conv1"
  top: "pool1"
  pooling_param {
    pool: MAX
    kernel_size: 2
    stride: 2
  }
}
layer {
  name: "ip1"
  type: "InnerProduct"
  bottom: "pool1"
  top: "ip1"
  param {
    lr_mult: 1
  }
  param {
    lr_mult: 2
  }
  inner_product_param {
    num_output: 25
    weight_filler {
      type: "xavier"
    }
    bias_filler {
      type: "constant"
    }
  }
}
layer {
  name: "relu1"
  type: "ReLU"
  bottom: "ip1"
  top: "ip1"
}
layer {
  name: "ip2"
  type: "InnerProduct"
  bottom: "ip1"
  top: "ip2"
  param {
    lr_mult: 1
  }
  param {
    lr_mult: 2
  }
  inner_product_param {
    num_output: 50
    weight_filler {
      type: "xavier"
    }
    bias_filler {
      type: "constant"
    }
  }
}
layer {
  name: "relu2"
  type: "ReLU"
  bottom: "ip2"
  top: "ip2"
}
layer {
  name: "ip3"
  type: "InnerProduct"
  bottom: "ip2"
  top: "ip3"
  param {
    lr_mult: 1
  }
  param {
    lr_mult: 2
  }
  inner_product_param {
    num_output: 10
    weight_filler {
      type: "xavier"
    }
    bias_filler {
      type: "constant"
    }
  }
}
layer {
  name: "relu3"
  type: "ReLU"
  bottom: "ip3"
  top: "ip3"
}
layer {
  name: "loss"
  type: "SoftmaxWithLoss"
  bottom: "ip3"
  bottom: "label"
  top: "loss"
}
I0428 20:11:25.818874 32065 layer_factory.hpp:77] Creating layer mnist
I0428 20:11:25.818970 32065 db_lmdb.cpp:35] Opened lmdb examples/mnist/mnist_train_lmdb
I0428 20:11:25.818991 32065 net.cpp:86] Creating Layer mnist
I0428 20:11:25.819000 32065 net.cpp:382] mnist -> data
I0428 20:11:25.819018 32065 net.cpp:382] mnist -> label
I0428 20:11:25.820006 32065 data_layer.cpp:45] output data size: 64,1,28,28
I0428 20:11:25.822360 32065 net.cpp:124] Setting up mnist
I0428 20:11:25.822391 32065 net.cpp:131] Top shape: 64 1 28 28 (50176)
I0428 20:11:25.822396 32065 net.cpp:131] Top shape: 64 (64)
I0428 20:11:25.822399 32065 net.cpp:139] Memory required for data: 200960
I0428 20:11:25.822405 32065 layer_factory.hpp:77] Creating layer conv0
I0428 20:11:25.822420 32065 net.cpp:86] Creating Layer conv0
I0428 20:11:25.822438 32065 net.cpp:408] conv0 <- data
I0428 20:11:25.822449 32065 net.cpp:382] conv0 -> conv0
I0428 20:11:26.046222 32065 net.cpp:124] Setting up conv0
I0428 20:11:26.046262 32065 net.cpp:131] Top shape: 64 25 24 24 (921600)
I0428 20:11:26.046267 32065 net.cpp:139] Memory required for data: 3887360
I0428 20:11:26.046281 32065 layer_factory.hpp:77] Creating layer pool0
I0428 20:11:26.046293 32065 net.cpp:86] Creating Layer pool0
I0428 20:11:26.046298 32065 net.cpp:408] pool0 <- conv0
I0428 20:11:26.046303 32065 net.cpp:382] pool0 -> pool0
I0428 20:11:26.046362 32065 net.cpp:124] Setting up pool0
I0428 20:11:26.046367 32065 net.cpp:131] Top shape: 64 25 12 12 (230400)
I0428 20:11:26.046370 32065 net.cpp:139] Memory required for data: 4808960
I0428 20:11:26.046373 32065 layer_factory.hpp:77] Creating layer conv1
I0428 20:11:26.046383 32065 net.cpp:86] Creating Layer conv1
I0428 20:11:26.046386 32065 net.cpp:408] conv1 <- pool0
I0428 20:11:26.046391 32065 net.cpp:382] conv1 -> conv1
I0428 20:11:26.048341 32065 net.cpp:124] Setting up conv1
I0428 20:11:26.048354 32065 net.cpp:131] Top shape: 64 50 8 8 (204800)
I0428 20:11:26.048358 32065 net.cpp:139] Memory required for data: 5628160
I0428 20:11:26.048382 32065 layer_factory.hpp:77] Creating layer pool1
I0428 20:11:26.048404 32065 net.cpp:86] Creating Layer pool1
I0428 20:11:26.048408 32065 net.cpp:408] pool1 <- conv1
I0428 20:11:26.048413 32065 net.cpp:382] pool1 -> pool1
I0428 20:11:26.048461 32065 net.cpp:124] Setting up pool1
I0428 20:11:26.048466 32065 net.cpp:131] Top shape: 64 50 4 4 (51200)
I0428 20:11:26.048470 32065 net.cpp:139] Memory required for data: 5832960
I0428 20:11:26.048472 32065 layer_factory.hpp:77] Creating layer ip1
I0428 20:11:26.048480 32065 net.cpp:86] Creating Layer ip1
I0428 20:11:26.048482 32065 net.cpp:408] ip1 <- pool1
I0428 20:11:26.048486 32065 net.cpp:382] ip1 -> ip1
I0428 20:11:26.048691 32065 net.cpp:124] Setting up ip1
I0428 20:11:26.048698 32065 net.cpp:131] Top shape: 64 25 (1600)
I0428 20:11:26.048702 32065 net.cpp:139] Memory required for data: 5839360
I0428 20:11:26.048707 32065 layer_factory.hpp:77] Creating layer relu1
I0428 20:11:26.048712 32065 net.cpp:86] Creating Layer relu1
I0428 20:11:26.048717 32065 net.cpp:408] relu1 <- ip1
I0428 20:11:26.048720 32065 net.cpp:369] relu1 -> ip1 (in-place)
I0428 20:11:26.048918 32065 net.cpp:124] Setting up relu1
I0428 20:11:26.048928 32065 net.cpp:131] Top shape: 64 25 (1600)
I0428 20:11:26.048930 32065 net.cpp:139] Memory required for data: 5845760
I0428 20:11:26.048933 32065 layer_factory.hpp:77] Creating layer ip2
I0428 20:11:26.048939 32065 net.cpp:86] Creating Layer ip2
I0428 20:11:26.048943 32065 net.cpp:408] ip2 <- ip1
I0428 20:11:26.048948 32065 net.cpp:382] ip2 -> ip2
I0428 20:11:26.049939 32065 net.cpp:124] Setting up ip2
I0428 20:11:26.049950 32065 net.cpp:131] Top shape: 64 50 (3200)
I0428 20:11:26.049969 32065 net.cpp:139] Memory required for data: 5858560
I0428 20:11:26.049975 32065 layer_factory.hpp:77] Creating layer relu2
I0428 20:11:26.049981 32065 net.cpp:86] Creating Layer relu2
I0428 20:11:26.049985 32065 net.cpp:408] relu2 <- ip2
I0428 20:11:26.049989 32065 net.cpp:369] relu2 -> ip2 (in-place)
I0428 20:11:26.050698 32065 net.cpp:124] Setting up relu2
I0428 20:11:26.050709 32065 net.cpp:131] Top shape: 64 50 (3200)
I0428 20:11:26.050727 32065 net.cpp:139] Memory required for data: 5871360
I0428 20:11:26.050731 32065 layer_factory.hpp:77] Creating layer ip3
I0428 20:11:26.050737 32065 net.cpp:86] Creating Layer ip3
I0428 20:11:26.050741 32065 net.cpp:408] ip3 <- ip2
I0428 20:11:26.050746 32065 net.cpp:382] ip3 -> ip3
I0428 20:11:26.050843 32065 net.cpp:124] Setting up ip3
I0428 20:11:26.050849 32065 net.cpp:131] Top shape: 64 10 (640)
I0428 20:11:26.050853 32065 net.cpp:139] Memory required for data: 5873920
I0428 20:11:26.050860 32065 layer_factory.hpp:77] Creating layer relu3
I0428 20:11:26.050865 32065 net.cpp:86] Creating Layer relu3
I0428 20:11:26.050868 32065 net.cpp:408] relu3 <- ip3
I0428 20:11:26.050873 32065 net.cpp:369] relu3 -> ip3 (in-place)
I0428 20:11:26.051029 32065 net.cpp:124] Setting up relu3
I0428 20:11:26.051038 32065 net.cpp:131] Top shape: 64 10 (640)
I0428 20:11:26.051041 32065 net.cpp:139] Memory required for data: 5876480
I0428 20:11:26.051044 32065 layer_factory.hpp:77] Creating layer loss
I0428 20:11:26.051049 32065 net.cpp:86] Creating Layer loss
I0428 20:11:26.051053 32065 net.cpp:408] loss <- ip3
I0428 20:11:26.051056 32065 net.cpp:408] loss <- label
I0428 20:11:26.051061 32065 net.cpp:382] loss -> loss
I0428 20:11:26.051075 32065 layer_factory.hpp:77] Creating layer loss
…
I0428 20:11:26.051671 32065 solver.cpp:173] Creating test net (#0) specified by net file: ECE595/mnist/train_test/var_everything2/lenet_train_test1158.prototxt
I0428 20:11:26.051697 32065 net.cpp:296] The NetState phase (1) differed from the phase (0) specified by a rule in layer mnist
I0428 20:11:26.051781 32065 net.cpp:53] Initializing net from parameters: 
name: "LeNet"
state {
  phase: TEST
}
layer {
  name: "mnist"
  type: "Data"
  top: "data"
  top: "label"
  include {
    phase: TEST
  }
  transform_param {
    scale: 0.00390625
  }
  data_param {
    source: "examples/mnist/mnist_test_lmdb"
    batch_size: 100
    backend: LMDB
  }
}
layer {
  name: "conv0"
  type: "Convolution"
  bottom: "data"
  top: "conv0"
  param {
    lr_mult: 1
  }
  param {
    lr_mult: 2
  }
  convolution_param {
    num_output: 25
    kernel_size: 5
    stride: 1
    weight_filler {
      type: "xavier"
    }
    bias_filler {
      type: "constant"
    }
  }
}
layer {
  name: "pool0"
  type: "Pooling"
  bottom: "conv0"
  top: "pool0"
  pooling_param {
    pool: MAX
    kernel_size: 2
    stride: 2
  }
}
layer {
  name: "conv1"
  type: "Convolution"
  bottom: "pool0"
  top: "conv1"
  param {
    lr_mult: 1
  }
  param {
    lr_mult: 2
  }
  convolution_param {
    num_output: 50
    kernel_size: 5
    stride: 1
    weight_filler {
      type: "xavier"
    }
    bias_filler {
      type: "constant"
    }
  }
}
layer {
  name: "pool1"
  type: "Pooling"
  bottom: "conv1"
  top: "pool1"
  pooling_param {
    pool: MAX
    kernel_size: 2
    stride: 2
  }
}
layer {
  name: "ip1"
  type: "InnerProduct"
  bottom: "pool1"
  top: "ip1"
  param {
    lr_mult: 1
  }
  param {
    lr_mult: 2
  }
  inner_product_param {
    num_output: 25
    weight_filler {
      type: "xavier"
    }
    bias_filler {
      type: "constant"
    }
  }
}
layer {
  name: "relu1"
  type: "ReLU"
  bottom: "ip1"
  top: "ip1"
}
layer {
  name: "ip2"
  type: "InnerProduct"
  bottom: "ip1"
  top: "ip2"
  param {
    lr_mult: 1
  }
  param {
    lr_mult: 2
  }
  inner_product_param {
    num_output: 50
    weight_filler {
      type: "xavier"
    }
    bias_filler {
      type: "constant"
    }
  }
}
layer {
  name: "relu2"
  type: "ReLU"
  bottom: "ip2"
  top: "ip2"
}
layer {
  name: "ip3"
  type: "InnerProduct"
  bottom: "ip2"
  top: "ip3"
  param {
    lr_mult: 1
  }
  param {
    lr_mult: 2
  }
  inner_product_param {
    num_output: 10
    weight_filler {
      type: "xavier"
    }
    bias_filler {
      type: "constant"
    }
  }
}
layer {
  name: "relu3"
  type: "ReLU"
  bottom: "ip3"
  top: "ip3"
}
layer {
  name: "accuracy"
  type: "Accuracy"
  bottom: "ip3"
  bottom: "label"
  top: "accuracy"
  include {
    phase: TEST
  }
}
layer {
  name: "loss"
  type: "SoftmaxWithLoss"
  bottom: "ip3"
  bottom: "label"
  top: "loss"
}
I0428 20:11:26.051856 32065 layer_factory.hpp:77] Creating layer mnist
I0428 20:11:26.051898 32065 db_lmdb.cpp:35] Opened lmdb examples/mnist/mnist_test_lmdb
I0428 20:11:26.051913 32065 net.cpp:86] Creating Layer mnist
I0428 20:11:26.051918 32065 net.cpp:382] mnist -> data
I0428 20:11:26.051925 32065 net.cpp:382] mnist -> label
I0428 20:11:26.052006 32065 data_layer.cpp:45] output data size: 100,1,28,28
I0428 20:11:26.053912 32065 net.cpp:124] Setting up mnist
I0428 20:11:26.053939 32065 net.cpp:131] Top shape: 100 1 28 28 (78400)
I0428 20:11:26.053944 32065 net.cpp:131] Top shape: 100 (100)
I0428 20:11:26.053947 32065 net.cpp:139] Memory required for data: 314000
I0428 20:11:26.053951 32065 layer_factory.hpp:77] Creating layer label_mnist_1_split
I0428 20:11:26.053957 32065 net.cpp:86] Creating Layer label_mnist_1_split
I0428 20:11:26.053961 32065 net.cpp:408] label_mnist_1_split <- label
I0428 20:11:26.053966 32065 net.cpp:382] label_mnist_1_split -> label_mnist_1_split_0
I0428 20:11:26.053972 32065 net.cpp:382] label_mnist_1_split -> label_mnist_1_split_1
I0428 20:11:26.054051 32065 net.cpp:124] Setting up label_mnist_1_split
I0428 20:11:26.054059 32065 net.cpp:131] Top shape: 100 (100)
I0428 20:11:26.054062 32065 net.cpp:131] Top shape: 100 (100)
I0428 20:11:26.054064 32065 net.cpp:139] Memory required for data: 314800
I0428 20:11:26.054067 32065 layer_factory.hpp:77] Creating layer conv0
I0428 20:11:26.054075 32065 net.cpp:86] Creating Layer conv0
I0428 20:11:26.054078 32065 net.cpp:408] conv0 <- data
I0428 20:11:26.054083 32065 net.cpp:382] conv0 -> conv0
I0428 20:11:26.055748 32065 net.cpp:124] Setting up conv0
I0428 20:11:26.055776 32065 net.cpp:131] Top shape: 100 25 24 24 (1440000)
I0428 20:11:26.055780 32065 net.cpp:139] Memory required for data: 6074800
I0428 20:11:26.055789 32065 layer_factory.hpp:77] Creating layer pool0
I0428 20:11:26.055795 32065 net.cpp:86] Creating Layer pool0
I0428 20:11:26.055799 32065 net.cpp:408] pool0 <- conv0
I0428 20:11:26.055819 32065 net.cpp:382] pool0 -> pool0
I0428 20:11:26.055856 32065 net.cpp:124] Setting up pool0
I0428 20:11:26.055862 32065 net.cpp:131] Top shape: 100 25 12 12 (360000)
I0428 20:11:26.055866 32065 net.cpp:139] Memory required for data: 7514800
I0428 20:11:26.055868 32065 layer_factory.hpp:77] Creating layer conv1
I0428 20:11:26.055876 32065 net.cpp:86] Creating Layer conv1
I0428 20:11:26.055879 32065 net.cpp:408] conv1 <- pool0
I0428 20:11:26.055884 32065 net.cpp:382] conv1 -> conv1
I0428 20:11:26.057761 32065 net.cpp:124] Setting up conv1
I0428 20:11:26.057780 32065 net.cpp:131] Top shape: 100 50 8 8 (320000)
I0428 20:11:26.057783 32065 net.cpp:139] Memory required for data: 8794800
I0428 20:11:26.057807 32065 layer_factory.hpp:77] Creating layer pool1
I0428 20:11:26.057814 32065 net.cpp:86] Creating Layer pool1
I0428 20:11:26.057817 32065 net.cpp:408] pool1 <- conv1
I0428 20:11:26.057823 32065 net.cpp:382] pool1 -> pool1
I0428 20:11:26.057862 32065 net.cpp:124] Setting up pool1
I0428 20:11:26.057868 32065 net.cpp:131] Top shape: 100 50 4 4 (80000)
I0428 20:11:26.057871 32065 net.cpp:139] Memory required for data: 9114800
I0428 20:11:26.057874 32065 layer_factory.hpp:77] Creating layer ip1
I0428 20:11:26.057880 32065 net.cpp:86] Creating Layer ip1
I0428 20:11:26.057883 32065 net.cpp:408] ip1 <- pool1
I0428 20:11:26.057889 32065 net.cpp:382] ip1 -> ip1
I0428 20:11:26.058107 32065 net.cpp:124] Setting up ip1
I0428 20:11:26.058115 32065 net.cpp:131] Top shape: 100 25 (2500)
I0428 20:11:26.058128 32065 net.cpp:139] Memory required for data: 9124800
I0428 20:11:26.058136 32065 layer_factory.hpp:77] Creating layer relu1
I0428 20:11:26.058143 32065 net.cpp:86] Creating Layer relu1
I0428 20:11:26.058147 32065 net.cpp:408] relu1 <- ip1
I0428 20:11:26.058153 32065 net.cpp:369] relu1 -> ip1 (in-place)
I0428 20:11:26.058367 32065 net.cpp:124] Setting up relu1
I0428 20:11:26.058377 32065 net.cpp:131] Top shape: 100 25 (2500)
I0428 20:11:26.058380 32065 net.cpp:139] Memory required for data: 9134800
I0428 20:11:26.058383 32065 layer_factory.hpp:77] Creating layer ip2
I0428 20:11:26.058394 32065 net.cpp:86] Creating Layer ip2
I0428 20:11:26.058398 32065 net.cpp:408] ip2 <- ip1
I0428 20:11:26.058403 32065 net.cpp:382] ip2 -> ip2
I0428 20:11:26.058533 32065 net.cpp:124] Setting up ip2
I0428 20:11:26.058542 32065 net.cpp:131] Top shape: 100 50 (5000)
I0428 20:11:26.058544 32065 net.cpp:139] Memory required for data: 9154800
I0428 20:11:26.058549 32065 layer_factory.hpp:77] Creating layer relu2
I0428 20:11:26.058554 32065 net.cpp:86] Creating Layer relu2
I0428 20:11:26.058558 32065 net.cpp:408] relu2 <- ip2
I0428 20:11:26.058563 32065 net.cpp:369] relu2 -> ip2 (in-place)
I0428 20:11:26.058758 32065 net.cpp:124] Setting up relu2
I0428 20:11:26.058765 32065 net.cpp:131] Top shape: 100 50 (5000)
I0428 20:11:26.058769 32065 net.cpp:139] Memory required for data: 9174800
I0428 20:11:26.058773 32065 layer_factory.hpp:77] Creating layer ip3
I0428 20:11:26.058778 32065 net.cpp:86] Creating Layer ip3
I0428 20:11:26.058781 32065 net.cpp:408] ip3 <- ip2
I0428 20:11:26.058786 32065 net.cpp:382] ip3 -> ip3
I0428 20:11:26.058892 32065 net.cpp:124] Setting up ip3
I0428 20:11:26.058912 32065 net.cpp:131] Top shape: 100 10 (1000)
I0428 20:11:26.058915 32065 net.cpp:139] Memory required for data: 9178800
I0428 20:11:26.058923 32065 layer_factory.hpp:77] Creating layer relu3
I0428 20:11:26.058928 32065 net.cpp:86] Creating Layer relu3
I0428 20:11:26.058931 32065 net.cpp:408] relu3 <- ip3
I0428 20:11:26.058943 32065 net.cpp:369] relu3 -> ip3 (in-place)
I0428 20:11:26.059744 32065 net.cpp:124] Setting up relu3
I0428 20:11:26.059756 32065 net.cpp:131] Top shape: 100 10 (1000)
I0428 20:11:26.059759 32065 net.cpp:139] Memory required for data: 9182800
I0428 20:11:26.059763 32065 layer_factory.hpp:77] Creating layer ip3_relu3_0_split
I0428 20:11:26.059769 32065 net.cpp:86] Creating Layer ip3_relu3_0_split
I0428 20:11:26.059772 32065 net.cpp:408] ip3_relu3_0_split <- ip3
I0428 20:11:26.059777 32065 net.cpp:382] ip3_relu3_0_split -> ip3_relu3_0_split_0
I0428 20:11:26.059783 32065 net.cpp:382] ip3_relu3_0_split -> ip3_relu3_0_split_1
I0428 20:11:26.059828 32065 net.cpp:124] Setting up ip3_relu3_0_split
I0428 20:11:26.059834 32065 net.cpp:131] Top shape: 100 10 (1000)
I0428 20:11:26.059839 32065 net.cpp:131] Top shape: 100 10 (1000)
I0428 20:11:26.059847 32065 net.cpp:139] Memory required for data: 9190800
I0428 20:11:26.059850 32065 layer_factory.hpp:77] Creating layer accuracy
I0428 20:11:26.059855 32065 net.cpp:86] Creating Layer accuracy
I0428 20:11:26.059859 32065 net.cpp:408] accuracy <- ip3_relu3_0_split_0
I0428 20:11:26.059862 32065 net.cpp:408] accuracy <- label_mnist_1_split_0
I0428 20:11:26.059869 32065 net.cpp:382] accuracy -> accuracy
…
