…
I0428 19:44:49.709646 25683 net.cpp:296] The NetState phase (0) differed from the phase (1) specified by a rule in layer mnist
I0428 19:44:49.709671 25683 net.cpp:296] The NetState phase (0) differed from the phase (1) specified by a rule in layer accuracy
I0428 19:44:49.709786 25683 net.cpp:53] Initializing net from parameters: 
name: "LeNet"
state {
  phase: TRAIN
  level: 0
  stage: ""
}
layer {
  name: "mnist"
  type: "Data"
  top: "data"
  top: "label"
  include {
    phase: TRAIN
  }
  transform_param {
    scale: 0.00390625
  }
  data_param {
    source: "examples/mnist/mnist_train_lmdb"
    batch_size: 64
    backend: LMDB
  }
}
layer {
  name: "conv0"
  type: "Convolution"
  bottom: "data"
  top: "conv0"
  param {
    lr_mult: 1
  }
  param {
    lr_mult: 2
  }
  convolution_param {
    num_output: 2
    kernel_size: 5
    stride: 1
    weight_filler {
      type: "xavier"
    }
    bias_filler {
      type: "constant"
    }
  }
}
layer {
  name: "pool0"
  type: "Pooling"
  bottom: "conv0"
  top: "pool0"
  pooling_param {
    pool: MAX
    kernel_size: 2
    stride: 2
  }
}
layer {
  name: "conv1"
  type: "Convolution"
  bottom: "pool0"
  top: "conv1"
  param {
    lr_mult: 1
  }
  param {
    lr_mult: 2
  }
  convolution_param {
    num_output: 50
    kernel_size: 5
    stride: 1
    weight_filler {
      type: "xavier"
    }
    bias_filler {
      type: "constant"
    }
  }
}
layer {
  name: "pool1"
  type: "Pooling"
  bottom: "conv1"
  top: "pool1"
  pooling_param {
    pool: MAX
    kernel_size: 2
    stride: 2
  }
}
layer {
  name: "ip1"
  type: "InnerProduct"
  bottom: "pool1"
  top: "ip1"
  param {
    lr_mult: 1
  }
  param {
    lr_mult: 2
  }
  inner_product_param {
    num_output: 25
    weight_filler {
      type: "xavier"
    }
    bias_filler {
      type: "constant"
    }
  }
}
layer {
  name: "relu1"
  type: "ReLU"
  bottom: "ip1"
  top: "ip1"
}
layer {
  name: "ip2"
  type: "InnerProduct"
  bottom: "ip1"
  top: "ip2"
  param {
    lr_mult: 1
  }
  param {
    lr_mult: 2
  }
  inner_product_param {
    num_output: 50
    weight_filler {
      type: "xavier"
    }
    bias_filler {
      type: "constant"
    }
  }
}
layer {
  name: "relu2"
  type: "ReLU"
  bottom: "ip2"
  top: "ip2"
}
layer {
  name: "ip3"
  type: "InnerProduct"
  bottom: "ip2"
  top: "ip3"
  param {
    lr_mult: 1
  }
  param {
    lr_mult: 2
  }
  inner_product_param {
    num_output: 10
    weight_filler {
      type: "xavier"
    }
    bias_filler {
      type: "constant"
    }
  }
}
layer {
  name: "relu3"
  type: "ReLU"
  bottom: "ip3"
  top: "ip3"
}
layer {
  name: "loss"
  type: "SoftmaxWithLoss"
  bottom: "ip3"
  bottom: "label"
  top: "loss"
}
I0428 19:44:49.709906 25683 layer_factory.hpp:77] Creating layer mnist
I0428 19:44:49.710037 25683 db_lmdb.cpp:35] Opened lmdb examples/mnist/mnist_train_lmdb
I0428 19:44:49.710072 25683 net.cpp:86] Creating Layer mnist
I0428 19:44:49.710083 25683 net.cpp:382] mnist -> data
I0428 19:44:49.710116 25683 net.cpp:382] mnist -> label
I0428 19:44:49.711395 25683 data_layer.cpp:45] output data size: 64,1,28,28
I0428 19:44:49.713868 25683 net.cpp:124] Setting up mnist
I0428 19:44:49.713888 25683 net.cpp:131] Top shape: 64 1 28 28 (50176)
I0428 19:44:49.713898 25683 net.cpp:131] Top shape: 64 (64)
I0428 19:44:49.713904 25683 net.cpp:139] Memory required for data: 200960
I0428 19:44:49.713915 25683 layer_factory.hpp:77] Creating layer conv0
I0428 19:44:49.713943 25683 net.cpp:86] Creating Layer conv0
I0428 19:44:49.713966 25683 net.cpp:408] conv0 <- data
I0428 19:44:49.713985 25683 net.cpp:382] conv0 -> conv0
I0428 19:44:50.005758 25683 net.cpp:124] Setting up conv0
I0428 19:44:50.005791 25683 net.cpp:131] Top shape: 64 2 24 24 (73728)
I0428 19:44:50.005798 25683 net.cpp:139] Memory required for data: 495872
I0428 19:44:50.005822 25683 layer_factory.hpp:77] Creating layer pool0
I0428 19:44:50.005843 25683 net.cpp:86] Creating Layer pool0
I0428 19:44:50.005861 25683 net.cpp:408] pool0 <- conv0
I0428 19:44:50.005872 25683 net.cpp:382] pool0 -> pool0
I0428 19:44:50.005940 25683 net.cpp:124] Setting up pool0
I0428 19:44:50.005952 25683 net.cpp:131] Top shape: 64 2 12 12 (18432)
I0428 19:44:50.005959 25683 net.cpp:139] Memory required for data: 569600
I0428 19:44:50.005965 25683 layer_factory.hpp:77] Creating layer conv1
I0428 19:44:50.005985 25683 net.cpp:86] Creating Layer conv1
I0428 19:44:50.005992 25683 net.cpp:408] conv1 <- pool0
I0428 19:44:50.006003 25683 net.cpp:382] conv1 -> conv1
I0428 19:44:50.009135 25683 net.cpp:124] Setting up conv1
I0428 19:44:50.009156 25683 net.cpp:131] Top shape: 64 50 8 8 (204800)
I0428 19:44:50.009163 25683 net.cpp:139] Memory required for data: 1388800
I0428 19:44:50.009181 25683 layer_factory.hpp:77] Creating layer pool1
I0428 19:44:50.009196 25683 net.cpp:86] Creating Layer pool1
I0428 19:44:50.009202 25683 net.cpp:408] pool1 <- conv1
I0428 19:44:50.009212 25683 net.cpp:382] pool1 -> pool1
I0428 19:44:50.009265 25683 net.cpp:124] Setting up pool1
I0428 19:44:50.009277 25683 net.cpp:131] Top shape: 64 50 4 4 (51200)
I0428 19:44:50.009284 25683 net.cpp:139] Memory required for data: 1593600
I0428 19:44:50.009290 25683 layer_factory.hpp:77] Creating layer ip1
I0428 19:44:50.009304 25683 net.cpp:86] Creating Layer ip1
I0428 19:44:50.009310 25683 net.cpp:408] ip1 <- pool1
I0428 19:44:50.009320 25683 net.cpp:382] ip1 -> ip1
I0428 19:44:50.009588 25683 net.cpp:124] Setting up ip1
I0428 19:44:50.009599 25683 net.cpp:131] Top shape: 64 25 (1600)
I0428 19:44:50.009605 25683 net.cpp:139] Memory required for data: 1600000
I0428 19:44:50.009620 25683 layer_factory.hpp:77] Creating layer relu1
I0428 19:44:50.009634 25683 net.cpp:86] Creating Layer relu1
I0428 19:44:50.009645 25683 net.cpp:408] relu1 <- ip1
I0428 19:44:50.009654 25683 net.cpp:369] relu1 -> ip1 (in-place)
I0428 19:44:50.009855 25683 net.cpp:124] Setting up relu1
I0428 19:44:50.009867 25683 net.cpp:131] Top shape: 64 25 (1600)
I0428 19:44:50.009873 25683 net.cpp:139] Memory required for data: 1606400
I0428 19:44:50.009879 25683 layer_factory.hpp:77] Creating layer ip2
I0428 19:44:50.009891 25683 net.cpp:86] Creating Layer ip2
I0428 19:44:50.009898 25683 net.cpp:408] ip2 <- ip1
I0428 19:44:50.009908 25683 net.cpp:382] ip2 -> ip2
I0428 19:44:50.010043 25683 net.cpp:124] Setting up ip2
I0428 19:44:50.010054 25683 net.cpp:131] Top shape: 64 50 (3200)
I0428 19:44:50.010061 25683 net.cpp:139] Memory required for data: 1619200
I0428 19:44:50.010072 25683 layer_factory.hpp:77] Creating layer relu2
I0428 19:44:50.010083 25683 net.cpp:86] Creating Layer relu2
I0428 19:44:50.010090 25683 net.cpp:408] relu2 <- ip2
I0428 19:44:50.010099 25683 net.cpp:369] relu2 -> ip2 (in-place)
I0428 19:44:50.010952 25683 net.cpp:124] Setting up relu2
I0428 19:44:50.010969 25683 net.cpp:131] Top shape: 64 50 (3200)
I0428 19:44:50.010977 25683 net.cpp:139] Memory required for data: 1632000
I0428 19:44:50.010983 25683 layer_factory.hpp:77] Creating layer ip3
I0428 19:44:50.010996 25683 net.cpp:86] Creating Layer ip3
I0428 19:44:50.011003 25683 net.cpp:408] ip3 <- ip2
I0428 19:44:50.011014 25683 net.cpp:382] ip3 -> ip3
I0428 19:44:50.011147 25683 net.cpp:124] Setting up ip3
I0428 19:44:50.011159 25683 net.cpp:131] Top shape: 64 10 (640)
I0428 19:44:50.011165 25683 net.cpp:139] Memory required for data: 1634560
I0428 19:44:50.011181 25683 layer_factory.hpp:77] Creating layer relu3
I0428 19:44:50.011196 25683 net.cpp:86] Creating Layer relu3
I0428 19:44:50.011204 25683 net.cpp:408] relu3 <- ip3
I0428 19:44:50.011214 25683 net.cpp:369] relu3 -> ip3 (in-place)
I0428 19:44:50.011412 25683 net.cpp:124] Setting up relu3
I0428 19:44:50.011425 25683 net.cpp:131] Top shape: 64 10 (640)
I0428 19:44:50.011431 25683 net.cpp:139] Memory required for data: 1637120
I0428 19:44:50.011437 25683 layer_factory.hpp:77] Creating layer loss
I0428 19:44:50.011448 25683 net.cpp:86] Creating Layer loss
I0428 19:44:50.011456 25683 net.cpp:408] loss <- ip3
I0428 19:44:50.011463 25683 net.cpp:408] loss <- label
I0428 19:44:50.011473 25683 net.cpp:382] loss -> loss
I0428 19:44:50.011500 25683 layer_factory.hpp:77] Creating layer loss
…
I0428 19:44:50.012310 25683 solver.cpp:173] Creating test net (#0) specified by net file: ECE595/mnist/train_test/var_everything2/lenet_train_test457.prototxt
I0428 19:44:50.012351 25683 net.cpp:296] The NetState phase (1) differed from the phase (0) specified by a rule in layer mnist
I0428 19:44:50.012468 25683 net.cpp:53] Initializing net from parameters: 
name: "LeNet"
state {
  phase: TEST
}
layer {
  name: "mnist"
  type: "Data"
  top: "data"
  top: "label"
  include {
    phase: TEST
  }
  transform_param {
    scale: 0.00390625
  }
  data_param {
    source: "examples/mnist/mnist_test_lmdb"
    batch_size: 100
    backend: LMDB
  }
}
layer {
  name: "conv0"
  type: "Convolution"
  bottom: "data"
  top: "conv0"
  param {
    lr_mult: 1
  }
  param {
    lr_mult: 2
  }
  convolution_param {
    num_output: 2
    kernel_size: 5
    stride: 1
    weight_filler {
      type: "xavier"
    }
    bias_filler {
      type: "constant"
    }
  }
}
layer {
  name: "pool0"
  type: "Pooling"
  bottom: "conv0"
  top: "pool0"
  pooling_param {
    pool: MAX
    kernel_size: 2
    stride: 2
  }
}
layer {
  name: "conv1"
  type: "Convolution"
  bottom: "pool0"
  top: "conv1"
  param {
    lr_mult: 1
  }
  param {
    lr_mult: 2
  }
  convolution_param {
    num_output: 50
    kernel_size: 5
    stride: 1
    weight_filler {
      type: "xavier"
    }
    bias_filler {
      type: "constant"
    }
  }
}
layer {
  name: "pool1"
  type: "Pooling"
  bottom: "conv1"
  top: "pool1"
  pooling_param {
    pool: MAX
    kernel_size: 2
    stride: 2
  }
}
layer {
  name: "ip1"
  type: "InnerProduct"
  bottom: "pool1"
  top: "ip1"
  param {
    lr_mult: 1
  }
  param {
    lr_mult: 2
  }
  inner_product_param {
    num_output: 25
    weight_filler {
      type: "xavier"
    }
    bias_filler {
      type: "constant"
    }
  }
}
layer {
  name: "relu1"
  type: "ReLU"
  bottom: "ip1"
  top: "ip1"
}
layer {
  name: "ip2"
  type: "InnerProduct"
  bottom: "ip1"
  top: "ip2"
  param {
    lr_mult: 1
  }
  param {
    lr_mult: 2
  }
  inner_product_param {
    num_output: 50
    weight_filler {
      type: "xavier"
    }
    bias_filler {
      type: "constant"
    }
  }
}
layer {
  name: "relu2"
  type: "ReLU"
  bottom: "ip2"
  top: "ip2"
}
layer {
  name: "ip3"
  type: "InnerProduct"
  bottom: "ip2"
  top: "ip3"
  param {
    lr_mult: 1
  }
  param {
    lr_mult: 2
  }
  inner_product_param {
    num_output: 10
    weight_filler {
      type: "xavier"
    }
    bias_filler {
      type: "constant"
    }
  }
}
layer {
  name: "relu3"
  type: "ReLU"
  bottom: "ip3"
  top: "ip3"
}
layer {
  name: "accuracy"
  type: "Accuracy"
  bottom: "ip3"
  bottom: "label"
  top: "accuracy"
  include {
    phase: TEST
  }
}
layer {
  name: "loss"
  type: "SoftmaxWithLoss"
  bottom: "ip3"
  bottom: "label"
  top: "loss"
}
I0428 19:44:50.012605 25683 layer_factory.hpp:77] Creating layer mnist
I0428 19:44:50.012676 25683 db_lmdb.cpp:35] Opened lmdb examples/mnist/mnist_test_lmdb
I0428 19:44:50.012698 25683 net.cpp:86] Creating Layer mnist
I0428 19:44:50.012708 25683 net.cpp:382] mnist -> data
I0428 19:44:50.012722 25683 net.cpp:382] mnist -> label
I0428 19:44:50.012874 25683 data_layer.cpp:45] output data size: 100,1,28,28
I0428 19:44:50.015254 25683 net.cpp:124] Setting up mnist
I0428 19:44:50.015271 25683 net.cpp:131] Top shape: 100 1 28 28 (78400)
I0428 19:44:50.015281 25683 net.cpp:131] Top shape: 100 (100)
I0428 19:44:50.015288 25683 net.cpp:139] Memory required for data: 314000
I0428 19:44:50.015295 25683 layer_factory.hpp:77] Creating layer label_mnist_1_split
I0428 19:44:50.015331 25683 net.cpp:86] Creating Layer label_mnist_1_split
I0428 19:44:50.015337 25683 net.cpp:408] label_mnist_1_split <- label
I0428 19:44:50.015347 25683 net.cpp:382] label_mnist_1_split -> label_mnist_1_split_0
I0428 19:44:50.015360 25683 net.cpp:382] label_mnist_1_split -> label_mnist_1_split_1
I0428 19:44:50.015455 25683 net.cpp:124] Setting up label_mnist_1_split
I0428 19:44:50.015465 25683 net.cpp:131] Top shape: 100 (100)
I0428 19:44:50.015473 25683 net.cpp:131] Top shape: 100 (100)
I0428 19:44:50.015480 25683 net.cpp:139] Memory required for data: 314800
I0428 19:44:50.015486 25683 layer_factory.hpp:77] Creating layer conv0
I0428 19:44:50.015501 25683 net.cpp:86] Creating Layer conv0
I0428 19:44:50.015509 25683 net.cpp:408] conv0 <- data
I0428 19:44:50.015521 25683 net.cpp:382] conv0 -> conv0
I0428 19:44:50.017307 25683 net.cpp:124] Setting up conv0
I0428 19:44:50.017326 25683 net.cpp:131] Top shape: 100 2 24 24 (115200)
I0428 19:44:50.017333 25683 net.cpp:139] Memory required for data: 775600
I0428 19:44:50.017351 25683 layer_factory.hpp:77] Creating layer pool0
I0428 19:44:50.017364 25683 net.cpp:86] Creating Layer pool0
I0428 19:44:50.017370 25683 net.cpp:408] pool0 <- conv0
I0428 19:44:50.017379 25683 net.cpp:382] pool0 -> pool0
I0428 19:44:50.017431 25683 net.cpp:124] Setting up pool0
I0428 19:44:50.017442 25683 net.cpp:131] Top shape: 100 2 12 12 (28800)
I0428 19:44:50.017448 25683 net.cpp:139] Memory required for data: 890800
I0428 19:44:50.017454 25683 layer_factory.hpp:77] Creating layer conv1
I0428 19:44:50.017470 25683 net.cpp:86] Creating Layer conv1
I0428 19:44:50.017478 25683 net.cpp:408] conv1 <- pool0
I0428 19:44:50.017489 25683 net.cpp:382] conv1 -> conv1
I0428 19:44:50.019194 25683 net.cpp:124] Setting up conv1
I0428 19:44:50.019213 25683 net.cpp:131] Top shape: 100 50 8 8 (320000)
I0428 19:44:50.019222 25683 net.cpp:139] Memory required for data: 2170800
I0428 19:44:50.019238 25683 layer_factory.hpp:77] Creating layer pool1
I0428 19:44:50.019250 25683 net.cpp:86] Creating Layer pool1
I0428 19:44:50.019258 25683 net.cpp:408] pool1 <- conv1
I0428 19:44:50.019268 25683 net.cpp:382] pool1 -> pool1
I0428 19:44:50.019322 25683 net.cpp:124] Setting up pool1
I0428 19:44:50.019332 25683 net.cpp:131] Top shape: 100 50 4 4 (80000)
I0428 19:44:50.019340 25683 net.cpp:139] Memory required for data: 2490800
I0428 19:44:50.019351 25683 layer_factory.hpp:77] Creating layer ip1
I0428 19:44:50.019362 25683 net.cpp:86] Creating Layer ip1
I0428 19:44:50.019371 25683 net.cpp:408] ip1 <- pool1
I0428 19:44:50.019381 25683 net.cpp:382] ip1 -> ip1
I0428 19:44:50.019644 25683 net.cpp:124] Setting up ip1
I0428 19:44:50.019655 25683 net.cpp:131] Top shape: 100 25 (2500)
I0428 19:44:50.019675 25683 net.cpp:139] Memory required for data: 2500800
I0428 19:44:50.019696 25683 layer_factory.hpp:77] Creating layer relu1
I0428 19:44:50.019707 25683 net.cpp:86] Creating Layer relu1
I0428 19:44:50.019714 25683 net.cpp:408] relu1 <- ip1
I0428 19:44:50.019723 25683 net.cpp:369] relu1 -> ip1 (in-place)
I0428 19:44:50.020009 25683 net.cpp:124] Setting up relu1
I0428 19:44:50.020020 25683 net.cpp:131] Top shape: 100 25 (2500)
I0428 19:44:50.020027 25683 net.cpp:139] Memory required for data: 2510800
I0428 19:44:50.020033 25683 layer_factory.hpp:77] Creating layer ip2
I0428 19:44:50.020046 25683 net.cpp:86] Creating Layer ip2
I0428 19:44:50.020054 25683 net.cpp:408] ip2 <- ip1
I0428 19:44:50.020066 25683 net.cpp:382] ip2 -> ip2
I0428 19:44:50.020201 25683 net.cpp:124] Setting up ip2
I0428 19:44:50.020213 25683 net.cpp:131] Top shape: 100 50 (5000)
I0428 19:44:50.020220 25683 net.cpp:139] Memory required for data: 2530800
I0428 19:44:50.020236 25683 layer_factory.hpp:77] Creating layer relu2
I0428 19:44:50.020246 25683 net.cpp:86] Creating Layer relu2
I0428 19:44:50.020253 25683 net.cpp:408] relu2 <- ip2
I0428 19:44:50.020262 25683 net.cpp:369] relu2 -> ip2 (in-place)
I0428 19:44:50.020443 25683 net.cpp:124] Setting up relu2
I0428 19:44:50.020455 25683 net.cpp:131] Top shape: 100 50 (5000)
I0428 19:44:50.020462 25683 net.cpp:139] Memory required for data: 2550800
I0428 19:44:50.020472 25683 layer_factory.hpp:77] Creating layer ip3
I0428 19:44:50.020483 25683 net.cpp:86] Creating Layer ip3
I0428 19:44:50.020489 25683 net.cpp:408] ip3 <- ip2
I0428 19:44:50.020499 25683 net.cpp:382] ip3 -> ip3
I0428 19:44:50.020622 25683 net.cpp:124] Setting up ip3
I0428 19:44:50.020633 25683 net.cpp:131] Top shape: 100 10 (1000)
I0428 19:44:50.020642 25683 net.cpp:139] Memory required for data: 2554800
I0428 19:44:50.020656 25683 layer_factory.hpp:77] Creating layer relu3
I0428 19:44:50.020668 25683 net.cpp:86] Creating Layer relu3
I0428 19:44:50.020674 25683 net.cpp:408] relu3 <- ip3
I0428 19:44:50.020683 25683 net.cpp:369] relu3 -> ip3 (in-place)
I0428 19:44:50.021584 25683 net.cpp:124] Setting up relu3
I0428 19:44:50.021600 25683 net.cpp:131] Top shape: 100 10 (1000)
I0428 19:44:50.021606 25683 net.cpp:139] Memory required for data: 2558800
I0428 19:44:50.021613 25683 layer_factory.hpp:77] Creating layer ip3_relu3_0_split
I0428 19:44:50.021623 25683 net.cpp:86] Creating Layer ip3_relu3_0_split
I0428 19:44:50.021631 25683 net.cpp:408] ip3_relu3_0_split <- ip3
I0428 19:44:50.021641 25683 net.cpp:382] ip3_relu3_0_split -> ip3_relu3_0_split_0
I0428 19:44:50.021652 25683 net.cpp:382] ip3_relu3_0_split -> ip3_relu3_0_split_1
I0428 19:44:50.021718 25683 net.cpp:124] Setting up ip3_relu3_0_split
I0428 19:44:50.021728 25683 net.cpp:131] Top shape: 100 10 (1000)
I0428 19:44:50.021736 25683 net.cpp:131] Top shape: 100 10 (1000)
I0428 19:44:50.021742 25683 net.cpp:139] Memory required for data: 2566800
I0428 19:44:50.021749 25683 layer_factory.hpp:77] Creating layer accuracy
I0428 19:44:50.021759 25683 net.cpp:86] Creating Layer accuracy
I0428 19:44:50.021766 25683 net.cpp:408] accuracy <- ip3_relu3_0_split_0
I0428 19:44:50.021776 25683 net.cpp:408] accuracy <- label_mnist_1_split_0
I0428 19:44:50.021786 25683 net.cpp:382] accuracy -> accuracy
…
