…
I0428 19:30:31.449628 22308 net.cpp:296] The NetState phase (0) differed from the phase (1) specified by a rule in layer mnist
I0428 19:30:31.449645 22308 net.cpp:296] The NetState phase (0) differed from the phase (1) specified by a rule in layer accuracy
I0428 19:30:31.449718 22308 net.cpp:53] Initializing net from parameters: 
name: "LeNet"
state {
  phase: TRAIN
  level: 0
  stage: ""
}
layer {
  name: "mnist"
  type: "Data"
  top: "data"
  top: "label"
  include {
    phase: TRAIN
  }
  transform_param {
    scale: 0.00390625
  }
  data_param {
    source: "examples/mnist/mnist_train_lmdb"
    batch_size: 64
    backend: LMDB
  }
}
layer {
  name: "conv0"
  type: "Convolution"
  bottom: "data"
  top: "conv0"
  param {
    lr_mult: 1
  }
  param {
    lr_mult: 2
  }
  convolution_param {
    num_output: 5
    kernel_size: 5
    stride: 1
    weight_filler {
      type: "xavier"
    }
    bias_filler {
      type: "constant"
    }
  }
}
layer {
  name: "pool0"
  type: "Pooling"
  bottom: "conv0"
  top: "pool0"
  pooling_param {
    pool: MAX
    kernel_size: 2
    stride: 2
  }
}
layer {
  name: "ip1"
  type: "InnerProduct"
  bottom: "pool0"
  top: "ip1"
  param {
    lr_mult: 1
  }
  param {
    lr_mult: 2
  }
  inner_product_param {
    num_output: 10
    weight_filler {
      type: "xavier"
    }
    bias_filler {
      type: "constant"
    }
  }
}
layer {
  name: "relu1"
  type: "ReLU"
  bottom: "ip1"
  top: "ip1"
}
layer {
  name: "ip2"
  type: "InnerProduct"
  bottom: "ip1"
  top: "ip2"
  param {
    lr_mult: 1
  }
  param {
    lr_mult: 2
  }
  inner_product_param {
    num_output: 25
    weight_filler {
      type: "xavier"
    }
    bias_filler {
      type: "constant"
    }
  }
}
layer {
  name: "relu2"
  type: "ReLU"
  bottom: "ip2"
  top: "ip2"
}
layer {
  name: "ip3"
  type: "InnerProduct"
  bottom: "ip2"
  top: "ip3"
  param {
    lr_mult: 1
  }
  param {
    lr_mult: 2
  }
  inner_product_param {
    num_output: 10
    weight_filler {
      type: "xavier"
    }
    bias_filler {
      type: "constant"
    }
  }
}
layer {
  name: "relu3"
  type: "ReLU"
  bottom: "ip3"
  top: "ip3"
}
layer {
  name: "loss"
  type: "SoftmaxWithLoss"
  bottom: "ip3"
  bottom: "label"
  top: "loss"
}
I0428 19:30:31.449802 22308 layer_factory.hpp:77] Creating layer mnist
I0428 19:30:31.449906 22308 db_lmdb.cpp:35] Opened lmdb examples/mnist/mnist_train_lmdb
I0428 19:30:31.449931 22308 net.cpp:86] Creating Layer mnist
I0428 19:30:31.449942 22308 net.cpp:382] mnist -> data
I0428 19:30:31.449966 22308 net.cpp:382] mnist -> label
I0428 19:30:31.451000 22308 data_layer.cpp:45] output data size: 64,1,28,28
I0428 19:30:31.453274 22308 net.cpp:124] Setting up mnist
I0428 19:30:31.453292 22308 net.cpp:131] Top shape: 64 1 28 28 (50176)
I0428 19:30:31.453315 22308 net.cpp:131] Top shape: 64 (64)
I0428 19:30:31.453320 22308 net.cpp:139] Memory required for data: 200960
I0428 19:30:31.453330 22308 layer_factory.hpp:77] Creating layer conv0
I0428 19:30:31.453351 22308 net.cpp:86] Creating Layer conv0
I0428 19:30:31.453361 22308 net.cpp:408] conv0 <- data
I0428 19:30:31.453379 22308 net.cpp:382] conv0 -> conv0
I0428 19:30:31.680907 22308 net.cpp:124] Setting up conv0
I0428 19:30:31.680936 22308 net.cpp:131] Top shape: 64 5 24 24 (184320)
I0428 19:30:31.680941 22308 net.cpp:139] Memory required for data: 938240
I0428 19:30:31.680963 22308 layer_factory.hpp:77] Creating layer pool0
I0428 19:30:31.680994 22308 net.cpp:86] Creating Layer pool0
I0428 19:30:31.681022 22308 net.cpp:408] pool0 <- conv0
I0428 19:30:31.681032 22308 net.cpp:382] pool0 -> pool0
I0428 19:30:31.681089 22308 net.cpp:124] Setting up pool0
I0428 19:30:31.681098 22308 net.cpp:131] Top shape: 64 5 12 12 (46080)
I0428 19:30:31.681103 22308 net.cpp:139] Memory required for data: 1122560
I0428 19:30:31.681108 22308 layer_factory.hpp:77] Creating layer ip1
I0428 19:30:31.681119 22308 net.cpp:86] Creating Layer ip1
I0428 19:30:31.681125 22308 net.cpp:408] ip1 <- pool0
I0428 19:30:31.681133 22308 net.cpp:382] ip1 -> ip1
I0428 19:30:31.682163 22308 net.cpp:124] Setting up ip1
I0428 19:30:31.682193 22308 net.cpp:131] Top shape: 64 10 (640)
I0428 19:30:31.682199 22308 net.cpp:139] Memory required for data: 1125120
I0428 19:30:31.682211 22308 layer_factory.hpp:77] Creating layer relu1
I0428 19:30:31.682221 22308 net.cpp:86] Creating Layer relu1
I0428 19:30:31.682231 22308 net.cpp:408] relu1 <- ip1
I0428 19:30:31.682240 22308 net.cpp:369] relu1 -> ip1 (in-place)
I0428 19:30:31.682415 22308 net.cpp:124] Setting up relu1
I0428 19:30:31.682425 22308 net.cpp:131] Top shape: 64 10 (640)
I0428 19:30:31.682430 22308 net.cpp:139] Memory required for data: 1127680
I0428 19:30:31.682435 22308 layer_factory.hpp:77] Creating layer ip2
I0428 19:30:31.682443 22308 net.cpp:86] Creating Layer ip2
I0428 19:30:31.682448 22308 net.cpp:408] ip2 <- ip1
I0428 19:30:31.682456 22308 net.cpp:382] ip2 -> ip2
I0428 19:30:31.682551 22308 net.cpp:124] Setting up ip2
I0428 19:30:31.682560 22308 net.cpp:131] Top shape: 64 25 (1600)
I0428 19:30:31.682565 22308 net.cpp:139] Memory required for data: 1134080
I0428 19:30:31.682576 22308 layer_factory.hpp:77] Creating layer relu2
I0428 19:30:31.682584 22308 net.cpp:86] Creating Layer relu2
I0428 19:30:31.682590 22308 net.cpp:408] relu2 <- ip2
I0428 19:30:31.682597 22308 net.cpp:369] relu2 -> ip2 (in-place)
I0428 19:30:31.683351 22308 net.cpp:124] Setting up relu2
I0428 19:30:31.683365 22308 net.cpp:131] Top shape: 64 25 (1600)
I0428 19:30:31.683372 22308 net.cpp:139] Memory required for data: 1140480
I0428 19:30:31.683377 22308 layer_factory.hpp:77] Creating layer ip3
I0428 19:30:31.683388 22308 net.cpp:86] Creating Layer ip3
I0428 19:30:31.683394 22308 net.cpp:408] ip3 <- ip2
I0428 19:30:31.683403 22308 net.cpp:382] ip3 -> ip3
I0428 19:30:31.683518 22308 net.cpp:124] Setting up ip3
I0428 19:30:31.683527 22308 net.cpp:131] Top shape: 64 10 (640)
I0428 19:30:31.683532 22308 net.cpp:139] Memory required for data: 1143040
I0428 19:30:31.683542 22308 layer_factory.hpp:77] Creating layer relu3
I0428 19:30:31.683552 22308 net.cpp:86] Creating Layer relu3
I0428 19:30:31.683571 22308 net.cpp:408] relu3 <- ip3
I0428 19:30:31.683579 22308 net.cpp:369] relu3 -> ip3 (in-place)
I0428 19:30:31.683737 22308 net.cpp:124] Setting up relu3
I0428 19:30:31.683745 22308 net.cpp:131] Top shape: 64 10 (640)
I0428 19:30:31.683749 22308 net.cpp:139] Memory required for data: 1145600
I0428 19:30:31.683754 22308 layer_factory.hpp:77] Creating layer loss
I0428 19:30:31.683763 22308 net.cpp:86] Creating Layer loss
I0428 19:30:31.683768 22308 net.cpp:408] loss <- ip3
I0428 19:30:31.683773 22308 net.cpp:408] loss <- label
I0428 19:30:31.683781 22308 net.cpp:382] loss -> loss
I0428 19:30:31.683804 22308 layer_factory.hpp:77] Creating layer loss
…
I0428 19:30:31.684417 22308 solver.cpp:173] Creating test net (#0) specified by net file: ECE595/mnist/train_test/var_everything2/lenet_train_test93.prototxt
I0428 19:30:31.684461 22308 net.cpp:296] The NetState phase (1) differed from the phase (0) specified by a rule in layer mnist
I0428 19:30:31.684593 22308 net.cpp:53] Initializing net from parameters: 
name: "LeNet"
state {
  phase: TEST
}
layer {
  name: "mnist"
  type: "Data"
  top: "data"
  top: "label"
  include {
    phase: TEST
  }
  transform_param {
    scale: 0.00390625
  }
  data_param {
    source: "examples/mnist/mnist_test_lmdb"
    batch_size: 100
    backend: LMDB
  }
}
layer {
  name: "conv0"
  type: "Convolution"
  bottom: "data"
  top: "conv0"
  param {
    lr_mult: 1
  }
  param {
    lr_mult: 2
  }
  convolution_param {
    num_output: 5
    kernel_size: 5
    stride: 1
    weight_filler {
      type: "xavier"
    }
    bias_filler {
      type: "constant"
    }
  }
}
layer {
  name: "pool0"
  type: "Pooling"
  bottom: "conv0"
  top: "pool0"
  pooling_param {
    pool: MAX
    kernel_size: 2
    stride: 2
  }
}
layer {
  name: "ip1"
  type: "InnerProduct"
  bottom: "pool0"
  top: "ip1"
  param {
    lr_mult: 1
  }
  param {
    lr_mult: 2
  }
  inner_product_param {
    num_output: 10
    weight_filler {
      type: "xavier"
    }
    bias_filler {
      type: "constant"
    }
  }
}
layer {
  name: "relu1"
  type: "ReLU"
  bottom: "ip1"
  top: "ip1"
}
layer {
  name: "ip2"
  type: "InnerProduct"
  bottom: "ip1"
  top: "ip2"
  param {
    lr_mult: 1
  }
  param {
    lr_mult: 2
  }
  inner_product_param {
    num_output: 25
    weight_filler {
      type: "xavier"
    }
    bias_filler {
      type: "constant"
    }
  }
}
layer {
  name: "relu2"
  type: "ReLU"
  bottom: "ip2"
  top: "ip2"
}
layer {
  name: "ip3"
  type: "InnerProduct"
  bottom: "ip2"
  top: "ip3"
  param {
    lr_mult: 1
  }
  param {
    lr_mult: 2
  }
  inner_product_param {
    num_output: 10
    weight_filler {
      type: "xavier"
    }
    bias_filler {
      type: "constant"
    }
  }
}
layer {
  name: "relu3"
  type: "ReLU"
  bottom: "ip3"
  top: "ip3"
}
layer {
  name: "accuracy"
  type: "Accuracy"
  bottom: "ip3"
  bottom: "label"
  top: "accuracy"
  include {
    phase: TEST
  }
}
layer {
  name: "loss"
  type: "SoftmaxWithLoss"
  bottom: "ip3"
  bottom: "label"
  top: "loss"
}
I0428 19:30:31.684705 22308 layer_factory.hpp:77] Creating layer mnist
I0428 19:30:31.684764 22308 db_lmdb.cpp:35] Opened lmdb examples/mnist/mnist_test_lmdb
I0428 19:30:31.684782 22308 net.cpp:86] Creating Layer mnist
I0428 19:30:31.684789 22308 net.cpp:382] mnist -> data
I0428 19:30:31.684801 22308 net.cpp:382] mnist -> label
I0428 19:30:31.684973 22308 data_layer.cpp:45] output data size: 100,1,28,28
I0428 19:30:31.687095 22308 net.cpp:124] Setting up mnist
I0428 19:30:31.687125 22308 net.cpp:131] Top shape: 100 1 28 28 (78400)
I0428 19:30:31.687134 22308 net.cpp:131] Top shape: 100 (100)
I0428 19:30:31.687139 22308 net.cpp:139] Memory required for data: 314000
I0428 19:30:31.687144 22308 layer_factory.hpp:77] Creating layer label_mnist_1_split
I0428 19:30:31.687173 22308 net.cpp:86] Creating Layer label_mnist_1_split
I0428 19:30:31.687180 22308 net.cpp:408] label_mnist_1_split <- label
I0428 19:30:31.687188 22308 net.cpp:382] label_mnist_1_split -> label_mnist_1_split_0
I0428 19:30:31.687214 22308 net.cpp:382] label_mnist_1_split -> label_mnist_1_split_1
I0428 19:30:31.687281 22308 net.cpp:124] Setting up label_mnist_1_split
I0428 19:30:31.687290 22308 net.cpp:131] Top shape: 100 (100)
I0428 19:30:31.687296 22308 net.cpp:131] Top shape: 100 (100)
I0428 19:30:31.687302 22308 net.cpp:139] Memory required for data: 314800
I0428 19:30:31.687335 22308 layer_factory.hpp:77] Creating layer conv0
I0428 19:30:31.687350 22308 net.cpp:86] Creating Layer conv0
I0428 19:30:31.687356 22308 net.cpp:408] conv0 <- data
I0428 19:30:31.687366 22308 net.cpp:382] conv0 -> conv0
I0428 19:30:31.688948 22308 net.cpp:124] Setting up conv0
I0428 19:30:31.688964 22308 net.cpp:131] Top shape: 100 5 24 24 (288000)
I0428 19:30:31.688971 22308 net.cpp:139] Memory required for data: 1466800
I0428 19:30:31.688985 22308 layer_factory.hpp:77] Creating layer pool0
I0428 19:30:31.688995 22308 net.cpp:86] Creating Layer pool0
I0428 19:30:31.689003 22308 net.cpp:408] pool0 <- conv0
I0428 19:30:31.689012 22308 net.cpp:382] pool0 -> pool0
I0428 19:30:31.689080 22308 net.cpp:124] Setting up pool0
I0428 19:30:31.689088 22308 net.cpp:131] Top shape: 100 5 12 12 (72000)
I0428 19:30:31.689093 22308 net.cpp:139] Memory required for data: 1754800
I0428 19:30:31.689098 22308 layer_factory.hpp:77] Creating layer ip1
I0428 19:30:31.689108 22308 net.cpp:86] Creating Layer ip1
I0428 19:30:31.689113 22308 net.cpp:408] ip1 <- pool0
I0428 19:30:31.689121 22308 net.cpp:382] ip1 -> ip1
I0428 19:30:31.689309 22308 net.cpp:124] Setting up ip1
I0428 19:30:31.689318 22308 net.cpp:131] Top shape: 100 10 (1000)
I0428 19:30:31.689323 22308 net.cpp:139] Memory required for data: 1758800
I0428 19:30:31.689334 22308 layer_factory.hpp:77] Creating layer relu1
I0428 19:30:31.689342 22308 net.cpp:86] Creating Layer relu1
I0428 19:30:31.689347 22308 net.cpp:408] relu1 <- ip1
I0428 19:30:31.689354 22308 net.cpp:369] relu1 -> ip1 (in-place)
I0428 19:30:31.689602 22308 net.cpp:124] Setting up relu1
I0428 19:30:31.689613 22308 net.cpp:131] Top shape: 100 10 (1000)
I0428 19:30:31.689620 22308 net.cpp:139] Memory required for data: 1762800
I0428 19:30:31.689625 22308 layer_factory.hpp:77] Creating layer ip2
I0428 19:30:31.689633 22308 net.cpp:86] Creating Layer ip2
I0428 19:30:31.689640 22308 net.cpp:408] ip2 <- ip1
I0428 19:30:31.689648 22308 net.cpp:382] ip2 -> ip2
I0428 19:30:31.689766 22308 net.cpp:124] Setting up ip2
I0428 19:30:31.689790 22308 net.cpp:131] Top shape: 100 25 (2500)
I0428 19:30:31.689795 22308 net.cpp:139] Memory required for data: 1772800
I0428 19:30:31.689808 22308 layer_factory.hpp:77] Creating layer relu2
I0428 19:30:31.689815 22308 net.cpp:86] Creating Layer relu2
I0428 19:30:31.689822 22308 net.cpp:408] relu2 <- ip2
I0428 19:30:31.689829 22308 net.cpp:369] relu2 -> ip2 (in-place)
I0428 19:30:31.690599 22308 net.cpp:124] Setting up relu2
I0428 19:30:31.690611 22308 net.cpp:131] Top shape: 100 25 (2500)
I0428 19:30:31.690616 22308 net.cpp:139] Memory required for data: 1782800
I0428 19:30:31.690621 22308 layer_factory.hpp:77] Creating layer ip3
I0428 19:30:31.690632 22308 net.cpp:86] Creating Layer ip3
I0428 19:30:31.690639 22308 net.cpp:408] ip3 <- ip2
I0428 19:30:31.690646 22308 net.cpp:382] ip3 -> ip3
I0428 19:30:31.690865 22308 net.cpp:124] Setting up ip3
I0428 19:30:31.690876 22308 net.cpp:131] Top shape: 100 10 (1000)
I0428 19:30:31.690881 22308 net.cpp:139] Memory required for data: 1786800
I0428 19:30:31.690891 22308 layer_factory.hpp:77] Creating layer relu3
I0428 19:30:31.690899 22308 net.cpp:86] Creating Layer relu3
I0428 19:30:31.690906 22308 net.cpp:408] relu3 <- ip3
I0428 19:30:31.690913 22308 net.cpp:369] relu3 -> ip3 (in-place)
I0428 19:30:31.691103 22308 net.cpp:124] Setting up relu3
I0428 19:30:31.691128 22308 net.cpp:131] Top shape: 100 10 (1000)
I0428 19:30:31.691133 22308 net.cpp:139] Memory required for data: 1790800
I0428 19:30:31.691138 22308 layer_factory.hpp:77] Creating layer ip3_relu3_0_split
I0428 19:30:31.691145 22308 net.cpp:86] Creating Layer ip3_relu3_0_split
I0428 19:30:31.691150 22308 net.cpp:408] ip3_relu3_0_split <- ip3
I0428 19:30:31.691159 22308 net.cpp:382] ip3_relu3_0_split -> ip3_relu3_0_split_0
I0428 19:30:31.691167 22308 net.cpp:382] ip3_relu3_0_split -> ip3_relu3_0_split_1
I0428 19:30:31.691206 22308 net.cpp:124] Setting up ip3_relu3_0_split
I0428 19:30:31.691215 22308 net.cpp:131] Top shape: 100 10 (1000)
I0428 19:30:31.691220 22308 net.cpp:131] Top shape: 100 10 (1000)
I0428 19:30:31.691237 22308 net.cpp:139] Memory required for data: 1798800
I0428 19:30:31.691242 22308 layer_factory.hpp:77] Creating layer accuracy
I0428 19:30:31.691251 22308 net.cpp:86] Creating Layer accuracy
I0428 19:30:31.691256 22308 net.cpp:408] accuracy <- ip3_relu3_0_split_0
I0428 19:30:31.691263 22308 net.cpp:408] accuracy <- label_mnist_1_split_0
I0428 19:30:31.691270 22308 net.cpp:382] accuracy -> accuracy
…
