…
I0428 20:07:25.979578 31100 net.cpp:296] The NetState phase (0) differed from the phase (1) specified by a rule in layer mnist
I0428 20:07:25.979593 31100 net.cpp:296] The NetState phase (0) differed from the phase (1) specified by a rule in layer accuracy
I0428 20:07:25.979672 31100 net.cpp:53] Initializing net from parameters: 
name: "LeNet"
state {
  phase: TRAIN
  level: 0
  stage: ""
}
layer {
  name: "mnist"
  type: "Data"
  top: "data"
  top: "label"
  include {
    phase: TRAIN
  }
  transform_param {
    scale: 0.00390625
  }
  data_param {
    source: "examples/mnist/mnist_train_lmdb"
    batch_size: 64
    backend: LMDB
  }
}
layer {
  name: "conv0"
  type: "Convolution"
  bottom: "data"
  top: "conv0"
  param {
    lr_mult: 1
  }
  param {
    lr_mult: 2
  }
  convolution_param {
    num_output: 25
    kernel_size: 5
    stride: 1
    weight_filler {
      type: "xavier"
    }
    bias_filler {
      type: "constant"
    }
  }
}
layer {
  name: "pool0"
  type: "Pooling"
  bottom: "conv0"
  top: "pool0"
  pooling_param {
    pool: MAX
    kernel_size: 2
    stride: 2
  }
}
layer {
  name: "conv1"
  type: "Convolution"
  bottom: "pool0"
  top: "conv1"
  param {
    lr_mult: 1
  }
  param {
    lr_mult: 2
  }
  convolution_param {
    num_output: 10
    kernel_size: 5
    stride: 1
    weight_filler {
      type: "xavier"
    }
    bias_filler {
      type: "constant"
    }
  }
}
layer {
  name: "pool1"
  type: "Pooling"
  bottom: "conv1"
  top: "pool1"
  pooling_param {
    pool: MAX
    kernel_size: 2
    stride: 2
  }
}
layer {
  name: "ip1"
  type: "InnerProduct"
  bottom: "pool1"
  top: "ip1"
  param {
    lr_mult: 1
  }
  param {
    lr_mult: 2
  }
  inner_product_param {
    num_output: 10
    weight_filler {
      type: "xavier"
    }
    bias_filler {
      type: "constant"
    }
  }
}
layer {
  name: "relu1"
  type: "ReLU"
  bottom: "ip1"
  top: "ip1"
}
layer {
  name: "loss"
  type: "SoftmaxWithLoss"
  bottom: "ip1"
  bottom: "label"
  top: "loss"
}
I0428 20:07:25.979735 31100 layer_factory.hpp:77] Creating layer mnist
I0428 20:07:25.979835 31100 db_lmdb.cpp:35] Opened lmdb examples/mnist/mnist_train_lmdb
I0428 20:07:25.979857 31100 net.cpp:86] Creating Layer mnist
I0428 20:07:25.979864 31100 net.cpp:382] mnist -> data
I0428 20:07:25.979887 31100 net.cpp:382] mnist -> label
I0428 20:07:25.981065 31100 data_layer.cpp:45] output data size: 64,1,28,28
I0428 20:07:25.985035 31100 net.cpp:124] Setting up mnist
I0428 20:07:25.985071 31100 net.cpp:131] Top shape: 64 1 28 28 (50176)
I0428 20:07:25.985090 31100 net.cpp:131] Top shape: 64 (64)
I0428 20:07:25.985102 31100 net.cpp:139] Memory required for data: 200960
I0428 20:07:25.985121 31100 layer_factory.hpp:77] Creating layer conv0
I0428 20:07:25.985160 31100 net.cpp:86] Creating Layer conv0
I0428 20:07:25.985180 31100 net.cpp:408] conv0 <- data
I0428 20:07:25.985210 31100 net.cpp:382] conv0 -> conv0
I0428 20:07:26.303298 31100 net.cpp:124] Setting up conv0
I0428 20:07:26.303331 31100 net.cpp:131] Top shape: 64 25 24 24 (921600)
I0428 20:07:26.303339 31100 net.cpp:139] Memory required for data: 3887360
I0428 20:07:26.303364 31100 layer_factory.hpp:77] Creating layer pool0
I0428 20:07:26.303383 31100 net.cpp:86] Creating Layer pool0
I0428 20:07:26.303391 31100 net.cpp:408] pool0 <- conv0
I0428 20:07:26.303403 31100 net.cpp:382] pool0 -> pool0
I0428 20:07:26.303474 31100 net.cpp:124] Setting up pool0
I0428 20:07:26.303485 31100 net.cpp:131] Top shape: 64 25 12 12 (230400)
I0428 20:07:26.303514 31100 net.cpp:139] Memory required for data: 4808960
I0428 20:07:26.303521 31100 layer_factory.hpp:77] Creating layer conv1
I0428 20:07:26.303540 31100 net.cpp:86] Creating Layer conv1
I0428 20:07:26.303549 31100 net.cpp:408] conv1 <- pool0
I0428 20:07:26.303560 31100 net.cpp:382] conv1 -> conv1
I0428 20:07:26.306790 31100 net.cpp:124] Setting up conv1
I0428 20:07:26.306813 31100 net.cpp:131] Top shape: 64 10 8 8 (40960)
I0428 20:07:26.306820 31100 net.cpp:139] Memory required for data: 4972800
I0428 20:07:26.306836 31100 layer_factory.hpp:77] Creating layer pool1
I0428 20:07:26.306850 31100 net.cpp:86] Creating Layer pool1
I0428 20:07:26.306857 31100 net.cpp:408] pool1 <- conv1
I0428 20:07:26.306869 31100 net.cpp:382] pool1 -> pool1
I0428 20:07:26.306931 31100 net.cpp:124] Setting up pool1
I0428 20:07:26.306941 31100 net.cpp:131] Top shape: 64 10 4 4 (10240)
I0428 20:07:26.306947 31100 net.cpp:139] Memory required for data: 5013760
I0428 20:07:26.306953 31100 layer_factory.hpp:77] Creating layer ip1
I0428 20:07:26.306969 31100 net.cpp:86] Creating Layer ip1
I0428 20:07:26.306978 31100 net.cpp:408] ip1 <- pool1
I0428 20:07:26.306990 31100 net.cpp:382] ip1 -> ip1
I0428 20:07:26.308104 31100 net.cpp:124] Setting up ip1
I0428 20:07:26.308121 31100 net.cpp:131] Top shape: 64 10 (640)
I0428 20:07:26.308127 31100 net.cpp:139] Memory required for data: 5016320
I0428 20:07:26.308143 31100 layer_factory.hpp:77] Creating layer relu1
I0428 20:07:26.308157 31100 net.cpp:86] Creating Layer relu1
I0428 20:07:26.308171 31100 net.cpp:408] relu1 <- ip1
I0428 20:07:26.308181 31100 net.cpp:369] relu1 -> ip1 (in-place)
I0428 20:07:26.308408 31100 net.cpp:124] Setting up relu1
I0428 20:07:26.308423 31100 net.cpp:131] Top shape: 64 10 (640)
I0428 20:07:26.308429 31100 net.cpp:139] Memory required for data: 5018880
I0428 20:07:26.308435 31100 layer_factory.hpp:77] Creating layer loss
I0428 20:07:26.308445 31100 net.cpp:86] Creating Layer loss
I0428 20:07:26.308451 31100 net.cpp:408] loss <- ip1
I0428 20:07:26.308460 31100 net.cpp:408] loss <- label
I0428 20:07:26.308470 31100 net.cpp:382] loss -> loss
I0428 20:07:26.308492 31100 layer_factory.hpp:77] Creating layer loss
…
I0428 20:07:26.309917 31100 solver.cpp:173] Creating test net (#0) specified by net file: ECE595/mnist/train_test/var_everything2/lenet_train_test1055.prototxt
I0428 20:07:26.309954 31100 net.cpp:296] The NetState phase (1) differed from the phase (0) specified by a rule in layer mnist
I0428 20:07:26.310050 31100 net.cpp:53] Initializing net from parameters: 
name: "LeNet"
state {
  phase: TEST
}
layer {
  name: "mnist"
  type: "Data"
  top: "data"
  top: "label"
  include {
    phase: TEST
  }
  transform_param {
    scale: 0.00390625
  }
  data_param {
    source: "examples/mnist/mnist_test_lmdb"
    batch_size: 100
    backend: LMDB
  }
}
layer {
  name: "conv0"
  type: "Convolution"
  bottom: "data"
  top: "conv0"
  param {
    lr_mult: 1
  }
  param {
    lr_mult: 2
  }
  convolution_param {
    num_output: 25
    kernel_size: 5
    stride: 1
    weight_filler {
      type: "xavier"
    }
    bias_filler {
      type: "constant"
    }
  }
}
layer {
  name: "pool0"
  type: "Pooling"
  bottom: "conv0"
  top: "pool0"
  pooling_param {
    pool: MAX
    kernel_size: 2
    stride: 2
  }
}
layer {
  name: "conv1"
  type: "Convolution"
  bottom: "pool0"
  top: "conv1"
  param {
    lr_mult: 1
  }
  param {
    lr_mult: 2
  }
  convolution_param {
    num_output: 10
    kernel_size: 5
    stride: 1
    weight_filler {
      type: "xavier"
    }
    bias_filler {
      type: "constant"
    }
  }
}
layer {
  name: "pool1"
  type: "Pooling"
  bottom: "conv1"
  top: "pool1"
  pooling_param {
    pool: MAX
    kernel_size: 2
    stride: 2
  }
}
layer {
  name: "ip1"
  type: "InnerProduct"
  bottom: "pool1"
  top: "ip1"
  param {
    lr_mult: 1
  }
  param {
    lr_mult: 2
  }
  inner_product_param {
    num_output: 10
    weight_filler {
      type: "xavier"
    }
    bias_filler {
      type: "constant"
    }
  }
}
layer {
  name: "relu1"
  type: "ReLU"
  bottom: "ip1"
  top: "ip1"
}
layer {
  name: "accuracy"
  type: "Accuracy"
  bottom: "ip1"
  bottom: "label"
  top: "accuracy"
  include {
    phase: TEST
  }
}
layer {
  name: "loss"
  type: "SoftmaxWithLoss"
  bottom: "ip1"
  bottom: "label"
  top: "loss"
}
I0428 20:07:26.310178 31100 layer_factory.hpp:77] Creating layer mnist
I0428 20:07:26.310248 31100 db_lmdb.cpp:35] Opened lmdb examples/mnist/mnist_test_lmdb
I0428 20:07:26.310269 31100 net.cpp:86] Creating Layer mnist
I0428 20:07:26.310281 31100 net.cpp:382] mnist -> data
I0428 20:07:26.310295 31100 net.cpp:382] mnist -> label
I0428 20:07:26.310446 31100 data_layer.cpp:45] output data size: 100,1,28,28
I0428 20:07:26.312975 31100 net.cpp:124] Setting up mnist
I0428 20:07:26.312994 31100 net.cpp:131] Top shape: 100 1 28 28 (78400)
I0428 20:07:26.313004 31100 net.cpp:131] Top shape: 100 (100)
I0428 20:07:26.313010 31100 net.cpp:139] Memory required for data: 314000
I0428 20:07:26.313016 31100 layer_factory.hpp:77] Creating layer label_mnist_1_split
I0428 20:07:26.313050 31100 net.cpp:86] Creating Layer label_mnist_1_split
I0428 20:07:26.313057 31100 net.cpp:408] label_mnist_1_split <- label
I0428 20:07:26.313066 31100 net.cpp:382] label_mnist_1_split -> label_mnist_1_split_0
I0428 20:07:26.313079 31100 net.cpp:382] label_mnist_1_split -> label_mnist_1_split_1
I0428 20:07:26.313218 31100 net.cpp:124] Setting up label_mnist_1_split
I0428 20:07:26.313235 31100 net.cpp:131] Top shape: 100 (100)
I0428 20:07:26.313243 31100 net.cpp:131] Top shape: 100 (100)
I0428 20:07:26.313249 31100 net.cpp:139] Memory required for data: 314800
I0428 20:07:26.313256 31100 layer_factory.hpp:77] Creating layer conv0
I0428 20:07:26.313268 31100 net.cpp:86] Creating Layer conv0
I0428 20:07:26.313272 31100 net.cpp:408] conv0 <- data
I0428 20:07:26.313280 31100 net.cpp:382] conv0 -> conv0
I0428 20:07:26.314241 31100 net.cpp:124] Setting up conv0
I0428 20:07:26.314256 31100 net.cpp:131] Top shape: 100 25 24 24 (1440000)
I0428 20:07:26.314260 31100 net.cpp:139] Memory required for data: 6074800
I0428 20:07:26.314271 31100 layer_factory.hpp:77] Creating layer pool0
I0428 20:07:26.314281 31100 net.cpp:86] Creating Layer pool0
I0428 20:07:26.314285 31100 net.cpp:408] pool0 <- conv0
I0428 20:07:26.314291 31100 net.cpp:382] pool0 -> pool0
I0428 20:07:26.314334 31100 net.cpp:124] Setting up pool0
I0428 20:07:26.314343 31100 net.cpp:131] Top shape: 100 25 12 12 (360000)
I0428 20:07:26.314347 31100 net.cpp:139] Memory required for data: 7514800
I0428 20:07:26.314350 31100 layer_factory.hpp:77] Creating layer conv1
I0428 20:07:26.314360 31100 net.cpp:86] Creating Layer conv1
I0428 20:07:26.314364 31100 net.cpp:408] conv1 <- pool0
I0428 20:07:26.314371 31100 net.cpp:382] conv1 -> conv1
I0428 20:07:26.316790 31100 net.cpp:124] Setting up conv1
I0428 20:07:26.316805 31100 net.cpp:131] Top shape: 100 10 8 8 (64000)
I0428 20:07:26.316819 31100 net.cpp:139] Memory required for data: 7770800
I0428 20:07:26.316833 31100 layer_factory.hpp:77] Creating layer pool1
I0428 20:07:26.316839 31100 net.cpp:86] Creating Layer pool1
I0428 20:07:26.316860 31100 net.cpp:408] pool1 <- conv1
I0428 20:07:26.316869 31100 net.cpp:382] pool1 -> pool1
I0428 20:07:26.316944 31100 net.cpp:124] Setting up pool1
I0428 20:07:26.316953 31100 net.cpp:131] Top shape: 100 10 4 4 (16000)
I0428 20:07:26.316957 31100 net.cpp:139] Memory required for data: 7834800
I0428 20:07:26.316961 31100 layer_factory.hpp:77] Creating layer ip1
I0428 20:07:26.316969 31100 net.cpp:86] Creating Layer ip1
I0428 20:07:26.316973 31100 net.cpp:408] ip1 <- pool1
I0428 20:07:26.316979 31100 net.cpp:382] ip1 -> ip1
I0428 20:07:26.317113 31100 net.cpp:124] Setting up ip1
I0428 20:07:26.317122 31100 net.cpp:131] Top shape: 100 10 (1000)
I0428 20:07:26.317126 31100 net.cpp:139] Memory required for data: 7838800
I0428 20:07:26.317136 31100 layer_factory.hpp:77] Creating layer relu1
I0428 20:07:26.317145 31100 net.cpp:86] Creating Layer relu1
I0428 20:07:26.317149 31100 net.cpp:408] relu1 <- ip1
I0428 20:07:26.317154 31100 net.cpp:369] relu1 -> ip1 (in-place)
I0428 20:07:26.318087 31100 net.cpp:124] Setting up relu1
I0428 20:07:26.318101 31100 net.cpp:131] Top shape: 100 10 (1000)
I0428 20:07:26.318105 31100 net.cpp:139] Memory required for data: 7842800
I0428 20:07:26.318109 31100 layer_factory.hpp:77] Creating layer ip1_relu1_0_split
I0428 20:07:26.318117 31100 net.cpp:86] Creating Layer ip1_relu1_0_split
I0428 20:07:26.318121 31100 net.cpp:408] ip1_relu1_0_split <- ip1
I0428 20:07:26.318127 31100 net.cpp:382] ip1_relu1_0_split -> ip1_relu1_0_split_0
I0428 20:07:26.318136 31100 net.cpp:382] ip1_relu1_0_split -> ip1_relu1_0_split_1
I0428 20:07:26.318186 31100 net.cpp:124] Setting up ip1_relu1_0_split
I0428 20:07:26.318192 31100 net.cpp:131] Top shape: 100 10 (1000)
I0428 20:07:26.318195 31100 net.cpp:131] Top shape: 100 10 (1000)
I0428 20:07:26.318199 31100 net.cpp:139] Memory required for data: 7850800
I0428 20:07:26.318202 31100 layer_factory.hpp:77] Creating layer accuracy
I0428 20:07:26.318210 31100 net.cpp:86] Creating Layer accuracy
I0428 20:07:26.318214 31100 net.cpp:408] accuracy <- ip1_relu1_0_split_0
I0428 20:07:26.318225 31100 net.cpp:408] accuracy <- label_mnist_1_split_0
I0428 20:07:26.318230 31100 net.cpp:382] accuracy -> accuracy
…
