…
I0428 20:04:00.934617 30304 net.cpp:296] The NetState phase (0) differed from the phase (1) specified by a rule in layer mnist
I0428 20:04:00.934631 30304 net.cpp:296] The NetState phase (0) differed from the phase (1) specified by a rule in layer accuracy
I0428 20:04:00.934713 30304 net.cpp:53] Initializing net from parameters: 
name: "LeNet"
state {
  phase: TRAIN
  level: 0
  stage: ""
}
layer {
  name: "mnist"
  type: "Data"
  top: "data"
  top: "label"
  include {
    phase: TRAIN
  }
  transform_param {
    scale: 0.00390625
  }
  data_param {
    source: "examples/mnist/mnist_train_lmdb"
    batch_size: 64
    backend: LMDB
  }
}
layer {
  name: "conv0"
  type: "Convolution"
  bottom: "data"
  top: "conv0"
  param {
    lr_mult: 1
  }
  param {
    lr_mult: 2
  }
  convolution_param {
    num_output: 10
    kernel_size: 5
    stride: 1
    weight_filler {
      type: "xavier"
    }
    bias_filler {
      type: "constant"
    }
  }
}
layer {
  name: "pool0"
  type: "Pooling"
  bottom: "conv0"
  top: "pool0"
  pooling_param {
    pool: MAX
    kernel_size: 2
    stride: 2
  }
}
layer {
  name: "conv1"
  type: "Convolution"
  bottom: "pool0"
  top: "conv1"
  param {
    lr_mult: 1
  }
  param {
    lr_mult: 2
  }
  convolution_param {
    num_output: 100
    kernel_size: 5
    stride: 1
    weight_filler {
      type: "xavier"
    }
    bias_filler {
      type: "constant"
    }
  }
}
layer {
  name: "pool1"
  type: "Pooling"
  bottom: "conv1"
  top: "pool1"
  pooling_param {
    pool: MAX
    kernel_size: 2
    stride: 2
  }
}
layer {
  name: "ip1"
  type: "InnerProduct"
  bottom: "pool1"
  top: "ip1"
  param {
    lr_mult: 1
  }
  param {
    lr_mult: 2
  }
  inner_product_param {
    num_output: 25
    weight_filler {
      type: "xavier"
    }
    bias_filler {
      type: "constant"
    }
  }
}
layer {
  name: "relu1"
  type: "ReLU"
  bottom: "ip1"
  top: "ip1"
}
layer {
  name: "ip2"
  type: "InnerProduct"
  bottom: "ip1"
  top: "ip2"
  param {
    lr_mult: 1
  }
  param {
    lr_mult: 2
  }
  inner_product_param {
    num_output: 50
    weight_filler {
      type: "xavier"
    }
    bias_filler {
      type: "constant"
    }
  }
}
layer {
  name: "relu2"
  type: "ReLU"
  bottom: "ip2"
  top: "ip2"
}
layer {
  name: "ip3"
  type: "InnerProduct"
  bottom: "ip2"
  top: "ip3"
  param {
    lr_mult: 1
  }
  param {
    lr_mult: 2
  }
  inner_product_param {
    num_output: 10
    weight_filler {
      type: "xavier"
    }
    bias_filler {
      type: "constant"
    }
  }
}
layer {
  name: "relu3"
  type: "ReLU"
  bottom: "ip3"
  top: "ip3"
}
layer {
  name: "loss"
  type: "SoftmaxWithLoss"
  bottom: "ip3"
  bottom: "label"
  top: "loss"
}
I0428 20:04:00.934779 30304 layer_factory.hpp:77] Creating layer mnist
I0428 20:04:00.934859 30304 db_lmdb.cpp:35] Opened lmdb examples/mnist/mnist_train_lmdb
I0428 20:04:00.934880 30304 net.cpp:86] Creating Layer mnist
I0428 20:04:00.934885 30304 net.cpp:382] mnist -> data
I0428 20:04:00.934904 30304 net.cpp:382] mnist -> label
I0428 20:04:00.935834 30304 data_layer.cpp:45] output data size: 64,1,28,28
I0428 20:04:00.937935 30304 net.cpp:124] Setting up mnist
I0428 20:04:00.937958 30304 net.cpp:131] Top shape: 64 1 28 28 (50176)
I0428 20:04:00.937983 30304 net.cpp:131] Top shape: 64 (64)
I0428 20:04:00.937985 30304 net.cpp:139] Memory required for data: 200960
I0428 20:04:00.937991 30304 layer_factory.hpp:77] Creating layer conv0
I0428 20:04:00.938005 30304 net.cpp:86] Creating Layer conv0
I0428 20:04:00.938024 30304 net.cpp:408] conv0 <- data
I0428 20:04:00.938033 30304 net.cpp:382] conv0 -> conv0
I0428 20:04:01.169193 30304 net.cpp:124] Setting up conv0
I0428 20:04:01.169236 30304 net.cpp:131] Top shape: 64 10 24 24 (368640)
I0428 20:04:01.169240 30304 net.cpp:139] Memory required for data: 1675520
I0428 20:04:01.169255 30304 layer_factory.hpp:77] Creating layer pool0
I0428 20:04:01.169267 30304 net.cpp:86] Creating Layer pool0
I0428 20:04:01.169271 30304 net.cpp:408] pool0 <- conv0
I0428 20:04:01.169276 30304 net.cpp:382] pool0 -> pool0
I0428 20:04:01.169337 30304 net.cpp:124] Setting up pool0
I0428 20:04:01.169344 30304 net.cpp:131] Top shape: 64 10 12 12 (92160)
I0428 20:04:01.169348 30304 net.cpp:139] Memory required for data: 2044160
I0428 20:04:01.169350 30304 layer_factory.hpp:77] Creating layer conv1
I0428 20:04:01.169361 30304 net.cpp:86] Creating Layer conv1
I0428 20:04:01.169368 30304 net.cpp:408] conv1 <- pool0
I0428 20:04:01.169373 30304 net.cpp:382] conv1 -> conv1
I0428 20:04:01.171358 30304 net.cpp:124] Setting up conv1
I0428 20:04:01.171372 30304 net.cpp:131] Top shape: 64 100 8 8 (409600)
I0428 20:04:01.171376 30304 net.cpp:139] Memory required for data: 3682560
I0428 20:04:01.171385 30304 layer_factory.hpp:77] Creating layer pool1
I0428 20:04:01.171391 30304 net.cpp:86] Creating Layer pool1
I0428 20:04:01.171396 30304 net.cpp:408] pool1 <- conv1
I0428 20:04:01.171401 30304 net.cpp:382] pool1 -> pool1
I0428 20:04:01.171437 30304 net.cpp:124] Setting up pool1
I0428 20:04:01.171443 30304 net.cpp:131] Top shape: 64 100 4 4 (102400)
I0428 20:04:01.171447 30304 net.cpp:139] Memory required for data: 4092160
I0428 20:04:01.171449 30304 layer_factory.hpp:77] Creating layer ip1
I0428 20:04:01.171456 30304 net.cpp:86] Creating Layer ip1
I0428 20:04:01.171459 30304 net.cpp:408] ip1 <- pool1
I0428 20:04:01.171465 30304 net.cpp:382] ip1 -> ip1
I0428 20:04:01.171784 30304 net.cpp:124] Setting up ip1
I0428 20:04:01.171792 30304 net.cpp:131] Top shape: 64 25 (1600)
I0428 20:04:01.171797 30304 net.cpp:139] Memory required for data: 4098560
I0428 20:04:01.171803 30304 layer_factory.hpp:77] Creating layer relu1
I0428 20:04:01.171809 30304 net.cpp:86] Creating Layer relu1
I0428 20:04:01.171813 30304 net.cpp:408] relu1 <- ip1
I0428 20:04:01.171816 30304 net.cpp:369] relu1 -> ip1 (in-place)
I0428 20:04:01.171974 30304 net.cpp:124] Setting up relu1
I0428 20:04:01.171983 30304 net.cpp:131] Top shape: 64 25 (1600)
I0428 20:04:01.171985 30304 net.cpp:139] Memory required for data: 4104960
I0428 20:04:01.171988 30304 layer_factory.hpp:77] Creating layer ip2
I0428 20:04:01.171994 30304 net.cpp:86] Creating Layer ip2
I0428 20:04:01.171998 30304 net.cpp:408] ip2 <- ip1
I0428 20:04:01.172003 30304 net.cpp:382] ip2 -> ip2
I0428 20:04:01.173077 30304 net.cpp:124] Setting up ip2
I0428 20:04:01.173091 30304 net.cpp:131] Top shape: 64 50 (3200)
I0428 20:04:01.173095 30304 net.cpp:139] Memory required for data: 4117760
I0428 20:04:01.173101 30304 layer_factory.hpp:77] Creating layer relu2
I0428 20:04:01.173108 30304 net.cpp:86] Creating Layer relu2
I0428 20:04:01.173112 30304 net.cpp:408] relu2 <- ip2
I0428 20:04:01.173117 30304 net.cpp:369] relu2 -> ip2 (in-place)
I0428 20:04:01.173856 30304 net.cpp:124] Setting up relu2
I0428 20:04:01.173868 30304 net.cpp:131] Top shape: 64 50 (3200)
I0428 20:04:01.173872 30304 net.cpp:139] Memory required for data: 4130560
I0428 20:04:01.173876 30304 layer_factory.hpp:77] Creating layer ip3
I0428 20:04:01.173882 30304 net.cpp:86] Creating Layer ip3
I0428 20:04:01.173885 30304 net.cpp:408] ip3 <- ip2
I0428 20:04:01.173892 30304 net.cpp:382] ip3 -> ip3
I0428 20:04:01.173990 30304 net.cpp:124] Setting up ip3
I0428 20:04:01.173996 30304 net.cpp:131] Top shape: 64 10 (640)
I0428 20:04:01.174000 30304 net.cpp:139] Memory required for data: 4133120
I0428 20:04:01.174008 30304 layer_factory.hpp:77] Creating layer relu3
I0428 20:04:01.174015 30304 net.cpp:86] Creating Layer relu3
I0428 20:04:01.174017 30304 net.cpp:408] relu3 <- ip3
I0428 20:04:01.174021 30304 net.cpp:369] relu3 -> ip3 (in-place)
I0428 20:04:01.174177 30304 net.cpp:124] Setting up relu3
I0428 20:04:01.174185 30304 net.cpp:131] Top shape: 64 10 (640)
I0428 20:04:01.174188 30304 net.cpp:139] Memory required for data: 4135680
I0428 20:04:01.174192 30304 layer_factory.hpp:77] Creating layer loss
I0428 20:04:01.174197 30304 net.cpp:86] Creating Layer loss
I0428 20:04:01.174201 30304 net.cpp:408] loss <- ip3
I0428 20:04:01.174204 30304 net.cpp:408] loss <- label
I0428 20:04:01.174211 30304 net.cpp:382] loss -> loss
I0428 20:04:01.174227 30304 layer_factory.hpp:77] Creating layer loss
…
I0428 20:04:01.174873 30304 solver.cpp:173] Creating test net (#0) specified by net file: ECE595/mnist/train_test/var_everything2/lenet_train_test963.prototxt
I0428 20:04:01.174932 30304 net.cpp:296] The NetState phase (1) differed from the phase (0) specified by a rule in layer mnist
I0428 20:04:01.175022 30304 net.cpp:53] Initializing net from parameters: 
name: "LeNet"
state {
  phase: TEST
}
layer {
  name: "mnist"
  type: "Data"
  top: "data"
  top: "label"
  include {
    phase: TEST
  }
  transform_param {
    scale: 0.00390625
  }
  data_param {
    source: "examples/mnist/mnist_test_lmdb"
    batch_size: 100
    backend: LMDB
  }
}
layer {
  name: "conv0"
  type: "Convolution"
  bottom: "data"
  top: "conv0"
  param {
    lr_mult: 1
  }
  param {
    lr_mult: 2
  }
  convolution_param {
    num_output: 10
    kernel_size: 5
    stride: 1
    weight_filler {
      type: "xavier"
    }
    bias_filler {
      type: "constant"
    }
  }
}
layer {
  name: "pool0"
  type: "Pooling"
  bottom: "conv0"
  top: "pool0"
  pooling_param {
    pool: MAX
    kernel_size: 2
    stride: 2
  }
}
layer {
  name: "conv1"
  type: "Convolution"
  bottom: "pool0"
  top: "conv1"
  param {
    lr_mult: 1
  }
  param {
    lr_mult: 2
  }
  convolution_param {
    num_output: 100
    kernel_size: 5
    stride: 1
    weight_filler {
      type: "xavier"
    }
    bias_filler {
      type: "constant"
    }
  }
}
layer {
  name: "pool1"
  type: "Pooling"
  bottom: "conv1"
  top: "pool1"
  pooling_param {
    pool: MAX
    kernel_size: 2
    stride: 2
  }
}
layer {
  name: "ip1"
  type: "InnerProduct"
  bottom: "pool1"
  top: "ip1"
  param {
    lr_mult: 1
  }
  param {
    lr_mult: 2
  }
  inner_product_param {
    num_output: 25
    weight_filler {
      type: "xavier"
    }
    bias_filler {
      type: "constant"
    }
  }
}
layer {
  name: "relu1"
  type: "ReLU"
  bottom: "ip1"
  top: "ip1"
}
layer {
  name: "ip2"
  type: "InnerProduct"
  bottom: "ip1"
  top: "ip2"
  param {
    lr_mult: 1
  }
  param {
    lr_mult: 2
  }
  inner_product_param {
    num_output: 50
    weight_filler {
      type: "xavier"
    }
    bias_filler {
      type: "constant"
    }
  }
}
layer {
  name: "relu2"
  type: "ReLU"
  bottom: "ip2"
  top: "ip2"
}
layer {
  name: "ip3"
  type: "InnerProduct"
  bottom: "ip2"
  top: "ip3"
  param {
    lr_mult: 1
  }
  param {
    lr_mult: 2
  }
  inner_product_param {
    num_output: 10
    weight_filler {
      type: "xavier"
    }
    bias_filler {
      type: "constant"
    }
  }
}
layer {
  name: "relu3"
  type: "ReLU"
  bottom: "ip3"
  top: "ip3"
}
layer {
  name: "accuracy"
  type: "Accuracy"
  bottom: "ip3"
  bottom: "label"
  top: "accuracy"
  include {
    phase: TEST
  }
}
layer {
  name: "loss"
  type: "SoftmaxWithLoss"
  bottom: "ip3"
  bottom: "label"
  top: "loss"
}
I0428 20:04:01.175102 30304 layer_factory.hpp:77] Creating layer mnist
I0428 20:04:01.175148 30304 db_lmdb.cpp:35] Opened lmdb examples/mnist/mnist_test_lmdb
I0428 20:04:01.175190 30304 net.cpp:86] Creating Layer mnist
I0428 20:04:01.175195 30304 net.cpp:382] mnist -> data
I0428 20:04:01.175204 30304 net.cpp:382] mnist -> label
I0428 20:04:01.175287 30304 data_layer.cpp:45] output data size: 100,1,28,28
I0428 20:04:01.177472 30304 net.cpp:124] Setting up mnist
I0428 20:04:01.177485 30304 net.cpp:131] Top shape: 100 1 28 28 (78400)
I0428 20:04:01.177505 30304 net.cpp:131] Top shape: 100 (100)
I0428 20:04:01.177508 30304 net.cpp:139] Memory required for data: 314000
I0428 20:04:01.177523 30304 layer_factory.hpp:77] Creating layer label_mnist_1_split
I0428 20:04:01.177533 30304 net.cpp:86] Creating Layer label_mnist_1_split
I0428 20:04:01.177537 30304 net.cpp:408] label_mnist_1_split <- label
I0428 20:04:01.177542 30304 net.cpp:382] label_mnist_1_split -> label_mnist_1_split_0
I0428 20:04:01.177548 30304 net.cpp:382] label_mnist_1_split -> label_mnist_1_split_1
I0428 20:04:01.177623 30304 net.cpp:124] Setting up label_mnist_1_split
I0428 20:04:01.177630 30304 net.cpp:131] Top shape: 100 (100)
I0428 20:04:01.177634 30304 net.cpp:131] Top shape: 100 (100)
I0428 20:04:01.177636 30304 net.cpp:139] Memory required for data: 314800
I0428 20:04:01.177639 30304 layer_factory.hpp:77] Creating layer conv0
I0428 20:04:01.177649 30304 net.cpp:86] Creating Layer conv0
I0428 20:04:01.177654 30304 net.cpp:408] conv0 <- data
I0428 20:04:01.177659 30304 net.cpp:382] conv0 -> conv0
I0428 20:04:01.179152 30304 net.cpp:124] Setting up conv0
I0428 20:04:01.179165 30304 net.cpp:131] Top shape: 100 10 24 24 (576000)
I0428 20:04:01.179185 30304 net.cpp:139] Memory required for data: 2618800
I0428 20:04:01.179205 30304 layer_factory.hpp:77] Creating layer pool0
I0428 20:04:01.179213 30304 net.cpp:86] Creating Layer pool0
I0428 20:04:01.179215 30304 net.cpp:408] pool0 <- conv0
I0428 20:04:01.179220 30304 net.cpp:382] pool0 -> pool0
I0428 20:04:01.179255 30304 net.cpp:124] Setting up pool0
I0428 20:04:01.179262 30304 net.cpp:131] Top shape: 100 10 12 12 (144000)
I0428 20:04:01.179265 30304 net.cpp:139] Memory required for data: 3194800
I0428 20:04:01.179268 30304 layer_factory.hpp:77] Creating layer conv1
I0428 20:04:01.179277 30304 net.cpp:86] Creating Layer conv1
I0428 20:04:01.179280 30304 net.cpp:408] conv1 <- pool0
I0428 20:04:01.179286 30304 net.cpp:382] conv1 -> conv1
I0428 20:04:01.180886 30304 net.cpp:124] Setting up conv1
I0428 20:04:01.180930 30304 net.cpp:131] Top shape: 100 100 8 8 (640000)
I0428 20:04:01.180934 30304 net.cpp:139] Memory required for data: 5754800
I0428 20:04:01.180944 30304 layer_factory.hpp:77] Creating layer pool1
I0428 20:04:01.180951 30304 net.cpp:86] Creating Layer pool1
I0428 20:04:01.180955 30304 net.cpp:408] pool1 <- conv1
I0428 20:04:01.180961 30304 net.cpp:382] pool1 -> pool1
I0428 20:04:01.180999 30304 net.cpp:124] Setting up pool1
I0428 20:04:01.181006 30304 net.cpp:131] Top shape: 100 100 4 4 (160000)
I0428 20:04:01.181010 30304 net.cpp:139] Memory required for data: 6394800
I0428 20:04:01.181015 30304 layer_factory.hpp:77] Creating layer ip1
I0428 20:04:01.181020 30304 net.cpp:86] Creating Layer ip1
I0428 20:04:01.181027 30304 net.cpp:408] ip1 <- pool1
I0428 20:04:01.181032 30304 net.cpp:382] ip1 -> ip1
I0428 20:04:01.181418 30304 net.cpp:124] Setting up ip1
I0428 20:04:01.181427 30304 net.cpp:131] Top shape: 100 25 (2500)
I0428 20:04:01.181464 30304 net.cpp:139] Memory required for data: 6404800
I0428 20:04:01.181473 30304 layer_factory.hpp:77] Creating layer relu1
I0428 20:04:01.181478 30304 net.cpp:86] Creating Layer relu1
I0428 20:04:01.181483 30304 net.cpp:408] relu1 <- ip1
I0428 20:04:01.181501 30304 net.cpp:369] relu1 -> ip1 (in-place)
I0428 20:04:01.181731 30304 net.cpp:124] Setting up relu1
I0428 20:04:01.181740 30304 net.cpp:131] Top shape: 100 25 (2500)
I0428 20:04:01.181743 30304 net.cpp:139] Memory required for data: 6414800
I0428 20:04:01.181746 30304 layer_factory.hpp:77] Creating layer ip2
I0428 20:04:01.181753 30304 net.cpp:86] Creating Layer ip2
I0428 20:04:01.181756 30304 net.cpp:408] ip2 <- ip1
I0428 20:04:01.181762 30304 net.cpp:382] ip2 -> ip2
I0428 20:04:01.181881 30304 net.cpp:124] Setting up ip2
I0428 20:04:01.181888 30304 net.cpp:131] Top shape: 100 50 (5000)
I0428 20:04:01.181892 30304 net.cpp:139] Memory required for data: 6434800
I0428 20:04:01.181897 30304 layer_factory.hpp:77] Creating layer relu2
I0428 20:04:01.181902 30304 net.cpp:86] Creating Layer relu2
I0428 20:04:01.181906 30304 net.cpp:408] relu2 <- ip2
I0428 20:04:01.181910 30304 net.cpp:369] relu2 -> ip2 (in-place)
I0428 20:04:01.182056 30304 net.cpp:124] Setting up relu2
I0428 20:04:01.182065 30304 net.cpp:131] Top shape: 100 50 (5000)
I0428 20:04:01.182068 30304 net.cpp:139] Memory required for data: 6454800
I0428 20:04:01.182072 30304 layer_factory.hpp:77] Creating layer ip3
I0428 20:04:01.182077 30304 net.cpp:86] Creating Layer ip3
I0428 20:04:01.182080 30304 net.cpp:408] ip3 <- ip2
I0428 20:04:01.182086 30304 net.cpp:382] ip3 -> ip3
I0428 20:04:01.182183 30304 net.cpp:124] Setting up ip3
I0428 20:04:01.182190 30304 net.cpp:131] Top shape: 100 10 (1000)
I0428 20:04:01.182193 30304 net.cpp:139] Memory required for data: 6458800
I0428 20:04:01.182201 30304 layer_factory.hpp:77] Creating layer relu3
I0428 20:04:01.182214 30304 net.cpp:86] Creating Layer relu3
I0428 20:04:01.182216 30304 net.cpp:408] relu3 <- ip3
I0428 20:04:01.182221 30304 net.cpp:369] relu3 -> ip3 (in-place)
I0428 20:04:01.183059 30304 net.cpp:124] Setting up relu3
I0428 20:04:01.183071 30304 net.cpp:131] Top shape: 100 10 (1000)
I0428 20:04:01.183090 30304 net.cpp:139] Memory required for data: 6462800
I0428 20:04:01.183094 30304 layer_factory.hpp:77] Creating layer ip3_relu3_0_split
I0428 20:04:01.183099 30304 net.cpp:86] Creating Layer ip3_relu3_0_split
I0428 20:04:01.183102 30304 net.cpp:408] ip3_relu3_0_split <- ip3
I0428 20:04:01.183109 30304 net.cpp:382] ip3_relu3_0_split -> ip3_relu3_0_split_0
I0428 20:04:01.183115 30304 net.cpp:382] ip3_relu3_0_split -> ip3_relu3_0_split_1
I0428 20:04:01.183156 30304 net.cpp:124] Setting up ip3_relu3_0_split
I0428 20:04:01.183163 30304 net.cpp:131] Top shape: 100 10 (1000)
I0428 20:04:01.183167 30304 net.cpp:131] Top shape: 100 10 (1000)
I0428 20:04:01.183171 30304 net.cpp:139] Memory required for data: 6470800
I0428 20:04:01.183173 30304 layer_factory.hpp:77] Creating layer accuracy
I0428 20:04:01.183178 30304 net.cpp:86] Creating Layer accuracy
I0428 20:04:01.183184 30304 net.cpp:408] accuracy <- ip3_relu3_0_split_0
I0428 20:04:01.183188 30304 net.cpp:408] accuracy <- label_mnist_1_split_0
I0428 20:04:01.183209 30304 net.cpp:382] accuracy -> accuracy
…
