…
I0428 19:30:25.681516 22284 net.cpp:296] The NetState phase (0) differed from the phase (1) specified by a rule in layer mnist
I0428 19:30:25.681537 22284 net.cpp:296] The NetState phase (0) differed from the phase (1) specified by a rule in layer accuracy
I0428 19:30:25.681630 22284 net.cpp:53] Initializing net from parameters: 
name: "LeNet"
state {
  phase: TRAIN
  level: 0
  stage: ""
}
layer {
  name: "mnist"
  type: "Data"
  top: "data"
  top: "label"
  include {
    phase: TRAIN
  }
  transform_param {
    scale: 0.00390625
  }
  data_param {
    source: "examples/mnist/mnist_train_lmdb"
    batch_size: 64
    backend: LMDB
  }
}
layer {
  name: "conv0"
  type: "Convolution"
  bottom: "data"
  top: "conv0"
  param {
    lr_mult: 1
  }
  param {
    lr_mult: 2
  }
  convolution_param {
    num_output: 5
    kernel_size: 5
    stride: 1
    weight_filler {
      type: "xavier"
    }
    bias_filler {
      type: "constant"
    }
  }
}
layer {
  name: "pool0"
  type: "Pooling"
  bottom: "conv0"
  top: "pool0"
  pooling_param {
    pool: MAX
    kernel_size: 2
    stride: 2
  }
}
layer {
  name: "ip1"
  type: "InnerProduct"
  bottom: "pool0"
  top: "ip1"
  param {
    lr_mult: 1
  }
  param {
    lr_mult: 2
  }
  inner_product_param {
    num_output: 10
    weight_filler {
      type: "xavier"
    }
    bias_filler {
      type: "constant"
    }
  }
}
layer {
  name: "relu1"
  type: "ReLU"
  bottom: "ip1"
  top: "ip1"
}
layer {
  name: "ip2"
  type: "InnerProduct"
  bottom: "ip1"
  top: "ip2"
  param {
    lr_mult: 1
  }
  param {
    lr_mult: 2
  }
  inner_product_param {
    num_output: 10
    weight_filler {
      type: "xavier"
    }
    bias_filler {
      type: "constant"
    }
  }
}
layer {
  name: "relu2"
  type: "ReLU"
  bottom: "ip2"
  top: "ip2"
}
layer {
  name: "ip3"
  type: "InnerProduct"
  bottom: "ip2"
  top: "ip3"
  param {
    lr_mult: 1
  }
  param {
    lr_mult: 2
  }
  inner_product_param {
    num_output: 10
    weight_filler {
      type: "xavier"
    }
    bias_filler {
      type: "constant"
    }
  }
}
layer {
  name: "relu3"
  type: "ReLU"
  bottom: "ip3"
  top: "ip3"
}
layer {
  name: "loss"
  type: "SoftmaxWithLoss"
  bottom: "ip3"
  bottom: "label"
  top: "loss"
}
I0428 19:30:25.681727 22284 layer_factory.hpp:77] Creating layer mnist
I0428 19:30:25.681869 22284 db_lmdb.cpp:35] Opened lmdb examples/mnist/mnist_train_lmdb
I0428 19:30:25.681902 22284 net.cpp:86] Creating Layer mnist
I0428 19:30:25.681915 22284 net.cpp:382] mnist -> data
I0428 19:30:25.681946 22284 net.cpp:382] mnist -> label
I0428 19:30:25.683181 22284 data_layer.cpp:45] output data size: 64,1,28,28
I0428 19:30:25.685665 22284 net.cpp:124] Setting up mnist
I0428 19:30:25.685685 22284 net.cpp:131] Top shape: 64 1 28 28 (50176)
I0428 19:30:25.685695 22284 net.cpp:131] Top shape: 64 (64)
I0428 19:30:25.685703 22284 net.cpp:139] Memory required for data: 200960
I0428 19:30:25.685714 22284 layer_factory.hpp:77] Creating layer conv0
I0428 19:30:25.685736 22284 net.cpp:86] Creating Layer conv0
I0428 19:30:25.685746 22284 net.cpp:408] conv0 <- data
I0428 19:30:25.685763 22284 net.cpp:382] conv0 -> conv0
I0428 19:30:25.975080 22284 net.cpp:124] Setting up conv0
I0428 19:30:25.975113 22284 net.cpp:131] Top shape: 64 5 24 24 (184320)
I0428 19:30:25.975121 22284 net.cpp:139] Memory required for data: 938240
I0428 19:30:25.975143 22284 layer_factory.hpp:77] Creating layer pool0
I0428 19:30:25.975163 22284 net.cpp:86] Creating Layer pool0
I0428 19:30:25.975195 22284 net.cpp:408] pool0 <- conv0
I0428 19:30:25.975208 22284 net.cpp:382] pool0 -> pool0
I0428 19:30:25.975275 22284 net.cpp:124] Setting up pool0
I0428 19:30:25.975286 22284 net.cpp:131] Top shape: 64 5 12 12 (46080)
I0428 19:30:25.975291 22284 net.cpp:139] Memory required for data: 1122560
I0428 19:30:25.975298 22284 layer_factory.hpp:77] Creating layer ip1
I0428 19:30:25.975311 22284 net.cpp:86] Creating Layer ip1
I0428 19:30:25.975318 22284 net.cpp:408] ip1 <- pool0
I0428 19:30:25.975327 22284 net.cpp:382] ip1 -> ip1
I0428 19:30:25.976444 22284 net.cpp:124] Setting up ip1
I0428 19:30:25.976461 22284 net.cpp:131] Top shape: 64 10 (640)
I0428 19:30:25.976467 22284 net.cpp:139] Memory required for data: 1125120
I0428 19:30:25.976483 22284 layer_factory.hpp:77] Creating layer relu1
I0428 19:30:25.976496 22284 net.cpp:86] Creating Layer relu1
I0428 19:30:25.976502 22284 net.cpp:408] relu1 <- ip1
I0428 19:30:25.976512 22284 net.cpp:369] relu1 -> ip1 (in-place)
I0428 19:30:25.976714 22284 net.cpp:124] Setting up relu1
I0428 19:30:25.976727 22284 net.cpp:131] Top shape: 64 10 (640)
I0428 19:30:25.976732 22284 net.cpp:139] Memory required for data: 1127680
I0428 19:30:25.976738 22284 layer_factory.hpp:77] Creating layer ip2
I0428 19:30:25.976750 22284 net.cpp:86] Creating Layer ip2
I0428 19:30:25.976757 22284 net.cpp:408] ip2 <- ip1
I0428 19:30:25.976768 22284 net.cpp:382] ip2 -> ip2
I0428 19:30:25.976891 22284 net.cpp:124] Setting up ip2
I0428 19:30:25.976903 22284 net.cpp:131] Top shape: 64 10 (640)
I0428 19:30:25.976909 22284 net.cpp:139] Memory required for data: 1130240
I0428 19:30:25.976924 22284 layer_factory.hpp:77] Creating layer relu2
I0428 19:30:25.976940 22284 net.cpp:86] Creating Layer relu2
I0428 19:30:25.976951 22284 net.cpp:408] relu2 <- ip2
I0428 19:30:25.976960 22284 net.cpp:369] relu2 -> ip2 (in-place)
I0428 19:30:25.977794 22284 net.cpp:124] Setting up relu2
I0428 19:30:25.977810 22284 net.cpp:131] Top shape: 64 10 (640)
I0428 19:30:25.977818 22284 net.cpp:139] Memory required for data: 1132800
I0428 19:30:25.977823 22284 layer_factory.hpp:77] Creating layer ip3
I0428 19:30:25.977835 22284 net.cpp:86] Creating Layer ip3
I0428 19:30:25.977843 22284 net.cpp:408] ip3 <- ip2
I0428 19:30:25.977852 22284 net.cpp:382] ip3 -> ip3
I0428 19:30:25.977974 22284 net.cpp:124] Setting up ip3
I0428 19:30:25.977985 22284 net.cpp:131] Top shape: 64 10 (640)
I0428 19:30:25.977991 22284 net.cpp:139] Memory required for data: 1135360
I0428 19:30:25.978003 22284 layer_factory.hpp:77] Creating layer relu3
I0428 19:30:25.978013 22284 net.cpp:86] Creating Layer relu3
I0428 19:30:25.978021 22284 net.cpp:408] relu3 <- ip3
I0428 19:30:25.978030 22284 net.cpp:369] relu3 -> ip3 (in-place)
I0428 19:30:25.978211 22284 net.cpp:124] Setting up relu3
I0428 19:30:25.978224 22284 net.cpp:131] Top shape: 64 10 (640)
I0428 19:30:25.978229 22284 net.cpp:139] Memory required for data: 1137920
I0428 19:30:25.978235 22284 layer_factory.hpp:77] Creating layer loss
I0428 19:30:25.978245 22284 net.cpp:86] Creating Layer loss
I0428 19:30:25.978250 22284 net.cpp:408] loss <- ip3
I0428 19:30:25.978258 22284 net.cpp:408] loss <- label
I0428 19:30:25.978268 22284 net.cpp:382] loss -> loss
I0428 19:30:25.978296 22284 layer_factory.hpp:77] Creating layer loss
…
I0428 19:30:25.979053 22284 solver.cpp:173] Creating test net (#0) specified by net file: ECE595/mnist/train_test/var_everything2/lenet_train_test90.prototxt
I0428 19:30:25.979089 22284 net.cpp:296] The NetState phase (1) differed from the phase (0) specified by a rule in layer mnist
I0428 19:30:25.979189 22284 net.cpp:53] Initializing net from parameters: 
name: "LeNet"
state {
  phase: TEST
}
layer {
  name: "mnist"
  type: "Data"
  top: "data"
  top: "label"
  include {
    phase: TEST
  }
  transform_param {
    scale: 0.00390625
  }
  data_param {
    source: "examples/mnist/mnist_test_lmdb"
    batch_size: 100
    backend: LMDB
  }
}
layer {
  name: "conv0"
  type: "Convolution"
  bottom: "data"
  top: "conv0"
  param {
    lr_mult: 1
  }
  param {
    lr_mult: 2
  }
  convolution_param {
    num_output: 5
    kernel_size: 5
    stride: 1
    weight_filler {
      type: "xavier"
    }
    bias_filler {
      type: "constant"
    }
  }
}
layer {
  name: "pool0"
  type: "Pooling"
  bottom: "conv0"
  top: "pool0"
  pooling_param {
    pool: MAX
    kernel_size: 2
    stride: 2
  }
}
layer {
  name: "ip1"
  type: "InnerProduct"
  bottom: "pool0"
  top: "ip1"
  param {
    lr_mult: 1
  }
  param {
    lr_mult: 2
  }
  inner_product_param {
    num_output: 10
    weight_filler {
      type: "xavier"
    }
    bias_filler {
      type: "constant"
    }
  }
}
layer {
  name: "relu1"
  type: "ReLU"
  bottom: "ip1"
  top: "ip1"
}
layer {
  name: "ip2"
  type: "InnerProduct"
  bottom: "ip1"
  top: "ip2"
  param {
    lr_mult: 1
  }
  param {
    lr_mult: 2
  }
  inner_product_param {
    num_output: 10
    weight_filler {
      type: "xavier"
    }
    bias_filler {
      type: "constant"
    }
  }
}
layer {
  name: "relu2"
  type: "ReLU"
  bottom: "ip2"
  top: "ip2"
}
layer {
  name: "ip3"
  type: "InnerProduct"
  bottom: "ip2"
  top: "ip3"
  param {
    lr_mult: 1
  }
  param {
    lr_mult: 2
  }
  inner_product_param {
    num_output: 10
    weight_filler {
      type: "xavier"
    }
    bias_filler {
      type: "constant"
    }
  }
}
layer {
  name: "relu3"
  type: "ReLU"
  bottom: "ip3"
  top: "ip3"
}
layer {
  name: "accuracy"
  type: "Accuracy"
  bottom: "ip3"
  bottom: "label"
  top: "accuracy"
  include {
    phase: TEST
  }
}
layer {
  name: "loss"
  type: "SoftmaxWithLoss"
  bottom: "ip3"
  bottom: "label"
  top: "loss"
}
I0428 19:30:25.979296 22284 layer_factory.hpp:77] Creating layer mnist
I0428 19:30:25.979364 22284 db_lmdb.cpp:35] Opened lmdb examples/mnist/mnist_test_lmdb
I0428 19:30:25.979383 22284 net.cpp:86] Creating Layer mnist
I0428 19:30:25.979393 22284 net.cpp:382] mnist -> data
I0428 19:30:25.979406 22284 net.cpp:382] mnist -> label
I0428 19:30:25.979542 22284 data_layer.cpp:45] output data size: 100,1,28,28
I0428 19:30:25.981788 22284 net.cpp:124] Setting up mnist
I0428 19:30:25.981806 22284 net.cpp:131] Top shape: 100 1 28 28 (78400)
I0428 19:30:25.981814 22284 net.cpp:131] Top shape: 100 (100)
I0428 19:30:25.981822 22284 net.cpp:139] Memory required for data: 314000
I0428 19:30:25.981827 22284 layer_factory.hpp:77] Creating layer label_mnist_1_split
I0428 19:30:25.981839 22284 net.cpp:86] Creating Layer label_mnist_1_split
I0428 19:30:25.981845 22284 net.cpp:408] label_mnist_1_split <- label
I0428 19:30:25.981855 22284 net.cpp:382] label_mnist_1_split -> label_mnist_1_split_0
I0428 19:30:25.981868 22284 net.cpp:382] label_mnist_1_split -> label_mnist_1_split_1
I0428 19:30:25.981923 22284 net.cpp:124] Setting up label_mnist_1_split
I0428 19:30:25.981933 22284 net.cpp:131] Top shape: 100 (100)
I0428 19:30:25.981940 22284 net.cpp:131] Top shape: 100 (100)
I0428 19:30:25.981946 22284 net.cpp:139] Memory required for data: 314800
I0428 19:30:25.981966 22284 layer_factory.hpp:77] Creating layer conv0
I0428 19:30:25.981983 22284 net.cpp:86] Creating Layer conv0
I0428 19:30:25.981992 22284 net.cpp:408] conv0 <- data
I0428 19:30:25.982002 22284 net.cpp:382] conv0 -> conv0
I0428 19:30:25.983685 22284 net.cpp:124] Setting up conv0
I0428 19:30:25.983705 22284 net.cpp:131] Top shape: 100 5 24 24 (288000)
I0428 19:30:25.983713 22284 net.cpp:139] Memory required for data: 1466800
I0428 19:30:25.983731 22284 layer_factory.hpp:77] Creating layer pool0
I0428 19:30:25.983742 22284 net.cpp:86] Creating Layer pool0
I0428 19:30:25.983752 22284 net.cpp:408] pool0 <- conv0
I0428 19:30:25.983764 22284 net.cpp:382] pool0 -> pool0
I0428 19:30:25.983816 22284 net.cpp:124] Setting up pool0
I0428 19:30:25.983826 22284 net.cpp:131] Top shape: 100 5 12 12 (72000)
I0428 19:30:25.983832 22284 net.cpp:139] Memory required for data: 1754800
I0428 19:30:25.983841 22284 layer_factory.hpp:77] Creating layer ip1
I0428 19:30:25.983855 22284 net.cpp:86] Creating Layer ip1
I0428 19:30:25.983866 22284 net.cpp:408] ip1 <- pool0
I0428 19:30:25.983877 22284 net.cpp:382] ip1 -> ip1
I0428 19:30:25.984058 22284 net.cpp:124] Setting up ip1
I0428 19:30:25.984068 22284 net.cpp:131] Top shape: 100 10 (1000)
I0428 19:30:25.984074 22284 net.cpp:139] Memory required for data: 1758800
I0428 19:30:25.984088 22284 layer_factory.hpp:77] Creating layer relu1
I0428 19:30:25.984100 22284 net.cpp:86] Creating Layer relu1
I0428 19:30:25.984107 22284 net.cpp:408] relu1 <- ip1
I0428 19:30:25.984115 22284 net.cpp:369] relu1 -> ip1 (in-place)
I0428 19:30:25.984364 22284 net.cpp:124] Setting up relu1
I0428 19:30:25.984377 22284 net.cpp:131] Top shape: 100 10 (1000)
I0428 19:30:25.984383 22284 net.cpp:139] Memory required for data: 1762800
I0428 19:30:25.984390 22284 layer_factory.hpp:77] Creating layer ip2
I0428 19:30:25.984400 22284 net.cpp:86] Creating Layer ip2
I0428 19:30:25.984407 22284 net.cpp:408] ip2 <- ip1
I0428 19:30:25.984419 22284 net.cpp:382] ip2 -> ip2
I0428 19:30:25.984549 22284 net.cpp:124] Setting up ip2
I0428 19:30:25.984561 22284 net.cpp:131] Top shape: 100 10 (1000)
I0428 19:30:25.984567 22284 net.cpp:139] Memory required for data: 1766800
I0428 19:30:25.984582 22284 layer_factory.hpp:77] Creating layer relu2
I0428 19:30:25.984593 22284 net.cpp:86] Creating Layer relu2
I0428 19:30:25.984601 22284 net.cpp:408] relu2 <- ip2
I0428 19:30:25.984611 22284 net.cpp:369] relu2 -> ip2 (in-place)
I0428 19:30:25.985496 22284 net.cpp:124] Setting up relu2
I0428 19:30:25.985512 22284 net.cpp:131] Top shape: 100 10 (1000)
I0428 19:30:25.985517 22284 net.cpp:139] Memory required for data: 1770800
I0428 19:30:25.985524 22284 layer_factory.hpp:77] Creating layer ip3
I0428 19:30:25.985538 22284 net.cpp:86] Creating Layer ip3
I0428 19:30:25.985544 22284 net.cpp:408] ip3 <- ip2
I0428 19:30:25.985556 22284 net.cpp:382] ip3 -> ip3
I0428 19:30:25.985698 22284 net.cpp:124] Setting up ip3
I0428 19:30:25.985713 22284 net.cpp:131] Top shape: 100 10 (1000)
I0428 19:30:25.985720 22284 net.cpp:139] Memory required for data: 1774800
I0428 19:30:25.985731 22284 layer_factory.hpp:77] Creating layer relu3
I0428 19:30:25.985743 22284 net.cpp:86] Creating Layer relu3
I0428 19:30:25.985751 22284 net.cpp:408] relu3 <- ip3
I0428 19:30:25.985759 22284 net.cpp:369] relu3 -> ip3 (in-place)
I0428 19:30:25.985952 22284 net.cpp:124] Setting up relu3
I0428 19:30:25.985963 22284 net.cpp:131] Top shape: 100 10 (1000)
I0428 19:30:25.985970 22284 net.cpp:139] Memory required for data: 1778800
I0428 19:30:25.985978 22284 layer_factory.hpp:77] Creating layer ip3_relu3_0_split
I0428 19:30:25.985990 22284 net.cpp:86] Creating Layer ip3_relu3_0_split
I0428 19:30:25.985998 22284 net.cpp:408] ip3_relu3_0_split <- ip3
I0428 19:30:25.986008 22284 net.cpp:382] ip3_relu3_0_split -> ip3_relu3_0_split_0
I0428 19:30:25.986019 22284 net.cpp:382] ip3_relu3_0_split -> ip3_relu3_0_split_1
I0428 19:30:25.986083 22284 net.cpp:124] Setting up ip3_relu3_0_split
I0428 19:30:25.986091 22284 net.cpp:131] Top shape: 100 10 (1000)
I0428 19:30:25.986099 22284 net.cpp:131] Top shape: 100 10 (1000)
I0428 19:30:25.986119 22284 net.cpp:139] Memory required for data: 1786800
I0428 19:30:25.986125 22284 layer_factory.hpp:77] Creating layer accuracy
I0428 19:30:25.986140 22284 net.cpp:86] Creating Layer accuracy
I0428 19:30:25.986147 22284 net.cpp:408] accuracy <- ip3_relu3_0_split_0
I0428 19:30:25.986155 22284 net.cpp:408] accuracy <- label_mnist_1_split_0
I0428 19:30:25.986166 22284 net.cpp:382] accuracy -> accuracy
…
