…
I0428 20:09:07.800989 31559 net.cpp:296] The NetState phase (0) differed from the phase (1) specified by a rule in layer mnist
I0428 20:09:07.801008 31559 net.cpp:296] The NetState phase (0) differed from the phase (1) specified by a rule in layer accuracy
I0428 20:09:07.801097 31559 net.cpp:53] Initializing net from parameters: 
name: "LeNet"
state {
  phase: TRAIN
  level: 0
  stage: ""
}
layer {
  name: "mnist"
  type: "Data"
  top: "data"
  top: "label"
  include {
    phase: TRAIN
  }
  transform_param {
    scale: 0.00390625
  }
  data_param {
    source: "examples/mnist/mnist_train_lmdb"
    batch_size: 64
    backend: LMDB
  }
}
layer {
  name: "conv0"
  type: "Convolution"
  bottom: "data"
  top: "conv0"
  param {
    lr_mult: 1
  }
  param {
    lr_mult: 2
  }
  convolution_param {
    num_output: 25
    kernel_size: 5
    stride: 1
    weight_filler {
      type: "xavier"
    }
    bias_filler {
      type: "constant"
    }
  }
}
layer {
  name: "pool0"
  type: "Pooling"
  bottom: "conv0"
  top: "pool0"
  pooling_param {
    pool: MAX
    kernel_size: 2
    stride: 2
  }
}
layer {
  name: "conv1"
  type: "Convolution"
  bottom: "pool0"
  top: "conv1"
  param {
    lr_mult: 1
  }
  param {
    lr_mult: 2
  }
  convolution_param {
    num_output: 25
    kernel_size: 5
    stride: 1
    weight_filler {
      type: "xavier"
    }
    bias_filler {
      type: "constant"
    }
  }
}
layer {
  name: "pool1"
  type: "Pooling"
  bottom: "conv1"
  top: "pool1"
  pooling_param {
    pool: MAX
    kernel_size: 2
    stride: 2
  }
}
layer {
  name: "ip1"
  type: "InnerProduct"
  bottom: "pool1"
  top: "ip1"
  param {
    lr_mult: 1
  }
  param {
    lr_mult: 2
  }
  inner_product_param {
    num_output: 50
    weight_filler {
      type: "xavier"
    }
    bias_filler {
      type: "constant"
    }
  }
}
layer {
  name: "relu1"
  type: "ReLU"
  bottom: "ip1"
  top: "ip1"
}
layer {
  name: "ip2"
  type: "InnerProduct"
  bottom: "ip1"
  top: "ip2"
  param {
    lr_mult: 1
  }
  param {
    lr_mult: 2
  }
  inner_product_param {
    num_output: 10
    weight_filler {
      type: "xavier"
    }
    bias_filler {
      type: "constant"
    }
  }
}
layer {
  name: "relu2"
  type: "ReLU"
  bottom: "ip2"
  top: "ip2"
}
layer {
  name: "loss"
  type: "SoftmaxWithLoss"
  bottom: "ip2"
  bottom: "label"
  top: "loss"
}
I0428 20:09:07.801172 31559 layer_factory.hpp:77] Creating layer mnist
I0428 20:09:07.801270 31559 db_lmdb.cpp:35] Opened lmdb examples/mnist/mnist_train_lmdb
I0428 20:09:07.801293 31559 net.cpp:86] Creating Layer mnist
I0428 20:09:07.801302 31559 net.cpp:382] mnist -> data
I0428 20:09:07.801326 31559 net.cpp:382] mnist -> label
I0428 20:09:07.802407 31559 data_layer.cpp:45] output data size: 64,1,28,28
I0428 20:09:07.804872 31559 net.cpp:124] Setting up mnist
I0428 20:09:07.804890 31559 net.cpp:131] Top shape: 64 1 28 28 (50176)
I0428 20:09:07.804896 31559 net.cpp:131] Top shape: 64 (64)
I0428 20:09:07.804899 31559 net.cpp:139] Memory required for data: 200960
I0428 20:09:07.804906 31559 layer_factory.hpp:77] Creating layer conv0
I0428 20:09:07.804951 31559 net.cpp:86] Creating Layer conv0
I0428 20:09:07.804960 31559 net.cpp:408] conv0 <- data
I0428 20:09:07.804973 31559 net.cpp:382] conv0 -> conv0
I0428 20:09:08.095880 31559 net.cpp:124] Setting up conv0
I0428 20:09:08.095912 31559 net.cpp:131] Top shape: 64 25 24 24 (921600)
I0428 20:09:08.095917 31559 net.cpp:139] Memory required for data: 3887360
I0428 20:09:08.095957 31559 layer_factory.hpp:77] Creating layer pool0
I0428 20:09:08.095974 31559 net.cpp:86] Creating Layer pool0
I0428 20:09:08.095979 31559 net.cpp:408] pool0 <- conv0
I0428 20:09:08.095986 31559 net.cpp:382] pool0 -> pool0
I0428 20:09:08.096042 31559 net.cpp:124] Setting up pool0
I0428 20:09:08.096055 31559 net.cpp:131] Top shape: 64 25 12 12 (230400)
I0428 20:09:08.096058 31559 net.cpp:139] Memory required for data: 4808960
I0428 20:09:08.096062 31559 layer_factory.hpp:77] Creating layer conv1
I0428 20:09:08.096076 31559 net.cpp:86] Creating Layer conv1
I0428 20:09:08.096081 31559 net.cpp:408] conv1 <- pool0
I0428 20:09:08.096088 31559 net.cpp:382] conv1 -> conv1
I0428 20:09:08.099371 31559 net.cpp:124] Setting up conv1
I0428 20:09:08.099390 31559 net.cpp:131] Top shape: 64 25 8 8 (102400)
I0428 20:09:08.099395 31559 net.cpp:139] Memory required for data: 5218560
I0428 20:09:08.099405 31559 layer_factory.hpp:77] Creating layer pool1
I0428 20:09:08.099413 31559 net.cpp:86] Creating Layer pool1
I0428 20:09:08.099417 31559 net.cpp:408] pool1 <- conv1
I0428 20:09:08.099423 31559 net.cpp:382] pool1 -> pool1
I0428 20:09:08.099468 31559 net.cpp:124] Setting up pool1
I0428 20:09:08.099475 31559 net.cpp:131] Top shape: 64 25 4 4 (25600)
I0428 20:09:08.099478 31559 net.cpp:139] Memory required for data: 5320960
I0428 20:09:08.099483 31559 layer_factory.hpp:77] Creating layer ip1
I0428 20:09:08.099490 31559 net.cpp:86] Creating Layer ip1
I0428 20:09:08.099493 31559 net.cpp:408] ip1 <- pool1
I0428 20:09:08.099499 31559 net.cpp:382] ip1 -> ip1
I0428 20:09:08.099748 31559 net.cpp:124] Setting up ip1
I0428 20:09:08.099758 31559 net.cpp:131] Top shape: 64 50 (3200)
I0428 20:09:08.099762 31559 net.cpp:139] Memory required for data: 5333760
I0428 20:09:08.099771 31559 layer_factory.hpp:77] Creating layer relu1
I0428 20:09:08.099778 31559 net.cpp:86] Creating Layer relu1
I0428 20:09:08.099781 31559 net.cpp:408] relu1 <- ip1
I0428 20:09:08.099787 31559 net.cpp:369] relu1 -> ip1 (in-place)
I0428 20:09:08.099984 31559 net.cpp:124] Setting up relu1
I0428 20:09:08.099995 31559 net.cpp:131] Top shape: 64 50 (3200)
I0428 20:09:08.099999 31559 net.cpp:139] Memory required for data: 5346560
I0428 20:09:08.100003 31559 layer_factory.hpp:77] Creating layer ip2
I0428 20:09:08.100011 31559 net.cpp:86] Creating Layer ip2
I0428 20:09:08.100014 31559 net.cpp:408] ip2 <- ip1
I0428 20:09:08.100020 31559 net.cpp:382] ip2 -> ip2
I0428 20:09:08.100137 31559 net.cpp:124] Setting up ip2
I0428 20:09:08.100147 31559 net.cpp:131] Top shape: 64 10 (640)
I0428 20:09:08.100150 31559 net.cpp:139] Memory required for data: 5349120
I0428 20:09:08.100157 31559 layer_factory.hpp:77] Creating layer relu2
I0428 20:09:08.100163 31559 net.cpp:86] Creating Layer relu2
I0428 20:09:08.100167 31559 net.cpp:408] relu2 <- ip2
I0428 20:09:08.100172 31559 net.cpp:369] relu2 -> ip2 (in-place)
I0428 20:09:08.101024 31559 net.cpp:124] Setting up relu2
I0428 20:09:08.101039 31559 net.cpp:131] Top shape: 64 10 (640)
I0428 20:09:08.101043 31559 net.cpp:139] Memory required for data: 5351680
I0428 20:09:08.101047 31559 layer_factory.hpp:77] Creating layer loss
I0428 20:09:08.101054 31559 net.cpp:86] Creating Layer loss
I0428 20:09:08.101058 31559 net.cpp:408] loss <- ip2
I0428 20:09:08.101063 31559 net.cpp:408] loss <- label
I0428 20:09:08.101070 31559 net.cpp:382] loss -> loss
I0428 20:09:08.101094 31559 layer_factory.hpp:77] Creating layer loss
…
I0428 20:09:08.101821 31559 solver.cpp:173] Creating test net (#0) specified by net file: ECE595/mnist/train_test/var_everything2/lenet_train_test1101.prototxt
I0428 20:09:08.101851 31559 net.cpp:296] The NetState phase (1) differed from the phase (0) specified by a rule in layer mnist
I0428 20:09:08.101953 31559 net.cpp:53] Initializing net from parameters: 
name: "LeNet"
state {
  phase: TEST
}
layer {
  name: "mnist"
  type: "Data"
  top: "data"
  top: "label"
  include {
    phase: TEST
  }
  transform_param {
    scale: 0.00390625
  }
  data_param {
    source: "examples/mnist/mnist_test_lmdb"
    batch_size: 100
    backend: LMDB
  }
}
layer {
  name: "conv0"
  type: "Convolution"
  bottom: "data"
  top: "conv0"
  param {
    lr_mult: 1
  }
  param {
    lr_mult: 2
  }
  convolution_param {
    num_output: 25
    kernel_size: 5
    stride: 1
    weight_filler {
      type: "xavier"
    }
    bias_filler {
      type: "constant"
    }
  }
}
layer {
  name: "pool0"
  type: "Pooling"
  bottom: "conv0"
  top: "pool0"
  pooling_param {
    pool: MAX
    kernel_size: 2
    stride: 2
  }
}
layer {
  name: "conv1"
  type: "Convolution"
  bottom: "pool0"
  top: "conv1"
  param {
    lr_mult: 1
  }
  param {
    lr_mult: 2
  }
  convolution_param {
    num_output: 25
    kernel_size: 5
    stride: 1
    weight_filler {
      type: "xavier"
    }
    bias_filler {
      type: "constant"
    }
  }
}
layer {
  name: "pool1"
  type: "Pooling"
  bottom: "conv1"
  top: "pool1"
  pooling_param {
    pool: MAX
    kernel_size: 2
    stride: 2
  }
}
layer {
  name: "ip1"
  type: "InnerProduct"
  bottom: "pool1"
  top: "ip1"
  param {
    lr_mult: 1
  }
  param {
    lr_mult: 2
  }
  inner_product_param {
    num_output: 50
    weight_filler {
      type: "xavier"
    }
    bias_filler {
      type: "constant"
    }
  }
}
layer {
  name: "relu1"
  type: "ReLU"
  bottom: "ip1"
  top: "ip1"
}
layer {
  name: "ip2"
  type: "InnerProduct"
  bottom: "ip1"
  top: "ip2"
  param {
    lr_mult: 1
  }
  param {
    lr_mult: 2
  }
  inner_product_param {
    num_output: 10
    weight_filler {
      type: "xavier"
    }
    bias_filler {
      type: "constant"
    }
  }
}
layer {
  name: "relu2"
  type: "ReLU"
  bottom: "ip2"
  top: "ip2"
}
layer {
  name: "accuracy"
  type: "Accuracy"
  bottom: "ip2"
  bottom: "label"
  top: "accuracy"
  include {
    phase: TEST
  }
}
layer {
  name: "loss"
  type: "SoftmaxWithLoss"
  bottom: "ip2"
  bottom: "label"
  top: "loss"
}
I0428 20:09:08.102028 31559 layer_factory.hpp:77] Creating layer mnist
I0428 20:09:08.102084 31559 db_lmdb.cpp:35] Opened lmdb examples/mnist/mnist_test_lmdb
I0428 20:09:08.102099 31559 net.cpp:86] Creating Layer mnist
I0428 20:09:08.102104 31559 net.cpp:382] mnist -> data
I0428 20:09:08.102113 31559 net.cpp:382] mnist -> label
I0428 20:09:08.102211 31559 data_layer.cpp:45] output data size: 100,1,28,28
I0428 20:09:08.104405 31559 net.cpp:124] Setting up mnist
I0428 20:09:08.104421 31559 net.cpp:131] Top shape: 100 1 28 28 (78400)
I0428 20:09:08.104427 31559 net.cpp:131] Top shape: 100 (100)
I0428 20:09:08.104431 31559 net.cpp:139] Memory required for data: 314000
I0428 20:09:08.104435 31559 layer_factory.hpp:77] Creating layer label_mnist_1_split
I0428 20:09:08.104444 31559 net.cpp:86] Creating Layer label_mnist_1_split
I0428 20:09:08.104449 31559 net.cpp:408] label_mnist_1_split <- label
I0428 20:09:08.104454 31559 net.cpp:382] label_mnist_1_split -> label_mnist_1_split_0
I0428 20:09:08.104462 31559 net.cpp:382] label_mnist_1_split -> label_mnist_1_split_1
I0428 20:09:08.104532 31559 net.cpp:124] Setting up label_mnist_1_split
I0428 20:09:08.104539 31559 net.cpp:131] Top shape: 100 (100)
I0428 20:09:08.104544 31559 net.cpp:131] Top shape: 100 (100)
I0428 20:09:08.104547 31559 net.cpp:139] Memory required for data: 314800
I0428 20:09:08.104552 31559 layer_factory.hpp:77] Creating layer conv0
I0428 20:09:08.104560 31559 net.cpp:86] Creating Layer conv0
I0428 20:09:08.104564 31559 net.cpp:408] conv0 <- data
I0428 20:09:08.104570 31559 net.cpp:382] conv0 -> conv0
I0428 20:09:08.106504 31559 net.cpp:124] Setting up conv0
I0428 20:09:08.106521 31559 net.cpp:131] Top shape: 100 25 24 24 (1440000)
I0428 20:09:08.106526 31559 net.cpp:139] Memory required for data: 6074800
I0428 20:09:08.106537 31559 layer_factory.hpp:77] Creating layer pool0
I0428 20:09:08.106545 31559 net.cpp:86] Creating Layer pool0
I0428 20:09:08.106549 31559 net.cpp:408] pool0 <- conv0
I0428 20:09:08.106555 31559 net.cpp:382] pool0 -> pool0
I0428 20:09:08.106598 31559 net.cpp:124] Setting up pool0
I0428 20:09:08.106606 31559 net.cpp:131] Top shape: 100 25 12 12 (360000)
I0428 20:09:08.106609 31559 net.cpp:139] Memory required for data: 7514800
I0428 20:09:08.106612 31559 layer_factory.hpp:77] Creating layer conv1
I0428 20:09:08.106622 31559 net.cpp:86] Creating Layer conv1
I0428 20:09:08.106626 31559 net.cpp:408] conv1 <- pool0
I0428 20:09:08.106632 31559 net.cpp:382] conv1 -> conv1
I0428 20:09:08.109047 31559 net.cpp:124] Setting up conv1
I0428 20:09:08.109064 31559 net.cpp:131] Top shape: 100 25 8 8 (160000)
I0428 20:09:08.109069 31559 net.cpp:139] Memory required for data: 8154800
I0428 20:09:08.109079 31559 layer_factory.hpp:77] Creating layer pool1
I0428 20:09:08.109087 31559 net.cpp:86] Creating Layer pool1
I0428 20:09:08.109091 31559 net.cpp:408] pool1 <- conv1
I0428 20:09:08.109098 31559 net.cpp:382] pool1 -> pool1
I0428 20:09:08.109150 31559 net.cpp:124] Setting up pool1
I0428 20:09:08.109158 31559 net.cpp:131] Top shape: 100 25 4 4 (40000)
I0428 20:09:08.109163 31559 net.cpp:139] Memory required for data: 8314800
I0428 20:09:08.109165 31559 layer_factory.hpp:77] Creating layer ip1
I0428 20:09:08.109172 31559 net.cpp:86] Creating Layer ip1
I0428 20:09:08.109176 31559 net.cpp:408] ip1 <- pool1
I0428 20:09:08.109181 31559 net.cpp:382] ip1 -> ip1
I0428 20:09:08.109452 31559 net.cpp:124] Setting up ip1
I0428 20:09:08.109462 31559 net.cpp:131] Top shape: 100 50 (5000)
I0428 20:09:08.109465 31559 net.cpp:139] Memory required for data: 8334800
I0428 20:09:08.109474 31559 layer_factory.hpp:77] Creating layer relu1
I0428 20:09:08.109479 31559 net.cpp:86] Creating Layer relu1
I0428 20:09:08.109483 31559 net.cpp:408] relu1 <- ip1
I0428 20:09:08.109489 31559 net.cpp:369] relu1 -> ip1 (in-place)
I0428 20:09:08.109683 31559 net.cpp:124] Setting up relu1
I0428 20:09:08.109694 31559 net.cpp:131] Top shape: 100 50 (5000)
I0428 20:09:08.109697 31559 net.cpp:139] Memory required for data: 8354800
I0428 20:09:08.109701 31559 layer_factory.hpp:77] Creating layer ip2
I0428 20:09:08.109709 31559 net.cpp:86] Creating Layer ip2
I0428 20:09:08.109721 31559 net.cpp:408] ip2 <- ip1
I0428 20:09:08.109727 31559 net.cpp:382] ip2 -> ip2
I0428 20:09:08.109849 31559 net.cpp:124] Setting up ip2
I0428 20:09:08.109859 31559 net.cpp:131] Top shape: 100 10 (1000)
I0428 20:09:08.109863 31559 net.cpp:139] Memory required for data: 8358800
I0428 20:09:08.109869 31559 layer_factory.hpp:77] Creating layer relu2
I0428 20:09:08.109875 31559 net.cpp:86] Creating Layer relu2
I0428 20:09:08.109879 31559 net.cpp:408] relu2 <- ip2
I0428 20:09:08.109884 31559 net.cpp:369] relu2 -> ip2 (in-place)
I0428 20:09:08.110069 31559 net.cpp:124] Setting up relu2
I0428 20:09:08.110080 31559 net.cpp:131] Top shape: 100 10 (1000)
I0428 20:09:08.110083 31559 net.cpp:139] Memory required for data: 8362800
I0428 20:09:08.110086 31559 layer_factory.hpp:77] Creating layer ip2_relu2_0_split
I0428 20:09:08.110092 31559 net.cpp:86] Creating Layer ip2_relu2_0_split
I0428 20:09:08.110096 31559 net.cpp:408] ip2_relu2_0_split <- ip2
I0428 20:09:08.110102 31559 net.cpp:382] ip2_relu2_0_split -> ip2_relu2_0_split_0
I0428 20:09:08.110122 31559 net.cpp:382] ip2_relu2_0_split -> ip2_relu2_0_split_1
I0428 20:09:08.110164 31559 net.cpp:124] Setting up ip2_relu2_0_split
I0428 20:09:08.110170 31559 net.cpp:131] Top shape: 100 10 (1000)
I0428 20:09:08.110174 31559 net.cpp:131] Top shape: 100 10 (1000)
I0428 20:09:08.110179 31559 net.cpp:139] Memory required for data: 8370800
I0428 20:09:08.110183 31559 layer_factory.hpp:77] Creating layer accuracy
I0428 20:09:08.110188 31559 net.cpp:86] Creating Layer accuracy
I0428 20:09:08.110193 31559 net.cpp:408] accuracy <- ip2_relu2_0_split_0
I0428 20:09:08.110198 31559 net.cpp:408] accuracy <- label_mnist_1_split_0
I0428 20:09:08.110203 31559 net.cpp:382] accuracy -> accuracy
…
