…
I0428 20:14:10.974323 32618 net.cpp:296] The NetState phase (0) differed from the phase (1) specified by a rule in layer mnist
I0428 20:14:10.974339 32618 net.cpp:296] The NetState phase (0) differed from the phase (1) specified by a rule in layer accuracy
I0428 20:14:10.974409 32618 net.cpp:53] Initializing net from parameters: 
name: "LeNet"
state {
  phase: TRAIN
  level: 0
  stage: ""
}
layer {
  name: "mnist"
  type: "Data"
  top: "data"
  top: "label"
  include {
    phase: TRAIN
  }
  transform_param {
    scale: 0.00390625
  }
  data_param {
    source: "examples/mnist/mnist_train_lmdb"
    batch_size: 64
    backend: LMDB
  }
}
layer {
  name: "conv0"
  type: "Convolution"
  bottom: "data"
  top: "conv0"
  param {
    lr_mult: 1
  }
  param {
    lr_mult: 2
  }
  convolution_param {
    num_output: 50
    kernel_size: 5
    stride: 1
    weight_filler {
      type: "xavier"
    }
    bias_filler {
      type: "constant"
    }
  }
}
layer {
  name: "pool0"
  type: "Pooling"
  bottom: "conv0"
  top: "pool0"
  pooling_param {
    pool: MAX
    kernel_size: 2
    stride: 2
  }
}
layer {
  name: "conv1"
  type: "Convolution"
  bottom: "pool0"
  top: "conv1"
  param {
    lr_mult: 1
  }
  param {
    lr_mult: 2
  }
  convolution_param {
    num_output: 2
    kernel_size: 5
    stride: 1
    weight_filler {
      type: "xavier"
    }
    bias_filler {
      type: "constant"
    }
  }
}
layer {
  name: "pool1"
  type: "Pooling"
  bottom: "conv1"
  top: "pool1"
  pooling_param {
    pool: MAX
    kernel_size: 2
    stride: 2
  }
}
layer {
  name: "ip1"
  type: "InnerProduct"
  bottom: "pool1"
  top: "ip1"
  param {
    lr_mult: 1
  }
  param {
    lr_mult: 2
  }
  inner_product_param {
    num_output: 25
    weight_filler {
      type: "xavier"
    }
    bias_filler {
      type: "constant"
    }
  }
}
layer {
  name: "relu1"
  type: "ReLU"
  bottom: "ip1"
  top: "ip1"
}
layer {
  name: "ip2"
  type: "InnerProduct"
  bottom: "ip1"
  top: "ip2"
  param {
    lr_mult: 1
  }
  param {
    lr_mult: 2
  }
  inner_product_param {
    num_output: 10
    weight_filler {
      type: "xavier"
    }
    bias_filler {
      type: "constant"
    }
  }
}
layer {
  name: "relu2"
  type: "ReLU"
  bottom: "ip2"
  top: "ip2"
}
layer {
  name: "loss"
  type: "SoftmaxWithLoss"
  bottom: "ip2"
  bottom: "label"
  top: "loss"
}
I0428 20:14:10.974473 32618 layer_factory.hpp:77] Creating layer mnist
I0428 20:14:10.974560 32618 db_lmdb.cpp:35] Opened lmdb examples/mnist/mnist_train_lmdb
I0428 20:14:10.974580 32618 net.cpp:86] Creating Layer mnist
I0428 20:14:10.974586 32618 net.cpp:382] mnist -> data
I0428 20:14:10.974618 32618 net.cpp:382] mnist -> label
I0428 20:14:10.975536 32618 data_layer.cpp:45] output data size: 64,1,28,28
I0428 20:14:10.977771 32618 net.cpp:124] Setting up mnist
I0428 20:14:10.977802 32618 net.cpp:131] Top shape: 64 1 28 28 (50176)
I0428 20:14:10.977808 32618 net.cpp:131] Top shape: 64 (64)
I0428 20:14:10.977811 32618 net.cpp:139] Memory required for data: 200960
I0428 20:14:10.977818 32618 layer_factory.hpp:77] Creating layer conv0
I0428 20:14:10.977833 32618 net.cpp:86] Creating Layer conv0
I0428 20:14:10.977838 32618 net.cpp:408] conv0 <- data
I0428 20:14:10.977849 32618 net.cpp:382] conv0 -> conv0
I0428 20:14:11.210351 32618 net.cpp:124] Setting up conv0
I0428 20:14:11.210391 32618 net.cpp:131] Top shape: 64 50 24 24 (1843200)
I0428 20:14:11.210396 32618 net.cpp:139] Memory required for data: 7573760
I0428 20:14:11.210428 32618 layer_factory.hpp:77] Creating layer pool0
I0428 20:14:11.210456 32618 net.cpp:86] Creating Layer pool0
I0428 20:14:11.210460 32618 net.cpp:408] pool0 <- conv0
I0428 20:14:11.210465 32618 net.cpp:382] pool0 -> pool0
I0428 20:14:11.210510 32618 net.cpp:124] Setting up pool0
I0428 20:14:11.210521 32618 net.cpp:131] Top shape: 64 50 12 12 (460800)
I0428 20:14:11.210525 32618 net.cpp:139] Memory required for data: 9416960
I0428 20:14:11.210527 32618 layer_factory.hpp:77] Creating layer conv1
I0428 20:14:11.210537 32618 net.cpp:86] Creating Layer conv1
I0428 20:14:11.210541 32618 net.cpp:408] conv1 <- pool0
I0428 20:14:11.210546 32618 net.cpp:382] conv1 -> conv1
I0428 20:14:11.212338 32618 net.cpp:124] Setting up conv1
I0428 20:14:11.212369 32618 net.cpp:131] Top shape: 64 2 8 8 (8192)
I0428 20:14:11.212373 32618 net.cpp:139] Memory required for data: 9449728
I0428 20:14:11.212381 32618 layer_factory.hpp:77] Creating layer pool1
I0428 20:14:11.212389 32618 net.cpp:86] Creating Layer pool1
I0428 20:14:11.212393 32618 net.cpp:408] pool1 <- conv1
I0428 20:14:11.212397 32618 net.cpp:382] pool1 -> pool1
I0428 20:14:11.212433 32618 net.cpp:124] Setting up pool1
I0428 20:14:11.212438 32618 net.cpp:131] Top shape: 64 2 4 4 (2048)
I0428 20:14:11.212442 32618 net.cpp:139] Memory required for data: 9457920
I0428 20:14:11.212445 32618 layer_factory.hpp:77] Creating layer ip1
I0428 20:14:11.212452 32618 net.cpp:86] Creating Layer ip1
I0428 20:14:11.212455 32618 net.cpp:408] ip1 <- pool1
I0428 20:14:11.212460 32618 net.cpp:382] ip1 -> ip1
I0428 20:14:11.212573 32618 net.cpp:124] Setting up ip1
I0428 20:14:11.212579 32618 net.cpp:131] Top shape: 64 25 (1600)
I0428 20:14:11.212582 32618 net.cpp:139] Memory required for data: 9464320
I0428 20:14:11.212589 32618 layer_factory.hpp:77] Creating layer relu1
I0428 20:14:11.212595 32618 net.cpp:86] Creating Layer relu1
I0428 20:14:11.212599 32618 net.cpp:408] relu1 <- ip1
I0428 20:14:11.212602 32618 net.cpp:369] relu1 -> ip1 (in-place)
I0428 20:14:11.212759 32618 net.cpp:124] Setting up relu1
I0428 20:14:11.212767 32618 net.cpp:131] Top shape: 64 25 (1600)
I0428 20:14:11.212770 32618 net.cpp:139] Memory required for data: 9470720
I0428 20:14:11.212774 32618 layer_factory.hpp:77] Creating layer ip2
I0428 20:14:11.212779 32618 net.cpp:86] Creating Layer ip2
I0428 20:14:11.212782 32618 net.cpp:408] ip2 <- ip1
I0428 20:14:11.212787 32618 net.cpp:382] ip2 -> ip2
I0428 20:14:11.212914 32618 net.cpp:124] Setting up ip2
I0428 20:14:11.212923 32618 net.cpp:131] Top shape: 64 10 (640)
I0428 20:14:11.212925 32618 net.cpp:139] Memory required for data: 9473280
I0428 20:14:11.212931 32618 layer_factory.hpp:77] Creating layer relu2
I0428 20:14:11.212937 32618 net.cpp:86] Creating Layer relu2
I0428 20:14:11.212940 32618 net.cpp:408] relu2 <- ip2
I0428 20:14:11.212945 32618 net.cpp:369] relu2 -> ip2 (in-place)
I0428 20:14:11.213714 32618 net.cpp:124] Setting up relu2
I0428 20:14:11.213726 32618 net.cpp:131] Top shape: 64 10 (640)
I0428 20:14:11.213745 32618 net.cpp:139] Memory required for data: 9475840
I0428 20:14:11.213749 32618 layer_factory.hpp:77] Creating layer loss
I0428 20:14:11.213771 32618 net.cpp:86] Creating Layer loss
I0428 20:14:11.213775 32618 net.cpp:408] loss <- ip2
I0428 20:14:11.213779 32618 net.cpp:408] loss <- label
I0428 20:14:11.213785 32618 net.cpp:382] loss -> loss
I0428 20:14:11.213802 32618 layer_factory.hpp:77] Creating layer loss
…
I0428 20:14:11.214419 32618 solver.cpp:173] Creating test net (#0) specified by net file: ECE595/mnist/train_test/var_everything2/lenet_train_test1215.prototxt
I0428 20:14:11.214443 32618 net.cpp:296] The NetState phase (1) differed from the phase (0) specified by a rule in layer mnist
I0428 20:14:11.214524 32618 net.cpp:53] Initializing net from parameters: 
name: "LeNet"
state {
  phase: TEST
}
layer {
  name: "mnist"
  type: "Data"
  top: "data"
  top: "label"
  include {
    phase: TEST
  }
  transform_param {
    scale: 0.00390625
  }
  data_param {
    source: "examples/mnist/mnist_test_lmdb"
    batch_size: 100
    backend: LMDB
  }
}
layer {
  name: "conv0"
  type: "Convolution"
  bottom: "data"
  top: "conv0"
  param {
    lr_mult: 1
  }
  param {
    lr_mult: 2
  }
  convolution_param {
    num_output: 50
    kernel_size: 5
    stride: 1
    weight_filler {
      type: "xavier"
    }
    bias_filler {
      type: "constant"
    }
  }
}
layer {
  name: "pool0"
  type: "Pooling"
  bottom: "conv0"
  top: "pool0"
  pooling_param {
    pool: MAX
    kernel_size: 2
    stride: 2
  }
}
layer {
  name: "conv1"
  type: "Convolution"
  bottom: "pool0"
  top: "conv1"
  param {
    lr_mult: 1
  }
  param {
    lr_mult: 2
  }
  convolution_param {
    num_output: 2
    kernel_size: 5
    stride: 1
    weight_filler {
      type: "xavier"
    }
    bias_filler {
      type: "constant"
    }
  }
}
layer {
  name: "pool1"
  type: "Pooling"
  bottom: "conv1"
  top: "pool1"
  pooling_param {
    pool: MAX
    kernel_size: 2
    stride: 2
  }
}
layer {
  name: "ip1"
  type: "InnerProduct"
  bottom: "pool1"
  top: "ip1"
  param {
    lr_mult: 1
  }
  param {
    lr_mult: 2
  }
  inner_product_param {
    num_output: 25
    weight_filler {
      type: "xavier"
    }
    bias_filler {
      type: "constant"
    }
  }
}
layer {
  name: "relu1"
  type: "ReLU"
  bottom: "ip1"
  top: "ip1"
}
layer {
  name: "ip2"
  type: "InnerProduct"
  bottom: "ip1"
  top: "ip2"
  param {
    lr_mult: 1
  }
  param {
    lr_mult: 2
  }
  inner_product_param {
    num_output: 10
    weight_filler {
      type: "xavier"
    }
    bias_filler {
      type: "constant"
    }
  }
}
layer {
  name: "relu2"
  type: "ReLU"
  bottom: "ip2"
  top: "ip2"
}
layer {
  name: "accuracy"
  type: "Accuracy"
  bottom: "ip2"
  bottom: "label"
  top: "accuracy"
  include {
    phase: TEST
  }
}
layer {
  name: "loss"
  type: "SoftmaxWithLoss"
  bottom: "ip2"
  bottom: "label"
  top: "loss"
}
I0428 20:14:11.214586 32618 layer_factory.hpp:77] Creating layer mnist
I0428 20:14:11.214625 32618 db_lmdb.cpp:35] Opened lmdb examples/mnist/mnist_test_lmdb
I0428 20:14:11.214640 32618 net.cpp:86] Creating Layer mnist
I0428 20:14:11.214644 32618 net.cpp:382] mnist -> data
I0428 20:14:11.214651 32618 net.cpp:382] mnist -> label
I0428 20:14:11.214764 32618 data_layer.cpp:45] output data size: 100,1,28,28
I0428 20:14:11.216743 32618 net.cpp:124] Setting up mnist
I0428 20:14:11.216771 32618 net.cpp:131] Top shape: 100 1 28 28 (78400)
I0428 20:14:11.216776 32618 net.cpp:131] Top shape: 100 (100)
I0428 20:14:11.216795 32618 net.cpp:139] Memory required for data: 314000
I0428 20:14:11.216799 32618 layer_factory.hpp:77] Creating layer label_mnist_1_split
I0428 20:14:11.216805 32618 net.cpp:86] Creating Layer label_mnist_1_split
I0428 20:14:11.216814 32618 net.cpp:408] label_mnist_1_split <- label
I0428 20:14:11.216835 32618 net.cpp:382] label_mnist_1_split -> label_mnist_1_split_0
I0428 20:14:11.216842 32618 net.cpp:382] label_mnist_1_split -> label_mnist_1_split_1
I0428 20:14:11.216922 32618 net.cpp:124] Setting up label_mnist_1_split
I0428 20:14:11.216941 32618 net.cpp:131] Top shape: 100 (100)
I0428 20:14:11.216945 32618 net.cpp:131] Top shape: 100 (100)
I0428 20:14:11.216948 32618 net.cpp:139] Memory required for data: 314800
I0428 20:14:11.216953 32618 layer_factory.hpp:77] Creating layer conv0
I0428 20:14:11.216960 32618 net.cpp:86] Creating Layer conv0
I0428 20:14:11.216964 32618 net.cpp:408] conv0 <- data
I0428 20:14:11.216969 32618 net.cpp:382] conv0 -> conv0
I0428 20:14:11.218698 32618 net.cpp:124] Setting up conv0
I0428 20:14:11.218710 32618 net.cpp:131] Top shape: 100 50 24 24 (2880000)
I0428 20:14:11.218729 32618 net.cpp:139] Memory required for data: 11834800
I0428 20:14:11.218739 32618 layer_factory.hpp:77] Creating layer pool0
I0428 20:14:11.218744 32618 net.cpp:86] Creating Layer pool0
I0428 20:14:11.218747 32618 net.cpp:408] pool0 <- conv0
I0428 20:14:11.218751 32618 net.cpp:382] pool0 -> pool0
I0428 20:14:11.218799 32618 net.cpp:124] Setting up pool0
I0428 20:14:11.218804 32618 net.cpp:131] Top shape: 100 50 12 12 (720000)
I0428 20:14:11.218807 32618 net.cpp:139] Memory required for data: 14714800
I0428 20:14:11.218811 32618 layer_factory.hpp:77] Creating layer conv1
I0428 20:14:11.218817 32618 net.cpp:86] Creating Layer conv1
I0428 20:14:11.218821 32618 net.cpp:408] conv1 <- pool0
I0428 20:14:11.218825 32618 net.cpp:382] conv1 -> conv1
I0428 20:14:11.220270 32618 net.cpp:124] Setting up conv1
I0428 20:14:11.220299 32618 net.cpp:131] Top shape: 100 2 8 8 (12800)
I0428 20:14:11.220302 32618 net.cpp:139] Memory required for data: 14766000
I0428 20:14:11.220326 32618 layer_factory.hpp:77] Creating layer pool1
I0428 20:14:11.220332 32618 net.cpp:86] Creating Layer pool1
I0428 20:14:11.220336 32618 net.cpp:408] pool1 <- conv1
I0428 20:14:11.220341 32618 net.cpp:382] pool1 -> pool1
I0428 20:14:11.220377 32618 net.cpp:124] Setting up pool1
I0428 20:14:11.220382 32618 net.cpp:131] Top shape: 100 2 4 4 (3200)
I0428 20:14:11.220386 32618 net.cpp:139] Memory required for data: 14778800
I0428 20:14:11.220388 32618 layer_factory.hpp:77] Creating layer ip1
I0428 20:14:11.220394 32618 net.cpp:86] Creating Layer ip1
I0428 20:14:11.220397 32618 net.cpp:408] ip1 <- pool1
I0428 20:14:11.220402 32618 net.cpp:382] ip1 -> ip1
I0428 20:14:11.220507 32618 net.cpp:124] Setting up ip1
I0428 20:14:11.220515 32618 net.cpp:131] Top shape: 100 25 (2500)
I0428 20:14:11.220517 32618 net.cpp:139] Memory required for data: 14788800
I0428 20:14:11.220525 32618 layer_factory.hpp:77] Creating layer relu1
I0428 20:14:11.220528 32618 net.cpp:86] Creating Layer relu1
I0428 20:14:11.220531 32618 net.cpp:408] relu1 <- ip1
I0428 20:14:11.220542 32618 net.cpp:369] relu1 -> ip1 (in-place)
I0428 20:14:11.220705 32618 net.cpp:124] Setting up relu1
I0428 20:14:11.220729 32618 net.cpp:131] Top shape: 100 25 (2500)
I0428 20:14:11.220732 32618 net.cpp:139] Memory required for data: 14798800
I0428 20:14:11.220736 32618 layer_factory.hpp:77] Creating layer ip2
I0428 20:14:11.220742 32618 net.cpp:86] Creating Layer ip2
I0428 20:14:11.220746 32618 net.cpp:408] ip2 <- ip1
I0428 20:14:11.220751 32618 net.cpp:382] ip2 -> ip2
I0428 20:14:11.220894 32618 net.cpp:124] Setting up ip2
I0428 20:14:11.220902 32618 net.cpp:131] Top shape: 100 10 (1000)
I0428 20:14:11.220906 32618 net.cpp:139] Memory required for data: 14802800
I0428 20:14:11.220912 32618 layer_factory.hpp:77] Creating layer relu2
I0428 20:14:11.220917 32618 net.cpp:86] Creating Layer relu2
I0428 20:14:11.220921 32618 net.cpp:408] relu2 <- ip2
I0428 20:14:11.220927 32618 net.cpp:369] relu2 -> ip2 (in-place)
I0428 20:14:11.221084 32618 net.cpp:124] Setting up relu2
I0428 20:14:11.221092 32618 net.cpp:131] Top shape: 100 10 (1000)
I0428 20:14:11.221096 32618 net.cpp:139] Memory required for data: 14806800
I0428 20:14:11.221099 32618 layer_factory.hpp:77] Creating layer ip2_relu2_0_split
I0428 20:14:11.221104 32618 net.cpp:86] Creating Layer ip2_relu2_0_split
I0428 20:14:11.221108 32618 net.cpp:408] ip2_relu2_0_split <- ip2
I0428 20:14:11.221113 32618 net.cpp:382] ip2_relu2_0_split -> ip2_relu2_0_split_0
I0428 20:14:11.221132 32618 net.cpp:382] ip2_relu2_0_split -> ip2_relu2_0_split_1
I0428 20:14:11.221194 32618 net.cpp:124] Setting up ip2_relu2_0_split
I0428 20:14:11.221201 32618 net.cpp:131] Top shape: 100 10 (1000)
I0428 20:14:11.221205 32618 net.cpp:131] Top shape: 100 10 (1000)
I0428 20:14:11.221209 32618 net.cpp:139] Memory required for data: 14814800
I0428 20:14:11.221211 32618 layer_factory.hpp:77] Creating layer accuracy
I0428 20:14:11.221216 32618 net.cpp:86] Creating Layer accuracy
I0428 20:14:11.221220 32618 net.cpp:408] accuracy <- ip2_relu2_0_split_0
I0428 20:14:11.221223 32618 net.cpp:408] accuracy <- label_mnist_1_split_0
I0428 20:14:11.221228 32618 net.cpp:382] accuracy -> accuracy
…
