…
I0428 19:33:58.446367 23243 net.cpp:296] The NetState phase (0) differed from the phase (1) specified by a rule in layer mnist
I0428 19:33:58.446389 23243 net.cpp:296] The NetState phase (0) differed from the phase (1) specified by a rule in layer accuracy
I0428 19:33:58.446507 23243 net.cpp:53] Initializing net from parameters: 
name: "LeNet"
state {
  phase: TRAIN
  level: 0
  stage: ""
}
layer {
  name: "mnist"
  type: "Data"
  top: "data"
  top: "label"
  include {
    phase: TRAIN
  }
  transform_param {
    scale: 0.00390625
  }
  data_param {
    source: "examples/mnist/mnist_train_lmdb"
    batch_size: 64
    backend: LMDB
  }
}
layer {
  name: "conv0"
  type: "Convolution"
  bottom: "data"
  top: "conv0"
  param {
    lr_mult: 1
  }
  param {
    lr_mult: 2
  }
  convolution_param {
    num_output: 25
    kernel_size: 5
    stride: 1
    weight_filler {
      type: "xavier"
    }
    bias_filler {
      type: "constant"
    }
  }
}
layer {
  name: "pool0"
  type: "Pooling"
  bottom: "conv0"
  top: "pool0"
  pooling_param {
    pool: MAX
    kernel_size: 2
    stride: 2
  }
}
layer {
  name: "ip1"
  type: "InnerProduct"
  bottom: "pool0"
  top: "ip1"
  param {
    lr_mult: 1
  }
  param {
    lr_mult: 2
  }
  inner_product_param {
    num_output: 50
    weight_filler {
      type: "xavier"
    }
    bias_filler {
      type: "constant"
    }
  }
}
layer {
  name: "relu1"
  type: "ReLU"
  bottom: "ip1"
  top: "ip1"
}
layer {
  name: "ip2"
  type: "InnerProduct"
  bottom: "ip1"
  top: "ip2"
  param {
    lr_mult: 1
  }
  param {
    lr_mult: 2
  }
  inner_product_param {
    num_output: 50
    weight_filler {
      type: "xavier"
    }
    bias_filler {
      type: "constant"
    }
  }
}
layer {
  name: "relu2"
  type: "ReLU"
  bottom: "ip2"
  top: "ip2"
}
layer {
  name: "ip3"
  type: "InnerProduct"
  bottom: "ip2"
  top: "ip3"
  param {
    lr_mult: 1
  }
  param {
    lr_mult: 2
  }
  inner_product_param {
    num_output: 10
    weight_filler {
      type: "xavier"
    }
    bias_filler {
      type: "constant"
    }
  }
}
layer {
  name: "relu3"
  type: "ReLU"
  bottom: "ip3"
  top: "ip3"
}
layer {
  name: "loss"
  type: "SoftmaxWithLoss"
  bottom: "ip3"
  bottom: "label"
  top: "loss"
}
I0428 19:33:58.446596 23243 layer_factory.hpp:77] Creating layer mnist
I0428 19:33:58.446715 23243 db_lmdb.cpp:35] Opened lmdb examples/mnist/mnist_train_lmdb
I0428 19:33:58.446743 23243 net.cpp:86] Creating Layer mnist
I0428 19:33:58.446753 23243 net.cpp:382] mnist -> data
I0428 19:33:58.446781 23243 net.cpp:382] mnist -> label
I0428 19:33:58.448168 23243 data_layer.cpp:45] output data size: 64,1,28,28
I0428 19:33:58.451355 23243 net.cpp:124] Setting up mnist
I0428 19:33:58.451377 23243 net.cpp:131] Top shape: 64 1 28 28 (50176)
I0428 19:33:58.451386 23243 net.cpp:131] Top shape: 64 (64)
I0428 19:33:58.451392 23243 net.cpp:139] Memory required for data: 200960
I0428 19:33:58.451401 23243 layer_factory.hpp:77] Creating layer conv0
I0428 19:33:58.451421 23243 net.cpp:86] Creating Layer conv0
I0428 19:33:58.451429 23243 net.cpp:408] conv0 <- data
I0428 19:33:58.451443 23243 net.cpp:382] conv0 -> conv0
I0428 19:33:58.743753 23243 net.cpp:124] Setting up conv0
I0428 19:33:58.743779 23243 net.cpp:131] Top shape: 64 25 24 24 (921600)
I0428 19:33:58.743783 23243 net.cpp:139] Memory required for data: 3887360
I0428 19:33:58.743798 23243 layer_factory.hpp:77] Creating layer pool0
I0428 19:33:58.743810 23243 net.cpp:86] Creating Layer pool0
I0428 19:33:58.743834 23243 net.cpp:408] pool0 <- conv0
I0428 19:33:58.743839 23243 net.cpp:382] pool0 -> pool0
I0428 19:33:58.743885 23243 net.cpp:124] Setting up pool0
I0428 19:33:58.743890 23243 net.cpp:131] Top shape: 64 25 12 12 (230400)
I0428 19:33:58.743892 23243 net.cpp:139] Memory required for data: 4808960
I0428 19:33:58.743896 23243 layer_factory.hpp:77] Creating layer ip1
I0428 19:33:58.743902 23243 net.cpp:86] Creating Layer ip1
I0428 19:33:58.743906 23243 net.cpp:408] ip1 <- pool0
I0428 19:33:58.743911 23243 net.cpp:382] ip1 -> ip1
I0428 19:33:58.745841 23243 net.cpp:124] Setting up ip1
I0428 19:33:58.745854 23243 net.cpp:131] Top shape: 64 50 (3200)
I0428 19:33:58.745857 23243 net.cpp:139] Memory required for data: 4821760
I0428 19:33:58.745865 23243 layer_factory.hpp:77] Creating layer relu1
I0428 19:33:58.745872 23243 net.cpp:86] Creating Layer relu1
I0428 19:33:58.745875 23243 net.cpp:408] relu1 <- ip1
I0428 19:33:58.745879 23243 net.cpp:369] relu1 -> ip1 (in-place)
I0428 19:33:58.746039 23243 net.cpp:124] Setting up relu1
I0428 19:33:58.746048 23243 net.cpp:131] Top shape: 64 50 (3200)
I0428 19:33:58.746052 23243 net.cpp:139] Memory required for data: 4834560
I0428 19:33:58.746054 23243 layer_factory.hpp:77] Creating layer ip2
I0428 19:33:58.746060 23243 net.cpp:86] Creating Layer ip2
I0428 19:33:58.746063 23243 net.cpp:408] ip2 <- ip1
I0428 19:33:58.746068 23243 net.cpp:382] ip2 -> ip2
I0428 19:33:58.747035 23243 net.cpp:124] Setting up ip2
I0428 19:33:58.747046 23243 net.cpp:131] Top shape: 64 50 (3200)
I0428 19:33:58.747066 23243 net.cpp:139] Memory required for data: 4847360
I0428 19:33:58.747073 23243 layer_factory.hpp:77] Creating layer relu2
I0428 19:33:58.747079 23243 net.cpp:86] Creating Layer relu2
I0428 19:33:58.747082 23243 net.cpp:408] relu2 <- ip2
I0428 19:33:58.747087 23243 net.cpp:369] relu2 -> ip2 (in-place)
I0428 19:33:58.747862 23243 net.cpp:124] Setting up relu2
I0428 19:33:58.747874 23243 net.cpp:131] Top shape: 64 50 (3200)
I0428 19:33:58.747877 23243 net.cpp:139] Memory required for data: 4860160
I0428 19:33:58.747881 23243 layer_factory.hpp:77] Creating layer ip3
I0428 19:33:58.747887 23243 net.cpp:86] Creating Layer ip3
I0428 19:33:58.747891 23243 net.cpp:408] ip3 <- ip2
I0428 19:33:58.747896 23243 net.cpp:382] ip3 -> ip3
I0428 19:33:58.748008 23243 net.cpp:124] Setting up ip3
I0428 19:33:58.748014 23243 net.cpp:131] Top shape: 64 10 (640)
I0428 19:33:58.748018 23243 net.cpp:139] Memory required for data: 4862720
I0428 19:33:58.748023 23243 layer_factory.hpp:77] Creating layer relu3
I0428 19:33:58.748029 23243 net.cpp:86] Creating Layer relu3
I0428 19:33:58.748033 23243 net.cpp:408] relu3 <- ip3
I0428 19:33:58.748036 23243 net.cpp:369] relu3 -> ip3 (in-place)
I0428 19:33:58.748184 23243 net.cpp:124] Setting up relu3
I0428 19:33:58.748193 23243 net.cpp:131] Top shape: 64 10 (640)
I0428 19:33:58.748195 23243 net.cpp:139] Memory required for data: 4865280
I0428 19:33:58.748198 23243 layer_factory.hpp:77] Creating layer loss
I0428 19:33:58.748208 23243 net.cpp:86] Creating Layer loss
I0428 19:33:58.748212 23243 net.cpp:408] loss <- ip3
I0428 19:33:58.748216 23243 net.cpp:408] loss <- label
I0428 19:33:58.748222 23243 net.cpp:382] loss -> loss
I0428 19:33:58.748235 23243 layer_factory.hpp:77] Creating layer loss
…
I0428 19:33:58.748916 23243 solver.cpp:173] Creating test net (#0) specified by net file: ECE595/mnist/train_test/var_everything2/lenet_train_test193.prototxt
I0428 19:33:58.748960 23243 net.cpp:296] The NetState phase (1) differed from the phase (0) specified by a rule in layer mnist
I0428 19:33:58.749058 23243 net.cpp:53] Initializing net from parameters: 
name: "LeNet"
state {
  phase: TEST
}
layer {
  name: "mnist"
  type: "Data"
  top: "data"
  top: "label"
  include {
    phase: TEST
  }
  transform_param {
    scale: 0.00390625
  }
  data_param {
    source: "examples/mnist/mnist_test_lmdb"
    batch_size: 100
    backend: LMDB
  }
}
layer {
  name: "conv0"
  type: "Convolution"
  bottom: "data"
  top: "conv0"
  param {
    lr_mult: 1
  }
  param {
    lr_mult: 2
  }
  convolution_param {
    num_output: 25
    kernel_size: 5
    stride: 1
    weight_filler {
      type: "xavier"
    }
    bias_filler {
      type: "constant"
    }
  }
}
layer {
  name: "pool0"
  type: "Pooling"
  bottom: "conv0"
  top: "pool0"
  pooling_param {
    pool: MAX
    kernel_size: 2
    stride: 2
  }
}
layer {
  name: "ip1"
  type: "InnerProduct"
  bottom: "pool0"
  top: "ip1"
  param {
    lr_mult: 1
  }
  param {
    lr_mult: 2
  }
  inner_product_param {
    num_output: 50
    weight_filler {
      type: "xavier"
    }
    bias_filler {
      type: "constant"
    }
  }
}
layer {
  name: "relu1"
  type: "ReLU"
  bottom: "ip1"
  top: "ip1"
}
layer {
  name: "ip2"
  type: "InnerProduct"
  bottom: "ip1"
  top: "ip2"
  param {
    lr_mult: 1
  }
  param {
    lr_mult: 2
  }
  inner_product_param {
    num_output: 50
    weight_filler {
      type: "xavier"
    }
    bias_filler {
      type: "constant"
    }
  }
}
layer {
  name: "relu2"
  type: "ReLU"
  bottom: "ip2"
  top: "ip2"
}
layer {
  name: "ip3"
  type: "InnerProduct"
  bottom: "ip2"
  top: "ip3"
  param {
    lr_mult: 1
  }
  param {
    lr_mult: 2
  }
  inner_product_param {
    num_output: 10
    weight_filler {
      type: "xavier"
    }
    bias_filler {
      type: "constant"
    }
  }
}
layer {
  name: "relu3"
  type: "ReLU"
  bottom: "ip3"
  top: "ip3"
}
layer {
  name: "accuracy"
  type: "Accuracy"
  bottom: "ip3"
  bottom: "label"
  top: "accuracy"
  include {
    phase: TEST
  }
}
layer {
  name: "loss"
  type: "SoftmaxWithLoss"
  bottom: "ip3"
  bottom: "label"
  top: "loss"
}
I0428 19:33:58.749124 23243 layer_factory.hpp:77] Creating layer mnist
I0428 19:33:58.749197 23243 db_lmdb.cpp:35] Opened lmdb examples/mnist/mnist_test_lmdb
I0428 19:33:58.749210 23243 net.cpp:86] Creating Layer mnist
I0428 19:33:58.749215 23243 net.cpp:382] mnist -> data
I0428 19:33:58.749222 23243 net.cpp:382] mnist -> label
I0428 19:33:58.749305 23243 data_layer.cpp:45] output data size: 100,1,28,28
I0428 19:33:58.750382 23243 net.cpp:124] Setting up mnist
I0428 19:33:58.750394 23243 net.cpp:131] Top shape: 100 1 28 28 (78400)
I0428 19:33:58.750399 23243 net.cpp:131] Top shape: 100 (100)
I0428 19:33:58.750401 23243 net.cpp:139] Memory required for data: 314000
I0428 19:33:58.750406 23243 layer_factory.hpp:77] Creating layer label_mnist_1_split
I0428 19:33:58.750411 23243 net.cpp:86] Creating Layer label_mnist_1_split
I0428 19:33:58.750416 23243 net.cpp:408] label_mnist_1_split <- label
I0428 19:33:58.750422 23243 net.cpp:382] label_mnist_1_split -> label_mnist_1_split_0
I0428 19:33:58.750427 23243 net.cpp:382] label_mnist_1_split -> label_mnist_1_split_1
I0428 19:33:58.750463 23243 net.cpp:124] Setting up label_mnist_1_split
I0428 19:33:58.750468 23243 net.cpp:131] Top shape: 100 (100)
I0428 19:33:58.750471 23243 net.cpp:131] Top shape: 100 (100)
I0428 19:33:58.750474 23243 net.cpp:139] Memory required for data: 314800
I0428 19:33:58.750486 23243 layer_factory.hpp:77] Creating layer conv0
I0428 19:33:58.750495 23243 net.cpp:86] Creating Layer conv0
I0428 19:33:58.750499 23243 net.cpp:408] conv0 <- data
I0428 19:33:58.750502 23243 net.cpp:382] conv0 -> conv0
I0428 19:33:58.752133 23243 net.cpp:124] Setting up conv0
I0428 19:33:58.752147 23243 net.cpp:131] Top shape: 100 25 24 24 (1440000)
I0428 19:33:58.752151 23243 net.cpp:139] Memory required for data: 6074800
I0428 19:33:58.752159 23243 layer_factory.hpp:77] Creating layer pool0
I0428 19:33:58.752166 23243 net.cpp:86] Creating Layer pool0
I0428 19:33:58.752168 23243 net.cpp:408] pool0 <- conv0
I0428 19:33:58.752173 23243 net.cpp:382] pool0 -> pool0
I0428 19:33:58.752238 23243 net.cpp:124] Setting up pool0
I0428 19:33:58.752243 23243 net.cpp:131] Top shape: 100 25 12 12 (360000)
I0428 19:33:58.752244 23243 net.cpp:139] Memory required for data: 7514800
I0428 19:33:58.752248 23243 layer_factory.hpp:77] Creating layer ip1
I0428 19:33:58.752254 23243 net.cpp:86] Creating Layer ip1
I0428 19:33:58.752256 23243 net.cpp:408] ip1 <- pool0
I0428 19:33:58.752261 23243 net.cpp:382] ip1 -> ip1
I0428 19:33:58.754287 23243 net.cpp:124] Setting up ip1
I0428 19:33:58.754300 23243 net.cpp:131] Top shape: 100 50 (5000)
I0428 19:33:58.754304 23243 net.cpp:139] Memory required for data: 7534800
I0428 19:33:58.754312 23243 layer_factory.hpp:77] Creating layer relu1
I0428 19:33:58.754328 23243 net.cpp:86] Creating Layer relu1
I0428 19:33:58.754331 23243 net.cpp:408] relu1 <- ip1
I0428 19:33:58.754336 23243 net.cpp:369] relu1 -> ip1 (in-place)
I0428 19:33:58.754541 23243 net.cpp:124] Setting up relu1
I0428 19:33:58.754551 23243 net.cpp:131] Top shape: 100 50 (5000)
I0428 19:33:58.754554 23243 net.cpp:139] Memory required for data: 7554800
I0428 19:33:58.754559 23243 layer_factory.hpp:77] Creating layer ip2
I0428 19:33:58.754564 23243 net.cpp:86] Creating Layer ip2
I0428 19:33:58.754566 23243 net.cpp:408] ip2 <- ip1
I0428 19:33:58.754571 23243 net.cpp:382] ip2 -> ip2
I0428 19:33:58.754684 23243 net.cpp:124] Setting up ip2
I0428 19:33:58.754693 23243 net.cpp:131] Top shape: 100 50 (5000)
I0428 19:33:58.754695 23243 net.cpp:139] Memory required for data: 7574800
I0428 19:33:58.754703 23243 layer_factory.hpp:77] Creating layer relu2
I0428 19:33:58.754707 23243 net.cpp:86] Creating Layer relu2
I0428 19:33:58.754710 23243 net.cpp:408] relu2 <- ip2
I0428 19:33:58.754714 23243 net.cpp:369] relu2 -> ip2 (in-place)
I0428 19:33:58.755515 23243 net.cpp:124] Setting up relu2
I0428 19:33:58.755527 23243 net.cpp:131] Top shape: 100 50 (5000)
I0428 19:33:58.755530 23243 net.cpp:139] Memory required for data: 7594800
I0428 19:33:58.755533 23243 layer_factory.hpp:77] Creating layer ip3
I0428 19:33:58.755548 23243 net.cpp:86] Creating Layer ip3
I0428 19:33:58.755551 23243 net.cpp:408] ip3 <- ip2
I0428 19:33:58.755556 23243 net.cpp:382] ip3 -> ip3
I0428 19:33:58.755699 23243 net.cpp:124] Setting up ip3
I0428 19:33:58.755708 23243 net.cpp:131] Top shape: 100 10 (1000)
I0428 19:33:58.755712 23243 net.cpp:139] Memory required for data: 7598800
I0428 19:33:58.755717 23243 layer_factory.hpp:77] Creating layer relu3
I0428 19:33:58.755722 23243 net.cpp:86] Creating Layer relu3
I0428 19:33:58.755724 23243 net.cpp:408] relu3 <- ip3
I0428 19:33:58.755735 23243 net.cpp:369] relu3 -> ip3 (in-place)
I0428 19:33:58.755878 23243 net.cpp:124] Setting up relu3
I0428 19:33:58.755887 23243 net.cpp:131] Top shape: 100 10 (1000)
I0428 19:33:58.755889 23243 net.cpp:139] Memory required for data: 7602800
I0428 19:33:58.755892 23243 layer_factory.hpp:77] Creating layer ip3_relu3_0_split
I0428 19:33:58.755897 23243 net.cpp:86] Creating Layer ip3_relu3_0_split
I0428 19:33:58.755899 23243 net.cpp:408] ip3_relu3_0_split <- ip3
I0428 19:33:58.755904 23243 net.cpp:382] ip3_relu3_0_split -> ip3_relu3_0_split_0
I0428 19:33:58.755909 23243 net.cpp:382] ip3_relu3_0_split -> ip3_relu3_0_split_1
I0428 19:33:58.755941 23243 net.cpp:124] Setting up ip3_relu3_0_split
I0428 19:33:58.755952 23243 net.cpp:131] Top shape: 100 10 (1000)
I0428 19:33:58.755956 23243 net.cpp:131] Top shape: 100 10 (1000)
I0428 19:33:58.755970 23243 net.cpp:139] Memory required for data: 7610800
I0428 19:33:58.755972 23243 layer_factory.hpp:77] Creating layer accuracy
I0428 19:33:58.755977 23243 net.cpp:86] Creating Layer accuracy
I0428 19:33:58.755980 23243 net.cpp:408] accuracy <- ip3_relu3_0_split_0
I0428 19:33:58.755985 23243 net.cpp:408] accuracy <- label_mnist_1_split_0
I0428 19:33:58.755988 23243 net.cpp:382] accuracy -> accuracy
…
