…
I0428 20:11:56.240563 32168 net.cpp:296] The NetState phase (0) differed from the phase (1) specified by a rule in layer mnist
I0428 20:11:56.240583 32168 net.cpp:296] The NetState phase (0) differed from the phase (1) specified by a rule in layer accuracy
I0428 20:11:56.240672 32168 net.cpp:53] Initializing net from parameters: 
name: "LeNet"
state {
  phase: TRAIN
  level: 0
  stage: ""
}
layer {
  name: "mnist"
  type: "Data"
  top: "data"
  top: "label"
  include {
    phase: TRAIN
  }
  transform_param {
    scale: 0.00390625
  }
  data_param {
    source: "examples/mnist/mnist_train_lmdb"
    batch_size: 64
    backend: LMDB
  }
}
layer {
  name: "conv0"
  type: "Convolution"
  bottom: "data"
  top: "conv0"
  param {
    lr_mult: 1
  }
  param {
    lr_mult: 2
  }
  convolution_param {
    num_output: 25
    kernel_size: 5
    stride: 1
    weight_filler {
      type: "xavier"
    }
    bias_filler {
      type: "constant"
    }
  }
}
layer {
  name: "pool0"
  type: "Pooling"
  bottom: "conv0"
  top: "pool0"
  pooling_param {
    pool: MAX
    kernel_size: 2
    stride: 2
  }
}
layer {
  name: "conv1"
  type: "Convolution"
  bottom: "pool0"
  top: "conv1"
  param {
    lr_mult: 1
  }
  param {
    lr_mult: 2
  }
  convolution_param {
    num_output: 100
    kernel_size: 5
    stride: 1
    weight_filler {
      type: "xavier"
    }
    bias_filler {
      type: "constant"
    }
  }
}
layer {
  name: "pool1"
  type: "Pooling"
  bottom: "conv1"
  top: "pool1"
  pooling_param {
    pool: MAX
    kernel_size: 2
    stride: 2
  }
}
layer {
  name: "ip1"
  type: "InnerProduct"
  bottom: "pool1"
  top: "ip1"
  param {
    lr_mult: 1
  }
  param {
    lr_mult: 2
  }
  inner_product_param {
    num_output: 10
    weight_filler {
      type: "xavier"
    }
    bias_filler {
      type: "constant"
    }
  }
}
layer {
  name: "relu1"
  type: "ReLU"
  bottom: "ip1"
  top: "ip1"
}
layer {
  name: "loss"
  type: "SoftmaxWithLoss"
  bottom: "ip1"
  bottom: "label"
  top: "loss"
}
I0428 20:11:56.240763 32168 layer_factory.hpp:77] Creating layer mnist
I0428 20:11:56.240911 32168 db_lmdb.cpp:35] Opened lmdb examples/mnist/mnist_train_lmdb
I0428 20:11:56.240944 32168 net.cpp:86] Creating Layer mnist
I0428 20:11:56.240957 32168 net.cpp:382] mnist -> data
I0428 20:11:56.240989 32168 net.cpp:382] mnist -> label
I0428 20:11:56.242187 32168 data_layer.cpp:45] output data size: 64,1,28,28
I0428 20:11:56.244637 32168 net.cpp:124] Setting up mnist
I0428 20:11:56.244657 32168 net.cpp:131] Top shape: 64 1 28 28 (50176)
I0428 20:11:56.244668 32168 net.cpp:131] Top shape: 64 (64)
I0428 20:11:56.244674 32168 net.cpp:139] Memory required for data: 200960
I0428 20:11:56.244685 32168 layer_factory.hpp:77] Creating layer conv0
I0428 20:11:56.244709 32168 net.cpp:86] Creating Layer conv0
I0428 20:11:56.244719 32168 net.cpp:408] conv0 <- data
I0428 20:11:56.244737 32168 net.cpp:382] conv0 -> conv0
I0428 20:11:56.536218 32168 net.cpp:124] Setting up conv0
I0428 20:11:56.536252 32168 net.cpp:131] Top shape: 64 25 24 24 (921600)
I0428 20:11:56.536259 32168 net.cpp:139] Memory required for data: 3887360
I0428 20:11:56.536284 32168 layer_factory.hpp:77] Creating layer pool0
I0428 20:11:56.536304 32168 net.cpp:86] Creating Layer pool0
I0428 20:11:56.536322 32168 net.cpp:408] pool0 <- conv0
I0428 20:11:56.536334 32168 net.cpp:382] pool0 -> pool0
I0428 20:11:56.536399 32168 net.cpp:124] Setting up pool0
I0428 20:11:56.536411 32168 net.cpp:131] Top shape: 64 25 12 12 (230400)
I0428 20:11:56.536438 32168 net.cpp:139] Memory required for data: 4808960
I0428 20:11:56.536447 32168 layer_factory.hpp:77] Creating layer conv1
I0428 20:11:56.536465 32168 net.cpp:86] Creating Layer conv1
I0428 20:11:56.536473 32168 net.cpp:408] conv1 <- pool0
I0428 20:11:56.536484 32168 net.cpp:382] conv1 -> conv1
I0428 20:11:56.539041 32168 net.cpp:124] Setting up conv1
I0428 20:11:56.539062 32168 net.cpp:131] Top shape: 64 100 8 8 (409600)
I0428 20:11:56.539069 32168 net.cpp:139] Memory required for data: 6447360
I0428 20:11:56.539085 32168 layer_factory.hpp:77] Creating layer pool1
I0428 20:11:56.539099 32168 net.cpp:86] Creating Layer pool1
I0428 20:11:56.539108 32168 net.cpp:408] pool1 <- conv1
I0428 20:11:56.539118 32168 net.cpp:382] pool1 -> pool1
I0428 20:11:56.539170 32168 net.cpp:124] Setting up pool1
I0428 20:11:56.539181 32168 net.cpp:131] Top shape: 64 100 4 4 (102400)
I0428 20:11:56.539187 32168 net.cpp:139] Memory required for data: 6856960
I0428 20:11:56.539194 32168 layer_factory.hpp:77] Creating layer ip1
I0428 20:11:56.539207 32168 net.cpp:86] Creating Layer ip1
I0428 20:11:56.539219 32168 net.cpp:408] ip1 <- pool1
I0428 20:11:56.539230 32168 net.cpp:382] ip1 -> ip1
I0428 20:11:56.540451 32168 net.cpp:124] Setting up ip1
I0428 20:11:56.540467 32168 net.cpp:131] Top shape: 64 10 (640)
I0428 20:11:56.540474 32168 net.cpp:139] Memory required for data: 6859520
I0428 20:11:56.540490 32168 layer_factory.hpp:77] Creating layer relu1
I0428 20:11:56.540501 32168 net.cpp:86] Creating Layer relu1
I0428 20:11:56.540509 32168 net.cpp:408] relu1 <- ip1
I0428 20:11:56.540518 32168 net.cpp:369] relu1 -> ip1 (in-place)
I0428 20:11:56.540735 32168 net.cpp:124] Setting up relu1
I0428 20:11:56.540747 32168 net.cpp:131] Top shape: 64 10 (640)
I0428 20:11:56.540755 32168 net.cpp:139] Memory required for data: 6862080
I0428 20:11:56.540761 32168 layer_factory.hpp:77] Creating layer loss
I0428 20:11:56.540771 32168 net.cpp:86] Creating Layer loss
I0428 20:11:56.540778 32168 net.cpp:408] loss <- ip1
I0428 20:11:56.540787 32168 net.cpp:408] loss <- label
I0428 20:11:56.540797 32168 net.cpp:382] loss -> loss
I0428 20:11:56.540834 32168 layer_factory.hpp:77] Creating layer loss
…
I0428 20:11:56.542243 32168 solver.cpp:173] Creating test net (#0) specified by net file: ECE595/mnist/train_test/var_everything2/lenet_train_test1170.prototxt
I0428 20:11:56.542281 32168 net.cpp:296] The NetState phase (1) differed from the phase (0) specified by a rule in layer mnist
I0428 20:11:56.542378 32168 net.cpp:53] Initializing net from parameters: 
name: "LeNet"
state {
  phase: TEST
}
layer {
  name: "mnist"
  type: "Data"
  top: "data"
  top: "label"
  include {
    phase: TEST
  }
  transform_param {
    scale: 0.00390625
  }
  data_param {
    source: "examples/mnist/mnist_test_lmdb"
    batch_size: 100
    backend: LMDB
  }
}
layer {
  name: "conv0"
  type: "Convolution"
  bottom: "data"
  top: "conv0"
  param {
    lr_mult: 1
  }
  param {
    lr_mult: 2
  }
  convolution_param {
    num_output: 25
    kernel_size: 5
    stride: 1
    weight_filler {
      type: "xavier"
    }
    bias_filler {
      type: "constant"
    }
  }
}
layer {
  name: "pool0"
  type: "Pooling"
  bottom: "conv0"
  top: "pool0"
  pooling_param {
    pool: MAX
    kernel_size: 2
    stride: 2
  }
}
layer {
  name: "conv1"
  type: "Convolution"
  bottom: "pool0"
  top: "conv1"
  param {
    lr_mult: 1
  }
  param {
    lr_mult: 2
  }
  convolution_param {
    num_output: 100
    kernel_size: 5
    stride: 1
    weight_filler {
      type: "xavier"
    }
    bias_filler {
      type: "constant"
    }
  }
}
layer {
  name: "pool1"
  type: "Pooling"
  bottom: "conv1"
  top: "pool1"
  pooling_param {
    pool: MAX
    kernel_size: 2
    stride: 2
  }
}
layer {
  name: "ip1"
  type: "InnerProduct"
  bottom: "pool1"
  top: "ip1"
  param {
    lr_mult: 1
  }
  param {
    lr_mult: 2
  }
  inner_product_param {
    num_output: 10
    weight_filler {
      type: "xavier"
    }
    bias_filler {
      type: "constant"
    }
  }
}
layer {
  name: "relu1"
  type: "ReLU"
  bottom: "ip1"
  top: "ip1"
}
layer {
  name: "accuracy"
  type: "Accuracy"
  bottom: "ip1"
  bottom: "label"
  top: "accuracy"
  include {
    phase: TEST
  }
}
layer {
  name: "loss"
  type: "SoftmaxWithLoss"
  bottom: "ip1"
  bottom: "label"
  top: "loss"
}
I0428 20:11:56.542500 32168 layer_factory.hpp:77] Creating layer mnist
I0428 20:11:56.542567 32168 db_lmdb.cpp:35] Opened lmdb examples/mnist/mnist_test_lmdb
I0428 20:11:56.542592 32168 net.cpp:86] Creating Layer mnist
I0428 20:11:56.542601 32168 net.cpp:382] mnist -> data
I0428 20:11:56.542615 32168 net.cpp:382] mnist -> label
I0428 20:11:56.542757 32168 data_layer.cpp:45] output data size: 100,1,28,28
I0428 20:11:56.545277 32168 net.cpp:124] Setting up mnist
I0428 20:11:56.545295 32168 net.cpp:131] Top shape: 100 1 28 28 (78400)
I0428 20:11:56.545306 32168 net.cpp:131] Top shape: 100 (100)
I0428 20:11:56.545313 32168 net.cpp:139] Memory required for data: 314000
I0428 20:11:56.545320 32168 layer_factory.hpp:77] Creating layer label_mnist_1_split
I0428 20:11:56.545332 32168 net.cpp:86] Creating Layer label_mnist_1_split
I0428 20:11:56.545339 32168 net.cpp:408] label_mnist_1_split <- label
I0428 20:11:56.545351 32168 net.cpp:382] label_mnist_1_split -> label_mnist_1_split_0
I0428 20:11:56.545363 32168 net.cpp:382] label_mnist_1_split -> label_mnist_1_split_1
I0428 20:11:56.545457 32168 net.cpp:124] Setting up label_mnist_1_split
I0428 20:11:56.545469 32168 net.cpp:131] Top shape: 100 (100)
I0428 20:11:56.545476 32168 net.cpp:131] Top shape: 100 (100)
I0428 20:11:56.545482 32168 net.cpp:139] Memory required for data: 314800
I0428 20:11:56.545490 32168 layer_factory.hpp:77] Creating layer conv0
I0428 20:11:56.545506 32168 net.cpp:86] Creating Layer conv0
I0428 20:11:56.545513 32168 net.cpp:408] conv0 <- data
I0428 20:11:56.545526 32168 net.cpp:382] conv0 -> conv0
I0428 20:11:56.546366 32168 net.cpp:124] Setting up conv0
I0428 20:11:56.546382 32168 net.cpp:131] Top shape: 100 25 24 24 (1440000)
I0428 20:11:56.546389 32168 net.cpp:139] Memory required for data: 6074800
I0428 20:11:56.546406 32168 layer_factory.hpp:77] Creating layer pool0
I0428 20:11:56.546419 32168 net.cpp:86] Creating Layer pool0
I0428 20:11:56.546428 32168 net.cpp:408] pool0 <- conv0
I0428 20:11:56.546437 32168 net.cpp:382] pool0 -> pool0
I0428 20:11:56.546488 32168 net.cpp:124] Setting up pool0
I0428 20:11:56.546499 32168 net.cpp:131] Top shape: 100 25 12 12 (360000)
I0428 20:11:56.546504 32168 net.cpp:139] Memory required for data: 7514800
I0428 20:11:56.546510 32168 layer_factory.hpp:77] Creating layer conv1
I0428 20:11:56.546526 32168 net.cpp:86] Creating Layer conv1
I0428 20:11:56.546535 32168 net.cpp:408] conv1 <- pool0
I0428 20:11:56.546545 32168 net.cpp:382] conv1 -> conv1
I0428 20:11:56.548607 32168 net.cpp:124] Setting up conv1
I0428 20:11:56.548629 32168 net.cpp:131] Top shape: 100 100 8 8 (640000)
I0428 20:11:56.548636 32168 net.cpp:139] Memory required for data: 10074800
I0428 20:11:56.548653 32168 layer_factory.hpp:77] Creating layer pool1
I0428 20:11:56.548666 32168 net.cpp:86] Creating Layer pool1
I0428 20:11:56.548686 32168 net.cpp:408] pool1 <- conv1
I0428 20:11:56.548697 32168 net.cpp:382] pool1 -> pool1
I0428 20:11:56.548748 32168 net.cpp:124] Setting up pool1
I0428 20:11:56.548758 32168 net.cpp:131] Top shape: 100 100 4 4 (160000)
I0428 20:11:56.548765 32168 net.cpp:139] Memory required for data: 10714800
I0428 20:11:56.548771 32168 layer_factory.hpp:77] Creating layer ip1
I0428 20:11:56.548784 32168 net.cpp:86] Creating Layer ip1
I0428 20:11:56.548790 32168 net.cpp:408] ip1 <- pool1
I0428 20:11:56.548800 32168 net.cpp:382] ip1 -> ip1
I0428 20:11:56.549065 32168 net.cpp:124] Setting up ip1
I0428 20:11:56.549078 32168 net.cpp:131] Top shape: 100 10 (1000)
I0428 20:11:56.549085 32168 net.cpp:139] Memory required for data: 10718800
I0428 20:11:56.549099 32168 layer_factory.hpp:77] Creating layer relu1
I0428 20:11:56.549109 32168 net.cpp:86] Creating Layer relu1
I0428 20:11:56.549116 32168 net.cpp:408] relu1 <- ip1
I0428 20:11:56.549126 32168 net.cpp:369] relu1 -> ip1 (in-place)
I0428 20:11:56.550063 32168 net.cpp:124] Setting up relu1
I0428 20:11:56.550078 32168 net.cpp:131] Top shape: 100 10 (1000)
I0428 20:11:56.550086 32168 net.cpp:139] Memory required for data: 10722800
I0428 20:11:56.550092 32168 layer_factory.hpp:77] Creating layer ip1_relu1_0_split
I0428 20:11:56.550106 32168 net.cpp:86] Creating Layer ip1_relu1_0_split
I0428 20:11:56.550112 32168 net.cpp:408] ip1_relu1_0_split <- ip1
I0428 20:11:56.550122 32168 net.cpp:382] ip1_relu1_0_split -> ip1_relu1_0_split_0
I0428 20:11:56.550135 32168 net.cpp:382] ip1_relu1_0_split -> ip1_relu1_0_split_1
I0428 20:11:56.550185 32168 net.cpp:124] Setting up ip1_relu1_0_split
I0428 20:11:56.550195 32168 net.cpp:131] Top shape: 100 10 (1000)
I0428 20:11:56.550205 32168 net.cpp:131] Top shape: 100 10 (1000)
I0428 20:11:56.550212 32168 net.cpp:139] Memory required for data: 10730800
I0428 20:11:56.550220 32168 layer_factory.hpp:77] Creating layer accuracy
I0428 20:11:56.550230 32168 net.cpp:86] Creating Layer accuracy
I0428 20:11:56.550236 32168 net.cpp:408] accuracy <- ip1_relu1_0_split_0
I0428 20:11:56.550245 32168 net.cpp:408] accuracy <- label_mnist_1_split_0
I0428 20:11:56.550253 32168 net.cpp:382] accuracy -> accuracy
…
