…
I0428 19:28:28.207794 21634 net.cpp:296] The NetState phase (0) differed from the phase (1) specified by a rule in layer mnist
I0428 19:28:28.207810 21634 net.cpp:296] The NetState phase (0) differed from the phase (1) specified by a rule in layer accuracy
I0428 19:28:28.207885 21634 net.cpp:53] Initializing net from parameters: 
name: "LeNet"
state {
  phase: TRAIN
  level: 0
  stage: ""
}
layer {
  name: "mnist"
  type: "Data"
  top: "data"
  top: "label"
  include {
    phase: TRAIN
  }
  transform_param {
    scale: 0.00390625
  }
  data_param {
    source: "examples/mnist/mnist_train_lmdb"
    batch_size: 64
    backend: LMDB
  }
}
layer {
  name: "ip1"
  type: "InnerProduct"
  bottom: "data"
  top: "ip1"
  param {
    lr_mult: 1
  }
  param {
    lr_mult: 2
  }
  inner_product_param {
    num_output: 25
    weight_filler {
      type: "xavier"
    }
    bias_filler {
      type: "constant"
    }
  }
}
layer {
  name: "relu1"
  type: "ReLU"
  bottom: "ip1"
  top: "ip1"
}
layer {
  name: "ip2"
  type: "InnerProduct"
  bottom: "ip1"
  top: "ip2"
  param {
    lr_mult: 1
  }
  param {
    lr_mult: 2
  }
  inner_product_param {
    num_output: 25
    weight_filler {
      type: "xavier"
    }
    bias_filler {
      type: "constant"
    }
  }
}
layer {
  name: "relu2"
  type: "ReLU"
  bottom: "ip2"
  top: "ip2"
}
layer {
  name: "ip3"
  type: "InnerProduct"
  bottom: "ip2"
  top: "ip3"
  param {
    lr_mult: 1
  }
  param {
    lr_mult: 2
  }
  inner_product_param {
    num_output: 10
    weight_filler {
      type: "xavier"
    }
    bias_filler {
      type: "constant"
    }
  }
}
layer {
  name: "relu3"
  type: "ReLU"
  bottom: "ip3"
  top: "ip3"
}
layer {
  name: "loss"
  type: "SoftmaxWithLoss"
  bottom: "ip3"
  bottom: "label"
  top: "loss"
}
I0428 19:28:28.207953 21634 layer_factory.hpp:77] Creating layer mnist
I0428 19:28:28.208052 21634 db_lmdb.cpp:35] Opened lmdb examples/mnist/mnist_train_lmdb
I0428 19:28:28.208076 21634 net.cpp:86] Creating Layer mnist
I0428 19:28:28.208086 21634 net.cpp:382] mnist -> data
I0428 19:28:28.208107 21634 net.cpp:382] mnist -> label
I0428 19:28:28.209203 21634 data_layer.cpp:45] output data size: 64,1,28,28
I0428 19:28:28.211655 21634 net.cpp:124] Setting up mnist
I0428 19:28:28.211674 21634 net.cpp:131] Top shape: 64 1 28 28 (50176)
I0428 19:28:28.211680 21634 net.cpp:131] Top shape: 64 (64)
I0428 19:28:28.211684 21634 net.cpp:139] Memory required for data: 200960
I0428 19:28:28.211691 21634 layer_factory.hpp:77] Creating layer ip1
I0428 19:28:28.211709 21634 net.cpp:86] Creating Layer ip1
I0428 19:28:28.211716 21634 net.cpp:408] ip1 <- data
I0428 19:28:28.211726 21634 net.cpp:382] ip1 -> ip1
I0428 19:28:28.212055 21634 net.cpp:124] Setting up ip1
I0428 19:28:28.212066 21634 net.cpp:131] Top shape: 64 25 (1600)
I0428 19:28:28.212070 21634 net.cpp:139] Memory required for data: 207360
I0428 19:28:28.212083 21634 layer_factory.hpp:77] Creating layer relu1
I0428 19:28:28.212093 21634 net.cpp:86] Creating Layer relu1
I0428 19:28:28.212098 21634 net.cpp:408] relu1 <- ip1
I0428 19:28:28.212106 21634 net.cpp:369] relu1 -> ip1 (in-place)
I0428 19:28:28.492223 21634 net.cpp:124] Setting up relu1
I0428 19:28:28.492252 21634 net.cpp:131] Top shape: 64 25 (1600)
I0428 19:28:28.492256 21634 net.cpp:139] Memory required for data: 213760
I0428 19:28:28.492262 21634 layer_factory.hpp:77] Creating layer ip2
I0428 19:28:28.492275 21634 net.cpp:86] Creating Layer ip2
I0428 19:28:28.492298 21634 net.cpp:408] ip2 <- ip1
I0428 19:28:28.492306 21634 net.cpp:382] ip2 -> ip2
I0428 19:28:28.493297 21634 net.cpp:124] Setting up ip2
I0428 19:28:28.493310 21634 net.cpp:131] Top shape: 64 25 (1600)
I0428 19:28:28.493314 21634 net.cpp:139] Memory required for data: 220160
I0428 19:28:28.493324 21634 layer_factory.hpp:77] Creating layer relu2
I0428 19:28:28.493332 21634 net.cpp:86] Creating Layer relu2
I0428 19:28:28.493335 21634 net.cpp:408] relu2 <- ip2
I0428 19:28:28.493340 21634 net.cpp:369] relu2 -> ip2 (in-place)
I0428 19:28:28.494048 21634 net.cpp:124] Setting up relu2
I0428 19:28:28.494060 21634 net.cpp:131] Top shape: 64 25 (1600)
I0428 19:28:28.494063 21634 net.cpp:139] Memory required for data: 226560
I0428 19:28:28.494066 21634 layer_factory.hpp:77] Creating layer ip3
I0428 19:28:28.494074 21634 net.cpp:86] Creating Layer ip3
I0428 19:28:28.494078 21634 net.cpp:408] ip3 <- ip2
I0428 19:28:28.494083 21634 net.cpp:382] ip3 -> ip3
I0428 19:28:28.494177 21634 net.cpp:124] Setting up ip3
I0428 19:28:28.494185 21634 net.cpp:131] Top shape: 64 10 (640)
I0428 19:28:28.494189 21634 net.cpp:139] Memory required for data: 229120
I0428 19:28:28.494196 21634 layer_factory.hpp:77] Creating layer relu3
I0428 19:28:28.494201 21634 net.cpp:86] Creating Layer relu3
I0428 19:28:28.494204 21634 net.cpp:408] relu3 <- ip3
I0428 19:28:28.494210 21634 net.cpp:369] relu3 -> ip3 (in-place)
I0428 19:28:28.494355 21634 net.cpp:124] Setting up relu3
I0428 19:28:28.494364 21634 net.cpp:131] Top shape: 64 10 (640)
I0428 19:28:28.494366 21634 net.cpp:139] Memory required for data: 231680
I0428 19:28:28.494370 21634 layer_factory.hpp:77] Creating layer loss
I0428 19:28:28.494375 21634 net.cpp:86] Creating Layer loss
I0428 19:28:28.494379 21634 net.cpp:408] loss <- ip3
I0428 19:28:28.494384 21634 net.cpp:408] loss <- label
I0428 19:28:28.494390 21634 net.cpp:382] loss -> loss
I0428 19:28:28.494407 21634 layer_factory.hpp:77] Creating layer loss
…
I0428 19:28:28.494918 21634 solver.cpp:173] Creating test net (#0) specified by net file: ECE595/mnist/train_test/var_everything2/lenet_train_test26.prototxt
I0428 19:28:28.494940 21634 net.cpp:296] The NetState phase (1) differed from the phase (0) specified by a rule in layer mnist
I0428 19:28:28.495005 21634 net.cpp:53] Initializing net from parameters: 
name: "LeNet"
state {
  phase: TEST
}
layer {
  name: "mnist"
  type: "Data"
  top: "data"
  top: "label"
  include {
    phase: TEST
  }
  transform_param {
    scale: 0.00390625
  }
  data_param {
    source: "examples/mnist/mnist_test_lmdb"
    batch_size: 100
    backend: LMDB
  }
}
layer {
  name: "ip1"
  type: "InnerProduct"
  bottom: "data"
  top: "ip1"
  param {
    lr_mult: 1
  }
  param {
    lr_mult: 2
  }
  inner_product_param {
    num_output: 25
    weight_filler {
      type: "xavier"
    }
    bias_filler {
      type: "constant"
    }
  }
}
layer {
  name: "relu1"
  type: "ReLU"
  bottom: "ip1"
  top: "ip1"
}
layer {
  name: "ip2"
  type: "InnerProduct"
  bottom: "ip1"
  top: "ip2"
  param {
    lr_mult: 1
  }
  param {
    lr_mult: 2
  }
  inner_product_param {
    num_output: 25
    weight_filler {
      type: "xavier"
    }
    bias_filler {
      type: "constant"
    }
  }
}
layer {
  name: "relu2"
  type: "ReLU"
  bottom: "ip2"
  top: "ip2"
}
layer {
  name: "ip3"
  type: "InnerProduct"
  bottom: "ip2"
  top: "ip3"
  param {
    lr_mult: 1
  }
  param {
    lr_mult: 2
  }
  inner_product_param {
    num_output: 10
    weight_filler {
      type: "xavier"
    }
    bias_filler {
      type: "constant"
    }
  }
}
layer {
  name: "relu3"
  type: "ReLU"
  bottom: "ip3"
  top: "ip3"
}
layer {
  name: "accuracy"
  type: "Accuracy"
  bottom: "ip3"
  bottom: "label"
  top: "accuracy"
  include {
    phase: TEST
  }
}
layer {
  name: "loss"
  type: "SoftmaxWithLoss"
  bottom: "ip3"
  bottom: "label"
  top: "loss"
}
I0428 19:28:28.495074 21634 layer_factory.hpp:77] Creating layer mnist
I0428 19:28:28.495117 21634 db_lmdb.cpp:35] Opened lmdb examples/mnist/mnist_test_lmdb
I0428 19:28:28.495131 21634 net.cpp:86] Creating Layer mnist
I0428 19:28:28.495136 21634 net.cpp:382] mnist -> data
I0428 19:28:28.495143 21634 net.cpp:382] mnist -> label
I0428 19:28:28.495224 21634 data_layer.cpp:45] output data size: 100,1,28,28
I0428 19:28:28.497274 21634 net.cpp:124] Setting up mnist
I0428 19:28:28.497287 21634 net.cpp:131] Top shape: 100 1 28 28 (78400)
I0428 19:28:28.497292 21634 net.cpp:131] Top shape: 100 (100)
I0428 19:28:28.497295 21634 net.cpp:139] Memory required for data: 314000
I0428 19:28:28.497299 21634 layer_factory.hpp:77] Creating layer label_mnist_1_split
I0428 19:28:28.497310 21634 net.cpp:86] Creating Layer label_mnist_1_split
I0428 19:28:28.497314 21634 net.cpp:408] label_mnist_1_split <- label
I0428 19:28:28.497318 21634 net.cpp:382] label_mnist_1_split -> label_mnist_1_split_0
I0428 19:28:28.497324 21634 net.cpp:382] label_mnist_1_split -> label_mnist_1_split_1
I0428 19:28:28.497385 21634 net.cpp:124] Setting up label_mnist_1_split
I0428 19:28:28.497391 21634 net.cpp:131] Top shape: 100 (100)
I0428 19:28:28.497395 21634 net.cpp:131] Top shape: 100 (100)
I0428 19:28:28.497397 21634 net.cpp:139] Memory required for data: 314800
I0428 19:28:28.497400 21634 layer_factory.hpp:77] Creating layer ip1
I0428 19:28:28.497408 21634 net.cpp:86] Creating Layer ip1
I0428 19:28:28.497411 21634 net.cpp:408] ip1 <- data
I0428 19:28:28.497416 21634 net.cpp:382] ip1 -> ip1
I0428 19:28:28.497647 21634 net.cpp:124] Setting up ip1
I0428 19:28:28.497663 21634 net.cpp:131] Top shape: 100 25 (2500)
I0428 19:28:28.497665 21634 net.cpp:139] Memory required for data: 324800
I0428 19:28:28.497674 21634 layer_factory.hpp:77] Creating layer relu1
I0428 19:28:28.497680 21634 net.cpp:86] Creating Layer relu1
I0428 19:28:28.497684 21634 net.cpp:408] relu1 <- ip1
I0428 19:28:28.497689 21634 net.cpp:369] relu1 -> ip1 (in-place)
I0428 19:28:28.498700 21634 net.cpp:124] Setting up relu1
I0428 19:28:28.498729 21634 net.cpp:131] Top shape: 100 25 (2500)
I0428 19:28:28.498733 21634 net.cpp:139] Memory required for data: 334800
I0428 19:28:28.498736 21634 layer_factory.hpp:77] Creating layer ip2
I0428 19:28:28.498761 21634 net.cpp:86] Creating Layer ip2
I0428 19:28:28.498765 21634 net.cpp:408] ip2 <- ip1
I0428 19:28:28.498772 21634 net.cpp:382] ip2 -> ip2
I0428 19:28:28.498914 21634 net.cpp:124] Setting up ip2
I0428 19:28:28.498922 21634 net.cpp:131] Top shape: 100 25 (2500)
I0428 19:28:28.498925 21634 net.cpp:139] Memory required for data: 344800
I0428 19:28:28.498950 21634 layer_factory.hpp:77] Creating layer relu2
I0428 19:28:28.498956 21634 net.cpp:86] Creating Layer relu2
I0428 19:28:28.498960 21634 net.cpp:408] relu2 <- ip2
I0428 19:28:28.498965 21634 net.cpp:369] relu2 -> ip2 (in-place)
I0428 19:28:28.499135 21634 net.cpp:124] Setting up relu2
I0428 19:28:28.499143 21634 net.cpp:131] Top shape: 100 25 (2500)
I0428 19:28:28.499146 21634 net.cpp:139] Memory required for data: 354800
I0428 19:28:28.499150 21634 layer_factory.hpp:77] Creating layer ip3
I0428 19:28:28.499156 21634 net.cpp:86] Creating Layer ip3
I0428 19:28:28.499160 21634 net.cpp:408] ip3 <- ip2
I0428 19:28:28.499166 21634 net.cpp:382] ip3 -> ip3
I0428 19:28:28.499279 21634 net.cpp:124] Setting up ip3
I0428 19:28:28.499289 21634 net.cpp:131] Top shape: 100 10 (1000)
I0428 19:28:28.499291 21634 net.cpp:139] Memory required for data: 358800
I0428 19:28:28.499300 21634 layer_factory.hpp:77] Creating layer relu3
I0428 19:28:28.499305 21634 net.cpp:86] Creating Layer relu3
I0428 19:28:28.499308 21634 net.cpp:408] relu3 <- ip3
I0428 19:28:28.499313 21634 net.cpp:369] relu3 -> ip3 (in-place)
I0428 19:28:28.499475 21634 net.cpp:124] Setting up relu3
I0428 19:28:28.499485 21634 net.cpp:131] Top shape: 100 10 (1000)
I0428 19:28:28.499488 21634 net.cpp:139] Memory required for data: 362800
I0428 19:28:28.499491 21634 layer_factory.hpp:77] Creating layer ip3_relu3_0_split
I0428 19:28:28.499498 21634 net.cpp:86] Creating Layer ip3_relu3_0_split
I0428 19:28:28.499501 21634 net.cpp:408] ip3_relu3_0_split <- ip3
I0428 19:28:28.499522 21634 net.cpp:382] ip3_relu3_0_split -> ip3_relu3_0_split_0
I0428 19:28:28.499529 21634 net.cpp:382] ip3_relu3_0_split -> ip3_relu3_0_split_1
I0428 19:28:28.499574 21634 net.cpp:124] Setting up ip3_relu3_0_split
I0428 19:28:28.499581 21634 net.cpp:131] Top shape: 100 10 (1000)
I0428 19:28:28.499586 21634 net.cpp:131] Top shape: 100 10 (1000)
I0428 19:28:28.499589 21634 net.cpp:139] Memory required for data: 370800
I0428 19:28:28.499593 21634 layer_factory.hpp:77] Creating layer accuracy
I0428 19:28:28.499599 21634 net.cpp:86] Creating Layer accuracy
I0428 19:28:28.499603 21634 net.cpp:408] accuracy <- ip3_relu3_0_split_0
I0428 19:28:28.499608 21634 net.cpp:408] accuracy <- label_mnist_1_split_0
I0428 19:28:28.499611 21634 net.cpp:382] accuracy -> accuracy
…
