…
I0428 19:30:12.440551 22225 net.cpp:296] The NetState phase (0) differed from the phase (1) specified by a rule in layer mnist
I0428 19:30:12.440567 22225 net.cpp:296] The NetState phase (0) differed from the phase (1) specified by a rule in layer accuracy
I0428 19:30:12.440644 22225 net.cpp:53] Initializing net from parameters: 
name: "LeNet"
state {
  phase: TRAIN
  level: 0
  stage: ""
}
layer {
  name: "mnist"
  type: "Data"
  top: "data"
  top: "label"
  include {
    phase: TRAIN
  }
  transform_param {
    scale: 0.00390625
  }
  data_param {
    source: "examples/mnist/mnist_train_lmdb"
    batch_size: 64
    backend: LMDB
  }
}
layer {
  name: "conv0"
  type: "Convolution"
  bottom: "data"
  top: "conv0"
  param {
    lr_mult: 1
  }
  param {
    lr_mult: 2
  }
  convolution_param {
    num_output: 5
    kernel_size: 5
    stride: 1
    weight_filler {
      type: "xavier"
    }
    bias_filler {
      type: "constant"
    }
  }
}
layer {
  name: "pool0"
  type: "Pooling"
  bottom: "conv0"
  top: "pool0"
  pooling_param {
    pool: MAX
    kernel_size: 2
    stride: 2
  }
}
layer {
  name: "ip1"
  type: "InnerProduct"
  bottom: "pool0"
  top: "ip1"
  param {
    lr_mult: 1
  }
  param {
    lr_mult: 2
  }
  inner_product_param {
    num_output: 10
    weight_filler {
      type: "xavier"
    }
    bias_filler {
      type: "constant"
    }
  }
}
layer {
  name: "relu1"
  type: "ReLU"
  bottom: "ip1"
  top: "ip1"
}
layer {
  name: "ip2"
  type: "InnerProduct"
  bottom: "ip1"
  top: "ip2"
  param {
    lr_mult: 1
  }
  param {
    lr_mult: 2
  }
  inner_product_param {
    num_output: 10
    weight_filler {
      type: "xavier"
    }
    bias_filler {
      type: "constant"
    }
  }
}
layer {
  name: "relu2"
  type: "ReLU"
  bottom: "ip2"
  top: "ip2"
}
layer {
  name: "loss"
  type: "SoftmaxWithLoss"
  bottom: "ip2"
  bottom: "label"
  top: "loss"
}
I0428 19:30:12.440717 22225 layer_factory.hpp:77] Creating layer mnist
I0428 19:30:12.440822 22225 db_lmdb.cpp:35] Opened lmdb examples/mnist/mnist_train_lmdb
I0428 19:30:12.440846 22225 net.cpp:86] Creating Layer mnist
I0428 19:30:12.440855 22225 net.cpp:382] mnist -> data
I0428 19:30:12.440877 22225 net.cpp:382] mnist -> label
I0428 19:30:12.441972 22225 data_layer.cpp:45] output data size: 64,1,28,28
I0428 19:30:12.444414 22225 net.cpp:124] Setting up mnist
I0428 19:30:12.444432 22225 net.cpp:131] Top shape: 64 1 28 28 (50176)
I0428 19:30:12.444439 22225 net.cpp:131] Top shape: 64 (64)
I0428 19:30:12.444442 22225 net.cpp:139] Memory required for data: 200960
I0428 19:30:12.444450 22225 layer_factory.hpp:77] Creating layer conv0
I0428 19:30:12.444496 22225 net.cpp:86] Creating Layer conv0
I0428 19:30:12.444504 22225 net.cpp:408] conv0 <- data
I0428 19:30:12.444516 22225 net.cpp:382] conv0 -> conv0
I0428 19:30:12.727491 22225 net.cpp:124] Setting up conv0
I0428 19:30:12.727517 22225 net.cpp:131] Top shape: 64 5 24 24 (184320)
I0428 19:30:12.727522 22225 net.cpp:139] Memory required for data: 938240
I0428 19:30:12.727537 22225 layer_factory.hpp:77] Creating layer pool0
I0428 19:30:12.727550 22225 net.cpp:86] Creating Layer pool0
I0428 19:30:12.727555 22225 net.cpp:408] pool0 <- conv0
I0428 19:30:12.727560 22225 net.cpp:382] pool0 -> pool0
I0428 19:30:12.727605 22225 net.cpp:124] Setting up pool0
I0428 19:30:12.727610 22225 net.cpp:131] Top shape: 64 5 12 12 (46080)
I0428 19:30:12.727613 22225 net.cpp:139] Memory required for data: 1122560
I0428 19:30:12.727632 22225 layer_factory.hpp:77] Creating layer ip1
I0428 19:30:12.727639 22225 net.cpp:86] Creating Layer ip1
I0428 19:30:12.727643 22225 net.cpp:408] ip1 <- pool0
I0428 19:30:12.727648 22225 net.cpp:382] ip1 -> ip1
I0428 19:30:12.728600 22225 net.cpp:124] Setting up ip1
I0428 19:30:12.728612 22225 net.cpp:131] Top shape: 64 10 (640)
I0428 19:30:12.728616 22225 net.cpp:139] Memory required for data: 1125120
I0428 19:30:12.728624 22225 layer_factory.hpp:77] Creating layer relu1
I0428 19:30:12.728646 22225 net.cpp:86] Creating Layer relu1
I0428 19:30:12.728651 22225 net.cpp:408] relu1 <- ip1
I0428 19:30:12.728655 22225 net.cpp:369] relu1 -> ip1 (in-place)
I0428 19:30:12.728853 22225 net.cpp:124] Setting up relu1
I0428 19:30:12.728863 22225 net.cpp:131] Top shape: 64 10 (640)
I0428 19:30:12.728866 22225 net.cpp:139] Memory required for data: 1127680
I0428 19:30:12.728869 22225 layer_factory.hpp:77] Creating layer ip2
I0428 19:30:12.728876 22225 net.cpp:86] Creating Layer ip2
I0428 19:30:12.728879 22225 net.cpp:408] ip2 <- ip1
I0428 19:30:12.728885 22225 net.cpp:382] ip2 -> ip2
I0428 19:30:12.728988 22225 net.cpp:124] Setting up ip2
I0428 19:30:12.728996 22225 net.cpp:131] Top shape: 64 10 (640)
I0428 19:30:12.728998 22225 net.cpp:139] Memory required for data: 1130240
I0428 19:30:12.729005 22225 layer_factory.hpp:77] Creating layer relu2
I0428 19:30:12.729010 22225 net.cpp:86] Creating Layer relu2
I0428 19:30:12.729013 22225 net.cpp:408] relu2 <- ip2
I0428 19:30:12.729017 22225 net.cpp:369] relu2 -> ip2 (in-place)
I0428 19:30:12.729730 22225 net.cpp:124] Setting up relu2
I0428 19:30:12.729743 22225 net.cpp:131] Top shape: 64 10 (640)
I0428 19:30:12.729761 22225 net.cpp:139] Memory required for data: 1132800
I0428 19:30:12.729765 22225 layer_factory.hpp:77] Creating layer loss
I0428 19:30:12.729773 22225 net.cpp:86] Creating Layer loss
I0428 19:30:12.729776 22225 net.cpp:408] loss <- ip2
I0428 19:30:12.729781 22225 net.cpp:408] loss <- label
I0428 19:30:12.729786 22225 net.cpp:382] loss -> loss
I0428 19:30:12.729802 22225 layer_factory.hpp:77] Creating layer loss
…
I0428 19:30:12.730403 22225 solver.cpp:173] Creating test net (#0) specified by net file: ECE595/mnist/train_test/var_everything2/lenet_train_test83.prototxt
I0428 19:30:12.730428 22225 net.cpp:296] The NetState phase (1) differed from the phase (0) specified by a rule in layer mnist
I0428 19:30:12.730515 22225 net.cpp:53] Initializing net from parameters: 
name: "LeNet"
state {
  phase: TEST
}
layer {
  name: "mnist"
  type: "Data"
  top: "data"
  top: "label"
  include {
    phase: TEST
  }
  transform_param {
    scale: 0.00390625
  }
  data_param {
    source: "examples/mnist/mnist_test_lmdb"
    batch_size: 100
    backend: LMDB
  }
}
layer {
  name: "conv0"
  type: "Convolution"
  bottom: "data"
  top: "conv0"
  param {
    lr_mult: 1
  }
  param {
    lr_mult: 2
  }
  convolution_param {
    num_output: 5
    kernel_size: 5
    stride: 1
    weight_filler {
      type: "xavier"
    }
    bias_filler {
      type: "constant"
    }
  }
}
layer {
  name: "pool0"
  type: "Pooling"
  bottom: "conv0"
  top: "pool0"
  pooling_param {
    pool: MAX
    kernel_size: 2
    stride: 2
  }
}
layer {
  name: "ip1"
  type: "InnerProduct"
  bottom: "pool0"
  top: "ip1"
  param {
    lr_mult: 1
  }
  param {
    lr_mult: 2
  }
  inner_product_param {
    num_output: 10
    weight_filler {
      type: "xavier"
    }
    bias_filler {
      type: "constant"
    }
  }
}
layer {
  name: "relu1"
  type: "ReLU"
  bottom: "ip1"
  top: "ip1"
}
layer {
  name: "ip2"
  type: "InnerProduct"
  bottom: "ip1"
  top: "ip2"
  param {
    lr_mult: 1
  }
  param {
    lr_mult: 2
  }
  inner_product_param {
    num_output: 10
    weight_filler {
      type: "xavier"
    }
    bias_filler {
      type: "constant"
    }
  }
}
layer {
  name: "relu2"
  type: "ReLU"
  bottom: "ip2"
  top: "ip2"
}
layer {
  name: "accuracy"
  type: "Accuracy"
  bottom: "ip2"
  bottom: "label"
  top: "accuracy"
  include {
    phase: TEST
  }
}
layer {
  name: "loss"
  type: "SoftmaxWithLoss"
  bottom: "ip2"
  bottom: "label"
  top: "loss"
}
I0428 19:30:12.730583 22225 layer_factory.hpp:77] Creating layer mnist
I0428 19:30:12.730643 22225 db_lmdb.cpp:35] Opened lmdb examples/mnist/mnist_test_lmdb
I0428 19:30:12.730655 22225 net.cpp:86] Creating Layer mnist
I0428 19:30:12.730659 22225 net.cpp:382] mnist -> data
I0428 19:30:12.730669 22225 net.cpp:382] mnist -> label
I0428 19:30:12.730749 22225 data_layer.cpp:45] output data size: 100,1,28,28
I0428 19:30:12.732854 22225 net.cpp:124] Setting up mnist
I0428 19:30:12.732884 22225 net.cpp:131] Top shape: 100 1 28 28 (78400)
I0428 19:30:12.732889 22225 net.cpp:131] Top shape: 100 (100)
I0428 19:30:12.732893 22225 net.cpp:139] Memory required for data: 314000
I0428 19:30:12.732897 22225 layer_factory.hpp:77] Creating layer label_mnist_1_split
I0428 19:30:12.732904 22225 net.cpp:86] Creating Layer label_mnist_1_split
I0428 19:30:12.732908 22225 net.cpp:408] label_mnist_1_split <- label
I0428 19:30:12.732913 22225 net.cpp:382] label_mnist_1_split -> label_mnist_1_split_0
I0428 19:30:12.732919 22225 net.cpp:382] label_mnist_1_split -> label_mnist_1_split_1
I0428 19:30:12.732966 22225 net.cpp:124] Setting up label_mnist_1_split
I0428 19:30:12.732973 22225 net.cpp:131] Top shape: 100 (100)
I0428 19:30:12.732977 22225 net.cpp:131] Top shape: 100 (100)
I0428 19:30:12.732980 22225 net.cpp:139] Memory required for data: 314800
I0428 19:30:12.732983 22225 layer_factory.hpp:77] Creating layer conv0
I0428 19:30:12.732991 22225 net.cpp:86] Creating Layer conv0
I0428 19:30:12.732995 22225 net.cpp:408] conv0 <- data
I0428 19:30:12.733000 22225 net.cpp:382] conv0 -> conv0
I0428 19:30:12.734771 22225 net.cpp:124] Setting up conv0
I0428 19:30:12.734784 22225 net.cpp:131] Top shape: 100 5 24 24 (288000)
I0428 19:30:12.734787 22225 net.cpp:139] Memory required for data: 1466800
I0428 19:30:12.734797 22225 layer_factory.hpp:77] Creating layer pool0
I0428 19:30:12.734803 22225 net.cpp:86] Creating Layer pool0
I0428 19:30:12.734807 22225 net.cpp:408] pool0 <- conv0
I0428 19:30:12.734812 22225 net.cpp:382] pool0 -> pool0
I0428 19:30:12.734848 22225 net.cpp:124] Setting up pool0
I0428 19:30:12.734853 22225 net.cpp:131] Top shape: 100 5 12 12 (72000)
I0428 19:30:12.734855 22225 net.cpp:139] Memory required for data: 1754800
I0428 19:30:12.734858 22225 layer_factory.hpp:77] Creating layer ip1
I0428 19:30:12.734865 22225 net.cpp:86] Creating Layer ip1
I0428 19:30:12.734869 22225 net.cpp:408] ip1 <- pool0
I0428 19:30:12.734875 22225 net.cpp:382] ip1 -> ip1
I0428 19:30:12.735008 22225 net.cpp:124] Setting up ip1
I0428 19:30:12.735014 22225 net.cpp:131] Top shape: 100 10 (1000)
I0428 19:30:12.735018 22225 net.cpp:139] Memory required for data: 1758800
I0428 19:30:12.735024 22225 layer_factory.hpp:77] Creating layer relu1
I0428 19:30:12.735030 22225 net.cpp:86] Creating Layer relu1
I0428 19:30:12.735033 22225 net.cpp:408] relu1 <- ip1
I0428 19:30:12.735038 22225 net.cpp:369] relu1 -> ip1 (in-place)
I0428 19:30:12.735191 22225 net.cpp:124] Setting up relu1
I0428 19:30:12.735199 22225 net.cpp:131] Top shape: 100 10 (1000)
I0428 19:30:12.735213 22225 net.cpp:139] Memory required for data: 1762800
I0428 19:30:12.735216 22225 layer_factory.hpp:77] Creating layer ip2
I0428 19:30:12.735224 22225 net.cpp:86] Creating Layer ip2
I0428 19:30:12.735226 22225 net.cpp:408] ip2 <- ip1
I0428 19:30:12.735230 22225 net.cpp:382] ip2 -> ip2
I0428 19:30:12.735327 22225 net.cpp:124] Setting up ip2
I0428 19:30:12.735333 22225 net.cpp:131] Top shape: 100 10 (1000)
I0428 19:30:12.735335 22225 net.cpp:139] Memory required for data: 1766800
I0428 19:30:12.735343 22225 layer_factory.hpp:77] Creating layer relu2
I0428 19:30:12.735347 22225 net.cpp:86] Creating Layer relu2
I0428 19:30:12.735350 22225 net.cpp:408] relu2 <- ip2
I0428 19:30:12.735373 22225 net.cpp:369] relu2 -> ip2 (in-place)
I0428 19:30:12.735548 22225 net.cpp:124] Setting up relu2
I0428 19:30:12.735556 22225 net.cpp:131] Top shape: 100 10 (1000)
I0428 19:30:12.735559 22225 net.cpp:139] Memory required for data: 1770800
I0428 19:30:12.735563 22225 layer_factory.hpp:77] Creating layer ip2_relu2_0_split
I0428 19:30:12.735569 22225 net.cpp:86] Creating Layer ip2_relu2_0_split
I0428 19:30:12.735572 22225 net.cpp:408] ip2_relu2_0_split <- ip2
I0428 19:30:12.735586 22225 net.cpp:382] ip2_relu2_0_split -> ip2_relu2_0_split_0
I0428 19:30:12.735594 22225 net.cpp:382] ip2_relu2_0_split -> ip2_relu2_0_split_1
I0428 19:30:12.735699 22225 net.cpp:124] Setting up ip2_relu2_0_split
I0428 19:30:12.735707 22225 net.cpp:131] Top shape: 100 10 (1000)
I0428 19:30:12.735710 22225 net.cpp:131] Top shape: 100 10 (1000)
I0428 19:30:12.735713 22225 net.cpp:139] Memory required for data: 1778800
I0428 19:30:12.735730 22225 layer_factory.hpp:77] Creating layer accuracy
I0428 19:30:12.735735 22225 net.cpp:86] Creating Layer accuracy
I0428 19:30:12.735738 22225 net.cpp:408] accuracy <- ip2_relu2_0_split_0
I0428 19:30:12.735743 22225 net.cpp:408] accuracy <- label_mnist_1_split_0
I0428 19:30:12.735747 22225 net.cpp:382] accuracy -> accuracy
…
