…
I0428 19:36:12.044826 23652 net.cpp:296] The NetState phase (0) differed from the phase (1) specified by a rule in layer mnist
I0428 19:36:12.044842 23652 net.cpp:296] The NetState phase (0) differed from the phase (1) specified by a rule in layer accuracy
I0428 19:36:12.044919 23652 net.cpp:53] Initializing net from parameters: 
name: "LeNet"
state {
  phase: TRAIN
  level: 0
  stage: ""
}
layer {
  name: "mnist"
  type: "Data"
  top: "data"
  top: "label"
  include {
    phase: TRAIN
  }
  transform_param {
    scale: 0.00390625
  }
  data_param {
    source: "examples/mnist/mnist_train_lmdb"
    batch_size: 64
    backend: LMDB
  }
}
layer {
  name: "conv0"
  type: "Convolution"
  bottom: "data"
  top: "conv0"
  param {
    lr_mult: 1
  }
  param {
    lr_mult: 2
  }
  convolution_param {
    num_output: 100
    kernel_size: 5
    stride: 1
    weight_filler {
      type: "xavier"
    }
    bias_filler {
      type: "constant"
    }
  }
}
layer {
  name: "pool0"
  type: "Pooling"
  bottom: "conv0"
  top: "pool0"
  pooling_param {
    pool: MAX
    kernel_size: 2
    stride: 2
  }
}
layer {
  name: "ip1"
  type: "InnerProduct"
  bottom: "pool0"
  top: "ip1"
  param {
    lr_mult: 1
  }
  param {
    lr_mult: 2
  }
  inner_product_param {
    num_output: 10
    weight_filler {
      type: "xavier"
    }
    bias_filler {
      type: "constant"
    }
  }
}
layer {
  name: "relu1"
  type: "ReLU"
  bottom: "ip1"
  top: "ip1"
}
layer {
  name: "ip2"
  type: "InnerProduct"
  bottom: "ip1"
  top: "ip2"
  param {
    lr_mult: 1
  }
  param {
    lr_mult: 2
  }
  inner_product_param {
    num_output: 10
    weight_filler {
      type: "xavier"
    }
    bias_filler {
      type: "constant"
    }
  }
}
layer {
  name: "relu2"
  type: "ReLU"
  bottom: "ip2"
  top: "ip2"
}
layer {
  name: "loss"
  type: "SoftmaxWithLoss"
  bottom: "ip2"
  bottom: "label"
  top: "loss"
}
I0428 19:36:12.044983 23652 layer_factory.hpp:77] Creating layer mnist
I0428 19:36:12.045083 23652 db_lmdb.cpp:35] Opened lmdb examples/mnist/mnist_train_lmdb
I0428 19:36:12.045105 23652 net.cpp:86] Creating Layer mnist
I0428 19:36:12.045112 23652 net.cpp:382] mnist -> data
I0428 19:36:12.045135 23652 net.cpp:382] mnist -> label
I0428 19:36:12.046227 23652 data_layer.cpp:45] output data size: 64,1,28,28
I0428 19:36:12.048669 23652 net.cpp:124] Setting up mnist
I0428 19:36:12.048687 23652 net.cpp:131] Top shape: 64 1 28 28 (50176)
I0428 19:36:12.048694 23652 net.cpp:131] Top shape: 64 (64)
I0428 19:36:12.048698 23652 net.cpp:139] Memory required for data: 200960
I0428 19:36:12.048705 23652 layer_factory.hpp:77] Creating layer conv0
I0428 19:36:12.048722 23652 net.cpp:86] Creating Layer conv0
I0428 19:36:12.048727 23652 net.cpp:408] conv0 <- data
I0428 19:36:12.048738 23652 net.cpp:382] conv0 -> conv0
I0428 19:36:12.342073 23652 net.cpp:124] Setting up conv0
I0428 19:36:12.342105 23652 net.cpp:131] Top shape: 64 100 24 24 (3686400)
I0428 19:36:12.342110 23652 net.cpp:139] Memory required for data: 14946560
I0428 19:36:12.342129 23652 layer_factory.hpp:77] Creating layer pool0
I0428 19:36:12.342145 23652 net.cpp:86] Creating Layer pool0
I0428 19:36:12.342150 23652 net.cpp:408] pool0 <- conv0
I0428 19:36:12.342157 23652 net.cpp:382] pool0 -> pool0
I0428 19:36:12.342216 23652 net.cpp:124] Setting up pool0
I0428 19:36:12.342231 23652 net.cpp:131] Top shape: 64 100 12 12 (921600)
I0428 19:36:12.342236 23652 net.cpp:139] Memory required for data: 18632960
I0428 19:36:12.342257 23652 layer_factory.hpp:77] Creating layer ip1
I0428 19:36:12.342265 23652 net.cpp:86] Creating Layer ip1
I0428 19:36:12.342269 23652 net.cpp:408] ip1 <- pool0
I0428 19:36:12.342278 23652 net.cpp:382] ip1 -> ip1
I0428 19:36:12.344346 23652 net.cpp:124] Setting up ip1
I0428 19:36:12.344362 23652 net.cpp:131] Top shape: 64 10 (640)
I0428 19:36:12.344365 23652 net.cpp:139] Memory required for data: 18635520
I0428 19:36:12.344375 23652 layer_factory.hpp:77] Creating layer relu1
I0428 19:36:12.344383 23652 net.cpp:86] Creating Layer relu1
I0428 19:36:12.344388 23652 net.cpp:408] relu1 <- ip1
I0428 19:36:12.344396 23652 net.cpp:369] relu1 -> ip1 (in-place)
I0428 19:36:12.344612 23652 net.cpp:124] Setting up relu1
I0428 19:36:12.344624 23652 net.cpp:131] Top shape: 64 10 (640)
I0428 19:36:12.344629 23652 net.cpp:139] Memory required for data: 18638080
I0428 19:36:12.344632 23652 layer_factory.hpp:77] Creating layer ip2
I0428 19:36:12.344642 23652 net.cpp:86] Creating Layer ip2
I0428 19:36:12.344646 23652 net.cpp:408] ip2 <- ip1
I0428 19:36:12.344653 23652 net.cpp:382] ip2 -> ip2
I0428 19:36:12.344772 23652 net.cpp:124] Setting up ip2
I0428 19:36:12.344782 23652 net.cpp:131] Top shape: 64 10 (640)
I0428 19:36:12.344786 23652 net.cpp:139] Memory required for data: 18640640
I0428 19:36:12.344795 23652 layer_factory.hpp:77] Creating layer relu2
I0428 19:36:12.344801 23652 net.cpp:86] Creating Layer relu2
I0428 19:36:12.344805 23652 net.cpp:408] relu2 <- ip2
I0428 19:36:12.344817 23652 net.cpp:369] relu2 -> ip2 (in-place)
I0428 19:36:12.345687 23652 net.cpp:124] Setting up relu2
I0428 19:36:12.345702 23652 net.cpp:131] Top shape: 64 10 (640)
I0428 19:36:12.345706 23652 net.cpp:139] Memory required for data: 18643200
I0428 19:36:12.345710 23652 layer_factory.hpp:77] Creating layer loss
I0428 19:36:12.345721 23652 net.cpp:86] Creating Layer loss
I0428 19:36:12.345724 23652 net.cpp:408] loss <- ip2
I0428 19:36:12.345729 23652 net.cpp:408] loss <- label
I0428 19:36:12.345736 23652 net.cpp:382] loss -> loss
I0428 19:36:12.345757 23652 layer_factory.hpp:77] Creating layer loss
…
I0428 19:36:12.346427 23652 solver.cpp:173] Creating test net (#0) specified by net file: ECE595/mnist/train_test/var_everything2/lenet_train_test239.prototxt
I0428 19:36:12.346456 23652 net.cpp:296] The NetState phase (1) differed from the phase (0) specified by a rule in layer mnist
I0428 19:36:12.346540 23652 net.cpp:53] Initializing net from parameters: 
name: "LeNet"
state {
  phase: TEST
}
layer {
  name: "mnist"
  type: "Data"
  top: "data"
  top: "label"
  include {
    phase: TEST
  }
  transform_param {
    scale: 0.00390625
  }
  data_param {
    source: "examples/mnist/mnist_test_lmdb"
    batch_size: 100
    backend: LMDB
  }
}
layer {
  name: "conv0"
  type: "Convolution"
  bottom: "data"
  top: "conv0"
  param {
    lr_mult: 1
  }
  param {
    lr_mult: 2
  }
  convolution_param {
    num_output: 100
    kernel_size: 5
    stride: 1
    weight_filler {
      type: "xavier"
    }
    bias_filler {
      type: "constant"
    }
  }
}
layer {
  name: "pool0"
  type: "Pooling"
  bottom: "conv0"
  top: "pool0"
  pooling_param {
    pool: MAX
    kernel_size: 2
    stride: 2
  }
}
layer {
  name: "ip1"
  type: "InnerProduct"
  bottom: "pool0"
  top: "ip1"
  param {
    lr_mult: 1
  }
  param {
    lr_mult: 2
  }
  inner_product_param {
    num_output: 10
    weight_filler {
      type: "xavier"
    }
    bias_filler {
      type: "constant"
    }
  }
}
layer {
  name: "relu1"
  type: "ReLU"
  bottom: "ip1"
  top: "ip1"
}
layer {
  name: "ip2"
  type: "InnerProduct"
  bottom: "ip1"
  top: "ip2"
  param {
    lr_mult: 1
  }
  param {
    lr_mult: 2
  }
  inner_product_param {
    num_output: 10
    weight_filler {
      type: "xavier"
    }
    bias_filler {
      type: "constant"
    }
  }
}
layer {
  name: "relu2"
  type: "ReLU"
  bottom: "ip2"
  top: "ip2"
}
layer {
  name: "accuracy"
  type: "Accuracy"
  bottom: "ip2"
  bottom: "label"
  top: "accuracy"
  include {
    phase: TEST
  }
}
layer {
  name: "loss"
  type: "SoftmaxWithLoss"
  bottom: "ip2"
  bottom: "label"
  top: "loss"
}
I0428 19:36:12.346631 23652 layer_factory.hpp:77] Creating layer mnist
I0428 19:36:12.346681 23652 db_lmdb.cpp:35] Opened lmdb examples/mnist/mnist_test_lmdb
I0428 19:36:12.346694 23652 net.cpp:86] Creating Layer mnist
I0428 19:36:12.346701 23652 net.cpp:382] mnist -> data
I0428 19:36:12.346710 23652 net.cpp:382] mnist -> label
I0428 19:36:12.346815 23652 data_layer.cpp:45] output data size: 100,1,28,28
I0428 19:36:12.348055 23652 net.cpp:124] Setting up mnist
I0428 19:36:12.348070 23652 net.cpp:131] Top shape: 100 1 28 28 (78400)
I0428 19:36:12.348076 23652 net.cpp:131] Top shape: 100 (100)
I0428 19:36:12.348080 23652 net.cpp:139] Memory required for data: 314000
I0428 19:36:12.348085 23652 layer_factory.hpp:77] Creating layer label_mnist_1_split
I0428 19:36:12.348139 23652 net.cpp:86] Creating Layer label_mnist_1_split
I0428 19:36:12.348145 23652 net.cpp:408] label_mnist_1_split <- label
I0428 19:36:12.348150 23652 net.cpp:382] label_mnist_1_split -> label_mnist_1_split_0
I0428 19:36:12.348158 23652 net.cpp:382] label_mnist_1_split -> label_mnist_1_split_1
I0428 19:36:12.348271 23652 net.cpp:124] Setting up label_mnist_1_split
I0428 19:36:12.348280 23652 net.cpp:131] Top shape: 100 (100)
I0428 19:36:12.348285 23652 net.cpp:131] Top shape: 100 (100)
I0428 19:36:12.348289 23652 net.cpp:139] Memory required for data: 314800
I0428 19:36:12.348292 23652 layer_factory.hpp:77] Creating layer conv0
I0428 19:36:12.348304 23652 net.cpp:86] Creating Layer conv0
I0428 19:36:12.348307 23652 net.cpp:408] conv0 <- data
I0428 19:36:12.348315 23652 net.cpp:382] conv0 -> conv0
I0428 19:36:12.350225 23652 net.cpp:124] Setting up conv0
I0428 19:36:12.350242 23652 net.cpp:131] Top shape: 100 100 24 24 (5760000)
I0428 19:36:12.350247 23652 net.cpp:139] Memory required for data: 23354800
I0428 19:36:12.350258 23652 layer_factory.hpp:77] Creating layer pool0
I0428 19:36:12.350267 23652 net.cpp:86] Creating Layer pool0
I0428 19:36:12.350272 23652 net.cpp:408] pool0 <- conv0
I0428 19:36:12.350278 23652 net.cpp:382] pool0 -> pool0
I0428 19:36:12.350325 23652 net.cpp:124] Setting up pool0
I0428 19:36:12.350332 23652 net.cpp:131] Top shape: 100 100 12 12 (1440000)
I0428 19:36:12.350335 23652 net.cpp:139] Memory required for data: 29114800
I0428 19:36:12.350338 23652 layer_factory.hpp:77] Creating layer ip1
I0428 19:36:12.350347 23652 net.cpp:86] Creating Layer ip1
I0428 19:36:12.350350 23652 net.cpp:408] ip1 <- pool0
I0428 19:36:12.350358 23652 net.cpp:382] ip1 -> ip1
I0428 19:36:12.352440 23652 net.cpp:124] Setting up ip1
I0428 19:36:12.352454 23652 net.cpp:131] Top shape: 100 10 (1000)
I0428 19:36:12.352459 23652 net.cpp:139] Memory required for data: 29118800
I0428 19:36:12.352469 23652 layer_factory.hpp:77] Creating layer relu1
I0428 19:36:12.352476 23652 net.cpp:86] Creating Layer relu1
I0428 19:36:12.352480 23652 net.cpp:408] relu1 <- ip1
I0428 19:36:12.352486 23652 net.cpp:369] relu1 -> ip1 (in-place)
I0428 19:36:12.352741 23652 net.cpp:124] Setting up relu1
I0428 19:36:12.352753 23652 net.cpp:131] Top shape: 100 10 (1000)
I0428 19:36:12.352769 23652 net.cpp:139] Memory required for data: 29122800
I0428 19:36:12.352773 23652 layer_factory.hpp:77] Creating layer ip2
I0428 19:36:12.352783 23652 net.cpp:86] Creating Layer ip2
I0428 19:36:12.352787 23652 net.cpp:408] ip2 <- ip1
I0428 19:36:12.352794 23652 net.cpp:382] ip2 -> ip2
I0428 19:36:12.352929 23652 net.cpp:124] Setting up ip2
I0428 19:36:12.352939 23652 net.cpp:131] Top shape: 100 10 (1000)
I0428 19:36:12.352943 23652 net.cpp:139] Memory required for data: 29126800
I0428 19:36:12.352953 23652 layer_factory.hpp:77] Creating layer relu2
I0428 19:36:12.352962 23652 net.cpp:86] Creating Layer relu2
I0428 19:36:12.352965 23652 net.cpp:408] relu2 <- ip2
I0428 19:36:12.352970 23652 net.cpp:369] relu2 -> ip2 (in-place)
I0428 19:36:12.353163 23652 net.cpp:124] Setting up relu2
I0428 19:36:12.353173 23652 net.cpp:131] Top shape: 100 10 (1000)
I0428 19:36:12.353178 23652 net.cpp:139] Memory required for data: 29130800
I0428 19:36:12.353183 23652 layer_factory.hpp:77] Creating layer ip2_relu2_0_split
I0428 19:36:12.353189 23652 net.cpp:86] Creating Layer ip2_relu2_0_split
I0428 19:36:12.353193 23652 net.cpp:408] ip2_relu2_0_split <- ip2
I0428 19:36:12.353199 23652 net.cpp:382] ip2_relu2_0_split -> ip2_relu2_0_split_0
I0428 19:36:12.353206 23652 net.cpp:382] ip2_relu2_0_split -> ip2_relu2_0_split_1
I0428 19:36:12.353251 23652 net.cpp:124] Setting up ip2_relu2_0_split
I0428 19:36:12.353258 23652 net.cpp:131] Top shape: 100 10 (1000)
I0428 19:36:12.353262 23652 net.cpp:131] Top shape: 100 10 (1000)
I0428 19:36:12.353266 23652 net.cpp:139] Memory required for data: 29138800
I0428 19:36:12.353269 23652 layer_factory.hpp:77] Creating layer accuracy
I0428 19:36:12.353277 23652 net.cpp:86] Creating Layer accuracy
I0428 19:36:12.353281 23652 net.cpp:408] accuracy <- ip2_relu2_0_split_0
I0428 19:36:12.353286 23652 net.cpp:408] accuracy <- label_mnist_1_split_0
I0428 19:36:12.353291 23652 net.cpp:382] accuracy -> accuracy
…
