…
I0428 19:44:28.084365 25607 net.cpp:296] The NetState phase (0) differed from the phase (1) specified by a rule in layer mnist
I0428 19:44:28.084383 25607 net.cpp:296] The NetState phase (0) differed from the phase (1) specified by a rule in layer accuracy
I0428 19:44:28.084480 25607 net.cpp:53] Initializing net from parameters: 
name: "LeNet"
state {
  phase: TRAIN
  level: 0
  stage: ""
}
layer {
  name: "mnist"
  type: "Data"
  top: "data"
  top: "label"
  include {
    phase: TRAIN
  }
  transform_param {
    scale: 0.00390625
  }
  data_param {
    source: "examples/mnist/mnist_train_lmdb"
    batch_size: 64
    backend: LMDB
  }
}
layer {
  name: "conv0"
  type: "Convolution"
  bottom: "data"
  top: "conv0"
  param {
    lr_mult: 1
  }
  param {
    lr_mult: 2
  }
  convolution_param {
    num_output: 2
    kernel_size: 5
    stride: 1
    weight_filler {
      type: "xavier"
    }
    bias_filler {
      type: "constant"
    }
  }
}
layer {
  name: "pool0"
  type: "Pooling"
  bottom: "conv0"
  top: "pool0"
  pooling_param {
    pool: MAX
    kernel_size: 2
    stride: 2
  }
}
layer {
  name: "conv1"
  type: "Convolution"
  bottom: "pool0"
  top: "conv1"
  param {
    lr_mult: 1
  }
  param {
    lr_mult: 2
  }
  convolution_param {
    num_output: 50
    kernel_size: 5
    stride: 1
    weight_filler {
      type: "xavier"
    }
    bias_filler {
      type: "constant"
    }
  }
}
layer {
  name: "pool1"
  type: "Pooling"
  bottom: "conv1"
  top: "pool1"
  pooling_param {
    pool: MAX
    kernel_size: 2
    stride: 2
  }
}
layer {
  name: "ip1"
  type: "InnerProduct"
  bottom: "pool1"
  top: "ip1"
  param {
    lr_mult: 1
  }
  param {
    lr_mult: 2
  }
  inner_product_param {
    num_output: 10
    weight_filler {
      type: "xavier"
    }
    bias_filler {
      type: "constant"
    }
  }
}
layer {
  name: "relu1"
  type: "ReLU"
  bottom: "ip1"
  top: "ip1"
}
layer {
  name: "ip2"
  type: "InnerProduct"
  bottom: "ip1"
  top: "ip2"
  param {
    lr_mult: 1
  }
  param {
    lr_mult: 2
  }
  inner_product_param {
    num_output: 50
    weight_filler {
      type: "xavier"
    }
    bias_filler {
      type: "constant"
    }
  }
}
layer {
  name: "relu2"
  type: "ReLU"
  bottom: "ip2"
  top: "ip2"
}
layer {
  name: "ip3"
  type: "InnerProduct"
  bottom: "ip2"
  top: "ip3"
  param {
    lr_mult: 1
  }
  param {
    lr_mult: 2
  }
  inner_product_param {
    num_output: 10
    weight_filler {
      type: "xavier"
    }
    bias_filler {
      type: "constant"
    }
  }
}
layer {
  name: "relu3"
  type: "ReLU"
  bottom: "ip3"
  top: "ip3"
}
layer {
  name: "loss"
  type: "SoftmaxWithLoss"
  bottom: "ip3"
  bottom: "label"
  top: "loss"
}
I0428 19:44:28.084553 25607 layer_factory.hpp:77] Creating layer mnist
I0428 19:44:28.084652 25607 db_lmdb.cpp:35] Opened lmdb examples/mnist/mnist_train_lmdb
I0428 19:44:28.084676 25607 net.cpp:86] Creating Layer mnist
I0428 19:44:28.084682 25607 net.cpp:382] mnist -> data
I0428 19:44:28.084705 25607 net.cpp:382] mnist -> label
I0428 19:44:28.085814 25607 data_layer.cpp:45] output data size: 64,1,28,28
I0428 19:44:28.088275 25607 net.cpp:124] Setting up mnist
I0428 19:44:28.088292 25607 net.cpp:131] Top shape: 64 1 28 28 (50176)
I0428 19:44:28.088299 25607 net.cpp:131] Top shape: 64 (64)
I0428 19:44:28.088304 25607 net.cpp:139] Memory required for data: 200960
I0428 19:44:28.088313 25607 layer_factory.hpp:77] Creating layer conv0
I0428 19:44:28.088331 25607 net.cpp:86] Creating Layer conv0
I0428 19:44:28.088352 25607 net.cpp:408] conv0 <- data
I0428 19:44:28.088364 25607 net.cpp:382] conv0 -> conv0
I0428 19:44:28.341073 25607 net.cpp:124] Setting up conv0
I0428 19:44:28.341120 25607 net.cpp:131] Top shape: 64 2 24 24 (73728)
I0428 19:44:28.341126 25607 net.cpp:139] Memory required for data: 495872
I0428 19:44:28.341143 25607 layer_factory.hpp:77] Creating layer pool0
I0428 19:44:28.341171 25607 net.cpp:86] Creating Layer pool0
I0428 19:44:28.341176 25607 net.cpp:408] pool0 <- conv0
I0428 19:44:28.341181 25607 net.cpp:382] pool0 -> pool0
I0428 19:44:28.341226 25607 net.cpp:124] Setting up pool0
I0428 19:44:28.341244 25607 net.cpp:131] Top shape: 64 2 12 12 (18432)
I0428 19:44:28.341248 25607 net.cpp:139] Memory required for data: 569600
I0428 19:44:28.341250 25607 layer_factory.hpp:77] Creating layer conv1
I0428 19:44:28.341261 25607 net.cpp:86] Creating Layer conv1
I0428 19:44:28.341264 25607 net.cpp:408] conv1 <- pool0
I0428 19:44:28.341269 25607 net.cpp:382] conv1 -> conv1
I0428 19:44:28.344090 25607 net.cpp:124] Setting up conv1
I0428 19:44:28.344104 25607 net.cpp:131] Top shape: 64 50 8 8 (204800)
I0428 19:44:28.344123 25607 net.cpp:139] Memory required for data: 1388800
I0428 19:44:28.344131 25607 layer_factory.hpp:77] Creating layer pool1
I0428 19:44:28.344139 25607 net.cpp:86] Creating Layer pool1
I0428 19:44:28.344143 25607 net.cpp:408] pool1 <- conv1
I0428 19:44:28.344147 25607 net.cpp:382] pool1 -> pool1
I0428 19:44:28.344202 25607 net.cpp:124] Setting up pool1
I0428 19:44:28.344207 25607 net.cpp:131] Top shape: 64 50 4 4 (51200)
I0428 19:44:28.344209 25607 net.cpp:139] Memory required for data: 1593600
I0428 19:44:28.344213 25607 layer_factory.hpp:77] Creating layer ip1
I0428 19:44:28.344219 25607 net.cpp:86] Creating Layer ip1
I0428 19:44:28.344223 25607 net.cpp:408] ip1 <- pool1
I0428 19:44:28.344228 25607 net.cpp:382] ip1 -> ip1
I0428 19:44:28.345296 25607 net.cpp:124] Setting up ip1
I0428 19:44:28.345309 25607 net.cpp:131] Top shape: 64 10 (640)
I0428 19:44:28.345329 25607 net.cpp:139] Memory required for data: 1596160
I0428 19:44:28.345336 25607 layer_factory.hpp:77] Creating layer relu1
I0428 19:44:28.345342 25607 net.cpp:86] Creating Layer relu1
I0428 19:44:28.345346 25607 net.cpp:408] relu1 <- ip1
I0428 19:44:28.345352 25607 net.cpp:369] relu1 -> ip1 (in-place)
I0428 19:44:28.345540 25607 net.cpp:124] Setting up relu1
I0428 19:44:28.345548 25607 net.cpp:131] Top shape: 64 10 (640)
I0428 19:44:28.345551 25607 net.cpp:139] Memory required for data: 1598720
I0428 19:44:28.345554 25607 layer_factory.hpp:77] Creating layer ip2
I0428 19:44:28.345561 25607 net.cpp:86] Creating Layer ip2
I0428 19:44:28.345564 25607 net.cpp:408] ip2 <- ip1
I0428 19:44:28.345569 25607 net.cpp:382] ip2 -> ip2
I0428 19:44:28.345670 25607 net.cpp:124] Setting up ip2
I0428 19:44:28.345677 25607 net.cpp:131] Top shape: 64 50 (3200)
I0428 19:44:28.345680 25607 net.cpp:139] Memory required for data: 1611520
I0428 19:44:28.345685 25607 layer_factory.hpp:77] Creating layer relu2
I0428 19:44:28.345691 25607 net.cpp:86] Creating Layer relu2
I0428 19:44:28.345695 25607 net.cpp:408] relu2 <- ip2
I0428 19:44:28.345700 25607 net.cpp:369] relu2 -> ip2 (in-place)
I0428 19:44:28.346493 25607 net.cpp:124] Setting up relu2
I0428 19:44:28.346521 25607 net.cpp:131] Top shape: 64 50 (3200)
I0428 19:44:28.346525 25607 net.cpp:139] Memory required for data: 1624320
I0428 19:44:28.346529 25607 layer_factory.hpp:77] Creating layer ip3
I0428 19:44:28.346536 25607 net.cpp:86] Creating Layer ip3
I0428 19:44:28.346540 25607 net.cpp:408] ip3 <- ip2
I0428 19:44:28.346545 25607 net.cpp:382] ip3 -> ip3
I0428 19:44:28.346663 25607 net.cpp:124] Setting up ip3
I0428 19:44:28.346671 25607 net.cpp:131] Top shape: 64 10 (640)
I0428 19:44:28.346674 25607 net.cpp:139] Memory required for data: 1626880
I0428 19:44:28.346681 25607 layer_factory.hpp:77] Creating layer relu3
I0428 19:44:28.346688 25607 net.cpp:86] Creating Layer relu3
I0428 19:44:28.346690 25607 net.cpp:408] relu3 <- ip3
I0428 19:44:28.346694 25607 net.cpp:369] relu3 -> ip3 (in-place)
I0428 19:44:28.346889 25607 net.cpp:124] Setting up relu3
I0428 19:44:28.346897 25607 net.cpp:131] Top shape: 64 10 (640)
I0428 19:44:28.346900 25607 net.cpp:139] Memory required for data: 1629440
I0428 19:44:28.346904 25607 layer_factory.hpp:77] Creating layer loss
I0428 19:44:28.346909 25607 net.cpp:86] Creating Layer loss
I0428 19:44:28.346912 25607 net.cpp:408] loss <- ip3
I0428 19:44:28.346916 25607 net.cpp:408] loss <- label
I0428 19:44:28.346922 25607 net.cpp:382] loss -> loss
I0428 19:44:28.346935 25607 layer_factory.hpp:77] Creating layer loss
…
I0428 19:44:28.347635 25607 solver.cpp:173] Creating test net (#0) specified by net file: ECE595/mnist/train_test/var_everything2/lenet_train_test448.prototxt
I0428 19:44:28.347679 25607 net.cpp:296] The NetState phase (1) differed from the phase (0) specified by a rule in layer mnist
I0428 19:44:28.347776 25607 net.cpp:53] Initializing net from parameters: 
name: "LeNet"
state {
  phase: TEST
}
layer {
  name: "mnist"
  type: "Data"
  top: "data"
  top: "label"
  include {
    phase: TEST
  }
  transform_param {
    scale: 0.00390625
  }
  data_param {
    source: "examples/mnist/mnist_test_lmdb"
    batch_size: 100
    backend: LMDB
  }
}
layer {
  name: "conv0"
  type: "Convolution"
  bottom: "data"
  top: "conv0"
  param {
    lr_mult: 1
  }
  param {
    lr_mult: 2
  }
  convolution_param {
    num_output: 2
    kernel_size: 5
    stride: 1
    weight_filler {
      type: "xavier"
    }
    bias_filler {
      type: "constant"
    }
  }
}
layer {
  name: "pool0"
  type: "Pooling"
  bottom: "conv0"
  top: "pool0"
  pooling_param {
    pool: MAX
    kernel_size: 2
    stride: 2
  }
}
layer {
  name: "conv1"
  type: "Convolution"
  bottom: "pool0"
  top: "conv1"
  param {
    lr_mult: 1
  }
  param {
    lr_mult: 2
  }
  convolution_param {
    num_output: 50
    kernel_size: 5
    stride: 1
    weight_filler {
      type: "xavier"
    }
    bias_filler {
      type: "constant"
    }
  }
}
layer {
  name: "pool1"
  type: "Pooling"
  bottom: "conv1"
  top: "pool1"
  pooling_param {
    pool: MAX
    kernel_size: 2
    stride: 2
  }
}
layer {
  name: "ip1"
  type: "InnerProduct"
  bottom: "pool1"
  top: "ip1"
  param {
    lr_mult: 1
  }
  param {
    lr_mult: 2
  }
  inner_product_param {
    num_output: 10
    weight_filler {
      type: "xavier"
    }
    bias_filler {
      type: "constant"
    }
  }
}
layer {
  name: "relu1"
  type: "ReLU"
  bottom: "ip1"
  top: "ip1"
}
layer {
  name: "ip2"
  type: "InnerProduct"
  bottom: "ip1"
  top: "ip2"
  param {
    lr_mult: 1
  }
  param {
    lr_mult: 2
  }
  inner_product_param {
    num_output: 50
    weight_filler {
      type: "xavier"
    }
    bias_filler {
      type: "constant"
    }
  }
}
layer {
  name: "relu2"
  type: "ReLU"
  bottom: "ip2"
  top: "ip2"
}
layer {
  name: "ip3"
  type: "InnerProduct"
  bottom: "ip2"
  top: "ip3"
  param {
    lr_mult: 1
  }
  param {
    lr_mult: 2
  }
  inner_product_param {
    num_output: 10
    weight_filler {
      type: "xavier"
    }
    bias_filler {
      type: "constant"
    }
  }
}
layer {
  name: "relu3"
  type: "ReLU"
  bottom: "ip3"
  top: "ip3"
}
layer {
  name: "accuracy"
  type: "Accuracy"
  bottom: "ip3"
  bottom: "label"
  top: "accuracy"
  include {
    phase: TEST
  }
}
layer {
  name: "loss"
  type: "SoftmaxWithLoss"
  bottom: "ip3"
  bottom: "label"
  top: "loss"
}
I0428 19:44:28.347862 25607 layer_factory.hpp:77] Creating layer mnist
I0428 19:44:28.347905 25607 db_lmdb.cpp:35] Opened lmdb examples/mnist/mnist_test_lmdb
I0428 19:44:28.347918 25607 net.cpp:86] Creating Layer mnist
I0428 19:44:28.347923 25607 net.cpp:382] mnist -> data
I0428 19:44:28.347931 25607 net.cpp:382] mnist -> label
I0428 19:44:28.348031 25607 data_layer.cpp:45] output data size: 100,1,28,28
I0428 19:44:28.350072 25607 net.cpp:124] Setting up mnist
I0428 19:44:28.350101 25607 net.cpp:131] Top shape: 100 1 28 28 (78400)
I0428 19:44:28.350106 25607 net.cpp:131] Top shape: 100 (100)
I0428 19:44:28.350109 25607 net.cpp:139] Memory required for data: 314000
I0428 19:44:28.350112 25607 layer_factory.hpp:77] Creating layer label_mnist_1_split
I0428 19:44:28.350119 25607 net.cpp:86] Creating Layer label_mnist_1_split
I0428 19:44:28.350122 25607 net.cpp:408] label_mnist_1_split <- label
I0428 19:44:28.350128 25607 net.cpp:382] label_mnist_1_split -> label_mnist_1_split_0
I0428 19:44:28.350136 25607 net.cpp:382] label_mnist_1_split -> label_mnist_1_split_1
I0428 19:44:28.350188 25607 net.cpp:124] Setting up label_mnist_1_split
I0428 19:44:28.350195 25607 net.cpp:131] Top shape: 100 (100)
I0428 19:44:28.350198 25607 net.cpp:131] Top shape: 100 (100)
I0428 19:44:28.350201 25607 net.cpp:139] Memory required for data: 314800
I0428 19:44:28.350204 25607 layer_factory.hpp:77] Creating layer conv0
I0428 19:44:28.350213 25607 net.cpp:86] Creating Layer conv0
I0428 19:44:28.350215 25607 net.cpp:408] conv0 <- data
I0428 19:44:28.350220 25607 net.cpp:382] conv0 -> conv0
I0428 19:44:28.352027 25607 net.cpp:124] Setting up conv0
I0428 19:44:28.352056 25607 net.cpp:131] Top shape: 100 2 24 24 (115200)
I0428 19:44:28.352061 25607 net.cpp:139] Memory required for data: 775600
I0428 19:44:28.352069 25607 layer_factory.hpp:77] Creating layer pool0
I0428 19:44:28.352079 25607 net.cpp:86] Creating Layer pool0
I0428 19:44:28.352082 25607 net.cpp:408] pool0 <- conv0
I0428 19:44:28.352087 25607 net.cpp:382] pool0 -> pool0
I0428 19:44:28.352124 25607 net.cpp:124] Setting up pool0
I0428 19:44:28.352129 25607 net.cpp:131] Top shape: 100 2 12 12 (28800)
I0428 19:44:28.352133 25607 net.cpp:139] Memory required for data: 890800
I0428 19:44:28.352135 25607 layer_factory.hpp:77] Creating layer conv1
I0428 19:44:28.352144 25607 net.cpp:86] Creating Layer conv1
I0428 19:44:28.352147 25607 net.cpp:408] conv1 <- pool0
I0428 19:44:28.352154 25607 net.cpp:382] conv1 -> conv1
I0428 19:44:28.353826 25607 net.cpp:124] Setting up conv1
I0428 19:44:28.353855 25607 net.cpp:131] Top shape: 100 50 8 8 (320000)
I0428 19:44:28.353859 25607 net.cpp:139] Memory required for data: 2170800
I0428 19:44:28.353868 25607 layer_factory.hpp:77] Creating layer pool1
I0428 19:44:28.353878 25607 net.cpp:86] Creating Layer pool1
I0428 19:44:28.353883 25607 net.cpp:408] pool1 <- conv1
I0428 19:44:28.353898 25607 net.cpp:382] pool1 -> pool1
I0428 19:44:28.353936 25607 net.cpp:124] Setting up pool1
I0428 19:44:28.353942 25607 net.cpp:131] Top shape: 100 50 4 4 (80000)
I0428 19:44:28.353945 25607 net.cpp:139] Memory required for data: 2490800
I0428 19:44:28.353948 25607 layer_factory.hpp:77] Creating layer ip1
I0428 19:44:28.353955 25607 net.cpp:86] Creating Layer ip1
I0428 19:44:28.353960 25607 net.cpp:408] ip1 <- pool1
I0428 19:44:28.353965 25607 net.cpp:382] ip1 -> ip1
I0428 19:44:28.354112 25607 net.cpp:124] Setting up ip1
I0428 19:44:28.354121 25607 net.cpp:131] Top shape: 100 10 (1000)
I0428 19:44:28.354135 25607 net.cpp:139] Memory required for data: 2494800
I0428 19:44:28.354143 25607 layer_factory.hpp:77] Creating layer relu1
I0428 19:44:28.354151 25607 net.cpp:86] Creating Layer relu1
I0428 19:44:28.354153 25607 net.cpp:408] relu1 <- ip1
I0428 19:44:28.354159 25607 net.cpp:369] relu1 -> ip1 (in-place)
I0428 19:44:28.354341 25607 net.cpp:124] Setting up relu1
I0428 19:44:28.354351 25607 net.cpp:131] Top shape: 100 10 (1000)
I0428 19:44:28.354353 25607 net.cpp:139] Memory required for data: 2498800
I0428 19:44:28.354357 25607 layer_factory.hpp:77] Creating layer ip2
I0428 19:44:28.354363 25607 net.cpp:86] Creating Layer ip2
I0428 19:44:28.354367 25607 net.cpp:408] ip2 <- ip1
I0428 19:44:28.354372 25607 net.cpp:382] ip2 -> ip2
I0428 19:44:28.354490 25607 net.cpp:124] Setting up ip2
I0428 19:44:28.354498 25607 net.cpp:131] Top shape: 100 50 (5000)
I0428 19:44:28.354501 25607 net.cpp:139] Memory required for data: 2518800
I0428 19:44:28.354506 25607 layer_factory.hpp:77] Creating layer relu2
I0428 19:44:28.354511 25607 net.cpp:86] Creating Layer relu2
I0428 19:44:28.354514 25607 net.cpp:408] relu2 <- ip2
I0428 19:44:28.354518 25607 net.cpp:369] relu2 -> ip2 (in-place)
I0428 19:44:28.354751 25607 net.cpp:124] Setting up relu2
I0428 19:44:28.354765 25607 net.cpp:131] Top shape: 100 50 (5000)
I0428 19:44:28.354769 25607 net.cpp:139] Memory required for data: 2538800
I0428 19:44:28.354773 25607 layer_factory.hpp:77] Creating layer ip3
I0428 19:44:28.354780 25607 net.cpp:86] Creating Layer ip3
I0428 19:44:28.354784 25607 net.cpp:408] ip3 <- ip2
I0428 19:44:28.354789 25607 net.cpp:382] ip3 -> ip3
I0428 19:44:28.354897 25607 net.cpp:124] Setting up ip3
I0428 19:44:28.354904 25607 net.cpp:131] Top shape: 100 10 (1000)
I0428 19:44:28.354907 25607 net.cpp:139] Memory required for data: 2542800
I0428 19:44:28.354917 25607 layer_factory.hpp:77] Creating layer relu3
I0428 19:44:28.354923 25607 net.cpp:86] Creating Layer relu3
I0428 19:44:28.354925 25607 net.cpp:408] relu3 <- ip3
I0428 19:44:28.354936 25607 net.cpp:369] relu3 -> ip3 (in-place)
I0428 19:44:28.355805 25607 net.cpp:124] Setting up relu3
I0428 19:44:28.355818 25607 net.cpp:131] Top shape: 100 10 (1000)
I0428 19:44:28.355823 25607 net.cpp:139] Memory required for data: 2546800
I0428 19:44:28.355826 25607 layer_factory.hpp:77] Creating layer ip3_relu3_0_split
I0428 19:44:28.355831 25607 net.cpp:86] Creating Layer ip3_relu3_0_split
I0428 19:44:28.355835 25607 net.cpp:408] ip3_relu3_0_split <- ip3
I0428 19:44:28.355841 25607 net.cpp:382] ip3_relu3_0_split -> ip3_relu3_0_split_0
I0428 19:44:28.355847 25607 net.cpp:382] ip3_relu3_0_split -> ip3_relu3_0_split_1
I0428 19:44:28.355906 25607 net.cpp:124] Setting up ip3_relu3_0_split
I0428 19:44:28.355912 25607 net.cpp:131] Top shape: 100 10 (1000)
I0428 19:44:28.355916 25607 net.cpp:131] Top shape: 100 10 (1000)
I0428 19:44:28.355919 25607 net.cpp:139] Memory required for data: 2554800
I0428 19:44:28.355921 25607 layer_factory.hpp:77] Creating layer accuracy
I0428 19:44:28.355929 25607 net.cpp:86] Creating Layer accuracy
I0428 19:44:28.355932 25607 net.cpp:408] accuracy <- ip3_relu3_0_split_0
I0428 19:44:28.355937 25607 net.cpp:408] accuracy <- label_mnist_1_split_0
I0428 19:44:28.355942 25607 net.cpp:382] accuracy -> accuracy
…
