…
I0428 19:48:46.153273 26589 net.cpp:296] The NetState phase (0) differed from the phase (1) specified by a rule in layer mnist
I0428 19:48:46.153291 26589 net.cpp:296] The NetState phase (0) differed from the phase (1) specified by a rule in layer accuracy
I0428 19:48:46.153369 26589 net.cpp:53] Initializing net from parameters: 
name: "LeNet"
state {
  phase: TRAIN
  level: 0
  stage: ""
}
layer {
  name: "mnist"
  type: "Data"
  top: "data"
  top: "label"
  include {
    phase: TRAIN
  }
  transform_param {
    scale: 0.00390625
  }
  data_param {
    source: "examples/mnist/mnist_train_lmdb"
    batch_size: 64
    backend: LMDB
  }
}
layer {
  name: "conv0"
  type: "Convolution"
  bottom: "data"
  top: "conv0"
  param {
    lr_mult: 1
  }
  param {
    lr_mult: 2
  }
  convolution_param {
    num_output: 5
    kernel_size: 5
    stride: 1
    weight_filler {
      type: "xavier"
    }
    bias_filler {
      type: "constant"
    }
  }
}
layer {
  name: "pool0"
  type: "Pooling"
  bottom: "conv0"
  top: "pool0"
  pooling_param {
    pool: MAX
    kernel_size: 2
    stride: 2
  }
}
layer {
  name: "conv1"
  type: "Convolution"
  bottom: "pool0"
  top: "conv1"
  param {
    lr_mult: 1
  }
  param {
    lr_mult: 2
  }
  convolution_param {
    num_output: 5
    kernel_size: 5
    stride: 1
    weight_filler {
      type: "xavier"
    }
    bias_filler {
      type: "constant"
    }
  }
}
layer {
  name: "pool1"
  type: "Pooling"
  bottom: "conv1"
  top: "pool1"
  pooling_param {
    pool: MAX
    kernel_size: 2
    stride: 2
  }
}
layer {
  name: "ip1"
  type: "InnerProduct"
  bottom: "pool1"
  top: "ip1"
  param {
    lr_mult: 1
  }
  param {
    lr_mult: 2
  }
  inner_product_param {
    num_output: 25
    weight_filler {
      type: "xavier"
    }
    bias_filler {
      type: "constant"
    }
  }
}
layer {
  name: "relu1"
  type: "ReLU"
  bottom: "ip1"
  top: "ip1"
}
layer {
  name: "ip2"
  type: "InnerProduct"
  bottom: "ip1"
  top: "ip2"
  param {
    lr_mult: 1
  }
  param {
    lr_mult: 2
  }
  inner_product_param {
    num_output: 10
    weight_filler {
      type: "xavier"
    }
    bias_filler {
      type: "constant"
    }
  }
}
layer {
  name: "relu2"
  type: "ReLU"
  bottom: "ip2"
  top: "ip2"
}
layer {
  name: "loss"
  type: "SoftmaxWithLoss"
  bottom: "ip2"
  bottom: "label"
  top: "loss"
}
I0428 19:48:46.153456 26589 layer_factory.hpp:77] Creating layer mnist
I0428 19:48:46.153563 26589 db_lmdb.cpp:35] Opened lmdb examples/mnist/mnist_train_lmdb
I0428 19:48:46.153589 26589 net.cpp:86] Creating Layer mnist
I0428 19:48:46.153599 26589 net.cpp:382] mnist -> data
I0428 19:48:46.153625 26589 net.cpp:382] mnist -> label
I0428 19:48:46.154774 26589 data_layer.cpp:45] output data size: 64,1,28,28
I0428 19:48:46.157078 26589 net.cpp:124] Setting up mnist
I0428 19:48:46.157129 26589 net.cpp:131] Top shape: 64 1 28 28 (50176)
I0428 19:48:46.157138 26589 net.cpp:131] Top shape: 64 (64)
I0428 19:48:46.157143 26589 net.cpp:139] Memory required for data: 200960
I0428 19:48:46.157151 26589 layer_factory.hpp:77] Creating layer conv0
I0428 19:48:46.157172 26589 net.cpp:86] Creating Layer conv0
I0428 19:48:46.157179 26589 net.cpp:408] conv0 <- data
I0428 19:48:46.157193 26589 net.cpp:382] conv0 -> conv0
I0428 19:48:46.395056 26589 net.cpp:124] Setting up conv0
I0428 19:48:46.395086 26589 net.cpp:131] Top shape: 64 5 24 24 (184320)
I0428 19:48:46.395092 26589 net.cpp:139] Memory required for data: 938240
I0428 19:48:46.395164 26589 layer_factory.hpp:77] Creating layer pool0
I0428 19:48:46.395182 26589 net.cpp:86] Creating Layer pool0
I0428 19:48:46.395190 26589 net.cpp:408] pool0 <- conv0
I0428 19:48:46.395200 26589 net.cpp:382] pool0 -> pool0
I0428 19:48:46.395259 26589 net.cpp:124] Setting up pool0
I0428 19:48:46.395269 26589 net.cpp:131] Top shape: 64 5 12 12 (46080)
I0428 19:48:46.395273 26589 net.cpp:139] Memory required for data: 1122560
I0428 19:48:46.395278 26589 layer_factory.hpp:77] Creating layer conv1
I0428 19:48:46.395295 26589 net.cpp:86] Creating Layer conv1
I0428 19:48:46.395301 26589 net.cpp:408] conv1 <- pool0
I0428 19:48:46.395309 26589 net.cpp:382] conv1 -> conv1
I0428 19:48:46.397166 26589 net.cpp:124] Setting up conv1
I0428 19:48:46.397182 26589 net.cpp:131] Top shape: 64 5 8 8 (20480)
I0428 19:48:46.397188 26589 net.cpp:139] Memory required for data: 1204480
I0428 19:48:46.397200 26589 layer_factory.hpp:77] Creating layer pool1
I0428 19:48:46.397212 26589 net.cpp:86] Creating Layer pool1
I0428 19:48:46.397217 26589 net.cpp:408] pool1 <- conv1
I0428 19:48:46.397225 26589 net.cpp:382] pool1 -> pool1
I0428 19:48:46.397279 26589 net.cpp:124] Setting up pool1
I0428 19:48:46.397289 26589 net.cpp:131] Top shape: 64 5 4 4 (5120)
I0428 19:48:46.397294 26589 net.cpp:139] Memory required for data: 1224960
I0428 19:48:46.397299 26589 layer_factory.hpp:77] Creating layer ip1
I0428 19:48:46.397310 26589 net.cpp:86] Creating Layer ip1
I0428 19:48:46.397315 26589 net.cpp:408] ip1 <- pool1
I0428 19:48:46.397322 26589 net.cpp:382] ip1 -> ip1
I0428 19:48:46.398358 26589 net.cpp:124] Setting up ip1
I0428 19:48:46.398372 26589 net.cpp:131] Top shape: 64 25 (1600)
I0428 19:48:46.398378 26589 net.cpp:139] Memory required for data: 1231360
I0428 19:48:46.398392 26589 layer_factory.hpp:77] Creating layer relu1
I0428 19:48:46.398401 26589 net.cpp:86] Creating Layer relu1
I0428 19:48:46.398412 26589 net.cpp:408] relu1 <- ip1
I0428 19:48:46.398421 26589 net.cpp:369] relu1 -> ip1 (in-place)
I0428 19:48:46.398602 26589 net.cpp:124] Setting up relu1
I0428 19:48:46.398612 26589 net.cpp:131] Top shape: 64 25 (1600)
I0428 19:48:46.398617 26589 net.cpp:139] Memory required for data: 1237760
I0428 19:48:46.398636 26589 layer_factory.hpp:77] Creating layer ip2
I0428 19:48:46.398646 26589 net.cpp:86] Creating Layer ip2
I0428 19:48:46.398651 26589 net.cpp:408] ip2 <- ip1
I0428 19:48:46.398659 26589 net.cpp:382] ip2 -> ip2
I0428 19:48:46.398753 26589 net.cpp:124] Setting up ip2
I0428 19:48:46.398761 26589 net.cpp:131] Top shape: 64 10 (640)
I0428 19:48:46.398766 26589 net.cpp:139] Memory required for data: 1240320
I0428 19:48:46.398775 26589 layer_factory.hpp:77] Creating layer relu2
I0428 19:48:46.398784 26589 net.cpp:86] Creating Layer relu2
I0428 19:48:46.398790 26589 net.cpp:408] relu2 <- ip2
I0428 19:48:46.398797 26589 net.cpp:369] relu2 -> ip2 (in-place)
I0428 19:48:46.399588 26589 net.cpp:124] Setting up relu2
I0428 19:48:46.399602 26589 net.cpp:131] Top shape: 64 10 (640)
I0428 19:48:46.399607 26589 net.cpp:139] Memory required for data: 1242880
I0428 19:48:46.399613 26589 layer_factory.hpp:77] Creating layer loss
I0428 19:48:46.399628 26589 net.cpp:86] Creating Layer loss
I0428 19:48:46.399636 26589 net.cpp:408] loss <- ip2
I0428 19:48:46.399643 26589 net.cpp:408] loss <- label
I0428 19:48:46.399652 26589 net.cpp:382] loss -> loss
I0428 19:48:46.399672 26589 layer_factory.hpp:77] Creating layer loss
…
I0428 19:48:46.400342 26589 solver.cpp:173] Creating test net (#0) specified by net file: ECE595/mnist/train_test/var_everything2/lenet_train_test554.prototxt
I0428 19:48:46.400374 26589 net.cpp:296] The NetState phase (1) differed from the phase (0) specified by a rule in layer mnist
I0428 19:48:46.400465 26589 net.cpp:53] Initializing net from parameters: 
name: "LeNet"
state {
  phase: TEST
}
layer {
  name: "mnist"
  type: "Data"
  top: "data"
  top: "label"
  include {
    phase: TEST
  }
  transform_param {
    scale: 0.00390625
  }
  data_param {
    source: "examples/mnist/mnist_test_lmdb"
    batch_size: 100
    backend: LMDB
  }
}
layer {
  name: "conv0"
  type: "Convolution"
  bottom: "data"
  top: "conv0"
  param {
    lr_mult: 1
  }
  param {
    lr_mult: 2
  }
  convolution_param {
    num_output: 5
    kernel_size: 5
    stride: 1
    weight_filler {
      type: "xavier"
    }
    bias_filler {
      type: "constant"
    }
  }
}
layer {
  name: "pool0"
  type: "Pooling"
  bottom: "conv0"
  top: "pool0"
  pooling_param {
    pool: MAX
    kernel_size: 2
    stride: 2
  }
}
layer {
  name: "conv1"
  type: "Convolution"
  bottom: "pool0"
  top: "conv1"
  param {
    lr_mult: 1
  }
  param {
    lr_mult: 2
  }
  convolution_param {
    num_output: 5
    kernel_size: 5
    stride: 1
    weight_filler {
      type: "xavier"
    }
    bias_filler {
      type: "constant"
    }
  }
}
layer {
  name: "pool1"
  type: "Pooling"
  bottom: "conv1"
  top: "pool1"
  pooling_param {
    pool: MAX
    kernel_size: 2
    stride: 2
  }
}
layer {
  name: "ip1"
  type: "InnerProduct"
  bottom: "pool1"
  top: "ip1"
  param {
    lr_mult: 1
  }
  param {
    lr_mult: 2
  }
  inner_product_param {
    num_output: 25
    weight_filler {
      type: "xavier"
    }
    bias_filler {
      type: "constant"
    }
  }
}
layer {
  name: "relu1"
  type: "ReLU"
  bottom: "ip1"
  top: "ip1"
}
layer {
  name: "ip2"
  type: "InnerProduct"
  bottom: "ip1"
  top: "ip2"
  param {
    lr_mult: 1
  }
  param {
    lr_mult: 2
  }
  inner_product_param {
    num_output: 10
    weight_filler {
      type: "xavier"
    }
    bias_filler {
      type: "constant"
    }
  }
}
layer {
  name: "relu2"
  type: "ReLU"
  bottom: "ip2"
  top: "ip2"
}
layer {
  name: "accuracy"
  type: "Accuracy"
  bottom: "ip2"
  bottom: "label"
  top: "accuracy"
  include {
    phase: TEST
  }
}
layer {
  name: "loss"
  type: "SoftmaxWithLoss"
  bottom: "ip2"
  bottom: "label"
  top: "loss"
}
I0428 19:48:46.400581 26589 layer_factory.hpp:77] Creating layer mnist
I0428 19:48:46.400640 26589 db_lmdb.cpp:35] Opened lmdb examples/mnist/mnist_test_lmdb
I0428 19:48:46.400655 26589 net.cpp:86] Creating Layer mnist
I0428 19:48:46.400665 26589 net.cpp:382] mnist -> data
I0428 19:48:46.400676 26589 net.cpp:382] mnist -> label
I0428 19:48:46.400868 26589 data_layer.cpp:45] output data size: 100,1,28,28
I0428 19:48:46.403300 26589 net.cpp:124] Setting up mnist
I0428 19:48:46.403314 26589 net.cpp:131] Top shape: 100 1 28 28 (78400)
I0428 19:48:46.403323 26589 net.cpp:131] Top shape: 100 (100)
I0428 19:48:46.403328 26589 net.cpp:139] Memory required for data: 314000
I0428 19:48:46.403334 26589 layer_factory.hpp:77] Creating layer label_mnist_1_split
I0428 19:48:46.403344 26589 net.cpp:86] Creating Layer label_mnist_1_split
I0428 19:48:46.403350 26589 net.cpp:408] label_mnist_1_split <- label
I0428 19:48:46.403362 26589 net.cpp:382] label_mnist_1_split -> label_mnist_1_split_0
I0428 19:48:46.403373 26589 net.cpp:382] label_mnist_1_split -> label_mnist_1_split_1
I0428 19:48:46.403463 26589 net.cpp:124] Setting up label_mnist_1_split
I0428 19:48:46.403482 26589 net.cpp:131] Top shape: 100 (100)
I0428 19:48:46.403491 26589 net.cpp:131] Top shape: 100 (100)
I0428 19:48:46.403496 26589 net.cpp:139] Memory required for data: 314800
I0428 19:48:46.403501 26589 layer_factory.hpp:77] Creating layer conv0
I0428 19:48:46.403543 26589 net.cpp:86] Creating Layer conv0
I0428 19:48:46.403549 26589 net.cpp:408] conv0 <- data
I0428 19:48:46.403558 26589 net.cpp:382] conv0 -> conv0
I0428 19:48:46.405027 26589 net.cpp:124] Setting up conv0
I0428 19:48:46.405043 26589 net.cpp:131] Top shape: 100 5 24 24 (288000)
I0428 19:48:46.405050 26589 net.cpp:139] Memory required for data: 1466800
I0428 19:48:46.405064 26589 layer_factory.hpp:77] Creating layer pool0
I0428 19:48:46.405081 26589 net.cpp:86] Creating Layer pool0
I0428 19:48:46.405087 26589 net.cpp:408] pool0 <- conv0
I0428 19:48:46.405095 26589 net.cpp:382] pool0 -> pool0
I0428 19:48:46.405164 26589 net.cpp:124] Setting up pool0
I0428 19:48:46.405172 26589 net.cpp:131] Top shape: 100 5 12 12 (72000)
I0428 19:48:46.405177 26589 net.cpp:139] Memory required for data: 1754800
I0428 19:48:46.405184 26589 layer_factory.hpp:77] Creating layer conv1
I0428 19:48:46.405213 26589 net.cpp:86] Creating Layer conv1
I0428 19:48:46.405220 26589 net.cpp:408] conv1 <- pool0
I0428 19:48:46.405230 26589 net.cpp:382] conv1 -> conv1
I0428 19:48:46.407166 26589 net.cpp:124] Setting up conv1
I0428 19:48:46.407179 26589 net.cpp:131] Top shape: 100 5 8 8 (32000)
I0428 19:48:46.407186 26589 net.cpp:139] Memory required for data: 1882800
I0428 19:48:46.407198 26589 layer_factory.hpp:77] Creating layer pool1
I0428 19:48:46.407207 26589 net.cpp:86] Creating Layer pool1
I0428 19:48:46.407213 26589 net.cpp:408] pool1 <- conv1
I0428 19:48:46.407222 26589 net.cpp:382] pool1 -> pool1
I0428 19:48:46.407265 26589 net.cpp:124] Setting up pool1
I0428 19:48:46.407274 26589 net.cpp:131] Top shape: 100 5 4 4 (8000)
I0428 19:48:46.407280 26589 net.cpp:139] Memory required for data: 1914800
I0428 19:48:46.407286 26589 layer_factory.hpp:77] Creating layer ip1
I0428 19:48:46.407295 26589 net.cpp:86] Creating Layer ip1
I0428 19:48:46.407300 26589 net.cpp:408] ip1 <- pool1
I0428 19:48:46.407308 26589 net.cpp:382] ip1 -> ip1
I0428 19:48:46.407433 26589 net.cpp:124] Setting up ip1
I0428 19:48:46.407443 26589 net.cpp:131] Top shape: 100 25 (2500)
I0428 19:48:46.407446 26589 net.cpp:139] Memory required for data: 1924800
I0428 19:48:46.407459 26589 layer_factory.hpp:77] Creating layer relu1
I0428 19:48:46.407466 26589 net.cpp:86] Creating Layer relu1
I0428 19:48:46.407474 26589 net.cpp:408] relu1 <- ip1
I0428 19:48:46.407480 26589 net.cpp:369] relu1 -> ip1 (in-place)
I0428 19:48:46.407656 26589 net.cpp:124] Setting up relu1
I0428 19:48:46.407666 26589 net.cpp:131] Top shape: 100 25 (2500)
I0428 19:48:46.407672 26589 net.cpp:139] Memory required for data: 1934800
I0428 19:48:46.407677 26589 layer_factory.hpp:77] Creating layer ip2
I0428 19:48:46.407688 26589 net.cpp:86] Creating Layer ip2
I0428 19:48:46.407693 26589 net.cpp:408] ip2 <- ip1
I0428 19:48:46.407701 26589 net.cpp:382] ip2 -> ip2
I0428 19:48:46.407800 26589 net.cpp:124] Setting up ip2
I0428 19:48:46.407809 26589 net.cpp:131] Top shape: 100 10 (1000)
I0428 19:48:46.407814 26589 net.cpp:139] Memory required for data: 1938800
I0428 19:48:46.407824 26589 layer_factory.hpp:77] Creating layer relu2
I0428 19:48:46.407831 26589 net.cpp:86] Creating Layer relu2
I0428 19:48:46.407837 26589 net.cpp:408] relu2 <- ip2
I0428 19:48:46.407845 26589 net.cpp:369] relu2 -> ip2 (in-place)
I0428 19:48:46.407999 26589 net.cpp:124] Setting up relu2
I0428 19:48:46.408008 26589 net.cpp:131] Top shape: 100 10 (1000)
I0428 19:48:46.408015 26589 net.cpp:139] Memory required for data: 1942800
I0428 19:48:46.408020 26589 layer_factory.hpp:77] Creating layer ip2_relu2_0_split
I0428 19:48:46.408041 26589 net.cpp:86] Creating Layer ip2_relu2_0_split
I0428 19:48:46.408047 26589 net.cpp:408] ip2_relu2_0_split <- ip2
I0428 19:48:46.408054 26589 net.cpp:382] ip2_relu2_0_split -> ip2_relu2_0_split_0
I0428 19:48:46.408077 26589 net.cpp:382] ip2_relu2_0_split -> ip2_relu2_0_split_1
I0428 19:48:46.408124 26589 net.cpp:124] Setting up ip2_relu2_0_split
I0428 19:48:46.408133 26589 net.cpp:131] Top shape: 100 10 (1000)
I0428 19:48:46.408139 26589 net.cpp:131] Top shape: 100 10 (1000)
I0428 19:48:46.408144 26589 net.cpp:139] Memory required for data: 1950800
I0428 19:48:46.408149 26589 layer_factory.hpp:77] Creating layer accuracy
I0428 19:48:46.408157 26589 net.cpp:86] Creating Layer accuracy
I0428 19:48:46.408164 26589 net.cpp:408] accuracy <- ip2_relu2_0_split_0
I0428 19:48:46.408170 26589 net.cpp:408] accuracy <- label_mnist_1_split_0
I0428 19:48:46.408177 26589 net.cpp:382] accuracy -> accuracy
…
