…
I0428 19:36:23.346371 23678 net.cpp:296] The NetState phase (0) differed from the phase (1) specified by a rule in layer mnist
I0428 19:36:23.346391 23678 net.cpp:296] The NetState phase (0) differed from the phase (1) specified by a rule in layer accuracy
I0428 19:36:23.346477 23678 net.cpp:53] Initializing net from parameters: 
name: "LeNet"
state {
  phase: TRAIN
  level: 0
  stage: ""
}
layer {
  name: "mnist"
  type: "Data"
  top: "data"
  top: "label"
  include {
    phase: TRAIN
  }
  transform_param {
    scale: 0.00390625
  }
  data_param {
    source: "examples/mnist/mnist_train_lmdb"
    batch_size: 64
    backend: LMDB
  }
}
layer {
  name: "conv0"
  type: "Convolution"
  bottom: "data"
  top: "conv0"
  param {
    lr_mult: 1
  }
  param {
    lr_mult: 2
  }
  convolution_param {
    num_output: 100
    kernel_size: 5
    stride: 1
    weight_filler {
      type: "xavier"
    }
    bias_filler {
      type: "constant"
    }
  }
}
layer {
  name: "pool0"
  type: "Pooling"
  bottom: "conv0"
  top: "pool0"
  pooling_param {
    pool: MAX
    kernel_size: 2
    stride: 2
  }
}
layer {
  name: "ip1"
  type: "InnerProduct"
  bottom: "pool0"
  top: "ip1"
  param {
    lr_mult: 1
  }
  param {
    lr_mult: 2
  }
  inner_product_param {
    num_output: 25
    weight_filler {
      type: "xavier"
    }
    bias_filler {
      type: "constant"
    }
  }
}
layer {
  name: "relu1"
  type: "ReLU"
  bottom: "ip1"
  top: "ip1"
}
layer {
  name: "ip2"
  type: "InnerProduct"
  bottom: "ip1"
  top: "ip2"
  param {
    lr_mult: 1
  }
  param {
    lr_mult: 2
  }
  inner_product_param {
    num_output: 10
    weight_filler {
      type: "xavier"
    }
    bias_filler {
      type: "constant"
    }
  }
}
layer {
  name: "relu2"
  type: "ReLU"
  bottom: "ip2"
  top: "ip2"
}
layer {
  name: "loss"
  type: "SoftmaxWithLoss"
  bottom: "ip2"
  bottom: "label"
  top: "loss"
}
I0428 19:36:23.346572 23678 layer_factory.hpp:77] Creating layer mnist
I0428 19:36:23.346700 23678 db_lmdb.cpp:35] Opened lmdb examples/mnist/mnist_train_lmdb
I0428 19:36:23.346730 23678 net.cpp:86] Creating Layer mnist
I0428 19:36:23.346745 23678 net.cpp:382] mnist -> data
I0428 19:36:23.346773 23678 net.cpp:382] mnist -> label
I0428 19:36:23.347935 23678 data_layer.cpp:45] output data size: 64,1,28,28
I0428 19:36:23.350359 23678 net.cpp:124] Setting up mnist
I0428 19:36:23.350379 23678 net.cpp:131] Top shape: 64 1 28 28 (50176)
I0428 19:36:23.350389 23678 net.cpp:131] Top shape: 64 (64)
I0428 19:36:23.350395 23678 net.cpp:139] Memory required for data: 200960
I0428 19:36:23.350405 23678 layer_factory.hpp:77] Creating layer conv0
I0428 19:36:23.350447 23678 net.cpp:86] Creating Layer conv0
I0428 19:36:23.350456 23678 net.cpp:408] conv0 <- data
I0428 19:36:23.350476 23678 net.cpp:382] conv0 -> conv0
I0428 19:36:23.639106 23678 net.cpp:124] Setting up conv0
I0428 19:36:23.639139 23678 net.cpp:131] Top shape: 64 100 24 24 (3686400)
I0428 19:36:23.639147 23678 net.cpp:139] Memory required for data: 14946560
I0428 19:36:23.639169 23678 layer_factory.hpp:77] Creating layer pool0
I0428 19:36:23.639189 23678 net.cpp:86] Creating Layer pool0
I0428 19:36:23.639197 23678 net.cpp:408] pool0 <- conv0
I0428 19:36:23.639207 23678 net.cpp:382] pool0 -> pool0
I0428 19:36:23.639278 23678 net.cpp:124] Setting up pool0
I0428 19:36:23.639288 23678 net.cpp:131] Top shape: 64 100 12 12 (921600)
I0428 19:36:23.639295 23678 net.cpp:139] Memory required for data: 18632960
I0428 19:36:23.639322 23678 layer_factory.hpp:77] Creating layer ip1
I0428 19:36:23.639338 23678 net.cpp:86] Creating Layer ip1
I0428 19:36:23.639345 23678 net.cpp:408] ip1 <- pool0
I0428 19:36:23.639356 23678 net.cpp:382] ip1 -> ip1
I0428 19:36:23.642701 23678 net.cpp:124] Setting up ip1
I0428 19:36:23.642720 23678 net.cpp:131] Top shape: 64 25 (1600)
I0428 19:36:23.642727 23678 net.cpp:139] Memory required for data: 18639360
I0428 19:36:23.642742 23678 layer_factory.hpp:77] Creating layer relu1
I0428 19:36:23.642755 23678 net.cpp:86] Creating Layer relu1
I0428 19:36:23.642761 23678 net.cpp:408] relu1 <- ip1
I0428 19:36:23.642771 23678 net.cpp:369] relu1 -> ip1 (in-place)
I0428 19:36:23.642976 23678 net.cpp:124] Setting up relu1
I0428 19:36:23.642988 23678 net.cpp:131] Top shape: 64 25 (1600)
I0428 19:36:23.642994 23678 net.cpp:139] Memory required for data: 18645760
I0428 19:36:23.643000 23678 layer_factory.hpp:77] Creating layer ip2
I0428 19:36:23.643012 23678 net.cpp:86] Creating Layer ip2
I0428 19:36:23.643018 23678 net.cpp:408] ip2 <- ip1
I0428 19:36:23.643028 23678 net.cpp:382] ip2 -> ip2
I0428 19:36:23.643146 23678 net.cpp:124] Setting up ip2
I0428 19:36:23.643155 23678 net.cpp:131] Top shape: 64 10 (640)
I0428 19:36:23.643162 23678 net.cpp:139] Memory required for data: 18648320
I0428 19:36:23.643177 23678 layer_factory.hpp:77] Creating layer relu2
I0428 19:36:23.643185 23678 net.cpp:86] Creating Layer relu2
I0428 19:36:23.643196 23678 net.cpp:408] relu2 <- ip2
I0428 19:36:23.643205 23678 net.cpp:369] relu2 -> ip2 (in-place)
I0428 19:36:23.644028 23678 net.cpp:124] Setting up relu2
I0428 19:36:23.644044 23678 net.cpp:131] Top shape: 64 10 (640)
I0428 19:36:23.644052 23678 net.cpp:139] Memory required for data: 18650880
I0428 19:36:23.644057 23678 layer_factory.hpp:77] Creating layer loss
I0428 19:36:23.644068 23678 net.cpp:86] Creating Layer loss
I0428 19:36:23.644075 23678 net.cpp:408] loss <- ip2
I0428 19:36:23.644083 23678 net.cpp:408] loss <- label
I0428 19:36:23.644093 23678 net.cpp:382] loss -> loss
I0428 19:36:23.644117 23678 layer_factory.hpp:77] Creating layer loss
…
I0428 19:36:23.644780 23678 solver.cpp:173] Creating test net (#0) specified by net file: ECE595/mnist/train_test/var_everything2/lenet_train_test242.prototxt
I0428 19:36:23.644822 23678 net.cpp:296] The NetState phase (1) differed from the phase (0) specified by a rule in layer mnist
I0428 19:36:23.644914 23678 net.cpp:53] Initializing net from parameters: 
name: "LeNet"
state {
  phase: TEST
}
layer {
  name: "mnist"
  type: "Data"
  top: "data"
  top: "label"
  include {
    phase: TEST
  }
  transform_param {
    scale: 0.00390625
  }
  data_param {
    source: "examples/mnist/mnist_test_lmdb"
    batch_size: 100
    backend: LMDB
  }
}
layer {
  name: "conv0"
  type: "Convolution"
  bottom: "data"
  top: "conv0"
  param {
    lr_mult: 1
  }
  param {
    lr_mult: 2
  }
  convolution_param {
    num_output: 100
    kernel_size: 5
    stride: 1
    weight_filler {
      type: "xavier"
    }
    bias_filler {
      type: "constant"
    }
  }
}
layer {
  name: "pool0"
  type: "Pooling"
  bottom: "conv0"
  top: "pool0"
  pooling_param {
    pool: MAX
    kernel_size: 2
    stride: 2
  }
}
layer {
  name: "ip1"
  type: "InnerProduct"
  bottom: "pool0"
  top: "ip1"
  param {
    lr_mult: 1
  }
  param {
    lr_mult: 2
  }
  inner_product_param {
    num_output: 25
    weight_filler {
      type: "xavier"
    }
    bias_filler {
      type: "constant"
    }
  }
}
layer {
  name: "relu1"
  type: "ReLU"
  bottom: "ip1"
  top: "ip1"
}
layer {
  name: "ip2"
  type: "InnerProduct"
  bottom: "ip1"
  top: "ip2"
  param {
    lr_mult: 1
  }
  param {
    lr_mult: 2
  }
  inner_product_param {
    num_output: 10
    weight_filler {
      type: "xavier"
    }
    bias_filler {
      type: "constant"
    }
  }
}
layer {
  name: "relu2"
  type: "ReLU"
  bottom: "ip2"
  top: "ip2"
}
layer {
  name: "accuracy"
  type: "Accuracy"
  bottom: "ip2"
  bottom: "label"
  top: "accuracy"
  include {
    phase: TEST
  }
}
layer {
  name: "loss"
  type: "SoftmaxWithLoss"
  bottom: "ip2"
  bottom: "label"
  top: "loss"
}
I0428 19:36:23.645025 23678 layer_factory.hpp:77] Creating layer mnist
I0428 19:36:23.645090 23678 db_lmdb.cpp:35] Opened lmdb examples/mnist/mnist_test_lmdb
I0428 19:36:23.645114 23678 net.cpp:86] Creating Layer mnist
I0428 19:36:23.645123 23678 net.cpp:382] mnist -> data
I0428 19:36:23.645136 23678 net.cpp:382] mnist -> label
I0428 19:36:23.645272 23678 data_layer.cpp:45] output data size: 100,1,28,28
I0428 19:36:23.647403 23678 net.cpp:124] Setting up mnist
I0428 19:36:23.647419 23678 net.cpp:131] Top shape: 100 1 28 28 (78400)
I0428 19:36:23.647428 23678 net.cpp:131] Top shape: 100 (100)
I0428 19:36:23.647435 23678 net.cpp:139] Memory required for data: 314000
I0428 19:36:23.647441 23678 layer_factory.hpp:77] Creating layer label_mnist_1_split
I0428 19:36:23.647454 23678 net.cpp:86] Creating Layer label_mnist_1_split
I0428 19:36:23.647460 23678 net.cpp:408] label_mnist_1_split <- label
I0428 19:36:23.647469 23678 net.cpp:382] label_mnist_1_split -> label_mnist_1_split_0
I0428 19:36:23.647481 23678 net.cpp:382] label_mnist_1_split -> label_mnist_1_split_1
I0428 19:36:23.647590 23678 net.cpp:124] Setting up label_mnist_1_split
I0428 19:36:23.647600 23678 net.cpp:131] Top shape: 100 (100)
I0428 19:36:23.647608 23678 net.cpp:131] Top shape: 100 (100)
I0428 19:36:23.647614 23678 net.cpp:139] Memory required for data: 314800
I0428 19:36:23.647620 23678 layer_factory.hpp:77] Creating layer conv0
I0428 19:36:23.647635 23678 net.cpp:86] Creating Layer conv0
I0428 19:36:23.647644 23678 net.cpp:408] conv0 <- data
I0428 19:36:23.647655 23678 net.cpp:382] conv0 -> conv0
I0428 19:36:23.649385 23678 net.cpp:124] Setting up conv0
I0428 19:36:23.649405 23678 net.cpp:131] Top shape: 100 100 24 24 (5760000)
I0428 19:36:23.649411 23678 net.cpp:139] Memory required for data: 23354800
I0428 19:36:23.649427 23678 layer_factory.hpp:77] Creating layer pool0
I0428 19:36:23.649438 23678 net.cpp:86] Creating Layer pool0
I0428 19:36:23.649446 23678 net.cpp:408] pool0 <- conv0
I0428 19:36:23.649456 23678 net.cpp:382] pool0 -> pool0
I0428 19:36:23.649504 23678 net.cpp:124] Setting up pool0
I0428 19:36:23.649514 23678 net.cpp:131] Top shape: 100 100 12 12 (1440000)
I0428 19:36:23.649521 23678 net.cpp:139] Memory required for data: 29114800
I0428 19:36:23.649528 23678 layer_factory.hpp:77] Creating layer ip1
I0428 19:36:23.649539 23678 net.cpp:86] Creating Layer ip1
I0428 19:36:23.649545 23678 net.cpp:408] ip1 <- pool0
I0428 19:36:23.649555 23678 net.cpp:382] ip1 -> ip1
I0428 19:36:23.651970 23678 net.cpp:124] Setting up ip1
I0428 19:36:23.651983 23678 net.cpp:131] Top shape: 100 25 (2500)
I0428 19:36:23.651989 23678 net.cpp:139] Memory required for data: 29124800
I0428 19:36:23.652004 23678 layer_factory.hpp:77] Creating layer relu1
I0428 19:36:23.652012 23678 net.cpp:86] Creating Layer relu1
I0428 19:36:23.652025 23678 net.cpp:408] relu1 <- ip1
I0428 19:36:23.652034 23678 net.cpp:369] relu1 -> ip1 (in-place)
I0428 19:36:23.652261 23678 net.cpp:124] Setting up relu1
I0428 19:36:23.652272 23678 net.cpp:131] Top shape: 100 25 (2500)
I0428 19:36:23.652295 23678 net.cpp:139] Memory required for data: 29134800
I0428 19:36:23.652303 23678 layer_factory.hpp:77] Creating layer ip2
I0428 19:36:23.652314 23678 net.cpp:86] Creating Layer ip2
I0428 19:36:23.652321 23678 net.cpp:408] ip2 <- ip1
I0428 19:36:23.652331 23678 net.cpp:382] ip2 -> ip2
I0428 19:36:23.652449 23678 net.cpp:124] Setting up ip2
I0428 19:36:23.652460 23678 net.cpp:131] Top shape: 100 10 (1000)
I0428 19:36:23.652467 23678 net.cpp:139] Memory required for data: 29138800
I0428 19:36:23.652482 23678 layer_factory.hpp:77] Creating layer relu2
I0428 19:36:23.652493 23678 net.cpp:86] Creating Layer relu2
I0428 19:36:23.652499 23678 net.cpp:408] relu2 <- ip2
I0428 19:36:23.652508 23678 net.cpp:369] relu2 -> ip2 (in-place)
I0428 19:36:23.652690 23678 net.cpp:124] Setting up relu2
I0428 19:36:23.652704 23678 net.cpp:131] Top shape: 100 10 (1000)
I0428 19:36:23.652709 23678 net.cpp:139] Memory required for data: 29142800
I0428 19:36:23.652716 23678 layer_factory.hpp:77] Creating layer ip2_relu2_0_split
I0428 19:36:23.652727 23678 net.cpp:86] Creating Layer ip2_relu2_0_split
I0428 19:36:23.652734 23678 net.cpp:408] ip2_relu2_0_split <- ip2
I0428 19:36:23.652745 23678 net.cpp:382] ip2_relu2_0_split -> ip2_relu2_0_split_0
I0428 19:36:23.652757 23678 net.cpp:382] ip2_relu2_0_split -> ip2_relu2_0_split_1
I0428 19:36:23.652806 23678 net.cpp:124] Setting up ip2_relu2_0_split
I0428 19:36:23.652827 23678 net.cpp:131] Top shape: 100 10 (1000)
I0428 19:36:23.652835 23678 net.cpp:131] Top shape: 100 10 (1000)
I0428 19:36:23.652854 23678 net.cpp:139] Memory required for data: 29150800
I0428 19:36:23.652860 23678 layer_factory.hpp:77] Creating layer accuracy
I0428 19:36:23.652870 23678 net.cpp:86] Creating Layer accuracy
I0428 19:36:23.652876 23678 net.cpp:408] accuracy <- ip2_relu2_0_split_0
I0428 19:36:23.652889 23678 net.cpp:408] accuracy <- label_mnist_1_split_0
I0428 19:36:23.652897 23678 net.cpp:382] accuracy -> accuracy
…
