…
I0428 19:39:55.873428 24423 net.cpp:296] The NetState phase (0) differed from the phase (1) specified by a rule in layer mnist
I0428 19:39:55.873446 24423 net.cpp:296] The NetState phase (0) differed from the phase (1) specified by a rule in layer accuracy
I0428 19:39:55.873538 24423 net.cpp:53] Initializing net from parameters: 
name: "LeNet"
state {
  phase: TRAIN
  level: 0
  stage: ""
}
layer {
  name: "mnist"
  type: "Data"
  top: "data"
  top: "label"
  include {
    phase: TRAIN
  }
  transform_param {
    scale: 0.00390625
  }
  data_param {
    source: "examples/mnist/mnist_train_lmdb"
    batch_size: 64
    backend: LMDB
  }
}
layer {
  name: "conv0"
  type: "Convolution"
  bottom: "data"
  top: "conv0"
  param {
    lr_mult: 1
  }
  param {
    lr_mult: 2
  }
  convolution_param {
    num_output: 2
    kernel_size: 5
    stride: 1
    weight_filler {
      type: "xavier"
    }
    bias_filler {
      type: "constant"
    }
  }
}
layer {
  name: "pool0"
  type: "Pooling"
  bottom: "conv0"
  top: "pool0"
  pooling_param {
    pool: MAX
    kernel_size: 2
    stride: 2
  }
}
layer {
  name: "conv1"
  type: "Convolution"
  bottom: "pool0"
  top: "conv1"
  param {
    lr_mult: 1
  }
  param {
    lr_mult: 2
  }
  convolution_param {
    num_output: 5
    kernel_size: 5
    stride: 1
    weight_filler {
      type: "xavier"
    }
    bias_filler {
      type: "constant"
    }
  }
}
layer {
  name: "pool1"
  type: "Pooling"
  bottom: "conv1"
  top: "pool1"
  pooling_param {
    pool: MAX
    kernel_size: 2
    stride: 2
  }
}
layer {
  name: "ip1"
  type: "InnerProduct"
  bottom: "pool1"
  top: "ip1"
  param {
    lr_mult: 1
  }
  param {
    lr_mult: 2
  }
  inner_product_param {
    num_output: 25
    weight_filler {
      type: "xavier"
    }
    bias_filler {
      type: "constant"
    }
  }
}
layer {
  name: "relu1"
  type: "ReLU"
  bottom: "ip1"
  top: "ip1"
}
layer {
  name: "ip2"
  type: "InnerProduct"
  bottom: "ip1"
  top: "ip2"
  param {
    lr_mult: 1
  }
  param {
    lr_mult: 2
  }
  inner_product_param {
    num_output: 10
    weight_filler {
      type: "xavier"
    }
    bias_filler {
      type: "constant"
    }
  }
}
layer {
  name: "relu2"
  type: "ReLU"
  bottom: "ip2"
  top: "ip2"
}
layer {
  name: "loss"
  type: "SoftmaxWithLoss"
  bottom: "ip2"
  bottom: "label"
  top: "loss"
}
I0428 19:39:55.873612 24423 layer_factory.hpp:77] Creating layer mnist
I0428 19:39:55.873710 24423 db_lmdb.cpp:35] Opened lmdb examples/mnist/mnist_train_lmdb
I0428 19:39:55.873736 24423 net.cpp:86] Creating Layer mnist
I0428 19:39:55.873744 24423 net.cpp:382] mnist -> data
I0428 19:39:55.873769 24423 net.cpp:382] mnist -> label
I0428 19:39:55.874866 24423 data_layer.cpp:45] output data size: 64,1,28,28
I0428 19:39:55.877316 24423 net.cpp:124] Setting up mnist
I0428 19:39:55.877337 24423 net.cpp:131] Top shape: 64 1 28 28 (50176)
I0428 19:39:55.877344 24423 net.cpp:131] Top shape: 64 (64)
I0428 19:39:55.877347 24423 net.cpp:139] Memory required for data: 200960
I0428 19:39:55.877354 24423 layer_factory.hpp:77] Creating layer conv0
I0428 19:39:55.877372 24423 net.cpp:86] Creating Layer conv0
I0428 19:39:55.877377 24423 net.cpp:408] conv0 <- data
I0428 19:39:55.877389 24423 net.cpp:382] conv0 -> conv0
I0428 19:39:56.156568 24423 net.cpp:124] Setting up conv0
I0428 19:39:56.156594 24423 net.cpp:131] Top shape: 64 2 24 24 (73728)
I0428 19:39:56.156597 24423 net.cpp:139] Memory required for data: 495872
I0428 19:39:56.156630 24423 layer_factory.hpp:77] Creating layer pool0
I0428 19:39:56.156644 24423 net.cpp:86] Creating Layer pool0
I0428 19:39:56.156648 24423 net.cpp:408] pool0 <- conv0
I0428 19:39:56.156653 24423 net.cpp:382] pool0 -> pool0
I0428 19:39:56.156699 24423 net.cpp:124] Setting up pool0
I0428 19:39:56.156707 24423 net.cpp:131] Top shape: 64 2 12 12 (18432)
I0428 19:39:56.156709 24423 net.cpp:139] Memory required for data: 569600
I0428 19:39:56.156713 24423 layer_factory.hpp:77] Creating layer conv1
I0428 19:39:56.156723 24423 net.cpp:86] Creating Layer conv1
I0428 19:39:56.156726 24423 net.cpp:408] conv1 <- pool0
I0428 19:39:56.156731 24423 net.cpp:382] conv1 -> conv1
I0428 19:39:56.158768 24423 net.cpp:124] Setting up conv1
I0428 19:39:56.158783 24423 net.cpp:131] Top shape: 64 5 8 8 (20480)
I0428 19:39:56.158787 24423 net.cpp:139] Memory required for data: 651520
I0428 19:39:56.158798 24423 layer_factory.hpp:77] Creating layer pool1
I0428 19:39:56.158807 24423 net.cpp:86] Creating Layer pool1
I0428 19:39:56.158812 24423 net.cpp:408] pool1 <- conv1
I0428 19:39:56.158816 24423 net.cpp:382] pool1 -> pool1
I0428 19:39:56.158869 24423 net.cpp:124] Setting up pool1
I0428 19:39:56.158875 24423 net.cpp:131] Top shape: 64 5 4 4 (5120)
I0428 19:39:56.158879 24423 net.cpp:139] Memory required for data: 672000
I0428 19:39:56.158881 24423 layer_factory.hpp:77] Creating layer ip1
I0428 19:39:56.158888 24423 net.cpp:86] Creating Layer ip1
I0428 19:39:56.158891 24423 net.cpp:408] ip1 <- pool1
I0428 19:39:56.158897 24423 net.cpp:382] ip1 -> ip1
I0428 19:39:56.159922 24423 net.cpp:124] Setting up ip1
I0428 19:39:56.159934 24423 net.cpp:131] Top shape: 64 25 (1600)
I0428 19:39:56.159939 24423 net.cpp:139] Memory required for data: 678400
I0428 19:39:56.159946 24423 layer_factory.hpp:77] Creating layer relu1
I0428 19:39:56.159952 24423 net.cpp:86] Creating Layer relu1
I0428 19:39:56.159956 24423 net.cpp:408] relu1 <- ip1
I0428 19:39:56.159962 24423 net.cpp:369] relu1 -> ip1 (in-place)
I0428 19:39:56.160138 24423 net.cpp:124] Setting up relu1
I0428 19:39:56.160147 24423 net.cpp:131] Top shape: 64 25 (1600)
I0428 19:39:56.160151 24423 net.cpp:139] Memory required for data: 684800
I0428 19:39:56.160153 24423 layer_factory.hpp:77] Creating layer ip2
I0428 19:39:56.160161 24423 net.cpp:86] Creating Layer ip2
I0428 19:39:56.160164 24423 net.cpp:408] ip2 <- ip1
I0428 19:39:56.160169 24423 net.cpp:382] ip2 -> ip2
I0428 19:39:56.160269 24423 net.cpp:124] Setting up ip2
I0428 19:39:56.160275 24423 net.cpp:131] Top shape: 64 10 (640)
I0428 19:39:56.160279 24423 net.cpp:139] Memory required for data: 687360
I0428 19:39:56.160284 24423 layer_factory.hpp:77] Creating layer relu2
I0428 19:39:56.160305 24423 net.cpp:86] Creating Layer relu2
I0428 19:39:56.160308 24423 net.cpp:408] relu2 <- ip2
I0428 19:39:56.160312 24423 net.cpp:369] relu2 -> ip2 (in-place)
I0428 19:39:56.161181 24423 net.cpp:124] Setting up relu2
I0428 19:39:56.161193 24423 net.cpp:131] Top shape: 64 10 (640)
I0428 19:39:56.161198 24423 net.cpp:139] Memory required for data: 689920
I0428 19:39:56.161201 24423 layer_factory.hpp:77] Creating layer loss
I0428 19:39:56.161208 24423 net.cpp:86] Creating Layer loss
I0428 19:39:56.161211 24423 net.cpp:408] loss <- ip2
I0428 19:39:56.161216 24423 net.cpp:408] loss <- label
I0428 19:39:56.161221 24423 net.cpp:382] loss -> loss
I0428 19:39:56.161240 24423 layer_factory.hpp:77] Creating layer loss
…
I0428 19:39:56.161907 24423 solver.cpp:173] Creating test net (#0) specified by net file: ECE595/mnist/train_test/var_everything2/lenet_train_test319.prototxt
I0428 19:39:56.161932 24423 net.cpp:296] The NetState phase (1) differed from the phase (0) specified by a rule in layer mnist
I0428 19:39:56.162035 24423 net.cpp:53] Initializing net from parameters: 
name: "LeNet"
state {
  phase: TEST
}
layer {
  name: "mnist"
  type: "Data"
  top: "data"
  top: "label"
  include {
    phase: TEST
  }
  transform_param {
    scale: 0.00390625
  }
  data_param {
    source: "examples/mnist/mnist_test_lmdb"
    batch_size: 100
    backend: LMDB
  }
}
layer {
  name: "conv0"
  type: "Convolution"
  bottom: "data"
  top: "conv0"
  param {
    lr_mult: 1
  }
  param {
    lr_mult: 2
  }
  convolution_param {
    num_output: 2
    kernel_size: 5
    stride: 1
    weight_filler {
      type: "xavier"
    }
    bias_filler {
      type: "constant"
    }
  }
}
layer {
  name: "pool0"
  type: "Pooling"
  bottom: "conv0"
  top: "pool0"
  pooling_param {
    pool: MAX
    kernel_size: 2
    stride: 2
  }
}
layer {
  name: "conv1"
  type: "Convolution"
  bottom: "pool0"
  top: "conv1"
  param {
    lr_mult: 1
  }
  param {
    lr_mult: 2
  }
  convolution_param {
    num_output: 5
    kernel_size: 5
    stride: 1
    weight_filler {
      type: "xavier"
    }
    bias_filler {
      type: "constant"
    }
  }
}
layer {
  name: "pool1"
  type: "Pooling"
  bottom: "conv1"
  top: "pool1"
  pooling_param {
    pool: MAX
    kernel_size: 2
    stride: 2
  }
}
layer {
  name: "ip1"
  type: "InnerProduct"
  bottom: "pool1"
  top: "ip1"
  param {
    lr_mult: 1
  }
  param {
    lr_mult: 2
  }
  inner_product_param {
    num_output: 25
    weight_filler {
      type: "xavier"
    }
    bias_filler {
      type: "constant"
    }
  }
}
layer {
  name: "relu1"
  type: "ReLU"
  bottom: "ip1"
  top: "ip1"
}
layer {
  name: "ip2"
  type: "InnerProduct"
  bottom: "ip1"
  top: "ip2"
  param {
    lr_mult: 1
  }
  param {
    lr_mult: 2
  }
  inner_product_param {
    num_output: 10
    weight_filler {
      type: "xavier"
    }
    bias_filler {
      type: "constant"
    }
  }
}
layer {
  name: "relu2"
  type: "ReLU"
  bottom: "ip2"
  top: "ip2"
}
layer {
  name: "accuracy"
  type: "Accuracy"
  bottom: "ip2"
  bottom: "label"
  top: "accuracy"
  include {
    phase: TEST
  }
}
layer {
  name: "loss"
  type: "SoftmaxWithLoss"
  bottom: "ip2"
  bottom: "label"
  top: "loss"
}
I0428 19:39:56.162106 24423 layer_factory.hpp:77] Creating layer mnist
I0428 19:39:56.162149 24423 db_lmdb.cpp:35] Opened lmdb examples/mnist/mnist_test_lmdb
I0428 19:39:56.162163 24423 net.cpp:86] Creating Layer mnist
I0428 19:39:56.162169 24423 net.cpp:382] mnist -> data
I0428 19:39:56.162187 24423 net.cpp:382] mnist -> label
I0428 19:39:56.162286 24423 data_layer.cpp:45] output data size: 100,1,28,28
I0428 19:39:56.164322 24423 net.cpp:124] Setting up mnist
I0428 19:39:56.164350 24423 net.cpp:131] Top shape: 100 1 28 28 (78400)
I0428 19:39:56.164355 24423 net.cpp:131] Top shape: 100 (100)
I0428 19:39:56.164358 24423 net.cpp:139] Memory required for data: 314000
I0428 19:39:56.164362 24423 layer_factory.hpp:77] Creating layer label_mnist_1_split
I0428 19:39:56.164371 24423 net.cpp:86] Creating Layer label_mnist_1_split
I0428 19:39:56.164376 24423 net.cpp:408] label_mnist_1_split <- label
I0428 19:39:56.164381 24423 net.cpp:382] label_mnist_1_split -> label_mnist_1_split_0
I0428 19:39:56.164388 24423 net.cpp:382] label_mnist_1_split -> label_mnist_1_split_1
I0428 19:39:56.164474 24423 net.cpp:124] Setting up label_mnist_1_split
I0428 19:39:56.164491 24423 net.cpp:131] Top shape: 100 (100)
I0428 19:39:56.164506 24423 net.cpp:131] Top shape: 100 (100)
I0428 19:39:56.164510 24423 net.cpp:139] Memory required for data: 314800
I0428 19:39:56.164513 24423 layer_factory.hpp:77] Creating layer conv0
I0428 19:39:56.164522 24423 net.cpp:86] Creating Layer conv0
I0428 19:39:56.164525 24423 net.cpp:408] conv0 <- data
I0428 19:39:56.164532 24423 net.cpp:382] conv0 -> conv0
I0428 19:39:56.166129 24423 net.cpp:124] Setting up conv0
I0428 19:39:56.166159 24423 net.cpp:131] Top shape: 100 2 24 24 (115200)
I0428 19:39:56.166163 24423 net.cpp:139] Memory required for data: 775600
I0428 19:39:56.166188 24423 layer_factory.hpp:77] Creating layer pool0
I0428 19:39:56.166196 24423 net.cpp:86] Creating Layer pool0
I0428 19:39:56.166200 24423 net.cpp:408] pool0 <- conv0
I0428 19:39:56.166205 24423 net.cpp:382] pool0 -> pool0
I0428 19:39:56.166260 24423 net.cpp:124] Setting up pool0
I0428 19:39:56.166265 24423 net.cpp:131] Top shape: 100 2 12 12 (28800)
I0428 19:39:56.166268 24423 net.cpp:139] Memory required for data: 890800
I0428 19:39:56.166272 24423 layer_factory.hpp:77] Creating layer conv1
I0428 19:39:56.166283 24423 net.cpp:86] Creating Layer conv1
I0428 19:39:56.166286 24423 net.cpp:408] conv1 <- pool0
I0428 19:39:56.166296 24423 net.cpp:382] conv1 -> conv1
I0428 19:39:56.167907 24423 net.cpp:124] Setting up conv1
I0428 19:39:56.167937 24423 net.cpp:131] Top shape: 100 5 8 8 (32000)
I0428 19:39:56.167942 24423 net.cpp:139] Memory required for data: 1018800
I0428 19:39:56.167963 24423 layer_factory.hpp:77] Creating layer pool1
I0428 19:39:56.167985 24423 net.cpp:86] Creating Layer pool1
I0428 19:39:56.167989 24423 net.cpp:408] pool1 <- conv1
I0428 19:39:56.167995 24423 net.cpp:382] pool1 -> pool1
I0428 19:39:56.168032 24423 net.cpp:124] Setting up pool1
I0428 19:39:56.168040 24423 net.cpp:131] Top shape: 100 5 4 4 (8000)
I0428 19:39:56.168042 24423 net.cpp:139] Memory required for data: 1050800
I0428 19:39:56.168045 24423 layer_factory.hpp:77] Creating layer ip1
I0428 19:39:56.168051 24423 net.cpp:86] Creating Layer ip1
I0428 19:39:56.168054 24423 net.cpp:408] ip1 <- pool1
I0428 19:39:56.168061 24423 net.cpp:382] ip1 -> ip1
I0428 19:39:56.168192 24423 net.cpp:124] Setting up ip1
I0428 19:39:56.168200 24423 net.cpp:131] Top shape: 100 25 (2500)
I0428 19:39:56.168203 24423 net.cpp:139] Memory required for data: 1060800
I0428 19:39:56.168212 24423 layer_factory.hpp:77] Creating layer relu1
I0428 19:39:56.168218 24423 net.cpp:86] Creating Layer relu1
I0428 19:39:56.168232 24423 net.cpp:408] relu1 <- ip1
I0428 19:39:56.168239 24423 net.cpp:369] relu1 -> ip1 (in-place)
I0428 19:39:56.168437 24423 net.cpp:124] Setting up relu1
I0428 19:39:56.168444 24423 net.cpp:131] Top shape: 100 25 (2500)
I0428 19:39:56.168447 24423 net.cpp:139] Memory required for data: 1070800
I0428 19:39:56.168450 24423 layer_factory.hpp:77] Creating layer ip2
I0428 19:39:56.168459 24423 net.cpp:86] Creating Layer ip2
I0428 19:39:56.168464 24423 net.cpp:408] ip2 <- ip1
I0428 19:39:56.168469 24423 net.cpp:382] ip2 -> ip2
I0428 19:39:56.168568 24423 net.cpp:124] Setting up ip2
I0428 19:39:56.168576 24423 net.cpp:131] Top shape: 100 10 (1000)
I0428 19:39:56.168579 24423 net.cpp:139] Memory required for data: 1074800
I0428 19:39:56.168584 24423 layer_factory.hpp:77] Creating layer relu2
I0428 19:39:56.168589 24423 net.cpp:86] Creating Layer relu2
I0428 19:39:56.168592 24423 net.cpp:408] relu2 <- ip2
I0428 19:39:56.168597 24423 net.cpp:369] relu2 -> ip2 (in-place)
I0428 19:39:56.168769 24423 net.cpp:124] Setting up relu2
I0428 19:39:56.168777 24423 net.cpp:131] Top shape: 100 10 (1000)
I0428 19:39:56.168781 24423 net.cpp:139] Memory required for data: 1078800
I0428 19:39:56.168783 24423 layer_factory.hpp:77] Creating layer ip2_relu2_0_split
I0428 19:39:56.168788 24423 net.cpp:86] Creating Layer ip2_relu2_0_split
I0428 19:39:56.168792 24423 net.cpp:408] ip2_relu2_0_split <- ip2
I0428 19:39:56.168797 24423 net.cpp:382] ip2_relu2_0_split -> ip2_relu2_0_split_0
I0428 19:39:56.168838 24423 net.cpp:382] ip2_relu2_0_split -> ip2_relu2_0_split_1
I0428 19:39:56.168903 24423 net.cpp:124] Setting up ip2_relu2_0_split
I0428 19:39:56.168911 24423 net.cpp:131] Top shape: 100 10 (1000)
I0428 19:39:56.168915 24423 net.cpp:131] Top shape: 100 10 (1000)
I0428 19:39:56.168918 24423 net.cpp:139] Memory required for data: 1086800
I0428 19:39:56.168921 24423 layer_factory.hpp:77] Creating layer accuracy
I0428 19:39:56.168928 24423 net.cpp:86] Creating Layer accuracy
I0428 19:39:56.168932 24423 net.cpp:408] accuracy <- ip2_relu2_0_split_0
I0428 19:39:56.168936 24423 net.cpp:408] accuracy <- label_mnist_1_split_0
I0428 19:39:56.168942 24423 net.cpp:382] accuracy -> accuracy
…
