…
I0428 19:53:07.420002 27697 net.cpp:296] The NetState phase (0) differed from the phase (1) specified by a rule in layer mnist
I0428 19:53:07.420022 27697 net.cpp:296] The NetState phase (0) differed from the phase (1) specified by a rule in layer accuracy
I0428 19:53:07.420123 27697 net.cpp:53] Initializing net from parameters: 
name: "LeNet"
state {
  phase: TRAIN
  level: 0
  stage: ""
}
layer {
  name: "mnist"
  type: "Data"
  top: "data"
  top: "label"
  include {
    phase: TRAIN
  }
  transform_param {
    scale: 0.00390625
  }
  data_param {
    source: "examples/mnist/mnist_train_lmdb"
    batch_size: 64
    backend: LMDB
  }
}
layer {
  name: "conv0"
  type: "Convolution"
  bottom: "data"
  top: "conv0"
  param {
    lr_mult: 1
  }
  param {
    lr_mult: 2
  }
  convolution_param {
    num_output: 5
    kernel_size: 5
    stride: 1
    weight_filler {
      type: "xavier"
    }
    bias_filler {
      type: "constant"
    }
  }
}
layer {
  name: "pool0"
  type: "Pooling"
  bottom: "conv0"
  top: "pool0"
  pooling_param {
    pool: MAX
    kernel_size: 2
    stride: 2
  }
}
layer {
  name: "conv1"
  type: "Convolution"
  bottom: "pool0"
  top: "conv1"
  param {
    lr_mult: 1
  }
  param {
    lr_mult: 2
  }
  convolution_param {
    num_output: 50
    kernel_size: 5
    stride: 1
    weight_filler {
      type: "xavier"
    }
    bias_filler {
      type: "constant"
    }
  }
}
layer {
  name: "pool1"
  type: "Pooling"
  bottom: "conv1"
  top: "pool1"
  pooling_param {
    pool: MAX
    kernel_size: 2
    stride: 2
  }
}
layer {
  name: "ip1"
  type: "InnerProduct"
  bottom: "pool1"
  top: "ip1"
  param {
    lr_mult: 1
  }
  param {
    lr_mult: 2
  }
  inner_product_param {
    num_output: 10
    weight_filler {
      type: "xavier"
    }
    bias_filler {
      type: "constant"
    }
  }
}
layer {
  name: "relu1"
  type: "ReLU"
  bottom: "ip1"
  top: "ip1"
}
layer {
  name: "ip2"
  type: "InnerProduct"
  bottom: "ip1"
  top: "ip2"
  param {
    lr_mult: 1
  }
  param {
    lr_mult: 2
  }
  inner_product_param {
    num_output: 25
    weight_filler {
      type: "xavier"
    }
    bias_filler {
      type: "constant"
    }
  }
}
layer {
  name: "relu2"
  type: "ReLU"
  bottom: "ip2"
  top: "ip2"
}
layer {
  name: "ip3"
  type: "InnerProduct"
  bottom: "ip2"
  top: "ip3"
  param {
    lr_mult: 1
  }
  param {
    lr_mult: 2
  }
  inner_product_param {
    num_output: 10
    weight_filler {
      type: "xavier"
    }
    bias_filler {
      type: "constant"
    }
  }
}
layer {
  name: "relu3"
  type: "ReLU"
  bottom: "ip3"
  top: "ip3"
}
layer {
  name: "loss"
  type: "SoftmaxWithLoss"
  bottom: "ip3"
  bottom: "label"
  top: "loss"
}
I0428 19:53:07.420203 27697 layer_factory.hpp:77] Creating layer mnist
I0428 19:53:07.420301 27697 db_lmdb.cpp:35] Opened lmdb examples/mnist/mnist_train_lmdb
I0428 19:53:07.420325 27697 net.cpp:86] Creating Layer mnist
I0428 19:53:07.420333 27697 net.cpp:382] mnist -> data
I0428 19:53:07.420356 27697 net.cpp:382] mnist -> label
I0428 19:53:07.421485 27697 data_layer.cpp:45] output data size: 64,1,28,28
I0428 19:53:07.424247 27697 net.cpp:124] Setting up mnist
I0428 19:53:07.424266 27697 net.cpp:131] Top shape: 64 1 28 28 (50176)
I0428 19:53:07.424273 27697 net.cpp:131] Top shape: 64 (64)
I0428 19:53:07.424276 27697 net.cpp:139] Memory required for data: 200960
I0428 19:53:07.424283 27697 layer_factory.hpp:77] Creating layer conv0
I0428 19:53:07.424309 27697 net.cpp:86] Creating Layer conv0
I0428 19:53:07.424332 27697 net.cpp:408] conv0 <- data
I0428 19:53:07.424345 27697 net.cpp:382] conv0 -> conv0
I0428 19:53:07.688123 27697 net.cpp:124] Setting up conv0
I0428 19:53:07.688149 27697 net.cpp:131] Top shape: 64 5 24 24 (184320)
I0428 19:53:07.688153 27697 net.cpp:139] Memory required for data: 938240
I0428 19:53:07.688169 27697 layer_factory.hpp:77] Creating layer pool0
I0428 19:53:07.688180 27697 net.cpp:86] Creating Layer pool0
I0428 19:53:07.688184 27697 net.cpp:408] pool0 <- conv0
I0428 19:53:07.688189 27697 net.cpp:382] pool0 -> pool0
I0428 19:53:07.688236 27697 net.cpp:124] Setting up pool0
I0428 19:53:07.688244 27697 net.cpp:131] Top shape: 64 5 12 12 (46080)
I0428 19:53:07.688247 27697 net.cpp:139] Memory required for data: 1122560
I0428 19:53:07.688251 27697 layer_factory.hpp:77] Creating layer conv1
I0428 19:53:07.688259 27697 net.cpp:86] Creating Layer conv1
I0428 19:53:07.688262 27697 net.cpp:408] conv1 <- pool0
I0428 19:53:07.688267 27697 net.cpp:382] conv1 -> conv1
I0428 19:53:07.691087 27697 net.cpp:124] Setting up conv1
I0428 19:53:07.691102 27697 net.cpp:131] Top shape: 64 50 8 8 (204800)
I0428 19:53:07.691105 27697 net.cpp:139] Memory required for data: 1941760
I0428 19:53:07.691113 27697 layer_factory.hpp:77] Creating layer pool1
I0428 19:53:07.691120 27697 net.cpp:86] Creating Layer pool1
I0428 19:53:07.691123 27697 net.cpp:408] pool1 <- conv1
I0428 19:53:07.691128 27697 net.cpp:382] pool1 -> pool1
I0428 19:53:07.691169 27697 net.cpp:124] Setting up pool1
I0428 19:53:07.691176 27697 net.cpp:131] Top shape: 64 50 4 4 (51200)
I0428 19:53:07.691179 27697 net.cpp:139] Memory required for data: 2146560
I0428 19:53:07.691181 27697 layer_factory.hpp:77] Creating layer ip1
I0428 19:53:07.691192 27697 net.cpp:86] Creating Layer ip1
I0428 19:53:07.691195 27697 net.cpp:408] ip1 <- pool1
I0428 19:53:07.691200 27697 net.cpp:382] ip1 -> ip1
I0428 19:53:07.691329 27697 net.cpp:124] Setting up ip1
I0428 19:53:07.691335 27697 net.cpp:131] Top shape: 64 10 (640)
I0428 19:53:07.691339 27697 net.cpp:139] Memory required for data: 2149120
I0428 19:53:07.691345 27697 layer_factory.hpp:77] Creating layer relu1
I0428 19:53:07.691350 27697 net.cpp:86] Creating Layer relu1
I0428 19:53:07.691354 27697 net.cpp:408] relu1 <- ip1
I0428 19:53:07.691357 27697 net.cpp:369] relu1 -> ip1 (in-place)
I0428 19:53:07.691509 27697 net.cpp:124] Setting up relu1
I0428 19:53:07.691519 27697 net.cpp:131] Top shape: 64 10 (640)
I0428 19:53:07.691521 27697 net.cpp:139] Memory required for data: 2151680
I0428 19:53:07.691524 27697 layer_factory.hpp:77] Creating layer ip2
I0428 19:53:07.691530 27697 net.cpp:86] Creating Layer ip2
I0428 19:53:07.691534 27697 net.cpp:408] ip2 <- ip1
I0428 19:53:07.691539 27697 net.cpp:382] ip2 -> ip2
I0428 19:53:07.691623 27697 net.cpp:124] Setting up ip2
I0428 19:53:07.691632 27697 net.cpp:131] Top shape: 64 25 (1600)
I0428 19:53:07.691635 27697 net.cpp:139] Memory required for data: 2158080
I0428 19:53:07.691640 27697 layer_factory.hpp:77] Creating layer relu2
I0428 19:53:07.691646 27697 net.cpp:86] Creating Layer relu2
I0428 19:53:07.691649 27697 net.cpp:408] relu2 <- ip2
I0428 19:53:07.691668 27697 net.cpp:369] relu2 -> ip2 (in-place)
I0428 19:53:07.692436 27697 net.cpp:124] Setting up relu2
I0428 19:53:07.692450 27697 net.cpp:131] Top shape: 64 25 (1600)
I0428 19:53:07.692453 27697 net.cpp:139] Memory required for data: 2164480
I0428 19:53:07.692456 27697 layer_factory.hpp:77] Creating layer ip3
I0428 19:53:07.692463 27697 net.cpp:86] Creating Layer ip3
I0428 19:53:07.692467 27697 net.cpp:408] ip3 <- ip2
I0428 19:53:07.692472 27697 net.cpp:382] ip3 -> ip3
I0428 19:53:07.692564 27697 net.cpp:124] Setting up ip3
I0428 19:53:07.692572 27697 net.cpp:131] Top shape: 64 10 (640)
I0428 19:53:07.692575 27697 net.cpp:139] Memory required for data: 2167040
I0428 19:53:07.692584 27697 layer_factory.hpp:77] Creating layer relu3
I0428 19:53:07.692587 27697 net.cpp:86] Creating Layer relu3
I0428 19:53:07.692590 27697 net.cpp:408] relu3 <- ip3
I0428 19:53:07.692595 27697 net.cpp:369] relu3 -> ip3 (in-place)
I0428 19:53:07.692761 27697 net.cpp:124] Setting up relu3
I0428 19:53:07.692770 27697 net.cpp:131] Top shape: 64 10 (640)
I0428 19:53:07.692773 27697 net.cpp:139] Memory required for data: 2169600
I0428 19:53:07.692776 27697 layer_factory.hpp:77] Creating layer loss
I0428 19:53:07.692782 27697 net.cpp:86] Creating Layer loss
I0428 19:53:07.692785 27697 net.cpp:408] loss <- ip3
I0428 19:53:07.692788 27697 net.cpp:408] loss <- label
I0428 19:53:07.692793 27697 net.cpp:382] loss -> loss
I0428 19:53:07.692831 27697 layer_factory.hpp:77] Creating layer loss
…
I0428 19:53:07.693617 27697 solver.cpp:173] Creating test net (#0) specified by net file: ECE595/mnist/train_test/var_everything2/lenet_train_test679.prototxt
I0428 19:53:07.693645 27697 net.cpp:296] The NetState phase (1) differed from the phase (0) specified by a rule in layer mnist
I0428 19:53:07.693732 27697 net.cpp:53] Initializing net from parameters: 
name: "LeNet"
state {
  phase: TEST
}
layer {
  name: "mnist"
  type: "Data"
  top: "data"
  top: "label"
  include {
    phase: TEST
  }
  transform_param {
    scale: 0.00390625
  }
  data_param {
    source: "examples/mnist/mnist_test_lmdb"
    batch_size: 100
    backend: LMDB
  }
}
layer {
  name: "conv0"
  type: "Convolution"
  bottom: "data"
  top: "conv0"
  param {
    lr_mult: 1
  }
  param {
    lr_mult: 2
  }
  convolution_param {
    num_output: 5
    kernel_size: 5
    stride: 1
    weight_filler {
      type: "xavier"
    }
    bias_filler {
      type: "constant"
    }
  }
}
layer {
  name: "pool0"
  type: "Pooling"
  bottom: "conv0"
  top: "pool0"
  pooling_param {
    pool: MAX
    kernel_size: 2
    stride: 2
  }
}
layer {
  name: "conv1"
  type: "Convolution"
  bottom: "pool0"
  top: "conv1"
  param {
    lr_mult: 1
  }
  param {
    lr_mult: 2
  }
  convolution_param {
    num_output: 50
    kernel_size: 5
    stride: 1
    weight_filler {
      type: "xavier"
    }
    bias_filler {
      type: "constant"
    }
  }
}
layer {
  name: "pool1"
  type: "Pooling"
  bottom: "conv1"
  top: "pool1"
  pooling_param {
    pool: MAX
    kernel_size: 2
    stride: 2
  }
}
layer {
  name: "ip1"
  type: "InnerProduct"
  bottom: "pool1"
  top: "ip1"
  param {
    lr_mult: 1
  }
  param {
    lr_mult: 2
  }
  inner_product_param {
    num_output: 10
    weight_filler {
      type: "xavier"
    }
    bias_filler {
      type: "constant"
    }
  }
}
layer {
  name: "relu1"
  type: "ReLU"
  bottom: "ip1"
  top: "ip1"
}
layer {
  name: "ip2"
  type: "InnerProduct"
  bottom: "ip1"
  top: "ip2"
  param {
    lr_mult: 1
  }
  param {
    lr_mult: 2
  }
  inner_product_param {
    num_output: 25
    weight_filler {
      type: "xavier"
    }
    bias_filler {
      type: "constant"
    }
  }
}
layer {
  name: "relu2"
  type: "ReLU"
  bottom: "ip2"
  top: "ip2"
}
layer {
  name: "ip3"
  type: "InnerProduct"
  bottom: "ip2"
  top: "ip3"
  param {
    lr_mult: 1
  }
  param {
    lr_mult: 2
  }
  inner_product_param {
    num_output: 10
    weight_filler {
      type: "xavier"
    }
    bias_filler {
      type: "constant"
    }
  }
}
layer {
  name: "relu3"
  type: "ReLU"
  bottom: "ip3"
  top: "ip3"
}
layer {
  name: "accuracy"
  type: "Accuracy"
  bottom: "ip3"
  bottom: "label"
  top: "accuracy"
  include {
    phase: TEST
  }
}
layer {
  name: "loss"
  type: "SoftmaxWithLoss"
  bottom: "ip3"
  bottom: "label"
  top: "loss"
}
I0428 19:53:07.693806 27697 layer_factory.hpp:77] Creating layer mnist
I0428 19:53:07.693850 27697 db_lmdb.cpp:35] Opened lmdb examples/mnist/mnist_test_lmdb
I0428 19:53:07.693861 27697 net.cpp:86] Creating Layer mnist
I0428 19:53:07.693866 27697 net.cpp:382] mnist -> data
I0428 19:53:07.693872 27697 net.cpp:382] mnist -> label
I0428 19:53:07.693970 27697 data_layer.cpp:45] output data size: 100,1,28,28
I0428 19:53:07.696045 27697 net.cpp:124] Setting up mnist
I0428 19:53:07.696059 27697 net.cpp:131] Top shape: 100 1 28 28 (78400)
I0428 19:53:07.696079 27697 net.cpp:131] Top shape: 100 (100)
I0428 19:53:07.696082 27697 net.cpp:139] Memory required for data: 314000
I0428 19:53:07.696086 27697 layer_factory.hpp:77] Creating layer label_mnist_1_split
I0428 19:53:07.696106 27697 net.cpp:86] Creating Layer label_mnist_1_split
I0428 19:53:07.696111 27697 net.cpp:408] label_mnist_1_split <- label
I0428 19:53:07.696132 27697 net.cpp:382] label_mnist_1_split -> label_mnist_1_split_0
I0428 19:53:07.696140 27697 net.cpp:382] label_mnist_1_split -> label_mnist_1_split_1
I0428 19:53:07.696229 27697 net.cpp:124] Setting up label_mnist_1_split
I0428 19:53:07.696238 27697 net.cpp:131] Top shape: 100 (100)
I0428 19:53:07.696241 27697 net.cpp:131] Top shape: 100 (100)
I0428 19:53:07.696244 27697 net.cpp:139] Memory required for data: 314800
I0428 19:53:07.696247 27697 layer_factory.hpp:77] Creating layer conv0
I0428 19:53:07.696255 27697 net.cpp:86] Creating Layer conv0
I0428 19:53:07.696260 27697 net.cpp:408] conv0 <- data
I0428 19:53:07.696265 27697 net.cpp:382] conv0 -> conv0
I0428 19:53:07.697916 27697 net.cpp:124] Setting up conv0
I0428 19:53:07.697928 27697 net.cpp:131] Top shape: 100 5 24 24 (288000)
I0428 19:53:07.697932 27697 net.cpp:139] Memory required for data: 1466800
I0428 19:53:07.697940 27697 layer_factory.hpp:77] Creating layer pool0
I0428 19:53:07.697947 27697 net.cpp:86] Creating Layer pool0
I0428 19:53:07.697949 27697 net.cpp:408] pool0 <- conv0
I0428 19:53:07.697954 27697 net.cpp:382] pool0 -> pool0
I0428 19:53:07.698004 27697 net.cpp:124] Setting up pool0
I0428 19:53:07.698011 27697 net.cpp:131] Top shape: 100 5 12 12 (72000)
I0428 19:53:07.698014 27697 net.cpp:139] Memory required for data: 1754800
I0428 19:53:07.698017 27697 layer_factory.hpp:77] Creating layer conv1
I0428 19:53:07.698025 27697 net.cpp:86] Creating Layer conv1
I0428 19:53:07.698029 27697 net.cpp:408] conv1 <- pool0
I0428 19:53:07.698035 27697 net.cpp:382] conv1 -> conv1
I0428 19:53:07.699467 27697 net.cpp:124] Setting up conv1
I0428 19:53:07.699481 27697 net.cpp:131] Top shape: 100 50 8 8 (320000)
I0428 19:53:07.699483 27697 net.cpp:139] Memory required for data: 3034800
I0428 19:53:07.699492 27697 layer_factory.hpp:77] Creating layer pool1
I0428 19:53:07.699498 27697 net.cpp:86] Creating Layer pool1
I0428 19:53:07.699502 27697 net.cpp:408] pool1 <- conv1
I0428 19:53:07.699507 27697 net.cpp:382] pool1 -> pool1
I0428 19:53:07.699544 27697 net.cpp:124] Setting up pool1
I0428 19:53:07.699551 27697 net.cpp:131] Top shape: 100 50 4 4 (80000)
I0428 19:53:07.699555 27697 net.cpp:139] Memory required for data: 3354800
I0428 19:53:07.699560 27697 layer_factory.hpp:77] Creating layer ip1
I0428 19:53:07.699569 27697 net.cpp:86] Creating Layer ip1
I0428 19:53:07.699574 27697 net.cpp:408] ip1 <- pool1
I0428 19:53:07.699582 27697 net.cpp:382] ip1 -> ip1
I0428 19:53:07.699733 27697 net.cpp:124] Setting up ip1
I0428 19:53:07.699743 27697 net.cpp:131] Top shape: 100 10 (1000)
I0428 19:53:07.699759 27697 net.cpp:139] Memory required for data: 3358800
I0428 19:53:07.699767 27697 layer_factory.hpp:77] Creating layer relu1
I0428 19:53:07.699772 27697 net.cpp:86] Creating Layer relu1
I0428 19:53:07.699776 27697 net.cpp:408] relu1 <- ip1
I0428 19:53:07.699780 27697 net.cpp:369] relu1 -> ip1 (in-place)
I0428 19:53:07.699965 27697 net.cpp:124] Setting up relu1
I0428 19:53:07.699977 27697 net.cpp:131] Top shape: 100 10 (1000)
I0428 19:53:07.699980 27697 net.cpp:139] Memory required for data: 3362800
I0428 19:53:07.699985 27697 layer_factory.hpp:77] Creating layer ip2
I0428 19:53:07.699991 27697 net.cpp:86] Creating Layer ip2
I0428 19:53:07.699995 27697 net.cpp:408] ip2 <- ip1
I0428 19:53:07.700000 27697 net.cpp:382] ip2 -> ip2
I0428 19:53:07.700098 27697 net.cpp:124] Setting up ip2
I0428 19:53:07.700106 27697 net.cpp:131] Top shape: 100 25 (2500)
I0428 19:53:07.700117 27697 net.cpp:139] Memory required for data: 3372800
I0428 19:53:07.700122 27697 layer_factory.hpp:77] Creating layer relu2
I0428 19:53:07.700127 27697 net.cpp:86] Creating Layer relu2
I0428 19:53:07.700130 27697 net.cpp:408] relu2 <- ip2
I0428 19:53:07.700134 27697 net.cpp:369] relu2 -> ip2 (in-place)
I0428 19:53:07.700290 27697 net.cpp:124] Setting up relu2
I0428 19:53:07.700299 27697 net.cpp:131] Top shape: 100 25 (2500)
I0428 19:53:07.700302 27697 net.cpp:139] Memory required for data: 3382800
I0428 19:53:07.700305 27697 layer_factory.hpp:77] Creating layer ip3
I0428 19:53:07.700310 27697 net.cpp:86] Creating Layer ip3
I0428 19:53:07.700314 27697 net.cpp:408] ip3 <- ip2
I0428 19:53:07.700317 27697 net.cpp:382] ip3 -> ip3
I0428 19:53:07.700431 27697 net.cpp:124] Setting up ip3
I0428 19:53:07.700439 27697 net.cpp:131] Top shape: 100 10 (1000)
I0428 19:53:07.700443 27697 net.cpp:139] Memory required for data: 3386800
I0428 19:53:07.700450 27697 layer_factory.hpp:77] Creating layer relu3
I0428 19:53:07.700458 27697 net.cpp:86] Creating Layer relu3
I0428 19:53:07.700464 27697 net.cpp:408] relu3 <- ip3
I0428 19:53:07.700469 27697 net.cpp:369] relu3 -> ip3 (in-place)
I0428 19:53:07.701349 27697 net.cpp:124] Setting up relu3
I0428 19:53:07.701382 27697 net.cpp:131] Top shape: 100 10 (1000)
I0428 19:53:07.701386 27697 net.cpp:139] Memory required for data: 3390800
I0428 19:53:07.701390 27697 layer_factory.hpp:77] Creating layer ip3_relu3_0_split
I0428 19:53:07.701395 27697 net.cpp:86] Creating Layer ip3_relu3_0_split
I0428 19:53:07.701398 27697 net.cpp:408] ip3_relu3_0_split <- ip3
I0428 19:53:07.701403 27697 net.cpp:382] ip3_relu3_0_split -> ip3_relu3_0_split_0
I0428 19:53:07.701409 27697 net.cpp:382] ip3_relu3_0_split -> ip3_relu3_0_split_1
I0428 19:53:07.701454 27697 net.cpp:124] Setting up ip3_relu3_0_split
I0428 19:53:07.701462 27697 net.cpp:131] Top shape: 100 10 (1000)
I0428 19:53:07.701465 27697 net.cpp:131] Top shape: 100 10 (1000)
I0428 19:53:07.701467 27697 net.cpp:139] Memory required for data: 3398800
I0428 19:53:07.701470 27697 layer_factory.hpp:77] Creating layer accuracy
I0428 19:53:07.701477 27697 net.cpp:86] Creating Layer accuracy
I0428 19:53:07.701479 27697 net.cpp:408] accuracy <- ip3_relu3_0_split_0
I0428 19:53:07.701484 27697 net.cpp:408] accuracy <- label_mnist_1_split_0
I0428 19:53:07.701488 27697 net.cpp:382] accuracy -> accuracy
…
