…
I0428 19:42:49.200580 25196 net.cpp:296] The NetState phase (0) differed from the phase (1) specified by a rule in layer mnist
I0428 19:42:49.200599 25196 net.cpp:296] The NetState phase (0) differed from the phase (1) specified by a rule in layer accuracy
I0428 19:42:49.200703 25196 net.cpp:53] Initializing net from parameters: 
name: "LeNet"
state {
  phase: TRAIN
  level: 0
  stage: ""
}
layer {
  name: "mnist"
  type: "Data"
  top: "data"
  top: "label"
  include {
    phase: TRAIN
  }
  transform_param {
    scale: 0.00390625
  }
  data_param {
    source: "examples/mnist/mnist_train_lmdb"
    batch_size: 64
    backend: LMDB
  }
}
layer {
  name: "conv0"
  type: "Convolution"
  bottom: "data"
  top: "conv0"
  param {
    lr_mult: 1
  }
  param {
    lr_mult: 2
  }
  convolution_param {
    num_output: 2
    kernel_size: 5
    stride: 1
    weight_filler {
      type: "xavier"
    }
    bias_filler {
      type: "constant"
    }
  }
}
layer {
  name: "pool0"
  type: "Pooling"
  bottom: "conv0"
  top: "pool0"
  pooling_param {
    pool: MAX
    kernel_size: 2
    stride: 2
  }
}
layer {
  name: "conv1"
  type: "Convolution"
  bottom: "pool0"
  top: "conv1"
  param {
    lr_mult: 1
  }
  param {
    lr_mult: 2
  }
  convolution_param {
    num_output: 25
    kernel_size: 5
    stride: 1
    weight_filler {
      type: "xavier"
    }
    bias_filler {
      type: "constant"
    }
  }
}
layer {
  name: "pool1"
  type: "Pooling"
  bottom: "conv1"
  top: "pool1"
  pooling_param {
    pool: MAX
    kernel_size: 2
    stride: 2
  }
}
layer {
  name: "ip1"
  type: "InnerProduct"
  bottom: "pool1"
  top: "ip1"
  param {
    lr_mult: 1
  }
  param {
    lr_mult: 2
  }
  inner_product_param {
    num_output: 10
    weight_filler {
      type: "xavier"
    }
    bias_filler {
      type: "constant"
    }
  }
}
layer {
  name: "relu1"
  type: "ReLU"
  bottom: "ip1"
  top: "ip1"
}
layer {
  name: "ip2"
  type: "InnerProduct"
  bottom: "ip1"
  top: "ip2"
  param {
    lr_mult: 1
  }
  param {
    lr_mult: 2
  }
  inner_product_param {
    num_output: 10
    weight_filler {
      type: "xavier"
    }
    bias_filler {
      type: "constant"
    }
  }
}
layer {
  name: "relu2"
  type: "ReLU"
  bottom: "ip2"
  top: "ip2"
}
layer {
  name: "ip3"
  type: "InnerProduct"
  bottom: "ip2"
  top: "ip3"
  param {
    lr_mult: 1
  }
  param {
    lr_mult: 2
  }
  inner_product_param {
    num_output: 10
    weight_filler {
      type: "xavier"
    }
    bias_filler {
      type: "constant"
    }
  }
}
layer {
  name: "relu3"
  type: "ReLU"
  bottom: "ip3"
  top: "ip3"
}
layer {
  name: "loss"
  type: "SoftmaxWithLoss"
  bottom: "ip3"
  bottom: "label"
  top: "loss"
}
I0428 19:42:49.200783 25196 layer_factory.hpp:77] Creating layer mnist
I0428 19:42:49.200891 25196 db_lmdb.cpp:35] Opened lmdb examples/mnist/mnist_train_lmdb
I0428 19:42:49.200917 25196 net.cpp:86] Creating Layer mnist
I0428 19:42:49.200925 25196 net.cpp:382] mnist -> data
I0428 19:42:49.200948 25196 net.cpp:382] mnist -> label
I0428 19:42:49.202050 25196 data_layer.cpp:45] output data size: 64,1,28,28
I0428 19:42:49.204488 25196 net.cpp:124] Setting up mnist
I0428 19:42:49.204506 25196 net.cpp:131] Top shape: 64 1 28 28 (50176)
I0428 19:42:49.204514 25196 net.cpp:131] Top shape: 64 (64)
I0428 19:42:49.204517 25196 net.cpp:139] Memory required for data: 200960
I0428 19:42:49.204524 25196 layer_factory.hpp:77] Creating layer conv0
I0428 19:42:49.204540 25196 net.cpp:86] Creating Layer conv0
I0428 19:42:49.204560 25196 net.cpp:408] conv0 <- data
I0428 19:42:49.204574 25196 net.cpp:382] conv0 -> conv0
I0428 19:42:49.487622 25196 net.cpp:124] Setting up conv0
I0428 19:42:49.487649 25196 net.cpp:131] Top shape: 64 2 24 24 (73728)
I0428 19:42:49.487653 25196 net.cpp:139] Memory required for data: 495872
I0428 19:42:49.487670 25196 layer_factory.hpp:77] Creating layer pool0
I0428 19:42:49.487684 25196 net.cpp:86] Creating Layer pool0
I0428 19:42:49.487689 25196 net.cpp:408] pool0 <- conv0
I0428 19:42:49.487695 25196 net.cpp:382] pool0 -> pool0
I0428 19:42:49.487743 25196 net.cpp:124] Setting up pool0
I0428 19:42:49.487749 25196 net.cpp:131] Top shape: 64 2 12 12 (18432)
I0428 19:42:49.487752 25196 net.cpp:139] Memory required for data: 569600
I0428 19:42:49.487756 25196 layer_factory.hpp:77] Creating layer conv1
I0428 19:42:49.487768 25196 net.cpp:86] Creating Layer conv1
I0428 19:42:49.487771 25196 net.cpp:408] conv1 <- pool0
I0428 19:42:49.487777 25196 net.cpp:382] conv1 -> conv1
I0428 19:42:49.490500 25196 net.cpp:124] Setting up conv1
I0428 19:42:49.490515 25196 net.cpp:131] Top shape: 64 25 8 8 (102400)
I0428 19:42:49.490520 25196 net.cpp:139] Memory required for data: 979200
I0428 19:42:49.490530 25196 layer_factory.hpp:77] Creating layer pool1
I0428 19:42:49.490537 25196 net.cpp:86] Creating Layer pool1
I0428 19:42:49.490541 25196 net.cpp:408] pool1 <- conv1
I0428 19:42:49.490546 25196 net.cpp:382] pool1 -> pool1
I0428 19:42:49.490583 25196 net.cpp:124] Setting up pool1
I0428 19:42:49.490589 25196 net.cpp:131] Top shape: 64 25 4 4 (25600)
I0428 19:42:49.490592 25196 net.cpp:139] Memory required for data: 1081600
I0428 19:42:49.490595 25196 layer_factory.hpp:77] Creating layer ip1
I0428 19:42:49.490603 25196 net.cpp:86] Creating Layer ip1
I0428 19:42:49.490607 25196 net.cpp:408] ip1 <- pool1
I0428 19:42:49.490612 25196 net.cpp:382] ip1 -> ip1
I0428 19:42:49.490736 25196 net.cpp:124] Setting up ip1
I0428 19:42:49.490744 25196 net.cpp:131] Top shape: 64 10 (640)
I0428 19:42:49.490748 25196 net.cpp:139] Memory required for data: 1084160
I0428 19:42:49.490756 25196 layer_factory.hpp:77] Creating layer relu1
I0428 19:42:49.490761 25196 net.cpp:86] Creating Layer relu1
I0428 19:42:49.490764 25196 net.cpp:408] relu1 <- ip1
I0428 19:42:49.490769 25196 net.cpp:369] relu1 -> ip1 (in-place)
I0428 19:42:49.490933 25196 net.cpp:124] Setting up relu1
I0428 19:42:49.490942 25196 net.cpp:131] Top shape: 64 10 (640)
I0428 19:42:49.490945 25196 net.cpp:139] Memory required for data: 1086720
I0428 19:42:49.490948 25196 layer_factory.hpp:77] Creating layer ip2
I0428 19:42:49.490955 25196 net.cpp:86] Creating Layer ip2
I0428 19:42:49.490958 25196 net.cpp:408] ip2 <- ip1
I0428 19:42:49.490963 25196 net.cpp:382] ip2 -> ip2
I0428 19:42:49.491057 25196 net.cpp:124] Setting up ip2
I0428 19:42:49.491065 25196 net.cpp:131] Top shape: 64 10 (640)
I0428 19:42:49.491067 25196 net.cpp:139] Memory required for data: 1089280
I0428 19:42:49.491073 25196 layer_factory.hpp:77] Creating layer relu2
I0428 19:42:49.491080 25196 net.cpp:86] Creating Layer relu2
I0428 19:42:49.491082 25196 net.cpp:408] relu2 <- ip2
I0428 19:42:49.491087 25196 net.cpp:369] relu2 -> ip2 (in-place)
I0428 19:42:49.491809 25196 net.cpp:124] Setting up relu2
I0428 19:42:49.491822 25196 net.cpp:131] Top shape: 64 10 (640)
I0428 19:42:49.491825 25196 net.cpp:139] Memory required for data: 1091840
I0428 19:42:49.491828 25196 layer_factory.hpp:77] Creating layer ip3
I0428 19:42:49.491837 25196 net.cpp:86] Creating Layer ip3
I0428 19:42:49.491839 25196 net.cpp:408] ip3 <- ip2
I0428 19:42:49.491845 25196 net.cpp:382] ip3 -> ip3
I0428 19:42:49.491942 25196 net.cpp:124] Setting up ip3
I0428 19:42:49.491950 25196 net.cpp:131] Top shape: 64 10 (640)
I0428 19:42:49.491953 25196 net.cpp:139] Memory required for data: 1094400
I0428 19:42:49.491963 25196 layer_factory.hpp:77] Creating layer relu3
I0428 19:42:49.491968 25196 net.cpp:86] Creating Layer relu3
I0428 19:42:49.491971 25196 net.cpp:408] relu3 <- ip3
I0428 19:42:49.491976 25196 net.cpp:369] relu3 -> ip3 (in-place)
I0428 19:42:49.492141 25196 net.cpp:124] Setting up relu3
I0428 19:42:49.492151 25196 net.cpp:131] Top shape: 64 10 (640)
I0428 19:42:49.492154 25196 net.cpp:139] Memory required for data: 1096960
I0428 19:42:49.492157 25196 layer_factory.hpp:77] Creating layer loss
I0428 19:42:49.492164 25196 net.cpp:86] Creating Layer loss
I0428 19:42:49.492167 25196 net.cpp:408] loss <- ip3
I0428 19:42:49.492172 25196 net.cpp:408] loss <- label
I0428 19:42:49.492177 25196 net.cpp:382] loss -> loss
I0428 19:42:49.492192 25196 layer_factory.hpp:77] Creating layer loss
…
I0428 19:42:49.492835 25196 solver.cpp:173] Creating test net (#0) specified by net file: ECE595/mnist/train_test/var_everything2/lenet_train_test404.prototxt
I0428 19:42:49.492862 25196 net.cpp:296] The NetState phase (1) differed from the phase (0) specified by a rule in layer mnist
I0428 19:42:49.492954 25196 net.cpp:53] Initializing net from parameters: 
name: "LeNet"
state {
  phase: TEST
}
layer {
  name: "mnist"
  type: "Data"
  top: "data"
  top: "label"
  include {
    phase: TEST
  }
  transform_param {
    scale: 0.00390625
  }
  data_param {
    source: "examples/mnist/mnist_test_lmdb"
    batch_size: 100
    backend: LMDB
  }
}
layer {
  name: "conv0"
  type: "Convolution"
  bottom: "data"
  top: "conv0"
  param {
    lr_mult: 1
  }
  param {
    lr_mult: 2
  }
  convolution_param {
    num_output: 2
    kernel_size: 5
    stride: 1
    weight_filler {
      type: "xavier"
    }
    bias_filler {
      type: "constant"
    }
  }
}
layer {
  name: "pool0"
  type: "Pooling"
  bottom: "conv0"
  top: "pool0"
  pooling_param {
    pool: MAX
    kernel_size: 2
    stride: 2
  }
}
layer {
  name: "conv1"
  type: "Convolution"
  bottom: "pool0"
  top: "conv1"
  param {
    lr_mult: 1
  }
  param {
    lr_mult: 2
  }
  convolution_param {
    num_output: 25
    kernel_size: 5
    stride: 1
    weight_filler {
      type: "xavier"
    }
    bias_filler {
      type: "constant"
    }
  }
}
layer {
  name: "pool1"
  type: "Pooling"
  bottom: "conv1"
  top: "pool1"
  pooling_param {
    pool: MAX
    kernel_size: 2
    stride: 2
  }
}
layer {
  name: "ip1"
  type: "InnerProduct"
  bottom: "pool1"
  top: "ip1"
  param {
    lr_mult: 1
  }
  param {
    lr_mult: 2
  }
  inner_product_param {
    num_output: 10
    weight_filler {
      type: "xavier"
    }
    bias_filler {
      type: "constant"
    }
  }
}
layer {
  name: "relu1"
  type: "ReLU"
  bottom: "ip1"
  top: "ip1"
}
layer {
  name: "ip2"
  type: "InnerProduct"
  bottom: "ip1"
  top: "ip2"
  param {
    lr_mult: 1
  }
  param {
    lr_mult: 2
  }
  inner_product_param {
    num_output: 10
    weight_filler {
      type: "xavier"
    }
    bias_filler {
      type: "constant"
    }
  }
}
layer {
  name: "relu2"
  type: "ReLU"
  bottom: "ip2"
  top: "ip2"
}
layer {
  name: "ip3"
  type: "InnerProduct"
  bottom: "ip2"
  top: "ip3"
  param {
    lr_mult: 1
  }
  param {
    lr_mult: 2
  }
  inner_product_param {
    num_output: 10
    weight_filler {
      type: "xavier"
    }
    bias_filler {
      type: "constant"
    }
  }
}
layer {
  name: "relu3"
  type: "ReLU"
  bottom: "ip3"
  top: "ip3"
}
layer {
  name: "accuracy"
  type: "Accuracy"
  bottom: "ip3"
  bottom: "label"
  top: "accuracy"
  include {
    phase: TEST
  }
}
layer {
  name: "loss"
  type: "SoftmaxWithLoss"
  bottom: "ip3"
  bottom: "label"
  top: "loss"
}
I0428 19:42:49.493050 25196 layer_factory.hpp:77] Creating layer mnist
I0428 19:42:49.493111 25196 db_lmdb.cpp:35] Opened lmdb examples/mnist/mnist_test_lmdb
I0428 19:42:49.493124 25196 net.cpp:86] Creating Layer mnist
I0428 19:42:49.493129 25196 net.cpp:382] mnist -> data
I0428 19:42:49.493137 25196 net.cpp:382] mnist -> label
I0428 19:42:49.493222 25196 data_layer.cpp:45] output data size: 100,1,28,28
I0428 19:42:49.495110 25196 net.cpp:124] Setting up mnist
I0428 19:42:49.495123 25196 net.cpp:131] Top shape: 100 1 28 28 (78400)
I0428 19:42:49.495128 25196 net.cpp:131] Top shape: 100 (100)
I0428 19:42:49.495132 25196 net.cpp:139] Memory required for data: 314000
I0428 19:42:49.495136 25196 layer_factory.hpp:77] Creating layer label_mnist_1_split
I0428 19:42:49.495142 25196 net.cpp:86] Creating Layer label_mnist_1_split
I0428 19:42:49.495146 25196 net.cpp:408] label_mnist_1_split <- label
I0428 19:42:49.495151 25196 net.cpp:382] label_mnist_1_split -> label_mnist_1_split_0
I0428 19:42:49.495158 25196 net.cpp:382] label_mnist_1_split -> label_mnist_1_split_1
I0428 19:42:49.495231 25196 net.cpp:124] Setting up label_mnist_1_split
I0428 19:42:49.495244 25196 net.cpp:131] Top shape: 100 (100)
I0428 19:42:49.495247 25196 net.cpp:131] Top shape: 100 (100)
I0428 19:42:49.495250 25196 net.cpp:139] Memory required for data: 314800
I0428 19:42:49.495254 25196 layer_factory.hpp:77] Creating layer conv0
I0428 19:42:49.495263 25196 net.cpp:86] Creating Layer conv0
I0428 19:42:49.495267 25196 net.cpp:408] conv0 <- data
I0428 19:42:49.495272 25196 net.cpp:382] conv0 -> conv0
I0428 19:42:49.496762 25196 net.cpp:124] Setting up conv0
I0428 19:42:49.496788 25196 net.cpp:131] Top shape: 100 2 24 24 (115200)
I0428 19:42:49.496793 25196 net.cpp:139] Memory required for data: 775600
I0428 19:42:49.496801 25196 layer_factory.hpp:77] Creating layer pool0
I0428 19:42:49.496809 25196 net.cpp:86] Creating Layer pool0
I0428 19:42:49.496817 25196 net.cpp:408] pool0 <- conv0
I0428 19:42:49.496840 25196 net.cpp:382] pool0 -> pool0
I0428 19:42:49.496904 25196 net.cpp:124] Setting up pool0
I0428 19:42:49.496912 25196 net.cpp:131] Top shape: 100 2 12 12 (28800)
I0428 19:42:49.496915 25196 net.cpp:139] Memory required for data: 890800
I0428 19:42:49.496920 25196 layer_factory.hpp:77] Creating layer conv1
I0428 19:42:49.496930 25196 net.cpp:86] Creating Layer conv1
I0428 19:42:49.496934 25196 net.cpp:408] conv1 <- pool0
I0428 19:42:49.496939 25196 net.cpp:382] conv1 -> conv1
I0428 19:42:49.498432 25196 net.cpp:124] Setting up conv1
I0428 19:42:49.498446 25196 net.cpp:131] Top shape: 100 25 8 8 (160000)
I0428 19:42:49.498450 25196 net.cpp:139] Memory required for data: 1530800
I0428 19:42:49.498459 25196 layer_factory.hpp:77] Creating layer pool1
I0428 19:42:49.498466 25196 net.cpp:86] Creating Layer pool1
I0428 19:42:49.498471 25196 net.cpp:408] pool1 <- conv1
I0428 19:42:49.498476 25196 net.cpp:382] pool1 -> pool1
I0428 19:42:49.498514 25196 net.cpp:124] Setting up pool1
I0428 19:42:49.498519 25196 net.cpp:131] Top shape: 100 25 4 4 (40000)
I0428 19:42:49.498523 25196 net.cpp:139] Memory required for data: 1690800
I0428 19:42:49.498527 25196 layer_factory.hpp:77] Creating layer ip1
I0428 19:42:49.498533 25196 net.cpp:86] Creating Layer ip1
I0428 19:42:49.498538 25196 net.cpp:408] ip1 <- pool1
I0428 19:42:49.498543 25196 net.cpp:382] ip1 -> ip1
I0428 19:42:49.498677 25196 net.cpp:124] Setting up ip1
I0428 19:42:49.498685 25196 net.cpp:131] Top shape: 100 10 (1000)
I0428 19:42:49.498700 25196 net.cpp:139] Memory required for data: 1694800
I0428 19:42:49.498709 25196 layer_factory.hpp:77] Creating layer relu1
I0428 19:42:49.498715 25196 net.cpp:86] Creating Layer relu1
I0428 19:42:49.498718 25196 net.cpp:408] relu1 <- ip1
I0428 19:42:49.498740 25196 net.cpp:369] relu1 -> ip1 (in-place)
I0428 19:42:49.498998 25196 net.cpp:124] Setting up relu1
I0428 19:42:49.499008 25196 net.cpp:131] Top shape: 100 10 (1000)
I0428 19:42:49.499012 25196 net.cpp:139] Memory required for data: 1698800
I0428 19:42:49.499017 25196 layer_factory.hpp:77] Creating layer ip2
I0428 19:42:49.499024 25196 net.cpp:86] Creating Layer ip2
I0428 19:42:49.499028 25196 net.cpp:408] ip2 <- ip1
I0428 19:42:49.499034 25196 net.cpp:382] ip2 -> ip2
I0428 19:42:49.499147 25196 net.cpp:124] Setting up ip2
I0428 19:42:49.499157 25196 net.cpp:131] Top shape: 100 10 (1000)
I0428 19:42:49.499161 25196 net.cpp:139] Memory required for data: 1702800
I0428 19:42:49.499167 25196 layer_factory.hpp:77] Creating layer relu2
I0428 19:42:49.499172 25196 net.cpp:86] Creating Layer relu2
I0428 19:42:49.499176 25196 net.cpp:408] relu2 <- ip2
I0428 19:42:49.499181 25196 net.cpp:369] relu2 -> ip2 (in-place)
I0428 19:42:49.499361 25196 net.cpp:124] Setting up relu2
I0428 19:42:49.499372 25196 net.cpp:131] Top shape: 100 10 (1000)
I0428 19:42:49.499377 25196 net.cpp:139] Memory required for data: 1706800
I0428 19:42:49.499380 25196 layer_factory.hpp:77] Creating layer ip3
I0428 19:42:49.499387 25196 net.cpp:86] Creating Layer ip3
I0428 19:42:49.499392 25196 net.cpp:408] ip3 <- ip2
I0428 19:42:49.499397 25196 net.cpp:382] ip3 -> ip3
I0428 19:42:49.499498 25196 net.cpp:124] Setting up ip3
I0428 19:42:49.499505 25196 net.cpp:131] Top shape: 100 10 (1000)
I0428 19:42:49.499510 25196 net.cpp:139] Memory required for data: 1710800
I0428 19:42:49.499518 25196 layer_factory.hpp:77] Creating layer relu3
I0428 19:42:49.499524 25196 net.cpp:86] Creating Layer relu3
I0428 19:42:49.499527 25196 net.cpp:408] relu3 <- ip3
I0428 19:42:49.499531 25196 net.cpp:369] relu3 -> ip3 (in-place)
I0428 19:42:49.500392 25196 net.cpp:124] Setting up relu3
I0428 19:42:49.500407 25196 net.cpp:131] Top shape: 100 10 (1000)
I0428 19:42:49.500411 25196 net.cpp:139] Memory required for data: 1714800
I0428 19:42:49.500416 25196 layer_factory.hpp:77] Creating layer ip3_relu3_0_split
I0428 19:42:49.500422 25196 net.cpp:86] Creating Layer ip3_relu3_0_split
I0428 19:42:49.500425 25196 net.cpp:408] ip3_relu3_0_split <- ip3
I0428 19:42:49.500430 25196 net.cpp:382] ip3_relu3_0_split -> ip3_relu3_0_split_0
I0428 19:42:49.500437 25196 net.cpp:382] ip3_relu3_0_split -> ip3_relu3_0_split_1
I0428 19:42:49.500478 25196 net.cpp:124] Setting up ip3_relu3_0_split
I0428 19:42:49.500484 25196 net.cpp:131] Top shape: 100 10 (1000)
I0428 19:42:49.500488 25196 net.cpp:131] Top shape: 100 10 (1000)
I0428 19:42:49.500491 25196 net.cpp:139] Memory required for data: 1722800
I0428 19:42:49.500496 25196 layer_factory.hpp:77] Creating layer accuracy
I0428 19:42:49.500501 25196 net.cpp:86] Creating Layer accuracy
I0428 19:42:49.500504 25196 net.cpp:408] accuracy <- ip3_relu3_0_split_0
I0428 19:42:49.500509 25196 net.cpp:408] accuracy <- label_mnist_1_split_0
I0428 19:42:49.500517 25196 net.cpp:382] accuracy -> accuracy
…
