…
I0428 19:58:17.506371 28936 net.cpp:296] The NetState phase (0) differed from the phase (1) specified by a rule in layer mnist
I0428 19:58:17.506400 28936 net.cpp:296] The NetState phase (0) differed from the phase (1) specified by a rule in layer accuracy
I0428 19:58:17.506484 28936 net.cpp:53] Initializing net from parameters: 
name: "LeNet"
state {
  phase: TRAIN
  level: 0
  stage: ""
}
layer {
  name: "mnist"
  type: "Data"
  top: "data"
  top: "label"
  include {
    phase: TRAIN
  }
  transform_param {
    scale: 0.00390625
  }
  data_param {
    source: "examples/mnist/mnist_train_lmdb"
    batch_size: 64
    backend: LMDB
  }
}
layer {
  name: "conv0"
  type: "Convolution"
  bottom: "data"
  top: "conv0"
  param {
    lr_mult: 1
  }
  param {
    lr_mult: 2
  }
  convolution_param {
    num_output: 10
    kernel_size: 5
    stride: 1
    weight_filler {
      type: "xavier"
    }
    bias_filler {
      type: "constant"
    }
  }
}
layer {
  name: "pool0"
  type: "Pooling"
  bottom: "conv0"
  top: "pool0"
  pooling_param {
    pool: MAX
    kernel_size: 2
    stride: 2
  }
}
layer {
  name: "conv1"
  type: "Convolution"
  bottom: "pool0"
  top: "conv1"
  param {
    lr_mult: 1
  }
  param {
    lr_mult: 2
  }
  convolution_param {
    num_output: 5
    kernel_size: 5
    stride: 1
    weight_filler {
      type: "xavier"
    }
    bias_filler {
      type: "constant"
    }
  }
}
layer {
  name: "pool1"
  type: "Pooling"
  bottom: "conv1"
  top: "pool1"
  pooling_param {
    pool: MAX
    kernel_size: 2
    stride: 2
  }
}
layer {
  name: "ip1"
  type: "InnerProduct"
  bottom: "pool1"
  top: "ip1"
  param {
    lr_mult: 1
  }
  param {
    lr_mult: 2
  }
  inner_product_param {
    num_output: 50
    weight_filler {
      type: "xavier"
    }
    bias_filler {
      type: "constant"
    }
  }
}
layer {
  name: "relu1"
  type: "ReLU"
  bottom: "ip1"
  top: "ip1"
}
layer {
  name: "ip2"
  type: "InnerProduct"
  bottom: "ip1"
  top: "ip2"
  param {
    lr_mult: 1
  }
  param {
    lr_mult: 2
  }
  inner_product_param {
    num_output: 25
    weight_filler {
      type: "xavier"
    }
    bias_filler {
      type: "constant"
    }
  }
}
layer {
  name: "relu2"
  type: "ReLU"
  bottom: "ip2"
  top: "ip2"
}
layer {
  name: "ip3"
  type: "InnerProduct"
  bottom: "ip2"
  top: "ip3"
  param {
    lr_mult: 1
  }
  param {
    lr_mult: 2
  }
  inner_product_param {
    num_output: 10
    weight_filler {
      type: "xavier"
    }
    bias_filler {
      type: "constant"
    }
  }
}
layer {
  name: "relu3"
  type: "ReLU"
  bottom: "ip3"
  top: "ip3"
}
layer {
  name: "loss"
  type: "SoftmaxWithLoss"
  bottom: "ip3"
  bottom: "label"
  top: "loss"
}
I0428 19:58:17.506548 28936 layer_factory.hpp:77] Creating layer mnist
I0428 19:58:17.506644 28936 db_lmdb.cpp:35] Opened lmdb examples/mnist/mnist_train_lmdb
I0428 19:58:17.506664 28936 net.cpp:86] Creating Layer mnist
I0428 19:58:17.506670 28936 net.cpp:382] mnist -> data
I0428 19:58:17.506688 28936 net.cpp:382] mnist -> label
I0428 19:58:17.507709 28936 data_layer.cpp:45] output data size: 64,1,28,28
I0428 19:58:17.510241 28936 net.cpp:124] Setting up mnist
I0428 19:58:17.510288 28936 net.cpp:131] Top shape: 64 1 28 28 (50176)
I0428 19:58:17.510293 28936 net.cpp:131] Top shape: 64 (64)
I0428 19:58:17.510296 28936 net.cpp:139] Memory required for data: 200960
I0428 19:58:17.510303 28936 layer_factory.hpp:77] Creating layer conv0
I0428 19:58:17.510320 28936 net.cpp:86] Creating Layer conv0
I0428 19:58:17.510337 28936 net.cpp:408] conv0 <- data
I0428 19:58:17.510349 28936 net.cpp:382] conv0 -> conv0
I0428 19:58:17.734768 28936 net.cpp:124] Setting up conv0
I0428 19:58:17.734825 28936 net.cpp:131] Top shape: 64 10 24 24 (368640)
I0428 19:58:17.734829 28936 net.cpp:139] Memory required for data: 1675520
I0428 19:58:17.734844 28936 layer_factory.hpp:77] Creating layer pool0
I0428 19:58:17.734872 28936 net.cpp:86] Creating Layer pool0
I0428 19:58:17.734876 28936 net.cpp:408] pool0 <- conv0
I0428 19:58:17.734897 28936 net.cpp:382] pool0 -> pool0
I0428 19:58:17.734946 28936 net.cpp:124] Setting up pool0
I0428 19:58:17.734954 28936 net.cpp:131] Top shape: 64 10 12 12 (92160)
I0428 19:58:17.734957 28936 net.cpp:139] Memory required for data: 2044160
I0428 19:58:17.734961 28936 layer_factory.hpp:77] Creating layer conv1
I0428 19:58:17.734972 28936 net.cpp:86] Creating Layer conv1
I0428 19:58:17.734975 28936 net.cpp:408] conv1 <- pool0
I0428 19:58:17.734980 28936 net.cpp:382] conv1 -> conv1
I0428 19:58:17.737707 28936 net.cpp:124] Setting up conv1
I0428 19:58:17.737722 28936 net.cpp:131] Top shape: 64 5 8 8 (20480)
I0428 19:58:17.737726 28936 net.cpp:139] Memory required for data: 2126080
I0428 19:58:17.737735 28936 layer_factory.hpp:77] Creating layer pool1
I0428 19:58:17.737758 28936 net.cpp:86] Creating Layer pool1
I0428 19:58:17.737761 28936 net.cpp:408] pool1 <- conv1
I0428 19:58:17.737767 28936 net.cpp:382] pool1 -> pool1
I0428 19:58:17.737804 28936 net.cpp:124] Setting up pool1
I0428 19:58:17.737810 28936 net.cpp:131] Top shape: 64 5 4 4 (5120)
I0428 19:58:17.737813 28936 net.cpp:139] Memory required for data: 2146560
I0428 19:58:17.737817 28936 layer_factory.hpp:77] Creating layer ip1
I0428 19:58:17.737838 28936 net.cpp:86] Creating Layer ip1
I0428 19:58:17.737841 28936 net.cpp:408] ip1 <- pool1
I0428 19:58:17.737845 28936 net.cpp:382] ip1 -> ip1
I0428 19:58:17.737960 28936 net.cpp:124] Setting up ip1
I0428 19:58:17.737968 28936 net.cpp:131] Top shape: 64 50 (3200)
I0428 19:58:17.737972 28936 net.cpp:139] Memory required for data: 2159360
I0428 19:58:17.737993 28936 layer_factory.hpp:77] Creating layer relu1
I0428 19:58:17.737998 28936 net.cpp:86] Creating Layer relu1
I0428 19:58:17.738001 28936 net.cpp:408] relu1 <- ip1
I0428 19:58:17.738010 28936 net.cpp:369] relu1 -> ip1 (in-place)
I0428 19:58:17.738185 28936 net.cpp:124] Setting up relu1
I0428 19:58:17.738193 28936 net.cpp:131] Top shape: 64 50 (3200)
I0428 19:58:17.738198 28936 net.cpp:139] Memory required for data: 2172160
I0428 19:58:17.738200 28936 layer_factory.hpp:77] Creating layer ip2
I0428 19:58:17.738206 28936 net.cpp:86] Creating Layer ip2
I0428 19:58:17.738209 28936 net.cpp:408] ip2 <- ip1
I0428 19:58:17.738214 28936 net.cpp:382] ip2 -> ip2
I0428 19:58:17.738310 28936 net.cpp:124] Setting up ip2
I0428 19:58:17.738317 28936 net.cpp:131] Top shape: 64 25 (1600)
I0428 19:58:17.738320 28936 net.cpp:139] Memory required for data: 2178560
I0428 19:58:17.738325 28936 layer_factory.hpp:77] Creating layer relu2
I0428 19:58:17.738332 28936 net.cpp:86] Creating Layer relu2
I0428 19:58:17.738334 28936 net.cpp:408] relu2 <- ip2
I0428 19:58:17.738338 28936 net.cpp:369] relu2 -> ip2 (in-place)
I0428 19:58:17.739091 28936 net.cpp:124] Setting up relu2
I0428 19:58:17.739102 28936 net.cpp:131] Top shape: 64 25 (1600)
I0428 19:58:17.739120 28936 net.cpp:139] Memory required for data: 2184960
I0428 19:58:17.739125 28936 layer_factory.hpp:77] Creating layer ip3
I0428 19:58:17.739130 28936 net.cpp:86] Creating Layer ip3
I0428 19:58:17.739135 28936 net.cpp:408] ip3 <- ip2
I0428 19:58:17.739140 28936 net.cpp:382] ip3 -> ip3
I0428 19:58:17.739228 28936 net.cpp:124] Setting up ip3
I0428 19:58:17.739234 28936 net.cpp:131] Top shape: 64 10 (640)
I0428 19:58:17.739238 28936 net.cpp:139] Memory required for data: 2187520
I0428 19:58:17.739245 28936 layer_factory.hpp:77] Creating layer relu3
I0428 19:58:17.739250 28936 net.cpp:86] Creating Layer relu3
I0428 19:58:17.739253 28936 net.cpp:408] relu3 <- ip3
I0428 19:58:17.739256 28936 net.cpp:369] relu3 -> ip3 (in-place)
I0428 19:58:17.739406 28936 net.cpp:124] Setting up relu3
I0428 19:58:17.739414 28936 net.cpp:131] Top shape: 64 10 (640)
I0428 19:58:17.739418 28936 net.cpp:139] Memory required for data: 2190080
I0428 19:58:17.739420 28936 layer_factory.hpp:77] Creating layer loss
I0428 19:58:17.739426 28936 net.cpp:86] Creating Layer loss
I0428 19:58:17.739429 28936 net.cpp:408] loss <- ip3
I0428 19:58:17.739434 28936 net.cpp:408] loss <- label
I0428 19:58:17.739439 28936 net.cpp:382] loss -> loss
I0428 19:58:17.739452 28936 layer_factory.hpp:77] Creating layer loss
…
I0428 19:58:17.740061 28936 solver.cpp:173] Creating test net (#0) specified by net file: ECE595/mnist/train_test/var_everything2/lenet_train_test814.prototxt
I0428 19:58:17.740115 28936 net.cpp:296] The NetState phase (1) differed from the phase (0) specified by a rule in layer mnist
I0428 19:58:17.740197 28936 net.cpp:53] Initializing net from parameters: 
name: "LeNet"
state {
  phase: TEST
}
layer {
  name: "mnist"
  type: "Data"
  top: "data"
  top: "label"
  include {
    phase: TEST
  }
  transform_param {
    scale: 0.00390625
  }
  data_param {
    source: "examples/mnist/mnist_test_lmdb"
    batch_size: 100
    backend: LMDB
  }
}
layer {
  name: "conv0"
  type: "Convolution"
  bottom: "data"
  top: "conv0"
  param {
    lr_mult: 1
  }
  param {
    lr_mult: 2
  }
  convolution_param {
    num_output: 10
    kernel_size: 5
    stride: 1
    weight_filler {
      type: "xavier"
    }
    bias_filler {
      type: "constant"
    }
  }
}
layer {
  name: "pool0"
  type: "Pooling"
  bottom: "conv0"
  top: "pool0"
  pooling_param {
    pool: MAX
    kernel_size: 2
    stride: 2
  }
}
layer {
  name: "conv1"
  type: "Convolution"
  bottom: "pool0"
  top: "conv1"
  param {
    lr_mult: 1
  }
  param {
    lr_mult: 2
  }
  convolution_param {
    num_output: 5
    kernel_size: 5
    stride: 1
    weight_filler {
      type: "xavier"
    }
    bias_filler {
      type: "constant"
    }
  }
}
layer {
  name: "pool1"
  type: "Pooling"
  bottom: "conv1"
  top: "pool1"
  pooling_param {
    pool: MAX
    kernel_size: 2
    stride: 2
  }
}
layer {
  name: "ip1"
  type: "InnerProduct"
  bottom: "pool1"
  top: "ip1"
  param {
    lr_mult: 1
  }
  param {
    lr_mult: 2
  }
  inner_product_param {
    num_output: 50
    weight_filler {
      type: "xavier"
    }
    bias_filler {
      type: "constant"
    }
  }
}
layer {
  name: "relu1"
  type: "ReLU"
  bottom: "ip1"
  top: "ip1"
}
layer {
  name: "ip2"
  type: "InnerProduct"
  bottom: "ip1"
  top: "ip2"
  param {
    lr_mult: 1
  }
  param {
    lr_mult: 2
  }
  inner_product_param {
    num_output: 25
    weight_filler {
      type: "xavier"
    }
    bias_filler {
      type: "constant"
    }
  }
}
layer {
  name: "relu2"
  type: "ReLU"
  bottom: "ip2"
  top: "ip2"
}
layer {
  name: "ip3"
  type: "InnerProduct"
  bottom: "ip2"
  top: "ip3"
  param {
    lr_mult: 1
  }
  param {
    lr_mult: 2
  }
  inner_product_param {
    num_output: 10
    weight_filler {
      type: "xavier"
    }
    bias_filler {
      type: "constant"
    }
  }
}
layer {
  name: "relu3"
  type: "ReLU"
  bottom: "ip3"
  top: "ip3"
}
layer {
  name: "accuracy"
  type: "Accuracy"
  bottom: "ip3"
  bottom: "label"
  top: "accuracy"
  include {
    phase: TEST
  }
}
layer {
  name: "loss"
  type: "SoftmaxWithLoss"
  bottom: "ip3"
  bottom: "label"
  top: "loss"
}
I0428 19:58:17.740270 28936 layer_factory.hpp:77] Creating layer mnist
I0428 19:58:17.740314 28936 db_lmdb.cpp:35] Opened lmdb examples/mnist/mnist_test_lmdb
I0428 19:58:17.740326 28936 net.cpp:86] Creating Layer mnist
I0428 19:58:17.740330 28936 net.cpp:382] mnist -> data
I0428 19:58:17.740337 28936 net.cpp:382] mnist -> label
I0428 19:58:17.740414 28936 data_layer.cpp:45] output data size: 100,1,28,28
I0428 19:58:17.742260 28936 net.cpp:124] Setting up mnist
I0428 19:58:17.742305 28936 net.cpp:131] Top shape: 100 1 28 28 (78400)
I0428 19:58:17.742310 28936 net.cpp:131] Top shape: 100 (100)
I0428 19:58:17.742312 28936 net.cpp:139] Memory required for data: 314000
I0428 19:58:17.742316 28936 layer_factory.hpp:77] Creating layer label_mnist_1_split
I0428 19:58:17.742322 28936 net.cpp:86] Creating Layer label_mnist_1_split
I0428 19:58:17.742326 28936 net.cpp:408] label_mnist_1_split <- label
I0428 19:58:17.742331 28936 net.cpp:382] label_mnist_1_split -> label_mnist_1_split_0
I0428 19:58:17.742337 28936 net.cpp:382] label_mnist_1_split -> label_mnist_1_split_1
I0428 19:58:17.742422 28936 net.cpp:124] Setting up label_mnist_1_split
I0428 19:58:17.742430 28936 net.cpp:131] Top shape: 100 (100)
I0428 19:58:17.742434 28936 net.cpp:131] Top shape: 100 (100)
I0428 19:58:17.742436 28936 net.cpp:139] Memory required for data: 314800
I0428 19:58:17.742439 28936 layer_factory.hpp:77] Creating layer conv0
I0428 19:58:17.742449 28936 net.cpp:86] Creating Layer conv0
I0428 19:58:17.742452 28936 net.cpp:408] conv0 <- data
I0428 19:58:17.742456 28936 net.cpp:382] conv0 -> conv0
I0428 19:58:17.744010 28936 net.cpp:124] Setting up conv0
I0428 19:58:17.744024 28936 net.cpp:131] Top shape: 100 10 24 24 (576000)
I0428 19:58:17.744029 28936 net.cpp:139] Memory required for data: 2618800
I0428 19:58:17.744037 28936 layer_factory.hpp:77] Creating layer pool0
I0428 19:58:17.744043 28936 net.cpp:86] Creating Layer pool0
I0428 19:58:17.744057 28936 net.cpp:408] pool0 <- conv0
I0428 19:58:17.744062 28936 net.cpp:382] pool0 -> pool0
I0428 19:58:17.744134 28936 net.cpp:124] Setting up pool0
I0428 19:58:17.744139 28936 net.cpp:131] Top shape: 100 10 12 12 (144000)
I0428 19:58:17.744143 28936 net.cpp:139] Memory required for data: 3194800
I0428 19:58:17.744145 28936 layer_factory.hpp:77] Creating layer conv1
I0428 19:58:17.744154 28936 net.cpp:86] Creating Layer conv1
I0428 19:58:17.744158 28936 net.cpp:408] conv1 <- pool0
I0428 19:58:17.744163 28936 net.cpp:382] conv1 -> conv1
I0428 19:58:17.746371 28936 net.cpp:124] Setting up conv1
I0428 19:58:17.746383 28936 net.cpp:131] Top shape: 100 5 8 8 (32000)
I0428 19:58:17.746387 28936 net.cpp:139] Memory required for data: 3322800
I0428 19:58:17.746397 28936 layer_factory.hpp:77] Creating layer pool1
I0428 19:58:17.746402 28936 net.cpp:86] Creating Layer pool1
I0428 19:58:17.746407 28936 net.cpp:408] pool1 <- conv1
I0428 19:58:17.746426 28936 net.cpp:382] pool1 -> pool1
I0428 19:58:17.746503 28936 net.cpp:124] Setting up pool1
I0428 19:58:17.746511 28936 net.cpp:131] Top shape: 100 5 4 4 (8000)
I0428 19:58:17.746515 28936 net.cpp:139] Memory required for data: 3354800
I0428 19:58:17.746518 28936 layer_factory.hpp:77] Creating layer ip1
I0428 19:58:17.746525 28936 net.cpp:86] Creating Layer ip1
I0428 19:58:17.746528 28936 net.cpp:408] ip1 <- pool1
I0428 19:58:17.746533 28936 net.cpp:382] ip1 -> ip1
I0428 19:58:17.746670 28936 net.cpp:124] Setting up ip1
I0428 19:58:17.746676 28936 net.cpp:131] Top shape: 100 50 (5000)
I0428 19:58:17.746690 28936 net.cpp:139] Memory required for data: 3374800
I0428 19:58:17.746697 28936 layer_factory.hpp:77] Creating layer relu1
I0428 19:58:17.746702 28936 net.cpp:86] Creating Layer relu1
I0428 19:58:17.746706 28936 net.cpp:408] relu1 <- ip1
I0428 19:58:17.746711 28936 net.cpp:369] relu1 -> ip1 (in-place)
I0428 19:58:17.746870 28936 net.cpp:124] Setting up relu1
I0428 19:58:17.746881 28936 net.cpp:131] Top shape: 100 50 (5000)
I0428 19:58:17.746884 28936 net.cpp:139] Memory required for data: 3394800
I0428 19:58:17.746887 28936 layer_factory.hpp:77] Creating layer ip2
I0428 19:58:17.746894 28936 net.cpp:86] Creating Layer ip2
I0428 19:58:17.746898 28936 net.cpp:408] ip2 <- ip1
I0428 19:58:17.746903 28936 net.cpp:382] ip2 -> ip2
I0428 19:58:17.747015 28936 net.cpp:124] Setting up ip2
I0428 19:58:17.747021 28936 net.cpp:131] Top shape: 100 25 (2500)
I0428 19:58:17.747025 28936 net.cpp:139] Memory required for data: 3404800
I0428 19:58:17.747030 28936 layer_factory.hpp:77] Creating layer relu2
I0428 19:58:17.747035 28936 net.cpp:86] Creating Layer relu2
I0428 19:58:17.747037 28936 net.cpp:408] relu2 <- ip2
I0428 19:58:17.747041 28936 net.cpp:369] relu2 -> ip2 (in-place)
I0428 19:58:17.747256 28936 net.cpp:124] Setting up relu2
I0428 19:58:17.747267 28936 net.cpp:131] Top shape: 100 25 (2500)
I0428 19:58:17.747269 28936 net.cpp:139] Memory required for data: 3414800
I0428 19:58:17.747273 28936 layer_factory.hpp:77] Creating layer ip3
I0428 19:58:17.747278 28936 net.cpp:86] Creating Layer ip3
I0428 19:58:17.747282 28936 net.cpp:408] ip3 <- ip2
I0428 19:58:17.747287 28936 net.cpp:382] ip3 -> ip3
I0428 19:58:17.747395 28936 net.cpp:124] Setting up ip3
I0428 19:58:17.747418 28936 net.cpp:131] Top shape: 100 10 (1000)
I0428 19:58:17.747422 28936 net.cpp:139] Memory required for data: 3418800
I0428 19:58:17.747447 28936 layer_factory.hpp:77] Creating layer relu3
I0428 19:58:17.747452 28936 net.cpp:86] Creating Layer relu3
I0428 19:58:17.747455 28936 net.cpp:408] relu3 <- ip3
I0428 19:58:17.747459 28936 net.cpp:369] relu3 -> ip3 (in-place)
I0428 19:58:17.748312 28936 net.cpp:124] Setting up relu3
I0428 19:58:17.748323 28936 net.cpp:131] Top shape: 100 10 (1000)
I0428 19:58:17.748327 28936 net.cpp:139] Memory required for data: 3422800
I0428 19:58:17.748332 28936 layer_factory.hpp:77] Creating layer ip3_relu3_0_split
I0428 19:58:17.748337 28936 net.cpp:86] Creating Layer ip3_relu3_0_split
I0428 19:58:17.748339 28936 net.cpp:408] ip3_relu3_0_split <- ip3
I0428 19:58:17.748345 28936 net.cpp:382] ip3_relu3_0_split -> ip3_relu3_0_split_0
I0428 19:58:17.748352 28936 net.cpp:382] ip3_relu3_0_split -> ip3_relu3_0_split_1
I0428 19:58:17.748386 28936 net.cpp:124] Setting up ip3_relu3_0_split
I0428 19:58:17.748394 28936 net.cpp:131] Top shape: 100 10 (1000)
I0428 19:58:17.748397 28936 net.cpp:131] Top shape: 100 10 (1000)
I0428 19:58:17.748400 28936 net.cpp:139] Memory required for data: 3430800
I0428 19:58:17.748404 28936 layer_factory.hpp:77] Creating layer accuracy
I0428 19:58:17.748409 28936 net.cpp:86] Creating Layer accuracy
I0428 19:58:17.748412 28936 net.cpp:408] accuracy <- ip3_relu3_0_split_0
I0428 19:58:17.748416 28936 net.cpp:408] accuracy <- label_mnist_1_split_0
I0428 19:58:17.748420 28936 net.cpp:382] accuracy -> accuracy
…
