…
I0428 20:28:11.807906  3316 net.cpp:296] The NetState phase (0) differed from the phase (1) specified by a rule in layer mnist
I0428 20:28:11.807924  3316 net.cpp:296] The NetState phase (0) differed from the phase (1) specified by a rule in layer accuracy
I0428 20:28:11.808007  3316 net.cpp:53] Initializing net from parameters: 
name: "LeNet"
state {
  phase: TRAIN
  level: 0
  stage: ""
}
layer {
  name: "mnist"
  type: "Data"
  top: "data"
  top: "label"
  include {
    phase: TRAIN
  }
  transform_param {
    scale: 0.00390625
  }
  data_param {
    source: "examples/mnist/mnist_train_lmdb"
    batch_size: 64
    backend: LMDB
  }
}
layer {
  name: "conv0"
  type: "Convolution"
  bottom: "data"
  top: "conv0"
  param {
    lr_mult: 1
  }
  param {
    lr_mult: 2
  }
  convolution_param {
    num_output: 100
    kernel_size: 5
    stride: 1
    weight_filler {
      type: "xavier"
    }
    bias_filler {
      type: "constant"
    }
  }
}
layer {
  name: "pool0"
  type: "Pooling"
  bottom: "conv0"
  top: "pool0"
  pooling_param {
    pool: MAX
    kernel_size: 2
    stride: 2
  }
}
layer {
  name: "conv1"
  type: "Convolution"
  bottom: "pool0"
  top: "conv1"
  param {
    lr_mult: 1
  }
  param {
    lr_mult: 2
  }
  convolution_param {
    num_output: 5
    kernel_size: 5
    stride: 1
    weight_filler {
      type: "xavier"
    }
    bias_filler {
      type: "constant"
    }
  }
}
layer {
  name: "pool1"
  type: "Pooling"
  bottom: "conv1"
  top: "pool1"
  pooling_param {
    pool: MAX
    kernel_size: 2
    stride: 2
  }
}
layer {
  name: "ip1"
  type: "InnerProduct"
  bottom: "pool1"
  top: "ip1"
  param {
    lr_mult: 1
  }
  param {
    lr_mult: 2
  }
  inner_product_param {
    num_output: 10
    weight_filler {
      type: "xavier"
    }
    bias_filler {
      type: "constant"
    }
  }
}
layer {
  name: "relu1"
  type: "ReLU"
  bottom: "ip1"
  top: "ip1"
}
layer {
  name: "ip2"
  type: "InnerProduct"
  bottom: "ip1"
  top: "ip2"
  param {
    lr_mult: 1
  }
  param {
    lr_mult: 2
  }
  inner_product_param {
    num_output: 50
    weight_filler {
      type: "xavier"
    }
    bias_filler {
      type: "constant"
    }
  }
}
layer {
  name: "relu2"
  type: "ReLU"
  bottom: "ip2"
  top: "ip2"
}
layer {
  name: "ip3"
  type: "InnerProduct"
  bottom: "ip2"
  top: "ip3"
  param {
    lr_mult: 1
  }
  param {
    lr_mult: 2
  }
  inner_product_param {
    num_output: 10
    weight_filler {
      type: "xavier"
    }
    bias_filler {
      type: "constant"
    }
  }
}
layer {
  name: "relu3"
  type: "ReLU"
  bottom: "ip3"
  top: "ip3"
}
layer {
  name: "loss"
  type: "SoftmaxWithLoss"
  bottom: "ip3"
  bottom: "label"
  top: "loss"
}
I0428 20:28:11.808073  3316 layer_factory.hpp:77] Creating layer mnist
I0428 20:28:11.808156  3316 db_lmdb.cpp:35] Opened lmdb examples/mnist/mnist_train_lmdb
I0428 20:28:11.808176  3316 net.cpp:86] Creating Layer mnist
I0428 20:28:11.808182  3316 net.cpp:382] mnist -> data
I0428 20:28:11.808200  3316 net.cpp:382] mnist -> label
I0428 20:28:11.809206  3316 data_layer.cpp:45] output data size: 64,1,28,28
I0428 20:28:11.811276  3316 net.cpp:124] Setting up mnist
I0428 20:28:11.811291  3316 net.cpp:131] Top shape: 64 1 28 28 (50176)
I0428 20:28:11.811296  3316 net.cpp:131] Top shape: 64 (64)
I0428 20:28:11.811300  3316 net.cpp:139] Memory required for data: 200960
I0428 20:28:11.811305  3316 layer_factory.hpp:77] Creating layer conv0
I0428 20:28:11.811344  3316 net.cpp:86] Creating Layer conv0
I0428 20:28:11.811362  3316 net.cpp:408] conv0 <- data
I0428 20:28:11.811372  3316 net.cpp:382] conv0 -> conv0
I0428 20:28:12.040607  3316 net.cpp:124] Setting up conv0
I0428 20:28:12.040633  3316 net.cpp:131] Top shape: 64 100 24 24 (3686400)
I0428 20:28:12.040637  3316 net.cpp:139] Memory required for data: 14946560
I0428 20:28:12.040652  3316 layer_factory.hpp:77] Creating layer pool0
I0428 20:28:12.040663  3316 net.cpp:86] Creating Layer pool0
I0428 20:28:12.040668  3316 net.cpp:408] pool0 <- conv0
I0428 20:28:12.040673  3316 net.cpp:382] pool0 -> pool0
I0428 20:28:12.040732  3316 net.cpp:124] Setting up pool0
I0428 20:28:12.040737  3316 net.cpp:131] Top shape: 64 100 12 12 (921600)
I0428 20:28:12.040740  3316 net.cpp:139] Memory required for data: 18632960
I0428 20:28:12.040742  3316 layer_factory.hpp:77] Creating layer conv1
I0428 20:28:12.040753  3316 net.cpp:86] Creating Layer conv1
I0428 20:28:12.040756  3316 net.cpp:408] conv1 <- pool0
I0428 20:28:12.040761  3316 net.cpp:382] conv1 -> conv1
I0428 20:28:12.043576  3316 net.cpp:124] Setting up conv1
I0428 20:28:12.043606  3316 net.cpp:131] Top shape: 64 5 8 8 (20480)
I0428 20:28:12.043609  3316 net.cpp:139] Memory required for data: 18714880
I0428 20:28:12.043632  3316 layer_factory.hpp:77] Creating layer pool1
I0428 20:28:12.043639  3316 net.cpp:86] Creating Layer pool1
I0428 20:28:12.043642  3316 net.cpp:408] pool1 <- conv1
I0428 20:28:12.043648  3316 net.cpp:382] pool1 -> pool1
I0428 20:28:12.043704  3316 net.cpp:124] Setting up pool1
I0428 20:28:12.043709  3316 net.cpp:131] Top shape: 64 5 4 4 (5120)
I0428 20:28:12.043712  3316 net.cpp:139] Memory required for data: 18735360
I0428 20:28:12.043715  3316 layer_factory.hpp:77] Creating layer ip1
I0428 20:28:12.043721  3316 net.cpp:86] Creating Layer ip1
I0428 20:28:12.043725  3316 net.cpp:408] ip1 <- pool1
I0428 20:28:12.043730  3316 net.cpp:382] ip1 -> ip1
I0428 20:28:12.043835  3316 net.cpp:124] Setting up ip1
I0428 20:28:12.043843  3316 net.cpp:131] Top shape: 64 10 (640)
I0428 20:28:12.043844  3316 net.cpp:139] Memory required for data: 18737920
I0428 20:28:12.043851  3316 layer_factory.hpp:77] Creating layer relu1
I0428 20:28:12.043856  3316 net.cpp:86] Creating Layer relu1
I0428 20:28:12.043859  3316 net.cpp:408] relu1 <- ip1
I0428 20:28:12.043864  3316 net.cpp:369] relu1 -> ip1 (in-place)
I0428 20:28:12.044015  3316 net.cpp:124] Setting up relu1
I0428 20:28:12.044023  3316 net.cpp:131] Top shape: 64 10 (640)
I0428 20:28:12.044026  3316 net.cpp:139] Memory required for data: 18740480
I0428 20:28:12.044029  3316 layer_factory.hpp:77] Creating layer ip2
I0428 20:28:12.044036  3316 net.cpp:86] Creating Layer ip2
I0428 20:28:12.044039  3316 net.cpp:408] ip2 <- ip1
I0428 20:28:12.044044  3316 net.cpp:382] ip2 -> ip2
I0428 20:28:12.044132  3316 net.cpp:124] Setting up ip2
I0428 20:28:12.044138  3316 net.cpp:131] Top shape: 64 50 (3200)
I0428 20:28:12.044142  3316 net.cpp:139] Memory required for data: 18753280
I0428 20:28:12.044147  3316 layer_factory.hpp:77] Creating layer relu2
I0428 20:28:12.044152  3316 net.cpp:86] Creating Layer relu2
I0428 20:28:12.044154  3316 net.cpp:408] relu2 <- ip2
I0428 20:28:12.044158  3316 net.cpp:369] relu2 -> ip2 (in-place)
I0428 20:28:12.044970  3316 net.cpp:124] Setting up relu2
I0428 20:28:12.044997  3316 net.cpp:131] Top shape: 64 50 (3200)
I0428 20:28:12.045001  3316 net.cpp:139] Memory required for data: 18766080
I0428 20:28:12.045004  3316 layer_factory.hpp:77] Creating layer ip3
I0428 20:28:12.045012  3316 net.cpp:86] Creating Layer ip3
I0428 20:28:12.045016  3316 net.cpp:408] ip3 <- ip2
I0428 20:28:12.045022  3316 net.cpp:382] ip3 -> ip3
I0428 20:28:12.045122  3316 net.cpp:124] Setting up ip3
I0428 20:28:12.045130  3316 net.cpp:131] Top shape: 64 10 (640)
I0428 20:28:12.045132  3316 net.cpp:139] Memory required for data: 18768640
I0428 20:28:12.045155  3316 layer_factory.hpp:77] Creating layer relu3
I0428 20:28:12.045159  3316 net.cpp:86] Creating Layer relu3
I0428 20:28:12.045162  3316 net.cpp:408] relu3 <- ip3
I0428 20:28:12.045166  3316 net.cpp:369] relu3 -> ip3 (in-place)
I0428 20:28:12.045331  3316 net.cpp:124] Setting up relu3
I0428 20:28:12.045341  3316 net.cpp:131] Top shape: 64 10 (640)
I0428 20:28:12.045343  3316 net.cpp:139] Memory required for data: 18771200
I0428 20:28:12.045346  3316 layer_factory.hpp:77] Creating layer loss
I0428 20:28:12.045352  3316 net.cpp:86] Creating Layer loss
I0428 20:28:12.045354  3316 net.cpp:408] loss <- ip3
I0428 20:28:12.045358  3316 net.cpp:408] loss <- label
I0428 20:28:12.045363  3316 net.cpp:382] loss -> loss
I0428 20:28:12.045380  3316 layer_factory.hpp:77] Creating layer loss
…
I0428 20:28:12.046092  3316 solver.cpp:173] Creating test net (#0) specified by net file: ECE595/mnist/train_test/var_everything2/lenet_train_test1501.prototxt
I0428 20:28:12.046136  3316 net.cpp:296] The NetState phase (1) differed from the phase (0) specified by a rule in layer mnist
I0428 20:28:12.046224  3316 net.cpp:53] Initializing net from parameters: 
name: "LeNet"
state {
  phase: TEST
}
layer {
  name: "mnist"
  type: "Data"
  top: "data"
  top: "label"
  include {
    phase: TEST
  }
  transform_param {
    scale: 0.00390625
  }
  data_param {
    source: "examples/mnist/mnist_test_lmdb"
    batch_size: 100
    backend: LMDB
  }
}
layer {
  name: "conv0"
  type: "Convolution"
  bottom: "data"
  top: "conv0"
  param {
    lr_mult: 1
  }
  param {
    lr_mult: 2
  }
  convolution_param {
    num_output: 100
    kernel_size: 5
    stride: 1
    weight_filler {
      type: "xavier"
    }
    bias_filler {
      type: "constant"
    }
  }
}
layer {
  name: "pool0"
  type: "Pooling"
  bottom: "conv0"
  top: "pool0"
  pooling_param {
    pool: MAX
    kernel_size: 2
    stride: 2
  }
}
layer {
  name: "conv1"
  type: "Convolution"
  bottom: "pool0"
  top: "conv1"
  param {
    lr_mult: 1
  }
  param {
    lr_mult: 2
  }
  convolution_param {
    num_output: 5
    kernel_size: 5
    stride: 1
    weight_filler {
      type: "xavier"
    }
    bias_filler {
      type: "constant"
    }
  }
}
layer {
  name: "pool1"
  type: "Pooling"
  bottom: "conv1"
  top: "pool1"
  pooling_param {
    pool: MAX
    kernel_size: 2
    stride: 2
  }
}
layer {
  name: "ip1"
  type: "InnerProduct"
  bottom: "pool1"
  top: "ip1"
  param {
    lr_mult: 1
  }
  param {
    lr_mult: 2
  }
  inner_product_param {
    num_output: 10
    weight_filler {
      type: "xavier"
    }
    bias_filler {
      type: "constant"
    }
  }
}
layer {
  name: "relu1"
  type: "ReLU"
  bottom: "ip1"
  top: "ip1"
}
layer {
  name: "ip2"
  type: "InnerProduct"
  bottom: "ip1"
  top: "ip2"
  param {
    lr_mult: 1
  }
  param {
    lr_mult: 2
  }
  inner_product_param {
    num_output: 50
    weight_filler {
      type: "xavier"
    }
    bias_filler {
      type: "constant"
    }
  }
}
layer {
  name: "relu2"
  type: "ReLU"
  bottom: "ip2"
  top: "ip2"
}
layer {
  name: "ip3"
  type: "InnerProduct"
  bottom: "ip2"
  top: "ip3"
  param {
    lr_mult: 1
  }
  param {
    lr_mult: 2
  }
  inner_product_param {
    num_output: 10
    weight_filler {
      type: "xavier"
    }
    bias_filler {
      type: "constant"
    }
  }
}
layer {
  name: "relu3"
  type: "ReLU"
  bottom: "ip3"
  top: "ip3"
}
layer {
  name: "accuracy"
  type: "Accuracy"
  bottom: "ip3"
  bottom: "label"
  top: "accuracy"
  include {
    phase: TEST
  }
}
layer {
  name: "loss"
  type: "SoftmaxWithLoss"
  bottom: "ip3"
  bottom: "label"
  top: "loss"
}
I0428 20:28:12.046303  3316 layer_factory.hpp:77] Creating layer mnist
I0428 20:28:12.046347  3316 db_lmdb.cpp:35] Opened lmdb examples/mnist/mnist_test_lmdb
I0428 20:28:12.046360  3316 net.cpp:86] Creating Layer mnist
I0428 20:28:12.046365  3316 net.cpp:382] mnist -> data
I0428 20:28:12.046371  3316 net.cpp:382] mnist -> label
I0428 20:28:12.046468  3316 data_layer.cpp:45] output data size: 100,1,28,28
I0428 20:28:12.048478  3316 net.cpp:124] Setting up mnist
I0428 20:28:12.048506  3316 net.cpp:131] Top shape: 100 1 28 28 (78400)
I0428 20:28:12.048511  3316 net.cpp:131] Top shape: 100 (100)
I0428 20:28:12.048514  3316 net.cpp:139] Memory required for data: 314000
I0428 20:28:12.048517  3316 layer_factory.hpp:77] Creating layer label_mnist_1_split
I0428 20:28:12.048557  3316 net.cpp:86] Creating Layer label_mnist_1_split
I0428 20:28:12.048562  3316 net.cpp:408] label_mnist_1_split <- label
I0428 20:28:12.048566  3316 net.cpp:382] label_mnist_1_split -> label_mnist_1_split_0
I0428 20:28:12.048573  3316 net.cpp:382] label_mnist_1_split -> label_mnist_1_split_1
I0428 20:28:12.048609  3316 net.cpp:124] Setting up label_mnist_1_split
I0428 20:28:12.048612  3316 net.cpp:131] Top shape: 100 (100)
I0428 20:28:12.048616  3316 net.cpp:131] Top shape: 100 (100)
I0428 20:28:12.048619  3316 net.cpp:139] Memory required for data: 314800
I0428 20:28:12.048621  3316 layer_factory.hpp:77] Creating layer conv0
I0428 20:28:12.048629  3316 net.cpp:86] Creating Layer conv0
I0428 20:28:12.048631  3316 net.cpp:408] conv0 <- data
I0428 20:28:12.048636  3316 net.cpp:382] conv0 -> conv0
I0428 20:28:12.050462  3316 net.cpp:124] Setting up conv0
I0428 20:28:12.050475  3316 net.cpp:131] Top shape: 100 100 24 24 (5760000)
I0428 20:28:12.050478  3316 net.cpp:139] Memory required for data: 23354800
I0428 20:28:12.050487  3316 layer_factory.hpp:77] Creating layer pool0
I0428 20:28:12.050493  3316 net.cpp:86] Creating Layer pool0
I0428 20:28:12.050511  3316 net.cpp:408] pool0 <- conv0
I0428 20:28:12.050516  3316 net.cpp:382] pool0 -> pool0
I0428 20:28:12.050577  3316 net.cpp:124] Setting up pool0
I0428 20:28:12.050587  3316 net.cpp:131] Top shape: 100 100 12 12 (1440000)
I0428 20:28:12.050590  3316 net.cpp:139] Memory required for data: 29114800
I0428 20:28:12.050595  3316 layer_factory.hpp:77] Creating layer conv1
I0428 20:28:12.050602  3316 net.cpp:86] Creating Layer conv1
I0428 20:28:12.050606  3316 net.cpp:408] conv1 <- pool0
I0428 20:28:12.050611  3316 net.cpp:382] conv1 -> conv1
I0428 20:28:12.052139  3316 net.cpp:124] Setting up conv1
I0428 20:28:12.052152  3316 net.cpp:131] Top shape: 100 5 8 8 (32000)
I0428 20:28:12.052155  3316 net.cpp:139] Memory required for data: 29242800
I0428 20:28:12.052165  3316 layer_factory.hpp:77] Creating layer pool1
I0428 20:28:12.052171  3316 net.cpp:86] Creating Layer pool1
I0428 20:28:12.052179  3316 net.cpp:408] pool1 <- conv1
I0428 20:28:12.052186  3316 net.cpp:382] pool1 -> pool1
I0428 20:28:12.052243  3316 net.cpp:124] Setting up pool1
I0428 20:28:12.052249  3316 net.cpp:131] Top shape: 100 5 4 4 (8000)
I0428 20:28:12.052253  3316 net.cpp:139] Memory required for data: 29274800
I0428 20:28:12.052256  3316 layer_factory.hpp:77] Creating layer ip1
I0428 20:28:12.052261  3316 net.cpp:86] Creating Layer ip1
I0428 20:28:12.052264  3316 net.cpp:408] ip1 <- pool1
I0428 20:28:12.052269  3316 net.cpp:382] ip1 -> ip1
I0428 20:28:12.052390  3316 net.cpp:124] Setting up ip1
I0428 20:28:12.052400  3316 net.cpp:131] Top shape: 100 10 (1000)
I0428 20:28:12.052414  3316 net.cpp:139] Memory required for data: 29278800
I0428 20:28:12.052428  3316 layer_factory.hpp:77] Creating layer relu1
I0428 20:28:12.052433  3316 net.cpp:86] Creating Layer relu1
I0428 20:28:12.052436  3316 net.cpp:408] relu1 <- ip1
I0428 20:28:12.052440  3316 net.cpp:369] relu1 -> ip1 (in-place)
I0428 20:28:12.052604  3316 net.cpp:124] Setting up relu1
I0428 20:28:12.052626  3316 net.cpp:131] Top shape: 100 10 (1000)
I0428 20:28:12.052636  3316 net.cpp:139] Memory required for data: 29282800
I0428 20:28:12.052639  3316 layer_factory.hpp:77] Creating layer ip2
I0428 20:28:12.052647  3316 net.cpp:86] Creating Layer ip2
I0428 20:28:12.052651  3316 net.cpp:408] ip2 <- ip1
I0428 20:28:12.052656  3316 net.cpp:382] ip2 -> ip2
I0428 20:28:12.052755  3316 net.cpp:124] Setting up ip2
I0428 20:28:12.052764  3316 net.cpp:131] Top shape: 100 50 (5000)
I0428 20:28:12.052767  3316 net.cpp:139] Memory required for data: 29302800
I0428 20:28:12.052772  3316 layer_factory.hpp:77] Creating layer relu2
I0428 20:28:12.052776  3316 net.cpp:86] Creating Layer relu2
I0428 20:28:12.052779  3316 net.cpp:408] relu2 <- ip2
I0428 20:28:12.052783  3316 net.cpp:369] relu2 -> ip2 (in-place)
I0428 20:28:12.052960  3316 net.cpp:124] Setting up relu2
I0428 20:28:12.052973  3316 net.cpp:131] Top shape: 100 50 (5000)
I0428 20:28:12.052979  3316 net.cpp:139] Memory required for data: 29322800
I0428 20:28:12.052983  3316 layer_factory.hpp:77] Creating layer ip3
I0428 20:28:12.052989  3316 net.cpp:86] Creating Layer ip3
I0428 20:28:12.052991  3316 net.cpp:408] ip3 <- ip2
I0428 20:28:12.052997  3316 net.cpp:382] ip3 -> ip3
I0428 20:28:12.053100  3316 net.cpp:124] Setting up ip3
I0428 20:28:12.053107  3316 net.cpp:131] Top shape: 100 10 (1000)
I0428 20:28:12.053112  3316 net.cpp:139] Memory required for data: 29326800
I0428 20:28:12.053118  3316 layer_factory.hpp:77] Creating layer relu3
I0428 20:28:12.053124  3316 net.cpp:86] Creating Layer relu3
I0428 20:28:12.053128  3316 net.cpp:408] relu3 <- ip3
I0428 20:28:12.053131  3316 net.cpp:369] relu3 -> ip3 (in-place)
I0428 20:28:12.053983  3316 net.cpp:124] Setting up relu3
I0428 20:28:12.053995  3316 net.cpp:131] Top shape: 100 10 (1000)
I0428 20:28:12.053999  3316 net.cpp:139] Memory required for data: 29330800
I0428 20:28:12.054003  3316 layer_factory.hpp:77] Creating layer ip3_relu3_0_split
I0428 20:28:12.054008  3316 net.cpp:86] Creating Layer ip3_relu3_0_split
I0428 20:28:12.054011  3316 net.cpp:408] ip3_relu3_0_split <- ip3
I0428 20:28:12.054016  3316 net.cpp:382] ip3_relu3_0_split -> ip3_relu3_0_split_0
I0428 20:28:12.054023  3316 net.cpp:382] ip3_relu3_0_split -> ip3_relu3_0_split_1
I0428 20:28:12.054097  3316 net.cpp:124] Setting up ip3_relu3_0_split
I0428 20:28:12.054105  3316 net.cpp:131] Top shape: 100 10 (1000)
I0428 20:28:12.054107  3316 net.cpp:131] Top shape: 100 10 (1000)
I0428 20:28:12.054111  3316 net.cpp:139] Memory required for data: 29338800
I0428 20:28:12.054113  3316 layer_factory.hpp:77] Creating layer accuracy
I0428 20:28:12.054118  3316 net.cpp:86] Creating Layer accuracy
I0428 20:28:12.054128  3316 net.cpp:408] accuracy <- ip3_relu3_0_split_0
I0428 20:28:12.054132  3316 net.cpp:408] accuracy <- label_mnist_1_split_0
I0428 20:28:12.054136  3316 net.cpp:382] accuracy -> accuracy
…
