…
I0428 19:40:47.826498 24662 net.cpp:296] The NetState phase (0) differed from the phase (1) specified by a rule in layer mnist
I0428 19:40:47.826530 24662 net.cpp:296] The NetState phase (0) differed from the phase (1) specified by a rule in layer accuracy
I0428 19:40:47.826624 24662 net.cpp:53] Initializing net from parameters: 
name: "LeNet"
state {
  phase: TRAIN
  level: 0
  stage: ""
}
layer {
  name: "mnist"
  type: "Data"
  top: "data"
  top: "label"
  include {
    phase: TRAIN
  }
  transform_param {
    scale: 0.00390625
  }
  data_param {
    source: "examples/mnist/mnist_train_lmdb"
    batch_size: 64
    backend: LMDB
  }
}
layer {
  name: "conv0"
  type: "Convolution"
  bottom: "data"
  top: "conv0"
  param {
    lr_mult: 1
  }
  param {
    lr_mult: 2
  }
  convolution_param {
    num_output: 2
    kernel_size: 5
    stride: 1
    weight_filler {
      type: "xavier"
    }
    bias_filler {
      type: "constant"
    }
  }
}
layer {
  name: "pool0"
  type: "Pooling"
  bottom: "conv0"
  top: "pool0"
  pooling_param {
    pool: MAX
    kernel_size: 2
    stride: 2
  }
}
layer {
  name: "conv1"
  type: "Convolution"
  bottom: "pool0"
  top: "conv1"
  param {
    lr_mult: 1
  }
  param {
    lr_mult: 2
  }
  convolution_param {
    num_output: 5
    kernel_size: 5
    stride: 1
    weight_filler {
      type: "xavier"
    }
    bias_filler {
      type: "constant"
    }
  }
}
layer {
  name: "pool1"
  type: "Pooling"
  bottom: "conv1"
  top: "pool1"
  pooling_param {
    pool: MAX
    kernel_size: 2
    stride: 2
  }
}
layer {
  name: "ip1"
  type: "InnerProduct"
  bottom: "pool1"
  top: "ip1"
  param {
    lr_mult: 1
  }
  param {
    lr_mult: 2
  }
  inner_product_param {
    num_output: 50
    weight_filler {
      type: "xavier"
    }
    bias_filler {
      type: "constant"
    }
  }
}
layer {
  name: "relu1"
  type: "ReLU"
  bottom: "ip1"
  top: "ip1"
}
layer {
  name: "ip2"
  type: "InnerProduct"
  bottom: "ip1"
  top: "ip2"
  param {
    lr_mult: 1
  }
  param {
    lr_mult: 2
  }
  inner_product_param {
    num_output: 25
    weight_filler {
      type: "xavier"
    }
    bias_filler {
      type: "constant"
    }
  }
}
layer {
  name: "relu2"
  type: "ReLU"
  bottom: "ip2"
  top: "ip2"
}
layer {
  name: "ip3"
  type: "InnerProduct"
  bottom: "ip2"
  top: "ip3"
  param {
    lr_mult: 1
  }
  param {
    lr_mult: 2
  }
  inner_product_param {
    num_output: 10
    weight_filler {
      type: "xavier"
    }
    bias_filler {
      type: "constant"
    }
  }
}
layer {
  name: "relu3"
  type: "ReLU"
  bottom: "ip3"
  top: "ip3"
}
layer {
  name: "loss"
  type: "SoftmaxWithLoss"
  bottom: "ip3"
  bottom: "label"
  top: "loss"
}
I0428 19:40:47.826689 24662 layer_factory.hpp:77] Creating layer mnist
I0428 19:40:47.826766 24662 db_lmdb.cpp:35] Opened lmdb examples/mnist/mnist_train_lmdb
I0428 19:40:47.826786 24662 net.cpp:86] Creating Layer mnist
I0428 19:40:47.826792 24662 net.cpp:382] mnist -> data
I0428 19:40:47.826810 24662 net.cpp:382] mnist -> label
I0428 19:40:47.827726 24662 data_layer.cpp:45] output data size: 64,1,28,28
I0428 19:40:47.830224 24662 net.cpp:124] Setting up mnist
I0428 19:40:47.830238 24662 net.cpp:131] Top shape: 64 1 28 28 (50176)
I0428 19:40:47.830260 24662 net.cpp:131] Top shape: 64 (64)
I0428 19:40:47.830263 24662 net.cpp:139] Memory required for data: 200960
I0428 19:40:47.830269 24662 layer_factory.hpp:77] Creating layer conv0
I0428 19:40:47.830282 24662 net.cpp:86] Creating Layer conv0
I0428 19:40:47.830314 24662 net.cpp:408] conv0 <- data
I0428 19:40:47.830327 24662 net.cpp:382] conv0 -> conv0
I0428 19:40:48.060411 24662 net.cpp:124] Setting up conv0
I0428 19:40:48.060453 24662 net.cpp:131] Top shape: 64 2 24 24 (73728)
I0428 19:40:48.060458 24662 net.cpp:139] Memory required for data: 495872
I0428 19:40:48.060472 24662 layer_factory.hpp:77] Creating layer pool0
I0428 19:40:48.060485 24662 net.cpp:86] Creating Layer pool0
I0428 19:40:48.060490 24662 net.cpp:408] pool0 <- conv0
I0428 19:40:48.060495 24662 net.cpp:382] pool0 -> pool0
I0428 19:40:48.060559 24662 net.cpp:124] Setting up pool0
I0428 19:40:48.060570 24662 net.cpp:131] Top shape: 64 2 12 12 (18432)
I0428 19:40:48.060573 24662 net.cpp:139] Memory required for data: 569600
I0428 19:40:48.060576 24662 layer_factory.hpp:77] Creating layer conv1
I0428 19:40:48.060586 24662 net.cpp:86] Creating Layer conv1
I0428 19:40:48.060590 24662 net.cpp:408] conv1 <- pool0
I0428 19:40:48.060595 24662 net.cpp:382] conv1 -> conv1
I0428 19:40:48.062459 24662 net.cpp:124] Setting up conv1
I0428 19:40:48.062490 24662 net.cpp:131] Top shape: 64 5 8 8 (20480)
I0428 19:40:48.062494 24662 net.cpp:139] Memory required for data: 651520
I0428 19:40:48.062503 24662 layer_factory.hpp:77] Creating layer pool1
I0428 19:40:48.062512 24662 net.cpp:86] Creating Layer pool1
I0428 19:40:48.062516 24662 net.cpp:408] pool1 <- conv1
I0428 19:40:48.062522 24662 net.cpp:382] pool1 -> pool1
I0428 19:40:48.062561 24662 net.cpp:124] Setting up pool1
I0428 19:40:48.062567 24662 net.cpp:131] Top shape: 64 5 4 4 (5120)
I0428 19:40:48.062571 24662 net.cpp:139] Memory required for data: 672000
I0428 19:40:48.062574 24662 layer_factory.hpp:77] Creating layer ip1
I0428 19:40:48.062585 24662 net.cpp:86] Creating Layer ip1
I0428 19:40:48.062589 24662 net.cpp:408] ip1 <- pool1
I0428 19:40:48.062594 24662 net.cpp:382] ip1 -> ip1
I0428 19:40:48.063619 24662 net.cpp:124] Setting up ip1
I0428 19:40:48.063632 24662 net.cpp:131] Top shape: 64 50 (3200)
I0428 19:40:48.063652 24662 net.cpp:139] Memory required for data: 684800
I0428 19:40:48.063675 24662 layer_factory.hpp:77] Creating layer relu1
I0428 19:40:48.063683 24662 net.cpp:86] Creating Layer relu1
I0428 19:40:48.063686 24662 net.cpp:408] relu1 <- ip1
I0428 19:40:48.063690 24662 net.cpp:369] relu1 -> ip1 (in-place)
I0428 19:40:48.063884 24662 net.cpp:124] Setting up relu1
I0428 19:40:48.063894 24662 net.cpp:131] Top shape: 64 50 (3200)
I0428 19:40:48.063899 24662 net.cpp:139] Memory required for data: 697600
I0428 19:40:48.063901 24662 layer_factory.hpp:77] Creating layer ip2
I0428 19:40:48.063907 24662 net.cpp:86] Creating Layer ip2
I0428 19:40:48.063910 24662 net.cpp:408] ip2 <- ip1
I0428 19:40:48.063915 24662 net.cpp:382] ip2 -> ip2
I0428 19:40:48.064010 24662 net.cpp:124] Setting up ip2
I0428 19:40:48.064018 24662 net.cpp:131] Top shape: 64 25 (1600)
I0428 19:40:48.064020 24662 net.cpp:139] Memory required for data: 704000
I0428 19:40:48.064026 24662 layer_factory.hpp:77] Creating layer relu2
I0428 19:40:48.064033 24662 net.cpp:86] Creating Layer relu2
I0428 19:40:48.064035 24662 net.cpp:408] relu2 <- ip2
I0428 19:40:48.064039 24662 net.cpp:369] relu2 -> ip2 (in-place)
I0428 19:40:48.064911 24662 net.cpp:124] Setting up relu2
I0428 19:40:48.064924 24662 net.cpp:131] Top shape: 64 25 (1600)
I0428 19:40:48.064929 24662 net.cpp:139] Memory required for data: 710400
I0428 19:40:48.064931 24662 layer_factory.hpp:77] Creating layer ip3
I0428 19:40:48.064939 24662 net.cpp:86] Creating Layer ip3
I0428 19:40:48.064941 24662 net.cpp:408] ip3 <- ip2
I0428 19:40:48.064946 24662 net.cpp:382] ip3 -> ip3
I0428 19:40:48.065039 24662 net.cpp:124] Setting up ip3
I0428 19:40:48.065047 24662 net.cpp:131] Top shape: 64 10 (640)
I0428 19:40:48.065050 24662 net.cpp:139] Memory required for data: 712960
I0428 19:40:48.065057 24662 layer_factory.hpp:77] Creating layer relu3
I0428 19:40:48.065063 24662 net.cpp:86] Creating Layer relu3
I0428 19:40:48.065065 24662 net.cpp:408] relu3 <- ip3
I0428 19:40:48.065070 24662 net.cpp:369] relu3 -> ip3 (in-place)
I0428 19:40:48.065258 24662 net.cpp:124] Setting up relu3
I0428 19:40:48.065268 24662 net.cpp:131] Top shape: 64 10 (640)
I0428 19:40:48.065270 24662 net.cpp:139] Memory required for data: 715520
I0428 19:40:48.065274 24662 layer_factory.hpp:77] Creating layer loss
I0428 19:40:48.065280 24662 net.cpp:86] Creating Layer loss
I0428 19:40:48.065284 24662 net.cpp:408] loss <- ip3
I0428 19:40:48.065287 24662 net.cpp:408] loss <- label
I0428 19:40:48.065292 24662 net.cpp:382] loss -> loss
I0428 19:40:48.065310 24662 layer_factory.hpp:77] Creating layer loss
…
I0428 19:40:48.066061 24662 solver.cpp:173] Creating test net (#0) specified by net file: ECE595/mnist/train_test/var_everything2/lenet_train_test345.prototxt
I0428 19:40:48.066102 24662 net.cpp:296] The NetState phase (1) differed from the phase (0) specified by a rule in layer mnist
I0428 19:40:48.066186 24662 net.cpp:53] Initializing net from parameters: 
name: "LeNet"
state {
  phase: TEST
}
layer {
  name: "mnist"
  type: "Data"
  top: "data"
  top: "label"
  include {
    phase: TEST
  }
  transform_param {
    scale: 0.00390625
  }
  data_param {
    source: "examples/mnist/mnist_test_lmdb"
    batch_size: 100
    backend: LMDB
  }
}
layer {
  name: "conv0"
  type: "Convolution"
  bottom: "data"
  top: "conv0"
  param {
    lr_mult: 1
  }
  param {
    lr_mult: 2
  }
  convolution_param {
    num_output: 2
    kernel_size: 5
    stride: 1
    weight_filler {
      type: "xavier"
    }
    bias_filler {
      type: "constant"
    }
  }
}
layer {
  name: "pool0"
  type: "Pooling"
  bottom: "conv0"
  top: "pool0"
  pooling_param {
    pool: MAX
    kernel_size: 2
    stride: 2
  }
}
layer {
  name: "conv1"
  type: "Convolution"
  bottom: "pool0"
  top: "conv1"
  param {
    lr_mult: 1
  }
  param {
    lr_mult: 2
  }
  convolution_param {
    num_output: 5
    kernel_size: 5
    stride: 1
    weight_filler {
      type: "xavier"
    }
    bias_filler {
      type: "constant"
    }
  }
}
layer {
  name: "pool1"
  type: "Pooling"
  bottom: "conv1"
  top: "pool1"
  pooling_param {
    pool: MAX
    kernel_size: 2
    stride: 2
  }
}
layer {
  name: "ip1"
  type: "InnerProduct"
  bottom: "pool1"
  top: "ip1"
  param {
    lr_mult: 1
  }
  param {
    lr_mult: 2
  }
  inner_product_param {
    num_output: 50
    weight_filler {
      type: "xavier"
    }
    bias_filler {
      type: "constant"
    }
  }
}
layer {
  name: "relu1"
  type: "ReLU"
  bottom: "ip1"
  top: "ip1"
}
layer {
  name: "ip2"
  type: "InnerProduct"
  bottom: "ip1"
  top: "ip2"
  param {
    lr_mult: 1
  }
  param {
    lr_mult: 2
  }
  inner_product_param {
    num_output: 25
    weight_filler {
      type: "xavier"
    }
    bias_filler {
      type: "constant"
    }
  }
}
layer {
  name: "relu2"
  type: "ReLU"
  bottom: "ip2"
  top: "ip2"
}
layer {
  name: "ip3"
  type: "InnerProduct"
  bottom: "ip2"
  top: "ip3"
  param {
    lr_mult: 1
  }
  param {
    lr_mult: 2
  }
  inner_product_param {
    num_output: 10
    weight_filler {
      type: "xavier"
    }
    bias_filler {
      type: "constant"
    }
  }
}
layer {
  name: "relu3"
  type: "ReLU"
  bottom: "ip3"
  top: "ip3"
}
layer {
  name: "accuracy"
  type: "Accuracy"
  bottom: "ip3"
  bottom: "label"
  top: "accuracy"
  include {
    phase: TEST
  }
}
layer {
  name: "loss"
  type: "SoftmaxWithLoss"
  bottom: "ip3"
  bottom: "label"
  top: "loss"
}
I0428 19:40:48.066262 24662 layer_factory.hpp:77] Creating layer mnist
I0428 19:40:48.066304 24662 db_lmdb.cpp:35] Opened lmdb examples/mnist/mnist_test_lmdb
I0428 19:40:48.066316 24662 net.cpp:86] Creating Layer mnist
I0428 19:40:48.066320 24662 net.cpp:382] mnist -> data
I0428 19:40:48.066329 24662 net.cpp:382] mnist -> label
I0428 19:40:48.066407 24662 data_layer.cpp:45] output data size: 100,1,28,28
I0428 19:40:48.068452 24662 net.cpp:124] Setting up mnist
I0428 19:40:48.068465 24662 net.cpp:131] Top shape: 100 1 28 28 (78400)
I0428 19:40:48.068470 24662 net.cpp:131] Top shape: 100 (100)
I0428 19:40:48.068475 24662 net.cpp:139] Memory required for data: 314000
I0428 19:40:48.068477 24662 layer_factory.hpp:77] Creating layer label_mnist_1_split
I0428 19:40:48.068507 24662 net.cpp:86] Creating Layer label_mnist_1_split
I0428 19:40:48.068512 24662 net.cpp:408] label_mnist_1_split <- label
I0428 19:40:48.068517 24662 net.cpp:382] label_mnist_1_split -> label_mnist_1_split_0
I0428 19:40:48.068524 24662 net.cpp:382] label_mnist_1_split -> label_mnist_1_split_1
I0428 19:40:48.068567 24662 net.cpp:124] Setting up label_mnist_1_split
I0428 19:40:48.068573 24662 net.cpp:131] Top shape: 100 (100)
I0428 19:40:48.068578 24662 net.cpp:131] Top shape: 100 (100)
I0428 19:40:48.068579 24662 net.cpp:139] Memory required for data: 314800
I0428 19:40:48.068583 24662 layer_factory.hpp:77] Creating layer conv0
I0428 19:40:48.068604 24662 net.cpp:86] Creating Layer conv0
I0428 19:40:48.068608 24662 net.cpp:408] conv0 <- data
I0428 19:40:48.068612 24662 net.cpp:382] conv0 -> conv0
I0428 19:40:48.070425 24662 net.cpp:124] Setting up conv0
I0428 19:40:48.070438 24662 net.cpp:131] Top shape: 100 2 24 24 (115200)
I0428 19:40:48.070442 24662 net.cpp:139] Memory required for data: 775600
I0428 19:40:48.070451 24662 layer_factory.hpp:77] Creating layer pool0
I0428 19:40:48.070456 24662 net.cpp:86] Creating Layer pool0
I0428 19:40:48.070459 24662 net.cpp:408] pool0 <- conv0
I0428 19:40:48.070466 24662 net.cpp:382] pool0 -> pool0
I0428 19:40:48.070499 24662 net.cpp:124] Setting up pool0
I0428 19:40:48.070504 24662 net.cpp:131] Top shape: 100 2 12 12 (28800)
I0428 19:40:48.070508 24662 net.cpp:139] Memory required for data: 890800
I0428 19:40:48.070509 24662 layer_factory.hpp:77] Creating layer conv1
I0428 19:40:48.070528 24662 net.cpp:86] Creating Layer conv1
I0428 19:40:48.070531 24662 net.cpp:408] conv1 <- pool0
I0428 19:40:48.070536 24662 net.cpp:382] conv1 -> conv1
I0428 19:40:48.072186 24662 net.cpp:124] Setting up conv1
I0428 19:40:48.072201 24662 net.cpp:131] Top shape: 100 5 8 8 (32000)
I0428 19:40:48.072204 24662 net.cpp:139] Memory required for data: 1018800
I0428 19:40:48.072214 24662 layer_factory.hpp:77] Creating layer pool1
I0428 19:40:48.072237 24662 net.cpp:86] Creating Layer pool1
I0428 19:40:48.072273 24662 net.cpp:408] pool1 <- conv1
I0428 19:40:48.072278 24662 net.cpp:382] pool1 -> pool1
I0428 19:40:48.072317 24662 net.cpp:124] Setting up pool1
I0428 19:40:48.072334 24662 net.cpp:131] Top shape: 100 5 4 4 (8000)
I0428 19:40:48.072337 24662 net.cpp:139] Memory required for data: 1050800
I0428 19:40:48.072341 24662 layer_factory.hpp:77] Creating layer ip1
I0428 19:40:48.072347 24662 net.cpp:86] Creating Layer ip1
I0428 19:40:48.072350 24662 net.cpp:408] ip1 <- pool1
I0428 19:40:48.072358 24662 net.cpp:382] ip1 -> ip1
I0428 19:40:48.072489 24662 net.cpp:124] Setting up ip1
I0428 19:40:48.072499 24662 net.cpp:131] Top shape: 100 50 (5000)
I0428 19:40:48.072518 24662 net.cpp:139] Memory required for data: 1070800
I0428 19:40:48.072526 24662 layer_factory.hpp:77] Creating layer relu1
I0428 19:40:48.072533 24662 net.cpp:86] Creating Layer relu1
I0428 19:40:48.072537 24662 net.cpp:408] relu1 <- ip1
I0428 19:40:48.072542 24662 net.cpp:369] relu1 -> ip1 (in-place)
I0428 19:40:48.072716 24662 net.cpp:124] Setting up relu1
I0428 19:40:48.072726 24662 net.cpp:131] Top shape: 100 50 (5000)
I0428 19:40:48.072731 24662 net.cpp:139] Memory required for data: 1090800
I0428 19:40:48.072733 24662 layer_factory.hpp:77] Creating layer ip2
I0428 19:40:48.072741 24662 net.cpp:86] Creating Layer ip2
I0428 19:40:48.072744 24662 net.cpp:408] ip2 <- ip1
I0428 19:40:48.072764 24662 net.cpp:382] ip2 -> ip2
I0428 19:40:48.072875 24662 net.cpp:124] Setting up ip2
I0428 19:40:48.072882 24662 net.cpp:131] Top shape: 100 25 (2500)
I0428 19:40:48.072885 24662 net.cpp:139] Memory required for data: 1100800
I0428 19:40:48.072891 24662 layer_factory.hpp:77] Creating layer relu2
I0428 19:40:48.072898 24662 net.cpp:86] Creating Layer relu2
I0428 19:40:48.072902 24662 net.cpp:408] relu2 <- ip2
I0428 19:40:48.072906 24662 net.cpp:369] relu2 -> ip2 (in-place)
I0428 19:40:48.073051 24662 net.cpp:124] Setting up relu2
I0428 19:40:48.073060 24662 net.cpp:131] Top shape: 100 25 (2500)
I0428 19:40:48.073071 24662 net.cpp:139] Memory required for data: 1110800
I0428 19:40:48.073073 24662 layer_factory.hpp:77] Creating layer ip3
I0428 19:40:48.073081 24662 net.cpp:86] Creating Layer ip3
I0428 19:40:48.073083 24662 net.cpp:408] ip3 <- ip2
I0428 19:40:48.073088 24662 net.cpp:382] ip3 -> ip3
I0428 19:40:48.073204 24662 net.cpp:124] Setting up ip3
I0428 19:40:48.073211 24662 net.cpp:131] Top shape: 100 10 (1000)
I0428 19:40:48.073215 24662 net.cpp:139] Memory required for data: 1114800
I0428 19:40:48.073221 24662 layer_factory.hpp:77] Creating layer relu3
I0428 19:40:48.073225 24662 net.cpp:86] Creating Layer relu3
I0428 19:40:48.073228 24662 net.cpp:408] relu3 <- ip3
I0428 19:40:48.073232 24662 net.cpp:369] relu3 -> ip3 (in-place)
I0428 19:40:48.074173 24662 net.cpp:124] Setting up relu3
I0428 19:40:48.074185 24662 net.cpp:131] Top shape: 100 10 (1000)
I0428 19:40:48.074200 24662 net.cpp:139] Memory required for data: 1118800
I0428 19:40:48.074204 24662 layer_factory.hpp:77] Creating layer ip3_relu3_0_split
I0428 19:40:48.074210 24662 net.cpp:86] Creating Layer ip3_relu3_0_split
I0428 19:40:48.074214 24662 net.cpp:408] ip3_relu3_0_split <- ip3
I0428 19:40:48.074220 24662 net.cpp:382] ip3_relu3_0_split -> ip3_relu3_0_split_0
I0428 19:40:48.074226 24662 net.cpp:382] ip3_relu3_0_split -> ip3_relu3_0_split_1
I0428 19:40:48.074264 24662 net.cpp:124] Setting up ip3_relu3_0_split
I0428 19:40:48.074276 24662 net.cpp:131] Top shape: 100 10 (1000)
I0428 19:40:48.074286 24662 net.cpp:131] Top shape: 100 10 (1000)
I0428 19:40:48.074290 24662 net.cpp:139] Memory required for data: 1126800
I0428 19:40:48.074292 24662 layer_factory.hpp:77] Creating layer accuracy
I0428 19:40:48.074297 24662 net.cpp:86] Creating Layer accuracy
I0428 19:40:48.074301 24662 net.cpp:408] accuracy <- ip3_relu3_0_split_0
I0428 19:40:48.074306 24662 net.cpp:408] accuracy <- label_mnist_1_split_0
I0428 19:40:48.074309 24662 net.cpp:382] accuracy -> accuracy
…
