…
I0428 20:34:42.221220  4511 net.cpp:296] The NetState phase (0) differed from the phase (1) specified by a rule in layer mnist
I0428 20:34:42.221235  4511 net.cpp:296] The NetState phase (0) differed from the phase (1) specified by a rule in layer accuracy
I0428 20:34:42.221316  4511 net.cpp:53] Initializing net from parameters: 
name: "LeNet"
state {
  phase: TRAIN
  level: 0
  stage: ""
}
layer {
  name: "mnist"
  type: "Data"
  top: "data"
  top: "label"
  include {
    phase: TRAIN
  }
  transform_param {
    scale: 0.00390625
  }
  data_param {
    source: "examples/mnist/mnist_train_lmdb"
    batch_size: 64
    backend: LMDB
  }
}
layer {
  name: "conv0"
  type: "Convolution"
  bottom: "data"
  top: "conv0"
  param {
    lr_mult: 1
  }
  param {
    lr_mult: 2
  }
  convolution_param {
    num_output: 100
    kernel_size: 5
    stride: 1
    weight_filler {
      type: "xavier"
    }
    bias_filler {
      type: "constant"
    }
  }
}
layer {
  name: "pool0"
  type: "Pooling"
  bottom: "conv0"
  top: "pool0"
  pooling_param {
    pool: MAX
    kernel_size: 2
    stride: 2
  }
}
layer {
  name: "conv1"
  type: "Convolution"
  bottom: "pool0"
  top: "conv1"
  param {
    lr_mult: 1
  }
  param {
    lr_mult: 2
  }
  convolution_param {
    num_output: 50
    kernel_size: 5
    stride: 1
    weight_filler {
      type: "xavier"
    }
    bias_filler {
      type: "constant"
    }
  }
}
layer {
  name: "pool1"
  type: "Pooling"
  bottom: "conv1"
  top: "pool1"
  pooling_param {
    pool: MAX
    kernel_size: 2
    stride: 2
  }
}
layer {
  name: "ip1"
  type: "InnerProduct"
  bottom: "pool1"
  top: "ip1"
  param {
    lr_mult: 1
  }
  param {
    lr_mult: 2
  }
  inner_product_param {
    num_output: 50
    weight_filler {
      type: "xavier"
    }
    bias_filler {
      type: "constant"
    }
  }
}
layer {
  name: "relu1"
  type: "ReLU"
  bottom: "ip1"
  top: "ip1"
}
layer {
  name: "ip2"
  type: "InnerProduct"
  bottom: "ip1"
  top: "ip2"
  param {
    lr_mult: 1
  }
  param {
    lr_mult: 2
  }
  inner_product_param {
    num_output: 10
    weight_filler {
      type: "xavier"
    }
    bias_filler {
      type: "constant"
    }
  }
}
layer {
  name: "relu2"
  type: "ReLU"
  bottom: "ip2"
  top: "ip2"
}
layer {
  name: "loss"
  type: "SoftmaxWithLoss"
  bottom: "ip2"
  bottom: "label"
  top: "loss"
}
I0428 20:34:42.221370  4511 layer_factory.hpp:77] Creating layer mnist
I0428 20:34:42.221449  4511 db_lmdb.cpp:35] Opened lmdb examples/mnist/mnist_train_lmdb
I0428 20:34:42.221468  4511 net.cpp:86] Creating Layer mnist
I0428 20:34:42.221474  4511 net.cpp:382] mnist -> data
I0428 20:34:42.221493  4511 net.cpp:382] mnist -> label
I0428 20:34:42.222517  4511 data_layer.cpp:45] output data size: 64,1,28,28
I0428 20:34:42.224793  4511 net.cpp:124] Setting up mnist
I0428 20:34:42.224838  4511 net.cpp:131] Top shape: 64 1 28 28 (50176)
I0428 20:34:42.224844  4511 net.cpp:131] Top shape: 64 (64)
I0428 20:34:42.224864  4511 net.cpp:139] Memory required for data: 200960
I0428 20:34:42.224869  4511 layer_factory.hpp:77] Creating layer conv0
I0428 20:34:42.224882  4511 net.cpp:86] Creating Layer conv0
I0428 20:34:42.224889  4511 net.cpp:408] conv0 <- data
I0428 20:34:42.224920  4511 net.cpp:382] conv0 -> conv0
I0428 20:34:42.454391  4511 net.cpp:124] Setting up conv0
I0428 20:34:42.454416  4511 net.cpp:131] Top shape: 64 100 24 24 (3686400)
I0428 20:34:42.454419  4511 net.cpp:139] Memory required for data: 14946560
I0428 20:34:42.454450  4511 layer_factory.hpp:77] Creating layer pool0
I0428 20:34:42.454463  4511 net.cpp:86] Creating Layer pool0
I0428 20:34:42.454466  4511 net.cpp:408] pool0 <- conv0
I0428 20:34:42.454471  4511 net.cpp:382] pool0 -> pool0
I0428 20:34:42.454532  4511 net.cpp:124] Setting up pool0
I0428 20:34:42.454538  4511 net.cpp:131] Top shape: 64 100 12 12 (921600)
I0428 20:34:42.454540  4511 net.cpp:139] Memory required for data: 18632960
I0428 20:34:42.454543  4511 layer_factory.hpp:77] Creating layer conv1
I0428 20:34:42.454555  4511 net.cpp:86] Creating Layer conv1
I0428 20:34:42.454557  4511 net.cpp:408] conv1 <- pool0
I0428 20:34:42.454561  4511 net.cpp:382] conv1 -> conv1
I0428 20:34:42.458008  4511 net.cpp:124] Setting up conv1
I0428 20:34:42.458037  4511 net.cpp:131] Top shape: 64 50 8 8 (204800)
I0428 20:34:42.458041  4511 net.cpp:139] Memory required for data: 19452160
I0428 20:34:42.458050  4511 layer_factory.hpp:77] Creating layer pool1
I0428 20:34:42.458060  4511 net.cpp:86] Creating Layer pool1
I0428 20:34:42.458062  4511 net.cpp:408] pool1 <- conv1
I0428 20:34:42.458067  4511 net.cpp:382] pool1 -> pool1
I0428 20:34:42.458122  4511 net.cpp:124] Setting up pool1
I0428 20:34:42.458127  4511 net.cpp:131] Top shape: 64 50 4 4 (51200)
I0428 20:34:42.458129  4511 net.cpp:139] Memory required for data: 19656960
I0428 20:34:42.458132  4511 layer_factory.hpp:77] Creating layer ip1
I0428 20:34:42.458139  4511 net.cpp:86] Creating Layer ip1
I0428 20:34:42.458142  4511 net.cpp:408] ip1 <- pool1
I0428 20:34:42.458148  4511 net.cpp:382] ip1 -> ip1
I0428 20:34:42.458499  4511 net.cpp:124] Setting up ip1
I0428 20:34:42.458508  4511 net.cpp:131] Top shape: 64 50 (3200)
I0428 20:34:42.458525  4511 net.cpp:139] Memory required for data: 19669760
I0428 20:34:42.458533  4511 layer_factory.hpp:77] Creating layer relu1
I0428 20:34:42.458537  4511 net.cpp:86] Creating Layer relu1
I0428 20:34:42.458541  4511 net.cpp:408] relu1 <- ip1
I0428 20:34:42.458546  4511 net.cpp:369] relu1 -> ip1 (in-place)
I0428 20:34:42.458711  4511 net.cpp:124] Setting up relu1
I0428 20:34:42.458720  4511 net.cpp:131] Top shape: 64 50 (3200)
I0428 20:34:42.458724  4511 net.cpp:139] Memory required for data: 19682560
I0428 20:34:42.458726  4511 layer_factory.hpp:77] Creating layer ip2
I0428 20:34:42.458732  4511 net.cpp:86] Creating Layer ip2
I0428 20:34:42.458735  4511 net.cpp:408] ip2 <- ip1
I0428 20:34:42.458741  4511 net.cpp:382] ip2 -> ip2
I0428 20:34:42.458838  4511 net.cpp:124] Setting up ip2
I0428 20:34:42.458845  4511 net.cpp:131] Top shape: 64 10 (640)
I0428 20:34:42.458848  4511 net.cpp:139] Memory required for data: 19685120
I0428 20:34:42.458853  4511 layer_factory.hpp:77] Creating layer relu2
I0428 20:34:42.458858  4511 net.cpp:86] Creating Layer relu2
I0428 20:34:42.458863  4511 net.cpp:408] relu2 <- ip2
I0428 20:34:42.458866  4511 net.cpp:369] relu2 -> ip2 (in-place)
I0428 20:34:42.459759  4511 net.cpp:124] Setting up relu2
I0428 20:34:42.459771  4511 net.cpp:131] Top shape: 64 10 (640)
I0428 20:34:42.459774  4511 net.cpp:139] Memory required for data: 19687680
I0428 20:34:42.459779  4511 layer_factory.hpp:77] Creating layer loss
I0428 20:34:42.459784  4511 net.cpp:86] Creating Layer loss
I0428 20:34:42.459787  4511 net.cpp:408] loss <- ip2
I0428 20:34:42.459792  4511 net.cpp:408] loss <- label
I0428 20:34:42.459797  4511 net.cpp:382] loss -> loss
I0428 20:34:42.459816  4511 layer_factory.hpp:77] Creating layer loss
…
I0428 20:34:42.460481  4511 solver.cpp:173] Creating test net (#0) specified by net file: ECE595/mnist/train_test/var_everything2/lenet_train_test1609.prototxt
I0428 20:34:42.460521  4511 net.cpp:296] The NetState phase (1) differed from the phase (0) specified by a rule in layer mnist
I0428 20:34:42.460654  4511 net.cpp:53] Initializing net from parameters: 
name: "LeNet"
state {
  phase: TEST
}
layer {
  name: "mnist"
  type: "Data"
  top: "data"
  top: "label"
  include {
    phase: TEST
  }
  transform_param {
    scale: 0.00390625
  }
  data_param {
    source: "examples/mnist/mnist_test_lmdb"
    batch_size: 100
    backend: LMDB
  }
}
layer {
  name: "conv0"
  type: "Convolution"
  bottom: "data"
  top: "conv0"
  param {
    lr_mult: 1
  }
  param {
    lr_mult: 2
  }
  convolution_param {
    num_output: 100
    kernel_size: 5
    stride: 1
    weight_filler {
      type: "xavier"
    }
    bias_filler {
      type: "constant"
    }
  }
}
layer {
  name: "pool0"
  type: "Pooling"
  bottom: "conv0"
  top: "pool0"
  pooling_param {
    pool: MAX
    kernel_size: 2
    stride: 2
  }
}
layer {
  name: "conv1"
  type: "Convolution"
  bottom: "pool0"
  top: "conv1"
  param {
    lr_mult: 1
  }
  param {
    lr_mult: 2
  }
  convolution_param {
    num_output: 50
    kernel_size: 5
    stride: 1
    weight_filler {
      type: "xavier"
    }
    bias_filler {
      type: "constant"
    }
  }
}
layer {
  name: "pool1"
  type: "Pooling"
  bottom: "conv1"
  top: "pool1"
  pooling_param {
    pool: MAX
    kernel_size: 2
    stride: 2
  }
}
layer {
  name: "ip1"
  type: "InnerProduct"
  bottom: "pool1"
  top: "ip1"
  param {
    lr_mult: 1
  }
  param {
    lr_mult: 2
  }
  inner_product_param {
    num_output: 50
    weight_filler {
      type: "xavier"
    }
    bias_filler {
      type: "constant"
    }
  }
}
layer {
  name: "relu1"
  type: "ReLU"
  bottom: "ip1"
  top: "ip1"
}
layer {
  name: "ip2"
  type: "InnerProduct"
  bottom: "ip1"
  top: "ip2"
  param {
    lr_mult: 1
  }
  param {
    lr_mult: 2
  }
  inner_product_param {
    num_output: 10
    weight_filler {
      type: "xavier"
    }
    bias_filler {
      type: "constant"
    }
  }
}
layer {
  name: "relu2"
  type: "ReLU"
  bottom: "ip2"
  top: "ip2"
}
layer {
  name: "accuracy"
  type: "Accuracy"
  bottom: "ip2"
  bottom: "label"
  top: "accuracy"
  include {
    phase: TEST
  }
}
layer {
  name: "loss"
  type: "SoftmaxWithLoss"
  bottom: "ip2"
  bottom: "label"
  top: "loss"
}
I0428 20:34:42.460726  4511 layer_factory.hpp:77] Creating layer mnist
I0428 20:34:42.460772  4511 db_lmdb.cpp:35] Opened lmdb examples/mnist/mnist_test_lmdb
I0428 20:34:42.460783  4511 net.cpp:86] Creating Layer mnist
I0428 20:34:42.460789  4511 net.cpp:382] mnist -> data
I0428 20:34:42.460796  4511 net.cpp:382] mnist -> label
I0428 20:34:42.460961  4511 data_layer.cpp:45] output data size: 100,1,28,28
I0428 20:34:42.462106  4511 net.cpp:124] Setting up mnist
I0428 20:34:42.462134  4511 net.cpp:131] Top shape: 100 1 28 28 (78400)
I0428 20:34:42.462139  4511 net.cpp:131] Top shape: 100 (100)
I0428 20:34:42.462142  4511 net.cpp:139] Memory required for data: 314000
I0428 20:34:42.462146  4511 layer_factory.hpp:77] Creating layer label_mnist_1_split
I0428 20:34:42.462152  4511 net.cpp:86] Creating Layer label_mnist_1_split
I0428 20:34:42.462154  4511 net.cpp:408] label_mnist_1_split <- label
I0428 20:34:42.462160  4511 net.cpp:382] label_mnist_1_split -> label_mnist_1_split_0
I0428 20:34:42.462167  4511 net.cpp:382] label_mnist_1_split -> label_mnist_1_split_1
I0428 20:34:42.462257  4511 net.cpp:124] Setting up label_mnist_1_split
I0428 20:34:42.462265  4511 net.cpp:131] Top shape: 100 (100)
I0428 20:34:42.462268  4511 net.cpp:131] Top shape: 100 (100)
I0428 20:34:42.462271  4511 net.cpp:139] Memory required for data: 314800
I0428 20:34:42.462275  4511 layer_factory.hpp:77] Creating layer conv0
I0428 20:34:42.462285  4511 net.cpp:86] Creating Layer conv0
I0428 20:34:42.462291  4511 net.cpp:408] conv0 <- data
I0428 20:34:42.462311  4511 net.cpp:382] conv0 -> conv0
I0428 20:34:42.464226  4511 net.cpp:124] Setting up conv0
I0428 20:34:42.464256  4511 net.cpp:131] Top shape: 100 100 24 24 (5760000)
I0428 20:34:42.464258  4511 net.cpp:139] Memory required for data: 23354800
I0428 20:34:42.464267  4511 layer_factory.hpp:77] Creating layer pool0
I0428 20:34:42.464275  4511 net.cpp:86] Creating Layer pool0
I0428 20:34:42.464278  4511 net.cpp:408] pool0 <- conv0
I0428 20:34:42.464283  4511 net.cpp:382] pool0 -> pool0
I0428 20:34:42.464339  4511 net.cpp:124] Setting up pool0
I0428 20:34:42.464346  4511 net.cpp:131] Top shape: 100 100 12 12 (1440000)
I0428 20:34:42.464349  4511 net.cpp:139] Memory required for data: 29114800
I0428 20:34:42.464351  4511 layer_factory.hpp:77] Creating layer conv1
I0428 20:34:42.464362  4511 net.cpp:86] Creating Layer conv1
I0428 20:34:42.464367  4511 net.cpp:408] conv1 <- pool0
I0428 20:34:42.464390  4511 net.cpp:382] conv1 -> conv1
I0428 20:34:42.467602  4511 net.cpp:124] Setting up conv1
I0428 20:34:42.467630  4511 net.cpp:131] Top shape: 100 50 8 8 (320000)
I0428 20:34:42.467634  4511 net.cpp:139] Memory required for data: 30394800
I0428 20:34:42.467641  4511 layer_factory.hpp:77] Creating layer pool1
I0428 20:34:42.467648  4511 net.cpp:86] Creating Layer pool1
I0428 20:34:42.467650  4511 net.cpp:408] pool1 <- conv1
I0428 20:34:42.467655  4511 net.cpp:382] pool1 -> pool1
I0428 20:34:42.467718  4511 net.cpp:124] Setting up pool1
I0428 20:34:42.467725  4511 net.cpp:131] Top shape: 100 50 4 4 (80000)
I0428 20:34:42.467727  4511 net.cpp:139] Memory required for data: 30714800
I0428 20:34:42.467730  4511 layer_factory.hpp:77] Creating layer ip1
I0428 20:34:42.467737  4511 net.cpp:86] Creating Layer ip1
I0428 20:34:42.467741  4511 net.cpp:408] ip1 <- pool1
I0428 20:34:42.467746  4511 net.cpp:382] ip1 -> ip1
I0428 20:34:42.468106  4511 net.cpp:124] Setting up ip1
I0428 20:34:42.468132  4511 net.cpp:131] Top shape: 100 50 (5000)
I0428 20:34:42.468142  4511 net.cpp:139] Memory required for data: 30734800
I0428 20:34:42.468150  4511 layer_factory.hpp:77] Creating layer relu1
I0428 20:34:42.468155  4511 net.cpp:86] Creating Layer relu1
I0428 20:34:42.468158  4511 net.cpp:408] relu1 <- ip1
I0428 20:34:42.468163  4511 net.cpp:369] relu1 -> ip1 (in-place)
I0428 20:34:42.468333  4511 net.cpp:124] Setting up relu1
I0428 20:34:42.468343  4511 net.cpp:131] Top shape: 100 50 (5000)
I0428 20:34:42.468345  4511 net.cpp:139] Memory required for data: 30754800
I0428 20:34:42.468348  4511 layer_factory.hpp:77] Creating layer ip2
I0428 20:34:42.468355  4511 net.cpp:86] Creating Layer ip2
I0428 20:34:42.468358  4511 net.cpp:408] ip2 <- ip1
I0428 20:34:42.468364  4511 net.cpp:382] ip2 -> ip2
I0428 20:34:42.468467  4511 net.cpp:124] Setting up ip2
I0428 20:34:42.468474  4511 net.cpp:131] Top shape: 100 10 (1000)
I0428 20:34:42.468477  4511 net.cpp:139] Memory required for data: 30758800
I0428 20:34:42.468482  4511 layer_factory.hpp:77] Creating layer relu2
I0428 20:34:42.468487  4511 net.cpp:86] Creating Layer relu2
I0428 20:34:42.468489  4511 net.cpp:408] relu2 <- ip2
I0428 20:34:42.468493  4511 net.cpp:369] relu2 -> ip2 (in-place)
I0428 20:34:42.468689  4511 net.cpp:124] Setting up relu2
I0428 20:34:42.468699  4511 net.cpp:131] Top shape: 100 10 (1000)
I0428 20:34:42.468703  4511 net.cpp:139] Memory required for data: 30762800
I0428 20:34:42.468706  4511 layer_factory.hpp:77] Creating layer ip2_relu2_0_split
I0428 20:34:42.468711  4511 net.cpp:86] Creating Layer ip2_relu2_0_split
I0428 20:34:42.468714  4511 net.cpp:408] ip2_relu2_0_split <- ip2
I0428 20:34:42.468719  4511 net.cpp:382] ip2_relu2_0_split -> ip2_relu2_0_split_0
I0428 20:34:42.468751  4511 net.cpp:382] ip2_relu2_0_split -> ip2_relu2_0_split_1
I0428 20:34:42.468853  4511 net.cpp:124] Setting up ip2_relu2_0_split
I0428 20:34:42.468863  4511 net.cpp:131] Top shape: 100 10 (1000)
I0428 20:34:42.468866  4511 net.cpp:131] Top shape: 100 10 (1000)
I0428 20:34:42.468869  4511 net.cpp:139] Memory required for data: 30770800
I0428 20:34:42.468873  4511 layer_factory.hpp:77] Creating layer accuracy
I0428 20:34:42.468886  4511 net.cpp:86] Creating Layer accuracy
I0428 20:34:42.468893  4511 net.cpp:408] accuracy <- ip2_relu2_0_split_0
I0428 20:34:42.468899  4511 net.cpp:408] accuracy <- label_mnist_1_split_0
I0428 20:34:42.468904  4511 net.cpp:382] accuracy -> accuracy
…
