…
I0428 20:09:33.831202 31649 net.cpp:296] The NetState phase (0) differed from the phase (1) specified by a rule in layer mnist
I0428 20:09:33.831233 31649 net.cpp:296] The NetState phase (0) differed from the phase (1) specified by a rule in layer accuracy
I0428 20:09:33.831311 31649 net.cpp:53] Initializing net from parameters: 
name: "LeNet"
state {
  phase: TRAIN
  level: 0
  stage: ""
}
layer {
  name: "mnist"
  type: "Data"
  top: "data"
  top: "label"
  include {
    phase: TRAIN
  }
  transform_param {
    scale: 0.00390625
  }
  data_param {
    source: "examples/mnist/mnist_train_lmdb"
    batch_size: 64
    backend: LMDB
  }
}
layer {
  name: "conv0"
  type: "Convolution"
  bottom: "data"
  top: "conv0"
  param {
    lr_mult: 1
  }
  param {
    lr_mult: 2
  }
  convolution_param {
    num_output: 25
    kernel_size: 5
    stride: 1
    weight_filler {
      type: "xavier"
    }
    bias_filler {
      type: "constant"
    }
  }
}
layer {
  name: "pool0"
  type: "Pooling"
  bottom: "conv0"
  top: "pool0"
  pooling_param {
    pool: MAX
    kernel_size: 2
    stride: 2
  }
}
layer {
  name: "conv1"
  type: "Convolution"
  bottom: "pool0"
  top: "conv1"
  param {
    lr_mult: 1
  }
  param {
    lr_mult: 2
  }
  convolution_param {
    num_output: 25
    kernel_size: 5
    stride: 1
    weight_filler {
      type: "xavier"
    }
    bias_filler {
      type: "constant"
    }
  }
}
layer {
  name: "pool1"
  type: "Pooling"
  bottom: "conv1"
  top: "pool1"
  pooling_param {
    pool: MAX
    kernel_size: 2
    stride: 2
  }
}
layer {
  name: "ip1"
  type: "InnerProduct"
  bottom: "pool1"
  top: "ip1"
  param {
    lr_mult: 1
  }
  param {
    lr_mult: 2
  }
  inner_product_param {
    num_output: 10
    weight_filler {
      type: "xavier"
    }
    bias_filler {
      type: "constant"
    }
  }
}
layer {
  name: "relu1"
  type: "ReLU"
  bottom: "ip1"
  top: "ip1"
}
layer {
  name: "ip2"
  type: "InnerProduct"
  bottom: "ip1"
  top: "ip2"
  param {
    lr_mult: 1
  }
  param {
    lr_mult: 2
  }
  inner_product_param {
    num_output: 50
    weight_filler {
      type: "xavier"
    }
    bias_filler {
      type: "constant"
    }
  }
}
layer {
  name: "relu2"
  type: "ReLU"
  bottom: "ip2"
  top: "ip2"
}
layer {
  name: "ip3"
  type: "InnerProduct"
  bottom: "ip2"
  top: "ip3"
  param {
    lr_mult: 1
  }
  param {
    lr_mult: 2
  }
  inner_product_param {
    num_output: 10
    weight_filler {
      type: "xavier"
    }
    bias_filler {
      type: "constant"
    }
  }
}
layer {
  name: "relu3"
  type: "ReLU"
  bottom: "ip3"
  top: "ip3"
}
layer {
  name: "loss"
  type: "SoftmaxWithLoss"
  bottom: "ip3"
  bottom: "label"
  top: "loss"
}
I0428 20:09:33.831374 31649 layer_factory.hpp:77] Creating layer mnist
I0428 20:09:33.831457 31649 db_lmdb.cpp:35] Opened lmdb examples/mnist/mnist_train_lmdb
I0428 20:09:33.831476 31649 net.cpp:86] Creating Layer mnist
I0428 20:09:33.831483 31649 net.cpp:382] mnist -> data
I0428 20:09:33.831501 31649 net.cpp:382] mnist -> label
I0428 20:09:33.832489 31649 data_layer.cpp:45] output data size: 64,1,28,28
I0428 20:09:33.834720 31649 net.cpp:124] Setting up mnist
I0428 20:09:33.834751 31649 net.cpp:131] Top shape: 64 1 28 28 (50176)
I0428 20:09:33.834756 31649 net.cpp:131] Top shape: 64 (64)
I0428 20:09:33.834760 31649 net.cpp:139] Memory required for data: 200960
I0428 20:09:33.834765 31649 layer_factory.hpp:77] Creating layer conv0
I0428 20:09:33.834780 31649 net.cpp:86] Creating Layer conv0
I0428 20:09:33.834797 31649 net.cpp:408] conv0 <- data
I0428 20:09:33.834808 31649 net.cpp:382] conv0 -> conv0
I0428 20:09:34.073832 31649 net.cpp:124] Setting up conv0
I0428 20:09:34.073873 31649 net.cpp:131] Top shape: 64 25 24 24 (921600)
I0428 20:09:34.073878 31649 net.cpp:139] Memory required for data: 3887360
I0428 20:09:34.073894 31649 layer_factory.hpp:77] Creating layer pool0
I0428 20:09:34.073922 31649 net.cpp:86] Creating Layer pool0
I0428 20:09:34.073926 31649 net.cpp:408] pool0 <- conv0
I0428 20:09:34.073932 31649 net.cpp:382] pool0 -> pool0
I0428 20:09:34.073976 31649 net.cpp:124] Setting up pool0
I0428 20:09:34.073984 31649 net.cpp:131] Top shape: 64 25 12 12 (230400)
I0428 20:09:34.073987 31649 net.cpp:139] Memory required for data: 4808960
I0428 20:09:34.073989 31649 layer_factory.hpp:77] Creating layer conv1
I0428 20:09:34.074002 31649 net.cpp:86] Creating Layer conv1
I0428 20:09:34.074004 31649 net.cpp:408] conv1 <- pool0
I0428 20:09:34.074009 31649 net.cpp:382] conv1 -> conv1
I0428 20:09:34.076907 31649 net.cpp:124] Setting up conv1
I0428 20:09:34.076936 31649 net.cpp:131] Top shape: 64 25 8 8 (102400)
I0428 20:09:34.076941 31649 net.cpp:139] Memory required for data: 5218560
I0428 20:09:34.076948 31649 layer_factory.hpp:77] Creating layer pool1
I0428 20:09:34.076956 31649 net.cpp:86] Creating Layer pool1
I0428 20:09:34.076959 31649 net.cpp:408] pool1 <- conv1
I0428 20:09:34.076964 31649 net.cpp:382] pool1 -> pool1
I0428 20:09:34.077015 31649 net.cpp:124] Setting up pool1
I0428 20:09:34.077021 31649 net.cpp:131] Top shape: 64 25 4 4 (25600)
I0428 20:09:34.077024 31649 net.cpp:139] Memory required for data: 5320960
I0428 20:09:34.077028 31649 layer_factory.hpp:77] Creating layer ip1
I0428 20:09:34.077033 31649 net.cpp:86] Creating Layer ip1
I0428 20:09:34.077036 31649 net.cpp:408] ip1 <- pool1
I0428 20:09:34.077041 31649 net.cpp:382] ip1 -> ip1
I0428 20:09:34.078083 31649 net.cpp:124] Setting up ip1
I0428 20:09:34.078096 31649 net.cpp:131] Top shape: 64 10 (640)
I0428 20:09:34.078116 31649 net.cpp:139] Memory required for data: 5323520
I0428 20:09:34.078125 31649 layer_factory.hpp:77] Creating layer relu1
I0428 20:09:34.078131 31649 net.cpp:86] Creating Layer relu1
I0428 20:09:34.078135 31649 net.cpp:408] relu1 <- ip1
I0428 20:09:34.078138 31649 net.cpp:369] relu1 -> ip1 (in-place)
I0428 20:09:34.078353 31649 net.cpp:124] Setting up relu1
I0428 20:09:34.078362 31649 net.cpp:131] Top shape: 64 10 (640)
I0428 20:09:34.078366 31649 net.cpp:139] Memory required for data: 5326080
I0428 20:09:34.078368 31649 layer_factory.hpp:77] Creating layer ip2
I0428 20:09:34.078375 31649 net.cpp:86] Creating Layer ip2
I0428 20:09:34.078378 31649 net.cpp:408] ip2 <- ip1
I0428 20:09:34.078383 31649 net.cpp:382] ip2 -> ip2
I0428 20:09:34.078482 31649 net.cpp:124] Setting up ip2
I0428 20:09:34.078490 31649 net.cpp:131] Top shape: 64 50 (3200)
I0428 20:09:34.078492 31649 net.cpp:139] Memory required for data: 5338880
I0428 20:09:34.078497 31649 layer_factory.hpp:77] Creating layer relu2
I0428 20:09:34.078503 31649 net.cpp:86] Creating Layer relu2
I0428 20:09:34.078506 31649 net.cpp:408] relu2 <- ip2
I0428 20:09:34.078511 31649 net.cpp:369] relu2 -> ip2 (in-place)
I0428 20:09:34.079289 31649 net.cpp:124] Setting up relu2
I0428 20:09:34.079301 31649 net.cpp:131] Top shape: 64 50 (3200)
I0428 20:09:34.079321 31649 net.cpp:139] Memory required for data: 5351680
I0428 20:09:34.079325 31649 layer_factory.hpp:77] Creating layer ip3
I0428 20:09:34.079332 31649 net.cpp:86] Creating Layer ip3
I0428 20:09:34.079350 31649 net.cpp:408] ip3 <- ip2
I0428 20:09:34.079356 31649 net.cpp:382] ip3 -> ip3
I0428 20:09:34.079460 31649 net.cpp:124] Setting up ip3
I0428 20:09:34.079468 31649 net.cpp:131] Top shape: 64 10 (640)
I0428 20:09:34.079470 31649 net.cpp:139] Memory required for data: 5354240
I0428 20:09:34.079479 31649 layer_factory.hpp:77] Creating layer relu3
I0428 20:09:34.079484 31649 net.cpp:86] Creating Layer relu3
I0428 20:09:34.079488 31649 net.cpp:408] relu3 <- ip3
I0428 20:09:34.079491 31649 net.cpp:369] relu3 -> ip3 (in-place)
I0428 20:09:34.079676 31649 net.cpp:124] Setting up relu3
I0428 20:09:34.079684 31649 net.cpp:131] Top shape: 64 10 (640)
I0428 20:09:34.079687 31649 net.cpp:139] Memory required for data: 5356800
I0428 20:09:34.079690 31649 layer_factory.hpp:77] Creating layer loss
I0428 20:09:34.079695 31649 net.cpp:86] Creating Layer loss
I0428 20:09:34.079699 31649 net.cpp:408] loss <- ip3
I0428 20:09:34.079702 31649 net.cpp:408] loss <- label
I0428 20:09:34.079708 31649 net.cpp:382] loss -> loss
I0428 20:09:34.079735 31649 layer_factory.hpp:77] Creating layer loss
…
I0428 20:09:34.080343 31649 solver.cpp:173] Creating test net (#0) specified by net file: ECE595/mnist/train_test/var_everything2/lenet_train_test1112.prototxt
I0428 20:09:34.080379 31649 net.cpp:296] The NetState phase (1) differed from the phase (0) specified by a rule in layer mnist
I0428 20:09:34.080479 31649 net.cpp:53] Initializing net from parameters: 
name: "LeNet"
state {
  phase: TEST
}
layer {
  name: "mnist"
  type: "Data"
  top: "data"
  top: "label"
  include {
    phase: TEST
  }
  transform_param {
    scale: 0.00390625
  }
  data_param {
    source: "examples/mnist/mnist_test_lmdb"
    batch_size: 100
    backend: LMDB
  }
}
layer {
  name: "conv0"
  type: "Convolution"
  bottom: "data"
  top: "conv0"
  param {
    lr_mult: 1
  }
  param {
    lr_mult: 2
  }
  convolution_param {
    num_output: 25
    kernel_size: 5
    stride: 1
    weight_filler {
      type: "xavier"
    }
    bias_filler {
      type: "constant"
    }
  }
}
layer {
  name: "pool0"
  type: "Pooling"
  bottom: "conv0"
  top: "pool0"
  pooling_param {
    pool: MAX
    kernel_size: 2
    stride: 2
  }
}
layer {
  name: "conv1"
  type: "Convolution"
  bottom: "pool0"
  top: "conv1"
  param {
    lr_mult: 1
  }
  param {
    lr_mult: 2
  }
  convolution_param {
    num_output: 25
    kernel_size: 5
    stride: 1
    weight_filler {
      type: "xavier"
    }
    bias_filler {
      type: "constant"
    }
  }
}
layer {
  name: "pool1"
  type: "Pooling"
  bottom: "conv1"
  top: "pool1"
  pooling_param {
    pool: MAX
    kernel_size: 2
    stride: 2
  }
}
layer {
  name: "ip1"
  type: "InnerProduct"
  bottom: "pool1"
  top: "ip1"
  param {
    lr_mult: 1
  }
  param {
    lr_mult: 2
  }
  inner_product_param {
    num_output: 10
    weight_filler {
      type: "xavier"
    }
    bias_filler {
      type: "constant"
    }
  }
}
layer {
  name: "relu1"
  type: "ReLU"
  bottom: "ip1"
  top: "ip1"
}
layer {
  name: "ip2"
  type: "InnerProduct"
  bottom: "ip1"
  top: "ip2"
  param {
    lr_mult: 1
  }
  param {
    lr_mult: 2
  }
  inner_product_param {
    num_output: 50
    weight_filler {
      type: "xavier"
    }
    bias_filler {
      type: "constant"
    }
  }
}
layer {
  name: "relu2"
  type: "ReLU"
  bottom: "ip2"
  top: "ip2"
}
layer {
  name: "ip3"
  type: "InnerProduct"
  bottom: "ip2"
  top: "ip3"
  param {
    lr_mult: 1
  }
  param {
    lr_mult: 2
  }
  inner_product_param {
    num_output: 10
    weight_filler {
      type: "xavier"
    }
    bias_filler {
      type: "constant"
    }
  }
}
layer {
  name: "relu3"
  type: "ReLU"
  bottom: "ip3"
  top: "ip3"
}
layer {
  name: "accuracy"
  type: "Accuracy"
  bottom: "ip3"
  bottom: "label"
  top: "accuracy"
  include {
    phase: TEST
  }
}
layer {
  name: "loss"
  type: "SoftmaxWithLoss"
  bottom: "ip3"
  bottom: "label"
  top: "loss"
}
I0428 20:09:34.080555 31649 layer_factory.hpp:77] Creating layer mnist
I0428 20:09:34.080600 31649 db_lmdb.cpp:35] Opened lmdb examples/mnist/mnist_test_lmdb
I0428 20:09:34.080611 31649 net.cpp:86] Creating Layer mnist
I0428 20:09:34.080615 31649 net.cpp:382] mnist -> data
I0428 20:09:34.080623 31649 net.cpp:382] mnist -> label
I0428 20:09:34.080708 31649 data_layer.cpp:45] output data size: 100,1,28,28
I0428 20:09:34.082718 31649 net.cpp:124] Setting up mnist
I0428 20:09:34.082731 31649 net.cpp:131] Top shape: 100 1 28 28 (78400)
I0428 20:09:34.082752 31649 net.cpp:131] Top shape: 100 (100)
I0428 20:09:34.082756 31649 net.cpp:139] Memory required for data: 314000
I0428 20:09:34.082775 31649 layer_factory.hpp:77] Creating layer label_mnist_1_split
I0428 20:09:34.082782 31649 net.cpp:86] Creating Layer label_mnist_1_split
I0428 20:09:34.082785 31649 net.cpp:408] label_mnist_1_split <- label
I0428 20:09:34.082790 31649 net.cpp:382] label_mnist_1_split -> label_mnist_1_split_0
I0428 20:09:34.082798 31649 net.cpp:382] label_mnist_1_split -> label_mnist_1_split_1
I0428 20:09:34.082896 31649 net.cpp:124] Setting up label_mnist_1_split
I0428 20:09:34.082904 31649 net.cpp:131] Top shape: 100 (100)
I0428 20:09:34.082908 31649 net.cpp:131] Top shape: 100 (100)
I0428 20:09:34.082911 31649 net.cpp:139] Memory required for data: 314800
I0428 20:09:34.082914 31649 layer_factory.hpp:77] Creating layer conv0
I0428 20:09:34.082923 31649 net.cpp:86] Creating Layer conv0
I0428 20:09:34.082927 31649 net.cpp:408] conv0 <- data
I0428 20:09:34.082932 31649 net.cpp:382] conv0 -> conv0
I0428 20:09:34.084615 31649 net.cpp:124] Setting up conv0
I0428 20:09:34.084645 31649 net.cpp:131] Top shape: 100 25 24 24 (1440000)
I0428 20:09:34.084650 31649 net.cpp:139] Memory required for data: 6074800
I0428 20:09:34.084657 31649 layer_factory.hpp:77] Creating layer pool0
I0428 20:09:34.084664 31649 net.cpp:86] Creating Layer pool0
I0428 20:09:34.084667 31649 net.cpp:408] pool0 <- conv0
I0428 20:09:34.084672 31649 net.cpp:382] pool0 -> pool0
I0428 20:09:34.084708 31649 net.cpp:124] Setting up pool0
I0428 20:09:34.084714 31649 net.cpp:131] Top shape: 100 25 12 12 (360000)
I0428 20:09:34.084717 31649 net.cpp:139] Memory required for data: 7514800
I0428 20:09:34.084720 31649 layer_factory.hpp:77] Creating layer conv1
I0428 20:09:34.084728 31649 net.cpp:86] Creating Layer conv1
I0428 20:09:34.084731 31649 net.cpp:408] conv1 <- pool0
I0428 20:09:34.084736 31649 net.cpp:382] conv1 -> conv1
I0428 20:09:34.087132 31649 net.cpp:124] Setting up conv1
I0428 20:09:34.087162 31649 net.cpp:131] Top shape: 100 25 8 8 (160000)
I0428 20:09:34.087167 31649 net.cpp:139] Memory required for data: 8154800
I0428 20:09:34.087175 31649 layer_factory.hpp:77] Creating layer pool1
I0428 20:09:34.087183 31649 net.cpp:86] Creating Layer pool1
I0428 20:09:34.087186 31649 net.cpp:408] pool1 <- conv1
I0428 20:09:34.087191 31649 net.cpp:382] pool1 -> pool1
I0428 20:09:34.087231 31649 net.cpp:124] Setting up pool1
I0428 20:09:34.087239 31649 net.cpp:131] Top shape: 100 25 4 4 (40000)
I0428 20:09:34.087242 31649 net.cpp:139] Memory required for data: 8314800
I0428 20:09:34.087245 31649 layer_factory.hpp:77] Creating layer ip1
I0428 20:09:34.087251 31649 net.cpp:86] Creating Layer ip1
I0428 20:09:34.087255 31649 net.cpp:408] ip1 <- pool1
I0428 20:09:34.087260 31649 net.cpp:382] ip1 -> ip1
I0428 20:09:34.087409 31649 net.cpp:124] Setting up ip1
I0428 20:09:34.087417 31649 net.cpp:131] Top shape: 100 10 (1000)
I0428 20:09:34.087431 31649 net.cpp:139] Memory required for data: 8318800
I0428 20:09:34.087438 31649 layer_factory.hpp:77] Creating layer relu1
I0428 20:09:34.087443 31649 net.cpp:86] Creating Layer relu1
I0428 20:09:34.087446 31649 net.cpp:408] relu1 <- ip1
I0428 20:09:34.087450 31649 net.cpp:369] relu1 -> ip1 (in-place)
I0428 20:09:34.087643 31649 net.cpp:124] Setting up relu1
I0428 20:09:34.087653 31649 net.cpp:131] Top shape: 100 10 (1000)
I0428 20:09:34.087656 31649 net.cpp:139] Memory required for data: 8322800
I0428 20:09:34.087661 31649 layer_factory.hpp:77] Creating layer ip2
I0428 20:09:34.087666 31649 net.cpp:86] Creating Layer ip2
I0428 20:09:34.087671 31649 net.cpp:408] ip2 <- ip1
I0428 20:09:34.087676 31649 net.cpp:382] ip2 -> ip2
I0428 20:09:34.087779 31649 net.cpp:124] Setting up ip2
I0428 20:09:34.087785 31649 net.cpp:131] Top shape: 100 50 (5000)
I0428 20:09:34.087790 31649 net.cpp:139] Memory required for data: 8342800
I0428 20:09:34.087795 31649 layer_factory.hpp:77] Creating layer relu2
I0428 20:09:34.087800 31649 net.cpp:86] Creating Layer relu2
I0428 20:09:34.087802 31649 net.cpp:408] relu2 <- ip2
I0428 20:09:34.087806 31649 net.cpp:369] relu2 -> ip2 (in-place)
I0428 20:09:34.087971 31649 net.cpp:124] Setting up relu2
I0428 20:09:34.087978 31649 net.cpp:131] Top shape: 100 50 (5000)
I0428 20:09:34.087981 31649 net.cpp:139] Memory required for data: 8362800
I0428 20:09:34.087985 31649 layer_factory.hpp:77] Creating layer ip3
I0428 20:09:34.087990 31649 net.cpp:86] Creating Layer ip3
I0428 20:09:34.087992 31649 net.cpp:408] ip3 <- ip2
I0428 20:09:34.087997 31649 net.cpp:382] ip3 -> ip3
I0428 20:09:34.088150 31649 net.cpp:124] Setting up ip3
I0428 20:09:34.088157 31649 net.cpp:131] Top shape: 100 10 (1000)
I0428 20:09:34.088160 31649 net.cpp:139] Memory required for data: 8366800
I0428 20:09:34.088168 31649 layer_factory.hpp:77] Creating layer relu3
I0428 20:09:34.088173 31649 net.cpp:86] Creating Layer relu3
I0428 20:09:34.088176 31649 net.cpp:408] relu3 <- ip3
I0428 20:09:34.088182 31649 net.cpp:369] relu3 -> ip3 (in-place)
I0428 20:09:34.088994 31649 net.cpp:124] Setting up relu3
I0428 20:09:34.089006 31649 net.cpp:131] Top shape: 100 10 (1000)
I0428 20:09:34.089025 31649 net.cpp:139] Memory required for data: 8370800
I0428 20:09:34.089030 31649 layer_factory.hpp:77] Creating layer ip3_relu3_0_split
I0428 20:09:34.089035 31649 net.cpp:86] Creating Layer ip3_relu3_0_split
I0428 20:09:34.089037 31649 net.cpp:408] ip3_relu3_0_split <- ip3
I0428 20:09:34.089043 31649 net.cpp:382] ip3_relu3_0_split -> ip3_relu3_0_split_0
I0428 20:09:34.089049 31649 net.cpp:382] ip3_relu3_0_split -> ip3_relu3_0_split_1
I0428 20:09:34.089092 31649 net.cpp:124] Setting up ip3_relu3_0_split
I0428 20:09:34.089097 31649 net.cpp:131] Top shape: 100 10 (1000)
I0428 20:09:34.089102 31649 net.cpp:131] Top shape: 100 10 (1000)
I0428 20:09:34.089103 31649 net.cpp:139] Memory required for data: 8378800
I0428 20:09:34.089107 31649 layer_factory.hpp:77] Creating layer accuracy
I0428 20:09:34.089112 31649 net.cpp:86] Creating Layer accuracy
I0428 20:09:34.089115 31649 net.cpp:408] accuracy <- ip3_relu3_0_split_0
I0428 20:09:34.089119 31649 net.cpp:408] accuracy <- label_mnist_1_split_0
I0428 20:09:34.089124 31649 net.cpp:382] accuracy -> accuracy
…
