…
I0428 20:15:28.833797   452 net.cpp:296] The NetState phase (0) differed from the phase (1) specified by a rule in layer mnist
I0428 20:15:28.833827   452 net.cpp:296] The NetState phase (0) differed from the phase (1) specified by a rule in layer accuracy
I0428 20:15:28.833910   452 net.cpp:53] Initializing net from parameters: 
name: "LeNet"
state {
  phase: TRAIN
  level: 0
  stage: ""
}
layer {
  name: "mnist"
  type: "Data"
  top: "data"
  top: "label"
  include {
    phase: TRAIN
  }
  transform_param {
    scale: 0.00390625
  }
  data_param {
    source: "examples/mnist/mnist_train_lmdb"
    batch_size: 64
    backend: LMDB
  }
}
layer {
  name: "conv0"
  type: "Convolution"
  bottom: "data"
  top: "conv0"
  param {
    lr_mult: 1
  }
  param {
    lr_mult: 2
  }
  convolution_param {
    num_output: 50
    kernel_size: 5
    stride: 1
    weight_filler {
      type: "xavier"
    }
    bias_filler {
      type: "constant"
    }
  }
}
layer {
  name: "pool0"
  type: "Pooling"
  bottom: "conv0"
  top: "pool0"
  pooling_param {
    pool: MAX
    kernel_size: 2
    stride: 2
  }
}
layer {
  name: "conv1"
  type: "Convolution"
  bottom: "pool0"
  top: "conv1"
  param {
    lr_mult: 1
  }
  param {
    lr_mult: 2
  }
  convolution_param {
    num_output: 2
    kernel_size: 5
    stride: 1
    weight_filler {
      type: "xavier"
    }
    bias_filler {
      type: "constant"
    }
  }
}
layer {
  name: "pool1"
  type: "Pooling"
  bottom: "conv1"
  top: "pool1"
  pooling_param {
    pool: MAX
    kernel_size: 2
    stride: 2
  }
}
layer {
  name: "ip1"
  type: "InnerProduct"
  bottom: "pool1"
  top: "ip1"
  param {
    lr_mult: 1
  }
  param {
    lr_mult: 2
  }
  inner_product_param {
    num_output: 50
    weight_filler {
      type: "xavier"
    }
    bias_filler {
      type: "constant"
    }
  }
}
layer {
  name: "relu1"
  type: "ReLU"
  bottom: "ip1"
  top: "ip1"
}
layer {
  name: "ip2"
  type: "InnerProduct"
  bottom: "ip1"
  top: "ip2"
  param {
    lr_mult: 1
  }
  param {
    lr_mult: 2
  }
  inner_product_param {
    num_output: 50
    weight_filler {
      type: "xavier"
    }
    bias_filler {
      type: "constant"
    }
  }
}
layer {
  name: "relu2"
  type: "ReLU"
  bottom: "ip2"
  top: "ip2"
}
layer {
  name: "ip3"
  type: "InnerProduct"
  bottom: "ip2"
  top: "ip3"
  param {
    lr_mult: 1
  }
  param {
    lr_mult: 2
  }
  inner_product_param {
    num_output: 10
    weight_filler {
      type: "xavier"
    }
    bias_filler {
      type: "constant"
    }
  }
}
layer {
  name: "relu3"
  type: "ReLU"
  bottom: "ip3"
  top: "ip3"
}
layer {
  name: "loss"
  type: "SoftmaxWithLoss"
  bottom: "ip3"
  bottom: "label"
  top: "loss"
}
I0428 20:15:28.833991   452 layer_factory.hpp:77] Creating layer mnist
I0428 20:15:28.834071   452 db_lmdb.cpp:35] Opened lmdb examples/mnist/mnist_train_lmdb
I0428 20:15:28.834090   452 net.cpp:86] Creating Layer mnist
I0428 20:15:28.834096   452 net.cpp:382] mnist -> data
I0428 20:15:28.834115   452 net.cpp:382] mnist -> label
I0428 20:15:28.835211   452 data_layer.cpp:45] output data size: 64,1,28,28
I0428 20:15:28.837510   452 net.cpp:124] Setting up mnist
I0428 20:15:28.837548   452 net.cpp:131] Top shape: 64 1 28 28 (50176)
I0428 20:15:28.837570   452 net.cpp:131] Top shape: 64 (64)
I0428 20:15:28.837575   452 net.cpp:139] Memory required for data: 200960
I0428 20:15:28.837584   452 layer_factory.hpp:77] Creating layer conv0
I0428 20:15:28.837602   452 net.cpp:86] Creating Layer conv0
I0428 20:15:28.837621   452 net.cpp:408] conv0 <- data
I0428 20:15:28.837631   452 net.cpp:382] conv0 -> conv0
I0428 20:15:29.075001   452 net.cpp:124] Setting up conv0
I0428 20:15:29.075027   452 net.cpp:131] Top shape: 64 50 24 24 (1843200)
I0428 20:15:29.075031   452 net.cpp:139] Memory required for data: 7573760
I0428 20:15:29.075045   452 layer_factory.hpp:77] Creating layer pool0
I0428 20:15:29.075057   452 net.cpp:86] Creating Layer pool0
I0428 20:15:29.075063   452 net.cpp:408] pool0 <- conv0
I0428 20:15:29.075068   452 net.cpp:382] pool0 -> pool0
I0428 20:15:29.075130   452 net.cpp:124] Setting up pool0
I0428 20:15:29.075135   452 net.cpp:131] Top shape: 64 50 12 12 (460800)
I0428 20:15:29.075139   452 net.cpp:139] Memory required for data: 9416960
I0428 20:15:29.075141   452 layer_factory.hpp:77] Creating layer conv1
I0428 20:15:29.075152   452 net.cpp:86] Creating Layer conv1
I0428 20:15:29.075155   452 net.cpp:408] conv1 <- pool0
I0428 20:15:29.075160   452 net.cpp:382] conv1 -> conv1
I0428 20:15:29.077030   452 net.cpp:124] Setting up conv1
I0428 20:15:29.077060   452 net.cpp:131] Top shape: 64 2 8 8 (8192)
I0428 20:15:29.077064   452 net.cpp:139] Memory required for data: 9449728
I0428 20:15:29.077075   452 layer_factory.hpp:77] Creating layer pool1
I0428 20:15:29.077081   452 net.cpp:86] Creating Layer pool1
I0428 20:15:29.077085   452 net.cpp:408] pool1 <- conv1
I0428 20:15:29.077090   452 net.cpp:382] pool1 -> pool1
I0428 20:15:29.077127   452 net.cpp:124] Setting up pool1
I0428 20:15:29.077133   452 net.cpp:131] Top shape: 64 2 4 4 (2048)
I0428 20:15:29.077136   452 net.cpp:139] Memory required for data: 9457920
I0428 20:15:29.077138   452 layer_factory.hpp:77] Creating layer ip1
I0428 20:15:29.077145   452 net.cpp:86] Creating Layer ip1
I0428 20:15:29.077148   452 net.cpp:408] ip1 <- pool1
I0428 20:15:29.077153   452 net.cpp:382] ip1 -> ip1
I0428 20:15:29.077288   452 net.cpp:124] Setting up ip1
I0428 20:15:29.077296   452 net.cpp:131] Top shape: 64 50 (3200)
I0428 20:15:29.077301   452 net.cpp:139] Memory required for data: 9470720
I0428 20:15:29.077307   452 layer_factory.hpp:77] Creating layer relu1
I0428 20:15:29.077313   452 net.cpp:86] Creating Layer relu1
I0428 20:15:29.077317   452 net.cpp:408] relu1 <- ip1
I0428 20:15:29.077322   452 net.cpp:369] relu1 -> ip1 (in-place)
I0428 20:15:29.077492   452 net.cpp:124] Setting up relu1
I0428 20:15:29.077502   452 net.cpp:131] Top shape: 64 50 (3200)
I0428 20:15:29.077505   452 net.cpp:139] Memory required for data: 9483520
I0428 20:15:29.077508   452 layer_factory.hpp:77] Creating layer ip2
I0428 20:15:29.077515   452 net.cpp:86] Creating Layer ip2
I0428 20:15:29.077518   452 net.cpp:408] ip2 <- ip1
I0428 20:15:29.077524   452 net.cpp:382] ip2 -> ip2
I0428 20:15:29.077661   452 net.cpp:124] Setting up ip2
I0428 20:15:29.077667   452 net.cpp:131] Top shape: 64 50 (3200)
I0428 20:15:29.077671   452 net.cpp:139] Memory required for data: 9496320
I0428 20:15:29.077675   452 layer_factory.hpp:77] Creating layer relu2
I0428 20:15:29.077682   452 net.cpp:86] Creating Layer relu2
I0428 20:15:29.077684   452 net.cpp:408] relu2 <- ip2
I0428 20:15:29.077688   452 net.cpp:369] relu2 -> ip2 (in-place)
I0428 20:15:29.078457   452 net.cpp:124] Setting up relu2
I0428 20:15:29.078485   452 net.cpp:131] Top shape: 64 50 (3200)
I0428 20:15:29.078490   452 net.cpp:139] Memory required for data: 9509120
I0428 20:15:29.078492   452 layer_factory.hpp:77] Creating layer ip3
I0428 20:15:29.078501   452 net.cpp:86] Creating Layer ip3
I0428 20:15:29.078505   452 net.cpp:408] ip3 <- ip2
I0428 20:15:29.078510   452 net.cpp:382] ip3 -> ip3
I0428 20:15:29.078619   452 net.cpp:124] Setting up ip3
I0428 20:15:29.078627   452 net.cpp:131] Top shape: 64 10 (640)
I0428 20:15:29.078630   452 net.cpp:139] Memory required for data: 9511680
I0428 20:15:29.078639   452 layer_factory.hpp:77] Creating layer relu3
I0428 20:15:29.078644   452 net.cpp:86] Creating Layer relu3
I0428 20:15:29.078646   452 net.cpp:408] relu3 <- ip3
I0428 20:15:29.078649   452 net.cpp:369] relu3 -> ip3 (in-place)
I0428 20:15:29.078838   452 net.cpp:124] Setting up relu3
I0428 20:15:29.078848   452 net.cpp:131] Top shape: 64 10 (640)
I0428 20:15:29.078851   452 net.cpp:139] Memory required for data: 9514240
I0428 20:15:29.078855   452 layer_factory.hpp:77] Creating layer loss
I0428 20:15:29.078860   452 net.cpp:86] Creating Layer loss
I0428 20:15:29.078862   452 net.cpp:408] loss <- ip3
I0428 20:15:29.078866   452 net.cpp:408] loss <- label
I0428 20:15:29.078872   452 net.cpp:382] loss -> loss
I0428 20:15:29.078889   452 layer_factory.hpp:77] Creating layer loss
…
I0428 20:15:29.079627   452 solver.cpp:173] Creating test net (#0) specified by net file: ECE595/mnist/train_test/var_everything2/lenet_train_test1247.prototxt
I0428 20:15:29.079670   452 net.cpp:296] The NetState phase (1) differed from the phase (0) specified by a rule in layer mnist
I0428 20:15:29.079792   452 net.cpp:53] Initializing net from parameters: 
name: "LeNet"
state {
  phase: TEST
}
layer {
  name: "mnist"
  type: "Data"
  top: "data"
  top: "label"
  include {
    phase: TEST
  }
  transform_param {
    scale: 0.00390625
  }
  data_param {
    source: "examples/mnist/mnist_test_lmdb"
    batch_size: 100
    backend: LMDB
  }
}
layer {
  name: "conv0"
  type: "Convolution"
  bottom: "data"
  top: "conv0"
  param {
    lr_mult: 1
  }
  param {
    lr_mult: 2
  }
  convolution_param {
    num_output: 50
    kernel_size: 5
    stride: 1
    weight_filler {
      type: "xavier"
    }
    bias_filler {
      type: "constant"
    }
  }
}
layer {
  name: "pool0"
  type: "Pooling"
  bottom: "conv0"
  top: "pool0"
  pooling_param {
    pool: MAX
    kernel_size: 2
    stride: 2
  }
}
layer {
  name: "conv1"
  type: "Convolution"
  bottom: "pool0"
  top: "conv1"
  param {
    lr_mult: 1
  }
  param {
    lr_mult: 2
  }
  convolution_param {
    num_output: 2
    kernel_size: 5
    stride: 1
    weight_filler {
      type: "xavier"
    }
    bias_filler {
      type: "constant"
    }
  }
}
layer {
  name: "pool1"
  type: "Pooling"
  bottom: "conv1"
  top: "pool1"
  pooling_param {
    pool: MAX
    kernel_size: 2
    stride: 2
  }
}
layer {
  name: "ip1"
  type: "InnerProduct"
  bottom: "pool1"
  top: "ip1"
  param {
    lr_mult: 1
  }
  param {
    lr_mult: 2
  }
  inner_product_param {
    num_output: 50
    weight_filler {
      type: "xavier"
    }
    bias_filler {
      type: "constant"
    }
  }
}
layer {
  name: "relu1"
  type: "ReLU"
  bottom: "ip1"
  top: "ip1"
}
layer {
  name: "ip2"
  type: "InnerProduct"
  bottom: "ip1"
  top: "ip2"
  param {
    lr_mult: 1
  }
  param {
    lr_mult: 2
  }
  inner_product_param {
    num_output: 50
    weight_filler {
      type: "xavier"
    }
    bias_filler {
      type: "constant"
    }
  }
}
layer {
  name: "relu2"
  type: "ReLU"
  bottom: "ip2"
  top: "ip2"
}
layer {
  name: "ip3"
  type: "InnerProduct"
  bottom: "ip2"
  top: "ip3"
  param {
    lr_mult: 1
  }
  param {
    lr_mult: 2
  }
  inner_product_param {
    num_output: 10
    weight_filler {
      type: "xavier"
    }
    bias_filler {
      type: "constant"
    }
  }
}
layer {
  name: "relu3"
  type: "ReLU"
  bottom: "ip3"
  top: "ip3"
}
layer {
  name: "accuracy"
  type: "Accuracy"
  bottom: "ip3"
  bottom: "label"
  top: "accuracy"
  include {
    phase: TEST
  }
}
layer {
  name: "loss"
  type: "SoftmaxWithLoss"
  bottom: "ip3"
  bottom: "label"
  top: "loss"
}
I0428 20:15:29.079874   452 layer_factory.hpp:77] Creating layer mnist
I0428 20:15:29.079915   452 db_lmdb.cpp:35] Opened lmdb examples/mnist/mnist_test_lmdb
I0428 20:15:29.079928   452 net.cpp:86] Creating Layer mnist
I0428 20:15:29.079932   452 net.cpp:382] mnist -> data
I0428 20:15:29.079939   452 net.cpp:382] mnist -> label
I0428 20:15:29.080024   452 data_layer.cpp:45] output data size: 100,1,28,28
I0428 20:15:29.082017   452 net.cpp:124] Setting up mnist
I0428 20:15:29.082031   452 net.cpp:131] Top shape: 100 1 28 28 (78400)
I0428 20:15:29.082037   452 net.cpp:131] Top shape: 100 (100)
I0428 20:15:29.082041   452 net.cpp:139] Memory required for data: 314000
I0428 20:15:29.082043   452 layer_factory.hpp:77] Creating layer label_mnist_1_split
I0428 20:15:29.082077   452 net.cpp:86] Creating Layer label_mnist_1_split
I0428 20:15:29.082082   452 net.cpp:408] label_mnist_1_split <- label
I0428 20:15:29.082100   452 net.cpp:382] label_mnist_1_split -> label_mnist_1_split_0
I0428 20:15:29.082108   452 net.cpp:382] label_mnist_1_split -> label_mnist_1_split_1
I0428 20:15:29.082159   452 net.cpp:124] Setting up label_mnist_1_split
I0428 20:15:29.082165   452 net.cpp:131] Top shape: 100 (100)
I0428 20:15:29.082168   452 net.cpp:131] Top shape: 100 (100)
I0428 20:15:29.082170   452 net.cpp:139] Memory required for data: 314800
I0428 20:15:29.082173   452 layer_factory.hpp:77] Creating layer conv0
I0428 20:15:29.082182   452 net.cpp:86] Creating Layer conv0
I0428 20:15:29.082185   452 net.cpp:408] conv0 <- data
I0428 20:15:29.082190   452 net.cpp:382] conv0 -> conv0
I0428 20:15:29.083767   452 net.cpp:124] Setting up conv0
I0428 20:15:29.083781   452 net.cpp:131] Top shape: 100 50 24 24 (2880000)
I0428 20:15:29.083784   452 net.cpp:139] Memory required for data: 11834800
I0428 20:15:29.083792   452 layer_factory.hpp:77] Creating layer pool0
I0428 20:15:29.083799   452 net.cpp:86] Creating Layer pool0
I0428 20:15:29.083802   452 net.cpp:408] pool0 <- conv0
I0428 20:15:29.083806   452 net.cpp:382] pool0 -> pool0
I0428 20:15:29.083863   452 net.cpp:124] Setting up pool0
I0428 20:15:29.083868   452 net.cpp:131] Top shape: 100 50 12 12 (720000)
I0428 20:15:29.083871   452 net.cpp:139] Memory required for data: 14714800
I0428 20:15:29.083874   452 layer_factory.hpp:77] Creating layer conv1
I0428 20:15:29.083884   452 net.cpp:86] Creating Layer conv1
I0428 20:15:29.083886   452 net.cpp:408] conv1 <- pool0
I0428 20:15:29.083892   452 net.cpp:382] conv1 -> conv1
I0428 20:15:29.085548   452 net.cpp:124] Setting up conv1
I0428 20:15:29.085566   452 net.cpp:131] Top shape: 100 2 8 8 (12800)
I0428 20:15:29.085571   452 net.cpp:139] Memory required for data: 14766000
I0428 20:15:29.085578   452 layer_factory.hpp:77] Creating layer pool1
I0428 20:15:29.085584   452 net.cpp:86] Creating Layer pool1
I0428 20:15:29.085587   452 net.cpp:408] pool1 <- conv1
I0428 20:15:29.085592   452 net.cpp:382] pool1 -> pool1
I0428 20:15:29.085630   452 net.cpp:124] Setting up pool1
I0428 20:15:29.085635   452 net.cpp:131] Top shape: 100 2 4 4 (3200)
I0428 20:15:29.085638   452 net.cpp:139] Memory required for data: 14778800
I0428 20:15:29.085641   452 layer_factory.hpp:77] Creating layer ip1
I0428 20:15:29.085647   452 net.cpp:86] Creating Layer ip1
I0428 20:15:29.085650   452 net.cpp:408] ip1 <- pool1
I0428 20:15:29.085656   452 net.cpp:382] ip1 -> ip1
I0428 20:15:29.085839   452 net.cpp:124] Setting up ip1
I0428 20:15:29.085850   452 net.cpp:131] Top shape: 100 50 (5000)
I0428 20:15:29.085873   452 net.cpp:139] Memory required for data: 14798800
I0428 20:15:29.085882   452 layer_factory.hpp:77] Creating layer relu1
I0428 20:15:29.085887   452 net.cpp:86] Creating Layer relu1
I0428 20:15:29.085891   452 net.cpp:408] relu1 <- ip1
I0428 20:15:29.085896   452 net.cpp:369] relu1 -> ip1 (in-place)
I0428 20:15:29.086092   452 net.cpp:124] Setting up relu1
I0428 20:15:29.086103   452 net.cpp:131] Top shape: 100 50 (5000)
I0428 20:15:29.086107   452 net.cpp:139] Memory required for data: 14818800
I0428 20:15:29.086110   452 layer_factory.hpp:77] Creating layer ip2
I0428 20:15:29.086117   452 net.cpp:86] Creating Layer ip2
I0428 20:15:29.086119   452 net.cpp:408] ip2 <- ip1
I0428 20:15:29.086125   452 net.cpp:382] ip2 -> ip2
I0428 20:15:29.086241   452 net.cpp:124] Setting up ip2
I0428 20:15:29.086249   452 net.cpp:131] Top shape: 100 50 (5000)
I0428 20:15:29.086252   452 net.cpp:139] Memory required for data: 14838800
I0428 20:15:29.086257   452 layer_factory.hpp:77] Creating layer relu2
I0428 20:15:29.086262   452 net.cpp:86] Creating Layer relu2
I0428 20:15:29.086266   452 net.cpp:408] relu2 <- ip2
I0428 20:15:29.086268   452 net.cpp:369] relu2 -> ip2 (in-place)
I0428 20:15:29.086443   452 net.cpp:124] Setting up relu2
I0428 20:15:29.086452   452 net.cpp:131] Top shape: 100 50 (5000)
I0428 20:15:29.086455   452 net.cpp:139] Memory required for data: 14858800
I0428 20:15:29.086458   452 layer_factory.hpp:77] Creating layer ip3
I0428 20:15:29.086470   452 net.cpp:86] Creating Layer ip3
I0428 20:15:29.086473   452 net.cpp:408] ip3 <- ip2
I0428 20:15:29.086478   452 net.cpp:382] ip3 -> ip3
I0428 20:15:29.086596   452 net.cpp:124] Setting up ip3
I0428 20:15:29.086602   452 net.cpp:131] Top shape: 100 10 (1000)
I0428 20:15:29.086606   452 net.cpp:139] Memory required for data: 14862800
I0428 20:15:29.086612   452 layer_factory.hpp:77] Creating layer relu3
I0428 20:15:29.086616   452 net.cpp:86] Creating Layer relu3
I0428 20:15:29.086619   452 net.cpp:408] relu3 <- ip3
I0428 20:15:29.086623   452 net.cpp:369] relu3 -> ip3 (in-place)
I0428 20:15:29.087507   452 net.cpp:124] Setting up relu3
I0428 20:15:29.087520   452 net.cpp:131] Top shape: 100 10 (1000)
I0428 20:15:29.087523   452 net.cpp:139] Memory required for data: 14866800
I0428 20:15:29.087527   452 layer_factory.hpp:77] Creating layer ip3_relu3_0_split
I0428 20:15:29.087534   452 net.cpp:86] Creating Layer ip3_relu3_0_split
I0428 20:15:29.087538   452 net.cpp:408] ip3_relu3_0_split <- ip3
I0428 20:15:29.087543   452 net.cpp:382] ip3_relu3_0_split -> ip3_relu3_0_split_0
I0428 20:15:29.087549   452 net.cpp:382] ip3_relu3_0_split -> ip3_relu3_0_split_1
I0428 20:15:29.087589   452 net.cpp:124] Setting up ip3_relu3_0_split
I0428 20:15:29.087594   452 net.cpp:131] Top shape: 100 10 (1000)
I0428 20:15:29.087597   452 net.cpp:131] Top shape: 100 10 (1000)
I0428 20:15:29.087600   452 net.cpp:139] Memory required for data: 14874800
I0428 20:15:29.087602   452 layer_factory.hpp:77] Creating layer accuracy
I0428 20:15:29.087607   452 net.cpp:86] Creating Layer accuracy
I0428 20:15:29.087610   452 net.cpp:408] accuracy <- ip3_relu3_0_split_0
I0428 20:15:29.087615   452 net.cpp:408] accuracy <- label_mnist_1_split_0
I0428 20:15:29.087620   452 net.cpp:382] accuracy -> accuracy
…
