…
I0428 19:59:25.668689 29235 net.cpp:296] The NetState phase (0) differed from the phase (1) specified by a rule in layer mnist
I0428 19:59:25.668710 29235 net.cpp:296] The NetState phase (0) differed from the phase (1) specified by a rule in layer accuracy
I0428 19:59:25.668822 29235 net.cpp:53] Initializing net from parameters: 
name: "LeNet"
state {
  phase: TRAIN
  level: 0
  stage: ""
}
layer {
  name: "mnist"
  type: "Data"
  top: "data"
  top: "label"
  include {
    phase: TRAIN
  }
  transform_param {
    scale: 0.00390625
  }
  data_param {
    source: "examples/mnist/mnist_train_lmdb"
    batch_size: 64
    backend: LMDB
  }
}
layer {
  name: "conv0"
  type: "Convolution"
  bottom: "data"
  top: "conv0"
  param {
    lr_mult: 1
  }
  param {
    lr_mult: 2
  }
  convolution_param {
    num_output: 10
    kernel_size: 5
    stride: 1
    weight_filler {
      type: "xavier"
    }
    bias_filler {
      type: "constant"
    }
  }
}
layer {
  name: "pool0"
  type: "Pooling"
  bottom: "conv0"
  top: "pool0"
  pooling_param {
    pool: MAX
    kernel_size: 2
    stride: 2
  }
}
layer {
  name: "conv1"
  type: "Convolution"
  bottom: "pool0"
  top: "conv1"
  param {
    lr_mult: 1
  }
  param {
    lr_mult: 2
  }
  convolution_param {
    num_output: 10
    kernel_size: 5
    stride: 1
    weight_filler {
      type: "xavier"
    }
    bias_filler {
      type: "constant"
    }
  }
}
layer {
  name: "pool1"
  type: "Pooling"
  bottom: "conv1"
  top: "pool1"
  pooling_param {
    pool: MAX
    kernel_size: 2
    stride: 2
  }
}
layer {
  name: "ip1"
  type: "InnerProduct"
  bottom: "pool1"
  top: "ip1"
  param {
    lr_mult: 1
  }
  param {
    lr_mult: 2
  }
  inner_product_param {
    num_output: 25
    weight_filler {
      type: "xavier"
    }
    bias_filler {
      type: "constant"
    }
  }
}
layer {
  name: "relu1"
  type: "ReLU"
  bottom: "ip1"
  top: "ip1"
}
layer {
  name: "ip2"
  type: "InnerProduct"
  bottom: "ip1"
  top: "ip2"
  param {
    lr_mult: 1
  }
  param {
    lr_mult: 2
  }
  inner_product_param {
    num_output: 50
    weight_filler {
      type: "xavier"
    }
    bias_filler {
      type: "constant"
    }
  }
}
layer {
  name: "relu2"
  type: "ReLU"
  bottom: "ip2"
  top: "ip2"
}
layer {
  name: "ip3"
  type: "InnerProduct"
  bottom: "ip2"
  top: "ip3"
  param {
    lr_mult: 1
  }
  param {
    lr_mult: 2
  }
  inner_product_param {
    num_output: 10
    weight_filler {
      type: "xavier"
    }
    bias_filler {
      type: "constant"
    }
  }
}
layer {
  name: "relu3"
  type: "ReLU"
  bottom: "ip3"
  top: "ip3"
}
layer {
  name: "loss"
  type: "SoftmaxWithLoss"
  bottom: "ip3"
  bottom: "label"
  top: "loss"
}
I0428 19:59:25.668902 29235 layer_factory.hpp:77] Creating layer mnist
I0428 19:59:25.669000 29235 db_lmdb.cpp:35] Opened lmdb examples/mnist/mnist_train_lmdb
I0428 19:59:25.669023 29235 net.cpp:86] Creating Layer mnist
I0428 19:59:25.669034 29235 net.cpp:382] mnist -> data
I0428 19:59:25.669056 29235 net.cpp:382] mnist -> label
I0428 19:59:25.670142 29235 data_layer.cpp:45] output data size: 64,1,28,28
I0428 19:59:25.672610 29235 net.cpp:124] Setting up mnist
I0428 19:59:25.672629 29235 net.cpp:131] Top shape: 64 1 28 28 (50176)
I0428 19:59:25.672636 29235 net.cpp:131] Top shape: 64 (64)
I0428 19:59:25.672639 29235 net.cpp:139] Memory required for data: 200960
I0428 19:59:25.672646 29235 layer_factory.hpp:77] Creating layer conv0
I0428 19:59:25.672693 29235 net.cpp:86] Creating Layer conv0
I0428 19:59:25.672713 29235 net.cpp:408] conv0 <- data
I0428 19:59:25.672726 29235 net.cpp:382] conv0 -> conv0
I0428 19:59:25.946396 29235 net.cpp:124] Setting up conv0
I0428 19:59:25.946437 29235 net.cpp:131] Top shape: 64 10 24 24 (368640)
I0428 19:59:25.946441 29235 net.cpp:139] Memory required for data: 1675520
I0428 19:59:25.946456 29235 layer_factory.hpp:77] Creating layer pool0
I0428 19:59:25.946470 29235 net.cpp:86] Creating Layer pool0
I0428 19:59:25.946473 29235 net.cpp:408] pool0 <- conv0
I0428 19:59:25.946478 29235 net.cpp:382] pool0 -> pool0
I0428 19:59:25.946540 29235 net.cpp:124] Setting up pool0
I0428 19:59:25.946547 29235 net.cpp:131] Top shape: 64 10 12 12 (92160)
I0428 19:59:25.946549 29235 net.cpp:139] Memory required for data: 2044160
I0428 19:59:25.946552 29235 layer_factory.hpp:77] Creating layer conv1
I0428 19:59:25.946563 29235 net.cpp:86] Creating Layer conv1
I0428 19:59:25.946566 29235 net.cpp:408] conv1 <- pool0
I0428 19:59:25.946571 29235 net.cpp:382] conv1 -> conv1
I0428 19:59:25.949533 29235 net.cpp:124] Setting up conv1
I0428 19:59:25.949563 29235 net.cpp:131] Top shape: 64 10 8 8 (40960)
I0428 19:59:25.949566 29235 net.cpp:139] Memory required for data: 2208000
I0428 19:59:25.949575 29235 layer_factory.hpp:77] Creating layer pool1
I0428 19:59:25.949584 29235 net.cpp:86] Creating Layer pool1
I0428 19:59:25.949586 29235 net.cpp:408] pool1 <- conv1
I0428 19:59:25.949591 29235 net.cpp:382] pool1 -> pool1
I0428 19:59:25.949628 29235 net.cpp:124] Setting up pool1
I0428 19:59:25.949633 29235 net.cpp:131] Top shape: 64 10 4 4 (10240)
I0428 19:59:25.949636 29235 net.cpp:139] Memory required for data: 2248960
I0428 19:59:25.949640 29235 layer_factory.hpp:77] Creating layer ip1
I0428 19:59:25.949645 29235 net.cpp:86] Creating Layer ip1
I0428 19:59:25.949648 29235 net.cpp:408] ip1 <- pool1
I0428 19:59:25.949653 29235 net.cpp:382] ip1 -> ip1
I0428 19:59:25.949767 29235 net.cpp:124] Setting up ip1
I0428 19:59:25.949775 29235 net.cpp:131] Top shape: 64 25 (1600)
I0428 19:59:25.949779 29235 net.cpp:139] Memory required for data: 2255360
I0428 19:59:25.949785 29235 layer_factory.hpp:77] Creating layer relu1
I0428 19:59:25.949790 29235 net.cpp:86] Creating Layer relu1
I0428 19:59:25.949793 29235 net.cpp:408] relu1 <- ip1
I0428 19:59:25.949797 29235 net.cpp:369] relu1 -> ip1 (in-place)
I0428 19:59:25.949981 29235 net.cpp:124] Setting up relu1
I0428 19:59:25.949990 29235 net.cpp:131] Top shape: 64 25 (1600)
I0428 19:59:25.949992 29235 net.cpp:139] Memory required for data: 2261760
I0428 19:59:25.949995 29235 layer_factory.hpp:77] Creating layer ip2
I0428 19:59:25.950001 29235 net.cpp:86] Creating Layer ip2
I0428 19:59:25.950004 29235 net.cpp:408] ip2 <- ip1
I0428 19:59:25.950008 29235 net.cpp:382] ip2 -> ip2
I0428 19:59:25.950119 29235 net.cpp:124] Setting up ip2
I0428 19:59:25.950125 29235 net.cpp:131] Top shape: 64 50 (3200)
I0428 19:59:25.950129 29235 net.cpp:139] Memory required for data: 2274560
I0428 19:59:25.950134 29235 layer_factory.hpp:77] Creating layer relu2
I0428 19:59:25.950139 29235 net.cpp:86] Creating Layer relu2
I0428 19:59:25.950142 29235 net.cpp:408] relu2 <- ip2
I0428 19:59:25.950146 29235 net.cpp:369] relu2 -> ip2 (in-place)
I0428 19:59:25.950830 29235 net.cpp:124] Setting up relu2
I0428 19:59:25.950842 29235 net.cpp:131] Top shape: 64 50 (3200)
I0428 19:59:25.950845 29235 net.cpp:139] Memory required for data: 2287360
I0428 19:59:25.950848 29235 layer_factory.hpp:77] Creating layer ip3
I0428 19:59:25.950855 29235 net.cpp:86] Creating Layer ip3
I0428 19:59:25.950857 29235 net.cpp:408] ip3 <- ip2
I0428 19:59:25.950862 29235 net.cpp:382] ip3 -> ip3
I0428 19:59:25.950969 29235 net.cpp:124] Setting up ip3
I0428 19:59:25.950976 29235 net.cpp:131] Top shape: 64 10 (640)
I0428 19:59:25.950979 29235 net.cpp:139] Memory required for data: 2289920
I0428 19:59:25.950986 29235 layer_factory.hpp:77] Creating layer relu3
I0428 19:59:25.950991 29235 net.cpp:86] Creating Layer relu3
I0428 19:59:25.950994 29235 net.cpp:408] relu3 <- ip3
I0428 19:59:25.950999 29235 net.cpp:369] relu3 -> ip3 (in-place)
I0428 19:59:25.951153 29235 net.cpp:124] Setting up relu3
I0428 19:59:25.951160 29235 net.cpp:131] Top shape: 64 10 (640)
I0428 19:59:25.951164 29235 net.cpp:139] Memory required for data: 2292480
I0428 19:59:25.951166 29235 layer_factory.hpp:77] Creating layer loss
I0428 19:59:25.951171 29235 net.cpp:86] Creating Layer loss
I0428 19:59:25.951174 29235 net.cpp:408] loss <- ip3
I0428 19:59:25.951179 29235 net.cpp:408] loss <- label
I0428 19:59:25.951184 29235 net.cpp:382] loss -> loss
I0428 19:59:25.951200 29235 layer_factory.hpp:77] Creating layer loss
…
I0428 19:59:25.951792 29235 solver.cpp:173] Creating test net (#0) specified by net file: ECE595/mnist/train_test/var_everything2/lenet_train_test847.prototxt
I0428 19:59:25.951817 29235 net.cpp:296] The NetState phase (1) differed from the phase (0) specified by a rule in layer mnist
I0428 19:59:25.951900 29235 net.cpp:53] Initializing net from parameters: 
name: "LeNet"
state {
  phase: TEST
}
layer {
  name: "mnist"
  type: "Data"
  top: "data"
  top: "label"
  include {
    phase: TEST
  }
  transform_param {
    scale: 0.00390625
  }
  data_param {
    source: "examples/mnist/mnist_test_lmdb"
    batch_size: 100
    backend: LMDB
  }
}
layer {
  name: "conv0"
  type: "Convolution"
  bottom: "data"
  top: "conv0"
  param {
    lr_mult: 1
  }
  param {
    lr_mult: 2
  }
  convolution_param {
    num_output: 10
    kernel_size: 5
    stride: 1
    weight_filler {
      type: "xavier"
    }
    bias_filler {
      type: "constant"
    }
  }
}
layer {
  name: "pool0"
  type: "Pooling"
  bottom: "conv0"
  top: "pool0"
  pooling_param {
    pool: MAX
    kernel_size: 2
    stride: 2
  }
}
layer {
  name: "conv1"
  type: "Convolution"
  bottom: "pool0"
  top: "conv1"
  param {
    lr_mult: 1
  }
  param {
    lr_mult: 2
  }
  convolution_param {
    num_output: 10
    kernel_size: 5
    stride: 1
    weight_filler {
      type: "xavier"
    }
    bias_filler {
      type: "constant"
    }
  }
}
layer {
  name: "pool1"
  type: "Pooling"
  bottom: "conv1"
  top: "pool1"
  pooling_param {
    pool: MAX
    kernel_size: 2
    stride: 2
  }
}
layer {
  name: "ip1"
  type: "InnerProduct"
  bottom: "pool1"
  top: "ip1"
  param {
    lr_mult: 1
  }
  param {
    lr_mult: 2
  }
  inner_product_param {
    num_output: 25
    weight_filler {
      type: "xavier"
    }
    bias_filler {
      type: "constant"
    }
  }
}
layer {
  name: "relu1"
  type: "ReLU"
  bottom: "ip1"
  top: "ip1"
}
layer {
  name: "ip2"
  type: "InnerProduct"
  bottom: "ip1"
  top: "ip2"
  param {
    lr_mult: 1
  }
  param {
    lr_mult: 2
  }
  inner_product_param {
    num_output: 50
    weight_filler {
      type: "xavier"
    }
    bias_filler {
      type: "constant"
    }
  }
}
layer {
  name: "relu2"
  type: "ReLU"
  bottom: "ip2"
  top: "ip2"
}
layer {
  name: "ip3"
  type: "InnerProduct"
  bottom: "ip2"
  top: "ip3"
  param {
    lr_mult: 1
  }
  param {
    lr_mult: 2
  }
  inner_product_param {
    num_output: 10
    weight_filler {
      type: "xavier"
    }
    bias_filler {
      type: "constant"
    }
  }
}
layer {
  name: "relu3"
  type: "ReLU"
  bottom: "ip3"
  top: "ip3"
}
layer {
  name: "accuracy"
  type: "Accuracy"
  bottom: "ip3"
  bottom: "label"
  top: "accuracy"
  include {
    phase: TEST
  }
}
layer {
  name: "loss"
  type: "SoftmaxWithLoss"
  bottom: "ip3"
  bottom: "label"
  top: "loss"
}
I0428 19:59:25.951972 29235 layer_factory.hpp:77] Creating layer mnist
I0428 19:59:25.952014 29235 db_lmdb.cpp:35] Opened lmdb examples/mnist/mnist_test_lmdb
I0428 19:59:25.952028 29235 net.cpp:86] Creating Layer mnist
I0428 19:59:25.952031 29235 net.cpp:382] mnist -> data
I0428 19:59:25.952039 29235 net.cpp:382] mnist -> label
I0428 19:59:25.952116 29235 data_layer.cpp:45] output data size: 100,1,28,28
I0428 19:59:25.953984 29235 net.cpp:124] Setting up mnist
I0428 19:59:25.953997 29235 net.cpp:131] Top shape: 100 1 28 28 (78400)
I0428 19:59:25.954002 29235 net.cpp:131] Top shape: 100 (100)
I0428 19:59:25.954005 29235 net.cpp:139] Memory required for data: 314000
I0428 19:59:25.954008 29235 layer_factory.hpp:77] Creating layer label_mnist_1_split
I0428 19:59:25.954018 29235 net.cpp:86] Creating Layer label_mnist_1_split
I0428 19:59:25.954021 29235 net.cpp:408] label_mnist_1_split <- label
I0428 19:59:25.954025 29235 net.cpp:382] label_mnist_1_split -> label_mnist_1_split_0
I0428 19:59:25.954032 29235 net.cpp:382] label_mnist_1_split -> label_mnist_1_split_1
I0428 19:59:25.954066 29235 net.cpp:124] Setting up label_mnist_1_split
I0428 19:59:25.954071 29235 net.cpp:131] Top shape: 100 (100)
I0428 19:59:25.954074 29235 net.cpp:131] Top shape: 100 (100)
I0428 19:59:25.954077 29235 net.cpp:139] Memory required for data: 314800
I0428 19:59:25.954079 29235 layer_factory.hpp:77] Creating layer conv0
I0428 19:59:25.954087 29235 net.cpp:86] Creating Layer conv0
I0428 19:59:25.954089 29235 net.cpp:408] conv0 <- data
I0428 19:59:25.954093 29235 net.cpp:382] conv0 -> conv0
I0428 19:59:25.955657 29235 net.cpp:124] Setting up conv0
I0428 19:59:25.955677 29235 net.cpp:131] Top shape: 100 10 24 24 (576000)
I0428 19:59:25.955680 29235 net.cpp:139] Memory required for data: 2618800
I0428 19:59:25.955690 29235 layer_factory.hpp:77] Creating layer pool0
I0428 19:59:25.955696 29235 net.cpp:86] Creating Layer pool0
I0428 19:59:25.955700 29235 net.cpp:408] pool0 <- conv0
I0428 19:59:25.955705 29235 net.cpp:382] pool0 -> pool0
I0428 19:59:25.955741 29235 net.cpp:124] Setting up pool0
I0428 19:59:25.955746 29235 net.cpp:131] Top shape: 100 10 12 12 (144000)
I0428 19:59:25.955749 29235 net.cpp:139] Memory required for data: 3194800
I0428 19:59:25.955752 29235 layer_factory.hpp:77] Creating layer conv1
I0428 19:59:25.955761 29235 net.cpp:86] Creating Layer conv1
I0428 19:59:25.955765 29235 net.cpp:408] conv1 <- pool0
I0428 19:59:25.955770 29235 net.cpp:382] conv1 -> conv1
I0428 19:59:25.957824 29235 net.cpp:124] Setting up conv1
I0428 19:59:25.957837 29235 net.cpp:131] Top shape: 100 10 8 8 (64000)
I0428 19:59:25.957842 29235 net.cpp:139] Memory required for data: 3450800
I0428 19:59:25.957851 29235 layer_factory.hpp:77] Creating layer pool1
I0428 19:59:25.957857 29235 net.cpp:86] Creating Layer pool1
I0428 19:59:25.957860 29235 net.cpp:408] pool1 <- conv1
I0428 19:59:25.957865 29235 net.cpp:382] pool1 -> pool1
I0428 19:59:25.957901 29235 net.cpp:124] Setting up pool1
I0428 19:59:25.957906 29235 net.cpp:131] Top shape: 100 10 4 4 (16000)
I0428 19:59:25.957909 29235 net.cpp:139] Memory required for data: 3514800
I0428 19:59:25.957912 29235 layer_factory.hpp:77] Creating layer ip1
I0428 19:59:25.957917 29235 net.cpp:86] Creating Layer ip1
I0428 19:59:25.957921 29235 net.cpp:408] ip1 <- pool1
I0428 19:59:25.957924 29235 net.cpp:382] ip1 -> ip1
I0428 19:59:25.958045 29235 net.cpp:124] Setting up ip1
I0428 19:59:25.958053 29235 net.cpp:131] Top shape: 100 25 (2500)
I0428 19:59:25.958066 29235 net.cpp:139] Memory required for data: 3524800
I0428 19:59:25.958081 29235 layer_factory.hpp:77] Creating layer relu1
I0428 19:59:25.958086 29235 net.cpp:86] Creating Layer relu1
I0428 19:59:25.958089 29235 net.cpp:408] relu1 <- ip1
I0428 19:59:25.958092 29235 net.cpp:369] relu1 -> ip1 (in-place)
I0428 19:59:25.958286 29235 net.cpp:124] Setting up relu1
I0428 19:59:25.958293 29235 net.cpp:131] Top shape: 100 25 (2500)
I0428 19:59:25.958297 29235 net.cpp:139] Memory required for data: 3534800
I0428 19:59:25.958299 29235 layer_factory.hpp:77] Creating layer ip2
I0428 19:59:25.958305 29235 net.cpp:86] Creating Layer ip2
I0428 19:59:25.958308 29235 net.cpp:408] ip2 <- ip1
I0428 19:59:25.958313 29235 net.cpp:382] ip2 -> ip2
I0428 19:59:25.958420 29235 net.cpp:124] Setting up ip2
I0428 19:59:25.958425 29235 net.cpp:131] Top shape: 100 50 (5000)
I0428 19:59:25.958428 29235 net.cpp:139] Memory required for data: 3554800
I0428 19:59:25.958433 29235 layer_factory.hpp:77] Creating layer relu2
I0428 19:59:25.958437 29235 net.cpp:86] Creating Layer relu2
I0428 19:59:25.958441 29235 net.cpp:408] relu2 <- ip2
I0428 19:59:25.958444 29235 net.cpp:369] relu2 -> ip2 (in-place)
I0428 19:59:25.958638 29235 net.cpp:124] Setting up relu2
I0428 19:59:25.958645 29235 net.cpp:131] Top shape: 100 50 (5000)
I0428 19:59:25.958649 29235 net.cpp:139] Memory required for data: 3574800
I0428 19:59:25.958652 29235 layer_factory.hpp:77] Creating layer ip3
I0428 19:59:25.958657 29235 net.cpp:86] Creating Layer ip3
I0428 19:59:25.958659 29235 net.cpp:408] ip3 <- ip2
I0428 19:59:25.958663 29235 net.cpp:382] ip3 -> ip3
I0428 19:59:25.958783 29235 net.cpp:124] Setting up ip3
I0428 19:59:25.958791 29235 net.cpp:131] Top shape: 100 10 (1000)
I0428 19:59:25.958794 29235 net.cpp:139] Memory required for data: 3578800
I0428 19:59:25.958802 29235 layer_factory.hpp:77] Creating layer relu3
I0428 19:59:25.958822 29235 net.cpp:86] Creating Layer relu3
I0428 19:59:25.958827 29235 net.cpp:408] relu3 <- ip3
I0428 19:59:25.958832 29235 net.cpp:369] relu3 -> ip3 (in-place)
I0428 19:59:25.959599 29235 net.cpp:124] Setting up relu3
I0428 19:59:25.959609 29235 net.cpp:131] Top shape: 100 10 (1000)
I0428 19:59:25.959612 29235 net.cpp:139] Memory required for data: 3582800
I0428 19:59:25.959616 29235 layer_factory.hpp:77] Creating layer ip3_relu3_0_split
I0428 19:59:25.959620 29235 net.cpp:86] Creating Layer ip3_relu3_0_split
I0428 19:59:25.959623 29235 net.cpp:408] ip3_relu3_0_split <- ip3
I0428 19:59:25.959628 29235 net.cpp:382] ip3_relu3_0_split -> ip3_relu3_0_split_0
I0428 19:59:25.959635 29235 net.cpp:382] ip3_relu3_0_split -> ip3_relu3_0_split_1
I0428 19:59:25.959678 29235 net.cpp:124] Setting up ip3_relu3_0_split
I0428 19:59:25.959684 29235 net.cpp:131] Top shape: 100 10 (1000)
I0428 19:59:25.959687 29235 net.cpp:131] Top shape: 100 10 (1000)
I0428 19:59:25.959691 29235 net.cpp:139] Memory required for data: 3590800
I0428 19:59:25.959698 29235 layer_factory.hpp:77] Creating layer accuracy
I0428 19:59:25.959703 29235 net.cpp:86] Creating Layer accuracy
I0428 19:59:25.959707 29235 net.cpp:408] accuracy <- ip3_relu3_0_split_0
I0428 19:59:25.959709 29235 net.cpp:408] accuracy <- label_mnist_1_split_0
I0428 19:59:25.959713 29235 net.cpp:382] accuracy -> accuracy
…
