…
I0428 20:19:11.825669  1313 net.cpp:296] The NetState phase (0) differed from the phase (1) specified by a rule in layer mnist
I0428 20:19:11.825682  1313 net.cpp:296] The NetState phase (0) differed from the phase (1) specified by a rule in layer accuracy
I0428 20:19:11.825752  1313 net.cpp:53] Initializing net from parameters: 
name: "LeNet"
state {
  phase: TRAIN
  level: 0
  stage: ""
}
layer {
  name: "mnist"
  type: "Data"
  top: "data"
  top: "label"
  include {
    phase: TRAIN
  }
  transform_param {
    scale: 0.00390625
  }
  data_param {
    source: "examples/mnist/mnist_train_lmdb"
    batch_size: 64
    backend: LMDB
  }
}
layer {
  name: "conv0"
  type: "Convolution"
  bottom: "data"
  top: "conv0"
  param {
    lr_mult: 1
  }
  param {
    lr_mult: 2
  }
  convolution_param {
    num_output: 50
    kernel_size: 5
    stride: 1
    weight_filler {
      type: "xavier"
    }
    bias_filler {
      type: "constant"
    }
  }
}
layer {
  name: "pool0"
  type: "Pooling"
  bottom: "conv0"
  top: "pool0"
  pooling_param {
    pool: MAX
    kernel_size: 2
    stride: 2
  }
}
layer {
  name: "conv1"
  type: "Convolution"
  bottom: "pool0"
  top: "conv1"
  param {
    lr_mult: 1
  }
  param {
    lr_mult: 2
  }
  convolution_param {
    num_output: 25
    kernel_size: 5
    stride: 1
    weight_filler {
      type: "xavier"
    }
    bias_filler {
      type: "constant"
    }
  }
}
layer {
  name: "pool1"
  type: "Pooling"
  bottom: "conv1"
  top: "pool1"
  pooling_param {
    pool: MAX
    kernel_size: 2
    stride: 2
  }
}
layer {
  name: "ip1"
  type: "InnerProduct"
  bottom: "pool1"
  top: "ip1"
  param {
    lr_mult: 1
  }
  param {
    lr_mult: 2
  }
  inner_product_param {
    num_output: 50
    weight_filler {
      type: "xavier"
    }
    bias_filler {
      type: "constant"
    }
  }
}
layer {
  name: "relu1"
  type: "ReLU"
  bottom: "ip1"
  top: "ip1"
}
layer {
  name: "ip2"
  type: "InnerProduct"
  bottom: "ip1"
  top: "ip2"
  param {
    lr_mult: 1
  }
  param {
    lr_mult: 2
  }
  inner_product_param {
    num_output: 10
    weight_filler {
      type: "xavier"
    }
    bias_filler {
      type: "constant"
    }
  }
}
layer {
  name: "relu2"
  type: "ReLU"
  bottom: "ip2"
  top: "ip2"
}
layer {
  name: "loss"
  type: "SoftmaxWithLoss"
  bottom: "ip2"
  bottom: "label"
  top: "loss"
}
I0428 20:19:11.825809  1313 layer_factory.hpp:77] Creating layer mnist
I0428 20:19:11.825894  1313 db_lmdb.cpp:35] Opened lmdb examples/mnist/mnist_train_lmdb
I0428 20:19:11.825914  1313 net.cpp:86] Creating Layer mnist
I0428 20:19:11.825920  1313 net.cpp:382] mnist -> data
I0428 20:19:11.825939  1313 net.cpp:382] mnist -> label
I0428 20:19:11.826907  1313 data_layer.cpp:45] output data size: 64,1,28,28
I0428 20:19:11.829069  1313 net.cpp:124] Setting up mnist
I0428 20:19:11.829114  1313 net.cpp:131] Top shape: 64 1 28 28 (50176)
I0428 20:19:11.829119  1313 net.cpp:131] Top shape: 64 (64)
I0428 20:19:11.829123  1313 net.cpp:139] Memory required for data: 200960
I0428 20:19:11.829128  1313 layer_factory.hpp:77] Creating layer conv0
I0428 20:19:11.829171  1313 net.cpp:86] Creating Layer conv0
I0428 20:19:11.829176  1313 net.cpp:408] conv0 <- data
I0428 20:19:11.829185  1313 net.cpp:382] conv0 -> conv0
I0428 20:19:12.058914  1313 net.cpp:124] Setting up conv0
I0428 20:19:12.058957  1313 net.cpp:131] Top shape: 64 50 24 24 (1843200)
I0428 20:19:12.058961  1313 net.cpp:139] Memory required for data: 7573760
I0428 20:19:12.058998  1313 layer_factory.hpp:77] Creating layer pool0
I0428 20:19:12.059010  1313 net.cpp:86] Creating Layer pool0
I0428 20:19:12.059015  1313 net.cpp:408] pool0 <- conv0
I0428 20:19:12.059020  1313 net.cpp:382] pool0 -> pool0
I0428 20:19:12.059067  1313 net.cpp:124] Setting up pool0
I0428 20:19:12.059094  1313 net.cpp:131] Top shape: 64 50 12 12 (460800)
I0428 20:19:12.059098  1313 net.cpp:139] Memory required for data: 9416960
I0428 20:19:12.059100  1313 layer_factory.hpp:77] Creating layer conv1
I0428 20:19:12.059110  1313 net.cpp:86] Creating Layer conv1
I0428 20:19:12.059113  1313 net.cpp:408] conv1 <- pool0
I0428 20:19:12.059118  1313 net.cpp:382] conv1 -> conv1
I0428 20:19:12.061111  1313 net.cpp:124] Setting up conv1
I0428 20:19:12.061141  1313 net.cpp:131] Top shape: 64 25 8 8 (102400)
I0428 20:19:12.061146  1313 net.cpp:139] Memory required for data: 9826560
I0428 20:19:12.061168  1313 layer_factory.hpp:77] Creating layer pool1
I0428 20:19:12.061175  1313 net.cpp:86] Creating Layer pool1
I0428 20:19:12.061179  1313 net.cpp:408] pool1 <- conv1
I0428 20:19:12.061184  1313 net.cpp:382] pool1 -> pool1
I0428 20:19:12.061236  1313 net.cpp:124] Setting up pool1
I0428 20:19:12.061241  1313 net.cpp:131] Top shape: 64 25 4 4 (25600)
I0428 20:19:12.061244  1313 net.cpp:139] Memory required for data: 9928960
I0428 20:19:12.061247  1313 layer_factory.hpp:77] Creating layer ip1
I0428 20:19:12.061255  1313 net.cpp:86] Creating Layer ip1
I0428 20:19:12.061259  1313 net.cpp:408] ip1 <- pool1
I0428 20:19:12.061262  1313 net.cpp:382] ip1 -> ip1
I0428 20:19:12.061539  1313 net.cpp:124] Setting up ip1
I0428 20:19:12.061547  1313 net.cpp:131] Top shape: 64 50 (3200)
I0428 20:19:12.061550  1313 net.cpp:139] Memory required for data: 9941760
I0428 20:19:12.061558  1313 layer_factory.hpp:77] Creating layer relu1
I0428 20:19:12.061564  1313 net.cpp:86] Creating Layer relu1
I0428 20:19:12.061568  1313 net.cpp:408] relu1 <- ip1
I0428 20:19:12.061571  1313 net.cpp:369] relu1 -> ip1 (in-place)
I0428 20:19:12.061733  1313 net.cpp:124] Setting up relu1
I0428 20:19:12.061743  1313 net.cpp:131] Top shape: 64 50 (3200)
I0428 20:19:12.061745  1313 net.cpp:139] Memory required for data: 9954560
I0428 20:19:12.061748  1313 layer_factory.hpp:77] Creating layer ip2
I0428 20:19:12.061755  1313 net.cpp:86] Creating Layer ip2
I0428 20:19:12.061758  1313 net.cpp:408] ip2 <- ip1
I0428 20:19:12.061764  1313 net.cpp:382] ip2 -> ip2
I0428 20:19:12.061898  1313 net.cpp:124] Setting up ip2
I0428 20:19:12.061905  1313 net.cpp:131] Top shape: 64 10 (640)
I0428 20:19:12.061908  1313 net.cpp:139] Memory required for data: 9957120
I0428 20:19:12.061913  1313 layer_factory.hpp:77] Creating layer relu2
I0428 20:19:12.061919  1313 net.cpp:86] Creating Layer relu2
I0428 20:19:12.061923  1313 net.cpp:408] relu2 <- ip2
I0428 20:19:12.061926  1313 net.cpp:369] relu2 -> ip2 (in-place)
I0428 20:19:12.062767  1313 net.cpp:124] Setting up relu2
I0428 20:19:12.062793  1313 net.cpp:131] Top shape: 64 10 (640)
I0428 20:19:12.062813  1313 net.cpp:139] Memory required for data: 9959680
I0428 20:19:12.062815  1313 layer_factory.hpp:77] Creating layer loss
I0428 20:19:12.062821  1313 net.cpp:86] Creating Layer loss
I0428 20:19:12.062824  1313 net.cpp:408] loss <- ip2
I0428 20:19:12.062829  1313 net.cpp:408] loss <- label
I0428 20:19:12.062834  1313 net.cpp:382] loss -> loss
I0428 20:19:12.062850  1313 layer_factory.hpp:77] Creating layer loss
…
I0428 20:19:12.063530  1313 solver.cpp:173] Creating test net (#0) specified by net file: ECE595/mnist/train_test/var_everything2/lenet_train_test1336.prototxt
I0428 20:19:12.063570  1313 net.cpp:296] The NetState phase (1) differed from the phase (0) specified by a rule in layer mnist
I0428 20:19:12.063668  1313 net.cpp:53] Initializing net from parameters: 
name: "LeNet"
state {
  phase: TEST
}
layer {
  name: "mnist"
  type: "Data"
  top: "data"
  top: "label"
  include {
    phase: TEST
  }
  transform_param {
    scale: 0.00390625
  }
  data_param {
    source: "examples/mnist/mnist_test_lmdb"
    batch_size: 100
    backend: LMDB
  }
}
layer {
  name: "conv0"
  type: "Convolution"
  bottom: "data"
  top: "conv0"
  param {
    lr_mult: 1
  }
  param {
    lr_mult: 2
  }
  convolution_param {
    num_output: 50
    kernel_size: 5
    stride: 1
    weight_filler {
      type: "xavier"
    }
    bias_filler {
      type: "constant"
    }
  }
}
layer {
  name: "pool0"
  type: "Pooling"
  bottom: "conv0"
  top: "pool0"
  pooling_param {
    pool: MAX
    kernel_size: 2
    stride: 2
  }
}
layer {
  name: "conv1"
  type: "Convolution"
  bottom: "pool0"
  top: "conv1"
  param {
    lr_mult: 1
  }
  param {
    lr_mult: 2
  }
  convolution_param {
    num_output: 25
    kernel_size: 5
    stride: 1
    weight_filler {
      type: "xavier"
    }
    bias_filler {
      type: "constant"
    }
  }
}
layer {
  name: "pool1"
  type: "Pooling"
  bottom: "conv1"
  top: "pool1"
  pooling_param {
    pool: MAX
    kernel_size: 2
    stride: 2
  }
}
layer {
  name: "ip1"
  type: "InnerProduct"
  bottom: "pool1"
  top: "ip1"
  param {
    lr_mult: 1
  }
  param {
    lr_mult: 2
  }
  inner_product_param {
    num_output: 50
    weight_filler {
      type: "xavier"
    }
    bias_filler {
      type: "constant"
    }
  }
}
layer {
  name: "relu1"
  type: "ReLU"
  bottom: "ip1"
  top: "ip1"
}
layer {
  name: "ip2"
  type: "InnerProduct"
  bottom: "ip1"
  top: "ip2"
  param {
    lr_mult: 1
  }
  param {
    lr_mult: 2
  }
  inner_product_param {
    num_output: 10
    weight_filler {
      type: "xavier"
    }
    bias_filler {
      type: "constant"
    }
  }
}
layer {
  name: "relu2"
  type: "ReLU"
  bottom: "ip2"
  top: "ip2"
}
layer {
  name: "accuracy"
  type: "Accuracy"
  bottom: "ip2"
  bottom: "label"
  top: "accuracy"
  include {
    phase: TEST
  }
}
layer {
  name: "loss"
  type: "SoftmaxWithLoss"
  bottom: "ip2"
  bottom: "label"
  top: "loss"
}
I0428 20:19:12.063731  1313 layer_factory.hpp:77] Creating layer mnist
I0428 20:19:12.063778  1313 db_lmdb.cpp:35] Opened lmdb examples/mnist/mnist_test_lmdb
I0428 20:19:12.063791  1313 net.cpp:86] Creating Layer mnist
I0428 20:19:12.063796  1313 net.cpp:382] mnist -> data
I0428 20:19:12.063802  1313 net.cpp:382] mnist -> label
I0428 20:19:12.063905  1313 data_layer.cpp:45] output data size: 100,1,28,28
I0428 20:19:12.066094  1313 net.cpp:124] Setting up mnist
I0428 20:19:12.066123  1313 net.cpp:131] Top shape: 100 1 28 28 (78400)
I0428 20:19:12.066128  1313 net.cpp:131] Top shape: 100 (100)
I0428 20:19:12.066133  1313 net.cpp:139] Memory required for data: 314000
I0428 20:19:12.066136  1313 layer_factory.hpp:77] Creating layer label_mnist_1_split
I0428 20:19:12.066143  1313 net.cpp:86] Creating Layer label_mnist_1_split
I0428 20:19:12.066145  1313 net.cpp:408] label_mnist_1_split <- label
I0428 20:19:12.066149  1313 net.cpp:382] label_mnist_1_split -> label_mnist_1_split_0
I0428 20:19:12.066171  1313 net.cpp:382] label_mnist_1_split -> label_mnist_1_split_1
I0428 20:19:12.066236  1313 net.cpp:124] Setting up label_mnist_1_split
I0428 20:19:12.066242  1313 net.cpp:131] Top shape: 100 (100)
I0428 20:19:12.066246  1313 net.cpp:131] Top shape: 100 (100)
I0428 20:19:12.066248  1313 net.cpp:139] Memory required for data: 314800
I0428 20:19:12.066251  1313 layer_factory.hpp:77] Creating layer conv0
I0428 20:19:12.066259  1313 net.cpp:86] Creating Layer conv0
I0428 20:19:12.066262  1313 net.cpp:408] conv0 <- data
I0428 20:19:12.066267  1313 net.cpp:382] conv0 -> conv0
I0428 20:19:12.068279  1313 net.cpp:124] Setting up conv0
I0428 20:19:12.068292  1313 net.cpp:131] Top shape: 100 50 24 24 (2880000)
I0428 20:19:12.068296  1313 net.cpp:139] Memory required for data: 11834800
I0428 20:19:12.068305  1313 layer_factory.hpp:77] Creating layer pool0
I0428 20:19:12.068310  1313 net.cpp:86] Creating Layer pool0
I0428 20:19:12.068313  1313 net.cpp:408] pool0 <- conv0
I0428 20:19:12.068318  1313 net.cpp:382] pool0 -> pool0
I0428 20:19:12.068351  1313 net.cpp:124] Setting up pool0
I0428 20:19:12.068356  1313 net.cpp:131] Top shape: 100 50 12 12 (720000)
I0428 20:19:12.068359  1313 net.cpp:139] Memory required for data: 14714800
I0428 20:19:12.068363  1313 layer_factory.hpp:77] Creating layer conv1
I0428 20:19:12.068372  1313 net.cpp:86] Creating Layer conv1
I0428 20:19:12.068373  1313 net.cpp:408] conv1 <- pool0
I0428 20:19:12.068378  1313 net.cpp:382] conv1 -> conv1
I0428 20:19:12.070300  1313 net.cpp:124] Setting up conv1
I0428 20:19:12.070313  1313 net.cpp:131] Top shape: 100 25 8 8 (160000)
I0428 20:19:12.070317  1313 net.cpp:139] Memory required for data: 15354800
I0428 20:19:12.070325  1313 layer_factory.hpp:77] Creating layer pool1
I0428 20:19:12.070332  1313 net.cpp:86] Creating Layer pool1
I0428 20:19:12.070358  1313 net.cpp:408] pool1 <- conv1
I0428 20:19:12.070363  1313 net.cpp:382] pool1 -> pool1
I0428 20:19:12.070431  1313 net.cpp:124] Setting up pool1
I0428 20:19:12.070442  1313 net.cpp:131] Top shape: 100 25 4 4 (40000)
I0428 20:19:12.070446  1313 net.cpp:139] Memory required for data: 15514800
I0428 20:19:12.070448  1313 layer_factory.hpp:77] Creating layer ip1
I0428 20:19:12.070454  1313 net.cpp:86] Creating Layer ip1
I0428 20:19:12.070464  1313 net.cpp:408] ip1 <- pool1
I0428 20:19:12.070468  1313 net.cpp:382] ip1 -> ip1
I0428 20:19:12.070674  1313 net.cpp:124] Setting up ip1
I0428 20:19:12.070698  1313 net.cpp:131] Top shape: 100 50 (5000)
I0428 20:19:12.070700  1313 net.cpp:139] Memory required for data: 15534800
I0428 20:19:12.070706  1313 layer_factory.hpp:77] Creating layer relu1
I0428 20:19:12.070713  1313 net.cpp:86] Creating Layer relu1
I0428 20:19:12.070715  1313 net.cpp:408] relu1 <- ip1
I0428 20:19:12.070719  1313 net.cpp:369] relu1 -> ip1 (in-place)
I0428 20:19:12.070883  1313 net.cpp:124] Setting up relu1
I0428 20:19:12.070891  1313 net.cpp:131] Top shape: 100 50 (5000)
I0428 20:19:12.070894  1313 net.cpp:139] Memory required for data: 15554800
I0428 20:19:12.070897  1313 layer_factory.hpp:77] Creating layer ip2
I0428 20:19:12.070912  1313 net.cpp:86] Creating Layer ip2
I0428 20:19:12.070915  1313 net.cpp:408] ip2 <- ip1
I0428 20:19:12.070920  1313 net.cpp:382] ip2 -> ip2
I0428 20:19:12.071013  1313 net.cpp:124] Setting up ip2
I0428 20:19:12.071022  1313 net.cpp:131] Top shape: 100 10 (1000)
I0428 20:19:12.071024  1313 net.cpp:139] Memory required for data: 15558800
I0428 20:19:12.071053  1313 layer_factory.hpp:77] Creating layer relu2
I0428 20:19:12.071058  1313 net.cpp:86] Creating Layer relu2
I0428 20:19:12.071060  1313 net.cpp:408] relu2 <- ip2
I0428 20:19:12.071064  1313 net.cpp:369] relu2 -> ip2 (in-place)
I0428 20:19:12.071214  1313 net.cpp:124] Setting up relu2
I0428 20:19:12.071221  1313 net.cpp:131] Top shape: 100 10 (1000)
I0428 20:19:12.071224  1313 net.cpp:139] Memory required for data: 15562800
I0428 20:19:12.071228  1313 layer_factory.hpp:77] Creating layer ip2_relu2_0_split
I0428 20:19:12.071231  1313 net.cpp:86] Creating Layer ip2_relu2_0_split
I0428 20:19:12.071234  1313 net.cpp:408] ip2_relu2_0_split <- ip2
I0428 20:19:12.071244  1313 net.cpp:382] ip2_relu2_0_split -> ip2_relu2_0_split_0
I0428 20:19:12.071260  1313 net.cpp:382] ip2_relu2_0_split -> ip2_relu2_0_split_1
I0428 20:19:12.071308  1313 net.cpp:124] Setting up ip2_relu2_0_split
I0428 20:19:12.071313  1313 net.cpp:131] Top shape: 100 10 (1000)
I0428 20:19:12.071316  1313 net.cpp:131] Top shape: 100 10 (1000)
I0428 20:19:12.071319  1313 net.cpp:139] Memory required for data: 15570800
I0428 20:19:12.071323  1313 layer_factory.hpp:77] Creating layer accuracy
I0428 20:19:12.071328  1313 net.cpp:86] Creating Layer accuracy
I0428 20:19:12.071331  1313 net.cpp:408] accuracy <- ip2_relu2_0_split_0
I0428 20:19:12.071352  1313 net.cpp:408] accuracy <- label_mnist_1_split_0
I0428 20:19:12.071355  1313 net.cpp:382] accuracy -> accuracy
…
