…
I0428 19:40:16.001610 24503 net.cpp:296] The NetState phase (0) differed from the phase (1) specified by a rule in layer mnist
I0428 19:40:16.001631 24503 net.cpp:296] The NetState phase (0) differed from the phase (1) specified by a rule in layer accuracy
I0428 19:40:16.001732 24503 net.cpp:53] Initializing net from parameters: 
name: "LeNet"
state {
  phase: TRAIN
  level: 0
  stage: ""
}
layer {
  name: "mnist"
  type: "Data"
  top: "data"
  top: "label"
  include {
    phase: TRAIN
  }
  transform_param {
    scale: 0.00390625
  }
  data_param {
    source: "examples/mnist/mnist_train_lmdb"
    batch_size: 64
    backend: LMDB
  }
}
layer {
  name: "conv0"
  type: "Convolution"
  bottom: "data"
  top: "conv0"
  param {
    lr_mult: 1
  }
  param {
    lr_mult: 2
  }
  convolution_param {
    num_output: 2
    kernel_size: 5
    stride: 1
    weight_filler {
      type: "xavier"
    }
    bias_filler {
      type: "constant"
    }
  }
}
layer {
  name: "pool0"
  type: "Pooling"
  bottom: "conv0"
  top: "pool0"
  pooling_param {
    pool: MAX
    kernel_size: 2
    stride: 2
  }
}
layer {
  name: "conv1"
  type: "Convolution"
  bottom: "pool0"
  top: "conv1"
  param {
    lr_mult: 1
  }
  param {
    lr_mult: 2
  }
  convolution_param {
    num_output: 5
    kernel_size: 5
    stride: 1
    weight_filler {
      type: "xavier"
    }
    bias_filler {
      type: "constant"
    }
  }
}
layer {
  name: "pool1"
  type: "Pooling"
  bottom: "conv1"
  top: "pool1"
  pooling_param {
    pool: MAX
    kernel_size: 2
    stride: 2
  }
}
layer {
  name: "ip1"
  type: "InnerProduct"
  bottom: "pool1"
  top: "ip1"
  param {
    lr_mult: 1
  }
  param {
    lr_mult: 2
  }
  inner_product_param {
    num_output: 10
    weight_filler {
      type: "xavier"
    }
    bias_filler {
      type: "constant"
    }
  }
}
layer {
  name: "relu1"
  type: "ReLU"
  bottom: "ip1"
  top: "ip1"
}
layer {
  name: "ip2"
  type: "InnerProduct"
  bottom: "ip1"
  top: "ip2"
  param {
    lr_mult: 1
  }
  param {
    lr_mult: 2
  }
  inner_product_param {
    num_output: 25
    weight_filler {
      type: "xavier"
    }
    bias_filler {
      type: "constant"
    }
  }
}
layer {
  name: "relu2"
  type: "ReLU"
  bottom: "ip2"
  top: "ip2"
}
layer {
  name: "ip3"
  type: "InnerProduct"
  bottom: "ip2"
  top: "ip3"
  param {
    lr_mult: 1
  }
  param {
    lr_mult: 2
  }
  inner_product_param {
    num_output: 10
    weight_filler {
      type: "xavier"
    }
    bias_filler {
      type: "constant"
    }
  }
}
layer {
  name: "relu3"
  type: "ReLU"
  bottom: "ip3"
  top: "ip3"
}
layer {
  name: "loss"
  type: "SoftmaxWithLoss"
  bottom: "ip3"
  bottom: "label"
  top: "loss"
}
I0428 19:40:16.001824 24503 layer_factory.hpp:77] Creating layer mnist
I0428 19:40:16.001927 24503 db_lmdb.cpp:35] Opened lmdb examples/mnist/mnist_train_lmdb
I0428 19:40:16.001951 24503 net.cpp:86] Creating Layer mnist
I0428 19:40:16.001961 24503 net.cpp:382] mnist -> data
I0428 19:40:16.001983 24503 net.cpp:382] mnist -> label
I0428 19:40:16.003075 24503 data_layer.cpp:45] output data size: 64,1,28,28
I0428 19:40:16.005540 24503 net.cpp:124] Setting up mnist
I0428 19:40:16.005559 24503 net.cpp:131] Top shape: 64 1 28 28 (50176)
I0428 19:40:16.005565 24503 net.cpp:131] Top shape: 64 (64)
I0428 19:40:16.005568 24503 net.cpp:139] Memory required for data: 200960
I0428 19:40:16.005575 24503 layer_factory.hpp:77] Creating layer conv0
I0428 19:40:16.005592 24503 net.cpp:86] Creating Layer conv0
I0428 19:40:16.005614 24503 net.cpp:408] conv0 <- data
I0428 19:40:16.005626 24503 net.cpp:382] conv0 -> conv0
I0428 19:40:16.298032 24503 net.cpp:124] Setting up conv0
I0428 19:40:16.298063 24503 net.cpp:131] Top shape: 64 2 24 24 (73728)
I0428 19:40:16.298068 24503 net.cpp:139] Memory required for data: 495872
I0428 19:40:16.298085 24503 layer_factory.hpp:77] Creating layer pool0
I0428 19:40:16.298102 24503 net.cpp:86] Creating Layer pool0
I0428 19:40:16.298106 24503 net.cpp:408] pool0 <- conv0
I0428 19:40:16.298113 24503 net.cpp:382] pool0 -> pool0
I0428 19:40:16.298172 24503 net.cpp:124] Setting up pool0
I0428 19:40:16.298180 24503 net.cpp:131] Top shape: 64 2 12 12 (18432)
I0428 19:40:16.298184 24503 net.cpp:139] Memory required for data: 569600
I0428 19:40:16.298187 24503 layer_factory.hpp:77] Creating layer conv1
I0428 19:40:16.298202 24503 net.cpp:86] Creating Layer conv1
I0428 19:40:16.298210 24503 net.cpp:408] conv1 <- pool0
I0428 19:40:16.298218 24503 net.cpp:382] conv1 -> conv1
I0428 19:40:16.300714 24503 net.cpp:124] Setting up conv1
I0428 19:40:16.300732 24503 net.cpp:131] Top shape: 64 5 8 8 (20480)
I0428 19:40:16.300736 24503 net.cpp:139] Memory required for data: 651520
I0428 19:40:16.300747 24503 layer_factory.hpp:77] Creating layer pool1
I0428 19:40:16.300756 24503 net.cpp:86] Creating Layer pool1
I0428 19:40:16.300763 24503 net.cpp:408] pool1 <- conv1
I0428 19:40:16.300768 24503 net.cpp:382] pool1 -> pool1
I0428 19:40:16.300827 24503 net.cpp:124] Setting up pool1
I0428 19:40:16.300837 24503 net.cpp:131] Top shape: 64 5 4 4 (5120)
I0428 19:40:16.300840 24503 net.cpp:139] Memory required for data: 672000
I0428 19:40:16.300843 24503 layer_factory.hpp:77] Creating layer ip1
I0428 19:40:16.300853 24503 net.cpp:86] Creating Layer ip1
I0428 19:40:16.300856 24503 net.cpp:408] ip1 <- pool1
I0428 19:40:16.300863 24503 net.cpp:382] ip1 -> ip1
I0428 19:40:16.300992 24503 net.cpp:124] Setting up ip1
I0428 19:40:16.301002 24503 net.cpp:131] Top shape: 64 10 (640)
I0428 19:40:16.301005 24503 net.cpp:139] Memory required for data: 674560
I0428 19:40:16.301013 24503 layer_factory.hpp:77] Creating layer relu1
I0428 19:40:16.301023 24503 net.cpp:86] Creating Layer relu1
I0428 19:40:16.301026 24503 net.cpp:408] relu1 <- ip1
I0428 19:40:16.301033 24503 net.cpp:369] relu1 -> ip1 (in-place)
I0428 19:40:16.301244 24503 net.cpp:124] Setting up relu1
I0428 19:40:16.301254 24503 net.cpp:131] Top shape: 64 10 (640)
I0428 19:40:16.301259 24503 net.cpp:139] Memory required for data: 677120
I0428 19:40:16.301262 24503 layer_factory.hpp:77] Creating layer ip2
I0428 19:40:16.301270 24503 net.cpp:86] Creating Layer ip2
I0428 19:40:16.301273 24503 net.cpp:408] ip2 <- ip1
I0428 19:40:16.301280 24503 net.cpp:382] ip2 -> ip2
I0428 19:40:16.301405 24503 net.cpp:124] Setting up ip2
I0428 19:40:16.301414 24503 net.cpp:131] Top shape: 64 25 (1600)
I0428 19:40:16.301419 24503 net.cpp:139] Memory required for data: 683520
I0428 19:40:16.301424 24503 layer_factory.hpp:77] Creating layer relu2
I0428 19:40:16.301432 24503 net.cpp:86] Creating Layer relu2
I0428 19:40:16.301435 24503 net.cpp:408] relu2 <- ip2
I0428 19:40:16.301442 24503 net.cpp:369] relu2 -> ip2 (in-place)
I0428 19:40:16.302301 24503 net.cpp:124] Setting up relu2
I0428 19:40:16.302316 24503 net.cpp:131] Top shape: 64 25 (1600)
I0428 19:40:16.302320 24503 net.cpp:139] Memory required for data: 689920
I0428 19:40:16.302325 24503 layer_factory.hpp:77] Creating layer ip3
I0428 19:40:16.302335 24503 net.cpp:86] Creating Layer ip3
I0428 19:40:16.302338 24503 net.cpp:408] ip3 <- ip2
I0428 19:40:16.302345 24503 net.cpp:382] ip3 -> ip3
I0428 19:40:16.302465 24503 net.cpp:124] Setting up ip3
I0428 19:40:16.302474 24503 net.cpp:131] Top shape: 64 10 (640)
I0428 19:40:16.302479 24503 net.cpp:139] Memory required for data: 692480
I0428 19:40:16.302489 24503 layer_factory.hpp:77] Creating layer relu3
I0428 19:40:16.302498 24503 net.cpp:86] Creating Layer relu3
I0428 19:40:16.302501 24503 net.cpp:408] relu3 <- ip3
I0428 19:40:16.302506 24503 net.cpp:369] relu3 -> ip3 (in-place)
I0428 19:40:16.302719 24503 net.cpp:124] Setting up relu3
I0428 19:40:16.302731 24503 net.cpp:131] Top shape: 64 10 (640)
I0428 19:40:16.302736 24503 net.cpp:139] Memory required for data: 695040
I0428 19:40:16.302738 24503 layer_factory.hpp:77] Creating layer loss
I0428 19:40:16.302745 24503 net.cpp:86] Creating Layer loss
I0428 19:40:16.302749 24503 net.cpp:408] loss <- ip3
I0428 19:40:16.302753 24503 net.cpp:408] loss <- label
I0428 19:40:16.302760 24503 net.cpp:382] loss -> loss
I0428 19:40:16.302776 24503 layer_factory.hpp:77] Creating layer loss
…
I0428 19:40:16.303545 24503 solver.cpp:173] Creating test net (#0) specified by net file: ECE595/mnist/train_test/var_everything2/lenet_train_test329.prototxt
I0428 19:40:16.303577 24503 net.cpp:296] The NetState phase (1) differed from the phase (0) specified by a rule in layer mnist
I0428 19:40:16.303689 24503 net.cpp:53] Initializing net from parameters: 
name: "LeNet"
state {
  phase: TEST
}
layer {
  name: "mnist"
  type: "Data"
  top: "data"
  top: "label"
  include {
    phase: TEST
  }
  transform_param {
    scale: 0.00390625
  }
  data_param {
    source: "examples/mnist/mnist_test_lmdb"
    batch_size: 100
    backend: LMDB
  }
}
layer {
  name: "conv0"
  type: "Convolution"
  bottom: "data"
  top: "conv0"
  param {
    lr_mult: 1
  }
  param {
    lr_mult: 2
  }
  convolution_param {
    num_output: 2
    kernel_size: 5
    stride: 1
    weight_filler {
      type: "xavier"
    }
    bias_filler {
      type: "constant"
    }
  }
}
layer {
  name: "pool0"
  type: "Pooling"
  bottom: "conv0"
  top: "pool0"
  pooling_param {
    pool: MAX
    kernel_size: 2
    stride: 2
  }
}
layer {
  name: "conv1"
  type: "Convolution"
  bottom: "pool0"
  top: "conv1"
  param {
    lr_mult: 1
  }
  param {
    lr_mult: 2
  }
  convolution_param {
    num_output: 5
    kernel_size: 5
    stride: 1
    weight_filler {
      type: "xavier"
    }
    bias_filler {
      type: "constant"
    }
  }
}
layer {
  name: "pool1"
  type: "Pooling"
  bottom: "conv1"
  top: "pool1"
  pooling_param {
    pool: MAX
    kernel_size: 2
    stride: 2
  }
}
layer {
  name: "ip1"
  type: "InnerProduct"
  bottom: "pool1"
  top: "ip1"
  param {
    lr_mult: 1
  }
  param {
    lr_mult: 2
  }
  inner_product_param {
    num_output: 10
    weight_filler {
      type: "xavier"
    }
    bias_filler {
      type: "constant"
    }
  }
}
layer {
  name: "relu1"
  type: "ReLU"
  bottom: "ip1"
  top: "ip1"
}
layer {
  name: "ip2"
  type: "InnerProduct"
  bottom: "ip1"
  top: "ip2"
  param {
    lr_mult: 1
  }
  param {
    lr_mult: 2
  }
  inner_product_param {
    num_output: 25
    weight_filler {
      type: "xavier"
    }
    bias_filler {
      type: "constant"
    }
  }
}
layer {
  name: "relu2"
  type: "ReLU"
  bottom: "ip2"
  top: "ip2"
}
layer {
  name: "ip3"
  type: "InnerProduct"
  bottom: "ip2"
  top: "ip3"
  param {
    lr_mult: 1
  }
  param {
    lr_mult: 2
  }
  inner_product_param {
    num_output: 10
    weight_filler {
      type: "xavier"
    }
    bias_filler {
      type: "constant"
    }
  }
}
layer {
  name: "relu3"
  type: "ReLU"
  bottom: "ip3"
  top: "ip3"
}
layer {
  name: "accuracy"
  type: "Accuracy"
  bottom: "ip3"
  bottom: "label"
  top: "accuracy"
  include {
    phase: TEST
  }
}
layer {
  name: "loss"
  type: "SoftmaxWithLoss"
  bottom: "ip3"
  bottom: "label"
  top: "loss"
}
I0428 19:40:16.303787 24503 layer_factory.hpp:77] Creating layer mnist
I0428 19:40:16.303841 24503 db_lmdb.cpp:35] Opened lmdb examples/mnist/mnist_test_lmdb
I0428 19:40:16.303858 24503 net.cpp:86] Creating Layer mnist
I0428 19:40:16.303865 24503 net.cpp:382] mnist -> data
I0428 19:40:16.303874 24503 net.cpp:382] mnist -> label
I0428 19:40:16.303980 24503 data_layer.cpp:45] output data size: 100,1,28,28
I0428 19:40:16.306188 24503 net.cpp:124] Setting up mnist
I0428 19:40:16.306205 24503 net.cpp:131] Top shape: 100 1 28 28 (78400)
I0428 19:40:16.306210 24503 net.cpp:131] Top shape: 100 (100)
I0428 19:40:16.306213 24503 net.cpp:139] Memory required for data: 314000
I0428 19:40:16.306218 24503 layer_factory.hpp:77] Creating layer label_mnist_1_split
I0428 19:40:16.306226 24503 net.cpp:86] Creating Layer label_mnist_1_split
I0428 19:40:16.306229 24503 net.cpp:408] label_mnist_1_split <- label
I0428 19:40:16.306254 24503 net.cpp:382] label_mnist_1_split -> label_mnist_1_split_0
I0428 19:40:16.306263 24503 net.cpp:382] label_mnist_1_split -> label_mnist_1_split_1
I0428 19:40:16.306319 24503 net.cpp:124] Setting up label_mnist_1_split
I0428 19:40:16.306329 24503 net.cpp:131] Top shape: 100 (100)
I0428 19:40:16.306334 24503 net.cpp:131] Top shape: 100 (100)
I0428 19:40:16.306336 24503 net.cpp:139] Memory required for data: 314800
I0428 19:40:16.306340 24503 layer_factory.hpp:77] Creating layer conv0
I0428 19:40:16.306356 24503 net.cpp:86] Creating Layer conv0
I0428 19:40:16.306360 24503 net.cpp:408] conv0 <- data
I0428 19:40:16.306366 24503 net.cpp:382] conv0 -> conv0
I0428 19:40:16.308356 24503 net.cpp:124] Setting up conv0
I0428 19:40:16.308372 24503 net.cpp:131] Top shape: 100 2 24 24 (115200)
I0428 19:40:16.308377 24503 net.cpp:139] Memory required for data: 775600
I0428 19:40:16.308387 24503 layer_factory.hpp:77] Creating layer pool0
I0428 19:40:16.308395 24503 net.cpp:86] Creating Layer pool0
I0428 19:40:16.308399 24503 net.cpp:408] pool0 <- conv0
I0428 19:40:16.308406 24503 net.cpp:382] pool0 -> pool0
I0428 19:40:16.308450 24503 net.cpp:124] Setting up pool0
I0428 19:40:16.308461 24503 net.cpp:131] Top shape: 100 2 12 12 (28800)
I0428 19:40:16.308467 24503 net.cpp:139] Memory required for data: 890800
I0428 19:40:16.308473 24503 layer_factory.hpp:77] Creating layer conv1
I0428 19:40:16.308487 24503 net.cpp:86] Creating Layer conv1
I0428 19:40:16.308493 24503 net.cpp:408] conv1 <- pool0
I0428 19:40:16.308500 24503 net.cpp:382] conv1 -> conv1
I0428 19:40:16.310369 24503 net.cpp:124] Setting up conv1
I0428 19:40:16.310386 24503 net.cpp:131] Top shape: 100 5 8 8 (32000)
I0428 19:40:16.310391 24503 net.cpp:139] Memory required for data: 1018800
I0428 19:40:16.310402 24503 layer_factory.hpp:77] Creating layer pool1
I0428 19:40:16.310410 24503 net.cpp:86] Creating Layer pool1
I0428 19:40:16.310415 24503 net.cpp:408] pool1 <- conv1
I0428 19:40:16.310420 24503 net.cpp:382] pool1 -> pool1
I0428 19:40:16.310469 24503 net.cpp:124] Setting up pool1
I0428 19:40:16.310482 24503 net.cpp:131] Top shape: 100 5 4 4 (8000)
I0428 19:40:16.310487 24503 net.cpp:139] Memory required for data: 1050800
I0428 19:40:16.310490 24503 layer_factory.hpp:77] Creating layer ip1
I0428 19:40:16.310497 24503 net.cpp:86] Creating Layer ip1
I0428 19:40:16.310501 24503 net.cpp:408] ip1 <- pool1
I0428 19:40:16.310508 24503 net.cpp:382] ip1 -> ip1
I0428 19:40:16.310664 24503 net.cpp:124] Setting up ip1
I0428 19:40:16.310674 24503 net.cpp:131] Top shape: 100 10 (1000)
I0428 19:40:16.310690 24503 net.cpp:139] Memory required for data: 1054800
I0428 19:40:16.310699 24503 layer_factory.hpp:77] Creating layer relu1
I0428 19:40:16.310708 24503 net.cpp:86] Creating Layer relu1
I0428 19:40:16.310712 24503 net.cpp:408] relu1 <- ip1
I0428 19:40:16.310719 24503 net.cpp:369] relu1 -> ip1 (in-place)
I0428 19:40:16.310917 24503 net.cpp:124] Setting up relu1
I0428 19:40:16.310928 24503 net.cpp:131] Top shape: 100 10 (1000)
I0428 19:40:16.310932 24503 net.cpp:139] Memory required for data: 1058800
I0428 19:40:16.310936 24503 layer_factory.hpp:77] Creating layer ip2
I0428 19:40:16.310946 24503 net.cpp:86] Creating Layer ip2
I0428 19:40:16.310950 24503 net.cpp:408] ip2 <- ip1
I0428 19:40:16.310956 24503 net.cpp:382] ip2 -> ip2
I0428 19:40:16.311079 24503 net.cpp:124] Setting up ip2
I0428 19:40:16.311091 24503 net.cpp:131] Top shape: 100 25 (2500)
I0428 19:40:16.311094 24503 net.cpp:139] Memory required for data: 1068800
I0428 19:40:16.311101 24503 layer_factory.hpp:77] Creating layer relu2
I0428 19:40:16.311108 24503 net.cpp:86] Creating Layer relu2
I0428 19:40:16.311111 24503 net.cpp:408] relu2 <- ip2
I0428 19:40:16.311117 24503 net.cpp:369] relu2 -> ip2 (in-place)
I0428 19:40:16.311400 24503 net.cpp:124] Setting up relu2
I0428 19:40:16.311411 24503 net.cpp:131] Top shape: 100 25 (2500)
I0428 19:40:16.311415 24503 net.cpp:139] Memory required for data: 1078800
I0428 19:40:16.311419 24503 layer_factory.hpp:77] Creating layer ip3
I0428 19:40:16.311429 24503 net.cpp:86] Creating Layer ip3
I0428 19:40:16.311432 24503 net.cpp:408] ip3 <- ip2
I0428 19:40:16.311439 24503 net.cpp:382] ip3 -> ip3
I0428 19:40:16.311563 24503 net.cpp:124] Setting up ip3
I0428 19:40:16.311574 24503 net.cpp:131] Top shape: 100 10 (1000)
I0428 19:40:16.311578 24503 net.cpp:139] Memory required for data: 1082800
I0428 19:40:16.311590 24503 layer_factory.hpp:77] Creating layer relu3
I0428 19:40:16.311596 24503 net.cpp:86] Creating Layer relu3
I0428 19:40:16.311599 24503 net.cpp:408] relu3 <- ip3
I0428 19:40:16.311604 24503 net.cpp:369] relu3 -> ip3 (in-place)
I0428 19:40:16.312515 24503 net.cpp:124] Setting up relu3
I0428 19:40:16.312530 24503 net.cpp:131] Top shape: 100 10 (1000)
I0428 19:40:16.312533 24503 net.cpp:139] Memory required for data: 1086800
I0428 19:40:16.312537 24503 layer_factory.hpp:77] Creating layer ip3_relu3_0_split
I0428 19:40:16.312546 24503 net.cpp:86] Creating Layer ip3_relu3_0_split
I0428 19:40:16.312549 24503 net.cpp:408] ip3_relu3_0_split <- ip3
I0428 19:40:16.312556 24503 net.cpp:382] ip3_relu3_0_split -> ip3_relu3_0_split_0
I0428 19:40:16.312563 24503 net.cpp:382] ip3_relu3_0_split -> ip3_relu3_0_split_1
I0428 19:40:16.312610 24503 net.cpp:124] Setting up ip3_relu3_0_split
I0428 19:40:16.312618 24503 net.cpp:131] Top shape: 100 10 (1000)
I0428 19:40:16.312623 24503 net.cpp:131] Top shape: 100 10 (1000)
I0428 19:40:16.312625 24503 net.cpp:139] Memory required for data: 1094800
I0428 19:40:16.312629 24503 layer_factory.hpp:77] Creating layer accuracy
I0428 19:40:16.312636 24503 net.cpp:86] Creating Layer accuracy
I0428 19:40:16.312639 24503 net.cpp:408] accuracy <- ip3_relu3_0_split_0
I0428 19:40:16.312644 24503 net.cpp:408] accuracy <- label_mnist_1_split_0
I0428 19:40:16.312649 24503 net.cpp:382] accuracy -> accuracy
…
