…
I0428 20:34:31.140326  4482 net.cpp:296] The NetState phase (0) differed from the phase (1) specified by a rule in layer mnist
I0428 20:34:31.140341  4482 net.cpp:296] The NetState phase (0) differed from the phase (1) specified by a rule in layer accuracy
I0428 20:34:31.140411  4482 net.cpp:53] Initializing net from parameters: 
name: "LeNet"
state {
  phase: TRAIN
  level: 0
  stage: ""
}
layer {
  name: "mnist"
  type: "Data"
  top: "data"
  top: "label"
  include {
    phase: TRAIN
  }
  transform_param {
    scale: 0.00390625
  }
  data_param {
    source: "examples/mnist/mnist_train_lmdb"
    batch_size: 64
    backend: LMDB
  }
}
layer {
  name: "conv0"
  type: "Convolution"
  bottom: "data"
  top: "conv0"
  param {
    lr_mult: 1
  }
  param {
    lr_mult: 2
  }
  convolution_param {
    num_output: 100
    kernel_size: 5
    stride: 1
    weight_filler {
      type: "xavier"
    }
    bias_filler {
      type: "constant"
    }
  }
}
layer {
  name: "pool0"
  type: "Pooling"
  bottom: "conv0"
  top: "pool0"
  pooling_param {
    pool: MAX
    kernel_size: 2
    stride: 2
  }
}
layer {
  name: "conv1"
  type: "Convolution"
  bottom: "pool0"
  top: "conv1"
  param {
    lr_mult: 1
  }
  param {
    lr_mult: 2
  }
  convolution_param {
    num_output: 50
    kernel_size: 5
    stride: 1
    weight_filler {
      type: "xavier"
    }
    bias_filler {
      type: "constant"
    }
  }
}
layer {
  name: "pool1"
  type: "Pooling"
  bottom: "conv1"
  top: "pool1"
  pooling_param {
    pool: MAX
    kernel_size: 2
    stride: 2
  }
}
layer {
  name: "ip1"
  type: "InnerProduct"
  bottom: "pool1"
  top: "ip1"
  param {
    lr_mult: 1
  }
  param {
    lr_mult: 2
  }
  inner_product_param {
    num_output: 25
    weight_filler {
      type: "xavier"
    }
    bias_filler {
      type: "constant"
    }
  }
}
layer {
  name: "relu1"
  type: "ReLU"
  bottom: "ip1"
  top: "ip1"
}
layer {
  name: "ip2"
  type: "InnerProduct"
  bottom: "ip1"
  top: "ip2"
  param {
    lr_mult: 1
  }
  param {
    lr_mult: 2
  }
  inner_product_param {
    num_output: 10
    weight_filler {
      type: "xavier"
    }
    bias_filler {
      type: "constant"
    }
  }
}
layer {
  name: "relu2"
  type: "ReLU"
  bottom: "ip2"
  top: "ip2"
}
layer {
  name: "loss"
  type: "SoftmaxWithLoss"
  bottom: "ip2"
  bottom: "label"
  top: "loss"
}
I0428 20:34:31.140471  4482 layer_factory.hpp:77] Creating layer mnist
I0428 20:34:31.140565  4482 db_lmdb.cpp:35] Opened lmdb examples/mnist/mnist_train_lmdb
I0428 20:34:31.140584  4482 net.cpp:86] Creating Layer mnist
I0428 20:34:31.140594  4482 net.cpp:382] mnist -> data
I0428 20:34:31.140611  4482 net.cpp:382] mnist -> label
I0428 20:34:31.141706  4482 data_layer.cpp:45] output data size: 64,1,28,28
I0428 20:34:31.143980  4482 net.cpp:124] Setting up mnist
I0428 20:34:31.144026  4482 net.cpp:131] Top shape: 64 1 28 28 (50176)
I0428 20:34:31.144031  4482 net.cpp:131] Top shape: 64 (64)
I0428 20:34:31.144033  4482 net.cpp:139] Memory required for data: 200960
I0428 20:34:31.144039  4482 layer_factory.hpp:77] Creating layer conv0
I0428 20:34:31.144054  4482 net.cpp:86] Creating Layer conv0
I0428 20:34:31.144058  4482 net.cpp:408] conv0 <- data
I0428 20:34:31.144069  4482 net.cpp:382] conv0 -> conv0
I0428 20:34:31.378177  4482 net.cpp:124] Setting up conv0
I0428 20:34:31.378204  4482 net.cpp:131] Top shape: 64 100 24 24 (3686400)
I0428 20:34:31.378208  4482 net.cpp:139] Memory required for data: 14946560
I0428 20:34:31.378257  4482 layer_factory.hpp:77] Creating layer pool0
I0428 20:34:31.378271  4482 net.cpp:86] Creating Layer pool0
I0428 20:34:31.378274  4482 net.cpp:408] pool0 <- conv0
I0428 20:34:31.378280  4482 net.cpp:382] pool0 -> pool0
I0428 20:34:31.378340  4482 net.cpp:124] Setting up pool0
I0428 20:34:31.378348  4482 net.cpp:131] Top shape: 64 100 12 12 (921600)
I0428 20:34:31.378351  4482 net.cpp:139] Memory required for data: 18632960
I0428 20:34:31.378355  4482 layer_factory.hpp:77] Creating layer conv1
I0428 20:34:31.378365  4482 net.cpp:86] Creating Layer conv1
I0428 20:34:31.378368  4482 net.cpp:408] conv1 <- pool0
I0428 20:34:31.378372  4482 net.cpp:382] conv1 -> conv1
I0428 20:34:31.381889  4482 net.cpp:124] Setting up conv1
I0428 20:34:31.381903  4482 net.cpp:131] Top shape: 64 50 8 8 (204800)
I0428 20:34:31.381907  4482 net.cpp:139] Memory required for data: 19452160
I0428 20:34:31.381916  4482 layer_factory.hpp:77] Creating layer pool1
I0428 20:34:31.381922  4482 net.cpp:86] Creating Layer pool1
I0428 20:34:31.381927  4482 net.cpp:408] pool1 <- conv1
I0428 20:34:31.381932  4482 net.cpp:382] pool1 -> pool1
I0428 20:34:31.381964  4482 net.cpp:124] Setting up pool1
I0428 20:34:31.381973  4482 net.cpp:131] Top shape: 64 50 4 4 (51200)
I0428 20:34:31.381974  4482 net.cpp:139] Memory required for data: 19656960
I0428 20:34:31.381978  4482 layer_factory.hpp:77] Creating layer ip1
I0428 20:34:31.381983  4482 net.cpp:86] Creating Layer ip1
I0428 20:34:31.382002  4482 net.cpp:408] ip1 <- pool1
I0428 20:34:31.382007  4482 net.cpp:382] ip1 -> ip1
I0428 20:34:31.382205  4482 net.cpp:124] Setting up ip1
I0428 20:34:31.382213  4482 net.cpp:131] Top shape: 64 25 (1600)
I0428 20:34:31.382216  4482 net.cpp:139] Memory required for data: 19663360
I0428 20:34:31.382222  4482 layer_factory.hpp:77] Creating layer relu1
I0428 20:34:31.382228  4482 net.cpp:86] Creating Layer relu1
I0428 20:34:31.382231  4482 net.cpp:408] relu1 <- ip1
I0428 20:34:31.382236  4482 net.cpp:369] relu1 -> ip1 (in-place)
I0428 20:34:31.382407  4482 net.cpp:124] Setting up relu1
I0428 20:34:31.382416  4482 net.cpp:131] Top shape: 64 25 (1600)
I0428 20:34:31.382418  4482 net.cpp:139] Memory required for data: 19669760
I0428 20:34:31.382421  4482 layer_factory.hpp:77] Creating layer ip2
I0428 20:34:31.382427  4482 net.cpp:86] Creating Layer ip2
I0428 20:34:31.382431  4482 net.cpp:408] ip2 <- ip1
I0428 20:34:31.382436  4482 net.cpp:382] ip2 -> ip2
I0428 20:34:31.382521  4482 net.cpp:124] Setting up ip2
I0428 20:34:31.382529  4482 net.cpp:131] Top shape: 64 10 (640)
I0428 20:34:31.382531  4482 net.cpp:139] Memory required for data: 19672320
I0428 20:34:31.382536  4482 layer_factory.hpp:77] Creating layer relu2
I0428 20:34:31.382542  4482 net.cpp:86] Creating Layer relu2
I0428 20:34:31.382545  4482 net.cpp:408] relu2 <- ip2
I0428 20:34:31.382549  4482 net.cpp:369] relu2 -> ip2 (in-place)
I0428 20:34:31.383332  4482 net.cpp:124] Setting up relu2
I0428 20:34:31.383343  4482 net.cpp:131] Top shape: 64 10 (640)
I0428 20:34:31.383347  4482 net.cpp:139] Memory required for data: 19674880
I0428 20:34:31.383350  4482 layer_factory.hpp:77] Creating layer loss
I0428 20:34:31.383357  4482 net.cpp:86] Creating Layer loss
I0428 20:34:31.383360  4482 net.cpp:408] loss <- ip2
I0428 20:34:31.383364  4482 net.cpp:408] loss <- label
I0428 20:34:31.383369  4482 net.cpp:382] loss -> loss
I0428 20:34:31.383389  4482 layer_factory.hpp:77] Creating layer loss
…
I0428 20:34:31.384042  4482 solver.cpp:173] Creating test net (#0) specified by net file: ECE595/mnist/train_test/var_everything2/lenet_train_test1606.prototxt
I0428 20:34:31.384065  4482 net.cpp:296] The NetState phase (1) differed from the phase (0) specified by a rule in layer mnist
I0428 20:34:31.384145  4482 net.cpp:53] Initializing net from parameters: 
name: "LeNet"
state {
  phase: TEST
}
layer {
  name: "mnist"
  type: "Data"
  top: "data"
  top: "label"
  include {
    phase: TEST
  }
  transform_param {
    scale: 0.00390625
  }
  data_param {
    source: "examples/mnist/mnist_test_lmdb"
    batch_size: 100
    backend: LMDB
  }
}
layer {
  name: "conv0"
  type: "Convolution"
  bottom: "data"
  top: "conv0"
  param {
    lr_mult: 1
  }
  param {
    lr_mult: 2
  }
  convolution_param {
    num_output: 100
    kernel_size: 5
    stride: 1
    weight_filler {
      type: "xavier"
    }
    bias_filler {
      type: "constant"
    }
  }
}
layer {
  name: "pool0"
  type: "Pooling"
  bottom: "conv0"
  top: "pool0"
  pooling_param {
    pool: MAX
    kernel_size: 2
    stride: 2
  }
}
layer {
  name: "conv1"
  type: "Convolution"
  bottom: "pool0"
  top: "conv1"
  param {
    lr_mult: 1
  }
  param {
    lr_mult: 2
  }
  convolution_param {
    num_output: 50
    kernel_size: 5
    stride: 1
    weight_filler {
      type: "xavier"
    }
    bias_filler {
      type: "constant"
    }
  }
}
layer {
  name: "pool1"
  type: "Pooling"
  bottom: "conv1"
  top: "pool1"
  pooling_param {
    pool: MAX
    kernel_size: 2
    stride: 2
  }
}
layer {
  name: "ip1"
  type: "InnerProduct"
  bottom: "pool1"
  top: "ip1"
  param {
    lr_mult: 1
  }
  param {
    lr_mult: 2
  }
  inner_product_param {
    num_output: 25
    weight_filler {
      type: "xavier"
    }
    bias_filler {
      type: "constant"
    }
  }
}
layer {
  name: "relu1"
  type: "ReLU"
  bottom: "ip1"
  top: "ip1"
}
layer {
  name: "ip2"
  type: "InnerProduct"
  bottom: "ip1"
  top: "ip2"
  param {
    lr_mult: 1
  }
  param {
    lr_mult: 2
  }
  inner_product_param {
    num_output: 10
    weight_filler {
      type: "xavier"
    }
    bias_filler {
      type: "constant"
    }
  }
}
layer {
  name: "relu2"
  type: "ReLU"
  bottom: "ip2"
  top: "ip2"
}
layer {
  name: "accuracy"
  type: "Accuracy"
  bottom: "ip2"
  bottom: "label"
  top: "accuracy"
  include {
    phase: TEST
  }
}
layer {
  name: "loss"
  type: "SoftmaxWithLoss"
  bottom: "ip2"
  bottom: "label"
  top: "loss"
}
I0428 20:34:31.384204  4482 layer_factory.hpp:77] Creating layer mnist
I0428 20:34:31.384248  4482 db_lmdb.cpp:35] Opened lmdb examples/mnist/mnist_test_lmdb
I0428 20:34:31.384259  4482 net.cpp:86] Creating Layer mnist
I0428 20:34:31.384263  4482 net.cpp:382] mnist -> data
I0428 20:34:31.384270  4482 net.cpp:382] mnist -> label
I0428 20:34:31.384346  4482 data_layer.cpp:45] output data size: 100,1,28,28
I0428 20:34:31.385484  4482 net.cpp:124] Setting up mnist
I0428 20:34:31.385514  4482 net.cpp:131] Top shape: 100 1 28 28 (78400)
I0428 20:34:31.385519  4482 net.cpp:131] Top shape: 100 (100)
I0428 20:34:31.385522  4482 net.cpp:139] Memory required for data: 314000
I0428 20:34:31.385525  4482 layer_factory.hpp:77] Creating layer label_mnist_1_split
I0428 20:34:31.385550  4482 net.cpp:86] Creating Layer label_mnist_1_split
I0428 20:34:31.385556  4482 net.cpp:408] label_mnist_1_split <- label
I0428 20:34:31.385561  4482 net.cpp:382] label_mnist_1_split -> label_mnist_1_split_0
I0428 20:34:31.385568  4482 net.cpp:382] label_mnist_1_split -> label_mnist_1_split_1
I0428 20:34:31.385663  4482 net.cpp:124] Setting up label_mnist_1_split
I0428 20:34:31.385671  4482 net.cpp:131] Top shape: 100 (100)
I0428 20:34:31.385674  4482 net.cpp:131] Top shape: 100 (100)
I0428 20:34:31.385677  4482 net.cpp:139] Memory required for data: 314800
I0428 20:34:31.385680  4482 layer_factory.hpp:77] Creating layer conv0
I0428 20:34:31.385689  4482 net.cpp:86] Creating Layer conv0
I0428 20:34:31.385692  4482 net.cpp:408] conv0 <- data
I0428 20:34:31.385697  4482 net.cpp:382] conv0 -> conv0
I0428 20:34:31.387464  4482 net.cpp:124] Setting up conv0
I0428 20:34:31.387477  4482 net.cpp:131] Top shape: 100 100 24 24 (5760000)
I0428 20:34:31.387481  4482 net.cpp:139] Memory required for data: 23354800
I0428 20:34:31.387490  4482 layer_factory.hpp:77] Creating layer pool0
I0428 20:34:31.387495  4482 net.cpp:86] Creating Layer pool0
I0428 20:34:31.387514  4482 net.cpp:408] pool0 <- conv0
I0428 20:34:31.387519  4482 net.cpp:382] pool0 -> pool0
I0428 20:34:31.387569  4482 net.cpp:124] Setting up pool0
I0428 20:34:31.387576  4482 net.cpp:131] Top shape: 100 100 12 12 (1440000)
I0428 20:34:31.387579  4482 net.cpp:139] Memory required for data: 29114800
I0428 20:34:31.387583  4482 layer_factory.hpp:77] Creating layer conv1
I0428 20:34:31.387591  4482 net.cpp:86] Creating Layer conv1
I0428 20:34:31.387594  4482 net.cpp:408] conv1 <- pool0
I0428 20:34:31.387599  4482 net.cpp:382] conv1 -> conv1
I0428 20:34:31.390900  4482 net.cpp:124] Setting up conv1
I0428 20:34:31.390929  4482 net.cpp:131] Top shape: 100 50 8 8 (320000)
I0428 20:34:31.390933  4482 net.cpp:139] Memory required for data: 30394800
I0428 20:34:31.390941  4482 layer_factory.hpp:77] Creating layer pool1
I0428 20:34:31.390947  4482 net.cpp:86] Creating Layer pool1
I0428 20:34:31.390951  4482 net.cpp:408] pool1 <- conv1
I0428 20:34:31.390956  4482 net.cpp:382] pool1 -> pool1
I0428 20:34:31.391006  4482 net.cpp:124] Setting up pool1
I0428 20:34:31.391012  4482 net.cpp:131] Top shape: 100 50 4 4 (80000)
I0428 20:34:31.391016  4482 net.cpp:139] Memory required for data: 30714800
I0428 20:34:31.391018  4482 layer_factory.hpp:77] Creating layer ip1
I0428 20:34:31.391023  4482 net.cpp:86] Creating Layer ip1
I0428 20:34:31.391027  4482 net.cpp:408] ip1 <- pool1
I0428 20:34:31.391033  4482 net.cpp:382] ip1 -> ip1
I0428 20:34:31.391269  4482 net.cpp:124] Setting up ip1
I0428 20:34:31.391278  4482 net.cpp:131] Top shape: 100 25 (2500)
I0428 20:34:31.391281  4482 net.cpp:139] Memory required for data: 30724800
I0428 20:34:31.391293  4482 layer_factory.hpp:77] Creating layer relu1
I0428 20:34:31.391296  4482 net.cpp:86] Creating Layer relu1
I0428 20:34:31.391316  4482 net.cpp:408] relu1 <- ip1
I0428 20:34:31.391321  4482 net.cpp:369] relu1 -> ip1 (in-place)
I0428 20:34:31.391486  4482 net.cpp:124] Setting up relu1
I0428 20:34:31.391495  4482 net.cpp:131] Top shape: 100 25 (2500)
I0428 20:34:31.391499  4482 net.cpp:139] Memory required for data: 30734800
I0428 20:34:31.391502  4482 layer_factory.hpp:77] Creating layer ip2
I0428 20:34:31.391510  4482 net.cpp:86] Creating Layer ip2
I0428 20:34:31.391513  4482 net.cpp:408] ip2 <- ip1
I0428 20:34:31.391518  4482 net.cpp:382] ip2 -> ip2
I0428 20:34:31.391618  4482 net.cpp:124] Setting up ip2
I0428 20:34:31.391625  4482 net.cpp:131] Top shape: 100 10 (1000)
I0428 20:34:31.391628  4482 net.cpp:139] Memory required for data: 30738800
I0428 20:34:31.391633  4482 layer_factory.hpp:77] Creating layer relu2
I0428 20:34:31.391638  4482 net.cpp:86] Creating Layer relu2
I0428 20:34:31.391640  4482 net.cpp:408] relu2 <- ip2
I0428 20:34:31.391659  4482 net.cpp:369] relu2 -> ip2 (in-place)
I0428 20:34:31.391873  4482 net.cpp:124] Setting up relu2
I0428 20:34:31.391881  4482 net.cpp:131] Top shape: 100 10 (1000)
I0428 20:34:31.391885  4482 net.cpp:139] Memory required for data: 30742800
I0428 20:34:31.391888  4482 layer_factory.hpp:77] Creating layer ip2_relu2_0_split
I0428 20:34:31.391898  4482 net.cpp:86] Creating Layer ip2_relu2_0_split
I0428 20:34:31.391901  4482 net.cpp:408] ip2_relu2_0_split <- ip2
I0428 20:34:31.391906  4482 net.cpp:382] ip2_relu2_0_split -> ip2_relu2_0_split_0
I0428 20:34:31.391927  4482 net.cpp:382] ip2_relu2_0_split -> ip2_relu2_0_split_1
I0428 20:34:31.391993  4482 net.cpp:124] Setting up ip2_relu2_0_split
I0428 20:34:31.392000  4482 net.cpp:131] Top shape: 100 10 (1000)
I0428 20:34:31.392004  4482 net.cpp:131] Top shape: 100 10 (1000)
I0428 20:34:31.392007  4482 net.cpp:139] Memory required for data: 30750800
I0428 20:34:31.392010  4482 layer_factory.hpp:77] Creating layer accuracy
I0428 20:34:31.392016  4482 net.cpp:86] Creating Layer accuracy
I0428 20:34:31.392020  4482 net.cpp:408] accuracy <- ip2_relu2_0_split_0
I0428 20:34:31.392025  4482 net.cpp:408] accuracy <- label_mnist_1_split_0
I0428 20:34:31.392030  4482 net.cpp:382] accuracy -> accuracy
…
