…
I0428 20:08:44.512246 31450 net.cpp:296] The NetState phase (0) differed from the phase (1) specified by a rule in layer mnist
I0428 20:08:44.512265 31450 net.cpp:296] The NetState phase (0) differed from the phase (1) specified by a rule in layer accuracy
I0428 20:08:44.512351 31450 net.cpp:53] Initializing net from parameters: 
name: "LeNet"
state {
  phase: TRAIN
  level: 0
  stage: ""
}
layer {
  name: "mnist"
  type: "Data"
  top: "data"
  top: "label"
  include {
    phase: TRAIN
  }
  transform_param {
    scale: 0.00390625
  }
  data_param {
    source: "examples/mnist/mnist_train_lmdb"
    batch_size: 64
    backend: LMDB
  }
}
layer {
  name: "conv0"
  type: "Convolution"
  bottom: "data"
  top: "conv0"
  param {
    lr_mult: 1
  }
  param {
    lr_mult: 2
  }
  convolution_param {
    num_output: 25
    kernel_size: 5
    stride: 1
    weight_filler {
      type: "xavier"
    }
    bias_filler {
      type: "constant"
    }
  }
}
layer {
  name: "pool0"
  type: "Pooling"
  bottom: "conv0"
  top: "pool0"
  pooling_param {
    pool: MAX
    kernel_size: 2
    stride: 2
  }
}
layer {
  name: "conv1"
  type: "Convolution"
  bottom: "pool0"
  top: "conv1"
  param {
    lr_mult: 1
  }
  param {
    lr_mult: 2
  }
  convolution_param {
    num_output: 10
    kernel_size: 5
    stride: 1
    weight_filler {
      type: "xavier"
    }
    bias_filler {
      type: "constant"
    }
  }
}
layer {
  name: "pool1"
  type: "Pooling"
  bottom: "conv1"
  top: "pool1"
  pooling_param {
    pool: MAX
    kernel_size: 2
    stride: 2
  }
}
layer {
  name: "ip1"
  type: "InnerProduct"
  bottom: "pool1"
  top: "ip1"
  param {
    lr_mult: 1
  }
  param {
    lr_mult: 2
  }
  inner_product_param {
    num_output: 50
    weight_filler {
      type: "xavier"
    }
    bias_filler {
      type: "constant"
    }
  }
}
layer {
  name: "relu1"
  type: "ReLU"
  bottom: "ip1"
  top: "ip1"
}
layer {
  name: "ip2"
  type: "InnerProduct"
  bottom: "ip1"
  top: "ip2"
  param {
    lr_mult: 1
  }
  param {
    lr_mult: 2
  }
  inner_product_param {
    num_output: 50
    weight_filler {
      type: "xavier"
    }
    bias_filler {
      type: "constant"
    }
  }
}
layer {
  name: "relu2"
  type: "ReLU"
  bottom: "ip2"
  top: "ip2"
}
layer {
  name: "ip3"
  type: "InnerProduct"
  bottom: "ip2"
  top: "ip3"
  param {
    lr_mult: 1
  }
  param {
    lr_mult: 2
  }
  inner_product_param {
    num_output: 10
    weight_filler {
      type: "xavier"
    }
    bias_filler {
      type: "constant"
    }
  }
}
layer {
  name: "relu3"
  type: "ReLU"
  bottom: "ip3"
  top: "ip3"
}
layer {
  name: "loss"
  type: "SoftmaxWithLoss"
  bottom: "ip3"
  bottom: "label"
  top: "loss"
}
I0428 20:08:44.512435 31450 layer_factory.hpp:77] Creating layer mnist
I0428 20:08:44.512542 31450 db_lmdb.cpp:35] Opened lmdb examples/mnist/mnist_train_lmdb
I0428 20:08:44.512568 31450 net.cpp:86] Creating Layer mnist
I0428 20:08:44.512578 31450 net.cpp:382] mnist -> data
I0428 20:08:44.512619 31450 net.cpp:382] mnist -> label
I0428 20:08:44.513748 31450 data_layer.cpp:45] output data size: 64,1,28,28
I0428 20:08:44.515991 31450 net.cpp:124] Setting up mnist
I0428 20:08:44.516008 31450 net.cpp:131] Top shape: 64 1 28 28 (50176)
I0428 20:08:44.516018 31450 net.cpp:131] Top shape: 64 (64)
I0428 20:08:44.516024 31450 net.cpp:139] Memory required for data: 200960
I0428 20:08:44.516036 31450 layer_factory.hpp:77] Creating layer conv0
I0428 20:08:44.516057 31450 net.cpp:86] Creating Layer conv0
I0428 20:08:44.516080 31450 net.cpp:408] conv0 <- data
I0428 20:08:44.516096 31450 net.cpp:382] conv0 -> conv0
I0428 20:08:44.767001 31450 net.cpp:124] Setting up conv0
I0428 20:08:44.767029 31450 net.cpp:131] Top shape: 64 25 24 24 (921600)
I0428 20:08:44.767035 31450 net.cpp:139] Memory required for data: 3887360
I0428 20:08:44.767055 31450 layer_factory.hpp:77] Creating layer pool0
I0428 20:08:44.767071 31450 net.cpp:86] Creating Layer pool0
I0428 20:08:44.767077 31450 net.cpp:408] pool0 <- conv0
I0428 20:08:44.767086 31450 net.cpp:382] pool0 -> pool0
I0428 20:08:44.767141 31450 net.cpp:124] Setting up pool0
I0428 20:08:44.767150 31450 net.cpp:131] Top shape: 64 25 12 12 (230400)
I0428 20:08:44.767154 31450 net.cpp:139] Memory required for data: 4808960
I0428 20:08:44.767159 31450 layer_factory.hpp:77] Creating layer conv1
I0428 20:08:44.767175 31450 net.cpp:86] Creating Layer conv1
I0428 20:08:44.767181 31450 net.cpp:408] conv1 <- pool0
I0428 20:08:44.767190 31450 net.cpp:382] conv1 -> conv1
I0428 20:08:44.770027 31450 net.cpp:124] Setting up conv1
I0428 20:08:44.770045 31450 net.cpp:131] Top shape: 64 10 8 8 (40960)
I0428 20:08:44.770051 31450 net.cpp:139] Memory required for data: 4972800
I0428 20:08:44.770079 31450 layer_factory.hpp:77] Creating layer pool1
I0428 20:08:44.770092 31450 net.cpp:86] Creating Layer pool1
I0428 20:08:44.770112 31450 net.cpp:408] pool1 <- conv1
I0428 20:08:44.770122 31450 net.cpp:382] pool1 -> pool1
I0428 20:08:44.770170 31450 net.cpp:124] Setting up pool1
I0428 20:08:44.770195 31450 net.cpp:131] Top shape: 64 10 4 4 (10240)
I0428 20:08:44.770215 31450 net.cpp:139] Memory required for data: 5013760
I0428 20:08:44.770220 31450 layer_factory.hpp:77] Creating layer ip1
I0428 20:08:44.770246 31450 net.cpp:86] Creating Layer ip1
I0428 20:08:44.770254 31450 net.cpp:408] ip1 <- pool1
I0428 20:08:44.770263 31450 net.cpp:382] ip1 -> ip1
I0428 20:08:44.770406 31450 net.cpp:124] Setting up ip1
I0428 20:08:44.770416 31450 net.cpp:131] Top shape: 64 50 (3200)
I0428 20:08:44.770437 31450 net.cpp:139] Memory required for data: 5026560
I0428 20:08:44.770449 31450 layer_factory.hpp:77] Creating layer relu1
I0428 20:08:44.770458 31450 net.cpp:86] Creating Layer relu1
I0428 20:08:44.770467 31450 net.cpp:408] relu1 <- ip1
I0428 20:08:44.770475 31450 net.cpp:369] relu1 -> ip1 (in-place)
I0428 20:08:44.770649 31450 net.cpp:124] Setting up relu1
I0428 20:08:44.770660 31450 net.cpp:131] Top shape: 64 50 (3200)
I0428 20:08:44.770664 31450 net.cpp:139] Memory required for data: 5039360
I0428 20:08:44.770670 31450 layer_factory.hpp:77] Creating layer ip2
I0428 20:08:44.770680 31450 net.cpp:86] Creating Layer ip2
I0428 20:08:44.770685 31450 net.cpp:408] ip2 <- ip1
I0428 20:08:44.770694 31450 net.cpp:382] ip2 -> ip2
I0428 20:08:44.771664 31450 net.cpp:124] Setting up ip2
I0428 20:08:44.771677 31450 net.cpp:131] Top shape: 64 50 (3200)
I0428 20:08:44.771683 31450 net.cpp:139] Memory required for data: 5052160
I0428 20:08:44.771692 31450 layer_factory.hpp:77] Creating layer relu2
I0428 20:08:44.771703 31450 net.cpp:86] Creating Layer relu2
I0428 20:08:44.771708 31450 net.cpp:408] relu2 <- ip2
I0428 20:08:44.771715 31450 net.cpp:369] relu2 -> ip2 (in-place)
I0428 20:08:44.772433 31450 net.cpp:124] Setting up relu2
I0428 20:08:44.772445 31450 net.cpp:131] Top shape: 64 50 (3200)
I0428 20:08:44.772451 31450 net.cpp:139] Memory required for data: 5064960
I0428 20:08:44.772456 31450 layer_factory.hpp:77] Creating layer ip3
I0428 20:08:44.772466 31450 net.cpp:86] Creating Layer ip3
I0428 20:08:44.772471 31450 net.cpp:408] ip3 <- ip2
I0428 20:08:44.772480 31450 net.cpp:382] ip3 -> ip3
I0428 20:08:44.772583 31450 net.cpp:124] Setting up ip3
I0428 20:08:44.772593 31450 net.cpp:131] Top shape: 64 10 (640)
I0428 20:08:44.772598 31450 net.cpp:139] Memory required for data: 5067520
I0428 20:08:44.772610 31450 layer_factory.hpp:77] Creating layer relu3
I0428 20:08:44.772621 31450 net.cpp:86] Creating Layer relu3
I0428 20:08:44.772627 31450 net.cpp:408] relu3 <- ip3
I0428 20:08:44.772634 31450 net.cpp:369] relu3 -> ip3 (in-place)
I0428 20:08:44.772794 31450 net.cpp:124] Setting up relu3
I0428 20:08:44.772804 31450 net.cpp:131] Top shape: 64 10 (640)
I0428 20:08:44.772814 31450 net.cpp:139] Memory required for data: 5070080
I0428 20:08:44.772835 31450 layer_factory.hpp:77] Creating layer loss
I0428 20:08:44.772846 31450 net.cpp:86] Creating Layer loss
I0428 20:08:44.772852 31450 net.cpp:408] loss <- ip3
I0428 20:08:44.772860 31450 net.cpp:408] loss <- label
I0428 20:08:44.772868 31450 net.cpp:382] loss -> loss
I0428 20:08:44.772903 31450 layer_factory.hpp:77] Creating layer loss
…
I0428 20:08:44.773656 31450 solver.cpp:173] Creating test net (#0) specified by net file: ECE595/mnist/train_test/var_everything2/lenet_train_test1091.prototxt
I0428 20:08:44.773689 31450 net.cpp:296] The NetState phase (1) differed from the phase (0) specified by a rule in layer mnist
I0428 20:08:44.773783 31450 net.cpp:53] Initializing net from parameters: 
name: "LeNet"
state {
  phase: TEST
}
layer {
  name: "mnist"
  type: "Data"
  top: "data"
  top: "label"
  include {
    phase: TEST
  }
  transform_param {
    scale: 0.00390625
  }
  data_param {
    source: "examples/mnist/mnist_test_lmdb"
    batch_size: 100
    backend: LMDB
  }
}
layer {
  name: "conv0"
  type: "Convolution"
  bottom: "data"
  top: "conv0"
  param {
    lr_mult: 1
  }
  param {
    lr_mult: 2
  }
  convolution_param {
    num_output: 25
    kernel_size: 5
    stride: 1
    weight_filler {
      type: "xavier"
    }
    bias_filler {
      type: "constant"
    }
  }
}
layer {
  name: "pool0"
  type: "Pooling"
  bottom: "conv0"
  top: "pool0"
  pooling_param {
    pool: MAX
    kernel_size: 2
    stride: 2
  }
}
layer {
  name: "conv1"
  type: "Convolution"
  bottom: "pool0"
  top: "conv1"
  param {
    lr_mult: 1
  }
  param {
    lr_mult: 2
  }
  convolution_param {
    num_output: 10
    kernel_size: 5
    stride: 1
    weight_filler {
      type: "xavier"
    }
    bias_filler {
      type: "constant"
    }
  }
}
layer {
  name: "pool1"
  type: "Pooling"
  bottom: "conv1"
  top: "pool1"
  pooling_param {
    pool: MAX
    kernel_size: 2
    stride: 2
  }
}
layer {
  name: "ip1"
  type: "InnerProduct"
  bottom: "pool1"
  top: "ip1"
  param {
    lr_mult: 1
  }
  param {
    lr_mult: 2
  }
  inner_product_param {
    num_output: 50
    weight_filler {
      type: "xavier"
    }
    bias_filler {
      type: "constant"
    }
  }
}
layer {
  name: "relu1"
  type: "ReLU"
  bottom: "ip1"
  top: "ip1"
}
layer {
  name: "ip2"
  type: "InnerProduct"
  bottom: "ip1"
  top: "ip2"
  param {
    lr_mult: 1
  }
  param {
    lr_mult: 2
  }
  inner_product_param {
    num_output: 50
    weight_filler {
      type: "xavier"
    }
    bias_filler {
      type: "constant"
    }
  }
}
layer {
  name: "relu2"
  type: "ReLU"
  bottom: "ip2"
  top: "ip2"
}
layer {
  name: "ip3"
  type: "InnerProduct"
  bottom: "ip2"
  top: "ip3"
  param {
    lr_mult: 1
  }
  param {
    lr_mult: 2
  }
  inner_product_param {
    num_output: 10
    weight_filler {
      type: "xavier"
    }
    bias_filler {
      type: "constant"
    }
  }
}
layer {
  name: "relu3"
  type: "ReLU"
  bottom: "ip3"
  top: "ip3"
}
layer {
  name: "accuracy"
  type: "Accuracy"
  bottom: "ip3"
  bottom: "label"
  top: "accuracy"
  include {
    phase: TEST
  }
}
layer {
  name: "loss"
  type: "SoftmaxWithLoss"
  bottom: "ip3"
  bottom: "label"
  top: "loss"
}
I0428 20:08:44.773898 31450 layer_factory.hpp:77] Creating layer mnist
I0428 20:08:44.773953 31450 db_lmdb.cpp:35] Opened lmdb examples/mnist/mnist_test_lmdb
I0428 20:08:44.773970 31450 net.cpp:86] Creating Layer mnist
I0428 20:08:44.773980 31450 net.cpp:382] mnist -> data
I0428 20:08:44.773991 31450 net.cpp:382] mnist -> label
I0428 20:08:44.774109 31450 data_layer.cpp:45] output data size: 100,1,28,28
I0428 20:08:44.776046 31450 net.cpp:124] Setting up mnist
I0428 20:08:44.776074 31450 net.cpp:131] Top shape: 100 1 28 28 (78400)
I0428 20:08:44.776095 31450 net.cpp:131] Top shape: 100 (100)
I0428 20:08:44.776098 31450 net.cpp:139] Memory required for data: 314000
I0428 20:08:44.776101 31450 layer_factory.hpp:77] Creating layer label_mnist_1_split
I0428 20:08:44.776108 31450 net.cpp:86] Creating Layer label_mnist_1_split
I0428 20:08:44.776113 31450 net.cpp:408] label_mnist_1_split <- label
I0428 20:08:44.776136 31450 net.cpp:382] label_mnist_1_split -> label_mnist_1_split_0
I0428 20:08:44.776144 31450 net.cpp:382] label_mnist_1_split -> label_mnist_1_split_1
I0428 20:08:44.776187 31450 net.cpp:124] Setting up label_mnist_1_split
I0428 20:08:44.776196 31450 net.cpp:131] Top shape: 100 (100)
I0428 20:08:44.776199 31450 net.cpp:131] Top shape: 100 (100)
I0428 20:08:44.776202 31450 net.cpp:139] Memory required for data: 314800
I0428 20:08:44.776206 31450 layer_factory.hpp:77] Creating layer conv0
I0428 20:08:44.776214 31450 net.cpp:86] Creating Layer conv0
I0428 20:08:44.776219 31450 net.cpp:408] conv0 <- data
I0428 20:08:44.776240 31450 net.cpp:382] conv0 -> conv0
I0428 20:08:44.778168 31450 net.cpp:124] Setting up conv0
I0428 20:08:44.778183 31450 net.cpp:131] Top shape: 100 25 24 24 (1440000)
I0428 20:08:44.778187 31450 net.cpp:139] Memory required for data: 6074800
I0428 20:08:44.778198 31450 layer_factory.hpp:77] Creating layer pool0
I0428 20:08:44.778206 31450 net.cpp:86] Creating Layer pool0
I0428 20:08:44.778210 31450 net.cpp:408] pool0 <- conv0
I0428 20:08:44.778216 31450 net.cpp:382] pool0 -> pool0
I0428 20:08:44.778257 31450 net.cpp:124] Setting up pool0
I0428 20:08:44.778264 31450 net.cpp:131] Top shape: 100 25 12 12 (360000)
I0428 20:08:44.778267 31450 net.cpp:139] Memory required for data: 7514800
I0428 20:08:44.778270 31450 layer_factory.hpp:77] Creating layer conv1
I0428 20:08:44.778283 31450 net.cpp:86] Creating Layer conv1
I0428 20:08:44.778290 31450 net.cpp:408] conv1 <- pool0
I0428 20:08:44.778295 31450 net.cpp:382] conv1 -> conv1
I0428 20:08:44.780571 31450 net.cpp:124] Setting up conv1
I0428 20:08:44.780585 31450 net.cpp:131] Top shape: 100 10 8 8 (64000)
I0428 20:08:44.780588 31450 net.cpp:139] Memory required for data: 7770800
I0428 20:08:44.780597 31450 layer_factory.hpp:77] Creating layer pool1
I0428 20:08:44.780606 31450 net.cpp:86] Creating Layer pool1
I0428 20:08:44.780611 31450 net.cpp:408] pool1 <- conv1
I0428 20:08:44.780632 31450 net.cpp:382] pool1 -> pool1
I0428 20:08:44.780681 31450 net.cpp:124] Setting up pool1
I0428 20:08:44.780689 31450 net.cpp:131] Top shape: 100 10 4 4 (16000)
I0428 20:08:44.780707 31450 net.cpp:139] Memory required for data: 7834800
I0428 20:08:44.780711 31450 layer_factory.hpp:77] Creating layer ip1
I0428 20:08:44.780717 31450 net.cpp:86] Creating Layer ip1
I0428 20:08:44.780720 31450 net.cpp:408] ip1 <- pool1
I0428 20:08:44.780727 31450 net.cpp:382] ip1 -> ip1
I0428 20:08:44.780932 31450 net.cpp:124] Setting up ip1
I0428 20:08:44.780942 31450 net.cpp:131] Top shape: 100 50 (5000)
I0428 20:08:44.780956 31450 net.cpp:139] Memory required for data: 7854800
I0428 20:08:44.780966 31450 layer_factory.hpp:77] Creating layer relu1
I0428 20:08:44.780973 31450 net.cpp:86] Creating Layer relu1
I0428 20:08:44.780977 31450 net.cpp:408] relu1 <- ip1
I0428 20:08:44.780983 31450 net.cpp:369] relu1 -> ip1 (in-place)
I0428 20:08:44.781185 31450 net.cpp:124] Setting up relu1
I0428 20:08:44.781194 31450 net.cpp:131] Top shape: 100 50 (5000)
I0428 20:08:44.781198 31450 net.cpp:139] Memory required for data: 7874800
I0428 20:08:44.781214 31450 layer_factory.hpp:77] Creating layer ip2
I0428 20:08:44.781226 31450 net.cpp:86] Creating Layer ip2
I0428 20:08:44.781230 31450 net.cpp:408] ip2 <- ip1
I0428 20:08:44.781236 31450 net.cpp:382] ip2 -> ip2
I0428 20:08:44.781414 31450 net.cpp:124] Setting up ip2
I0428 20:08:44.781424 31450 net.cpp:131] Top shape: 100 50 (5000)
I0428 20:08:44.781427 31450 net.cpp:139] Memory required for data: 7894800
I0428 20:08:44.781435 31450 layer_factory.hpp:77] Creating layer relu2
I0428 20:08:44.781440 31450 net.cpp:86] Creating Layer relu2
I0428 20:08:44.781445 31450 net.cpp:408] relu2 <- ip2
I0428 20:08:44.781448 31450 net.cpp:369] relu2 -> ip2 (in-place)
I0428 20:08:44.781633 31450 net.cpp:124] Setting up relu2
I0428 20:08:44.781641 31450 net.cpp:131] Top shape: 100 50 (5000)
I0428 20:08:44.781646 31450 net.cpp:139] Memory required for data: 7914800
I0428 20:08:44.781648 31450 layer_factory.hpp:77] Creating layer ip3
I0428 20:08:44.781656 31450 net.cpp:86] Creating Layer ip3
I0428 20:08:44.781661 31450 net.cpp:408] ip3 <- ip2
I0428 20:08:44.781666 31450 net.cpp:382] ip3 -> ip3
I0428 20:08:44.781811 31450 net.cpp:124] Setting up ip3
I0428 20:08:44.781821 31450 net.cpp:131] Top shape: 100 10 (1000)
I0428 20:08:44.781834 31450 net.cpp:139] Memory required for data: 7918800
I0428 20:08:44.781843 31450 layer_factory.hpp:77] Creating layer relu3
I0428 20:08:44.781852 31450 net.cpp:86] Creating Layer relu3
I0428 20:08:44.781855 31450 net.cpp:408] relu3 <- ip3
I0428 20:08:44.781859 31450 net.cpp:369] relu3 -> ip3 (in-place)
I0428 20:08:44.782702 31450 net.cpp:124] Setting up relu3
I0428 20:08:44.782714 31450 net.cpp:131] Top shape: 100 10 (1000)
I0428 20:08:44.782734 31450 net.cpp:139] Memory required for data: 7922800
I0428 20:08:44.782737 31450 layer_factory.hpp:77] Creating layer ip3_relu3_0_split
I0428 20:08:44.782743 31450 net.cpp:86] Creating Layer ip3_relu3_0_split
I0428 20:08:44.782747 31450 net.cpp:408] ip3_relu3_0_split <- ip3
I0428 20:08:44.782753 31450 net.cpp:382] ip3_relu3_0_split -> ip3_relu3_0_split_0
I0428 20:08:44.782762 31450 net.cpp:382] ip3_relu3_0_split -> ip3_relu3_0_split_1
I0428 20:08:44.782824 31450 net.cpp:124] Setting up ip3_relu3_0_split
I0428 20:08:44.782831 31450 net.cpp:131] Top shape: 100 10 (1000)
I0428 20:08:44.782835 31450 net.cpp:131] Top shape: 100 10 (1000)
I0428 20:08:44.782840 31450 net.cpp:139] Memory required for data: 7930800
I0428 20:08:44.782843 31450 layer_factory.hpp:77] Creating layer accuracy
I0428 20:08:44.782866 31450 net.cpp:86] Creating Layer accuracy
I0428 20:08:44.782871 31450 net.cpp:408] accuracy <- ip3_relu3_0_split_0
I0428 20:08:44.782874 31450 net.cpp:408] accuracy <- label_mnist_1_split_0
I0428 20:08:44.782881 31450 net.cpp:382] accuracy -> accuracy
…
