…
I0428 20:09:00.789364 31533 net.cpp:296] The NetState phase (0) differed from the phase (1) specified by a rule in layer mnist
I0428 20:09:00.789386 31533 net.cpp:296] The NetState phase (0) differed from the phase (1) specified by a rule in layer accuracy
I0428 20:09:00.789486 31533 net.cpp:53] Initializing net from parameters: 
name: "LeNet"
state {
  phase: TRAIN
  level: 0
  stage: ""
}
layer {
  name: "mnist"
  type: "Data"
  top: "data"
  top: "label"
  include {
    phase: TRAIN
  }
  transform_param {
    scale: 0.00390625
  }
  data_param {
    source: "examples/mnist/mnist_train_lmdb"
    batch_size: 64
    backend: LMDB
  }
}
layer {
  name: "conv0"
  type: "Convolution"
  bottom: "data"
  top: "conv0"
  param {
    lr_mult: 1
  }
  param {
    lr_mult: 2
  }
  convolution_param {
    num_output: 25
    kernel_size: 5
    stride: 1
    weight_filler {
      type: "xavier"
    }
    bias_filler {
      type: "constant"
    }
  }
}
layer {
  name: "pool0"
  type: "Pooling"
  bottom: "conv0"
  top: "pool0"
  pooling_param {
    pool: MAX
    kernel_size: 2
    stride: 2
  }
}
layer {
  name: "conv1"
  type: "Convolution"
  bottom: "pool0"
  top: "conv1"
  param {
    lr_mult: 1
  }
  param {
    lr_mult: 2
  }
  convolution_param {
    num_output: 25
    kernel_size: 5
    stride: 1
    weight_filler {
      type: "xavier"
    }
    bias_filler {
      type: "constant"
    }
  }
}
layer {
  name: "pool1"
  type: "Pooling"
  bottom: "conv1"
  top: "pool1"
  pooling_param {
    pool: MAX
    kernel_size: 2
    stride: 2
  }
}
layer {
  name: "ip1"
  type: "InnerProduct"
  bottom: "pool1"
  top: "ip1"
  param {
    lr_mult: 1
  }
  param {
    lr_mult: 2
  }
  inner_product_param {
    num_output: 25
    weight_filler {
      type: "xavier"
    }
    bias_filler {
      type: "constant"
    }
  }
}
layer {
  name: "relu1"
  type: "ReLU"
  bottom: "ip1"
  top: "ip1"
}
layer {
  name: "ip2"
  type: "InnerProduct"
  bottom: "ip1"
  top: "ip2"
  param {
    lr_mult: 1
  }
  param {
    lr_mult: 2
  }
  inner_product_param {
    num_output: 10
    weight_filler {
      type: "xavier"
    }
    bias_filler {
      type: "constant"
    }
  }
}
layer {
  name: "relu2"
  type: "ReLU"
  bottom: "ip2"
  top: "ip2"
}
layer {
  name: "loss"
  type: "SoftmaxWithLoss"
  bottom: "ip2"
  bottom: "label"
  top: "loss"
}
I0428 20:09:00.789594 31533 layer_factory.hpp:77] Creating layer mnist
I0428 20:09:00.789726 31533 db_lmdb.cpp:35] Opened lmdb examples/mnist/mnist_train_lmdb
I0428 20:09:00.789762 31533 net.cpp:86] Creating Layer mnist
I0428 20:09:00.789775 31533 net.cpp:382] mnist -> data
I0428 20:09:00.789805 31533 net.cpp:382] mnist -> label
I0428 20:09:00.791044 31533 data_layer.cpp:45] output data size: 64,1,28,28
I0428 20:09:00.793551 31533 net.cpp:124] Setting up mnist
I0428 20:09:00.793575 31533 net.cpp:131] Top shape: 64 1 28 28 (50176)
I0428 20:09:00.793584 31533 net.cpp:131] Top shape: 64 (64)
I0428 20:09:00.793591 31533 net.cpp:139] Memory required for data: 200960
I0428 20:09:00.793601 31533 layer_factory.hpp:77] Creating layer conv0
I0428 20:09:00.793627 31533 net.cpp:86] Creating Layer conv0
I0428 20:09:00.793637 31533 net.cpp:408] conv0 <- data
I0428 20:09:00.793655 31533 net.cpp:382] conv0 -> conv0
I0428 20:09:01.063093 31533 net.cpp:124] Setting up conv0
I0428 20:09:01.063123 31533 net.cpp:131] Top shape: 64 25 24 24 (921600)
I0428 20:09:01.063129 31533 net.cpp:139] Memory required for data: 3887360
I0428 20:09:01.063189 31533 layer_factory.hpp:77] Creating layer pool0
I0428 20:09:01.063207 31533 net.cpp:86] Creating Layer pool0
I0428 20:09:01.063215 31533 net.cpp:408] pool0 <- conv0
I0428 20:09:01.063223 31533 net.cpp:382] pool0 -> pool0
I0428 20:09:01.063274 31533 net.cpp:124] Setting up pool0
I0428 20:09:01.063283 31533 net.cpp:131] Top shape: 64 25 12 12 (230400)
I0428 20:09:01.063288 31533 net.cpp:139] Memory required for data: 4808960
I0428 20:09:01.063293 31533 layer_factory.hpp:77] Creating layer conv1
I0428 20:09:01.063308 31533 net.cpp:86] Creating Layer conv1
I0428 20:09:01.063315 31533 net.cpp:408] conv1 <- pool0
I0428 20:09:01.063323 31533 net.cpp:382] conv1 -> conv1
I0428 20:09:01.066257 31533 net.cpp:124] Setting up conv1
I0428 20:09:01.066273 31533 net.cpp:131] Top shape: 64 25 8 8 (102400)
I0428 20:09:01.066279 31533 net.cpp:139] Memory required for data: 5218560
I0428 20:09:01.066308 31533 layer_factory.hpp:77] Creating layer pool1
I0428 20:09:01.066319 31533 net.cpp:86] Creating Layer pool1
I0428 20:09:01.066325 31533 net.cpp:408] pool1 <- conv1
I0428 20:09:01.066334 31533 net.cpp:382] pool1 -> pool1
I0428 20:09:01.066378 31533 net.cpp:124] Setting up pool1
I0428 20:09:01.066386 31533 net.cpp:131] Top shape: 64 25 4 4 (25600)
I0428 20:09:01.066392 31533 net.cpp:139] Memory required for data: 5320960
I0428 20:09:01.066397 31533 layer_factory.hpp:77] Creating layer ip1
I0428 20:09:01.066408 31533 net.cpp:86] Creating Layer ip1
I0428 20:09:01.066414 31533 net.cpp:408] ip1 <- pool1
I0428 20:09:01.066422 31533 net.cpp:382] ip1 -> ip1
I0428 20:09:01.066606 31533 net.cpp:124] Setting up ip1
I0428 20:09:01.066615 31533 net.cpp:131] Top shape: 64 25 (1600)
I0428 20:09:01.066619 31533 net.cpp:139] Memory required for data: 5327360
I0428 20:09:01.066632 31533 layer_factory.hpp:77] Creating layer relu1
I0428 20:09:01.066639 31533 net.cpp:86] Creating Layer relu1
I0428 20:09:01.066648 31533 net.cpp:408] relu1 <- ip1
I0428 20:09:01.066654 31533 net.cpp:369] relu1 -> ip1 (in-place)
I0428 20:09:01.066813 31533 net.cpp:124] Setting up relu1
I0428 20:09:01.066823 31533 net.cpp:131] Top shape: 64 25 (1600)
I0428 20:09:01.066828 31533 net.cpp:139] Memory required for data: 5333760
I0428 20:09:01.066833 31533 layer_factory.hpp:77] Creating layer ip2
I0428 20:09:01.066843 31533 net.cpp:86] Creating Layer ip2
I0428 20:09:01.066848 31533 net.cpp:408] ip2 <- ip1
I0428 20:09:01.066855 31533 net.cpp:382] ip2 -> ip2
I0428 20:09:01.066948 31533 net.cpp:124] Setting up ip2
I0428 20:09:01.066956 31533 net.cpp:131] Top shape: 64 10 (640)
I0428 20:09:01.066962 31533 net.cpp:139] Memory required for data: 5336320
I0428 20:09:01.066969 31533 layer_factory.hpp:77] Creating layer relu2
I0428 20:09:01.066978 31533 net.cpp:86] Creating Layer relu2
I0428 20:09:01.066987 31533 net.cpp:408] relu2 <- ip2
I0428 20:09:01.066992 31533 net.cpp:369] relu2 -> ip2 (in-place)
I0428 20:09:01.067776 31533 net.cpp:124] Setting up relu2
I0428 20:09:01.067790 31533 net.cpp:131] Top shape: 64 10 (640)
I0428 20:09:01.067795 31533 net.cpp:139] Memory required for data: 5338880
I0428 20:09:01.067801 31533 layer_factory.hpp:77] Creating layer loss
I0428 20:09:01.067811 31533 net.cpp:86] Creating Layer loss
I0428 20:09:01.067816 31533 net.cpp:408] loss <- ip2
I0428 20:09:01.067822 31533 net.cpp:408] loss <- label
I0428 20:09:01.067831 31533 net.cpp:382] loss -> loss
I0428 20:09:01.067852 31533 layer_factory.hpp:77] Creating layer loss
…
I0428 20:09:01.068531 31533 solver.cpp:173] Creating test net (#0) specified by net file: ECE595/mnist/train_test/var_everything2/lenet_train_test1098.prototxt
I0428 20:09:01.068564 31533 net.cpp:296] The NetState phase (1) differed from the phase (0) specified by a rule in layer mnist
I0428 20:09:01.068653 31533 net.cpp:53] Initializing net from parameters: 
name: "LeNet"
state {
  phase: TEST
}
layer {
  name: "mnist"
  type: "Data"
  top: "data"
  top: "label"
  include {
    phase: TEST
  }
  transform_param {
    scale: 0.00390625
  }
  data_param {
    source: "examples/mnist/mnist_test_lmdb"
    batch_size: 100
    backend: LMDB
  }
}
layer {
  name: "conv0"
  type: "Convolution"
  bottom: "data"
  top: "conv0"
  param {
    lr_mult: 1
  }
  param {
    lr_mult: 2
  }
  convolution_param {
    num_output: 25
    kernel_size: 5
    stride: 1
    weight_filler {
      type: "xavier"
    }
    bias_filler {
      type: "constant"
    }
  }
}
layer {
  name: "pool0"
  type: "Pooling"
  bottom: "conv0"
  top: "pool0"
  pooling_param {
    pool: MAX
    kernel_size: 2
    stride: 2
  }
}
layer {
  name: "conv1"
  type: "Convolution"
  bottom: "pool0"
  top: "conv1"
  param {
    lr_mult: 1
  }
  param {
    lr_mult: 2
  }
  convolution_param {
    num_output: 25
    kernel_size: 5
    stride: 1
    weight_filler {
      type: "xavier"
    }
    bias_filler {
      type: "constant"
    }
  }
}
layer {
  name: "pool1"
  type: "Pooling"
  bottom: "conv1"
  top: "pool1"
  pooling_param {
    pool: MAX
    kernel_size: 2
    stride: 2
  }
}
layer {
  name: "ip1"
  type: "InnerProduct"
  bottom: "pool1"
  top: "ip1"
  param {
    lr_mult: 1
  }
  param {
    lr_mult: 2
  }
  inner_product_param {
    num_output: 25
    weight_filler {
      type: "xavier"
    }
    bias_filler {
      type: "constant"
    }
  }
}
layer {
  name: "relu1"
  type: "ReLU"
  bottom: "ip1"
  top: "ip1"
}
layer {
  name: "ip2"
  type: "InnerProduct"
  bottom: "ip1"
  top: "ip2"
  param {
    lr_mult: 1
  }
  param {
    lr_mult: 2
  }
  inner_product_param {
    num_output: 10
    weight_filler {
      type: "xavier"
    }
    bias_filler {
      type: "constant"
    }
  }
}
layer {
  name: "relu2"
  type: "ReLU"
  bottom: "ip2"
  top: "ip2"
}
layer {
  name: "accuracy"
  type: "Accuracy"
  bottom: "ip2"
  bottom: "label"
  top: "accuracy"
  include {
    phase: TEST
  }
}
layer {
  name: "loss"
  type: "SoftmaxWithLoss"
  bottom: "ip2"
  bottom: "label"
  top: "loss"
}
I0428 20:09:01.068748 31533 layer_factory.hpp:77] Creating layer mnist
I0428 20:09:01.068804 31533 db_lmdb.cpp:35] Opened lmdb examples/mnist/mnist_test_lmdb
I0428 20:09:01.068858 31533 net.cpp:86] Creating Layer mnist
I0428 20:09:01.068868 31533 net.cpp:382] mnist -> data
I0428 20:09:01.068881 31533 net.cpp:382] mnist -> label
I0428 20:09:01.069013 31533 data_layer.cpp:45] output data size: 100,1,28,28
I0428 20:09:01.071162 31533 net.cpp:124] Setting up mnist
I0428 20:09:01.071192 31533 net.cpp:131] Top shape: 100 1 28 28 (78400)
I0428 20:09:01.071202 31533 net.cpp:131] Top shape: 100 (100)
I0428 20:09:01.071207 31533 net.cpp:139] Memory required for data: 314000
I0428 20:09:01.071213 31533 layer_factory.hpp:77] Creating layer label_mnist_1_split
I0428 20:09:01.071223 31533 net.cpp:86] Creating Layer label_mnist_1_split
I0428 20:09:01.071229 31533 net.cpp:408] label_mnist_1_split <- label
I0428 20:09:01.071238 31533 net.cpp:382] label_mnist_1_split -> label_mnist_1_split_0
I0428 20:09:01.071249 31533 net.cpp:382] label_mnist_1_split -> label_mnist_1_split_1
I0428 20:09:01.071324 31533 net.cpp:124] Setting up label_mnist_1_split
I0428 20:09:01.071333 31533 net.cpp:131] Top shape: 100 (100)
I0428 20:09:01.071339 31533 net.cpp:131] Top shape: 100 (100)
I0428 20:09:01.071344 31533 net.cpp:139] Memory required for data: 314800
I0428 20:09:01.071351 31533 layer_factory.hpp:77] Creating layer conv0
I0428 20:09:01.071363 31533 net.cpp:86] Creating Layer conv0
I0428 20:09:01.071370 31533 net.cpp:408] conv0 <- data
I0428 20:09:01.071379 31533 net.cpp:382] conv0 -> conv0
I0428 20:09:01.073076 31533 net.cpp:124] Setting up conv0
I0428 20:09:01.073091 31533 net.cpp:131] Top shape: 100 25 24 24 (1440000)
I0428 20:09:01.073097 31533 net.cpp:139] Memory required for data: 6074800
I0428 20:09:01.073112 31533 layer_factory.hpp:77] Creating layer pool0
I0428 20:09:01.073122 31533 net.cpp:86] Creating Layer pool0
I0428 20:09:01.073128 31533 net.cpp:408] pool0 <- conv0
I0428 20:09:01.073138 31533 net.cpp:382] pool0 -> pool0
I0428 20:09:01.073185 31533 net.cpp:124] Setting up pool0
I0428 20:09:01.073194 31533 net.cpp:131] Top shape: 100 25 12 12 (360000)
I0428 20:09:01.073213 31533 net.cpp:139] Memory required for data: 7514800
I0428 20:09:01.073218 31533 layer_factory.hpp:77] Creating layer conv1
I0428 20:09:01.073235 31533 net.cpp:86] Creating Layer conv1
I0428 20:09:01.073240 31533 net.cpp:408] conv1 <- pool0
I0428 20:09:01.073248 31533 net.cpp:382] conv1 -> conv1
I0428 20:09:01.075595 31533 net.cpp:124] Setting up conv1
I0428 20:09:01.075610 31533 net.cpp:131] Top shape: 100 25 8 8 (160000)
I0428 20:09:01.075616 31533 net.cpp:139] Memory required for data: 8154800
I0428 20:09:01.075645 31533 layer_factory.hpp:77] Creating layer pool1
I0428 20:09:01.075657 31533 net.cpp:86] Creating Layer pool1
I0428 20:09:01.075670 31533 net.cpp:408] pool1 <- conv1
I0428 20:09:01.075680 31533 net.cpp:382] pool1 -> pool1
I0428 20:09:01.075740 31533 net.cpp:124] Setting up pool1
I0428 20:09:01.075748 31533 net.cpp:131] Top shape: 100 25 4 4 (40000)
I0428 20:09:01.075753 31533 net.cpp:139] Memory required for data: 8314800
I0428 20:09:01.075759 31533 layer_factory.hpp:77] Creating layer ip1
I0428 20:09:01.075770 31533 net.cpp:86] Creating Layer ip1
I0428 20:09:01.075778 31533 net.cpp:408] ip1 <- pool1
I0428 20:09:01.075786 31533 net.cpp:382] ip1 -> ip1
I0428 20:09:01.075966 31533 net.cpp:124] Setting up ip1
I0428 20:09:01.075975 31533 net.cpp:131] Top shape: 100 25 (2500)
I0428 20:09:01.075980 31533 net.cpp:139] Memory required for data: 8324800
I0428 20:09:01.075994 31533 layer_factory.hpp:77] Creating layer relu1
I0428 20:09:01.076004 31533 net.cpp:86] Creating Layer relu1
I0428 20:09:01.076010 31533 net.cpp:408] relu1 <- ip1
I0428 20:09:01.076017 31533 net.cpp:369] relu1 -> ip1 (in-place)
I0428 20:09:01.076207 31533 net.cpp:124] Setting up relu1
I0428 20:09:01.076217 31533 net.cpp:131] Top shape: 100 25 (2500)
I0428 20:09:01.076222 31533 net.cpp:139] Memory required for data: 8334800
I0428 20:09:01.076227 31533 layer_factory.hpp:77] Creating layer ip2
I0428 20:09:01.076241 31533 net.cpp:86] Creating Layer ip2
I0428 20:09:01.076246 31533 net.cpp:408] ip2 <- ip1
I0428 20:09:01.076256 31533 net.cpp:382] ip2 -> ip2
I0428 20:09:01.076359 31533 net.cpp:124] Setting up ip2
I0428 20:09:01.076367 31533 net.cpp:131] Top shape: 100 10 (1000)
I0428 20:09:01.076372 31533 net.cpp:139] Memory required for data: 8338800
I0428 20:09:01.076381 31533 layer_factory.hpp:77] Creating layer relu2
I0428 20:09:01.076390 31533 net.cpp:86] Creating Layer relu2
I0428 20:09:01.076395 31533 net.cpp:408] relu2 <- ip2
I0428 20:09:01.076401 31533 net.cpp:369] relu2 -> ip2 (in-place)
I0428 20:09:01.076568 31533 net.cpp:124] Setting up relu2
I0428 20:09:01.076593 31533 net.cpp:131] Top shape: 100 10 (1000)
I0428 20:09:01.076598 31533 net.cpp:139] Memory required for data: 8342800
I0428 20:09:01.076604 31533 layer_factory.hpp:77] Creating layer ip2_relu2_0_split
I0428 20:09:01.076611 31533 net.cpp:86] Creating Layer ip2_relu2_0_split
I0428 20:09:01.076617 31533 net.cpp:408] ip2_relu2_0_split <- ip2
I0428 20:09:01.076639 31533 net.cpp:382] ip2_relu2_0_split -> ip2_relu2_0_split_0
I0428 20:09:01.076663 31533 net.cpp:382] ip2_relu2_0_split -> ip2_relu2_0_split_1
I0428 20:09:01.076725 31533 net.cpp:124] Setting up ip2_relu2_0_split
I0428 20:09:01.076735 31533 net.cpp:131] Top shape: 100 10 (1000)
I0428 20:09:01.076743 31533 net.cpp:131] Top shape: 100 10 (1000)
I0428 20:09:01.076750 31533 net.cpp:139] Memory required for data: 8350800
I0428 20:09:01.076756 31533 layer_factory.hpp:77] Creating layer accuracy
I0428 20:09:01.076766 31533 net.cpp:86] Creating Layer accuracy
I0428 20:09:01.076771 31533 net.cpp:408] accuracy <- ip2_relu2_0_split_0
I0428 20:09:01.076778 31533 net.cpp:408] accuracy <- label_mnist_1_split_0
I0428 20:09:01.076786 31533 net.cpp:382] accuracy -> accuracy
…
