…
I0428 20:14:44.395977 32737 net.cpp:296] The NetState phase (0) differed from the phase (1) specified by a rule in layer mnist
I0428 20:14:44.395998 32737 net.cpp:296] The NetState phase (0) differed from the phase (1) specified by a rule in layer accuracy
I0428 20:14:44.396100 32737 net.cpp:53] Initializing net from parameters: 
name: "LeNet"
state {
  phase: TRAIN
  level: 0
  stage: ""
}
layer {
  name: "mnist"
  type: "Data"
  top: "data"
  top: "label"
  include {
    phase: TRAIN
  }
  transform_param {
    scale: 0.00390625
  }
  data_param {
    source: "examples/mnist/mnist_train_lmdb"
    batch_size: 64
    backend: LMDB
  }
}
layer {
  name: "conv0"
  type: "Convolution"
  bottom: "data"
  top: "conv0"
  param {
    lr_mult: 1
  }
  param {
    lr_mult: 2
  }
  convolution_param {
    num_output: 50
    kernel_size: 5
    stride: 1
    weight_filler {
      type: "xavier"
    }
    bias_filler {
      type: "constant"
    }
  }
}
layer {
  name: "pool0"
  type: "Pooling"
  bottom: "conv0"
  top: "pool0"
  pooling_param {
    pool: MAX
    kernel_size: 2
    stride: 2
  }
}
layer {
  name: "conv1"
  type: "Convolution"
  bottom: "pool0"
  top: "conv1"
  param {
    lr_mult: 1
  }
  param {
    lr_mult: 2
  }
  convolution_param {
    num_output: 2
    kernel_size: 5
    stride: 1
    weight_filler {
      type: "xavier"
    }
    bias_filler {
      type: "constant"
    }
  }
}
layer {
  name: "pool1"
  type: "Pooling"
  bottom: "conv1"
  top: "pool1"
  pooling_param {
    pool: MAX
    kernel_size: 2
    stride: 2
  }
}
layer {
  name: "ip1"
  type: "InnerProduct"
  bottom: "pool1"
  top: "ip1"
  param {
    lr_mult: 1
  }
  param {
    lr_mult: 2
  }
  inner_product_param {
    num_output: 10
    weight_filler {
      type: "xavier"
    }
    bias_filler {
      type: "constant"
    }
  }
}
layer {
  name: "relu1"
  type: "ReLU"
  bottom: "ip1"
  top: "ip1"
}
layer {
  name: "ip2"
  type: "InnerProduct"
  bottom: "ip1"
  top: "ip2"
  param {
    lr_mult: 1
  }
  param {
    lr_mult: 2
  }
  inner_product_param {
    num_output: 50
    weight_filler {
      type: "xavier"
    }
    bias_filler {
      type: "constant"
    }
  }
}
layer {
  name: "relu2"
  type: "ReLU"
  bottom: "ip2"
  top: "ip2"
}
layer {
  name: "ip3"
  type: "InnerProduct"
  bottom: "ip2"
  top: "ip3"
  param {
    lr_mult: 1
  }
  param {
    lr_mult: 2
  }
  inner_product_param {
    num_output: 10
    weight_filler {
      type: "xavier"
    }
    bias_filler {
      type: "constant"
    }
  }
}
layer {
  name: "relu3"
  type: "ReLU"
  bottom: "ip3"
  top: "ip3"
}
layer {
  name: "loss"
  type: "SoftmaxWithLoss"
  bottom: "ip3"
  bottom: "label"
  top: "loss"
}
I0428 20:14:44.396181 32737 layer_factory.hpp:77] Creating layer mnist
I0428 20:14:44.396280 32737 db_lmdb.cpp:35] Opened lmdb examples/mnist/mnist_train_lmdb
I0428 20:14:44.396306 32737 net.cpp:86] Creating Layer mnist
I0428 20:14:44.396317 32737 net.cpp:382] mnist -> data
I0428 20:14:44.396342 32737 net.cpp:382] mnist -> label
I0428 20:14:44.397471 32737 data_layer.cpp:45] output data size: 64,1,28,28
I0428 20:14:44.399957 32737 net.cpp:124] Setting up mnist
I0428 20:14:44.399976 32737 net.cpp:131] Top shape: 64 1 28 28 (50176)
I0428 20:14:44.399981 32737 net.cpp:131] Top shape: 64 (64)
I0428 20:14:44.399984 32737 net.cpp:139] Memory required for data: 200960
I0428 20:14:44.399992 32737 layer_factory.hpp:77] Creating layer conv0
I0428 20:14:44.400010 32737 net.cpp:86] Creating Layer conv0
I0428 20:14:44.400032 32737 net.cpp:408] conv0 <- data
I0428 20:14:44.400046 32737 net.cpp:382] conv0 -> conv0
I0428 20:14:44.695435 32737 net.cpp:124] Setting up conv0
I0428 20:14:44.695466 32737 net.cpp:131] Top shape: 64 50 24 24 (1843200)
I0428 20:14:44.695472 32737 net.cpp:139] Memory required for data: 7573760
I0428 20:14:44.695490 32737 layer_factory.hpp:77] Creating layer pool0
I0428 20:14:44.695504 32737 net.cpp:86] Creating Layer pool0
I0428 20:14:44.695509 32737 net.cpp:408] pool0 <- conv0
I0428 20:14:44.695516 32737 net.cpp:382] pool0 -> pool0
I0428 20:14:44.695574 32737 net.cpp:124] Setting up pool0
I0428 20:14:44.695583 32737 net.cpp:131] Top shape: 64 50 12 12 (460800)
I0428 20:14:44.695587 32737 net.cpp:139] Memory required for data: 9416960
I0428 20:14:44.695591 32737 layer_factory.hpp:77] Creating layer conv1
I0428 20:14:44.695605 32737 net.cpp:86] Creating Layer conv1
I0428 20:14:44.695610 32737 net.cpp:408] conv1 <- pool0
I0428 20:14:44.695616 32737 net.cpp:382] conv1 -> conv1
I0428 20:14:44.697801 32737 net.cpp:124] Setting up conv1
I0428 20:14:44.697819 32737 net.cpp:131] Top shape: 64 2 8 8 (8192)
I0428 20:14:44.697824 32737 net.cpp:139] Memory required for data: 9449728
I0428 20:14:44.697837 32737 layer_factory.hpp:77] Creating layer pool1
I0428 20:14:44.697846 32737 net.cpp:86] Creating Layer pool1
I0428 20:14:44.697851 32737 net.cpp:408] pool1 <- conv1
I0428 20:14:44.697857 32737 net.cpp:382] pool1 -> pool1
I0428 20:14:44.697907 32737 net.cpp:124] Setting up pool1
I0428 20:14:44.697916 32737 net.cpp:131] Top shape: 64 2 4 4 (2048)
I0428 20:14:44.697919 32737 net.cpp:139] Memory required for data: 9457920
I0428 20:14:44.697923 32737 layer_factory.hpp:77] Creating layer ip1
I0428 20:14:44.697932 32737 net.cpp:86] Creating Layer ip1
I0428 20:14:44.697938 32737 net.cpp:408] ip1 <- pool1
I0428 20:14:44.697944 32737 net.cpp:382] ip1 -> ip1
I0428 20:14:44.698057 32737 net.cpp:124] Setting up ip1
I0428 20:14:44.698065 32737 net.cpp:131] Top shape: 64 10 (640)
I0428 20:14:44.698070 32737 net.cpp:139] Memory required for data: 9460480
I0428 20:14:44.698078 32737 layer_factory.hpp:77] Creating layer relu1
I0428 20:14:44.698086 32737 net.cpp:86] Creating Layer relu1
I0428 20:14:44.698089 32737 net.cpp:408] relu1 <- ip1
I0428 20:14:44.698096 32737 net.cpp:369] relu1 -> ip1 (in-place)
I0428 20:14:44.698309 32737 net.cpp:124] Setting up relu1
I0428 20:14:44.698319 32737 net.cpp:131] Top shape: 64 10 (640)
I0428 20:14:44.698323 32737 net.cpp:139] Memory required for data: 9463040
I0428 20:14:44.698328 32737 layer_factory.hpp:77] Creating layer ip2
I0428 20:14:44.698336 32737 net.cpp:86] Creating Layer ip2
I0428 20:14:44.698339 32737 net.cpp:408] ip2 <- ip1
I0428 20:14:44.698345 32737 net.cpp:382] ip2 -> ip2
I0428 20:14:44.698477 32737 net.cpp:124] Setting up ip2
I0428 20:14:44.698487 32737 net.cpp:131] Top shape: 64 50 (3200)
I0428 20:14:44.698490 32737 net.cpp:139] Memory required for data: 9475840
I0428 20:14:44.698498 32737 layer_factory.hpp:77] Creating layer relu2
I0428 20:14:44.698506 32737 net.cpp:86] Creating Layer relu2
I0428 20:14:44.698513 32737 net.cpp:408] relu2 <- ip2
I0428 20:14:44.698518 32737 net.cpp:369] relu2 -> ip2 (in-place)
I0428 20:14:44.699373 32737 net.cpp:124] Setting up relu2
I0428 20:14:44.699388 32737 net.cpp:131] Top shape: 64 50 (3200)
I0428 20:14:44.699391 32737 net.cpp:139] Memory required for data: 9488640
I0428 20:14:44.699395 32737 layer_factory.hpp:77] Creating layer ip3
I0428 20:14:44.699407 32737 net.cpp:86] Creating Layer ip3
I0428 20:14:44.699411 32737 net.cpp:408] ip3 <- ip2
I0428 20:14:44.699419 32737 net.cpp:382] ip3 -> ip3
I0428 20:14:44.699548 32737 net.cpp:124] Setting up ip3
I0428 20:14:44.699558 32737 net.cpp:131] Top shape: 64 10 (640)
I0428 20:14:44.699560 32737 net.cpp:139] Memory required for data: 9491200
I0428 20:14:44.699570 32737 layer_factory.hpp:77] Creating layer relu3
I0428 20:14:44.699578 32737 net.cpp:86] Creating Layer relu3
I0428 20:14:44.699581 32737 net.cpp:408] relu3 <- ip3
I0428 20:14:44.699586 32737 net.cpp:369] relu3 -> ip3 (in-place)
I0428 20:14:44.699796 32737 net.cpp:124] Setting up relu3
I0428 20:14:44.699806 32737 net.cpp:131] Top shape: 64 10 (640)
I0428 20:14:44.699810 32737 net.cpp:139] Memory required for data: 9493760
I0428 20:14:44.699815 32737 layer_factory.hpp:77] Creating layer loss
I0428 20:14:44.699820 32737 net.cpp:86] Creating Layer loss
I0428 20:14:44.699826 32737 net.cpp:408] loss <- ip3
I0428 20:14:44.699831 32737 net.cpp:408] loss <- label
I0428 20:14:44.699838 32737 net.cpp:382] loss -> loss
I0428 20:14:44.699856 32737 layer_factory.hpp:77] Creating layer loss
…
I0428 20:14:44.700620 32737 solver.cpp:173] Creating test net (#0) specified by net file: ECE595/mnist/train_test/var_everything2/lenet_train_test1229.prototxt
I0428 20:14:44.700651 32737 net.cpp:296] The NetState phase (1) differed from the phase (0) specified by a rule in layer mnist
I0428 20:14:44.700760 32737 net.cpp:53] Initializing net from parameters: 
name: "LeNet"
state {
  phase: TEST
}
layer {
  name: "mnist"
  type: "Data"
  top: "data"
  top: "label"
  include {
    phase: TEST
  }
  transform_param {
    scale: 0.00390625
  }
  data_param {
    source: "examples/mnist/mnist_test_lmdb"
    batch_size: 100
    backend: LMDB
  }
}
layer {
  name: "conv0"
  type: "Convolution"
  bottom: "data"
  top: "conv0"
  param {
    lr_mult: 1
  }
  param {
    lr_mult: 2
  }
  convolution_param {
    num_output: 50
    kernel_size: 5
    stride: 1
    weight_filler {
      type: "xavier"
    }
    bias_filler {
      type: "constant"
    }
  }
}
layer {
  name: "pool0"
  type: "Pooling"
  bottom: "conv0"
  top: "pool0"
  pooling_param {
    pool: MAX
    kernel_size: 2
    stride: 2
  }
}
layer {
  name: "conv1"
  type: "Convolution"
  bottom: "pool0"
  top: "conv1"
  param {
    lr_mult: 1
  }
  param {
    lr_mult: 2
  }
  convolution_param {
    num_output: 2
    kernel_size: 5
    stride: 1
    weight_filler {
      type: "xavier"
    }
    bias_filler {
      type: "constant"
    }
  }
}
layer {
  name: "pool1"
  type: "Pooling"
  bottom: "conv1"
  top: "pool1"
  pooling_param {
    pool: MAX
    kernel_size: 2
    stride: 2
  }
}
layer {
  name: "ip1"
  type: "InnerProduct"
  bottom: "pool1"
  top: "ip1"
  param {
    lr_mult: 1
  }
  param {
    lr_mult: 2
  }
  inner_product_param {
    num_output: 10
    weight_filler {
      type: "xavier"
    }
    bias_filler {
      type: "constant"
    }
  }
}
layer {
  name: "relu1"
  type: "ReLU"
  bottom: "ip1"
  top: "ip1"
}
layer {
  name: "ip2"
  type: "InnerProduct"
  bottom: "ip1"
  top: "ip2"
  param {
    lr_mult: 1
  }
  param {
    lr_mult: 2
  }
  inner_product_param {
    num_output: 50
    weight_filler {
      type: "xavier"
    }
    bias_filler {
      type: "constant"
    }
  }
}
layer {
  name: "relu2"
  type: "ReLU"
  bottom: "ip2"
  top: "ip2"
}
layer {
  name: "ip3"
  type: "InnerProduct"
  bottom: "ip2"
  top: "ip3"
  param {
    lr_mult: 1
  }
  param {
    lr_mult: 2
  }
  inner_product_param {
    num_output: 10
    weight_filler {
      type: "xavier"
    }
    bias_filler {
      type: "constant"
    }
  }
}
layer {
  name: "relu3"
  type: "ReLU"
  bottom: "ip3"
  top: "ip3"
}
layer {
  name: "accuracy"
  type: "Accuracy"
  bottom: "ip3"
  bottom: "label"
  top: "accuracy"
  include {
    phase: TEST
  }
}
layer {
  name: "loss"
  type: "SoftmaxWithLoss"
  bottom: "ip3"
  bottom: "label"
  top: "loss"
}
I0428 20:14:44.700868 32737 layer_factory.hpp:77] Creating layer mnist
I0428 20:14:44.700918 32737 db_lmdb.cpp:35] Opened lmdb examples/mnist/mnist_test_lmdb
I0428 20:14:44.700937 32737 net.cpp:86] Creating Layer mnist
I0428 20:14:44.700942 32737 net.cpp:382] mnist -> data
I0428 20:14:44.700951 32737 net.cpp:382] mnist -> label
I0428 20:14:44.701056 32737 data_layer.cpp:45] output data size: 100,1,28,28
I0428 20:14:44.703225 32737 net.cpp:124] Setting up mnist
I0428 20:14:44.703241 32737 net.cpp:131] Top shape: 100 1 28 28 (78400)
I0428 20:14:44.703248 32737 net.cpp:131] Top shape: 100 (100)
I0428 20:14:44.703251 32737 net.cpp:139] Memory required for data: 314000
I0428 20:14:44.703256 32737 layer_factory.hpp:77] Creating layer label_mnist_1_split
I0428 20:14:44.703264 32737 net.cpp:86] Creating Layer label_mnist_1_split
I0428 20:14:44.703268 32737 net.cpp:408] label_mnist_1_split <- label
I0428 20:14:44.703274 32737 net.cpp:382] label_mnist_1_split -> label_mnist_1_split_0
I0428 20:14:44.703280 32737 net.cpp:382] label_mnist_1_split -> label_mnist_1_split_1
I0428 20:14:44.703336 32737 net.cpp:124] Setting up label_mnist_1_split
I0428 20:14:44.703346 32737 net.cpp:131] Top shape: 100 (100)
I0428 20:14:44.703349 32737 net.cpp:131] Top shape: 100 (100)
I0428 20:14:44.703353 32737 net.cpp:139] Memory required for data: 314800
I0428 20:14:44.703356 32737 layer_factory.hpp:77] Creating layer conv0
I0428 20:14:44.703367 32737 net.cpp:86] Creating Layer conv0
I0428 20:14:44.703372 32737 net.cpp:408] conv0 <- data
I0428 20:14:44.703378 32737 net.cpp:382] conv0 -> conv0
I0428 20:14:44.705123 32737 net.cpp:124] Setting up conv0
I0428 20:14:44.705140 32737 net.cpp:131] Top shape: 100 50 24 24 (2880000)
I0428 20:14:44.705144 32737 net.cpp:139] Memory required for data: 11834800
I0428 20:14:44.705155 32737 layer_factory.hpp:77] Creating layer pool0
I0428 20:14:44.705164 32737 net.cpp:86] Creating Layer pool0
I0428 20:14:44.705168 32737 net.cpp:408] pool0 <- conv0
I0428 20:14:44.705173 32737 net.cpp:382] pool0 -> pool0
I0428 20:14:44.705217 32737 net.cpp:124] Setting up pool0
I0428 20:14:44.705226 32737 net.cpp:131] Top shape: 100 50 12 12 (720000)
I0428 20:14:44.705229 32737 net.cpp:139] Memory required for data: 14714800
I0428 20:14:44.705234 32737 layer_factory.hpp:77] Creating layer conv1
I0428 20:14:44.705245 32737 net.cpp:86] Creating Layer conv1
I0428 20:14:44.705250 32737 net.cpp:408] conv1 <- pool0
I0428 20:14:44.705256 32737 net.cpp:382] conv1 -> conv1
I0428 20:14:44.706964 32737 net.cpp:124] Setting up conv1
I0428 20:14:44.706981 32737 net.cpp:131] Top shape: 100 2 8 8 (12800)
I0428 20:14:44.706985 32737 net.cpp:139] Memory required for data: 14766000
I0428 20:14:44.706995 32737 layer_factory.hpp:77] Creating layer pool1
I0428 20:14:44.707002 32737 net.cpp:86] Creating Layer pool1
I0428 20:14:44.707007 32737 net.cpp:408] pool1 <- conv1
I0428 20:14:44.707013 32737 net.cpp:382] pool1 -> pool1
I0428 20:14:44.707058 32737 net.cpp:124] Setting up pool1
I0428 20:14:44.707067 32737 net.cpp:131] Top shape: 100 2 4 4 (3200)
I0428 20:14:44.707070 32737 net.cpp:139] Memory required for data: 14778800
I0428 20:14:44.707073 32737 layer_factory.hpp:77] Creating layer ip1
I0428 20:14:44.707082 32737 net.cpp:86] Creating Layer ip1
I0428 20:14:44.707087 32737 net.cpp:408] ip1 <- pool1
I0428 20:14:44.707093 32737 net.cpp:382] ip1 -> ip1
I0428 20:14:44.707211 32737 net.cpp:124] Setting up ip1
I0428 20:14:44.707221 32737 net.cpp:131] Top shape: 100 10 (1000)
I0428 20:14:44.707237 32737 net.cpp:139] Memory required for data: 14782800
I0428 20:14:44.707247 32737 layer_factory.hpp:77] Creating layer relu1
I0428 20:14:44.707252 32737 net.cpp:86] Creating Layer relu1
I0428 20:14:44.707257 32737 net.cpp:408] relu1 <- ip1
I0428 20:14:44.707262 32737 net.cpp:369] relu1 -> ip1 (in-place)
I0428 20:14:44.707449 32737 net.cpp:124] Setting up relu1
I0428 20:14:44.707463 32737 net.cpp:131] Top shape: 100 10 (1000)
I0428 20:14:44.707466 32737 net.cpp:139] Memory required for data: 14786800
I0428 20:14:44.707470 32737 layer_factory.hpp:77] Creating layer ip2
I0428 20:14:44.707479 32737 net.cpp:86] Creating Layer ip2
I0428 20:14:44.707482 32737 net.cpp:408] ip2 <- ip1
I0428 20:14:44.707489 32737 net.cpp:382] ip2 -> ip2
I0428 20:14:44.707614 32737 net.cpp:124] Setting up ip2
I0428 20:14:44.707624 32737 net.cpp:131] Top shape: 100 50 (5000)
I0428 20:14:44.707636 32737 net.cpp:139] Memory required for data: 14806800
I0428 20:14:44.707643 32737 layer_factory.hpp:77] Creating layer relu2
I0428 20:14:44.707649 32737 net.cpp:86] Creating Layer relu2
I0428 20:14:44.707653 32737 net.cpp:408] relu2 <- ip2
I0428 20:14:44.707659 32737 net.cpp:369] relu2 -> ip2 (in-place)
I0428 20:14:44.707929 32737 net.cpp:124] Setting up relu2
I0428 20:14:44.707939 32737 net.cpp:131] Top shape: 100 50 (5000)
I0428 20:14:44.707944 32737 net.cpp:139] Memory required for data: 14826800
I0428 20:14:44.707947 32737 layer_factory.hpp:77] Creating layer ip3
I0428 20:14:44.707955 32737 net.cpp:86] Creating Layer ip3
I0428 20:14:44.707959 32737 net.cpp:408] ip3 <- ip2
I0428 20:14:44.707967 32737 net.cpp:382] ip3 -> ip3
I0428 20:14:44.708086 32737 net.cpp:124] Setting up ip3
I0428 20:14:44.708094 32737 net.cpp:131] Top shape: 100 10 (1000)
I0428 20:14:44.708097 32737 net.cpp:139] Memory required for data: 14830800
I0428 20:14:44.708106 32737 layer_factory.hpp:77] Creating layer relu3
I0428 20:14:44.708112 32737 net.cpp:86] Creating Layer relu3
I0428 20:14:44.708115 32737 net.cpp:408] relu3 <- ip3
I0428 20:14:44.708122 32737 net.cpp:369] relu3 -> ip3 (in-place)
I0428 20:14:44.709055 32737 net.cpp:124] Setting up relu3
I0428 20:14:44.709069 32737 net.cpp:131] Top shape: 100 10 (1000)
I0428 20:14:44.709074 32737 net.cpp:139] Memory required for data: 14834800
I0428 20:14:44.709077 32737 layer_factory.hpp:77] Creating layer ip3_relu3_0_split
I0428 20:14:44.709084 32737 net.cpp:86] Creating Layer ip3_relu3_0_split
I0428 20:14:44.709089 32737 net.cpp:408] ip3_relu3_0_split <- ip3
I0428 20:14:44.709095 32737 net.cpp:382] ip3_relu3_0_split -> ip3_relu3_0_split_0
I0428 20:14:44.709102 32737 net.cpp:382] ip3_relu3_0_split -> ip3_relu3_0_split_1
I0428 20:14:44.709148 32737 net.cpp:124] Setting up ip3_relu3_0_split
I0428 20:14:44.709157 32737 net.cpp:131] Top shape: 100 10 (1000)
I0428 20:14:44.709161 32737 net.cpp:131] Top shape: 100 10 (1000)
I0428 20:14:44.709164 32737 net.cpp:139] Memory required for data: 14842800
I0428 20:14:44.709168 32737 layer_factory.hpp:77] Creating layer accuracy
I0428 20:14:44.709174 32737 net.cpp:86] Creating Layer accuracy
I0428 20:14:44.709178 32737 net.cpp:408] accuracy <- ip3_relu3_0_split_0
I0428 20:14:44.709192 32737 net.cpp:408] accuracy <- label_mnist_1_split_0
I0428 20:14:44.709197 32737 net.cpp:382] accuracy -> accuracy
…
