…
I0428 20:08:28.826673 31390 net.cpp:296] The NetState phase (0) differed from the phase (1) specified by a rule in layer mnist
I0428 20:08:28.826689 31390 net.cpp:296] The NetState phase (0) differed from the phase (1) specified by a rule in layer accuracy
I0428 20:08:28.826771 31390 net.cpp:53] Initializing net from parameters: 
name: "LeNet"
state {
  phase: TRAIN
  level: 0
  stage: ""
}
layer {
  name: "mnist"
  type: "Data"
  top: "data"
  top: "label"
  include {
    phase: TRAIN
  }
  transform_param {
    scale: 0.00390625
  }
  data_param {
    source: "examples/mnist/mnist_train_lmdb"
    batch_size: 64
    backend: LMDB
  }
}
layer {
  name: "conv0"
  type: "Convolution"
  bottom: "data"
  top: "conv0"
  param {
    lr_mult: 1
  }
  param {
    lr_mult: 2
  }
  convolution_param {
    num_output: 25
    kernel_size: 5
    stride: 1
    weight_filler {
      type: "xavier"
    }
    bias_filler {
      type: "constant"
    }
  }
}
layer {
  name: "pool0"
  type: "Pooling"
  bottom: "conv0"
  top: "pool0"
  pooling_param {
    pool: MAX
    kernel_size: 2
    stride: 2
  }
}
layer {
  name: "conv1"
  type: "Convolution"
  bottom: "pool0"
  top: "conv1"
  param {
    lr_mult: 1
  }
  param {
    lr_mult: 2
  }
  convolution_param {
    num_output: 10
    kernel_size: 5
    stride: 1
    weight_filler {
      type: "xavier"
    }
    bias_filler {
      type: "constant"
    }
  }
}
layer {
  name: "pool1"
  type: "Pooling"
  bottom: "conv1"
  top: "pool1"
  pooling_param {
    pool: MAX
    kernel_size: 2
    stride: 2
  }
}
layer {
  name: "ip1"
  type: "InnerProduct"
  bottom: "pool1"
  top: "ip1"
  param {
    lr_mult: 1
  }
  param {
    lr_mult: 2
  }
  inner_product_param {
    num_output: 50
    weight_filler {
      type: "xavier"
    }
    bias_filler {
      type: "constant"
    }
  }
}
layer {
  name: "relu1"
  type: "ReLU"
  bottom: "ip1"
  top: "ip1"
}
layer {
  name: "ip2"
  type: "InnerProduct"
  bottom: "ip1"
  top: "ip2"
  param {
    lr_mult: 1
  }
  param {
    lr_mult: 2
  }
  inner_product_param {
    num_output: 10
    weight_filler {
      type: "xavier"
    }
    bias_filler {
      type: "constant"
    }
  }
}
layer {
  name: "relu2"
  type: "ReLU"
  bottom: "ip2"
  top: "ip2"
}
layer {
  name: "ip3"
  type: "InnerProduct"
  bottom: "ip2"
  top: "ip3"
  param {
    lr_mult: 1
  }
  param {
    lr_mult: 2
  }
  inner_product_param {
    num_output: 10
    weight_filler {
      type: "xavier"
    }
    bias_filler {
      type: "constant"
    }
  }
}
layer {
  name: "relu3"
  type: "ReLU"
  bottom: "ip3"
  top: "ip3"
}
layer {
  name: "loss"
  type: "SoftmaxWithLoss"
  bottom: "ip3"
  bottom: "label"
  top: "loss"
}
I0428 20:08:28.826848 31390 layer_factory.hpp:77] Creating layer mnist
I0428 20:08:28.826926 31390 db_lmdb.cpp:35] Opened lmdb examples/mnist/mnist_train_lmdb
I0428 20:08:28.826946 31390 net.cpp:86] Creating Layer mnist
I0428 20:08:28.826953 31390 net.cpp:382] mnist -> data
I0428 20:08:28.826972 31390 net.cpp:382] mnist -> label
I0428 20:08:28.827953 31390 data_layer.cpp:45] output data size: 64,1,28,28
I0428 20:08:28.830204 31390 net.cpp:124] Setting up mnist
I0428 20:08:28.830219 31390 net.cpp:131] Top shape: 64 1 28 28 (50176)
I0428 20:08:28.830224 31390 net.cpp:131] Top shape: 64 (64)
I0428 20:08:28.830227 31390 net.cpp:139] Memory required for data: 200960
I0428 20:08:28.830232 31390 layer_factory.hpp:77] Creating layer conv0
I0428 20:08:28.830277 31390 net.cpp:86] Creating Layer conv0
I0428 20:08:28.830296 31390 net.cpp:408] conv0 <- data
I0428 20:08:28.830305 31390 net.cpp:382] conv0 -> conv0
I0428 20:08:29.142413 31390 net.cpp:124] Setting up conv0
I0428 20:08:29.142446 31390 net.cpp:131] Top shape: 64 25 24 24 (921600)
I0428 20:08:29.142451 31390 net.cpp:139] Memory required for data: 3887360
I0428 20:08:29.142467 31390 layer_factory.hpp:77] Creating layer pool0
I0428 20:08:29.142483 31390 net.cpp:86] Creating Layer pool0
I0428 20:08:29.142488 31390 net.cpp:408] pool0 <- conv0
I0428 20:08:29.142494 31390 net.cpp:382] pool0 -> pool0
I0428 20:08:29.142549 31390 net.cpp:124] Setting up pool0
I0428 20:08:29.142556 31390 net.cpp:131] Top shape: 64 25 12 12 (230400)
I0428 20:08:29.142560 31390 net.cpp:139] Memory required for data: 4808960
I0428 20:08:29.142563 31390 layer_factory.hpp:77] Creating layer conv1
I0428 20:08:29.142577 31390 net.cpp:86] Creating Layer conv1
I0428 20:08:29.142581 31390 net.cpp:408] conv1 <- pool0
I0428 20:08:29.142588 31390 net.cpp:382] conv1 -> conv1
I0428 20:08:29.145824 31390 net.cpp:124] Setting up conv1
I0428 20:08:29.145843 31390 net.cpp:131] Top shape: 64 10 8 8 (40960)
I0428 20:08:29.145848 31390 net.cpp:139] Memory required for data: 4972800
I0428 20:08:29.145858 31390 layer_factory.hpp:77] Creating layer pool1
I0428 20:08:29.145866 31390 net.cpp:86] Creating Layer pool1
I0428 20:08:29.145872 31390 net.cpp:408] pool1 <- conv1
I0428 20:08:29.145879 31390 net.cpp:382] pool1 -> pool1
I0428 20:08:29.145926 31390 net.cpp:124] Setting up pool1
I0428 20:08:29.145932 31390 net.cpp:131] Top shape: 64 10 4 4 (10240)
I0428 20:08:29.145936 31390 net.cpp:139] Memory required for data: 5013760
I0428 20:08:29.145939 31390 layer_factory.hpp:77] Creating layer ip1
I0428 20:08:29.145948 31390 net.cpp:86] Creating Layer ip1
I0428 20:08:29.145952 31390 net.cpp:408] ip1 <- pool1
I0428 20:08:29.145958 31390 net.cpp:382] ip1 -> ip1
I0428 20:08:29.146137 31390 net.cpp:124] Setting up ip1
I0428 20:08:29.146147 31390 net.cpp:131] Top shape: 64 50 (3200)
I0428 20:08:29.146152 31390 net.cpp:139] Memory required for data: 5026560
I0428 20:08:29.146159 31390 layer_factory.hpp:77] Creating layer relu1
I0428 20:08:29.146167 31390 net.cpp:86] Creating Layer relu1
I0428 20:08:29.146170 31390 net.cpp:408] relu1 <- ip1
I0428 20:08:29.146175 31390 net.cpp:369] relu1 -> ip1 (in-place)
I0428 20:08:29.146392 31390 net.cpp:124] Setting up relu1
I0428 20:08:29.146404 31390 net.cpp:131] Top shape: 64 50 (3200)
I0428 20:08:29.146407 31390 net.cpp:139] Memory required for data: 5039360
I0428 20:08:29.146410 31390 layer_factory.hpp:77] Creating layer ip2
I0428 20:08:29.146419 31390 net.cpp:86] Creating Layer ip2
I0428 20:08:29.146423 31390 net.cpp:408] ip2 <- ip1
I0428 20:08:29.146428 31390 net.cpp:382] ip2 -> ip2
I0428 20:08:29.146551 31390 net.cpp:124] Setting up ip2
I0428 20:08:29.146560 31390 net.cpp:131] Top shape: 64 10 (640)
I0428 20:08:29.146564 31390 net.cpp:139] Memory required for data: 5041920
I0428 20:08:29.146569 31390 layer_factory.hpp:77] Creating layer relu2
I0428 20:08:29.146576 31390 net.cpp:86] Creating Layer relu2
I0428 20:08:29.146580 31390 net.cpp:408] relu2 <- ip2
I0428 20:08:29.146586 31390 net.cpp:369] relu2 -> ip2 (in-place)
I0428 20:08:29.147442 31390 net.cpp:124] Setting up relu2
I0428 20:08:29.147459 31390 net.cpp:131] Top shape: 64 10 (640)
I0428 20:08:29.147462 31390 net.cpp:139] Memory required for data: 5044480
I0428 20:08:29.147466 31390 layer_factory.hpp:77] Creating layer ip3
I0428 20:08:29.147475 31390 net.cpp:86] Creating Layer ip3
I0428 20:08:29.147480 31390 net.cpp:408] ip3 <- ip2
I0428 20:08:29.147485 31390 net.cpp:382] ip3 -> ip3
I0428 20:08:29.147611 31390 net.cpp:124] Setting up ip3
I0428 20:08:29.147620 31390 net.cpp:131] Top shape: 64 10 (640)
I0428 20:08:29.147624 31390 net.cpp:139] Memory required for data: 5047040
I0428 20:08:29.147632 31390 layer_factory.hpp:77] Creating layer relu3
I0428 20:08:29.147640 31390 net.cpp:86] Creating Layer relu3
I0428 20:08:29.147644 31390 net.cpp:408] relu3 <- ip3
I0428 20:08:29.147649 31390 net.cpp:369] relu3 -> ip3 (in-place)
I0428 20:08:29.147866 31390 net.cpp:124] Setting up relu3
I0428 20:08:29.147877 31390 net.cpp:131] Top shape: 64 10 (640)
I0428 20:08:29.147881 31390 net.cpp:139] Memory required for data: 5049600
I0428 20:08:29.147884 31390 layer_factory.hpp:77] Creating layer loss
I0428 20:08:29.147892 31390 net.cpp:86] Creating Layer loss
I0428 20:08:29.147897 31390 net.cpp:408] loss <- ip3
I0428 20:08:29.147902 31390 net.cpp:408] loss <- label
I0428 20:08:29.147907 31390 net.cpp:382] loss -> loss
I0428 20:08:29.147923 31390 layer_factory.hpp:77] Creating layer loss
…
I0428 20:08:29.148682 31390 solver.cpp:173] Creating test net (#0) specified by net file: ECE595/mnist/train_test/var_everything2/lenet_train_test1084.prototxt
I0428 20:08:29.148715 31390 net.cpp:296] The NetState phase (1) differed from the phase (0) specified by a rule in layer mnist
I0428 20:08:29.148840 31390 net.cpp:53] Initializing net from parameters: 
name: "LeNet"
state {
  phase: TEST
}
layer {
  name: "mnist"
  type: "Data"
  top: "data"
  top: "label"
  include {
    phase: TEST
  }
  transform_param {
    scale: 0.00390625
  }
  data_param {
    source: "examples/mnist/mnist_test_lmdb"
    batch_size: 100
    backend: LMDB
  }
}
layer {
  name: "conv0"
  type: "Convolution"
  bottom: "data"
  top: "conv0"
  param {
    lr_mult: 1
  }
  param {
    lr_mult: 2
  }
  convolution_param {
    num_output: 25
    kernel_size: 5
    stride: 1
    weight_filler {
      type: "xavier"
    }
    bias_filler {
      type: "constant"
    }
  }
}
layer {
  name: "pool0"
  type: "Pooling"
  bottom: "conv0"
  top: "pool0"
  pooling_param {
    pool: MAX
    kernel_size: 2
    stride: 2
  }
}
layer {
  name: "conv1"
  type: "Convolution"
  bottom: "pool0"
  top: "conv1"
  param {
    lr_mult: 1
  }
  param {
    lr_mult: 2
  }
  convolution_param {
    num_output: 10
    kernel_size: 5
    stride: 1
    weight_filler {
      type: "xavier"
    }
    bias_filler {
      type: "constant"
    }
  }
}
layer {
  name: "pool1"
  type: "Pooling"
  bottom: "conv1"
  top: "pool1"
  pooling_param {
    pool: MAX
    kernel_size: 2
    stride: 2
  }
}
layer {
  name: "ip1"
  type: "InnerProduct"
  bottom: "pool1"
  top: "ip1"
  param {
    lr_mult: 1
  }
  param {
    lr_mult: 2
  }
  inner_product_param {
    num_output: 50
    weight_filler {
      type: "xavier"
    }
    bias_filler {
      type: "constant"
    }
  }
}
layer {
  name: "relu1"
  type: "ReLU"
  bottom: "ip1"
  top: "ip1"
}
layer {
  name: "ip2"
  type: "InnerProduct"
  bottom: "ip1"
  top: "ip2"
  param {
    lr_mult: 1
  }
  param {
    lr_mult: 2
  }
  inner_product_param {
    num_output: 10
    weight_filler {
      type: "xavier"
    }
    bias_filler {
      type: "constant"
    }
  }
}
layer {
  name: "relu2"
  type: "ReLU"
  bottom: "ip2"
  top: "ip2"
}
layer {
  name: "ip3"
  type: "InnerProduct"
  bottom: "ip2"
  top: "ip3"
  param {
    lr_mult: 1
  }
  param {
    lr_mult: 2
  }
  inner_product_param {
    num_output: 10
    weight_filler {
      type: "xavier"
    }
    bias_filler {
      type: "constant"
    }
  }
}
layer {
  name: "relu3"
  type: "ReLU"
  bottom: "ip3"
  top: "ip3"
}
layer {
  name: "accuracy"
  type: "Accuracy"
  bottom: "ip3"
  bottom: "label"
  top: "accuracy"
  include {
    phase: TEST
  }
}
layer {
  name: "loss"
  type: "SoftmaxWithLoss"
  bottom: "ip3"
  bottom: "label"
  top: "loss"
}
I0428 20:08:29.148958 31390 layer_factory.hpp:77] Creating layer mnist
I0428 20:08:29.149008 31390 db_lmdb.cpp:35] Opened lmdb examples/mnist/mnist_test_lmdb
I0428 20:08:29.149026 31390 net.cpp:86] Creating Layer mnist
I0428 20:08:29.149034 31390 net.cpp:382] mnist -> data
I0428 20:08:29.149044 31390 net.cpp:382] mnist -> label
I0428 20:08:29.149147 31390 data_layer.cpp:45] output data size: 100,1,28,28
I0428 20:08:29.151351 31390 net.cpp:124] Setting up mnist
I0428 20:08:29.151367 31390 net.cpp:131] Top shape: 100 1 28 28 (78400)
I0428 20:08:29.151373 31390 net.cpp:131] Top shape: 100 (100)
I0428 20:08:29.151376 31390 net.cpp:139] Memory required for data: 314000
I0428 20:08:29.151381 31390 layer_factory.hpp:77] Creating layer label_mnist_1_split
I0428 20:08:29.151389 31390 net.cpp:86] Creating Layer label_mnist_1_split
I0428 20:08:29.151393 31390 net.cpp:408] label_mnist_1_split <- label
I0428 20:08:29.151413 31390 net.cpp:382] label_mnist_1_split -> label_mnist_1_split_0
I0428 20:08:29.151422 31390 net.cpp:382] label_mnist_1_split -> label_mnist_1_split_1
I0428 20:08:29.151479 31390 net.cpp:124] Setting up label_mnist_1_split
I0428 20:08:29.151485 31390 net.cpp:131] Top shape: 100 (100)
I0428 20:08:29.151490 31390 net.cpp:131] Top shape: 100 (100)
I0428 20:08:29.151494 31390 net.cpp:139] Memory required for data: 314800
I0428 20:08:29.151496 31390 layer_factory.hpp:77] Creating layer conv0
I0428 20:08:29.151509 31390 net.cpp:86] Creating Layer conv0
I0428 20:08:29.151512 31390 net.cpp:408] conv0 <- data
I0428 20:08:29.151518 31390 net.cpp:382] conv0 -> conv0
I0428 20:08:29.153532 31390 net.cpp:124] Setting up conv0
I0428 20:08:29.153550 31390 net.cpp:131] Top shape: 100 25 24 24 (1440000)
I0428 20:08:29.153554 31390 net.cpp:139] Memory required for data: 6074800
I0428 20:08:29.153565 31390 layer_factory.hpp:77] Creating layer pool0
I0428 20:08:29.153576 31390 net.cpp:86] Creating Layer pool0
I0428 20:08:29.153580 31390 net.cpp:408] pool0 <- conv0
I0428 20:08:29.153586 31390 net.cpp:382] pool0 -> pool0
I0428 20:08:29.153633 31390 net.cpp:124] Setting up pool0
I0428 20:08:29.153640 31390 net.cpp:131] Top shape: 100 25 12 12 (360000)
I0428 20:08:29.153643 31390 net.cpp:139] Memory required for data: 7514800
I0428 20:08:29.153646 31390 layer_factory.hpp:77] Creating layer conv1
I0428 20:08:29.153657 31390 net.cpp:86] Creating Layer conv1
I0428 20:08:29.153661 31390 net.cpp:408] conv1 <- pool0
I0428 20:08:29.153668 31390 net.cpp:382] conv1 -> conv1
I0428 20:08:29.156093 31390 net.cpp:124] Setting up conv1
I0428 20:08:29.156110 31390 net.cpp:131] Top shape: 100 10 8 8 (64000)
I0428 20:08:29.156114 31390 net.cpp:139] Memory required for data: 7770800
I0428 20:08:29.156126 31390 layer_factory.hpp:77] Creating layer pool1
I0428 20:08:29.156134 31390 net.cpp:86] Creating Layer pool1
I0428 20:08:29.156138 31390 net.cpp:408] pool1 <- conv1
I0428 20:08:29.156144 31390 net.cpp:382] pool1 -> pool1
I0428 20:08:29.156199 31390 net.cpp:124] Setting up pool1
I0428 20:08:29.156214 31390 net.cpp:131] Top shape: 100 10 4 4 (16000)
I0428 20:08:29.156219 31390 net.cpp:139] Memory required for data: 7834800
I0428 20:08:29.156230 31390 layer_factory.hpp:77] Creating layer ip1
I0428 20:08:29.156237 31390 net.cpp:86] Creating Layer ip1
I0428 20:08:29.156240 31390 net.cpp:408] ip1 <- pool1
I0428 20:08:29.156247 31390 net.cpp:382] ip1 -> ip1
I0428 20:08:29.156452 31390 net.cpp:124] Setting up ip1
I0428 20:08:29.156461 31390 net.cpp:131] Top shape: 100 50 (5000)
I0428 20:08:29.156477 31390 net.cpp:139] Memory required for data: 7854800
I0428 20:08:29.156486 31390 layer_factory.hpp:77] Creating layer relu1
I0428 20:08:29.156493 31390 net.cpp:86] Creating Layer relu1
I0428 20:08:29.156498 31390 net.cpp:408] relu1 <- ip1
I0428 20:08:29.156512 31390 net.cpp:369] relu1 -> ip1 (in-place)
I0428 20:08:29.156716 31390 net.cpp:124] Setting up relu1
I0428 20:08:29.156728 31390 net.cpp:131] Top shape: 100 50 (5000)
I0428 20:08:29.156733 31390 net.cpp:139] Memory required for data: 7874800
I0428 20:08:29.156736 31390 layer_factory.hpp:77] Creating layer ip2
I0428 20:08:29.156745 31390 net.cpp:86] Creating Layer ip2
I0428 20:08:29.156749 31390 net.cpp:408] ip2 <- ip1
I0428 20:08:29.156755 31390 net.cpp:382] ip2 -> ip2
I0428 20:08:29.156893 31390 net.cpp:124] Setting up ip2
I0428 20:08:29.156904 31390 net.cpp:131] Top shape: 100 10 (1000)
I0428 20:08:29.156908 31390 net.cpp:139] Memory required for data: 7878800
I0428 20:08:29.156913 31390 layer_factory.hpp:77] Creating layer relu2
I0428 20:08:29.156920 31390 net.cpp:86] Creating Layer relu2
I0428 20:08:29.156924 31390 net.cpp:408] relu2 <- ip2
I0428 20:08:29.156930 31390 net.cpp:369] relu2 -> ip2 (in-place)
I0428 20:08:29.157124 31390 net.cpp:124] Setting up relu2
I0428 20:08:29.157135 31390 net.cpp:131] Top shape: 100 10 (1000)
I0428 20:08:29.157138 31390 net.cpp:139] Memory required for data: 7882800
I0428 20:08:29.157142 31390 layer_factory.hpp:77] Creating layer ip3
I0428 20:08:29.157150 31390 net.cpp:86] Creating Layer ip3
I0428 20:08:29.157153 31390 net.cpp:408] ip3 <- ip2
I0428 20:08:29.157160 31390 net.cpp:382] ip3 -> ip3
I0428 20:08:29.157279 31390 net.cpp:124] Setting up ip3
I0428 20:08:29.157287 31390 net.cpp:131] Top shape: 100 10 (1000)
I0428 20:08:29.157291 31390 net.cpp:139] Memory required for data: 7886800
I0428 20:08:29.157300 31390 layer_factory.hpp:77] Creating layer relu3
I0428 20:08:29.157305 31390 net.cpp:86] Creating Layer relu3
I0428 20:08:29.157308 31390 net.cpp:408] relu3 <- ip3
I0428 20:08:29.157313 31390 net.cpp:369] relu3 -> ip3 (in-place)
I0428 20:08:29.158263 31390 net.cpp:124] Setting up relu3
I0428 20:08:29.158278 31390 net.cpp:131] Top shape: 100 10 (1000)
I0428 20:08:29.158283 31390 net.cpp:139] Memory required for data: 7890800
I0428 20:08:29.158288 31390 layer_factory.hpp:77] Creating layer ip3_relu3_0_split
I0428 20:08:29.158293 31390 net.cpp:86] Creating Layer ip3_relu3_0_split
I0428 20:08:29.158298 31390 net.cpp:408] ip3_relu3_0_split <- ip3
I0428 20:08:29.158305 31390 net.cpp:382] ip3_relu3_0_split -> ip3_relu3_0_split_0
I0428 20:08:29.158313 31390 net.cpp:382] ip3_relu3_0_split -> ip3_relu3_0_split_1
I0428 20:08:29.158360 31390 net.cpp:124] Setting up ip3_relu3_0_split
I0428 20:08:29.158365 31390 net.cpp:131] Top shape: 100 10 (1000)
I0428 20:08:29.158370 31390 net.cpp:131] Top shape: 100 10 (1000)
I0428 20:08:29.158372 31390 net.cpp:139] Memory required for data: 7898800
I0428 20:08:29.158376 31390 layer_factory.hpp:77] Creating layer accuracy
I0428 20:08:29.158383 31390 net.cpp:86] Creating Layer accuracy
I0428 20:08:29.158387 31390 net.cpp:408] accuracy <- ip3_relu3_0_split_0
I0428 20:08:29.158392 31390 net.cpp:408] accuracy <- label_mnist_1_split_0
I0428 20:08:29.158398 31390 net.cpp:382] accuracy -> accuracy
…
