…
I0428 20:21:55.956647  1850 net.cpp:296] The NetState phase (0) differed from the phase (1) specified by a rule in layer mnist
I0428 20:21:55.956666  1850 net.cpp:296] The NetState phase (0) differed from the phase (1) specified by a rule in layer accuracy
I0428 20:21:55.956771  1850 net.cpp:53] Initializing net from parameters: 
name: "LeNet"
state {
  phase: TRAIN
  level: 0
  stage: ""
}
layer {
  name: "mnist"
  type: "Data"
  top: "data"
  top: "label"
  include {
    phase: TRAIN
  }
  transform_param {
    scale: 0.00390625
  }
  data_param {
    source: "examples/mnist/mnist_train_lmdb"
    batch_size: 64
    backend: LMDB
  }
}
layer {
  name: "conv0"
  type: "Convolution"
  bottom: "data"
  top: "conv0"
  param {
    lr_mult: 1
  }
  param {
    lr_mult: 2
  }
  convolution_param {
    num_output: 50
    kernel_size: 5
    stride: 1
    weight_filler {
      type: "xavier"
    }
    bias_filler {
      type: "constant"
    }
  }
}
layer {
  name: "pool0"
  type: "Pooling"
  bottom: "conv0"
  top: "pool0"
  pooling_param {
    pool: MAX
    kernel_size: 2
    stride: 2
  }
}
layer {
  name: "conv1"
  type: "Convolution"
  bottom: "pool0"
  top: "conv1"
  param {
    lr_mult: 1
  }
  param {
    lr_mult: 2
  }
  convolution_param {
    num_output: 50
    kernel_size: 5
    stride: 1
    weight_filler {
      type: "xavier"
    }
    bias_filler {
      type: "constant"
    }
  }
}
layer {
  name: "pool1"
  type: "Pooling"
  bottom: "conv1"
  top: "pool1"
  pooling_param {
    pool: MAX
    kernel_size: 2
    stride: 2
  }
}
layer {
  name: "ip1"
  type: "InnerProduct"
  bottom: "pool1"
  top: "ip1"
  param {
    lr_mult: 1
  }
  param {
    lr_mult: 2
  }
  inner_product_param {
    num_output: 25
    weight_filler {
      type: "xavier"
    }
    bias_filler {
      type: "constant"
    }
  }
}
layer {
  name: "relu1"
  type: "ReLU"
  bottom: "ip1"
  top: "ip1"
}
layer {
  name: "ip2"
  type: "InnerProduct"
  bottom: "ip1"
  top: "ip2"
  param {
    lr_mult: 1
  }
  param {
    lr_mult: 2
  }
  inner_product_param {
    num_output: 50
    weight_filler {
      type: "xavier"
    }
    bias_filler {
      type: "constant"
    }
  }
}
layer {
  name: "relu2"
  type: "ReLU"
  bottom: "ip2"
  top: "ip2"
}
layer {
  name: "ip3"
  type: "InnerProduct"
  bottom: "ip2"
  top: "ip3"
  param {
    lr_mult: 1
  }
  param {
    lr_mult: 2
  }
  inner_product_param {
    num_output: 10
    weight_filler {
      type: "xavier"
    }
    bias_filler {
      type: "constant"
    }
  }
}
layer {
  name: "relu3"
  type: "ReLU"
  bottom: "ip3"
  top: "ip3"
}
layer {
  name: "loss"
  type: "SoftmaxWithLoss"
  bottom: "ip3"
  bottom: "label"
  top: "loss"
}
I0428 20:21:55.956861  1850 layer_factory.hpp:77] Creating layer mnist
I0428 20:21:55.956964  1850 db_lmdb.cpp:35] Opened lmdb examples/mnist/mnist_train_lmdb
I0428 20:21:55.956987  1850 net.cpp:86] Creating Layer mnist
I0428 20:21:55.956995  1850 net.cpp:382] mnist -> data
I0428 20:21:55.957017  1850 net.cpp:382] mnist -> label
I0428 20:21:55.958123  1850 data_layer.cpp:45] output data size: 64,1,28,28
I0428 20:21:55.960804  1850 net.cpp:124] Setting up mnist
I0428 20:21:55.960837  1850 net.cpp:131] Top shape: 64 1 28 28 (50176)
I0428 20:21:55.960844  1850 net.cpp:131] Top shape: 64 (64)
I0428 20:21:55.960846  1850 net.cpp:139] Memory required for data: 200960
I0428 20:21:55.960863  1850 layer_factory.hpp:77] Creating layer conv0
I0428 20:21:55.960881  1850 net.cpp:86] Creating Layer conv0
I0428 20:21:55.960901  1850 net.cpp:408] conv0 <- data
I0428 20:21:55.960914  1850 net.cpp:382] conv0 -> conv0
I0428 20:21:56.244426  1850 net.cpp:124] Setting up conv0
I0428 20:21:56.244453  1850 net.cpp:131] Top shape: 64 50 24 24 (1843200)
I0428 20:21:56.244457  1850 net.cpp:139] Memory required for data: 7573760
I0428 20:21:56.244472  1850 layer_factory.hpp:77] Creating layer pool0
I0428 20:21:56.244488  1850 net.cpp:86] Creating Layer pool0
I0428 20:21:56.244491  1850 net.cpp:408] pool0 <- conv0
I0428 20:21:56.244498  1850 net.cpp:382] pool0 -> pool0
I0428 20:21:56.244544  1850 net.cpp:124] Setting up pool0
I0428 20:21:56.244550  1850 net.cpp:131] Top shape: 64 50 12 12 (460800)
I0428 20:21:56.244554  1850 net.cpp:139] Memory required for data: 9416960
I0428 20:21:56.244556  1850 layer_factory.hpp:77] Creating layer conv1
I0428 20:21:56.244567  1850 net.cpp:86] Creating Layer conv1
I0428 20:21:56.244573  1850 net.cpp:408] conv1 <- pool0
I0428 20:21:56.244578  1850 net.cpp:382] conv1 -> conv1
I0428 20:21:56.246759  1850 net.cpp:124] Setting up conv1
I0428 20:21:56.246773  1850 net.cpp:131] Top shape: 64 50 8 8 (204800)
I0428 20:21:56.246778  1850 net.cpp:139] Memory required for data: 10236160
I0428 20:21:56.246785  1850 layer_factory.hpp:77] Creating layer pool1
I0428 20:21:56.246793  1850 net.cpp:86] Creating Layer pool1
I0428 20:21:56.246795  1850 net.cpp:408] pool1 <- conv1
I0428 20:21:56.246801  1850 net.cpp:382] pool1 -> pool1
I0428 20:21:56.246836  1850 net.cpp:124] Setting up pool1
I0428 20:21:56.246841  1850 net.cpp:131] Top shape: 64 50 4 4 (51200)
I0428 20:21:56.246845  1850 net.cpp:139] Memory required for data: 10440960
I0428 20:21:56.246847  1850 layer_factory.hpp:77] Creating layer ip1
I0428 20:21:56.246855  1850 net.cpp:86] Creating Layer ip1
I0428 20:21:56.246858  1850 net.cpp:408] ip1 <- pool1
I0428 20:21:56.246865  1850 net.cpp:382] ip1 -> ip1
I0428 20:21:56.247067  1850 net.cpp:124] Setting up ip1
I0428 20:21:56.247076  1850 net.cpp:131] Top shape: 64 25 (1600)
I0428 20:21:56.247078  1850 net.cpp:139] Memory required for data: 10447360
I0428 20:21:56.247086  1850 layer_factory.hpp:77] Creating layer relu1
I0428 20:21:56.247092  1850 net.cpp:86] Creating Layer relu1
I0428 20:21:56.247094  1850 net.cpp:408] relu1 <- ip1
I0428 20:21:56.247098  1850 net.cpp:369] relu1 -> ip1 (in-place)
I0428 20:21:56.247262  1850 net.cpp:124] Setting up relu1
I0428 20:21:56.247270  1850 net.cpp:131] Top shape: 64 25 (1600)
I0428 20:21:56.247273  1850 net.cpp:139] Memory required for data: 10453760
I0428 20:21:56.247277  1850 layer_factory.hpp:77] Creating layer ip2
I0428 20:21:56.247283  1850 net.cpp:86] Creating Layer ip2
I0428 20:21:56.247287  1850 net.cpp:408] ip2 <- ip1
I0428 20:21:56.247292  1850 net.cpp:382] ip2 -> ip2
I0428 20:21:56.247395  1850 net.cpp:124] Setting up ip2
I0428 20:21:56.247401  1850 net.cpp:131] Top shape: 64 50 (3200)
I0428 20:21:56.247404  1850 net.cpp:139] Memory required for data: 10466560
I0428 20:21:56.247409  1850 layer_factory.hpp:77] Creating layer relu2
I0428 20:21:56.247416  1850 net.cpp:86] Creating Layer relu2
I0428 20:21:56.247417  1850 net.cpp:408] relu2 <- ip2
I0428 20:21:56.247421  1850 net.cpp:369] relu2 -> ip2 (in-place)
I0428 20:21:56.248116  1850 net.cpp:124] Setting up relu2
I0428 20:21:56.248126  1850 net.cpp:131] Top shape: 64 50 (3200)
I0428 20:21:56.248131  1850 net.cpp:139] Memory required for data: 10479360
I0428 20:21:56.248133  1850 layer_factory.hpp:77] Creating layer ip3
I0428 20:21:56.248142  1850 net.cpp:86] Creating Layer ip3
I0428 20:21:56.248144  1850 net.cpp:408] ip3 <- ip2
I0428 20:21:56.248149  1850 net.cpp:382] ip3 -> ip3
I0428 20:21:56.248250  1850 net.cpp:124] Setting up ip3
I0428 20:21:56.248257  1850 net.cpp:131] Top shape: 64 10 (640)
I0428 20:21:56.248260  1850 net.cpp:139] Memory required for data: 10481920
I0428 20:21:56.248267  1850 layer_factory.hpp:77] Creating layer relu3
I0428 20:21:56.248271  1850 net.cpp:86] Creating Layer relu3
I0428 20:21:56.248275  1850 net.cpp:408] relu3 <- ip3
I0428 20:21:56.248280  1850 net.cpp:369] relu3 -> ip3 (in-place)
I0428 20:21:56.248466  1850 net.cpp:124] Setting up relu3
I0428 20:21:56.248474  1850 net.cpp:131] Top shape: 64 10 (640)
I0428 20:21:56.248477  1850 net.cpp:139] Memory required for data: 10484480
I0428 20:21:56.248481  1850 layer_factory.hpp:77] Creating layer loss
I0428 20:21:56.248487  1850 net.cpp:86] Creating Layer loss
I0428 20:21:56.248491  1850 net.cpp:408] loss <- ip3
I0428 20:21:56.248495  1850 net.cpp:408] loss <- label
I0428 20:21:56.248500  1850 net.cpp:382] loss -> loss
I0428 20:21:56.248517  1850 layer_factory.hpp:77] Creating layer loss
…
I0428 20:21:56.249265  1850 solver.cpp:173] Creating test net (#0) specified by net file: ECE595/mnist/train_test/var_everything2/lenet_train_test1394.prototxt
I0428 20:21:56.249291  1850 net.cpp:296] The NetState phase (1) differed from the phase (0) specified by a rule in layer mnist
I0428 20:21:56.249380  1850 net.cpp:53] Initializing net from parameters: 
name: "LeNet"
state {
  phase: TEST
}
layer {
  name: "mnist"
  type: "Data"
  top: "data"
  top: "label"
  include {
    phase: TEST
  }
  transform_param {
    scale: 0.00390625
  }
  data_param {
    source: "examples/mnist/mnist_test_lmdb"
    batch_size: 100
    backend: LMDB
  }
}
layer {
  name: "conv0"
  type: "Convolution"
  bottom: "data"
  top: "conv0"
  param {
    lr_mult: 1
  }
  param {
    lr_mult: 2
  }
  convolution_param {
    num_output: 50
    kernel_size: 5
    stride: 1
    weight_filler {
      type: "xavier"
    }
    bias_filler {
      type: "constant"
    }
  }
}
layer {
  name: "pool0"
  type: "Pooling"
  bottom: "conv0"
  top: "pool0"
  pooling_param {
    pool: MAX
    kernel_size: 2
    stride: 2
  }
}
layer {
  name: "conv1"
  type: "Convolution"
  bottom: "pool0"
  top: "conv1"
  param {
    lr_mult: 1
  }
  param {
    lr_mult: 2
  }
  convolution_param {
    num_output: 50
    kernel_size: 5
    stride: 1
    weight_filler {
      type: "xavier"
    }
    bias_filler {
      type: "constant"
    }
  }
}
layer {
  name: "pool1"
  type: "Pooling"
  bottom: "conv1"
  top: "pool1"
  pooling_param {
    pool: MAX
    kernel_size: 2
    stride: 2
  }
}
layer {
  name: "ip1"
  type: "InnerProduct"
  bottom: "pool1"
  top: "ip1"
  param {
    lr_mult: 1
  }
  param {
    lr_mult: 2
  }
  inner_product_param {
    num_output: 25
    weight_filler {
      type: "xavier"
    }
    bias_filler {
      type: "constant"
    }
  }
}
layer {
  name: "relu1"
  type: "ReLU"
  bottom: "ip1"
  top: "ip1"
}
layer {
  name: "ip2"
  type: "InnerProduct"
  bottom: "ip1"
  top: "ip2"
  param {
    lr_mult: 1
  }
  param {
    lr_mult: 2
  }
  inner_product_param {
    num_output: 50
    weight_filler {
      type: "xavier"
    }
    bias_filler {
      type: "constant"
    }
  }
}
layer {
  name: "relu2"
  type: "ReLU"
  bottom: "ip2"
  top: "ip2"
}
layer {
  name: "ip3"
  type: "InnerProduct"
  bottom: "ip2"
  top: "ip3"
  param {
    lr_mult: 1
  }
  param {
    lr_mult: 2
  }
  inner_product_param {
    num_output: 10
    weight_filler {
      type: "xavier"
    }
    bias_filler {
      type: "constant"
    }
  }
}
layer {
  name: "relu3"
  type: "ReLU"
  bottom: "ip3"
  top: "ip3"
}
layer {
  name: "accuracy"
  type: "Accuracy"
  bottom: "ip3"
  bottom: "label"
  top: "accuracy"
  include {
    phase: TEST
  }
}
layer {
  name: "loss"
  type: "SoftmaxWithLoss"
  bottom: "ip3"
  bottom: "label"
  top: "loss"
}
I0428 20:21:56.249461  1850 layer_factory.hpp:77] Creating layer mnist
I0428 20:21:56.249505  1850 db_lmdb.cpp:35] Opened lmdb examples/mnist/mnist_test_lmdb
I0428 20:21:56.249516  1850 net.cpp:86] Creating Layer mnist
I0428 20:21:56.249521  1850 net.cpp:382] mnist -> data
I0428 20:21:56.249529  1850 net.cpp:382] mnist -> label
I0428 20:21:56.249611  1850 data_layer.cpp:45] output data size: 100,1,28,28
I0428 20:21:56.251428  1850 net.cpp:124] Setting up mnist
I0428 20:21:56.251441  1850 net.cpp:131] Top shape: 100 1 28 28 (78400)
I0428 20:21:56.251446  1850 net.cpp:131] Top shape: 100 (100)
I0428 20:21:56.251448  1850 net.cpp:139] Memory required for data: 314000
I0428 20:21:56.251451  1850 layer_factory.hpp:77] Creating layer label_mnist_1_split
I0428 20:21:56.251477  1850 net.cpp:86] Creating Layer label_mnist_1_split
I0428 20:21:56.251480  1850 net.cpp:408] label_mnist_1_split <- label
I0428 20:21:56.251487  1850 net.cpp:382] label_mnist_1_split -> label_mnist_1_split_0
I0428 20:21:56.251492  1850 net.cpp:382] label_mnist_1_split -> label_mnist_1_split_1
I0428 20:21:56.251536  1850 net.cpp:124] Setting up label_mnist_1_split
I0428 20:21:56.251543  1850 net.cpp:131] Top shape: 100 (100)
I0428 20:21:56.251546  1850 net.cpp:131] Top shape: 100 (100)
I0428 20:21:56.251549  1850 net.cpp:139] Memory required for data: 314800
I0428 20:21:56.251552  1850 layer_factory.hpp:77] Creating layer conv0
I0428 20:21:56.251561  1850 net.cpp:86] Creating Layer conv0
I0428 20:21:56.251564  1850 net.cpp:408] conv0 <- data
I0428 20:21:56.251569  1850 net.cpp:382] conv0 -> conv0
I0428 20:21:56.253514  1850 net.cpp:124] Setting up conv0
I0428 20:21:56.253527  1850 net.cpp:131] Top shape: 100 50 24 24 (2880000)
I0428 20:21:56.253530  1850 net.cpp:139] Memory required for data: 11834800
I0428 20:21:56.253540  1850 layer_factory.hpp:77] Creating layer pool0
I0428 20:21:56.253546  1850 net.cpp:86] Creating Layer pool0
I0428 20:21:56.253549  1850 net.cpp:408] pool0 <- conv0
I0428 20:21:56.253554  1850 net.cpp:382] pool0 -> pool0
I0428 20:21:56.253589  1850 net.cpp:124] Setting up pool0
I0428 20:21:56.253595  1850 net.cpp:131] Top shape: 100 50 12 12 (720000)
I0428 20:21:56.253597  1850 net.cpp:139] Memory required for data: 14714800
I0428 20:21:56.253600  1850 layer_factory.hpp:77] Creating layer conv1
I0428 20:21:56.253608  1850 net.cpp:86] Creating Layer conv1
I0428 20:21:56.253612  1850 net.cpp:408] conv1 <- pool0
I0428 20:21:56.253617  1850 net.cpp:382] conv1 -> conv1
I0428 20:21:56.255455  1850 net.cpp:124] Setting up conv1
I0428 20:21:56.255468  1850 net.cpp:131] Top shape: 100 50 8 8 (320000)
I0428 20:21:56.255471  1850 net.cpp:139] Memory required for data: 15994800
I0428 20:21:56.255481  1850 layer_factory.hpp:77] Creating layer pool1
I0428 20:21:56.255486  1850 net.cpp:86] Creating Layer pool1
I0428 20:21:56.255489  1850 net.cpp:408] pool1 <- conv1
I0428 20:21:56.255508  1850 net.cpp:382] pool1 -> pool1
I0428 20:21:56.255548  1850 net.cpp:124] Setting up pool1
I0428 20:21:56.255553  1850 net.cpp:131] Top shape: 100 50 4 4 (80000)
I0428 20:21:56.255555  1850 net.cpp:139] Memory required for data: 16314800
I0428 20:21:56.255564  1850 layer_factory.hpp:77] Creating layer ip1
I0428 20:21:56.255571  1850 net.cpp:86] Creating Layer ip1
I0428 20:21:56.255573  1850 net.cpp:408] ip1 <- pool1
I0428 20:21:56.255584  1850 net.cpp:382] ip1 -> ip1
I0428 20:21:56.255789  1850 net.cpp:124] Setting up ip1
I0428 20:21:56.255796  1850 net.cpp:131] Top shape: 100 25 (2500)
I0428 20:21:56.255810  1850 net.cpp:139] Memory required for data: 16324800
I0428 20:21:56.255817  1850 layer_factory.hpp:77] Creating layer relu1
I0428 20:21:56.255821  1850 net.cpp:86] Creating Layer relu1
I0428 20:21:56.255825  1850 net.cpp:408] relu1 <- ip1
I0428 20:21:56.255836  1850 net.cpp:369] relu1 -> ip1 (in-place)
I0428 20:21:56.255995  1850 net.cpp:124] Setting up relu1
I0428 20:21:56.256002  1850 net.cpp:131] Top shape: 100 25 (2500)
I0428 20:21:56.256011  1850 net.cpp:139] Memory required for data: 16334800
I0428 20:21:56.256014  1850 layer_factory.hpp:77] Creating layer ip2
I0428 20:21:56.256021  1850 net.cpp:86] Creating Layer ip2
I0428 20:21:56.256026  1850 net.cpp:408] ip2 <- ip1
I0428 20:21:56.256029  1850 net.cpp:382] ip2 -> ip2
I0428 20:21:56.256155  1850 net.cpp:124] Setting up ip2
I0428 20:21:56.256160  1850 net.cpp:131] Top shape: 100 50 (5000)
I0428 20:21:56.256163  1850 net.cpp:139] Memory required for data: 16354800
I0428 20:21:56.256168  1850 layer_factory.hpp:77] Creating layer relu2
I0428 20:21:56.256175  1850 net.cpp:86] Creating Layer relu2
I0428 20:21:56.256177  1850 net.cpp:408] relu2 <- ip2
I0428 20:21:56.256181  1850 net.cpp:369] relu2 -> ip2 (in-place)
I0428 20:21:56.256407  1850 net.cpp:124] Setting up relu2
I0428 20:21:56.256417  1850 net.cpp:131] Top shape: 100 50 (5000)
I0428 20:21:56.256419  1850 net.cpp:139] Memory required for data: 16374800
I0428 20:21:56.256422  1850 layer_factory.hpp:77] Creating layer ip3
I0428 20:21:56.256430  1850 net.cpp:86] Creating Layer ip3
I0428 20:21:56.256433  1850 net.cpp:408] ip3 <- ip2
I0428 20:21:56.256438  1850 net.cpp:382] ip3 -> ip3
I0428 20:21:56.256580  1850 net.cpp:124] Setting up ip3
I0428 20:21:56.256587  1850 net.cpp:131] Top shape: 100 10 (1000)
I0428 20:21:56.256590  1850 net.cpp:139] Memory required for data: 16378800
I0428 20:21:56.256597  1850 layer_factory.hpp:77] Creating layer relu3
I0428 20:21:56.256603  1850 net.cpp:86] Creating Layer relu3
I0428 20:21:56.256606  1850 net.cpp:408] relu3 <- ip3
I0428 20:21:56.256610  1850 net.cpp:369] relu3 -> ip3 (in-place)
I0428 20:21:56.257542  1850 net.cpp:124] Setting up relu3
I0428 20:21:56.257566  1850 net.cpp:131] Top shape: 100 10 (1000)
I0428 20:21:56.257570  1850 net.cpp:139] Memory required for data: 16382800
I0428 20:21:56.257588  1850 layer_factory.hpp:77] Creating layer ip3_relu3_0_split
I0428 20:21:56.257593  1850 net.cpp:86] Creating Layer ip3_relu3_0_split
I0428 20:21:56.257597  1850 net.cpp:408] ip3_relu3_0_split <- ip3
I0428 20:21:56.257601  1850 net.cpp:382] ip3_relu3_0_split -> ip3_relu3_0_split_0
I0428 20:21:56.257607  1850 net.cpp:382] ip3_relu3_0_split -> ip3_relu3_0_split_1
I0428 20:21:56.257664  1850 net.cpp:124] Setting up ip3_relu3_0_split
I0428 20:21:56.257669  1850 net.cpp:131] Top shape: 100 10 (1000)
I0428 20:21:56.257678  1850 net.cpp:131] Top shape: 100 10 (1000)
I0428 20:21:56.257681  1850 net.cpp:139] Memory required for data: 16390800
I0428 20:21:56.257684  1850 layer_factory.hpp:77] Creating layer accuracy
I0428 20:21:56.257690  1850 net.cpp:86] Creating Layer accuracy
I0428 20:21:56.257694  1850 net.cpp:408] accuracy <- ip3_relu3_0_split_0
I0428 20:21:56.257697  1850 net.cpp:408] accuracy <- label_mnist_1_split_0
I0428 20:21:56.257701  1850 net.cpp:382] accuracy -> accuracy
…
