…
I0428 19:40:10.127971 24479 net.cpp:296] The NetState phase (0) differed from the phase (1) specified by a rule in layer mnist
I0428 19:40:10.127990 24479 net.cpp:296] The NetState phase (0) differed from the phase (1) specified by a rule in layer accuracy
I0428 19:40:10.128089 24479 net.cpp:53] Initializing net from parameters: 
name: "LeNet"
state {
  phase: TRAIN
  level: 0
  stage: ""
}
layer {
  name: "mnist"
  type: "Data"
  top: "data"
  top: "label"
  include {
    phase: TRAIN
  }
  transform_param {
    scale: 0.00390625
  }
  data_param {
    source: "examples/mnist/mnist_train_lmdb"
    batch_size: 64
    backend: LMDB
  }
}
layer {
  name: "conv0"
  type: "Convolution"
  bottom: "data"
  top: "conv0"
  param {
    lr_mult: 1
  }
  param {
    lr_mult: 2
  }
  convolution_param {
    num_output: 2
    kernel_size: 5
    stride: 1
    weight_filler {
      type: "xavier"
    }
    bias_filler {
      type: "constant"
    }
  }
}
layer {
  name: "pool0"
  type: "Pooling"
  bottom: "conv0"
  top: "pool0"
  pooling_param {
    pool: MAX
    kernel_size: 2
    stride: 2
  }
}
layer {
  name: "conv1"
  type: "Convolution"
  bottom: "pool0"
  top: "conv1"
  param {
    lr_mult: 1
  }
  param {
    lr_mult: 2
  }
  convolution_param {
    num_output: 5
    kernel_size: 5
    stride: 1
    weight_filler {
      type: "xavier"
    }
    bias_filler {
      type: "constant"
    }
  }
}
layer {
  name: "pool1"
  type: "Pooling"
  bottom: "conv1"
  top: "pool1"
  pooling_param {
    pool: MAX
    kernel_size: 2
    stride: 2
  }
}
layer {
  name: "ip1"
  type: "InnerProduct"
  bottom: "pool1"
  top: "ip1"
  param {
    lr_mult: 1
  }
  param {
    lr_mult: 2
  }
  inner_product_param {
    num_output: 10
    weight_filler {
      type: "xavier"
    }
    bias_filler {
      type: "constant"
    }
  }
}
layer {
  name: "relu1"
  type: "ReLU"
  bottom: "ip1"
  top: "ip1"
}
layer {
  name: "ip2"
  type: "InnerProduct"
  bottom: "ip1"
  top: "ip2"
  param {
    lr_mult: 1
  }
  param {
    lr_mult: 2
  }
  inner_product_param {
    num_output: 10
    weight_filler {
      type: "xavier"
    }
    bias_filler {
      type: "constant"
    }
  }
}
layer {
  name: "relu2"
  type: "ReLU"
  bottom: "ip2"
  top: "ip2"
}
layer {
  name: "ip3"
  type: "InnerProduct"
  bottom: "ip2"
  top: "ip3"
  param {
    lr_mult: 1
  }
  param {
    lr_mult: 2
  }
  inner_product_param {
    num_output: 10
    weight_filler {
      type: "xavier"
    }
    bias_filler {
      type: "constant"
    }
  }
}
layer {
  name: "relu3"
  type: "ReLU"
  bottom: "ip3"
  top: "ip3"
}
layer {
  name: "loss"
  type: "SoftmaxWithLoss"
  bottom: "ip3"
  bottom: "label"
  top: "loss"
}
I0428 19:40:10.128170 24479 layer_factory.hpp:77] Creating layer mnist
I0428 19:40:10.128271 24479 db_lmdb.cpp:35] Opened lmdb examples/mnist/mnist_train_lmdb
I0428 19:40:10.128296 24479 net.cpp:86] Creating Layer mnist
I0428 19:40:10.128305 24479 net.cpp:382] mnist -> data
I0428 19:40:10.128329 24479 net.cpp:382] mnist -> label
I0428 19:40:10.129468 24479 data_layer.cpp:45] output data size: 64,1,28,28
I0428 19:40:10.131674 24479 net.cpp:124] Setting up mnist
I0428 19:40:10.131705 24479 net.cpp:131] Top shape: 64 1 28 28 (50176)
I0428 19:40:10.131713 24479 net.cpp:131] Top shape: 64 (64)
I0428 19:40:10.131734 24479 net.cpp:139] Memory required for data: 200960
I0428 19:40:10.131742 24479 layer_factory.hpp:77] Creating layer conv0
I0428 19:40:10.131762 24479 net.cpp:86] Creating Layer conv0
I0428 19:40:10.131798 24479 net.cpp:408] conv0 <- data
I0428 19:40:10.131813 24479 net.cpp:382] conv0 -> conv0
I0428 19:40:10.366027 24479 net.cpp:124] Setting up conv0
I0428 19:40:10.366055 24479 net.cpp:131] Top shape: 64 2 24 24 (73728)
I0428 19:40:10.366060 24479 net.cpp:139] Memory required for data: 495872
I0428 19:40:10.366111 24479 layer_factory.hpp:77] Creating layer pool0
I0428 19:40:10.366127 24479 net.cpp:86] Creating Layer pool0
I0428 19:40:10.366140 24479 net.cpp:408] pool0 <- conv0
I0428 19:40:10.366149 24479 net.cpp:382] pool0 -> pool0
I0428 19:40:10.366206 24479 net.cpp:124] Setting up pool0
I0428 19:40:10.366215 24479 net.cpp:131] Top shape: 64 2 12 12 (18432)
I0428 19:40:10.366219 24479 net.cpp:139] Memory required for data: 569600
I0428 19:40:10.366225 24479 layer_factory.hpp:77] Creating layer conv1
I0428 19:40:10.366240 24479 net.cpp:86] Creating Layer conv1
I0428 19:40:10.366245 24479 net.cpp:408] conv1 <- pool0
I0428 19:40:10.366253 24479 net.cpp:382] conv1 -> conv1
I0428 19:40:10.368130 24479 net.cpp:124] Setting up conv1
I0428 19:40:10.368149 24479 net.cpp:131] Top shape: 64 5 8 8 (20480)
I0428 19:40:10.368155 24479 net.cpp:139] Memory required for data: 651520
I0428 19:40:10.368168 24479 layer_factory.hpp:77] Creating layer pool1
I0428 19:40:10.368181 24479 net.cpp:86] Creating Layer pool1
I0428 19:40:10.368196 24479 net.cpp:408] pool1 <- conv1
I0428 19:40:10.368204 24479 net.cpp:382] pool1 -> pool1
I0428 19:40:10.368250 24479 net.cpp:124] Setting up pool1
I0428 19:40:10.368260 24479 net.cpp:131] Top shape: 64 5 4 4 (5120)
I0428 19:40:10.368266 24479 net.cpp:139] Memory required for data: 672000
I0428 19:40:10.368271 24479 layer_factory.hpp:77] Creating layer ip1
I0428 19:40:10.368288 24479 net.cpp:86] Creating Layer ip1
I0428 19:40:10.368296 24479 net.cpp:408] ip1 <- pool1
I0428 19:40:10.368319 24479 net.cpp:382] ip1 -> ip1
I0428 19:40:10.368435 24479 net.cpp:124] Setting up ip1
I0428 19:40:10.368444 24479 net.cpp:131] Top shape: 64 10 (640)
I0428 19:40:10.368449 24479 net.cpp:139] Memory required for data: 674560
I0428 19:40:10.368475 24479 layer_factory.hpp:77] Creating layer relu1
I0428 19:40:10.368484 24479 net.cpp:86] Creating Layer relu1
I0428 19:40:10.368490 24479 net.cpp:408] relu1 <- ip1
I0428 19:40:10.368497 24479 net.cpp:369] relu1 -> ip1 (in-place)
I0428 19:40:10.368654 24479 net.cpp:124] Setting up relu1
I0428 19:40:10.368664 24479 net.cpp:131] Top shape: 64 10 (640)
I0428 19:40:10.368669 24479 net.cpp:139] Memory required for data: 677120
I0428 19:40:10.368674 24479 layer_factory.hpp:77] Creating layer ip2
I0428 19:40:10.368698 24479 net.cpp:86] Creating Layer ip2
I0428 19:40:10.368705 24479 net.cpp:408] ip2 <- ip1
I0428 19:40:10.368712 24479 net.cpp:382] ip2 -> ip2
I0428 19:40:10.368827 24479 net.cpp:124] Setting up ip2
I0428 19:40:10.368849 24479 net.cpp:131] Top shape: 64 10 (640)
I0428 19:40:10.368854 24479 net.cpp:139] Memory required for data: 679680
I0428 19:40:10.368865 24479 layer_factory.hpp:77] Creating layer relu2
I0428 19:40:10.368875 24479 net.cpp:86] Creating Layer relu2
I0428 19:40:10.368881 24479 net.cpp:408] relu2 <- ip2
I0428 19:40:10.368890 24479 net.cpp:369] relu2 -> ip2 (in-place)
I0428 19:40:10.369685 24479 net.cpp:124] Setting up relu2
I0428 19:40:10.369700 24479 net.cpp:131] Top shape: 64 10 (640)
I0428 19:40:10.369705 24479 net.cpp:139] Memory required for data: 682240
I0428 19:40:10.369711 24479 layer_factory.hpp:77] Creating layer ip3
I0428 19:40:10.369722 24479 net.cpp:86] Creating Layer ip3
I0428 19:40:10.369729 24479 net.cpp:408] ip3 <- ip2
I0428 19:40:10.369737 24479 net.cpp:382] ip3 -> ip3
I0428 19:40:10.369844 24479 net.cpp:124] Setting up ip3
I0428 19:40:10.369854 24479 net.cpp:131] Top shape: 64 10 (640)
I0428 19:40:10.369859 24479 net.cpp:139] Memory required for data: 684800
I0428 19:40:10.369874 24479 layer_factory.hpp:77] Creating layer relu3
I0428 19:40:10.369882 24479 net.cpp:86] Creating Layer relu3
I0428 19:40:10.369889 24479 net.cpp:408] relu3 <- ip3
I0428 19:40:10.369897 24479 net.cpp:369] relu3 -> ip3 (in-place)
I0428 19:40:10.370088 24479 net.cpp:124] Setting up relu3
I0428 19:40:10.370098 24479 net.cpp:131] Top shape: 64 10 (640)
I0428 19:40:10.370103 24479 net.cpp:139] Memory required for data: 687360
I0428 19:40:10.370108 24479 layer_factory.hpp:77] Creating layer loss
I0428 19:40:10.370132 24479 net.cpp:86] Creating Layer loss
I0428 19:40:10.370137 24479 net.cpp:408] loss <- ip3
I0428 19:40:10.370143 24479 net.cpp:408] loss <- label
I0428 19:40:10.370152 24479 net.cpp:382] loss -> loss
I0428 19:40:10.370174 24479 layer_factory.hpp:77] Creating layer loss
…
I0428 19:40:10.370918 24479 solver.cpp:173] Creating test net (#0) specified by net file: ECE595/mnist/train_test/var_everything2/lenet_train_test326.prototxt
I0428 19:40:10.370962 24479 net.cpp:296] The NetState phase (1) differed from the phase (0) specified by a rule in layer mnist
I0428 19:40:10.371057 24479 net.cpp:53] Initializing net from parameters: 
name: "LeNet"
state {
  phase: TEST
}
layer {
  name: "mnist"
  type: "Data"
  top: "data"
  top: "label"
  include {
    phase: TEST
  }
  transform_param {
    scale: 0.00390625
  }
  data_param {
    source: "examples/mnist/mnist_test_lmdb"
    batch_size: 100
    backend: LMDB
  }
}
layer {
  name: "conv0"
  type: "Convolution"
  bottom: "data"
  top: "conv0"
  param {
    lr_mult: 1
  }
  param {
    lr_mult: 2
  }
  convolution_param {
    num_output: 2
    kernel_size: 5
    stride: 1
    weight_filler {
      type: "xavier"
    }
    bias_filler {
      type: "constant"
    }
  }
}
layer {
  name: "pool0"
  type: "Pooling"
  bottom: "conv0"
  top: "pool0"
  pooling_param {
    pool: MAX
    kernel_size: 2
    stride: 2
  }
}
layer {
  name: "conv1"
  type: "Convolution"
  bottom: "pool0"
  top: "conv1"
  param {
    lr_mult: 1
  }
  param {
    lr_mult: 2
  }
  convolution_param {
    num_output: 5
    kernel_size: 5
    stride: 1
    weight_filler {
      type: "xavier"
    }
    bias_filler {
      type: "constant"
    }
  }
}
layer {
  name: "pool1"
  type: "Pooling"
  bottom: "conv1"
  top: "pool1"
  pooling_param {
    pool: MAX
    kernel_size: 2
    stride: 2
  }
}
layer {
  name: "ip1"
  type: "InnerProduct"
  bottom: "pool1"
  top: "ip1"
  param {
    lr_mult: 1
  }
  param {
    lr_mult: 2
  }
  inner_product_param {
    num_output: 10
    weight_filler {
      type: "xavier"
    }
    bias_filler {
      type: "constant"
    }
  }
}
layer {
  name: "relu1"
  type: "ReLU"
  bottom: "ip1"
  top: "ip1"
}
layer {
  name: "ip2"
  type: "InnerProduct"
  bottom: "ip1"
  top: "ip2"
  param {
    lr_mult: 1
  }
  param {
    lr_mult: 2
  }
  inner_product_param {
    num_output: 10
    weight_filler {
      type: "xavier"
    }
    bias_filler {
      type: "constant"
    }
  }
}
layer {
  name: "relu2"
  type: "ReLU"
  bottom: "ip2"
  top: "ip2"
}
layer {
  name: "ip3"
  type: "InnerProduct"
  bottom: "ip2"
  top: "ip3"
  param {
    lr_mult: 1
  }
  param {
    lr_mult: 2
  }
  inner_product_param {
    num_output: 10
    weight_filler {
      type: "xavier"
    }
    bias_filler {
      type: "constant"
    }
  }
}
layer {
  name: "relu3"
  type: "ReLU"
  bottom: "ip3"
  top: "ip3"
}
layer {
  name: "accuracy"
  type: "Accuracy"
  bottom: "ip3"
  bottom: "label"
  top: "accuracy"
  include {
    phase: TEST
  }
}
layer {
  name: "loss"
  type: "SoftmaxWithLoss"
  bottom: "ip3"
  bottom: "label"
  top: "loss"
}
I0428 19:40:10.371178 24479 layer_factory.hpp:77] Creating layer mnist
I0428 19:40:10.371235 24479 db_lmdb.cpp:35] Opened lmdb examples/mnist/mnist_test_lmdb
I0428 19:40:10.371253 24479 net.cpp:86] Creating Layer mnist
I0428 19:40:10.371259 24479 net.cpp:382] mnist -> data
I0428 19:40:10.371271 24479 net.cpp:382] mnist -> label
I0428 19:40:10.371387 24479 data_layer.cpp:45] output data size: 100,1,28,28
I0428 19:40:10.373556 24479 net.cpp:124] Setting up mnist
I0428 19:40:10.373574 24479 net.cpp:131] Top shape: 100 1 28 28 (78400)
I0428 19:40:10.373582 24479 net.cpp:131] Top shape: 100 (100)
I0428 19:40:10.373589 24479 net.cpp:139] Memory required for data: 314000
I0428 19:40:10.373594 24479 layer_factory.hpp:77] Creating layer label_mnist_1_split
I0428 19:40:10.373610 24479 net.cpp:86] Creating Layer label_mnist_1_split
I0428 19:40:10.373618 24479 net.cpp:408] label_mnist_1_split <- label
I0428 19:40:10.373626 24479 net.cpp:382] label_mnist_1_split -> label_mnist_1_split_0
I0428 19:40:10.373638 24479 net.cpp:382] label_mnist_1_split -> label_mnist_1_split_1
I0428 19:40:10.373720 24479 net.cpp:124] Setting up label_mnist_1_split
I0428 19:40:10.373728 24479 net.cpp:131] Top shape: 100 (100)
I0428 19:40:10.373735 24479 net.cpp:131] Top shape: 100 (100)
I0428 19:40:10.373740 24479 net.cpp:139] Memory required for data: 314800
I0428 19:40:10.373745 24479 layer_factory.hpp:77] Creating layer conv0
I0428 19:40:10.373759 24479 net.cpp:86] Creating Layer conv0
I0428 19:40:10.373764 24479 net.cpp:408] conv0 <- data
I0428 19:40:10.373773 24479 net.cpp:382] conv0 -> conv0
I0428 19:40:10.375299 24479 net.cpp:124] Setting up conv0
I0428 19:40:10.375314 24479 net.cpp:131] Top shape: 100 2 24 24 (115200)
I0428 19:40:10.375320 24479 net.cpp:139] Memory required for data: 775600
I0428 19:40:10.375334 24479 layer_factory.hpp:77] Creating layer pool0
I0428 19:40:10.375342 24479 net.cpp:86] Creating Layer pool0
I0428 19:40:10.375349 24479 net.cpp:408] pool0 <- conv0
I0428 19:40:10.375356 24479 net.cpp:382] pool0 -> pool0
I0428 19:40:10.375396 24479 net.cpp:124] Setting up pool0
I0428 19:40:10.375403 24479 net.cpp:131] Top shape: 100 2 12 12 (28800)
I0428 19:40:10.375408 24479 net.cpp:139] Memory required for data: 890800
I0428 19:40:10.375413 24479 layer_factory.hpp:77] Creating layer conv1
I0428 19:40:10.375425 24479 net.cpp:86] Creating Layer conv1
I0428 19:40:10.375432 24479 net.cpp:408] conv1 <- pool0
I0428 19:40:10.375440 24479 net.cpp:382] conv1 -> conv1
I0428 19:40:10.376986 24479 net.cpp:124] Setting up conv1
I0428 19:40:10.377007 24479 net.cpp:131] Top shape: 100 5 8 8 (32000)
I0428 19:40:10.377013 24479 net.cpp:139] Memory required for data: 1018800
I0428 19:40:10.377028 24479 layer_factory.hpp:77] Creating layer pool1
I0428 19:40:10.377040 24479 net.cpp:86] Creating Layer pool1
I0428 19:40:10.377046 24479 net.cpp:408] pool1 <- conv1
I0428 19:40:10.377055 24479 net.cpp:382] pool1 -> pool1
I0428 19:40:10.377101 24479 net.cpp:124] Setting up pool1
I0428 19:40:10.377111 24479 net.cpp:131] Top shape: 100 5 4 4 (8000)
I0428 19:40:10.377117 24479 net.cpp:139] Memory required for data: 1050800
I0428 19:40:10.377135 24479 layer_factory.hpp:77] Creating layer ip1
I0428 19:40:10.377159 24479 net.cpp:86] Creating Layer ip1
I0428 19:40:10.377164 24479 net.cpp:408] ip1 <- pool1
I0428 19:40:10.377187 24479 net.cpp:382] ip1 -> ip1
I0428 19:40:10.377305 24479 net.cpp:124] Setting up ip1
I0428 19:40:10.377313 24479 net.cpp:131] Top shape: 100 10 (1000)
I0428 19:40:10.377331 24479 net.cpp:139] Memory required for data: 1054800
I0428 19:40:10.377343 24479 layer_factory.hpp:77] Creating layer relu1
I0428 19:40:10.377351 24479 net.cpp:86] Creating Layer relu1
I0428 19:40:10.377357 24479 net.cpp:408] relu1 <- ip1
I0428 19:40:10.377364 24479 net.cpp:369] relu1 -> ip1 (in-place)
I0428 19:40:10.377512 24479 net.cpp:124] Setting up relu1
I0428 19:40:10.377522 24479 net.cpp:131] Top shape: 100 10 (1000)
I0428 19:40:10.377527 24479 net.cpp:139] Memory required for data: 1058800
I0428 19:40:10.377532 24479 layer_factory.hpp:77] Creating layer ip2
I0428 19:40:10.377543 24479 net.cpp:86] Creating Layer ip2
I0428 19:40:10.377548 24479 net.cpp:408] ip2 <- ip1
I0428 19:40:10.377557 24479 net.cpp:382] ip2 -> ip2
I0428 19:40:10.377670 24479 net.cpp:124] Setting up ip2
I0428 19:40:10.377678 24479 net.cpp:131] Top shape: 100 10 (1000)
I0428 19:40:10.377683 24479 net.cpp:139] Memory required for data: 1062800
I0428 19:40:10.377692 24479 layer_factory.hpp:77] Creating layer relu2
I0428 19:40:10.377701 24479 net.cpp:86] Creating Layer relu2
I0428 19:40:10.377706 24479 net.cpp:408] relu2 <- ip2
I0428 19:40:10.377712 24479 net.cpp:369] relu2 -> ip2 (in-place)
I0428 19:40:10.377930 24479 net.cpp:124] Setting up relu2
I0428 19:40:10.377941 24479 net.cpp:131] Top shape: 100 10 (1000)
I0428 19:40:10.377946 24479 net.cpp:139] Memory required for data: 1066800
I0428 19:40:10.377954 24479 layer_factory.hpp:77] Creating layer ip3
I0428 19:40:10.377962 24479 net.cpp:86] Creating Layer ip3
I0428 19:40:10.377969 24479 net.cpp:408] ip3 <- ip2
I0428 19:40:10.377976 24479 net.cpp:382] ip3 -> ip3
I0428 19:40:10.378095 24479 net.cpp:124] Setting up ip3
I0428 19:40:10.378104 24479 net.cpp:131] Top shape: 100 10 (1000)
I0428 19:40:10.378110 24479 net.cpp:139] Memory required for data: 1070800
I0428 19:40:10.378123 24479 layer_factory.hpp:77] Creating layer relu3
I0428 19:40:10.378132 24479 net.cpp:86] Creating Layer relu3
I0428 19:40:10.378139 24479 net.cpp:408] relu3 <- ip3
I0428 19:40:10.378145 24479 net.cpp:369] relu3 -> ip3 (in-place)
I0428 19:40:10.378978 24479 net.cpp:124] Setting up relu3
I0428 19:40:10.378990 24479 net.cpp:131] Top shape: 100 10 (1000)
I0428 19:40:10.378996 24479 net.cpp:139] Memory required for data: 1074800
I0428 19:40:10.379001 24479 layer_factory.hpp:77] Creating layer ip3_relu3_0_split
I0428 19:40:10.379009 24479 net.cpp:86] Creating Layer ip3_relu3_0_split
I0428 19:40:10.379015 24479 net.cpp:408] ip3_relu3_0_split <- ip3
I0428 19:40:10.379024 24479 net.cpp:382] ip3_relu3_0_split -> ip3_relu3_0_split_0
I0428 19:40:10.379034 24479 net.cpp:382] ip3_relu3_0_split -> ip3_relu3_0_split_1
I0428 19:40:10.379082 24479 net.cpp:124] Setting up ip3_relu3_0_split
I0428 19:40:10.379091 24479 net.cpp:131] Top shape: 100 10 (1000)
I0428 19:40:10.379099 24479 net.cpp:131] Top shape: 100 10 (1000)
I0428 19:40:10.379109 24479 net.cpp:139] Memory required for data: 1082800
I0428 19:40:10.379114 24479 layer_factory.hpp:77] Creating layer accuracy
I0428 19:40:10.379123 24479 net.cpp:86] Creating Layer accuracy
I0428 19:40:10.379129 24479 net.cpp:408] accuracy <- ip3_relu3_0_split_0
I0428 19:40:10.379150 24479 net.cpp:408] accuracy <- label_mnist_1_split_0
I0428 19:40:10.379158 24479 net.cpp:382] accuracy -> accuracy
…
