…
I0428 20:05:03.792584 30523 net.cpp:296] The NetState phase (0) differed from the phase (1) specified by a rule in layer mnist
I0428 20:05:03.792606 30523 net.cpp:296] The NetState phase (0) differed from the phase (1) specified by a rule in layer accuracy
I0428 20:05:03.792708 30523 net.cpp:53] Initializing net from parameters: 
name: "LeNet"
state {
  phase: TRAIN
  level: 0
  stage: ""
}
layer {
  name: "mnist"
  type: "Data"
  top: "data"
  top: "label"
  include {
    phase: TRAIN
  }
  transform_param {
    scale: 0.00390625
  }
  data_param {
    source: "examples/mnist/mnist_train_lmdb"
    batch_size: 64
    backend: LMDB
  }
}
layer {
  name: "conv0"
  type: "Convolution"
  bottom: "data"
  top: "conv0"
  param {
    lr_mult: 1
  }
  param {
    lr_mult: 2
  }
  convolution_param {
    num_output: 25
    kernel_size: 5
    stride: 1
    weight_filler {
      type: "xavier"
    }
    bias_filler {
      type: "constant"
    }
  }
}
layer {
  name: "pool0"
  type: "Pooling"
  bottom: "conv0"
  top: "pool0"
  pooling_param {
    pool: MAX
    kernel_size: 2
    stride: 2
  }
}
layer {
  name: "conv1"
  type: "Convolution"
  bottom: "pool0"
  top: "conv1"
  param {
    lr_mult: 1
  }
  param {
    lr_mult: 2
  }
  convolution_param {
    num_output: 2
    kernel_size: 5
    stride: 1
    weight_filler {
      type: "xavier"
    }
    bias_filler {
      type: "constant"
    }
  }
}
layer {
  name: "pool1"
  type: "Pooling"
  bottom: "conv1"
  top: "pool1"
  pooling_param {
    pool: MAX
    kernel_size: 2
    stride: 2
  }
}
layer {
  name: "ip1"
  type: "InnerProduct"
  bottom: "pool1"
  top: "ip1"
  param {
    lr_mult: 1
  }
  param {
    lr_mult: 2
  }
  inner_product_param {
    num_output: 10
    weight_filler {
      type: "xavier"
    }
    bias_filler {
      type: "constant"
    }
  }
}
layer {
  name: "relu1"
  type: "ReLU"
  bottom: "ip1"
  top: "ip1"
}
layer {
  name: "ip2"
  type: "InnerProduct"
  bottom: "ip1"
  top: "ip2"
  param {
    lr_mult: 1
  }
  param {
    lr_mult: 2
  }
  inner_product_param {
    num_output: 10
    weight_filler {
      type: "xavier"
    }
    bias_filler {
      type: "constant"
    }
  }
}
layer {
  name: "relu2"
  type: "ReLU"
  bottom: "ip2"
  top: "ip2"
}
layer {
  name: "ip3"
  type: "InnerProduct"
  bottom: "ip2"
  top: "ip3"
  param {
    lr_mult: 1
  }
  param {
    lr_mult: 2
  }
  inner_product_param {
    num_output: 10
    weight_filler {
      type: "xavier"
    }
    bias_filler {
      type: "constant"
    }
  }
}
layer {
  name: "relu3"
  type: "ReLU"
  bottom: "ip3"
  top: "ip3"
}
layer {
  name: "loss"
  type: "SoftmaxWithLoss"
  bottom: "ip3"
  bottom: "label"
  top: "loss"
}
I0428 20:05:03.792789 30523 layer_factory.hpp:77] Creating layer mnist
I0428 20:05:03.792902 30523 db_lmdb.cpp:35] Opened lmdb examples/mnist/mnist_train_lmdb
I0428 20:05:03.792928 30523 net.cpp:86] Creating Layer mnist
I0428 20:05:03.792937 30523 net.cpp:382] mnist -> data
I0428 20:05:03.792960 30523 net.cpp:382] mnist -> label
I0428 20:05:03.794047 30523 data_layer.cpp:45] output data size: 64,1,28,28
I0428 20:05:03.796499 30523 net.cpp:124] Setting up mnist
I0428 20:05:03.796517 30523 net.cpp:131] Top shape: 64 1 28 28 (50176)
I0428 20:05:03.796524 30523 net.cpp:131] Top shape: 64 (64)
I0428 20:05:03.796526 30523 net.cpp:139] Memory required for data: 200960
I0428 20:05:03.796535 30523 layer_factory.hpp:77] Creating layer conv0
I0428 20:05:03.796563 30523 net.cpp:86] Creating Layer conv0
I0428 20:05:03.796586 30523 net.cpp:408] conv0 <- data
I0428 20:05:03.796598 30523 net.cpp:382] conv0 -> conv0
I0428 20:05:04.072047 30523 net.cpp:124] Setting up conv0
I0428 20:05:04.072074 30523 net.cpp:131] Top shape: 64 25 24 24 (921600)
I0428 20:05:04.072078 30523 net.cpp:139] Memory required for data: 3887360
I0428 20:05:04.072093 30523 layer_factory.hpp:77] Creating layer pool0
I0428 20:05:04.072106 30523 net.cpp:86] Creating Layer pool0
I0428 20:05:04.072110 30523 net.cpp:408] pool0 <- conv0
I0428 20:05:04.072116 30523 net.cpp:382] pool0 -> pool0
I0428 20:05:04.072175 30523 net.cpp:124] Setting up pool0
I0428 20:05:04.072182 30523 net.cpp:131] Top shape: 64 25 12 12 (230400)
I0428 20:05:04.072185 30523 net.cpp:139] Memory required for data: 4808960
I0428 20:05:04.072188 30523 layer_factory.hpp:77] Creating layer conv1
I0428 20:05:04.072199 30523 net.cpp:86] Creating Layer conv1
I0428 20:05:04.072202 30523 net.cpp:408] conv1 <- pool0
I0428 20:05:04.072207 30523 net.cpp:382] conv1 -> conv1
I0428 20:05:04.074834 30523 net.cpp:124] Setting up conv1
I0428 20:05:04.074864 30523 net.cpp:131] Top shape: 64 2 8 8 (8192)
I0428 20:05:04.074868 30523 net.cpp:139] Memory required for data: 4841728
I0428 20:05:04.074877 30523 layer_factory.hpp:77] Creating layer pool1
I0428 20:05:04.074885 30523 net.cpp:86] Creating Layer pool1
I0428 20:05:04.074889 30523 net.cpp:408] pool1 <- conv1
I0428 20:05:04.074893 30523 net.cpp:382] pool1 -> pool1
I0428 20:05:04.074944 30523 net.cpp:124] Setting up pool1
I0428 20:05:04.074950 30523 net.cpp:131] Top shape: 64 2 4 4 (2048)
I0428 20:05:04.074952 30523 net.cpp:139] Memory required for data: 4849920
I0428 20:05:04.074955 30523 layer_factory.hpp:77] Creating layer ip1
I0428 20:05:04.074962 30523 net.cpp:86] Creating Layer ip1
I0428 20:05:04.074966 30523 net.cpp:408] ip1 <- pool1
I0428 20:05:04.074970 30523 net.cpp:382] ip1 -> ip1
I0428 20:05:04.075058 30523 net.cpp:124] Setting up ip1
I0428 20:05:04.075067 30523 net.cpp:131] Top shape: 64 10 (640)
I0428 20:05:04.075069 30523 net.cpp:139] Memory required for data: 4852480
I0428 20:05:04.075076 30523 layer_factory.hpp:77] Creating layer relu1
I0428 20:05:04.075083 30523 net.cpp:86] Creating Layer relu1
I0428 20:05:04.075085 30523 net.cpp:408] relu1 <- ip1
I0428 20:05:04.075089 30523 net.cpp:369] relu1 -> ip1 (in-place)
I0428 20:05:04.075256 30523 net.cpp:124] Setting up relu1
I0428 20:05:04.075266 30523 net.cpp:131] Top shape: 64 10 (640)
I0428 20:05:04.075269 30523 net.cpp:139] Memory required for data: 4855040
I0428 20:05:04.075273 30523 layer_factory.hpp:77] Creating layer ip2
I0428 20:05:04.075279 30523 net.cpp:86] Creating Layer ip2
I0428 20:05:04.075283 30523 net.cpp:408] ip2 <- ip1
I0428 20:05:04.075287 30523 net.cpp:382] ip2 -> ip2
I0428 20:05:04.075377 30523 net.cpp:124] Setting up ip2
I0428 20:05:04.075384 30523 net.cpp:131] Top shape: 64 10 (640)
I0428 20:05:04.075387 30523 net.cpp:139] Memory required for data: 4857600
I0428 20:05:04.075392 30523 layer_factory.hpp:77] Creating layer relu2
I0428 20:05:04.075399 30523 net.cpp:86] Creating Layer relu2
I0428 20:05:04.075403 30523 net.cpp:408] relu2 <- ip2
I0428 20:05:04.075407 30523 net.cpp:369] relu2 -> ip2 (in-place)
I0428 20:05:04.076125 30523 net.cpp:124] Setting up relu2
I0428 20:05:04.076138 30523 net.cpp:131] Top shape: 64 10 (640)
I0428 20:05:04.076156 30523 net.cpp:139] Memory required for data: 4860160
I0428 20:05:04.076160 30523 layer_factory.hpp:77] Creating layer ip3
I0428 20:05:04.076167 30523 net.cpp:86] Creating Layer ip3
I0428 20:05:04.076171 30523 net.cpp:408] ip3 <- ip2
I0428 20:05:04.076177 30523 net.cpp:382] ip3 -> ip3
I0428 20:05:04.076270 30523 net.cpp:124] Setting up ip3
I0428 20:05:04.076278 30523 net.cpp:131] Top shape: 64 10 (640)
I0428 20:05:04.076282 30523 net.cpp:139] Memory required for data: 4862720
I0428 20:05:04.076290 30523 layer_factory.hpp:77] Creating layer relu3
I0428 20:05:04.076295 30523 net.cpp:86] Creating Layer relu3
I0428 20:05:04.076298 30523 net.cpp:408] relu3 <- ip3
I0428 20:05:04.076303 30523 net.cpp:369] relu3 -> ip3 (in-place)
I0428 20:05:04.076465 30523 net.cpp:124] Setting up relu3
I0428 20:05:04.076474 30523 net.cpp:131] Top shape: 64 10 (640)
I0428 20:05:04.076478 30523 net.cpp:139] Memory required for data: 4865280
I0428 20:05:04.076480 30523 layer_factory.hpp:77] Creating layer loss
I0428 20:05:04.076486 30523 net.cpp:86] Creating Layer loss
I0428 20:05:04.076489 30523 net.cpp:408] loss <- ip3
I0428 20:05:04.076493 30523 net.cpp:408] loss <- label
I0428 20:05:04.076498 30523 net.cpp:382] loss -> loss
I0428 20:05:04.076516 30523 layer_factory.hpp:77] Creating layer loss
…
I0428 20:05:04.077235 30523 solver.cpp:173] Creating test net (#0) specified by net file: ECE595/mnist/train_test/var_everything2/lenet_train_test989.prototxt
I0428 20:05:04.077302 30523 net.cpp:296] The NetState phase (1) differed from the phase (0) specified by a rule in layer mnist
I0428 20:05:04.077390 30523 net.cpp:53] Initializing net from parameters: 
name: "LeNet"
state {
  phase: TEST
}
layer {
  name: "mnist"
  type: "Data"
  top: "data"
  top: "label"
  include {
    phase: TEST
  }
  transform_param {
    scale: 0.00390625
  }
  data_param {
    source: "examples/mnist/mnist_test_lmdb"
    batch_size: 100
    backend: LMDB
  }
}
layer {
  name: "conv0"
  type: "Convolution"
  bottom: "data"
  top: "conv0"
  param {
    lr_mult: 1
  }
  param {
    lr_mult: 2
  }
  convolution_param {
    num_output: 25
    kernel_size: 5
    stride: 1
    weight_filler {
      type: "xavier"
    }
    bias_filler {
      type: "constant"
    }
  }
}
layer {
  name: "pool0"
  type: "Pooling"
  bottom: "conv0"
  top: "pool0"
  pooling_param {
    pool: MAX
    kernel_size: 2
    stride: 2
  }
}
layer {
  name: "conv1"
  type: "Convolution"
  bottom: "pool0"
  top: "conv1"
  param {
    lr_mult: 1
  }
  param {
    lr_mult: 2
  }
  convolution_param {
    num_output: 2
    kernel_size: 5
    stride: 1
    weight_filler {
      type: "xavier"
    }
    bias_filler {
      type: "constant"
    }
  }
}
layer {
  name: "pool1"
  type: "Pooling"
  bottom: "conv1"
  top: "pool1"
  pooling_param {
    pool: MAX
    kernel_size: 2
    stride: 2
  }
}
layer {
  name: "ip1"
  type: "InnerProduct"
  bottom: "pool1"
  top: "ip1"
  param {
    lr_mult: 1
  }
  param {
    lr_mult: 2
  }
  inner_product_param {
    num_output: 10
    weight_filler {
      type: "xavier"
    }
    bias_filler {
      type: "constant"
    }
  }
}
layer {
  name: "relu1"
  type: "ReLU"
  bottom: "ip1"
  top: "ip1"
}
layer {
  name: "ip2"
  type: "InnerProduct"
  bottom: "ip1"
  top: "ip2"
  param {
    lr_mult: 1
  }
  param {
    lr_mult: 2
  }
  inner_product_param {
    num_output: 10
    weight_filler {
      type: "xavier"
    }
    bias_filler {
      type: "constant"
    }
  }
}
layer {
  name: "relu2"
  type: "ReLU"
  bottom: "ip2"
  top: "ip2"
}
layer {
  name: "ip3"
  type: "InnerProduct"
  bottom: "ip2"
  top: "ip3"
  param {
    lr_mult: 1
  }
  param {
    lr_mult: 2
  }
  inner_product_param {
    num_output: 10
    weight_filler {
      type: "xavier"
    }
    bias_filler {
      type: "constant"
    }
  }
}
layer {
  name: "relu3"
  type: "ReLU"
  bottom: "ip3"
  top: "ip3"
}
layer {
  name: "accuracy"
  type: "Accuracy"
  bottom: "ip3"
  bottom: "label"
  top: "accuracy"
  include {
    phase: TEST
  }
}
layer {
  name: "loss"
  type: "SoftmaxWithLoss"
  bottom: "ip3"
  bottom: "label"
  top: "loss"
}
I0428 20:05:04.077466 30523 layer_factory.hpp:77] Creating layer mnist
I0428 20:05:04.077512 30523 db_lmdb.cpp:35] Opened lmdb examples/mnist/mnist_test_lmdb
I0428 20:05:04.077524 30523 net.cpp:86] Creating Layer mnist
I0428 20:05:04.077528 30523 net.cpp:382] mnist -> data
I0428 20:05:04.077536 30523 net.cpp:382] mnist -> label
I0428 20:05:04.077632 30523 data_layer.cpp:45] output data size: 100,1,28,28
I0428 20:05:04.079677 30523 net.cpp:124] Setting up mnist
I0428 20:05:04.079706 30523 net.cpp:131] Top shape: 100 1 28 28 (78400)
I0428 20:05:04.079711 30523 net.cpp:131] Top shape: 100 (100)
I0428 20:05:04.079715 30523 net.cpp:139] Memory required for data: 314000
I0428 20:05:04.079718 30523 layer_factory.hpp:77] Creating layer label_mnist_1_split
I0428 20:05:04.079753 30523 net.cpp:86] Creating Layer label_mnist_1_split
I0428 20:05:04.079757 30523 net.cpp:408] label_mnist_1_split <- label
I0428 20:05:04.079762 30523 net.cpp:382] label_mnist_1_split -> label_mnist_1_split_0
I0428 20:05:04.079769 30523 net.cpp:382] label_mnist_1_split -> label_mnist_1_split_1
I0428 20:05:04.079809 30523 net.cpp:124] Setting up label_mnist_1_split
I0428 20:05:04.079815 30523 net.cpp:131] Top shape: 100 (100)
I0428 20:05:04.079819 30523 net.cpp:131] Top shape: 100 (100)
I0428 20:05:04.079823 30523 net.cpp:139] Memory required for data: 314800
I0428 20:05:04.079825 30523 layer_factory.hpp:77] Creating layer conv0
I0428 20:05:04.079833 30523 net.cpp:86] Creating Layer conv0
I0428 20:05:04.079836 30523 net.cpp:408] conv0 <- data
I0428 20:05:04.079841 30523 net.cpp:382] conv0 -> conv0
I0428 20:05:04.081467 30523 net.cpp:124] Setting up conv0
I0428 20:05:04.081481 30523 net.cpp:131] Top shape: 100 25 24 24 (1440000)
I0428 20:05:04.081485 30523 net.cpp:139] Memory required for data: 6074800
I0428 20:05:04.081495 30523 layer_factory.hpp:77] Creating layer pool0
I0428 20:05:04.081516 30523 net.cpp:86] Creating Layer pool0
I0428 20:05:04.081521 30523 net.cpp:408] pool0 <- conv0
I0428 20:05:04.081526 30523 net.cpp:382] pool0 -> pool0
I0428 20:05:04.081562 30523 net.cpp:124] Setting up pool0
I0428 20:05:04.081568 30523 net.cpp:131] Top shape: 100 25 12 12 (360000)
I0428 20:05:04.081570 30523 net.cpp:139] Memory required for data: 7514800
I0428 20:05:04.081573 30523 layer_factory.hpp:77] Creating layer conv1
I0428 20:05:04.081581 30523 net.cpp:86] Creating Layer conv1
I0428 20:05:04.081585 30523 net.cpp:408] conv1 <- pool0
I0428 20:05:04.081590 30523 net.cpp:382] conv1 -> conv1
I0428 20:05:04.083528 30523 net.cpp:124] Setting up conv1
I0428 20:05:04.083540 30523 net.cpp:131] Top shape: 100 2 8 8 (12800)
I0428 20:05:04.083544 30523 net.cpp:139] Memory required for data: 7566000
I0428 20:05:04.083554 30523 layer_factory.hpp:77] Creating layer pool1
I0428 20:05:04.083559 30523 net.cpp:86] Creating Layer pool1
I0428 20:05:04.083564 30523 net.cpp:408] pool1 <- conv1
I0428 20:05:04.083576 30523 net.cpp:382] pool1 -> pool1
I0428 20:05:04.083614 30523 net.cpp:124] Setting up pool1
I0428 20:05:04.083621 30523 net.cpp:131] Top shape: 100 2 4 4 (3200)
I0428 20:05:04.083628 30523 net.cpp:139] Memory required for data: 7578800
I0428 20:05:04.083632 30523 layer_factory.hpp:77] Creating layer ip1
I0428 20:05:04.083637 30523 net.cpp:86] Creating Layer ip1
I0428 20:05:04.083642 30523 net.cpp:408] ip1 <- pool1
I0428 20:05:04.083647 30523 net.cpp:382] ip1 -> ip1
I0428 20:05:04.083742 30523 net.cpp:124] Setting up ip1
I0428 20:05:04.083751 30523 net.cpp:131] Top shape: 100 10 (1000)
I0428 20:05:04.083765 30523 net.cpp:139] Memory required for data: 7582800
I0428 20:05:04.083772 30523 layer_factory.hpp:77] Creating layer relu1
I0428 20:05:04.083777 30523 net.cpp:86] Creating Layer relu1
I0428 20:05:04.083781 30523 net.cpp:408] relu1 <- ip1
I0428 20:05:04.083786 30523 net.cpp:369] relu1 -> ip1 (in-place)
I0428 20:05:04.083941 30523 net.cpp:124] Setting up relu1
I0428 20:05:04.083951 30523 net.cpp:131] Top shape: 100 10 (1000)
I0428 20:05:04.083968 30523 net.cpp:139] Memory required for data: 7586800
I0428 20:05:04.083972 30523 layer_factory.hpp:77] Creating layer ip2
I0428 20:05:04.083979 30523 net.cpp:86] Creating Layer ip2
I0428 20:05:04.084004 30523 net.cpp:408] ip2 <- ip1
I0428 20:05:04.084014 30523 net.cpp:382] ip2 -> ip2
I0428 20:05:04.084116 30523 net.cpp:124] Setting up ip2
I0428 20:05:04.084123 30523 net.cpp:131] Top shape: 100 10 (1000)
I0428 20:05:04.084126 30523 net.cpp:139] Memory required for data: 7590800
I0428 20:05:04.084131 30523 layer_factory.hpp:77] Creating layer relu2
I0428 20:05:04.084136 30523 net.cpp:86] Creating Layer relu2
I0428 20:05:04.084146 30523 net.cpp:408] relu2 <- ip2
I0428 20:05:04.084151 30523 net.cpp:369] relu2 -> ip2 (in-place)
I0428 20:05:04.084290 30523 net.cpp:124] Setting up relu2
I0428 20:05:04.084298 30523 net.cpp:131] Top shape: 100 10 (1000)
I0428 20:05:04.084301 30523 net.cpp:139] Memory required for data: 7594800
I0428 20:05:04.084305 30523 layer_factory.hpp:77] Creating layer ip3
I0428 20:05:04.084311 30523 net.cpp:86] Creating Layer ip3
I0428 20:05:04.084313 30523 net.cpp:408] ip3 <- ip2
I0428 20:05:04.084317 30523 net.cpp:382] ip3 -> ip3
I0428 20:05:04.084419 30523 net.cpp:124] Setting up ip3
I0428 20:05:04.084425 30523 net.cpp:131] Top shape: 100 10 (1000)
I0428 20:05:04.084429 30523 net.cpp:139] Memory required for data: 7598800
I0428 20:05:04.084442 30523 layer_factory.hpp:77] Creating layer relu3
I0428 20:05:04.084447 30523 net.cpp:86] Creating Layer relu3
I0428 20:05:04.084451 30523 net.cpp:408] relu3 <- ip3
I0428 20:05:04.084455 30523 net.cpp:369] relu3 -> ip3 (in-place)
I0428 20:05:04.085363 30523 net.cpp:124] Setting up relu3
I0428 20:05:04.085376 30523 net.cpp:131] Top shape: 100 10 (1000)
I0428 20:05:04.085379 30523 net.cpp:139] Memory required for data: 7602800
I0428 20:05:04.085382 30523 layer_factory.hpp:77] Creating layer ip3_relu3_0_split
I0428 20:05:04.085388 30523 net.cpp:86] Creating Layer ip3_relu3_0_split
I0428 20:05:04.085391 30523 net.cpp:408] ip3_relu3_0_split <- ip3
I0428 20:05:04.085397 30523 net.cpp:382] ip3_relu3_0_split -> ip3_relu3_0_split_0
I0428 20:05:04.085403 30523 net.cpp:382] ip3_relu3_0_split -> ip3_relu3_0_split_1
I0428 20:05:04.085484 30523 net.cpp:124] Setting up ip3_relu3_0_split
I0428 20:05:04.085501 30523 net.cpp:131] Top shape: 100 10 (1000)
I0428 20:05:04.085505 30523 net.cpp:131] Top shape: 100 10 (1000)
I0428 20:05:04.085508 30523 net.cpp:139] Memory required for data: 7610800
I0428 20:05:04.085511 30523 layer_factory.hpp:77] Creating layer accuracy
I0428 20:05:04.085516 30523 net.cpp:86] Creating Layer accuracy
I0428 20:05:04.085520 30523 net.cpp:408] accuracy <- ip3_relu3_0_split_0
I0428 20:05:04.085525 30523 net.cpp:408] accuracy <- label_mnist_1_split_0
I0428 20:05:04.085528 30523 net.cpp:382] accuracy -> accuracy
…
