…
I0428 19:46:00.567358 25926 net.cpp:296] The NetState phase (0) differed from the phase (1) specified by a rule in layer mnist
I0428 19:46:00.567383 25926 net.cpp:296] The NetState phase (0) differed from the phase (1) specified by a rule in layer accuracy
I0428 19:46:00.567493 25926 net.cpp:53] Initializing net from parameters: 
name: "LeNet"
state {
  phase: TRAIN
  level: 0
  stage: ""
}
layer {
  name: "mnist"
  type: "Data"
  top: "data"
  top: "label"
  include {
    phase: TRAIN
  }
  transform_param {
    scale: 0.00390625
  }
  data_param {
    source: "examples/mnist/mnist_train_lmdb"
    batch_size: 64
    backend: LMDB
  }
}
layer {
  name: "conv0"
  type: "Convolution"
  bottom: "data"
  top: "conv0"
  param {
    lr_mult: 1
  }
  param {
    lr_mult: 2
  }
  convolution_param {
    num_output: 2
    kernel_size: 5
    stride: 1
    weight_filler {
      type: "xavier"
    }
    bias_filler {
      type: "constant"
    }
  }
}
layer {
  name: "pool0"
  type: "Pooling"
  bottom: "conv0"
  top: "pool0"
  pooling_param {
    pool: MAX
    kernel_size: 2
    stride: 2
  }
}
layer {
  name: "conv1"
  type: "Convolution"
  bottom: "pool0"
  top: "conv1"
  param {
    lr_mult: 1
  }
  param {
    lr_mult: 2
  }
  convolution_param {
    num_output: 100
    kernel_size: 5
    stride: 1
    weight_filler {
      type: "xavier"
    }
    bias_filler {
      type: "constant"
    }
  }
}
layer {
  name: "pool1"
  type: "Pooling"
  bottom: "conv1"
  top: "pool1"
  pooling_param {
    pool: MAX
    kernel_size: 2
    stride: 2
  }
}
layer {
  name: "ip1"
  type: "InnerProduct"
  bottom: "pool1"
  top: "ip1"
  param {
    lr_mult: 1
  }
  param {
    lr_mult: 2
  }
  inner_product_param {
    num_output: 10
    weight_filler {
      type: "xavier"
    }
    bias_filler {
      type: "constant"
    }
  }
}
layer {
  name: "relu1"
  type: "ReLU"
  bottom: "ip1"
  top: "ip1"
}
layer {
  name: "ip2"
  type: "InnerProduct"
  bottom: "ip1"
  top: "ip2"
  param {
    lr_mult: 1
  }
  param {
    lr_mult: 2
  }
  inner_product_param {
    num_output: 25
    weight_filler {
      type: "xavier"
    }
    bias_filler {
      type: "constant"
    }
  }
}
layer {
  name: "relu2"
  type: "ReLU"
  bottom: "ip2"
  top: "ip2"
}
layer {
  name: "ip3"
  type: "InnerProduct"
  bottom: "ip2"
  top: "ip3"
  param {
    lr_mult: 1
  }
  param {
    lr_mult: 2
  }
  inner_product_param {
    num_output: 10
    weight_filler {
      type: "xavier"
    }
    bias_filler {
      type: "constant"
    }
  }
}
layer {
  name: "relu3"
  type: "ReLU"
  bottom: "ip3"
  top: "ip3"
}
layer {
  name: "loss"
  type: "SoftmaxWithLoss"
  bottom: "ip3"
  bottom: "label"
  top: "loss"
}
I0428 19:46:00.567601 25926 layer_factory.hpp:77] Creating layer mnist
I0428 19:46:00.567737 25926 db_lmdb.cpp:35] Opened lmdb examples/mnist/mnist_train_lmdb
I0428 19:46:00.567770 25926 net.cpp:86] Creating Layer mnist
I0428 19:46:00.567781 25926 net.cpp:382] mnist -> data
I0428 19:46:00.567812 25926 net.cpp:382] mnist -> label
I0428 19:46:00.569083 25926 data_layer.cpp:45] output data size: 64,1,28,28
I0428 19:46:00.571547 25926 net.cpp:124] Setting up mnist
I0428 19:46:00.571566 25926 net.cpp:131] Top shape: 64 1 28 28 (50176)
I0428 19:46:00.571576 25926 net.cpp:131] Top shape: 64 (64)
I0428 19:46:00.571583 25926 net.cpp:139] Memory required for data: 200960
I0428 19:46:00.571593 25926 layer_factory.hpp:77] Creating layer conv0
I0428 19:46:00.571616 25926 net.cpp:86] Creating Layer conv0
I0428 19:46:00.571640 25926 net.cpp:408] conv0 <- data
I0428 19:46:00.571660 25926 net.cpp:382] conv0 -> conv0
I0428 19:46:00.866910 25926 net.cpp:124] Setting up conv0
I0428 19:46:00.866945 25926 net.cpp:131] Top shape: 64 2 24 24 (73728)
I0428 19:46:00.866950 25926 net.cpp:139] Memory required for data: 495872
I0428 19:46:00.866967 25926 layer_factory.hpp:77] Creating layer pool0
I0428 19:46:00.866981 25926 net.cpp:86] Creating Layer pool0
I0428 19:46:00.866986 25926 net.cpp:408] pool0 <- conv0
I0428 19:46:00.866993 25926 net.cpp:382] pool0 -> pool0
I0428 19:46:00.867051 25926 net.cpp:124] Setting up pool0
I0428 19:46:00.867061 25926 net.cpp:131] Top shape: 64 2 12 12 (18432)
I0428 19:46:00.867065 25926 net.cpp:139] Memory required for data: 569600
I0428 19:46:00.867069 25926 layer_factory.hpp:77] Creating layer conv1
I0428 19:46:00.867082 25926 net.cpp:86] Creating Layer conv1
I0428 19:46:00.867086 25926 net.cpp:408] conv1 <- pool0
I0428 19:46:00.867092 25926 net.cpp:382] conv1 -> conv1
I0428 19:46:00.870244 25926 net.cpp:124] Setting up conv1
I0428 19:46:00.870262 25926 net.cpp:131] Top shape: 64 100 8 8 (409600)
I0428 19:46:00.870267 25926 net.cpp:139] Memory required for data: 2208000
I0428 19:46:00.870277 25926 layer_factory.hpp:77] Creating layer pool1
I0428 19:46:00.870287 25926 net.cpp:86] Creating Layer pool1
I0428 19:46:00.870291 25926 net.cpp:408] pool1 <- conv1
I0428 19:46:00.870297 25926 net.cpp:382] pool1 -> pool1
I0428 19:46:00.870342 25926 net.cpp:124] Setting up pool1
I0428 19:46:00.870352 25926 net.cpp:131] Top shape: 64 100 4 4 (102400)
I0428 19:46:00.870355 25926 net.cpp:139] Memory required for data: 2617600
I0428 19:46:00.870359 25926 layer_factory.hpp:77] Creating layer ip1
I0428 19:46:00.870373 25926 net.cpp:86] Creating Layer ip1
I0428 19:46:00.870378 25926 net.cpp:408] ip1 <- pool1
I0428 19:46:00.870383 25926 net.cpp:382] ip1 -> ip1
I0428 19:46:00.870604 25926 net.cpp:124] Setting up ip1
I0428 19:46:00.870615 25926 net.cpp:131] Top shape: 64 10 (640)
I0428 19:46:00.870618 25926 net.cpp:139] Memory required for data: 2620160
I0428 19:46:00.870626 25926 layer_factory.hpp:77] Creating layer relu1
I0428 19:46:00.870633 25926 net.cpp:86] Creating Layer relu1
I0428 19:46:00.870637 25926 net.cpp:408] relu1 <- ip1
I0428 19:46:00.870642 25926 net.cpp:369] relu1 -> ip1 (in-place)
I0428 19:46:00.870838 25926 net.cpp:124] Setting up relu1
I0428 19:46:00.870848 25926 net.cpp:131] Top shape: 64 10 (640)
I0428 19:46:00.870852 25926 net.cpp:139] Memory required for data: 2622720
I0428 19:46:00.870857 25926 layer_factory.hpp:77] Creating layer ip2
I0428 19:46:00.870863 25926 net.cpp:86] Creating Layer ip2
I0428 19:46:00.870867 25926 net.cpp:408] ip2 <- ip1
I0428 19:46:00.870873 25926 net.cpp:382] ip2 -> ip2
I0428 19:46:00.870987 25926 net.cpp:124] Setting up ip2
I0428 19:46:00.870995 25926 net.cpp:131] Top shape: 64 25 (1600)
I0428 19:46:00.871000 25926 net.cpp:139] Memory required for data: 2629120
I0428 19:46:00.871006 25926 layer_factory.hpp:77] Creating layer relu2
I0428 19:46:00.871012 25926 net.cpp:86] Creating Layer relu2
I0428 19:46:00.871016 25926 net.cpp:408] relu2 <- ip2
I0428 19:46:00.871021 25926 net.cpp:369] relu2 -> ip2 (in-place)
I0428 19:46:00.871860 25926 net.cpp:124] Setting up relu2
I0428 19:46:00.871876 25926 net.cpp:131] Top shape: 64 25 (1600)
I0428 19:46:00.871881 25926 net.cpp:139] Memory required for data: 2635520
I0428 19:46:00.871886 25926 layer_factory.hpp:77] Creating layer ip3
I0428 19:46:00.871896 25926 net.cpp:86] Creating Layer ip3
I0428 19:46:00.871899 25926 net.cpp:408] ip3 <- ip2
I0428 19:46:00.871906 25926 net.cpp:382] ip3 -> ip3
I0428 19:46:00.872022 25926 net.cpp:124] Setting up ip3
I0428 19:46:00.872031 25926 net.cpp:131] Top shape: 64 10 (640)
I0428 19:46:00.872035 25926 net.cpp:139] Memory required for data: 2638080
I0428 19:46:00.872045 25926 layer_factory.hpp:77] Creating layer relu3
I0428 19:46:00.872051 25926 net.cpp:86] Creating Layer relu3
I0428 19:46:00.872053 25926 net.cpp:408] relu3 <- ip3
I0428 19:46:00.872058 25926 net.cpp:369] relu3 -> ip3 (in-place)
I0428 19:46:00.872257 25926 net.cpp:124] Setting up relu3
I0428 19:46:00.872267 25926 net.cpp:131] Top shape: 64 10 (640)
I0428 19:46:00.872272 25926 net.cpp:139] Memory required for data: 2640640
I0428 19:46:00.872275 25926 layer_factory.hpp:77] Creating layer loss
I0428 19:46:00.872283 25926 net.cpp:86] Creating Layer loss
I0428 19:46:00.872287 25926 net.cpp:408] loss <- ip3
I0428 19:46:00.872292 25926 net.cpp:408] loss <- label
I0428 19:46:00.872298 25926 net.cpp:382] loss -> loss
I0428 19:46:00.872318 25926 layer_factory.hpp:77] Creating layer loss
…
I0428 19:46:00.873069 25926 solver.cpp:173] Creating test net (#0) specified by net file: ECE595/mnist/train_test/var_everything2/lenet_train_test483.prototxt
I0428 19:46:00.873101 25926 net.cpp:296] The NetState phase (1) differed from the phase (0) specified by a rule in layer mnist
I0428 19:46:00.873210 25926 net.cpp:53] Initializing net from parameters: 
name: "LeNet"
state {
  phase: TEST
}
layer {
  name: "mnist"
  type: "Data"
  top: "data"
  top: "label"
  include {
    phase: TEST
  }
  transform_param {
    scale: 0.00390625
  }
  data_param {
    source: "examples/mnist/mnist_test_lmdb"
    batch_size: 100
    backend: LMDB
  }
}
layer {
  name: "conv0"
  type: "Convolution"
  bottom: "data"
  top: "conv0"
  param {
    lr_mult: 1
  }
  param {
    lr_mult: 2
  }
  convolution_param {
    num_output: 2
    kernel_size: 5
    stride: 1
    weight_filler {
      type: "xavier"
    }
    bias_filler {
      type: "constant"
    }
  }
}
layer {
  name: "pool0"
  type: "Pooling"
  bottom: "conv0"
  top: "pool0"
  pooling_param {
    pool: MAX
    kernel_size: 2
    stride: 2
  }
}
layer {
  name: "conv1"
  type: "Convolution"
  bottom: "pool0"
  top: "conv1"
  param {
    lr_mult: 1
  }
  param {
    lr_mult: 2
  }
  convolution_param {
    num_output: 100
    kernel_size: 5
    stride: 1
    weight_filler {
      type: "xavier"
    }
    bias_filler {
      type: "constant"
    }
  }
}
layer {
  name: "pool1"
  type: "Pooling"
  bottom: "conv1"
  top: "pool1"
  pooling_param {
    pool: MAX
    kernel_size: 2
    stride: 2
  }
}
layer {
  name: "ip1"
  type: "InnerProduct"
  bottom: "pool1"
  top: "ip1"
  param {
    lr_mult: 1
  }
  param {
    lr_mult: 2
  }
  inner_product_param {
    num_output: 10
    weight_filler {
      type: "xavier"
    }
    bias_filler {
      type: "constant"
    }
  }
}
layer {
  name: "relu1"
  type: "ReLU"
  bottom: "ip1"
  top: "ip1"
}
layer {
  name: "ip2"
  type: "InnerProduct"
  bottom: "ip1"
  top: "ip2"
  param {
    lr_mult: 1
  }
  param {
    lr_mult: 2
  }
  inner_product_param {
    num_output: 25
    weight_filler {
      type: "xavier"
    }
    bias_filler {
      type: "constant"
    }
  }
}
layer {
  name: "relu2"
  type: "ReLU"
  bottom: "ip2"
  top: "ip2"
}
layer {
  name: "ip3"
  type: "InnerProduct"
  bottom: "ip2"
  top: "ip3"
  param {
    lr_mult: 1
  }
  param {
    lr_mult: 2
  }
  inner_product_param {
    num_output: 10
    weight_filler {
      type: "xavier"
    }
    bias_filler {
      type: "constant"
    }
  }
}
layer {
  name: "relu3"
  type: "ReLU"
  bottom: "ip3"
  top: "ip3"
}
layer {
  name: "accuracy"
  type: "Accuracy"
  bottom: "ip3"
  bottom: "label"
  top: "accuracy"
  include {
    phase: TEST
  }
}
layer {
  name: "loss"
  type: "SoftmaxWithLoss"
  bottom: "ip3"
  bottom: "label"
  top: "loss"
}
I0428 19:46:00.873308 25926 layer_factory.hpp:77] Creating layer mnist
I0428 19:46:00.873361 25926 db_lmdb.cpp:35] Opened lmdb examples/mnist/mnist_test_lmdb
I0428 19:46:00.873375 25926 net.cpp:86] Creating Layer mnist
I0428 19:46:00.873380 25926 net.cpp:382] mnist -> data
I0428 19:46:00.873390 25926 net.cpp:382] mnist -> label
I0428 19:46:00.873492 25926 data_layer.cpp:45] output data size: 100,1,28,28
I0428 19:46:00.875679 25926 net.cpp:124] Setting up mnist
I0428 19:46:00.875695 25926 net.cpp:131] Top shape: 100 1 28 28 (78400)
I0428 19:46:00.875701 25926 net.cpp:131] Top shape: 100 (100)
I0428 19:46:00.875705 25926 net.cpp:139] Memory required for data: 314000
I0428 19:46:00.875710 25926 layer_factory.hpp:77] Creating layer label_mnist_1_split
I0428 19:46:00.875736 25926 net.cpp:86] Creating Layer label_mnist_1_split
I0428 19:46:00.875742 25926 net.cpp:408] label_mnist_1_split <- label
I0428 19:46:00.875748 25926 net.cpp:382] label_mnist_1_split -> label_mnist_1_split_0
I0428 19:46:00.875756 25926 net.cpp:382] label_mnist_1_split -> label_mnist_1_split_1
I0428 19:46:00.875808 25926 net.cpp:124] Setting up label_mnist_1_split
I0428 19:46:00.875816 25926 net.cpp:131] Top shape: 100 (100)
I0428 19:46:00.875820 25926 net.cpp:131] Top shape: 100 (100)
I0428 19:46:00.875824 25926 net.cpp:139] Memory required for data: 314800
I0428 19:46:00.875828 25926 layer_factory.hpp:77] Creating layer conv0
I0428 19:46:00.875838 25926 net.cpp:86] Creating Layer conv0
I0428 19:46:00.875841 25926 net.cpp:408] conv0 <- data
I0428 19:46:00.875847 25926 net.cpp:382] conv0 -> conv0
I0428 19:46:00.877774 25926 net.cpp:124] Setting up conv0
I0428 19:46:00.877791 25926 net.cpp:131] Top shape: 100 2 24 24 (115200)
I0428 19:46:00.877795 25926 net.cpp:139] Memory required for data: 775600
I0428 19:46:00.877806 25926 layer_factory.hpp:77] Creating layer pool0
I0428 19:46:00.877815 25926 net.cpp:86] Creating Layer pool0
I0428 19:46:00.877818 25926 net.cpp:408] pool0 <- conv0
I0428 19:46:00.877825 25926 net.cpp:382] pool0 -> pool0
I0428 19:46:00.877866 25926 net.cpp:124] Setting up pool0
I0428 19:46:00.877874 25926 net.cpp:131] Top shape: 100 2 12 12 (28800)
I0428 19:46:00.877878 25926 net.cpp:139] Memory required for data: 890800
I0428 19:46:00.877882 25926 layer_factory.hpp:77] Creating layer conv1
I0428 19:46:00.877892 25926 net.cpp:86] Creating Layer conv1
I0428 19:46:00.877895 25926 net.cpp:408] conv1 <- pool0
I0428 19:46:00.877902 25926 net.cpp:382] conv1 -> conv1
I0428 19:46:00.879606 25926 net.cpp:124] Setting up conv1
I0428 19:46:00.879624 25926 net.cpp:131] Top shape: 100 100 8 8 (640000)
I0428 19:46:00.879629 25926 net.cpp:139] Memory required for data: 3450800
I0428 19:46:00.879642 25926 layer_factory.hpp:77] Creating layer pool1
I0428 19:46:00.879648 25926 net.cpp:86] Creating Layer pool1
I0428 19:46:00.879652 25926 net.cpp:408] pool1 <- conv1
I0428 19:46:00.879658 25926 net.cpp:382] pool1 -> pool1
I0428 19:46:00.879700 25926 net.cpp:124] Setting up pool1
I0428 19:46:00.879709 25926 net.cpp:131] Top shape: 100 100 4 4 (160000)
I0428 19:46:00.879714 25926 net.cpp:139] Memory required for data: 4090800
I0428 19:46:00.879717 25926 layer_factory.hpp:77] Creating layer ip1
I0428 19:46:00.879725 25926 net.cpp:86] Creating Layer ip1
I0428 19:46:00.879729 25926 net.cpp:408] ip1 <- pool1
I0428 19:46:00.879734 25926 net.cpp:382] ip1 -> ip1
I0428 19:46:00.879951 25926 net.cpp:124] Setting up ip1
I0428 19:46:00.879962 25926 net.cpp:131] Top shape: 100 10 (1000)
I0428 19:46:00.879983 25926 net.cpp:139] Memory required for data: 4094800
I0428 19:46:00.879994 25926 layer_factory.hpp:77] Creating layer relu1
I0428 19:46:00.879999 25926 net.cpp:86] Creating Layer relu1
I0428 19:46:00.880003 25926 net.cpp:408] relu1 <- ip1
I0428 19:46:00.880009 25926 net.cpp:369] relu1 -> ip1 (in-place)
I0428 19:46:00.880190 25926 net.cpp:124] Setting up relu1
I0428 19:46:00.880200 25926 net.cpp:131] Top shape: 100 10 (1000)
I0428 19:46:00.880204 25926 net.cpp:139] Memory required for data: 4098800
I0428 19:46:00.880208 25926 layer_factory.hpp:77] Creating layer ip2
I0428 19:46:00.880216 25926 net.cpp:86] Creating Layer ip2
I0428 19:46:00.880220 25926 net.cpp:408] ip2 <- ip1
I0428 19:46:00.880228 25926 net.cpp:382] ip2 -> ip2
I0428 19:46:00.880363 25926 net.cpp:124] Setting up ip2
I0428 19:46:00.880373 25926 net.cpp:131] Top shape: 100 25 (2500)
I0428 19:46:00.880375 25926 net.cpp:139] Memory required for data: 4108800
I0428 19:46:00.880383 25926 layer_factory.hpp:77] Creating layer relu2
I0428 19:46:00.880388 25926 net.cpp:86] Creating Layer relu2
I0428 19:46:00.880393 25926 net.cpp:408] relu2 <- ip2
I0428 19:46:00.880398 25926 net.cpp:369] relu2 -> ip2 (in-place)
I0428 19:46:00.880661 25926 net.cpp:124] Setting up relu2
I0428 19:46:00.880672 25926 net.cpp:131] Top shape: 100 25 (2500)
I0428 19:46:00.880676 25926 net.cpp:139] Memory required for data: 4118800
I0428 19:46:00.880681 25926 layer_factory.hpp:77] Creating layer ip3
I0428 19:46:00.880687 25926 net.cpp:86] Creating Layer ip3
I0428 19:46:00.880692 25926 net.cpp:408] ip3 <- ip2
I0428 19:46:00.880697 25926 net.cpp:382] ip3 -> ip3
I0428 19:46:00.880817 25926 net.cpp:124] Setting up ip3
I0428 19:46:00.880826 25926 net.cpp:131] Top shape: 100 10 (1000)
I0428 19:46:00.880831 25926 net.cpp:139] Memory required for data: 4122800
I0428 19:46:00.880841 25926 layer_factory.hpp:77] Creating layer relu3
I0428 19:46:00.880846 25926 net.cpp:86] Creating Layer relu3
I0428 19:46:00.880849 25926 net.cpp:408] relu3 <- ip3
I0428 19:46:00.880856 25926 net.cpp:369] relu3 -> ip3 (in-place)
I0428 19:46:00.881784 25926 net.cpp:124] Setting up relu3
I0428 19:46:00.881798 25926 net.cpp:131] Top shape: 100 10 (1000)
I0428 19:46:00.881803 25926 net.cpp:139] Memory required for data: 4126800
I0428 19:46:00.881806 25926 layer_factory.hpp:77] Creating layer ip3_relu3_0_split
I0428 19:46:00.881814 25926 net.cpp:86] Creating Layer ip3_relu3_0_split
I0428 19:46:00.881817 25926 net.cpp:408] ip3_relu3_0_split <- ip3
I0428 19:46:00.881824 25926 net.cpp:382] ip3_relu3_0_split -> ip3_relu3_0_split_0
I0428 19:46:00.881831 25926 net.cpp:382] ip3_relu3_0_split -> ip3_relu3_0_split_1
I0428 19:46:00.881873 25926 net.cpp:124] Setting up ip3_relu3_0_split
I0428 19:46:00.881882 25926 net.cpp:131] Top shape: 100 10 (1000)
I0428 19:46:00.881886 25926 net.cpp:131] Top shape: 100 10 (1000)
I0428 19:46:00.881891 25926 net.cpp:139] Memory required for data: 4134800
I0428 19:46:00.881894 25926 layer_factory.hpp:77] Creating layer accuracy
I0428 19:46:00.881901 25926 net.cpp:86] Creating Layer accuracy
I0428 19:46:00.881906 25926 net.cpp:408] accuracy <- ip3_relu3_0_split_0
I0428 19:46:00.881911 25926 net.cpp:408] accuracy <- label_mnist_1_split_0
I0428 19:46:00.881916 25926 net.cpp:382] accuracy -> accuracy
…
