…
I0428 20:01:31.653229 29743 net.cpp:296] The NetState phase (0) differed from the phase (1) specified by a rule in layer mnist
I0428 20:01:31.653246 29743 net.cpp:296] The NetState phase (0) differed from the phase (1) specified by a rule in layer accuracy
I0428 20:01:31.653337 29743 net.cpp:53] Initializing net from parameters: 
name: "LeNet"
state {
  phase: TRAIN
  level: 0
  stage: ""
}
layer {
  name: "mnist"
  type: "Data"
  top: "data"
  top: "label"
  include {
    phase: TRAIN
  }
  transform_param {
    scale: 0.00390625
  }
  data_param {
    source: "examples/mnist/mnist_train_lmdb"
    batch_size: 64
    backend: LMDB
  }
}
layer {
  name: "conv0"
  type: "Convolution"
  bottom: "data"
  top: "conv0"
  param {
    lr_mult: 1
  }
  param {
    lr_mult: 2
  }
  convolution_param {
    num_output: 10
    kernel_size: 5
    stride: 1
    weight_filler {
      type: "xavier"
    }
    bias_filler {
      type: "constant"
    }
  }
}
layer {
  name: "pool0"
  type: "Pooling"
  bottom: "conv0"
  top: "pool0"
  pooling_param {
    pool: MAX
    kernel_size: 2
    stride: 2
  }
}
layer {
  name: "conv1"
  type: "Convolution"
  bottom: "pool0"
  top: "conv1"
  param {
    lr_mult: 1
  }
  param {
    lr_mult: 2
  }
  convolution_param {
    num_output: 50
    kernel_size: 5
    stride: 1
    weight_filler {
      type: "xavier"
    }
    bias_filler {
      type: "constant"
    }
  }
}
layer {
  name: "pool1"
  type: "Pooling"
  bottom: "conv1"
  top: "pool1"
  pooling_param {
    pool: MAX
    kernel_size: 2
    stride: 2
  }
}
layer {
  name: "ip1"
  type: "InnerProduct"
  bottom: "pool1"
  top: "ip1"
  param {
    lr_mult: 1
  }
  param {
    lr_mult: 2
  }
  inner_product_param {
    num_output: 25
    weight_filler {
      type: "xavier"
    }
    bias_filler {
      type: "constant"
    }
  }
}
layer {
  name: "relu1"
  type: "ReLU"
  bottom: "ip1"
  top: "ip1"
}
layer {
  name: "ip2"
  type: "InnerProduct"
  bottom: "ip1"
  top: "ip2"
  param {
    lr_mult: 1
  }
  param {
    lr_mult: 2
  }
  inner_product_param {
    num_output: 10
    weight_filler {
      type: "xavier"
    }
    bias_filler {
      type: "constant"
    }
  }
}
layer {
  name: "relu2"
  type: "ReLU"
  bottom: "ip2"
  top: "ip2"
}
layer {
  name: "loss"
  type: "SoftmaxWithLoss"
  bottom: "ip2"
  bottom: "label"
  top: "loss"
}
I0428 20:01:31.653404 29743 layer_factory.hpp:77] Creating layer mnist
I0428 20:01:31.653507 29743 db_lmdb.cpp:35] Opened lmdb examples/mnist/mnist_train_lmdb
I0428 20:01:31.653530 29743 net.cpp:86] Creating Layer mnist
I0428 20:01:31.653539 29743 net.cpp:382] mnist -> data
I0428 20:01:31.653563 29743 net.cpp:382] mnist -> label
I0428 20:01:31.654665 29743 data_layer.cpp:45] output data size: 64,1,28,28
I0428 20:01:31.657336 29743 net.cpp:124] Setting up mnist
I0428 20:01:31.657356 29743 net.cpp:131] Top shape: 64 1 28 28 (50176)
I0428 20:01:31.657361 29743 net.cpp:131] Top shape: 64 (64)
I0428 20:01:31.657366 29743 net.cpp:139] Memory required for data: 200960
I0428 20:01:31.657374 29743 layer_factory.hpp:77] Creating layer conv0
I0428 20:01:31.657389 29743 net.cpp:86] Creating Layer conv0
I0428 20:01:31.657395 29743 net.cpp:408] conv0 <- data
I0428 20:01:31.657407 29743 net.cpp:382] conv0 -> conv0
I0428 20:01:31.930291 29743 net.cpp:124] Setting up conv0
I0428 20:01:31.930318 29743 net.cpp:131] Top shape: 64 10 24 24 (368640)
I0428 20:01:31.930323 29743 net.cpp:139] Memory required for data: 1675520
I0428 20:01:31.930374 29743 layer_factory.hpp:77] Creating layer pool0
I0428 20:01:31.930403 29743 net.cpp:86] Creating Layer pool0
I0428 20:01:31.930407 29743 net.cpp:408] pool0 <- conv0
I0428 20:01:31.930413 29743 net.cpp:382] pool0 -> pool0
I0428 20:01:31.930462 29743 net.cpp:124] Setting up pool0
I0428 20:01:31.930469 29743 net.cpp:131] Top shape: 64 10 12 12 (92160)
I0428 20:01:31.930471 29743 net.cpp:139] Memory required for data: 2044160
I0428 20:01:31.930474 29743 layer_factory.hpp:77] Creating layer conv1
I0428 20:01:31.930486 29743 net.cpp:86] Creating Layer conv1
I0428 20:01:31.930491 29743 net.cpp:408] conv1 <- pool0
I0428 20:01:31.930496 29743 net.cpp:382] conv1 -> conv1
I0428 20:01:31.933498 29743 net.cpp:124] Setting up conv1
I0428 20:01:31.933513 29743 net.cpp:131] Top shape: 64 50 8 8 (204800)
I0428 20:01:31.933516 29743 net.cpp:139] Memory required for data: 2863360
I0428 20:01:31.933526 29743 layer_factory.hpp:77] Creating layer pool1
I0428 20:01:31.933533 29743 net.cpp:86] Creating Layer pool1
I0428 20:01:31.933537 29743 net.cpp:408] pool1 <- conv1
I0428 20:01:31.933542 29743 net.cpp:382] pool1 -> pool1
I0428 20:01:31.933595 29743 net.cpp:124] Setting up pool1
I0428 20:01:31.933601 29743 net.cpp:131] Top shape: 64 50 4 4 (51200)
I0428 20:01:31.933604 29743 net.cpp:139] Memory required for data: 3068160
I0428 20:01:31.933607 29743 layer_factory.hpp:77] Creating layer ip1
I0428 20:01:31.933614 29743 net.cpp:86] Creating Layer ip1
I0428 20:01:31.933617 29743 net.cpp:408] ip1 <- pool1
I0428 20:01:31.933624 29743 net.cpp:382] ip1 -> ip1
I0428 20:01:31.933830 29743 net.cpp:124] Setting up ip1
I0428 20:01:31.933838 29743 net.cpp:131] Top shape: 64 25 (1600)
I0428 20:01:31.933841 29743 net.cpp:139] Memory required for data: 3074560
I0428 20:01:31.933848 29743 layer_factory.hpp:77] Creating layer relu1
I0428 20:01:31.933856 29743 net.cpp:86] Creating Layer relu1
I0428 20:01:31.933859 29743 net.cpp:408] relu1 <- ip1
I0428 20:01:31.933864 29743 net.cpp:369] relu1 -> ip1 (in-place)
I0428 20:01:31.934043 29743 net.cpp:124] Setting up relu1
I0428 20:01:31.934052 29743 net.cpp:131] Top shape: 64 25 (1600)
I0428 20:01:31.934056 29743 net.cpp:139] Memory required for data: 3080960
I0428 20:01:31.934059 29743 layer_factory.hpp:77] Creating layer ip2
I0428 20:01:31.934067 29743 net.cpp:86] Creating Layer ip2
I0428 20:01:31.934069 29743 net.cpp:408] ip2 <- ip1
I0428 20:01:31.934075 29743 net.cpp:382] ip2 -> ip2
I0428 20:01:31.934191 29743 net.cpp:124] Setting up ip2
I0428 20:01:31.934200 29743 net.cpp:131] Top shape: 64 10 (640)
I0428 20:01:31.934207 29743 net.cpp:139] Memory required for data: 3083520
I0428 20:01:31.934213 29743 layer_factory.hpp:77] Creating layer relu2
I0428 20:01:31.934219 29743 net.cpp:86] Creating Layer relu2
I0428 20:01:31.934223 29743 net.cpp:408] relu2 <- ip2
I0428 20:01:31.934228 29743 net.cpp:369] relu2 -> ip2 (in-place)
I0428 20:01:31.935081 29743 net.cpp:124] Setting up relu2
I0428 20:01:31.935093 29743 net.cpp:131] Top shape: 64 10 (640)
I0428 20:01:31.935112 29743 net.cpp:139] Memory required for data: 3086080
I0428 20:01:31.935115 29743 layer_factory.hpp:77] Creating layer loss
I0428 20:01:31.935137 29743 net.cpp:86] Creating Layer loss
I0428 20:01:31.935142 29743 net.cpp:408] loss <- ip2
I0428 20:01:31.935145 29743 net.cpp:408] loss <- label
I0428 20:01:31.935153 29743 net.cpp:382] loss -> loss
I0428 20:01:31.935171 29743 layer_factory.hpp:77] Creating layer loss
…
I0428 20:01:31.935847 29743 solver.cpp:173] Creating test net (#0) specified by net file: ECE595/mnist/train_test/var_everything2/lenet_train_test905.prototxt
I0428 20:01:31.935873 29743 net.cpp:296] The NetState phase (1) differed from the phase (0) specified by a rule in layer mnist
I0428 20:01:31.935976 29743 net.cpp:53] Initializing net from parameters: 
name: "LeNet"
state {
  phase: TEST
}
layer {
  name: "mnist"
  type: "Data"
  top: "data"
  top: "label"
  include {
    phase: TEST
  }
  transform_param {
    scale: 0.00390625
  }
  data_param {
    source: "examples/mnist/mnist_test_lmdb"
    batch_size: 100
    backend: LMDB
  }
}
layer {
  name: "conv0"
  type: "Convolution"
  bottom: "data"
  top: "conv0"
  param {
    lr_mult: 1
  }
  param {
    lr_mult: 2
  }
  convolution_param {
    num_output: 10
    kernel_size: 5
    stride: 1
    weight_filler {
      type: "xavier"
    }
    bias_filler {
      type: "constant"
    }
  }
}
layer {
  name: "pool0"
  type: "Pooling"
  bottom: "conv0"
  top: "pool0"
  pooling_param {
    pool: MAX
    kernel_size: 2
    stride: 2
  }
}
layer {
  name: "conv1"
  type: "Convolution"
  bottom: "pool0"
  top: "conv1"
  param {
    lr_mult: 1
  }
  param {
    lr_mult: 2
  }
  convolution_param {
    num_output: 50
    kernel_size: 5
    stride: 1
    weight_filler {
      type: "xavier"
    }
    bias_filler {
      type: "constant"
    }
  }
}
layer {
  name: "pool1"
  type: "Pooling"
  bottom: "conv1"
  top: "pool1"
  pooling_param {
    pool: MAX
    kernel_size: 2
    stride: 2
  }
}
layer {
  name: "ip1"
  type: "InnerProduct"
  bottom: "pool1"
  top: "ip1"
  param {
    lr_mult: 1
  }
  param {
    lr_mult: 2
  }
  inner_product_param {
    num_output: 25
    weight_filler {
      type: "xavier"
    }
    bias_filler {
      type: "constant"
    }
  }
}
layer {
  name: "relu1"
  type: "ReLU"
  bottom: "ip1"
  top: "ip1"
}
layer {
  name: "ip2"
  type: "InnerProduct"
  bottom: "ip1"
  top: "ip2"
  param {
    lr_mult: 1
  }
  param {
    lr_mult: 2
  }
  inner_product_param {
    num_output: 10
    weight_filler {
      type: "xavier"
    }
    bias_filler {
      type: "constant"
    }
  }
}
layer {
  name: "relu2"
  type: "ReLU"
  bottom: "ip2"
  top: "ip2"
}
layer {
  name: "accuracy"
  type: "Accuracy"
  bottom: "ip2"
  bottom: "label"
  top: "accuracy"
  include {
    phase: TEST
  }
}
layer {
  name: "loss"
  type: "SoftmaxWithLoss"
  bottom: "ip2"
  bottom: "label"
  top: "loss"
}
I0428 20:01:31.936043 29743 layer_factory.hpp:77] Creating layer mnist
I0428 20:01:31.936090 29743 db_lmdb.cpp:35] Opened lmdb examples/mnist/mnist_test_lmdb
I0428 20:01:31.936103 29743 net.cpp:86] Creating Layer mnist
I0428 20:01:31.936110 29743 net.cpp:382] mnist -> data
I0428 20:01:31.936117 29743 net.cpp:382] mnist -> label
I0428 20:01:31.936246 29743 data_layer.cpp:45] output data size: 100,1,28,28
I0428 20:01:31.938261 29743 net.cpp:124] Setting up mnist
I0428 20:01:31.938274 29743 net.cpp:131] Top shape: 100 1 28 28 (78400)
I0428 20:01:31.938282 29743 net.cpp:131] Top shape: 100 (100)
I0428 20:01:31.938284 29743 net.cpp:139] Memory required for data: 314000
I0428 20:01:31.938288 29743 layer_factory.hpp:77] Creating layer label_mnist_1_split
I0428 20:01:31.938295 29743 net.cpp:86] Creating Layer label_mnist_1_split
I0428 20:01:31.938298 29743 net.cpp:408] label_mnist_1_split <- label
I0428 20:01:31.938305 29743 net.cpp:382] label_mnist_1_split -> label_mnist_1_split_0
I0428 20:01:31.938313 29743 net.cpp:382] label_mnist_1_split -> label_mnist_1_split_1
I0428 20:01:31.938385 29743 net.cpp:124] Setting up label_mnist_1_split
I0428 20:01:31.938393 29743 net.cpp:131] Top shape: 100 (100)
I0428 20:01:31.938397 29743 net.cpp:131] Top shape: 100 (100)
I0428 20:01:31.938400 29743 net.cpp:139] Memory required for data: 314800
I0428 20:01:31.938419 29743 layer_factory.hpp:77] Creating layer conv0
I0428 20:01:31.938443 29743 net.cpp:86] Creating Layer conv0
I0428 20:01:31.938447 29743 net.cpp:408] conv0 <- data
I0428 20:01:31.938452 29743 net.cpp:382] conv0 -> conv0
I0428 20:01:31.940287 29743 net.cpp:124] Setting up conv0
I0428 20:01:31.940300 29743 net.cpp:131] Top shape: 100 10 24 24 (576000)
I0428 20:01:31.940304 29743 net.cpp:139] Memory required for data: 2618800
I0428 20:01:31.940312 29743 layer_factory.hpp:77] Creating layer pool0
I0428 20:01:31.940320 29743 net.cpp:86] Creating Layer pool0
I0428 20:01:31.940322 29743 net.cpp:408] pool0 <- conv0
I0428 20:01:31.940328 29743 net.cpp:382] pool0 -> pool0
I0428 20:01:31.940362 29743 net.cpp:124] Setting up pool0
I0428 20:01:31.940368 29743 net.cpp:131] Top shape: 100 10 12 12 (144000)
I0428 20:01:31.940371 29743 net.cpp:139] Memory required for data: 3194800
I0428 20:01:31.940374 29743 layer_factory.hpp:77] Creating layer conv1
I0428 20:01:31.940384 29743 net.cpp:86] Creating Layer conv1
I0428 20:01:31.940388 29743 net.cpp:408] conv1 <- pool0
I0428 20:01:31.940393 29743 net.cpp:382] conv1 -> conv1
I0428 20:01:31.942183 29743 net.cpp:124] Setting up conv1
I0428 20:01:31.942199 29743 net.cpp:131] Top shape: 100 50 8 8 (320000)
I0428 20:01:31.942203 29743 net.cpp:139] Memory required for data: 4474800
I0428 20:01:31.942219 29743 layer_factory.hpp:77] Creating layer pool1
I0428 20:01:31.942229 29743 net.cpp:86] Creating Layer pool1
I0428 20:01:31.942232 29743 net.cpp:408] pool1 <- conv1
I0428 20:01:31.942239 29743 net.cpp:382] pool1 -> pool1
I0428 20:01:31.942279 29743 net.cpp:124] Setting up pool1
I0428 20:01:31.942286 29743 net.cpp:131] Top shape: 100 50 4 4 (80000)
I0428 20:01:31.942289 29743 net.cpp:139] Memory required for data: 4794800
I0428 20:01:31.942293 29743 layer_factory.hpp:77] Creating layer ip1
I0428 20:01:31.942299 29743 net.cpp:86] Creating Layer ip1
I0428 20:01:31.942303 29743 net.cpp:408] ip1 <- pool1
I0428 20:01:31.942312 29743 net.cpp:382] ip1 -> ip1
I0428 20:01:31.942564 29743 net.cpp:124] Setting up ip1
I0428 20:01:31.942572 29743 net.cpp:131] Top shape: 100 25 (2500)
I0428 20:01:31.942576 29743 net.cpp:139] Memory required for data: 4804800
I0428 20:01:31.942584 29743 layer_factory.hpp:77] Creating layer relu1
I0428 20:01:31.942595 29743 net.cpp:86] Creating Layer relu1
I0428 20:01:31.942600 29743 net.cpp:408] relu1 <- ip1
I0428 20:01:31.942605 29743 net.cpp:369] relu1 -> ip1 (in-place)
I0428 20:01:31.942762 29743 net.cpp:124] Setting up relu1
I0428 20:01:31.942771 29743 net.cpp:131] Top shape: 100 25 (2500)
I0428 20:01:31.942775 29743 net.cpp:139] Memory required for data: 4814800
I0428 20:01:31.942778 29743 layer_factory.hpp:77] Creating layer ip2
I0428 20:01:31.942808 29743 net.cpp:86] Creating Layer ip2
I0428 20:01:31.942811 29743 net.cpp:408] ip2 <- ip1
I0428 20:01:31.942816 29743 net.cpp:382] ip2 -> ip2
I0428 20:01:31.942934 29743 net.cpp:124] Setting up ip2
I0428 20:01:31.942942 29743 net.cpp:131] Top shape: 100 10 (1000)
I0428 20:01:31.942946 29743 net.cpp:139] Memory required for data: 4818800
I0428 20:01:31.942951 29743 layer_factory.hpp:77] Creating layer relu2
I0428 20:01:31.942956 29743 net.cpp:86] Creating Layer relu2
I0428 20:01:31.942960 29743 net.cpp:408] relu2 <- ip2
I0428 20:01:31.942966 29743 net.cpp:369] relu2 -> ip2 (in-place)
I0428 20:01:31.943208 29743 net.cpp:124] Setting up relu2
I0428 20:01:31.943218 29743 net.cpp:131] Top shape: 100 10 (1000)
I0428 20:01:31.943235 29743 net.cpp:139] Memory required for data: 4822800
I0428 20:01:31.943239 29743 layer_factory.hpp:77] Creating layer ip2_relu2_0_split
I0428 20:01:31.943246 29743 net.cpp:86] Creating Layer ip2_relu2_0_split
I0428 20:01:31.943255 29743 net.cpp:408] ip2_relu2_0_split <- ip2
I0428 20:01:31.943260 29743 net.cpp:382] ip2_relu2_0_split -> ip2_relu2_0_split_0
I0428 20:01:31.943284 29743 net.cpp:382] ip2_relu2_0_split -> ip2_relu2_0_split_1
I0428 20:01:31.943325 29743 net.cpp:124] Setting up ip2_relu2_0_split
I0428 20:01:31.943354 29743 net.cpp:131] Top shape: 100 10 (1000)
I0428 20:01:31.943358 29743 net.cpp:131] Top shape: 100 10 (1000)
I0428 20:01:31.943361 29743 net.cpp:139] Memory required for data: 4830800
I0428 20:01:31.943366 29743 layer_factory.hpp:77] Creating layer accuracy
I0428 20:01:31.943370 29743 net.cpp:86] Creating Layer accuracy
I0428 20:01:31.943373 29743 net.cpp:408] accuracy <- ip2_relu2_0_split_0
I0428 20:01:31.943378 29743 net.cpp:408] accuracy <- label_mnist_1_split_0
I0428 20:01:31.943383 29743 net.cpp:382] accuracy -> accuracy
…
