…
I0428 20:17:37.947855   911 net.cpp:296] The NetState phase (0) differed from the phase (1) specified by a rule in layer mnist
I0428 20:17:37.947868   911 net.cpp:296] The NetState phase (0) differed from the phase (1) specified by a rule in layer accuracy
I0428 20:17:37.947944   911 net.cpp:53] Initializing net from parameters: 
name: "LeNet"
state {
  phase: TRAIN
  level: 0
  stage: ""
}
layer {
  name: "mnist"
  type: "Data"
  top: "data"
  top: "label"
  include {
    phase: TRAIN
  }
  transform_param {
    scale: 0.00390625
  }
  data_param {
    source: "examples/mnist/mnist_train_lmdb"
    batch_size: 64
    backend: LMDB
  }
}
layer {
  name: "conv0"
  type: "Convolution"
  bottom: "data"
  top: "conv0"
  param {
    lr_mult: 1
  }
  param {
    lr_mult: 2
  }
  convolution_param {
    num_output: 50
    kernel_size: 5
    stride: 1
    weight_filler {
      type: "xavier"
    }
    bias_filler {
      type: "constant"
    }
  }
}
layer {
  name: "pool0"
  type: "Pooling"
  bottom: "conv0"
  top: "pool0"
  pooling_param {
    pool: MAX
    kernel_size: 2
    stride: 2
  }
}
layer {
  name: "conv1"
  type: "Convolution"
  bottom: "pool0"
  top: "conv1"
  param {
    lr_mult: 1
  }
  param {
    lr_mult: 2
  }
  convolution_param {
    num_output: 10
    kernel_size: 5
    stride: 1
    weight_filler {
      type: "xavier"
    }
    bias_filler {
      type: "constant"
    }
  }
}
layer {
  name: "pool1"
  type: "Pooling"
  bottom: "conv1"
  top: "pool1"
  pooling_param {
    pool: MAX
    kernel_size: 2
    stride: 2
  }
}
layer {
  name: "ip1"
  type: "InnerProduct"
  bottom: "pool1"
  top: "ip1"
  param {
    lr_mult: 1
  }
  param {
    lr_mult: 2
  }
  inner_product_param {
    num_output: 10
    weight_filler {
      type: "xavier"
    }
    bias_filler {
      type: "constant"
    }
  }
}
layer {
  name: "relu1"
  type: "ReLU"
  bottom: "ip1"
  top: "ip1"
}
layer {
  name: "ip2"
  type: "InnerProduct"
  bottom: "ip1"
  top: "ip2"
  param {
    lr_mult: 1
  }
  param {
    lr_mult: 2
  }
  inner_product_param {
    num_output: 10
    weight_filler {
      type: "xavier"
    }
    bias_filler {
      type: "constant"
    }
  }
}
layer {
  name: "relu2"
  type: "ReLU"
  bottom: "ip2"
  top: "ip2"
}
layer {
  name: "ip3"
  type: "InnerProduct"
  bottom: "ip2"
  top: "ip3"
  param {
    lr_mult: 1
  }
  param {
    lr_mult: 2
  }
  inner_product_param {
    num_output: 10
    weight_filler {
      type: "xavier"
    }
    bias_filler {
      type: "constant"
    }
  }
}
layer {
  name: "relu3"
  type: "ReLU"
  bottom: "ip3"
  top: "ip3"
}
layer {
  name: "loss"
  type: "SoftmaxWithLoss"
  bottom: "ip3"
  bottom: "label"
  top: "loss"
}
I0428 20:17:37.948004   911 layer_factory.hpp:77] Creating layer mnist
I0428 20:17:37.948082   911 db_lmdb.cpp:35] Opened lmdb examples/mnist/mnist_train_lmdb
I0428 20:17:37.948101   911 net.cpp:86] Creating Layer mnist
I0428 20:17:37.948107   911 net.cpp:382] mnist -> data
I0428 20:17:37.948125   911 net.cpp:382] mnist -> label
I0428 20:17:37.949125   911 data_layer.cpp:45] output data size: 64,1,28,28
I0428 20:17:37.951329   911 net.cpp:124] Setting up mnist
I0428 20:17:37.951359   911 net.cpp:131] Top shape: 64 1 28 28 (50176)
I0428 20:17:37.951364   911 net.cpp:131] Top shape: 64 (64)
I0428 20:17:37.951367   911 net.cpp:139] Memory required for data: 200960
I0428 20:17:37.951373   911 layer_factory.hpp:77] Creating layer conv0
I0428 20:17:37.951396   911 net.cpp:86] Creating Layer conv0
I0428 20:17:37.951413   911 net.cpp:408] conv0 <- data
I0428 20:17:37.951422   911 net.cpp:382] conv0 -> conv0
I0428 20:17:38.177609   911 net.cpp:124] Setting up conv0
I0428 20:17:38.177651   911 net.cpp:131] Top shape: 64 50 24 24 (1843200)
I0428 20:17:38.177655   911 net.cpp:139] Memory required for data: 7573760
I0428 20:17:38.177670   911 layer_factory.hpp:77] Creating layer pool0
I0428 20:17:38.177683   911 net.cpp:86] Creating Layer pool0
I0428 20:17:38.177687   911 net.cpp:408] pool0 <- conv0
I0428 20:17:38.177707   911 net.cpp:382] pool0 -> pool0
I0428 20:17:38.177753   911 net.cpp:124] Setting up pool0
I0428 20:17:38.177768   911 net.cpp:131] Top shape: 64 50 12 12 (460800)
I0428 20:17:38.177772   911 net.cpp:139] Memory required for data: 9416960
I0428 20:17:38.177774   911 layer_factory.hpp:77] Creating layer conv1
I0428 20:17:38.177784   911 net.cpp:86] Creating Layer conv1
I0428 20:17:38.177788   911 net.cpp:408] conv1 <- pool0
I0428 20:17:38.177793   911 net.cpp:382] conv1 -> conv1
I0428 20:17:38.180572   911 net.cpp:124] Setting up conv1
I0428 20:17:38.180600   911 net.cpp:131] Top shape: 64 10 8 8 (40960)
I0428 20:17:38.180604   911 net.cpp:139] Memory required for data: 9580800
I0428 20:17:38.180613   911 layer_factory.hpp:77] Creating layer pool1
I0428 20:17:38.180619   911 net.cpp:86] Creating Layer pool1
I0428 20:17:38.180622   911 net.cpp:408] pool1 <- conv1
I0428 20:17:38.180626   911 net.cpp:382] pool1 -> pool1
I0428 20:17:38.180676   911 net.cpp:124] Setting up pool1
I0428 20:17:38.180682   911 net.cpp:131] Top shape: 64 10 4 4 (10240)
I0428 20:17:38.180685   911 net.cpp:139] Memory required for data: 9621760
I0428 20:17:38.180688   911 layer_factory.hpp:77] Creating layer ip1
I0428 20:17:38.180694   911 net.cpp:86] Creating Layer ip1
I0428 20:17:38.180697   911 net.cpp:408] ip1 <- pool1
I0428 20:17:38.180702   911 net.cpp:382] ip1 -> ip1
I0428 20:17:38.180822   911 net.cpp:124] Setting up ip1
I0428 20:17:38.180830   911 net.cpp:131] Top shape: 64 10 (640)
I0428 20:17:38.180833   911 net.cpp:139] Memory required for data: 9624320
I0428 20:17:38.180857   911 layer_factory.hpp:77] Creating layer relu1
I0428 20:17:38.180867   911 net.cpp:86] Creating Layer relu1
I0428 20:17:38.180871   911 net.cpp:408] relu1 <- ip1
I0428 20:17:38.180876   911 net.cpp:369] relu1 -> ip1 (in-place)
I0428 20:17:38.181061   911 net.cpp:124] Setting up relu1
I0428 20:17:38.181069   911 net.cpp:131] Top shape: 64 10 (640)
I0428 20:17:38.181073   911 net.cpp:139] Memory required for data: 9626880
I0428 20:17:38.181077   911 layer_factory.hpp:77] Creating layer ip2
I0428 20:17:38.181082   911 net.cpp:86] Creating Layer ip2
I0428 20:17:38.181087   911 net.cpp:408] ip2 <- ip1
I0428 20:17:38.181092   911 net.cpp:382] ip2 -> ip2
I0428 20:17:38.181239   911 net.cpp:124] Setting up ip2
I0428 20:17:38.181246   911 net.cpp:131] Top shape: 64 10 (640)
I0428 20:17:38.181248   911 net.cpp:139] Memory required for data: 9629440
I0428 20:17:38.181253   911 layer_factory.hpp:77] Creating layer relu2
I0428 20:17:38.181259   911 net.cpp:86] Creating Layer relu2
I0428 20:17:38.181262   911 net.cpp:408] relu2 <- ip2
I0428 20:17:38.181265   911 net.cpp:369] relu2 -> ip2 (in-place)
I0428 20:17:38.182001   911 net.cpp:124] Setting up relu2
I0428 20:17:38.182013   911 net.cpp:131] Top shape: 64 10 (640)
I0428 20:17:38.182016   911 net.cpp:139] Memory required for data: 9632000
I0428 20:17:38.182020   911 layer_factory.hpp:77] Creating layer ip3
I0428 20:17:38.182027   911 net.cpp:86] Creating Layer ip3
I0428 20:17:38.182031   911 net.cpp:408] ip3 <- ip2
I0428 20:17:38.182036   911 net.cpp:382] ip3 -> ip3
I0428 20:17:38.182159   911 net.cpp:124] Setting up ip3
I0428 20:17:38.182166   911 net.cpp:131] Top shape: 64 10 (640)
I0428 20:17:38.182169   911 net.cpp:139] Memory required for data: 9634560
I0428 20:17:38.182176   911 layer_factory.hpp:77] Creating layer relu3
I0428 20:17:38.182181   911 net.cpp:86] Creating Layer relu3
I0428 20:17:38.182184   911 net.cpp:408] relu3 <- ip3
I0428 20:17:38.182188   911 net.cpp:369] relu3 -> ip3 (in-place)
I0428 20:17:38.182353   911 net.cpp:124] Setting up relu3
I0428 20:17:38.182360   911 net.cpp:131] Top shape: 64 10 (640)
I0428 20:17:38.182363   911 net.cpp:139] Memory required for data: 9637120
I0428 20:17:38.182366   911 layer_factory.hpp:77] Creating layer loss
I0428 20:17:38.182371   911 net.cpp:86] Creating Layer loss
I0428 20:17:38.182374   911 net.cpp:408] loss <- ip3
I0428 20:17:38.182379   911 net.cpp:408] loss <- label
I0428 20:17:38.182384   911 net.cpp:382] loss -> loss
I0428 20:17:38.182399   911 layer_factory.hpp:77] Creating layer loss
…
I0428 20:17:38.182994   911 solver.cpp:173] Creating test net (#0) specified by net file: ECE595/mnist/train_test/var_everything2/lenet_train_test1299.prototxt
I0428 20:17:38.183037   911 net.cpp:296] The NetState phase (1) differed from the phase (0) specified by a rule in layer mnist
I0428 20:17:38.183152   911 net.cpp:53] Initializing net from parameters: 
name: "LeNet"
state {
  phase: TEST
}
layer {
  name: "mnist"
  type: "Data"
  top: "data"
  top: "label"
  include {
    phase: TEST
  }
  transform_param {
    scale: 0.00390625
  }
  data_param {
    source: "examples/mnist/mnist_test_lmdb"
    batch_size: 100
    backend: LMDB
  }
}
layer {
  name: "conv0"
  type: "Convolution"
  bottom: "data"
  top: "conv0"
  param {
    lr_mult: 1
  }
  param {
    lr_mult: 2
  }
  convolution_param {
    num_output: 50
    kernel_size: 5
    stride: 1
    weight_filler {
      type: "xavier"
    }
    bias_filler {
      type: "constant"
    }
  }
}
layer {
  name: "pool0"
  type: "Pooling"
  bottom: "conv0"
  top: "pool0"
  pooling_param {
    pool: MAX
    kernel_size: 2
    stride: 2
  }
}
layer {
  name: "conv1"
  type: "Convolution"
  bottom: "pool0"
  top: "conv1"
  param {
    lr_mult: 1
  }
  param {
    lr_mult: 2
  }
  convolution_param {
    num_output: 10
    kernel_size: 5
    stride: 1
    weight_filler {
      type: "xavier"
    }
    bias_filler {
      type: "constant"
    }
  }
}
layer {
  name: "pool1"
  type: "Pooling"
  bottom: "conv1"
  top: "pool1"
  pooling_param {
    pool: MAX
    kernel_size: 2
    stride: 2
  }
}
layer {
  name: "ip1"
  type: "InnerProduct"
  bottom: "pool1"
  top: "ip1"
  param {
    lr_mult: 1
  }
  param {
    lr_mult: 2
  }
  inner_product_param {
    num_output: 10
    weight_filler {
      type: "xavier"
    }
    bias_filler {
      type: "constant"
    }
  }
}
layer {
  name: "relu1"
  type: "ReLU"
  bottom: "ip1"
  top: "ip1"
}
layer {
  name: "ip2"
  type: "InnerProduct"
  bottom: "ip1"
  top: "ip2"
  param {
    lr_mult: 1
  }
  param {
    lr_mult: 2
  }
  inner_product_param {
    num_output: 10
    weight_filler {
      type: "xavier"
    }
    bias_filler {
      type: "constant"
    }
  }
}
layer {
  name: "relu2"
  type: "ReLU"
  bottom: "ip2"
  top: "ip2"
}
layer {
  name: "ip3"
  type: "InnerProduct"
  bottom: "ip2"
  top: "ip3"
  param {
    lr_mult: 1
  }
  param {
    lr_mult: 2
  }
  inner_product_param {
    num_output: 10
    weight_filler {
      type: "xavier"
    }
    bias_filler {
      type: "constant"
    }
  }
}
layer {
  name: "relu3"
  type: "ReLU"
  bottom: "ip3"
  top: "ip3"
}
layer {
  name: "accuracy"
  type: "Accuracy"
  bottom: "ip3"
  bottom: "label"
  top: "accuracy"
  include {
    phase: TEST
  }
}
layer {
  name: "loss"
  type: "SoftmaxWithLoss"
  bottom: "ip3"
  bottom: "label"
  top: "loss"
}
I0428 20:17:38.183239   911 layer_factory.hpp:77] Creating layer mnist
I0428 20:17:38.183282   911 db_lmdb.cpp:35] Opened lmdb examples/mnist/mnist_test_lmdb
I0428 20:17:38.183296   911 net.cpp:86] Creating Layer mnist
I0428 20:17:38.183301   911 net.cpp:382] mnist -> data
I0428 20:17:38.183310   911 net.cpp:382] mnist -> label
I0428 20:17:38.183408   911 data_layer.cpp:45] output data size: 100,1,28,28
I0428 20:17:38.185425   911 net.cpp:124] Setting up mnist
I0428 20:17:38.185453   911 net.cpp:131] Top shape: 100 1 28 28 (78400)
I0428 20:17:38.185458   911 net.cpp:131] Top shape: 100 (100)
I0428 20:17:38.185461   911 net.cpp:139] Memory required for data: 314000
I0428 20:17:38.185464   911 layer_factory.hpp:77] Creating layer label_mnist_1_split
I0428 20:17:38.185549   911 net.cpp:86] Creating Layer label_mnist_1_split
I0428 20:17:38.185552   911 net.cpp:408] label_mnist_1_split <- label
I0428 20:17:38.185559   911 net.cpp:382] label_mnist_1_split -> label_mnist_1_split_0
I0428 20:17:38.185564   911 net.cpp:382] label_mnist_1_split -> label_mnist_1_split_1
I0428 20:17:38.185614   911 net.cpp:124] Setting up label_mnist_1_split
I0428 20:17:38.185621   911 net.cpp:131] Top shape: 100 (100)
I0428 20:17:38.185626   911 net.cpp:131] Top shape: 100 (100)
I0428 20:17:38.185628   911 net.cpp:139] Memory required for data: 314800
I0428 20:17:38.185631   911 layer_factory.hpp:77] Creating layer conv0
I0428 20:17:38.185639   911 net.cpp:86] Creating Layer conv0
I0428 20:17:38.185642   911 net.cpp:408] conv0 <- data
I0428 20:17:38.185648   911 net.cpp:382] conv0 -> conv0
I0428 20:17:38.187412   911 net.cpp:124] Setting up conv0
I0428 20:17:38.187427   911 net.cpp:131] Top shape: 100 50 24 24 (2880000)
I0428 20:17:38.187432   911 net.cpp:139] Memory required for data: 11834800
I0428 20:17:38.187440   911 layer_factory.hpp:77] Creating layer pool0
I0428 20:17:38.187446   911 net.cpp:86] Creating Layer pool0
I0428 20:17:38.187449   911 net.cpp:408] pool0 <- conv0
I0428 20:17:38.187455   911 net.cpp:382] pool0 -> pool0
I0428 20:17:38.187491   911 net.cpp:124] Setting up pool0
I0428 20:17:38.187496   911 net.cpp:131] Top shape: 100 50 12 12 (720000)
I0428 20:17:38.187500   911 net.cpp:139] Memory required for data: 14714800
I0428 20:17:38.187502   911 layer_factory.hpp:77] Creating layer conv1
I0428 20:17:38.187512   911 net.cpp:86] Creating Layer conv1
I0428 20:17:38.187515   911 net.cpp:408] conv1 <- pool0
I0428 20:17:38.187520   911 net.cpp:382] conv1 -> conv1
I0428 20:17:38.189251   911 net.cpp:124] Setting up conv1
I0428 20:17:38.189265   911 net.cpp:131] Top shape: 100 10 8 8 (64000)
I0428 20:17:38.189270   911 net.cpp:139] Memory required for data: 14970800
I0428 20:17:38.189277   911 layer_factory.hpp:77] Creating layer pool1
I0428 20:17:38.189285   911 net.cpp:86] Creating Layer pool1
I0428 20:17:38.189287   911 net.cpp:408] pool1 <- conv1
I0428 20:17:38.189293   911 net.cpp:382] pool1 -> pool1
I0428 20:17:38.189328   911 net.cpp:124] Setting up pool1
I0428 20:17:38.189333   911 net.cpp:131] Top shape: 100 10 4 4 (16000)
I0428 20:17:38.189337   911 net.cpp:139] Memory required for data: 15034800
I0428 20:17:38.189339   911 layer_factory.hpp:77] Creating layer ip1
I0428 20:17:38.189345   911 net.cpp:86] Creating Layer ip1
I0428 20:17:38.189348   911 net.cpp:408] ip1 <- pool1
I0428 20:17:38.189353   911 net.cpp:382] ip1 -> ip1
I0428 20:17:38.189457   911 net.cpp:124] Setting up ip1
I0428 20:17:38.189465   911 net.cpp:131] Top shape: 100 10 (1000)
I0428 20:17:38.189477   911 net.cpp:139] Memory required for data: 15038800
I0428 20:17:38.189484   911 layer_factory.hpp:77] Creating layer relu1
I0428 20:17:38.189489   911 net.cpp:86] Creating Layer relu1
I0428 20:17:38.189492   911 net.cpp:408] relu1 <- ip1
I0428 20:17:38.189498   911 net.cpp:369] relu1 -> ip1 (in-place)
I0428 20:17:38.189694   911 net.cpp:124] Setting up relu1
I0428 20:17:38.189703   911 net.cpp:131] Top shape: 100 10 (1000)
I0428 20:17:38.189707   911 net.cpp:139] Memory required for data: 15042800
I0428 20:17:38.189709   911 layer_factory.hpp:77] Creating layer ip2
I0428 20:17:38.189716   911 net.cpp:86] Creating Layer ip2
I0428 20:17:38.189719   911 net.cpp:408] ip2 <- ip1
I0428 20:17:38.189724   911 net.cpp:382] ip2 -> ip2
I0428 20:17:38.189817   911 net.cpp:124] Setting up ip2
I0428 20:17:38.189824   911 net.cpp:131] Top shape: 100 10 (1000)
I0428 20:17:38.189827   911 net.cpp:139] Memory required for data: 15046800
I0428 20:17:38.189832   911 layer_factory.hpp:77] Creating layer relu2
I0428 20:17:38.189836   911 net.cpp:86] Creating Layer relu2
I0428 20:17:38.189841   911 net.cpp:408] relu2 <- ip2
I0428 20:17:38.189846   911 net.cpp:369] relu2 -> ip2 (in-place)
I0428 20:17:38.190006   911 net.cpp:124] Setting up relu2
I0428 20:17:38.190013   911 net.cpp:131] Top shape: 100 10 (1000)
I0428 20:17:38.190016   911 net.cpp:139] Memory required for data: 15050800
I0428 20:17:38.190018   911 layer_factory.hpp:77] Creating layer ip3
I0428 20:17:38.190024   911 net.cpp:86] Creating Layer ip3
I0428 20:17:38.190027   911 net.cpp:408] ip3 <- ip2
I0428 20:17:38.190032   911 net.cpp:382] ip3 -> ip3
I0428 20:17:38.190155   911 net.cpp:124] Setting up ip3
I0428 20:17:38.190162   911 net.cpp:131] Top shape: 100 10 (1000)
I0428 20:17:38.190165   911 net.cpp:139] Memory required for data: 15054800
I0428 20:17:38.190173   911 layer_factory.hpp:77] Creating layer relu3
I0428 20:17:38.190178   911 net.cpp:86] Creating Layer relu3
I0428 20:17:38.190181   911 net.cpp:408] relu3 <- ip3
I0428 20:17:38.190186   911 net.cpp:369] relu3 -> ip3 (in-place)
I0428 20:17:38.191040   911 net.cpp:124] Setting up relu3
I0428 20:17:38.191051   911 net.cpp:131] Top shape: 100 10 (1000)
I0428 20:17:38.191056   911 net.cpp:139] Memory required for data: 15058800
I0428 20:17:38.191058   911 layer_factory.hpp:77] Creating layer ip3_relu3_0_split
I0428 20:17:38.191064   911 net.cpp:86] Creating Layer ip3_relu3_0_split
I0428 20:17:38.191067   911 net.cpp:408] ip3_relu3_0_split <- ip3
I0428 20:17:38.191072   911 net.cpp:382] ip3_relu3_0_split -> ip3_relu3_0_split_0
I0428 20:17:38.191078   911 net.cpp:382] ip3_relu3_0_split -> ip3_relu3_0_split_1
I0428 20:17:38.191128   911 net.cpp:124] Setting up ip3_relu3_0_split
I0428 20:17:38.191134   911 net.cpp:131] Top shape: 100 10 (1000)
I0428 20:17:38.191138   911 net.cpp:131] Top shape: 100 10 (1000)
I0428 20:17:38.191140   911 net.cpp:139] Memory required for data: 15066800
I0428 20:17:38.191143   911 layer_factory.hpp:77] Creating layer accuracy
I0428 20:17:38.191148   911 net.cpp:86] Creating Layer accuracy
I0428 20:17:38.191151   911 net.cpp:408] accuracy <- ip3_relu3_0_split_0
I0428 20:17:38.191155   911 net.cpp:408] accuracy <- label_mnist_1_split_0
I0428 20:17:38.191159   911 net.cpp:382] accuracy -> accuracy
…
