…
I0428 19:28:19.008160 21591 net.cpp:296] The NetState phase (0) differed from the phase (1) specified by a rule in layer mnist
I0428 19:28:19.008179 21591 net.cpp:296] The NetState phase (0) differed from the phase (1) specified by a rule in layer accuracy
I0428 19:28:19.008263 21591 net.cpp:53] Initializing net from parameters: 
name: "LeNet"
state {
  phase: TRAIN
  level: 0
  stage: ""
}
layer {
  name: "mnist"
  type: "Data"
  top: "data"
  top: "label"
  include {
    phase: TRAIN
  }
  transform_param {
    scale: 0.00390625
  }
  data_param {
    source: "examples/mnist/mnist_train_lmdb"
    batch_size: 64
    backend: LMDB
  }
}
layer {
  name: "ip1"
  type: "InnerProduct"
  bottom: "data"
  top: "ip1"
  param {
    lr_mult: 1
  }
  param {
    lr_mult: 2
  }
  inner_product_param {
    num_output: 25
    weight_filler {
      type: "xavier"
    }
    bias_filler {
      type: "constant"
    }
  }
}
layer {
  name: "relu1"
  type: "ReLU"
  bottom: "ip1"
  top: "ip1"
}
layer {
  name: "ip2"
  type: "InnerProduct"
  bottom: "ip1"
  top: "ip2"
  param {
    lr_mult: 1
  }
  param {
    lr_mult: 2
  }
  inner_product_param {
    num_output: 10
    weight_filler {
      type: "xavier"
    }
    bias_filler {
      type: "constant"
    }
  }
}
layer {
  name: "relu2"
  type: "ReLU"
  bottom: "ip2"
  top: "ip2"
}
layer {
  name: "ip3"
  type: "InnerProduct"
  bottom: "ip2"
  top: "ip3"
  param {
    lr_mult: 1
  }
  param {
    lr_mult: 2
  }
  inner_product_param {
    num_output: 10
    weight_filler {
      type: "xavier"
    }
    bias_filler {
      type: "constant"
    }
  }
}
layer {
  name: "relu3"
  type: "ReLU"
  bottom: "ip3"
  top: "ip3"
}
layer {
  name: "loss"
  type: "SoftmaxWithLoss"
  bottom: "ip3"
  bottom: "label"
  top: "loss"
}
I0428 19:28:19.008361 21591 layer_factory.hpp:77] Creating layer mnist
I0428 19:28:19.008493 21591 db_lmdb.cpp:35] Opened lmdb examples/mnist/mnist_train_lmdb
I0428 19:28:19.008527 21591 net.cpp:86] Creating Layer mnist
I0428 19:28:19.008541 21591 net.cpp:382] mnist -> data
I0428 19:28:19.008572 21591 net.cpp:382] mnist -> label
I0428 19:28:19.009771 21591 data_layer.cpp:45] output data size: 64,1,28,28
I0428 19:28:19.012240 21591 net.cpp:124] Setting up mnist
I0428 19:28:19.012262 21591 net.cpp:131] Top shape: 64 1 28 28 (50176)
I0428 19:28:19.012272 21591 net.cpp:131] Top shape: 64 (64)
I0428 19:28:19.012279 21591 net.cpp:139] Memory required for data: 200960
I0428 19:28:19.012290 21591 layer_factory.hpp:77] Creating layer ip1
I0428 19:28:19.012308 21591 net.cpp:86] Creating Layer ip1
I0428 19:28:19.012322 21591 net.cpp:408] ip1 <- data
I0428 19:28:19.012339 21591 net.cpp:382] ip1 -> ip1
I0428 19:28:19.012688 21591 net.cpp:124] Setting up ip1
I0428 19:28:19.012701 21591 net.cpp:131] Top shape: 64 25 (1600)
I0428 19:28:19.012708 21591 net.cpp:139] Memory required for data: 207360
I0428 19:28:19.012728 21591 layer_factory.hpp:77] Creating layer relu1
I0428 19:28:19.012742 21591 net.cpp:86] Creating Layer relu1
I0428 19:28:19.012754 21591 net.cpp:408] relu1 <- ip1
I0428 19:28:19.012766 21591 net.cpp:369] relu1 -> ip1 (in-place)
I0428 19:28:19.289250 21591 net.cpp:124] Setting up relu1
I0428 19:28:19.289279 21591 net.cpp:131] Top shape: 64 25 (1600)
I0428 19:28:19.289284 21591 net.cpp:139] Memory required for data: 213760
I0428 19:28:19.289291 21591 layer_factory.hpp:77] Creating layer ip2
I0428 19:28:19.289306 21591 net.cpp:86] Creating Layer ip2
I0428 19:28:19.289330 21591 net.cpp:408] ip2 <- ip1
I0428 19:28:19.289342 21591 net.cpp:382] ip2 -> ip2
I0428 19:28:19.289471 21591 net.cpp:124] Setting up ip2
I0428 19:28:19.289480 21591 net.cpp:131] Top shape: 64 10 (640)
I0428 19:28:19.289485 21591 net.cpp:139] Memory required for data: 216320
I0428 19:28:19.289500 21591 layer_factory.hpp:77] Creating layer relu2
I0428 19:28:19.289512 21591 net.cpp:86] Creating Layer relu2
I0428 19:28:19.289520 21591 net.cpp:408] relu2 <- ip2
I0428 19:28:19.289526 21591 net.cpp:369] relu2 -> ip2 (in-place)
I0428 19:28:19.290290 21591 net.cpp:124] Setting up relu2
I0428 19:28:19.290304 21591 net.cpp:131] Top shape: 64 10 (640)
I0428 19:28:19.290309 21591 net.cpp:139] Memory required for data: 218880
I0428 19:28:19.290315 21591 layer_factory.hpp:77] Creating layer ip3
I0428 19:28:19.290325 21591 net.cpp:86] Creating Layer ip3
I0428 19:28:19.290331 21591 net.cpp:408] ip3 <- ip2
I0428 19:28:19.290339 21591 net.cpp:382] ip3 -> ip3
I0428 19:28:19.290455 21591 net.cpp:124] Setting up ip3
I0428 19:28:19.290465 21591 net.cpp:131] Top shape: 64 10 (640)
I0428 19:28:19.290470 21591 net.cpp:139] Memory required for data: 221440
I0428 19:28:19.290483 21591 layer_factory.hpp:77] Creating layer relu3
I0428 19:28:19.290496 21591 net.cpp:86] Creating Layer relu3
I0428 19:28:19.290503 21591 net.cpp:408] relu3 <- ip3
I0428 19:28:19.290510 21591 net.cpp:369] relu3 -> ip3 (in-place)
I0428 19:28:19.290663 21591 net.cpp:124] Setting up relu3
I0428 19:28:19.290673 21591 net.cpp:131] Top shape: 64 10 (640)
I0428 19:28:19.290678 21591 net.cpp:139] Memory required for data: 224000
I0428 19:28:19.290683 21591 layer_factory.hpp:77] Creating layer loss
I0428 19:28:19.290712 21591 net.cpp:86] Creating Layer loss
I0428 19:28:19.290719 21591 net.cpp:408] loss <- ip3
I0428 19:28:19.290724 21591 net.cpp:408] loss <- label
I0428 19:28:19.290733 21591 net.cpp:382] loss -> loss
I0428 19:28:19.290751 21591 layer_factory.hpp:77] Creating layer loss
…
I0428 19:28:19.292199 21591 solver.cpp:173] Creating test net (#0) specified by net file: ECE595/mnist/train_test/var_everything2/lenet_train_test21.prototxt
I0428 19:28:19.292227 21591 net.cpp:296] The NetState phase (1) differed from the phase (0) specified by a rule in layer mnist
I0428 19:28:19.292299 21591 net.cpp:53] Initializing net from parameters: 
name: "LeNet"
state {
  phase: TEST
}
layer {
  name: "mnist"
  type: "Data"
  top: "data"
  top: "label"
  include {
    phase: TEST
  }
  transform_param {
    scale: 0.00390625
  }
  data_param {
    source: "examples/mnist/mnist_test_lmdb"
    batch_size: 100
    backend: LMDB
  }
}
layer {
  name: "ip1"
  type: "InnerProduct"
  bottom: "data"
  top: "ip1"
  param {
    lr_mult: 1
  }
  param {
    lr_mult: 2
  }
  inner_product_param {
    num_output: 25
    weight_filler {
      type: "xavier"
    }
    bias_filler {
      type: "constant"
    }
  }
}
layer {
  name: "relu1"
  type: "ReLU"
  bottom: "ip1"
  top: "ip1"
}
layer {
  name: "ip2"
  type: "InnerProduct"
  bottom: "ip1"
  top: "ip2"
  param {
    lr_mult: 1
  }
  param {
    lr_mult: 2
  }
  inner_product_param {
    num_output: 10
    weight_filler {
      type: "xavier"
    }
    bias_filler {
      type: "constant"
    }
  }
}
layer {
  name: "relu2"
  type: "ReLU"
  bottom: "ip2"
  top: "ip2"
}
layer {
  name: "ip3"
  type: "InnerProduct"
  bottom: "ip2"
  top: "ip3"
  param {
    lr_mult: 1
  }
  param {
    lr_mult: 2
  }
  inner_product_param {
    num_output: 10
    weight_filler {
      type: "xavier"
    }
    bias_filler {
      type: "constant"
    }
  }
}
layer {
  name: "relu3"
  type: "ReLU"
  bottom: "ip3"
  top: "ip3"
}
layer {
  name: "accuracy"
  type: "Accuracy"
  bottom: "ip3"
  bottom: "label"
  top: "accuracy"
  include {
    phase: TEST
  }
}
layer {
  name: "loss"
  type: "SoftmaxWithLoss"
  bottom: "ip3"
  bottom: "label"
  top: "loss"
}
I0428 19:28:19.292389 21591 layer_factory.hpp:77] Creating layer mnist
I0428 19:28:19.292448 21591 db_lmdb.cpp:35] Opened lmdb examples/mnist/mnist_test_lmdb
I0428 19:28:19.292465 21591 net.cpp:86] Creating Layer mnist
I0428 19:28:19.292474 21591 net.cpp:382] mnist -> data
I0428 19:28:19.292500 21591 net.cpp:382] mnist -> label
I0428 19:28:19.292623 21591 data_layer.cpp:45] output data size: 100,1,28,28
I0428 19:28:19.294776 21591 net.cpp:124] Setting up mnist
I0428 19:28:19.294809 21591 net.cpp:131] Top shape: 100 1 28 28 (78400)
I0428 19:28:19.294818 21591 net.cpp:131] Top shape: 100 (100)
I0428 19:28:19.294839 21591 net.cpp:139] Memory required for data: 314000
I0428 19:28:19.294845 21591 layer_factory.hpp:77] Creating layer label_mnist_1_split
I0428 19:28:19.294860 21591 net.cpp:86] Creating Layer label_mnist_1_split
I0428 19:28:19.294868 21591 net.cpp:408] label_mnist_1_split <- label
I0428 19:28:19.294878 21591 net.cpp:382] label_mnist_1_split -> label_mnist_1_split_0
I0428 19:28:19.294888 21591 net.cpp:382] label_mnist_1_split -> label_mnist_1_split_1
I0428 19:28:19.294980 21591 net.cpp:124] Setting up label_mnist_1_split
I0428 19:28:19.294988 21591 net.cpp:131] Top shape: 100 (100)
I0428 19:28:19.294996 21591 net.cpp:131] Top shape: 100 (100)
I0428 19:28:19.295001 21591 net.cpp:139] Memory required for data: 314800
I0428 19:28:19.295007 21591 layer_factory.hpp:77] Creating layer ip1
I0428 19:28:19.295017 21591 net.cpp:86] Creating Layer ip1
I0428 19:28:19.295023 21591 net.cpp:408] ip1 <- data
I0428 19:28:19.295032 21591 net.cpp:382] ip1 -> ip1
I0428 19:28:19.295248 21591 net.cpp:124] Setting up ip1
I0428 19:28:19.295258 21591 net.cpp:131] Top shape: 100 25 (2500)
I0428 19:28:19.295264 21591 net.cpp:139] Memory required for data: 324800
I0428 19:28:19.295276 21591 layer_factory.hpp:77] Creating layer relu1
I0428 19:28:19.295284 21591 net.cpp:86] Creating Layer relu1
I0428 19:28:19.295291 21591 net.cpp:408] relu1 <- ip1
I0428 19:28:19.295298 21591 net.cpp:369] relu1 -> ip1 (in-place)
I0428 19:28:19.296262 21591 net.cpp:124] Setting up relu1
I0428 19:28:19.296277 21591 net.cpp:131] Top shape: 100 25 (2500)
I0428 19:28:19.296281 21591 net.cpp:139] Memory required for data: 334800
I0428 19:28:19.296288 21591 layer_factory.hpp:77] Creating layer ip2
I0428 19:28:19.296298 21591 net.cpp:86] Creating Layer ip2
I0428 19:28:19.296304 21591 net.cpp:408] ip2 <- ip1
I0428 19:28:19.296314 21591 net.cpp:382] ip2 -> ip2
I0428 19:28:19.296409 21591 net.cpp:124] Setting up ip2
I0428 19:28:19.296418 21591 net.cpp:131] Top shape: 100 10 (1000)
I0428 19:28:19.296423 21591 net.cpp:139] Memory required for data: 338800
I0428 19:28:19.296434 21591 layer_factory.hpp:77] Creating layer relu2
I0428 19:28:19.296443 21591 net.cpp:86] Creating Layer relu2
I0428 19:28:19.296448 21591 net.cpp:408] relu2 <- ip2
I0428 19:28:19.296455 21591 net.cpp:369] relu2 -> ip2 (in-place)
I0428 19:28:19.296607 21591 net.cpp:124] Setting up relu2
I0428 19:28:19.296617 21591 net.cpp:131] Top shape: 100 10 (1000)
I0428 19:28:19.296622 21591 net.cpp:139] Memory required for data: 342800
I0428 19:28:19.296627 21591 layer_factory.hpp:77] Creating layer ip3
I0428 19:28:19.296636 21591 net.cpp:86] Creating Layer ip3
I0428 19:28:19.296641 21591 net.cpp:408] ip3 <- ip2
I0428 19:28:19.296649 21591 net.cpp:382] ip3 -> ip3
I0428 19:28:19.296751 21591 net.cpp:124] Setting up ip3
I0428 19:28:19.296761 21591 net.cpp:131] Top shape: 100 10 (1000)
I0428 19:28:19.296766 21591 net.cpp:139] Memory required for data: 346800
I0428 19:28:19.296777 21591 layer_factory.hpp:77] Creating layer relu3
I0428 19:28:19.296784 21591 net.cpp:86] Creating Layer relu3
I0428 19:28:19.296790 21591 net.cpp:408] relu3 <- ip3
I0428 19:28:19.296797 21591 net.cpp:369] relu3 -> ip3 (in-place)
I0428 19:28:19.297019 21591 net.cpp:124] Setting up relu3
I0428 19:28:19.297030 21591 net.cpp:131] Top shape: 100 10 (1000)
I0428 19:28:19.297037 21591 net.cpp:139] Memory required for data: 350800
I0428 19:28:19.297044 21591 layer_factory.hpp:77] Creating layer ip3_relu3_0_split
I0428 19:28:19.297053 21591 net.cpp:86] Creating Layer ip3_relu3_0_split
I0428 19:28:19.297060 21591 net.cpp:408] ip3_relu3_0_split <- ip3
I0428 19:28:19.297067 21591 net.cpp:382] ip3_relu3_0_split -> ip3_relu3_0_split_0
I0428 19:28:19.297077 21591 net.cpp:382] ip3_relu3_0_split -> ip3_relu3_0_split_1
I0428 19:28:19.297163 21591 net.cpp:124] Setting up ip3_relu3_0_split
I0428 19:28:19.297186 21591 net.cpp:131] Top shape: 100 10 (1000)
I0428 19:28:19.297194 21591 net.cpp:131] Top shape: 100 10 (1000)
I0428 19:28:19.297199 21591 net.cpp:139] Memory required for data: 358800
I0428 19:28:19.297204 21591 layer_factory.hpp:77] Creating layer accuracy
I0428 19:28:19.297225 21591 net.cpp:86] Creating Layer accuracy
I0428 19:28:19.297230 21591 net.cpp:408] accuracy <- ip3_relu3_0_split_0
I0428 19:28:19.297236 21591 net.cpp:408] accuracy <- label_mnist_1_split_0
I0428 19:28:19.297243 21591 net.cpp:382] accuracy -> accuracy
…
