…
I0428 19:56:37.053970 28475 net.cpp:296] The NetState phase (0) differed from the phase (1) specified by a rule in layer mnist
I0428 19:56:37.054005 28475 net.cpp:296] The NetState phase (0) differed from the phase (1) specified by a rule in layer accuracy
I0428 19:56:37.054123 28475 net.cpp:53] Initializing net from parameters: 
name: "LeNet"
state {
  phase: TRAIN
  level: 0
  stage: ""
}
layer {
  name: "mnist"
  type: "Data"
  top: "data"
  top: "label"
  include {
    phase: TRAIN
  }
  transform_param {
    scale: 0.00390625
  }
  data_param {
    source: "examples/mnist/mnist_train_lmdb"
    batch_size: 64
    backend: LMDB
  }
}
layer {
  name: "conv0"
  type: "Convolution"
  bottom: "data"
  top: "conv0"
  param {
    lr_mult: 1
  }
  param {
    lr_mult: 2
  }
  convolution_param {
    num_output: 10
    kernel_size: 5
    stride: 1
    weight_filler {
      type: "xavier"
    }
    bias_filler {
      type: "constant"
    }
  }
}
layer {
  name: "pool0"
  type: "Pooling"
  bottom: "conv0"
  top: "pool0"
  pooling_param {
    pool: MAX
    kernel_size: 2
    stride: 2
  }
}
layer {
  name: "conv1"
  type: "Convolution"
  bottom: "pool0"
  top: "conv1"
  param {
    lr_mult: 1
  }
  param {
    lr_mult: 2
  }
  convolution_param {
    num_output: 2
    kernel_size: 5
    stride: 1
    weight_filler {
      type: "xavier"
    }
    bias_filler {
      type: "constant"
    }
  }
}
layer {
  name: "pool1"
  type: "Pooling"
  bottom: "conv1"
  top: "pool1"
  pooling_param {
    pool: MAX
    kernel_size: 2
    stride: 2
  }
}
layer {
  name: "ip1"
  type: "InnerProduct"
  bottom: "pool1"
  top: "ip1"
  param {
    lr_mult: 1
  }
  param {
    lr_mult: 2
  }
  inner_product_param {
    num_output: 25
    weight_filler {
      type: "xavier"
    }
    bias_filler {
      type: "constant"
    }
  }
}
layer {
  name: "relu1"
  type: "ReLU"
  bottom: "ip1"
  top: "ip1"
}
layer {
  name: "ip2"
  type: "InnerProduct"
  bottom: "ip1"
  top: "ip2"
  param {
    lr_mult: 1
  }
  param {
    lr_mult: 2
  }
  inner_product_param {
    num_output: 10
    weight_filler {
      type: "xavier"
    }
    bias_filler {
      type: "constant"
    }
  }
}
layer {
  name: "relu2"
  type: "ReLU"
  bottom: "ip2"
  top: "ip2"
}
layer {
  name: "ip3"
  type: "InnerProduct"
  bottom: "ip2"
  top: "ip3"
  param {
    lr_mult: 1
  }
  param {
    lr_mult: 2
  }
  inner_product_param {
    num_output: 10
    weight_filler {
      type: "xavier"
    }
    bias_filler {
      type: "constant"
    }
  }
}
layer {
  name: "relu3"
  type: "ReLU"
  bottom: "ip3"
  top: "ip3"
}
layer {
  name: "loss"
  type: "SoftmaxWithLoss"
  bottom: "ip3"
  bottom: "label"
  top: "loss"
}
I0428 19:56:37.054224 28475 layer_factory.hpp:77] Creating layer mnist
I0428 19:56:37.054338 28475 db_lmdb.cpp:35] Opened lmdb examples/mnist/mnist_train_lmdb
I0428 19:56:37.054366 28475 net.cpp:86] Creating Layer mnist
I0428 19:56:37.054374 28475 net.cpp:382] mnist -> data
I0428 19:56:37.054399 28475 net.cpp:382] mnist -> label
I0428 19:56:37.055582 28475 data_layer.cpp:45] output data size: 64,1,28,28
I0428 19:56:37.058917 28475 net.cpp:124] Setting up mnist
I0428 19:56:37.058959 28475 net.cpp:131] Top shape: 64 1 28 28 (50176)
I0428 19:56:37.058972 28475 net.cpp:131] Top shape: 64 (64)
I0428 19:56:37.058979 28475 net.cpp:139] Memory required for data: 200960
I0428 19:56:37.058990 28475 layer_factory.hpp:77] Creating layer conv0
I0428 19:56:37.059025 28475 net.cpp:86] Creating Layer conv0
I0428 19:56:37.059059 28475 net.cpp:408] conv0 <- data
I0428 19:56:37.059082 28475 net.cpp:382] conv0 -> conv0
I0428 19:56:37.372200 28475 net.cpp:124] Setting up conv0
I0428 19:56:37.372231 28475 net.cpp:131] Top shape: 64 10 24 24 (368640)
I0428 19:56:37.372236 28475 net.cpp:139] Memory required for data: 1675520
I0428 19:56:37.372252 28475 layer_factory.hpp:77] Creating layer pool0
I0428 19:56:37.372267 28475 net.cpp:86] Creating Layer pool0
I0428 19:56:37.372272 28475 net.cpp:408] pool0 <- conv0
I0428 19:56:37.372278 28475 net.cpp:382] pool0 -> pool0
I0428 19:56:37.372337 28475 net.cpp:124] Setting up pool0
I0428 19:56:37.372344 28475 net.cpp:131] Top shape: 64 10 12 12 (92160)
I0428 19:56:37.372349 28475 net.cpp:139] Memory required for data: 2044160
I0428 19:56:37.372351 28475 layer_factory.hpp:77] Creating layer conv1
I0428 19:56:37.372364 28475 net.cpp:86] Creating Layer conv1
I0428 19:56:37.372369 28475 net.cpp:408] conv1 <- pool0
I0428 19:56:37.372373 28475 net.cpp:382] conv1 -> conv1
I0428 19:56:37.374560 28475 net.cpp:124] Setting up conv1
I0428 19:56:37.374577 28475 net.cpp:131] Top shape: 64 2 8 8 (8192)
I0428 19:56:37.374581 28475 net.cpp:139] Memory required for data: 2076928
I0428 19:56:37.374593 28475 layer_factory.hpp:77] Creating layer pool1
I0428 19:56:37.374603 28475 net.cpp:86] Creating Layer pool1
I0428 19:56:37.374606 28475 net.cpp:408] pool1 <- conv1
I0428 19:56:37.374614 28475 net.cpp:382] pool1 -> pool1
I0428 19:56:37.374661 28475 net.cpp:124] Setting up pool1
I0428 19:56:37.374668 28475 net.cpp:131] Top shape: 64 2 4 4 (2048)
I0428 19:56:37.374671 28475 net.cpp:139] Memory required for data: 2085120
I0428 19:56:37.374675 28475 layer_factory.hpp:77] Creating layer ip1
I0428 19:56:37.374683 28475 net.cpp:86] Creating Layer ip1
I0428 19:56:37.374687 28475 net.cpp:408] ip1 <- pool1
I0428 19:56:37.374696 28475 net.cpp:382] ip1 -> ip1
I0428 19:56:37.374836 28475 net.cpp:124] Setting up ip1
I0428 19:56:37.374845 28475 net.cpp:131] Top shape: 64 25 (1600)
I0428 19:56:37.374848 28475 net.cpp:139] Memory required for data: 2091520
I0428 19:56:37.374857 28475 layer_factory.hpp:77] Creating layer relu1
I0428 19:56:37.374866 28475 net.cpp:86] Creating Layer relu1
I0428 19:56:37.374869 28475 net.cpp:408] relu1 <- ip1
I0428 19:56:37.374876 28475 net.cpp:369] relu1 -> ip1 (in-place)
I0428 19:56:37.375078 28475 net.cpp:124] Setting up relu1
I0428 19:56:37.375089 28475 net.cpp:131] Top shape: 64 25 (1600)
I0428 19:56:37.375092 28475 net.cpp:139] Memory required for data: 2097920
I0428 19:56:37.375097 28475 layer_factory.hpp:77] Creating layer ip2
I0428 19:56:37.375104 28475 net.cpp:86] Creating Layer ip2
I0428 19:56:37.375108 28475 net.cpp:408] ip2 <- ip1
I0428 19:56:37.375114 28475 net.cpp:382] ip2 -> ip2
I0428 19:56:37.375231 28475 net.cpp:124] Setting up ip2
I0428 19:56:37.375239 28475 net.cpp:131] Top shape: 64 10 (640)
I0428 19:56:37.375242 28475 net.cpp:139] Memory required for data: 2100480
I0428 19:56:37.375248 28475 layer_factory.hpp:77] Creating layer relu2
I0428 19:56:37.375257 28475 net.cpp:86] Creating Layer relu2
I0428 19:56:37.375259 28475 net.cpp:408] relu2 <- ip2
I0428 19:56:37.375267 28475 net.cpp:369] relu2 -> ip2 (in-place)
I0428 19:56:37.376111 28475 net.cpp:124] Setting up relu2
I0428 19:56:37.376126 28475 net.cpp:131] Top shape: 64 10 (640)
I0428 19:56:37.376129 28475 net.cpp:139] Memory required for data: 2103040
I0428 19:56:37.376133 28475 layer_factory.hpp:77] Creating layer ip3
I0428 19:56:37.376142 28475 net.cpp:86] Creating Layer ip3
I0428 19:56:37.376145 28475 net.cpp:408] ip3 <- ip2
I0428 19:56:37.376153 28475 net.cpp:382] ip3 -> ip3
I0428 19:56:37.376278 28475 net.cpp:124] Setting up ip3
I0428 19:56:37.376287 28475 net.cpp:131] Top shape: 64 10 (640)
I0428 19:56:37.376291 28475 net.cpp:139] Memory required for data: 2105600
I0428 19:56:37.376299 28475 layer_factory.hpp:77] Creating layer relu3
I0428 19:56:37.376307 28475 net.cpp:86] Creating Layer relu3
I0428 19:56:37.376310 28475 net.cpp:408] relu3 <- ip3
I0428 19:56:37.376315 28475 net.cpp:369] relu3 -> ip3 (in-place)
I0428 19:56:37.376525 28475 net.cpp:124] Setting up relu3
I0428 19:56:37.376535 28475 net.cpp:131] Top shape: 64 10 (640)
I0428 19:56:37.376539 28475 net.cpp:139] Memory required for data: 2108160
I0428 19:56:37.376543 28475 layer_factory.hpp:77] Creating layer loss
I0428 19:56:37.376551 28475 net.cpp:86] Creating Layer loss
I0428 19:56:37.376555 28475 net.cpp:408] loss <- ip3
I0428 19:56:37.376559 28475 net.cpp:408] loss <- label
I0428 19:56:37.376566 28475 net.cpp:382] loss -> loss
I0428 19:56:37.376581 28475 layer_factory.hpp:77] Creating layer loss
…
I0428 19:56:37.377377 28475 solver.cpp:173] Creating test net (#0) specified by net file: ECE595/mnist/train_test/var_everything2/lenet_train_test764.prototxt
I0428 19:56:37.377408 28475 net.cpp:296] The NetState phase (1) differed from the phase (0) specified by a rule in layer mnist
I0428 19:56:37.377516 28475 net.cpp:53] Initializing net from parameters: 
name: "LeNet"
state {
  phase: TEST
}
layer {
  name: "mnist"
  type: "Data"
  top: "data"
  top: "label"
  include {
    phase: TEST
  }
  transform_param {
    scale: 0.00390625
  }
  data_param {
    source: "examples/mnist/mnist_test_lmdb"
    batch_size: 100
    backend: LMDB
  }
}
layer {
  name: "conv0"
  type: "Convolution"
  bottom: "data"
  top: "conv0"
  param {
    lr_mult: 1
  }
  param {
    lr_mult: 2
  }
  convolution_param {
    num_output: 10
    kernel_size: 5
    stride: 1
    weight_filler {
      type: "xavier"
    }
    bias_filler {
      type: "constant"
    }
  }
}
layer {
  name: "pool0"
  type: "Pooling"
  bottom: "conv0"
  top: "pool0"
  pooling_param {
    pool: MAX
    kernel_size: 2
    stride: 2
  }
}
layer {
  name: "conv1"
  type: "Convolution"
  bottom: "pool0"
  top: "conv1"
  param {
    lr_mult: 1
  }
  param {
    lr_mult: 2
  }
  convolution_param {
    num_output: 2
    kernel_size: 5
    stride: 1
    weight_filler {
      type: "xavier"
    }
    bias_filler {
      type: "constant"
    }
  }
}
layer {
  name: "pool1"
  type: "Pooling"
  bottom: "conv1"
  top: "pool1"
  pooling_param {
    pool: MAX
    kernel_size: 2
    stride: 2
  }
}
layer {
  name: "ip1"
  type: "InnerProduct"
  bottom: "pool1"
  top: "ip1"
  param {
    lr_mult: 1
  }
  param {
    lr_mult: 2
  }
  inner_product_param {
    num_output: 25
    weight_filler {
      type: "xavier"
    }
    bias_filler {
      type: "constant"
    }
  }
}
layer {
  name: "relu1"
  type: "ReLU"
  bottom: "ip1"
  top: "ip1"
}
layer {
  name: "ip2"
  type: "InnerProduct"
  bottom: "ip1"
  top: "ip2"
  param {
    lr_mult: 1
  }
  param {
    lr_mult: 2
  }
  inner_product_param {
    num_output: 10
    weight_filler {
      type: "xavier"
    }
    bias_filler {
      type: "constant"
    }
  }
}
layer {
  name: "relu2"
  type: "ReLU"
  bottom: "ip2"
  top: "ip2"
}
layer {
  name: "ip3"
  type: "InnerProduct"
  bottom: "ip2"
  top: "ip3"
  param {
    lr_mult: 1
  }
  param {
    lr_mult: 2
  }
  inner_product_param {
    num_output: 10
    weight_filler {
      type: "xavier"
    }
    bias_filler {
      type: "constant"
    }
  }
}
layer {
  name: "relu3"
  type: "ReLU"
  bottom: "ip3"
  top: "ip3"
}
layer {
  name: "accuracy"
  type: "Accuracy"
  bottom: "ip3"
  bottom: "label"
  top: "accuracy"
  include {
    phase: TEST
  }
}
layer {
  name: "loss"
  type: "SoftmaxWithLoss"
  bottom: "ip3"
  bottom: "label"
  top: "loss"
}
I0428 19:56:37.377614 28475 layer_factory.hpp:77] Creating layer mnist
I0428 19:56:37.377665 28475 db_lmdb.cpp:35] Opened lmdb examples/mnist/mnist_test_lmdb
I0428 19:56:37.377679 28475 net.cpp:86] Creating Layer mnist
I0428 19:56:37.377686 28475 net.cpp:382] mnist -> data
I0428 19:56:37.377696 28475 net.cpp:382] mnist -> label
I0428 19:56:37.377796 28475 data_layer.cpp:45] output data size: 100,1,28,28
I0428 19:56:37.380167 28475 net.cpp:124] Setting up mnist
I0428 19:56:37.380189 28475 net.cpp:131] Top shape: 100 1 28 28 (78400)
I0428 19:56:37.380194 28475 net.cpp:131] Top shape: 100 (100)
I0428 19:56:37.380206 28475 net.cpp:139] Memory required for data: 314000
I0428 19:56:37.380210 28475 layer_factory.hpp:77] Creating layer label_mnist_1_split
I0428 19:56:37.380218 28475 net.cpp:86] Creating Layer label_mnist_1_split
I0428 19:56:37.380223 28475 net.cpp:408] label_mnist_1_split <- label
I0428 19:56:37.380261 28475 net.cpp:382] label_mnist_1_split -> label_mnist_1_split_0
I0428 19:56:37.380270 28475 net.cpp:382] label_mnist_1_split -> label_mnist_1_split_1
I0428 19:56:37.380399 28475 net.cpp:124] Setting up label_mnist_1_split
I0428 19:56:37.380409 28475 net.cpp:131] Top shape: 100 (100)
I0428 19:56:37.380414 28475 net.cpp:131] Top shape: 100 (100)
I0428 19:56:37.380417 28475 net.cpp:139] Memory required for data: 314800
I0428 19:56:37.380421 28475 layer_factory.hpp:77] Creating layer conv0
I0428 19:56:37.380430 28475 net.cpp:86] Creating Layer conv0
I0428 19:56:37.380434 28475 net.cpp:408] conv0 <- data
I0428 19:56:37.380441 28475 net.cpp:382] conv0 -> conv0
I0428 19:56:37.382189 28475 net.cpp:124] Setting up conv0
I0428 19:56:37.382205 28475 net.cpp:131] Top shape: 100 10 24 24 (576000)
I0428 19:56:37.382210 28475 net.cpp:139] Memory required for data: 2618800
I0428 19:56:37.382220 28475 layer_factory.hpp:77] Creating layer pool0
I0428 19:56:37.382228 28475 net.cpp:86] Creating Layer pool0
I0428 19:56:37.382231 28475 net.cpp:408] pool0 <- conv0
I0428 19:56:37.382238 28475 net.cpp:382] pool0 -> pool0
I0428 19:56:37.382292 28475 net.cpp:124] Setting up pool0
I0428 19:56:37.382298 28475 net.cpp:131] Top shape: 100 10 12 12 (144000)
I0428 19:56:37.382302 28475 net.cpp:139] Memory required for data: 3194800
I0428 19:56:37.382304 28475 layer_factory.hpp:77] Creating layer conv1
I0428 19:56:37.382318 28475 net.cpp:86] Creating Layer conv1
I0428 19:56:37.382323 28475 net.cpp:408] conv1 <- pool0
I0428 19:56:37.382328 28475 net.cpp:382] conv1 -> conv1
I0428 19:56:37.384665 28475 net.cpp:124] Setting up conv1
I0428 19:56:37.384680 28475 net.cpp:131] Top shape: 100 2 8 8 (12800)
I0428 19:56:37.384685 28475 net.cpp:139] Memory required for data: 3246000
I0428 19:56:37.384706 28475 layer_factory.hpp:77] Creating layer pool1
I0428 19:56:37.384714 28475 net.cpp:86] Creating Layer pool1
I0428 19:56:37.384718 28475 net.cpp:408] pool1 <- conv1
I0428 19:56:37.384726 28475 net.cpp:382] pool1 -> pool1
I0428 19:56:37.384779 28475 net.cpp:124] Setting up pool1
I0428 19:56:37.384785 28475 net.cpp:131] Top shape: 100 2 4 4 (3200)
I0428 19:56:37.384789 28475 net.cpp:139] Memory required for data: 3258800
I0428 19:56:37.384793 28475 layer_factory.hpp:77] Creating layer ip1
I0428 19:56:37.384801 28475 net.cpp:86] Creating Layer ip1
I0428 19:56:37.384805 28475 net.cpp:408] ip1 <- pool1
I0428 19:56:37.384819 28475 net.cpp:382] ip1 -> ip1
I0428 19:56:37.384982 28475 net.cpp:124] Setting up ip1
I0428 19:56:37.384992 28475 net.cpp:131] Top shape: 100 25 (2500)
I0428 19:56:37.385007 28475 net.cpp:139] Memory required for data: 3268800
I0428 19:56:37.385016 28475 layer_factory.hpp:77] Creating layer relu1
I0428 19:56:37.385022 28475 net.cpp:86] Creating Layer relu1
I0428 19:56:37.385026 28475 net.cpp:408] relu1 <- ip1
I0428 19:56:37.385032 28475 net.cpp:369] relu1 -> ip1 (in-place)
I0428 19:56:37.385315 28475 net.cpp:124] Setting up relu1
I0428 19:56:37.385326 28475 net.cpp:131] Top shape: 100 25 (2500)
I0428 19:56:37.385329 28475 net.cpp:139] Memory required for data: 3278800
I0428 19:56:37.385334 28475 layer_factory.hpp:77] Creating layer ip2
I0428 19:56:37.385344 28475 net.cpp:86] Creating Layer ip2
I0428 19:56:37.385347 28475 net.cpp:408] ip2 <- ip1
I0428 19:56:37.385354 28475 net.cpp:382] ip2 -> ip2
I0428 19:56:37.385473 28475 net.cpp:124] Setting up ip2
I0428 19:56:37.385481 28475 net.cpp:131] Top shape: 100 10 (1000)
I0428 19:56:37.385485 28475 net.cpp:139] Memory required for data: 3282800
I0428 19:56:37.385491 28475 layer_factory.hpp:77] Creating layer relu2
I0428 19:56:37.385502 28475 net.cpp:86] Creating Layer relu2
I0428 19:56:37.385512 28475 net.cpp:408] relu2 <- ip2
I0428 19:56:37.385519 28475 net.cpp:369] relu2 -> ip2 (in-place)
I0428 19:56:37.385706 28475 net.cpp:124] Setting up relu2
I0428 19:56:37.385715 28475 net.cpp:131] Top shape: 100 10 (1000)
I0428 19:56:37.385720 28475 net.cpp:139] Memory required for data: 3286800
I0428 19:56:37.385723 28475 layer_factory.hpp:77] Creating layer ip3
I0428 19:56:37.385731 28475 net.cpp:86] Creating Layer ip3
I0428 19:56:37.385735 28475 net.cpp:408] ip3 <- ip2
I0428 19:56:37.385740 28475 net.cpp:382] ip3 -> ip3
I0428 19:56:37.385862 28475 net.cpp:124] Setting up ip3
I0428 19:56:37.385879 28475 net.cpp:131] Top shape: 100 10 (1000)
I0428 19:56:37.385882 28475 net.cpp:139] Memory required for data: 3290800
I0428 19:56:37.385891 28475 layer_factory.hpp:77] Creating layer relu3
I0428 19:56:37.385897 28475 net.cpp:86] Creating Layer relu3
I0428 19:56:37.385901 28475 net.cpp:408] relu3 <- ip3
I0428 19:56:37.385906 28475 net.cpp:369] relu3 -> ip3 (in-place)
I0428 19:56:37.386790 28475 net.cpp:124] Setting up relu3
I0428 19:56:37.386806 28475 net.cpp:131] Top shape: 100 10 (1000)
I0428 19:56:37.386809 28475 net.cpp:139] Memory required for data: 3294800
I0428 19:56:37.386813 28475 layer_factory.hpp:77] Creating layer ip3_relu3_0_split
I0428 19:56:37.386819 28475 net.cpp:86] Creating Layer ip3_relu3_0_split
I0428 19:56:37.386823 28475 net.cpp:408] ip3_relu3_0_split <- ip3
I0428 19:56:37.386828 28475 net.cpp:382] ip3_relu3_0_split -> ip3_relu3_0_split_0
I0428 19:56:37.386835 28475 net.cpp:382] ip3_relu3_0_split -> ip3_relu3_0_split_1
I0428 19:56:37.386925 28475 net.cpp:124] Setting up ip3_relu3_0_split
I0428 19:56:37.386934 28475 net.cpp:131] Top shape: 100 10 (1000)
I0428 19:56:37.386939 28475 net.cpp:131] Top shape: 100 10 (1000)
I0428 19:56:37.386941 28475 net.cpp:139] Memory required for data: 3302800
I0428 19:56:37.386945 28475 layer_factory.hpp:77] Creating layer accuracy
I0428 19:56:37.386950 28475 net.cpp:86] Creating Layer accuracy
I0428 19:56:37.386955 28475 net.cpp:408] accuracy <- ip3_relu3_0_split_0
I0428 19:56:37.386960 28475 net.cpp:408] accuracy <- label_mnist_1_split_0
I0428 19:56:37.386965 28475 net.cpp:382] accuracy -> accuracy
…
