…
I0428 20:35:50.674818  4708 net.cpp:296] The NetState phase (0) differed from the phase (1) specified by a rule in layer mnist
I0428 20:35:50.674850  4708 net.cpp:296] The NetState phase (0) differed from the phase (1) specified by a rule in layer accuracy
I0428 20:35:50.674933  4708 net.cpp:53] Initializing net from parameters: 
name: "LeNet"
state {
  phase: TRAIN
  level: 0
  stage: ""
}
layer {
  name: "mnist"
  type: "Data"
  top: "data"
  top: "label"
  include {
    phase: TRAIN
  }
  transform_param {
    scale: 0.00390625
  }
  data_param {
    source: "examples/mnist/mnist_train_lmdb"
    batch_size: 64
    backend: LMDB
  }
}
layer {
  name: "conv0"
  type: "Convolution"
  bottom: "data"
  top: "conv0"
  param {
    lr_mult: 1
  }
  param {
    lr_mult: 2
  }
  convolution_param {
    num_output: 100
    kernel_size: 5
    stride: 1
    weight_filler {
      type: "xavier"
    }
    bias_filler {
      type: "constant"
    }
  }
}
layer {
  name: "pool0"
  type: "Pooling"
  bottom: "conv0"
  top: "pool0"
  pooling_param {
    pool: MAX
    kernel_size: 2
    stride: 2
  }
}
layer {
  name: "conv1"
  type: "Convolution"
  bottom: "pool0"
  top: "conv1"
  param {
    lr_mult: 1
  }
  param {
    lr_mult: 2
  }
  convolution_param {
    num_output: 50
    kernel_size: 5
    stride: 1
    weight_filler {
      type: "xavier"
    }
    bias_filler {
      type: "constant"
    }
  }
}
layer {
  name: "pool1"
  type: "Pooling"
  bottom: "conv1"
  top: "pool1"
  pooling_param {
    pool: MAX
    kernel_size: 2
    stride: 2
  }
}
layer {
  name: "ip1"
  type: "InnerProduct"
  bottom: "pool1"
  top: "ip1"
  param {
    lr_mult: 1
  }
  param {
    lr_mult: 2
  }
  inner_product_param {
    num_output: 25
    weight_filler {
      type: "xavier"
    }
    bias_filler {
      type: "constant"
    }
  }
}
layer {
  name: "relu1"
  type: "ReLU"
  bottom: "ip1"
  top: "ip1"
}
layer {
  name: "ip2"
  type: "InnerProduct"
  bottom: "ip1"
  top: "ip2"
  param {
    lr_mult: 1
  }
  param {
    lr_mult: 2
  }
  inner_product_param {
    num_output: 50
    weight_filler {
      type: "xavier"
    }
    bias_filler {
      type: "constant"
    }
  }
}
layer {
  name: "relu2"
  type: "ReLU"
  bottom: "ip2"
  top: "ip2"
}
layer {
  name: "ip3"
  type: "InnerProduct"
  bottom: "ip2"
  top: "ip3"
  param {
    lr_mult: 1
  }
  param {
    lr_mult: 2
  }
  inner_product_param {
    num_output: 10
    weight_filler {
      type: "xavier"
    }
    bias_filler {
      type: "constant"
    }
  }
}
layer {
  name: "relu3"
  type: "ReLU"
  bottom: "ip3"
  top: "ip3"
}
layer {
  name: "loss"
  type: "SoftmaxWithLoss"
  bottom: "ip3"
  bottom: "label"
  top: "loss"
}
I0428 20:35:50.674998  4708 layer_factory.hpp:77] Creating layer mnist
I0428 20:35:50.675081  4708 db_lmdb.cpp:35] Opened lmdb examples/mnist/mnist_train_lmdb
I0428 20:35:50.675101  4708 net.cpp:86] Creating Layer mnist
I0428 20:35:50.675109  4708 net.cpp:382] mnist -> data
I0428 20:35:50.675127  4708 net.cpp:382] mnist -> label
I0428 20:35:50.676107  4708 data_layer.cpp:45] output data size: 64,1,28,28
I0428 20:35:50.678397  4708 net.cpp:124] Setting up mnist
I0428 20:35:50.678442  4708 net.cpp:131] Top shape: 64 1 28 28 (50176)
I0428 20:35:50.678447  4708 net.cpp:131] Top shape: 64 (64)
I0428 20:35:50.678450  4708 net.cpp:139] Memory required for data: 200960
I0428 20:35:50.678457  4708 layer_factory.hpp:77] Creating layer conv0
I0428 20:35:50.678470  4708 net.cpp:86] Creating Layer conv0
I0428 20:35:50.678488  4708 net.cpp:408] conv0 <- data
I0428 20:35:50.678498  4708 net.cpp:382] conv0 -> conv0
I0428 20:35:50.904038  4708 net.cpp:124] Setting up conv0
I0428 20:35:50.904065  4708 net.cpp:131] Top shape: 64 100 24 24 (3686400)
I0428 20:35:50.904068  4708 net.cpp:139] Memory required for data: 14946560
I0428 20:35:50.904083  4708 layer_factory.hpp:77] Creating layer pool0
I0428 20:35:50.904096  4708 net.cpp:86] Creating Layer pool0
I0428 20:35:50.904100  4708 net.cpp:408] pool0 <- conv0
I0428 20:35:50.904105  4708 net.cpp:382] pool0 -> pool0
I0428 20:35:50.904165  4708 net.cpp:124] Setting up pool0
I0428 20:35:50.904170  4708 net.cpp:131] Top shape: 64 100 12 12 (921600)
I0428 20:35:50.904172  4708 net.cpp:139] Memory required for data: 18632960
I0428 20:35:50.904175  4708 layer_factory.hpp:77] Creating layer conv1
I0428 20:35:50.904186  4708 net.cpp:86] Creating Layer conv1
I0428 20:35:50.904188  4708 net.cpp:408] conv1 <- pool0
I0428 20:35:50.904192  4708 net.cpp:382] conv1 -> conv1
I0428 20:35:50.907558  4708 net.cpp:124] Setting up conv1
I0428 20:35:50.907573  4708 net.cpp:131] Top shape: 64 50 8 8 (204800)
I0428 20:35:50.907577  4708 net.cpp:139] Memory required for data: 19452160
I0428 20:35:50.907600  4708 layer_factory.hpp:77] Creating layer pool1
I0428 20:35:50.907608  4708 net.cpp:86] Creating Layer pool1
I0428 20:35:50.907611  4708 net.cpp:408] pool1 <- conv1
I0428 20:35:50.907618  4708 net.cpp:382] pool1 -> pool1
I0428 20:35:50.907667  4708 net.cpp:124] Setting up pool1
I0428 20:35:50.907675  4708 net.cpp:131] Top shape: 64 50 4 4 (51200)
I0428 20:35:50.907677  4708 net.cpp:139] Memory required for data: 19656960
I0428 20:35:50.907680  4708 layer_factory.hpp:77] Creating layer ip1
I0428 20:35:50.907686  4708 net.cpp:86] Creating Layer ip1
I0428 20:35:50.907690  4708 net.cpp:408] ip1 <- pool1
I0428 20:35:50.907694  4708 net.cpp:382] ip1 -> ip1
I0428 20:35:50.907908  4708 net.cpp:124] Setting up ip1
I0428 20:35:50.907917  4708 net.cpp:131] Top shape: 64 25 (1600)
I0428 20:35:50.907920  4708 net.cpp:139] Memory required for data: 19663360
I0428 20:35:50.907927  4708 layer_factory.hpp:77] Creating layer relu1
I0428 20:35:50.907934  4708 net.cpp:86] Creating Layer relu1
I0428 20:35:50.907938  4708 net.cpp:408] relu1 <- ip1
I0428 20:35:50.907943  4708 net.cpp:369] relu1 -> ip1 (in-place)
I0428 20:35:50.908120  4708 net.cpp:124] Setting up relu1
I0428 20:35:50.908130  4708 net.cpp:131] Top shape: 64 25 (1600)
I0428 20:35:50.908134  4708 net.cpp:139] Memory required for data: 19669760
I0428 20:35:50.908138  4708 layer_factory.hpp:77] Creating layer ip2
I0428 20:35:50.908144  4708 net.cpp:86] Creating Layer ip2
I0428 20:35:50.908148  4708 net.cpp:408] ip2 <- ip1
I0428 20:35:50.908152  4708 net.cpp:382] ip2 -> ip2
I0428 20:35:50.908275  4708 net.cpp:124] Setting up ip2
I0428 20:35:50.908282  4708 net.cpp:131] Top shape: 64 50 (3200)
I0428 20:35:50.908285  4708 net.cpp:139] Memory required for data: 19682560
I0428 20:35:50.908289  4708 layer_factory.hpp:77] Creating layer relu2
I0428 20:35:50.908296  4708 net.cpp:86] Creating Layer relu2
I0428 20:35:50.908315  4708 net.cpp:408] relu2 <- ip2
I0428 20:35:50.908319  4708 net.cpp:369] relu2 -> ip2 (in-place)
I0428 20:35:50.909211  4708 net.cpp:124] Setting up relu2
I0428 20:35:50.909252  4708 net.cpp:131] Top shape: 64 50 (3200)
I0428 20:35:50.909255  4708 net.cpp:139] Memory required for data: 19695360
I0428 20:35:50.909258  4708 layer_factory.hpp:77] Creating layer ip3
I0428 20:35:50.909281  4708 net.cpp:86] Creating Layer ip3
I0428 20:35:50.909284  4708 net.cpp:408] ip3 <- ip2
I0428 20:35:50.909291  4708 net.cpp:382] ip3 -> ip3
I0428 20:35:50.909409  4708 net.cpp:124] Setting up ip3
I0428 20:35:50.909416  4708 net.cpp:131] Top shape: 64 10 (640)
I0428 20:35:50.909420  4708 net.cpp:139] Memory required for data: 19697920
I0428 20:35:50.909427  4708 layer_factory.hpp:77] Creating layer relu3
I0428 20:35:50.909432  4708 net.cpp:86] Creating Layer relu3
I0428 20:35:50.909435  4708 net.cpp:408] relu3 <- ip3
I0428 20:35:50.909453  4708 net.cpp:369] relu3 -> ip3 (in-place)
I0428 20:35:50.909603  4708 net.cpp:124] Setting up relu3
I0428 20:35:50.909611  4708 net.cpp:131] Top shape: 64 10 (640)
I0428 20:35:50.909615  4708 net.cpp:139] Memory required for data: 19700480
I0428 20:35:50.909617  4708 layer_factory.hpp:77] Creating layer loss
I0428 20:35:50.909624  4708 net.cpp:86] Creating Layer loss
I0428 20:35:50.909627  4708 net.cpp:408] loss <- ip3
I0428 20:35:50.909631  4708 net.cpp:408] loss <- label
I0428 20:35:50.909636  4708 net.cpp:382] loss -> loss
I0428 20:35:50.909653  4708 layer_factory.hpp:77] Creating layer loss
…
I0428 20:35:50.910280  4708 solver.cpp:173] Creating test net (#0) specified by net file: ECE595/mnist/train_test/var_everything2/lenet_train_test1627.prototxt
I0428 20:35:50.910306  4708 net.cpp:296] The NetState phase (1) differed from the phase (0) specified by a rule in layer mnist
I0428 20:35:50.910414  4708 net.cpp:53] Initializing net from parameters: 
name: "LeNet"
state {
  phase: TEST
}
layer {
  name: "mnist"
  type: "Data"
  top: "data"
  top: "label"
  include {
    phase: TEST
  }
  transform_param {
    scale: 0.00390625
  }
  data_param {
    source: "examples/mnist/mnist_test_lmdb"
    batch_size: 100
    backend: LMDB
  }
}
layer {
  name: "conv0"
  type: "Convolution"
  bottom: "data"
  top: "conv0"
  param {
    lr_mult: 1
  }
  param {
    lr_mult: 2
  }
  convolution_param {
    num_output: 100
    kernel_size: 5
    stride: 1
    weight_filler {
      type: "xavier"
    }
    bias_filler {
      type: "constant"
    }
  }
}
layer {
  name: "pool0"
  type: "Pooling"
  bottom: "conv0"
  top: "pool0"
  pooling_param {
    pool: MAX
    kernel_size: 2
    stride: 2
  }
}
layer {
  name: "conv1"
  type: "Convolution"
  bottom: "pool0"
  top: "conv1"
  param {
    lr_mult: 1
  }
  param {
    lr_mult: 2
  }
  convolution_param {
    num_output: 50
    kernel_size: 5
    stride: 1
    weight_filler {
      type: "xavier"
    }
    bias_filler {
      type: "constant"
    }
  }
}
layer {
  name: "pool1"
  type: "Pooling"
  bottom: "conv1"
  top: "pool1"
  pooling_param {
    pool: MAX
    kernel_size: 2
    stride: 2
  }
}
layer {
  name: "ip1"
  type: "InnerProduct"
  bottom: "pool1"
  top: "ip1"
  param {
    lr_mult: 1
  }
  param {
    lr_mult: 2
  }
  inner_product_param {
    num_output: 25
    weight_filler {
      type: "xavier"
    }
    bias_filler {
      type: "constant"
    }
  }
}
layer {
  name: "relu1"
  type: "ReLU"
  bottom: "ip1"
  top: "ip1"
}
layer {
  name: "ip2"
  type: "InnerProduct"
  bottom: "ip1"
  top: "ip2"
  param {
    lr_mult: 1
  }
  param {
    lr_mult: 2
  }
  inner_product_param {
    num_output: 50
    weight_filler {
      type: "xavier"
    }
    bias_filler {
      type: "constant"
    }
  }
}
layer {
  name: "relu2"
  type: "ReLU"
  bottom: "ip2"
  top: "ip2"
}
layer {
  name: "ip3"
  type: "InnerProduct"
  bottom: "ip2"
  top: "ip3"
  param {
    lr_mult: 1
  }
  param {
    lr_mult: 2
  }
  inner_product_param {
    num_output: 10
    weight_filler {
      type: "xavier"
    }
    bias_filler {
      type: "constant"
    }
  }
}
layer {
  name: "relu3"
  type: "ReLU"
  bottom: "ip3"
  top: "ip3"
}
layer {
  name: "accuracy"
  type: "Accuracy"
  bottom: "ip3"
  bottom: "label"
  top: "accuracy"
  include {
    phase: TEST
  }
}
layer {
  name: "loss"
  type: "SoftmaxWithLoss"
  bottom: "ip3"
  bottom: "label"
  top: "loss"
}
I0428 20:35:50.910496  4708 layer_factory.hpp:77] Creating layer mnist
I0428 20:35:50.910540  4708 db_lmdb.cpp:35] Opened lmdb examples/mnist/mnist_test_lmdb
I0428 20:35:50.910554  4708 net.cpp:86] Creating Layer mnist
I0428 20:35:50.910559  4708 net.cpp:382] mnist -> data
I0428 20:35:50.910567  4708 net.cpp:382] mnist -> label
I0428 20:35:50.910665  4708 data_layer.cpp:45] output data size: 100,1,28,28
I0428 20:35:50.911725  4708 net.cpp:124] Setting up mnist
I0428 20:35:50.911756  4708 net.cpp:131] Top shape: 100 1 28 28 (78400)
I0428 20:35:50.911761  4708 net.cpp:131] Top shape: 100 (100)
I0428 20:35:50.911763  4708 net.cpp:139] Memory required for data: 314000
I0428 20:35:50.911767  4708 layer_factory.hpp:77] Creating layer label_mnist_1_split
I0428 20:35:50.911793  4708 net.cpp:86] Creating Layer label_mnist_1_split
I0428 20:35:50.911798  4708 net.cpp:408] label_mnist_1_split <- label
I0428 20:35:50.911803  4708 net.cpp:382] label_mnist_1_split -> label_mnist_1_split_0
I0428 20:35:50.911809  4708 net.cpp:382] label_mnist_1_split -> label_mnist_1_split_1
I0428 20:35:50.911855  4708 net.cpp:124] Setting up label_mnist_1_split
I0428 20:35:50.911862  4708 net.cpp:131] Top shape: 100 (100)
I0428 20:35:50.911866  4708 net.cpp:131] Top shape: 100 (100)
I0428 20:35:50.911869  4708 net.cpp:139] Memory required for data: 314800
I0428 20:35:50.911871  4708 layer_factory.hpp:77] Creating layer conv0
I0428 20:35:50.911881  4708 net.cpp:86] Creating Layer conv0
I0428 20:35:50.911885  4708 net.cpp:408] conv0 <- data
I0428 20:35:50.911890  4708 net.cpp:382] conv0 -> conv0
I0428 20:35:50.913720  4708 net.cpp:124] Setting up conv0
I0428 20:35:50.913750  4708 net.cpp:131] Top shape: 100 100 24 24 (5760000)
I0428 20:35:50.913753  4708 net.cpp:139] Memory required for data: 23354800
I0428 20:35:50.913763  4708 layer_factory.hpp:77] Creating layer pool0
I0428 20:35:50.913770  4708 net.cpp:86] Creating Layer pool0
I0428 20:35:50.913774  4708 net.cpp:408] pool0 <- conv0
I0428 20:35:50.913779  4708 net.cpp:382] pool0 -> pool0
I0428 20:35:50.913832  4708 net.cpp:124] Setting up pool0
I0428 20:35:50.913852  4708 net.cpp:131] Top shape: 100 100 12 12 (1440000)
I0428 20:35:50.913856  4708 net.cpp:139] Memory required for data: 29114800
I0428 20:35:50.913857  4708 layer_factory.hpp:77] Creating layer conv1
I0428 20:35:50.913882  4708 net.cpp:86] Creating Layer conv1
I0428 20:35:50.913885  4708 net.cpp:408] conv1 <- pool0
I0428 20:35:50.913892  4708 net.cpp:382] conv1 -> conv1
I0428 20:35:50.917062  4708 net.cpp:124] Setting up conv1
I0428 20:35:50.917074  4708 net.cpp:131] Top shape: 100 50 8 8 (320000)
I0428 20:35:50.917094  4708 net.cpp:139] Memory required for data: 30394800
I0428 20:35:50.917102  4708 layer_factory.hpp:77] Creating layer pool1
I0428 20:35:50.917111  4708 net.cpp:86] Creating Layer pool1
I0428 20:35:50.917115  4708 net.cpp:408] pool1 <- conv1
I0428 20:35:50.917120  4708 net.cpp:382] pool1 -> pool1
I0428 20:35:50.917171  4708 net.cpp:124] Setting up pool1
I0428 20:35:50.917176  4708 net.cpp:131] Top shape: 100 50 4 4 (80000)
I0428 20:35:50.917179  4708 net.cpp:139] Memory required for data: 30714800
I0428 20:35:50.917182  4708 layer_factory.hpp:77] Creating layer ip1
I0428 20:35:50.917188  4708 net.cpp:86] Creating Layer ip1
I0428 20:35:50.917191  4708 net.cpp:408] ip1 <- pool1
I0428 20:35:50.917196  4708 net.cpp:382] ip1 -> ip1
I0428 20:35:50.917419  4708 net.cpp:124] Setting up ip1
I0428 20:35:50.917438  4708 net.cpp:131] Top shape: 100 25 (2500)
I0428 20:35:50.917441  4708 net.cpp:139] Memory required for data: 30724800
I0428 20:35:50.917448  4708 layer_factory.hpp:77] Creating layer relu1
I0428 20:35:50.917454  4708 net.cpp:86] Creating Layer relu1
I0428 20:35:50.917459  4708 net.cpp:408] relu1 <- ip1
I0428 20:35:50.917464  4708 net.cpp:369] relu1 -> ip1 (in-place)
I0428 20:35:50.917626  4708 net.cpp:124] Setting up relu1
I0428 20:35:50.917649  4708 net.cpp:131] Top shape: 100 25 (2500)
I0428 20:35:50.917654  4708 net.cpp:139] Memory required for data: 30734800
I0428 20:35:50.917655  4708 layer_factory.hpp:77] Creating layer ip2
I0428 20:35:50.917664  4708 net.cpp:86] Creating Layer ip2
I0428 20:35:50.917673  4708 net.cpp:408] ip2 <- ip1
I0428 20:35:50.917678  4708 net.cpp:382] ip2 -> ip2
I0428 20:35:50.917804  4708 net.cpp:124] Setting up ip2
I0428 20:35:50.917812  4708 net.cpp:131] Top shape: 100 50 (5000)
I0428 20:35:50.917814  4708 net.cpp:139] Memory required for data: 30754800
I0428 20:35:50.917820  4708 layer_factory.hpp:77] Creating layer relu2
I0428 20:35:50.917829  4708 net.cpp:86] Creating Layer relu2
I0428 20:35:50.917832  4708 net.cpp:408] relu2 <- ip2
I0428 20:35:50.917839  4708 net.cpp:369] relu2 -> ip2 (in-place)
I0428 20:35:50.918097  4708 net.cpp:124] Setting up relu2
I0428 20:35:50.918105  4708 net.cpp:131] Top shape: 100 50 (5000)
I0428 20:35:50.918108  4708 net.cpp:139] Memory required for data: 30774800
I0428 20:35:50.918112  4708 layer_factory.hpp:77] Creating layer ip3
I0428 20:35:50.918118  4708 net.cpp:86] Creating Layer ip3
I0428 20:35:50.918126  4708 net.cpp:408] ip3 <- ip2
I0428 20:35:50.918133  4708 net.cpp:382] ip3 -> ip3
I0428 20:35:50.918232  4708 net.cpp:124] Setting up ip3
I0428 20:35:50.918241  4708 net.cpp:131] Top shape: 100 10 (1000)
I0428 20:35:50.918244  4708 net.cpp:139] Memory required for data: 30778800
I0428 20:35:50.918252  4708 layer_factory.hpp:77] Creating layer relu3
I0428 20:35:50.918257  4708 net.cpp:86] Creating Layer relu3
I0428 20:35:50.918261  4708 net.cpp:408] relu3 <- ip3
I0428 20:35:50.918270  4708 net.cpp:369] relu3 -> ip3 (in-place)
I0428 20:35:50.919040  4708 net.cpp:124] Setting up relu3
I0428 20:35:50.919051  4708 net.cpp:131] Top shape: 100 10 (1000)
I0428 20:35:50.919070  4708 net.cpp:139] Memory required for data: 30782800
I0428 20:35:50.919073  4708 layer_factory.hpp:77] Creating layer ip3_relu3_0_split
I0428 20:35:50.919080  4708 net.cpp:86] Creating Layer ip3_relu3_0_split
I0428 20:35:50.919083  4708 net.cpp:408] ip3_relu3_0_split <- ip3
I0428 20:35:50.919090  4708 net.cpp:382] ip3_relu3_0_split -> ip3_relu3_0_split_0
I0428 20:35:50.919096  4708 net.cpp:382] ip3_relu3_0_split -> ip3_relu3_0_split_1
I0428 20:35:50.919178  4708 net.cpp:124] Setting up ip3_relu3_0_split
I0428 20:35:50.919185  4708 net.cpp:131] Top shape: 100 10 (1000)
I0428 20:35:50.919188  4708 net.cpp:131] Top shape: 100 10 (1000)
I0428 20:35:50.919191  4708 net.cpp:139] Memory required for data: 30790800
I0428 20:35:50.919194  4708 layer_factory.hpp:77] Creating layer accuracy
I0428 20:35:50.919200  4708 net.cpp:86] Creating Layer accuracy
I0428 20:35:50.919204  4708 net.cpp:408] accuracy <- ip3_relu3_0_split_0
I0428 20:35:50.919209  4708 net.cpp:408] accuracy <- label_mnist_1_split_0
I0428 20:35:50.919212  4708 net.cpp:382] accuracy -> accuracy
…
