…
I0428 19:57:31.596464 28701 net.cpp:296] The NetState phase (0) differed from the phase (1) specified by a rule in layer mnist
I0428 19:57:31.596493 28701 net.cpp:296] The NetState phase (0) differed from the phase (1) specified by a rule in layer accuracy
I0428 19:57:31.596565 28701 net.cpp:53] Initializing net from parameters: 
name: "LeNet"
state {
  phase: TRAIN
  level: 0
  stage: ""
}
layer {
  name: "mnist"
  type: "Data"
  top: "data"
  top: "label"
  include {
    phase: TRAIN
  }
  transform_param {
    scale: 0.00390625
  }
  data_param {
    source: "examples/mnist/mnist_train_lmdb"
    batch_size: 64
    backend: LMDB
  }
}
layer {
  name: "conv0"
  type: "Convolution"
  bottom: "data"
  top: "conv0"
  param {
    lr_mult: 1
  }
  param {
    lr_mult: 2
  }
  convolution_param {
    num_output: 10
    kernel_size: 5
    stride: 1
    weight_filler {
      type: "xavier"
    }
    bias_filler {
      type: "constant"
    }
  }
}
layer {
  name: "pool0"
  type: "Pooling"
  bottom: "conv0"
  top: "pool0"
  pooling_param {
    pool: MAX
    kernel_size: 2
    stride: 2
  }
}
layer {
  name: "conv1"
  type: "Convolution"
  bottom: "pool0"
  top: "conv1"
  param {
    lr_mult: 1
  }
  param {
    lr_mult: 2
  }
  convolution_param {
    num_output: 5
    kernel_size: 5
    stride: 1
    weight_filler {
      type: "xavier"
    }
    bias_filler {
      type: "constant"
    }
  }
}
layer {
  name: "pool1"
  type: "Pooling"
  bottom: "conv1"
  top: "pool1"
  pooling_param {
    pool: MAX
    kernel_size: 2
    stride: 2
  }
}
layer {
  name: "ip1"
  type: "InnerProduct"
  bottom: "pool1"
  top: "ip1"
  param {
    lr_mult: 1
  }
  param {
    lr_mult: 2
  }
  inner_product_param {
    num_output: 50
    weight_filler {
      type: "xavier"
    }
    bias_filler {
      type: "constant"
    }
  }
}
layer {
  name: "relu1"
  type: "ReLU"
  bottom: "ip1"
  top: "ip1"
}
layer {
  name: "ip2"
  type: "InnerProduct"
  bottom: "ip1"
  top: "ip2"
  param {
    lr_mult: 1
  }
  param {
    lr_mult: 2
  }
  inner_product_param {
    num_output: 10
    weight_filler {
      type: "xavier"
    }
    bias_filler {
      type: "constant"
    }
  }
}
layer {
  name: "relu2"
  type: "ReLU"
  bottom: "ip2"
  top: "ip2"
}
layer {
  name: "loss"
  type: "SoftmaxWithLoss"
  bottom: "ip2"
  bottom: "label"
  top: "loss"
}
I0428 19:57:31.596626 28701 layer_factory.hpp:77] Creating layer mnist
I0428 19:57:31.596704 28701 db_lmdb.cpp:35] Opened lmdb examples/mnist/mnist_train_lmdb
I0428 19:57:31.596724 28701 net.cpp:86] Creating Layer mnist
I0428 19:57:31.596731 28701 net.cpp:382] mnist -> data
I0428 19:57:31.596748 28701 net.cpp:382] mnist -> label
I0428 19:57:31.597820 28701 data_layer.cpp:45] output data size: 64,1,28,28
I0428 19:57:31.600385 28701 net.cpp:124] Setting up mnist
I0428 19:57:31.600400 28701 net.cpp:131] Top shape: 64 1 28 28 (50176)
I0428 19:57:31.600405 28701 net.cpp:131] Top shape: 64 (64)
I0428 19:57:31.600409 28701 net.cpp:139] Memory required for data: 200960
I0428 19:57:31.600414 28701 layer_factory.hpp:77] Creating layer conv0
I0428 19:57:31.600430 28701 net.cpp:86] Creating Layer conv0
I0428 19:57:31.600433 28701 net.cpp:408] conv0 <- data
I0428 19:57:31.600458 28701 net.cpp:382] conv0 -> conv0
I0428 19:57:31.836858 28701 net.cpp:124] Setting up conv0
I0428 19:57:31.836899 28701 net.cpp:131] Top shape: 64 10 24 24 (368640)
I0428 19:57:31.836902 28701 net.cpp:139] Memory required for data: 1675520
I0428 19:57:31.836951 28701 layer_factory.hpp:77] Creating layer pool0
I0428 19:57:31.836963 28701 net.cpp:86] Creating Layer pool0
I0428 19:57:31.836971 28701 net.cpp:408] pool0 <- conv0
I0428 19:57:31.836977 28701 net.cpp:382] pool0 -> pool0
I0428 19:57:31.837023 28701 net.cpp:124] Setting up pool0
I0428 19:57:31.837028 28701 net.cpp:131] Top shape: 64 10 12 12 (92160)
I0428 19:57:31.837031 28701 net.cpp:139] Memory required for data: 2044160
I0428 19:57:31.837034 28701 layer_factory.hpp:77] Creating layer conv1
I0428 19:57:31.837060 28701 net.cpp:86] Creating Layer conv1
I0428 19:57:31.837064 28701 net.cpp:408] conv1 <- pool0
I0428 19:57:31.837069 28701 net.cpp:382] conv1 -> conv1
I0428 19:57:31.839850 28701 net.cpp:124] Setting up conv1
I0428 19:57:31.839864 28701 net.cpp:131] Top shape: 64 5 8 8 (20480)
I0428 19:57:31.839867 28701 net.cpp:139] Memory required for data: 2126080
I0428 19:57:31.839892 28701 layer_factory.hpp:77] Creating layer pool1
I0428 19:57:31.839900 28701 net.cpp:86] Creating Layer pool1
I0428 19:57:31.839902 28701 net.cpp:408] pool1 <- conv1
I0428 19:57:31.839907 28701 net.cpp:382] pool1 -> pool1
I0428 19:57:31.839943 28701 net.cpp:124] Setting up pool1
I0428 19:57:31.839951 28701 net.cpp:131] Top shape: 64 5 4 4 (5120)
I0428 19:57:31.839953 28701 net.cpp:139] Memory required for data: 2146560
I0428 19:57:31.839956 28701 layer_factory.hpp:77] Creating layer ip1
I0428 19:57:31.839962 28701 net.cpp:86] Creating Layer ip1
I0428 19:57:31.839965 28701 net.cpp:408] ip1 <- pool1
I0428 19:57:31.839970 28701 net.cpp:382] ip1 -> ip1
I0428 19:57:31.840090 28701 net.cpp:124] Setting up ip1
I0428 19:57:31.840095 28701 net.cpp:131] Top shape: 64 50 (3200)
I0428 19:57:31.840098 28701 net.cpp:139] Memory required for data: 2159360
I0428 19:57:31.840106 28701 layer_factory.hpp:77] Creating layer relu1
I0428 19:57:31.840111 28701 net.cpp:86] Creating Layer relu1
I0428 19:57:31.840113 28701 net.cpp:408] relu1 <- ip1
I0428 19:57:31.840117 28701 net.cpp:369] relu1 -> ip1 (in-place)
I0428 19:57:31.840315 28701 net.cpp:124] Setting up relu1
I0428 19:57:31.840324 28701 net.cpp:131] Top shape: 64 50 (3200)
I0428 19:57:31.840342 28701 net.cpp:139] Memory required for data: 2172160
I0428 19:57:31.840347 28701 layer_factory.hpp:77] Creating layer ip2
I0428 19:57:31.840353 28701 net.cpp:86] Creating Layer ip2
I0428 19:57:31.840356 28701 net.cpp:408] ip2 <- ip1
I0428 19:57:31.840361 28701 net.cpp:382] ip2 -> ip2
I0428 19:57:31.840468 28701 net.cpp:124] Setting up ip2
I0428 19:57:31.840474 28701 net.cpp:131] Top shape: 64 10 (640)
I0428 19:57:31.840478 28701 net.cpp:139] Memory required for data: 2174720
I0428 19:57:31.840484 28701 layer_factory.hpp:77] Creating layer relu2
I0428 19:57:31.840507 28701 net.cpp:86] Creating Layer relu2
I0428 19:57:31.840510 28701 net.cpp:408] relu2 <- ip2
I0428 19:57:31.840514 28701 net.cpp:369] relu2 -> ip2 (in-place)
I0428 19:57:31.841305 28701 net.cpp:124] Setting up relu2
I0428 19:57:31.841316 28701 net.cpp:131] Top shape: 64 10 (640)
I0428 19:57:31.841336 28701 net.cpp:139] Memory required for data: 2177280
I0428 19:57:31.841339 28701 layer_factory.hpp:77] Creating layer loss
I0428 19:57:31.841346 28701 net.cpp:86] Creating Layer loss
I0428 19:57:31.841348 28701 net.cpp:408] loss <- ip2
I0428 19:57:31.841353 28701 net.cpp:408] loss <- label
I0428 19:57:31.841358 28701 net.cpp:382] loss -> loss
I0428 19:57:31.841377 28701 layer_factory.hpp:77] Creating layer loss
…
I0428 19:57:31.842108 28701 solver.cpp:173] Creating test net (#0) specified by net file: ECE595/mnist/train_test/var_everything2/lenet_train_test791.prototxt
I0428 19:57:31.842149 28701 net.cpp:296] The NetState phase (1) differed from the phase (0) specified by a rule in layer mnist
I0428 19:57:31.842226 28701 net.cpp:53] Initializing net from parameters: 
name: "LeNet"
state {
  phase: TEST
}
layer {
  name: "mnist"
  type: "Data"
  top: "data"
  top: "label"
  include {
    phase: TEST
  }
  transform_param {
    scale: 0.00390625
  }
  data_param {
    source: "examples/mnist/mnist_test_lmdb"
    batch_size: 100
    backend: LMDB
  }
}
layer {
  name: "conv0"
  type: "Convolution"
  bottom: "data"
  top: "conv0"
  param {
    lr_mult: 1
  }
  param {
    lr_mult: 2
  }
  convolution_param {
    num_output: 10
    kernel_size: 5
    stride: 1
    weight_filler {
      type: "xavier"
    }
    bias_filler {
      type: "constant"
    }
  }
}
layer {
  name: "pool0"
  type: "Pooling"
  bottom: "conv0"
  top: "pool0"
  pooling_param {
    pool: MAX
    kernel_size: 2
    stride: 2
  }
}
layer {
  name: "conv1"
  type: "Convolution"
  bottom: "pool0"
  top: "conv1"
  param {
    lr_mult: 1
  }
  param {
    lr_mult: 2
  }
  convolution_param {
    num_output: 5
    kernel_size: 5
    stride: 1
    weight_filler {
      type: "xavier"
    }
    bias_filler {
      type: "constant"
    }
  }
}
layer {
  name: "pool1"
  type: "Pooling"
  bottom: "conv1"
  top: "pool1"
  pooling_param {
    pool: MAX
    kernel_size: 2
    stride: 2
  }
}
layer {
  name: "ip1"
  type: "InnerProduct"
  bottom: "pool1"
  top: "ip1"
  param {
    lr_mult: 1
  }
  param {
    lr_mult: 2
  }
  inner_product_param {
    num_output: 50
    weight_filler {
      type: "xavier"
    }
    bias_filler {
      type: "constant"
    }
  }
}
layer {
  name: "relu1"
  type: "ReLU"
  bottom: "ip1"
  top: "ip1"
}
layer {
  name: "ip2"
  type: "InnerProduct"
  bottom: "ip1"
  top: "ip2"
  param {
    lr_mult: 1
  }
  param {
    lr_mult: 2
  }
  inner_product_param {
    num_output: 10
    weight_filler {
      type: "xavier"
    }
    bias_filler {
      type: "constant"
    }
  }
}
layer {
  name: "relu2"
  type: "ReLU"
  bottom: "ip2"
  top: "ip2"
}
layer {
  name: "accuracy"
  type: "Accuracy"
  bottom: "ip2"
  bottom: "label"
  top: "accuracy"
  include {
    phase: TEST
  }
}
layer {
  name: "loss"
  type: "SoftmaxWithLoss"
  bottom: "ip2"
  bottom: "label"
  top: "loss"
}
I0428 19:57:31.842320 28701 layer_factory.hpp:77] Creating layer mnist
I0428 19:57:31.842366 28701 db_lmdb.cpp:35] Opened lmdb examples/mnist/mnist_test_lmdb
I0428 19:57:31.842378 28701 net.cpp:86] Creating Layer mnist
I0428 19:57:31.842383 28701 net.cpp:382] mnist -> data
I0428 19:57:31.842391 28701 net.cpp:382] mnist -> label
I0428 19:57:31.842476 28701 data_layer.cpp:45] output data size: 100,1,28,28
I0428 19:57:31.844481 28701 net.cpp:124] Setting up mnist
I0428 19:57:31.844509 28701 net.cpp:131] Top shape: 100 1 28 28 (78400)
I0428 19:57:31.844514 28701 net.cpp:131] Top shape: 100 (100)
I0428 19:57:31.844517 28701 net.cpp:139] Memory required for data: 314000
I0428 19:57:31.844521 28701 layer_factory.hpp:77] Creating layer label_mnist_1_split
I0428 19:57:31.844539 28701 net.cpp:86] Creating Layer label_mnist_1_split
I0428 19:57:31.844542 28701 net.cpp:408] label_mnist_1_split <- label
I0428 19:57:31.844547 28701 net.cpp:382] label_mnist_1_split -> label_mnist_1_split_0
I0428 19:57:31.844553 28701 net.cpp:382] label_mnist_1_split -> label_mnist_1_split_1
I0428 19:57:31.844645 28701 net.cpp:124] Setting up label_mnist_1_split
I0428 19:57:31.844660 28701 net.cpp:131] Top shape: 100 (100)
I0428 19:57:31.844665 28701 net.cpp:131] Top shape: 100 (100)
I0428 19:57:31.844667 28701 net.cpp:139] Memory required for data: 314800
I0428 19:57:31.844669 28701 layer_factory.hpp:77] Creating layer conv0
I0428 19:57:31.844677 28701 net.cpp:86] Creating Layer conv0
I0428 19:57:31.844681 28701 net.cpp:408] conv0 <- data
I0428 19:57:31.844686 28701 net.cpp:382] conv0 -> conv0
I0428 19:57:31.846328 28701 net.cpp:124] Setting up conv0
I0428 19:57:31.846343 28701 net.cpp:131] Top shape: 100 10 24 24 (576000)
I0428 19:57:31.846346 28701 net.cpp:139] Memory required for data: 2618800
I0428 19:57:31.846375 28701 layer_factory.hpp:77] Creating layer pool0
I0428 19:57:31.846382 28701 net.cpp:86] Creating Layer pool0
I0428 19:57:31.846385 28701 net.cpp:408] pool0 <- conv0
I0428 19:57:31.846390 28701 net.cpp:382] pool0 -> pool0
I0428 19:57:31.846424 28701 net.cpp:124] Setting up pool0
I0428 19:57:31.846431 28701 net.cpp:131] Top shape: 100 10 12 12 (144000)
I0428 19:57:31.846433 28701 net.cpp:139] Memory required for data: 3194800
I0428 19:57:31.846442 28701 layer_factory.hpp:77] Creating layer conv1
I0428 19:57:31.846451 28701 net.cpp:86] Creating Layer conv1
I0428 19:57:31.846453 28701 net.cpp:408] conv1 <- pool0
I0428 19:57:31.846458 28701 net.cpp:382] conv1 -> conv1
I0428 19:57:31.848594 28701 net.cpp:124] Setting up conv1
I0428 19:57:31.848606 28701 net.cpp:131] Top shape: 100 5 8 8 (32000)
I0428 19:57:31.848610 28701 net.cpp:139] Memory required for data: 3322800
I0428 19:57:31.848634 28701 layer_factory.hpp:77] Creating layer pool1
I0428 19:57:31.848640 28701 net.cpp:86] Creating Layer pool1
I0428 19:57:31.848644 28701 net.cpp:408] pool1 <- conv1
I0428 19:57:31.848649 28701 net.cpp:382] pool1 -> pool1
I0428 19:57:31.848695 28701 net.cpp:124] Setting up pool1
I0428 19:57:31.848701 28701 net.cpp:131] Top shape: 100 5 4 4 (8000)
I0428 19:57:31.848704 28701 net.cpp:139] Memory required for data: 3354800
I0428 19:57:31.848707 28701 layer_factory.hpp:77] Creating layer ip1
I0428 19:57:31.848712 28701 net.cpp:86] Creating Layer ip1
I0428 19:57:31.848716 28701 net.cpp:408] ip1 <- pool1
I0428 19:57:31.848721 28701 net.cpp:382] ip1 -> ip1
I0428 19:57:31.848886 28701 net.cpp:124] Setting up ip1
I0428 19:57:31.848896 28701 net.cpp:131] Top shape: 100 50 (5000)
I0428 19:57:31.848898 28701 net.cpp:139] Memory required for data: 3374800
I0428 19:57:31.848917 28701 layer_factory.hpp:77] Creating layer relu1
I0428 19:57:31.848922 28701 net.cpp:86] Creating Layer relu1
I0428 19:57:31.848925 28701 net.cpp:408] relu1 <- ip1
I0428 19:57:31.848930 28701 net.cpp:369] relu1 -> ip1 (in-place)
I0428 19:57:31.849098 28701 net.cpp:124] Setting up relu1
I0428 19:57:31.849107 28701 net.cpp:131] Top shape: 100 50 (5000)
I0428 19:57:31.849110 28701 net.cpp:139] Memory required for data: 3394800
I0428 19:57:31.849113 28701 layer_factory.hpp:77] Creating layer ip2
I0428 19:57:31.849122 28701 net.cpp:86] Creating Layer ip2
I0428 19:57:31.849128 28701 net.cpp:408] ip2 <- ip1
I0428 19:57:31.849133 28701 net.cpp:382] ip2 -> ip2
I0428 19:57:31.849251 28701 net.cpp:124] Setting up ip2
I0428 19:57:31.849256 28701 net.cpp:131] Top shape: 100 10 (1000)
I0428 19:57:31.849259 28701 net.cpp:139] Memory required for data: 3398800
I0428 19:57:31.849264 28701 layer_factory.hpp:77] Creating layer relu2
I0428 19:57:31.849269 28701 net.cpp:86] Creating Layer relu2
I0428 19:57:31.849272 28701 net.cpp:408] relu2 <- ip2
I0428 19:57:31.849277 28701 net.cpp:369] relu2 -> ip2 (in-place)
I0428 19:57:31.849519 28701 net.cpp:124] Setting up relu2
I0428 19:57:31.849529 28701 net.cpp:131] Top shape: 100 10 (1000)
I0428 19:57:31.849531 28701 net.cpp:139] Memory required for data: 3402800
I0428 19:57:31.849534 28701 layer_factory.hpp:77] Creating layer ip2_relu2_0_split
I0428 19:57:31.849539 28701 net.cpp:86] Creating Layer ip2_relu2_0_split
I0428 19:57:31.849541 28701 net.cpp:408] ip2_relu2_0_split <- ip2
I0428 19:57:31.849545 28701 net.cpp:382] ip2_relu2_0_split -> ip2_relu2_0_split_0
I0428 19:57:31.849560 28701 net.cpp:382] ip2_relu2_0_split -> ip2_relu2_0_split_1
I0428 19:57:31.849593 28701 net.cpp:124] Setting up ip2_relu2_0_split
I0428 19:57:31.849599 28701 net.cpp:131] Top shape: 100 10 (1000)
I0428 19:57:31.849603 28701 net.cpp:131] Top shape: 100 10 (1000)
I0428 19:57:31.849606 28701 net.cpp:139] Memory required for data: 3410800
I0428 19:57:31.849608 28701 layer_factory.hpp:77] Creating layer accuracy
I0428 19:57:31.849613 28701 net.cpp:86] Creating Layer accuracy
I0428 19:57:31.849622 28701 net.cpp:408] accuracy <- ip2_relu2_0_split_0
I0428 19:57:31.849625 28701 net.cpp:408] accuracy <- label_mnist_1_split_0
I0428 19:57:31.849629 28701 net.cpp:382] accuracy -> accuracy
…
