…
I0428 20:17:32.995412   893 net.cpp:296] The NetState phase (0) differed from the phase (1) specified by a rule in layer mnist
I0428 20:17:32.995441   893 net.cpp:296] The NetState phase (0) differed from the phase (1) specified by a rule in layer accuracy
I0428 20:17:32.995527   893 net.cpp:53] Initializing net from parameters: 
name: "LeNet"
state {
  phase: TRAIN
  level: 0
  stage: ""
}
layer {
  name: "mnist"
  type: "Data"
  top: "data"
  top: "label"
  include {
    phase: TRAIN
  }
  transform_param {
    scale: 0.00390625
  }
  data_param {
    source: "examples/mnist/mnist_train_lmdb"
    batch_size: 64
    backend: LMDB
  }
}
layer {
  name: "conv0"
  type: "Convolution"
  bottom: "data"
  top: "conv0"
  param {
    lr_mult: 1
  }
  param {
    lr_mult: 2
  }
  convolution_param {
    num_output: 50
    kernel_size: 5
    stride: 1
    weight_filler {
      type: "xavier"
    }
    bias_filler {
      type: "constant"
    }
  }
}
layer {
  name: "pool0"
  type: "Pooling"
  bottom: "conv0"
  top: "pool0"
  pooling_param {
    pool: MAX
    kernel_size: 2
    stride: 2
  }
}
layer {
  name: "conv1"
  type: "Convolution"
  bottom: "pool0"
  top: "conv1"
  param {
    lr_mult: 1
  }
  param {
    lr_mult: 2
  }
  convolution_param {
    num_output: 10
    kernel_size: 5
    stride: 1
    weight_filler {
      type: "xavier"
    }
    bias_filler {
      type: "constant"
    }
  }
}
layer {
  name: "pool1"
  type: "Pooling"
  bottom: "conv1"
  top: "pool1"
  pooling_param {
    pool: MAX
    kernel_size: 2
    stride: 2
  }
}
layer {
  name: "ip1"
  type: "InnerProduct"
  bottom: "pool1"
  top: "ip1"
  param {
    lr_mult: 1
  }
  param {
    lr_mult: 2
  }
  inner_product_param {
    num_output: 50
    weight_filler {
      type: "xavier"
    }
    bias_filler {
      type: "constant"
    }
  }
}
layer {
  name: "relu1"
  type: "ReLU"
  bottom: "ip1"
  top: "ip1"
}
layer {
  name: "ip2"
  type: "InnerProduct"
  bottom: "ip1"
  top: "ip2"
  param {
    lr_mult: 1
  }
  param {
    lr_mult: 2
  }
  inner_product_param {
    num_output: 10
    weight_filler {
      type: "xavier"
    }
    bias_filler {
      type: "constant"
    }
  }
}
layer {
  name: "relu2"
  type: "ReLU"
  bottom: "ip2"
  top: "ip2"
}
layer {
  name: "loss"
  type: "SoftmaxWithLoss"
  bottom: "ip2"
  bottom: "label"
  top: "loss"
}
I0428 20:17:32.995586   893 layer_factory.hpp:77] Creating layer mnist
I0428 20:17:32.995667   893 db_lmdb.cpp:35] Opened lmdb examples/mnist/mnist_train_lmdb
I0428 20:17:32.995687   893 net.cpp:86] Creating Layer mnist
I0428 20:17:32.995692   893 net.cpp:382] mnist -> data
I0428 20:17:32.995710   893 net.cpp:382] mnist -> label
I0428 20:17:32.996726   893 data_layer.cpp:45] output data size: 64,1,28,28
I0428 20:17:32.998951   893 net.cpp:124] Setting up mnist
I0428 20:17:32.998984   893 net.cpp:131] Top shape: 64 1 28 28 (50176)
I0428 20:17:32.998989   893 net.cpp:131] Top shape: 64 (64)
I0428 20:17:32.998992   893 net.cpp:139] Memory required for data: 200960
I0428 20:17:32.998998   893 layer_factory.hpp:77] Creating layer conv0
I0428 20:17:32.999013   893 net.cpp:86] Creating Layer conv0
I0428 20:17:32.999017   893 net.cpp:408] conv0 <- data
I0428 20:17:32.999027   893 net.cpp:382] conv0 -> conv0
I0428 20:17:33.234467   893 net.cpp:124] Setting up conv0
I0428 20:17:33.234493   893 net.cpp:131] Top shape: 64 50 24 24 (1843200)
I0428 20:17:33.234496   893 net.cpp:139] Memory required for data: 7573760
I0428 20:17:33.234545   893 layer_factory.hpp:77] Creating layer pool0
I0428 20:17:33.234572   893 net.cpp:86] Creating Layer pool0
I0428 20:17:33.234576   893 net.cpp:408] pool0 <- conv0
I0428 20:17:33.234581   893 net.cpp:382] pool0 -> pool0
I0428 20:17:33.234627   893 net.cpp:124] Setting up pool0
I0428 20:17:33.234633   893 net.cpp:131] Top shape: 64 50 12 12 (460800)
I0428 20:17:33.234635   893 net.cpp:139] Memory required for data: 9416960
I0428 20:17:33.234638   893 layer_factory.hpp:77] Creating layer conv1
I0428 20:17:33.234649   893 net.cpp:86] Creating Layer conv1
I0428 20:17:33.234652   893 net.cpp:408] conv1 <- pool0
I0428 20:17:33.234657   893 net.cpp:382] conv1 -> conv1
I0428 20:17:33.237538   893 net.cpp:124] Setting up conv1
I0428 20:17:33.237552   893 net.cpp:131] Top shape: 64 10 8 8 (40960)
I0428 20:17:33.237556   893 net.cpp:139] Memory required for data: 9580800
I0428 20:17:33.237565   893 layer_factory.hpp:77] Creating layer pool1
I0428 20:17:33.237588   893 net.cpp:86] Creating Layer pool1
I0428 20:17:33.237591   893 net.cpp:408] pool1 <- conv1
I0428 20:17:33.237612   893 net.cpp:382] pool1 -> pool1
I0428 20:17:33.237648   893 net.cpp:124] Setting up pool1
I0428 20:17:33.237653   893 net.cpp:131] Top shape: 64 10 4 4 (10240)
I0428 20:17:33.237656   893 net.cpp:139] Memory required for data: 9621760
I0428 20:17:33.237659   893 layer_factory.hpp:77] Creating layer ip1
I0428 20:17:33.237666   893 net.cpp:86] Creating Layer ip1
I0428 20:17:33.237668   893 net.cpp:408] ip1 <- pool1
I0428 20:17:33.237673   893 net.cpp:382] ip1 -> ip1
I0428 20:17:33.237812   893 net.cpp:124] Setting up ip1
I0428 20:17:33.237819   893 net.cpp:131] Top shape: 64 50 (3200)
I0428 20:17:33.237823   893 net.cpp:139] Memory required for data: 9634560
I0428 20:17:33.237845   893 layer_factory.hpp:77] Creating layer relu1
I0428 20:17:33.237850   893 net.cpp:86] Creating Layer relu1
I0428 20:17:33.237854   893 net.cpp:408] relu1 <- ip1
I0428 20:17:33.237857   893 net.cpp:369] relu1 -> ip1 (in-place)
I0428 20:17:33.238020   893 net.cpp:124] Setting up relu1
I0428 20:17:33.238029   893 net.cpp:131] Top shape: 64 50 (3200)
I0428 20:17:33.238031   893 net.cpp:139] Memory required for data: 9647360
I0428 20:17:33.238034   893 layer_factory.hpp:77] Creating layer ip2
I0428 20:17:33.238039   893 net.cpp:86] Creating Layer ip2
I0428 20:17:33.238042   893 net.cpp:408] ip2 <- ip1
I0428 20:17:33.238046   893 net.cpp:382] ip2 -> ip2
I0428 20:17:33.238131   893 net.cpp:124] Setting up ip2
I0428 20:17:33.238138   893 net.cpp:131] Top shape: 64 10 (640)
I0428 20:17:33.238142   893 net.cpp:139] Memory required for data: 9649920
I0428 20:17:33.238147   893 layer_factory.hpp:77] Creating layer relu2
I0428 20:17:33.238152   893 net.cpp:86] Creating Layer relu2
I0428 20:17:33.238154   893 net.cpp:408] relu2 <- ip2
I0428 20:17:33.238158   893 net.cpp:369] relu2 -> ip2 (in-place)
I0428 20:17:33.238934   893 net.cpp:124] Setting up relu2
I0428 20:17:33.238945   893 net.cpp:131] Top shape: 64 10 (640)
I0428 20:17:33.238965   893 net.cpp:139] Memory required for data: 9652480
I0428 20:17:33.238967   893 layer_factory.hpp:77] Creating layer loss
I0428 20:17:33.238973   893 net.cpp:86] Creating Layer loss
I0428 20:17:33.238976   893 net.cpp:408] loss <- ip2
I0428 20:17:33.238981   893 net.cpp:408] loss <- label
I0428 20:17:33.238986   893 net.cpp:382] loss -> loss
I0428 20:17:33.239004   893 layer_factory.hpp:77] Creating layer loss
…
I0428 20:17:33.239594   893 solver.cpp:173] Creating test net (#0) specified by net file: ECE595/mnist/train_test/var_everything2/lenet_train_test1297.prototxt
I0428 20:17:33.239648   893 net.cpp:296] The NetState phase (1) differed from the phase (0) specified by a rule in layer mnist
I0428 20:17:33.239729   893 net.cpp:53] Initializing net from parameters: 
name: "LeNet"
state {
  phase: TEST
}
layer {
  name: "mnist"
  type: "Data"
  top: "data"
  top: "label"
  include {
    phase: TEST
  }
  transform_param {
    scale: 0.00390625
  }
  data_param {
    source: "examples/mnist/mnist_test_lmdb"
    batch_size: 100
    backend: LMDB
  }
}
layer {
  name: "conv0"
  type: "Convolution"
  bottom: "data"
  top: "conv0"
  param {
    lr_mult: 1
  }
  param {
    lr_mult: 2
  }
  convolution_param {
    num_output: 50
    kernel_size: 5
    stride: 1
    weight_filler {
      type: "xavier"
    }
    bias_filler {
      type: "constant"
    }
  }
}
layer {
  name: "pool0"
  type: "Pooling"
  bottom: "conv0"
  top: "pool0"
  pooling_param {
    pool: MAX
    kernel_size: 2
    stride: 2
  }
}
layer {
  name: "conv1"
  type: "Convolution"
  bottom: "pool0"
  top: "conv1"
  param {
    lr_mult: 1
  }
  param {
    lr_mult: 2
  }
  convolution_param {
    num_output: 10
    kernel_size: 5
    stride: 1
    weight_filler {
      type: "xavier"
    }
    bias_filler {
      type: "constant"
    }
  }
}
layer {
  name: "pool1"
  type: "Pooling"
  bottom: "conv1"
  top: "pool1"
  pooling_param {
    pool: MAX
    kernel_size: 2
    stride: 2
  }
}
layer {
  name: "ip1"
  type: "InnerProduct"
  bottom: "pool1"
  top: "ip1"
  param {
    lr_mult: 1
  }
  param {
    lr_mult: 2
  }
  inner_product_param {
    num_output: 50
    weight_filler {
      type: "xavier"
    }
    bias_filler {
      type: "constant"
    }
  }
}
layer {
  name: "relu1"
  type: "ReLU"
  bottom: "ip1"
  top: "ip1"
}
layer {
  name: "ip2"
  type: "InnerProduct"
  bottom: "ip1"
  top: "ip2"
  param {
    lr_mult: 1
  }
  param {
    lr_mult: 2
  }
  inner_product_param {
    num_output: 10
    weight_filler {
      type: "xavier"
    }
    bias_filler {
      type: "constant"
    }
  }
}
layer {
  name: "relu2"
  type: "ReLU"
  bottom: "ip2"
  top: "ip2"
}
layer {
  name: "accuracy"
  type: "Accuracy"
  bottom: "ip2"
  bottom: "label"
  top: "accuracy"
  include {
    phase: TEST
  }
}
layer {
  name: "loss"
  type: "SoftmaxWithLoss"
  bottom: "ip2"
  bottom: "label"
  top: "loss"
}
I0428 20:17:33.239790   893 layer_factory.hpp:77] Creating layer mnist
I0428 20:17:33.239847   893 db_lmdb.cpp:35] Opened lmdb examples/mnist/mnist_test_lmdb
I0428 20:17:33.239874   893 net.cpp:86] Creating Layer mnist
I0428 20:17:33.239878   893 net.cpp:382] mnist -> data
I0428 20:17:33.239886   893 net.cpp:382] mnist -> label
I0428 20:17:33.239995   893 data_layer.cpp:45] output data size: 100,1,28,28
I0428 20:17:33.242197   893 net.cpp:124] Setting up mnist
I0428 20:17:33.242226   893 net.cpp:131] Top shape: 100 1 28 28 (78400)
I0428 20:17:33.242230   893 net.cpp:131] Top shape: 100 (100)
I0428 20:17:33.242233   893 net.cpp:139] Memory required for data: 314000
I0428 20:17:33.242238   893 layer_factory.hpp:77] Creating layer label_mnist_1_split
I0428 20:17:33.242244   893 net.cpp:86] Creating Layer label_mnist_1_split
I0428 20:17:33.242246   893 net.cpp:408] label_mnist_1_split <- label
I0428 20:17:33.242250   893 net.cpp:382] label_mnist_1_split -> label_mnist_1_split_0
I0428 20:17:33.242256   893 net.cpp:382] label_mnist_1_split -> label_mnist_1_split_1
I0428 20:17:33.242305   893 net.cpp:124] Setting up label_mnist_1_split
I0428 20:17:33.242310   893 net.cpp:131] Top shape: 100 (100)
I0428 20:17:33.242313   893 net.cpp:131] Top shape: 100 (100)
I0428 20:17:33.242316   893 net.cpp:139] Memory required for data: 314800
I0428 20:17:33.242318   893 layer_factory.hpp:77] Creating layer conv0
I0428 20:17:33.242326   893 net.cpp:86] Creating Layer conv0
I0428 20:17:33.242328   893 net.cpp:408] conv0 <- data
I0428 20:17:33.242333   893 net.cpp:382] conv0 -> conv0
I0428 20:17:33.244096   893 net.cpp:124] Setting up conv0
I0428 20:17:33.244110   893 net.cpp:131] Top shape: 100 50 24 24 (2880000)
I0428 20:17:33.244113   893 net.cpp:139] Memory required for data: 11834800
I0428 20:17:33.244122   893 layer_factory.hpp:77] Creating layer pool0
I0428 20:17:33.244139   893 net.cpp:86] Creating Layer pool0
I0428 20:17:33.244143   893 net.cpp:408] pool0 <- conv0
I0428 20:17:33.244148   893 net.cpp:382] pool0 -> pool0
I0428 20:17:33.244197   893 net.cpp:124] Setting up pool0
I0428 20:17:33.244204   893 net.cpp:131] Top shape: 100 50 12 12 (720000)
I0428 20:17:33.244206   893 net.cpp:139] Memory required for data: 14714800
I0428 20:17:33.244210   893 layer_factory.hpp:77] Creating layer conv1
I0428 20:17:33.244217   893 net.cpp:86] Creating Layer conv1
I0428 20:17:33.244220   893 net.cpp:408] conv1 <- pool0
I0428 20:17:33.244225   893 net.cpp:382] conv1 -> conv1
I0428 20:17:33.245823   893 net.cpp:124] Setting up conv1
I0428 20:17:33.245836   893 net.cpp:131] Top shape: 100 10 8 8 (64000)
I0428 20:17:33.245839   893 net.cpp:139] Memory required for data: 14970800
I0428 20:17:33.245847   893 layer_factory.hpp:77] Creating layer pool1
I0428 20:17:33.245853   893 net.cpp:86] Creating Layer pool1
I0428 20:17:33.245857   893 net.cpp:408] pool1 <- conv1
I0428 20:17:33.245860   893 net.cpp:382] pool1 -> pool1
I0428 20:17:33.245920   893 net.cpp:124] Setting up pool1
I0428 20:17:33.245925   893 net.cpp:131] Top shape: 100 10 4 4 (16000)
I0428 20:17:33.245929   893 net.cpp:139] Memory required for data: 15034800
I0428 20:17:33.245931   893 layer_factory.hpp:77] Creating layer ip1
I0428 20:17:33.245937   893 net.cpp:86] Creating Layer ip1
I0428 20:17:33.245946   893 net.cpp:408] ip1 <- pool1
I0428 20:17:33.245956   893 net.cpp:382] ip1 -> ip1
I0428 20:17:33.246121   893 net.cpp:124] Setting up ip1
I0428 20:17:33.246131   893 net.cpp:131] Top shape: 100 50 (5000)
I0428 20:17:33.246134   893 net.cpp:139] Memory required for data: 15054800
I0428 20:17:33.246141   893 layer_factory.hpp:77] Creating layer relu1
I0428 20:17:33.246146   893 net.cpp:86] Creating Layer relu1
I0428 20:17:33.246150   893 net.cpp:408] relu1 <- ip1
I0428 20:17:33.246155   893 net.cpp:369] relu1 -> ip1 (in-place)
I0428 20:17:33.246305   893 net.cpp:124] Setting up relu1
I0428 20:17:33.246328   893 net.cpp:131] Top shape: 100 50 (5000)
I0428 20:17:33.246331   893 net.cpp:139] Memory required for data: 15074800
I0428 20:17:33.246335   893 layer_factory.hpp:77] Creating layer ip2
I0428 20:17:33.246356   893 net.cpp:86] Creating Layer ip2
I0428 20:17:33.246359   893 net.cpp:408] ip2 <- ip1
I0428 20:17:33.246363   893 net.cpp:382] ip2 -> ip2
I0428 20:17:33.246465   893 net.cpp:124] Setting up ip2
I0428 20:17:33.246472   893 net.cpp:131] Top shape: 100 10 (1000)
I0428 20:17:33.246474   893 net.cpp:139] Memory required for data: 15078800
I0428 20:17:33.246479   893 layer_factory.hpp:77] Creating layer relu2
I0428 20:17:33.246484   893 net.cpp:86] Creating Layer relu2
I0428 20:17:33.246486   893 net.cpp:408] relu2 <- ip2
I0428 20:17:33.246490   893 net.cpp:369] relu2 -> ip2 (in-place)
I0428 20:17:33.246619   893 net.cpp:124] Setting up relu2
I0428 20:17:33.246626   893 net.cpp:131] Top shape: 100 10 (1000)
I0428 20:17:33.246630   893 net.cpp:139] Memory required for data: 15082800
I0428 20:17:33.246634   893 layer_factory.hpp:77] Creating layer ip2_relu2_0_split
I0428 20:17:33.246637   893 net.cpp:86] Creating Layer ip2_relu2_0_split
I0428 20:17:33.246639   893 net.cpp:408] ip2_relu2_0_split <- ip2
I0428 20:17:33.246644   893 net.cpp:382] ip2_relu2_0_split -> ip2_relu2_0_split_0
I0428 20:17:33.246659   893 net.cpp:382] ip2_relu2_0_split -> ip2_relu2_0_split_1
I0428 20:17:33.246697   893 net.cpp:124] Setting up ip2_relu2_0_split
I0428 20:17:33.246721   893 net.cpp:131] Top shape: 100 10 (1000)
I0428 20:17:33.246726   893 net.cpp:131] Top shape: 100 10 (1000)
I0428 20:17:33.246733   893 net.cpp:139] Memory required for data: 15090800
I0428 20:17:33.246737   893 layer_factory.hpp:77] Creating layer accuracy
I0428 20:17:33.246745   893 net.cpp:86] Creating Layer accuracy
I0428 20:17:33.246749   893 net.cpp:408] accuracy <- ip2_relu2_0_split_0
I0428 20:17:33.246753   893 net.cpp:408] accuracy <- label_mnist_1_split_0
I0428 20:17:33.246757   893 net.cpp:382] accuracy -> accuracy
…
