…
I0428 20:31:58.990170  4034 net.cpp:296] The NetState phase (0) differed from the phase (1) specified by a rule in layer mnist
I0428 20:31:58.990188  4034 net.cpp:296] The NetState phase (0) differed from the phase (1) specified by a rule in layer accuracy
I0428 20:31:58.990278  4034 net.cpp:53] Initializing net from parameters: 
name: "LeNet"
state {
  phase: TRAIN
  level: 0
  stage: ""
}
layer {
  name: "mnist"
  type: "Data"
  top: "data"
  top: "label"
  include {
    phase: TRAIN
  }
  transform_param {
    scale: 0.00390625
  }
  data_param {
    source: "examples/mnist/mnist_train_lmdb"
    batch_size: 64
    backend: LMDB
  }
}
layer {
  name: "conv0"
  type: "Convolution"
  bottom: "data"
  top: "conv0"
  param {
    lr_mult: 1
  }
  param {
    lr_mult: 2
  }
  convolution_param {
    num_output: 100
    kernel_size: 5
    stride: 1
    weight_filler {
      type: "xavier"
    }
    bias_filler {
      type: "constant"
    }
  }
}
layer {
  name: "pool0"
  type: "Pooling"
  bottom: "conv0"
  top: "pool0"
  pooling_param {
    pool: MAX
    kernel_size: 2
    stride: 2
  }
}
layer {
  name: "conv1"
  type: "Convolution"
  bottom: "pool0"
  top: "conv1"
  param {
    lr_mult: 1
  }
  param {
    lr_mult: 2
  }
  convolution_param {
    num_output: 25
    kernel_size: 5
    stride: 1
    weight_filler {
      type: "xavier"
    }
    bias_filler {
      type: "constant"
    }
  }
}
layer {
  name: "pool1"
  type: "Pooling"
  bottom: "conv1"
  top: "pool1"
  pooling_param {
    pool: MAX
    kernel_size: 2
    stride: 2
  }
}
layer {
  name: "ip1"
  type: "InnerProduct"
  bottom: "pool1"
  top: "ip1"
  param {
    lr_mult: 1
  }
  param {
    lr_mult: 2
  }
  inner_product_param {
    num_output: 10
    weight_filler {
      type: "xavier"
    }
    bias_filler {
      type: "constant"
    }
  }
}
layer {
  name: "relu1"
  type: "ReLU"
  bottom: "ip1"
  top: "ip1"
}
layer {
  name: "ip2"
  type: "InnerProduct"
  bottom: "ip1"
  top: "ip2"
  param {
    lr_mult: 1
  }
  param {
    lr_mult: 2
  }
  inner_product_param {
    num_output: 10
    weight_filler {
      type: "xavier"
    }
    bias_filler {
      type: "constant"
    }
  }
}
layer {
  name: "relu2"
  type: "ReLU"
  bottom: "ip2"
  top: "ip2"
}
layer {
  name: "loss"
  type: "SoftmaxWithLoss"
  bottom: "ip2"
  bottom: "label"
  top: "loss"
}
I0428 20:31:58.990353  4034 layer_factory.hpp:77] Creating layer mnist
I0428 20:31:58.990453  4034 db_lmdb.cpp:35] Opened lmdb examples/mnist/mnist_train_lmdb
I0428 20:31:58.990480  4034 net.cpp:86] Creating Layer mnist
I0428 20:31:58.990489  4034 net.cpp:382] mnist -> data
I0428 20:31:58.990514  4034 net.cpp:382] mnist -> label
I0428 20:31:58.991608  4034 data_layer.cpp:45] output data size: 64,1,28,28
I0428 20:31:58.994078  4034 net.cpp:124] Setting up mnist
I0428 20:31:58.994097  4034 net.cpp:131] Top shape: 64 1 28 28 (50176)
I0428 20:31:58.994102  4034 net.cpp:131] Top shape: 64 (64)
I0428 20:31:58.994107  4034 net.cpp:139] Memory required for data: 200960
I0428 20:31:58.994113  4034 layer_factory.hpp:77] Creating layer conv0
I0428 20:31:58.994143  4034 net.cpp:86] Creating Layer conv0
I0428 20:31:58.994148  4034 net.cpp:408] conv0 <- data
I0428 20:31:58.994160  4034 net.cpp:382] conv0 -> conv0
I0428 20:31:59.284766  4034 net.cpp:124] Setting up conv0
I0428 20:31:59.284798  4034 net.cpp:131] Top shape: 64 100 24 24 (3686400)
I0428 20:31:59.284803  4034 net.cpp:139] Memory required for data: 14946560
I0428 20:31:59.284848  4034 layer_factory.hpp:77] Creating layer pool0
I0428 20:31:59.284863  4034 net.cpp:86] Creating Layer pool0
I0428 20:31:59.284869  4034 net.cpp:408] pool0 <- conv0
I0428 20:31:59.284875  4034 net.cpp:382] pool0 -> pool0
I0428 20:31:59.284934  4034 net.cpp:124] Setting up pool0
I0428 20:31:59.284943  4034 net.cpp:131] Top shape: 64 100 12 12 (921600)
I0428 20:31:59.284946  4034 net.cpp:139] Memory required for data: 18632960
I0428 20:31:59.284950  4034 layer_factory.hpp:77] Creating layer conv1
I0428 20:31:59.284963  4034 net.cpp:86] Creating Layer conv1
I0428 20:31:59.284970  4034 net.cpp:408] conv1 <- pool0
I0428 20:31:59.284976  4034 net.cpp:382] conv1 -> conv1
I0428 20:31:59.287556  4034 net.cpp:124] Setting up conv1
I0428 20:31:59.287573  4034 net.cpp:131] Top shape: 64 25 8 8 (102400)
I0428 20:31:59.287578  4034 net.cpp:139] Memory required for data: 19042560
I0428 20:31:59.287588  4034 layer_factory.hpp:77] Creating layer pool1
I0428 20:31:59.287596  4034 net.cpp:86] Creating Layer pool1
I0428 20:31:59.287601  4034 net.cpp:408] pool1 <- conv1
I0428 20:31:59.287606  4034 net.cpp:382] pool1 -> pool1
I0428 20:31:59.287652  4034 net.cpp:124] Setting up pool1
I0428 20:31:59.287662  4034 net.cpp:131] Top shape: 64 25 4 4 (25600)
I0428 20:31:59.287665  4034 net.cpp:139] Memory required for data: 19144960
I0428 20:31:59.287668  4034 layer_factory.hpp:77] Creating layer ip1
I0428 20:31:59.287677  4034 net.cpp:86] Creating Layer ip1
I0428 20:31:59.287680  4034 net.cpp:408] ip1 <- pool1
I0428 20:31:59.287685  4034 net.cpp:382] ip1 -> ip1
I0428 20:31:59.287840  4034 net.cpp:124] Setting up ip1
I0428 20:31:59.287849  4034 net.cpp:131] Top shape: 64 10 (640)
I0428 20:31:59.287853  4034 net.cpp:139] Memory required for data: 19147520
I0428 20:31:59.287861  4034 layer_factory.hpp:77] Creating layer relu1
I0428 20:31:59.287868  4034 net.cpp:86] Creating Layer relu1
I0428 20:31:59.287874  4034 net.cpp:408] relu1 <- ip1
I0428 20:31:59.287880  4034 net.cpp:369] relu1 -> ip1 (in-place)
I0428 20:31:59.288080  4034 net.cpp:124] Setting up relu1
I0428 20:31:59.288091  4034 net.cpp:131] Top shape: 64 10 (640)
I0428 20:31:59.288095  4034 net.cpp:139] Memory required for data: 19150080
I0428 20:31:59.288100  4034 layer_factory.hpp:77] Creating layer ip2
I0428 20:31:59.288106  4034 net.cpp:86] Creating Layer ip2
I0428 20:31:59.288110  4034 net.cpp:408] ip2 <- ip1
I0428 20:31:59.288116  4034 net.cpp:382] ip2 -> ip2
I0428 20:31:59.288228  4034 net.cpp:124] Setting up ip2
I0428 20:31:59.288235  4034 net.cpp:131] Top shape: 64 10 (640)
I0428 20:31:59.288239  4034 net.cpp:139] Memory required for data: 19152640
I0428 20:31:59.288245  4034 layer_factory.hpp:77] Creating layer relu2
I0428 20:31:59.288252  4034 net.cpp:86] Creating Layer relu2
I0428 20:31:59.288259  4034 net.cpp:408] relu2 <- ip2
I0428 20:31:59.288264  4034 net.cpp:369] relu2 -> ip2 (in-place)
I0428 20:31:59.289122  4034 net.cpp:124] Setting up relu2
I0428 20:31:59.289137  4034 net.cpp:131] Top shape: 64 10 (640)
I0428 20:31:59.289141  4034 net.cpp:139] Memory required for data: 19155200
I0428 20:31:59.289146  4034 layer_factory.hpp:77] Creating layer loss
I0428 20:31:59.289153  4034 net.cpp:86] Creating Layer loss
I0428 20:31:59.289157  4034 net.cpp:408] loss <- ip2
I0428 20:31:59.289162  4034 net.cpp:408] loss <- label
I0428 20:31:59.289170  4034 net.cpp:382] loss -> loss
I0428 20:31:59.289192  4034 layer_factory.hpp:77] Creating layer loss
…
I0428 20:31:59.289937  4034 solver.cpp:173] Creating test net (#0) specified by net file: ECE595/mnist/train_test/var_everything2/lenet_train_test1564.prototxt
I0428 20:31:59.289968  4034 net.cpp:296] The NetState phase (1) differed from the phase (0) specified by a rule in layer mnist
I0428 20:31:59.290069  4034 net.cpp:53] Initializing net from parameters: 
name: "LeNet"
state {
  phase: TEST
}
layer {
  name: "mnist"
  type: "Data"
  top: "data"
  top: "label"
  include {
    phase: TEST
  }
  transform_param {
    scale: 0.00390625
  }
  data_param {
    source: "examples/mnist/mnist_test_lmdb"
    batch_size: 100
    backend: LMDB
  }
}
layer {
  name: "conv0"
  type: "Convolution"
  bottom: "data"
  top: "conv0"
  param {
    lr_mult: 1
  }
  param {
    lr_mult: 2
  }
  convolution_param {
    num_output: 100
    kernel_size: 5
    stride: 1
    weight_filler {
      type: "xavier"
    }
    bias_filler {
      type: "constant"
    }
  }
}
layer {
  name: "pool0"
  type: "Pooling"
  bottom: "conv0"
  top: "pool0"
  pooling_param {
    pool: MAX
    kernel_size: 2
    stride: 2
  }
}
layer {
  name: "conv1"
  type: "Convolution"
  bottom: "pool0"
  top: "conv1"
  param {
    lr_mult: 1
  }
  param {
    lr_mult: 2
  }
  convolution_param {
    num_output: 25
    kernel_size: 5
    stride: 1
    weight_filler {
      type: "xavier"
    }
    bias_filler {
      type: "constant"
    }
  }
}
layer {
  name: "pool1"
  type: "Pooling"
  bottom: "conv1"
  top: "pool1"
  pooling_param {
    pool: MAX
    kernel_size: 2
    stride: 2
  }
}
layer {
  name: "ip1"
  type: "InnerProduct"
  bottom: "pool1"
  top: "ip1"
  param {
    lr_mult: 1
  }
  param {
    lr_mult: 2
  }
  inner_product_param {
    num_output: 10
    weight_filler {
      type: "xavier"
    }
    bias_filler {
      type: "constant"
    }
  }
}
layer {
  name: "relu1"
  type: "ReLU"
  bottom: "ip1"
  top: "ip1"
}
layer {
  name: "ip2"
  type: "InnerProduct"
  bottom: "ip1"
  top: "ip2"
  param {
    lr_mult: 1
  }
  param {
    lr_mult: 2
  }
  inner_product_param {
    num_output: 10
    weight_filler {
      type: "xavier"
    }
    bias_filler {
      type: "constant"
    }
  }
}
layer {
  name: "relu2"
  type: "ReLU"
  bottom: "ip2"
  top: "ip2"
}
layer {
  name: "accuracy"
  type: "Accuracy"
  bottom: "ip2"
  bottom: "label"
  top: "accuracy"
  include {
    phase: TEST
  }
}
layer {
  name: "loss"
  type: "SoftmaxWithLoss"
  bottom: "ip2"
  bottom: "label"
  top: "loss"
}
I0428 20:31:59.290148  4034 layer_factory.hpp:77] Creating layer mnist
I0428 20:31:59.290200  4034 db_lmdb.cpp:35] Opened lmdb examples/mnist/mnist_test_lmdb
I0428 20:31:59.290215  4034 net.cpp:86] Creating Layer mnist
I0428 20:31:59.290225  4034 net.cpp:382] mnist -> data
I0428 20:31:59.290233  4034 net.cpp:382] mnist -> label
I0428 20:31:59.290341  4034 data_layer.cpp:45] output data size: 100,1,28,28
I0428 20:31:59.292546  4034 net.cpp:124] Setting up mnist
I0428 20:31:59.292562  4034 net.cpp:131] Top shape: 100 1 28 28 (78400)
I0428 20:31:59.292568  4034 net.cpp:131] Top shape: 100 (100)
I0428 20:31:59.292572  4034 net.cpp:139] Memory required for data: 314000
I0428 20:31:59.292575  4034 layer_factory.hpp:77] Creating layer label_mnist_1_split
I0428 20:31:59.292590  4034 net.cpp:86] Creating Layer label_mnist_1_split
I0428 20:31:59.292595  4034 net.cpp:408] label_mnist_1_split <- label
I0428 20:31:59.292600  4034 net.cpp:382] label_mnist_1_split -> label_mnist_1_split_0
I0428 20:31:59.292608  4034 net.cpp:382] label_mnist_1_split -> label_mnist_1_split_1
I0428 20:31:59.292677  4034 net.cpp:124] Setting up label_mnist_1_split
I0428 20:31:59.292685  4034 net.cpp:131] Top shape: 100 (100)
I0428 20:31:59.292690  4034 net.cpp:131] Top shape: 100 (100)
I0428 20:31:59.292692  4034 net.cpp:139] Memory required for data: 314800
I0428 20:31:59.292695  4034 layer_factory.hpp:77] Creating layer conv0
I0428 20:31:59.292706  4034 net.cpp:86] Creating Layer conv0
I0428 20:31:59.292711  4034 net.cpp:408] conv0 <- data
I0428 20:31:59.292717  4034 net.cpp:382] conv0 -> conv0
I0428 20:31:59.294675  4034 net.cpp:124] Setting up conv0
I0428 20:31:59.294693  4034 net.cpp:131] Top shape: 100 100 24 24 (5760000)
I0428 20:31:59.294697  4034 net.cpp:139] Memory required for data: 23354800
I0428 20:31:59.294708  4034 layer_factory.hpp:77] Creating layer pool0
I0428 20:31:59.294716  4034 net.cpp:86] Creating Layer pool0
I0428 20:31:59.294720  4034 net.cpp:408] pool0 <- conv0
I0428 20:31:59.294728  4034 net.cpp:382] pool0 -> pool0
I0428 20:31:59.294771  4034 net.cpp:124] Setting up pool0
I0428 20:31:59.294777  4034 net.cpp:131] Top shape: 100 100 12 12 (1440000)
I0428 20:31:59.294781  4034 net.cpp:139] Memory required for data: 29114800
I0428 20:31:59.294785  4034 layer_factory.hpp:77] Creating layer conv1
I0428 20:31:59.294805  4034 net.cpp:86] Creating Layer conv1
I0428 20:31:59.294808  4034 net.cpp:408] conv1 <- pool0
I0428 20:31:59.294816  4034 net.cpp:382] conv1 -> conv1
I0428 20:31:59.296919  4034 net.cpp:124] Setting up conv1
I0428 20:31:59.296939  4034 net.cpp:131] Top shape: 100 25 8 8 (160000)
I0428 20:31:59.296943  4034 net.cpp:139] Memory required for data: 29754800
I0428 20:31:59.296954  4034 layer_factory.hpp:77] Creating layer pool1
I0428 20:31:59.296963  4034 net.cpp:86] Creating Layer pool1
I0428 20:31:59.296968  4034 net.cpp:408] pool1 <- conv1
I0428 20:31:59.296974  4034 net.cpp:382] pool1 -> pool1
I0428 20:31:59.297020  4034 net.cpp:124] Setting up pool1
I0428 20:31:59.297029  4034 net.cpp:131] Top shape: 100 25 4 4 (40000)
I0428 20:31:59.297031  4034 net.cpp:139] Memory required for data: 29914800
I0428 20:31:59.297034  4034 layer_factory.hpp:77] Creating layer ip1
I0428 20:31:59.297041  4034 net.cpp:86] Creating Layer ip1
I0428 20:31:59.297045  4034 net.cpp:408] ip1 <- pool1
I0428 20:31:59.297051  4034 net.cpp:382] ip1 -> ip1
I0428 20:31:59.297204  4034 net.cpp:124] Setting up ip1
I0428 20:31:59.297214  4034 net.cpp:131] Top shape: 100 10 (1000)
I0428 20:31:59.297217  4034 net.cpp:139] Memory required for data: 29918800
I0428 20:31:59.297226  4034 layer_factory.hpp:77] Creating layer relu1
I0428 20:31:59.297240  4034 net.cpp:86] Creating Layer relu1
I0428 20:31:59.297245  4034 net.cpp:408] relu1 <- ip1
I0428 20:31:59.297251  4034 net.cpp:369] relu1 -> ip1 (in-place)
I0428 20:31:59.297451  4034 net.cpp:124] Setting up relu1
I0428 20:31:59.297466  4034 net.cpp:131] Top shape: 100 10 (1000)
I0428 20:31:59.297468  4034 net.cpp:139] Memory required for data: 29922800
I0428 20:31:59.297472  4034 layer_factory.hpp:77] Creating layer ip2
I0428 20:31:59.297482  4034 net.cpp:86] Creating Layer ip2
I0428 20:31:59.297487  4034 net.cpp:408] ip2 <- ip1
I0428 20:31:59.297493  4034 net.cpp:382] ip2 -> ip2
I0428 20:31:59.297619  4034 net.cpp:124] Setting up ip2
I0428 20:31:59.297628  4034 net.cpp:131] Top shape: 100 10 (1000)
I0428 20:31:59.297631  4034 net.cpp:139] Memory required for data: 29926800
I0428 20:31:59.297638  4034 layer_factory.hpp:77] Creating layer relu2
I0428 20:31:59.297644  4034 net.cpp:86] Creating Layer relu2
I0428 20:31:59.297648  4034 net.cpp:408] relu2 <- ip2
I0428 20:31:59.297654  4034 net.cpp:369] relu2 -> ip2 (in-place)
I0428 20:31:59.297902  4034 net.cpp:124] Setting up relu2
I0428 20:31:59.297914  4034 net.cpp:131] Top shape: 100 10 (1000)
I0428 20:31:59.297916  4034 net.cpp:139] Memory required for data: 29930800
I0428 20:31:59.297920  4034 layer_factory.hpp:77] Creating layer ip2_relu2_0_split
I0428 20:31:59.297927  4034 net.cpp:86] Creating Layer ip2_relu2_0_split
I0428 20:31:59.297931  4034 net.cpp:408] ip2_relu2_0_split <- ip2
I0428 20:31:59.297936  4034 net.cpp:382] ip2_relu2_0_split -> ip2_relu2_0_split_0
I0428 20:31:59.297955  4034 net.cpp:382] ip2_relu2_0_split -> ip2_relu2_0_split_1
I0428 20:31:59.298001  4034 net.cpp:124] Setting up ip2_relu2_0_split
I0428 20:31:59.298007  4034 net.cpp:131] Top shape: 100 10 (1000)
I0428 20:31:59.298012  4034 net.cpp:131] Top shape: 100 10 (1000)
I0428 20:31:59.298014  4034 net.cpp:139] Memory required for data: 29938800
I0428 20:31:59.298018  4034 layer_factory.hpp:77] Creating layer accuracy
I0428 20:31:59.298023  4034 net.cpp:86] Creating Layer accuracy
I0428 20:31:59.298027  4034 net.cpp:408] accuracy <- ip2_relu2_0_split_0
I0428 20:31:59.298032  4034 net.cpp:408] accuracy <- label_mnist_1_split_0
I0428 20:31:59.298038  4034 net.cpp:382] accuracy -> accuracy
…
