…
I0428 19:38:26.200774 24011 net.cpp:296] The NetState phase (0) differed from the phase (1) specified by a rule in layer mnist
I0428 19:38:26.200790 24011 net.cpp:296] The NetState phase (0) differed from the phase (1) specified by a rule in layer accuracy
I0428 19:38:26.200882 24011 net.cpp:53] Initializing net from parameters: 
name: "LeNet"
state {
  phase: TRAIN
  level: 0
  stage: ""
}
layer {
  name: "mnist"
  type: "Data"
  top: "data"
  top: "label"
  include {
    phase: TRAIN
  }
  transform_param {
    scale: 0.00390625
  }
  data_param {
    source: "examples/mnist/mnist_train_lmdb"
    batch_size: 64
    backend: LMDB
  }
}
layer {
  name: "conv0"
  type: "Convolution"
  bottom: "data"
  top: "conv0"
  param {
    lr_mult: 1
  }
  param {
    lr_mult: 2
  }
  convolution_param {
    num_output: 2
    kernel_size: 5
    stride: 1
    weight_filler {
      type: "xavier"
    }
    bias_filler {
      type: "constant"
    }
  }
}
layer {
  name: "pool0"
  type: "Pooling"
  bottom: "conv0"
  top: "pool0"
  pooling_param {
    pool: MAX
    kernel_size: 2
    stride: 2
  }
}
layer {
  name: "conv1"
  type: "Convolution"
  bottom: "pool0"
  top: "conv1"
  param {
    lr_mult: 1
  }
  param {
    lr_mult: 2
  }
  convolution_param {
    num_output: 2
    kernel_size: 5
    stride: 1
    weight_filler {
      type: "xavier"
    }
    bias_filler {
      type: "constant"
    }
  }
}
layer {
  name: "pool1"
  type: "Pooling"
  bottom: "conv1"
  top: "pool1"
  pooling_param {
    pool: MAX
    kernel_size: 2
    stride: 2
  }
}
layer {
  name: "ip1"
  type: "InnerProduct"
  bottom: "pool1"
  top: "ip1"
  param {
    lr_mult: 1
  }
  param {
    lr_mult: 2
  }
  inner_product_param {
    num_output: 10
    weight_filler {
      type: "xavier"
    }
    bias_filler {
      type: "constant"
    }
  }
}
layer {
  name: "relu1"
  type: "ReLU"
  bottom: "ip1"
  top: "ip1"
}
layer {
  name: "loss"
  type: "SoftmaxWithLoss"
  bottom: "ip1"
  bottom: "label"
  top: "loss"
}
I0428 19:38:26.200956 24011 layer_factory.hpp:77] Creating layer mnist
I0428 19:38:26.201058 24011 db_lmdb.cpp:35] Opened lmdb examples/mnist/mnist_train_lmdb
I0428 19:38:26.201083 24011 net.cpp:86] Creating Layer mnist
I0428 19:38:26.201094 24011 net.cpp:382] mnist -> data
I0428 19:38:26.201117 24011 net.cpp:382] mnist -> label
I0428 19:38:26.202217 24011 data_layer.cpp:45] output data size: 64,1,28,28
I0428 19:38:26.204668 24011 net.cpp:124] Setting up mnist
I0428 19:38:26.204684 24011 net.cpp:131] Top shape: 64 1 28 28 (50176)
I0428 19:38:26.204691 24011 net.cpp:131] Top shape: 64 (64)
I0428 19:38:26.204694 24011 net.cpp:139] Memory required for data: 200960
I0428 19:38:26.204701 24011 layer_factory.hpp:77] Creating layer conv0
I0428 19:38:26.204716 24011 net.cpp:86] Creating Layer conv0
I0428 19:38:26.204722 24011 net.cpp:408] conv0 <- data
I0428 19:38:26.204741 24011 net.cpp:382] conv0 -> conv0
I0428 19:38:26.478755 24011 net.cpp:124] Setting up conv0
I0428 19:38:26.478796 24011 net.cpp:131] Top shape: 64 2 24 24 (73728)
I0428 19:38:26.478801 24011 net.cpp:139] Memory required for data: 495872
I0428 19:38:26.478829 24011 layer_factory.hpp:77] Creating layer pool0
I0428 19:38:26.478842 24011 net.cpp:86] Creating Layer pool0
I0428 19:38:26.478844 24011 net.cpp:408] pool0 <- conv0
I0428 19:38:26.478864 24011 net.cpp:382] pool0 -> pool0
I0428 19:38:26.478919 24011 net.cpp:124] Setting up pool0
I0428 19:38:26.478936 24011 net.cpp:131] Top shape: 64 2 12 12 (18432)
I0428 19:38:26.478953 24011 net.cpp:139] Memory required for data: 569600
I0428 19:38:26.478956 24011 layer_factory.hpp:77] Creating layer conv1
I0428 19:38:26.478967 24011 net.cpp:86] Creating Layer conv1
I0428 19:38:26.478971 24011 net.cpp:408] conv1 <- pool0
I0428 19:38:26.478976 24011 net.cpp:382] conv1 -> conv1
I0428 19:38:26.480881 24011 net.cpp:124] Setting up conv1
I0428 19:38:26.480912 24011 net.cpp:131] Top shape: 64 2 8 8 (8192)
I0428 19:38:26.480916 24011 net.cpp:139] Memory required for data: 602368
I0428 19:38:26.480927 24011 layer_factory.hpp:77] Creating layer pool1
I0428 19:38:26.480936 24011 net.cpp:86] Creating Layer pool1
I0428 19:38:26.480938 24011 net.cpp:408] pool1 <- conv1
I0428 19:38:26.480944 24011 net.cpp:382] pool1 -> pool1
I0428 19:38:26.480983 24011 net.cpp:124] Setting up pool1
I0428 19:38:26.480988 24011 net.cpp:131] Top shape: 64 2 4 4 (2048)
I0428 19:38:26.480990 24011 net.cpp:139] Memory required for data: 610560
I0428 19:38:26.481009 24011 layer_factory.hpp:77] Creating layer ip1
I0428 19:38:26.481015 24011 net.cpp:86] Creating Layer ip1
I0428 19:38:26.481019 24011 net.cpp:408] ip1 <- pool1
I0428 19:38:26.481024 24011 net.cpp:382] ip1 -> ip1
I0428 19:38:26.481119 24011 net.cpp:124] Setting up ip1
I0428 19:38:26.481127 24011 net.cpp:131] Top shape: 64 10 (640)
I0428 19:38:26.481144 24011 net.cpp:139] Memory required for data: 613120
I0428 19:38:26.481153 24011 layer_factory.hpp:77] Creating layer relu1
I0428 19:38:26.481158 24011 net.cpp:86] Creating Layer relu1
I0428 19:38:26.481161 24011 net.cpp:408] relu1 <- ip1
I0428 19:38:26.481165 24011 net.cpp:369] relu1 -> ip1 (in-place)
I0428 19:38:26.481323 24011 net.cpp:124] Setting up relu1
I0428 19:38:26.481333 24011 net.cpp:131] Top shape: 64 10 (640)
I0428 19:38:26.481335 24011 net.cpp:139] Memory required for data: 615680
I0428 19:38:26.481338 24011 layer_factory.hpp:77] Creating layer loss
I0428 19:38:26.481343 24011 net.cpp:86] Creating Layer loss
I0428 19:38:26.481346 24011 net.cpp:408] loss <- ip1
I0428 19:38:26.481350 24011 net.cpp:408] loss <- label
I0428 19:38:26.481355 24011 net.cpp:382] loss -> loss
I0428 19:38:26.481374 24011 layer_factory.hpp:77] Creating layer loss
…
I0428 19:38:26.482527 24011 solver.cpp:173] Creating test net (#0) specified by net file: ECE595/mnist/train_test/var_everything2/lenet_train_test273.prototxt
I0428 19:38:26.482552 24011 net.cpp:296] The NetState phase (1) differed from the phase (0) specified by a rule in layer mnist
I0428 19:38:26.482625 24011 net.cpp:53] Initializing net from parameters: 
name: "LeNet"
state {
  phase: TEST
}
layer {
  name: "mnist"
  type: "Data"
  top: "data"
  top: "label"
  include {
    phase: TEST
  }
  transform_param {
    scale: 0.00390625
  }
  data_param {
    source: "examples/mnist/mnist_test_lmdb"
    batch_size: 100
    backend: LMDB
  }
}
layer {
  name: "conv0"
  type: "Convolution"
  bottom: "data"
  top: "conv0"
  param {
    lr_mult: 1
  }
  param {
    lr_mult: 2
  }
  convolution_param {
    num_output: 2
    kernel_size: 5
    stride: 1
    weight_filler {
      type: "xavier"
    }
    bias_filler {
      type: "constant"
    }
  }
}
layer {
  name: "pool0"
  type: "Pooling"
  bottom: "conv0"
  top: "pool0"
  pooling_param {
    pool: MAX
    kernel_size: 2
    stride: 2
  }
}
layer {
  name: "conv1"
  type: "Convolution"
  bottom: "pool0"
  top: "conv1"
  param {
    lr_mult: 1
  }
  param {
    lr_mult: 2
  }
  convolution_param {
    num_output: 2
    kernel_size: 5
    stride: 1
    weight_filler {
      type: "xavier"
    }
    bias_filler {
      type: "constant"
    }
  }
}
layer {
  name: "pool1"
  type: "Pooling"
  bottom: "conv1"
  top: "pool1"
  pooling_param {
    pool: MAX
    kernel_size: 2
    stride: 2
  }
}
layer {
  name: "ip1"
  type: "InnerProduct"
  bottom: "pool1"
  top: "ip1"
  param {
    lr_mult: 1
  }
  param {
    lr_mult: 2
  }
  inner_product_param {
    num_output: 10
    weight_filler {
      type: "xavier"
    }
    bias_filler {
      type: "constant"
    }
  }
}
layer {
  name: "relu1"
  type: "ReLU"
  bottom: "ip1"
  top: "ip1"
}
layer {
  name: "accuracy"
  type: "Accuracy"
  bottom: "ip1"
  bottom: "label"
  top: "accuracy"
  include {
    phase: TEST
  }
}
layer {
  name: "loss"
  type: "SoftmaxWithLoss"
  bottom: "ip1"
  bottom: "label"
  top: "loss"
}
I0428 19:38:26.482694 24011 layer_factory.hpp:77] Creating layer mnist
I0428 19:38:26.482738 24011 db_lmdb.cpp:35] Opened lmdb examples/mnist/mnist_test_lmdb
I0428 19:38:26.482751 24011 net.cpp:86] Creating Layer mnist
I0428 19:38:26.482755 24011 net.cpp:382] mnist -> data
I0428 19:38:26.482764 24011 net.cpp:382] mnist -> label
I0428 19:38:26.482844 24011 data_layer.cpp:45] output data size: 100,1,28,28
I0428 19:38:26.485098 24011 net.cpp:124] Setting up mnist
I0428 19:38:26.485127 24011 net.cpp:131] Top shape: 100 1 28 28 (78400)
I0428 19:38:26.485133 24011 net.cpp:131] Top shape: 100 (100)
I0428 19:38:26.485136 24011 net.cpp:139] Memory required for data: 314000
I0428 19:38:26.485141 24011 layer_factory.hpp:77] Creating layer label_mnist_1_split
I0428 19:38:26.485150 24011 net.cpp:86] Creating Layer label_mnist_1_split
I0428 19:38:26.485154 24011 net.cpp:408] label_mnist_1_split <- label
I0428 19:38:26.485160 24011 net.cpp:382] label_mnist_1_split -> label_mnist_1_split_0
I0428 19:38:26.485167 24011 net.cpp:382] label_mnist_1_split -> label_mnist_1_split_1
I0428 19:38:26.485281 24011 net.cpp:124] Setting up label_mnist_1_split
I0428 19:38:26.485288 24011 net.cpp:131] Top shape: 100 (100)
I0428 19:38:26.485292 24011 net.cpp:131] Top shape: 100 (100)
I0428 19:38:26.485296 24011 net.cpp:139] Memory required for data: 314800
I0428 19:38:26.485298 24011 layer_factory.hpp:77] Creating layer conv0
I0428 19:38:26.485306 24011 net.cpp:86] Creating Layer conv0
I0428 19:38:26.485311 24011 net.cpp:408] conv0 <- data
I0428 19:38:26.485316 24011 net.cpp:382] conv0 -> conv0
I0428 19:38:26.486135 24011 net.cpp:124] Setting up conv0
I0428 19:38:26.486161 24011 net.cpp:131] Top shape: 100 2 24 24 (115200)
I0428 19:38:26.486166 24011 net.cpp:139] Memory required for data: 775600
I0428 19:38:26.486189 24011 layer_factory.hpp:77] Creating layer pool0
I0428 19:38:26.486205 24011 net.cpp:86] Creating Layer pool0
I0428 19:38:26.486209 24011 net.cpp:408] pool0 <- conv0
I0428 19:38:26.486213 24011 net.cpp:382] pool0 -> pool0
I0428 19:38:26.486246 24011 net.cpp:124] Setting up pool0
I0428 19:38:26.486251 24011 net.cpp:131] Top shape: 100 2 12 12 (28800)
I0428 19:38:26.486254 24011 net.cpp:139] Memory required for data: 890800
I0428 19:38:26.486258 24011 layer_factory.hpp:77] Creating layer conv1
I0428 19:38:26.486264 24011 net.cpp:86] Creating Layer conv1
I0428 19:38:26.486268 24011 net.cpp:408] conv1 <- pool0
I0428 19:38:26.486273 24011 net.cpp:382] conv1 -> conv1
I0428 19:38:26.487758 24011 net.cpp:124] Setting up conv1
I0428 19:38:26.487772 24011 net.cpp:131] Top shape: 100 2 8 8 (12800)
I0428 19:38:26.487793 24011 net.cpp:139] Memory required for data: 942000
I0428 19:38:26.487803 24011 layer_factory.hpp:77] Creating layer pool1
I0428 19:38:26.487810 24011 net.cpp:86] Creating Layer pool1
I0428 19:38:26.487825 24011 net.cpp:408] pool1 <- conv1
I0428 19:38:26.487830 24011 net.cpp:382] pool1 -> pool1
I0428 19:38:26.487869 24011 net.cpp:124] Setting up pool1
I0428 19:38:26.487874 24011 net.cpp:131] Top shape: 100 2 4 4 (3200)
I0428 19:38:26.487879 24011 net.cpp:139] Memory required for data: 954800
I0428 19:38:26.487881 24011 layer_factory.hpp:77] Creating layer ip1
I0428 19:38:26.487889 24011 net.cpp:86] Creating Layer ip1
I0428 19:38:26.487892 24011 net.cpp:408] ip1 <- pool1
I0428 19:38:26.487897 24011 net.cpp:382] ip1 -> ip1
I0428 19:38:26.488003 24011 net.cpp:124] Setting up ip1
I0428 19:38:26.488013 24011 net.cpp:131] Top shape: 100 10 (1000)
I0428 19:38:26.488015 24011 net.cpp:139] Memory required for data: 958800
I0428 19:38:26.488044 24011 layer_factory.hpp:77] Creating layer relu1
I0428 19:38:26.488050 24011 net.cpp:86] Creating Layer relu1
I0428 19:38:26.488054 24011 net.cpp:408] relu1 <- ip1
I0428 19:38:26.488059 24011 net.cpp:369] relu1 -> ip1 (in-place)
I0428 19:38:26.488850 24011 net.cpp:124] Setting up relu1
I0428 19:38:26.488862 24011 net.cpp:131] Top shape: 100 10 (1000)
I0428 19:38:26.488881 24011 net.cpp:139] Memory required for data: 962800
I0428 19:38:26.488884 24011 layer_factory.hpp:77] Creating layer ip1_relu1_0_split
I0428 19:38:26.488891 24011 net.cpp:86] Creating Layer ip1_relu1_0_split
I0428 19:38:26.488895 24011 net.cpp:408] ip1_relu1_0_split <- ip1
I0428 19:38:26.488914 24011 net.cpp:382] ip1_relu1_0_split -> ip1_relu1_0_split_0
I0428 19:38:26.488921 24011 net.cpp:382] ip1_relu1_0_split -> ip1_relu1_0_split_1
I0428 19:38:26.488961 24011 net.cpp:124] Setting up ip1_relu1_0_split
I0428 19:38:26.488966 24011 net.cpp:131] Top shape: 100 10 (1000)
I0428 19:38:26.488970 24011 net.cpp:131] Top shape: 100 10 (1000)
I0428 19:38:26.488972 24011 net.cpp:139] Memory required for data: 970800
I0428 19:38:26.488976 24011 layer_factory.hpp:77] Creating layer accuracy
I0428 19:38:26.488981 24011 net.cpp:86] Creating Layer accuracy
I0428 19:38:26.488983 24011 net.cpp:408] accuracy <- ip1_relu1_0_split_0
I0428 19:38:26.488987 24011 net.cpp:408] accuracy <- label_mnist_1_split_0
I0428 19:38:26.488991 24011 net.cpp:382] accuracy -> accuracy
…
