…
I0428 19:31:55.499125 22708 net.cpp:296] The NetState phase (0) differed from the phase (1) specified by a rule in layer mnist
I0428 19:31:55.499145 22708 net.cpp:296] The NetState phase (0) differed from the phase (1) specified by a rule in layer accuracy
I0428 19:31:55.499228 22708 net.cpp:53] Initializing net from parameters: 
name: "LeNet"
state {
  phase: TRAIN
  level: 0
  stage: ""
}
layer {
  name: "mnist"
  type: "Data"
  top: "data"
  top: "label"
  include {
    phase: TRAIN
  }
  transform_param {
    scale: 0.00390625
  }
  data_param {
    source: "examples/mnist/mnist_train_lmdb"
    batch_size: 64
    backend: LMDB
  }
}
layer {
  name: "conv0"
  type: "Convolution"
  bottom: "data"
  top: "conv0"
  param {
    lr_mult: 1
  }
  param {
    lr_mult: 2
  }
  convolution_param {
    num_output: 10
    kernel_size: 5
    stride: 1
    weight_filler {
      type: "xavier"
    }
    bias_filler {
      type: "constant"
    }
  }
}
layer {
  name: "pool0"
  type: "Pooling"
  bottom: "conv0"
  top: "pool0"
  pooling_param {
    pool: MAX
    kernel_size: 2
    stride: 2
  }
}
layer {
  name: "ip1"
  type: "InnerProduct"
  bottom: "pool0"
  top: "ip1"
  param {
    lr_mult: 1
  }
  param {
    lr_mult: 2
  }
  inner_product_param {
    num_output: 10
    weight_filler {
      type: "xavier"
    }
    bias_filler {
      type: "constant"
    }
  }
}
layer {
  name: "relu1"
  type: "ReLU"
  bottom: "ip1"
  top: "ip1"
}
layer {
  name: "ip2"
  type: "InnerProduct"
  bottom: "ip1"
  top: "ip2"
  param {
    lr_mult: 1
  }
  param {
    lr_mult: 2
  }
  inner_product_param {
    num_output: 50
    weight_filler {
      type: "xavier"
    }
    bias_filler {
      type: "constant"
    }
  }
}
layer {
  name: "relu2"
  type: "ReLU"
  bottom: "ip2"
  top: "ip2"
}
layer {
  name: "ip3"
  type: "InnerProduct"
  bottom: "ip2"
  top: "ip3"
  param {
    lr_mult: 1
  }
  param {
    lr_mult: 2
  }
  inner_product_param {
    num_output: 10
    weight_filler {
      type: "xavier"
    }
    bias_filler {
      type: "constant"
    }
  }
}
layer {
  name: "relu3"
  type: "ReLU"
  bottom: "ip3"
  top: "ip3"
}
layer {
  name: "loss"
  type: "SoftmaxWithLoss"
  bottom: "ip3"
  bottom: "label"
  top: "loss"
}
I0428 19:31:55.499316 22708 layer_factory.hpp:77] Creating layer mnist
I0428 19:31:55.499424 22708 db_lmdb.cpp:35] Opened lmdb examples/mnist/mnist_train_lmdb
I0428 19:31:55.499452 22708 net.cpp:86] Creating Layer mnist
I0428 19:31:55.499465 22708 net.cpp:382] mnist -> data
I0428 19:31:55.499491 22708 net.cpp:382] mnist -> label
I0428 19:31:55.500497 22708 data_layer.cpp:45] output data size: 64,1,28,28
I0428 19:31:55.502950 22708 net.cpp:124] Setting up mnist
I0428 19:31:55.502998 22708 net.cpp:131] Top shape: 64 1 28 28 (50176)
I0428 19:31:55.503010 22708 net.cpp:131] Top shape: 64 (64)
I0428 19:31:55.503016 22708 net.cpp:139] Memory required for data: 200960
I0428 19:31:55.503033 22708 layer_factory.hpp:77] Creating layer conv0
I0428 19:31:55.503059 22708 net.cpp:86] Creating Layer conv0
I0428 19:31:55.503067 22708 net.cpp:408] conv0 <- data
I0428 19:31:55.503084 22708 net.cpp:382] conv0 -> conv0
I0428 19:31:55.732851 22708 net.cpp:124] Setting up conv0
I0428 19:31:55.732880 22708 net.cpp:131] Top shape: 64 10 24 24 (368640)
I0428 19:31:55.732887 22708 net.cpp:139] Memory required for data: 1675520
I0428 19:31:55.732923 22708 layer_factory.hpp:77] Creating layer pool0
I0428 19:31:55.732940 22708 net.cpp:86] Creating Layer pool0
I0428 19:31:55.732964 22708 net.cpp:408] pool0 <- conv0
I0428 19:31:55.732975 22708 net.cpp:382] pool0 -> pool0
I0428 19:31:55.733029 22708 net.cpp:124] Setting up pool0
I0428 19:31:55.733039 22708 net.cpp:131] Top shape: 64 10 12 12 (92160)
I0428 19:31:55.733047 22708 net.cpp:139] Memory required for data: 2044160
I0428 19:31:55.733052 22708 layer_factory.hpp:77] Creating layer ip1
I0428 19:31:55.733064 22708 net.cpp:86] Creating Layer ip1
I0428 19:31:55.733072 22708 net.cpp:408] ip1 <- pool0
I0428 19:31:55.733081 22708 net.cpp:382] ip1 -> ip1
I0428 19:31:55.734076 22708 net.cpp:124] Setting up ip1
I0428 19:31:55.734091 22708 net.cpp:131] Top shape: 64 10 (640)
I0428 19:31:55.734097 22708 net.cpp:139] Memory required for data: 2046720
I0428 19:31:55.734109 22708 layer_factory.hpp:77] Creating layer relu1
I0428 19:31:55.734127 22708 net.cpp:86] Creating Layer relu1
I0428 19:31:55.734135 22708 net.cpp:408] relu1 <- ip1
I0428 19:31:55.734143 22708 net.cpp:369] relu1 -> ip1 (in-place)
I0428 19:31:55.734300 22708 net.cpp:124] Setting up relu1
I0428 19:31:55.734311 22708 net.cpp:131] Top shape: 64 10 (640)
I0428 19:31:55.734318 22708 net.cpp:139] Memory required for data: 2049280
I0428 19:31:55.734323 22708 layer_factory.hpp:77] Creating layer ip2
I0428 19:31:55.734333 22708 net.cpp:86] Creating Layer ip2
I0428 19:31:55.734339 22708 net.cpp:408] ip2 <- ip1
I0428 19:31:55.734349 22708 net.cpp:382] ip2 -> ip2
I0428 19:31:55.734462 22708 net.cpp:124] Setting up ip2
I0428 19:31:55.734472 22708 net.cpp:131] Top shape: 64 50 (3200)
I0428 19:31:55.734478 22708 net.cpp:139] Memory required for data: 2062080
I0428 19:31:55.734491 22708 layer_factory.hpp:77] Creating layer relu2
I0428 19:31:55.734501 22708 net.cpp:86] Creating Layer relu2
I0428 19:31:55.734508 22708 net.cpp:408] relu2 <- ip2
I0428 19:31:55.734515 22708 net.cpp:369] relu2 -> ip2 (in-place)
I0428 19:31:55.735231 22708 net.cpp:124] Setting up relu2
I0428 19:31:55.735245 22708 net.cpp:131] Top shape: 64 50 (3200)
I0428 19:31:55.735251 22708 net.cpp:139] Memory required for data: 2074880
I0428 19:31:55.735257 22708 layer_factory.hpp:77] Creating layer ip3
I0428 19:31:55.735268 22708 net.cpp:86] Creating Layer ip3
I0428 19:31:55.735290 22708 net.cpp:408] ip3 <- ip2
I0428 19:31:55.735299 22708 net.cpp:382] ip3 -> ip3
I0428 19:31:55.735399 22708 net.cpp:124] Setting up ip3
I0428 19:31:55.735409 22708 net.cpp:131] Top shape: 64 10 (640)
I0428 19:31:55.735415 22708 net.cpp:139] Memory required for data: 2077440
I0428 19:31:55.735425 22708 layer_factory.hpp:77] Creating layer relu3
I0428 19:31:55.735435 22708 net.cpp:86] Creating Layer relu3
I0428 19:31:55.735442 22708 net.cpp:408] relu3 <- ip3
I0428 19:31:55.735450 22708 net.cpp:369] relu3 -> ip3 (in-place)
I0428 19:31:55.735608 22708 net.cpp:124] Setting up relu3
I0428 19:31:55.735620 22708 net.cpp:131] Top shape: 64 10 (640)
I0428 19:31:55.735625 22708 net.cpp:139] Memory required for data: 2080000
I0428 19:31:55.735631 22708 layer_factory.hpp:77] Creating layer loss
I0428 19:31:55.735646 22708 net.cpp:86] Creating Layer loss
I0428 19:31:55.735653 22708 net.cpp:408] loss <- ip3
I0428 19:31:55.735661 22708 net.cpp:408] loss <- label
I0428 19:31:55.735671 22708 net.cpp:382] loss -> loss
I0428 19:31:55.735692 22708 layer_factory.hpp:77] Creating layer loss
…
I0428 19:31:55.736305 22708 solver.cpp:173] Creating test net (#0) specified by net file: ECE595/mnist/train_test/var_everything2/lenet_train_test137.prototxt
I0428 19:31:55.736335 22708 net.cpp:296] The NetState phase (1) differed from the phase (0) specified by a rule in layer mnist
I0428 19:31:55.736416 22708 net.cpp:53] Initializing net from parameters: 
name: "LeNet"
state {
  phase: TEST
}
layer {
  name: "mnist"
  type: "Data"
  top: "data"
  top: "label"
  include {
    phase: TEST
  }
  transform_param {
    scale: 0.00390625
  }
  data_param {
    source: "examples/mnist/mnist_test_lmdb"
    batch_size: 100
    backend: LMDB
  }
}
layer {
  name: "conv0"
  type: "Convolution"
  bottom: "data"
  top: "conv0"
  param {
    lr_mult: 1
  }
  param {
    lr_mult: 2
  }
  convolution_param {
    num_output: 10
    kernel_size: 5
    stride: 1
    weight_filler {
      type: "xavier"
    }
    bias_filler {
      type: "constant"
    }
  }
}
layer {
  name: "pool0"
  type: "Pooling"
  bottom: "conv0"
  top: "pool0"
  pooling_param {
    pool: MAX
    kernel_size: 2
    stride: 2
  }
}
layer {
  name: "ip1"
  type: "InnerProduct"
  bottom: "pool0"
  top: "ip1"
  param {
    lr_mult: 1
  }
  param {
    lr_mult: 2
  }
  inner_product_param {
    num_output: 10
    weight_filler {
      type: "xavier"
    }
    bias_filler {
      type: "constant"
    }
  }
}
layer {
  name: "relu1"
  type: "ReLU"
  bottom: "ip1"
  top: "ip1"
}
layer {
  name: "ip2"
  type: "InnerProduct"
  bottom: "ip1"
  top: "ip2"
  param {
    lr_mult: 1
  }
  param {
    lr_mult: 2
  }
  inner_product_param {
    num_output: 50
    weight_filler {
      type: "xavier"
    }
    bias_filler {
      type: "constant"
    }
  }
}
layer {
  name: "relu2"
  type: "ReLU"
  bottom: "ip2"
  top: "ip2"
}
layer {
  name: "ip3"
  type: "InnerProduct"
  bottom: "ip2"
  top: "ip3"
  param {
    lr_mult: 1
  }
  param {
    lr_mult: 2
  }
  inner_product_param {
    num_output: 10
    weight_filler {
      type: "xavier"
    }
    bias_filler {
      type: "constant"
    }
  }
}
layer {
  name: "relu3"
  type: "ReLU"
  bottom: "ip3"
  top: "ip3"
}
layer {
  name: "accuracy"
  type: "Accuracy"
  bottom: "ip3"
  bottom: "label"
  top: "accuracy"
  include {
    phase: TEST
  }
}
layer {
  name: "loss"
  type: "SoftmaxWithLoss"
  bottom: "ip3"
  bottom: "label"
  top: "loss"
}
I0428 19:31:55.736506 22708 layer_factory.hpp:77] Creating layer mnist
I0428 19:31:55.736564 22708 db_lmdb.cpp:35] Opened lmdb examples/mnist/mnist_test_lmdb
I0428 19:31:55.736582 22708 net.cpp:86] Creating Layer mnist
I0428 19:31:55.736590 22708 net.cpp:382] mnist -> data
I0428 19:31:55.736603 22708 net.cpp:382] mnist -> label
I0428 19:31:55.736729 22708 data_layer.cpp:45] output data size: 100,1,28,28
I0428 19:31:55.738775 22708 net.cpp:124] Setting up mnist
I0428 19:31:55.738804 22708 net.cpp:131] Top shape: 100 1 28 28 (78400)
I0428 19:31:55.738826 22708 net.cpp:131] Top shape: 100 (100)
I0428 19:31:55.738847 22708 net.cpp:139] Memory required for data: 314000
I0428 19:31:55.738852 22708 layer_factory.hpp:77] Creating layer label_mnist_1_split
I0428 19:31:55.738875 22708 net.cpp:86] Creating Layer label_mnist_1_split
I0428 19:31:55.738880 22708 net.cpp:408] label_mnist_1_split <- label
I0428 19:31:55.738886 22708 net.cpp:382] label_mnist_1_split -> label_mnist_1_split_0
I0428 19:31:55.738894 22708 net.cpp:382] label_mnist_1_split -> label_mnist_1_split_1
I0428 19:31:55.738962 22708 net.cpp:124] Setting up label_mnist_1_split
I0428 19:31:55.738972 22708 net.cpp:131] Top shape: 100 (100)
I0428 19:31:55.738978 22708 net.cpp:131] Top shape: 100 (100)
I0428 19:31:55.738982 22708 net.cpp:139] Memory required for data: 314800
I0428 19:31:55.738998 22708 layer_factory.hpp:77] Creating layer conv0
I0428 19:31:55.739009 22708 net.cpp:86] Creating Layer conv0
I0428 19:31:55.739014 22708 net.cpp:408] conv0 <- data
I0428 19:31:55.739020 22708 net.cpp:382] conv0 -> conv0
I0428 19:31:55.740512 22708 net.cpp:124] Setting up conv0
I0428 19:31:55.740527 22708 net.cpp:131] Top shape: 100 10 24 24 (576000)
I0428 19:31:55.740531 22708 net.cpp:139] Memory required for data: 2618800
I0428 19:31:55.740542 22708 layer_factory.hpp:77] Creating layer pool0
I0428 19:31:55.740551 22708 net.cpp:86] Creating Layer pool0
I0428 19:31:55.740572 22708 net.cpp:408] pool0 <- conv0
I0428 19:31:55.740578 22708 net.cpp:382] pool0 -> pool0
I0428 19:31:55.740634 22708 net.cpp:124] Setting up pool0
I0428 19:31:55.740643 22708 net.cpp:131] Top shape: 100 10 12 12 (144000)
I0428 19:31:55.740648 22708 net.cpp:139] Memory required for data: 3194800
I0428 19:31:55.740653 22708 layer_factory.hpp:77] Creating layer ip1
I0428 19:31:55.740660 22708 net.cpp:86] Creating Layer ip1
I0428 19:31:55.740669 22708 net.cpp:408] ip1 <- pool0
I0428 19:31:55.740675 22708 net.cpp:382] ip1 -> ip1
I0428 19:31:55.740897 22708 net.cpp:124] Setting up ip1
I0428 19:31:55.740908 22708 net.cpp:131] Top shape: 100 10 (1000)
I0428 19:31:55.740927 22708 net.cpp:139] Memory required for data: 3198800
I0428 19:31:55.740936 22708 layer_factory.hpp:77] Creating layer relu1
I0428 19:31:55.740947 22708 net.cpp:86] Creating Layer relu1
I0428 19:31:55.740979 22708 net.cpp:408] relu1 <- ip1
I0428 19:31:55.740985 22708 net.cpp:369] relu1 -> ip1 (in-place)
I0428 19:31:55.741166 22708 net.cpp:124] Setting up relu1
I0428 19:31:55.741178 22708 net.cpp:131] Top shape: 100 10 (1000)
I0428 19:31:55.741181 22708 net.cpp:139] Memory required for data: 3202800
I0428 19:31:55.741186 22708 layer_factory.hpp:77] Creating layer ip2
I0428 19:31:55.741194 22708 net.cpp:86] Creating Layer ip2
I0428 19:31:55.741200 22708 net.cpp:408] ip2 <- ip1
I0428 19:31:55.741224 22708 net.cpp:382] ip2 -> ip2
I0428 19:31:55.741331 22708 net.cpp:124] Setting up ip2
I0428 19:31:55.741340 22708 net.cpp:131] Top shape: 100 50 (5000)
I0428 19:31:55.741345 22708 net.cpp:139] Memory required for data: 3222800
I0428 19:31:55.741355 22708 layer_factory.hpp:77] Creating layer relu2
I0428 19:31:55.741361 22708 net.cpp:86] Creating Layer relu2
I0428 19:31:55.741366 22708 net.cpp:408] relu2 <- ip2
I0428 19:31:55.741372 22708 net.cpp:369] relu2 -> ip2 (in-place)
I0428 19:31:55.742249 22708 net.cpp:124] Setting up relu2
I0428 19:31:55.742260 22708 net.cpp:131] Top shape: 100 50 (5000)
I0428 19:31:55.742281 22708 net.cpp:139] Memory required for data: 3242800
I0428 19:31:55.742285 22708 layer_factory.hpp:77] Creating layer ip3
I0428 19:31:55.742295 22708 net.cpp:86] Creating Layer ip3
I0428 19:31:55.742300 22708 net.cpp:408] ip3 <- ip2
I0428 19:31:55.742306 22708 net.cpp:382] ip3 -> ip3
I0428 19:31:55.742425 22708 net.cpp:124] Setting up ip3
I0428 19:31:55.742435 22708 net.cpp:131] Top shape: 100 10 (1000)
I0428 19:31:55.742440 22708 net.cpp:139] Memory required for data: 3246800
I0428 19:31:55.742446 22708 layer_factory.hpp:77] Creating layer relu3
I0428 19:31:55.742452 22708 net.cpp:86] Creating Layer relu3
I0428 19:31:55.742456 22708 net.cpp:408] relu3 <- ip3
I0428 19:31:55.742461 22708 net.cpp:369] relu3 -> ip3 (in-place)
I0428 19:31:55.742630 22708 net.cpp:124] Setting up relu3
I0428 19:31:55.742641 22708 net.cpp:131] Top shape: 100 10 (1000)
I0428 19:31:55.742645 22708 net.cpp:139] Memory required for data: 3250800
I0428 19:31:55.742650 22708 layer_factory.hpp:77] Creating layer ip3_relu3_0_split
I0428 19:31:55.742656 22708 net.cpp:86] Creating Layer ip3_relu3_0_split
I0428 19:31:55.742660 22708 net.cpp:408] ip3_relu3_0_split <- ip3
I0428 19:31:55.742666 22708 net.cpp:382] ip3_relu3_0_split -> ip3_relu3_0_split_0
I0428 19:31:55.742682 22708 net.cpp:382] ip3_relu3_0_split -> ip3_relu3_0_split_1
I0428 19:31:55.742717 22708 net.cpp:124] Setting up ip3_relu3_0_split
I0428 19:31:55.742725 22708 net.cpp:131] Top shape: 100 10 (1000)
I0428 19:31:55.742730 22708 net.cpp:131] Top shape: 100 10 (1000)
I0428 19:31:55.742745 22708 net.cpp:139] Memory required for data: 3258800
I0428 19:31:55.742750 22708 layer_factory.hpp:77] Creating layer accuracy
I0428 19:31:55.742758 22708 net.cpp:86] Creating Layer accuracy
I0428 19:31:55.742769 22708 net.cpp:408] accuracy <- ip3_relu3_0_split_0
I0428 19:31:55.742774 22708 net.cpp:408] accuracy <- label_mnist_1_split_0
I0428 19:31:55.742780 22708 net.cpp:382] accuracy -> accuracy
…
