…
I0428 19:50:07.603227 26935 net.cpp:296] The NetState phase (0) differed from the phase (1) specified by a rule in layer mnist
I0428 19:50:07.603242 26935 net.cpp:296] The NetState phase (0) differed from the phase (1) specified by a rule in layer accuracy
I0428 19:50:07.603315 26935 net.cpp:53] Initializing net from parameters: 
name: "LeNet"
state {
  phase: TRAIN
  level: 0
  stage: ""
}
layer {
  name: "mnist"
  type: "Data"
  top: "data"
  top: "label"
  include {
    phase: TRAIN
  }
  transform_param {
    scale: 0.00390625
  }
  data_param {
    source: "examples/mnist/mnist_train_lmdb"
    batch_size: 64
    backend: LMDB
  }
}
layer {
  name: "conv0"
  type: "Convolution"
  bottom: "data"
  top: "conv0"
  param {
    lr_mult: 1
  }
  param {
    lr_mult: 2
  }
  convolution_param {
    num_output: 5
    kernel_size: 5
    stride: 1
    weight_filler {
      type: "xavier"
    }
    bias_filler {
      type: "constant"
    }
  }
}
layer {
  name: "pool0"
  type: "Pooling"
  bottom: "conv0"
  top: "pool0"
  pooling_param {
    pool: MAX
    kernel_size: 2
    stride: 2
  }
}
layer {
  name: "conv1"
  type: "Convolution"
  bottom: "pool0"
  top: "conv1"
  param {
    lr_mult: 1
  }
  param {
    lr_mult: 2
  }
  convolution_param {
    num_output: 10
    kernel_size: 5
    stride: 1
    weight_filler {
      type: "xavier"
    }
    bias_filler {
      type: "constant"
    }
  }
}
layer {
  name: "pool1"
  type: "Pooling"
  bottom: "conv1"
  top: "pool1"
  pooling_param {
    pool: MAX
    kernel_size: 2
    stride: 2
  }
}
layer {
  name: "ip1"
  type: "InnerProduct"
  bottom: "pool1"
  top: "ip1"
  param {
    lr_mult: 1
  }
  param {
    lr_mult: 2
  }
  inner_product_param {
    num_output: 50
    weight_filler {
      type: "xavier"
    }
    bias_filler {
      type: "constant"
    }
  }
}
layer {
  name: "relu1"
  type: "ReLU"
  bottom: "ip1"
  top: "ip1"
}
layer {
  name: "ip2"
  type: "InnerProduct"
  bottom: "ip1"
  top: "ip2"
  param {
    lr_mult: 1
  }
  param {
    lr_mult: 2
  }
  inner_product_param {
    num_output: 10
    weight_filler {
      type: "xavier"
    }
    bias_filler {
      type: "constant"
    }
  }
}
layer {
  name: "relu2"
  type: "ReLU"
  bottom: "ip2"
  top: "ip2"
}
layer {
  name: "loss"
  type: "SoftmaxWithLoss"
  bottom: "ip2"
  bottom: "label"
  top: "loss"
}
I0428 19:50:07.603381 26935 layer_factory.hpp:77] Creating layer mnist
I0428 19:50:07.603466 26935 db_lmdb.cpp:35] Opened lmdb examples/mnist/mnist_train_lmdb
I0428 19:50:07.603500 26935 net.cpp:86] Creating Layer mnist
I0428 19:50:07.603507 26935 net.cpp:382] mnist -> data
I0428 19:50:07.603525 26935 net.cpp:382] mnist -> label
I0428 19:50:07.604472 26935 data_layer.cpp:45] output data size: 64,1,28,28
I0428 19:50:07.606809 26935 net.cpp:124] Setting up mnist
I0428 19:50:07.606840 26935 net.cpp:131] Top shape: 64 1 28 28 (50176)
I0428 19:50:07.606845 26935 net.cpp:131] Top shape: 64 (64)
I0428 19:50:07.606848 26935 net.cpp:139] Memory required for data: 200960
I0428 19:50:07.606870 26935 layer_factory.hpp:77] Creating layer conv0
I0428 19:50:07.606885 26935 net.cpp:86] Creating Layer conv0
I0428 19:50:07.606896 26935 net.cpp:408] conv0 <- data
I0428 19:50:07.606907 26935 net.cpp:382] conv0 -> conv0
I0428 19:50:07.833856 26935 net.cpp:124] Setting up conv0
I0428 19:50:07.833899 26935 net.cpp:131] Top shape: 64 5 24 24 (184320)
I0428 19:50:07.833902 26935 net.cpp:139] Memory required for data: 938240
I0428 19:50:07.833935 26935 layer_factory.hpp:77] Creating layer pool0
I0428 19:50:07.833948 26935 net.cpp:86] Creating Layer pool0
I0428 19:50:07.833952 26935 net.cpp:408] pool0 <- conv0
I0428 19:50:07.833957 26935 net.cpp:382] pool0 -> pool0
I0428 19:50:07.834002 26935 net.cpp:124] Setting up pool0
I0428 19:50:07.834007 26935 net.cpp:131] Top shape: 64 5 12 12 (46080)
I0428 19:50:07.834010 26935 net.cpp:139] Memory required for data: 1122560
I0428 19:50:07.834012 26935 layer_factory.hpp:77] Creating layer conv1
I0428 19:50:07.834022 26935 net.cpp:86] Creating Layer conv1
I0428 19:50:07.834025 26935 net.cpp:408] conv1 <- pool0
I0428 19:50:07.834029 26935 net.cpp:382] conv1 -> conv1
I0428 19:50:07.836740 26935 net.cpp:124] Setting up conv1
I0428 19:50:07.836769 26935 net.cpp:131] Top shape: 64 10 8 8 (40960)
I0428 19:50:07.836773 26935 net.cpp:139] Memory required for data: 1286400
I0428 19:50:07.836796 26935 layer_factory.hpp:77] Creating layer pool1
I0428 19:50:07.836820 26935 net.cpp:86] Creating Layer pool1
I0428 19:50:07.836840 26935 net.cpp:408] pool1 <- conv1
I0428 19:50:07.836860 26935 net.cpp:382] pool1 -> pool1
I0428 19:50:07.836910 26935 net.cpp:124] Setting up pool1
I0428 19:50:07.836933 26935 net.cpp:131] Top shape: 64 10 4 4 (10240)
I0428 19:50:07.836937 26935 net.cpp:139] Memory required for data: 1327360
I0428 19:50:07.836941 26935 layer_factory.hpp:77] Creating layer ip1
I0428 19:50:07.836948 26935 net.cpp:86] Creating Layer ip1
I0428 19:50:07.836951 26935 net.cpp:408] ip1 <- pool1
I0428 19:50:07.836956 26935 net.cpp:382] ip1 -> ip1
I0428 19:50:07.837976 26935 net.cpp:124] Setting up ip1
I0428 19:50:07.837988 26935 net.cpp:131] Top shape: 64 50 (3200)
I0428 19:50:07.837991 26935 net.cpp:139] Memory required for data: 1340160
I0428 19:50:07.837999 26935 layer_factory.hpp:77] Creating layer relu1
I0428 19:50:07.838006 26935 net.cpp:86] Creating Layer relu1
I0428 19:50:07.838008 26935 net.cpp:408] relu1 <- ip1
I0428 19:50:07.838013 26935 net.cpp:369] relu1 -> ip1 (in-place)
I0428 19:50:07.838197 26935 net.cpp:124] Setting up relu1
I0428 19:50:07.838207 26935 net.cpp:131] Top shape: 64 50 (3200)
I0428 19:50:07.838209 26935 net.cpp:139] Memory required for data: 1352960
I0428 19:50:07.838212 26935 layer_factory.hpp:77] Creating layer ip2
I0428 19:50:07.838219 26935 net.cpp:86] Creating Layer ip2
I0428 19:50:07.838222 26935 net.cpp:408] ip2 <- ip1
I0428 19:50:07.838227 26935 net.cpp:382] ip2 -> ip2
I0428 19:50:07.838332 26935 net.cpp:124] Setting up ip2
I0428 19:50:07.838340 26935 net.cpp:131] Top shape: 64 10 (640)
I0428 19:50:07.838342 26935 net.cpp:139] Memory required for data: 1355520
I0428 19:50:07.838347 26935 layer_factory.hpp:77] Creating layer relu2
I0428 19:50:07.838352 26935 net.cpp:86] Creating Layer relu2
I0428 19:50:07.838356 26935 net.cpp:408] relu2 <- ip2
I0428 19:50:07.838361 26935 net.cpp:369] relu2 -> ip2 (in-place)
I0428 19:50:07.839092 26935 net.cpp:124] Setting up relu2
I0428 19:50:07.839103 26935 net.cpp:131] Top shape: 64 10 (640)
I0428 19:50:07.839123 26935 net.cpp:139] Memory required for data: 1358080
I0428 19:50:07.839128 26935 layer_factory.hpp:77] Creating layer loss
I0428 19:50:07.839133 26935 net.cpp:86] Creating Layer loss
I0428 19:50:07.839136 26935 net.cpp:408] loss <- ip2
I0428 19:50:07.839140 26935 net.cpp:408] loss <- label
I0428 19:50:07.839146 26935 net.cpp:382] loss -> loss
I0428 19:50:07.839161 26935 layer_factory.hpp:77] Creating layer loss
…
I0428 19:50:07.839792 26935 solver.cpp:173] Creating test net (#0) specified by net file: ECE595/mnist/train_test/var_everything2/lenet_train_test595.prototxt
I0428 19:50:07.839826 26935 net.cpp:296] The NetState phase (1) differed from the phase (0) specified by a rule in layer mnist
I0428 19:50:07.839908 26935 net.cpp:53] Initializing net from parameters: 
name: "LeNet"
state {
  phase: TEST
}
layer {
  name: "mnist"
  type: "Data"
  top: "data"
  top: "label"
  include {
    phase: TEST
  }
  transform_param {
    scale: 0.00390625
  }
  data_param {
    source: "examples/mnist/mnist_test_lmdb"
    batch_size: 100
    backend: LMDB
  }
}
layer {
  name: "conv0"
  type: "Convolution"
  bottom: "data"
  top: "conv0"
  param {
    lr_mult: 1
  }
  param {
    lr_mult: 2
  }
  convolution_param {
    num_output: 5
    kernel_size: 5
    stride: 1
    weight_filler {
      type: "xavier"
    }
    bias_filler {
      type: "constant"
    }
  }
}
layer {
  name: "pool0"
  type: "Pooling"
  bottom: "conv0"
  top: "pool0"
  pooling_param {
    pool: MAX
    kernel_size: 2
    stride: 2
  }
}
layer {
  name: "conv1"
  type: "Convolution"
  bottom: "pool0"
  top: "conv1"
  param {
    lr_mult: 1
  }
  param {
    lr_mult: 2
  }
  convolution_param {
    num_output: 10
    kernel_size: 5
    stride: 1
    weight_filler {
      type: "xavier"
    }
    bias_filler {
      type: "constant"
    }
  }
}
layer {
  name: "pool1"
  type: "Pooling"
  bottom: "conv1"
  top: "pool1"
  pooling_param {
    pool: MAX
    kernel_size: 2
    stride: 2
  }
}
layer {
  name: "ip1"
  type: "InnerProduct"
  bottom: "pool1"
  top: "ip1"
  param {
    lr_mult: 1
  }
  param {
    lr_mult: 2
  }
  inner_product_param {
    num_output: 50
    weight_filler {
      type: "xavier"
    }
    bias_filler {
      type: "constant"
    }
  }
}
layer {
  name: "relu1"
  type: "ReLU"
  bottom: "ip1"
  top: "ip1"
}
layer {
  name: "ip2"
  type: "InnerProduct"
  bottom: "ip1"
  top: "ip2"
  param {
    lr_mult: 1
  }
  param {
    lr_mult: 2
  }
  inner_product_param {
    num_output: 10
    weight_filler {
      type: "xavier"
    }
    bias_filler {
      type: "constant"
    }
  }
}
layer {
  name: "relu2"
  type: "ReLU"
  bottom: "ip2"
  top: "ip2"
}
layer {
  name: "accuracy"
  type: "Accuracy"
  bottom: "ip2"
  bottom: "label"
  top: "accuracy"
  include {
    phase: TEST
  }
}
layer {
  name: "loss"
  type: "SoftmaxWithLoss"
  bottom: "ip2"
  bottom: "label"
  top: "loss"
}
I0428 19:50:07.839970 26935 layer_factory.hpp:77] Creating layer mnist
I0428 19:50:07.840014 26935 db_lmdb.cpp:35] Opened lmdb examples/mnist/mnist_test_lmdb
I0428 19:50:07.840026 26935 net.cpp:86] Creating Layer mnist
I0428 19:50:07.840030 26935 net.cpp:382] mnist -> data
I0428 19:50:07.840039 26935 net.cpp:382] mnist -> label
I0428 19:50:07.840132 26935 data_layer.cpp:45] output data size: 100,1,28,28
I0428 19:50:07.842105 26935 net.cpp:124] Setting up mnist
I0428 19:50:07.842128 26935 net.cpp:131] Top shape: 100 1 28 28 (78400)
I0428 19:50:07.842150 26935 net.cpp:131] Top shape: 100 (100)
I0428 19:50:07.842154 26935 net.cpp:139] Memory required for data: 314000
I0428 19:50:07.842157 26935 layer_factory.hpp:77] Creating layer label_mnist_1_split
I0428 19:50:07.842164 26935 net.cpp:86] Creating Layer label_mnist_1_split
I0428 19:50:07.842167 26935 net.cpp:408] label_mnist_1_split <- label
I0428 19:50:07.842171 26935 net.cpp:382] label_mnist_1_split -> label_mnist_1_split_0
I0428 19:50:07.842178 26935 net.cpp:382] label_mnist_1_split -> label_mnist_1_split_1
I0428 19:50:07.842219 26935 net.cpp:124] Setting up label_mnist_1_split
I0428 19:50:07.842236 26935 net.cpp:131] Top shape: 100 (100)
I0428 19:50:07.842239 26935 net.cpp:131] Top shape: 100 (100)
I0428 19:50:07.842242 26935 net.cpp:139] Memory required for data: 314800
I0428 19:50:07.842245 26935 layer_factory.hpp:77] Creating layer conv0
I0428 19:50:07.842253 26935 net.cpp:86] Creating Layer conv0
I0428 19:50:07.842257 26935 net.cpp:408] conv0 <- data
I0428 19:50:07.842262 26935 net.cpp:382] conv0 -> conv0
I0428 19:50:07.843958 26935 net.cpp:124] Setting up conv0
I0428 19:50:07.843971 26935 net.cpp:131] Top shape: 100 5 24 24 (288000)
I0428 19:50:07.843992 26935 net.cpp:139] Memory required for data: 1466800
I0428 19:50:07.844002 26935 layer_factory.hpp:77] Creating layer pool0
I0428 19:50:07.844007 26935 net.cpp:86] Creating Layer pool0
I0428 19:50:07.844010 26935 net.cpp:408] pool0 <- conv0
I0428 19:50:07.844015 26935 net.cpp:382] pool0 -> pool0
I0428 19:50:07.844049 26935 net.cpp:124] Setting up pool0
I0428 19:50:07.844056 26935 net.cpp:131] Top shape: 100 5 12 12 (72000)
I0428 19:50:07.844059 26935 net.cpp:139] Memory required for data: 1754800
I0428 19:50:07.844061 26935 layer_factory.hpp:77] Creating layer conv1
I0428 19:50:07.844070 26935 net.cpp:86] Creating Layer conv1
I0428 19:50:07.844074 26935 net.cpp:408] conv1 <- pool0
I0428 19:50:07.844079 26935 net.cpp:382] conv1 -> conv1
I0428 19:50:07.846248 26935 net.cpp:124] Setting up conv1
I0428 19:50:07.846262 26935 net.cpp:131] Top shape: 100 10 8 8 (64000)
I0428 19:50:07.846266 26935 net.cpp:139] Memory required for data: 2010800
I0428 19:50:07.846274 26935 layer_factory.hpp:77] Creating layer pool1
I0428 19:50:07.846297 26935 net.cpp:86] Creating Layer pool1
I0428 19:50:07.846300 26935 net.cpp:408] pool1 <- conv1
I0428 19:50:07.846307 26935 net.cpp:382] pool1 -> pool1
I0428 19:50:07.846346 26935 net.cpp:124] Setting up pool1
I0428 19:50:07.846354 26935 net.cpp:131] Top shape: 100 10 4 4 (16000)
I0428 19:50:07.846356 26935 net.cpp:139] Memory required for data: 2074800
I0428 19:50:07.846359 26935 layer_factory.hpp:77] Creating layer ip1
I0428 19:50:07.846365 26935 net.cpp:86] Creating Layer ip1
I0428 19:50:07.846369 26935 net.cpp:408] ip1 <- pool1
I0428 19:50:07.846374 26935 net.cpp:382] ip1 -> ip1
I0428 19:50:07.846521 26935 net.cpp:124] Setting up ip1
I0428 19:50:07.846529 26935 net.cpp:131] Top shape: 100 50 (5000)
I0428 19:50:07.846531 26935 net.cpp:139] Memory required for data: 2094800
I0428 19:50:07.846539 26935 layer_factory.hpp:77] Creating layer relu1
I0428 19:50:07.846544 26935 net.cpp:86] Creating Layer relu1
I0428 19:50:07.846546 26935 net.cpp:408] relu1 <- ip1
I0428 19:50:07.846550 26935 net.cpp:369] relu1 -> ip1 (in-place)
I0428 19:50:07.846724 26935 net.cpp:124] Setting up relu1
I0428 19:50:07.846734 26935 net.cpp:131] Top shape: 100 50 (5000)
I0428 19:50:07.846736 26935 net.cpp:139] Memory required for data: 2114800
I0428 19:50:07.846740 26935 layer_factory.hpp:77] Creating layer ip2
I0428 19:50:07.846746 26935 net.cpp:86] Creating Layer ip2
I0428 19:50:07.846750 26935 net.cpp:408] ip2 <- ip1
I0428 19:50:07.846755 26935 net.cpp:382] ip2 -> ip2
I0428 19:50:07.846856 26935 net.cpp:124] Setting up ip2
I0428 19:50:07.846863 26935 net.cpp:131] Top shape: 100 10 (1000)
I0428 19:50:07.846866 26935 net.cpp:139] Memory required for data: 2118800
I0428 19:50:07.846873 26935 layer_factory.hpp:77] Creating layer relu2
I0428 19:50:07.846876 26935 net.cpp:86] Creating Layer relu2
I0428 19:50:07.846879 26935 net.cpp:408] relu2 <- ip2
I0428 19:50:07.846884 26935 net.cpp:369] relu2 -> ip2 (in-place)
I0428 19:50:07.847045 26935 net.cpp:124] Setting up relu2
I0428 19:50:07.847054 26935 net.cpp:131] Top shape: 100 10 (1000)
I0428 19:50:07.847056 26935 net.cpp:139] Memory required for data: 2122800
I0428 19:50:07.847059 26935 layer_factory.hpp:77] Creating layer ip2_relu2_0_split
I0428 19:50:07.847064 26935 net.cpp:86] Creating Layer ip2_relu2_0_split
I0428 19:50:07.847066 26935 net.cpp:408] ip2_relu2_0_split <- ip2
I0428 19:50:07.847071 26935 net.cpp:382] ip2_relu2_0_split -> ip2_relu2_0_split_0
I0428 19:50:07.847087 26935 net.cpp:382] ip2_relu2_0_split -> ip2_relu2_0_split_1
I0428 19:50:07.847148 26935 net.cpp:124] Setting up ip2_relu2_0_split
I0428 19:50:07.847156 26935 net.cpp:131] Top shape: 100 10 (1000)
I0428 19:50:07.847158 26935 net.cpp:131] Top shape: 100 10 (1000)
I0428 19:50:07.847162 26935 net.cpp:139] Memory required for data: 2130800
I0428 19:50:07.847164 26935 layer_factory.hpp:77] Creating layer accuracy
I0428 19:50:07.847169 26935 net.cpp:86] Creating Layer accuracy
I0428 19:50:07.847172 26935 net.cpp:408] accuracy <- ip2_relu2_0_split_0
I0428 19:50:07.847177 26935 net.cpp:408] accuracy <- label_mnist_1_split_0
I0428 19:50:07.847180 26935 net.cpp:382] accuracy -> accuracy
…
