…
I0428 19:32:09.535871 22768 net.cpp:296] The NetState phase (0) differed from the phase (1) specified by a rule in layer mnist
I0428 19:32:09.535884 22768 net.cpp:296] The NetState phase (0) differed from the phase (1) specified by a rule in layer accuracy
I0428 19:32:09.535957 22768 net.cpp:53] Initializing net from parameters: 
name: "LeNet"
state {
  phase: TRAIN
  level: 0
  stage: ""
}
layer {
  name: "mnist"
  type: "Data"
  top: "data"
  top: "label"
  include {
    phase: TRAIN
  }
  transform_param {
    scale: 0.00390625
  }
  data_param {
    source: "examples/mnist/mnist_train_lmdb"
    batch_size: 64
    backend: LMDB
  }
}
layer {
  name: "conv0"
  type: "Convolution"
  bottom: "data"
  top: "conv0"
  param {
    lr_mult: 1
  }
  param {
    lr_mult: 2
  }
  convolution_param {
    num_output: 10
    kernel_size: 5
    stride: 1
    weight_filler {
      type: "xavier"
    }
    bias_filler {
      type: "constant"
    }
  }
}
layer {
  name: "pool0"
  type: "Pooling"
  bottom: "conv0"
  top: "pool0"
  pooling_param {
    pool: MAX
    kernel_size: 2
    stride: 2
  }
}
layer {
  name: "ip1"
  type: "InnerProduct"
  bottom: "pool0"
  top: "ip1"
  param {
    lr_mult: 1
  }
  param {
    lr_mult: 2
  }
  inner_product_param {
    num_output: 25
    weight_filler {
      type: "xavier"
    }
    bias_filler {
      type: "constant"
    }
  }
}
layer {
  name: "relu1"
  type: "ReLU"
  bottom: "ip1"
  top: "ip1"
}
layer {
  name: "ip2"
  type: "InnerProduct"
  bottom: "ip1"
  top: "ip2"
  param {
    lr_mult: 1
  }
  param {
    lr_mult: 2
  }
  inner_product_param {
    num_output: 50
    weight_filler {
      type: "xavier"
    }
    bias_filler {
      type: "constant"
    }
  }
}
layer {
  name: "relu2"
  type: "ReLU"
  bottom: "ip2"
  top: "ip2"
}
layer {
  name: "ip3"
  type: "InnerProduct"
  bottom: "ip2"
  top: "ip3"
  param {
    lr_mult: 1
  }
  param {
    lr_mult: 2
  }
  inner_product_param {
    num_output: 10
    weight_filler {
      type: "xavier"
    }
    bias_filler {
      type: "constant"
    }
  }
}
layer {
  name: "relu3"
  type: "ReLU"
  bottom: "ip3"
  top: "ip3"
}
layer {
  name: "loss"
  type: "SoftmaxWithLoss"
  bottom: "ip3"
  bottom: "label"
  top: "loss"
}
I0428 19:32:09.536015 22768 layer_factory.hpp:77] Creating layer mnist
I0428 19:32:09.536104 22768 db_lmdb.cpp:35] Opened lmdb examples/mnist/mnist_train_lmdb
I0428 19:32:09.536128 22768 net.cpp:86] Creating Layer mnist
I0428 19:32:09.536134 22768 net.cpp:382] mnist -> data
I0428 19:32:09.536154 22768 net.cpp:382] mnist -> label
I0428 19:32:09.537104 22768 data_layer.cpp:45] output data size: 64,1,28,28
I0428 19:32:09.539427 22768 net.cpp:124] Setting up mnist
I0428 19:32:09.539441 22768 net.cpp:131] Top shape: 64 1 28 28 (50176)
I0428 19:32:09.539446 22768 net.cpp:131] Top shape: 64 (64)
I0428 19:32:09.539449 22768 net.cpp:139] Memory required for data: 200960
I0428 19:32:09.539455 22768 layer_factory.hpp:77] Creating layer conv0
I0428 19:32:09.539470 22768 net.cpp:86] Creating Layer conv0
I0428 19:32:09.539475 22768 net.cpp:408] conv0 <- data
I0428 19:32:09.539484 22768 net.cpp:382] conv0 -> conv0
I0428 19:32:09.774551 22768 net.cpp:124] Setting up conv0
I0428 19:32:09.774579 22768 net.cpp:131] Top shape: 64 10 24 24 (368640)
I0428 19:32:09.774582 22768 net.cpp:139] Memory required for data: 1675520
I0428 19:32:09.774597 22768 layer_factory.hpp:77] Creating layer pool0
I0428 19:32:09.774610 22768 net.cpp:86] Creating Layer pool0
I0428 19:32:09.774631 22768 net.cpp:408] pool0 <- conv0
I0428 19:32:09.774653 22768 net.cpp:382] pool0 -> pool0
I0428 19:32:09.774715 22768 net.cpp:124] Setting up pool0
I0428 19:32:09.774721 22768 net.cpp:131] Top shape: 64 10 12 12 (92160)
I0428 19:32:09.774724 22768 net.cpp:139] Memory required for data: 2044160
I0428 19:32:09.774727 22768 layer_factory.hpp:77] Creating layer ip1
I0428 19:32:09.774734 22768 net.cpp:86] Creating Layer ip1
I0428 19:32:09.774737 22768 net.cpp:408] ip1 <- pool0
I0428 19:32:09.774741 22768 net.cpp:382] ip1 -> ip1
I0428 19:32:09.775037 22768 net.cpp:124] Setting up ip1
I0428 19:32:09.775044 22768 net.cpp:131] Top shape: 64 25 (1600)
I0428 19:32:09.775048 22768 net.cpp:139] Memory required for data: 2050560
I0428 19:32:09.775054 22768 layer_factory.hpp:77] Creating layer relu1
I0428 19:32:09.775060 22768 net.cpp:86] Creating Layer relu1
I0428 19:32:09.775063 22768 net.cpp:408] relu1 <- ip1
I0428 19:32:09.775068 22768 net.cpp:369] relu1 -> ip1 (in-place)
I0428 19:32:09.775224 22768 net.cpp:124] Setting up relu1
I0428 19:32:09.775233 22768 net.cpp:131] Top shape: 64 25 (1600)
I0428 19:32:09.775235 22768 net.cpp:139] Memory required for data: 2056960
I0428 19:32:09.775238 22768 layer_factory.hpp:77] Creating layer ip2
I0428 19:32:09.775244 22768 net.cpp:86] Creating Layer ip2
I0428 19:32:09.775248 22768 net.cpp:408] ip2 <- ip1
I0428 19:32:09.775252 22768 net.cpp:382] ip2 -> ip2
I0428 19:32:09.776183 22768 net.cpp:124] Setting up ip2
I0428 19:32:09.776196 22768 net.cpp:131] Top shape: 64 50 (3200)
I0428 19:32:09.776214 22768 net.cpp:139] Memory required for data: 2069760
I0428 19:32:09.776222 22768 layer_factory.hpp:77] Creating layer relu2
I0428 19:32:09.776228 22768 net.cpp:86] Creating Layer relu2
I0428 19:32:09.776232 22768 net.cpp:408] relu2 <- ip2
I0428 19:32:09.776237 22768 net.cpp:369] relu2 -> ip2 (in-place)
I0428 19:32:09.777000 22768 net.cpp:124] Setting up relu2
I0428 19:32:09.777029 22768 net.cpp:131] Top shape: 64 50 (3200)
I0428 19:32:09.777031 22768 net.cpp:139] Memory required for data: 2082560
I0428 19:32:09.777050 22768 layer_factory.hpp:77] Creating layer ip3
I0428 19:32:09.777057 22768 net.cpp:86] Creating Layer ip3
I0428 19:32:09.777061 22768 net.cpp:408] ip3 <- ip2
I0428 19:32:09.777066 22768 net.cpp:382] ip3 -> ip3
I0428 19:32:09.777179 22768 net.cpp:124] Setting up ip3
I0428 19:32:09.777186 22768 net.cpp:131] Top shape: 64 10 (640)
I0428 19:32:09.777189 22768 net.cpp:139] Memory required for data: 2085120
I0428 19:32:09.777195 22768 layer_factory.hpp:77] Creating layer relu3
I0428 19:32:09.777201 22768 net.cpp:86] Creating Layer relu3
I0428 19:32:09.777204 22768 net.cpp:408] relu3 <- ip3
I0428 19:32:09.777209 22768 net.cpp:369] relu3 -> ip3 (in-place)
I0428 19:32:09.777365 22768 net.cpp:124] Setting up relu3
I0428 19:32:09.777374 22768 net.cpp:131] Top shape: 64 10 (640)
I0428 19:32:09.777377 22768 net.cpp:139] Memory required for data: 2087680
I0428 19:32:09.777380 22768 layer_factory.hpp:77] Creating layer loss
I0428 19:32:09.777385 22768 net.cpp:86] Creating Layer loss
I0428 19:32:09.777389 22768 net.cpp:408] loss <- ip3
I0428 19:32:09.777392 22768 net.cpp:408] loss <- label
I0428 19:32:09.777396 22768 net.cpp:382] loss -> loss
I0428 19:32:09.777411 22768 layer_factory.hpp:77] Creating layer loss
…
I0428 19:32:09.777992 22768 solver.cpp:173] Creating test net (#0) specified by net file: ECE595/mnist/train_test/var_everything2/lenet_train_test144.prototxt
I0428 19:32:09.778018 22768 net.cpp:296] The NetState phase (1) differed from the phase (0) specified by a rule in layer mnist
I0428 19:32:09.778097 22768 net.cpp:53] Initializing net from parameters: 
name: "LeNet"
state {
  phase: TEST
}
layer {
  name: "mnist"
  type: "Data"
  top: "data"
  top: "label"
  include {
    phase: TEST
  }
  transform_param {
    scale: 0.00390625
  }
  data_param {
    source: "examples/mnist/mnist_test_lmdb"
    batch_size: 100
    backend: LMDB
  }
}
layer {
  name: "conv0"
  type: "Convolution"
  bottom: "data"
  top: "conv0"
  param {
    lr_mult: 1
  }
  param {
    lr_mult: 2
  }
  convolution_param {
    num_output: 10
    kernel_size: 5
    stride: 1
    weight_filler {
      type: "xavier"
    }
    bias_filler {
      type: "constant"
    }
  }
}
layer {
  name: "pool0"
  type: "Pooling"
  bottom: "conv0"
  top: "pool0"
  pooling_param {
    pool: MAX
    kernel_size: 2
    stride: 2
  }
}
layer {
  name: "ip1"
  type: "InnerProduct"
  bottom: "pool0"
  top: "ip1"
  param {
    lr_mult: 1
  }
  param {
    lr_mult: 2
  }
  inner_product_param {
    num_output: 25
    weight_filler {
      type: "xavier"
    }
    bias_filler {
      type: "constant"
    }
  }
}
layer {
  name: "relu1"
  type: "ReLU"
  bottom: "ip1"
  top: "ip1"
}
layer {
  name: "ip2"
  type: "InnerProduct"
  bottom: "ip1"
  top: "ip2"
  param {
    lr_mult: 1
  }
  param {
    lr_mult: 2
  }
  inner_product_param {
    num_output: 50
    weight_filler {
      type: "xavier"
    }
    bias_filler {
      type: "constant"
    }
  }
}
layer {
  name: "relu2"
  type: "ReLU"
  bottom: "ip2"
  top: "ip2"
}
layer {
  name: "ip3"
  type: "InnerProduct"
  bottom: "ip2"
  top: "ip3"
  param {
    lr_mult: 1
  }
  param {
    lr_mult: 2
  }
  inner_product_param {
    num_output: 10
    weight_filler {
      type: "xavier"
    }
    bias_filler {
      type: "constant"
    }
  }
}
layer {
  name: "relu3"
  type: "ReLU"
  bottom: "ip3"
  top: "ip3"
}
layer {
  name: "accuracy"
  type: "Accuracy"
  bottom: "ip3"
  bottom: "label"
  top: "accuracy"
  include {
    phase: TEST
  }
}
layer {
  name: "loss"
  type: "SoftmaxWithLoss"
  bottom: "ip3"
  bottom: "label"
  top: "loss"
}
I0428 19:32:09.778170 22768 layer_factory.hpp:77] Creating layer mnist
I0428 19:32:09.778214 22768 db_lmdb.cpp:35] Opened lmdb examples/mnist/mnist_test_lmdb
I0428 19:32:09.778226 22768 net.cpp:86] Creating Layer mnist
I0428 19:32:09.778230 22768 net.cpp:382] mnist -> data
I0428 19:32:09.778237 22768 net.cpp:382] mnist -> label
I0428 19:32:09.778316 22768 data_layer.cpp:45] output data size: 100,1,28,28
I0428 19:32:09.780156 22768 net.cpp:124] Setting up mnist
I0428 19:32:09.780184 22768 net.cpp:131] Top shape: 100 1 28 28 (78400)
I0428 19:32:09.780189 22768 net.cpp:131] Top shape: 100 (100)
I0428 19:32:09.780192 22768 net.cpp:139] Memory required for data: 314000
I0428 19:32:09.780196 22768 layer_factory.hpp:77] Creating layer label_mnist_1_split
I0428 19:32:09.780203 22768 net.cpp:86] Creating Layer label_mnist_1_split
I0428 19:32:09.780206 22768 net.cpp:408] label_mnist_1_split <- label
I0428 19:32:09.780211 22768 net.cpp:382] label_mnist_1_split -> label_mnist_1_split_0
I0428 19:32:09.780218 22768 net.cpp:382] label_mnist_1_split -> label_mnist_1_split_1
I0428 19:32:09.780297 22768 net.cpp:124] Setting up label_mnist_1_split
I0428 19:32:09.780318 22768 net.cpp:131] Top shape: 100 (100)
I0428 19:32:09.780323 22768 net.cpp:131] Top shape: 100 (100)
I0428 19:32:09.780325 22768 net.cpp:139] Memory required for data: 314800
I0428 19:32:09.780338 22768 layer_factory.hpp:77] Creating layer conv0
I0428 19:32:09.780346 22768 net.cpp:86] Creating Layer conv0
I0428 19:32:09.780349 22768 net.cpp:408] conv0 <- data
I0428 19:32:09.780354 22768 net.cpp:382] conv0 -> conv0
I0428 19:32:09.782135 22768 net.cpp:124] Setting up conv0
I0428 19:32:09.782181 22768 net.cpp:131] Top shape: 100 10 24 24 (576000)
I0428 19:32:09.782186 22768 net.cpp:139] Memory required for data: 2618800
I0428 19:32:09.782197 22768 layer_factory.hpp:77] Creating layer pool0
I0428 19:32:09.782220 22768 net.cpp:86] Creating Layer pool0
I0428 19:32:09.782223 22768 net.cpp:408] pool0 <- conv0
I0428 19:32:09.782228 22768 net.cpp:382] pool0 -> pool0
I0428 19:32:09.782270 22768 net.cpp:124] Setting up pool0
I0428 19:32:09.782276 22768 net.cpp:131] Top shape: 100 10 12 12 (144000)
I0428 19:32:09.782279 22768 net.cpp:139] Memory required for data: 3194800
I0428 19:32:09.782282 22768 layer_factory.hpp:77] Creating layer ip1
I0428 19:32:09.782291 22768 net.cpp:86] Creating Layer ip1
I0428 19:32:09.782294 22768 net.cpp:408] ip1 <- pool0
I0428 19:32:09.782299 22768 net.cpp:382] ip1 -> ip1
I0428 19:32:09.782660 22768 net.cpp:124] Setting up ip1
I0428 19:32:09.782667 22768 net.cpp:131] Top shape: 100 25 (2500)
I0428 19:32:09.782686 22768 net.cpp:139] Memory required for data: 3204800
I0428 19:32:09.782694 22768 layer_factory.hpp:77] Creating layer relu1
I0428 19:32:09.782701 22768 net.cpp:86] Creating Layer relu1
I0428 19:32:09.782704 22768 net.cpp:408] relu1 <- ip1
I0428 19:32:09.782708 22768 net.cpp:369] relu1 -> ip1 (in-place)
I0428 19:32:09.782974 22768 net.cpp:124] Setting up relu1
I0428 19:32:09.782984 22768 net.cpp:131] Top shape: 100 25 (2500)
I0428 19:32:09.782987 22768 net.cpp:139] Memory required for data: 3214800
I0428 19:32:09.782990 22768 layer_factory.hpp:77] Creating layer ip2
I0428 19:32:09.782996 22768 net.cpp:86] Creating Layer ip2
I0428 19:32:09.783000 22768 net.cpp:408] ip2 <- ip1
I0428 19:32:09.783006 22768 net.cpp:382] ip2 -> ip2
I0428 19:32:09.783136 22768 net.cpp:124] Setting up ip2
I0428 19:32:09.783144 22768 net.cpp:131] Top shape: 100 50 (5000)
I0428 19:32:09.783148 22768 net.cpp:139] Memory required for data: 3234800
I0428 19:32:09.783157 22768 layer_factory.hpp:77] Creating layer relu2
I0428 19:32:09.783164 22768 net.cpp:86] Creating Layer relu2
I0428 19:32:09.783167 22768 net.cpp:408] relu2 <- ip2
I0428 19:32:09.783172 22768 net.cpp:369] relu2 -> ip2 (in-place)
I0428 19:32:09.784044 22768 net.cpp:124] Setting up relu2
I0428 19:32:09.784055 22768 net.cpp:131] Top shape: 100 50 (5000)
I0428 19:32:09.784075 22768 net.cpp:139] Memory required for data: 3254800
I0428 19:32:09.784078 22768 layer_factory.hpp:77] Creating layer ip3
I0428 19:32:09.784086 22768 net.cpp:86] Creating Layer ip3
I0428 19:32:09.784091 22768 net.cpp:408] ip3 <- ip2
I0428 19:32:09.784097 22768 net.cpp:382] ip3 -> ip3
I0428 19:32:09.784227 22768 net.cpp:124] Setting up ip3
I0428 19:32:09.784235 22768 net.cpp:131] Top shape: 100 10 (1000)
I0428 19:32:09.784238 22768 net.cpp:139] Memory required for data: 3258800
I0428 19:32:09.784245 22768 layer_factory.hpp:77] Creating layer relu3
I0428 19:32:09.784251 22768 net.cpp:86] Creating Layer relu3
I0428 19:32:09.784255 22768 net.cpp:408] relu3 <- ip3
I0428 19:32:09.784260 22768 net.cpp:369] relu3 -> ip3 (in-place)
I0428 19:32:09.784478 22768 net.cpp:124] Setting up relu3
I0428 19:32:09.784487 22768 net.cpp:131] Top shape: 100 10 (1000)
I0428 19:32:09.784492 22768 net.cpp:139] Memory required for data: 3262800
I0428 19:32:09.784495 22768 layer_factory.hpp:77] Creating layer ip3_relu3_0_split
I0428 19:32:09.784507 22768 net.cpp:86] Creating Layer ip3_relu3_0_split
I0428 19:32:09.784512 22768 net.cpp:408] ip3_relu3_0_split <- ip3
I0428 19:32:09.784518 22768 net.cpp:382] ip3_relu3_0_split -> ip3_relu3_0_split_0
I0428 19:32:09.784523 22768 net.cpp:382] ip3_relu3_0_split -> ip3_relu3_0_split_1
I0428 19:32:09.784564 22768 net.cpp:124] Setting up ip3_relu3_0_split
I0428 19:32:09.784570 22768 net.cpp:131] Top shape: 100 10 (1000)
I0428 19:32:09.784575 22768 net.cpp:131] Top shape: 100 10 (1000)
I0428 19:32:09.784590 22768 net.cpp:139] Memory required for data: 3270800
I0428 19:32:09.784592 22768 layer_factory.hpp:77] Creating layer accuracy
I0428 19:32:09.784598 22768 net.cpp:86] Creating Layer accuracy
I0428 19:32:09.784602 22768 net.cpp:408] accuracy <- ip3_relu3_0_split_0
I0428 19:32:09.784608 22768 net.cpp:408] accuracy <- label_mnist_1_split_0
I0428 19:32:09.784612 22768 net.cpp:382] accuracy -> accuracy
…
