…
I0428 19:41:39.978459 24878 net.cpp:296] The NetState phase (0) differed from the phase (1) specified by a rule in layer mnist
I0428 19:41:39.978477 24878 net.cpp:296] The NetState phase (0) differed from the phase (1) specified by a rule in layer accuracy
I0428 19:41:39.978580 24878 net.cpp:53] Initializing net from parameters: 
name: "LeNet"
state {
  phase: TRAIN
  level: 0
  stage: ""
}
layer {
  name: "mnist"
  type: "Data"
  top: "data"
  top: "label"
  include {
    phase: TRAIN
  }
  transform_param {
    scale: 0.00390625
  }
  data_param {
    source: "examples/mnist/mnist_train_lmdb"
    batch_size: 64
    backend: LMDB
  }
}
layer {
  name: "conv0"
  type: "Convolution"
  bottom: "data"
  top: "conv0"
  param {
    lr_mult: 1
  }
  param {
    lr_mult: 2
  }
  convolution_param {
    num_output: 2
    kernel_size: 5
    stride: 1
    weight_filler {
      type: "xavier"
    }
    bias_filler {
      type: "constant"
    }
  }
}
layer {
  name: "pool0"
  type: "Pooling"
  bottom: "conv0"
  top: "pool0"
  pooling_param {
    pool: MAX
    kernel_size: 2
    stride: 2
  }
}
layer {
  name: "conv1"
  type: "Convolution"
  bottom: "pool0"
  top: "conv1"
  param {
    lr_mult: 1
  }
  param {
    lr_mult: 2
  }
  convolution_param {
    num_output: 10
    kernel_size: 5
    stride: 1
    weight_filler {
      type: "xavier"
    }
    bias_filler {
      type: "constant"
    }
  }
}
layer {
  name: "pool1"
  type: "Pooling"
  bottom: "conv1"
  top: "pool1"
  pooling_param {
    pool: MAX
    kernel_size: 2
    stride: 2
  }
}
layer {
  name: "ip1"
  type: "InnerProduct"
  bottom: "pool1"
  top: "ip1"
  param {
    lr_mult: 1
  }
  param {
    lr_mult: 2
  }
  inner_product_param {
    num_output: 10
    weight_filler {
      type: "xavier"
    }
    bias_filler {
      type: "constant"
    }
  }
}
layer {
  name: "relu1"
  type: "ReLU"
  bottom: "ip1"
  top: "ip1"
}
layer {
  name: "ip2"
  type: "InnerProduct"
  bottom: "ip1"
  top: "ip2"
  param {
    lr_mult: 1
  }
  param {
    lr_mult: 2
  }
  inner_product_param {
    num_output: 50
    weight_filler {
      type: "xavier"
    }
    bias_filler {
      type: "constant"
    }
  }
}
layer {
  name: "relu2"
  type: "ReLU"
  bottom: "ip2"
  top: "ip2"
}
layer {
  name: "ip3"
  type: "InnerProduct"
  bottom: "ip2"
  top: "ip3"
  param {
    lr_mult: 1
  }
  param {
    lr_mult: 2
  }
  inner_product_param {
    num_output: 10
    weight_filler {
      type: "xavier"
    }
    bias_filler {
      type: "constant"
    }
  }
}
layer {
  name: "relu3"
  type: "ReLU"
  bottom: "ip3"
  top: "ip3"
}
layer {
  name: "loss"
  type: "SoftmaxWithLoss"
  bottom: "ip3"
  bottom: "label"
  top: "loss"
}
I0428 19:41:39.978653 24878 layer_factory.hpp:77] Creating layer mnist
I0428 19:41:39.978749 24878 db_lmdb.cpp:35] Opened lmdb examples/mnist/mnist_train_lmdb
I0428 19:41:39.978772 24878 net.cpp:86] Creating Layer mnist
I0428 19:41:39.978786 24878 net.cpp:382] mnist -> data
I0428 19:41:39.978808 24878 net.cpp:382] mnist -> label
I0428 19:41:39.979921 24878 data_layer.cpp:45] output data size: 64,1,28,28
I0428 19:41:39.982379 24878 net.cpp:124] Setting up mnist
I0428 19:41:39.982398 24878 net.cpp:131] Top shape: 64 1 28 28 (50176)
I0428 19:41:39.982403 24878 net.cpp:131] Top shape: 64 (64)
I0428 19:41:39.982408 24878 net.cpp:139] Memory required for data: 200960
I0428 19:41:39.982415 24878 layer_factory.hpp:77] Creating layer conv0
I0428 19:41:39.982430 24878 net.cpp:86] Creating Layer conv0
I0428 19:41:39.982460 24878 net.cpp:408] conv0 <- data
I0428 19:41:39.982481 24878 net.cpp:382] conv0 -> conv0
I0428 19:41:40.274807 24878 net.cpp:124] Setting up conv0
I0428 19:41:40.274838 24878 net.cpp:131] Top shape: 64 2 24 24 (73728)
I0428 19:41:40.274843 24878 net.cpp:139] Memory required for data: 495872
I0428 19:41:40.274862 24878 layer_factory.hpp:77] Creating layer pool0
I0428 19:41:40.274885 24878 net.cpp:86] Creating Layer pool0
I0428 19:41:40.274890 24878 net.cpp:408] pool0 <- conv0
I0428 19:41:40.274896 24878 net.cpp:382] pool0 -> pool0
I0428 19:41:40.274955 24878 net.cpp:124] Setting up pool0
I0428 19:41:40.274965 24878 net.cpp:131] Top shape: 64 2 12 12 (18432)
I0428 19:41:40.274967 24878 net.cpp:139] Memory required for data: 569600
I0428 19:41:40.274971 24878 layer_factory.hpp:77] Creating layer conv1
I0428 19:41:40.274984 24878 net.cpp:86] Creating Layer conv1
I0428 19:41:40.274991 24878 net.cpp:408] conv1 <- pool0
I0428 19:41:40.274996 24878 net.cpp:382] conv1 -> conv1
I0428 19:41:40.277140 24878 net.cpp:124] Setting up conv1
I0428 19:41:40.277158 24878 net.cpp:131] Top shape: 64 10 8 8 (40960)
I0428 19:41:40.277163 24878 net.cpp:139] Memory required for data: 733440
I0428 19:41:40.277173 24878 layer_factory.hpp:77] Creating layer pool1
I0428 19:41:40.277182 24878 net.cpp:86] Creating Layer pool1
I0428 19:41:40.277187 24878 net.cpp:408] pool1 <- conv1
I0428 19:41:40.277194 24878 net.cpp:382] pool1 -> pool1
I0428 19:41:40.277247 24878 net.cpp:124] Setting up pool1
I0428 19:41:40.277256 24878 net.cpp:131] Top shape: 64 10 4 4 (10240)
I0428 19:41:40.277259 24878 net.cpp:139] Memory required for data: 774400
I0428 19:41:40.277263 24878 layer_factory.hpp:77] Creating layer ip1
I0428 19:41:40.277271 24878 net.cpp:86] Creating Layer ip1
I0428 19:41:40.277278 24878 net.cpp:408] ip1 <- pool1
I0428 19:41:40.277284 24878 net.cpp:382] ip1 -> ip1
I0428 19:41:40.278374 24878 net.cpp:124] Setting up ip1
I0428 19:41:40.278389 24878 net.cpp:131] Top shape: 64 10 (640)
I0428 19:41:40.278394 24878 net.cpp:139] Memory required for data: 776960
I0428 19:41:40.278403 24878 layer_factory.hpp:77] Creating layer relu1
I0428 19:41:40.278411 24878 net.cpp:86] Creating Layer relu1
I0428 19:41:40.278415 24878 net.cpp:408] relu1 <- ip1
I0428 19:41:40.278421 24878 net.cpp:369] relu1 -> ip1 (in-place)
I0428 19:41:40.278623 24878 net.cpp:124] Setting up relu1
I0428 19:41:40.278633 24878 net.cpp:131] Top shape: 64 10 (640)
I0428 19:41:40.278636 24878 net.cpp:139] Memory required for data: 779520
I0428 19:41:40.278640 24878 layer_factory.hpp:77] Creating layer ip2
I0428 19:41:40.278648 24878 net.cpp:86] Creating Layer ip2
I0428 19:41:40.278654 24878 net.cpp:408] ip2 <- ip1
I0428 19:41:40.278661 24878 net.cpp:382] ip2 -> ip2
I0428 19:41:40.278780 24878 net.cpp:124] Setting up ip2
I0428 19:41:40.278800 24878 net.cpp:131] Top shape: 64 50 (3200)
I0428 19:41:40.278803 24878 net.cpp:139] Memory required for data: 792320
I0428 19:41:40.278810 24878 layer_factory.hpp:77] Creating layer relu2
I0428 19:41:40.278823 24878 net.cpp:86] Creating Layer relu2
I0428 19:41:40.278827 24878 net.cpp:408] relu2 <- ip2
I0428 19:41:40.278833 24878 net.cpp:369] relu2 -> ip2 (in-place)
I0428 19:41:40.279690 24878 net.cpp:124] Setting up relu2
I0428 19:41:40.279706 24878 net.cpp:131] Top shape: 64 50 (3200)
I0428 19:41:40.279709 24878 net.cpp:139] Memory required for data: 805120
I0428 19:41:40.279713 24878 layer_factory.hpp:77] Creating layer ip3
I0428 19:41:40.279722 24878 net.cpp:86] Creating Layer ip3
I0428 19:41:40.279726 24878 net.cpp:408] ip3 <- ip2
I0428 19:41:40.279743 24878 net.cpp:382] ip3 -> ip3
I0428 19:41:40.279865 24878 net.cpp:124] Setting up ip3
I0428 19:41:40.279884 24878 net.cpp:131] Top shape: 64 10 (640)
I0428 19:41:40.279888 24878 net.cpp:139] Memory required for data: 807680
I0428 19:41:40.279897 24878 layer_factory.hpp:77] Creating layer relu3
I0428 19:41:40.279906 24878 net.cpp:86] Creating Layer relu3
I0428 19:41:40.279909 24878 net.cpp:408] relu3 <- ip3
I0428 19:41:40.279914 24878 net.cpp:369] relu3 -> ip3 (in-place)
I0428 19:41:40.280112 24878 net.cpp:124] Setting up relu3
I0428 19:41:40.280122 24878 net.cpp:131] Top shape: 64 10 (640)
I0428 19:41:40.280125 24878 net.cpp:139] Memory required for data: 810240
I0428 19:41:40.280129 24878 layer_factory.hpp:77] Creating layer loss
I0428 19:41:40.280136 24878 net.cpp:86] Creating Layer loss
I0428 19:41:40.280143 24878 net.cpp:408] loss <- ip3
I0428 19:41:40.280146 24878 net.cpp:408] loss <- label
I0428 19:41:40.280153 24878 net.cpp:382] loss -> loss
I0428 19:41:40.280174 24878 layer_factory.hpp:77] Creating layer loss
…
I0428 19:41:40.280930 24878 solver.cpp:173] Creating test net (#0) specified by net file: ECE595/mnist/train_test/var_everything2/lenet_train_test371.prototxt
I0428 19:41:40.280962 24878 net.cpp:296] The NetState phase (1) differed from the phase (0) specified by a rule in layer mnist
I0428 19:41:40.281071 24878 net.cpp:53] Initializing net from parameters: 
name: "LeNet"
state {
  phase: TEST
}
layer {
  name: "mnist"
  type: "Data"
  top: "data"
  top: "label"
  include {
    phase: TEST
  }
  transform_param {
    scale: 0.00390625
  }
  data_param {
    source: "examples/mnist/mnist_test_lmdb"
    batch_size: 100
    backend: LMDB
  }
}
layer {
  name: "conv0"
  type: "Convolution"
  bottom: "data"
  top: "conv0"
  param {
    lr_mult: 1
  }
  param {
    lr_mult: 2
  }
  convolution_param {
    num_output: 2
    kernel_size: 5
    stride: 1
    weight_filler {
      type: "xavier"
    }
    bias_filler {
      type: "constant"
    }
  }
}
layer {
  name: "pool0"
  type: "Pooling"
  bottom: "conv0"
  top: "pool0"
  pooling_param {
    pool: MAX
    kernel_size: 2
    stride: 2
  }
}
layer {
  name: "conv1"
  type: "Convolution"
  bottom: "pool0"
  top: "conv1"
  param {
    lr_mult: 1
  }
  param {
    lr_mult: 2
  }
  convolution_param {
    num_output: 10
    kernel_size: 5
    stride: 1
    weight_filler {
      type: "xavier"
    }
    bias_filler {
      type: "constant"
    }
  }
}
layer {
  name: "pool1"
  type: "Pooling"
  bottom: "conv1"
  top: "pool1"
  pooling_param {
    pool: MAX
    kernel_size: 2
    stride: 2
  }
}
layer {
  name: "ip1"
  type: "InnerProduct"
  bottom: "pool1"
  top: "ip1"
  param {
    lr_mult: 1
  }
  param {
    lr_mult: 2
  }
  inner_product_param {
    num_output: 10
    weight_filler {
      type: "xavier"
    }
    bias_filler {
      type: "constant"
    }
  }
}
layer {
  name: "relu1"
  type: "ReLU"
  bottom: "ip1"
  top: "ip1"
}
layer {
  name: "ip2"
  type: "InnerProduct"
  bottom: "ip1"
  top: "ip2"
  param {
    lr_mult: 1
  }
  param {
    lr_mult: 2
  }
  inner_product_param {
    num_output: 50
    weight_filler {
      type: "xavier"
    }
    bias_filler {
      type: "constant"
    }
  }
}
layer {
  name: "relu2"
  type: "ReLU"
  bottom: "ip2"
  top: "ip2"
}
layer {
  name: "ip3"
  type: "InnerProduct"
  bottom: "ip2"
  top: "ip3"
  param {
    lr_mult: 1
  }
  param {
    lr_mult: 2
  }
  inner_product_param {
    num_output: 10
    weight_filler {
      type: "xavier"
    }
    bias_filler {
      type: "constant"
    }
  }
}
layer {
  name: "relu3"
  type: "ReLU"
  bottom: "ip3"
  top: "ip3"
}
layer {
  name: "accuracy"
  type: "Accuracy"
  bottom: "ip3"
  bottom: "label"
  top: "accuracy"
  include {
    phase: TEST
  }
}
layer {
  name: "loss"
  type: "SoftmaxWithLoss"
  bottom: "ip3"
  bottom: "label"
  top: "loss"
}
I0428 19:41:40.281165 24878 layer_factory.hpp:77] Creating layer mnist
I0428 19:41:40.281232 24878 db_lmdb.cpp:35] Opened lmdb examples/mnist/mnist_test_lmdb
I0428 19:41:40.281247 24878 net.cpp:86] Creating Layer mnist
I0428 19:41:40.281252 24878 net.cpp:382] mnist -> data
I0428 19:41:40.281262 24878 net.cpp:382] mnist -> label
I0428 19:41:40.281369 24878 data_layer.cpp:45] output data size: 100,1,28,28
I0428 19:41:40.283540 24878 net.cpp:124] Setting up mnist
I0428 19:41:40.283565 24878 net.cpp:131] Top shape: 100 1 28 28 (78400)
I0428 19:41:40.283571 24878 net.cpp:131] Top shape: 100 (100)
I0428 19:41:40.283574 24878 net.cpp:139] Memory required for data: 314000
I0428 19:41:40.283578 24878 layer_factory.hpp:77] Creating layer label_mnist_1_split
I0428 19:41:40.283612 24878 net.cpp:86] Creating Layer label_mnist_1_split
I0428 19:41:40.283627 24878 net.cpp:408] label_mnist_1_split <- label
I0428 19:41:40.283633 24878 net.cpp:382] label_mnist_1_split -> label_mnist_1_split_0
I0428 19:41:40.283643 24878 net.cpp:382] label_mnist_1_split -> label_mnist_1_split_1
I0428 19:41:40.283700 24878 net.cpp:124] Setting up label_mnist_1_split
I0428 19:41:40.283709 24878 net.cpp:131] Top shape: 100 (100)
I0428 19:41:40.283712 24878 net.cpp:131] Top shape: 100 (100)
I0428 19:41:40.283716 24878 net.cpp:139] Memory required for data: 314800
I0428 19:41:40.283720 24878 layer_factory.hpp:77] Creating layer conv0
I0428 19:41:40.283730 24878 net.cpp:86] Creating Layer conv0
I0428 19:41:40.283735 24878 net.cpp:408] conv0 <- data
I0428 19:41:40.283741 24878 net.cpp:382] conv0 -> conv0
I0428 19:41:40.285682 24878 net.cpp:124] Setting up conv0
I0428 19:41:40.285699 24878 net.cpp:131] Top shape: 100 2 24 24 (115200)
I0428 19:41:40.285704 24878 net.cpp:139] Memory required for data: 775600
I0428 19:41:40.285715 24878 layer_factory.hpp:77] Creating layer pool0
I0428 19:41:40.285722 24878 net.cpp:86] Creating Layer pool0
I0428 19:41:40.285727 24878 net.cpp:408] pool0 <- conv0
I0428 19:41:40.285733 24878 net.cpp:382] pool0 -> pool0
I0428 19:41:40.285776 24878 net.cpp:124] Setting up pool0
I0428 19:41:40.285790 24878 net.cpp:131] Top shape: 100 2 12 12 (28800)
I0428 19:41:40.285794 24878 net.cpp:139] Memory required for data: 890800
I0428 19:41:40.285805 24878 layer_factory.hpp:77] Creating layer conv1
I0428 19:41:40.285816 24878 net.cpp:86] Creating Layer conv1
I0428 19:41:40.285820 24878 net.cpp:408] conv1 <- pool0
I0428 19:41:40.285826 24878 net.cpp:382] conv1 -> conv1
I0428 19:41:40.287578 24878 net.cpp:124] Setting up conv1
I0428 19:41:40.287593 24878 net.cpp:131] Top shape: 100 10 8 8 (64000)
I0428 19:41:40.287597 24878 net.cpp:139] Memory required for data: 1146800
I0428 19:41:40.287609 24878 layer_factory.hpp:77] Creating layer pool1
I0428 19:41:40.287618 24878 net.cpp:86] Creating Layer pool1
I0428 19:41:40.287622 24878 net.cpp:408] pool1 <- conv1
I0428 19:41:40.287628 24878 net.cpp:382] pool1 -> pool1
I0428 19:41:40.287672 24878 net.cpp:124] Setting up pool1
I0428 19:41:40.287680 24878 net.cpp:131] Top shape: 100 10 4 4 (16000)
I0428 19:41:40.287684 24878 net.cpp:139] Memory required for data: 1210800
I0428 19:41:40.287688 24878 layer_factory.hpp:77] Creating layer ip1
I0428 19:41:40.287696 24878 net.cpp:86] Creating Layer ip1
I0428 19:41:40.287700 24878 net.cpp:408] ip1 <- pool1
I0428 19:41:40.287706 24878 net.cpp:382] ip1 -> ip1
I0428 19:41:40.287838 24878 net.cpp:124] Setting up ip1
I0428 19:41:40.287847 24878 net.cpp:131] Top shape: 100 10 (1000)
I0428 19:41:40.287864 24878 net.cpp:139] Memory required for data: 1214800
I0428 19:41:40.287873 24878 layer_factory.hpp:77] Creating layer relu1
I0428 19:41:40.287883 24878 net.cpp:86] Creating Layer relu1
I0428 19:41:40.287889 24878 net.cpp:408] relu1 <- ip1
I0428 19:41:40.287894 24878 net.cpp:369] relu1 -> ip1 (in-place)
I0428 19:41:40.288111 24878 net.cpp:124] Setting up relu1
I0428 19:41:40.288122 24878 net.cpp:131] Top shape: 100 10 (1000)
I0428 19:41:40.288127 24878 net.cpp:139] Memory required for data: 1218800
I0428 19:41:40.288131 24878 layer_factory.hpp:77] Creating layer ip2
I0428 19:41:40.288142 24878 net.cpp:86] Creating Layer ip2
I0428 19:41:40.288148 24878 net.cpp:408] ip2 <- ip1
I0428 19:41:40.288156 24878 net.cpp:382] ip2 -> ip2
I0428 19:41:40.288290 24878 net.cpp:124] Setting up ip2
I0428 19:41:40.288300 24878 net.cpp:131] Top shape: 100 50 (5000)
I0428 19:41:40.288305 24878 net.cpp:139] Memory required for data: 1238800
I0428 19:41:40.288312 24878 layer_factory.hpp:77] Creating layer relu2
I0428 19:41:40.288317 24878 net.cpp:86] Creating Layer relu2
I0428 19:41:40.288322 24878 net.cpp:408] relu2 <- ip2
I0428 19:41:40.288327 24878 net.cpp:369] relu2 -> ip2 (in-place)
I0428 19:41:40.288620 24878 net.cpp:124] Setting up relu2
I0428 19:41:40.288631 24878 net.cpp:131] Top shape: 100 50 (5000)
I0428 19:41:40.288636 24878 net.cpp:139] Memory required for data: 1258800
I0428 19:41:40.288640 24878 layer_factory.hpp:77] Creating layer ip3
I0428 19:41:40.288647 24878 net.cpp:86] Creating Layer ip3
I0428 19:41:40.288651 24878 net.cpp:408] ip3 <- ip2
I0428 19:41:40.288660 24878 net.cpp:382] ip3 -> ip3
I0428 19:41:40.288792 24878 net.cpp:124] Setting up ip3
I0428 19:41:40.288800 24878 net.cpp:131] Top shape: 100 10 (1000)
I0428 19:41:40.288803 24878 net.cpp:139] Memory required for data: 1262800
I0428 19:41:40.288830 24878 layer_factory.hpp:77] Creating layer relu3
I0428 19:41:40.288867 24878 net.cpp:86] Creating Layer relu3
I0428 19:41:40.288872 24878 net.cpp:408] relu3 <- ip3
I0428 19:41:40.288878 24878 net.cpp:369] relu3 -> ip3 (in-place)
I0428 19:41:40.289813 24878 net.cpp:124] Setting up relu3
I0428 19:41:40.289827 24878 net.cpp:131] Top shape: 100 10 (1000)
I0428 19:41:40.289832 24878 net.cpp:139] Memory required for data: 1266800
I0428 19:41:40.289836 24878 layer_factory.hpp:77] Creating layer ip3_relu3_0_split
I0428 19:41:40.289842 24878 net.cpp:86] Creating Layer ip3_relu3_0_split
I0428 19:41:40.289846 24878 net.cpp:408] ip3_relu3_0_split <- ip3
I0428 19:41:40.289854 24878 net.cpp:382] ip3_relu3_0_split -> ip3_relu3_0_split_0
I0428 19:41:40.289861 24878 net.cpp:382] ip3_relu3_0_split -> ip3_relu3_0_split_1
I0428 19:41:40.289908 24878 net.cpp:124] Setting up ip3_relu3_0_split
I0428 19:41:40.289916 24878 net.cpp:131] Top shape: 100 10 (1000)
I0428 19:41:40.289921 24878 net.cpp:131] Top shape: 100 10 (1000)
I0428 19:41:40.289924 24878 net.cpp:139] Memory required for data: 1274800
I0428 19:41:40.289928 24878 layer_factory.hpp:77] Creating layer accuracy
I0428 19:41:40.289935 24878 net.cpp:86] Creating Layer accuracy
I0428 19:41:40.289939 24878 net.cpp:408] accuracy <- ip3_relu3_0_split_0
I0428 19:41:40.289945 24878 net.cpp:408] accuracy <- label_mnist_1_split_0
I0428 19:41:40.289950 24878 net.cpp:382] accuracy -> accuracy
…
