…
I0428 20:10:01.775202 31750 net.cpp:296] The NetState phase (0) differed from the phase (1) specified by a rule in layer mnist
I0428 20:10:01.775226 31750 net.cpp:296] The NetState phase (0) differed from the phase (1) specified by a rule in layer accuracy
I0428 20:10:01.775364 31750 net.cpp:53] Initializing net from parameters: 
name: "LeNet"
state {
  phase: TRAIN
  level: 0
  stage: ""
}
layer {
  name: "mnist"
  type: "Data"
  top: "data"
  top: "label"
  include {
    phase: TRAIN
  }
  transform_param {
    scale: 0.00390625
  }
  data_param {
    source: "examples/mnist/mnist_train_lmdb"
    batch_size: 64
    backend: LMDB
  }
}
layer {
  name: "conv0"
  type: "Convolution"
  bottom: "data"
  top: "conv0"
  param {
    lr_mult: 1
  }
  param {
    lr_mult: 2
  }
  convolution_param {
    num_output: 25
    kernel_size: 5
    stride: 1
    weight_filler {
      type: "xavier"
    }
    bias_filler {
      type: "constant"
    }
  }
}
layer {
  name: "pool0"
  type: "Pooling"
  bottom: "conv0"
  top: "pool0"
  pooling_param {
    pool: MAX
    kernel_size: 2
    stride: 2
  }
}
layer {
  name: "conv1"
  type: "Convolution"
  bottom: "pool0"
  top: "conv1"
  param {
    lr_mult: 1
  }
  param {
    lr_mult: 2
  }
  convolution_param {
    num_output: 25
    kernel_size: 5
    stride: 1
    weight_filler {
      type: "xavier"
    }
    bias_filler {
      type: "constant"
    }
  }
}
layer {
  name: "pool1"
  type: "Pooling"
  bottom: "conv1"
  top: "pool1"
  pooling_param {
    pool: MAX
    kernel_size: 2
    stride: 2
  }
}
layer {
  name: "ip1"
  type: "InnerProduct"
  bottom: "pool1"
  top: "ip1"
  param {
    lr_mult: 1
  }
  param {
    lr_mult: 2
  }
  inner_product_param {
    num_output: 50
    weight_filler {
      type: "xavier"
    }
    bias_filler {
      type: "constant"
    }
  }
}
layer {
  name: "relu1"
  type: "ReLU"
  bottom: "ip1"
  top: "ip1"
}
layer {
  name: "ip2"
  type: "InnerProduct"
  bottom: "ip1"
  top: "ip2"
  param {
    lr_mult: 1
  }
  param {
    lr_mult: 2
  }
  inner_product_param {
    num_output: 10
    weight_filler {
      type: "xavier"
    }
    bias_filler {
      type: "constant"
    }
  }
}
layer {
  name: "relu2"
  type: "ReLU"
  bottom: "ip2"
  top: "ip2"
}
layer {
  name: "ip3"
  type: "InnerProduct"
  bottom: "ip2"
  top: "ip3"
  param {
    lr_mult: 1
  }
  param {
    lr_mult: 2
  }
  inner_product_param {
    num_output: 10
    weight_filler {
      type: "xavier"
    }
    bias_filler {
      type: "constant"
    }
  }
}
layer {
  name: "relu3"
  type: "ReLU"
  bottom: "ip3"
  top: "ip3"
}
layer {
  name: "loss"
  type: "SoftmaxWithLoss"
  bottom: "ip3"
  bottom: "label"
  top: "loss"
}
I0428 20:10:01.775462 31750 layer_factory.hpp:77] Creating layer mnist
I0428 20:10:01.775585 31750 db_lmdb.cpp:35] Opened lmdb examples/mnist/mnist_train_lmdb
I0428 20:10:01.775615 31750 net.cpp:86] Creating Layer mnist
I0428 20:10:01.775625 31750 net.cpp:382] mnist -> data
I0428 20:10:01.775655 31750 net.cpp:382] mnist -> label
I0428 20:10:01.777070 31750 data_layer.cpp:45] output data size: 64,1,28,28
I0428 20:10:01.780478 31750 net.cpp:124] Setting up mnist
I0428 20:10:01.780500 31750 net.cpp:131] Top shape: 64 1 28 28 (50176)
I0428 20:10:01.780508 31750 net.cpp:131] Top shape: 64 (64)
I0428 20:10:01.780514 31750 net.cpp:139] Memory required for data: 200960
I0428 20:10:01.780524 31750 layer_factory.hpp:77] Creating layer conv0
I0428 20:10:01.780546 31750 net.cpp:86] Creating Layer conv0
I0428 20:10:01.780572 31750 net.cpp:408] conv0 <- data
I0428 20:10:01.780589 31750 net.cpp:382] conv0 -> conv0
I0428 20:10:02.113746 31750 net.cpp:124] Setting up conv0
I0428 20:10:02.113795 31750 net.cpp:131] Top shape: 64 25 24 24 (921600)
I0428 20:10:02.113801 31750 net.cpp:139] Memory required for data: 3887360
I0428 20:10:02.113822 31750 layer_factory.hpp:77] Creating layer pool0
I0428 20:10:02.113852 31750 net.cpp:86] Creating Layer pool0
I0428 20:10:02.113858 31750 net.cpp:408] pool0 <- conv0
I0428 20:10:02.113867 31750 net.cpp:382] pool0 -> pool0
I0428 20:10:02.113939 31750 net.cpp:124] Setting up pool0
I0428 20:10:02.113948 31750 net.cpp:131] Top shape: 64 25 12 12 (230400)
I0428 20:10:02.113953 31750 net.cpp:139] Memory required for data: 4808960
I0428 20:10:02.113958 31750 layer_factory.hpp:77] Creating layer conv1
I0428 20:10:02.113973 31750 net.cpp:86] Creating Layer conv1
I0428 20:10:02.113978 31750 net.cpp:408] conv1 <- pool0
I0428 20:10:02.113986 31750 net.cpp:382] conv1 -> conv1
I0428 20:10:02.117849 31750 net.cpp:124] Setting up conv1
I0428 20:10:02.117885 31750 net.cpp:131] Top shape: 64 25 8 8 (102400)
I0428 20:10:02.117905 31750 net.cpp:139] Memory required for data: 5218560
I0428 20:10:02.117918 31750 layer_factory.hpp:77] Creating layer pool1
I0428 20:10:02.117928 31750 net.cpp:86] Creating Layer pool1
I0428 20:10:02.117933 31750 net.cpp:408] pool1 <- conv1
I0428 20:10:02.117941 31750 net.cpp:382] pool1 -> pool1
I0428 20:10:02.118005 31750 net.cpp:124] Setting up pool1
I0428 20:10:02.118021 31750 net.cpp:131] Top shape: 64 25 4 4 (25600)
I0428 20:10:02.118026 31750 net.cpp:139] Memory required for data: 5320960
I0428 20:10:02.118029 31750 layer_factory.hpp:77] Creating layer ip1
I0428 20:10:02.118041 31750 net.cpp:86] Creating Layer ip1
I0428 20:10:02.118046 31750 net.cpp:408] ip1 <- pool1
I0428 20:10:02.118053 31750 net.cpp:382] ip1 -> ip1
I0428 20:10:02.118413 31750 net.cpp:124] Setting up ip1
I0428 20:10:02.118423 31750 net.cpp:131] Top shape: 64 50 (3200)
I0428 20:10:02.118443 31750 net.cpp:139] Memory required for data: 5333760
I0428 20:10:02.118453 31750 layer_factory.hpp:77] Creating layer relu1
I0428 20:10:02.118464 31750 net.cpp:86] Creating Layer relu1
I0428 20:10:02.118469 31750 net.cpp:408] relu1 <- ip1
I0428 20:10:02.118489 31750 net.cpp:369] relu1 -> ip1 (in-place)
I0428 20:10:02.118705 31750 net.cpp:124] Setting up relu1
I0428 20:10:02.118717 31750 net.cpp:131] Top shape: 64 50 (3200)
I0428 20:10:02.118722 31750 net.cpp:139] Memory required for data: 5346560
I0428 20:10:02.118726 31750 layer_factory.hpp:77] Creating layer ip2
I0428 20:10:02.118736 31750 net.cpp:86] Creating Layer ip2
I0428 20:10:02.118741 31750 net.cpp:408] ip2 <- ip1
I0428 20:10:02.118748 31750 net.cpp:382] ip2 -> ip2
I0428 20:10:02.118891 31750 net.cpp:124] Setting up ip2
I0428 20:10:02.118916 31750 net.cpp:131] Top shape: 64 10 (640)
I0428 20:10:02.118921 31750 net.cpp:139] Memory required for data: 5349120
I0428 20:10:02.118929 31750 layer_factory.hpp:77] Creating layer relu2
I0428 20:10:02.118939 31750 net.cpp:86] Creating Layer relu2
I0428 20:10:02.118944 31750 net.cpp:408] relu2 <- ip2
I0428 20:10:02.118950 31750 net.cpp:369] relu2 -> ip2 (in-place)
I0428 20:10:02.119985 31750 net.cpp:124] Setting up relu2
I0428 20:10:02.120015 31750 net.cpp:131] Top shape: 64 10 (640)
I0428 20:10:02.120020 31750 net.cpp:139] Memory required for data: 5351680
I0428 20:10:02.120025 31750 layer_factory.hpp:77] Creating layer ip3
I0428 20:10:02.120036 31750 net.cpp:86] Creating Layer ip3
I0428 20:10:02.120041 31750 net.cpp:408] ip3 <- ip2
I0428 20:10:02.120050 31750 net.cpp:382] ip3 -> ip3
I0428 20:10:02.120201 31750 net.cpp:124] Setting up ip3
I0428 20:10:02.120211 31750 net.cpp:131] Top shape: 64 10 (640)
I0428 20:10:02.120216 31750 net.cpp:139] Memory required for data: 5354240
I0428 20:10:02.120229 31750 layer_factory.hpp:77] Creating layer relu3
I0428 20:10:02.120235 31750 net.cpp:86] Creating Layer relu3
I0428 20:10:02.120240 31750 net.cpp:408] relu3 <- ip3
I0428 20:10:02.120246 31750 net.cpp:369] relu3 -> ip3 (in-place)
I0428 20:10:02.120481 31750 net.cpp:124] Setting up relu3
I0428 20:10:02.120493 31750 net.cpp:131] Top shape: 64 10 (640)
I0428 20:10:02.120498 31750 net.cpp:139] Memory required for data: 5356800
I0428 20:10:02.120503 31750 layer_factory.hpp:77] Creating layer loss
I0428 20:10:02.120512 31750 net.cpp:86] Creating Layer loss
I0428 20:10:02.120515 31750 net.cpp:408] loss <- ip3
I0428 20:10:02.120522 31750 net.cpp:408] loss <- label
I0428 20:10:02.120530 31750 net.cpp:382] loss -> loss
I0428 20:10:02.120553 31750 layer_factory.hpp:77] Creating layer loss
…
I0428 20:10:02.121575 31750 solver.cpp:173] Creating test net (#0) specified by net file: ECE595/mnist/train_test/var_everything2/lenet_train_test1124.prototxt
I0428 20:10:02.121629 31750 net.cpp:296] The NetState phase (1) differed from the phase (0) specified by a rule in layer mnist
I0428 20:10:02.121791 31750 net.cpp:53] Initializing net from parameters: 
name: "LeNet"
state {
  phase: TEST
}
layer {
  name: "mnist"
  type: "Data"
  top: "data"
  top: "label"
  include {
    phase: TEST
  }
  transform_param {
    scale: 0.00390625
  }
  data_param {
    source: "examples/mnist/mnist_test_lmdb"
    batch_size: 100
    backend: LMDB
  }
}
layer {
  name: "conv0"
  type: "Convolution"
  bottom: "data"
  top: "conv0"
  param {
    lr_mult: 1
  }
  param {
    lr_mult: 2
  }
  convolution_param {
    num_output: 25
    kernel_size: 5
    stride: 1
    weight_filler {
      type: "xavier"
    }
    bias_filler {
      type: "constant"
    }
  }
}
layer {
  name: "pool0"
  type: "Pooling"
  bottom: "conv0"
  top: "pool0"
  pooling_param {
    pool: MAX
    kernel_size: 2
    stride: 2
  }
}
layer {
  name: "conv1"
  type: "Convolution"
  bottom: "pool0"
  top: "conv1"
  param {
    lr_mult: 1
  }
  param {
    lr_mult: 2
  }
  convolution_param {
    num_output: 25
    kernel_size: 5
    stride: 1
    weight_filler {
      type: "xavier"
    }
    bias_filler {
      type: "constant"
    }
  }
}
layer {
  name: "pool1"
  type: "Pooling"
  bottom: "conv1"
  top: "pool1"
  pooling_param {
    pool: MAX
    kernel_size: 2
    stride: 2
  }
}
layer {
  name: "ip1"
  type: "InnerProduct"
  bottom: "pool1"
  top: "ip1"
  param {
    lr_mult: 1
  }
  param {
    lr_mult: 2
  }
  inner_product_param {
    num_output: 50
    weight_filler {
      type: "xavier"
    }
    bias_filler {
      type: "constant"
    }
  }
}
layer {
  name: "relu1"
  type: "ReLU"
  bottom: "ip1"
  top: "ip1"
}
layer {
  name: "ip2"
  type: "InnerProduct"
  bottom: "ip1"
  top: "ip2"
  param {
    lr_mult: 1
  }
  param {
    lr_mult: 2
  }
  inner_product_param {
    num_output: 10
    weight_filler {
      type: "xavier"
    }
    bias_filler {
      type: "constant"
    }
  }
}
layer {
  name: "relu2"
  type: "ReLU"
  bottom: "ip2"
  top: "ip2"
}
layer {
  name: "ip3"
  type: "InnerProduct"
  bottom: "ip2"
  top: "ip3"
  param {
    lr_mult: 1
  }
  param {
    lr_mult: 2
  }
  inner_product_param {
    num_output: 10
    weight_filler {
      type: "xavier"
    }
    bias_filler {
      type: "constant"
    }
  }
}
layer {
  name: "relu3"
  type: "ReLU"
  bottom: "ip3"
  top: "ip3"
}
layer {
  name: "accuracy"
  type: "Accuracy"
  bottom: "ip3"
  bottom: "label"
  top: "accuracy"
  include {
    phase: TEST
  }
}
layer {
  name: "loss"
  type: "SoftmaxWithLoss"
  bottom: "ip3"
  bottom: "label"
  top: "loss"
}
I0428 20:10:02.121903 31750 layer_factory.hpp:77] Creating layer mnist
I0428 20:10:02.121958 31750 db_lmdb.cpp:35] Opened lmdb examples/mnist/mnist_test_lmdb
I0428 20:10:02.121975 31750 net.cpp:86] Creating Layer mnist
I0428 20:10:02.121983 31750 net.cpp:382] mnist -> data
I0428 20:10:02.121991 31750 net.cpp:382] mnist -> label
I0428 20:10:02.122115 31750 data_layer.cpp:45] output data size: 100,1,28,28
I0428 20:10:02.124730 31750 net.cpp:124] Setting up mnist
I0428 20:10:02.124778 31750 net.cpp:131] Top shape: 100 1 28 28 (78400)
I0428 20:10:02.124788 31750 net.cpp:131] Top shape: 100 (100)
I0428 20:10:02.124794 31750 net.cpp:139] Memory required for data: 314000
I0428 20:10:02.124799 31750 layer_factory.hpp:77] Creating layer label_mnist_1_split
I0428 20:10:02.124807 31750 net.cpp:86] Creating Layer label_mnist_1_split
I0428 20:10:02.124833 31750 net.cpp:408] label_mnist_1_split <- label
I0428 20:10:02.124840 31750 net.cpp:382] label_mnist_1_split -> label_mnist_1_split_0
I0428 20:10:02.124866 31750 net.cpp:382] label_mnist_1_split -> label_mnist_1_split_1
I0428 20:10:02.124996 31750 net.cpp:124] Setting up label_mnist_1_split
I0428 20:10:02.125007 31750 net.cpp:131] Top shape: 100 (100)
I0428 20:10:02.125013 31750 net.cpp:131] Top shape: 100 (100)
I0428 20:10:02.125017 31750 net.cpp:139] Memory required for data: 314800
I0428 20:10:02.125022 31750 layer_factory.hpp:77] Creating layer conv0
I0428 20:10:02.125036 31750 net.cpp:86] Creating Layer conv0
I0428 20:10:02.125041 31750 net.cpp:408] conv0 <- data
I0428 20:10:02.125051 31750 net.cpp:382] conv0 -> conv0
I0428 20:10:02.127305 31750 net.cpp:124] Setting up conv0
I0428 20:10:02.127338 31750 net.cpp:131] Top shape: 100 25 24 24 (1440000)
I0428 20:10:02.127344 31750 net.cpp:139] Memory required for data: 6074800
I0428 20:10:02.127358 31750 layer_factory.hpp:77] Creating layer pool0
I0428 20:10:02.127369 31750 net.cpp:86] Creating Layer pool0
I0428 20:10:02.127375 31750 net.cpp:408] pool0 <- conv0
I0428 20:10:02.127382 31750 net.cpp:382] pool0 -> pool0
I0428 20:10:02.127434 31750 net.cpp:124] Setting up pool0
I0428 20:10:02.127445 31750 net.cpp:131] Top shape: 100 25 12 12 (360000)
I0428 20:10:02.127465 31750 net.cpp:139] Memory required for data: 7514800
I0428 20:10:02.127468 31750 layer_factory.hpp:77] Creating layer conv1
I0428 20:10:02.127483 31750 net.cpp:86] Creating Layer conv1
I0428 20:10:02.127488 31750 net.cpp:408] conv1 <- pool0
I0428 20:10:02.127497 31750 net.cpp:382] conv1 -> conv1
I0428 20:10:02.130640 31750 net.cpp:124] Setting up conv1
I0428 20:10:02.130656 31750 net.cpp:131] Top shape: 100 25 8 8 (160000)
I0428 20:10:02.130673 31750 net.cpp:139] Memory required for data: 8154800
I0428 20:10:02.130698 31750 layer_factory.hpp:77] Creating layer pool1
I0428 20:10:02.130708 31750 net.cpp:86] Creating Layer pool1
I0428 20:10:02.130713 31750 net.cpp:408] pool1 <- conv1
I0428 20:10:02.130720 31750 net.cpp:382] pool1 -> pool1
I0428 20:10:02.130769 31750 net.cpp:124] Setting up pool1
I0428 20:10:02.130782 31750 net.cpp:131] Top shape: 100 25 4 4 (40000)
I0428 20:10:02.130787 31750 net.cpp:139] Memory required for data: 8314800
I0428 20:10:02.130791 31750 layer_factory.hpp:77] Creating layer ip1
I0428 20:10:02.130800 31750 net.cpp:86] Creating Layer ip1
I0428 20:10:02.130803 31750 net.cpp:408] ip1 <- pool1
I0428 20:10:02.130811 31750 net.cpp:382] ip1 -> ip1
I0428 20:10:02.131146 31750 net.cpp:124] Setting up ip1
I0428 20:10:02.131157 31750 net.cpp:131] Top shape: 100 50 (5000)
I0428 20:10:02.131173 31750 net.cpp:139] Memory required for data: 8334800
I0428 20:10:02.131186 31750 layer_factory.hpp:77] Creating layer relu1
I0428 20:10:02.131194 31750 net.cpp:86] Creating Layer relu1
I0428 20:10:02.131199 31750 net.cpp:408] relu1 <- ip1
I0428 20:10:02.131207 31750 net.cpp:369] relu1 -> ip1 (in-place)
I0428 20:10:02.131441 31750 net.cpp:124] Setting up relu1
I0428 20:10:02.131453 31750 net.cpp:131] Top shape: 100 50 (5000)
I0428 20:10:02.131458 31750 net.cpp:139] Memory required for data: 8354800
I0428 20:10:02.131464 31750 layer_factory.hpp:77] Creating layer ip2
I0428 20:10:02.131474 31750 net.cpp:86] Creating Layer ip2
I0428 20:10:02.131479 31750 net.cpp:408] ip2 <- ip1
I0428 20:10:02.131494 31750 net.cpp:382] ip2 -> ip2
I0428 20:10:02.131639 31750 net.cpp:124] Setting up ip2
I0428 20:10:02.131664 31750 net.cpp:131] Top shape: 100 10 (1000)
I0428 20:10:02.131677 31750 net.cpp:139] Memory required for data: 8358800
I0428 20:10:02.131686 31750 layer_factory.hpp:77] Creating layer relu2
I0428 20:10:02.131693 31750 net.cpp:86] Creating Layer relu2
I0428 20:10:02.131698 31750 net.cpp:408] relu2 <- ip2
I0428 20:10:02.131706 31750 net.cpp:369] relu2 -> ip2 (in-place)
I0428 20:10:02.131934 31750 net.cpp:124] Setting up relu2
I0428 20:10:02.131945 31750 net.cpp:131] Top shape: 100 10 (1000)
I0428 20:10:02.131950 31750 net.cpp:139] Memory required for data: 8362800
I0428 20:10:02.131966 31750 layer_factory.hpp:77] Creating layer ip3
I0428 20:10:02.131975 31750 net.cpp:86] Creating Layer ip3
I0428 20:10:02.131980 31750 net.cpp:408] ip3 <- ip2
I0428 20:10:02.132001 31750 net.cpp:382] ip3 -> ip3
I0428 20:10:02.132186 31750 net.cpp:124] Setting up ip3
I0428 20:10:02.132196 31750 net.cpp:131] Top shape: 100 10 (1000)
I0428 20:10:02.132201 31750 net.cpp:139] Memory required for data: 8366800
I0428 20:10:02.132223 31750 layer_factory.hpp:77] Creating layer relu3
I0428 20:10:02.132230 31750 net.cpp:86] Creating Layer relu3
I0428 20:10:02.132236 31750 net.cpp:408] relu3 <- ip3
I0428 20:10:02.132242 31750 net.cpp:369] relu3 -> ip3 (in-place)
I0428 20:10:02.133412 31750 net.cpp:124] Setting up relu3
I0428 20:10:02.133429 31750 net.cpp:131] Top shape: 100 10 (1000)
I0428 20:10:02.133433 31750 net.cpp:139] Memory required for data: 8370800
I0428 20:10:02.133438 31750 layer_factory.hpp:77] Creating layer ip3_relu3_0_split
I0428 20:10:02.133446 31750 net.cpp:86] Creating Layer ip3_relu3_0_split
I0428 20:10:02.133451 31750 net.cpp:408] ip3_relu3_0_split <- ip3
I0428 20:10:02.133458 31750 net.cpp:382] ip3_relu3_0_split -> ip3_relu3_0_split_0
I0428 20:10:02.133467 31750 net.cpp:382] ip3_relu3_0_split -> ip3_relu3_0_split_1
I0428 20:10:02.133517 31750 net.cpp:124] Setting up ip3_relu3_0_split
I0428 20:10:02.133525 31750 net.cpp:131] Top shape: 100 10 (1000)
I0428 20:10:02.133532 31750 net.cpp:131] Top shape: 100 10 (1000)
I0428 20:10:02.133535 31750 net.cpp:139] Memory required for data: 8378800
I0428 20:10:02.133540 31750 layer_factory.hpp:77] Creating layer accuracy
I0428 20:10:02.133548 31750 net.cpp:86] Creating Layer accuracy
I0428 20:10:02.133553 31750 net.cpp:408] accuracy <- ip3_relu3_0_split_0
I0428 20:10:02.133559 31750 net.cpp:408] accuracy <- label_mnist_1_split_0
I0428 20:10:02.133579 31750 net.cpp:382] accuracy -> accuracy
…
