…
I0428 20:16:55.657546   757 net.cpp:296] The NetState phase (0) differed from the phase (1) specified by a rule in layer mnist
I0428 20:16:55.657577   757 net.cpp:296] The NetState phase (0) differed from the phase (1) specified by a rule in layer accuracy
I0428 20:16:55.657737   757 net.cpp:53] Initializing net from parameters: 
name: "LeNet"
state {
  phase: TRAIN
  level: 0
  stage: ""
}
layer {
  name: "mnist"
  type: "Data"
  top: "data"
  top: "label"
  include {
    phase: TRAIN
  }
  transform_param {
    scale: 0.00390625
  }
  data_param {
    source: "examples/mnist/mnist_train_lmdb"
    batch_size: 64
    backend: LMDB
  }
}
layer {
  name: "conv0"
  type: "Convolution"
  bottom: "data"
  top: "conv0"
  param {
    lr_mult: 1
  }
  param {
    lr_mult: 2
  }
  convolution_param {
    num_output: 50
    kernel_size: 5
    stride: 1
    weight_filler {
      type: "xavier"
    }
    bias_filler {
      type: "constant"
    }
  }
}
layer {
  name: "pool0"
  type: "Pooling"
  bottom: "conv0"
  top: "pool0"
  pooling_param {
    pool: MAX
    kernel_size: 2
    stride: 2
  }
}
layer {
  name: "conv1"
  type: "Convolution"
  bottom: "pool0"
  top: "conv1"
  param {
    lr_mult: 1
  }
  param {
    lr_mult: 2
  }
  convolution_param {
    num_output: 5
    kernel_size: 5
    stride: 1
    weight_filler {
      type: "xavier"
    }
    bias_filler {
      type: "constant"
    }
  }
}
layer {
  name: "pool1"
  type: "Pooling"
  bottom: "conv1"
  top: "pool1"
  pooling_param {
    pool: MAX
    kernel_size: 2
    stride: 2
  }
}
layer {
  name: "ip1"
  type: "InnerProduct"
  bottom: "pool1"
  top: "ip1"
  param {
    lr_mult: 1
  }
  param {
    lr_mult: 2
  }
  inner_product_param {
    num_output: 50
    weight_filler {
      type: "xavier"
    }
    bias_filler {
      type: "constant"
    }
  }
}
layer {
  name: "relu1"
  type: "ReLU"
  bottom: "ip1"
  top: "ip1"
}
layer {
  name: "ip2"
  type: "InnerProduct"
  bottom: "ip1"
  top: "ip2"
  param {
    lr_mult: 1
  }
  param {
    lr_mult: 2
  }
  inner_product_param {
    num_output: 25
    weight_filler {
      type: "xavier"
    }
    bias_filler {
      type: "constant"
    }
  }
}
layer {
  name: "relu2"
  type: "ReLU"
  bottom: "ip2"
  top: "ip2"
}
layer {
  name: "ip3"
  type: "InnerProduct"
  bottom: "ip2"
  top: "ip3"
  param {
    lr_mult: 1
  }
  param {
    lr_mult: 2
  }
  inner_product_param {
    num_output: 10
    weight_filler {
      type: "xavier"
    }
    bias_filler {
      type: "constant"
    }
  }
}
layer {
  name: "relu3"
  type: "ReLU"
  bottom: "ip3"
  top: "ip3"
}
layer {
  name: "loss"
  type: "SoftmaxWithLoss"
  bottom: "ip3"
  bottom: "label"
  top: "loss"
}
I0428 20:16:55.657855   757 layer_factory.hpp:77] Creating layer mnist
I0428 20:16:55.657989   757 db_lmdb.cpp:35] Opened lmdb examples/mnist/mnist_train_lmdb
I0428 20:16:55.658026   757 net.cpp:86] Creating Layer mnist
I0428 20:16:55.658046   757 net.cpp:382] mnist -> data
I0428 20:16:55.658078   757 net.cpp:382] mnist -> label
I0428 20:16:55.659626   757 data_layer.cpp:45] output data size: 64,1,28,28
I0428 20:16:55.662366   757 net.cpp:124] Setting up mnist
I0428 20:16:55.662386   757 net.cpp:131] Top shape: 64 1 28 28 (50176)
I0428 20:16:55.662394   757 net.cpp:131] Top shape: 64 (64)
I0428 20:16:55.662396   757 net.cpp:139] Memory required for data: 200960
I0428 20:16:55.662403   757 layer_factory.hpp:77] Creating layer conv0
I0428 20:16:55.662420   757 net.cpp:86] Creating Layer conv0
I0428 20:16:55.662442   757 net.cpp:408] conv0 <- data
I0428 20:16:55.662464   757 net.cpp:382] conv0 -> conv0
I0428 20:16:55.948011   757 net.cpp:124] Setting up conv0
I0428 20:16:55.948038   757 net.cpp:131] Top shape: 64 50 24 24 (1843200)
I0428 20:16:55.948042   757 net.cpp:139] Memory required for data: 7573760
I0428 20:16:55.948057   757 layer_factory.hpp:77] Creating layer pool0
I0428 20:16:55.948070   757 net.cpp:86] Creating Layer pool0
I0428 20:16:55.948074   757 net.cpp:408] pool0 <- conv0
I0428 20:16:55.948079   757 net.cpp:382] pool0 -> pool0
I0428 20:16:55.948137   757 net.cpp:124] Setting up pool0
I0428 20:16:55.948148   757 net.cpp:131] Top shape: 64 50 12 12 (460800)
I0428 20:16:55.948153   757 net.cpp:139] Memory required for data: 9416960
I0428 20:16:55.948158   757 layer_factory.hpp:77] Creating layer conv1
I0428 20:16:55.948173   757 net.cpp:86] Creating Layer conv1
I0428 20:16:55.948179   757 net.cpp:408] conv1 <- pool0
I0428 20:16:55.948186   757 net.cpp:382] conv1 -> conv1
I0428 20:16:55.951273   757 net.cpp:124] Setting up conv1
I0428 20:16:55.951288   757 net.cpp:131] Top shape: 64 5 8 8 (20480)
I0428 20:16:55.951292   757 net.cpp:139] Memory required for data: 9498880
I0428 20:16:55.951300   757 layer_factory.hpp:77] Creating layer pool1
I0428 20:16:55.951308   757 net.cpp:86] Creating Layer pool1
I0428 20:16:55.951311   757 net.cpp:408] pool1 <- conv1
I0428 20:16:55.951316   757 net.cpp:382] pool1 -> pool1
I0428 20:16:55.951361   757 net.cpp:124] Setting up pool1
I0428 20:16:55.951371   757 net.cpp:131] Top shape: 64 5 4 4 (5120)
I0428 20:16:55.951376   757 net.cpp:139] Memory required for data: 9519360
I0428 20:16:55.951382   757 layer_factory.hpp:77] Creating layer ip1
I0428 20:16:55.951393   757 net.cpp:86] Creating Layer ip1
I0428 20:16:55.951398   757 net.cpp:408] ip1 <- pool1
I0428 20:16:55.951406   757 net.cpp:382] ip1 -> ip1
I0428 20:16:55.951581   757 net.cpp:124] Setting up ip1
I0428 20:16:55.951594   757 net.cpp:131] Top shape: 64 50 (3200)
I0428 20:16:55.951599   757 net.cpp:139] Memory required for data: 9532160
I0428 20:16:55.951611   757 layer_factory.hpp:77] Creating layer relu1
I0428 20:16:55.951619   757 net.cpp:86] Creating Layer relu1
I0428 20:16:55.951625   757 net.cpp:408] relu1 <- ip1
I0428 20:16:55.951632   757 net.cpp:369] relu1 -> ip1 (in-place)
I0428 20:16:55.951859   757 net.cpp:124] Setting up relu1
I0428 20:16:55.951872   757 net.cpp:131] Top shape: 64 50 (3200)
I0428 20:16:55.951879   757 net.cpp:139] Memory required for data: 9544960
I0428 20:16:55.951884   757 layer_factory.hpp:77] Creating layer ip2
I0428 20:16:55.951892   757 net.cpp:86] Creating Layer ip2
I0428 20:16:55.951898   757 net.cpp:408] ip2 <- ip1
I0428 20:16:55.951906   757 net.cpp:382] ip2 -> ip2
I0428 20:16:55.952051   757 net.cpp:124] Setting up ip2
I0428 20:16:55.952065   757 net.cpp:131] Top shape: 64 25 (1600)
I0428 20:16:55.952071   757 net.cpp:139] Memory required for data: 9551360
I0428 20:16:55.952080   757 layer_factory.hpp:77] Creating layer relu2
I0428 20:16:55.952090   757 net.cpp:86] Creating Layer relu2
I0428 20:16:55.952095   757 net.cpp:408] relu2 <- ip2
I0428 20:16:55.952103   757 net.cpp:369] relu2 -> ip2 (in-place)
I0428 20:16:55.953126   757 net.cpp:124] Setting up relu2
I0428 20:16:55.953145   757 net.cpp:131] Top shape: 64 25 (1600)
I0428 20:16:55.953150   757 net.cpp:139] Memory required for data: 9557760
I0428 20:16:55.953156   757 layer_factory.hpp:77] Creating layer ip3
I0428 20:16:55.953167   757 net.cpp:86] Creating Layer ip3
I0428 20:16:55.953173   757 net.cpp:408] ip3 <- ip2
I0428 20:16:55.953182   757 net.cpp:382] ip3 -> ip3
I0428 20:16:55.953320   757 net.cpp:124] Setting up ip3
I0428 20:16:55.953333   757 net.cpp:131] Top shape: 64 10 (640)
I0428 20:16:55.953339   757 net.cpp:139] Memory required for data: 9560320
I0428 20:16:55.953351   757 layer_factory.hpp:77] Creating layer relu3
I0428 20:16:55.953359   757 net.cpp:86] Creating Layer relu3
I0428 20:16:55.953366   757 net.cpp:408] relu3 <- ip3
I0428 20:16:55.953372   757 net.cpp:369] relu3 -> ip3 (in-place)
I0428 20:16:55.953606   757 net.cpp:124] Setting up relu3
I0428 20:16:55.953620   757 net.cpp:131] Top shape: 64 10 (640)
I0428 20:16:55.953626   757 net.cpp:139] Memory required for data: 9562880
I0428 20:16:55.953632   757 layer_factory.hpp:77] Creating layer loss
I0428 20:16:55.953642   757 net.cpp:86] Creating Layer loss
I0428 20:16:55.953647   757 net.cpp:408] loss <- ip3
I0428 20:16:55.953654   757 net.cpp:408] loss <- label
I0428 20:16:55.953662   757 net.cpp:382] loss -> loss
I0428 20:16:55.953685   757 layer_factory.hpp:77] Creating layer loss
…
I0428 20:16:55.954672   757 solver.cpp:173] Creating test net (#0) specified by net file: ECE595/mnist/train_test/var_everything2/lenet_train_test1282.prototxt
I0428 20:16:55.954713   757 net.cpp:296] The NetState phase (1) differed from the phase (0) specified by a rule in layer mnist
I0428 20:16:55.954860   757 net.cpp:53] Initializing net from parameters: 
name: "LeNet"
state {
  phase: TEST
}
layer {
  name: "mnist"
  type: "Data"
  top: "data"
  top: "label"
  include {
    phase: TEST
  }
  transform_param {
    scale: 0.00390625
  }
  data_param {
    source: "examples/mnist/mnist_test_lmdb"
    batch_size: 100
    backend: LMDB
  }
}
layer {
  name: "conv0"
  type: "Convolution"
  bottom: "data"
  top: "conv0"
  param {
    lr_mult: 1
  }
  param {
    lr_mult: 2
  }
  convolution_param {
    num_output: 50
    kernel_size: 5
    stride: 1
    weight_filler {
      type: "xavier"
    }
    bias_filler {
      type: "constant"
    }
  }
}
layer {
  name: "pool0"
  type: "Pooling"
  bottom: "conv0"
  top: "pool0"
  pooling_param {
    pool: MAX
    kernel_size: 2
    stride: 2
  }
}
layer {
  name: "conv1"
  type: "Convolution"
  bottom: "pool0"
  top: "conv1"
  param {
    lr_mult: 1
  }
  param {
    lr_mult: 2
  }
  convolution_param {
    num_output: 5
    kernel_size: 5
    stride: 1
    weight_filler {
      type: "xavier"
    }
    bias_filler {
      type: "constant"
    }
  }
}
layer {
  name: "pool1"
  type: "Pooling"
  bottom: "conv1"
  top: "pool1"
  pooling_param {
    pool: MAX
    kernel_size: 2
    stride: 2
  }
}
layer {
  name: "ip1"
  type: "InnerProduct"
  bottom: "pool1"
  top: "ip1"
  param {
    lr_mult: 1
  }
  param {
    lr_mult: 2
  }
  inner_product_param {
    num_output: 50
    weight_filler {
      type: "xavier"
    }
    bias_filler {
      type: "constant"
    }
  }
}
layer {
  name: "relu1"
  type: "ReLU"
  bottom: "ip1"
  top: "ip1"
}
layer {
  name: "ip2"
  type: "InnerProduct"
  bottom: "ip1"
  top: "ip2"
  param {
    lr_mult: 1
  }
  param {
    lr_mult: 2
  }
  inner_product_param {
    num_output: 25
    weight_filler {
      type: "xavier"
    }
    bias_filler {
      type: "constant"
    }
  }
}
layer {
  name: "relu2"
  type: "ReLU"
  bottom: "ip2"
  top: "ip2"
}
layer {
  name: "ip3"
  type: "InnerProduct"
  bottom: "ip2"
  top: "ip3"
  param {
    lr_mult: 1
  }
  param {
    lr_mult: 2
  }
  inner_product_param {
    num_output: 10
    weight_filler {
      type: "xavier"
    }
    bias_filler {
      type: "constant"
    }
  }
}
layer {
  name: "relu3"
  type: "ReLU"
  bottom: "ip3"
  top: "ip3"
}
layer {
  name: "accuracy"
  type: "Accuracy"
  bottom: "ip3"
  bottom: "label"
  top: "accuracy"
  include {
    phase: TEST
  }
}
layer {
  name: "loss"
  type: "SoftmaxWithLoss"
  bottom: "ip3"
  bottom: "label"
  top: "loss"
}
I0428 20:16:55.954983   757 layer_factory.hpp:77] Creating layer mnist
I0428 20:16:55.955040   757 db_lmdb.cpp:35] Opened lmdb examples/mnist/mnist_test_lmdb
I0428 20:16:55.955057   757 net.cpp:86] Creating Layer mnist
I0428 20:16:55.955068   757 net.cpp:382] mnist -> data
I0428 20:16:55.955080   757 net.cpp:382] mnist -> label
I0428 20:16:55.955220   757 data_layer.cpp:45] output data size: 100,1,28,28
I0428 20:16:55.957604   757 net.cpp:124] Setting up mnist
I0428 20:16:55.957619   757 net.cpp:131] Top shape: 100 1 28 28 (78400)
I0428 20:16:55.957624   757 net.cpp:131] Top shape: 100 (100)
I0428 20:16:55.957628   757 net.cpp:139] Memory required for data: 314000
I0428 20:16:55.957630   757 layer_factory.hpp:77] Creating layer label_mnist_1_split
I0428 20:16:55.957640   757 net.cpp:86] Creating Layer label_mnist_1_split
I0428 20:16:55.957643   757 net.cpp:408] label_mnist_1_split <- label
I0428 20:16:55.957660   757 net.cpp:382] label_mnist_1_split -> label_mnist_1_split_0
I0428 20:16:55.957669   757 net.cpp:382] label_mnist_1_split -> label_mnist_1_split_1
I0428 20:16:55.957728   757 net.cpp:124] Setting up label_mnist_1_split
I0428 20:16:55.957751   757 net.cpp:131] Top shape: 100 (100)
I0428 20:16:55.957761   757 net.cpp:131] Top shape: 100 (100)
I0428 20:16:55.957765   757 net.cpp:139] Memory required for data: 314800
I0428 20:16:55.957770   757 layer_factory.hpp:77] Creating layer conv0
I0428 20:16:55.957783   757 net.cpp:86] Creating Layer conv0
I0428 20:16:55.957788   757 net.cpp:408] conv0 <- data
I0428 20:16:55.957798   757 net.cpp:382] conv0 -> conv0
I0428 20:16:55.959741   757 net.cpp:124] Setting up conv0
I0428 20:16:55.959755   757 net.cpp:131] Top shape: 100 50 24 24 (2880000)
I0428 20:16:55.959759   757 net.cpp:139] Memory required for data: 11834800
I0428 20:16:55.959769   757 layer_factory.hpp:77] Creating layer pool0
I0428 20:16:55.959774   757 net.cpp:86] Creating Layer pool0
I0428 20:16:55.959779   757 net.cpp:408] pool0 <- conv0
I0428 20:16:55.959784   757 net.cpp:382] pool0 -> pool0
I0428 20:16:55.959889   757 net.cpp:124] Setting up pool0
I0428 20:16:55.959903   757 net.cpp:131] Top shape: 100 50 12 12 (720000)
I0428 20:16:55.959908   757 net.cpp:139] Memory required for data: 14714800
I0428 20:16:55.959915   757 layer_factory.hpp:77] Creating layer conv1
I0428 20:16:55.959930   757 net.cpp:86] Creating Layer conv1
I0428 20:16:55.959935   757 net.cpp:408] conv1 <- pool0
I0428 20:16:55.959944   757 net.cpp:382] conv1 -> conv1
I0428 20:16:55.961959   757 net.cpp:124] Setting up conv1
I0428 20:16:55.961989   757 net.cpp:131] Top shape: 100 5 8 8 (32000)
I0428 20:16:55.961992   757 net.cpp:139] Memory required for data: 14842800
I0428 20:16:55.962003   757 layer_factory.hpp:77] Creating layer pool1
I0428 20:16:55.962021   757 net.cpp:86] Creating Layer pool1
I0428 20:16:55.962025   757 net.cpp:408] pool1 <- conv1
I0428 20:16:55.962030   757 net.cpp:382] pool1 -> pool1
I0428 20:16:55.962083   757 net.cpp:124] Setting up pool1
I0428 20:16:55.962093   757 net.cpp:131] Top shape: 100 5 4 4 (8000)
I0428 20:16:55.962098   757 net.cpp:139] Memory required for data: 14874800
I0428 20:16:55.962105   757 layer_factory.hpp:77] Creating layer ip1
I0428 20:16:55.962116   757 net.cpp:86] Creating Layer ip1
I0428 20:16:55.962121   757 net.cpp:408] ip1 <- pool1
I0428 20:16:55.962131   757 net.cpp:382] ip1 -> ip1
I0428 20:16:55.962312   757 net.cpp:124] Setting up ip1
I0428 20:16:55.962326   757 net.cpp:131] Top shape: 100 50 (5000)
I0428 20:16:55.962343   757 net.cpp:139] Memory required for data: 14894800
I0428 20:16:55.962355   757 layer_factory.hpp:77] Creating layer relu1
I0428 20:16:55.962365   757 net.cpp:86] Creating Layer relu1
I0428 20:16:55.962371   757 net.cpp:408] relu1 <- ip1
I0428 20:16:55.962378   757 net.cpp:369] relu1 -> ip1 (in-place)
I0428 20:16:55.962671   757 net.cpp:124] Setting up relu1
I0428 20:16:55.962698   757 net.cpp:131] Top shape: 100 50 (5000)
I0428 20:16:55.962718   757 net.cpp:139] Memory required for data: 14914800
I0428 20:16:55.962723   757 layer_factory.hpp:77] Creating layer ip2
I0428 20:16:55.962750   757 net.cpp:86] Creating Layer ip2
I0428 20:16:55.962755   757 net.cpp:408] ip2 <- ip1
I0428 20:16:55.962764   757 net.cpp:382] ip2 -> ip2
I0428 20:16:55.962973   757 net.cpp:124] Setting up ip2
I0428 20:16:55.962990   757 net.cpp:131] Top shape: 100 25 (2500)
I0428 20:16:55.962996   757 net.cpp:139] Memory required for data: 14924800
I0428 20:16:55.963006   757 layer_factory.hpp:77] Creating layer relu2
I0428 20:16:55.963016   757 net.cpp:86] Creating Layer relu2
I0428 20:16:55.963022   757 net.cpp:408] relu2 <- ip2
I0428 20:16:55.963030   757 net.cpp:369] relu2 -> ip2 (in-place)
I0428 20:16:55.963281   757 net.cpp:124] Setting up relu2
I0428 20:16:55.963294   757 net.cpp:131] Top shape: 100 25 (2500)
I0428 20:16:55.963300   757 net.cpp:139] Memory required for data: 14934800
I0428 20:16:55.963305   757 layer_factory.hpp:77] Creating layer ip3
I0428 20:16:55.963315   757 net.cpp:86] Creating Layer ip3
I0428 20:16:55.963322   757 net.cpp:408] ip3 <- ip2
I0428 20:16:55.963331   757 net.cpp:382] ip3 -> ip3
I0428 20:16:55.963487   757 net.cpp:124] Setting up ip3
I0428 20:16:55.963497   757 net.cpp:131] Top shape: 100 10 (1000)
I0428 20:16:55.963502   757 net.cpp:139] Memory required for data: 14938800
I0428 20:16:55.963515   757 layer_factory.hpp:77] Creating layer relu3
I0428 20:16:55.963521   757 net.cpp:86] Creating Layer relu3
I0428 20:16:55.963526   757 net.cpp:408] relu3 <- ip3
I0428 20:16:55.963546   757 net.cpp:369] relu3 -> ip3 (in-place)
I0428 20:16:55.964727   757 net.cpp:124] Setting up relu3
I0428 20:16:55.964756   757 net.cpp:131] Top shape: 100 10 (1000)
I0428 20:16:55.964761   757 net.cpp:139] Memory required for data: 14942800
I0428 20:16:55.964767   757 layer_factory.hpp:77] Creating layer ip3_relu3_0_split
I0428 20:16:55.964776   757 net.cpp:86] Creating Layer ip3_relu3_0_split
I0428 20:16:55.964782   757 net.cpp:408] ip3_relu3_0_split <- ip3
I0428 20:16:55.964792   757 net.cpp:382] ip3_relu3_0_split -> ip3_relu3_0_split_0
I0428 20:16:55.964802   757 net.cpp:382] ip3_relu3_0_split -> ip3_relu3_0_split_1
I0428 20:16:55.964906   757 net.cpp:124] Setting up ip3_relu3_0_split
I0428 20:16:55.964918   757 net.cpp:131] Top shape: 100 10 (1000)
I0428 20:16:55.964926   757 net.cpp:131] Top shape: 100 10 (1000)
I0428 20:16:55.964931   757 net.cpp:139] Memory required for data: 14950800
I0428 20:16:55.964936   757 layer_factory.hpp:77] Creating layer accuracy
I0428 20:16:55.964946   757 net.cpp:86] Creating Layer accuracy
I0428 20:16:55.964953   757 net.cpp:408] accuracy <- ip3_relu3_0_split_0
I0428 20:16:55.964960   757 net.cpp:408] accuracy <- label_mnist_1_split_0
I0428 20:16:55.964968   757 net.cpp:382] accuracy -> accuracy
…
