…
I0428 19:59:33.962337 29268 net.cpp:296] The NetState phase (0) differed from the phase (1) specified by a rule in layer mnist
I0428 19:59:33.962363 29268 net.cpp:296] The NetState phase (0) differed from the phase (1) specified by a rule in layer accuracy
I0428 19:59:33.962501 29268 net.cpp:53] Initializing net from parameters: 
name: "LeNet"
state {
  phase: TRAIN
  level: 0
  stage: ""
}
layer {
  name: "mnist"
  type: "Data"
  top: "data"
  top: "label"
  include {
    phase: TRAIN
  }
  transform_param {
    scale: 0.00390625
  }
  data_param {
    source: "examples/mnist/mnist_train_lmdb"
    batch_size: 64
    backend: LMDB
  }
}
layer {
  name: "conv0"
  type: "Convolution"
  bottom: "data"
  top: "conv0"
  param {
    lr_mult: 1
  }
  param {
    lr_mult: 2
  }
  convolution_param {
    num_output: 10
    kernel_size: 5
    stride: 1
    weight_filler {
      type: "xavier"
    }
    bias_filler {
      type: "constant"
    }
  }
}
layer {
  name: "pool0"
  type: "Pooling"
  bottom: "conv0"
  top: "pool0"
  pooling_param {
    pool: MAX
    kernel_size: 2
    stride: 2
  }
}
layer {
  name: "conv1"
  type: "Convolution"
  bottom: "pool0"
  top: "conv1"
  param {
    lr_mult: 1
  }
  param {
    lr_mult: 2
  }
  convolution_param {
    num_output: 10
    kernel_size: 5
    stride: 1
    weight_filler {
      type: "xavier"
    }
    bias_filler {
      type: "constant"
    }
  }
}
layer {
  name: "pool1"
  type: "Pooling"
  bottom: "conv1"
  top: "pool1"
  pooling_param {
    pool: MAX
    kernel_size: 2
    stride: 2
  }
}
layer {
  name: "ip1"
  type: "InnerProduct"
  bottom: "pool1"
  top: "ip1"
  param {
    lr_mult: 1
  }
  param {
    lr_mult: 2
  }
  inner_product_param {
    num_output: 50
    weight_filler {
      type: "xavier"
    }
    bias_filler {
      type: "constant"
    }
  }
}
layer {
  name: "relu1"
  type: "ReLU"
  bottom: "ip1"
  top: "ip1"
}
layer {
  name: "ip2"
  type: "InnerProduct"
  bottom: "ip1"
  top: "ip2"
  param {
    lr_mult: 1
  }
  param {
    lr_mult: 2
  }
  inner_product_param {
    num_output: 10
    weight_filler {
      type: "xavier"
    }
    bias_filler {
      type: "constant"
    }
  }
}
layer {
  name: "relu2"
  type: "ReLU"
  bottom: "ip2"
  top: "ip2"
}
layer {
  name: "ip3"
  type: "InnerProduct"
  bottom: "ip2"
  top: "ip3"
  param {
    lr_mult: 1
  }
  param {
    lr_mult: 2
  }
  inner_product_param {
    num_output: 10
    weight_filler {
      type: "xavier"
    }
    bias_filler {
      type: "constant"
    }
  }
}
layer {
  name: "relu3"
  type: "ReLU"
  bottom: "ip3"
  top: "ip3"
}
layer {
  name: "loss"
  type: "SoftmaxWithLoss"
  bottom: "ip3"
  bottom: "label"
  top: "loss"
}
I0428 19:59:33.962601 29268 layer_factory.hpp:77] Creating layer mnist
I0428 19:59:33.962736 29268 db_lmdb.cpp:35] Opened lmdb examples/mnist/mnist_train_lmdb
I0428 19:59:33.962766 29268 net.cpp:86] Creating Layer mnist
I0428 19:59:33.962777 29268 net.cpp:382] mnist -> data
I0428 19:59:33.962807 29268 net.cpp:382] mnist -> label
I0428 19:59:33.964262 29268 data_layer.cpp:45] output data size: 64,1,28,28
I0428 19:59:33.967547 29268 net.cpp:124] Setting up mnist
I0428 19:59:33.967571 29268 net.cpp:131] Top shape: 64 1 28 28 (50176)
I0428 19:59:33.967581 29268 net.cpp:131] Top shape: 64 (64)
I0428 19:59:33.967587 29268 net.cpp:139] Memory required for data: 200960
I0428 19:59:33.967597 29268 layer_factory.hpp:77] Creating layer conv0
I0428 19:59:33.967618 29268 net.cpp:86] Creating Layer conv0
I0428 19:59:33.967658 29268 net.cpp:408] conv0 <- data
I0428 19:59:33.967674 29268 net.cpp:382] conv0 -> conv0
I0428 19:59:34.267860 29268 net.cpp:124] Setting up conv0
I0428 19:59:34.267892 29268 net.cpp:131] Top shape: 64 10 24 24 (368640)
I0428 19:59:34.267897 29268 net.cpp:139] Memory required for data: 1675520
I0428 19:59:34.267915 29268 layer_factory.hpp:77] Creating layer pool0
I0428 19:59:34.267930 29268 net.cpp:86] Creating Layer pool0
I0428 19:59:34.267935 29268 net.cpp:408] pool0 <- conv0
I0428 19:59:34.267941 29268 net.cpp:382] pool0 -> pool0
I0428 19:59:34.267997 29268 net.cpp:124] Setting up pool0
I0428 19:59:34.268007 29268 net.cpp:131] Top shape: 64 10 12 12 (92160)
I0428 19:59:34.268010 29268 net.cpp:139] Memory required for data: 2044160
I0428 19:59:34.268014 29268 layer_factory.hpp:77] Creating layer conv1
I0428 19:59:34.268026 29268 net.cpp:86] Creating Layer conv1
I0428 19:59:34.268033 29268 net.cpp:408] conv1 <- pool0
I0428 19:59:34.268038 29268 net.cpp:382] conv1 -> conv1
I0428 19:59:34.271190 29268 net.cpp:124] Setting up conv1
I0428 19:59:34.271209 29268 net.cpp:131] Top shape: 64 10 8 8 (40960)
I0428 19:59:34.271214 29268 net.cpp:139] Memory required for data: 2208000
I0428 19:59:34.271225 29268 layer_factory.hpp:77] Creating layer pool1
I0428 19:59:34.271236 29268 net.cpp:86] Creating Layer pool1
I0428 19:59:34.271241 29268 net.cpp:408] pool1 <- conv1
I0428 19:59:34.271248 29268 net.cpp:382] pool1 -> pool1
I0428 19:59:34.271293 29268 net.cpp:124] Setting up pool1
I0428 19:59:34.271301 29268 net.cpp:131] Top shape: 64 10 4 4 (10240)
I0428 19:59:34.271306 29268 net.cpp:139] Memory required for data: 2248960
I0428 19:59:34.271309 29268 layer_factory.hpp:77] Creating layer ip1
I0428 19:59:34.271317 29268 net.cpp:86] Creating Layer ip1
I0428 19:59:34.271320 29268 net.cpp:408] ip1 <- pool1
I0428 19:59:34.271327 29268 net.cpp:382] ip1 -> ip1
I0428 19:59:34.272469 29268 net.cpp:124] Setting up ip1
I0428 19:59:34.272485 29268 net.cpp:131] Top shape: 64 50 (3200)
I0428 19:59:34.272490 29268 net.cpp:139] Memory required for data: 2261760
I0428 19:59:34.272500 29268 layer_factory.hpp:77] Creating layer relu1
I0428 19:59:34.272507 29268 net.cpp:86] Creating Layer relu1
I0428 19:59:34.272511 29268 net.cpp:408] relu1 <- ip1
I0428 19:59:34.272517 29268 net.cpp:369] relu1 -> ip1 (in-place)
I0428 19:59:34.272719 29268 net.cpp:124] Setting up relu1
I0428 19:59:34.272730 29268 net.cpp:131] Top shape: 64 50 (3200)
I0428 19:59:34.272734 29268 net.cpp:139] Memory required for data: 2274560
I0428 19:59:34.272738 29268 layer_factory.hpp:77] Creating layer ip2
I0428 19:59:34.272747 29268 net.cpp:86] Creating Layer ip2
I0428 19:59:34.272750 29268 net.cpp:408] ip2 <- ip1
I0428 19:59:34.272756 29268 net.cpp:382] ip2 -> ip2
I0428 19:59:34.272884 29268 net.cpp:124] Setting up ip2
I0428 19:59:34.272894 29268 net.cpp:131] Top shape: 64 10 (640)
I0428 19:59:34.272899 29268 net.cpp:139] Memory required for data: 2277120
I0428 19:59:34.272907 29268 layer_factory.hpp:77] Creating layer relu2
I0428 19:59:34.272917 29268 net.cpp:86] Creating Layer relu2
I0428 19:59:34.272922 29268 net.cpp:408] relu2 <- ip2
I0428 19:59:34.272927 29268 net.cpp:369] relu2 -> ip2 (in-place)
I0428 19:59:34.273779 29268 net.cpp:124] Setting up relu2
I0428 19:59:34.273794 29268 net.cpp:131] Top shape: 64 10 (640)
I0428 19:59:34.273798 29268 net.cpp:139] Memory required for data: 2279680
I0428 19:59:34.273803 29268 layer_factory.hpp:77] Creating layer ip3
I0428 19:59:34.273811 29268 net.cpp:86] Creating Layer ip3
I0428 19:59:34.273815 29268 net.cpp:408] ip3 <- ip2
I0428 19:59:34.273821 29268 net.cpp:382] ip3 -> ip3
I0428 19:59:34.273939 29268 net.cpp:124] Setting up ip3
I0428 19:59:34.273948 29268 net.cpp:131] Top shape: 64 10 (640)
I0428 19:59:34.273952 29268 net.cpp:139] Memory required for data: 2282240
I0428 19:59:34.273962 29268 layer_factory.hpp:77] Creating layer relu3
I0428 19:59:34.273969 29268 net.cpp:86] Creating Layer relu3
I0428 19:59:34.273973 29268 net.cpp:408] relu3 <- ip3
I0428 19:59:34.273978 29268 net.cpp:369] relu3 -> ip3 (in-place)
I0428 19:59:34.274178 29268 net.cpp:124] Setting up relu3
I0428 19:59:34.274188 29268 net.cpp:131] Top shape: 64 10 (640)
I0428 19:59:34.274193 29268 net.cpp:139] Memory required for data: 2284800
I0428 19:59:34.274196 29268 layer_factory.hpp:77] Creating layer loss
I0428 19:59:34.274204 29268 net.cpp:86] Creating Layer loss
I0428 19:59:34.274209 29268 net.cpp:408] loss <- ip3
I0428 19:59:34.274214 29268 net.cpp:408] loss <- label
I0428 19:59:34.274220 29268 net.cpp:382] loss -> loss
I0428 19:59:34.274242 29268 layer_factory.hpp:77] Creating layer loss
…
I0428 19:59:34.274986 29268 solver.cpp:173] Creating test net (#0) specified by net file: ECE595/mnist/train_test/var_everything2/lenet_train_test851.prototxt
I0428 19:59:34.275018 29268 net.cpp:296] The NetState phase (1) differed from the phase (0) specified by a rule in layer mnist
I0428 19:59:34.275130 29268 net.cpp:53] Initializing net from parameters: 
name: "LeNet"
state {
  phase: TEST
}
layer {
  name: "mnist"
  type: "Data"
  top: "data"
  top: "label"
  include {
    phase: TEST
  }
  transform_param {
    scale: 0.00390625
  }
  data_param {
    source: "examples/mnist/mnist_test_lmdb"
    batch_size: 100
    backend: LMDB
  }
}
layer {
  name: "conv0"
  type: "Convolution"
  bottom: "data"
  top: "conv0"
  param {
    lr_mult: 1
  }
  param {
    lr_mult: 2
  }
  convolution_param {
    num_output: 10
    kernel_size: 5
    stride: 1
    weight_filler {
      type: "xavier"
    }
    bias_filler {
      type: "constant"
    }
  }
}
layer {
  name: "pool0"
  type: "Pooling"
  bottom: "conv0"
  top: "pool0"
  pooling_param {
    pool: MAX
    kernel_size: 2
    stride: 2
  }
}
layer {
  name: "conv1"
  type: "Convolution"
  bottom: "pool0"
  top: "conv1"
  param {
    lr_mult: 1
  }
  param {
    lr_mult: 2
  }
  convolution_param {
    num_output: 10
    kernel_size: 5
    stride: 1
    weight_filler {
      type: "xavier"
    }
    bias_filler {
      type: "constant"
    }
  }
}
layer {
  name: "pool1"
  type: "Pooling"
  bottom: "conv1"
  top: "pool1"
  pooling_param {
    pool: MAX
    kernel_size: 2
    stride: 2
  }
}
layer {
  name: "ip1"
  type: "InnerProduct"
  bottom: "pool1"
  top: "ip1"
  param {
    lr_mult: 1
  }
  param {
    lr_mult: 2
  }
  inner_product_param {
    num_output: 50
    weight_filler {
      type: "xavier"
    }
    bias_filler {
      type: "constant"
    }
  }
}
layer {
  name: "relu1"
  type: "ReLU"
  bottom: "ip1"
  top: "ip1"
}
layer {
  name: "ip2"
  type: "InnerProduct"
  bottom: "ip1"
  top: "ip2"
  param {
    lr_mult: 1
  }
  param {
    lr_mult: 2
  }
  inner_product_param {
    num_output: 10
    weight_filler {
      type: "xavier"
    }
    bias_filler {
      type: "constant"
    }
  }
}
layer {
  name: "relu2"
  type: "ReLU"
  bottom: "ip2"
  top: "ip2"
}
layer {
  name: "ip3"
  type: "InnerProduct"
  bottom: "ip2"
  top: "ip3"
  param {
    lr_mult: 1
  }
  param {
    lr_mult: 2
  }
  inner_product_param {
    num_output: 10
    weight_filler {
      type: "xavier"
    }
    bias_filler {
      type: "constant"
    }
  }
}
layer {
  name: "relu3"
  type: "ReLU"
  bottom: "ip3"
  top: "ip3"
}
layer {
  name: "accuracy"
  type: "Accuracy"
  bottom: "ip3"
  bottom: "label"
  top: "accuracy"
  include {
    phase: TEST
  }
}
layer {
  name: "loss"
  type: "SoftmaxWithLoss"
  bottom: "ip3"
  bottom: "label"
  top: "loss"
}
I0428 19:59:34.275224 29268 layer_factory.hpp:77] Creating layer mnist
I0428 19:59:34.275276 29268 db_lmdb.cpp:35] Opened lmdb examples/mnist/mnist_test_lmdb
I0428 19:59:34.275290 29268 net.cpp:86] Creating Layer mnist
I0428 19:59:34.275296 29268 net.cpp:382] mnist -> data
I0428 19:59:34.275305 29268 net.cpp:382] mnist -> label
I0428 19:59:34.275406 29268 data_layer.cpp:45] output data size: 100,1,28,28
I0428 19:59:34.277603 29268 net.cpp:124] Setting up mnist
I0428 19:59:34.277619 29268 net.cpp:131] Top shape: 100 1 28 28 (78400)
I0428 19:59:34.277626 29268 net.cpp:131] Top shape: 100 (100)
I0428 19:59:34.277629 29268 net.cpp:139] Memory required for data: 314000
I0428 19:59:34.277633 29268 layer_factory.hpp:77] Creating layer label_mnist_1_split
I0428 19:59:34.277671 29268 net.cpp:86] Creating Layer label_mnist_1_split
I0428 19:59:34.277678 29268 net.cpp:408] label_mnist_1_split <- label
I0428 19:59:34.277688 29268 net.cpp:382] label_mnist_1_split -> label_mnist_1_split_0
I0428 19:59:34.277696 29268 net.cpp:382] label_mnist_1_split -> label_mnist_1_split_1
I0428 19:59:34.277750 29268 net.cpp:124] Setting up label_mnist_1_split
I0428 19:59:34.277758 29268 net.cpp:131] Top shape: 100 (100)
I0428 19:59:34.277763 29268 net.cpp:131] Top shape: 100 (100)
I0428 19:59:34.277767 29268 net.cpp:139] Memory required for data: 314800
I0428 19:59:34.277770 29268 layer_factory.hpp:77] Creating layer conv0
I0428 19:59:34.277781 29268 net.cpp:86] Creating Layer conv0
I0428 19:59:34.277786 29268 net.cpp:408] conv0 <- data
I0428 19:59:34.277796 29268 net.cpp:382] conv0 -> conv0
I0428 19:59:34.279772 29268 net.cpp:124] Setting up conv0
I0428 19:59:34.279791 29268 net.cpp:131] Top shape: 100 10 24 24 (576000)
I0428 19:59:34.279796 29268 net.cpp:139] Memory required for data: 2618800
I0428 19:59:34.279808 29268 layer_factory.hpp:77] Creating layer pool0
I0428 19:59:34.279815 29268 net.cpp:86] Creating Layer pool0
I0428 19:59:34.279819 29268 net.cpp:408] pool0 <- conv0
I0428 19:59:34.279826 29268 net.cpp:382] pool0 -> pool0
I0428 19:59:34.279871 29268 net.cpp:124] Setting up pool0
I0428 19:59:34.279881 29268 net.cpp:131] Top shape: 100 10 12 12 (144000)
I0428 19:59:34.279883 29268 net.cpp:139] Memory required for data: 3194800
I0428 19:59:34.279887 29268 layer_factory.hpp:77] Creating layer conv1
I0428 19:59:34.279899 29268 net.cpp:86] Creating Layer conv1
I0428 19:59:34.279906 29268 net.cpp:408] conv1 <- pool0
I0428 19:59:34.279911 29268 net.cpp:382] conv1 -> conv1
I0428 19:59:34.282323 29268 net.cpp:124] Setting up conv1
I0428 19:59:34.282341 29268 net.cpp:131] Top shape: 100 10 8 8 (64000)
I0428 19:59:34.282344 29268 net.cpp:139] Memory required for data: 3450800
I0428 19:59:34.282356 29268 layer_factory.hpp:77] Creating layer pool1
I0428 19:59:34.282364 29268 net.cpp:86] Creating Layer pool1
I0428 19:59:34.282373 29268 net.cpp:408] pool1 <- conv1
I0428 19:59:34.282382 29268 net.cpp:382] pool1 -> pool1
I0428 19:59:34.282475 29268 net.cpp:124] Setting up pool1
I0428 19:59:34.282485 29268 net.cpp:131] Top shape: 100 10 4 4 (16000)
I0428 19:59:34.282490 29268 net.cpp:139] Memory required for data: 3514800
I0428 19:59:34.282492 29268 layer_factory.hpp:77] Creating layer ip1
I0428 19:59:34.282502 29268 net.cpp:86] Creating Layer ip1
I0428 19:59:34.282508 29268 net.cpp:408] ip1 <- pool1
I0428 19:59:34.282524 29268 net.cpp:382] ip1 -> ip1
I0428 19:59:34.282702 29268 net.cpp:124] Setting up ip1
I0428 19:59:34.282712 29268 net.cpp:131] Top shape: 100 50 (5000)
I0428 19:59:34.282729 29268 net.cpp:139] Memory required for data: 3534800
I0428 19:59:34.282739 29268 layer_factory.hpp:77] Creating layer relu1
I0428 19:59:34.282747 29268 net.cpp:86] Creating Layer relu1
I0428 19:59:34.282752 29268 net.cpp:408] relu1 <- ip1
I0428 19:59:34.282758 29268 net.cpp:369] relu1 -> ip1 (in-place)
I0428 19:59:34.282965 29268 net.cpp:124] Setting up relu1
I0428 19:59:34.282976 29268 net.cpp:131] Top shape: 100 50 (5000)
I0428 19:59:34.282981 29268 net.cpp:139] Memory required for data: 3554800
I0428 19:59:34.282985 29268 layer_factory.hpp:77] Creating layer ip2
I0428 19:59:34.282994 29268 net.cpp:86] Creating Layer ip2
I0428 19:59:34.282999 29268 net.cpp:408] ip2 <- ip1
I0428 19:59:34.283005 29268 net.cpp:382] ip2 -> ip2
I0428 19:59:34.283133 29268 net.cpp:124] Setting up ip2
I0428 19:59:34.283143 29268 net.cpp:131] Top shape: 100 10 (1000)
I0428 19:59:34.283146 29268 net.cpp:139] Memory required for data: 3558800
I0428 19:59:34.283152 29268 layer_factory.hpp:77] Creating layer relu2
I0428 19:59:34.283160 29268 net.cpp:86] Creating Layer relu2
I0428 19:59:34.283164 29268 net.cpp:408] relu2 <- ip2
I0428 19:59:34.283171 29268 net.cpp:369] relu2 -> ip2 (in-place)
I0428 19:59:34.283422 29268 net.cpp:124] Setting up relu2
I0428 19:59:34.283433 29268 net.cpp:131] Top shape: 100 10 (1000)
I0428 19:59:34.283437 29268 net.cpp:139] Memory required for data: 3562800
I0428 19:59:34.283442 29268 layer_factory.hpp:77] Creating layer ip3
I0428 19:59:34.283449 29268 net.cpp:86] Creating Layer ip3
I0428 19:59:34.283454 29268 net.cpp:408] ip3 <- ip2
I0428 19:59:34.283460 29268 net.cpp:382] ip3 -> ip3
I0428 19:59:34.283591 29268 net.cpp:124] Setting up ip3
I0428 19:59:34.283601 29268 net.cpp:131] Top shape: 100 10 (1000)
I0428 19:59:34.283604 29268 net.cpp:139] Memory required for data: 3566800
I0428 19:59:34.283613 29268 layer_factory.hpp:77] Creating layer relu3
I0428 19:59:34.283622 29268 net.cpp:86] Creating Layer relu3
I0428 19:59:34.283628 29268 net.cpp:408] relu3 <- ip3
I0428 19:59:34.283633 29268 net.cpp:369] relu3 -> ip3 (in-place)
I0428 19:59:34.284561 29268 net.cpp:124] Setting up relu3
I0428 19:59:34.284577 29268 net.cpp:131] Top shape: 100 10 (1000)
I0428 19:59:34.284581 29268 net.cpp:139] Memory required for data: 3570800
I0428 19:59:34.284585 29268 layer_factory.hpp:77] Creating layer ip3_relu3_0_split
I0428 19:59:34.284592 29268 net.cpp:86] Creating Layer ip3_relu3_0_split
I0428 19:59:34.284596 29268 net.cpp:408] ip3_relu3_0_split <- ip3
I0428 19:59:34.284602 29268 net.cpp:382] ip3_relu3_0_split -> ip3_relu3_0_split_0
I0428 19:59:34.284610 29268 net.cpp:382] ip3_relu3_0_split -> ip3_relu3_0_split_1
I0428 19:59:34.284656 29268 net.cpp:124] Setting up ip3_relu3_0_split
I0428 19:59:34.284663 29268 net.cpp:131] Top shape: 100 10 (1000)
I0428 19:59:34.284667 29268 net.cpp:131] Top shape: 100 10 (1000)
I0428 19:59:34.284672 29268 net.cpp:139] Memory required for data: 3578800
I0428 19:59:34.284674 29268 layer_factory.hpp:77] Creating layer accuracy
I0428 19:59:34.284680 29268 net.cpp:86] Creating Layer accuracy
I0428 19:59:34.284685 29268 net.cpp:408] accuracy <- ip3_relu3_0_split_0
I0428 19:59:34.284690 29268 net.cpp:408] accuracy <- label_mnist_1_split_0
I0428 19:59:34.284698 29268 net.cpp:382] accuracy -> accuracy
…
