…
I0504 13:42:49.946528  1150 net.cpp:296] The NetState phase (0) differed from the phase (1) specified by a rule in layer cifar
I0504 13:42:49.946547  1150 net.cpp:296] The NetState phase (0) differed from the phase (1) specified by a rule in layer accuracy
I0504 13:42:49.946657  1150 net.cpp:53] Initializing net from parameters: 
name: "CIFAR"
state {
  phase: TRAIN
  level: 0
  stage: ""
}
layer {
  name: "cifar"
  type: "Data"
  top: "data"
  top: "label"
  include {
    phase: TRAIN
  }
  transform_param {
    mean_file: "examples/cifar10/mean.binaryproto"
  }
  data_param {
    source: "examples/cifar10/cifar10_train_lmdb"
    batch_size: 111
    backend: LMDB
  }
}
layer {
  name: "conv0"
  type: "Convolution"
  bottom: "data"
  top: "conv0"
  param {
    lr_mult: 1
  }
  param {
    lr_mult: 2
  }
  convolution_param {
    num_output: 24
    pad: 2
    kernel_size: 5
    stride: 1
    weight_filler {
      type: "gaussian"
      std: 0.01
    }
    bias_filler {
      type: "constant"
    }
  }
}
layer {
  name: "Sigmoid0"
  type: "Sigmoid"
  bottom: "conv0"
  top: "Sigmoid0"
}
layer {
  name: "pool0"
  type: "Pooling"
  bottom: "Sigmoid0"
  top: "pool0"
  pooling_param {
    pool: AVE
    kernel_size: 3
    stride: 2
  }
}
layer {
  name: "conv1"
  type: "Convolution"
  bottom: "pool0"
  top: "conv1"
  param {
    lr_mult: 1
  }
  param {
    lr_mult: 2
  }
  convolution_param {
    num_output: 216
    pad: 2
    kernel_size: 3
    stride: 1
    weight_filler {
      type: "gaussian"
      std: 0.01
    }
    bias_filler {
      type: "constant"
    }
  }
}
layer {
  name: "Sigmoid1"
  type: "Sigmoid"
  bottom: "conv1"
  top: "Sigmoid1"
}
layer {
  name: "pool1"
  type: "Pooling"
  bottom: "Sigmoid1"
  top: "pool1"
  pooling_param {
    pool: AVE
    kernel_size: 3
    stride: 2
  }
}
layer {
  name: "ip1"
  type: "InnerProduct"
  bottom: "pool1"
  top: "ip1"
  param {
    lr_mult: 1
  }
  param {
    lr_mult: 2
  }
  inner_product_param {
    num_output: 180
    weight_filler {
      type: "gaussian"
      std: 0.01
    }
    bias_filler {
      type: "constant"
    }
  }
}
layer {
  name: "relu1"
  type: "ReLU"
  bottom: "ip1"
  top: "ip1"
}
layer {
  name: "ip2"
  type: "InnerProduct"
  bottom: "ip1"
  top: "ip2"
  param {
    lr_mult: 1
  }
  param {
    lr_mult: 2
  }
  inner_product_param {
    num_output: 60
    weight_filler {
      type: "gaussian"
      std: 0.01
    }
    bias_filler {
      type: "constant"
    }
  }
}
layer {
  name: "relu2"
  type: "ReLU"
  bottom: "ip2"
  top: "ip2"
}
layer {
  name: "ip3"
  type: "InnerProduct"
  bottom: "ip2"
  top: "ip3"
  param {
    lr_mult: 1
  }
  param {
    lr_mult: 2
  }
  inner_product_param {
    num_output: 10
    weight_filler {
      type: "gaussian"
      std: 0.01
    }
    bias_filler {
      type: "constant"
    }
  }
}
layer {
  name: "loss"
  type: "SoftmaxWithLoss"
  bottom: "ip3"
  bottom: "label"
  top: "loss"
}
I0504 13:42:49.946740  1150 layer_factory.hpp:77] Creating layer cifar
I0504 13:42:49.946840  1150 db_lmdb.cpp:35] Opened lmdb examples/cifar10/cifar10_train_lmdb
I0504 13:42:49.946867  1150 net.cpp:86] Creating Layer cifar
I0504 13:42:49.946879  1150 net.cpp:382] cifar -> data
I0504 13:42:49.946902  1150 net.cpp:382] cifar -> label
I0504 13:42:49.946915  1150 data_transformer.cpp:25] Loading mean file from: examples/cifar10/mean.binaryproto
I0504 13:42:49.949095  1150 data_layer.cpp:45] output data size: 111,3,32,32
I0504 13:42:49.957211  1150 net.cpp:124] Setting up cifar
I0504 13:42:49.957231  1150 net.cpp:131] Top shape: 111 3 32 32 (340992)
I0504 13:42:49.957237  1150 net.cpp:131] Top shape: 111 (111)
I0504 13:42:49.957240  1150 net.cpp:139] Memory required for data: 1364412
I0504 13:42:49.957248  1150 layer_factory.hpp:77] Creating layer conv0
I0504 13:42:49.957268  1150 net.cpp:86] Creating Layer conv0
I0504 13:42:49.957274  1150 net.cpp:408] conv0 <- data
I0504 13:42:49.957288  1150 net.cpp:382] conv0 -> conv0
I0504 13:42:50.246145  1150 net.cpp:124] Setting up conv0
I0504 13:42:50.246175  1150 net.cpp:131] Top shape: 111 24 32 32 (2727936)
I0504 13:42:50.246179  1150 net.cpp:139] Memory required for data: 12276156
I0504 13:42:50.246196  1150 layer_factory.hpp:77] Creating layer Sigmoid0
I0504 13:42:50.246208  1150 net.cpp:86] Creating Layer Sigmoid0
I0504 13:42:50.246212  1150 net.cpp:408] Sigmoid0 <- conv0
I0504 13:42:50.246218  1150 net.cpp:382] Sigmoid0 -> Sigmoid0
I0504 13:42:50.246412  1150 net.cpp:124] Setting up Sigmoid0
I0504 13:42:50.246421  1150 net.cpp:131] Top shape: 111 24 32 32 (2727936)
I0504 13:42:50.246425  1150 net.cpp:139] Memory required for data: 23187900
I0504 13:42:50.246428  1150 layer_factory.hpp:77] Creating layer pool0
I0504 13:42:50.246436  1150 net.cpp:86] Creating Layer pool0
I0504 13:42:50.246440  1150 net.cpp:408] pool0 <- Sigmoid0
I0504 13:42:50.246445  1150 net.cpp:382] pool0 -> pool0
I0504 13:42:50.247251  1150 net.cpp:124] Setting up pool0
I0504 13:42:50.247267  1150 net.cpp:131] Top shape: 111 24 16 16 (681984)
I0504 13:42:50.247270  1150 net.cpp:139] Memory required for data: 25915836
I0504 13:42:50.247274  1150 layer_factory.hpp:77] Creating layer conv1
I0504 13:42:50.247288  1150 net.cpp:86] Creating Layer conv1
I0504 13:42:50.247292  1150 net.cpp:408] conv1 <- pool0
I0504 13:42:50.247298  1150 net.cpp:382] conv1 -> conv1
I0504 13:42:50.251587  1150 net.cpp:124] Setting up conv1
I0504 13:42:50.251603  1150 net.cpp:131] Top shape: 111 216 18 18 (7768224)
I0504 13:42:50.251608  1150 net.cpp:139] Memory required for data: 56988732
I0504 13:42:50.251619  1150 layer_factory.hpp:77] Creating layer Sigmoid1
I0504 13:42:50.251626  1150 net.cpp:86] Creating Layer Sigmoid1
I0504 13:42:50.251631  1150 net.cpp:408] Sigmoid1 <- conv1
I0504 13:42:50.251636  1150 net.cpp:382] Sigmoid1 -> Sigmoid1
I0504 13:42:50.251839  1150 net.cpp:124] Setting up Sigmoid1
I0504 13:42:50.251850  1150 net.cpp:131] Top shape: 111 216 18 18 (7768224)
I0504 13:42:50.251854  1150 net.cpp:139] Memory required for data: 88061628
I0504 13:42:50.251857  1150 layer_factory.hpp:77] Creating layer pool1
I0504 13:42:50.251863  1150 net.cpp:86] Creating Layer pool1
I0504 13:42:50.251876  1150 net.cpp:408] pool1 <- Sigmoid1
I0504 13:42:50.251883  1150 net.cpp:382] pool1 -> pool1
I0504 13:42:50.252075  1150 net.cpp:124] Setting up pool1
I0504 13:42:50.252084  1150 net.cpp:131] Top shape: 111 216 9 9 (1942056)
I0504 13:42:50.252089  1150 net.cpp:139] Memory required for data: 95829852
I0504 13:42:50.252091  1150 layer_factory.hpp:77] Creating layer ip1
I0504 13:42:50.252100  1150 net.cpp:86] Creating Layer ip1
I0504 13:42:50.252104  1150 net.cpp:408] ip1 <- pool1
I0504 13:42:50.252110  1150 net.cpp:382] ip1 -> ip1
I0504 13:42:50.340667  1150 net.cpp:124] Setting up ip1
I0504 13:42:50.340682  1150 net.cpp:131] Top shape: 111 180 (19980)
I0504 13:42:50.340684  1150 net.cpp:139] Memory required for data: 95909772
I0504 13:42:50.340692  1150 layer_factory.hpp:77] Creating layer relu1
I0504 13:42:50.340716  1150 net.cpp:86] Creating Layer relu1
I0504 13:42:50.340720  1150 net.cpp:408] relu1 <- ip1
I0504 13:42:50.340724  1150 net.cpp:369] relu1 -> ip1 (in-place)
I0504 13:42:50.340914  1150 net.cpp:124] Setting up relu1
I0504 13:42:50.340924  1150 net.cpp:131] Top shape: 111 180 (19980)
I0504 13:42:50.340927  1150 net.cpp:139] Memory required for data: 95989692
I0504 13:42:50.340930  1150 layer_factory.hpp:77] Creating layer ip2
I0504 13:42:50.340936  1150 net.cpp:86] Creating Layer ip2
I0504 13:42:50.340939  1150 net.cpp:408] ip2 <- ip1
I0504 13:42:50.340960  1150 net.cpp:382] ip2 -> ip2
I0504 13:42:50.342229  1150 net.cpp:124] Setting up ip2
I0504 13:42:50.342242  1150 net.cpp:131] Top shape: 111 60 (6660)
I0504 13:42:50.342245  1150 net.cpp:139] Memory required for data: 96016332
I0504 13:42:50.342250  1150 layer_factory.hpp:77] Creating layer relu2
I0504 13:42:50.342255  1150 net.cpp:86] Creating Layer relu2
I0504 13:42:50.342259  1150 net.cpp:408] relu2 <- ip2
I0504 13:42:50.342263  1150 net.cpp:369] relu2 -> ip2 (in-place)
I0504 13:42:50.343011  1150 net.cpp:124] Setting up relu2
I0504 13:42:50.343024  1150 net.cpp:131] Top shape: 111 60 (6660)
I0504 13:42:50.343026  1150 net.cpp:139] Memory required for data: 96042972
I0504 13:42:50.343029  1150 layer_factory.hpp:77] Creating layer ip3
I0504 13:42:50.343052  1150 net.cpp:86] Creating Layer ip3
I0504 13:42:50.343055  1150 net.cpp:408] ip3 <- ip2
I0504 13:42:50.343061  1150 net.cpp:382] ip3 -> ip3
I0504 13:42:50.343178  1150 net.cpp:124] Setting up ip3
I0504 13:42:50.343184  1150 net.cpp:131] Top shape: 111 10 (1110)
I0504 13:42:50.343188  1150 net.cpp:139] Memory required for data: 96047412
I0504 13:42:50.343195  1150 layer_factory.hpp:77] Creating layer loss
I0504 13:42:50.343204  1150 net.cpp:86] Creating Layer loss
I0504 13:42:50.343207  1150 net.cpp:408] loss <- ip3
I0504 13:42:50.343211  1150 net.cpp:408] loss <- label
I0504 13:42:50.343216  1150 net.cpp:382] loss -> loss
I0504 13:42:50.343230  1150 layer_factory.hpp:77] Creating layer loss
…
I0504 13:42:50.343893  1150 solver.cpp:173] Creating test net (#0) specified by net file: ECE595/cifar/train_test/var_everything_tiny/cifar_train_test_166.prototxt
I0504 13:42:50.343919  1150 net.cpp:296] The NetState phase (1) differed from the phase (0) specified by a rule in layer cifar
I0504 13:42:50.344017  1150 net.cpp:53] Initializing net from parameters: 
name: "CIFAR"
state {
  phase: TEST
}
layer {
  name: "cifar"
  type: "Data"
  top: "data"
  top: "label"
  include {
    phase: TEST
  }
  transform_param {
    mean_file: "examples/cifar10/mean.binaryproto"
  }
  data_param {
    source: "examples/cifar10/cifar10_test_lmdb"
    batch_size: 1000
    backend: LMDB
  }
}
layer {
  name: "conv0"
  type: "Convolution"
  bottom: "data"
  top: "conv0"
  param {
    lr_mult: 1
  }
  param {
    lr_mult: 2
  }
  convolution_param {
    num_output: 24
    pad: 2
    kernel_size: 5
    stride: 1
    weight_filler {
      type: "gaussian"
      std: 0.01
    }
    bias_filler {
      type: "constant"
    }
  }
}
layer {
  name: "Sigmoid0"
  type: "Sigmoid"
  bottom: "conv0"
  top: "Sigmoid0"
}
layer {
  name: "pool0"
  type: "Pooling"
  bottom: "Sigmoid0"
  top: "pool0"
  pooling_param {
    pool: AVE
    kernel_size: 3
    stride: 2
  }
}
layer {
  name: "conv1"
  type: "Convolution"
  bottom: "pool0"
  top: "conv1"
  param {
    lr_mult: 1
  }
  param {
    lr_mult: 2
  }
  convolution_param {
    num_output: 216
    pad: 2
    kernel_size: 3
    stride: 1
    weight_filler {
      type: "gaussian"
      std: 0.01
    }
    bias_filler {
      type: "constant"
    }
  }
}
layer {
  name: "Sigmoid1"
  type: "Sigmoid"
  bottom: "conv1"
  top: "Sigmoid1"
}
layer {
  name: "pool1"
  type: "Pooling"
  bottom: "Sigmoid1"
  top: "pool1"
  pooling_param {
    pool: AVE
    kernel_size: 3
    stride: 2
  }
}
layer {
  name: "ip1"
  type: "InnerProduct"
  bottom: "pool1"
  top: "ip1"
  param {
    lr_mult: 1
  }
  param {
    lr_mult: 2
  }
  inner_product_param {
    num_output: 180
    weight_filler {
      type: "gaussian"
      std: 0.01
    }
    bias_filler {
      type: "constant"
    }
  }
}
layer {
  name: "relu1"
  type: "ReLU"
  bottom: "ip1"
  top: "ip1"
}
layer {
  name: "ip2"
  type: "InnerProduct"
  bottom: "ip1"
  top: "ip2"
  param {
    lr_mult: 1
  }
  param {
    lr_mult: 2
  }
  inner_product_param {
    num_output: 60
    weight_filler {
      type: "gaussian"
      std: 0.01
    }
    bias_filler {
      type: "constant"
    }
  }
}
layer {
  name: "relu2"
  type: "ReLU"
  bottom: "ip2"
  top: "ip2"
}
layer {
  name: "ip3"
  type: "InnerProduct"
  bottom: "ip2"
  top: "ip3"
  param {
    lr_mult: 1
  }
  param {
    lr_mult: 2
  }
  inner_product_param {
    num_output: 10
    weight_filler {
      type: "gaussian"
      std: 0.01
    }
    bias_filler {
      type: "constant"
    }
  }
}
layer {
  name: "accuracy"
  type: "Accuracy"
  bottom: "ip3"
  bottom: "label"
  top: "accuracy"
  include {
    phase: TEST
  }
}
layer {
  name: "loss"
  type: "SoftmaxWithLoss"
  bottom: "ip3"
  bottom: "label"
  top: "loss"
}
I0504 13:42:50.344097  1150 layer_factory.hpp:77] Creating layer cifar
I0504 13:42:50.344141  1150 db_lmdb.cpp:35] Opened lmdb examples/cifar10/cifar10_test_lmdb
I0504 13:42:50.344152  1150 net.cpp:86] Creating Layer cifar
I0504 13:42:50.344156  1150 net.cpp:382] cifar -> data
I0504 13:42:50.344164  1150 net.cpp:382] cifar -> label
I0504 13:42:50.344171  1150 data_transformer.cpp:25] Loading mean file from: examples/cifar10/mean.binaryproto
I0504 13:42:50.344311  1150 data_layer.cpp:45] output data size: 1000,3,32,32
I0504 13:42:50.366405  1150 net.cpp:124] Setting up cifar
I0504 13:42:50.366432  1150 net.cpp:131] Top shape: 1000 3 32 32 (3072000)
I0504 13:42:50.366438  1150 net.cpp:131] Top shape: 1000 (1000)
I0504 13:42:50.366441  1150 net.cpp:139] Memory required for data: 12292000
I0504 13:42:50.366463  1150 layer_factory.hpp:77] Creating layer label_cifar_1_split
I0504 13:42:50.366477  1150 net.cpp:86] Creating Layer label_cifar_1_split
I0504 13:42:50.366480  1150 net.cpp:408] label_cifar_1_split <- label
I0504 13:42:50.366487  1150 net.cpp:382] label_cifar_1_split -> label_cifar_1_split_0
I0504 13:42:50.366494  1150 net.cpp:382] label_cifar_1_split -> label_cifar_1_split_1
I0504 13:42:50.366603  1150 net.cpp:124] Setting up label_cifar_1_split
I0504 13:42:50.366611  1150 net.cpp:131] Top shape: 1000 (1000)
I0504 13:42:50.366616  1150 net.cpp:131] Top shape: 1000 (1000)
I0504 13:42:50.366618  1150 net.cpp:139] Memory required for data: 12300000
I0504 13:42:50.366621  1150 layer_factory.hpp:77] Creating layer conv0
I0504 13:42:50.366633  1150 net.cpp:86] Creating Layer conv0
I0504 13:42:50.366636  1150 net.cpp:408] conv0 <- data
I0504 13:42:50.366653  1150 net.cpp:382] conv0 -> conv0
I0504 13:42:50.368180  1150 net.cpp:124] Setting up conv0
I0504 13:42:50.368194  1150 net.cpp:131] Top shape: 1000 24 32 32 (24576000)
I0504 13:42:50.368197  1150 net.cpp:139] Memory required for data: 110604000
I0504 13:42:50.368224  1150 layer_factory.hpp:77] Creating layer Sigmoid0
I0504 13:42:50.368230  1150 net.cpp:86] Creating Layer Sigmoid0
I0504 13:42:50.368234  1150 net.cpp:408] Sigmoid0 <- conv0
I0504 13:42:50.368238  1150 net.cpp:382] Sigmoid0 -> Sigmoid0
I0504 13:42:50.368505  1150 net.cpp:124] Setting up Sigmoid0
I0504 13:42:50.368527  1150 net.cpp:131] Top shape: 1000 24 32 32 (24576000)
I0504 13:42:50.368530  1150 net.cpp:139] Memory required for data: 208908000
I0504 13:42:50.368535  1150 layer_factory.hpp:77] Creating layer pool0
I0504 13:42:50.368543  1150 net.cpp:86] Creating Layer pool0
I0504 13:42:50.368546  1150 net.cpp:408] pool0 <- Sigmoid0
I0504 13:42:50.368552  1150 net.cpp:382] pool0 -> pool0
I0504 13:42:50.369743  1150 net.cpp:124] Setting up pool0
I0504 13:42:50.369755  1150 net.cpp:131] Top shape: 1000 24 16 16 (6144000)
I0504 13:42:50.369758  1150 net.cpp:139] Memory required for data: 233484000
I0504 13:42:50.369762  1150 layer_factory.hpp:77] Creating layer conv1
I0504 13:42:50.369788  1150 net.cpp:86] Creating Layer conv1
I0504 13:42:50.369792  1150 net.cpp:408] conv1 <- pool0
I0504 13:42:50.369799  1150 net.cpp:382] conv1 -> conv1
I0504 13:42:50.372386  1150 net.cpp:124] Setting up conv1
I0504 13:42:50.372400  1150 net.cpp:131] Top shape: 1000 216 18 18 (69984000)
I0504 13:42:50.372403  1150 net.cpp:139] Memory required for data: 513420000
I0504 13:42:50.372427  1150 layer_factory.hpp:77] Creating layer Sigmoid1
I0504 13:42:50.372437  1150 net.cpp:86] Creating Layer Sigmoid1
I0504 13:42:50.372442  1150 net.cpp:408] Sigmoid1 <- conv1
I0504 13:42:50.372445  1150 net.cpp:382] Sigmoid1 -> Sigmoid1
I0504 13:42:50.372634  1150 net.cpp:124] Setting up Sigmoid1
I0504 13:42:50.372643  1150 net.cpp:131] Top shape: 1000 216 18 18 (69984000)
I0504 13:42:50.372647  1150 net.cpp:139] Memory required for data: 793356000
I0504 13:42:50.372649  1150 layer_factory.hpp:77] Creating layer pool1
I0504 13:42:50.372655  1150 net.cpp:86] Creating Layer pool1
I0504 13:42:50.372659  1150 net.cpp:408] pool1 <- Sigmoid1
I0504 13:42:50.372665  1150 net.cpp:382] pool1 -> pool1
I0504 13:42:50.373684  1150 net.cpp:124] Setting up pool1
I0504 13:42:50.373713  1150 net.cpp:131] Top shape: 1000 216 9 9 (17496000)
I0504 13:42:50.373715  1150 net.cpp:139] Memory required for data: 863340000
I0504 13:42:50.373719  1150 layer_factory.hpp:77] Creating layer ip1
I0504 13:42:50.373729  1150 net.cpp:86] Creating Layer ip1
I0504 13:42:50.373733  1150 net.cpp:408] ip1 <- pool1
I0504 13:42:50.373739  1150 net.cpp:382] ip1 -> ip1
I0504 13:42:50.459821  1150 net.cpp:124] Setting up ip1
I0504 13:42:50.459861  1150 net.cpp:131] Top shape: 1000 180 (180000)
I0504 13:42:50.459863  1150 net.cpp:139] Memory required for data: 864060000
I0504 13:42:50.459875  1150 layer_factory.hpp:77] Creating layer relu1
I0504 13:42:50.459887  1150 net.cpp:86] Creating Layer relu1
I0504 13:42:50.459892  1150 net.cpp:408] relu1 <- ip1
I0504 13:42:50.459897  1150 net.cpp:369] relu1 -> ip1 (in-place)
I0504 13:42:50.460134  1150 net.cpp:124] Setting up relu1
I0504 13:42:50.460142  1150 net.cpp:131] Top shape: 1000 180 (180000)
I0504 13:42:50.460145  1150 net.cpp:139] Memory required for data: 864780000
I0504 13:42:50.460149  1150 layer_factory.hpp:77] Creating layer ip2
I0504 13:42:50.460157  1150 net.cpp:86] Creating Layer ip2
I0504 13:42:50.460160  1150 net.cpp:408] ip2 <- ip1
I0504 13:42:50.460167  1150 net.cpp:382] ip2 -> ip2
I0504 13:42:50.460608  1150 net.cpp:124] Setting up ip2
I0504 13:42:50.460616  1150 net.cpp:131] Top shape: 1000 60 (60000)
I0504 13:42:50.460619  1150 net.cpp:139] Memory required for data: 865020000
I0504 13:42:50.460641  1150 layer_factory.hpp:77] Creating layer relu2
I0504 13:42:50.460647  1150 net.cpp:86] Creating Layer relu2
I0504 13:42:50.460650  1150 net.cpp:408] relu2 <- ip2
I0504 13:42:50.460654  1150 net.cpp:369] relu2 -> ip2 (in-place)
I0504 13:42:50.460855  1150 net.cpp:124] Setting up relu2
I0504 13:42:50.460865  1150 net.cpp:131] Top shape: 1000 60 (60000)
I0504 13:42:50.460868  1150 net.cpp:139] Memory required for data: 865260000
I0504 13:42:50.460871  1150 layer_factory.hpp:77] Creating layer ip3
I0504 13:42:50.460877  1150 net.cpp:86] Creating Layer ip3
I0504 13:42:50.460880  1150 net.cpp:408] ip3 <- ip2
I0504 13:42:50.460886  1150 net.cpp:382] ip3 -> ip3
I0504 13:42:50.461019  1150 net.cpp:124] Setting up ip3
I0504 13:42:50.461038  1150 net.cpp:131] Top shape: 1000 10 (10000)
I0504 13:42:50.461042  1150 net.cpp:139] Memory required for data: 865300000
I0504 13:42:50.461050  1150 layer_factory.hpp:77] Creating layer ip3_ip3_0_split
I0504 13:42:50.461057  1150 net.cpp:86] Creating Layer ip3_ip3_0_split
I0504 13:42:50.461061  1150 net.cpp:408] ip3_ip3_0_split <- ip3
I0504 13:42:50.461064  1150 net.cpp:382] ip3_ip3_0_split -> ip3_ip3_0_split_0
I0504 13:42:50.461071  1150 net.cpp:382] ip3_ip3_0_split -> ip3_ip3_0_split_1
I0504 13:42:50.461104  1150 net.cpp:124] Setting up ip3_ip3_0_split
I0504 13:42:50.461125  1150 net.cpp:131] Top shape: 1000 10 (10000)
I0504 13:42:50.461129  1150 net.cpp:131] Top shape: 1000 10 (10000)
I0504 13:42:50.461132  1150 net.cpp:139] Memory required for data: 865380000
I0504 13:42:50.461134  1150 layer_factory.hpp:77] Creating layer accuracy
I0504 13:42:50.461141  1150 net.cpp:86] Creating Layer accuracy
I0504 13:42:50.461143  1150 net.cpp:408] accuracy <- ip3_ip3_0_split_0
I0504 13:42:50.461148  1150 net.cpp:408] accuracy <- label_cifar_1_split_0
I0504 13:42:50.461153  1150 net.cpp:382] accuracy -> accuracy
…
