…
I0504 16:54:01.305867 10393 net.cpp:296] The NetState phase (0) differed from the phase (1) specified by a rule in layer cifar
I0504 16:54:01.305886 10393 net.cpp:296] The NetState phase (0) differed from the phase (1) specified by a rule in layer accuracy
I0504 16:54:01.305989 10393 net.cpp:53] Initializing net from parameters: 
name: "CIFAR"
state {
  phase: TRAIN
  level: 0
  stage: ""
}
layer {
  name: "cifar"
  type: "Data"
  top: "data"
  top: "label"
  include {
    phase: TRAIN
  }
  transform_param {
    mean_file: "examples/cifar10/mean.binaryproto"
  }
  data_param {
    source: "examples/cifar10/cifar10_train_lmdb"
    batch_size: 111
    backend: LMDB
  }
}
layer {
  name: "conv0"
  type: "Convolution"
  bottom: "data"
  top: "conv0"
  param {
    lr_mult: 1
  }
  param {
    lr_mult: 2
  }
  convolution_param {
    num_output: 72
    pad: 2
    kernel_size: 5
    stride: 1
    weight_filler {
      type: "gaussian"
      std: 0.01
    }
    bias_filler {
      type: "constant"
    }
  }
}
layer {
  name: "Sigmoid0"
  type: "Sigmoid"
  bottom: "conv0"
  top: "Sigmoid0"
}
layer {
  name: "pool0"
  type: "Pooling"
  bottom: "Sigmoid0"
  top: "pool0"
  pooling_param {
    pool: AVE
    kernel_size: 3
    stride: 2
  }
}
layer {
  name: "conv1"
  type: "Convolution"
  bottom: "pool0"
  top: "conv1"
  param {
    lr_mult: 1
  }
  param {
    lr_mult: 2
  }
  convolution_param {
    num_output: 72
    pad: 2
    kernel_size: 3
    stride: 1
    weight_filler {
      type: "gaussian"
      std: 0.01
    }
    bias_filler {
      type: "constant"
    }
  }
}
layer {
  name: "Sigmoid1"
  type: "Sigmoid"
  bottom: "conv1"
  top: "Sigmoid1"
}
layer {
  name: "pool1"
  type: "Pooling"
  bottom: "Sigmoid1"
  top: "pool1"
  pooling_param {
    pool: AVE
    kernel_size: 3
    stride: 2
  }
}
layer {
  name: "ip1"
  type: "InnerProduct"
  bottom: "pool1"
  top: "ip1"
  param {
    lr_mult: 1
  }
  param {
    lr_mult: 2
  }
  inner_product_param {
    num_output: 10
    weight_filler {
      type: "gaussian"
      std: 0.01
    }
    bias_filler {
      type: "constant"
    }
  }
}
layer {
  name: "relu1"
  type: "ReLU"
  bottom: "ip1"
  top: "ip1"
}
layer {
  name: "ip2"
  type: "InnerProduct"
  bottom: "ip1"
  top: "ip2"
  param {
    lr_mult: 1
  }
  param {
    lr_mult: 2
  }
  inner_product_param {
    num_output: 10
    weight_filler {
      type: "gaussian"
      std: 0.01
    }
    bias_filler {
      type: "constant"
    }
  }
}
layer {
  name: "loss"
  type: "SoftmaxWithLoss"
  bottom: "ip2"
  bottom: "label"
  top: "loss"
}
I0504 16:54:01.306066 10393 layer_factory.hpp:77] Creating layer cifar
I0504 16:54:01.306165 10393 db_lmdb.cpp:35] Opened lmdb examples/cifar10/cifar10_train_lmdb
I0504 16:54:01.306191 10393 net.cpp:86] Creating Layer cifar
I0504 16:54:01.306201 10393 net.cpp:382] cifar -> data
I0504 16:54:01.306224 10393 net.cpp:382] cifar -> label
I0504 16:54:01.306236 10393 data_transformer.cpp:25] Loading mean file from: examples/cifar10/mean.binaryproto
I0504 16:54:01.308405 10393 data_layer.cpp:45] output data size: 111,3,32,32
I0504 16:54:01.316378 10393 net.cpp:124] Setting up cifar
I0504 16:54:01.316396 10393 net.cpp:131] Top shape: 111 3 32 32 (340992)
I0504 16:54:01.316402 10393 net.cpp:131] Top shape: 111 (111)
I0504 16:54:01.316406 10393 net.cpp:139] Memory required for data: 1364412
I0504 16:54:01.316413 10393 layer_factory.hpp:77] Creating layer conv0
I0504 16:54:01.316431 10393 net.cpp:86] Creating Layer conv0
I0504 16:54:01.316452 10393 net.cpp:408] conv0 <- data
I0504 16:54:01.316467 10393 net.cpp:382] conv0 -> conv0
I0504 16:54:01.592116 10393 net.cpp:124] Setting up conv0
I0504 16:54:01.592142 10393 net.cpp:131] Top shape: 111 72 32 32 (8183808)
I0504 16:54:01.592146 10393 net.cpp:139] Memory required for data: 34099644
I0504 16:54:01.592160 10393 layer_factory.hpp:77] Creating layer Sigmoid0
I0504 16:54:01.592171 10393 net.cpp:86] Creating Layer Sigmoid0
I0504 16:54:01.592176 10393 net.cpp:408] Sigmoid0 <- conv0
I0504 16:54:01.592181 10393 net.cpp:382] Sigmoid0 -> Sigmoid0
I0504 16:54:01.592377 10393 net.cpp:124] Setting up Sigmoid0
I0504 16:54:01.592386 10393 net.cpp:131] Top shape: 111 72 32 32 (8183808)
I0504 16:54:01.592389 10393 net.cpp:139] Memory required for data: 66834876
I0504 16:54:01.592392 10393 layer_factory.hpp:77] Creating layer pool0
I0504 16:54:01.592399 10393 net.cpp:86] Creating Layer pool0
I0504 16:54:01.592418 10393 net.cpp:408] pool0 <- Sigmoid0
I0504 16:54:01.592422 10393 net.cpp:382] pool0 -> pool0
I0504 16:54:01.593211 10393 net.cpp:124] Setting up pool0
I0504 16:54:01.593240 10393 net.cpp:131] Top shape: 111 72 16 16 (2045952)
I0504 16:54:01.593242 10393 net.cpp:139] Memory required for data: 75018684
I0504 16:54:01.593245 10393 layer_factory.hpp:77] Creating layer conv1
I0504 16:54:01.593257 10393 net.cpp:86] Creating Layer conv1
I0504 16:54:01.593261 10393 net.cpp:408] conv1 <- pool0
I0504 16:54:01.593266 10393 net.cpp:382] conv1 -> conv1
I0504 16:54:01.597221 10393 net.cpp:124] Setting up conv1
I0504 16:54:01.597234 10393 net.cpp:131] Top shape: 111 72 18 18 (2589408)
I0504 16:54:01.597237 10393 net.cpp:139] Memory required for data: 85376316
I0504 16:54:01.597245 10393 layer_factory.hpp:77] Creating layer Sigmoid1
I0504 16:54:01.597251 10393 net.cpp:86] Creating Layer Sigmoid1
I0504 16:54:01.597254 10393 net.cpp:408] Sigmoid1 <- conv1
I0504 16:54:01.597259 10393 net.cpp:382] Sigmoid1 -> Sigmoid1
I0504 16:54:01.597434 10393 net.cpp:124] Setting up Sigmoid1
I0504 16:54:01.597443 10393 net.cpp:131] Top shape: 111 72 18 18 (2589408)
I0504 16:54:01.597447 10393 net.cpp:139] Memory required for data: 95733948
I0504 16:54:01.597450 10393 layer_factory.hpp:77] Creating layer pool1
I0504 16:54:01.597455 10393 net.cpp:86] Creating Layer pool1
I0504 16:54:01.597458 10393 net.cpp:408] pool1 <- Sigmoid1
I0504 16:54:01.597462 10393 net.cpp:382] pool1 -> pool1
I0504 16:54:01.597630 10393 net.cpp:124] Setting up pool1
I0504 16:54:01.597638 10393 net.cpp:131] Top shape: 111 72 9 9 (647352)
I0504 16:54:01.597641 10393 net.cpp:139] Memory required for data: 98323356
I0504 16:54:01.597645 10393 layer_factory.hpp:77] Creating layer ip1
I0504 16:54:01.597652 10393 net.cpp:86] Creating Layer ip1
I0504 16:54:01.597656 10393 net.cpp:408] ip1 <- pool1
I0504 16:54:01.597659 10393 net.cpp:382] ip1 -> ip1
I0504 16:54:01.599426 10393 net.cpp:124] Setting up ip1
I0504 16:54:01.599434 10393 net.cpp:131] Top shape: 111 10 (1110)
I0504 16:54:01.599452 10393 net.cpp:139] Memory required for data: 98327796
I0504 16:54:01.599459 10393 layer_factory.hpp:77] Creating layer relu1
I0504 16:54:01.599480 10393 net.cpp:86] Creating Layer relu1
I0504 16:54:01.599484 10393 net.cpp:408] relu1 <- ip1
I0504 16:54:01.599488 10393 net.cpp:369] relu1 -> ip1 (in-place)
I0504 16:54:01.599669 10393 net.cpp:124] Setting up relu1
I0504 16:54:01.599694 10393 net.cpp:131] Top shape: 111 10 (1110)
I0504 16:54:01.599696 10393 net.cpp:139] Memory required for data: 98332236
I0504 16:54:01.599700 10393 layer_factory.hpp:77] Creating layer ip2
I0504 16:54:01.599706 10393 net.cpp:86] Creating Layer ip2
I0504 16:54:01.599709 10393 net.cpp:408] ip2 <- ip1
I0504 16:54:01.599714 10393 net.cpp:382] ip2 -> ip2
I0504 16:54:01.599815 10393 net.cpp:124] Setting up ip2
I0504 16:54:01.599822 10393 net.cpp:131] Top shape: 111 10 (1110)
I0504 16:54:01.599825 10393 net.cpp:139] Memory required for data: 98336676
I0504 16:54:01.599830 10393 layer_factory.hpp:77] Creating layer loss
I0504 16:54:01.599835 10393 net.cpp:86] Creating Layer loss
I0504 16:54:01.599853 10393 net.cpp:408] loss <- ip2
I0504 16:54:01.599858 10393 net.cpp:408] loss <- label
I0504 16:54:01.599864 10393 net.cpp:382] loss -> loss
I0504 16:54:01.599890 10393 layer_factory.hpp:77] Creating layer loss
…
I0504 16:54:01.601356 10393 solver.cpp:173] Creating test net (#0) specified by net file: ECE595/cifar/train_test/var_everything_tiny/cifar_train_test_192.prototxt
I0504 16:54:01.601411 10393 net.cpp:296] The NetState phase (1) differed from the phase (0) specified by a rule in layer cifar
I0504 16:54:01.601498 10393 net.cpp:53] Initializing net from parameters: 
name: "CIFAR"
state {
  phase: TEST
}
layer {
  name: "cifar"
  type: "Data"
  top: "data"
  top: "label"
  include {
    phase: TEST
  }
  transform_param {
    mean_file: "examples/cifar10/mean.binaryproto"
  }
  data_param {
    source: "examples/cifar10/cifar10_test_lmdb"
    batch_size: 1000
    backend: LMDB
  }
}
layer {
  name: "conv0"
  type: "Convolution"
  bottom: "data"
  top: "conv0"
  param {
    lr_mult: 1
  }
  param {
    lr_mult: 2
  }
  convolution_param {
    num_output: 72
    pad: 2
    kernel_size: 5
    stride: 1
    weight_filler {
      type: "gaussian"
      std: 0.01
    }
    bias_filler {
      type: "constant"
    }
  }
}
layer {
  name: "Sigmoid0"
  type: "Sigmoid"
  bottom: "conv0"
  top: "Sigmoid0"
}
layer {
  name: "pool0"
  type: "Pooling"
  bottom: "Sigmoid0"
  top: "pool0"
  pooling_param {
    pool: AVE
    kernel_size: 3
    stride: 2
  }
}
layer {
  name: "conv1"
  type: "Convolution"
  bottom: "pool0"
  top: "conv1"
  param {
    lr_mult: 1
  }
  param {
    lr_mult: 2
  }
  convolution_param {
    num_output: 72
    pad: 2
    kernel_size: 3
    stride: 1
    weight_filler {
      type: "gaussian"
      std: 0.01
    }
    bias_filler {
      type: "constant"
    }
  }
}
layer {
  name: "Sigmoid1"
  type: "Sigmoid"
  bottom: "conv1"
  top: "Sigmoid1"
}
layer {
  name: "pool1"
  type: "Pooling"
  bottom: "Sigmoid1"
  top: "pool1"
  pooling_param {
    pool: AVE
    kernel_size: 3
    stride: 2
  }
}
layer {
  name: "ip1"
  type: "InnerProduct"
  bottom: "pool1"
  top: "ip1"
  param {
    lr_mult: 1
  }
  param {
    lr_mult: 2
  }
  inner_product_param {
    num_output: 10
    weight_filler {
      type: "gaussian"
      std: 0.01
    }
    bias_filler {
      type: "constant"
    }
  }
}
layer {
  name: "relu1"
  type: "ReLU"
  bottom: "ip1"
  top: "ip1"
}
layer {
  name: "ip2"
  type: "InnerProduct"
  bottom: "ip1"
  top: "ip2"
  param {
    lr_mult: 1
  }
  param {
    lr_mult: 2
  }
  inner_product_param {
    num_output: 10
    weight_filler {
      type: "gaussian"
      std: 0.01
    }
    bias_filler {
      type: "constant"
    }
  }
}
layer {
  name: "accuracy"
  type: "Accuracy"
  bottom: "ip2"
  bottom: "label"
  top: "accuracy"
  include {
    phase: TEST
  }
}
layer {
  name: "loss"
  type: "SoftmaxWithLoss"
  bottom: "ip2"
  bottom: "label"
  top: "loss"
}
I0504 16:54:01.601588 10393 layer_factory.hpp:77] Creating layer cifar
I0504 16:54:01.601631 10393 db_lmdb.cpp:35] Opened lmdb examples/cifar10/cifar10_test_lmdb
I0504 16:54:01.601644 10393 net.cpp:86] Creating Layer cifar
I0504 16:54:01.601649 10393 net.cpp:382] cifar -> data
I0504 16:54:01.601655 10393 net.cpp:382] cifar -> label
I0504 16:54:01.601661 10393 data_transformer.cpp:25] Loading mean file from: examples/cifar10/mean.binaryproto
I0504 16:54:01.601797 10393 data_layer.cpp:45] output data size: 1000,3,32,32
I0504 16:54:01.624554 10393 net.cpp:124] Setting up cifar
I0504 16:54:01.624596 10393 net.cpp:131] Top shape: 1000 3 32 32 (3072000)
I0504 16:54:01.624603 10393 net.cpp:131] Top shape: 1000 (1000)
I0504 16:54:01.624606 10393 net.cpp:139] Memory required for data: 12292000
I0504 16:54:01.624616 10393 layer_factory.hpp:77] Creating layer label_cifar_1_split
I0504 16:54:01.624629 10393 net.cpp:86] Creating Layer label_cifar_1_split
I0504 16:54:01.624634 10393 net.cpp:408] label_cifar_1_split <- label
I0504 16:54:01.624639 10393 net.cpp:382] label_cifar_1_split -> label_cifar_1_split_0
I0504 16:54:01.624650 10393 net.cpp:382] label_cifar_1_split -> label_cifar_1_split_1
I0504 16:54:01.624753 10393 net.cpp:124] Setting up label_cifar_1_split
I0504 16:54:01.624761 10393 net.cpp:131] Top shape: 1000 (1000)
I0504 16:54:01.624765 10393 net.cpp:131] Top shape: 1000 (1000)
I0504 16:54:01.624768 10393 net.cpp:139] Memory required for data: 12300000
I0504 16:54:01.624771 10393 layer_factory.hpp:77] Creating layer conv0
I0504 16:54:01.624783 10393 net.cpp:86] Creating Layer conv0
I0504 16:54:01.624788 10393 net.cpp:408] conv0 <- data
I0504 16:54:01.624794 10393 net.cpp:382] conv0 -> conv0
I0504 16:54:01.625902 10393 net.cpp:124] Setting up conv0
I0504 16:54:01.625915 10393 net.cpp:131] Top shape: 1000 72 32 32 (73728000)
I0504 16:54:01.625934 10393 net.cpp:139] Memory required for data: 307212000
I0504 16:54:01.625943 10393 layer_factory.hpp:77] Creating layer Sigmoid0
I0504 16:54:01.625952 10393 net.cpp:86] Creating Layer Sigmoid0
I0504 16:54:01.625955 10393 net.cpp:408] Sigmoid0 <- conv0
I0504 16:54:01.625959 10393 net.cpp:382] Sigmoid0 -> Sigmoid0
I0504 16:54:01.627025 10393 net.cpp:124] Setting up Sigmoid0
I0504 16:54:01.627039 10393 net.cpp:131] Top shape: 1000 72 32 32 (73728000)
I0504 16:54:01.627059 10393 net.cpp:139] Memory required for data: 602124000
I0504 16:54:01.627063 10393 layer_factory.hpp:77] Creating layer pool0
I0504 16:54:01.627073 10393 net.cpp:86] Creating Layer pool0
I0504 16:54:01.627076 10393 net.cpp:408] pool0 <- Sigmoid0
I0504 16:54:01.627081 10393 net.cpp:382] pool0 -> pool0
I0504 16:54:01.628290 10393 net.cpp:124] Setting up pool0
I0504 16:54:01.628300 10393 net.cpp:131] Top shape: 1000 72 16 16 (18432000)
I0504 16:54:01.628319 10393 net.cpp:139] Memory required for data: 675852000
I0504 16:54:01.628324 10393 layer_factory.hpp:77] Creating layer conv1
I0504 16:54:01.628348 10393 net.cpp:86] Creating Layer conv1
I0504 16:54:01.628351 10393 net.cpp:408] conv1 <- pool0
I0504 16:54:01.628358 10393 net.cpp:382] conv1 -> conv1
I0504 16:54:01.631258 10393 net.cpp:124] Setting up conv1
I0504 16:54:01.631270 10393 net.cpp:131] Top shape: 1000 72 18 18 (23328000)
I0504 16:54:01.631292 10393 net.cpp:139] Memory required for data: 769164000
I0504 16:54:01.631302 10393 layer_factory.hpp:77] Creating layer Sigmoid1
I0504 16:54:01.631309 10393 net.cpp:86] Creating Layer Sigmoid1
I0504 16:54:01.631312 10393 net.cpp:408] Sigmoid1 <- conv1
I0504 16:54:01.631317 10393 net.cpp:382] Sigmoid1 -> Sigmoid1
I0504 16:54:01.631508 10393 net.cpp:124] Setting up Sigmoid1
I0504 16:54:01.631533 10393 net.cpp:131] Top shape: 1000 72 18 18 (23328000)
I0504 16:54:01.631536 10393 net.cpp:139] Memory required for data: 862476000
I0504 16:54:01.631541 10393 layer_factory.hpp:77] Creating layer pool1
I0504 16:54:01.631549 10393 net.cpp:86] Creating Layer pool1
I0504 16:54:01.631556 10393 net.cpp:408] pool1 <- Sigmoid1
I0504 16:54:01.631575 10393 net.cpp:382] pool1 -> pool1
I0504 16:54:01.631752 10393 net.cpp:124] Setting up pool1
I0504 16:54:01.631762 10393 net.cpp:131] Top shape: 1000 72 9 9 (5832000)
I0504 16:54:01.631764 10393 net.cpp:139] Memory required for data: 885804000
I0504 16:54:01.631767 10393 layer_factory.hpp:77] Creating layer ip1
I0504 16:54:01.631777 10393 net.cpp:86] Creating Layer ip1
I0504 16:54:01.631783 10393 net.cpp:408] ip1 <- pool1
I0504 16:54:01.631789 10393 net.cpp:382] ip1 -> ip1
I0504 16:54:01.633896 10393 net.cpp:124] Setting up ip1
I0504 16:54:01.633906 10393 net.cpp:131] Top shape: 1000 10 (10000)
I0504 16:54:01.633924 10393 net.cpp:139] Memory required for data: 885844000
I0504 16:54:01.633934 10393 layer_factory.hpp:77] Creating layer relu1
I0504 16:54:01.633940 10393 net.cpp:86] Creating Layer relu1
I0504 16:54:01.633944 10393 net.cpp:408] relu1 <- ip1
I0504 16:54:01.633949 10393 net.cpp:369] relu1 -> ip1 (in-place)
I0504 16:54:01.634824 10393 net.cpp:124] Setting up relu1
I0504 16:54:01.634835 10393 net.cpp:131] Top shape: 1000 10 (10000)
I0504 16:54:01.634855 10393 net.cpp:139] Memory required for data: 885884000
I0504 16:54:01.634858 10393 layer_factory.hpp:77] Creating layer ip2
I0504 16:54:01.634866 10393 net.cpp:86] Creating Layer ip2
I0504 16:54:01.634871 10393 net.cpp:408] ip2 <- ip1
I0504 16:54:01.634876 10393 net.cpp:382] ip2 -> ip2
I0504 16:54:01.635005 10393 net.cpp:124] Setting up ip2
I0504 16:54:01.635013 10393 net.cpp:131] Top shape: 1000 10 (10000)
I0504 16:54:01.635016 10393 net.cpp:139] Memory required for data: 885924000
I0504 16:54:01.635021 10393 layer_factory.hpp:77] Creating layer ip2_ip2_0_split
I0504 16:54:01.635028 10393 net.cpp:86] Creating Layer ip2_ip2_0_split
I0504 16:54:01.635031 10393 net.cpp:408] ip2_ip2_0_split <- ip2
I0504 16:54:01.635036 10393 net.cpp:382] ip2_ip2_0_split -> ip2_ip2_0_split_0
I0504 16:54:01.635041 10393 net.cpp:382] ip2_ip2_0_split -> ip2_ip2_0_split_1
I0504 16:54:01.635094 10393 net.cpp:124] Setting up ip2_ip2_0_split
I0504 16:54:01.635100 10393 net.cpp:131] Top shape: 1000 10 (10000)
I0504 16:54:01.635105 10393 net.cpp:131] Top shape: 1000 10 (10000)
I0504 16:54:01.635107 10393 net.cpp:139] Memory required for data: 886004000
I0504 16:54:01.635112 10393 layer_factory.hpp:77] Creating layer accuracy
I0504 16:54:01.635116 10393 net.cpp:86] Creating Layer accuracy
I0504 16:54:01.635120 10393 net.cpp:408] accuracy <- ip2_ip2_0_split_0
I0504 16:54:01.635125 10393 net.cpp:408] accuracy <- label_cifar_1_split_0
I0504 16:54:01.635131 10393 net.cpp:382] accuracy -> accuracy
…
