…
I0504 01:58:27.846421  8361 net.cpp:296] The NetState phase (0) differed from the phase (1) specified by a rule in layer cifar
I0504 01:58:27.846438  8361 net.cpp:296] The NetState phase (0) differed from the phase (1) specified by a rule in layer accuracy
I0504 01:58:27.846530  8361 net.cpp:53] Initializing net from parameters: 
name: "CIFAR"
state {
  phase: TRAIN
  level: 0
  stage: ""
}
layer {
  name: "cifar"
  type: "Data"
  top: "data"
  top: "label"
  include {
    phase: TRAIN
  }
  transform_param {
    mean_file: "examples/cifar10/mean.binaryproto"
  }
  data_param {
    source: "examples/cifar10/cifar10_train_lmdb"
    batch_size: 111
    backend: LMDB
  }
}
layer {
  name: "conv0"
  type: "Convolution"
  bottom: "data"
  top: "conv0"
  param {
    lr_mult: 1
  }
  param {
    lr_mult: 2
  }
  convolution_param {
    num_output: 72
    pad: 2
    kernel_size: 5
    stride: 1
    weight_filler {
      type: "gaussian"
      std: 0.01
    }
    bias_filler {
      type: "constant"
    }
  }
}
layer {
  name: "Sigmoid0"
  type: "Sigmoid"
  bottom: "conv0"
  top: "Sigmoid0"
}
layer {
  name: "pool0"
  type: "Pooling"
  bottom: "Sigmoid0"
  top: "pool0"
  pooling_param {
    pool: AVE
    kernel_size: 3
    stride: 2
  }
}
layer {
  name: "ip1"
  type: "InnerProduct"
  bottom: "pool0"
  top: "ip1"
  param {
    lr_mult: 1
  }
  param {
    lr_mult: 2
  }
  inner_product_param {
    num_output: 10
    weight_filler {
      type: "gaussian"
      std: 0.01
    }
    bias_filler {
      type: "constant"
    }
  }
}
layer {
  name: "relu1"
  type: "ReLU"
  bottom: "ip1"
  top: "ip1"
}
layer {
  name: "ip2"
  type: "InnerProduct"
  bottom: "ip1"
  top: "ip2"
  param {
    lr_mult: 1
  }
  param {
    lr_mult: 2
  }
  inner_product_param {
    num_output: 180
    weight_filler {
      type: "gaussian"
      std: 0.01
    }
    bias_filler {
      type: "constant"
    }
  }
}
layer {
  name: "relu2"
  type: "ReLU"
  bottom: "ip2"
  top: "ip2"
}
layer {
  name: "ip3"
  type: "InnerProduct"
  bottom: "ip2"
  top: "ip3"
  param {
    lr_mult: 1
  }
  param {
    lr_mult: 2
  }
  inner_product_param {
    num_output: 10
    weight_filler {
      type: "gaussian"
      std: 0.01
    }
    bias_filler {
      type: "constant"
    }
  }
}
layer {
  name: "loss"
  type: "SoftmaxWithLoss"
  bottom: "ip3"
  bottom: "label"
  top: "loss"
}
I0504 01:58:27.846607  8361 layer_factory.hpp:77] Creating layer cifar
I0504 01:58:27.846707  8361 db_lmdb.cpp:35] Opened lmdb examples/cifar10/cifar10_train_lmdb
I0504 01:58:27.846735  8361 net.cpp:86] Creating Layer cifar
I0504 01:58:27.846746  8361 net.cpp:382] cifar -> data
I0504 01:58:27.846768  8361 net.cpp:382] cifar -> label
I0504 01:58:27.846781  8361 data_transformer.cpp:25] Loading mean file from: examples/cifar10/mean.binaryproto
I0504 01:58:27.848917  8361 data_layer.cpp:45] output data size: 111,3,32,32
I0504 01:58:27.856773  8361 net.cpp:124] Setting up cifar
I0504 01:58:27.856791  8361 net.cpp:131] Top shape: 111 3 32 32 (340992)
I0504 01:58:27.856797  8361 net.cpp:131] Top shape: 111 (111)
I0504 01:58:27.856801  8361 net.cpp:139] Memory required for data: 1364412
I0504 01:58:27.856815  8361 layer_factory.hpp:77] Creating layer conv0
I0504 01:58:27.856835  8361 net.cpp:86] Creating Layer conv0
I0504 01:58:27.856842  8361 net.cpp:408] conv0 <- data
I0504 01:58:27.856854  8361 net.cpp:382] conv0 -> conv0
I0504 01:58:28.149854  8361 net.cpp:124] Setting up conv0
I0504 01:58:28.149915  8361 net.cpp:131] Top shape: 111 72 32 32 (8183808)
I0504 01:58:28.149919  8361 net.cpp:139] Memory required for data: 34099644
I0504 01:58:28.149935  8361 layer_factory.hpp:77] Creating layer Sigmoid0
I0504 01:58:28.149946  8361 net.cpp:86] Creating Layer Sigmoid0
I0504 01:58:28.149950  8361 net.cpp:408] Sigmoid0 <- conv0
I0504 01:58:28.149955  8361 net.cpp:382] Sigmoid0 -> Sigmoid0
I0504 01:58:28.150140  8361 net.cpp:124] Setting up Sigmoid0
I0504 01:58:28.150149  8361 net.cpp:131] Top shape: 111 72 32 32 (8183808)
I0504 01:58:28.150152  8361 net.cpp:139] Memory required for data: 66834876
I0504 01:58:28.150156  8361 layer_factory.hpp:77] Creating layer pool0
I0504 01:58:28.150162  8361 net.cpp:86] Creating Layer pool0
I0504 01:58:28.150166  8361 net.cpp:408] pool0 <- Sigmoid0
I0504 01:58:28.150171  8361 net.cpp:382] pool0 -> pool0
I0504 01:58:28.150878  8361 net.cpp:124] Setting up pool0
I0504 01:58:28.150892  8361 net.cpp:131] Top shape: 111 72 16 16 (2045952)
I0504 01:58:28.150895  8361 net.cpp:139] Memory required for data: 75018684
I0504 01:58:28.150898  8361 layer_factory.hpp:77] Creating layer ip1
I0504 01:58:28.150907  8361 net.cpp:86] Creating Layer ip1
I0504 01:58:28.150910  8361 net.cpp:408] ip1 <- pool0
I0504 01:58:28.150915  8361 net.cpp:382] ip1 -> ip1
I0504 01:58:28.156579  8361 net.cpp:124] Setting up ip1
I0504 01:58:28.156592  8361 net.cpp:131] Top shape: 111 10 (1110)
I0504 01:58:28.156595  8361 net.cpp:139] Memory required for data: 75023124
I0504 01:58:28.156604  8361 layer_factory.hpp:77] Creating layer relu1
I0504 01:58:28.156610  8361 net.cpp:86] Creating Layer relu1
I0504 01:58:28.156612  8361 net.cpp:408] relu1 <- ip1
I0504 01:58:28.156616  8361 net.cpp:369] relu1 -> ip1 (in-place)
I0504 01:58:28.156764  8361 net.cpp:124] Setting up relu1
I0504 01:58:28.156774  8361 net.cpp:131] Top shape: 111 10 (1110)
I0504 01:58:28.156775  8361 net.cpp:139] Memory required for data: 75027564
I0504 01:58:28.156779  8361 layer_factory.hpp:77] Creating layer ip2
I0504 01:58:28.156785  8361 net.cpp:86] Creating Layer ip2
I0504 01:58:28.156788  8361 net.cpp:408] ip2 <- ip1
I0504 01:58:28.156793  8361 net.cpp:382] ip2 -> ip2
I0504 01:58:28.156977  8361 net.cpp:124] Setting up ip2
I0504 01:58:28.156985  8361 net.cpp:131] Top shape: 111 180 (19980)
I0504 01:58:28.156988  8361 net.cpp:139] Memory required for data: 75107484
I0504 01:58:28.156996  8361 layer_factory.hpp:77] Creating layer relu2
I0504 01:58:28.157001  8361 net.cpp:86] Creating Layer relu2
I0504 01:58:28.157004  8361 net.cpp:408] relu2 <- ip2
I0504 01:58:28.157009  8361 net.cpp:369] relu2 -> ip2 (in-place)
I0504 01:58:28.157202  8361 net.cpp:124] Setting up relu2
I0504 01:58:28.157209  8361 net.cpp:131] Top shape: 111 180 (19980)
I0504 01:58:28.157212  8361 net.cpp:139] Memory required for data: 75187404
I0504 01:58:28.157215  8361 layer_factory.hpp:77] Creating layer ip3
I0504 01:58:28.157223  8361 net.cpp:86] Creating Layer ip3
I0504 01:58:28.157227  8361 net.cpp:408] ip3 <- ip2
I0504 01:58:28.157232  8361 net.cpp:382] ip3 -> ip3
I0504 01:58:28.157371  8361 net.cpp:124] Setting up ip3
I0504 01:58:28.157377  8361 net.cpp:131] Top shape: 111 10 (1110)
I0504 01:58:28.157379  8361 net.cpp:139] Memory required for data: 75191844
I0504 01:58:28.157384  8361 layer_factory.hpp:77] Creating layer loss
I0504 01:58:28.157392  8361 net.cpp:86] Creating Layer loss
I0504 01:58:28.157398  8361 net.cpp:408] loss <- ip3
I0504 01:58:28.157402  8361 net.cpp:408] loss <- label
I0504 01:58:28.157407  8361 net.cpp:382] loss -> loss
I0504 01:58:28.157423  8361 layer_factory.hpp:77] Creating layer loss
…
I0504 01:58:28.158031  8361 solver.cpp:173] Creating test net (#0) specified by net file: ECE595/cifar/train_test/var_everything_tiny/cifar_train_test_41.prototxt
I0504 01:58:28.158056  8361 net.cpp:296] The NetState phase (1) differed from the phase (0) specified by a rule in layer cifar
I0504 01:58:28.158138  8361 net.cpp:53] Initializing net from parameters: 
name: "CIFAR"
state {
  phase: TEST
}
layer {
  name: "cifar"
  type: "Data"
  top: "data"
  top: "label"
  include {
    phase: TEST
  }
  transform_param {
    mean_file: "examples/cifar10/mean.binaryproto"
  }
  data_param {
    source: "examples/cifar10/cifar10_test_lmdb"
    batch_size: 1000
    backend: LMDB
  }
}
layer {
  name: "conv0"
  type: "Convolution"
  bottom: "data"
  top: "conv0"
  param {
    lr_mult: 1
  }
  param {
    lr_mult: 2
  }
  convolution_param {
    num_output: 72
    pad: 2
    kernel_size: 5
    stride: 1
    weight_filler {
      type: "gaussian"
      std: 0.01
    }
    bias_filler {
      type: "constant"
    }
  }
}
layer {
  name: "Sigmoid0"
  type: "Sigmoid"
  bottom: "conv0"
  top: "Sigmoid0"
}
layer {
  name: "pool0"
  type: "Pooling"
  bottom: "Sigmoid0"
  top: "pool0"
  pooling_param {
    pool: AVE
    kernel_size: 3
    stride: 2
  }
}
layer {
  name: "ip1"
  type: "InnerProduct"
  bottom: "pool0"
  top: "ip1"
  param {
    lr_mult: 1
  }
  param {
    lr_mult: 2
  }
  inner_product_param {
    num_output: 10
    weight_filler {
      type: "gaussian"
      std: 0.01
    }
    bias_filler {
      type: "constant"
    }
  }
}
layer {
  name: "relu1"
  type: "ReLU"
  bottom: "ip1"
  top: "ip1"
}
layer {
  name: "ip2"
  type: "InnerProduct"
  bottom: "ip1"
  top: "ip2"
  param {
    lr_mult: 1
  }
  param {
    lr_mult: 2
  }
  inner_product_param {
    num_output: 180
    weight_filler {
      type: "gaussian"
      std: 0.01
    }
    bias_filler {
      type: "constant"
    }
  }
}
layer {
  name: "relu2"
  type: "ReLU"
  bottom: "ip2"
  top: "ip2"
}
layer {
  name: "ip3"
  type: "InnerProduct"
  bottom: "ip2"
  top: "ip3"
  param {
    lr_mult: 1
  }
  param {
    lr_mult: 2
  }
  inner_product_param {
    num_output: 10
    weight_filler {
      type: "gaussian"
      std: 0.01
    }
    bias_filler {
      type: "constant"
    }
  }
}
layer {
  name: "accuracy"
  type: "Accuracy"
  bottom: "ip3"
  bottom: "label"
  top: "accuracy"
  include {
    phase: TEST
  }
}
layer {
  name: "loss"
  type: "SoftmaxWithLoss"
  bottom: "ip3"
  bottom: "label"
  top: "loss"
}
I0504 01:58:28.158202  8361 layer_factory.hpp:77] Creating layer cifar
I0504 01:58:28.158246  8361 db_lmdb.cpp:35] Opened lmdb examples/cifar10/cifar10_test_lmdb
I0504 01:58:28.158258  8361 net.cpp:86] Creating Layer cifar
I0504 01:58:28.158264  8361 net.cpp:382] cifar -> data
I0504 01:58:28.158272  8361 net.cpp:382] cifar -> label
I0504 01:58:28.158277  8361 data_transformer.cpp:25] Loading mean file from: examples/cifar10/mean.binaryproto
I0504 01:58:28.158418  8361 data_layer.cpp:45] output data size: 1000,3,32,32
I0504 01:58:28.179940  8361 net.cpp:124] Setting up cifar
I0504 01:58:28.179981  8361 net.cpp:131] Top shape: 1000 3 32 32 (3072000)
I0504 01:58:28.180002  8361 net.cpp:131] Top shape: 1000 (1000)
I0504 01:58:28.180006  8361 net.cpp:139] Memory required for data: 12292000
I0504 01:58:28.180011  8361 layer_factory.hpp:77] Creating layer label_cifar_1_split
I0504 01:58:28.180060  8361 net.cpp:86] Creating Layer label_cifar_1_split
I0504 01:58:28.180064  8361 net.cpp:408] label_cifar_1_split <- label
I0504 01:58:28.180070  8361 net.cpp:382] label_cifar_1_split -> label_cifar_1_split_0
I0504 01:58:28.180078  8361 net.cpp:382] label_cifar_1_split -> label_cifar_1_split_1
I0504 01:58:28.180166  8361 net.cpp:124] Setting up label_cifar_1_split
I0504 01:58:28.180173  8361 net.cpp:131] Top shape: 1000 (1000)
I0504 01:58:28.180177  8361 net.cpp:131] Top shape: 1000 (1000)
I0504 01:58:28.180179  8361 net.cpp:139] Memory required for data: 12300000
I0504 01:58:28.180182  8361 layer_factory.hpp:77] Creating layer conv0
I0504 01:58:28.180194  8361 net.cpp:86] Creating Layer conv0
I0504 01:58:28.180197  8361 net.cpp:408] conv0 <- data
I0504 01:58:28.180203  8361 net.cpp:382] conv0 -> conv0
I0504 01:58:28.182073  8361 net.cpp:124] Setting up conv0
I0504 01:58:28.182102  8361 net.cpp:131] Top shape: 1000 72 32 32 (73728000)
I0504 01:58:28.182106  8361 net.cpp:139] Memory required for data: 307212000
I0504 01:58:28.182114  8361 layer_factory.hpp:77] Creating layer Sigmoid0
I0504 01:58:28.182123  8361 net.cpp:86] Creating Layer Sigmoid0
I0504 01:58:28.182126  8361 net.cpp:408] Sigmoid0 <- conv0
I0504 01:58:28.182130  8361 net.cpp:382] Sigmoid0 -> Sigmoid0
I0504 01:58:28.183002  8361 net.cpp:124] Setting up Sigmoid0
I0504 01:58:28.183014  8361 net.cpp:131] Top shape: 1000 72 32 32 (73728000)
I0504 01:58:28.183033  8361 net.cpp:139] Memory required for data: 602124000
I0504 01:58:28.183037  8361 layer_factory.hpp:77] Creating layer pool0
I0504 01:58:28.183046  8361 net.cpp:86] Creating Layer pool0
I0504 01:58:28.183049  8361 net.cpp:408] pool0 <- Sigmoid0
I0504 01:58:28.183068  8361 net.cpp:382] pool0 -> pool0
I0504 01:58:28.184263  8361 net.cpp:124] Setting up pool0
I0504 01:58:28.184293  8361 net.cpp:131] Top shape: 1000 72 16 16 (18432000)
I0504 01:58:28.184298  8361 net.cpp:139] Memory required for data: 675852000
I0504 01:58:28.184300  8361 layer_factory.hpp:77] Creating layer ip1
I0504 01:58:28.184310  8361 net.cpp:86] Creating Layer ip1
I0504 01:58:28.184314  8361 net.cpp:408] ip1 <- pool0
I0504 01:58:28.184319  8361 net.cpp:382] ip1 -> ip1
I0504 01:58:28.189316  8361 net.cpp:124] Setting up ip1
I0504 01:58:28.189324  8361 net.cpp:131] Top shape: 1000 10 (10000)
I0504 01:58:28.189343  8361 net.cpp:139] Memory required for data: 675892000
I0504 01:58:28.189352  8361 layer_factory.hpp:77] Creating layer relu1
I0504 01:58:28.189363  8361 net.cpp:86] Creating Layer relu1
I0504 01:58:28.189366  8361 net.cpp:408] relu1 <- ip1
I0504 01:58:28.189373  8361 net.cpp:369] relu1 -> ip1 (in-place)
I0504 01:58:28.189545  8361 net.cpp:124] Setting up relu1
I0504 01:58:28.189553  8361 net.cpp:131] Top shape: 1000 10 (10000)
I0504 01:58:28.189558  8361 net.cpp:139] Memory required for data: 675932000
I0504 01:58:28.189560  8361 layer_factory.hpp:77] Creating layer ip2
I0504 01:58:28.189566  8361 net.cpp:86] Creating Layer ip2
I0504 01:58:28.189570  8361 net.cpp:408] ip2 <- ip1
I0504 01:58:28.189575  8361 net.cpp:382] ip2 -> ip2
I0504 01:58:28.189734  8361 net.cpp:124] Setting up ip2
I0504 01:58:28.189741  8361 net.cpp:131] Top shape: 1000 180 (180000)
I0504 01:58:28.189744  8361 net.cpp:139] Memory required for data: 676652000
I0504 01:58:28.189751  8361 layer_factory.hpp:77] Creating layer relu2
I0504 01:58:28.189757  8361 net.cpp:86] Creating Layer relu2
I0504 01:58:28.189760  8361 net.cpp:408] relu2 <- ip2
I0504 01:58:28.189774  8361 net.cpp:369] relu2 -> ip2 (in-place)
I0504 01:58:28.189923  8361 net.cpp:124] Setting up relu2
I0504 01:58:28.189930  8361 net.cpp:131] Top shape: 1000 180 (180000)
I0504 01:58:28.189934  8361 net.cpp:139] Memory required for data: 677372000
I0504 01:58:28.189937  8361 layer_factory.hpp:77] Creating layer ip3
I0504 01:58:28.189944  8361 net.cpp:86] Creating Layer ip3
I0504 01:58:28.189947  8361 net.cpp:408] ip3 <- ip2
I0504 01:58:28.189952  8361 net.cpp:382] ip3 -> ip3
I0504 01:58:28.190098  8361 net.cpp:124] Setting up ip3
I0504 01:58:28.190104  8361 net.cpp:131] Top shape: 1000 10 (10000)
I0504 01:58:28.190116  8361 net.cpp:139] Memory required for data: 677412000
I0504 01:58:28.190121  8361 layer_factory.hpp:77] Creating layer ip3_ip3_0_split
I0504 01:58:28.190129  8361 net.cpp:86] Creating Layer ip3_ip3_0_split
I0504 01:58:28.190131  8361 net.cpp:408] ip3_ip3_0_split <- ip3
I0504 01:58:28.190135  8361 net.cpp:382] ip3_ip3_0_split -> ip3_ip3_0_split_0
I0504 01:58:28.190140  8361 net.cpp:382] ip3_ip3_0_split -> ip3_ip3_0_split_1
I0504 01:58:28.190171  8361 net.cpp:124] Setting up ip3_ip3_0_split
I0504 01:58:28.190176  8361 net.cpp:131] Top shape: 1000 10 (10000)
I0504 01:58:28.190179  8361 net.cpp:131] Top shape: 1000 10 (10000)
I0504 01:58:28.190182  8361 net.cpp:139] Memory required for data: 677492000
I0504 01:58:28.190184  8361 layer_factory.hpp:77] Creating layer accuracy
I0504 01:58:28.190191  8361 net.cpp:86] Creating Layer accuracy
I0504 01:58:28.190192  8361 net.cpp:408] accuracy <- ip3_ip3_0_split_0
I0504 01:58:28.190196  8361 net.cpp:408] accuracy <- label_cifar_1_split_0
I0504 01:58:28.190201  8361 net.cpp:382] accuracy -> accuracy
…
