…
I0504 15:57:03.850952  7737 net.cpp:296] The NetState phase (0) differed from the phase (1) specified by a rule in layer cifar
I0504 15:57:03.850983  7737 net.cpp:296] The NetState phase (0) differed from the phase (1) specified by a rule in layer accuracy
I0504 15:57:03.851071  7737 net.cpp:53] Initializing net from parameters: 
name: "CIFAR"
state {
  phase: TRAIN
  level: 0
  stage: ""
}
layer {
  name: "cifar"
  type: "Data"
  top: "data"
  top: "label"
  include {
    phase: TRAIN
  }
  transform_param {
    mean_file: "examples/cifar10/mean.binaryproto"
  }
  data_param {
    source: "examples/cifar10/cifar10_train_lmdb"
    batch_size: 111
    backend: LMDB
  }
}
layer {
  name: "conv0"
  type: "Convolution"
  bottom: "data"
  top: "conv0"
  param {
    lr_mult: 1
  }
  param {
    lr_mult: 2
  }
  convolution_param {
    num_output: 72
    pad: 2
    kernel_size: 3
    stride: 1
    weight_filler {
      type: "gaussian"
      std: 0.01
    }
    bias_filler {
      type: "constant"
    }
  }
}
layer {
  name: "Sigmoid0"
  type: "Sigmoid"
  bottom: "conv0"
  top: "Sigmoid0"
}
layer {
  name: "pool0"
  type: "Pooling"
  bottom: "Sigmoid0"
  top: "pool0"
  pooling_param {
    pool: AVE
    kernel_size: 3
    stride: 2
  }
}
layer {
  name: "conv1"
  type: "Convolution"
  bottom: "pool0"
  top: "conv1"
  param {
    lr_mult: 1
  }
  param {
    lr_mult: 2
  }
  convolution_param {
    num_output: 72
    pad: 2
    kernel_size: 3
    stride: 1
    weight_filler {
      type: "gaussian"
      std: 0.01
    }
    bias_filler {
      type: "constant"
    }
  }
}
layer {
  name: "Sigmoid1"
  type: "Sigmoid"
  bottom: "conv1"
  top: "Sigmoid1"
}
layer {
  name: "pool1"
  type: "Pooling"
  bottom: "Sigmoid1"
  top: "pool1"
  pooling_param {
    pool: AVE
    kernel_size: 3
    stride: 2
  }
}
layer {
  name: "ip1"
  type: "InnerProduct"
  bottom: "pool1"
  top: "ip1"
  param {
    lr_mult: 1
  }
  param {
    lr_mult: 2
  }
  inner_product_param {
    num_output: 10
    weight_filler {
      type: "gaussian"
      std: 0.01
    }
    bias_filler {
      type: "constant"
    }
  }
}
layer {
  name: "relu1"
  type: "ReLU"
  bottom: "ip1"
  top: "ip1"
}
layer {
  name: "ip2"
  type: "InnerProduct"
  bottom: "ip1"
  top: "ip2"
  param {
    lr_mult: 1
  }
  param {
    lr_mult: 2
  }
  inner_product_param {
    num_output: 60
    weight_filler {
      type: "gaussian"
      std: 0.01
    }
    bias_filler {
      type: "constant"
    }
  }
}
layer {
  name: "relu2"
  type: "ReLU"
  bottom: "ip2"
  top: "ip2"
}
layer {
  name: "ip3"
  type: "InnerProduct"
  bottom: "ip2"
  top: "ip3"
  param {
    lr_mult: 1
  }
  param {
    lr_mult: 2
  }
  inner_product_param {
    num_output: 10
    weight_filler {
      type: "gaussian"
      std: 0.01
    }
    bias_filler {
      type: "constant"
    }
  }
}
layer {
  name: "loss"
  type: "SoftmaxWithLoss"
  bottom: "ip3"
  bottom: "label"
  top: "loss"
}
I0504 15:57:03.851157  7737 layer_factory.hpp:77] Creating layer cifar
I0504 15:57:03.851240  7737 db_lmdb.cpp:35] Opened lmdb examples/cifar10/cifar10_train_lmdb
I0504 15:57:03.851261  7737 net.cpp:86] Creating Layer cifar
I0504 15:57:03.851270  7737 net.cpp:382] cifar -> data
I0504 15:57:03.851289  7737 net.cpp:382] cifar -> label
I0504 15:57:03.851299  7737 data_transformer.cpp:25] Loading mean file from: examples/cifar10/mean.binaryproto
I0504 15:57:03.853266  7737 data_layer.cpp:45] output data size: 111,3,32,32
I0504 15:57:03.860055  7737 net.cpp:124] Setting up cifar
I0504 15:57:03.860088  7737 net.cpp:131] Top shape: 111 3 32 32 (340992)
I0504 15:57:03.860093  7737 net.cpp:131] Top shape: 111 (111)
I0504 15:57:03.860095  7737 net.cpp:139] Memory required for data: 1364412
I0504 15:57:03.860101  7737 layer_factory.hpp:77] Creating layer conv0
I0504 15:57:03.860144  7737 net.cpp:86] Creating Layer conv0
I0504 15:57:03.860149  7737 net.cpp:408] conv0 <- data
I0504 15:57:03.860160  7737 net.cpp:382] conv0 -> conv0
I0504 15:57:04.088667  7737 net.cpp:124] Setting up conv0
I0504 15:57:04.088709  7737 net.cpp:131] Top shape: 111 72 34 34 (9238752)
I0504 15:57:04.088713  7737 net.cpp:139] Memory required for data: 38319420
I0504 15:57:04.088728  7737 layer_factory.hpp:77] Creating layer Sigmoid0
I0504 15:57:04.088739  7737 net.cpp:86] Creating Layer Sigmoid0
I0504 15:57:04.088743  7737 net.cpp:408] Sigmoid0 <- conv0
I0504 15:57:04.088748  7737 net.cpp:382] Sigmoid0 -> Sigmoid0
I0504 15:57:04.089012  7737 net.cpp:124] Setting up Sigmoid0
I0504 15:57:04.089022  7737 net.cpp:131] Top shape: 111 72 34 34 (9238752)
I0504 15:57:04.089025  7737 net.cpp:139] Memory required for data: 75274428
I0504 15:57:04.089030  7737 layer_factory.hpp:77] Creating layer pool0
I0504 15:57:04.089036  7737 net.cpp:86] Creating Layer pool0
I0504 15:57:04.089040  7737 net.cpp:408] pool0 <- Sigmoid0
I0504 15:57:04.089045  7737 net.cpp:382] pool0 -> pool0
I0504 15:57:04.089821  7737 net.cpp:124] Setting up pool0
I0504 15:57:04.089849  7737 net.cpp:131] Top shape: 111 72 17 17 (2309688)
I0504 15:57:04.089853  7737 net.cpp:139] Memory required for data: 84513180
I0504 15:57:04.089856  7737 layer_factory.hpp:77] Creating layer conv1
I0504 15:57:04.089869  7737 net.cpp:86] Creating Layer conv1
I0504 15:57:04.089871  7737 net.cpp:408] conv1 <- pool0
I0504 15:57:04.089876  7737 net.cpp:382] conv1 -> conv1
I0504 15:57:04.094508  7737 net.cpp:124] Setting up conv1
I0504 15:57:04.094521  7737 net.cpp:131] Top shape: 111 72 19 19 (2885112)
I0504 15:57:04.094524  7737 net.cpp:139] Memory required for data: 96053628
I0504 15:57:04.094532  7737 layer_factory.hpp:77] Creating layer Sigmoid1
I0504 15:57:04.094538  7737 net.cpp:86] Creating Layer Sigmoid1
I0504 15:57:04.094542  7737 net.cpp:408] Sigmoid1 <- conv1
I0504 15:57:04.094547  7737 net.cpp:382] Sigmoid1 -> Sigmoid1
I0504 15:57:04.094756  7737 net.cpp:124] Setting up Sigmoid1
I0504 15:57:04.094780  7737 net.cpp:131] Top shape: 111 72 19 19 (2885112)
I0504 15:57:04.094784  7737 net.cpp:139] Memory required for data: 107594076
I0504 15:57:04.094787  7737 layer_factory.hpp:77] Creating layer pool1
I0504 15:57:04.094794  7737 net.cpp:86] Creating Layer pool1
I0504 15:57:04.094796  7737 net.cpp:408] pool1 <- Sigmoid1
I0504 15:57:04.094800  7737 net.cpp:382] pool1 -> pool1
I0504 15:57:04.094996  7737 net.cpp:124] Setting up pool1
I0504 15:57:04.095005  7737 net.cpp:131] Top shape: 111 72 9 9 (647352)
I0504 15:57:04.095010  7737 net.cpp:139] Memory required for data: 110183484
I0504 15:57:04.095012  7737 layer_factory.hpp:77] Creating layer ip1
I0504 15:57:04.095021  7737 net.cpp:86] Creating Layer ip1
I0504 15:57:04.095024  7737 net.cpp:408] ip1 <- pool1
I0504 15:57:04.095031  7737 net.cpp:382] ip1 -> ip1
I0504 15:57:04.096760  7737 net.cpp:124] Setting up ip1
I0504 15:57:04.096768  7737 net.cpp:131] Top shape: 111 10 (1110)
I0504 15:57:04.096787  7737 net.cpp:139] Memory required for data: 110187924
I0504 15:57:04.096794  7737 layer_factory.hpp:77] Creating layer relu1
I0504 15:57:04.096801  7737 net.cpp:86] Creating Layer relu1
I0504 15:57:04.096806  7737 net.cpp:408] relu1 <- ip1
I0504 15:57:04.096832  7737 net.cpp:369] relu1 -> ip1 (in-place)
I0504 15:57:04.097072  7737 net.cpp:124] Setting up relu1
I0504 15:57:04.097080  7737 net.cpp:131] Top shape: 111 10 (1110)
I0504 15:57:04.097084  7737 net.cpp:139] Memory required for data: 110192364
I0504 15:57:04.097087  7737 layer_factory.hpp:77] Creating layer ip2
I0504 15:57:04.097095  7737 net.cpp:86] Creating Layer ip2
I0504 15:57:04.097098  7737 net.cpp:408] ip2 <- ip1
I0504 15:57:04.097118  7737 net.cpp:382] ip2 -> ip2
I0504 15:57:04.097285  7737 net.cpp:124] Setting up ip2
I0504 15:57:04.097292  7737 net.cpp:131] Top shape: 111 60 (6660)
I0504 15:57:04.097295  7737 net.cpp:139] Memory required for data: 110219004
I0504 15:57:04.097301  7737 layer_factory.hpp:77] Creating layer relu2
I0504 15:57:04.097322  7737 net.cpp:86] Creating Layer relu2
I0504 15:57:04.097326  7737 net.cpp:408] relu2 <- ip2
I0504 15:57:04.097329  7737 net.cpp:369] relu2 -> ip2 (in-place)
I0504 15:57:04.098140  7737 net.cpp:124] Setting up relu2
I0504 15:57:04.098151  7737 net.cpp:131] Top shape: 111 60 (6660)
I0504 15:57:04.098170  7737 net.cpp:139] Memory required for data: 110245644
I0504 15:57:04.098172  7737 layer_factory.hpp:77] Creating layer ip3
I0504 15:57:04.098196  7737 net.cpp:86] Creating Layer ip3
I0504 15:57:04.098199  7737 net.cpp:408] ip3 <- ip2
I0504 15:57:04.098206  7737 net.cpp:382] ip3 -> ip3
I0504 15:57:04.098340  7737 net.cpp:124] Setting up ip3
I0504 15:57:04.098348  7737 net.cpp:131] Top shape: 111 10 (1110)
I0504 15:57:04.098351  7737 net.cpp:139] Memory required for data: 110250084
I0504 15:57:04.098359  7737 layer_factory.hpp:77] Creating layer loss
I0504 15:57:04.098366  7737 net.cpp:86] Creating Layer loss
I0504 15:57:04.098368  7737 net.cpp:408] loss <- ip3
I0504 15:57:04.098371  7737 net.cpp:408] loss <- label
I0504 15:57:04.098376  7737 net.cpp:382] loss -> loss
I0504 15:57:04.098390  7737 layer_factory.hpp:77] Creating layer loss
…
I0504 15:57:04.099103  7737 solver.cpp:173] Creating test net (#0) specified by net file: ECE595/cifar/train_test/var_everything_tiny/cifar_train_test_184.prototxt
I0504 15:57:04.099161  7737 net.cpp:296] The NetState phase (1) differed from the phase (0) specified by a rule in layer cifar
I0504 15:57:04.099264  7737 net.cpp:53] Initializing net from parameters: 
name: "CIFAR"
state {
  phase: TEST
}
layer {
  name: "cifar"
  type: "Data"
  top: "data"
  top: "label"
  include {
    phase: TEST
  }
  transform_param {
    mean_file: "examples/cifar10/mean.binaryproto"
  }
  data_param {
    source: "examples/cifar10/cifar10_test_lmdb"
    batch_size: 1000
    backend: LMDB
  }
}
layer {
  name: "conv0"
  type: "Convolution"
  bottom: "data"
  top: "conv0"
  param {
    lr_mult: 1
  }
  param {
    lr_mult: 2
  }
  convolution_param {
    num_output: 72
    pad: 2
    kernel_size: 3
    stride: 1
    weight_filler {
      type: "gaussian"
      std: 0.01
    }
    bias_filler {
      type: "constant"
    }
  }
}
layer {
  name: "Sigmoid0"
  type: "Sigmoid"
  bottom: "conv0"
  top: "Sigmoid0"
}
layer {
  name: "pool0"
  type: "Pooling"
  bottom: "Sigmoid0"
  top: "pool0"
  pooling_param {
    pool: AVE
    kernel_size: 3
    stride: 2
  }
}
layer {
  name: "conv1"
  type: "Convolution"
  bottom: "pool0"
  top: "conv1"
  param {
    lr_mult: 1
  }
  param {
    lr_mult: 2
  }
  convolution_param {
    num_output: 72
    pad: 2
    kernel_size: 3
    stride: 1
    weight_filler {
      type: "gaussian"
      std: 0.01
    }
    bias_filler {
      type: "constant"
    }
  }
}
layer {
  name: "Sigmoid1"
  type: "Sigmoid"
  bottom: "conv1"
  top: "Sigmoid1"
}
layer {
  name: "pool1"
  type: "Pooling"
  bottom: "Sigmoid1"
  top: "pool1"
  pooling_param {
    pool: AVE
    kernel_size: 3
    stride: 2
  }
}
layer {
  name: "ip1"
  type: "InnerProduct"
  bottom: "pool1"
  top: "ip1"
  param {
    lr_mult: 1
  }
  param {
    lr_mult: 2
  }
  inner_product_param {
    num_output: 10
    weight_filler {
      type: "gaussian"
      std: 0.01
    }
    bias_filler {
      type: "constant"
    }
  }
}
layer {
  name: "relu1"
  type: "ReLU"
  bottom: "ip1"
  top: "ip1"
}
layer {
  name: "ip2"
  type: "InnerProduct"
  bottom: "ip1"
  top: "ip2"
  param {
    lr_mult: 1
  }
  param {
    lr_mult: 2
  }
  inner_product_param {
    num_output: 60
    weight_filler {
      type: "gaussian"
      std: 0.01
    }
    bias_filler {
      type: "constant"
    }
  }
}
layer {
  name: "relu2"
  type: "ReLU"
  bottom: "ip2"
  top: "ip2"
}
layer {
  name: "ip3"
  type: "InnerProduct"
  bottom: "ip2"
  top: "ip3"
  param {
    lr_mult: 1
  }
  param {
    lr_mult: 2
  }
  inner_product_param {
    num_output: 10
    weight_filler {
      type: "gaussian"
      std: 0.01
    }
    bias_filler {
      type: "constant"
    }
  }
}
layer {
  name: "accuracy"
  type: "Accuracy"
  bottom: "ip3"
  bottom: "label"
  top: "accuracy"
  include {
    phase: TEST
  }
}
layer {
  name: "loss"
  type: "SoftmaxWithLoss"
  bottom: "ip3"
  bottom: "label"
  top: "loss"
}
I0504 15:57:04.099354  7737 layer_factory.hpp:77] Creating layer cifar
I0504 15:57:04.099403  7737 db_lmdb.cpp:35] Opened lmdb examples/cifar10/cifar10_test_lmdb
I0504 15:57:04.099416  7737 net.cpp:86] Creating Layer cifar
I0504 15:57:04.099421  7737 net.cpp:382] cifar -> data
I0504 15:57:04.099428  7737 net.cpp:382] cifar -> label
I0504 15:57:04.099436  7737 data_transformer.cpp:25] Loading mean file from: examples/cifar10/mean.binaryproto
I0504 15:57:04.099617  7737 data_layer.cpp:45] output data size: 1000,3,32,32
I0504 15:57:04.121785  7737 net.cpp:124] Setting up cifar
I0504 15:57:04.121826  7737 net.cpp:131] Top shape: 1000 3 32 32 (3072000)
I0504 15:57:04.121831  7737 net.cpp:131] Top shape: 1000 (1000)
I0504 15:57:04.121834  7737 net.cpp:139] Memory required for data: 12292000
I0504 15:57:04.121840  7737 layer_factory.hpp:77] Creating layer label_cifar_1_split
I0504 15:57:04.121851  7737 net.cpp:86] Creating Layer label_cifar_1_split
I0504 15:57:04.121855  7737 net.cpp:408] label_cifar_1_split <- label
I0504 15:57:04.121862  7737 net.cpp:382] label_cifar_1_split -> label_cifar_1_split_0
I0504 15:57:04.121871  7737 net.cpp:382] label_cifar_1_split -> label_cifar_1_split_1
I0504 15:57:04.121953  7737 net.cpp:124] Setting up label_cifar_1_split
I0504 15:57:04.121960  7737 net.cpp:131] Top shape: 1000 (1000)
I0504 15:57:04.121963  7737 net.cpp:131] Top shape: 1000 (1000)
I0504 15:57:04.121966  7737 net.cpp:139] Memory required for data: 12300000
I0504 15:57:04.121969  7737 layer_factory.hpp:77] Creating layer conv0
I0504 15:57:04.121981  7737 net.cpp:86] Creating Layer conv0
I0504 15:57:04.121985  7737 net.cpp:408] conv0 <- data
I0504 15:57:04.121990  7737 net.cpp:382] conv0 -> conv0
I0504 15:57:04.123663  7737 net.cpp:124] Setting up conv0
I0504 15:57:04.123693  7737 net.cpp:131] Top shape: 1000 72 34 34 (83232000)
I0504 15:57:04.123697  7737 net.cpp:139] Memory required for data: 345228000
I0504 15:57:04.123721  7737 layer_factory.hpp:77] Creating layer Sigmoid0
I0504 15:57:04.123744  7737 net.cpp:86] Creating Layer Sigmoid0
I0504 15:57:04.123746  7737 net.cpp:408] Sigmoid0 <- conv0
I0504 15:57:04.123751  7737 net.cpp:382] Sigmoid0 -> Sigmoid0
I0504 15:57:04.124037  7737 net.cpp:124] Setting up Sigmoid0
I0504 15:57:04.124059  7737 net.cpp:131] Top shape: 1000 72 34 34 (83232000)
I0504 15:57:04.124063  7737 net.cpp:139] Memory required for data: 678156000
I0504 15:57:04.124068  7737 layer_factory.hpp:77] Creating layer pool0
I0504 15:57:04.124076  7737 net.cpp:86] Creating Layer pool0
I0504 15:57:04.124079  7737 net.cpp:408] pool0 <- Sigmoid0
I0504 15:57:04.124084  7737 net.cpp:382] pool0 -> pool0
I0504 15:57:04.125298  7737 net.cpp:124] Setting up pool0
I0504 15:57:04.125324  7737 net.cpp:131] Top shape: 1000 72 17 17 (20808000)
I0504 15:57:04.125344  7737 net.cpp:139] Memory required for data: 761388000
I0504 15:57:04.125346  7737 layer_factory.hpp:77] Creating layer conv1
I0504 15:57:04.125357  7737 net.cpp:86] Creating Layer conv1
I0504 15:57:04.125361  7737 net.cpp:408] conv1 <- pool0
I0504 15:57:04.125367  7737 net.cpp:382] conv1 -> conv1
I0504 15:57:04.128135  7737 net.cpp:124] Setting up conv1
I0504 15:57:04.128147  7737 net.cpp:131] Top shape: 1000 72 19 19 (25992000)
I0504 15:57:04.128165  7737 net.cpp:139] Memory required for data: 865356000
I0504 15:57:04.128175  7737 layer_factory.hpp:77] Creating layer Sigmoid1
I0504 15:57:04.128181  7737 net.cpp:86] Creating Layer Sigmoid1
I0504 15:57:04.128185  7737 net.cpp:408] Sigmoid1 <- conv1
I0504 15:57:04.128188  7737 net.cpp:382] Sigmoid1 -> Sigmoid1
I0504 15:57:04.128389  7737 net.cpp:124] Setting up Sigmoid1
I0504 15:57:04.128401  7737 net.cpp:131] Top shape: 1000 72 19 19 (25992000)
I0504 15:57:04.128403  7737 net.cpp:139] Memory required for data: 969324000
I0504 15:57:04.128407  7737 layer_factory.hpp:77] Creating layer pool1
I0504 15:57:04.128413  7737 net.cpp:86] Creating Layer pool1
I0504 15:57:04.128417  7737 net.cpp:408] pool1 <- Sigmoid1
I0504 15:57:04.128422  7737 net.cpp:382] pool1 -> pool1
I0504 15:57:04.129343  7737 net.cpp:124] Setting up pool1
I0504 15:57:04.129355  7737 net.cpp:131] Top shape: 1000 72 9 9 (5832000)
I0504 15:57:04.129374  7737 net.cpp:139] Memory required for data: 992652000
I0504 15:57:04.129377  7737 layer_factory.hpp:77] Creating layer ip1
I0504 15:57:04.129387  7737 net.cpp:86] Creating Layer ip1
I0504 15:57:04.129390  7737 net.cpp:408] ip1 <- pool1
I0504 15:57:04.129396  7737 net.cpp:382] ip1 -> ip1
I0504 15:57:04.131285  7737 net.cpp:124] Setting up ip1
I0504 15:57:04.131309  7737 net.cpp:131] Top shape: 1000 10 (10000)
I0504 15:57:04.131325  7737 net.cpp:139] Memory required for data: 992692000
I0504 15:57:04.131352  7737 layer_factory.hpp:77] Creating layer relu1
I0504 15:57:04.131376  7737 net.cpp:86] Creating Layer relu1
I0504 15:57:04.131379  7737 net.cpp:408] relu1 <- ip1
I0504 15:57:04.131384  7737 net.cpp:369] relu1 -> ip1 (in-place)
I0504 15:57:04.131577  7737 net.cpp:124] Setting up relu1
I0504 15:57:04.131590  7737 net.cpp:131] Top shape: 1000 10 (10000)
I0504 15:57:04.131594  7737 net.cpp:139] Memory required for data: 992732000
I0504 15:57:04.131597  7737 layer_factory.hpp:77] Creating layer ip2
I0504 15:57:04.131608  7737 net.cpp:86] Creating Layer ip2
I0504 15:57:04.131613  7737 net.cpp:408] ip2 <- ip1
I0504 15:57:04.131618  7737 net.cpp:382] ip2 -> ip2
I0504 15:57:04.131762  7737 net.cpp:124] Setting up ip2
I0504 15:57:04.131770  7737 net.cpp:131] Top shape: 1000 60 (60000)
I0504 15:57:04.131773  7737 net.cpp:139] Memory required for data: 992972000
I0504 15:57:04.131779  7737 layer_factory.hpp:77] Creating layer relu2
I0504 15:57:04.131784  7737 net.cpp:86] Creating Layer relu2
I0504 15:57:04.131788  7737 net.cpp:408] relu2 <- ip2
I0504 15:57:04.131793  7737 net.cpp:369] relu2 -> ip2 (in-place)
I0504 15:57:04.131983  7737 net.cpp:124] Setting up relu2
I0504 15:57:04.131990  7737 net.cpp:131] Top shape: 1000 60 (60000)
I0504 15:57:04.131994  7737 net.cpp:139] Memory required for data: 993212000
I0504 15:57:04.131997  7737 layer_factory.hpp:77] Creating layer ip3
I0504 15:57:04.132004  7737 net.cpp:86] Creating Layer ip3
I0504 15:57:04.132007  7737 net.cpp:408] ip3 <- ip2
I0504 15:57:04.132014  7737 net.cpp:382] ip3 -> ip3
I0504 15:57:04.132133  7737 net.cpp:124] Setting up ip3
I0504 15:57:04.132141  7737 net.cpp:131] Top shape: 1000 10 (10000)
I0504 15:57:04.132155  7737 net.cpp:139] Memory required for data: 993252000
I0504 15:57:04.132164  7737 layer_factory.hpp:77] Creating layer ip3_ip3_0_split
I0504 15:57:04.132169  7737 net.cpp:86] Creating Layer ip3_ip3_0_split
I0504 15:57:04.132174  7737 net.cpp:408] ip3_ip3_0_split <- ip3
I0504 15:57:04.132179  7737 net.cpp:382] ip3_ip3_0_split -> ip3_ip3_0_split_0
I0504 15:57:04.132184  7737 net.cpp:382] ip3_ip3_0_split -> ip3_ip3_0_split_1
I0504 15:57:04.132220  7737 net.cpp:124] Setting up ip3_ip3_0_split
I0504 15:57:04.132225  7737 net.cpp:131] Top shape: 1000 10 (10000)
I0504 15:57:04.132230  7737 net.cpp:131] Top shape: 1000 10 (10000)
I0504 15:57:04.132232  7737 net.cpp:139] Memory required for data: 993332000
I0504 15:57:04.132236  7737 layer_factory.hpp:77] Creating layer accuracy
I0504 15:57:04.132241  7737 net.cpp:86] Creating Layer accuracy
I0504 15:57:04.132244  7737 net.cpp:408] accuracy <- ip3_ip3_0_split_0
I0504 15:57:04.132248  7737 net.cpp:408] accuracy <- label_cifar_1_split_0
I0504 15:57:04.132256  7737 net.cpp:382] accuracy -> accuracy
…
