…
I0504 09:47:23.468817 24098 net.cpp:296] The NetState phase (0) differed from the phase (1) specified by a rule in layer cifar
I0504 09:47:23.468839 24098 net.cpp:296] The NetState phase (0) differed from the phase (1) specified by a rule in layer accuracy
I0504 09:47:23.468953 24098 net.cpp:53] Initializing net from parameters: 
name: "CIFAR"
state {
  phase: TRAIN
  level: 0
  stage: ""
}
layer {
  name: "cifar"
  type: "Data"
  top: "data"
  top: "label"
  include {
    phase: TRAIN
  }
  transform_param {
    mean_file: "examples/cifar10/mean.binaryproto"
  }
  data_param {
    source: "examples/cifar10/cifar10_train_lmdb"
    batch_size: 111
    backend: LMDB
  }
}
layer {
  name: "conv0"
  type: "Convolution"
  bottom: "data"
  top: "conv0"
  param {
    lr_mult: 1
  }
  param {
    lr_mult: 2
  }
  convolution_param {
    num_output: 24
    pad: 2
    kernel_size: 5
    stride: 1
    weight_filler {
      type: "gaussian"
      std: 0.01
    }
    bias_filler {
      type: "constant"
    }
  }
}
layer {
  name: "Sigmoid0"
  type: "Sigmoid"
  bottom: "conv0"
  top: "Sigmoid0"
}
layer {
  name: "pool0"
  type: "Pooling"
  bottom: "Sigmoid0"
  top: "pool0"
  pooling_param {
    pool: AVE
    kernel_size: 3
    stride: 2
  }
}
layer {
  name: "conv1"
  type: "Convolution"
  bottom: "pool0"
  top: "conv1"
  param {
    lr_mult: 1
  }
  param {
    lr_mult: 2
  }
  convolution_param {
    num_output: 72
    pad: 2
    kernel_size: 3
    stride: 1
    weight_filler {
      type: "gaussian"
      std: 0.01
    }
    bias_filler {
      type: "constant"
    }
  }
}
layer {
  name: "Sigmoid1"
  type: "Sigmoid"
  bottom: "conv1"
  top: "Sigmoid1"
}
layer {
  name: "pool1"
  type: "Pooling"
  bottom: "Sigmoid1"
  top: "pool1"
  pooling_param {
    pool: AVE
    kernel_size: 3
    stride: 2
  }
}
layer {
  name: "ip1"
  type: "InnerProduct"
  bottom: "pool1"
  top: "ip1"
  param {
    lr_mult: 1
  }
  param {
    lr_mult: 2
  }
  inner_product_param {
    num_output: 10
    weight_filler {
      type: "gaussian"
      std: 0.01
    }
    bias_filler {
      type: "constant"
    }
  }
}
layer {
  name: "relu1"
  type: "ReLU"
  bottom: "ip1"
  top: "ip1"
}
layer {
  name: "ip2"
  type: "InnerProduct"
  bottom: "ip1"
  top: "ip2"
  param {
    lr_mult: 1
  }
  param {
    lr_mult: 2
  }
  inner_product_param {
    num_output: 60
    weight_filler {
      type: "gaussian"
      std: 0.01
    }
    bias_filler {
      type: "constant"
    }
  }
}
layer {
  name: "relu2"
  type: "ReLU"
  bottom: "ip2"
  top: "ip2"
}
layer {
  name: "ip3"
  type: "InnerProduct"
  bottom: "ip2"
  top: "ip3"
  param {
    lr_mult: 1
  }
  param {
    lr_mult: 2
  }
  inner_product_param {
    num_output: 10
    weight_filler {
      type: "gaussian"
      std: 0.01
    }
    bias_filler {
      type: "constant"
    }
  }
}
layer {
  name: "loss"
  type: "SoftmaxWithLoss"
  bottom: "ip3"
  bottom: "label"
  top: "loss"
}
I0504 09:47:23.469038 24098 layer_factory.hpp:77] Creating layer cifar
I0504 09:47:23.469139 24098 db_lmdb.cpp:35] Opened lmdb examples/cifar10/cifar10_train_lmdb
I0504 09:47:23.469168 24098 net.cpp:86] Creating Layer cifar
I0504 09:47:23.469179 24098 net.cpp:382] cifar -> data
I0504 09:47:23.469202 24098 net.cpp:382] cifar -> label
I0504 09:47:23.469215 24098 data_transformer.cpp:25] Loading mean file from: examples/cifar10/mean.binaryproto
I0504 09:47:23.471390 24098 data_layer.cpp:45] output data size: 111,3,32,32
I0504 09:47:23.479370 24098 net.cpp:124] Setting up cifar
I0504 09:47:23.479390 24098 net.cpp:131] Top shape: 111 3 32 32 (340992)
I0504 09:47:23.479398 24098 net.cpp:131] Top shape: 111 (111)
I0504 09:47:23.479400 24098 net.cpp:139] Memory required for data: 1364412
I0504 09:47:23.479408 24098 layer_factory.hpp:77] Creating layer conv0
I0504 09:47:23.479429 24098 net.cpp:86] Creating Layer conv0
I0504 09:47:23.479434 24098 net.cpp:408] conv0 <- data
I0504 09:47:23.479447 24098 net.cpp:382] conv0 -> conv0
I0504 09:47:23.774966 24098 net.cpp:124] Setting up conv0
I0504 09:47:23.774999 24098 net.cpp:131] Top shape: 111 24 32 32 (2727936)
I0504 09:47:23.775004 24098 net.cpp:139] Memory required for data: 12276156
I0504 09:47:23.775022 24098 layer_factory.hpp:77] Creating layer Sigmoid0
I0504 09:47:23.775035 24098 net.cpp:86] Creating Layer Sigmoid0
I0504 09:47:23.775050 24098 net.cpp:408] Sigmoid0 <- conv0
I0504 09:47:23.775058 24098 net.cpp:382] Sigmoid0 -> Sigmoid0
I0504 09:47:23.775274 24098 net.cpp:124] Setting up Sigmoid0
I0504 09:47:23.775286 24098 net.cpp:131] Top shape: 111 24 32 32 (2727936)
I0504 09:47:23.775290 24098 net.cpp:139] Memory required for data: 23187900
I0504 09:47:23.775295 24098 layer_factory.hpp:77] Creating layer pool0
I0504 09:47:23.775305 24098 net.cpp:86] Creating Layer pool0
I0504 09:47:23.775311 24098 net.cpp:408] pool0 <- Sigmoid0
I0504 09:47:23.775316 24098 net.cpp:382] pool0 -> pool0
I0504 09:47:23.776199 24098 net.cpp:124] Setting up pool0
I0504 09:47:23.776216 24098 net.cpp:131] Top shape: 111 24 16 16 (681984)
I0504 09:47:23.776221 24098 net.cpp:139] Memory required for data: 25915836
I0504 09:47:23.776224 24098 layer_factory.hpp:77] Creating layer conv1
I0504 09:47:23.776238 24098 net.cpp:86] Creating Layer conv1
I0504 09:47:23.776245 24098 net.cpp:408] conv1 <- pool0
I0504 09:47:23.776252 24098 net.cpp:382] conv1 -> conv1
I0504 09:47:23.779949 24098 net.cpp:124] Setting up conv1
I0504 09:47:23.779966 24098 net.cpp:131] Top shape: 111 72 18 18 (2589408)
I0504 09:47:23.779971 24098 net.cpp:139] Memory required for data: 36273468
I0504 09:47:23.779983 24098 layer_factory.hpp:77] Creating layer Sigmoid1
I0504 09:47:23.779991 24098 net.cpp:86] Creating Layer Sigmoid1
I0504 09:47:23.779995 24098 net.cpp:408] Sigmoid1 <- conv1
I0504 09:47:23.780001 24098 net.cpp:382] Sigmoid1 -> Sigmoid1
I0504 09:47:23.780227 24098 net.cpp:124] Setting up Sigmoid1
I0504 09:47:23.780239 24098 net.cpp:131] Top shape: 111 72 18 18 (2589408)
I0504 09:47:23.780243 24098 net.cpp:139] Memory required for data: 46631100
I0504 09:47:23.780247 24098 layer_factory.hpp:77] Creating layer pool1
I0504 09:47:23.780256 24098 net.cpp:86] Creating Layer pool1
I0504 09:47:23.780264 24098 net.cpp:408] pool1 <- Sigmoid1
I0504 09:47:23.780269 24098 net.cpp:382] pool1 -> pool1
I0504 09:47:23.780503 24098 net.cpp:124] Setting up pool1
I0504 09:47:23.780516 24098 net.cpp:131] Top shape: 111 72 9 9 (647352)
I0504 09:47:23.780519 24098 net.cpp:139] Memory required for data: 49220508
I0504 09:47:23.780524 24098 layer_factory.hpp:77] Creating layer ip1
I0504 09:47:23.780539 24098 net.cpp:86] Creating Layer ip1
I0504 09:47:23.780544 24098 net.cpp:408] ip1 <- pool1
I0504 09:47:23.780551 24098 net.cpp:382] ip1 -> ip1
I0504 09:47:23.783568 24098 net.cpp:124] Setting up ip1
I0504 09:47:23.783584 24098 net.cpp:131] Top shape: 111 10 (1110)
I0504 09:47:23.783588 24098 net.cpp:139] Memory required for data: 49224948
I0504 09:47:23.783598 24098 layer_factory.hpp:77] Creating layer relu1
I0504 09:47:23.783607 24098 net.cpp:86] Creating Layer relu1
I0504 09:47:23.783612 24098 net.cpp:408] relu1 <- ip1
I0504 09:47:23.783619 24098 net.cpp:369] relu1 -> ip1 (in-place)
I0504 09:47:23.783828 24098 net.cpp:124] Setting up relu1
I0504 09:47:23.783839 24098 net.cpp:131] Top shape: 111 10 (1110)
I0504 09:47:23.783843 24098 net.cpp:139] Memory required for data: 49229388
I0504 09:47:23.783848 24098 layer_factory.hpp:77] Creating layer ip2
I0504 09:47:23.783856 24098 net.cpp:86] Creating Layer ip2
I0504 09:47:23.783864 24098 net.cpp:408] ip2 <- ip1
I0504 09:47:23.783885 24098 net.cpp:382] ip2 -> ip2
I0504 09:47:23.784045 24098 net.cpp:124] Setting up ip2
I0504 09:47:23.784054 24098 net.cpp:131] Top shape: 111 60 (6660)
I0504 09:47:23.784059 24098 net.cpp:139] Memory required for data: 49256028
I0504 09:47:23.784065 24098 layer_factory.hpp:77] Creating layer relu2
I0504 09:47:23.784075 24098 net.cpp:86] Creating Layer relu2
I0504 09:47:23.784081 24098 net.cpp:408] relu2 <- ip2
I0504 09:47:23.784086 24098 net.cpp:369] relu2 -> ip2 (in-place)
I0504 09:47:23.784961 24098 net.cpp:124] Setting up relu2
I0504 09:47:23.784977 24098 net.cpp:131] Top shape: 111 60 (6660)
I0504 09:47:23.784981 24098 net.cpp:139] Memory required for data: 49282668
I0504 09:47:23.784986 24098 layer_factory.hpp:77] Creating layer ip3
I0504 09:47:23.784996 24098 net.cpp:86] Creating Layer ip3
I0504 09:47:23.784999 24098 net.cpp:408] ip3 <- ip2
I0504 09:47:23.785006 24098 net.cpp:382] ip3 -> ip3
I0504 09:47:23.785161 24098 net.cpp:124] Setting up ip3
I0504 09:47:23.785172 24098 net.cpp:131] Top shape: 111 10 (1110)
I0504 09:47:23.785176 24098 net.cpp:139] Memory required for data: 49287108
I0504 09:47:23.785187 24098 layer_factory.hpp:77] Creating layer loss
I0504 09:47:23.785195 24098 net.cpp:86] Creating Layer loss
I0504 09:47:23.785199 24098 net.cpp:408] loss <- ip3
I0504 09:47:23.785203 24098 net.cpp:408] loss <- label
I0504 09:47:23.785209 24098 net.cpp:382] loss -> loss
I0504 09:47:23.785228 24098 layer_factory.hpp:77] Creating layer loss
…
I0504 09:47:23.786041 24098 solver.cpp:173] Creating test net (#0) specified by net file: ECE595/cifar/train_test/var_everything_tiny/cifar_train_test_124.prototxt
I0504 09:47:23.786074 24098 net.cpp:296] The NetState phase (1) differed from the phase (0) specified by a rule in layer cifar
I0504 09:47:23.786204 24098 net.cpp:53] Initializing net from parameters: 
name: "CIFAR"
state {
  phase: TEST
}
layer {
  name: "cifar"
  type: "Data"
  top: "data"
  top: "label"
  include {
    phase: TEST
  }
  transform_param {
    mean_file: "examples/cifar10/mean.binaryproto"
  }
  data_param {
    source: "examples/cifar10/cifar10_test_lmdb"
    batch_size: 1000
    backend: LMDB
  }
}
layer {
  name: "conv0"
  type: "Convolution"
  bottom: "data"
  top: "conv0"
  param {
    lr_mult: 1
  }
  param {
    lr_mult: 2
  }
  convolution_param {
    num_output: 24
    pad: 2
    kernel_size: 5
    stride: 1
    weight_filler {
      type: "gaussian"
      std: 0.01
    }
    bias_filler {
      type: "constant"
    }
  }
}
layer {
  name: "Sigmoid0"
  type: "Sigmoid"
  bottom: "conv0"
  top: "Sigmoid0"
}
layer {
  name: "pool0"
  type: "Pooling"
  bottom: "Sigmoid0"
  top: "pool0"
  pooling_param {
    pool: AVE
    kernel_size: 3
    stride: 2
  }
}
layer {
  name: "conv1"
  type: "Convolution"
  bottom: "pool0"
  top: "conv1"
  param {
    lr_mult: 1
  }
  param {
    lr_mult: 2
  }
  convolution_param {
    num_output: 72
    pad: 2
    kernel_size: 3
    stride: 1
    weight_filler {
      type: "gaussian"
      std: 0.01
    }
    bias_filler {
      type: "constant"
    }
  }
}
layer {
  name: "Sigmoid1"
  type: "Sigmoid"
  bottom: "conv1"
  top: "Sigmoid1"
}
layer {
  name: "pool1"
  type: "Pooling"
  bottom: "Sigmoid1"
  top: "pool1"
  pooling_param {
    pool: AVE
    kernel_size: 3
    stride: 2
  }
}
layer {
  name: "ip1"
  type: "InnerProduct"
  bottom: "pool1"
  top: "ip1"
  param {
    lr_mult: 1
  }
  param {
    lr_mult: 2
  }
  inner_product_param {
    num_output: 10
    weight_filler {
      type: "gaussian"
      std: 0.01
    }
    bias_filler {
      type: "constant"
    }
  }
}
layer {
  name: "relu1"
  type: "ReLU"
  bottom: "ip1"
  top: "ip1"
}
layer {
  name: "ip2"
  type: "InnerProduct"
  bottom: "ip1"
  top: "ip2"
  param {
    lr_mult: 1
  }
  param {
    lr_mult: 2
  }
  inner_product_param {
    num_output: 60
    weight_filler {
      type: "gaussian"
      std: 0.01
    }
    bias_filler {
      type: "constant"
    }
  }
}
layer {
  name: "relu2"
  type: "ReLU"
  bottom: "ip2"
  top: "ip2"
}
layer {
  name: "ip3"
  type: "InnerProduct"
  bottom: "ip2"
  top: "ip3"
  param {
    lr_mult: 1
  }
  param {
    lr_mult: 2
  }
  inner_product_param {
    num_output: 10
    weight_filler {
      type: "gaussian"
      std: 0.01
    }
    bias_filler {
      type: "constant"
    }
  }
}
layer {
  name: "accuracy"
  type: "Accuracy"
  bottom: "ip3"
  bottom: "label"
  top: "accuracy"
  include {
    phase: TEST
  }
}
layer {
  name: "loss"
  type: "SoftmaxWithLoss"
  bottom: "ip3"
  bottom: "label"
  top: "loss"
}
I0504 09:47:23.786308 24098 layer_factory.hpp:77] Creating layer cifar
I0504 09:47:23.786363 24098 db_lmdb.cpp:35] Opened lmdb examples/cifar10/cifar10_test_lmdb
I0504 09:47:23.786381 24098 net.cpp:86] Creating Layer cifar
I0504 09:47:23.786389 24098 net.cpp:382] cifar -> data
I0504 09:47:23.786399 24098 net.cpp:382] cifar -> label
I0504 09:47:23.786409 24098 data_transformer.cpp:25] Loading mean file from: examples/cifar10/mean.binaryproto
I0504 09:47:23.786593 24098 data_layer.cpp:45] output data size: 1000,3,32,32
I0504 09:47:23.812399 24098 net.cpp:124] Setting up cifar
I0504 09:47:23.812429 24098 net.cpp:131] Top shape: 1000 3 32 32 (3072000)
I0504 09:47:23.812436 24098 net.cpp:131] Top shape: 1000 (1000)
I0504 09:47:23.812439 24098 net.cpp:139] Memory required for data: 12292000
I0504 09:47:23.812446 24098 layer_factory.hpp:77] Creating layer label_cifar_1_split
I0504 09:47:23.812465 24098 net.cpp:86] Creating Layer label_cifar_1_split
I0504 09:47:23.812470 24098 net.cpp:408] label_cifar_1_split <- label
I0504 09:47:23.812479 24098 net.cpp:382] label_cifar_1_split -> label_cifar_1_split_0
I0504 09:47:23.812489 24098 net.cpp:382] label_cifar_1_split -> label_cifar_1_split_1
I0504 09:47:23.812602 24098 net.cpp:124] Setting up label_cifar_1_split
I0504 09:47:23.812613 24098 net.cpp:131] Top shape: 1000 (1000)
I0504 09:47:23.812618 24098 net.cpp:131] Top shape: 1000 (1000)
I0504 09:47:23.812621 24098 net.cpp:139] Memory required for data: 12300000
I0504 09:47:23.812625 24098 layer_factory.hpp:77] Creating layer conv0
I0504 09:47:23.812643 24098 net.cpp:86] Creating Layer conv0
I0504 09:47:23.812649 24098 net.cpp:408] conv0 <- data
I0504 09:47:23.812655 24098 net.cpp:382] conv0 -> conv0
I0504 09:47:23.815554 24098 net.cpp:124] Setting up conv0
I0504 09:47:23.815573 24098 net.cpp:131] Top shape: 1000 24 32 32 (24576000)
I0504 09:47:23.815577 24098 net.cpp:139] Memory required for data: 110604000
I0504 09:47:23.815589 24098 layer_factory.hpp:77] Creating layer Sigmoid0
I0504 09:47:23.815598 24098 net.cpp:86] Creating Layer Sigmoid0
I0504 09:47:23.815603 24098 net.cpp:408] Sigmoid0 <- conv0
I0504 09:47:23.815613 24098 net.cpp:382] Sigmoid0 -> Sigmoid0
I0504 09:47:23.815837 24098 net.cpp:124] Setting up Sigmoid0
I0504 09:47:23.815863 24098 net.cpp:131] Top shape: 1000 24 32 32 (24576000)
I0504 09:47:23.815867 24098 net.cpp:139] Memory required for data: 208908000
I0504 09:47:23.815872 24098 layer_factory.hpp:77] Creating layer pool0
I0504 09:47:23.815883 24098 net.cpp:86] Creating Layer pool0
I0504 09:47:23.815891 24098 net.cpp:408] pool0 <- Sigmoid0
I0504 09:47:23.815896 24098 net.cpp:382] pool0 -> pool0
I0504 09:47:23.816112 24098 net.cpp:124] Setting up pool0
I0504 09:47:23.816123 24098 net.cpp:131] Top shape: 1000 24 16 16 (6144000)
I0504 09:47:23.816126 24098 net.cpp:139] Memory required for data: 233484000
I0504 09:47:23.816130 24098 layer_factory.hpp:77] Creating layer conv1
I0504 09:47:23.816143 24098 net.cpp:86] Creating Layer conv1
I0504 09:47:23.816149 24098 net.cpp:408] conv1 <- pool0
I0504 09:47:23.816159 24098 net.cpp:382] conv1 -> conv1
I0504 09:47:23.818281 24098 net.cpp:124] Setting up conv1
I0504 09:47:23.818300 24098 net.cpp:131] Top shape: 1000 72 18 18 (23328000)
I0504 09:47:23.818303 24098 net.cpp:139] Memory required for data: 326796000
I0504 09:47:23.818313 24098 layer_factory.hpp:77] Creating layer Sigmoid1
I0504 09:47:23.818321 24098 net.cpp:86] Creating Layer Sigmoid1
I0504 09:47:23.818325 24098 net.cpp:408] Sigmoid1 <- conv1
I0504 09:47:23.818333 24098 net.cpp:382] Sigmoid1 -> Sigmoid1
I0504 09:47:23.818554 24098 net.cpp:124] Setting up Sigmoid1
I0504 09:47:23.818567 24098 net.cpp:131] Top shape: 1000 72 18 18 (23328000)
I0504 09:47:23.818572 24098 net.cpp:139] Memory required for data: 420108000
I0504 09:47:23.818575 24098 layer_factory.hpp:77] Creating layer pool1
I0504 09:47:23.818583 24098 net.cpp:86] Creating Layer pool1
I0504 09:47:23.818590 24098 net.cpp:408] pool1 <- Sigmoid1
I0504 09:47:23.818596 24098 net.cpp:382] pool1 -> pool1
I0504 09:47:23.819494 24098 net.cpp:124] Setting up pool1
I0504 09:47:23.819514 24098 net.cpp:131] Top shape: 1000 72 9 9 (5832000)
I0504 09:47:23.819519 24098 net.cpp:139] Memory required for data: 443436000
I0504 09:47:23.819522 24098 layer_factory.hpp:77] Creating layer ip1
I0504 09:47:23.819533 24098 net.cpp:86] Creating Layer ip1
I0504 09:47:23.819538 24098 net.cpp:408] ip1 <- pool1
I0504 09:47:23.819546 24098 net.cpp:382] ip1 -> ip1
I0504 09:47:23.821635 24098 net.cpp:124] Setting up ip1
I0504 09:47:23.821646 24098 net.cpp:131] Top shape: 1000 10 (10000)
I0504 09:47:23.821650 24098 net.cpp:139] Memory required for data: 443476000
I0504 09:47:23.821660 24098 layer_factory.hpp:77] Creating layer relu1
I0504 09:47:23.821667 24098 net.cpp:86] Creating Layer relu1
I0504 09:47:23.821671 24098 net.cpp:408] relu1 <- ip1
I0504 09:47:23.821678 24098 net.cpp:369] relu1 -> ip1 (in-place)
I0504 09:47:23.821877 24098 net.cpp:124] Setting up relu1
I0504 09:47:23.821887 24098 net.cpp:131] Top shape: 1000 10 (10000)
I0504 09:47:23.821890 24098 net.cpp:139] Memory required for data: 443516000
I0504 09:47:23.821894 24098 layer_factory.hpp:77] Creating layer ip2
I0504 09:47:23.821903 24098 net.cpp:86] Creating Layer ip2
I0504 09:47:23.821910 24098 net.cpp:408] ip2 <- ip1
I0504 09:47:23.821916 24098 net.cpp:382] ip2 -> ip2
I0504 09:47:23.822072 24098 net.cpp:124] Setting up ip2
I0504 09:47:23.822082 24098 net.cpp:131] Top shape: 1000 60 (60000)
I0504 09:47:23.822085 24098 net.cpp:139] Memory required for data: 443756000
I0504 09:47:23.822093 24098 layer_factory.hpp:77] Creating layer relu2
I0504 09:47:23.822098 24098 net.cpp:86] Creating Layer relu2
I0504 09:47:23.822103 24098 net.cpp:408] relu2 <- ip2
I0504 09:47:23.822109 24098 net.cpp:369] relu2 -> ip2 (in-place)
I0504 09:47:23.822307 24098 net.cpp:124] Setting up relu2
I0504 09:47:23.822317 24098 net.cpp:131] Top shape: 1000 60 (60000)
I0504 09:47:23.822321 24098 net.cpp:139] Memory required for data: 443996000
I0504 09:47:23.822325 24098 layer_factory.hpp:77] Creating layer ip3
I0504 09:47:23.822335 24098 net.cpp:86] Creating Layer ip3
I0504 09:47:23.822342 24098 net.cpp:408] ip3 <- ip2
I0504 09:47:23.822348 24098 net.cpp:382] ip3 -> ip3
I0504 09:47:23.822495 24098 net.cpp:124] Setting up ip3
I0504 09:47:23.822504 24098 net.cpp:131] Top shape: 1000 10 (10000)
I0504 09:47:23.822521 24098 net.cpp:139] Memory required for data: 444036000
I0504 09:47:23.822531 24098 layer_factory.hpp:77] Creating layer ip3_ip3_0_split
I0504 09:47:23.822541 24098 net.cpp:86] Creating Layer ip3_ip3_0_split
I0504 09:47:23.822546 24098 net.cpp:408] ip3_ip3_0_split <- ip3
I0504 09:47:23.822551 24098 net.cpp:382] ip3_ip3_0_split -> ip3_ip3_0_split_0
I0504 09:47:23.822557 24098 net.cpp:382] ip3_ip3_0_split -> ip3_ip3_0_split_1
I0504 09:47:23.822602 24098 net.cpp:124] Setting up ip3_ip3_0_split
I0504 09:47:23.822612 24098 net.cpp:131] Top shape: 1000 10 (10000)
I0504 09:47:23.822616 24098 net.cpp:131] Top shape: 1000 10 (10000)
I0504 09:47:23.822619 24098 net.cpp:139] Memory required for data: 444116000
I0504 09:47:23.822623 24098 layer_factory.hpp:77] Creating layer accuracy
I0504 09:47:23.822629 24098 net.cpp:86] Creating Layer accuracy
I0504 09:47:23.822633 24098 net.cpp:408] accuracy <- ip3_ip3_0_split_0
I0504 09:47:23.822638 24098 net.cpp:408] accuracy <- label_cifar_1_split_0
I0504 09:47:23.822645 24098 net.cpp:382] accuracy -> accuracy
…
