…
I0504 14:26:50.661479  3572 net.cpp:296] The NetState phase (0) differed from the phase (1) specified by a rule in layer cifar
I0504 14:26:50.661499  3572 net.cpp:296] The NetState phase (0) differed from the phase (1) specified by a rule in layer accuracy
I0504 14:26:50.661612  3572 net.cpp:53] Initializing net from parameters: 
name: "CIFAR"
state {
  phase: TRAIN
  level: 0
  stage: ""
}
layer {
  name: "cifar"
  type: "Data"
  top: "data"
  top: "label"
  include {
    phase: TRAIN
  }
  transform_param {
    mean_file: "examples/cifar10/mean.binaryproto"
  }
  data_param {
    source: "examples/cifar10/cifar10_train_lmdb"
    batch_size: 111
    backend: LMDB
  }
}
layer {
  name: "conv0"
  type: "Convolution"
  bottom: "data"
  top: "conv0"
  param {
    lr_mult: 1
  }
  param {
    lr_mult: 2
  }
  convolution_param {
    num_output: 24
    pad: 2
    kernel_size: 5
    stride: 1
    weight_filler {
      type: "gaussian"
      std: 0.01
    }
    bias_filler {
      type: "constant"
    }
  }
}
layer {
  name: "Sigmoid0"
  type: "Sigmoid"
  bottom: "conv0"
  top: "Sigmoid0"
}
layer {
  name: "pool0"
  type: "Pooling"
  bottom: "Sigmoid0"
  top: "pool0"
  pooling_param {
    pool: AVE
    kernel_size: 3
    stride: 2
  }
}
layer {
  name: "conv1"
  type: "Convolution"
  bottom: "pool0"
  top: "conv1"
  param {
    lr_mult: 1
  }
  param {
    lr_mult: 2
  }
  convolution_param {
    num_output: 216
    pad: 2
    kernel_size: 5
    stride: 1
    weight_filler {
      type: "gaussian"
      std: 0.01
    }
    bias_filler {
      type: "constant"
    }
  }
}
layer {
  name: "Sigmoid1"
  type: "Sigmoid"
  bottom: "conv1"
  top: "Sigmoid1"
}
layer {
  name: "pool1"
  type: "Pooling"
  bottom: "Sigmoid1"
  top: "pool1"
  pooling_param {
    pool: AVE
    kernel_size: 3
    stride: 2
  }
}
layer {
  name: "ip1"
  type: "InnerProduct"
  bottom: "pool1"
  top: "ip1"
  param {
    lr_mult: 1
  }
  param {
    lr_mult: 2
  }
  inner_product_param {
    num_output: 10
    weight_filler {
      type: "gaussian"
      std: 0.01
    }
    bias_filler {
      type: "constant"
    }
  }
}
layer {
  name: "relu1"
  type: "ReLU"
  bottom: "ip1"
  top: "ip1"
}
layer {
  name: "ip2"
  type: "InnerProduct"
  bottom: "ip1"
  top: "ip2"
  param {
    lr_mult: 1
  }
  param {
    lr_mult: 2
  }
  inner_product_param {
    num_output: 60
    weight_filler {
      type: "gaussian"
      std: 0.01
    }
    bias_filler {
      type: "constant"
    }
  }
}
layer {
  name: "relu2"
  type: "ReLU"
  bottom: "ip2"
  top: "ip2"
}
layer {
  name: "ip3"
  type: "InnerProduct"
  bottom: "ip2"
  top: "ip3"
  param {
    lr_mult: 1
  }
  param {
    lr_mult: 2
  }
  inner_product_param {
    num_output: 10
    weight_filler {
      type: "gaussian"
      std: 0.01
    }
    bias_filler {
      type: "constant"
    }
  }
}
layer {
  name: "loss"
  type: "SoftmaxWithLoss"
  bottom: "ip3"
  bottom: "label"
  top: "loss"
}
I0504 14:26:50.661698  3572 layer_factory.hpp:77] Creating layer cifar
I0504 14:26:50.661799  3572 db_lmdb.cpp:35] Opened lmdb examples/cifar10/cifar10_train_lmdb
I0504 14:26:50.661826  3572 net.cpp:86] Creating Layer cifar
I0504 14:26:50.661834  3572 net.cpp:382] cifar -> data
I0504 14:26:50.661856  3572 net.cpp:382] cifar -> label
I0504 14:26:50.661869  3572 data_transformer.cpp:25] Loading mean file from: examples/cifar10/mean.binaryproto
I0504 14:26:50.664036  3572 data_layer.cpp:45] output data size: 111,3,32,32
I0504 14:26:50.672107  3572 net.cpp:124] Setting up cifar
I0504 14:26:50.672127  3572 net.cpp:131] Top shape: 111 3 32 32 (340992)
I0504 14:26:50.672133  3572 net.cpp:131] Top shape: 111 (111)
I0504 14:26:50.672137  3572 net.cpp:139] Memory required for data: 1364412
I0504 14:26:50.672145  3572 layer_factory.hpp:77] Creating layer conv0
I0504 14:26:50.672164  3572 net.cpp:86] Creating Layer conv0
I0504 14:26:50.672170  3572 net.cpp:408] conv0 <- data
I0504 14:26:50.672183  3572 net.cpp:382] conv0 -> conv0
I0504 14:26:50.955621  3572 net.cpp:124] Setting up conv0
I0504 14:26:50.955651  3572 net.cpp:131] Top shape: 111 24 32 32 (2727936)
I0504 14:26:50.955654  3572 net.cpp:139] Memory required for data: 12276156
I0504 14:26:50.955668  3572 layer_factory.hpp:77] Creating layer Sigmoid0
I0504 14:26:50.955679  3572 net.cpp:86] Creating Layer Sigmoid0
I0504 14:26:50.955683  3572 net.cpp:408] Sigmoid0 <- conv0
I0504 14:26:50.955689  3572 net.cpp:382] Sigmoid0 -> Sigmoid0
I0504 14:26:50.955855  3572 net.cpp:124] Setting up Sigmoid0
I0504 14:26:50.955864  3572 net.cpp:131] Top shape: 111 24 32 32 (2727936)
I0504 14:26:50.955868  3572 net.cpp:139] Memory required for data: 23187900
I0504 14:26:50.955870  3572 layer_factory.hpp:77] Creating layer pool0
I0504 14:26:50.955878  3572 net.cpp:86] Creating Layer pool0
I0504 14:26:50.955880  3572 net.cpp:408] pool0 <- Sigmoid0
I0504 14:26:50.955885  3572 net.cpp:382] pool0 -> pool0
I0504 14:26:50.956596  3572 net.cpp:124] Setting up pool0
I0504 14:26:50.956609  3572 net.cpp:131] Top shape: 111 24 16 16 (681984)
I0504 14:26:50.956612  3572 net.cpp:139] Memory required for data: 25915836
I0504 14:26:50.956615  3572 layer_factory.hpp:77] Creating layer conv1
I0504 14:26:50.956627  3572 net.cpp:86] Creating Layer conv1
I0504 14:26:50.956630  3572 net.cpp:408] conv1 <- pool0
I0504 14:26:50.956635  3572 net.cpp:382] conv1 -> conv1
I0504 14:26:50.961699  3572 net.cpp:124] Setting up conv1
I0504 14:26:50.961712  3572 net.cpp:131] Top shape: 111 216 16 16 (6137856)
I0504 14:26:50.961716  3572 net.cpp:139] Memory required for data: 50467260
I0504 14:26:50.961724  3572 layer_factory.hpp:77] Creating layer Sigmoid1
I0504 14:26:50.961730  3572 net.cpp:86] Creating Layer Sigmoid1
I0504 14:26:50.961733  3572 net.cpp:408] Sigmoid1 <- conv1
I0504 14:26:50.961738  3572 net.cpp:382] Sigmoid1 -> Sigmoid1
I0504 14:26:50.961894  3572 net.cpp:124] Setting up Sigmoid1
I0504 14:26:50.961904  3572 net.cpp:131] Top shape: 111 216 16 16 (6137856)
I0504 14:26:50.961906  3572 net.cpp:139] Memory required for data: 75018684
I0504 14:26:50.961910  3572 layer_factory.hpp:77] Creating layer pool1
I0504 14:26:50.961915  3572 net.cpp:86] Creating Layer pool1
I0504 14:26:50.961918  3572 net.cpp:408] pool1 <- Sigmoid1
I0504 14:26:50.961922  3572 net.cpp:382] pool1 -> pool1
I0504 14:26:50.962070  3572 net.cpp:124] Setting up pool1
I0504 14:26:50.962079  3572 net.cpp:131] Top shape: 111 216 8 8 (1534464)
I0504 14:26:50.962081  3572 net.cpp:139] Memory required for data: 81156540
I0504 14:26:50.962085  3572 layer_factory.hpp:77] Creating layer ip1
I0504 14:26:50.962091  3572 net.cpp:86] Creating Layer ip1
I0504 14:26:50.962095  3572 net.cpp:408] ip1 <- pool1
I0504 14:26:50.962100  3572 net.cpp:382] ip1 -> ip1
I0504 14:26:50.965836  3572 net.cpp:124] Setting up ip1
I0504 14:26:50.965843  3572 net.cpp:131] Top shape: 111 10 (1110)
I0504 14:26:50.965847  3572 net.cpp:139] Memory required for data: 81160980
I0504 14:26:50.965853  3572 layer_factory.hpp:77] Creating layer relu1
I0504 14:26:50.965860  3572 net.cpp:86] Creating Layer relu1
I0504 14:26:50.965863  3572 net.cpp:408] relu1 <- ip1
I0504 14:26:50.965867  3572 net.cpp:369] relu1 -> ip1 (in-place)
I0504 14:26:50.966004  3572 net.cpp:124] Setting up relu1
I0504 14:26:50.966012  3572 net.cpp:131] Top shape: 111 10 (1110)
I0504 14:26:50.966015  3572 net.cpp:139] Memory required for data: 81165420
I0504 14:26:50.966018  3572 layer_factory.hpp:77] Creating layer ip2
I0504 14:26:50.966023  3572 net.cpp:86] Creating Layer ip2
I0504 14:26:50.966027  3572 net.cpp:408] ip2 <- ip1
I0504 14:26:50.966044  3572 net.cpp:382] ip2 -> ip2
I0504 14:26:50.966188  3572 net.cpp:124] Setting up ip2
I0504 14:26:50.966197  3572 net.cpp:131] Top shape: 111 60 (6660)
I0504 14:26:50.966199  3572 net.cpp:139] Memory required for data: 81192060
I0504 14:26:50.966204  3572 layer_factory.hpp:77] Creating layer relu2
I0504 14:26:50.966209  3572 net.cpp:86] Creating Layer relu2
I0504 14:26:50.966212  3572 net.cpp:408] relu2 <- ip2
I0504 14:26:50.966217  3572 net.cpp:369] relu2 -> ip2 (in-place)
I0504 14:26:50.966928  3572 net.cpp:124] Setting up relu2
I0504 14:26:50.966940  3572 net.cpp:131] Top shape: 111 60 (6660)
I0504 14:26:50.966943  3572 net.cpp:139] Memory required for data: 81218700
I0504 14:26:50.966946  3572 layer_factory.hpp:77] Creating layer ip3
I0504 14:26:50.966953  3572 net.cpp:86] Creating Layer ip3
I0504 14:26:50.966956  3572 net.cpp:408] ip3 <- ip2
I0504 14:26:50.966960  3572 net.cpp:382] ip3 -> ip3
I0504 14:26:50.967067  3572 net.cpp:124] Setting up ip3
I0504 14:26:50.967074  3572 net.cpp:131] Top shape: 111 10 (1110)
I0504 14:26:50.967077  3572 net.cpp:139] Memory required for data: 81223140
I0504 14:26:50.967084  3572 layer_factory.hpp:77] Creating layer loss
I0504 14:26:50.967090  3572 net.cpp:86] Creating Layer loss
I0504 14:26:50.967093  3572 net.cpp:408] loss <- ip3
I0504 14:26:50.967097  3572 net.cpp:408] loss <- label
I0504 14:26:50.967102  3572 net.cpp:382] loss -> loss
I0504 14:26:50.967116  3572 layer_factory.hpp:77] Creating layer loss
…
I0504 14:26:50.967759  3572 solver.cpp:173] Creating test net (#0) specified by net file: ECE595/cifar/train_test/var_everything_tiny/cifar_train_test_172.prototxt
I0504 14:26:50.967785  3572 net.cpp:296] The NetState phase (1) differed from the phase (0) specified by a rule in layer cifar
I0504 14:26:50.967875  3572 net.cpp:53] Initializing net from parameters: 
name: "CIFAR"
state {
  phase: TEST
}
layer {
  name: "cifar"
  type: "Data"
  top: "data"
  top: "label"
  include {
    phase: TEST
  }
  transform_param {
    mean_file: "examples/cifar10/mean.binaryproto"
  }
  data_param {
    source: "examples/cifar10/cifar10_test_lmdb"
    batch_size: 1000
    backend: LMDB
  }
}
layer {
  name: "conv0"
  type: "Convolution"
  bottom: "data"
  top: "conv0"
  param {
    lr_mult: 1
  }
  param {
    lr_mult: 2
  }
  convolution_param {
    num_output: 24
    pad: 2
    kernel_size: 5
    stride: 1
    weight_filler {
      type: "gaussian"
      std: 0.01
    }
    bias_filler {
      type: "constant"
    }
  }
}
layer {
  name: "Sigmoid0"
  type: "Sigmoid"
  bottom: "conv0"
  top: "Sigmoid0"
}
layer {
  name: "pool0"
  type: "Pooling"
  bottom: "Sigmoid0"
  top: "pool0"
  pooling_param {
    pool: AVE
    kernel_size: 3
    stride: 2
  }
}
layer {
  name: "conv1"
  type: "Convolution"
  bottom: "pool0"
  top: "conv1"
  param {
    lr_mult: 1
  }
  param {
    lr_mult: 2
  }
  convolution_param {
    num_output: 216
    pad: 2
    kernel_size: 5
    stride: 1
    weight_filler {
      type: "gaussian"
      std: 0.01
    }
    bias_filler {
      type: "constant"
    }
  }
}
layer {
  name: "Sigmoid1"
  type: "Sigmoid"
  bottom: "conv1"
  top: "Sigmoid1"
}
layer {
  name: "pool1"
  type: "Pooling"
  bottom: "Sigmoid1"
  top: "pool1"
  pooling_param {
    pool: AVE
    kernel_size: 3
    stride: 2
  }
}
layer {
  name: "ip1"
  type: "InnerProduct"
  bottom: "pool1"
  top: "ip1"
  param {
    lr_mult: 1
  }
  param {
    lr_mult: 2
  }
  inner_product_param {
    num_output: 10
    weight_filler {
      type: "gaussian"
      std: 0.01
    }
    bias_filler {
      type: "constant"
    }
  }
}
layer {
  name: "relu1"
  type: "ReLU"
  bottom: "ip1"
  top: "ip1"
}
layer {
  name: "ip2"
  type: "InnerProduct"
  bottom: "ip1"
  top: "ip2"
  param {
    lr_mult: 1
  }
  param {
    lr_mult: 2
  }
  inner_product_param {
    num_output: 60
    weight_filler {
      type: "gaussian"
      std: 0.01
    }
    bias_filler {
      type: "constant"
    }
  }
}
layer {
  name: "relu2"
  type: "ReLU"
  bottom: "ip2"
  top: "ip2"
}
layer {
  name: "ip3"
  type: "InnerProduct"
  bottom: "ip2"
  top: "ip3"
  param {
    lr_mult: 1
  }
  param {
    lr_mult: 2
  }
  inner_product_param {
    num_output: 10
    weight_filler {
      type: "gaussian"
      std: 0.01
    }
    bias_filler {
      type: "constant"
    }
  }
}
layer {
  name: "accuracy"
  type: "Accuracy"
  bottom: "ip3"
  bottom: "label"
  top: "accuracy"
  include {
    phase: TEST
  }
}
layer {
  name: "loss"
  type: "SoftmaxWithLoss"
  bottom: "ip3"
  bottom: "label"
  top: "loss"
}
I0504 14:26:50.967952  3572 layer_factory.hpp:77] Creating layer cifar
I0504 14:26:50.967996  3572 db_lmdb.cpp:35] Opened lmdb examples/cifar10/cifar10_test_lmdb
I0504 14:26:50.968008  3572 net.cpp:86] Creating Layer cifar
I0504 14:26:50.968013  3572 net.cpp:382] cifar -> data
I0504 14:26:50.968019  3572 net.cpp:382] cifar -> label
I0504 14:26:50.968025  3572 data_transformer.cpp:25] Loading mean file from: examples/cifar10/mean.binaryproto
I0504 14:26:50.968158  3572 data_layer.cpp:45] output data size: 1000,3,32,32
I0504 14:26:50.989805  3572 net.cpp:124] Setting up cifar
I0504 14:26:50.989830  3572 net.cpp:131] Top shape: 1000 3 32 32 (3072000)
I0504 14:26:50.989836  3572 net.cpp:131] Top shape: 1000 (1000)
I0504 14:26:50.989840  3572 net.cpp:139] Memory required for data: 12292000
I0504 14:26:50.989845  3572 layer_factory.hpp:77] Creating layer label_cifar_1_split
I0504 14:26:50.989892  3572 net.cpp:86] Creating Layer label_cifar_1_split
I0504 14:26:50.989895  3572 net.cpp:408] label_cifar_1_split <- label
I0504 14:26:50.989902  3572 net.cpp:382] label_cifar_1_split -> label_cifar_1_split_0
I0504 14:26:50.989909  3572 net.cpp:382] label_cifar_1_split -> label_cifar_1_split_1
I0504 14:26:50.989962  3572 net.cpp:124] Setting up label_cifar_1_split
I0504 14:26:50.989969  3572 net.cpp:131] Top shape: 1000 (1000)
I0504 14:26:50.989971  3572 net.cpp:131] Top shape: 1000 (1000)
I0504 14:26:50.989974  3572 net.cpp:139] Memory required for data: 12300000
I0504 14:26:50.989976  3572 layer_factory.hpp:77] Creating layer conv0
I0504 14:26:50.989987  3572 net.cpp:86] Creating Layer conv0
I0504 14:26:50.989990  3572 net.cpp:408] conv0 <- data
I0504 14:26:50.989995  3572 net.cpp:382] conv0 -> conv0
I0504 14:26:50.991691  3572 net.cpp:124] Setting up conv0
I0504 14:26:50.991704  3572 net.cpp:131] Top shape: 1000 24 32 32 (24576000)
I0504 14:26:50.991708  3572 net.cpp:139] Memory required for data: 110604000
I0504 14:26:50.991719  3572 layer_factory.hpp:77] Creating layer Sigmoid0
I0504 14:26:50.991739  3572 net.cpp:86] Creating Layer Sigmoid0
I0504 14:26:50.991742  3572 net.cpp:408] Sigmoid0 <- conv0
I0504 14:26:50.991747  3572 net.cpp:382] Sigmoid0 -> Sigmoid0
I0504 14:26:50.991917  3572 net.cpp:124] Setting up Sigmoid0
I0504 14:26:50.991938  3572 net.cpp:131] Top shape: 1000 24 32 32 (24576000)
I0504 14:26:50.991941  3572 net.cpp:139] Memory required for data: 208908000
I0504 14:26:50.991945  3572 layer_factory.hpp:77] Creating layer pool0
I0504 14:26:50.991955  3572 net.cpp:86] Creating Layer pool0
I0504 14:26:50.991960  3572 net.cpp:408] pool0 <- Sigmoid0
I0504 14:26:50.991964  3572 net.cpp:382] pool0 -> pool0
I0504 14:26:50.992126  3572 net.cpp:124] Setting up pool0
I0504 14:26:50.992136  3572 net.cpp:131] Top shape: 1000 24 16 16 (6144000)
I0504 14:26:50.992138  3572 net.cpp:139] Memory required for data: 233484000
I0504 14:26:50.992141  3572 layer_factory.hpp:77] Creating layer conv1
I0504 14:26:50.992151  3572 net.cpp:86] Creating Layer conv1
I0504 14:26:50.992153  3572 net.cpp:408] conv1 <- pool0
I0504 14:26:50.992158  3572 net.cpp:382] conv1 -> conv1
I0504 14:26:50.996772  3572 net.cpp:124] Setting up conv1
I0504 14:26:50.996786  3572 net.cpp:131] Top shape: 1000 216 16 16 (55296000)
I0504 14:26:50.996790  3572 net.cpp:139] Memory required for data: 454668000
I0504 14:26:50.996799  3572 layer_factory.hpp:77] Creating layer Sigmoid1
I0504 14:26:50.996805  3572 net.cpp:86] Creating Layer Sigmoid1
I0504 14:26:50.996829  3572 net.cpp:408] Sigmoid1 <- conv1
I0504 14:26:50.996853  3572 net.cpp:382] Sigmoid1 -> Sigmoid1
I0504 14:26:50.997081  3572 net.cpp:124] Setting up Sigmoid1
I0504 14:26:50.997092  3572 net.cpp:131] Top shape: 1000 216 16 16 (55296000)
I0504 14:26:50.997095  3572 net.cpp:139] Memory required for data: 675852000
I0504 14:26:50.997099  3572 layer_factory.hpp:77] Creating layer pool1
I0504 14:26:50.997104  3572 net.cpp:86] Creating Layer pool1
I0504 14:26:50.997108  3572 net.cpp:408] pool1 <- Sigmoid1
I0504 14:26:50.997113  3572 net.cpp:382] pool1 -> pool1
I0504 14:26:50.997903  3572 net.cpp:124] Setting up pool1
I0504 14:26:50.997915  3572 net.cpp:131] Top shape: 1000 216 8 8 (13824000)
I0504 14:26:50.997918  3572 net.cpp:139] Memory required for data: 731148000
I0504 14:26:50.997921  3572 layer_factory.hpp:77] Creating layer ip1
I0504 14:26:50.997946  3572 net.cpp:86] Creating Layer ip1
I0504 14:26:50.997949  3572 net.cpp:408] ip1 <- pool1
I0504 14:26:50.997954  3572 net.cpp:382] ip1 -> ip1
I0504 14:26:51.001932  3572 net.cpp:124] Setting up ip1
I0504 14:26:51.001942  3572 net.cpp:131] Top shape: 1000 10 (10000)
I0504 14:26:51.001945  3572 net.cpp:139] Memory required for data: 731188000
I0504 14:26:51.001952  3572 layer_factory.hpp:77] Creating layer relu1
I0504 14:26:51.001958  3572 net.cpp:86] Creating Layer relu1
I0504 14:26:51.001976  3572 net.cpp:408] relu1 <- ip1
I0504 14:26:51.001981  3572 net.cpp:369] relu1 -> ip1 (in-place)
I0504 14:26:51.002137  3572 net.cpp:124] Setting up relu1
I0504 14:26:51.002146  3572 net.cpp:131] Top shape: 1000 10 (10000)
I0504 14:26:51.002164  3572 net.cpp:139] Memory required for data: 731228000
I0504 14:26:51.002167  3572 layer_factory.hpp:77] Creating layer ip2
I0504 14:26:51.002173  3572 net.cpp:86] Creating Layer ip2
I0504 14:26:51.002177  3572 net.cpp:408] ip2 <- ip1
I0504 14:26:51.002182  3572 net.cpp:382] ip2 -> ip2
I0504 14:26:51.002305  3572 net.cpp:124] Setting up ip2
I0504 14:26:51.002313  3572 net.cpp:131] Top shape: 1000 60 (60000)
I0504 14:26:51.002316  3572 net.cpp:139] Memory required for data: 731468000
I0504 14:26:51.002321  3572 layer_factory.hpp:77] Creating layer relu2
I0504 14:26:51.002326  3572 net.cpp:86] Creating Layer relu2
I0504 14:26:51.002328  3572 net.cpp:408] relu2 <- ip2
I0504 14:26:51.002333  3572 net.cpp:369] relu2 -> ip2 (in-place)
I0504 14:26:51.002501  3572 net.cpp:124] Setting up relu2
I0504 14:26:51.002511  3572 net.cpp:131] Top shape: 1000 60 (60000)
I0504 14:26:51.002513  3572 net.cpp:139] Memory required for data: 731708000
I0504 14:26:51.002516  3572 layer_factory.hpp:77] Creating layer ip3
I0504 14:26:51.002523  3572 net.cpp:86] Creating Layer ip3
I0504 14:26:51.002526  3572 net.cpp:408] ip3 <- ip2
I0504 14:26:51.002530  3572 net.cpp:382] ip3 -> ip3
I0504 14:26:51.002641  3572 net.cpp:124] Setting up ip3
I0504 14:26:51.002647  3572 net.cpp:131] Top shape: 1000 10 (10000)
I0504 14:26:51.002660  3572 net.cpp:139] Memory required for data: 731748000
I0504 14:26:51.002668  3572 layer_factory.hpp:77] Creating layer ip3_ip3_0_split
I0504 14:26:51.002674  3572 net.cpp:86] Creating Layer ip3_ip3_0_split
I0504 14:26:51.002677  3572 net.cpp:408] ip3_ip3_0_split <- ip3
I0504 14:26:51.002681  3572 net.cpp:382] ip3_ip3_0_split -> ip3_ip3_0_split_0
I0504 14:26:51.002686  3572 net.cpp:382] ip3_ip3_0_split -> ip3_ip3_0_split_1
I0504 14:26:51.002718  3572 net.cpp:124] Setting up ip3_ip3_0_split
I0504 14:26:51.002723  3572 net.cpp:131] Top shape: 1000 10 (10000)
I0504 14:26:51.002727  3572 net.cpp:131] Top shape: 1000 10 (10000)
I0504 14:26:51.002729  3572 net.cpp:139] Memory required for data: 731828000
I0504 14:26:51.002732  3572 layer_factory.hpp:77] Creating layer accuracy
I0504 14:26:51.002737  3572 net.cpp:86] Creating Layer accuracy
I0504 14:26:51.002740  3572 net.cpp:408] accuracy <- ip3_ip3_0_split_0
I0504 14:26:51.002743  3572 net.cpp:408] accuracy <- label_cifar_1_split_0
I0504 14:26:51.002749  3572 net.cpp:382] accuracy -> accuracy
…
