…
I0504 07:07:31.500078 17752 net.cpp:296] The NetState phase (0) differed from the phase (1) specified by a rule in layer cifar
I0504 07:07:31.500095 17752 net.cpp:296] The NetState phase (0) differed from the phase (1) specified by a rule in layer accuracy
I0504 07:07:31.500195 17752 net.cpp:53] Initializing net from parameters: 
name: "CIFAR"
state {
  phase: TRAIN
  level: 0
  stage: ""
}
layer {
  name: "cifar"
  type: "Data"
  top: "data"
  top: "label"
  include {
    phase: TRAIN
  }
  transform_param {
    mean_file: "examples/cifar10/mean.binaryproto"
  }
  data_param {
    source: "examples/cifar10/cifar10_train_lmdb"
    batch_size: 111
    backend: LMDB
  }
}
layer {
  name: "conv0"
  type: "Convolution"
  bottom: "data"
  top: "conv0"
  param {
    lr_mult: 1
  }
  param {
    lr_mult: 2
  }
  convolution_param {
    num_output: 24
    pad: 2
    kernel_size: 3
    stride: 1
    weight_filler {
      type: "gaussian"
      std: 0.01
    }
    bias_filler {
      type: "constant"
    }
  }
}
layer {
  name: "Sigmoid0"
  type: "Sigmoid"
  bottom: "conv0"
  top: "Sigmoid0"
}
layer {
  name: "pool0"
  type: "Pooling"
  bottom: "Sigmoid0"
  top: "pool0"
  pooling_param {
    pool: AVE
    kernel_size: 3
    stride: 2
  }
}
layer {
  name: "conv1"
  type: "Convolution"
  bottom: "pool0"
  top: "conv1"
  param {
    lr_mult: 1
  }
  param {
    lr_mult: 2
  }
  convolution_param {
    num_output: 24
    pad: 2
    kernel_size: 3
    stride: 1
    weight_filler {
      type: "gaussian"
      std: 0.01
    }
    bias_filler {
      type: "constant"
    }
  }
}
layer {
  name: "Sigmoid1"
  type: "Sigmoid"
  bottom: "conv1"
  top: "Sigmoid1"
}
layer {
  name: "pool1"
  type: "Pooling"
  bottom: "Sigmoid1"
  top: "pool1"
  pooling_param {
    pool: AVE
    kernel_size: 3
    stride: 2
  }
}
layer {
  name: "ip1"
  type: "InnerProduct"
  bottom: "pool1"
  top: "ip1"
  param {
    lr_mult: 1
  }
  param {
    lr_mult: 2
  }
  inner_product_param {
    num_output: 60
    weight_filler {
      type: "gaussian"
      std: 0.01
    }
    bias_filler {
      type: "constant"
    }
  }
}
layer {
  name: "relu1"
  type: "ReLU"
  bottom: "ip1"
  top: "ip1"
}
layer {
  name: "ip2"
  type: "InnerProduct"
  bottom: "ip1"
  top: "ip2"
  param {
    lr_mult: 1
  }
  param {
    lr_mult: 2
  }
  inner_product_param {
    num_output: 10
    weight_filler {
      type: "gaussian"
      std: 0.01
    }
    bias_filler {
      type: "constant"
    }
  }
}
layer {
  name: "loss"
  type: "SoftmaxWithLoss"
  bottom: "ip2"
  bottom: "label"
  top: "loss"
}
I0504 07:07:31.500257 17752 layer_factory.hpp:77] Creating layer cifar
I0504 07:07:31.500341 17752 db_lmdb.cpp:35] Opened lmdb examples/cifar10/cifar10_train_lmdb
I0504 07:07:31.500365 17752 net.cpp:86] Creating Layer cifar
I0504 07:07:31.500372 17752 net.cpp:382] cifar -> data
I0504 07:07:31.500391 17752 net.cpp:382] cifar -> label
I0504 07:07:31.500402 17752 data_transformer.cpp:25] Loading mean file from: examples/cifar10/mean.binaryproto
I0504 07:07:31.502305 17752 data_layer.cpp:45] output data size: 111,3,32,32
I0504 07:07:31.509060 17752 net.cpp:124] Setting up cifar
I0504 07:07:31.509093 17752 net.cpp:131] Top shape: 111 3 32 32 (340992)
I0504 07:07:31.509099 17752 net.cpp:131] Top shape: 111 (111)
I0504 07:07:31.509101 17752 net.cpp:139] Memory required for data: 1364412
I0504 07:07:31.509107 17752 layer_factory.hpp:77] Creating layer conv0
I0504 07:07:31.509124 17752 net.cpp:86] Creating Layer conv0
I0504 07:07:31.509172 17752 net.cpp:408] conv0 <- data
I0504 07:07:31.509183 17752 net.cpp:382] conv0 -> conv0
I0504 07:07:31.746856 17752 net.cpp:124] Setting up conv0
I0504 07:07:31.746898 17752 net.cpp:131] Top shape: 111 24 34 34 (3079584)
I0504 07:07:31.746902 17752 net.cpp:139] Memory required for data: 13682748
I0504 07:07:31.746917 17752 layer_factory.hpp:77] Creating layer Sigmoid0
I0504 07:07:31.746929 17752 net.cpp:86] Creating Layer Sigmoid0
I0504 07:07:31.746933 17752 net.cpp:408] Sigmoid0 <- conv0
I0504 07:07:31.746938 17752 net.cpp:382] Sigmoid0 -> Sigmoid0
I0504 07:07:31.747133 17752 net.cpp:124] Setting up Sigmoid0
I0504 07:07:31.747143 17752 net.cpp:131] Top shape: 111 24 34 34 (3079584)
I0504 07:07:31.747146 17752 net.cpp:139] Memory required for data: 26001084
I0504 07:07:31.747149 17752 layer_factory.hpp:77] Creating layer pool0
I0504 07:07:31.747155 17752 net.cpp:86] Creating Layer pool0
I0504 07:07:31.747159 17752 net.cpp:408] pool0 <- Sigmoid0
I0504 07:07:31.747164 17752 net.cpp:382] pool0 -> pool0
I0504 07:07:31.747949 17752 net.cpp:124] Setting up pool0
I0504 07:07:31.747962 17752 net.cpp:131] Top shape: 111 24 17 17 (769896)
I0504 07:07:31.747982 17752 net.cpp:139] Memory required for data: 29080668
I0504 07:07:31.747984 17752 layer_factory.hpp:77] Creating layer conv1
I0504 07:07:31.747997 17752 net.cpp:86] Creating Layer conv1
I0504 07:07:31.748000 17752 net.cpp:408] conv1 <- pool0
I0504 07:07:31.748005 17752 net.cpp:382] conv1 -> conv1
I0504 07:07:31.750766 17752 net.cpp:124] Setting up conv1
I0504 07:07:31.750795 17752 net.cpp:131] Top shape: 111 24 19 19 (961704)
I0504 07:07:31.750798 17752 net.cpp:139] Memory required for data: 32927484
I0504 07:07:31.750808 17752 layer_factory.hpp:77] Creating layer Sigmoid1
I0504 07:07:31.750818 17752 net.cpp:86] Creating Layer Sigmoid1
I0504 07:07:31.750821 17752 net.cpp:408] Sigmoid1 <- conv1
I0504 07:07:31.750826 17752 net.cpp:382] Sigmoid1 -> Sigmoid1
I0504 07:07:31.751037 17752 net.cpp:124] Setting up Sigmoid1
I0504 07:07:31.751063 17752 net.cpp:131] Top shape: 111 24 19 19 (961704)
I0504 07:07:31.751066 17752 net.cpp:139] Memory required for data: 36774300
I0504 07:07:31.751070 17752 layer_factory.hpp:77] Creating layer pool1
I0504 07:07:31.751075 17752 net.cpp:86] Creating Layer pool1
I0504 07:07:31.751077 17752 net.cpp:408] pool1 <- Sigmoid1
I0504 07:07:31.751083 17752 net.cpp:382] pool1 -> pool1
I0504 07:07:31.751286 17752 net.cpp:124] Setting up pool1
I0504 07:07:31.751294 17752 net.cpp:131] Top shape: 111 24 9 9 (215784)
I0504 07:07:31.751297 17752 net.cpp:139] Memory required for data: 37637436
I0504 07:07:31.751301 17752 layer_factory.hpp:77] Creating layer ip1
I0504 07:07:31.751309 17752 net.cpp:86] Creating Layer ip1
I0504 07:07:31.751312 17752 net.cpp:408] ip1 <- pool1
I0504 07:07:31.751317 17752 net.cpp:382] ip1 -> ip1
I0504 07:07:31.754870 17752 net.cpp:124] Setting up ip1
I0504 07:07:31.754878 17752 net.cpp:131] Top shape: 111 60 (6660)
I0504 07:07:31.754897 17752 net.cpp:139] Memory required for data: 37664076
I0504 07:07:31.754904 17752 layer_factory.hpp:77] Creating layer relu1
I0504 07:07:31.754912 17752 net.cpp:86] Creating Layer relu1
I0504 07:07:31.754915 17752 net.cpp:408] relu1 <- ip1
I0504 07:07:31.754920 17752 net.cpp:369] relu1 -> ip1 (in-place)
I0504 07:07:31.755097 17752 net.cpp:124] Setting up relu1
I0504 07:07:31.755120 17752 net.cpp:131] Top shape: 111 60 (6660)
I0504 07:07:31.755123 17752 net.cpp:139] Memory required for data: 37690716
I0504 07:07:31.755126 17752 layer_factory.hpp:77] Creating layer ip2
I0504 07:07:31.755134 17752 net.cpp:86] Creating Layer ip2
I0504 07:07:31.755137 17752 net.cpp:408] ip2 <- ip1
I0504 07:07:31.755141 17752 net.cpp:382] ip2 -> ip2
I0504 07:07:31.755261 17752 net.cpp:124] Setting up ip2
I0504 07:07:31.755269 17752 net.cpp:131] Top shape: 111 10 (1110)
I0504 07:07:31.755270 17752 net.cpp:139] Memory required for data: 37695156
I0504 07:07:31.755276 17752 layer_factory.hpp:77] Creating layer loss
I0504 07:07:31.755282 17752 net.cpp:86] Creating Layer loss
I0504 07:07:31.755298 17752 net.cpp:408] loss <- ip2
I0504 07:07:31.755302 17752 net.cpp:408] loss <- label
I0504 07:07:31.755307 17752 net.cpp:382] loss -> loss
I0504 07:07:31.755323 17752 layer_factory.hpp:77] Creating layer loss
…
I0504 07:07:31.756582 17752 solver.cpp:173] Creating test net (#0) specified by net file: ECE595/cifar/train_test/var_everything_tiny/cifar_train_test_73.prototxt
I0504 07:07:31.756608 17752 net.cpp:296] The NetState phase (1) differed from the phase (0) specified by a rule in layer cifar
I0504 07:07:31.756703 17752 net.cpp:53] Initializing net from parameters: 
name: "CIFAR"
state {
  phase: TEST
}
layer {
  name: "cifar"
  type: "Data"
  top: "data"
  top: "label"
  include {
    phase: TEST
  }
  transform_param {
    mean_file: "examples/cifar10/mean.binaryproto"
  }
  data_param {
    source: "examples/cifar10/cifar10_test_lmdb"
    batch_size: 1000
    backend: LMDB
  }
}
layer {
  name: "conv0"
  type: "Convolution"
  bottom: "data"
  top: "conv0"
  param {
    lr_mult: 1
  }
  param {
    lr_mult: 2
  }
  convolution_param {
    num_output: 24
    pad: 2
    kernel_size: 3
    stride: 1
    weight_filler {
      type: "gaussian"
      std: 0.01
    }
    bias_filler {
      type: "constant"
    }
  }
}
layer {
  name: "Sigmoid0"
  type: "Sigmoid"
  bottom: "conv0"
  top: "Sigmoid0"
}
layer {
  name: "pool0"
  type: "Pooling"
  bottom: "Sigmoid0"
  top: "pool0"
  pooling_param {
    pool: AVE
    kernel_size: 3
    stride: 2
  }
}
layer {
  name: "conv1"
  type: "Convolution"
  bottom: "pool0"
  top: "conv1"
  param {
    lr_mult: 1
  }
  param {
    lr_mult: 2
  }
  convolution_param {
    num_output: 24
    pad: 2
    kernel_size: 3
    stride: 1
    weight_filler {
      type: "gaussian"
      std: 0.01
    }
    bias_filler {
      type: "constant"
    }
  }
}
layer {
  name: "Sigmoid1"
  type: "Sigmoid"
  bottom: "conv1"
  top: "Sigmoid1"
}
layer {
  name: "pool1"
  type: "Pooling"
  bottom: "Sigmoid1"
  top: "pool1"
  pooling_param {
    pool: AVE
    kernel_size: 3
    stride: 2
  }
}
layer {
  name: "ip1"
  type: "InnerProduct"
  bottom: "pool1"
  top: "ip1"
  param {
    lr_mult: 1
  }
  param {
    lr_mult: 2
  }
  inner_product_param {
    num_output: 60
    weight_filler {
      type: "gaussian"
      std: 0.01
    }
    bias_filler {
      type: "constant"
    }
  }
}
layer {
  name: "relu1"
  type: "ReLU"
  bottom: "ip1"
  top: "ip1"
}
layer {
  name: "ip2"
  type: "InnerProduct"
  bottom: "ip1"
  top: "ip2"
  param {
    lr_mult: 1
  }
  param {
    lr_mult: 2
  }
  inner_product_param {
    num_output: 10
    weight_filler {
      type: "gaussian"
      std: 0.01
    }
    bias_filler {
      type: "constant"
    }
  }
}
layer {
  name: "accuracy"
  type: "Accuracy"
  bottom: "ip2"
  bottom: "label"
  top: "accuracy"
  include {
    phase: TEST
  }
}
layer {
  name: "loss"
  type: "SoftmaxWithLoss"
  bottom: "ip2"
  bottom: "label"
  top: "loss"
}
I0504 07:07:31.756783 17752 layer_factory.hpp:77] Creating layer cifar
I0504 07:07:31.756850 17752 db_lmdb.cpp:35] Opened lmdb examples/cifar10/cifar10_test_lmdb
I0504 07:07:31.756863 17752 net.cpp:86] Creating Layer cifar
I0504 07:07:31.756870 17752 net.cpp:382] cifar -> data
I0504 07:07:31.756878 17752 net.cpp:382] cifar -> label
I0504 07:07:31.756886 17752 data_transformer.cpp:25] Loading mean file from: examples/cifar10/mean.binaryproto
I0504 07:07:31.757057 17752 data_layer.cpp:45] output data size: 1000,3,32,32
I0504 07:07:31.779086 17752 net.cpp:124] Setting up cifar
I0504 07:07:31.779127 17752 net.cpp:131] Top shape: 1000 3 32 32 (3072000)
I0504 07:07:31.779148 17752 net.cpp:131] Top shape: 1000 (1000)
I0504 07:07:31.779150 17752 net.cpp:139] Memory required for data: 12292000
I0504 07:07:31.779156 17752 layer_factory.hpp:77] Creating layer label_cifar_1_split
I0504 07:07:31.779172 17752 net.cpp:86] Creating Layer label_cifar_1_split
I0504 07:07:31.779176 17752 net.cpp:408] label_cifar_1_split <- label
I0504 07:07:31.779201 17752 net.cpp:382] label_cifar_1_split -> label_cifar_1_split_0
I0504 07:07:31.779209 17752 net.cpp:382] label_cifar_1_split -> label_cifar_1_split_1
I0504 07:07:31.779263 17752 net.cpp:124] Setting up label_cifar_1_split
I0504 07:07:31.779276 17752 net.cpp:131] Top shape: 1000 (1000)
I0504 07:07:31.779280 17752 net.cpp:131] Top shape: 1000 (1000)
I0504 07:07:31.779283 17752 net.cpp:139] Memory required for data: 12300000
I0504 07:07:31.779285 17752 layer_factory.hpp:77] Creating layer conv0
I0504 07:07:31.779299 17752 net.cpp:86] Creating Layer conv0
I0504 07:07:31.779301 17752 net.cpp:408] conv0 <- data
I0504 07:07:31.779306 17752 net.cpp:382] conv0 -> conv0
I0504 07:07:31.780212 17752 net.cpp:124] Setting up conv0
I0504 07:07:31.780241 17752 net.cpp:131] Top shape: 1000 24 34 34 (27744000)
I0504 07:07:31.780244 17752 net.cpp:139] Memory required for data: 123276000
I0504 07:07:31.780253 17752 layer_factory.hpp:77] Creating layer Sigmoid0
I0504 07:07:31.780259 17752 net.cpp:86] Creating Layer Sigmoid0
I0504 07:07:31.780263 17752 net.cpp:408] Sigmoid0 <- conv0
I0504 07:07:31.780275 17752 net.cpp:382] Sigmoid0 -> Sigmoid0
I0504 07:07:31.781239 17752 net.cpp:124] Setting up Sigmoid0
I0504 07:07:31.781251 17752 net.cpp:131] Top shape: 1000 24 34 34 (27744000)
I0504 07:07:31.781270 17752 net.cpp:139] Memory required for data: 234252000
I0504 07:07:31.781273 17752 layer_factory.hpp:77] Creating layer pool0
I0504 07:07:31.781283 17752 net.cpp:86] Creating Layer pool0
I0504 07:07:31.781287 17752 net.cpp:408] pool0 <- Sigmoid0
I0504 07:07:31.781306 17752 net.cpp:382] pool0 -> pool0
I0504 07:07:31.782495 17752 net.cpp:124] Setting up pool0
I0504 07:07:31.782506 17752 net.cpp:131] Top shape: 1000 24 17 17 (6936000)
I0504 07:07:31.782526 17752 net.cpp:139] Memory required for data: 261996000
I0504 07:07:31.782528 17752 layer_factory.hpp:77] Creating layer conv1
I0504 07:07:31.782538 17752 net.cpp:86] Creating Layer conv1
I0504 07:07:31.782542 17752 net.cpp:408] conv1 <- pool0
I0504 07:07:31.782547 17752 net.cpp:382] conv1 -> conv1
I0504 07:07:31.784032 17752 net.cpp:124] Setting up conv1
I0504 07:07:31.784061 17752 net.cpp:131] Top shape: 1000 24 19 19 (8664000)
I0504 07:07:31.784065 17752 net.cpp:139] Memory required for data: 296652000
I0504 07:07:31.784075 17752 layer_factory.hpp:77] Creating layer Sigmoid1
I0504 07:07:31.784080 17752 net.cpp:86] Creating Layer Sigmoid1
I0504 07:07:31.784083 17752 net.cpp:408] Sigmoid1 <- conv1
I0504 07:07:31.784088 17752 net.cpp:382] Sigmoid1 -> Sigmoid1
I0504 07:07:31.784296 17752 net.cpp:124] Setting up Sigmoid1
I0504 07:07:31.784307 17752 net.cpp:131] Top shape: 1000 24 19 19 (8664000)
I0504 07:07:31.784310 17752 net.cpp:139] Memory required for data: 331308000
I0504 07:07:31.784314 17752 layer_factory.hpp:77] Creating layer pool1
I0504 07:07:31.784320 17752 net.cpp:86] Creating Layer pool1
I0504 07:07:31.784324 17752 net.cpp:408] pool1 <- Sigmoid1
I0504 07:07:31.784329 17752 net.cpp:382] pool1 -> pool1
I0504 07:07:31.784526 17752 net.cpp:124] Setting up pool1
I0504 07:07:31.784536 17752 net.cpp:131] Top shape: 1000 24 9 9 (1944000)
I0504 07:07:31.784539 17752 net.cpp:139] Memory required for data: 339084000
I0504 07:07:31.784543 17752 layer_factory.hpp:77] Creating layer ip1
I0504 07:07:31.784553 17752 net.cpp:86] Creating Layer ip1
I0504 07:07:31.784570 17752 net.cpp:408] ip1 <- pool1
I0504 07:07:31.784577 17752 net.cpp:382] ip1 -> ip1
I0504 07:07:31.787865 17752 net.cpp:124] Setting up ip1
I0504 07:07:31.787873 17752 net.cpp:131] Top shape: 1000 60 (60000)
I0504 07:07:31.787891 17752 net.cpp:139] Memory required for data: 339324000
I0504 07:07:31.787899 17752 layer_factory.hpp:77] Creating layer relu1
I0504 07:07:31.787904 17752 net.cpp:86] Creating Layer relu1
I0504 07:07:31.787907 17752 net.cpp:408] relu1 <- ip1
I0504 07:07:31.787914 17752 net.cpp:369] relu1 -> ip1 (in-place)
I0504 07:07:31.788699 17752 net.cpp:124] Setting up relu1
I0504 07:07:31.788727 17752 net.cpp:131] Top shape: 1000 60 (60000)
I0504 07:07:31.788731 17752 net.cpp:139] Memory required for data: 339564000
I0504 07:07:31.788734 17752 layer_factory.hpp:77] Creating layer ip2
I0504 07:07:31.788741 17752 net.cpp:86] Creating Layer ip2
I0504 07:07:31.788746 17752 net.cpp:408] ip2 <- ip1
I0504 07:07:31.788753 17752 net.cpp:382] ip2 -> ip2
I0504 07:07:31.788942 17752 net.cpp:124] Setting up ip2
I0504 07:07:31.788951 17752 net.cpp:131] Top shape: 1000 10 (10000)
I0504 07:07:31.788954 17752 net.cpp:139] Memory required for data: 339604000
I0504 07:07:31.788959 17752 layer_factory.hpp:77] Creating layer ip2_ip2_0_split
I0504 07:07:31.788965 17752 net.cpp:86] Creating Layer ip2_ip2_0_split
I0504 07:07:31.788969 17752 net.cpp:408] ip2_ip2_0_split <- ip2
I0504 07:07:31.788975 17752 net.cpp:382] ip2_ip2_0_split -> ip2_ip2_0_split_0
I0504 07:07:31.788980 17752 net.cpp:382] ip2_ip2_0_split -> ip2_ip2_0_split_1
I0504 07:07:31.789011 17752 net.cpp:124] Setting up ip2_ip2_0_split
I0504 07:07:31.789017 17752 net.cpp:131] Top shape: 1000 10 (10000)
I0504 07:07:31.789021 17752 net.cpp:131] Top shape: 1000 10 (10000)
I0504 07:07:31.789023 17752 net.cpp:139] Memory required for data: 339684000
I0504 07:07:31.789026 17752 layer_factory.hpp:77] Creating layer accuracy
I0504 07:07:31.789032 17752 net.cpp:86] Creating Layer accuracy
I0504 07:07:31.789036 17752 net.cpp:408] accuracy <- ip2_ip2_0_split_0
I0504 07:07:31.789039 17752 net.cpp:408] accuracy <- label_cifar_1_split_0
I0504 07:07:31.789044 17752 net.cpp:382] accuracy -> accuracy
…
