…
I0504 09:20:21.294123 23424 net.cpp:296] The NetState phase (0) differed from the phase (1) specified by a rule in layer cifar
I0504 09:20:21.294152 23424 net.cpp:296] The NetState phase (0) differed from the phase (1) specified by a rule in layer accuracy
I0504 09:20:21.294277 23424 net.cpp:53] Initializing net from parameters: 
name: "CIFAR"
state {
  phase: TRAIN
  level: 0
  stage: ""
}
layer {
  name: "cifar"
  type: "Data"
  top: "data"
  top: "label"
  include {
    phase: TRAIN
  }
  transform_param {
    mean_file: "examples/cifar10/mean.binaryproto"
  }
  data_param {
    source: "examples/cifar10/cifar10_train_lmdb"
    batch_size: 111
    backend: LMDB
  }
}
layer {
  name: "conv0"
  type: "Convolution"
  bottom: "data"
  top: "conv0"
  param {
    lr_mult: 1
  }
  param {
    lr_mult: 2
  }
  convolution_param {
    num_output: 24
    pad: 2
    kernel_size: 3
    stride: 1
    weight_filler {
      type: "gaussian"
      std: 0.01
    }
    bias_filler {
      type: "constant"
    }
  }
}
layer {
  name: "Sigmoid0"
  type: "Sigmoid"
  bottom: "conv0"
  top: "Sigmoid0"
}
layer {
  name: "pool0"
  type: "Pooling"
  bottom: "Sigmoid0"
  top: "pool0"
  pooling_param {
    pool: AVE
    kernel_size: 3
    stride: 2
  }
}
layer {
  name: "conv1"
  type: "Convolution"
  bottom: "pool0"
  top: "conv1"
  param {
    lr_mult: 1
  }
  param {
    lr_mult: 2
  }
  convolution_param {
    num_output: 72
    pad: 2
    kernel_size: 3
    stride: 1
    weight_filler {
      type: "gaussian"
      std: 0.01
    }
    bias_filler {
      type: "constant"
    }
  }
}
layer {
  name: "Sigmoid1"
  type: "Sigmoid"
  bottom: "conv1"
  top: "Sigmoid1"
}
layer {
  name: "pool1"
  type: "Pooling"
  bottom: "Sigmoid1"
  top: "pool1"
  pooling_param {
    pool: AVE
    kernel_size: 3
    stride: 2
  }
}
layer {
  name: "ip1"
  type: "InnerProduct"
  bottom: "pool1"
  top: "ip1"
  param {
    lr_mult: 1
  }
  param {
    lr_mult: 2
  }
  inner_product_param {
    num_output: 180
    weight_filler {
      type: "gaussian"
      std: 0.01
    }
    bias_filler {
      type: "constant"
    }
  }
}
layer {
  name: "relu1"
  type: "ReLU"
  bottom: "ip1"
  top: "ip1"
}
layer {
  name: "ip2"
  type: "InnerProduct"
  bottom: "ip1"
  top: "ip2"
  param {
    lr_mult: 1
  }
  param {
    lr_mult: 2
  }
  inner_product_param {
    num_output: 10
    weight_filler {
      type: "gaussian"
      std: 0.01
    }
    bias_filler {
      type: "constant"
    }
  }
}
layer {
  name: "relu2"
  type: "ReLU"
  bottom: "ip2"
  top: "ip2"
}
layer {
  name: "ip3"
  type: "InnerProduct"
  bottom: "ip2"
  top: "ip3"
  param {
    lr_mult: 1
  }
  param {
    lr_mult: 2
  }
  inner_product_param {
    num_output: 10
    weight_filler {
      type: "gaussian"
      std: 0.01
    }
    bias_filler {
      type: "constant"
    }
  }
}
layer {
  name: "loss"
  type: "SoftmaxWithLoss"
  bottom: "ip3"
  bottom: "label"
  top: "loss"
}
I0504 09:20:21.294395 23424 layer_factory.hpp:77] Creating layer cifar
I0504 09:20:21.294526 23424 db_lmdb.cpp:35] Opened lmdb examples/cifar10/cifar10_train_lmdb
I0504 09:20:21.294564 23424 net.cpp:86] Creating Layer cifar
I0504 09:20:21.294579 23424 net.cpp:382] cifar -> data
I0504 09:20:21.294610 23424 net.cpp:382] cifar -> label
I0504 09:20:21.294626 23424 data_transformer.cpp:25] Loading mean file from: examples/cifar10/mean.binaryproto
I0504 09:20:21.297024 23424 data_layer.cpp:45] output data size: 111,3,32,32
I0504 09:20:21.304957 23424 net.cpp:124] Setting up cifar
I0504 09:20:21.304980 23424 net.cpp:131] Top shape: 111 3 32 32 (340992)
I0504 09:20:21.304989 23424 net.cpp:131] Top shape: 111 (111)
I0504 09:20:21.304996 23424 net.cpp:139] Memory required for data: 1364412
I0504 09:20:21.305007 23424 layer_factory.hpp:77] Creating layer conv0
I0504 09:20:21.305034 23424 net.cpp:86] Creating Layer conv0
I0504 09:20:21.305050 23424 net.cpp:408] conv0 <- data
I0504 09:20:21.305070 23424 net.cpp:382] conv0 -> conv0
I0504 09:20:21.596796 23424 net.cpp:124] Setting up conv0
I0504 09:20:21.596839 23424 net.cpp:131] Top shape: 111 24 34 34 (3079584)
I0504 09:20:21.596846 23424 net.cpp:139] Memory required for data: 13682748
I0504 09:20:21.596873 23424 layer_factory.hpp:77] Creating layer Sigmoid0
I0504 09:20:21.596891 23424 net.cpp:86] Creating Layer Sigmoid0
I0504 09:20:21.596900 23424 net.cpp:408] Sigmoid0 <- conv0
I0504 09:20:21.596910 23424 net.cpp:382] Sigmoid0 -> Sigmoid0
I0504 09:20:21.597148 23424 net.cpp:124] Setting up Sigmoid0
I0504 09:20:21.597162 23424 net.cpp:131] Top shape: 111 24 34 34 (3079584)
I0504 09:20:21.597169 23424 net.cpp:139] Memory required for data: 26001084
I0504 09:20:21.597175 23424 layer_factory.hpp:77] Creating layer pool0
I0504 09:20:21.597187 23424 net.cpp:86] Creating Layer pool0
I0504 09:20:21.597194 23424 net.cpp:408] pool0 <- Sigmoid0
I0504 09:20:21.597204 23424 net.cpp:382] pool0 -> pool0
I0504 09:20:21.598114 23424 net.cpp:124] Setting up pool0
I0504 09:20:21.598134 23424 net.cpp:131] Top shape: 111 24 17 17 (769896)
I0504 09:20:21.598140 23424 net.cpp:139] Memory required for data: 29080668
I0504 09:20:21.598146 23424 layer_factory.hpp:77] Creating layer conv1
I0504 09:20:21.598170 23424 net.cpp:86] Creating Layer conv1
I0504 09:20:21.598181 23424 net.cpp:408] conv1 <- pool0
I0504 09:20:21.598193 23424 net.cpp:382] conv1 -> conv1
I0504 09:20:21.601909 23424 net.cpp:124] Setting up conv1
I0504 09:20:21.601928 23424 net.cpp:131] Top shape: 111 72 19 19 (2885112)
I0504 09:20:21.601936 23424 net.cpp:139] Memory required for data: 40621116
I0504 09:20:21.601953 23424 layer_factory.hpp:77] Creating layer Sigmoid1
I0504 09:20:21.601966 23424 net.cpp:86] Creating Layer Sigmoid1
I0504 09:20:21.601974 23424 net.cpp:408] Sigmoid1 <- conv1
I0504 09:20:21.601984 23424 net.cpp:382] Sigmoid1 -> Sigmoid1
I0504 09:20:21.602216 23424 net.cpp:124] Setting up Sigmoid1
I0504 09:20:21.602231 23424 net.cpp:131] Top shape: 111 72 19 19 (2885112)
I0504 09:20:21.602237 23424 net.cpp:139] Memory required for data: 52161564
I0504 09:20:21.602243 23424 layer_factory.hpp:77] Creating layer pool1
I0504 09:20:21.602254 23424 net.cpp:86] Creating Layer pool1
I0504 09:20:21.602259 23424 net.cpp:408] pool1 <- Sigmoid1
I0504 09:20:21.602268 23424 net.cpp:382] pool1 -> pool1
I0504 09:20:21.602497 23424 net.cpp:124] Setting up pool1
I0504 09:20:21.602510 23424 net.cpp:131] Top shape: 111 72 9 9 (647352)
I0504 09:20:21.602515 23424 net.cpp:139] Memory required for data: 54750972
I0504 09:20:21.602522 23424 layer_factory.hpp:77] Creating layer ip1
I0504 09:20:21.602540 23424 net.cpp:86] Creating Layer ip1
I0504 09:20:21.602546 23424 net.cpp:408] ip1 <- pool1
I0504 09:20:21.602555 23424 net.cpp:382] ip1 -> ip1
I0504 09:20:21.636912 23424 net.cpp:124] Setting up ip1
I0504 09:20:21.636929 23424 net.cpp:131] Top shape: 111 180 (19980)
I0504 09:20:21.636935 23424 net.cpp:139] Memory required for data: 54830892
I0504 09:20:21.636950 23424 layer_factory.hpp:77] Creating layer relu1
I0504 09:20:21.636965 23424 net.cpp:86] Creating Layer relu1
I0504 09:20:21.636977 23424 net.cpp:408] relu1 <- ip1
I0504 09:20:21.636986 23424 net.cpp:369] relu1 -> ip1 (in-place)
I0504 09:20:21.637203 23424 net.cpp:124] Setting up relu1
I0504 09:20:21.637215 23424 net.cpp:131] Top shape: 111 180 (19980)
I0504 09:20:21.637220 23424 net.cpp:139] Memory required for data: 54910812
I0504 09:20:21.637226 23424 layer_factory.hpp:77] Creating layer ip2
I0504 09:20:21.637238 23424 net.cpp:86] Creating Layer ip2
I0504 09:20:21.637244 23424 net.cpp:408] ip2 <- ip1
I0504 09:20:21.637275 23424 net.cpp:382] ip2 -> ip2
I0504 09:20:21.637451 23424 net.cpp:124] Setting up ip2
I0504 09:20:21.637462 23424 net.cpp:131] Top shape: 111 10 (1110)
I0504 09:20:21.637467 23424 net.cpp:139] Memory required for data: 54915252
I0504 09:20:21.637477 23424 layer_factory.hpp:77] Creating layer relu2
I0504 09:20:21.637488 23424 net.cpp:86] Creating Layer relu2
I0504 09:20:21.637495 23424 net.cpp:408] relu2 <- ip2
I0504 09:20:21.637502 23424 net.cpp:369] relu2 -> ip2 (in-place)
I0504 09:20:21.638303 23424 net.cpp:124] Setting up relu2
I0504 09:20:21.638319 23424 net.cpp:131] Top shape: 111 10 (1110)
I0504 09:20:21.638325 23424 net.cpp:139] Memory required for data: 54919692
I0504 09:20:21.638331 23424 layer_factory.hpp:77] Creating layer ip3
I0504 09:20:21.638342 23424 net.cpp:86] Creating Layer ip3
I0504 09:20:21.638348 23424 net.cpp:408] ip3 <- ip2
I0504 09:20:21.638361 23424 net.cpp:382] ip3 -> ip3
I0504 09:20:21.638484 23424 net.cpp:124] Setting up ip3
I0504 09:20:21.638494 23424 net.cpp:131] Top shape: 111 10 (1110)
I0504 09:20:21.638499 23424 net.cpp:139] Memory required for data: 54924132
I0504 09:20:21.638515 23424 layer_factory.hpp:77] Creating layer loss
I0504 09:20:21.638535 23424 net.cpp:86] Creating Layer loss
I0504 09:20:21.638542 23424 net.cpp:408] loss <- ip3
I0504 09:20:21.638550 23424 net.cpp:408] loss <- label
I0504 09:20:21.638561 23424 net.cpp:382] loss -> loss
I0504 09:20:21.638581 23424 layer_factory.hpp:77] Creating layer loss
…
I0504 09:20:21.639350 23424 solver.cpp:173] Creating test net (#0) specified by net file: ECE595/cifar/train_test/var_everything_tiny/cifar_train_test_117.prototxt
I0504 09:20:21.639392 23424 net.cpp:296] The NetState phase (1) differed from the phase (0) specified by a rule in layer cifar
I0504 09:20:21.639509 23424 net.cpp:53] Initializing net from parameters: 
name: "CIFAR"
state {
  phase: TEST
}
layer {
  name: "cifar"
  type: "Data"
  top: "data"
  top: "label"
  include {
    phase: TEST
  }
  transform_param {
    mean_file: "examples/cifar10/mean.binaryproto"
  }
  data_param {
    source: "examples/cifar10/cifar10_test_lmdb"
    batch_size: 1000
    backend: LMDB
  }
}
layer {
  name: "conv0"
  type: "Convolution"
  bottom: "data"
  top: "conv0"
  param {
    lr_mult: 1
  }
  param {
    lr_mult: 2
  }
  convolution_param {
    num_output: 24
    pad: 2
    kernel_size: 3
    stride: 1
    weight_filler {
      type: "gaussian"
      std: 0.01
    }
    bias_filler {
      type: "constant"
    }
  }
}
layer {
  name: "Sigmoid0"
  type: "Sigmoid"
  bottom: "conv0"
  top: "Sigmoid0"
}
layer {
  name: "pool0"
  type: "Pooling"
  bottom: "Sigmoid0"
  top: "pool0"
  pooling_param {
    pool: AVE
    kernel_size: 3
    stride: 2
  }
}
layer {
  name: "conv1"
  type: "Convolution"
  bottom: "pool0"
  top: "conv1"
  param {
    lr_mult: 1
  }
  param {
    lr_mult: 2
  }
  convolution_param {
    num_output: 72
    pad: 2
    kernel_size: 3
    stride: 1
    weight_filler {
      type: "gaussian"
      std: 0.01
    }
    bias_filler {
      type: "constant"
    }
  }
}
layer {
  name: "Sigmoid1"
  type: "Sigmoid"
  bottom: "conv1"
  top: "Sigmoid1"
}
layer {
  name: "pool1"
  type: "Pooling"
  bottom: "Sigmoid1"
  top: "pool1"
  pooling_param {
    pool: AVE
    kernel_size: 3
    stride: 2
  }
}
layer {
  name: "ip1"
  type: "InnerProduct"
  bottom: "pool1"
  top: "ip1"
  param {
    lr_mult: 1
  }
  param {
    lr_mult: 2
  }
  inner_product_param {
    num_output: 180
    weight_filler {
      type: "gaussian"
      std: 0.01
    }
    bias_filler {
      type: "constant"
    }
  }
}
layer {
  name: "relu1"
  type: "ReLU"
  bottom: "ip1"
  top: "ip1"
}
layer {
  name: "ip2"
  type: "InnerProduct"
  bottom: "ip1"
  top: "ip2"
  param {
    lr_mult: 1
  }
  param {
    lr_mult: 2
  }
  inner_product_param {
    num_output: 10
    weight_filler {
      type: "gaussian"
      std: 0.01
    }
    bias_filler {
      type: "constant"
    }
  }
}
layer {
  name: "relu2"
  type: "ReLU"
  bottom: "ip2"
  top: "ip2"
}
layer {
  name: "ip3"
  type: "InnerProduct"
  bottom: "ip2"
  top: "ip3"
  param {
    lr_mult: 1
  }
  param {
    lr_mult: 2
  }
  inner_product_param {
    num_output: 10
    weight_filler {
      type: "gaussian"
      std: 0.01
    }
    bias_filler {
      type: "constant"
    }
  }
}
layer {
  name: "accuracy"
  type: "Accuracy"
  bottom: "ip3"
  bottom: "label"
  top: "accuracy"
  include {
    phase: TEST
  }
}
layer {
  name: "loss"
  type: "SoftmaxWithLoss"
  bottom: "ip3"
  bottom: "label"
  top: "loss"
}
I0504 09:20:21.639645 23424 layer_factory.hpp:77] Creating layer cifar
I0504 09:20:21.639708 23424 db_lmdb.cpp:35] Opened lmdb examples/cifar10/cifar10_test_lmdb
I0504 09:20:21.639727 23424 net.cpp:86] Creating Layer cifar
I0504 09:20:21.639735 23424 net.cpp:382] cifar -> data
I0504 09:20:21.639750 23424 net.cpp:382] cifar -> label
I0504 09:20:21.639761 23424 data_transformer.cpp:25] Loading mean file from: examples/cifar10/mean.binaryproto
I0504 09:20:21.639999 23424 data_layer.cpp:45] output data size: 1000,3,32,32
I0504 09:20:21.663419 23424 net.cpp:124] Setting up cifar
I0504 09:20:21.663447 23424 net.cpp:131] Top shape: 1000 3 32 32 (3072000)
I0504 09:20:21.663481 23424 net.cpp:131] Top shape: 1000 (1000)
I0504 09:20:21.663491 23424 net.cpp:139] Memory required for data: 12292000
I0504 09:20:21.663498 23424 layer_factory.hpp:77] Creating layer label_cifar_1_split
I0504 09:20:21.663514 23424 net.cpp:86] Creating Layer label_cifar_1_split
I0504 09:20:21.663522 23424 net.cpp:408] label_cifar_1_split <- label
I0504 09:20:21.663532 23424 net.cpp:382] label_cifar_1_split -> label_cifar_1_split_0
I0504 09:20:21.663544 23424 net.cpp:382] label_cifar_1_split -> label_cifar_1_split_1
I0504 09:20:21.663607 23424 net.cpp:124] Setting up label_cifar_1_split
I0504 09:20:21.663616 23424 net.cpp:131] Top shape: 1000 (1000)
I0504 09:20:21.663622 23424 net.cpp:131] Top shape: 1000 (1000)
I0504 09:20:21.663626 23424 net.cpp:139] Memory required for data: 12300000
I0504 09:20:21.663632 23424 layer_factory.hpp:77] Creating layer conv0
I0504 09:20:21.663650 23424 net.cpp:86] Creating Layer conv0
I0504 09:20:21.663657 23424 net.cpp:408] conv0 <- data
I0504 09:20:21.663667 23424 net.cpp:382] conv0 -> conv0
I0504 09:20:21.665215 23424 net.cpp:124] Setting up conv0
I0504 09:20:21.665230 23424 net.cpp:131] Top shape: 1000 24 34 34 (27744000)
I0504 09:20:21.665236 23424 net.cpp:139] Memory required for data: 123276000
I0504 09:20:21.665252 23424 layer_factory.hpp:77] Creating layer Sigmoid0
I0504 09:20:21.665262 23424 net.cpp:86] Creating Layer Sigmoid0
I0504 09:20:21.665267 23424 net.cpp:408] Sigmoid0 <- conv0
I0504 09:20:21.665277 23424 net.cpp:382] Sigmoid0 -> Sigmoid0
I0504 09:20:21.665475 23424 net.cpp:124] Setting up Sigmoid0
I0504 09:20:21.665501 23424 net.cpp:131] Top shape: 1000 24 34 34 (27744000)
I0504 09:20:21.665508 23424 net.cpp:139] Memory required for data: 234252000
I0504 09:20:21.665513 23424 layer_factory.hpp:77] Creating layer pool0
I0504 09:20:21.665525 23424 net.cpp:86] Creating Layer pool0
I0504 09:20:21.665530 23424 net.cpp:408] pool0 <- Sigmoid0
I0504 09:20:21.665537 23424 net.cpp:382] pool0 -> pool0
I0504 09:20:21.666748 23424 net.cpp:124] Setting up pool0
I0504 09:20:21.666760 23424 net.cpp:131] Top shape: 1000 24 17 17 (6936000)
I0504 09:20:21.666765 23424 net.cpp:139] Memory required for data: 261996000
I0504 09:20:21.666770 23424 layer_factory.hpp:77] Creating layer conv1
I0504 09:20:21.666785 23424 net.cpp:86] Creating Layer conv1
I0504 09:20:21.666791 23424 net.cpp:408] conv1 <- pool0
I0504 09:20:21.666801 23424 net.cpp:382] conv1 -> conv1
I0504 09:20:21.668566 23424 net.cpp:124] Setting up conv1
I0504 09:20:21.668582 23424 net.cpp:131] Top shape: 1000 72 19 19 (25992000)
I0504 09:20:21.668588 23424 net.cpp:139] Memory required for data: 365964000
I0504 09:20:21.668601 23424 layer_factory.hpp:77] Creating layer Sigmoid1
I0504 09:20:21.668612 23424 net.cpp:86] Creating Layer Sigmoid1
I0504 09:20:21.668618 23424 net.cpp:408] Sigmoid1 <- conv1
I0504 09:20:21.668625 23424 net.cpp:382] Sigmoid1 -> Sigmoid1
I0504 09:20:21.668817 23424 net.cpp:124] Setting up Sigmoid1
I0504 09:20:21.668829 23424 net.cpp:131] Top shape: 1000 72 19 19 (25992000)
I0504 09:20:21.668834 23424 net.cpp:139] Memory required for data: 469932000
I0504 09:20:21.668839 23424 layer_factory.hpp:77] Creating layer pool1
I0504 09:20:21.668848 23424 net.cpp:86] Creating Layer pool1
I0504 09:20:21.668853 23424 net.cpp:408] pool1 <- Sigmoid1
I0504 09:20:21.668864 23424 net.cpp:382] pool1 -> pool1
I0504 09:20:21.669623 23424 net.cpp:124] Setting up pool1
I0504 09:20:21.669637 23424 net.cpp:131] Top shape: 1000 72 9 9 (5832000)
I0504 09:20:21.669643 23424 net.cpp:139] Memory required for data: 493260000
I0504 09:20:21.669648 23424 layer_factory.hpp:77] Creating layer ip1
I0504 09:20:21.669665 23424 net.cpp:86] Creating Layer ip1
I0504 09:20:21.669677 23424 net.cpp:408] ip1 <- pool1
I0504 09:20:21.669685 23424 net.cpp:382] ip1 -> ip1
I0504 09:20:21.698187 23424 net.cpp:124] Setting up ip1
I0504 09:20:21.698235 23424 net.cpp:131] Top shape: 1000 180 (180000)
I0504 09:20:21.698240 23424 net.cpp:139] Memory required for data: 493980000
I0504 09:20:21.698256 23424 layer_factory.hpp:77] Creating layer relu1
I0504 09:20:21.698268 23424 net.cpp:86] Creating Layer relu1
I0504 09:20:21.698274 23424 net.cpp:408] relu1 <- ip1
I0504 09:20:21.698282 23424 net.cpp:369] relu1 -> ip1 (in-place)
I0504 09:20:21.698501 23424 net.cpp:124] Setting up relu1
I0504 09:20:21.698516 23424 net.cpp:131] Top shape: 1000 180 (180000)
I0504 09:20:21.698523 23424 net.cpp:139] Memory required for data: 494700000
I0504 09:20:21.698529 23424 layer_factory.hpp:77] Creating layer ip2
I0504 09:20:21.698539 23424 net.cpp:86] Creating Layer ip2
I0504 09:20:21.698545 23424 net.cpp:408] ip2 <- ip1
I0504 09:20:21.698556 23424 net.cpp:382] ip2 -> ip2
I0504 09:20:21.698770 23424 net.cpp:124] Setting up ip2
I0504 09:20:21.698778 23424 net.cpp:131] Top shape: 1000 10 (10000)
I0504 09:20:21.698783 23424 net.cpp:139] Memory required for data: 494740000
I0504 09:20:21.698792 23424 layer_factory.hpp:77] Creating layer relu2
I0504 09:20:21.698802 23424 net.cpp:86] Creating Layer relu2
I0504 09:20:21.698812 23424 net.cpp:408] relu2 <- ip2
I0504 09:20:21.698819 23424 net.cpp:369] relu2 -> ip2 (in-place)
I0504 09:20:21.698976 23424 net.cpp:124] Setting up relu2
I0504 09:20:21.698985 23424 net.cpp:131] Top shape: 1000 10 (10000)
I0504 09:20:21.698989 23424 net.cpp:139] Memory required for data: 494780000
I0504 09:20:21.698994 23424 layer_factory.hpp:77] Creating layer ip3
I0504 09:20:21.699007 23424 net.cpp:86] Creating Layer ip3
I0504 09:20:21.699012 23424 net.cpp:408] ip3 <- ip2
I0504 09:20:21.699020 23424 net.cpp:382] ip3 -> ip3
I0504 09:20:21.699132 23424 net.cpp:124] Setting up ip3
I0504 09:20:21.699141 23424 net.cpp:131] Top shape: 1000 10 (10000)
I0504 09:20:21.699162 23424 net.cpp:139] Memory required for data: 494820000
I0504 09:20:21.699174 23424 layer_factory.hpp:77] Creating layer ip3_ip3_0_split
I0504 09:20:21.699182 23424 net.cpp:86] Creating Layer ip3_ip3_0_split
I0504 09:20:21.699187 23424 net.cpp:408] ip3_ip3_0_split <- ip3
I0504 09:20:21.699194 23424 net.cpp:382] ip3_ip3_0_split -> ip3_ip3_0_split_0
I0504 09:20:21.699204 23424 net.cpp:382] ip3_ip3_0_split -> ip3_ip3_0_split_1
I0504 09:20:21.699244 23424 net.cpp:124] Setting up ip3_ip3_0_split
I0504 09:20:21.699251 23424 net.cpp:131] Top shape: 1000 10 (10000)
I0504 09:20:21.699257 23424 net.cpp:131] Top shape: 1000 10 (10000)
I0504 09:20:21.699261 23424 net.cpp:139] Memory required for data: 494900000
I0504 09:20:21.699266 23424 layer_factory.hpp:77] Creating layer accuracy
I0504 09:20:21.699276 23424 net.cpp:86] Creating Layer accuracy
I0504 09:20:21.699282 23424 net.cpp:408] accuracy <- ip3_ip3_0_split_0
I0504 09:20:21.699288 23424 net.cpp:408] accuracy <- label_cifar_1_split_0
I0504 09:20:21.699295 23424 net.cpp:382] accuracy -> accuracy
…
