…
I0504 06:35:14.425642 16515 net.cpp:296] The NetState phase (0) differed from the phase (1) specified by a rule in layer cifar
I0504 06:35:14.425658 16515 net.cpp:296] The NetState phase (0) differed from the phase (1) specified by a rule in layer accuracy
I0504 06:35:14.425751 16515 net.cpp:53] Initializing net from parameters: 
name: "CIFAR"
state {
  phase: TRAIN
  level: 0
  stage: ""
}
layer {
  name: "cifar"
  type: "Data"
  top: "data"
  top: "label"
  include {
    phase: TRAIN
  }
  transform_param {
    mean_file: "examples/cifar10/mean.binaryproto"
  }
  data_param {
    source: "examples/cifar10/cifar10_train_lmdb"
    batch_size: 111
    backend: LMDB
  }
}
layer {
  name: "conv0"
  type: "Convolution"
  bottom: "data"
  top: "conv0"
  param {
    lr_mult: 1
  }
  param {
    lr_mult: 2
  }
  convolution_param {
    num_output: 216
    pad: 2
    kernel_size: 5
    stride: 1
    weight_filler {
      type: "gaussian"
      std: 0.01
    }
    bias_filler {
      type: "constant"
    }
  }
}
layer {
  name: "Sigmoid0"
  type: "Sigmoid"
  bottom: "conv0"
  top: "Sigmoid0"
}
layer {
  name: "pool0"
  type: "Pooling"
  bottom: "Sigmoid0"
  top: "pool0"
  pooling_param {
    pool: AVE
    kernel_size: 3
    stride: 2
  }
}
layer {
  name: "ip1"
  type: "InnerProduct"
  bottom: "pool0"
  top: "ip1"
  param {
    lr_mult: 1
  }
  param {
    lr_mult: 2
  }
  inner_product_param {
    num_output: 180
    weight_filler {
      type: "gaussian"
      std: 0.01
    }
    bias_filler {
      type: "constant"
    }
  }
}
layer {
  name: "relu1"
  type: "ReLU"
  bottom: "ip1"
  top: "ip1"
}
layer {
  name: "ip2"
  type: "InnerProduct"
  bottom: "ip1"
  top: "ip2"
  param {
    lr_mult: 1
  }
  param {
    lr_mult: 2
  }
  inner_product_param {
    num_output: 10
    weight_filler {
      type: "gaussian"
      std: 0.01
    }
    bias_filler {
      type: "constant"
    }
  }
}
layer {
  name: "relu2"
  type: "ReLU"
  bottom: "ip2"
  top: "ip2"
}
layer {
  name: "ip3"
  type: "InnerProduct"
  bottom: "ip2"
  top: "ip3"
  param {
    lr_mult: 1
  }
  param {
    lr_mult: 2
  }
  inner_product_param {
    num_output: 10
    weight_filler {
      type: "gaussian"
      std: 0.01
    }
    bias_filler {
      type: "constant"
    }
  }
}
layer {
  name: "loss"
  type: "SoftmaxWithLoss"
  bottom: "ip3"
  bottom: "label"
  top: "loss"
}
I0504 06:35:14.425832 16515 layer_factory.hpp:77] Creating layer cifar
I0504 06:35:14.425935 16515 db_lmdb.cpp:35] Opened lmdb examples/cifar10/cifar10_train_lmdb
I0504 06:35:14.425963 16515 net.cpp:86] Creating Layer cifar
I0504 06:35:14.425971 16515 net.cpp:382] cifar -> data
I0504 06:35:14.425994 16515 net.cpp:382] cifar -> label
I0504 06:35:14.426008 16515 data_transformer.cpp:25] Loading mean file from: examples/cifar10/mean.binaryproto
I0504 06:35:14.428221 16515 data_layer.cpp:45] output data size: 111,3,32,32
I0504 06:35:14.436092 16515 net.cpp:124] Setting up cifar
I0504 06:35:14.436111 16515 net.cpp:131] Top shape: 111 3 32 32 (340992)
I0504 06:35:14.436120 16515 net.cpp:131] Top shape: 111 (111)
I0504 06:35:14.436122 16515 net.cpp:139] Memory required for data: 1364412
I0504 06:35:14.436131 16515 layer_factory.hpp:77] Creating layer conv0
I0504 06:35:14.436148 16515 net.cpp:86] Creating Layer conv0
I0504 06:35:14.436153 16515 net.cpp:408] conv0 <- data
I0504 06:35:14.436167 16515 net.cpp:382] conv0 -> conv0
I0504 06:35:14.723603 16515 net.cpp:124] Setting up conv0
I0504 06:35:14.723650 16515 net.cpp:131] Top shape: 111 216 32 32 (24551424)
I0504 06:35:14.723655 16515 net.cpp:139] Memory required for data: 99570108
I0504 06:35:14.723670 16515 layer_factory.hpp:77] Creating layer Sigmoid0
I0504 06:35:14.723681 16515 net.cpp:86] Creating Layer Sigmoid0
I0504 06:35:14.723685 16515 net.cpp:408] Sigmoid0 <- conv0
I0504 06:35:14.723690 16515 net.cpp:382] Sigmoid0 -> Sigmoid0
I0504 06:35:14.723862 16515 net.cpp:124] Setting up Sigmoid0
I0504 06:35:14.723872 16515 net.cpp:131] Top shape: 111 216 32 32 (24551424)
I0504 06:35:14.723875 16515 net.cpp:139] Memory required for data: 197775804
I0504 06:35:14.723878 16515 layer_factory.hpp:77] Creating layer pool0
I0504 06:35:14.723884 16515 net.cpp:86] Creating Layer pool0
I0504 06:35:14.723887 16515 net.cpp:408] pool0 <- Sigmoid0
I0504 06:35:14.723891 16515 net.cpp:382] pool0 -> pool0
I0504 06:35:14.724622 16515 net.cpp:124] Setting up pool0
I0504 06:35:14.724634 16515 net.cpp:131] Top shape: 111 216 16 16 (6137856)
I0504 06:35:14.724637 16515 net.cpp:139] Memory required for data: 222327228
I0504 06:35:14.724640 16515 layer_factory.hpp:77] Creating layer ip1
I0504 06:35:14.724650 16515 net.cpp:86] Creating Layer ip1
I0504 06:35:14.724654 16515 net.cpp:408] ip1 <- pool0
I0504 06:35:14.724661 16515 net.cpp:382] ip1 -> ip1
I0504 06:35:14.988647 16515 net.cpp:124] Setting up ip1
I0504 06:35:14.988687 16515 net.cpp:131] Top shape: 111 180 (19980)
I0504 06:35:14.988692 16515 net.cpp:139] Memory required for data: 222407148
I0504 06:35:14.988703 16515 layer_factory.hpp:77] Creating layer relu1
I0504 06:35:14.988713 16515 net.cpp:86] Creating Layer relu1
I0504 06:35:14.988718 16515 net.cpp:408] relu1 <- ip1
I0504 06:35:14.988723 16515 net.cpp:369] relu1 -> ip1 (in-place)
I0504 06:35:14.988963 16515 net.cpp:124] Setting up relu1
I0504 06:35:14.988972 16515 net.cpp:131] Top shape: 111 180 (19980)
I0504 06:35:14.988976 16515 net.cpp:139] Memory required for data: 222487068
I0504 06:35:14.988978 16515 layer_factory.hpp:77] Creating layer ip2
I0504 06:35:14.988992 16515 net.cpp:86] Creating Layer ip2
I0504 06:35:14.988996 16515 net.cpp:408] ip2 <- ip1
I0504 06:35:14.989001 16515 net.cpp:382] ip2 -> ip2
I0504 06:35:14.989145 16515 net.cpp:124] Setting up ip2
I0504 06:35:14.989153 16515 net.cpp:131] Top shape: 111 10 (1110)
I0504 06:35:14.989156 16515 net.cpp:139] Memory required for data: 222491508
I0504 06:35:14.989163 16515 layer_factory.hpp:77] Creating layer relu2
I0504 06:35:14.989168 16515 net.cpp:86] Creating Layer relu2
I0504 06:35:14.989171 16515 net.cpp:408] relu2 <- ip2
I0504 06:35:14.989176 16515 net.cpp:369] relu2 -> ip2 (in-place)
I0504 06:35:14.989332 16515 net.cpp:124] Setting up relu2
I0504 06:35:14.989341 16515 net.cpp:131] Top shape: 111 10 (1110)
I0504 06:35:14.989343 16515 net.cpp:139] Memory required for data: 222495948
I0504 06:35:14.989346 16515 layer_factory.hpp:77] Creating layer ip3
I0504 06:35:14.989356 16515 net.cpp:86] Creating Layer ip3
I0504 06:35:14.989358 16515 net.cpp:408] ip3 <- ip2
I0504 06:35:14.989364 16515 net.cpp:382] ip3 -> ip3
I0504 06:35:14.989459 16515 net.cpp:124] Setting up ip3
I0504 06:35:14.989464 16515 net.cpp:131] Top shape: 111 10 (1110)
I0504 06:35:14.989467 16515 net.cpp:139] Memory required for data: 222500388
I0504 06:35:14.989472 16515 layer_factory.hpp:77] Creating layer loss
I0504 06:35:14.989478 16515 net.cpp:86] Creating Layer loss
I0504 06:35:14.989481 16515 net.cpp:408] loss <- ip3
I0504 06:35:14.989485 16515 net.cpp:408] loss <- label
I0504 06:35:14.989490 16515 net.cpp:382] loss -> loss
I0504 06:35:14.989511 16515 layer_factory.hpp:77] Creating layer loss
…
I0504 06:35:14.990178 16515 solver.cpp:173] Creating test net (#0) specified by net file: ECE595/cifar/train_test/var_everything_tiny/cifar_train_test_69.prototxt
I0504 06:35:14.990233 16515 net.cpp:296] The NetState phase (1) differed from the phase (0) specified by a rule in layer cifar
I0504 06:35:14.990351 16515 net.cpp:53] Initializing net from parameters: 
name: "CIFAR"
state {
  phase: TEST
}
layer {
  name: "cifar"
  type: "Data"
  top: "data"
  top: "label"
  include {
    phase: TEST
  }
  transform_param {
    mean_file: "examples/cifar10/mean.binaryproto"
  }
  data_param {
    source: "examples/cifar10/cifar10_test_lmdb"
    batch_size: 1000
    backend: LMDB
  }
}
layer {
  name: "conv0"
  type: "Convolution"
  bottom: "data"
  top: "conv0"
  param {
    lr_mult: 1
  }
  param {
    lr_mult: 2
  }
  convolution_param {
    num_output: 216
    pad: 2
    kernel_size: 5
    stride: 1
    weight_filler {
      type: "gaussian"
      std: 0.01
    }
    bias_filler {
      type: "constant"
    }
  }
}
layer {
  name: "Sigmoid0"
  type: "Sigmoid"
  bottom: "conv0"
  top: "Sigmoid0"
}
layer {
  name: "pool0"
  type: "Pooling"
  bottom: "Sigmoid0"
  top: "pool0"
  pooling_param {
    pool: AVE
    kernel_size: 3
    stride: 2
  }
}
layer {
  name: "ip1"
  type: "InnerProduct"
  bottom: "pool0"
  top: "ip1"
  param {
    lr_mult: 1
  }
  param {
    lr_mult: 2
  }
  inner_product_param {
    num_output: 180
    weight_filler {
      type: "gaussian"
      std: 0.01
    }
    bias_filler {
      type: "constant"
    }
  }
}
layer {
  name: "relu1"
  type: "ReLU"
  bottom: "ip1"
  top: "ip1"
}
layer {
  name: "ip2"
  type: "InnerProduct"
  bottom: "ip1"
  top: "ip2"
  param {
    lr_mult: 1
  }
  param {
    lr_mult: 2
  }
  inner_product_param {
    num_output: 10
    weight_filler {
      type: "gaussian"
      std: 0.01
    }
    bias_filler {
      type: "constant"
    }
  }
}
layer {
  name: "relu2"
  type: "ReLU"
  bottom: "ip2"
  top: "ip2"
}
layer {
  name: "ip3"
  type: "InnerProduct"
  bottom: "ip2"
  top: "ip3"
  param {
    lr_mult: 1
  }
  param {
    lr_mult: 2
  }
  inner_product_param {
    num_output: 10
    weight_filler {
      type: "gaussian"
      std: 0.01
    }
    bias_filler {
      type: "constant"
    }
  }
}
layer {
  name: "accuracy"
  type: "Accuracy"
  bottom: "ip3"
  bottom: "label"
  top: "accuracy"
  include {
    phase: TEST
  }
}
layer {
  name: "loss"
  type: "SoftmaxWithLoss"
  bottom: "ip3"
  bottom: "label"
  top: "loss"
}
I0504 06:35:14.990420 16515 layer_factory.hpp:77] Creating layer cifar
I0504 06:35:14.990474 16515 db_lmdb.cpp:35] Opened lmdb examples/cifar10/cifar10_test_lmdb
I0504 06:35:14.990487 16515 net.cpp:86] Creating Layer cifar
I0504 06:35:14.990494 16515 net.cpp:382] cifar -> data
I0504 06:35:14.990502 16515 net.cpp:382] cifar -> label
I0504 06:35:14.990509 16515 data_transformer.cpp:25] Loading mean file from: examples/cifar10/mean.binaryproto
I0504 06:35:14.990700 16515 data_layer.cpp:45] output data size: 1000,3,32,32
I0504 06:35:15.012640 16515 net.cpp:124] Setting up cifar
I0504 06:35:15.012697 16515 net.cpp:131] Top shape: 1000 3 32 32 (3072000)
I0504 06:35:15.012704 16515 net.cpp:131] Top shape: 1000 (1000)
I0504 06:35:15.012706 16515 net.cpp:139] Memory required for data: 12292000
I0504 06:35:15.012712 16515 layer_factory.hpp:77] Creating layer label_cifar_1_split
I0504 06:35:15.012745 16515 net.cpp:86] Creating Layer label_cifar_1_split
I0504 06:35:15.012750 16515 net.cpp:408] label_cifar_1_split <- label
I0504 06:35:15.012758 16515 net.cpp:382] label_cifar_1_split -> label_cifar_1_split_0
I0504 06:35:15.012765 16515 net.cpp:382] label_cifar_1_split -> label_cifar_1_split_1
I0504 06:35:15.012923 16515 net.cpp:124] Setting up label_cifar_1_split
I0504 06:35:15.012933 16515 net.cpp:131] Top shape: 1000 (1000)
I0504 06:35:15.012936 16515 net.cpp:131] Top shape: 1000 (1000)
I0504 06:35:15.012939 16515 net.cpp:139] Memory required for data: 12300000
I0504 06:35:15.012943 16515 layer_factory.hpp:77] Creating layer conv0
I0504 06:35:15.012955 16515 net.cpp:86] Creating Layer conv0
I0504 06:35:15.012959 16515 net.cpp:408] conv0 <- data
I0504 06:35:15.012964 16515 net.cpp:382] conv0 -> conv0
I0504 06:35:15.014997 16515 net.cpp:124] Setting up conv0
I0504 06:35:15.015012 16515 net.cpp:131] Top shape: 1000 216 32 32 (221184000)
I0504 06:35:15.015015 16515 net.cpp:139] Memory required for data: 897036000
I0504 06:35:15.015025 16515 layer_factory.hpp:77] Creating layer Sigmoid0
I0504 06:35:15.015033 16515 net.cpp:86] Creating Layer Sigmoid0
I0504 06:35:15.015035 16515 net.cpp:408] Sigmoid0 <- conv0
I0504 06:35:15.015041 16515 net.cpp:382] Sigmoid0 -> Sigmoid0
I0504 06:35:15.016782 16515 net.cpp:124] Setting up Sigmoid0
I0504 06:35:15.016795 16515 net.cpp:131] Top shape: 1000 216 32 32 (221184000)
I0504 06:35:15.016799 16515 net.cpp:139] Memory required for data: 1781772000
I0504 06:35:15.016803 16515 layer_factory.hpp:77] Creating layer pool0
I0504 06:35:15.016831 16515 net.cpp:86] Creating Layer pool0
I0504 06:35:15.016835 16515 net.cpp:408] pool0 <- Sigmoid0
I0504 06:35:15.016840 16515 net.cpp:382] pool0 -> pool0
I0504 06:35:15.017030 16515 net.cpp:124] Setting up pool0
I0504 06:35:15.017040 16515 net.cpp:131] Top shape: 1000 216 16 16 (55296000)
I0504 06:35:15.017043 16515 net.cpp:139] Memory required for data: 2002956000
I0504 06:35:15.017047 16515 layer_factory.hpp:77] Creating layer ip1
I0504 06:35:15.017055 16515 net.cpp:86] Creating Layer ip1
I0504 06:35:15.017057 16515 net.cpp:408] ip1 <- pool0
I0504 06:35:15.017063 16515 net.cpp:382] ip1 -> ip1
I0504 06:35:15.280475 16515 net.cpp:124] Setting up ip1
I0504 06:35:15.280514 16515 net.cpp:131] Top shape: 1000 180 (180000)
I0504 06:35:15.280517 16515 net.cpp:139] Memory required for data: 2003676000
I0504 06:35:15.280529 16515 layer_factory.hpp:77] Creating layer relu1
I0504 06:35:15.280539 16515 net.cpp:86] Creating Layer relu1
I0504 06:35:15.280544 16515 net.cpp:408] relu1 <- ip1
I0504 06:35:15.280550 16515 net.cpp:369] relu1 -> ip1 (in-place)
I0504 06:35:15.280776 16515 net.cpp:124] Setting up relu1
I0504 06:35:15.280784 16515 net.cpp:131] Top shape: 1000 180 (180000)
I0504 06:35:15.280787 16515 net.cpp:139] Memory required for data: 2004396000
I0504 06:35:15.280791 16515 layer_factory.hpp:77] Creating layer ip2
I0504 06:35:15.280820 16515 net.cpp:86] Creating Layer ip2
I0504 06:35:15.280824 16515 net.cpp:408] ip2 <- ip1
I0504 06:35:15.280845 16515 net.cpp:382] ip2 -> ip2
I0504 06:35:15.281009 16515 net.cpp:124] Setting up ip2
I0504 06:35:15.281018 16515 net.cpp:131] Top shape: 1000 10 (10000)
I0504 06:35:15.281020 16515 net.cpp:139] Memory required for data: 2004436000
I0504 06:35:15.281028 16515 layer_factory.hpp:77] Creating layer relu2
I0504 06:35:15.281035 16515 net.cpp:86] Creating Layer relu2
I0504 06:35:15.281039 16515 net.cpp:408] relu2 <- ip2
I0504 06:35:15.281044 16515 net.cpp:369] relu2 -> ip2 (in-place)
I0504 06:35:15.281246 16515 net.cpp:124] Setting up relu2
I0504 06:35:15.281255 16515 net.cpp:131] Top shape: 1000 10 (10000)
I0504 06:35:15.281257 16515 net.cpp:139] Memory required for data: 2004476000
I0504 06:35:15.281260 16515 layer_factory.hpp:77] Creating layer ip3
I0504 06:35:15.281268 16515 net.cpp:86] Creating Layer ip3
I0504 06:35:15.281271 16515 net.cpp:408] ip3 <- ip2
I0504 06:35:15.281276 16515 net.cpp:382] ip3 -> ip3
I0504 06:35:15.281378 16515 net.cpp:124] Setting up ip3
I0504 06:35:15.281384 16515 net.cpp:131] Top shape: 1000 10 (10000)
I0504 06:35:15.281401 16515 net.cpp:139] Memory required for data: 2004516000
I0504 06:35:15.281406 16515 layer_factory.hpp:77] Creating layer ip3_ip3_0_split
I0504 06:35:15.281412 16515 net.cpp:86] Creating Layer ip3_ip3_0_split
I0504 06:35:15.281415 16515 net.cpp:408] ip3_ip3_0_split <- ip3
I0504 06:35:15.281419 16515 net.cpp:382] ip3_ip3_0_split -> ip3_ip3_0_split_0
I0504 06:35:15.281424 16515 net.cpp:382] ip3_ip3_0_split -> ip3_ip3_0_split_1
I0504 06:35:15.281457 16515 net.cpp:124] Setting up ip3_ip3_0_split
I0504 06:35:15.281461 16515 net.cpp:131] Top shape: 1000 10 (10000)
I0504 06:35:15.281466 16515 net.cpp:131] Top shape: 1000 10 (10000)
I0504 06:35:15.281467 16515 net.cpp:139] Memory required for data: 2004596000
I0504 06:35:15.281471 16515 layer_factory.hpp:77] Creating layer accuracy
I0504 06:35:15.281476 16515 net.cpp:86] Creating Layer accuracy
I0504 06:35:15.281478 16515 net.cpp:408] accuracy <- ip3_ip3_0_split_0
I0504 06:35:15.281482 16515 net.cpp:408] accuracy <- label_cifar_1_split_0
I0504 06:35:15.281487 16515 net.cpp:382] accuracy -> accuracy
…
