…
I0504 16:25:39.594065  9209 net.cpp:296] The NetState phase (0) differed from the phase (1) specified by a rule in layer cifar
I0504 16:25:39.594085  9209 net.cpp:296] The NetState phase (0) differed from the phase (1) specified by a rule in layer accuracy
I0504 16:25:39.594197  9209 net.cpp:53] Initializing net from parameters: 
name: "CIFAR"
state {
  phase: TRAIN
  level: 0
  stage: ""
}
layer {
  name: "cifar"
  type: "Data"
  top: "data"
  top: "label"
  include {
    phase: TRAIN
  }
  transform_param {
    mean_file: "examples/cifar10/mean.binaryproto"
  }
  data_param {
    source: "examples/cifar10/cifar10_train_lmdb"
    batch_size: 111
    backend: LMDB
  }
}
layer {
  name: "conv0"
  type: "Convolution"
  bottom: "data"
  top: "conv0"
  param {
    lr_mult: 1
  }
  param {
    lr_mult: 2
  }
  convolution_param {
    num_output: 72
    pad: 2
    kernel_size: 3
    stride: 1
    weight_filler {
      type: "gaussian"
      std: 0.01
    }
    bias_filler {
      type: "constant"
    }
  }
}
layer {
  name: "Sigmoid0"
  type: "Sigmoid"
  bottom: "conv0"
  top: "Sigmoid0"
}
layer {
  name: "pool0"
  type: "Pooling"
  bottom: "Sigmoid0"
  top: "pool0"
  pooling_param {
    pool: AVE
    kernel_size: 3
    stride: 2
  }
}
layer {
  name: "conv1"
  type: "Convolution"
  bottom: "pool0"
  top: "conv1"
  param {
    lr_mult: 1
  }
  param {
    lr_mult: 2
  }
  convolution_param {
    num_output: 72
    pad: 2
    kernel_size: 3
    stride: 1
    weight_filler {
      type: "gaussian"
      std: 0.01
    }
    bias_filler {
      type: "constant"
    }
  }
}
layer {
  name: "Sigmoid1"
  type: "Sigmoid"
  bottom: "conv1"
  top: "Sigmoid1"
}
layer {
  name: "pool1"
  type: "Pooling"
  bottom: "Sigmoid1"
  top: "pool1"
  pooling_param {
    pool: AVE
    kernel_size: 3
    stride: 2
  }
}
layer {
  name: "ip1"
  type: "InnerProduct"
  bottom: "pool1"
  top: "ip1"
  param {
    lr_mult: 1
  }
  param {
    lr_mult: 2
  }
  inner_product_param {
    num_output: 60
    weight_filler {
      type: "gaussian"
      std: 0.01
    }
    bias_filler {
      type: "constant"
    }
  }
}
layer {
  name: "relu1"
  type: "ReLU"
  bottom: "ip1"
  top: "ip1"
}
layer {
  name: "ip2"
  type: "InnerProduct"
  bottom: "ip1"
  top: "ip2"
  param {
    lr_mult: 1
  }
  param {
    lr_mult: 2
  }
  inner_product_param {
    num_output: 180
    weight_filler {
      type: "gaussian"
      std: 0.01
    }
    bias_filler {
      type: "constant"
    }
  }
}
layer {
  name: "relu2"
  type: "ReLU"
  bottom: "ip2"
  top: "ip2"
}
layer {
  name: "ip3"
  type: "InnerProduct"
  bottom: "ip2"
  top: "ip3"
  param {
    lr_mult: 1
  }
  param {
    lr_mult: 2
  }
  inner_product_param {
    num_output: 10
    weight_filler {
      type: "gaussian"
      std: 0.01
    }
    bias_filler {
      type: "constant"
    }
  }
}
layer {
  name: "loss"
  type: "SoftmaxWithLoss"
  bottom: "ip3"
  bottom: "label"
  top: "loss"
}
I0504 16:25:39.594285  9209 layer_factory.hpp:77] Creating layer cifar
I0504 16:25:39.594383  9209 db_lmdb.cpp:35] Opened lmdb examples/cifar10/cifar10_train_lmdb
I0504 16:25:39.594409  9209 net.cpp:86] Creating Layer cifar
I0504 16:25:39.594419  9209 net.cpp:382] cifar -> data
I0504 16:25:39.594441  9209 net.cpp:382] cifar -> label
I0504 16:25:39.594454  9209 data_transformer.cpp:25] Loading mean file from: examples/cifar10/mean.binaryproto
I0504 16:25:39.596647  9209 data_layer.cpp:45] output data size: 111,3,32,32
I0504 16:25:39.604915  9209 net.cpp:124] Setting up cifar
I0504 16:25:39.604935  9209 net.cpp:131] Top shape: 111 3 32 32 (340992)
I0504 16:25:39.604941  9209 net.cpp:131] Top shape: 111 (111)
I0504 16:25:39.604944  9209 net.cpp:139] Memory required for data: 1364412
I0504 16:25:39.604953  9209 layer_factory.hpp:77] Creating layer conv0
I0504 16:25:39.604974  9209 net.cpp:86] Creating Layer conv0
I0504 16:25:39.604979  9209 net.cpp:408] conv0 <- data
I0504 16:25:39.604992  9209 net.cpp:382] conv0 -> conv0
I0504 16:25:39.892757  9209 net.cpp:124] Setting up conv0
I0504 16:25:39.892786  9209 net.cpp:131] Top shape: 111 72 34 34 (9238752)
I0504 16:25:39.892791  9209 net.cpp:139] Memory required for data: 38319420
I0504 16:25:39.892807  9209 layer_factory.hpp:77] Creating layer Sigmoid0
I0504 16:25:39.892827  9209 net.cpp:86] Creating Layer Sigmoid0
I0504 16:25:39.892832  9209 net.cpp:408] Sigmoid0 <- conv0
I0504 16:25:39.892837  9209 net.cpp:382] Sigmoid0 -> Sigmoid0
I0504 16:25:39.893025  9209 net.cpp:124] Setting up Sigmoid0
I0504 16:25:39.893036  9209 net.cpp:131] Top shape: 111 72 34 34 (9238752)
I0504 16:25:39.893039  9209 net.cpp:139] Memory required for data: 75274428
I0504 16:25:39.893043  9209 layer_factory.hpp:77] Creating layer pool0
I0504 16:25:39.893050  9209 net.cpp:86] Creating Layer pool0
I0504 16:25:39.893054  9209 net.cpp:408] pool0 <- Sigmoid0
I0504 16:25:39.893059  9209 net.cpp:382] pool0 -> pool0
I0504 16:25:39.893831  9209 net.cpp:124] Setting up pool0
I0504 16:25:39.893846  9209 net.cpp:131] Top shape: 111 72 17 17 (2309688)
I0504 16:25:39.893849  9209 net.cpp:139] Memory required for data: 84513180
I0504 16:25:39.893852  9209 layer_factory.hpp:77] Creating layer conv1
I0504 16:25:39.893865  9209 net.cpp:86] Creating Layer conv1
I0504 16:25:39.893868  9209 net.cpp:408] conv1 <- pool0
I0504 16:25:39.893874  9209 net.cpp:382] conv1 -> conv1
I0504 16:25:39.898674  9209 net.cpp:124] Setting up conv1
I0504 16:25:39.898689  9209 net.cpp:131] Top shape: 111 72 19 19 (2885112)
I0504 16:25:39.898694  9209 net.cpp:139] Memory required for data: 96053628
I0504 16:25:39.898702  9209 layer_factory.hpp:77] Creating layer Sigmoid1
I0504 16:25:39.898708  9209 net.cpp:86] Creating Layer Sigmoid1
I0504 16:25:39.898712  9209 net.cpp:408] Sigmoid1 <- conv1
I0504 16:25:39.898717  9209 net.cpp:382] Sigmoid1 -> Sigmoid1
I0504 16:25:39.898895  9209 net.cpp:124] Setting up Sigmoid1
I0504 16:25:39.898905  9209 net.cpp:131] Top shape: 111 72 19 19 (2885112)
I0504 16:25:39.898908  9209 net.cpp:139] Memory required for data: 107594076
I0504 16:25:39.898911  9209 layer_factory.hpp:77] Creating layer pool1
I0504 16:25:39.898917  9209 net.cpp:86] Creating Layer pool1
I0504 16:25:39.898921  9209 net.cpp:408] pool1 <- Sigmoid1
I0504 16:25:39.898926  9209 net.cpp:382] pool1 -> pool1
I0504 16:25:39.899086  9209 net.cpp:124] Setting up pool1
I0504 16:25:39.899096  9209 net.cpp:131] Top shape: 111 72 9 9 (647352)
I0504 16:25:39.899098  9209 net.cpp:139] Memory required for data: 110183484
I0504 16:25:39.899101  9209 layer_factory.hpp:77] Creating layer ip1
I0504 16:25:39.899109  9209 net.cpp:86] Creating Layer ip1
I0504 16:25:39.899113  9209 net.cpp:408] ip1 <- pool1
I0504 16:25:39.899118  9209 net.cpp:382] ip1 -> ip1
I0504 16:25:39.910023  9209 net.cpp:124] Setting up ip1
I0504 16:25:39.910037  9209 net.cpp:131] Top shape: 111 60 (6660)
I0504 16:25:39.910039  9209 net.cpp:139] Memory required for data: 110210124
I0504 16:25:39.910048  9209 layer_factory.hpp:77] Creating layer relu1
I0504 16:25:39.910054  9209 net.cpp:86] Creating Layer relu1
I0504 16:25:39.910058  9209 net.cpp:408] relu1 <- ip1
I0504 16:25:39.910063  9209 net.cpp:369] relu1 -> ip1 (in-place)
I0504 16:25:39.910218  9209 net.cpp:124] Setting up relu1
I0504 16:25:39.910226  9209 net.cpp:131] Top shape: 111 60 (6660)
I0504 16:25:39.910229  9209 net.cpp:139] Memory required for data: 110236764
I0504 16:25:39.910233  9209 layer_factory.hpp:77] Creating layer ip2
I0504 16:25:39.910239  9209 net.cpp:86] Creating Layer ip2
I0504 16:25:39.910243  9209 net.cpp:408] ip2 <- ip1
I0504 16:25:39.910262  9209 net.cpp:382] ip2 -> ip2
I0504 16:25:39.911470  9209 net.cpp:124] Setting up ip2
I0504 16:25:39.911483  9209 net.cpp:131] Top shape: 111 180 (19980)
I0504 16:25:39.911486  9209 net.cpp:139] Memory required for data: 110316684
I0504 16:25:39.911492  9209 layer_factory.hpp:77] Creating layer relu2
I0504 16:25:39.911497  9209 net.cpp:86] Creating Layer relu2
I0504 16:25:39.911501  9209 net.cpp:408] relu2 <- ip2
I0504 16:25:39.911506  9209 net.cpp:369] relu2 -> ip2 (in-place)
I0504 16:25:39.912219  9209 net.cpp:124] Setting up relu2
I0504 16:25:39.912230  9209 net.cpp:131] Top shape: 111 180 (19980)
I0504 16:25:39.912235  9209 net.cpp:139] Memory required for data: 110396604
I0504 16:25:39.912237  9209 layer_factory.hpp:77] Creating layer ip3
I0504 16:25:39.912245  9209 net.cpp:86] Creating Layer ip3
I0504 16:25:39.912247  9209 net.cpp:408] ip3 <- ip2
I0504 16:25:39.912253  9209 net.cpp:382] ip3 -> ip3
I0504 16:25:39.912400  9209 net.cpp:124] Setting up ip3
I0504 16:25:39.912407  9209 net.cpp:131] Top shape: 111 10 (1110)
I0504 16:25:39.912410  9209 net.cpp:139] Memory required for data: 110401044
I0504 16:25:39.912418  9209 layer_factory.hpp:77] Creating layer loss
I0504 16:25:39.912425  9209 net.cpp:86] Creating Layer loss
I0504 16:25:39.912427  9209 net.cpp:408] loss <- ip3
I0504 16:25:39.912431  9209 net.cpp:408] loss <- label
I0504 16:25:39.912436  9209 net.cpp:382] loss -> loss
I0504 16:25:39.912453  9209 layer_factory.hpp:77] Creating layer loss
…
I0504 16:25:39.913178  9209 solver.cpp:173] Creating test net (#0) specified by net file: ECE595/cifar/train_test/var_everything_tiny/cifar_train_test_188.prototxt
I0504 16:25:39.913208  9209 net.cpp:296] The NetState phase (1) differed from the phase (0) specified by a rule in layer cifar
I0504 16:25:39.913303  9209 net.cpp:53] Initializing net from parameters: 
name: "CIFAR"
state {
  phase: TEST
}
layer {
  name: "cifar"
  type: "Data"
  top: "data"
  top: "label"
  include {
    phase: TEST
  }
  transform_param {
    mean_file: "examples/cifar10/mean.binaryproto"
  }
  data_param {
    source: "examples/cifar10/cifar10_test_lmdb"
    batch_size: 1000
    backend: LMDB
  }
}
layer {
  name: "conv0"
  type: "Convolution"
  bottom: "data"
  top: "conv0"
  param {
    lr_mult: 1
  }
  param {
    lr_mult: 2
  }
  convolution_param {
    num_output: 72
    pad: 2
    kernel_size: 3
    stride: 1
    weight_filler {
      type: "gaussian"
      std: 0.01
    }
    bias_filler {
      type: "constant"
    }
  }
}
layer {
  name: "Sigmoid0"
  type: "Sigmoid"
  bottom: "conv0"
  top: "Sigmoid0"
}
layer {
  name: "pool0"
  type: "Pooling"
  bottom: "Sigmoid0"
  top: "pool0"
  pooling_param {
    pool: AVE
    kernel_size: 3
    stride: 2
  }
}
layer {
  name: "conv1"
  type: "Convolution"
  bottom: "pool0"
  top: "conv1"
  param {
    lr_mult: 1
  }
  param {
    lr_mult: 2
  }
  convolution_param {
    num_output: 72
    pad: 2
    kernel_size: 3
    stride: 1
    weight_filler {
      type: "gaussian"
      std: 0.01
    }
    bias_filler {
      type: "constant"
    }
  }
}
layer {
  name: "Sigmoid1"
  type: "Sigmoid"
  bottom: "conv1"
  top: "Sigmoid1"
}
layer {
  name: "pool1"
  type: "Pooling"
  bottom: "Sigmoid1"
  top: "pool1"
  pooling_param {
    pool: AVE
    kernel_size: 3
    stride: 2
  }
}
layer {
  name: "ip1"
  type: "InnerProduct"
  bottom: "pool1"
  top: "ip1"
  param {
    lr_mult: 1
  }
  param {
    lr_mult: 2
  }
  inner_product_param {
    num_output: 60
    weight_filler {
      type: "gaussian"
      std: 0.01
    }
    bias_filler {
      type: "constant"
    }
  }
}
layer {
  name: "relu1"
  type: "ReLU"
  bottom: "ip1"
  top: "ip1"
}
layer {
  name: "ip2"
  type: "InnerProduct"
  bottom: "ip1"
  top: "ip2"
  param {
    lr_mult: 1
  }
  param {
    lr_mult: 2
  }
  inner_product_param {
    num_output: 180
    weight_filler {
      type: "gaussian"
      std: 0.01
    }
    bias_filler {
      type: "constant"
    }
  }
}
layer {
  name: "relu2"
  type: "ReLU"
  bottom: "ip2"
  top: "ip2"
}
layer {
  name: "ip3"
  type: "InnerProduct"
  bottom: "ip2"
  top: "ip3"
  param {
    lr_mult: 1
  }
  param {
    lr_mult: 2
  }
  inner_product_param {
    num_output: 10
    weight_filler {
      type: "gaussian"
      std: 0.01
    }
    bias_filler {
      type: "constant"
    }
  }
}
layer {
  name: "accuracy"
  type: "Accuracy"
  bottom: "ip3"
  bottom: "label"
  top: "accuracy"
  include {
    phase: TEST
  }
}
layer {
  name: "loss"
  type: "SoftmaxWithLoss"
  bottom: "ip3"
  bottom: "label"
  top: "loss"
}
I0504 16:25:39.913384  9209 layer_factory.hpp:77] Creating layer cifar
I0504 16:25:39.913430  9209 db_lmdb.cpp:35] Opened lmdb examples/cifar10/cifar10_test_lmdb
I0504 16:25:39.913442  9209 net.cpp:86] Creating Layer cifar
I0504 16:25:39.913447  9209 net.cpp:382] cifar -> data
I0504 16:25:39.913455  9209 net.cpp:382] cifar -> label
I0504 16:25:39.913461  9209 data_transformer.cpp:25] Loading mean file from: examples/cifar10/mean.binaryproto
I0504 16:25:39.913599  9209 data_layer.cpp:45] output data size: 1000,3,32,32
I0504 16:25:39.935680  9209 net.cpp:124] Setting up cifar
I0504 16:25:39.935708  9209 net.cpp:131] Top shape: 1000 3 32 32 (3072000)
I0504 16:25:39.935714  9209 net.cpp:131] Top shape: 1000 (1000)
I0504 16:25:39.935716  9209 net.cpp:139] Memory required for data: 12292000
I0504 16:25:39.935721  9209 layer_factory.hpp:77] Creating layer label_cifar_1_split
I0504 16:25:39.935737  9209 net.cpp:86] Creating Layer label_cifar_1_split
I0504 16:25:39.935741  9209 net.cpp:408] label_cifar_1_split <- label
I0504 16:25:39.935747  9209 net.cpp:382] label_cifar_1_split -> label_cifar_1_split_0
I0504 16:25:39.935756  9209 net.cpp:382] label_cifar_1_split -> label_cifar_1_split_1
I0504 16:25:39.935873  9209 net.cpp:124] Setting up label_cifar_1_split
I0504 16:25:39.935881  9209 net.cpp:131] Top shape: 1000 (1000)
I0504 16:25:39.935884  9209 net.cpp:131] Top shape: 1000 (1000)
I0504 16:25:39.935887  9209 net.cpp:139] Memory required for data: 12300000
I0504 16:25:39.935890  9209 layer_factory.hpp:77] Creating layer conv0
I0504 16:25:39.935904  9209 net.cpp:86] Creating Layer conv0
I0504 16:25:39.935906  9209 net.cpp:408] conv0 <- data
I0504 16:25:39.935911  9209 net.cpp:382] conv0 -> conv0
I0504 16:25:39.937657  9209 net.cpp:124] Setting up conv0
I0504 16:25:39.937670  9209 net.cpp:131] Top shape: 1000 72 34 34 (83232000)
I0504 16:25:39.937674  9209 net.cpp:139] Memory required for data: 345228000
I0504 16:25:39.937683  9209 layer_factory.hpp:77] Creating layer Sigmoid0
I0504 16:25:39.937690  9209 net.cpp:86] Creating Layer Sigmoid0
I0504 16:25:39.937693  9209 net.cpp:408] Sigmoid0 <- conv0
I0504 16:25:39.937697  9209 net.cpp:382] Sigmoid0 -> Sigmoid0
I0504 16:25:39.937889  9209 net.cpp:124] Setting up Sigmoid0
I0504 16:25:39.937950  9209 net.cpp:131] Top shape: 1000 72 34 34 (83232000)
I0504 16:25:39.937954  9209 net.cpp:139] Memory required for data: 678156000
I0504 16:25:39.937958  9209 layer_factory.hpp:77] Creating layer pool0
I0504 16:25:39.937968  9209 net.cpp:86] Creating Layer pool0
I0504 16:25:39.937970  9209 net.cpp:408] pool0 <- Sigmoid0
I0504 16:25:39.937975  9209 net.cpp:382] pool0 -> pool0
I0504 16:25:39.939205  9209 net.cpp:124] Setting up pool0
I0504 16:25:39.939230  9209 net.cpp:131] Top shape: 1000 72 17 17 (20808000)
I0504 16:25:39.939249  9209 net.cpp:139] Memory required for data: 761388000
I0504 16:25:39.939254  9209 layer_factory.hpp:77] Creating layer conv1
I0504 16:25:39.939266  9209 net.cpp:86] Creating Layer conv1
I0504 16:25:39.939270  9209 net.cpp:408] conv1 <- pool0
I0504 16:25:39.939275  9209 net.cpp:382] conv1 -> conv1
I0504 16:25:39.941967  9209 net.cpp:124] Setting up conv1
I0504 16:25:39.941980  9209 net.cpp:131] Top shape: 1000 72 19 19 (25992000)
I0504 16:25:39.941983  9209 net.cpp:139] Memory required for data: 865356000
I0504 16:25:39.941992  9209 layer_factory.hpp:77] Creating layer Sigmoid1
I0504 16:25:39.941999  9209 net.cpp:86] Creating Layer Sigmoid1
I0504 16:25:39.942003  9209 net.cpp:408] Sigmoid1 <- conv1
I0504 16:25:39.942008  9209 net.cpp:382] Sigmoid1 -> Sigmoid1
I0504 16:25:39.942176  9209 net.cpp:124] Setting up Sigmoid1
I0504 16:25:39.942185  9209 net.cpp:131] Top shape: 1000 72 19 19 (25992000)
I0504 16:25:39.942188  9209 net.cpp:139] Memory required for data: 969324000
I0504 16:25:39.942191  9209 layer_factory.hpp:77] Creating layer pool1
I0504 16:25:39.942198  9209 net.cpp:86] Creating Layer pool1
I0504 16:25:39.942217  9209 net.cpp:408] pool1 <- Sigmoid1
I0504 16:25:39.942222  9209 net.cpp:382] pool1 -> pool1
I0504 16:25:39.943045  9209 net.cpp:124] Setting up pool1
I0504 16:25:39.943058  9209 net.cpp:131] Top shape: 1000 72 9 9 (5832000)
I0504 16:25:39.943060  9209 net.cpp:139] Memory required for data: 992652000
I0504 16:25:39.943063  9209 layer_factory.hpp:77] Creating layer ip1
I0504 16:25:39.943074  9209 net.cpp:86] Creating Layer ip1
I0504 16:25:39.943078  9209 net.cpp:408] ip1 <- pool1
I0504 16:25:39.943084  9209 net.cpp:382] ip1 -> ip1
I0504 16:25:39.953438  9209 net.cpp:124] Setting up ip1
I0504 16:25:39.953450  9209 net.cpp:131] Top shape: 1000 60 (60000)
I0504 16:25:39.953454  9209 net.cpp:139] Memory required for data: 992892000
I0504 16:25:39.953464  9209 layer_factory.hpp:77] Creating layer relu1
I0504 16:25:39.953469  9209 net.cpp:86] Creating Layer relu1
I0504 16:25:39.953474  9209 net.cpp:408] relu1 <- ip1
I0504 16:25:39.953480  9209 net.cpp:369] relu1 -> ip1 (in-place)
I0504 16:25:39.953642  9209 net.cpp:124] Setting up relu1
I0504 16:25:39.953651  9209 net.cpp:131] Top shape: 1000 60 (60000)
I0504 16:25:39.953655  9209 net.cpp:139] Memory required for data: 993132000
I0504 16:25:39.953673  9209 layer_factory.hpp:77] Creating layer ip2
I0504 16:25:39.953697  9209 net.cpp:86] Creating Layer ip2
I0504 16:25:39.953701  9209 net.cpp:408] ip2 <- ip1
I0504 16:25:39.953706  9209 net.cpp:382] ip2 -> ip2
I0504 16:25:39.954136  9209 net.cpp:124] Setting up ip2
I0504 16:25:39.954144  9209 net.cpp:131] Top shape: 1000 180 (180000)
I0504 16:25:39.954146  9209 net.cpp:139] Memory required for data: 993852000
I0504 16:25:39.954151  9209 layer_factory.hpp:77] Creating layer relu2
I0504 16:25:39.954156  9209 net.cpp:86] Creating Layer relu2
I0504 16:25:39.954159  9209 net.cpp:408] relu2 <- ip2
I0504 16:25:39.954164  9209 net.cpp:369] relu2 -> ip2 (in-place)
I0504 16:25:39.954351  9209 net.cpp:124] Setting up relu2
I0504 16:25:39.954360  9209 net.cpp:131] Top shape: 1000 180 (180000)
I0504 16:25:39.954363  9209 net.cpp:139] Memory required for data: 994572000
I0504 16:25:39.954366  9209 layer_factory.hpp:77] Creating layer ip3
I0504 16:25:39.954373  9209 net.cpp:86] Creating Layer ip3
I0504 16:25:39.954376  9209 net.cpp:408] ip3 <- ip2
I0504 16:25:39.954382  9209 net.cpp:382] ip3 -> ip3
I0504 16:25:39.954541  9209 net.cpp:124] Setting up ip3
I0504 16:25:39.954560  9209 net.cpp:131] Top shape: 1000 10 (10000)
I0504 16:25:39.954563  9209 net.cpp:139] Memory required for data: 994612000
I0504 16:25:39.954571  9209 layer_factory.hpp:77] Creating layer ip3_ip3_0_split
I0504 16:25:39.954578  9209 net.cpp:86] Creating Layer ip3_ip3_0_split
I0504 16:25:39.954581  9209 net.cpp:408] ip3_ip3_0_split <- ip3
I0504 16:25:39.954586  9209 net.cpp:382] ip3_ip3_0_split -> ip3_ip3_0_split_0
I0504 16:25:39.954591  9209 net.cpp:382] ip3_ip3_0_split -> ip3_ip3_0_split_1
I0504 16:25:39.954627  9209 net.cpp:124] Setting up ip3_ip3_0_split
I0504 16:25:39.954633  9209 net.cpp:131] Top shape: 1000 10 (10000)
I0504 16:25:39.954638  9209 net.cpp:131] Top shape: 1000 10 (10000)
I0504 16:25:39.954640  9209 net.cpp:139] Memory required for data: 994692000
I0504 16:25:39.954658  9209 layer_factory.hpp:77] Creating layer accuracy
I0504 16:25:39.954663  9209 net.cpp:86] Creating Layer accuracy
I0504 16:25:39.954666  9209 net.cpp:408] accuracy <- ip3_ip3_0_split_0
I0504 16:25:39.954669  9209 net.cpp:408] accuracy <- label_cifar_1_split_0
I0504 16:25:39.954675  9209 net.cpp:382] accuracy -> accuracy
…
