…
I0504 00:21:12.680724  5203 net.cpp:296] The NetState phase (0) differed from the phase (1) specified by a rule in layer cifar
I0504 00:21:12.680742  5203 net.cpp:296] The NetState phase (0) differed from the phase (1) specified by a rule in layer accuracy
I0504 00:21:12.680840  5203 net.cpp:53] Initializing net from parameters: 
name: "CIFAR"
state {
  phase: TRAIN
  level: 0
  stage: ""
}
layer {
  name: "cifar"
  type: "Data"
  top: "data"
  top: "label"
  include {
    phase: TRAIN
  }
  transform_param {
    mean_file: "examples/cifar10/mean.binaryproto"
  }
  data_param {
    source: "examples/cifar10/cifar10_train_lmdb"
    batch_size: 111
    backend: LMDB
  }
}
layer {
  name: "conv0"
  type: "Convolution"
  bottom: "data"
  top: "conv0"
  param {
    lr_mult: 1
  }
  param {
    lr_mult: 2
  }
  convolution_param {
    num_output: 24
    pad: 2
    kernel_size: 5
    stride: 1
    weight_filler {
      type: "gaussian"
      std: 0.01
    }
    bias_filler {
      type: "constant"
    }
  }
}
layer {
  name: "Sigmoid0"
  type: "Sigmoid"
  bottom: "conv0"
  top: "Sigmoid0"
}
layer {
  name: "pool0"
  type: "Pooling"
  bottom: "Sigmoid0"
  top: "pool0"
  pooling_param {
    pool: AVE
    kernel_size: 3
    stride: 2
  }
}
layer {
  name: "ip1"
  type: "InnerProduct"
  bottom: "pool0"
  top: "ip1"
  param {
    lr_mult: 1
  }
  param {
    lr_mult: 2
  }
  inner_product_param {
    num_output: 10
    weight_filler {
      type: "gaussian"
      std: 0.01
    }
    bias_filler {
      type: "constant"
    }
  }
}
layer {
  name: "relu1"
  type: "ReLU"
  bottom: "ip1"
  top: "ip1"
}
layer {
  name: "ip2"
  type: "InnerProduct"
  bottom: "ip1"
  top: "ip2"
  param {
    lr_mult: 1
  }
  param {
    lr_mult: 2
  }
  inner_product_param {
    num_output: 60
    weight_filler {
      type: "gaussian"
      std: 0.01
    }
    bias_filler {
      type: "constant"
    }
  }
}
layer {
  name: "relu2"
  type: "ReLU"
  bottom: "ip2"
  top: "ip2"
}
layer {
  name: "ip3"
  type: "InnerProduct"
  bottom: "ip2"
  top: "ip3"
  param {
    lr_mult: 1
  }
  param {
    lr_mult: 2
  }
  inner_product_param {
    num_output: 10
    weight_filler {
      type: "gaussian"
      std: 0.01
    }
    bias_filler {
      type: "constant"
    }
  }
}
layer {
  name: "loss"
  type: "SoftmaxWithLoss"
  bottom: "ip3"
  bottom: "label"
  top: "loss"
}
I0504 00:21:12.680917  5203 layer_factory.hpp:77] Creating layer cifar
I0504 00:21:12.681015  5203 db_lmdb.cpp:35] Opened lmdb examples/cifar10/cifar10_train_lmdb
I0504 00:21:12.681041  5203 net.cpp:86] Creating Layer cifar
I0504 00:21:12.681049  5203 net.cpp:382] cifar -> data
I0504 00:21:12.681071  5203 net.cpp:382] cifar -> label
I0504 00:21:12.681083  5203 data_transformer.cpp:25] Loading mean file from: examples/cifar10/mean.binaryproto
I0504 00:21:12.683146  5203 data_layer.cpp:45] output data size: 111,3,32,32
I0504 00:21:12.690830  5203 net.cpp:124] Setting up cifar
I0504 00:21:12.690848  5203 net.cpp:131] Top shape: 111 3 32 32 (340992)
I0504 00:21:12.690855  5203 net.cpp:131] Top shape: 111 (111)
I0504 00:21:12.690858  5203 net.cpp:139] Memory required for data: 1364412
I0504 00:21:12.690865  5203 layer_factory.hpp:77] Creating layer conv0
I0504 00:21:12.690883  5203 net.cpp:86] Creating Layer conv0
I0504 00:21:12.690889  5203 net.cpp:408] conv0 <- data
I0504 00:21:12.690902  5203 net.cpp:382] conv0 -> conv0
I0504 00:21:12.982143  5203 net.cpp:124] Setting up conv0
I0504 00:21:12.982198  5203 net.cpp:131] Top shape: 111 24 32 32 (2727936)
I0504 00:21:12.982203  5203 net.cpp:139] Memory required for data: 12276156
I0504 00:21:12.982221  5203 layer_factory.hpp:77] Creating layer Sigmoid0
I0504 00:21:12.982235  5203 net.cpp:86] Creating Layer Sigmoid0
I0504 00:21:12.982240  5203 net.cpp:408] Sigmoid0 <- conv0
I0504 00:21:12.982246  5203 net.cpp:382] Sigmoid0 -> Sigmoid0
I0504 00:21:12.982465  5203 net.cpp:124] Setting up Sigmoid0
I0504 00:21:12.982477  5203 net.cpp:131] Top shape: 111 24 32 32 (2727936)
I0504 00:21:12.982481  5203 net.cpp:139] Memory required for data: 23187900
I0504 00:21:12.982486  5203 layer_factory.hpp:77] Creating layer pool0
I0504 00:21:12.982494  5203 net.cpp:86] Creating Layer pool0
I0504 00:21:12.982498  5203 net.cpp:408] pool0 <- Sigmoid0
I0504 00:21:12.982503  5203 net.cpp:382] pool0 -> pool0
I0504 00:21:12.983386  5203 net.cpp:124] Setting up pool0
I0504 00:21:12.983402  5203 net.cpp:131] Top shape: 111 24 16 16 (681984)
I0504 00:21:12.983405  5203 net.cpp:139] Memory required for data: 25915836
I0504 00:21:12.983409  5203 layer_factory.hpp:77] Creating layer ip1
I0504 00:21:12.983422  5203 net.cpp:86] Creating Layer ip1
I0504 00:21:12.983425  5203 net.cpp:408] ip1 <- pool0
I0504 00:21:12.983431  5203 net.cpp:382] ip1 -> ip1
I0504 00:21:12.986548  5203 net.cpp:124] Setting up ip1
I0504 00:21:12.986564  5203 net.cpp:131] Top shape: 111 10 (1110)
I0504 00:21:12.986568  5203 net.cpp:139] Memory required for data: 25920276
I0504 00:21:12.986578  5203 layer_factory.hpp:77] Creating layer relu1
I0504 00:21:12.986585  5203 net.cpp:86] Creating Layer relu1
I0504 00:21:12.986589  5203 net.cpp:408] relu1 <- ip1
I0504 00:21:12.986595  5203 net.cpp:369] relu1 -> ip1 (in-place)
I0504 00:21:12.986781  5203 net.cpp:124] Setting up relu1
I0504 00:21:12.986791  5203 net.cpp:131] Top shape: 111 10 (1110)
I0504 00:21:12.986795  5203 net.cpp:139] Memory required for data: 25924716
I0504 00:21:12.986799  5203 layer_factory.hpp:77] Creating layer ip2
I0504 00:21:12.986807  5203 net.cpp:86] Creating Layer ip2
I0504 00:21:12.986811  5203 net.cpp:408] ip2 <- ip1
I0504 00:21:12.986817  5203 net.cpp:382] ip2 -> ip2
I0504 00:21:12.986951  5203 net.cpp:124] Setting up ip2
I0504 00:21:12.986959  5203 net.cpp:131] Top shape: 111 60 (6660)
I0504 00:21:12.986963  5203 net.cpp:139] Memory required for data: 25951356
I0504 00:21:12.986971  5203 layer_factory.hpp:77] Creating layer relu2
I0504 00:21:12.986977  5203 net.cpp:86] Creating Layer relu2
I0504 00:21:12.986981  5203 net.cpp:408] relu2 <- ip2
I0504 00:21:12.986986  5203 net.cpp:369] relu2 -> ip2 (in-place)
I0504 00:21:12.987169  5203 net.cpp:124] Setting up relu2
I0504 00:21:12.987179  5203 net.cpp:131] Top shape: 111 60 (6660)
I0504 00:21:12.987182  5203 net.cpp:139] Memory required for data: 25977996
I0504 00:21:12.987186  5203 layer_factory.hpp:77] Creating layer ip3
I0504 00:21:12.987195  5203 net.cpp:86] Creating Layer ip3
I0504 00:21:12.987198  5203 net.cpp:408] ip3 <- ip2
I0504 00:21:12.987205  5203 net.cpp:382] ip3 -> ip3
I0504 00:21:12.987339  5203 net.cpp:124] Setting up ip3
I0504 00:21:12.987347  5203 net.cpp:131] Top shape: 111 10 (1110)
I0504 00:21:12.987351  5203 net.cpp:139] Memory required for data: 25982436
I0504 00:21:12.987357  5203 layer_factory.hpp:77] Creating layer loss
I0504 00:21:12.987365  5203 net.cpp:86] Creating Layer loss
I0504 00:21:12.987368  5203 net.cpp:408] loss <- ip3
I0504 00:21:12.987372  5203 net.cpp:408] loss <- label
I0504 00:21:12.987378  5203 net.cpp:382] loss -> loss
I0504 00:21:12.987396  5203 layer_factory.hpp:77] Creating layer loss
…
I0504 00:21:12.988112  5203 solver.cpp:173] Creating test net (#0) specified by net file: ECE595/cifar/train_test/var_everything_tiny/cifar_train_test_16.prototxt
I0504 00:21:12.988143  5203 net.cpp:296] The NetState phase (1) differed from the phase (0) specified by a rule in layer cifar
I0504 00:21:12.988245  5203 net.cpp:53] Initializing net from parameters: 
name: "CIFAR"
state {
  phase: TEST
}
layer {
  name: "cifar"
  type: "Data"
  top: "data"
  top: "label"
  include {
    phase: TEST
  }
  transform_param {
    mean_file: "examples/cifar10/mean.binaryproto"
  }
  data_param {
    source: "examples/cifar10/cifar10_test_lmdb"
    batch_size: 1000
    backend: LMDB
  }
}
layer {
  name: "conv0"
  type: "Convolution"
  bottom: "data"
  top: "conv0"
  param {
    lr_mult: 1
  }
  param {
    lr_mult: 2
  }
  convolution_param {
    num_output: 24
    pad: 2
    kernel_size: 5
    stride: 1
    weight_filler {
      type: "gaussian"
      std: 0.01
    }
    bias_filler {
      type: "constant"
    }
  }
}
layer {
  name: "Sigmoid0"
  type: "Sigmoid"
  bottom: "conv0"
  top: "Sigmoid0"
}
layer {
  name: "pool0"
  type: "Pooling"
  bottom: "Sigmoid0"
  top: "pool0"
  pooling_param {
    pool: AVE
    kernel_size: 3
    stride: 2
  }
}
layer {
  name: "ip1"
  type: "InnerProduct"
  bottom: "pool0"
  top: "ip1"
  param {
    lr_mult: 1
  }
  param {
    lr_mult: 2
  }
  inner_product_param {
    num_output: 10
    weight_filler {
      type: "gaussian"
      std: 0.01
    }
    bias_filler {
      type: "constant"
    }
  }
}
layer {
  name: "relu1"
  type: "ReLU"
  bottom: "ip1"
  top: "ip1"
}
layer {
  name: "ip2"
  type: "InnerProduct"
  bottom: "ip1"
  top: "ip2"
  param {
    lr_mult: 1
  }
  param {
    lr_mult: 2
  }
  inner_product_param {
    num_output: 60
    weight_filler {
      type: "gaussian"
      std: 0.01
    }
    bias_filler {
      type: "constant"
    }
  }
}
layer {
  name: "relu2"
  type: "ReLU"
  bottom: "ip2"
  top: "ip2"
}
layer {
  name: "ip3"
  type: "InnerProduct"
  bottom: "ip2"
  top: "ip3"
  param {
    lr_mult: 1
  }
  param {
    lr_mult: 2
  }
  inner_product_param {
    num_output: 10
    weight_filler {
      type: "gaussian"
      std: 0.01
    }
    bias_filler {
      type: "constant"
    }
  }
}
layer {
  name: "accuracy"
  type: "Accuracy"
  bottom: "ip3"
  bottom: "label"
  top: "accuracy"
  include {
    phase: TEST
  }
}
layer {
  name: "loss"
  type: "SoftmaxWithLoss"
  bottom: "ip3"
  bottom: "label"
  top: "loss"
}
I0504 00:21:12.988322  5203 layer_factory.hpp:77] Creating layer cifar
I0504 00:21:12.988375  5203 db_lmdb.cpp:35] Opened lmdb examples/cifar10/cifar10_test_lmdb
I0504 00:21:12.988389  5203 net.cpp:86] Creating Layer cifar
I0504 00:21:12.988395  5203 net.cpp:382] cifar -> data
I0504 00:21:12.988405  5203 net.cpp:382] cifar -> label
I0504 00:21:12.988412  5203 data_transformer.cpp:25] Loading mean file from: examples/cifar10/mean.binaryproto
I0504 00:21:12.988581  5203 data_layer.cpp:45] output data size: 1000,3,32,32
I0504 00:21:13.014739  5203 net.cpp:124] Setting up cifar
I0504 00:21:13.014767  5203 net.cpp:131] Top shape: 1000 3 32 32 (3072000)
I0504 00:21:13.014775  5203 net.cpp:131] Top shape: 1000 (1000)
I0504 00:21:13.014780  5203 net.cpp:139] Memory required for data: 12292000
I0504 00:21:13.014786  5203 layer_factory.hpp:77] Creating layer label_cifar_1_split
I0504 00:21:13.014799  5203 net.cpp:86] Creating Layer label_cifar_1_split
I0504 00:21:13.014824  5203 net.cpp:408] label_cifar_1_split <- label
I0504 00:21:13.014832  5203 net.cpp:382] label_cifar_1_split -> label_cifar_1_split_0
I0504 00:21:13.014843  5203 net.cpp:382] label_cifar_1_split -> label_cifar_1_split_1
I0504 00:21:13.014973  5203 net.cpp:124] Setting up label_cifar_1_split
I0504 00:21:13.014982  5203 net.cpp:131] Top shape: 1000 (1000)
I0504 00:21:13.014987  5203 net.cpp:131] Top shape: 1000 (1000)
I0504 00:21:13.014991  5203 net.cpp:139] Memory required for data: 12300000
I0504 00:21:13.015008  5203 layer_factory.hpp:77] Creating layer conv0
I0504 00:21:13.015022  5203 net.cpp:86] Creating Layer conv0
I0504 00:21:13.015027  5203 net.cpp:408] conv0 <- data
I0504 00:21:13.015034  5203 net.cpp:382] conv0 -> conv0
I0504 00:21:13.016788  5203 net.cpp:124] Setting up conv0
I0504 00:21:13.016804  5203 net.cpp:131] Top shape: 1000 24 32 32 (24576000)
I0504 00:21:13.016815  5203 net.cpp:139] Memory required for data: 110604000
I0504 00:21:13.016829  5203 layer_factory.hpp:77] Creating layer Sigmoid0
I0504 00:21:13.016836  5203 net.cpp:86] Creating Layer Sigmoid0
I0504 00:21:13.016840  5203 net.cpp:408] Sigmoid0 <- conv0
I0504 00:21:13.016846  5203 net.cpp:382] Sigmoid0 -> Sigmoid0
I0504 00:21:13.018832  5203 net.cpp:124] Setting up Sigmoid0
I0504 00:21:13.018849  5203 net.cpp:131] Top shape: 1000 24 32 32 (24576000)
I0504 00:21:13.018854  5203 net.cpp:139] Memory required for data: 208908000
I0504 00:21:13.018859  5203 layer_factory.hpp:77] Creating layer pool0
I0504 00:21:13.018869  5203 net.cpp:86] Creating Layer pool0
I0504 00:21:13.018873  5203 net.cpp:408] pool0 <- Sigmoid0
I0504 00:21:13.018880  5203 net.cpp:382] pool0 -> pool0
I0504 00:21:13.019088  5203 net.cpp:124] Setting up pool0
I0504 00:21:13.019098  5203 net.cpp:131] Top shape: 1000 24 16 16 (6144000)
I0504 00:21:13.019104  5203 net.cpp:139] Memory required for data: 233484000
I0504 00:21:13.019107  5203 layer_factory.hpp:77] Creating layer ip1
I0504 00:21:13.019115  5203 net.cpp:86] Creating Layer ip1
I0504 00:21:13.019119  5203 net.cpp:408] ip1 <- pool0
I0504 00:21:13.019126  5203 net.cpp:382] ip1 -> ip1
I0504 00:21:13.021409  5203 net.cpp:124] Setting up ip1
I0504 00:21:13.021419  5203 net.cpp:131] Top shape: 1000 10 (10000)
I0504 00:21:13.021421  5203 net.cpp:139] Memory required for data: 233524000
I0504 00:21:13.021431  5203 layer_factory.hpp:77] Creating layer relu1
I0504 00:21:13.021438  5203 net.cpp:86] Creating Layer relu1
I0504 00:21:13.021443  5203 net.cpp:408] relu1 <- ip1
I0504 00:21:13.021448  5203 net.cpp:369] relu1 -> ip1 (in-place)
I0504 00:21:13.021631  5203 net.cpp:124] Setting up relu1
I0504 00:21:13.021641  5203 net.cpp:131] Top shape: 1000 10 (10000)
I0504 00:21:13.021646  5203 net.cpp:139] Memory required for data: 233564000
I0504 00:21:13.021648  5203 layer_factory.hpp:77] Creating layer ip2
I0504 00:21:13.021656  5203 net.cpp:86] Creating Layer ip2
I0504 00:21:13.021661  5203 net.cpp:408] ip2 <- ip1
I0504 00:21:13.021666  5203 net.cpp:382] ip2 -> ip2
I0504 00:21:13.021816  5203 net.cpp:124] Setting up ip2
I0504 00:21:13.021824  5203 net.cpp:131] Top shape: 1000 60 (60000)
I0504 00:21:13.021828  5203 net.cpp:139] Memory required for data: 233804000
I0504 00:21:13.021837  5203 layer_factory.hpp:77] Creating layer relu2
I0504 00:21:13.021844  5203 net.cpp:86] Creating Layer relu2
I0504 00:21:13.021848  5203 net.cpp:408] relu2 <- ip2
I0504 00:21:13.021853  5203 net.cpp:369] relu2 -> ip2 (in-place)
I0504 00:21:13.022034  5203 net.cpp:124] Setting up relu2
I0504 00:21:13.022043  5203 net.cpp:131] Top shape: 1000 60 (60000)
I0504 00:21:13.022047  5203 net.cpp:139] Memory required for data: 234044000
I0504 00:21:13.022052  5203 layer_factory.hpp:77] Creating layer ip3
I0504 00:21:13.022058  5203 net.cpp:86] Creating Layer ip3
I0504 00:21:13.022063  5203 net.cpp:408] ip3 <- ip2
I0504 00:21:13.022068  5203 net.cpp:382] ip3 -> ip3
I0504 00:21:13.022202  5203 net.cpp:124] Setting up ip3
I0504 00:21:13.022210  5203 net.cpp:131] Top shape: 1000 10 (10000)
I0504 00:21:13.022228  5203 net.cpp:139] Memory required for data: 234084000
I0504 00:21:13.022234  5203 layer_factory.hpp:77] Creating layer ip3_ip3_0_split
I0504 00:21:13.022241  5203 net.cpp:86] Creating Layer ip3_ip3_0_split
I0504 00:21:13.022245  5203 net.cpp:408] ip3_ip3_0_split <- ip3
I0504 00:21:13.022250  5203 net.cpp:382] ip3_ip3_0_split -> ip3_ip3_0_split_0
I0504 00:21:13.022258  5203 net.cpp:382] ip3_ip3_0_split -> ip3_ip3_0_split_1
I0504 00:21:13.022294  5203 net.cpp:124] Setting up ip3_ip3_0_split
I0504 00:21:13.022302  5203 net.cpp:131] Top shape: 1000 10 (10000)
I0504 00:21:13.022306  5203 net.cpp:131] Top shape: 1000 10 (10000)
I0504 00:21:13.022310  5203 net.cpp:139] Memory required for data: 234164000
I0504 00:21:13.022313  5203 layer_factory.hpp:77] Creating layer accuracy
I0504 00:21:13.022320  5203 net.cpp:86] Creating Layer accuracy
I0504 00:21:13.022325  5203 net.cpp:408] accuracy <- ip3_ip3_0_split_0
I0504 00:21:13.022330  5203 net.cpp:408] accuracy <- label_cifar_1_split_0
I0504 00:21:13.022334  5203 net.cpp:382] accuracy -> accuracy
…
