…
I0504 06:12:41.796492 15687 net.cpp:296] The NetState phase (0) differed from the phase (1) specified by a rule in layer cifar
I0504 06:12:41.796510 15687 net.cpp:296] The NetState phase (0) differed from the phase (1) specified by a rule in layer accuracy
I0504 06:12:41.796604 15687 net.cpp:53] Initializing net from parameters: 
name: "CIFAR"
state {
  phase: TRAIN
  level: 0
  stage: ""
}
layer {
  name: "cifar"
  type: "Data"
  top: "data"
  top: "label"
  include {
    phase: TRAIN
  }
  transform_param {
    mean_file: "examples/cifar10/mean.binaryproto"
  }
  data_param {
    source: "examples/cifar10/cifar10_train_lmdb"
    batch_size: 111
    backend: LMDB
  }
}
layer {
  name: "conv0"
  type: "Convolution"
  bottom: "data"
  top: "conv0"
  param {
    lr_mult: 1
  }
  param {
    lr_mult: 2
  }
  convolution_param {
    num_output: 216
    pad: 2
    kernel_size: 5
    stride: 1
    weight_filler {
      type: "gaussian"
      std: 0.01
    }
    bias_filler {
      type: "constant"
    }
  }
}
layer {
  name: "Sigmoid0"
  type: "Sigmoid"
  bottom: "conv0"
  top: "Sigmoid0"
}
layer {
  name: "pool0"
  type: "Pooling"
  bottom: "Sigmoid0"
  top: "pool0"
  pooling_param {
    pool: AVE
    kernel_size: 3
    stride: 2
  }
}
layer {
  name: "ip1"
  type: "InnerProduct"
  bottom: "pool0"
  top: "ip1"
  param {
    lr_mult: 1
  }
  param {
    lr_mult: 2
  }
  inner_product_param {
    num_output: 60
    weight_filler {
      type: "gaussian"
      std: 0.01
    }
    bias_filler {
      type: "constant"
    }
  }
}
layer {
  name: "relu1"
  type: "ReLU"
  bottom: "ip1"
  top: "ip1"
}
layer {
  name: "ip2"
  type: "InnerProduct"
  bottom: "ip1"
  top: "ip2"
  param {
    lr_mult: 1
  }
  param {
    lr_mult: 2
  }
  inner_product_param {
    num_output: 60
    weight_filler {
      type: "gaussian"
      std: 0.01
    }
    bias_filler {
      type: "constant"
    }
  }
}
layer {
  name: "relu2"
  type: "ReLU"
  bottom: "ip2"
  top: "ip2"
}
layer {
  name: "ip3"
  type: "InnerProduct"
  bottom: "ip2"
  top: "ip3"
  param {
    lr_mult: 1
  }
  param {
    lr_mult: 2
  }
  inner_product_param {
    num_output: 10
    weight_filler {
      type: "gaussian"
      std: 0.01
    }
    bias_filler {
      type: "constant"
    }
  }
}
layer {
  name: "loss"
  type: "SoftmaxWithLoss"
  bottom: "ip3"
  bottom: "label"
  top: "loss"
}
I0504 06:12:41.796681 15687 layer_factory.hpp:77] Creating layer cifar
I0504 06:12:41.796782 15687 db_lmdb.cpp:35] Opened lmdb examples/cifar10/cifar10_train_lmdb
I0504 06:12:41.796815 15687 net.cpp:86] Creating Layer cifar
I0504 06:12:41.796826 15687 net.cpp:382] cifar -> data
I0504 06:12:41.796849 15687 net.cpp:382] cifar -> label
I0504 06:12:41.796864 15687 data_transformer.cpp:25] Loading mean file from: examples/cifar10/mean.binaryproto
I0504 06:12:41.798972 15687 data_layer.cpp:45] output data size: 111,3,32,32
I0504 06:12:41.806850 15687 net.cpp:124] Setting up cifar
I0504 06:12:41.806870 15687 net.cpp:131] Top shape: 111 3 32 32 (340992)
I0504 06:12:41.806876 15687 net.cpp:131] Top shape: 111 (111)
I0504 06:12:41.806880 15687 net.cpp:139] Memory required for data: 1364412
I0504 06:12:41.806887 15687 layer_factory.hpp:77] Creating layer conv0
I0504 06:12:41.806918 15687 net.cpp:86] Creating Layer conv0
I0504 06:12:41.806924 15687 net.cpp:408] conv0 <- data
I0504 06:12:41.806938 15687 net.cpp:382] conv0 -> conv0
I0504 06:12:42.056097 15687 net.cpp:124] Setting up conv0
I0504 06:12:42.056141 15687 net.cpp:131] Top shape: 111 216 32 32 (24551424)
I0504 06:12:42.056145 15687 net.cpp:139] Memory required for data: 99570108
I0504 06:12:42.056159 15687 layer_factory.hpp:77] Creating layer Sigmoid0
I0504 06:12:42.056170 15687 net.cpp:86] Creating Layer Sigmoid0
I0504 06:12:42.056174 15687 net.cpp:408] Sigmoid0 <- conv0
I0504 06:12:42.056179 15687 net.cpp:382] Sigmoid0 -> Sigmoid0
I0504 06:12:42.056396 15687 net.cpp:124] Setting up Sigmoid0
I0504 06:12:42.056406 15687 net.cpp:131] Top shape: 111 216 32 32 (24551424)
I0504 06:12:42.056409 15687 net.cpp:139] Memory required for data: 197775804
I0504 06:12:42.056413 15687 layer_factory.hpp:77] Creating layer pool0
I0504 06:12:42.056421 15687 net.cpp:86] Creating Layer pool0
I0504 06:12:42.056427 15687 net.cpp:408] pool0 <- Sigmoid0
I0504 06:12:42.056447 15687 net.cpp:382] pool0 -> pool0
I0504 06:12:42.057206 15687 net.cpp:124] Setting up pool0
I0504 06:12:42.057219 15687 net.cpp:131] Top shape: 111 216 16 16 (6137856)
I0504 06:12:42.057222 15687 net.cpp:139] Memory required for data: 222327228
I0504 06:12:42.057225 15687 layer_factory.hpp:77] Creating layer ip1
I0504 06:12:42.057235 15687 net.cpp:86] Creating Layer ip1
I0504 06:12:42.057237 15687 net.cpp:408] ip1 <- pool0
I0504 06:12:42.057241 15687 net.cpp:382] ip1 -> ip1
I0504 06:12:42.142949 15687 net.cpp:124] Setting up ip1
I0504 06:12:42.142979 15687 net.cpp:131] Top shape: 111 60 (6660)
I0504 06:12:42.142983 15687 net.cpp:139] Memory required for data: 222353868
I0504 06:12:42.142990 15687 layer_factory.hpp:77] Creating layer relu1
I0504 06:12:42.143013 15687 net.cpp:86] Creating Layer relu1
I0504 06:12:42.143016 15687 net.cpp:408] relu1 <- ip1
I0504 06:12:42.143020 15687 net.cpp:369] relu1 -> ip1 (in-place)
I0504 06:12:42.143265 15687 net.cpp:124] Setting up relu1
I0504 06:12:42.143275 15687 net.cpp:131] Top shape: 111 60 (6660)
I0504 06:12:42.143278 15687 net.cpp:139] Memory required for data: 222380508
I0504 06:12:42.143282 15687 layer_factory.hpp:77] Creating layer ip2
I0504 06:12:42.143290 15687 net.cpp:86] Creating Layer ip2
I0504 06:12:42.143293 15687 net.cpp:408] ip2 <- ip1
I0504 06:12:42.143299 15687 net.cpp:382] ip2 -> ip2
I0504 06:12:42.143527 15687 net.cpp:124] Setting up ip2
I0504 06:12:42.143534 15687 net.cpp:131] Top shape: 111 60 (6660)
I0504 06:12:42.143537 15687 net.cpp:139] Memory required for data: 222407148
I0504 06:12:42.143545 15687 layer_factory.hpp:77] Creating layer relu2
I0504 06:12:42.143550 15687 net.cpp:86] Creating Layer relu2
I0504 06:12:42.143554 15687 net.cpp:408] relu2 <- ip2
I0504 06:12:42.143558 15687 net.cpp:369] relu2 -> ip2 (in-place)
I0504 06:12:42.143784 15687 net.cpp:124] Setting up relu2
I0504 06:12:42.143791 15687 net.cpp:131] Top shape: 111 60 (6660)
I0504 06:12:42.143795 15687 net.cpp:139] Memory required for data: 222433788
I0504 06:12:42.143798 15687 layer_factory.hpp:77] Creating layer ip3
I0504 06:12:42.143805 15687 net.cpp:86] Creating Layer ip3
I0504 06:12:42.143808 15687 net.cpp:408] ip3 <- ip2
I0504 06:12:42.143813 15687 net.cpp:382] ip3 -> ip3
I0504 06:12:42.143920 15687 net.cpp:124] Setting up ip3
I0504 06:12:42.143928 15687 net.cpp:131] Top shape: 111 10 (1110)
I0504 06:12:42.143930 15687 net.cpp:139] Memory required for data: 222438228
I0504 06:12:42.143935 15687 layer_factory.hpp:77] Creating layer loss
I0504 06:12:42.143941 15687 net.cpp:86] Creating Layer loss
I0504 06:12:42.143944 15687 net.cpp:408] loss <- ip3
I0504 06:12:42.143949 15687 net.cpp:408] loss <- label
I0504 06:12:42.143954 15687 net.cpp:382] loss -> loss
I0504 06:12:42.143971 15687 layer_factory.hpp:77] Creating layer loss
…
I0504 06:12:42.144714 15687 solver.cpp:173] Creating test net (#0) specified by net file: ECE595/cifar/train_test/var_everything_tiny/cifar_train_test_67.prototxt
I0504 06:12:42.144767 15687 net.cpp:296] The NetState phase (1) differed from the phase (0) specified by a rule in layer cifar
I0504 06:12:42.144891 15687 net.cpp:53] Initializing net from parameters: 
name: "CIFAR"
state {
  phase: TEST
}
layer {
  name: "cifar"
  type: "Data"
  top: "data"
  top: "label"
  include {
    phase: TEST
  }
  transform_param {
    mean_file: "examples/cifar10/mean.binaryproto"
  }
  data_param {
    source: "examples/cifar10/cifar10_test_lmdb"
    batch_size: 1000
    backend: LMDB
  }
}
layer {
  name: "conv0"
  type: "Convolution"
  bottom: "data"
  top: "conv0"
  param {
    lr_mult: 1
  }
  param {
    lr_mult: 2
  }
  convolution_param {
    num_output: 216
    pad: 2
    kernel_size: 5
    stride: 1
    weight_filler {
      type: "gaussian"
      std: 0.01
    }
    bias_filler {
      type: "constant"
    }
  }
}
layer {
  name: "Sigmoid0"
  type: "Sigmoid"
  bottom: "conv0"
  top: "Sigmoid0"
}
layer {
  name: "pool0"
  type: "Pooling"
  bottom: "Sigmoid0"
  top: "pool0"
  pooling_param {
    pool: AVE
    kernel_size: 3
    stride: 2
  }
}
layer {
  name: "ip1"
  type: "InnerProduct"
  bottom: "pool0"
  top: "ip1"
  param {
    lr_mult: 1
  }
  param {
    lr_mult: 2
  }
  inner_product_param {
    num_output: 60
    weight_filler {
      type: "gaussian"
      std: 0.01
    }
    bias_filler {
      type: "constant"
    }
  }
}
layer {
  name: "relu1"
  type: "ReLU"
  bottom: "ip1"
  top: "ip1"
}
layer {
  name: "ip2"
  type: "InnerProduct"
  bottom: "ip1"
  top: "ip2"
  param {
    lr_mult: 1
  }
  param {
    lr_mult: 2
  }
  inner_product_param {
    num_output: 60
    weight_filler {
      type: "gaussian"
      std: 0.01
    }
    bias_filler {
      type: "constant"
    }
  }
}
layer {
  name: "relu2"
  type: "ReLU"
  bottom: "ip2"
  top: "ip2"
}
layer {
  name: "ip3"
  type: "InnerProduct"
  bottom: "ip2"
  top: "ip3"
  param {
    lr_mult: 1
  }
  param {
    lr_mult: 2
  }
  inner_product_param {
    num_output: 10
    weight_filler {
      type: "gaussian"
      std: 0.01
    }
    bias_filler {
      type: "constant"
    }
  }
}
layer {
  name: "accuracy"
  type: "Accuracy"
  bottom: "ip3"
  bottom: "label"
  top: "accuracy"
  include {
    phase: TEST
  }
}
layer {
  name: "loss"
  type: "SoftmaxWithLoss"
  bottom: "ip3"
  bottom: "label"
  top: "loss"
}
I0504 06:12:42.144958 15687 layer_factory.hpp:77] Creating layer cifar
I0504 06:12:42.145004 15687 db_lmdb.cpp:35] Opened lmdb examples/cifar10/cifar10_test_lmdb
I0504 06:12:42.145032 15687 net.cpp:86] Creating Layer cifar
I0504 06:12:42.145037 15687 net.cpp:382] cifar -> data
I0504 06:12:42.145045 15687 net.cpp:382] cifar -> label
I0504 06:12:42.145052 15687 data_transformer.cpp:25] Loading mean file from: examples/cifar10/mean.binaryproto
I0504 06:12:42.145242 15687 data_layer.cpp:45] output data size: 1000,3,32,32
I0504 06:12:42.166371 15687 net.cpp:124] Setting up cifar
I0504 06:12:42.166411 15687 net.cpp:131] Top shape: 1000 3 32 32 (3072000)
I0504 06:12:42.166417 15687 net.cpp:131] Top shape: 1000 (1000)
I0504 06:12:42.166420 15687 net.cpp:139] Memory required for data: 12292000
I0504 06:12:42.166425 15687 layer_factory.hpp:77] Creating layer label_cifar_1_split
I0504 06:12:42.166470 15687 net.cpp:86] Creating Layer label_cifar_1_split
I0504 06:12:42.166473 15687 net.cpp:408] label_cifar_1_split <- label
I0504 06:12:42.166479 15687 net.cpp:382] label_cifar_1_split -> label_cifar_1_split_0
I0504 06:12:42.166487 15687 net.cpp:382] label_cifar_1_split -> label_cifar_1_split_1
I0504 06:12:42.166555 15687 net.cpp:124] Setting up label_cifar_1_split
I0504 06:12:42.166563 15687 net.cpp:131] Top shape: 1000 (1000)
I0504 06:12:42.166566 15687 net.cpp:131] Top shape: 1000 (1000)
I0504 06:12:42.166569 15687 net.cpp:139] Memory required for data: 12300000
I0504 06:12:42.166573 15687 layer_factory.hpp:77] Creating layer conv0
I0504 06:12:42.166584 15687 net.cpp:86] Creating Layer conv0
I0504 06:12:42.166587 15687 net.cpp:408] conv0 <- data
I0504 06:12:42.166592 15687 net.cpp:382] conv0 -> conv0
I0504 06:12:42.168512 15687 net.cpp:124] Setting up conv0
I0504 06:12:42.168540 15687 net.cpp:131] Top shape: 1000 216 32 32 (221184000)
I0504 06:12:42.168543 15687 net.cpp:139] Memory required for data: 897036000
I0504 06:12:42.168555 15687 layer_factory.hpp:77] Creating layer Sigmoid0
I0504 06:12:42.168561 15687 net.cpp:86] Creating Layer Sigmoid0
I0504 06:12:42.168565 15687 net.cpp:408] Sigmoid0 <- conv0
I0504 06:12:42.168568 15687 net.cpp:382] Sigmoid0 -> Sigmoid0
I0504 06:12:42.170367 15687 net.cpp:124] Setting up Sigmoid0
I0504 06:12:42.170399 15687 net.cpp:131] Top shape: 1000 216 32 32 (221184000)
I0504 06:12:42.170403 15687 net.cpp:139] Memory required for data: 1781772000
I0504 06:12:42.170406 15687 layer_factory.hpp:77] Creating layer pool0
I0504 06:12:42.170414 15687 net.cpp:86] Creating Layer pool0
I0504 06:12:42.170418 15687 net.cpp:408] pool0 <- Sigmoid0
I0504 06:12:42.170423 15687 net.cpp:382] pool0 -> pool0
I0504 06:12:42.170634 15687 net.cpp:124] Setting up pool0
I0504 06:12:42.170644 15687 net.cpp:131] Top shape: 1000 216 16 16 (55296000)
I0504 06:12:42.170646 15687 net.cpp:139] Memory required for data: 2002956000
I0504 06:12:42.170650 15687 layer_factory.hpp:77] Creating layer ip1
I0504 06:12:42.170656 15687 net.cpp:86] Creating Layer ip1
I0504 06:12:42.170660 15687 net.cpp:408] ip1 <- pool0
I0504 06:12:42.170665 15687 net.cpp:382] ip1 -> ip1
I0504 06:12:42.261999 15687 net.cpp:124] Setting up ip1
I0504 06:12:42.262038 15687 net.cpp:131] Top shape: 1000 60 (60000)
I0504 06:12:42.262042 15687 net.cpp:139] Memory required for data: 2003196000
I0504 06:12:42.262053 15687 layer_factory.hpp:77] Creating layer relu1
I0504 06:12:42.262079 15687 net.cpp:86] Creating Layer relu1
I0504 06:12:42.262082 15687 net.cpp:408] relu1 <- ip1
I0504 06:12:42.262087 15687 net.cpp:369] relu1 -> ip1 (in-place)
I0504 06:12:42.262310 15687 net.cpp:124] Setting up relu1
I0504 06:12:42.262320 15687 net.cpp:131] Top shape: 1000 60 (60000)
I0504 06:12:42.262322 15687 net.cpp:139] Memory required for data: 2003436000
I0504 06:12:42.262326 15687 layer_factory.hpp:77] Creating layer ip2
I0504 06:12:42.262333 15687 net.cpp:86] Creating Layer ip2
I0504 06:12:42.262336 15687 net.cpp:408] ip2 <- ip1
I0504 06:12:42.262342 15687 net.cpp:382] ip2 -> ip2
I0504 06:12:42.262542 15687 net.cpp:124] Setting up ip2
I0504 06:12:42.262549 15687 net.cpp:131] Top shape: 1000 60 (60000)
I0504 06:12:42.262552 15687 net.cpp:139] Memory required for data: 2003676000
I0504 06:12:42.262560 15687 layer_factory.hpp:77] Creating layer relu2
I0504 06:12:42.262567 15687 net.cpp:86] Creating Layer relu2
I0504 06:12:42.262569 15687 net.cpp:408] relu2 <- ip2
I0504 06:12:42.262573 15687 net.cpp:369] relu2 -> ip2 (in-place)
I0504 06:12:42.262737 15687 net.cpp:124] Setting up relu2
I0504 06:12:42.262745 15687 net.cpp:131] Top shape: 1000 60 (60000)
I0504 06:12:42.262748 15687 net.cpp:139] Memory required for data: 2003916000
I0504 06:12:42.262751 15687 layer_factory.hpp:77] Creating layer ip3
I0504 06:12:42.262758 15687 net.cpp:86] Creating Layer ip3
I0504 06:12:42.262760 15687 net.cpp:408] ip3 <- ip2
I0504 06:12:42.262765 15687 net.cpp:382] ip3 -> ip3
I0504 06:12:42.262919 15687 net.cpp:124] Setting up ip3
I0504 06:12:42.262928 15687 net.cpp:131] Top shape: 1000 10 (10000)
I0504 06:12:42.262944 15687 net.cpp:139] Memory required for data: 2003956000
I0504 06:12:42.262950 15687 layer_factory.hpp:77] Creating layer ip3_ip3_0_split
I0504 06:12:42.262956 15687 net.cpp:86] Creating Layer ip3_ip3_0_split
I0504 06:12:42.262959 15687 net.cpp:408] ip3_ip3_0_split <- ip3
I0504 06:12:42.262964 15687 net.cpp:382] ip3_ip3_0_split -> ip3_ip3_0_split_0
I0504 06:12:42.262970 15687 net.cpp:382] ip3_ip3_0_split -> ip3_ip3_0_split_1
I0504 06:12:42.263002 15687 net.cpp:124] Setting up ip3_ip3_0_split
I0504 06:12:42.263011 15687 net.cpp:131] Top shape: 1000 10 (10000)
I0504 06:12:42.263016 15687 net.cpp:131] Top shape: 1000 10 (10000)
I0504 06:12:42.263020 15687 net.cpp:139] Memory required for data: 2004036000
I0504 06:12:42.263022 15687 layer_factory.hpp:77] Creating layer accuracy
I0504 06:12:42.263033 15687 net.cpp:86] Creating Layer accuracy
I0504 06:12:42.263036 15687 net.cpp:408] accuracy <- ip3_ip3_0_split_0
I0504 06:12:42.263041 15687 net.cpp:408] accuracy <- label_cifar_1_split_0
I0504 06:12:42.263044 15687 net.cpp:382] accuracy -> accuracy
…
