…
I0504 16:46:55.830346 10060 net.cpp:296] The NetState phase (0) differed from the phase (1) specified by a rule in layer cifar
I0504 16:46:55.830366 10060 net.cpp:296] The NetState phase (0) differed from the phase (1) specified by a rule in layer accuracy
I0504 16:46:55.830478 10060 net.cpp:53] Initializing net from parameters: 
name: "CIFAR"
state {
  phase: TRAIN
  level: 0
  stage: ""
}
layer {
  name: "cifar"
  type: "Data"
  top: "data"
  top: "label"
  include {
    phase: TRAIN
  }
  transform_param {
    mean_file: "examples/cifar10/mean.binaryproto"
  }
  data_param {
    source: "examples/cifar10/cifar10_train_lmdb"
    batch_size: 111
    backend: LMDB
  }
}
layer {
  name: "conv0"
  type: "Convolution"
  bottom: "data"
  top: "conv0"
  param {
    lr_mult: 1
  }
  param {
    lr_mult: 2
  }
  convolution_param {
    num_output: 72
    pad: 2
    kernel_size: 3
    stride: 1
    weight_filler {
      type: "gaussian"
      std: 0.01
    }
    bias_filler {
      type: "constant"
    }
  }
}
layer {
  name: "Sigmoid0"
  type: "Sigmoid"
  bottom: "conv0"
  top: "Sigmoid0"
}
layer {
  name: "pool0"
  type: "Pooling"
  bottom: "Sigmoid0"
  top: "pool0"
  pooling_param {
    pool: AVE
    kernel_size: 3
    stride: 2
  }
}
layer {
  name: "conv1"
  type: "Convolution"
  bottom: "pool0"
  top: "conv1"
  param {
    lr_mult: 1
  }
  param {
    lr_mult: 2
  }
  convolution_param {
    num_output: 72
    pad: 2
    kernel_size: 3
    stride: 1
    weight_filler {
      type: "gaussian"
      std: 0.01
    }
    bias_filler {
      type: "constant"
    }
  }
}
layer {
  name: "Sigmoid1"
  type: "Sigmoid"
  bottom: "conv1"
  top: "Sigmoid1"
}
layer {
  name: "pool1"
  type: "Pooling"
  bottom: "Sigmoid1"
  top: "pool1"
  pooling_param {
    pool: AVE
    kernel_size: 3
    stride: 2
  }
}
layer {
  name: "ip1"
  type: "InnerProduct"
  bottom: "pool1"
  top: "ip1"
  param {
    lr_mult: 1
  }
  param {
    lr_mult: 2
  }
  inner_product_param {
    num_output: 180
    weight_filler {
      type: "gaussian"
      std: 0.01
    }
    bias_filler {
      type: "constant"
    }
  }
}
layer {
  name: "relu1"
  type: "ReLU"
  bottom: "ip1"
  top: "ip1"
}
layer {
  name: "ip2"
  type: "InnerProduct"
  bottom: "ip1"
  top: "ip2"
  param {
    lr_mult: 1
  }
  param {
    lr_mult: 2
  }
  inner_product_param {
    num_output: 180
    weight_filler {
      type: "gaussian"
      std: 0.01
    }
    bias_filler {
      type: "constant"
    }
  }
}
layer {
  name: "relu2"
  type: "ReLU"
  bottom: "ip2"
  top: "ip2"
}
layer {
  name: "ip3"
  type: "InnerProduct"
  bottom: "ip2"
  top: "ip3"
  param {
    lr_mult: 1
  }
  param {
    lr_mult: 2
  }
  inner_product_param {
    num_output: 10
    weight_filler {
      type: "gaussian"
      std: 0.01
    }
    bias_filler {
      type: "constant"
    }
  }
}
layer {
  name: "loss"
  type: "SoftmaxWithLoss"
  bottom: "ip3"
  bottom: "label"
  top: "loss"
}
I0504 16:46:55.830561 10060 layer_factory.hpp:77] Creating layer cifar
I0504 16:46:55.830658 10060 db_lmdb.cpp:35] Opened lmdb examples/cifar10/cifar10_train_lmdb
I0504 16:46:55.830684 10060 net.cpp:86] Creating Layer cifar
I0504 16:46:55.830693 10060 net.cpp:382] cifar -> data
I0504 16:46:55.830718 10060 net.cpp:382] cifar -> label
I0504 16:46:55.830729 10060 data_transformer.cpp:25] Loading mean file from: examples/cifar10/mean.binaryproto
I0504 16:46:55.832902 10060 data_layer.cpp:45] output data size: 111,3,32,32
I0504 16:46:55.840926 10060 net.cpp:124] Setting up cifar
I0504 16:46:55.840947 10060 net.cpp:131] Top shape: 111 3 32 32 (340992)
I0504 16:46:55.840955 10060 net.cpp:131] Top shape: 111 (111)
I0504 16:46:55.840958 10060 net.cpp:139] Memory required for data: 1364412
I0504 16:46:55.840966 10060 layer_factory.hpp:77] Creating layer conv0
I0504 16:46:55.840983 10060 net.cpp:86] Creating Layer conv0
I0504 16:46:55.840988 10060 net.cpp:408] conv0 <- data
I0504 16:46:55.841001 10060 net.cpp:382] conv0 -> conv0
I0504 16:46:56.124346 10060 net.cpp:124] Setting up conv0
I0504 16:46:56.124373 10060 net.cpp:131] Top shape: 111 72 34 34 (9238752)
I0504 16:46:56.124377 10060 net.cpp:139] Memory required for data: 38319420
I0504 16:46:56.124392 10060 layer_factory.hpp:77] Creating layer Sigmoid0
I0504 16:46:56.124404 10060 net.cpp:86] Creating Layer Sigmoid0
I0504 16:46:56.124408 10060 net.cpp:408] Sigmoid0 <- conv0
I0504 16:46:56.124413 10060 net.cpp:382] Sigmoid0 -> Sigmoid0
I0504 16:46:56.124603 10060 net.cpp:124] Setting up Sigmoid0
I0504 16:46:56.124614 10060 net.cpp:131] Top shape: 111 72 34 34 (9238752)
I0504 16:46:56.124617 10060 net.cpp:139] Memory required for data: 75274428
I0504 16:46:56.124620 10060 layer_factory.hpp:77] Creating layer pool0
I0504 16:46:56.124627 10060 net.cpp:86] Creating Layer pool0
I0504 16:46:56.124630 10060 net.cpp:408] pool0 <- Sigmoid0
I0504 16:46:56.124635 10060 net.cpp:382] pool0 -> pool0
I0504 16:46:56.125461 10060 net.cpp:124] Setting up pool0
I0504 16:46:56.125474 10060 net.cpp:131] Top shape: 111 72 17 17 (2309688)
I0504 16:46:56.125478 10060 net.cpp:139] Memory required for data: 84513180
I0504 16:46:56.125499 10060 layer_factory.hpp:77] Creating layer conv1
I0504 16:46:56.125510 10060 net.cpp:86] Creating Layer conv1
I0504 16:46:56.125514 10060 net.cpp:408] conv1 <- pool0
I0504 16:46:56.125519 10060 net.cpp:382] conv1 -> conv1
I0504 16:46:56.130549 10060 net.cpp:124] Setting up conv1
I0504 16:46:56.130579 10060 net.cpp:131] Top shape: 111 72 19 19 (2885112)
I0504 16:46:56.130584 10060 net.cpp:139] Memory required for data: 96053628
I0504 16:46:56.130592 10060 layer_factory.hpp:77] Creating layer Sigmoid1
I0504 16:46:56.130599 10060 net.cpp:86] Creating Layer Sigmoid1
I0504 16:46:56.130601 10060 net.cpp:408] Sigmoid1 <- conv1
I0504 16:46:56.130609 10060 net.cpp:382] Sigmoid1 -> Sigmoid1
I0504 16:46:56.130853 10060 net.cpp:124] Setting up Sigmoid1
I0504 16:46:56.130864 10060 net.cpp:131] Top shape: 111 72 19 19 (2885112)
I0504 16:46:56.130867 10060 net.cpp:139] Memory required for data: 107594076
I0504 16:46:56.130872 10060 layer_factory.hpp:77] Creating layer pool1
I0504 16:46:56.130878 10060 net.cpp:86] Creating Layer pool1
I0504 16:46:56.130882 10060 net.cpp:408] pool1 <- Sigmoid1
I0504 16:46:56.130887 10060 net.cpp:382] pool1 -> pool1
I0504 16:46:56.131068 10060 net.cpp:124] Setting up pool1
I0504 16:46:56.131079 10060 net.cpp:131] Top shape: 111 72 9 9 (647352)
I0504 16:46:56.131083 10060 net.cpp:139] Memory required for data: 110183484
I0504 16:46:56.131086 10060 layer_factory.hpp:77] Creating layer ip1
I0504 16:46:56.131093 10060 net.cpp:86] Creating Layer ip1
I0504 16:46:56.131096 10060 net.cpp:408] ip1 <- pool1
I0504 16:46:56.131103 10060 net.cpp:382] ip1 -> ip1
I0504 16:46:56.161403 10060 net.cpp:124] Setting up ip1
I0504 16:46:56.161433 10060 net.cpp:131] Top shape: 111 180 (19980)
I0504 16:46:56.161437 10060 net.cpp:139] Memory required for data: 110263404
I0504 16:46:56.161447 10060 layer_factory.hpp:77] Creating layer relu1
I0504 16:46:56.161453 10060 net.cpp:86] Creating Layer relu1
I0504 16:46:56.161458 10060 net.cpp:408] relu1 <- ip1
I0504 16:46:56.161461 10060 net.cpp:369] relu1 -> ip1 (in-place)
I0504 16:46:56.161679 10060 net.cpp:124] Setting up relu1
I0504 16:46:56.161689 10060 net.cpp:131] Top shape: 111 180 (19980)
I0504 16:46:56.161692 10060 net.cpp:139] Memory required for data: 110343324
I0504 16:46:56.161695 10060 layer_factory.hpp:77] Creating layer ip2
I0504 16:46:56.161703 10060 net.cpp:86] Creating Layer ip2
I0504 16:46:56.161706 10060 net.cpp:408] ip2 <- ip1
I0504 16:46:56.161731 10060 net.cpp:382] ip2 -> ip2
I0504 16:46:56.162793 10060 net.cpp:124] Setting up ip2
I0504 16:46:56.162801 10060 net.cpp:131] Top shape: 111 180 (19980)
I0504 16:46:56.162820 10060 net.cpp:139] Memory required for data: 110423244
I0504 16:46:56.162827 10060 layer_factory.hpp:77] Creating layer relu2
I0504 16:46:56.162832 10060 net.cpp:86] Creating Layer relu2
I0504 16:46:56.162835 10060 net.cpp:408] relu2 <- ip2
I0504 16:46:56.162842 10060 net.cpp:369] relu2 -> ip2 (in-place)
I0504 16:46:56.163681 10060 net.cpp:124] Setting up relu2
I0504 16:46:56.163693 10060 net.cpp:131] Top shape: 111 180 (19980)
I0504 16:46:56.163713 10060 net.cpp:139] Memory required for data: 110503164
I0504 16:46:56.163717 10060 layer_factory.hpp:77] Creating layer ip3
I0504 16:46:56.163725 10060 net.cpp:86] Creating Layer ip3
I0504 16:46:56.163729 10060 net.cpp:408] ip3 <- ip2
I0504 16:46:56.163735 10060 net.cpp:382] ip3 -> ip3
I0504 16:46:56.163923 10060 net.cpp:124] Setting up ip3
I0504 16:46:56.163931 10060 net.cpp:131] Top shape: 111 10 (1110)
I0504 16:46:56.163935 10060 net.cpp:139] Memory required for data: 110507604
I0504 16:46:56.163944 10060 layer_factory.hpp:77] Creating layer loss
I0504 16:46:56.163952 10060 net.cpp:86] Creating Layer loss
I0504 16:46:56.163955 10060 net.cpp:408] loss <- ip3
I0504 16:46:56.163959 10060 net.cpp:408] loss <- label
I0504 16:46:56.163965 10060 net.cpp:382] loss -> loss
I0504 16:46:56.163983 10060 layer_factory.hpp:77] Creating layer loss
…
I0504 16:46:56.164716 10060 solver.cpp:173] Creating test net (#0) specified by net file: ECE595/cifar/train_test/var_everything_tiny/cifar_train_test_191.prototxt
I0504 16:46:56.164747 10060 net.cpp:296] The NetState phase (1) differed from the phase (0) specified by a rule in layer cifar
I0504 16:46:56.164865 10060 net.cpp:53] Initializing net from parameters: 
name: "CIFAR"
state {
  phase: TEST
}
layer {
  name: "cifar"
  type: "Data"
  top: "data"
  top: "label"
  include {
    phase: TEST
  }
  transform_param {
    mean_file: "examples/cifar10/mean.binaryproto"
  }
  data_param {
    source: "examples/cifar10/cifar10_test_lmdb"
    batch_size: 1000
    backend: LMDB
  }
}
layer {
  name: "conv0"
  type: "Convolution"
  bottom: "data"
  top: "conv0"
  param {
    lr_mult: 1
  }
  param {
    lr_mult: 2
  }
  convolution_param {
    num_output: 72
    pad: 2
    kernel_size: 3
    stride: 1
    weight_filler {
      type: "gaussian"
      std: 0.01
    }
    bias_filler {
      type: "constant"
    }
  }
}
layer {
  name: "Sigmoid0"
  type: "Sigmoid"
  bottom: "conv0"
  top: "Sigmoid0"
}
layer {
  name: "pool0"
  type: "Pooling"
  bottom: "Sigmoid0"
  top: "pool0"
  pooling_param {
    pool: AVE
    kernel_size: 3
    stride: 2
  }
}
layer {
  name: "conv1"
  type: "Convolution"
  bottom: "pool0"
  top: "conv1"
  param {
    lr_mult: 1
  }
  param {
    lr_mult: 2
  }
  convolution_param {
    num_output: 72
    pad: 2
    kernel_size: 3
    stride: 1
    weight_filler {
      type: "gaussian"
      std: 0.01
    }
    bias_filler {
      type: "constant"
    }
  }
}
layer {
  name: "Sigmoid1"
  type: "Sigmoid"
  bottom: "conv1"
  top: "Sigmoid1"
}
layer {
  name: "pool1"
  type: "Pooling"
  bottom: "Sigmoid1"
  top: "pool1"
  pooling_param {
    pool: AVE
    kernel_size: 3
    stride: 2
  }
}
layer {
  name: "ip1"
  type: "InnerProduct"
  bottom: "pool1"
  top: "ip1"
  param {
    lr_mult: 1
  }
  param {
    lr_mult: 2
  }
  inner_product_param {
    num_output: 180
    weight_filler {
      type: "gaussian"
      std: 0.01
    }
    bias_filler {
      type: "constant"
    }
  }
}
layer {
  name: "relu1"
  type: "ReLU"
  bottom: "ip1"
  top: "ip1"
}
layer {
  name: "ip2"
  type: "InnerProduct"
  bottom: "ip1"
  top: "ip2"
  param {
    lr_mult: 1
  }
  param {
    lr_mult: 2
  }
  inner_product_param {
    num_output: 180
    weight_filler {
      type: "gaussian"
      std: 0.01
    }
    bias_filler {
      type: "constant"
    }
  }
}
layer {
  name: "relu2"
  type: "ReLU"
  bottom: "ip2"
  top: "ip2"
}
layer {
  name: "ip3"
  type: "InnerProduct"
  bottom: "ip2"
  top: "ip3"
  param {
    lr_mult: 1
  }
  param {
    lr_mult: 2
  }
  inner_product_param {
    num_output: 10
    weight_filler {
      type: "gaussian"
      std: 0.01
    }
    bias_filler {
      type: "constant"
    }
  }
}
layer {
  name: "accuracy"
  type: "Accuracy"
  bottom: "ip3"
  bottom: "label"
  top: "accuracy"
  include {
    phase: TEST
  }
}
layer {
  name: "loss"
  type: "SoftmaxWithLoss"
  bottom: "ip3"
  bottom: "label"
  top: "loss"
}
I0504 16:46:56.164961 10060 layer_factory.hpp:77] Creating layer cifar
I0504 16:46:56.165014 10060 db_lmdb.cpp:35] Opened lmdb examples/cifar10/cifar10_test_lmdb
I0504 16:46:56.165026 10060 net.cpp:86] Creating Layer cifar
I0504 16:46:56.165032 10060 net.cpp:382] cifar -> data
I0504 16:46:56.165040 10060 net.cpp:382] cifar -> label
I0504 16:46:56.165047 10060 data_transformer.cpp:25] Loading mean file from: examples/cifar10/mean.binaryproto
I0504 16:46:56.165215 10060 data_layer.cpp:45] output data size: 1000,3,32,32
I0504 16:46:56.188076 10060 net.cpp:124] Setting up cifar
I0504 16:46:56.188102 10060 net.cpp:131] Top shape: 1000 3 32 32 (3072000)
I0504 16:46:56.188107 10060 net.cpp:131] Top shape: 1000 (1000)
I0504 16:46:56.188110 10060 net.cpp:139] Memory required for data: 12292000
I0504 16:46:56.188115 10060 layer_factory.hpp:77] Creating layer label_cifar_1_split
I0504 16:46:56.188161 10060 net.cpp:86] Creating Layer label_cifar_1_split
I0504 16:46:56.188166 10060 net.cpp:408] label_cifar_1_split <- label
I0504 16:46:56.188172 10060 net.cpp:382] label_cifar_1_split -> label_cifar_1_split_0
I0504 16:46:56.188182 10060 net.cpp:382] label_cifar_1_split -> label_cifar_1_split_1
I0504 16:46:56.188321 10060 net.cpp:124] Setting up label_cifar_1_split
I0504 16:46:56.188329 10060 net.cpp:131] Top shape: 1000 (1000)
I0504 16:46:56.188333 10060 net.cpp:131] Top shape: 1000 (1000)
I0504 16:46:56.188336 10060 net.cpp:139] Memory required for data: 12300000
I0504 16:46:56.188338 10060 layer_factory.hpp:77] Creating layer conv0
I0504 16:46:56.188352 10060 net.cpp:86] Creating Layer conv0
I0504 16:46:56.188355 10060 net.cpp:408] conv0 <- data
I0504 16:46:56.188360 10060 net.cpp:382] conv0 -> conv0
I0504 16:46:56.191227 10060 net.cpp:124] Setting up conv0
I0504 16:46:56.191242 10060 net.cpp:131] Top shape: 1000 72 34 34 (83232000)
I0504 16:46:56.191246 10060 net.cpp:139] Memory required for data: 345228000
I0504 16:46:56.191256 10060 layer_factory.hpp:77] Creating layer Sigmoid0
I0504 16:46:56.191280 10060 net.cpp:86] Creating Layer Sigmoid0
I0504 16:46:56.191283 10060 net.cpp:408] Sigmoid0 <- conv0
I0504 16:46:56.191289 10060 net.cpp:382] Sigmoid0 -> Sigmoid0
I0504 16:46:56.191503 10060 net.cpp:124] Setting up Sigmoid0
I0504 16:46:56.191525 10060 net.cpp:131] Top shape: 1000 72 34 34 (83232000)
I0504 16:46:56.191529 10060 net.cpp:139] Memory required for data: 678156000
I0504 16:46:56.191532 10060 layer_factory.hpp:77] Creating layer pool0
I0504 16:46:56.191540 10060 net.cpp:86] Creating Layer pool0
I0504 16:46:56.191543 10060 net.cpp:408] pool0 <- Sigmoid0
I0504 16:46:56.191550 10060 net.cpp:382] pool0 -> pool0
I0504 16:46:56.191732 10060 net.cpp:124] Setting up pool0
I0504 16:46:56.191743 10060 net.cpp:131] Top shape: 1000 72 17 17 (20808000)
I0504 16:46:56.191747 10060 net.cpp:139] Memory required for data: 761388000
I0504 16:46:56.191751 10060 layer_factory.hpp:77] Creating layer conv1
I0504 16:46:56.191759 10060 net.cpp:86] Creating Layer conv1
I0504 16:46:56.191763 10060 net.cpp:408] conv1 <- pool0
I0504 16:46:56.191769 10060 net.cpp:382] conv1 -> conv1
I0504 16:46:56.194762 10060 net.cpp:124] Setting up conv1
I0504 16:46:56.194778 10060 net.cpp:131] Top shape: 1000 72 19 19 (25992000)
I0504 16:46:56.194782 10060 net.cpp:139] Memory required for data: 865356000
I0504 16:46:56.194790 10060 layer_factory.hpp:77] Creating layer Sigmoid1
I0504 16:46:56.194813 10060 net.cpp:86] Creating Layer Sigmoid1
I0504 16:46:56.194816 10060 net.cpp:408] Sigmoid1 <- conv1
I0504 16:46:56.194823 10060 net.cpp:382] Sigmoid1 -> Sigmoid1
I0504 16:46:56.195016 10060 net.cpp:124] Setting up Sigmoid1
I0504 16:46:56.195026 10060 net.cpp:131] Top shape: 1000 72 19 19 (25992000)
I0504 16:46:56.195030 10060 net.cpp:139] Memory required for data: 969324000
I0504 16:46:56.195034 10060 layer_factory.hpp:77] Creating layer pool1
I0504 16:46:56.195040 10060 net.cpp:86] Creating Layer pool1
I0504 16:46:56.195044 10060 net.cpp:408] pool1 <- Sigmoid1
I0504 16:46:56.195047 10060 net.cpp:382] pool1 -> pool1
I0504 16:46:56.195830 10060 net.cpp:124] Setting up pool1
I0504 16:46:56.195844 10060 net.cpp:131] Top shape: 1000 72 9 9 (5832000)
I0504 16:46:56.195848 10060 net.cpp:139] Memory required for data: 992652000
I0504 16:46:56.195852 10060 layer_factory.hpp:77] Creating layer ip1
I0504 16:46:56.195878 10060 net.cpp:86] Creating Layer ip1
I0504 16:46:56.195881 10060 net.cpp:408] ip1 <- pool1
I0504 16:46:56.195888 10060 net.cpp:382] ip1 -> ip1
I0504 16:46:56.226646 10060 net.cpp:124] Setting up ip1
I0504 16:46:56.226666 10060 net.cpp:131] Top shape: 1000 180 (180000)
I0504 16:46:56.226670 10060 net.cpp:139] Memory required for data: 993372000
I0504 16:46:56.226680 10060 layer_factory.hpp:77] Creating layer relu1
I0504 16:46:56.226703 10060 net.cpp:86] Creating Layer relu1
I0504 16:46:56.226706 10060 net.cpp:408] relu1 <- ip1
I0504 16:46:56.226711 10060 net.cpp:369] relu1 -> ip1 (in-place)
I0504 16:46:56.226927 10060 net.cpp:124] Setting up relu1
I0504 16:46:56.226936 10060 net.cpp:131] Top shape: 1000 180 (180000)
I0504 16:46:56.226940 10060 net.cpp:139] Memory required for data: 994092000
I0504 16:46:56.226943 10060 layer_factory.hpp:77] Creating layer ip2
I0504 16:46:56.226950 10060 net.cpp:86] Creating Layer ip2
I0504 16:46:56.226954 10060 net.cpp:408] ip2 <- ip1
I0504 16:46:56.226960 10060 net.cpp:382] ip2 -> ip2
I0504 16:46:56.228046 10060 net.cpp:124] Setting up ip2
I0504 16:46:56.228055 10060 net.cpp:131] Top shape: 1000 180 (180000)
I0504 16:46:56.228060 10060 net.cpp:139] Memory required for data: 994812000
I0504 16:46:56.228065 10060 layer_factory.hpp:77] Creating layer relu2
I0504 16:46:56.228071 10060 net.cpp:86] Creating Layer relu2
I0504 16:46:56.228075 10060 net.cpp:408] relu2 <- ip2
I0504 16:46:56.228082 10060 net.cpp:369] relu2 -> ip2 (in-place)
I0504 16:46:56.228276 10060 net.cpp:124] Setting up relu2
I0504 16:46:56.228286 10060 net.cpp:131] Top shape: 1000 180 (180000)
I0504 16:46:56.228289 10060 net.cpp:139] Memory required for data: 995532000
I0504 16:46:56.228293 10060 layer_factory.hpp:77] Creating layer ip3
I0504 16:46:56.228302 10060 net.cpp:86] Creating Layer ip3
I0504 16:46:56.228305 10060 net.cpp:408] ip3 <- ip2
I0504 16:46:56.228310 10060 net.cpp:382] ip3 -> ip3
I0504 16:46:56.228513 10060 net.cpp:124] Setting up ip3
I0504 16:46:56.228533 10060 net.cpp:131] Top shape: 1000 10 (10000)
I0504 16:46:56.228538 10060 net.cpp:139] Memory required for data: 995572000
I0504 16:46:56.228545 10060 layer_factory.hpp:77] Creating layer ip3_ip3_0_split
I0504 16:46:56.228551 10060 net.cpp:86] Creating Layer ip3_ip3_0_split
I0504 16:46:56.228554 10060 net.cpp:408] ip3_ip3_0_split <- ip3
I0504 16:46:56.228575 10060 net.cpp:382] ip3_ip3_0_split -> ip3_ip3_0_split_0
I0504 16:46:56.228581 10060 net.cpp:382] ip3_ip3_0_split -> ip3_ip3_0_split_1
I0504 16:46:56.228621 10060 net.cpp:124] Setting up ip3_ip3_0_split
I0504 16:46:56.228631 10060 net.cpp:131] Top shape: 1000 10 (10000)
I0504 16:46:56.228637 10060 net.cpp:131] Top shape: 1000 10 (10000)
I0504 16:46:56.228641 10060 net.cpp:139] Memory required for data: 995652000
I0504 16:46:56.228643 10060 layer_factory.hpp:77] Creating layer accuracy
I0504 16:46:56.228649 10060 net.cpp:86] Creating Layer accuracy
I0504 16:46:56.228652 10060 net.cpp:408] accuracy <- ip3_ip3_0_split_0
I0504 16:46:56.228657 10060 net.cpp:408] accuracy <- label_cifar_1_split_0
I0504 16:46:56.228662 10060 net.cpp:382] accuracy -> accuracy
…
