…
I0504 06:45:00.750058 16933 net.cpp:296] The NetState phase (0) differed from the phase (1) specified by a rule in layer cifar
I0504 06:45:00.750077 16933 net.cpp:296] The NetState phase (0) differed from the phase (1) specified by a rule in layer accuracy
I0504 06:45:00.750169 16933 net.cpp:53] Initializing net from parameters: 
name: "CIFAR"
state {
  phase: TRAIN
  level: 0
  stage: ""
}
layer {
  name: "cifar"
  type: "Data"
  top: "data"
  top: "label"
  include {
    phase: TRAIN
  }
  transform_param {
    mean_file: "examples/cifar10/mean.binaryproto"
  }
  data_param {
    source: "examples/cifar10/cifar10_train_lmdb"
    batch_size: 111
    backend: LMDB
  }
}
layer {
  name: "conv0"
  type: "Convolution"
  bottom: "data"
  top: "conv0"
  param {
    lr_mult: 1
  }
  param {
    lr_mult: 2
  }
  convolution_param {
    num_output: 216
    pad: 2
    kernel_size: 5
    stride: 1
    weight_filler {
      type: "gaussian"
      std: 0.01
    }
    bias_filler {
      type: "constant"
    }
  }
}
layer {
  name: "Sigmoid0"
  type: "Sigmoid"
  bottom: "conv0"
  top: "Sigmoid0"
}
layer {
  name: "pool0"
  type: "Pooling"
  bottom: "Sigmoid0"
  top: "pool0"
  pooling_param {
    pool: AVE
    kernel_size: 3
    stride: 2
  }
}
layer {
  name: "ip1"
  type: "InnerProduct"
  bottom: "pool0"
  top: "ip1"
  param {
    lr_mult: 1
  }
  param {
    lr_mult: 2
  }
  inner_product_param {
    num_output: 180
    weight_filler {
      type: "gaussian"
      std: 0.01
    }
    bias_filler {
      type: "constant"
    }
  }
}
layer {
  name: "relu1"
  type: "ReLU"
  bottom: "ip1"
  top: "ip1"
}
layer {
  name: "ip2"
  type: "InnerProduct"
  bottom: "ip1"
  top: "ip2"
  param {
    lr_mult: 1
  }
  param {
    lr_mult: 2
  }
  inner_product_param {
    num_output: 60
    weight_filler {
      type: "gaussian"
      std: 0.01
    }
    bias_filler {
      type: "constant"
    }
  }
}
layer {
  name: "relu2"
  type: "ReLU"
  bottom: "ip2"
  top: "ip2"
}
layer {
  name: "ip3"
  type: "InnerProduct"
  bottom: "ip2"
  top: "ip3"
  param {
    lr_mult: 1
  }
  param {
    lr_mult: 2
  }
  inner_product_param {
    num_output: 10
    weight_filler {
      type: "gaussian"
      std: 0.01
    }
    bias_filler {
      type: "constant"
    }
  }
}
layer {
  name: "loss"
  type: "SoftmaxWithLoss"
  bottom: "ip3"
  bottom: "label"
  top: "loss"
}
I0504 06:45:00.750243 16933 layer_factory.hpp:77] Creating layer cifar
I0504 06:45:00.750342 16933 db_lmdb.cpp:35] Opened lmdb examples/cifar10/cifar10_train_lmdb
I0504 06:45:00.750367 16933 net.cpp:86] Creating Layer cifar
I0504 06:45:00.750375 16933 net.cpp:382] cifar -> data
I0504 06:45:00.750398 16933 net.cpp:382] cifar -> label
I0504 06:45:00.750411 16933 data_transformer.cpp:25] Loading mean file from: examples/cifar10/mean.binaryproto
I0504 06:45:00.752568 16933 data_layer.cpp:45] output data size: 111,3,32,32
I0504 06:45:00.760437 16933 net.cpp:124] Setting up cifar
I0504 06:45:00.760457 16933 net.cpp:131] Top shape: 111 3 32 32 (340992)
I0504 06:45:00.760463 16933 net.cpp:131] Top shape: 111 (111)
I0504 06:45:00.760466 16933 net.cpp:139] Memory required for data: 1364412
I0504 06:45:00.760475 16933 layer_factory.hpp:77] Creating layer conv0
I0504 06:45:00.760496 16933 net.cpp:86] Creating Layer conv0
I0504 06:45:00.760502 16933 net.cpp:408] conv0 <- data
I0504 06:45:00.760514 16933 net.cpp:382] conv0 -> conv0
I0504 06:45:01.039837 16933 net.cpp:124] Setting up conv0
I0504 06:45:01.039897 16933 net.cpp:131] Top shape: 111 216 32 32 (24551424)
I0504 06:45:01.039901 16933 net.cpp:139] Memory required for data: 99570108
I0504 06:45:01.039916 16933 layer_factory.hpp:77] Creating layer Sigmoid0
I0504 06:45:01.039928 16933 net.cpp:86] Creating Layer Sigmoid0
I0504 06:45:01.039932 16933 net.cpp:408] Sigmoid0 <- conv0
I0504 06:45:01.039937 16933 net.cpp:382] Sigmoid0 -> Sigmoid0
I0504 06:45:01.040139 16933 net.cpp:124] Setting up Sigmoid0
I0504 06:45:01.040148 16933 net.cpp:131] Top shape: 111 216 32 32 (24551424)
I0504 06:45:01.040151 16933 net.cpp:139] Memory required for data: 197775804
I0504 06:45:01.040155 16933 layer_factory.hpp:77] Creating layer pool0
I0504 06:45:01.040161 16933 net.cpp:86] Creating Layer pool0
I0504 06:45:01.040164 16933 net.cpp:408] pool0 <- Sigmoid0
I0504 06:45:01.040169 16933 net.cpp:382] pool0 -> pool0
I0504 06:45:01.040941 16933 net.cpp:124] Setting up pool0
I0504 06:45:01.040954 16933 net.cpp:131] Top shape: 111 216 16 16 (6137856)
I0504 06:45:01.040958 16933 net.cpp:139] Memory required for data: 222327228
I0504 06:45:01.040961 16933 layer_factory.hpp:77] Creating layer ip1
I0504 06:45:01.040971 16933 net.cpp:86] Creating Layer ip1
I0504 06:45:01.040976 16933 net.cpp:408] ip1 <- pool0
I0504 06:45:01.040980 16933 net.cpp:382] ip1 -> ip1
I0504 06:45:01.294762 16933 net.cpp:124] Setting up ip1
I0504 06:45:01.294785 16933 net.cpp:131] Top shape: 111 180 (19980)
I0504 06:45:01.294788 16933 net.cpp:139] Memory required for data: 222407148
I0504 06:45:01.294800 16933 layer_factory.hpp:77] Creating layer relu1
I0504 06:45:01.294808 16933 net.cpp:86] Creating Layer relu1
I0504 06:45:01.294814 16933 net.cpp:408] relu1 <- ip1
I0504 06:45:01.294818 16933 net.cpp:369] relu1 -> ip1 (in-place)
I0504 06:45:01.295020 16933 net.cpp:124] Setting up relu1
I0504 06:45:01.295029 16933 net.cpp:131] Top shape: 111 180 (19980)
I0504 06:45:01.295032 16933 net.cpp:139] Memory required for data: 222487068
I0504 06:45:01.295034 16933 layer_factory.hpp:77] Creating layer ip2
I0504 06:45:01.295042 16933 net.cpp:86] Creating Layer ip2
I0504 06:45:01.295048 16933 net.cpp:408] ip2 <- ip1
I0504 06:45:01.295068 16933 net.cpp:382] ip2 -> ip2
I0504 06:45:01.295542 16933 net.cpp:124] Setting up ip2
I0504 06:45:01.295547 16933 net.cpp:131] Top shape: 111 60 (6660)
I0504 06:45:01.295565 16933 net.cpp:139] Memory required for data: 222513708
I0504 06:45:01.295572 16933 layer_factory.hpp:77] Creating layer relu2
I0504 06:45:01.295578 16933 net.cpp:86] Creating Layer relu2
I0504 06:45:01.295579 16933 net.cpp:408] relu2 <- ip2
I0504 06:45:01.295583 16933 net.cpp:369] relu2 -> ip2 (in-place)
I0504 06:45:01.295756 16933 net.cpp:124] Setting up relu2
I0504 06:45:01.295763 16933 net.cpp:131] Top shape: 111 60 (6660)
I0504 06:45:01.295766 16933 net.cpp:139] Memory required for data: 222540348
I0504 06:45:01.295768 16933 layer_factory.hpp:77] Creating layer ip3
I0504 06:45:01.295775 16933 net.cpp:86] Creating Layer ip3
I0504 06:45:01.295778 16933 net.cpp:408] ip3 <- ip2
I0504 06:45:01.295783 16933 net.cpp:382] ip3 -> ip3
I0504 06:45:01.295881 16933 net.cpp:124] Setting up ip3
I0504 06:45:01.295887 16933 net.cpp:131] Top shape: 111 10 (1110)
I0504 06:45:01.295891 16933 net.cpp:139] Memory required for data: 222544788
I0504 06:45:01.295895 16933 layer_factory.hpp:77] Creating layer loss
I0504 06:45:01.295900 16933 net.cpp:86] Creating Layer loss
I0504 06:45:01.295903 16933 net.cpp:408] loss <- ip3
I0504 06:45:01.295907 16933 net.cpp:408] loss <- label
I0504 06:45:01.295912 16933 net.cpp:382] loss -> loss
I0504 06:45:01.295933 16933 layer_factory.hpp:77] Creating layer loss
…
I0504 06:45:01.296535 16933 solver.cpp:173] Creating test net (#0) specified by net file: ECE595/cifar/train_test/var_everything_tiny/cifar_train_test_70.prototxt
I0504 06:45:01.296574 16933 net.cpp:296] The NetState phase (1) differed from the phase (0) specified by a rule in layer cifar
I0504 06:45:01.296685 16933 net.cpp:53] Initializing net from parameters: 
name: "CIFAR"
state {
  phase: TEST
}
layer {
  name: "cifar"
  type: "Data"
  top: "data"
  top: "label"
  include {
    phase: TEST
  }
  transform_param {
    mean_file: "examples/cifar10/mean.binaryproto"
  }
  data_param {
    source: "examples/cifar10/cifar10_test_lmdb"
    batch_size: 1000
    backend: LMDB
  }
}
layer {
  name: "conv0"
  type: "Convolution"
  bottom: "data"
  top: "conv0"
  param {
    lr_mult: 1
  }
  param {
    lr_mult: 2
  }
  convolution_param {
    num_output: 216
    pad: 2
    kernel_size: 5
    stride: 1
    weight_filler {
      type: "gaussian"
      std: 0.01
    }
    bias_filler {
      type: "constant"
    }
  }
}
layer {
  name: "Sigmoid0"
  type: "Sigmoid"
  bottom: "conv0"
  top: "Sigmoid0"
}
layer {
  name: "pool0"
  type: "Pooling"
  bottom: "Sigmoid0"
  top: "pool0"
  pooling_param {
    pool: AVE
    kernel_size: 3
    stride: 2
  }
}
layer {
  name: "ip1"
  type: "InnerProduct"
  bottom: "pool0"
  top: "ip1"
  param {
    lr_mult: 1
  }
  param {
    lr_mult: 2
  }
  inner_product_param {
    num_output: 180
    weight_filler {
      type: "gaussian"
      std: 0.01
    }
    bias_filler {
      type: "constant"
    }
  }
}
layer {
  name: "relu1"
  type: "ReLU"
  bottom: "ip1"
  top: "ip1"
}
layer {
  name: "ip2"
  type: "InnerProduct"
  bottom: "ip1"
  top: "ip2"
  param {
    lr_mult: 1
  }
  param {
    lr_mult: 2
  }
  inner_product_param {
    num_output: 60
    weight_filler {
      type: "gaussian"
      std: 0.01
    }
    bias_filler {
      type: "constant"
    }
  }
}
layer {
  name: "relu2"
  type: "ReLU"
  bottom: "ip2"
  top: "ip2"
}
layer {
  name: "ip3"
  type: "InnerProduct"
  bottom: "ip2"
  top: "ip3"
  param {
    lr_mult: 1
  }
  param {
    lr_mult: 2
  }
  inner_product_param {
    num_output: 10
    weight_filler {
      type: "gaussian"
      std: 0.01
    }
    bias_filler {
      type: "constant"
    }
  }
}
layer {
  name: "accuracy"
  type: "Accuracy"
  bottom: "ip3"
  bottom: "label"
  top: "accuracy"
  include {
    phase: TEST
  }
}
layer {
  name: "loss"
  type: "SoftmaxWithLoss"
  bottom: "ip3"
  bottom: "label"
  top: "loss"
}
I0504 06:45:01.296746 16933 layer_factory.hpp:77] Creating layer cifar
I0504 06:45:01.296798 16933 db_lmdb.cpp:35] Opened lmdb examples/cifar10/cifar10_test_lmdb
I0504 06:45:01.296831 16933 net.cpp:86] Creating Layer cifar
I0504 06:45:01.296836 16933 net.cpp:382] cifar -> data
I0504 06:45:01.296859 16933 net.cpp:382] cifar -> label
I0504 06:45:01.296865 16933 data_transformer.cpp:25] Loading mean file from: examples/cifar10/mean.binaryproto
I0504 06:45:01.297003 16933 data_layer.cpp:45] output data size: 1000,3,32,32
I0504 06:45:01.318068 16933 net.cpp:124] Setting up cifar
I0504 06:45:01.318092 16933 net.cpp:131] Top shape: 1000 3 32 32 (3072000)
I0504 06:45:01.318099 16933 net.cpp:131] Top shape: 1000 (1000)
I0504 06:45:01.318101 16933 net.cpp:139] Memory required for data: 12292000
I0504 06:45:01.318106 16933 layer_factory.hpp:77] Creating layer label_cifar_1_split
I0504 06:45:01.318171 16933 net.cpp:86] Creating Layer label_cifar_1_split
I0504 06:45:01.318174 16933 net.cpp:408] label_cifar_1_split <- label
I0504 06:45:01.318181 16933 net.cpp:382] label_cifar_1_split -> label_cifar_1_split_0
I0504 06:45:01.318189 16933 net.cpp:382] label_cifar_1_split -> label_cifar_1_split_1
I0504 06:45:01.318296 16933 net.cpp:124] Setting up label_cifar_1_split
I0504 06:45:01.318305 16933 net.cpp:131] Top shape: 1000 (1000)
I0504 06:45:01.318308 16933 net.cpp:131] Top shape: 1000 (1000)
I0504 06:45:01.318311 16933 net.cpp:139] Memory required for data: 12300000
I0504 06:45:01.318315 16933 layer_factory.hpp:77] Creating layer conv0
I0504 06:45:01.318325 16933 net.cpp:86] Creating Layer conv0
I0504 06:45:01.318330 16933 net.cpp:408] conv0 <- data
I0504 06:45:01.318334 16933 net.cpp:382] conv0 -> conv0
I0504 06:45:01.320200 16933 net.cpp:124] Setting up conv0
I0504 06:45:01.320212 16933 net.cpp:131] Top shape: 1000 216 32 32 (221184000)
I0504 06:45:01.320215 16933 net.cpp:139] Memory required for data: 897036000
I0504 06:45:01.320224 16933 layer_factory.hpp:77] Creating layer Sigmoid0
I0504 06:45:01.320245 16933 net.cpp:86] Creating Layer Sigmoid0
I0504 06:45:01.320248 16933 net.cpp:408] Sigmoid0 <- conv0
I0504 06:45:01.320253 16933 net.cpp:382] Sigmoid0 -> Sigmoid0
I0504 06:45:01.321110 16933 net.cpp:124] Setting up Sigmoid0
I0504 06:45:01.321122 16933 net.cpp:131] Top shape: 1000 216 32 32 (221184000)
I0504 06:45:01.321125 16933 net.cpp:139] Memory required for data: 1781772000
I0504 06:45:01.321130 16933 layer_factory.hpp:77] Creating layer pool0
I0504 06:45:01.321153 16933 net.cpp:86] Creating Layer pool0
I0504 06:45:01.321157 16933 net.cpp:408] pool0 <- Sigmoid0
I0504 06:45:01.321162 16933 net.cpp:382] pool0 -> pool0
I0504 06:45:01.322331 16933 net.cpp:124] Setting up pool0
I0504 06:45:01.322340 16933 net.cpp:131] Top shape: 1000 216 16 16 (55296000)
I0504 06:45:01.322342 16933 net.cpp:139] Memory required for data: 2002956000
I0504 06:45:01.322345 16933 layer_factory.hpp:77] Creating layer ip1
I0504 06:45:01.322353 16933 net.cpp:86] Creating Layer ip1
I0504 06:45:01.322372 16933 net.cpp:408] ip1 <- pool0
I0504 06:45:01.322377 16933 net.cpp:382] ip1 -> ip1
I0504 06:45:01.594436 16933 net.cpp:124] Setting up ip1
I0504 06:45:01.594476 16933 net.cpp:131] Top shape: 1000 180 (180000)
I0504 06:45:01.594480 16933 net.cpp:139] Memory required for data: 2003676000
I0504 06:45:01.594507 16933 layer_factory.hpp:77] Creating layer relu1
I0504 06:45:01.594524 16933 net.cpp:86] Creating Layer relu1
I0504 06:45:01.594529 16933 net.cpp:408] relu1 <- ip1
I0504 06:45:01.594534 16933 net.cpp:369] relu1 -> ip1 (in-place)
I0504 06:45:01.594754 16933 net.cpp:124] Setting up relu1
I0504 06:45:01.594763 16933 net.cpp:131] Top shape: 1000 180 (180000)
I0504 06:45:01.594768 16933 net.cpp:139] Memory required for data: 2004396000
I0504 06:45:01.594770 16933 layer_factory.hpp:77] Creating layer ip2
I0504 06:45:01.594779 16933 net.cpp:86] Creating Layer ip2
I0504 06:45:01.594781 16933 net.cpp:408] ip2 <- ip1
I0504 06:45:01.594786 16933 net.cpp:382] ip2 -> ip2
I0504 06:45:01.595237 16933 net.cpp:124] Setting up ip2
I0504 06:45:01.595243 16933 net.cpp:131] Top shape: 1000 60 (60000)
I0504 06:45:01.595263 16933 net.cpp:139] Memory required for data: 2004636000
I0504 06:45:01.595269 16933 layer_factory.hpp:77] Creating layer relu2
I0504 06:45:01.595293 16933 net.cpp:86] Creating Layer relu2
I0504 06:45:01.595295 16933 net.cpp:408] relu2 <- ip2
I0504 06:45:01.595299 16933 net.cpp:369] relu2 -> ip2 (in-place)
I0504 06:45:01.595477 16933 net.cpp:124] Setting up relu2
I0504 06:45:01.595486 16933 net.cpp:131] Top shape: 1000 60 (60000)
I0504 06:45:01.595489 16933 net.cpp:139] Memory required for data: 2004876000
I0504 06:45:01.595492 16933 layer_factory.hpp:77] Creating layer ip3
I0504 06:45:01.595499 16933 net.cpp:86] Creating Layer ip3
I0504 06:45:01.595502 16933 net.cpp:408] ip3 <- ip2
I0504 06:45:01.595507 16933 net.cpp:382] ip3 -> ip3
I0504 06:45:01.595659 16933 net.cpp:124] Setting up ip3
I0504 06:45:01.595665 16933 net.cpp:131] Top shape: 1000 10 (10000)
I0504 06:45:01.595695 16933 net.cpp:139] Memory required for data: 2004916000
I0504 06:45:01.595700 16933 layer_factory.hpp:77] Creating layer ip3_ip3_0_split
I0504 06:45:01.595706 16933 net.cpp:86] Creating Layer ip3_ip3_0_split
I0504 06:45:01.595710 16933 net.cpp:408] ip3_ip3_0_split <- ip3
I0504 06:45:01.595713 16933 net.cpp:382] ip3_ip3_0_split -> ip3_ip3_0_split_0
I0504 06:45:01.595718 16933 net.cpp:382] ip3_ip3_0_split -> ip3_ip3_0_split_1
I0504 06:45:01.595749 16933 net.cpp:124] Setting up ip3_ip3_0_split
I0504 06:45:01.595753 16933 net.cpp:131] Top shape: 1000 10 (10000)
I0504 06:45:01.595757 16933 net.cpp:131] Top shape: 1000 10 (10000)
I0504 06:45:01.595760 16933 net.cpp:139] Memory required for data: 2004996000
I0504 06:45:01.595762 16933 layer_factory.hpp:77] Creating layer accuracy
I0504 06:45:01.595768 16933 net.cpp:86] Creating Layer accuracy
I0504 06:45:01.595772 16933 net.cpp:408] accuracy <- ip3_ip3_0_split_0
I0504 06:45:01.595775 16933 net.cpp:408] accuracy <- label_cifar_1_split_0
I0504 06:45:01.595779 16933 net.cpp:382] accuracy -> accuracy
…
