…
I0504 09:03:45.965433 22944 net.cpp:296] The NetState phase (0) differed from the phase (1) specified by a rule in layer cifar
I0504 09:03:45.965462 22944 net.cpp:296] The NetState phase (0) differed from the phase (1) specified by a rule in layer accuracy
I0504 09:03:45.965561 22944 net.cpp:53] Initializing net from parameters: 
name: "CIFAR"
state {
  phase: TRAIN
  level: 0
  stage: ""
}
layer {
  name: "cifar"
  type: "Data"
  top: "data"
  top: "label"
  include {
    phase: TRAIN
  }
  transform_param {
    mean_file: "examples/cifar10/mean.binaryproto"
  }
  data_param {
    source: "examples/cifar10/cifar10_train_lmdb"
    batch_size: 111
    backend: LMDB
  }
}
layer {
  name: "conv0"
  type: "Convolution"
  bottom: "data"
  top: "conv0"
  param {
    lr_mult: 1
  }
  param {
    lr_mult: 2
  }
  convolution_param {
    num_output: 24
    pad: 2
    kernel_size: 3
    stride: 1
    weight_filler {
      type: "gaussian"
      std: 0.01
    }
    bias_filler {
      type: "constant"
    }
  }
}
layer {
  name: "Sigmoid0"
  type: "Sigmoid"
  bottom: "conv0"
  top: "Sigmoid0"
}
layer {
  name: "pool0"
  type: "Pooling"
  bottom: "Sigmoid0"
  top: "pool0"
  pooling_param {
    pool: AVE
    kernel_size: 3
    stride: 2
  }
}
layer {
  name: "conv1"
  type: "Convolution"
  bottom: "pool0"
  top: "conv1"
  param {
    lr_mult: 1
  }
  param {
    lr_mult: 2
  }
  convolution_param {
    num_output: 72
    pad: 2
    kernel_size: 3
    stride: 1
    weight_filler {
      type: "gaussian"
      std: 0.01
    }
    bias_filler {
      type: "constant"
    }
  }
}
layer {
  name: "Sigmoid1"
  type: "Sigmoid"
  bottom: "conv1"
  top: "Sigmoid1"
}
layer {
  name: "pool1"
  type: "Pooling"
  bottom: "Sigmoid1"
  top: "pool1"
  pooling_param {
    pool: AVE
    kernel_size: 3
    stride: 2
  }
}
layer {
  name: "ip1"
  type: "InnerProduct"
  bottom: "pool1"
  top: "ip1"
  param {
    lr_mult: 1
  }
  param {
    lr_mult: 2
  }
  inner_product_param {
    num_output: 10
    weight_filler {
      type: "gaussian"
      std: 0.01
    }
    bias_filler {
      type: "constant"
    }
  }
}
layer {
  name: "relu1"
  type: "ReLU"
  bottom: "ip1"
  top: "ip1"
}
layer {
  name: "ip2"
  type: "InnerProduct"
  bottom: "ip1"
  top: "ip2"
  param {
    lr_mult: 1
  }
  param {
    lr_mult: 2
  }
  inner_product_param {
    num_output: 180
    weight_filler {
      type: "gaussian"
      std: 0.01
    }
    bias_filler {
      type: "constant"
    }
  }
}
layer {
  name: "relu2"
  type: "ReLU"
  bottom: "ip2"
  top: "ip2"
}
layer {
  name: "ip3"
  type: "InnerProduct"
  bottom: "ip2"
  top: "ip3"
  param {
    lr_mult: 1
  }
  param {
    lr_mult: 2
  }
  inner_product_param {
    num_output: 10
    weight_filler {
      type: "gaussian"
      std: 0.01
    }
    bias_filler {
      type: "constant"
    }
  }
}
layer {
  name: "loss"
  type: "SoftmaxWithLoss"
  bottom: "ip3"
  bottom: "label"
  top: "loss"
}
I0504 09:03:45.965628 22944 layer_factory.hpp:77] Creating layer cifar
I0504 09:03:45.965725 22944 db_lmdb.cpp:35] Opened lmdb examples/cifar10/cifar10_train_lmdb
I0504 09:03:45.965747 22944 net.cpp:86] Creating Layer cifar
I0504 09:03:45.965754 22944 net.cpp:382] cifar -> data
I0504 09:03:45.965772 22944 net.cpp:382] cifar -> label
I0504 09:03:45.965781 22944 data_transformer.cpp:25] Loading mean file from: examples/cifar10/mean.binaryproto
I0504 09:03:45.967547 22944 data_layer.cpp:45] output data size: 111,3,32,32
I0504 09:03:45.973949 22944 net.cpp:124] Setting up cifar
I0504 09:03:45.973963 22944 net.cpp:131] Top shape: 111 3 32 32 (340992)
I0504 09:03:45.973969 22944 net.cpp:131] Top shape: 111 (111)
I0504 09:03:45.973973 22944 net.cpp:139] Memory required for data: 1364412
I0504 09:03:45.973978 22944 layer_factory.hpp:77] Creating layer conv0
I0504 09:03:45.973992 22944 net.cpp:86] Creating Layer conv0
I0504 09:03:45.973996 22944 net.cpp:408] conv0 <- data
I0504 09:03:45.974025 22944 net.cpp:382] conv0 -> conv0
I0504 09:03:46.206609 22944 net.cpp:124] Setting up conv0
I0504 09:03:46.206635 22944 net.cpp:131] Top shape: 111 24 34 34 (3079584)
I0504 09:03:46.206640 22944 net.cpp:139] Memory required for data: 13682748
I0504 09:03:46.206652 22944 layer_factory.hpp:77] Creating layer Sigmoid0
I0504 09:03:46.206663 22944 net.cpp:86] Creating Layer Sigmoid0
I0504 09:03:46.206666 22944 net.cpp:408] Sigmoid0 <- conv0
I0504 09:03:46.206672 22944 net.cpp:382] Sigmoid0 -> Sigmoid0
I0504 09:03:46.206864 22944 net.cpp:124] Setting up Sigmoid0
I0504 09:03:46.206874 22944 net.cpp:131] Top shape: 111 24 34 34 (3079584)
I0504 09:03:46.206877 22944 net.cpp:139] Memory required for data: 26001084
I0504 09:03:46.206881 22944 layer_factory.hpp:77] Creating layer pool0
I0504 09:03:46.206887 22944 net.cpp:86] Creating Layer pool0
I0504 09:03:46.206890 22944 net.cpp:408] pool0 <- Sigmoid0
I0504 09:03:46.206894 22944 net.cpp:382] pool0 -> pool0
I0504 09:03:46.207638 22944 net.cpp:124] Setting up pool0
I0504 09:03:46.207650 22944 net.cpp:131] Top shape: 111 24 17 17 (769896)
I0504 09:03:46.207653 22944 net.cpp:139] Memory required for data: 29080668
I0504 09:03:46.207656 22944 layer_factory.hpp:77] Creating layer conv1
I0504 09:03:46.207669 22944 net.cpp:86] Creating Layer conv1
I0504 09:03:46.207672 22944 net.cpp:408] conv1 <- pool0
I0504 09:03:46.207679 22944 net.cpp:382] conv1 -> conv1
I0504 09:03:46.210697 22944 net.cpp:124] Setting up conv1
I0504 09:03:46.210711 22944 net.cpp:131] Top shape: 111 72 19 19 (2885112)
I0504 09:03:46.210714 22944 net.cpp:139] Memory required for data: 40621116
I0504 09:03:46.210723 22944 layer_factory.hpp:77] Creating layer Sigmoid1
I0504 09:03:46.210728 22944 net.cpp:86] Creating Layer Sigmoid1
I0504 09:03:46.210731 22944 net.cpp:408] Sigmoid1 <- conv1
I0504 09:03:46.210736 22944 net.cpp:382] Sigmoid1 -> Sigmoid1
I0504 09:03:46.210924 22944 net.cpp:124] Setting up Sigmoid1
I0504 09:03:46.210933 22944 net.cpp:131] Top shape: 111 72 19 19 (2885112)
I0504 09:03:46.210937 22944 net.cpp:139] Memory required for data: 52161564
I0504 09:03:46.210939 22944 layer_factory.hpp:77] Creating layer pool1
I0504 09:03:46.210947 22944 net.cpp:86] Creating Layer pool1
I0504 09:03:46.210949 22944 net.cpp:408] pool1 <- Sigmoid1
I0504 09:03:46.210954 22944 net.cpp:382] pool1 -> pool1
I0504 09:03:46.211120 22944 net.cpp:124] Setting up pool1
I0504 09:03:46.211128 22944 net.cpp:131] Top shape: 111 72 9 9 (647352)
I0504 09:03:46.211132 22944 net.cpp:139] Memory required for data: 54750972
I0504 09:03:46.211134 22944 layer_factory.hpp:77] Creating layer ip1
I0504 09:03:46.211141 22944 net.cpp:86] Creating Layer ip1
I0504 09:03:46.211144 22944 net.cpp:408] ip1 <- pool1
I0504 09:03:46.211149 22944 net.cpp:382] ip1 -> ip1
I0504 09:03:46.213534 22944 net.cpp:124] Setting up ip1
I0504 09:03:46.213546 22944 net.cpp:131] Top shape: 111 10 (1110)
I0504 09:03:46.213549 22944 net.cpp:139] Memory required for data: 54755412
I0504 09:03:46.213557 22944 layer_factory.hpp:77] Creating layer relu1
I0504 09:03:46.213564 22944 net.cpp:86] Creating Layer relu1
I0504 09:03:46.213567 22944 net.cpp:408] relu1 <- ip1
I0504 09:03:46.213572 22944 net.cpp:369] relu1 -> ip1 (in-place)
I0504 09:03:46.213766 22944 net.cpp:124] Setting up relu1
I0504 09:03:46.213775 22944 net.cpp:131] Top shape: 111 10 (1110)
I0504 09:03:46.213778 22944 net.cpp:139] Memory required for data: 54759852
I0504 09:03:46.213781 22944 layer_factory.hpp:77] Creating layer ip2
I0504 09:03:46.213788 22944 net.cpp:86] Creating Layer ip2
I0504 09:03:46.213791 22944 net.cpp:408] ip2 <- ip1
I0504 09:03:46.213810 22944 net.cpp:382] ip2 -> ip2
I0504 09:03:46.213986 22944 net.cpp:124] Setting up ip2
I0504 09:03:46.213994 22944 net.cpp:131] Top shape: 111 180 (19980)
I0504 09:03:46.213997 22944 net.cpp:139] Memory required for data: 54839772
I0504 09:03:46.214002 22944 layer_factory.hpp:77] Creating layer relu2
I0504 09:03:46.214007 22944 net.cpp:86] Creating Layer relu2
I0504 09:03:46.214010 22944 net.cpp:408] relu2 <- ip2
I0504 09:03:46.214015 22944 net.cpp:369] relu2 -> ip2 (in-place)
I0504 09:03:46.214722 22944 net.cpp:124] Setting up relu2
I0504 09:03:46.214733 22944 net.cpp:131] Top shape: 111 180 (19980)
I0504 09:03:46.214752 22944 net.cpp:139] Memory required for data: 54919692
I0504 09:03:46.214756 22944 layer_factory.hpp:77] Creating layer ip3
I0504 09:03:46.214763 22944 net.cpp:86] Creating Layer ip3
I0504 09:03:46.214766 22944 net.cpp:408] ip3 <- ip2
I0504 09:03:46.214772 22944 net.cpp:382] ip3 -> ip3
I0504 09:03:46.214938 22944 net.cpp:124] Setting up ip3
I0504 09:03:46.214946 22944 net.cpp:131] Top shape: 111 10 (1110)
I0504 09:03:46.214949 22944 net.cpp:139] Memory required for data: 54924132
I0504 09:03:46.214956 22944 layer_factory.hpp:77] Creating layer loss
I0504 09:03:46.214962 22944 net.cpp:86] Creating Layer loss
I0504 09:03:46.214965 22944 net.cpp:408] loss <- ip3
I0504 09:03:46.214968 22944 net.cpp:408] loss <- label
I0504 09:03:46.214973 22944 net.cpp:382] loss -> loss
I0504 09:03:46.214985 22944 layer_factory.hpp:77] Creating layer loss
…
I0504 09:03:46.215627 22944 solver.cpp:173] Creating test net (#0) specified by net file: ECE595/cifar/train_test/var_everything_tiny/cifar_train_test_113.prototxt
I0504 09:03:46.215653 22944 net.cpp:296] The NetState phase (1) differed from the phase (0) specified by a rule in layer cifar
I0504 09:03:46.215754 22944 net.cpp:53] Initializing net from parameters: 
name: "CIFAR"
state {
  phase: TEST
}
layer {
  name: "cifar"
  type: "Data"
  top: "data"
  top: "label"
  include {
    phase: TEST
  }
  transform_param {
    mean_file: "examples/cifar10/mean.binaryproto"
  }
  data_param {
    source: "examples/cifar10/cifar10_test_lmdb"
    batch_size: 1000
    backend: LMDB
  }
}
layer {
  name: "conv0"
  type: "Convolution"
  bottom: "data"
  top: "conv0"
  param {
    lr_mult: 1
  }
  param {
    lr_mult: 2
  }
  convolution_param {
    num_output: 24
    pad: 2
    kernel_size: 3
    stride: 1
    weight_filler {
      type: "gaussian"
      std: 0.01
    }
    bias_filler {
      type: "constant"
    }
  }
}
layer {
  name: "Sigmoid0"
  type: "Sigmoid"
  bottom: "conv0"
  top: "Sigmoid0"
}
layer {
  name: "pool0"
  type: "Pooling"
  bottom: "Sigmoid0"
  top: "pool0"
  pooling_param {
    pool: AVE
    kernel_size: 3
    stride: 2
  }
}
layer {
  name: "conv1"
  type: "Convolution"
  bottom: "pool0"
  top: "conv1"
  param {
    lr_mult: 1
  }
  param {
    lr_mult: 2
  }
  convolution_param {
    num_output: 72
    pad: 2
    kernel_size: 3
    stride: 1
    weight_filler {
      type: "gaussian"
      std: 0.01
    }
    bias_filler {
      type: "constant"
    }
  }
}
layer {
  name: "Sigmoid1"
  type: "Sigmoid"
  bottom: "conv1"
  top: "Sigmoid1"
}
layer {
  name: "pool1"
  type: "Pooling"
  bottom: "Sigmoid1"
  top: "pool1"
  pooling_param {
    pool: AVE
    kernel_size: 3
    stride: 2
  }
}
layer {
  name: "ip1"
  type: "InnerProduct"
  bottom: "pool1"
  top: "ip1"
  param {
    lr_mult: 1
  }
  param {
    lr_mult: 2
  }
  inner_product_param {
    num_output: 10
    weight_filler {
      type: "gaussian"
      std: 0.01
    }
    bias_filler {
      type: "constant"
    }
  }
}
layer {
  name: "relu1"
  type: "ReLU"
  bottom: "ip1"
  top: "ip1"
}
layer {
  name: "ip2"
  type: "InnerProduct"
  bottom: "ip1"
  top: "ip2"
  param {
    lr_mult: 1
  }
  param {
    lr_mult: 2
  }
  inner_product_param {
    num_output: 180
    weight_filler {
      type: "gaussian"
      std: 0.01
    }
    bias_filler {
      type: "constant"
    }
  }
}
layer {
  name: "relu2"
  type: "ReLU"
  bottom: "ip2"
  top: "ip2"
}
layer {
  name: "ip3"
  type: "InnerProduct"
  bottom: "ip2"
  top: "ip3"
  param {
    lr_mult: 1
  }
  param {
    lr_mult: 2
  }
  inner_product_param {
    num_output: 10
    weight_filler {
      type: "gaussian"
      std: 0.01
    }
    bias_filler {
      type: "constant"
    }
  }
}
layer {
  name: "accuracy"
  type: "Accuracy"
  bottom: "ip3"
  bottom: "label"
  top: "accuracy"
  include {
    phase: TEST
  }
}
layer {
  name: "loss"
  type: "SoftmaxWithLoss"
  bottom: "ip3"
  bottom: "label"
  top: "loss"
}
I0504 09:03:46.215853 22944 layer_factory.hpp:77] Creating layer cifar
I0504 09:03:46.215898 22944 db_lmdb.cpp:35] Opened lmdb examples/cifar10/cifar10_test_lmdb
I0504 09:03:46.215910 22944 net.cpp:86] Creating Layer cifar
I0504 09:03:46.215914 22944 net.cpp:382] cifar -> data
I0504 09:03:46.215921 22944 net.cpp:382] cifar -> label
I0504 09:03:46.215927 22944 data_transformer.cpp:25] Loading mean file from: examples/cifar10/mean.binaryproto
I0504 09:03:46.216070 22944 data_layer.cpp:45] output data size: 1000,3,32,32
I0504 09:03:46.237386 22944 net.cpp:124] Setting up cifar
I0504 09:03:46.237428 22944 net.cpp:131] Top shape: 1000 3 32 32 (3072000)
I0504 09:03:46.237440 22944 net.cpp:131] Top shape: 1000 (1000)
I0504 09:03:46.237443 22944 net.cpp:139] Memory required for data: 12292000
I0504 09:03:46.237464 22944 layer_factory.hpp:77] Creating layer label_cifar_1_split
I0504 09:03:46.237476 22944 net.cpp:86] Creating Layer label_cifar_1_split
I0504 09:03:46.237480 22944 net.cpp:408] label_cifar_1_split <- label
I0504 09:03:46.237488 22944 net.cpp:382] label_cifar_1_split -> label_cifar_1_split_0
I0504 09:03:46.237514 22944 net.cpp:382] label_cifar_1_split -> label_cifar_1_split_1
I0504 09:03:46.237623 22944 net.cpp:124] Setting up label_cifar_1_split
I0504 09:03:46.237632 22944 net.cpp:131] Top shape: 1000 (1000)
I0504 09:03:46.237635 22944 net.cpp:131] Top shape: 1000 (1000)
I0504 09:03:46.237638 22944 net.cpp:139] Memory required for data: 12300000
I0504 09:03:46.237642 22944 layer_factory.hpp:77] Creating layer conv0
I0504 09:03:46.237655 22944 net.cpp:86] Creating Layer conv0
I0504 09:03:46.237659 22944 net.cpp:408] conv0 <- data
I0504 09:03:46.237664 22944 net.cpp:382] conv0 -> conv0
I0504 09:03:46.239338 22944 net.cpp:124] Setting up conv0
I0504 09:03:46.239367 22944 net.cpp:131] Top shape: 1000 24 34 34 (27744000)
I0504 09:03:46.239369 22944 net.cpp:139] Memory required for data: 123276000
I0504 09:03:46.239379 22944 layer_factory.hpp:77] Creating layer Sigmoid0
I0504 09:03:46.239387 22944 net.cpp:86] Creating Layer Sigmoid0
I0504 09:03:46.239389 22944 net.cpp:408] Sigmoid0 <- conv0
I0504 09:03:46.239393 22944 net.cpp:382] Sigmoid0 -> Sigmoid0
I0504 09:03:46.239586 22944 net.cpp:124] Setting up Sigmoid0
I0504 09:03:46.239606 22944 net.cpp:131] Top shape: 1000 24 34 34 (27744000)
I0504 09:03:46.239610 22944 net.cpp:139] Memory required for data: 234252000
I0504 09:03:46.239614 22944 layer_factory.hpp:77] Creating layer pool0
I0504 09:03:46.239639 22944 net.cpp:86] Creating Layer pool0
I0504 09:03:46.239641 22944 net.cpp:408] pool0 <- Sigmoid0
I0504 09:03:46.239646 22944 net.cpp:382] pool0 -> pool0
I0504 09:03:46.239816 22944 net.cpp:124] Setting up pool0
I0504 09:03:46.239825 22944 net.cpp:131] Top shape: 1000 24 17 17 (6936000)
I0504 09:03:46.239827 22944 net.cpp:139] Memory required for data: 261996000
I0504 09:03:46.239832 22944 layer_factory.hpp:77] Creating layer conv1
I0504 09:03:46.239857 22944 net.cpp:86] Creating Layer conv1
I0504 09:03:46.239861 22944 net.cpp:408] conv1 <- pool0
I0504 09:03:46.239868 22944 net.cpp:382] conv1 -> conv1
I0504 09:03:46.242347 22944 net.cpp:124] Setting up conv1
I0504 09:03:46.242375 22944 net.cpp:131] Top shape: 1000 72 19 19 (25992000)
I0504 09:03:46.242379 22944 net.cpp:139] Memory required for data: 365964000
I0504 09:03:46.242403 22944 layer_factory.hpp:77] Creating layer Sigmoid1
I0504 09:03:46.242425 22944 net.cpp:86] Creating Layer Sigmoid1
I0504 09:03:46.242429 22944 net.cpp:408] Sigmoid1 <- conv1
I0504 09:03:46.242434 22944 net.cpp:382] Sigmoid1 -> Sigmoid1
I0504 09:03:46.242619 22944 net.cpp:124] Setting up Sigmoid1
I0504 09:03:46.242630 22944 net.cpp:131] Top shape: 1000 72 19 19 (25992000)
I0504 09:03:46.242632 22944 net.cpp:139] Memory required for data: 469932000
I0504 09:03:46.242635 22944 layer_factory.hpp:77] Creating layer pool1
I0504 09:03:46.242641 22944 net.cpp:86] Creating Layer pool1
I0504 09:03:46.242645 22944 net.cpp:408] pool1 <- Sigmoid1
I0504 09:03:46.242650 22944 net.cpp:382] pool1 -> pool1
I0504 09:03:46.243419 22944 net.cpp:124] Setting up pool1
I0504 09:03:46.243432 22944 net.cpp:131] Top shape: 1000 72 9 9 (5832000)
I0504 09:03:46.243451 22944 net.cpp:139] Memory required for data: 493260000
I0504 09:03:46.243455 22944 layer_factory.hpp:77] Creating layer ip1
I0504 09:03:46.243464 22944 net.cpp:86] Creating Layer ip1
I0504 09:03:46.243468 22944 net.cpp:408] ip1 <- pool1
I0504 09:03:46.243472 22944 net.cpp:382] ip1 -> ip1
I0504 09:03:46.245210 22944 net.cpp:124] Setting up ip1
I0504 09:03:46.245219 22944 net.cpp:131] Top shape: 1000 10 (10000)
I0504 09:03:46.245237 22944 net.cpp:139] Memory required for data: 493300000
I0504 09:03:46.245260 22944 layer_factory.hpp:77] Creating layer relu1
I0504 09:03:46.245270 22944 net.cpp:86] Creating Layer relu1
I0504 09:03:46.245272 22944 net.cpp:408] relu1 <- ip1
I0504 09:03:46.245277 22944 net.cpp:369] relu1 -> ip1 (in-place)
I0504 09:03:46.245463 22944 net.cpp:124] Setting up relu1
I0504 09:03:46.245471 22944 net.cpp:131] Top shape: 1000 10 (10000)
I0504 09:03:46.245476 22944 net.cpp:139] Memory required for data: 493340000
I0504 09:03:46.245479 22944 layer_factory.hpp:77] Creating layer ip2
I0504 09:03:46.245486 22944 net.cpp:86] Creating Layer ip2
I0504 09:03:46.245488 22944 net.cpp:408] ip2 <- ip1
I0504 09:03:46.245494 22944 net.cpp:382] ip2 -> ip2
I0504 09:03:46.245645 22944 net.cpp:124] Setting up ip2
I0504 09:03:46.245651 22944 net.cpp:131] Top shape: 1000 180 (180000)
I0504 09:03:46.245654 22944 net.cpp:139] Memory required for data: 494060000
I0504 09:03:46.245661 22944 layer_factory.hpp:77] Creating layer relu2
I0504 09:03:46.245666 22944 net.cpp:86] Creating Layer relu2
I0504 09:03:46.245669 22944 net.cpp:408] relu2 <- ip2
I0504 09:03:46.245673 22944 net.cpp:369] relu2 -> ip2 (in-place)
I0504 09:03:46.245847 22944 net.cpp:124] Setting up relu2
I0504 09:03:46.245856 22944 net.cpp:131] Top shape: 1000 180 (180000)
I0504 09:03:46.245859 22944 net.cpp:139] Memory required for data: 494780000
I0504 09:03:46.245862 22944 layer_factory.hpp:77] Creating layer ip3
I0504 09:03:46.245869 22944 net.cpp:86] Creating Layer ip3
I0504 09:03:46.245872 22944 net.cpp:408] ip3 <- ip2
I0504 09:03:46.245877 22944 net.cpp:382] ip3 -> ip3
I0504 09:03:46.246045 22944 net.cpp:124] Setting up ip3
I0504 09:03:46.246052 22944 net.cpp:131] Top shape: 1000 10 (10000)
I0504 09:03:46.246064 22944 net.cpp:139] Memory required for data: 494820000
I0504 09:03:46.246073 22944 layer_factory.hpp:77] Creating layer ip3_ip3_0_split
I0504 09:03:46.246078 22944 net.cpp:86] Creating Layer ip3_ip3_0_split
I0504 09:03:46.246081 22944 net.cpp:408] ip3_ip3_0_split <- ip3
I0504 09:03:46.246085 22944 net.cpp:382] ip3_ip3_0_split -> ip3_ip3_0_split_0
I0504 09:03:46.246091 22944 net.cpp:382] ip3_ip3_0_split -> ip3_ip3_0_split_1
I0504 09:03:46.246142 22944 net.cpp:124] Setting up ip3_ip3_0_split
I0504 09:03:46.246148 22944 net.cpp:131] Top shape: 1000 10 (10000)
I0504 09:03:46.246152 22944 net.cpp:131] Top shape: 1000 10 (10000)
I0504 09:03:46.246156 22944 net.cpp:139] Memory required for data: 494900000
I0504 09:03:46.246160 22944 layer_factory.hpp:77] Creating layer accuracy
I0504 09:03:46.246166 22944 net.cpp:86] Creating Layer accuracy
I0504 09:03:46.246170 22944 net.cpp:408] accuracy <- ip3_ip3_0_split_0
I0504 09:03:46.246173 22944 net.cpp:408] accuracy <- label_cifar_1_split_0
I0504 09:03:46.246178 22944 net.cpp:382] accuracy -> accuracy
…
