…
I0504 15:13:44.553311  6065 net.cpp:296] The NetState phase (0) differed from the phase (1) specified by a rule in layer cifar
I0504 15:13:44.553329  6065 net.cpp:296] The NetState phase (0) differed from the phase (1) specified by a rule in layer accuracy
I0504 15:13:44.553437  6065 net.cpp:53] Initializing net from parameters: 
name: "CIFAR"
state {
  phase: TRAIN
  level: 0
  stage: ""
}
layer {
  name: "cifar"
  type: "Data"
  top: "data"
  top: "label"
  include {
    phase: TRAIN
  }
  transform_param {
    mean_file: "examples/cifar10/mean.binaryproto"
  }
  data_param {
    source: "examples/cifar10/cifar10_train_lmdb"
    batch_size: 111
    backend: LMDB
  }
}
layer {
  name: "conv0"
  type: "Convolution"
  bottom: "data"
  top: "conv0"
  param {
    lr_mult: 1
  }
  param {
    lr_mult: 2
  }
  convolution_param {
    num_output: 24
    pad: 2
    kernel_size: 5
    stride: 1
    weight_filler {
      type: "gaussian"
      std: 0.01
    }
    bias_filler {
      type: "constant"
    }
  }
}
layer {
  name: "Sigmoid0"
  type: "Sigmoid"
  bottom: "conv0"
  top: "Sigmoid0"
}
layer {
  name: "pool0"
  type: "Pooling"
  bottom: "Sigmoid0"
  top: "pool0"
  pooling_param {
    pool: AVE
    kernel_size: 3
    stride: 2
  }
}
layer {
  name: "conv1"
  type: "Convolution"
  bottom: "pool0"
  top: "conv1"
  param {
    lr_mult: 1
  }
  param {
    lr_mult: 2
  }
  convolution_param {
    num_output: 216
    pad: 2
    kernel_size: 5
    stride: 1
    weight_filler {
      type: "gaussian"
      std: 0.01
    }
    bias_filler {
      type: "constant"
    }
  }
}
layer {
  name: "Sigmoid1"
  type: "Sigmoid"
  bottom: "conv1"
  top: "Sigmoid1"
}
layer {
  name: "pool1"
  type: "Pooling"
  bottom: "Sigmoid1"
  top: "pool1"
  pooling_param {
    pool: AVE
    kernel_size: 3
    stride: 2
  }
}
layer {
  name: "ip1"
  type: "InnerProduct"
  bottom: "pool1"
  top: "ip1"
  param {
    lr_mult: 1
  }
  param {
    lr_mult: 2
  }
  inner_product_param {
    num_output: 180
    weight_filler {
      type: "gaussian"
      std: 0.01
    }
    bias_filler {
      type: "constant"
    }
  }
}
layer {
  name: "relu1"
  type: "ReLU"
  bottom: "ip1"
  top: "ip1"
}
layer {
  name: "ip2"
  type: "InnerProduct"
  bottom: "ip1"
  top: "ip2"
  param {
    lr_mult: 1
  }
  param {
    lr_mult: 2
  }
  inner_product_param {
    num_output: 60
    weight_filler {
      type: "gaussian"
      std: 0.01
    }
    bias_filler {
      type: "constant"
    }
  }
}
layer {
  name: "relu2"
  type: "ReLU"
  bottom: "ip2"
  top: "ip2"
}
layer {
  name: "ip3"
  type: "InnerProduct"
  bottom: "ip2"
  top: "ip3"
  param {
    lr_mult: 1
  }
  param {
    lr_mult: 2
  }
  inner_product_param {
    num_output: 10
    weight_filler {
      type: "gaussian"
      std: 0.01
    }
    bias_filler {
      type: "constant"
    }
  }
}
layer {
  name: "loss"
  type: "SoftmaxWithLoss"
  bottom: "ip3"
  bottom: "label"
  top: "loss"
}
I0504 15:13:44.553514  6065 layer_factory.hpp:77] Creating layer cifar
I0504 15:13:44.553617  6065 db_lmdb.cpp:35] Opened lmdb examples/cifar10/cifar10_train_lmdb
I0504 15:13:44.553645  6065 net.cpp:86] Creating Layer cifar
I0504 15:13:44.553655  6065 net.cpp:382] cifar -> data
I0504 15:13:44.553678  6065 net.cpp:382] cifar -> label
I0504 15:13:44.553692  6065 data_transformer.cpp:25] Loading mean file from: examples/cifar10/mean.binaryproto
I0504 15:13:44.555879  6065 data_layer.cpp:45] output data size: 111,3,32,32
I0504 15:13:44.565129  6065 net.cpp:124] Setting up cifar
I0504 15:13:44.565151  6065 net.cpp:131] Top shape: 111 3 32 32 (340992)
I0504 15:13:44.565158  6065 net.cpp:131] Top shape: 111 (111)
I0504 15:13:44.565162  6065 net.cpp:139] Memory required for data: 1364412
I0504 15:13:44.565171  6065 layer_factory.hpp:77] Creating layer conv0
I0504 15:13:44.565203  6065 net.cpp:86] Creating Layer conv0
I0504 15:13:44.565209  6065 net.cpp:408] conv0 <- data
I0504 15:13:44.565222  6065 net.cpp:382] conv0 -> conv0
I0504 15:13:44.838780  6065 net.cpp:124] Setting up conv0
I0504 15:13:44.838809  6065 net.cpp:131] Top shape: 111 24 32 32 (2727936)
I0504 15:13:44.838812  6065 net.cpp:139] Memory required for data: 12276156
I0504 15:13:44.838826  6065 layer_factory.hpp:77] Creating layer Sigmoid0
I0504 15:13:44.838837  6065 net.cpp:86] Creating Layer Sigmoid0
I0504 15:13:44.838841  6065 net.cpp:408] Sigmoid0 <- conv0
I0504 15:13:44.838846  6065 net.cpp:382] Sigmoid0 -> Sigmoid0
I0504 15:13:44.839030  6065 net.cpp:124] Setting up Sigmoid0
I0504 15:13:44.839054  6065 net.cpp:131] Top shape: 111 24 32 32 (2727936)
I0504 15:13:44.839057  6065 net.cpp:139] Memory required for data: 23187900
I0504 15:13:44.839061  6065 layer_factory.hpp:77] Creating layer pool0
I0504 15:13:44.839068  6065 net.cpp:86] Creating Layer pool0
I0504 15:13:44.839074  6065 net.cpp:408] pool0 <- Sigmoid0
I0504 15:13:44.839094  6065 net.cpp:382] pool0 -> pool0
I0504 15:13:44.839879  6065 net.cpp:124] Setting up pool0
I0504 15:13:44.839890  6065 net.cpp:131] Top shape: 111 24 16 16 (681984)
I0504 15:13:44.839910  6065 net.cpp:139] Memory required for data: 25915836
I0504 15:13:44.839912  6065 layer_factory.hpp:77] Creating layer conv1
I0504 15:13:44.839925  6065 net.cpp:86] Creating Layer conv1
I0504 15:13:44.839928  6065 net.cpp:408] conv1 <- pool0
I0504 15:13:44.839933  6065 net.cpp:382] conv1 -> conv1
I0504 15:13:44.845381  6065 net.cpp:124] Setting up conv1
I0504 15:13:44.845393  6065 net.cpp:131] Top shape: 111 216 16 16 (6137856)
I0504 15:13:44.845413  6065 net.cpp:139] Memory required for data: 50467260
I0504 15:13:44.845422  6065 layer_factory.hpp:77] Creating layer Sigmoid1
I0504 15:13:44.845427  6065 net.cpp:86] Creating Layer Sigmoid1
I0504 15:13:44.845432  6065 net.cpp:408] Sigmoid1 <- conv1
I0504 15:13:44.845437  6065 net.cpp:382] Sigmoid1 -> Sigmoid1
I0504 15:13:44.845645  6065 net.cpp:124] Setting up Sigmoid1
I0504 15:13:44.845654  6065 net.cpp:131] Top shape: 111 216 16 16 (6137856)
I0504 15:13:44.845657  6065 net.cpp:139] Memory required for data: 75018684
I0504 15:13:44.845676  6065 layer_factory.hpp:77] Creating layer pool1
I0504 15:13:44.845682  6065 net.cpp:86] Creating Layer pool1
I0504 15:13:44.845685  6065 net.cpp:408] pool1 <- Sigmoid1
I0504 15:13:44.845691  6065 net.cpp:382] pool1 -> pool1
I0504 15:13:44.845877  6065 net.cpp:124] Setting up pool1
I0504 15:13:44.845886  6065 net.cpp:131] Top shape: 111 216 8 8 (1534464)
I0504 15:13:44.845890  6065 net.cpp:139] Memory required for data: 81156540
I0504 15:13:44.845893  6065 layer_factory.hpp:77] Creating layer ip1
I0504 15:13:44.845903  6065 net.cpp:86] Creating Layer ip1
I0504 15:13:44.845909  6065 net.cpp:408] ip1 <- pool1
I0504 15:13:44.845930  6065 net.cpp:382] ip1 -> ip1
I0504 15:13:44.910238  6065 net.cpp:124] Setting up ip1
I0504 15:13:44.910266  6065 net.cpp:131] Top shape: 111 180 (19980)
I0504 15:13:44.910270  6065 net.cpp:139] Memory required for data: 81236460
I0504 15:13:44.910279  6065 layer_factory.hpp:77] Creating layer relu1
I0504 15:13:44.910286  6065 net.cpp:86] Creating Layer relu1
I0504 15:13:44.910290  6065 net.cpp:408] relu1 <- ip1
I0504 15:13:44.910295  6065 net.cpp:369] relu1 -> ip1 (in-place)
I0504 15:13:44.910500  6065 net.cpp:124] Setting up relu1
I0504 15:13:44.910507  6065 net.cpp:131] Top shape: 111 180 (19980)
I0504 15:13:44.910511  6065 net.cpp:139] Memory required for data: 81316380
I0504 15:13:44.910514  6065 layer_factory.hpp:77] Creating layer ip2
I0504 15:13:44.910547  6065 net.cpp:86] Creating Layer ip2
I0504 15:13:44.910549  6065 net.cpp:408] ip2 <- ip1
I0504 15:13:44.910583  6065 net.cpp:382] ip2 -> ip2
I0504 15:13:44.911913  6065 net.cpp:124] Setting up ip2
I0504 15:13:44.911926  6065 net.cpp:131] Top shape: 111 60 (6660)
I0504 15:13:44.911944  6065 net.cpp:139] Memory required for data: 81343020
I0504 15:13:44.911950  6065 layer_factory.hpp:77] Creating layer relu2
I0504 15:13:44.911955  6065 net.cpp:86] Creating Layer relu2
I0504 15:13:44.911959  6065 net.cpp:408] relu2 <- ip2
I0504 15:13:44.911965  6065 net.cpp:369] relu2 -> ip2 (in-place)
I0504 15:13:44.912835  6065 net.cpp:124] Setting up relu2
I0504 15:13:44.912847  6065 net.cpp:131] Top shape: 111 60 (6660)
I0504 15:13:44.912866  6065 net.cpp:139] Memory required for data: 81369660
I0504 15:13:44.912870  6065 layer_factory.hpp:77] Creating layer ip3
I0504 15:13:44.912878  6065 net.cpp:86] Creating Layer ip3
I0504 15:13:44.912883  6065 net.cpp:408] ip3 <- ip2
I0504 15:13:44.912888  6065 net.cpp:382] ip3 -> ip3
I0504 15:13:44.913029  6065 net.cpp:124] Setting up ip3
I0504 15:13:44.913038  6065 net.cpp:131] Top shape: 111 10 (1110)
I0504 15:13:44.913056  6065 net.cpp:139] Memory required for data: 81374100
I0504 15:13:44.913079  6065 layer_factory.hpp:77] Creating layer loss
I0504 15:13:44.913087  6065 net.cpp:86] Creating Layer loss
I0504 15:13:44.913092  6065 net.cpp:408] loss <- ip3
I0504 15:13:44.913096  6065 net.cpp:408] loss <- label
I0504 15:13:44.913101  6065 net.cpp:382] loss -> loss
I0504 15:13:44.913120  6065 layer_factory.hpp:77] Creating layer loss
…
I0504 15:13:44.913991  6065 solver.cpp:173] Creating test net (#0) specified by net file: ECE595/cifar/train_test/var_everything_tiny/cifar_train_test_178.prototxt
I0504 15:13:44.914050  6065 net.cpp:296] The NetState phase (1) differed from the phase (0) specified by a rule in layer cifar
I0504 15:13:44.914162  6065 net.cpp:53] Initializing net from parameters: 
name: "CIFAR"
state {
  phase: TEST
}
layer {
  name: "cifar"
  type: "Data"
  top: "data"
  top: "label"
  include {
    phase: TEST
  }
  transform_param {
    mean_file: "examples/cifar10/mean.binaryproto"
  }
  data_param {
    source: "examples/cifar10/cifar10_test_lmdb"
    batch_size: 1000
    backend: LMDB
  }
}
layer {
  name: "conv0"
  type: "Convolution"
  bottom: "data"
  top: "conv0"
  param {
    lr_mult: 1
  }
  param {
    lr_mult: 2
  }
  convolution_param {
    num_output: 24
    pad: 2
    kernel_size: 5
    stride: 1
    weight_filler {
      type: "gaussian"
      std: 0.01
    }
    bias_filler {
      type: "constant"
    }
  }
}
layer {
  name: "Sigmoid0"
  type: "Sigmoid"
  bottom: "conv0"
  top: "Sigmoid0"
}
layer {
  name: "pool0"
  type: "Pooling"
  bottom: "Sigmoid0"
  top: "pool0"
  pooling_param {
    pool: AVE
    kernel_size: 3
    stride: 2
  }
}
layer {
  name: "conv1"
  type: "Convolution"
  bottom: "pool0"
  top: "conv1"
  param {
    lr_mult: 1
  }
  param {
    lr_mult: 2
  }
  convolution_param {
    num_output: 216
    pad: 2
    kernel_size: 5
    stride: 1
    weight_filler {
      type: "gaussian"
      std: 0.01
    }
    bias_filler {
      type: "constant"
    }
  }
}
layer {
  name: "Sigmoid1"
  type: "Sigmoid"
  bottom: "conv1"
  top: "Sigmoid1"
}
layer {
  name: "pool1"
  type: "Pooling"
  bottom: "Sigmoid1"
  top: "pool1"
  pooling_param {
    pool: AVE
    kernel_size: 3
    stride: 2
  }
}
layer {
  name: "ip1"
  type: "InnerProduct"
  bottom: "pool1"
  top: "ip1"
  param {
    lr_mult: 1
  }
  param {
    lr_mult: 2
  }
  inner_product_param {
    num_output: 180
    weight_filler {
      type: "gaussian"
      std: 0.01
    }
    bias_filler {
      type: "constant"
    }
  }
}
layer {
  name: "relu1"
  type: "ReLU"
  bottom: "ip1"
  top: "ip1"
}
layer {
  name: "ip2"
  type: "InnerProduct"
  bottom: "ip1"
  top: "ip2"
  param {
    lr_mult: 1
  }
  param {
    lr_mult: 2
  }
  inner_product_param {
    num_output: 60
    weight_filler {
      type: "gaussian"
      std: 0.01
    }
    bias_filler {
      type: "constant"
    }
  }
}
layer {
  name: "relu2"
  type: "ReLU"
  bottom: "ip2"
  top: "ip2"
}
layer {
  name: "ip3"
  type: "InnerProduct"
  bottom: "ip2"
  top: "ip3"
  param {
    lr_mult: 1
  }
  param {
    lr_mult: 2
  }
  inner_product_param {
    num_output: 10
    weight_filler {
      type: "gaussian"
      std: 0.01
    }
    bias_filler {
      type: "constant"
    }
  }
}
layer {
  name: "accuracy"
  type: "Accuracy"
  bottom: "ip3"
  bottom: "label"
  top: "accuracy"
  include {
    phase: TEST
  }
}
layer {
  name: "loss"
  type: "SoftmaxWithLoss"
  bottom: "ip3"
  bottom: "label"
  top: "loss"
}
I0504 15:13:44.914252  6065 layer_factory.hpp:77] Creating layer cifar
I0504 15:13:44.914316  6065 db_lmdb.cpp:35] Opened lmdb examples/cifar10/cifar10_test_lmdb
I0504 15:13:44.914331  6065 net.cpp:86] Creating Layer cifar
I0504 15:13:44.914340  6065 net.cpp:382] cifar -> data
I0504 15:13:44.914348  6065 net.cpp:382] cifar -> label
I0504 15:13:44.914355  6065 data_transformer.cpp:25] Loading mean file from: examples/cifar10/mean.binaryproto
I0504 15:13:44.914517  6065 data_layer.cpp:45] output data size: 1000,3,32,32
I0504 15:13:44.937602  6065 net.cpp:124] Setting up cifar
I0504 15:13:44.937680  6065 net.cpp:131] Top shape: 1000 3 32 32 (3072000)
I0504 15:13:44.937686  6065 net.cpp:131] Top shape: 1000 (1000)
I0504 15:13:44.937690  6065 net.cpp:139] Memory required for data: 12292000
I0504 15:13:44.937695  6065 layer_factory.hpp:77] Creating layer label_cifar_1_split
I0504 15:13:44.937712  6065 net.cpp:86] Creating Layer label_cifar_1_split
I0504 15:13:44.937716  6065 net.cpp:408] label_cifar_1_split <- label
I0504 15:13:44.937722  6065 net.cpp:382] label_cifar_1_split -> label_cifar_1_split_0
I0504 15:13:44.937731  6065 net.cpp:382] label_cifar_1_split -> label_cifar_1_split_1
I0504 15:13:44.937866  6065 net.cpp:124] Setting up label_cifar_1_split
I0504 15:13:44.937875  6065 net.cpp:131] Top shape: 1000 (1000)
I0504 15:13:44.937878  6065 net.cpp:131] Top shape: 1000 (1000)
I0504 15:13:44.937882  6065 net.cpp:139] Memory required for data: 12300000
I0504 15:13:44.937885  6065 layer_factory.hpp:77] Creating layer conv0
I0504 15:13:44.937898  6065 net.cpp:86] Creating Layer conv0
I0504 15:13:44.937904  6065 net.cpp:408] conv0 <- data
I0504 15:13:44.937911  6065 net.cpp:382] conv0 -> conv0
I0504 15:13:44.939671  6065 net.cpp:124] Setting up conv0
I0504 15:13:44.939685  6065 net.cpp:131] Top shape: 1000 24 32 32 (24576000)
I0504 15:13:44.939690  6065 net.cpp:139] Memory required for data: 110604000
I0504 15:13:44.939716  6065 layer_factory.hpp:77] Creating layer Sigmoid0
I0504 15:13:44.939739  6065 net.cpp:86] Creating Layer Sigmoid0
I0504 15:13:44.939743  6065 net.cpp:408] Sigmoid0 <- conv0
I0504 15:13:44.939748  6065 net.cpp:382] Sigmoid0 -> Sigmoid0
I0504 15:13:44.940062  6065 net.cpp:124] Setting up Sigmoid0
I0504 15:13:44.940085  6065 net.cpp:131] Top shape: 1000 24 32 32 (24576000)
I0504 15:13:44.940089  6065 net.cpp:139] Memory required for data: 208908000
I0504 15:13:44.940093  6065 layer_factory.hpp:77] Creating layer pool0
I0504 15:13:44.940101  6065 net.cpp:86] Creating Layer pool0
I0504 15:13:44.940104  6065 net.cpp:408] pool0 <- Sigmoid0
I0504 15:13:44.940111  6065 net.cpp:382] pool0 -> pool0
I0504 15:13:44.941382  6065 net.cpp:124] Setting up pool0
I0504 15:13:44.941411  6065 net.cpp:131] Top shape: 1000 24 16 16 (6144000)
I0504 15:13:44.941416  6065 net.cpp:139] Memory required for data: 233484000
I0504 15:13:44.941418  6065 layer_factory.hpp:77] Creating layer conv1
I0504 15:13:44.941428  6065 net.cpp:86] Creating Layer conv1
I0504 15:13:44.941432  6065 net.cpp:408] conv1 <- pool0
I0504 15:13:44.941438  6065 net.cpp:382] conv1 -> conv1
I0504 15:13:44.946571  6065 net.cpp:124] Setting up conv1
I0504 15:13:44.946588  6065 net.cpp:131] Top shape: 1000 216 16 16 (55296000)
I0504 15:13:44.946590  6065 net.cpp:139] Memory required for data: 454668000
I0504 15:13:44.946600  6065 layer_factory.hpp:77] Creating layer Sigmoid1
I0504 15:13:44.946606  6065 net.cpp:86] Creating Layer Sigmoid1
I0504 15:13:44.946610  6065 net.cpp:408] Sigmoid1 <- conv1
I0504 15:13:44.946615  6065 net.cpp:382] Sigmoid1 -> Sigmoid1
I0504 15:13:44.946804  6065 net.cpp:124] Setting up Sigmoid1
I0504 15:13:44.946830  6065 net.cpp:131] Top shape: 1000 216 16 16 (55296000)
I0504 15:13:44.946842  6065 net.cpp:139] Memory required for data: 675852000
I0504 15:13:44.946846  6065 layer_factory.hpp:77] Creating layer pool1
I0504 15:13:44.946871  6065 net.cpp:86] Creating Layer pool1
I0504 15:13:44.946880  6065 net.cpp:408] pool1 <- Sigmoid1
I0504 15:13:44.946887  6065 net.cpp:382] pool1 -> pool1
I0504 15:13:44.947723  6065 net.cpp:124] Setting up pool1
I0504 15:13:44.947736  6065 net.cpp:131] Top shape: 1000 216 8 8 (13824000)
I0504 15:13:44.947754  6065 net.cpp:139] Memory required for data: 731148000
I0504 15:13:44.947758  6065 layer_factory.hpp:77] Creating layer ip1
I0504 15:13:44.947768  6065 net.cpp:86] Creating Layer ip1
I0504 15:13:44.947772  6065 net.cpp:408] ip1 <- pool1
I0504 15:13:44.947777  6065 net.cpp:382] ip1 -> ip1
I0504 15:13:45.014915  6065 net.cpp:124] Setting up ip1
I0504 15:13:45.014973  6065 net.cpp:131] Top shape: 1000 180 (180000)
I0504 15:13:45.014978  6065 net.cpp:139] Memory required for data: 731868000
I0504 15:13:45.015004  6065 layer_factory.hpp:77] Creating layer relu1
I0504 15:13:45.015015  6065 net.cpp:86] Creating Layer relu1
I0504 15:13:45.015019  6065 net.cpp:408] relu1 <- ip1
I0504 15:13:45.015025  6065 net.cpp:369] relu1 -> ip1 (in-place)
I0504 15:13:45.015269  6065 net.cpp:124] Setting up relu1
I0504 15:13:45.015280  6065 net.cpp:131] Top shape: 1000 180 (180000)
I0504 15:13:45.015282  6065 net.cpp:139] Memory required for data: 732588000
I0504 15:13:45.015286  6065 layer_factory.hpp:77] Creating layer ip2
I0504 15:13:45.015295  6065 net.cpp:86] Creating Layer ip2
I0504 15:13:45.015300  6065 net.cpp:408] ip2 <- ip1
I0504 15:13:45.015321  6065 net.cpp:382] ip2 -> ip2
I0504 15:13:45.015781  6065 net.cpp:124] Setting up ip2
I0504 15:13:45.015805  6065 net.cpp:131] Top shape: 1000 60 (60000)
I0504 15:13:45.015807  6065 net.cpp:139] Memory required for data: 732828000
I0504 15:13:45.015828  6065 layer_factory.hpp:77] Creating layer relu2
I0504 15:13:45.015848  6065 net.cpp:86] Creating Layer relu2
I0504 15:13:45.015851  6065 net.cpp:408] relu2 <- ip2
I0504 15:13:45.015856  6065 net.cpp:369] relu2 -> ip2 (in-place)
I0504 15:13:45.016048  6065 net.cpp:124] Setting up relu2
I0504 15:13:45.016057  6065 net.cpp:131] Top shape: 1000 60 (60000)
I0504 15:13:45.016060  6065 net.cpp:139] Memory required for data: 733068000
I0504 15:13:45.016063  6065 layer_factory.hpp:77] Creating layer ip3
I0504 15:13:45.016070  6065 net.cpp:86] Creating Layer ip3
I0504 15:13:45.016073  6065 net.cpp:408] ip3 <- ip2
I0504 15:13:45.016098  6065 net.cpp:382] ip3 -> ip3
I0504 15:13:45.017352  6065 net.cpp:124] Setting up ip3
I0504 15:13:45.017374  6065 net.cpp:131] Top shape: 1000 10 (10000)
I0504 15:13:45.017395  6065 net.cpp:139] Memory required for data: 733108000
I0504 15:13:45.017402  6065 layer_factory.hpp:77] Creating layer ip3_ip3_0_split
I0504 15:13:45.017410  6065 net.cpp:86] Creating Layer ip3_ip3_0_split
I0504 15:13:45.017413  6065 net.cpp:408] ip3_ip3_0_split <- ip3
I0504 15:13:45.017417  6065 net.cpp:382] ip3_ip3_0_split -> ip3_ip3_0_split_0
I0504 15:13:45.017427  6065 net.cpp:382] ip3_ip3_0_split -> ip3_ip3_0_split_1
I0504 15:13:45.017482  6065 net.cpp:124] Setting up ip3_ip3_0_split
I0504 15:13:45.017488  6065 net.cpp:131] Top shape: 1000 10 (10000)
I0504 15:13:45.017491  6065 net.cpp:131] Top shape: 1000 10 (10000)
I0504 15:13:45.017495  6065 net.cpp:139] Memory required for data: 733188000
I0504 15:13:45.017498  6065 layer_factory.hpp:77] Creating layer accuracy
I0504 15:13:45.017504  6065 net.cpp:86] Creating Layer accuracy
I0504 15:13:45.017508  6065 net.cpp:408] accuracy <- ip3_ip3_0_split_0
I0504 15:13:45.017513  6065 net.cpp:408] accuracy <- label_cifar_1_split_0
I0504 15:13:45.017518  6065 net.cpp:382] accuracy -> accuracy
…
