…
I0504 01:45:44.288345  7960 net.cpp:296] The NetState phase (0) differed from the phase (1) specified by a rule in layer cifar
I0504 01:45:44.288360  7960 net.cpp:296] The NetState phase (0) differed from the phase (1) specified by a rule in layer accuracy
I0504 01:45:44.288442  7960 net.cpp:53] Initializing net from parameters: 
name: "CIFAR"
state {
  phase: TRAIN
  level: 0
  stage: ""
}
layer {
  name: "cifar"
  type: "Data"
  top: "data"
  top: "label"
  include {
    phase: TRAIN
  }
  transform_param {
    mean_file: "examples/cifar10/mean.binaryproto"
  }
  data_param {
    source: "examples/cifar10/cifar10_train_lmdb"
    batch_size: 111
    backend: LMDB
  }
}
layer {
  name: "conv0"
  type: "Convolution"
  bottom: "data"
  top: "conv0"
  param {
    lr_mult: 1
  }
  param {
    lr_mult: 2
  }
  convolution_param {
    num_output: 72
    pad: 2
    kernel_size: 5
    stride: 1
    weight_filler {
      type: "gaussian"
      std: 0.01
    }
    bias_filler {
      type: "constant"
    }
  }
}
layer {
  name: "Sigmoid0"
  type: "Sigmoid"
  bottom: "conv0"
  top: "Sigmoid0"
}
layer {
  name: "pool0"
  type: "Pooling"
  bottom: "Sigmoid0"
  top: "pool0"
  pooling_param {
    pool: AVE
    kernel_size: 3
    stride: 2
  }
}
layer {
  name: "ip1"
  type: "InnerProduct"
  bottom: "pool0"
  top: "ip1"
  param {
    lr_mult: 1
  }
  param {
    lr_mult: 2
  }
  inner_product_param {
    num_output: 180
    weight_filler {
      type: "gaussian"
      std: 0.01
    }
    bias_filler {
      type: "constant"
    }
  }
}
layer {
  name: "relu1"
  type: "ReLU"
  bottom: "ip1"
  top: "ip1"
}
layer {
  name: "ip2"
  type: "InnerProduct"
  bottom: "ip1"
  top: "ip2"
  param {
    lr_mult: 1
  }
  param {
    lr_mult: 2
  }
  inner_product_param {
    num_output: 10
    weight_filler {
      type: "gaussian"
      std: 0.01
    }
    bias_filler {
      type: "constant"
    }
  }
}
layer {
  name: "loss"
  type: "SoftmaxWithLoss"
  bottom: "ip2"
  bottom: "label"
  top: "loss"
}
I0504 01:45:44.288511  7960 layer_factory.hpp:77] Creating layer cifar
I0504 01:45:44.288612  7960 db_lmdb.cpp:35] Opened lmdb examples/cifar10/cifar10_train_lmdb
I0504 01:45:44.288640  7960 net.cpp:86] Creating Layer cifar
I0504 01:45:44.288650  7960 net.cpp:382] cifar -> data
I0504 01:45:44.288674  7960 net.cpp:382] cifar -> label
I0504 01:45:44.288688  7960 data_transformer.cpp:25] Loading mean file from: examples/cifar10/mean.binaryproto
I0504 01:45:44.290833  7960 data_layer.cpp:45] output data size: 111,3,32,32
I0504 01:45:44.298704  7960 net.cpp:124] Setting up cifar
I0504 01:45:44.298723  7960 net.cpp:131] Top shape: 111 3 32 32 (340992)
I0504 01:45:44.298729  7960 net.cpp:131] Top shape: 111 (111)
I0504 01:45:44.298732  7960 net.cpp:139] Memory required for data: 1364412
I0504 01:45:44.298740  7960 layer_factory.hpp:77] Creating layer conv0
I0504 01:45:44.298759  7960 net.cpp:86] Creating Layer conv0
I0504 01:45:44.298765  7960 net.cpp:408] conv0 <- data
I0504 01:45:44.298779  7960 net.cpp:382] conv0 -> conv0
I0504 01:45:44.591753  7960 net.cpp:124] Setting up conv0
I0504 01:45:44.591785  7960 net.cpp:131] Top shape: 111 72 32 32 (8183808)
I0504 01:45:44.591790  7960 net.cpp:139] Memory required for data: 34099644
I0504 01:45:44.591809  7960 layer_factory.hpp:77] Creating layer Sigmoid0
I0504 01:45:44.591823  7960 net.cpp:86] Creating Layer Sigmoid0
I0504 01:45:44.591828  7960 net.cpp:408] Sigmoid0 <- conv0
I0504 01:45:44.591863  7960 net.cpp:382] Sigmoid0 -> Sigmoid0
I0504 01:45:44.592083  7960 net.cpp:124] Setting up Sigmoid0
I0504 01:45:44.592092  7960 net.cpp:131] Top shape: 111 72 32 32 (8183808)
I0504 01:45:44.592097  7960 net.cpp:139] Memory required for data: 66834876
I0504 01:45:44.592100  7960 layer_factory.hpp:77] Creating layer pool0
I0504 01:45:44.592108  7960 net.cpp:86] Creating Layer pool0
I0504 01:45:44.592113  7960 net.cpp:408] pool0 <- Sigmoid0
I0504 01:45:44.592118  7960 net.cpp:382] pool0 -> pool0
I0504 01:45:44.593015  7960 net.cpp:124] Setting up pool0
I0504 01:45:44.593032  7960 net.cpp:131] Top shape: 111 72 16 16 (2045952)
I0504 01:45:44.593036  7960 net.cpp:139] Memory required for data: 75018684
I0504 01:45:44.593041  7960 layer_factory.hpp:77] Creating layer ip1
I0504 01:45:44.593052  7960 net.cpp:86] Creating Layer ip1
I0504 01:45:44.593056  7960 net.cpp:408] ip1 <- pool0
I0504 01:45:44.593065  7960 net.cpp:382] ip1 -> ip1
I0504 01:45:44.706238  7960 net.cpp:124] Setting up ip1
I0504 01:45:44.706256  7960 net.cpp:131] Top shape: 111 180 (19980)
I0504 01:45:44.706261  7960 net.cpp:139] Memory required for data: 75098604
I0504 01:45:44.706272  7960 layer_factory.hpp:77] Creating layer relu1
I0504 01:45:44.706280  7960 net.cpp:86] Creating Layer relu1
I0504 01:45:44.706285  7960 net.cpp:408] relu1 <- ip1
I0504 01:45:44.706291  7960 net.cpp:369] relu1 -> ip1 (in-place)
I0504 01:45:44.706496  7960 net.cpp:124] Setting up relu1
I0504 01:45:44.706506  7960 net.cpp:131] Top shape: 111 180 (19980)
I0504 01:45:44.706511  7960 net.cpp:139] Memory required for data: 75178524
I0504 01:45:44.706514  7960 layer_factory.hpp:77] Creating layer ip2
I0504 01:45:44.706523  7960 net.cpp:86] Creating Layer ip2
I0504 01:45:44.706531  7960 net.cpp:408] ip2 <- ip1
I0504 01:45:44.706537  7960 net.cpp:382] ip2 -> ip2
I0504 01:45:44.706712  7960 net.cpp:124] Setting up ip2
I0504 01:45:44.706720  7960 net.cpp:131] Top shape: 111 10 (1110)
I0504 01:45:44.706724  7960 net.cpp:139] Memory required for data: 75182964
I0504 01:45:44.706733  7960 layer_factory.hpp:77] Creating layer loss
I0504 01:45:44.706740  7960 net.cpp:86] Creating Layer loss
I0504 01:45:44.706744  7960 net.cpp:408] loss <- ip2
I0504 01:45:44.706749  7960 net.cpp:408] loss <- label
I0504 01:45:44.706756  7960 net.cpp:382] loss -> loss
I0504 01:45:44.706779  7960 layer_factory.hpp:77] Creating layer loss
…
I0504 01:45:44.707453  7960 solver.cpp:173] Creating test net (#0) specified by net file: ECE595/cifar/train_test/var_everything_tiny/cifar_train_test_38.prototxt
I0504 01:45:44.707481  7960 net.cpp:296] The NetState phase (1) differed from the phase (0) specified by a rule in layer cifar
I0504 01:45:44.707569  7960 net.cpp:53] Initializing net from parameters: 
name: "CIFAR"
state {
  phase: TEST
}
layer {
  name: "cifar"
  type: "Data"
  top: "data"
  top: "label"
  include {
    phase: TEST
  }
  transform_param {
    mean_file: "examples/cifar10/mean.binaryproto"
  }
  data_param {
    source: "examples/cifar10/cifar10_test_lmdb"
    batch_size: 1000
    backend: LMDB
  }
}
layer {
  name: "conv0"
  type: "Convolution"
  bottom: "data"
  top: "conv0"
  param {
    lr_mult: 1
  }
  param {
    lr_mult: 2
  }
  convolution_param {
    num_output: 72
    pad: 2
    kernel_size: 5
    stride: 1
    weight_filler {
      type: "gaussian"
      std: 0.01
    }
    bias_filler {
      type: "constant"
    }
  }
}
layer {
  name: "Sigmoid0"
  type: "Sigmoid"
  bottom: "conv0"
  top: "Sigmoid0"
}
layer {
  name: "pool0"
  type: "Pooling"
  bottom: "Sigmoid0"
  top: "pool0"
  pooling_param {
    pool: AVE
    kernel_size: 3
    stride: 2
  }
}
layer {
  name: "ip1"
  type: "InnerProduct"
  bottom: "pool0"
  top: "ip1"
  param {
    lr_mult: 1
  }
  param {
    lr_mult: 2
  }
  inner_product_param {
    num_output: 180
    weight_filler {
      type: "gaussian"
      std: 0.01
    }
    bias_filler {
      type: "constant"
    }
  }
}
layer {
  name: "relu1"
  type: "ReLU"
  bottom: "ip1"
  top: "ip1"
}
layer {
  name: "ip2"
  type: "InnerProduct"
  bottom: "ip1"
  top: "ip2"
  param {
    lr_mult: 1
  }
  param {
    lr_mult: 2
  }
  inner_product_param {
    num_output: 10
    weight_filler {
      type: "gaussian"
      std: 0.01
    }
    bias_filler {
      type: "constant"
    }
  }
}
layer {
  name: "accuracy"
  type: "Accuracy"
  bottom: "ip2"
  bottom: "label"
  top: "accuracy"
  include {
    phase: TEST
  }
}
layer {
  name: "loss"
  type: "SoftmaxWithLoss"
  bottom: "ip2"
  bottom: "label"
  top: "loss"
}
I0504 01:45:44.707657  7960 layer_factory.hpp:77] Creating layer cifar
I0504 01:45:44.707711  7960 db_lmdb.cpp:35] Opened lmdb examples/cifar10/cifar10_test_lmdb
I0504 01:45:44.707726  7960 net.cpp:86] Creating Layer cifar
I0504 01:45:44.707731  7960 net.cpp:382] cifar -> data
I0504 01:45:44.707741  7960 net.cpp:382] cifar -> label
I0504 01:45:44.707749  7960 data_transformer.cpp:25] Loading mean file from: examples/cifar10/mean.binaryproto
I0504 01:45:44.707921  7960 data_layer.cpp:45] output data size: 1000,3,32,32
I0504 01:45:44.733503  7960 net.cpp:124] Setting up cifar
I0504 01:45:44.733533  7960 net.cpp:131] Top shape: 1000 3 32 32 (3072000)
I0504 01:45:44.733541  7960 net.cpp:131] Top shape: 1000 (1000)
I0504 01:45:44.733544  7960 net.cpp:139] Memory required for data: 12292000
I0504 01:45:44.733551  7960 layer_factory.hpp:77] Creating layer label_cifar_1_split
I0504 01:45:44.733569  7960 net.cpp:86] Creating Layer label_cifar_1_split
I0504 01:45:44.733574  7960 net.cpp:408] label_cifar_1_split <- label
I0504 01:45:44.733582  7960 net.cpp:382] label_cifar_1_split -> label_cifar_1_split_0
I0504 01:45:44.733592  7960 net.cpp:382] label_cifar_1_split -> label_cifar_1_split_1
I0504 01:45:44.733721  7960 net.cpp:124] Setting up label_cifar_1_split
I0504 01:45:44.733731  7960 net.cpp:131] Top shape: 1000 (1000)
I0504 01:45:44.733734  7960 net.cpp:131] Top shape: 1000 (1000)
I0504 01:45:44.733738  7960 net.cpp:139] Memory required for data: 12300000
I0504 01:45:44.733742  7960 layer_factory.hpp:77] Creating layer conv0
I0504 01:45:44.733757  7960 net.cpp:86] Creating Layer conv0
I0504 01:45:44.733763  7960 net.cpp:408] conv0 <- data
I0504 01:45:44.733770  7960 net.cpp:382] conv0 -> conv0
I0504 01:45:44.736855  7960 net.cpp:124] Setting up conv0
I0504 01:45:44.736872  7960 net.cpp:131] Top shape: 1000 72 32 32 (73728000)
I0504 01:45:44.736877  7960 net.cpp:139] Memory required for data: 307212000
I0504 01:45:44.736889  7960 layer_factory.hpp:77] Creating layer Sigmoid0
I0504 01:45:44.736899  7960 net.cpp:86] Creating Layer Sigmoid0
I0504 01:45:44.736903  7960 net.cpp:408] Sigmoid0 <- conv0
I0504 01:45:44.736910  7960 net.cpp:382] Sigmoid0 -> Sigmoid0
I0504 01:45:44.737140  7960 net.cpp:124] Setting up Sigmoid0
I0504 01:45:44.737151  7960 net.cpp:131] Top shape: 1000 72 32 32 (73728000)
I0504 01:45:44.737157  7960 net.cpp:139] Memory required for data: 602124000
I0504 01:45:44.737162  7960 layer_factory.hpp:77] Creating layer pool0
I0504 01:45:44.737171  7960 net.cpp:86] Creating Layer pool0
I0504 01:45:44.737175  7960 net.cpp:408] pool0 <- Sigmoid0
I0504 01:45:44.737182  7960 net.cpp:382] pool0 -> pool0
I0504 01:45:44.738124  7960 net.cpp:124] Setting up pool0
I0504 01:45:44.738139  7960 net.cpp:131] Top shape: 1000 72 16 16 (18432000)
I0504 01:45:44.738144  7960 net.cpp:139] Memory required for data: 675852000
I0504 01:45:44.738148  7960 layer_factory.hpp:77] Creating layer ip1
I0504 01:45:44.738159  7960 net.cpp:86] Creating Layer ip1
I0504 01:45:44.738164  7960 net.cpp:408] ip1 <- pool0
I0504 01:45:44.738171  7960 net.cpp:382] ip1 -> ip1
I0504 01:45:44.851755  7960 net.cpp:124] Setting up ip1
I0504 01:45:44.851783  7960 net.cpp:131] Top shape: 1000 180 (180000)
I0504 01:45:44.851786  7960 net.cpp:139] Memory required for data: 676572000
I0504 01:45:44.851800  7960 layer_factory.hpp:77] Creating layer relu1
I0504 01:45:44.851811  7960 net.cpp:86] Creating Layer relu1
I0504 01:45:44.851816  7960 net.cpp:408] relu1 <- ip1
I0504 01:45:44.851824  7960 net.cpp:369] relu1 -> ip1 (in-place)
I0504 01:45:44.852075  7960 net.cpp:124] Setting up relu1
I0504 01:45:44.852087  7960 net.cpp:131] Top shape: 1000 180 (180000)
I0504 01:45:44.852090  7960 net.cpp:139] Memory required for data: 677292000
I0504 01:45:44.852093  7960 layer_factory.hpp:77] Creating layer ip2
I0504 01:45:44.852104  7960 net.cpp:86] Creating Layer ip2
I0504 01:45:44.852108  7960 net.cpp:408] ip2 <- ip1
I0504 01:45:44.852114  7960 net.cpp:382] ip2 -> ip2
I0504 01:45:44.852308  7960 net.cpp:124] Setting up ip2
I0504 01:45:44.852319  7960 net.cpp:131] Top shape: 1000 10 (10000)
I0504 01:45:44.852321  7960 net.cpp:139] Memory required for data: 677332000
I0504 01:45:44.852330  7960 layer_factory.hpp:77] Creating layer ip2_ip2_0_split
I0504 01:45:44.852339  7960 net.cpp:86] Creating Layer ip2_ip2_0_split
I0504 01:45:44.852346  7960 net.cpp:408] ip2_ip2_0_split <- ip2
I0504 01:45:44.852351  7960 net.cpp:382] ip2_ip2_0_split -> ip2_ip2_0_split_0
I0504 01:45:44.852358  7960 net.cpp:382] ip2_ip2_0_split -> ip2_ip2_0_split_1
I0504 01:45:44.852398  7960 net.cpp:124] Setting up ip2_ip2_0_split
I0504 01:45:44.852406  7960 net.cpp:131] Top shape: 1000 10 (10000)
I0504 01:45:44.852411  7960 net.cpp:131] Top shape: 1000 10 (10000)
I0504 01:45:44.852413  7960 net.cpp:139] Memory required for data: 677412000
I0504 01:45:44.852417  7960 layer_factory.hpp:77] Creating layer accuracy
I0504 01:45:44.852423  7960 net.cpp:86] Creating Layer accuracy
I0504 01:45:44.852427  7960 net.cpp:408] accuracy <- ip2_ip2_0_split_0
I0504 01:45:44.852432  7960 net.cpp:408] accuracy <- label_cifar_1_split_0
I0504 01:45:44.852438  7960 net.cpp:382] accuracy -> accuracy
…
