…
I0504 10:14:09.799698 24991 net.cpp:296] The NetState phase (0) differed from the phase (1) specified by a rule in layer cifar
I0504 10:14:09.799715 24991 net.cpp:296] The NetState phase (0) differed from the phase (1) specified by a rule in layer accuracy
I0504 10:14:09.799823 24991 net.cpp:53] Initializing net from parameters: 
name: "CIFAR"
state {
  phase: TRAIN
  level: 0
  stage: ""
}
layer {
  name: "cifar"
  type: "Data"
  top: "data"
  top: "label"
  include {
    phase: TRAIN
  }
  transform_param {
    mean_file: "examples/cifar10/mean.binaryproto"
  }
  data_param {
    source: "examples/cifar10/cifar10_train_lmdb"
    batch_size: 111
    backend: LMDB
  }
}
layer {
  name: "conv0"
  type: "Convolution"
  bottom: "data"
  top: "conv0"
  param {
    lr_mult: 1
  }
  param {
    lr_mult: 2
  }
  convolution_param {
    num_output: 24
    pad: 2
    kernel_size: 5
    stride: 1
    weight_filler {
      type: "gaussian"
      std: 0.01
    }
    bias_filler {
      type: "constant"
    }
  }
}
layer {
  name: "Sigmoid0"
  type: "Sigmoid"
  bottom: "conv0"
  top: "Sigmoid0"
}
layer {
  name: "pool0"
  type: "Pooling"
  bottom: "Sigmoid0"
  top: "pool0"
  pooling_param {
    pool: AVE
    kernel_size: 3
    stride: 2
  }
}
layer {
  name: "conv1"
  type: "Convolution"
  bottom: "pool0"
  top: "conv1"
  param {
    lr_mult: 1
  }
  param {
    lr_mult: 2
  }
  convolution_param {
    num_output: 72
    pad: 2
    kernel_size: 3
    stride: 1
    weight_filler {
      type: "gaussian"
      std: 0.01
    }
    bias_filler {
      type: "constant"
    }
  }
}
layer {
  name: "Sigmoid1"
  type: "Sigmoid"
  bottom: "conv1"
  top: "Sigmoid1"
}
layer {
  name: "pool1"
  type: "Pooling"
  bottom: "Sigmoid1"
  top: "pool1"
  pooling_param {
    pool: AVE
    kernel_size: 3
    stride: 2
  }
}
layer {
  name: "ip1"
  type: "InnerProduct"
  bottom: "pool1"
  top: "ip1"
  param {
    lr_mult: 1
  }
  param {
    lr_mult: 2
  }
  inner_product_param {
    num_output: 180
    weight_filler {
      type: "gaussian"
      std: 0.01
    }
    bias_filler {
      type: "constant"
    }
  }
}
layer {
  name: "relu1"
  type: "ReLU"
  bottom: "ip1"
  top: "ip1"
}
layer {
  name: "ip2"
  type: "InnerProduct"
  bottom: "ip1"
  top: "ip2"
  param {
    lr_mult: 1
  }
  param {
    lr_mult: 2
  }
  inner_product_param {
    num_output: 180
    weight_filler {
      type: "gaussian"
      std: 0.01
    }
    bias_filler {
      type: "constant"
    }
  }
}
layer {
  name: "relu2"
  type: "ReLU"
  bottom: "ip2"
  top: "ip2"
}
layer {
  name: "ip3"
  type: "InnerProduct"
  bottom: "ip2"
  top: "ip3"
  param {
    lr_mult: 1
  }
  param {
    lr_mult: 2
  }
  inner_product_param {
    num_output: 10
    weight_filler {
      type: "gaussian"
      std: 0.01
    }
    bias_filler {
      type: "constant"
    }
  }
}
layer {
  name: "loss"
  type: "SoftmaxWithLoss"
  bottom: "ip3"
  bottom: "label"
  top: "loss"
}
I0504 10:14:09.799898 24991 layer_factory.hpp:77] Creating layer cifar
I0504 10:14:09.799998 24991 db_lmdb.cpp:35] Opened lmdb examples/cifar10/cifar10_train_lmdb
I0504 10:14:09.800025 24991 net.cpp:86] Creating Layer cifar
I0504 10:14:09.800035 24991 net.cpp:382] cifar -> data
I0504 10:14:09.800058 24991 net.cpp:382] cifar -> label
I0504 10:14:09.800071 24991 data_transformer.cpp:25] Loading mean file from: examples/cifar10/mean.binaryproto
I0504 10:14:09.802244 24991 data_layer.cpp:45] output data size: 111,3,32,32
I0504 10:14:09.810202 24991 net.cpp:124] Setting up cifar
I0504 10:14:09.810220 24991 net.cpp:131] Top shape: 111 3 32 32 (340992)
I0504 10:14:09.810226 24991 net.cpp:131] Top shape: 111 (111)
I0504 10:14:09.810231 24991 net.cpp:139] Memory required for data: 1364412
I0504 10:14:09.810238 24991 layer_factory.hpp:77] Creating layer conv0
I0504 10:14:09.810255 24991 net.cpp:86] Creating Layer conv0
I0504 10:14:09.810263 24991 net.cpp:408] conv0 <- data
I0504 10:14:09.810274 24991 net.cpp:382] conv0 -> conv0
I0504 10:14:10.106439 24991 net.cpp:124] Setting up conv0
I0504 10:14:10.106470 24991 net.cpp:131] Top shape: 111 24 32 32 (2727936)
I0504 10:14:10.106477 24991 net.cpp:139] Memory required for data: 12276156
I0504 10:14:10.106497 24991 layer_factory.hpp:77] Creating layer Sigmoid0
I0504 10:14:10.106513 24991 net.cpp:86] Creating Layer Sigmoid0
I0504 10:14:10.106520 24991 net.cpp:408] Sigmoid0 <- conv0
I0504 10:14:10.106530 24991 net.cpp:382] Sigmoid0 -> Sigmoid0
I0504 10:14:10.106763 24991 net.cpp:124] Setting up Sigmoid0
I0504 10:14:10.106776 24991 net.cpp:131] Top shape: 111 24 32 32 (2727936)
I0504 10:14:10.106781 24991 net.cpp:139] Memory required for data: 23187900
I0504 10:14:10.106786 24991 layer_factory.hpp:77] Creating layer pool0
I0504 10:14:10.106798 24991 net.cpp:86] Creating Layer pool0
I0504 10:14:10.106804 24991 net.cpp:408] pool0 <- Sigmoid0
I0504 10:14:10.106813 24991 net.cpp:382] pool0 -> pool0
I0504 10:14:10.107699 24991 net.cpp:124] Setting up pool0
I0504 10:14:10.107715 24991 net.cpp:131] Top shape: 111 24 16 16 (681984)
I0504 10:14:10.107719 24991 net.cpp:139] Memory required for data: 25915836
I0504 10:14:10.107724 24991 layer_factory.hpp:77] Creating layer conv1
I0504 10:14:10.107738 24991 net.cpp:86] Creating Layer conv1
I0504 10:14:10.107743 24991 net.cpp:408] conv1 <- pool0
I0504 10:14:10.107749 24991 net.cpp:382] conv1 -> conv1
I0504 10:14:10.111265 24991 net.cpp:124] Setting up conv1
I0504 10:14:10.111282 24991 net.cpp:131] Top shape: 111 72 18 18 (2589408)
I0504 10:14:10.111287 24991 net.cpp:139] Memory required for data: 36273468
I0504 10:14:10.111297 24991 layer_factory.hpp:77] Creating layer Sigmoid1
I0504 10:14:10.111304 24991 net.cpp:86] Creating Layer Sigmoid1
I0504 10:14:10.111309 24991 net.cpp:408] Sigmoid1 <- conv1
I0504 10:14:10.111315 24991 net.cpp:382] Sigmoid1 -> Sigmoid1
I0504 10:14:10.111546 24991 net.cpp:124] Setting up Sigmoid1
I0504 10:14:10.111558 24991 net.cpp:131] Top shape: 111 72 18 18 (2589408)
I0504 10:14:10.111562 24991 net.cpp:139] Memory required for data: 46631100
I0504 10:14:10.111567 24991 layer_factory.hpp:77] Creating layer pool1
I0504 10:14:10.111577 24991 net.cpp:86] Creating Layer pool1
I0504 10:14:10.111584 24991 net.cpp:408] pool1 <- Sigmoid1
I0504 10:14:10.111593 24991 net.cpp:382] pool1 -> pool1
I0504 10:14:10.111800 24991 net.cpp:124] Setting up pool1
I0504 10:14:10.111812 24991 net.cpp:131] Top shape: 111 72 9 9 (647352)
I0504 10:14:10.111816 24991 net.cpp:139] Memory required for data: 49220508
I0504 10:14:10.111821 24991 layer_factory.hpp:77] Creating layer ip1
I0504 10:14:10.111835 24991 net.cpp:86] Creating Layer ip1
I0504 10:14:10.111840 24991 net.cpp:408] ip1 <- pool1
I0504 10:14:10.111850 24991 net.cpp:382] ip1 -> ip1
I0504 10:14:10.144970 24991 net.cpp:124] Setting up ip1
I0504 10:14:10.144995 24991 net.cpp:131] Top shape: 111 180 (19980)
I0504 10:14:10.144999 24991 net.cpp:139] Memory required for data: 49300428
I0504 10:14:10.145007 24991 layer_factory.hpp:77] Creating layer relu1
I0504 10:14:10.145015 24991 net.cpp:86] Creating Layer relu1
I0504 10:14:10.145018 24991 net.cpp:408] relu1 <- ip1
I0504 10:14:10.145023 24991 net.cpp:369] relu1 -> ip1 (in-place)
I0504 10:14:10.145216 24991 net.cpp:124] Setting up relu1
I0504 10:14:10.145227 24991 net.cpp:131] Top shape: 111 180 (19980)
I0504 10:14:10.145231 24991 net.cpp:139] Memory required for data: 49380348
I0504 10:14:10.145234 24991 layer_factory.hpp:77] Creating layer ip2
I0504 10:14:10.145244 24991 net.cpp:86] Creating Layer ip2
I0504 10:14:10.145251 24991 net.cpp:408] ip2 <- ip1
I0504 10:14:10.145278 24991 net.cpp:382] ip2 -> ip2
I0504 10:14:10.147164 24991 net.cpp:124] Setting up ip2
I0504 10:14:10.147177 24991 net.cpp:131] Top shape: 111 180 (19980)
I0504 10:14:10.147181 24991 net.cpp:139] Memory required for data: 49460268
I0504 10:14:10.147187 24991 layer_factory.hpp:77] Creating layer relu2
I0504 10:14:10.147193 24991 net.cpp:86] Creating Layer relu2
I0504 10:14:10.147197 24991 net.cpp:408] relu2 <- ip2
I0504 10:14:10.147202 24991 net.cpp:369] relu2 -> ip2 (in-place)
I0504 10:14:10.147985 24991 net.cpp:124] Setting up relu2
I0504 10:14:10.147999 24991 net.cpp:131] Top shape: 111 180 (19980)
I0504 10:14:10.148002 24991 net.cpp:139] Memory required for data: 49540188
I0504 10:14:10.148005 24991 layer_factory.hpp:77] Creating layer ip3
I0504 10:14:10.148013 24991 net.cpp:86] Creating Layer ip3
I0504 10:14:10.148016 24991 net.cpp:408] ip3 <- ip2
I0504 10:14:10.148022 24991 net.cpp:382] ip3 -> ip3
I0504 10:14:10.148205 24991 net.cpp:124] Setting up ip3
I0504 10:14:10.148213 24991 net.cpp:131] Top shape: 111 10 (1110)
I0504 10:14:10.148216 24991 net.cpp:139] Memory required for data: 49544628
I0504 10:14:10.148227 24991 layer_factory.hpp:77] Creating layer loss
I0504 10:14:10.148237 24991 net.cpp:86] Creating Layer loss
I0504 10:14:10.148242 24991 net.cpp:408] loss <- ip3
I0504 10:14:10.148249 24991 net.cpp:408] loss <- label
I0504 10:14:10.148257 24991 net.cpp:382] loss -> loss
I0504 10:14:10.148280 24991 layer_factory.hpp:77] Creating layer loss
…
I0504 10:14:10.149031 24991 solver.cpp:173] Creating test net (#0) specified by net file: ECE595/cifar/train_test/var_everything_tiny/cifar_train_test_131.prototxt
I0504 10:14:10.149062 24991 net.cpp:296] The NetState phase (1) differed from the phase (0) specified by a rule in layer cifar
I0504 10:14:10.149178 24991 net.cpp:53] Initializing net from parameters: 
name: "CIFAR"
state {
  phase: TEST
}
layer {
  name: "cifar"
  type: "Data"
  top: "data"
  top: "label"
  include {
    phase: TEST
  }
  transform_param {
    mean_file: "examples/cifar10/mean.binaryproto"
  }
  data_param {
    source: "examples/cifar10/cifar10_test_lmdb"
    batch_size: 1000
    backend: LMDB
  }
}
layer {
  name: "conv0"
  type: "Convolution"
  bottom: "data"
  top: "conv0"
  param {
    lr_mult: 1
  }
  param {
    lr_mult: 2
  }
  convolution_param {
    num_output: 24
    pad: 2
    kernel_size: 5
    stride: 1
    weight_filler {
      type: "gaussian"
      std: 0.01
    }
    bias_filler {
      type: "constant"
    }
  }
}
layer {
  name: "Sigmoid0"
  type: "Sigmoid"
  bottom: "conv0"
  top: "Sigmoid0"
}
layer {
  name: "pool0"
  type: "Pooling"
  bottom: "Sigmoid0"
  top: "pool0"
  pooling_param {
    pool: AVE
    kernel_size: 3
    stride: 2
  }
}
layer {
  name: "conv1"
  type: "Convolution"
  bottom: "pool0"
  top: "conv1"
  param {
    lr_mult: 1
  }
  param {
    lr_mult: 2
  }
  convolution_param {
    num_output: 72
    pad: 2
    kernel_size: 3
    stride: 1
    weight_filler {
      type: "gaussian"
      std: 0.01
    }
    bias_filler {
      type: "constant"
    }
  }
}
layer {
  name: "Sigmoid1"
  type: "Sigmoid"
  bottom: "conv1"
  top: "Sigmoid1"
}
layer {
  name: "pool1"
  type: "Pooling"
  bottom: "Sigmoid1"
  top: "pool1"
  pooling_param {
    pool: AVE
    kernel_size: 3
    stride: 2
  }
}
layer {
  name: "ip1"
  type: "InnerProduct"
  bottom: "pool1"
  top: "ip1"
  param {
    lr_mult: 1
  }
  param {
    lr_mult: 2
  }
  inner_product_param {
    num_output: 180
    weight_filler {
      type: "gaussian"
      std: 0.01
    }
    bias_filler {
      type: "constant"
    }
  }
}
layer {
  name: "relu1"
  type: "ReLU"
  bottom: "ip1"
  top: "ip1"
}
layer {
  name: "ip2"
  type: "InnerProduct"
  bottom: "ip1"
  top: "ip2"
  param {
    lr_mult: 1
  }
  param {
    lr_mult: 2
  }
  inner_product_param {
    num_output: 180
    weight_filler {
      type: "gaussian"
      std: 0.01
    }
    bias_filler {
      type: "constant"
    }
  }
}
layer {
  name: "relu2"
  type: "ReLU"
  bottom: "ip2"
  top: "ip2"
}
layer {
  name: "ip3"
  type: "InnerProduct"
  bottom: "ip2"
  top: "ip3"
  param {
    lr_mult: 1
  }
  param {
    lr_mult: 2
  }
  inner_product_param {
    num_output: 10
    weight_filler {
      type: "gaussian"
      std: 0.01
    }
    bias_filler {
      type: "constant"
    }
  }
}
layer {
  name: "accuracy"
  type: "Accuracy"
  bottom: "ip3"
  bottom: "label"
  top: "accuracy"
  include {
    phase: TEST
  }
}
layer {
  name: "loss"
  type: "SoftmaxWithLoss"
  bottom: "ip3"
  bottom: "label"
  top: "loss"
}
I0504 10:14:10.149296 24991 layer_factory.hpp:77] Creating layer cifar
I0504 10:14:10.149356 24991 db_lmdb.cpp:35] Opened lmdb examples/cifar10/cifar10_test_lmdb
I0504 10:14:10.149374 24991 net.cpp:86] Creating Layer cifar
I0504 10:14:10.149381 24991 net.cpp:382] cifar -> data
I0504 10:14:10.149394 24991 net.cpp:382] cifar -> label
I0504 10:14:10.149404 24991 data_transformer.cpp:25] Loading mean file from: examples/cifar10/mean.binaryproto
I0504 10:14:10.149611 24991 data_layer.cpp:45] output data size: 1000,3,32,32
I0504 10:14:10.172399 24991 net.cpp:124] Setting up cifar
I0504 10:14:10.172426 24991 net.cpp:131] Top shape: 1000 3 32 32 (3072000)
I0504 10:14:10.172432 24991 net.cpp:131] Top shape: 1000 (1000)
I0504 10:14:10.172435 24991 net.cpp:139] Memory required for data: 12292000
I0504 10:14:10.172441 24991 layer_factory.hpp:77] Creating layer label_cifar_1_split
I0504 10:14:10.172469 24991 net.cpp:86] Creating Layer label_cifar_1_split
I0504 10:14:10.172475 24991 net.cpp:408] label_cifar_1_split <- label
I0504 10:14:10.172483 24991 net.cpp:382] label_cifar_1_split -> label_cifar_1_split_0
I0504 10:14:10.172494 24991 net.cpp:382] label_cifar_1_split -> label_cifar_1_split_1
I0504 10:14:10.172627 24991 net.cpp:124] Setting up label_cifar_1_split
I0504 10:14:10.172636 24991 net.cpp:131] Top shape: 1000 (1000)
I0504 10:14:10.172641 24991 net.cpp:131] Top shape: 1000 (1000)
I0504 10:14:10.172643 24991 net.cpp:139] Memory required for data: 12300000
I0504 10:14:10.172648 24991 layer_factory.hpp:77] Creating layer conv0
I0504 10:14:10.172664 24991 net.cpp:86] Creating Layer conv0
I0504 10:14:10.172670 24991 net.cpp:408] conv0 <- data
I0504 10:14:10.172679 24991 net.cpp:382] conv0 -> conv0
I0504 10:14:10.174281 24991 net.cpp:124] Setting up conv0
I0504 10:14:10.174295 24991 net.cpp:131] Top shape: 1000 24 32 32 (24576000)
I0504 10:14:10.174299 24991 net.cpp:139] Memory required for data: 110604000
I0504 10:14:10.174309 24991 layer_factory.hpp:77] Creating layer Sigmoid0
I0504 10:14:10.174315 24991 net.cpp:86] Creating Layer Sigmoid0
I0504 10:14:10.174319 24991 net.cpp:408] Sigmoid0 <- conv0
I0504 10:14:10.174322 24991 net.cpp:382] Sigmoid0 -> Sigmoid0
I0504 10:14:10.174515 24991 net.cpp:124] Setting up Sigmoid0
I0504 10:14:10.174537 24991 net.cpp:131] Top shape: 1000 24 32 32 (24576000)
I0504 10:14:10.174540 24991 net.cpp:139] Memory required for data: 208908000
I0504 10:14:10.174546 24991 layer_factory.hpp:77] Creating layer pool0
I0504 10:14:10.174556 24991 net.cpp:86] Creating Layer pool0
I0504 10:14:10.174561 24991 net.cpp:408] pool0 <- Sigmoid0
I0504 10:14:10.174569 24991 net.cpp:382] pool0 -> pool0
I0504 10:14:10.174827 24991 net.cpp:124] Setting up pool0
I0504 10:14:10.174837 24991 net.cpp:131] Top shape: 1000 24 16 16 (6144000)
I0504 10:14:10.174840 24991 net.cpp:139] Memory required for data: 233484000
I0504 10:14:10.174845 24991 layer_factory.hpp:77] Creating layer conv1
I0504 10:14:10.174871 24991 net.cpp:86] Creating Layer conv1
I0504 10:14:10.174877 24991 net.cpp:408] conv1 <- pool0
I0504 10:14:10.174886 24991 net.cpp:382] conv1 -> conv1
I0504 10:14:10.177551 24991 net.cpp:124] Setting up conv1
I0504 10:14:10.177567 24991 net.cpp:131] Top shape: 1000 72 18 18 (23328000)
I0504 10:14:10.177570 24991 net.cpp:139] Memory required for data: 326796000
I0504 10:14:10.177579 24991 layer_factory.hpp:77] Creating layer Sigmoid1
I0504 10:14:10.177598 24991 net.cpp:86] Creating Layer Sigmoid1
I0504 10:14:10.177601 24991 net.cpp:408] Sigmoid1 <- conv1
I0504 10:14:10.177606 24991 net.cpp:382] Sigmoid1 -> Sigmoid1
I0504 10:14:10.177796 24991 net.cpp:124] Setting up Sigmoid1
I0504 10:14:10.177806 24991 net.cpp:131] Top shape: 1000 72 18 18 (23328000)
I0504 10:14:10.177809 24991 net.cpp:139] Memory required for data: 420108000
I0504 10:14:10.177814 24991 layer_factory.hpp:77] Creating layer pool1
I0504 10:14:10.177821 24991 net.cpp:86] Creating Layer pool1
I0504 10:14:10.177826 24991 net.cpp:408] pool1 <- Sigmoid1
I0504 10:14:10.177834 24991 net.cpp:382] pool1 -> pool1
I0504 10:14:10.178582 24991 net.cpp:124] Setting up pool1
I0504 10:14:10.178596 24991 net.cpp:131] Top shape: 1000 72 9 9 (5832000)
I0504 10:14:10.178598 24991 net.cpp:139] Memory required for data: 443436000
I0504 10:14:10.178601 24991 layer_factory.hpp:77] Creating layer ip1
I0504 10:14:10.178611 24991 net.cpp:86] Creating Layer ip1
I0504 10:14:10.178614 24991 net.cpp:408] ip1 <- pool1
I0504 10:14:10.178619 24991 net.cpp:382] ip1 -> ip1
I0504 10:14:10.207144 24991 net.cpp:124] Setting up ip1
I0504 10:14:10.207161 24991 net.cpp:131] Top shape: 1000 180 (180000)
I0504 10:14:10.207165 24991 net.cpp:139] Memory required for data: 444156000
I0504 10:14:10.207173 24991 layer_factory.hpp:77] Creating layer relu1
I0504 10:14:10.207180 24991 net.cpp:86] Creating Layer relu1
I0504 10:14:10.207183 24991 net.cpp:408] relu1 <- ip1
I0504 10:14:10.207188 24991 net.cpp:369] relu1 -> ip1 (in-place)
I0504 10:14:10.207383 24991 net.cpp:124] Setting up relu1
I0504 10:14:10.207393 24991 net.cpp:131] Top shape: 1000 180 (180000)
I0504 10:14:10.207412 24991 net.cpp:139] Memory required for data: 444876000
I0504 10:14:10.207417 24991 layer_factory.hpp:77] Creating layer ip2
I0504 10:14:10.207427 24991 net.cpp:86] Creating Layer ip2
I0504 10:14:10.207432 24991 net.cpp:408] ip2 <- ip1
I0504 10:14:10.207439 24991 net.cpp:382] ip2 -> ip2
I0504 10:14:10.208389 24991 net.cpp:124] Setting up ip2
I0504 10:14:10.208397 24991 net.cpp:131] Top shape: 1000 180 (180000)
I0504 10:14:10.208400 24991 net.cpp:139] Memory required for data: 445596000
I0504 10:14:10.208405 24991 layer_factory.hpp:77] Creating layer relu2
I0504 10:14:10.208410 24991 net.cpp:86] Creating Layer relu2
I0504 10:14:10.208412 24991 net.cpp:408] relu2 <- ip2
I0504 10:14:10.208416 24991 net.cpp:369] relu2 -> ip2 (in-place)
I0504 10:14:10.208603 24991 net.cpp:124] Setting up relu2
I0504 10:14:10.208611 24991 net.cpp:131] Top shape: 1000 180 (180000)
I0504 10:14:10.208616 24991 net.cpp:139] Memory required for data: 446316000
I0504 10:14:10.208618 24991 layer_factory.hpp:77] Creating layer ip3
I0504 10:14:10.208627 24991 net.cpp:86] Creating Layer ip3
I0504 10:14:10.208632 24991 net.cpp:408] ip3 <- ip2
I0504 10:14:10.208640 24991 net.cpp:382] ip3 -> ip3
I0504 10:14:10.208825 24991 net.cpp:124] Setting up ip3
I0504 10:14:10.208844 24991 net.cpp:131] Top shape: 1000 10 (10000)
I0504 10:14:10.208848 24991 net.cpp:139] Memory required for data: 446356000
I0504 10:14:10.208858 24991 layer_factory.hpp:77] Creating layer ip3_ip3_0_split
I0504 10:14:10.208866 24991 net.cpp:86] Creating Layer ip3_ip3_0_split
I0504 10:14:10.208871 24991 net.cpp:408] ip3_ip3_0_split <- ip3
I0504 10:14:10.208878 24991 net.cpp:382] ip3_ip3_0_split -> ip3_ip3_0_split_0
I0504 10:14:10.208885 24991 net.cpp:382] ip3_ip3_0_split -> ip3_ip3_0_split_1
I0504 10:14:10.208930 24991 net.cpp:124] Setting up ip3_ip3_0_split
I0504 10:14:10.208937 24991 net.cpp:131] Top shape: 1000 10 (10000)
I0504 10:14:10.208941 24991 net.cpp:131] Top shape: 1000 10 (10000)
I0504 10:14:10.208945 24991 net.cpp:139] Memory required for data: 446436000
I0504 10:14:10.208948 24991 layer_factory.hpp:77] Creating layer accuracy
I0504 10:14:10.208956 24991 net.cpp:86] Creating Layer accuracy
I0504 10:14:10.208961 24991 net.cpp:408] accuracy <- ip3_ip3_0_split_0
I0504 10:14:10.208967 24991 net.cpp:408] accuracy <- label_cifar_1_split_0
I0504 10:14:10.208974 24991 net.cpp:382] accuracy -> accuracy
…
