…
I0504 00:14:45.440539  4981 net.cpp:296] The NetState phase (0) differed from the phase (1) specified by a rule in layer cifar
I0504 00:14:45.440556  4981 net.cpp:296] The NetState phase (0) differed from the phase (1) specified by a rule in layer accuracy
I0504 00:14:45.440635  4981 net.cpp:53] Initializing net from parameters: 
name: "CIFAR"
state {
  phase: TRAIN
  level: 0
  stage: ""
}
layer {
  name: "cifar"
  type: "Data"
  top: "data"
  top: "label"
  include {
    phase: TRAIN
  }
  transform_param {
    mean_file: "examples/cifar10/mean.binaryproto"
  }
  data_param {
    source: "examples/cifar10/cifar10_train_lmdb"
    batch_size: 111
    backend: LMDB
  }
}
layer {
  name: "conv0"
  type: "Convolution"
  bottom: "data"
  top: "conv0"
  param {
    lr_mult: 1
  }
  param {
    lr_mult: 2
  }
  convolution_param {
    num_output: 24
    pad: 2
    kernel_size: 5
    stride: 1
    weight_filler {
      type: "gaussian"
      std: 0.01
    }
    bias_filler {
      type: "constant"
    }
  }
}
layer {
  name: "Sigmoid0"
  type: "Sigmoid"
  bottom: "conv0"
  top: "Sigmoid0"
}
layer {
  name: "pool0"
  type: "Pooling"
  bottom: "Sigmoid0"
  top: "pool0"
  pooling_param {
    pool: AVE
    kernel_size: 3
    stride: 2
  }
}
layer {
  name: "ip1"
  type: "InnerProduct"
  bottom: "pool0"
  top: "ip1"
  param {
    lr_mult: 1
  }
  param {
    lr_mult: 2
  }
  inner_product_param {
    num_output: 60
    weight_filler {
      type: "gaussian"
      std: 0.01
    }
    bias_filler {
      type: "constant"
    }
  }
}
layer {
  name: "relu1"
  type: "ReLU"
  bottom: "ip1"
  top: "ip1"
}
layer {
  name: "ip2"
  type: "InnerProduct"
  bottom: "ip1"
  top: "ip2"
  param {
    lr_mult: 1
  }
  param {
    lr_mult: 2
  }
  inner_product_param {
    num_output: 10
    weight_filler {
      type: "gaussian"
      std: 0.01
    }
    bias_filler {
      type: "constant"
    }
  }
}
layer {
  name: "loss"
  type: "SoftmaxWithLoss"
  bottom: "ip2"
  bottom: "label"
  top: "loss"
}
I0504 00:14:45.440706  4981 layer_factory.hpp:77] Creating layer cifar
I0504 00:14:45.440804  4981 db_lmdb.cpp:35] Opened lmdb examples/cifar10/cifar10_train_lmdb
I0504 00:14:45.440846  4981 net.cpp:86] Creating Layer cifar
I0504 00:14:45.440856  4981 net.cpp:382] cifar -> data
I0504 00:14:45.440879  4981 net.cpp:382] cifar -> label
I0504 00:14:45.440891  4981 data_transformer.cpp:25] Loading mean file from: examples/cifar10/mean.binaryproto
I0504 00:14:45.442994  4981 data_layer.cpp:45] output data size: 111,3,32,32
I0504 00:14:45.450888  4981 net.cpp:124] Setting up cifar
I0504 00:14:45.450907  4981 net.cpp:131] Top shape: 111 3 32 32 (340992)
I0504 00:14:45.450914  4981 net.cpp:131] Top shape: 111 (111)
I0504 00:14:45.450919  4981 net.cpp:139] Memory required for data: 1364412
I0504 00:14:45.450927  4981 layer_factory.hpp:77] Creating layer conv0
I0504 00:14:45.450944  4981 net.cpp:86] Creating Layer conv0
I0504 00:14:45.450949  4981 net.cpp:408] conv0 <- data
I0504 00:14:45.450963  4981 net.cpp:382] conv0 -> conv0
I0504 00:14:45.740283  4981 net.cpp:124] Setting up conv0
I0504 00:14:45.740309  4981 net.cpp:131] Top shape: 111 24 32 32 (2727936)
I0504 00:14:45.740314  4981 net.cpp:139] Memory required for data: 12276156
I0504 00:14:45.740330  4981 layer_factory.hpp:77] Creating layer Sigmoid0
I0504 00:14:45.740342  4981 net.cpp:86] Creating Layer Sigmoid0
I0504 00:14:45.740346  4981 net.cpp:408] Sigmoid0 <- conv0
I0504 00:14:45.740352  4981 net.cpp:382] Sigmoid0 -> Sigmoid0
I0504 00:14:45.740563  4981 net.cpp:124] Setting up Sigmoid0
I0504 00:14:45.740573  4981 net.cpp:131] Top shape: 111 24 32 32 (2727936)
I0504 00:14:45.740577  4981 net.cpp:139] Memory required for data: 23187900
I0504 00:14:45.740581  4981 layer_factory.hpp:77] Creating layer pool0
I0504 00:14:45.740588  4981 net.cpp:86] Creating Layer pool0
I0504 00:14:45.740592  4981 net.cpp:408] pool0 <- Sigmoid0
I0504 00:14:45.740597  4981 net.cpp:382] pool0 -> pool0
I0504 00:14:45.741372  4981 net.cpp:124] Setting up pool0
I0504 00:14:45.741385  4981 net.cpp:131] Top shape: 111 24 16 16 (681984)
I0504 00:14:45.741389  4981 net.cpp:139] Memory required for data: 25915836
I0504 00:14:45.741392  4981 layer_factory.hpp:77] Creating layer ip1
I0504 00:14:45.741402  4981 net.cpp:86] Creating Layer ip1
I0504 00:14:45.741406  4981 net.cpp:408] ip1 <- pool0
I0504 00:14:45.741411  4981 net.cpp:382] ip1 -> ip1
I0504 00:14:45.752254  4981 net.cpp:124] Setting up ip1
I0504 00:14:45.752266  4981 net.cpp:131] Top shape: 111 60 (6660)
I0504 00:14:45.752269  4981 net.cpp:139] Memory required for data: 25942476
I0504 00:14:45.752277  4981 layer_factory.hpp:77] Creating layer relu1
I0504 00:14:45.752285  4981 net.cpp:86] Creating Layer relu1
I0504 00:14:45.752287  4981 net.cpp:408] relu1 <- ip1
I0504 00:14:45.752293  4981 net.cpp:369] relu1 -> ip1 (in-place)
I0504 00:14:45.752463  4981 net.cpp:124] Setting up relu1
I0504 00:14:45.752472  4981 net.cpp:131] Top shape: 111 60 (6660)
I0504 00:14:45.752475  4981 net.cpp:139] Memory required for data: 25969116
I0504 00:14:45.752478  4981 layer_factory.hpp:77] Creating layer ip2
I0504 00:14:45.752486  4981 net.cpp:86] Creating Layer ip2
I0504 00:14:45.752490  4981 net.cpp:408] ip2 <- ip1
I0504 00:14:45.752495  4981 net.cpp:382] ip2 -> ip2
I0504 00:14:45.752604  4981 net.cpp:124] Setting up ip2
I0504 00:14:45.752611  4981 net.cpp:131] Top shape: 111 10 (1110)
I0504 00:14:45.752614  4981 net.cpp:139] Memory required for data: 25973556
I0504 00:14:45.752622  4981 layer_factory.hpp:77] Creating layer loss
I0504 00:14:45.752627  4981 net.cpp:86] Creating Layer loss
I0504 00:14:45.752630  4981 net.cpp:408] loss <- ip2
I0504 00:14:45.752635  4981 net.cpp:408] loss <- label
I0504 00:14:45.752640  4981 net.cpp:382] loss -> loss
I0504 00:14:45.752656  4981 layer_factory.hpp:77] Creating layer loss
…
I0504 00:14:45.753226  4981 solver.cpp:173] Creating test net (#0) specified by net file: ECE595/cifar/train_test/var_everything_tiny/cifar_train_test_13.prototxt
I0504 00:14:45.753255  4981 net.cpp:296] The NetState phase (1) differed from the phase (0) specified by a rule in layer cifar
I0504 00:14:45.753329  4981 net.cpp:53] Initializing net from parameters: 
name: "CIFAR"
state {
  phase: TEST
}
layer {
  name: "cifar"
  type: "Data"
  top: "data"
  top: "label"
  include {
    phase: TEST
  }
  transform_param {
    mean_file: "examples/cifar10/mean.binaryproto"
  }
  data_param {
    source: "examples/cifar10/cifar10_test_lmdb"
    batch_size: 1000
    backend: LMDB
  }
}
layer {
  name: "conv0"
  type: "Convolution"
  bottom: "data"
  top: "conv0"
  param {
    lr_mult: 1
  }
  param {
    lr_mult: 2
  }
  convolution_param {
    num_output: 24
    pad: 2
    kernel_size: 5
    stride: 1
    weight_filler {
      type: "gaussian"
      std: 0.01
    }
    bias_filler {
      type: "constant"
    }
  }
}
layer {
  name: "Sigmoid0"
  type: "Sigmoid"
  bottom: "conv0"
  top: "Sigmoid0"
}
layer {
  name: "pool0"
  type: "Pooling"
  bottom: "Sigmoid0"
  top: "pool0"
  pooling_param {
    pool: AVE
    kernel_size: 3
    stride: 2
  }
}
layer {
  name: "ip1"
  type: "InnerProduct"
  bottom: "pool0"
  top: "ip1"
  param {
    lr_mult: 1
  }
  param {
    lr_mult: 2
  }
  inner_product_param {
    num_output: 60
    weight_filler {
      type: "gaussian"
      std: 0.01
    }
    bias_filler {
      type: "constant"
    }
  }
}
layer {
  name: "relu1"
  type: "ReLU"
  bottom: "ip1"
  top: "ip1"
}
layer {
  name: "ip2"
  type: "InnerProduct"
  bottom: "ip1"
  top: "ip2"
  param {
    lr_mult: 1
  }
  param {
    lr_mult: 2
  }
  inner_product_param {
    num_output: 10
    weight_filler {
      type: "gaussian"
      std: 0.01
    }
    bias_filler {
      type: "constant"
    }
  }
}
layer {
  name: "accuracy"
  type: "Accuracy"
  bottom: "ip2"
  bottom: "label"
  top: "accuracy"
  include {
    phase: TEST
  }
}
layer {
  name: "loss"
  type: "SoftmaxWithLoss"
  bottom: "ip2"
  bottom: "label"
  top: "loss"
}
I0504 00:14:45.753409  4981 layer_factory.hpp:77] Creating layer cifar
I0504 00:14:45.753454  4981 db_lmdb.cpp:35] Opened lmdb examples/cifar10/cifar10_test_lmdb
I0504 00:14:45.753466  4981 net.cpp:86] Creating Layer cifar
I0504 00:14:45.753473  4981 net.cpp:382] cifar -> data
I0504 00:14:45.753480  4981 net.cpp:382] cifar -> label
I0504 00:14:45.753486  4981 data_transformer.cpp:25] Loading mean file from: examples/cifar10/mean.binaryproto
I0504 00:14:45.753633  4981 data_layer.cpp:45] output data size: 1000,3,32,32
I0504 00:14:45.775701  4981 net.cpp:124] Setting up cifar
I0504 00:14:45.775738  4981 net.cpp:131] Top shape: 1000 3 32 32 (3072000)
I0504 00:14:45.775743  4981 net.cpp:131] Top shape: 1000 (1000)
I0504 00:14:45.775746  4981 net.cpp:139] Memory required for data: 12292000
I0504 00:14:45.775753  4981 layer_factory.hpp:77] Creating layer label_cifar_1_split
I0504 00:14:45.775768  4981 net.cpp:86] Creating Layer label_cifar_1_split
I0504 00:14:45.775773  4981 net.cpp:408] label_cifar_1_split <- label
I0504 00:14:45.775777  4981 net.cpp:382] label_cifar_1_split -> label_cifar_1_split_0
I0504 00:14:45.775786  4981 net.cpp:382] label_cifar_1_split -> label_cifar_1_split_1
I0504 00:14:45.775867  4981 net.cpp:124] Setting up label_cifar_1_split
I0504 00:14:45.775874  4981 net.cpp:131] Top shape: 1000 (1000)
I0504 00:14:45.775878  4981 net.cpp:131] Top shape: 1000 (1000)
I0504 00:14:45.775880  4981 net.cpp:139] Memory required for data: 12300000
I0504 00:14:45.775883  4981 layer_factory.hpp:77] Creating layer conv0
I0504 00:14:45.775897  4981 net.cpp:86] Creating Layer conv0
I0504 00:14:45.775899  4981 net.cpp:408] conv0 <- data
I0504 00:14:45.775905  4981 net.cpp:382] conv0 -> conv0
I0504 00:14:45.777568  4981 net.cpp:124] Setting up conv0
I0504 00:14:45.777581  4981 net.cpp:131] Top shape: 1000 24 32 32 (24576000)
I0504 00:14:45.777585  4981 net.cpp:139] Memory required for data: 110604000
I0504 00:14:45.777595  4981 layer_factory.hpp:77] Creating layer Sigmoid0
I0504 00:14:45.777603  4981 net.cpp:86] Creating Layer Sigmoid0
I0504 00:14:45.777606  4981 net.cpp:408] Sigmoid0 <- conv0
I0504 00:14:45.777611  4981 net.cpp:382] Sigmoid0 -> Sigmoid0
I0504 00:14:45.777786  4981 net.cpp:124] Setting up Sigmoid0
I0504 00:14:45.777794  4981 net.cpp:131] Top shape: 1000 24 32 32 (24576000)
I0504 00:14:45.777797  4981 net.cpp:139] Memory required for data: 208908000
I0504 00:14:45.777801  4981 layer_factory.hpp:77] Creating layer pool0
I0504 00:14:45.777807  4981 net.cpp:86] Creating Layer pool0
I0504 00:14:45.777811  4981 net.cpp:408] pool0 <- Sigmoid0
I0504 00:14:45.777815  4981 net.cpp:382] pool0 -> pool0
I0504 00:14:45.778712  4981 net.cpp:124] Setting up pool0
I0504 00:14:45.778723  4981 net.cpp:131] Top shape: 1000 24 16 16 (6144000)
I0504 00:14:45.778725  4981 net.cpp:139] Memory required for data: 233484000
I0504 00:14:45.778729  4981 layer_factory.hpp:77] Creating layer ip1
I0504 00:14:45.778738  4981 net.cpp:86] Creating Layer ip1
I0504 00:14:45.778740  4981 net.cpp:408] ip1 <- pool0
I0504 00:14:45.778745  4981 net.cpp:382] ip1 -> ip1
I0504 00:14:45.789865  4981 net.cpp:124] Setting up ip1
I0504 00:14:45.789876  4981 net.cpp:131] Top shape: 1000 60 (60000)
I0504 00:14:45.789880  4981 net.cpp:139] Memory required for data: 233724000
I0504 00:14:45.789888  4981 layer_factory.hpp:77] Creating layer relu1
I0504 00:14:45.789894  4981 net.cpp:86] Creating Layer relu1
I0504 00:14:45.789898  4981 net.cpp:408] relu1 <- ip1
I0504 00:14:45.789919  4981 net.cpp:369] relu1 -> ip1 (in-place)
I0504 00:14:45.790102  4981 net.cpp:124] Setting up relu1
I0504 00:14:45.790110  4981 net.cpp:131] Top shape: 1000 60 (60000)
I0504 00:14:45.790113  4981 net.cpp:139] Memory required for data: 233964000
I0504 00:14:45.790117  4981 layer_factory.hpp:77] Creating layer ip2
I0504 00:14:45.790124  4981 net.cpp:86] Creating Layer ip2
I0504 00:14:45.790127  4981 net.cpp:408] ip2 <- ip1
I0504 00:14:45.790132  4981 net.cpp:382] ip2 -> ip2
I0504 00:14:45.790278  4981 net.cpp:124] Setting up ip2
I0504 00:14:45.790285  4981 net.cpp:131] Top shape: 1000 10 (10000)
I0504 00:14:45.790288  4981 net.cpp:139] Memory required for data: 234004000
I0504 00:14:45.790295  4981 layer_factory.hpp:77] Creating layer ip2_ip2_0_split
I0504 00:14:45.790302  4981 net.cpp:86] Creating Layer ip2_ip2_0_split
I0504 00:14:45.790305  4981 net.cpp:408] ip2_ip2_0_split <- ip2
I0504 00:14:45.790309  4981 net.cpp:382] ip2_ip2_0_split -> ip2_ip2_0_split_0
I0504 00:14:45.790315  4981 net.cpp:382] ip2_ip2_0_split -> ip2_ip2_0_split_1
I0504 00:14:45.790344  4981 net.cpp:124] Setting up ip2_ip2_0_split
I0504 00:14:45.790349  4981 net.cpp:131] Top shape: 1000 10 (10000)
I0504 00:14:45.790360  4981 net.cpp:131] Top shape: 1000 10 (10000)
I0504 00:14:45.790362  4981 net.cpp:139] Memory required for data: 234084000
I0504 00:14:45.790365  4981 layer_factory.hpp:77] Creating layer accuracy
I0504 00:14:45.790370  4981 net.cpp:86] Creating Layer accuracy
I0504 00:14:45.790374  4981 net.cpp:408] accuracy <- ip2_ip2_0_split_0
I0504 00:14:45.790377  4981 net.cpp:408] accuracy <- label_cifar_1_split_0
I0504 00:14:45.790382  4981 net.cpp:382] accuracy -> accuracy
…
