…
I0504 13:49:17.760870  1408 net.cpp:296] The NetState phase (0) differed from the phase (1) specified by a rule in layer cifar
I0504 13:49:17.760890  1408 net.cpp:296] The NetState phase (0) differed from the phase (1) specified by a rule in layer accuracy
I0504 13:49:17.760996  1408 net.cpp:53] Initializing net from parameters: 
name: "CIFAR"
state {
  phase: TRAIN
  level: 0
  stage: ""
}
layer {
  name: "cifar"
  type: "Data"
  top: "data"
  top: "label"
  include {
    phase: TRAIN
  }
  transform_param {
    mean_file: "examples/cifar10/mean.binaryproto"
  }
  data_param {
    source: "examples/cifar10/cifar10_train_lmdb"
    batch_size: 111
    backend: LMDB
  }
}
layer {
  name: "conv0"
  type: "Convolution"
  bottom: "data"
  top: "conv0"
  param {
    lr_mult: 1
  }
  param {
    lr_mult: 2
  }
  convolution_param {
    num_output: 24
    pad: 2
    kernel_size: 5
    stride: 1
    weight_filler {
      type: "gaussian"
      std: 0.01
    }
    bias_filler {
      type: "constant"
    }
  }
}
layer {
  name: "Sigmoid0"
  type: "Sigmoid"
  bottom: "conv0"
  top: "Sigmoid0"
}
layer {
  name: "pool0"
  type: "Pooling"
  bottom: "Sigmoid0"
  top: "pool0"
  pooling_param {
    pool: AVE
    kernel_size: 3
    stride: 2
  }
}
layer {
  name: "conv1"
  type: "Convolution"
  bottom: "pool0"
  top: "conv1"
  param {
    lr_mult: 1
  }
  param {
    lr_mult: 2
  }
  convolution_param {
    num_output: 216
    pad: 2
    kernel_size: 3
    stride: 1
    weight_filler {
      type: "gaussian"
      std: 0.01
    }
    bias_filler {
      type: "constant"
    }
  }
}
layer {
  name: "Sigmoid1"
  type: "Sigmoid"
  bottom: "conv1"
  top: "Sigmoid1"
}
layer {
  name: "pool1"
  type: "Pooling"
  bottom: "Sigmoid1"
  top: "pool1"
  pooling_param {
    pool: AVE
    kernel_size: 3
    stride: 2
  }
}
layer {
  name: "ip1"
  type: "InnerProduct"
  bottom: "pool1"
  top: "ip1"
  param {
    lr_mult: 1
  }
  param {
    lr_mult: 2
  }
  inner_product_param {
    num_output: 180
    weight_filler {
      type: "gaussian"
      std: 0.01
    }
    bias_filler {
      type: "constant"
    }
  }
}
layer {
  name: "relu1"
  type: "ReLU"
  bottom: "ip1"
  top: "ip1"
}
layer {
  name: "ip2"
  type: "InnerProduct"
  bottom: "ip1"
  top: "ip2"
  param {
    lr_mult: 1
  }
  param {
    lr_mult: 2
  }
  inner_product_param {
    num_output: 180
    weight_filler {
      type: "gaussian"
      std: 0.01
    }
    bias_filler {
      type: "constant"
    }
  }
}
layer {
  name: "relu2"
  type: "ReLU"
  bottom: "ip2"
  top: "ip2"
}
layer {
  name: "ip3"
  type: "InnerProduct"
  bottom: "ip2"
  top: "ip3"
  param {
    lr_mult: 1
  }
  param {
    lr_mult: 2
  }
  inner_product_param {
    num_output: 10
    weight_filler {
      type: "gaussian"
      std: 0.01
    }
    bias_filler {
      type: "constant"
    }
  }
}
layer {
  name: "loss"
  type: "SoftmaxWithLoss"
  bottom: "ip3"
  bottom: "label"
  top: "loss"
}
I0504 13:49:17.761073  1408 layer_factory.hpp:77] Creating layer cifar
I0504 13:49:17.761176  1408 db_lmdb.cpp:35] Opened lmdb examples/cifar10/cifar10_train_lmdb
I0504 13:49:17.761205  1408 net.cpp:86] Creating Layer cifar
I0504 13:49:17.761212  1408 net.cpp:382] cifar -> data
I0504 13:49:17.761235  1408 net.cpp:382] cifar -> label
I0504 13:49:17.761247  1408 data_transformer.cpp:25] Loading mean file from: examples/cifar10/mean.binaryproto
I0504 13:49:17.763391  1408 data_layer.cpp:45] output data size: 111,3,32,32
I0504 13:49:17.771240  1408 net.cpp:124] Setting up cifar
I0504 13:49:17.771260  1408 net.cpp:131] Top shape: 111 3 32 32 (340992)
I0504 13:49:17.771265  1408 net.cpp:131] Top shape: 111 (111)
I0504 13:49:17.771270  1408 net.cpp:139] Memory required for data: 1364412
I0504 13:49:17.771277  1408 layer_factory.hpp:77] Creating layer conv0
I0504 13:49:17.771296  1408 net.cpp:86] Creating Layer conv0
I0504 13:49:17.771301  1408 net.cpp:408] conv0 <- data
I0504 13:49:17.771312  1408 net.cpp:382] conv0 -> conv0
I0504 13:49:18.051342  1408 net.cpp:124] Setting up conv0
I0504 13:49:18.051384  1408 net.cpp:131] Top shape: 111 24 32 32 (2727936)
I0504 13:49:18.051403  1408 net.cpp:139] Memory required for data: 12276156
I0504 13:49:18.051419  1408 layer_factory.hpp:77] Creating layer Sigmoid0
I0504 13:49:18.051431  1408 net.cpp:86] Creating Layer Sigmoid0
I0504 13:49:18.051435  1408 net.cpp:408] Sigmoid0 <- conv0
I0504 13:49:18.051440  1408 net.cpp:382] Sigmoid0 -> Sigmoid0
I0504 13:49:18.051635  1408 net.cpp:124] Setting up Sigmoid0
I0504 13:49:18.051645  1408 net.cpp:131] Top shape: 111 24 32 32 (2727936)
I0504 13:49:18.051647  1408 net.cpp:139] Memory required for data: 23187900
I0504 13:49:18.051651  1408 layer_factory.hpp:77] Creating layer pool0
I0504 13:49:18.051658  1408 net.cpp:86] Creating Layer pool0
I0504 13:49:18.051661  1408 net.cpp:408] pool0 <- Sigmoid0
I0504 13:49:18.051666  1408 net.cpp:382] pool0 -> pool0
I0504 13:49:18.052387  1408 net.cpp:124] Setting up pool0
I0504 13:49:18.052400  1408 net.cpp:131] Top shape: 111 24 16 16 (681984)
I0504 13:49:18.052404  1408 net.cpp:139] Memory required for data: 25915836
I0504 13:49:18.052408  1408 layer_factory.hpp:77] Creating layer conv1
I0504 13:49:18.052419  1408 net.cpp:86] Creating Layer conv1
I0504 13:49:18.052423  1408 net.cpp:408] conv1 <- pool0
I0504 13:49:18.052431  1408 net.cpp:382] conv1 -> conv1
I0504 13:49:18.056105  1408 net.cpp:124] Setting up conv1
I0504 13:49:18.056133  1408 net.cpp:131] Top shape: 111 216 18 18 (7768224)
I0504 13:49:18.056138  1408 net.cpp:139] Memory required for data: 56988732
I0504 13:49:18.056146  1408 layer_factory.hpp:77] Creating layer Sigmoid1
I0504 13:49:18.056154  1408 net.cpp:86] Creating Layer Sigmoid1
I0504 13:49:18.056156  1408 net.cpp:408] Sigmoid1 <- conv1
I0504 13:49:18.056161  1408 net.cpp:382] Sigmoid1 -> Sigmoid1
I0504 13:49:18.056336  1408 net.cpp:124] Setting up Sigmoid1
I0504 13:49:18.056345  1408 net.cpp:131] Top shape: 111 216 18 18 (7768224)
I0504 13:49:18.056349  1408 net.cpp:139] Memory required for data: 88061628
I0504 13:49:18.056352  1408 layer_factory.hpp:77] Creating layer pool1
I0504 13:49:18.056357  1408 net.cpp:86] Creating Layer pool1
I0504 13:49:18.056360  1408 net.cpp:408] pool1 <- Sigmoid1
I0504 13:49:18.056365  1408 net.cpp:382] pool1 -> pool1
I0504 13:49:18.056512  1408 net.cpp:124] Setting up pool1
I0504 13:49:18.056520  1408 net.cpp:131] Top shape: 111 216 9 9 (1942056)
I0504 13:49:18.056524  1408 net.cpp:139] Memory required for data: 95829852
I0504 13:49:18.056526  1408 layer_factory.hpp:77] Creating layer ip1
I0504 13:49:18.056535  1408 net.cpp:86] Creating Layer ip1
I0504 13:49:18.056537  1408 net.cpp:408] ip1 <- pool1
I0504 13:49:18.056541  1408 net.cpp:382] ip1 -> ip1
I0504 13:49:18.139029  1408 net.cpp:124] Setting up ip1
I0504 13:49:18.139060  1408 net.cpp:131] Top shape: 111 180 (19980)
I0504 13:49:18.139062  1408 net.cpp:139] Memory required for data: 95909772
I0504 13:49:18.139071  1408 layer_factory.hpp:77] Creating layer relu1
I0504 13:49:18.139078  1408 net.cpp:86] Creating Layer relu1
I0504 13:49:18.139081  1408 net.cpp:408] relu1 <- ip1
I0504 13:49:18.139086  1408 net.cpp:369] relu1 -> ip1 (in-place)
I0504 13:49:18.139248  1408 net.cpp:124] Setting up relu1
I0504 13:49:18.139257  1408 net.cpp:131] Top shape: 111 180 (19980)
I0504 13:49:18.139259  1408 net.cpp:139] Memory required for data: 95989692
I0504 13:49:18.139263  1408 layer_factory.hpp:77] Creating layer ip2
I0504 13:49:18.139269  1408 net.cpp:86] Creating Layer ip2
I0504 13:49:18.139272  1408 net.cpp:408] ip2 <- ip1
I0504 13:49:18.139292  1408 net.cpp:382] ip2 -> ip2
I0504 13:49:18.140189  1408 net.cpp:124] Setting up ip2
I0504 13:49:18.140197  1408 net.cpp:131] Top shape: 111 180 (19980)
I0504 13:49:18.140214  1408 net.cpp:139] Memory required for data: 96069612
I0504 13:49:18.140220  1408 layer_factory.hpp:77] Creating layer relu2
I0504 13:49:18.140225  1408 net.cpp:86] Creating Layer relu2
I0504 13:49:18.140228  1408 net.cpp:408] relu2 <- ip2
I0504 13:49:18.140233  1408 net.cpp:369] relu2 -> ip2 (in-place)
I0504 13:49:18.140970  1408 net.cpp:124] Setting up relu2
I0504 13:49:18.140997  1408 net.cpp:131] Top shape: 111 180 (19980)
I0504 13:49:18.141001  1408 net.cpp:139] Memory required for data: 96149532
I0504 13:49:18.141005  1408 layer_factory.hpp:77] Creating layer ip3
I0504 13:49:18.141012  1408 net.cpp:86] Creating Layer ip3
I0504 13:49:18.141016  1408 net.cpp:408] ip3 <- ip2
I0504 13:49:18.141021  1408 net.cpp:382] ip3 -> ip3
I0504 13:49:18.141182  1408 net.cpp:124] Setting up ip3
I0504 13:49:18.141189  1408 net.cpp:131] Top shape: 111 10 (1110)
I0504 13:49:18.141192  1408 net.cpp:139] Memory required for data: 96153972
I0504 13:49:18.141201  1408 layer_factory.hpp:77] Creating layer loss
I0504 13:49:18.141211  1408 net.cpp:86] Creating Layer loss
I0504 13:49:18.141214  1408 net.cpp:408] loss <- ip3
I0504 13:49:18.141217  1408 net.cpp:408] loss <- label
I0504 13:49:18.141223  1408 net.cpp:382] loss -> loss
I0504 13:49:18.141234  1408 layer_factory.hpp:77] Creating layer loss
…
I0504 13:49:18.141842  1408 solver.cpp:173] Creating test net (#0) specified by net file: ECE595/cifar/train_test/var_everything_tiny/cifar_train_test_167.prototxt
I0504 13:49:18.141868  1408 net.cpp:296] The NetState phase (1) differed from the phase (0) specified by a rule in layer cifar
I0504 13:49:18.141958  1408 net.cpp:53] Initializing net from parameters: 
name: "CIFAR"
state {
  phase: TEST
}
layer {
  name: "cifar"
  type: "Data"
  top: "data"
  top: "label"
  include {
    phase: TEST
  }
  transform_param {
    mean_file: "examples/cifar10/mean.binaryproto"
  }
  data_param {
    source: "examples/cifar10/cifar10_test_lmdb"
    batch_size: 1000
    backend: LMDB
  }
}
layer {
  name: "conv0"
  type: "Convolution"
  bottom: "data"
  top: "conv0"
  param {
    lr_mult: 1
  }
  param {
    lr_mult: 2
  }
  convolution_param {
    num_output: 24
    pad: 2
    kernel_size: 5
    stride: 1
    weight_filler {
      type: "gaussian"
      std: 0.01
    }
    bias_filler {
      type: "constant"
    }
  }
}
layer {
  name: "Sigmoid0"
  type: "Sigmoid"
  bottom: "conv0"
  top: "Sigmoid0"
}
layer {
  name: "pool0"
  type: "Pooling"
  bottom: "Sigmoid0"
  top: "pool0"
  pooling_param {
    pool: AVE
    kernel_size: 3
    stride: 2
  }
}
layer {
  name: "conv1"
  type: "Convolution"
  bottom: "pool0"
  top: "conv1"
  param {
    lr_mult: 1
  }
  param {
    lr_mult: 2
  }
  convolution_param {
    num_output: 216
    pad: 2
    kernel_size: 3
    stride: 1
    weight_filler {
      type: "gaussian"
      std: 0.01
    }
    bias_filler {
      type: "constant"
    }
  }
}
layer {
  name: "Sigmoid1"
  type: "Sigmoid"
  bottom: "conv1"
  top: "Sigmoid1"
}
layer {
  name: "pool1"
  type: "Pooling"
  bottom: "Sigmoid1"
  top: "pool1"
  pooling_param {
    pool: AVE
    kernel_size: 3
    stride: 2
  }
}
layer {
  name: "ip1"
  type: "InnerProduct"
  bottom: "pool1"
  top: "ip1"
  param {
    lr_mult: 1
  }
  param {
    lr_mult: 2
  }
  inner_product_param {
    num_output: 180
    weight_filler {
      type: "gaussian"
      std: 0.01
    }
    bias_filler {
      type: "constant"
    }
  }
}
layer {
  name: "relu1"
  type: "ReLU"
  bottom: "ip1"
  top: "ip1"
}
layer {
  name: "ip2"
  type: "InnerProduct"
  bottom: "ip1"
  top: "ip2"
  param {
    lr_mult: 1
  }
  param {
    lr_mult: 2
  }
  inner_product_param {
    num_output: 180
    weight_filler {
      type: "gaussian"
      std: 0.01
    }
    bias_filler {
      type: "constant"
    }
  }
}
layer {
  name: "relu2"
  type: "ReLU"
  bottom: "ip2"
  top: "ip2"
}
layer {
  name: "ip3"
  type: "InnerProduct"
  bottom: "ip2"
  top: "ip3"
  param {
    lr_mult: 1
  }
  param {
    lr_mult: 2
  }
  inner_product_param {
    num_output: 10
    weight_filler {
      type: "gaussian"
      std: 0.01
    }
    bias_filler {
      type: "constant"
    }
  }
}
layer {
  name: "accuracy"
  type: "Accuracy"
  bottom: "ip3"
  bottom: "label"
  top: "accuracy"
  include {
    phase: TEST
  }
}
layer {
  name: "loss"
  type: "SoftmaxWithLoss"
  bottom: "ip3"
  bottom: "label"
  top: "loss"
}
I0504 13:49:18.142035  1408 layer_factory.hpp:77] Creating layer cifar
I0504 13:49:18.142079  1408 db_lmdb.cpp:35] Opened lmdb examples/cifar10/cifar10_test_lmdb
I0504 13:49:18.142091  1408 net.cpp:86] Creating Layer cifar
I0504 13:49:18.142094  1408 net.cpp:382] cifar -> data
I0504 13:49:18.142102  1408 net.cpp:382] cifar -> label
I0504 13:49:18.142107  1408 data_transformer.cpp:25] Loading mean file from: examples/cifar10/mean.binaryproto
I0504 13:49:18.142241  1408 data_layer.cpp:45] output data size: 1000,3,32,32
I0504 13:49:18.164427  1408 net.cpp:124] Setting up cifar
I0504 13:49:18.164453  1408 net.cpp:131] Top shape: 1000 3 32 32 (3072000)
I0504 13:49:18.164459  1408 net.cpp:131] Top shape: 1000 (1000)
I0504 13:49:18.164463  1408 net.cpp:139] Memory required for data: 12292000
I0504 13:49:18.164469  1408 layer_factory.hpp:77] Creating layer label_cifar_1_split
I0504 13:49:18.164480  1408 net.cpp:86] Creating Layer label_cifar_1_split
I0504 13:49:18.164484  1408 net.cpp:408] label_cifar_1_split <- label
I0504 13:49:18.164489  1408 net.cpp:382] label_cifar_1_split -> label_cifar_1_split_0
I0504 13:49:18.164499  1408 net.cpp:382] label_cifar_1_split -> label_cifar_1_split_1
I0504 13:49:18.164548  1408 net.cpp:124] Setting up label_cifar_1_split
I0504 13:49:18.164553  1408 net.cpp:131] Top shape: 1000 (1000)
I0504 13:49:18.164556  1408 net.cpp:131] Top shape: 1000 (1000)
I0504 13:49:18.164559  1408 net.cpp:139] Memory required for data: 12300000
I0504 13:49:18.164562  1408 layer_factory.hpp:77] Creating layer conv0
I0504 13:49:18.164573  1408 net.cpp:86] Creating Layer conv0
I0504 13:49:18.164577  1408 net.cpp:408] conv0 <- data
I0504 13:49:18.164582  1408 net.cpp:382] conv0 -> conv0
I0504 13:49:18.166450  1408 net.cpp:124] Setting up conv0
I0504 13:49:18.166465  1408 net.cpp:131] Top shape: 1000 24 32 32 (24576000)
I0504 13:49:18.166467  1408 net.cpp:139] Memory required for data: 110604000
I0504 13:49:18.166477  1408 layer_factory.hpp:77] Creating layer Sigmoid0
I0504 13:49:18.166483  1408 net.cpp:86] Creating Layer Sigmoid0
I0504 13:49:18.166486  1408 net.cpp:408] Sigmoid0 <- conv0
I0504 13:49:18.166491  1408 net.cpp:382] Sigmoid0 -> Sigmoid0
I0504 13:49:18.166649  1408 net.cpp:124] Setting up Sigmoid0
I0504 13:49:18.166671  1408 net.cpp:131] Top shape: 1000 24 32 32 (24576000)
I0504 13:49:18.166673  1408 net.cpp:139] Memory required for data: 208908000
I0504 13:49:18.166676  1408 layer_factory.hpp:77] Creating layer pool0
I0504 13:49:18.166684  1408 net.cpp:86] Creating Layer pool0
I0504 13:49:18.166687  1408 net.cpp:408] pool0 <- Sigmoid0
I0504 13:49:18.166692  1408 net.cpp:382] pool0 -> pool0
I0504 13:49:18.166846  1408 net.cpp:124] Setting up pool0
I0504 13:49:18.166852  1408 net.cpp:131] Top shape: 1000 24 16 16 (6144000)
I0504 13:49:18.166856  1408 net.cpp:139] Memory required for data: 233484000
I0504 13:49:18.166858  1408 layer_factory.hpp:77] Creating layer conv1
I0504 13:49:18.166867  1408 net.cpp:86] Creating Layer conv1
I0504 13:49:18.166870  1408 net.cpp:408] conv1 <- pool0
I0504 13:49:18.166875  1408 net.cpp:382] conv1 -> conv1
I0504 13:49:18.169486  1408 net.cpp:124] Setting up conv1
I0504 13:49:18.169515  1408 net.cpp:131] Top shape: 1000 216 18 18 (69984000)
I0504 13:49:18.169519  1408 net.cpp:139] Memory required for data: 513420000
I0504 13:49:18.169528  1408 layer_factory.hpp:77] Creating layer Sigmoid1
I0504 13:49:18.169534  1408 net.cpp:86] Creating Layer Sigmoid1
I0504 13:49:18.169538  1408 net.cpp:408] Sigmoid1 <- conv1
I0504 13:49:18.169543  1408 net.cpp:382] Sigmoid1 -> Sigmoid1
I0504 13:49:18.169695  1408 net.cpp:124] Setting up Sigmoid1
I0504 13:49:18.169704  1408 net.cpp:131] Top shape: 1000 216 18 18 (69984000)
I0504 13:49:18.169708  1408 net.cpp:139] Memory required for data: 793356000
I0504 13:49:18.169710  1408 layer_factory.hpp:77] Creating layer pool1
I0504 13:49:18.169715  1408 net.cpp:86] Creating Layer pool1
I0504 13:49:18.169718  1408 net.cpp:408] pool1 <- Sigmoid1
I0504 13:49:18.169723  1408 net.cpp:382] pool1 -> pool1
I0504 13:49:18.170439  1408 net.cpp:124] Setting up pool1
I0504 13:49:18.170450  1408 net.cpp:131] Top shape: 1000 216 9 9 (17496000)
I0504 13:49:18.170454  1408 net.cpp:139] Memory required for data: 863340000
I0504 13:49:18.170457  1408 layer_factory.hpp:77] Creating layer ip1
I0504 13:49:18.170466  1408 net.cpp:86] Creating Layer ip1
I0504 13:49:18.170470  1408 net.cpp:408] ip1 <- pool1
I0504 13:49:18.170475  1408 net.cpp:382] ip1 -> ip1
I0504 13:49:18.258625  1408 net.cpp:124] Setting up ip1
I0504 13:49:18.258648  1408 net.cpp:131] Top shape: 1000 180 (180000)
I0504 13:49:18.258652  1408 net.cpp:139] Memory required for data: 864060000
I0504 13:49:18.258664  1408 layer_factory.hpp:77] Creating layer relu1
I0504 13:49:18.258673  1408 net.cpp:86] Creating Layer relu1
I0504 13:49:18.258677  1408 net.cpp:408] relu1 <- ip1
I0504 13:49:18.258682  1408 net.cpp:369] relu1 -> ip1 (in-place)
I0504 13:49:18.258895  1408 net.cpp:124] Setting up relu1
I0504 13:49:18.258903  1408 net.cpp:131] Top shape: 1000 180 (180000)
I0504 13:49:18.258906  1408 net.cpp:139] Memory required for data: 864780000
I0504 13:49:18.258909  1408 layer_factory.hpp:77] Creating layer ip2
I0504 13:49:18.258918  1408 net.cpp:86] Creating Layer ip2
I0504 13:49:18.258920  1408 net.cpp:408] ip2 <- ip1
I0504 13:49:18.258925  1408 net.cpp:382] ip2 -> ip2
I0504 13:49:18.259876  1408 net.cpp:124] Setting up ip2
I0504 13:49:18.259883  1408 net.cpp:131] Top shape: 1000 180 (180000)
I0504 13:49:18.259886  1408 net.cpp:139] Memory required for data: 865500000
I0504 13:49:18.259891  1408 layer_factory.hpp:77] Creating layer relu2
I0504 13:49:18.259896  1408 net.cpp:86] Creating Layer relu2
I0504 13:49:18.259901  1408 net.cpp:408] relu2 <- ip2
I0504 13:49:18.259904  1408 net.cpp:369] relu2 -> ip2 (in-place)
I0504 13:49:18.260053  1408 net.cpp:124] Setting up relu2
I0504 13:49:18.260061  1408 net.cpp:131] Top shape: 1000 180 (180000)
I0504 13:49:18.260064  1408 net.cpp:139] Memory required for data: 866220000
I0504 13:49:18.260067  1408 layer_factory.hpp:77] Creating layer ip3
I0504 13:49:18.260073  1408 net.cpp:86] Creating Layer ip3
I0504 13:49:18.260076  1408 net.cpp:408] ip3 <- ip2
I0504 13:49:18.260080  1408 net.cpp:382] ip3 -> ip3
I0504 13:49:18.260241  1408 net.cpp:124] Setting up ip3
I0504 13:49:18.260260  1408 net.cpp:131] Top shape: 1000 10 (10000)
I0504 13:49:18.260264  1408 net.cpp:139] Memory required for data: 866260000
I0504 13:49:18.260272  1408 layer_factory.hpp:77] Creating layer ip3_ip3_0_split
I0504 13:49:18.260278  1408 net.cpp:86] Creating Layer ip3_ip3_0_split
I0504 13:49:18.260282  1408 net.cpp:408] ip3_ip3_0_split <- ip3
I0504 13:49:18.260285  1408 net.cpp:382] ip3_ip3_0_split -> ip3_ip3_0_split_0
I0504 13:49:18.260298  1408 net.cpp:382] ip3_ip3_0_split -> ip3_ip3_0_split_1
I0504 13:49:18.260329  1408 net.cpp:124] Setting up ip3_ip3_0_split
I0504 13:49:18.260339  1408 net.cpp:131] Top shape: 1000 10 (10000)
I0504 13:49:18.260342  1408 net.cpp:131] Top shape: 1000 10 (10000)
I0504 13:49:18.260344  1408 net.cpp:139] Memory required for data: 866340000
I0504 13:49:18.260368  1408 layer_factory.hpp:77] Creating layer accuracy
I0504 13:49:18.260390  1408 net.cpp:86] Creating Layer accuracy
I0504 13:49:18.260395  1408 net.cpp:408] accuracy <- ip3_ip3_0_split_0
I0504 13:49:18.260398  1408 net.cpp:408] accuracy <- label_cifar_1_split_0
I0504 13:49:18.260403  1408 net.cpp:382] accuracy -> accuracy
…
