…
I0504 11:52:14.537560 28031 net.cpp:296] The NetState phase (0) differed from the phase (1) specified by a rule in layer cifar
I0504 11:52:14.537575 28031 net.cpp:296] The NetState phase (0) differed from the phase (1) specified by a rule in layer accuracy
I0504 11:52:14.537677 28031 net.cpp:53] Initializing net from parameters: 
name: "CIFAR"
state {
  phase: TRAIN
  level: 0
  stage: ""
}
layer {
  name: "cifar"
  type: "Data"
  top: "data"
  top: "label"
  include {
    phase: TRAIN
  }
  transform_param {
    mean_file: "examples/cifar10/mean.binaryproto"
  }
  data_param {
    source: "examples/cifar10/cifar10_train_lmdb"
    batch_size: 111
    backend: LMDB
  }
}
layer {
  name: "conv0"
  type: "Convolution"
  bottom: "data"
  top: "conv0"
  param {
    lr_mult: 1
  }
  param {
    lr_mult: 2
  }
  convolution_param {
    num_output: 24
    pad: 2
    kernel_size: 3
    stride: 1
    weight_filler {
      type: "gaussian"
      std: 0.01
    }
    bias_filler {
      type: "constant"
    }
  }
}
layer {
  name: "Sigmoid0"
  type: "Sigmoid"
  bottom: "conv0"
  top: "Sigmoid0"
}
layer {
  name: "pool0"
  type: "Pooling"
  bottom: "Sigmoid0"
  top: "pool0"
  pooling_param {
    pool: AVE
    kernel_size: 3
    stride: 2
  }
}
layer {
  name: "conv1"
  type: "Convolution"
  bottom: "pool0"
  top: "conv1"
  param {
    lr_mult: 1
  }
  param {
    lr_mult: 2
  }
  convolution_param {
    num_output: 216
    pad: 2
    kernel_size: 3
    stride: 1
    weight_filler {
      type: "gaussian"
      std: 0.01
    }
    bias_filler {
      type: "constant"
    }
  }
}
layer {
  name: "Sigmoid1"
  type: "Sigmoid"
  bottom: "conv1"
  top: "Sigmoid1"
}
layer {
  name: "pool1"
  type: "Pooling"
  bottom: "Sigmoid1"
  top: "pool1"
  pooling_param {
    pool: AVE
    kernel_size: 3
    stride: 2
  }
}
layer {
  name: "ip1"
  type: "InnerProduct"
  bottom: "pool1"
  top: "ip1"
  param {
    lr_mult: 1
  }
  param {
    lr_mult: 2
  }
  inner_product_param {
    num_output: 60
    weight_filler {
      type: "gaussian"
      std: 0.01
    }
    bias_filler {
      type: "constant"
    }
  }
}
layer {
  name: "relu1"
  type: "ReLU"
  bottom: "ip1"
  top: "ip1"
}
layer {
  name: "ip2"
  type: "InnerProduct"
  bottom: "ip1"
  top: "ip2"
  param {
    lr_mult: 1
  }
  param {
    lr_mult: 2
  }
  inner_product_param {
    num_output: 10
    weight_filler {
      type: "gaussian"
      std: 0.01
    }
    bias_filler {
      type: "constant"
    }
  }
}
layer {
  name: "relu2"
  type: "ReLU"
  bottom: "ip2"
  top: "ip2"
}
layer {
  name: "ip3"
  type: "InnerProduct"
  bottom: "ip2"
  top: "ip3"
  param {
    lr_mult: 1
  }
  param {
    lr_mult: 2
  }
  inner_product_param {
    num_output: 10
    weight_filler {
      type: "gaussian"
      std: 0.01
    }
    bias_filler {
      type: "constant"
    }
  }
}
layer {
  name: "loss"
  type: "SoftmaxWithLoss"
  bottom: "ip3"
  bottom: "label"
  top: "loss"
}
I0504 11:52:14.537742 28031 layer_factory.hpp:77] Creating layer cifar
I0504 11:52:14.537840 28031 db_lmdb.cpp:35] Opened lmdb examples/cifar10/cifar10_train_lmdb
I0504 11:52:14.537863 28031 net.cpp:86] Creating Layer cifar
I0504 11:52:14.537870 28031 net.cpp:382] cifar -> data
I0504 11:52:14.537889 28031 net.cpp:382] cifar -> label
I0504 11:52:14.537899 28031 data_transformer.cpp:25] Loading mean file from: examples/cifar10/mean.binaryproto
I0504 11:52:14.539682 28031 data_layer.cpp:45] output data size: 111,3,32,32
I0504 11:52:14.546141 28031 net.cpp:124] Setting up cifar
I0504 11:52:14.546188 28031 net.cpp:131] Top shape: 111 3 32 32 (340992)
I0504 11:52:14.546193 28031 net.cpp:131] Top shape: 111 (111)
I0504 11:52:14.546196 28031 net.cpp:139] Memory required for data: 1364412
I0504 11:52:14.546202 28031 layer_factory.hpp:77] Creating layer conv0
I0504 11:52:14.546247 28031 net.cpp:86] Creating Layer conv0
I0504 11:52:14.546253 28031 net.cpp:408] conv0 <- data
I0504 11:52:14.546264 28031 net.cpp:382] conv0 -> conv0
I0504 11:52:14.767814 28031 net.cpp:124] Setting up conv0
I0504 11:52:14.767856 28031 net.cpp:131] Top shape: 111 24 34 34 (3079584)
I0504 11:52:14.767860 28031 net.cpp:139] Memory required for data: 13682748
I0504 11:52:14.767875 28031 layer_factory.hpp:77] Creating layer Sigmoid0
I0504 11:52:14.767887 28031 net.cpp:86] Creating Layer Sigmoid0
I0504 11:52:14.767891 28031 net.cpp:408] Sigmoid0 <- conv0
I0504 11:52:14.767911 28031 net.cpp:382] Sigmoid0 -> Sigmoid0
I0504 11:52:14.768080 28031 net.cpp:124] Setting up Sigmoid0
I0504 11:52:14.768105 28031 net.cpp:131] Top shape: 111 24 34 34 (3079584)
I0504 11:52:14.768107 28031 net.cpp:139] Memory required for data: 26001084
I0504 11:52:14.768110 28031 layer_factory.hpp:77] Creating layer pool0
I0504 11:52:14.768116 28031 net.cpp:86] Creating Layer pool0
I0504 11:52:14.768120 28031 net.cpp:408] pool0 <- Sigmoid0
I0504 11:52:14.768124 28031 net.cpp:382] pool0 -> pool0
I0504 11:52:14.768815 28031 net.cpp:124] Setting up pool0
I0504 11:52:14.768827 28031 net.cpp:131] Top shape: 111 24 17 17 (769896)
I0504 11:52:14.768846 28031 net.cpp:139] Memory required for data: 29080668
I0504 11:52:14.768848 28031 layer_factory.hpp:77] Creating layer conv1
I0504 11:52:14.768860 28031 net.cpp:86] Creating Layer conv1
I0504 11:52:14.768880 28031 net.cpp:408] conv1 <- pool0
I0504 11:52:14.768885 28031 net.cpp:382] conv1 -> conv1
I0504 11:52:14.772745 28031 net.cpp:124] Setting up conv1
I0504 11:52:14.772773 28031 net.cpp:131] Top shape: 111 216 19 19 (8655336)
I0504 11:52:14.772776 28031 net.cpp:139] Memory required for data: 63702012
I0504 11:52:14.772785 28031 layer_factory.hpp:77] Creating layer Sigmoid1
I0504 11:52:14.772791 28031 net.cpp:86] Creating Layer Sigmoid1
I0504 11:52:14.772794 28031 net.cpp:408] Sigmoid1 <- conv1
I0504 11:52:14.772799 28031 net.cpp:382] Sigmoid1 -> Sigmoid1
I0504 11:52:14.772984 28031 net.cpp:124] Setting up Sigmoid1
I0504 11:52:14.772994 28031 net.cpp:131] Top shape: 111 216 19 19 (8655336)
I0504 11:52:14.772997 28031 net.cpp:139] Memory required for data: 98323356
I0504 11:52:14.773000 28031 layer_factory.hpp:77] Creating layer pool1
I0504 11:52:14.773006 28031 net.cpp:86] Creating Layer pool1
I0504 11:52:14.773010 28031 net.cpp:408] pool1 <- Sigmoid1
I0504 11:52:14.773015 28031 net.cpp:382] pool1 -> pool1
I0504 11:52:14.773166 28031 net.cpp:124] Setting up pool1
I0504 11:52:14.773175 28031 net.cpp:131] Top shape: 111 216 9 9 (1942056)
I0504 11:52:14.773177 28031 net.cpp:139] Memory required for data: 106091580
I0504 11:52:14.773180 28031 layer_factory.hpp:77] Creating layer ip1
I0504 11:52:14.773187 28031 net.cpp:86] Creating Layer ip1
I0504 11:52:14.773191 28031 net.cpp:408] ip1 <- pool1
I0504 11:52:14.773195 28031 net.cpp:382] ip1 -> ip1
I0504 11:52:14.800295 28031 net.cpp:124] Setting up ip1
I0504 11:52:14.800307 28031 net.cpp:131] Top shape: 111 60 (6660)
I0504 11:52:14.800310 28031 net.cpp:139] Memory required for data: 106118220
I0504 11:52:14.800318 28031 layer_factory.hpp:77] Creating layer relu1
I0504 11:52:14.800324 28031 net.cpp:86] Creating Layer relu1
I0504 11:52:14.800328 28031 net.cpp:408] relu1 <- ip1
I0504 11:52:14.800331 28031 net.cpp:369] relu1 -> ip1 (in-place)
I0504 11:52:14.800495 28031 net.cpp:124] Setting up relu1
I0504 11:52:14.800503 28031 net.cpp:131] Top shape: 111 60 (6660)
I0504 11:52:14.800508 28031 net.cpp:139] Memory required for data: 106144860
I0504 11:52:14.800509 28031 layer_factory.hpp:77] Creating layer ip2
I0504 11:52:14.800516 28031 net.cpp:86] Creating Layer ip2
I0504 11:52:14.800519 28031 net.cpp:408] ip2 <- ip1
I0504 11:52:14.800539 28031 net.cpp:382] ip2 -> ip2
I0504 11:52:14.800667 28031 net.cpp:124] Setting up ip2
I0504 11:52:14.800673 28031 net.cpp:131] Top shape: 111 10 (1110)
I0504 11:52:14.800676 28031 net.cpp:139] Memory required for data: 106149300
I0504 11:52:14.800681 28031 layer_factory.hpp:77] Creating layer relu2
I0504 11:52:14.800686 28031 net.cpp:86] Creating Layer relu2
I0504 11:52:14.800690 28031 net.cpp:408] relu2 <- ip2
I0504 11:52:14.800694 28031 net.cpp:369] relu2 -> ip2 (in-place)
I0504 11:52:14.801435 28031 net.cpp:124] Setting up relu2
I0504 11:52:14.801446 28031 net.cpp:131] Top shape: 111 10 (1110)
I0504 11:52:14.801450 28031 net.cpp:139] Memory required for data: 106153740
I0504 11:52:14.801452 28031 layer_factory.hpp:77] Creating layer ip3
I0504 11:52:14.801460 28031 net.cpp:86] Creating Layer ip3
I0504 11:52:14.801462 28031 net.cpp:408] ip3 <- ip2
I0504 11:52:14.801467 28031 net.cpp:382] ip3 -> ip3
I0504 11:52:14.801573 28031 net.cpp:124] Setting up ip3
I0504 11:52:14.801580 28031 net.cpp:131] Top shape: 111 10 (1110)
I0504 11:52:14.801584 28031 net.cpp:139] Memory required for data: 106158180
I0504 11:52:14.801590 28031 layer_factory.hpp:77] Creating layer loss
I0504 11:52:14.801600 28031 net.cpp:86] Creating Layer loss
I0504 11:52:14.801604 28031 net.cpp:408] loss <- ip3
I0504 11:52:14.801607 28031 net.cpp:408] loss <- label
I0504 11:52:14.801611 28031 net.cpp:382] loss -> loss
I0504 11:52:14.801623 28031 layer_factory.hpp:77] Creating layer loss
…
I0504 11:52:14.802261 28031 solver.cpp:173] Creating test net (#0) specified by net file: ECE595/cifar/train_test/var_everything_tiny/cifar_train_test_150.prototxt
I0504 11:52:14.802330 28031 net.cpp:296] The NetState phase (1) differed from the phase (0) specified by a rule in layer cifar
I0504 11:52:14.802434 28031 net.cpp:53] Initializing net from parameters: 
name: "CIFAR"
state {
  phase: TEST
}
layer {
  name: "cifar"
  type: "Data"
  top: "data"
  top: "label"
  include {
    phase: TEST
  }
  transform_param {
    mean_file: "examples/cifar10/mean.binaryproto"
  }
  data_param {
    source: "examples/cifar10/cifar10_test_lmdb"
    batch_size: 1000
    backend: LMDB
  }
}
layer {
  name: "conv0"
  type: "Convolution"
  bottom: "data"
  top: "conv0"
  param {
    lr_mult: 1
  }
  param {
    lr_mult: 2
  }
  convolution_param {
    num_output: 24
    pad: 2
    kernel_size: 3
    stride: 1
    weight_filler {
      type: "gaussian"
      std: 0.01
    }
    bias_filler {
      type: "constant"
    }
  }
}
layer {
  name: "Sigmoid0"
  type: "Sigmoid"
  bottom: "conv0"
  top: "Sigmoid0"
}
layer {
  name: "pool0"
  type: "Pooling"
  bottom: "Sigmoid0"
  top: "pool0"
  pooling_param {
    pool: AVE
    kernel_size: 3
    stride: 2
  }
}
layer {
  name: "conv1"
  type: "Convolution"
  bottom: "pool0"
  top: "conv1"
  param {
    lr_mult: 1
  }
  param {
    lr_mult: 2
  }
  convolution_param {
    num_output: 216
    pad: 2
    kernel_size: 3
    stride: 1
    weight_filler {
      type: "gaussian"
      std: 0.01
    }
    bias_filler {
      type: "constant"
    }
  }
}
layer {
  name: "Sigmoid1"
  type: "Sigmoid"
  bottom: "conv1"
  top: "Sigmoid1"
}
layer {
  name: "pool1"
  type: "Pooling"
  bottom: "Sigmoid1"
  top: "pool1"
  pooling_param {
    pool: AVE
    kernel_size: 3
    stride: 2
  }
}
layer {
  name: "ip1"
  type: "InnerProduct"
  bottom: "pool1"
  top: "ip1"
  param {
    lr_mult: 1
  }
  param {
    lr_mult: 2
  }
  inner_product_param {
    num_output: 60
    weight_filler {
      type: "gaussian"
      std: 0.01
    }
    bias_filler {
      type: "constant"
    }
  }
}
layer {
  name: "relu1"
  type: "ReLU"
  bottom: "ip1"
  top: "ip1"
}
layer {
  name: "ip2"
  type: "InnerProduct"
  bottom: "ip1"
  top: "ip2"
  param {
    lr_mult: 1
  }
  param {
    lr_mult: 2
  }
  inner_product_param {
    num_output: 10
    weight_filler {
      type: "gaussian"
      std: 0.01
    }
    bias_filler {
      type: "constant"
    }
  }
}
layer {
  name: "relu2"
  type: "ReLU"
  bottom: "ip2"
  top: "ip2"
}
layer {
  name: "ip3"
  type: "InnerProduct"
  bottom: "ip2"
  top: "ip3"
  param {
    lr_mult: 1
  }
  param {
    lr_mult: 2
  }
  inner_product_param {
    num_output: 10
    weight_filler {
      type: "gaussian"
      std: 0.01
    }
    bias_filler {
      type: "constant"
    }
  }
}
layer {
  name: "accuracy"
  type: "Accuracy"
  bottom: "ip3"
  bottom: "label"
  top: "accuracy"
  include {
    phase: TEST
  }
}
layer {
  name: "loss"
  type: "SoftmaxWithLoss"
  bottom: "ip3"
  bottom: "label"
  top: "loss"
}
I0504 11:52:14.802528 28031 layer_factory.hpp:77] Creating layer cifar
I0504 11:52:14.802574 28031 db_lmdb.cpp:35] Opened lmdb examples/cifar10/cifar10_test_lmdb
I0504 11:52:14.802587 28031 net.cpp:86] Creating Layer cifar
I0504 11:52:14.802592 28031 net.cpp:382] cifar -> data
I0504 11:52:14.802598 28031 net.cpp:382] cifar -> label
I0504 11:52:14.802605 28031 data_transformer.cpp:25] Loading mean file from: examples/cifar10/mean.binaryproto
I0504 11:52:14.802743 28031 data_layer.cpp:45] output data size: 1000,3,32,32
I0504 11:52:14.824506 28031 net.cpp:124] Setting up cifar
I0504 11:52:14.824545 28031 net.cpp:131] Top shape: 1000 3 32 32 (3072000)
I0504 11:52:14.824551 28031 net.cpp:131] Top shape: 1000 (1000)
I0504 11:52:14.824554 28031 net.cpp:139] Memory required for data: 12292000
I0504 11:52:14.824560 28031 layer_factory.hpp:77] Creating layer label_cifar_1_split
I0504 11:52:14.824573 28031 net.cpp:86] Creating Layer label_cifar_1_split
I0504 11:52:14.824576 28031 net.cpp:408] label_cifar_1_split <- label
I0504 11:52:14.824584 28031 net.cpp:382] label_cifar_1_split -> label_cifar_1_split_0
I0504 11:52:14.824606 28031 net.cpp:382] label_cifar_1_split -> label_cifar_1_split_1
I0504 11:52:14.824725 28031 net.cpp:124] Setting up label_cifar_1_split
I0504 11:52:14.824733 28031 net.cpp:131] Top shape: 1000 (1000)
I0504 11:52:14.824738 28031 net.cpp:131] Top shape: 1000 (1000)
I0504 11:52:14.824740 28031 net.cpp:139] Memory required for data: 12300000
I0504 11:52:14.824744 28031 layer_factory.hpp:77] Creating layer conv0
I0504 11:52:14.824756 28031 net.cpp:86] Creating Layer conv0
I0504 11:52:14.824760 28031 net.cpp:408] conv0 <- data
I0504 11:52:14.824765 28031 net.cpp:382] conv0 -> conv0
I0504 11:52:14.826424 28031 net.cpp:124] Setting up conv0
I0504 11:52:14.826452 28031 net.cpp:131] Top shape: 1000 24 34 34 (27744000)
I0504 11:52:14.826457 28031 net.cpp:139] Memory required for data: 123276000
I0504 11:52:14.826467 28031 layer_factory.hpp:77] Creating layer Sigmoid0
I0504 11:52:14.826474 28031 net.cpp:86] Creating Layer Sigmoid0
I0504 11:52:14.826478 28031 net.cpp:408] Sigmoid0 <- conv0
I0504 11:52:14.826483 28031 net.cpp:382] Sigmoid0 -> Sigmoid0
I0504 11:52:14.826668 28031 net.cpp:124] Setting up Sigmoid0
I0504 11:52:14.826689 28031 net.cpp:131] Top shape: 1000 24 34 34 (27744000)
I0504 11:52:14.826694 28031 net.cpp:139] Memory required for data: 234252000
I0504 11:52:14.826696 28031 layer_factory.hpp:77] Creating layer pool0
I0504 11:52:14.826704 28031 net.cpp:86] Creating Layer pool0
I0504 11:52:14.826707 28031 net.cpp:408] pool0 <- Sigmoid0
I0504 11:52:14.826712 28031 net.cpp:382] pool0 -> pool0
I0504 11:52:14.826894 28031 net.cpp:124] Setting up pool0
I0504 11:52:14.826903 28031 net.cpp:131] Top shape: 1000 24 17 17 (6936000)
I0504 11:52:14.826906 28031 net.cpp:139] Memory required for data: 261996000
I0504 11:52:14.826910 28031 layer_factory.hpp:77] Creating layer conv1
I0504 11:52:14.826918 28031 net.cpp:86] Creating Layer conv1
I0504 11:52:14.826922 28031 net.cpp:408] conv1 <- pool0
I0504 11:52:14.826928 28031 net.cpp:382] conv1 -> conv1
I0504 11:52:14.829582 28031 net.cpp:124] Setting up conv1
I0504 11:52:14.829612 28031 net.cpp:131] Top shape: 1000 216 19 19 (77976000)
I0504 11:52:14.829614 28031 net.cpp:139] Memory required for data: 573900000
I0504 11:52:14.829623 28031 layer_factory.hpp:77] Creating layer Sigmoid1
I0504 11:52:14.829629 28031 net.cpp:86] Creating Layer Sigmoid1
I0504 11:52:14.829633 28031 net.cpp:408] Sigmoid1 <- conv1
I0504 11:52:14.829638 28031 net.cpp:382] Sigmoid1 -> Sigmoid1
I0504 11:52:14.829826 28031 net.cpp:124] Setting up Sigmoid1
I0504 11:52:14.829836 28031 net.cpp:131] Top shape: 1000 216 19 19 (77976000)
I0504 11:52:14.829840 28031 net.cpp:139] Memory required for data: 885804000
I0504 11:52:14.829850 28031 layer_factory.hpp:77] Creating layer pool1
I0504 11:52:14.829859 28031 net.cpp:86] Creating Layer pool1
I0504 11:52:14.829861 28031 net.cpp:408] pool1 <- Sigmoid1
I0504 11:52:14.829865 28031 net.cpp:382] pool1 -> pool1
I0504 11:52:14.830634 28031 net.cpp:124] Setting up pool1
I0504 11:52:14.830646 28031 net.cpp:131] Top shape: 1000 216 9 9 (17496000)
I0504 11:52:14.830667 28031 net.cpp:139] Memory required for data: 955788000
I0504 11:52:14.830669 28031 layer_factory.hpp:77] Creating layer ip1
I0504 11:52:14.830678 28031 net.cpp:86] Creating Layer ip1
I0504 11:52:14.830682 28031 net.cpp:408] ip1 <- pool1
I0504 11:52:14.830687 28031 net.cpp:382] ip1 -> ip1
I0504 11:52:14.859567 28031 net.cpp:124] Setting up ip1
I0504 11:52:14.859599 28031 net.cpp:131] Top shape: 1000 60 (60000)
I0504 11:52:14.859603 28031 net.cpp:139] Memory required for data: 956028000
I0504 11:52:14.859612 28031 layer_factory.hpp:77] Creating layer relu1
I0504 11:52:14.859621 28031 net.cpp:86] Creating Layer relu1
I0504 11:52:14.859624 28031 net.cpp:408] relu1 <- ip1
I0504 11:52:14.859628 28031 net.cpp:369] relu1 -> ip1 (in-place)
I0504 11:52:14.859823 28031 net.cpp:124] Setting up relu1
I0504 11:52:14.859833 28031 net.cpp:131] Top shape: 1000 60 (60000)
I0504 11:52:14.859835 28031 net.cpp:139] Memory required for data: 956268000
I0504 11:52:14.859838 28031 layer_factory.hpp:77] Creating layer ip2
I0504 11:52:14.859844 28031 net.cpp:86] Creating Layer ip2
I0504 11:52:14.859848 28031 net.cpp:408] ip2 <- ip1
I0504 11:52:14.859869 28031 net.cpp:382] ip2 -> ip2
I0504 11:52:14.860002 28031 net.cpp:124] Setting up ip2
I0504 11:52:14.860008 28031 net.cpp:131] Top shape: 1000 10 (10000)
I0504 11:52:14.860011 28031 net.cpp:139] Memory required for data: 956308000
I0504 11:52:14.860018 28031 layer_factory.hpp:77] Creating layer relu2
I0504 11:52:14.860023 28031 net.cpp:86] Creating Layer relu2
I0504 11:52:14.860025 28031 net.cpp:408] relu2 <- ip2
I0504 11:52:14.860030 28031 net.cpp:369] relu2 -> ip2 (in-place)
I0504 11:52:14.860208 28031 net.cpp:124] Setting up relu2
I0504 11:52:14.860215 28031 net.cpp:131] Top shape: 1000 10 (10000)
I0504 11:52:14.860219 28031 net.cpp:139] Memory required for data: 956348000
I0504 11:52:14.860221 28031 layer_factory.hpp:77] Creating layer ip3
I0504 11:52:14.860226 28031 net.cpp:86] Creating Layer ip3
I0504 11:52:14.860230 28031 net.cpp:408] ip3 <- ip2
I0504 11:52:14.860236 28031 net.cpp:382] ip3 -> ip3
I0504 11:52:14.860339 28031 net.cpp:124] Setting up ip3
I0504 11:52:14.860358 28031 net.cpp:131] Top shape: 1000 10 (10000)
I0504 11:52:14.860361 28031 net.cpp:139] Memory required for data: 956388000
I0504 11:52:14.860369 28031 layer_factory.hpp:77] Creating layer ip3_ip3_0_split
I0504 11:52:14.860374 28031 net.cpp:86] Creating Layer ip3_ip3_0_split
I0504 11:52:14.860378 28031 net.cpp:408] ip3_ip3_0_split <- ip3
I0504 11:52:14.860383 28031 net.cpp:382] ip3_ip3_0_split -> ip3_ip3_0_split_0
I0504 11:52:14.860388 28031 net.cpp:382] ip3_ip3_0_split -> ip3_ip3_0_split_1
I0504 11:52:14.860421 28031 net.cpp:124] Setting up ip3_ip3_0_split
I0504 11:52:14.860427 28031 net.cpp:131] Top shape: 1000 10 (10000)
I0504 11:52:14.860431 28031 net.cpp:131] Top shape: 1000 10 (10000)
I0504 11:52:14.860433 28031 net.cpp:139] Memory required for data: 956468000
I0504 11:52:14.860436 28031 layer_factory.hpp:77] Creating layer accuracy
I0504 11:52:14.860443 28031 net.cpp:86] Creating Layer accuracy
I0504 11:52:14.860446 28031 net.cpp:408] accuracy <- ip3_ip3_0_split_0
I0504 11:52:14.860450 28031 net.cpp:408] accuracy <- label_cifar_1_split_0
I0504 11:52:14.860457 28031 net.cpp:382] accuracy -> accuracy
…
