…
I0504 00:10:15.949921  4816 net.cpp:296] The NetState phase (0) differed from the phase (1) specified by a rule in layer cifar
I0504 00:10:15.949942  4816 net.cpp:296] The NetState phase (0) differed from the phase (1) specified by a rule in layer accuracy
I0504 00:10:15.950042  4816 net.cpp:53] Initializing net from parameters: 
name: "CIFAR"
state {
  phase: TRAIN
  level: 0
  stage: ""
}
layer {
  name: "cifar"
  type: "Data"
  top: "data"
  top: "label"
  include {
    phase: TRAIN
  }
  transform_param {
    mean_file: "examples/cifar10/mean.binaryproto"
  }
  data_param {
    source: "examples/cifar10/cifar10_train_lmdb"
    batch_size: 111
    backend: LMDB
  }
}
layer {
  name: "conv0"
  type: "Convolution"
  bottom: "data"
  top: "conv0"
  param {
    lr_mult: 1
  }
  param {
    lr_mult: 2
  }
  convolution_param {
    num_output: 24
    pad: 2
    kernel_size: 3
    stride: 1
    weight_filler {
      type: "gaussian"
      std: 0.01
    }
    bias_filler {
      type: "constant"
    }
  }
}
layer {
  name: "Sigmoid0"
  type: "Sigmoid"
  bottom: "conv0"
  top: "Sigmoid0"
}
layer {
  name: "pool0"
  type: "Pooling"
  bottom: "Sigmoid0"
  top: "pool0"
  pooling_param {
    pool: AVE
    kernel_size: 3
    stride: 2
  }
}
layer {
  name: "ip1"
  type: "InnerProduct"
  bottom: "pool0"
  top: "ip1"
  param {
    lr_mult: 1
  }
  param {
    lr_mult: 2
  }
  inner_product_param {
    num_output: 180
    weight_filler {
      type: "gaussian"
      std: 0.01
    }
    bias_filler {
      type: "constant"
    }
  }
}
layer {
  name: "relu1"
  type: "ReLU"
  bottom: "ip1"
  top: "ip1"
}
layer {
  name: "ip2"
  type: "InnerProduct"
  bottom: "ip1"
  top: "ip2"
  param {
    lr_mult: 1
  }
  param {
    lr_mult: 2
  }
  inner_product_param {
    num_output: 180
    weight_filler {
      type: "gaussian"
      std: 0.01
    }
    bias_filler {
      type: "constant"
    }
  }
}
layer {
  name: "relu2"
  type: "ReLU"
  bottom: "ip2"
  top: "ip2"
}
layer {
  name: "ip3"
  type: "InnerProduct"
  bottom: "ip2"
  top: "ip3"
  param {
    lr_mult: 1
  }
  param {
    lr_mult: 2
  }
  inner_product_param {
    num_output: 10
    weight_filler {
      type: "gaussian"
      std: 0.01
    }
    bias_filler {
      type: "constant"
    }
  }
}
layer {
  name: "loss"
  type: "SoftmaxWithLoss"
  bottom: "ip3"
  bottom: "label"
  top: "loss"
}
I0504 00:10:15.950139  4816 layer_factory.hpp:77] Creating layer cifar
I0504 00:10:15.950273  4816 db_lmdb.cpp:35] Opened lmdb examples/cifar10/cifar10_train_lmdb
I0504 00:10:15.950309  4816 net.cpp:86] Creating Layer cifar
I0504 00:10:15.950320  4816 net.cpp:382] cifar -> data
I0504 00:10:15.950351  4816 net.cpp:382] cifar -> label
I0504 00:10:15.950368  4816 data_transformer.cpp:25] Loading mean file from: examples/cifar10/mean.binaryproto
I0504 00:10:15.952654  4816 data_layer.cpp:45] output data size: 111,3,32,32
I0504 00:10:15.960527  4816 net.cpp:124] Setting up cifar
I0504 00:10:15.960549  4816 net.cpp:131] Top shape: 111 3 32 32 (340992)
I0504 00:10:15.960561  4816 net.cpp:131] Top shape: 111 (111)
I0504 00:10:15.960567  4816 net.cpp:139] Memory required for data: 1364412
I0504 00:10:15.960579  4816 layer_factory.hpp:77] Creating layer conv0
I0504 00:10:15.960603  4816 net.cpp:86] Creating Layer conv0
I0504 00:10:15.960614  4816 net.cpp:408] conv0 <- data
I0504 00:10:15.960633  4816 net.cpp:382] conv0 -> conv0
I0504 00:10:16.253131  4816 net.cpp:124] Setting up conv0
I0504 00:10:16.253186  4816 net.cpp:131] Top shape: 111 24 34 34 (3079584)
I0504 00:10:16.253195  4816 net.cpp:139] Memory required for data: 13682748
I0504 00:10:16.253221  4816 layer_factory.hpp:77] Creating layer Sigmoid0
I0504 00:10:16.253238  4816 net.cpp:86] Creating Layer Sigmoid0
I0504 00:10:16.253253  4816 net.cpp:408] Sigmoid0 <- conv0
I0504 00:10:16.253264  4816 net.cpp:382] Sigmoid0 -> Sigmoid0
I0504 00:10:16.253495  4816 net.cpp:124] Setting up Sigmoid0
I0504 00:10:16.253510  4816 net.cpp:131] Top shape: 111 24 34 34 (3079584)
I0504 00:10:16.253516  4816 net.cpp:139] Memory required for data: 26001084
I0504 00:10:16.253523  4816 layer_factory.hpp:77] Creating layer pool0
I0504 00:10:16.253535  4816 net.cpp:86] Creating Layer pool0
I0504 00:10:16.253542  4816 net.cpp:408] pool0 <- Sigmoid0
I0504 00:10:16.253552  4816 net.cpp:382] pool0 -> pool0
I0504 00:10:16.254448  4816 net.cpp:124] Setting up pool0
I0504 00:10:16.254467  4816 net.cpp:131] Top shape: 111 24 17 17 (769896)
I0504 00:10:16.254474  4816 net.cpp:139] Memory required for data: 29080668
I0504 00:10:16.254482  4816 layer_factory.hpp:77] Creating layer ip1
I0504 00:10:16.254498  4816 net.cpp:86] Creating Layer ip1
I0504 00:10:16.254505  4816 net.cpp:408] ip1 <- pool0
I0504 00:10:16.254516  4816 net.cpp:382] ip1 -> ip1
I0504 00:10:16.295986  4816 net.cpp:124] Setting up ip1
I0504 00:10:16.296003  4816 net.cpp:131] Top shape: 111 180 (19980)
I0504 00:10:16.296010  4816 net.cpp:139] Memory required for data: 29160588
I0504 00:10:16.296025  4816 layer_factory.hpp:77] Creating layer relu1
I0504 00:10:16.296036  4816 net.cpp:86] Creating Layer relu1
I0504 00:10:16.296041  4816 net.cpp:408] relu1 <- ip1
I0504 00:10:16.296051  4816 net.cpp:369] relu1 -> ip1 (in-place)
I0504 00:10:16.296231  4816 net.cpp:124] Setting up relu1
I0504 00:10:16.296244  4816 net.cpp:131] Top shape: 111 180 (19980)
I0504 00:10:16.296249  4816 net.cpp:139] Memory required for data: 29240508
I0504 00:10:16.296255  4816 layer_factory.hpp:77] Creating layer ip2
I0504 00:10:16.296267  4816 net.cpp:86] Creating Layer ip2
I0504 00:10:16.296272  4816 net.cpp:408] ip2 <- ip1
I0504 00:10:16.296281  4816 net.cpp:382] ip2 -> ip2
I0504 00:10:16.298276  4816 net.cpp:124] Setting up ip2
I0504 00:10:16.298293  4816 net.cpp:131] Top shape: 111 180 (19980)
I0504 00:10:16.298300  4816 net.cpp:139] Memory required for data: 29320428
I0504 00:10:16.298315  4816 layer_factory.hpp:77] Creating layer relu2
I0504 00:10:16.298324  4816 net.cpp:86] Creating Layer relu2
I0504 00:10:16.298331  4816 net.cpp:408] relu2 <- ip2
I0504 00:10:16.298339  4816 net.cpp:369] relu2 -> ip2 (in-place)
I0504 00:10:16.298528  4816 net.cpp:124] Setting up relu2
I0504 00:10:16.298540  4816 net.cpp:131] Top shape: 111 180 (19980)
I0504 00:10:16.298547  4816 net.cpp:139] Memory required for data: 29400348
I0504 00:10:16.298552  4816 layer_factory.hpp:77] Creating layer ip3
I0504 00:10:16.298564  4816 net.cpp:86] Creating Layer ip3
I0504 00:10:16.298570  4816 net.cpp:408] ip3 <- ip2
I0504 00:10:16.298580  4816 net.cpp:382] ip3 -> ip3
I0504 00:10:16.298749  4816 net.cpp:124] Setting up ip3
I0504 00:10:16.298759  4816 net.cpp:131] Top shape: 111 10 (1110)
I0504 00:10:16.298765  4816 net.cpp:139] Memory required for data: 29404788
I0504 00:10:16.298775  4816 layer_factory.hpp:77] Creating layer loss
I0504 00:10:16.298784  4816 net.cpp:86] Creating Layer loss
I0504 00:10:16.298790  4816 net.cpp:408] loss <- ip3
I0504 00:10:16.298799  4816 net.cpp:408] loss <- label
I0504 00:10:16.298807  4816 net.cpp:382] loss -> loss
I0504 00:10:16.298833  4816 layer_factory.hpp:77] Creating layer loss
…
I0504 00:10:16.299557  4816 solver.cpp:173] Creating test net (#0) specified by net file: ECE595/cifar/train_test/var_everything_tiny/cifar_train_test_11.prototxt
I0504 00:10:16.299597  4816 net.cpp:296] The NetState phase (1) differed from the phase (0) specified by a rule in layer cifar
I0504 00:10:16.299698  4816 net.cpp:53] Initializing net from parameters: 
name: "CIFAR"
state {
  phase: TEST
}
layer {
  name: "cifar"
  type: "Data"
  top: "data"
  top: "label"
  include {
    phase: TEST
  }
  transform_param {
    mean_file: "examples/cifar10/mean.binaryproto"
  }
  data_param {
    source: "examples/cifar10/cifar10_test_lmdb"
    batch_size: 1000
    backend: LMDB
  }
}
layer {
  name: "conv0"
  type: "Convolution"
  bottom: "data"
  top: "conv0"
  param {
    lr_mult: 1
  }
  param {
    lr_mult: 2
  }
  convolution_param {
    num_output: 24
    pad: 2
    kernel_size: 3
    stride: 1
    weight_filler {
      type: "gaussian"
      std: 0.01
    }
    bias_filler {
      type: "constant"
    }
  }
}
layer {
  name: "Sigmoid0"
  type: "Sigmoid"
  bottom: "conv0"
  top: "Sigmoid0"
}
layer {
  name: "pool0"
  type: "Pooling"
  bottom: "Sigmoid0"
  top: "pool0"
  pooling_param {
    pool: AVE
    kernel_size: 3
    stride: 2
  }
}
layer {
  name: "ip1"
  type: "InnerProduct"
  bottom: "pool0"
  top: "ip1"
  param {
    lr_mult: 1
  }
  param {
    lr_mult: 2
  }
  inner_product_param {
    num_output: 180
    weight_filler {
      type: "gaussian"
      std: 0.01
    }
    bias_filler {
      type: "constant"
    }
  }
}
layer {
  name: "relu1"
  type: "ReLU"
  bottom: "ip1"
  top: "ip1"
}
layer {
  name: "ip2"
  type: "InnerProduct"
  bottom: "ip1"
  top: "ip2"
  param {
    lr_mult: 1
  }
  param {
    lr_mult: 2
  }
  inner_product_param {
    num_output: 180
    weight_filler {
      type: "gaussian"
      std: 0.01
    }
    bias_filler {
      type: "constant"
    }
  }
}
layer {
  name: "relu2"
  type: "ReLU"
  bottom: "ip2"
  top: "ip2"
}
layer {
  name: "ip3"
  type: "InnerProduct"
  bottom: "ip2"
  top: "ip3"
  param {
    lr_mult: 1
  }
  param {
    lr_mult: 2
  }
  inner_product_param {
    num_output: 10
    weight_filler {
      type: "gaussian"
      std: 0.01
    }
    bias_filler {
      type: "constant"
    }
  }
}
layer {
  name: "accuracy"
  type: "Accuracy"
  bottom: "ip3"
  bottom: "label"
  top: "accuracy"
  include {
    phase: TEST
  }
}
layer {
  name: "loss"
  type: "SoftmaxWithLoss"
  bottom: "ip3"
  bottom: "label"
  top: "loss"
}
I0504 00:10:16.299805  4816 layer_factory.hpp:77] Creating layer cifar
I0504 00:10:16.299870  4816 db_lmdb.cpp:35] Opened lmdb examples/cifar10/cifar10_test_lmdb
I0504 00:10:16.299888  4816 net.cpp:86] Creating Layer cifar
I0504 00:10:16.299897  4816 net.cpp:382] cifar -> data
I0504 00:10:16.299909  4816 net.cpp:382] cifar -> label
I0504 00:10:16.299921  4816 data_transformer.cpp:25] Loading mean file from: examples/cifar10/mean.binaryproto
I0504 00:10:16.300143  4816 data_layer.cpp:45] output data size: 1000,3,32,32
I0504 00:10:16.323493  4816 net.cpp:124] Setting up cifar
I0504 00:10:16.323521  4816 net.cpp:131] Top shape: 1000 3 32 32 (3072000)
I0504 00:10:16.323530  4816 net.cpp:131] Top shape: 1000 (1000)
I0504 00:10:16.323535  4816 net.cpp:139] Memory required for data: 12292000
I0504 00:10:16.323544  4816 layer_factory.hpp:77] Creating layer label_cifar_1_split
I0504 00:10:16.323576  4816 net.cpp:86] Creating Layer label_cifar_1_split
I0504 00:10:16.323583  4816 net.cpp:408] label_cifar_1_split <- label
I0504 00:10:16.323593  4816 net.cpp:382] label_cifar_1_split -> label_cifar_1_split_0
I0504 00:10:16.323613  4816 net.cpp:382] label_cifar_1_split -> label_cifar_1_split_1
I0504 00:10:16.323693  4816 net.cpp:124] Setting up label_cifar_1_split
I0504 00:10:16.323703  4816 net.cpp:131] Top shape: 1000 (1000)
I0504 00:10:16.323709  4816 net.cpp:131] Top shape: 1000 (1000)
I0504 00:10:16.323714  4816 net.cpp:139] Memory required for data: 12300000
I0504 00:10:16.323719  4816 layer_factory.hpp:77] Creating layer conv0
I0504 00:10:16.323737  4816 net.cpp:86] Creating Layer conv0
I0504 00:10:16.323745  4816 net.cpp:408] conv0 <- data
I0504 00:10:16.323755  4816 net.cpp:382] conv0 -> conv0
I0504 00:10:16.325311  4816 net.cpp:124] Setting up conv0
I0504 00:10:16.325328  4816 net.cpp:131] Top shape: 1000 24 34 34 (27744000)
I0504 00:10:16.325335  4816 net.cpp:139] Memory required for data: 123276000
I0504 00:10:16.325350  4816 layer_factory.hpp:77] Creating layer Sigmoid0
I0504 00:10:16.325359  4816 net.cpp:86] Creating Layer Sigmoid0
I0504 00:10:16.325371  4816 net.cpp:408] Sigmoid0 <- conv0
I0504 00:10:16.325379  4816 net.cpp:382] Sigmoid0 -> Sigmoid0
I0504 00:10:16.326217  4816 net.cpp:124] Setting up Sigmoid0
I0504 00:10:16.326231  4816 net.cpp:131] Top shape: 1000 24 34 34 (27744000)
I0504 00:10:16.326237  4816 net.cpp:139] Memory required for data: 234252000
I0504 00:10:16.326242  4816 layer_factory.hpp:77] Creating layer pool0
I0504 00:10:16.326256  4816 net.cpp:86] Creating Layer pool0
I0504 00:10:16.326262  4816 net.cpp:408] pool0 <- Sigmoid0
I0504 00:10:16.326270  4816 net.cpp:382] pool0 -> pool0
I0504 00:10:16.327384  4816 net.cpp:124] Setting up pool0
I0504 00:10:16.327396  4816 net.cpp:131] Top shape: 1000 24 17 17 (6936000)
I0504 00:10:16.327401  4816 net.cpp:139] Memory required for data: 261996000
I0504 00:10:16.327407  4816 layer_factory.hpp:77] Creating layer ip1
I0504 00:10:16.327420  4816 net.cpp:86] Creating Layer ip1
I0504 00:10:16.327425  4816 net.cpp:408] ip1 <- pool0
I0504 00:10:16.327437  4816 net.cpp:382] ip1 -> ip1
I0504 00:10:16.361642  4816 net.cpp:124] Setting up ip1
I0504 00:10:16.361665  4816 net.cpp:131] Top shape: 1000 180 (180000)
I0504 00:10:16.361670  4816 net.cpp:139] Memory required for data: 262716000
I0504 00:10:16.361683  4816 layer_factory.hpp:77] Creating layer relu1
I0504 00:10:16.361701  4816 net.cpp:86] Creating Layer relu1
I0504 00:10:16.361716  4816 net.cpp:408] relu1 <- ip1
I0504 00:10:16.361723  4816 net.cpp:369] relu1 -> ip1 (in-place)
I0504 00:10:16.361939  4816 net.cpp:124] Setting up relu1
I0504 00:10:16.361949  4816 net.cpp:131] Top shape: 1000 180 (180000)
I0504 00:10:16.361954  4816 net.cpp:139] Memory required for data: 263436000
I0504 00:10:16.361959  4816 layer_factory.hpp:77] Creating layer ip2
I0504 00:10:16.361971  4816 net.cpp:86] Creating Layer ip2
I0504 00:10:16.361976  4816 net.cpp:408] ip2 <- ip1
I0504 00:10:16.361987  4816 net.cpp:382] ip2 -> ip2
I0504 00:10:16.362915  4816 net.cpp:124] Setting up ip2
I0504 00:10:16.362926  4816 net.cpp:131] Top shape: 1000 180 (180000)
I0504 00:10:16.362931  4816 net.cpp:139] Memory required for data: 264156000
I0504 00:10:16.362942  4816 layer_factory.hpp:77] Creating layer relu2
I0504 00:10:16.362952  4816 net.cpp:86] Creating Layer relu2
I0504 00:10:16.362960  4816 net.cpp:408] relu2 <- ip2
I0504 00:10:16.362968  4816 net.cpp:369] relu2 -> ip2 (in-place)
I0504 00:10:16.363129  4816 net.cpp:124] Setting up relu2
I0504 00:10:16.363139  4816 net.cpp:131] Top shape: 1000 180 (180000)
I0504 00:10:16.363144  4816 net.cpp:139] Memory required for data: 264876000
I0504 00:10:16.363149  4816 layer_factory.hpp:77] Creating layer ip3
I0504 00:10:16.363159  4816 net.cpp:86] Creating Layer ip3
I0504 00:10:16.363164  4816 net.cpp:408] ip3 <- ip2
I0504 00:10:16.363173  4816 net.cpp:382] ip3 -> ip3
I0504 00:10:16.363330  4816 net.cpp:124] Setting up ip3
I0504 00:10:16.363339  4816 net.cpp:131] Top shape: 1000 10 (10000)
I0504 00:10:16.363361  4816 net.cpp:139] Memory required for data: 264916000
I0504 00:10:16.363370  4816 layer_factory.hpp:77] Creating layer ip3_ip3_0_split
I0504 00:10:16.363380  4816 net.cpp:86] Creating Layer ip3_ip3_0_split
I0504 00:10:16.363385  4816 net.cpp:408] ip3_ip3_0_split <- ip3
I0504 00:10:16.363394  4816 net.cpp:382] ip3_ip3_0_split -> ip3_ip3_0_split_0
I0504 00:10:16.363401  4816 net.cpp:382] ip3_ip3_0_split -> ip3_ip3_0_split_1
I0504 00:10:16.363440  4816 net.cpp:124] Setting up ip3_ip3_0_split
I0504 00:10:16.363447  4816 net.cpp:131] Top shape: 1000 10 (10000)
I0504 00:10:16.363453  4816 net.cpp:131] Top shape: 1000 10 (10000)
I0504 00:10:16.363457  4816 net.cpp:139] Memory required for data: 264996000
I0504 00:10:16.363462  4816 layer_factory.hpp:77] Creating layer accuracy
I0504 00:10:16.363471  4816 net.cpp:86] Creating Layer accuracy
I0504 00:10:16.363476  4816 net.cpp:408] accuracy <- ip3_ip3_0_split_0
I0504 00:10:16.363482  4816 net.cpp:408] accuracy <- label_cifar_1_split_0
I0504 00:10:16.363489  4816 net.cpp:382] accuracy -> accuracy
…
