…
I0504 17:38:33.319459 12188 net.cpp:296] The NetState phase (0) differed from the phase (1) specified by a rule in layer cifar
I0504 17:38:33.319474 12188 net.cpp:296] The NetState phase (0) differed from the phase (1) specified by a rule in layer accuracy
I0504 17:38:33.319594 12188 net.cpp:53] Initializing net from parameters: 
name: "CIFAR"
state {
  phase: TRAIN
  level: 0
  stage: ""
}
layer {
  name: "cifar"
  type: "Data"
  top: "data"
  top: "label"
  include {
    phase: TRAIN
  }
  transform_param {
    mean_file: "examples/cifar10/mean.binaryproto"
  }
  data_param {
    source: "examples/cifar10/cifar10_train_lmdb"
    batch_size: 111
    backend: LMDB
  }
}
layer {
  name: "conv0"
  type: "Convolution"
  bottom: "data"
  top: "conv0"
  param {
    lr_mult: 1
  }
  param {
    lr_mult: 2
  }
  convolution_param {
    num_output: 72
    pad: 2
    kernel_size: 5
    stride: 1
    weight_filler {
      type: "gaussian"
      std: 0.01
    }
    bias_filler {
      type: "constant"
    }
  }
}
layer {
  name: "Sigmoid0"
  type: "Sigmoid"
  bottom: "conv0"
  top: "Sigmoid0"
}
layer {
  name: "pool0"
  type: "Pooling"
  bottom: "Sigmoid0"
  top: "pool0"
  pooling_param {
    pool: AVE
    kernel_size: 3
    stride: 2
  }
}
layer {
  name: "conv1"
  type: "Convolution"
  bottom: "pool0"
  top: "conv1"
  param {
    lr_mult: 1
  }
  param {
    lr_mult: 2
  }
  convolution_param {
    num_output: 72
    pad: 2
    kernel_size: 3
    stride: 1
    weight_filler {
      type: "gaussian"
      std: 0.01
    }
    bias_filler {
      type: "constant"
    }
  }
}
layer {
  name: "Sigmoid1"
  type: "Sigmoid"
  bottom: "conv1"
  top: "Sigmoid1"
}
layer {
  name: "pool1"
  type: "Pooling"
  bottom: "Sigmoid1"
  top: "pool1"
  pooling_param {
    pool: AVE
    kernel_size: 3
    stride: 2
  }
}
layer {
  name: "ip1"
  type: "InnerProduct"
  bottom: "pool1"
  top: "ip1"
  param {
    lr_mult: 1
  }
  param {
    lr_mult: 2
  }
  inner_product_param {
    num_output: 60
    weight_filler {
      type: "gaussian"
      std: 0.01
    }
    bias_filler {
      type: "constant"
    }
  }
}
layer {
  name: "relu1"
  type: "ReLU"
  bottom: "ip1"
  top: "ip1"
}
layer {
  name: "ip2"
  type: "InnerProduct"
  bottom: "ip1"
  top: "ip2"
  param {
    lr_mult: 1
  }
  param {
    lr_mult: 2
  }
  inner_product_param {
    num_output: 60
    weight_filler {
      type: "gaussian"
      std: 0.01
    }
    bias_filler {
      type: "constant"
    }
  }
}
layer {
  name: "relu2"
  type: "ReLU"
  bottom: "ip2"
  top: "ip2"
}
layer {
  name: "ip3"
  type: "InnerProduct"
  bottom: "ip2"
  top: "ip3"
  param {
    lr_mult: 1
  }
  param {
    lr_mult: 2
  }
  inner_product_param {
    num_output: 10
    weight_filler {
      type: "gaussian"
      std: 0.01
    }
    bias_filler {
      type: "constant"
    }
  }
}
layer {
  name: "loss"
  type: "SoftmaxWithLoss"
  bottom: "ip3"
  bottom: "label"
  top: "loss"
}
I0504 17:38:33.319661 12188 layer_factory.hpp:77] Creating layer cifar
I0504 17:38:33.319742 12188 db_lmdb.cpp:35] Opened lmdb examples/cifar10/cifar10_train_lmdb
I0504 17:38:33.319763 12188 net.cpp:86] Creating Layer cifar
I0504 17:38:33.319772 12188 net.cpp:382] cifar -> data
I0504 17:38:33.319789 12188 net.cpp:382] cifar -> label
I0504 17:38:33.319799 12188 data_transformer.cpp:25] Loading mean file from: examples/cifar10/mean.binaryproto
I0504 17:38:33.321836 12188 data_layer.cpp:45] output data size: 111,3,32,32
I0504 17:38:33.329385 12188 net.cpp:124] Setting up cifar
I0504 17:38:33.329401 12188 net.cpp:131] Top shape: 111 3 32 32 (340992)
I0504 17:38:33.329406 12188 net.cpp:131] Top shape: 111 (111)
I0504 17:38:33.329408 12188 net.cpp:139] Memory required for data: 1364412
I0504 17:38:33.329416 12188 layer_factory.hpp:77] Creating layer conv0
I0504 17:38:33.329464 12188 net.cpp:86] Creating Layer conv0
I0504 17:38:33.329469 12188 net.cpp:408] conv0 <- data
I0504 17:38:33.329480 12188 net.cpp:382] conv0 -> conv0
I0504 17:38:33.567811 12188 net.cpp:124] Setting up conv0
I0504 17:38:33.567852 12188 net.cpp:131] Top shape: 111 72 32 32 (8183808)
I0504 17:38:33.567857 12188 net.cpp:139] Memory required for data: 34099644
I0504 17:38:33.567873 12188 layer_factory.hpp:77] Creating layer Sigmoid0
I0504 17:38:33.567883 12188 net.cpp:86] Creating Layer Sigmoid0
I0504 17:38:33.567888 12188 net.cpp:408] Sigmoid0 <- conv0
I0504 17:38:33.567909 12188 net.cpp:382] Sigmoid0 -> Sigmoid0
I0504 17:38:33.568104 12188 net.cpp:124] Setting up Sigmoid0
I0504 17:38:33.568114 12188 net.cpp:131] Top shape: 111 72 32 32 (8183808)
I0504 17:38:33.568116 12188 net.cpp:139] Memory required for data: 66834876
I0504 17:38:33.568120 12188 layer_factory.hpp:77] Creating layer pool0
I0504 17:38:33.568126 12188 net.cpp:86] Creating Layer pool0
I0504 17:38:33.568130 12188 net.cpp:408] pool0 <- Sigmoid0
I0504 17:38:33.568133 12188 net.cpp:382] pool0 -> pool0
I0504 17:38:33.568897 12188 net.cpp:124] Setting up pool0
I0504 17:38:33.568924 12188 net.cpp:131] Top shape: 111 72 16 16 (2045952)
I0504 17:38:33.568928 12188 net.cpp:139] Memory required for data: 75018684
I0504 17:38:33.568931 12188 layer_factory.hpp:77] Creating layer conv1
I0504 17:38:33.568945 12188 net.cpp:86] Creating Layer conv1
I0504 17:38:33.568950 12188 net.cpp:408] conv1 <- pool0
I0504 17:38:33.568958 12188 net.cpp:382] conv1 -> conv1
I0504 17:38:33.572897 12188 net.cpp:124] Setting up conv1
I0504 17:38:33.572926 12188 net.cpp:131] Top shape: 111 72 18 18 (2589408)
I0504 17:38:33.572931 12188 net.cpp:139] Memory required for data: 85376316
I0504 17:38:33.572939 12188 layer_factory.hpp:77] Creating layer Sigmoid1
I0504 17:38:33.572945 12188 net.cpp:86] Creating Layer Sigmoid1
I0504 17:38:33.572948 12188 net.cpp:408] Sigmoid1 <- conv1
I0504 17:38:33.572953 12188 net.cpp:382] Sigmoid1 -> Sigmoid1
I0504 17:38:33.573165 12188 net.cpp:124] Setting up Sigmoid1
I0504 17:38:33.573175 12188 net.cpp:131] Top shape: 111 72 18 18 (2589408)
I0504 17:38:33.573179 12188 net.cpp:139] Memory required for data: 95733948
I0504 17:38:33.573181 12188 layer_factory.hpp:77] Creating layer pool1
I0504 17:38:33.573187 12188 net.cpp:86] Creating Layer pool1
I0504 17:38:33.573190 12188 net.cpp:408] pool1 <- Sigmoid1
I0504 17:38:33.573195 12188 net.cpp:382] pool1 -> pool1
I0504 17:38:33.573367 12188 net.cpp:124] Setting up pool1
I0504 17:38:33.573375 12188 net.cpp:131] Top shape: 111 72 9 9 (647352)
I0504 17:38:33.573379 12188 net.cpp:139] Memory required for data: 98323356
I0504 17:38:33.573381 12188 layer_factory.hpp:77] Creating layer ip1
I0504 17:38:33.573390 12188 net.cpp:86] Creating Layer ip1
I0504 17:38:33.573392 12188 net.cpp:408] ip1 <- pool1
I0504 17:38:33.573411 12188 net.cpp:382] ip1 -> ip1
I0504 17:38:33.583420 12188 net.cpp:124] Setting up ip1
I0504 17:38:33.583447 12188 net.cpp:131] Top shape: 111 60 (6660)
I0504 17:38:33.583451 12188 net.cpp:139] Memory required for data: 98349996
I0504 17:38:33.583458 12188 layer_factory.hpp:77] Creating layer relu1
I0504 17:38:33.583467 12188 net.cpp:86] Creating Layer relu1
I0504 17:38:33.583470 12188 net.cpp:408] relu1 <- ip1
I0504 17:38:33.583474 12188 net.cpp:369] relu1 -> ip1 (in-place)
I0504 17:38:33.583660 12188 net.cpp:124] Setting up relu1
I0504 17:38:33.583669 12188 net.cpp:131] Top shape: 111 60 (6660)
I0504 17:38:33.583673 12188 net.cpp:139] Memory required for data: 98376636
I0504 17:38:33.583675 12188 layer_factory.hpp:77] Creating layer ip2
I0504 17:38:33.583681 12188 net.cpp:86] Creating Layer ip2
I0504 17:38:33.583684 12188 net.cpp:408] ip2 <- ip1
I0504 17:38:33.583703 12188 net.cpp:382] ip2 -> ip2
I0504 17:38:33.583890 12188 net.cpp:124] Setting up ip2
I0504 17:38:33.583897 12188 net.cpp:131] Top shape: 111 60 (6660)
I0504 17:38:33.583901 12188 net.cpp:139] Memory required for data: 98403276
I0504 17:38:33.583906 12188 layer_factory.hpp:77] Creating layer relu2
I0504 17:38:33.583911 12188 net.cpp:86] Creating Layer relu2
I0504 17:38:33.583914 12188 net.cpp:408] relu2 <- ip2
I0504 17:38:33.583919 12188 net.cpp:369] relu2 -> ip2 (in-place)
I0504 17:38:33.584671 12188 net.cpp:124] Setting up relu2
I0504 17:38:33.584683 12188 net.cpp:131] Top shape: 111 60 (6660)
I0504 17:38:33.584702 12188 net.cpp:139] Memory required for data: 98429916
I0504 17:38:33.584705 12188 layer_factory.hpp:77] Creating layer ip3
I0504 17:38:33.584712 12188 net.cpp:86] Creating Layer ip3
I0504 17:38:33.584715 12188 net.cpp:408] ip3 <- ip2
I0504 17:38:33.584720 12188 net.cpp:382] ip3 -> ip3
I0504 17:38:33.584928 12188 net.cpp:124] Setting up ip3
I0504 17:38:33.584935 12188 net.cpp:131] Top shape: 111 10 (1110)
I0504 17:38:33.584939 12188 net.cpp:139] Memory required for data: 98434356
I0504 17:38:33.584949 12188 layer_factory.hpp:77] Creating layer loss
I0504 17:38:33.584954 12188 net.cpp:86] Creating Layer loss
I0504 17:38:33.584959 12188 net.cpp:408] loss <- ip3
I0504 17:38:33.584962 12188 net.cpp:408] loss <- label
I0504 17:38:33.584969 12188 net.cpp:382] loss -> loss
I0504 17:38:33.584983 12188 layer_factory.hpp:77] Creating layer loss
…
I0504 17:38:33.585795 12188 solver.cpp:173] Creating test net (#0) specified by net file: ECE595/cifar/train_test/var_everything_tiny/cifar_train_test_199.prototxt
I0504 17:38:33.585839 12188 net.cpp:296] The NetState phase (1) differed from the phase (0) specified by a rule in layer cifar
I0504 17:38:33.585960 12188 net.cpp:53] Initializing net from parameters: 
name: "CIFAR"
state {
  phase: TEST
}
layer {
  name: "cifar"
  type: "Data"
  top: "data"
  top: "label"
  include {
    phase: TEST
  }
  transform_param {
    mean_file: "examples/cifar10/mean.binaryproto"
  }
  data_param {
    source: "examples/cifar10/cifar10_test_lmdb"
    batch_size: 1000
    backend: LMDB
  }
}
layer {
  name: "conv0"
  type: "Convolution"
  bottom: "data"
  top: "conv0"
  param {
    lr_mult: 1
  }
  param {
    lr_mult: 2
  }
  convolution_param {
    num_output: 72
    pad: 2
    kernel_size: 5
    stride: 1
    weight_filler {
      type: "gaussian"
      std: 0.01
    }
    bias_filler {
      type: "constant"
    }
  }
}
layer {
  name: "Sigmoid0"
  type: "Sigmoid"
  bottom: "conv0"
  top: "Sigmoid0"
}
layer {
  name: "pool0"
  type: "Pooling"
  bottom: "Sigmoid0"
  top: "pool0"
  pooling_param {
    pool: AVE
    kernel_size: 3
    stride: 2
  }
}
layer {
  name: "conv1"
  type: "Convolution"
  bottom: "pool0"
  top: "conv1"
  param {
    lr_mult: 1
  }
  param {
    lr_mult: 2
  }
  convolution_param {
    num_output: 72
    pad: 2
    kernel_size: 3
    stride: 1
    weight_filler {
      type: "gaussian"
      std: 0.01
    }
    bias_filler {
      type: "constant"
    }
  }
}
layer {
  name: "Sigmoid1"
  type: "Sigmoid"
  bottom: "conv1"
  top: "Sigmoid1"
}
layer {
  name: "pool1"
  type: "Pooling"
  bottom: "Sigmoid1"
  top: "pool1"
  pooling_param {
    pool: AVE
    kernel_size: 3
    stride: 2
  }
}
layer {
  name: "ip1"
  type: "InnerProduct"
  bottom: "pool1"
  top: "ip1"
  param {
    lr_mult: 1
  }
  param {
    lr_mult: 2
  }
  inner_product_param {
    num_output: 60
    weight_filler {
      type: "gaussian"
      std: 0.01
    }
    bias_filler {
      type: "constant"
    }
  }
}
layer {
  name: "relu1"
  type: "ReLU"
  bottom: "ip1"
  top: "ip1"
}
layer {
  name: "ip2"
  type: "InnerProduct"
  bottom: "ip1"
  top: "ip2"
  param {
    lr_mult: 1
  }
  param {
    lr_mult: 2
  }
  inner_product_param {
    num_output: 60
    weight_filler {
      type: "gaussian"
      std: 0.01
    }
    bias_filler {
      type: "constant"
    }
  }
}
layer {
  name: "relu2"
  type: "ReLU"
  bottom: "ip2"
  top: "ip2"
}
layer {
  name: "ip3"
  type: "InnerProduct"
  bottom: "ip2"
  top: "ip3"
  param {
    lr_mult: 1
  }
  param {
    lr_mult: 2
  }
  inner_product_param {
    num_output: 10
    weight_filler {
      type: "gaussian"
      std: 0.01
    }
    bias_filler {
      type: "constant"
    }
  }
}
layer {
  name: "accuracy"
  type: "Accuracy"
  bottom: "ip3"
  bottom: "label"
  top: "accuracy"
  include {
    phase: TEST
  }
}
layer {
  name: "loss"
  type: "SoftmaxWithLoss"
  bottom: "ip3"
  bottom: "label"
  top: "loss"
}
I0504 17:38:33.586038 12188 layer_factory.hpp:77] Creating layer cifar
I0504 17:38:33.586083 12188 db_lmdb.cpp:35] Opened lmdb examples/cifar10/cifar10_test_lmdb
I0504 17:38:33.586094 12188 net.cpp:86] Creating Layer cifar
I0504 17:38:33.586098 12188 net.cpp:382] cifar -> data
I0504 17:38:33.586107 12188 net.cpp:382] cifar -> label
I0504 17:38:33.586112 12188 data_transformer.cpp:25] Loading mean file from: examples/cifar10/mean.binaryproto
I0504 17:38:33.586273 12188 data_layer.cpp:45] output data size: 1000,3,32,32
I0504 17:38:33.608695 12188 net.cpp:124] Setting up cifar
I0504 17:38:33.608734 12188 net.cpp:131] Top shape: 1000 3 32 32 (3072000)
I0504 17:38:33.608741 12188 net.cpp:131] Top shape: 1000 (1000)
I0504 17:38:33.608743 12188 net.cpp:139] Memory required for data: 12292000
I0504 17:38:33.608748 12188 layer_factory.hpp:77] Creating layer label_cifar_1_split
I0504 17:38:33.608760 12188 net.cpp:86] Creating Layer label_cifar_1_split
I0504 17:38:33.608764 12188 net.cpp:408] label_cifar_1_split <- label
I0504 17:38:33.608785 12188 net.cpp:382] label_cifar_1_split -> label_cifar_1_split_0
I0504 17:38:33.608793 12188 net.cpp:382] label_cifar_1_split -> label_cifar_1_split_1
I0504 17:38:33.608943 12188 net.cpp:124] Setting up label_cifar_1_split
I0504 17:38:33.608952 12188 net.cpp:131] Top shape: 1000 (1000)
I0504 17:38:33.608956 12188 net.cpp:131] Top shape: 1000 (1000)
I0504 17:38:33.608959 12188 net.cpp:139] Memory required for data: 12300000
I0504 17:38:33.608963 12188 layer_factory.hpp:77] Creating layer conv0
I0504 17:38:33.608975 12188 net.cpp:86] Creating Layer conv0
I0504 17:38:33.608978 12188 net.cpp:408] conv0 <- data
I0504 17:38:33.608984 12188 net.cpp:382] conv0 -> conv0
I0504 17:38:33.610697 12188 net.cpp:124] Setting up conv0
I0504 17:38:33.610710 12188 net.cpp:131] Top shape: 1000 72 32 32 (73728000)
I0504 17:38:33.610713 12188 net.cpp:139] Memory required for data: 307212000
I0504 17:38:33.610723 12188 layer_factory.hpp:77] Creating layer Sigmoid0
I0504 17:38:33.610745 12188 net.cpp:86] Creating Layer Sigmoid0
I0504 17:38:33.610749 12188 net.cpp:408] Sigmoid0 <- conv0
I0504 17:38:33.610754 12188 net.cpp:382] Sigmoid0 -> Sigmoid0
I0504 17:38:33.610939 12188 net.cpp:124] Setting up Sigmoid0
I0504 17:38:33.610960 12188 net.cpp:131] Top shape: 1000 72 32 32 (73728000)
I0504 17:38:33.610965 12188 net.cpp:139] Memory required for data: 602124000
I0504 17:38:33.610967 12188 layer_factory.hpp:77] Creating layer pool0
I0504 17:38:33.610975 12188 net.cpp:86] Creating Layer pool0
I0504 17:38:33.610978 12188 net.cpp:408] pool0 <- Sigmoid0
I0504 17:38:33.610982 12188 net.cpp:382] pool0 -> pool0
I0504 17:38:33.611217 12188 net.cpp:124] Setting up pool0
I0504 17:38:33.611225 12188 net.cpp:131] Top shape: 1000 72 16 16 (18432000)
I0504 17:38:33.611228 12188 net.cpp:139] Memory required for data: 675852000
I0504 17:38:33.611232 12188 layer_factory.hpp:77] Creating layer conv1
I0504 17:38:33.611240 12188 net.cpp:86] Creating Layer conv1
I0504 17:38:33.611243 12188 net.cpp:408] conv1 <- pool0
I0504 17:38:33.611249 12188 net.cpp:382] conv1 -> conv1
I0504 17:38:33.614789 12188 net.cpp:124] Setting up conv1
I0504 17:38:33.614804 12188 net.cpp:131] Top shape: 1000 72 18 18 (23328000)
I0504 17:38:33.614809 12188 net.cpp:139] Memory required for data: 769164000
I0504 17:38:33.614817 12188 layer_factory.hpp:77] Creating layer Sigmoid1
I0504 17:38:33.614841 12188 net.cpp:86] Creating Layer Sigmoid1
I0504 17:38:33.614845 12188 net.cpp:408] Sigmoid1 <- conv1
I0504 17:38:33.614850 12188 net.cpp:382] Sigmoid1 -> Sigmoid1
I0504 17:38:33.615038 12188 net.cpp:124] Setting up Sigmoid1
I0504 17:38:33.615047 12188 net.cpp:131] Top shape: 1000 72 18 18 (23328000)
I0504 17:38:33.615051 12188 net.cpp:139] Memory required for data: 862476000
I0504 17:38:33.615053 12188 layer_factory.hpp:77] Creating layer pool1
I0504 17:38:33.615059 12188 net.cpp:86] Creating Layer pool1
I0504 17:38:33.615062 12188 net.cpp:408] pool1 <- Sigmoid1
I0504 17:38:33.615067 12188 net.cpp:382] pool1 -> pool1
I0504 17:38:33.615818 12188 net.cpp:124] Setting up pool1
I0504 17:38:33.615830 12188 net.cpp:131] Top shape: 1000 72 9 9 (5832000)
I0504 17:38:33.615833 12188 net.cpp:139] Memory required for data: 885804000
I0504 17:38:33.615838 12188 layer_factory.hpp:77] Creating layer ip1
I0504 17:38:33.615862 12188 net.cpp:86] Creating Layer ip1
I0504 17:38:33.615866 12188 net.cpp:408] ip1 <- pool1
I0504 17:38:33.615880 12188 net.cpp:382] ip1 -> ip1
I0504 17:38:33.626139 12188 net.cpp:124] Setting up ip1
I0504 17:38:33.626152 12188 net.cpp:131] Top shape: 1000 60 (60000)
I0504 17:38:33.626155 12188 net.cpp:139] Memory required for data: 886044000
I0504 17:38:33.626164 12188 layer_factory.hpp:77] Creating layer relu1
I0504 17:38:33.626170 12188 net.cpp:86] Creating Layer relu1
I0504 17:38:33.626173 12188 net.cpp:408] relu1 <- ip1
I0504 17:38:33.626179 12188 net.cpp:369] relu1 -> ip1 (in-place)
I0504 17:38:33.626363 12188 net.cpp:124] Setting up relu1
I0504 17:38:33.626374 12188 net.cpp:131] Top shape: 1000 60 (60000)
I0504 17:38:33.626379 12188 net.cpp:139] Memory required for data: 886284000
I0504 17:38:33.626381 12188 layer_factory.hpp:77] Creating layer ip2
I0504 17:38:33.626389 12188 net.cpp:86] Creating Layer ip2
I0504 17:38:33.626392 12188 net.cpp:408] ip2 <- ip1
I0504 17:38:33.626399 12188 net.cpp:382] ip2 -> ip2
I0504 17:38:33.626600 12188 net.cpp:124] Setting up ip2
I0504 17:38:33.626606 12188 net.cpp:131] Top shape: 1000 60 (60000)
I0504 17:38:33.626610 12188 net.cpp:139] Memory required for data: 886524000
I0504 17:38:33.626615 12188 layer_factory.hpp:77] Creating layer relu2
I0504 17:38:33.626636 12188 net.cpp:86] Creating Layer relu2
I0504 17:38:33.626638 12188 net.cpp:408] relu2 <- ip2
I0504 17:38:33.626642 12188 net.cpp:369] relu2 -> ip2 (in-place)
I0504 17:38:33.626794 12188 net.cpp:124] Setting up relu2
I0504 17:38:33.626817 12188 net.cpp:131] Top shape: 1000 60 (60000)
I0504 17:38:33.626821 12188 net.cpp:139] Memory required for data: 886764000
I0504 17:38:33.626823 12188 layer_factory.hpp:77] Creating layer ip3
I0504 17:38:33.626830 12188 net.cpp:86] Creating Layer ip3
I0504 17:38:33.626833 12188 net.cpp:408] ip3 <- ip2
I0504 17:38:33.626837 12188 net.cpp:382] ip3 -> ip3
I0504 17:38:33.626966 12188 net.cpp:124] Setting up ip3
I0504 17:38:33.626973 12188 net.cpp:131] Top shape: 1000 10 (10000)
I0504 17:38:33.626986 12188 net.cpp:139] Memory required for data: 886804000
I0504 17:38:33.626994 12188 layer_factory.hpp:77] Creating layer ip3_ip3_0_split
I0504 17:38:33.627002 12188 net.cpp:86] Creating Layer ip3_ip3_0_split
I0504 17:38:33.627005 12188 net.cpp:408] ip3_ip3_0_split <- ip3
I0504 17:38:33.627009 12188 net.cpp:382] ip3_ip3_0_split -> ip3_ip3_0_split_0
I0504 17:38:33.627015 12188 net.cpp:382] ip3_ip3_0_split -> ip3_ip3_0_split_1
I0504 17:38:33.627050 12188 net.cpp:124] Setting up ip3_ip3_0_split
I0504 17:38:33.627055 12188 net.cpp:131] Top shape: 1000 10 (10000)
I0504 17:38:33.627059 12188 net.cpp:131] Top shape: 1000 10 (10000)
I0504 17:38:33.627061 12188 net.cpp:139] Memory required for data: 886884000
I0504 17:38:33.627064 12188 layer_factory.hpp:77] Creating layer accuracy
I0504 17:38:33.627070 12188 net.cpp:86] Creating Layer accuracy
I0504 17:38:33.627074 12188 net.cpp:408] accuracy <- ip3_ip3_0_split_0
I0504 17:38:33.627077 12188 net.cpp:408] accuracy <- label_cifar_1_split_0
I0504 17:38:33.627089 12188 net.cpp:382] accuracy -> accuracy
…
