…
I0504 00:34:37.832031  5731 net.cpp:296] The NetState phase (0) differed from the phase (1) specified by a rule in layer cifar
I0504 00:34:37.832046  5731 net.cpp:296] The NetState phase (0) differed from the phase (1) specified by a rule in layer accuracy
I0504 00:34:37.832134  5731 net.cpp:53] Initializing net from parameters: 
name: "CIFAR"
state {
  phase: TRAIN
  level: 0
  stage: ""
}
layer {
  name: "cifar"
  type: "Data"
  top: "data"
  top: "label"
  include {
    phase: TRAIN
  }
  transform_param {
    mean_file: "examples/cifar10/mean.binaryproto"
  }
  data_param {
    source: "examples/cifar10/cifar10_train_lmdb"
    batch_size: 111
    backend: LMDB
  }
}
layer {
  name: "conv0"
  type: "Convolution"
  bottom: "data"
  top: "conv0"
  param {
    lr_mult: 1
  }
  param {
    lr_mult: 2
  }
  convolution_param {
    num_output: 24
    pad: 2
    kernel_size: 5
    stride: 1
    weight_filler {
      type: "gaussian"
      std: 0.01
    }
    bias_filler {
      type: "constant"
    }
  }
}
layer {
  name: "Sigmoid0"
  type: "Sigmoid"
  bottom: "conv0"
  top: "Sigmoid0"
}
layer {
  name: "pool0"
  type: "Pooling"
  bottom: "Sigmoid0"
  top: "pool0"
  pooling_param {
    pool: AVE
    kernel_size: 3
    stride: 2
  }
}
layer {
  name: "ip1"
  type: "InnerProduct"
  bottom: "pool0"
  top: "ip1"
  param {
    lr_mult: 1
  }
  param {
    lr_mult: 2
  }
  inner_product_param {
    num_output: 180
    weight_filler {
      type: "gaussian"
      std: 0.01
    }
    bias_filler {
      type: "constant"
    }
  }
}
layer {
  name: "relu1"
  type: "ReLU"
  bottom: "ip1"
  top: "ip1"
}
layer {
  name: "ip2"
  type: "InnerProduct"
  bottom: "ip1"
  top: "ip2"
  param {
    lr_mult: 1
  }
  param {
    lr_mult: 2
  }
  inner_product_param {
    num_output: 60
    weight_filler {
      type: "gaussian"
      std: 0.01
    }
    bias_filler {
      type: "constant"
    }
  }
}
layer {
  name: "relu2"
  type: "ReLU"
  bottom: "ip2"
  top: "ip2"
}
layer {
  name: "ip3"
  type: "InnerProduct"
  bottom: "ip2"
  top: "ip3"
  param {
    lr_mult: 1
  }
  param {
    lr_mult: 2
  }
  inner_product_param {
    num_output: 10
    weight_filler {
      type: "gaussian"
      std: 0.01
    }
    bias_filler {
      type: "constant"
    }
  }
}
layer {
  name: "loss"
  type: "SoftmaxWithLoss"
  bottom: "ip3"
  bottom: "label"
  top: "loss"
}
I0504 00:34:37.832202  5731 layer_factory.hpp:77] Creating layer cifar
I0504 00:34:37.832304  5731 db_lmdb.cpp:35] Opened lmdb examples/cifar10/cifar10_train_lmdb
I0504 00:34:37.832331  5731 net.cpp:86] Creating Layer cifar
I0504 00:34:37.832341  5731 net.cpp:382] cifar -> data
I0504 00:34:37.832365  5731 net.cpp:382] cifar -> label
I0504 00:34:37.832378  5731 data_transformer.cpp:25] Loading mean file from: examples/cifar10/mean.binaryproto
I0504 00:34:37.834488  5731 data_layer.cpp:45] output data size: 111,3,32,32
I0504 00:34:37.842337  5731 net.cpp:124] Setting up cifar
I0504 00:34:37.842357  5731 net.cpp:131] Top shape: 111 3 32 32 (340992)
I0504 00:34:37.842363  5731 net.cpp:131] Top shape: 111 (111)
I0504 00:34:37.842367  5731 net.cpp:139] Memory required for data: 1364412
I0504 00:34:37.842376  5731 layer_factory.hpp:77] Creating layer conv0
I0504 00:34:37.842393  5731 net.cpp:86] Creating Layer conv0
I0504 00:34:37.842399  5731 net.cpp:408] conv0 <- data
I0504 00:34:37.842411  5731 net.cpp:382] conv0 -> conv0
I0504 00:34:38.132956  5731 net.cpp:124] Setting up conv0
I0504 00:34:38.133005  5731 net.cpp:131] Top shape: 111 24 32 32 (2727936)
I0504 00:34:38.133010  5731 net.cpp:139] Memory required for data: 12276156
I0504 00:34:38.133028  5731 layer_factory.hpp:77] Creating layer Sigmoid0
I0504 00:34:38.133041  5731 net.cpp:86] Creating Layer Sigmoid0
I0504 00:34:38.133045  5731 net.cpp:408] Sigmoid0 <- conv0
I0504 00:34:38.133052  5731 net.cpp:382] Sigmoid0 -> Sigmoid0
I0504 00:34:38.133256  5731 net.cpp:124] Setting up Sigmoid0
I0504 00:34:38.133268  5731 net.cpp:131] Top shape: 111 24 32 32 (2727936)
I0504 00:34:38.133288  5731 net.cpp:139] Memory required for data: 23187900
I0504 00:34:38.133291  5731 layer_factory.hpp:77] Creating layer pool0
I0504 00:34:38.133299  5731 net.cpp:86] Creating Layer pool0
I0504 00:34:38.133306  5731 net.cpp:408] pool0 <- Sigmoid0
I0504 00:34:38.133311  5731 net.cpp:382] pool0 -> pool0
I0504 00:34:38.134136  5731 net.cpp:124] Setting up pool0
I0504 00:34:38.134152  5731 net.cpp:131] Top shape: 111 24 16 16 (681984)
I0504 00:34:38.134156  5731 net.cpp:139] Memory required for data: 25915836
I0504 00:34:38.134160  5731 layer_factory.hpp:77] Creating layer ip1
I0504 00:34:38.134171  5731 net.cpp:86] Creating Layer ip1
I0504 00:34:38.134174  5731 net.cpp:408] ip1 <- pool0
I0504 00:34:38.134181  5731 net.cpp:382] ip1 -> ip1
I0504 00:34:38.167742  5731 net.cpp:124] Setting up ip1
I0504 00:34:38.167754  5731 net.cpp:131] Top shape: 111 180 (19980)
I0504 00:34:38.167758  5731 net.cpp:139] Memory required for data: 25995756
I0504 00:34:38.167767  5731 layer_factory.hpp:77] Creating layer relu1
I0504 00:34:38.167773  5731 net.cpp:86] Creating Layer relu1
I0504 00:34:38.167778  5731 net.cpp:408] relu1 <- ip1
I0504 00:34:38.167781  5731 net.cpp:369] relu1 -> ip1 (in-place)
I0504 00:34:38.167943  5731 net.cpp:124] Setting up relu1
I0504 00:34:38.167961  5731 net.cpp:131] Top shape: 111 180 (19980)
I0504 00:34:38.167964  5731 net.cpp:139] Memory required for data: 26075676
I0504 00:34:38.167968  5731 layer_factory.hpp:77] Creating layer ip2
I0504 00:34:38.167974  5731 net.cpp:86] Creating Layer ip2
I0504 00:34:38.167979  5731 net.cpp:408] ip2 <- ip1
I0504 00:34:38.167984  5731 net.cpp:382] ip2 -> ip2
I0504 00:34:38.169265  5731 net.cpp:124] Setting up ip2
I0504 00:34:38.169276  5731 net.cpp:131] Top shape: 111 60 (6660)
I0504 00:34:38.169281  5731 net.cpp:139] Memory required for data: 26102316
I0504 00:34:38.169288  5731 layer_factory.hpp:77] Creating layer relu2
I0504 00:34:38.169294  5731 net.cpp:86] Creating Layer relu2
I0504 00:34:38.169297  5731 net.cpp:408] relu2 <- ip2
I0504 00:34:38.169302  5731 net.cpp:369] relu2 -> ip2 (in-place)
I0504 00:34:38.169464  5731 net.cpp:124] Setting up relu2
I0504 00:34:38.169473  5731 net.cpp:131] Top shape: 111 60 (6660)
I0504 00:34:38.169477  5731 net.cpp:139] Memory required for data: 26128956
I0504 00:34:38.169481  5731 layer_factory.hpp:77] Creating layer ip3
I0504 00:34:38.169488  5731 net.cpp:86] Creating Layer ip3
I0504 00:34:38.169492  5731 net.cpp:408] ip3 <- ip2
I0504 00:34:38.169497  5731 net.cpp:382] ip3 -> ip3
I0504 00:34:38.169600  5731 net.cpp:124] Setting up ip3
I0504 00:34:38.169607  5731 net.cpp:131] Top shape: 111 10 (1110)
I0504 00:34:38.169610  5731 net.cpp:139] Memory required for data: 26133396
I0504 00:34:38.169615  5731 layer_factory.hpp:77] Creating layer loss
I0504 00:34:38.169620  5731 net.cpp:86] Creating Layer loss
I0504 00:34:38.169623  5731 net.cpp:408] loss <- ip3
I0504 00:34:38.169627  5731 net.cpp:408] loss <- label
I0504 00:34:38.169633  5731 net.cpp:382] loss -> loss
I0504 00:34:38.169651  5731 layer_factory.hpp:77] Creating layer loss
…
I0504 00:34:38.170284  5731 solver.cpp:173] Creating test net (#0) specified by net file: ECE595/cifar/train_test/var_everything_tiny/cifar_train_test_22.prototxt
I0504 00:34:38.170308  5731 net.cpp:296] The NetState phase (1) differed from the phase (0) specified by a rule in layer cifar
I0504 00:34:38.170392  5731 net.cpp:53] Initializing net from parameters: 
name: "CIFAR"
state {
  phase: TEST
}
layer {
  name: "cifar"
  type: "Data"
  top: "data"
  top: "label"
  include {
    phase: TEST
  }
  transform_param {
    mean_file: "examples/cifar10/mean.binaryproto"
  }
  data_param {
    source: "examples/cifar10/cifar10_test_lmdb"
    batch_size: 1000
    backend: LMDB
  }
}
layer {
  name: "conv0"
  type: "Convolution"
  bottom: "data"
  top: "conv0"
  param {
    lr_mult: 1
  }
  param {
    lr_mult: 2
  }
  convolution_param {
    num_output: 24
    pad: 2
    kernel_size: 5
    stride: 1
    weight_filler {
      type: "gaussian"
      std: 0.01
    }
    bias_filler {
      type: "constant"
    }
  }
}
layer {
  name: "Sigmoid0"
  type: "Sigmoid"
  bottom: "conv0"
  top: "Sigmoid0"
}
layer {
  name: "pool0"
  type: "Pooling"
  bottom: "Sigmoid0"
  top: "pool0"
  pooling_param {
    pool: AVE
    kernel_size: 3
    stride: 2
  }
}
layer {
  name: "ip1"
  type: "InnerProduct"
  bottom: "pool0"
  top: "ip1"
  param {
    lr_mult: 1
  }
  param {
    lr_mult: 2
  }
  inner_product_param {
    num_output: 180
    weight_filler {
      type: "gaussian"
      std: 0.01
    }
    bias_filler {
      type: "constant"
    }
  }
}
layer {
  name: "relu1"
  type: "ReLU"
  bottom: "ip1"
  top: "ip1"
}
layer {
  name: "ip2"
  type: "InnerProduct"
  bottom: "ip1"
  top: "ip2"
  param {
    lr_mult: 1
  }
  param {
    lr_mult: 2
  }
  inner_product_param {
    num_output: 60
    weight_filler {
      type: "gaussian"
      std: 0.01
    }
    bias_filler {
      type: "constant"
    }
  }
}
layer {
  name: "relu2"
  type: "ReLU"
  bottom: "ip2"
  top: "ip2"
}
layer {
  name: "ip3"
  type: "InnerProduct"
  bottom: "ip2"
  top: "ip3"
  param {
    lr_mult: 1
  }
  param {
    lr_mult: 2
  }
  inner_product_param {
    num_output: 10
    weight_filler {
      type: "gaussian"
      std: 0.01
    }
    bias_filler {
      type: "constant"
    }
  }
}
layer {
  name: "accuracy"
  type: "Accuracy"
  bottom: "ip3"
  bottom: "label"
  top: "accuracy"
  include {
    phase: TEST
  }
}
layer {
  name: "loss"
  type: "SoftmaxWithLoss"
  bottom: "ip3"
  bottom: "label"
  top: "loss"
}
I0504 00:34:38.170454  5731 layer_factory.hpp:77] Creating layer cifar
I0504 00:34:38.170498  5731 db_lmdb.cpp:35] Opened lmdb examples/cifar10/cifar10_test_lmdb
I0504 00:34:38.170511  5731 net.cpp:86] Creating Layer cifar
I0504 00:34:38.170518  5731 net.cpp:382] cifar -> data
I0504 00:34:38.170542  5731 net.cpp:382] cifar -> label
I0504 00:34:38.170548  5731 data_transformer.cpp:25] Loading mean file from: examples/cifar10/mean.binaryproto
I0504 00:34:38.170694  5731 data_layer.cpp:45] output data size: 1000,3,32,32
I0504 00:34:38.192775  5731 net.cpp:124] Setting up cifar
I0504 00:34:38.192802  5731 net.cpp:131] Top shape: 1000 3 32 32 (3072000)
I0504 00:34:38.192831  5731 net.cpp:131] Top shape: 1000 (1000)
I0504 00:34:38.192836  5731 net.cpp:139] Memory required for data: 12292000
I0504 00:34:38.192858  5731 layer_factory.hpp:77] Creating layer label_cifar_1_split
I0504 00:34:38.192909  5731 net.cpp:86] Creating Layer label_cifar_1_split
I0504 00:34:38.192914  5731 net.cpp:408] label_cifar_1_split <- label
I0504 00:34:38.192920  5731 net.cpp:382] label_cifar_1_split -> label_cifar_1_split_0
I0504 00:34:38.192935  5731 net.cpp:382] label_cifar_1_split -> label_cifar_1_split_1
I0504 00:34:38.192991  5731 net.cpp:124] Setting up label_cifar_1_split
I0504 00:34:38.192999  5731 net.cpp:131] Top shape: 1000 (1000)
I0504 00:34:38.193003  5731 net.cpp:131] Top shape: 1000 (1000)
I0504 00:34:38.193006  5731 net.cpp:139] Memory required for data: 12300000
I0504 00:34:38.193011  5731 layer_factory.hpp:77] Creating layer conv0
I0504 00:34:38.193023  5731 net.cpp:86] Creating Layer conv0
I0504 00:34:38.193028  5731 net.cpp:408] conv0 <- data
I0504 00:34:38.193034  5731 net.cpp:382] conv0 -> conv0
I0504 00:34:38.194690  5731 net.cpp:124] Setting up conv0
I0504 00:34:38.194705  5731 net.cpp:131] Top shape: 1000 24 32 32 (24576000)
I0504 00:34:38.194725  5731 net.cpp:139] Memory required for data: 110604000
I0504 00:34:38.194735  5731 layer_factory.hpp:77] Creating layer Sigmoid0
I0504 00:34:38.194741  5731 net.cpp:86] Creating Layer Sigmoid0
I0504 00:34:38.194744  5731 net.cpp:408] Sigmoid0 <- conv0
I0504 00:34:38.194748  5731 net.cpp:382] Sigmoid0 -> Sigmoid0
I0504 00:34:38.195667  5731 net.cpp:124] Setting up Sigmoid0
I0504 00:34:38.195694  5731 net.cpp:131] Top shape: 1000 24 32 32 (24576000)
I0504 00:34:38.195698  5731 net.cpp:139] Memory required for data: 208908000
I0504 00:34:38.195701  5731 layer_factory.hpp:77] Creating layer pool0
I0504 00:34:38.195710  5731 net.cpp:86] Creating Layer pool0
I0504 00:34:38.195713  5731 net.cpp:408] pool0 <- Sigmoid0
I0504 00:34:38.195719  5731 net.cpp:382] pool0 -> pool0
I0504 00:34:38.196907  5731 net.cpp:124] Setting up pool0
I0504 00:34:38.196933  5731 net.cpp:131] Top shape: 1000 24 16 16 (6144000)
I0504 00:34:38.196938  5731 net.cpp:139] Memory required for data: 233484000
I0504 00:34:38.196940  5731 layer_factory.hpp:77] Creating layer ip1
I0504 00:34:38.196949  5731 net.cpp:86] Creating Layer ip1
I0504 00:34:38.196954  5731 net.cpp:408] ip1 <- pool0
I0504 00:34:38.196959  5731 net.cpp:382] ip1 -> ip1
I0504 00:34:38.227821  5731 net.cpp:124] Setting up ip1
I0504 00:34:38.227855  5731 net.cpp:131] Top shape: 1000 180 (180000)
I0504 00:34:38.227859  5731 net.cpp:139] Memory required for data: 234204000
I0504 00:34:38.227870  5731 layer_factory.hpp:77] Creating layer relu1
I0504 00:34:38.227880  5731 net.cpp:86] Creating Layer relu1
I0504 00:34:38.227883  5731 net.cpp:408] relu1 <- ip1
I0504 00:34:38.227890  5731 net.cpp:369] relu1 -> ip1 (in-place)
I0504 00:34:38.228114  5731 net.cpp:124] Setting up relu1
I0504 00:34:38.228139  5731 net.cpp:131] Top shape: 1000 180 (180000)
I0504 00:34:38.228143  5731 net.cpp:139] Memory required for data: 234924000
I0504 00:34:38.228147  5731 layer_factory.hpp:77] Creating layer ip2
I0504 00:34:38.228155  5731 net.cpp:86] Creating Layer ip2
I0504 00:34:38.228160  5731 net.cpp:408] ip2 <- ip1
I0504 00:34:38.228183  5731 net.cpp:382] ip2 -> ip2
I0504 00:34:38.228649  5731 net.cpp:124] Setting up ip2
I0504 00:34:38.228658  5731 net.cpp:131] Top shape: 1000 60 (60000)
I0504 00:34:38.228672  5731 net.cpp:139] Memory required for data: 235164000
I0504 00:34:38.228682  5731 layer_factory.hpp:77] Creating layer relu2
I0504 00:34:38.228688  5731 net.cpp:86] Creating Layer relu2
I0504 00:34:38.228690  5731 net.cpp:408] relu2 <- ip2
I0504 00:34:38.228694  5731 net.cpp:369] relu2 -> ip2 (in-place)
I0504 00:34:38.228893  5731 net.cpp:124] Setting up relu2
I0504 00:34:38.228902  5731 net.cpp:131] Top shape: 1000 60 (60000)
I0504 00:34:38.228906  5731 net.cpp:139] Memory required for data: 235404000
I0504 00:34:38.228909  5731 layer_factory.hpp:77] Creating layer ip3
I0504 00:34:38.228916  5731 net.cpp:86] Creating Layer ip3
I0504 00:34:38.228919  5731 net.cpp:408] ip3 <- ip2
I0504 00:34:38.228925  5731 net.cpp:382] ip3 -> ip3
I0504 00:34:38.229079  5731 net.cpp:124] Setting up ip3
I0504 00:34:38.229087  5731 net.cpp:131] Top shape: 1000 10 (10000)
I0504 00:34:38.229102  5731 net.cpp:139] Memory required for data: 235444000
I0504 00:34:38.229110  5731 layer_factory.hpp:77] Creating layer ip3_ip3_0_split
I0504 00:34:38.229115  5731 net.cpp:86] Creating Layer ip3_ip3_0_split
I0504 00:34:38.229120  5731 net.cpp:408] ip3_ip3_0_split <- ip3
I0504 00:34:38.229125  5731 net.cpp:382] ip3_ip3_0_split -> ip3_ip3_0_split_0
I0504 00:34:38.229130  5731 net.cpp:382] ip3_ip3_0_split -> ip3_ip3_0_split_1
I0504 00:34:38.229166  5731 net.cpp:124] Setting up ip3_ip3_0_split
I0504 00:34:38.229172  5731 net.cpp:131] Top shape: 1000 10 (10000)
I0504 00:34:38.229176  5731 net.cpp:131] Top shape: 1000 10 (10000)
I0504 00:34:38.229179  5731 net.cpp:139] Memory required for data: 235524000
I0504 00:34:38.229182  5731 layer_factory.hpp:77] Creating layer accuracy
I0504 00:34:38.229189  5731 net.cpp:86] Creating Layer accuracy
I0504 00:34:38.229194  5731 net.cpp:408] accuracy <- ip3_ip3_0_split_0
I0504 00:34:38.229198  5731 net.cpp:408] accuracy <- label_cifar_1_split_0
I0504 00:34:38.229204  5731 net.cpp:382] accuracy -> accuracy
…
