…
I0504 08:27:46.428143 21858 net.cpp:296] The NetState phase (0) differed from the phase (1) specified by a rule in layer cifar
I0504 08:27:46.428161 21858 net.cpp:296] The NetState phase (0) differed from the phase (1) specified by a rule in layer accuracy
I0504 08:27:46.428270 21858 net.cpp:53] Initializing net from parameters: 
name: "CIFAR"
state {
  phase: TRAIN
  level: 0
  stage: ""
}
layer {
  name: "cifar"
  type: "Data"
  top: "data"
  top: "label"
  include {
    phase: TRAIN
  }
  transform_param {
    mean_file: "examples/cifar10/mean.binaryproto"
  }
  data_param {
    source: "examples/cifar10/cifar10_train_lmdb"
    batch_size: 111
    backend: LMDB
  }
}
layer {
  name: "conv0"
  type: "Convolution"
  bottom: "data"
  top: "conv0"
  param {
    lr_mult: 1
  }
  param {
    lr_mult: 2
  }
  convolution_param {
    num_output: 24
    pad: 2
    kernel_size: 5
    stride: 1
    weight_filler {
      type: "gaussian"
      std: 0.01
    }
    bias_filler {
      type: "constant"
    }
  }
}
layer {
  name: "Sigmoid0"
  type: "Sigmoid"
  bottom: "conv0"
  top: "Sigmoid0"
}
layer {
  name: "pool0"
  type: "Pooling"
  bottom: "Sigmoid0"
  top: "pool0"
  pooling_param {
    pool: AVE
    kernel_size: 3
    stride: 2
  }
}
layer {
  name: "conv1"
  type: "Convolution"
  bottom: "pool0"
  top: "conv1"
  param {
    lr_mult: 1
  }
  param {
    lr_mult: 2
  }
  convolution_param {
    num_output: 24
    pad: 2
    kernel_size: 5
    stride: 1
    weight_filler {
      type: "gaussian"
      std: 0.01
    }
    bias_filler {
      type: "constant"
    }
  }
}
layer {
  name: "Sigmoid1"
  type: "Sigmoid"
  bottom: "conv1"
  top: "Sigmoid1"
}
layer {
  name: "pool1"
  type: "Pooling"
  bottom: "Sigmoid1"
  top: "pool1"
  pooling_param {
    pool: AVE
    kernel_size: 3
    stride: 2
  }
}
layer {
  name: "ip1"
  type: "InnerProduct"
  bottom: "pool1"
  top: "ip1"
  param {
    lr_mult: 1
  }
  param {
    lr_mult: 2
  }
  inner_product_param {
    num_output: 60
    weight_filler {
      type: "gaussian"
      std: 0.01
    }
    bias_filler {
      type: "constant"
    }
  }
}
layer {
  name: "relu1"
  type: "ReLU"
  bottom: "ip1"
  top: "ip1"
}
layer {
  name: "ip2"
  type: "InnerProduct"
  bottom: "ip1"
  top: "ip2"
  param {
    lr_mult: 1
  }
  param {
    lr_mult: 2
  }
  inner_product_param {
    num_output: 10
    weight_filler {
      type: "gaussian"
      std: 0.01
    }
    bias_filler {
      type: "constant"
    }
  }
}
layer {
  name: "relu2"
  type: "ReLU"
  bottom: "ip2"
  top: "ip2"
}
layer {
  name: "ip3"
  type: "InnerProduct"
  bottom: "ip2"
  top: "ip3"
  param {
    lr_mult: 1
  }
  param {
    lr_mult: 2
  }
  inner_product_param {
    num_output: 10
    weight_filler {
      type: "gaussian"
      std: 0.01
    }
    bias_filler {
      type: "constant"
    }
  }
}
layer {
  name: "loss"
  type: "SoftmaxWithLoss"
  bottom: "ip3"
  bottom: "label"
  top: "loss"
}
I0504 08:27:46.428359 21858 layer_factory.hpp:77] Creating layer cifar
I0504 08:27:46.428462 21858 db_lmdb.cpp:35] Opened lmdb examples/cifar10/cifar10_train_lmdb
I0504 08:27:46.428491 21858 net.cpp:86] Creating Layer cifar
I0504 08:27:46.428501 21858 net.cpp:382] cifar -> data
I0504 08:27:46.428524 21858 net.cpp:382] cifar -> label
I0504 08:27:46.428539 21858 data_transformer.cpp:25] Loading mean file from: examples/cifar10/mean.binaryproto
I0504 08:27:46.430727 21858 data_layer.cpp:45] output data size: 111,3,32,32
I0504 08:27:46.438794 21858 net.cpp:124] Setting up cifar
I0504 08:27:46.438813 21858 net.cpp:131] Top shape: 111 3 32 32 (340992)
I0504 08:27:46.438822 21858 net.cpp:131] Top shape: 111 (111)
I0504 08:27:46.438827 21858 net.cpp:139] Memory required for data: 1364412
I0504 08:27:46.438834 21858 layer_factory.hpp:77] Creating layer conv0
I0504 08:27:46.438851 21858 net.cpp:86] Creating Layer conv0
I0504 08:27:46.438858 21858 net.cpp:408] conv0 <- data
I0504 08:27:46.438871 21858 net.cpp:382] conv0 -> conv0
I0504 08:27:46.733461 21858 net.cpp:124] Setting up conv0
I0504 08:27:46.733494 21858 net.cpp:131] Top shape: 111 24 32 32 (2727936)
I0504 08:27:46.733499 21858 net.cpp:139] Memory required for data: 12276156
I0504 08:27:46.733516 21858 layer_factory.hpp:77] Creating layer Sigmoid0
I0504 08:27:46.733530 21858 net.cpp:86] Creating Layer Sigmoid0
I0504 08:27:46.733536 21858 net.cpp:408] Sigmoid0 <- conv0
I0504 08:27:46.733542 21858 net.cpp:382] Sigmoid0 -> Sigmoid0
I0504 08:27:46.733757 21858 net.cpp:124] Setting up Sigmoid0
I0504 08:27:46.733768 21858 net.cpp:131] Top shape: 111 24 32 32 (2727936)
I0504 08:27:46.733772 21858 net.cpp:139] Memory required for data: 23187900
I0504 08:27:46.733777 21858 layer_factory.hpp:77] Creating layer pool0
I0504 08:27:46.733784 21858 net.cpp:86] Creating Layer pool0
I0504 08:27:46.733788 21858 net.cpp:408] pool0 <- Sigmoid0
I0504 08:27:46.733794 21858 net.cpp:382] pool0 -> pool0
I0504 08:27:46.734683 21858 net.cpp:124] Setting up pool0
I0504 08:27:46.734699 21858 net.cpp:131] Top shape: 111 24 16 16 (681984)
I0504 08:27:46.734704 21858 net.cpp:139] Memory required for data: 25915836
I0504 08:27:46.734709 21858 layer_factory.hpp:77] Creating layer conv1
I0504 08:27:46.734724 21858 net.cpp:86] Creating Layer conv1
I0504 08:27:46.734727 21858 net.cpp:408] conv1 <- pool0
I0504 08:27:46.734735 21858 net.cpp:382] conv1 -> conv1
I0504 08:27:46.738371 21858 net.cpp:124] Setting up conv1
I0504 08:27:46.738389 21858 net.cpp:131] Top shape: 111 24 16 16 (681984)
I0504 08:27:46.738394 21858 net.cpp:139] Memory required for data: 28643772
I0504 08:27:46.738404 21858 layer_factory.hpp:77] Creating layer Sigmoid1
I0504 08:27:46.738411 21858 net.cpp:86] Creating Layer Sigmoid1
I0504 08:27:46.738415 21858 net.cpp:408] Sigmoid1 <- conv1
I0504 08:27:46.738421 21858 net.cpp:382] Sigmoid1 -> Sigmoid1
I0504 08:27:46.738626 21858 net.cpp:124] Setting up Sigmoid1
I0504 08:27:46.738636 21858 net.cpp:131] Top shape: 111 24 16 16 (681984)
I0504 08:27:46.738641 21858 net.cpp:139] Memory required for data: 31371708
I0504 08:27:46.738644 21858 layer_factory.hpp:77] Creating layer pool1
I0504 08:27:46.738651 21858 net.cpp:86] Creating Layer pool1
I0504 08:27:46.738656 21858 net.cpp:408] pool1 <- Sigmoid1
I0504 08:27:46.738662 21858 net.cpp:382] pool1 -> pool1
I0504 08:27:46.738857 21858 net.cpp:124] Setting up pool1
I0504 08:27:46.738867 21858 net.cpp:131] Top shape: 111 24 8 8 (170496)
I0504 08:27:46.738870 21858 net.cpp:139] Memory required for data: 32053692
I0504 08:27:46.738874 21858 layer_factory.hpp:77] Creating layer ip1
I0504 08:27:46.738883 21858 net.cpp:86] Creating Layer ip1
I0504 08:27:46.738888 21858 net.cpp:408] ip1 <- pool1
I0504 08:27:46.738893 21858 net.cpp:382] ip1 -> ip1
I0504 08:27:46.742076 21858 net.cpp:124] Setting up ip1
I0504 08:27:46.742087 21858 net.cpp:131] Top shape: 111 60 (6660)
I0504 08:27:46.742091 21858 net.cpp:139] Memory required for data: 32080332
I0504 08:27:46.742101 21858 layer_factory.hpp:77] Creating layer relu1
I0504 08:27:46.742108 21858 net.cpp:86] Creating Layer relu1
I0504 08:27:46.742112 21858 net.cpp:408] relu1 <- ip1
I0504 08:27:46.742118 21858 net.cpp:369] relu1 -> ip1 (in-place)
I0504 08:27:46.742300 21858 net.cpp:124] Setting up relu1
I0504 08:27:46.742310 21858 net.cpp:131] Top shape: 111 60 (6660)
I0504 08:27:46.742313 21858 net.cpp:139] Memory required for data: 32106972
I0504 08:27:46.742316 21858 layer_factory.hpp:77] Creating layer ip2
I0504 08:27:46.742324 21858 net.cpp:86] Creating Layer ip2
I0504 08:27:46.742327 21858 net.cpp:408] ip2 <- ip1
I0504 08:27:46.742350 21858 net.cpp:382] ip2 -> ip2
I0504 08:27:46.742491 21858 net.cpp:124] Setting up ip2
I0504 08:27:46.742501 21858 net.cpp:131] Top shape: 111 10 (1110)
I0504 08:27:46.742504 21858 net.cpp:139] Memory required for data: 32111412
I0504 08:27:46.742511 21858 layer_factory.hpp:77] Creating layer relu2
I0504 08:27:46.742516 21858 net.cpp:86] Creating Layer relu2
I0504 08:27:46.742521 21858 net.cpp:408] relu2 <- ip2
I0504 08:27:46.742525 21858 net.cpp:369] relu2 -> ip2 (in-place)
I0504 08:27:46.743379 21858 net.cpp:124] Setting up relu2
I0504 08:27:46.743394 21858 net.cpp:131] Top shape: 111 10 (1110)
I0504 08:27:46.743398 21858 net.cpp:139] Memory required for data: 32115852
I0504 08:27:46.743402 21858 layer_factory.hpp:77] Creating layer ip3
I0504 08:27:46.743412 21858 net.cpp:86] Creating Layer ip3
I0504 08:27:46.743415 21858 net.cpp:408] ip3 <- ip2
I0504 08:27:46.743423 21858 net.cpp:382] ip3 -> ip3
I0504 08:27:46.743551 21858 net.cpp:124] Setting up ip3
I0504 08:27:46.743561 21858 net.cpp:131] Top shape: 111 10 (1110)
I0504 08:27:46.743566 21858 net.cpp:139] Memory required for data: 32120292
I0504 08:27:46.743576 21858 layer_factory.hpp:77] Creating layer loss
I0504 08:27:46.743582 21858 net.cpp:86] Creating Layer loss
I0504 08:27:46.743585 21858 net.cpp:408] loss <- ip3
I0504 08:27:46.743590 21858 net.cpp:408] loss <- label
I0504 08:27:46.743597 21858 net.cpp:382] loss -> loss
I0504 08:27:46.743616 21858 layer_factory.hpp:77] Creating layer loss
…
I0504 08:27:46.744398 21858 solver.cpp:173] Creating test net (#0) specified by net file: ECE595/cifar/train_test/var_everything_tiny/cifar_train_test_102.prototxt
I0504 08:27:46.744431 21858 net.cpp:296] The NetState phase (1) differed from the phase (0) specified by a rule in layer cifar
I0504 08:27:46.744555 21858 net.cpp:53] Initializing net from parameters: 
name: "CIFAR"
state {
  phase: TEST
}
layer {
  name: "cifar"
  type: "Data"
  top: "data"
  top: "label"
  include {
    phase: TEST
  }
  transform_param {
    mean_file: "examples/cifar10/mean.binaryproto"
  }
  data_param {
    source: "examples/cifar10/cifar10_test_lmdb"
    batch_size: 1000
    backend: LMDB
  }
}
layer {
  name: "conv0"
  type: "Convolution"
  bottom: "data"
  top: "conv0"
  param {
    lr_mult: 1
  }
  param {
    lr_mult: 2
  }
  convolution_param {
    num_output: 24
    pad: 2
    kernel_size: 5
    stride: 1
    weight_filler {
      type: "gaussian"
      std: 0.01
    }
    bias_filler {
      type: "constant"
    }
  }
}
layer {
  name: "Sigmoid0"
  type: "Sigmoid"
  bottom: "conv0"
  top: "Sigmoid0"
}
layer {
  name: "pool0"
  type: "Pooling"
  bottom: "Sigmoid0"
  top: "pool0"
  pooling_param {
    pool: AVE
    kernel_size: 3
    stride: 2
  }
}
layer {
  name: "conv1"
  type: "Convolution"
  bottom: "pool0"
  top: "conv1"
  param {
    lr_mult: 1
  }
  param {
    lr_mult: 2
  }
  convolution_param {
    num_output: 24
    pad: 2
    kernel_size: 5
    stride: 1
    weight_filler {
      type: "gaussian"
      std: 0.01
    }
    bias_filler {
      type: "constant"
    }
  }
}
layer {
  name: "Sigmoid1"
  type: "Sigmoid"
  bottom: "conv1"
  top: "Sigmoid1"
}
layer {
  name: "pool1"
  type: "Pooling"
  bottom: "Sigmoid1"
  top: "pool1"
  pooling_param {
    pool: AVE
    kernel_size: 3
    stride: 2
  }
}
layer {
  name: "ip1"
  type: "InnerProduct"
  bottom: "pool1"
  top: "ip1"
  param {
    lr_mult: 1
  }
  param {
    lr_mult: 2
  }
  inner_product_param {
    num_output: 60
    weight_filler {
      type: "gaussian"
      std: 0.01
    }
    bias_filler {
      type: "constant"
    }
  }
}
layer {
  name: "relu1"
  type: "ReLU"
  bottom: "ip1"
  top: "ip1"
}
layer {
  name: "ip2"
  type: "InnerProduct"
  bottom: "ip1"
  top: "ip2"
  param {
    lr_mult: 1
  }
  param {
    lr_mult: 2
  }
  inner_product_param {
    num_output: 10
    weight_filler {
      type: "gaussian"
      std: 0.01
    }
    bias_filler {
      type: "constant"
    }
  }
}
layer {
  name: "relu2"
  type: "ReLU"
  bottom: "ip2"
  top: "ip2"
}
layer {
  name: "ip3"
  type: "InnerProduct"
  bottom: "ip2"
  top: "ip3"
  param {
    lr_mult: 1
  }
  param {
    lr_mult: 2
  }
  inner_product_param {
    num_output: 10
    weight_filler {
      type: "gaussian"
      std: 0.01
    }
    bias_filler {
      type: "constant"
    }
  }
}
layer {
  name: "accuracy"
  type: "Accuracy"
  bottom: "ip3"
  bottom: "label"
  top: "accuracy"
  include {
    phase: TEST
  }
}
layer {
  name: "loss"
  type: "SoftmaxWithLoss"
  bottom: "ip3"
  bottom: "label"
  top: "loss"
}
I0504 08:27:46.744655 21858 layer_factory.hpp:77] Creating layer cifar
I0504 08:27:46.744707 21858 db_lmdb.cpp:35] Opened lmdb examples/cifar10/cifar10_test_lmdb
I0504 08:27:46.744721 21858 net.cpp:86] Creating Layer cifar
I0504 08:27:46.744727 21858 net.cpp:382] cifar -> data
I0504 08:27:46.744736 21858 net.cpp:382] cifar -> label
I0504 08:27:46.744745 21858 data_transformer.cpp:25] Loading mean file from: examples/cifar10/mean.binaryproto
I0504 08:27:46.744928 21858 data_layer.cpp:45] output data size: 1000,3,32,32
I0504 08:27:46.770445 21858 net.cpp:124] Setting up cifar
I0504 08:27:46.770473 21858 net.cpp:131] Top shape: 1000 3 32 32 (3072000)
I0504 08:27:46.770480 21858 net.cpp:131] Top shape: 1000 (1000)
I0504 08:27:46.770484 21858 net.cpp:139] Memory required for data: 12292000
I0504 08:27:46.770489 21858 layer_factory.hpp:77] Creating layer label_cifar_1_split
I0504 08:27:46.770506 21858 net.cpp:86] Creating Layer label_cifar_1_split
I0504 08:27:46.770511 21858 net.cpp:408] label_cifar_1_split <- label
I0504 08:27:46.770519 21858 net.cpp:382] label_cifar_1_split -> label_cifar_1_split_0
I0504 08:27:46.770529 21858 net.cpp:382] label_cifar_1_split -> label_cifar_1_split_1
I0504 08:27:46.770645 21858 net.cpp:124] Setting up label_cifar_1_split
I0504 08:27:46.770654 21858 net.cpp:131] Top shape: 1000 (1000)
I0504 08:27:46.770658 21858 net.cpp:131] Top shape: 1000 (1000)
I0504 08:27:46.770661 21858 net.cpp:139] Memory required for data: 12300000
I0504 08:27:46.770665 21858 layer_factory.hpp:77] Creating layer conv0
I0504 08:27:46.770678 21858 net.cpp:86] Creating Layer conv0
I0504 08:27:46.770681 21858 net.cpp:408] conv0 <- data
I0504 08:27:46.770689 21858 net.cpp:382] conv0 -> conv0
I0504 08:27:46.773418 21858 net.cpp:124] Setting up conv0
I0504 08:27:46.773435 21858 net.cpp:131] Top shape: 1000 24 32 32 (24576000)
I0504 08:27:46.773440 21858 net.cpp:139] Memory required for data: 110604000
I0504 08:27:46.773450 21858 layer_factory.hpp:77] Creating layer Sigmoid0
I0504 08:27:46.773458 21858 net.cpp:86] Creating Layer Sigmoid0
I0504 08:27:46.773463 21858 net.cpp:408] Sigmoid0 <- conv0
I0504 08:27:46.773468 21858 net.cpp:382] Sigmoid0 -> Sigmoid0
I0504 08:27:46.773664 21858 net.cpp:124] Setting up Sigmoid0
I0504 08:27:46.773689 21858 net.cpp:131] Top shape: 1000 24 32 32 (24576000)
I0504 08:27:46.773692 21858 net.cpp:139] Memory required for data: 208908000
I0504 08:27:46.773696 21858 layer_factory.hpp:77] Creating layer pool0
I0504 08:27:46.773705 21858 net.cpp:86] Creating Layer pool0
I0504 08:27:46.773708 21858 net.cpp:408] pool0 <- Sigmoid0
I0504 08:27:46.773713 21858 net.cpp:382] pool0 -> pool0
I0504 08:27:46.773895 21858 net.cpp:124] Setting up pool0
I0504 08:27:46.773903 21858 net.cpp:131] Top shape: 1000 24 16 16 (6144000)
I0504 08:27:46.773907 21858 net.cpp:139] Memory required for data: 233484000
I0504 08:27:46.773910 21858 layer_factory.hpp:77] Creating layer conv1
I0504 08:27:46.773921 21858 net.cpp:86] Creating Layer conv1
I0504 08:27:46.773923 21858 net.cpp:408] conv1 <- pool0
I0504 08:27:46.773929 21858 net.cpp:382] conv1 -> conv1
I0504 08:27:46.775781 21858 net.cpp:124] Setting up conv1
I0504 08:27:46.775797 21858 net.cpp:131] Top shape: 1000 24 16 16 (6144000)
I0504 08:27:46.775801 21858 net.cpp:139] Memory required for data: 258060000
I0504 08:27:46.775810 21858 layer_factory.hpp:77] Creating layer Sigmoid1
I0504 08:27:46.775817 21858 net.cpp:86] Creating Layer Sigmoid1
I0504 08:27:46.775821 21858 net.cpp:408] Sigmoid1 <- conv1
I0504 08:27:46.775826 21858 net.cpp:382] Sigmoid1 -> Sigmoid1
I0504 08:27:46.776010 21858 net.cpp:124] Setting up Sigmoid1
I0504 08:27:46.776020 21858 net.cpp:131] Top shape: 1000 24 16 16 (6144000)
I0504 08:27:46.776023 21858 net.cpp:139] Memory required for data: 282636000
I0504 08:27:46.776026 21858 layer_factory.hpp:77] Creating layer pool1
I0504 08:27:46.776032 21858 net.cpp:86] Creating Layer pool1
I0504 08:27:46.776036 21858 net.cpp:408] pool1 <- Sigmoid1
I0504 08:27:46.776041 21858 net.cpp:382] pool1 -> pool1
I0504 08:27:46.776871 21858 net.cpp:124] Setting up pool1
I0504 08:27:46.776885 21858 net.cpp:131] Top shape: 1000 24 8 8 (1536000)
I0504 08:27:46.776890 21858 net.cpp:139] Memory required for data: 288780000
I0504 08:27:46.776893 21858 layer_factory.hpp:77] Creating layer ip1
I0504 08:27:46.776903 21858 net.cpp:86] Creating Layer ip1
I0504 08:27:46.776907 21858 net.cpp:408] ip1 <- pool1
I0504 08:27:46.776913 21858 net.cpp:382] ip1 -> ip1
I0504 08:27:46.779837 21858 net.cpp:124] Setting up ip1
I0504 08:27:46.779847 21858 net.cpp:131] Top shape: 1000 60 (60000)
I0504 08:27:46.779850 21858 net.cpp:139] Memory required for data: 289020000
I0504 08:27:46.779860 21858 layer_factory.hpp:77] Creating layer relu1
I0504 08:27:46.779865 21858 net.cpp:86] Creating Layer relu1
I0504 08:27:46.779870 21858 net.cpp:408] relu1 <- ip1
I0504 08:27:46.779875 21858 net.cpp:369] relu1 -> ip1 (in-place)
I0504 08:27:46.780043 21858 net.cpp:124] Setting up relu1
I0504 08:27:46.780053 21858 net.cpp:131] Top shape: 1000 60 (60000)
I0504 08:27:46.780057 21858 net.cpp:139] Memory required for data: 289260000
I0504 08:27:46.780061 21858 layer_factory.hpp:77] Creating layer ip2
I0504 08:27:46.780068 21858 net.cpp:86] Creating Layer ip2
I0504 08:27:46.780071 21858 net.cpp:408] ip2 <- ip1
I0504 08:27:46.780077 21858 net.cpp:382] ip2 -> ip2
I0504 08:27:46.780213 21858 net.cpp:124] Setting up ip2
I0504 08:27:46.780220 21858 net.cpp:131] Top shape: 1000 10 (10000)
I0504 08:27:46.780225 21858 net.cpp:139] Memory required for data: 289300000
I0504 08:27:46.780230 21858 layer_factory.hpp:77] Creating layer relu2
I0504 08:27:46.780236 21858 net.cpp:86] Creating Layer relu2
I0504 08:27:46.780239 21858 net.cpp:408] relu2 <- ip2
I0504 08:27:46.780243 21858 net.cpp:369] relu2 -> ip2 (in-place)
I0504 08:27:46.780413 21858 net.cpp:124] Setting up relu2
I0504 08:27:46.780422 21858 net.cpp:131] Top shape: 1000 10 (10000)
I0504 08:27:46.780426 21858 net.cpp:139] Memory required for data: 289340000
I0504 08:27:46.780429 21858 layer_factory.hpp:77] Creating layer ip3
I0504 08:27:46.780436 21858 net.cpp:86] Creating Layer ip3
I0504 08:27:46.780441 21858 net.cpp:408] ip3 <- ip2
I0504 08:27:46.780452 21858 net.cpp:382] ip3 -> ip3
I0504 08:27:46.780570 21858 net.cpp:124] Setting up ip3
I0504 08:27:46.780577 21858 net.cpp:131] Top shape: 1000 10 (10000)
I0504 08:27:46.780592 21858 net.cpp:139] Memory required for data: 289380000
I0504 08:27:46.780601 21858 layer_factory.hpp:77] Creating layer ip3_ip3_0_split
I0504 08:27:46.780607 21858 net.cpp:86] Creating Layer ip3_ip3_0_split
I0504 08:27:46.780611 21858 net.cpp:408] ip3_ip3_0_split <- ip3
I0504 08:27:46.780616 21858 net.cpp:382] ip3_ip3_0_split -> ip3_ip3_0_split_0
I0504 08:27:46.780622 21858 net.cpp:382] ip3_ip3_0_split -> ip3_ip3_0_split_1
I0504 08:27:46.780658 21858 net.cpp:124] Setting up ip3_ip3_0_split
I0504 08:27:46.780666 21858 net.cpp:131] Top shape: 1000 10 (10000)
I0504 08:27:46.780670 21858 net.cpp:131] Top shape: 1000 10 (10000)
I0504 08:27:46.780673 21858 net.cpp:139] Memory required for data: 289460000
I0504 08:27:46.780678 21858 layer_factory.hpp:77] Creating layer accuracy
I0504 08:27:46.780683 21858 net.cpp:86] Creating Layer accuracy
I0504 08:27:46.780686 21858 net.cpp:408] accuracy <- ip3_ip3_0_split_0
I0504 08:27:46.780691 21858 net.cpp:408] accuracy <- label_cifar_1_split_0
I0504 08:27:46.780696 21858 net.cpp:382] accuracy -> accuracy
…
