…
I0504 01:37:00.542783  7695 net.cpp:296] The NetState phase (0) differed from the phase (1) specified by a rule in layer cifar
I0504 01:37:00.542801  7695 net.cpp:296] The NetState phase (0) differed from the phase (1) specified by a rule in layer accuracy
I0504 01:37:00.542882  7695 net.cpp:53] Initializing net from parameters: 
name: "CIFAR"
state {
  phase: TRAIN
  level: 0
  stage: ""
}
layer {
  name: "cifar"
  type: "Data"
  top: "data"
  top: "label"
  include {
    phase: TRAIN
  }
  transform_param {
    mean_file: "examples/cifar10/mean.binaryproto"
  }
  data_param {
    source: "examples/cifar10/cifar10_train_lmdb"
    batch_size: 111
    backend: LMDB
  }
}
layer {
  name: "conv0"
  type: "Convolution"
  bottom: "data"
  top: "conv0"
  param {
    lr_mult: 1
  }
  param {
    lr_mult: 2
  }
  convolution_param {
    num_output: 72
    pad: 2
    kernel_size: 5
    stride: 1
    weight_filler {
      type: "gaussian"
      std: 0.01
    }
    bias_filler {
      type: "constant"
    }
  }
}
layer {
  name: "Sigmoid0"
  type: "Sigmoid"
  bottom: "conv0"
  top: "Sigmoid0"
}
layer {
  name: "pool0"
  type: "Pooling"
  bottom: "Sigmoid0"
  top: "pool0"
  pooling_param {
    pool: AVE
    kernel_size: 3
    stride: 2
  }
}
layer {
  name: "ip1"
  type: "InnerProduct"
  bottom: "pool0"
  top: "ip1"
  param {
    lr_mult: 1
  }
  param {
    lr_mult: 2
  }
  inner_product_param {
    num_output: 10
    weight_filler {
      type: "gaussian"
      std: 0.01
    }
    bias_filler {
      type: "constant"
    }
  }
}
layer {
  name: "relu1"
  type: "ReLU"
  bottom: "ip1"
  top: "ip1"
}
layer {
  name: "ip2"
  type: "InnerProduct"
  bottom: "ip1"
  top: "ip2"
  param {
    lr_mult: 1
  }
  param {
    lr_mult: 2
  }
  inner_product_param {
    num_output: 10
    weight_filler {
      type: "gaussian"
      std: 0.01
    }
    bias_filler {
      type: "constant"
    }
  }
}
layer {
  name: "loss"
  type: "SoftmaxWithLoss"
  bottom: "ip2"
  bottom: "label"
  top: "loss"
}
I0504 01:37:00.542950  7695 layer_factory.hpp:77] Creating layer cifar
I0504 01:37:00.543047  7695 db_lmdb.cpp:35] Opened lmdb examples/cifar10/cifar10_train_lmdb
I0504 01:37:00.543074  7695 net.cpp:86] Creating Layer cifar
I0504 01:37:00.543085  7695 net.cpp:382] cifar -> data
I0504 01:37:00.543107  7695 net.cpp:382] cifar -> label
I0504 01:37:00.543119  7695 data_transformer.cpp:25] Loading mean file from: examples/cifar10/mean.binaryproto
I0504 01:37:00.545261  7695 data_layer.cpp:45] output data size: 111,3,32,32
I0504 01:37:00.553112  7695 net.cpp:124] Setting up cifar
I0504 01:37:00.553130  7695 net.cpp:131] Top shape: 111 3 32 32 (340992)
I0504 01:37:00.553136  7695 net.cpp:131] Top shape: 111 (111)
I0504 01:37:00.553140  7695 net.cpp:139] Memory required for data: 1364412
I0504 01:37:00.553148  7695 layer_factory.hpp:77] Creating layer conv0
I0504 01:37:00.553167  7695 net.cpp:86] Creating Layer conv0
I0504 01:37:00.553187  7695 net.cpp:408] conv0 <- data
I0504 01:37:00.553200  7695 net.cpp:382] conv0 -> conv0
I0504 01:37:00.835150  7695 net.cpp:124] Setting up conv0
I0504 01:37:00.835177  7695 net.cpp:131] Top shape: 111 72 32 32 (8183808)
I0504 01:37:00.835181  7695 net.cpp:139] Memory required for data: 34099644
I0504 01:37:00.835196  7695 layer_factory.hpp:77] Creating layer Sigmoid0
I0504 01:37:00.835207  7695 net.cpp:86] Creating Layer Sigmoid0
I0504 01:37:00.835211  7695 net.cpp:408] Sigmoid0 <- conv0
I0504 01:37:00.835216  7695 net.cpp:382] Sigmoid0 -> Sigmoid0
I0504 01:37:00.835407  7695 net.cpp:124] Setting up Sigmoid0
I0504 01:37:00.835417  7695 net.cpp:131] Top shape: 111 72 32 32 (8183808)
I0504 01:37:00.835419  7695 net.cpp:139] Memory required for data: 66834876
I0504 01:37:00.835422  7695 layer_factory.hpp:77] Creating layer pool0
I0504 01:37:00.835430  7695 net.cpp:86] Creating Layer pool0
I0504 01:37:00.835433  7695 net.cpp:408] pool0 <- Sigmoid0
I0504 01:37:00.835438  7695 net.cpp:382] pool0 -> pool0
I0504 01:37:00.836153  7695 net.cpp:124] Setting up pool0
I0504 01:37:00.836165  7695 net.cpp:131] Top shape: 111 72 16 16 (2045952)
I0504 01:37:00.836169  7695 net.cpp:139] Memory required for data: 75018684
I0504 01:37:00.836172  7695 layer_factory.hpp:77] Creating layer ip1
I0504 01:37:00.836181  7695 net.cpp:86] Creating Layer ip1
I0504 01:37:00.836184  7695 net.cpp:408] ip1 <- pool0
I0504 01:37:00.836189  7695 net.cpp:382] ip1 -> ip1
I0504 01:37:00.841773  7695 net.cpp:124] Setting up ip1
I0504 01:37:00.841785  7695 net.cpp:131] Top shape: 111 10 (1110)
I0504 01:37:00.841789  7695 net.cpp:139] Memory required for data: 75023124
I0504 01:37:00.841796  7695 layer_factory.hpp:77] Creating layer relu1
I0504 01:37:00.841801  7695 net.cpp:86] Creating Layer relu1
I0504 01:37:00.841805  7695 net.cpp:408] relu1 <- ip1
I0504 01:37:00.841810  7695 net.cpp:369] relu1 -> ip1 (in-place)
I0504 01:37:00.841975  7695 net.cpp:124] Setting up relu1
I0504 01:37:00.841984  7695 net.cpp:131] Top shape: 111 10 (1110)
I0504 01:37:00.841986  7695 net.cpp:139] Memory required for data: 75027564
I0504 01:37:00.841989  7695 layer_factory.hpp:77] Creating layer ip2
I0504 01:37:00.841996  7695 net.cpp:86] Creating Layer ip2
I0504 01:37:00.842000  7695 net.cpp:408] ip2 <- ip1
I0504 01:37:00.842005  7695 net.cpp:382] ip2 -> ip2
I0504 01:37:00.842097  7695 net.cpp:124] Setting up ip2
I0504 01:37:00.842104  7695 net.cpp:131] Top shape: 111 10 (1110)
I0504 01:37:00.842106  7695 net.cpp:139] Memory required for data: 75032004
I0504 01:37:00.842114  7695 layer_factory.hpp:77] Creating layer loss
I0504 01:37:00.842124  7695 net.cpp:86] Creating Layer loss
I0504 01:37:00.842129  7695 net.cpp:408] loss <- ip2
I0504 01:37:00.842149  7695 net.cpp:408] loss <- label
I0504 01:37:00.842154  7695 net.cpp:382] loss -> loss
I0504 01:37:00.842166  7695 layer_factory.hpp:77] Creating layer loss
…
I0504 01:37:00.842744  7695 solver.cpp:173] Creating test net (#0) specified by net file: ECE595/cifar/train_test/var_everything_tiny/cifar_train_test_36.prototxt
I0504 01:37:00.842768  7695 net.cpp:296] The NetState phase (1) differed from the phase (0) specified by a rule in layer cifar
I0504 01:37:00.842854  7695 net.cpp:53] Initializing net from parameters: 
name: "CIFAR"
state {
  phase: TEST
}
layer {
  name: "cifar"
  type: "Data"
  top: "data"
  top: "label"
  include {
    phase: TEST
  }
  transform_param {
    mean_file: "examples/cifar10/mean.binaryproto"
  }
  data_param {
    source: "examples/cifar10/cifar10_test_lmdb"
    batch_size: 1000
    backend: LMDB
  }
}
layer {
  name: "conv0"
  type: "Convolution"
  bottom: "data"
  top: "conv0"
  param {
    lr_mult: 1
  }
  param {
    lr_mult: 2
  }
  convolution_param {
    num_output: 72
    pad: 2
    kernel_size: 5
    stride: 1
    weight_filler {
      type: "gaussian"
      std: 0.01
    }
    bias_filler {
      type: "constant"
    }
  }
}
layer {
  name: "Sigmoid0"
  type: "Sigmoid"
  bottom: "conv0"
  top: "Sigmoid0"
}
layer {
  name: "pool0"
  type: "Pooling"
  bottom: "Sigmoid0"
  top: "pool0"
  pooling_param {
    pool: AVE
    kernel_size: 3
    stride: 2
  }
}
layer {
  name: "ip1"
  type: "InnerProduct"
  bottom: "pool0"
  top: "ip1"
  param {
    lr_mult: 1
  }
  param {
    lr_mult: 2
  }
  inner_product_param {
    num_output: 10
    weight_filler {
      type: "gaussian"
      std: 0.01
    }
    bias_filler {
      type: "constant"
    }
  }
}
layer {
  name: "relu1"
  type: "ReLU"
  bottom: "ip1"
  top: "ip1"
}
layer {
  name: "ip2"
  type: "InnerProduct"
  bottom: "ip1"
  top: "ip2"
  param {
    lr_mult: 1
  }
  param {
    lr_mult: 2
  }
  inner_product_param {
    num_output: 10
    weight_filler {
      type: "gaussian"
      std: 0.01
    }
    bias_filler {
      type: "constant"
    }
  }
}
layer {
  name: "accuracy"
  type: "Accuracy"
  bottom: "ip2"
  bottom: "label"
  top: "accuracy"
  include {
    phase: TEST
  }
}
layer {
  name: "loss"
  type: "SoftmaxWithLoss"
  bottom: "ip2"
  bottom: "label"
  top: "loss"
}
I0504 01:37:00.842923  7695 layer_factory.hpp:77] Creating layer cifar
I0504 01:37:00.842967  7695 db_lmdb.cpp:35] Opened lmdb examples/cifar10/cifar10_test_lmdb
I0504 01:37:00.842981  7695 net.cpp:86] Creating Layer cifar
I0504 01:37:00.842988  7695 net.cpp:382] cifar -> data
I0504 01:37:00.842995  7695 net.cpp:382] cifar -> label
I0504 01:37:00.843003  7695 data_transformer.cpp:25] Loading mean file from: examples/cifar10/mean.binaryproto
I0504 01:37:00.843144  7695 data_layer.cpp:45] output data size: 1000,3,32,32
I0504 01:37:00.865427  7695 net.cpp:124] Setting up cifar
I0504 01:37:00.865466  7695 net.cpp:131] Top shape: 1000 3 32 32 (3072000)
I0504 01:37:00.865473  7695 net.cpp:131] Top shape: 1000 (1000)
I0504 01:37:00.865475  7695 net.cpp:139] Memory required for data: 12292000
I0504 01:37:00.865483  7695 layer_factory.hpp:77] Creating layer label_cifar_1_split
I0504 01:37:00.865495  7695 net.cpp:86] Creating Layer label_cifar_1_split
I0504 01:37:00.865499  7695 net.cpp:408] label_cifar_1_split <- label
I0504 01:37:00.865505  7695 net.cpp:382] label_cifar_1_split -> label_cifar_1_split_0
I0504 01:37:00.865514  7695 net.cpp:382] label_cifar_1_split -> label_cifar_1_split_1
I0504 01:37:00.865622  7695 net.cpp:124] Setting up label_cifar_1_split
I0504 01:37:00.865629  7695 net.cpp:131] Top shape: 1000 (1000)
I0504 01:37:00.865633  7695 net.cpp:131] Top shape: 1000 (1000)
I0504 01:37:00.865636  7695 net.cpp:139] Memory required for data: 12300000
I0504 01:37:00.865639  7695 layer_factory.hpp:77] Creating layer conv0
I0504 01:37:00.865653  7695 net.cpp:86] Creating Layer conv0
I0504 01:37:00.865658  7695 net.cpp:408] conv0 <- data
I0504 01:37:00.865679  7695 net.cpp:382] conv0 -> conv0
I0504 01:37:00.867416  7695 net.cpp:124] Setting up conv0
I0504 01:37:00.867446  7695 net.cpp:131] Top shape: 1000 72 32 32 (73728000)
I0504 01:37:00.867449  7695 net.cpp:139] Memory required for data: 307212000
I0504 01:37:00.867460  7695 layer_factory.hpp:77] Creating layer Sigmoid0
I0504 01:37:00.867467  7695 net.cpp:86] Creating Layer Sigmoid0
I0504 01:37:00.867470  7695 net.cpp:408] Sigmoid0 <- conv0
I0504 01:37:00.867475  7695 net.cpp:382] Sigmoid0 -> Sigmoid0
I0504 01:37:00.867672  7695 net.cpp:124] Setting up Sigmoid0
I0504 01:37:00.867681  7695 net.cpp:131] Top shape: 1000 72 32 32 (73728000)
I0504 01:37:00.867684  7695 net.cpp:139] Memory required for data: 602124000
I0504 01:37:00.867687  7695 layer_factory.hpp:77] Creating layer pool0
I0504 01:37:00.867697  7695 net.cpp:86] Creating Layer pool0
I0504 01:37:00.867703  7695 net.cpp:408] pool0 <- Sigmoid0
I0504 01:37:00.867724  7695 net.cpp:382] pool0 -> pool0
I0504 01:37:00.869632  7695 net.cpp:124] Setting up pool0
I0504 01:37:00.869663  7695 net.cpp:131] Top shape: 1000 72 16 16 (18432000)
I0504 01:37:00.869665  7695 net.cpp:139] Memory required for data: 675852000
I0504 01:37:00.869669  7695 layer_factory.hpp:77] Creating layer ip1
I0504 01:37:00.869678  7695 net.cpp:86] Creating Layer ip1
I0504 01:37:00.869681  7695 net.cpp:408] ip1 <- pool0
I0504 01:37:00.869704  7695 net.cpp:382] ip1 -> ip1
I0504 01:37:00.874866  7695 net.cpp:124] Setting up ip1
I0504 01:37:00.874874  7695 net.cpp:131] Top shape: 1000 10 (10000)
I0504 01:37:00.874893  7695 net.cpp:139] Memory required for data: 675892000
I0504 01:37:00.874902  7695 layer_factory.hpp:77] Creating layer relu1
I0504 01:37:00.874907  7695 net.cpp:86] Creating Layer relu1
I0504 01:37:00.874910  7695 net.cpp:408] relu1 <- ip1
I0504 01:37:00.874932  7695 net.cpp:369] relu1 -> ip1 (in-place)
I0504 01:37:00.875102  7695 net.cpp:124] Setting up relu1
I0504 01:37:00.875109  7695 net.cpp:131] Top shape: 1000 10 (10000)
I0504 01:37:00.875113  7695 net.cpp:139] Memory required for data: 675932000
I0504 01:37:00.875115  7695 layer_factory.hpp:77] Creating layer ip2
I0504 01:37:00.875123  7695 net.cpp:86] Creating Layer ip2
I0504 01:37:00.875128  7695 net.cpp:408] ip2 <- ip1
I0504 01:37:00.875131  7695 net.cpp:382] ip2 -> ip2
I0504 01:37:00.875241  7695 net.cpp:124] Setting up ip2
I0504 01:37:00.875248  7695 net.cpp:131] Top shape: 1000 10 (10000)
I0504 01:37:00.875252  7695 net.cpp:139] Memory required for data: 675972000
I0504 01:37:00.875258  7695 layer_factory.hpp:77] Creating layer ip2_ip2_0_split
I0504 01:37:00.875265  7695 net.cpp:86] Creating Layer ip2_ip2_0_split
I0504 01:37:00.875268  7695 net.cpp:408] ip2_ip2_0_split <- ip2
I0504 01:37:00.875272  7695 net.cpp:382] ip2_ip2_0_split -> ip2_ip2_0_split_0
I0504 01:37:00.875278  7695 net.cpp:382] ip2_ip2_0_split -> ip2_ip2_0_split_1
I0504 01:37:00.875309  7695 net.cpp:124] Setting up ip2_ip2_0_split
I0504 01:37:00.875316  7695 net.cpp:131] Top shape: 1000 10 (10000)
I0504 01:37:00.875320  7695 net.cpp:131] Top shape: 1000 10 (10000)
I0504 01:37:00.875322  7695 net.cpp:139] Memory required for data: 676052000
I0504 01:37:00.875325  7695 layer_factory.hpp:77] Creating layer accuracy
I0504 01:37:00.875332  7695 net.cpp:86] Creating Layer accuracy
I0504 01:37:00.875335  7695 net.cpp:408] accuracy <- ip2_ip2_0_split_0
I0504 01:37:00.875339  7695 net.cpp:408] accuracy <- label_cifar_1_split_0
I0504 01:37:00.875344  7695 net.cpp:382] accuracy -> accuracy
…
