…
I0504 14:11:27.855711  2463 net.cpp:296] The NetState phase (0) differed from the phase (1) specified by a rule in layer cifar
I0504 14:11:27.855731  2463 net.cpp:296] The NetState phase (0) differed from the phase (1) specified by a rule in layer accuracy
I0504 14:11:27.855832  2463 net.cpp:53] Initializing net from parameters: 
name: "CIFAR"
state {
  phase: TRAIN
  level: 0
  stage: ""
}
layer {
  name: "cifar"
  type: "Data"
  top: "data"
  top: "label"
  include {
    phase: TRAIN
  }
  transform_param {
    mean_file: "examples/cifar10/mean.binaryproto"
  }
  data_param {
    source: "examples/cifar10/cifar10_train_lmdb"
    batch_size: 111
    backend: LMDB
  }
}
layer {
  name: "conv0"
  type: "Convolution"
  bottom: "data"
  top: "conv0"
  param {
    lr_mult: 1
  }
  param {
    lr_mult: 2
  }
  convolution_param {
    num_output: 24
    pad: 2
    kernel_size: 5
    stride: 1
    weight_filler {
      type: "gaussian"
      std: 0.01
    }
    bias_filler {
      type: "constant"
    }
  }
}
layer {
  name: "Sigmoid0"
  type: "Sigmoid"
  bottom: "conv0"
  top: "Sigmoid0"
}
layer {
  name: "pool0"
  type: "Pooling"
  bottom: "Sigmoid0"
  top: "pool0"
  pooling_param {
    pool: AVE
    kernel_size: 3
    stride: 2
  }
}
layer {
  name: "conv1"
  type: "Convolution"
  bottom: "pool0"
  top: "conv1"
  param {
    lr_mult: 1
  }
  param {
    lr_mult: 2
  }
  convolution_param {
    num_output: 216
    pad: 2
    kernel_size: 5
    stride: 1
    weight_filler {
      type: "gaussian"
      std: 0.01
    }
    bias_filler {
      type: "constant"
    }
  }
}
layer {
  name: "Sigmoid1"
  type: "Sigmoid"
  bottom: "conv1"
  top: "Sigmoid1"
}
layer {
  name: "pool1"
  type: "Pooling"
  bottom: "Sigmoid1"
  top: "pool1"
  pooling_param {
    pool: AVE
    kernel_size: 3
    stride: 2
  }
}
layer {
  name: "ip1"
  type: "InnerProduct"
  bottom: "pool1"
  top: "ip1"
  param {
    lr_mult: 1
  }
  param {
    lr_mult: 2
  }
  inner_product_param {
    num_output: 180
    weight_filler {
      type: "gaussian"
      std: 0.01
    }
    bias_filler {
      type: "constant"
    }
  }
}
layer {
  name: "relu1"
  type: "ReLU"
  bottom: "ip1"
  top: "ip1"
}
layer {
  name: "ip2"
  type: "InnerProduct"
  bottom: "ip1"
  top: "ip2"
  param {
    lr_mult: 1
  }
  param {
    lr_mult: 2
  }
  inner_product_param {
    num_output: 10
    weight_filler {
      type: "gaussian"
      std: 0.01
    }
    bias_filler {
      type: "constant"
    }
  }
}
layer {
  name: "loss"
  type: "SoftmaxWithLoss"
  bottom: "ip2"
  bottom: "label"
  top: "loss"
}
I0504 14:11:27.855909  2463 layer_factory.hpp:77] Creating layer cifar
I0504 14:11:27.856009  2463 db_lmdb.cpp:35] Opened lmdb examples/cifar10/cifar10_train_lmdb
I0504 14:11:27.856036  2463 net.cpp:86] Creating Layer cifar
I0504 14:11:27.856045  2463 net.cpp:382] cifar -> data
I0504 14:11:27.856070  2463 net.cpp:382] cifar -> label
I0504 14:11:27.856083  2463 data_transformer.cpp:25] Loading mean file from: examples/cifar10/mean.binaryproto
I0504 14:11:27.858252  2463 data_layer.cpp:45] output data size: 111,3,32,32
I0504 14:11:27.866235  2463 net.cpp:124] Setting up cifar
I0504 14:11:27.866255  2463 net.cpp:131] Top shape: 111 3 32 32 (340992)
I0504 14:11:27.866261  2463 net.cpp:131] Top shape: 111 (111)
I0504 14:11:27.866266  2463 net.cpp:139] Memory required for data: 1364412
I0504 14:11:27.866274  2463 layer_factory.hpp:77] Creating layer conv0
I0504 14:11:27.866292  2463 net.cpp:86] Creating Layer conv0
I0504 14:11:27.866312  2463 net.cpp:408] conv0 <- data
I0504 14:11:27.866327  2463 net.cpp:382] conv0 -> conv0
I0504 14:11:28.148474  2463 net.cpp:124] Setting up conv0
I0504 14:11:28.148516  2463 net.cpp:131] Top shape: 111 24 32 32 (2727936)
I0504 14:11:28.148521  2463 net.cpp:139] Memory required for data: 12276156
I0504 14:11:28.148537  2463 layer_factory.hpp:77] Creating layer Sigmoid0
I0504 14:11:28.148550  2463 net.cpp:86] Creating Layer Sigmoid0
I0504 14:11:28.148553  2463 net.cpp:408] Sigmoid0 <- conv0
I0504 14:11:28.148560  2463 net.cpp:382] Sigmoid0 -> Sigmoid0
I0504 14:11:28.148736  2463 net.cpp:124] Setting up Sigmoid0
I0504 14:11:28.148751  2463 net.cpp:131] Top shape: 111 24 32 32 (2727936)
I0504 14:11:28.148756  2463 net.cpp:139] Memory required for data: 23187900
I0504 14:11:28.148758  2463 layer_factory.hpp:77] Creating layer pool0
I0504 14:11:28.148766  2463 net.cpp:86] Creating Layer pool0
I0504 14:11:28.148769  2463 net.cpp:408] pool0 <- Sigmoid0
I0504 14:11:28.148773  2463 net.cpp:382] pool0 -> pool0
I0504 14:11:28.149569  2463 net.cpp:124] Setting up pool0
I0504 14:11:28.149597  2463 net.cpp:131] Top shape: 111 24 16 16 (681984)
I0504 14:11:28.149601  2463 net.cpp:139] Memory required for data: 25915836
I0504 14:11:28.149605  2463 layer_factory.hpp:77] Creating layer conv1
I0504 14:11:28.149617  2463 net.cpp:86] Creating Layer conv1
I0504 14:11:28.149621  2463 net.cpp:408] conv1 <- pool0
I0504 14:11:28.149627  2463 net.cpp:382] conv1 -> conv1
I0504 14:11:28.154939  2463 net.cpp:124] Setting up conv1
I0504 14:11:28.154953  2463 net.cpp:131] Top shape: 111 216 16 16 (6137856)
I0504 14:11:28.154956  2463 net.cpp:139] Memory required for data: 50467260
I0504 14:11:28.154965  2463 layer_factory.hpp:77] Creating layer Sigmoid1
I0504 14:11:28.154971  2463 net.cpp:86] Creating Layer Sigmoid1
I0504 14:11:28.154974  2463 net.cpp:408] Sigmoid1 <- conv1
I0504 14:11:28.154979  2463 net.cpp:382] Sigmoid1 -> Sigmoid1
I0504 14:11:28.155143  2463 net.cpp:124] Setting up Sigmoid1
I0504 14:11:28.155151  2463 net.cpp:131] Top shape: 111 216 16 16 (6137856)
I0504 14:11:28.155154  2463 net.cpp:139] Memory required for data: 75018684
I0504 14:11:28.155158  2463 layer_factory.hpp:77] Creating layer pool1
I0504 14:11:28.155164  2463 net.cpp:86] Creating Layer pool1
I0504 14:11:28.155166  2463 net.cpp:408] pool1 <- Sigmoid1
I0504 14:11:28.155171  2463 net.cpp:382] pool1 -> pool1
I0504 14:11:28.155326  2463 net.cpp:124] Setting up pool1
I0504 14:11:28.155334  2463 net.cpp:131] Top shape: 111 216 8 8 (1534464)
I0504 14:11:28.155338  2463 net.cpp:139] Memory required for data: 81156540
I0504 14:11:28.155340  2463 layer_factory.hpp:77] Creating layer ip1
I0504 14:11:28.155347  2463 net.cpp:86] Creating Layer ip1
I0504 14:11:28.155350  2463 net.cpp:408] ip1 <- pool1
I0504 14:11:28.155355  2463 net.cpp:382] ip1 -> ip1
I0504 14:11:28.224016  2463 net.cpp:124] Setting up ip1
I0504 14:11:28.224047  2463 net.cpp:131] Top shape: 111 180 (19980)
I0504 14:11:28.224051  2463 net.cpp:139] Memory required for data: 81236460
I0504 14:11:28.224061  2463 layer_factory.hpp:77] Creating layer relu1
I0504 14:11:28.224068  2463 net.cpp:86] Creating Layer relu1
I0504 14:11:28.224071  2463 net.cpp:408] relu1 <- ip1
I0504 14:11:28.224076  2463 net.cpp:369] relu1 -> ip1 (in-place)
I0504 14:11:28.224253  2463 net.cpp:124] Setting up relu1
I0504 14:11:28.224262  2463 net.cpp:131] Top shape: 111 180 (19980)
I0504 14:11:28.224265  2463 net.cpp:139] Memory required for data: 81316380
I0504 14:11:28.224268  2463 layer_factory.hpp:77] Creating layer ip2
I0504 14:11:28.224275  2463 net.cpp:86] Creating Layer ip2
I0504 14:11:28.224278  2463 net.cpp:408] ip2 <- ip1
I0504 14:11:28.224284  2463 net.cpp:382] ip2 -> ip2
I0504 14:11:28.224431  2463 net.cpp:124] Setting up ip2
I0504 14:11:28.224438  2463 net.cpp:131] Top shape: 111 10 (1110)
I0504 14:11:28.224442  2463 net.cpp:139] Memory required for data: 81320820
I0504 14:11:28.224447  2463 layer_factory.hpp:77] Creating layer loss
I0504 14:11:28.224453  2463 net.cpp:86] Creating Layer loss
I0504 14:11:28.224469  2463 net.cpp:408] loss <- ip2
I0504 14:11:28.224473  2463 net.cpp:408] loss <- label
I0504 14:11:28.224479  2463 net.cpp:382] loss -> loss
I0504 14:11:28.224498  2463 layer_factory.hpp:77] Creating layer loss
…
I0504 14:11:28.225852  2463 solver.cpp:173] Creating test net (#0) specified by net file: ECE595/cifar/train_test/var_everything_tiny/cifar_train_test_170.prototxt
I0504 14:11:28.225879  2463 net.cpp:296] The NetState phase (1) differed from the phase (0) specified by a rule in layer cifar
I0504 14:11:28.225971  2463 net.cpp:53] Initializing net from parameters: 
name: "CIFAR"
state {
  phase: TEST
}
layer {
  name: "cifar"
  type: "Data"
  top: "data"
  top: "label"
  include {
    phase: TEST
  }
  transform_param {
    mean_file: "examples/cifar10/mean.binaryproto"
  }
  data_param {
    source: "examples/cifar10/cifar10_test_lmdb"
    batch_size: 1000
    backend: LMDB
  }
}
layer {
  name: "conv0"
  type: "Convolution"
  bottom: "data"
  top: "conv0"
  param {
    lr_mult: 1
  }
  param {
    lr_mult: 2
  }
  convolution_param {
    num_output: 24
    pad: 2
    kernel_size: 5
    stride: 1
    weight_filler {
      type: "gaussian"
      std: 0.01
    }
    bias_filler {
      type: "constant"
    }
  }
}
layer {
  name: "Sigmoid0"
  type: "Sigmoid"
  bottom: "conv0"
  top: "Sigmoid0"
}
layer {
  name: "pool0"
  type: "Pooling"
  bottom: "Sigmoid0"
  top: "pool0"
  pooling_param {
    pool: AVE
    kernel_size: 3
    stride: 2
  }
}
layer {
  name: "conv1"
  type: "Convolution"
  bottom: "pool0"
  top: "conv1"
  param {
    lr_mult: 1
  }
  param {
    lr_mult: 2
  }
  convolution_param {
    num_output: 216
    pad: 2
    kernel_size: 5
    stride: 1
    weight_filler {
      type: "gaussian"
      std: 0.01
    }
    bias_filler {
      type: "constant"
    }
  }
}
layer {
  name: "Sigmoid1"
  type: "Sigmoid"
  bottom: "conv1"
  top: "Sigmoid1"
}
layer {
  name: "pool1"
  type: "Pooling"
  bottom: "Sigmoid1"
  top: "pool1"
  pooling_param {
    pool: AVE
    kernel_size: 3
    stride: 2
  }
}
layer {
  name: "ip1"
  type: "InnerProduct"
  bottom: "pool1"
  top: "ip1"
  param {
    lr_mult: 1
  }
  param {
    lr_mult: 2
  }
  inner_product_param {
    num_output: 180
    weight_filler {
      type: "gaussian"
      std: 0.01
    }
    bias_filler {
      type: "constant"
    }
  }
}
layer {
  name: "relu1"
  type: "ReLU"
  bottom: "ip1"
  top: "ip1"
}
layer {
  name: "ip2"
  type: "InnerProduct"
  bottom: "ip1"
  top: "ip2"
  param {
    lr_mult: 1
  }
  param {
    lr_mult: 2
  }
  inner_product_param {
    num_output: 10
    weight_filler {
      type: "gaussian"
      std: 0.01
    }
    bias_filler {
      type: "constant"
    }
  }
}
layer {
  name: "accuracy"
  type: "Accuracy"
  bottom: "ip2"
  bottom: "label"
  top: "accuracy"
  include {
    phase: TEST
  }
}
layer {
  name: "loss"
  type: "SoftmaxWithLoss"
  bottom: "ip2"
  bottom: "label"
  top: "loss"
}
I0504 14:11:28.226050  2463 layer_factory.hpp:77] Creating layer cifar
I0504 14:11:28.226096  2463 db_lmdb.cpp:35] Opened lmdb examples/cifar10/cifar10_test_lmdb
I0504 14:11:28.226122  2463 net.cpp:86] Creating Layer cifar
I0504 14:11:28.226127  2463 net.cpp:382] cifar -> data
I0504 14:11:28.226135  2463 net.cpp:382] cifar -> label
I0504 14:11:28.226141  2463 data_transformer.cpp:25] Loading mean file from: examples/cifar10/mean.binaryproto
I0504 14:11:28.226277  2463 data_layer.cpp:45] output data size: 1000,3,32,32
I0504 14:11:28.248230  2463 net.cpp:124] Setting up cifar
I0504 14:11:28.248258  2463 net.cpp:131] Top shape: 1000 3 32 32 (3072000)
I0504 14:11:28.248265  2463 net.cpp:131] Top shape: 1000 (1000)
I0504 14:11:28.248267  2463 net.cpp:139] Memory required for data: 12292000
I0504 14:11:28.248288  2463 layer_factory.hpp:77] Creating layer label_cifar_1_split
I0504 14:11:28.248306  2463 net.cpp:86] Creating Layer label_cifar_1_split
I0504 14:11:28.248311  2463 net.cpp:408] label_cifar_1_split <- label
I0504 14:11:28.248317  2463 net.cpp:382] label_cifar_1_split -> label_cifar_1_split_0
I0504 14:11:28.248327  2463 net.cpp:382] label_cifar_1_split -> label_cifar_1_split_1
I0504 14:11:28.248414  2463 net.cpp:124] Setting up label_cifar_1_split
I0504 14:11:28.248421  2463 net.cpp:131] Top shape: 1000 (1000)
I0504 14:11:28.248425  2463 net.cpp:131] Top shape: 1000 (1000)
I0504 14:11:28.248428  2463 net.cpp:139] Memory required for data: 12300000
I0504 14:11:28.248432  2463 layer_factory.hpp:77] Creating layer conv0
I0504 14:11:28.248445  2463 net.cpp:86] Creating Layer conv0
I0504 14:11:28.248447  2463 net.cpp:408] conv0 <- data
I0504 14:11:28.248453  2463 net.cpp:382] conv0 -> conv0
I0504 14:11:28.249415  2463 net.cpp:124] Setting up conv0
I0504 14:11:28.249445  2463 net.cpp:131] Top shape: 1000 24 32 32 (24576000)
I0504 14:11:28.249449  2463 net.cpp:139] Memory required for data: 110604000
I0504 14:11:28.249459  2463 layer_factory.hpp:77] Creating layer Sigmoid0
I0504 14:11:28.249467  2463 net.cpp:86] Creating Layer Sigmoid0
I0504 14:11:28.249471  2463 net.cpp:408] Sigmoid0 <- conv0
I0504 14:11:28.249476  2463 net.cpp:382] Sigmoid0 -> Sigmoid0
I0504 14:11:28.250389  2463 net.cpp:124] Setting up Sigmoid0
I0504 14:11:28.250401  2463 net.cpp:131] Top shape: 1000 24 32 32 (24576000)
I0504 14:11:28.250421  2463 net.cpp:139] Memory required for data: 208908000
I0504 14:11:28.250424  2463 layer_factory.hpp:77] Creating layer pool0
I0504 14:11:28.250433  2463 net.cpp:86] Creating Layer pool0
I0504 14:11:28.250437  2463 net.cpp:408] pool0 <- Sigmoid0
I0504 14:11:28.250443  2463 net.cpp:382] pool0 -> pool0
I0504 14:11:28.251586  2463 net.cpp:124] Setting up pool0
I0504 14:11:28.251613  2463 net.cpp:131] Top shape: 1000 24 16 16 (6144000)
I0504 14:11:28.251617  2463 net.cpp:139] Memory required for data: 233484000
I0504 14:11:28.251621  2463 layer_factory.hpp:77] Creating layer conv1
I0504 14:11:28.251631  2463 net.cpp:86] Creating Layer conv1
I0504 14:11:28.251634  2463 net.cpp:408] conv1 <- pool0
I0504 14:11:28.251641  2463 net.cpp:382] conv1 -> conv1
I0504 14:11:28.256588  2463 net.cpp:124] Setting up conv1
I0504 14:11:28.256618  2463 net.cpp:131] Top shape: 1000 216 16 16 (55296000)
I0504 14:11:28.256621  2463 net.cpp:139] Memory required for data: 454668000
I0504 14:11:28.256631  2463 layer_factory.hpp:77] Creating layer Sigmoid1
I0504 14:11:28.256639  2463 net.cpp:86] Creating Layer Sigmoid1
I0504 14:11:28.256642  2463 net.cpp:408] Sigmoid1 <- conv1
I0504 14:11:28.256649  2463 net.cpp:382] Sigmoid1 -> Sigmoid1
I0504 14:11:28.256872  2463 net.cpp:124] Setting up Sigmoid1
I0504 14:11:28.256883  2463 net.cpp:131] Top shape: 1000 216 16 16 (55296000)
I0504 14:11:28.256887  2463 net.cpp:139] Memory required for data: 675852000
I0504 14:11:28.256891  2463 layer_factory.hpp:77] Creating layer pool1
I0504 14:11:28.256897  2463 net.cpp:86] Creating Layer pool1
I0504 14:11:28.256902  2463 net.cpp:408] pool1 <- Sigmoid1
I0504 14:11:28.256919  2463 net.cpp:382] pool1 -> pool1
I0504 14:11:28.257114  2463 net.cpp:124] Setting up pool1
I0504 14:11:28.257125  2463 net.cpp:131] Top shape: 1000 216 8 8 (13824000)
I0504 14:11:28.257129  2463 net.cpp:139] Memory required for data: 731148000
I0504 14:11:28.257133  2463 layer_factory.hpp:77] Creating layer ip1
I0504 14:11:28.257143  2463 net.cpp:86] Creating Layer ip1
I0504 14:11:28.257148  2463 net.cpp:408] ip1 <- pool1
I0504 14:11:28.257154  2463 net.cpp:382] ip1 -> ip1
I0504 14:11:28.328066  2463 net.cpp:124] Setting up ip1
I0504 14:11:28.328089  2463 net.cpp:131] Top shape: 1000 180 (180000)
I0504 14:11:28.328094  2463 net.cpp:139] Memory required for data: 731868000
I0504 14:11:28.328105  2463 layer_factory.hpp:77] Creating layer relu1
I0504 14:11:28.328130  2463 net.cpp:86] Creating Layer relu1
I0504 14:11:28.328135  2463 net.cpp:408] relu1 <- ip1
I0504 14:11:28.328141  2463 net.cpp:369] relu1 -> ip1 (in-place)
I0504 14:11:28.330713  2463 net.cpp:124] Setting up relu1
I0504 14:11:28.330744  2463 net.cpp:131] Top shape: 1000 180 (180000)
I0504 14:11:28.330747  2463 net.cpp:139] Memory required for data: 732588000
I0504 14:11:28.330751  2463 layer_factory.hpp:77] Creating layer ip2
I0504 14:11:28.330761  2463 net.cpp:86] Creating Layer ip2
I0504 14:11:28.330765  2463 net.cpp:408] ip2 <- ip1
I0504 14:11:28.330770  2463 net.cpp:382] ip2 -> ip2
I0504 14:11:28.330951  2463 net.cpp:124] Setting up ip2
I0504 14:11:28.330960  2463 net.cpp:131] Top shape: 1000 10 (10000)
I0504 14:11:28.330963  2463 net.cpp:139] Memory required for data: 732628000
I0504 14:11:28.330971  2463 layer_factory.hpp:77] Creating layer ip2_ip2_0_split
I0504 14:11:28.330977  2463 net.cpp:86] Creating Layer ip2_ip2_0_split
I0504 14:11:28.330981  2463 net.cpp:408] ip2_ip2_0_split <- ip2
I0504 14:11:28.330986  2463 net.cpp:382] ip2_ip2_0_split -> ip2_ip2_0_split_0
I0504 14:11:28.330991  2463 net.cpp:382] ip2_ip2_0_split -> ip2_ip2_0_split_1
I0504 14:11:28.331025  2463 net.cpp:124] Setting up ip2_ip2_0_split
I0504 14:11:28.331032  2463 net.cpp:131] Top shape: 1000 10 (10000)
I0504 14:11:28.331037  2463 net.cpp:131] Top shape: 1000 10 (10000)
I0504 14:11:28.331039  2463 net.cpp:139] Memory required for data: 732708000
I0504 14:11:28.331043  2463 layer_factory.hpp:77] Creating layer accuracy
I0504 14:11:28.331048  2463 net.cpp:86] Creating Layer accuracy
I0504 14:11:28.331051  2463 net.cpp:408] accuracy <- ip2_ip2_0_split_0
I0504 14:11:28.331056  2463 net.cpp:408] accuracy <- label_cifar_1_split_0
I0504 14:11:28.331063  2463 net.cpp:382] accuracy -> accuracy
…
