…
I0504 07:28:20.080529 19148 net.cpp:296] The NetState phase (0) differed from the phase (1) specified by a rule in layer cifar
I0504 07:28:20.080548 19148 net.cpp:296] The NetState phase (0) differed from the phase (1) specified by a rule in layer accuracy
I0504 07:28:20.080655 19148 net.cpp:53] Initializing net from parameters: 
name: "CIFAR"
state {
  phase: TRAIN
  level: 0
  stage: ""
}
layer {
  name: "cifar"
  type: "Data"
  top: "data"
  top: "label"
  include {
    phase: TRAIN
  }
  transform_param {
    mean_file: "examples/cifar10/mean.binaryproto"
  }
  data_param {
    source: "examples/cifar10/cifar10_train_lmdb"
    batch_size: 111
    backend: LMDB
  }
}
layer {
  name: "conv0"
  type: "Convolution"
  bottom: "data"
  top: "conv0"
  param {
    lr_mult: 1
  }
  param {
    lr_mult: 2
  }
  convolution_param {
    num_output: 24
    pad: 2
    kernel_size: 3
    stride: 1
    weight_filler {
      type: "gaussian"
      std: 0.01
    }
    bias_filler {
      type: "constant"
    }
  }
}
layer {
  name: "Sigmoid0"
  type: "Sigmoid"
  bottom: "conv0"
  top: "Sigmoid0"
}
layer {
  name: "pool0"
  type: "Pooling"
  bottom: "Sigmoid0"
  top: "pool0"
  pooling_param {
    pool: AVE
    kernel_size: 3
    stride: 2
  }
}
layer {
  name: "conv1"
  type: "Convolution"
  bottom: "pool0"
  top: "conv1"
  param {
    lr_mult: 1
  }
  param {
    lr_mult: 2
  }
  convolution_param {
    num_output: 24
    pad: 2
    kernel_size: 3
    stride: 1
    weight_filler {
      type: "gaussian"
      std: 0.01
    }
    bias_filler {
      type: "constant"
    }
  }
}
layer {
  name: "Sigmoid1"
  type: "Sigmoid"
  bottom: "conv1"
  top: "Sigmoid1"
}
layer {
  name: "pool1"
  type: "Pooling"
  bottom: "Sigmoid1"
  top: "pool1"
  pooling_param {
    pool: AVE
    kernel_size: 3
    stride: 2
  }
}
layer {
  name: "ip1"
  type: "InnerProduct"
  bottom: "pool1"
  top: "ip1"
  param {
    lr_mult: 1
  }
  param {
    lr_mult: 2
  }
  inner_product_param {
    num_output: 60
    weight_filler {
      type: "gaussian"
      std: 0.01
    }
    bias_filler {
      type: "constant"
    }
  }
}
layer {
  name: "relu1"
  type: "ReLU"
  bottom: "ip1"
  top: "ip1"
}
layer {
  name: "ip2"
  type: "InnerProduct"
  bottom: "ip1"
  top: "ip2"
  param {
    lr_mult: 1
  }
  param {
    lr_mult: 2
  }
  inner_product_param {
    num_output: 180
    weight_filler {
      type: "gaussian"
      std: 0.01
    }
    bias_filler {
      type: "constant"
    }
  }
}
layer {
  name: "relu2"
  type: "ReLU"
  bottom: "ip2"
  top: "ip2"
}
layer {
  name: "ip3"
  type: "InnerProduct"
  bottom: "ip2"
  top: "ip3"
  param {
    lr_mult: 1
  }
  param {
    lr_mult: 2
  }
  inner_product_param {
    num_output: 10
    weight_filler {
      type: "gaussian"
      std: 0.01
    }
    bias_filler {
      type: "constant"
    }
  }
}
layer {
  name: "loss"
  type: "SoftmaxWithLoss"
  bottom: "ip3"
  bottom: "label"
  top: "loss"
}
I0504 07:28:20.080739 19148 layer_factory.hpp:77] Creating layer cifar
I0504 07:28:20.080840 19148 db_lmdb.cpp:35] Opened lmdb examples/cifar10/cifar10_train_lmdb
I0504 07:28:20.080868 19148 net.cpp:86] Creating Layer cifar
I0504 07:28:20.080875 19148 net.cpp:382] cifar -> data
I0504 07:28:20.080900 19148 net.cpp:382] cifar -> label
I0504 07:28:20.080912 19148 data_transformer.cpp:25] Loading mean file from: examples/cifar10/mean.binaryproto
I0504 07:28:20.083055 19148 data_layer.cpp:45] output data size: 111,3,32,32
I0504 07:28:20.091028 19148 net.cpp:124] Setting up cifar
I0504 07:28:20.091048 19148 net.cpp:131] Top shape: 111 3 32 32 (340992)
I0504 07:28:20.091055 19148 net.cpp:131] Top shape: 111 (111)
I0504 07:28:20.091058 19148 net.cpp:139] Memory required for data: 1364412
I0504 07:28:20.091065 19148 layer_factory.hpp:77] Creating layer conv0
I0504 07:28:20.091081 19148 net.cpp:86] Creating Layer conv0
I0504 07:28:20.091086 19148 net.cpp:408] conv0 <- data
I0504 07:28:20.091099 19148 net.cpp:382] conv0 -> conv0
I0504 07:28:20.385267 19148 net.cpp:124] Setting up conv0
I0504 07:28:20.385298 19148 net.cpp:131] Top shape: 111 24 34 34 (3079584)
I0504 07:28:20.385303 19148 net.cpp:139] Memory required for data: 13682748
I0504 07:28:20.385321 19148 layer_factory.hpp:77] Creating layer Sigmoid0
I0504 07:28:20.385335 19148 net.cpp:86] Creating Layer Sigmoid0
I0504 07:28:20.385339 19148 net.cpp:408] Sigmoid0 <- conv0
I0504 07:28:20.385346 19148 net.cpp:382] Sigmoid0 -> Sigmoid0
I0504 07:28:20.385560 19148 net.cpp:124] Setting up Sigmoid0
I0504 07:28:20.385571 19148 net.cpp:131] Top shape: 111 24 34 34 (3079584)
I0504 07:28:20.385574 19148 net.cpp:139] Memory required for data: 26001084
I0504 07:28:20.385578 19148 layer_factory.hpp:77] Creating layer pool0
I0504 07:28:20.385586 19148 net.cpp:86] Creating Layer pool0
I0504 07:28:20.385591 19148 net.cpp:408] pool0 <- Sigmoid0
I0504 07:28:20.385596 19148 net.cpp:382] pool0 -> pool0
I0504 07:28:20.386472 19148 net.cpp:124] Setting up pool0
I0504 07:28:20.386488 19148 net.cpp:131] Top shape: 111 24 17 17 (769896)
I0504 07:28:20.386492 19148 net.cpp:139] Memory required for data: 29080668
I0504 07:28:20.386497 19148 layer_factory.hpp:77] Creating layer conv1
I0504 07:28:20.386512 19148 net.cpp:86] Creating Layer conv1
I0504 07:28:20.386515 19148 net.cpp:408] conv1 <- pool0
I0504 07:28:20.386523 19148 net.cpp:382] conv1 -> conv1
I0504 07:28:20.389864 19148 net.cpp:124] Setting up conv1
I0504 07:28:20.389884 19148 net.cpp:131] Top shape: 111 24 19 19 (961704)
I0504 07:28:20.389889 19148 net.cpp:139] Memory required for data: 32927484
I0504 07:28:20.389899 19148 layer_factory.hpp:77] Creating layer Sigmoid1
I0504 07:28:20.389906 19148 net.cpp:86] Creating Layer Sigmoid1
I0504 07:28:20.389909 19148 net.cpp:408] Sigmoid1 <- conv1
I0504 07:28:20.389915 19148 net.cpp:382] Sigmoid1 -> Sigmoid1
I0504 07:28:20.390142 19148 net.cpp:124] Setting up Sigmoid1
I0504 07:28:20.390154 19148 net.cpp:131] Top shape: 111 24 19 19 (961704)
I0504 07:28:20.390157 19148 net.cpp:139] Memory required for data: 36774300
I0504 07:28:20.390161 19148 layer_factory.hpp:77] Creating layer pool1
I0504 07:28:20.390169 19148 net.cpp:86] Creating Layer pool1
I0504 07:28:20.390173 19148 net.cpp:408] pool1 <- Sigmoid1
I0504 07:28:20.390182 19148 net.cpp:382] pool1 -> pool1
I0504 07:28:20.390390 19148 net.cpp:124] Setting up pool1
I0504 07:28:20.390400 19148 net.cpp:131] Top shape: 111 24 9 9 (215784)
I0504 07:28:20.390403 19148 net.cpp:139] Memory required for data: 37637436
I0504 07:28:20.390408 19148 layer_factory.hpp:77] Creating layer ip1
I0504 07:28:20.390415 19148 net.cpp:86] Creating Layer ip1
I0504 07:28:20.390419 19148 net.cpp:408] ip1 <- pool1
I0504 07:28:20.390426 19148 net.cpp:382] ip1 -> ip1
I0504 07:28:20.394408 19148 net.cpp:124] Setting up ip1
I0504 07:28:20.394419 19148 net.cpp:131] Top shape: 111 60 (6660)
I0504 07:28:20.394423 19148 net.cpp:139] Memory required for data: 37664076
I0504 07:28:20.394433 19148 layer_factory.hpp:77] Creating layer relu1
I0504 07:28:20.394440 19148 net.cpp:86] Creating Layer relu1
I0504 07:28:20.394443 19148 net.cpp:408] relu1 <- ip1
I0504 07:28:20.394450 19148 net.cpp:369] relu1 -> ip1 (in-place)
I0504 07:28:20.394642 19148 net.cpp:124] Setting up relu1
I0504 07:28:20.394651 19148 net.cpp:131] Top shape: 111 60 (6660)
I0504 07:28:20.394655 19148 net.cpp:139] Memory required for data: 37690716
I0504 07:28:20.394659 19148 layer_factory.hpp:77] Creating layer ip2
I0504 07:28:20.394667 19148 net.cpp:86] Creating Layer ip2
I0504 07:28:20.394671 19148 net.cpp:408] ip2 <- ip1
I0504 07:28:20.394692 19148 net.cpp:382] ip2 -> ip2
I0504 07:28:20.395172 19148 net.cpp:124] Setting up ip2
I0504 07:28:20.395181 19148 net.cpp:131] Top shape: 111 180 (19980)
I0504 07:28:20.395184 19148 net.cpp:139] Memory required for data: 37770636
I0504 07:28:20.395191 19148 layer_factory.hpp:77] Creating layer relu2
I0504 07:28:20.395197 19148 net.cpp:86] Creating Layer relu2
I0504 07:28:20.395200 19148 net.cpp:408] relu2 <- ip2
I0504 07:28:20.395207 19148 net.cpp:369] relu2 -> ip2 (in-place)
I0504 07:28:20.396075 19148 net.cpp:124] Setting up relu2
I0504 07:28:20.396090 19148 net.cpp:131] Top shape: 111 180 (19980)
I0504 07:28:20.396095 19148 net.cpp:139] Memory required for data: 37850556
I0504 07:28:20.396098 19148 layer_factory.hpp:77] Creating layer ip3
I0504 07:28:20.396107 19148 net.cpp:86] Creating Layer ip3
I0504 07:28:20.396111 19148 net.cpp:408] ip3 <- ip2
I0504 07:28:20.396117 19148 net.cpp:382] ip3 -> ip3
I0504 07:28:20.396307 19148 net.cpp:124] Setting up ip3
I0504 07:28:20.396317 19148 net.cpp:131] Top shape: 111 10 (1110)
I0504 07:28:20.396320 19148 net.cpp:139] Memory required for data: 37854996
I0504 07:28:20.396330 19148 layer_factory.hpp:77] Creating layer loss
I0504 07:28:20.396338 19148 net.cpp:86] Creating Layer loss
I0504 07:28:20.396342 19148 net.cpp:408] loss <- ip3
I0504 07:28:20.396347 19148 net.cpp:408] loss <- label
I0504 07:28:20.396353 19148 net.cpp:382] loss -> loss
I0504 07:28:20.396373 19148 layer_factory.hpp:77] Creating layer loss
…
I0504 07:28:20.397184 19148 solver.cpp:173] Creating test net (#0) specified by net file: ECE595/cifar/train_test/var_everything_tiny/cifar_train_test_80.prototxt
I0504 07:28:20.397218 19148 net.cpp:296] The NetState phase (1) differed from the phase (0) specified by a rule in layer cifar
I0504 07:28:20.397337 19148 net.cpp:53] Initializing net from parameters: 
name: "CIFAR"
state {
  phase: TEST
}
layer {
  name: "cifar"
  type: "Data"
  top: "data"
  top: "label"
  include {
    phase: TEST
  }
  transform_param {
    mean_file: "examples/cifar10/mean.binaryproto"
  }
  data_param {
    source: "examples/cifar10/cifar10_test_lmdb"
    batch_size: 1000
    backend: LMDB
  }
}
layer {
  name: "conv0"
  type: "Convolution"
  bottom: "data"
  top: "conv0"
  param {
    lr_mult: 1
  }
  param {
    lr_mult: 2
  }
  convolution_param {
    num_output: 24
    pad: 2
    kernel_size: 3
    stride: 1
    weight_filler {
      type: "gaussian"
      std: 0.01
    }
    bias_filler {
      type: "constant"
    }
  }
}
layer {
  name: "Sigmoid0"
  type: "Sigmoid"
  bottom: "conv0"
  top: "Sigmoid0"
}
layer {
  name: "pool0"
  type: "Pooling"
  bottom: "Sigmoid0"
  top: "pool0"
  pooling_param {
    pool: AVE
    kernel_size: 3
    stride: 2
  }
}
layer {
  name: "conv1"
  type: "Convolution"
  bottom: "pool0"
  top: "conv1"
  param {
    lr_mult: 1
  }
  param {
    lr_mult: 2
  }
  convolution_param {
    num_output: 24
    pad: 2
    kernel_size: 3
    stride: 1
    weight_filler {
      type: "gaussian"
      std: 0.01
    }
    bias_filler {
      type: "constant"
    }
  }
}
layer {
  name: "Sigmoid1"
  type: "Sigmoid"
  bottom: "conv1"
  top: "Sigmoid1"
}
layer {
  name: "pool1"
  type: "Pooling"
  bottom: "Sigmoid1"
  top: "pool1"
  pooling_param {
    pool: AVE
    kernel_size: 3
    stride: 2
  }
}
layer {
  name: "ip1"
  type: "InnerProduct"
  bottom: "pool1"
  top: "ip1"
  param {
    lr_mult: 1
  }
  param {
    lr_mult: 2
  }
  inner_product_param {
    num_output: 60
    weight_filler {
      type: "gaussian"
      std: 0.01
    }
    bias_filler {
      type: "constant"
    }
  }
}
layer {
  name: "relu1"
  type: "ReLU"
  bottom: "ip1"
  top: "ip1"
}
layer {
  name: "ip2"
  type: "InnerProduct"
  bottom: "ip1"
  top: "ip2"
  param {
    lr_mult: 1
  }
  param {
    lr_mult: 2
  }
  inner_product_param {
    num_output: 180
    weight_filler {
      type: "gaussian"
      std: 0.01
    }
    bias_filler {
      type: "constant"
    }
  }
}
layer {
  name: "relu2"
  type: "ReLU"
  bottom: "ip2"
  top: "ip2"
}
layer {
  name: "ip3"
  type: "InnerProduct"
  bottom: "ip2"
  top: "ip3"
  param {
    lr_mult: 1
  }
  param {
    lr_mult: 2
  }
  inner_product_param {
    num_output: 10
    weight_filler {
      type: "gaussian"
      std: 0.01
    }
    bias_filler {
      type: "constant"
    }
  }
}
layer {
  name: "accuracy"
  type: "Accuracy"
  bottom: "ip3"
  bottom: "label"
  top: "accuracy"
  include {
    phase: TEST
  }
}
layer {
  name: "loss"
  type: "SoftmaxWithLoss"
  bottom: "ip3"
  bottom: "label"
  top: "loss"
}
I0504 07:28:20.397445 19148 layer_factory.hpp:77] Creating layer cifar
I0504 07:28:20.397500 19148 db_lmdb.cpp:35] Opened lmdb examples/cifar10/cifar10_test_lmdb
I0504 07:28:20.397514 19148 net.cpp:86] Creating Layer cifar
I0504 07:28:20.397521 19148 net.cpp:382] cifar -> data
I0504 07:28:20.397531 19148 net.cpp:382] cifar -> label
I0504 07:28:20.397537 19148 data_transformer.cpp:25] Loading mean file from: examples/cifar10/mean.binaryproto
I0504 07:28:20.397722 19148 data_layer.cpp:45] output data size: 1000,3,32,32
I0504 07:28:20.423727 19148 net.cpp:124] Setting up cifar
I0504 07:28:20.423758 19148 net.cpp:131] Top shape: 1000 3 32 32 (3072000)
I0504 07:28:20.423764 19148 net.cpp:131] Top shape: 1000 (1000)
I0504 07:28:20.423768 19148 net.cpp:139] Memory required for data: 12292000
I0504 07:28:20.423774 19148 layer_factory.hpp:77] Creating layer label_cifar_1_split
I0504 07:28:20.423794 19148 net.cpp:86] Creating Layer label_cifar_1_split
I0504 07:28:20.423799 19148 net.cpp:408] label_cifar_1_split <- label
I0504 07:28:20.423806 19148 net.cpp:382] label_cifar_1_split -> label_cifar_1_split_0
I0504 07:28:20.423817 19148 net.cpp:382] label_cifar_1_split -> label_cifar_1_split_1
I0504 07:28:20.423935 19148 net.cpp:124] Setting up label_cifar_1_split
I0504 07:28:20.423948 19148 net.cpp:131] Top shape: 1000 (1000)
I0504 07:28:20.423951 19148 net.cpp:131] Top shape: 1000 (1000)
I0504 07:28:20.423955 19148 net.cpp:139] Memory required for data: 12300000
I0504 07:28:20.423959 19148 layer_factory.hpp:77] Creating layer conv0
I0504 07:28:20.423974 19148 net.cpp:86] Creating Layer conv0
I0504 07:28:20.423979 19148 net.cpp:408] conv0 <- data
I0504 07:28:20.423985 19148 net.cpp:382] conv0 -> conv0
I0504 07:28:20.426849 19148 net.cpp:124] Setting up conv0
I0504 07:28:20.426868 19148 net.cpp:131] Top shape: 1000 24 34 34 (27744000)
I0504 07:28:20.426873 19148 net.cpp:139] Memory required for data: 123276000
I0504 07:28:20.426887 19148 layer_factory.hpp:77] Creating layer Sigmoid0
I0504 07:28:20.426894 19148 net.cpp:86] Creating Layer Sigmoid0
I0504 07:28:20.426898 19148 net.cpp:408] Sigmoid0 <- conv0
I0504 07:28:20.426905 19148 net.cpp:382] Sigmoid0 -> Sigmoid0
I0504 07:28:20.427144 19148 net.cpp:124] Setting up Sigmoid0
I0504 07:28:20.427170 19148 net.cpp:131] Top shape: 1000 24 34 34 (27744000)
I0504 07:28:20.427175 19148 net.cpp:139] Memory required for data: 234252000
I0504 07:28:20.427179 19148 layer_factory.hpp:77] Creating layer pool0
I0504 07:28:20.427189 19148 net.cpp:86] Creating Layer pool0
I0504 07:28:20.427193 19148 net.cpp:408] pool0 <- Sigmoid0
I0504 07:28:20.427198 19148 net.cpp:382] pool0 -> pool0
I0504 07:28:20.427412 19148 net.cpp:124] Setting up pool0
I0504 07:28:20.427423 19148 net.cpp:131] Top shape: 1000 24 17 17 (6936000)
I0504 07:28:20.427426 19148 net.cpp:139] Memory required for data: 261996000
I0504 07:28:20.427429 19148 layer_factory.hpp:77] Creating layer conv1
I0504 07:28:20.427443 19148 net.cpp:86] Creating Layer conv1
I0504 07:28:20.427446 19148 net.cpp:408] conv1 <- pool0
I0504 07:28:20.427453 19148 net.cpp:382] conv1 -> conv1
I0504 07:28:20.429237 19148 net.cpp:124] Setting up conv1
I0504 07:28:20.429255 19148 net.cpp:131] Top shape: 1000 24 19 19 (8664000)
I0504 07:28:20.429260 19148 net.cpp:139] Memory required for data: 296652000
I0504 07:28:20.429271 19148 layer_factory.hpp:77] Creating layer Sigmoid1
I0504 07:28:20.429280 19148 net.cpp:86] Creating Layer Sigmoid1
I0504 07:28:20.429285 19148 net.cpp:408] Sigmoid1 <- conv1
I0504 07:28:20.429291 19148 net.cpp:382] Sigmoid1 -> Sigmoid1
I0504 07:28:20.429512 19148 net.cpp:124] Setting up Sigmoid1
I0504 07:28:20.429523 19148 net.cpp:131] Top shape: 1000 24 19 19 (8664000)
I0504 07:28:20.429527 19148 net.cpp:139] Memory required for data: 331308000
I0504 07:28:20.429532 19148 layer_factory.hpp:77] Creating layer pool1
I0504 07:28:20.429540 19148 net.cpp:86] Creating Layer pool1
I0504 07:28:20.429544 19148 net.cpp:408] pool1 <- Sigmoid1
I0504 07:28:20.429549 19148 net.cpp:382] pool1 -> pool1
I0504 07:28:20.430446 19148 net.cpp:124] Setting up pool1
I0504 07:28:20.430462 19148 net.cpp:131] Top shape: 1000 24 9 9 (1944000)
I0504 07:28:20.430466 19148 net.cpp:139] Memory required for data: 339084000
I0504 07:28:20.430470 19148 layer_factory.hpp:77] Creating layer ip1
I0504 07:28:20.430482 19148 net.cpp:86] Creating Layer ip1
I0504 07:28:20.430486 19148 net.cpp:408] ip1 <- pool1
I0504 07:28:20.430495 19148 net.cpp:382] ip1 -> ip1
I0504 07:28:20.434494 19148 net.cpp:124] Setting up ip1
I0504 07:28:20.434504 19148 net.cpp:131] Top shape: 1000 60 (60000)
I0504 07:28:20.434509 19148 net.cpp:139] Memory required for data: 339324000
I0504 07:28:20.434518 19148 layer_factory.hpp:77] Creating layer relu1
I0504 07:28:20.434525 19148 net.cpp:86] Creating Layer relu1
I0504 07:28:20.434530 19148 net.cpp:408] relu1 <- ip1
I0504 07:28:20.434535 19148 net.cpp:369] relu1 -> ip1 (in-place)
I0504 07:28:20.434736 19148 net.cpp:124] Setting up relu1
I0504 07:28:20.434746 19148 net.cpp:131] Top shape: 1000 60 (60000)
I0504 07:28:20.434749 19148 net.cpp:139] Memory required for data: 339564000
I0504 07:28:20.434752 19148 layer_factory.hpp:77] Creating layer ip2
I0504 07:28:20.434761 19148 net.cpp:86] Creating Layer ip2
I0504 07:28:20.434763 19148 net.cpp:408] ip2 <- ip1
I0504 07:28:20.434770 19148 net.cpp:382] ip2 -> ip2
I0504 07:28:20.435263 19148 net.cpp:124] Setting up ip2
I0504 07:28:20.435273 19148 net.cpp:131] Top shape: 1000 180 (180000)
I0504 07:28:20.435276 19148 net.cpp:139] Memory required for data: 340284000
I0504 07:28:20.435283 19148 layer_factory.hpp:77] Creating layer relu2
I0504 07:28:20.435289 19148 net.cpp:86] Creating Layer relu2
I0504 07:28:20.435293 19148 net.cpp:408] relu2 <- ip2
I0504 07:28:20.435299 19148 net.cpp:369] relu2 -> ip2 (in-place)
I0504 07:28:20.435497 19148 net.cpp:124] Setting up relu2
I0504 07:28:20.435508 19148 net.cpp:131] Top shape: 1000 180 (180000)
I0504 07:28:20.435510 19148 net.cpp:139] Memory required for data: 341004000
I0504 07:28:20.435514 19148 layer_factory.hpp:77] Creating layer ip3
I0504 07:28:20.435523 19148 net.cpp:86] Creating Layer ip3
I0504 07:28:20.435526 19148 net.cpp:408] ip3 <- ip2
I0504 07:28:20.435531 19148 net.cpp:382] ip3 -> ip3
I0504 07:28:20.435719 19148 net.cpp:124] Setting up ip3
I0504 07:28:20.435729 19148 net.cpp:131] Top shape: 1000 10 (10000)
I0504 07:28:20.435744 19148 net.cpp:139] Memory required for data: 341044000
I0504 07:28:20.435753 19148 layer_factory.hpp:77] Creating layer ip3_ip3_0_split
I0504 07:28:20.435760 19148 net.cpp:86] Creating Layer ip3_ip3_0_split
I0504 07:28:20.435763 19148 net.cpp:408] ip3_ip3_0_split <- ip3
I0504 07:28:20.435770 19148 net.cpp:382] ip3_ip3_0_split -> ip3_ip3_0_split_0
I0504 07:28:20.435776 19148 net.cpp:382] ip3_ip3_0_split -> ip3_ip3_0_split_1
I0504 07:28:20.435817 19148 net.cpp:124] Setting up ip3_ip3_0_split
I0504 07:28:20.435827 19148 net.cpp:131] Top shape: 1000 10 (10000)
I0504 07:28:20.435832 19148 net.cpp:131] Top shape: 1000 10 (10000)
I0504 07:28:20.435835 19148 net.cpp:139] Memory required for data: 341124000
I0504 07:28:20.435838 19148 layer_factory.hpp:77] Creating layer accuracy
I0504 07:28:20.435845 19148 net.cpp:86] Creating Layer accuracy
I0504 07:28:20.435849 19148 net.cpp:408] accuracy <- ip3_ip3_0_split_0
I0504 07:28:20.435853 19148 net.cpp:408] accuracy <- label_cifar_1_split_0
I0504 07:28:20.435860 19148 net.cpp:382] accuracy -> accuracy
…
