…
I0504 09:51:11.764554 24254 net.cpp:296] The NetState phase (0) differed from the phase (1) specified by a rule in layer cifar
I0504 09:51:11.764572 24254 net.cpp:296] The NetState phase (0) differed from the phase (1) specified by a rule in layer accuracy
I0504 09:51:11.764683 24254 net.cpp:53] Initializing net from parameters: 
name: "CIFAR"
state {
  phase: TRAIN
  level: 0
  stage: ""
}
layer {
  name: "cifar"
  type: "Data"
  top: "data"
  top: "label"
  include {
    phase: TRAIN
  }
  transform_param {
    mean_file: "examples/cifar10/mean.binaryproto"
  }
  data_param {
    source: "examples/cifar10/cifar10_train_lmdb"
    batch_size: 111
    backend: LMDB
  }
}
layer {
  name: "conv0"
  type: "Convolution"
  bottom: "data"
  top: "conv0"
  param {
    lr_mult: 1
  }
  param {
    lr_mult: 2
  }
  convolution_param {
    num_output: 24
    pad: 2
    kernel_size: 5
    stride: 1
    weight_filler {
      type: "gaussian"
      std: 0.01
    }
    bias_filler {
      type: "constant"
    }
  }
}
layer {
  name: "Sigmoid0"
  type: "Sigmoid"
  bottom: "conv0"
  top: "Sigmoid0"
}
layer {
  name: "pool0"
  type: "Pooling"
  bottom: "Sigmoid0"
  top: "pool0"
  pooling_param {
    pool: AVE
    kernel_size: 3
    stride: 2
  }
}
layer {
  name: "conv1"
  type: "Convolution"
  bottom: "pool0"
  top: "conv1"
  param {
    lr_mult: 1
  }
  param {
    lr_mult: 2
  }
  convolution_param {
    num_output: 72
    pad: 2
    kernel_size: 3
    stride: 1
    weight_filler {
      type: "gaussian"
      std: 0.01
    }
    bias_filler {
      type: "constant"
    }
  }
}
layer {
  name: "Sigmoid1"
  type: "Sigmoid"
  bottom: "conv1"
  top: "Sigmoid1"
}
layer {
  name: "pool1"
  type: "Pooling"
  bottom: "Sigmoid1"
  top: "pool1"
  pooling_param {
    pool: AVE
    kernel_size: 3
    stride: 2
  }
}
layer {
  name: "ip1"
  type: "InnerProduct"
  bottom: "pool1"
  top: "ip1"
  param {
    lr_mult: 1
  }
  param {
    lr_mult: 2
  }
  inner_product_param {
    num_output: 10
    weight_filler {
      type: "gaussian"
      std: 0.01
    }
    bias_filler {
      type: "constant"
    }
  }
}
layer {
  name: "relu1"
  type: "ReLU"
  bottom: "ip1"
  top: "ip1"
}
layer {
  name: "ip2"
  type: "InnerProduct"
  bottom: "ip1"
  top: "ip2"
  param {
    lr_mult: 1
  }
  param {
    lr_mult: 2
  }
  inner_product_param {
    num_output: 180
    weight_filler {
      type: "gaussian"
      std: 0.01
    }
    bias_filler {
      type: "constant"
    }
  }
}
layer {
  name: "relu2"
  type: "ReLU"
  bottom: "ip2"
  top: "ip2"
}
layer {
  name: "ip3"
  type: "InnerProduct"
  bottom: "ip2"
  top: "ip3"
  param {
    lr_mult: 1
  }
  param {
    lr_mult: 2
  }
  inner_product_param {
    num_output: 10
    weight_filler {
      type: "gaussian"
      std: 0.01
    }
    bias_filler {
      type: "constant"
    }
  }
}
layer {
  name: "loss"
  type: "SoftmaxWithLoss"
  bottom: "ip3"
  bottom: "label"
  top: "loss"
}
I0504 09:51:11.764767 24254 layer_factory.hpp:77] Creating layer cifar
I0504 09:51:11.764890 24254 db_lmdb.cpp:35] Opened lmdb examples/cifar10/cifar10_train_lmdb
I0504 09:51:11.764917 24254 net.cpp:86] Creating Layer cifar
I0504 09:51:11.764925 24254 net.cpp:382] cifar -> data
I0504 09:51:11.764948 24254 net.cpp:382] cifar -> label
I0504 09:51:11.764961 24254 data_transformer.cpp:25] Loading mean file from: examples/cifar10/mean.binaryproto
I0504 09:51:11.767122 24254 data_layer.cpp:45] output data size: 111,3,32,32
I0504 09:51:11.775132 24254 net.cpp:124] Setting up cifar
I0504 09:51:11.775152 24254 net.cpp:131] Top shape: 111 3 32 32 (340992)
I0504 09:51:11.775158 24254 net.cpp:131] Top shape: 111 (111)
I0504 09:51:11.775161 24254 net.cpp:139] Memory required for data: 1364412
I0504 09:51:11.775169 24254 layer_factory.hpp:77] Creating layer conv0
I0504 09:51:11.775190 24254 net.cpp:86] Creating Layer conv0
I0504 09:51:11.775197 24254 net.cpp:408] conv0 <- data
I0504 09:51:11.775208 24254 net.cpp:382] conv0 -> conv0
I0504 09:51:12.065932 24254 net.cpp:124] Setting up conv0
I0504 09:51:12.065963 24254 net.cpp:131] Top shape: 111 24 32 32 (2727936)
I0504 09:51:12.065968 24254 net.cpp:139] Memory required for data: 12276156
I0504 09:51:12.065984 24254 layer_factory.hpp:77] Creating layer Sigmoid0
I0504 09:51:12.065999 24254 net.cpp:86] Creating Layer Sigmoid0
I0504 09:51:12.066002 24254 net.cpp:408] Sigmoid0 <- conv0
I0504 09:51:12.066009 24254 net.cpp:382] Sigmoid0 -> Sigmoid0
I0504 09:51:12.066205 24254 net.cpp:124] Setting up Sigmoid0
I0504 09:51:12.066216 24254 net.cpp:131] Top shape: 111 24 32 32 (2727936)
I0504 09:51:12.066220 24254 net.cpp:139] Memory required for data: 23187900
I0504 09:51:12.066223 24254 layer_factory.hpp:77] Creating layer pool0
I0504 09:51:12.066231 24254 net.cpp:86] Creating Layer pool0
I0504 09:51:12.066236 24254 net.cpp:408] pool0 <- Sigmoid0
I0504 09:51:12.066241 24254 net.cpp:382] pool0 -> pool0
I0504 09:51:12.067054 24254 net.cpp:124] Setting up pool0
I0504 09:51:12.067068 24254 net.cpp:131] Top shape: 111 24 16 16 (681984)
I0504 09:51:12.067072 24254 net.cpp:139] Memory required for data: 25915836
I0504 09:51:12.067076 24254 layer_factory.hpp:77] Creating layer conv1
I0504 09:51:12.067090 24254 net.cpp:86] Creating Layer conv1
I0504 09:51:12.067095 24254 net.cpp:408] conv1 <- pool0
I0504 09:51:12.067101 24254 net.cpp:382] conv1 -> conv1
I0504 09:51:12.070449 24254 net.cpp:124] Setting up conv1
I0504 09:51:12.070466 24254 net.cpp:131] Top shape: 111 72 18 18 (2589408)
I0504 09:51:12.070471 24254 net.cpp:139] Memory required for data: 36273468
I0504 09:51:12.070479 24254 layer_factory.hpp:77] Creating layer Sigmoid1
I0504 09:51:12.070487 24254 net.cpp:86] Creating Layer Sigmoid1
I0504 09:51:12.070490 24254 net.cpp:408] Sigmoid1 <- conv1
I0504 09:51:12.070497 24254 net.cpp:382] Sigmoid1 -> Sigmoid1
I0504 09:51:12.070688 24254 net.cpp:124] Setting up Sigmoid1
I0504 09:51:12.070698 24254 net.cpp:131] Top shape: 111 72 18 18 (2589408)
I0504 09:51:12.070701 24254 net.cpp:139] Memory required for data: 46631100
I0504 09:51:12.070705 24254 layer_factory.hpp:77] Creating layer pool1
I0504 09:51:12.070711 24254 net.cpp:86] Creating Layer pool1
I0504 09:51:12.070715 24254 net.cpp:408] pool1 <- Sigmoid1
I0504 09:51:12.070720 24254 net.cpp:382] pool1 -> pool1
I0504 09:51:12.070897 24254 net.cpp:124] Setting up pool1
I0504 09:51:12.070906 24254 net.cpp:131] Top shape: 111 72 9 9 (647352)
I0504 09:51:12.070910 24254 net.cpp:139] Memory required for data: 49220508
I0504 09:51:12.070914 24254 layer_factory.hpp:77] Creating layer ip1
I0504 09:51:12.070921 24254 net.cpp:86] Creating Layer ip1
I0504 09:51:12.070925 24254 net.cpp:408] ip1 <- pool1
I0504 09:51:12.070930 24254 net.cpp:382] ip1 -> ip1
I0504 09:51:12.073683 24254 net.cpp:124] Setting up ip1
I0504 09:51:12.073696 24254 net.cpp:131] Top shape: 111 10 (1110)
I0504 09:51:12.073699 24254 net.cpp:139] Memory required for data: 49224948
I0504 09:51:12.073709 24254 layer_factory.hpp:77] Creating layer relu1
I0504 09:51:12.073716 24254 net.cpp:86] Creating Layer relu1
I0504 09:51:12.073720 24254 net.cpp:408] relu1 <- ip1
I0504 09:51:12.073725 24254 net.cpp:369] relu1 -> ip1 (in-place)
I0504 09:51:12.073895 24254 net.cpp:124] Setting up relu1
I0504 09:51:12.073904 24254 net.cpp:131] Top shape: 111 10 (1110)
I0504 09:51:12.073909 24254 net.cpp:139] Memory required for data: 49229388
I0504 09:51:12.073911 24254 layer_factory.hpp:77] Creating layer ip2
I0504 09:51:12.073918 24254 net.cpp:86] Creating Layer ip2
I0504 09:51:12.073922 24254 net.cpp:408] ip2 <- ip1
I0504 09:51:12.073943 24254 net.cpp:382] ip2 -> ip2
I0504 09:51:12.074105 24254 net.cpp:124] Setting up ip2
I0504 09:51:12.074112 24254 net.cpp:131] Top shape: 111 180 (19980)
I0504 09:51:12.074116 24254 net.cpp:139] Memory required for data: 49309308
I0504 09:51:12.074122 24254 layer_factory.hpp:77] Creating layer relu2
I0504 09:51:12.074127 24254 net.cpp:86] Creating Layer relu2
I0504 09:51:12.074131 24254 net.cpp:408] relu2 <- ip2
I0504 09:51:12.074136 24254 net.cpp:369] relu2 -> ip2 (in-place)
I0504 09:51:12.074899 24254 net.cpp:124] Setting up relu2
I0504 09:51:12.074913 24254 net.cpp:131] Top shape: 111 180 (19980)
I0504 09:51:12.074918 24254 net.cpp:139] Memory required for data: 49389228
I0504 09:51:12.074921 24254 layer_factory.hpp:77] Creating layer ip3
I0504 09:51:12.074928 24254 net.cpp:86] Creating Layer ip3
I0504 09:51:12.074932 24254 net.cpp:408] ip3 <- ip2
I0504 09:51:12.074939 24254 net.cpp:382] ip3 -> ip3
I0504 09:51:12.075100 24254 net.cpp:124] Setting up ip3
I0504 09:51:12.075109 24254 net.cpp:131] Top shape: 111 10 (1110)
I0504 09:51:12.075111 24254 net.cpp:139] Memory required for data: 49393668
I0504 09:51:12.075120 24254 layer_factory.hpp:77] Creating layer loss
I0504 09:51:12.075126 24254 net.cpp:86] Creating Layer loss
I0504 09:51:12.075129 24254 net.cpp:408] loss <- ip3
I0504 09:51:12.075134 24254 net.cpp:408] loss <- label
I0504 09:51:12.075139 24254 net.cpp:382] loss -> loss
I0504 09:51:12.075157 24254 layer_factory.hpp:77] Creating layer loss
…
I0504 09:51:12.075851 24254 solver.cpp:173] Creating test net (#0) specified by net file: ECE595/cifar/train_test/var_everything_tiny/cifar_train_test_125.prototxt
I0504 09:51:12.075881 24254 net.cpp:296] The NetState phase (1) differed from the phase (0) specified by a rule in layer cifar
I0504 09:51:12.075984 24254 net.cpp:53] Initializing net from parameters: 
name: "CIFAR"
state {
  phase: TEST
}
layer {
  name: "cifar"
  type: "Data"
  top: "data"
  top: "label"
  include {
    phase: TEST
  }
  transform_param {
    mean_file: "examples/cifar10/mean.binaryproto"
  }
  data_param {
    source: "examples/cifar10/cifar10_test_lmdb"
    batch_size: 1000
    backend: LMDB
  }
}
layer {
  name: "conv0"
  type: "Convolution"
  bottom: "data"
  top: "conv0"
  param {
    lr_mult: 1
  }
  param {
    lr_mult: 2
  }
  convolution_param {
    num_output: 24
    pad: 2
    kernel_size: 5
    stride: 1
    weight_filler {
      type: "gaussian"
      std: 0.01
    }
    bias_filler {
      type: "constant"
    }
  }
}
layer {
  name: "Sigmoid0"
  type: "Sigmoid"
  bottom: "conv0"
  top: "Sigmoid0"
}
layer {
  name: "pool0"
  type: "Pooling"
  bottom: "Sigmoid0"
  top: "pool0"
  pooling_param {
    pool: AVE
    kernel_size: 3
    stride: 2
  }
}
layer {
  name: "conv1"
  type: "Convolution"
  bottom: "pool0"
  top: "conv1"
  param {
    lr_mult: 1
  }
  param {
    lr_mult: 2
  }
  convolution_param {
    num_output: 72
    pad: 2
    kernel_size: 3
    stride: 1
    weight_filler {
      type: "gaussian"
      std: 0.01
    }
    bias_filler {
      type: "constant"
    }
  }
}
layer {
  name: "Sigmoid1"
  type: "Sigmoid"
  bottom: "conv1"
  top: "Sigmoid1"
}
layer {
  name: "pool1"
  type: "Pooling"
  bottom: "Sigmoid1"
  top: "pool1"
  pooling_param {
    pool: AVE
    kernel_size: 3
    stride: 2
  }
}
layer {
  name: "ip1"
  type: "InnerProduct"
  bottom: "pool1"
  top: "ip1"
  param {
    lr_mult: 1
  }
  param {
    lr_mult: 2
  }
  inner_product_param {
    num_output: 10
    weight_filler {
      type: "gaussian"
      std: 0.01
    }
    bias_filler {
      type: "constant"
    }
  }
}
layer {
  name: "relu1"
  type: "ReLU"
  bottom: "ip1"
  top: "ip1"
}
layer {
  name: "ip2"
  type: "InnerProduct"
  bottom: "ip1"
  top: "ip2"
  param {
    lr_mult: 1
  }
  param {
    lr_mult: 2
  }
  inner_product_param {
    num_output: 180
    weight_filler {
      type: "gaussian"
      std: 0.01
    }
    bias_filler {
      type: "constant"
    }
  }
}
layer {
  name: "relu2"
  type: "ReLU"
  bottom: "ip2"
  top: "ip2"
}
layer {
  name: "ip3"
  type: "InnerProduct"
  bottom: "ip2"
  top: "ip3"
  param {
    lr_mult: 1
  }
  param {
    lr_mult: 2
  }
  inner_product_param {
    num_output: 10
    weight_filler {
      type: "gaussian"
      std: 0.01
    }
    bias_filler {
      type: "constant"
    }
  }
}
layer {
  name: "accuracy"
  type: "Accuracy"
  bottom: "ip3"
  bottom: "label"
  top: "accuracy"
  include {
    phase: TEST
  }
}
layer {
  name: "loss"
  type: "SoftmaxWithLoss"
  bottom: "ip3"
  bottom: "label"
  top: "loss"
}
I0504 09:51:12.076071 24254 layer_factory.hpp:77] Creating layer cifar
I0504 09:51:12.076117 24254 db_lmdb.cpp:35] Opened lmdb examples/cifar10/cifar10_test_lmdb
I0504 09:51:12.076131 24254 net.cpp:86] Creating Layer cifar
I0504 09:51:12.076135 24254 net.cpp:382] cifar -> data
I0504 09:51:12.076144 24254 net.cpp:382] cifar -> label
I0504 09:51:12.076151 24254 data_transformer.cpp:25] Loading mean file from: examples/cifar10/mean.binaryproto
I0504 09:51:12.076304 24254 data_layer.cpp:45] output data size: 1000,3,32,32
I0504 09:51:12.099308 24254 net.cpp:124] Setting up cifar
I0504 09:51:12.099335 24254 net.cpp:131] Top shape: 1000 3 32 32 (3072000)
I0504 09:51:12.099341 24254 net.cpp:131] Top shape: 1000 (1000)
I0504 09:51:12.099345 24254 net.cpp:139] Memory required for data: 12292000
I0504 09:51:12.099351 24254 layer_factory.hpp:77] Creating layer label_cifar_1_split
I0504 09:51:12.099366 24254 net.cpp:86] Creating Layer label_cifar_1_split
I0504 09:51:12.099371 24254 net.cpp:408] label_cifar_1_split <- label
I0504 09:51:12.099377 24254 net.cpp:382] label_cifar_1_split -> label_cifar_1_split_0
I0504 09:51:12.099386 24254 net.cpp:382] label_cifar_1_split -> label_cifar_1_split_1
I0504 09:51:12.099472 24254 net.cpp:124] Setting up label_cifar_1_split
I0504 09:51:12.099480 24254 net.cpp:131] Top shape: 1000 (1000)
I0504 09:51:12.099484 24254 net.cpp:131] Top shape: 1000 (1000)
I0504 09:51:12.099488 24254 net.cpp:139] Memory required for data: 12300000
I0504 09:51:12.099490 24254 layer_factory.hpp:77] Creating layer conv0
I0504 09:51:12.099503 24254 net.cpp:86] Creating Layer conv0
I0504 09:51:12.099506 24254 net.cpp:408] conv0 <- data
I0504 09:51:12.099511 24254 net.cpp:382] conv0 -> conv0
I0504 09:51:12.101964 24254 net.cpp:124] Setting up conv0
I0504 09:51:12.101979 24254 net.cpp:131] Top shape: 1000 24 32 32 (24576000)
I0504 09:51:12.101984 24254 net.cpp:139] Memory required for data: 110604000
I0504 09:51:12.101994 24254 layer_factory.hpp:77] Creating layer Sigmoid0
I0504 09:51:12.102001 24254 net.cpp:86] Creating Layer Sigmoid0
I0504 09:51:12.102005 24254 net.cpp:408] Sigmoid0 <- conv0
I0504 09:51:12.102010 24254 net.cpp:382] Sigmoid0 -> Sigmoid0
I0504 09:51:12.102186 24254 net.cpp:124] Setting up Sigmoid0
I0504 09:51:12.102208 24254 net.cpp:131] Top shape: 1000 24 32 32 (24576000)
I0504 09:51:12.102212 24254 net.cpp:139] Memory required for data: 208908000
I0504 09:51:12.102216 24254 layer_factory.hpp:77] Creating layer pool0
I0504 09:51:12.102223 24254 net.cpp:86] Creating Layer pool0
I0504 09:51:12.102227 24254 net.cpp:408] pool0 <- Sigmoid0
I0504 09:51:12.102232 24254 net.cpp:382] pool0 -> pool0
I0504 09:51:12.102396 24254 net.cpp:124] Setting up pool0
I0504 09:51:12.102404 24254 net.cpp:131] Top shape: 1000 24 16 16 (6144000)
I0504 09:51:12.102408 24254 net.cpp:139] Memory required for data: 233484000
I0504 09:51:12.102412 24254 layer_factory.hpp:77] Creating layer conv1
I0504 09:51:12.102421 24254 net.cpp:86] Creating Layer conv1
I0504 09:51:12.102424 24254 net.cpp:408] conv1 <- pool0
I0504 09:51:12.102432 24254 net.cpp:382] conv1 -> conv1
I0504 09:51:12.104116 24254 net.cpp:124] Setting up conv1
I0504 09:51:12.104130 24254 net.cpp:131] Top shape: 1000 72 18 18 (23328000)
I0504 09:51:12.104133 24254 net.cpp:139] Memory required for data: 326796000
I0504 09:51:12.104142 24254 layer_factory.hpp:77] Creating layer Sigmoid1
I0504 09:51:12.104148 24254 net.cpp:86] Creating Layer Sigmoid1
I0504 09:51:12.104151 24254 net.cpp:408] Sigmoid1 <- conv1
I0504 09:51:12.104156 24254 net.cpp:382] Sigmoid1 -> Sigmoid1
I0504 09:51:12.104318 24254 net.cpp:124] Setting up Sigmoid1
I0504 09:51:12.104327 24254 net.cpp:131] Top shape: 1000 72 18 18 (23328000)
I0504 09:51:12.104331 24254 net.cpp:139] Memory required for data: 420108000
I0504 09:51:12.104334 24254 layer_factory.hpp:77] Creating layer pool1
I0504 09:51:12.104339 24254 net.cpp:86] Creating Layer pool1
I0504 09:51:12.104343 24254 net.cpp:408] pool1 <- Sigmoid1
I0504 09:51:12.104347 24254 net.cpp:382] pool1 -> pool1
I0504 09:51:12.105088 24254 net.cpp:124] Setting up pool1
I0504 09:51:12.105118 24254 net.cpp:131] Top shape: 1000 72 9 9 (5832000)
I0504 09:51:12.105121 24254 net.cpp:139] Memory required for data: 443436000
I0504 09:51:12.105125 24254 layer_factory.hpp:77] Creating layer ip1
I0504 09:51:12.105149 24254 net.cpp:86] Creating Layer ip1
I0504 09:51:12.105152 24254 net.cpp:408] ip1 <- pool1
I0504 09:51:12.105159 24254 net.cpp:382] ip1 -> ip1
I0504 09:51:12.106847 24254 net.cpp:124] Setting up ip1
I0504 09:51:12.106854 24254 net.cpp:131] Top shape: 1000 10 (10000)
I0504 09:51:12.106858 24254 net.cpp:139] Memory required for data: 443476000
I0504 09:51:12.106865 24254 layer_factory.hpp:77] Creating layer relu1
I0504 09:51:12.106871 24254 net.cpp:86] Creating Layer relu1
I0504 09:51:12.106874 24254 net.cpp:408] relu1 <- ip1
I0504 09:51:12.106879 24254 net.cpp:369] relu1 -> ip1 (in-place)
I0504 09:51:12.107026 24254 net.cpp:124] Setting up relu1
I0504 09:51:12.107034 24254 net.cpp:131] Top shape: 1000 10 (10000)
I0504 09:51:12.107038 24254 net.cpp:139] Memory required for data: 443516000
I0504 09:51:12.107043 24254 layer_factory.hpp:77] Creating layer ip2
I0504 09:51:12.107048 24254 net.cpp:86] Creating Layer ip2
I0504 09:51:12.107051 24254 net.cpp:408] ip2 <- ip1
I0504 09:51:12.107056 24254 net.cpp:382] ip2 -> ip2
I0504 09:51:12.107204 24254 net.cpp:124] Setting up ip2
I0504 09:51:12.107215 24254 net.cpp:131] Top shape: 1000 180 (180000)
I0504 09:51:12.107218 24254 net.cpp:139] Memory required for data: 444236000
I0504 09:51:12.107223 24254 layer_factory.hpp:77] Creating layer relu2
I0504 09:51:12.107228 24254 net.cpp:86] Creating Layer relu2
I0504 09:51:12.107233 24254 net.cpp:408] relu2 <- ip2
I0504 09:51:12.107236 24254 net.cpp:369] relu2 -> ip2 (in-place)
I0504 09:51:12.107379 24254 net.cpp:124] Setting up relu2
I0504 09:51:12.107388 24254 net.cpp:131] Top shape: 1000 180 (180000)
I0504 09:51:12.107390 24254 net.cpp:139] Memory required for data: 444956000
I0504 09:51:12.107393 24254 layer_factory.hpp:77] Creating layer ip3
I0504 09:51:12.107399 24254 net.cpp:86] Creating Layer ip3
I0504 09:51:12.107403 24254 net.cpp:408] ip3 <- ip2
I0504 09:51:12.107408 24254 net.cpp:382] ip3 -> ip3
I0504 09:51:12.107554 24254 net.cpp:124] Setting up ip3
I0504 09:51:12.107561 24254 net.cpp:131] Top shape: 1000 10 (10000)
I0504 09:51:12.107574 24254 net.cpp:139] Memory required for data: 444996000
I0504 09:51:12.107583 24254 layer_factory.hpp:77] Creating layer ip3_ip3_0_split
I0504 09:51:12.107589 24254 net.cpp:86] Creating Layer ip3_ip3_0_split
I0504 09:51:12.107594 24254 net.cpp:408] ip3_ip3_0_split <- ip3
I0504 09:51:12.107597 24254 net.cpp:382] ip3_ip3_0_split -> ip3_ip3_0_split_0
I0504 09:51:12.107604 24254 net.cpp:382] ip3_ip3_0_split -> ip3_ip3_0_split_1
I0504 09:51:12.107636 24254 net.cpp:124] Setting up ip3_ip3_0_split
I0504 09:51:12.107640 24254 net.cpp:131] Top shape: 1000 10 (10000)
I0504 09:51:12.107645 24254 net.cpp:131] Top shape: 1000 10 (10000)
I0504 09:51:12.107647 24254 net.cpp:139] Memory required for data: 445076000
I0504 09:51:12.107651 24254 layer_factory.hpp:77] Creating layer accuracy
I0504 09:51:12.107657 24254 net.cpp:86] Creating Layer accuracy
I0504 09:51:12.107661 24254 net.cpp:408] accuracy <- ip3_ip3_0_split_0
I0504 09:51:12.107664 24254 net.cpp:408] accuracy <- label_cifar_1_split_0
I0504 09:51:12.107669 24254 net.cpp:382] accuracy -> accuracy
…
