…
I0504 10:47:44.073030 25940 net.cpp:296] The NetState phase (0) differed from the phase (1) specified by a rule in layer cifar
I0504 10:47:44.073046 25940 net.cpp:296] The NetState phase (0) differed from the phase (1) specified by a rule in layer accuracy
I0504 10:47:44.073165 25940 net.cpp:53] Initializing net from parameters: 
name: "CIFAR"
state {
  phase: TRAIN
  level: 0
  stage: ""
}
layer {
  name: "cifar"
  type: "Data"
  top: "data"
  top: "label"
  include {
    phase: TRAIN
  }
  transform_param {
    mean_file: "examples/cifar10/mean.binaryproto"
  }
  data_param {
    source: "examples/cifar10/cifar10_train_lmdb"
    batch_size: 111
    backend: LMDB
  }
}
layer {
  name: "conv0"
  type: "Convolution"
  bottom: "data"
  top: "conv0"
  param {
    lr_mult: 1
  }
  param {
    lr_mult: 2
  }
  convolution_param {
    num_output: 24
    pad: 2
    kernel_size: 5
    stride: 1
    weight_filler {
      type: "gaussian"
      std: 0.01
    }
    bias_filler {
      type: "constant"
    }
  }
}
layer {
  name: "Sigmoid0"
  type: "Sigmoid"
  bottom: "conv0"
  top: "Sigmoid0"
}
layer {
  name: "pool0"
  type: "Pooling"
  bottom: "Sigmoid0"
  top: "pool0"
  pooling_param {
    pool: AVE
    kernel_size: 3
    stride: 2
  }
}
layer {
  name: "conv1"
  type: "Convolution"
  bottom: "pool0"
  top: "conv1"
  param {
    lr_mult: 1
  }
  param {
    lr_mult: 2
  }
  convolution_param {
    num_output: 72
    pad: 2
    kernel_size: 5
    stride: 1
    weight_filler {
      type: "gaussian"
      std: 0.01
    }
    bias_filler {
      type: "constant"
    }
  }
}
layer {
  name: "Sigmoid1"
  type: "Sigmoid"
  bottom: "conv1"
  top: "Sigmoid1"
}
layer {
  name: "pool1"
  type: "Pooling"
  bottom: "Sigmoid1"
  top: "pool1"
  pooling_param {
    pool: AVE
    kernel_size: 3
    stride: 2
  }
}
layer {
  name: "ip1"
  type: "InnerProduct"
  bottom: "pool1"
  top: "ip1"
  param {
    lr_mult: 1
  }
  param {
    lr_mult: 2
  }
  inner_product_param {
    num_output: 60
    weight_filler {
      type: "gaussian"
      std: 0.01
    }
    bias_filler {
      type: "constant"
    }
  }
}
layer {
  name: "relu1"
  type: "ReLU"
  bottom: "ip1"
  top: "ip1"
}
layer {
  name: "ip2"
  type: "InnerProduct"
  bottom: "ip1"
  top: "ip2"
  param {
    lr_mult: 1
  }
  param {
    lr_mult: 2
  }
  inner_product_param {
    num_output: 60
    weight_filler {
      type: "gaussian"
      std: 0.01
    }
    bias_filler {
      type: "constant"
    }
  }
}
layer {
  name: "relu2"
  type: "ReLU"
  bottom: "ip2"
  top: "ip2"
}
layer {
  name: "ip3"
  type: "InnerProduct"
  bottom: "ip2"
  top: "ip3"
  param {
    lr_mult: 1
  }
  param {
    lr_mult: 2
  }
  inner_product_param {
    num_output: 10
    weight_filler {
      type: "gaussian"
      std: 0.01
    }
    bias_filler {
      type: "constant"
    }
  }
}
layer {
  name: "loss"
  type: "SoftmaxWithLoss"
  bottom: "ip3"
  bottom: "label"
  top: "loss"
}
I0504 10:47:44.073232 25940 layer_factory.hpp:77] Creating layer cifar
I0504 10:47:44.073309 25940 db_lmdb.cpp:35] Opened lmdb examples/cifar10/cifar10_train_lmdb
I0504 10:47:44.073331 25940 net.cpp:86] Creating Layer cifar
I0504 10:47:44.073338 25940 net.cpp:382] cifar -> data
I0504 10:47:44.073356 25940 net.cpp:382] cifar -> label
I0504 10:47:44.073369 25940 data_transformer.cpp:25] Loading mean file from: examples/cifar10/mean.binaryproto
I0504 10:47:44.075160 25940 data_layer.cpp:45] output data size: 111,3,32,32
I0504 10:47:44.081603 25940 net.cpp:124] Setting up cifar
I0504 10:47:44.081617 25940 net.cpp:131] Top shape: 111 3 32 32 (340992)
I0504 10:47:44.081622 25940 net.cpp:131] Top shape: 111 (111)
I0504 10:47:44.081625 25940 net.cpp:139] Memory required for data: 1364412
I0504 10:47:44.081631 25940 layer_factory.hpp:77] Creating layer conv0
I0504 10:47:44.081645 25940 net.cpp:86] Creating Layer conv0
I0504 10:47:44.081650 25940 net.cpp:408] conv0 <- data
I0504 10:47:44.081660 25940 net.cpp:382] conv0 -> conv0
I0504 10:47:44.308277 25940 net.cpp:124] Setting up conv0
I0504 10:47:44.308305 25940 net.cpp:131] Top shape: 111 24 32 32 (2727936)
I0504 10:47:44.308307 25940 net.cpp:139] Memory required for data: 12276156
I0504 10:47:44.308321 25940 layer_factory.hpp:77] Creating layer Sigmoid0
I0504 10:47:44.308332 25940 net.cpp:86] Creating Layer Sigmoid0
I0504 10:47:44.308336 25940 net.cpp:408] Sigmoid0 <- conv0
I0504 10:47:44.308341 25940 net.cpp:382] Sigmoid0 -> Sigmoid0
I0504 10:47:44.308519 25940 net.cpp:124] Setting up Sigmoid0
I0504 10:47:44.308528 25940 net.cpp:131] Top shape: 111 24 32 32 (2727936)
I0504 10:47:44.308531 25940 net.cpp:139] Memory required for data: 23187900
I0504 10:47:44.308534 25940 layer_factory.hpp:77] Creating layer pool0
I0504 10:47:44.308542 25940 net.cpp:86] Creating Layer pool0
I0504 10:47:44.308544 25940 net.cpp:408] pool0 <- Sigmoid0
I0504 10:47:44.308549 25940 net.cpp:382] pool0 -> pool0
I0504 10:47:44.309321 25940 net.cpp:124] Setting up pool0
I0504 10:47:44.309334 25940 net.cpp:131] Top shape: 111 24 16 16 (681984)
I0504 10:47:44.309337 25940 net.cpp:139] Memory required for data: 25915836
I0504 10:47:44.309340 25940 layer_factory.hpp:77] Creating layer conv1
I0504 10:47:44.309351 25940 net.cpp:86] Creating Layer conv1
I0504 10:47:44.309355 25940 net.cpp:408] conv1 <- pool0
I0504 10:47:44.309360 25940 net.cpp:382] conv1 -> conv1
I0504 10:47:44.312904 25940 net.cpp:124] Setting up conv1
I0504 10:47:44.312917 25940 net.cpp:131] Top shape: 111 72 16 16 (2045952)
I0504 10:47:44.312937 25940 net.cpp:139] Memory required for data: 34099644
I0504 10:47:44.312944 25940 layer_factory.hpp:77] Creating layer Sigmoid1
I0504 10:47:44.312952 25940 net.cpp:86] Creating Layer Sigmoid1
I0504 10:47:44.312954 25940 net.cpp:408] Sigmoid1 <- conv1
I0504 10:47:44.312959 25940 net.cpp:382] Sigmoid1 -> Sigmoid1
I0504 10:47:44.313215 25940 net.cpp:124] Setting up Sigmoid1
I0504 10:47:44.313226 25940 net.cpp:131] Top shape: 111 72 16 16 (2045952)
I0504 10:47:44.313230 25940 net.cpp:139] Memory required for data: 42283452
I0504 10:47:44.313233 25940 layer_factory.hpp:77] Creating layer pool1
I0504 10:47:44.313240 25940 net.cpp:86] Creating Layer pool1
I0504 10:47:44.313242 25940 net.cpp:408] pool1 <- Sigmoid1
I0504 10:47:44.313247 25940 net.cpp:382] pool1 -> pool1
I0504 10:47:44.313428 25940 net.cpp:124] Setting up pool1
I0504 10:47:44.313436 25940 net.cpp:131] Top shape: 111 72 8 8 (511488)
I0504 10:47:44.313439 25940 net.cpp:139] Memory required for data: 44329404
I0504 10:47:44.313442 25940 layer_factory.hpp:77] Creating layer ip1
I0504 10:47:44.313450 25940 net.cpp:86] Creating Layer ip1
I0504 10:47:44.313454 25940 net.cpp:408] ip1 <- pool1
I0504 10:47:44.313458 25940 net.cpp:382] ip1 -> ip1
I0504 10:47:44.321215 25940 net.cpp:124] Setting up ip1
I0504 10:47:44.321228 25940 net.cpp:131] Top shape: 111 60 (6660)
I0504 10:47:44.321230 25940 net.cpp:139] Memory required for data: 44356044
I0504 10:47:44.321238 25940 layer_factory.hpp:77] Creating layer relu1
I0504 10:47:44.321246 25940 net.cpp:86] Creating Layer relu1
I0504 10:47:44.321249 25940 net.cpp:408] relu1 <- ip1
I0504 10:47:44.321254 25940 net.cpp:369] relu1 -> ip1 (in-place)
I0504 10:47:44.321427 25940 net.cpp:124] Setting up relu1
I0504 10:47:44.321435 25940 net.cpp:131] Top shape: 111 60 (6660)
I0504 10:47:44.321439 25940 net.cpp:139] Memory required for data: 44382684
I0504 10:47:44.321442 25940 layer_factory.hpp:77] Creating layer ip2
I0504 10:47:44.321449 25940 net.cpp:86] Creating Layer ip2
I0504 10:47:44.321451 25940 net.cpp:408] ip2 <- ip1
I0504 10:47:44.321470 25940 net.cpp:382] ip2 -> ip2
I0504 10:47:44.321658 25940 net.cpp:124] Setting up ip2
I0504 10:47:44.321666 25940 net.cpp:131] Top shape: 111 60 (6660)
I0504 10:47:44.321669 25940 net.cpp:139] Memory required for data: 44409324
I0504 10:47:44.321674 25940 layer_factory.hpp:77] Creating layer relu2
I0504 10:47:44.321682 25940 net.cpp:86] Creating Layer relu2
I0504 10:47:44.321686 25940 net.cpp:408] relu2 <- ip2
I0504 10:47:44.321688 25940 net.cpp:369] relu2 -> ip2 (in-place)
I0504 10:47:44.322408 25940 net.cpp:124] Setting up relu2
I0504 10:47:44.322420 25940 net.cpp:131] Top shape: 111 60 (6660)
I0504 10:47:44.322423 25940 net.cpp:139] Memory required for data: 44435964
I0504 10:47:44.322427 25940 layer_factory.hpp:77] Creating layer ip3
I0504 10:47:44.322433 25940 net.cpp:86] Creating Layer ip3
I0504 10:47:44.322437 25940 net.cpp:408] ip3 <- ip2
I0504 10:47:44.322441 25940 net.cpp:382] ip3 -> ip3
I0504 10:47:44.322563 25940 net.cpp:124] Setting up ip3
I0504 10:47:44.322571 25940 net.cpp:131] Top shape: 111 10 (1110)
I0504 10:47:44.322573 25940 net.cpp:139] Memory required for data: 44440404
I0504 10:47:44.322580 25940 layer_factory.hpp:77] Creating layer loss
I0504 10:47:44.322587 25940 net.cpp:86] Creating Layer loss
I0504 10:47:44.322589 25940 net.cpp:408] loss <- ip3
I0504 10:47:44.322593 25940 net.cpp:408] loss <- label
I0504 10:47:44.322597 25940 net.cpp:382] loss -> loss
I0504 10:47:44.322613 25940 layer_factory.hpp:77] Creating layer loss
…
I0504 10:47:44.323287 25940 solver.cpp:173] Creating test net (#0) specified by net file: ECE595/cifar/train_test/var_everything_tiny/cifar_train_test_139.prototxt
I0504 10:47:44.323341 25940 net.cpp:296] The NetState phase (1) differed from the phase (0) specified by a rule in layer cifar
I0504 10:47:44.323448 25940 net.cpp:53] Initializing net from parameters: 
name: "CIFAR"
state {
  phase: TEST
}
layer {
  name: "cifar"
  type: "Data"
  top: "data"
  top: "label"
  include {
    phase: TEST
  }
  transform_param {
    mean_file: "examples/cifar10/mean.binaryproto"
  }
  data_param {
    source: "examples/cifar10/cifar10_test_lmdb"
    batch_size: 1000
    backend: LMDB
  }
}
layer {
  name: "conv0"
  type: "Convolution"
  bottom: "data"
  top: "conv0"
  param {
    lr_mult: 1
  }
  param {
    lr_mult: 2
  }
  convolution_param {
    num_output: 24
    pad: 2
    kernel_size: 5
    stride: 1
    weight_filler {
      type: "gaussian"
      std: 0.01
    }
    bias_filler {
      type: "constant"
    }
  }
}
layer {
  name: "Sigmoid0"
  type: "Sigmoid"
  bottom: "conv0"
  top: "Sigmoid0"
}
layer {
  name: "pool0"
  type: "Pooling"
  bottom: "Sigmoid0"
  top: "pool0"
  pooling_param {
    pool: AVE
    kernel_size: 3
    stride: 2
  }
}
layer {
  name: "conv1"
  type: "Convolution"
  bottom: "pool0"
  top: "conv1"
  param {
    lr_mult: 1
  }
  param {
    lr_mult: 2
  }
  convolution_param {
    num_output: 72
    pad: 2
    kernel_size: 5
    stride: 1
    weight_filler {
      type: "gaussian"
      std: 0.01
    }
    bias_filler {
      type: "constant"
    }
  }
}
layer {
  name: "Sigmoid1"
  type: "Sigmoid"
  bottom: "conv1"
  top: "Sigmoid1"
}
layer {
  name: "pool1"
  type: "Pooling"
  bottom: "Sigmoid1"
  top: "pool1"
  pooling_param {
    pool: AVE
    kernel_size: 3
    stride: 2
  }
}
layer {
  name: "ip1"
  type: "InnerProduct"
  bottom: "pool1"
  top: "ip1"
  param {
    lr_mult: 1
  }
  param {
    lr_mult: 2
  }
  inner_product_param {
    num_output: 60
    weight_filler {
      type: "gaussian"
      std: 0.01
    }
    bias_filler {
      type: "constant"
    }
  }
}
layer {
  name: "relu1"
  type: "ReLU"
  bottom: "ip1"
  top: "ip1"
}
layer {
  name: "ip2"
  type: "InnerProduct"
  bottom: "ip1"
  top: "ip2"
  param {
    lr_mult: 1
  }
  param {
    lr_mult: 2
  }
  inner_product_param {
    num_output: 60
    weight_filler {
      type: "gaussian"
      std: 0.01
    }
    bias_filler {
      type: "constant"
    }
  }
}
layer {
  name: "relu2"
  type: "ReLU"
  bottom: "ip2"
  top: "ip2"
}
layer {
  name: "ip3"
  type: "InnerProduct"
  bottom: "ip2"
  top: "ip3"
  param {
    lr_mult: 1
  }
  param {
    lr_mult: 2
  }
  inner_product_param {
    num_output: 10
    weight_filler {
      type: "gaussian"
      std: 0.01
    }
    bias_filler {
      type: "constant"
    }
  }
}
layer {
  name: "accuracy"
  type: "Accuracy"
  bottom: "ip3"
  bottom: "label"
  top: "accuracy"
  include {
    phase: TEST
  }
}
layer {
  name: "loss"
  type: "SoftmaxWithLoss"
  bottom: "ip3"
  bottom: "label"
  top: "loss"
}
I0504 10:47:44.323529 25940 layer_factory.hpp:77] Creating layer cifar
I0504 10:47:44.323570 25940 db_lmdb.cpp:35] Opened lmdb examples/cifar10/cifar10_test_lmdb
I0504 10:47:44.323583 25940 net.cpp:86] Creating Layer cifar
I0504 10:47:44.323587 25940 net.cpp:382] cifar -> data
I0504 10:47:44.323595 25940 net.cpp:382] cifar -> label
I0504 10:47:44.323601 25940 data_transformer.cpp:25] Loading mean file from: examples/cifar10/mean.binaryproto
I0504 10:47:44.323756 25940 data_layer.cpp:45] output data size: 1000,3,32,32
I0504 10:47:44.345677 25940 net.cpp:124] Setting up cifar
I0504 10:47:44.345718 25940 net.cpp:131] Top shape: 1000 3 32 32 (3072000)
I0504 10:47:44.345724 25940 net.cpp:131] Top shape: 1000 (1000)
I0504 10:47:44.345726 25940 net.cpp:139] Memory required for data: 12292000
I0504 10:47:44.345731 25940 layer_factory.hpp:77] Creating layer label_cifar_1_split
I0504 10:47:44.345743 25940 net.cpp:86] Creating Layer label_cifar_1_split
I0504 10:47:44.345747 25940 net.cpp:408] label_cifar_1_split <- label
I0504 10:47:44.345754 25940 net.cpp:382] label_cifar_1_split -> label_cifar_1_split_0
I0504 10:47:44.345762 25940 net.cpp:382] label_cifar_1_split -> label_cifar_1_split_1
I0504 10:47:44.345911 25940 net.cpp:124] Setting up label_cifar_1_split
I0504 10:47:44.345921 25940 net.cpp:131] Top shape: 1000 (1000)
I0504 10:47:44.345939 25940 net.cpp:131] Top shape: 1000 (1000)
I0504 10:47:44.345942 25940 net.cpp:139] Memory required for data: 12300000
I0504 10:47:44.345947 25940 layer_factory.hpp:77] Creating layer conv0
I0504 10:47:44.345959 25940 net.cpp:86] Creating Layer conv0
I0504 10:47:44.345963 25940 net.cpp:408] conv0 <- data
I0504 10:47:44.345968 25940 net.cpp:382] conv0 -> conv0
I0504 10:47:44.347568 25940 net.cpp:124] Setting up conv0
I0504 10:47:44.347596 25940 net.cpp:131] Top shape: 1000 24 32 32 (24576000)
I0504 10:47:44.347599 25940 net.cpp:139] Memory required for data: 110604000
I0504 10:47:44.347609 25940 layer_factory.hpp:77] Creating layer Sigmoid0
I0504 10:47:44.347615 25940 net.cpp:86] Creating Layer Sigmoid0
I0504 10:47:44.347618 25940 net.cpp:408] Sigmoid0 <- conv0
I0504 10:47:44.347623 25940 net.cpp:382] Sigmoid0 -> Sigmoid0
I0504 10:47:44.347869 25940 net.cpp:124] Setting up Sigmoid0
I0504 10:47:44.347892 25940 net.cpp:131] Top shape: 1000 24 32 32 (24576000)
I0504 10:47:44.347894 25940 net.cpp:139] Memory required for data: 208908000
I0504 10:47:44.347898 25940 layer_factory.hpp:77] Creating layer pool0
I0504 10:47:44.347906 25940 net.cpp:86] Creating Layer pool0
I0504 10:47:44.347909 25940 net.cpp:408] pool0 <- Sigmoid0
I0504 10:47:44.347914 25940 net.cpp:382] pool0 -> pool0
I0504 10:47:44.349107 25940 net.cpp:124] Setting up pool0
I0504 10:47:44.349117 25940 net.cpp:131] Top shape: 1000 24 16 16 (6144000)
I0504 10:47:44.349134 25940 net.cpp:139] Memory required for data: 233484000
I0504 10:47:44.349138 25940 layer_factory.hpp:77] Creating layer conv1
I0504 10:47:44.349162 25940 net.cpp:86] Creating Layer conv1
I0504 10:47:44.349166 25940 net.cpp:408] conv1 <- pool0
I0504 10:47:44.349171 25940 net.cpp:382] conv1 -> conv1
I0504 10:47:44.351586 25940 net.cpp:124] Setting up conv1
I0504 10:47:44.351599 25940 net.cpp:131] Top shape: 1000 72 16 16 (18432000)
I0504 10:47:44.351618 25940 net.cpp:139] Memory required for data: 307212000
I0504 10:47:44.351627 25940 layer_factory.hpp:77] Creating layer Sigmoid1
I0504 10:47:44.351632 25940 net.cpp:86] Creating Layer Sigmoid1
I0504 10:47:44.351635 25940 net.cpp:408] Sigmoid1 <- conv1
I0504 10:47:44.351640 25940 net.cpp:382] Sigmoid1 -> Sigmoid1
I0504 10:47:44.351837 25940 net.cpp:124] Setting up Sigmoid1
I0504 10:47:44.351847 25940 net.cpp:131] Top shape: 1000 72 16 16 (18432000)
I0504 10:47:44.351850 25940 net.cpp:139] Memory required for data: 380940000
I0504 10:47:44.351853 25940 layer_factory.hpp:77] Creating layer pool1
I0504 10:47:44.351860 25940 net.cpp:86] Creating Layer pool1
I0504 10:47:44.351863 25940 net.cpp:408] pool1 <- Sigmoid1
I0504 10:47:44.351867 25940 net.cpp:382] pool1 -> pool1
I0504 10:47:44.352615 25940 net.cpp:124] Setting up pool1
I0504 10:47:44.352627 25940 net.cpp:131] Top shape: 1000 72 8 8 (4608000)
I0504 10:47:44.352644 25940 net.cpp:139] Memory required for data: 399372000
I0504 10:47:44.352648 25940 layer_factory.hpp:77] Creating layer ip1
I0504 10:47:44.352658 25940 net.cpp:86] Creating Layer ip1
I0504 10:47:44.352661 25940 net.cpp:408] ip1 <- pool1
I0504 10:47:44.352668 25940 net.cpp:382] ip1 -> ip1
I0504 10:47:44.360628 25940 net.cpp:124] Setting up ip1
I0504 10:47:44.360641 25940 net.cpp:131] Top shape: 1000 60 (60000)
I0504 10:47:44.360659 25940 net.cpp:139] Memory required for data: 399612000
I0504 10:47:44.360667 25940 layer_factory.hpp:77] Creating layer relu1
I0504 10:47:44.360674 25940 net.cpp:86] Creating Layer relu1
I0504 10:47:44.360677 25940 net.cpp:408] relu1 <- ip1
I0504 10:47:44.360682 25940 net.cpp:369] relu1 -> ip1 (in-place)
I0504 10:47:44.360879 25940 net.cpp:124] Setting up relu1
I0504 10:47:44.360888 25940 net.cpp:131] Top shape: 1000 60 (60000)
I0504 10:47:44.360893 25940 net.cpp:139] Memory required for data: 399852000
I0504 10:47:44.360895 25940 layer_factory.hpp:77] Creating layer ip2
I0504 10:47:44.360905 25940 net.cpp:86] Creating Layer ip2
I0504 10:47:44.360909 25940 net.cpp:408] ip2 <- ip1
I0504 10:47:44.360914 25940 net.cpp:382] ip2 -> ip2
I0504 10:47:44.361120 25940 net.cpp:124] Setting up ip2
I0504 10:47:44.361142 25940 net.cpp:131] Top shape: 1000 60 (60000)
I0504 10:47:44.361145 25940 net.cpp:139] Memory required for data: 400092000
I0504 10:47:44.361150 25940 layer_factory.hpp:77] Creating layer relu2
I0504 10:47:44.361156 25940 net.cpp:86] Creating Layer relu2
I0504 10:47:44.361160 25940 net.cpp:408] relu2 <- ip2
I0504 10:47:44.361163 25940 net.cpp:369] relu2 -> ip2 (in-place)
I0504 10:47:44.361336 25940 net.cpp:124] Setting up relu2
I0504 10:47:44.361344 25940 net.cpp:131] Top shape: 1000 60 (60000)
I0504 10:47:44.361347 25940 net.cpp:139] Memory required for data: 400332000
I0504 10:47:44.361351 25940 layer_factory.hpp:77] Creating layer ip3
I0504 10:47:44.361356 25940 net.cpp:86] Creating Layer ip3
I0504 10:47:44.361361 25940 net.cpp:408] ip3 <- ip2
I0504 10:47:44.361366 25940 net.cpp:382] ip3 -> ip3
I0504 10:47:44.361490 25940 net.cpp:124] Setting up ip3
I0504 10:47:44.361498 25940 net.cpp:131] Top shape: 1000 10 (10000)
I0504 10:47:44.361510 25940 net.cpp:139] Memory required for data: 400372000
I0504 10:47:44.361519 25940 layer_factory.hpp:77] Creating layer ip3_ip3_0_split
I0504 10:47:44.361524 25940 net.cpp:86] Creating Layer ip3_ip3_0_split
I0504 10:47:44.361527 25940 net.cpp:408] ip3_ip3_0_split <- ip3
I0504 10:47:44.361532 25940 net.cpp:382] ip3_ip3_0_split -> ip3_ip3_0_split_0
I0504 10:47:44.361538 25940 net.cpp:382] ip3_ip3_0_split -> ip3_ip3_0_split_1
I0504 10:47:44.361584 25940 net.cpp:124] Setting up ip3_ip3_0_split
I0504 10:47:44.361593 25940 net.cpp:131] Top shape: 1000 10 (10000)
I0504 10:47:44.361596 25940 net.cpp:131] Top shape: 1000 10 (10000)
I0504 10:47:44.361598 25940 net.cpp:139] Memory required for data: 400452000
I0504 10:47:44.361601 25940 layer_factory.hpp:77] Creating layer accuracy
I0504 10:47:44.361611 25940 net.cpp:86] Creating Layer accuracy
I0504 10:47:44.361614 25940 net.cpp:408] accuracy <- ip3_ip3_0_split_0
I0504 10:47:44.361618 25940 net.cpp:408] accuracy <- label_cifar_1_split_0
I0504 10:47:44.361623 25940 net.cpp:382] accuracy -> accuracy
…
