…
I0504 07:31:18.205904 19342 net.cpp:296] The NetState phase (0) differed from the phase (1) specified by a rule in layer cifar
I0504 07:31:18.205924 19342 net.cpp:296] The NetState phase (0) differed from the phase (1) specified by a rule in layer accuracy
I0504 07:31:18.206033 19342 net.cpp:53] Initializing net from parameters: 
name: "CIFAR"
state {
  phase: TRAIN
  level: 0
  stage: ""
}
layer {
  name: "cifar"
  type: "Data"
  top: "data"
  top: "label"
  include {
    phase: TRAIN
  }
  transform_param {
    mean_file: "examples/cifar10/mean.binaryproto"
  }
  data_param {
    source: "examples/cifar10/cifar10_train_lmdb"
    batch_size: 111
    backend: LMDB
  }
}
layer {
  name: "conv0"
  type: "Convolution"
  bottom: "data"
  top: "conv0"
  param {
    lr_mult: 1
  }
  param {
    lr_mult: 2
  }
  convolution_param {
    num_output: 24
    pad: 2
    kernel_size: 3
    stride: 1
    weight_filler {
      type: "gaussian"
      std: 0.01
    }
    bias_filler {
      type: "constant"
    }
  }
}
layer {
  name: "Sigmoid0"
  type: "Sigmoid"
  bottom: "conv0"
  top: "Sigmoid0"
}
layer {
  name: "pool0"
  type: "Pooling"
  bottom: "Sigmoid0"
  top: "pool0"
  pooling_param {
    pool: AVE
    kernel_size: 3
    stride: 2
  }
}
layer {
  name: "conv1"
  type: "Convolution"
  bottom: "pool0"
  top: "conv1"
  param {
    lr_mult: 1
  }
  param {
    lr_mult: 2
  }
  convolution_param {
    num_output: 24
    pad: 2
    kernel_size: 3
    stride: 1
    weight_filler {
      type: "gaussian"
      std: 0.01
    }
    bias_filler {
      type: "constant"
    }
  }
}
layer {
  name: "Sigmoid1"
  type: "Sigmoid"
  bottom: "conv1"
  top: "Sigmoid1"
}
layer {
  name: "pool1"
  type: "Pooling"
  bottom: "Sigmoid1"
  top: "pool1"
  pooling_param {
    pool: AVE
    kernel_size: 3
    stride: 2
  }
}
layer {
  name: "ip1"
  type: "InnerProduct"
  bottom: "pool1"
  top: "ip1"
  param {
    lr_mult: 1
  }
  param {
    lr_mult: 2
  }
  inner_product_param {
    num_output: 180
    weight_filler {
      type: "gaussian"
      std: 0.01
    }
    bias_filler {
      type: "constant"
    }
  }
}
layer {
  name: "relu1"
  type: "ReLU"
  bottom: "ip1"
  top: "ip1"
}
layer {
  name: "ip2"
  type: "InnerProduct"
  bottom: "ip1"
  top: "ip2"
  param {
    lr_mult: 1
  }
  param {
    lr_mult: 2
  }
  inner_product_param {
    num_output: 10
    weight_filler {
      type: "gaussian"
      std: 0.01
    }
    bias_filler {
      type: "constant"
    }
  }
}
layer {
  name: "relu2"
  type: "ReLU"
  bottom: "ip2"
  top: "ip2"
}
layer {
  name: "ip3"
  type: "InnerProduct"
  bottom: "ip2"
  top: "ip3"
  param {
    lr_mult: 1
  }
  param {
    lr_mult: 2
  }
  inner_product_param {
    num_output: 10
    weight_filler {
      type: "gaussian"
      std: 0.01
    }
    bias_filler {
      type: "constant"
    }
  }
}
layer {
  name: "loss"
  type: "SoftmaxWithLoss"
  bottom: "ip3"
  bottom: "label"
  top: "loss"
}
I0504 07:31:18.206120 19342 layer_factory.hpp:77] Creating layer cifar
I0504 07:31:18.206221 19342 db_lmdb.cpp:35] Opened lmdb examples/cifar10/cifar10_train_lmdb
I0504 07:31:18.206248 19342 net.cpp:86] Creating Layer cifar
I0504 07:31:18.206257 19342 net.cpp:382] cifar -> data
I0504 07:31:18.206279 19342 net.cpp:382] cifar -> label
I0504 07:31:18.206292 19342 data_transformer.cpp:25] Loading mean file from: examples/cifar10/mean.binaryproto
I0504 07:31:18.208444 19342 data_layer.cpp:45] output data size: 111,3,32,32
I0504 07:31:18.216447 19342 net.cpp:124] Setting up cifar
I0504 07:31:18.216469 19342 net.cpp:131] Top shape: 111 3 32 32 (340992)
I0504 07:31:18.216475 19342 net.cpp:131] Top shape: 111 (111)
I0504 07:31:18.216477 19342 net.cpp:139] Memory required for data: 1364412
I0504 07:31:18.216486 19342 layer_factory.hpp:77] Creating layer conv0
I0504 07:31:18.216506 19342 net.cpp:86] Creating Layer conv0
I0504 07:31:18.216511 19342 net.cpp:408] conv0 <- data
I0504 07:31:18.216524 19342 net.cpp:382] conv0 -> conv0
I0504 07:31:18.509980 19342 net.cpp:124] Setting up conv0
I0504 07:31:18.510011 19342 net.cpp:131] Top shape: 111 24 34 34 (3079584)
I0504 07:31:18.510016 19342 net.cpp:139] Memory required for data: 13682748
I0504 07:31:18.510035 19342 layer_factory.hpp:77] Creating layer Sigmoid0
I0504 07:31:18.510049 19342 net.cpp:86] Creating Layer Sigmoid0
I0504 07:31:18.510054 19342 net.cpp:408] Sigmoid0 <- conv0
I0504 07:31:18.510061 19342 net.cpp:382] Sigmoid0 -> Sigmoid0
I0504 07:31:18.510277 19342 net.cpp:124] Setting up Sigmoid0
I0504 07:31:18.510289 19342 net.cpp:131] Top shape: 111 24 34 34 (3079584)
I0504 07:31:18.510293 19342 net.cpp:139] Memory required for data: 26001084
I0504 07:31:18.510296 19342 layer_factory.hpp:77] Creating layer pool0
I0504 07:31:18.510304 19342 net.cpp:86] Creating Layer pool0
I0504 07:31:18.510313 19342 net.cpp:408] pool0 <- Sigmoid0
I0504 07:31:18.510318 19342 net.cpp:382] pool0 -> pool0
I0504 07:31:18.511199 19342 net.cpp:124] Setting up pool0
I0504 07:31:18.511215 19342 net.cpp:131] Top shape: 111 24 17 17 (769896)
I0504 07:31:18.511219 19342 net.cpp:139] Memory required for data: 29080668
I0504 07:31:18.511224 19342 layer_factory.hpp:77] Creating layer conv1
I0504 07:31:18.511237 19342 net.cpp:86] Creating Layer conv1
I0504 07:31:18.511241 19342 net.cpp:408] conv1 <- pool0
I0504 07:31:18.511248 19342 net.cpp:382] conv1 -> conv1
I0504 07:31:18.514538 19342 net.cpp:124] Setting up conv1
I0504 07:31:18.514554 19342 net.cpp:131] Top shape: 111 24 19 19 (961704)
I0504 07:31:18.514559 19342 net.cpp:139] Memory required for data: 32927484
I0504 07:31:18.514570 19342 layer_factory.hpp:77] Creating layer Sigmoid1
I0504 07:31:18.514577 19342 net.cpp:86] Creating Layer Sigmoid1
I0504 07:31:18.514581 19342 net.cpp:408] Sigmoid1 <- conv1
I0504 07:31:18.514587 19342 net.cpp:382] Sigmoid1 -> Sigmoid1
I0504 07:31:18.514797 19342 net.cpp:124] Setting up Sigmoid1
I0504 07:31:18.514809 19342 net.cpp:131] Top shape: 111 24 19 19 (961704)
I0504 07:31:18.514813 19342 net.cpp:139] Memory required for data: 36774300
I0504 07:31:18.514817 19342 layer_factory.hpp:77] Creating layer pool1
I0504 07:31:18.514823 19342 net.cpp:86] Creating Layer pool1
I0504 07:31:18.514827 19342 net.cpp:408] pool1 <- Sigmoid1
I0504 07:31:18.514833 19342 net.cpp:382] pool1 -> pool1
I0504 07:31:18.515028 19342 net.cpp:124] Setting up pool1
I0504 07:31:18.515039 19342 net.cpp:131] Top shape: 111 24 9 9 (215784)
I0504 07:31:18.515043 19342 net.cpp:139] Memory required for data: 37637436
I0504 07:31:18.515046 19342 layer_factory.hpp:77] Creating layer ip1
I0504 07:31:18.515055 19342 net.cpp:86] Creating Layer ip1
I0504 07:31:18.515063 19342 net.cpp:408] ip1 <- pool1
I0504 07:31:18.515069 19342 net.cpp:382] ip1 -> ip1
I0504 07:31:18.527631 19342 net.cpp:124] Setting up ip1
I0504 07:31:18.527647 19342 net.cpp:131] Top shape: 111 180 (19980)
I0504 07:31:18.527650 19342 net.cpp:139] Memory required for data: 37717356
I0504 07:31:18.527660 19342 layer_factory.hpp:77] Creating layer relu1
I0504 07:31:18.527668 19342 net.cpp:86] Creating Layer relu1
I0504 07:31:18.527673 19342 net.cpp:408] relu1 <- ip1
I0504 07:31:18.527678 19342 net.cpp:369] relu1 -> ip1 (in-place)
I0504 07:31:18.527876 19342 net.cpp:124] Setting up relu1
I0504 07:31:18.527887 19342 net.cpp:131] Top shape: 111 180 (19980)
I0504 07:31:18.527894 19342 net.cpp:139] Memory required for data: 37797276
I0504 07:31:18.527899 19342 layer_factory.hpp:77] Creating layer ip2
I0504 07:31:18.527906 19342 net.cpp:86] Creating Layer ip2
I0504 07:31:18.527912 19342 net.cpp:408] ip2 <- ip1
I0504 07:31:18.527936 19342 net.cpp:382] ip2 -> ip2
I0504 07:31:18.528120 19342 net.cpp:124] Setting up ip2
I0504 07:31:18.528128 19342 net.cpp:131] Top shape: 111 10 (1110)
I0504 07:31:18.528132 19342 net.cpp:139] Memory required for data: 37801716
I0504 07:31:18.528139 19342 layer_factory.hpp:77] Creating layer relu2
I0504 07:31:18.528146 19342 net.cpp:86] Creating Layer relu2
I0504 07:31:18.528151 19342 net.cpp:408] relu2 <- ip2
I0504 07:31:18.528156 19342 net.cpp:369] relu2 -> ip2 (in-place)
I0504 07:31:18.529032 19342 net.cpp:124] Setting up relu2
I0504 07:31:18.529047 19342 net.cpp:131] Top shape: 111 10 (1110)
I0504 07:31:18.529052 19342 net.cpp:139] Memory required for data: 37806156
I0504 07:31:18.529057 19342 layer_factory.hpp:77] Creating layer ip3
I0504 07:31:18.529064 19342 net.cpp:86] Creating Layer ip3
I0504 07:31:18.529068 19342 net.cpp:408] ip3 <- ip2
I0504 07:31:18.529074 19342 net.cpp:382] ip3 -> ip3
I0504 07:31:18.529196 19342 net.cpp:124] Setting up ip3
I0504 07:31:18.529206 19342 net.cpp:131] Top shape: 111 10 (1110)
I0504 07:31:18.529209 19342 net.cpp:139] Memory required for data: 37810596
I0504 07:31:18.529219 19342 layer_factory.hpp:77] Creating layer loss
I0504 07:31:18.529225 19342 net.cpp:86] Creating Layer loss
I0504 07:31:18.529229 19342 net.cpp:408] loss <- ip3
I0504 07:31:18.529233 19342 net.cpp:408] loss <- label
I0504 07:31:18.529239 19342 net.cpp:382] loss -> loss
I0504 07:31:18.529260 19342 layer_factory.hpp:77] Creating layer loss
…
I0504 07:31:18.530059 19342 solver.cpp:173] Creating test net (#0) specified by net file: ECE595/cifar/train_test/var_everything_tiny/cifar_train_test_81.prototxt
I0504 07:31:18.530093 19342 net.cpp:296] The NetState phase (1) differed from the phase (0) specified by a rule in layer cifar
I0504 07:31:18.530215 19342 net.cpp:53] Initializing net from parameters: 
name: "CIFAR"
state {
  phase: TEST
}
layer {
  name: "cifar"
  type: "Data"
  top: "data"
  top: "label"
  include {
    phase: TEST
  }
  transform_param {
    mean_file: "examples/cifar10/mean.binaryproto"
  }
  data_param {
    source: "examples/cifar10/cifar10_test_lmdb"
    batch_size: 1000
    backend: LMDB
  }
}
layer {
  name: "conv0"
  type: "Convolution"
  bottom: "data"
  top: "conv0"
  param {
    lr_mult: 1
  }
  param {
    lr_mult: 2
  }
  convolution_param {
    num_output: 24
    pad: 2
    kernel_size: 3
    stride: 1
    weight_filler {
      type: "gaussian"
      std: 0.01
    }
    bias_filler {
      type: "constant"
    }
  }
}
layer {
  name: "Sigmoid0"
  type: "Sigmoid"
  bottom: "conv0"
  top: "Sigmoid0"
}
layer {
  name: "pool0"
  type: "Pooling"
  bottom: "Sigmoid0"
  top: "pool0"
  pooling_param {
    pool: AVE
    kernel_size: 3
    stride: 2
  }
}
layer {
  name: "conv1"
  type: "Convolution"
  bottom: "pool0"
  top: "conv1"
  param {
    lr_mult: 1
  }
  param {
    lr_mult: 2
  }
  convolution_param {
    num_output: 24
    pad: 2
    kernel_size: 3
    stride: 1
    weight_filler {
      type: "gaussian"
      std: 0.01
    }
    bias_filler {
      type: "constant"
    }
  }
}
layer {
  name: "Sigmoid1"
  type: "Sigmoid"
  bottom: "conv1"
  top: "Sigmoid1"
}
layer {
  name: "pool1"
  type: "Pooling"
  bottom: "Sigmoid1"
  top: "pool1"
  pooling_param {
    pool: AVE
    kernel_size: 3
    stride: 2
  }
}
layer {
  name: "ip1"
  type: "InnerProduct"
  bottom: "pool1"
  top: "ip1"
  param {
    lr_mult: 1
  }
  param {
    lr_mult: 2
  }
  inner_product_param {
    num_output: 180
    weight_filler {
      type: "gaussian"
      std: 0.01
    }
    bias_filler {
      type: "constant"
    }
  }
}
layer {
  name: "relu1"
  type: "ReLU"
  bottom: "ip1"
  top: "ip1"
}
layer {
  name: "ip2"
  type: "InnerProduct"
  bottom: "ip1"
  top: "ip2"
  param {
    lr_mult: 1
  }
  param {
    lr_mult: 2
  }
  inner_product_param {
    num_output: 10
    weight_filler {
      type: "gaussian"
      std: 0.01
    }
    bias_filler {
      type: "constant"
    }
  }
}
layer {
  name: "relu2"
  type: "ReLU"
  bottom: "ip2"
  top: "ip2"
}
layer {
  name: "ip3"
  type: "InnerProduct"
  bottom: "ip2"
  top: "ip3"
  param {
    lr_mult: 1
  }
  param {
    lr_mult: 2
  }
  inner_product_param {
    num_output: 10
    weight_filler {
      type: "gaussian"
      std: 0.01
    }
    bias_filler {
      type: "constant"
    }
  }
}
layer {
  name: "accuracy"
  type: "Accuracy"
  bottom: "ip3"
  bottom: "label"
  top: "accuracy"
  include {
    phase: TEST
  }
}
layer {
  name: "loss"
  type: "SoftmaxWithLoss"
  bottom: "ip3"
  bottom: "label"
  top: "loss"
}
I0504 07:31:18.530319 19342 layer_factory.hpp:77] Creating layer cifar
I0504 07:31:18.530374 19342 db_lmdb.cpp:35] Opened lmdb examples/cifar10/cifar10_test_lmdb
I0504 07:31:18.530386 19342 net.cpp:86] Creating Layer cifar
I0504 07:31:18.530392 19342 net.cpp:382] cifar -> data
I0504 07:31:18.530401 19342 net.cpp:382] cifar -> label
I0504 07:31:18.530410 19342 data_transformer.cpp:25] Loading mean file from: examples/cifar10/mean.binaryproto
I0504 07:31:18.530596 19342 data_layer.cpp:45] output data size: 1000,3,32,32
I0504 07:31:18.556519 19342 net.cpp:124] Setting up cifar
I0504 07:31:18.556550 19342 net.cpp:131] Top shape: 1000 3 32 32 (3072000)
I0504 07:31:18.556555 19342 net.cpp:131] Top shape: 1000 (1000)
I0504 07:31:18.556560 19342 net.cpp:139] Memory required for data: 12292000
I0504 07:31:18.556565 19342 layer_factory.hpp:77] Creating layer label_cifar_1_split
I0504 07:31:18.556586 19342 net.cpp:86] Creating Layer label_cifar_1_split
I0504 07:31:18.556591 19342 net.cpp:408] label_cifar_1_split <- label
I0504 07:31:18.556601 19342 net.cpp:382] label_cifar_1_split -> label_cifar_1_split_0
I0504 07:31:18.556612 19342 net.cpp:382] label_cifar_1_split -> label_cifar_1_split_1
I0504 07:31:18.556766 19342 net.cpp:124] Setting up label_cifar_1_split
I0504 07:31:18.556776 19342 net.cpp:131] Top shape: 1000 (1000)
I0504 07:31:18.556780 19342 net.cpp:131] Top shape: 1000 (1000)
I0504 07:31:18.556783 19342 net.cpp:139] Memory required for data: 12300000
I0504 07:31:18.556787 19342 layer_factory.hpp:77] Creating layer conv0
I0504 07:31:18.556803 19342 net.cpp:86] Creating Layer conv0
I0504 07:31:18.556807 19342 net.cpp:408] conv0 <- data
I0504 07:31:18.556823 19342 net.cpp:382] conv0 -> conv0
I0504 07:31:18.559626 19342 net.cpp:124] Setting up conv0
I0504 07:31:18.559644 19342 net.cpp:131] Top shape: 1000 24 34 34 (27744000)
I0504 07:31:18.559648 19342 net.cpp:139] Memory required for data: 123276000
I0504 07:31:18.559664 19342 layer_factory.hpp:77] Creating layer Sigmoid0
I0504 07:31:18.559671 19342 net.cpp:86] Creating Layer Sigmoid0
I0504 07:31:18.559675 19342 net.cpp:408] Sigmoid0 <- conv0
I0504 07:31:18.559682 19342 net.cpp:382] Sigmoid0 -> Sigmoid0
I0504 07:31:18.559923 19342 net.cpp:124] Setting up Sigmoid0
I0504 07:31:18.559948 19342 net.cpp:131] Top shape: 1000 24 34 34 (27744000)
I0504 07:31:18.559953 19342 net.cpp:139] Memory required for data: 234252000
I0504 07:31:18.559957 19342 layer_factory.hpp:77] Creating layer pool0
I0504 07:31:18.559967 19342 net.cpp:86] Creating Layer pool0
I0504 07:31:18.559972 19342 net.cpp:408] pool0 <- Sigmoid0
I0504 07:31:18.559978 19342 net.cpp:382] pool0 -> pool0
I0504 07:31:18.560192 19342 net.cpp:124] Setting up pool0
I0504 07:31:18.560204 19342 net.cpp:131] Top shape: 1000 24 17 17 (6936000)
I0504 07:31:18.560206 19342 net.cpp:139] Memory required for data: 261996000
I0504 07:31:18.560210 19342 layer_factory.hpp:77] Creating layer conv1
I0504 07:31:18.560222 19342 net.cpp:86] Creating Layer conv1
I0504 07:31:18.560227 19342 net.cpp:408] conv1 <- pool0
I0504 07:31:18.560235 19342 net.cpp:382] conv1 -> conv1
I0504 07:31:18.562011 19342 net.cpp:124] Setting up conv1
I0504 07:31:18.562028 19342 net.cpp:131] Top shape: 1000 24 19 19 (8664000)
I0504 07:31:18.562033 19342 net.cpp:139] Memory required for data: 296652000
I0504 07:31:18.562046 19342 layer_factory.hpp:77] Creating layer Sigmoid1
I0504 07:31:18.562052 19342 net.cpp:86] Creating Layer Sigmoid1
I0504 07:31:18.562057 19342 net.cpp:408] Sigmoid1 <- conv1
I0504 07:31:18.562065 19342 net.cpp:382] Sigmoid1 -> Sigmoid1
I0504 07:31:18.562281 19342 net.cpp:124] Setting up Sigmoid1
I0504 07:31:18.562292 19342 net.cpp:131] Top shape: 1000 24 19 19 (8664000)
I0504 07:31:18.562296 19342 net.cpp:139] Memory required for data: 331308000
I0504 07:31:18.562300 19342 layer_factory.hpp:77] Creating layer pool1
I0504 07:31:18.562307 19342 net.cpp:86] Creating Layer pool1
I0504 07:31:18.562311 19342 net.cpp:408] pool1 <- Sigmoid1
I0504 07:31:18.562317 19342 net.cpp:382] pool1 -> pool1
I0504 07:31:18.563216 19342 net.cpp:124] Setting up pool1
I0504 07:31:18.563231 19342 net.cpp:131] Top shape: 1000 24 9 9 (1944000)
I0504 07:31:18.563235 19342 net.cpp:139] Memory required for data: 339084000
I0504 07:31:18.563240 19342 layer_factory.hpp:77] Creating layer ip1
I0504 07:31:18.563251 19342 net.cpp:86] Creating Layer ip1
I0504 07:31:18.563256 19342 net.cpp:408] ip1 <- pool1
I0504 07:31:18.563266 19342 net.cpp:382] ip1 -> ip1
I0504 07:31:18.575834 19342 net.cpp:124] Setting up ip1
I0504 07:31:18.575851 19342 net.cpp:131] Top shape: 1000 180 (180000)
I0504 07:31:18.575855 19342 net.cpp:139] Memory required for data: 339804000
I0504 07:31:18.575865 19342 layer_factory.hpp:77] Creating layer relu1
I0504 07:31:18.575875 19342 net.cpp:86] Creating Layer relu1
I0504 07:31:18.575880 19342 net.cpp:408] relu1 <- ip1
I0504 07:31:18.575884 19342 net.cpp:369] relu1 -> ip1 (in-place)
I0504 07:31:18.576092 19342 net.cpp:124] Setting up relu1
I0504 07:31:18.576102 19342 net.cpp:131] Top shape: 1000 180 (180000)
I0504 07:31:18.576107 19342 net.cpp:139] Memory required for data: 340524000
I0504 07:31:18.576109 19342 layer_factory.hpp:77] Creating layer ip2
I0504 07:31:18.576119 19342 net.cpp:86] Creating Layer ip2
I0504 07:31:18.576123 19342 net.cpp:408] ip2 <- ip1
I0504 07:31:18.576130 19342 net.cpp:382] ip2 -> ip2
I0504 07:31:18.576328 19342 net.cpp:124] Setting up ip2
I0504 07:31:18.576335 19342 net.cpp:131] Top shape: 1000 10 (10000)
I0504 07:31:18.576339 19342 net.cpp:139] Memory required for data: 340564000
I0504 07:31:18.576345 19342 layer_factory.hpp:77] Creating layer relu2
I0504 07:31:18.576351 19342 net.cpp:86] Creating Layer relu2
I0504 07:31:18.576355 19342 net.cpp:408] relu2 <- ip2
I0504 07:31:18.576360 19342 net.cpp:369] relu2 -> ip2 (in-place)
I0504 07:31:18.576555 19342 net.cpp:124] Setting up relu2
I0504 07:31:18.576565 19342 net.cpp:131] Top shape: 1000 10 (10000)
I0504 07:31:18.576570 19342 net.cpp:139] Memory required for data: 340604000
I0504 07:31:18.576572 19342 layer_factory.hpp:77] Creating layer ip3
I0504 07:31:18.576581 19342 net.cpp:86] Creating Layer ip3
I0504 07:31:18.576584 19342 net.cpp:408] ip3 <- ip2
I0504 07:31:18.576591 19342 net.cpp:382] ip3 -> ip3
I0504 07:31:18.576719 19342 net.cpp:124] Setting up ip3
I0504 07:31:18.576727 19342 net.cpp:131] Top shape: 1000 10 (10000)
I0504 07:31:18.576743 19342 net.cpp:139] Memory required for data: 340644000
I0504 07:31:18.576753 19342 layer_factory.hpp:77] Creating layer ip3_ip3_0_split
I0504 07:31:18.576759 19342 net.cpp:86] Creating Layer ip3_ip3_0_split
I0504 07:31:18.576763 19342 net.cpp:408] ip3_ip3_0_split <- ip3
I0504 07:31:18.576769 19342 net.cpp:382] ip3_ip3_0_split -> ip3_ip3_0_split_0
I0504 07:31:18.576776 19342 net.cpp:382] ip3_ip3_0_split -> ip3_ip3_0_split_1
I0504 07:31:18.576822 19342 net.cpp:124] Setting up ip3_ip3_0_split
I0504 07:31:18.576831 19342 net.cpp:131] Top shape: 1000 10 (10000)
I0504 07:31:18.576836 19342 net.cpp:131] Top shape: 1000 10 (10000)
I0504 07:31:18.576839 19342 net.cpp:139] Memory required for data: 340724000
I0504 07:31:18.576843 19342 layer_factory.hpp:77] Creating layer accuracy
I0504 07:31:18.576849 19342 net.cpp:86] Creating Layer accuracy
I0504 07:31:18.576853 19342 net.cpp:408] accuracy <- ip3_ip3_0_split_0
I0504 07:31:18.576858 19342 net.cpp:408] accuracy <- label_cifar_1_split_0
I0504 07:31:18.576864 19342 net.cpp:382] accuracy -> accuracy
…
