…
I0503 23:44:24.068024  3914 net.cpp:296] The NetState phase (0) differed from the phase (1) specified by a rule in layer cifar
I0503 23:44:24.068038  3914 net.cpp:296] The NetState phase (0) differed from the phase (1) specified by a rule in layer accuracy
I0503 23:44:24.068119  3914 net.cpp:53] Initializing net from parameters: 
name: "CIFAR"
state {
  phase: TRAIN
  level: 0
  stage: ""
}
layer {
  name: "cifar"
  type: "Data"
  top: "data"
  top: "label"
  include {
    phase: TRAIN
  }
  transform_param {
    mean_file: "examples/cifar10/mean.binaryproto"
  }
  data_param {
    source: "examples/cifar10/cifar10_train_lmdb"
    batch_size: 111
    backend: LMDB
  }
}
layer {
  name: "conv0"
  type: "Convolution"
  bottom: "data"
  top: "conv0"
  param {
    lr_mult: 1
  }
  param {
    lr_mult: 2
  }
  convolution_param {
    num_output: 24
    pad: 2
    kernel_size: 3
    stride: 1
    weight_filler {
      type: "gaussian"
      std: 0.01
    }
    bias_filler {
      type: "constant"
    }
  }
}
layer {
  name: "Sigmoid0"
  type: "Sigmoid"
  bottom: "conv0"
  top: "Sigmoid0"
}
layer {
  name: "pool0"
  type: "Pooling"
  bottom: "Sigmoid0"
  top: "pool0"
  pooling_param {
    pool: AVE
    kernel_size: 3
    stride: 2
  }
}
layer {
  name: "ip1"
  type: "InnerProduct"
  bottom: "pool0"
  top: "ip1"
  param {
    lr_mult: 1
  }
  param {
    lr_mult: 2
  }
  inner_product_param {
    num_output: 10
    weight_filler {
      type: "gaussian"
      std: 0.01
    }
    bias_filler {
      type: "constant"
    }
  }
}
layer {
  name: "relu1"
  type: "ReLU"
  bottom: "ip1"
  top: "ip1"
}
layer {
  name: "ip2"
  type: "InnerProduct"
  bottom: "ip1"
  top: "ip2"
  param {
    lr_mult: 1
  }
  param {
    lr_mult: 2
  }
  inner_product_param {
    num_output: 10
    weight_filler {
      type: "gaussian"
      std: 0.01
    }
    bias_filler {
      type: "constant"
    }
  }
}
layer {
  name: "loss"
  type: "SoftmaxWithLoss"
  bottom: "ip2"
  bottom: "label"
  top: "loss"
}
I0503 23:44:24.068181  3914 layer_factory.hpp:77] Creating layer cifar
I0503 23:44:24.068285  3914 db_lmdb.cpp:35] Opened lmdb examples/cifar10/cifar10_train_lmdb
I0503 23:44:24.068316  3914 net.cpp:86] Creating Layer cifar
I0503 23:44:24.068325  3914 net.cpp:382] cifar -> data
I0503 23:44:24.068349  3914 net.cpp:382] cifar -> label
I0503 23:44:24.068362  3914 data_transformer.cpp:25] Loading mean file from: examples/cifar10/mean.binaryproto
I0503 23:44:24.070518  3914 data_layer.cpp:45] output data size: 111,3,32,32
I0503 23:44:24.078446  3914 net.cpp:124] Setting up cifar
I0503 23:44:24.078465  3914 net.cpp:131] Top shape: 111 3 32 32 (340992)
I0503 23:44:24.078471  3914 net.cpp:131] Top shape: 111 (111)
I0503 23:44:24.078476  3914 net.cpp:139] Memory required for data: 1364412
I0503 23:44:24.078485  3914 layer_factory.hpp:77] Creating layer conv0
I0503 23:44:24.078502  3914 net.cpp:86] Creating Layer conv0
I0503 23:44:24.078508  3914 net.cpp:408] conv0 <- data
I0503 23:44:24.078521  3914 net.cpp:382] conv0 -> conv0
I0503 23:44:24.329491  3914 net.cpp:124] Setting up conv0
I0503 23:44:24.329533  3914 net.cpp:131] Top shape: 111 24 34 34 (3079584)
I0503 23:44:24.329538  3914 net.cpp:139] Memory required for data: 13682748
I0503 23:44:24.329552  3914 layer_factory.hpp:77] Creating layer Sigmoid0
I0503 23:44:24.329565  3914 net.cpp:86] Creating Layer Sigmoid0
I0503 23:44:24.329568  3914 net.cpp:408] Sigmoid0 <- conv0
I0503 23:44:24.329573  3914 net.cpp:382] Sigmoid0 -> Sigmoid0
I0503 23:44:24.329804  3914 net.cpp:124] Setting up Sigmoid0
I0503 23:44:24.329814  3914 net.cpp:131] Top shape: 111 24 34 34 (3079584)
I0503 23:44:24.329818  3914 net.cpp:139] Memory required for data: 26001084
I0503 23:44:24.329821  3914 layer_factory.hpp:77] Creating layer pool0
I0503 23:44:24.329843  3914 net.cpp:86] Creating Layer pool0
I0503 23:44:24.329849  3914 net.cpp:408] pool0 <- Sigmoid0
I0503 23:44:24.329869  3914 net.cpp:382] pool0 -> pool0
I0503 23:44:24.330736  3914 net.cpp:124] Setting up pool0
I0503 23:44:24.330749  3914 net.cpp:131] Top shape: 111 24 17 17 (769896)
I0503 23:44:24.330752  3914 net.cpp:139] Memory required for data: 29080668
I0503 23:44:24.330755  3914 layer_factory.hpp:77] Creating layer ip1
I0503 23:44:24.330765  3914 net.cpp:86] Creating Layer ip1
I0503 23:44:24.330767  3914 net.cpp:408] ip1 <- pool0
I0503 23:44:24.330772  3914 net.cpp:382] ip1 -> ip1
I0503 23:44:24.332698  3914 net.cpp:124] Setting up ip1
I0503 23:44:24.332706  3914 net.cpp:131] Top shape: 111 10 (1110)
I0503 23:44:24.332710  3914 net.cpp:139] Memory required for data: 29085108
I0503 23:44:24.332716  3914 layer_factory.hpp:77] Creating layer relu1
I0503 23:44:24.332721  3914 net.cpp:86] Creating Layer relu1
I0503 23:44:24.332725  3914 net.cpp:408] relu1 <- ip1
I0503 23:44:24.332728  3914 net.cpp:369] relu1 -> ip1 (in-place)
I0503 23:44:24.332926  3914 net.cpp:124] Setting up relu1
I0503 23:44:24.332934  3914 net.cpp:131] Top shape: 111 10 (1110)
I0503 23:44:24.332938  3914 net.cpp:139] Memory required for data: 29089548
I0503 23:44:24.332942  3914 layer_factory.hpp:77] Creating layer ip2
I0503 23:44:24.332947  3914 net.cpp:86] Creating Layer ip2
I0503 23:44:24.332950  3914 net.cpp:408] ip2 <- ip1
I0503 23:44:24.332955  3914 net.cpp:382] ip2 -> ip2
I0503 23:44:24.333063  3914 net.cpp:124] Setting up ip2
I0503 23:44:24.333070  3914 net.cpp:131] Top shape: 111 10 (1110)
I0503 23:44:24.333073  3914 net.cpp:139] Memory required for data: 29093988
I0503 23:44:24.333081  3914 layer_factory.hpp:77] Creating layer loss
I0503 23:44:24.333107  3914 net.cpp:86] Creating Layer loss
I0503 23:44:24.333112  3914 net.cpp:408] loss <- ip2
I0503 23:44:24.333132  3914 net.cpp:408] loss <- label
I0503 23:44:24.333137  3914 net.cpp:382] loss -> loss
I0503 23:44:24.333173  3914 layer_factory.hpp:77] Creating layer loss
…
I0503 23:44:24.333875  3914 solver.cpp:173] Creating test net (#0) specified by net file: ECE595/cifar/train_test/var_everything_tiny/cifar_train_test_0.prototxt
I0503 23:44:24.333928  3914 net.cpp:296] The NetState phase (1) differed from the phase (0) specified by a rule in layer cifar
I0503 23:44:24.334014  3914 net.cpp:53] Initializing net from parameters: 
name: "CIFAR"
state {
  phase: TEST
}
layer {
  name: "cifar"
  type: "Data"
  top: "data"
  top: "label"
  include {
    phase: TEST
  }
  transform_param {
    mean_file: "examples/cifar10/mean.binaryproto"
  }
  data_param {
    source: "examples/cifar10/cifar10_test_lmdb"
    batch_size: 1000
    backend: LMDB
  }
}
layer {
  name: "conv0"
  type: "Convolution"
  bottom: "data"
  top: "conv0"
  param {
    lr_mult: 1
  }
  param {
    lr_mult: 2
  }
  convolution_param {
    num_output: 24
    pad: 2
    kernel_size: 3
    stride: 1
    weight_filler {
      type: "gaussian"
      std: 0.01
    }
    bias_filler {
      type: "constant"
    }
  }
}
layer {
  name: "Sigmoid0"
  type: "Sigmoid"
  bottom: "conv0"
  top: "Sigmoid0"
}
layer {
  name: "pool0"
  type: "Pooling"
  bottom: "Sigmoid0"
  top: "pool0"
  pooling_param {
    pool: AVE
    kernel_size: 3
    stride: 2
  }
}
layer {
  name: "ip1"
  type: "InnerProduct"
  bottom: "pool0"
  top: "ip1"
  param {
    lr_mult: 1
  }
  param {
    lr_mult: 2
  }
  inner_product_param {
    num_output: 10
    weight_filler {
      type: "gaussian"
      std: 0.01
    }
    bias_filler {
      type: "constant"
    }
  }
}
layer {
  name: "relu1"
  type: "ReLU"
  bottom: "ip1"
  top: "ip1"
}
layer {
  name: "ip2"
  type: "InnerProduct"
  bottom: "ip1"
  top: "ip2"
  param {
    lr_mult: 1
  }
  param {
    lr_mult: 2
  }
  inner_product_param {
    num_output: 10
    weight_filler {
      type: "gaussian"
      std: 0.01
    }
    bias_filler {
      type: "constant"
    }
  }
}
layer {
  name: "accuracy"
  type: "Accuracy"
  bottom: "ip2"
  bottom: "label"
  top: "accuracy"
  include {
    phase: TEST
  }
}
layer {
  name: "loss"
  type: "SoftmaxWithLoss"
  bottom: "ip2"
  bottom: "label"
  top: "loss"
}
I0503 23:44:24.334125  3914 layer_factory.hpp:77] Creating layer cifar
I0503 23:44:24.334174  3914 db_lmdb.cpp:35] Opened lmdb examples/cifar10/cifar10_test_lmdb
I0503 23:44:24.334189  3914 net.cpp:86] Creating Layer cifar
I0503 23:44:24.334197  3914 net.cpp:382] cifar -> data
I0503 23:44:24.334205  3914 net.cpp:382] cifar -> label
I0503 23:44:24.334211  3914 data_transformer.cpp:25] Loading mean file from: examples/cifar10/mean.binaryproto
I0503 23:44:24.334378  3914 data_layer.cpp:45] output data size: 1000,3,32,32
I0503 23:44:24.356209  3914 net.cpp:124] Setting up cifar
I0503 23:44:24.356250  3914 net.cpp:131] Top shape: 1000 3 32 32 (3072000)
I0503 23:44:24.356256  3914 net.cpp:131] Top shape: 1000 (1000)
I0503 23:44:24.356257  3914 net.cpp:139] Memory required for data: 12292000
I0503 23:44:24.356266  3914 layer_factory.hpp:77] Creating layer label_cifar_1_split
I0503 23:44:24.356297  3914 net.cpp:86] Creating Layer label_cifar_1_split
I0503 23:44:24.356300  3914 net.cpp:408] label_cifar_1_split <- label
I0503 23:44:24.356305  3914 net.cpp:382] label_cifar_1_split -> label_cifar_1_split_0
I0503 23:44:24.356315  3914 net.cpp:382] label_cifar_1_split -> label_cifar_1_split_1
I0503 23:44:24.356405  3914 net.cpp:124] Setting up label_cifar_1_split
I0503 23:44:24.356413  3914 net.cpp:131] Top shape: 1000 (1000)
I0503 23:44:24.356416  3914 net.cpp:131] Top shape: 1000 (1000)
I0503 23:44:24.356420  3914 net.cpp:139] Memory required for data: 12300000
I0503 23:44:24.356422  3914 layer_factory.hpp:77] Creating layer conv0
I0503 23:44:24.356436  3914 net.cpp:86] Creating Layer conv0
I0503 23:44:24.356441  3914 net.cpp:408] conv0 <- data
I0503 23:44:24.356462  3914 net.cpp:382] conv0 -> conv0
I0503 23:44:24.358233  3914 net.cpp:124] Setting up conv0
I0503 23:44:24.358263  3914 net.cpp:131] Top shape: 1000 24 34 34 (27744000)
I0503 23:44:24.358266  3914 net.cpp:139] Memory required for data: 123276000
I0503 23:44:24.358280  3914 layer_factory.hpp:77] Creating layer Sigmoid0
I0503 23:44:24.358288  3914 net.cpp:86] Creating Layer Sigmoid0
I0503 23:44:24.358290  3914 net.cpp:408] Sigmoid0 <- conv0
I0503 23:44:24.358295  3914 net.cpp:382] Sigmoid0 -> Sigmoid0
I0503 23:44:24.358523  3914 net.cpp:124] Setting up Sigmoid0
I0503 23:44:24.358533  3914 net.cpp:131] Top shape: 1000 24 34 34 (27744000)
I0503 23:44:24.358536  3914 net.cpp:139] Memory required for data: 234252000
I0503 23:44:24.358539  3914 layer_factory.hpp:77] Creating layer pool0
I0503 23:44:24.358548  3914 net.cpp:86] Creating Layer pool0
I0503 23:44:24.358551  3914 net.cpp:408] pool0 <- Sigmoid0
I0503 23:44:24.358556  3914 net.cpp:382] pool0 -> pool0
I0503 23:44:24.359542  3914 net.cpp:124] Setting up pool0
I0503 23:44:24.359570  3914 net.cpp:131] Top shape: 1000 24 17 17 (6936000)
I0503 23:44:24.359573  3914 net.cpp:139] Memory required for data: 261996000
I0503 23:44:24.359576  3914 layer_factory.hpp:77] Creating layer ip1
I0503 23:44:24.359601  3914 net.cpp:86] Creating Layer ip1
I0503 23:44:24.359604  3914 net.cpp:408] ip1 <- pool0
I0503 23:44:24.359609  3914 net.cpp:382] ip1 -> ip1
I0503 23:44:24.362540  3914 net.cpp:124] Setting up ip1
I0503 23:44:24.362565  3914 net.cpp:131] Top shape: 1000 10 (10000)
I0503 23:44:24.362568  3914 net.cpp:139] Memory required for data: 262036000
I0503 23:44:24.362591  3914 layer_factory.hpp:77] Creating layer relu1
I0503 23:44:24.362597  3914 net.cpp:86] Creating Layer relu1
I0503 23:44:24.362601  3914 net.cpp:408] relu1 <- ip1
I0503 23:44:24.362604  3914 net.cpp:369] relu1 -> ip1 (in-place)
I0503 23:44:24.362788  3914 net.cpp:124] Setting up relu1
I0503 23:44:24.362798  3914 net.cpp:131] Top shape: 1000 10 (10000)
I0503 23:44:24.362802  3914 net.cpp:139] Memory required for data: 262076000
I0503 23:44:24.362804  3914 layer_factory.hpp:77] Creating layer ip2
I0503 23:44:24.362810  3914 net.cpp:86] Creating Layer ip2
I0503 23:44:24.362813  3914 net.cpp:408] ip2 <- ip1
I0503 23:44:24.362835  3914 net.cpp:382] ip2 -> ip2
I0503 23:44:24.362999  3914 net.cpp:124] Setting up ip2
I0503 23:44:24.363008  3914 net.cpp:131] Top shape: 1000 10 (10000)
I0503 23:44:24.363011  3914 net.cpp:139] Memory required for data: 262116000
I0503 23:44:24.363019  3914 layer_factory.hpp:77] Creating layer ip2_ip2_0_split
I0503 23:44:24.363025  3914 net.cpp:86] Creating Layer ip2_ip2_0_split
I0503 23:44:24.363031  3914 net.cpp:408] ip2_ip2_0_split <- ip2
I0503 23:44:24.363054  3914 net.cpp:382] ip2_ip2_0_split -> ip2_ip2_0_split_0
I0503 23:44:24.363059  3914 net.cpp:382] ip2_ip2_0_split -> ip2_ip2_0_split_1
I0503 23:44:24.363093  3914 net.cpp:124] Setting up ip2_ip2_0_split
I0503 23:44:24.363102  3914 net.cpp:131] Top shape: 1000 10 (10000)
I0503 23:44:24.363106  3914 net.cpp:131] Top shape: 1000 10 (10000)
I0503 23:44:24.363109  3914 net.cpp:139] Memory required for data: 262196000
I0503 23:44:24.363112  3914 layer_factory.hpp:77] Creating layer accuracy
I0503 23:44:24.363118  3914 net.cpp:86] Creating Layer accuracy
I0503 23:44:24.363122  3914 net.cpp:408] accuracy <- ip2_ip2_0_split_0
I0503 23:44:24.363126  3914 net.cpp:408] accuracy <- label_cifar_1_split_0
I0503 23:44:24.363134  3914 net.cpp:382] accuracy -> accuracy
…
