…
I0504 03:30:56.464431 10926 net.cpp:296] The NetState phase (0) differed from the phase (1) specified by a rule in layer cifar
I0504 03:30:56.464442 10926 net.cpp:296] The NetState phase (0) differed from the phase (1) specified by a rule in layer accuracy
I0504 03:30:56.464529 10926 net.cpp:53] Initializing net from parameters: 
name: "CIFAR"
state {
  phase: TRAIN
  level: 0
  stage: ""
}
layer {
  name: "cifar"
  type: "Data"
  top: "data"
  top: "label"
  include {
    phase: TRAIN
  }
  transform_param {
    mean_file: "examples/cifar10/mean.binaryproto"
  }
  data_param {
    source: "examples/cifar10/cifar10_train_lmdb"
    batch_size: 111
    backend: LMDB
  }
}
layer {
  name: "conv0"
  type: "Convolution"
  bottom: "data"
  top: "conv0"
  param {
    lr_mult: 1
  }
  param {
    lr_mult: 2
  }
  convolution_param {
    num_output: 216
    pad: 2
    kernel_size: 3
    stride: 1
    weight_filler {
      type: "gaussian"
      std: 0.01
    }
    bias_filler {
      type: "constant"
    }
  }
}
layer {
  name: "Sigmoid0"
  type: "Sigmoid"
  bottom: "conv0"
  top: "Sigmoid0"
}
layer {
  name: "pool0"
  type: "Pooling"
  bottom: "Sigmoid0"
  top: "pool0"
  pooling_param {
    pool: AVE
    kernel_size: 3
    stride: 2
  }
}
layer {
  name: "ip1"
  type: "InnerProduct"
  bottom: "pool0"
  top: "ip1"
  param {
    lr_mult: 1
  }
  param {
    lr_mult: 2
  }
  inner_product_param {
    num_output: 10
    weight_filler {
      type: "gaussian"
      std: 0.01
    }
    bias_filler {
      type: "constant"
    }
  }
}
layer {
  name: "relu1"
  type: "ReLU"
  bottom: "ip1"
  top: "ip1"
}
layer {
  name: "ip2"
  type: "InnerProduct"
  bottom: "ip1"
  top: "ip2"
  param {
    lr_mult: 1
  }
  param {
    lr_mult: 2
  }
  inner_product_param {
    num_output: 180
    weight_filler {
      type: "gaussian"
      std: 0.01
    }
    bias_filler {
      type: "constant"
    }
  }
}
layer {
  name: "relu2"
  type: "ReLU"
  bottom: "ip2"
  top: "ip2"
}
layer {
  name: "ip3"
  type: "InnerProduct"
  bottom: "ip2"
  top: "ip3"
  param {
    lr_mult: 1
  }
  param {
    lr_mult: 2
  }
  inner_product_param {
    num_output: 10
    weight_filler {
      type: "gaussian"
      std: 0.01
    }
    bias_filler {
      type: "constant"
    }
  }
}
layer {
  name: "loss"
  type: "SoftmaxWithLoss"
  bottom: "ip3"
  bottom: "label"
  top: "loss"
}
I0504 03:30:56.464591 10926 layer_factory.hpp:77] Creating layer cifar
I0504 03:30:56.464673 10926 db_lmdb.cpp:35] Opened lmdb examples/cifar10/cifar10_train_lmdb
I0504 03:30:56.464696 10926 net.cpp:86] Creating Layer cifar
I0504 03:30:56.464706 10926 net.cpp:382] cifar -> data
I0504 03:30:56.464725 10926 net.cpp:382] cifar -> label
I0504 03:30:56.464740 10926 data_transformer.cpp:25] Loading mean file from: examples/cifar10/mean.binaryproto
I0504 03:30:56.466486 10926 data_layer.cpp:45] output data size: 111,3,32,32
I0504 03:30:56.472982 10926 net.cpp:124] Setting up cifar
I0504 03:30:56.473016 10926 net.cpp:131] Top shape: 111 3 32 32 (340992)
I0504 03:30:56.473023 10926 net.cpp:131] Top shape: 111 (111)
I0504 03:30:56.473026 10926 net.cpp:139] Memory required for data: 1364412
I0504 03:30:56.473032 10926 layer_factory.hpp:77] Creating layer conv0
I0504 03:30:56.473047 10926 net.cpp:86] Creating Layer conv0
I0504 03:30:56.473053 10926 net.cpp:408] conv0 <- data
I0504 03:30:56.473064 10926 net.cpp:382] conv0 -> conv0
I0504 03:30:56.712608 10926 net.cpp:124] Setting up conv0
I0504 03:30:56.712669 10926 net.cpp:131] Top shape: 111 216 34 34 (27716256)
I0504 03:30:56.712673 10926 net.cpp:139] Memory required for data: 112229436
I0504 03:30:56.712688 10926 layer_factory.hpp:77] Creating layer Sigmoid0
I0504 03:30:56.712699 10926 net.cpp:86] Creating Layer Sigmoid0
I0504 03:30:56.712703 10926 net.cpp:408] Sigmoid0 <- conv0
I0504 03:30:56.712708 10926 net.cpp:382] Sigmoid0 -> Sigmoid0
I0504 03:30:56.712920 10926 net.cpp:124] Setting up Sigmoid0
I0504 03:30:56.712931 10926 net.cpp:131] Top shape: 111 216 34 34 (27716256)
I0504 03:30:56.712934 10926 net.cpp:139] Memory required for data: 223094460
I0504 03:30:56.712939 10926 layer_factory.hpp:77] Creating layer pool0
I0504 03:30:56.712945 10926 net.cpp:86] Creating Layer pool0
I0504 03:30:56.712949 10926 net.cpp:408] pool0 <- Sigmoid0
I0504 03:30:56.712954 10926 net.cpp:382] pool0 -> pool0
I0504 03:30:56.713732 10926 net.cpp:124] Setting up pool0
I0504 03:30:56.713760 10926 net.cpp:131] Top shape: 111 216 17 17 (6929064)
I0504 03:30:56.713763 10926 net.cpp:139] Memory required for data: 250810716
I0504 03:30:56.713766 10926 layer_factory.hpp:77] Creating layer ip1
I0504 03:30:56.713775 10926 net.cpp:86] Creating Layer ip1
I0504 03:30:56.713778 10926 net.cpp:408] ip1 <- pool0
I0504 03:30:56.713783 10926 net.cpp:382] ip1 -> ip1
I0504 03:30:56.730882 10926 net.cpp:124] Setting up ip1
I0504 03:30:56.730911 10926 net.cpp:131] Top shape: 111 10 (1110)
I0504 03:30:56.730914 10926 net.cpp:139] Memory required for data: 250815156
I0504 03:30:56.730921 10926 layer_factory.hpp:77] Creating layer relu1
I0504 03:30:56.730927 10926 net.cpp:86] Creating Layer relu1
I0504 03:30:56.730931 10926 net.cpp:408] relu1 <- ip1
I0504 03:30:56.730936 10926 net.cpp:369] relu1 -> ip1 (in-place)
I0504 03:30:56.731118 10926 net.cpp:124] Setting up relu1
I0504 03:30:56.731127 10926 net.cpp:131] Top shape: 111 10 (1110)
I0504 03:30:56.731129 10926 net.cpp:139] Memory required for data: 250819596
I0504 03:30:56.731132 10926 layer_factory.hpp:77] Creating layer ip2
I0504 03:30:56.731139 10926 net.cpp:86] Creating Layer ip2
I0504 03:30:56.731142 10926 net.cpp:408] ip2 <- ip1
I0504 03:30:56.731148 10926 net.cpp:382] ip2 -> ip2
I0504 03:30:56.731287 10926 net.cpp:124] Setting up ip2
I0504 03:30:56.731293 10926 net.cpp:131] Top shape: 111 180 (19980)
I0504 03:30:56.731297 10926 net.cpp:139] Memory required for data: 250899516
I0504 03:30:56.731303 10926 layer_factory.hpp:77] Creating layer relu2
I0504 03:30:56.731308 10926 net.cpp:86] Creating Layer relu2
I0504 03:30:56.731312 10926 net.cpp:408] relu2 <- ip2
I0504 03:30:56.731315 10926 net.cpp:369] relu2 -> ip2 (in-place)
I0504 03:30:56.731461 10926 net.cpp:124] Setting up relu2
I0504 03:30:56.731468 10926 net.cpp:131] Top shape: 111 180 (19980)
I0504 03:30:56.731472 10926 net.cpp:139] Memory required for data: 250979436
I0504 03:30:56.731474 10926 layer_factory.hpp:77] Creating layer ip3
I0504 03:30:56.731482 10926 net.cpp:86] Creating Layer ip3
I0504 03:30:56.731483 10926 net.cpp:408] ip3 <- ip2
I0504 03:30:56.731488 10926 net.cpp:382] ip3 -> ip3
I0504 03:30:56.731623 10926 net.cpp:124] Setting up ip3
I0504 03:30:56.731629 10926 net.cpp:131] Top shape: 111 10 (1110)
I0504 03:30:56.731632 10926 net.cpp:139] Memory required for data: 250983876
I0504 03:30:56.731637 10926 layer_factory.hpp:77] Creating layer loss
I0504 03:30:56.731642 10926 net.cpp:86] Creating Layer loss
I0504 03:30:56.731645 10926 net.cpp:408] loss <- ip3
I0504 03:30:56.731649 10926 net.cpp:408] loss <- label
I0504 03:30:56.731654 10926 net.cpp:382] loss -> loss
I0504 03:30:56.731667 10926 layer_factory.hpp:77] Creating layer loss
…
I0504 03:30:56.732331 10926 solver.cpp:173] Creating test net (#0) specified by net file: ECE595/cifar/train_test/var_everything_tiny/cifar_train_test_53.prototxt
I0504 03:30:56.732372 10926 net.cpp:296] The NetState phase (1) differed from the phase (0) specified by a rule in layer cifar
I0504 03:30:56.732484 10926 net.cpp:53] Initializing net from parameters: 
name: "CIFAR"
state {
  phase: TEST
}
layer {
  name: "cifar"
  type: "Data"
  top: "data"
  top: "label"
  include {
    phase: TEST
  }
  transform_param {
    mean_file: "examples/cifar10/mean.binaryproto"
  }
  data_param {
    source: "examples/cifar10/cifar10_test_lmdb"
    batch_size: 1000
    backend: LMDB
  }
}
layer {
  name: "conv0"
  type: "Convolution"
  bottom: "data"
  top: "conv0"
  param {
    lr_mult: 1
  }
  param {
    lr_mult: 2
  }
  convolution_param {
    num_output: 216
    pad: 2
    kernel_size: 3
    stride: 1
    weight_filler {
      type: "gaussian"
      std: 0.01
    }
    bias_filler {
      type: "constant"
    }
  }
}
layer {
  name: "Sigmoid0"
  type: "Sigmoid"
  bottom: "conv0"
  top: "Sigmoid0"
}
layer {
  name: "pool0"
  type: "Pooling"
  bottom: "Sigmoid0"
  top: "pool0"
  pooling_param {
    pool: AVE
    kernel_size: 3
    stride: 2
  }
}
layer {
  name: "ip1"
  type: "InnerProduct"
  bottom: "pool0"
  top: "ip1"
  param {
    lr_mult: 1
  }
  param {
    lr_mult: 2
  }
  inner_product_param {
    num_output: 10
    weight_filler {
      type: "gaussian"
      std: 0.01
    }
    bias_filler {
      type: "constant"
    }
  }
}
layer {
  name: "relu1"
  type: "ReLU"
  bottom: "ip1"
  top: "ip1"
}
layer {
  name: "ip2"
  type: "InnerProduct"
  bottom: "ip1"
  top: "ip2"
  param {
    lr_mult: 1
  }
  param {
    lr_mult: 2
  }
  inner_product_param {
    num_output: 180
    weight_filler {
      type: "gaussian"
      std: 0.01
    }
    bias_filler {
      type: "constant"
    }
  }
}
layer {
  name: "relu2"
  type: "ReLU"
  bottom: "ip2"
  top: "ip2"
}
layer {
  name: "ip3"
  type: "InnerProduct"
  bottom: "ip2"
  top: "ip3"
  param {
    lr_mult: 1
  }
  param {
    lr_mult: 2
  }
  inner_product_param {
    num_output: 10
    weight_filler {
      type: "gaussian"
      std: 0.01
    }
    bias_filler {
      type: "constant"
    }
  }
}
layer {
  name: "accuracy"
  type: "Accuracy"
  bottom: "ip3"
  bottom: "label"
  top: "accuracy"
  include {
    phase: TEST
  }
}
layer {
  name: "loss"
  type: "SoftmaxWithLoss"
  bottom: "ip3"
  bottom: "label"
  top: "loss"
}
I0504 03:30:56.732545 10926 layer_factory.hpp:77] Creating layer cifar
I0504 03:30:56.732591 10926 db_lmdb.cpp:35] Opened lmdb examples/cifar10/cifar10_test_lmdb
I0504 03:30:56.732604 10926 net.cpp:86] Creating Layer cifar
I0504 03:30:56.732607 10926 net.cpp:382] cifar -> data
I0504 03:30:56.732615 10926 net.cpp:382] cifar -> label
I0504 03:30:56.732621 10926 data_transformer.cpp:25] Loading mean file from: examples/cifar10/mean.binaryproto
I0504 03:30:56.732756 10926 data_layer.cpp:45] output data size: 1000,3,32,32
I0504 03:30:56.755622 10926 net.cpp:124] Setting up cifar
I0504 03:30:56.755664 10926 net.cpp:131] Top shape: 1000 3 32 32 (3072000)
I0504 03:30:56.755671 10926 net.cpp:131] Top shape: 1000 (1000)
I0504 03:30:56.755673 10926 net.cpp:139] Memory required for data: 12292000
I0504 03:30:56.755681 10926 layer_factory.hpp:77] Creating layer label_cifar_1_split
I0504 03:30:56.755725 10926 net.cpp:86] Creating Layer label_cifar_1_split
I0504 03:30:56.755729 10926 net.cpp:408] label_cifar_1_split <- label
I0504 03:30:56.755735 10926 net.cpp:382] label_cifar_1_split -> label_cifar_1_split_0
I0504 03:30:56.755744 10926 net.cpp:382] label_cifar_1_split -> label_cifar_1_split_1
I0504 03:30:56.755851 10926 net.cpp:124] Setting up label_cifar_1_split
I0504 03:30:56.755859 10926 net.cpp:131] Top shape: 1000 (1000)
I0504 03:30:56.755863 10926 net.cpp:131] Top shape: 1000 (1000)
I0504 03:30:56.755867 10926 net.cpp:139] Memory required for data: 12300000
I0504 03:30:56.755869 10926 layer_factory.hpp:77] Creating layer conv0
I0504 03:30:56.755882 10926 net.cpp:86] Creating Layer conv0
I0504 03:30:56.755884 10926 net.cpp:408] conv0 <- data
I0504 03:30:56.755889 10926 net.cpp:382] conv0 -> conv0
I0504 03:30:56.758237 10926 net.cpp:124] Setting up conv0
I0504 03:30:56.758281 10926 net.cpp:131] Top shape: 1000 216 34 34 (249696000)
I0504 03:30:56.758285 10926 net.cpp:139] Memory required for data: 1011084000
I0504 03:30:56.758296 10926 layer_factory.hpp:77] Creating layer Sigmoid0
I0504 03:30:56.758303 10926 net.cpp:86] Creating Layer Sigmoid0
I0504 03:30:56.758306 10926 net.cpp:408] Sigmoid0 <- conv0
I0504 03:30:56.758311 10926 net.cpp:382] Sigmoid0 -> Sigmoid0
I0504 03:30:56.759181 10926 net.cpp:124] Setting up Sigmoid0
I0504 03:30:56.759207 10926 net.cpp:131] Top shape: 1000 216 34 34 (249696000)
I0504 03:30:56.759227 10926 net.cpp:139] Memory required for data: 2009868000
I0504 03:30:56.759229 10926 layer_factory.hpp:77] Creating layer pool0
I0504 03:30:56.759238 10926 net.cpp:86] Creating Layer pool0
I0504 03:30:56.759241 10926 net.cpp:408] pool0 <- Sigmoid0
I0504 03:30:56.759246 10926 net.cpp:382] pool0 -> pool0
I0504 03:30:56.760398 10926 net.cpp:124] Setting up pool0
I0504 03:30:56.760407 10926 net.cpp:131] Top shape: 1000 216 17 17 (62424000)
I0504 03:30:56.760426 10926 net.cpp:139] Memory required for data: 2259564000
I0504 03:30:56.760429 10926 layer_factory.hpp:77] Creating layer ip1
I0504 03:30:56.760437 10926 net.cpp:86] Creating Layer ip1
I0504 03:30:56.760442 10926 net.cpp:408] ip1 <- pool0
I0504 03:30:56.760447 10926 net.cpp:382] ip1 -> ip1
I0504 03:30:56.778306 10926 net.cpp:124] Setting up ip1
I0504 03:30:56.778334 10926 net.cpp:131] Top shape: 1000 10 (10000)
I0504 03:30:56.778338 10926 net.cpp:139] Memory required for data: 2259604000
I0504 03:30:56.778348 10926 layer_factory.hpp:77] Creating layer relu1
I0504 03:30:56.778357 10926 net.cpp:86] Creating Layer relu1
I0504 03:30:56.778359 10926 net.cpp:408] relu1 <- ip1
I0504 03:30:56.778364 10926 net.cpp:369] relu1 -> ip1 (in-place)
I0504 03:30:56.778544 10926 net.cpp:124] Setting up relu1
I0504 03:30:56.778553 10926 net.cpp:131] Top shape: 1000 10 (10000)
I0504 03:30:56.778556 10926 net.cpp:139] Memory required for data: 2259644000
I0504 03:30:56.778560 10926 layer_factory.hpp:77] Creating layer ip2
I0504 03:30:56.778566 10926 net.cpp:86] Creating Layer ip2
I0504 03:30:56.778569 10926 net.cpp:408] ip2 <- ip1
I0504 03:30:56.778575 10926 net.cpp:382] ip2 -> ip2
I0504 03:30:56.778726 10926 net.cpp:124] Setting up ip2
I0504 03:30:56.778733 10926 net.cpp:131] Top shape: 1000 180 (180000)
I0504 03:30:56.778736 10926 net.cpp:139] Memory required for data: 2260364000
I0504 03:30:56.778743 10926 layer_factory.hpp:77] Creating layer relu2
I0504 03:30:56.778749 10926 net.cpp:86] Creating Layer relu2
I0504 03:30:56.778753 10926 net.cpp:408] relu2 <- ip2
I0504 03:30:56.778756 10926 net.cpp:369] relu2 -> ip2 (in-place)
I0504 03:30:56.778924 10926 net.cpp:124] Setting up relu2
I0504 03:30:56.778933 10926 net.cpp:131] Top shape: 1000 180 (180000)
I0504 03:30:56.778936 10926 net.cpp:139] Memory required for data: 2261084000
I0504 03:30:56.778940 10926 layer_factory.hpp:77] Creating layer ip3
I0504 03:30:56.778946 10926 net.cpp:86] Creating Layer ip3
I0504 03:30:56.778949 10926 net.cpp:408] ip3 <- ip2
I0504 03:30:56.778954 10926 net.cpp:382] ip3 -> ip3
I0504 03:30:56.779104 10926 net.cpp:124] Setting up ip3
I0504 03:30:56.779111 10926 net.cpp:131] Top shape: 1000 10 (10000)
I0504 03:30:56.779126 10926 net.cpp:139] Memory required for data: 2261124000
I0504 03:30:56.779132 10926 layer_factory.hpp:77] Creating layer ip3_ip3_0_split
I0504 03:30:56.779139 10926 net.cpp:86] Creating Layer ip3_ip3_0_split
I0504 03:30:56.779141 10926 net.cpp:408] ip3_ip3_0_split <- ip3
I0504 03:30:56.779145 10926 net.cpp:382] ip3_ip3_0_split -> ip3_ip3_0_split_0
I0504 03:30:56.779151 10926 net.cpp:382] ip3_ip3_0_split -> ip3_ip3_0_split_1
I0504 03:30:56.779182 10926 net.cpp:124] Setting up ip3_ip3_0_split
I0504 03:30:56.779187 10926 net.cpp:131] Top shape: 1000 10 (10000)
I0504 03:30:56.779191 10926 net.cpp:131] Top shape: 1000 10 (10000)
I0504 03:30:56.779194 10926 net.cpp:139] Memory required for data: 2261204000
I0504 03:30:56.779197 10926 layer_factory.hpp:77] Creating layer accuracy
I0504 03:30:56.779203 10926 net.cpp:86] Creating Layer accuracy
I0504 03:30:56.779222 10926 net.cpp:408] accuracy <- ip3_ip3_0_split_0
I0504 03:30:56.779225 10926 net.cpp:408] accuracy <- label_cifar_1_split_0
I0504 03:30:56.779229 10926 net.cpp:382] accuracy -> accuracy
…
