…
I0504 07:13:15.014212 18104 net.cpp:296] The NetState phase (0) differed from the phase (1) specified by a rule in layer cifar
I0504 07:13:15.014227 18104 net.cpp:296] The NetState phase (0) differed from the phase (1) specified by a rule in layer accuracy
I0504 07:13:15.014327 18104 net.cpp:53] Initializing net from parameters: 
name: "CIFAR"
state {
  phase: TRAIN
  level: 0
  stage: ""
}
layer {
  name: "cifar"
  type: "Data"
  top: "data"
  top: "label"
  include {
    phase: TRAIN
  }
  transform_param {
    mean_file: "examples/cifar10/mean.binaryproto"
  }
  data_param {
    source: "examples/cifar10/cifar10_train_lmdb"
    batch_size: 111
    backend: LMDB
  }
}
layer {
  name: "conv0"
  type: "Convolution"
  bottom: "data"
  top: "conv0"
  param {
    lr_mult: 1
  }
  param {
    lr_mult: 2
  }
  convolution_param {
    num_output: 24
    pad: 2
    kernel_size: 3
    stride: 1
    weight_filler {
      type: "gaussian"
      std: 0.01
    }
    bias_filler {
      type: "constant"
    }
  }
}
layer {
  name: "Sigmoid0"
  type: "Sigmoid"
  bottom: "conv0"
  top: "Sigmoid0"
}
layer {
  name: "pool0"
  type: "Pooling"
  bottom: "Sigmoid0"
  top: "pool0"
  pooling_param {
    pool: AVE
    kernel_size: 3
    stride: 2
  }
}
layer {
  name: "conv1"
  type: "Convolution"
  bottom: "pool0"
  top: "conv1"
  param {
    lr_mult: 1
  }
  param {
    lr_mult: 2
  }
  convolution_param {
    num_output: 24
    pad: 2
    kernel_size: 3
    stride: 1
    weight_filler {
      type: "gaussian"
      std: 0.01
    }
    bias_filler {
      type: "constant"
    }
  }
}
layer {
  name: "Sigmoid1"
  type: "Sigmoid"
  bottom: "conv1"
  top: "Sigmoid1"
}
layer {
  name: "pool1"
  type: "Pooling"
  bottom: "Sigmoid1"
  top: "pool1"
  pooling_param {
    pool: AVE
    kernel_size: 3
    stride: 2
  }
}
layer {
  name: "ip1"
  type: "InnerProduct"
  bottom: "pool1"
  top: "ip1"
  param {
    lr_mult: 1
  }
  param {
    lr_mult: 2
  }
  inner_product_param {
    num_output: 10
    weight_filler {
      type: "gaussian"
      std: 0.01
    }
    bias_filler {
      type: "constant"
    }
  }
}
layer {
  name: "relu1"
  type: "ReLU"
  bottom: "ip1"
  top: "ip1"
}
layer {
  name: "ip2"
  type: "InnerProduct"
  bottom: "ip1"
  top: "ip2"
  param {
    lr_mult: 1
  }
  param {
    lr_mult: 2
  }
  inner_product_param {
    num_output: 10
    weight_filler {
      type: "gaussian"
      std: 0.01
    }
    bias_filler {
      type: "constant"
    }
  }
}
layer {
  name: "relu2"
  type: "ReLU"
  bottom: "ip2"
  top: "ip2"
}
layer {
  name: "ip3"
  type: "InnerProduct"
  bottom: "ip2"
  top: "ip3"
  param {
    lr_mult: 1
  }
  param {
    lr_mult: 2
  }
  inner_product_param {
    num_output: 10
    weight_filler {
      type: "gaussian"
      std: 0.01
    }
    bias_filler {
      type: "constant"
    }
  }
}
layer {
  name: "loss"
  type: "SoftmaxWithLoss"
  bottom: "ip3"
  bottom: "label"
  top: "loss"
}
I0504 07:13:15.014394 18104 layer_factory.hpp:77] Creating layer cifar
I0504 07:13:15.014477 18104 db_lmdb.cpp:35] Opened lmdb examples/cifar10/cifar10_train_lmdb
I0504 07:13:15.014498 18104 net.cpp:86] Creating Layer cifar
I0504 07:13:15.014505 18104 net.cpp:382] cifar -> data
I0504 07:13:15.014523 18104 net.cpp:382] cifar -> label
I0504 07:13:15.014533 18104 data_transformer.cpp:25] Loading mean file from: examples/cifar10/mean.binaryproto
I0504 07:13:15.016288 18104 data_layer.cpp:45] output data size: 111,3,32,32
I0504 07:13:15.022730 18104 net.cpp:124] Setting up cifar
I0504 07:13:15.022763 18104 net.cpp:131] Top shape: 111 3 32 32 (340992)
I0504 07:13:15.022768 18104 net.cpp:131] Top shape: 111 (111)
I0504 07:13:15.022770 18104 net.cpp:139] Memory required for data: 1364412
I0504 07:13:15.022776 18104 layer_factory.hpp:77] Creating layer conv0
I0504 07:13:15.022806 18104 net.cpp:86] Creating Layer conv0
I0504 07:13:15.022811 18104 net.cpp:408] conv0 <- data
I0504 07:13:15.022820 18104 net.cpp:382] conv0 -> conv0
I0504 07:13:15.247664 18104 net.cpp:124] Setting up conv0
I0504 07:13:15.247704 18104 net.cpp:131] Top shape: 111 24 34 34 (3079584)
I0504 07:13:15.247709 18104 net.cpp:139] Memory required for data: 13682748
I0504 07:13:15.247723 18104 layer_factory.hpp:77] Creating layer Sigmoid0
I0504 07:13:15.247735 18104 net.cpp:86] Creating Layer Sigmoid0
I0504 07:13:15.247740 18104 net.cpp:408] Sigmoid0 <- conv0
I0504 07:13:15.247745 18104 net.cpp:382] Sigmoid0 -> Sigmoid0
I0504 07:13:15.247925 18104 net.cpp:124] Setting up Sigmoid0
I0504 07:13:15.247934 18104 net.cpp:131] Top shape: 111 24 34 34 (3079584)
I0504 07:13:15.247937 18104 net.cpp:139] Memory required for data: 26001084
I0504 07:13:15.247941 18104 layer_factory.hpp:77] Creating layer pool0
I0504 07:13:15.247947 18104 net.cpp:86] Creating Layer pool0
I0504 07:13:15.247951 18104 net.cpp:408] pool0 <- Sigmoid0
I0504 07:13:15.247954 18104 net.cpp:382] pool0 -> pool0
I0504 07:13:15.248652 18104 net.cpp:124] Setting up pool0
I0504 07:13:15.248664 18104 net.cpp:131] Top shape: 111 24 17 17 (769896)
I0504 07:13:15.248667 18104 net.cpp:139] Memory required for data: 29080668
I0504 07:13:15.248670 18104 layer_factory.hpp:77] Creating layer conv1
I0504 07:13:15.248682 18104 net.cpp:86] Creating Layer conv1
I0504 07:13:15.248684 18104 net.cpp:408] conv1 <- pool0
I0504 07:13:15.248689 18104 net.cpp:382] conv1 -> conv1
I0504 07:13:15.251345 18104 net.cpp:124] Setting up conv1
I0504 07:13:15.251358 18104 net.cpp:131] Top shape: 111 24 19 19 (961704)
I0504 07:13:15.251361 18104 net.cpp:139] Memory required for data: 32927484
I0504 07:13:15.251368 18104 layer_factory.hpp:77] Creating layer Sigmoid1
I0504 07:13:15.251374 18104 net.cpp:86] Creating Layer Sigmoid1
I0504 07:13:15.251376 18104 net.cpp:408] Sigmoid1 <- conv1
I0504 07:13:15.251381 18104 net.cpp:382] Sigmoid1 -> Sigmoid1
I0504 07:13:15.251550 18104 net.cpp:124] Setting up Sigmoid1
I0504 07:13:15.251559 18104 net.cpp:131] Top shape: 111 24 19 19 (961704)
I0504 07:13:15.251562 18104 net.cpp:139] Memory required for data: 36774300
I0504 07:13:15.251565 18104 layer_factory.hpp:77] Creating layer pool1
I0504 07:13:15.251571 18104 net.cpp:86] Creating Layer pool1
I0504 07:13:15.251574 18104 net.cpp:408] pool1 <- Sigmoid1
I0504 07:13:15.251579 18104 net.cpp:382] pool1 -> pool1
I0504 07:13:15.251724 18104 net.cpp:124] Setting up pool1
I0504 07:13:15.251732 18104 net.cpp:131] Top shape: 111 24 9 9 (215784)
I0504 07:13:15.251734 18104 net.cpp:139] Memory required for data: 37637436
I0504 07:13:15.251737 18104 layer_factory.hpp:77] Creating layer ip1
I0504 07:13:15.251744 18104 net.cpp:86] Creating Layer ip1
I0504 07:13:15.251747 18104 net.cpp:408] ip1 <- pool1
I0504 07:13:15.251751 18104 net.cpp:382] ip1 -> ip1
I0504 07:13:15.253120 18104 net.cpp:124] Setting up ip1
I0504 07:13:15.253131 18104 net.cpp:131] Top shape: 111 10 (1110)
I0504 07:13:15.253134 18104 net.cpp:139] Memory required for data: 37641876
I0504 07:13:15.253141 18104 layer_factory.hpp:77] Creating layer relu1
I0504 07:13:15.253147 18104 net.cpp:86] Creating Layer relu1
I0504 07:13:15.253151 18104 net.cpp:408] relu1 <- ip1
I0504 07:13:15.253155 18104 net.cpp:369] relu1 -> ip1 (in-place)
I0504 07:13:15.253334 18104 net.cpp:124] Setting up relu1
I0504 07:13:15.253342 18104 net.cpp:131] Top shape: 111 10 (1110)
I0504 07:13:15.253345 18104 net.cpp:139] Memory required for data: 37646316
I0504 07:13:15.253348 18104 layer_factory.hpp:77] Creating layer ip2
I0504 07:13:15.253355 18104 net.cpp:86] Creating Layer ip2
I0504 07:13:15.253357 18104 net.cpp:408] ip2 <- ip1
I0504 07:13:15.253376 18104 net.cpp:382] ip2 -> ip2
I0504 07:13:15.253468 18104 net.cpp:124] Setting up ip2
I0504 07:13:15.253475 18104 net.cpp:131] Top shape: 111 10 (1110)
I0504 07:13:15.253479 18104 net.cpp:139] Memory required for data: 37650756
I0504 07:13:15.253484 18104 layer_factory.hpp:77] Creating layer relu2
I0504 07:13:15.253489 18104 net.cpp:86] Creating Layer relu2
I0504 07:13:15.253491 18104 net.cpp:408] relu2 <- ip2
I0504 07:13:15.253495 18104 net.cpp:369] relu2 -> ip2 (in-place)
I0504 07:13:15.254175 18104 net.cpp:124] Setting up relu2
I0504 07:13:15.254186 18104 net.cpp:131] Top shape: 111 10 (1110)
I0504 07:13:15.254205 18104 net.cpp:139] Memory required for data: 37655196
I0504 07:13:15.254209 18104 layer_factory.hpp:77] Creating layer ip3
I0504 07:13:15.254215 18104 net.cpp:86] Creating Layer ip3
I0504 07:13:15.254218 18104 net.cpp:408] ip3 <- ip2
I0504 07:13:15.254223 18104 net.cpp:382] ip3 -> ip3
I0504 07:13:15.254348 18104 net.cpp:124] Setting up ip3
I0504 07:13:15.254355 18104 net.cpp:131] Top shape: 111 10 (1110)
I0504 07:13:15.254359 18104 net.cpp:139] Memory required for data: 37659636
I0504 07:13:15.254366 18104 layer_factory.hpp:77] Creating layer loss
I0504 07:13:15.254372 18104 net.cpp:86] Creating Layer loss
I0504 07:13:15.254375 18104 net.cpp:408] loss <- ip3
I0504 07:13:15.254379 18104 net.cpp:408] loss <- label
I0504 07:13:15.254384 18104 net.cpp:382] loss -> loss
I0504 07:13:15.254400 18104 layer_factory.hpp:77] Creating layer loss
…
I0504 07:13:15.255058 18104 solver.cpp:173] Creating test net (#0) specified by net file: ECE595/cifar/train_test/var_everything_tiny/cifar_train_test_75.prototxt
I0504 07:13:15.255096 18104 net.cpp:296] The NetState phase (1) differed from the phase (0) specified by a rule in layer cifar
I0504 07:13:15.255192 18104 net.cpp:53] Initializing net from parameters: 
name: "CIFAR"
state {
  phase: TEST
}
layer {
  name: "cifar"
  type: "Data"
  top: "data"
  top: "label"
  include {
    phase: TEST
  }
  transform_param {
    mean_file: "examples/cifar10/mean.binaryproto"
  }
  data_param {
    source: "examples/cifar10/cifar10_test_lmdb"
    batch_size: 1000
    backend: LMDB
  }
}
layer {
  name: "conv0"
  type: "Convolution"
  bottom: "data"
  top: "conv0"
  param {
    lr_mult: 1
  }
  param {
    lr_mult: 2
  }
  convolution_param {
    num_output: 24
    pad: 2
    kernel_size: 3
    stride: 1
    weight_filler {
      type: "gaussian"
      std: 0.01
    }
    bias_filler {
      type: "constant"
    }
  }
}
layer {
  name: "Sigmoid0"
  type: "Sigmoid"
  bottom: "conv0"
  top: "Sigmoid0"
}
layer {
  name: "pool0"
  type: "Pooling"
  bottom: "Sigmoid0"
  top: "pool0"
  pooling_param {
    pool: AVE
    kernel_size: 3
    stride: 2
  }
}
layer {
  name: "conv1"
  type: "Convolution"
  bottom: "pool0"
  top: "conv1"
  param {
    lr_mult: 1
  }
  param {
    lr_mult: 2
  }
  convolution_param {
    num_output: 24
    pad: 2
    kernel_size: 3
    stride: 1
    weight_filler {
      type: "gaussian"
      std: 0.01
    }
    bias_filler {
      type: "constant"
    }
  }
}
layer {
  name: "Sigmoid1"
  type: "Sigmoid"
  bottom: "conv1"
  top: "Sigmoid1"
}
layer {
  name: "pool1"
  type: "Pooling"
  bottom: "Sigmoid1"
  top: "pool1"
  pooling_param {
    pool: AVE
    kernel_size: 3
    stride: 2
  }
}
layer {
  name: "ip1"
  type: "InnerProduct"
  bottom: "pool1"
  top: "ip1"
  param {
    lr_mult: 1
  }
  param {
    lr_mult: 2
  }
  inner_product_param {
    num_output: 10
    weight_filler {
      type: "gaussian"
      std: 0.01
    }
    bias_filler {
      type: "constant"
    }
  }
}
layer {
  name: "relu1"
  type: "ReLU"
  bottom: "ip1"
  top: "ip1"
}
layer {
  name: "ip2"
  type: "InnerProduct"
  bottom: "ip1"
  top: "ip2"
  param {
    lr_mult: 1
  }
  param {
    lr_mult: 2
  }
  inner_product_param {
    num_output: 10
    weight_filler {
      type: "gaussian"
      std: 0.01
    }
    bias_filler {
      type: "constant"
    }
  }
}
layer {
  name: "relu2"
  type: "ReLU"
  bottom: "ip2"
  top: "ip2"
}
layer {
  name: "ip3"
  type: "InnerProduct"
  bottom: "ip2"
  top: "ip3"
  param {
    lr_mult: 1
  }
  param {
    lr_mult: 2
  }
  inner_product_param {
    num_output: 10
    weight_filler {
      type: "gaussian"
      std: 0.01
    }
    bias_filler {
      type: "constant"
    }
  }
}
layer {
  name: "accuracy"
  type: "Accuracy"
  bottom: "ip3"
  bottom: "label"
  top: "accuracy"
  include {
    phase: TEST
  }
}
layer {
  name: "loss"
  type: "SoftmaxWithLoss"
  bottom: "ip3"
  bottom: "label"
  top: "loss"
}
I0504 07:13:15.255270 18104 layer_factory.hpp:77] Creating layer cifar
I0504 07:13:15.255311 18104 db_lmdb.cpp:35] Opened lmdb examples/cifar10/cifar10_test_lmdb
I0504 07:13:15.255323 18104 net.cpp:86] Creating Layer cifar
I0504 07:13:15.255327 18104 net.cpp:382] cifar -> data
I0504 07:13:15.255334 18104 net.cpp:382] cifar -> label
I0504 07:13:15.255340 18104 data_transformer.cpp:25] Loading mean file from: examples/cifar10/mean.binaryproto
I0504 07:13:15.255517 18104 data_layer.cpp:45] output data size: 1000,3,32,32
I0504 07:13:15.276885 18104 net.cpp:124] Setting up cifar
I0504 07:13:15.276926 18104 net.cpp:131] Top shape: 1000 3 32 32 (3072000)
I0504 07:13:15.276932 18104 net.cpp:131] Top shape: 1000 (1000)
I0504 07:13:15.276935 18104 net.cpp:139] Memory required for data: 12292000
I0504 07:13:15.276942 18104 layer_factory.hpp:77] Creating layer label_cifar_1_split
I0504 07:13:15.276959 18104 net.cpp:86] Creating Layer label_cifar_1_split
I0504 07:13:15.276962 18104 net.cpp:408] label_cifar_1_split <- label
I0504 07:13:15.276968 18104 net.cpp:382] label_cifar_1_split -> label_cifar_1_split_0
I0504 07:13:15.276978 18104 net.cpp:382] label_cifar_1_split -> label_cifar_1_split_1
I0504 07:13:15.277050 18104 net.cpp:124] Setting up label_cifar_1_split
I0504 07:13:15.277057 18104 net.cpp:131] Top shape: 1000 (1000)
I0504 07:13:15.277061 18104 net.cpp:131] Top shape: 1000 (1000)
I0504 07:13:15.277063 18104 net.cpp:139] Memory required for data: 12300000
I0504 07:13:15.277067 18104 layer_factory.hpp:77] Creating layer conv0
I0504 07:13:15.277079 18104 net.cpp:86] Creating Layer conv0
I0504 07:13:15.277086 18104 net.cpp:408] conv0 <- data
I0504 07:13:15.277091 18104 net.cpp:382] conv0 -> conv0
I0504 07:13:15.278815 18104 net.cpp:124] Setting up conv0
I0504 07:13:15.278827 18104 net.cpp:131] Top shape: 1000 24 34 34 (27744000)
I0504 07:13:15.278846 18104 net.cpp:139] Memory required for data: 123276000
I0504 07:13:15.278856 18104 layer_factory.hpp:77] Creating layer Sigmoid0
I0504 07:13:15.278861 18104 net.cpp:86] Creating Layer Sigmoid0
I0504 07:13:15.278865 18104 net.cpp:408] Sigmoid0 <- conv0
I0504 07:13:15.278870 18104 net.cpp:382] Sigmoid0 -> Sigmoid0
I0504 07:13:15.279065 18104 net.cpp:124] Setting up Sigmoid0
I0504 07:13:15.279086 18104 net.cpp:131] Top shape: 1000 24 34 34 (27744000)
I0504 07:13:15.279090 18104 net.cpp:139] Memory required for data: 234252000
I0504 07:13:15.279093 18104 layer_factory.hpp:77] Creating layer pool0
I0504 07:13:15.279115 18104 net.cpp:86] Creating Layer pool0
I0504 07:13:15.279121 18104 net.cpp:408] pool0 <- Sigmoid0
I0504 07:13:15.279140 18104 net.cpp:382] pool0 -> pool0
I0504 07:13:15.279412 18104 net.cpp:124] Setting up pool0
I0504 07:13:15.279420 18104 net.cpp:131] Top shape: 1000 24 17 17 (6936000)
I0504 07:13:15.279423 18104 net.cpp:139] Memory required for data: 261996000
I0504 07:13:15.279427 18104 layer_factory.hpp:77] Creating layer conv1
I0504 07:13:15.279436 18104 net.cpp:86] Creating Layer conv1
I0504 07:13:15.279440 18104 net.cpp:408] conv1 <- pool0
I0504 07:13:15.279446 18104 net.cpp:382] conv1 -> conv1
I0504 07:13:15.281844 18104 net.cpp:124] Setting up conv1
I0504 07:13:15.281859 18104 net.cpp:131] Top shape: 1000 24 19 19 (8664000)
I0504 07:13:15.281862 18104 net.cpp:139] Memory required for data: 296652000
I0504 07:13:15.281870 18104 layer_factory.hpp:77] Creating layer Sigmoid1
I0504 07:13:15.281877 18104 net.cpp:86] Creating Layer Sigmoid1
I0504 07:13:15.281879 18104 net.cpp:408] Sigmoid1 <- conv1
I0504 07:13:15.281884 18104 net.cpp:382] Sigmoid1 -> Sigmoid1
I0504 07:13:15.282071 18104 net.cpp:124] Setting up Sigmoid1
I0504 07:13:15.282080 18104 net.cpp:131] Top shape: 1000 24 19 19 (8664000)
I0504 07:13:15.282083 18104 net.cpp:139] Memory required for data: 331308000
I0504 07:13:15.282086 18104 layer_factory.hpp:77] Creating layer pool1
I0504 07:13:15.282091 18104 net.cpp:86] Creating Layer pool1
I0504 07:13:15.282094 18104 net.cpp:408] pool1 <- Sigmoid1
I0504 07:13:15.282100 18104 net.cpp:382] pool1 -> pool1
I0504 07:13:15.282832 18104 net.cpp:124] Setting up pool1
I0504 07:13:15.282843 18104 net.cpp:131] Top shape: 1000 24 9 9 (1944000)
I0504 07:13:15.282846 18104 net.cpp:139] Memory required for data: 339084000
I0504 07:13:15.282850 18104 layer_factory.hpp:77] Creating layer ip1
I0504 07:13:15.282860 18104 net.cpp:86] Creating Layer ip1
I0504 07:13:15.282863 18104 net.cpp:408] ip1 <- pool1
I0504 07:13:15.282868 18104 net.cpp:382] ip1 -> ip1
I0504 07:13:15.283500 18104 net.cpp:124] Setting up ip1
I0504 07:13:15.283507 18104 net.cpp:131] Top shape: 1000 10 (10000)
I0504 07:13:15.283525 18104 net.cpp:139] Memory required for data: 339124000
I0504 07:13:15.283532 18104 layer_factory.hpp:77] Creating layer relu1
I0504 07:13:15.283540 18104 net.cpp:86] Creating Layer relu1
I0504 07:13:15.283543 18104 net.cpp:408] relu1 <- ip1
I0504 07:13:15.283547 18104 net.cpp:369] relu1 -> ip1 (in-place)
I0504 07:13:15.283716 18104 net.cpp:124] Setting up relu1
I0504 07:13:15.283725 18104 net.cpp:131] Top shape: 1000 10 (10000)
I0504 07:13:15.283727 18104 net.cpp:139] Memory required for data: 339164000
I0504 07:13:15.283730 18104 layer_factory.hpp:77] Creating layer ip2
I0504 07:13:15.283737 18104 net.cpp:86] Creating Layer ip2
I0504 07:13:15.283740 18104 net.cpp:408] ip2 <- ip1
I0504 07:13:15.283746 18104 net.cpp:382] ip2 -> ip2
I0504 07:13:15.283849 18104 net.cpp:124] Setting up ip2
I0504 07:13:15.283855 18104 net.cpp:131] Top shape: 1000 10 (10000)
I0504 07:13:15.283859 18104 net.cpp:139] Memory required for data: 339204000
I0504 07:13:15.283864 18104 layer_factory.hpp:77] Creating layer relu2
I0504 07:13:15.283869 18104 net.cpp:86] Creating Layer relu2
I0504 07:13:15.283871 18104 net.cpp:408] relu2 <- ip2
I0504 07:13:15.283875 18104 net.cpp:369] relu2 -> ip2 (in-place)
I0504 07:13:15.284021 18104 net.cpp:124] Setting up relu2
I0504 07:13:15.284030 18104 net.cpp:131] Top shape: 1000 10 (10000)
I0504 07:13:15.284034 18104 net.cpp:139] Memory required for data: 339244000
I0504 07:13:15.284036 18104 layer_factory.hpp:77] Creating layer ip3
I0504 07:13:15.284042 18104 net.cpp:86] Creating Layer ip3
I0504 07:13:15.284044 18104 net.cpp:408] ip3 <- ip2
I0504 07:13:15.284050 18104 net.cpp:382] ip3 -> ip3
I0504 07:13:15.284148 18104 net.cpp:124] Setting up ip3
I0504 07:13:15.284154 18104 net.cpp:131] Top shape: 1000 10 (10000)
I0504 07:13:15.284168 18104 net.cpp:139] Memory required for data: 339284000
I0504 07:13:15.284176 18104 layer_factory.hpp:77] Creating layer ip3_ip3_0_split
I0504 07:13:15.284183 18104 net.cpp:86] Creating Layer ip3_ip3_0_split
I0504 07:13:15.284202 18104 net.cpp:408] ip3_ip3_0_split <- ip3
I0504 07:13:15.284207 18104 net.cpp:382] ip3_ip3_0_split -> ip3_ip3_0_split_0
I0504 07:13:15.284212 18104 net.cpp:382] ip3_ip3_0_split -> ip3_ip3_0_split_1
I0504 07:13:15.284245 18104 net.cpp:124] Setting up ip3_ip3_0_split
I0504 07:13:15.284252 18104 net.cpp:131] Top shape: 1000 10 (10000)
I0504 07:13:15.284272 18104 net.cpp:131] Top shape: 1000 10 (10000)
I0504 07:13:15.284276 18104 net.cpp:139] Memory required for data: 339364000
I0504 07:13:15.284278 18104 layer_factory.hpp:77] Creating layer accuracy
I0504 07:13:15.284283 18104 net.cpp:86] Creating Layer accuracy
I0504 07:13:15.284286 18104 net.cpp:408] accuracy <- ip3_ip3_0_split_0
I0504 07:13:15.284291 18104 net.cpp:408] accuracy <- label_cifar_1_split_0
I0504 07:13:15.284294 18104 net.cpp:382] accuracy -> accuracy
…
