…
I0503 23:53:38.878216  4233 net.cpp:296] The NetState phase (0) differed from the phase (1) specified by a rule in layer cifar
I0503 23:53:38.878244  4233 net.cpp:296] The NetState phase (0) differed from the phase (1) specified by a rule in layer accuracy
I0503 23:53:38.878401  4233 net.cpp:53] Initializing net from parameters: 
name: "CIFAR"
state {
  phase: TRAIN
  level: 0
  stage: ""
}
layer {
  name: "cifar"
  type: "Data"
  top: "data"
  top: "label"
  include {
    phase: TRAIN
  }
  transform_param {
    mean_file: "examples/cifar10/mean.binaryproto"
  }
  data_param {
    source: "examples/cifar10/cifar10_train_lmdb"
    batch_size: 111
    backend: LMDB
  }
}
layer {
  name: "conv0"
  type: "Convolution"
  bottom: "data"
  top: "conv0"
  param {
    lr_mult: 1
  }
  param {
    lr_mult: 2
  }
  convolution_param {
    num_output: 24
    pad: 2
    kernel_size: 3
    stride: 1
    weight_filler {
      type: "gaussian"
      std: 0.01
    }
    bias_filler {
      type: "constant"
    }
  }
}
layer {
  name: "Sigmoid0"
  type: "Sigmoid"
  bottom: "conv0"
  top: "Sigmoid0"
}
layer {
  name: "pool0"
  type: "Pooling"
  bottom: "Sigmoid0"
  top: "pool0"
  pooling_param {
    pool: AVE
    kernel_size: 3
    stride: 2
  }
}
layer {
  name: "ip1"
  type: "InnerProduct"
  bottom: "pool0"
  top: "ip1"
  param {
    lr_mult: 1
  }
  param {
    lr_mult: 2
  }
  inner_product_param {
    num_output: 10
    weight_filler {
      type: "gaussian"
      std: 0.01
    }
    bias_filler {
      type: "constant"
    }
  }
}
layer {
  name: "relu1"
  type: "ReLU"
  bottom: "ip1"
  top: "ip1"
}
layer {
  name: "ip2"
  type: "InnerProduct"
  bottom: "ip1"
  top: "ip2"
  param {
    lr_mult: 1
  }
  param {
    lr_mult: 2
  }
  inner_product_param {
    num_output: 60
    weight_filler {
      type: "gaussian"
      std: 0.01
    }
    bias_filler {
      type: "constant"
    }
  }
}
layer {
  name: "relu2"
  type: "ReLU"
  bottom: "ip2"
  top: "ip2"
}
layer {
  name: "ip3"
  type: "InnerProduct"
  bottom: "ip2"
  top: "ip3"
  param {
    lr_mult: 1
  }
  param {
    lr_mult: 2
  }
  inner_product_param {
    num_output: 10
    weight_filler {
      type: "gaussian"
      std: 0.01
    }
    bias_filler {
      type: "constant"
    }
  }
}
layer {
  name: "loss"
  type: "SoftmaxWithLoss"
  bottom: "ip3"
  bottom: "label"
  top: "loss"
}
I0503 23:53:38.878520  4233 layer_factory.hpp:77] Creating layer cifar
I0503 23:53:38.878672  4233 db_lmdb.cpp:35] Opened lmdb examples/cifar10/cifar10_train_lmdb
I0503 23:53:38.878715  4233 net.cpp:86] Creating Layer cifar
I0503 23:53:38.878731  4233 net.cpp:382] cifar -> data
I0503 23:53:38.878764  4233 net.cpp:382] cifar -> label
I0503 23:53:38.878784  4233 data_transformer.cpp:25] Loading mean file from: examples/cifar10/mean.binaryproto
I0503 23:53:38.881949  4233 data_layer.cpp:45] output data size: 111,3,32,32
I0503 23:53:38.893762  4233 net.cpp:124] Setting up cifar
I0503 23:53:38.893791  4233 net.cpp:131] Top shape: 111 3 32 32 (340992)
I0503 23:53:38.893827  4233 net.cpp:131] Top shape: 111 (111)
I0503 23:53:38.893836  4233 net.cpp:139] Memory required for data: 1364412
I0503 23:53:38.893849  4233 layer_factory.hpp:77] Creating layer conv0
I0503 23:53:38.893877  4233 net.cpp:86] Creating Layer conv0
I0503 23:53:38.893887  4233 net.cpp:408] conv0 <- data
I0503 23:53:38.893909  4233 net.cpp:382] conv0 -> conv0
I0503 23:53:39.203831  4233 net.cpp:124] Setting up conv0
I0503 23:53:39.203886  4233 net.cpp:131] Top shape: 111 24 34 34 (3079584)
I0503 23:53:39.203891  4233 net.cpp:139] Memory required for data: 13682748
I0503 23:53:39.203908  4233 layer_factory.hpp:77] Creating layer Sigmoid0
I0503 23:53:39.203922  4233 net.cpp:86] Creating Layer Sigmoid0
I0503 23:53:39.203927  4233 net.cpp:408] Sigmoid0 <- conv0
I0503 23:53:39.203935  4233 net.cpp:382] Sigmoid0 -> Sigmoid0
I0503 23:53:39.204162  4233 net.cpp:124] Setting up Sigmoid0
I0503 23:53:39.204175  4233 net.cpp:131] Top shape: 111 24 34 34 (3079584)
I0503 23:53:39.204180  4233 net.cpp:139] Memory required for data: 26001084
I0503 23:53:39.204183  4233 layer_factory.hpp:77] Creating layer pool0
I0503 23:53:39.204191  4233 net.cpp:86] Creating Layer pool0
I0503 23:53:39.204195  4233 net.cpp:408] pool0 <- Sigmoid0
I0503 23:53:39.204200  4233 net.cpp:382] pool0 -> pool0
I0503 23:53:39.205106  4233 net.cpp:124] Setting up pool0
I0503 23:53:39.205122  4233 net.cpp:131] Top shape: 111 24 17 17 (769896)
I0503 23:53:39.205127  4233 net.cpp:139] Memory required for data: 29080668
I0503 23:53:39.205132  4233 layer_factory.hpp:77] Creating layer ip1
I0503 23:53:39.205142  4233 net.cpp:86] Creating Layer ip1
I0503 23:53:39.205147  4233 net.cpp:408] ip1 <- pool0
I0503 23:53:39.205157  4233 net.cpp:382] ip1 -> ip1
I0503 23:53:39.207581  4233 net.cpp:124] Setting up ip1
I0503 23:53:39.207590  4233 net.cpp:131] Top shape: 111 10 (1110)
I0503 23:53:39.207593  4233 net.cpp:139] Memory required for data: 29085108
I0503 23:53:39.207603  4233 layer_factory.hpp:77] Creating layer relu1
I0503 23:53:39.207610  4233 net.cpp:86] Creating Layer relu1
I0503 23:53:39.207613  4233 net.cpp:408] relu1 <- ip1
I0503 23:53:39.207618  4233 net.cpp:369] relu1 -> ip1 (in-place)
I0503 23:53:39.207809  4233 net.cpp:124] Setting up relu1
I0503 23:53:39.207820  4233 net.cpp:131] Top shape: 111 10 (1110)
I0503 23:53:39.207823  4233 net.cpp:139] Memory required for data: 29089548
I0503 23:53:39.207828  4233 layer_factory.hpp:77] Creating layer ip2
I0503 23:53:39.207835  4233 net.cpp:86] Creating Layer ip2
I0503 23:53:39.207839  4233 net.cpp:408] ip2 <- ip1
I0503 23:53:39.207846  4233 net.cpp:382] ip2 -> ip2
I0503 23:53:39.207988  4233 net.cpp:124] Setting up ip2
I0503 23:53:39.207995  4233 net.cpp:131] Top shape: 111 60 (6660)
I0503 23:53:39.207998  4233 net.cpp:139] Memory required for data: 29116188
I0503 23:53:39.208008  4233 layer_factory.hpp:77] Creating layer relu2
I0503 23:53:39.208014  4233 net.cpp:86] Creating Layer relu2
I0503 23:53:39.208017  4233 net.cpp:408] relu2 <- ip2
I0503 23:53:39.208024  4233 net.cpp:369] relu2 -> ip2 (in-place)
I0503 23:53:39.208214  4233 net.cpp:124] Setting up relu2
I0503 23:53:39.208222  4233 net.cpp:131] Top shape: 111 60 (6660)
I0503 23:53:39.208226  4233 net.cpp:139] Memory required for data: 29142828
I0503 23:53:39.208230  4233 layer_factory.hpp:77] Creating layer ip3
I0503 23:53:39.208240  4233 net.cpp:86] Creating Layer ip3
I0503 23:53:39.208243  4233 net.cpp:408] ip3 <- ip2
I0503 23:53:39.208248  4233 net.cpp:382] ip3 -> ip3
I0503 23:53:39.208389  4233 net.cpp:124] Setting up ip3
I0503 23:53:39.208397  4233 net.cpp:131] Top shape: 111 10 (1110)
I0503 23:53:39.208400  4233 net.cpp:139] Memory required for data: 29147268
I0503 23:53:39.208407  4233 layer_factory.hpp:77] Creating layer loss
I0503 23:53:39.208413  4233 net.cpp:86] Creating Layer loss
I0503 23:53:39.208417  4233 net.cpp:408] loss <- ip3
I0503 23:53:39.208421  4233 net.cpp:408] loss <- label
I0503 23:53:39.208429  4233 net.cpp:382] loss -> loss
I0503 23:53:39.208449  4233 layer_factory.hpp:77] Creating layer loss
…
I0503 23:53:39.209199  4233 solver.cpp:173] Creating test net (#0) specified by net file: ECE595/cifar/train_test/var_everything_tiny/cifar_train_test_4.prototxt
I0503 23:53:39.209231  4233 net.cpp:296] The NetState phase (1) differed from the phase (0) specified by a rule in layer cifar
I0503 23:53:39.209336  4233 net.cpp:53] Initializing net from parameters: 
name: "CIFAR"
state {
  phase: TEST
}
layer {
  name: "cifar"
  type: "Data"
  top: "data"
  top: "label"
  include {
    phase: TEST
  }
  transform_param {
    mean_file: "examples/cifar10/mean.binaryproto"
  }
  data_param {
    source: "examples/cifar10/cifar10_test_lmdb"
    batch_size: 1000
    backend: LMDB
  }
}
layer {
  name: "conv0"
  type: "Convolution"
  bottom: "data"
  top: "conv0"
  param {
    lr_mult: 1
  }
  param {
    lr_mult: 2
  }
  convolution_param {
    num_output: 24
    pad: 2
    kernel_size: 3
    stride: 1
    weight_filler {
      type: "gaussian"
      std: 0.01
    }
    bias_filler {
      type: "constant"
    }
  }
}
layer {
  name: "Sigmoid0"
  type: "Sigmoid"
  bottom: "conv0"
  top: "Sigmoid0"
}
layer {
  name: "pool0"
  type: "Pooling"
  bottom: "Sigmoid0"
  top: "pool0"
  pooling_param {
    pool: AVE
    kernel_size: 3
    stride: 2
  }
}
layer {
  name: "ip1"
  type: "InnerProduct"
  bottom: "pool0"
  top: "ip1"
  param {
    lr_mult: 1
  }
  param {
    lr_mult: 2
  }
  inner_product_param {
    num_output: 10
    weight_filler {
      type: "gaussian"
      std: 0.01
    }
    bias_filler {
      type: "constant"
    }
  }
}
layer {
  name: "relu1"
  type: "ReLU"
  bottom: "ip1"
  top: "ip1"
}
layer {
  name: "ip2"
  type: "InnerProduct"
  bottom: "ip1"
  top: "ip2"
  param {
    lr_mult: 1
  }
  param {
    lr_mult: 2
  }
  inner_product_param {
    num_output: 60
    weight_filler {
      type: "gaussian"
      std: 0.01
    }
    bias_filler {
      type: "constant"
    }
  }
}
layer {
  name: "relu2"
  type: "ReLU"
  bottom: "ip2"
  top: "ip2"
}
layer {
  name: "ip3"
  type: "InnerProduct"
  bottom: "ip2"
  top: "ip3"
  param {
    lr_mult: 1
  }
  param {
    lr_mult: 2
  }
  inner_product_param {
    num_output: 10
    weight_filler {
      type: "gaussian"
      std: 0.01
    }
    bias_filler {
      type: "constant"
    }
  }
}
layer {
  name: "accuracy"
  type: "Accuracy"
  bottom: "ip3"
  bottom: "label"
  top: "accuracy"
  include {
    phase: TEST
  }
}
layer {
  name: "loss"
  type: "SoftmaxWithLoss"
  bottom: "ip3"
  bottom: "label"
  top: "loss"
}
I0503 23:53:39.209419  4233 layer_factory.hpp:77] Creating layer cifar
I0503 23:53:39.209477  4233 db_lmdb.cpp:35] Opened lmdb examples/cifar10/cifar10_test_lmdb
I0503 23:53:39.209492  4233 net.cpp:86] Creating Layer cifar
I0503 23:53:39.209499  4233 net.cpp:382] cifar -> data
I0503 23:53:39.209508  4233 net.cpp:382] cifar -> label
I0503 23:53:39.209517  4233 data_transformer.cpp:25] Loading mean file from: examples/cifar10/mean.binaryproto
I0503 23:53:39.209695  4233 data_layer.cpp:45] output data size: 1000,3,32,32
I0503 23:53:39.235702  4233 net.cpp:124] Setting up cifar
I0503 23:53:39.235736  4233 net.cpp:131] Top shape: 1000 3 32 32 (3072000)
I0503 23:53:39.235743  4233 net.cpp:131] Top shape: 1000 (1000)
I0503 23:53:39.235746  4233 net.cpp:139] Memory required for data: 12292000
I0503 23:53:39.235754  4233 layer_factory.hpp:77] Creating layer label_cifar_1_split
I0503 23:53:39.235774  4233 net.cpp:86] Creating Layer label_cifar_1_split
I0503 23:53:39.235798  4233 net.cpp:408] label_cifar_1_split <- label
I0503 23:53:39.235806  4233 net.cpp:382] label_cifar_1_split -> label_cifar_1_split_0
I0503 23:53:39.235816  4233 net.cpp:382] label_cifar_1_split -> label_cifar_1_split_1
I0503 23:53:39.235913  4233 net.cpp:124] Setting up label_cifar_1_split
I0503 23:53:39.235924  4233 net.cpp:131] Top shape: 1000 (1000)
I0503 23:53:39.235927  4233 net.cpp:131] Top shape: 1000 (1000)
I0503 23:53:39.235931  4233 net.cpp:139] Memory required for data: 12300000
I0503 23:53:39.235934  4233 layer_factory.hpp:77] Creating layer conv0
I0503 23:53:39.235949  4233 net.cpp:86] Creating Layer conv0
I0503 23:53:39.235954  4233 net.cpp:408] conv0 <- data
I0503 23:53:39.235961  4233 net.cpp:382] conv0 -> conv0
I0503 23:53:39.237778  4233 net.cpp:124] Setting up conv0
I0503 23:53:39.237797  4233 net.cpp:131] Top shape: 1000 24 34 34 (27744000)
I0503 23:53:39.237802  4233 net.cpp:139] Memory required for data: 123276000
I0503 23:53:39.237812  4233 layer_factory.hpp:77] Creating layer Sigmoid0
I0503 23:53:39.237823  4233 net.cpp:86] Creating Layer Sigmoid0
I0503 23:53:39.237828  4233 net.cpp:408] Sigmoid0 <- conv0
I0503 23:53:39.237833  4233 net.cpp:382] Sigmoid0 -> Sigmoid0
I0503 23:53:39.239784  4233 net.cpp:124] Setting up Sigmoid0
I0503 23:53:39.239800  4233 net.cpp:131] Top shape: 1000 24 34 34 (27744000)
I0503 23:53:39.239806  4233 net.cpp:139] Memory required for data: 234252000
I0503 23:53:39.239810  4233 layer_factory.hpp:77] Creating layer pool0
I0503 23:53:39.239820  4233 net.cpp:86] Creating Layer pool0
I0503 23:53:39.239826  4233 net.cpp:408] pool0 <- Sigmoid0
I0503 23:53:39.239835  4233 net.cpp:382] pool0 -> pool0
I0503 23:53:39.240072  4233 net.cpp:124] Setting up pool0
I0503 23:53:39.240082  4233 net.cpp:131] Top shape: 1000 24 17 17 (6936000)
I0503 23:53:39.240085  4233 net.cpp:139] Memory required for data: 261996000
I0503 23:53:39.240089  4233 layer_factory.hpp:77] Creating layer ip1
I0503 23:53:39.240099  4233 net.cpp:86] Creating Layer ip1
I0503 23:53:39.240103  4233 net.cpp:408] ip1 <- pool0
I0503 23:53:39.240110  4233 net.cpp:382] ip1 -> ip1
I0503 23:53:39.242547  4233 net.cpp:124] Setting up ip1
I0503 23:53:39.242558  4233 net.cpp:131] Top shape: 1000 10 (10000)
I0503 23:53:39.242561  4233 net.cpp:139] Memory required for data: 262036000
I0503 23:53:39.242571  4233 layer_factory.hpp:77] Creating layer relu1
I0503 23:53:39.242579  4233 net.cpp:86] Creating Layer relu1
I0503 23:53:39.242583  4233 net.cpp:408] relu1 <- ip1
I0503 23:53:39.242588  4233 net.cpp:369] relu1 -> ip1 (in-place)
I0503 23:53:39.242784  4233 net.cpp:124] Setting up relu1
I0503 23:53:39.242794  4233 net.cpp:131] Top shape: 1000 10 (10000)
I0503 23:53:39.242799  4233 net.cpp:139] Memory required for data: 262076000
I0503 23:53:39.242802  4233 layer_factory.hpp:77] Creating layer ip2
I0503 23:53:39.242810  4233 net.cpp:86] Creating Layer ip2
I0503 23:53:39.242813  4233 net.cpp:408] ip2 <- ip1
I0503 23:53:39.242822  4233 net.cpp:382] ip2 -> ip2
I0503 23:53:39.242979  4233 net.cpp:124] Setting up ip2
I0503 23:53:39.242987  4233 net.cpp:131] Top shape: 1000 60 (60000)
I0503 23:53:39.242991  4233 net.cpp:139] Memory required for data: 262316000
I0503 23:53:39.243000  4233 layer_factory.hpp:77] Creating layer relu2
I0503 23:53:39.243007  4233 net.cpp:86] Creating Layer relu2
I0503 23:53:39.243011  4233 net.cpp:408] relu2 <- ip2
I0503 23:53:39.243017  4233 net.cpp:369] relu2 -> ip2 (in-place)
I0503 23:53:39.243216  4233 net.cpp:124] Setting up relu2
I0503 23:53:39.243226  4233 net.cpp:131] Top shape: 1000 60 (60000)
I0503 23:53:39.243229  4233 net.cpp:139] Memory required for data: 262556000
I0503 23:53:39.243232  4233 layer_factory.hpp:77] Creating layer ip3
I0503 23:53:39.243242  4233 net.cpp:86] Creating Layer ip3
I0503 23:53:39.243245  4233 net.cpp:408] ip3 <- ip2
I0503 23:53:39.243252  4233 net.cpp:382] ip3 -> ip3
I0503 23:53:39.243393  4233 net.cpp:124] Setting up ip3
I0503 23:53:39.243402  4233 net.cpp:131] Top shape: 1000 10 (10000)
I0503 23:53:39.243422  4233 net.cpp:139] Memory required for data: 262596000
I0503 23:53:39.243430  4233 layer_factory.hpp:77] Creating layer ip3_ip3_0_split
I0503 23:53:39.243436  4233 net.cpp:86] Creating Layer ip3_ip3_0_split
I0503 23:53:39.243439  4233 net.cpp:408] ip3_ip3_0_split <- ip3
I0503 23:53:39.243446  4233 net.cpp:382] ip3_ip3_0_split -> ip3_ip3_0_split_0
I0503 23:53:39.243453  4233 net.cpp:382] ip3_ip3_0_split -> ip3_ip3_0_split_1
I0503 23:53:39.243491  4233 net.cpp:124] Setting up ip3_ip3_0_split
I0503 23:53:39.243497  4233 net.cpp:131] Top shape: 1000 10 (10000)
I0503 23:53:39.243501  4233 net.cpp:131] Top shape: 1000 10 (10000)
I0503 23:53:39.243505  4233 net.cpp:139] Memory required for data: 262676000
I0503 23:53:39.243508  4233 layer_factory.hpp:77] Creating layer accuracy
I0503 23:53:39.243516  4233 net.cpp:86] Creating Layer accuracy
I0503 23:53:39.243520  4233 net.cpp:408] accuracy <- ip3_ip3_0_split_0
I0503 23:53:39.243525  4233 net.cpp:408] accuracy <- label_cifar_1_split_0
I0503 23:53:39.243530  4233 net.cpp:382] accuracy -> accuracy
…
