…
I0504 11:04:51.050344 26448 net.cpp:296] The NetState phase (0) differed from the phase (1) specified by a rule in layer cifar
I0504 11:04:51.050364 26448 net.cpp:296] The NetState phase (0) differed from the phase (1) specified by a rule in layer accuracy
I0504 11:04:51.050475 26448 net.cpp:53] Initializing net from parameters: 
name: "CIFAR"
state {
  phase: TRAIN
  level: 0
  stage: ""
}
layer {
  name: "cifar"
  type: "Data"
  top: "data"
  top: "label"
  include {
    phase: TRAIN
  }
  transform_param {
    mean_file: "examples/cifar10/mean.binaryproto"
  }
  data_param {
    source: "examples/cifar10/cifar10_train_lmdb"
    batch_size: 111
    backend: LMDB
  }
}
layer {
  name: "conv0"
  type: "Convolution"
  bottom: "data"
  top: "conv0"
  param {
    lr_mult: 1
  }
  param {
    lr_mult: 2
  }
  convolution_param {
    num_output: 24
    pad: 2
    kernel_size: 5
    stride: 1
    weight_filler {
      type: "gaussian"
      std: 0.01
    }
    bias_filler {
      type: "constant"
    }
  }
}
layer {
  name: "Sigmoid0"
  type: "Sigmoid"
  bottom: "conv0"
  top: "Sigmoid0"
}
layer {
  name: "pool0"
  type: "Pooling"
  bottom: "Sigmoid0"
  top: "pool0"
  pooling_param {
    pool: AVE
    kernel_size: 3
    stride: 2
  }
}
layer {
  name: "conv1"
  type: "Convolution"
  bottom: "pool0"
  top: "conv1"
  param {
    lr_mult: 1
  }
  param {
    lr_mult: 2
  }
  convolution_param {
    num_output: 72
    pad: 2
    kernel_size: 5
    stride: 1
    weight_filler {
      type: "gaussian"
      std: 0.01
    }
    bias_filler {
      type: "constant"
    }
  }
}
layer {
  name: "Sigmoid1"
  type: "Sigmoid"
  bottom: "conv1"
  top: "Sigmoid1"
}
layer {
  name: "pool1"
  type: "Pooling"
  bottom: "Sigmoid1"
  top: "pool1"
  pooling_param {
    pool: AVE
    kernel_size: 3
    stride: 2
  }
}
layer {
  name: "ip1"
  type: "InnerProduct"
  bottom: "pool1"
  top: "ip1"
  param {
    lr_mult: 1
  }
  param {
    lr_mult: 2
  }
  inner_product_param {
    num_output: 180
    weight_filler {
      type: "gaussian"
      std: 0.01
    }
    bias_filler {
      type: "constant"
    }
  }
}
layer {
  name: "relu1"
  type: "ReLU"
  bottom: "ip1"
  top: "ip1"
}
layer {
  name: "ip2"
  type: "InnerProduct"
  bottom: "ip1"
  top: "ip2"
  param {
    lr_mult: 1
  }
  param {
    lr_mult: 2
  }
  inner_product_param {
    num_output: 180
    weight_filler {
      type: "gaussian"
      std: 0.01
    }
    bias_filler {
      type: "constant"
    }
  }
}
layer {
  name: "relu2"
  type: "ReLU"
  bottom: "ip2"
  top: "ip2"
}
layer {
  name: "ip3"
  type: "InnerProduct"
  bottom: "ip2"
  top: "ip3"
  param {
    lr_mult: 1
  }
  param {
    lr_mult: 2
  }
  inner_product_param {
    num_output: 10
    weight_filler {
      type: "gaussian"
      std: 0.01
    }
    bias_filler {
      type: "constant"
    }
  }
}
layer {
  name: "loss"
  type: "SoftmaxWithLoss"
  bottom: "ip3"
  bottom: "label"
  top: "loss"
}
I0504 11:04:51.050561 26448 layer_factory.hpp:77] Creating layer cifar
I0504 11:04:51.050662 26448 db_lmdb.cpp:35] Opened lmdb examples/cifar10/cifar10_train_lmdb
I0504 11:04:51.050689 26448 net.cpp:86] Creating Layer cifar
I0504 11:04:51.050698 26448 net.cpp:382] cifar -> data
I0504 11:04:51.050721 26448 net.cpp:382] cifar -> label
I0504 11:04:51.050734 26448 data_transformer.cpp:25] Loading mean file from: examples/cifar10/mean.binaryproto
I0504 11:04:51.052909 26448 data_layer.cpp:45] output data size: 111,3,32,32
I0504 11:04:51.060896 26448 net.cpp:124] Setting up cifar
I0504 11:04:51.060916 26448 net.cpp:131] Top shape: 111 3 32 32 (340992)
I0504 11:04:51.060925 26448 net.cpp:131] Top shape: 111 (111)
I0504 11:04:51.060927 26448 net.cpp:139] Memory required for data: 1364412
I0504 11:04:51.060935 26448 layer_factory.hpp:77] Creating layer conv0
I0504 11:04:51.060953 26448 net.cpp:86] Creating Layer conv0
I0504 11:04:51.060961 26448 net.cpp:408] conv0 <- data
I0504 11:04:51.060972 26448 net.cpp:382] conv0 -> conv0
I0504 11:04:51.341315 26448 net.cpp:124] Setting up conv0
I0504 11:04:51.341341 26448 net.cpp:131] Top shape: 111 24 32 32 (2727936)
I0504 11:04:51.341346 26448 net.cpp:139] Memory required for data: 12276156
I0504 11:04:51.341361 26448 layer_factory.hpp:77] Creating layer Sigmoid0
I0504 11:04:51.341372 26448 net.cpp:86] Creating Layer Sigmoid0
I0504 11:04:51.341375 26448 net.cpp:408] Sigmoid0 <- conv0
I0504 11:04:51.341380 26448 net.cpp:382] Sigmoid0 -> Sigmoid0
I0504 11:04:51.341581 26448 net.cpp:124] Setting up Sigmoid0
I0504 11:04:51.341591 26448 net.cpp:131] Top shape: 111 24 32 32 (2727936)
I0504 11:04:51.341594 26448 net.cpp:139] Memory required for data: 23187900
I0504 11:04:51.341598 26448 layer_factory.hpp:77] Creating layer pool0
I0504 11:04:51.341604 26448 net.cpp:86] Creating Layer pool0
I0504 11:04:51.341608 26448 net.cpp:408] pool0 <- Sigmoid0
I0504 11:04:51.341612 26448 net.cpp:382] pool0 -> pool0
I0504 11:04:51.342303 26448 net.cpp:124] Setting up pool0
I0504 11:04:51.342314 26448 net.cpp:131] Top shape: 111 24 16 16 (681984)
I0504 11:04:51.342317 26448 net.cpp:139] Memory required for data: 25915836
I0504 11:04:51.342321 26448 layer_factory.hpp:77] Creating layer conv1
I0504 11:04:51.342332 26448 net.cpp:86] Creating Layer conv1
I0504 11:04:51.342336 26448 net.cpp:408] conv1 <- pool0
I0504 11:04:51.342341 26448 net.cpp:382] conv1 -> conv1
I0504 11:04:51.345911 26448 net.cpp:124] Setting up conv1
I0504 11:04:51.345924 26448 net.cpp:131] Top shape: 111 72 16 16 (2045952)
I0504 11:04:51.345928 26448 net.cpp:139] Memory required for data: 34099644
I0504 11:04:51.345937 26448 layer_factory.hpp:77] Creating layer Sigmoid1
I0504 11:04:51.345942 26448 net.cpp:86] Creating Layer Sigmoid1
I0504 11:04:51.345945 26448 net.cpp:408] Sigmoid1 <- conv1
I0504 11:04:51.345950 26448 net.cpp:382] Sigmoid1 -> Sigmoid1
I0504 11:04:51.346107 26448 net.cpp:124] Setting up Sigmoid1
I0504 11:04:51.346117 26448 net.cpp:131] Top shape: 111 72 16 16 (2045952)
I0504 11:04:51.346119 26448 net.cpp:139] Memory required for data: 42283452
I0504 11:04:51.346122 26448 layer_factory.hpp:77] Creating layer pool1
I0504 11:04:51.346128 26448 net.cpp:86] Creating Layer pool1
I0504 11:04:51.346132 26448 net.cpp:408] pool1 <- Sigmoid1
I0504 11:04:51.346137 26448 net.cpp:382] pool1 -> pool1
I0504 11:04:51.346284 26448 net.cpp:124] Setting up pool1
I0504 11:04:51.346293 26448 net.cpp:131] Top shape: 111 72 8 8 (511488)
I0504 11:04:51.346297 26448 net.cpp:139] Memory required for data: 44329404
I0504 11:04:51.346298 26448 layer_factory.hpp:77] Creating layer ip1
I0504 11:04:51.346305 26448 net.cpp:86] Creating Layer ip1
I0504 11:04:51.346309 26448 net.cpp:408] ip1 <- pool1
I0504 11:04:51.346313 26448 net.cpp:382] ip1 -> ip1
I0504 11:04:51.367660 26448 net.cpp:124] Setting up ip1
I0504 11:04:51.367672 26448 net.cpp:131] Top shape: 111 180 (19980)
I0504 11:04:51.367691 26448 net.cpp:139] Memory required for data: 44409324
I0504 11:04:51.367698 26448 layer_factory.hpp:77] Creating layer relu1
I0504 11:04:51.367705 26448 net.cpp:86] Creating Layer relu1
I0504 11:04:51.367708 26448 net.cpp:408] relu1 <- ip1
I0504 11:04:51.367713 26448 net.cpp:369] relu1 -> ip1 (in-place)
I0504 11:04:51.367897 26448 net.cpp:124] Setting up relu1
I0504 11:04:51.367904 26448 net.cpp:131] Top shape: 111 180 (19980)
I0504 11:04:51.367908 26448 net.cpp:139] Memory required for data: 44489244
I0504 11:04:51.367910 26448 layer_factory.hpp:77] Creating layer ip2
I0504 11:04:51.367918 26448 net.cpp:86] Creating Layer ip2
I0504 11:04:51.367920 26448 net.cpp:408] ip2 <- ip1
I0504 11:04:51.367939 26448 net.cpp:382] ip2 -> ip2
I0504 11:04:51.368835 26448 net.cpp:124] Setting up ip2
I0504 11:04:51.368842 26448 net.cpp:131] Top shape: 111 180 (19980)
I0504 11:04:51.368845 26448 net.cpp:139] Memory required for data: 44569164
I0504 11:04:51.368850 26448 layer_factory.hpp:77] Creating layer relu2
I0504 11:04:51.368854 26448 net.cpp:86] Creating Layer relu2
I0504 11:04:51.368857 26448 net.cpp:408] relu2 <- ip2
I0504 11:04:51.368861 26448 net.cpp:369] relu2 -> ip2 (in-place)
I0504 11:04:51.369597 26448 net.cpp:124] Setting up relu2
I0504 11:04:51.369608 26448 net.cpp:131] Top shape: 111 180 (19980)
I0504 11:04:51.369627 26448 net.cpp:139] Memory required for data: 44649084
I0504 11:04:51.369632 26448 layer_factory.hpp:77] Creating layer ip3
I0504 11:04:51.369638 26448 net.cpp:86] Creating Layer ip3
I0504 11:04:51.369642 26448 net.cpp:408] ip3 <- ip2
I0504 11:04:51.369647 26448 net.cpp:382] ip3 -> ip3
I0504 11:04:51.369807 26448 net.cpp:124] Setting up ip3
I0504 11:04:51.369813 26448 net.cpp:131] Top shape: 111 10 (1110)
I0504 11:04:51.369817 26448 net.cpp:139] Memory required for data: 44653524
I0504 11:04:51.369824 26448 layer_factory.hpp:77] Creating layer loss
I0504 11:04:51.369829 26448 net.cpp:86] Creating Layer loss
I0504 11:04:51.369833 26448 net.cpp:408] loss <- ip3
I0504 11:04:51.369837 26448 net.cpp:408] loss <- label
I0504 11:04:51.369843 26448 net.cpp:382] loss -> loss
I0504 11:04:51.369855 26448 layer_factory.hpp:77] Creating layer loss
…
I0504 11:04:51.370549 26448 solver.cpp:173] Creating test net (#0) specified by net file: ECE595/cifar/train_test/var_everything_tiny/cifar_train_test_143.prototxt
I0504 11:04:51.370576 26448 net.cpp:296] The NetState phase (1) differed from the phase (0) specified by a rule in layer cifar
I0504 11:04:51.370671 26448 net.cpp:53] Initializing net from parameters: 
name: "CIFAR"
state {
  phase: TEST
}
layer {
  name: "cifar"
  type: "Data"
  top: "data"
  top: "label"
  include {
    phase: TEST
  }
  transform_param {
    mean_file: "examples/cifar10/mean.binaryproto"
  }
  data_param {
    source: "examples/cifar10/cifar10_test_lmdb"
    batch_size: 1000
    backend: LMDB
  }
}
layer {
  name: "conv0"
  type: "Convolution"
  bottom: "data"
  top: "conv0"
  param {
    lr_mult: 1
  }
  param {
    lr_mult: 2
  }
  convolution_param {
    num_output: 24
    pad: 2
    kernel_size: 5
    stride: 1
    weight_filler {
      type: "gaussian"
      std: 0.01
    }
    bias_filler {
      type: "constant"
    }
  }
}
layer {
  name: "Sigmoid0"
  type: "Sigmoid"
  bottom: "conv0"
  top: "Sigmoid0"
}
layer {
  name: "pool0"
  type: "Pooling"
  bottom: "Sigmoid0"
  top: "pool0"
  pooling_param {
    pool: AVE
    kernel_size: 3
    stride: 2
  }
}
layer {
  name: "conv1"
  type: "Convolution"
  bottom: "pool0"
  top: "conv1"
  param {
    lr_mult: 1
  }
  param {
    lr_mult: 2
  }
  convolution_param {
    num_output: 72
    pad: 2
    kernel_size: 5
    stride: 1
    weight_filler {
      type: "gaussian"
      std: 0.01
    }
    bias_filler {
      type: "constant"
    }
  }
}
layer {
  name: "Sigmoid1"
  type: "Sigmoid"
  bottom: "conv1"
  top: "Sigmoid1"
}
layer {
  name: "pool1"
  type: "Pooling"
  bottom: "Sigmoid1"
  top: "pool1"
  pooling_param {
    pool: AVE
    kernel_size: 3
    stride: 2
  }
}
layer {
  name: "ip1"
  type: "InnerProduct"
  bottom: "pool1"
  top: "ip1"
  param {
    lr_mult: 1
  }
  param {
    lr_mult: 2
  }
  inner_product_param {
    num_output: 180
    weight_filler {
      type: "gaussian"
      std: 0.01
    }
    bias_filler {
      type: "constant"
    }
  }
}
layer {
  name: "relu1"
  type: "ReLU"
  bottom: "ip1"
  top: "ip1"
}
layer {
  name: "ip2"
  type: "InnerProduct"
  bottom: "ip1"
  top: "ip2"
  param {
    lr_mult: 1
  }
  param {
    lr_mult: 2
  }
  inner_product_param {
    num_output: 180
    weight_filler {
      type: "gaussian"
      std: 0.01
    }
    bias_filler {
      type: "constant"
    }
  }
}
layer {
  name: "relu2"
  type: "ReLU"
  bottom: "ip2"
  top: "ip2"
}
layer {
  name: "ip3"
  type: "InnerProduct"
  bottom: "ip2"
  top: "ip3"
  param {
    lr_mult: 1
  }
  param {
    lr_mult: 2
  }
  inner_product_param {
    num_output: 10
    weight_filler {
      type: "gaussian"
      std: 0.01
    }
    bias_filler {
      type: "constant"
    }
  }
}
layer {
  name: "accuracy"
  type: "Accuracy"
  bottom: "ip3"
  bottom: "label"
  top: "accuracy"
  include {
    phase: TEST
  }
}
layer {
  name: "loss"
  type: "SoftmaxWithLoss"
  bottom: "ip3"
  bottom: "label"
  top: "loss"
}
I0504 11:04:51.370781 26448 layer_factory.hpp:77] Creating layer cifar
I0504 11:04:51.370826 26448 db_lmdb.cpp:35] Opened lmdb examples/cifar10/cifar10_test_lmdb
I0504 11:04:51.370839 26448 net.cpp:86] Creating Layer cifar
I0504 11:04:51.370846 26448 net.cpp:382] cifar -> data
I0504 11:04:51.370869 26448 net.cpp:382] cifar -> label
I0504 11:04:51.370877 26448 data_transformer.cpp:25] Loading mean file from: examples/cifar10/mean.binaryproto
I0504 11:04:51.371029 26448 data_layer.cpp:45] output data size: 1000,3,32,32
I0504 11:04:51.392333 26448 net.cpp:124] Setting up cifar
I0504 11:04:51.392357 26448 net.cpp:131] Top shape: 1000 3 32 32 (3072000)
I0504 11:04:51.392364 26448 net.cpp:131] Top shape: 1000 (1000)
I0504 11:04:51.392367 26448 net.cpp:139] Memory required for data: 12292000
I0504 11:04:51.392372 26448 layer_factory.hpp:77] Creating layer label_cifar_1_split
I0504 11:04:51.392385 26448 net.cpp:86] Creating Layer label_cifar_1_split
I0504 11:04:51.392388 26448 net.cpp:408] label_cifar_1_split <- label
I0504 11:04:51.392393 26448 net.cpp:382] label_cifar_1_split -> label_cifar_1_split_0
I0504 11:04:51.392401 26448 net.cpp:382] label_cifar_1_split -> label_cifar_1_split_1
I0504 11:04:51.392467 26448 net.cpp:124] Setting up label_cifar_1_split
I0504 11:04:51.392473 26448 net.cpp:131] Top shape: 1000 (1000)
I0504 11:04:51.392477 26448 net.cpp:131] Top shape: 1000 (1000)
I0504 11:04:51.392495 26448 net.cpp:139] Memory required for data: 12300000
I0504 11:04:51.392498 26448 layer_factory.hpp:77] Creating layer conv0
I0504 11:04:51.392510 26448 net.cpp:86] Creating Layer conv0
I0504 11:04:51.392516 26448 net.cpp:408] conv0 <- data
I0504 11:04:51.392536 26448 net.cpp:382] conv0 -> conv0
I0504 11:04:51.394292 26448 net.cpp:124] Setting up conv0
I0504 11:04:51.394321 26448 net.cpp:131] Top shape: 1000 24 32 32 (24576000)
I0504 11:04:51.394325 26448 net.cpp:139] Memory required for data: 110604000
I0504 11:04:51.394335 26448 layer_factory.hpp:77] Creating layer Sigmoid0
I0504 11:04:51.394342 26448 net.cpp:86] Creating Layer Sigmoid0
I0504 11:04:51.394345 26448 net.cpp:408] Sigmoid0 <- conv0
I0504 11:04:51.394349 26448 net.cpp:382] Sigmoid0 -> Sigmoid0
I0504 11:04:51.394528 26448 net.cpp:124] Setting up Sigmoid0
I0504 11:04:51.394548 26448 net.cpp:131] Top shape: 1000 24 32 32 (24576000)
I0504 11:04:51.394552 26448 net.cpp:139] Memory required for data: 208908000
I0504 11:04:51.394556 26448 layer_factory.hpp:77] Creating layer pool0
I0504 11:04:51.394563 26448 net.cpp:86] Creating Layer pool0
I0504 11:04:51.394567 26448 net.cpp:408] pool0 <- Sigmoid0
I0504 11:04:51.394572 26448 net.cpp:382] pool0 -> pool0
I0504 11:04:51.394845 26448 net.cpp:124] Setting up pool0
I0504 11:04:51.394855 26448 net.cpp:131] Top shape: 1000 24 16 16 (6144000)
I0504 11:04:51.394858 26448 net.cpp:139] Memory required for data: 233484000
I0504 11:04:51.394861 26448 layer_factory.hpp:77] Creating layer conv1
I0504 11:04:51.394872 26448 net.cpp:86] Creating Layer conv1
I0504 11:04:51.394876 26448 net.cpp:408] conv1 <- pool0
I0504 11:04:51.394881 26448 net.cpp:382] conv1 -> conv1
I0504 11:04:51.398269 26448 net.cpp:124] Setting up conv1
I0504 11:04:51.398298 26448 net.cpp:131] Top shape: 1000 72 16 16 (18432000)
I0504 11:04:51.398303 26448 net.cpp:139] Memory required for data: 307212000
I0504 11:04:51.398313 26448 layer_factory.hpp:77] Creating layer Sigmoid1
I0504 11:04:51.398319 26448 net.cpp:86] Creating Layer Sigmoid1
I0504 11:04:51.398322 26448 net.cpp:408] Sigmoid1 <- conv1
I0504 11:04:51.398327 26448 net.cpp:382] Sigmoid1 -> Sigmoid1
I0504 11:04:51.398506 26448 net.cpp:124] Setting up Sigmoid1
I0504 11:04:51.398515 26448 net.cpp:131] Top shape: 1000 72 16 16 (18432000)
I0504 11:04:51.398519 26448 net.cpp:139] Memory required for data: 380940000
I0504 11:04:51.398522 26448 layer_factory.hpp:77] Creating layer pool1
I0504 11:04:51.398528 26448 net.cpp:86] Creating Layer pool1
I0504 11:04:51.398532 26448 net.cpp:408] pool1 <- Sigmoid1
I0504 11:04:51.398537 26448 net.cpp:382] pool1 -> pool1
I0504 11:04:51.399296 26448 net.cpp:124] Setting up pool1
I0504 11:04:51.399324 26448 net.cpp:131] Top shape: 1000 72 8 8 (4608000)
I0504 11:04:51.399327 26448 net.cpp:139] Memory required for data: 399372000
I0504 11:04:51.399330 26448 layer_factory.hpp:77] Creating layer ip1
I0504 11:04:51.399355 26448 net.cpp:86] Creating Layer ip1
I0504 11:04:51.399359 26448 net.cpp:408] ip1 <- pool1
I0504 11:04:51.399364 26448 net.cpp:382] ip1 -> ip1
I0504 11:04:51.421887 26448 net.cpp:124] Setting up ip1
I0504 11:04:51.421917 26448 net.cpp:131] Top shape: 1000 180 (180000)
I0504 11:04:51.421921 26448 net.cpp:139] Memory required for data: 400092000
I0504 11:04:51.421929 26448 layer_factory.hpp:77] Creating layer relu1
I0504 11:04:51.421937 26448 net.cpp:86] Creating Layer relu1
I0504 11:04:51.421941 26448 net.cpp:408] relu1 <- ip1
I0504 11:04:51.421946 26448 net.cpp:369] relu1 -> ip1 (in-place)
I0504 11:04:51.422155 26448 net.cpp:124] Setting up relu1
I0504 11:04:51.422165 26448 net.cpp:131] Top shape: 1000 180 (180000)
I0504 11:04:51.422168 26448 net.cpp:139] Memory required for data: 400812000
I0504 11:04:51.422171 26448 layer_factory.hpp:77] Creating layer ip2
I0504 11:04:51.422180 26448 net.cpp:86] Creating Layer ip2
I0504 11:04:51.422183 26448 net.cpp:408] ip2 <- ip1
I0504 11:04:51.422189 26448 net.cpp:382] ip2 -> ip2
I0504 11:04:51.423167 26448 net.cpp:124] Setting up ip2
I0504 11:04:51.423174 26448 net.cpp:131] Top shape: 1000 180 (180000)
I0504 11:04:51.423177 26448 net.cpp:139] Memory required for data: 401532000
I0504 11:04:51.423198 26448 layer_factory.hpp:77] Creating layer relu2
I0504 11:04:51.423203 26448 net.cpp:86] Creating Layer relu2
I0504 11:04:51.423205 26448 net.cpp:408] relu2 <- ip2
I0504 11:04:51.423209 26448 net.cpp:369] relu2 -> ip2 (in-place)
I0504 11:04:51.424394 26448 net.cpp:124] Setting up relu2
I0504 11:04:51.424403 26448 net.cpp:131] Top shape: 1000 180 (180000)
I0504 11:04:51.424422 26448 net.cpp:139] Memory required for data: 402252000
I0504 11:04:51.424425 26448 layer_factory.hpp:77] Creating layer ip3
I0504 11:04:51.424432 26448 net.cpp:86] Creating Layer ip3
I0504 11:04:51.424434 26448 net.cpp:408] ip3 <- ip2
I0504 11:04:51.424441 26448 net.cpp:382] ip3 -> ip3
I0504 11:04:51.424625 26448 net.cpp:124] Setting up ip3
I0504 11:04:51.424643 26448 net.cpp:131] Top shape: 1000 10 (10000)
I0504 11:04:51.424646 26448 net.cpp:139] Memory required for data: 402292000
I0504 11:04:51.424654 26448 layer_factory.hpp:77] Creating layer ip3_ip3_0_split
I0504 11:04:51.424664 26448 net.cpp:86] Creating Layer ip3_ip3_0_split
I0504 11:04:51.424682 26448 net.cpp:408] ip3_ip3_0_split <- ip3
I0504 11:04:51.424687 26448 net.cpp:382] ip3_ip3_0_split -> ip3_ip3_0_split_0
I0504 11:04:51.424698 26448 net.cpp:382] ip3_ip3_0_split -> ip3_ip3_0_split_1
I0504 11:04:51.424731 26448 net.cpp:124] Setting up ip3_ip3_0_split
I0504 11:04:51.424739 26448 net.cpp:131] Top shape: 1000 10 (10000)
I0504 11:04:51.424743 26448 net.cpp:131] Top shape: 1000 10 (10000)
I0504 11:04:51.424746 26448 net.cpp:139] Memory required for data: 402372000
I0504 11:04:51.424751 26448 layer_factory.hpp:77] Creating layer accuracy
I0504 11:04:51.424756 26448 net.cpp:86] Creating Layer accuracy
I0504 11:04:51.424758 26448 net.cpp:408] accuracy <- ip3_ip3_0_split_0
I0504 11:04:51.424762 26448 net.cpp:408] accuracy <- label_cifar_1_split_0
I0504 11:04:51.424767 26448 net.cpp:382] accuracy -> accuracy
…
