…
I0504 03:05:41.395848 10242 net.cpp:296] The NetState phase (0) differed from the phase (1) specified by a rule in layer cifar
I0504 03:05:41.395869 10242 net.cpp:296] The NetState phase (0) differed from the phase (1) specified by a rule in layer accuracy
I0504 03:05:41.395972 10242 net.cpp:53] Initializing net from parameters: 
name: "CIFAR"
state {
  phase: TRAIN
  level: 0
  stage: ""
}
layer {
  name: "cifar"
  type: "Data"
  top: "data"
  top: "label"
  include {
    phase: TRAIN
  }
  transform_param {
    mean_file: "examples/cifar10/mean.binaryproto"
  }
  data_param {
    source: "examples/cifar10/cifar10_train_lmdb"
    batch_size: 111
    backend: LMDB
  }
}
layer {
  name: "conv0"
  type: "Convolution"
  bottom: "data"
  top: "conv0"
  param {
    lr_mult: 1
  }
  param {
    lr_mult: 2
  }
  convolution_param {
    num_output: 216
    pad: 2
    kernel_size: 3
    stride: 1
    weight_filler {
      type: "gaussian"
      std: 0.01
    }
    bias_filler {
      type: "constant"
    }
  }
}
layer {
  name: "Sigmoid0"
  type: "Sigmoid"
  bottom: "conv0"
  top: "Sigmoid0"
}
layer {
  name: "pool0"
  type: "Pooling"
  bottom: "Sigmoid0"
  top: "pool0"
  pooling_param {
    pool: AVE
    kernel_size: 3
    stride: 2
  }
}
layer {
  name: "ip1"
  type: "InnerProduct"
  bottom: "pool0"
  top: "ip1"
  param {
    lr_mult: 1
  }
  param {
    lr_mult: 2
  }
  inner_product_param {
    num_output: 10
    weight_filler {
      type: "gaussian"
      std: 0.01
    }
    bias_filler {
      type: "constant"
    }
  }
}
layer {
  name: "relu1"
  type: "ReLU"
  bottom: "ip1"
  top: "ip1"
}
layer {
  name: "ip2"
  type: "InnerProduct"
  bottom: "ip1"
  top: "ip2"
  param {
    lr_mult: 1
  }
  param {
    lr_mult: 2
  }
  inner_product_param {
    num_output: 10
    weight_filler {
      type: "gaussian"
      std: 0.01
    }
    bias_filler {
      type: "constant"
    }
  }
}
layer {
  name: "relu2"
  type: "ReLU"
  bottom: "ip2"
  top: "ip2"
}
layer {
  name: "ip3"
  type: "InnerProduct"
  bottom: "ip2"
  top: "ip3"
  param {
    lr_mult: 1
  }
  param {
    lr_mult: 2
  }
  inner_product_param {
    num_output: 10
    weight_filler {
      type: "gaussian"
      std: 0.01
    }
    bias_filler {
      type: "constant"
    }
  }
}
layer {
  name: "loss"
  type: "SoftmaxWithLoss"
  bottom: "ip3"
  bottom: "label"
  top: "loss"
}
I0504 03:05:41.396077 10242 layer_factory.hpp:77] Creating layer cifar
I0504 03:05:41.396209 10242 db_lmdb.cpp:35] Opened lmdb examples/cifar10/cifar10_train_lmdb
I0504 03:05:41.396245 10242 net.cpp:86] Creating Layer cifar
I0504 03:05:41.396258 10242 net.cpp:382] cifar -> data
I0504 03:05:41.396289 10242 net.cpp:382] cifar -> label
I0504 03:05:41.396306 10242 data_transformer.cpp:25] Loading mean file from: examples/cifar10/mean.binaryproto
I0504 03:05:41.398609 10242 data_layer.cpp:45] output data size: 111,3,32,32
I0504 03:05:41.406519 10242 net.cpp:124] Setting up cifar
I0504 03:05:41.406543 10242 net.cpp:131] Top shape: 111 3 32 32 (340992)
I0504 03:05:41.406553 10242 net.cpp:131] Top shape: 111 (111)
I0504 03:05:41.406560 10242 net.cpp:139] Memory required for data: 1364412
I0504 03:05:41.406571 10242 layer_factory.hpp:77] Creating layer conv0
I0504 03:05:41.406597 10242 net.cpp:86] Creating Layer conv0
I0504 03:05:41.406610 10242 net.cpp:408] conv0 <- data
I0504 03:05:41.406628 10242 net.cpp:382] conv0 -> conv0
I0504 03:05:41.690253 10242 net.cpp:124] Setting up conv0
I0504 03:05:41.690301 10242 net.cpp:131] Top shape: 111 216 34 34 (27716256)
I0504 03:05:41.690307 10242 net.cpp:139] Memory required for data: 112229436
I0504 03:05:41.690327 10242 layer_factory.hpp:77] Creating layer Sigmoid0
I0504 03:05:41.690343 10242 net.cpp:86] Creating Layer Sigmoid0
I0504 03:05:41.690356 10242 net.cpp:408] Sigmoid0 <- conv0
I0504 03:05:41.690366 10242 net.cpp:382] Sigmoid0 -> Sigmoid0
I0504 03:05:41.690552 10242 net.cpp:124] Setting up Sigmoid0
I0504 03:05:41.690564 10242 net.cpp:131] Top shape: 111 216 34 34 (27716256)
I0504 03:05:41.690569 10242 net.cpp:139] Memory required for data: 223094460
I0504 03:05:41.690574 10242 layer_factory.hpp:77] Creating layer pool0
I0504 03:05:41.690584 10242 net.cpp:86] Creating Layer pool0
I0504 03:05:41.690589 10242 net.cpp:408] pool0 <- Sigmoid0
I0504 03:05:41.690598 10242 net.cpp:382] pool0 -> pool0
I0504 03:05:41.691323 10242 net.cpp:124] Setting up pool0
I0504 03:05:41.691337 10242 net.cpp:131] Top shape: 111 216 17 17 (6929064)
I0504 03:05:41.691344 10242 net.cpp:139] Memory required for data: 250810716
I0504 03:05:41.691349 10242 layer_factory.hpp:77] Creating layer ip1
I0504 03:05:41.691362 10242 net.cpp:86] Creating Layer ip1
I0504 03:05:41.691368 10242 net.cpp:408] ip1 <- pool0
I0504 03:05:41.691376 10242 net.cpp:382] ip1 -> ip1
I0504 03:05:41.708200 10242 net.cpp:124] Setting up ip1
I0504 03:05:41.708214 10242 net.cpp:131] Top shape: 111 10 (1110)
I0504 03:05:41.708220 10242 net.cpp:139] Memory required for data: 250815156
I0504 03:05:41.708230 10242 layer_factory.hpp:77] Creating layer relu1
I0504 03:05:41.708240 10242 net.cpp:86] Creating Layer relu1
I0504 03:05:41.708245 10242 net.cpp:408] relu1 <- ip1
I0504 03:05:41.708252 10242 net.cpp:369] relu1 -> ip1 (in-place)
I0504 03:05:41.708405 10242 net.cpp:124] Setting up relu1
I0504 03:05:41.708415 10242 net.cpp:131] Top shape: 111 10 (1110)
I0504 03:05:41.708420 10242 net.cpp:139] Memory required for data: 250819596
I0504 03:05:41.708425 10242 layer_factory.hpp:77] Creating layer ip2
I0504 03:05:41.708434 10242 net.cpp:86] Creating Layer ip2
I0504 03:05:41.708439 10242 net.cpp:408] ip2 <- ip1
I0504 03:05:41.708447 10242 net.cpp:382] ip2 -> ip2
I0504 03:05:41.708542 10242 net.cpp:124] Setting up ip2
I0504 03:05:41.708551 10242 net.cpp:131] Top shape: 111 10 (1110)
I0504 03:05:41.708555 10242 net.cpp:139] Memory required for data: 250824036
I0504 03:05:41.708566 10242 layer_factory.hpp:77] Creating layer relu2
I0504 03:05:41.708575 10242 net.cpp:86] Creating Layer relu2
I0504 03:05:41.708580 10242 net.cpp:408] relu2 <- ip2
I0504 03:05:41.708585 10242 net.cpp:369] relu2 -> ip2 (in-place)
I0504 03:05:41.708737 10242 net.cpp:124] Setting up relu2
I0504 03:05:41.708746 10242 net.cpp:131] Top shape: 111 10 (1110)
I0504 03:05:41.708751 10242 net.cpp:139] Memory required for data: 250828476
I0504 03:05:41.708756 10242 layer_factory.hpp:77] Creating layer ip3
I0504 03:05:41.708766 10242 net.cpp:86] Creating Layer ip3
I0504 03:05:41.708771 10242 net.cpp:408] ip3 <- ip2
I0504 03:05:41.708780 10242 net.cpp:382] ip3 -> ip3
I0504 03:05:41.708880 10242 net.cpp:124] Setting up ip3
I0504 03:05:41.708889 10242 net.cpp:131] Top shape: 111 10 (1110)
I0504 03:05:41.708894 10242 net.cpp:139] Memory required for data: 250832916
I0504 03:05:41.708902 10242 layer_factory.hpp:77] Creating layer loss
I0504 03:05:41.708910 10242 net.cpp:86] Creating Layer loss
I0504 03:05:41.708915 10242 net.cpp:408] loss <- ip3
I0504 03:05:41.708921 10242 net.cpp:408] loss <- label
I0504 03:05:41.708930 10242 net.cpp:382] loss -> loss
I0504 03:05:41.708948 10242 layer_factory.hpp:77] Creating layer loss
…
I0504 03:05:41.709561 10242 solver.cpp:173] Creating test net (#0) specified by net file: ECE595/cifar/train_test/var_everything_tiny/cifar_train_test_51.prototxt
I0504 03:05:41.709607 10242 net.cpp:296] The NetState phase (1) differed from the phase (0) specified by a rule in layer cifar
I0504 03:05:41.709712 10242 net.cpp:53] Initializing net from parameters: 
name: "CIFAR"
state {
  phase: TEST
}
layer {
  name: "cifar"
  type: "Data"
  top: "data"
  top: "label"
  include {
    phase: TEST
  }
  transform_param {
    mean_file: "examples/cifar10/mean.binaryproto"
  }
  data_param {
    source: "examples/cifar10/cifar10_test_lmdb"
    batch_size: 1000
    backend: LMDB
  }
}
layer {
  name: "conv0"
  type: "Convolution"
  bottom: "data"
  top: "conv0"
  param {
    lr_mult: 1
  }
  param {
    lr_mult: 2
  }
  convolution_param {
    num_output: 216
    pad: 2
    kernel_size: 3
    stride: 1
    weight_filler {
      type: "gaussian"
      std: 0.01
    }
    bias_filler {
      type: "constant"
    }
  }
}
layer {
  name: "Sigmoid0"
  type: "Sigmoid"
  bottom: "conv0"
  top: "Sigmoid0"
}
layer {
  name: "pool0"
  type: "Pooling"
  bottom: "Sigmoid0"
  top: "pool0"
  pooling_param {
    pool: AVE
    kernel_size: 3
    stride: 2
  }
}
layer {
  name: "ip1"
  type: "InnerProduct"
  bottom: "pool0"
  top: "ip1"
  param {
    lr_mult: 1
  }
  param {
    lr_mult: 2
  }
  inner_product_param {
    num_output: 10
    weight_filler {
      type: "gaussian"
      std: 0.01
    }
    bias_filler {
      type: "constant"
    }
  }
}
layer {
  name: "relu1"
  type: "ReLU"
  bottom: "ip1"
  top: "ip1"
}
layer {
  name: "ip2"
  type: "InnerProduct"
  bottom: "ip1"
  top: "ip2"
  param {
    lr_mult: 1
  }
  param {
    lr_mult: 2
  }
  inner_product_param {
    num_output: 10
    weight_filler {
      type: "gaussian"
      std: 0.01
    }
    bias_filler {
      type: "constant"
    }
  }
}
layer {
  name: "relu2"
  type: "ReLU"
  bottom: "ip2"
  top: "ip2"
}
layer {
  name: "ip3"
  type: "InnerProduct"
  bottom: "ip2"
  top: "ip3"
  param {
    lr_mult: 1
  }
  param {
    lr_mult: 2
  }
  inner_product_param {
    num_output: 10
    weight_filler {
      type: "gaussian"
      std: 0.01
    }
    bias_filler {
      type: "constant"
    }
  }
}
layer {
  name: "accuracy"
  type: "Accuracy"
  bottom: "ip3"
  bottom: "label"
  top: "accuracy"
  include {
    phase: TEST
  }
}
layer {
  name: "loss"
  type: "SoftmaxWithLoss"
  bottom: "ip3"
  bottom: "label"
  top: "loss"
}
I0504 03:05:41.709805 10242 layer_factory.hpp:77] Creating layer cifar
I0504 03:05:41.709866 10242 db_lmdb.cpp:35] Opened lmdb examples/cifar10/cifar10_test_lmdb
I0504 03:05:41.709882 10242 net.cpp:86] Creating Layer cifar
I0504 03:05:41.709888 10242 net.cpp:382] cifar -> data
I0504 03:05:41.709899 10242 net.cpp:382] cifar -> label
I0504 03:05:41.709923 10242 data_transformer.cpp:25] Loading mean file from: examples/cifar10/mean.binaryproto
I0504 03:05:41.710119 10242 data_layer.cpp:45] output data size: 1000,3,32,32
I0504 03:05:41.732236 10242 net.cpp:124] Setting up cifar
I0504 03:05:41.732264 10242 net.cpp:131] Top shape: 1000 3 32 32 (3072000)
I0504 03:05:41.732271 10242 net.cpp:131] Top shape: 1000 (1000)
I0504 03:05:41.732275 10242 net.cpp:139] Memory required for data: 12292000
I0504 03:05:41.732282 10242 layer_factory.hpp:77] Creating layer label_cifar_1_split
I0504 03:05:41.732314 10242 net.cpp:86] Creating Layer label_cifar_1_split
I0504 03:05:41.732328 10242 net.cpp:408] label_cifar_1_split <- label
I0504 03:05:41.732337 10242 net.cpp:382] label_cifar_1_split -> label_cifar_1_split_0
I0504 03:05:41.732370 10242 net.cpp:382] label_cifar_1_split -> label_cifar_1_split_1
I0504 03:05:41.732427 10242 net.cpp:124] Setting up label_cifar_1_split
I0504 03:05:41.732436 10242 net.cpp:131] Top shape: 1000 (1000)
I0504 03:05:41.732442 10242 net.cpp:131] Top shape: 1000 (1000)
I0504 03:05:41.732446 10242 net.cpp:139] Memory required for data: 12300000
I0504 03:05:41.732451 10242 layer_factory.hpp:77] Creating layer conv0
I0504 03:05:41.732468 10242 net.cpp:86] Creating Layer conv0
I0504 03:05:41.732475 10242 net.cpp:408] conv0 <- data
I0504 03:05:41.732482 10242 net.cpp:382] conv0 -> conv0
I0504 03:05:41.734836 10242 net.cpp:124] Setting up conv0
I0504 03:05:41.734850 10242 net.cpp:131] Top shape: 1000 216 34 34 (249696000)
I0504 03:05:41.734856 10242 net.cpp:139] Memory required for data: 1011084000
I0504 03:05:41.734870 10242 layer_factory.hpp:77] Creating layer Sigmoid0
I0504 03:05:41.734879 10242 net.cpp:86] Creating Layer Sigmoid0
I0504 03:05:41.734884 10242 net.cpp:408] Sigmoid0 <- conv0
I0504 03:05:41.734891 10242 net.cpp:382] Sigmoid0 -> Sigmoid0
I0504 03:05:41.736613 10242 net.cpp:124] Setting up Sigmoid0
I0504 03:05:41.736626 10242 net.cpp:131] Top shape: 1000 216 34 34 (249696000)
I0504 03:05:41.736631 10242 net.cpp:139] Memory required for data: 2009868000
I0504 03:05:41.736636 10242 layer_factory.hpp:77] Creating layer pool0
I0504 03:05:41.736647 10242 net.cpp:86] Creating Layer pool0
I0504 03:05:41.736652 10242 net.cpp:408] pool0 <- Sigmoid0
I0504 03:05:41.736660 10242 net.cpp:382] pool0 -> pool0
I0504 03:05:41.736868 10242 net.cpp:124] Setting up pool0
I0504 03:05:41.736879 10242 net.cpp:131] Top shape: 1000 216 17 17 (62424000)
I0504 03:05:41.736886 10242 net.cpp:139] Memory required for data: 2259564000
I0504 03:05:41.736891 10242 layer_factory.hpp:77] Creating layer ip1
I0504 03:05:41.736902 10242 net.cpp:86] Creating Layer ip1
I0504 03:05:41.736908 10242 net.cpp:408] ip1 <- pool0
I0504 03:05:41.736917 10242 net.cpp:382] ip1 -> ip1
I0504 03:05:41.754102 10242 net.cpp:124] Setting up ip1
I0504 03:05:41.754118 10242 net.cpp:131] Top shape: 1000 10 (10000)
I0504 03:05:41.754124 10242 net.cpp:139] Memory required for data: 2259604000
I0504 03:05:41.754137 10242 layer_factory.hpp:77] Creating layer relu1
I0504 03:05:41.754146 10242 net.cpp:86] Creating Layer relu1
I0504 03:05:41.754153 10242 net.cpp:408] relu1 <- ip1
I0504 03:05:41.754159 10242 net.cpp:369] relu1 -> ip1 (in-place)
I0504 03:05:41.754330 10242 net.cpp:124] Setting up relu1
I0504 03:05:41.754341 10242 net.cpp:131] Top shape: 1000 10 (10000)
I0504 03:05:41.754346 10242 net.cpp:139] Memory required for data: 2259644000
I0504 03:05:41.754366 10242 layer_factory.hpp:77] Creating layer ip2
I0504 03:05:41.754375 10242 net.cpp:86] Creating Layer ip2
I0504 03:05:41.754380 10242 net.cpp:408] ip2 <- ip1
I0504 03:05:41.754389 10242 net.cpp:382] ip2 -> ip2
I0504 03:05:41.754508 10242 net.cpp:124] Setting up ip2
I0504 03:05:41.754518 10242 net.cpp:131] Top shape: 1000 10 (10000)
I0504 03:05:41.754521 10242 net.cpp:139] Memory required for data: 2259684000
I0504 03:05:41.754532 10242 layer_factory.hpp:77] Creating layer relu2
I0504 03:05:41.754541 10242 net.cpp:86] Creating Layer relu2
I0504 03:05:41.754550 10242 net.cpp:408] relu2 <- ip2
I0504 03:05:41.754557 10242 net.cpp:369] relu2 -> ip2 (in-place)
I0504 03:05:41.754709 10242 net.cpp:124] Setting up relu2
I0504 03:05:41.754719 10242 net.cpp:131] Top shape: 1000 10 (10000)
I0504 03:05:41.754724 10242 net.cpp:139] Memory required for data: 2259724000
I0504 03:05:41.754729 10242 layer_factory.hpp:77] Creating layer ip3
I0504 03:05:41.754736 10242 net.cpp:86] Creating Layer ip3
I0504 03:05:41.754741 10242 net.cpp:408] ip3 <- ip2
I0504 03:05:41.754750 10242 net.cpp:382] ip3 -> ip3
I0504 03:05:41.754850 10242 net.cpp:124] Setting up ip3
I0504 03:05:41.754859 10242 net.cpp:131] Top shape: 1000 10 (10000)
I0504 03:05:41.754881 10242 net.cpp:139] Memory required for data: 2259764000
I0504 03:05:41.754890 10242 layer_factory.hpp:77] Creating layer ip3_ip3_0_split
I0504 03:05:41.754899 10242 net.cpp:86] Creating Layer ip3_ip3_0_split
I0504 03:05:41.754904 10242 net.cpp:408] ip3_ip3_0_split <- ip3
I0504 03:05:41.754911 10242 net.cpp:382] ip3_ip3_0_split -> ip3_ip3_0_split_0
I0504 03:05:41.754920 10242 net.cpp:382] ip3_ip3_0_split -> ip3_ip3_0_split_1
I0504 03:05:41.754956 10242 net.cpp:124] Setting up ip3_ip3_0_split
I0504 03:05:41.754963 10242 net.cpp:131] Top shape: 1000 10 (10000)
I0504 03:05:41.754968 10242 net.cpp:131] Top shape: 1000 10 (10000)
I0504 03:05:41.754973 10242 net.cpp:139] Memory required for data: 2259844000
I0504 03:05:41.754978 10242 layer_factory.hpp:77] Creating layer accuracy
I0504 03:05:41.754986 10242 net.cpp:86] Creating Layer accuracy
I0504 03:05:41.754990 10242 net.cpp:408] accuracy <- ip3_ip3_0_split_0
I0504 03:05:41.755007 10242 net.cpp:408] accuracy <- label_cifar_1_split_0
I0504 03:05:41.755014 10242 net.cpp:382] accuracy -> accuracy
…
