…
I0504 16:39:52.934733  9797 net.cpp:296] The NetState phase (0) differed from the phase (1) specified by a rule in layer cifar
I0504 16:39:52.934751  9797 net.cpp:296] The NetState phase (0) differed from the phase (1) specified by a rule in layer accuracy
I0504 16:39:52.934859  9797 net.cpp:53] Initializing net from parameters: 
name: "CIFAR"
state {
  phase: TRAIN
  level: 0
  stage: ""
}
layer {
  name: "cifar"
  type: "Data"
  top: "data"
  top: "label"
  include {
    phase: TRAIN
  }
  transform_param {
    mean_file: "examples/cifar10/mean.binaryproto"
  }
  data_param {
    source: "examples/cifar10/cifar10_train_lmdb"
    batch_size: 111
    backend: LMDB
  }
}
layer {
  name: "conv0"
  type: "Convolution"
  bottom: "data"
  top: "conv0"
  param {
    lr_mult: 1
  }
  param {
    lr_mult: 2
  }
  convolution_param {
    num_output: 72
    pad: 2
    kernel_size: 3
    stride: 1
    weight_filler {
      type: "gaussian"
      std: 0.01
    }
    bias_filler {
      type: "constant"
    }
  }
}
layer {
  name: "Sigmoid0"
  type: "Sigmoid"
  bottom: "conv0"
  top: "Sigmoid0"
}
layer {
  name: "pool0"
  type: "Pooling"
  bottom: "Sigmoid0"
  top: "pool0"
  pooling_param {
    pool: AVE
    kernel_size: 3
    stride: 2
  }
}
layer {
  name: "conv1"
  type: "Convolution"
  bottom: "pool0"
  top: "conv1"
  param {
    lr_mult: 1
  }
  param {
    lr_mult: 2
  }
  convolution_param {
    num_output: 72
    pad: 2
    kernel_size: 3
    stride: 1
    weight_filler {
      type: "gaussian"
      std: 0.01
    }
    bias_filler {
      type: "constant"
    }
  }
}
layer {
  name: "Sigmoid1"
  type: "Sigmoid"
  bottom: "conv1"
  top: "Sigmoid1"
}
layer {
  name: "pool1"
  type: "Pooling"
  bottom: "Sigmoid1"
  top: "pool1"
  pooling_param {
    pool: AVE
    kernel_size: 3
    stride: 2
  }
}
layer {
  name: "ip1"
  type: "InnerProduct"
  bottom: "pool1"
  top: "ip1"
  param {
    lr_mult: 1
  }
  param {
    lr_mult: 2
  }
  inner_product_param {
    num_output: 180
    weight_filler {
      type: "gaussian"
      std: 0.01
    }
    bias_filler {
      type: "constant"
    }
  }
}
layer {
  name: "relu1"
  type: "ReLU"
  bottom: "ip1"
  top: "ip1"
}
layer {
  name: "ip2"
  type: "InnerProduct"
  bottom: "ip1"
  top: "ip2"
  param {
    lr_mult: 1
  }
  param {
    lr_mult: 2
  }
  inner_product_param {
    num_output: 60
    weight_filler {
      type: "gaussian"
      std: 0.01
    }
    bias_filler {
      type: "constant"
    }
  }
}
layer {
  name: "relu2"
  type: "ReLU"
  bottom: "ip2"
  top: "ip2"
}
layer {
  name: "ip3"
  type: "InnerProduct"
  bottom: "ip2"
  top: "ip3"
  param {
    lr_mult: 1
  }
  param {
    lr_mult: 2
  }
  inner_product_param {
    num_output: 10
    weight_filler {
      type: "gaussian"
      std: 0.01
    }
    bias_filler {
      type: "constant"
    }
  }
}
layer {
  name: "loss"
  type: "SoftmaxWithLoss"
  bottom: "ip3"
  bottom: "label"
  top: "loss"
}
I0504 16:39:52.934934  9797 layer_factory.hpp:77] Creating layer cifar
I0504 16:39:52.935034  9797 db_lmdb.cpp:35] Opened lmdb examples/cifar10/cifar10_train_lmdb
I0504 16:39:52.935060  9797 net.cpp:86] Creating Layer cifar
I0504 16:39:52.935068  9797 net.cpp:382] cifar -> data
I0504 16:39:52.935091  9797 net.cpp:382] cifar -> label
I0504 16:39:52.935103  9797 data_transformer.cpp:25] Loading mean file from: examples/cifar10/mean.binaryproto
I0504 16:39:52.937258  9797 data_layer.cpp:45] output data size: 111,3,32,32
I0504 16:39:52.945255  9797 net.cpp:124] Setting up cifar
I0504 16:39:52.945274  9797 net.cpp:131] Top shape: 111 3 32 32 (340992)
I0504 16:39:52.945281  9797 net.cpp:131] Top shape: 111 (111)
I0504 16:39:52.945284  9797 net.cpp:139] Memory required for data: 1364412
I0504 16:39:52.945292  9797 layer_factory.hpp:77] Creating layer conv0
I0504 16:39:52.945310  9797 net.cpp:86] Creating Layer conv0
I0504 16:39:52.945317  9797 net.cpp:408] conv0 <- data
I0504 16:39:52.945328  9797 net.cpp:382] conv0 -> conv0
I0504 16:39:53.238708  9797 net.cpp:124] Setting up conv0
I0504 16:39:53.238741  9797 net.cpp:131] Top shape: 111 72 34 34 (9238752)
I0504 16:39:53.238747  9797 net.cpp:139] Memory required for data: 38319420
I0504 16:39:53.238765  9797 layer_factory.hpp:77] Creating layer Sigmoid0
I0504 16:39:53.238780  9797 net.cpp:86] Creating Layer Sigmoid0
I0504 16:39:53.238783  9797 net.cpp:408] Sigmoid0 <- conv0
I0504 16:39:53.238790  9797 net.cpp:382] Sigmoid0 -> Sigmoid0
I0504 16:39:53.239004  9797 net.cpp:124] Setting up Sigmoid0
I0504 16:39:53.239017  9797 net.cpp:131] Top shape: 111 72 34 34 (9238752)
I0504 16:39:53.239020  9797 net.cpp:139] Memory required for data: 75274428
I0504 16:39:53.239024  9797 layer_factory.hpp:77] Creating layer pool0
I0504 16:39:53.239032  9797 net.cpp:86] Creating Layer pool0
I0504 16:39:53.239037  9797 net.cpp:408] pool0 <- Sigmoid0
I0504 16:39:53.239042  9797 net.cpp:382] pool0 -> pool0
I0504 16:39:53.239918  9797 net.cpp:124] Setting up pool0
I0504 16:39:53.239934  9797 net.cpp:131] Top shape: 111 72 17 17 (2309688)
I0504 16:39:53.239939  9797 net.cpp:139] Memory required for data: 84513180
I0504 16:39:53.239943  9797 layer_factory.hpp:77] Creating layer conv1
I0504 16:39:53.239958  9797 net.cpp:86] Creating Layer conv1
I0504 16:39:53.239961  9797 net.cpp:408] conv1 <- pool0
I0504 16:39:53.239969  9797 net.cpp:382] conv1 -> conv1
I0504 16:39:53.245632  9797 net.cpp:124] Setting up conv1
I0504 16:39:53.245651  9797 net.cpp:131] Top shape: 111 72 19 19 (2885112)
I0504 16:39:53.245656  9797 net.cpp:139] Memory required for data: 96053628
I0504 16:39:53.245666  9797 layer_factory.hpp:77] Creating layer Sigmoid1
I0504 16:39:53.245673  9797 net.cpp:86] Creating Layer Sigmoid1
I0504 16:39:53.245677  9797 net.cpp:408] Sigmoid1 <- conv1
I0504 16:39:53.245683  9797 net.cpp:382] Sigmoid1 -> Sigmoid1
I0504 16:39:53.245899  9797 net.cpp:124] Setting up Sigmoid1
I0504 16:39:53.245911  9797 net.cpp:131] Top shape: 111 72 19 19 (2885112)
I0504 16:39:53.245915  9797 net.cpp:139] Memory required for data: 107594076
I0504 16:39:53.245919  9797 layer_factory.hpp:77] Creating layer pool1
I0504 16:39:53.245926  9797 net.cpp:86] Creating Layer pool1
I0504 16:39:53.245930  9797 net.cpp:408] pool1 <- Sigmoid1
I0504 16:39:53.245935  9797 net.cpp:382] pool1 -> pool1
I0504 16:39:53.246130  9797 net.cpp:124] Setting up pool1
I0504 16:39:53.246140  9797 net.cpp:131] Top shape: 111 72 9 9 (647352)
I0504 16:39:53.246145  9797 net.cpp:139] Memory required for data: 110183484
I0504 16:39:53.246147  9797 layer_factory.hpp:77] Creating layer ip1
I0504 16:39:53.246161  9797 net.cpp:86] Creating Layer ip1
I0504 16:39:53.246166  9797 net.cpp:408] ip1 <- pool1
I0504 16:39:53.246172  9797 net.cpp:382] ip1 -> ip1
I0504 16:39:53.282269  9797 net.cpp:124] Setting up ip1
I0504 16:39:53.282286  9797 net.cpp:131] Top shape: 111 180 (19980)
I0504 16:39:53.282290  9797 net.cpp:139] Memory required for data: 110263404
I0504 16:39:53.282300  9797 layer_factory.hpp:77] Creating layer relu1
I0504 16:39:53.282310  9797 net.cpp:86] Creating Layer relu1
I0504 16:39:53.282313  9797 net.cpp:408] relu1 <- ip1
I0504 16:39:53.282320  9797 net.cpp:369] relu1 -> ip1 (in-place)
I0504 16:39:53.282516  9797 net.cpp:124] Setting up relu1
I0504 16:39:53.282526  9797 net.cpp:131] Top shape: 111 180 (19980)
I0504 16:39:53.282531  9797 net.cpp:139] Memory required for data: 110343324
I0504 16:39:53.282534  9797 layer_factory.hpp:77] Creating layer ip2
I0504 16:39:53.282542  9797 net.cpp:86] Creating Layer ip2
I0504 16:39:53.282546  9797 net.cpp:408] ip2 <- ip1
I0504 16:39:53.282570  9797 net.cpp:382] ip2 -> ip2
I0504 16:39:53.284031  9797 net.cpp:124] Setting up ip2
I0504 16:39:53.284047  9797 net.cpp:131] Top shape: 111 60 (6660)
I0504 16:39:53.284051  9797 net.cpp:139] Memory required for data: 110369964
I0504 16:39:53.284059  9797 layer_factory.hpp:77] Creating layer relu2
I0504 16:39:53.284065  9797 net.cpp:86] Creating Layer relu2
I0504 16:39:53.284070  9797 net.cpp:408] relu2 <- ip2
I0504 16:39:53.284075  9797 net.cpp:369] relu2 -> ip2 (in-place)
I0504 16:39:53.284965  9797 net.cpp:124] Setting up relu2
I0504 16:39:53.284981  9797 net.cpp:131] Top shape: 111 60 (6660)
I0504 16:39:53.284986  9797 net.cpp:139] Memory required for data: 110396604
I0504 16:39:53.284989  9797 layer_factory.hpp:77] Creating layer ip3
I0504 16:39:53.284997  9797 net.cpp:86] Creating Layer ip3
I0504 16:39:53.285002  9797 net.cpp:408] ip3 <- ip2
I0504 16:39:53.285008  9797 net.cpp:382] ip3 -> ip3
I0504 16:39:53.285154  9797 net.cpp:124] Setting up ip3
I0504 16:39:53.285163  9797 net.cpp:131] Top shape: 111 10 (1110)
I0504 16:39:53.285167  9797 net.cpp:139] Memory required for data: 110401044
I0504 16:39:53.285177  9797 layer_factory.hpp:77] Creating layer loss
I0504 16:39:53.285184  9797 net.cpp:86] Creating Layer loss
I0504 16:39:53.285188  9797 net.cpp:408] loss <- ip3
I0504 16:39:53.285192  9797 net.cpp:408] loss <- label
I0504 16:39:53.285199  9797 net.cpp:382] loss -> loss
I0504 16:39:53.285218  9797 layer_factory.hpp:77] Creating layer loss
…
I0504 16:39:53.286010  9797 solver.cpp:173] Creating test net (#0) specified by net file: ECE595/cifar/train_test/var_everything_tiny/cifar_train_test_190.prototxt
I0504 16:39:53.286043  9797 net.cpp:296] The NetState phase (1) differed from the phase (0) specified by a rule in layer cifar
I0504 16:39:53.286159  9797 net.cpp:53] Initializing net from parameters: 
name: "CIFAR"
state {
  phase: TEST
}
layer {
  name: "cifar"
  type: "Data"
  top: "data"
  top: "label"
  include {
    phase: TEST
  }
  transform_param {
    mean_file: "examples/cifar10/mean.binaryproto"
  }
  data_param {
    source: "examples/cifar10/cifar10_test_lmdb"
    batch_size: 1000
    backend: LMDB
  }
}
layer {
  name: "conv0"
  type: "Convolution"
  bottom: "data"
  top: "conv0"
  param {
    lr_mult: 1
  }
  param {
    lr_mult: 2
  }
  convolution_param {
    num_output: 72
    pad: 2
    kernel_size: 3
    stride: 1
    weight_filler {
      type: "gaussian"
      std: 0.01
    }
    bias_filler {
      type: "constant"
    }
  }
}
layer {
  name: "Sigmoid0"
  type: "Sigmoid"
  bottom: "conv0"
  top: "Sigmoid0"
}
layer {
  name: "pool0"
  type: "Pooling"
  bottom: "Sigmoid0"
  top: "pool0"
  pooling_param {
    pool: AVE
    kernel_size: 3
    stride: 2
  }
}
layer {
  name: "conv1"
  type: "Convolution"
  bottom: "pool0"
  top: "conv1"
  param {
    lr_mult: 1
  }
  param {
    lr_mult: 2
  }
  convolution_param {
    num_output: 72
    pad: 2
    kernel_size: 3
    stride: 1
    weight_filler {
      type: "gaussian"
      std: 0.01
    }
    bias_filler {
      type: "constant"
    }
  }
}
layer {
  name: "Sigmoid1"
  type: "Sigmoid"
  bottom: "conv1"
  top: "Sigmoid1"
}
layer {
  name: "pool1"
  type: "Pooling"
  bottom: "Sigmoid1"
  top: "pool1"
  pooling_param {
    pool: AVE
    kernel_size: 3
    stride: 2
  }
}
layer {
  name: "ip1"
  type: "InnerProduct"
  bottom: "pool1"
  top: "ip1"
  param {
    lr_mult: 1
  }
  param {
    lr_mult: 2
  }
  inner_product_param {
    num_output: 180
    weight_filler {
      type: "gaussian"
      std: 0.01
    }
    bias_filler {
      type: "constant"
    }
  }
}
layer {
  name: "relu1"
  type: "ReLU"
  bottom: "ip1"
  top: "ip1"
}
layer {
  name: "ip2"
  type: "InnerProduct"
  bottom: "ip1"
  top: "ip2"
  param {
    lr_mult: 1
  }
  param {
    lr_mult: 2
  }
  inner_product_param {
    num_output: 60
    weight_filler {
      type: "gaussian"
      std: 0.01
    }
    bias_filler {
      type: "constant"
    }
  }
}
layer {
  name: "relu2"
  type: "ReLU"
  bottom: "ip2"
  top: "ip2"
}
layer {
  name: "ip3"
  type: "InnerProduct"
  bottom: "ip2"
  top: "ip3"
  param {
    lr_mult: 1
  }
  param {
    lr_mult: 2
  }
  inner_product_param {
    num_output: 10
    weight_filler {
      type: "gaussian"
      std: 0.01
    }
    bias_filler {
      type: "constant"
    }
  }
}
layer {
  name: "accuracy"
  type: "Accuracy"
  bottom: "ip3"
  bottom: "label"
  top: "accuracy"
  include {
    phase: TEST
  }
}
layer {
  name: "loss"
  type: "SoftmaxWithLoss"
  bottom: "ip3"
  bottom: "label"
  top: "loss"
}
I0504 16:39:53.286260  9797 layer_factory.hpp:77] Creating layer cifar
I0504 16:39:53.286314  9797 db_lmdb.cpp:35] Opened lmdb examples/cifar10/cifar10_test_lmdb
I0504 16:39:53.286329  9797 net.cpp:86] Creating Layer cifar
I0504 16:39:53.286334  9797 net.cpp:382] cifar -> data
I0504 16:39:53.286344  9797 net.cpp:382] cifar -> label
I0504 16:39:53.286351  9797 data_transformer.cpp:25] Loading mean file from: examples/cifar10/mean.binaryproto
I0504 16:39:53.286525  9797 data_layer.cpp:45] output data size: 1000,3,32,32
I0504 16:39:53.312583  9797 net.cpp:124] Setting up cifar
I0504 16:39:53.312613  9797 net.cpp:131] Top shape: 1000 3 32 32 (3072000)
I0504 16:39:53.312620  9797 net.cpp:131] Top shape: 1000 (1000)
I0504 16:39:53.312624  9797 net.cpp:139] Memory required for data: 12292000
I0504 16:39:53.312630  9797 layer_factory.hpp:77] Creating layer label_cifar_1_split
I0504 16:39:53.312650  9797 net.cpp:86] Creating Layer label_cifar_1_split
I0504 16:39:53.312655  9797 net.cpp:408] label_cifar_1_split <- label
I0504 16:39:53.312662  9797 net.cpp:382] label_cifar_1_split -> label_cifar_1_split_0
I0504 16:39:53.312672  9797 net.cpp:382] label_cifar_1_split -> label_cifar_1_split_1
I0504 16:39:53.312790  9797 net.cpp:124] Setting up label_cifar_1_split
I0504 16:39:53.312799  9797 net.cpp:131] Top shape: 1000 (1000)
I0504 16:39:53.312803  9797 net.cpp:131] Top shape: 1000 (1000)
I0504 16:39:53.312808  9797 net.cpp:139] Memory required for data: 12300000
I0504 16:39:53.312819  9797 layer_factory.hpp:77] Creating layer conv0
I0504 16:39:53.312835  9797 net.cpp:86] Creating Layer conv0
I0504 16:39:53.312839  9797 net.cpp:408] conv0 <- data
I0504 16:39:53.312846  9797 net.cpp:382] conv0 -> conv0
I0504 16:39:53.314730  9797 net.cpp:124] Setting up conv0
I0504 16:39:53.314748  9797 net.cpp:131] Top shape: 1000 72 34 34 (83232000)
I0504 16:39:53.314752  9797 net.cpp:139] Memory required for data: 345228000
I0504 16:39:53.314764  9797 layer_factory.hpp:77] Creating layer Sigmoid0
I0504 16:39:53.314772  9797 net.cpp:86] Creating Layer Sigmoid0
I0504 16:39:53.314777  9797 net.cpp:408] Sigmoid0 <- conv0
I0504 16:39:53.314782  9797 net.cpp:382] Sigmoid0 -> Sigmoid0
I0504 16:39:53.315080  9797 net.cpp:124] Setting up Sigmoid0
I0504 16:39:53.315105  9797 net.cpp:131] Top shape: 1000 72 34 34 (83232000)
I0504 16:39:53.315109  9797 net.cpp:139] Memory required for data: 678156000
I0504 16:39:53.315114  9797 layer_factory.hpp:77] Creating layer pool0
I0504 16:39:53.315124  9797 net.cpp:86] Creating Layer pool0
I0504 16:39:53.315127  9797 net.cpp:408] pool0 <- Sigmoid0
I0504 16:39:53.315134  9797 net.cpp:382] pool0 -> pool0
I0504 16:39:53.316309  9797 net.cpp:124] Setting up pool0
I0504 16:39:53.316323  9797 net.cpp:131] Top shape: 1000 72 17 17 (20808000)
I0504 16:39:53.316325  9797 net.cpp:139] Memory required for data: 761388000
I0504 16:39:53.316330  9797 layer_factory.hpp:77] Creating layer conv1
I0504 16:39:53.316341  9797 net.cpp:86] Creating Layer conv1
I0504 16:39:53.316346  9797 net.cpp:408] conv1 <- pool0
I0504 16:39:53.316352  9797 net.cpp:382] conv1 -> conv1
I0504 16:39:53.319473  9797 net.cpp:124] Setting up conv1
I0504 16:39:53.319490  9797 net.cpp:131] Top shape: 1000 72 19 19 (25992000)
I0504 16:39:53.319494  9797 net.cpp:139] Memory required for data: 865356000
I0504 16:39:53.319506  9797 layer_factory.hpp:77] Creating layer Sigmoid1
I0504 16:39:53.319514  9797 net.cpp:86] Creating Layer Sigmoid1
I0504 16:39:53.319519  9797 net.cpp:408] Sigmoid1 <- conv1
I0504 16:39:53.319525  9797 net.cpp:382] Sigmoid1 -> Sigmoid1
I0504 16:39:53.319728  9797 net.cpp:124] Setting up Sigmoid1
I0504 16:39:53.319741  9797 net.cpp:131] Top shape: 1000 72 19 19 (25992000)
I0504 16:39:53.319744  9797 net.cpp:139] Memory required for data: 969324000
I0504 16:39:53.319748  9797 layer_factory.hpp:77] Creating layer pool1
I0504 16:39:53.319756  9797 net.cpp:86] Creating Layer pool1
I0504 16:39:53.319759  9797 net.cpp:408] pool1 <- Sigmoid1
I0504 16:39:53.319766  9797 net.cpp:382] pool1 -> pool1
I0504 16:39:53.320648  9797 net.cpp:124] Setting up pool1
I0504 16:39:53.320664  9797 net.cpp:131] Top shape: 1000 72 9 9 (5832000)
I0504 16:39:53.320668  9797 net.cpp:139] Memory required for data: 992652000
I0504 16:39:53.320674  9797 layer_factory.hpp:77] Creating layer ip1
I0504 16:39:53.320685  9797 net.cpp:86] Creating Layer ip1
I0504 16:39:53.320689  9797 net.cpp:408] ip1 <- pool1
I0504 16:39:53.320695  9797 net.cpp:382] ip1 -> ip1
I0504 16:39:53.356842  9797 net.cpp:124] Setting up ip1
I0504 16:39:53.356863  9797 net.cpp:131] Top shape: 1000 180 (180000)
I0504 16:39:53.356868  9797 net.cpp:139] Memory required for data: 993372000
I0504 16:39:53.356880  9797 layer_factory.hpp:77] Creating layer relu1
I0504 16:39:53.356889  9797 net.cpp:86] Creating Layer relu1
I0504 16:39:53.356894  9797 net.cpp:408] relu1 <- ip1
I0504 16:39:53.356900  9797 net.cpp:369] relu1 -> ip1 (in-place)
I0504 16:39:53.357122  9797 net.cpp:124] Setting up relu1
I0504 16:39:53.357133  9797 net.cpp:131] Top shape: 1000 180 (180000)
I0504 16:39:53.357137  9797 net.cpp:139] Memory required for data: 994092000
I0504 16:39:53.357141  9797 layer_factory.hpp:77] Creating layer ip2
I0504 16:39:53.357149  9797 net.cpp:86] Creating Layer ip2
I0504 16:39:53.357153  9797 net.cpp:408] ip2 <- ip1
I0504 16:39:53.357159  9797 net.cpp:382] ip2 -> ip2
I0504 16:39:53.357652  9797 net.cpp:124] Setting up ip2
I0504 16:39:53.357662  9797 net.cpp:131] Top shape: 1000 60 (60000)
I0504 16:39:53.357666  9797 net.cpp:139] Memory required for data: 994332000
I0504 16:39:53.357673  9797 layer_factory.hpp:77] Creating layer relu2
I0504 16:39:53.357679  9797 net.cpp:86] Creating Layer relu2
I0504 16:39:53.357683  9797 net.cpp:408] relu2 <- ip2
I0504 16:39:53.357688  9797 net.cpp:369] relu2 -> ip2 (in-place)
I0504 16:39:53.357873  9797 net.cpp:124] Setting up relu2
I0504 16:39:53.357882  9797 net.cpp:131] Top shape: 1000 60 (60000)
I0504 16:39:53.357887  9797 net.cpp:139] Memory required for data: 994572000
I0504 16:39:53.357890  9797 layer_factory.hpp:77] Creating layer ip3
I0504 16:39:53.357897  9797 net.cpp:86] Creating Layer ip3
I0504 16:39:53.357902  9797 net.cpp:408] ip3 <- ip2
I0504 16:39:53.357908  9797 net.cpp:382] ip3 -> ip3
I0504 16:39:53.358057  9797 net.cpp:124] Setting up ip3
I0504 16:39:53.358079  9797 net.cpp:131] Top shape: 1000 10 (10000)
I0504 16:39:53.358084  9797 net.cpp:139] Memory required for data: 994612000
I0504 16:39:53.358094  9797 layer_factory.hpp:77] Creating layer ip3_ip3_0_split
I0504 16:39:53.358100  9797 net.cpp:86] Creating Layer ip3_ip3_0_split
I0504 16:39:53.358105  9797 net.cpp:408] ip3_ip3_0_split <- ip3
I0504 16:39:53.358110  9797 net.cpp:382] ip3_ip3_0_split -> ip3_ip3_0_split_0
I0504 16:39:53.358117  9797 net.cpp:382] ip3_ip3_0_split -> ip3_ip3_0_split_1
I0504 16:39:53.358157  9797 net.cpp:124] Setting up ip3_ip3_0_split
I0504 16:39:53.358175  9797 net.cpp:131] Top shape: 1000 10 (10000)
I0504 16:39:53.358178  9797 net.cpp:131] Top shape: 1000 10 (10000)
I0504 16:39:53.358181  9797 net.cpp:139] Memory required for data: 994692000
I0504 16:39:53.358186  9797 layer_factory.hpp:77] Creating layer accuracy
I0504 16:39:53.358192  9797 net.cpp:86] Creating Layer accuracy
I0504 16:39:53.358196  9797 net.cpp:408] accuracy <- ip3_ip3_0_split_0
I0504 16:39:53.358201  9797 net.cpp:408] accuracy <- label_cifar_1_split_0
I0504 16:39:53.358207  9797 net.cpp:382] accuracy -> accuracy
…
