…
I0504 05:29:03.040782 14520 net.cpp:296] The NetState phase (0) differed from the phase (1) specified by a rule in layer cifar
I0504 05:29:03.040802 14520 net.cpp:296] The NetState phase (0) differed from the phase (1) specified by a rule in layer accuracy
I0504 05:29:03.040915 14520 net.cpp:53] Initializing net from parameters: 
name: "CIFAR"
state {
  phase: TRAIN
  level: 0
  stage: ""
}
layer {
  name: "cifar"
  type: "Data"
  top: "data"
  top: "label"
  include {
    phase: TRAIN
  }
  transform_param {
    mean_file: "examples/cifar10/mean.binaryproto"
  }
  data_param {
    source: "examples/cifar10/cifar10_train_lmdb"
    batch_size: 111
    backend: LMDB
  }
}
layer {
  name: "conv0"
  type: "Convolution"
  bottom: "data"
  top: "conv0"
  param {
    lr_mult: 1
  }
  param {
    lr_mult: 2
  }
  convolution_param {
    num_output: 216
    pad: 2
    kernel_size: 5
    stride: 1
    weight_filler {
      type: "gaussian"
      std: 0.01
    }
    bias_filler {
      type: "constant"
    }
  }
}
layer {
  name: "Sigmoid0"
  type: "Sigmoid"
  bottom: "conv0"
  top: "Sigmoid0"
}
layer {
  name: "pool0"
  type: "Pooling"
  bottom: "Sigmoid0"
  top: "pool0"
  pooling_param {
    pool: AVE
    kernel_size: 3
    stride: 2
  }
}
layer {
  name: "ip1"
  type: "InnerProduct"
  bottom: "pool0"
  top: "ip1"
  param {
    lr_mult: 1
  }
  param {
    lr_mult: 2
  }
  inner_product_param {
    num_output: 10
    weight_filler {
      type: "gaussian"
      std: 0.01
    }
    bias_filler {
      type: "constant"
    }
  }
}
layer {
  name: "relu1"
  type: "ReLU"
  bottom: "ip1"
  top: "ip1"
}
layer {
  name: "ip2"
  type: "InnerProduct"
  bottom: "ip1"
  top: "ip2"
  param {
    lr_mult: 1
  }
  param {
    lr_mult: 2
  }
  inner_product_param {
    num_output: 10
    weight_filler {
      type: "gaussian"
      std: 0.01
    }
    bias_filler {
      type: "constant"
    }
  }
}
layer {
  name: "relu2"
  type: "ReLU"
  bottom: "ip2"
  top: "ip2"
}
layer {
  name: "ip3"
  type: "InnerProduct"
  bottom: "ip2"
  top: "ip3"
  param {
    lr_mult: 1
  }
  param {
    lr_mult: 2
  }
  inner_product_param {
    num_output: 10
    weight_filler {
      type: "gaussian"
      std: 0.01
    }
    bias_filler {
      type: "constant"
    }
  }
}
layer {
  name: "loss"
  type: "SoftmaxWithLoss"
  bottom: "ip3"
  bottom: "label"
  top: "loss"
}
I0504 05:29:03.040992 14520 layer_factory.hpp:77] Creating layer cifar
I0504 05:29:03.041092 14520 db_lmdb.cpp:35] Opened lmdb examples/cifar10/cifar10_train_lmdb
I0504 05:29:03.041118 14520 net.cpp:86] Creating Layer cifar
I0504 05:29:03.041128 14520 net.cpp:382] cifar -> data
I0504 05:29:03.041151 14520 net.cpp:382] cifar -> label
I0504 05:29:03.041162 14520 data_transformer.cpp:25] Loading mean file from: examples/cifar10/mean.binaryproto
I0504 05:29:03.043264 14520 data_layer.cpp:45] output data size: 111,3,32,32
I0504 05:29:03.051182 14520 net.cpp:124] Setting up cifar
I0504 05:29:03.051201 14520 net.cpp:131] Top shape: 111 3 32 32 (340992)
I0504 05:29:03.051208 14520 net.cpp:131] Top shape: 111 (111)
I0504 05:29:03.051211 14520 net.cpp:139] Memory required for data: 1364412
I0504 05:29:03.051219 14520 layer_factory.hpp:77] Creating layer conv0
I0504 05:29:03.051262 14520 net.cpp:86] Creating Layer conv0
I0504 05:29:03.051268 14520 net.cpp:408] conv0 <- data
I0504 05:29:03.051282 14520 net.cpp:382] conv0 -> conv0
I0504 05:29:03.304857 14520 net.cpp:124] Setting up conv0
I0504 05:29:03.304947 14520 net.cpp:131] Top shape: 111 216 32 32 (24551424)
I0504 05:29:03.304952 14520 net.cpp:139] Memory required for data: 99570108
I0504 05:29:03.304982 14520 layer_factory.hpp:77] Creating layer Sigmoid0
I0504 05:29:03.304994 14520 net.cpp:86] Creating Layer Sigmoid0
I0504 05:29:03.304998 14520 net.cpp:408] Sigmoid0 <- conv0
I0504 05:29:03.305019 14520 net.cpp:382] Sigmoid0 -> Sigmoid0
I0504 05:29:03.305245 14520 net.cpp:124] Setting up Sigmoid0
I0504 05:29:03.305255 14520 net.cpp:131] Top shape: 111 216 32 32 (24551424)
I0504 05:29:03.305258 14520 net.cpp:139] Memory required for data: 197775804
I0504 05:29:03.305261 14520 layer_factory.hpp:77] Creating layer pool0
I0504 05:29:03.305269 14520 net.cpp:86] Creating Layer pool0
I0504 05:29:03.305271 14520 net.cpp:408] pool0 <- Sigmoid0
I0504 05:29:03.305276 14520 net.cpp:382] pool0 -> pool0
I0504 05:29:03.305982 14520 net.cpp:124] Setting up pool0
I0504 05:29:03.306011 14520 net.cpp:131] Top shape: 111 216 16 16 (6137856)
I0504 05:29:03.306015 14520 net.cpp:139] Memory required for data: 222327228
I0504 05:29:03.306017 14520 layer_factory.hpp:77] Creating layer ip1
I0504 05:29:03.306026 14520 net.cpp:86] Creating Layer ip1
I0504 05:29:03.306030 14520 net.cpp:408] ip1 <- pool0
I0504 05:29:03.306035 14520 net.cpp:382] ip1 -> ip1
I0504 05:29:03.320516 14520 net.cpp:124] Setting up ip1
I0504 05:29:03.320528 14520 net.cpp:131] Top shape: 111 10 (1110)
I0504 05:29:03.320531 14520 net.cpp:139] Memory required for data: 222331668
I0504 05:29:03.320539 14520 layer_factory.hpp:77] Creating layer relu1
I0504 05:29:03.320544 14520 net.cpp:86] Creating Layer relu1
I0504 05:29:03.320547 14520 net.cpp:408] relu1 <- ip1
I0504 05:29:03.320551 14520 net.cpp:369] relu1 -> ip1 (in-place)
I0504 05:29:03.320719 14520 net.cpp:124] Setting up relu1
I0504 05:29:03.320729 14520 net.cpp:131] Top shape: 111 10 (1110)
I0504 05:29:03.320731 14520 net.cpp:139] Memory required for data: 222336108
I0504 05:29:03.320734 14520 layer_factory.hpp:77] Creating layer ip2
I0504 05:29:03.320741 14520 net.cpp:86] Creating Layer ip2
I0504 05:29:03.320744 14520 net.cpp:408] ip2 <- ip1
I0504 05:29:03.320749 14520 net.cpp:382] ip2 -> ip2
I0504 05:29:03.320865 14520 net.cpp:124] Setting up ip2
I0504 05:29:03.320889 14520 net.cpp:131] Top shape: 111 10 (1110)
I0504 05:29:03.320893 14520 net.cpp:139] Memory required for data: 222340548
I0504 05:29:03.320899 14520 layer_factory.hpp:77] Creating layer relu2
I0504 05:29:03.320904 14520 net.cpp:86] Creating Layer relu2
I0504 05:29:03.320907 14520 net.cpp:408] relu2 <- ip2
I0504 05:29:03.320911 14520 net.cpp:369] relu2 -> ip2 (in-place)
I0504 05:29:03.321099 14520 net.cpp:124] Setting up relu2
I0504 05:29:03.321107 14520 net.cpp:131] Top shape: 111 10 (1110)
I0504 05:29:03.321110 14520 net.cpp:139] Memory required for data: 222344988
I0504 05:29:03.321113 14520 layer_factory.hpp:77] Creating layer ip3
I0504 05:29:03.321122 14520 net.cpp:86] Creating Layer ip3
I0504 05:29:03.321126 14520 net.cpp:408] ip3 <- ip2
I0504 05:29:03.321146 14520 net.cpp:382] ip3 -> ip3
I0504 05:29:03.321254 14520 net.cpp:124] Setting up ip3
I0504 05:29:03.321260 14520 net.cpp:131] Top shape: 111 10 (1110)
I0504 05:29:03.321264 14520 net.cpp:139] Memory required for data: 222349428
I0504 05:29:03.321269 14520 layer_factory.hpp:77] Creating layer loss
I0504 05:29:03.321274 14520 net.cpp:86] Creating Layer loss
I0504 05:29:03.321276 14520 net.cpp:408] loss <- ip3
I0504 05:29:03.321280 14520 net.cpp:408] loss <- label
I0504 05:29:03.321285 14520 net.cpp:382] loss -> loss
I0504 05:29:03.321316 14520 layer_factory.hpp:77] Creating layer loss
…
I0504 05:29:03.321883 14520 solver.cpp:173] Creating test net (#0) specified by net file: ECE595/cifar/train_test/var_everything_tiny/cifar_train_test_63.prototxt
I0504 05:29:03.321924 14520 net.cpp:296] The NetState phase (1) differed from the phase (0) specified by a rule in layer cifar
I0504 05:29:03.322010 14520 net.cpp:53] Initializing net from parameters: 
name: "CIFAR"
state {
  phase: TEST
}
layer {
  name: "cifar"
  type: "Data"
  top: "data"
  top: "label"
  include {
    phase: TEST
  }
  transform_param {
    mean_file: "examples/cifar10/mean.binaryproto"
  }
  data_param {
    source: "examples/cifar10/cifar10_test_lmdb"
    batch_size: 1000
    backend: LMDB
  }
}
layer {
  name: "conv0"
  type: "Convolution"
  bottom: "data"
  top: "conv0"
  param {
    lr_mult: 1
  }
  param {
    lr_mult: 2
  }
  convolution_param {
    num_output: 216
    pad: 2
    kernel_size: 5
    stride: 1
    weight_filler {
      type: "gaussian"
      std: 0.01
    }
    bias_filler {
      type: "constant"
    }
  }
}
layer {
  name: "Sigmoid0"
  type: "Sigmoid"
  bottom: "conv0"
  top: "Sigmoid0"
}
layer {
  name: "pool0"
  type: "Pooling"
  bottom: "Sigmoid0"
  top: "pool0"
  pooling_param {
    pool: AVE
    kernel_size: 3
    stride: 2
  }
}
layer {
  name: "ip1"
  type: "InnerProduct"
  bottom: "pool0"
  top: "ip1"
  param {
    lr_mult: 1
  }
  param {
    lr_mult: 2
  }
  inner_product_param {
    num_output: 10
    weight_filler {
      type: "gaussian"
      std: 0.01
    }
    bias_filler {
      type: "constant"
    }
  }
}
layer {
  name: "relu1"
  type: "ReLU"
  bottom: "ip1"
  top: "ip1"
}
layer {
  name: "ip2"
  type: "InnerProduct"
  bottom: "ip1"
  top: "ip2"
  param {
    lr_mult: 1
  }
  param {
    lr_mult: 2
  }
  inner_product_param {
    num_output: 10
    weight_filler {
      type: "gaussian"
      std: 0.01
    }
    bias_filler {
      type: "constant"
    }
  }
}
layer {
  name: "relu2"
  type: "ReLU"
  bottom: "ip2"
  top: "ip2"
}
layer {
  name: "ip3"
  type: "InnerProduct"
  bottom: "ip2"
  top: "ip3"
  param {
    lr_mult: 1
  }
  param {
    lr_mult: 2
  }
  inner_product_param {
    num_output: 10
    weight_filler {
      type: "gaussian"
      std: 0.01
    }
    bias_filler {
      type: "constant"
    }
  }
}
layer {
  name: "accuracy"
  type: "Accuracy"
  bottom: "ip3"
  bottom: "label"
  top: "accuracy"
  include {
    phase: TEST
  }
}
layer {
  name: "loss"
  type: "SoftmaxWithLoss"
  bottom: "ip3"
  bottom: "label"
  top: "loss"
}
I0504 05:29:03.322073 14520 layer_factory.hpp:77] Creating layer cifar
I0504 05:29:03.322132 14520 db_lmdb.cpp:35] Opened lmdb examples/cifar10/cifar10_test_lmdb
I0504 05:29:03.322144 14520 net.cpp:86] Creating Layer cifar
I0504 05:29:03.322149 14520 net.cpp:382] cifar -> data
I0504 05:29:03.322156 14520 net.cpp:382] cifar -> label
I0504 05:29:03.322163 14520 data_transformer.cpp:25] Loading mean file from: examples/cifar10/mean.binaryproto
I0504 05:29:03.322322 14520 data_layer.cpp:45] output data size: 1000,3,32,32
I0504 05:29:03.344449 14520 net.cpp:124] Setting up cifar
I0504 05:29:03.344503 14520 net.cpp:131] Top shape: 1000 3 32 32 (3072000)
I0504 05:29:03.344509 14520 net.cpp:131] Top shape: 1000 (1000)
I0504 05:29:03.344513 14520 net.cpp:139] Memory required for data: 12292000
I0504 05:29:03.344518 14520 layer_factory.hpp:77] Creating layer label_cifar_1_split
I0504 05:29:03.344566 14520 net.cpp:86] Creating Layer label_cifar_1_split
I0504 05:29:03.344570 14520 net.cpp:408] label_cifar_1_split <- label
I0504 05:29:03.344578 14520 net.cpp:382] label_cifar_1_split -> label_cifar_1_split_0
I0504 05:29:03.344586 14520 net.cpp:382] label_cifar_1_split -> label_cifar_1_split_1
I0504 05:29:03.344671 14520 net.cpp:124] Setting up label_cifar_1_split
I0504 05:29:03.344678 14520 net.cpp:131] Top shape: 1000 (1000)
I0504 05:29:03.344682 14520 net.cpp:131] Top shape: 1000 (1000)
I0504 05:29:03.344686 14520 net.cpp:139] Memory required for data: 12300000
I0504 05:29:03.344688 14520 layer_factory.hpp:77] Creating layer conv0
I0504 05:29:03.344715 14520 net.cpp:86] Creating Layer conv0
I0504 05:29:03.344719 14520 net.cpp:408] conv0 <- data
I0504 05:29:03.344725 14520 net.cpp:382] conv0 -> conv0
I0504 05:29:03.347862 14520 net.cpp:124] Setting up conv0
I0504 05:29:03.347890 14520 net.cpp:131] Top shape: 1000 216 32 32 (221184000)
I0504 05:29:03.347894 14520 net.cpp:139] Memory required for data: 897036000
I0504 05:29:03.347904 14520 layer_factory.hpp:77] Creating layer Sigmoid0
I0504 05:29:03.347913 14520 net.cpp:86] Creating Layer Sigmoid0
I0504 05:29:03.347915 14520 net.cpp:408] Sigmoid0 <- conv0
I0504 05:29:03.347921 14520 net.cpp:382] Sigmoid0 -> Sigmoid0
I0504 05:29:03.348714 14520 net.cpp:124] Setting up Sigmoid0
I0504 05:29:03.348740 14520 net.cpp:131] Top shape: 1000 216 32 32 (221184000)
I0504 05:29:03.348744 14520 net.cpp:139] Memory required for data: 1781772000
I0504 05:29:03.348747 14520 layer_factory.hpp:77] Creating layer pool0
I0504 05:29:03.348757 14520 net.cpp:86] Creating Layer pool0
I0504 05:29:03.348759 14520 net.cpp:408] pool0 <- Sigmoid0
I0504 05:29:03.348764 14520 net.cpp:382] pool0 -> pool0
I0504 05:29:03.349025 14520 net.cpp:124] Setting up pool0
I0504 05:29:03.349037 14520 net.cpp:131] Top shape: 1000 216 16 16 (55296000)
I0504 05:29:03.349041 14520 net.cpp:139] Memory required for data: 2002956000
I0504 05:29:03.349045 14520 layer_factory.hpp:77] Creating layer ip1
I0504 05:29:03.349053 14520 net.cpp:86] Creating Layer ip1
I0504 05:29:03.349057 14520 net.cpp:408] ip1 <- pool0
I0504 05:29:03.349066 14520 net.cpp:382] ip1 -> ip1
I0504 05:29:03.364301 14520 net.cpp:124] Setting up ip1
I0504 05:29:03.364315 14520 net.cpp:131] Top shape: 1000 10 (10000)
I0504 05:29:03.364332 14520 net.cpp:139] Memory required for data: 2002996000
I0504 05:29:03.364341 14520 layer_factory.hpp:77] Creating layer relu1
I0504 05:29:03.364347 14520 net.cpp:86] Creating Layer relu1
I0504 05:29:03.364351 14520 net.cpp:408] relu1 <- ip1
I0504 05:29:03.364356 14520 net.cpp:369] relu1 -> ip1 (in-place)
I0504 05:29:03.364542 14520 net.cpp:124] Setting up relu1
I0504 05:29:03.364552 14520 net.cpp:131] Top shape: 1000 10 (10000)
I0504 05:29:03.364554 14520 net.cpp:139] Memory required for data: 2003036000
I0504 05:29:03.364557 14520 layer_factory.hpp:77] Creating layer ip2
I0504 05:29:03.364565 14520 net.cpp:86] Creating Layer ip2
I0504 05:29:03.364568 14520 net.cpp:408] ip2 <- ip1
I0504 05:29:03.364573 14520 net.cpp:382] ip2 -> ip2
I0504 05:29:03.364693 14520 net.cpp:124] Setting up ip2
I0504 05:29:03.364702 14520 net.cpp:131] Top shape: 1000 10 (10000)
I0504 05:29:03.364706 14520 net.cpp:139] Memory required for data: 2003076000
I0504 05:29:03.364712 14520 layer_factory.hpp:77] Creating layer relu2
I0504 05:29:03.364719 14520 net.cpp:86] Creating Layer relu2
I0504 05:29:03.364723 14520 net.cpp:408] relu2 <- ip2
I0504 05:29:03.364727 14520 net.cpp:369] relu2 -> ip2 (in-place)
I0504 05:29:03.364923 14520 net.cpp:124] Setting up relu2
I0504 05:29:03.364934 14520 net.cpp:131] Top shape: 1000 10 (10000)
I0504 05:29:03.364938 14520 net.cpp:139] Memory required for data: 2003116000
I0504 05:29:03.364940 14520 layer_factory.hpp:77] Creating layer ip3
I0504 05:29:03.364948 14520 net.cpp:86] Creating Layer ip3
I0504 05:29:03.364950 14520 net.cpp:408] ip3 <- ip2
I0504 05:29:03.364956 14520 net.cpp:382] ip3 -> ip3
I0504 05:29:03.365077 14520 net.cpp:124] Setting up ip3
I0504 05:29:03.365083 14520 net.cpp:131] Top shape: 1000 10 (10000)
I0504 05:29:03.365097 14520 net.cpp:139] Memory required for data: 2003156000
I0504 05:29:03.365103 14520 layer_factory.hpp:77] Creating layer ip3_ip3_0_split
I0504 05:29:03.365108 14520 net.cpp:86] Creating Layer ip3_ip3_0_split
I0504 05:29:03.365111 14520 net.cpp:408] ip3_ip3_0_split <- ip3
I0504 05:29:03.365115 14520 net.cpp:382] ip3_ip3_0_split -> ip3_ip3_0_split_0
I0504 05:29:03.365121 14520 net.cpp:382] ip3_ip3_0_split -> ip3_ip3_0_split_1
I0504 05:29:03.365170 14520 net.cpp:124] Setting up ip3_ip3_0_split
I0504 05:29:03.365175 14520 net.cpp:131] Top shape: 1000 10 (10000)
I0504 05:29:03.365177 14520 net.cpp:131] Top shape: 1000 10 (10000)
I0504 05:29:03.365180 14520 net.cpp:139] Memory required for data: 2003236000
I0504 05:29:03.365183 14520 layer_factory.hpp:77] Creating layer accuracy
I0504 05:29:03.365190 14520 net.cpp:86] Creating Layer accuracy
I0504 05:29:03.365192 14520 net.cpp:408] accuracy <- ip3_ip3_0_split_0
I0504 05:29:03.365196 14520 net.cpp:408] accuracy <- label_cifar_1_split_0
I0504 05:29:03.365200 14520 net.cpp:382] accuracy -> accuracy
…
