…
I0504 14:34:37.467734  4088 net.cpp:296] The NetState phase (0) differed from the phase (1) specified by a rule in layer cifar
I0504 14:34:37.467759  4088 net.cpp:296] The NetState phase (0) differed from the phase (1) specified by a rule in layer accuracy
I0504 14:34:37.467870  4088 net.cpp:53] Initializing net from parameters: 
name: "CIFAR"
state {
  phase: TRAIN
  level: 0
  stage: ""
}
layer {
  name: "cifar"
  type: "Data"
  top: "data"
  top: "label"
  include {
    phase: TRAIN
  }
  transform_param {
    mean_file: "examples/cifar10/mean.binaryproto"
  }
  data_param {
    source: "examples/cifar10/cifar10_train_lmdb"
    batch_size: 111
    backend: LMDB
  }
}
layer {
  name: "conv0"
  type: "Convolution"
  bottom: "data"
  top: "conv0"
  param {
    lr_mult: 1
  }
  param {
    lr_mult: 2
  }
  convolution_param {
    num_output: 24
    pad: 2
    kernel_size: 5
    stride: 1
    weight_filler {
      type: "gaussian"
      std: 0.01
    }
    bias_filler {
      type: "constant"
    }
  }
}
layer {
  name: "Sigmoid0"
  type: "Sigmoid"
  bottom: "conv0"
  top: "Sigmoid0"
}
layer {
  name: "pool0"
  type: "Pooling"
  bottom: "Sigmoid0"
  top: "pool0"
  pooling_param {
    pool: AVE
    kernel_size: 3
    stride: 2
  }
}
layer {
  name: "conv1"
  type: "Convolution"
  bottom: "pool0"
  top: "conv1"
  param {
    lr_mult: 1
  }
  param {
    lr_mult: 2
  }
  convolution_param {
    num_output: 216
    pad: 2
    kernel_size: 5
    stride: 1
    weight_filler {
      type: "gaussian"
      std: 0.01
    }
    bias_filler {
      type: "constant"
    }
  }
}
layer {
  name: "Sigmoid1"
  type: "Sigmoid"
  bottom: "conv1"
  top: "Sigmoid1"
}
layer {
  name: "pool1"
  type: "Pooling"
  bottom: "Sigmoid1"
  top: "pool1"
  pooling_param {
    pool: AVE
    kernel_size: 3
    stride: 2
  }
}
layer {
  name: "ip1"
  type: "InnerProduct"
  bottom: "pool1"
  top: "ip1"
  param {
    lr_mult: 1
  }
  param {
    lr_mult: 2
  }
  inner_product_param {
    num_output: 10
    weight_filler {
      type: "gaussian"
      std: 0.01
    }
    bias_filler {
      type: "constant"
    }
  }
}
layer {
  name: "relu1"
  type: "ReLU"
  bottom: "ip1"
  top: "ip1"
}
layer {
  name: "ip2"
  type: "InnerProduct"
  bottom: "ip1"
  top: "ip2"
  param {
    lr_mult: 1
  }
  param {
    lr_mult: 2
  }
  inner_product_param {
    num_output: 180
    weight_filler {
      type: "gaussian"
      std: 0.01
    }
    bias_filler {
      type: "constant"
    }
  }
}
layer {
  name: "relu2"
  type: "ReLU"
  bottom: "ip2"
  top: "ip2"
}
layer {
  name: "ip3"
  type: "InnerProduct"
  bottom: "ip2"
  top: "ip3"
  param {
    lr_mult: 1
  }
  param {
    lr_mult: 2
  }
  inner_product_param {
    num_output: 10
    weight_filler {
      type: "gaussian"
      std: 0.01
    }
    bias_filler {
      type: "constant"
    }
  }
}
layer {
  name: "loss"
  type: "SoftmaxWithLoss"
  bottom: "ip3"
  bottom: "label"
  top: "loss"
}
I0504 14:34:37.467954  4088 layer_factory.hpp:77] Creating layer cifar
I0504 14:34:37.468055  4088 db_lmdb.cpp:35] Opened lmdb examples/cifar10/cifar10_train_lmdb
I0504 14:34:37.468080  4088 net.cpp:86] Creating Layer cifar
I0504 14:34:37.468089  4088 net.cpp:382] cifar -> data
I0504 14:34:37.468113  4088 net.cpp:382] cifar -> label
I0504 14:34:37.468125  4088 data_transformer.cpp:25] Loading mean file from: examples/cifar10/mean.binaryproto
I0504 14:34:37.470322  4088 data_layer.cpp:45] output data size: 111,3,32,32
I0504 14:34:37.478346  4088 net.cpp:124] Setting up cifar
I0504 14:34:37.478368  4088 net.cpp:131] Top shape: 111 3 32 32 (340992)
I0504 14:34:37.478375  4088 net.cpp:131] Top shape: 111 (111)
I0504 14:34:37.478379  4088 net.cpp:139] Memory required for data: 1364412
I0504 14:34:37.478387  4088 layer_factory.hpp:77] Creating layer conv0
I0504 14:34:37.478404  4088 net.cpp:86] Creating Layer conv0
I0504 14:34:37.478410  4088 net.cpp:408] conv0 <- data
I0504 14:34:37.478428  4088 net.cpp:382] conv0 -> conv0
I0504 14:34:37.746196  4088 net.cpp:124] Setting up conv0
I0504 14:34:37.746222  4088 net.cpp:131] Top shape: 111 24 32 32 (2727936)
I0504 14:34:37.746227  4088 net.cpp:139] Memory required for data: 12276156
I0504 14:34:37.746240  4088 layer_factory.hpp:77] Creating layer Sigmoid0
I0504 14:34:37.746251  4088 net.cpp:86] Creating Layer Sigmoid0
I0504 14:34:37.746254  4088 net.cpp:408] Sigmoid0 <- conv0
I0504 14:34:37.746259  4088 net.cpp:382] Sigmoid0 -> Sigmoid0
I0504 14:34:37.746456  4088 net.cpp:124] Setting up Sigmoid0
I0504 14:34:37.746465  4088 net.cpp:131] Top shape: 111 24 32 32 (2727936)
I0504 14:34:37.746484  4088 net.cpp:139] Memory required for data: 23187900
I0504 14:34:37.746487  4088 layer_factory.hpp:77] Creating layer pool0
I0504 14:34:37.746510  4088 net.cpp:86] Creating Layer pool0
I0504 14:34:37.746513  4088 net.cpp:408] pool0 <- Sigmoid0
I0504 14:34:37.746518  4088 net.cpp:382] pool0 -> pool0
I0504 14:34:37.747274  4088 net.cpp:124] Setting up pool0
I0504 14:34:37.747287  4088 net.cpp:131] Top shape: 111 24 16 16 (681984)
I0504 14:34:37.747304  4088 net.cpp:139] Memory required for data: 25915836
I0504 14:34:37.747308  4088 layer_factory.hpp:77] Creating layer conv1
I0504 14:34:37.747321  4088 net.cpp:86] Creating Layer conv1
I0504 14:34:37.747324  4088 net.cpp:408] conv1 <- pool0
I0504 14:34:37.747331  4088 net.cpp:382] conv1 -> conv1
I0504 14:34:37.752538  4088 net.cpp:124] Setting up conv1
I0504 14:34:37.752552  4088 net.cpp:131] Top shape: 111 216 16 16 (6137856)
I0504 14:34:37.752555  4088 net.cpp:139] Memory required for data: 50467260
I0504 14:34:37.752563  4088 layer_factory.hpp:77] Creating layer Sigmoid1
I0504 14:34:37.752569  4088 net.cpp:86] Creating Layer Sigmoid1
I0504 14:34:37.752573  4088 net.cpp:408] Sigmoid1 <- conv1
I0504 14:34:37.752576  4088 net.cpp:382] Sigmoid1 -> Sigmoid1
I0504 14:34:37.752759  4088 net.cpp:124] Setting up Sigmoid1
I0504 14:34:37.752768  4088 net.cpp:131] Top shape: 111 216 16 16 (6137856)
I0504 14:34:37.752771  4088 net.cpp:139] Memory required for data: 75018684
I0504 14:34:37.752789  4088 layer_factory.hpp:77] Creating layer pool1
I0504 14:34:37.752797  4088 net.cpp:86] Creating Layer pool1
I0504 14:34:37.752825  4088 net.cpp:408] pool1 <- Sigmoid1
I0504 14:34:37.752845  4088 net.cpp:382] pool1 -> pool1
I0504 14:34:37.753046  4088 net.cpp:124] Setting up pool1
I0504 14:34:37.753056  4088 net.cpp:131] Top shape: 111 216 8 8 (1534464)
I0504 14:34:37.753059  4088 net.cpp:139] Memory required for data: 81156540
I0504 14:34:37.753062  4088 layer_factory.hpp:77] Creating layer ip1
I0504 14:34:37.753069  4088 net.cpp:86] Creating Layer ip1
I0504 14:34:37.753073  4088 net.cpp:408] ip1 <- pool1
I0504 14:34:37.753079  4088 net.cpp:382] ip1 -> ip1
I0504 14:34:37.756989  4088 net.cpp:124] Setting up ip1
I0504 14:34:37.756997  4088 net.cpp:131] Top shape: 111 10 (1110)
I0504 14:34:37.757016  4088 net.cpp:139] Memory required for data: 81160980
I0504 14:34:37.757024  4088 layer_factory.hpp:77] Creating layer relu1
I0504 14:34:37.757030  4088 net.cpp:86] Creating Layer relu1
I0504 14:34:37.757035  4088 net.cpp:408] relu1 <- ip1
I0504 14:34:37.757040  4088 net.cpp:369] relu1 -> ip1 (in-place)
I0504 14:34:37.757221  4088 net.cpp:124] Setting up relu1
I0504 14:34:37.757230  4088 net.cpp:131] Top shape: 111 10 (1110)
I0504 14:34:37.757248  4088 net.cpp:139] Memory required for data: 81165420
I0504 14:34:37.757251  4088 layer_factory.hpp:77] Creating layer ip2
I0504 14:34:37.757256  4088 net.cpp:86] Creating Layer ip2
I0504 14:34:37.757259  4088 net.cpp:408] ip2 <- ip1
I0504 14:34:37.757279  4088 net.cpp:382] ip2 -> ip2
I0504 14:34:37.757426  4088 net.cpp:124] Setting up ip2
I0504 14:34:37.757434  4088 net.cpp:131] Top shape: 111 180 (19980)
I0504 14:34:37.757437  4088 net.cpp:139] Memory required for data: 81245340
I0504 14:34:37.757442  4088 layer_factory.hpp:77] Creating layer relu2
I0504 14:34:37.757447  4088 net.cpp:86] Creating Layer relu2
I0504 14:34:37.757450  4088 net.cpp:408] relu2 <- ip2
I0504 14:34:37.757454  4088 net.cpp:369] relu2 -> ip2 (in-place)
I0504 14:34:37.758213  4088 net.cpp:124] Setting up relu2
I0504 14:34:37.758224  4088 net.cpp:131] Top shape: 111 180 (19980)
I0504 14:34:37.758244  4088 net.cpp:139] Memory required for data: 81325260
I0504 14:34:37.758246  4088 layer_factory.hpp:77] Creating layer ip3
I0504 14:34:37.758255  4088 net.cpp:86] Creating Layer ip3
I0504 14:34:37.758257  4088 net.cpp:408] ip3 <- ip2
I0504 14:34:37.758262  4088 net.cpp:382] ip3 -> ip3
I0504 14:34:37.758460  4088 net.cpp:124] Setting up ip3
I0504 14:34:37.758468  4088 net.cpp:131] Top shape: 111 10 (1110)
I0504 14:34:37.758472  4088 net.cpp:139] Memory required for data: 81329700
I0504 14:34:37.758481  4088 layer_factory.hpp:77] Creating layer loss
I0504 14:34:37.758486  4088 net.cpp:86] Creating Layer loss
I0504 14:34:37.758489  4088 net.cpp:408] loss <- ip3
I0504 14:34:37.758494  4088 net.cpp:408] loss <- label
I0504 14:34:37.758499  4088 net.cpp:382] loss -> loss
I0504 14:34:37.758512  4088 layer_factory.hpp:77] Creating layer loss
…
I0504 14:34:37.759277  4088 solver.cpp:173] Creating test net (#0) specified by net file: ECE595/cifar/train_test/var_everything_tiny/cifar_train_test_173.prototxt
I0504 14:34:37.759321  4088 net.cpp:296] The NetState phase (1) differed from the phase (0) specified by a rule in layer cifar
I0504 14:34:37.759426  4088 net.cpp:53] Initializing net from parameters: 
name: "CIFAR"
state {
  phase: TEST
}
layer {
  name: "cifar"
  type: "Data"
  top: "data"
  top: "label"
  include {
    phase: TEST
  }
  transform_param {
    mean_file: "examples/cifar10/mean.binaryproto"
  }
  data_param {
    source: "examples/cifar10/cifar10_test_lmdb"
    batch_size: 1000
    backend: LMDB
  }
}
layer {
  name: "conv0"
  type: "Convolution"
  bottom: "data"
  top: "conv0"
  param {
    lr_mult: 1
  }
  param {
    lr_mult: 2
  }
  convolution_param {
    num_output: 24
    pad: 2
    kernel_size: 5
    stride: 1
    weight_filler {
      type: "gaussian"
      std: 0.01
    }
    bias_filler {
      type: "constant"
    }
  }
}
layer {
  name: "Sigmoid0"
  type: "Sigmoid"
  bottom: "conv0"
  top: "Sigmoid0"
}
layer {
  name: "pool0"
  type: "Pooling"
  bottom: "Sigmoid0"
  top: "pool0"
  pooling_param {
    pool: AVE
    kernel_size: 3
    stride: 2
  }
}
layer {
  name: "conv1"
  type: "Convolution"
  bottom: "pool0"
  top: "conv1"
  param {
    lr_mult: 1
  }
  param {
    lr_mult: 2
  }
  convolution_param {
    num_output: 216
    pad: 2
    kernel_size: 5
    stride: 1
    weight_filler {
      type: "gaussian"
      std: 0.01
    }
    bias_filler {
      type: "constant"
    }
  }
}
layer {
  name: "Sigmoid1"
  type: "Sigmoid"
  bottom: "conv1"
  top: "Sigmoid1"
}
layer {
  name: "pool1"
  type: "Pooling"
  bottom: "Sigmoid1"
  top: "pool1"
  pooling_param {
    pool: AVE
    kernel_size: 3
    stride: 2
  }
}
layer {
  name: "ip1"
  type: "InnerProduct"
  bottom: "pool1"
  top: "ip1"
  param {
    lr_mult: 1
  }
  param {
    lr_mult: 2
  }
  inner_product_param {
    num_output: 10
    weight_filler {
      type: "gaussian"
      std: 0.01
    }
    bias_filler {
      type: "constant"
    }
  }
}
layer {
  name: "relu1"
  type: "ReLU"
  bottom: "ip1"
  top: "ip1"
}
layer {
  name: "ip2"
  type: "InnerProduct"
  bottom: "ip1"
  top: "ip2"
  param {
    lr_mult: 1
  }
  param {
    lr_mult: 2
  }
  inner_product_param {
    num_output: 180
    weight_filler {
      type: "gaussian"
      std: 0.01
    }
    bias_filler {
      type: "constant"
    }
  }
}
layer {
  name: "relu2"
  type: "ReLU"
  bottom: "ip2"
  top: "ip2"
}
layer {
  name: "ip3"
  type: "InnerProduct"
  bottom: "ip2"
  top: "ip3"
  param {
    lr_mult: 1
  }
  param {
    lr_mult: 2
  }
  inner_product_param {
    num_output: 10
    weight_filler {
      type: "gaussian"
      std: 0.01
    }
    bias_filler {
      type: "constant"
    }
  }
}
layer {
  name: "accuracy"
  type: "Accuracy"
  bottom: "ip3"
  bottom: "label"
  top: "accuracy"
  include {
    phase: TEST
  }
}
layer {
  name: "loss"
  type: "SoftmaxWithLoss"
  bottom: "ip3"
  bottom: "label"
  top: "loss"
}
I0504 14:34:37.759516  4088 layer_factory.hpp:77] Creating layer cifar
I0504 14:34:37.759575  4088 db_lmdb.cpp:35] Opened lmdb examples/cifar10/cifar10_test_lmdb
I0504 14:34:37.759588  4088 net.cpp:86] Creating Layer cifar
I0504 14:34:37.759594  4088 net.cpp:382] cifar -> data
I0504 14:34:37.759603  4088 net.cpp:382] cifar -> label
I0504 14:34:37.759609  4088 data_transformer.cpp:25] Loading mean file from: examples/cifar10/mean.binaryproto
I0504 14:34:37.759760  4088 data_layer.cpp:45] output data size: 1000,3,32,32
I0504 14:34:37.782600  4088 net.cpp:124] Setting up cifar
I0504 14:34:37.782642  4088 net.cpp:131] Top shape: 1000 3 32 32 (3072000)
I0504 14:34:37.782649  4088 net.cpp:131] Top shape: 1000 (1000)
I0504 14:34:37.782652  4088 net.cpp:139] Memory required for data: 12292000
I0504 14:34:37.782660  4088 layer_factory.hpp:77] Creating layer label_cifar_1_split
I0504 14:34:37.782672  4088 net.cpp:86] Creating Layer label_cifar_1_split
I0504 14:34:37.782676  4088 net.cpp:408] label_cifar_1_split <- label
I0504 14:34:37.782682  4088 net.cpp:382] label_cifar_1_split -> label_cifar_1_split_0
I0504 14:34:37.782707  4088 net.cpp:382] label_cifar_1_split -> label_cifar_1_split_1
I0504 14:34:37.782806  4088 net.cpp:124] Setting up label_cifar_1_split
I0504 14:34:37.782814  4088 net.cpp:131] Top shape: 1000 (1000)
I0504 14:34:37.782819  4088 net.cpp:131] Top shape: 1000 (1000)
I0504 14:34:37.782821  4088 net.cpp:139] Memory required for data: 12300000
I0504 14:34:37.782824  4088 layer_factory.hpp:77] Creating layer conv0
I0504 14:34:37.782838  4088 net.cpp:86] Creating Layer conv0
I0504 14:34:37.782842  4088 net.cpp:408] conv0 <- data
I0504 14:34:37.782850  4088 net.cpp:382] conv0 -> conv0
I0504 14:34:37.785615  4088 net.cpp:124] Setting up conv0
I0504 14:34:37.785647  4088 net.cpp:131] Top shape: 1000 24 32 32 (24576000)
I0504 14:34:37.785651  4088 net.cpp:139] Memory required for data: 110604000
I0504 14:34:37.785665  4088 layer_factory.hpp:77] Creating layer Sigmoid0
I0504 14:34:37.785671  4088 net.cpp:86] Creating Layer Sigmoid0
I0504 14:34:37.785675  4088 net.cpp:408] Sigmoid0 <- conv0
I0504 14:34:37.785679  4088 net.cpp:382] Sigmoid0 -> Sigmoid0
I0504 14:34:37.785917  4088 net.cpp:124] Setting up Sigmoid0
I0504 14:34:37.785941  4088 net.cpp:131] Top shape: 1000 24 32 32 (24576000)
I0504 14:34:37.785945  4088 net.cpp:139] Memory required for data: 208908000
I0504 14:34:37.785949  4088 layer_factory.hpp:77] Creating layer pool0
I0504 14:34:37.785959  4088 net.cpp:86] Creating Layer pool0
I0504 14:34:37.785964  4088 net.cpp:408] pool0 <- Sigmoid0
I0504 14:34:37.785969  4088 net.cpp:382] pool0 -> pool0
I0504 14:34:37.786171  4088 net.cpp:124] Setting up pool0
I0504 14:34:37.786181  4088 net.cpp:131] Top shape: 1000 24 16 16 (6144000)
I0504 14:34:37.786185  4088 net.cpp:139] Memory required for data: 233484000
I0504 14:34:37.786188  4088 layer_factory.hpp:77] Creating layer conv1
I0504 14:34:37.786198  4088 net.cpp:86] Creating Layer conv1
I0504 14:34:37.786202  4088 net.cpp:408] conv1 <- pool0
I0504 14:34:37.786209  4088 net.cpp:382] conv1 -> conv1
I0504 14:34:37.791935  4088 net.cpp:124] Setting up conv1
I0504 14:34:37.791965  4088 net.cpp:131] Top shape: 1000 216 16 16 (55296000)
I0504 14:34:37.791968  4088 net.cpp:139] Memory required for data: 454668000
I0504 14:34:37.791977  4088 layer_factory.hpp:77] Creating layer Sigmoid1
I0504 14:34:37.791986  4088 net.cpp:86] Creating Layer Sigmoid1
I0504 14:34:37.791990  4088 net.cpp:408] Sigmoid1 <- conv1
I0504 14:34:37.791995  4088 net.cpp:382] Sigmoid1 -> Sigmoid1
I0504 14:34:37.792217  4088 net.cpp:124] Setting up Sigmoid1
I0504 14:34:37.792229  4088 net.cpp:131] Top shape: 1000 216 16 16 (55296000)
I0504 14:34:37.792232  4088 net.cpp:139] Memory required for data: 675852000
I0504 14:34:37.792237  4088 layer_factory.hpp:77] Creating layer pool1
I0504 14:34:37.792243  4088 net.cpp:86] Creating Layer pool1
I0504 14:34:37.792246  4088 net.cpp:408] pool1 <- Sigmoid1
I0504 14:34:37.792251  4088 net.cpp:382] pool1 -> pool1
I0504 14:34:37.793128  4088 net.cpp:124] Setting up pool1
I0504 14:34:37.793143  4088 net.cpp:131] Top shape: 1000 216 8 8 (13824000)
I0504 14:34:37.793148  4088 net.cpp:139] Memory required for data: 731148000
I0504 14:34:37.793151  4088 layer_factory.hpp:77] Creating layer ip1
I0504 14:34:37.793179  4088 net.cpp:86] Creating Layer ip1
I0504 14:34:37.793197  4088 net.cpp:408] ip1 <- pool1
I0504 14:34:37.793205  4088 net.cpp:382] ip1 -> ip1
I0504 14:34:37.797360  4088 net.cpp:124] Setting up ip1
I0504 14:34:37.797369  4088 net.cpp:131] Top shape: 1000 10 (10000)
I0504 14:34:37.797389  4088 net.cpp:139] Memory required for data: 731188000
I0504 14:34:37.797397  4088 layer_factory.hpp:77] Creating layer relu1
I0504 14:34:37.797406  4088 net.cpp:86] Creating Layer relu1
I0504 14:34:37.797410  4088 net.cpp:408] relu1 <- ip1
I0504 14:34:37.797415  4088 net.cpp:369] relu1 -> ip1 (in-place)
I0504 14:34:37.797619  4088 net.cpp:124] Setting up relu1
I0504 14:34:37.797628  4088 net.cpp:131] Top shape: 1000 10 (10000)
I0504 14:34:37.797631  4088 net.cpp:139] Memory required for data: 731228000
I0504 14:34:37.797636  4088 layer_factory.hpp:77] Creating layer ip2
I0504 14:34:37.797646  4088 net.cpp:86] Creating Layer ip2
I0504 14:34:37.797650  4088 net.cpp:408] ip2 <- ip1
I0504 14:34:37.797657  4088 net.cpp:382] ip2 -> ip2
I0504 14:34:37.797829  4088 net.cpp:124] Setting up ip2
I0504 14:34:37.797837  4088 net.cpp:131] Top shape: 1000 180 (180000)
I0504 14:34:37.797842  4088 net.cpp:139] Memory required for data: 731948000
I0504 14:34:37.797847  4088 layer_factory.hpp:77] Creating layer relu2
I0504 14:34:37.797853  4088 net.cpp:86] Creating Layer relu2
I0504 14:34:37.797857  4088 net.cpp:408] relu2 <- ip2
I0504 14:34:37.797861  4088 net.cpp:369] relu2 -> ip2 (in-place)
I0504 14:34:37.798039  4088 net.cpp:124] Setting up relu2
I0504 14:34:37.798049  4088 net.cpp:131] Top shape: 1000 180 (180000)
I0504 14:34:37.798053  4088 net.cpp:139] Memory required for data: 732668000
I0504 14:34:37.798056  4088 layer_factory.hpp:77] Creating layer ip3
I0504 14:34:37.798063  4088 net.cpp:86] Creating Layer ip3
I0504 14:34:37.798068  4088 net.cpp:408] ip3 <- ip2
I0504 14:34:37.798082  4088 net.cpp:382] ip3 -> ip3
I0504 14:34:37.798254  4088 net.cpp:124] Setting up ip3
I0504 14:34:37.798274  4088 net.cpp:131] Top shape: 1000 10 (10000)
I0504 14:34:37.798276  4088 net.cpp:139] Memory required for data: 732708000
I0504 14:34:37.798287  4088 layer_factory.hpp:77] Creating layer ip3_ip3_0_split
I0504 14:34:37.798293  4088 net.cpp:86] Creating Layer ip3_ip3_0_split
I0504 14:34:37.798296  4088 net.cpp:408] ip3_ip3_0_split <- ip3
I0504 14:34:37.798303  4088 net.cpp:382] ip3_ip3_0_split -> ip3_ip3_0_split_0
I0504 14:34:37.798310  4088 net.cpp:382] ip3_ip3_0_split -> ip3_ip3_0_split_1
I0504 14:34:37.798347  4088 net.cpp:124] Setting up ip3_ip3_0_split
I0504 14:34:37.798354  4088 net.cpp:131] Top shape: 1000 10 (10000)
I0504 14:34:37.798360  4088 net.cpp:131] Top shape: 1000 10 (10000)
I0504 14:34:37.798363  4088 net.cpp:139] Memory required for data: 732788000
I0504 14:34:37.798367  4088 layer_factory.hpp:77] Creating layer accuracy
I0504 14:34:37.798373  4088 net.cpp:86] Creating Layer accuracy
I0504 14:34:37.798377  4088 net.cpp:408] accuracy <- ip3_ip3_0_split_0
I0504 14:34:37.798380  4088 net.cpp:408] accuracy <- label_cifar_1_split_0
I0504 14:34:37.798387  4088 net.cpp:382] accuracy -> accuracy
…
