…
I0504 17:00:20.396975 10665 net.cpp:296] The NetState phase (0) differed from the phase (1) specified by a rule in layer cifar
I0504 17:00:20.396991 10665 net.cpp:296] The NetState phase (0) differed from the phase (1) specified by a rule in layer accuracy
I0504 17:00:20.397075 10665 net.cpp:53] Initializing net from parameters: 
name: "CIFAR"
state {
  phase: TRAIN
  level: 0
  stage: ""
}
layer {
  name: "cifar"
  type: "Data"
  top: "data"
  top: "label"
  include {
    phase: TRAIN
  }
  transform_param {
    mean_file: "examples/cifar10/mean.binaryproto"
  }
  data_param {
    source: "examples/cifar10/cifar10_train_lmdb"
    batch_size: 111
    backend: LMDB
  }
}
layer {
  name: "conv0"
  type: "Convolution"
  bottom: "data"
  top: "conv0"
  param {
    lr_mult: 1
  }
  param {
    lr_mult: 2
  }
  convolution_param {
    num_output: 72
    pad: 2
    kernel_size: 5
    stride: 1
    weight_filler {
      type: "gaussian"
      std: 0.01
    }
    bias_filler {
      type: "constant"
    }
  }
}
layer {
  name: "Sigmoid0"
  type: "Sigmoid"
  bottom: "conv0"
  top: "Sigmoid0"
}
layer {
  name: "pool0"
  type: "Pooling"
  bottom: "Sigmoid0"
  top: "pool0"
  pooling_param {
    pool: AVE
    kernel_size: 3
    stride: 2
  }
}
layer {
  name: "conv1"
  type: "Convolution"
  bottom: "pool0"
  top: "conv1"
  param {
    lr_mult: 1
  }
  param {
    lr_mult: 2
  }
  convolution_param {
    num_output: 72
    pad: 2
    kernel_size: 3
    stride: 1
    weight_filler {
      type: "gaussian"
      std: 0.01
    }
    bias_filler {
      type: "constant"
    }
  }
}
layer {
  name: "Sigmoid1"
  type: "Sigmoid"
  bottom: "conv1"
  top: "Sigmoid1"
}
layer {
  name: "pool1"
  type: "Pooling"
  bottom: "Sigmoid1"
  top: "pool1"
  pooling_param {
    pool: AVE
    kernel_size: 3
    stride: 2
  }
}
layer {
  name: "ip1"
  type: "InnerProduct"
  bottom: "pool1"
  top: "ip1"
  param {
    lr_mult: 1
  }
  param {
    lr_mult: 2
  }
  inner_product_param {
    num_output: 60
    weight_filler {
      type: "gaussian"
      std: 0.01
    }
    bias_filler {
      type: "constant"
    }
  }
}
layer {
  name: "relu1"
  type: "ReLU"
  bottom: "ip1"
  top: "ip1"
}
layer {
  name: "ip2"
  type: "InnerProduct"
  bottom: "ip1"
  top: "ip2"
  param {
    lr_mult: 1
  }
  param {
    lr_mult: 2
  }
  inner_product_param {
    num_output: 10
    weight_filler {
      type: "gaussian"
      std: 0.01
    }
    bias_filler {
      type: "constant"
    }
  }
}
layer {
  name: "loss"
  type: "SoftmaxWithLoss"
  bottom: "ip2"
  bottom: "label"
  top: "loss"
}
I0504 17:00:20.397140 10665 layer_factory.hpp:77] Creating layer cifar
I0504 17:00:20.397230 10665 db_lmdb.cpp:35] Opened lmdb examples/cifar10/cifar10_train_lmdb
I0504 17:00:20.397254 10665 net.cpp:86] Creating Layer cifar
I0504 17:00:20.397263 10665 net.cpp:382] cifar -> data
I0504 17:00:20.397282 10665 net.cpp:382] cifar -> label
I0504 17:00:20.397292 10665 data_transformer.cpp:25] Loading mean file from: examples/cifar10/mean.binaryproto
I0504 17:00:20.399268 10665 data_layer.cpp:45] output data size: 111,3,32,32
I0504 17:00:20.406327 10665 net.cpp:124] Setting up cifar
I0504 17:00:20.406343 10665 net.cpp:131] Top shape: 111 3 32 32 (340992)
I0504 17:00:20.406349 10665 net.cpp:131] Top shape: 111 (111)
I0504 17:00:20.406352 10665 net.cpp:139] Memory required for data: 1364412
I0504 17:00:20.406359 10665 layer_factory.hpp:77] Creating layer conv0
I0504 17:00:20.406374 10665 net.cpp:86] Creating Layer conv0
I0504 17:00:20.406394 10665 net.cpp:408] conv0 <- data
I0504 17:00:20.406404 10665 net.cpp:382] conv0 -> conv0
I0504 17:00:20.648466 10665 net.cpp:124] Setting up conv0
I0504 17:00:20.648509 10665 net.cpp:131] Top shape: 111 72 32 32 (8183808)
I0504 17:00:20.648514 10665 net.cpp:139] Memory required for data: 34099644
I0504 17:00:20.648527 10665 layer_factory.hpp:77] Creating layer Sigmoid0
I0504 17:00:20.648538 10665 net.cpp:86] Creating Layer Sigmoid0
I0504 17:00:20.648542 10665 net.cpp:408] Sigmoid0 <- conv0
I0504 17:00:20.648548 10665 net.cpp:382] Sigmoid0 -> Sigmoid0
I0504 17:00:20.648732 10665 net.cpp:124] Setting up Sigmoid0
I0504 17:00:20.648741 10665 net.cpp:131] Top shape: 111 72 32 32 (8183808)
I0504 17:00:20.648746 10665 net.cpp:139] Memory required for data: 66834876
I0504 17:00:20.648764 10665 layer_factory.hpp:77] Creating layer pool0
I0504 17:00:20.648785 10665 net.cpp:86] Creating Layer pool0
I0504 17:00:20.648789 10665 net.cpp:408] pool0 <- Sigmoid0
I0504 17:00:20.648794 10665 net.cpp:382] pool0 -> pool0
I0504 17:00:20.649643 10665 net.cpp:124] Setting up pool0
I0504 17:00:20.649657 10665 net.cpp:131] Top shape: 111 72 16 16 (2045952)
I0504 17:00:20.649675 10665 net.cpp:139] Memory required for data: 75018684
I0504 17:00:20.649678 10665 layer_factory.hpp:77] Creating layer conv1
I0504 17:00:20.649690 10665 net.cpp:86] Creating Layer conv1
I0504 17:00:20.649694 10665 net.cpp:408] conv1 <- pool0
I0504 17:00:20.649700 10665 net.cpp:382] conv1 -> conv1
I0504 17:00:20.653811 10665 net.cpp:124] Setting up conv1
I0504 17:00:20.653839 10665 net.cpp:131] Top shape: 111 72 18 18 (2589408)
I0504 17:00:20.653843 10665 net.cpp:139] Memory required for data: 85376316
I0504 17:00:20.653851 10665 layer_factory.hpp:77] Creating layer Sigmoid1
I0504 17:00:20.653857 10665 net.cpp:86] Creating Layer Sigmoid1
I0504 17:00:20.653861 10665 net.cpp:408] Sigmoid1 <- conv1
I0504 17:00:20.653867 10665 net.cpp:382] Sigmoid1 -> Sigmoid1
I0504 17:00:20.654079 10665 net.cpp:124] Setting up Sigmoid1
I0504 17:00:20.654088 10665 net.cpp:131] Top shape: 111 72 18 18 (2589408)
I0504 17:00:20.654091 10665 net.cpp:139] Memory required for data: 95733948
I0504 17:00:20.654094 10665 layer_factory.hpp:77] Creating layer pool1
I0504 17:00:20.654100 10665 net.cpp:86] Creating Layer pool1
I0504 17:00:20.654103 10665 net.cpp:408] pool1 <- Sigmoid1
I0504 17:00:20.654109 10665 net.cpp:382] pool1 -> pool1
I0504 17:00:20.654266 10665 net.cpp:124] Setting up pool1
I0504 17:00:20.654274 10665 net.cpp:131] Top shape: 111 72 9 9 (647352)
I0504 17:00:20.654278 10665 net.cpp:139] Memory required for data: 98323356
I0504 17:00:20.654281 10665 layer_factory.hpp:77] Creating layer ip1
I0504 17:00:20.654289 10665 net.cpp:86] Creating Layer ip1
I0504 17:00:20.654291 10665 net.cpp:408] ip1 <- pool1
I0504 17:00:20.654296 10665 net.cpp:382] ip1 -> ip1
I0504 17:00:20.664510 10665 net.cpp:124] Setting up ip1
I0504 17:00:20.664537 10665 net.cpp:131] Top shape: 111 60 (6660)
I0504 17:00:20.664541 10665 net.cpp:139] Memory required for data: 98349996
I0504 17:00:20.664548 10665 layer_factory.hpp:77] Creating layer relu1
I0504 17:00:20.664556 10665 net.cpp:86] Creating Layer relu1
I0504 17:00:20.664558 10665 net.cpp:408] relu1 <- ip1
I0504 17:00:20.664563 10665 net.cpp:369] relu1 -> ip1 (in-place)
I0504 17:00:20.664752 10665 net.cpp:124] Setting up relu1
I0504 17:00:20.664775 10665 net.cpp:131] Top shape: 111 60 (6660)
I0504 17:00:20.664778 10665 net.cpp:139] Memory required for data: 98376636
I0504 17:00:20.664783 10665 layer_factory.hpp:77] Creating layer ip2
I0504 17:00:20.664788 10665 net.cpp:86] Creating Layer ip2
I0504 17:00:20.664793 10665 net.cpp:408] ip2 <- ip1
I0504 17:00:20.664798 10665 net.cpp:382] ip2 -> ip2
I0504 17:00:20.664964 10665 net.cpp:124] Setting up ip2
I0504 17:00:20.664973 10665 net.cpp:131] Top shape: 111 10 (1110)
I0504 17:00:20.664976 10665 net.cpp:139] Memory required for data: 98381076
I0504 17:00:20.664983 10665 layer_factory.hpp:77] Creating layer loss
I0504 17:00:20.664988 10665 net.cpp:86] Creating Layer loss
I0504 17:00:20.665005 10665 net.cpp:408] loss <- ip2
I0504 17:00:20.665010 10665 net.cpp:408] loss <- label
I0504 17:00:20.665015 10665 net.cpp:382] loss -> loss
I0504 17:00:20.665030 10665 layer_factory.hpp:77] Creating layer loss
…
I0504 17:00:20.666368 10665 solver.cpp:173] Creating test net (#0) specified by net file: ECE595/cifar/train_test/var_everything_tiny/cifar_train_test_193.prototxt
I0504 17:00:20.666409 10665 net.cpp:296] The NetState phase (1) differed from the phase (0) specified by a rule in layer cifar
I0504 17:00:20.666497 10665 net.cpp:53] Initializing net from parameters: 
name: "CIFAR"
state {
  phase: TEST
}
layer {
  name: "cifar"
  type: "Data"
  top: "data"
  top: "label"
  include {
    phase: TEST
  }
  transform_param {
    mean_file: "examples/cifar10/mean.binaryproto"
  }
  data_param {
    source: "examples/cifar10/cifar10_test_lmdb"
    batch_size: 1000
    backend: LMDB
  }
}
layer {
  name: "conv0"
  type: "Convolution"
  bottom: "data"
  top: "conv0"
  param {
    lr_mult: 1
  }
  param {
    lr_mult: 2
  }
  convolution_param {
    num_output: 72
    pad: 2
    kernel_size: 5
    stride: 1
    weight_filler {
      type: "gaussian"
      std: 0.01
    }
    bias_filler {
      type: "constant"
    }
  }
}
layer {
  name: "Sigmoid0"
  type: "Sigmoid"
  bottom: "conv0"
  top: "Sigmoid0"
}
layer {
  name: "pool0"
  type: "Pooling"
  bottom: "Sigmoid0"
  top: "pool0"
  pooling_param {
    pool: AVE
    kernel_size: 3
    stride: 2
  }
}
layer {
  name: "conv1"
  type: "Convolution"
  bottom: "pool0"
  top: "conv1"
  param {
    lr_mult: 1
  }
  param {
    lr_mult: 2
  }
  convolution_param {
    num_output: 72
    pad: 2
    kernel_size: 3
    stride: 1
    weight_filler {
      type: "gaussian"
      std: 0.01
    }
    bias_filler {
      type: "constant"
    }
  }
}
layer {
  name: "Sigmoid1"
  type: "Sigmoid"
  bottom: "conv1"
  top: "Sigmoid1"
}
layer {
  name: "pool1"
  type: "Pooling"
  bottom: "Sigmoid1"
  top: "pool1"
  pooling_param {
    pool: AVE
    kernel_size: 3
    stride: 2
  }
}
layer {
  name: "ip1"
  type: "InnerProduct"
  bottom: "pool1"
  top: "ip1"
  param {
    lr_mult: 1
  }
  param {
    lr_mult: 2
  }
  inner_product_param {
    num_output: 60
    weight_filler {
      type: "gaussian"
      std: 0.01
    }
    bias_filler {
      type: "constant"
    }
  }
}
layer {
  name: "relu1"
  type: "ReLU"
  bottom: "ip1"
  top: "ip1"
}
layer {
  name: "ip2"
  type: "InnerProduct"
  bottom: "ip1"
  top: "ip2"
  param {
    lr_mult: 1
  }
  param {
    lr_mult: 2
  }
  inner_product_param {
    num_output: 10
    weight_filler {
      type: "gaussian"
      std: 0.01
    }
    bias_filler {
      type: "constant"
    }
  }
}
layer {
  name: "accuracy"
  type: "Accuracy"
  bottom: "ip2"
  bottom: "label"
  top: "accuracy"
  include {
    phase: TEST
  }
}
layer {
  name: "loss"
  type: "SoftmaxWithLoss"
  bottom: "ip2"
  bottom: "label"
  top: "loss"
}
I0504 17:00:20.666574 10665 layer_factory.hpp:77] Creating layer cifar
I0504 17:00:20.666621 10665 db_lmdb.cpp:35] Opened lmdb examples/cifar10/cifar10_test_lmdb
I0504 17:00:20.666633 10665 net.cpp:86] Creating Layer cifar
I0504 17:00:20.666638 10665 net.cpp:382] cifar -> data
I0504 17:00:20.666646 10665 net.cpp:382] cifar -> label
I0504 17:00:20.666653 10665 data_transformer.cpp:25] Loading mean file from: examples/cifar10/mean.binaryproto
I0504 17:00:20.666807 10665 data_layer.cpp:45] output data size: 1000,3,32,32
I0504 17:00:20.689126 10665 net.cpp:124] Setting up cifar
I0504 17:00:20.689167 10665 net.cpp:131] Top shape: 1000 3 32 32 (3072000)
I0504 17:00:20.689173 10665 net.cpp:131] Top shape: 1000 (1000)
I0504 17:00:20.689177 10665 net.cpp:139] Memory required for data: 12292000
I0504 17:00:20.689182 10665 layer_factory.hpp:77] Creating layer label_cifar_1_split
I0504 17:00:20.689193 10665 net.cpp:86] Creating Layer label_cifar_1_split
I0504 17:00:20.689198 10665 net.cpp:408] label_cifar_1_split <- label
I0504 17:00:20.689218 10665 net.cpp:382] label_cifar_1_split -> label_cifar_1_split_0
I0504 17:00:20.689227 10665 net.cpp:382] label_cifar_1_split -> label_cifar_1_split_1
I0504 17:00:20.689359 10665 net.cpp:124] Setting up label_cifar_1_split
I0504 17:00:20.689368 10665 net.cpp:131] Top shape: 1000 (1000)
I0504 17:00:20.689370 10665 net.cpp:131] Top shape: 1000 (1000)
I0504 17:00:20.689373 10665 net.cpp:139] Memory required for data: 12300000
I0504 17:00:20.689378 10665 layer_factory.hpp:77] Creating layer conv0
I0504 17:00:20.689388 10665 net.cpp:86] Creating Layer conv0
I0504 17:00:20.689393 10665 net.cpp:408] conv0 <- data
I0504 17:00:20.689398 10665 net.cpp:382] conv0 -> conv0
I0504 17:00:20.690426 10665 net.cpp:124] Setting up conv0
I0504 17:00:20.690438 10665 net.cpp:131] Top shape: 1000 72 32 32 (73728000)
I0504 17:00:20.690443 10665 net.cpp:139] Memory required for data: 307212000
I0504 17:00:20.690451 10665 layer_factory.hpp:77] Creating layer Sigmoid0
I0504 17:00:20.690472 10665 net.cpp:86] Creating Layer Sigmoid0
I0504 17:00:20.690477 10665 net.cpp:408] Sigmoid0 <- conv0
I0504 17:00:20.690481 10665 net.cpp:382] Sigmoid0 -> Sigmoid0
I0504 17:00:20.691462 10665 net.cpp:124] Setting up Sigmoid0
I0504 17:00:20.691473 10665 net.cpp:131] Top shape: 1000 72 32 32 (73728000)
I0504 17:00:20.691478 10665 net.cpp:139] Memory required for data: 602124000
I0504 17:00:20.691481 10665 layer_factory.hpp:77] Creating layer pool0
I0504 17:00:20.691490 10665 net.cpp:86] Creating Layer pool0
I0504 17:00:20.691493 10665 net.cpp:408] pool0 <- Sigmoid0
I0504 17:00:20.691499 10665 net.cpp:382] pool0 -> pool0
I0504 17:00:20.692734 10665 net.cpp:124] Setting up pool0
I0504 17:00:20.692744 10665 net.cpp:131] Top shape: 1000 72 16 16 (18432000)
I0504 17:00:20.692747 10665 net.cpp:139] Memory required for data: 675852000
I0504 17:00:20.692752 10665 layer_factory.hpp:77] Creating layer conv1
I0504 17:00:20.692777 10665 net.cpp:86] Creating Layer conv1
I0504 17:00:20.692780 10665 net.cpp:408] conv1 <- pool0
I0504 17:00:20.692786 10665 net.cpp:382] conv1 -> conv1
I0504 17:00:20.695549 10665 net.cpp:124] Setting up conv1
I0504 17:00:20.695576 10665 net.cpp:131] Top shape: 1000 72 18 18 (23328000)
I0504 17:00:20.695580 10665 net.cpp:139] Memory required for data: 769164000
I0504 17:00:20.695588 10665 layer_factory.hpp:77] Creating layer Sigmoid1
I0504 17:00:20.695610 10665 net.cpp:86] Creating Layer Sigmoid1
I0504 17:00:20.695613 10665 net.cpp:408] Sigmoid1 <- conv1
I0504 17:00:20.695618 10665 net.cpp:382] Sigmoid1 -> Sigmoid1
I0504 17:00:20.695865 10665 net.cpp:124] Setting up Sigmoid1
I0504 17:00:20.695876 10665 net.cpp:131] Top shape: 1000 72 18 18 (23328000)
I0504 17:00:20.695889 10665 net.cpp:139] Memory required for data: 862476000
I0504 17:00:20.695894 10665 layer_factory.hpp:77] Creating layer pool1
I0504 17:00:20.695901 10665 net.cpp:86] Creating Layer pool1
I0504 17:00:20.695904 10665 net.cpp:408] pool1 <- Sigmoid1
I0504 17:00:20.695926 10665 net.cpp:382] pool1 -> pool1
I0504 17:00:20.696106 10665 net.cpp:124] Setting up pool1
I0504 17:00:20.696117 10665 net.cpp:131] Top shape: 1000 72 9 9 (5832000)
I0504 17:00:20.696121 10665 net.cpp:139] Memory required for data: 885804000
I0504 17:00:20.696140 10665 layer_factory.hpp:77] Creating layer ip1
I0504 17:00:20.696163 10665 net.cpp:86] Creating Layer ip1
I0504 17:00:20.696167 10665 net.cpp:408] ip1 <- pool1
I0504 17:00:20.696172 10665 net.cpp:382] ip1 -> ip1
I0504 17:00:20.706353 10665 net.cpp:124] Setting up ip1
I0504 17:00:20.706367 10665 net.cpp:131] Top shape: 1000 60 (60000)
I0504 17:00:20.706370 10665 net.cpp:139] Memory required for data: 886044000
I0504 17:00:20.706378 10665 layer_factory.hpp:77] Creating layer relu1
I0504 17:00:20.706399 10665 net.cpp:86] Creating Layer relu1
I0504 17:00:20.706403 10665 net.cpp:408] relu1 <- ip1
I0504 17:00:20.706408 10665 net.cpp:369] relu1 -> ip1 (in-place)
I0504 17:00:20.707211 10665 net.cpp:124] Setting up relu1
I0504 17:00:20.707223 10665 net.cpp:131] Top shape: 1000 60 (60000)
I0504 17:00:20.707226 10665 net.cpp:139] Memory required for data: 886284000
I0504 17:00:20.707231 10665 layer_factory.hpp:77] Creating layer ip2
I0504 17:00:20.707252 10665 net.cpp:86] Creating Layer ip2
I0504 17:00:20.707255 10665 net.cpp:408] ip2 <- ip1
I0504 17:00:20.707262 10665 net.cpp:382] ip2 -> ip2
I0504 17:00:20.707407 10665 net.cpp:124] Setting up ip2
I0504 17:00:20.707429 10665 net.cpp:131] Top shape: 1000 10 (10000)
I0504 17:00:20.707433 10665 net.cpp:139] Memory required for data: 886324000
I0504 17:00:20.707454 10665 layer_factory.hpp:77] Creating layer ip2_ip2_0_split
I0504 17:00:20.707460 10665 net.cpp:86] Creating Layer ip2_ip2_0_split
I0504 17:00:20.707463 10665 net.cpp:408] ip2_ip2_0_split <- ip2
I0504 17:00:20.707468 10665 net.cpp:382] ip2_ip2_0_split -> ip2_ip2_0_split_0
I0504 17:00:20.707474 10665 net.cpp:382] ip2_ip2_0_split -> ip2_ip2_0_split_1
I0504 17:00:20.707504 10665 net.cpp:124] Setting up ip2_ip2_0_split
I0504 17:00:20.707510 10665 net.cpp:131] Top shape: 1000 10 (10000)
I0504 17:00:20.707515 10665 net.cpp:131] Top shape: 1000 10 (10000)
I0504 17:00:20.707517 10665 net.cpp:139] Memory required for data: 886404000
I0504 17:00:20.707520 10665 layer_factory.hpp:77] Creating layer accuracy
I0504 17:00:20.707526 10665 net.cpp:86] Creating Layer accuracy
I0504 17:00:20.707530 10665 net.cpp:408] accuracy <- ip2_ip2_0_split_0
I0504 17:00:20.707548 10665 net.cpp:408] accuracy <- label_cifar_1_split_0
I0504 17:00:20.707552 10665 net.cpp:382] accuracy -> accuracy
…
