…
I0504 10:43:25.326086 25872 net.cpp:296] The NetState phase (0) differed from the phase (1) specified by a rule in layer cifar
I0504 10:43:25.326117 25872 net.cpp:296] The NetState phase (0) differed from the phase (1) specified by a rule in layer accuracy
I0504 10:43:25.326218 25872 net.cpp:53] Initializing net from parameters: 
name: "CIFAR"
state {
  phase: TRAIN
  level: 0
  stage: ""
}
layer {
  name: "cifar"
  type: "Data"
  top: "data"
  top: "label"
  include {
    phase: TRAIN
  }
  transform_param {
    mean_file: "examples/cifar10/mean.binaryproto"
  }
  data_param {
    source: "examples/cifar10/cifar10_train_lmdb"
    batch_size: 111
    backend: LMDB
  }
}
layer {
  name: "conv0"
  type: "Convolution"
  bottom: "data"
  top: "conv0"
  param {
    lr_mult: 1
  }
  param {
    lr_mult: 2
  }
  convolution_param {
    num_output: 24
    pad: 2
    kernel_size: 5
    stride: 1
    weight_filler {
      type: "gaussian"
      std: 0.01
    }
    bias_filler {
      type: "constant"
    }
  }
}
layer {
  name: "Sigmoid0"
  type: "Sigmoid"
  bottom: "conv0"
  top: "Sigmoid0"
}
layer {
  name: "pool0"
  type: "Pooling"
  bottom: "Sigmoid0"
  top: "pool0"
  pooling_param {
    pool: AVE
    kernel_size: 3
    stride: 2
  }
}
layer {
  name: "conv1"
  type: "Convolution"
  bottom: "pool0"
  top: "conv1"
  param {
    lr_mult: 1
  }
  param {
    lr_mult: 2
  }
  convolution_param {
    num_output: 72
    pad: 2
    kernel_size: 5
    stride: 1
    weight_filler {
      type: "gaussian"
      std: 0.01
    }
    bias_filler {
      type: "constant"
    }
  }
}
layer {
  name: "Sigmoid1"
  type: "Sigmoid"
  bottom: "conv1"
  top: "Sigmoid1"
}
layer {
  name: "pool1"
  type: "Pooling"
  bottom: "Sigmoid1"
  top: "pool1"
  pooling_param {
    pool: AVE
    kernel_size: 3
    stride: 2
  }
}
layer {
  name: "ip1"
  type: "InnerProduct"
  bottom: "pool1"
  top: "ip1"
  param {
    lr_mult: 1
  }
  param {
    lr_mult: 2
  }
  inner_product_param {
    num_output: 60
    weight_filler {
      type: "gaussian"
      std: 0.01
    }
    bias_filler {
      type: "constant"
    }
  }
}
layer {
  name: "relu1"
  type: "ReLU"
  bottom: "ip1"
  top: "ip1"
}
layer {
  name: "ip2"
  type: "InnerProduct"
  bottom: "ip1"
  top: "ip2"
  param {
    lr_mult: 1
  }
  param {
    lr_mult: 2
  }
  inner_product_param {
    num_output: 10
    weight_filler {
      type: "gaussian"
      std: 0.01
    }
    bias_filler {
      type: "constant"
    }
  }
}
layer {
  name: "relu2"
  type: "ReLU"
  bottom: "ip2"
  top: "ip2"
}
layer {
  name: "ip3"
  type: "InnerProduct"
  bottom: "ip2"
  top: "ip3"
  param {
    lr_mult: 1
  }
  param {
    lr_mult: 2
  }
  inner_product_param {
    num_output: 10
    weight_filler {
      type: "gaussian"
      std: 0.01
    }
    bias_filler {
      type: "constant"
    }
  }
}
layer {
  name: "loss"
  type: "SoftmaxWithLoss"
  bottom: "ip3"
  bottom: "label"
  top: "loss"
}
I0504 10:43:25.326308 25872 layer_factory.hpp:77] Creating layer cifar
I0504 10:43:25.326412 25872 db_lmdb.cpp:35] Opened lmdb examples/cifar10/cifar10_train_lmdb
I0504 10:43:25.326442 25872 net.cpp:86] Creating Layer cifar
I0504 10:43:25.326454 25872 net.cpp:382] cifar -> data
I0504 10:43:25.326478 25872 net.cpp:382] cifar -> label
I0504 10:43:25.326506 25872 data_transformer.cpp:25] Loading mean file from: examples/cifar10/mean.binaryproto
I0504 10:43:25.328600 25872 data_layer.cpp:45] output data size: 111,3,32,32
I0504 10:43:25.335615 25872 net.cpp:124] Setting up cifar
I0504 10:43:25.335630 25872 net.cpp:131] Top shape: 111 3 32 32 (340992)
I0504 10:43:25.335635 25872 net.cpp:131] Top shape: 111 (111)
I0504 10:43:25.335638 25872 net.cpp:139] Memory required for data: 1364412
I0504 10:43:25.335644 25872 layer_factory.hpp:77] Creating layer conv0
I0504 10:43:25.335660 25872 net.cpp:86] Creating Layer conv0
I0504 10:43:25.335667 25872 net.cpp:408] conv0 <- data
I0504 10:43:25.335682 25872 net.cpp:382] conv0 -> conv0
I0504 10:43:25.566375 25872 net.cpp:124] Setting up conv0
I0504 10:43:25.566416 25872 net.cpp:131] Top shape: 111 24 32 32 (2727936)
I0504 10:43:25.566421 25872 net.cpp:139] Memory required for data: 12276156
I0504 10:43:25.566435 25872 layer_factory.hpp:77] Creating layer Sigmoid0
I0504 10:43:25.566447 25872 net.cpp:86] Creating Layer Sigmoid0
I0504 10:43:25.566452 25872 net.cpp:408] Sigmoid0 <- conv0
I0504 10:43:25.566457 25872 net.cpp:382] Sigmoid0 -> Sigmoid0
I0504 10:43:25.566661 25872 net.cpp:124] Setting up Sigmoid0
I0504 10:43:25.566671 25872 net.cpp:131] Top shape: 111 24 32 32 (2727936)
I0504 10:43:25.566674 25872 net.cpp:139] Memory required for data: 23187900
I0504 10:43:25.566679 25872 layer_factory.hpp:77] Creating layer pool0
I0504 10:43:25.566685 25872 net.cpp:86] Creating Layer pool0
I0504 10:43:25.566689 25872 net.cpp:408] pool0 <- Sigmoid0
I0504 10:43:25.566694 25872 net.cpp:382] pool0 -> pool0
I0504 10:43:25.567451 25872 net.cpp:124] Setting up pool0
I0504 10:43:25.567481 25872 net.cpp:131] Top shape: 111 24 16 16 (681984)
I0504 10:43:25.567484 25872 net.cpp:139] Memory required for data: 25915836
I0504 10:43:25.567487 25872 layer_factory.hpp:77] Creating layer conv1
I0504 10:43:25.567500 25872 net.cpp:86] Creating Layer conv1
I0504 10:43:25.567503 25872 net.cpp:408] conv1 <- pool0
I0504 10:43:25.567508 25872 net.cpp:382] conv1 -> conv1
I0504 10:43:25.571393 25872 net.cpp:124] Setting up conv1
I0504 10:43:25.571422 25872 net.cpp:131] Top shape: 111 72 16 16 (2045952)
I0504 10:43:25.571426 25872 net.cpp:139] Memory required for data: 34099644
I0504 10:43:25.571434 25872 layer_factory.hpp:77] Creating layer Sigmoid1
I0504 10:43:25.571442 25872 net.cpp:86] Creating Layer Sigmoid1
I0504 10:43:25.571446 25872 net.cpp:408] Sigmoid1 <- conv1
I0504 10:43:25.571451 25872 net.cpp:382] Sigmoid1 -> Sigmoid1
I0504 10:43:25.571660 25872 net.cpp:124] Setting up Sigmoid1
I0504 10:43:25.571669 25872 net.cpp:131] Top shape: 111 72 16 16 (2045952)
I0504 10:43:25.571672 25872 net.cpp:139] Memory required for data: 42283452
I0504 10:43:25.571676 25872 layer_factory.hpp:77] Creating layer pool1
I0504 10:43:25.571681 25872 net.cpp:86] Creating Layer pool1
I0504 10:43:25.571686 25872 net.cpp:408] pool1 <- Sigmoid1
I0504 10:43:25.571691 25872 net.cpp:382] pool1 -> pool1
I0504 10:43:25.571867 25872 net.cpp:124] Setting up pool1
I0504 10:43:25.571877 25872 net.cpp:131] Top shape: 111 72 8 8 (511488)
I0504 10:43:25.571880 25872 net.cpp:139] Memory required for data: 44329404
I0504 10:43:25.571883 25872 layer_factory.hpp:77] Creating layer ip1
I0504 10:43:25.571892 25872 net.cpp:86] Creating Layer ip1
I0504 10:43:25.571895 25872 net.cpp:408] ip1 <- pool1
I0504 10:43:25.571900 25872 net.cpp:382] ip1 -> ip1
I0504 10:43:25.580194 25872 net.cpp:124] Setting up ip1
I0504 10:43:25.580206 25872 net.cpp:131] Top shape: 111 60 (6660)
I0504 10:43:25.580224 25872 net.cpp:139] Memory required for data: 44356044
I0504 10:43:25.580235 25872 layer_factory.hpp:77] Creating layer relu1
I0504 10:43:25.580242 25872 net.cpp:86] Creating Layer relu1
I0504 10:43:25.580245 25872 net.cpp:408] relu1 <- ip1
I0504 10:43:25.580250 25872 net.cpp:369] relu1 -> ip1 (in-place)
I0504 10:43:25.580459 25872 net.cpp:124] Setting up relu1
I0504 10:43:25.580469 25872 net.cpp:131] Top shape: 111 60 (6660)
I0504 10:43:25.580473 25872 net.cpp:139] Memory required for data: 44382684
I0504 10:43:25.580476 25872 layer_factory.hpp:77] Creating layer ip2
I0504 10:43:25.580483 25872 net.cpp:86] Creating Layer ip2
I0504 10:43:25.580487 25872 net.cpp:408] ip2 <- ip1
I0504 10:43:25.580507 25872 net.cpp:382] ip2 -> ip2
I0504 10:43:25.580631 25872 net.cpp:124] Setting up ip2
I0504 10:43:25.580639 25872 net.cpp:131] Top shape: 111 10 (1110)
I0504 10:43:25.580642 25872 net.cpp:139] Memory required for data: 44387124
I0504 10:43:25.580648 25872 layer_factory.hpp:77] Creating layer relu2
I0504 10:43:25.580654 25872 net.cpp:86] Creating Layer relu2
I0504 10:43:25.580658 25872 net.cpp:408] relu2 <- ip2
I0504 10:43:25.580662 25872 net.cpp:369] relu2 -> ip2 (in-place)
I0504 10:43:25.581524 25872 net.cpp:124] Setting up relu2
I0504 10:43:25.581537 25872 net.cpp:131] Top shape: 111 10 (1110)
I0504 10:43:25.581555 25872 net.cpp:139] Memory required for data: 44391564
I0504 10:43:25.581558 25872 layer_factory.hpp:77] Creating layer ip3
I0504 10:43:25.581565 25872 net.cpp:86] Creating Layer ip3
I0504 10:43:25.581569 25872 net.cpp:408] ip3 <- ip2
I0504 10:43:25.581574 25872 net.cpp:382] ip3 -> ip3
I0504 10:43:25.581691 25872 net.cpp:124] Setting up ip3
I0504 10:43:25.581698 25872 net.cpp:131] Top shape: 111 10 (1110)
I0504 10:43:25.581702 25872 net.cpp:139] Memory required for data: 44396004
I0504 10:43:25.581710 25872 layer_factory.hpp:77] Creating layer loss
I0504 10:43:25.581717 25872 net.cpp:86] Creating Layer loss
I0504 10:43:25.581719 25872 net.cpp:408] loss <- ip3
I0504 10:43:25.581723 25872 net.cpp:408] loss <- label
I0504 10:43:25.581728 25872 net.cpp:382] loss -> loss
I0504 10:43:25.581745 25872 layer_factory.hpp:77] Creating layer loss
…
I0504 10:43:25.582386 25872 solver.cpp:173] Creating test net (#0) specified by net file: ECE595/cifar/train_test/var_everything_tiny/cifar_train_test_138.prototxt
I0504 10:43:25.582454 25872 net.cpp:296] The NetState phase (1) differed from the phase (0) specified by a rule in layer cifar
I0504 10:43:25.582614 25872 net.cpp:53] Initializing net from parameters: 
name: "CIFAR"
state {
  phase: TEST
}
layer {
  name: "cifar"
  type: "Data"
  top: "data"
  top: "label"
  include {
    phase: TEST
  }
  transform_param {
    mean_file: "examples/cifar10/mean.binaryproto"
  }
  data_param {
    source: "examples/cifar10/cifar10_test_lmdb"
    batch_size: 1000
    backend: LMDB
  }
}
layer {
  name: "conv0"
  type: "Convolution"
  bottom: "data"
  top: "conv0"
  param {
    lr_mult: 1
  }
  param {
    lr_mult: 2
  }
  convolution_param {
    num_output: 24
    pad: 2
    kernel_size: 5
    stride: 1
    weight_filler {
      type: "gaussian"
      std: 0.01
    }
    bias_filler {
      type: "constant"
    }
  }
}
layer {
  name: "Sigmoid0"
  type: "Sigmoid"
  bottom: "conv0"
  top: "Sigmoid0"
}
layer {
  name: "pool0"
  type: "Pooling"
  bottom: "Sigmoid0"
  top: "pool0"
  pooling_param {
    pool: AVE
    kernel_size: 3
    stride: 2
  }
}
layer {
  name: "conv1"
  type: "Convolution"
  bottom: "pool0"
  top: "conv1"
  param {
    lr_mult: 1
  }
  param {
    lr_mult: 2
  }
  convolution_param {
    num_output: 72
    pad: 2
    kernel_size: 5
    stride: 1
    weight_filler {
      type: "gaussian"
      std: 0.01
    }
    bias_filler {
      type: "constant"
    }
  }
}
layer {
  name: "Sigmoid1"
  type: "Sigmoid"
  bottom: "conv1"
  top: "Sigmoid1"
}
layer {
  name: "pool1"
  type: "Pooling"
  bottom: "Sigmoid1"
  top: "pool1"
  pooling_param {
    pool: AVE
    kernel_size: 3
    stride: 2
  }
}
layer {
  name: "ip1"
  type: "InnerProduct"
  bottom: "pool1"
  top: "ip1"
  param {
    lr_mult: 1
  }
  param {
    lr_mult: 2
  }
  inner_product_param {
    num_output: 60
    weight_filler {
      type: "gaussian"
      std: 0.01
    }
    bias_filler {
      type: "constant"
    }
  }
}
layer {
  name: "relu1"
  type: "ReLU"
  bottom: "ip1"
  top: "ip1"
}
layer {
  name: "ip2"
  type: "InnerProduct"
  bottom: "ip1"
  top: "ip2"
  param {
    lr_mult: 1
  }
  param {
    lr_mult: 2
  }
  inner_product_param {
    num_output: 10
    weight_filler {
      type: "gaussian"
      std: 0.01
    }
    bias_filler {
      type: "constant"
    }
  }
}
layer {
  name: "relu2"
  type: "ReLU"
  bottom: "ip2"
  top: "ip2"
}
layer {
  name: "ip3"
  type: "InnerProduct"
  bottom: "ip2"
  top: "ip3"
  param {
    lr_mult: 1
  }
  param {
    lr_mult: 2
  }
  inner_product_param {
    num_output: 10
    weight_filler {
      type: "gaussian"
      std: 0.01
    }
    bias_filler {
      type: "constant"
    }
  }
}
layer {
  name: "accuracy"
  type: "Accuracy"
  bottom: "ip3"
  bottom: "label"
  top: "accuracy"
  include {
    phase: TEST
  }
}
layer {
  name: "loss"
  type: "SoftmaxWithLoss"
  bottom: "ip3"
  bottom: "label"
  top: "loss"
}
I0504 10:43:25.582702 25872 layer_factory.hpp:77] Creating layer cifar
I0504 10:43:25.582752 25872 db_lmdb.cpp:35] Opened lmdb examples/cifar10/cifar10_test_lmdb
I0504 10:43:25.582765 25872 net.cpp:86] Creating Layer cifar
I0504 10:43:25.582770 25872 net.cpp:382] cifar -> data
I0504 10:43:25.582778 25872 net.cpp:382] cifar -> label
I0504 10:43:25.582785 25872 data_transformer.cpp:25] Loading mean file from: examples/cifar10/mean.binaryproto
I0504 10:43:25.582972 25872 data_layer.cpp:45] output data size: 1000,3,32,32
I0504 10:43:25.604815 25872 net.cpp:124] Setting up cifar
I0504 10:43:25.604871 25872 net.cpp:131] Top shape: 1000 3 32 32 (3072000)
I0504 10:43:25.604892 25872 net.cpp:131] Top shape: 1000 (1000)
I0504 10:43:25.604897 25872 net.cpp:139] Memory required for data: 12292000
I0504 10:43:25.604903 25872 layer_factory.hpp:77] Creating layer label_cifar_1_split
I0504 10:43:25.604917 25872 net.cpp:86] Creating Layer label_cifar_1_split
I0504 10:43:25.604920 25872 net.cpp:408] label_cifar_1_split <- label
I0504 10:43:25.604943 25872 net.cpp:382] label_cifar_1_split -> label_cifar_1_split_0
I0504 10:43:25.604951 25872 net.cpp:382] label_cifar_1_split -> label_cifar_1_split_1
I0504 10:43:25.605033 25872 net.cpp:124] Setting up label_cifar_1_split
I0504 10:43:25.605042 25872 net.cpp:131] Top shape: 1000 (1000)
I0504 10:43:25.605046 25872 net.cpp:131] Top shape: 1000 (1000)
I0504 10:43:25.605049 25872 net.cpp:139] Memory required for data: 12300000
I0504 10:43:25.605052 25872 layer_factory.hpp:77] Creating layer conv0
I0504 10:43:25.605065 25872 net.cpp:86] Creating Layer conv0
I0504 10:43:25.605068 25872 net.cpp:408] conv0 <- data
I0504 10:43:25.605074 25872 net.cpp:382] conv0 -> conv0
I0504 10:43:25.606827 25872 net.cpp:124] Setting up conv0
I0504 10:43:25.606842 25872 net.cpp:131] Top shape: 1000 24 32 32 (24576000)
I0504 10:43:25.606847 25872 net.cpp:139] Memory required for data: 110604000
I0504 10:43:25.606858 25872 layer_factory.hpp:77] Creating layer Sigmoid0
I0504 10:43:25.606880 25872 net.cpp:86] Creating Layer Sigmoid0
I0504 10:43:25.606899 25872 net.cpp:408] Sigmoid0 <- conv0
I0504 10:43:25.606904 25872 net.cpp:382] Sigmoid0 -> Sigmoid0
I0504 10:43:25.607105 25872 net.cpp:124] Setting up Sigmoid0
I0504 10:43:25.607126 25872 net.cpp:131] Top shape: 1000 24 32 32 (24576000)
I0504 10:43:25.607131 25872 net.cpp:139] Memory required for data: 208908000
I0504 10:43:25.607133 25872 layer_factory.hpp:77] Creating layer pool0
I0504 10:43:25.607141 25872 net.cpp:86] Creating Layer pool0
I0504 10:43:25.607146 25872 net.cpp:408] pool0 <- Sigmoid0
I0504 10:43:25.607151 25872 net.cpp:382] pool0 -> pool0
I0504 10:43:25.608351 25872 net.cpp:124] Setting up pool0
I0504 10:43:25.608361 25872 net.cpp:131] Top shape: 1000 24 16 16 (6144000)
I0504 10:43:25.608379 25872 net.cpp:139] Memory required for data: 233484000
I0504 10:43:25.608382 25872 layer_factory.hpp:77] Creating layer conv1
I0504 10:43:25.608392 25872 net.cpp:86] Creating Layer conv1
I0504 10:43:25.608394 25872 net.cpp:408] conv1 <- pool0
I0504 10:43:25.608399 25872 net.cpp:382] conv1 -> conv1
I0504 10:43:25.610975 25872 net.cpp:124] Setting up conv1
I0504 10:43:25.610990 25872 net.cpp:131] Top shape: 1000 72 16 16 (18432000)
I0504 10:43:25.610994 25872 net.cpp:139] Memory required for data: 307212000
I0504 10:43:25.611004 25872 layer_factory.hpp:77] Creating layer Sigmoid1
I0504 10:43:25.611011 25872 net.cpp:86] Creating Layer Sigmoid1
I0504 10:43:25.611014 25872 net.cpp:408] Sigmoid1 <- conv1
I0504 10:43:25.611021 25872 net.cpp:382] Sigmoid1 -> Sigmoid1
I0504 10:43:25.611222 25872 net.cpp:124] Setting up Sigmoid1
I0504 10:43:25.611232 25872 net.cpp:131] Top shape: 1000 72 16 16 (18432000)
I0504 10:43:25.611234 25872 net.cpp:139] Memory required for data: 380940000
I0504 10:43:25.611238 25872 layer_factory.hpp:77] Creating layer pool1
I0504 10:43:25.611244 25872 net.cpp:86] Creating Layer pool1
I0504 10:43:25.611248 25872 net.cpp:408] pool1 <- Sigmoid1
I0504 10:43:25.611253 25872 net.cpp:382] pool1 -> pool1
I0504 10:43:25.612013 25872 net.cpp:124] Setting up pool1
I0504 10:43:25.612026 25872 net.cpp:131] Top shape: 1000 72 8 8 (4608000)
I0504 10:43:25.612048 25872 net.cpp:139] Memory required for data: 399372000
I0504 10:43:25.612052 25872 layer_factory.hpp:77] Creating layer ip1
I0504 10:43:25.612069 25872 net.cpp:86] Creating Layer ip1
I0504 10:43:25.612073 25872 net.cpp:408] ip1 <- pool1
I0504 10:43:25.612078 25872 net.cpp:382] ip1 -> ip1
I0504 10:43:25.620352 25872 net.cpp:124] Setting up ip1
I0504 10:43:25.620364 25872 net.cpp:131] Top shape: 1000 60 (60000)
I0504 10:43:25.620383 25872 net.cpp:139] Memory required for data: 399612000
I0504 10:43:25.620393 25872 layer_factory.hpp:77] Creating layer relu1
I0504 10:43:25.620398 25872 net.cpp:86] Creating Layer relu1
I0504 10:43:25.620403 25872 net.cpp:408] relu1 <- ip1
I0504 10:43:25.620406 25872 net.cpp:369] relu1 -> ip1 (in-place)
I0504 10:43:25.620591 25872 net.cpp:124] Setting up relu1
I0504 10:43:25.620601 25872 net.cpp:131] Top shape: 1000 60 (60000)
I0504 10:43:25.620604 25872 net.cpp:139] Memory required for data: 399852000
I0504 10:43:25.620615 25872 layer_factory.hpp:77] Creating layer ip2
I0504 10:43:25.620621 25872 net.cpp:86] Creating Layer ip2
I0504 10:43:25.620625 25872 net.cpp:408] ip2 <- ip1
I0504 10:43:25.620630 25872 net.cpp:382] ip2 -> ip2
I0504 10:43:25.620759 25872 net.cpp:124] Setting up ip2
I0504 10:43:25.620766 25872 net.cpp:131] Top shape: 1000 10 (10000)
I0504 10:43:25.620769 25872 net.cpp:139] Memory required for data: 399892000
I0504 10:43:25.620775 25872 layer_factory.hpp:77] Creating layer relu2
I0504 10:43:25.620780 25872 net.cpp:86] Creating Layer relu2
I0504 10:43:25.620784 25872 net.cpp:408] relu2 <- ip2
I0504 10:43:25.620789 25872 net.cpp:369] relu2 -> ip2 (in-place)
I0504 10:43:25.620971 25872 net.cpp:124] Setting up relu2
I0504 10:43:25.620988 25872 net.cpp:131] Top shape: 1000 10 (10000)
I0504 10:43:25.620992 25872 net.cpp:139] Memory required for data: 399932000
I0504 10:43:25.620995 25872 layer_factory.hpp:77] Creating layer ip3
I0504 10:43:25.621002 25872 net.cpp:86] Creating Layer ip3
I0504 10:43:25.621006 25872 net.cpp:408] ip3 <- ip2
I0504 10:43:25.621011 25872 net.cpp:382] ip3 -> ip3
I0504 10:43:25.621119 25872 net.cpp:124] Setting up ip3
I0504 10:43:25.621126 25872 net.cpp:131] Top shape: 1000 10 (10000)
I0504 10:43:25.621155 25872 net.cpp:139] Memory required for data: 399972000
I0504 10:43:25.621165 25872 layer_factory.hpp:77] Creating layer ip3_ip3_0_split
I0504 10:43:25.621170 25872 net.cpp:86] Creating Layer ip3_ip3_0_split
I0504 10:43:25.621172 25872 net.cpp:408] ip3_ip3_0_split <- ip3
I0504 10:43:25.621177 25872 net.cpp:382] ip3_ip3_0_split -> ip3_ip3_0_split_0
I0504 10:43:25.621183 25872 net.cpp:382] ip3_ip3_0_split -> ip3_ip3_0_split_1
I0504 10:43:25.621217 25872 net.cpp:124] Setting up ip3_ip3_0_split
I0504 10:43:25.621224 25872 net.cpp:131] Top shape: 1000 10 (10000)
I0504 10:43:25.621228 25872 net.cpp:131] Top shape: 1000 10 (10000)
I0504 10:43:25.621230 25872 net.cpp:139] Memory required for data: 400052000
I0504 10:43:25.621234 25872 layer_factory.hpp:77] Creating layer accuracy
I0504 10:43:25.621240 25872 net.cpp:86] Creating Layer accuracy
I0504 10:43:25.621243 25872 net.cpp:408] accuracy <- ip3_ip3_0_split_0
I0504 10:43:25.621248 25872 net.cpp:408] accuracy <- label_cifar_1_split_0
I0504 10:43:25.621253 25872 net.cpp:382] accuracy -> accuracy
…
