…
I0504 09:07:53.419467 23047 net.cpp:296] The NetState phase (0) differed from the phase (1) specified by a rule in layer cifar
I0504 09:07:53.419486 23047 net.cpp:296] The NetState phase (0) differed from the phase (1) specified by a rule in layer accuracy
I0504 09:07:53.419597 23047 net.cpp:53] Initializing net from parameters: 
name: "CIFAR"
state {
  phase: TRAIN
  level: 0
  stage: ""
}
layer {
  name: "cifar"
  type: "Data"
  top: "data"
  top: "label"
  include {
    phase: TRAIN
  }
  transform_param {
    mean_file: "examples/cifar10/mean.binaryproto"
  }
  data_param {
    source: "examples/cifar10/cifar10_train_lmdb"
    batch_size: 111
    backend: LMDB
  }
}
layer {
  name: "conv0"
  type: "Convolution"
  bottom: "data"
  top: "conv0"
  param {
    lr_mult: 1
  }
  param {
    lr_mult: 2
  }
  convolution_param {
    num_output: 24
    pad: 2
    kernel_size: 3
    stride: 1
    weight_filler {
      type: "gaussian"
      std: 0.01
    }
    bias_filler {
      type: "constant"
    }
  }
}
layer {
  name: "Sigmoid0"
  type: "Sigmoid"
  bottom: "conv0"
  top: "Sigmoid0"
}
layer {
  name: "pool0"
  type: "Pooling"
  bottom: "Sigmoid0"
  top: "pool0"
  pooling_param {
    pool: AVE
    kernel_size: 3
    stride: 2
  }
}
layer {
  name: "conv1"
  type: "Convolution"
  bottom: "pool0"
  top: "conv1"
  param {
    lr_mult: 1
  }
  param {
    lr_mult: 2
  }
  convolution_param {
    num_output: 72
    pad: 2
    kernel_size: 3
    stride: 1
    weight_filler {
      type: "gaussian"
      std: 0.01
    }
    bias_filler {
      type: "constant"
    }
  }
}
layer {
  name: "Sigmoid1"
  type: "Sigmoid"
  bottom: "conv1"
  top: "Sigmoid1"
}
layer {
  name: "pool1"
  type: "Pooling"
  bottom: "Sigmoid1"
  top: "pool1"
  pooling_param {
    pool: AVE
    kernel_size: 3
    stride: 2
  }
}
layer {
  name: "ip1"
  type: "InnerProduct"
  bottom: "pool1"
  top: "ip1"
  param {
    lr_mult: 1
  }
  param {
    lr_mult: 2
  }
  inner_product_param {
    num_output: 60
    weight_filler {
      type: "gaussian"
      std: 0.01
    }
    bias_filler {
      type: "constant"
    }
  }
}
layer {
  name: "relu1"
  type: "ReLU"
  bottom: "ip1"
  top: "ip1"
}
layer {
  name: "ip2"
  type: "InnerProduct"
  bottom: "ip1"
  top: "ip2"
  param {
    lr_mult: 1
  }
  param {
    lr_mult: 2
  }
  inner_product_param {
    num_output: 10
    weight_filler {
      type: "gaussian"
      std: 0.01
    }
    bias_filler {
      type: "constant"
    }
  }
}
layer {
  name: "relu2"
  type: "ReLU"
  bottom: "ip2"
  top: "ip2"
}
layer {
  name: "ip3"
  type: "InnerProduct"
  bottom: "ip2"
  top: "ip3"
  param {
    lr_mult: 1
  }
  param {
    lr_mult: 2
  }
  inner_product_param {
    num_output: 10
    weight_filler {
      type: "gaussian"
      std: 0.01
    }
    bias_filler {
      type: "constant"
    }
  }
}
layer {
  name: "loss"
  type: "SoftmaxWithLoss"
  bottom: "ip3"
  bottom: "label"
  top: "loss"
}
I0504 09:07:53.419682 23047 layer_factory.hpp:77] Creating layer cifar
I0504 09:07:53.419781 23047 db_lmdb.cpp:35] Opened lmdb examples/cifar10/cifar10_train_lmdb
I0504 09:07:53.419812 23047 net.cpp:86] Creating Layer cifar
I0504 09:07:53.419822 23047 net.cpp:382] cifar -> data
I0504 09:07:53.419847 23047 net.cpp:382] cifar -> label
I0504 09:07:53.419863 23047 data_transformer.cpp:25] Loading mean file from: examples/cifar10/mean.binaryproto
I0504 09:07:53.421977 23047 data_layer.cpp:45] output data size: 111,3,32,32
I0504 09:07:53.429873 23047 net.cpp:124] Setting up cifar
I0504 09:07:53.429891 23047 net.cpp:131] Top shape: 111 3 32 32 (340992)
I0504 09:07:53.429898 23047 net.cpp:131] Top shape: 111 (111)
I0504 09:07:53.429903 23047 net.cpp:139] Memory required for data: 1364412
I0504 09:07:53.429909 23047 layer_factory.hpp:77] Creating layer conv0
I0504 09:07:53.429925 23047 net.cpp:86] Creating Layer conv0
I0504 09:07:53.429931 23047 net.cpp:408] conv0 <- data
I0504 09:07:53.429944 23047 net.cpp:382] conv0 -> conv0
I0504 09:07:53.717073 23047 net.cpp:124] Setting up conv0
I0504 09:07:53.717100 23047 net.cpp:131] Top shape: 111 24 34 34 (3079584)
I0504 09:07:53.717105 23047 net.cpp:139] Memory required for data: 13682748
I0504 09:07:53.717120 23047 layer_factory.hpp:77] Creating layer Sigmoid0
I0504 09:07:53.717133 23047 net.cpp:86] Creating Layer Sigmoid0
I0504 09:07:53.717136 23047 net.cpp:408] Sigmoid0 <- conv0
I0504 09:07:53.717142 23047 net.cpp:382] Sigmoid0 -> Sigmoid0
I0504 09:07:53.717319 23047 net.cpp:124] Setting up Sigmoid0
I0504 09:07:53.717327 23047 net.cpp:131] Top shape: 111 24 34 34 (3079584)
I0504 09:07:53.717331 23047 net.cpp:139] Memory required for data: 26001084
I0504 09:07:53.717334 23047 layer_factory.hpp:77] Creating layer pool0
I0504 09:07:53.717341 23047 net.cpp:86] Creating Layer pool0
I0504 09:07:53.717344 23047 net.cpp:408] pool0 <- Sigmoid0
I0504 09:07:53.717348 23047 net.cpp:382] pool0 -> pool0
I0504 09:07:53.718088 23047 net.cpp:124] Setting up pool0
I0504 09:07:53.718101 23047 net.cpp:131] Top shape: 111 24 17 17 (769896)
I0504 09:07:53.718104 23047 net.cpp:139] Memory required for data: 29080668
I0504 09:07:53.718108 23047 layer_factory.hpp:77] Creating layer conv1
I0504 09:07:53.718120 23047 net.cpp:86] Creating Layer conv1
I0504 09:07:53.718123 23047 net.cpp:408] conv1 <- pool0
I0504 09:07:53.718129 23047 net.cpp:382] conv1 -> conv1
I0504 09:07:53.721148 23047 net.cpp:124] Setting up conv1
I0504 09:07:53.721161 23047 net.cpp:131] Top shape: 111 72 19 19 (2885112)
I0504 09:07:53.721165 23047 net.cpp:139] Memory required for data: 40621116
I0504 09:07:53.721174 23047 layer_factory.hpp:77] Creating layer Sigmoid1
I0504 09:07:53.721180 23047 net.cpp:86] Creating Layer Sigmoid1
I0504 09:07:53.721184 23047 net.cpp:408] Sigmoid1 <- conv1
I0504 09:07:53.721189 23047 net.cpp:382] Sigmoid1 -> Sigmoid1
I0504 09:07:53.721367 23047 net.cpp:124] Setting up Sigmoid1
I0504 09:07:53.721376 23047 net.cpp:131] Top shape: 111 72 19 19 (2885112)
I0504 09:07:53.721379 23047 net.cpp:139] Memory required for data: 52161564
I0504 09:07:53.721382 23047 layer_factory.hpp:77] Creating layer pool1
I0504 09:07:53.721388 23047 net.cpp:86] Creating Layer pool1
I0504 09:07:53.721391 23047 net.cpp:408] pool1 <- Sigmoid1
I0504 09:07:53.721395 23047 net.cpp:382] pool1 -> pool1
I0504 09:07:53.721547 23047 net.cpp:124] Setting up pool1
I0504 09:07:53.721555 23047 net.cpp:131] Top shape: 111 72 9 9 (647352)
I0504 09:07:53.721559 23047 net.cpp:139] Memory required for data: 54750972
I0504 09:07:53.721561 23047 layer_factory.hpp:77] Creating layer ip1
I0504 09:07:53.721568 23047 net.cpp:86] Creating Layer ip1
I0504 09:07:53.721575 23047 net.cpp:408] ip1 <- pool1
I0504 09:07:53.721580 23047 net.cpp:382] ip1 -> ip1
I0504 09:07:53.731504 23047 net.cpp:124] Setting up ip1
I0504 09:07:53.731516 23047 net.cpp:131] Top shape: 111 60 (6660)
I0504 09:07:53.731520 23047 net.cpp:139] Memory required for data: 54777612
I0504 09:07:53.731528 23047 layer_factory.hpp:77] Creating layer relu1
I0504 09:07:53.731535 23047 net.cpp:86] Creating Layer relu1
I0504 09:07:53.731539 23047 net.cpp:408] relu1 <- ip1
I0504 09:07:53.731542 23047 net.cpp:369] relu1 -> ip1 (in-place)
I0504 09:07:53.731698 23047 net.cpp:124] Setting up relu1
I0504 09:07:53.731708 23047 net.cpp:131] Top shape: 111 60 (6660)
I0504 09:07:53.731710 23047 net.cpp:139] Memory required for data: 54804252
I0504 09:07:53.731720 23047 layer_factory.hpp:77] Creating layer ip2
I0504 09:07:53.731726 23047 net.cpp:86] Creating Layer ip2
I0504 09:07:53.731730 23047 net.cpp:408] ip2 <- ip1
I0504 09:07:53.731750 23047 net.cpp:382] ip2 -> ip2
I0504 09:07:53.731864 23047 net.cpp:124] Setting up ip2
I0504 09:07:53.731871 23047 net.cpp:131] Top shape: 111 10 (1110)
I0504 09:07:53.731875 23047 net.cpp:139] Memory required for data: 54808692
I0504 09:07:53.731880 23047 layer_factory.hpp:77] Creating layer relu2
I0504 09:07:53.731885 23047 net.cpp:86] Creating Layer relu2
I0504 09:07:53.731889 23047 net.cpp:408] relu2 <- ip2
I0504 09:07:53.731891 23047 net.cpp:369] relu2 -> ip2 (in-place)
I0504 09:07:53.732583 23047 net.cpp:124] Setting up relu2
I0504 09:07:53.732595 23047 net.cpp:131] Top shape: 111 10 (1110)
I0504 09:07:53.732599 23047 net.cpp:139] Memory required for data: 54813132
I0504 09:07:53.732601 23047 layer_factory.hpp:77] Creating layer ip3
I0504 09:07:53.732609 23047 net.cpp:86] Creating Layer ip3
I0504 09:07:53.732611 23047 net.cpp:408] ip3 <- ip2
I0504 09:07:53.732616 23047 net.cpp:382] ip3 -> ip3
I0504 09:07:53.732713 23047 net.cpp:124] Setting up ip3
I0504 09:07:53.732720 23047 net.cpp:131] Top shape: 111 10 (1110)
I0504 09:07:53.732723 23047 net.cpp:139] Memory required for data: 54817572
I0504 09:07:53.732730 23047 layer_factory.hpp:77] Creating layer loss
I0504 09:07:53.732736 23047 net.cpp:86] Creating Layer loss
I0504 09:07:53.732739 23047 net.cpp:408] loss <- ip3
I0504 09:07:53.732743 23047 net.cpp:408] loss <- label
I0504 09:07:53.732748 23047 net.cpp:382] loss -> loss
I0504 09:07:53.732765 23047 layer_factory.hpp:77] Creating layer loss
…
I0504 09:07:53.733466 23047 solver.cpp:173] Creating test net (#0) specified by net file: ECE595/cifar/train_test/var_everything_tiny/cifar_train_test_114.prototxt
I0504 09:07:53.733492 23047 net.cpp:296] The NetState phase (1) differed from the phase (0) specified by a rule in layer cifar
I0504 09:07:53.733582 23047 net.cpp:53] Initializing net from parameters: 
name: "CIFAR"
state {
  phase: TEST
}
layer {
  name: "cifar"
  type: "Data"
  top: "data"
  top: "label"
  include {
    phase: TEST
  }
  transform_param {
    mean_file: "examples/cifar10/mean.binaryproto"
  }
  data_param {
    source: "examples/cifar10/cifar10_test_lmdb"
    batch_size: 1000
    backend: LMDB
  }
}
layer {
  name: "conv0"
  type: "Convolution"
  bottom: "data"
  top: "conv0"
  param {
    lr_mult: 1
  }
  param {
    lr_mult: 2
  }
  convolution_param {
    num_output: 24
    pad: 2
    kernel_size: 3
    stride: 1
    weight_filler {
      type: "gaussian"
      std: 0.01
    }
    bias_filler {
      type: "constant"
    }
  }
}
layer {
  name: "Sigmoid0"
  type: "Sigmoid"
  bottom: "conv0"
  top: "Sigmoid0"
}
layer {
  name: "pool0"
  type: "Pooling"
  bottom: "Sigmoid0"
  top: "pool0"
  pooling_param {
    pool: AVE
    kernel_size: 3
    stride: 2
  }
}
layer {
  name: "conv1"
  type: "Convolution"
  bottom: "pool0"
  top: "conv1"
  param {
    lr_mult: 1
  }
  param {
    lr_mult: 2
  }
  convolution_param {
    num_output: 72
    pad: 2
    kernel_size: 3
    stride: 1
    weight_filler {
      type: "gaussian"
      std: 0.01
    }
    bias_filler {
      type: "constant"
    }
  }
}
layer {
  name: "Sigmoid1"
  type: "Sigmoid"
  bottom: "conv1"
  top: "Sigmoid1"
}
layer {
  name: "pool1"
  type: "Pooling"
  bottom: "Sigmoid1"
  top: "pool1"
  pooling_param {
    pool: AVE
    kernel_size: 3
    stride: 2
  }
}
layer {
  name: "ip1"
  type: "InnerProduct"
  bottom: "pool1"
  top: "ip1"
  param {
    lr_mult: 1
  }
  param {
    lr_mult: 2
  }
  inner_product_param {
    num_output: 60
    weight_filler {
      type: "gaussian"
      std: 0.01
    }
    bias_filler {
      type: "constant"
    }
  }
}
layer {
  name: "relu1"
  type: "ReLU"
  bottom: "ip1"
  top: "ip1"
}
layer {
  name: "ip2"
  type: "InnerProduct"
  bottom: "ip1"
  top: "ip2"
  param {
    lr_mult: 1
  }
  param {
    lr_mult: 2
  }
  inner_product_param {
    num_output: 10
    weight_filler {
      type: "gaussian"
      std: 0.01
    }
    bias_filler {
      type: "constant"
    }
  }
}
layer {
  name: "relu2"
  type: "ReLU"
  bottom: "ip2"
  top: "ip2"
}
layer {
  name: "ip3"
  type: "InnerProduct"
  bottom: "ip2"
  top: "ip3"
  param {
    lr_mult: 1
  }
  param {
    lr_mult: 2
  }
  inner_product_param {
    num_output: 10
    weight_filler {
      type: "gaussian"
      std: 0.01
    }
    bias_filler {
      type: "constant"
    }
  }
}
layer {
  name: "accuracy"
  type: "Accuracy"
  bottom: "ip3"
  bottom: "label"
  top: "accuracy"
  include {
    phase: TEST
  }
}
layer {
  name: "loss"
  type: "SoftmaxWithLoss"
  bottom: "ip3"
  bottom: "label"
  top: "loss"
}
I0504 09:07:53.733660 23047 layer_factory.hpp:77] Creating layer cifar
I0504 09:07:53.733703 23047 db_lmdb.cpp:35] Opened lmdb examples/cifar10/cifar10_test_lmdb
I0504 09:07:53.733716 23047 net.cpp:86] Creating Layer cifar
I0504 09:07:53.733719 23047 net.cpp:382] cifar -> data
I0504 09:07:53.733727 23047 net.cpp:382] cifar -> label
I0504 09:07:53.733733 23047 data_transformer.cpp:25] Loading mean file from: examples/cifar10/mean.binaryproto
I0504 09:07:53.733865 23047 data_layer.cpp:45] output data size: 1000,3,32,32
I0504 09:07:53.755486 23047 net.cpp:124] Setting up cifar
I0504 09:07:53.755512 23047 net.cpp:131] Top shape: 1000 3 32 32 (3072000)
I0504 09:07:53.755518 23047 net.cpp:131] Top shape: 1000 (1000)
I0504 09:07:53.755522 23047 net.cpp:139] Memory required for data: 12292000
I0504 09:07:53.755527 23047 layer_factory.hpp:77] Creating layer label_cifar_1_split
I0504 09:07:53.755538 23047 net.cpp:86] Creating Layer label_cifar_1_split
I0504 09:07:53.755542 23047 net.cpp:408] label_cifar_1_split <- label
I0504 09:07:53.755548 23047 net.cpp:382] label_cifar_1_split -> label_cifar_1_split_0
I0504 09:07:53.755558 23047 net.cpp:382] label_cifar_1_split -> label_cifar_1_split_1
I0504 09:07:53.755678 23047 net.cpp:124] Setting up label_cifar_1_split
I0504 09:07:53.755686 23047 net.cpp:131] Top shape: 1000 (1000)
I0504 09:07:53.755689 23047 net.cpp:131] Top shape: 1000 (1000)
I0504 09:07:53.755692 23047 net.cpp:139] Memory required for data: 12300000
I0504 09:07:53.755695 23047 layer_factory.hpp:77] Creating layer conv0
I0504 09:07:53.755707 23047 net.cpp:86] Creating Layer conv0
I0504 09:07:53.755710 23047 net.cpp:408] conv0 <- data
I0504 09:07:53.755715 23047 net.cpp:382] conv0 -> conv0
I0504 09:07:53.757376 23047 net.cpp:124] Setting up conv0
I0504 09:07:53.757405 23047 net.cpp:131] Top shape: 1000 24 34 34 (27744000)
I0504 09:07:53.757410 23047 net.cpp:139] Memory required for data: 123276000
I0504 09:07:53.757418 23047 layer_factory.hpp:77] Creating layer Sigmoid0
I0504 09:07:53.757424 23047 net.cpp:86] Creating Layer Sigmoid0
I0504 09:07:53.757427 23047 net.cpp:408] Sigmoid0 <- conv0
I0504 09:07:53.757432 23047 net.cpp:382] Sigmoid0 -> Sigmoid0
I0504 09:07:53.757681 23047 net.cpp:124] Setting up Sigmoid0
I0504 09:07:53.757702 23047 net.cpp:131] Top shape: 1000 24 34 34 (27744000)
I0504 09:07:53.757706 23047 net.cpp:139] Memory required for data: 234252000
I0504 09:07:53.757709 23047 layer_factory.hpp:77] Creating layer pool0
I0504 09:07:53.757717 23047 net.cpp:86] Creating Layer pool0
I0504 09:07:53.757721 23047 net.cpp:408] pool0 <- Sigmoid0
I0504 09:07:53.757725 23047 net.cpp:382] pool0 -> pool0
I0504 09:07:53.758852 23047 net.cpp:124] Setting up pool0
I0504 09:07:53.758860 23047 net.cpp:131] Top shape: 1000 24 17 17 (6936000)
I0504 09:07:53.758879 23047 net.cpp:139] Memory required for data: 261996000
I0504 09:07:53.758882 23047 layer_factory.hpp:77] Creating layer conv1
I0504 09:07:53.758891 23047 net.cpp:86] Creating Layer conv1
I0504 09:07:53.758894 23047 net.cpp:408] conv1 <- pool0
I0504 09:07:53.758899 23047 net.cpp:382] conv1 -> conv1
I0504 09:07:53.760529 23047 net.cpp:124] Setting up conv1
I0504 09:07:53.760541 23047 net.cpp:131] Top shape: 1000 72 19 19 (25992000)
I0504 09:07:53.760561 23047 net.cpp:139] Memory required for data: 365964000
I0504 09:07:53.760570 23047 layer_factory.hpp:77] Creating layer Sigmoid1
I0504 09:07:53.760576 23047 net.cpp:86] Creating Layer Sigmoid1
I0504 09:07:53.760581 23047 net.cpp:408] Sigmoid1 <- conv1
I0504 09:07:53.760584 23047 net.cpp:382] Sigmoid1 -> Sigmoid1
I0504 09:07:53.760771 23047 net.cpp:124] Setting up Sigmoid1
I0504 09:07:53.760779 23047 net.cpp:131] Top shape: 1000 72 19 19 (25992000)
I0504 09:07:53.760783 23047 net.cpp:139] Memory required for data: 469932000
I0504 09:07:53.760787 23047 layer_factory.hpp:77] Creating layer pool1
I0504 09:07:53.760792 23047 net.cpp:86] Creating Layer pool1
I0504 09:07:53.760795 23047 net.cpp:408] pool1 <- Sigmoid1
I0504 09:07:53.760799 23047 net.cpp:382] pool1 -> pool1
I0504 09:07:53.761610 23047 net.cpp:124] Setting up pool1
I0504 09:07:53.761621 23047 net.cpp:131] Top shape: 1000 72 9 9 (5832000)
I0504 09:07:53.761639 23047 net.cpp:139] Memory required for data: 493260000
I0504 09:07:53.761643 23047 layer_factory.hpp:77] Creating layer ip1
I0504 09:07:53.761651 23047 net.cpp:86] Creating Layer ip1
I0504 09:07:53.761656 23047 net.cpp:408] ip1 <- pool1
I0504 09:07:53.761660 23047 net.cpp:382] ip1 -> ip1
I0504 09:07:53.771296 23047 net.cpp:124] Setting up ip1
I0504 09:07:53.771323 23047 net.cpp:131] Top shape: 1000 60 (60000)
I0504 09:07:53.771327 23047 net.cpp:139] Memory required for data: 493500000
I0504 09:07:53.771335 23047 layer_factory.hpp:77] Creating layer relu1
I0504 09:07:53.771343 23047 net.cpp:86] Creating Layer relu1
I0504 09:07:53.771347 23047 net.cpp:408] relu1 <- ip1
I0504 09:07:53.771351 23047 net.cpp:369] relu1 -> ip1 (in-place)
I0504 09:07:53.771522 23047 net.cpp:124] Setting up relu1
I0504 09:07:53.771530 23047 net.cpp:131] Top shape: 1000 60 (60000)
I0504 09:07:53.771533 23047 net.cpp:139] Memory required for data: 493740000
I0504 09:07:53.771538 23047 layer_factory.hpp:77] Creating layer ip2
I0504 09:07:53.771543 23047 net.cpp:86] Creating Layer ip2
I0504 09:07:53.771546 23047 net.cpp:408] ip2 <- ip1
I0504 09:07:53.771551 23047 net.cpp:382] ip2 -> ip2
I0504 09:07:53.771670 23047 net.cpp:124] Setting up ip2
I0504 09:07:53.771677 23047 net.cpp:131] Top shape: 1000 10 (10000)
I0504 09:07:53.771680 23047 net.cpp:139] Memory required for data: 493780000
I0504 09:07:53.771685 23047 layer_factory.hpp:77] Creating layer relu2
I0504 09:07:53.771689 23047 net.cpp:86] Creating Layer relu2
I0504 09:07:53.771693 23047 net.cpp:408] relu2 <- ip2
I0504 09:07:53.771697 23047 net.cpp:369] relu2 -> ip2 (in-place)
I0504 09:07:53.771842 23047 net.cpp:124] Setting up relu2
I0504 09:07:53.771849 23047 net.cpp:131] Top shape: 1000 10 (10000)
I0504 09:07:53.771852 23047 net.cpp:139] Memory required for data: 493820000
I0504 09:07:53.771855 23047 layer_factory.hpp:77] Creating layer ip3
I0504 09:07:53.771862 23047 net.cpp:86] Creating Layer ip3
I0504 09:07:53.771864 23047 net.cpp:408] ip3 <- ip2
I0504 09:07:53.771869 23047 net.cpp:382] ip3 -> ip3
I0504 09:07:53.771968 23047 net.cpp:124] Setting up ip3
I0504 09:07:53.771975 23047 net.cpp:131] Top shape: 1000 10 (10000)
I0504 09:07:53.771991 23047 net.cpp:139] Memory required for data: 493860000
I0504 09:07:53.771998 23047 layer_factory.hpp:77] Creating layer ip3_ip3_0_split
I0504 09:07:53.772004 23047 net.cpp:86] Creating Layer ip3_ip3_0_split
I0504 09:07:53.772007 23047 net.cpp:408] ip3_ip3_0_split <- ip3
I0504 09:07:53.772011 23047 net.cpp:382] ip3_ip3_0_split -> ip3_ip3_0_split_0
I0504 09:07:53.772017 23047 net.cpp:382] ip3_ip3_0_split -> ip3_ip3_0_split_1
I0504 09:07:53.772049 23047 net.cpp:124] Setting up ip3_ip3_0_split
I0504 09:07:53.772053 23047 net.cpp:131] Top shape: 1000 10 (10000)
I0504 09:07:53.772058 23047 net.cpp:131] Top shape: 1000 10 (10000)
I0504 09:07:53.772059 23047 net.cpp:139] Memory required for data: 493940000
I0504 09:07:53.772063 23047 layer_factory.hpp:77] Creating layer accuracy
I0504 09:07:53.772073 23047 net.cpp:86] Creating Layer accuracy
I0504 09:07:53.772076 23047 net.cpp:408] accuracy <- ip3_ip3_0_split_0
I0504 09:07:53.772080 23047 net.cpp:408] accuracy <- label_cifar_1_split_0
I0504 09:07:53.772085 23047 net.cpp:382] accuracy -> accuracy
…
