…
I0504 07:45:23.651783 19798 net.cpp:296] The NetState phase (0) differed from the phase (1) specified by a rule in layer cifar
I0504 07:45:23.651803 19798 net.cpp:296] The NetState phase (0) differed from the phase (1) specified by a rule in layer accuracy
I0504 07:45:23.651906 19798 net.cpp:53] Initializing net from parameters: 
name: "CIFAR"
state {
  phase: TRAIN
  level: 0
  stage: ""
}
layer {
  name: "cifar"
  type: "Data"
  top: "data"
  top: "label"
  include {
    phase: TRAIN
  }
  transform_param {
    mean_file: "examples/cifar10/mean.binaryproto"
  }
  data_param {
    source: "examples/cifar10/cifar10_train_lmdb"
    batch_size: 111
    backend: LMDB
  }
}
layer {
  name: "conv0"
  type: "Convolution"
  bottom: "data"
  top: "conv0"
  param {
    lr_mult: 1
  }
  param {
    lr_mult: 2
  }
  convolution_param {
    num_output: 24
    pad: 2
    kernel_size: 5
    stride: 1
    weight_filler {
      type: "gaussian"
      std: 0.01
    }
    bias_filler {
      type: "constant"
    }
  }
}
layer {
  name: "Sigmoid0"
  type: "Sigmoid"
  bottom: "conv0"
  top: "Sigmoid0"
}
layer {
  name: "pool0"
  type: "Pooling"
  bottom: "Sigmoid0"
  top: "pool0"
  pooling_param {
    pool: AVE
    kernel_size: 3
    stride: 2
  }
}
layer {
  name: "conv1"
  type: "Convolution"
  bottom: "pool0"
  top: "conv1"
  param {
    lr_mult: 1
  }
  param {
    lr_mult: 2
  }
  convolution_param {
    num_output: 24
    pad: 2
    kernel_size: 3
    stride: 1
    weight_filler {
      type: "gaussian"
      std: 0.01
    }
    bias_filler {
      type: "constant"
    }
  }
}
layer {
  name: "Sigmoid1"
  type: "Sigmoid"
  bottom: "conv1"
  top: "Sigmoid1"
}
layer {
  name: "pool1"
  type: "Pooling"
  bottom: "Sigmoid1"
  top: "pool1"
  pooling_param {
    pool: AVE
    kernel_size: 3
    stride: 2
  }
}
layer {
  name: "ip1"
  type: "InnerProduct"
  bottom: "pool1"
  top: "ip1"
  param {
    lr_mult: 1
  }
  param {
    lr_mult: 2
  }
  inner_product_param {
    num_output: 180
    weight_filler {
      type: "gaussian"
      std: 0.01
    }
    bias_filler {
      type: "constant"
    }
  }
}
layer {
  name: "relu1"
  type: "ReLU"
  bottom: "ip1"
  top: "ip1"
}
layer {
  name: "ip2"
  type: "InnerProduct"
  bottom: "ip1"
  top: "ip2"
  param {
    lr_mult: 1
  }
  param {
    lr_mult: 2
  }
  inner_product_param {
    num_output: 10
    weight_filler {
      type: "gaussian"
      std: 0.01
    }
    bias_filler {
      type: "constant"
    }
  }
}
layer {
  name: "loss"
  type: "SoftmaxWithLoss"
  bottom: "ip2"
  bottom: "label"
  top: "loss"
}
I0504 07:45:23.651983 19798 layer_factory.hpp:77] Creating layer cifar
I0504 07:45:23.652087 19798 db_lmdb.cpp:35] Opened lmdb examples/cifar10/cifar10_train_lmdb
I0504 07:45:23.652114 19798 net.cpp:86] Creating Layer cifar
I0504 07:45:23.652122 19798 net.cpp:382] cifar -> data
I0504 07:45:23.652146 19798 net.cpp:382] cifar -> label
I0504 07:45:23.652159 19798 data_transformer.cpp:25] Loading mean file from: examples/cifar10/mean.binaryproto
I0504 07:45:23.654496 19798 data_layer.cpp:45] output data size: 111,3,32,32
I0504 07:45:23.663408 19798 net.cpp:124] Setting up cifar
I0504 07:45:23.663430 19798 net.cpp:131] Top shape: 111 3 32 32 (340992)
I0504 07:45:23.663437 19798 net.cpp:131] Top shape: 111 (111)
I0504 07:45:23.663440 19798 net.cpp:139] Memory required for data: 1364412
I0504 07:45:23.663449 19798 layer_factory.hpp:77] Creating layer conv0
I0504 07:45:23.663470 19798 net.cpp:86] Creating Layer conv0
I0504 07:45:23.663492 19798 net.cpp:408] conv0 <- data
I0504 07:45:23.663506 19798 net.cpp:382] conv0 -> conv0
I0504 07:45:23.929054 19798 net.cpp:124] Setting up conv0
I0504 07:45:23.929097 19798 net.cpp:131] Top shape: 111 24 32 32 (2727936)
I0504 07:45:23.929102 19798 net.cpp:139] Memory required for data: 12276156
I0504 07:45:23.929116 19798 layer_factory.hpp:77] Creating layer Sigmoid0
I0504 07:45:23.929143 19798 net.cpp:86] Creating Layer Sigmoid0
I0504 07:45:23.929147 19798 net.cpp:408] Sigmoid0 <- conv0
I0504 07:45:23.929152 19798 net.cpp:382] Sigmoid0 -> Sigmoid0
I0504 07:45:23.929317 19798 net.cpp:124] Setting up Sigmoid0
I0504 07:45:23.929327 19798 net.cpp:131] Top shape: 111 24 32 32 (2727936)
I0504 07:45:23.929329 19798 net.cpp:139] Memory required for data: 23187900
I0504 07:45:23.929332 19798 layer_factory.hpp:77] Creating layer pool0
I0504 07:45:23.929339 19798 net.cpp:86] Creating Layer pool0
I0504 07:45:23.929342 19798 net.cpp:408] pool0 <- Sigmoid0
I0504 07:45:23.929347 19798 net.cpp:382] pool0 -> pool0
I0504 07:45:23.930081 19798 net.cpp:124] Setting up pool0
I0504 07:45:23.930109 19798 net.cpp:131] Top shape: 111 24 16 16 (681984)
I0504 07:45:23.930112 19798 net.cpp:139] Memory required for data: 25915836
I0504 07:45:23.930115 19798 layer_factory.hpp:77] Creating layer conv1
I0504 07:45:23.930127 19798 net.cpp:86] Creating Layer conv1
I0504 07:45:23.930130 19798 net.cpp:408] conv1 <- pool0
I0504 07:45:23.930135 19798 net.cpp:382] conv1 -> conv1
I0504 07:45:23.932840 19798 net.cpp:124] Setting up conv1
I0504 07:45:23.932870 19798 net.cpp:131] Top shape: 111 24 18 18 (863136)
I0504 07:45:23.932889 19798 net.cpp:139] Memory required for data: 29368380
I0504 07:45:23.932898 19798 layer_factory.hpp:77] Creating layer Sigmoid1
I0504 07:45:23.932905 19798 net.cpp:86] Creating Layer Sigmoid1
I0504 07:45:23.932909 19798 net.cpp:408] Sigmoid1 <- conv1
I0504 07:45:23.932914 19798 net.cpp:382] Sigmoid1 -> Sigmoid1
I0504 07:45:23.933112 19798 net.cpp:124] Setting up Sigmoid1
I0504 07:45:23.933122 19798 net.cpp:131] Top shape: 111 24 18 18 (863136)
I0504 07:45:23.933126 19798 net.cpp:139] Memory required for data: 32820924
I0504 07:45:23.933130 19798 layer_factory.hpp:77] Creating layer pool1
I0504 07:45:23.933135 19798 net.cpp:86] Creating Layer pool1
I0504 07:45:23.933138 19798 net.cpp:408] pool1 <- Sigmoid1
I0504 07:45:23.933143 19798 net.cpp:382] pool1 -> pool1
I0504 07:45:23.933343 19798 net.cpp:124] Setting up pool1
I0504 07:45:23.933351 19798 net.cpp:131] Top shape: 111 24 9 9 (215784)
I0504 07:45:23.933354 19798 net.cpp:139] Memory required for data: 33684060
I0504 07:45:23.933357 19798 layer_factory.hpp:77] Creating layer ip1
I0504 07:45:23.933368 19798 net.cpp:86] Creating Layer ip1
I0504 07:45:23.933372 19798 net.cpp:408] ip1 <- pool1
I0504 07:45:23.933377 19798 net.cpp:382] ip1 -> ip1
I0504 07:45:23.943356 19798 net.cpp:124] Setting up ip1
I0504 07:45:23.943384 19798 net.cpp:131] Top shape: 111 180 (19980)
I0504 07:45:23.943387 19798 net.cpp:139] Memory required for data: 33763980
I0504 07:45:23.943395 19798 layer_factory.hpp:77] Creating layer relu1
I0504 07:45:23.943403 19798 net.cpp:86] Creating Layer relu1
I0504 07:45:23.943408 19798 net.cpp:408] relu1 <- ip1
I0504 07:45:23.943411 19798 net.cpp:369] relu1 -> ip1 (in-place)
I0504 07:45:23.943581 19798 net.cpp:124] Setting up relu1
I0504 07:45:23.943590 19798 net.cpp:131] Top shape: 111 180 (19980)
I0504 07:45:23.943593 19798 net.cpp:139] Memory required for data: 33843900
I0504 07:45:23.943596 19798 layer_factory.hpp:77] Creating layer ip2
I0504 07:45:23.943603 19798 net.cpp:86] Creating Layer ip2
I0504 07:45:23.943604 19798 net.cpp:408] ip2 <- ip1
I0504 07:45:23.943610 19798 net.cpp:382] ip2 -> ip2
I0504 07:45:23.943753 19798 net.cpp:124] Setting up ip2
I0504 07:45:23.943760 19798 net.cpp:131] Top shape: 111 10 (1110)
I0504 07:45:23.943763 19798 net.cpp:139] Memory required for data: 33848340
I0504 07:45:23.943768 19798 layer_factory.hpp:77] Creating layer loss
I0504 07:45:23.943773 19798 net.cpp:86] Creating Layer loss
I0504 07:45:23.943789 19798 net.cpp:408] loss <- ip2
I0504 07:45:23.943794 19798 net.cpp:408] loss <- label
I0504 07:45:23.943799 19798 net.cpp:382] loss -> loss
I0504 07:45:23.943831 19798 layer_factory.hpp:77] Creating layer loss
…
I0504 07:45:23.945179 19798 solver.cpp:173] Creating test net (#0) specified by net file: ECE595/cifar/train_test/var_everything_tiny/cifar_train_test_86.prototxt
I0504 07:45:23.945205 19798 net.cpp:296] The NetState phase (1) differed from the phase (0) specified by a rule in layer cifar
I0504 07:45:23.945310 19798 net.cpp:53] Initializing net from parameters: 
name: "CIFAR"
state {
  phase: TEST
}
layer {
  name: "cifar"
  type: "Data"
  top: "data"
  top: "label"
  include {
    phase: TEST
  }
  transform_param {
    mean_file: "examples/cifar10/mean.binaryproto"
  }
  data_param {
    source: "examples/cifar10/cifar10_test_lmdb"
    batch_size: 1000
    backend: LMDB
  }
}
layer {
  name: "conv0"
  type: "Convolution"
  bottom: "data"
  top: "conv0"
  param {
    lr_mult: 1
  }
  param {
    lr_mult: 2
  }
  convolution_param {
    num_output: 24
    pad: 2
    kernel_size: 5
    stride: 1
    weight_filler {
      type: "gaussian"
      std: 0.01
    }
    bias_filler {
      type: "constant"
    }
  }
}
layer {
  name: "Sigmoid0"
  type: "Sigmoid"
  bottom: "conv0"
  top: "Sigmoid0"
}
layer {
  name: "pool0"
  type: "Pooling"
  bottom: "Sigmoid0"
  top: "pool0"
  pooling_param {
    pool: AVE
    kernel_size: 3
    stride: 2
  }
}
layer {
  name: "conv1"
  type: "Convolution"
  bottom: "pool0"
  top: "conv1"
  param {
    lr_mult: 1
  }
  param {
    lr_mult: 2
  }
  convolution_param {
    num_output: 24
    pad: 2
    kernel_size: 3
    stride: 1
    weight_filler {
      type: "gaussian"
      std: 0.01
    }
    bias_filler {
      type: "constant"
    }
  }
}
layer {
  name: "Sigmoid1"
  type: "Sigmoid"
  bottom: "conv1"
  top: "Sigmoid1"
}
layer {
  name: "pool1"
  type: "Pooling"
  bottom: "Sigmoid1"
  top: "pool1"
  pooling_param {
    pool: AVE
    kernel_size: 3
    stride: 2
  }
}
layer {
  name: "ip1"
  type: "InnerProduct"
  bottom: "pool1"
  top: "ip1"
  param {
    lr_mult: 1
  }
  param {
    lr_mult: 2
  }
  inner_product_param {
    num_output: 180
    weight_filler {
      type: "gaussian"
      std: 0.01
    }
    bias_filler {
      type: "constant"
    }
  }
}
layer {
  name: "relu1"
  type: "ReLU"
  bottom: "ip1"
  top: "ip1"
}
layer {
  name: "ip2"
  type: "InnerProduct"
  bottom: "ip1"
  top: "ip2"
  param {
    lr_mult: 1
  }
  param {
    lr_mult: 2
  }
  inner_product_param {
    num_output: 10
    weight_filler {
      type: "gaussian"
      std: 0.01
    }
    bias_filler {
      type: "constant"
    }
  }
}
layer {
  name: "accuracy"
  type: "Accuracy"
  bottom: "ip2"
  bottom: "label"
  top: "accuracy"
  include {
    phase: TEST
  }
}
layer {
  name: "loss"
  type: "SoftmaxWithLoss"
  bottom: "ip2"
  bottom: "label"
  top: "loss"
}
I0504 07:45:23.945386 19798 layer_factory.hpp:77] Creating layer cifar
I0504 07:45:23.945431 19798 db_lmdb.cpp:35] Opened lmdb examples/cifar10/cifar10_test_lmdb
I0504 07:45:23.945442 19798 net.cpp:86] Creating Layer cifar
I0504 07:45:23.945446 19798 net.cpp:382] cifar -> data
I0504 07:45:23.945454 19798 net.cpp:382] cifar -> label
I0504 07:45:23.945461 19798 data_transformer.cpp:25] Loading mean file from: examples/cifar10/mean.binaryproto
I0504 07:45:23.945602 19798 data_layer.cpp:45] output data size: 1000,3,32,32
I0504 07:45:23.967686 19798 net.cpp:124] Setting up cifar
I0504 07:45:23.967730 19798 net.cpp:131] Top shape: 1000 3 32 32 (3072000)
I0504 07:45:23.967736 19798 net.cpp:131] Top shape: 1000 (1000)
I0504 07:45:23.967737 19798 net.cpp:139] Memory required for data: 12292000
I0504 07:45:23.967743 19798 layer_factory.hpp:77] Creating layer label_cifar_1_split
I0504 07:45:23.967761 19798 net.cpp:86] Creating Layer label_cifar_1_split
I0504 07:45:23.967766 19798 net.cpp:408] label_cifar_1_split <- label
I0504 07:45:23.967770 19798 net.cpp:382] label_cifar_1_split -> label_cifar_1_split_0
I0504 07:45:23.967778 19798 net.cpp:382] label_cifar_1_split -> label_cifar_1_split_1
I0504 07:45:23.967859 19798 net.cpp:124] Setting up label_cifar_1_split
I0504 07:45:23.967867 19798 net.cpp:131] Top shape: 1000 (1000)
I0504 07:45:23.967870 19798 net.cpp:131] Top shape: 1000 (1000)
I0504 07:45:23.967874 19798 net.cpp:139] Memory required for data: 12300000
I0504 07:45:23.967876 19798 layer_factory.hpp:77] Creating layer conv0
I0504 07:45:23.967890 19798 net.cpp:86] Creating Layer conv0
I0504 07:45:23.967892 19798 net.cpp:408] conv0 <- data
I0504 07:45:23.967898 19798 net.cpp:382] conv0 -> conv0
I0504 07:45:23.968801 19798 net.cpp:124] Setting up conv0
I0504 07:45:23.968835 19798 net.cpp:131] Top shape: 1000 24 32 32 (24576000)
I0504 07:45:23.968839 19798 net.cpp:139] Memory required for data: 110604000
I0504 07:45:23.968864 19798 layer_factory.hpp:77] Creating layer Sigmoid0
I0504 07:45:23.968888 19798 net.cpp:86] Creating Layer Sigmoid0
I0504 07:45:23.968890 19798 net.cpp:408] Sigmoid0 <- conv0
I0504 07:45:23.968910 19798 net.cpp:382] Sigmoid0 -> Sigmoid0
I0504 07:45:23.970813 19798 net.cpp:124] Setting up Sigmoid0
I0504 07:45:23.970841 19798 net.cpp:131] Top shape: 1000 24 32 32 (24576000)
I0504 07:45:23.970845 19798 net.cpp:139] Memory required for data: 208908000
I0504 07:45:23.970849 19798 layer_factory.hpp:77] Creating layer pool0
I0504 07:45:23.970857 19798 net.cpp:86] Creating Layer pool0
I0504 07:45:23.970860 19798 net.cpp:408] pool0 <- Sigmoid0
I0504 07:45:23.970866 19798 net.cpp:382] pool0 -> pool0
I0504 07:45:23.971042 19798 net.cpp:124] Setting up pool0
I0504 07:45:23.971051 19798 net.cpp:131] Top shape: 1000 24 16 16 (6144000)
I0504 07:45:23.971055 19798 net.cpp:139] Memory required for data: 233484000
I0504 07:45:23.971057 19798 layer_factory.hpp:77] Creating layer conv1
I0504 07:45:23.971067 19798 net.cpp:86] Creating Layer conv1
I0504 07:45:23.971071 19798 net.cpp:408] conv1 <- pool0
I0504 07:45:23.971077 19798 net.cpp:382] conv1 -> conv1
I0504 07:45:23.972576 19798 net.cpp:124] Setting up conv1
I0504 07:45:23.972589 19798 net.cpp:131] Top shape: 1000 24 18 18 (7776000)
I0504 07:45:23.972609 19798 net.cpp:139] Memory required for data: 264588000
I0504 07:45:23.972618 19798 layer_factory.hpp:77] Creating layer Sigmoid1
I0504 07:45:23.972625 19798 net.cpp:86] Creating Layer Sigmoid1
I0504 07:45:23.972630 19798 net.cpp:408] Sigmoid1 <- conv1
I0504 07:45:23.972633 19798 net.cpp:382] Sigmoid1 -> Sigmoid1
I0504 07:45:23.972849 19798 net.cpp:124] Setting up Sigmoid1
I0504 07:45:23.972861 19798 net.cpp:131] Top shape: 1000 24 18 18 (7776000)
I0504 07:45:23.972864 19798 net.cpp:139] Memory required for data: 295692000
I0504 07:45:23.972867 19798 layer_factory.hpp:77] Creating layer pool1
I0504 07:45:23.972873 19798 net.cpp:86] Creating Layer pool1
I0504 07:45:23.972877 19798 net.cpp:408] pool1 <- Sigmoid1
I0504 07:45:23.972882 19798 net.cpp:382] pool1 -> pool1
I0504 07:45:23.973067 19798 net.cpp:124] Setting up pool1
I0504 07:45:23.973078 19798 net.cpp:131] Top shape: 1000 24 9 9 (1944000)
I0504 07:45:23.973080 19798 net.cpp:139] Memory required for data: 303468000
I0504 07:45:23.973083 19798 layer_factory.hpp:77] Creating layer ip1
I0504 07:45:23.973093 19798 net.cpp:86] Creating Layer ip1
I0504 07:45:23.973096 19798 net.cpp:408] ip1 <- pool1
I0504 07:45:23.973101 19798 net.cpp:382] ip1 -> ip1
I0504 07:45:23.983419 19798 net.cpp:124] Setting up ip1
I0504 07:45:23.983433 19798 net.cpp:131] Top shape: 1000 180 (180000)
I0504 07:45:23.983455 19798 net.cpp:139] Memory required for data: 304188000
I0504 07:45:23.983464 19798 layer_factory.hpp:77] Creating layer relu1
I0504 07:45:23.983472 19798 net.cpp:86] Creating Layer relu1
I0504 07:45:23.983476 19798 net.cpp:408] relu1 <- ip1
I0504 07:45:23.983480 19798 net.cpp:369] relu1 -> ip1 (in-place)
I0504 07:45:23.984303 19798 net.cpp:124] Setting up relu1
I0504 07:45:23.984314 19798 net.cpp:131] Top shape: 1000 180 (180000)
I0504 07:45:23.984333 19798 net.cpp:139] Memory required for data: 304908000
I0504 07:45:23.984336 19798 layer_factory.hpp:77] Creating layer ip2
I0504 07:45:23.984344 19798 net.cpp:86] Creating Layer ip2
I0504 07:45:23.984349 19798 net.cpp:408] ip2 <- ip1
I0504 07:45:23.984355 19798 net.cpp:382] ip2 -> ip2
I0504 07:45:23.984546 19798 net.cpp:124] Setting up ip2
I0504 07:45:23.984555 19798 net.cpp:131] Top shape: 1000 10 (10000)
I0504 07:45:23.984557 19798 net.cpp:139] Memory required for data: 304948000
I0504 07:45:23.984563 19798 layer_factory.hpp:77] Creating layer ip2_ip2_0_split
I0504 07:45:23.984568 19798 net.cpp:86] Creating Layer ip2_ip2_0_split
I0504 07:45:23.984571 19798 net.cpp:408] ip2_ip2_0_split <- ip2
I0504 07:45:23.984575 19798 net.cpp:382] ip2_ip2_0_split -> ip2_ip2_0_split_0
I0504 07:45:23.984581 19798 net.cpp:382] ip2_ip2_0_split -> ip2_ip2_0_split_1
I0504 07:45:23.984616 19798 net.cpp:124] Setting up ip2_ip2_0_split
I0504 07:45:23.984621 19798 net.cpp:131] Top shape: 1000 10 (10000)
I0504 07:45:23.984623 19798 net.cpp:131] Top shape: 1000 10 (10000)
I0504 07:45:23.984627 19798 net.cpp:139] Memory required for data: 305028000
I0504 07:45:23.984629 19798 layer_factory.hpp:77] Creating layer accuracy
I0504 07:45:23.984635 19798 net.cpp:86] Creating Layer accuracy
I0504 07:45:23.984638 19798 net.cpp:408] accuracy <- ip2_ip2_0_split_0
I0504 07:45:23.984642 19798 net.cpp:408] accuracy <- label_cifar_1_split_0
I0504 07:45:23.984647 19798 net.cpp:382] accuracy -> accuracy
…
