…
I0504 11:23:37.137805 26943 net.cpp:296] The NetState phase (0) differed from the phase (1) specified by a rule in layer cifar
I0504 11:23:37.137825 26943 net.cpp:296] The NetState phase (0) differed from the phase (1) specified by a rule in layer accuracy
I0504 11:23:37.137928 26943 net.cpp:53] Initializing net from parameters: 
name: "CIFAR"
state {
  phase: TRAIN
  level: 0
  stage: ""
}
layer {
  name: "cifar"
  type: "Data"
  top: "data"
  top: "label"
  include {
    phase: TRAIN
  }
  transform_param {
    mean_file: "examples/cifar10/mean.binaryproto"
  }
  data_param {
    source: "examples/cifar10/cifar10_train_lmdb"
    batch_size: 111
    backend: LMDB
  }
}
layer {
  name: "conv0"
  type: "Convolution"
  bottom: "data"
  top: "conv0"
  param {
    lr_mult: 1
  }
  param {
    lr_mult: 2
  }
  convolution_param {
    num_output: 24
    pad: 2
    kernel_size: 3
    stride: 1
    weight_filler {
      type: "gaussian"
      std: 0.01
    }
    bias_filler {
      type: "constant"
    }
  }
}
layer {
  name: "Sigmoid0"
  type: "Sigmoid"
  bottom: "conv0"
  top: "Sigmoid0"
}
layer {
  name: "pool0"
  type: "Pooling"
  bottom: "Sigmoid0"
  top: "pool0"
  pooling_param {
    pool: AVE
    kernel_size: 3
    stride: 2
  }
}
layer {
  name: "conv1"
  type: "Convolution"
  bottom: "pool0"
  top: "conv1"
  param {
    lr_mult: 1
  }
  param {
    lr_mult: 2
  }
  convolution_param {
    num_output: 216
    pad: 2
    kernel_size: 3
    stride: 1
    weight_filler {
      type: "gaussian"
      std: 0.01
    }
    bias_filler {
      type: "constant"
    }
  }
}
layer {
  name: "Sigmoid1"
  type: "Sigmoid"
  bottom: "conv1"
  top: "Sigmoid1"
}
layer {
  name: "pool1"
  type: "Pooling"
  bottom: "Sigmoid1"
  top: "pool1"
  pooling_param {
    pool: AVE
    kernel_size: 3
    stride: 2
  }
}
layer {
  name: "ip1"
  type: "InnerProduct"
  bottom: "pool1"
  top: "ip1"
  param {
    lr_mult: 1
  }
  param {
    lr_mult: 2
  }
  inner_product_param {
    num_output: 180
    weight_filler {
      type: "gaussian"
      std: 0.01
    }
    bias_filler {
      type: "constant"
    }
  }
}
layer {
  name: "relu1"
  type: "ReLU"
  bottom: "ip1"
  top: "ip1"
}
layer {
  name: "ip2"
  type: "InnerProduct"
  bottom: "ip1"
  top: "ip2"
  param {
    lr_mult: 1
  }
  param {
    lr_mult: 2
  }
  inner_product_param {
    num_output: 10
    weight_filler {
      type: "gaussian"
      std: 0.01
    }
    bias_filler {
      type: "constant"
    }
  }
}
layer {
  name: "loss"
  type: "SoftmaxWithLoss"
  bottom: "ip2"
  bottom: "label"
  top: "loss"
}
I0504 11:23:37.138005 26943 layer_factory.hpp:77] Creating layer cifar
I0504 11:23:37.138104 26943 db_lmdb.cpp:35] Opened lmdb examples/cifar10/cifar10_train_lmdb
I0504 11:23:37.138130 26943 net.cpp:86] Creating Layer cifar
I0504 11:23:37.138141 26943 net.cpp:382] cifar -> data
I0504 11:23:37.138165 26943 net.cpp:382] cifar -> label
I0504 11:23:37.138177 26943 data_transformer.cpp:25] Loading mean file from: examples/cifar10/mean.binaryproto
I0504 11:23:37.140362 26943 data_layer.cpp:45] output data size: 111,3,32,32
I0504 11:23:37.148531 26943 net.cpp:124] Setting up cifar
I0504 11:23:37.148551 26943 net.cpp:131] Top shape: 111 3 32 32 (340992)
I0504 11:23:37.148557 26943 net.cpp:131] Top shape: 111 (111)
I0504 11:23:37.148561 26943 net.cpp:139] Memory required for data: 1364412
I0504 11:23:37.148569 26943 layer_factory.hpp:77] Creating layer conv0
I0504 11:23:37.148588 26943 net.cpp:86] Creating Layer conv0
I0504 11:23:37.148610 26943 net.cpp:408] conv0 <- data
I0504 11:23:37.148625 26943 net.cpp:382] conv0 -> conv0
I0504 11:23:37.434813 26943 net.cpp:124] Setting up conv0
I0504 11:23:37.434840 26943 net.cpp:131] Top shape: 111 24 34 34 (3079584)
I0504 11:23:37.434844 26943 net.cpp:139] Memory required for data: 13682748
I0504 11:23:37.434859 26943 layer_factory.hpp:77] Creating layer Sigmoid0
I0504 11:23:37.434870 26943 net.cpp:86] Creating Layer Sigmoid0
I0504 11:23:37.434875 26943 net.cpp:408] Sigmoid0 <- conv0
I0504 11:23:37.434881 26943 net.cpp:382] Sigmoid0 -> Sigmoid0
I0504 11:23:37.435053 26943 net.cpp:124] Setting up Sigmoid0
I0504 11:23:37.435063 26943 net.cpp:131] Top shape: 111 24 34 34 (3079584)
I0504 11:23:37.435066 26943 net.cpp:139] Memory required for data: 26001084
I0504 11:23:37.435070 26943 layer_factory.hpp:77] Creating layer pool0
I0504 11:23:37.435077 26943 net.cpp:86] Creating Layer pool0
I0504 11:23:37.435081 26943 net.cpp:408] pool0 <- Sigmoid0
I0504 11:23:37.435086 26943 net.cpp:382] pool0 -> pool0
I0504 11:23:37.435814 26943 net.cpp:124] Setting up pool0
I0504 11:23:37.435827 26943 net.cpp:131] Top shape: 111 24 17 17 (769896)
I0504 11:23:37.435832 26943 net.cpp:139] Memory required for data: 29080668
I0504 11:23:37.435834 26943 layer_factory.hpp:77] Creating layer conv1
I0504 11:23:37.435847 26943 net.cpp:86] Creating Layer conv1
I0504 11:23:37.435849 26943 net.cpp:408] conv1 <- pool0
I0504 11:23:37.435855 26943 net.cpp:382] conv1 -> conv1
I0504 11:23:37.439623 26943 net.cpp:124] Setting up conv1
I0504 11:23:37.439636 26943 net.cpp:131] Top shape: 111 216 19 19 (8655336)
I0504 11:23:37.439640 26943 net.cpp:139] Memory required for data: 63702012
I0504 11:23:37.439651 26943 layer_factory.hpp:77] Creating layer Sigmoid1
I0504 11:23:37.439658 26943 net.cpp:86] Creating Layer Sigmoid1
I0504 11:23:37.439662 26943 net.cpp:408] Sigmoid1 <- conv1
I0504 11:23:37.439666 26943 net.cpp:382] Sigmoid1 -> Sigmoid1
I0504 11:23:37.439839 26943 net.cpp:124] Setting up Sigmoid1
I0504 11:23:37.439848 26943 net.cpp:131] Top shape: 111 216 19 19 (8655336)
I0504 11:23:37.439851 26943 net.cpp:139] Memory required for data: 98323356
I0504 11:23:37.439854 26943 layer_factory.hpp:77] Creating layer pool1
I0504 11:23:37.439860 26943 net.cpp:86] Creating Layer pool1
I0504 11:23:37.439863 26943 net.cpp:408] pool1 <- Sigmoid1
I0504 11:23:37.439868 26943 net.cpp:382] pool1 -> pool1
I0504 11:23:37.440032 26943 net.cpp:124] Setting up pool1
I0504 11:23:37.440039 26943 net.cpp:131] Top shape: 111 216 9 9 (1942056)
I0504 11:23:37.440043 26943 net.cpp:139] Memory required for data: 106091580
I0504 11:23:37.440047 26943 layer_factory.hpp:77] Creating layer ip1
I0504 11:23:37.440054 26943 net.cpp:86] Creating Layer ip1
I0504 11:23:37.440057 26943 net.cpp:408] ip1 <- pool1
I0504 11:23:37.440062 26943 net.cpp:382] ip1 -> ip1
I0504 11:23:37.520978 26943 net.cpp:124] Setting up ip1
I0504 11:23:37.521008 26943 net.cpp:131] Top shape: 111 180 (19980)
I0504 11:23:37.521011 26943 net.cpp:139] Memory required for data: 106171500
I0504 11:23:37.521021 26943 layer_factory.hpp:77] Creating layer relu1
I0504 11:23:37.521029 26943 net.cpp:86] Creating Layer relu1
I0504 11:23:37.521033 26943 net.cpp:408] relu1 <- ip1
I0504 11:23:37.521037 26943 net.cpp:369] relu1 -> ip1 (in-place)
I0504 11:23:37.521230 26943 net.cpp:124] Setting up relu1
I0504 11:23:37.521240 26943 net.cpp:131] Top shape: 111 180 (19980)
I0504 11:23:37.521244 26943 net.cpp:139] Memory required for data: 106251420
I0504 11:23:37.521246 26943 layer_factory.hpp:77] Creating layer ip2
I0504 11:23:37.521252 26943 net.cpp:86] Creating Layer ip2
I0504 11:23:37.521255 26943 net.cpp:408] ip2 <- ip1
I0504 11:23:37.521262 26943 net.cpp:382] ip2 -> ip2
I0504 11:23:37.521405 26943 net.cpp:124] Setting up ip2
I0504 11:23:37.521412 26943 net.cpp:131] Top shape: 111 10 (1110)
I0504 11:23:37.521414 26943 net.cpp:139] Memory required for data: 106255860
I0504 11:23:37.521420 26943 layer_factory.hpp:77] Creating layer loss
I0504 11:23:37.521426 26943 net.cpp:86] Creating Layer loss
I0504 11:23:37.521441 26943 net.cpp:408] loss <- ip2
I0504 11:23:37.521446 26943 net.cpp:408] loss <- label
I0504 11:23:37.521452 26943 net.cpp:382] loss -> loss
I0504 11:23:37.521466 26943 layer_factory.hpp:77] Creating layer loss
…
I0504 11:23:37.522693 26943 solver.cpp:173] Creating test net (#0) specified by net file: ECE595/cifar/train_test/var_everything_tiny/cifar_train_test_146.prototxt
I0504 11:23:37.522717 26943 net.cpp:296] The NetState phase (1) differed from the phase (0) specified by a rule in layer cifar
I0504 11:23:37.522824 26943 net.cpp:53] Initializing net from parameters: 
name: "CIFAR"
state {
  phase: TEST
}
layer {
  name: "cifar"
  type: "Data"
  top: "data"
  top: "label"
  include {
    phase: TEST
  }
  transform_param {
    mean_file: "examples/cifar10/mean.binaryproto"
  }
  data_param {
    source: "examples/cifar10/cifar10_test_lmdb"
    batch_size: 1000
    backend: LMDB
  }
}
layer {
  name: "conv0"
  type: "Convolution"
  bottom: "data"
  top: "conv0"
  param {
    lr_mult: 1
  }
  param {
    lr_mult: 2
  }
  convolution_param {
    num_output: 24
    pad: 2
    kernel_size: 3
    stride: 1
    weight_filler {
      type: "gaussian"
      std: 0.01
    }
    bias_filler {
      type: "constant"
    }
  }
}
layer {
  name: "Sigmoid0"
  type: "Sigmoid"
  bottom: "conv0"
  top: "Sigmoid0"
}
layer {
  name: "pool0"
  type: "Pooling"
  bottom: "Sigmoid0"
  top: "pool0"
  pooling_param {
    pool: AVE
    kernel_size: 3
    stride: 2
  }
}
layer {
  name: "conv1"
  type: "Convolution"
  bottom: "pool0"
  top: "conv1"
  param {
    lr_mult: 1
  }
  param {
    lr_mult: 2
  }
  convolution_param {
    num_output: 216
    pad: 2
    kernel_size: 3
    stride: 1
    weight_filler {
      type: "gaussian"
      std: 0.01
    }
    bias_filler {
      type: "constant"
    }
  }
}
layer {
  name: "Sigmoid1"
  type: "Sigmoid"
  bottom: "conv1"
  top: "Sigmoid1"
}
layer {
  name: "pool1"
  type: "Pooling"
  bottom: "Sigmoid1"
  top: "pool1"
  pooling_param {
    pool: AVE
    kernel_size: 3
    stride: 2
  }
}
layer {
  name: "ip1"
  type: "InnerProduct"
  bottom: "pool1"
  top: "ip1"
  param {
    lr_mult: 1
  }
  param {
    lr_mult: 2
  }
  inner_product_param {
    num_output: 180
    weight_filler {
      type: "gaussian"
      std: 0.01
    }
    bias_filler {
      type: "constant"
    }
  }
}
layer {
  name: "relu1"
  type: "ReLU"
  bottom: "ip1"
  top: "ip1"
}
layer {
  name: "ip2"
  type: "InnerProduct"
  bottom: "ip1"
  top: "ip2"
  param {
    lr_mult: 1
  }
  param {
    lr_mult: 2
  }
  inner_product_param {
    num_output: 10
    weight_filler {
      type: "gaussian"
      std: 0.01
    }
    bias_filler {
      type: "constant"
    }
  }
}
layer {
  name: "accuracy"
  type: "Accuracy"
  bottom: "ip2"
  bottom: "label"
  top: "accuracy"
  include {
    phase: TEST
  }
}
layer {
  name: "loss"
  type: "SoftmaxWithLoss"
  bottom: "ip2"
  bottom: "label"
  top: "loss"
}
I0504 11:23:37.522900 26943 layer_factory.hpp:77] Creating layer cifar
I0504 11:23:37.522944 26943 db_lmdb.cpp:35] Opened lmdb examples/cifar10/cifar10_test_lmdb
I0504 11:23:37.522956 26943 net.cpp:86] Creating Layer cifar
I0504 11:23:37.522964 26943 net.cpp:382] cifar -> data
I0504 11:23:37.522987 26943 net.cpp:382] cifar -> label
I0504 11:23:37.522994 26943 data_transformer.cpp:25] Loading mean file from: examples/cifar10/mean.binaryproto
I0504 11:23:37.523151 26943 data_layer.cpp:45] output data size: 1000,3,32,32
I0504 11:23:37.544592 26943 net.cpp:124] Setting up cifar
I0504 11:23:37.544631 26943 net.cpp:131] Top shape: 1000 3 32 32 (3072000)
I0504 11:23:37.544636 26943 net.cpp:131] Top shape: 1000 (1000)
I0504 11:23:37.544639 26943 net.cpp:139] Memory required for data: 12292000
I0504 11:23:37.544646 26943 layer_factory.hpp:77] Creating layer label_cifar_1_split
I0504 11:23:37.544657 26943 net.cpp:86] Creating Layer label_cifar_1_split
I0504 11:23:37.544661 26943 net.cpp:408] label_cifar_1_split <- label
I0504 11:23:37.544667 26943 net.cpp:382] label_cifar_1_split -> label_cifar_1_split_0
I0504 11:23:37.544677 26943 net.cpp:382] label_cifar_1_split -> label_cifar_1_split_1
I0504 11:23:37.544798 26943 net.cpp:124] Setting up label_cifar_1_split
I0504 11:23:37.544806 26943 net.cpp:131] Top shape: 1000 (1000)
I0504 11:23:37.544832 26943 net.cpp:131] Top shape: 1000 (1000)
I0504 11:23:37.544836 26943 net.cpp:139] Memory required for data: 12300000
I0504 11:23:37.544838 26943 layer_factory.hpp:77] Creating layer conv0
I0504 11:23:37.544867 26943 net.cpp:86] Creating Layer conv0
I0504 11:23:37.544889 26943 net.cpp:408] conv0 <- data
I0504 11:23:37.544895 26943 net.cpp:382] conv0 -> conv0
I0504 11:23:37.545938 26943 net.cpp:124] Setting up conv0
I0504 11:23:37.545951 26943 net.cpp:131] Top shape: 1000 24 34 34 (27744000)
I0504 11:23:37.545955 26943 net.cpp:139] Memory required for data: 123276000
I0504 11:23:37.545964 26943 layer_factory.hpp:77] Creating layer Sigmoid0
I0504 11:23:37.545971 26943 net.cpp:86] Creating Layer Sigmoid0
I0504 11:23:37.545974 26943 net.cpp:408] Sigmoid0 <- conv0
I0504 11:23:37.545979 26943 net.cpp:382] Sigmoid0 -> Sigmoid0
I0504 11:23:37.546957 26943 net.cpp:124] Setting up Sigmoid0
I0504 11:23:37.546985 26943 net.cpp:131] Top shape: 1000 24 34 34 (27744000)
I0504 11:23:37.546989 26943 net.cpp:139] Memory required for data: 234252000
I0504 11:23:37.546993 26943 layer_factory.hpp:77] Creating layer pool0
I0504 11:23:37.547003 26943 net.cpp:86] Creating Layer pool0
I0504 11:23:37.547005 26943 net.cpp:408] pool0 <- Sigmoid0
I0504 11:23:37.547010 26943 net.cpp:382] pool0 -> pool0
I0504 11:23:37.547191 26943 net.cpp:124] Setting up pool0
I0504 11:23:37.547200 26943 net.cpp:131] Top shape: 1000 24 17 17 (6936000)
I0504 11:23:37.547204 26943 net.cpp:139] Memory required for data: 261996000
I0504 11:23:37.547206 26943 layer_factory.hpp:77] Creating layer conv1
I0504 11:23:37.547215 26943 net.cpp:86] Creating Layer conv1
I0504 11:23:37.547219 26943 net.cpp:408] conv1 <- pool0
I0504 11:23:37.547224 26943 net.cpp:382] conv1 -> conv1
I0504 11:23:37.549788 26943 net.cpp:124] Setting up conv1
I0504 11:23:37.549818 26943 net.cpp:131] Top shape: 1000 216 19 19 (77976000)
I0504 11:23:37.549821 26943 net.cpp:139] Memory required for data: 573900000
I0504 11:23:37.549830 26943 layer_factory.hpp:77] Creating layer Sigmoid1
I0504 11:23:37.549836 26943 net.cpp:86] Creating Layer Sigmoid1
I0504 11:23:37.549840 26943 net.cpp:408] Sigmoid1 <- conv1
I0504 11:23:37.549845 26943 net.cpp:382] Sigmoid1 -> Sigmoid1
I0504 11:23:37.550017 26943 net.cpp:124] Setting up Sigmoid1
I0504 11:23:37.550026 26943 net.cpp:131] Top shape: 1000 216 19 19 (77976000)
I0504 11:23:37.550030 26943 net.cpp:139] Memory required for data: 885804000
I0504 11:23:37.550034 26943 layer_factory.hpp:77] Creating layer pool1
I0504 11:23:37.550040 26943 net.cpp:86] Creating Layer pool1
I0504 11:23:37.550043 26943 net.cpp:408] pool1 <- Sigmoid1
I0504 11:23:37.550061 26943 net.cpp:382] pool1 -> pool1
I0504 11:23:37.550213 26943 net.cpp:124] Setting up pool1
I0504 11:23:37.550237 26943 net.cpp:131] Top shape: 1000 216 9 9 (17496000)
I0504 11:23:37.550242 26943 net.cpp:139] Memory required for data: 955788000
I0504 11:23:37.550246 26943 layer_factory.hpp:77] Creating layer ip1
I0504 11:23:37.550254 26943 net.cpp:86] Creating Layer ip1
I0504 11:23:37.550261 26943 net.cpp:408] ip1 <- pool1
I0504 11:23:37.550281 26943 net.cpp:382] ip1 -> ip1
I0504 11:23:37.634662 26943 net.cpp:124] Setting up ip1
I0504 11:23:37.634716 26943 net.cpp:131] Top shape: 1000 180 (180000)
I0504 11:23:37.634719 26943 net.cpp:139] Memory required for data: 956508000
I0504 11:23:37.634732 26943 layer_factory.hpp:77] Creating layer relu1
I0504 11:23:37.634742 26943 net.cpp:86] Creating Layer relu1
I0504 11:23:37.634745 26943 net.cpp:408] relu1 <- ip1
I0504 11:23:37.634750 26943 net.cpp:369] relu1 -> ip1 (in-place)
I0504 11:23:37.635727 26943 net.cpp:124] Setting up relu1
I0504 11:23:37.635740 26943 net.cpp:131] Top shape: 1000 180 (180000)
I0504 11:23:37.635759 26943 net.cpp:139] Memory required for data: 957228000
I0504 11:23:37.635776 26943 layer_factory.hpp:77] Creating layer ip2
I0504 11:23:37.635783 26943 net.cpp:86] Creating Layer ip2
I0504 11:23:37.635787 26943 net.cpp:408] ip2 <- ip1
I0504 11:23:37.635792 26943 net.cpp:382] ip2 -> ip2
I0504 11:23:37.635974 26943 net.cpp:124] Setting up ip2
I0504 11:23:37.635982 26943 net.cpp:131] Top shape: 1000 10 (10000)
I0504 11:23:37.635985 26943 net.cpp:139] Memory required for data: 957268000
I0504 11:23:37.635990 26943 layer_factory.hpp:77] Creating layer ip2_ip2_0_split
I0504 11:23:37.635996 26943 net.cpp:86] Creating Layer ip2_ip2_0_split
I0504 11:23:37.635999 26943 net.cpp:408] ip2_ip2_0_split <- ip2
I0504 11:23:37.636004 26943 net.cpp:382] ip2_ip2_0_split -> ip2_ip2_0_split_0
I0504 11:23:37.636009 26943 net.cpp:382] ip2_ip2_0_split -> ip2_ip2_0_split_1
I0504 11:23:37.636055 26943 net.cpp:124] Setting up ip2_ip2_0_split
I0504 11:23:37.636061 26943 net.cpp:131] Top shape: 1000 10 (10000)
I0504 11:23:37.636065 26943 net.cpp:131] Top shape: 1000 10 (10000)
I0504 11:23:37.636067 26943 net.cpp:139] Memory required for data: 957348000
I0504 11:23:37.636070 26943 layer_factory.hpp:77] Creating layer accuracy
I0504 11:23:37.636076 26943 net.cpp:86] Creating Layer accuracy
I0504 11:23:37.636080 26943 net.cpp:408] accuracy <- ip2_ip2_0_split_0
I0504 11:23:37.636082 26943 net.cpp:408] accuracy <- label_cifar_1_split_0
I0504 11:23:37.636087 26943 net.cpp:382] accuracy -> accuracy
…
