…
I0504 11:44:58.989214 27846 net.cpp:296] The NetState phase (0) differed from the phase (1) specified by a rule in layer cifar
I0504 11:44:58.989235 27846 net.cpp:296] The NetState phase (0) differed from the phase (1) specified by a rule in layer accuracy
I0504 11:44:58.989348 27846 net.cpp:53] Initializing net from parameters: 
name: "CIFAR"
state {
  phase: TRAIN
  level: 0
  stage: ""
}
layer {
  name: "cifar"
  type: "Data"
  top: "data"
  top: "label"
  include {
    phase: TRAIN
  }
  transform_param {
    mean_file: "examples/cifar10/mean.binaryproto"
  }
  data_param {
    source: "examples/cifar10/cifar10_train_lmdb"
    batch_size: 111
    backend: LMDB
  }
}
layer {
  name: "conv0"
  type: "Convolution"
  bottom: "data"
  top: "conv0"
  param {
    lr_mult: 1
  }
  param {
    lr_mult: 2
  }
  convolution_param {
    num_output: 24
    pad: 2
    kernel_size: 3
    stride: 1
    weight_filler {
      type: "gaussian"
      std: 0.01
    }
    bias_filler {
      type: "constant"
    }
  }
}
layer {
  name: "Sigmoid0"
  type: "Sigmoid"
  bottom: "conv0"
  top: "Sigmoid0"
}
layer {
  name: "pool0"
  type: "Pooling"
  bottom: "Sigmoid0"
  top: "pool0"
  pooling_param {
    pool: AVE
    kernel_size: 3
    stride: 2
  }
}
layer {
  name: "conv1"
  type: "Convolution"
  bottom: "pool0"
  top: "conv1"
  param {
    lr_mult: 1
  }
  param {
    lr_mult: 2
  }
  convolution_param {
    num_output: 216
    pad: 2
    kernel_size: 3
    stride: 1
    weight_filler {
      type: "gaussian"
      std: 0.01
    }
    bias_filler {
      type: "constant"
    }
  }
}
layer {
  name: "Sigmoid1"
  type: "Sigmoid"
  bottom: "conv1"
  top: "Sigmoid1"
}
layer {
  name: "pool1"
  type: "Pooling"
  bottom: "Sigmoid1"
  top: "pool1"
  pooling_param {
    pool: AVE
    kernel_size: 3
    stride: 2
  }
}
layer {
  name: "ip1"
  type: "InnerProduct"
  bottom: "pool1"
  top: "ip1"
  param {
    lr_mult: 1
  }
  param {
    lr_mult: 2
  }
  inner_product_param {
    num_output: 10
    weight_filler {
      type: "gaussian"
      std: 0.01
    }
    bias_filler {
      type: "constant"
    }
  }
}
layer {
  name: "relu1"
  type: "ReLU"
  bottom: "ip1"
  top: "ip1"
}
layer {
  name: "ip2"
  type: "InnerProduct"
  bottom: "ip1"
  top: "ip2"
  param {
    lr_mult: 1
  }
  param {
    lr_mult: 2
  }
  inner_product_param {
    num_output: 180
    weight_filler {
      type: "gaussian"
      std: 0.01
    }
    bias_filler {
      type: "constant"
    }
  }
}
layer {
  name: "relu2"
  type: "ReLU"
  bottom: "ip2"
  top: "ip2"
}
layer {
  name: "ip3"
  type: "InnerProduct"
  bottom: "ip2"
  top: "ip3"
  param {
    lr_mult: 1
  }
  param {
    lr_mult: 2
  }
  inner_product_param {
    num_output: 10
    weight_filler {
      type: "gaussian"
      std: 0.01
    }
    bias_filler {
      type: "constant"
    }
  }
}
layer {
  name: "loss"
  type: "SoftmaxWithLoss"
  bottom: "ip3"
  bottom: "label"
  top: "loss"
}
I0504 11:44:58.989430 27846 layer_factory.hpp:77] Creating layer cifar
I0504 11:44:58.989531 27846 db_lmdb.cpp:35] Opened lmdb examples/cifar10/cifar10_train_lmdb
I0504 11:44:58.989557 27846 net.cpp:86] Creating Layer cifar
I0504 11:44:58.989567 27846 net.cpp:382] cifar -> data
I0504 11:44:58.989590 27846 net.cpp:382] cifar -> label
I0504 11:44:58.989603 27846 data_transformer.cpp:25] Loading mean file from: examples/cifar10/mean.binaryproto
I0504 11:44:58.991766 27846 data_layer.cpp:45] output data size: 111,3,32,32
I0504 11:44:58.999752 27846 net.cpp:124] Setting up cifar
I0504 11:44:58.999770 27846 net.cpp:131] Top shape: 111 3 32 32 (340992)
I0504 11:44:58.999778 27846 net.cpp:131] Top shape: 111 (111)
I0504 11:44:58.999781 27846 net.cpp:139] Memory required for data: 1364412
I0504 11:44:58.999788 27846 layer_factory.hpp:77] Creating layer conv0
I0504 11:44:58.999809 27846 net.cpp:86] Creating Layer conv0
I0504 11:44:58.999814 27846 net.cpp:408] conv0 <- data
I0504 11:44:58.999826 27846 net.cpp:382] conv0 -> conv0
I0504 11:44:59.280326 27846 net.cpp:124] Setting up conv0
I0504 11:44:59.280351 27846 net.cpp:131] Top shape: 111 24 34 34 (3079584)
I0504 11:44:59.280355 27846 net.cpp:139] Memory required for data: 13682748
I0504 11:44:59.280369 27846 layer_factory.hpp:77] Creating layer Sigmoid0
I0504 11:44:59.280380 27846 net.cpp:86] Creating Layer Sigmoid0
I0504 11:44:59.280385 27846 net.cpp:408] Sigmoid0 <- conv0
I0504 11:44:59.280390 27846 net.cpp:382] Sigmoid0 -> Sigmoid0
I0504 11:44:59.280581 27846 net.cpp:124] Setting up Sigmoid0
I0504 11:44:59.280591 27846 net.cpp:131] Top shape: 111 24 34 34 (3079584)
I0504 11:44:59.280594 27846 net.cpp:139] Memory required for data: 26001084
I0504 11:44:59.280597 27846 layer_factory.hpp:77] Creating layer pool0
I0504 11:44:59.280604 27846 net.cpp:86] Creating Layer pool0
I0504 11:44:59.280607 27846 net.cpp:408] pool0 <- Sigmoid0
I0504 11:44:59.280612 27846 net.cpp:382] pool0 -> pool0
I0504 11:44:59.281410 27846 net.cpp:124] Setting up pool0
I0504 11:44:59.281424 27846 net.cpp:131] Top shape: 111 24 17 17 (769896)
I0504 11:44:59.281426 27846 net.cpp:139] Memory required for data: 29080668
I0504 11:44:59.281430 27846 layer_factory.hpp:77] Creating layer conv1
I0504 11:44:59.281443 27846 net.cpp:86] Creating Layer conv1
I0504 11:44:59.281446 27846 net.cpp:408] conv1 <- pool0
I0504 11:44:59.281452 27846 net.cpp:382] conv1 -> conv1
I0504 11:44:59.285214 27846 net.cpp:124] Setting up conv1
I0504 11:44:59.285228 27846 net.cpp:131] Top shape: 111 216 19 19 (8655336)
I0504 11:44:59.285231 27846 net.cpp:139] Memory required for data: 63702012
I0504 11:44:59.285239 27846 layer_factory.hpp:77] Creating layer Sigmoid1
I0504 11:44:59.285245 27846 net.cpp:86] Creating Layer Sigmoid1
I0504 11:44:59.285248 27846 net.cpp:408] Sigmoid1 <- conv1
I0504 11:44:59.285254 27846 net.cpp:382] Sigmoid1 -> Sigmoid1
I0504 11:44:59.285470 27846 net.cpp:124] Setting up Sigmoid1
I0504 11:44:59.285478 27846 net.cpp:131] Top shape: 111 216 19 19 (8655336)
I0504 11:44:59.285481 27846 net.cpp:139] Memory required for data: 98323356
I0504 11:44:59.285485 27846 layer_factory.hpp:77] Creating layer pool1
I0504 11:44:59.285491 27846 net.cpp:86] Creating Layer pool1
I0504 11:44:59.285495 27846 net.cpp:408] pool1 <- Sigmoid1
I0504 11:44:59.285500 27846 net.cpp:382] pool1 -> pool1
I0504 11:44:59.285687 27846 net.cpp:124] Setting up pool1
I0504 11:44:59.285696 27846 net.cpp:131] Top shape: 111 216 9 9 (1942056)
I0504 11:44:59.285698 27846 net.cpp:139] Memory required for data: 106091580
I0504 11:44:59.285701 27846 layer_factory.hpp:77] Creating layer ip1
I0504 11:44:59.285709 27846 net.cpp:86] Creating Layer ip1
I0504 11:44:59.285712 27846 net.cpp:408] ip1 <- pool1
I0504 11:44:59.285718 27846 net.cpp:382] ip1 -> ip1
I0504 11:44:59.290370 27846 net.cpp:124] Setting up ip1
I0504 11:44:59.290380 27846 net.cpp:131] Top shape: 111 10 (1110)
I0504 11:44:59.290382 27846 net.cpp:139] Memory required for data: 106096020
I0504 11:44:59.290390 27846 layer_factory.hpp:77] Creating layer relu1
I0504 11:44:59.290395 27846 net.cpp:86] Creating Layer relu1
I0504 11:44:59.290398 27846 net.cpp:408] relu1 <- ip1
I0504 11:44:59.290402 27846 net.cpp:369] relu1 -> ip1 (in-place)
I0504 11:44:59.290570 27846 net.cpp:124] Setting up relu1
I0504 11:44:59.290580 27846 net.cpp:131] Top shape: 111 10 (1110)
I0504 11:44:59.290582 27846 net.cpp:139] Memory required for data: 106100460
I0504 11:44:59.290585 27846 layer_factory.hpp:77] Creating layer ip2
I0504 11:44:59.290591 27846 net.cpp:86] Creating Layer ip2
I0504 11:44:59.290594 27846 net.cpp:408] ip2 <- ip1
I0504 11:44:59.290613 27846 net.cpp:382] ip2 -> ip2
I0504 11:44:59.290765 27846 net.cpp:124] Setting up ip2
I0504 11:44:59.290787 27846 net.cpp:131] Top shape: 111 180 (19980)
I0504 11:44:59.290791 27846 net.cpp:139] Memory required for data: 106180380
I0504 11:44:59.290796 27846 layer_factory.hpp:77] Creating layer relu2
I0504 11:44:59.290802 27846 net.cpp:86] Creating Layer relu2
I0504 11:44:59.290804 27846 net.cpp:408] relu2 <- ip2
I0504 11:44:59.290808 27846 net.cpp:369] relu2 -> ip2 (in-place)
I0504 11:44:59.291538 27846 net.cpp:124] Setting up relu2
I0504 11:44:59.291549 27846 net.cpp:131] Top shape: 111 180 (19980)
I0504 11:44:59.291553 27846 net.cpp:139] Memory required for data: 106260300
I0504 11:44:59.291555 27846 layer_factory.hpp:77] Creating layer ip3
I0504 11:44:59.291563 27846 net.cpp:86] Creating Layer ip3
I0504 11:44:59.291564 27846 net.cpp:408] ip3 <- ip2
I0504 11:44:59.291571 27846 net.cpp:382] ip3 -> ip3
I0504 11:44:59.291733 27846 net.cpp:124] Setting up ip3
I0504 11:44:59.291740 27846 net.cpp:131] Top shape: 111 10 (1110)
I0504 11:44:59.291743 27846 net.cpp:139] Memory required for data: 106264740
I0504 11:44:59.291751 27846 layer_factory.hpp:77] Creating layer loss
I0504 11:44:59.291757 27846 net.cpp:86] Creating Layer loss
I0504 11:44:59.291764 27846 net.cpp:408] loss <- ip3
I0504 11:44:59.291767 27846 net.cpp:408] loss <- label
I0504 11:44:59.291774 27846 net.cpp:382] loss -> loss
I0504 11:44:59.291786 27846 layer_factory.hpp:77] Creating layer loss
…
I0504 11:44:59.292518 27846 solver.cpp:173] Creating test net (#0) specified by net file: ECE595/cifar/train_test/var_everything_tiny/cifar_train_test_149.prototxt
I0504 11:44:59.292543 27846 net.cpp:296] The NetState phase (1) differed from the phase (0) specified by a rule in layer cifar
I0504 11:44:59.292655 27846 net.cpp:53] Initializing net from parameters: 
name: "CIFAR"
state {
  phase: TEST
}
layer {
  name: "cifar"
  type: "Data"
  top: "data"
  top: "label"
  include {
    phase: TEST
  }
  transform_param {
    mean_file: "examples/cifar10/mean.binaryproto"
  }
  data_param {
    source: "examples/cifar10/cifar10_test_lmdb"
    batch_size: 1000
    backend: LMDB
  }
}
layer {
  name: "conv0"
  type: "Convolution"
  bottom: "data"
  top: "conv0"
  param {
    lr_mult: 1
  }
  param {
    lr_mult: 2
  }
  convolution_param {
    num_output: 24
    pad: 2
    kernel_size: 3
    stride: 1
    weight_filler {
      type: "gaussian"
      std: 0.01
    }
    bias_filler {
      type: "constant"
    }
  }
}
layer {
  name: "Sigmoid0"
  type: "Sigmoid"
  bottom: "conv0"
  top: "Sigmoid0"
}
layer {
  name: "pool0"
  type: "Pooling"
  bottom: "Sigmoid0"
  top: "pool0"
  pooling_param {
    pool: AVE
    kernel_size: 3
    stride: 2
  }
}
layer {
  name: "conv1"
  type: "Convolution"
  bottom: "pool0"
  top: "conv1"
  param {
    lr_mult: 1
  }
  param {
    lr_mult: 2
  }
  convolution_param {
    num_output: 216
    pad: 2
    kernel_size: 3
    stride: 1
    weight_filler {
      type: "gaussian"
      std: 0.01
    }
    bias_filler {
      type: "constant"
    }
  }
}
layer {
  name: "Sigmoid1"
  type: "Sigmoid"
  bottom: "conv1"
  top: "Sigmoid1"
}
layer {
  name: "pool1"
  type: "Pooling"
  bottom: "Sigmoid1"
  top: "pool1"
  pooling_param {
    pool: AVE
    kernel_size: 3
    stride: 2
  }
}
layer {
  name: "ip1"
  type: "InnerProduct"
  bottom: "pool1"
  top: "ip1"
  param {
    lr_mult: 1
  }
  param {
    lr_mult: 2
  }
  inner_product_param {
    num_output: 10
    weight_filler {
      type: "gaussian"
      std: 0.01
    }
    bias_filler {
      type: "constant"
    }
  }
}
layer {
  name: "relu1"
  type: "ReLU"
  bottom: "ip1"
  top: "ip1"
}
layer {
  name: "ip2"
  type: "InnerProduct"
  bottom: "ip1"
  top: "ip2"
  param {
    lr_mult: 1
  }
  param {
    lr_mult: 2
  }
  inner_product_param {
    num_output: 180
    weight_filler {
      type: "gaussian"
      std: 0.01
    }
    bias_filler {
      type: "constant"
    }
  }
}
layer {
  name: "relu2"
  type: "ReLU"
  bottom: "ip2"
  top: "ip2"
}
layer {
  name: "ip3"
  type: "InnerProduct"
  bottom: "ip2"
  top: "ip3"
  param {
    lr_mult: 1
  }
  param {
    lr_mult: 2
  }
  inner_product_param {
    num_output: 10
    weight_filler {
      type: "gaussian"
      std: 0.01
    }
    bias_filler {
      type: "constant"
    }
  }
}
layer {
  name: "accuracy"
  type: "Accuracy"
  bottom: "ip3"
  bottom: "label"
  top: "accuracy"
  include {
    phase: TEST
  }
}
layer {
  name: "loss"
  type: "SoftmaxWithLoss"
  bottom: "ip3"
  bottom: "label"
  top: "loss"
}
I0504 11:44:59.292739 27846 layer_factory.hpp:77] Creating layer cifar
I0504 11:44:59.292783 27846 db_lmdb.cpp:35] Opened lmdb examples/cifar10/cifar10_test_lmdb
I0504 11:44:59.292794 27846 net.cpp:86] Creating Layer cifar
I0504 11:44:59.292801 27846 net.cpp:382] cifar -> data
I0504 11:44:59.292814 27846 net.cpp:382] cifar -> label
I0504 11:44:59.292836 27846 data_transformer.cpp:25] Loading mean file from: examples/cifar10/mean.binaryproto
I0504 11:44:59.293023 27846 data_layer.cpp:45] output data size: 1000,3,32,32
I0504 11:44:59.314867 27846 net.cpp:124] Setting up cifar
I0504 11:44:59.314909 27846 net.cpp:131] Top shape: 1000 3 32 32 (3072000)
I0504 11:44:59.314918 27846 net.cpp:131] Top shape: 1000 (1000)
I0504 11:44:59.314920 27846 net.cpp:139] Memory required for data: 12292000
I0504 11:44:59.314926 27846 layer_factory.hpp:77] Creating layer label_cifar_1_split
I0504 11:44:59.314939 27846 net.cpp:86] Creating Layer label_cifar_1_split
I0504 11:44:59.314959 27846 net.cpp:408] label_cifar_1_split <- label
I0504 11:44:59.314965 27846 net.cpp:382] label_cifar_1_split -> label_cifar_1_split_0
I0504 11:44:59.314972 27846 net.cpp:382] label_cifar_1_split -> label_cifar_1_split_1
I0504 11:44:59.315055 27846 net.cpp:124] Setting up label_cifar_1_split
I0504 11:44:59.315062 27846 net.cpp:131] Top shape: 1000 (1000)
I0504 11:44:59.315066 27846 net.cpp:131] Top shape: 1000 (1000)
I0504 11:44:59.315069 27846 net.cpp:139] Memory required for data: 12300000
I0504 11:44:59.315073 27846 layer_factory.hpp:77] Creating layer conv0
I0504 11:44:59.315100 27846 net.cpp:86] Creating Layer conv0
I0504 11:44:59.315107 27846 net.cpp:408] conv0 <- data
I0504 11:44:59.315114 27846 net.cpp:382] conv0 -> conv0
I0504 11:44:59.316841 27846 net.cpp:124] Setting up conv0
I0504 11:44:59.316854 27846 net.cpp:131] Top shape: 1000 24 34 34 (27744000)
I0504 11:44:59.316874 27846 net.cpp:139] Memory required for data: 123276000
I0504 11:44:59.316884 27846 layer_factory.hpp:77] Creating layer Sigmoid0
I0504 11:44:59.316892 27846 net.cpp:86] Creating Layer Sigmoid0
I0504 11:44:59.316895 27846 net.cpp:408] Sigmoid0 <- conv0
I0504 11:44:59.316916 27846 net.cpp:382] Sigmoid0 -> Sigmoid0
I0504 11:44:59.317140 27846 net.cpp:124] Setting up Sigmoid0
I0504 11:44:59.317176 27846 net.cpp:131] Top shape: 1000 24 34 34 (27744000)
I0504 11:44:59.317179 27846 net.cpp:139] Memory required for data: 234252000
I0504 11:44:59.317183 27846 layer_factory.hpp:77] Creating layer pool0
I0504 11:44:59.317191 27846 net.cpp:86] Creating Layer pool0
I0504 11:44:59.317194 27846 net.cpp:408] pool0 <- Sigmoid0
I0504 11:44:59.317200 27846 net.cpp:382] pool0 -> pool0
I0504 11:44:59.317484 27846 net.cpp:124] Setting up pool0
I0504 11:44:59.317494 27846 net.cpp:131] Top shape: 1000 24 17 17 (6936000)
I0504 11:44:59.317497 27846 net.cpp:139] Memory required for data: 261996000
I0504 11:44:59.317500 27846 layer_factory.hpp:77] Creating layer conv1
I0504 11:44:59.317524 27846 net.cpp:86] Creating Layer conv1
I0504 11:44:59.317543 27846 net.cpp:408] conv1 <- pool0
I0504 11:44:59.317550 27846 net.cpp:382] conv1 -> conv1
I0504 11:44:59.321107 27846 net.cpp:124] Setting up conv1
I0504 11:44:59.321122 27846 net.cpp:131] Top shape: 1000 216 19 19 (77976000)
I0504 11:44:59.321126 27846 net.cpp:139] Memory required for data: 573900000
I0504 11:44:59.321135 27846 layer_factory.hpp:77] Creating layer Sigmoid1
I0504 11:44:59.321142 27846 net.cpp:86] Creating Layer Sigmoid1
I0504 11:44:59.321161 27846 net.cpp:408] Sigmoid1 <- conv1
I0504 11:44:59.321167 27846 net.cpp:382] Sigmoid1 -> Sigmoid1
I0504 11:44:59.321396 27846 net.cpp:124] Setting up Sigmoid1
I0504 11:44:59.321406 27846 net.cpp:131] Top shape: 1000 216 19 19 (77976000)
I0504 11:44:59.321410 27846 net.cpp:139] Memory required for data: 885804000
I0504 11:44:59.321413 27846 layer_factory.hpp:77] Creating layer pool1
I0504 11:44:59.321420 27846 net.cpp:86] Creating Layer pool1
I0504 11:44:59.321424 27846 net.cpp:408] pool1 <- Sigmoid1
I0504 11:44:59.321429 27846 net.cpp:382] pool1 -> pool1
I0504 11:44:59.322206 27846 net.cpp:124] Setting up pool1
I0504 11:44:59.322218 27846 net.cpp:131] Top shape: 1000 216 9 9 (17496000)
I0504 11:44:59.322237 27846 net.cpp:139] Memory required for data: 955788000
I0504 11:44:59.322240 27846 layer_factory.hpp:77] Creating layer ip1
I0504 11:44:59.322250 27846 net.cpp:86] Creating Layer ip1
I0504 11:44:59.322253 27846 net.cpp:408] ip1 <- pool1
I0504 11:44:59.322259 27846 net.cpp:382] ip1 -> ip1
I0504 11:44:59.327050 27846 net.cpp:124] Setting up ip1
I0504 11:44:59.327059 27846 net.cpp:131] Top shape: 1000 10 (10000)
I0504 11:44:59.327077 27846 net.cpp:139] Memory required for data: 955828000
I0504 11:44:59.327085 27846 layer_factory.hpp:77] Creating layer relu1
I0504 11:44:59.327107 27846 net.cpp:86] Creating Layer relu1
I0504 11:44:59.327122 27846 net.cpp:408] relu1 <- ip1
I0504 11:44:59.327127 27846 net.cpp:369] relu1 -> ip1 (in-place)
I0504 11:44:59.327304 27846 net.cpp:124] Setting up relu1
I0504 11:44:59.327312 27846 net.cpp:131] Top shape: 1000 10 (10000)
I0504 11:44:59.327316 27846 net.cpp:139] Memory required for data: 955868000
I0504 11:44:59.327319 27846 layer_factory.hpp:77] Creating layer ip2
I0504 11:44:59.327327 27846 net.cpp:86] Creating Layer ip2
I0504 11:44:59.327329 27846 net.cpp:408] ip2 <- ip1
I0504 11:44:59.327335 27846 net.cpp:382] ip2 -> ip2
I0504 11:44:59.327491 27846 net.cpp:124] Setting up ip2
I0504 11:44:59.327500 27846 net.cpp:131] Top shape: 1000 180 (180000)
I0504 11:44:59.327503 27846 net.cpp:139] Memory required for data: 956588000
I0504 11:44:59.327509 27846 layer_factory.hpp:77] Creating layer relu2
I0504 11:44:59.327513 27846 net.cpp:86] Creating Layer relu2
I0504 11:44:59.327517 27846 net.cpp:408] relu2 <- ip2
I0504 11:44:59.327522 27846 net.cpp:369] relu2 -> ip2 (in-place)
I0504 11:44:59.327682 27846 net.cpp:124] Setting up relu2
I0504 11:44:59.327692 27846 net.cpp:131] Top shape: 1000 180 (180000)
I0504 11:44:59.327697 27846 net.cpp:139] Memory required for data: 957308000
I0504 11:44:59.327699 27846 layer_factory.hpp:77] Creating layer ip3
I0504 11:44:59.327705 27846 net.cpp:86] Creating Layer ip3
I0504 11:44:59.327708 27846 net.cpp:408] ip3 <- ip2
I0504 11:44:59.327714 27846 net.cpp:382] ip3 -> ip3
I0504 11:44:59.327868 27846 net.cpp:124] Setting up ip3
I0504 11:44:59.327901 27846 net.cpp:131] Top shape: 1000 10 (10000)
I0504 11:44:59.327904 27846 net.cpp:139] Memory required for data: 957348000
I0504 11:44:59.327913 27846 layer_factory.hpp:77] Creating layer ip3_ip3_0_split
I0504 11:44:59.327919 27846 net.cpp:86] Creating Layer ip3_ip3_0_split
I0504 11:44:59.327922 27846 net.cpp:408] ip3_ip3_0_split <- ip3
I0504 11:44:59.327929 27846 net.cpp:382] ip3_ip3_0_split -> ip3_ip3_0_split_0
I0504 11:44:59.327934 27846 net.cpp:382] ip3_ip3_0_split -> ip3_ip3_0_split_1
I0504 11:44:59.327970 27846 net.cpp:124] Setting up ip3_ip3_0_split
I0504 11:44:59.327981 27846 net.cpp:131] Top shape: 1000 10 (10000)
I0504 11:44:59.327986 27846 net.cpp:131] Top shape: 1000 10 (10000)
I0504 11:44:59.327988 27846 net.cpp:139] Memory required for data: 957428000
I0504 11:44:59.327991 27846 layer_factory.hpp:77] Creating layer accuracy
I0504 11:44:59.327998 27846 net.cpp:86] Creating Layer accuracy
I0504 11:44:59.328001 27846 net.cpp:408] accuracy <- ip3_ip3_0_split_0
I0504 11:44:59.328006 27846 net.cpp:408] accuracy <- label_cifar_1_split_0
I0504 11:44:59.328018 27846 net.cpp:382] accuracy -> accuracy
…
