…
I0504 02:28:42.284802  9276 net.cpp:296] The NetState phase (0) differed from the phase (1) specified by a rule in layer cifar
I0504 02:28:42.284827  9276 net.cpp:296] The NetState phase (0) differed from the phase (1) specified by a rule in layer accuracy
I0504 02:28:42.284910  9276 net.cpp:53] Initializing net from parameters: 
name: "CIFAR"
state {
  phase: TRAIN
  level: 0
  stage: ""
}
layer {
  name: "cifar"
  type: "Data"
  top: "data"
  top: "label"
  include {
    phase: TRAIN
  }
  transform_param {
    mean_file: "examples/cifar10/mean.binaryproto"
  }
  data_param {
    source: "examples/cifar10/cifar10_train_lmdb"
    batch_size: 111
    backend: LMDB
  }
}
layer {
  name: "conv0"
  type: "Convolution"
  bottom: "data"
  top: "conv0"
  param {
    lr_mult: 1
  }
  param {
    lr_mult: 2
  }
  convolution_param {
    num_output: 216
    pad: 2
    kernel_size: 3
    stride: 1
    weight_filler {
      type: "gaussian"
      std: 0.01
    }
    bias_filler {
      type: "constant"
    }
  }
}
layer {
  name: "Sigmoid0"
  type: "Sigmoid"
  bottom: "conv0"
  top: "Sigmoid0"
}
layer {
  name: "pool0"
  type: "Pooling"
  bottom: "Sigmoid0"
  top: "pool0"
  pooling_param {
    pool: AVE
    kernel_size: 3
    stride: 2
  }
}
layer {
  name: "ip1"
  type: "InnerProduct"
  bottom: "pool0"
  top: "ip1"
  param {
    lr_mult: 1
  }
  param {
    lr_mult: 2
  }
  inner_product_param {
    num_output: 10
    weight_filler {
      type: "gaussian"
      std: 0.01
    }
    bias_filler {
      type: "constant"
    }
  }
}
layer {
  name: "relu1"
  type: "ReLU"
  bottom: "ip1"
  top: "ip1"
}
layer {
  name: "ip2"
  type: "InnerProduct"
  bottom: "ip1"
  top: "ip2"
  param {
    lr_mult: 1
  }
  param {
    lr_mult: 2
  }
  inner_product_param {
    num_output: 10
    weight_filler {
      type: "gaussian"
      std: 0.01
    }
    bias_filler {
      type: "constant"
    }
  }
}
layer {
  name: "loss"
  type: "SoftmaxWithLoss"
  bottom: "ip2"
  bottom: "label"
  top: "loss"
}
I0504 02:28:42.284981  9276 layer_factory.hpp:77] Creating layer cifar
I0504 02:28:42.285084  9276 db_lmdb.cpp:35] Opened lmdb examples/cifar10/cifar10_train_lmdb
I0504 02:28:42.285123  9276 net.cpp:86] Creating Layer cifar
I0504 02:28:42.285133  9276 net.cpp:382] cifar -> data
I0504 02:28:42.285156  9276 net.cpp:382] cifar -> label
I0504 02:28:42.285167  9276 data_transformer.cpp:25] Loading mean file from: examples/cifar10/mean.binaryproto
I0504 02:28:42.287298  9276 data_layer.cpp:45] output data size: 111,3,32,32
I0504 02:28:42.295393  9276 net.cpp:124] Setting up cifar
I0504 02:28:42.295413  9276 net.cpp:131] Top shape: 111 3 32 32 (340992)
I0504 02:28:42.295420  9276 net.cpp:131] Top shape: 111 (111)
I0504 02:28:42.295423  9276 net.cpp:139] Memory required for data: 1364412
I0504 02:28:42.295433  9276 layer_factory.hpp:77] Creating layer conv0
I0504 02:28:42.295451  9276 net.cpp:86] Creating Layer conv0
I0504 02:28:42.295457  9276 net.cpp:408] conv0 <- data
I0504 02:28:42.295469  9276 net.cpp:382] conv0 -> conv0
I0504 02:28:42.584544  9276 net.cpp:124] Setting up conv0
I0504 02:28:42.584574  9276 net.cpp:131] Top shape: 111 216 34 34 (27716256)
I0504 02:28:42.584579  9276 net.cpp:139] Memory required for data: 112229436
I0504 02:28:42.584595  9276 layer_factory.hpp:77] Creating layer Sigmoid0
I0504 02:28:42.584609  9276 net.cpp:86] Creating Layer Sigmoid0
I0504 02:28:42.584612  9276 net.cpp:408] Sigmoid0 <- conv0
I0504 02:28:42.584645  9276 net.cpp:382] Sigmoid0 -> Sigmoid0
I0504 02:28:42.584879  9276 net.cpp:124] Setting up Sigmoid0
I0504 02:28:42.584890  9276 net.cpp:131] Top shape: 111 216 34 34 (27716256)
I0504 02:28:42.584894  9276 net.cpp:139] Memory required for data: 223094460
I0504 02:28:42.584898  9276 layer_factory.hpp:77] Creating layer pool0
I0504 02:28:42.584906  9276 net.cpp:86] Creating Layer pool0
I0504 02:28:42.584910  9276 net.cpp:408] pool0 <- Sigmoid0
I0504 02:28:42.584915  9276 net.cpp:382] pool0 -> pool0
I0504 02:28:42.585716  9276 net.cpp:124] Setting up pool0
I0504 02:28:42.585729  9276 net.cpp:131] Top shape: 111 216 17 17 (6929064)
I0504 02:28:42.585733  9276 net.cpp:139] Memory required for data: 250810716
I0504 02:28:42.585736  9276 layer_factory.hpp:77] Creating layer ip1
I0504 02:28:42.585747  9276 net.cpp:86] Creating Layer ip1
I0504 02:28:42.585750  9276 net.cpp:408] ip1 <- pool0
I0504 02:28:42.585757  9276 net.cpp:382] ip1 -> ip1
I0504 02:28:42.604591  9276 net.cpp:124] Setting up ip1
I0504 02:28:42.604604  9276 net.cpp:131] Top shape: 111 10 (1110)
I0504 02:28:42.604607  9276 net.cpp:139] Memory required for data: 250815156
I0504 02:28:42.604616  9276 layer_factory.hpp:77] Creating layer relu1
I0504 02:28:42.604622  9276 net.cpp:86] Creating Layer relu1
I0504 02:28:42.604626  9276 net.cpp:408] relu1 <- ip1
I0504 02:28:42.604631  9276 net.cpp:369] relu1 -> ip1 (in-place)
I0504 02:28:42.604787  9276 net.cpp:124] Setting up relu1
I0504 02:28:42.604795  9276 net.cpp:131] Top shape: 111 10 (1110)
I0504 02:28:42.604799  9276 net.cpp:139] Memory required for data: 250819596
I0504 02:28:42.604802  9276 layer_factory.hpp:77] Creating layer ip2
I0504 02:28:42.604812  9276 net.cpp:86] Creating Layer ip2
I0504 02:28:42.604816  9276 net.cpp:408] ip2 <- ip1
I0504 02:28:42.604833  9276 net.cpp:382] ip2 -> ip2
I0504 02:28:42.604930  9276 net.cpp:124] Setting up ip2
I0504 02:28:42.604938  9276 net.cpp:131] Top shape: 111 10 (1110)
I0504 02:28:42.604940  9276 net.cpp:139] Memory required for data: 250824036
I0504 02:28:42.604948  9276 layer_factory.hpp:77] Creating layer loss
I0504 02:28:42.604954  9276 net.cpp:86] Creating Layer loss
I0504 02:28:42.604957  9276 net.cpp:408] loss <- ip2
I0504 02:28:42.604961  9276 net.cpp:408] loss <- label
I0504 02:28:42.604966  9276 net.cpp:382] loss -> loss
I0504 02:28:42.604984  9276 layer_factory.hpp:77] Creating layer loss
…
I0504 02:28:42.605548  9276 solver.cpp:173] Creating test net (#0) specified by net file: ECE595/cifar/train_test/var_everything_tiny/cifar_train_test_48.prototxt
I0504 02:28:42.605573  9276 net.cpp:296] The NetState phase (1) differed from the phase (0) specified by a rule in layer cifar
I0504 02:28:42.605649  9276 net.cpp:53] Initializing net from parameters: 
name: "CIFAR"
state {
  phase: TEST
}
layer {
  name: "cifar"
  type: "Data"
  top: "data"
  top: "label"
  include {
    phase: TEST
  }
  transform_param {
    mean_file: "examples/cifar10/mean.binaryproto"
  }
  data_param {
    source: "examples/cifar10/cifar10_test_lmdb"
    batch_size: 1000
    backend: LMDB
  }
}
layer {
  name: "conv0"
  type: "Convolution"
  bottom: "data"
  top: "conv0"
  param {
    lr_mult: 1
  }
  param {
    lr_mult: 2
  }
  convolution_param {
    num_output: 216
    pad: 2
    kernel_size: 3
    stride: 1
    weight_filler {
      type: "gaussian"
      std: 0.01
    }
    bias_filler {
      type: "constant"
    }
  }
}
layer {
  name: "Sigmoid0"
  type: "Sigmoid"
  bottom: "conv0"
  top: "Sigmoid0"
}
layer {
  name: "pool0"
  type: "Pooling"
  bottom: "Sigmoid0"
  top: "pool0"
  pooling_param {
    pool: AVE
    kernel_size: 3
    stride: 2
  }
}
layer {
  name: "ip1"
  type: "InnerProduct"
  bottom: "pool0"
  top: "ip1"
  param {
    lr_mult: 1
  }
  param {
    lr_mult: 2
  }
  inner_product_param {
    num_output: 10
    weight_filler {
      type: "gaussian"
      std: 0.01
    }
    bias_filler {
      type: "constant"
    }
  }
}
layer {
  name: "relu1"
  type: "ReLU"
  bottom: "ip1"
  top: "ip1"
}
layer {
  name: "ip2"
  type: "InnerProduct"
  bottom: "ip1"
  top: "ip2"
  param {
    lr_mult: 1
  }
  param {
    lr_mult: 2
  }
  inner_product_param {
    num_output: 10
    weight_filler {
      type: "gaussian"
      std: 0.01
    }
    bias_filler {
      type: "constant"
    }
  }
}
layer {
  name: "accuracy"
  type: "Accuracy"
  bottom: "ip2"
  bottom: "label"
  top: "accuracy"
  include {
    phase: TEST
  }
}
layer {
  name: "loss"
  type: "SoftmaxWithLoss"
  bottom: "ip2"
  bottom: "label"
  top: "loss"
}
I0504 02:28:42.605722  9276 layer_factory.hpp:77] Creating layer cifar
I0504 02:28:42.605767  9276 db_lmdb.cpp:35] Opened lmdb examples/cifar10/cifar10_test_lmdb
I0504 02:28:42.605778  9276 net.cpp:86] Creating Layer cifar
I0504 02:28:42.605783  9276 net.cpp:382] cifar -> data
I0504 02:28:42.605792  9276 net.cpp:382] cifar -> label
I0504 02:28:42.605798  9276 data_transformer.cpp:25] Loading mean file from: examples/cifar10/mean.binaryproto
I0504 02:28:42.605942  9276 data_layer.cpp:45] output data size: 1000,3,32,32
I0504 02:28:42.628774  9276 net.cpp:124] Setting up cifar
I0504 02:28:42.628798  9276 net.cpp:131] Top shape: 1000 3 32 32 (3072000)
I0504 02:28:42.628805  9276 net.cpp:131] Top shape: 1000 (1000)
I0504 02:28:42.628814  9276 net.cpp:139] Memory required for data: 12292000
I0504 02:28:42.628820  9276 layer_factory.hpp:77] Creating layer label_cifar_1_split
I0504 02:28:42.628834  9276 net.cpp:86] Creating Layer label_cifar_1_split
I0504 02:28:42.628837  9276 net.cpp:408] label_cifar_1_split <- label
I0504 02:28:42.628842  9276 net.cpp:382] label_cifar_1_split -> label_cifar_1_split_0
I0504 02:28:42.628851  9276 net.cpp:382] label_cifar_1_split -> label_cifar_1_split_1
I0504 02:28:42.628933  9276 net.cpp:124] Setting up label_cifar_1_split
I0504 02:28:42.628939  9276 net.cpp:131] Top shape: 1000 (1000)
I0504 02:28:42.628943  9276 net.cpp:131] Top shape: 1000 (1000)
I0504 02:28:42.628947  9276 net.cpp:139] Memory required for data: 12300000
I0504 02:28:42.628949  9276 layer_factory.hpp:77] Creating layer conv0
I0504 02:28:42.628962  9276 net.cpp:86] Creating Layer conv0
I0504 02:28:42.628964  9276 net.cpp:408] conv0 <- data
I0504 02:28:42.628969  9276 net.cpp:382] conv0 -> conv0
I0504 02:28:42.631306  9276 net.cpp:124] Setting up conv0
I0504 02:28:42.631319  9276 net.cpp:131] Top shape: 1000 216 34 34 (249696000)
I0504 02:28:42.631323  9276 net.cpp:139] Memory required for data: 1011084000
I0504 02:28:42.631332  9276 layer_factory.hpp:77] Creating layer Sigmoid0
I0504 02:28:42.631340  9276 net.cpp:86] Creating Layer Sigmoid0
I0504 02:28:42.631343  9276 net.cpp:408] Sigmoid0 <- conv0
I0504 02:28:42.631348  9276 net.cpp:382] Sigmoid0 -> Sigmoid0
I0504 02:28:42.632575  9276 net.cpp:124] Setting up Sigmoid0
I0504 02:28:42.632591  9276 net.cpp:131] Top shape: 1000 216 34 34 (249696000)
I0504 02:28:42.632594  9276 net.cpp:139] Memory required for data: 2009868000
I0504 02:28:42.632597  9276 layer_factory.hpp:77] Creating layer pool0
I0504 02:28:42.632607  9276 net.cpp:86] Creating Layer pool0
I0504 02:28:42.632611  9276 net.cpp:408] pool0 <- Sigmoid0
I0504 02:28:42.632616  9276 net.cpp:382] pool0 -> pool0
I0504 02:28:42.633422  9276 net.cpp:124] Setting up pool0
I0504 02:28:42.633436  9276 net.cpp:131] Top shape: 1000 216 17 17 (62424000)
I0504 02:28:42.633440  9276 net.cpp:139] Memory required for data: 2259564000
I0504 02:28:42.633443  9276 layer_factory.hpp:77] Creating layer ip1
I0504 02:28:42.633450  9276 net.cpp:86] Creating Layer ip1
I0504 02:28:42.633453  9276 net.cpp:408] ip1 <- pool0
I0504 02:28:42.633460  9276 net.cpp:382] ip1 -> ip1
I0504 02:28:42.650624  9276 net.cpp:124] Setting up ip1
I0504 02:28:42.650638  9276 net.cpp:131] Top shape: 1000 10 (10000)
I0504 02:28:42.650642  9276 net.cpp:139] Memory required for data: 2259604000
I0504 02:28:42.650651  9276 layer_factory.hpp:77] Creating layer relu1
I0504 02:28:42.650657  9276 net.cpp:86] Creating Layer relu1
I0504 02:28:42.650661  9276 net.cpp:408] relu1 <- ip1
I0504 02:28:42.650667  9276 net.cpp:369] relu1 -> ip1 (in-place)
I0504 02:28:42.650833  9276 net.cpp:124] Setting up relu1
I0504 02:28:42.650842  9276 net.cpp:131] Top shape: 1000 10 (10000)
I0504 02:28:42.650846  9276 net.cpp:139] Memory required for data: 2259644000
I0504 02:28:42.650849  9276 layer_factory.hpp:77] Creating layer ip2
I0504 02:28:42.650856  9276 net.cpp:86] Creating Layer ip2
I0504 02:28:42.650859  9276 net.cpp:408] ip2 <- ip1
I0504 02:28:42.650864  9276 net.cpp:382] ip2 -> ip2
I0504 02:28:42.650970  9276 net.cpp:124] Setting up ip2
I0504 02:28:42.650979  9276 net.cpp:131] Top shape: 1000 10 (10000)
I0504 02:28:42.650981  9276 net.cpp:139] Memory required for data: 2259684000
I0504 02:28:42.650987  9276 layer_factory.hpp:77] Creating layer ip2_ip2_0_split
I0504 02:28:42.650995  9276 net.cpp:86] Creating Layer ip2_ip2_0_split
I0504 02:28:42.650997  9276 net.cpp:408] ip2_ip2_0_split <- ip2
I0504 02:28:42.651002  9276 net.cpp:382] ip2_ip2_0_split -> ip2_ip2_0_split_0
I0504 02:28:42.651007  9276 net.cpp:382] ip2_ip2_0_split -> ip2_ip2_0_split_1
I0504 02:28:42.651038  9276 net.cpp:124] Setting up ip2_ip2_0_split
I0504 02:28:42.651042  9276 net.cpp:131] Top shape: 1000 10 (10000)
I0504 02:28:42.651046  9276 net.cpp:131] Top shape: 1000 10 (10000)
I0504 02:28:42.651049  9276 net.cpp:139] Memory required for data: 2259764000
I0504 02:28:42.651052  9276 layer_factory.hpp:77] Creating layer accuracy
I0504 02:28:42.651058  9276 net.cpp:86] Creating Layer accuracy
I0504 02:28:42.651060  9276 net.cpp:408] accuracy <- ip2_ip2_0_split_0
I0504 02:28:42.651064  9276 net.cpp:408] accuracy <- label_cifar_1_split_0
I0504 02:28:42.651070  9276 net.cpp:382] accuracy -> accuracy
…
