…
I0504 16:18:29.018939  8921 net.cpp:296] The NetState phase (0) differed from the phase (1) specified by a rule in layer cifar
I0504 16:18:29.018959  8921 net.cpp:296] The NetState phase (0) differed from the phase (1) specified by a rule in layer accuracy
I0504 16:18:29.019089  8921 net.cpp:53] Initializing net from parameters: 
name: "CIFAR"
state {
  phase: TRAIN
  level: 0
  stage: ""
}
layer {
  name: "cifar"
  type: "Data"
  top: "data"
  top: "label"
  include {
    phase: TRAIN
  }
  transform_param {
    mean_file: "examples/cifar10/mean.binaryproto"
  }
  data_param {
    source: "examples/cifar10/cifar10_train_lmdb"
    batch_size: 111
    backend: LMDB
  }
}
layer {
  name: "conv0"
  type: "Convolution"
  bottom: "data"
  top: "conv0"
  param {
    lr_mult: 1
  }
  param {
    lr_mult: 2
  }
  convolution_param {
    num_output: 72
    pad: 2
    kernel_size: 3
    stride: 1
    weight_filler {
      type: "gaussian"
      std: 0.01
    }
    bias_filler {
      type: "constant"
    }
  }
}
layer {
  name: "Sigmoid0"
  type: "Sigmoid"
  bottom: "conv0"
  top: "Sigmoid0"
}
layer {
  name: "pool0"
  type: "Pooling"
  bottom: "Sigmoid0"
  top: "pool0"
  pooling_param {
    pool: AVE
    kernel_size: 3
    stride: 2
  }
}
layer {
  name: "conv1"
  type: "Convolution"
  bottom: "pool0"
  top: "conv1"
  param {
    lr_mult: 1
  }
  param {
    lr_mult: 2
  }
  convolution_param {
    num_output: 72
    pad: 2
    kernel_size: 3
    stride: 1
    weight_filler {
      type: "gaussian"
      std: 0.01
    }
    bias_filler {
      type: "constant"
    }
  }
}
layer {
  name: "Sigmoid1"
  type: "Sigmoid"
  bottom: "conv1"
  top: "Sigmoid1"
}
layer {
  name: "pool1"
  type: "Pooling"
  bottom: "Sigmoid1"
  top: "pool1"
  pooling_param {
    pool: AVE
    kernel_size: 3
    stride: 2
  }
}
layer {
  name: "ip1"
  type: "InnerProduct"
  bottom: "pool1"
  top: "ip1"
  param {
    lr_mult: 1
  }
  param {
    lr_mult: 2
  }
  inner_product_param {
    num_output: 60
    weight_filler {
      type: "gaussian"
      std: 0.01
    }
    bias_filler {
      type: "constant"
    }
  }
}
layer {
  name: "relu1"
  type: "ReLU"
  bottom: "ip1"
  top: "ip1"
}
layer {
  name: "ip2"
  type: "InnerProduct"
  bottom: "ip1"
  top: "ip2"
  param {
    lr_mult: 1
  }
  param {
    lr_mult: 2
  }
  inner_product_param {
    num_output: 60
    weight_filler {
      type: "gaussian"
      std: 0.01
    }
    bias_filler {
      type: "constant"
    }
  }
}
layer {
  name: "relu2"
  type: "ReLU"
  bottom: "ip2"
  top: "ip2"
}
layer {
  name: "ip3"
  type: "InnerProduct"
  bottom: "ip2"
  top: "ip3"
  param {
    lr_mult: 1
  }
  param {
    lr_mult: 2
  }
  inner_product_param {
    num_output: 10
    weight_filler {
      type: "gaussian"
      std: 0.01
    }
    bias_filler {
      type: "constant"
    }
  }
}
layer {
  name: "loss"
  type: "SoftmaxWithLoss"
  bottom: "ip3"
  bottom: "label"
  top: "loss"
}
I0504 16:18:29.019177  8921 layer_factory.hpp:77] Creating layer cifar
I0504 16:18:29.019278  8921 db_lmdb.cpp:35] Opened lmdb examples/cifar10/cifar10_train_lmdb
I0504 16:18:29.019305  8921 net.cpp:86] Creating Layer cifar
I0504 16:18:29.019314  8921 net.cpp:382] cifar -> data
I0504 16:18:29.019336  8921 net.cpp:382] cifar -> label
I0504 16:18:29.019348  8921 data_transformer.cpp:25] Loading mean file from: examples/cifar10/mean.binaryproto
I0504 16:18:29.021541  8921 data_layer.cpp:45] output data size: 111,3,32,32
I0504 16:18:29.029558  8921 net.cpp:124] Setting up cifar
I0504 16:18:29.029577  8921 net.cpp:131] Top shape: 111 3 32 32 (340992)
I0504 16:18:29.029585  8921 net.cpp:131] Top shape: 111 (111)
I0504 16:18:29.029589  8921 net.cpp:139] Memory required for data: 1364412
I0504 16:18:29.029597  8921 layer_factory.hpp:77] Creating layer conv0
I0504 16:18:29.029615  8921 net.cpp:86] Creating Layer conv0
I0504 16:18:29.029621  8921 net.cpp:408] conv0 <- data
I0504 16:18:29.029633  8921 net.cpp:382] conv0 -> conv0
I0504 16:18:29.311795  8921 net.cpp:124] Setting up conv0
I0504 16:18:29.311821  8921 net.cpp:131] Top shape: 111 72 34 34 (9238752)
I0504 16:18:29.311826  8921 net.cpp:139] Memory required for data: 38319420
I0504 16:18:29.311841  8921 layer_factory.hpp:77] Creating layer Sigmoid0
I0504 16:18:29.311869  8921 net.cpp:86] Creating Layer Sigmoid0
I0504 16:18:29.311873  8921 net.cpp:408] Sigmoid0 <- conv0
I0504 16:18:29.311878  8921 net.cpp:382] Sigmoid0 -> Sigmoid0
I0504 16:18:29.312083  8921 net.cpp:124] Setting up Sigmoid0
I0504 16:18:29.312093  8921 net.cpp:131] Top shape: 111 72 34 34 (9238752)
I0504 16:18:29.312096  8921 net.cpp:139] Memory required for data: 75274428
I0504 16:18:29.312099  8921 layer_factory.hpp:77] Creating layer pool0
I0504 16:18:29.312106  8921 net.cpp:86] Creating Layer pool0
I0504 16:18:29.312110  8921 net.cpp:408] pool0 <- Sigmoid0
I0504 16:18:29.312114  8921 net.cpp:382] pool0 -> pool0
I0504 16:18:29.312906  8921 net.cpp:124] Setting up pool0
I0504 16:18:29.312921  8921 net.cpp:131] Top shape: 111 72 17 17 (2309688)
I0504 16:18:29.312924  8921 net.cpp:139] Memory required for data: 84513180
I0504 16:18:29.312928  8921 layer_factory.hpp:77] Creating layer conv1
I0504 16:18:29.312958  8921 net.cpp:86] Creating Layer conv1
I0504 16:18:29.312961  8921 net.cpp:408] conv1 <- pool0
I0504 16:18:29.312968  8921 net.cpp:382] conv1 -> conv1
I0504 16:18:29.317606  8921 net.cpp:124] Setting up conv1
I0504 16:18:29.317620  8921 net.cpp:131] Top shape: 111 72 19 19 (2885112)
I0504 16:18:29.317625  8921 net.cpp:139] Memory required for data: 96053628
I0504 16:18:29.317633  8921 layer_factory.hpp:77] Creating layer Sigmoid1
I0504 16:18:29.317639  8921 net.cpp:86] Creating Layer Sigmoid1
I0504 16:18:29.317642  8921 net.cpp:408] Sigmoid1 <- conv1
I0504 16:18:29.317647  8921 net.cpp:382] Sigmoid1 -> Sigmoid1
I0504 16:18:29.317836  8921 net.cpp:124] Setting up Sigmoid1
I0504 16:18:29.317845  8921 net.cpp:131] Top shape: 111 72 19 19 (2885112)
I0504 16:18:29.317848  8921 net.cpp:139] Memory required for data: 107594076
I0504 16:18:29.317852  8921 layer_factory.hpp:77] Creating layer pool1
I0504 16:18:29.317857  8921 net.cpp:86] Creating Layer pool1
I0504 16:18:29.317860  8921 net.cpp:408] pool1 <- Sigmoid1
I0504 16:18:29.317865  8921 net.cpp:382] pool1 -> pool1
I0504 16:18:29.318027  8921 net.cpp:124] Setting up pool1
I0504 16:18:29.318035  8921 net.cpp:131] Top shape: 111 72 9 9 (647352)
I0504 16:18:29.318039  8921 net.cpp:139] Memory required for data: 110183484
I0504 16:18:29.318042  8921 layer_factory.hpp:77] Creating layer ip1
I0504 16:18:29.318049  8921 net.cpp:86] Creating Layer ip1
I0504 16:18:29.318053  8921 net.cpp:408] ip1 <- pool1
I0504 16:18:29.318058  8921 net.cpp:382] ip1 -> ip1
I0504 16:18:29.328214  8921 net.cpp:124] Setting up ip1
I0504 16:18:29.328228  8921 net.cpp:131] Top shape: 111 60 (6660)
I0504 16:18:29.328232  8921 net.cpp:139] Memory required for data: 110210124
I0504 16:18:29.328240  8921 layer_factory.hpp:77] Creating layer relu1
I0504 16:18:29.328246  8921 net.cpp:86] Creating Layer relu1
I0504 16:18:29.328250  8921 net.cpp:408] relu1 <- ip1
I0504 16:18:29.328254  8921 net.cpp:369] relu1 -> ip1 (in-place)
I0504 16:18:29.328445  8921 net.cpp:124] Setting up relu1
I0504 16:18:29.328454  8921 net.cpp:131] Top shape: 111 60 (6660)
I0504 16:18:29.328457  8921 net.cpp:139] Memory required for data: 110236764
I0504 16:18:29.328475  8921 layer_factory.hpp:77] Creating layer ip2
I0504 16:18:29.328482  8921 net.cpp:86] Creating Layer ip2
I0504 16:18:29.328501  8921 net.cpp:408] ip2 <- ip1
I0504 16:18:29.328521  8921 net.cpp:382] ip2 -> ip2
I0504 16:18:29.328727  8921 net.cpp:124] Setting up ip2
I0504 16:18:29.328734  8921 net.cpp:131] Top shape: 111 60 (6660)
I0504 16:18:29.328737  8921 net.cpp:139] Memory required for data: 110263404
I0504 16:18:29.328743  8921 layer_factory.hpp:77] Creating layer relu2
I0504 16:18:29.328748  8921 net.cpp:86] Creating Layer relu2
I0504 16:18:29.328766  8921 net.cpp:408] relu2 <- ip2
I0504 16:18:29.328770  8921 net.cpp:369] relu2 -> ip2 (in-place)
I0504 16:18:29.329545  8921 net.cpp:124] Setting up relu2
I0504 16:18:29.329558  8921 net.cpp:131] Top shape: 111 60 (6660)
I0504 16:18:29.329561  8921 net.cpp:139] Memory required for data: 110290044
I0504 16:18:29.329566  8921 layer_factory.hpp:77] Creating layer ip3
I0504 16:18:29.329571  8921 net.cpp:86] Creating Layer ip3
I0504 16:18:29.329576  8921 net.cpp:408] ip3 <- ip2
I0504 16:18:29.329581  8921 net.cpp:382] ip3 -> ip3
I0504 16:18:29.329711  8921 net.cpp:124] Setting up ip3
I0504 16:18:29.329718  8921 net.cpp:131] Top shape: 111 10 (1110)
I0504 16:18:29.329722  8921 net.cpp:139] Memory required for data: 110294484
I0504 16:18:29.329730  8921 layer_factory.hpp:77] Creating layer loss
I0504 16:18:29.329736  8921 net.cpp:86] Creating Layer loss
I0504 16:18:29.329738  8921 net.cpp:408] loss <- ip3
I0504 16:18:29.329742  8921 net.cpp:408] loss <- label
I0504 16:18:29.329748  8921 net.cpp:382] loss -> loss
I0504 16:18:29.329764  8921 layer_factory.hpp:77] Creating layer loss
…
I0504 16:18:29.330441  8921 solver.cpp:173] Creating test net (#0) specified by net file: ECE595/cifar/train_test/var_everything_tiny/cifar_train_test_187.prototxt
I0504 16:18:29.330484  8921 net.cpp:296] The NetState phase (1) differed from the phase (0) specified by a rule in layer cifar
I0504 16:18:29.330584  8921 net.cpp:53] Initializing net from parameters: 
name: "CIFAR"
state {
  phase: TEST
}
layer {
  name: "cifar"
  type: "Data"
  top: "data"
  top: "label"
  include {
    phase: TEST
  }
  transform_param {
    mean_file: "examples/cifar10/mean.binaryproto"
  }
  data_param {
    source: "examples/cifar10/cifar10_test_lmdb"
    batch_size: 1000
    backend: LMDB
  }
}
layer {
  name: "conv0"
  type: "Convolution"
  bottom: "data"
  top: "conv0"
  param {
    lr_mult: 1
  }
  param {
    lr_mult: 2
  }
  convolution_param {
    num_output: 72
    pad: 2
    kernel_size: 3
    stride: 1
    weight_filler {
      type: "gaussian"
      std: 0.01
    }
    bias_filler {
      type: "constant"
    }
  }
}
layer {
  name: "Sigmoid0"
  type: "Sigmoid"
  bottom: "conv0"
  top: "Sigmoid0"
}
layer {
  name: "pool0"
  type: "Pooling"
  bottom: "Sigmoid0"
  top: "pool0"
  pooling_param {
    pool: AVE
    kernel_size: 3
    stride: 2
  }
}
layer {
  name: "conv1"
  type: "Convolution"
  bottom: "pool0"
  top: "conv1"
  param {
    lr_mult: 1
  }
  param {
    lr_mult: 2
  }
  convolution_param {
    num_output: 72
    pad: 2
    kernel_size: 3
    stride: 1
    weight_filler {
      type: "gaussian"
      std: 0.01
    }
    bias_filler {
      type: "constant"
    }
  }
}
layer {
  name: "Sigmoid1"
  type: "Sigmoid"
  bottom: "conv1"
  top: "Sigmoid1"
}
layer {
  name: "pool1"
  type: "Pooling"
  bottom: "Sigmoid1"
  top: "pool1"
  pooling_param {
    pool: AVE
    kernel_size: 3
    stride: 2
  }
}
layer {
  name: "ip1"
  type: "InnerProduct"
  bottom: "pool1"
  top: "ip1"
  param {
    lr_mult: 1
  }
  param {
    lr_mult: 2
  }
  inner_product_param {
    num_output: 60
    weight_filler {
      type: "gaussian"
      std: 0.01
    }
    bias_filler {
      type: "constant"
    }
  }
}
layer {
  name: "relu1"
  type: "ReLU"
  bottom: "ip1"
  top: "ip1"
}
layer {
  name: "ip2"
  type: "InnerProduct"
  bottom: "ip1"
  top: "ip2"
  param {
    lr_mult: 1
  }
  param {
    lr_mult: 2
  }
  inner_product_param {
    num_output: 60
    weight_filler {
      type: "gaussian"
      std: 0.01
    }
    bias_filler {
      type: "constant"
    }
  }
}
layer {
  name: "relu2"
  type: "ReLU"
  bottom: "ip2"
  top: "ip2"
}
layer {
  name: "ip3"
  type: "InnerProduct"
  bottom: "ip2"
  top: "ip3"
  param {
    lr_mult: 1
  }
  param {
    lr_mult: 2
  }
  inner_product_param {
    num_output: 10
    weight_filler {
      type: "gaussian"
      std: 0.01
    }
    bias_filler {
      type: "constant"
    }
  }
}
layer {
  name: "accuracy"
  type: "Accuracy"
  bottom: "ip3"
  bottom: "label"
  top: "accuracy"
  include {
    phase: TEST
  }
}
layer {
  name: "loss"
  type: "SoftmaxWithLoss"
  bottom: "ip3"
  bottom: "label"
  top: "loss"
}
I0504 16:18:29.330680  8921 layer_factory.hpp:77] Creating layer cifar
I0504 16:18:29.330725  8921 db_lmdb.cpp:35] Opened lmdb examples/cifar10/cifar10_test_lmdb
I0504 16:18:29.330737  8921 net.cpp:86] Creating Layer cifar
I0504 16:18:29.330741  8921 net.cpp:382] cifar -> data
I0504 16:18:29.330749  8921 net.cpp:382] cifar -> label
I0504 16:18:29.330756  8921 data_transformer.cpp:25] Loading mean file from: examples/cifar10/mean.binaryproto
I0504 16:18:29.330895  8921 data_layer.cpp:45] output data size: 1000,3,32,32
I0504 16:18:29.352898  8921 net.cpp:124] Setting up cifar
I0504 16:18:29.352924  8921 net.cpp:131] Top shape: 1000 3 32 32 (3072000)
I0504 16:18:29.352931  8921 net.cpp:131] Top shape: 1000 (1000)
I0504 16:18:29.352933  8921 net.cpp:139] Memory required for data: 12292000
I0504 16:18:29.352939  8921 layer_factory.hpp:77] Creating layer label_cifar_1_split
I0504 16:18:29.352993  8921 net.cpp:86] Creating Layer label_cifar_1_split
I0504 16:18:29.352998  8921 net.cpp:408] label_cifar_1_split <- label
I0504 16:18:29.353004  8921 net.cpp:382] label_cifar_1_split -> label_cifar_1_split_0
I0504 16:18:29.353013  8921 net.cpp:382] label_cifar_1_split -> label_cifar_1_split_1
I0504 16:18:29.353065  8921 net.cpp:124] Setting up label_cifar_1_split
I0504 16:18:29.353070  8921 net.cpp:131] Top shape: 1000 (1000)
I0504 16:18:29.353075  8921 net.cpp:131] Top shape: 1000 (1000)
I0504 16:18:29.353076  8921 net.cpp:139] Memory required for data: 12300000
I0504 16:18:29.353080  8921 layer_factory.hpp:77] Creating layer conv0
I0504 16:18:29.353092  8921 net.cpp:86] Creating Layer conv0
I0504 16:18:29.353096  8921 net.cpp:408] conv0 <- data
I0504 16:18:29.353101  8921 net.cpp:382] conv0 -> conv0
I0504 16:18:29.354912  8921 net.cpp:124] Setting up conv0
I0504 16:18:29.354924  8921 net.cpp:131] Top shape: 1000 72 34 34 (83232000)
I0504 16:18:29.354928  8921 net.cpp:139] Memory required for data: 345228000
I0504 16:18:29.354938  8921 layer_factory.hpp:77] Creating layer Sigmoid0
I0504 16:18:29.354943  8921 net.cpp:86] Creating Layer Sigmoid0
I0504 16:18:29.354964  8921 net.cpp:408] Sigmoid0 <- conv0
I0504 16:18:29.354967  8921 net.cpp:382] Sigmoid0 -> Sigmoid0
I0504 16:18:29.355149  8921 net.cpp:124] Setting up Sigmoid0
I0504 16:18:29.355171  8921 net.cpp:131] Top shape: 1000 72 34 34 (83232000)
I0504 16:18:29.355175  8921 net.cpp:139] Memory required for data: 678156000
I0504 16:18:29.355178  8921 layer_factory.hpp:77] Creating layer pool0
I0504 16:18:29.355186  8921 net.cpp:86] Creating Layer pool0
I0504 16:18:29.355190  8921 net.cpp:408] pool0 <- Sigmoid0
I0504 16:18:29.355195  8921 net.cpp:382] pool0 -> pool0
I0504 16:18:29.355357  8921 net.cpp:124] Setting up pool0
I0504 16:18:29.355365  8921 net.cpp:131] Top shape: 1000 72 17 17 (20808000)
I0504 16:18:29.355368  8921 net.cpp:139] Memory required for data: 761388000
I0504 16:18:29.355372  8921 layer_factory.hpp:77] Creating layer conv1
I0504 16:18:29.355387  8921 net.cpp:86] Creating Layer conv1
I0504 16:18:29.355391  8921 net.cpp:408] conv1 <- pool0
I0504 16:18:29.355396  8921 net.cpp:382] conv1 -> conv1
I0504 16:18:29.358109  8921 net.cpp:124] Setting up conv1
I0504 16:18:29.358124  8921 net.cpp:131] Top shape: 1000 72 19 19 (25992000)
I0504 16:18:29.358129  8921 net.cpp:139] Memory required for data: 865356000
I0504 16:18:29.358137  8921 layer_factory.hpp:77] Creating layer Sigmoid1
I0504 16:18:29.358144  8921 net.cpp:86] Creating Layer Sigmoid1
I0504 16:18:29.358147  8921 net.cpp:408] Sigmoid1 <- conv1
I0504 16:18:29.358168  8921 net.cpp:382] Sigmoid1 -> Sigmoid1
I0504 16:18:29.358345  8921 net.cpp:124] Setting up Sigmoid1
I0504 16:18:29.358353  8921 net.cpp:131] Top shape: 1000 72 19 19 (25992000)
I0504 16:18:29.358356  8921 net.cpp:139] Memory required for data: 969324000
I0504 16:18:29.358359  8921 layer_factory.hpp:77] Creating layer pool1
I0504 16:18:29.358366  8921 net.cpp:86] Creating Layer pool1
I0504 16:18:29.358368  8921 net.cpp:408] pool1 <- Sigmoid1
I0504 16:18:29.358373  8921 net.cpp:382] pool1 -> pool1
I0504 16:18:29.359153  8921 net.cpp:124] Setting up pool1
I0504 16:18:29.359164  8921 net.cpp:131] Top shape: 1000 72 9 9 (5832000)
I0504 16:18:29.359169  8921 net.cpp:139] Memory required for data: 992652000
I0504 16:18:29.359171  8921 layer_factory.hpp:77] Creating layer ip1
I0504 16:18:29.359195  8921 net.cpp:86] Creating Layer ip1
I0504 16:18:29.359200  8921 net.cpp:408] ip1 <- pool1
I0504 16:18:29.359205  8921 net.cpp:382] ip1 -> ip1
I0504 16:18:29.369452  8921 net.cpp:124] Setting up ip1
I0504 16:18:29.369465  8921 net.cpp:131] Top shape: 1000 60 (60000)
I0504 16:18:29.369469  8921 net.cpp:139] Memory required for data: 992892000
I0504 16:18:29.369477  8921 layer_factory.hpp:77] Creating layer relu1
I0504 16:18:29.369499  8921 net.cpp:86] Creating Layer relu1
I0504 16:18:29.369503  8921 net.cpp:408] relu1 <- ip1
I0504 16:18:29.369508  8921 net.cpp:369] relu1 -> ip1 (in-place)
I0504 16:18:29.369704  8921 net.cpp:124] Setting up relu1
I0504 16:18:29.369714  8921 net.cpp:131] Top shape: 1000 60 (60000)
I0504 16:18:29.369716  8921 net.cpp:139] Memory required for data: 993132000
I0504 16:18:29.369719  8921 layer_factory.hpp:77] Creating layer ip2
I0504 16:18:29.369726  8921 net.cpp:86] Creating Layer ip2
I0504 16:18:29.369729  8921 net.cpp:408] ip2 <- ip1
I0504 16:18:29.369735  8921 net.cpp:382] ip2 -> ip2
I0504 16:18:29.369943  8921 net.cpp:124] Setting up ip2
I0504 16:18:29.369951  8921 net.cpp:131] Top shape: 1000 60 (60000)
I0504 16:18:29.369954  8921 net.cpp:139] Memory required for data: 993372000
I0504 16:18:29.369959  8921 layer_factory.hpp:77] Creating layer relu2
I0504 16:18:29.369979  8921 net.cpp:86] Creating Layer relu2
I0504 16:18:29.369982  8921 net.cpp:408] relu2 <- ip2
I0504 16:18:29.369987  8921 net.cpp:369] relu2 -> ip2 (in-place)
I0504 16:18:29.370139  8921 net.cpp:124] Setting up relu2
I0504 16:18:29.370147  8921 net.cpp:131] Top shape: 1000 60 (60000)
I0504 16:18:29.370151  8921 net.cpp:139] Memory required for data: 993612000
I0504 16:18:29.370153  8921 layer_factory.hpp:77] Creating layer ip3
I0504 16:18:29.370159  8921 net.cpp:86] Creating Layer ip3
I0504 16:18:29.370162  8921 net.cpp:408] ip3 <- ip2
I0504 16:18:29.370167  8921 net.cpp:382] ip3 -> ip3
I0504 16:18:29.370287  8921 net.cpp:124] Setting up ip3
I0504 16:18:29.370295  8921 net.cpp:131] Top shape: 1000 10 (10000)
I0504 16:18:29.370308  8921 net.cpp:139] Memory required for data: 993652000
I0504 16:18:29.370317  8921 layer_factory.hpp:77] Creating layer ip3_ip3_0_split
I0504 16:18:29.370323  8921 net.cpp:86] Creating Layer ip3_ip3_0_split
I0504 16:18:29.370337  8921 net.cpp:408] ip3_ip3_0_split <- ip3
I0504 16:18:29.370340  8921 net.cpp:382] ip3_ip3_0_split -> ip3_ip3_0_split_0
I0504 16:18:29.370347  8921 net.cpp:382] ip3_ip3_0_split -> ip3_ip3_0_split_1
I0504 16:18:29.370379  8921 net.cpp:124] Setting up ip3_ip3_0_split
I0504 16:18:29.370383  8921 net.cpp:131] Top shape: 1000 10 (10000)
I0504 16:18:29.370388  8921 net.cpp:131] Top shape: 1000 10 (10000)
I0504 16:18:29.370390  8921 net.cpp:139] Memory required for data: 993732000
I0504 16:18:29.370393  8921 layer_factory.hpp:77] Creating layer accuracy
I0504 16:18:29.370399  8921 net.cpp:86] Creating Layer accuracy
I0504 16:18:29.370403  8921 net.cpp:408] accuracy <- ip3_ip3_0_split_0
I0504 16:18:29.370406  8921 net.cpp:408] accuracy <- label_cifar_1_split_0
I0504 16:18:29.370411  8921 net.cpp:382] accuracy -> accuracy
…
