…
I0504 08:01:32.841364 20511 net.cpp:296] The NetState phase (0) differed from the phase (1) specified by a rule in layer cifar
I0504 08:01:32.841383 20511 net.cpp:296] The NetState phase (0) differed from the phase (1) specified by a rule in layer accuracy
I0504 08:01:32.841490 20511 net.cpp:53] Initializing net from parameters: 
name: "CIFAR"
state {
  phase: TRAIN
  level: 0
  stage: ""
}
layer {
  name: "cifar"
  type: "Data"
  top: "data"
  top: "label"
  include {
    phase: TRAIN
  }
  transform_param {
    mean_file: "examples/cifar10/mean.binaryproto"
  }
  data_param {
    source: "examples/cifar10/cifar10_train_lmdb"
    batch_size: 111
    backend: LMDB
  }
}
layer {
  name: "conv0"
  type: "Convolution"
  bottom: "data"
  top: "conv0"
  param {
    lr_mult: 1
  }
  param {
    lr_mult: 2
  }
  convolution_param {
    num_output: 24
    pad: 2
    kernel_size: 5
    stride: 1
    weight_filler {
      type: "gaussian"
      std: 0.01
    }
    bias_filler {
      type: "constant"
    }
  }
}
layer {
  name: "Sigmoid0"
  type: "Sigmoid"
  bottom: "conv0"
  top: "Sigmoid0"
}
layer {
  name: "pool0"
  type: "Pooling"
  bottom: "Sigmoid0"
  top: "pool0"
  pooling_param {
    pool: AVE
    kernel_size: 3
    stride: 2
  }
}
layer {
  name: "conv1"
  type: "Convolution"
  bottom: "pool0"
  top: "conv1"
  param {
    lr_mult: 1
  }
  param {
    lr_mult: 2
  }
  convolution_param {
    num_output: 24
    pad: 2
    kernel_size: 3
    stride: 1
    weight_filler {
      type: "gaussian"
      std: 0.01
    }
    bias_filler {
      type: "constant"
    }
  }
}
layer {
  name: "Sigmoid1"
  type: "Sigmoid"
  bottom: "conv1"
  top: "Sigmoid1"
}
layer {
  name: "pool1"
  type: "Pooling"
  bottom: "Sigmoid1"
  top: "pool1"
  pooling_param {
    pool: AVE
    kernel_size: 3
    stride: 2
  }
}
layer {
  name: "ip1"
  type: "InnerProduct"
  bottom: "pool1"
  top: "ip1"
  param {
    lr_mult: 1
  }
  param {
    lr_mult: 2
  }
  inner_product_param {
    num_output: 60
    weight_filler {
      type: "gaussian"
      std: 0.01
    }
    bias_filler {
      type: "constant"
    }
  }
}
layer {
  name: "relu1"
  type: "ReLU"
  bottom: "ip1"
  top: "ip1"
}
layer {
  name: "ip2"
  type: "InnerProduct"
  bottom: "ip1"
  top: "ip2"
  param {
    lr_mult: 1
  }
  param {
    lr_mult: 2
  }
  inner_product_param {
    num_output: 180
    weight_filler {
      type: "gaussian"
      std: 0.01
    }
    bias_filler {
      type: "constant"
    }
  }
}
layer {
  name: "relu2"
  type: "ReLU"
  bottom: "ip2"
  top: "ip2"
}
layer {
  name: "ip3"
  type: "InnerProduct"
  bottom: "ip2"
  top: "ip3"
  param {
    lr_mult: 1
  }
  param {
    lr_mult: 2
  }
  inner_product_param {
    num_output: 10
    weight_filler {
      type: "gaussian"
      std: 0.01
    }
    bias_filler {
      type: "constant"
    }
  }
}
layer {
  name: "loss"
  type: "SoftmaxWithLoss"
  bottom: "ip3"
  bottom: "label"
  top: "loss"
}
I0504 08:01:32.841567 20511 layer_factory.hpp:77] Creating layer cifar
I0504 08:01:32.841670 20511 db_lmdb.cpp:35] Opened lmdb examples/cifar10/cifar10_train_lmdb
I0504 08:01:32.841697 20511 net.cpp:86] Creating Layer cifar
I0504 08:01:32.841706 20511 net.cpp:382] cifar -> data
I0504 08:01:32.841728 20511 net.cpp:382] cifar -> label
I0504 08:01:32.841739 20511 data_transformer.cpp:25] Loading mean file from: examples/cifar10/mean.binaryproto
I0504 08:01:32.843875 20511 data_layer.cpp:45] output data size: 111,3,32,32
I0504 08:01:32.851855 20511 net.cpp:124] Setting up cifar
I0504 08:01:32.851874 20511 net.cpp:131] Top shape: 111 3 32 32 (340992)
I0504 08:01:32.851881 20511 net.cpp:131] Top shape: 111 (111)
I0504 08:01:32.851886 20511 net.cpp:139] Memory required for data: 1364412
I0504 08:01:32.851892 20511 layer_factory.hpp:77] Creating layer conv0
I0504 08:01:32.851909 20511 net.cpp:86] Creating Layer conv0
I0504 08:01:32.851914 20511 net.cpp:408] conv0 <- data
I0504 08:01:32.851927 20511 net.cpp:382] conv0 -> conv0
I0504 08:01:33.174916 20511 net.cpp:124] Setting up conv0
I0504 08:01:33.174948 20511 net.cpp:131] Top shape: 111 24 32 32 (2727936)
I0504 08:01:33.174953 20511 net.cpp:139] Memory required for data: 12276156
I0504 08:01:33.174973 20511 layer_factory.hpp:77] Creating layer Sigmoid0
I0504 08:01:33.174985 20511 net.cpp:86] Creating Layer Sigmoid0
I0504 08:01:33.174990 20511 net.cpp:408] Sigmoid0 <- conv0
I0504 08:01:33.174996 20511 net.cpp:382] Sigmoid0 -> Sigmoid0
I0504 08:01:33.175210 20511 net.cpp:124] Setting up Sigmoid0
I0504 08:01:33.175222 20511 net.cpp:131] Top shape: 111 24 32 32 (2727936)
I0504 08:01:33.175226 20511 net.cpp:139] Memory required for data: 23187900
I0504 08:01:33.175230 20511 layer_factory.hpp:77] Creating layer pool0
I0504 08:01:33.175240 20511 net.cpp:86] Creating Layer pool0
I0504 08:01:33.175243 20511 net.cpp:408] pool0 <- Sigmoid0
I0504 08:01:33.175248 20511 net.cpp:382] pool0 -> pool0
I0504 08:01:33.176126 20511 net.cpp:124] Setting up pool0
I0504 08:01:33.176142 20511 net.cpp:131] Top shape: 111 24 16 16 (681984)
I0504 08:01:33.176146 20511 net.cpp:139] Memory required for data: 25915836
I0504 08:01:33.176151 20511 layer_factory.hpp:77] Creating layer conv1
I0504 08:01:33.176165 20511 net.cpp:86] Creating Layer conv1
I0504 08:01:33.176170 20511 net.cpp:408] conv1 <- pool0
I0504 08:01:33.176177 20511 net.cpp:382] conv1 -> conv1
I0504 08:01:33.179450 20511 net.cpp:124] Setting up conv1
I0504 08:01:33.179467 20511 net.cpp:131] Top shape: 111 24 18 18 (863136)
I0504 08:01:33.179472 20511 net.cpp:139] Memory required for data: 29368380
I0504 08:01:33.179483 20511 layer_factory.hpp:77] Creating layer Sigmoid1
I0504 08:01:33.179491 20511 net.cpp:86] Creating Layer Sigmoid1
I0504 08:01:33.179494 20511 net.cpp:408] Sigmoid1 <- conv1
I0504 08:01:33.179500 20511 net.cpp:382] Sigmoid1 -> Sigmoid1
I0504 08:01:33.179708 20511 net.cpp:124] Setting up Sigmoid1
I0504 08:01:33.179719 20511 net.cpp:131] Top shape: 111 24 18 18 (863136)
I0504 08:01:33.179723 20511 net.cpp:139] Memory required for data: 32820924
I0504 08:01:33.179726 20511 layer_factory.hpp:77] Creating layer pool1
I0504 08:01:33.179733 20511 net.cpp:86] Creating Layer pool1
I0504 08:01:33.179738 20511 net.cpp:408] pool1 <- Sigmoid1
I0504 08:01:33.179744 20511 net.cpp:382] pool1 -> pool1
I0504 08:01:33.179934 20511 net.cpp:124] Setting up pool1
I0504 08:01:33.179945 20511 net.cpp:131] Top shape: 111 24 9 9 (215784)
I0504 08:01:33.179949 20511 net.cpp:139] Memory required for data: 33684060
I0504 08:01:33.179953 20511 layer_factory.hpp:77] Creating layer ip1
I0504 08:01:33.179962 20511 net.cpp:86] Creating Layer ip1
I0504 08:01:33.179966 20511 net.cpp:408] ip1 <- pool1
I0504 08:01:33.179971 20511 net.cpp:382] ip1 -> ip1
I0504 08:01:33.183957 20511 net.cpp:124] Setting up ip1
I0504 08:01:33.183967 20511 net.cpp:131] Top shape: 111 60 (6660)
I0504 08:01:33.183971 20511 net.cpp:139] Memory required for data: 33710700
I0504 08:01:33.183980 20511 layer_factory.hpp:77] Creating layer relu1
I0504 08:01:33.183990 20511 net.cpp:86] Creating Layer relu1
I0504 08:01:33.183992 20511 net.cpp:408] relu1 <- ip1
I0504 08:01:33.183997 20511 net.cpp:369] relu1 -> ip1 (in-place)
I0504 08:01:33.184177 20511 net.cpp:124] Setting up relu1
I0504 08:01:33.184187 20511 net.cpp:131] Top shape: 111 60 (6660)
I0504 08:01:33.184191 20511 net.cpp:139] Memory required for data: 33737340
I0504 08:01:33.184195 20511 layer_factory.hpp:77] Creating layer ip2
I0504 08:01:33.184202 20511 net.cpp:86] Creating Layer ip2
I0504 08:01:33.184206 20511 net.cpp:408] ip2 <- ip1
I0504 08:01:33.184231 20511 net.cpp:382] ip2 -> ip2
I0504 08:01:33.184703 20511 net.cpp:124] Setting up ip2
I0504 08:01:33.184712 20511 net.cpp:131] Top shape: 111 180 (19980)
I0504 08:01:33.184715 20511 net.cpp:139] Memory required for data: 33817260
I0504 08:01:33.184722 20511 layer_factory.hpp:77] Creating layer relu2
I0504 08:01:33.184727 20511 net.cpp:86] Creating Layer relu2
I0504 08:01:33.184731 20511 net.cpp:408] relu2 <- ip2
I0504 08:01:33.184736 20511 net.cpp:369] relu2 -> ip2 (in-place)
I0504 08:01:33.185593 20511 net.cpp:124] Setting up relu2
I0504 08:01:33.185609 20511 net.cpp:131] Top shape: 111 180 (19980)
I0504 08:01:33.185613 20511 net.cpp:139] Memory required for data: 33897180
I0504 08:01:33.185617 20511 layer_factory.hpp:77] Creating layer ip3
I0504 08:01:33.185626 20511 net.cpp:86] Creating Layer ip3
I0504 08:01:33.185631 20511 net.cpp:408] ip3 <- ip2
I0504 08:01:33.185636 20511 net.cpp:382] ip3 -> ip3
I0504 08:01:33.185817 20511 net.cpp:124] Setting up ip3
I0504 08:01:33.185825 20511 net.cpp:131] Top shape: 111 10 (1110)
I0504 08:01:33.185829 20511 net.cpp:139] Memory required for data: 33901620
I0504 08:01:33.185839 20511 layer_factory.hpp:77] Creating layer loss
I0504 08:01:33.185847 20511 net.cpp:86] Creating Layer loss
I0504 08:01:33.185849 20511 net.cpp:408] loss <- ip3
I0504 08:01:33.185854 20511 net.cpp:408] loss <- label
I0504 08:01:33.185860 20511 net.cpp:382] loss -> loss
I0504 08:01:33.185881 20511 layer_factory.hpp:77] Creating layer loss
…
I0504 08:01:33.186660 20511 solver.cpp:173] Creating test net (#0) specified by net file: ECE595/cifar/train_test/var_everything_tiny/cifar_train_test_92.prototxt
I0504 08:01:33.186694 20511 net.cpp:296] The NetState phase (1) differed from the phase (0) specified by a rule in layer cifar
I0504 08:01:33.186812 20511 net.cpp:53] Initializing net from parameters: 
name: "CIFAR"
state {
  phase: TEST
}
layer {
  name: "cifar"
  type: "Data"
  top: "data"
  top: "label"
  include {
    phase: TEST
  }
  transform_param {
    mean_file: "examples/cifar10/mean.binaryproto"
  }
  data_param {
    source: "examples/cifar10/cifar10_test_lmdb"
    batch_size: 1000
    backend: LMDB
  }
}
layer {
  name: "conv0"
  type: "Convolution"
  bottom: "data"
  top: "conv0"
  param {
    lr_mult: 1
  }
  param {
    lr_mult: 2
  }
  convolution_param {
    num_output: 24
    pad: 2
    kernel_size: 5
    stride: 1
    weight_filler {
      type: "gaussian"
      std: 0.01
    }
    bias_filler {
      type: "constant"
    }
  }
}
layer {
  name: "Sigmoid0"
  type: "Sigmoid"
  bottom: "conv0"
  top: "Sigmoid0"
}
layer {
  name: "pool0"
  type: "Pooling"
  bottom: "Sigmoid0"
  top: "pool0"
  pooling_param {
    pool: AVE
    kernel_size: 3
    stride: 2
  }
}
layer {
  name: "conv1"
  type: "Convolution"
  bottom: "pool0"
  top: "conv1"
  param {
    lr_mult: 1
  }
  param {
    lr_mult: 2
  }
  convolution_param {
    num_output: 24
    pad: 2
    kernel_size: 3
    stride: 1
    weight_filler {
      type: "gaussian"
      std: 0.01
    }
    bias_filler {
      type: "constant"
    }
  }
}
layer {
  name: "Sigmoid1"
  type: "Sigmoid"
  bottom: "conv1"
  top: "Sigmoid1"
}
layer {
  name: "pool1"
  type: "Pooling"
  bottom: "Sigmoid1"
  top: "pool1"
  pooling_param {
    pool: AVE
    kernel_size: 3
    stride: 2
  }
}
layer {
  name: "ip1"
  type: "InnerProduct"
  bottom: "pool1"
  top: "ip1"
  param {
    lr_mult: 1
  }
  param {
    lr_mult: 2
  }
  inner_product_param {
    num_output: 60
    weight_filler {
      type: "gaussian"
      std: 0.01
    }
    bias_filler {
      type: "constant"
    }
  }
}
layer {
  name: "relu1"
  type: "ReLU"
  bottom: "ip1"
  top: "ip1"
}
layer {
  name: "ip2"
  type: "InnerProduct"
  bottom: "ip1"
  top: "ip2"
  param {
    lr_mult: 1
  }
  param {
    lr_mult: 2
  }
  inner_product_param {
    num_output: 180
    weight_filler {
      type: "gaussian"
      std: 0.01
    }
    bias_filler {
      type: "constant"
    }
  }
}
layer {
  name: "relu2"
  type: "ReLU"
  bottom: "ip2"
  top: "ip2"
}
layer {
  name: "ip3"
  type: "InnerProduct"
  bottom: "ip2"
  top: "ip3"
  param {
    lr_mult: 1
  }
  param {
    lr_mult: 2
  }
  inner_product_param {
    num_output: 10
    weight_filler {
      type: "gaussian"
      std: 0.01
    }
    bias_filler {
      type: "constant"
    }
  }
}
layer {
  name: "accuracy"
  type: "Accuracy"
  bottom: "ip3"
  bottom: "label"
  top: "accuracy"
  include {
    phase: TEST
  }
}
layer {
  name: "loss"
  type: "SoftmaxWithLoss"
  bottom: "ip3"
  bottom: "label"
  top: "loss"
}
I0504 08:01:33.186913 20511 layer_factory.hpp:77] Creating layer cifar
I0504 08:01:33.186966 20511 db_lmdb.cpp:35] Opened lmdb examples/cifar10/cifar10_test_lmdb
I0504 08:01:33.186981 20511 net.cpp:86] Creating Layer cifar
I0504 08:01:33.186987 20511 net.cpp:382] cifar -> data
I0504 08:01:33.186996 20511 net.cpp:382] cifar -> label
I0504 08:01:33.187005 20511 data_transformer.cpp:25] Loading mean file from: examples/cifar10/mean.binaryproto
I0504 08:01:33.187172 20511 data_layer.cpp:45] output data size: 1000,3,32,32
I0504 08:01:33.213047 20511 net.cpp:124] Setting up cifar
I0504 08:01:33.213080 20511 net.cpp:131] Top shape: 1000 3 32 32 (3072000)
I0504 08:01:33.213088 20511 net.cpp:131] Top shape: 1000 (1000)
I0504 08:01:33.213091 20511 net.cpp:139] Memory required for data: 12292000
I0504 08:01:33.213098 20511 layer_factory.hpp:77] Creating layer label_cifar_1_split
I0504 08:01:33.213112 20511 net.cpp:86] Creating Layer label_cifar_1_split
I0504 08:01:33.213116 20511 net.cpp:408] label_cifar_1_split <- label
I0504 08:01:33.213124 20511 net.cpp:382] label_cifar_1_split -> label_cifar_1_split_0
I0504 08:01:33.213135 20511 net.cpp:382] label_cifar_1_split -> label_cifar_1_split_1
I0504 08:01:33.213274 20511 net.cpp:124] Setting up label_cifar_1_split
I0504 08:01:33.213284 20511 net.cpp:131] Top shape: 1000 (1000)
I0504 08:01:33.213287 20511 net.cpp:131] Top shape: 1000 (1000)
I0504 08:01:33.213291 20511 net.cpp:139] Memory required for data: 12300000
I0504 08:01:33.213295 20511 layer_factory.hpp:77] Creating layer conv0
I0504 08:01:33.213310 20511 net.cpp:86] Creating Layer conv0
I0504 08:01:33.213313 20511 net.cpp:408] conv0 <- data
I0504 08:01:33.213320 20511 net.cpp:382] conv0 -> conv0
I0504 08:01:33.216156 20511 net.cpp:124] Setting up conv0
I0504 08:01:33.216174 20511 net.cpp:131] Top shape: 1000 24 32 32 (24576000)
I0504 08:01:33.216178 20511 net.cpp:139] Memory required for data: 110604000
I0504 08:01:33.216192 20511 layer_factory.hpp:77] Creating layer Sigmoid0
I0504 08:01:33.216200 20511 net.cpp:86] Creating Layer Sigmoid0
I0504 08:01:33.216204 20511 net.cpp:408] Sigmoid0 <- conv0
I0504 08:01:33.216210 20511 net.cpp:382] Sigmoid0 -> Sigmoid0
I0504 08:01:33.216419 20511 net.cpp:124] Setting up Sigmoid0
I0504 08:01:33.216446 20511 net.cpp:131] Top shape: 1000 24 32 32 (24576000)
I0504 08:01:33.216450 20511 net.cpp:139] Memory required for data: 208908000
I0504 08:01:33.216454 20511 layer_factory.hpp:77] Creating layer pool0
I0504 08:01:33.216464 20511 net.cpp:86] Creating Layer pool0
I0504 08:01:33.216469 20511 net.cpp:408] pool0 <- Sigmoid0
I0504 08:01:33.216475 20511 net.cpp:382] pool0 -> pool0
I0504 08:01:33.216673 20511 net.cpp:124] Setting up pool0
I0504 08:01:33.216683 20511 net.cpp:131] Top shape: 1000 24 16 16 (6144000)
I0504 08:01:33.216688 20511 net.cpp:139] Memory required for data: 233484000
I0504 08:01:33.216692 20511 layer_factory.hpp:77] Creating layer conv1
I0504 08:01:33.216703 20511 net.cpp:86] Creating Layer conv1
I0504 08:01:33.216708 20511 net.cpp:408] conv1 <- pool0
I0504 08:01:33.216714 20511 net.cpp:382] conv1 -> conv1
I0504 08:01:33.218399 20511 net.cpp:124] Setting up conv1
I0504 08:01:33.218416 20511 net.cpp:131] Top shape: 1000 24 18 18 (7776000)
I0504 08:01:33.218420 20511 net.cpp:139] Memory required for data: 264588000
I0504 08:01:33.218430 20511 layer_factory.hpp:77] Creating layer Sigmoid1
I0504 08:01:33.218438 20511 net.cpp:86] Creating Layer Sigmoid1
I0504 08:01:33.218442 20511 net.cpp:408] Sigmoid1 <- conv1
I0504 08:01:33.218448 20511 net.cpp:382] Sigmoid1 -> Sigmoid1
I0504 08:01:33.218647 20511 net.cpp:124] Setting up Sigmoid1
I0504 08:01:33.218659 20511 net.cpp:131] Top shape: 1000 24 18 18 (7776000)
I0504 08:01:33.218665 20511 net.cpp:139] Memory required for data: 295692000
I0504 08:01:33.218669 20511 layer_factory.hpp:77] Creating layer pool1
I0504 08:01:33.218675 20511 net.cpp:86] Creating Layer pool1
I0504 08:01:33.218679 20511 net.cpp:408] pool1 <- Sigmoid1
I0504 08:01:33.218685 20511 net.cpp:382] pool1 -> pool1
I0504 08:01:33.219565 20511 net.cpp:124] Setting up pool1
I0504 08:01:33.219581 20511 net.cpp:131] Top shape: 1000 24 9 9 (1944000)
I0504 08:01:33.219585 20511 net.cpp:139] Memory required for data: 303468000
I0504 08:01:33.219590 20511 layer_factory.hpp:77] Creating layer ip1
I0504 08:01:33.219601 20511 net.cpp:86] Creating Layer ip1
I0504 08:01:33.219605 20511 net.cpp:408] ip1 <- pool1
I0504 08:01:33.219612 20511 net.cpp:382] ip1 -> ip1
I0504 08:01:33.223593 20511 net.cpp:124] Setting up ip1
I0504 08:01:33.223604 20511 net.cpp:131] Top shape: 1000 60 (60000)
I0504 08:01:33.223608 20511 net.cpp:139] Memory required for data: 303708000
I0504 08:01:33.223618 20511 layer_factory.hpp:77] Creating layer relu1
I0504 08:01:33.223624 20511 net.cpp:86] Creating Layer relu1
I0504 08:01:33.223628 20511 net.cpp:408] relu1 <- ip1
I0504 08:01:33.223634 20511 net.cpp:369] relu1 -> ip1 (in-place)
I0504 08:01:33.223820 20511 net.cpp:124] Setting up relu1
I0504 08:01:33.223832 20511 net.cpp:131] Top shape: 1000 60 (60000)
I0504 08:01:33.223836 20511 net.cpp:139] Memory required for data: 303948000
I0504 08:01:33.223840 20511 layer_factory.hpp:77] Creating layer ip2
I0504 08:01:33.223848 20511 net.cpp:86] Creating Layer ip2
I0504 08:01:33.223851 20511 net.cpp:408] ip2 <- ip1
I0504 08:01:33.223857 20511 net.cpp:382] ip2 -> ip2
I0504 08:01:33.224333 20511 net.cpp:124] Setting up ip2
I0504 08:01:33.224342 20511 net.cpp:131] Top shape: 1000 180 (180000)
I0504 08:01:33.224345 20511 net.cpp:139] Memory required for data: 304668000
I0504 08:01:33.224352 20511 layer_factory.hpp:77] Creating layer relu2
I0504 08:01:33.224362 20511 net.cpp:86] Creating Layer relu2
I0504 08:01:33.224366 20511 net.cpp:408] relu2 <- ip2
I0504 08:01:33.224371 20511 net.cpp:369] relu2 -> ip2 (in-place)
I0504 08:01:33.224551 20511 net.cpp:124] Setting up relu2
I0504 08:01:33.224561 20511 net.cpp:131] Top shape: 1000 180 (180000)
I0504 08:01:33.224565 20511 net.cpp:139] Memory required for data: 305388000
I0504 08:01:33.224568 20511 layer_factory.hpp:77] Creating layer ip3
I0504 08:01:33.224575 20511 net.cpp:86] Creating Layer ip3
I0504 08:01:33.224580 20511 net.cpp:408] ip3 <- ip2
I0504 08:01:33.224586 20511 net.cpp:382] ip3 -> ip3
I0504 08:01:33.224766 20511 net.cpp:124] Setting up ip3
I0504 08:01:33.224774 20511 net.cpp:131] Top shape: 1000 10 (10000)
I0504 08:01:33.224791 20511 net.cpp:139] Memory required for data: 305428000
I0504 08:01:33.224802 20511 layer_factory.hpp:77] Creating layer ip3_ip3_0_split
I0504 08:01:33.224817 20511 net.cpp:86] Creating Layer ip3_ip3_0_split
I0504 08:01:33.224820 20511 net.cpp:408] ip3_ip3_0_split <- ip3
I0504 08:01:33.224827 20511 net.cpp:382] ip3_ip3_0_split -> ip3_ip3_0_split_0
I0504 08:01:33.224833 20511 net.cpp:382] ip3_ip3_0_split -> ip3_ip3_0_split_1
I0504 08:01:33.224874 20511 net.cpp:124] Setting up ip3_ip3_0_split
I0504 08:01:33.224882 20511 net.cpp:131] Top shape: 1000 10 (10000)
I0504 08:01:33.224887 20511 net.cpp:131] Top shape: 1000 10 (10000)
I0504 08:01:33.224891 20511 net.cpp:139] Memory required for data: 305508000
I0504 08:01:33.224895 20511 layer_factory.hpp:77] Creating layer accuracy
I0504 08:01:33.224902 20511 net.cpp:86] Creating Layer accuracy
I0504 08:01:33.224906 20511 net.cpp:408] accuracy <- ip3_ip3_0_split_0
I0504 08:01:33.224911 20511 net.cpp:408] accuracy <- label_cifar_1_split_0
I0504 08:01:33.224916 20511 net.cpp:382] accuracy -> accuracy
…
