…
I0504 01:41:17.605551  7832 net.cpp:296] The NetState phase (0) differed from the phase (1) specified by a rule in layer cifar
I0504 01:41:17.605581  7832 net.cpp:296] The NetState phase (0) differed from the phase (1) specified by a rule in layer accuracy
I0504 01:41:17.605675  7832 net.cpp:53] Initializing net from parameters: 
name: "CIFAR"
state {
  phase: TRAIN
  level: 0
  stage: ""
}
layer {
  name: "cifar"
  type: "Data"
  top: "data"
  top: "label"
  include {
    phase: TRAIN
  }
  transform_param {
    mean_file: "examples/cifar10/mean.binaryproto"
  }
  data_param {
    source: "examples/cifar10/cifar10_train_lmdb"
    batch_size: 111
    backend: LMDB
  }
}
layer {
  name: "conv0"
  type: "Convolution"
  bottom: "data"
  top: "conv0"
  param {
    lr_mult: 1
  }
  param {
    lr_mult: 2
  }
  convolution_param {
    num_output: 72
    pad: 2
    kernel_size: 5
    stride: 1
    weight_filler {
      type: "gaussian"
      std: 0.01
    }
    bias_filler {
      type: "constant"
    }
  }
}
layer {
  name: "Sigmoid0"
  type: "Sigmoid"
  bottom: "conv0"
  top: "Sigmoid0"
}
layer {
  name: "pool0"
  type: "Pooling"
  bottom: "Sigmoid0"
  top: "pool0"
  pooling_param {
    pool: AVE
    kernel_size: 3
    stride: 2
  }
}
layer {
  name: "ip1"
  type: "InnerProduct"
  bottom: "pool0"
  top: "ip1"
  param {
    lr_mult: 1
  }
  param {
    lr_mult: 2
  }
  inner_product_param {
    num_output: 60
    weight_filler {
      type: "gaussian"
      std: 0.01
    }
    bias_filler {
      type: "constant"
    }
  }
}
layer {
  name: "relu1"
  type: "ReLU"
  bottom: "ip1"
  top: "ip1"
}
layer {
  name: "ip2"
  type: "InnerProduct"
  bottom: "ip1"
  top: "ip2"
  param {
    lr_mult: 1
  }
  param {
    lr_mult: 2
  }
  inner_product_param {
    num_output: 10
    weight_filler {
      type: "gaussian"
      std: 0.01
    }
    bias_filler {
      type: "constant"
    }
  }
}
layer {
  name: "loss"
  type: "SoftmaxWithLoss"
  bottom: "ip2"
  bottom: "label"
  top: "loss"
}
I0504 01:41:17.605752  7832 layer_factory.hpp:77] Creating layer cifar
I0504 01:41:17.605868  7832 db_lmdb.cpp:35] Opened lmdb examples/cifar10/cifar10_train_lmdb
I0504 01:41:17.605900  7832 net.cpp:86] Creating Layer cifar
I0504 01:41:17.605909  7832 net.cpp:382] cifar -> data
I0504 01:41:17.605933  7832 net.cpp:382] cifar -> label
I0504 01:41:17.605947  7832 data_transformer.cpp:25] Loading mean file from: examples/cifar10/mean.binaryproto
I0504 01:41:17.607954  7832 data_layer.cpp:45] output data size: 111,3,32,32
I0504 01:41:17.615698  7832 net.cpp:124] Setting up cifar
I0504 01:41:17.615720  7832 net.cpp:131] Top shape: 111 3 32 32 (340992)
I0504 01:41:17.615725  7832 net.cpp:131] Top shape: 111 (111)
I0504 01:41:17.615730  7832 net.cpp:139] Memory required for data: 1364412
I0504 01:41:17.615736  7832 layer_factory.hpp:77] Creating layer conv0
I0504 01:41:17.615754  7832 net.cpp:86] Creating Layer conv0
I0504 01:41:17.615761  7832 net.cpp:408] conv0 <- data
I0504 01:41:17.615772  7832 net.cpp:382] conv0 -> conv0
I0504 01:41:17.907933  7832 net.cpp:124] Setting up conv0
I0504 01:41:17.907963  7832 net.cpp:131] Top shape: 111 72 32 32 (8183808)
I0504 01:41:17.907968  7832 net.cpp:139] Memory required for data: 34099644
I0504 01:41:17.907984  7832 layer_factory.hpp:77] Creating layer Sigmoid0
I0504 01:41:17.907996  7832 net.cpp:86] Creating Layer Sigmoid0
I0504 01:41:17.908000  7832 net.cpp:408] Sigmoid0 <- conv0
I0504 01:41:17.908006  7832 net.cpp:382] Sigmoid0 -> Sigmoid0
I0504 01:41:17.908218  7832 net.cpp:124] Setting up Sigmoid0
I0504 01:41:17.908229  7832 net.cpp:131] Top shape: 111 72 32 32 (8183808)
I0504 01:41:17.908233  7832 net.cpp:139] Memory required for data: 66834876
I0504 01:41:17.908237  7832 layer_factory.hpp:77] Creating layer pool0
I0504 01:41:17.908246  7832 net.cpp:86] Creating Layer pool0
I0504 01:41:17.908248  7832 net.cpp:408] pool0 <- Sigmoid0
I0504 01:41:17.908254  7832 net.cpp:382] pool0 -> pool0
I0504 01:41:17.909068  7832 net.cpp:124] Setting up pool0
I0504 01:41:17.909083  7832 net.cpp:131] Top shape: 111 72 16 16 (2045952)
I0504 01:41:17.909087  7832 net.cpp:139] Memory required for data: 75018684
I0504 01:41:17.909091  7832 layer_factory.hpp:77] Creating layer ip1
I0504 01:41:17.909101  7832 net.cpp:86] Creating Layer ip1
I0504 01:41:17.909106  7832 net.cpp:408] ip1 <- pool0
I0504 01:41:17.909111  7832 net.cpp:382] ip1 -> ip1
I0504 01:41:17.941911  7832 net.cpp:124] Setting up ip1
I0504 01:41:17.941923  7832 net.cpp:131] Top shape: 111 60 (6660)
I0504 01:41:17.941927  7832 net.cpp:139] Memory required for data: 75045324
I0504 01:41:17.941936  7832 layer_factory.hpp:77] Creating layer relu1
I0504 01:41:17.941941  7832 net.cpp:86] Creating Layer relu1
I0504 01:41:17.941944  7832 net.cpp:408] relu1 <- ip1
I0504 01:41:17.941949  7832 net.cpp:369] relu1 -> ip1 (in-place)
I0504 01:41:17.942096  7832 net.cpp:124] Setting up relu1
I0504 01:41:17.942104  7832 net.cpp:131] Top shape: 111 60 (6660)
I0504 01:41:17.942107  7832 net.cpp:139] Memory required for data: 75071964
I0504 01:41:17.942111  7832 layer_factory.hpp:77] Creating layer ip2
I0504 01:41:17.942118  7832 net.cpp:86] Creating Layer ip2
I0504 01:41:17.942121  7832 net.cpp:408] ip2 <- ip1
I0504 01:41:17.942126  7832 net.cpp:382] ip2 -> ip2
I0504 01:41:17.942229  7832 net.cpp:124] Setting up ip2
I0504 01:41:17.942235  7832 net.cpp:131] Top shape: 111 10 (1110)
I0504 01:41:17.942239  7832 net.cpp:139] Memory required for data: 75076404
I0504 01:41:17.942245  7832 layer_factory.hpp:77] Creating layer loss
I0504 01:41:17.942255  7832 net.cpp:86] Creating Layer loss
I0504 01:41:17.942261  7832 net.cpp:408] loss <- ip2
I0504 01:41:17.942265  7832 net.cpp:408] loss <- label
I0504 01:41:17.942270  7832 net.cpp:382] loss -> loss
I0504 01:41:17.942282  7832 layer_factory.hpp:77] Creating layer loss
…
I0504 01:41:17.942816  7832 solver.cpp:173] Creating test net (#0) specified by net file: ECE595/cifar/train_test/var_everything_tiny/cifar_train_test_37.prototxt
I0504 01:41:17.942840  7832 net.cpp:296] The NetState phase (1) differed from the phase (0) specified by a rule in layer cifar
I0504 01:41:17.942915  7832 net.cpp:53] Initializing net from parameters: 
name: "CIFAR"
state {
  phase: TEST
}
layer {
  name: "cifar"
  type: "Data"
  top: "data"
  top: "label"
  include {
    phase: TEST
  }
  transform_param {
    mean_file: "examples/cifar10/mean.binaryproto"
  }
  data_param {
    source: "examples/cifar10/cifar10_test_lmdb"
    batch_size: 1000
    backend: LMDB
  }
}
layer {
  name: "conv0"
  type: "Convolution"
  bottom: "data"
  top: "conv0"
  param {
    lr_mult: 1
  }
  param {
    lr_mult: 2
  }
  convolution_param {
    num_output: 72
    pad: 2
    kernel_size: 5
    stride: 1
    weight_filler {
      type: "gaussian"
      std: 0.01
    }
    bias_filler {
      type: "constant"
    }
  }
}
layer {
  name: "Sigmoid0"
  type: "Sigmoid"
  bottom: "conv0"
  top: "Sigmoid0"
}
layer {
  name: "pool0"
  type: "Pooling"
  bottom: "Sigmoid0"
  top: "pool0"
  pooling_param {
    pool: AVE
    kernel_size: 3
    stride: 2
  }
}
layer {
  name: "ip1"
  type: "InnerProduct"
  bottom: "pool0"
  top: "ip1"
  param {
    lr_mult: 1
  }
  param {
    lr_mult: 2
  }
  inner_product_param {
    num_output: 60
    weight_filler {
      type: "gaussian"
      std: 0.01
    }
    bias_filler {
      type: "constant"
    }
  }
}
layer {
  name: "relu1"
  type: "ReLU"
  bottom: "ip1"
  top: "ip1"
}
layer {
  name: "ip2"
  type: "InnerProduct"
  bottom: "ip1"
  top: "ip2"
  param {
    lr_mult: 1
  }
  param {
    lr_mult: 2
  }
  inner_product_param {
    num_output: 10
    weight_filler {
      type: "gaussian"
      std: 0.01
    }
    bias_filler {
      type: "constant"
    }
  }
}
layer {
  name: "accuracy"
  type: "Accuracy"
  bottom: "ip2"
  bottom: "label"
  top: "accuracy"
  include {
    phase: TEST
  }
}
layer {
  name: "loss"
  type: "SoftmaxWithLoss"
  bottom: "ip2"
  bottom: "label"
  top: "loss"
}
I0504 01:41:17.942988  7832 layer_factory.hpp:77] Creating layer cifar
I0504 01:41:17.943032  7832 db_lmdb.cpp:35] Opened lmdb examples/cifar10/cifar10_test_lmdb
I0504 01:41:17.943044  7832 net.cpp:86] Creating Layer cifar
I0504 01:41:17.943048  7832 net.cpp:382] cifar -> data
I0504 01:41:17.943055  7832 net.cpp:382] cifar -> label
I0504 01:41:17.943063  7832 data_transformer.cpp:25] Loading mean file from: examples/cifar10/mean.binaryproto
I0504 01:41:17.943209  7832 data_layer.cpp:45] output data size: 1000,3,32,32
I0504 01:41:17.965507  7832 net.cpp:124] Setting up cifar
I0504 01:41:17.965533  7832 net.cpp:131] Top shape: 1000 3 32 32 (3072000)
I0504 01:41:17.965539  7832 net.cpp:131] Top shape: 1000 (1000)
I0504 01:41:17.965543  7832 net.cpp:139] Memory required for data: 12292000
I0504 01:41:17.965548  7832 layer_factory.hpp:77] Creating layer label_cifar_1_split
I0504 01:41:17.965559  7832 net.cpp:86] Creating Layer label_cifar_1_split
I0504 01:41:17.965561  7832 net.cpp:408] label_cifar_1_split <- label
I0504 01:41:17.965567  7832 net.cpp:382] label_cifar_1_split -> label_cifar_1_split_0
I0504 01:41:17.965576  7832 net.cpp:382] label_cifar_1_split -> label_cifar_1_split_1
I0504 01:41:17.965704  7832 net.cpp:124] Setting up label_cifar_1_split
I0504 01:41:17.965713  7832 net.cpp:131] Top shape: 1000 (1000)
I0504 01:41:17.965716  7832 net.cpp:131] Top shape: 1000 (1000)
I0504 01:41:17.965719  7832 net.cpp:139] Memory required for data: 12300000
I0504 01:41:17.965721  7832 layer_factory.hpp:77] Creating layer conv0
I0504 01:41:17.965734  7832 net.cpp:86] Creating Layer conv0
I0504 01:41:17.965739  7832 net.cpp:408] conv0 <- data
I0504 01:41:17.965744  7832 net.cpp:382] conv0 -> conv0
I0504 01:41:17.967604  7832 net.cpp:124] Setting up conv0
I0504 01:41:17.967618  7832 net.cpp:131] Top shape: 1000 72 32 32 (73728000)
I0504 01:41:17.967622  7832 net.cpp:139] Memory required for data: 307212000
I0504 01:41:17.967648  7832 layer_factory.hpp:77] Creating layer Sigmoid0
I0504 01:41:17.967653  7832 net.cpp:86] Creating Layer Sigmoid0
I0504 01:41:17.967656  7832 net.cpp:408] Sigmoid0 <- conv0
I0504 01:41:17.967663  7832 net.cpp:382] Sigmoid0 -> Sigmoid0
I0504 01:41:17.967835  7832 net.cpp:124] Setting up Sigmoid0
I0504 01:41:17.967844  7832 net.cpp:131] Top shape: 1000 72 32 32 (73728000)
I0504 01:41:17.967847  7832 net.cpp:139] Memory required for data: 602124000
I0504 01:41:17.967850  7832 layer_factory.hpp:77] Creating layer pool0
I0504 01:41:17.967859  7832 net.cpp:86] Creating Layer pool0
I0504 01:41:17.967862  7832 net.cpp:408] pool0 <- Sigmoid0
I0504 01:41:17.967867  7832 net.cpp:382] pool0 -> pool0
I0504 01:41:17.968737  7832 net.cpp:124] Setting up pool0
I0504 01:41:17.968750  7832 net.cpp:131] Top shape: 1000 72 16 16 (18432000)
I0504 01:41:17.968752  7832 net.cpp:139] Memory required for data: 675852000
I0504 01:41:17.968755  7832 layer_factory.hpp:77] Creating layer ip1
I0504 01:41:17.968781  7832 net.cpp:86] Creating Layer ip1
I0504 01:41:17.968785  7832 net.cpp:408] ip1 <- pool0
I0504 01:41:17.968791  7832 net.cpp:382] ip1 -> ip1
I0504 01:41:17.999761  7832 net.cpp:124] Setting up ip1
I0504 01:41:17.999778  7832 net.cpp:131] Top shape: 1000 60 (60000)
I0504 01:41:17.999781  7832 net.cpp:139] Memory required for data: 676092000
I0504 01:41:17.999790  7832 layer_factory.hpp:77] Creating layer relu1
I0504 01:41:17.999799  7832 net.cpp:86] Creating Layer relu1
I0504 01:41:17.999801  7832 net.cpp:408] relu1 <- ip1
I0504 01:41:17.999805  7832 net.cpp:369] relu1 -> ip1 (in-place)
I0504 01:41:17.999996  7832 net.cpp:124] Setting up relu1
I0504 01:41:18.000005  7832 net.cpp:131] Top shape: 1000 60 (60000)
I0504 01:41:18.000007  7832 net.cpp:139] Memory required for data: 676332000
I0504 01:41:18.000010  7832 layer_factory.hpp:77] Creating layer ip2
I0504 01:41:18.000020  7832 net.cpp:86] Creating Layer ip2
I0504 01:41:18.000022  7832 net.cpp:408] ip2 <- ip1
I0504 01:41:18.000028  7832 net.cpp:382] ip2 -> ip2
I0504 01:41:18.000170  7832 net.cpp:124] Setting up ip2
I0504 01:41:18.000177  7832 net.cpp:131] Top shape: 1000 10 (10000)
I0504 01:41:18.000180  7832 net.cpp:139] Memory required for data: 676372000
I0504 01:41:18.000187  7832 layer_factory.hpp:77] Creating layer ip2_ip2_0_split
I0504 01:41:18.000195  7832 net.cpp:86] Creating Layer ip2_ip2_0_split
I0504 01:41:18.000197  7832 net.cpp:408] ip2_ip2_0_split <- ip2
I0504 01:41:18.000201  7832 net.cpp:382] ip2_ip2_0_split -> ip2_ip2_0_split_0
I0504 01:41:18.000207  7832 net.cpp:382] ip2_ip2_0_split -> ip2_ip2_0_split_1
I0504 01:41:18.000237  7832 net.cpp:124] Setting up ip2_ip2_0_split
I0504 01:41:18.000247  7832 net.cpp:131] Top shape: 1000 10 (10000)
I0504 01:41:18.000252  7832 net.cpp:131] Top shape: 1000 10 (10000)
I0504 01:41:18.000253  7832 net.cpp:139] Memory required for data: 676452000
I0504 01:41:18.000257  7832 layer_factory.hpp:77] Creating layer accuracy
I0504 01:41:18.000263  7832 net.cpp:86] Creating Layer accuracy
I0504 01:41:18.000267  7832 net.cpp:408] accuracy <- ip2_ip2_0_split_0
I0504 01:41:18.000270  7832 net.cpp:408] accuracy <- label_cifar_1_split_0
I0504 01:41:18.000274  7832 net.cpp:382] accuracy -> accuracy
…
