…
I0504 11:00:36.211699 26309 net.cpp:296] The NetState phase (0) differed from the phase (1) specified by a rule in layer cifar
I0504 11:00:36.211712 26309 net.cpp:296] The NetState phase (0) differed from the phase (1) specified by a rule in layer accuracy
I0504 11:00:36.211798 26309 net.cpp:53] Initializing net from parameters: 
name: "CIFAR"
state {
  phase: TRAIN
  level: 0
  stage: ""
}
layer {
  name: "cifar"
  type: "Data"
  top: "data"
  top: "label"
  include {
    phase: TRAIN
  }
  transform_param {
    mean_file: "examples/cifar10/mean.binaryproto"
  }
  data_param {
    source: "examples/cifar10/cifar10_train_lmdb"
    batch_size: 111
    backend: LMDB
  }
}
layer {
  name: "conv0"
  type: "Convolution"
  bottom: "data"
  top: "conv0"
  param {
    lr_mult: 1
  }
  param {
    lr_mult: 2
  }
  convolution_param {
    num_output: 24
    pad: 2
    kernel_size: 5
    stride: 1
    weight_filler {
      type: "gaussian"
      std: 0.01
    }
    bias_filler {
      type: "constant"
    }
  }
}
layer {
  name: "Sigmoid0"
  type: "Sigmoid"
  bottom: "conv0"
  top: "Sigmoid0"
}
layer {
  name: "pool0"
  type: "Pooling"
  bottom: "Sigmoid0"
  top: "pool0"
  pooling_param {
    pool: AVE
    kernel_size: 3
    stride: 2
  }
}
layer {
  name: "conv1"
  type: "Convolution"
  bottom: "pool0"
  top: "conv1"
  param {
    lr_mult: 1
  }
  param {
    lr_mult: 2
  }
  convolution_param {
    num_output: 72
    pad: 2
    kernel_size: 5
    stride: 1
    weight_filler {
      type: "gaussian"
      std: 0.01
    }
    bias_filler {
      type: "constant"
    }
  }
}
layer {
  name: "Sigmoid1"
  type: "Sigmoid"
  bottom: "conv1"
  top: "Sigmoid1"
}
layer {
  name: "pool1"
  type: "Pooling"
  bottom: "Sigmoid1"
  top: "pool1"
  pooling_param {
    pool: AVE
    kernel_size: 3
    stride: 2
  }
}
layer {
  name: "ip1"
  type: "InnerProduct"
  bottom: "pool1"
  top: "ip1"
  param {
    lr_mult: 1
  }
  param {
    lr_mult: 2
  }
  inner_product_param {
    num_output: 180
    weight_filler {
      type: "gaussian"
      std: 0.01
    }
    bias_filler {
      type: "constant"
    }
  }
}
layer {
  name: "relu1"
  type: "ReLU"
  bottom: "ip1"
  top: "ip1"
}
layer {
  name: "ip2"
  type: "InnerProduct"
  bottom: "ip1"
  top: "ip2"
  param {
    lr_mult: 1
  }
  param {
    lr_mult: 2
  }
  inner_product_param {
    num_output: 60
    weight_filler {
      type: "gaussian"
      std: 0.01
    }
    bias_filler {
      type: "constant"
    }
  }
}
layer {
  name: "relu2"
  type: "ReLU"
  bottom: "ip2"
  top: "ip2"
}
layer {
  name: "ip3"
  type: "InnerProduct"
  bottom: "ip2"
  top: "ip3"
  param {
    lr_mult: 1
  }
  param {
    lr_mult: 2
  }
  inner_product_param {
    num_output: 10
    weight_filler {
      type: "gaussian"
      std: 0.01
    }
    bias_filler {
      type: "constant"
    }
  }
}
layer {
  name: "loss"
  type: "SoftmaxWithLoss"
  bottom: "ip3"
  bottom: "label"
  top: "loss"
}
I0504 11:00:36.211863 26309 layer_factory.hpp:77] Creating layer cifar
I0504 11:00:36.211946 26309 db_lmdb.cpp:35] Opened lmdb examples/cifar10/cifar10_train_lmdb
I0504 11:00:36.211971 26309 net.cpp:86] Creating Layer cifar
I0504 11:00:36.211978 26309 net.cpp:382] cifar -> data
I0504 11:00:36.211997 26309 net.cpp:382] cifar -> label
I0504 11:00:36.212007 26309 data_transformer.cpp:25] Loading mean file from: examples/cifar10/mean.binaryproto
I0504 11:00:36.213788 26309 data_layer.cpp:45] output data size: 111,3,32,32
I0504 11:00:36.220628 26309 net.cpp:124] Setting up cifar
I0504 11:00:36.220674 26309 net.cpp:131] Top shape: 111 3 32 32 (340992)
I0504 11:00:36.220708 26309 net.cpp:131] Top shape: 111 (111)
I0504 11:00:36.220716 26309 net.cpp:139] Memory required for data: 1364412
I0504 11:00:36.220723 26309 layer_factory.hpp:77] Creating layer conv0
I0504 11:00:36.220737 26309 net.cpp:86] Creating Layer conv0
I0504 11:00:36.220742 26309 net.cpp:408] conv0 <- data
I0504 11:00:36.220753 26309 net.cpp:382] conv0 -> conv0
I0504 11:00:36.456627 26309 net.cpp:124] Setting up conv0
I0504 11:00:36.456670 26309 net.cpp:131] Top shape: 111 24 32 32 (2727936)
I0504 11:00:36.456673 26309 net.cpp:139] Memory required for data: 12276156
I0504 11:00:36.456687 26309 layer_factory.hpp:77] Creating layer Sigmoid0
I0504 11:00:36.456701 26309 net.cpp:86] Creating Layer Sigmoid0
I0504 11:00:36.456703 26309 net.cpp:408] Sigmoid0 <- conv0
I0504 11:00:36.456708 26309 net.cpp:382] Sigmoid0 -> Sigmoid0
I0504 11:00:36.456924 26309 net.cpp:124] Setting up Sigmoid0
I0504 11:00:36.456934 26309 net.cpp:131] Top shape: 111 24 32 32 (2727936)
I0504 11:00:36.456938 26309 net.cpp:139] Memory required for data: 23187900
I0504 11:00:36.456941 26309 layer_factory.hpp:77] Creating layer pool0
I0504 11:00:36.456950 26309 net.cpp:86] Creating Layer pool0
I0504 11:00:36.456954 26309 net.cpp:408] pool0 <- Sigmoid0
I0504 11:00:36.456959 26309 net.cpp:382] pool0 -> pool0
I0504 11:00:36.457708 26309 net.cpp:124] Setting up pool0
I0504 11:00:36.457736 26309 net.cpp:131] Top shape: 111 24 16 16 (681984)
I0504 11:00:36.457741 26309 net.cpp:139] Memory required for data: 25915836
I0504 11:00:36.457743 26309 layer_factory.hpp:77] Creating layer conv1
I0504 11:00:36.457756 26309 net.cpp:86] Creating Layer conv1
I0504 11:00:36.457761 26309 net.cpp:408] conv1 <- pool0
I0504 11:00:36.457767 26309 net.cpp:382] conv1 -> conv1
I0504 11:00:36.461477 26309 net.cpp:124] Setting up conv1
I0504 11:00:36.461520 26309 net.cpp:131] Top shape: 111 72 16 16 (2045952)
I0504 11:00:36.461524 26309 net.cpp:139] Memory required for data: 34099644
I0504 11:00:36.461532 26309 layer_factory.hpp:77] Creating layer Sigmoid1
I0504 11:00:36.461539 26309 net.cpp:86] Creating Layer Sigmoid1
I0504 11:00:36.461541 26309 net.cpp:408] Sigmoid1 <- conv1
I0504 11:00:36.461546 26309 net.cpp:382] Sigmoid1 -> Sigmoid1
I0504 11:00:36.461702 26309 net.cpp:124] Setting up Sigmoid1
I0504 11:00:36.461711 26309 net.cpp:131] Top shape: 111 72 16 16 (2045952)
I0504 11:00:36.461714 26309 net.cpp:139] Memory required for data: 42283452
I0504 11:00:36.461717 26309 layer_factory.hpp:77] Creating layer pool1
I0504 11:00:36.461722 26309 net.cpp:86] Creating Layer pool1
I0504 11:00:36.461726 26309 net.cpp:408] pool1 <- Sigmoid1
I0504 11:00:36.461730 26309 net.cpp:382] pool1 -> pool1
I0504 11:00:36.461880 26309 net.cpp:124] Setting up pool1
I0504 11:00:36.461889 26309 net.cpp:131] Top shape: 111 72 8 8 (511488)
I0504 11:00:36.461891 26309 net.cpp:139] Memory required for data: 44329404
I0504 11:00:36.461894 26309 layer_factory.hpp:77] Creating layer ip1
I0504 11:00:36.461901 26309 net.cpp:86] Creating Layer ip1
I0504 11:00:36.461905 26309 net.cpp:408] ip1 <- pool1
I0504 11:00:36.461908 26309 net.cpp:382] ip1 -> ip1
I0504 11:00:36.484311 26309 net.cpp:124] Setting up ip1
I0504 11:00:36.484324 26309 net.cpp:131] Top shape: 111 180 (19980)
I0504 11:00:36.484328 26309 net.cpp:139] Memory required for data: 44409324
I0504 11:00:36.484335 26309 layer_factory.hpp:77] Creating layer relu1
I0504 11:00:36.484342 26309 net.cpp:86] Creating Layer relu1
I0504 11:00:36.484345 26309 net.cpp:408] relu1 <- ip1
I0504 11:00:36.484349 26309 net.cpp:369] relu1 -> ip1 (in-place)
I0504 11:00:36.484503 26309 net.cpp:124] Setting up relu1
I0504 11:00:36.484509 26309 net.cpp:131] Top shape: 111 180 (19980)
I0504 11:00:36.484513 26309 net.cpp:139] Memory required for data: 44489244
I0504 11:00:36.484515 26309 layer_factory.hpp:77] Creating layer ip2
I0504 11:00:36.484522 26309 net.cpp:86] Creating Layer ip2
I0504 11:00:36.484525 26309 net.cpp:408] ip2 <- ip1
I0504 11:00:36.484544 26309 net.cpp:382] ip2 -> ip2
I0504 11:00:36.485800 26309 net.cpp:124] Setting up ip2
I0504 11:00:36.485811 26309 net.cpp:131] Top shape: 111 60 (6660)
I0504 11:00:36.485831 26309 net.cpp:139] Memory required for data: 44515884
I0504 11:00:36.485836 26309 layer_factory.hpp:77] Creating layer relu2
I0504 11:00:36.485841 26309 net.cpp:86] Creating Layer relu2
I0504 11:00:36.485846 26309 net.cpp:408] relu2 <- ip2
I0504 11:00:36.485849 26309 net.cpp:369] relu2 -> ip2 (in-place)
I0504 11:00:36.486557 26309 net.cpp:124] Setting up relu2
I0504 11:00:36.486567 26309 net.cpp:131] Top shape: 111 60 (6660)
I0504 11:00:36.486572 26309 net.cpp:139] Memory required for data: 44542524
I0504 11:00:36.486574 26309 layer_factory.hpp:77] Creating layer ip3
I0504 11:00:36.486582 26309 net.cpp:86] Creating Layer ip3
I0504 11:00:36.486584 26309 net.cpp:408] ip3 <- ip2
I0504 11:00:36.486589 26309 net.cpp:382] ip3 -> ip3
I0504 11:00:36.486697 26309 net.cpp:124] Setting up ip3
I0504 11:00:36.486704 26309 net.cpp:131] Top shape: 111 10 (1110)
I0504 11:00:36.486707 26309 net.cpp:139] Memory required for data: 44546964
I0504 11:00:36.486714 26309 layer_factory.hpp:77] Creating layer loss
I0504 11:00:36.486721 26309 net.cpp:86] Creating Layer loss
I0504 11:00:36.486726 26309 net.cpp:408] loss <- ip3
I0504 11:00:36.486730 26309 net.cpp:408] loss <- label
I0504 11:00:36.486735 26309 net.cpp:382] loss -> loss
I0504 11:00:36.486752 26309 layer_factory.hpp:77] Creating layer loss
…
I0504 11:00:36.487433 26309 solver.cpp:173] Creating test net (#0) specified by net file: ECE595/cifar/train_test/var_everything_tiny/cifar_train_test_142.prototxt
I0504 11:00:36.487491 26309 net.cpp:296] The NetState phase (1) differed from the phase (0) specified by a rule in layer cifar
I0504 11:00:36.487587 26309 net.cpp:53] Initializing net from parameters: 
name: "CIFAR"
state {
  phase: TEST
}
layer {
  name: "cifar"
  type: "Data"
  top: "data"
  top: "label"
  include {
    phase: TEST
  }
  transform_param {
    mean_file: "examples/cifar10/mean.binaryproto"
  }
  data_param {
    source: "examples/cifar10/cifar10_test_lmdb"
    batch_size: 1000
    backend: LMDB
  }
}
layer {
  name: "conv0"
  type: "Convolution"
  bottom: "data"
  top: "conv0"
  param {
    lr_mult: 1
  }
  param {
    lr_mult: 2
  }
  convolution_param {
    num_output: 24
    pad: 2
    kernel_size: 5
    stride: 1
    weight_filler {
      type: "gaussian"
      std: 0.01
    }
    bias_filler {
      type: "constant"
    }
  }
}
layer {
  name: "Sigmoid0"
  type: "Sigmoid"
  bottom: "conv0"
  top: "Sigmoid0"
}
layer {
  name: "pool0"
  type: "Pooling"
  bottom: "Sigmoid0"
  top: "pool0"
  pooling_param {
    pool: AVE
    kernel_size: 3
    stride: 2
  }
}
layer {
  name: "conv1"
  type: "Convolution"
  bottom: "pool0"
  top: "conv1"
  param {
    lr_mult: 1
  }
  param {
    lr_mult: 2
  }
  convolution_param {
    num_output: 72
    pad: 2
    kernel_size: 5
    stride: 1
    weight_filler {
      type: "gaussian"
      std: 0.01
    }
    bias_filler {
      type: "constant"
    }
  }
}
layer {
  name: "Sigmoid1"
  type: "Sigmoid"
  bottom: "conv1"
  top: "Sigmoid1"
}
layer {
  name: "pool1"
  type: "Pooling"
  bottom: "Sigmoid1"
  top: "pool1"
  pooling_param {
    pool: AVE
    kernel_size: 3
    stride: 2
  }
}
layer {
  name: "ip1"
  type: "InnerProduct"
  bottom: "pool1"
  top: "ip1"
  param {
    lr_mult: 1
  }
  param {
    lr_mult: 2
  }
  inner_product_param {
    num_output: 180
    weight_filler {
      type: "gaussian"
      std: 0.01
    }
    bias_filler {
      type: "constant"
    }
  }
}
layer {
  name: "relu1"
  type: "ReLU"
  bottom: "ip1"
  top: "ip1"
}
layer {
  name: "ip2"
  type: "InnerProduct"
  bottom: "ip1"
  top: "ip2"
  param {
    lr_mult: 1
  }
  param {
    lr_mult: 2
  }
  inner_product_param {
    num_output: 60
    weight_filler {
      type: "gaussian"
      std: 0.01
    }
    bias_filler {
      type: "constant"
    }
  }
}
layer {
  name: "relu2"
  type: "ReLU"
  bottom: "ip2"
  top: "ip2"
}
layer {
  name: "ip3"
  type: "InnerProduct"
  bottom: "ip2"
  top: "ip3"
  param {
    lr_mult: 1
  }
  param {
    lr_mult: 2
  }
  inner_product_param {
    num_output: 10
    weight_filler {
      type: "gaussian"
      std: 0.01
    }
    bias_filler {
      type: "constant"
    }
  }
}
layer {
  name: "accuracy"
  type: "Accuracy"
  bottom: "ip3"
  bottom: "label"
  top: "accuracy"
  include {
    phase: TEST
  }
}
layer {
  name: "loss"
  type: "SoftmaxWithLoss"
  bottom: "ip3"
  bottom: "label"
  top: "loss"
}
I0504 11:00:36.487669 26309 layer_factory.hpp:77] Creating layer cifar
I0504 11:00:36.487715 26309 db_lmdb.cpp:35] Opened lmdb examples/cifar10/cifar10_test_lmdb
I0504 11:00:36.487746 26309 net.cpp:86] Creating Layer cifar
I0504 11:00:36.487751 26309 net.cpp:382] cifar -> data
I0504 11:00:36.487758 26309 net.cpp:382] cifar -> label
I0504 11:00:36.487766 26309 data_transformer.cpp:25] Loading mean file from: examples/cifar10/mean.binaryproto
I0504 11:00:36.487926 26309 data_layer.cpp:45] output data size: 1000,3,32,32
I0504 11:00:36.510291 26309 net.cpp:124] Setting up cifar
I0504 11:00:36.510334 26309 net.cpp:131] Top shape: 1000 3 32 32 (3072000)
I0504 11:00:36.510339 26309 net.cpp:131] Top shape: 1000 (1000)
I0504 11:00:36.510342 26309 net.cpp:139] Memory required for data: 12292000
I0504 11:00:36.510349 26309 layer_factory.hpp:77] Creating layer label_cifar_1_split
I0504 11:00:36.510360 26309 net.cpp:86] Creating Layer label_cifar_1_split
I0504 11:00:36.510365 26309 net.cpp:408] label_cifar_1_split <- label
I0504 11:00:36.510370 26309 net.cpp:382] label_cifar_1_split -> label_cifar_1_split_0
I0504 11:00:36.510378 26309 net.cpp:382] label_cifar_1_split -> label_cifar_1_split_1
I0504 11:00:36.510507 26309 net.cpp:124] Setting up label_cifar_1_split
I0504 11:00:36.510515 26309 net.cpp:131] Top shape: 1000 (1000)
I0504 11:00:36.510519 26309 net.cpp:131] Top shape: 1000 (1000)
I0504 11:00:36.510522 26309 net.cpp:139] Memory required for data: 12300000
I0504 11:00:36.510525 26309 layer_factory.hpp:77] Creating layer conv0
I0504 11:00:36.510538 26309 net.cpp:86] Creating Layer conv0
I0504 11:00:36.510545 26309 net.cpp:408] conv0 <- data
I0504 11:00:36.510565 26309 net.cpp:382] conv0 -> conv0
I0504 11:00:36.513280 26309 net.cpp:124] Setting up conv0
I0504 11:00:36.513310 26309 net.cpp:131] Top shape: 1000 24 32 32 (24576000)
I0504 11:00:36.513314 26309 net.cpp:139] Memory required for data: 110604000
I0504 11:00:36.513324 26309 layer_factory.hpp:77] Creating layer Sigmoid0
I0504 11:00:36.513330 26309 net.cpp:86] Creating Layer Sigmoid0
I0504 11:00:36.513334 26309 net.cpp:408] Sigmoid0 <- conv0
I0504 11:00:36.513339 26309 net.cpp:382] Sigmoid0 -> Sigmoid0
I0504 11:00:36.513535 26309 net.cpp:124] Setting up Sigmoid0
I0504 11:00:36.513556 26309 net.cpp:131] Top shape: 1000 24 32 32 (24576000)
I0504 11:00:36.513558 26309 net.cpp:139] Memory required for data: 208908000
I0504 11:00:36.513562 26309 layer_factory.hpp:77] Creating layer pool0
I0504 11:00:36.513571 26309 net.cpp:86] Creating Layer pool0
I0504 11:00:36.513576 26309 net.cpp:408] pool0 <- Sigmoid0
I0504 11:00:36.513597 26309 net.cpp:382] pool0 -> pool0
I0504 11:00:36.513767 26309 net.cpp:124] Setting up pool0
I0504 11:00:36.513777 26309 net.cpp:131] Top shape: 1000 24 16 16 (6144000)
I0504 11:00:36.513779 26309 net.cpp:139] Memory required for data: 233484000
I0504 11:00:36.513782 26309 layer_factory.hpp:77] Creating layer conv1
I0504 11:00:36.513792 26309 net.cpp:86] Creating Layer conv1
I0504 11:00:36.513795 26309 net.cpp:408] conv1 <- pool0
I0504 11:00:36.513800 26309 net.cpp:382] conv1 -> conv1
I0504 11:00:36.516186 26309 net.cpp:124] Setting up conv1
I0504 11:00:36.516214 26309 net.cpp:131] Top shape: 1000 72 16 16 (18432000)
I0504 11:00:36.516218 26309 net.cpp:139] Memory required for data: 307212000
I0504 11:00:36.516243 26309 layer_factory.hpp:77] Creating layer Sigmoid1
I0504 11:00:36.516249 26309 net.cpp:86] Creating Layer Sigmoid1
I0504 11:00:36.516254 26309 net.cpp:408] Sigmoid1 <- conv1
I0504 11:00:36.516259 26309 net.cpp:382] Sigmoid1 -> Sigmoid1
I0504 11:00:36.516489 26309 net.cpp:124] Setting up Sigmoid1
I0504 11:00:36.516500 26309 net.cpp:131] Top shape: 1000 72 16 16 (18432000)
I0504 11:00:36.516505 26309 net.cpp:139] Memory required for data: 380940000
I0504 11:00:36.516508 26309 layer_factory.hpp:77] Creating layer pool1
I0504 11:00:36.516515 26309 net.cpp:86] Creating Layer pool1
I0504 11:00:36.516518 26309 net.cpp:408] pool1 <- Sigmoid1
I0504 11:00:36.516525 26309 net.cpp:382] pool1 -> pool1
I0504 11:00:36.517354 26309 net.cpp:124] Setting up pool1
I0504 11:00:36.517365 26309 net.cpp:131] Top shape: 1000 72 8 8 (4608000)
I0504 11:00:36.517385 26309 net.cpp:139] Memory required for data: 399372000
I0504 11:00:36.517388 26309 layer_factory.hpp:77] Creating layer ip1
I0504 11:00:36.517397 26309 net.cpp:86] Creating Layer ip1
I0504 11:00:36.517400 26309 net.cpp:408] ip1 <- pool1
I0504 11:00:36.517406 26309 net.cpp:382] ip1 -> ip1
I0504 11:00:36.540091 26309 net.cpp:124] Setting up ip1
I0504 11:00:36.540122 26309 net.cpp:131] Top shape: 1000 180 (180000)
I0504 11:00:36.540124 26309 net.cpp:139] Memory required for data: 400092000
I0504 11:00:36.540133 26309 layer_factory.hpp:77] Creating layer relu1
I0504 11:00:36.540140 26309 net.cpp:86] Creating Layer relu1
I0504 11:00:36.540143 26309 net.cpp:408] relu1 <- ip1
I0504 11:00:36.540148 26309 net.cpp:369] relu1 -> ip1 (in-place)
I0504 11:00:36.540338 26309 net.cpp:124] Setting up relu1
I0504 11:00:36.540347 26309 net.cpp:131] Top shape: 1000 180 (180000)
I0504 11:00:36.540350 26309 net.cpp:139] Memory required for data: 400812000
I0504 11:00:36.540354 26309 layer_factory.hpp:77] Creating layer ip2
I0504 11:00:36.540360 26309 net.cpp:86] Creating Layer ip2
I0504 11:00:36.540364 26309 net.cpp:408] ip2 <- ip1
I0504 11:00:36.540369 26309 net.cpp:382] ip2 -> ip2
I0504 11:00:36.540796 26309 net.cpp:124] Setting up ip2
I0504 11:00:36.540802 26309 net.cpp:131] Top shape: 1000 60 (60000)
I0504 11:00:36.540823 26309 net.cpp:139] Memory required for data: 401052000
I0504 11:00:36.540845 26309 layer_factory.hpp:77] Creating layer relu2
I0504 11:00:36.540851 26309 net.cpp:86] Creating Layer relu2
I0504 11:00:36.540854 26309 net.cpp:408] relu2 <- ip2
I0504 11:00:36.540858 26309 net.cpp:369] relu2 -> ip2 (in-place)
I0504 11:00:36.542047 26309 net.cpp:124] Setting up relu2
I0504 11:00:36.542055 26309 net.cpp:131] Top shape: 1000 60 (60000)
I0504 11:00:36.542073 26309 net.cpp:139] Memory required for data: 401292000
I0504 11:00:36.542076 26309 layer_factory.hpp:77] Creating layer ip3
I0504 11:00:36.542083 26309 net.cpp:86] Creating Layer ip3
I0504 11:00:36.542085 26309 net.cpp:408] ip3 <- ip2
I0504 11:00:36.542090 26309 net.cpp:382] ip3 -> ip3
I0504 11:00:36.542230 26309 net.cpp:124] Setting up ip3
I0504 11:00:36.542237 26309 net.cpp:131] Top shape: 1000 10 (10000)
I0504 11:00:36.542251 26309 net.cpp:139] Memory required for data: 401332000
I0504 11:00:36.542260 26309 layer_factory.hpp:77] Creating layer ip3_ip3_0_split
I0504 11:00:36.542268 26309 net.cpp:86] Creating Layer ip3_ip3_0_split
I0504 11:00:36.542286 26309 net.cpp:408] ip3_ip3_0_split <- ip3
I0504 11:00:36.542291 26309 net.cpp:382] ip3_ip3_0_split -> ip3_ip3_0_split_0
I0504 11:00:36.542297 26309 net.cpp:382] ip3_ip3_0_split -> ip3_ip3_0_split_1
I0504 11:00:36.542330 26309 net.cpp:124] Setting up ip3_ip3_0_split
I0504 11:00:36.542336 26309 net.cpp:131] Top shape: 1000 10 (10000)
I0504 11:00:36.542341 26309 net.cpp:131] Top shape: 1000 10 (10000)
I0504 11:00:36.542345 26309 net.cpp:139] Memory required for data: 401412000
I0504 11:00:36.542347 26309 layer_factory.hpp:77] Creating layer accuracy
I0504 11:00:36.542353 26309 net.cpp:86] Creating Layer accuracy
I0504 11:00:36.542356 26309 net.cpp:408] accuracy <- ip3_ip3_0_split_0
I0504 11:00:36.542361 26309 net.cpp:408] accuracy <- label_cifar_1_split_0
I0504 11:00:36.542366 26309 net.cpp:382] accuracy -> accuracy
…
