…
I0504 09:28:24.925835 23663 net.cpp:296] The NetState phase (0) differed from the phase (1) specified by a rule in layer cifar
I0504 09:28:24.925853 23663 net.cpp:296] The NetState phase (0) differed from the phase (1) specified by a rule in layer accuracy
I0504 09:28:24.925959 23663 net.cpp:53] Initializing net from parameters: 
name: "CIFAR"
state {
  phase: TRAIN
  level: 0
  stage: ""
}
layer {
  name: "cifar"
  type: "Data"
  top: "data"
  top: "label"
  include {
    phase: TRAIN
  }
  transform_param {
    mean_file: "examples/cifar10/mean.binaryproto"
  }
  data_param {
    source: "examples/cifar10/cifar10_train_lmdb"
    batch_size: 111
    backend: LMDB
  }
}
layer {
  name: "conv0"
  type: "Convolution"
  bottom: "data"
  top: "conv0"
  param {
    lr_mult: 1
  }
  param {
    lr_mult: 2
  }
  convolution_param {
    num_output: 24
    pad: 2
    kernel_size: 3
    stride: 1
    weight_filler {
      type: "gaussian"
      std: 0.01
    }
    bias_filler {
      type: "constant"
    }
  }
}
layer {
  name: "Sigmoid0"
  type: "Sigmoid"
  bottom: "conv0"
  top: "Sigmoid0"
}
layer {
  name: "pool0"
  type: "Pooling"
  bottom: "Sigmoid0"
  top: "pool0"
  pooling_param {
    pool: AVE
    kernel_size: 3
    stride: 2
  }
}
layer {
  name: "conv1"
  type: "Convolution"
  bottom: "pool0"
  top: "conv1"
  param {
    lr_mult: 1
  }
  param {
    lr_mult: 2
  }
  convolution_param {
    num_output: 72
    pad: 2
    kernel_size: 3
    stride: 1
    weight_filler {
      type: "gaussian"
      std: 0.01
    }
    bias_filler {
      type: "constant"
    }
  }
}
layer {
  name: "Sigmoid1"
  type: "Sigmoid"
  bottom: "conv1"
  top: "Sigmoid1"
}
layer {
  name: "pool1"
  type: "Pooling"
  bottom: "Sigmoid1"
  top: "pool1"
  pooling_param {
    pool: AVE
    kernel_size: 3
    stride: 2
  }
}
layer {
  name: "ip1"
  type: "InnerProduct"
  bottom: "pool1"
  top: "ip1"
  param {
    lr_mult: 1
  }
  param {
    lr_mult: 2
  }
  inner_product_param {
    num_output: 180
    weight_filler {
      type: "gaussian"
      std: 0.01
    }
    bias_filler {
      type: "constant"
    }
  }
}
layer {
  name: "relu1"
  type: "ReLU"
  bottom: "ip1"
  top: "ip1"
}
layer {
  name: "ip2"
  type: "InnerProduct"
  bottom: "ip1"
  top: "ip2"
  param {
    lr_mult: 1
  }
  param {
    lr_mult: 2
  }
  inner_product_param {
    num_output: 180
    weight_filler {
      type: "gaussian"
      std: 0.01
    }
    bias_filler {
      type: "constant"
    }
  }
}
layer {
  name: "relu2"
  type: "ReLU"
  bottom: "ip2"
  top: "ip2"
}
layer {
  name: "ip3"
  type: "InnerProduct"
  bottom: "ip2"
  top: "ip3"
  param {
    lr_mult: 1
  }
  param {
    lr_mult: 2
  }
  inner_product_param {
    num_output: 10
    weight_filler {
      type: "gaussian"
      std: 0.01
    }
    bias_filler {
      type: "constant"
    }
  }
}
layer {
  name: "loss"
  type: "SoftmaxWithLoss"
  bottom: "ip3"
  bottom: "label"
  top: "loss"
}
I0504 09:28:24.926034 23663 layer_factory.hpp:77] Creating layer cifar
I0504 09:28:24.926129 23663 db_lmdb.cpp:35] Opened lmdb examples/cifar10/cifar10_train_lmdb
I0504 09:28:24.926156 23663 net.cpp:86] Creating Layer cifar
I0504 09:28:24.926164 23663 net.cpp:382] cifar -> data
I0504 09:28:24.926187 23663 net.cpp:382] cifar -> label
I0504 09:28:24.926199 23663 data_transformer.cpp:25] Loading mean file from: examples/cifar10/mean.binaryproto
I0504 09:28:24.928300 23663 data_layer.cpp:45] output data size: 111,3,32,32
I0504 09:28:24.936220 23663 net.cpp:124] Setting up cifar
I0504 09:28:24.936239 23663 net.cpp:131] Top shape: 111 3 32 32 (340992)
I0504 09:28:24.936244 23663 net.cpp:131] Top shape: 111 (111)
I0504 09:28:24.936249 23663 net.cpp:139] Memory required for data: 1364412
I0504 09:28:24.936256 23663 layer_factory.hpp:77] Creating layer conv0
I0504 09:28:24.936273 23663 net.cpp:86] Creating Layer conv0
I0504 09:28:24.936278 23663 net.cpp:408] conv0 <- data
I0504 09:28:24.936290 23663 net.cpp:382] conv0 -> conv0
I0504 09:28:25.212113 23663 net.cpp:124] Setting up conv0
I0504 09:28:25.212139 23663 net.cpp:131] Top shape: 111 24 34 34 (3079584)
I0504 09:28:25.212143 23663 net.cpp:139] Memory required for data: 13682748
I0504 09:28:25.212158 23663 layer_factory.hpp:77] Creating layer Sigmoid0
I0504 09:28:25.212170 23663 net.cpp:86] Creating Layer Sigmoid0
I0504 09:28:25.212174 23663 net.cpp:408] Sigmoid0 <- conv0
I0504 09:28:25.212195 23663 net.cpp:382] Sigmoid0 -> Sigmoid0
I0504 09:28:25.212383 23663 net.cpp:124] Setting up Sigmoid0
I0504 09:28:25.212391 23663 net.cpp:131] Top shape: 111 24 34 34 (3079584)
I0504 09:28:25.212394 23663 net.cpp:139] Memory required for data: 26001084
I0504 09:28:25.212397 23663 layer_factory.hpp:77] Creating layer pool0
I0504 09:28:25.212404 23663 net.cpp:86] Creating Layer pool0
I0504 09:28:25.212407 23663 net.cpp:408] pool0 <- Sigmoid0
I0504 09:28:25.212411 23663 net.cpp:382] pool0 -> pool0
I0504 09:28:25.213122 23663 net.cpp:124] Setting up pool0
I0504 09:28:25.213135 23663 net.cpp:131] Top shape: 111 24 17 17 (769896)
I0504 09:28:25.213138 23663 net.cpp:139] Memory required for data: 29080668
I0504 09:28:25.213141 23663 layer_factory.hpp:77] Creating layer conv1
I0504 09:28:25.213153 23663 net.cpp:86] Creating Layer conv1
I0504 09:28:25.213156 23663 net.cpp:408] conv1 <- pool0
I0504 09:28:25.213162 23663 net.cpp:382] conv1 -> conv1
I0504 09:28:25.216316 23663 net.cpp:124] Setting up conv1
I0504 09:28:25.216330 23663 net.cpp:131] Top shape: 111 72 19 19 (2885112)
I0504 09:28:25.216349 23663 net.cpp:139] Memory required for data: 40621116
I0504 09:28:25.216358 23663 layer_factory.hpp:77] Creating layer Sigmoid1
I0504 09:28:25.216364 23663 net.cpp:86] Creating Layer Sigmoid1
I0504 09:28:25.216384 23663 net.cpp:408] Sigmoid1 <- conv1
I0504 09:28:25.216389 23663 net.cpp:382] Sigmoid1 -> Sigmoid1
I0504 09:28:25.216611 23663 net.cpp:124] Setting up Sigmoid1
I0504 09:28:25.216620 23663 net.cpp:131] Top shape: 111 72 19 19 (2885112)
I0504 09:28:25.216624 23663 net.cpp:139] Memory required for data: 52161564
I0504 09:28:25.216627 23663 layer_factory.hpp:77] Creating layer pool1
I0504 09:28:25.216634 23663 net.cpp:86] Creating Layer pool1
I0504 09:28:25.216637 23663 net.cpp:408] pool1 <- Sigmoid1
I0504 09:28:25.216641 23663 net.cpp:382] pool1 -> pool1
I0504 09:28:25.216821 23663 net.cpp:124] Setting up pool1
I0504 09:28:25.216830 23663 net.cpp:131] Top shape: 111 72 9 9 (647352)
I0504 09:28:25.216833 23663 net.cpp:139] Memory required for data: 54750972
I0504 09:28:25.216853 23663 layer_factory.hpp:77] Creating layer ip1
I0504 09:28:25.216861 23663 net.cpp:86] Creating Layer ip1
I0504 09:28:25.216863 23663 net.cpp:408] ip1 <- pool1
I0504 09:28:25.216868 23663 net.cpp:382] ip1 -> ip1
I0504 09:28:25.244619 23663 net.cpp:124] Setting up ip1
I0504 09:28:25.244632 23663 net.cpp:131] Top shape: 111 180 (19980)
I0504 09:28:25.244635 23663 net.cpp:139] Memory required for data: 54830892
I0504 09:28:25.244642 23663 layer_factory.hpp:77] Creating layer relu1
I0504 09:28:25.244649 23663 net.cpp:86] Creating Layer relu1
I0504 09:28:25.244652 23663 net.cpp:408] relu1 <- ip1
I0504 09:28:25.244657 23663 net.cpp:369] relu1 -> ip1 (in-place)
I0504 09:28:25.244848 23663 net.cpp:124] Setting up relu1
I0504 09:28:25.244856 23663 net.cpp:131] Top shape: 111 180 (19980)
I0504 09:28:25.244859 23663 net.cpp:139] Memory required for data: 54910812
I0504 09:28:25.244863 23663 layer_factory.hpp:77] Creating layer ip2
I0504 09:28:25.244869 23663 net.cpp:86] Creating Layer ip2
I0504 09:28:25.244873 23663 net.cpp:408] ip2 <- ip1
I0504 09:28:25.244894 23663 net.cpp:382] ip2 -> ip2
I0504 09:28:25.246621 23663 net.cpp:124] Setting up ip2
I0504 09:28:25.246634 23663 net.cpp:131] Top shape: 111 180 (19980)
I0504 09:28:25.246636 23663 net.cpp:139] Memory required for data: 54990732
I0504 09:28:25.246642 23663 layer_factory.hpp:77] Creating layer relu2
I0504 09:28:25.246647 23663 net.cpp:86] Creating Layer relu2
I0504 09:28:25.246650 23663 net.cpp:408] relu2 <- ip2
I0504 09:28:25.246654 23663 net.cpp:369] relu2 -> ip2 (in-place)
I0504 09:28:25.247369 23663 net.cpp:124] Setting up relu2
I0504 09:28:25.247380 23663 net.cpp:131] Top shape: 111 180 (19980)
I0504 09:28:25.247400 23663 net.cpp:139] Memory required for data: 55070652
I0504 09:28:25.247403 23663 layer_factory.hpp:77] Creating layer ip3
I0504 09:28:25.247409 23663 net.cpp:86] Creating Layer ip3
I0504 09:28:25.247427 23663 net.cpp:408] ip3 <- ip2
I0504 09:28:25.247432 23663 net.cpp:382] ip3 -> ip3
I0504 09:28:25.247591 23663 net.cpp:124] Setting up ip3
I0504 09:28:25.247597 23663 net.cpp:131] Top shape: 111 10 (1110)
I0504 09:28:25.247601 23663 net.cpp:139] Memory required for data: 55075092
I0504 09:28:25.247608 23663 layer_factory.hpp:77] Creating layer loss
I0504 09:28:25.247614 23663 net.cpp:86] Creating Layer loss
I0504 09:28:25.247619 23663 net.cpp:408] loss <- ip3
I0504 09:28:25.247623 23663 net.cpp:408] loss <- label
I0504 09:28:25.247628 23663 net.cpp:382] loss -> loss
I0504 09:28:25.247645 23663 layer_factory.hpp:77] Creating layer loss
…
I0504 09:28:25.248306 23663 solver.cpp:173] Creating test net (#0) specified by net file: ECE595/cifar/train_test/var_everything_tiny/cifar_train_test_119.prototxt
I0504 09:28:25.248349 23663 net.cpp:296] The NetState phase (1) differed from the phase (0) specified by a rule in layer cifar
I0504 09:28:25.248457 23663 net.cpp:53] Initializing net from parameters: 
name: "CIFAR"
state {
  phase: TEST
}
layer {
  name: "cifar"
  type: "Data"
  top: "data"
  top: "label"
  include {
    phase: TEST
  }
  transform_param {
    mean_file: "examples/cifar10/mean.binaryproto"
  }
  data_param {
    source: "examples/cifar10/cifar10_test_lmdb"
    batch_size: 1000
    backend: LMDB
  }
}
layer {
  name: "conv0"
  type: "Convolution"
  bottom: "data"
  top: "conv0"
  param {
    lr_mult: 1
  }
  param {
    lr_mult: 2
  }
  convolution_param {
    num_output: 24
    pad: 2
    kernel_size: 3
    stride: 1
    weight_filler {
      type: "gaussian"
      std: 0.01
    }
    bias_filler {
      type: "constant"
    }
  }
}
layer {
  name: "Sigmoid0"
  type: "Sigmoid"
  bottom: "conv0"
  top: "Sigmoid0"
}
layer {
  name: "pool0"
  type: "Pooling"
  bottom: "Sigmoid0"
  top: "pool0"
  pooling_param {
    pool: AVE
    kernel_size: 3
    stride: 2
  }
}
layer {
  name: "conv1"
  type: "Convolution"
  bottom: "pool0"
  top: "conv1"
  param {
    lr_mult: 1
  }
  param {
    lr_mult: 2
  }
  convolution_param {
    num_output: 72
    pad: 2
    kernel_size: 3
    stride: 1
    weight_filler {
      type: "gaussian"
      std: 0.01
    }
    bias_filler {
      type: "constant"
    }
  }
}
layer {
  name: "Sigmoid1"
  type: "Sigmoid"
  bottom: "conv1"
  top: "Sigmoid1"
}
layer {
  name: "pool1"
  type: "Pooling"
  bottom: "Sigmoid1"
  top: "pool1"
  pooling_param {
    pool: AVE
    kernel_size: 3
    stride: 2
  }
}
layer {
  name: "ip1"
  type: "InnerProduct"
  bottom: "pool1"
  top: "ip1"
  param {
    lr_mult: 1
  }
  param {
    lr_mult: 2
  }
  inner_product_param {
    num_output: 180
    weight_filler {
      type: "gaussian"
      std: 0.01
    }
    bias_filler {
      type: "constant"
    }
  }
}
layer {
  name: "relu1"
  type: "ReLU"
  bottom: "ip1"
  top: "ip1"
}
layer {
  name: "ip2"
  type: "InnerProduct"
  bottom: "ip1"
  top: "ip2"
  param {
    lr_mult: 1
  }
  param {
    lr_mult: 2
  }
  inner_product_param {
    num_output: 180
    weight_filler {
      type: "gaussian"
      std: 0.01
    }
    bias_filler {
      type: "constant"
    }
  }
}
layer {
  name: "relu2"
  type: "ReLU"
  bottom: "ip2"
  top: "ip2"
}
layer {
  name: "ip3"
  type: "InnerProduct"
  bottom: "ip2"
  top: "ip3"
  param {
    lr_mult: 1
  }
  param {
    lr_mult: 2
  }
  inner_product_param {
    num_output: 10
    weight_filler {
      type: "gaussian"
      std: 0.01
    }
    bias_filler {
      type: "constant"
    }
  }
}
layer {
  name: "accuracy"
  type: "Accuracy"
  bottom: "ip3"
  bottom: "label"
  top: "accuracy"
  include {
    phase: TEST
  }
}
layer {
  name: "loss"
  type: "SoftmaxWithLoss"
  bottom: "ip3"
  bottom: "label"
  top: "loss"
}
I0504 09:28:25.248549 23663 layer_factory.hpp:77] Creating layer cifar
I0504 09:28:25.248592 23663 db_lmdb.cpp:35] Opened lmdb examples/cifar10/cifar10_test_lmdb
I0504 09:28:25.248605 23663 net.cpp:86] Creating Layer cifar
I0504 09:28:25.248608 23663 net.cpp:382] cifar -> data
I0504 09:28:25.248616 23663 net.cpp:382] cifar -> label
I0504 09:28:25.248622 23663 data_transformer.cpp:25] Loading mean file from: examples/cifar10/mean.binaryproto
I0504 09:28:25.248765 23663 data_layer.cpp:45] output data size: 1000,3,32,32
I0504 09:28:25.270301 23663 net.cpp:124] Setting up cifar
I0504 09:28:25.270344 23663 net.cpp:131] Top shape: 1000 3 32 32 (3072000)
I0504 09:28:25.270350 23663 net.cpp:131] Top shape: 1000 (1000)
I0504 09:28:25.270354 23663 net.cpp:139] Memory required for data: 12292000
I0504 09:28:25.270359 23663 layer_factory.hpp:77] Creating layer label_cifar_1_split
I0504 09:28:25.270390 23663 net.cpp:86] Creating Layer label_cifar_1_split
I0504 09:28:25.270393 23663 net.cpp:408] label_cifar_1_split <- label
I0504 09:28:25.270400 23663 net.cpp:382] label_cifar_1_split -> label_cifar_1_split_0
I0504 09:28:25.270408 23663 net.cpp:382] label_cifar_1_split -> label_cifar_1_split_1
I0504 09:28:25.270551 23663 net.cpp:124] Setting up label_cifar_1_split
I0504 09:28:25.270558 23663 net.cpp:131] Top shape: 1000 (1000)
I0504 09:28:25.270562 23663 net.cpp:131] Top shape: 1000 (1000)
I0504 09:28:25.270565 23663 net.cpp:139] Memory required for data: 12300000
I0504 09:28:25.270567 23663 layer_factory.hpp:77] Creating layer conv0
I0504 09:28:25.270581 23663 net.cpp:86] Creating Layer conv0
I0504 09:28:25.270583 23663 net.cpp:408] conv0 <- data
I0504 09:28:25.270589 23663 net.cpp:382] conv0 -> conv0
I0504 09:28:25.273056 23663 net.cpp:124] Setting up conv0
I0504 09:28:25.273071 23663 net.cpp:131] Top shape: 1000 24 34 34 (27744000)
I0504 09:28:25.273073 23663 net.cpp:139] Memory required for data: 123276000
I0504 09:28:25.273099 23663 layer_factory.hpp:77] Creating layer Sigmoid0
I0504 09:28:25.273108 23663 net.cpp:86] Creating Layer Sigmoid0
I0504 09:28:25.273111 23663 net.cpp:408] Sigmoid0 <- conv0
I0504 09:28:25.273131 23663 net.cpp:382] Sigmoid0 -> Sigmoid0
I0504 09:28:25.273319 23663 net.cpp:124] Setting up Sigmoid0
I0504 09:28:25.273339 23663 net.cpp:131] Top shape: 1000 24 34 34 (27744000)
I0504 09:28:25.273342 23663 net.cpp:139] Memory required for data: 234252000
I0504 09:28:25.273346 23663 layer_factory.hpp:77] Creating layer pool0
I0504 09:28:25.273353 23663 net.cpp:86] Creating Layer pool0
I0504 09:28:25.273356 23663 net.cpp:408] pool0 <- Sigmoid0
I0504 09:28:25.273361 23663 net.cpp:382] pool0 -> pool0
I0504 09:28:25.273558 23663 net.cpp:124] Setting up pool0
I0504 09:28:25.273567 23663 net.cpp:131] Top shape: 1000 24 17 17 (6936000)
I0504 09:28:25.273571 23663 net.cpp:139] Memory required for data: 261996000
I0504 09:28:25.273573 23663 layer_factory.hpp:77] Creating layer conv1
I0504 09:28:25.273584 23663 net.cpp:86] Creating Layer conv1
I0504 09:28:25.273588 23663 net.cpp:408] conv1 <- pool0
I0504 09:28:25.273594 23663 net.cpp:382] conv1 -> conv1
I0504 09:28:25.275286 23663 net.cpp:124] Setting up conv1
I0504 09:28:25.275300 23663 net.cpp:131] Top shape: 1000 72 19 19 (25992000)
I0504 09:28:25.275302 23663 net.cpp:139] Memory required for data: 365964000
I0504 09:28:25.275310 23663 layer_factory.hpp:77] Creating layer Sigmoid1
I0504 09:28:25.275338 23663 net.cpp:86] Creating Layer Sigmoid1
I0504 09:28:25.275341 23663 net.cpp:408] Sigmoid1 <- conv1
I0504 09:28:25.275347 23663 net.cpp:382] Sigmoid1 -> Sigmoid1
I0504 09:28:25.275516 23663 net.cpp:124] Setting up Sigmoid1
I0504 09:28:25.275524 23663 net.cpp:131] Top shape: 1000 72 19 19 (25992000)
I0504 09:28:25.275527 23663 net.cpp:139] Memory required for data: 469932000
I0504 09:28:25.275530 23663 layer_factory.hpp:77] Creating layer pool1
I0504 09:28:25.275537 23663 net.cpp:86] Creating Layer pool1
I0504 09:28:25.275540 23663 net.cpp:408] pool1 <- Sigmoid1
I0504 09:28:25.275544 23663 net.cpp:382] pool1 -> pool1
I0504 09:28:25.276357 23663 net.cpp:124] Setting up pool1
I0504 09:28:25.276370 23663 net.cpp:131] Top shape: 1000 72 9 9 (5832000)
I0504 09:28:25.276372 23663 net.cpp:139] Memory required for data: 493260000
I0504 09:28:25.276376 23663 layer_factory.hpp:77] Creating layer ip1
I0504 09:28:25.276401 23663 net.cpp:86] Creating Layer ip1
I0504 09:28:25.276404 23663 net.cpp:408] ip1 <- pool1
I0504 09:28:25.276412 23663 net.cpp:382] ip1 -> ip1
I0504 09:28:25.304842 23663 net.cpp:124] Setting up ip1
I0504 09:28:25.304858 23663 net.cpp:131] Top shape: 1000 180 (180000)
I0504 09:28:25.304862 23663 net.cpp:139] Memory required for data: 493980000
I0504 09:28:25.304872 23663 layer_factory.hpp:77] Creating layer relu1
I0504 09:28:25.304878 23663 net.cpp:86] Creating Layer relu1
I0504 09:28:25.304898 23663 net.cpp:408] relu1 <- ip1
I0504 09:28:25.304903 23663 net.cpp:369] relu1 -> ip1 (in-place)
I0504 09:28:25.305083 23663 net.cpp:124] Setting up relu1
I0504 09:28:25.305091 23663 net.cpp:131] Top shape: 1000 180 (180000)
I0504 09:28:25.305094 23663 net.cpp:139] Memory required for data: 494700000
I0504 09:28:25.305096 23663 layer_factory.hpp:77] Creating layer ip2
I0504 09:28:25.305104 23663 net.cpp:86] Creating Layer ip2
I0504 09:28:25.305106 23663 net.cpp:408] ip2 <- ip1
I0504 09:28:25.305112 23663 net.cpp:382] ip2 -> ip2
I0504 09:28:25.306077 23663 net.cpp:124] Setting up ip2
I0504 09:28:25.306083 23663 net.cpp:131] Top shape: 1000 180 (180000)
I0504 09:28:25.306087 23663 net.cpp:139] Memory required for data: 495420000
I0504 09:28:25.306092 23663 layer_factory.hpp:77] Creating layer relu2
I0504 09:28:25.306097 23663 net.cpp:86] Creating Layer relu2
I0504 09:28:25.306115 23663 net.cpp:408] relu2 <- ip2
I0504 09:28:25.306119 23663 net.cpp:369] relu2 -> ip2 (in-place)
I0504 09:28:25.306272 23663 net.cpp:124] Setting up relu2
I0504 09:28:25.306280 23663 net.cpp:131] Top shape: 1000 180 (180000)
I0504 09:28:25.306283 23663 net.cpp:139] Memory required for data: 496140000
I0504 09:28:25.306287 23663 layer_factory.hpp:77] Creating layer ip3
I0504 09:28:25.306316 23663 net.cpp:86] Creating Layer ip3
I0504 09:28:25.306319 23663 net.cpp:408] ip3 <- ip2
I0504 09:28:25.306325 23663 net.cpp:382] ip3 -> ip3
I0504 09:28:25.306483 23663 net.cpp:124] Setting up ip3
I0504 09:28:25.306501 23663 net.cpp:131] Top shape: 1000 10 (10000)
I0504 09:28:25.306505 23663 net.cpp:139] Memory required for data: 496180000
I0504 09:28:25.306512 23663 layer_factory.hpp:77] Creating layer ip3_ip3_0_split
I0504 09:28:25.306524 23663 net.cpp:86] Creating Layer ip3_ip3_0_split
I0504 09:28:25.306527 23663 net.cpp:408] ip3_ip3_0_split <- ip3
I0504 09:28:25.306535 23663 net.cpp:382] ip3_ip3_0_split -> ip3_ip3_0_split_0
I0504 09:28:25.306540 23663 net.cpp:382] ip3_ip3_0_split -> ip3_ip3_0_split_1
I0504 09:28:25.306573 23663 net.cpp:124] Setting up ip3_ip3_0_split
I0504 09:28:25.306578 23663 net.cpp:131] Top shape: 1000 10 (10000)
I0504 09:28:25.306581 23663 net.cpp:131] Top shape: 1000 10 (10000)
I0504 09:28:25.306584 23663 net.cpp:139] Memory required for data: 496260000
I0504 09:28:25.306592 23663 layer_factory.hpp:77] Creating layer accuracy
I0504 09:28:25.306599 23663 net.cpp:86] Creating Layer accuracy
I0504 09:28:25.306602 23663 net.cpp:408] accuracy <- ip3_ip3_0_split_0
I0504 09:28:25.306605 23663 net.cpp:408] accuracy <- label_cifar_1_split_0
I0504 09:28:25.306610 23663 net.cpp:382] accuracy -> accuracy
…
