…
I0504 17:19:20.118217 11494 net.cpp:296] The NetState phase (0) differed from the phase (1) specified by a rule in layer cifar
I0504 17:19:20.118237 11494 net.cpp:296] The NetState phase (0) differed from the phase (1) specified by a rule in layer accuracy
I0504 17:19:20.118326 11494 net.cpp:53] Initializing net from parameters: 
name: "CIFAR"
state {
  phase: TRAIN
  level: 0
  stage: ""
}
layer {
  name: "cifar"
  type: "Data"
  top: "data"
  top: "label"
  include {
    phase: TRAIN
  }
  transform_param {
    mean_file: "examples/cifar10/mean.binaryproto"
  }
  data_param {
    source: "examples/cifar10/cifar10_train_lmdb"
    batch_size: 111
    backend: LMDB
  }
}
layer {
  name: "conv0"
  type: "Convolution"
  bottom: "data"
  top: "conv0"
  param {
    lr_mult: 1
  }
  param {
    lr_mult: 2
  }
  convolution_param {
    num_output: 72
    pad: 2
    kernel_size: 5
    stride: 1
    weight_filler {
      type: "gaussian"
      std: 0.01
    }
    bias_filler {
      type: "constant"
    }
  }
}
layer {
  name: "Sigmoid0"
  type: "Sigmoid"
  bottom: "conv0"
  top: "Sigmoid0"
}
layer {
  name: "pool0"
  type: "Pooling"
  bottom: "Sigmoid0"
  top: "pool0"
  pooling_param {
    pool: AVE
    kernel_size: 3
    stride: 2
  }
}
layer {
  name: "conv1"
  type: "Convolution"
  bottom: "pool0"
  top: "conv1"
  param {
    lr_mult: 1
  }
  param {
    lr_mult: 2
  }
  convolution_param {
    num_output: 72
    pad: 2
    kernel_size: 3
    stride: 1
    weight_filler {
      type: "gaussian"
      std: 0.01
    }
    bias_filler {
      type: "constant"
    }
  }
}
layer {
  name: "Sigmoid1"
  type: "Sigmoid"
  bottom: "conv1"
  top: "Sigmoid1"
}
layer {
  name: "pool1"
  type: "Pooling"
  bottom: "Sigmoid1"
  top: "pool1"
  pooling_param {
    pool: AVE
    kernel_size: 3
    stride: 2
  }
}
layer {
  name: "ip1"
  type: "InnerProduct"
  bottom: "pool1"
  top: "ip1"
  param {
    lr_mult: 1
  }
  param {
    lr_mult: 2
  }
  inner_product_param {
    num_output: 10
    weight_filler {
      type: "gaussian"
      std: 0.01
    }
    bias_filler {
      type: "constant"
    }
  }
}
layer {
  name: "relu1"
  type: "ReLU"
  bottom: "ip1"
  top: "ip1"
}
layer {
  name: "ip2"
  type: "InnerProduct"
  bottom: "ip1"
  top: "ip2"
  param {
    lr_mult: 1
  }
  param {
    lr_mult: 2
  }
  inner_product_param {
    num_output: 60
    weight_filler {
      type: "gaussian"
      std: 0.01
    }
    bias_filler {
      type: "constant"
    }
  }
}
layer {
  name: "relu2"
  type: "ReLU"
  bottom: "ip2"
  top: "ip2"
}
layer {
  name: "ip3"
  type: "InnerProduct"
  bottom: "ip2"
  top: "ip3"
  param {
    lr_mult: 1
  }
  param {
    lr_mult: 2
  }
  inner_product_param {
    num_output: 10
    weight_filler {
      type: "gaussian"
      std: 0.01
    }
    bias_filler {
      type: "constant"
    }
  }
}
layer {
  name: "loss"
  type: "SoftmaxWithLoss"
  bottom: "ip3"
  bottom: "label"
  top: "loss"
}
I0504 17:19:20.118396 11494 layer_factory.hpp:77] Creating layer cifar
I0504 17:19:20.118477 11494 db_lmdb.cpp:35] Opened lmdb examples/cifar10/cifar10_train_lmdb
I0504 17:19:20.118499 11494 net.cpp:86] Creating Layer cifar
I0504 17:19:20.118506 11494 net.cpp:382] cifar -> data
I0504 17:19:20.118525 11494 net.cpp:382] cifar -> label
I0504 17:19:20.118537 11494 data_transformer.cpp:25] Loading mean file from: examples/cifar10/mean.binaryproto
I0504 17:19:20.120386 11494 data_layer.cpp:45] output data size: 111,3,32,32
I0504 17:19:20.127240 11494 net.cpp:124] Setting up cifar
I0504 17:19:20.127255 11494 net.cpp:131] Top shape: 111 3 32 32 (340992)
I0504 17:19:20.127260 11494 net.cpp:131] Top shape: 111 (111)
I0504 17:19:20.127264 11494 net.cpp:139] Memory required for data: 1364412
I0504 17:19:20.127269 11494 layer_factory.hpp:77] Creating layer conv0
I0504 17:19:20.127284 11494 net.cpp:86] Creating Layer conv0
I0504 17:19:20.127287 11494 net.cpp:408] conv0 <- data
I0504 17:19:20.127298 11494 net.cpp:382] conv0 -> conv0
I0504 17:19:20.363425 11494 net.cpp:124] Setting up conv0
I0504 17:19:20.363467 11494 net.cpp:131] Top shape: 111 72 32 32 (8183808)
I0504 17:19:20.363471 11494 net.cpp:139] Memory required for data: 34099644
I0504 17:19:20.363486 11494 layer_factory.hpp:77] Creating layer Sigmoid0
I0504 17:19:20.363497 11494 net.cpp:86] Creating Layer Sigmoid0
I0504 17:19:20.363500 11494 net.cpp:408] Sigmoid0 <- conv0
I0504 17:19:20.363521 11494 net.cpp:382] Sigmoid0 -> Sigmoid0
I0504 17:19:20.363692 11494 net.cpp:124] Setting up Sigmoid0
I0504 17:19:20.363716 11494 net.cpp:131] Top shape: 111 72 32 32 (8183808)
I0504 17:19:20.363720 11494 net.cpp:139] Memory required for data: 66834876
I0504 17:19:20.363723 11494 layer_factory.hpp:77] Creating layer pool0
I0504 17:19:20.363745 11494 net.cpp:86] Creating Layer pool0
I0504 17:19:20.363749 11494 net.cpp:408] pool0 <- Sigmoid0
I0504 17:19:20.363752 11494 net.cpp:382] pool0 -> pool0
I0504 17:19:20.364507 11494 net.cpp:124] Setting up pool0
I0504 17:19:20.364536 11494 net.cpp:131] Top shape: 111 72 16 16 (2045952)
I0504 17:19:20.364538 11494 net.cpp:139] Memory required for data: 75018684
I0504 17:19:20.364542 11494 layer_factory.hpp:77] Creating layer conv1
I0504 17:19:20.364554 11494 net.cpp:86] Creating Layer conv1
I0504 17:19:20.364557 11494 net.cpp:408] conv1 <- pool0
I0504 17:19:20.364562 11494 net.cpp:382] conv1 -> conv1
I0504 17:19:20.368690 11494 net.cpp:124] Setting up conv1
I0504 17:19:20.368718 11494 net.cpp:131] Top shape: 111 72 18 18 (2589408)
I0504 17:19:20.368721 11494 net.cpp:139] Memory required for data: 85376316
I0504 17:19:20.368729 11494 layer_factory.hpp:77] Creating layer Sigmoid1
I0504 17:19:20.368736 11494 net.cpp:86] Creating Layer Sigmoid1
I0504 17:19:20.368741 11494 net.cpp:408] Sigmoid1 <- conv1
I0504 17:19:20.368755 11494 net.cpp:382] Sigmoid1 -> Sigmoid1
I0504 17:19:20.369012 11494 net.cpp:124] Setting up Sigmoid1
I0504 17:19:20.369024 11494 net.cpp:131] Top shape: 111 72 18 18 (2589408)
I0504 17:19:20.369027 11494 net.cpp:139] Memory required for data: 95733948
I0504 17:19:20.369030 11494 layer_factory.hpp:77] Creating layer pool1
I0504 17:19:20.369037 11494 net.cpp:86] Creating Layer pool1
I0504 17:19:20.369040 11494 net.cpp:408] pool1 <- Sigmoid1
I0504 17:19:20.369045 11494 net.cpp:382] pool1 -> pool1
I0504 17:19:20.369254 11494 net.cpp:124] Setting up pool1
I0504 17:19:20.369262 11494 net.cpp:131] Top shape: 111 72 9 9 (647352)
I0504 17:19:20.369266 11494 net.cpp:139] Memory required for data: 98323356
I0504 17:19:20.369269 11494 layer_factory.hpp:77] Creating layer ip1
I0504 17:19:20.369277 11494 net.cpp:86] Creating Layer ip1
I0504 17:19:20.369279 11494 net.cpp:408] ip1 <- pool1
I0504 17:19:20.369284 11494 net.cpp:382] ip1 -> ip1
I0504 17:19:20.371121 11494 net.cpp:124] Setting up ip1
I0504 17:19:20.371129 11494 net.cpp:131] Top shape: 111 10 (1110)
I0504 17:19:20.371148 11494 net.cpp:139] Memory required for data: 98327796
I0504 17:19:20.371155 11494 layer_factory.hpp:77] Creating layer relu1
I0504 17:19:20.371161 11494 net.cpp:86] Creating Layer relu1
I0504 17:19:20.371165 11494 net.cpp:408] relu1 <- ip1
I0504 17:19:20.371170 11494 net.cpp:369] relu1 -> ip1 (in-place)
I0504 17:19:20.371317 11494 net.cpp:124] Setting up relu1
I0504 17:19:20.371341 11494 net.cpp:131] Top shape: 111 10 (1110)
I0504 17:19:20.371345 11494 net.cpp:139] Memory required for data: 98332236
I0504 17:19:20.371347 11494 layer_factory.hpp:77] Creating layer ip2
I0504 17:19:20.371353 11494 net.cpp:86] Creating Layer ip2
I0504 17:19:20.371357 11494 net.cpp:408] ip2 <- ip1
I0504 17:19:20.371381 11494 net.cpp:382] ip2 -> ip2
I0504 17:19:20.371505 11494 net.cpp:124] Setting up ip2
I0504 17:19:20.371512 11494 net.cpp:131] Top shape: 111 60 (6660)
I0504 17:19:20.371515 11494 net.cpp:139] Memory required for data: 98358876
I0504 17:19:20.371521 11494 layer_factory.hpp:77] Creating layer relu2
I0504 17:19:20.371526 11494 net.cpp:86] Creating Layer relu2
I0504 17:19:20.371531 11494 net.cpp:408] relu2 <- ip2
I0504 17:19:20.371534 11494 net.cpp:369] relu2 -> ip2 (in-place)
I0504 17:19:20.372282 11494 net.cpp:124] Setting up relu2
I0504 17:19:20.372294 11494 net.cpp:131] Top shape: 111 60 (6660)
I0504 17:19:20.372313 11494 net.cpp:139] Memory required for data: 98385516
I0504 17:19:20.372316 11494 layer_factory.hpp:77] Creating layer ip3
I0504 17:19:20.372334 11494 net.cpp:86] Creating Layer ip3
I0504 17:19:20.372337 11494 net.cpp:408] ip3 <- ip2
I0504 17:19:20.372342 11494 net.cpp:382] ip3 -> ip3
I0504 17:19:20.372488 11494 net.cpp:124] Setting up ip3
I0504 17:19:20.372494 11494 net.cpp:131] Top shape: 111 10 (1110)
I0504 17:19:20.372498 11494 net.cpp:139] Memory required for data: 98389956
I0504 17:19:20.372506 11494 layer_factory.hpp:77] Creating layer loss
I0504 17:19:20.372512 11494 net.cpp:86] Creating Layer loss
I0504 17:19:20.372515 11494 net.cpp:408] loss <- ip3
I0504 17:19:20.372519 11494 net.cpp:408] loss <- label
I0504 17:19:20.372524 11494 net.cpp:382] loss -> loss
I0504 17:19:20.372542 11494 layer_factory.hpp:77] Creating layer loss
…
I0504 17:19:20.373250 11494 solver.cpp:173] Creating test net (#0) specified by net file: ECE595/cifar/train_test/var_everything_tiny/cifar_train_test_196.prototxt
I0504 17:19:20.373303 11494 net.cpp:296] The NetState phase (1) differed from the phase (0) specified by a rule in layer cifar
I0504 17:19:20.373404 11494 net.cpp:53] Initializing net from parameters: 
name: "CIFAR"
state {
  phase: TEST
}
layer {
  name: "cifar"
  type: "Data"
  top: "data"
  top: "label"
  include {
    phase: TEST
  }
  transform_param {
    mean_file: "examples/cifar10/mean.binaryproto"
  }
  data_param {
    source: "examples/cifar10/cifar10_test_lmdb"
    batch_size: 1000
    backend: LMDB
  }
}
layer {
  name: "conv0"
  type: "Convolution"
  bottom: "data"
  top: "conv0"
  param {
    lr_mult: 1
  }
  param {
    lr_mult: 2
  }
  convolution_param {
    num_output: 72
    pad: 2
    kernel_size: 5
    stride: 1
    weight_filler {
      type: "gaussian"
      std: 0.01
    }
    bias_filler {
      type: "constant"
    }
  }
}
layer {
  name: "Sigmoid0"
  type: "Sigmoid"
  bottom: "conv0"
  top: "Sigmoid0"
}
layer {
  name: "pool0"
  type: "Pooling"
  bottom: "Sigmoid0"
  top: "pool0"
  pooling_param {
    pool: AVE
    kernel_size: 3
    stride: 2
  }
}
layer {
  name: "conv1"
  type: "Convolution"
  bottom: "pool0"
  top: "conv1"
  param {
    lr_mult: 1
  }
  param {
    lr_mult: 2
  }
  convolution_param {
    num_output: 72
    pad: 2
    kernel_size: 3
    stride: 1
    weight_filler {
      type: "gaussian"
      std: 0.01
    }
    bias_filler {
      type: "constant"
    }
  }
}
layer {
  name: "Sigmoid1"
  type: "Sigmoid"
  bottom: "conv1"
  top: "Sigmoid1"
}
layer {
  name: "pool1"
  type: "Pooling"
  bottom: "Sigmoid1"
  top: "pool1"
  pooling_param {
    pool: AVE
    kernel_size: 3
    stride: 2
  }
}
layer {
  name: "ip1"
  type: "InnerProduct"
  bottom: "pool1"
  top: "ip1"
  param {
    lr_mult: 1
  }
  param {
    lr_mult: 2
  }
  inner_product_param {
    num_output: 10
    weight_filler {
      type: "gaussian"
      std: 0.01
    }
    bias_filler {
      type: "constant"
    }
  }
}
layer {
  name: "relu1"
  type: "ReLU"
  bottom: "ip1"
  top: "ip1"
}
layer {
  name: "ip2"
  type: "InnerProduct"
  bottom: "ip1"
  top: "ip2"
  param {
    lr_mult: 1
  }
  param {
    lr_mult: 2
  }
  inner_product_param {
    num_output: 60
    weight_filler {
      type: "gaussian"
      std: 0.01
    }
    bias_filler {
      type: "constant"
    }
  }
}
layer {
  name: "relu2"
  type: "ReLU"
  bottom: "ip2"
  top: "ip2"
}
layer {
  name: "ip3"
  type: "InnerProduct"
  bottom: "ip2"
  top: "ip3"
  param {
    lr_mult: 1
  }
  param {
    lr_mult: 2
  }
  inner_product_param {
    num_output: 10
    weight_filler {
      type: "gaussian"
      std: 0.01
    }
    bias_filler {
      type: "constant"
    }
  }
}
layer {
  name: "accuracy"
  type: "Accuracy"
  bottom: "ip3"
  bottom: "label"
  top: "accuracy"
  include {
    phase: TEST
  }
}
layer {
  name: "loss"
  type: "SoftmaxWithLoss"
  bottom: "ip3"
  bottom: "label"
  top: "loss"
}
I0504 17:19:20.373487 11494 layer_factory.hpp:77] Creating layer cifar
I0504 17:19:20.373536 11494 db_lmdb.cpp:35] Opened lmdb examples/cifar10/cifar10_test_lmdb
I0504 17:19:20.373548 11494 net.cpp:86] Creating Layer cifar
I0504 17:19:20.373553 11494 net.cpp:382] cifar -> data
I0504 17:19:20.373561 11494 net.cpp:382] cifar -> label
I0504 17:19:20.373569 11494 data_transformer.cpp:25] Loading mean file from: examples/cifar10/mean.binaryproto
I0504 17:19:20.373716 11494 data_layer.cpp:45] output data size: 1000,3,32,32
I0504 17:19:20.395879 11494 net.cpp:124] Setting up cifar
I0504 17:19:20.395918 11494 net.cpp:131] Top shape: 1000 3 32 32 (3072000)
I0504 17:19:20.395925 11494 net.cpp:131] Top shape: 1000 (1000)
I0504 17:19:20.395927 11494 net.cpp:139] Memory required for data: 12292000
I0504 17:19:20.395932 11494 layer_factory.hpp:77] Creating layer label_cifar_1_split
I0504 17:19:20.395946 11494 net.cpp:86] Creating Layer label_cifar_1_split
I0504 17:19:20.395948 11494 net.cpp:408] label_cifar_1_split <- label
I0504 17:19:20.395954 11494 net.cpp:382] label_cifar_1_split -> label_cifar_1_split_0
I0504 17:19:20.395977 11494 net.cpp:382] label_cifar_1_split -> label_cifar_1_split_1
I0504 17:19:20.396083 11494 net.cpp:124] Setting up label_cifar_1_split
I0504 17:19:20.396091 11494 net.cpp:131] Top shape: 1000 (1000)
I0504 17:19:20.396095 11494 net.cpp:131] Top shape: 1000 (1000)
I0504 17:19:20.396097 11494 net.cpp:139] Memory required for data: 12300000
I0504 17:19:20.396100 11494 layer_factory.hpp:77] Creating layer conv0
I0504 17:19:20.396113 11494 net.cpp:86] Creating Layer conv0
I0504 17:19:20.396116 11494 net.cpp:408] conv0 <- data
I0504 17:19:20.396122 11494 net.cpp:382] conv0 -> conv0
I0504 17:19:20.399060 11494 net.cpp:124] Setting up conv0
I0504 17:19:20.399073 11494 net.cpp:131] Top shape: 1000 72 32 32 (73728000)
I0504 17:19:20.399092 11494 net.cpp:139] Memory required for data: 307212000
I0504 17:19:20.399103 11494 layer_factory.hpp:77] Creating layer Sigmoid0
I0504 17:19:20.399111 11494 net.cpp:86] Creating Layer Sigmoid0
I0504 17:19:20.399113 11494 net.cpp:408] Sigmoid0 <- conv0
I0504 17:19:20.399118 11494 net.cpp:382] Sigmoid0 -> Sigmoid0
I0504 17:19:20.399354 11494 net.cpp:124] Setting up Sigmoid0
I0504 17:19:20.399377 11494 net.cpp:131] Top shape: 1000 72 32 32 (73728000)
I0504 17:19:20.399381 11494 net.cpp:139] Memory required for data: 602124000
I0504 17:19:20.399384 11494 layer_factory.hpp:77] Creating layer pool0
I0504 17:19:20.399392 11494 net.cpp:86] Creating Layer pool0
I0504 17:19:20.399397 11494 net.cpp:408] pool0 <- Sigmoid0
I0504 17:19:20.399402 11494 net.cpp:382] pool0 -> pool0
I0504 17:19:20.399592 11494 net.cpp:124] Setting up pool0
I0504 17:19:20.399600 11494 net.cpp:131] Top shape: 1000 72 16 16 (18432000)
I0504 17:19:20.399605 11494 net.cpp:139] Memory required for data: 675852000
I0504 17:19:20.399607 11494 layer_factory.hpp:77] Creating layer conv1
I0504 17:19:20.399617 11494 net.cpp:86] Creating Layer conv1
I0504 17:19:20.399621 11494 net.cpp:408] conv1 <- pool0
I0504 17:19:20.399626 11494 net.cpp:382] conv1 -> conv1
I0504 17:19:20.402451 11494 net.cpp:124] Setting up conv1
I0504 17:19:20.402463 11494 net.cpp:131] Top shape: 1000 72 18 18 (23328000)
I0504 17:19:20.402482 11494 net.cpp:139] Memory required for data: 769164000
I0504 17:19:20.402490 11494 layer_factory.hpp:77] Creating layer Sigmoid1
I0504 17:19:20.402496 11494 net.cpp:86] Creating Layer Sigmoid1
I0504 17:19:20.402499 11494 net.cpp:408] Sigmoid1 <- conv1
I0504 17:19:20.402504 11494 net.cpp:382] Sigmoid1 -> Sigmoid1
I0504 17:19:20.402688 11494 net.cpp:124] Setting up Sigmoid1
I0504 17:19:20.402714 11494 net.cpp:131] Top shape: 1000 72 18 18 (23328000)
I0504 17:19:20.402717 11494 net.cpp:139] Memory required for data: 862476000
I0504 17:19:20.402721 11494 layer_factory.hpp:77] Creating layer pool1
I0504 17:19:20.402727 11494 net.cpp:86] Creating Layer pool1
I0504 17:19:20.402730 11494 net.cpp:408] pool1 <- Sigmoid1
I0504 17:19:20.402735 11494 net.cpp:382] pool1 -> pool1
I0504 17:19:20.403544 11494 net.cpp:124] Setting up pool1
I0504 17:19:20.403556 11494 net.cpp:131] Top shape: 1000 72 9 9 (5832000)
I0504 17:19:20.403575 11494 net.cpp:139] Memory required for data: 885804000
I0504 17:19:20.403579 11494 layer_factory.hpp:77] Creating layer ip1
I0504 17:19:20.403589 11494 net.cpp:86] Creating Layer ip1
I0504 17:19:20.403592 11494 net.cpp:408] ip1 <- pool1
I0504 17:19:20.403597 11494 net.cpp:382] ip1 -> ip1
I0504 17:19:20.405618 11494 net.cpp:124] Setting up ip1
I0504 17:19:20.405627 11494 net.cpp:131] Top shape: 1000 10 (10000)
I0504 17:19:20.405647 11494 net.cpp:139] Memory required for data: 885844000
I0504 17:19:20.405655 11494 layer_factory.hpp:77] Creating layer relu1
I0504 17:19:20.405661 11494 net.cpp:86] Creating Layer relu1
I0504 17:19:20.405664 11494 net.cpp:408] relu1 <- ip1
I0504 17:19:20.405669 11494 net.cpp:369] relu1 -> ip1 (in-place)
I0504 17:19:20.405863 11494 net.cpp:124] Setting up relu1
I0504 17:19:20.405870 11494 net.cpp:131] Top shape: 1000 10 (10000)
I0504 17:19:20.405874 11494 net.cpp:139] Memory required for data: 885884000
I0504 17:19:20.405877 11494 layer_factory.hpp:77] Creating layer ip2
I0504 17:19:20.405884 11494 net.cpp:86] Creating Layer ip2
I0504 17:19:20.405887 11494 net.cpp:408] ip2 <- ip1
I0504 17:19:20.405892 11494 net.cpp:382] ip2 -> ip2
I0504 17:19:20.406016 11494 net.cpp:124] Setting up ip2
I0504 17:19:20.406023 11494 net.cpp:131] Top shape: 1000 60 (60000)
I0504 17:19:20.406026 11494 net.cpp:139] Memory required for data: 886124000
I0504 17:19:20.406033 11494 layer_factory.hpp:77] Creating layer relu2
I0504 17:19:20.406038 11494 net.cpp:86] Creating Layer relu2
I0504 17:19:20.406040 11494 net.cpp:408] relu2 <- ip2
I0504 17:19:20.406044 11494 net.cpp:369] relu2 -> ip2 (in-place)
I0504 17:19:20.406220 11494 net.cpp:124] Setting up relu2
I0504 17:19:20.406229 11494 net.cpp:131] Top shape: 1000 60 (60000)
I0504 17:19:20.406232 11494 net.cpp:139] Memory required for data: 886364000
I0504 17:19:20.406235 11494 layer_factory.hpp:77] Creating layer ip3
I0504 17:19:20.406241 11494 net.cpp:86] Creating Layer ip3
I0504 17:19:20.406245 11494 net.cpp:408] ip3 <- ip2
I0504 17:19:20.406250 11494 net.cpp:382] ip3 -> ip3
I0504 17:19:20.406419 11494 net.cpp:124] Setting up ip3
I0504 17:19:20.406427 11494 net.cpp:131] Top shape: 1000 10 (10000)
I0504 17:19:20.406442 11494 net.cpp:139] Memory required for data: 886404000
I0504 17:19:20.406451 11494 layer_factory.hpp:77] Creating layer ip3_ip3_0_split
I0504 17:19:20.406457 11494 net.cpp:86] Creating Layer ip3_ip3_0_split
I0504 17:19:20.406461 11494 net.cpp:408] ip3_ip3_0_split <- ip3
I0504 17:19:20.406466 11494 net.cpp:382] ip3_ip3_0_split -> ip3_ip3_0_split_0
I0504 17:19:20.406471 11494 net.cpp:382] ip3_ip3_0_split -> ip3_ip3_0_split_1
I0504 17:19:20.406507 11494 net.cpp:124] Setting up ip3_ip3_0_split
I0504 17:19:20.406513 11494 net.cpp:131] Top shape: 1000 10 (10000)
I0504 17:19:20.406517 11494 net.cpp:131] Top shape: 1000 10 (10000)
I0504 17:19:20.406520 11494 net.cpp:139] Memory required for data: 886484000
I0504 17:19:20.406523 11494 layer_factory.hpp:77] Creating layer accuracy
I0504 17:19:20.406535 11494 net.cpp:86] Creating Layer accuracy
I0504 17:19:20.406538 11494 net.cpp:408] accuracy <- ip3_ip3_0_split_0
I0504 17:19:20.406543 11494 net.cpp:408] accuracy <- label_cifar_1_split_0
I0504 17:19:20.406548 11494 net.cpp:382] accuracy -> accuracy
…
