…
I0503 23:51:15.759171  4148 net.cpp:296] The NetState phase (0) differed from the phase (1) specified by a rule in layer cifar
I0503 23:51:15.759186  4148 net.cpp:296] The NetState phase (0) differed from the phase (1) specified by a rule in layer accuracy
I0503 23:51:15.759274  4148 net.cpp:53] Initializing net from parameters: 
name: "CIFAR"
state {
  phase: TRAIN
  level: 0
  stage: ""
}
layer {
  name: "cifar"
  type: "Data"
  top: "data"
  top: "label"
  include {
    phase: TRAIN
  }
  transform_param {
    mean_file: "examples/cifar10/mean.binaryproto"
  }
  data_param {
    source: "examples/cifar10/cifar10_train_lmdb"
    batch_size: 111
    backend: LMDB
  }
}
layer {
  name: "conv0"
  type: "Convolution"
  bottom: "data"
  top: "conv0"
  param {
    lr_mult: 1
  }
  param {
    lr_mult: 2
  }
  convolution_param {
    num_output: 24
    pad: 2
    kernel_size: 3
    stride: 1
    weight_filler {
      type: "gaussian"
      std: 0.01
    }
    bias_filler {
      type: "constant"
    }
  }
}
layer {
  name: "Sigmoid0"
  type: "Sigmoid"
  bottom: "conv0"
  top: "Sigmoid0"
}
layer {
  name: "pool0"
  type: "Pooling"
  bottom: "Sigmoid0"
  top: "pool0"
  pooling_param {
    pool: AVE
    kernel_size: 3
    stride: 2
  }
}
layer {
  name: "ip1"
  type: "InnerProduct"
  bottom: "pool0"
  top: "ip1"
  param {
    lr_mult: 1
  }
  param {
    lr_mult: 2
  }
  inner_product_param {
    num_output: 10
    weight_filler {
      type: "gaussian"
      std: 0.01
    }
    bias_filler {
      type: "constant"
    }
  }
}
layer {
  name: "relu1"
  type: "ReLU"
  bottom: "ip1"
  top: "ip1"
}
layer {
  name: "ip2"
  type: "InnerProduct"
  bottom: "ip1"
  top: "ip2"
  param {
    lr_mult: 1
  }
  param {
    lr_mult: 2
  }
  inner_product_param {
    num_output: 10
    weight_filler {
      type: "gaussian"
      std: 0.01
    }
    bias_filler {
      type: "constant"
    }
  }
}
layer {
  name: "relu2"
  type: "ReLU"
  bottom: "ip2"
  top: "ip2"
}
layer {
  name: "ip3"
  type: "InnerProduct"
  bottom: "ip2"
  top: "ip3"
  param {
    lr_mult: 1
  }
  param {
    lr_mult: 2
  }
  inner_product_param {
    num_output: 10
    weight_filler {
      type: "gaussian"
      std: 0.01
    }
    bias_filler {
      type: "constant"
    }
  }
}
layer {
  name: "loss"
  type: "SoftmaxWithLoss"
  bottom: "ip3"
  bottom: "label"
  top: "loss"
}
I0503 23:51:15.759342  4148 layer_factory.hpp:77] Creating layer cifar
I0503 23:51:15.759444  4148 db_lmdb.cpp:35] Opened lmdb examples/cifar10/cifar10_train_lmdb
I0503 23:51:15.759470  4148 net.cpp:86] Creating Layer cifar
I0503 23:51:15.759479  4148 net.cpp:382] cifar -> data
I0503 23:51:15.759501  4148 net.cpp:382] cifar -> label
I0503 23:51:15.759513  4148 data_transformer.cpp:25] Loading mean file from: examples/cifar10/mean.binaryproto
I0503 23:51:15.761684  4148 data_layer.cpp:45] output data size: 111,3,32,32
I0503 23:51:15.769666  4148 net.cpp:124] Setting up cifar
I0503 23:51:15.769685  4148 net.cpp:131] Top shape: 111 3 32 32 (340992)
I0503 23:51:15.769692  4148 net.cpp:131] Top shape: 111 (111)
I0503 23:51:15.769696  4148 net.cpp:139] Memory required for data: 1364412
I0503 23:51:15.769706  4148 layer_factory.hpp:77] Creating layer conv0
I0503 23:51:15.769722  4148 net.cpp:86] Creating Layer conv0
I0503 23:51:15.769728  4148 net.cpp:408] conv0 <- data
I0503 23:51:15.769740  4148 net.cpp:382] conv0 -> conv0
I0503 23:51:16.057471  4148 net.cpp:124] Setting up conv0
I0503 23:51:16.057519  4148 net.cpp:131] Top shape: 111 24 34 34 (3079584)
I0503 23:51:16.057524  4148 net.cpp:139] Memory required for data: 13682748
I0503 23:51:16.057540  4148 layer_factory.hpp:77] Creating layer Sigmoid0
I0503 23:51:16.057554  4148 net.cpp:86] Creating Layer Sigmoid0
I0503 23:51:16.057557  4148 net.cpp:408] Sigmoid0 <- conv0
I0503 23:51:16.057562  4148 net.cpp:382] Sigmoid0 -> Sigmoid0
I0503 23:51:16.057759  4148 net.cpp:124] Setting up Sigmoid0
I0503 23:51:16.057768  4148 net.cpp:131] Top shape: 111 24 34 34 (3079584)
I0503 23:51:16.057772  4148 net.cpp:139] Memory required for data: 26001084
I0503 23:51:16.057775  4148 layer_factory.hpp:77] Creating layer pool0
I0503 23:51:16.057783  4148 net.cpp:86] Creating Layer pool0
I0503 23:51:16.057786  4148 net.cpp:408] pool0 <- Sigmoid0
I0503 23:51:16.057791  4148 net.cpp:382] pool0 -> pool0
I0503 23:51:16.058574  4148 net.cpp:124] Setting up pool0
I0503 23:51:16.058588  4148 net.cpp:131] Top shape: 111 24 17 17 (769896)
I0503 23:51:16.058593  4148 net.cpp:139] Memory required for data: 29080668
I0503 23:51:16.058596  4148 layer_factory.hpp:77] Creating layer ip1
I0503 23:51:16.058605  4148 net.cpp:86] Creating Layer ip1
I0503 23:51:16.058609  4148 net.cpp:408] ip1 <- pool0
I0503 23:51:16.058615  4148 net.cpp:382] ip1 -> ip1
I0503 23:51:16.060732  4148 net.cpp:124] Setting up ip1
I0503 23:51:16.060740  4148 net.cpp:131] Top shape: 111 10 (1110)
I0503 23:51:16.060744  4148 net.cpp:139] Memory required for data: 29085108
I0503 23:51:16.060751  4148 layer_factory.hpp:77] Creating layer relu1
I0503 23:51:16.060757  4148 net.cpp:86] Creating Layer relu1
I0503 23:51:16.060760  4148 net.cpp:408] relu1 <- ip1
I0503 23:51:16.060765  4148 net.cpp:369] relu1 -> ip1 (in-place)
I0503 23:51:16.060935  4148 net.cpp:124] Setting up relu1
I0503 23:51:16.060945  4148 net.cpp:131] Top shape: 111 10 (1110)
I0503 23:51:16.060948  4148 net.cpp:139] Memory required for data: 29089548
I0503 23:51:16.060951  4148 layer_factory.hpp:77] Creating layer ip2
I0503 23:51:16.060958  4148 net.cpp:86] Creating Layer ip2
I0503 23:51:16.060961  4148 net.cpp:408] ip2 <- ip1
I0503 23:51:16.060966  4148 net.cpp:382] ip2 -> ip2
I0503 23:51:16.061064  4148 net.cpp:124] Setting up ip2
I0503 23:51:16.061070  4148 net.cpp:131] Top shape: 111 10 (1110)
I0503 23:51:16.061074  4148 net.cpp:139] Memory required for data: 29093988
I0503 23:51:16.061081  4148 layer_factory.hpp:77] Creating layer relu2
I0503 23:51:16.061087  4148 net.cpp:86] Creating Layer relu2
I0503 23:51:16.061090  4148 net.cpp:408] relu2 <- ip2
I0503 23:51:16.061094  4148 net.cpp:369] relu2 -> ip2 (in-place)
I0503 23:51:16.061254  4148 net.cpp:124] Setting up relu2
I0503 23:51:16.061262  4148 net.cpp:131] Top shape: 111 10 (1110)
I0503 23:51:16.061265  4148 net.cpp:139] Memory required for data: 29098428
I0503 23:51:16.061269  4148 layer_factory.hpp:77] Creating layer ip3
I0503 23:51:16.061276  4148 net.cpp:86] Creating Layer ip3
I0503 23:51:16.061280  4148 net.cpp:408] ip3 <- ip2
I0503 23:51:16.061285  4148 net.cpp:382] ip3 -> ip3
I0503 23:51:16.061373  4148 net.cpp:124] Setting up ip3
I0503 23:51:16.061380  4148 net.cpp:131] Top shape: 111 10 (1110)
I0503 23:51:16.061383  4148 net.cpp:139] Memory required for data: 29102868
I0503 23:51:16.061388  4148 layer_factory.hpp:77] Creating layer loss
I0503 23:51:16.061393  4148 net.cpp:86] Creating Layer loss
I0503 23:51:16.061396  4148 net.cpp:408] loss <- ip3
I0503 23:51:16.061400  4148 net.cpp:408] loss <- label
I0503 23:51:16.061405  4148 net.cpp:382] loss -> loss
I0503 23:51:16.061419  4148 layer_factory.hpp:77] Creating layer loss
…
I0503 23:51:16.062019  4148 solver.cpp:173] Creating test net (#0) specified by net file: ECE595/cifar/train_test/var_everything_tiny/cifar_train_test_3.prototxt
I0503 23:51:16.062046  4148 net.cpp:296] The NetState phase (1) differed from the phase (0) specified by a rule in layer cifar
I0503 23:51:16.062134  4148 net.cpp:53] Initializing net from parameters: 
name: "CIFAR"
state {
  phase: TEST
}
layer {
  name: "cifar"
  type: "Data"
  top: "data"
  top: "label"
  include {
    phase: TEST
  }
  transform_param {
    mean_file: "examples/cifar10/mean.binaryproto"
  }
  data_param {
    source: "examples/cifar10/cifar10_test_lmdb"
    batch_size: 1000
    backend: LMDB
  }
}
layer {
  name: "conv0"
  type: "Convolution"
  bottom: "data"
  top: "conv0"
  param {
    lr_mult: 1
  }
  param {
    lr_mult: 2
  }
  convolution_param {
    num_output: 24
    pad: 2
    kernel_size: 3
    stride: 1
    weight_filler {
      type: "gaussian"
      std: 0.01
    }
    bias_filler {
      type: "constant"
    }
  }
}
layer {
  name: "Sigmoid0"
  type: "Sigmoid"
  bottom: "conv0"
  top: "Sigmoid0"
}
layer {
  name: "pool0"
  type: "Pooling"
  bottom: "Sigmoid0"
  top: "pool0"
  pooling_param {
    pool: AVE
    kernel_size: 3
    stride: 2
  }
}
layer {
  name: "ip1"
  type: "InnerProduct"
  bottom: "pool0"
  top: "ip1"
  param {
    lr_mult: 1
  }
  param {
    lr_mult: 2
  }
  inner_product_param {
    num_output: 10
    weight_filler {
      type: "gaussian"
      std: 0.01
    }
    bias_filler {
      type: "constant"
    }
  }
}
layer {
  name: "relu1"
  type: "ReLU"
  bottom: "ip1"
  top: "ip1"
}
layer {
  name: "ip2"
  type: "InnerProduct"
  bottom: "ip1"
  top: "ip2"
  param {
    lr_mult: 1
  }
  param {
    lr_mult: 2
  }
  inner_product_param {
    num_output: 10
    weight_filler {
      type: "gaussian"
      std: 0.01
    }
    bias_filler {
      type: "constant"
    }
  }
}
layer {
  name: "relu2"
  type: "ReLU"
  bottom: "ip2"
  top: "ip2"
}
layer {
  name: "ip3"
  type: "InnerProduct"
  bottom: "ip2"
  top: "ip3"
  param {
    lr_mult: 1
  }
  param {
    lr_mult: 2
  }
  inner_product_param {
    num_output: 10
    weight_filler {
      type: "gaussian"
      std: 0.01
    }
    bias_filler {
      type: "constant"
    }
  }
}
layer {
  name: "accuracy"
  type: "Accuracy"
  bottom: "ip3"
  bottom: "label"
  top: "accuracy"
  include {
    phase: TEST
  }
}
layer {
  name: "loss"
  type: "SoftmaxWithLoss"
  bottom: "ip3"
  bottom: "label"
  top: "loss"
}
I0503 23:51:16.062198  4148 layer_factory.hpp:77] Creating layer cifar
I0503 23:51:16.062247  4148 db_lmdb.cpp:35] Opened lmdb examples/cifar10/cifar10_test_lmdb
I0503 23:51:16.062259  4148 net.cpp:86] Creating Layer cifar
I0503 23:51:16.062264  4148 net.cpp:382] cifar -> data
I0503 23:51:16.062273  4148 net.cpp:382] cifar -> label
I0503 23:51:16.062278  4148 data_transformer.cpp:25] Loading mean file from: examples/cifar10/mean.binaryproto
I0503 23:51:16.062423  4148 data_layer.cpp:45] output data size: 1000,3,32,32
I0503 23:51:16.085019  4148 net.cpp:124] Setting up cifar
I0503 23:51:16.085045  4148 net.cpp:131] Top shape: 1000 3 32 32 (3072000)
I0503 23:51:16.085052  4148 net.cpp:131] Top shape: 1000 (1000)
I0503 23:51:16.085055  4148 net.cpp:139] Memory required for data: 12292000
I0503 23:51:16.085060  4148 layer_factory.hpp:77] Creating layer label_cifar_1_split
I0503 23:51:16.085073  4148 net.cpp:86] Creating Layer label_cifar_1_split
I0503 23:51:16.085094  4148 net.cpp:408] label_cifar_1_split <- label
I0503 23:51:16.085100  4148 net.cpp:382] label_cifar_1_split -> label_cifar_1_split_0
I0503 23:51:16.085109  4148 net.cpp:382] label_cifar_1_split -> label_cifar_1_split_1
I0503 23:51:16.085163  4148 net.cpp:124] Setting up label_cifar_1_split
I0503 23:51:16.085171  4148 net.cpp:131] Top shape: 1000 (1000)
I0503 23:51:16.085175  4148 net.cpp:131] Top shape: 1000 (1000)
I0503 23:51:16.085192  4148 net.cpp:139] Memory required for data: 12300000
I0503 23:51:16.085196  4148 layer_factory.hpp:77] Creating layer conv0
I0503 23:51:16.085207  4148 net.cpp:86] Creating Layer conv0
I0503 23:51:16.085211  4148 net.cpp:408] conv0 <- data
I0503 23:51:16.085216  4148 net.cpp:382] conv0 -> conv0
I0503 23:51:16.086634  4148 net.cpp:124] Setting up conv0
I0503 23:51:16.086648  4148 net.cpp:131] Top shape: 1000 24 34 34 (27744000)
I0503 23:51:16.086652  4148 net.cpp:139] Memory required for data: 123276000
I0503 23:51:16.086663  4148 layer_factory.hpp:77] Creating layer Sigmoid0
I0503 23:51:16.086668  4148 net.cpp:86] Creating Layer Sigmoid0
I0503 23:51:16.086673  4148 net.cpp:408] Sigmoid0 <- conv0
I0503 23:51:16.086676  4148 net.cpp:382] Sigmoid0 -> Sigmoid0
I0503 23:51:16.087481  4148 net.cpp:124] Setting up Sigmoid0
I0503 23:51:16.087493  4148 net.cpp:131] Top shape: 1000 24 34 34 (27744000)
I0503 23:51:16.087496  4148 net.cpp:139] Memory required for data: 234252000
I0503 23:51:16.087501  4148 layer_factory.hpp:77] Creating layer pool0
I0503 23:51:16.087509  4148 net.cpp:86] Creating Layer pool0
I0503 23:51:16.087512  4148 net.cpp:408] pool0 <- Sigmoid0
I0503 23:51:16.087517  4148 net.cpp:382] pool0 -> pool0
I0503 23:51:16.087771  4148 net.cpp:124] Setting up pool0
I0503 23:51:16.087779  4148 net.cpp:131] Top shape: 1000 24 17 17 (6936000)
I0503 23:51:16.087783  4148 net.cpp:139] Memory required for data: 261996000
I0503 23:51:16.087786  4148 layer_factory.hpp:77] Creating layer ip1
I0503 23:51:16.087793  4148 net.cpp:86] Creating Layer ip1
I0503 23:51:16.087797  4148 net.cpp:408] ip1 <- pool0
I0503 23:51:16.087802  4148 net.cpp:382] ip1 -> ip1
I0503 23:51:16.090711  4148 net.cpp:124] Setting up ip1
I0503 23:51:16.090721  4148 net.cpp:131] Top shape: 1000 10 (10000)
I0503 23:51:16.090724  4148 net.cpp:139] Memory required for data: 262036000
I0503 23:51:16.090733  4148 layer_factory.hpp:77] Creating layer relu1
I0503 23:51:16.090739  4148 net.cpp:86] Creating Layer relu1
I0503 23:51:16.090742  4148 net.cpp:408] relu1 <- ip1
I0503 23:51:16.090746  4148 net.cpp:369] relu1 -> ip1 (in-place)
I0503 23:51:16.090899  4148 net.cpp:124] Setting up relu1
I0503 23:51:16.090908  4148 net.cpp:131] Top shape: 1000 10 (10000)
I0503 23:51:16.090911  4148 net.cpp:139] Memory required for data: 262076000
I0503 23:51:16.090914  4148 layer_factory.hpp:77] Creating layer ip2
I0503 23:51:16.090920  4148 net.cpp:86] Creating Layer ip2
I0503 23:51:16.090924  4148 net.cpp:408] ip2 <- ip1
I0503 23:51:16.090929  4148 net.cpp:382] ip2 -> ip2
I0503 23:51:16.091030  4148 net.cpp:124] Setting up ip2
I0503 23:51:16.091038  4148 net.cpp:131] Top shape: 1000 10 (10000)
I0503 23:51:16.091042  4148 net.cpp:139] Memory required for data: 262116000
I0503 23:51:16.091048  4148 layer_factory.hpp:77] Creating layer relu2
I0503 23:51:16.091054  4148 net.cpp:86] Creating Layer relu2
I0503 23:51:16.091058  4148 net.cpp:408] relu2 <- ip2
I0503 23:51:16.091061  4148 net.cpp:369] relu2 -> ip2 (in-place)
I0503 23:51:16.091207  4148 net.cpp:124] Setting up relu2
I0503 23:51:16.091215  4148 net.cpp:131] Top shape: 1000 10 (10000)
I0503 23:51:16.091218  4148 net.cpp:139] Memory required for data: 262156000
I0503 23:51:16.091222  4148 layer_factory.hpp:77] Creating layer ip3
I0503 23:51:16.091228  4148 net.cpp:86] Creating Layer ip3
I0503 23:51:16.091230  4148 net.cpp:408] ip3 <- ip2
I0503 23:51:16.091235  4148 net.cpp:382] ip3 -> ip3
I0503 23:51:16.091331  4148 net.cpp:124] Setting up ip3
I0503 23:51:16.091336  4148 net.cpp:131] Top shape: 1000 10 (10000)
I0503 23:51:16.091351  4148 net.cpp:139] Memory required for data: 262196000
I0503 23:51:16.091356  4148 layer_factory.hpp:77] Creating layer ip3_ip3_0_split
I0503 23:51:16.091361  4148 net.cpp:86] Creating Layer ip3_ip3_0_split
I0503 23:51:16.091364  4148 net.cpp:408] ip3_ip3_0_split <- ip3
I0503 23:51:16.091369  4148 net.cpp:382] ip3_ip3_0_split -> ip3_ip3_0_split_0
I0503 23:51:16.091377  4148 net.cpp:382] ip3_ip3_0_split -> ip3_ip3_0_split_1
I0503 23:51:16.091408  4148 net.cpp:124] Setting up ip3_ip3_0_split
I0503 23:51:16.091411  4148 net.cpp:131] Top shape: 1000 10 (10000)
I0503 23:51:16.091415  4148 net.cpp:131] Top shape: 1000 10 (10000)
I0503 23:51:16.091418  4148 net.cpp:139] Memory required for data: 262276000
I0503 23:51:16.091421  4148 layer_factory.hpp:77] Creating layer accuracy
I0503 23:51:16.091426  4148 net.cpp:86] Creating Layer accuracy
I0503 23:51:16.091429  4148 net.cpp:408] accuracy <- ip3_ip3_0_split_0
I0503 23:51:16.091434  4148 net.cpp:408] accuracy <- label_cifar_1_split_0
I0503 23:51:16.091439  4148 net.cpp:382] accuracy -> accuracy
…
