…
I0503 23:56:01.885318  4311 net.cpp:296] The NetState phase (0) differed from the phase (1) specified by a rule in layer cifar
I0503 23:56:01.885335  4311 net.cpp:296] The NetState phase (0) differed from the phase (1) specified by a rule in layer accuracy
I0503 23:56:01.885427  4311 net.cpp:53] Initializing net from parameters: 
name: "CIFAR"
state {
  phase: TRAIN
  level: 0
  stage: ""
}
layer {
  name: "cifar"
  type: "Data"
  top: "data"
  top: "label"
  include {
    phase: TRAIN
  }
  transform_param {
    mean_file: "examples/cifar10/mean.binaryproto"
  }
  data_param {
    source: "examples/cifar10/cifar10_train_lmdb"
    batch_size: 111
    backend: LMDB
  }
}
layer {
  name: "conv0"
  type: "Convolution"
  bottom: "data"
  top: "conv0"
  param {
    lr_mult: 1
  }
  param {
    lr_mult: 2
  }
  convolution_param {
    num_output: 24
    pad: 2
    kernel_size: 3
    stride: 1
    weight_filler {
      type: "gaussian"
      std: 0.01
    }
    bias_filler {
      type: "constant"
    }
  }
}
layer {
  name: "Sigmoid0"
  type: "Sigmoid"
  bottom: "conv0"
  top: "Sigmoid0"
}
layer {
  name: "pool0"
  type: "Pooling"
  bottom: "Sigmoid0"
  top: "pool0"
  pooling_param {
    pool: AVE
    kernel_size: 3
    stride: 2
  }
}
layer {
  name: "ip1"
  type: "InnerProduct"
  bottom: "pool0"
  top: "ip1"
  param {
    lr_mult: 1
  }
  param {
    lr_mult: 2
  }
  inner_product_param {
    num_output: 10
    weight_filler {
      type: "gaussian"
      std: 0.01
    }
    bias_filler {
      type: "constant"
    }
  }
}
layer {
  name: "relu1"
  type: "ReLU"
  bottom: "ip1"
  top: "ip1"
}
layer {
  name: "ip2"
  type: "InnerProduct"
  bottom: "ip1"
  top: "ip2"
  param {
    lr_mult: 1
  }
  param {
    lr_mult: 2
  }
  inner_product_param {
    num_output: 180
    weight_filler {
      type: "gaussian"
      std: 0.01
    }
    bias_filler {
      type: "constant"
    }
  }
}
layer {
  name: "relu2"
  type: "ReLU"
  bottom: "ip2"
  top: "ip2"
}
layer {
  name: "ip3"
  type: "InnerProduct"
  bottom: "ip2"
  top: "ip3"
  param {
    lr_mult: 1
  }
  param {
    lr_mult: 2
  }
  inner_product_param {
    num_output: 10
    weight_filler {
      type: "gaussian"
      std: 0.01
    }
    bias_filler {
      type: "constant"
    }
  }
}
layer {
  name: "loss"
  type: "SoftmaxWithLoss"
  bottom: "ip3"
  bottom: "label"
  top: "loss"
}
I0503 23:56:01.885502  4311 layer_factory.hpp:77] Creating layer cifar
I0503 23:56:01.885603  4311 db_lmdb.cpp:35] Opened lmdb examples/cifar10/cifar10_train_lmdb
I0503 23:56:01.885633  4311 net.cpp:86] Creating Layer cifar
I0503 23:56:01.885644  4311 net.cpp:382] cifar -> data
I0503 23:56:01.885666  4311 net.cpp:382] cifar -> label
I0503 23:56:01.885680  4311 data_transformer.cpp:25] Loading mean file from: examples/cifar10/mean.binaryproto
I0503 23:56:01.887796  4311 data_layer.cpp:45] output data size: 111,3,32,32
I0503 23:56:01.895673  4311 net.cpp:124] Setting up cifar
I0503 23:56:01.895692  4311 net.cpp:131] Top shape: 111 3 32 32 (340992)
I0503 23:56:01.895699  4311 net.cpp:131] Top shape: 111 (111)
I0503 23:56:01.895702  4311 net.cpp:139] Memory required for data: 1364412
I0503 23:56:01.895710  4311 layer_factory.hpp:77] Creating layer conv0
I0503 23:56:01.895756  4311 net.cpp:86] Creating Layer conv0
I0503 23:56:01.895764  4311 net.cpp:408] conv0 <- data
I0503 23:56:01.895778  4311 net.cpp:382] conv0 -> conv0
I0503 23:56:02.187908  4311 net.cpp:124] Setting up conv0
I0503 23:56:02.187959  4311 net.cpp:131] Top shape: 111 24 34 34 (3079584)
I0503 23:56:02.187964  4311 net.cpp:139] Memory required for data: 13682748
I0503 23:56:02.187981  4311 layer_factory.hpp:77] Creating layer Sigmoid0
I0503 23:56:02.187994  4311 net.cpp:86] Creating Layer Sigmoid0
I0503 23:56:02.188001  4311 net.cpp:408] Sigmoid0 <- conv0
I0503 23:56:02.188007  4311 net.cpp:382] Sigmoid0 -> Sigmoid0
I0503 23:56:02.188220  4311 net.cpp:124] Setting up Sigmoid0
I0503 23:56:02.188231  4311 net.cpp:131] Top shape: 111 24 34 34 (3079584)
I0503 23:56:02.188235  4311 net.cpp:139] Memory required for data: 26001084
I0503 23:56:02.188240  4311 layer_factory.hpp:77] Creating layer pool0
I0503 23:56:02.188247  4311 net.cpp:86] Creating Layer pool0
I0503 23:56:02.188251  4311 net.cpp:408] pool0 <- Sigmoid0
I0503 23:56:02.188256  4311 net.cpp:382] pool0 -> pool0
I0503 23:56:02.189115  4311 net.cpp:124] Setting up pool0
I0503 23:56:02.189131  4311 net.cpp:131] Top shape: 111 24 17 17 (769896)
I0503 23:56:02.189134  4311 net.cpp:139] Memory required for data: 29080668
I0503 23:56:02.189138  4311 layer_factory.hpp:77] Creating layer ip1
I0503 23:56:02.189151  4311 net.cpp:86] Creating Layer ip1
I0503 23:56:02.189154  4311 net.cpp:408] ip1 <- pool0
I0503 23:56:02.189162  4311 net.cpp:382] ip1 -> ip1
I0503 23:56:02.191462  4311 net.cpp:124] Setting up ip1
I0503 23:56:02.191471  4311 net.cpp:131] Top shape: 111 10 (1110)
I0503 23:56:02.191475  4311 net.cpp:139] Memory required for data: 29085108
I0503 23:56:02.191484  4311 layer_factory.hpp:77] Creating layer relu1
I0503 23:56:02.191491  4311 net.cpp:86] Creating Layer relu1
I0503 23:56:02.191495  4311 net.cpp:408] relu1 <- ip1
I0503 23:56:02.191500  4311 net.cpp:369] relu1 -> ip1 (in-place)
I0503 23:56:02.191705  4311 net.cpp:124] Setting up relu1
I0503 23:56:02.191715  4311 net.cpp:131] Top shape: 111 10 (1110)
I0503 23:56:02.191720  4311 net.cpp:139] Memory required for data: 29089548
I0503 23:56:02.191723  4311 layer_factory.hpp:77] Creating layer ip2
I0503 23:56:02.191731  4311 net.cpp:86] Creating Layer ip2
I0503 23:56:02.191735  4311 net.cpp:408] ip2 <- ip1
I0503 23:56:02.191740  4311 net.cpp:382] ip2 -> ip2
I0503 23:56:02.191910  4311 net.cpp:124] Setting up ip2
I0503 23:56:02.191918  4311 net.cpp:131] Top shape: 111 180 (19980)
I0503 23:56:02.191921  4311 net.cpp:139] Memory required for data: 29169468
I0503 23:56:02.191931  4311 layer_factory.hpp:77] Creating layer relu2
I0503 23:56:02.191937  4311 net.cpp:86] Creating Layer relu2
I0503 23:56:02.191941  4311 net.cpp:408] relu2 <- ip2
I0503 23:56:02.191946  4311 net.cpp:369] relu2 -> ip2 (in-place)
I0503 23:56:02.192129  4311 net.cpp:124] Setting up relu2
I0503 23:56:02.192138  4311 net.cpp:131] Top shape: 111 180 (19980)
I0503 23:56:02.192142  4311 net.cpp:139] Memory required for data: 29249388
I0503 23:56:02.192145  4311 layer_factory.hpp:77] Creating layer ip3
I0503 23:56:02.192153  4311 net.cpp:86] Creating Layer ip3
I0503 23:56:02.192157  4311 net.cpp:408] ip3 <- ip2
I0503 23:56:02.192163  4311 net.cpp:382] ip3 -> ip3
I0503 23:56:02.192328  4311 net.cpp:124] Setting up ip3
I0503 23:56:02.192337  4311 net.cpp:131] Top shape: 111 10 (1110)
I0503 23:56:02.192340  4311 net.cpp:139] Memory required for data: 29253828
I0503 23:56:02.192347  4311 layer_factory.hpp:77] Creating layer loss
I0503 23:56:02.192353  4311 net.cpp:86] Creating Layer loss
I0503 23:56:02.192355  4311 net.cpp:408] loss <- ip3
I0503 23:56:02.192359  4311 net.cpp:408] loss <- label
I0503 23:56:02.192366  4311 net.cpp:382] loss -> loss
I0503 23:56:02.192386  4311 layer_factory.hpp:77] Creating layer loss
…
I0503 23:56:02.193094  4311 solver.cpp:173] Creating test net (#0) specified by net file: ECE595/cifar/train_test/var_everything_tiny/cifar_train_test_5.prototxt
I0503 23:56:02.193123  4311 net.cpp:296] The NetState phase (1) differed from the phase (0) specified by a rule in layer cifar
I0503 23:56:02.193222  4311 net.cpp:53] Initializing net from parameters: 
name: "CIFAR"
state {
  phase: TEST
}
layer {
  name: "cifar"
  type: "Data"
  top: "data"
  top: "label"
  include {
    phase: TEST
  }
  transform_param {
    mean_file: "examples/cifar10/mean.binaryproto"
  }
  data_param {
    source: "examples/cifar10/cifar10_test_lmdb"
    batch_size: 1000
    backend: LMDB
  }
}
layer {
  name: "conv0"
  type: "Convolution"
  bottom: "data"
  top: "conv0"
  param {
    lr_mult: 1
  }
  param {
    lr_mult: 2
  }
  convolution_param {
    num_output: 24
    pad: 2
    kernel_size: 3
    stride: 1
    weight_filler {
      type: "gaussian"
      std: 0.01
    }
    bias_filler {
      type: "constant"
    }
  }
}
layer {
  name: "Sigmoid0"
  type: "Sigmoid"
  bottom: "conv0"
  top: "Sigmoid0"
}
layer {
  name: "pool0"
  type: "Pooling"
  bottom: "Sigmoid0"
  top: "pool0"
  pooling_param {
    pool: AVE
    kernel_size: 3
    stride: 2
  }
}
layer {
  name: "ip1"
  type: "InnerProduct"
  bottom: "pool0"
  top: "ip1"
  param {
    lr_mult: 1
  }
  param {
    lr_mult: 2
  }
  inner_product_param {
    num_output: 10
    weight_filler {
      type: "gaussian"
      std: 0.01
    }
    bias_filler {
      type: "constant"
    }
  }
}
layer {
  name: "relu1"
  type: "ReLU"
  bottom: "ip1"
  top: "ip1"
}
layer {
  name: "ip2"
  type: "InnerProduct"
  bottom: "ip1"
  top: "ip2"
  param {
    lr_mult: 1
  }
  param {
    lr_mult: 2
  }
  inner_product_param {
    num_output: 180
    weight_filler {
      type: "gaussian"
      std: 0.01
    }
    bias_filler {
      type: "constant"
    }
  }
}
layer {
  name: "relu2"
  type: "ReLU"
  bottom: "ip2"
  top: "ip2"
}
layer {
  name: "ip3"
  type: "InnerProduct"
  bottom: "ip2"
  top: "ip3"
  param {
    lr_mult: 1
  }
  param {
    lr_mult: 2
  }
  inner_product_param {
    num_output: 10
    weight_filler {
      type: "gaussian"
      std: 0.01
    }
    bias_filler {
      type: "constant"
    }
  }
}
layer {
  name: "accuracy"
  type: "Accuracy"
  bottom: "ip3"
  bottom: "label"
  top: "accuracy"
  include {
    phase: TEST
  }
}
layer {
  name: "loss"
  type: "SoftmaxWithLoss"
  bottom: "ip3"
  bottom: "label"
  top: "loss"
}
I0503 23:56:02.193300  4311 layer_factory.hpp:77] Creating layer cifar
I0503 23:56:02.193352  4311 db_lmdb.cpp:35] Opened lmdb examples/cifar10/cifar10_test_lmdb
I0503 23:56:02.193367  4311 net.cpp:86] Creating Layer cifar
I0503 23:56:02.193373  4311 net.cpp:382] cifar -> data
I0503 23:56:02.193382  4311 net.cpp:382] cifar -> label
I0503 23:56:02.193389  4311 data_transformer.cpp:25] Loading mean file from: examples/cifar10/mean.binaryproto
I0503 23:56:02.193560  4311 data_layer.cpp:45] output data size: 1000,3,32,32
I0503 23:56:02.217605  4311 net.cpp:124] Setting up cifar
I0503 23:56:02.217633  4311 net.cpp:131] Top shape: 1000 3 32 32 (3072000)
I0503 23:56:02.217639  4311 net.cpp:131] Top shape: 1000 (1000)
I0503 23:56:02.217643  4311 net.cpp:139] Memory required for data: 12292000
I0503 23:56:02.217648  4311 layer_factory.hpp:77] Creating layer label_cifar_1_split
I0503 23:56:02.217682  4311 net.cpp:86] Creating Layer label_cifar_1_split
I0503 23:56:02.217687  4311 net.cpp:408] label_cifar_1_split <- label
I0503 23:56:02.217695  4311 net.cpp:382] label_cifar_1_split -> label_cifar_1_split_0
I0503 23:56:02.217705  4311 net.cpp:382] label_cifar_1_split -> label_cifar_1_split_1
I0503 23:56:02.217806  4311 net.cpp:124] Setting up label_cifar_1_split
I0503 23:56:02.217816  4311 net.cpp:131] Top shape: 1000 (1000)
I0503 23:56:02.217820  4311 net.cpp:131] Top shape: 1000 (1000)
I0503 23:56:02.217823  4311 net.cpp:139] Memory required for data: 12300000
I0503 23:56:02.217826  4311 layer_factory.hpp:77] Creating layer conv0
I0503 23:56:02.217839  4311 net.cpp:86] Creating Layer conv0
I0503 23:56:02.217844  4311 net.cpp:408] conv0 <- data
I0503 23:56:02.217850  4311 net.cpp:382] conv0 -> conv0
I0503 23:56:02.219532  4311 net.cpp:124] Setting up conv0
I0503 23:56:02.219547  4311 net.cpp:131] Top shape: 1000 24 34 34 (27744000)
I0503 23:56:02.219549  4311 net.cpp:139] Memory required for data: 123276000
I0503 23:56:02.219560  4311 layer_factory.hpp:77] Creating layer Sigmoid0
I0503 23:56:02.219568  4311 net.cpp:86] Creating Layer Sigmoid0
I0503 23:56:02.219571  4311 net.cpp:408] Sigmoid0 <- conv0
I0503 23:56:02.219578  4311 net.cpp:382] Sigmoid0 -> Sigmoid0
I0503 23:56:02.220479  4311 net.cpp:124] Setting up Sigmoid0
I0503 23:56:02.220492  4311 net.cpp:131] Top shape: 1000 24 34 34 (27744000)
I0503 23:56:02.220496  4311 net.cpp:139] Memory required for data: 234252000
I0503 23:56:02.220500  4311 layer_factory.hpp:77] Creating layer pool0
I0503 23:56:02.220510  4311 net.cpp:86] Creating Layer pool0
I0503 23:56:02.220513  4311 net.cpp:408] pool0 <- Sigmoid0
I0503 23:56:02.220518  4311 net.cpp:382] pool0 -> pool0
I0503 23:56:02.221658  4311 net.cpp:124] Setting up pool0
I0503 23:56:02.221669  4311 net.cpp:131] Top shape: 1000 24 17 17 (6936000)
I0503 23:56:02.221673  4311 net.cpp:139] Memory required for data: 261996000
I0503 23:56:02.221676  4311 layer_factory.hpp:77] Creating layer ip1
I0503 23:56:02.221684  4311 net.cpp:86] Creating Layer ip1
I0503 23:56:02.221689  4311 net.cpp:408] ip1 <- pool0
I0503 23:56:02.221694  4311 net.cpp:382] ip1 -> ip1
I0503 23:56:02.223837  4311 net.cpp:124] Setting up ip1
I0503 23:56:02.223845  4311 net.cpp:131] Top shape: 1000 10 (10000)
I0503 23:56:02.223848  4311 net.cpp:139] Memory required for data: 262036000
I0503 23:56:02.223856  4311 layer_factory.hpp:77] Creating layer relu1
I0503 23:56:02.223863  4311 net.cpp:86] Creating Layer relu1
I0503 23:56:02.223866  4311 net.cpp:408] relu1 <- ip1
I0503 23:56:02.223871  4311 net.cpp:369] relu1 -> ip1 (in-place)
I0503 23:56:02.224041  4311 net.cpp:124] Setting up relu1
I0503 23:56:02.224050  4311 net.cpp:131] Top shape: 1000 10 (10000)
I0503 23:56:02.224053  4311 net.cpp:139] Memory required for data: 262076000
I0503 23:56:02.224056  4311 layer_factory.hpp:77] Creating layer ip2
I0503 23:56:02.224066  4311 net.cpp:86] Creating Layer ip2
I0503 23:56:02.224068  4311 net.cpp:408] ip2 <- ip1
I0503 23:56:02.224073  4311 net.cpp:382] ip2 -> ip2
I0503 23:56:02.224238  4311 net.cpp:124] Setting up ip2
I0503 23:56:02.224246  4311 net.cpp:131] Top shape: 1000 180 (180000)
I0503 23:56:02.224249  4311 net.cpp:139] Memory required for data: 262796000
I0503 23:56:02.224256  4311 layer_factory.hpp:77] Creating layer relu2
I0503 23:56:02.224263  4311 net.cpp:86] Creating Layer relu2
I0503 23:56:02.224267  4311 net.cpp:408] relu2 <- ip2
I0503 23:56:02.224272  4311 net.cpp:369] relu2 -> ip2 (in-place)
I0503 23:56:02.224445  4311 net.cpp:124] Setting up relu2
I0503 23:56:02.224455  4311 net.cpp:131] Top shape: 1000 180 (180000)
I0503 23:56:02.224459  4311 net.cpp:139] Memory required for data: 263516000
I0503 23:56:02.224463  4311 layer_factory.hpp:77] Creating layer ip3
I0503 23:56:02.224470  4311 net.cpp:86] Creating Layer ip3
I0503 23:56:02.224473  4311 net.cpp:408] ip3 <- ip2
I0503 23:56:02.224479  4311 net.cpp:382] ip3 -> ip3
I0503 23:56:02.224639  4311 net.cpp:124] Setting up ip3
I0503 23:56:02.224647  4311 net.cpp:131] Top shape: 1000 10 (10000)
I0503 23:56:02.224661  4311 net.cpp:139] Memory required for data: 263556000
I0503 23:56:02.224668  4311 layer_factory.hpp:77] Creating layer ip3_ip3_0_split
I0503 23:56:02.224674  4311 net.cpp:86] Creating Layer ip3_ip3_0_split
I0503 23:56:02.224678  4311 net.cpp:408] ip3_ip3_0_split <- ip3
I0503 23:56:02.224684  4311 net.cpp:382] ip3_ip3_0_split -> ip3_ip3_0_split_0
I0503 23:56:02.224689  4311 net.cpp:382] ip3_ip3_0_split -> ip3_ip3_0_split_1
I0503 23:56:02.224725  4311 net.cpp:124] Setting up ip3_ip3_0_split
I0503 23:56:02.224730  4311 net.cpp:131] Top shape: 1000 10 (10000)
I0503 23:56:02.224733  4311 net.cpp:131] Top shape: 1000 10 (10000)
I0503 23:56:02.224736  4311 net.cpp:139] Memory required for data: 263636000
I0503 23:56:02.224740  4311 layer_factory.hpp:77] Creating layer accuracy
I0503 23:56:02.224746  4311 net.cpp:86] Creating Layer accuracy
I0503 23:56:02.224750  4311 net.cpp:408] accuracy <- ip3_ip3_0_split_0
I0503 23:56:02.224753  4311 net.cpp:408] accuracy <- label_cifar_1_split_0
I0503 23:56:02.224758  4311 net.cpp:382] accuracy -> accuracy
…
