…
I0504 04:10:00.314044 11860 net.cpp:296] The NetState phase (0) differed from the phase (1) specified by a rule in layer cifar
I0504 04:10:00.314065 11860 net.cpp:296] The NetState phase (0) differed from the phase (1) specified by a rule in layer accuracy
I0504 04:10:00.314169 11860 net.cpp:53] Initializing net from parameters: 
name: "CIFAR"
state {
  phase: TRAIN
  level: 0
  stage: ""
}
layer {
  name: "cifar"
  type: "Data"
  top: "data"
  top: "label"
  include {
    phase: TRAIN
  }
  transform_param {
    mean_file: "examples/cifar10/mean.binaryproto"
  }
  data_param {
    source: "examples/cifar10/cifar10_train_lmdb"
    batch_size: 111
    backend: LMDB
  }
}
layer {
  name: "conv0"
  type: "Convolution"
  bottom: "data"
  top: "conv0"
  param {
    lr_mult: 1
  }
  param {
    lr_mult: 2
  }
  convolution_param {
    num_output: 216
    pad: 2
    kernel_size: 3
    stride: 1
    weight_filler {
      type: "gaussian"
      std: 0.01
    }
    bias_filler {
      type: "constant"
    }
  }
}
layer {
  name: "Sigmoid0"
  type: "Sigmoid"
  bottom: "conv0"
  top: "Sigmoid0"
}
layer {
  name: "pool0"
  type: "Pooling"
  bottom: "Sigmoid0"
  top: "pool0"
  pooling_param {
    pool: AVE
    kernel_size: 3
    stride: 2
  }
}
layer {
  name: "ip1"
  type: "InnerProduct"
  bottom: "pool0"
  top: "ip1"
  param {
    lr_mult: 1
  }
  param {
    lr_mult: 2
  }
  inner_product_param {
    num_output: 60
    weight_filler {
      type: "gaussian"
      std: 0.01
    }
    bias_filler {
      type: "constant"
    }
  }
}
layer {
  name: "relu1"
  type: "ReLU"
  bottom: "ip1"
  top: "ip1"
}
layer {
  name: "ip2"
  type: "InnerProduct"
  bottom: "ip1"
  top: "ip2"
  param {
    lr_mult: 1
  }
  param {
    lr_mult: 2
  }
  inner_product_param {
    num_output: 180
    weight_filler {
      type: "gaussian"
      std: 0.01
    }
    bias_filler {
      type: "constant"
    }
  }
}
layer {
  name: "relu2"
  type: "ReLU"
  bottom: "ip2"
  top: "ip2"
}
layer {
  name: "ip3"
  type: "InnerProduct"
  bottom: "ip2"
  top: "ip3"
  param {
    lr_mult: 1
  }
  param {
    lr_mult: 2
  }
  inner_product_param {
    num_output: 10
    weight_filler {
      type: "gaussian"
      std: 0.01
    }
    bias_filler {
      type: "constant"
    }
  }
}
layer {
  name: "loss"
  type: "SoftmaxWithLoss"
  bottom: "ip3"
  bottom: "label"
  top: "loss"
}
I0504 04:10:00.314246 11860 layer_factory.hpp:77] Creating layer cifar
I0504 04:10:00.314352 11860 db_lmdb.cpp:35] Opened lmdb examples/cifar10/cifar10_train_lmdb
I0504 04:10:00.314381 11860 net.cpp:86] Creating Layer cifar
I0504 04:10:00.314393 11860 net.cpp:382] cifar -> data
I0504 04:10:00.314414 11860 net.cpp:382] cifar -> label
I0504 04:10:00.314429 11860 data_transformer.cpp:25] Loading mean file from: examples/cifar10/mean.binaryproto
I0504 04:10:00.316541 11860 data_layer.cpp:45] output data size: 111,3,32,32
I0504 04:10:00.324414 11860 net.cpp:124] Setting up cifar
I0504 04:10:00.324431 11860 net.cpp:131] Top shape: 111 3 32 32 (340992)
I0504 04:10:00.324437 11860 net.cpp:131] Top shape: 111 (111)
I0504 04:10:00.324441 11860 net.cpp:139] Memory required for data: 1364412
I0504 04:10:00.324448 11860 layer_factory.hpp:77] Creating layer conv0
I0504 04:10:00.324468 11860 net.cpp:86] Creating Layer conv0
I0504 04:10:00.324475 11860 net.cpp:408] conv0 <- data
I0504 04:10:00.324487 11860 net.cpp:382] conv0 -> conv0
I0504 04:10:00.614745 11860 net.cpp:124] Setting up conv0
I0504 04:10:00.614792 11860 net.cpp:131] Top shape: 111 216 34 34 (27716256)
I0504 04:10:00.614797 11860 net.cpp:139] Memory required for data: 112229436
I0504 04:10:00.614814 11860 layer_factory.hpp:77] Creating layer Sigmoid0
I0504 04:10:00.614826 11860 net.cpp:86] Creating Layer Sigmoid0
I0504 04:10:00.614831 11860 net.cpp:408] Sigmoid0 <- conv0
I0504 04:10:00.614836 11860 net.cpp:382] Sigmoid0 -> Sigmoid0
I0504 04:10:00.615036 11860 net.cpp:124] Setting up Sigmoid0
I0504 04:10:00.615046 11860 net.cpp:131] Top shape: 111 216 34 34 (27716256)
I0504 04:10:00.615049 11860 net.cpp:139] Memory required for data: 223094460
I0504 04:10:00.615052 11860 layer_factory.hpp:77] Creating layer pool0
I0504 04:10:00.615061 11860 net.cpp:86] Creating Layer pool0
I0504 04:10:00.615063 11860 net.cpp:408] pool0 <- Sigmoid0
I0504 04:10:00.615069 11860 net.cpp:382] pool0 -> pool0
I0504 04:10:00.615877 11860 net.cpp:124] Setting up pool0
I0504 04:10:00.615891 11860 net.cpp:131] Top shape: 111 216 17 17 (6929064)
I0504 04:10:00.615895 11860 net.cpp:139] Memory required for data: 250810716
I0504 04:10:00.615900 11860 layer_factory.hpp:77] Creating layer ip1
I0504 04:10:00.615909 11860 net.cpp:86] Creating Layer ip1
I0504 04:10:00.615913 11860 net.cpp:408] ip1 <- pool0
I0504 04:10:00.615918 11860 net.cpp:382] ip1 -> ip1
I0504 04:10:00.718590 11860 net.cpp:124] Setting up ip1
I0504 04:10:00.718626 11860 net.cpp:131] Top shape: 111 60 (6660)
I0504 04:10:00.718629 11860 net.cpp:139] Memory required for data: 250837356
I0504 04:10:00.718638 11860 layer_factory.hpp:77] Creating layer relu1
I0504 04:10:00.718647 11860 net.cpp:86] Creating Layer relu1
I0504 04:10:00.718649 11860 net.cpp:408] relu1 <- ip1
I0504 04:10:00.718654 11860 net.cpp:369] relu1 -> ip1 (in-place)
I0504 04:10:00.718855 11860 net.cpp:124] Setting up relu1
I0504 04:10:00.718863 11860 net.cpp:131] Top shape: 111 60 (6660)
I0504 04:10:00.718866 11860 net.cpp:139] Memory required for data: 250863996
I0504 04:10:00.718869 11860 layer_factory.hpp:77] Creating layer ip2
I0504 04:10:00.718878 11860 net.cpp:86] Creating Layer ip2
I0504 04:10:00.718880 11860 net.cpp:408] ip2 <- ip1
I0504 04:10:00.718885 11860 net.cpp:382] ip2 -> ip2
I0504 04:10:00.719259 11860 net.cpp:124] Setting up ip2
I0504 04:10:00.719266 11860 net.cpp:131] Top shape: 111 180 (19980)
I0504 04:10:00.719269 11860 net.cpp:139] Memory required for data: 250943916
I0504 04:10:00.719275 11860 layer_factory.hpp:77] Creating layer relu2
I0504 04:10:00.719280 11860 net.cpp:86] Creating Layer relu2
I0504 04:10:00.719282 11860 net.cpp:408] relu2 <- ip2
I0504 04:10:00.719286 11860 net.cpp:369] relu2 -> ip2 (in-place)
I0504 04:10:00.719456 11860 net.cpp:124] Setting up relu2
I0504 04:10:00.719465 11860 net.cpp:131] Top shape: 111 180 (19980)
I0504 04:10:00.719466 11860 net.cpp:139] Memory required for data: 251023836
I0504 04:10:00.719470 11860 layer_factory.hpp:77] Creating layer ip3
I0504 04:10:00.719477 11860 net.cpp:86] Creating Layer ip3
I0504 04:10:00.719482 11860 net.cpp:408] ip3 <- ip2
I0504 04:10:00.719502 11860 net.cpp:382] ip3 -> ip3
I0504 04:10:00.719666 11860 net.cpp:124] Setting up ip3
I0504 04:10:00.719673 11860 net.cpp:131] Top shape: 111 10 (1110)
I0504 04:10:00.719676 11860 net.cpp:139] Memory required for data: 251028276
I0504 04:10:00.719681 11860 layer_factory.hpp:77] Creating layer loss
I0504 04:10:00.719687 11860 net.cpp:86] Creating Layer loss
I0504 04:10:00.719691 11860 net.cpp:408] loss <- ip3
I0504 04:10:00.719694 11860 net.cpp:408] loss <- label
I0504 04:10:00.719702 11860 net.cpp:382] loss -> loss
I0504 04:10:00.719717 11860 layer_factory.hpp:77] Creating layer loss
…
I0504 04:10:00.720407 11860 solver.cpp:173] Creating test net (#0) specified by net file: ECE595/cifar/train_test/var_everything_tiny/cifar_train_test_56.prototxt
I0504 04:10:00.720446 11860 net.cpp:296] The NetState phase (1) differed from the phase (0) specified by a rule in layer cifar
I0504 04:10:00.720551 11860 net.cpp:53] Initializing net from parameters: 
name: "CIFAR"
state {
  phase: TEST
}
layer {
  name: "cifar"
  type: "Data"
  top: "data"
  top: "label"
  include {
    phase: TEST
  }
  transform_param {
    mean_file: "examples/cifar10/mean.binaryproto"
  }
  data_param {
    source: "examples/cifar10/cifar10_test_lmdb"
    batch_size: 1000
    backend: LMDB
  }
}
layer {
  name: "conv0"
  type: "Convolution"
  bottom: "data"
  top: "conv0"
  param {
    lr_mult: 1
  }
  param {
    lr_mult: 2
  }
  convolution_param {
    num_output: 216
    pad: 2
    kernel_size: 3
    stride: 1
    weight_filler {
      type: "gaussian"
      std: 0.01
    }
    bias_filler {
      type: "constant"
    }
  }
}
layer {
  name: "Sigmoid0"
  type: "Sigmoid"
  bottom: "conv0"
  top: "Sigmoid0"
}
layer {
  name: "pool0"
  type: "Pooling"
  bottom: "Sigmoid0"
  top: "pool0"
  pooling_param {
    pool: AVE
    kernel_size: 3
    stride: 2
  }
}
layer {
  name: "ip1"
  type: "InnerProduct"
  bottom: "pool0"
  top: "ip1"
  param {
    lr_mult: 1
  }
  param {
    lr_mult: 2
  }
  inner_product_param {
    num_output: 60
    weight_filler {
      type: "gaussian"
      std: 0.01
    }
    bias_filler {
      type: "constant"
    }
  }
}
layer {
  name: "relu1"
  type: "ReLU"
  bottom: "ip1"
  top: "ip1"
}
layer {
  name: "ip2"
  type: "InnerProduct"
  bottom: "ip1"
  top: "ip2"
  param {
    lr_mult: 1
  }
  param {
    lr_mult: 2
  }
  inner_product_param {
    num_output: 180
    weight_filler {
      type: "gaussian"
      std: 0.01
    }
    bias_filler {
      type: "constant"
    }
  }
}
layer {
  name: "relu2"
  type: "ReLU"
  bottom: "ip2"
  top: "ip2"
}
layer {
  name: "ip3"
  type: "InnerProduct"
  bottom: "ip2"
  top: "ip3"
  param {
    lr_mult: 1
  }
  param {
    lr_mult: 2
  }
  inner_product_param {
    num_output: 10
    weight_filler {
      type: "gaussian"
      std: 0.01
    }
    bias_filler {
      type: "constant"
    }
  }
}
layer {
  name: "accuracy"
  type: "Accuracy"
  bottom: "ip3"
  bottom: "label"
  top: "accuracy"
  include {
    phase: TEST
  }
}
layer {
  name: "loss"
  type: "SoftmaxWithLoss"
  bottom: "ip3"
  bottom: "label"
  top: "loss"
}
I0504 04:10:00.720619 11860 layer_factory.hpp:77] Creating layer cifar
I0504 04:10:00.720669 11860 db_lmdb.cpp:35] Opened lmdb examples/cifar10/cifar10_test_lmdb
I0504 04:10:00.720682 11860 net.cpp:86] Creating Layer cifar
I0504 04:10:00.720705 11860 net.cpp:382] cifar -> data
I0504 04:10:00.720713 11860 net.cpp:382] cifar -> label
I0504 04:10:00.720736 11860 data_transformer.cpp:25] Loading mean file from: examples/cifar10/mean.binaryproto
I0504 04:10:00.720921 11860 data_layer.cpp:45] output data size: 1000,3,32,32
I0504 04:10:00.743341 11860 net.cpp:124] Setting up cifar
I0504 04:10:00.743366 11860 net.cpp:131] Top shape: 1000 3 32 32 (3072000)
I0504 04:10:00.743371 11860 net.cpp:131] Top shape: 1000 (1000)
I0504 04:10:00.743373 11860 net.cpp:139] Memory required for data: 12292000
I0504 04:10:00.743379 11860 layer_factory.hpp:77] Creating layer label_cifar_1_split
I0504 04:10:00.743407 11860 net.cpp:86] Creating Layer label_cifar_1_split
I0504 04:10:00.743412 11860 net.cpp:408] label_cifar_1_split <- label
I0504 04:10:00.743417 11860 net.cpp:382] label_cifar_1_split -> label_cifar_1_split_0
I0504 04:10:00.743425 11860 net.cpp:382] label_cifar_1_split -> label_cifar_1_split_1
I0504 04:10:00.743544 11860 net.cpp:124] Setting up label_cifar_1_split
I0504 04:10:00.743551 11860 net.cpp:131] Top shape: 1000 (1000)
I0504 04:10:00.743556 11860 net.cpp:131] Top shape: 1000 (1000)
I0504 04:10:00.743558 11860 net.cpp:139] Memory required for data: 12300000
I0504 04:10:00.743561 11860 layer_factory.hpp:77] Creating layer conv0
I0504 04:10:00.743573 11860 net.cpp:86] Creating Layer conv0
I0504 04:10:00.743577 11860 net.cpp:408] conv0 <- data
I0504 04:10:00.743582 11860 net.cpp:382] conv0 -> conv0
I0504 04:10:00.745985 11860 net.cpp:124] Setting up conv0
I0504 04:10:00.745997 11860 net.cpp:131] Top shape: 1000 216 34 34 (249696000)
I0504 04:10:00.746001 11860 net.cpp:139] Memory required for data: 1011084000
I0504 04:10:00.746011 11860 layer_factory.hpp:77] Creating layer Sigmoid0
I0504 04:10:00.746017 11860 net.cpp:86] Creating Layer Sigmoid0
I0504 04:10:00.746021 11860 net.cpp:408] Sigmoid0 <- conv0
I0504 04:10:00.746026 11860 net.cpp:382] Sigmoid0 -> Sigmoid0
I0504 04:10:00.747860 11860 net.cpp:124] Setting up Sigmoid0
I0504 04:10:00.747875 11860 net.cpp:131] Top shape: 1000 216 34 34 (249696000)
I0504 04:10:00.747879 11860 net.cpp:139] Memory required for data: 2009868000
I0504 04:10:00.747882 11860 layer_factory.hpp:77] Creating layer pool0
I0504 04:10:00.747890 11860 net.cpp:86] Creating Layer pool0
I0504 04:10:00.747894 11860 net.cpp:408] pool0 <- Sigmoid0
I0504 04:10:00.747900 11860 net.cpp:382] pool0 -> pool0
I0504 04:10:00.748102 11860 net.cpp:124] Setting up pool0
I0504 04:10:00.748126 11860 net.cpp:131] Top shape: 1000 216 17 17 (62424000)
I0504 04:10:00.748129 11860 net.cpp:139] Memory required for data: 2259564000
I0504 04:10:00.748132 11860 layer_factory.hpp:77] Creating layer ip1
I0504 04:10:00.748141 11860 net.cpp:86] Creating Layer ip1
I0504 04:10:00.748144 11860 net.cpp:408] ip1 <- pool0
I0504 04:10:00.748148 11860 net.cpp:382] ip1 -> ip1
I0504 04:10:00.848160 11860 net.cpp:124] Setting up ip1
I0504 04:10:00.848186 11860 net.cpp:131] Top shape: 1000 60 (60000)
I0504 04:10:00.848188 11860 net.cpp:139] Memory required for data: 2259804000
I0504 04:10:00.848201 11860 layer_factory.hpp:77] Creating layer relu1
I0504 04:10:00.848209 11860 net.cpp:86] Creating Layer relu1
I0504 04:10:00.848215 11860 net.cpp:408] relu1 <- ip1
I0504 04:10:00.848237 11860 net.cpp:369] relu1 -> ip1 (in-place)
I0504 04:10:00.848459 11860 net.cpp:124] Setting up relu1
I0504 04:10:00.848469 11860 net.cpp:131] Top shape: 1000 60 (60000)
I0504 04:10:00.848471 11860 net.cpp:139] Memory required for data: 2260044000
I0504 04:10:00.848474 11860 layer_factory.hpp:77] Creating layer ip2
I0504 04:10:00.848484 11860 net.cpp:86] Creating Layer ip2
I0504 04:10:00.848486 11860 net.cpp:408] ip2 <- ip1
I0504 04:10:00.848492 11860 net.cpp:382] ip2 -> ip2
I0504 04:10:00.848951 11860 net.cpp:124] Setting up ip2
I0504 04:10:00.848961 11860 net.cpp:131] Top shape: 1000 180 (180000)
I0504 04:10:00.848980 11860 net.cpp:139] Memory required for data: 2260764000
I0504 04:10:00.848987 11860 layer_factory.hpp:77] Creating layer relu2
I0504 04:10:00.848994 11860 net.cpp:86] Creating Layer relu2
I0504 04:10:00.848997 11860 net.cpp:408] relu2 <- ip2
I0504 04:10:00.849001 11860 net.cpp:369] relu2 -> ip2 (in-place)
I0504 04:10:00.849223 11860 net.cpp:124] Setting up relu2
I0504 04:10:00.849231 11860 net.cpp:131] Top shape: 1000 180 (180000)
I0504 04:10:00.849234 11860 net.cpp:139] Memory required for data: 2261484000
I0504 04:10:00.849237 11860 layer_factory.hpp:77] Creating layer ip3
I0504 04:10:00.849244 11860 net.cpp:86] Creating Layer ip3
I0504 04:10:00.849247 11860 net.cpp:408] ip3 <- ip2
I0504 04:10:00.849253 11860 net.cpp:382] ip3 -> ip3
I0504 04:10:00.849411 11860 net.cpp:124] Setting up ip3
I0504 04:10:00.849418 11860 net.cpp:131] Top shape: 1000 10 (10000)
I0504 04:10:00.849434 11860 net.cpp:139] Memory required for data: 2261524000
I0504 04:10:00.849441 11860 layer_factory.hpp:77] Creating layer ip3_ip3_0_split
I0504 04:10:00.849447 11860 net.cpp:86] Creating Layer ip3_ip3_0_split
I0504 04:10:00.849449 11860 net.cpp:408] ip3_ip3_0_split <- ip3
I0504 04:10:00.849455 11860 net.cpp:382] ip3_ip3_0_split -> ip3_ip3_0_split_0
I0504 04:10:00.849460 11860 net.cpp:382] ip3_ip3_0_split -> ip3_ip3_0_split_1
I0504 04:10:00.849493 11860 net.cpp:124] Setting up ip3_ip3_0_split
I0504 04:10:00.849499 11860 net.cpp:131] Top shape: 1000 10 (10000)
I0504 04:10:00.849503 11860 net.cpp:131] Top shape: 1000 10 (10000)
I0504 04:10:00.849505 11860 net.cpp:139] Memory required for data: 2261604000
I0504 04:10:00.849508 11860 layer_factory.hpp:77] Creating layer accuracy
I0504 04:10:00.849514 11860 net.cpp:86] Creating Layer accuracy
I0504 04:10:00.849517 11860 net.cpp:408] accuracy <- ip3_ip3_0_split_0
I0504 04:10:00.849521 11860 net.cpp:408] accuracy <- label_cifar_1_split_0
I0504 04:10:00.849525 11860 net.cpp:382] accuracy -> accuracy
…
