…
I0504 00:32:31.930573  5611 net.cpp:296] The NetState phase (0) differed from the phase (1) specified by a rule in layer cifar
I0504 00:32:31.930596  5611 net.cpp:296] The NetState phase (0) differed from the phase (1) specified by a rule in layer accuracy
I0504 00:32:31.930697  5611 net.cpp:53] Initializing net from parameters: 
name: "CIFAR"
state {
  phase: TRAIN
  level: 0
  stage: ""
}
layer {
  name: "cifar"
  type: "Data"
  top: "data"
  top: "label"
  include {
    phase: TRAIN
  }
  transform_param {
    mean_file: "examples/cifar10/mean.binaryproto"
  }
  data_param {
    source: "examples/cifar10/cifar10_train_lmdb"
    batch_size: 111
    backend: LMDB
  }
}
layer {
  name: "conv0"
  type: "Convolution"
  bottom: "data"
  top: "conv0"
  param {
    lr_mult: 1
  }
  param {
    lr_mult: 2
  }
  convolution_param {
    num_output: 24
    pad: 2
    kernel_size: 5
    stride: 1
    weight_filler {
      type: "gaussian"
      std: 0.01
    }
    bias_filler {
      type: "constant"
    }
  }
}
layer {
  name: "Sigmoid0"
  type: "Sigmoid"
  bottom: "conv0"
  top: "Sigmoid0"
}
layer {
  name: "pool0"
  type: "Pooling"
  bottom: "Sigmoid0"
  top: "pool0"
  pooling_param {
    pool: AVE
    kernel_size: 3
    stride: 2
  }
}
layer {
  name: "ip1"
  type: "InnerProduct"
  bottom: "pool0"
  top: "ip1"
  param {
    lr_mult: 1
  }
  param {
    lr_mult: 2
  }
  inner_product_param {
    num_output: 180
    weight_filler {
      type: "gaussian"
      std: 0.01
    }
    bias_filler {
      type: "constant"
    }
  }
}
layer {
  name: "relu1"
  type: "ReLU"
  bottom: "ip1"
  top: "ip1"
}
layer {
  name: "ip2"
  type: "InnerProduct"
  bottom: "ip1"
  top: "ip2"
  param {
    lr_mult: 1
  }
  param {
    lr_mult: 2
  }
  inner_product_param {
    num_output: 10
    weight_filler {
      type: "gaussian"
      std: 0.01
    }
    bias_filler {
      type: "constant"
    }
  }
}
layer {
  name: "relu2"
  type: "ReLU"
  bottom: "ip2"
  top: "ip2"
}
layer {
  name: "ip3"
  type: "InnerProduct"
  bottom: "ip2"
  top: "ip3"
  param {
    lr_mult: 1
  }
  param {
    lr_mult: 2
  }
  inner_product_param {
    num_output: 10
    weight_filler {
      type: "gaussian"
      std: 0.01
    }
    bias_filler {
      type: "constant"
    }
  }
}
layer {
  name: "loss"
  type: "SoftmaxWithLoss"
  bottom: "ip3"
  bottom: "label"
  top: "loss"
}
I0504 00:32:31.930778  5611 layer_factory.hpp:77] Creating layer cifar
I0504 00:32:31.930887  5611 db_lmdb.cpp:35] Opened lmdb examples/cifar10/cifar10_train_lmdb
I0504 00:32:31.930917  5611 net.cpp:86] Creating Layer cifar
I0504 00:32:31.930924  5611 net.cpp:382] cifar -> data
I0504 00:32:31.930945  5611 net.cpp:382] cifar -> label
I0504 00:32:31.930959  5611 data_transformer.cpp:25] Loading mean file from: examples/cifar10/mean.binaryproto
I0504 00:32:31.933080  5611 data_layer.cpp:45] output data size: 111,3,32,32
I0504 00:32:31.940951  5611 net.cpp:124] Setting up cifar
I0504 00:32:31.940970  5611 net.cpp:131] Top shape: 111 3 32 32 (340992)
I0504 00:32:31.940979  5611 net.cpp:131] Top shape: 111 (111)
I0504 00:32:31.940982  5611 net.cpp:139] Memory required for data: 1364412
I0504 00:32:31.940990  5611 layer_factory.hpp:77] Creating layer conv0
I0504 00:32:31.941009  5611 net.cpp:86] Creating Layer conv0
I0504 00:32:31.941015  5611 net.cpp:408] conv0 <- data
I0504 00:32:31.941028  5611 net.cpp:382] conv0 -> conv0
I0504 00:32:32.230347  5611 net.cpp:124] Setting up conv0
I0504 00:32:32.230394  5611 net.cpp:131] Top shape: 111 24 32 32 (2727936)
I0504 00:32:32.230398  5611 net.cpp:139] Memory required for data: 12276156
I0504 00:32:32.230414  5611 layer_factory.hpp:77] Creating layer Sigmoid0
I0504 00:32:32.230427  5611 net.cpp:86] Creating Layer Sigmoid0
I0504 00:32:32.230430  5611 net.cpp:408] Sigmoid0 <- conv0
I0504 00:32:32.230437  5611 net.cpp:382] Sigmoid0 -> Sigmoid0
I0504 00:32:32.230623  5611 net.cpp:124] Setting up Sigmoid0
I0504 00:32:32.230633  5611 net.cpp:131] Top shape: 111 24 32 32 (2727936)
I0504 00:32:32.230638  5611 net.cpp:139] Memory required for data: 23187900
I0504 00:32:32.230640  5611 layer_factory.hpp:77] Creating layer pool0
I0504 00:32:32.230648  5611 net.cpp:86] Creating Layer pool0
I0504 00:32:32.230651  5611 net.cpp:408] pool0 <- Sigmoid0
I0504 00:32:32.230656  5611 net.cpp:382] pool0 -> pool0
I0504 00:32:32.231446  5611 net.cpp:124] Setting up pool0
I0504 00:32:32.231461  5611 net.cpp:131] Top shape: 111 24 16 16 (681984)
I0504 00:32:32.231464  5611 net.cpp:139] Memory required for data: 25915836
I0504 00:32:32.231468  5611 layer_factory.hpp:77] Creating layer ip1
I0504 00:32:32.231478  5611 net.cpp:86] Creating Layer ip1
I0504 00:32:32.231482  5611 net.cpp:408] ip1 <- pool0
I0504 00:32:32.231487  5611 net.cpp:382] ip1 -> ip1
I0504 00:32:32.263236  5611 net.cpp:124] Setting up ip1
I0504 00:32:32.263249  5611 net.cpp:131] Top shape: 111 180 (19980)
I0504 00:32:32.263253  5611 net.cpp:139] Memory required for data: 25995756
I0504 00:32:32.263260  5611 layer_factory.hpp:77] Creating layer relu1
I0504 00:32:32.263267  5611 net.cpp:86] Creating Layer relu1
I0504 00:32:32.263269  5611 net.cpp:408] relu1 <- ip1
I0504 00:32:32.263274  5611 net.cpp:369] relu1 -> ip1 (in-place)
I0504 00:32:32.263427  5611 net.cpp:124] Setting up relu1
I0504 00:32:32.263434  5611 net.cpp:131] Top shape: 111 180 (19980)
I0504 00:32:32.263437  5611 net.cpp:139] Memory required for data: 26075676
I0504 00:32:32.263440  5611 layer_factory.hpp:77] Creating layer ip2
I0504 00:32:32.263447  5611 net.cpp:86] Creating Layer ip2
I0504 00:32:32.263450  5611 net.cpp:408] ip2 <- ip1
I0504 00:32:32.263455  5611 net.cpp:382] ip2 -> ip2
I0504 00:32:32.263595  5611 net.cpp:124] Setting up ip2
I0504 00:32:32.263602  5611 net.cpp:131] Top shape: 111 10 (1110)
I0504 00:32:32.263605  5611 net.cpp:139] Memory required for data: 26080116
I0504 00:32:32.263612  5611 layer_factory.hpp:77] Creating layer relu2
I0504 00:32:32.263617  5611 net.cpp:86] Creating Layer relu2
I0504 00:32:32.263619  5611 net.cpp:408] relu2 <- ip2
I0504 00:32:32.263623  5611 net.cpp:369] relu2 -> ip2 (in-place)
I0504 00:32:32.263767  5611 net.cpp:124] Setting up relu2
I0504 00:32:32.263774  5611 net.cpp:131] Top shape: 111 10 (1110)
I0504 00:32:32.263777  5611 net.cpp:139] Memory required for data: 26084556
I0504 00:32:32.263780  5611 layer_factory.hpp:77] Creating layer ip3
I0504 00:32:32.263787  5611 net.cpp:86] Creating Layer ip3
I0504 00:32:32.263790  5611 net.cpp:408] ip3 <- ip2
I0504 00:32:32.263794  5611 net.cpp:382] ip3 -> ip3
I0504 00:32:32.263882  5611 net.cpp:124] Setting up ip3
I0504 00:32:32.263890  5611 net.cpp:131] Top shape: 111 10 (1110)
I0504 00:32:32.263891  5611 net.cpp:139] Memory required for data: 26088996
I0504 00:32:32.263896  5611 layer_factory.hpp:77] Creating layer loss
I0504 00:32:32.263902  5611 net.cpp:86] Creating Layer loss
I0504 00:32:32.263906  5611 net.cpp:408] loss <- ip3
I0504 00:32:32.263908  5611 net.cpp:408] loss <- label
I0504 00:32:32.263913  5611 net.cpp:382] loss -> loss
I0504 00:32:32.263931  5611 layer_factory.hpp:77] Creating layer loss
…
I0504 00:32:32.264497  5611 solver.cpp:173] Creating test net (#0) specified by net file: ECE595/cifar/train_test/var_everything_tiny/cifar_train_test_21.prototxt
I0504 00:32:32.264521  5611 net.cpp:296] The NetState phase (1) differed from the phase (0) specified by a rule in layer cifar
I0504 00:32:32.264621  5611 net.cpp:53] Initializing net from parameters: 
name: "CIFAR"
state {
  phase: TEST
}
layer {
  name: "cifar"
  type: "Data"
  top: "data"
  top: "label"
  include {
    phase: TEST
  }
  transform_param {
    mean_file: "examples/cifar10/mean.binaryproto"
  }
  data_param {
    source: "examples/cifar10/cifar10_test_lmdb"
    batch_size: 1000
    backend: LMDB
  }
}
layer {
  name: "conv0"
  type: "Convolution"
  bottom: "data"
  top: "conv0"
  param {
    lr_mult: 1
  }
  param {
    lr_mult: 2
  }
  convolution_param {
    num_output: 24
    pad: 2
    kernel_size: 5
    stride: 1
    weight_filler {
      type: "gaussian"
      std: 0.01
    }
    bias_filler {
      type: "constant"
    }
  }
}
layer {
  name: "Sigmoid0"
  type: "Sigmoid"
  bottom: "conv0"
  top: "Sigmoid0"
}
layer {
  name: "pool0"
  type: "Pooling"
  bottom: "Sigmoid0"
  top: "pool0"
  pooling_param {
    pool: AVE
    kernel_size: 3
    stride: 2
  }
}
layer {
  name: "ip1"
  type: "InnerProduct"
  bottom: "pool0"
  top: "ip1"
  param {
    lr_mult: 1
  }
  param {
    lr_mult: 2
  }
  inner_product_param {
    num_output: 180
    weight_filler {
      type: "gaussian"
      std: 0.01
    }
    bias_filler {
      type: "constant"
    }
  }
}
layer {
  name: "relu1"
  type: "ReLU"
  bottom: "ip1"
  top: "ip1"
}
layer {
  name: "ip2"
  type: "InnerProduct"
  bottom: "ip1"
  top: "ip2"
  param {
    lr_mult: 1
  }
  param {
    lr_mult: 2
  }
  inner_product_param {
    num_output: 10
    weight_filler {
      type: "gaussian"
      std: 0.01
    }
    bias_filler {
      type: "constant"
    }
  }
}
layer {
  name: "relu2"
  type: "ReLU"
  bottom: "ip2"
  top: "ip2"
}
layer {
  name: "ip3"
  type: "InnerProduct"
  bottom: "ip2"
  top: "ip3"
  param {
    lr_mult: 1
  }
  param {
    lr_mult: 2
  }
  inner_product_param {
    num_output: 10
    weight_filler {
      type: "gaussian"
      std: 0.01
    }
    bias_filler {
      type: "constant"
    }
  }
}
layer {
  name: "accuracy"
  type: "Accuracy"
  bottom: "ip3"
  bottom: "label"
  top: "accuracy"
  include {
    phase: TEST
  }
}
layer {
  name: "loss"
  type: "SoftmaxWithLoss"
  bottom: "ip3"
  bottom: "label"
  top: "loss"
}
I0504 00:32:32.264683  5611 layer_factory.hpp:77] Creating layer cifar
I0504 00:32:32.264727  5611 db_lmdb.cpp:35] Opened lmdb examples/cifar10/cifar10_test_lmdb
I0504 00:32:32.264739  5611 net.cpp:86] Creating Layer cifar
I0504 00:32:32.264744  5611 net.cpp:382] cifar -> data
I0504 00:32:32.264751  5611 net.cpp:382] cifar -> label
I0504 00:32:32.264758  5611 data_transformer.cpp:25] Loading mean file from: examples/cifar10/mean.binaryproto
I0504 00:32:32.264925  5611 data_layer.cpp:45] output data size: 1000,3,32,32
I0504 00:32:32.286670  5611 net.cpp:124] Setting up cifar
I0504 00:32:32.286696  5611 net.cpp:131] Top shape: 1000 3 32 32 (3072000)
I0504 00:32:32.286701  5611 net.cpp:131] Top shape: 1000 (1000)
I0504 00:32:32.286705  5611 net.cpp:139] Memory required for data: 12292000
I0504 00:32:32.286710  5611 layer_factory.hpp:77] Creating layer label_cifar_1_split
I0504 00:32:32.286744  5611 net.cpp:86] Creating Layer label_cifar_1_split
I0504 00:32:32.286748  5611 net.cpp:408] label_cifar_1_split <- label
I0504 00:32:32.286754  5611 net.cpp:382] label_cifar_1_split -> label_cifar_1_split_0
I0504 00:32:32.286762  5611 net.cpp:382] label_cifar_1_split -> label_cifar_1_split_1
I0504 00:32:32.286864  5611 net.cpp:124] Setting up label_cifar_1_split
I0504 00:32:32.286872  5611 net.cpp:131] Top shape: 1000 (1000)
I0504 00:32:32.286875  5611 net.cpp:131] Top shape: 1000 (1000)
I0504 00:32:32.286878  5611 net.cpp:139] Memory required for data: 12300000
I0504 00:32:32.286881  5611 layer_factory.hpp:77] Creating layer conv0
I0504 00:32:32.286892  5611 net.cpp:86] Creating Layer conv0
I0504 00:32:32.286895  5611 net.cpp:408] conv0 <- data
I0504 00:32:32.286900  5611 net.cpp:382] conv0 -> conv0
I0504 00:32:32.288444  5611 net.cpp:124] Setting up conv0
I0504 00:32:32.288457  5611 net.cpp:131] Top shape: 1000 24 32 32 (24576000)
I0504 00:32:32.288460  5611 net.cpp:139] Memory required for data: 110604000
I0504 00:32:32.288470  5611 layer_factory.hpp:77] Creating layer Sigmoid0
I0504 00:32:32.288475  5611 net.cpp:86] Creating Layer Sigmoid0
I0504 00:32:32.288478  5611 net.cpp:408] Sigmoid0 <- conv0
I0504 00:32:32.288485  5611 net.cpp:382] Sigmoid0 -> Sigmoid0
I0504 00:32:32.289307  5611 net.cpp:124] Setting up Sigmoid0
I0504 00:32:32.289320  5611 net.cpp:131] Top shape: 1000 24 32 32 (24576000)
I0504 00:32:32.289324  5611 net.cpp:139] Memory required for data: 208908000
I0504 00:32:32.289327  5611 layer_factory.hpp:77] Creating layer pool0
I0504 00:32:32.289335  5611 net.cpp:86] Creating Layer pool0
I0504 00:32:32.289338  5611 net.cpp:408] pool0 <- Sigmoid0
I0504 00:32:32.289342  5611 net.cpp:382] pool0 -> pool0
I0504 00:32:32.290525  5611 net.cpp:124] Setting up pool0
I0504 00:32:32.290536  5611 net.cpp:131] Top shape: 1000 24 16 16 (6144000)
I0504 00:32:32.290539  5611 net.cpp:139] Memory required for data: 233484000
I0504 00:32:32.290544  5611 layer_factory.hpp:77] Creating layer ip1
I0504 00:32:32.290550  5611 net.cpp:86] Creating Layer ip1
I0504 00:32:32.290555  5611 net.cpp:408] ip1 <- pool0
I0504 00:32:32.290560  5611 net.cpp:382] ip1 -> ip1
I0504 00:32:32.320094  5611 net.cpp:124] Setting up ip1
I0504 00:32:32.320112  5611 net.cpp:131] Top shape: 1000 180 (180000)
I0504 00:32:32.320116  5611 net.cpp:139] Memory required for data: 234204000
I0504 00:32:32.320124  5611 layer_factory.hpp:77] Creating layer relu1
I0504 00:32:32.320132  5611 net.cpp:86] Creating Layer relu1
I0504 00:32:32.320152  5611 net.cpp:408] relu1 <- ip1
I0504 00:32:32.320155  5611 net.cpp:369] relu1 -> ip1 (in-place)
I0504 00:32:32.320335  5611 net.cpp:124] Setting up relu1
I0504 00:32:32.320344  5611 net.cpp:131] Top shape: 1000 180 (180000)
I0504 00:32:32.320348  5611 net.cpp:139] Memory required for data: 234924000
I0504 00:32:32.320349  5611 layer_factory.hpp:77] Creating layer ip2
I0504 00:32:32.320356  5611 net.cpp:86] Creating Layer ip2
I0504 00:32:32.320359  5611 net.cpp:408] ip2 <- ip1
I0504 00:32:32.320363  5611 net.cpp:382] ip2 -> ip2
I0504 00:32:32.320510  5611 net.cpp:124] Setting up ip2
I0504 00:32:32.320518  5611 net.cpp:131] Top shape: 1000 10 (10000)
I0504 00:32:32.320521  5611 net.cpp:139] Memory required for data: 234964000
I0504 00:32:32.320528  5611 layer_factory.hpp:77] Creating layer relu2
I0504 00:32:32.320533  5611 net.cpp:86] Creating Layer relu2
I0504 00:32:32.320536  5611 net.cpp:408] relu2 <- ip2
I0504 00:32:32.320540  5611 net.cpp:369] relu2 -> ip2 (in-place)
I0504 00:32:32.320686  5611 net.cpp:124] Setting up relu2
I0504 00:32:32.320694  5611 net.cpp:131] Top shape: 1000 10 (10000)
I0504 00:32:32.320698  5611 net.cpp:139] Memory required for data: 235004000
I0504 00:32:32.320700  5611 layer_factory.hpp:77] Creating layer ip3
I0504 00:32:32.320706  5611 net.cpp:86] Creating Layer ip3
I0504 00:32:32.320709  5611 net.cpp:408] ip3 <- ip2
I0504 00:32:32.320714  5611 net.cpp:382] ip3 -> ip3
I0504 00:32:32.320847  5611 net.cpp:124] Setting up ip3
I0504 00:32:32.320854  5611 net.cpp:131] Top shape: 1000 10 (10000)
I0504 00:32:32.320869  5611 net.cpp:139] Memory required for data: 235044000
I0504 00:32:32.320891  5611 layer_factory.hpp:77] Creating layer ip3_ip3_0_split
I0504 00:32:32.320896  5611 net.cpp:86] Creating Layer ip3_ip3_0_split
I0504 00:32:32.320899  5611 net.cpp:408] ip3_ip3_0_split <- ip3
I0504 00:32:32.320904  5611 net.cpp:382] ip3_ip3_0_split -> ip3_ip3_0_split_0
I0504 00:32:32.320910  5611 net.cpp:382] ip3_ip3_0_split -> ip3_ip3_0_split_1
I0504 00:32:32.320945  5611 net.cpp:124] Setting up ip3_ip3_0_split
I0504 00:32:32.320950  5611 net.cpp:131] Top shape: 1000 10 (10000)
I0504 00:32:32.320953  5611 net.cpp:131] Top shape: 1000 10 (10000)
I0504 00:32:32.320956  5611 net.cpp:139] Memory required for data: 235124000
I0504 00:32:32.320960  5611 layer_factory.hpp:77] Creating layer accuracy
I0504 00:32:32.320966  5611 net.cpp:86] Creating Layer accuracy
I0504 00:32:32.320968  5611 net.cpp:408] accuracy <- ip3_ip3_0_split_0
I0504 00:32:32.320972  5611 net.cpp:408] accuracy <- label_cifar_1_split_0
I0504 00:32:32.320977  5611 net.cpp:382] accuracy -> accuracy
…
