…
I0504 13:02:07.010020 31280 net.cpp:296] The NetState phase (0) differed from the phase (1) specified by a rule in layer cifar
I0504 13:02:07.010051 31280 net.cpp:296] The NetState phase (0) differed from the phase (1) specified by a rule in layer accuracy
I0504 13:02:07.010165 31280 net.cpp:53] Initializing net from parameters: 
name: "CIFAR"
state {
  phase: TRAIN
  level: 0
  stage: ""
}
layer {
  name: "cifar"
  type: "Data"
  top: "data"
  top: "label"
  include {
    phase: TRAIN
  }
  transform_param {
    mean_file: "examples/cifar10/mean.binaryproto"
  }
  data_param {
    source: "examples/cifar10/cifar10_train_lmdb"
    batch_size: 111
    backend: LMDB
  }
}
layer {
  name: "conv0"
  type: "Convolution"
  bottom: "data"
  top: "conv0"
  param {
    lr_mult: 1
  }
  param {
    lr_mult: 2
  }
  convolution_param {
    num_output: 24
    pad: 2
    kernel_size: 5
    stride: 1
    weight_filler {
      type: "gaussian"
      std: 0.01
    }
    bias_filler {
      type: "constant"
    }
  }
}
layer {
  name: "Sigmoid0"
  type: "Sigmoid"
  bottom: "conv0"
  top: "Sigmoid0"
}
layer {
  name: "pool0"
  type: "Pooling"
  bottom: "Sigmoid0"
  top: "pool0"
  pooling_param {
    pool: AVE
    kernel_size: 3
    stride: 2
  }
}
layer {
  name: "conv1"
  type: "Convolution"
  bottom: "pool0"
  top: "conv1"
  param {
    lr_mult: 1
  }
  param {
    lr_mult: 2
  }
  convolution_param {
    num_output: 216
    pad: 2
    kernel_size: 3
    stride: 1
    weight_filler {
      type: "gaussian"
      std: 0.01
    }
    bias_filler {
      type: "constant"
    }
  }
}
layer {
  name: "Sigmoid1"
  type: "Sigmoid"
  bottom: "conv1"
  top: "Sigmoid1"
}
layer {
  name: "pool1"
  type: "Pooling"
  bottom: "Sigmoid1"
  top: "pool1"
  pooling_param {
    pool: AVE
    kernel_size: 3
    stride: 2
  }
}
layer {
  name: "ip1"
  type: "InnerProduct"
  bottom: "pool1"
  top: "ip1"
  param {
    lr_mult: 1
  }
  param {
    lr_mult: 2
  }
  inner_product_param {
    num_output: 10
    weight_filler {
      type: "gaussian"
      std: 0.01
    }
    bias_filler {
      type: "constant"
    }
  }
}
layer {
  name: "relu1"
  type: "ReLU"
  bottom: "ip1"
  top: "ip1"
}
layer {
  name: "ip2"
  type: "InnerProduct"
  bottom: "ip1"
  top: "ip2"
  param {
    lr_mult: 1
  }
  param {
    lr_mult: 2
  }
  inner_product_param {
    num_output: 60
    weight_filler {
      type: "gaussian"
      std: 0.01
    }
    bias_filler {
      type: "constant"
    }
  }
}
layer {
  name: "relu2"
  type: "ReLU"
  bottom: "ip2"
  top: "ip2"
}
layer {
  name: "ip3"
  type: "InnerProduct"
  bottom: "ip2"
  top: "ip3"
  param {
    lr_mult: 1
  }
  param {
    lr_mult: 2
  }
  inner_product_param {
    num_output: 10
    weight_filler {
      type: "gaussian"
      std: 0.01
    }
    bias_filler {
      type: "constant"
    }
  }
}
layer {
  name: "loss"
  type: "SoftmaxWithLoss"
  bottom: "ip3"
  bottom: "label"
  top: "loss"
}
I0504 13:02:07.010231 31280 layer_factory.hpp:77] Creating layer cifar
I0504 13:02:07.010327 31280 db_lmdb.cpp:35] Opened lmdb examples/cifar10/cifar10_train_lmdb
I0504 13:02:07.010351 31280 net.cpp:86] Creating Layer cifar
I0504 13:02:07.010361 31280 net.cpp:382] cifar -> data
I0504 13:02:07.010398 31280 net.cpp:382] cifar -> label
I0504 13:02:07.010408 31280 data_transformer.cpp:25] Loading mean file from: examples/cifar10/mean.binaryproto
I0504 13:02:07.012171 31280 data_layer.cpp:45] output data size: 111,3,32,32
I0504 13:02:07.018688 31280 net.cpp:124] Setting up cifar
I0504 13:02:07.018702 31280 net.cpp:131] Top shape: 111 3 32 32 (340992)
I0504 13:02:07.018723 31280 net.cpp:131] Top shape: 111 (111)
I0504 13:02:07.018725 31280 net.cpp:139] Memory required for data: 1364412
I0504 13:02:07.018731 31280 layer_factory.hpp:77] Creating layer conv0
I0504 13:02:07.018759 31280 net.cpp:86] Creating Layer conv0
I0504 13:02:07.018764 31280 net.cpp:408] conv0 <- data
I0504 13:02:07.018774 31280 net.cpp:382] conv0 -> conv0
I0504 13:02:07.250748 31280 net.cpp:124] Setting up conv0
I0504 13:02:07.250790 31280 net.cpp:131] Top shape: 111 24 32 32 (2727936)
I0504 13:02:07.250794 31280 net.cpp:139] Memory required for data: 12276156
I0504 13:02:07.250809 31280 layer_factory.hpp:77] Creating layer Sigmoid0
I0504 13:02:07.250821 31280 net.cpp:86] Creating Layer Sigmoid0
I0504 13:02:07.250824 31280 net.cpp:408] Sigmoid0 <- conv0
I0504 13:02:07.250830 31280 net.cpp:382] Sigmoid0 -> Sigmoid0
I0504 13:02:07.251014 31280 net.cpp:124] Setting up Sigmoid0
I0504 13:02:07.251024 31280 net.cpp:131] Top shape: 111 24 32 32 (2727936)
I0504 13:02:07.251027 31280 net.cpp:139] Memory required for data: 23187900
I0504 13:02:07.251030 31280 layer_factory.hpp:77] Creating layer pool0
I0504 13:02:07.251037 31280 net.cpp:86] Creating Layer pool0
I0504 13:02:07.251040 31280 net.cpp:408] pool0 <- Sigmoid0
I0504 13:02:07.251044 31280 net.cpp:382] pool0 -> pool0
I0504 13:02:07.251802 31280 net.cpp:124] Setting up pool0
I0504 13:02:07.251814 31280 net.cpp:131] Top shape: 111 24 16 16 (681984)
I0504 13:02:07.251833 31280 net.cpp:139] Memory required for data: 25915836
I0504 13:02:07.251837 31280 layer_factory.hpp:77] Creating layer conv1
I0504 13:02:07.251849 31280 net.cpp:86] Creating Layer conv1
I0504 13:02:07.251852 31280 net.cpp:408] conv1 <- pool0
I0504 13:02:07.251857 31280 net.cpp:382] conv1 -> conv1
I0504 13:02:07.255609 31280 net.cpp:124] Setting up conv1
I0504 13:02:07.255638 31280 net.cpp:131] Top shape: 111 216 18 18 (7768224)
I0504 13:02:07.255642 31280 net.cpp:139] Memory required for data: 56988732
I0504 13:02:07.255650 31280 layer_factory.hpp:77] Creating layer Sigmoid1
I0504 13:02:07.255656 31280 net.cpp:86] Creating Layer Sigmoid1
I0504 13:02:07.255661 31280 net.cpp:408] Sigmoid1 <- conv1
I0504 13:02:07.255664 31280 net.cpp:382] Sigmoid1 -> Sigmoid1
I0504 13:02:07.255864 31280 net.cpp:124] Setting up Sigmoid1
I0504 13:02:07.255872 31280 net.cpp:131] Top shape: 111 216 18 18 (7768224)
I0504 13:02:07.255877 31280 net.cpp:139] Memory required for data: 88061628
I0504 13:02:07.255879 31280 layer_factory.hpp:77] Creating layer pool1
I0504 13:02:07.255885 31280 net.cpp:86] Creating Layer pool1
I0504 13:02:07.255888 31280 net.cpp:408] pool1 <- Sigmoid1
I0504 13:02:07.255893 31280 net.cpp:382] pool1 -> pool1
I0504 13:02:07.256048 31280 net.cpp:124] Setting up pool1
I0504 13:02:07.256057 31280 net.cpp:131] Top shape: 111 216 9 9 (1942056)
I0504 13:02:07.256059 31280 net.cpp:139] Memory required for data: 95829852
I0504 13:02:07.256062 31280 layer_factory.hpp:77] Creating layer ip1
I0504 13:02:07.256070 31280 net.cpp:86] Creating Layer ip1
I0504 13:02:07.256073 31280 net.cpp:408] ip1 <- pool1
I0504 13:02:07.256078 31280 net.cpp:382] ip1 -> ip1
I0504 13:02:07.260794 31280 net.cpp:124] Setting up ip1
I0504 13:02:07.260802 31280 net.cpp:131] Top shape: 111 10 (1110)
I0504 13:02:07.260805 31280 net.cpp:139] Memory required for data: 95834292
I0504 13:02:07.260815 31280 layer_factory.hpp:77] Creating layer relu1
I0504 13:02:07.260836 31280 net.cpp:86] Creating Layer relu1
I0504 13:02:07.260840 31280 net.cpp:408] relu1 <- ip1
I0504 13:02:07.260844 31280 net.cpp:369] relu1 -> ip1 (in-place)
I0504 13:02:07.261021 31280 net.cpp:124] Setting up relu1
I0504 13:02:07.261029 31280 net.cpp:131] Top shape: 111 10 (1110)
I0504 13:02:07.261032 31280 net.cpp:139] Memory required for data: 95838732
I0504 13:02:07.261035 31280 layer_factory.hpp:77] Creating layer ip2
I0504 13:02:07.261042 31280 net.cpp:86] Creating Layer ip2
I0504 13:02:07.261045 31280 net.cpp:408] ip2 <- ip1
I0504 13:02:07.261065 31280 net.cpp:382] ip2 -> ip2
I0504 13:02:07.261200 31280 net.cpp:124] Setting up ip2
I0504 13:02:07.261207 31280 net.cpp:131] Top shape: 111 60 (6660)
I0504 13:02:07.261210 31280 net.cpp:139] Memory required for data: 95865372
I0504 13:02:07.261215 31280 layer_factory.hpp:77] Creating layer relu2
I0504 13:02:07.261219 31280 net.cpp:86] Creating Layer relu2
I0504 13:02:07.261224 31280 net.cpp:408] relu2 <- ip2
I0504 13:02:07.261229 31280 net.cpp:369] relu2 -> ip2 (in-place)
I0504 13:02:07.261919 31280 net.cpp:124] Setting up relu2
I0504 13:02:07.261929 31280 net.cpp:131] Top shape: 111 60 (6660)
I0504 13:02:07.261932 31280 net.cpp:139] Memory required for data: 95892012
I0504 13:02:07.261936 31280 layer_factory.hpp:77] Creating layer ip3
I0504 13:02:07.261942 31280 net.cpp:86] Creating Layer ip3
I0504 13:02:07.261945 31280 net.cpp:408] ip3 <- ip2
I0504 13:02:07.261950 31280 net.cpp:382] ip3 -> ip3
I0504 13:02:07.262089 31280 net.cpp:124] Setting up ip3
I0504 13:02:07.262095 31280 net.cpp:131] Top shape: 111 10 (1110)
I0504 13:02:07.262099 31280 net.cpp:139] Memory required for data: 95896452
I0504 13:02:07.262106 31280 layer_factory.hpp:77] Creating layer loss
I0504 13:02:07.262111 31280 net.cpp:86] Creating Layer loss
I0504 13:02:07.262115 31280 net.cpp:408] loss <- ip3
I0504 13:02:07.262118 31280 net.cpp:408] loss <- label
I0504 13:02:07.262123 31280 net.cpp:382] loss -> loss
I0504 13:02:07.262140 31280 layer_factory.hpp:77] Creating layer loss
…
I0504 13:02:07.262826 31280 solver.cpp:173] Creating test net (#0) specified by net file: ECE595/cifar/train_test/var_everything_tiny/cifar_train_test_160.prototxt
I0504 13:02:07.262867 31280 net.cpp:296] The NetState phase (1) differed from the phase (0) specified by a rule in layer cifar
I0504 13:02:07.262986 31280 net.cpp:53] Initializing net from parameters: 
name: "CIFAR"
state {
  phase: TEST
}
layer {
  name: "cifar"
  type: "Data"
  top: "data"
  top: "label"
  include {
    phase: TEST
  }
  transform_param {
    mean_file: "examples/cifar10/mean.binaryproto"
  }
  data_param {
    source: "examples/cifar10/cifar10_test_lmdb"
    batch_size: 1000
    backend: LMDB
  }
}
layer {
  name: "conv0"
  type: "Convolution"
  bottom: "data"
  top: "conv0"
  param {
    lr_mult: 1
  }
  param {
    lr_mult: 2
  }
  convolution_param {
    num_output: 24
    pad: 2
    kernel_size: 5
    stride: 1
    weight_filler {
      type: "gaussian"
      std: 0.01
    }
    bias_filler {
      type: "constant"
    }
  }
}
layer {
  name: "Sigmoid0"
  type: "Sigmoid"
  bottom: "conv0"
  top: "Sigmoid0"
}
layer {
  name: "pool0"
  type: "Pooling"
  bottom: "Sigmoid0"
  top: "pool0"
  pooling_param {
    pool: AVE
    kernel_size: 3
    stride: 2
  }
}
layer {
  name: "conv1"
  type: "Convolution"
  bottom: "pool0"
  top: "conv1"
  param {
    lr_mult: 1
  }
  param {
    lr_mult: 2
  }
  convolution_param {
    num_output: 216
    pad: 2
    kernel_size: 3
    stride: 1
    weight_filler {
      type: "gaussian"
      std: 0.01
    }
    bias_filler {
      type: "constant"
    }
  }
}
layer {
  name: "Sigmoid1"
  type: "Sigmoid"
  bottom: "conv1"
  top: "Sigmoid1"
}
layer {
  name: "pool1"
  type: "Pooling"
  bottom: "Sigmoid1"
  top: "pool1"
  pooling_param {
    pool: AVE
    kernel_size: 3
    stride: 2
  }
}
layer {
  name: "ip1"
  type: "InnerProduct"
  bottom: "pool1"
  top: "ip1"
  param {
    lr_mult: 1
  }
  param {
    lr_mult: 2
  }
  inner_product_param {
    num_output: 10
    weight_filler {
      type: "gaussian"
      std: 0.01
    }
    bias_filler {
      type: "constant"
    }
  }
}
layer {
  name: "relu1"
  type: "ReLU"
  bottom: "ip1"
  top: "ip1"
}
layer {
  name: "ip2"
  type: "InnerProduct"
  bottom: "ip1"
  top: "ip2"
  param {
    lr_mult: 1
  }
  param {
    lr_mult: 2
  }
  inner_product_param {
    num_output: 60
    weight_filler {
      type: "gaussian"
      std: 0.01
    }
    bias_filler {
      type: "constant"
    }
  }
}
layer {
  name: "relu2"
  type: "ReLU"
  bottom: "ip2"
  top: "ip2"
}
layer {
  name: "ip3"
  type: "InnerProduct"
  bottom: "ip2"
  top: "ip3"
  param {
    lr_mult: 1
  }
  param {
    lr_mult: 2
  }
  inner_product_param {
    num_output: 10
    weight_filler {
      type: "gaussian"
      std: 0.01
    }
    bias_filler {
      type: "constant"
    }
  }
}
layer {
  name: "accuracy"
  type: "Accuracy"
  bottom: "ip3"
  bottom: "label"
  top: "accuracy"
  include {
    phase: TEST
  }
}
layer {
  name: "loss"
  type: "SoftmaxWithLoss"
  bottom: "ip3"
  bottom: "label"
  top: "loss"
}
I0504 13:02:07.263062 31280 layer_factory.hpp:77] Creating layer cifar
I0504 13:02:07.263106 31280 db_lmdb.cpp:35] Opened lmdb examples/cifar10/cifar10_test_lmdb
I0504 13:02:07.263118 31280 net.cpp:86] Creating Layer cifar
I0504 13:02:07.263124 31280 net.cpp:382] cifar -> data
I0504 13:02:07.263147 31280 net.cpp:382] cifar -> label
I0504 13:02:07.263154 31280 data_transformer.cpp:25] Loading mean file from: examples/cifar10/mean.binaryproto
I0504 13:02:07.263293 31280 data_layer.cpp:45] output data size: 1000,3,32,32
I0504 13:02:07.284711 31280 net.cpp:124] Setting up cifar
I0504 13:02:07.284752 31280 net.cpp:131] Top shape: 1000 3 32 32 (3072000)
I0504 13:02:07.284759 31280 net.cpp:131] Top shape: 1000 (1000)
I0504 13:02:07.284761 31280 net.cpp:139] Memory required for data: 12292000
I0504 13:02:07.284766 31280 layer_factory.hpp:77] Creating layer label_cifar_1_split
I0504 13:02:07.284785 31280 net.cpp:86] Creating Layer label_cifar_1_split
I0504 13:02:07.284788 31280 net.cpp:408] label_cifar_1_split <- label
I0504 13:02:07.284817 31280 net.cpp:382] label_cifar_1_split -> label_cifar_1_split_0
I0504 13:02:07.284865 31280 net.cpp:382] label_cifar_1_split -> label_cifar_1_split_1
I0504 13:02:07.285018 31280 net.cpp:124] Setting up label_cifar_1_split
I0504 13:02:07.285027 31280 net.cpp:131] Top shape: 1000 (1000)
I0504 13:02:07.285032 31280 net.cpp:131] Top shape: 1000 (1000)
I0504 13:02:07.285034 31280 net.cpp:139] Memory required for data: 12300000
I0504 13:02:07.285038 31280 layer_factory.hpp:77] Creating layer conv0
I0504 13:02:07.285051 31280 net.cpp:86] Creating Layer conv0
I0504 13:02:07.285055 31280 net.cpp:408] conv0 <- data
I0504 13:02:07.285061 31280 net.cpp:382] conv0 -> conv0
I0504 13:02:07.286674 31280 net.cpp:124] Setting up conv0
I0504 13:02:07.286702 31280 net.cpp:131] Top shape: 1000 24 32 32 (24576000)
I0504 13:02:07.286706 31280 net.cpp:139] Memory required for data: 110604000
I0504 13:02:07.286715 31280 layer_factory.hpp:77] Creating layer Sigmoid0
I0504 13:02:07.286723 31280 net.cpp:86] Creating Layer Sigmoid0
I0504 13:02:07.286727 31280 net.cpp:408] Sigmoid0 <- conv0
I0504 13:02:07.286731 31280 net.cpp:382] Sigmoid0 -> Sigmoid0
I0504 13:02:07.286912 31280 net.cpp:124] Setting up Sigmoid0
I0504 13:02:07.286936 31280 net.cpp:131] Top shape: 1000 24 32 32 (24576000)
I0504 13:02:07.286942 31280 net.cpp:139] Memory required for data: 208908000
I0504 13:02:07.286945 31280 layer_factory.hpp:77] Creating layer pool0
I0504 13:02:07.286953 31280 net.cpp:86] Creating Layer pool0
I0504 13:02:07.286957 31280 net.cpp:408] pool0 <- Sigmoid0
I0504 13:02:07.286962 31280 net.cpp:382] pool0 -> pool0
I0504 13:02:07.288218 31280 net.cpp:124] Setting up pool0
I0504 13:02:07.288244 31280 net.cpp:131] Top shape: 1000 24 16 16 (6144000)
I0504 13:02:07.288247 31280 net.cpp:139] Memory required for data: 233484000
I0504 13:02:07.288250 31280 layer_factory.hpp:77] Creating layer conv1
I0504 13:02:07.288276 31280 net.cpp:86] Creating Layer conv1
I0504 13:02:07.288295 31280 net.cpp:408] conv1 <- pool0
I0504 13:02:07.288301 31280 net.cpp:382] conv1 -> conv1
I0504 13:02:07.291018 31280 net.cpp:124] Setting up conv1
I0504 13:02:07.291030 31280 net.cpp:131] Top shape: 1000 216 18 18 (69984000)
I0504 13:02:07.291050 31280 net.cpp:139] Memory required for data: 513420000
I0504 13:02:07.291059 31280 layer_factory.hpp:77] Creating layer Sigmoid1
I0504 13:02:07.291064 31280 net.cpp:86] Creating Layer Sigmoid1
I0504 13:02:07.291067 31280 net.cpp:408] Sigmoid1 <- conv1
I0504 13:02:07.291074 31280 net.cpp:382] Sigmoid1 -> Sigmoid1
I0504 13:02:07.291257 31280 net.cpp:124] Setting up Sigmoid1
I0504 13:02:07.291267 31280 net.cpp:131] Top shape: 1000 216 18 18 (69984000)
I0504 13:02:07.291271 31280 net.cpp:139] Memory required for data: 793356000
I0504 13:02:07.291275 31280 layer_factory.hpp:77] Creating layer pool1
I0504 13:02:07.291281 31280 net.cpp:86] Creating Layer pool1
I0504 13:02:07.291285 31280 net.cpp:408] pool1 <- Sigmoid1
I0504 13:02:07.291288 31280 net.cpp:382] pool1 -> pool1
I0504 13:02:07.292055 31280 net.cpp:124] Setting up pool1
I0504 13:02:07.292068 31280 net.cpp:131] Top shape: 1000 216 9 9 (17496000)
I0504 13:02:07.292085 31280 net.cpp:139] Memory required for data: 863340000
I0504 13:02:07.292088 31280 layer_factory.hpp:77] Creating layer ip1
I0504 13:02:07.292098 31280 net.cpp:86] Creating Layer ip1
I0504 13:02:07.292102 31280 net.cpp:408] ip1 <- pool1
I0504 13:02:07.292109 31280 net.cpp:382] ip1 -> ip1
I0504 13:02:07.296735 31280 net.cpp:124] Setting up ip1
I0504 13:02:07.296742 31280 net.cpp:131] Top shape: 1000 10 (10000)
I0504 13:02:07.296746 31280 net.cpp:139] Memory required for data: 863380000
I0504 13:02:07.296767 31280 layer_factory.hpp:77] Creating layer relu1
I0504 13:02:07.296774 31280 net.cpp:86] Creating Layer relu1
I0504 13:02:07.296777 31280 net.cpp:408] relu1 <- ip1
I0504 13:02:07.296782 31280 net.cpp:369] relu1 -> ip1 (in-place)
I0504 13:02:07.296974 31280 net.cpp:124] Setting up relu1
I0504 13:02:07.296984 31280 net.cpp:131] Top shape: 1000 10 (10000)
I0504 13:02:07.296988 31280 net.cpp:139] Memory required for data: 863420000
I0504 13:02:07.296990 31280 layer_factory.hpp:77] Creating layer ip2
I0504 13:02:07.297000 31280 net.cpp:86] Creating Layer ip2
I0504 13:02:07.297003 31280 net.cpp:408] ip2 <- ip1
I0504 13:02:07.297010 31280 net.cpp:382] ip2 -> ip2
I0504 13:02:07.297166 31280 net.cpp:124] Setting up ip2
I0504 13:02:07.297173 31280 net.cpp:131] Top shape: 1000 60 (60000)
I0504 13:02:07.297176 31280 net.cpp:139] Memory required for data: 863660000
I0504 13:02:07.297181 31280 layer_factory.hpp:77] Creating layer relu2
I0504 13:02:07.297188 31280 net.cpp:86] Creating Layer relu2
I0504 13:02:07.297190 31280 net.cpp:408] relu2 <- ip2
I0504 13:02:07.297194 31280 net.cpp:369] relu2 -> ip2 (in-place)
I0504 13:02:07.297370 31280 net.cpp:124] Setting up relu2
I0504 13:02:07.297379 31280 net.cpp:131] Top shape: 1000 60 (60000)
I0504 13:02:07.297381 31280 net.cpp:139] Memory required for data: 863900000
I0504 13:02:07.297384 31280 layer_factory.hpp:77] Creating layer ip3
I0504 13:02:07.297390 31280 net.cpp:86] Creating Layer ip3
I0504 13:02:07.297394 31280 net.cpp:408] ip3 <- ip2
I0504 13:02:07.297399 31280 net.cpp:382] ip3 -> ip3
I0504 13:02:07.297513 31280 net.cpp:124] Setting up ip3
I0504 13:02:07.297519 31280 net.cpp:131] Top shape: 1000 10 (10000)
I0504 13:02:07.297533 31280 net.cpp:139] Memory required for data: 863940000
I0504 13:02:07.297544 31280 layer_factory.hpp:77] Creating layer ip3_ip3_0_split
I0504 13:02:07.297549 31280 net.cpp:86] Creating Layer ip3_ip3_0_split
I0504 13:02:07.297551 31280 net.cpp:408] ip3_ip3_0_split <- ip3
I0504 13:02:07.297557 31280 net.cpp:382] ip3_ip3_0_split -> ip3_ip3_0_split_0
I0504 13:02:07.297562 31280 net.cpp:382] ip3_ip3_0_split -> ip3_ip3_0_split_1
I0504 13:02:07.297595 31280 net.cpp:124] Setting up ip3_ip3_0_split
I0504 13:02:07.297598 31280 net.cpp:131] Top shape: 1000 10 (10000)
I0504 13:02:07.297602 31280 net.cpp:131] Top shape: 1000 10 (10000)
I0504 13:02:07.297605 31280 net.cpp:139] Memory required for data: 864020000
I0504 13:02:07.297608 31280 layer_factory.hpp:77] Creating layer accuracy
I0504 13:02:07.297615 31280 net.cpp:86] Creating Layer accuracy
I0504 13:02:07.297617 31280 net.cpp:408] accuracy <- ip3_ip3_0_split_0
I0504 13:02:07.297621 31280 net.cpp:408] accuracy <- label_cifar_1_split_0
I0504 13:02:07.297626 31280 net.cpp:382] accuracy -> accuracy
…
