…
I0504 09:58:53.320036 24512 net.cpp:296] The NetState phase (0) differed from the phase (1) specified by a rule in layer cifar
I0504 09:58:53.320056 24512 net.cpp:296] The NetState phase (0) differed from the phase (1) specified by a rule in layer accuracy
I0504 09:58:53.320173 24512 net.cpp:53] Initializing net from parameters: 
name: "CIFAR"
state {
  phase: TRAIN
  level: 0
  stage: ""
}
layer {
  name: "cifar"
  type: "Data"
  top: "data"
  top: "label"
  include {
    phase: TRAIN
  }
  transform_param {
    mean_file: "examples/cifar10/mean.binaryproto"
  }
  data_param {
    source: "examples/cifar10/cifar10_train_lmdb"
    batch_size: 111
    backend: LMDB
  }
}
layer {
  name: "conv0"
  type: "Convolution"
  bottom: "data"
  top: "conv0"
  param {
    lr_mult: 1
  }
  param {
    lr_mult: 2
  }
  convolution_param {
    num_output: 24
    pad: 2
    kernel_size: 5
    stride: 1
    weight_filler {
      type: "gaussian"
      std: 0.01
    }
    bias_filler {
      type: "constant"
    }
  }
}
layer {
  name: "Sigmoid0"
  type: "Sigmoid"
  bottom: "conv0"
  top: "Sigmoid0"
}
layer {
  name: "pool0"
  type: "Pooling"
  bottom: "Sigmoid0"
  top: "pool0"
  pooling_param {
    pool: AVE
    kernel_size: 3
    stride: 2
  }
}
layer {
  name: "conv1"
  type: "Convolution"
  bottom: "pool0"
  top: "conv1"
  param {
    lr_mult: 1
  }
  param {
    lr_mult: 2
  }
  convolution_param {
    num_output: 72
    pad: 2
    kernel_size: 3
    stride: 1
    weight_filler {
      type: "gaussian"
      std: 0.01
    }
    bias_filler {
      type: "constant"
    }
  }
}
layer {
  name: "Sigmoid1"
  type: "Sigmoid"
  bottom: "conv1"
  top: "Sigmoid1"
}
layer {
  name: "pool1"
  type: "Pooling"
  bottom: "Sigmoid1"
  top: "pool1"
  pooling_param {
    pool: AVE
    kernel_size: 3
    stride: 2
  }
}
layer {
  name: "ip1"
  type: "InnerProduct"
  bottom: "pool1"
  top: "ip1"
  param {
    lr_mult: 1
  }
  param {
    lr_mult: 2
  }
  inner_product_param {
    num_output: 60
    weight_filler {
      type: "gaussian"
      std: 0.01
    }
    bias_filler {
      type: "constant"
    }
  }
}
layer {
  name: "relu1"
  type: "ReLU"
  bottom: "ip1"
  top: "ip1"
}
layer {
  name: "ip2"
  type: "InnerProduct"
  bottom: "ip1"
  top: "ip2"
  param {
    lr_mult: 1
  }
  param {
    lr_mult: 2
  }
  inner_product_param {
    num_output: 60
    weight_filler {
      type: "gaussian"
      std: 0.01
    }
    bias_filler {
      type: "constant"
    }
  }
}
layer {
  name: "relu2"
  type: "ReLU"
  bottom: "ip2"
  top: "ip2"
}
layer {
  name: "ip3"
  type: "InnerProduct"
  bottom: "ip2"
  top: "ip3"
  param {
    lr_mult: 1
  }
  param {
    lr_mult: 2
  }
  inner_product_param {
    num_output: 10
    weight_filler {
      type: "gaussian"
      std: 0.01
    }
    bias_filler {
      type: "constant"
    }
  }
}
layer {
  name: "loss"
  type: "SoftmaxWithLoss"
  bottom: "ip3"
  bottom: "label"
  top: "loss"
}
I0504 09:58:53.320256 24512 layer_factory.hpp:77] Creating layer cifar
I0504 09:58:53.320356 24512 db_lmdb.cpp:35] Opened lmdb examples/cifar10/cifar10_train_lmdb
I0504 09:58:53.320384 24512 net.cpp:86] Creating Layer cifar
I0504 09:58:53.320394 24512 net.cpp:382] cifar -> data
I0504 09:58:53.320415 24512 net.cpp:382] cifar -> label
I0504 09:58:53.320427 24512 data_transformer.cpp:25] Loading mean file from: examples/cifar10/mean.binaryproto
I0504 09:58:53.322608 24512 data_layer.cpp:45] output data size: 111,3,32,32
I0504 09:58:53.330626 24512 net.cpp:124] Setting up cifar
I0504 09:58:53.330649 24512 net.cpp:131] Top shape: 111 3 32 32 (340992)
I0504 09:58:53.330655 24512 net.cpp:131] Top shape: 111 (111)
I0504 09:58:53.330659 24512 net.cpp:139] Memory required for data: 1364412
I0504 09:58:53.330667 24512 layer_factory.hpp:77] Creating layer conv0
I0504 09:58:53.330687 24512 net.cpp:86] Creating Layer conv0
I0504 09:58:53.330693 24512 net.cpp:408] conv0 <- data
I0504 09:58:53.330705 24512 net.cpp:382] conv0 -> conv0
I0504 09:58:53.617867 24512 net.cpp:124] Setting up conv0
I0504 09:58:53.617897 24512 net.cpp:131] Top shape: 111 24 32 32 (2727936)
I0504 09:58:53.617900 24512 net.cpp:139] Memory required for data: 12276156
I0504 09:58:53.617915 24512 layer_factory.hpp:77] Creating layer Sigmoid0
I0504 09:58:53.617928 24512 net.cpp:86] Creating Layer Sigmoid0
I0504 09:58:53.617933 24512 net.cpp:408] Sigmoid0 <- conv0
I0504 09:58:53.617938 24512 net.cpp:382] Sigmoid0 -> Sigmoid0
I0504 09:58:53.618109 24512 net.cpp:124] Setting up Sigmoid0
I0504 09:58:53.618119 24512 net.cpp:131] Top shape: 111 24 32 32 (2727936)
I0504 09:58:53.618124 24512 net.cpp:139] Memory required for data: 23187900
I0504 09:58:53.618126 24512 layer_factory.hpp:77] Creating layer pool0
I0504 09:58:53.618134 24512 net.cpp:86] Creating Layer pool0
I0504 09:58:53.618136 24512 net.cpp:408] pool0 <- Sigmoid0
I0504 09:58:53.618141 24512 net.cpp:382] pool0 -> pool0
I0504 09:58:53.618878 24512 net.cpp:124] Setting up pool0
I0504 09:58:53.618892 24512 net.cpp:131] Top shape: 111 24 16 16 (681984)
I0504 09:58:53.618896 24512 net.cpp:139] Memory required for data: 25915836
I0504 09:58:53.618899 24512 layer_factory.hpp:77] Creating layer conv1
I0504 09:58:53.618911 24512 net.cpp:86] Creating Layer conv1
I0504 09:58:53.618916 24512 net.cpp:408] conv1 <- pool0
I0504 09:58:53.618921 24512 net.cpp:382] conv1 -> conv1
I0504 09:58:53.621923 24512 net.cpp:124] Setting up conv1
I0504 09:58:53.621937 24512 net.cpp:131] Top shape: 111 72 18 18 (2589408)
I0504 09:58:53.621942 24512 net.cpp:139] Memory required for data: 36273468
I0504 09:58:53.621950 24512 layer_factory.hpp:77] Creating layer Sigmoid1
I0504 09:58:53.621956 24512 net.cpp:86] Creating Layer Sigmoid1
I0504 09:58:53.621960 24512 net.cpp:408] Sigmoid1 <- conv1
I0504 09:58:53.621964 24512 net.cpp:382] Sigmoid1 -> Sigmoid1
I0504 09:58:53.622135 24512 net.cpp:124] Setting up Sigmoid1
I0504 09:58:53.622145 24512 net.cpp:131] Top shape: 111 72 18 18 (2589408)
I0504 09:58:53.622148 24512 net.cpp:139] Memory required for data: 46631100
I0504 09:58:53.622153 24512 layer_factory.hpp:77] Creating layer pool1
I0504 09:58:53.622159 24512 net.cpp:86] Creating Layer pool1
I0504 09:58:53.622161 24512 net.cpp:408] pool1 <- Sigmoid1
I0504 09:58:53.622165 24512 net.cpp:382] pool1 -> pool1
I0504 09:58:53.622328 24512 net.cpp:124] Setting up pool1
I0504 09:58:53.622336 24512 net.cpp:131] Top shape: 111 72 9 9 (647352)
I0504 09:58:53.622339 24512 net.cpp:139] Memory required for data: 49220508
I0504 09:58:53.622344 24512 layer_factory.hpp:77] Creating layer ip1
I0504 09:58:53.622350 24512 net.cpp:86] Creating Layer ip1
I0504 09:58:53.622355 24512 net.cpp:408] ip1 <- pool1
I0504 09:58:53.622360 24512 net.cpp:382] ip1 -> ip1
I0504 09:58:53.632508 24512 net.cpp:124] Setting up ip1
I0504 09:58:53.632520 24512 net.cpp:131] Top shape: 111 60 (6660)
I0504 09:58:53.632524 24512 net.cpp:139] Memory required for data: 49247148
I0504 09:58:53.632531 24512 layer_factory.hpp:77] Creating layer relu1
I0504 09:58:53.632539 24512 net.cpp:86] Creating Layer relu1
I0504 09:58:53.632542 24512 net.cpp:408] relu1 <- ip1
I0504 09:58:53.632546 24512 net.cpp:369] relu1 -> ip1 (in-place)
I0504 09:58:53.632731 24512 net.cpp:124] Setting up relu1
I0504 09:58:53.632740 24512 net.cpp:131] Top shape: 111 60 (6660)
I0504 09:58:53.632745 24512 net.cpp:139] Memory required for data: 49273788
I0504 09:58:53.632747 24512 layer_factory.hpp:77] Creating layer ip2
I0504 09:58:53.632755 24512 net.cpp:86] Creating Layer ip2
I0504 09:58:53.632757 24512 net.cpp:408] ip2 <- ip1
I0504 09:58:53.632776 24512 net.cpp:382] ip2 -> ip2
I0504 09:58:53.633005 24512 net.cpp:124] Setting up ip2
I0504 09:58:53.633014 24512 net.cpp:131] Top shape: 111 60 (6660)
I0504 09:58:53.633018 24512 net.cpp:139] Memory required for data: 49300428
I0504 09:58:53.633023 24512 layer_factory.hpp:77] Creating layer relu2
I0504 09:58:53.633028 24512 net.cpp:86] Creating Layer relu2
I0504 09:58:53.633030 24512 net.cpp:408] relu2 <- ip2
I0504 09:58:53.633034 24512 net.cpp:369] relu2 -> ip2 (in-place)
I0504 09:58:53.633730 24512 net.cpp:124] Setting up relu2
I0504 09:58:53.633743 24512 net.cpp:131] Top shape: 111 60 (6660)
I0504 09:58:53.633746 24512 net.cpp:139] Memory required for data: 49327068
I0504 09:58:53.633749 24512 layer_factory.hpp:77] Creating layer ip3
I0504 09:58:53.633756 24512 net.cpp:86] Creating Layer ip3
I0504 09:58:53.633759 24512 net.cpp:408] ip3 <- ip2
I0504 09:58:53.633764 24512 net.cpp:382] ip3 -> ip3
I0504 09:58:53.633879 24512 net.cpp:124] Setting up ip3
I0504 09:58:53.633886 24512 net.cpp:131] Top shape: 111 10 (1110)
I0504 09:58:53.633889 24512 net.cpp:139] Memory required for data: 49331508
I0504 09:58:53.633898 24512 layer_factory.hpp:77] Creating layer loss
I0504 09:58:53.633903 24512 net.cpp:86] Creating Layer loss
I0504 09:58:53.633906 24512 net.cpp:408] loss <- ip3
I0504 09:58:53.633910 24512 net.cpp:408] loss <- label
I0504 09:58:53.633915 24512 net.cpp:382] loss -> loss
I0504 09:58:53.633932 24512 layer_factory.hpp:77] Creating layer loss
…
I0504 09:58:53.634562 24512 solver.cpp:173] Creating test net (#0) specified by net file: ECE595/cifar/train_test/var_everything_tiny/cifar_train_test_127.prototxt
I0504 09:58:53.634589 24512 net.cpp:296] The NetState phase (1) differed from the phase (0) specified by a rule in layer cifar
I0504 09:58:53.634682 24512 net.cpp:53] Initializing net from parameters: 
name: "CIFAR"
state {
  phase: TEST
}
layer {
  name: "cifar"
  type: "Data"
  top: "data"
  top: "label"
  include {
    phase: TEST
  }
  transform_param {
    mean_file: "examples/cifar10/mean.binaryproto"
  }
  data_param {
    source: "examples/cifar10/cifar10_test_lmdb"
    batch_size: 1000
    backend: LMDB
  }
}
layer {
  name: "conv0"
  type: "Convolution"
  bottom: "data"
  top: "conv0"
  param {
    lr_mult: 1
  }
  param {
    lr_mult: 2
  }
  convolution_param {
    num_output: 24
    pad: 2
    kernel_size: 5
    stride: 1
    weight_filler {
      type: "gaussian"
      std: 0.01
    }
    bias_filler {
      type: "constant"
    }
  }
}
layer {
  name: "Sigmoid0"
  type: "Sigmoid"
  bottom: "conv0"
  top: "Sigmoid0"
}
layer {
  name: "pool0"
  type: "Pooling"
  bottom: "Sigmoid0"
  top: "pool0"
  pooling_param {
    pool: AVE
    kernel_size: 3
    stride: 2
  }
}
layer {
  name: "conv1"
  type: "Convolution"
  bottom: "pool0"
  top: "conv1"
  param {
    lr_mult: 1
  }
  param {
    lr_mult: 2
  }
  convolution_param {
    num_output: 72
    pad: 2
    kernel_size: 3
    stride: 1
    weight_filler {
      type: "gaussian"
      std: 0.01
    }
    bias_filler {
      type: "constant"
    }
  }
}
layer {
  name: "Sigmoid1"
  type: "Sigmoid"
  bottom: "conv1"
  top: "Sigmoid1"
}
layer {
  name: "pool1"
  type: "Pooling"
  bottom: "Sigmoid1"
  top: "pool1"
  pooling_param {
    pool: AVE
    kernel_size: 3
    stride: 2
  }
}
layer {
  name: "ip1"
  type: "InnerProduct"
  bottom: "pool1"
  top: "ip1"
  param {
    lr_mult: 1
  }
  param {
    lr_mult: 2
  }
  inner_product_param {
    num_output: 60
    weight_filler {
      type: "gaussian"
      std: 0.01
    }
    bias_filler {
      type: "constant"
    }
  }
}
layer {
  name: "relu1"
  type: "ReLU"
  bottom: "ip1"
  top: "ip1"
}
layer {
  name: "ip2"
  type: "InnerProduct"
  bottom: "ip1"
  top: "ip2"
  param {
    lr_mult: 1
  }
  param {
    lr_mult: 2
  }
  inner_product_param {
    num_output: 60
    weight_filler {
      type: "gaussian"
      std: 0.01
    }
    bias_filler {
      type: "constant"
    }
  }
}
layer {
  name: "relu2"
  type: "ReLU"
  bottom: "ip2"
  top: "ip2"
}
layer {
  name: "ip3"
  type: "InnerProduct"
  bottom: "ip2"
  top: "ip3"
  param {
    lr_mult: 1
  }
  param {
    lr_mult: 2
  }
  inner_product_param {
    num_output: 10
    weight_filler {
      type: "gaussian"
      std: 0.01
    }
    bias_filler {
      type: "constant"
    }
  }
}
layer {
  name: "accuracy"
  type: "Accuracy"
  bottom: "ip3"
  bottom: "label"
  top: "accuracy"
  include {
    phase: TEST
  }
}
layer {
  name: "loss"
  type: "SoftmaxWithLoss"
  bottom: "ip3"
  bottom: "label"
  top: "loss"
}
I0504 09:58:53.634762 24512 layer_factory.hpp:77] Creating layer cifar
I0504 09:58:53.634804 24512 db_lmdb.cpp:35] Opened lmdb examples/cifar10/cifar10_test_lmdb
I0504 09:58:53.634817 24512 net.cpp:86] Creating Layer cifar
I0504 09:58:53.634824 24512 net.cpp:382] cifar -> data
I0504 09:58:53.634846 24512 net.cpp:382] cifar -> label
I0504 09:58:53.634867 24512 data_transformer.cpp:25] Loading mean file from: examples/cifar10/mean.binaryproto
I0504 09:58:53.635007 24512 data_layer.cpp:45] output data size: 1000,3,32,32
I0504 09:58:53.656489 24512 net.cpp:124] Setting up cifar
I0504 09:58:53.656529 24512 net.cpp:131] Top shape: 1000 3 32 32 (3072000)
I0504 09:58:53.656536 24512 net.cpp:131] Top shape: 1000 (1000)
I0504 09:58:53.656539 24512 net.cpp:139] Memory required for data: 12292000
I0504 09:58:53.656548 24512 layer_factory.hpp:77] Creating layer label_cifar_1_split
I0504 09:58:53.656563 24512 net.cpp:86] Creating Layer label_cifar_1_split
I0504 09:58:53.656568 24512 net.cpp:408] label_cifar_1_split <- label
I0504 09:58:53.656574 24512 net.cpp:382] label_cifar_1_split -> label_cifar_1_split_0
I0504 09:58:53.656582 24512 net.cpp:382] label_cifar_1_split -> label_cifar_1_split_1
I0504 09:58:53.656697 24512 net.cpp:124] Setting up label_cifar_1_split
I0504 09:58:53.656704 24512 net.cpp:131] Top shape: 1000 (1000)
I0504 09:58:53.656708 24512 net.cpp:131] Top shape: 1000 (1000)
I0504 09:58:53.656711 24512 net.cpp:139] Memory required for data: 12300000
I0504 09:58:53.656714 24512 layer_factory.hpp:77] Creating layer conv0
I0504 09:58:53.656726 24512 net.cpp:86] Creating Layer conv0
I0504 09:58:53.656733 24512 net.cpp:408] conv0 <- data
I0504 09:58:53.656752 24512 net.cpp:382] conv0 -> conv0
I0504 09:58:53.658409 24512 net.cpp:124] Setting up conv0
I0504 09:58:53.658438 24512 net.cpp:131] Top shape: 1000 24 32 32 (24576000)
I0504 09:58:53.658442 24512 net.cpp:139] Memory required for data: 110604000
I0504 09:58:53.658452 24512 layer_factory.hpp:77] Creating layer Sigmoid0
I0504 09:58:53.658458 24512 net.cpp:86] Creating Layer Sigmoid0
I0504 09:58:53.658463 24512 net.cpp:408] Sigmoid0 <- conv0
I0504 09:58:53.658466 24512 net.cpp:382] Sigmoid0 -> Sigmoid0
I0504 09:58:53.658668 24512 net.cpp:124] Setting up Sigmoid0
I0504 09:58:53.658691 24512 net.cpp:131] Top shape: 1000 24 32 32 (24576000)
I0504 09:58:53.658695 24512 net.cpp:139] Memory required for data: 208908000
I0504 09:58:53.658699 24512 layer_factory.hpp:77] Creating layer pool0
I0504 09:58:53.658707 24512 net.cpp:86] Creating Layer pool0
I0504 09:58:53.658712 24512 net.cpp:408] pool0 <- Sigmoid0
I0504 09:58:53.658717 24512 net.cpp:382] pool0 -> pool0
I0504 09:58:53.658987 24512 net.cpp:124] Setting up pool0
I0504 09:58:53.658998 24512 net.cpp:131] Top shape: 1000 24 16 16 (6144000)
I0504 09:58:53.659000 24512 net.cpp:139] Memory required for data: 233484000
I0504 09:58:53.659004 24512 layer_factory.hpp:77] Creating layer conv1
I0504 09:58:53.659013 24512 net.cpp:86] Creating Layer conv1
I0504 09:58:53.659016 24512 net.cpp:408] conv1 <- pool0
I0504 09:58:53.659023 24512 net.cpp:382] conv1 -> conv1
I0504 09:58:53.661732 24512 net.cpp:124] Setting up conv1
I0504 09:58:53.661763 24512 net.cpp:131] Top shape: 1000 72 18 18 (23328000)
I0504 09:58:53.661767 24512 net.cpp:139] Memory required for data: 326796000
I0504 09:58:53.661777 24512 layer_factory.hpp:77] Creating layer Sigmoid1
I0504 09:58:53.661783 24512 net.cpp:86] Creating Layer Sigmoid1
I0504 09:58:53.661787 24512 net.cpp:408] Sigmoid1 <- conv1
I0504 09:58:53.661792 24512 net.cpp:382] Sigmoid1 -> Sigmoid1
I0504 09:58:53.661979 24512 net.cpp:124] Setting up Sigmoid1
I0504 09:58:53.661990 24512 net.cpp:131] Top shape: 1000 72 18 18 (23328000)
I0504 09:58:53.661993 24512 net.cpp:139] Memory required for data: 420108000
I0504 09:58:53.661998 24512 layer_factory.hpp:77] Creating layer pool1
I0504 09:58:53.662003 24512 net.cpp:86] Creating Layer pool1
I0504 09:58:53.662006 24512 net.cpp:408] pool1 <- Sigmoid1
I0504 09:58:53.662011 24512 net.cpp:382] pool1 -> pool1
I0504 09:58:53.662775 24512 net.cpp:124] Setting up pool1
I0504 09:58:53.662786 24512 net.cpp:131] Top shape: 1000 72 9 9 (5832000)
I0504 09:58:53.662806 24512 net.cpp:139] Memory required for data: 443436000
I0504 09:58:53.662808 24512 layer_factory.hpp:77] Creating layer ip1
I0504 09:58:53.662817 24512 net.cpp:86] Creating Layer ip1
I0504 09:58:53.662820 24512 net.cpp:408] ip1 <- pool1
I0504 09:58:53.662827 24512 net.cpp:382] ip1 -> ip1
I0504 09:58:53.673233 24512 net.cpp:124] Setting up ip1
I0504 09:58:53.673245 24512 net.cpp:131] Top shape: 1000 60 (60000)
I0504 09:58:53.673264 24512 net.cpp:139] Memory required for data: 443676000
I0504 09:58:53.673272 24512 layer_factory.hpp:77] Creating layer relu1
I0504 09:58:53.673279 24512 net.cpp:86] Creating Layer relu1
I0504 09:58:53.673282 24512 net.cpp:408] relu1 <- ip1
I0504 09:58:53.673287 24512 net.cpp:369] relu1 -> ip1 (in-place)
I0504 09:58:53.673466 24512 net.cpp:124] Setting up relu1
I0504 09:58:53.673475 24512 net.cpp:131] Top shape: 1000 60 (60000)
I0504 09:58:53.673480 24512 net.cpp:139] Memory required for data: 443916000
I0504 09:58:53.673482 24512 layer_factory.hpp:77] Creating layer ip2
I0504 09:58:53.673488 24512 net.cpp:86] Creating Layer ip2
I0504 09:58:53.673492 24512 net.cpp:408] ip2 <- ip1
I0504 09:58:53.673497 24512 net.cpp:382] ip2 -> ip2
I0504 09:58:53.673698 24512 net.cpp:124] Setting up ip2
I0504 09:58:53.673705 24512 net.cpp:131] Top shape: 1000 60 (60000)
I0504 09:58:53.673709 24512 net.cpp:139] Memory required for data: 444156000
I0504 09:58:53.673714 24512 layer_factory.hpp:77] Creating layer relu2
I0504 09:58:53.673719 24512 net.cpp:86] Creating Layer relu2
I0504 09:58:53.673722 24512 net.cpp:408] relu2 <- ip2
I0504 09:58:53.673727 24512 net.cpp:369] relu2 -> ip2 (in-place)
I0504 09:58:53.673879 24512 net.cpp:124] Setting up relu2
I0504 09:58:53.673887 24512 net.cpp:131] Top shape: 1000 60 (60000)
I0504 09:58:53.673890 24512 net.cpp:139] Memory required for data: 444396000
I0504 09:58:53.673893 24512 layer_factory.hpp:77] Creating layer ip3
I0504 09:58:53.673900 24512 net.cpp:86] Creating Layer ip3
I0504 09:58:53.673903 24512 net.cpp:408] ip3 <- ip2
I0504 09:58:53.673909 24512 net.cpp:382] ip3 -> ip3
I0504 09:58:53.674047 24512 net.cpp:124] Setting up ip3
I0504 09:58:53.674055 24512 net.cpp:131] Top shape: 1000 10 (10000)
I0504 09:58:53.674069 24512 net.cpp:139] Memory required for data: 444436000
I0504 09:58:53.674078 24512 layer_factory.hpp:77] Creating layer ip3_ip3_0_split
I0504 09:58:53.674083 24512 net.cpp:86] Creating Layer ip3_ip3_0_split
I0504 09:58:53.674087 24512 net.cpp:408] ip3_ip3_0_split <- ip3
I0504 09:58:53.674091 24512 net.cpp:382] ip3_ip3_0_split -> ip3_ip3_0_split_0
I0504 09:58:53.674098 24512 net.cpp:382] ip3_ip3_0_split -> ip3_ip3_0_split_1
I0504 09:58:53.674129 24512 net.cpp:124] Setting up ip3_ip3_0_split
I0504 09:58:53.674140 24512 net.cpp:131] Top shape: 1000 10 (10000)
I0504 09:58:53.674144 24512 net.cpp:131] Top shape: 1000 10 (10000)
I0504 09:58:53.674147 24512 net.cpp:139] Memory required for data: 444516000
I0504 09:58:53.674150 24512 layer_factory.hpp:77] Creating layer accuracy
I0504 09:58:53.674156 24512 net.cpp:86] Creating Layer accuracy
I0504 09:58:53.674160 24512 net.cpp:408] accuracy <- ip3_ip3_0_split_0
I0504 09:58:53.674163 24512 net.cpp:408] accuracy <- label_cifar_1_split_0
I0504 09:58:53.674170 24512 net.cpp:382] accuracy -> accuracy
…
