…
I0504 05:39:50.534976 14836 net.cpp:296] The NetState phase (0) differed from the phase (1) specified by a rule in layer cifar
I0504 05:39:50.534997 14836 net.cpp:296] The NetState phase (0) differed from the phase (1) specified by a rule in layer accuracy
I0504 05:39:50.535099 14836 net.cpp:53] Initializing net from parameters: 
name: "CIFAR"
state {
  phase: TRAIN
  level: 0
  stage: ""
}
layer {
  name: "cifar"
  type: "Data"
  top: "data"
  top: "label"
  include {
    phase: TRAIN
  }
  transform_param {
    mean_file: "examples/cifar10/mean.binaryproto"
  }
  data_param {
    source: "examples/cifar10/cifar10_train_lmdb"
    batch_size: 111
    backend: LMDB
  }
}
layer {
  name: "conv0"
  type: "Convolution"
  bottom: "data"
  top: "conv0"
  param {
    lr_mult: 1
  }
  param {
    lr_mult: 2
  }
  convolution_param {
    num_output: 216
    pad: 2
    kernel_size: 5
    stride: 1
    weight_filler {
      type: "gaussian"
      std: 0.01
    }
    bias_filler {
      type: "constant"
    }
  }
}
layer {
  name: "Sigmoid0"
  type: "Sigmoid"
  bottom: "conv0"
  top: "Sigmoid0"
}
layer {
  name: "pool0"
  type: "Pooling"
  bottom: "Sigmoid0"
  top: "pool0"
  pooling_param {
    pool: AVE
    kernel_size: 3
    stride: 2
  }
}
layer {
  name: "ip1"
  type: "InnerProduct"
  bottom: "pool0"
  top: "ip1"
  param {
    lr_mult: 1
  }
  param {
    lr_mult: 2
  }
  inner_product_param {
    num_output: 10
    weight_filler {
      type: "gaussian"
      std: 0.01
    }
    bias_filler {
      type: "constant"
    }
  }
}
layer {
  name: "relu1"
  type: "ReLU"
  bottom: "ip1"
  top: "ip1"
}
layer {
  name: "ip2"
  type: "InnerProduct"
  bottom: "ip1"
  top: "ip2"
  param {
    lr_mult: 1
  }
  param {
    lr_mult: 2
  }
  inner_product_param {
    num_output: 60
    weight_filler {
      type: "gaussian"
      std: 0.01
    }
    bias_filler {
      type: "constant"
    }
  }
}
layer {
  name: "relu2"
  type: "ReLU"
  bottom: "ip2"
  top: "ip2"
}
layer {
  name: "ip3"
  type: "InnerProduct"
  bottom: "ip2"
  top: "ip3"
  param {
    lr_mult: 1
  }
  param {
    lr_mult: 2
  }
  inner_product_param {
    num_output: 10
    weight_filler {
      type: "gaussian"
      std: 0.01
    }
    bias_filler {
      type: "constant"
    }
  }
}
layer {
  name: "loss"
  type: "SoftmaxWithLoss"
  bottom: "ip3"
  bottom: "label"
  top: "loss"
}
I0504 05:39:50.535173 14836 layer_factory.hpp:77] Creating layer cifar
I0504 05:39:50.535274 14836 db_lmdb.cpp:35] Opened lmdb examples/cifar10/cifar10_train_lmdb
I0504 05:39:50.535302 14836 net.cpp:86] Creating Layer cifar
I0504 05:39:50.535310 14836 net.cpp:382] cifar -> data
I0504 05:39:50.535333 14836 net.cpp:382] cifar -> label
I0504 05:39:50.535346 14836 data_transformer.cpp:25] Loading mean file from: examples/cifar10/mean.binaryproto
I0504 05:39:50.537456 14836 data_layer.cpp:45] output data size: 111,3,32,32
I0504 05:39:50.545344 14836 net.cpp:124] Setting up cifar
I0504 05:39:50.545366 14836 net.cpp:131] Top shape: 111 3 32 32 (340992)
I0504 05:39:50.545372 14836 net.cpp:131] Top shape: 111 (111)
I0504 05:39:50.545377 14836 net.cpp:139] Memory required for data: 1364412
I0504 05:39:50.545384 14836 layer_factory.hpp:77] Creating layer conv0
I0504 05:39:50.545403 14836 net.cpp:86] Creating Layer conv0
I0504 05:39:50.545408 14836 net.cpp:408] conv0 <- data
I0504 05:39:50.545419 14836 net.cpp:382] conv0 -> conv0
I0504 05:39:50.838470 14836 net.cpp:124] Setting up conv0
I0504 05:39:50.838521 14836 net.cpp:131] Top shape: 111 216 32 32 (24551424)
I0504 05:39:50.838526 14836 net.cpp:139] Memory required for data: 99570108
I0504 05:39:50.838543 14836 layer_factory.hpp:77] Creating layer Sigmoid0
I0504 05:39:50.838557 14836 net.cpp:86] Creating Layer Sigmoid0
I0504 05:39:50.838562 14836 net.cpp:408] Sigmoid0 <- conv0
I0504 05:39:50.838567 14836 net.cpp:382] Sigmoid0 -> Sigmoid0
I0504 05:39:50.838773 14836 net.cpp:124] Setting up Sigmoid0
I0504 05:39:50.838784 14836 net.cpp:131] Top shape: 111 216 32 32 (24551424)
I0504 05:39:50.838788 14836 net.cpp:139] Memory required for data: 197775804
I0504 05:39:50.838793 14836 layer_factory.hpp:77] Creating layer pool0
I0504 05:39:50.838800 14836 net.cpp:86] Creating Layer pool0
I0504 05:39:50.838804 14836 net.cpp:408] pool0 <- Sigmoid0
I0504 05:39:50.838809 14836 net.cpp:382] pool0 -> pool0
I0504 05:39:50.839664 14836 net.cpp:124] Setting up pool0
I0504 05:39:50.839680 14836 net.cpp:131] Top shape: 111 216 16 16 (6137856)
I0504 05:39:50.839684 14836 net.cpp:139] Memory required for data: 222327228
I0504 05:39:50.839687 14836 layer_factory.hpp:77] Creating layer ip1
I0504 05:39:50.839699 14836 net.cpp:86] Creating Layer ip1
I0504 05:39:50.839702 14836 net.cpp:408] ip1 <- pool0
I0504 05:39:50.839709 14836 net.cpp:382] ip1 -> ip1
I0504 05:39:50.857985 14836 net.cpp:124] Setting up ip1
I0504 05:39:50.857997 14836 net.cpp:131] Top shape: 111 10 (1110)
I0504 05:39:50.858001 14836 net.cpp:139] Memory required for data: 222331668
I0504 05:39:50.858011 14836 layer_factory.hpp:77] Creating layer relu1
I0504 05:39:50.858017 14836 net.cpp:86] Creating Layer relu1
I0504 05:39:50.858021 14836 net.cpp:408] relu1 <- ip1
I0504 05:39:50.858026 14836 net.cpp:369] relu1 -> ip1 (in-place)
I0504 05:39:50.858199 14836 net.cpp:124] Setting up relu1
I0504 05:39:50.858209 14836 net.cpp:131] Top shape: 111 10 (1110)
I0504 05:39:50.858213 14836 net.cpp:139] Memory required for data: 222336108
I0504 05:39:50.858217 14836 layer_factory.hpp:77] Creating layer ip2
I0504 05:39:50.858223 14836 net.cpp:86] Creating Layer ip2
I0504 05:39:50.858227 14836 net.cpp:408] ip2 <- ip1
I0504 05:39:50.858232 14836 net.cpp:382] ip2 -> ip2
I0504 05:39:50.858353 14836 net.cpp:124] Setting up ip2
I0504 05:39:50.858361 14836 net.cpp:131] Top shape: 111 60 (6660)
I0504 05:39:50.858364 14836 net.cpp:139] Memory required for data: 222362748
I0504 05:39:50.858372 14836 layer_factory.hpp:77] Creating layer relu2
I0504 05:39:50.858378 14836 net.cpp:86] Creating Layer relu2
I0504 05:39:50.858381 14836 net.cpp:408] relu2 <- ip2
I0504 05:39:50.858386 14836 net.cpp:369] relu2 -> ip2 (in-place)
I0504 05:39:50.858552 14836 net.cpp:124] Setting up relu2
I0504 05:39:50.858561 14836 net.cpp:131] Top shape: 111 60 (6660)
I0504 05:39:50.858566 14836 net.cpp:139] Memory required for data: 222389388
I0504 05:39:50.858568 14836 layer_factory.hpp:77] Creating layer ip3
I0504 05:39:50.858577 14836 net.cpp:86] Creating Layer ip3
I0504 05:39:50.858580 14836 net.cpp:408] ip3 <- ip2
I0504 05:39:50.858585 14836 net.cpp:382] ip3 -> ip3
I0504 05:39:50.858708 14836 net.cpp:124] Setting up ip3
I0504 05:39:50.858716 14836 net.cpp:131] Top shape: 111 10 (1110)
I0504 05:39:50.858719 14836 net.cpp:139] Memory required for data: 222393828
I0504 05:39:50.858726 14836 layer_factory.hpp:77] Creating layer loss
I0504 05:39:50.858731 14836 net.cpp:86] Creating Layer loss
I0504 05:39:50.858734 14836 net.cpp:408] loss <- ip3
I0504 05:39:50.858738 14836 net.cpp:408] loss <- label
I0504 05:39:50.858744 14836 net.cpp:382] loss -> loss
I0504 05:39:50.858763 14836 layer_factory.hpp:77] Creating layer loss
…
I0504 05:39:50.859421 14836 solver.cpp:173] Creating test net (#0) specified by net file: ECE595/cifar/train_test/var_everything_tiny/cifar_train_test_64.prototxt
I0504 05:39:50.859449 14836 net.cpp:296] The NetState phase (1) differed from the phase (0) specified by a rule in layer cifar
I0504 05:39:50.859540 14836 net.cpp:53] Initializing net from parameters: 
name: "CIFAR"
state {
  phase: TEST
}
layer {
  name: "cifar"
  type: "Data"
  top: "data"
  top: "label"
  include {
    phase: TEST
  }
  transform_param {
    mean_file: "examples/cifar10/mean.binaryproto"
  }
  data_param {
    source: "examples/cifar10/cifar10_test_lmdb"
    batch_size: 1000
    backend: LMDB
  }
}
layer {
  name: "conv0"
  type: "Convolution"
  bottom: "data"
  top: "conv0"
  param {
    lr_mult: 1
  }
  param {
    lr_mult: 2
  }
  convolution_param {
    num_output: 216
    pad: 2
    kernel_size: 5
    stride: 1
    weight_filler {
      type: "gaussian"
      std: 0.01
    }
    bias_filler {
      type: "constant"
    }
  }
}
layer {
  name: "Sigmoid0"
  type: "Sigmoid"
  bottom: "conv0"
  top: "Sigmoid0"
}
layer {
  name: "pool0"
  type: "Pooling"
  bottom: "Sigmoid0"
  top: "pool0"
  pooling_param {
    pool: AVE
    kernel_size: 3
    stride: 2
  }
}
layer {
  name: "ip1"
  type: "InnerProduct"
  bottom: "pool0"
  top: "ip1"
  param {
    lr_mult: 1
  }
  param {
    lr_mult: 2
  }
  inner_product_param {
    num_output: 10
    weight_filler {
      type: "gaussian"
      std: 0.01
    }
    bias_filler {
      type: "constant"
    }
  }
}
layer {
  name: "relu1"
  type: "ReLU"
  bottom: "ip1"
  top: "ip1"
}
layer {
  name: "ip2"
  type: "InnerProduct"
  bottom: "ip1"
  top: "ip2"
  param {
    lr_mult: 1
  }
  param {
    lr_mult: 2
  }
  inner_product_param {
    num_output: 60
    weight_filler {
      type: "gaussian"
      std: 0.01
    }
    bias_filler {
      type: "constant"
    }
  }
}
layer {
  name: "relu2"
  type: "ReLU"
  bottom: "ip2"
  top: "ip2"
}
layer {
  name: "ip3"
  type: "InnerProduct"
  bottom: "ip2"
  top: "ip3"
  param {
    lr_mult: 1
  }
  param {
    lr_mult: 2
  }
  inner_product_param {
    num_output: 10
    weight_filler {
      type: "gaussian"
      std: 0.01
    }
    bias_filler {
      type: "constant"
    }
  }
}
layer {
  name: "accuracy"
  type: "Accuracy"
  bottom: "ip3"
  bottom: "label"
  top: "accuracy"
  include {
    phase: TEST
  }
}
layer {
  name: "loss"
  type: "SoftmaxWithLoss"
  bottom: "ip3"
  bottom: "label"
  top: "loss"
}
I0504 05:39:50.859611 14836 layer_factory.hpp:77] Creating layer cifar
I0504 05:39:50.859659 14836 db_lmdb.cpp:35] Opened lmdb examples/cifar10/cifar10_test_lmdb
I0504 05:39:50.859674 14836 net.cpp:86] Creating Layer cifar
I0504 05:39:50.859681 14836 net.cpp:382] cifar -> data
I0504 05:39:50.859689 14836 net.cpp:382] cifar -> label
I0504 05:39:50.859699 14836 data_transformer.cpp:25] Loading mean file from: examples/cifar10/mean.binaryproto
I0504 05:39:50.859858 14836 data_layer.cpp:45] output data size: 1000,3,32,32
I0504 05:39:50.883472 14836 net.cpp:124] Setting up cifar
I0504 05:39:50.883498 14836 net.cpp:131] Top shape: 1000 3 32 32 (3072000)
I0504 05:39:50.883505 14836 net.cpp:131] Top shape: 1000 (1000)
I0504 05:39:50.883509 14836 net.cpp:139] Memory required for data: 12292000
I0504 05:39:50.883514 14836 layer_factory.hpp:77] Creating layer label_cifar_1_split
I0504 05:39:50.883549 14836 net.cpp:86] Creating Layer label_cifar_1_split
I0504 05:39:50.883554 14836 net.cpp:408] label_cifar_1_split <- label
I0504 05:39:50.883560 14836 net.cpp:382] label_cifar_1_split -> label_cifar_1_split_0
I0504 05:39:50.883569 14836 net.cpp:382] label_cifar_1_split -> label_cifar_1_split_1
I0504 05:39:50.883661 14836 net.cpp:124] Setting up label_cifar_1_split
I0504 05:39:50.883677 14836 net.cpp:131] Top shape: 1000 (1000)
I0504 05:39:50.883682 14836 net.cpp:131] Top shape: 1000 (1000)
I0504 05:39:50.883684 14836 net.cpp:139] Memory required for data: 12300000
I0504 05:39:50.883687 14836 layer_factory.hpp:77] Creating layer conv0
I0504 05:39:50.883699 14836 net.cpp:86] Creating Layer conv0
I0504 05:39:50.883703 14836 net.cpp:408] conv0 <- data
I0504 05:39:50.883708 14836 net.cpp:382] conv0 -> conv0
I0504 05:39:50.886816 14836 net.cpp:124] Setting up conv0
I0504 05:39:50.886832 14836 net.cpp:131] Top shape: 1000 216 32 32 (221184000)
I0504 05:39:50.886835 14836 net.cpp:139] Memory required for data: 897036000
I0504 05:39:50.886847 14836 layer_factory.hpp:77] Creating layer Sigmoid0
I0504 05:39:50.886853 14836 net.cpp:86] Creating Layer Sigmoid0
I0504 05:39:50.886857 14836 net.cpp:408] Sigmoid0 <- conv0
I0504 05:39:50.886864 14836 net.cpp:382] Sigmoid0 -> Sigmoid0
I0504 05:39:50.887661 14836 net.cpp:124] Setting up Sigmoid0
I0504 05:39:50.887676 14836 net.cpp:131] Top shape: 1000 216 32 32 (221184000)
I0504 05:39:50.887678 14836 net.cpp:139] Memory required for data: 1781772000
I0504 05:39:50.887682 14836 layer_factory.hpp:77] Creating layer pool0
I0504 05:39:50.887693 14836 net.cpp:86] Creating Layer pool0
I0504 05:39:50.887697 14836 net.cpp:408] pool0 <- Sigmoid0
I0504 05:39:50.887702 14836 net.cpp:382] pool0 -> pool0
I0504 05:39:50.887883 14836 net.cpp:124] Setting up pool0
I0504 05:39:50.887895 14836 net.cpp:131] Top shape: 1000 216 16 16 (55296000)
I0504 05:39:50.887898 14836 net.cpp:139] Memory required for data: 2002956000
I0504 05:39:50.887902 14836 layer_factory.hpp:77] Creating layer ip1
I0504 05:39:50.887909 14836 net.cpp:86] Creating Layer ip1
I0504 05:39:50.887912 14836 net.cpp:408] ip1 <- pool0
I0504 05:39:50.887918 14836 net.cpp:382] ip1 -> ip1
I0504 05:39:50.903697 14836 net.cpp:124] Setting up ip1
I0504 05:39:50.903712 14836 net.cpp:131] Top shape: 1000 10 (10000)
I0504 05:39:50.903715 14836 net.cpp:139] Memory required for data: 2002996000
I0504 05:39:50.903723 14836 layer_factory.hpp:77] Creating layer relu1
I0504 05:39:50.903733 14836 net.cpp:86] Creating Layer relu1
I0504 05:39:50.903736 14836 net.cpp:408] relu1 <- ip1
I0504 05:39:50.903740 14836 net.cpp:369] relu1 -> ip1 (in-place)
I0504 05:39:50.903946 14836 net.cpp:124] Setting up relu1
I0504 05:39:50.903955 14836 net.cpp:131] Top shape: 1000 10 (10000)
I0504 05:39:50.903959 14836 net.cpp:139] Memory required for data: 2003036000
I0504 05:39:50.903962 14836 layer_factory.hpp:77] Creating layer ip2
I0504 05:39:50.903970 14836 net.cpp:86] Creating Layer ip2
I0504 05:39:50.903973 14836 net.cpp:408] ip2 <- ip1
I0504 05:39:50.903978 14836 net.cpp:382] ip2 -> ip2
I0504 05:39:50.904108 14836 net.cpp:124] Setting up ip2
I0504 05:39:50.904115 14836 net.cpp:131] Top shape: 1000 60 (60000)
I0504 05:39:50.904119 14836 net.cpp:139] Memory required for data: 2003276000
I0504 05:39:50.904125 14836 layer_factory.hpp:77] Creating layer relu2
I0504 05:39:50.904132 14836 net.cpp:86] Creating Layer relu2
I0504 05:39:50.904135 14836 net.cpp:408] relu2 <- ip2
I0504 05:39:50.904139 14836 net.cpp:369] relu2 -> ip2 (in-place)
I0504 05:39:50.904306 14836 net.cpp:124] Setting up relu2
I0504 05:39:50.904314 14836 net.cpp:131] Top shape: 1000 60 (60000)
I0504 05:39:50.904317 14836 net.cpp:139] Memory required for data: 2003516000
I0504 05:39:50.904320 14836 layer_factory.hpp:77] Creating layer ip3
I0504 05:39:50.904326 14836 net.cpp:86] Creating Layer ip3
I0504 05:39:50.904330 14836 net.cpp:408] ip3 <- ip2
I0504 05:39:50.904335 14836 net.cpp:382] ip3 -> ip3
I0504 05:39:50.904453 14836 net.cpp:124] Setting up ip3
I0504 05:39:50.904460 14836 net.cpp:131] Top shape: 1000 10 (10000)
I0504 05:39:50.904474 14836 net.cpp:139] Memory required for data: 2003556000
I0504 05:39:50.904480 14836 layer_factory.hpp:77] Creating layer ip3_ip3_0_split
I0504 05:39:50.904485 14836 net.cpp:86] Creating Layer ip3_ip3_0_split
I0504 05:39:50.904489 14836 net.cpp:408] ip3_ip3_0_split <- ip3
I0504 05:39:50.904494 14836 net.cpp:382] ip3_ip3_0_split -> ip3_ip3_0_split_0
I0504 05:39:50.904500 14836 net.cpp:382] ip3_ip3_0_split -> ip3_ip3_0_split_1
I0504 05:39:50.904531 14836 net.cpp:124] Setting up ip3_ip3_0_split
I0504 05:39:50.904536 14836 net.cpp:131] Top shape: 1000 10 (10000)
I0504 05:39:50.904541 14836 net.cpp:131] Top shape: 1000 10 (10000)
I0504 05:39:50.904542 14836 net.cpp:139] Memory required for data: 2003636000
I0504 05:39:50.904546 14836 layer_factory.hpp:77] Creating layer accuracy
I0504 05:39:50.904551 14836 net.cpp:86] Creating Layer accuracy
I0504 05:39:50.904554 14836 net.cpp:408] accuracy <- ip3_ip3_0_split_0
I0504 05:39:50.904558 14836 net.cpp:408] accuracy <- label_cifar_1_split_0
I0504 05:39:50.904563 14836 net.cpp:382] accuracy -> accuracy
…
