…
I0504 01:02:39.092639  6551 net.cpp:296] The NetState phase (0) differed from the phase (1) specified by a rule in layer cifar
I0504 01:02:39.092655  6551 net.cpp:296] The NetState phase (0) differed from the phase (1) specified by a rule in layer accuracy
I0504 01:02:39.092743  6551 net.cpp:53] Initializing net from parameters: 
name: "CIFAR"
state {
  phase: TRAIN
  level: 0
  stage: ""
}
layer {
  name: "cifar"
  type: "Data"
  top: "data"
  top: "label"
  include {
    phase: TRAIN
  }
  transform_param {
    mean_file: "examples/cifar10/mean.binaryproto"
  }
  data_param {
    source: "examples/cifar10/cifar10_train_lmdb"
    batch_size: 111
    backend: LMDB
  }
}
layer {
  name: "conv0"
  type: "Convolution"
  bottom: "data"
  top: "conv0"
  param {
    lr_mult: 1
  }
  param {
    lr_mult: 2
  }
  convolution_param {
    num_output: 72
    pad: 2
    kernel_size: 3
    stride: 1
    weight_filler {
      type: "gaussian"
      std: 0.01
    }
    bias_filler {
      type: "constant"
    }
  }
}
layer {
  name: "Sigmoid0"
  type: "Sigmoid"
  bottom: "conv0"
  top: "Sigmoid0"
}
layer {
  name: "pool0"
  type: "Pooling"
  bottom: "Sigmoid0"
  top: "pool0"
  pooling_param {
    pool: AVE
    kernel_size: 3
    stride: 2
  }
}
layer {
  name: "ip1"
  type: "InnerProduct"
  bottom: "pool0"
  top: "ip1"
  param {
    lr_mult: 1
  }
  param {
    lr_mult: 2
  }
  inner_product_param {
    num_output: 10
    weight_filler {
      type: "gaussian"
      std: 0.01
    }
    bias_filler {
      type: "constant"
    }
  }
}
layer {
  name: "relu1"
  type: "ReLU"
  bottom: "ip1"
  top: "ip1"
}
layer {
  name: "ip2"
  type: "InnerProduct"
  bottom: "ip1"
  top: "ip2"
  param {
    lr_mult: 1
  }
  param {
    lr_mult: 2
  }
  inner_product_param {
    num_output: 180
    weight_filler {
      type: "gaussian"
      std: 0.01
    }
    bias_filler {
      type: "constant"
    }
  }
}
layer {
  name: "relu2"
  type: "ReLU"
  bottom: "ip2"
  top: "ip2"
}
layer {
  name: "ip3"
  type: "InnerProduct"
  bottom: "ip2"
  top: "ip3"
  param {
    lr_mult: 1
  }
  param {
    lr_mult: 2
  }
  inner_product_param {
    num_output: 10
    weight_filler {
      type: "gaussian"
      std: 0.01
    }
    bias_filler {
      type: "constant"
    }
  }
}
layer {
  name: "loss"
  type: "SoftmaxWithLoss"
  bottom: "ip3"
  bottom: "label"
  top: "loss"
}
I0504 01:02:39.092818  6551 layer_factory.hpp:77] Creating layer cifar
I0504 01:02:39.092918  6551 db_lmdb.cpp:35] Opened lmdb examples/cifar10/cifar10_train_lmdb
I0504 01:02:39.092945  6551 net.cpp:86] Creating Layer cifar
I0504 01:02:39.092953  6551 net.cpp:382] cifar -> data
I0504 01:02:39.092977  6551 net.cpp:382] cifar -> label
I0504 01:02:39.092988  6551 data_transformer.cpp:25] Loading mean file from: examples/cifar10/mean.binaryproto
I0504 01:02:39.095130  6551 data_layer.cpp:45] output data size: 111,3,32,32
I0504 01:02:39.103026  6551 net.cpp:124] Setting up cifar
I0504 01:02:39.103045  6551 net.cpp:131] Top shape: 111 3 32 32 (340992)
I0504 01:02:39.103051  6551 net.cpp:131] Top shape: 111 (111)
I0504 01:02:39.103055  6551 net.cpp:139] Memory required for data: 1364412
I0504 01:02:39.103063  6551 layer_factory.hpp:77] Creating layer conv0
I0504 01:02:39.103081  6551 net.cpp:86] Creating Layer conv0
I0504 01:02:39.103087  6551 net.cpp:408] conv0 <- data
I0504 01:02:39.103098  6551 net.cpp:382] conv0 -> conv0
I0504 01:02:39.381237  6551 net.cpp:124] Setting up conv0
I0504 01:02:39.381299  6551 net.cpp:131] Top shape: 111 72 34 34 (9238752)
I0504 01:02:39.381319  6551 net.cpp:139] Memory required for data: 38319420
I0504 01:02:39.381335  6551 layer_factory.hpp:77] Creating layer Sigmoid0
I0504 01:02:39.381347  6551 net.cpp:86] Creating Layer Sigmoid0
I0504 01:02:39.381351  6551 net.cpp:408] Sigmoid0 <- conv0
I0504 01:02:39.381372  6551 net.cpp:382] Sigmoid0 -> Sigmoid0
I0504 01:02:39.381574  6551 net.cpp:124] Setting up Sigmoid0
I0504 01:02:39.381583  6551 net.cpp:131] Top shape: 111 72 34 34 (9238752)
I0504 01:02:39.381602  6551 net.cpp:139] Memory required for data: 75274428
I0504 01:02:39.381604  6551 layer_factory.hpp:77] Creating layer pool0
I0504 01:02:39.381611  6551 net.cpp:86] Creating Layer pool0
I0504 01:02:39.381614  6551 net.cpp:408] pool0 <- Sigmoid0
I0504 01:02:39.381619  6551 net.cpp:382] pool0 -> pool0
I0504 01:02:39.382459  6551 net.cpp:124] Setting up pool0
I0504 01:02:39.382472  6551 net.cpp:131] Top shape: 111 72 17 17 (2309688)
I0504 01:02:39.382475  6551 net.cpp:139] Memory required for data: 84513180
I0504 01:02:39.382478  6551 layer_factory.hpp:77] Creating layer ip1
I0504 01:02:39.382488  6551 net.cpp:86] Creating Layer ip1
I0504 01:02:39.382491  6551 net.cpp:408] ip1 <- pool0
I0504 01:02:39.382496  6551 net.cpp:382] ip1 -> ip1
I0504 01:02:39.388715  6551 net.cpp:124] Setting up ip1
I0504 01:02:39.388727  6551 net.cpp:131] Top shape: 111 10 (1110)
I0504 01:02:39.388731  6551 net.cpp:139] Memory required for data: 84517620
I0504 01:02:39.388738  6551 layer_factory.hpp:77] Creating layer relu1
I0504 01:02:39.388744  6551 net.cpp:86] Creating Layer relu1
I0504 01:02:39.388747  6551 net.cpp:408] relu1 <- ip1
I0504 01:02:39.388751  6551 net.cpp:369] relu1 -> ip1 (in-place)
I0504 01:02:39.388917  6551 net.cpp:124] Setting up relu1
I0504 01:02:39.388926  6551 net.cpp:131] Top shape: 111 10 (1110)
I0504 01:02:39.388929  6551 net.cpp:139] Memory required for data: 84522060
I0504 01:02:39.388932  6551 layer_factory.hpp:77] Creating layer ip2
I0504 01:02:39.388938  6551 net.cpp:86] Creating Layer ip2
I0504 01:02:39.388942  6551 net.cpp:408] ip2 <- ip1
I0504 01:02:39.388947  6551 net.cpp:382] ip2 -> ip2
I0504 01:02:39.389103  6551 net.cpp:124] Setting up ip2
I0504 01:02:39.389111  6551 net.cpp:131] Top shape: 111 180 (19980)
I0504 01:02:39.389113  6551 net.cpp:139] Memory required for data: 84601980
I0504 01:02:39.389120  6551 layer_factory.hpp:77] Creating layer relu2
I0504 01:02:39.389125  6551 net.cpp:86] Creating Layer relu2
I0504 01:02:39.389128  6551 net.cpp:408] relu2 <- ip2
I0504 01:02:39.389132  6551 net.cpp:369] relu2 -> ip2 (in-place)
I0504 01:02:39.389304  6551 net.cpp:124] Setting up relu2
I0504 01:02:39.389312  6551 net.cpp:131] Top shape: 111 180 (19980)
I0504 01:02:39.389315  6551 net.cpp:139] Memory required for data: 84681900
I0504 01:02:39.389317  6551 layer_factory.hpp:77] Creating layer ip3
I0504 01:02:39.389324  6551 net.cpp:86] Creating Layer ip3
I0504 01:02:39.389328  6551 net.cpp:408] ip3 <- ip2
I0504 01:02:39.389333  6551 net.cpp:382] ip3 -> ip3
I0504 01:02:39.389463  6551 net.cpp:124] Setting up ip3
I0504 01:02:39.389469  6551 net.cpp:131] Top shape: 111 10 (1110)
I0504 01:02:39.389472  6551 net.cpp:139] Memory required for data: 84686340
I0504 01:02:39.389477  6551 layer_factory.hpp:77] Creating layer loss
I0504 01:02:39.389482  6551 net.cpp:86] Creating Layer loss
I0504 01:02:39.389485  6551 net.cpp:408] loss <- ip3
I0504 01:02:39.389488  6551 net.cpp:408] loss <- label
I0504 01:02:39.389493  6551 net.cpp:382] loss -> loss
I0504 01:02:39.389510  6551 layer_factory.hpp:77] Creating layer loss
…
I0504 01:02:39.390118  6551 solver.cpp:173] Creating test net (#0) specified by net file: ECE595/cifar/train_test/var_everything_tiny/cifar_train_test_29.prototxt
I0504 01:02:39.390172  6551 net.cpp:296] The NetState phase (1) differed from the phase (0) specified by a rule in layer cifar
I0504 01:02:39.390285  6551 net.cpp:53] Initializing net from parameters: 
name: "CIFAR"
state {
  phase: TEST
}
layer {
  name: "cifar"
  type: "Data"
  top: "data"
  top: "label"
  include {
    phase: TEST
  }
  transform_param {
    mean_file: "examples/cifar10/mean.binaryproto"
  }
  data_param {
    source: "examples/cifar10/cifar10_test_lmdb"
    batch_size: 1000
    backend: LMDB
  }
}
layer {
  name: "conv0"
  type: "Convolution"
  bottom: "data"
  top: "conv0"
  param {
    lr_mult: 1
  }
  param {
    lr_mult: 2
  }
  convolution_param {
    num_output: 72
    pad: 2
    kernel_size: 3
    stride: 1
    weight_filler {
      type: "gaussian"
      std: 0.01
    }
    bias_filler {
      type: "constant"
    }
  }
}
layer {
  name: "Sigmoid0"
  type: "Sigmoid"
  bottom: "conv0"
  top: "Sigmoid0"
}
layer {
  name: "pool0"
  type: "Pooling"
  bottom: "Sigmoid0"
  top: "pool0"
  pooling_param {
    pool: AVE
    kernel_size: 3
    stride: 2
  }
}
layer {
  name: "ip1"
  type: "InnerProduct"
  bottom: "pool0"
  top: "ip1"
  param {
    lr_mult: 1
  }
  param {
    lr_mult: 2
  }
  inner_product_param {
    num_output: 10
    weight_filler {
      type: "gaussian"
      std: 0.01
    }
    bias_filler {
      type: "constant"
    }
  }
}
layer {
  name: "relu1"
  type: "ReLU"
  bottom: "ip1"
  top: "ip1"
}
layer {
  name: "ip2"
  type: "InnerProduct"
  bottom: "ip1"
  top: "ip2"
  param {
    lr_mult: 1
  }
  param {
    lr_mult: 2
  }
  inner_product_param {
    num_output: 180
    weight_filler {
      type: "gaussian"
      std: 0.01
    }
    bias_filler {
      type: "constant"
    }
  }
}
layer {
  name: "relu2"
  type: "ReLU"
  bottom: "ip2"
  top: "ip2"
}
layer {
  name: "ip3"
  type: "InnerProduct"
  bottom: "ip2"
  top: "ip3"
  param {
    lr_mult: 1
  }
  param {
    lr_mult: 2
  }
  inner_product_param {
    num_output: 10
    weight_filler {
      type: "gaussian"
      std: 0.01
    }
    bias_filler {
      type: "constant"
    }
  }
}
layer {
  name: "accuracy"
  type: "Accuracy"
  bottom: "ip3"
  bottom: "label"
  top: "accuracy"
  include {
    phase: TEST
  }
}
layer {
  name: "loss"
  type: "SoftmaxWithLoss"
  bottom: "ip3"
  bottom: "label"
  top: "loss"
}
I0504 01:02:39.390343  6551 layer_factory.hpp:77] Creating layer cifar
I0504 01:02:39.390401  6551 db_lmdb.cpp:35] Opened lmdb examples/cifar10/cifar10_test_lmdb
I0504 01:02:39.390414  6551 net.cpp:86] Creating Layer cifar
I0504 01:02:39.390421  6551 net.cpp:382] cifar -> data
I0504 01:02:39.390444  6551 net.cpp:382] cifar -> label
I0504 01:02:39.390450  6551 data_transformer.cpp:25] Loading mean file from: examples/cifar10/mean.binaryproto
I0504 01:02:39.390586  6551 data_layer.cpp:45] output data size: 1000,3,32,32
I0504 01:02:39.413045  6551 net.cpp:124] Setting up cifar
I0504 01:02:39.413085  6551 net.cpp:131] Top shape: 1000 3 32 32 (3072000)
I0504 01:02:39.413092  6551 net.cpp:131] Top shape: 1000 (1000)
I0504 01:02:39.413095  6551 net.cpp:139] Memory required for data: 12292000
I0504 01:02:39.413102  6551 layer_factory.hpp:77] Creating layer label_cifar_1_split
I0504 01:02:39.413136  6551 net.cpp:86] Creating Layer label_cifar_1_split
I0504 01:02:39.413141  6551 net.cpp:408] label_cifar_1_split <- label
I0504 01:02:39.413146  6551 net.cpp:382] label_cifar_1_split -> label_cifar_1_split_0
I0504 01:02:39.413156  6551 net.cpp:382] label_cifar_1_split -> label_cifar_1_split_1
I0504 01:02:39.413271  6551 net.cpp:124] Setting up label_cifar_1_split
I0504 01:02:39.413282  6551 net.cpp:131] Top shape: 1000 (1000)
I0504 01:02:39.413286  6551 net.cpp:131] Top shape: 1000 (1000)
I0504 01:02:39.413290  6551 net.cpp:139] Memory required for data: 12300000
I0504 01:02:39.413292  6551 layer_factory.hpp:77] Creating layer conv0
I0504 01:02:39.413305  6551 net.cpp:86] Creating Layer conv0
I0504 01:02:39.413307  6551 net.cpp:408] conv0 <- data
I0504 01:02:39.413312  6551 net.cpp:382] conv0 -> conv0
I0504 01:02:39.414796  6551 net.cpp:124] Setting up conv0
I0504 01:02:39.414824  6551 net.cpp:131] Top shape: 1000 72 34 34 (83232000)
I0504 01:02:39.414829  6551 net.cpp:139] Memory required for data: 345228000
I0504 01:02:39.414851  6551 layer_factory.hpp:77] Creating layer Sigmoid0
I0504 01:02:39.414860  6551 net.cpp:86] Creating Layer Sigmoid0
I0504 01:02:39.414862  6551 net.cpp:408] Sigmoid0 <- conv0
I0504 01:02:39.414866  6551 net.cpp:382] Sigmoid0 -> Sigmoid0
I0504 01:02:39.415766  6551 net.cpp:124] Setting up Sigmoid0
I0504 01:02:39.415778  6551 net.cpp:131] Top shape: 1000 72 34 34 (83232000)
I0504 01:02:39.415781  6551 net.cpp:139] Memory required for data: 678156000
I0504 01:02:39.415786  6551 layer_factory.hpp:77] Creating layer pool0
I0504 01:02:39.415794  6551 net.cpp:86] Creating Layer pool0
I0504 01:02:39.415797  6551 net.cpp:408] pool0 <- Sigmoid0
I0504 01:02:39.415802  6551 net.cpp:382] pool0 -> pool0
I0504 01:02:39.416954  6551 net.cpp:124] Setting up pool0
I0504 01:02:39.416966  6551 net.cpp:131] Top shape: 1000 72 17 17 (20808000)
I0504 01:02:39.416985  6551 net.cpp:139] Memory required for data: 761388000
I0504 01:02:39.416987  6551 layer_factory.hpp:77] Creating layer ip1
I0504 01:02:39.416997  6551 net.cpp:86] Creating Layer ip1
I0504 01:02:39.417001  6551 net.cpp:408] ip1 <- pool0
I0504 01:02:39.417013  6551 net.cpp:382] ip1 -> ip1
I0504 01:02:39.422660  6551 net.cpp:124] Setting up ip1
I0504 01:02:39.422669  6551 net.cpp:131] Top shape: 1000 10 (10000)
I0504 01:02:39.422672  6551 net.cpp:139] Memory required for data: 761428000
I0504 01:02:39.422680  6551 layer_factory.hpp:77] Creating layer relu1
I0504 01:02:39.422685  6551 net.cpp:86] Creating Layer relu1
I0504 01:02:39.422688  6551 net.cpp:408] relu1 <- ip1
I0504 01:02:39.422691  6551 net.cpp:369] relu1 -> ip1 (in-place)
I0504 01:02:39.422880  6551 net.cpp:124] Setting up relu1
I0504 01:02:39.422890  6551 net.cpp:131] Top shape: 1000 10 (10000)
I0504 01:02:39.422894  6551 net.cpp:139] Memory required for data: 761468000
I0504 01:02:39.422896  6551 layer_factory.hpp:77] Creating layer ip2
I0504 01:02:39.422902  6551 net.cpp:86] Creating Layer ip2
I0504 01:02:39.422905  6551 net.cpp:408] ip2 <- ip1
I0504 01:02:39.422910  6551 net.cpp:382] ip2 -> ip2
I0504 01:02:39.423068  6551 net.cpp:124] Setting up ip2
I0504 01:02:39.423075  6551 net.cpp:131] Top shape: 1000 180 (180000)
I0504 01:02:39.423079  6551 net.cpp:139] Memory required for data: 762188000
I0504 01:02:39.423101  6551 layer_factory.hpp:77] Creating layer relu2
I0504 01:02:39.423106  6551 net.cpp:86] Creating Layer relu2
I0504 01:02:39.423110  6551 net.cpp:408] relu2 <- ip2
I0504 01:02:39.423115  6551 net.cpp:369] relu2 -> ip2 (in-place)
I0504 01:02:39.423274  6551 net.cpp:124] Setting up relu2
I0504 01:02:39.423282  6551 net.cpp:131] Top shape: 1000 180 (180000)
I0504 01:02:39.423285  6551 net.cpp:139] Memory required for data: 762908000
I0504 01:02:39.423288  6551 layer_factory.hpp:77] Creating layer ip3
I0504 01:02:39.423295  6551 net.cpp:86] Creating Layer ip3
I0504 01:02:39.423297  6551 net.cpp:408] ip3 <- ip2
I0504 01:02:39.423302  6551 net.cpp:382] ip3 -> ip3
I0504 01:02:39.423449  6551 net.cpp:124] Setting up ip3
I0504 01:02:39.423456  6551 net.cpp:131] Top shape: 1000 10 (10000)
I0504 01:02:39.423468  6551 net.cpp:139] Memory required for data: 762948000
I0504 01:02:39.423473  6551 layer_factory.hpp:77] Creating layer ip3_ip3_0_split
I0504 01:02:39.423480  6551 net.cpp:86] Creating Layer ip3_ip3_0_split
I0504 01:02:39.423482  6551 net.cpp:408] ip3_ip3_0_split <- ip3
I0504 01:02:39.423487  6551 net.cpp:382] ip3_ip3_0_split -> ip3_ip3_0_split_0
I0504 01:02:39.423492  6551 net.cpp:382] ip3_ip3_0_split -> ip3_ip3_0_split_1
I0504 01:02:39.423524  6551 net.cpp:124] Setting up ip3_ip3_0_split
I0504 01:02:39.423529  6551 net.cpp:131] Top shape: 1000 10 (10000)
I0504 01:02:39.423533  6551 net.cpp:131] Top shape: 1000 10 (10000)
I0504 01:02:39.423535  6551 net.cpp:139] Memory required for data: 763028000
I0504 01:02:39.423538  6551 layer_factory.hpp:77] Creating layer accuracy
I0504 01:02:39.423544  6551 net.cpp:86] Creating Layer accuracy
I0504 01:02:39.423547  6551 net.cpp:408] accuracy <- ip3_ip3_0_split_0
I0504 01:02:39.423552  6551 net.cpp:408] accuracy <- label_cifar_1_split_0
I0504 01:02:39.423557  6551 net.cpp:382] accuracy -> accuracy
…
