…
I0504 00:00:50.211241  4459 net.cpp:296] The NetState phase (0) differed from the phase (1) specified by a rule in layer cifar
I0504 00:00:50.211256  4459 net.cpp:296] The NetState phase (0) differed from the phase (1) specified by a rule in layer accuracy
I0504 00:00:50.211344  4459 net.cpp:53] Initializing net from parameters: 
name: "CIFAR"
state {
  phase: TRAIN
  level: 0
  stage: ""
}
layer {
  name: "cifar"
  type: "Data"
  top: "data"
  top: "label"
  include {
    phase: TRAIN
  }
  transform_param {
    mean_file: "examples/cifar10/mean.binaryproto"
  }
  data_param {
    source: "examples/cifar10/cifar10_train_lmdb"
    batch_size: 111
    backend: LMDB
  }
}
layer {
  name: "conv0"
  type: "Convolution"
  bottom: "data"
  top: "conv0"
  param {
    lr_mult: 1
  }
  param {
    lr_mult: 2
  }
  convolution_param {
    num_output: 24
    pad: 2
    kernel_size: 3
    stride: 1
    weight_filler {
      type: "gaussian"
      std: 0.01
    }
    bias_filler {
      type: "constant"
    }
  }
}
layer {
  name: "Sigmoid0"
  type: "Sigmoid"
  bottom: "conv0"
  top: "Sigmoid0"
}
layer {
  name: "pool0"
  type: "Pooling"
  bottom: "Sigmoid0"
  top: "pool0"
  pooling_param {
    pool: AVE
    kernel_size: 3
    stride: 2
  }
}
layer {
  name: "ip1"
  type: "InnerProduct"
  bottom: "pool0"
  top: "ip1"
  param {
    lr_mult: 1
  }
  param {
    lr_mult: 2
  }
  inner_product_param {
    num_output: 60
    weight_filler {
      type: "gaussian"
      std: 0.01
    }
    bias_filler {
      type: "constant"
    }
  }
}
layer {
  name: "relu1"
  type: "ReLU"
  bottom: "ip1"
  top: "ip1"
}
layer {
  name: "ip2"
  type: "InnerProduct"
  bottom: "ip1"
  top: "ip2"
  param {
    lr_mult: 1
  }
  param {
    lr_mult: 2
  }
  inner_product_param {
    num_output: 60
    weight_filler {
      type: "gaussian"
      std: 0.01
    }
    bias_filler {
      type: "constant"
    }
  }
}
layer {
  name: "relu2"
  type: "ReLU"
  bottom: "ip2"
  top: "ip2"
}
layer {
  name: "ip3"
  type: "InnerProduct"
  bottom: "ip2"
  top: "ip3"
  param {
    lr_mult: 1
  }
  param {
    lr_mult: 2
  }
  inner_product_param {
    num_output: 10
    weight_filler {
      type: "gaussian"
      std: 0.01
    }
    bias_filler {
      type: "constant"
    }
  }
}
layer {
  name: "loss"
  type: "SoftmaxWithLoss"
  bottom: "ip3"
  bottom: "label"
  top: "loss"
}
I0504 00:00:50.211412  4459 layer_factory.hpp:77] Creating layer cifar
I0504 00:00:50.211513  4459 db_lmdb.cpp:35] Opened lmdb examples/cifar10/cifar10_train_lmdb
I0504 00:00:50.211539  4459 net.cpp:86] Creating Layer cifar
I0504 00:00:50.211545  4459 net.cpp:382] cifar -> data
I0504 00:00:50.211567  4459 net.cpp:382] cifar -> label
I0504 00:00:50.211583  4459 data_transformer.cpp:25] Loading mean file from: examples/cifar10/mean.binaryproto
I0504 00:00:50.213696  4459 data_layer.cpp:45] output data size: 111,3,32,32
I0504 00:00:50.221550  4459 net.cpp:124] Setting up cifar
I0504 00:00:50.221570  4459 net.cpp:131] Top shape: 111 3 32 32 (340992)
I0504 00:00:50.221575  4459 net.cpp:131] Top shape: 111 (111)
I0504 00:00:50.221580  4459 net.cpp:139] Memory required for data: 1364412
I0504 00:00:50.221587  4459 layer_factory.hpp:77] Creating layer conv0
I0504 00:00:50.221604  4459 net.cpp:86] Creating Layer conv0
I0504 00:00:50.221609  4459 net.cpp:408] conv0 <- data
I0504 00:00:50.221623  4459 net.cpp:382] conv0 -> conv0
I0504 00:00:50.506376  4459 net.cpp:124] Setting up conv0
I0504 00:00:50.506422  4459 net.cpp:131] Top shape: 111 24 34 34 (3079584)
I0504 00:00:50.506427  4459 net.cpp:139] Memory required for data: 13682748
I0504 00:00:50.506441  4459 layer_factory.hpp:77] Creating layer Sigmoid0
I0504 00:00:50.506454  4459 net.cpp:86] Creating Layer Sigmoid0
I0504 00:00:50.506458  4459 net.cpp:408] Sigmoid0 <- conv0
I0504 00:00:50.506464  4459 net.cpp:382] Sigmoid0 -> Sigmoid0
I0504 00:00:50.506640  4459 net.cpp:124] Setting up Sigmoid0
I0504 00:00:50.506659  4459 net.cpp:131] Top shape: 111 24 34 34 (3079584)
I0504 00:00:50.506662  4459 net.cpp:139] Memory required for data: 26001084
I0504 00:00:50.506665  4459 layer_factory.hpp:77] Creating layer pool0
I0504 00:00:50.506672  4459 net.cpp:86] Creating Layer pool0
I0504 00:00:50.506676  4459 net.cpp:408] pool0 <- Sigmoid0
I0504 00:00:50.506680  4459 net.cpp:382] pool0 -> pool0
I0504 00:00:50.507412  4459 net.cpp:124] Setting up pool0
I0504 00:00:50.507426  4459 net.cpp:131] Top shape: 111 24 17 17 (769896)
I0504 00:00:50.507428  4459 net.cpp:139] Memory required for data: 29080668
I0504 00:00:50.507432  4459 layer_factory.hpp:77] Creating layer ip1
I0504 00:00:50.507441  4459 net.cpp:86] Creating Layer ip1
I0504 00:00:50.507444  4459 net.cpp:408] ip1 <- pool0
I0504 00:00:50.507449  4459 net.cpp:382] ip1 -> ip1
I0504 00:00:50.519557  4459 net.cpp:124] Setting up ip1
I0504 00:00:50.519587  4459 net.cpp:131] Top shape: 111 60 (6660)
I0504 00:00:50.519593  4459 net.cpp:139] Memory required for data: 29107308
I0504 00:00:50.519600  4459 layer_factory.hpp:77] Creating layer relu1
I0504 00:00:50.519608  4459 net.cpp:86] Creating Layer relu1
I0504 00:00:50.519610  4459 net.cpp:408] relu1 <- ip1
I0504 00:00:50.519615  4459 net.cpp:369] relu1 -> ip1 (in-place)
I0504 00:00:50.519800  4459 net.cpp:124] Setting up relu1
I0504 00:00:50.519809  4459 net.cpp:131] Top shape: 111 60 (6660)
I0504 00:00:50.519814  4459 net.cpp:139] Memory required for data: 29133948
I0504 00:00:50.519816  4459 layer_factory.hpp:77] Creating layer ip2
I0504 00:00:50.519824  4459 net.cpp:86] Creating Layer ip2
I0504 00:00:50.519827  4459 net.cpp:408] ip2 <- ip1
I0504 00:00:50.519832  4459 net.cpp:382] ip2 -> ip2
I0504 00:00:50.520045  4459 net.cpp:124] Setting up ip2
I0504 00:00:50.520052  4459 net.cpp:131] Top shape: 111 60 (6660)
I0504 00:00:50.520056  4459 net.cpp:139] Memory required for data: 29160588
I0504 00:00:50.520063  4459 layer_factory.hpp:77] Creating layer relu2
I0504 00:00:50.520068  4459 net.cpp:86] Creating Layer relu2
I0504 00:00:50.520072  4459 net.cpp:408] relu2 <- ip2
I0504 00:00:50.520076  4459 net.cpp:369] relu2 -> ip2 (in-place)
I0504 00:00:50.520251  4459 net.cpp:124] Setting up relu2
I0504 00:00:50.520259  4459 net.cpp:131] Top shape: 111 60 (6660)
I0504 00:00:50.520263  4459 net.cpp:139] Memory required for data: 29187228
I0504 00:00:50.520267  4459 layer_factory.hpp:77] Creating layer ip3
I0504 00:00:50.520274  4459 net.cpp:86] Creating Layer ip3
I0504 00:00:50.520277  4459 net.cpp:408] ip3 <- ip2
I0504 00:00:50.520283  4459 net.cpp:382] ip3 -> ip3
I0504 00:00:50.520401  4459 net.cpp:124] Setting up ip3
I0504 00:00:50.520408  4459 net.cpp:131] Top shape: 111 10 (1110)
I0504 00:00:50.520411  4459 net.cpp:139] Memory required for data: 29191668
I0504 00:00:50.520417  4459 layer_factory.hpp:77] Creating layer loss
I0504 00:00:50.520423  4459 net.cpp:86] Creating Layer loss
I0504 00:00:50.520426  4459 net.cpp:408] loss <- ip3
I0504 00:00:50.520431  4459 net.cpp:408] loss <- label
I0504 00:00:50.520436  4459 net.cpp:382] loss -> loss
I0504 00:00:50.520455  4459 layer_factory.hpp:77] Creating layer loss
…
I0504 00:00:50.521164  4459 solver.cpp:173] Creating test net (#0) specified by net file: ECE595/cifar/train_test/var_everything_tiny/cifar_train_test_7.prototxt
I0504 00:00:50.521206  4459 net.cpp:296] The NetState phase (1) differed from the phase (0) specified by a rule in layer cifar
I0504 00:00:50.521307  4459 net.cpp:53] Initializing net from parameters: 
name: "CIFAR"
state {
  phase: TEST
}
layer {
  name: "cifar"
  type: "Data"
  top: "data"
  top: "label"
  include {
    phase: TEST
  }
  transform_param {
    mean_file: "examples/cifar10/mean.binaryproto"
  }
  data_param {
    source: "examples/cifar10/cifar10_test_lmdb"
    batch_size: 1000
    backend: LMDB
  }
}
layer {
  name: "conv0"
  type: "Convolution"
  bottom: "data"
  top: "conv0"
  param {
    lr_mult: 1
  }
  param {
    lr_mult: 2
  }
  convolution_param {
    num_output: 24
    pad: 2
    kernel_size: 3
    stride: 1
    weight_filler {
      type: "gaussian"
      std: 0.01
    }
    bias_filler {
      type: "constant"
    }
  }
}
layer {
  name: "Sigmoid0"
  type: "Sigmoid"
  bottom: "conv0"
  top: "Sigmoid0"
}
layer {
  name: "pool0"
  type: "Pooling"
  bottom: "Sigmoid0"
  top: "pool0"
  pooling_param {
    pool: AVE
    kernel_size: 3
    stride: 2
  }
}
layer {
  name: "ip1"
  type: "InnerProduct"
  bottom: "pool0"
  top: "ip1"
  param {
    lr_mult: 1
  }
  param {
    lr_mult: 2
  }
  inner_product_param {
    num_output: 60
    weight_filler {
      type: "gaussian"
      std: 0.01
    }
    bias_filler {
      type: "constant"
    }
  }
}
layer {
  name: "relu1"
  type: "ReLU"
  bottom: "ip1"
  top: "ip1"
}
layer {
  name: "ip2"
  type: "InnerProduct"
  bottom: "ip1"
  top: "ip2"
  param {
    lr_mult: 1
  }
  param {
    lr_mult: 2
  }
  inner_product_param {
    num_output: 60
    weight_filler {
      type: "gaussian"
      std: 0.01
    }
    bias_filler {
      type: "constant"
    }
  }
}
layer {
  name: "relu2"
  type: "ReLU"
  bottom: "ip2"
  top: "ip2"
}
layer {
  name: "ip3"
  type: "InnerProduct"
  bottom: "ip2"
  top: "ip3"
  param {
    lr_mult: 1
  }
  param {
    lr_mult: 2
  }
  inner_product_param {
    num_output: 10
    weight_filler {
      type: "gaussian"
      std: 0.01
    }
    bias_filler {
      type: "constant"
    }
  }
}
layer {
  name: "accuracy"
  type: "Accuracy"
  bottom: "ip3"
  bottom: "label"
  top: "accuracy"
  include {
    phase: TEST
  }
}
layer {
  name: "loss"
  type: "SoftmaxWithLoss"
  bottom: "ip3"
  bottom: "label"
  top: "loss"
}
I0504 00:00:50.521373  4459 layer_factory.hpp:77] Creating layer cifar
I0504 00:00:50.521421  4459 db_lmdb.cpp:35] Opened lmdb examples/cifar10/cifar10_test_lmdb
I0504 00:00:50.521435  4459 net.cpp:86] Creating Layer cifar
I0504 00:00:50.521440  4459 net.cpp:382] cifar -> data
I0504 00:00:50.521447  4459 net.cpp:382] cifar -> label
I0504 00:00:50.521455  4459 data_transformer.cpp:25] Loading mean file from: examples/cifar10/mean.binaryproto
I0504 00:00:50.521625  4459 data_layer.cpp:45] output data size: 1000,3,32,32
I0504 00:00:50.544704  4459 net.cpp:124] Setting up cifar
I0504 00:00:50.544733  4459 net.cpp:131] Top shape: 1000 3 32 32 (3072000)
I0504 00:00:50.544739  4459 net.cpp:131] Top shape: 1000 (1000)
I0504 00:00:50.544742  4459 net.cpp:139] Memory required for data: 12292000
I0504 00:00:50.544749  4459 layer_factory.hpp:77] Creating layer label_cifar_1_split
I0504 00:00:50.544760  4459 net.cpp:86] Creating Layer label_cifar_1_split
I0504 00:00:50.544782  4459 net.cpp:408] label_cifar_1_split <- label
I0504 00:00:50.544790  4459 net.cpp:382] label_cifar_1_split -> label_cifar_1_split_0
I0504 00:00:50.544798  4459 net.cpp:382] label_cifar_1_split -> label_cifar_1_split_1
I0504 00:00:50.544893  4459 net.cpp:124] Setting up label_cifar_1_split
I0504 00:00:50.544901  4459 net.cpp:131] Top shape: 1000 (1000)
I0504 00:00:50.544905  4459 net.cpp:131] Top shape: 1000 (1000)
I0504 00:00:50.544909  4459 net.cpp:139] Memory required for data: 12300000
I0504 00:00:50.544912  4459 layer_factory.hpp:77] Creating layer conv0
I0504 00:00:50.544924  4459 net.cpp:86] Creating Layer conv0
I0504 00:00:50.544929  4459 net.cpp:408] conv0 <- data
I0504 00:00:50.544934  4459 net.cpp:382] conv0 -> conv0
I0504 00:00:50.546602  4459 net.cpp:124] Setting up conv0
I0504 00:00:50.546617  4459 net.cpp:131] Top shape: 1000 24 34 34 (27744000)
I0504 00:00:50.546622  4459 net.cpp:139] Memory required for data: 123276000
I0504 00:00:50.546632  4459 layer_factory.hpp:77] Creating layer Sigmoid0
I0504 00:00:50.546653  4459 net.cpp:86] Creating Layer Sigmoid0
I0504 00:00:50.546674  4459 net.cpp:408] Sigmoid0 <- conv0
I0504 00:00:50.546679  4459 net.cpp:382] Sigmoid0 -> Sigmoid0
I0504 00:00:50.548660  4459 net.cpp:124] Setting up Sigmoid0
I0504 00:00:50.548677  4459 net.cpp:131] Top shape: 1000 24 34 34 (27744000)
I0504 00:00:50.548681  4459 net.cpp:139] Memory required for data: 234252000
I0504 00:00:50.548686  4459 layer_factory.hpp:77] Creating layer pool0
I0504 00:00:50.548696  4459 net.cpp:86] Creating Layer pool0
I0504 00:00:50.548699  4459 net.cpp:408] pool0 <- Sigmoid0
I0504 00:00:50.548705  4459 net.cpp:382] pool0 -> pool0
I0504 00:00:50.548944  4459 net.cpp:124] Setting up pool0
I0504 00:00:50.548956  4459 net.cpp:131] Top shape: 1000 24 17 17 (6936000)
I0504 00:00:50.548960  4459 net.cpp:139] Memory required for data: 261996000
I0504 00:00:50.548964  4459 layer_factory.hpp:77] Creating layer ip1
I0504 00:00:50.548974  4459 net.cpp:86] Creating Layer ip1
I0504 00:00:50.548977  4459 net.cpp:408] ip1 <- pool0
I0504 00:00:50.548984  4459 net.cpp:382] ip1 -> ip1
I0504 00:00:50.561542  4459 net.cpp:124] Setting up ip1
I0504 00:00:50.561555  4459 net.cpp:131] Top shape: 1000 60 (60000)
I0504 00:00:50.561559  4459 net.cpp:139] Memory required for data: 262236000
I0504 00:00:50.561568  4459 layer_factory.hpp:77] Creating layer relu1
I0504 00:00:50.561574  4459 net.cpp:86] Creating Layer relu1
I0504 00:00:50.561578  4459 net.cpp:408] relu1 <- ip1
I0504 00:00:50.561584  4459 net.cpp:369] relu1 -> ip1 (in-place)
I0504 00:00:50.561758  4459 net.cpp:124] Setting up relu1
I0504 00:00:50.561765  4459 net.cpp:131] Top shape: 1000 60 (60000)
I0504 00:00:50.561769  4459 net.cpp:139] Memory required for data: 262476000
I0504 00:00:50.561771  4459 layer_factory.hpp:77] Creating layer ip2
I0504 00:00:50.561779  4459 net.cpp:86] Creating Layer ip2
I0504 00:00:50.561784  4459 net.cpp:408] ip2 <- ip1
I0504 00:00:50.561797  4459 net.cpp:382] ip2 -> ip2
I0504 00:00:50.562021  4459 net.cpp:124] Setting up ip2
I0504 00:00:50.562028  4459 net.cpp:131] Top shape: 1000 60 (60000)
I0504 00:00:50.562031  4459 net.cpp:139] Memory required for data: 262716000
I0504 00:00:50.562039  4459 layer_factory.hpp:77] Creating layer relu2
I0504 00:00:50.562047  4459 net.cpp:86] Creating Layer relu2
I0504 00:00:50.562057  4459 net.cpp:408] relu2 <- ip2
I0504 00:00:50.562060  4459 net.cpp:369] relu2 -> ip2 (in-place)
I0504 00:00:50.562232  4459 net.cpp:124] Setting up relu2
I0504 00:00:50.562242  4459 net.cpp:131] Top shape: 1000 60 (60000)
I0504 00:00:50.562244  4459 net.cpp:139] Memory required for data: 262956000
I0504 00:00:50.562248  4459 layer_factory.hpp:77] Creating layer ip3
I0504 00:00:50.562255  4459 net.cpp:86] Creating Layer ip3
I0504 00:00:50.562258  4459 net.cpp:408] ip3 <- ip2
I0504 00:00:50.562264  4459 net.cpp:382] ip3 -> ip3
I0504 00:00:50.562402  4459 net.cpp:124] Setting up ip3
I0504 00:00:50.562410  4459 net.cpp:131] Top shape: 1000 10 (10000)
I0504 00:00:50.562423  4459 net.cpp:139] Memory required for data: 262996000
I0504 00:00:50.562429  4459 layer_factory.hpp:77] Creating layer ip3_ip3_0_split
I0504 00:00:50.562435  4459 net.cpp:86] Creating Layer ip3_ip3_0_split
I0504 00:00:50.562438  4459 net.cpp:408] ip3_ip3_0_split <- ip3
I0504 00:00:50.562443  4459 net.cpp:382] ip3_ip3_0_split -> ip3_ip3_0_split_0
I0504 00:00:50.562448  4459 net.cpp:382] ip3_ip3_0_split -> ip3_ip3_0_split_1
I0504 00:00:50.562489  4459 net.cpp:124] Setting up ip3_ip3_0_split
I0504 00:00:50.562499  4459 net.cpp:131] Top shape: 1000 10 (10000)
I0504 00:00:50.562502  4459 net.cpp:131] Top shape: 1000 10 (10000)
I0504 00:00:50.562505  4459 net.cpp:139] Memory required for data: 263076000
I0504 00:00:50.562507  4459 layer_factory.hpp:77] Creating layer accuracy
I0504 00:00:50.562517  4459 net.cpp:86] Creating Layer accuracy
I0504 00:00:50.562520  4459 net.cpp:408] accuracy <- ip3_ip3_0_split_0
I0504 00:00:50.562525  4459 net.cpp:408] accuracy <- label_cifar_1_split_0
I0504 00:00:50.562537  4459 net.cpp:382] accuracy -> accuracy
…
