…
I0504 09:55:00.936030 24409 net.cpp:296] The NetState phase (0) differed from the phase (1) specified by a rule in layer cifar
I0504 09:55:00.936051 24409 net.cpp:296] The NetState phase (0) differed from the phase (1) specified by a rule in layer accuracy
I0504 09:55:00.936164 24409 net.cpp:53] Initializing net from parameters: 
name: "CIFAR"
state {
  phase: TRAIN
  level: 0
  stage: ""
}
layer {
  name: "cifar"
  type: "Data"
  top: "data"
  top: "label"
  include {
    phase: TRAIN
  }
  transform_param {
    mean_file: "examples/cifar10/mean.binaryproto"
  }
  data_param {
    source: "examples/cifar10/cifar10_train_lmdb"
    batch_size: 111
    backend: LMDB
  }
}
layer {
  name: "conv0"
  type: "Convolution"
  bottom: "data"
  top: "conv0"
  param {
    lr_mult: 1
  }
  param {
    lr_mult: 2
  }
  convolution_param {
    num_output: 24
    pad: 2
    kernel_size: 5
    stride: 1
    weight_filler {
      type: "gaussian"
      std: 0.01
    }
    bias_filler {
      type: "constant"
    }
  }
}
layer {
  name: "Sigmoid0"
  type: "Sigmoid"
  bottom: "conv0"
  top: "Sigmoid0"
}
layer {
  name: "pool0"
  type: "Pooling"
  bottom: "Sigmoid0"
  top: "pool0"
  pooling_param {
    pool: AVE
    kernel_size: 3
    stride: 2
  }
}
layer {
  name: "conv1"
  type: "Convolution"
  bottom: "pool0"
  top: "conv1"
  param {
    lr_mult: 1
  }
  param {
    lr_mult: 2
  }
  convolution_param {
    num_output: 72
    pad: 2
    kernel_size: 3
    stride: 1
    weight_filler {
      type: "gaussian"
      std: 0.01
    }
    bias_filler {
      type: "constant"
    }
  }
}
layer {
  name: "Sigmoid1"
  type: "Sigmoid"
  bottom: "conv1"
  top: "Sigmoid1"
}
layer {
  name: "pool1"
  type: "Pooling"
  bottom: "Sigmoid1"
  top: "pool1"
  pooling_param {
    pool: AVE
    kernel_size: 3
    stride: 2
  }
}
layer {
  name: "ip1"
  type: "InnerProduct"
  bottom: "pool1"
  top: "ip1"
  param {
    lr_mult: 1
  }
  param {
    lr_mult: 2
  }
  inner_product_param {
    num_output: 60
    weight_filler {
      type: "gaussian"
      std: 0.01
    }
    bias_filler {
      type: "constant"
    }
  }
}
layer {
  name: "relu1"
  type: "ReLU"
  bottom: "ip1"
  top: "ip1"
}
layer {
  name: "ip2"
  type: "InnerProduct"
  bottom: "ip1"
  top: "ip2"
  param {
    lr_mult: 1
  }
  param {
    lr_mult: 2
  }
  inner_product_param {
    num_output: 10
    weight_filler {
      type: "gaussian"
      std: 0.01
    }
    bias_filler {
      type: "constant"
    }
  }
}
layer {
  name: "relu2"
  type: "ReLU"
  bottom: "ip2"
  top: "ip2"
}
layer {
  name: "ip3"
  type: "InnerProduct"
  bottom: "ip2"
  top: "ip3"
  param {
    lr_mult: 1
  }
  param {
    lr_mult: 2
  }
  inner_product_param {
    num_output: 10
    weight_filler {
      type: "gaussian"
      std: 0.01
    }
    bias_filler {
      type: "constant"
    }
  }
}
layer {
  name: "loss"
  type: "SoftmaxWithLoss"
  bottom: "ip3"
  bottom: "label"
  top: "loss"
}
I0504 09:55:00.936252 24409 layer_factory.hpp:77] Creating layer cifar
I0504 09:55:00.936353 24409 db_lmdb.cpp:35] Opened lmdb examples/cifar10/cifar10_train_lmdb
I0504 09:55:00.936380 24409 net.cpp:86] Creating Layer cifar
I0504 09:55:00.936390 24409 net.cpp:382] cifar -> data
I0504 09:55:00.936413 24409 net.cpp:382] cifar -> label
I0504 09:55:00.936424 24409 data_transformer.cpp:25] Loading mean file from: examples/cifar10/mean.binaryproto
I0504 09:55:00.938630 24409 data_layer.cpp:45] output data size: 111,3,32,32
I0504 09:55:00.946642 24409 net.cpp:124] Setting up cifar
I0504 09:55:00.946662 24409 net.cpp:131] Top shape: 111 3 32 32 (340992)
I0504 09:55:00.946668 24409 net.cpp:131] Top shape: 111 (111)
I0504 09:55:00.946672 24409 net.cpp:139] Memory required for data: 1364412
I0504 09:55:00.946679 24409 layer_factory.hpp:77] Creating layer conv0
I0504 09:55:00.946699 24409 net.cpp:86] Creating Layer conv0
I0504 09:55:00.946705 24409 net.cpp:408] conv0 <- data
I0504 09:55:00.946718 24409 net.cpp:382] conv0 -> conv0
I0504 09:55:01.233085 24409 net.cpp:124] Setting up conv0
I0504 09:55:01.233114 24409 net.cpp:131] Top shape: 111 24 32 32 (2727936)
I0504 09:55:01.233117 24409 net.cpp:139] Memory required for data: 12276156
I0504 09:55:01.233134 24409 layer_factory.hpp:77] Creating layer Sigmoid0
I0504 09:55:01.233145 24409 net.cpp:86] Creating Layer Sigmoid0
I0504 09:55:01.233150 24409 net.cpp:408] Sigmoid0 <- conv0
I0504 09:55:01.233155 24409 net.cpp:382] Sigmoid0 -> Sigmoid0
I0504 09:55:01.233345 24409 net.cpp:124] Setting up Sigmoid0
I0504 09:55:01.233355 24409 net.cpp:131] Top shape: 111 24 32 32 (2727936)
I0504 09:55:01.233358 24409 net.cpp:139] Memory required for data: 23187900
I0504 09:55:01.233362 24409 layer_factory.hpp:77] Creating layer pool0
I0504 09:55:01.233369 24409 net.cpp:86] Creating Layer pool0
I0504 09:55:01.233372 24409 net.cpp:408] pool0 <- Sigmoid0
I0504 09:55:01.233377 24409 net.cpp:382] pool0 -> pool0
I0504 09:55:01.234138 24409 net.cpp:124] Setting up pool0
I0504 09:55:01.234151 24409 net.cpp:131] Top shape: 111 24 16 16 (681984)
I0504 09:55:01.234155 24409 net.cpp:139] Memory required for data: 25915836
I0504 09:55:01.234158 24409 layer_factory.hpp:77] Creating layer conv1
I0504 09:55:01.234171 24409 net.cpp:86] Creating Layer conv1
I0504 09:55:01.234175 24409 net.cpp:408] conv1 <- pool0
I0504 09:55:01.234180 24409 net.cpp:382] conv1 -> conv1
I0504 09:55:01.237277 24409 net.cpp:124] Setting up conv1
I0504 09:55:01.237292 24409 net.cpp:131] Top shape: 111 72 18 18 (2589408)
I0504 09:55:01.237295 24409 net.cpp:139] Memory required for data: 36273468
I0504 09:55:01.237304 24409 layer_factory.hpp:77] Creating layer Sigmoid1
I0504 09:55:01.237310 24409 net.cpp:86] Creating Layer Sigmoid1
I0504 09:55:01.237314 24409 net.cpp:408] Sigmoid1 <- conv1
I0504 09:55:01.237319 24409 net.cpp:382] Sigmoid1 -> Sigmoid1
I0504 09:55:01.237498 24409 net.cpp:124] Setting up Sigmoid1
I0504 09:55:01.237509 24409 net.cpp:131] Top shape: 111 72 18 18 (2589408)
I0504 09:55:01.237511 24409 net.cpp:139] Memory required for data: 46631100
I0504 09:55:01.237515 24409 layer_factory.hpp:77] Creating layer pool1
I0504 09:55:01.237521 24409 net.cpp:86] Creating Layer pool1
I0504 09:55:01.237524 24409 net.cpp:408] pool1 <- Sigmoid1
I0504 09:55:01.237529 24409 net.cpp:382] pool1 -> pool1
I0504 09:55:01.237699 24409 net.cpp:124] Setting up pool1
I0504 09:55:01.237707 24409 net.cpp:131] Top shape: 111 72 9 9 (647352)
I0504 09:55:01.237711 24409 net.cpp:139] Memory required for data: 49220508
I0504 09:55:01.237715 24409 layer_factory.hpp:77] Creating layer ip1
I0504 09:55:01.237721 24409 net.cpp:86] Creating Layer ip1
I0504 09:55:01.237725 24409 net.cpp:408] ip1 <- pool1
I0504 09:55:01.237730 24409 net.cpp:382] ip1 -> ip1
I0504 09:55:01.248350 24409 net.cpp:124] Setting up ip1
I0504 09:55:01.248363 24409 net.cpp:131] Top shape: 111 60 (6660)
I0504 09:55:01.248368 24409 net.cpp:139] Memory required for data: 49247148
I0504 09:55:01.248375 24409 layer_factory.hpp:77] Creating layer relu1
I0504 09:55:01.248383 24409 net.cpp:86] Creating Layer relu1
I0504 09:55:01.248386 24409 net.cpp:408] relu1 <- ip1
I0504 09:55:01.248391 24409 net.cpp:369] relu1 -> ip1 (in-place)
I0504 09:55:01.248555 24409 net.cpp:124] Setting up relu1
I0504 09:55:01.248564 24409 net.cpp:131] Top shape: 111 60 (6660)
I0504 09:55:01.248567 24409 net.cpp:139] Memory required for data: 49273788
I0504 09:55:01.248570 24409 layer_factory.hpp:77] Creating layer ip2
I0504 09:55:01.248576 24409 net.cpp:86] Creating Layer ip2
I0504 09:55:01.248580 24409 net.cpp:408] ip2 <- ip1
I0504 09:55:01.248600 24409 net.cpp:382] ip2 -> ip2
I0504 09:55:01.248719 24409 net.cpp:124] Setting up ip2
I0504 09:55:01.248726 24409 net.cpp:131] Top shape: 111 10 (1110)
I0504 09:55:01.248730 24409 net.cpp:139] Memory required for data: 49278228
I0504 09:55:01.248735 24409 layer_factory.hpp:77] Creating layer relu2
I0504 09:55:01.248740 24409 net.cpp:86] Creating Layer relu2
I0504 09:55:01.248744 24409 net.cpp:408] relu2 <- ip2
I0504 09:55:01.248749 24409 net.cpp:369] relu2 -> ip2 (in-place)
I0504 09:55:01.249502 24409 net.cpp:124] Setting up relu2
I0504 09:55:01.249516 24409 net.cpp:131] Top shape: 111 10 (1110)
I0504 09:55:01.249518 24409 net.cpp:139] Memory required for data: 49282668
I0504 09:55:01.249522 24409 layer_factory.hpp:77] Creating layer ip3
I0504 09:55:01.249528 24409 net.cpp:86] Creating Layer ip3
I0504 09:55:01.249532 24409 net.cpp:408] ip3 <- ip2
I0504 09:55:01.249537 24409 net.cpp:382] ip3 -> ip3
I0504 09:55:01.249639 24409 net.cpp:124] Setting up ip3
I0504 09:55:01.249646 24409 net.cpp:131] Top shape: 111 10 (1110)
I0504 09:55:01.249650 24409 net.cpp:139] Memory required for data: 49287108
I0504 09:55:01.249657 24409 layer_factory.hpp:77] Creating layer loss
I0504 09:55:01.249663 24409 net.cpp:86] Creating Layer loss
I0504 09:55:01.249666 24409 net.cpp:408] loss <- ip3
I0504 09:55:01.249670 24409 net.cpp:408] loss <- label
I0504 09:55:01.249675 24409 net.cpp:382] loss -> loss
I0504 09:55:01.249688 24409 layer_factory.hpp:77] Creating layer loss
…
I0504 09:55:01.250371 24409 solver.cpp:173] Creating test net (#0) specified by net file: ECE595/cifar/train_test/var_everything_tiny/cifar_train_test_126.prototxt
I0504 09:55:01.250398 24409 net.cpp:296] The NetState phase (1) differed from the phase (0) specified by a rule in layer cifar
I0504 09:55:01.250495 24409 net.cpp:53] Initializing net from parameters: 
name: "CIFAR"
state {
  phase: TEST
}
layer {
  name: "cifar"
  type: "Data"
  top: "data"
  top: "label"
  include {
    phase: TEST
  }
  transform_param {
    mean_file: "examples/cifar10/mean.binaryproto"
  }
  data_param {
    source: "examples/cifar10/cifar10_test_lmdb"
    batch_size: 1000
    backend: LMDB
  }
}
layer {
  name: "conv0"
  type: "Convolution"
  bottom: "data"
  top: "conv0"
  param {
    lr_mult: 1
  }
  param {
    lr_mult: 2
  }
  convolution_param {
    num_output: 24
    pad: 2
    kernel_size: 5
    stride: 1
    weight_filler {
      type: "gaussian"
      std: 0.01
    }
    bias_filler {
      type: "constant"
    }
  }
}
layer {
  name: "Sigmoid0"
  type: "Sigmoid"
  bottom: "conv0"
  top: "Sigmoid0"
}
layer {
  name: "pool0"
  type: "Pooling"
  bottom: "Sigmoid0"
  top: "pool0"
  pooling_param {
    pool: AVE
    kernel_size: 3
    stride: 2
  }
}
layer {
  name: "conv1"
  type: "Convolution"
  bottom: "pool0"
  top: "conv1"
  param {
    lr_mult: 1
  }
  param {
    lr_mult: 2
  }
  convolution_param {
    num_output: 72
    pad: 2
    kernel_size: 3
    stride: 1
    weight_filler {
      type: "gaussian"
      std: 0.01
    }
    bias_filler {
      type: "constant"
    }
  }
}
layer {
  name: "Sigmoid1"
  type: "Sigmoid"
  bottom: "conv1"
  top: "Sigmoid1"
}
layer {
  name: "pool1"
  type: "Pooling"
  bottom: "Sigmoid1"
  top: "pool1"
  pooling_param {
    pool: AVE
    kernel_size: 3
    stride: 2
  }
}
layer {
  name: "ip1"
  type: "InnerProduct"
  bottom: "pool1"
  top: "ip1"
  param {
    lr_mult: 1
  }
  param {
    lr_mult: 2
  }
  inner_product_param {
    num_output: 60
    weight_filler {
      type: "gaussian"
      std: 0.01
    }
    bias_filler {
      type: "constant"
    }
  }
}
layer {
  name: "relu1"
  type: "ReLU"
  bottom: "ip1"
  top: "ip1"
}
layer {
  name: "ip2"
  type: "InnerProduct"
  bottom: "ip1"
  top: "ip2"
  param {
    lr_mult: 1
  }
  param {
    lr_mult: 2
  }
  inner_product_param {
    num_output: 10
    weight_filler {
      type: "gaussian"
      std: 0.01
    }
    bias_filler {
      type: "constant"
    }
  }
}
layer {
  name: "relu2"
  type: "ReLU"
  bottom: "ip2"
  top: "ip2"
}
layer {
  name: "ip3"
  type: "InnerProduct"
  bottom: "ip2"
  top: "ip3"
  param {
    lr_mult: 1
  }
  param {
    lr_mult: 2
  }
  inner_product_param {
    num_output: 10
    weight_filler {
      type: "gaussian"
      std: 0.01
    }
    bias_filler {
      type: "constant"
    }
  }
}
layer {
  name: "accuracy"
  type: "Accuracy"
  bottom: "ip3"
  bottom: "label"
  top: "accuracy"
  include {
    phase: TEST
  }
}
layer {
  name: "loss"
  type: "SoftmaxWithLoss"
  bottom: "ip3"
  bottom: "label"
  top: "loss"
}
I0504 09:55:01.250577 24409 layer_factory.hpp:77] Creating layer cifar
I0504 09:55:01.250623 24409 db_lmdb.cpp:35] Opened lmdb examples/cifar10/cifar10_test_lmdb
I0504 09:55:01.250635 24409 net.cpp:86] Creating Layer cifar
I0504 09:55:01.250640 24409 net.cpp:382] cifar -> data
I0504 09:55:01.250648 24409 net.cpp:382] cifar -> label
I0504 09:55:01.250654 24409 data_transformer.cpp:25] Loading mean file from: examples/cifar10/mean.binaryproto
I0504 09:55:01.250795 24409 data_layer.cpp:45] output data size: 1000,3,32,32
I0504 09:55:01.272645 24409 net.cpp:124] Setting up cifar
I0504 09:55:01.272686 24409 net.cpp:131] Top shape: 1000 3 32 32 (3072000)
I0504 09:55:01.272693 24409 net.cpp:131] Top shape: 1000 (1000)
I0504 09:55:01.272696 24409 net.cpp:139] Memory required for data: 12292000
I0504 09:55:01.272701 24409 layer_factory.hpp:77] Creating layer label_cifar_1_split
I0504 09:55:01.272716 24409 net.cpp:86] Creating Layer label_cifar_1_split
I0504 09:55:01.272719 24409 net.cpp:408] label_cifar_1_split <- label
I0504 09:55:01.272725 24409 net.cpp:382] label_cifar_1_split -> label_cifar_1_split_0
I0504 09:55:01.272734 24409 net.cpp:382] label_cifar_1_split -> label_cifar_1_split_1
I0504 09:55:01.272912 24409 net.cpp:124] Setting up label_cifar_1_split
I0504 09:55:01.272922 24409 net.cpp:131] Top shape: 1000 (1000)
I0504 09:55:01.272925 24409 net.cpp:131] Top shape: 1000 (1000)
I0504 09:55:01.272928 24409 net.cpp:139] Memory required for data: 12300000
I0504 09:55:01.272933 24409 layer_factory.hpp:77] Creating layer conv0
I0504 09:55:01.272945 24409 net.cpp:86] Creating Layer conv0
I0504 09:55:01.272949 24409 net.cpp:408] conv0 <- data
I0504 09:55:01.272956 24409 net.cpp:382] conv0 -> conv0
I0504 09:55:01.274636 24409 net.cpp:124] Setting up conv0
I0504 09:55:01.274665 24409 net.cpp:131] Top shape: 1000 24 32 32 (24576000)
I0504 09:55:01.274669 24409 net.cpp:139] Memory required for data: 110604000
I0504 09:55:01.274679 24409 layer_factory.hpp:77] Creating layer Sigmoid0
I0504 09:55:01.274685 24409 net.cpp:86] Creating Layer Sigmoid0
I0504 09:55:01.274689 24409 net.cpp:408] Sigmoid0 <- conv0
I0504 09:55:01.274693 24409 net.cpp:382] Sigmoid0 -> Sigmoid0
I0504 09:55:01.274860 24409 net.cpp:124] Setting up Sigmoid0
I0504 09:55:01.274881 24409 net.cpp:131] Top shape: 1000 24 32 32 (24576000)
I0504 09:55:01.274885 24409 net.cpp:139] Memory required for data: 208908000
I0504 09:55:01.274888 24409 layer_factory.hpp:77] Creating layer pool0
I0504 09:55:01.274896 24409 net.cpp:86] Creating Layer pool0
I0504 09:55:01.274899 24409 net.cpp:408] pool0 <- Sigmoid0
I0504 09:55:01.274904 24409 net.cpp:382] pool0 -> pool0
I0504 09:55:01.275190 24409 net.cpp:124] Setting up pool0
I0504 09:55:01.275199 24409 net.cpp:131] Top shape: 1000 24 16 16 (6144000)
I0504 09:55:01.275203 24409 net.cpp:139] Memory required for data: 233484000
I0504 09:55:01.275207 24409 layer_factory.hpp:77] Creating layer conv1
I0504 09:55:01.275216 24409 net.cpp:86] Creating Layer conv1
I0504 09:55:01.275220 24409 net.cpp:408] conv1 <- pool0
I0504 09:55:01.275226 24409 net.cpp:382] conv1 -> conv1
I0504 09:55:01.278024 24409 net.cpp:124] Setting up conv1
I0504 09:55:01.278053 24409 net.cpp:131] Top shape: 1000 72 18 18 (23328000)
I0504 09:55:01.278057 24409 net.cpp:139] Memory required for data: 326796000
I0504 09:55:01.278066 24409 layer_factory.hpp:77] Creating layer Sigmoid1
I0504 09:55:01.278074 24409 net.cpp:86] Creating Layer Sigmoid1
I0504 09:55:01.278076 24409 net.cpp:408] Sigmoid1 <- conv1
I0504 09:55:01.278081 24409 net.cpp:382] Sigmoid1 -> Sigmoid1
I0504 09:55:01.278252 24409 net.cpp:124] Setting up Sigmoid1
I0504 09:55:01.278262 24409 net.cpp:131] Top shape: 1000 72 18 18 (23328000)
I0504 09:55:01.278265 24409 net.cpp:139] Memory required for data: 420108000
I0504 09:55:01.278270 24409 layer_factory.hpp:77] Creating layer pool1
I0504 09:55:01.278275 24409 net.cpp:86] Creating Layer pool1
I0504 09:55:01.278278 24409 net.cpp:408] pool1 <- Sigmoid1
I0504 09:55:01.278283 24409 net.cpp:382] pool1 -> pool1
I0504 09:55:01.279064 24409 net.cpp:124] Setting up pool1
I0504 09:55:01.279076 24409 net.cpp:131] Top shape: 1000 72 9 9 (5832000)
I0504 09:55:01.279094 24409 net.cpp:139] Memory required for data: 443436000
I0504 09:55:01.279098 24409 layer_factory.hpp:77] Creating layer ip1
I0504 09:55:01.279109 24409 net.cpp:86] Creating Layer ip1
I0504 09:55:01.279111 24409 net.cpp:408] ip1 <- pool1
I0504 09:55:01.279116 24409 net.cpp:382] ip1 -> ip1
I0504 09:55:01.289603 24409 net.cpp:124] Setting up ip1
I0504 09:55:01.289618 24409 net.cpp:131] Top shape: 1000 60 (60000)
I0504 09:55:01.289636 24409 net.cpp:139] Memory required for data: 443676000
I0504 09:55:01.289645 24409 layer_factory.hpp:77] Creating layer relu1
I0504 09:55:01.289652 24409 net.cpp:86] Creating Layer relu1
I0504 09:55:01.289656 24409 net.cpp:408] relu1 <- ip1
I0504 09:55:01.289675 24409 net.cpp:369] relu1 -> ip1 (in-place)
I0504 09:55:01.289849 24409 net.cpp:124] Setting up relu1
I0504 09:55:01.289858 24409 net.cpp:131] Top shape: 1000 60 (60000)
I0504 09:55:01.289861 24409 net.cpp:139] Memory required for data: 443916000
I0504 09:55:01.289865 24409 layer_factory.hpp:77] Creating layer ip2
I0504 09:55:01.289873 24409 net.cpp:86] Creating Layer ip2
I0504 09:55:01.289877 24409 net.cpp:408] ip2 <- ip1
I0504 09:55:01.289882 24409 net.cpp:382] ip2 -> ip2
I0504 09:55:01.290021 24409 net.cpp:124] Setting up ip2
I0504 09:55:01.290029 24409 net.cpp:131] Top shape: 1000 10 (10000)
I0504 09:55:01.290031 24409 net.cpp:139] Memory required for data: 443956000
I0504 09:55:01.290036 24409 layer_factory.hpp:77] Creating layer relu2
I0504 09:55:01.290041 24409 net.cpp:86] Creating Layer relu2
I0504 09:55:01.290045 24409 net.cpp:408] relu2 <- ip2
I0504 09:55:01.290050 24409 net.cpp:369] relu2 -> ip2 (in-place)
I0504 09:55:01.290206 24409 net.cpp:124] Setting up relu2
I0504 09:55:01.290215 24409 net.cpp:131] Top shape: 1000 10 (10000)
I0504 09:55:01.290217 24409 net.cpp:139] Memory required for data: 443996000
I0504 09:55:01.290220 24409 layer_factory.hpp:77] Creating layer ip3
I0504 09:55:01.290227 24409 net.cpp:86] Creating Layer ip3
I0504 09:55:01.290230 24409 net.cpp:408] ip3 <- ip2
I0504 09:55:01.290236 24409 net.cpp:382] ip3 -> ip3
I0504 09:55:01.290338 24409 net.cpp:124] Setting up ip3
I0504 09:55:01.290345 24409 net.cpp:131] Top shape: 1000 10 (10000)
I0504 09:55:01.290357 24409 net.cpp:139] Memory required for data: 444036000
I0504 09:55:01.290365 24409 layer_factory.hpp:77] Creating layer ip3_ip3_0_split
I0504 09:55:01.290370 24409 net.cpp:86] Creating Layer ip3_ip3_0_split
I0504 09:55:01.290374 24409 net.cpp:408] ip3_ip3_0_split <- ip3
I0504 09:55:01.290377 24409 net.cpp:382] ip3_ip3_0_split -> ip3_ip3_0_split_0
I0504 09:55:01.290382 24409 net.cpp:382] ip3_ip3_0_split -> ip3_ip3_0_split_1
I0504 09:55:01.290416 24409 net.cpp:124] Setting up ip3_ip3_0_split
I0504 09:55:01.290423 24409 net.cpp:131] Top shape: 1000 10 (10000)
I0504 09:55:01.290427 24409 net.cpp:131] Top shape: 1000 10 (10000)
I0504 09:55:01.290431 24409 net.cpp:139] Memory required for data: 444116000
I0504 09:55:01.290432 24409 layer_factory.hpp:77] Creating layer accuracy
I0504 09:55:01.290438 24409 net.cpp:86] Creating Layer accuracy
I0504 09:55:01.290441 24409 net.cpp:408] accuracy <- ip3_ip3_0_split_0
I0504 09:55:01.290453 24409 net.cpp:408] accuracy <- label_cifar_1_split_0
I0504 09:55:01.290458 24409 net.cpp:382] accuracy -> accuracy
…
