…
I0504 02:24:35.029225  9130 net.cpp:296] The NetState phase (0) differed from the phase (1) specified by a rule in layer cifar
I0504 02:24:35.029240  9130 net.cpp:296] The NetState phase (0) differed from the phase (1) specified by a rule in layer accuracy
I0504 02:24:35.029322  9130 net.cpp:53] Initializing net from parameters: 
name: "CIFAR"
state {
  phase: TRAIN
  level: 0
  stage: ""
}
layer {
  name: "cifar"
  type: "Data"
  top: "data"
  top: "label"
  include {
    phase: TRAIN
  }
  transform_param {
    mean_file: "examples/cifar10/mean.binaryproto"
  }
  data_param {
    source: "examples/cifar10/cifar10_train_lmdb"
    batch_size: 111
    backend: LMDB
  }
}
layer {
  name: "conv0"
  type: "Convolution"
  bottom: "data"
  top: "conv0"
  param {
    lr_mult: 1
  }
  param {
    lr_mult: 2
  }
  convolution_param {
    num_output: 72
    pad: 2
    kernel_size: 5
    stride: 1
    weight_filler {
      type: "gaussian"
      std: 0.01
    }
    bias_filler {
      type: "constant"
    }
  }
}
layer {
  name: "Sigmoid0"
  type: "Sigmoid"
  bottom: "conv0"
  top: "Sigmoid0"
}
layer {
  name: "pool0"
  type: "Pooling"
  bottom: "Sigmoid0"
  top: "pool0"
  pooling_param {
    pool: AVE
    kernel_size: 3
    stride: 2
  }
}
layer {
  name: "ip1"
  type: "InnerProduct"
  bottom: "pool0"
  top: "ip1"
  param {
    lr_mult: 1
  }
  param {
    lr_mult: 2
  }
  inner_product_param {
    num_output: 180
    weight_filler {
      type: "gaussian"
      std: 0.01
    }
    bias_filler {
      type: "constant"
    }
  }
}
layer {
  name: "relu1"
  type: "ReLU"
  bottom: "ip1"
  top: "ip1"
}
layer {
  name: "ip2"
  type: "InnerProduct"
  bottom: "ip1"
  top: "ip2"
  param {
    lr_mult: 1
  }
  param {
    lr_mult: 2
  }
  inner_product_param {
    num_output: 180
    weight_filler {
      type: "gaussian"
      std: 0.01
    }
    bias_filler {
      type: "constant"
    }
  }
}
layer {
  name: "relu2"
  type: "ReLU"
  bottom: "ip2"
  top: "ip2"
}
layer {
  name: "ip3"
  type: "InnerProduct"
  bottom: "ip2"
  top: "ip3"
  param {
    lr_mult: 1
  }
  param {
    lr_mult: 2
  }
  inner_product_param {
    num_output: 10
    weight_filler {
      type: "gaussian"
      std: 0.01
    }
    bias_filler {
      type: "constant"
    }
  }
}
layer {
  name: "loss"
  type: "SoftmaxWithLoss"
  bottom: "ip3"
  bottom: "label"
  top: "loss"
}
I0504 02:24:35.029388  9130 layer_factory.hpp:77] Creating layer cifar
I0504 02:24:35.029476  9130 db_lmdb.cpp:35] Opened lmdb examples/cifar10/cifar10_train_lmdb
I0504 02:24:35.029500  9130 net.cpp:86] Creating Layer cifar
I0504 02:24:35.029508  9130 net.cpp:382] cifar -> data
I0504 02:24:35.029527  9130 net.cpp:382] cifar -> label
I0504 02:24:35.029538  9130 data_transformer.cpp:25] Loading mean file from: examples/cifar10/mean.binaryproto
I0504 02:24:35.031455  9130 data_layer.cpp:45] output data size: 111,3,32,32
I0504 02:24:35.038430  9130 net.cpp:124] Setting up cifar
I0504 02:24:35.038449  9130 net.cpp:131] Top shape: 111 3 32 32 (340992)
I0504 02:24:35.038453  9130 net.cpp:131] Top shape: 111 (111)
I0504 02:24:35.038456  9130 net.cpp:139] Memory required for data: 1364412
I0504 02:24:35.038462  9130 layer_factory.hpp:77] Creating layer conv0
I0504 02:24:35.038478  9130 net.cpp:86] Creating Layer conv0
I0504 02:24:35.038483  9130 net.cpp:408] conv0 <- data
I0504 02:24:35.038494  9130 net.cpp:382] conv0 -> conv0
I0504 02:24:35.266222  9130 net.cpp:124] Setting up conv0
I0504 02:24:35.266264  9130 net.cpp:131] Top shape: 111 72 32 32 (8183808)
I0504 02:24:35.266269  9130 net.cpp:139] Memory required for data: 34099644
I0504 02:24:35.266283  9130 layer_factory.hpp:77] Creating layer Sigmoid0
I0504 02:24:35.266294  9130 net.cpp:86] Creating Layer Sigmoid0
I0504 02:24:35.266299  9130 net.cpp:408] Sigmoid0 <- conv0
I0504 02:24:35.266304  9130 net.cpp:382] Sigmoid0 -> Sigmoid0
I0504 02:24:35.266481  9130 net.cpp:124] Setting up Sigmoid0
I0504 02:24:35.266491  9130 net.cpp:131] Top shape: 111 72 32 32 (8183808)
I0504 02:24:35.266510  9130 net.cpp:139] Memory required for data: 66834876
I0504 02:24:35.266513  9130 layer_factory.hpp:77] Creating layer pool0
I0504 02:24:35.266520  9130 net.cpp:86] Creating Layer pool0
I0504 02:24:35.266523  9130 net.cpp:408] pool0 <- Sigmoid0
I0504 02:24:35.266528  9130 net.cpp:382] pool0 -> pool0
I0504 02:24:35.267251  9130 net.cpp:124] Setting up pool0
I0504 02:24:35.267263  9130 net.cpp:131] Top shape: 111 72 16 16 (2045952)
I0504 02:24:35.267266  9130 net.cpp:139] Memory required for data: 75018684
I0504 02:24:35.267269  9130 layer_factory.hpp:77] Creating layer ip1
I0504 02:24:35.267277  9130 net.cpp:86] Creating Layer ip1
I0504 02:24:35.267280  9130 net.cpp:408] ip1 <- pool0
I0504 02:24:35.267285  9130 net.cpp:382] ip1 -> ip1
I0504 02:24:35.352084  9130 net.cpp:124] Setting up ip1
I0504 02:24:35.352115  9130 net.cpp:131] Top shape: 111 180 (19980)
I0504 02:24:35.352118  9130 net.cpp:139] Memory required for data: 75098604
I0504 02:24:35.352128  9130 layer_factory.hpp:77] Creating layer relu1
I0504 02:24:35.352134  9130 net.cpp:86] Creating Layer relu1
I0504 02:24:35.352138  9130 net.cpp:408] relu1 <- ip1
I0504 02:24:35.352143  9130 net.cpp:369] relu1 -> ip1 (in-place)
I0504 02:24:35.352331  9130 net.cpp:124] Setting up relu1
I0504 02:24:35.352339  9130 net.cpp:131] Top shape: 111 180 (19980)
I0504 02:24:35.352342  9130 net.cpp:139] Memory required for data: 75178524
I0504 02:24:35.352345  9130 layer_factory.hpp:77] Creating layer ip2
I0504 02:24:35.352352  9130 net.cpp:86] Creating Layer ip2
I0504 02:24:35.352357  9130 net.cpp:408] ip2 <- ip1
I0504 02:24:35.352376  9130 net.cpp:382] ip2 -> ip2
I0504 02:24:35.354167  9130 net.cpp:124] Setting up ip2
I0504 02:24:35.354178  9130 net.cpp:131] Top shape: 111 180 (19980)
I0504 02:24:35.354182  9130 net.cpp:139] Memory required for data: 75258444
I0504 02:24:35.354188  9130 layer_factory.hpp:77] Creating layer relu2
I0504 02:24:35.354193  9130 net.cpp:86] Creating Layer relu2
I0504 02:24:35.354197  9130 net.cpp:408] relu2 <- ip2
I0504 02:24:35.354200  9130 net.cpp:369] relu2 -> ip2 (in-place)
I0504 02:24:35.354368  9130 net.cpp:124] Setting up relu2
I0504 02:24:35.354377  9130 net.cpp:131] Top shape: 111 180 (19980)
I0504 02:24:35.354379  9130 net.cpp:139] Memory required for data: 75338364
I0504 02:24:35.354382  9130 layer_factory.hpp:77] Creating layer ip3
I0504 02:24:35.354389  9130 net.cpp:86] Creating Layer ip3
I0504 02:24:35.354395  9130 net.cpp:408] ip3 <- ip2
I0504 02:24:35.354400  9130 net.cpp:382] ip3 -> ip3
I0504 02:24:35.354552  9130 net.cpp:124] Setting up ip3
I0504 02:24:35.354559  9130 net.cpp:131] Top shape: 111 10 (1110)
I0504 02:24:35.354562  9130 net.cpp:139] Memory required for data: 75342804
I0504 02:24:35.354568  9130 layer_factory.hpp:77] Creating layer loss
I0504 02:24:35.354574  9130 net.cpp:86] Creating Layer loss
I0504 02:24:35.354578  9130 net.cpp:408] loss <- ip3
I0504 02:24:35.354580  9130 net.cpp:408] loss <- label
I0504 02:24:35.354586  9130 net.cpp:382] loss -> loss
I0504 02:24:35.354602  9130 layer_factory.hpp:77] Creating layer loss
…
I0504 02:24:35.355242  9130 solver.cpp:173] Creating test net (#0) specified by net file: ECE595/cifar/train_test/var_everything_tiny/cifar_train_test_47.prototxt
I0504 02:24:35.355265  9130 net.cpp:296] The NetState phase (1) differed from the phase (0) specified by a rule in layer cifar
I0504 02:24:35.355363  9130 net.cpp:53] Initializing net from parameters: 
name: "CIFAR"
state {
  phase: TEST
}
layer {
  name: "cifar"
  type: "Data"
  top: "data"
  top: "label"
  include {
    phase: TEST
  }
  transform_param {
    mean_file: "examples/cifar10/mean.binaryproto"
  }
  data_param {
    source: "examples/cifar10/cifar10_test_lmdb"
    batch_size: 1000
    backend: LMDB
  }
}
layer {
  name: "conv0"
  type: "Convolution"
  bottom: "data"
  top: "conv0"
  param {
    lr_mult: 1
  }
  param {
    lr_mult: 2
  }
  convolution_param {
    num_output: 72
    pad: 2
    kernel_size: 5
    stride: 1
    weight_filler {
      type: "gaussian"
      std: 0.01
    }
    bias_filler {
      type: "constant"
    }
  }
}
layer {
  name: "Sigmoid0"
  type: "Sigmoid"
  bottom: "conv0"
  top: "Sigmoid0"
}
layer {
  name: "pool0"
  type: "Pooling"
  bottom: "Sigmoid0"
  top: "pool0"
  pooling_param {
    pool: AVE
    kernel_size: 3
    stride: 2
  }
}
layer {
  name: "ip1"
  type: "InnerProduct"
  bottom: "pool0"
  top: "ip1"
  param {
    lr_mult: 1
  }
  param {
    lr_mult: 2
  }
  inner_product_param {
    num_output: 180
    weight_filler {
      type: "gaussian"
      std: 0.01
    }
    bias_filler {
      type: "constant"
    }
  }
}
layer {
  name: "relu1"
  type: "ReLU"
  bottom: "ip1"
  top: "ip1"
}
layer {
  name: "ip2"
  type: "InnerProduct"
  bottom: "ip1"
  top: "ip2"
  param {
    lr_mult: 1
  }
  param {
    lr_mult: 2
  }
  inner_product_param {
    num_output: 180
    weight_filler {
      type: "gaussian"
      std: 0.01
    }
    bias_filler {
      type: "constant"
    }
  }
}
layer {
  name: "relu2"
  type: "ReLU"
  bottom: "ip2"
  top: "ip2"
}
layer {
  name: "ip3"
  type: "InnerProduct"
  bottom: "ip2"
  top: "ip3"
  param {
    lr_mult: 1
  }
  param {
    lr_mult: 2
  }
  inner_product_param {
    num_output: 10
    weight_filler {
      type: "gaussian"
      std: 0.01
    }
    bias_filler {
      type: "constant"
    }
  }
}
layer {
  name: "accuracy"
  type: "Accuracy"
  bottom: "ip3"
  bottom: "label"
  top: "accuracy"
  include {
    phase: TEST
  }
}
layer {
  name: "loss"
  type: "SoftmaxWithLoss"
  bottom: "ip3"
  bottom: "label"
  top: "loss"
}
I0504 02:24:35.355423  9130 layer_factory.hpp:77] Creating layer cifar
I0504 02:24:35.355468  9130 db_lmdb.cpp:35] Opened lmdb examples/cifar10/cifar10_test_lmdb
I0504 02:24:35.355482  9130 net.cpp:86] Creating Layer cifar
I0504 02:24:35.355489  9130 net.cpp:382] cifar -> data
I0504 02:24:35.355496  9130 net.cpp:382] cifar -> label
I0504 02:24:35.355504  9130 data_transformer.cpp:25] Loading mean file from: examples/cifar10/mean.binaryproto
I0504 02:24:35.355643  9130 data_layer.cpp:45] output data size: 1000,3,32,32
I0504 02:24:35.376173  9130 net.cpp:124] Setting up cifar
I0504 02:24:35.376212  9130 net.cpp:131] Top shape: 1000 3 32 32 (3072000)
I0504 02:24:35.376219  9130 net.cpp:131] Top shape: 1000 (1000)
I0504 02:24:35.376221  9130 net.cpp:139] Memory required for data: 12292000
I0504 02:24:35.376227  9130 layer_factory.hpp:77] Creating layer label_cifar_1_split
I0504 02:24:35.376256  9130 net.cpp:86] Creating Layer label_cifar_1_split
I0504 02:24:35.376260  9130 net.cpp:408] label_cifar_1_split <- label
I0504 02:24:35.376267  9130 net.cpp:382] label_cifar_1_split -> label_cifar_1_split_0
I0504 02:24:35.376276  9130 net.cpp:382] label_cifar_1_split -> label_cifar_1_split_1
I0504 02:24:35.376380  9130 net.cpp:124] Setting up label_cifar_1_split
I0504 02:24:35.376389  9130 net.cpp:131] Top shape: 1000 (1000)
I0504 02:24:35.376392  9130 net.cpp:131] Top shape: 1000 (1000)
I0504 02:24:35.376394  9130 net.cpp:139] Memory required for data: 12300000
I0504 02:24:35.376399  9130 layer_factory.hpp:77] Creating layer conv0
I0504 02:24:35.376410  9130 net.cpp:86] Creating Layer conv0
I0504 02:24:35.376415  9130 net.cpp:408] conv0 <- data
I0504 02:24:35.376436  9130 net.cpp:382] conv0 -> conv0
I0504 02:24:35.379189  9130 net.cpp:124] Setting up conv0
I0504 02:24:35.379218  9130 net.cpp:131] Top shape: 1000 72 32 32 (73728000)
I0504 02:24:35.379222  9130 net.cpp:139] Memory required for data: 307212000
I0504 02:24:35.379233  9130 layer_factory.hpp:77] Creating layer Sigmoid0
I0504 02:24:35.379240  9130 net.cpp:86] Creating Layer Sigmoid0
I0504 02:24:35.379243  9130 net.cpp:408] Sigmoid0 <- conv0
I0504 02:24:35.379247  9130 net.cpp:382] Sigmoid0 -> Sigmoid0
I0504 02:24:35.380079  9130 net.cpp:124] Setting up Sigmoid0
I0504 02:24:35.380090  9130 net.cpp:131] Top shape: 1000 72 32 32 (73728000)
I0504 02:24:35.380110  9130 net.cpp:139] Memory required for data: 602124000
I0504 02:24:35.380113  9130 layer_factory.hpp:77] Creating layer pool0
I0504 02:24:35.380136  9130 net.cpp:86] Creating Layer pool0
I0504 02:24:35.380138  9130 net.cpp:408] pool0 <- Sigmoid0
I0504 02:24:35.380144  9130 net.cpp:382] pool0 -> pool0
I0504 02:24:35.380342  9130 net.cpp:124] Setting up pool0
I0504 02:24:35.380352  9130 net.cpp:131] Top shape: 1000 72 16 16 (18432000)
I0504 02:24:35.380354  9130 net.cpp:139] Memory required for data: 675852000
I0504 02:24:35.380357  9130 layer_factory.hpp:77] Creating layer ip1
I0504 02:24:35.380367  9130 net.cpp:86] Creating Layer ip1
I0504 02:24:35.380369  9130 net.cpp:408] ip1 <- pool0
I0504 02:24:35.380373  9130 net.cpp:382] ip1 -> ip1
I0504 02:24:35.488834  9130 net.cpp:124] Setting up ip1
I0504 02:24:35.488872  9130 net.cpp:131] Top shape: 1000 180 (180000)
I0504 02:24:35.488875  9130 net.cpp:139] Memory required for data: 676572000
I0504 02:24:35.488888  9130 layer_factory.hpp:77] Creating layer relu1
I0504 02:24:35.488898  9130 net.cpp:86] Creating Layer relu1
I0504 02:24:35.488901  9130 net.cpp:408] relu1 <- ip1
I0504 02:24:35.488907  9130 net.cpp:369] relu1 -> ip1 (in-place)
I0504 02:24:35.489142  9130 net.cpp:124] Setting up relu1
I0504 02:24:35.489152  9130 net.cpp:131] Top shape: 1000 180 (180000)
I0504 02:24:35.489156  9130 net.cpp:139] Memory required for data: 677292000
I0504 02:24:35.489158  9130 layer_factory.hpp:77] Creating layer ip2
I0504 02:24:35.489166  9130 net.cpp:86] Creating Layer ip2
I0504 02:24:35.489169  9130 net.cpp:408] ip2 <- ip1
I0504 02:24:35.489176  9130 net.cpp:382] ip2 -> ip2
I0504 02:24:35.490375  9130 net.cpp:124] Setting up ip2
I0504 02:24:35.490381  9130 net.cpp:131] Top shape: 1000 180 (180000)
I0504 02:24:35.490399  9130 net.cpp:139] Memory required for data: 678012000
I0504 02:24:35.490406  9130 layer_factory.hpp:77] Creating layer relu2
I0504 02:24:35.490413  9130 net.cpp:86] Creating Layer relu2
I0504 02:24:35.490417  9130 net.cpp:408] relu2 <- ip2
I0504 02:24:35.490422  9130 net.cpp:369] relu2 -> ip2 (in-place)
I0504 02:24:35.490638  9130 net.cpp:124] Setting up relu2
I0504 02:24:35.490646  9130 net.cpp:131] Top shape: 1000 180 (180000)
I0504 02:24:35.490649  9130 net.cpp:139] Memory required for data: 678732000
I0504 02:24:35.490653  9130 layer_factory.hpp:77] Creating layer ip3
I0504 02:24:35.490661  9130 net.cpp:86] Creating Layer ip3
I0504 02:24:35.490664  9130 net.cpp:408] ip3 <- ip2
I0504 02:24:35.490670  9130 net.cpp:382] ip3 -> ip3
I0504 02:24:35.490855  9130 net.cpp:124] Setting up ip3
I0504 02:24:35.490862  9130 net.cpp:131] Top shape: 1000 10 (10000)
I0504 02:24:35.490880  9130 net.cpp:139] Memory required for data: 678772000
I0504 02:24:35.490885  9130 layer_factory.hpp:77] Creating layer ip3_ip3_0_split
I0504 02:24:35.490892  9130 net.cpp:86] Creating Layer ip3_ip3_0_split
I0504 02:24:35.490896  9130 net.cpp:408] ip3_ip3_0_split <- ip3
I0504 02:24:35.490901  9130 net.cpp:382] ip3_ip3_0_split -> ip3_ip3_0_split_0
I0504 02:24:35.490906  9130 net.cpp:382] ip3_ip3_0_split -> ip3_ip3_0_split_1
I0504 02:24:35.490942  9130 net.cpp:124] Setting up ip3_ip3_0_split
I0504 02:24:35.490949  9130 net.cpp:131] Top shape: 1000 10 (10000)
I0504 02:24:35.490952  9130 net.cpp:131] Top shape: 1000 10 (10000)
I0504 02:24:35.490955  9130 net.cpp:139] Memory required for data: 678852000
I0504 02:24:35.490958  9130 layer_factory.hpp:77] Creating layer accuracy
I0504 02:24:35.490964  9130 net.cpp:86] Creating Layer accuracy
I0504 02:24:35.490967  9130 net.cpp:408] accuracy <- ip3_ip3_0_split_0
I0504 02:24:35.490970  9130 net.cpp:408] accuracy <- label_cifar_1_split_0
I0504 02:24:35.490975  9130 net.cpp:382] accuracy -> accuracy
…
