…
I0504 07:50:38.976233 20007 net.cpp:296] The NetState phase (0) differed from the phase (1) specified by a rule in layer cifar
I0504 07:50:38.976263 20007 net.cpp:296] The NetState phase (0) differed from the phase (1) specified by a rule in layer accuracy
I0504 07:50:38.976399 20007 net.cpp:53] Initializing net from parameters: 
name: "CIFAR"
state {
  phase: TRAIN
  level: 0
  stage: ""
}
layer {
  name: "cifar"
  type: "Data"
  top: "data"
  top: "label"
  include {
    phase: TRAIN
  }
  transform_param {
    mean_file: "examples/cifar10/mean.binaryproto"
  }
  data_param {
    source: "examples/cifar10/cifar10_train_lmdb"
    batch_size: 111
    backend: LMDB
  }
}
layer {
  name: "conv0"
  type: "Convolution"
  bottom: "data"
  top: "conv0"
  param {
    lr_mult: 1
  }
  param {
    lr_mult: 2
  }
  convolution_param {
    num_output: 24
    pad: 2
    kernel_size: 5
    stride: 1
    weight_filler {
      type: "gaussian"
      std: 0.01
    }
    bias_filler {
      type: "constant"
    }
  }
}
layer {
  name: "Sigmoid0"
  type: "Sigmoid"
  bottom: "conv0"
  top: "Sigmoid0"
}
layer {
  name: "pool0"
  type: "Pooling"
  bottom: "Sigmoid0"
  top: "pool0"
  pooling_param {
    pool: AVE
    kernel_size: 3
    stride: 2
  }
}
layer {
  name: "conv1"
  type: "Convolution"
  bottom: "pool0"
  top: "conv1"
  param {
    lr_mult: 1
  }
  param {
    lr_mult: 2
  }
  convolution_param {
    num_output: 24
    pad: 2
    kernel_size: 3
    stride: 1
    weight_filler {
      type: "gaussian"
      std: 0.01
    }
    bias_filler {
      type: "constant"
    }
  }
}
layer {
  name: "Sigmoid1"
  type: "Sigmoid"
  bottom: "conv1"
  top: "Sigmoid1"
}
layer {
  name: "pool1"
  type: "Pooling"
  bottom: "Sigmoid1"
  top: "pool1"
  pooling_param {
    pool: AVE
    kernel_size: 3
    stride: 2
  }
}
layer {
  name: "ip1"
  type: "InnerProduct"
  bottom: "pool1"
  top: "ip1"
  param {
    lr_mult: 1
  }
  param {
    lr_mult: 2
  }
  inner_product_param {
    num_output: 10
    weight_filler {
      type: "gaussian"
      std: 0.01
    }
    bias_filler {
      type: "constant"
    }
  }
}
layer {
  name: "relu1"
  type: "ReLU"
  bottom: "ip1"
  top: "ip1"
}
layer {
  name: "ip2"
  type: "InnerProduct"
  bottom: "ip1"
  top: "ip2"
  param {
    lr_mult: 1
  }
  param {
    lr_mult: 2
  }
  inner_product_param {
    num_output: 60
    weight_filler {
      type: "gaussian"
      std: 0.01
    }
    bias_filler {
      type: "constant"
    }
  }
}
layer {
  name: "relu2"
  type: "ReLU"
  bottom: "ip2"
  top: "ip2"
}
layer {
  name: "ip3"
  type: "InnerProduct"
  bottom: "ip2"
  top: "ip3"
  param {
    lr_mult: 1
  }
  param {
    lr_mult: 2
  }
  inner_product_param {
    num_output: 10
    weight_filler {
      type: "gaussian"
      std: 0.01
    }
    bias_filler {
      type: "constant"
    }
  }
}
layer {
  name: "loss"
  type: "SoftmaxWithLoss"
  bottom: "ip3"
  bottom: "label"
  top: "loss"
}
I0504 07:50:38.976464 20007 layer_factory.hpp:77] Creating layer cifar
I0504 07:50:38.976549 20007 db_lmdb.cpp:35] Opened lmdb examples/cifar10/cifar10_train_lmdb
I0504 07:50:38.976572 20007 net.cpp:86] Creating Layer cifar
I0504 07:50:38.976577 20007 net.cpp:382] cifar -> data
I0504 07:50:38.976598 20007 net.cpp:382] cifar -> label
I0504 07:50:38.976622 20007 data_transformer.cpp:25] Loading mean file from: examples/cifar10/mean.binaryproto
I0504 07:50:38.978453 20007 data_layer.cpp:45] output data size: 111,3,32,32
I0504 07:50:38.985134 20007 net.cpp:124] Setting up cifar
I0504 07:50:38.985167 20007 net.cpp:131] Top shape: 111 3 32 32 (340992)
I0504 07:50:38.985172 20007 net.cpp:131] Top shape: 111 (111)
I0504 07:50:38.985174 20007 net.cpp:139] Memory required for data: 1364412
I0504 07:50:38.985182 20007 layer_factory.hpp:77] Creating layer conv0
I0504 07:50:38.985211 20007 net.cpp:86] Creating Layer conv0
I0504 07:50:38.985215 20007 net.cpp:408] conv0 <- data
I0504 07:50:38.985225 20007 net.cpp:382] conv0 -> conv0
I0504 07:50:39.221624 20007 net.cpp:124] Setting up conv0
I0504 07:50:39.221665 20007 net.cpp:131] Top shape: 111 24 32 32 (2727936)
I0504 07:50:39.221669 20007 net.cpp:139] Memory required for data: 12276156
I0504 07:50:39.221684 20007 layer_factory.hpp:77] Creating layer Sigmoid0
I0504 07:50:39.221695 20007 net.cpp:86] Creating Layer Sigmoid0
I0504 07:50:39.221700 20007 net.cpp:408] Sigmoid0 <- conv0
I0504 07:50:39.221704 20007 net.cpp:382] Sigmoid0 -> Sigmoid0
I0504 07:50:39.221886 20007 net.cpp:124] Setting up Sigmoid0
I0504 07:50:39.221895 20007 net.cpp:131] Top shape: 111 24 32 32 (2727936)
I0504 07:50:39.221899 20007 net.cpp:139] Memory required for data: 23187900
I0504 07:50:39.221902 20007 layer_factory.hpp:77] Creating layer pool0
I0504 07:50:39.221909 20007 net.cpp:86] Creating Layer pool0
I0504 07:50:39.221911 20007 net.cpp:408] pool0 <- Sigmoid0
I0504 07:50:39.221916 20007 net.cpp:382] pool0 -> pool0
I0504 07:50:39.222672 20007 net.cpp:124] Setting up pool0
I0504 07:50:39.222684 20007 net.cpp:131] Top shape: 111 24 16 16 (681984)
I0504 07:50:39.222699 20007 net.cpp:139] Memory required for data: 25915836
I0504 07:50:39.222702 20007 layer_factory.hpp:77] Creating layer conv1
I0504 07:50:39.222713 20007 net.cpp:86] Creating Layer conv1
I0504 07:50:39.222733 20007 net.cpp:408] conv1 <- pool0
I0504 07:50:39.222738 20007 net.cpp:382] conv1 -> conv1
I0504 07:50:39.225548 20007 net.cpp:124] Setting up conv1
I0504 07:50:39.225560 20007 net.cpp:131] Top shape: 111 24 18 18 (863136)
I0504 07:50:39.225580 20007 net.cpp:139] Memory required for data: 29368380
I0504 07:50:39.225589 20007 layer_factory.hpp:77] Creating layer Sigmoid1
I0504 07:50:39.225594 20007 net.cpp:86] Creating Layer Sigmoid1
I0504 07:50:39.225599 20007 net.cpp:408] Sigmoid1 <- conv1
I0504 07:50:39.225602 20007 net.cpp:382] Sigmoid1 -> Sigmoid1
I0504 07:50:39.225800 20007 net.cpp:124] Setting up Sigmoid1
I0504 07:50:39.225808 20007 net.cpp:131] Top shape: 111 24 18 18 (863136)
I0504 07:50:39.225811 20007 net.cpp:139] Memory required for data: 32820924
I0504 07:50:39.225814 20007 layer_factory.hpp:77] Creating layer pool1
I0504 07:50:39.225821 20007 net.cpp:86] Creating Layer pool1
I0504 07:50:39.225824 20007 net.cpp:408] pool1 <- Sigmoid1
I0504 07:50:39.225828 20007 net.cpp:382] pool1 -> pool1
I0504 07:50:39.225985 20007 net.cpp:124] Setting up pool1
I0504 07:50:39.225992 20007 net.cpp:131] Top shape: 111 24 9 9 (215784)
I0504 07:50:39.225996 20007 net.cpp:139] Memory required for data: 33684060
I0504 07:50:39.225998 20007 layer_factory.hpp:77] Creating layer ip1
I0504 07:50:39.226006 20007 net.cpp:86] Creating Layer ip1
I0504 07:50:39.226008 20007 net.cpp:408] ip1 <- pool1
I0504 07:50:39.226012 20007 net.cpp:382] ip1 -> ip1
I0504 07:50:39.227411 20007 net.cpp:124] Setting up ip1
I0504 07:50:39.227423 20007 net.cpp:131] Top shape: 111 10 (1110)
I0504 07:50:39.227442 20007 net.cpp:139] Memory required for data: 33688500
I0504 07:50:39.227450 20007 layer_factory.hpp:77] Creating layer relu1
I0504 07:50:39.227458 20007 net.cpp:86] Creating Layer relu1
I0504 07:50:39.227460 20007 net.cpp:408] relu1 <- ip1
I0504 07:50:39.227464 20007 net.cpp:369] relu1 -> ip1 (in-place)
I0504 07:50:39.227654 20007 net.cpp:124] Setting up relu1
I0504 07:50:39.227663 20007 net.cpp:131] Top shape: 111 10 (1110)
I0504 07:50:39.227666 20007 net.cpp:139] Memory required for data: 33692940
I0504 07:50:39.227669 20007 layer_factory.hpp:77] Creating layer ip2
I0504 07:50:39.227675 20007 net.cpp:86] Creating Layer ip2
I0504 07:50:39.227679 20007 net.cpp:408] ip2 <- ip1
I0504 07:50:39.227697 20007 net.cpp:382] ip2 -> ip2
I0504 07:50:39.227826 20007 net.cpp:124] Setting up ip2
I0504 07:50:39.227834 20007 net.cpp:131] Top shape: 111 60 (6660)
I0504 07:50:39.227838 20007 net.cpp:139] Memory required for data: 33719580
I0504 07:50:39.227857 20007 layer_factory.hpp:77] Creating layer relu2
I0504 07:50:39.227862 20007 net.cpp:86] Creating Layer relu2
I0504 07:50:39.227865 20007 net.cpp:408] relu2 <- ip2
I0504 07:50:39.227869 20007 net.cpp:369] relu2 -> ip2 (in-place)
I0504 07:50:39.228579 20007 net.cpp:124] Setting up relu2
I0504 07:50:39.228590 20007 net.cpp:131] Top shape: 111 60 (6660)
I0504 07:50:39.228610 20007 net.cpp:139] Memory required for data: 33746220
I0504 07:50:39.228613 20007 layer_factory.hpp:77] Creating layer ip3
I0504 07:50:39.228619 20007 net.cpp:86] Creating Layer ip3
I0504 07:50:39.228638 20007 net.cpp:408] ip3 <- ip2
I0504 07:50:39.228644 20007 net.cpp:382] ip3 -> ip3
I0504 07:50:39.228785 20007 net.cpp:124] Setting up ip3
I0504 07:50:39.228792 20007 net.cpp:131] Top shape: 111 10 (1110)
I0504 07:50:39.228796 20007 net.cpp:139] Memory required for data: 33750660
I0504 07:50:39.228802 20007 layer_factory.hpp:77] Creating layer loss
I0504 07:50:39.228814 20007 net.cpp:86] Creating Layer loss
I0504 07:50:39.228833 20007 net.cpp:408] loss <- ip3
I0504 07:50:39.228838 20007 net.cpp:408] loss <- label
I0504 07:50:39.228852 20007 net.cpp:382] loss -> loss
I0504 07:50:39.228865 20007 layer_factory.hpp:77] Creating layer loss
…
I0504 07:50:39.229563 20007 solver.cpp:173] Creating test net (#0) specified by net file: ECE595/cifar/train_test/var_everything_tiny/cifar_train_test_88.prototxt
I0504 07:50:39.229591 20007 net.cpp:296] The NetState phase (1) differed from the phase (0) specified by a rule in layer cifar
I0504 07:50:39.229689 20007 net.cpp:53] Initializing net from parameters: 
name: "CIFAR"
state {
  phase: TEST
}
layer {
  name: "cifar"
  type: "Data"
  top: "data"
  top: "label"
  include {
    phase: TEST
  }
  transform_param {
    mean_file: "examples/cifar10/mean.binaryproto"
  }
  data_param {
    source: "examples/cifar10/cifar10_test_lmdb"
    batch_size: 1000
    backend: LMDB
  }
}
layer {
  name: "conv0"
  type: "Convolution"
  bottom: "data"
  top: "conv0"
  param {
    lr_mult: 1
  }
  param {
    lr_mult: 2
  }
  convolution_param {
    num_output: 24
    pad: 2
    kernel_size: 5
    stride: 1
    weight_filler {
      type: "gaussian"
      std: 0.01
    }
    bias_filler {
      type: "constant"
    }
  }
}
layer {
  name: "Sigmoid0"
  type: "Sigmoid"
  bottom: "conv0"
  top: "Sigmoid0"
}
layer {
  name: "pool0"
  type: "Pooling"
  bottom: "Sigmoid0"
  top: "pool0"
  pooling_param {
    pool: AVE
    kernel_size: 3
    stride: 2
  }
}
layer {
  name: "conv1"
  type: "Convolution"
  bottom: "pool0"
  top: "conv1"
  param {
    lr_mult: 1
  }
  param {
    lr_mult: 2
  }
  convolution_param {
    num_output: 24
    pad: 2
    kernel_size: 3
    stride: 1
    weight_filler {
      type: "gaussian"
      std: 0.01
    }
    bias_filler {
      type: "constant"
    }
  }
}
layer {
  name: "Sigmoid1"
  type: "Sigmoid"
  bottom: "conv1"
  top: "Sigmoid1"
}
layer {
  name: "pool1"
  type: "Pooling"
  bottom: "Sigmoid1"
  top: "pool1"
  pooling_param {
    pool: AVE
    kernel_size: 3
    stride: 2
  }
}
layer {
  name: "ip1"
  type: "InnerProduct"
  bottom: "pool1"
  top: "ip1"
  param {
    lr_mult: 1
  }
  param {
    lr_mult: 2
  }
  inner_product_param {
    num_output: 10
    weight_filler {
      type: "gaussian"
      std: 0.01
    }
    bias_filler {
      type: "constant"
    }
  }
}
layer {
  name: "relu1"
  type: "ReLU"
  bottom: "ip1"
  top: "ip1"
}
layer {
  name: "ip2"
  type: "InnerProduct"
  bottom: "ip1"
  top: "ip2"
  param {
    lr_mult: 1
  }
  param {
    lr_mult: 2
  }
  inner_product_param {
    num_output: 60
    weight_filler {
      type: "gaussian"
      std: 0.01
    }
    bias_filler {
      type: "constant"
    }
  }
}
layer {
  name: "relu2"
  type: "ReLU"
  bottom: "ip2"
  top: "ip2"
}
layer {
  name: "ip3"
  type: "InnerProduct"
  bottom: "ip2"
  top: "ip3"
  param {
    lr_mult: 1
  }
  param {
    lr_mult: 2
  }
  inner_product_param {
    num_output: 10
    weight_filler {
      type: "gaussian"
      std: 0.01
    }
    bias_filler {
      type: "constant"
    }
  }
}
layer {
  name: "accuracy"
  type: "Accuracy"
  bottom: "ip3"
  bottom: "label"
  top: "accuracy"
  include {
    phase: TEST
  }
}
layer {
  name: "loss"
  type: "SoftmaxWithLoss"
  bottom: "ip3"
  bottom: "label"
  top: "loss"
}
I0504 07:50:39.229794 20007 layer_factory.hpp:77] Creating layer cifar
I0504 07:50:39.229837 20007 db_lmdb.cpp:35] Opened lmdb examples/cifar10/cifar10_test_lmdb
I0504 07:50:39.229848 20007 net.cpp:86] Creating Layer cifar
I0504 07:50:39.229853 20007 net.cpp:382] cifar -> data
I0504 07:50:39.229861 20007 net.cpp:382] cifar -> label
I0504 07:50:39.229868 20007 data_transformer.cpp:25] Loading mean file from: examples/cifar10/mean.binaryproto
I0504 07:50:39.230016 20007 data_layer.cpp:45] output data size: 1000,3,32,32
I0504 07:50:39.252439 20007 net.cpp:124] Setting up cifar
I0504 07:50:39.252465 20007 net.cpp:131] Top shape: 1000 3 32 32 (3072000)
I0504 07:50:39.252470 20007 net.cpp:131] Top shape: 1000 (1000)
I0504 07:50:39.252472 20007 net.cpp:139] Memory required for data: 12292000
I0504 07:50:39.252477 20007 layer_factory.hpp:77] Creating layer label_cifar_1_split
I0504 07:50:39.252490 20007 net.cpp:86] Creating Layer label_cifar_1_split
I0504 07:50:39.252493 20007 net.cpp:408] label_cifar_1_split <- label
I0504 07:50:39.252514 20007 net.cpp:382] label_cifar_1_split -> label_cifar_1_split_0
I0504 07:50:39.252522 20007 net.cpp:382] label_cifar_1_split -> label_cifar_1_split_1
I0504 07:50:39.252635 20007 net.cpp:124] Setting up label_cifar_1_split
I0504 07:50:39.252642 20007 net.cpp:131] Top shape: 1000 (1000)
I0504 07:50:39.252646 20007 net.cpp:131] Top shape: 1000 (1000)
I0504 07:50:39.252648 20007 net.cpp:139] Memory required for data: 12300000
I0504 07:50:39.252651 20007 layer_factory.hpp:77] Creating layer conv0
I0504 07:50:39.252663 20007 net.cpp:86] Creating Layer conv0
I0504 07:50:39.252666 20007 net.cpp:408] conv0 <- data
I0504 07:50:39.252672 20007 net.cpp:382] conv0 -> conv0
I0504 07:50:39.254540 20007 net.cpp:124] Setting up conv0
I0504 07:50:39.254554 20007 net.cpp:131] Top shape: 1000 24 32 32 (24576000)
I0504 07:50:39.254557 20007 net.cpp:139] Memory required for data: 110604000
I0504 07:50:39.254570 20007 layer_factory.hpp:77] Creating layer Sigmoid0
I0504 07:50:39.254591 20007 net.cpp:86] Creating Layer Sigmoid0
I0504 07:50:39.254595 20007 net.cpp:408] Sigmoid0 <- conv0
I0504 07:50:39.254600 20007 net.cpp:382] Sigmoid0 -> Sigmoid0
I0504 07:50:39.254779 20007 net.cpp:124] Setting up Sigmoid0
I0504 07:50:39.254801 20007 net.cpp:131] Top shape: 1000 24 32 32 (24576000)
I0504 07:50:39.254804 20007 net.cpp:139] Memory required for data: 208908000
I0504 07:50:39.254808 20007 layer_factory.hpp:77] Creating layer pool0
I0504 07:50:39.254817 20007 net.cpp:86] Creating Layer pool0
I0504 07:50:39.254819 20007 net.cpp:408] pool0 <- Sigmoid0
I0504 07:50:39.254827 20007 net.cpp:382] pool0 -> pool0
I0504 07:50:39.255131 20007 net.cpp:124] Setting up pool0
I0504 07:50:39.255141 20007 net.cpp:131] Top shape: 1000 24 16 16 (6144000)
I0504 07:50:39.255143 20007 net.cpp:139] Memory required for data: 233484000
I0504 07:50:39.255146 20007 layer_factory.hpp:77] Creating layer conv1
I0504 07:50:39.255156 20007 net.cpp:86] Creating Layer conv1
I0504 07:50:39.255159 20007 net.cpp:408] conv1 <- pool0
I0504 07:50:39.255165 20007 net.cpp:382] conv1 -> conv1
I0504 07:50:39.257617 20007 net.cpp:124] Setting up conv1
I0504 07:50:39.257632 20007 net.cpp:131] Top shape: 1000 24 18 18 (7776000)
I0504 07:50:39.257635 20007 net.cpp:139] Memory required for data: 264588000
I0504 07:50:39.257668 20007 layer_factory.hpp:77] Creating layer Sigmoid1
I0504 07:50:39.257674 20007 net.cpp:86] Creating Layer Sigmoid1
I0504 07:50:39.257678 20007 net.cpp:408] Sigmoid1 <- conv1
I0504 07:50:39.257683 20007 net.cpp:382] Sigmoid1 -> Sigmoid1
I0504 07:50:39.257855 20007 net.cpp:124] Setting up Sigmoid1
I0504 07:50:39.257864 20007 net.cpp:131] Top shape: 1000 24 18 18 (7776000)
I0504 07:50:39.257868 20007 net.cpp:139] Memory required for data: 295692000
I0504 07:50:39.257870 20007 layer_factory.hpp:77] Creating layer pool1
I0504 07:50:39.257876 20007 net.cpp:86] Creating Layer pool1
I0504 07:50:39.257879 20007 net.cpp:408] pool1 <- Sigmoid1
I0504 07:50:39.257884 20007 net.cpp:382] pool1 -> pool1
I0504 07:50:39.258649 20007 net.cpp:124] Setting up pool1
I0504 07:50:39.258662 20007 net.cpp:131] Top shape: 1000 24 9 9 (1944000)
I0504 07:50:39.258666 20007 net.cpp:139] Memory required for data: 303468000
I0504 07:50:39.258668 20007 layer_factory.hpp:77] Creating layer ip1
I0504 07:50:39.258693 20007 net.cpp:86] Creating Layer ip1
I0504 07:50:39.258697 20007 net.cpp:408] ip1 <- pool1
I0504 07:50:39.258702 20007 net.cpp:382] ip1 -> ip1
I0504 07:50:39.259359 20007 net.cpp:124] Setting up ip1
I0504 07:50:39.259367 20007 net.cpp:131] Top shape: 1000 10 (10000)
I0504 07:50:39.259371 20007 net.cpp:139] Memory required for data: 303508000
I0504 07:50:39.259378 20007 layer_factory.hpp:77] Creating layer relu1
I0504 07:50:39.259402 20007 net.cpp:86] Creating Layer relu1
I0504 07:50:39.259405 20007 net.cpp:408] relu1 <- ip1
I0504 07:50:39.259409 20007 net.cpp:369] relu1 -> ip1 (in-place)
I0504 07:50:39.259574 20007 net.cpp:124] Setting up relu1
I0504 07:50:39.259583 20007 net.cpp:131] Top shape: 1000 10 (10000)
I0504 07:50:39.259587 20007 net.cpp:139] Memory required for data: 303548000
I0504 07:50:39.259590 20007 layer_factory.hpp:77] Creating layer ip2
I0504 07:50:39.259596 20007 net.cpp:86] Creating Layer ip2
I0504 07:50:39.259599 20007 net.cpp:408] ip2 <- ip1
I0504 07:50:39.259626 20007 net.cpp:382] ip2 -> ip2
I0504 07:50:39.259765 20007 net.cpp:124] Setting up ip2
I0504 07:50:39.259773 20007 net.cpp:131] Top shape: 1000 60 (60000)
I0504 07:50:39.259775 20007 net.cpp:139] Memory required for data: 303788000
I0504 07:50:39.259780 20007 layer_factory.hpp:77] Creating layer relu2
I0504 07:50:39.259786 20007 net.cpp:86] Creating Layer relu2
I0504 07:50:39.259789 20007 net.cpp:408] relu2 <- ip2
I0504 07:50:39.259793 20007 net.cpp:369] relu2 -> ip2 (in-place)
I0504 07:50:39.259943 20007 net.cpp:124] Setting up relu2
I0504 07:50:39.259951 20007 net.cpp:131] Top shape: 1000 60 (60000)
I0504 07:50:39.259954 20007 net.cpp:139] Memory required for data: 304028000
I0504 07:50:39.259958 20007 layer_factory.hpp:77] Creating layer ip3
I0504 07:50:39.259964 20007 net.cpp:86] Creating Layer ip3
I0504 07:50:39.259966 20007 net.cpp:408] ip3 <- ip2
I0504 07:50:39.259973 20007 net.cpp:382] ip3 -> ip3
I0504 07:50:39.260087 20007 net.cpp:124] Setting up ip3
I0504 07:50:39.260093 20007 net.cpp:131] Top shape: 1000 10 (10000)
I0504 07:50:39.260105 20007 net.cpp:139] Memory required for data: 304068000
I0504 07:50:39.260113 20007 layer_factory.hpp:77] Creating layer ip3_ip3_0_split
I0504 07:50:39.260118 20007 net.cpp:86] Creating Layer ip3_ip3_0_split
I0504 07:50:39.260121 20007 net.cpp:408] ip3_ip3_0_split <- ip3
I0504 07:50:39.260125 20007 net.cpp:382] ip3_ip3_0_split -> ip3_ip3_0_split_0
I0504 07:50:39.260131 20007 net.cpp:382] ip3_ip3_0_split -> ip3_ip3_0_split_1
I0504 07:50:39.260164 20007 net.cpp:124] Setting up ip3_ip3_0_split
I0504 07:50:39.260167 20007 net.cpp:131] Top shape: 1000 10 (10000)
I0504 07:50:39.260171 20007 net.cpp:131] Top shape: 1000 10 (10000)
I0504 07:50:39.260174 20007 net.cpp:139] Memory required for data: 304148000
I0504 07:50:39.260176 20007 layer_factory.hpp:77] Creating layer accuracy
I0504 07:50:39.260182 20007 net.cpp:86] Creating Layer accuracy
I0504 07:50:39.260185 20007 net.cpp:408] accuracy <- ip3_ip3_0_split_0
I0504 07:50:39.260190 20007 net.cpp:408] accuracy <- label_cifar_1_split_0
I0504 07:50:39.260193 20007 net.cpp:382] accuracy -> accuracy
…
