…
I0504 00:03:16.836261  4534 net.cpp:296] The NetState phase (0) differed from the phase (1) specified by a rule in layer cifar
I0504 00:03:16.836283  4534 net.cpp:296] The NetState phase (0) differed from the phase (1) specified by a rule in layer accuracy
I0504 00:03:16.836385  4534 net.cpp:53] Initializing net from parameters: 
name: "CIFAR"
state {
  phase: TRAIN
  level: 0
  stage: ""
}
layer {
  name: "cifar"
  type: "Data"
  top: "data"
  top: "label"
  include {
    phase: TRAIN
  }
  transform_param {
    mean_file: "examples/cifar10/mean.binaryproto"
  }
  data_param {
    source: "examples/cifar10/cifar10_train_lmdb"
    batch_size: 111
    backend: LMDB
  }
}
layer {
  name: "conv0"
  type: "Convolution"
  bottom: "data"
  top: "conv0"
  param {
    lr_mult: 1
  }
  param {
    lr_mult: 2
  }
  convolution_param {
    num_output: 24
    pad: 2
    kernel_size: 3
    stride: 1
    weight_filler {
      type: "gaussian"
      std: 0.01
    }
    bias_filler {
      type: "constant"
    }
  }
}
layer {
  name: "Sigmoid0"
  type: "Sigmoid"
  bottom: "conv0"
  top: "Sigmoid0"
}
layer {
  name: "pool0"
  type: "Pooling"
  bottom: "Sigmoid0"
  top: "pool0"
  pooling_param {
    pool: AVE
    kernel_size: 3
    stride: 2
  }
}
layer {
  name: "ip1"
  type: "InnerProduct"
  bottom: "pool0"
  top: "ip1"
  param {
    lr_mult: 1
  }
  param {
    lr_mult: 2
  }
  inner_product_param {
    num_output: 60
    weight_filler {
      type: "gaussian"
      std: 0.01
    }
    bias_filler {
      type: "constant"
    }
  }
}
layer {
  name: "relu1"
  type: "ReLU"
  bottom: "ip1"
  top: "ip1"
}
layer {
  name: "ip2"
  type: "InnerProduct"
  bottom: "ip1"
  top: "ip2"
  param {
    lr_mult: 1
  }
  param {
    lr_mult: 2
  }
  inner_product_param {
    num_output: 180
    weight_filler {
      type: "gaussian"
      std: 0.01
    }
    bias_filler {
      type: "constant"
    }
  }
}
layer {
  name: "relu2"
  type: "ReLU"
  bottom: "ip2"
  top: "ip2"
}
layer {
  name: "ip3"
  type: "InnerProduct"
  bottom: "ip2"
  top: "ip3"
  param {
    lr_mult: 1
  }
  param {
    lr_mult: 2
  }
  inner_product_param {
    num_output: 10
    weight_filler {
      type: "gaussian"
      std: 0.01
    }
    bias_filler {
      type: "constant"
    }
  }
}
layer {
  name: "loss"
  type: "SoftmaxWithLoss"
  bottom: "ip3"
  bottom: "label"
  top: "loss"
}
I0504 00:03:16.836491  4534 layer_factory.hpp:77] Creating layer cifar
I0504 00:03:16.836628  4534 db_lmdb.cpp:35] Opened lmdb examples/cifar10/cifar10_train_lmdb
I0504 00:03:16.836668  4534 net.cpp:86] Creating Layer cifar
I0504 00:03:16.836680  4534 net.cpp:382] cifar -> data
I0504 00:03:16.836710  4534 net.cpp:382] cifar -> label
I0504 00:03:16.836735  4534 data_transformer.cpp:25] Loading mean file from: examples/cifar10/mean.binaryproto
I0504 00:03:16.839036  4534 data_layer.cpp:45] output data size: 111,3,32,32
I0504 00:03:16.846927  4534 net.cpp:124] Setting up cifar
I0504 00:03:16.846951  4534 net.cpp:131] Top shape: 111 3 32 32 (340992)
I0504 00:03:16.846963  4534 net.cpp:131] Top shape: 111 (111)
I0504 00:03:16.846971  4534 net.cpp:139] Memory required for data: 1364412
I0504 00:03:16.846982  4534 layer_factory.hpp:77] Creating layer conv0
I0504 00:03:16.847007  4534 net.cpp:86] Creating Layer conv0
I0504 00:03:16.847018  4534 net.cpp:408] conv0 <- data
I0504 00:03:16.847039  4534 net.cpp:382] conv0 -> conv0
I0504 00:03:17.118728  4534 net.cpp:124] Setting up conv0
I0504 00:03:17.118791  4534 net.cpp:131] Top shape: 111 24 34 34 (3079584)
I0504 00:03:17.118798  4534 net.cpp:139] Memory required for data: 13682748
I0504 00:03:17.118834  4534 layer_factory.hpp:77] Creating layer Sigmoid0
I0504 00:03:17.118850  4534 net.cpp:86] Creating Layer Sigmoid0
I0504 00:03:17.118861  4534 net.cpp:408] Sigmoid0 <- conv0
I0504 00:03:17.118871  4534 net.cpp:382] Sigmoid0 -> Sigmoid0
I0504 00:03:17.119055  4534 net.cpp:124] Setting up Sigmoid0
I0504 00:03:17.119065  4534 net.cpp:131] Top shape: 111 24 34 34 (3079584)
I0504 00:03:17.119071  4534 net.cpp:139] Memory required for data: 26001084
I0504 00:03:17.119077  4534 layer_factory.hpp:77] Creating layer pool0
I0504 00:03:17.119087  4534 net.cpp:86] Creating Layer pool0
I0504 00:03:17.119092  4534 net.cpp:408] pool0 <- Sigmoid0
I0504 00:03:17.119102  4534 net.cpp:382] pool0 -> pool0
I0504 00:03:17.119884  4534 net.cpp:124] Setting up pool0
I0504 00:03:17.119899  4534 net.cpp:131] Top shape: 111 24 17 17 (769896)
I0504 00:03:17.119905  4534 net.cpp:139] Memory required for data: 29080668
I0504 00:03:17.119926  4534 layer_factory.hpp:77] Creating layer ip1
I0504 00:03:17.119940  4534 net.cpp:86] Creating Layer ip1
I0504 00:03:17.119946  4534 net.cpp:408] ip1 <- pool0
I0504 00:03:17.119956  4534 net.cpp:382] ip1 -> ip1
I0504 00:03:17.132257  4534 net.cpp:124] Setting up ip1
I0504 00:03:17.132272  4534 net.cpp:131] Top shape: 111 60 (6660)
I0504 00:03:17.132277  4534 net.cpp:139] Memory required for data: 29107308
I0504 00:03:17.132305  4534 layer_factory.hpp:77] Creating layer relu1
I0504 00:03:17.132314  4534 net.cpp:86] Creating Layer relu1
I0504 00:03:17.132320  4534 net.cpp:408] relu1 <- ip1
I0504 00:03:17.132328  4534 net.cpp:369] relu1 -> ip1 (in-place)
I0504 00:03:17.132488  4534 net.cpp:124] Setting up relu1
I0504 00:03:17.132499  4534 net.cpp:131] Top shape: 111 60 (6660)
I0504 00:03:17.132504  4534 net.cpp:139] Memory required for data: 29133948
I0504 00:03:17.132509  4534 layer_factory.hpp:77] Creating layer ip2
I0504 00:03:17.132519  4534 net.cpp:86] Creating Layer ip2
I0504 00:03:17.132525  4534 net.cpp:408] ip2 <- ip1
I0504 00:03:17.132534  4534 net.cpp:382] ip2 -> ip2
I0504 00:03:17.133816  4534 net.cpp:124] Setting up ip2
I0504 00:03:17.133831  4534 net.cpp:131] Top shape: 111 180 (19980)
I0504 00:03:17.133836  4534 net.cpp:139] Memory required for data: 29213868
I0504 00:03:17.133864  4534 layer_factory.hpp:77] Creating layer relu2
I0504 00:03:17.133874  4534 net.cpp:86] Creating Layer relu2
I0504 00:03:17.133880  4534 net.cpp:408] relu2 <- ip2
I0504 00:03:17.133888  4534 net.cpp:369] relu2 -> ip2 (in-place)
I0504 00:03:17.134069  4534 net.cpp:124] Setting up relu2
I0504 00:03:17.134080  4534 net.cpp:131] Top shape: 111 180 (19980)
I0504 00:03:17.134085  4534 net.cpp:139] Memory required for data: 29293788
I0504 00:03:17.134090  4534 layer_factory.hpp:77] Creating layer ip3
I0504 00:03:17.134102  4534 net.cpp:86] Creating Layer ip3
I0504 00:03:17.134109  4534 net.cpp:408] ip3 <- ip2
I0504 00:03:17.134117  4534 net.cpp:382] ip3 -> ip3
I0504 00:03:17.134261  4534 net.cpp:124] Setting up ip3
I0504 00:03:17.134270  4534 net.cpp:131] Top shape: 111 10 (1110)
I0504 00:03:17.134275  4534 net.cpp:139] Memory required for data: 29298228
I0504 00:03:17.134284  4534 layer_factory.hpp:77] Creating layer loss
I0504 00:03:17.134292  4534 net.cpp:86] Creating Layer loss
I0504 00:03:17.134299  4534 net.cpp:408] loss <- ip3
I0504 00:03:17.134305  4534 net.cpp:408] loss <- label
I0504 00:03:17.134312  4534 net.cpp:382] loss -> loss
I0504 00:03:17.134333  4534 layer_factory.hpp:77] Creating layer loss
…
I0504 00:03:17.134994  4534 solver.cpp:173] Creating test net (#0) specified by net file: ECE595/cifar/train_test/var_everything_tiny/cifar_train_test_8.prototxt
I0504 00:03:17.135057  4534 net.cpp:296] The NetState phase (1) differed from the phase (0) specified by a rule in layer cifar
I0504 00:03:17.135162  4534 net.cpp:53] Initializing net from parameters: 
name: "CIFAR"
state {
  phase: TEST
}
layer {
  name: "cifar"
  type: "Data"
  top: "data"
  top: "label"
  include {
    phase: TEST
  }
  transform_param {
    mean_file: "examples/cifar10/mean.binaryproto"
  }
  data_param {
    source: "examples/cifar10/cifar10_test_lmdb"
    batch_size: 1000
    backend: LMDB
  }
}
layer {
  name: "conv0"
  type: "Convolution"
  bottom: "data"
  top: "conv0"
  param {
    lr_mult: 1
  }
  param {
    lr_mult: 2
  }
  convolution_param {
    num_output: 24
    pad: 2
    kernel_size: 3
    stride: 1
    weight_filler {
      type: "gaussian"
      std: 0.01
    }
    bias_filler {
      type: "constant"
    }
  }
}
layer {
  name: "Sigmoid0"
  type: "Sigmoid"
  bottom: "conv0"
  top: "Sigmoid0"
}
layer {
  name: "pool0"
  type: "Pooling"
  bottom: "Sigmoid0"
  top: "pool0"
  pooling_param {
    pool: AVE
    kernel_size: 3
    stride: 2
  }
}
layer {
  name: "ip1"
  type: "InnerProduct"
  bottom: "pool0"
  top: "ip1"
  param {
    lr_mult: 1
  }
  param {
    lr_mult: 2
  }
  inner_product_param {
    num_output: 60
    weight_filler {
      type: "gaussian"
      std: 0.01
    }
    bias_filler {
      type: "constant"
    }
  }
}
layer {
  name: "relu1"
  type: "ReLU"
  bottom: "ip1"
  top: "ip1"
}
layer {
  name: "ip2"
  type: "InnerProduct"
  bottom: "ip1"
  top: "ip2"
  param {
    lr_mult: 1
  }
  param {
    lr_mult: 2
  }
  inner_product_param {
    num_output: 180
    weight_filler {
      type: "gaussian"
      std: 0.01
    }
    bias_filler {
      type: "constant"
    }
  }
}
layer {
  name: "relu2"
  type: "ReLU"
  bottom: "ip2"
  top: "ip2"
}
layer {
  name: "ip3"
  type: "InnerProduct"
  bottom: "ip2"
  top: "ip3"
  param {
    lr_mult: 1
  }
  param {
    lr_mult: 2
  }
  inner_product_param {
    num_output: 10
    weight_filler {
      type: "gaussian"
      std: 0.01
    }
    bias_filler {
      type: "constant"
    }
  }
}
layer {
  name: "accuracy"
  type: "Accuracy"
  bottom: "ip3"
  bottom: "label"
  top: "accuracy"
  include {
    phase: TEST
  }
}
layer {
  name: "loss"
  type: "SoftmaxWithLoss"
  bottom: "ip3"
  bottom: "label"
  top: "loss"
}
I0504 00:03:17.135252  4534 layer_factory.hpp:77] Creating layer cifar
I0504 00:03:17.135313  4534 db_lmdb.cpp:35] Opened lmdb examples/cifar10/cifar10_test_lmdb
I0504 00:03:17.135330  4534 net.cpp:86] Creating Layer cifar
I0504 00:03:17.135337  4534 net.cpp:382] cifar -> data
I0504 00:03:17.135349  4534 net.cpp:382] cifar -> label
I0504 00:03:17.135360  4534 data_transformer.cpp:25] Loading mean file from: examples/cifar10/mean.binaryproto
I0504 00:03:17.135551  4534 data_layer.cpp:45] output data size: 1000,3,32,32
I0504 00:03:17.157898  4534 net.cpp:124] Setting up cifar
I0504 00:03:17.157928  4534 net.cpp:131] Top shape: 1000 3 32 32 (3072000)
I0504 00:03:17.157937  4534 net.cpp:131] Top shape: 1000 (1000)
I0504 00:03:17.157943  4534 net.cpp:139] Memory required for data: 12292000
I0504 00:03:17.157950  4534 layer_factory.hpp:77] Creating layer label_cifar_1_split
I0504 00:03:17.157984  4534 net.cpp:86] Creating Layer label_cifar_1_split
I0504 00:03:17.157999  4534 net.cpp:408] label_cifar_1_split <- label
I0504 00:03:17.158008  4534 net.cpp:382] label_cifar_1_split -> label_cifar_1_split_0
I0504 00:03:17.158023  4534 net.cpp:382] label_cifar_1_split -> label_cifar_1_split_1
I0504 00:03:17.158129  4534 net.cpp:124] Setting up label_cifar_1_split
I0504 00:03:17.158139  4534 net.cpp:131] Top shape: 1000 (1000)
I0504 00:03:17.158145  4534 net.cpp:131] Top shape: 1000 (1000)
I0504 00:03:17.158151  4534 net.cpp:139] Memory required for data: 12300000
I0504 00:03:17.158156  4534 layer_factory.hpp:77] Creating layer conv0
I0504 00:03:17.158174  4534 net.cpp:86] Creating Layer conv0
I0504 00:03:17.158180  4534 net.cpp:408] conv0 <- data
I0504 00:03:17.158190  4534 net.cpp:382] conv0 -> conv0
I0504 00:03:17.159744  4534 net.cpp:124] Setting up conv0
I0504 00:03:17.159760  4534 net.cpp:131] Top shape: 1000 24 34 34 (27744000)
I0504 00:03:17.159766  4534 net.cpp:139] Memory required for data: 123276000
I0504 00:03:17.159797  4534 layer_factory.hpp:77] Creating layer Sigmoid0
I0504 00:03:17.159807  4534 net.cpp:86] Creating Layer Sigmoid0
I0504 00:03:17.159818  4534 net.cpp:408] Sigmoid0 <- conv0
I0504 00:03:17.159827  4534 net.cpp:382] Sigmoid0 -> Sigmoid0
I0504 00:03:17.160770  4534 net.cpp:124] Setting up Sigmoid0
I0504 00:03:17.160784  4534 net.cpp:131] Top shape: 1000 24 34 34 (27744000)
I0504 00:03:17.160789  4534 net.cpp:139] Memory required for data: 234252000
I0504 00:03:17.160816  4534 layer_factory.hpp:77] Creating layer pool0
I0504 00:03:17.160886  4534 net.cpp:86] Creating Layer pool0
I0504 00:03:17.160890  4534 net.cpp:408] pool0 <- Sigmoid0
I0504 00:03:17.160897  4534 net.cpp:382] pool0 -> pool0
I0504 00:03:17.162040  4534 net.cpp:124] Setting up pool0
I0504 00:03:17.162051  4534 net.cpp:131] Top shape: 1000 24 17 17 (6936000)
I0504 00:03:17.162071  4534 net.cpp:139] Memory required for data: 261996000
I0504 00:03:17.162075  4534 layer_factory.hpp:77] Creating layer ip1
I0504 00:03:17.162082  4534 net.cpp:86] Creating Layer ip1
I0504 00:03:17.162086  4534 net.cpp:408] ip1 <- pool0
I0504 00:03:17.162092  4534 net.cpp:382] ip1 -> ip1
I0504 00:03:17.174834  4534 net.cpp:124] Setting up ip1
I0504 00:03:17.174849  4534 net.cpp:131] Top shape: 1000 60 (60000)
I0504 00:03:17.174852  4534 net.cpp:139] Memory required for data: 262236000
I0504 00:03:17.174861  4534 layer_factory.hpp:77] Creating layer relu1
I0504 00:03:17.174883  4534 net.cpp:86] Creating Layer relu1
I0504 00:03:17.174887  4534 net.cpp:408] relu1 <- ip1
I0504 00:03:17.174892  4534 net.cpp:369] relu1 -> ip1 (in-place)
I0504 00:03:17.175078  4534 net.cpp:124] Setting up relu1
I0504 00:03:17.175088  4534 net.cpp:131] Top shape: 1000 60 (60000)
I0504 00:03:17.175091  4534 net.cpp:139] Memory required for data: 262476000
I0504 00:03:17.175096  4534 layer_factory.hpp:77] Creating layer ip2
I0504 00:03:17.175102  4534 net.cpp:86] Creating Layer ip2
I0504 00:03:17.175106  4534 net.cpp:408] ip2 <- ip1
I0504 00:03:17.175112  4534 net.cpp:382] ip2 -> ip2
I0504 00:03:17.175570  4534 net.cpp:124] Setting up ip2
I0504 00:03:17.175592  4534 net.cpp:131] Top shape: 1000 180 (180000)
I0504 00:03:17.175611  4534 net.cpp:139] Memory required for data: 263196000
I0504 00:03:17.175619  4534 layer_factory.hpp:77] Creating layer relu2
I0504 00:03:17.175626  4534 net.cpp:86] Creating Layer relu2
I0504 00:03:17.175629  4534 net.cpp:408] relu2 <- ip2
I0504 00:03:17.175635  4534 net.cpp:369] relu2 -> ip2 (in-place)
I0504 00:03:17.175819  4534 net.cpp:124] Setting up relu2
I0504 00:03:17.175828  4534 net.cpp:131] Top shape: 1000 180 (180000)
I0504 00:03:17.175832  4534 net.cpp:139] Memory required for data: 263916000
I0504 00:03:17.175835  4534 layer_factory.hpp:77] Creating layer ip3
I0504 00:03:17.175843  4534 net.cpp:86] Creating Layer ip3
I0504 00:03:17.175845  4534 net.cpp:408] ip3 <- ip2
I0504 00:03:17.175851  4534 net.cpp:382] ip3 -> ip3
I0504 00:03:17.176015  4534 net.cpp:124] Setting up ip3
I0504 00:03:17.176023  4534 net.cpp:131] Top shape: 1000 10 (10000)
I0504 00:03:17.176038  4534 net.cpp:139] Memory required for data: 263956000
I0504 00:03:17.176043  4534 layer_factory.hpp:77] Creating layer ip3_ip3_0_split
I0504 00:03:17.176049  4534 net.cpp:86] Creating Layer ip3_ip3_0_split
I0504 00:03:17.176053  4534 net.cpp:408] ip3_ip3_0_split <- ip3
I0504 00:03:17.176057  4534 net.cpp:382] ip3_ip3_0_split -> ip3_ip3_0_split_0
I0504 00:03:17.176064  4534 net.cpp:382] ip3_ip3_0_split -> ip3_ip3_0_split_1
I0504 00:03:17.176098  4534 net.cpp:124] Setting up ip3_ip3_0_split
I0504 00:03:17.176108  4534 net.cpp:131] Top shape: 1000 10 (10000)
I0504 00:03:17.176112  4534 net.cpp:131] Top shape: 1000 10 (10000)
I0504 00:03:17.176115  4534 net.cpp:139] Memory required for data: 264036000
I0504 00:03:17.176118  4534 layer_factory.hpp:77] Creating layer accuracy
I0504 00:03:17.176125  4534 net.cpp:86] Creating Layer accuracy
I0504 00:03:17.176128  4534 net.cpp:408] accuracy <- ip3_ip3_0_split_0
I0504 00:03:17.176132  4534 net.cpp:408] accuracy <- label_cifar_1_split_0
I0504 00:03:17.176136  4534 net.cpp:382] accuracy -> accuracy
…
