…
I0504 16:32:51.171695  9495 net.cpp:296] The NetState phase (0) differed from the phase (1) specified by a rule in layer cifar
I0504 16:32:51.171717  9495 net.cpp:296] The NetState phase (0) differed from the phase (1) specified by a rule in layer accuracy
I0504 16:32:51.171828  9495 net.cpp:53] Initializing net from parameters: 
name: "CIFAR"
state {
  phase: TRAIN
  level: 0
  stage: ""
}
layer {
  name: "cifar"
  type: "Data"
  top: "data"
  top: "label"
  include {
    phase: TRAIN
  }
  transform_param {
    mean_file: "examples/cifar10/mean.binaryproto"
  }
  data_param {
    source: "examples/cifar10/cifar10_train_lmdb"
    batch_size: 111
    backend: LMDB
  }
}
layer {
  name: "conv0"
  type: "Convolution"
  bottom: "data"
  top: "conv0"
  param {
    lr_mult: 1
  }
  param {
    lr_mult: 2
  }
  convolution_param {
    num_output: 72
    pad: 2
    kernel_size: 3
    stride: 1
    weight_filler {
      type: "gaussian"
      std: 0.01
    }
    bias_filler {
      type: "constant"
    }
  }
}
layer {
  name: "Sigmoid0"
  type: "Sigmoid"
  bottom: "conv0"
  top: "Sigmoid0"
}
layer {
  name: "pool0"
  type: "Pooling"
  bottom: "Sigmoid0"
  top: "pool0"
  pooling_param {
    pool: AVE
    kernel_size: 3
    stride: 2
  }
}
layer {
  name: "conv1"
  type: "Convolution"
  bottom: "pool0"
  top: "conv1"
  param {
    lr_mult: 1
  }
  param {
    lr_mult: 2
  }
  convolution_param {
    num_output: 72
    pad: 2
    kernel_size: 3
    stride: 1
    weight_filler {
      type: "gaussian"
      std: 0.01
    }
    bias_filler {
      type: "constant"
    }
  }
}
layer {
  name: "Sigmoid1"
  type: "Sigmoid"
  bottom: "conv1"
  top: "Sigmoid1"
}
layer {
  name: "pool1"
  type: "Pooling"
  bottom: "Sigmoid1"
  top: "pool1"
  pooling_param {
    pool: AVE
    kernel_size: 3
    stride: 2
  }
}
layer {
  name: "ip1"
  type: "InnerProduct"
  bottom: "pool1"
  top: "ip1"
  param {
    lr_mult: 1
  }
  param {
    lr_mult: 2
  }
  inner_product_param {
    num_output: 180
    weight_filler {
      type: "gaussian"
      std: 0.01
    }
    bias_filler {
      type: "constant"
    }
  }
}
layer {
  name: "relu1"
  type: "ReLU"
  bottom: "ip1"
  top: "ip1"
}
layer {
  name: "ip2"
  type: "InnerProduct"
  bottom: "ip1"
  top: "ip2"
  param {
    lr_mult: 1
  }
  param {
    lr_mult: 2
  }
  inner_product_param {
    num_output: 10
    weight_filler {
      type: "gaussian"
      std: 0.01
    }
    bias_filler {
      type: "constant"
    }
  }
}
layer {
  name: "relu2"
  type: "ReLU"
  bottom: "ip2"
  top: "ip2"
}
layer {
  name: "ip3"
  type: "InnerProduct"
  bottom: "ip2"
  top: "ip3"
  param {
    lr_mult: 1
  }
  param {
    lr_mult: 2
  }
  inner_product_param {
    num_output: 10
    weight_filler {
      type: "gaussian"
      std: 0.01
    }
    bias_filler {
      type: "constant"
    }
  }
}
layer {
  name: "loss"
  type: "SoftmaxWithLoss"
  bottom: "ip3"
  bottom: "label"
  top: "loss"
}
I0504 16:32:51.171916  9495 layer_factory.hpp:77] Creating layer cifar
I0504 16:32:51.172013  9495 db_lmdb.cpp:35] Opened lmdb examples/cifar10/cifar10_train_lmdb
I0504 16:32:51.172040  9495 net.cpp:86] Creating Layer cifar
I0504 16:32:51.172049  9495 net.cpp:382] cifar -> data
I0504 16:32:51.172070  9495 net.cpp:382] cifar -> label
I0504 16:32:51.172082  9495 data_transformer.cpp:25] Loading mean file from: examples/cifar10/mean.binaryproto
I0504 16:32:51.174271  9495 data_layer.cpp:45] output data size: 111,3,32,32
I0504 16:32:51.182327  9495 net.cpp:124] Setting up cifar
I0504 16:32:51.182345  9495 net.cpp:131] Top shape: 111 3 32 32 (340992)
I0504 16:32:51.182353  9495 net.cpp:131] Top shape: 111 (111)
I0504 16:32:51.182355  9495 net.cpp:139] Memory required for data: 1364412
I0504 16:32:51.182363  9495 layer_factory.hpp:77] Creating layer conv0
I0504 16:32:51.182382  9495 net.cpp:86] Creating Layer conv0
I0504 16:32:51.182396  9495 net.cpp:408] conv0 <- data
I0504 16:32:51.182407  9495 net.cpp:382] conv0 -> conv0
I0504 16:32:51.464946  9495 net.cpp:124] Setting up conv0
I0504 16:32:51.464973  9495 net.cpp:131] Top shape: 111 72 34 34 (9238752)
I0504 16:32:51.464978  9495 net.cpp:139] Memory required for data: 38319420
I0504 16:32:51.464993  9495 layer_factory.hpp:77] Creating layer Sigmoid0
I0504 16:32:51.465004  9495 net.cpp:86] Creating Layer Sigmoid0
I0504 16:32:51.465008  9495 net.cpp:408] Sigmoid0 <- conv0
I0504 16:32:51.465013  9495 net.cpp:382] Sigmoid0 -> Sigmoid0
I0504 16:32:51.465204  9495 net.cpp:124] Setting up Sigmoid0
I0504 16:32:51.465214  9495 net.cpp:131] Top shape: 111 72 34 34 (9238752)
I0504 16:32:51.465217  9495 net.cpp:139] Memory required for data: 75274428
I0504 16:32:51.465220  9495 layer_factory.hpp:77] Creating layer pool0
I0504 16:32:51.465227  9495 net.cpp:86] Creating Layer pool0
I0504 16:32:51.465230  9495 net.cpp:408] pool0 <- Sigmoid0
I0504 16:32:51.465235  9495 net.cpp:382] pool0 -> pool0
I0504 16:32:51.465986  9495 net.cpp:124] Setting up pool0
I0504 16:32:51.466001  9495 net.cpp:131] Top shape: 111 72 17 17 (2309688)
I0504 16:32:51.466003  9495 net.cpp:139] Memory required for data: 84513180
I0504 16:32:51.466007  9495 layer_factory.hpp:77] Creating layer conv1
I0504 16:32:51.466019  9495 net.cpp:86] Creating Layer conv1
I0504 16:32:51.466023  9495 net.cpp:408] conv1 <- pool0
I0504 16:32:51.466032  9495 net.cpp:382] conv1 -> conv1
I0504 16:32:51.470782  9495 net.cpp:124] Setting up conv1
I0504 16:32:51.470796  9495 net.cpp:131] Top shape: 111 72 19 19 (2885112)
I0504 16:32:51.470815  9495 net.cpp:139] Memory required for data: 96053628
I0504 16:32:51.470839  9495 layer_factory.hpp:77] Creating layer Sigmoid1
I0504 16:32:51.470844  9495 net.cpp:86] Creating Layer Sigmoid1
I0504 16:32:51.470847  9495 net.cpp:408] Sigmoid1 <- conv1
I0504 16:32:51.470852  9495 net.cpp:382] Sigmoid1 -> Sigmoid1
I0504 16:32:51.471037  9495 net.cpp:124] Setting up Sigmoid1
I0504 16:32:51.471047  9495 net.cpp:131] Top shape: 111 72 19 19 (2885112)
I0504 16:32:51.471050  9495 net.cpp:139] Memory required for data: 107594076
I0504 16:32:51.471053  9495 layer_factory.hpp:77] Creating layer pool1
I0504 16:32:51.471060  9495 net.cpp:86] Creating Layer pool1
I0504 16:32:51.471062  9495 net.cpp:408] pool1 <- Sigmoid1
I0504 16:32:51.471067  9495 net.cpp:382] pool1 -> pool1
I0504 16:32:51.471225  9495 net.cpp:124] Setting up pool1
I0504 16:32:51.471233  9495 net.cpp:131] Top shape: 111 72 9 9 (647352)
I0504 16:32:51.471236  9495 net.cpp:139] Memory required for data: 110183484
I0504 16:32:51.471240  9495 layer_factory.hpp:77] Creating layer ip1
I0504 16:32:51.471246  9495 net.cpp:86] Creating Layer ip1
I0504 16:32:51.471249  9495 net.cpp:408] ip1 <- pool1
I0504 16:32:51.471254  9495 net.cpp:382] ip1 -> ip1
I0504 16:32:51.500095  9495 net.cpp:124] Setting up ip1
I0504 16:32:51.500108  9495 net.cpp:131] Top shape: 111 180 (19980)
I0504 16:32:51.500128  9495 net.cpp:139] Memory required for data: 110263404
I0504 16:32:51.500135  9495 layer_factory.hpp:77] Creating layer relu1
I0504 16:32:51.500144  9495 net.cpp:86] Creating Layer relu1
I0504 16:32:51.500146  9495 net.cpp:408] relu1 <- ip1
I0504 16:32:51.500151  9495 net.cpp:369] relu1 -> ip1 (in-place)
I0504 16:32:51.500334  9495 net.cpp:124] Setting up relu1
I0504 16:32:51.500341  9495 net.cpp:131] Top shape: 111 180 (19980)
I0504 16:32:51.500344  9495 net.cpp:139] Memory required for data: 110343324
I0504 16:32:51.500363  9495 layer_factory.hpp:77] Creating layer ip2
I0504 16:32:51.500370  9495 net.cpp:86] Creating Layer ip2
I0504 16:32:51.500388  9495 net.cpp:408] ip2 <- ip1
I0504 16:32:51.500408  9495 net.cpp:382] ip2 -> ip2
I0504 16:32:51.500561  9495 net.cpp:124] Setting up ip2
I0504 16:32:51.500569  9495 net.cpp:131] Top shape: 111 10 (1110)
I0504 16:32:51.500572  9495 net.cpp:139] Memory required for data: 110347764
I0504 16:32:51.500578  9495 layer_factory.hpp:77] Creating layer relu2
I0504 16:32:51.500583  9495 net.cpp:86] Creating Layer relu2
I0504 16:32:51.500586  9495 net.cpp:408] relu2 <- ip2
I0504 16:32:51.500591  9495 net.cpp:369] relu2 -> ip2 (in-place)
I0504 16:32:51.501394  9495 net.cpp:124] Setting up relu2
I0504 16:32:51.501420  9495 net.cpp:131] Top shape: 111 10 (1110)
I0504 16:32:51.501423  9495 net.cpp:139] Memory required for data: 110352204
I0504 16:32:51.501427  9495 layer_factory.hpp:77] Creating layer ip3
I0504 16:32:51.501435  9495 net.cpp:86] Creating Layer ip3
I0504 16:32:51.501437  9495 net.cpp:408] ip3 <- ip2
I0504 16:32:51.501442  9495 net.cpp:382] ip3 -> ip3
I0504 16:32:51.501572  9495 net.cpp:124] Setting up ip3
I0504 16:32:51.501579  9495 net.cpp:131] Top shape: 111 10 (1110)
I0504 16:32:51.501582  9495 net.cpp:139] Memory required for data: 110356644
I0504 16:32:51.501591  9495 layer_factory.hpp:77] Creating layer loss
I0504 16:32:51.501597  9495 net.cpp:86] Creating Layer loss
I0504 16:32:51.501600  9495 net.cpp:408] loss <- ip3
I0504 16:32:51.501605  9495 net.cpp:408] loss <- label
I0504 16:32:51.501610  9495 net.cpp:382] loss -> loss
I0504 16:32:51.501627  9495 layer_factory.hpp:77] Creating layer loss
…
I0504 16:32:51.502301  9495 solver.cpp:173] Creating test net (#0) specified by net file: ECE595/cifar/train_test/var_everything_tiny/cifar_train_test_189.prototxt
I0504 16:32:51.502344  9495 net.cpp:296] The NetState phase (1) differed from the phase (0) specified by a rule in layer cifar
I0504 16:32:51.502457  9495 net.cpp:53] Initializing net from parameters: 
name: "CIFAR"
state {
  phase: TEST
}
layer {
  name: "cifar"
  type: "Data"
  top: "data"
  top: "label"
  include {
    phase: TEST
  }
  transform_param {
    mean_file: "examples/cifar10/mean.binaryproto"
  }
  data_param {
    source: "examples/cifar10/cifar10_test_lmdb"
    batch_size: 1000
    backend: LMDB
  }
}
layer {
  name: "conv0"
  type: "Convolution"
  bottom: "data"
  top: "conv0"
  param {
    lr_mult: 1
  }
  param {
    lr_mult: 2
  }
  convolution_param {
    num_output: 72
    pad: 2
    kernel_size: 3
    stride: 1
    weight_filler {
      type: "gaussian"
      std: 0.01
    }
    bias_filler {
      type: "constant"
    }
  }
}
layer {
  name: "Sigmoid0"
  type: "Sigmoid"
  bottom: "conv0"
  top: "Sigmoid0"
}
layer {
  name: "pool0"
  type: "Pooling"
  bottom: "Sigmoid0"
  top: "pool0"
  pooling_param {
    pool: AVE
    kernel_size: 3
    stride: 2
  }
}
layer {
  name: "conv1"
  type: "Convolution"
  bottom: "pool0"
  top: "conv1"
  param {
    lr_mult: 1
  }
  param {
    lr_mult: 2
  }
  convolution_param {
    num_output: 72
    pad: 2
    kernel_size: 3
    stride: 1
    weight_filler {
      type: "gaussian"
      std: 0.01
    }
    bias_filler {
      type: "constant"
    }
  }
}
layer {
  name: "Sigmoid1"
  type: "Sigmoid"
  bottom: "conv1"
  top: "Sigmoid1"
}
layer {
  name: "pool1"
  type: "Pooling"
  bottom: "Sigmoid1"
  top: "pool1"
  pooling_param {
    pool: AVE
    kernel_size: 3
    stride: 2
  }
}
layer {
  name: "ip1"
  type: "InnerProduct"
  bottom: "pool1"
  top: "ip1"
  param {
    lr_mult: 1
  }
  param {
    lr_mult: 2
  }
  inner_product_param {
    num_output: 180
    weight_filler {
      type: "gaussian"
      std: 0.01
    }
    bias_filler {
      type: "constant"
    }
  }
}
layer {
  name: "relu1"
  type: "ReLU"
  bottom: "ip1"
  top: "ip1"
}
layer {
  name: "ip2"
  type: "InnerProduct"
  bottom: "ip1"
  top: "ip2"
  param {
    lr_mult: 1
  }
  param {
    lr_mult: 2
  }
  inner_product_param {
    num_output: 10
    weight_filler {
      type: "gaussian"
      std: 0.01
    }
    bias_filler {
      type: "constant"
    }
  }
}
layer {
  name: "relu2"
  type: "ReLU"
  bottom: "ip2"
  top: "ip2"
}
layer {
  name: "ip3"
  type: "InnerProduct"
  bottom: "ip2"
  top: "ip3"
  param {
    lr_mult: 1
  }
  param {
    lr_mult: 2
  }
  inner_product_param {
    num_output: 10
    weight_filler {
      type: "gaussian"
      std: 0.01
    }
    bias_filler {
      type: "constant"
    }
  }
}
layer {
  name: "accuracy"
  type: "Accuracy"
  bottom: "ip3"
  bottom: "label"
  top: "accuracy"
  include {
    phase: TEST
  }
}
layer {
  name: "loss"
  type: "SoftmaxWithLoss"
  bottom: "ip3"
  bottom: "label"
  top: "loss"
}
I0504 16:32:51.502542  9495 layer_factory.hpp:77] Creating layer cifar
I0504 16:32:51.502588  9495 db_lmdb.cpp:35] Opened lmdb examples/cifar10/cifar10_test_lmdb
I0504 16:32:51.502600  9495 net.cpp:86] Creating Layer cifar
I0504 16:32:51.502605  9495 net.cpp:382] cifar -> data
I0504 16:32:51.502612  9495 net.cpp:382] cifar -> label
I0504 16:32:51.502619  9495 data_transformer.cpp:25] Loading mean file from: examples/cifar10/mean.binaryproto
I0504 16:32:51.502759  9495 data_layer.cpp:45] output data size: 1000,3,32,32
I0504 16:32:51.529321  9495 net.cpp:124] Setting up cifar
I0504 16:32:51.529369  9495 net.cpp:131] Top shape: 1000 3 32 32 (3072000)
I0504 16:32:51.529382  9495 net.cpp:131] Top shape: 1000 (1000)
I0504 16:32:51.529391  9495 net.cpp:139] Memory required for data: 12292000
I0504 16:32:51.529402  9495 layer_factory.hpp:77] Creating layer label_cifar_1_split
I0504 16:32:51.529429  9495 net.cpp:86] Creating Layer label_cifar_1_split
I0504 16:32:51.529438  9495 net.cpp:408] label_cifar_1_split <- label
I0504 16:32:51.529449  9495 net.cpp:382] label_cifar_1_split -> label_cifar_1_split_0
I0504 16:32:51.529466  9495 net.cpp:382] label_cifar_1_split -> label_cifar_1_split_1
I0504 16:32:51.529655  9495 net.cpp:124] Setting up label_cifar_1_split
I0504 16:32:51.529671  9495 net.cpp:131] Top shape: 1000 (1000)
I0504 16:32:51.529680  9495 net.cpp:131] Top shape: 1000 (1000)
I0504 16:32:51.529685  9495 net.cpp:139] Memory required for data: 12300000
I0504 16:32:51.529692  9495 layer_factory.hpp:77] Creating layer conv0
I0504 16:32:51.529714  9495 net.cpp:86] Creating Layer conv0
I0504 16:32:51.529721  9495 net.cpp:408] conv0 <- data
I0504 16:32:51.529732  9495 net.cpp:382] conv0 -> conv0
I0504 16:32:51.533867  9495 net.cpp:124] Setting up conv0
I0504 16:32:51.533905  9495 net.cpp:131] Top shape: 1000 72 34 34 (83232000)
I0504 16:32:51.533913  9495 net.cpp:139] Memory required for data: 345228000
I0504 16:32:51.533934  9495 layer_factory.hpp:77] Creating layer Sigmoid0
I0504 16:32:51.533948  9495 net.cpp:86] Creating Layer Sigmoid0
I0504 16:32:51.533957  9495 net.cpp:408] Sigmoid0 <- conv0
I0504 16:32:51.533967  9495 net.cpp:382] Sigmoid0 -> Sigmoid0
I0504 16:32:51.534365  9495 net.cpp:124] Setting up Sigmoid0
I0504 16:32:51.534409  9495 net.cpp:131] Top shape: 1000 72 34 34 (83232000)
I0504 16:32:51.534417  9495 net.cpp:139] Memory required for data: 678156000
I0504 16:32:51.534435  9495 layer_factory.hpp:77] Creating layer pool0
I0504 16:32:51.534449  9495 net.cpp:86] Creating Layer pool0
I0504 16:32:51.534456  9495 net.cpp:408] pool0 <- Sigmoid0
I0504 16:32:51.534466  9495 net.cpp:382] pool0 -> pool0
I0504 16:32:51.534813  9495 net.cpp:124] Setting up pool0
I0504 16:32:51.534831  9495 net.cpp:131] Top shape: 1000 72 17 17 (20808000)
I0504 16:32:51.534837  9495 net.cpp:139] Memory required for data: 761388000
I0504 16:32:51.534845  9495 layer_factory.hpp:77] Creating layer conv1
I0504 16:32:51.534863  9495 net.cpp:86] Creating Layer conv1
I0504 16:32:51.534870  9495 net.cpp:408] conv1 <- pool0
I0504 16:32:51.534880  9495 net.cpp:382] conv1 -> conv1
I0504 16:32:51.540313  9495 net.cpp:124] Setting up conv1
I0504 16:32:51.540343  9495 net.cpp:131] Top shape: 1000 72 19 19 (25992000)
I0504 16:32:51.540351  9495 net.cpp:139] Memory required for data: 865356000
I0504 16:32:51.540369  9495 layer_factory.hpp:77] Creating layer Sigmoid1
I0504 16:32:51.540380  9495 net.cpp:86] Creating Layer Sigmoid1
I0504 16:32:51.540386  9495 net.cpp:408] Sigmoid1 <- conv1
I0504 16:32:51.540398  9495 net.cpp:382] Sigmoid1 -> Sigmoid1
I0504 16:32:51.540740  9495 net.cpp:124] Setting up Sigmoid1
I0504 16:32:51.540757  9495 net.cpp:131] Top shape: 1000 72 19 19 (25992000)
I0504 16:32:51.540763  9495 net.cpp:139] Memory required for data: 969324000
I0504 16:32:51.540769  9495 layer_factory.hpp:77] Creating layer pool1
I0504 16:32:51.540789  9495 net.cpp:86] Creating Layer pool1
I0504 16:32:51.540796  9495 net.cpp:408] pool1 <- Sigmoid1
I0504 16:32:51.540807  9495 net.cpp:382] pool1 -> pool1
I0504 16:32:51.542269  9495 net.cpp:124] Setting up pool1
I0504 16:32:51.542294  9495 net.cpp:131] Top shape: 1000 72 9 9 (5832000)
I0504 16:32:51.542300  9495 net.cpp:139] Memory required for data: 992652000
I0504 16:32:51.542307  9495 layer_factory.hpp:77] Creating layer ip1
I0504 16:32:51.542331  9495 net.cpp:86] Creating Layer ip1
I0504 16:32:51.542338  9495 net.cpp:408] ip1 <- pool1
I0504 16:32:51.542351  9495 net.cpp:382] ip1 -> ip1
I0504 16:32:51.594822  9495 net.cpp:124] Setting up ip1
I0504 16:32:51.594853  9495 net.cpp:131] Top shape: 1000 180 (180000)
I0504 16:32:51.594859  9495 net.cpp:139] Memory required for data: 993372000
I0504 16:32:51.594874  9495 layer_factory.hpp:77] Creating layer relu1
I0504 16:32:51.594894  9495 net.cpp:86] Creating Layer relu1
I0504 16:32:51.594900  9495 net.cpp:408] relu1 <- ip1
I0504 16:32:51.594908  9495 net.cpp:369] relu1 -> ip1 (in-place)
I0504 16:32:51.595218  9495 net.cpp:124] Setting up relu1
I0504 16:32:51.595232  9495 net.cpp:131] Top shape: 1000 180 (180000)
I0504 16:32:51.595237  9495 net.cpp:139] Memory required for data: 994092000
I0504 16:32:51.595240  9495 layer_factory.hpp:77] Creating layer ip2
I0504 16:32:51.595259  9495 net.cpp:86] Creating Layer ip2
I0504 16:32:51.595264  9495 net.cpp:408] ip2 <- ip1
I0504 16:32:51.595273  9495 net.cpp:382] ip2 -> ip2
I0504 16:32:51.595525  9495 net.cpp:124] Setting up ip2
I0504 16:32:51.595535  9495 net.cpp:131] Top shape: 1000 10 (10000)
I0504 16:32:51.595540  9495 net.cpp:139] Memory required for data: 994132000
I0504 16:32:51.595547  9495 layer_factory.hpp:77] Creating layer relu2
I0504 16:32:51.595556  9495 net.cpp:86] Creating Layer relu2
I0504 16:32:51.595561  9495 net.cpp:408] relu2 <- ip2
I0504 16:32:51.595566  9495 net.cpp:369] relu2 -> ip2 (in-place)
I0504 16:32:51.595818  9495 net.cpp:124] Setting up relu2
I0504 16:32:51.595829  9495 net.cpp:131] Top shape: 1000 10 (10000)
I0504 16:32:51.595832  9495 net.cpp:139] Memory required for data: 994172000
I0504 16:32:51.595837  9495 layer_factory.hpp:77] Creating layer ip3
I0504 16:32:51.595846  9495 net.cpp:86] Creating Layer ip3
I0504 16:32:51.595850  9495 net.cpp:408] ip3 <- ip2
I0504 16:32:51.595860  9495 net.cpp:382] ip3 -> ip3
I0504 16:32:51.596055  9495 net.cpp:124] Setting up ip3
I0504 16:32:51.596082  9495 net.cpp:131] Top shape: 1000 10 (10000)
I0504 16:32:51.596087  9495 net.cpp:139] Memory required for data: 994212000
I0504 16:32:51.596099  9495 layer_factory.hpp:77] Creating layer ip3_ip3_0_split
I0504 16:32:51.596107  9495 net.cpp:86] Creating Layer ip3_ip3_0_split
I0504 16:32:51.596114  9495 net.cpp:408] ip3_ip3_0_split <- ip3
I0504 16:32:51.596122  9495 net.cpp:382] ip3_ip3_0_split -> ip3_ip3_0_split_0
I0504 16:32:51.596130  9495 net.cpp:382] ip3_ip3_0_split -> ip3_ip3_0_split_1
I0504 16:32:51.596184  9495 net.cpp:124] Setting up ip3_ip3_0_split
I0504 16:32:51.596192  9495 net.cpp:131] Top shape: 1000 10 (10000)
I0504 16:32:51.596197  9495 net.cpp:131] Top shape: 1000 10 (10000)
I0504 16:32:51.596201  9495 net.cpp:139] Memory required for data: 994292000
I0504 16:32:51.596206  9495 layer_factory.hpp:77] Creating layer accuracy
I0504 16:32:51.596213  9495 net.cpp:86] Creating Layer accuracy
I0504 16:32:51.596218  9495 net.cpp:408] accuracy <- ip3_ip3_0_split_0
I0504 16:32:51.596225  9495 net.cpp:408] accuracy <- label_cifar_1_split_0
I0504 16:32:51.596233  9495 net.cpp:382] accuracy -> accuracy
…
