…
I0504 00:48:34.860649  6133 net.cpp:296] The NetState phase (0) differed from the phase (1) specified by a rule in layer cifar
I0504 00:48:34.860664  6133 net.cpp:296] The NetState phase (0) differed from the phase (1) specified by a rule in layer accuracy
I0504 00:48:34.860746  6133 net.cpp:53] Initializing net from parameters: 
name: "CIFAR"
state {
  phase: TRAIN
  level: 0
  stage: ""
}
layer {
  name: "cifar"
  type: "Data"
  top: "data"
  top: "label"
  include {
    phase: TRAIN
  }
  transform_param {
    mean_file: "examples/cifar10/mean.binaryproto"
  }
  data_param {
    source: "examples/cifar10/cifar10_train_lmdb"
    batch_size: 111
    backend: LMDB
  }
}
layer {
  name: "conv0"
  type: "Convolution"
  bottom: "data"
  top: "conv0"
  param {
    lr_mult: 1
  }
  param {
    lr_mult: 2
  }
  convolution_param {
    num_output: 72
    pad: 2
    kernel_size: 3
    stride: 1
    weight_filler {
      type: "gaussian"
      std: 0.01
    }
    bias_filler {
      type: "constant"
    }
  }
}
layer {
  name: "Sigmoid0"
  type: "Sigmoid"
  bottom: "conv0"
  top: "Sigmoid0"
}
layer {
  name: "pool0"
  type: "Pooling"
  bottom: "Sigmoid0"
  top: "pool0"
  pooling_param {
    pool: AVE
    kernel_size: 3
    stride: 2
  }
}
layer {
  name: "ip1"
  type: "InnerProduct"
  bottom: "pool0"
  top: "ip1"
  param {
    lr_mult: 1
  }
  param {
    lr_mult: 2
  }
  inner_product_param {
    num_output: 180
    weight_filler {
      type: "gaussian"
      std: 0.01
    }
    bias_filler {
      type: "constant"
    }
  }
}
layer {
  name: "relu1"
  type: "ReLU"
  bottom: "ip1"
  top: "ip1"
}
layer {
  name: "ip2"
  type: "InnerProduct"
  bottom: "ip1"
  top: "ip2"
  param {
    lr_mult: 1
  }
  param {
    lr_mult: 2
  }
  inner_product_param {
    num_output: 10
    weight_filler {
      type: "gaussian"
      std: 0.01
    }
    bias_filler {
      type: "constant"
    }
  }
}
layer {
  name: "loss"
  type: "SoftmaxWithLoss"
  bottom: "ip2"
  bottom: "label"
  top: "loss"
}
I0504 00:48:34.860823  6133 layer_factory.hpp:77] Creating layer cifar
I0504 00:48:34.860924  6133 db_lmdb.cpp:35] Opened lmdb examples/cifar10/cifar10_train_lmdb
I0504 00:48:34.860952  6133 net.cpp:86] Creating Layer cifar
I0504 00:48:34.860965  6133 net.cpp:382] cifar -> data
I0504 00:48:34.860988  6133 net.cpp:382] cifar -> label
I0504 00:48:34.861001  6133 data_transformer.cpp:25] Loading mean file from: examples/cifar10/mean.binaryproto
I0504 00:48:34.863256  6133 data_layer.cpp:45] output data size: 111,3,32,32
I0504 00:48:34.871356  6133 net.cpp:124] Setting up cifar
I0504 00:48:34.871374  6133 net.cpp:131] Top shape: 111 3 32 32 (340992)
I0504 00:48:34.871382  6133 net.cpp:131] Top shape: 111 (111)
I0504 00:48:34.871386  6133 net.cpp:139] Memory required for data: 1364412
I0504 00:48:34.871393  6133 layer_factory.hpp:77] Creating layer conv0
I0504 00:48:34.871410  6133 net.cpp:86] Creating Layer conv0
I0504 00:48:34.871428  6133 net.cpp:408] conv0 <- data
I0504 00:48:34.871440  6133 net.cpp:382] conv0 -> conv0
I0504 00:48:35.161561  6133 net.cpp:124] Setting up conv0
I0504 00:48:35.161589  6133 net.cpp:131] Top shape: 111 72 34 34 (9238752)
I0504 00:48:35.161593  6133 net.cpp:139] Memory required for data: 38319420
I0504 00:48:35.161608  6133 layer_factory.hpp:77] Creating layer Sigmoid0
I0504 00:48:35.161622  6133 net.cpp:86] Creating Layer Sigmoid0
I0504 00:48:35.161626  6133 net.cpp:408] Sigmoid0 <- conv0
I0504 00:48:35.161651  6133 net.cpp:382] Sigmoid0 -> Sigmoid0
I0504 00:48:35.161839  6133 net.cpp:124] Setting up Sigmoid0
I0504 00:48:35.161849  6133 net.cpp:131] Top shape: 111 72 34 34 (9238752)
I0504 00:48:35.161851  6133 net.cpp:139] Memory required for data: 75274428
I0504 00:48:35.161855  6133 layer_factory.hpp:77] Creating layer pool0
I0504 00:48:35.161862  6133 net.cpp:86] Creating Layer pool0
I0504 00:48:35.161866  6133 net.cpp:408] pool0 <- Sigmoid0
I0504 00:48:35.161871  6133 net.cpp:382] pool0 -> pool0
I0504 00:48:35.162636  6133 net.cpp:124] Setting up pool0
I0504 00:48:35.162648  6133 net.cpp:131] Top shape: 111 72 17 17 (2309688)
I0504 00:48:35.162652  6133 net.cpp:139] Memory required for data: 84513180
I0504 00:48:35.162657  6133 layer_factory.hpp:77] Creating layer ip1
I0504 00:48:35.162667  6133 net.cpp:86] Creating Layer ip1
I0504 00:48:35.162670  6133 net.cpp:408] ip1 <- pool0
I0504 00:48:35.162677  6133 net.cpp:382] ip1 -> ip1
I0504 00:48:35.259605  6133 net.cpp:124] Setting up ip1
I0504 00:48:35.259624  6133 net.cpp:131] Top shape: 111 180 (19980)
I0504 00:48:35.259627  6133 net.cpp:139] Memory required for data: 84593100
I0504 00:48:35.259637  6133 layer_factory.hpp:77] Creating layer relu1
I0504 00:48:35.259644  6133 net.cpp:86] Creating Layer relu1
I0504 00:48:35.259647  6133 net.cpp:408] relu1 <- ip1
I0504 00:48:35.259652  6133 net.cpp:369] relu1 -> ip1 (in-place)
I0504 00:48:35.259840  6133 net.cpp:124] Setting up relu1
I0504 00:48:35.259848  6133 net.cpp:131] Top shape: 111 180 (19980)
I0504 00:48:35.259851  6133 net.cpp:139] Memory required for data: 84673020
I0504 00:48:35.259855  6133 layer_factory.hpp:77] Creating layer ip2
I0504 00:48:35.259861  6133 net.cpp:86] Creating Layer ip2
I0504 00:48:35.259865  6133 net.cpp:408] ip2 <- ip1
I0504 00:48:35.259871  6133 net.cpp:382] ip2 -> ip2
I0504 00:48:35.260007  6133 net.cpp:124] Setting up ip2
I0504 00:48:35.260015  6133 net.cpp:131] Top shape: 111 10 (1110)
I0504 00:48:35.260017  6133 net.cpp:139] Memory required for data: 84677460
I0504 00:48:35.260025  6133 layer_factory.hpp:77] Creating layer loss
I0504 00:48:35.260030  6133 net.cpp:86] Creating Layer loss
I0504 00:48:35.260032  6133 net.cpp:408] loss <- ip2
I0504 00:48:35.260036  6133 net.cpp:408] loss <- label
I0504 00:48:35.260041  6133 net.cpp:382] loss -> loss
I0504 00:48:35.260061  6133 layer_factory.hpp:77] Creating layer loss
…
I0504 00:48:35.260632  6133 solver.cpp:173] Creating test net (#0) specified by net file: ECE595/cifar/train_test/var_everything_tiny/cifar_train_test_26.prototxt
I0504 00:48:35.260673  6133 net.cpp:296] The NetState phase (1) differed from the phase (0) specified by a rule in layer cifar
I0504 00:48:35.260745  6133 net.cpp:53] Initializing net from parameters: 
name: "CIFAR"
state {
  phase: TEST
}
layer {
  name: "cifar"
  type: "Data"
  top: "data"
  top: "label"
  include {
    phase: TEST
  }
  transform_param {
    mean_file: "examples/cifar10/mean.binaryproto"
  }
  data_param {
    source: "examples/cifar10/cifar10_test_lmdb"
    batch_size: 1000
    backend: LMDB
  }
}
layer {
  name: "conv0"
  type: "Convolution"
  bottom: "data"
  top: "conv0"
  param {
    lr_mult: 1
  }
  param {
    lr_mult: 2
  }
  convolution_param {
    num_output: 72
    pad: 2
    kernel_size: 3
    stride: 1
    weight_filler {
      type: "gaussian"
      std: 0.01
    }
    bias_filler {
      type: "constant"
    }
  }
}
layer {
  name: "Sigmoid0"
  type: "Sigmoid"
  bottom: "conv0"
  top: "Sigmoid0"
}
layer {
  name: "pool0"
  type: "Pooling"
  bottom: "Sigmoid0"
  top: "pool0"
  pooling_param {
    pool: AVE
    kernel_size: 3
    stride: 2
  }
}
layer {
  name: "ip1"
  type: "InnerProduct"
  bottom: "pool0"
  top: "ip1"
  param {
    lr_mult: 1
  }
  param {
    lr_mult: 2
  }
  inner_product_param {
    num_output: 180
    weight_filler {
      type: "gaussian"
      std: 0.01
    }
    bias_filler {
      type: "constant"
    }
  }
}
layer {
  name: "relu1"
  type: "ReLU"
  bottom: "ip1"
  top: "ip1"
}
layer {
  name: "ip2"
  type: "InnerProduct"
  bottom: "ip1"
  top: "ip2"
  param {
    lr_mult: 1
  }
  param {
    lr_mult: 2
  }
  inner_product_param {
    num_output: 10
    weight_filler {
      type: "gaussian"
      std: 0.01
    }
    bias_filler {
      type: "constant"
    }
  }
}
layer {
  name: "accuracy"
  type: "Accuracy"
  bottom: "ip2"
  bottom: "label"
  top: "accuracy"
  include {
    phase: TEST
  }
}
layer {
  name: "loss"
  type: "SoftmaxWithLoss"
  bottom: "ip2"
  bottom: "label"
  top: "loss"
}
I0504 00:48:35.260820  6133 layer_factory.hpp:77] Creating layer cifar
I0504 00:48:35.260869  6133 db_lmdb.cpp:35] Opened lmdb examples/cifar10/cifar10_test_lmdb
I0504 00:48:35.260880  6133 net.cpp:86] Creating Layer cifar
I0504 00:48:35.260885  6133 net.cpp:382] cifar -> data
I0504 00:48:35.260892  6133 net.cpp:382] cifar -> label
I0504 00:48:35.260898  6133 data_transformer.cpp:25] Loading mean file from: examples/cifar10/mean.binaryproto
I0504 00:48:35.261065  6133 data_layer.cpp:45] output data size: 1000,3,32,32
I0504 00:48:35.282461  6133 net.cpp:124] Setting up cifar
I0504 00:48:35.282502  6133 net.cpp:131] Top shape: 1000 3 32 32 (3072000)
I0504 00:48:35.282508  6133 net.cpp:131] Top shape: 1000 (1000)
I0504 00:48:35.282511  6133 net.cpp:139] Memory required for data: 12292000
I0504 00:48:35.282517  6133 layer_factory.hpp:77] Creating layer label_cifar_1_split
I0504 00:48:35.282533  6133 net.cpp:86] Creating Layer label_cifar_1_split
I0504 00:48:35.282537  6133 net.cpp:408] label_cifar_1_split <- label
I0504 00:48:35.282543  6133 net.cpp:382] label_cifar_1_split -> label_cifar_1_split_0
I0504 00:48:35.282568  6133 net.cpp:382] label_cifar_1_split -> label_cifar_1_split_1
I0504 00:48:35.282618  6133 net.cpp:124] Setting up label_cifar_1_split
I0504 00:48:35.282624  6133 net.cpp:131] Top shape: 1000 (1000)
I0504 00:48:35.282627  6133 net.cpp:131] Top shape: 1000 (1000)
I0504 00:48:35.282630  6133 net.cpp:139] Memory required for data: 12300000
I0504 00:48:35.282634  6133 layer_factory.hpp:77] Creating layer conv0
I0504 00:48:35.282644  6133 net.cpp:86] Creating Layer conv0
I0504 00:48:35.282647  6133 net.cpp:408] conv0 <- data
I0504 00:48:35.282652  6133 net.cpp:382] conv0 -> conv0
I0504 00:48:35.284207  6133 net.cpp:124] Setting up conv0
I0504 00:48:35.284219  6133 net.cpp:131] Top shape: 1000 72 34 34 (83232000)
I0504 00:48:35.284238  6133 net.cpp:139] Memory required for data: 345228000
I0504 00:48:35.284263  6133 layer_factory.hpp:77] Creating layer Sigmoid0
I0504 00:48:35.284271  6133 net.cpp:86] Creating Layer Sigmoid0
I0504 00:48:35.284273  6133 net.cpp:408] Sigmoid0 <- conv0
I0504 00:48:35.284278  6133 net.cpp:382] Sigmoid0 -> Sigmoid0
I0504 00:48:35.285488  6133 net.cpp:124] Setting up Sigmoid0
I0504 00:48:35.285498  6133 net.cpp:131] Top shape: 1000 72 34 34 (83232000)
I0504 00:48:35.285517  6133 net.cpp:139] Memory required for data: 678156000
I0504 00:48:35.285521  6133 layer_factory.hpp:77] Creating layer pool0
I0504 00:48:35.285528  6133 net.cpp:86] Creating Layer pool0
I0504 00:48:35.285533  6133 net.cpp:408] pool0 <- Sigmoid0
I0504 00:48:35.285538  6133 net.cpp:382] pool0 -> pool0
I0504 00:48:35.286363  6133 net.cpp:124] Setting up pool0
I0504 00:48:35.286375  6133 net.cpp:131] Top shape: 1000 72 17 17 (20808000)
I0504 00:48:35.286393  6133 net.cpp:139] Memory required for data: 761388000
I0504 00:48:35.286397  6133 layer_factory.hpp:77] Creating layer ip1
I0504 00:48:35.286406  6133 net.cpp:86] Creating Layer ip1
I0504 00:48:35.286409  6133 net.cpp:408] ip1 <- pool0
I0504 00:48:35.286415  6133 net.cpp:382] ip1 -> ip1
I0504 00:48:35.384804  6133 net.cpp:124] Setting up ip1
I0504 00:48:35.384865  6133 net.cpp:131] Top shape: 1000 180 (180000)
I0504 00:48:35.384868  6133 net.cpp:139] Memory required for data: 762108000
I0504 00:48:35.384896  6133 layer_factory.hpp:77] Creating layer relu1
I0504 00:48:35.384905  6133 net.cpp:86] Creating Layer relu1
I0504 00:48:35.384912  6133 net.cpp:408] relu1 <- ip1
I0504 00:48:35.384935  6133 net.cpp:369] relu1 -> ip1 (in-place)
I0504 00:48:35.385193  6133 net.cpp:124] Setting up relu1
I0504 00:48:35.385203  6133 net.cpp:131] Top shape: 1000 180 (180000)
I0504 00:48:35.385206  6133 net.cpp:139] Memory required for data: 762828000
I0504 00:48:35.385210  6133 layer_factory.hpp:77] Creating layer ip2
I0504 00:48:35.385218  6133 net.cpp:86] Creating Layer ip2
I0504 00:48:35.385222  6133 net.cpp:408] ip2 <- ip1
I0504 00:48:35.385228  6133 net.cpp:382] ip2 -> ip2
I0504 00:48:35.385438  6133 net.cpp:124] Setting up ip2
I0504 00:48:35.385447  6133 net.cpp:131] Top shape: 1000 10 (10000)
I0504 00:48:35.385449  6133 net.cpp:139] Memory required for data: 762868000
I0504 00:48:35.385457  6133 layer_factory.hpp:77] Creating layer ip2_ip2_0_split
I0504 00:48:35.385463  6133 net.cpp:86] Creating Layer ip2_ip2_0_split
I0504 00:48:35.385466  6133 net.cpp:408] ip2_ip2_0_split <- ip2
I0504 00:48:35.385471  6133 net.cpp:382] ip2_ip2_0_split -> ip2_ip2_0_split_0
I0504 00:48:35.385476  6133 net.cpp:382] ip2_ip2_0_split -> ip2_ip2_0_split_1
I0504 00:48:35.385506  6133 net.cpp:124] Setting up ip2_ip2_0_split
I0504 00:48:35.385516  6133 net.cpp:131] Top shape: 1000 10 (10000)
I0504 00:48:35.385519  6133 net.cpp:131] Top shape: 1000 10 (10000)
I0504 00:48:35.385522  6133 net.cpp:139] Memory required for data: 762948000
I0504 00:48:35.385525  6133 layer_factory.hpp:77] Creating layer accuracy
I0504 00:48:35.385531  6133 net.cpp:86] Creating Layer accuracy
I0504 00:48:35.385535  6133 net.cpp:408] accuracy <- ip2_ip2_0_split_0
I0504 00:48:35.385538  6133 net.cpp:408] accuracy <- label_cifar_1_split_0
I0504 00:48:35.385542  6133 net.cpp:382] accuracy -> accuracy
…
