…
I0504 17:12:57.100545 11234 net.cpp:296] The NetState phase (0) differed from the phase (1) specified by a rule in layer cifar
I0504 17:12:57.100565 11234 net.cpp:296] The NetState phase (0) differed from the phase (1) specified by a rule in layer accuracy
I0504 17:12:57.100678 11234 net.cpp:53] Initializing net from parameters: 
name: "CIFAR"
state {
  phase: TRAIN
  level: 0
  stage: ""
}
layer {
  name: "cifar"
  type: "Data"
  top: "data"
  top: "label"
  include {
    phase: TRAIN
  }
  transform_param {
    mean_file: "examples/cifar10/mean.binaryproto"
  }
  data_param {
    source: "examples/cifar10/cifar10_train_lmdb"
    batch_size: 111
    backend: LMDB
  }
}
layer {
  name: "conv0"
  type: "Convolution"
  bottom: "data"
  top: "conv0"
  param {
    lr_mult: 1
  }
  param {
    lr_mult: 2
  }
  convolution_param {
    num_output: 72
    pad: 2
    kernel_size: 5
    stride: 1
    weight_filler {
      type: "gaussian"
      std: 0.01
    }
    bias_filler {
      type: "constant"
    }
  }
}
layer {
  name: "Sigmoid0"
  type: "Sigmoid"
  bottom: "conv0"
  top: "Sigmoid0"
}
layer {
  name: "pool0"
  type: "Pooling"
  bottom: "Sigmoid0"
  top: "pool0"
  pooling_param {
    pool: AVE
    kernel_size: 3
    stride: 2
  }
}
layer {
  name: "conv1"
  type: "Convolution"
  bottom: "pool0"
  top: "conv1"
  param {
    lr_mult: 1
  }
  param {
    lr_mult: 2
  }
  convolution_param {
    num_output: 72
    pad: 2
    kernel_size: 3
    stride: 1
    weight_filler {
      type: "gaussian"
      std: 0.01
    }
    bias_filler {
      type: "constant"
    }
  }
}
layer {
  name: "Sigmoid1"
  type: "Sigmoid"
  bottom: "conv1"
  top: "Sigmoid1"
}
layer {
  name: "pool1"
  type: "Pooling"
  bottom: "Sigmoid1"
  top: "pool1"
  pooling_param {
    pool: AVE
    kernel_size: 3
    stride: 2
  }
}
layer {
  name: "ip1"
  type: "InnerProduct"
  bottom: "pool1"
  top: "ip1"
  param {
    lr_mult: 1
  }
  param {
    lr_mult: 2
  }
  inner_product_param {
    num_output: 10
    weight_filler {
      type: "gaussian"
      std: 0.01
    }
    bias_filler {
      type: "constant"
    }
  }
}
layer {
  name: "relu1"
  type: "ReLU"
  bottom: "ip1"
  top: "ip1"
}
layer {
  name: "ip2"
  type: "InnerProduct"
  bottom: "ip1"
  top: "ip2"
  param {
    lr_mult: 1
  }
  param {
    lr_mult: 2
  }
  inner_product_param {
    num_output: 10
    weight_filler {
      type: "gaussian"
      std: 0.01
    }
    bias_filler {
      type: "constant"
    }
  }
}
layer {
  name: "relu2"
  type: "ReLU"
  bottom: "ip2"
  top: "ip2"
}
layer {
  name: "ip3"
  type: "InnerProduct"
  bottom: "ip2"
  top: "ip3"
  param {
    lr_mult: 1
  }
  param {
    lr_mult: 2
  }
  inner_product_param {
    num_output: 10
    weight_filler {
      type: "gaussian"
      std: 0.01
    }
    bias_filler {
      type: "constant"
    }
  }
}
layer {
  name: "loss"
  type: "SoftmaxWithLoss"
  bottom: "ip3"
  bottom: "label"
  top: "loss"
}
I0504 17:12:57.100760 11234 layer_factory.hpp:77] Creating layer cifar
I0504 17:12:57.100867 11234 db_lmdb.cpp:35] Opened lmdb examples/cifar10/cifar10_train_lmdb
I0504 17:12:57.100899 11234 net.cpp:86] Creating Layer cifar
I0504 17:12:57.100908 11234 net.cpp:382] cifar -> data
I0504 17:12:57.100930 11234 net.cpp:382] cifar -> label
I0504 17:12:57.100944 11234 data_transformer.cpp:25] Loading mean file from: examples/cifar10/mean.binaryproto
I0504 17:12:57.103119 11234 data_layer.cpp:45] output data size: 111,3,32,32
I0504 17:12:57.111110 11234 net.cpp:124] Setting up cifar
I0504 17:12:57.111129 11234 net.cpp:131] Top shape: 111 3 32 32 (340992)
I0504 17:12:57.111137 11234 net.cpp:131] Top shape: 111 (111)
I0504 17:12:57.111141 11234 net.cpp:139] Memory required for data: 1364412
I0504 17:12:57.111150 11234 layer_factory.hpp:77] Creating layer conv0
I0504 17:12:57.111166 11234 net.cpp:86] Creating Layer conv0
I0504 17:12:57.111171 11234 net.cpp:408] conv0 <- data
I0504 17:12:57.111186 11234 net.cpp:382] conv0 -> conv0
I0504 17:12:57.394309 11234 net.cpp:124] Setting up conv0
I0504 17:12:57.394335 11234 net.cpp:131] Top shape: 111 72 32 32 (8183808)
I0504 17:12:57.394340 11234 net.cpp:139] Memory required for data: 34099644
I0504 17:12:57.394354 11234 layer_factory.hpp:77] Creating layer Sigmoid0
I0504 17:12:57.394366 11234 net.cpp:86] Creating Layer Sigmoid0
I0504 17:12:57.394383 11234 net.cpp:408] Sigmoid0 <- conv0
I0504 17:12:57.394388 11234 net.cpp:382] Sigmoid0 -> Sigmoid0
I0504 17:12:57.394573 11234 net.cpp:124] Setting up Sigmoid0
I0504 17:12:57.394582 11234 net.cpp:131] Top shape: 111 72 32 32 (8183808)
I0504 17:12:57.394587 11234 net.cpp:139] Memory required for data: 66834876
I0504 17:12:57.394589 11234 layer_factory.hpp:77] Creating layer pool0
I0504 17:12:57.394596 11234 net.cpp:86] Creating Layer pool0
I0504 17:12:57.394599 11234 net.cpp:408] pool0 <- Sigmoid0
I0504 17:12:57.394603 11234 net.cpp:382] pool0 -> pool0
I0504 17:12:57.395320 11234 net.cpp:124] Setting up pool0
I0504 17:12:57.395349 11234 net.cpp:131] Top shape: 111 72 16 16 (2045952)
I0504 17:12:57.395352 11234 net.cpp:139] Memory required for data: 75018684
I0504 17:12:57.395355 11234 layer_factory.hpp:77] Creating layer conv1
I0504 17:12:57.395367 11234 net.cpp:86] Creating Layer conv1
I0504 17:12:57.395371 11234 net.cpp:408] conv1 <- pool0
I0504 17:12:57.395376 11234 net.cpp:382] conv1 -> conv1
I0504 17:12:57.399235 11234 net.cpp:124] Setting up conv1
I0504 17:12:57.399248 11234 net.cpp:131] Top shape: 111 72 18 18 (2589408)
I0504 17:12:57.399251 11234 net.cpp:139] Memory required for data: 85376316
I0504 17:12:57.399260 11234 layer_factory.hpp:77] Creating layer Sigmoid1
I0504 17:12:57.399266 11234 net.cpp:86] Creating Layer Sigmoid1
I0504 17:12:57.399268 11234 net.cpp:408] Sigmoid1 <- conv1
I0504 17:12:57.399273 11234 net.cpp:382] Sigmoid1 -> Sigmoid1
I0504 17:12:57.399447 11234 net.cpp:124] Setting up Sigmoid1
I0504 17:12:57.399456 11234 net.cpp:131] Top shape: 111 72 18 18 (2589408)
I0504 17:12:57.399459 11234 net.cpp:139] Memory required for data: 95733948
I0504 17:12:57.399463 11234 layer_factory.hpp:77] Creating layer pool1
I0504 17:12:57.399468 11234 net.cpp:86] Creating Layer pool1
I0504 17:12:57.399471 11234 net.cpp:408] pool1 <- Sigmoid1
I0504 17:12:57.399477 11234 net.cpp:382] pool1 -> pool1
I0504 17:12:57.399652 11234 net.cpp:124] Setting up pool1
I0504 17:12:57.399660 11234 net.cpp:131] Top shape: 111 72 9 9 (647352)
I0504 17:12:57.399663 11234 net.cpp:139] Memory required for data: 98323356
I0504 17:12:57.399667 11234 layer_factory.hpp:77] Creating layer ip1
I0504 17:12:57.399677 11234 net.cpp:86] Creating Layer ip1
I0504 17:12:57.399682 11234 net.cpp:408] ip1 <- pool1
I0504 17:12:57.399685 11234 net.cpp:382] ip1 -> ip1
I0504 17:12:57.401418 11234 net.cpp:124] Setting up ip1
I0504 17:12:57.401427 11234 net.cpp:131] Top shape: 111 10 (1110)
I0504 17:12:57.401446 11234 net.cpp:139] Memory required for data: 98327796
I0504 17:12:57.401454 11234 layer_factory.hpp:77] Creating layer relu1
I0504 17:12:57.401460 11234 net.cpp:86] Creating Layer relu1
I0504 17:12:57.401464 11234 net.cpp:408] relu1 <- ip1
I0504 17:12:57.401468 11234 net.cpp:369] relu1 -> ip1 (in-place)
I0504 17:12:57.401659 11234 net.cpp:124] Setting up relu1
I0504 17:12:57.401667 11234 net.cpp:131] Top shape: 111 10 (1110)
I0504 17:12:57.401670 11234 net.cpp:139] Memory required for data: 98332236
I0504 17:12:57.401674 11234 layer_factory.hpp:77] Creating layer ip2
I0504 17:12:57.401680 11234 net.cpp:86] Creating Layer ip2
I0504 17:12:57.401684 11234 net.cpp:408] ip2 <- ip1
I0504 17:12:57.401702 11234 net.cpp:382] ip2 -> ip2
I0504 17:12:57.401823 11234 net.cpp:124] Setting up ip2
I0504 17:12:57.401829 11234 net.cpp:131] Top shape: 111 10 (1110)
I0504 17:12:57.401832 11234 net.cpp:139] Memory required for data: 98336676
I0504 17:12:57.401839 11234 layer_factory.hpp:77] Creating layer relu2
I0504 17:12:57.401844 11234 net.cpp:86] Creating Layer relu2
I0504 17:12:57.401846 11234 net.cpp:408] relu2 <- ip2
I0504 17:12:57.401850 11234 net.cpp:369] relu2 -> ip2 (in-place)
I0504 17:12:57.402613 11234 net.cpp:124] Setting up relu2
I0504 17:12:57.402624 11234 net.cpp:131] Top shape: 111 10 (1110)
I0504 17:12:57.402643 11234 net.cpp:139] Memory required for data: 98341116
I0504 17:12:57.402647 11234 layer_factory.hpp:77] Creating layer ip3
I0504 17:12:57.402653 11234 net.cpp:86] Creating Layer ip3
I0504 17:12:57.402657 11234 net.cpp:408] ip3 <- ip2
I0504 17:12:57.402662 11234 net.cpp:382] ip3 -> ip3
I0504 17:12:57.402770 11234 net.cpp:124] Setting up ip3
I0504 17:12:57.402777 11234 net.cpp:131] Top shape: 111 10 (1110)
I0504 17:12:57.402781 11234 net.cpp:139] Memory required for data: 98345556
I0504 17:12:57.402789 11234 layer_factory.hpp:77] Creating layer loss
I0504 17:12:57.402796 11234 net.cpp:86] Creating Layer loss
I0504 17:12:57.402798 11234 net.cpp:408] loss <- ip3
I0504 17:12:57.402802 11234 net.cpp:408] loss <- label
I0504 17:12:57.402807 11234 net.cpp:382] loss -> loss
I0504 17:12:57.402824 11234 layer_factory.hpp:77] Creating layer loss
…
I0504 17:12:57.403509 11234 solver.cpp:173] Creating test net (#0) specified by net file: ECE595/cifar/train_test/var_everything_tiny/cifar_train_test_195.prototxt
I0504 17:12:57.403551 11234 net.cpp:296] The NetState phase (1) differed from the phase (0) specified by a rule in layer cifar
I0504 17:12:57.403661 11234 net.cpp:53] Initializing net from parameters: 
name: "CIFAR"
state {
  phase: TEST
}
layer {
  name: "cifar"
  type: "Data"
  top: "data"
  top: "label"
  include {
    phase: TEST
  }
  transform_param {
    mean_file: "examples/cifar10/mean.binaryproto"
  }
  data_param {
    source: "examples/cifar10/cifar10_test_lmdb"
    batch_size: 1000
    backend: LMDB
  }
}
layer {
  name: "conv0"
  type: "Convolution"
  bottom: "data"
  top: "conv0"
  param {
    lr_mult: 1
  }
  param {
    lr_mult: 2
  }
  convolution_param {
    num_output: 72
    pad: 2
    kernel_size: 5
    stride: 1
    weight_filler {
      type: "gaussian"
      std: 0.01
    }
    bias_filler {
      type: "constant"
    }
  }
}
layer {
  name: "Sigmoid0"
  type: "Sigmoid"
  bottom: "conv0"
  top: "Sigmoid0"
}
layer {
  name: "pool0"
  type: "Pooling"
  bottom: "Sigmoid0"
  top: "pool0"
  pooling_param {
    pool: AVE
    kernel_size: 3
    stride: 2
  }
}
layer {
  name: "conv1"
  type: "Convolution"
  bottom: "pool0"
  top: "conv1"
  param {
    lr_mult: 1
  }
  param {
    lr_mult: 2
  }
  convolution_param {
    num_output: 72
    pad: 2
    kernel_size: 3
    stride: 1
    weight_filler {
      type: "gaussian"
      std: 0.01
    }
    bias_filler {
      type: "constant"
    }
  }
}
layer {
  name: "Sigmoid1"
  type: "Sigmoid"
  bottom: "conv1"
  top: "Sigmoid1"
}
layer {
  name: "pool1"
  type: "Pooling"
  bottom: "Sigmoid1"
  top: "pool1"
  pooling_param {
    pool: AVE
    kernel_size: 3
    stride: 2
  }
}
layer {
  name: "ip1"
  type: "InnerProduct"
  bottom: "pool1"
  top: "ip1"
  param {
    lr_mult: 1
  }
  param {
    lr_mult: 2
  }
  inner_product_param {
    num_output: 10
    weight_filler {
      type: "gaussian"
      std: 0.01
    }
    bias_filler {
      type: "constant"
    }
  }
}
layer {
  name: "relu1"
  type: "ReLU"
  bottom: "ip1"
  top: "ip1"
}
layer {
  name: "ip2"
  type: "InnerProduct"
  bottom: "ip1"
  top: "ip2"
  param {
    lr_mult: 1
  }
  param {
    lr_mult: 2
  }
  inner_product_param {
    num_output: 10
    weight_filler {
      type: "gaussian"
      std: 0.01
    }
    bias_filler {
      type: "constant"
    }
  }
}
layer {
  name: "relu2"
  type: "ReLU"
  bottom: "ip2"
  top: "ip2"
}
layer {
  name: "ip3"
  type: "InnerProduct"
  bottom: "ip2"
  top: "ip3"
  param {
    lr_mult: 1
  }
  param {
    lr_mult: 2
  }
  inner_product_param {
    num_output: 10
    weight_filler {
      type: "gaussian"
      std: 0.01
    }
    bias_filler {
      type: "constant"
    }
  }
}
layer {
  name: "accuracy"
  type: "Accuracy"
  bottom: "ip3"
  bottom: "label"
  top: "accuracy"
  include {
    phase: TEST
  }
}
layer {
  name: "loss"
  type: "SoftmaxWithLoss"
  bottom: "ip3"
  bottom: "label"
  top: "loss"
}
I0504 17:12:57.403743 11234 layer_factory.hpp:77] Creating layer cifar
I0504 17:12:57.403789 11234 db_lmdb.cpp:35] Opened lmdb examples/cifar10/cifar10_test_lmdb
I0504 17:12:57.403800 11234 net.cpp:86] Creating Layer cifar
I0504 17:12:57.403805 11234 net.cpp:382] cifar -> data
I0504 17:12:57.403812 11234 net.cpp:382] cifar -> label
I0504 17:12:57.403820 11234 data_transformer.cpp:25] Loading mean file from: examples/cifar10/mean.binaryproto
I0504 17:12:57.403978 11234 data_layer.cpp:45] output data size: 1000,3,32,32
I0504 17:12:57.425854 11234 net.cpp:124] Setting up cifar
I0504 17:12:57.425896 11234 net.cpp:131] Top shape: 1000 3 32 32 (3072000)
I0504 17:12:57.425902 11234 net.cpp:131] Top shape: 1000 (1000)
I0504 17:12:57.425905 11234 net.cpp:139] Memory required for data: 12292000
I0504 17:12:57.425911 11234 layer_factory.hpp:77] Creating layer label_cifar_1_split
I0504 17:12:57.425927 11234 net.cpp:86] Creating Layer label_cifar_1_split
I0504 17:12:57.425935 11234 net.cpp:408] label_cifar_1_split <- label
I0504 17:12:57.425956 11234 net.cpp:382] label_cifar_1_split -> label_cifar_1_split_0
I0504 17:12:57.425964 11234 net.cpp:382] label_cifar_1_split -> label_cifar_1_split_1
I0504 17:12:57.426036 11234 net.cpp:124] Setting up label_cifar_1_split
I0504 17:12:57.426044 11234 net.cpp:131] Top shape: 1000 (1000)
I0504 17:12:57.426048 11234 net.cpp:131] Top shape: 1000 (1000)
I0504 17:12:57.426051 11234 net.cpp:139] Memory required for data: 12300000
I0504 17:12:57.426055 11234 layer_factory.hpp:77] Creating layer conv0
I0504 17:12:57.426066 11234 net.cpp:86] Creating Layer conv0
I0504 17:12:57.426072 11234 net.cpp:408] conv0 <- data
I0504 17:12:57.426095 11234 net.cpp:382] conv0 -> conv0
I0504 17:12:57.429071 11234 net.cpp:124] Setting up conv0
I0504 17:12:57.429087 11234 net.cpp:131] Top shape: 1000 72 32 32 (73728000)
I0504 17:12:57.429092 11234 net.cpp:139] Memory required for data: 307212000
I0504 17:12:57.429102 11234 layer_factory.hpp:77] Creating layer Sigmoid0
I0504 17:12:57.429110 11234 net.cpp:86] Creating Layer Sigmoid0
I0504 17:12:57.429113 11234 net.cpp:408] Sigmoid0 <- conv0
I0504 17:12:57.429118 11234 net.cpp:382] Sigmoid0 -> Sigmoid0
I0504 17:12:57.429343 11234 net.cpp:124] Setting up Sigmoid0
I0504 17:12:57.429365 11234 net.cpp:131] Top shape: 1000 72 32 32 (73728000)
I0504 17:12:57.429369 11234 net.cpp:139] Memory required for data: 602124000
I0504 17:12:57.429373 11234 layer_factory.hpp:77] Creating layer pool0
I0504 17:12:57.429381 11234 net.cpp:86] Creating Layer pool0
I0504 17:12:57.429389 11234 net.cpp:408] pool0 <- Sigmoid0
I0504 17:12:57.429409 11234 net.cpp:382] pool0 -> pool0
I0504 17:12:57.429574 11234 net.cpp:124] Setting up pool0
I0504 17:12:57.429582 11234 net.cpp:131] Top shape: 1000 72 16 16 (18432000)
I0504 17:12:57.429587 11234 net.cpp:139] Memory required for data: 675852000
I0504 17:12:57.429590 11234 layer_factory.hpp:77] Creating layer conv1
I0504 17:12:57.429600 11234 net.cpp:86] Creating Layer conv1
I0504 17:12:57.429605 11234 net.cpp:408] conv1 <- pool0
I0504 17:12:57.429627 11234 net.cpp:382] conv1 -> conv1
I0504 17:12:57.432459 11234 net.cpp:124] Setting up conv1
I0504 17:12:57.432472 11234 net.cpp:131] Top shape: 1000 72 18 18 (23328000)
I0504 17:12:57.432492 11234 net.cpp:139] Memory required for data: 769164000
I0504 17:12:57.432499 11234 layer_factory.hpp:77] Creating layer Sigmoid1
I0504 17:12:57.432505 11234 net.cpp:86] Creating Layer Sigmoid1
I0504 17:12:57.432508 11234 net.cpp:408] Sigmoid1 <- conv1
I0504 17:12:57.432513 11234 net.cpp:382] Sigmoid1 -> Sigmoid1
I0504 17:12:57.432667 11234 net.cpp:124] Setting up Sigmoid1
I0504 17:12:57.432677 11234 net.cpp:131] Top shape: 1000 72 18 18 (23328000)
I0504 17:12:57.432680 11234 net.cpp:139] Memory required for data: 862476000
I0504 17:12:57.432700 11234 layer_factory.hpp:77] Creating layer pool1
I0504 17:12:57.432708 11234 net.cpp:86] Creating Layer pool1
I0504 17:12:57.432727 11234 net.cpp:408] pool1 <- Sigmoid1
I0504 17:12:57.432732 11234 net.cpp:382] pool1 -> pool1
I0504 17:12:57.433562 11234 net.cpp:124] Setting up pool1
I0504 17:12:57.433574 11234 net.cpp:131] Top shape: 1000 72 9 9 (5832000)
I0504 17:12:57.433598 11234 net.cpp:139] Memory required for data: 885804000
I0504 17:12:57.433601 11234 layer_factory.hpp:77] Creating layer ip1
I0504 17:12:57.433611 11234 net.cpp:86] Creating Layer ip1
I0504 17:12:57.433615 11234 net.cpp:408] ip1 <- pool1
I0504 17:12:57.433620 11234 net.cpp:382] ip1 -> ip1
I0504 17:12:57.435503 11234 net.cpp:124] Setting up ip1
I0504 17:12:57.435509 11234 net.cpp:131] Top shape: 1000 10 (10000)
I0504 17:12:57.435529 11234 net.cpp:139] Memory required for data: 885844000
I0504 17:12:57.435537 11234 layer_factory.hpp:77] Creating layer relu1
I0504 17:12:57.435544 11234 net.cpp:86] Creating Layer relu1
I0504 17:12:57.435562 11234 net.cpp:408] relu1 <- ip1
I0504 17:12:57.435566 11234 net.cpp:369] relu1 -> ip1 (in-place)
I0504 17:12:57.435734 11234 net.cpp:124] Setting up relu1
I0504 17:12:57.435744 11234 net.cpp:131] Top shape: 1000 10 (10000)
I0504 17:12:57.435746 11234 net.cpp:139] Memory required for data: 885884000
I0504 17:12:57.435750 11234 layer_factory.hpp:77] Creating layer ip2
I0504 17:12:57.435772 11234 net.cpp:86] Creating Layer ip2
I0504 17:12:57.435775 11234 net.cpp:408] ip2 <- ip1
I0504 17:12:57.435781 11234 net.cpp:382] ip2 -> ip2
I0504 17:12:57.435902 11234 net.cpp:124] Setting up ip2
I0504 17:12:57.435909 11234 net.cpp:131] Top shape: 1000 10 (10000)
I0504 17:12:57.435912 11234 net.cpp:139] Memory required for data: 885924000
I0504 17:12:57.435919 11234 layer_factory.hpp:77] Creating layer relu2
I0504 17:12:57.435922 11234 net.cpp:86] Creating Layer relu2
I0504 17:12:57.435926 11234 net.cpp:408] relu2 <- ip2
I0504 17:12:57.435930 11234 net.cpp:369] relu2 -> ip2 (in-place)
I0504 17:12:57.436092 11234 net.cpp:124] Setting up relu2
I0504 17:12:57.436100 11234 net.cpp:131] Top shape: 1000 10 (10000)
I0504 17:12:57.436103 11234 net.cpp:139] Memory required for data: 885964000
I0504 17:12:57.436106 11234 layer_factory.hpp:77] Creating layer ip3
I0504 17:12:57.436112 11234 net.cpp:86] Creating Layer ip3
I0504 17:12:57.436116 11234 net.cpp:408] ip3 <- ip2
I0504 17:12:57.436121 11234 net.cpp:382] ip3 -> ip3
I0504 17:12:57.436218 11234 net.cpp:124] Setting up ip3
I0504 17:12:57.436224 11234 net.cpp:131] Top shape: 1000 10 (10000)
I0504 17:12:57.436239 11234 net.cpp:139] Memory required for data: 886004000
I0504 17:12:57.436246 11234 layer_factory.hpp:77] Creating layer ip3_ip3_0_split
I0504 17:12:57.436252 11234 net.cpp:86] Creating Layer ip3_ip3_0_split
I0504 17:12:57.436255 11234 net.cpp:408] ip3_ip3_0_split <- ip3
I0504 17:12:57.436260 11234 net.cpp:382] ip3_ip3_0_split -> ip3_ip3_0_split_0
I0504 17:12:57.436266 11234 net.cpp:382] ip3_ip3_0_split -> ip3_ip3_0_split_1
I0504 17:12:57.436298 11234 net.cpp:124] Setting up ip3_ip3_0_split
I0504 17:12:57.436309 11234 net.cpp:131] Top shape: 1000 10 (10000)
I0504 17:12:57.436313 11234 net.cpp:131] Top shape: 1000 10 (10000)
I0504 17:12:57.436316 11234 net.cpp:139] Memory required for data: 886084000
I0504 17:12:57.436319 11234 layer_factory.hpp:77] Creating layer accuracy
I0504 17:12:57.436324 11234 net.cpp:86] Creating Layer accuracy
I0504 17:12:57.436327 11234 net.cpp:408] accuracy <- ip3_ip3_0_split_0
I0504 17:12:57.436331 11234 net.cpp:408] accuracy <- label_cifar_1_split_0
I0504 17:12:57.436336 11234 net.cpp:382] accuracy -> accuracy
…
