…
I0504 12:48:57.568598 30290 net.cpp:296] The NetState phase (0) differed from the phase (1) specified by a rule in layer cifar
I0504 12:48:57.568617 30290 net.cpp:296] The NetState phase (0) differed from the phase (1) specified by a rule in layer accuracy
I0504 12:48:57.568720 30290 net.cpp:53] Initializing net from parameters: 
name: "CIFAR"
state {
  phase: TRAIN
  level: 0
  stage: ""
}
layer {
  name: "cifar"
  type: "Data"
  top: "data"
  top: "label"
  include {
    phase: TRAIN
  }
  transform_param {
    mean_file: "examples/cifar10/mean.binaryproto"
  }
  data_param {
    source: "examples/cifar10/cifar10_train_lmdb"
    batch_size: 111
    backend: LMDB
  }
}
layer {
  name: "conv0"
  type: "Convolution"
  bottom: "data"
  top: "conv0"
  param {
    lr_mult: 1
  }
  param {
    lr_mult: 2
  }
  convolution_param {
    num_output: 24
    pad: 2
    kernel_size: 5
    stride: 1
    weight_filler {
      type: "gaussian"
      std: 0.01
    }
    bias_filler {
      type: "constant"
    }
  }
}
layer {
  name: "Sigmoid0"
  type: "Sigmoid"
  bottom: "conv0"
  top: "Sigmoid0"
}
layer {
  name: "pool0"
  type: "Pooling"
  bottom: "Sigmoid0"
  top: "pool0"
  pooling_param {
    pool: AVE
    kernel_size: 3
    stride: 2
  }
}
layer {
  name: "conv1"
  type: "Convolution"
  bottom: "pool0"
  top: "conv1"
  param {
    lr_mult: 1
  }
  param {
    lr_mult: 2
  }
  convolution_param {
    num_output: 216
    pad: 2
    kernel_size: 3
    stride: 1
    weight_filler {
      type: "gaussian"
      std: 0.01
    }
    bias_filler {
      type: "constant"
    }
  }
}
layer {
  name: "Sigmoid1"
  type: "Sigmoid"
  bottom: "conv1"
  top: "Sigmoid1"
}
layer {
  name: "pool1"
  type: "Pooling"
  bottom: "Sigmoid1"
  top: "pool1"
  pooling_param {
    pool: AVE
    kernel_size: 3
    stride: 2
  }
}
layer {
  name: "ip1"
  type: "InnerProduct"
  bottom: "pool1"
  top: "ip1"
  param {
    lr_mult: 1
  }
  param {
    lr_mult: 2
  }
  inner_product_param {
    num_output: 180
    weight_filler {
      type: "gaussian"
      std: 0.01
    }
    bias_filler {
      type: "constant"
    }
  }
}
layer {
  name: "relu1"
  type: "ReLU"
  bottom: "ip1"
  top: "ip1"
}
layer {
  name: "ip2"
  type: "InnerProduct"
  bottom: "ip1"
  top: "ip2"
  param {
    lr_mult: 1
  }
  param {
    lr_mult: 2
  }
  inner_product_param {
    num_output: 10
    weight_filler {
      type: "gaussian"
      std: 0.01
    }
    bias_filler {
      type: "constant"
    }
  }
}
layer {
  name: "loss"
  type: "SoftmaxWithLoss"
  bottom: "ip2"
  bottom: "label"
  top: "loss"
}
I0504 12:48:57.568801 30290 layer_factory.hpp:77] Creating layer cifar
I0504 12:48:57.568909 30290 db_lmdb.cpp:35] Opened lmdb examples/cifar10/cifar10_train_lmdb
I0504 12:48:57.568935 30290 net.cpp:86] Creating Layer cifar
I0504 12:48:57.568945 30290 net.cpp:382] cifar -> data
I0504 12:48:57.568967 30290 net.cpp:382] cifar -> label
I0504 12:48:57.568979 30290 data_transformer.cpp:25] Loading mean file from: examples/cifar10/mean.binaryproto
I0504 12:48:57.571151 30290 data_layer.cpp:45] output data size: 111,3,32,32
I0504 12:48:57.579154 30290 net.cpp:124] Setting up cifar
I0504 12:48:57.579174 30290 net.cpp:131] Top shape: 111 3 32 32 (340992)
I0504 12:48:57.579180 30290 net.cpp:131] Top shape: 111 (111)
I0504 12:48:57.579183 30290 net.cpp:139] Memory required for data: 1364412
I0504 12:48:57.579191 30290 layer_factory.hpp:77] Creating layer conv0
I0504 12:48:57.579210 30290 net.cpp:86] Creating Layer conv0
I0504 12:48:57.579229 30290 net.cpp:408] conv0 <- data
I0504 12:48:57.579244 30290 net.cpp:382] conv0 -> conv0
I0504 12:48:57.856694 30290 net.cpp:124] Setting up conv0
I0504 12:48:57.856751 30290 net.cpp:131] Top shape: 111 24 32 32 (2727936)
I0504 12:48:57.856755 30290 net.cpp:139] Memory required for data: 12276156
I0504 12:48:57.856770 30290 layer_factory.hpp:77] Creating layer Sigmoid0
I0504 12:48:57.856781 30290 net.cpp:86] Creating Layer Sigmoid0
I0504 12:48:57.856786 30290 net.cpp:408] Sigmoid0 <- conv0
I0504 12:48:57.856791 30290 net.cpp:382] Sigmoid0 -> Sigmoid0
I0504 12:48:57.857004 30290 net.cpp:124] Setting up Sigmoid0
I0504 12:48:57.857014 30290 net.cpp:131] Top shape: 111 24 32 32 (2727936)
I0504 12:48:57.857018 30290 net.cpp:139] Memory required for data: 23187900
I0504 12:48:57.857028 30290 layer_factory.hpp:77] Creating layer pool0
I0504 12:48:57.857035 30290 net.cpp:86] Creating Layer pool0
I0504 12:48:57.857039 30290 net.cpp:408] pool0 <- Sigmoid0
I0504 12:48:57.857043 30290 net.cpp:382] pool0 -> pool0
I0504 12:48:57.857818 30290 net.cpp:124] Setting up pool0
I0504 12:48:57.857831 30290 net.cpp:131] Top shape: 111 24 16 16 (681984)
I0504 12:48:57.857851 30290 net.cpp:139] Memory required for data: 25915836
I0504 12:48:57.857854 30290 layer_factory.hpp:77] Creating layer conv1
I0504 12:48:57.857867 30290 net.cpp:86] Creating Layer conv1
I0504 12:48:57.857869 30290 net.cpp:408] conv1 <- pool0
I0504 12:48:57.857875 30290 net.cpp:382] conv1 -> conv1
I0504 12:48:57.861558 30290 net.cpp:124] Setting up conv1
I0504 12:48:57.861588 30290 net.cpp:131] Top shape: 111 216 18 18 (7768224)
I0504 12:48:57.861591 30290 net.cpp:139] Memory required for data: 56988732
I0504 12:48:57.861599 30290 layer_factory.hpp:77] Creating layer Sigmoid1
I0504 12:48:57.861606 30290 net.cpp:86] Creating Layer Sigmoid1
I0504 12:48:57.861609 30290 net.cpp:408] Sigmoid1 <- conv1
I0504 12:48:57.861614 30290 net.cpp:382] Sigmoid1 -> Sigmoid1
I0504 12:48:57.861775 30290 net.cpp:124] Setting up Sigmoid1
I0504 12:48:57.861783 30290 net.cpp:131] Top shape: 111 216 18 18 (7768224)
I0504 12:48:57.861788 30290 net.cpp:139] Memory required for data: 88061628
I0504 12:48:57.861790 30290 layer_factory.hpp:77] Creating layer pool1
I0504 12:48:57.861796 30290 net.cpp:86] Creating Layer pool1
I0504 12:48:57.861799 30290 net.cpp:408] pool1 <- Sigmoid1
I0504 12:48:57.861804 30290 net.cpp:382] pool1 -> pool1
I0504 12:48:57.861973 30290 net.cpp:124] Setting up pool1
I0504 12:48:57.861981 30290 net.cpp:131] Top shape: 111 216 9 9 (1942056)
I0504 12:48:57.861984 30290 net.cpp:139] Memory required for data: 95829852
I0504 12:48:57.861987 30290 layer_factory.hpp:77] Creating layer ip1
I0504 12:48:57.861994 30290 net.cpp:86] Creating Layer ip1
I0504 12:48:57.861999 30290 net.cpp:408] ip1 <- pool1
I0504 12:48:57.862004 30290 net.cpp:382] ip1 -> ip1
I0504 12:48:57.946702 30290 net.cpp:124] Setting up ip1
I0504 12:48:57.946732 30290 net.cpp:131] Top shape: 111 180 (19980)
I0504 12:48:57.946735 30290 net.cpp:139] Memory required for data: 95909772
I0504 12:48:57.946743 30290 layer_factory.hpp:77] Creating layer relu1
I0504 12:48:57.946753 30290 net.cpp:86] Creating Layer relu1
I0504 12:48:57.946755 30290 net.cpp:408] relu1 <- ip1
I0504 12:48:57.946760 30290 net.cpp:369] relu1 -> ip1 (in-place)
I0504 12:48:57.946919 30290 net.cpp:124] Setting up relu1
I0504 12:48:57.946928 30290 net.cpp:131] Top shape: 111 180 (19980)
I0504 12:48:57.946933 30290 net.cpp:139] Memory required for data: 95989692
I0504 12:48:57.946935 30290 layer_factory.hpp:77] Creating layer ip2
I0504 12:48:57.946941 30290 net.cpp:86] Creating Layer ip2
I0504 12:48:57.946944 30290 net.cpp:408] ip2 <- ip1
I0504 12:48:57.946949 30290 net.cpp:382] ip2 -> ip2
I0504 12:48:57.947108 30290 net.cpp:124] Setting up ip2
I0504 12:48:57.947114 30290 net.cpp:131] Top shape: 111 10 (1110)
I0504 12:48:57.947118 30290 net.cpp:139] Memory required for data: 95994132
I0504 12:48:57.947124 30290 layer_factory.hpp:77] Creating layer loss
I0504 12:48:57.947129 30290 net.cpp:86] Creating Layer loss
I0504 12:48:57.947145 30290 net.cpp:408] loss <- ip2
I0504 12:48:57.947149 30290 net.cpp:408] loss <- label
I0504 12:48:57.947155 30290 net.cpp:382] loss -> loss
I0504 12:48:57.947170 30290 layer_factory.hpp:77] Creating layer loss
…
I0504 12:48:57.948405 30290 solver.cpp:173] Creating test net (#0) specified by net file: ECE595/cifar/train_test/var_everything_tiny/cifar_train_test_158.prototxt
I0504 12:48:57.948431 30290 net.cpp:296] The NetState phase (1) differed from the phase (0) specified by a rule in layer cifar
I0504 12:48:57.948532 30290 net.cpp:53] Initializing net from parameters: 
name: "CIFAR"
state {
  phase: TEST
}
layer {
  name: "cifar"
  type: "Data"
  top: "data"
  top: "label"
  include {
    phase: TEST
  }
  transform_param {
    mean_file: "examples/cifar10/mean.binaryproto"
  }
  data_param {
    source: "examples/cifar10/cifar10_test_lmdb"
    batch_size: 1000
    backend: LMDB
  }
}
layer {
  name: "conv0"
  type: "Convolution"
  bottom: "data"
  top: "conv0"
  param {
    lr_mult: 1
  }
  param {
    lr_mult: 2
  }
  convolution_param {
    num_output: 24
    pad: 2
    kernel_size: 5
    stride: 1
    weight_filler {
      type: "gaussian"
      std: 0.01
    }
    bias_filler {
      type: "constant"
    }
  }
}
layer {
  name: "Sigmoid0"
  type: "Sigmoid"
  bottom: "conv0"
  top: "Sigmoid0"
}
layer {
  name: "pool0"
  type: "Pooling"
  bottom: "Sigmoid0"
  top: "pool0"
  pooling_param {
    pool: AVE
    kernel_size: 3
    stride: 2
  }
}
layer {
  name: "conv1"
  type: "Convolution"
  bottom: "pool0"
  top: "conv1"
  param {
    lr_mult: 1
  }
  param {
    lr_mult: 2
  }
  convolution_param {
    num_output: 216
    pad: 2
    kernel_size: 3
    stride: 1
    weight_filler {
      type: "gaussian"
      std: 0.01
    }
    bias_filler {
      type: "constant"
    }
  }
}
layer {
  name: "Sigmoid1"
  type: "Sigmoid"
  bottom: "conv1"
  top: "Sigmoid1"
}
layer {
  name: "pool1"
  type: "Pooling"
  bottom: "Sigmoid1"
  top: "pool1"
  pooling_param {
    pool: AVE
    kernel_size: 3
    stride: 2
  }
}
layer {
  name: "ip1"
  type: "InnerProduct"
  bottom: "pool1"
  top: "ip1"
  param {
    lr_mult: 1
  }
  param {
    lr_mult: 2
  }
  inner_product_param {
    num_output: 180
    weight_filler {
      type: "gaussian"
      std: 0.01
    }
    bias_filler {
      type: "constant"
    }
  }
}
layer {
  name: "relu1"
  type: "ReLU"
  bottom: "ip1"
  top: "ip1"
}
layer {
  name: "ip2"
  type: "InnerProduct"
  bottom: "ip1"
  top: "ip2"
  param {
    lr_mult: 1
  }
  param {
    lr_mult: 2
  }
  inner_product_param {
    num_output: 10
    weight_filler {
      type: "gaussian"
      std: 0.01
    }
    bias_filler {
      type: "constant"
    }
  }
}
layer {
  name: "accuracy"
  type: "Accuracy"
  bottom: "ip2"
  bottom: "label"
  top: "accuracy"
  include {
    phase: TEST
  }
}
layer {
  name: "loss"
  type: "SoftmaxWithLoss"
  bottom: "ip2"
  bottom: "label"
  top: "loss"
}
I0504 12:48:57.948606 30290 layer_factory.hpp:77] Creating layer cifar
I0504 12:48:57.948648 30290 db_lmdb.cpp:35] Opened lmdb examples/cifar10/cifar10_test_lmdb
I0504 12:48:57.948659 30290 net.cpp:86] Creating Layer cifar
I0504 12:48:57.948663 30290 net.cpp:382] cifar -> data
I0504 12:48:57.948670 30290 net.cpp:382] cifar -> label
I0504 12:48:57.948676 30290 data_transformer.cpp:25] Loading mean file from: examples/cifar10/mean.binaryproto
I0504 12:48:57.948807 30290 data_layer.cpp:45] output data size: 1000,3,32,32
I0504 12:48:57.971856 30290 net.cpp:124] Setting up cifar
I0504 12:48:57.971913 30290 net.cpp:131] Top shape: 1000 3 32 32 (3072000)
I0504 12:48:57.971920 30290 net.cpp:131] Top shape: 1000 (1000)
I0504 12:48:57.971923 30290 net.cpp:139] Memory required for data: 12292000
I0504 12:48:57.971931 30290 layer_factory.hpp:77] Creating layer label_cifar_1_split
I0504 12:48:57.971943 30290 net.cpp:86] Creating Layer label_cifar_1_split
I0504 12:48:57.971947 30290 net.cpp:408] label_cifar_1_split <- label
I0504 12:48:57.971953 30290 net.cpp:382] label_cifar_1_split -> label_cifar_1_split_0
I0504 12:48:57.971962 30290 net.cpp:382] label_cifar_1_split -> label_cifar_1_split_1
I0504 12:48:57.972081 30290 net.cpp:124] Setting up label_cifar_1_split
I0504 12:48:57.972090 30290 net.cpp:131] Top shape: 1000 (1000)
I0504 12:48:57.972093 30290 net.cpp:131] Top shape: 1000 (1000)
I0504 12:48:57.972096 30290 net.cpp:139] Memory required for data: 12300000
I0504 12:48:57.972100 30290 layer_factory.hpp:77] Creating layer conv0
I0504 12:48:57.972112 30290 net.cpp:86] Creating Layer conv0
I0504 12:48:57.972115 30290 net.cpp:408] conv0 <- data
I0504 12:48:57.972121 30290 net.cpp:382] conv0 -> conv0
I0504 12:48:57.973109 30290 net.cpp:124] Setting up conv0
I0504 12:48:57.973140 30290 net.cpp:131] Top shape: 1000 24 32 32 (24576000)
I0504 12:48:57.973143 30290 net.cpp:139] Memory required for data: 110604000
I0504 12:48:57.973153 30290 layer_factory.hpp:77] Creating layer Sigmoid0
I0504 12:48:57.973161 30290 net.cpp:86] Creating Layer Sigmoid0
I0504 12:48:57.973165 30290 net.cpp:408] Sigmoid0 <- conv0
I0504 12:48:57.973170 30290 net.cpp:382] Sigmoid0 -> Sigmoid0
I0504 12:48:57.975049 30290 net.cpp:124] Setting up Sigmoid0
I0504 12:48:57.975077 30290 net.cpp:131] Top shape: 1000 24 32 32 (24576000)
I0504 12:48:57.975081 30290 net.cpp:139] Memory required for data: 208908000
I0504 12:48:57.975085 30290 layer_factory.hpp:77] Creating layer pool0
I0504 12:48:57.975095 30290 net.cpp:86] Creating Layer pool0
I0504 12:48:57.975097 30290 net.cpp:408] pool0 <- Sigmoid0
I0504 12:48:57.975102 30290 net.cpp:382] pool0 -> pool0
I0504 12:48:57.975281 30290 net.cpp:124] Setting up pool0
I0504 12:48:57.975291 30290 net.cpp:131] Top shape: 1000 24 16 16 (6144000)
I0504 12:48:57.975294 30290 net.cpp:139] Memory required for data: 233484000
I0504 12:48:57.975297 30290 layer_factory.hpp:77] Creating layer conv1
I0504 12:48:57.975306 30290 net.cpp:86] Creating Layer conv1
I0504 12:48:57.975311 30290 net.cpp:408] conv1 <- pool0
I0504 12:48:57.975316 30290 net.cpp:382] conv1 -> conv1
I0504 12:48:57.977970 30290 net.cpp:124] Setting up conv1
I0504 12:48:57.977983 30290 net.cpp:131] Top shape: 1000 216 18 18 (69984000)
I0504 12:48:57.978003 30290 net.cpp:139] Memory required for data: 513420000
I0504 12:48:57.978011 30290 layer_factory.hpp:77] Creating layer Sigmoid1
I0504 12:48:57.978018 30290 net.cpp:86] Creating Layer Sigmoid1
I0504 12:48:57.978020 30290 net.cpp:408] Sigmoid1 <- conv1
I0504 12:48:57.978026 30290 net.cpp:382] Sigmoid1 -> Sigmoid1
I0504 12:48:57.978196 30290 net.cpp:124] Setting up Sigmoid1
I0504 12:48:57.978206 30290 net.cpp:131] Top shape: 1000 216 18 18 (69984000)
I0504 12:48:57.978209 30290 net.cpp:139] Memory required for data: 793356000
I0504 12:48:57.978212 30290 layer_factory.hpp:77] Creating layer pool1
I0504 12:48:57.978219 30290 net.cpp:86] Creating Layer pool1
I0504 12:48:57.978222 30290 net.cpp:408] pool1 <- Sigmoid1
I0504 12:48:57.978240 30290 net.cpp:382] pool1 -> pool1
I0504 12:48:57.978411 30290 net.cpp:124] Setting up pool1
I0504 12:48:57.978420 30290 net.cpp:131] Top shape: 1000 216 9 9 (17496000)
I0504 12:48:57.978423 30290 net.cpp:139] Memory required for data: 863340000
I0504 12:48:57.978428 30290 layer_factory.hpp:77] Creating layer ip1
I0504 12:48:57.978437 30290 net.cpp:86] Creating Layer ip1
I0504 12:48:57.978440 30290 net.cpp:408] ip1 <- pool1
I0504 12:48:57.978448 30290 net.cpp:382] ip1 -> ip1
I0504 12:48:58.065250 30290 net.cpp:124] Setting up ip1
I0504 12:48:58.065289 30290 net.cpp:131] Top shape: 1000 180 (180000)
I0504 12:48:58.065292 30290 net.cpp:139] Memory required for data: 864060000
I0504 12:48:58.065304 30290 layer_factory.hpp:77] Creating layer relu1
I0504 12:48:58.065316 30290 net.cpp:86] Creating Layer relu1
I0504 12:48:58.065320 30290 net.cpp:408] relu1 <- ip1
I0504 12:48:58.065326 30290 net.cpp:369] relu1 -> ip1 (in-place)
I0504 12:48:58.066249 30290 net.cpp:124] Setting up relu1
I0504 12:48:58.066262 30290 net.cpp:131] Top shape: 1000 180 (180000)
I0504 12:48:58.066280 30290 net.cpp:139] Memory required for data: 864780000
I0504 12:48:58.066284 30290 layer_factory.hpp:77] Creating layer ip2
I0504 12:48:58.066308 30290 net.cpp:86] Creating Layer ip2
I0504 12:48:58.066310 30290 net.cpp:408] ip2 <- ip1
I0504 12:48:58.066318 30290 net.cpp:382] ip2 -> ip2
I0504 12:48:58.066483 30290 net.cpp:124] Setting up ip2
I0504 12:48:58.066490 30290 net.cpp:131] Top shape: 1000 10 (10000)
I0504 12:48:58.066493 30290 net.cpp:139] Memory required for data: 864820000
I0504 12:48:58.066498 30290 layer_factory.hpp:77] Creating layer ip2_ip2_0_split
I0504 12:48:58.066504 30290 net.cpp:86] Creating Layer ip2_ip2_0_split
I0504 12:48:58.066507 30290 net.cpp:408] ip2_ip2_0_split <- ip2
I0504 12:48:58.066514 30290 net.cpp:382] ip2_ip2_0_split -> ip2_ip2_0_split_0
I0504 12:48:58.066519 30290 net.cpp:382] ip2_ip2_0_split -> ip2_ip2_0_split_1
I0504 12:48:58.066550 30290 net.cpp:124] Setting up ip2_ip2_0_split
I0504 12:48:58.066555 30290 net.cpp:131] Top shape: 1000 10 (10000)
I0504 12:48:58.066557 30290 net.cpp:131] Top shape: 1000 10 (10000)
I0504 12:48:58.066560 30290 net.cpp:139] Memory required for data: 864900000
I0504 12:48:58.066563 30290 layer_factory.hpp:77] Creating layer accuracy
I0504 12:48:58.066570 30290 net.cpp:86] Creating Layer accuracy
I0504 12:48:58.066573 30290 net.cpp:408] accuracy <- ip2_ip2_0_split_0
I0504 12:48:58.066577 30290 net.cpp:408] accuracy <- label_cifar_1_split_0
I0504 12:48:58.066582 30290 net.cpp:382] accuracy -> accuracy
…
