…
I0504 01:07:36.841287  6763 net.cpp:296] The NetState phase (0) differed from the phase (1) specified by a rule in layer cifar
I0504 01:07:36.841305  6763 net.cpp:296] The NetState phase (0) differed from the phase (1) specified by a rule in layer accuracy
I0504 01:07:36.841397  6763 net.cpp:53] Initializing net from parameters: 
name: "CIFAR"
state {
  phase: TRAIN
  level: 0
  stage: ""
}
layer {
  name: "cifar"
  type: "Data"
  top: "data"
  top: "label"
  include {
    phase: TRAIN
  }
  transform_param {
    mean_file: "examples/cifar10/mean.binaryproto"
  }
  data_param {
    source: "examples/cifar10/cifar10_train_lmdb"
    batch_size: 111
    backend: LMDB
  }
}
layer {
  name: "conv0"
  type: "Convolution"
  bottom: "data"
  top: "conv0"
  param {
    lr_mult: 1
  }
  param {
    lr_mult: 2
  }
  convolution_param {
    num_output: 72
    pad: 2
    kernel_size: 3
    stride: 1
    weight_filler {
      type: "gaussian"
      std: 0.01
    }
    bias_filler {
      type: "constant"
    }
  }
}
layer {
  name: "Sigmoid0"
  type: "Sigmoid"
  bottom: "conv0"
  top: "Sigmoid0"
}
layer {
  name: "pool0"
  type: "Pooling"
  bottom: "Sigmoid0"
  top: "pool0"
  pooling_param {
    pool: AVE
    kernel_size: 3
    stride: 2
  }
}
layer {
  name: "ip1"
  type: "InnerProduct"
  bottom: "pool0"
  top: "ip1"
  param {
    lr_mult: 1
  }
  param {
    lr_mult: 2
  }
  inner_product_param {
    num_output: 60
    weight_filler {
      type: "gaussian"
      std: 0.01
    }
    bias_filler {
      type: "constant"
    }
  }
}
layer {
  name: "relu1"
  type: "ReLU"
  bottom: "ip1"
  top: "ip1"
}
layer {
  name: "ip2"
  type: "InnerProduct"
  bottom: "ip1"
  top: "ip2"
  param {
    lr_mult: 1
  }
  param {
    lr_mult: 2
  }
  inner_product_param {
    num_output: 10
    weight_filler {
      type: "gaussian"
      std: 0.01
    }
    bias_filler {
      type: "constant"
    }
  }
}
layer {
  name: "relu2"
  type: "ReLU"
  bottom: "ip2"
  top: "ip2"
}
layer {
  name: "ip3"
  type: "InnerProduct"
  bottom: "ip2"
  top: "ip3"
  param {
    lr_mult: 1
  }
  param {
    lr_mult: 2
  }
  inner_product_param {
    num_output: 10
    weight_filler {
      type: "gaussian"
      std: 0.01
    }
    bias_filler {
      type: "constant"
    }
  }
}
layer {
  name: "loss"
  type: "SoftmaxWithLoss"
  bottom: "ip3"
  bottom: "label"
  top: "loss"
}
I0504 01:07:36.841470  6763 layer_factory.hpp:77] Creating layer cifar
I0504 01:07:36.841573  6763 db_lmdb.cpp:35] Opened lmdb examples/cifar10/cifar10_train_lmdb
I0504 01:07:36.841598  6763 net.cpp:86] Creating Layer cifar
I0504 01:07:36.841608  6763 net.cpp:382] cifar -> data
I0504 01:07:36.841630  6763 net.cpp:382] cifar -> label
I0504 01:07:36.841641  6763 data_transformer.cpp:25] Loading mean file from: examples/cifar10/mean.binaryproto
I0504 01:07:36.843746  6763 data_layer.cpp:45] output data size: 111,3,32,32
I0504 01:07:36.851601  6763 net.cpp:124] Setting up cifar
I0504 01:07:36.851620  6763 net.cpp:131] Top shape: 111 3 32 32 (340992)
I0504 01:07:36.851626  6763 net.cpp:131] Top shape: 111 (111)
I0504 01:07:36.851629  6763 net.cpp:139] Memory required for data: 1364412
I0504 01:07:36.851637  6763 layer_factory.hpp:77] Creating layer conv0
I0504 01:07:36.851656  6763 net.cpp:86] Creating Layer conv0
I0504 01:07:36.851661  6763 net.cpp:408] conv0 <- data
I0504 01:07:36.851675  6763 net.cpp:382] conv0 -> conv0
I0504 01:07:37.148159  6763 net.cpp:124] Setting up conv0
I0504 01:07:37.148208  6763 net.cpp:131] Top shape: 111 72 34 34 (9238752)
I0504 01:07:37.148213  6763 net.cpp:139] Memory required for data: 38319420
I0504 01:07:37.148231  6763 layer_factory.hpp:77] Creating layer Sigmoid0
I0504 01:07:37.148243  6763 net.cpp:86] Creating Layer Sigmoid0
I0504 01:07:37.148248  6763 net.cpp:408] Sigmoid0 <- conv0
I0504 01:07:37.148254  6763 net.cpp:382] Sigmoid0 -> Sigmoid0
I0504 01:07:37.148439  6763 net.cpp:124] Setting up Sigmoid0
I0504 01:07:37.148450  6763 net.cpp:131] Top shape: 111 72 34 34 (9238752)
I0504 01:07:37.148453  6763 net.cpp:139] Memory required for data: 75274428
I0504 01:07:37.148458  6763 layer_factory.hpp:77] Creating layer pool0
I0504 01:07:37.148464  6763 net.cpp:86] Creating Layer pool0
I0504 01:07:37.148468  6763 net.cpp:408] pool0 <- Sigmoid0
I0504 01:07:37.148473  6763 net.cpp:382] pool0 -> pool0
I0504 01:07:37.149266  6763 net.cpp:124] Setting up pool0
I0504 01:07:37.149279  6763 net.cpp:131] Top shape: 111 72 17 17 (2309688)
I0504 01:07:37.149282  6763 net.cpp:139] Memory required for data: 84513180
I0504 01:07:37.149286  6763 layer_factory.hpp:77] Creating layer ip1
I0504 01:07:37.149296  6763 net.cpp:86] Creating Layer ip1
I0504 01:07:37.149299  6763 net.cpp:408] ip1 <- pool0
I0504 01:07:37.149304  6763 net.cpp:382] ip1 -> ip1
I0504 01:07:37.184301  6763 net.cpp:124] Setting up ip1
I0504 01:07:37.184314  6763 net.cpp:131] Top shape: 111 60 (6660)
I0504 01:07:37.184317  6763 net.cpp:139] Memory required for data: 84539820
I0504 01:07:37.184325  6763 layer_factory.hpp:77] Creating layer relu1
I0504 01:07:37.184331  6763 net.cpp:86] Creating Layer relu1
I0504 01:07:37.184334  6763 net.cpp:408] relu1 <- ip1
I0504 01:07:37.184339  6763 net.cpp:369] relu1 -> ip1 (in-place)
I0504 01:07:37.184507  6763 net.cpp:124] Setting up relu1
I0504 01:07:37.184516  6763 net.cpp:131] Top shape: 111 60 (6660)
I0504 01:07:37.184520  6763 net.cpp:139] Memory required for data: 84566460
I0504 01:07:37.184522  6763 layer_factory.hpp:77] Creating layer ip2
I0504 01:07:37.184530  6763 net.cpp:86] Creating Layer ip2
I0504 01:07:37.184532  6763 net.cpp:408] ip2 <- ip1
I0504 01:07:37.184537  6763 net.cpp:382] ip2 -> ip2
I0504 01:07:37.185611  6763 net.cpp:124] Setting up ip2
I0504 01:07:37.185621  6763 net.cpp:131] Top shape: 111 10 (1110)
I0504 01:07:37.185624  6763 net.cpp:139] Memory required for data: 84570900
I0504 01:07:37.185632  6763 layer_factory.hpp:77] Creating layer relu2
I0504 01:07:37.185637  6763 net.cpp:86] Creating Layer relu2
I0504 01:07:37.185641  6763 net.cpp:408] relu2 <- ip2
I0504 01:07:37.185645  6763 net.cpp:369] relu2 -> ip2 (in-place)
I0504 01:07:37.185814  6763 net.cpp:124] Setting up relu2
I0504 01:07:37.185823  6763 net.cpp:131] Top shape: 111 10 (1110)
I0504 01:07:37.185827  6763 net.cpp:139] Memory required for data: 84575340
I0504 01:07:37.185829  6763 layer_factory.hpp:77] Creating layer ip3
I0504 01:07:37.185837  6763 net.cpp:86] Creating Layer ip3
I0504 01:07:37.185839  6763 net.cpp:408] ip3 <- ip2
I0504 01:07:37.185844  6763 net.cpp:382] ip3 -> ip3
I0504 01:07:37.185936  6763 net.cpp:124] Setting up ip3
I0504 01:07:37.185942  6763 net.cpp:131] Top shape: 111 10 (1110)
I0504 01:07:37.185945  6763 net.cpp:139] Memory required for data: 84579780
I0504 01:07:37.185950  6763 layer_factory.hpp:77] Creating layer loss
I0504 01:07:37.185956  6763 net.cpp:86] Creating Layer loss
I0504 01:07:37.185959  6763 net.cpp:408] loss <- ip3
I0504 01:07:37.185962  6763 net.cpp:408] loss <- label
I0504 01:07:37.185967  6763 net.cpp:382] loss -> loss
I0504 01:07:37.185981  6763 layer_factory.hpp:77] Creating layer loss
…
I0504 01:07:37.186600  6763 solver.cpp:173] Creating test net (#0) specified by net file: ECE595/cifar/train_test/var_everything_tiny/cifar_train_test_30.prototxt
I0504 01:07:37.186626  6763 net.cpp:296] The NetState phase (1) differed from the phase (0) specified by a rule in layer cifar
I0504 01:07:37.186709  6763 net.cpp:53] Initializing net from parameters: 
name: "CIFAR"
state {
  phase: TEST
}
layer {
  name: "cifar"
  type: "Data"
  top: "data"
  top: "label"
  include {
    phase: TEST
  }
  transform_param {
    mean_file: "examples/cifar10/mean.binaryproto"
  }
  data_param {
    source: "examples/cifar10/cifar10_test_lmdb"
    batch_size: 1000
    backend: LMDB
  }
}
layer {
  name: "conv0"
  type: "Convolution"
  bottom: "data"
  top: "conv0"
  param {
    lr_mult: 1
  }
  param {
    lr_mult: 2
  }
  convolution_param {
    num_output: 72
    pad: 2
    kernel_size: 3
    stride: 1
    weight_filler {
      type: "gaussian"
      std: 0.01
    }
    bias_filler {
      type: "constant"
    }
  }
}
layer {
  name: "Sigmoid0"
  type: "Sigmoid"
  bottom: "conv0"
  top: "Sigmoid0"
}
layer {
  name: "pool0"
  type: "Pooling"
  bottom: "Sigmoid0"
  top: "pool0"
  pooling_param {
    pool: AVE
    kernel_size: 3
    stride: 2
  }
}
layer {
  name: "ip1"
  type: "InnerProduct"
  bottom: "pool0"
  top: "ip1"
  param {
    lr_mult: 1
  }
  param {
    lr_mult: 2
  }
  inner_product_param {
    num_output: 60
    weight_filler {
      type: "gaussian"
      std: 0.01
    }
    bias_filler {
      type: "constant"
    }
  }
}
layer {
  name: "relu1"
  type: "ReLU"
  bottom: "ip1"
  top: "ip1"
}
layer {
  name: "ip2"
  type: "InnerProduct"
  bottom: "ip1"
  top: "ip2"
  param {
    lr_mult: 1
  }
  param {
    lr_mult: 2
  }
  inner_product_param {
    num_output: 10
    weight_filler {
      type: "gaussian"
      std: 0.01
    }
    bias_filler {
      type: "constant"
    }
  }
}
layer {
  name: "relu2"
  type: "ReLU"
  bottom: "ip2"
  top: "ip2"
}
layer {
  name: "ip3"
  type: "InnerProduct"
  bottom: "ip2"
  top: "ip3"
  param {
    lr_mult: 1
  }
  param {
    lr_mult: 2
  }
  inner_product_param {
    num_output: 10
    weight_filler {
      type: "gaussian"
      std: 0.01
    }
    bias_filler {
      type: "constant"
    }
  }
}
layer {
  name: "accuracy"
  type: "Accuracy"
  bottom: "ip3"
  bottom: "label"
  top: "accuracy"
  include {
    phase: TEST
  }
}
layer {
  name: "loss"
  type: "SoftmaxWithLoss"
  bottom: "ip3"
  bottom: "label"
  top: "loss"
}
I0504 01:07:37.186770  6763 layer_factory.hpp:77] Creating layer cifar
I0504 01:07:37.186816  6763 db_lmdb.cpp:35] Opened lmdb examples/cifar10/cifar10_test_lmdb
I0504 01:07:37.186827  6763 net.cpp:86] Creating Layer cifar
I0504 01:07:37.186831  6763 net.cpp:382] cifar -> data
I0504 01:07:37.186838  6763 net.cpp:382] cifar -> label
I0504 01:07:37.186846  6763 data_transformer.cpp:25] Loading mean file from: examples/cifar10/mean.binaryproto
I0504 01:07:37.186980  6763 data_layer.cpp:45] output data size: 1000,3,32,32
I0504 01:07:37.209123  6763 net.cpp:124] Setting up cifar
I0504 01:07:37.209177  6763 net.cpp:131] Top shape: 1000 3 32 32 (3072000)
I0504 01:07:37.209183  6763 net.cpp:131] Top shape: 1000 (1000)
I0504 01:07:37.209187  6763 net.cpp:139] Memory required for data: 12292000
I0504 01:07:37.209192  6763 layer_factory.hpp:77] Creating layer label_cifar_1_split
I0504 01:07:37.209205  6763 net.cpp:86] Creating Layer label_cifar_1_split
I0504 01:07:37.209241  6763 net.cpp:408] label_cifar_1_split <- label
I0504 01:07:37.209264  6763 net.cpp:382] label_cifar_1_split -> label_cifar_1_split_0
I0504 01:07:37.209272  6763 net.cpp:382] label_cifar_1_split -> label_cifar_1_split_1
I0504 01:07:37.209342  6763 net.cpp:124] Setting up label_cifar_1_split
I0504 01:07:37.209348  6763 net.cpp:131] Top shape: 1000 (1000)
I0504 01:07:37.209352  6763 net.cpp:131] Top shape: 1000 (1000)
I0504 01:07:37.209355  6763 net.cpp:139] Memory required for data: 12300000
I0504 01:07:37.209358  6763 layer_factory.hpp:77] Creating layer conv0
I0504 01:07:37.209370  6763 net.cpp:86] Creating Layer conv0
I0504 01:07:37.209373  6763 net.cpp:408] conv0 <- data
I0504 01:07:37.209378  6763 net.cpp:382] conv0 -> conv0
I0504 01:07:37.211009  6763 net.cpp:124] Setting up conv0
I0504 01:07:37.211024  6763 net.cpp:131] Top shape: 1000 72 34 34 (83232000)
I0504 01:07:37.211026  6763 net.cpp:139] Memory required for data: 345228000
I0504 01:07:37.211036  6763 layer_factory.hpp:77] Creating layer Sigmoid0
I0504 01:07:37.211058  6763 net.cpp:86] Creating Layer Sigmoid0
I0504 01:07:37.211061  6763 net.cpp:408] Sigmoid0 <- conv0
I0504 01:07:37.211066  6763 net.cpp:382] Sigmoid0 -> Sigmoid0
I0504 01:07:37.211915  6763 net.cpp:124] Setting up Sigmoid0
I0504 01:07:37.211927  6763 net.cpp:131] Top shape: 1000 72 34 34 (83232000)
I0504 01:07:37.211931  6763 net.cpp:139] Memory required for data: 678156000
I0504 01:07:37.211935  6763 layer_factory.hpp:77] Creating layer pool0
I0504 01:07:37.211942  6763 net.cpp:86] Creating Layer pool0
I0504 01:07:37.211961  6763 net.cpp:408] pool0 <- Sigmoid0
I0504 01:07:37.211966  6763 net.cpp:382] pool0 -> pool0
I0504 01:07:37.213109  6763 net.cpp:124] Setting up pool0
I0504 01:07:37.213119  6763 net.cpp:131] Top shape: 1000 72 17 17 (20808000)
I0504 01:07:37.213122  6763 net.cpp:139] Memory required for data: 761388000
I0504 01:07:37.213136  6763 layer_factory.hpp:77] Creating layer ip1
I0504 01:07:37.213158  6763 net.cpp:86] Creating Layer ip1
I0504 01:07:37.213161  6763 net.cpp:408] ip1 <- pool0
I0504 01:07:37.213166  6763 net.cpp:382] ip1 -> ip1
I0504 01:07:37.248160  6763 net.cpp:124] Setting up ip1
I0504 01:07:37.248179  6763 net.cpp:131] Top shape: 1000 60 (60000)
I0504 01:07:37.248183  6763 net.cpp:139] Memory required for data: 761628000
I0504 01:07:37.248193  6763 layer_factory.hpp:77] Creating layer relu1
I0504 01:07:37.248200  6763 net.cpp:86] Creating Layer relu1
I0504 01:07:37.248220  6763 net.cpp:408] relu1 <- ip1
I0504 01:07:37.248226  6763 net.cpp:369] relu1 -> ip1 (in-place)
I0504 01:07:37.248404  6763 net.cpp:124] Setting up relu1
I0504 01:07:37.248412  6763 net.cpp:131] Top shape: 1000 60 (60000)
I0504 01:07:37.248415  6763 net.cpp:139] Memory required for data: 761868000
I0504 01:07:37.248419  6763 layer_factory.hpp:77] Creating layer ip2
I0504 01:07:37.248426  6763 net.cpp:86] Creating Layer ip2
I0504 01:07:37.248430  6763 net.cpp:408] ip2 <- ip1
I0504 01:07:37.248435  6763 net.cpp:382] ip2 -> ip2
I0504 01:07:37.248553  6763 net.cpp:124] Setting up ip2
I0504 01:07:37.248559  6763 net.cpp:131] Top shape: 1000 10 (10000)
I0504 01:07:37.248579  6763 net.cpp:139] Memory required for data: 761908000
I0504 01:07:37.248585  6763 layer_factory.hpp:77] Creating layer relu2
I0504 01:07:37.248591  6763 net.cpp:86] Creating Layer relu2
I0504 01:07:37.248594  6763 net.cpp:408] relu2 <- ip2
I0504 01:07:37.248598  6763 net.cpp:369] relu2 -> ip2 (in-place)
I0504 01:07:37.248752  6763 net.cpp:124] Setting up relu2
I0504 01:07:37.248760  6763 net.cpp:131] Top shape: 1000 10 (10000)
I0504 01:07:37.248764  6763 net.cpp:139] Memory required for data: 761948000
I0504 01:07:37.248766  6763 layer_factory.hpp:77] Creating layer ip3
I0504 01:07:37.248772  6763 net.cpp:86] Creating Layer ip3
I0504 01:07:37.248775  6763 net.cpp:408] ip3 <- ip2
I0504 01:07:37.248780  6763 net.cpp:382] ip3 -> ip3
I0504 01:07:37.248955  6763 net.cpp:124] Setting up ip3
I0504 01:07:37.248963  6763 net.cpp:131] Top shape: 1000 10 (10000)
I0504 01:07:37.248981  6763 net.cpp:139] Memory required for data: 761988000
I0504 01:07:37.248987  6763 layer_factory.hpp:77] Creating layer ip3_ip3_0_split
I0504 01:07:37.248993  6763 net.cpp:86] Creating Layer ip3_ip3_0_split
I0504 01:07:37.248997  6763 net.cpp:408] ip3_ip3_0_split <- ip3
I0504 01:07:37.249001  6763 net.cpp:382] ip3_ip3_0_split -> ip3_ip3_0_split_0
I0504 01:07:37.249008  6763 net.cpp:382] ip3_ip3_0_split -> ip3_ip3_0_split_1
I0504 01:07:37.249043  6763 net.cpp:124] Setting up ip3_ip3_0_split
I0504 01:07:37.249048  6763 net.cpp:131] Top shape: 1000 10 (10000)
I0504 01:07:37.249052  6763 net.cpp:131] Top shape: 1000 10 (10000)
I0504 01:07:37.249054  6763 net.cpp:139] Memory required for data: 762068000
I0504 01:07:37.249058  6763 layer_factory.hpp:77] Creating layer accuracy
I0504 01:07:37.249063  6763 net.cpp:86] Creating Layer accuracy
I0504 01:07:37.249068  6763 net.cpp:408] accuracy <- ip3_ip3_0_split_0
I0504 01:07:37.249071  6763 net.cpp:408] accuracy <- label_cifar_1_split_0
I0504 01:07:37.249075  6763 net.cpp:382] accuracy -> accuracy
…
