…
I0504 08:51:40.214149 22565 net.cpp:296] The NetState phase (0) differed from the phase (1) specified by a rule in layer cifar
I0504 08:51:40.214169 22565 net.cpp:296] The NetState phase (0) differed from the phase (1) specified by a rule in layer accuracy
I0504 08:51:40.214267 22565 net.cpp:53] Initializing net from parameters: 
name: "CIFAR"
state {
  phase: TRAIN
  level: 0
  stage: ""
}
layer {
  name: "cifar"
  type: "Data"
  top: "data"
  top: "label"
  include {
    phase: TRAIN
  }
  transform_param {
    mean_file: "examples/cifar10/mean.binaryproto"
  }
  data_param {
    source: "examples/cifar10/cifar10_train_lmdb"
    batch_size: 111
    backend: LMDB
  }
}
layer {
  name: "conv0"
  type: "Convolution"
  bottom: "data"
  top: "conv0"
  param {
    lr_mult: 1
  }
  param {
    lr_mult: 2
  }
  convolution_param {
    num_output: 24
    pad: 2
    kernel_size: 3
    stride: 1
    weight_filler {
      type: "gaussian"
      std: 0.01
    }
    bias_filler {
      type: "constant"
    }
  }
}
layer {
  name: "Sigmoid0"
  type: "Sigmoid"
  bottom: "conv0"
  top: "Sigmoid0"
}
layer {
  name: "pool0"
  type: "Pooling"
  bottom: "Sigmoid0"
  top: "pool0"
  pooling_param {
    pool: AVE
    kernel_size: 3
    stride: 2
  }
}
layer {
  name: "conv1"
  type: "Convolution"
  bottom: "pool0"
  top: "conv1"
  param {
    lr_mult: 1
  }
  param {
    lr_mult: 2
  }
  convolution_param {
    num_output: 72
    pad: 2
    kernel_size: 3
    stride: 1
    weight_filler {
      type: "gaussian"
      std: 0.01
    }
    bias_filler {
      type: "constant"
    }
  }
}
layer {
  name: "Sigmoid1"
  type: "Sigmoid"
  bottom: "conv1"
  top: "Sigmoid1"
}
layer {
  name: "pool1"
  type: "Pooling"
  bottom: "Sigmoid1"
  top: "pool1"
  pooling_param {
    pool: AVE
    kernel_size: 3
    stride: 2
  }
}
layer {
  name: "ip1"
  type: "InnerProduct"
  bottom: "pool1"
  top: "ip1"
  param {
    lr_mult: 1
  }
  param {
    lr_mult: 2
  }
  inner_product_param {
    num_output: 180
    weight_filler {
      type: "gaussian"
      std: 0.01
    }
    bias_filler {
      type: "constant"
    }
  }
}
layer {
  name: "relu1"
  type: "ReLU"
  bottom: "ip1"
  top: "ip1"
}
layer {
  name: "ip2"
  type: "InnerProduct"
  bottom: "ip1"
  top: "ip2"
  param {
    lr_mult: 1
  }
  param {
    lr_mult: 2
  }
  inner_product_param {
    num_output: 10
    weight_filler {
      type: "gaussian"
      std: 0.01
    }
    bias_filler {
      type: "constant"
    }
  }
}
layer {
  name: "loss"
  type: "SoftmaxWithLoss"
  bottom: "ip2"
  bottom: "label"
  top: "loss"
}
I0504 08:51:40.214341 22565 layer_factory.hpp:77] Creating layer cifar
I0504 08:51:40.214438 22565 db_lmdb.cpp:35] Opened lmdb examples/cifar10/cifar10_train_lmdb
I0504 08:51:40.214465 22565 net.cpp:86] Creating Layer cifar
I0504 08:51:40.214473 22565 net.cpp:382] cifar -> data
I0504 08:51:40.214493 22565 net.cpp:382] cifar -> label
I0504 08:51:40.214505 22565 data_transformer.cpp:25] Loading mean file from: examples/cifar10/mean.binaryproto
I0504 08:51:40.216629 22565 data_layer.cpp:45] output data size: 111,3,32,32
I0504 08:51:40.224447 22565 net.cpp:124] Setting up cifar
I0504 08:51:40.224464 22565 net.cpp:131] Top shape: 111 3 32 32 (340992)
I0504 08:51:40.224472 22565 net.cpp:131] Top shape: 111 (111)
I0504 08:51:40.224474 22565 net.cpp:139] Memory required for data: 1364412
I0504 08:51:40.224483 22565 layer_factory.hpp:77] Creating layer conv0
I0504 08:51:40.224512 22565 net.cpp:86] Creating Layer conv0
I0504 08:51:40.224541 22565 net.cpp:408] conv0 <- data
I0504 08:51:40.224555 22565 net.cpp:382] conv0 -> conv0
I0504 08:51:40.479761 22565 net.cpp:124] Setting up conv0
I0504 08:51:40.479789 22565 net.cpp:131] Top shape: 111 24 34 34 (3079584)
I0504 08:51:40.479792 22565 net.cpp:139] Memory required for data: 13682748
I0504 08:51:40.479809 22565 layer_factory.hpp:77] Creating layer Sigmoid0
I0504 08:51:40.479820 22565 net.cpp:86] Creating Layer Sigmoid0
I0504 08:51:40.479825 22565 net.cpp:408] Sigmoid0 <- conv0
I0504 08:51:40.479830 22565 net.cpp:382] Sigmoid0 -> Sigmoid0
I0504 08:51:40.480015 22565 net.cpp:124] Setting up Sigmoid0
I0504 08:51:40.480023 22565 net.cpp:131] Top shape: 111 24 34 34 (3079584)
I0504 08:51:40.480026 22565 net.cpp:139] Memory required for data: 26001084
I0504 08:51:40.480029 22565 layer_factory.hpp:77] Creating layer pool0
I0504 08:51:40.480036 22565 net.cpp:86] Creating Layer pool0
I0504 08:51:40.480041 22565 net.cpp:408] pool0 <- Sigmoid0
I0504 08:51:40.480044 22565 net.cpp:382] pool0 -> pool0
I0504 08:51:40.480751 22565 net.cpp:124] Setting up pool0
I0504 08:51:40.480762 22565 net.cpp:131] Top shape: 111 24 17 17 (769896)
I0504 08:51:40.480767 22565 net.cpp:139] Memory required for data: 29080668
I0504 08:51:40.480769 22565 layer_factory.hpp:77] Creating layer conv1
I0504 08:51:40.480780 22565 net.cpp:86] Creating Layer conv1
I0504 08:51:40.480783 22565 net.cpp:408] conv1 <- pool0
I0504 08:51:40.480788 22565 net.cpp:382] conv1 -> conv1
I0504 08:51:40.483789 22565 net.cpp:124] Setting up conv1
I0504 08:51:40.483803 22565 net.cpp:131] Top shape: 111 72 19 19 (2885112)
I0504 08:51:40.483805 22565 net.cpp:139] Memory required for data: 40621116
I0504 08:51:40.483814 22565 layer_factory.hpp:77] Creating layer Sigmoid1
I0504 08:51:40.483819 22565 net.cpp:86] Creating Layer Sigmoid1
I0504 08:51:40.483822 22565 net.cpp:408] Sigmoid1 <- conv1
I0504 08:51:40.483826 22565 net.cpp:382] Sigmoid1 -> Sigmoid1
I0504 08:51:40.484004 22565 net.cpp:124] Setting up Sigmoid1
I0504 08:51:40.484014 22565 net.cpp:131] Top shape: 111 72 19 19 (2885112)
I0504 08:51:40.484017 22565 net.cpp:139] Memory required for data: 52161564
I0504 08:51:40.484020 22565 layer_factory.hpp:77] Creating layer pool1
I0504 08:51:40.484026 22565 net.cpp:86] Creating Layer pool1
I0504 08:51:40.484030 22565 net.cpp:408] pool1 <- Sigmoid1
I0504 08:51:40.484033 22565 net.cpp:382] pool1 -> pool1
I0504 08:51:40.484203 22565 net.cpp:124] Setting up pool1
I0504 08:51:40.484211 22565 net.cpp:131] Top shape: 111 72 9 9 (647352)
I0504 08:51:40.484215 22565 net.cpp:139] Memory required for data: 54750972
I0504 08:51:40.484218 22565 layer_factory.hpp:77] Creating layer ip1
I0504 08:51:40.484225 22565 net.cpp:86] Creating Layer ip1
I0504 08:51:40.484228 22565 net.cpp:408] ip1 <- pool1
I0504 08:51:40.484233 22565 net.cpp:382] ip1 -> ip1
I0504 08:51:40.511337 22565 net.cpp:124] Setting up ip1
I0504 08:51:40.511349 22565 net.cpp:131] Top shape: 111 180 (19980)
I0504 08:51:40.511353 22565 net.cpp:139] Memory required for data: 54830892
I0504 08:51:40.511359 22565 layer_factory.hpp:77] Creating layer relu1
I0504 08:51:40.511365 22565 net.cpp:86] Creating Layer relu1
I0504 08:51:40.511368 22565 net.cpp:408] relu1 <- ip1
I0504 08:51:40.511373 22565 net.cpp:369] relu1 -> ip1 (in-place)
I0504 08:51:40.511570 22565 net.cpp:124] Setting up relu1
I0504 08:51:40.511579 22565 net.cpp:131] Top shape: 111 180 (19980)
I0504 08:51:40.511581 22565 net.cpp:139] Memory required for data: 54910812
I0504 08:51:40.511584 22565 layer_factory.hpp:77] Creating layer ip2
I0504 08:51:40.511592 22565 net.cpp:86] Creating Layer ip2
I0504 08:51:40.511595 22565 net.cpp:408] ip2 <- ip1
I0504 08:51:40.511600 22565 net.cpp:382] ip2 -> ip2
I0504 08:51:40.511764 22565 net.cpp:124] Setting up ip2
I0504 08:51:40.511770 22565 net.cpp:131] Top shape: 111 10 (1110)
I0504 08:51:40.511772 22565 net.cpp:139] Memory required for data: 54915252
I0504 08:51:40.511777 22565 layer_factory.hpp:77] Creating layer loss
I0504 08:51:40.511783 22565 net.cpp:86] Creating Layer loss
I0504 08:51:40.511800 22565 net.cpp:408] loss <- ip2
I0504 08:51:40.511803 22565 net.cpp:408] loss <- label
I0504 08:51:40.511809 22565 net.cpp:382] loss -> loss
I0504 08:51:40.511821 22565 layer_factory.hpp:77] Creating layer loss
…
I0504 08:51:40.513113 22565 solver.cpp:173] Creating test net (#0) specified by net file: ECE595/cifar/train_test/var_everything_tiny/cifar_train_test_110.prototxt
I0504 08:51:40.513139 22565 net.cpp:296] The NetState phase (1) differed from the phase (0) specified by a rule in layer cifar
I0504 08:51:40.513243 22565 net.cpp:53] Initializing net from parameters: 
name: "CIFAR"
state {
  phase: TEST
}
layer {
  name: "cifar"
  type: "Data"
  top: "data"
  top: "label"
  include {
    phase: TEST
  }
  transform_param {
    mean_file: "examples/cifar10/mean.binaryproto"
  }
  data_param {
    source: "examples/cifar10/cifar10_test_lmdb"
    batch_size: 1000
    backend: LMDB
  }
}
layer {
  name: "conv0"
  type: "Convolution"
  bottom: "data"
  top: "conv0"
  param {
    lr_mult: 1
  }
  param {
    lr_mult: 2
  }
  convolution_param {
    num_output: 24
    pad: 2
    kernel_size: 3
    stride: 1
    weight_filler {
      type: "gaussian"
      std: 0.01
    }
    bias_filler {
      type: "constant"
    }
  }
}
layer {
  name: "Sigmoid0"
  type: "Sigmoid"
  bottom: "conv0"
  top: "Sigmoid0"
}
layer {
  name: "pool0"
  type: "Pooling"
  bottom: "Sigmoid0"
  top: "pool0"
  pooling_param {
    pool: AVE
    kernel_size: 3
    stride: 2
  }
}
layer {
  name: "conv1"
  type: "Convolution"
  bottom: "pool0"
  top: "conv1"
  param {
    lr_mult: 1
  }
  param {
    lr_mult: 2
  }
  convolution_param {
    num_output: 72
    pad: 2
    kernel_size: 3
    stride: 1
    weight_filler {
      type: "gaussian"
      std: 0.01
    }
    bias_filler {
      type: "constant"
    }
  }
}
layer {
  name: "Sigmoid1"
  type: "Sigmoid"
  bottom: "conv1"
  top: "Sigmoid1"
}
layer {
  name: "pool1"
  type: "Pooling"
  bottom: "Sigmoid1"
  top: "pool1"
  pooling_param {
    pool: AVE
    kernel_size: 3
    stride: 2
  }
}
layer {
  name: "ip1"
  type: "InnerProduct"
  bottom: "pool1"
  top: "ip1"
  param {
    lr_mult: 1
  }
  param {
    lr_mult: 2
  }
  inner_product_param {
    num_output: 180
    weight_filler {
      type: "gaussian"
      std: 0.01
    }
    bias_filler {
      type: "constant"
    }
  }
}
layer {
  name: "relu1"
  type: "ReLU"
  bottom: "ip1"
  top: "ip1"
}
layer {
  name: "ip2"
  type: "InnerProduct"
  bottom: "ip1"
  top: "ip2"
  param {
    lr_mult: 1
  }
  param {
    lr_mult: 2
  }
  inner_product_param {
    num_output: 10
    weight_filler {
      type: "gaussian"
      std: 0.01
    }
    bias_filler {
      type: "constant"
    }
  }
}
layer {
  name: "accuracy"
  type: "Accuracy"
  bottom: "ip2"
  bottom: "label"
  top: "accuracy"
  include {
    phase: TEST
  }
}
layer {
  name: "loss"
  type: "SoftmaxWithLoss"
  bottom: "ip2"
  bottom: "label"
  top: "loss"
}
I0504 08:51:40.513319 22565 layer_factory.hpp:77] Creating layer cifar
I0504 08:51:40.513361 22565 db_lmdb.cpp:35] Opened lmdb examples/cifar10/cifar10_test_lmdb
I0504 08:51:40.513373 22565 net.cpp:86] Creating Layer cifar
I0504 08:51:40.513380 22565 net.cpp:382] cifar -> data
I0504 08:51:40.513386 22565 net.cpp:382] cifar -> label
I0504 08:51:40.513392 22565 data_transformer.cpp:25] Loading mean file from: examples/cifar10/mean.binaryproto
I0504 08:51:40.513531 22565 data_layer.cpp:45] output data size: 1000,3,32,32
I0504 08:51:40.534927 22565 net.cpp:124] Setting up cifar
I0504 08:51:40.534952 22565 net.cpp:131] Top shape: 1000 3 32 32 (3072000)
I0504 08:51:40.534957 22565 net.cpp:131] Top shape: 1000 (1000)
I0504 08:51:40.534960 22565 net.cpp:139] Memory required for data: 12292000
I0504 08:51:40.534965 22565 layer_factory.hpp:77] Creating layer label_cifar_1_split
I0504 08:51:40.534979 22565 net.cpp:86] Creating Layer label_cifar_1_split
I0504 08:51:40.534982 22565 net.cpp:408] label_cifar_1_split <- label
I0504 08:51:40.535004 22565 net.cpp:382] label_cifar_1_split -> label_cifar_1_split_0
I0504 08:51:40.535014 22565 net.cpp:382] label_cifar_1_split -> label_cifar_1_split_1
I0504 08:51:40.535123 22565 net.cpp:124] Setting up label_cifar_1_split
I0504 08:51:40.535131 22565 net.cpp:131] Top shape: 1000 (1000)
I0504 08:51:40.535135 22565 net.cpp:131] Top shape: 1000 (1000)
I0504 08:51:40.535137 22565 net.cpp:139] Memory required for data: 12300000
I0504 08:51:40.535140 22565 layer_factory.hpp:77] Creating layer conv0
I0504 08:51:40.535152 22565 net.cpp:86] Creating Layer conv0
I0504 08:51:40.535156 22565 net.cpp:408] conv0 <- data
I0504 08:51:40.535161 22565 net.cpp:382] conv0 -> conv0
I0504 08:51:40.536062 22565 net.cpp:124] Setting up conv0
I0504 08:51:40.536073 22565 net.cpp:131] Top shape: 1000 24 34 34 (27744000)
I0504 08:51:40.536077 22565 net.cpp:139] Memory required for data: 123276000
I0504 08:51:40.536087 22565 layer_factory.hpp:77] Creating layer Sigmoid0
I0504 08:51:40.536109 22565 net.cpp:86] Creating Layer Sigmoid0
I0504 08:51:40.536113 22565 net.cpp:408] Sigmoid0 <- conv0
I0504 08:51:40.536116 22565 net.cpp:382] Sigmoid0 -> Sigmoid0
I0504 08:51:40.536994 22565 net.cpp:124] Setting up Sigmoid0
I0504 08:51:40.537006 22565 net.cpp:131] Top shape: 1000 24 34 34 (27744000)
I0504 08:51:40.537009 22565 net.cpp:139] Memory required for data: 234252000
I0504 08:51:40.537014 22565 layer_factory.hpp:77] Creating layer pool0
I0504 08:51:40.537022 22565 net.cpp:86] Creating Layer pool0
I0504 08:51:40.537041 22565 net.cpp:408] pool0 <- Sigmoid0
I0504 08:51:40.537046 22565 net.cpp:382] pool0 -> pool0
I0504 08:51:40.538225 22565 net.cpp:124] Setting up pool0
I0504 08:51:40.538234 22565 net.cpp:131] Top shape: 1000 24 17 17 (6936000)
I0504 08:51:40.538239 22565 net.cpp:139] Memory required for data: 261996000
I0504 08:51:40.538241 22565 layer_factory.hpp:77] Creating layer conv1
I0504 08:51:40.538267 22565 net.cpp:86] Creating Layer conv1
I0504 08:51:40.538271 22565 net.cpp:408] conv1 <- pool0
I0504 08:51:40.538276 22565 net.cpp:382] conv1 -> conv1
I0504 08:51:40.540077 22565 net.cpp:124] Setting up conv1
I0504 08:51:40.540091 22565 net.cpp:131] Top shape: 1000 72 19 19 (25992000)
I0504 08:51:40.540094 22565 net.cpp:139] Memory required for data: 365964000
I0504 08:51:40.540102 22565 layer_factory.hpp:77] Creating layer Sigmoid1
I0504 08:51:40.540124 22565 net.cpp:86] Creating Layer Sigmoid1
I0504 08:51:40.540128 22565 net.cpp:408] Sigmoid1 <- conv1
I0504 08:51:40.540133 22565 net.cpp:382] Sigmoid1 -> Sigmoid1
I0504 08:51:40.540315 22565 net.cpp:124] Setting up Sigmoid1
I0504 08:51:40.540324 22565 net.cpp:131] Top shape: 1000 72 19 19 (25992000)
I0504 08:51:40.540328 22565 net.cpp:139] Memory required for data: 469932000
I0504 08:51:40.540330 22565 layer_factory.hpp:77] Creating layer pool1
I0504 08:51:40.540336 22565 net.cpp:86] Creating Layer pool1
I0504 08:51:40.540339 22565 net.cpp:408] pool1 <- Sigmoid1
I0504 08:51:40.540356 22565 net.cpp:382] pool1 -> pool1
I0504 08:51:40.540520 22565 net.cpp:124] Setting up pool1
I0504 08:51:40.540530 22565 net.cpp:131] Top shape: 1000 72 9 9 (5832000)
I0504 08:51:40.540534 22565 net.cpp:139] Memory required for data: 493260000
I0504 08:51:40.540536 22565 layer_factory.hpp:77] Creating layer ip1
I0504 08:51:40.540544 22565 net.cpp:86] Creating Layer ip1
I0504 08:51:40.540547 22565 net.cpp:408] ip1 <- pool1
I0504 08:51:40.540554 22565 net.cpp:382] ip1 -> ip1
I0504 08:51:40.569314 22565 net.cpp:124] Setting up ip1
I0504 08:51:40.569331 22565 net.cpp:131] Top shape: 1000 180 (180000)
I0504 08:51:40.569334 22565 net.cpp:139] Memory required for data: 493980000
I0504 08:51:40.569344 22565 layer_factory.hpp:77] Creating layer relu1
I0504 08:51:40.569351 22565 net.cpp:86] Creating Layer relu1
I0504 08:51:40.569355 22565 net.cpp:408] relu1 <- ip1
I0504 08:51:40.569375 22565 net.cpp:369] relu1 -> ip1 (in-place)
I0504 08:51:40.570242 22565 net.cpp:124] Setting up relu1
I0504 08:51:40.570255 22565 net.cpp:131] Top shape: 1000 180 (180000)
I0504 08:51:40.570257 22565 net.cpp:139] Memory required for data: 494700000
I0504 08:51:40.570261 22565 layer_factory.hpp:77] Creating layer ip2
I0504 08:51:40.570284 22565 net.cpp:86] Creating Layer ip2
I0504 08:51:40.570288 22565 net.cpp:408] ip2 <- ip1
I0504 08:51:40.570293 22565 net.cpp:382] ip2 -> ip2
I0504 08:51:40.570453 22565 net.cpp:124] Setting up ip2
I0504 08:51:40.570461 22565 net.cpp:131] Top shape: 1000 10 (10000)
I0504 08:51:40.570466 22565 net.cpp:139] Memory required for data: 494740000
I0504 08:51:40.570471 22565 layer_factory.hpp:77] Creating layer ip2_ip2_0_split
I0504 08:51:40.570475 22565 net.cpp:86] Creating Layer ip2_ip2_0_split
I0504 08:51:40.570478 22565 net.cpp:408] ip2_ip2_0_split <- ip2
I0504 08:51:40.570483 22565 net.cpp:382] ip2_ip2_0_split -> ip2_ip2_0_split_0
I0504 08:51:40.570488 22565 net.cpp:382] ip2_ip2_0_split -> ip2_ip2_0_split_1
I0504 08:51:40.570520 22565 net.cpp:124] Setting up ip2_ip2_0_split
I0504 08:51:40.570525 22565 net.cpp:131] Top shape: 1000 10 (10000)
I0504 08:51:40.570528 22565 net.cpp:131] Top shape: 1000 10 (10000)
I0504 08:51:40.570530 22565 net.cpp:139] Memory required for data: 494820000
I0504 08:51:40.570533 22565 layer_factory.hpp:77] Creating layer accuracy
I0504 08:51:40.570539 22565 net.cpp:86] Creating Layer accuracy
I0504 08:51:40.570544 22565 net.cpp:408] accuracy <- ip2_ip2_0_split_0
I0504 08:51:40.570546 22565 net.cpp:408] accuracy <- label_cifar_1_split_0
I0504 08:51:40.570550 22565 net.cpp:382] accuracy -> accuracy
…
