…
I0504 08:33:00.099648 22028 net.cpp:296] The NetState phase (0) differed from the phase (1) specified by a rule in layer cifar
I0504 08:33:00.099668 22028 net.cpp:296] The NetState phase (0) differed from the phase (1) specified by a rule in layer accuracy
I0504 08:33:00.099781 22028 net.cpp:53] Initializing net from parameters: 
name: "CIFAR"
state {
  phase: TRAIN
  level: 0
  stage: ""
}
layer {
  name: "cifar"
  type: "Data"
  top: "data"
  top: "label"
  include {
    phase: TRAIN
  }
  transform_param {
    mean_file: "examples/cifar10/mean.binaryproto"
  }
  data_param {
    source: "examples/cifar10/cifar10_train_lmdb"
    batch_size: 111
    backend: LMDB
  }
}
layer {
  name: "conv0"
  type: "Convolution"
  bottom: "data"
  top: "conv0"
  param {
    lr_mult: 1
  }
  param {
    lr_mult: 2
  }
  convolution_param {
    num_output: 24
    pad: 2
    kernel_size: 5
    stride: 1
    weight_filler {
      type: "gaussian"
      std: 0.01
    }
    bias_filler {
      type: "constant"
    }
  }
}
layer {
  name: "Sigmoid0"
  type: "Sigmoid"
  bottom: "conv0"
  top: "Sigmoid0"
}
layer {
  name: "pool0"
  type: "Pooling"
  bottom: "Sigmoid0"
  top: "pool0"
  pooling_param {
    pool: AVE
    kernel_size: 3
    stride: 2
  }
}
layer {
  name: "conv1"
  type: "Convolution"
  bottom: "pool0"
  top: "conv1"
  param {
    lr_mult: 1
  }
  param {
    lr_mult: 2
  }
  convolution_param {
    num_output: 24
    pad: 2
    kernel_size: 5
    stride: 1
    weight_filler {
      type: "gaussian"
      std: 0.01
    }
    bias_filler {
      type: "constant"
    }
  }
}
layer {
  name: "Sigmoid1"
  type: "Sigmoid"
  bottom: "conv1"
  top: "Sigmoid1"
}
layer {
  name: "pool1"
  type: "Pooling"
  bottom: "Sigmoid1"
  top: "pool1"
  pooling_param {
    pool: AVE
    kernel_size: 3
    stride: 2
  }
}
layer {
  name: "ip1"
  type: "InnerProduct"
  bottom: "pool1"
  top: "ip1"
  param {
    lr_mult: 1
  }
  param {
    lr_mult: 2
  }
  inner_product_param {
    num_output: 60
    weight_filler {
      type: "gaussian"
      std: 0.01
    }
    bias_filler {
      type: "constant"
    }
  }
}
layer {
  name: "relu1"
  type: "ReLU"
  bottom: "ip1"
  top: "ip1"
}
layer {
  name: "ip2"
  type: "InnerProduct"
  bottom: "ip1"
  top: "ip2"
  param {
    lr_mult: 1
  }
  param {
    lr_mult: 2
  }
  inner_product_param {
    num_output: 180
    weight_filler {
      type: "gaussian"
      std: 0.01
    }
    bias_filler {
      type: "constant"
    }
  }
}
layer {
  name: "relu2"
  type: "ReLU"
  bottom: "ip2"
  top: "ip2"
}
layer {
  name: "ip3"
  type: "InnerProduct"
  bottom: "ip2"
  top: "ip3"
  param {
    lr_mult: 1
  }
  param {
    lr_mult: 2
  }
  inner_product_param {
    num_output: 10
    weight_filler {
      type: "gaussian"
      std: 0.01
    }
    bias_filler {
      type: "constant"
    }
  }
}
layer {
  name: "loss"
  type: "SoftmaxWithLoss"
  bottom: "ip3"
  bottom: "label"
  top: "loss"
}
I0504 08:33:00.099869 22028 layer_factory.hpp:77] Creating layer cifar
I0504 08:33:00.099967 22028 db_lmdb.cpp:35] Opened lmdb examples/cifar10/cifar10_train_lmdb
I0504 08:33:00.099997 22028 net.cpp:86] Creating Layer cifar
I0504 08:33:00.100006 22028 net.cpp:382] cifar -> data
I0504 08:33:00.100029 22028 net.cpp:382] cifar -> label
I0504 08:33:00.100046 22028 data_transformer.cpp:25] Loading mean file from: examples/cifar10/mean.binaryproto
I0504 08:33:00.102205 22028 data_layer.cpp:45] output data size: 111,3,32,32
I0504 08:33:00.110224 22028 net.cpp:124] Setting up cifar
I0504 08:33:00.110242 22028 net.cpp:131] Top shape: 111 3 32 32 (340992)
I0504 08:33:00.110249 22028 net.cpp:131] Top shape: 111 (111)
I0504 08:33:00.110252 22028 net.cpp:139] Memory required for data: 1364412
I0504 08:33:00.110260 22028 layer_factory.hpp:77] Creating layer conv0
I0504 08:33:00.110280 22028 net.cpp:86] Creating Layer conv0
I0504 08:33:00.110285 22028 net.cpp:408] conv0 <- data
I0504 08:33:00.110297 22028 net.cpp:382] conv0 -> conv0
I0504 08:33:00.396560 22028 net.cpp:124] Setting up conv0
I0504 08:33:00.396589 22028 net.cpp:131] Top shape: 111 24 32 32 (2727936)
I0504 08:33:00.396592 22028 net.cpp:139] Memory required for data: 12276156
I0504 08:33:00.396608 22028 layer_factory.hpp:77] Creating layer Sigmoid0
I0504 08:33:00.396620 22028 net.cpp:86] Creating Layer Sigmoid0
I0504 08:33:00.396625 22028 net.cpp:408] Sigmoid0 <- conv0
I0504 08:33:00.396631 22028 net.cpp:382] Sigmoid0 -> Sigmoid0
I0504 08:33:00.396818 22028 net.cpp:124] Setting up Sigmoid0
I0504 08:33:00.396828 22028 net.cpp:131] Top shape: 111 24 32 32 (2727936)
I0504 08:33:00.396832 22028 net.cpp:139] Memory required for data: 23187900
I0504 08:33:00.396842 22028 layer_factory.hpp:77] Creating layer pool0
I0504 08:33:00.396848 22028 net.cpp:86] Creating Layer pool0
I0504 08:33:00.396852 22028 net.cpp:408] pool0 <- Sigmoid0
I0504 08:33:00.396857 22028 net.cpp:382] pool0 -> pool0
I0504 08:33:00.397614 22028 net.cpp:124] Setting up pool0
I0504 08:33:00.397629 22028 net.cpp:131] Top shape: 111 24 16 16 (681984)
I0504 08:33:00.397631 22028 net.cpp:139] Memory required for data: 25915836
I0504 08:33:00.397635 22028 layer_factory.hpp:77] Creating layer conv1
I0504 08:33:00.397647 22028 net.cpp:86] Creating Layer conv1
I0504 08:33:00.397650 22028 net.cpp:408] conv1 <- pool0
I0504 08:33:00.397656 22028 net.cpp:382] conv1 -> conv1
I0504 08:33:00.400712 22028 net.cpp:124] Setting up conv1
I0504 08:33:00.400727 22028 net.cpp:131] Top shape: 111 24 16 16 (681984)
I0504 08:33:00.400732 22028 net.cpp:139] Memory required for data: 28643772
I0504 08:33:00.400740 22028 layer_factory.hpp:77] Creating layer Sigmoid1
I0504 08:33:00.400746 22028 net.cpp:86] Creating Layer Sigmoid1
I0504 08:33:00.400750 22028 net.cpp:408] Sigmoid1 <- conv1
I0504 08:33:00.400755 22028 net.cpp:382] Sigmoid1 -> Sigmoid1
I0504 08:33:00.400931 22028 net.cpp:124] Setting up Sigmoid1
I0504 08:33:00.400941 22028 net.cpp:131] Top shape: 111 24 16 16 (681984)
I0504 08:33:00.400944 22028 net.cpp:139] Memory required for data: 31371708
I0504 08:33:00.400949 22028 layer_factory.hpp:77] Creating layer pool1
I0504 08:33:00.400954 22028 net.cpp:86] Creating Layer pool1
I0504 08:33:00.400957 22028 net.cpp:408] pool1 <- Sigmoid1
I0504 08:33:00.400962 22028 net.cpp:382] pool1 -> pool1
I0504 08:33:00.401125 22028 net.cpp:124] Setting up pool1
I0504 08:33:00.401134 22028 net.cpp:131] Top shape: 111 24 8 8 (170496)
I0504 08:33:00.401137 22028 net.cpp:139] Memory required for data: 32053692
I0504 08:33:00.401140 22028 layer_factory.hpp:77] Creating layer ip1
I0504 08:33:00.401149 22028 net.cpp:86] Creating Layer ip1
I0504 08:33:00.401151 22028 net.cpp:408] ip1 <- pool1
I0504 08:33:00.401156 22028 net.cpp:382] ip1 -> ip1
I0504 08:33:00.403832 22028 net.cpp:124] Setting up ip1
I0504 08:33:00.403841 22028 net.cpp:131] Top shape: 111 60 (6660)
I0504 08:33:00.403843 22028 net.cpp:139] Memory required for data: 32080332
I0504 08:33:00.403851 22028 layer_factory.hpp:77] Creating layer relu1
I0504 08:33:00.403858 22028 net.cpp:86] Creating Layer relu1
I0504 08:33:00.403861 22028 net.cpp:408] relu1 <- ip1
I0504 08:33:00.403865 22028 net.cpp:369] relu1 -> ip1 (in-place)
I0504 08:33:00.404016 22028 net.cpp:124] Setting up relu1
I0504 08:33:00.404024 22028 net.cpp:131] Top shape: 111 60 (6660)
I0504 08:33:00.404027 22028 net.cpp:139] Memory required for data: 32106972
I0504 08:33:00.404031 22028 layer_factory.hpp:77] Creating layer ip2
I0504 08:33:00.404036 22028 net.cpp:86] Creating Layer ip2
I0504 08:33:00.404040 22028 net.cpp:408] ip2 <- ip1
I0504 08:33:00.404060 22028 net.cpp:382] ip2 -> ip2
I0504 08:33:00.404459 22028 net.cpp:124] Setting up ip2
I0504 08:33:00.404467 22028 net.cpp:131] Top shape: 111 180 (19980)
I0504 08:33:00.404470 22028 net.cpp:139] Memory required for data: 32186892
I0504 08:33:00.404475 22028 layer_factory.hpp:77] Creating layer relu2
I0504 08:33:00.404480 22028 net.cpp:86] Creating Layer relu2
I0504 08:33:00.404484 22028 net.cpp:408] relu2 <- ip2
I0504 08:33:00.404487 22028 net.cpp:369] relu2 -> ip2 (in-place)
I0504 08:33:00.405226 22028 net.cpp:124] Setting up relu2
I0504 08:33:00.405239 22028 net.cpp:131] Top shape: 111 180 (19980)
I0504 08:33:00.405242 22028 net.cpp:139] Memory required for data: 32266812
I0504 08:33:00.405246 22028 layer_factory.hpp:77] Creating layer ip3
I0504 08:33:00.405253 22028 net.cpp:86] Creating Layer ip3
I0504 08:33:00.405256 22028 net.cpp:408] ip3 <- ip2
I0504 08:33:00.405262 22028 net.cpp:382] ip3 -> ip3
I0504 08:33:00.405416 22028 net.cpp:124] Setting up ip3
I0504 08:33:00.405423 22028 net.cpp:131] Top shape: 111 10 (1110)
I0504 08:33:00.405426 22028 net.cpp:139] Memory required for data: 32271252
I0504 08:33:00.405434 22028 layer_factory.hpp:77] Creating layer loss
I0504 08:33:00.405441 22028 net.cpp:86] Creating Layer loss
I0504 08:33:00.405443 22028 net.cpp:408] loss <- ip3
I0504 08:33:00.405447 22028 net.cpp:408] loss <- label
I0504 08:33:00.405453 22028 net.cpp:382] loss -> loss
I0504 08:33:00.405469 22028 layer_factory.hpp:77] Creating layer loss
…
I0504 08:33:00.406134 22028 solver.cpp:173] Creating test net (#0) specified by net file: ECE595/cifar/train_test/var_everything_tiny/cifar_train_test_104.prototxt
I0504 08:33:00.406162 22028 net.cpp:296] The NetState phase (1) differed from the phase (0) specified by a rule in layer cifar
I0504 08:33:00.406261 22028 net.cpp:53] Initializing net from parameters: 
name: "CIFAR"
state {
  phase: TEST
}
layer {
  name: "cifar"
  type: "Data"
  top: "data"
  top: "label"
  include {
    phase: TEST
  }
  transform_param {
    mean_file: "examples/cifar10/mean.binaryproto"
  }
  data_param {
    source: "examples/cifar10/cifar10_test_lmdb"
    batch_size: 1000
    backend: LMDB
  }
}
layer {
  name: "conv0"
  type: "Convolution"
  bottom: "data"
  top: "conv0"
  param {
    lr_mult: 1
  }
  param {
    lr_mult: 2
  }
  convolution_param {
    num_output: 24
    pad: 2
    kernel_size: 5
    stride: 1
    weight_filler {
      type: "gaussian"
      std: 0.01
    }
    bias_filler {
      type: "constant"
    }
  }
}
layer {
  name: "Sigmoid0"
  type: "Sigmoid"
  bottom: "conv0"
  top: "Sigmoid0"
}
layer {
  name: "pool0"
  type: "Pooling"
  bottom: "Sigmoid0"
  top: "pool0"
  pooling_param {
    pool: AVE
    kernel_size: 3
    stride: 2
  }
}
layer {
  name: "conv1"
  type: "Convolution"
  bottom: "pool0"
  top: "conv1"
  param {
    lr_mult: 1
  }
  param {
    lr_mult: 2
  }
  convolution_param {
    num_output: 24
    pad: 2
    kernel_size: 5
    stride: 1
    weight_filler {
      type: "gaussian"
      std: 0.01
    }
    bias_filler {
      type: "constant"
    }
  }
}
layer {
  name: "Sigmoid1"
  type: "Sigmoid"
  bottom: "conv1"
  top: "Sigmoid1"
}
layer {
  name: "pool1"
  type: "Pooling"
  bottom: "Sigmoid1"
  top: "pool1"
  pooling_param {
    pool: AVE
    kernel_size: 3
    stride: 2
  }
}
layer {
  name: "ip1"
  type: "InnerProduct"
  bottom: "pool1"
  top: "ip1"
  param {
    lr_mult: 1
  }
  param {
    lr_mult: 2
  }
  inner_product_param {
    num_output: 60
    weight_filler {
      type: "gaussian"
      std: 0.01
    }
    bias_filler {
      type: "constant"
    }
  }
}
layer {
  name: "relu1"
  type: "ReLU"
  bottom: "ip1"
  top: "ip1"
}
layer {
  name: "ip2"
  type: "InnerProduct"
  bottom: "ip1"
  top: "ip2"
  param {
    lr_mult: 1
  }
  param {
    lr_mult: 2
  }
  inner_product_param {
    num_output: 180
    weight_filler {
      type: "gaussian"
      std: 0.01
    }
    bias_filler {
      type: "constant"
    }
  }
}
layer {
  name: "relu2"
  type: "ReLU"
  bottom: "ip2"
  top: "ip2"
}
layer {
  name: "ip3"
  type: "InnerProduct"
  bottom: "ip2"
  top: "ip3"
  param {
    lr_mult: 1
  }
  param {
    lr_mult: 2
  }
  inner_product_param {
    num_output: 10
    weight_filler {
      type: "gaussian"
      std: 0.01
    }
    bias_filler {
      type: "constant"
    }
  }
}
layer {
  name: "accuracy"
  type: "Accuracy"
  bottom: "ip3"
  bottom: "label"
  top: "accuracy"
  include {
    phase: TEST
  }
}
layer {
  name: "loss"
  type: "SoftmaxWithLoss"
  bottom: "ip3"
  bottom: "label"
  top: "loss"
}
I0504 08:33:00.406345 22028 layer_factory.hpp:77] Creating layer cifar
I0504 08:33:00.406393 22028 db_lmdb.cpp:35] Opened lmdb examples/cifar10/cifar10_test_lmdb
I0504 08:33:00.406405 22028 net.cpp:86] Creating Layer cifar
I0504 08:33:00.406409 22028 net.cpp:382] cifar -> data
I0504 08:33:00.406417 22028 net.cpp:382] cifar -> label
I0504 08:33:00.406425 22028 data_transformer.cpp:25] Loading mean file from: examples/cifar10/mean.binaryproto
I0504 08:33:00.406569 22028 data_layer.cpp:45] output data size: 1000,3,32,32
I0504 08:33:00.429132 22028 net.cpp:124] Setting up cifar
I0504 08:33:00.429159 22028 net.cpp:131] Top shape: 1000 3 32 32 (3072000)
I0504 08:33:00.429164 22028 net.cpp:131] Top shape: 1000 (1000)
I0504 08:33:00.429168 22028 net.cpp:139] Memory required for data: 12292000
I0504 08:33:00.429174 22028 layer_factory.hpp:77] Creating layer label_cifar_1_split
I0504 08:33:00.429203 22028 net.cpp:86] Creating Layer label_cifar_1_split
I0504 08:33:00.429208 22028 net.cpp:408] label_cifar_1_split <- label
I0504 08:33:00.429229 22028 net.cpp:382] label_cifar_1_split -> label_cifar_1_split_0
I0504 08:33:00.429239 22028 net.cpp:382] label_cifar_1_split -> label_cifar_1_split_1
I0504 08:33:00.429352 22028 net.cpp:124] Setting up label_cifar_1_split
I0504 08:33:00.429360 22028 net.cpp:131] Top shape: 1000 (1000)
I0504 08:33:00.429379 22028 net.cpp:131] Top shape: 1000 (1000)
I0504 08:33:00.429383 22028 net.cpp:139] Memory required for data: 12300000
I0504 08:33:00.429385 22028 layer_factory.hpp:77] Creating layer conv0
I0504 08:33:00.429397 22028 net.cpp:86] Creating Layer conv0
I0504 08:33:00.429400 22028 net.cpp:408] conv0 <- data
I0504 08:33:00.429406 22028 net.cpp:382] conv0 -> conv0
I0504 08:33:00.430986 22028 net.cpp:124] Setting up conv0
I0504 08:33:00.430999 22028 net.cpp:131] Top shape: 1000 24 32 32 (24576000)
I0504 08:33:00.431004 22028 net.cpp:139] Memory required for data: 110604000
I0504 08:33:00.431012 22028 layer_factory.hpp:77] Creating layer Sigmoid0
I0504 08:33:00.431020 22028 net.cpp:86] Creating Layer Sigmoid0
I0504 08:33:00.431022 22028 net.cpp:408] Sigmoid0 <- conv0
I0504 08:33:00.431026 22028 net.cpp:382] Sigmoid0 -> Sigmoid0
I0504 08:33:00.431330 22028 net.cpp:124] Setting up Sigmoid0
I0504 08:33:00.431361 22028 net.cpp:131] Top shape: 1000 24 32 32 (24576000)
I0504 08:33:00.431365 22028 net.cpp:139] Memory required for data: 208908000
I0504 08:33:00.431370 22028 layer_factory.hpp:77] Creating layer pool0
I0504 08:33:00.431382 22028 net.cpp:86] Creating Layer pool0
I0504 08:33:00.431391 22028 net.cpp:408] pool0 <- Sigmoid0
I0504 08:33:00.431396 22028 net.cpp:382] pool0 -> pool0
I0504 08:33:00.432597 22028 net.cpp:124] Setting up pool0
I0504 08:33:00.432610 22028 net.cpp:131] Top shape: 1000 24 16 16 (6144000)
I0504 08:33:00.432612 22028 net.cpp:139] Memory required for data: 233484000
I0504 08:33:00.432615 22028 layer_factory.hpp:77] Creating layer conv1
I0504 08:33:00.432628 22028 net.cpp:86] Creating Layer conv1
I0504 08:33:00.432634 22028 net.cpp:408] conv1 <- pool0
I0504 08:33:00.432657 22028 net.cpp:382] conv1 -> conv1
I0504 08:33:00.434494 22028 net.cpp:124] Setting up conv1
I0504 08:33:00.434525 22028 net.cpp:131] Top shape: 1000 24 16 16 (6144000)
I0504 08:33:00.434528 22028 net.cpp:139] Memory required for data: 258060000
I0504 08:33:00.434540 22028 layer_factory.hpp:77] Creating layer Sigmoid1
I0504 08:33:00.434546 22028 net.cpp:86] Creating Layer Sigmoid1
I0504 08:33:00.434551 22028 net.cpp:408] Sigmoid1 <- conv1
I0504 08:33:00.434556 22028 net.cpp:382] Sigmoid1 -> Sigmoid1
I0504 08:33:00.434769 22028 net.cpp:124] Setting up Sigmoid1
I0504 08:33:00.434779 22028 net.cpp:131] Top shape: 1000 24 16 16 (6144000)
I0504 08:33:00.434783 22028 net.cpp:139] Memory required for data: 282636000
I0504 08:33:00.434787 22028 layer_factory.hpp:77] Creating layer pool1
I0504 08:33:00.434794 22028 net.cpp:86] Creating Layer pool1
I0504 08:33:00.434798 22028 net.cpp:408] pool1 <- Sigmoid1
I0504 08:33:00.434803 22028 net.cpp:382] pool1 -> pool1
I0504 08:33:00.435618 22028 net.cpp:124] Setting up pool1
I0504 08:33:00.435631 22028 net.cpp:131] Top shape: 1000 24 8 8 (1536000)
I0504 08:33:00.435652 22028 net.cpp:139] Memory required for data: 288780000
I0504 08:33:00.435662 22028 layer_factory.hpp:77] Creating layer ip1
I0504 08:33:00.435672 22028 net.cpp:86] Creating Layer ip1
I0504 08:33:00.435677 22028 net.cpp:408] ip1 <- pool1
I0504 08:33:00.435698 22028 net.cpp:382] ip1 -> ip1
I0504 08:33:00.438333 22028 net.cpp:124] Setting up ip1
I0504 08:33:00.438343 22028 net.cpp:131] Top shape: 1000 60 (60000)
I0504 08:33:00.438361 22028 net.cpp:139] Memory required for data: 289020000
I0504 08:33:00.438383 22028 layer_factory.hpp:77] Creating layer relu1
I0504 08:33:00.438390 22028 net.cpp:86] Creating Layer relu1
I0504 08:33:00.438395 22028 net.cpp:408] relu1 <- ip1
I0504 08:33:00.438398 22028 net.cpp:369] relu1 -> ip1 (in-place)
I0504 08:33:00.438575 22028 net.cpp:124] Setting up relu1
I0504 08:33:00.438582 22028 net.cpp:131] Top shape: 1000 60 (60000)
I0504 08:33:00.438585 22028 net.cpp:139] Memory required for data: 289260000
I0504 08:33:00.438588 22028 layer_factory.hpp:77] Creating layer ip2
I0504 08:33:00.438596 22028 net.cpp:86] Creating Layer ip2
I0504 08:33:00.438613 22028 net.cpp:408] ip2 <- ip1
I0504 08:33:00.438618 22028 net.cpp:382] ip2 -> ip2
I0504 08:33:00.438999 22028 net.cpp:124] Setting up ip2
I0504 08:33:00.439005 22028 net.cpp:131] Top shape: 1000 180 (180000)
I0504 08:33:00.439008 22028 net.cpp:139] Memory required for data: 289980000
I0504 08:33:00.439013 22028 layer_factory.hpp:77] Creating layer relu2
I0504 08:33:00.439019 22028 net.cpp:86] Creating Layer relu2
I0504 08:33:00.439023 22028 net.cpp:408] relu2 <- ip2
I0504 08:33:00.439028 22028 net.cpp:369] relu2 -> ip2 (in-place)
I0504 08:33:00.439193 22028 net.cpp:124] Setting up relu2
I0504 08:33:00.439201 22028 net.cpp:131] Top shape: 1000 180 (180000)
I0504 08:33:00.439204 22028 net.cpp:139] Memory required for data: 290700000
I0504 08:33:00.439208 22028 layer_factory.hpp:77] Creating layer ip3
I0504 08:33:00.439215 22028 net.cpp:86] Creating Layer ip3
I0504 08:33:00.439218 22028 net.cpp:408] ip3 <- ip2
I0504 08:33:00.439224 22028 net.cpp:382] ip3 -> ip3
I0504 08:33:00.439409 22028 net.cpp:124] Setting up ip3
I0504 08:33:00.439419 22028 net.cpp:131] Top shape: 1000 10 (10000)
I0504 08:33:00.439431 22028 net.cpp:139] Memory required for data: 290740000
I0504 08:33:00.439463 22028 layer_factory.hpp:77] Creating layer ip3_ip3_0_split
I0504 08:33:00.439469 22028 net.cpp:86] Creating Layer ip3_ip3_0_split
I0504 08:33:00.439472 22028 net.cpp:408] ip3_ip3_0_split <- ip3
I0504 08:33:00.439476 22028 net.cpp:382] ip3_ip3_0_split -> ip3_ip3_0_split_0
I0504 08:33:00.439482 22028 net.cpp:382] ip3_ip3_0_split -> ip3_ip3_0_split_1
I0504 08:33:00.439518 22028 net.cpp:124] Setting up ip3_ip3_0_split
I0504 08:33:00.439525 22028 net.cpp:131] Top shape: 1000 10 (10000)
I0504 08:33:00.439529 22028 net.cpp:131] Top shape: 1000 10 (10000)
I0504 08:33:00.439532 22028 net.cpp:139] Memory required for data: 290820000
I0504 08:33:00.439535 22028 layer_factory.hpp:77] Creating layer accuracy
I0504 08:33:00.439541 22028 net.cpp:86] Creating Layer accuracy
I0504 08:33:00.439544 22028 net.cpp:408] accuracy <- ip3_ip3_0_split_0
I0504 08:33:00.439550 22028 net.cpp:408] accuracy <- label_cifar_1_split_0
I0504 08:33:00.439554 22028 net.cpp:382] accuracy -> accuracy
…
