…
I0504 09:12:02.266588 23155 net.cpp:296] The NetState phase (0) differed from the phase (1) specified by a rule in layer cifar
I0504 09:12:02.266607 23155 net.cpp:296] The NetState phase (0) differed from the phase (1) specified by a rule in layer accuracy
I0504 09:12:02.266712 23155 net.cpp:53] Initializing net from parameters: 
name: "CIFAR"
state {
  phase: TRAIN
  level: 0
  stage: ""
}
layer {
  name: "cifar"
  type: "Data"
  top: "data"
  top: "label"
  include {
    phase: TRAIN
  }
  transform_param {
    mean_file: "examples/cifar10/mean.binaryproto"
  }
  data_param {
    source: "examples/cifar10/cifar10_train_lmdb"
    batch_size: 111
    backend: LMDB
  }
}
layer {
  name: "conv0"
  type: "Convolution"
  bottom: "data"
  top: "conv0"
  param {
    lr_mult: 1
  }
  param {
    lr_mult: 2
  }
  convolution_param {
    num_output: 24
    pad: 2
    kernel_size: 3
    stride: 1
    weight_filler {
      type: "gaussian"
      std: 0.01
    }
    bias_filler {
      type: "constant"
    }
  }
}
layer {
  name: "Sigmoid0"
  type: "Sigmoid"
  bottom: "conv0"
  top: "Sigmoid0"
}
layer {
  name: "pool0"
  type: "Pooling"
  bottom: "Sigmoid0"
  top: "pool0"
  pooling_param {
    pool: AVE
    kernel_size: 3
    stride: 2
  }
}
layer {
  name: "conv1"
  type: "Convolution"
  bottom: "pool0"
  top: "conv1"
  param {
    lr_mult: 1
  }
  param {
    lr_mult: 2
  }
  convolution_param {
    num_output: 72
    pad: 2
    kernel_size: 3
    stride: 1
    weight_filler {
      type: "gaussian"
      std: 0.01
    }
    bias_filler {
      type: "constant"
    }
  }
}
layer {
  name: "Sigmoid1"
  type: "Sigmoid"
  bottom: "conv1"
  top: "Sigmoid1"
}
layer {
  name: "pool1"
  type: "Pooling"
  bottom: "Sigmoid1"
  top: "pool1"
  pooling_param {
    pool: AVE
    kernel_size: 3
    stride: 2
  }
}
layer {
  name: "ip1"
  type: "InnerProduct"
  bottom: "pool1"
  top: "ip1"
  param {
    lr_mult: 1
  }
  param {
    lr_mult: 2
  }
  inner_product_param {
    num_output: 60
    weight_filler {
      type: "gaussian"
      std: 0.01
    }
    bias_filler {
      type: "constant"
    }
  }
}
layer {
  name: "relu1"
  type: "ReLU"
  bottom: "ip1"
  top: "ip1"
}
layer {
  name: "ip2"
  type: "InnerProduct"
  bottom: "ip1"
  top: "ip2"
  param {
    lr_mult: 1
  }
  param {
    lr_mult: 2
  }
  inner_product_param {
    num_output: 60
    weight_filler {
      type: "gaussian"
      std: 0.01
    }
    bias_filler {
      type: "constant"
    }
  }
}
layer {
  name: "relu2"
  type: "ReLU"
  bottom: "ip2"
  top: "ip2"
}
layer {
  name: "ip3"
  type: "InnerProduct"
  bottom: "ip2"
  top: "ip3"
  param {
    lr_mult: 1
  }
  param {
    lr_mult: 2
  }
  inner_product_param {
    num_output: 10
    weight_filler {
      type: "gaussian"
      std: 0.01
    }
    bias_filler {
      type: "constant"
    }
  }
}
layer {
  name: "loss"
  type: "SoftmaxWithLoss"
  bottom: "ip3"
  bottom: "label"
  top: "loss"
}
I0504 09:12:02.266791 23155 layer_factory.hpp:77] Creating layer cifar
I0504 09:12:02.266891 23155 db_lmdb.cpp:35] Opened lmdb examples/cifar10/cifar10_train_lmdb
I0504 09:12:02.266921 23155 net.cpp:86] Creating Layer cifar
I0504 09:12:02.266928 23155 net.cpp:382] cifar -> data
I0504 09:12:02.266952 23155 net.cpp:382] cifar -> label
I0504 09:12:02.266963 23155 data_transformer.cpp:25] Loading mean file from: examples/cifar10/mean.binaryproto
I0504 09:12:02.269074 23155 data_layer.cpp:45] output data size: 111,3,32,32
I0504 09:12:02.276957 23155 net.cpp:124] Setting up cifar
I0504 09:12:02.276978 23155 net.cpp:131] Top shape: 111 3 32 32 (340992)
I0504 09:12:02.276983 23155 net.cpp:131] Top shape: 111 (111)
I0504 09:12:02.276988 23155 net.cpp:139] Memory required for data: 1364412
I0504 09:12:02.276996 23155 layer_factory.hpp:77] Creating layer conv0
I0504 09:12:02.277014 23155 net.cpp:86] Creating Layer conv0
I0504 09:12:02.277019 23155 net.cpp:408] conv0 <- data
I0504 09:12:02.277031 23155 net.cpp:382] conv0 -> conv0
I0504 09:12:02.568647 23155 net.cpp:124] Setting up conv0
I0504 09:12:02.568677 23155 net.cpp:131] Top shape: 111 24 34 34 (3079584)
I0504 09:12:02.568682 23155 net.cpp:139] Memory required for data: 13682748
I0504 09:12:02.568698 23155 layer_factory.hpp:77] Creating layer Sigmoid0
I0504 09:12:02.568711 23155 net.cpp:86] Creating Layer Sigmoid0
I0504 09:12:02.568717 23155 net.cpp:408] Sigmoid0 <- conv0
I0504 09:12:02.568722 23155 net.cpp:382] Sigmoid0 -> Sigmoid0
I0504 09:12:02.568944 23155 net.cpp:124] Setting up Sigmoid0
I0504 09:12:02.568956 23155 net.cpp:131] Top shape: 111 24 34 34 (3079584)
I0504 09:12:02.568960 23155 net.cpp:139] Memory required for data: 26001084
I0504 09:12:02.568964 23155 layer_factory.hpp:77] Creating layer pool0
I0504 09:12:02.568972 23155 net.cpp:86] Creating Layer pool0
I0504 09:12:02.568984 23155 net.cpp:408] pool0 <- Sigmoid0
I0504 09:12:02.568989 23155 net.cpp:382] pool0 -> pool0
I0504 09:12:02.569792 23155 net.cpp:124] Setting up pool0
I0504 09:12:02.569805 23155 net.cpp:131] Top shape: 111 24 17 17 (769896)
I0504 09:12:02.569809 23155 net.cpp:139] Memory required for data: 29080668
I0504 09:12:02.569813 23155 layer_factory.hpp:77] Creating layer conv1
I0504 09:12:02.569825 23155 net.cpp:86] Creating Layer conv1
I0504 09:12:02.569829 23155 net.cpp:408] conv1 <- pool0
I0504 09:12:02.569836 23155 net.cpp:382] conv1 -> conv1
I0504 09:12:02.573029 23155 net.cpp:124] Setting up conv1
I0504 09:12:02.573045 23155 net.cpp:131] Top shape: 111 72 19 19 (2885112)
I0504 09:12:02.573048 23155 net.cpp:139] Memory required for data: 40621116
I0504 09:12:02.573060 23155 layer_factory.hpp:77] Creating layer Sigmoid1
I0504 09:12:02.573065 23155 net.cpp:86] Creating Layer Sigmoid1
I0504 09:12:02.573068 23155 net.cpp:408] Sigmoid1 <- conv1
I0504 09:12:02.573076 23155 net.cpp:382] Sigmoid1 -> Sigmoid1
I0504 09:12:02.573266 23155 net.cpp:124] Setting up Sigmoid1
I0504 09:12:02.573276 23155 net.cpp:131] Top shape: 111 72 19 19 (2885112)
I0504 09:12:02.573281 23155 net.cpp:139] Memory required for data: 52161564
I0504 09:12:02.573283 23155 layer_factory.hpp:77] Creating layer pool1
I0504 09:12:02.573292 23155 net.cpp:86] Creating Layer pool1
I0504 09:12:02.573295 23155 net.cpp:408] pool1 <- Sigmoid1
I0504 09:12:02.573299 23155 net.cpp:382] pool1 -> pool1
I0504 09:12:02.573484 23155 net.cpp:124] Setting up pool1
I0504 09:12:02.573493 23155 net.cpp:131] Top shape: 111 72 9 9 (647352)
I0504 09:12:02.573496 23155 net.cpp:139] Memory required for data: 54750972
I0504 09:12:02.573499 23155 layer_factory.hpp:77] Creating layer ip1
I0504 09:12:02.573511 23155 net.cpp:86] Creating Layer ip1
I0504 09:12:02.573514 23155 net.cpp:408] ip1 <- pool1
I0504 09:12:02.573520 23155 net.cpp:382] ip1 -> ip1
I0504 09:12:02.584142 23155 net.cpp:124] Setting up ip1
I0504 09:12:02.584156 23155 net.cpp:131] Top shape: 111 60 (6660)
I0504 09:12:02.584175 23155 net.cpp:139] Memory required for data: 54777612
I0504 09:12:02.584184 23155 layer_factory.hpp:77] Creating layer relu1
I0504 09:12:02.584192 23155 net.cpp:86] Creating Layer relu1
I0504 09:12:02.584195 23155 net.cpp:408] relu1 <- ip1
I0504 09:12:02.584203 23155 net.cpp:369] relu1 -> ip1 (in-place)
I0504 09:12:02.584416 23155 net.cpp:124] Setting up relu1
I0504 09:12:02.584426 23155 net.cpp:131] Top shape: 111 60 (6660)
I0504 09:12:02.584429 23155 net.cpp:139] Memory required for data: 54804252
I0504 09:12:02.584434 23155 layer_factory.hpp:77] Creating layer ip2
I0504 09:12:02.584441 23155 net.cpp:86] Creating Layer ip2
I0504 09:12:02.584444 23155 net.cpp:408] ip2 <- ip1
I0504 09:12:02.584463 23155 net.cpp:382] ip2 -> ip2
I0504 09:12:02.584692 23155 net.cpp:124] Setting up ip2
I0504 09:12:02.584702 23155 net.cpp:131] Top shape: 111 60 (6660)
I0504 09:12:02.584705 23155 net.cpp:139] Memory required for data: 54830892
I0504 09:12:02.584712 23155 layer_factory.hpp:77] Creating layer relu2
I0504 09:12:02.584717 23155 net.cpp:86] Creating Layer relu2
I0504 09:12:02.584720 23155 net.cpp:408] relu2 <- ip2
I0504 09:12:02.584725 23155 net.cpp:369] relu2 -> ip2 (in-place)
I0504 09:12:02.585577 23155 net.cpp:124] Setting up relu2
I0504 09:12:02.585589 23155 net.cpp:131] Top shape: 111 60 (6660)
I0504 09:12:02.585593 23155 net.cpp:139] Memory required for data: 54857532
I0504 09:12:02.585597 23155 layer_factory.hpp:77] Creating layer ip3
I0504 09:12:02.585605 23155 net.cpp:86] Creating Layer ip3
I0504 09:12:02.585608 23155 net.cpp:408] ip3 <- ip2
I0504 09:12:02.585613 23155 net.cpp:382] ip3 -> ip3
I0504 09:12:02.585752 23155 net.cpp:124] Setting up ip3
I0504 09:12:02.585760 23155 net.cpp:131] Top shape: 111 10 (1110)
I0504 09:12:02.585763 23155 net.cpp:139] Memory required for data: 54861972
I0504 09:12:02.585773 23155 layer_factory.hpp:77] Creating layer loss
I0504 09:12:02.585779 23155 net.cpp:86] Creating Layer loss
I0504 09:12:02.585783 23155 net.cpp:408] loss <- ip3
I0504 09:12:02.585786 23155 net.cpp:408] loss <- label
I0504 09:12:02.585791 23155 net.cpp:382] loss -> loss
I0504 09:12:02.585808 23155 layer_factory.hpp:77] Creating layer loss
…
I0504 09:12:02.586532 23155 solver.cpp:173] Creating test net (#0) specified by net file: ECE595/cifar/train_test/var_everything_tiny/cifar_train_test_115.prototxt
I0504 09:12:02.586560 23155 net.cpp:296] The NetState phase (1) differed from the phase (0) specified by a rule in layer cifar
I0504 09:12:02.586661 23155 net.cpp:53] Initializing net from parameters: 
name: "CIFAR"
state {
  phase: TEST
}
layer {
  name: "cifar"
  type: "Data"
  top: "data"
  top: "label"
  include {
    phase: TEST
  }
  transform_param {
    mean_file: "examples/cifar10/mean.binaryproto"
  }
  data_param {
    source: "examples/cifar10/cifar10_test_lmdb"
    batch_size: 1000
    backend: LMDB
  }
}
layer {
  name: "conv0"
  type: "Convolution"
  bottom: "data"
  top: "conv0"
  param {
    lr_mult: 1
  }
  param {
    lr_mult: 2
  }
  convolution_param {
    num_output: 24
    pad: 2
    kernel_size: 3
    stride: 1
    weight_filler {
      type: "gaussian"
      std: 0.01
    }
    bias_filler {
      type: "constant"
    }
  }
}
layer {
  name: "Sigmoid0"
  type: "Sigmoid"
  bottom: "conv0"
  top: "Sigmoid0"
}
layer {
  name: "pool0"
  type: "Pooling"
  bottom: "Sigmoid0"
  top: "pool0"
  pooling_param {
    pool: AVE
    kernel_size: 3
    stride: 2
  }
}
layer {
  name: "conv1"
  type: "Convolution"
  bottom: "pool0"
  top: "conv1"
  param {
    lr_mult: 1
  }
  param {
    lr_mult: 2
  }
  convolution_param {
    num_output: 72
    pad: 2
    kernel_size: 3
    stride: 1
    weight_filler {
      type: "gaussian"
      std: 0.01
    }
    bias_filler {
      type: "constant"
    }
  }
}
layer {
  name: "Sigmoid1"
  type: "Sigmoid"
  bottom: "conv1"
  top: "Sigmoid1"
}
layer {
  name: "pool1"
  type: "Pooling"
  bottom: "Sigmoid1"
  top: "pool1"
  pooling_param {
    pool: AVE
    kernel_size: 3
    stride: 2
  }
}
layer {
  name: "ip1"
  type: "InnerProduct"
  bottom: "pool1"
  top: "ip1"
  param {
    lr_mult: 1
  }
  param {
    lr_mult: 2
  }
  inner_product_param {
    num_output: 60
    weight_filler {
      type: "gaussian"
      std: 0.01
    }
    bias_filler {
      type: "constant"
    }
  }
}
layer {
  name: "relu1"
  type: "ReLU"
  bottom: "ip1"
  top: "ip1"
}
layer {
  name: "ip2"
  type: "InnerProduct"
  bottom: "ip1"
  top: "ip2"
  param {
    lr_mult: 1
  }
  param {
    lr_mult: 2
  }
  inner_product_param {
    num_output: 60
    weight_filler {
      type: "gaussian"
      std: 0.01
    }
    bias_filler {
      type: "constant"
    }
  }
}
layer {
  name: "relu2"
  type: "ReLU"
  bottom: "ip2"
  top: "ip2"
}
layer {
  name: "ip3"
  type: "InnerProduct"
  bottom: "ip2"
  top: "ip3"
  param {
    lr_mult: 1
  }
  param {
    lr_mult: 2
  }
  inner_product_param {
    num_output: 10
    weight_filler {
      type: "gaussian"
      std: 0.01
    }
    bias_filler {
      type: "constant"
    }
  }
}
layer {
  name: "accuracy"
  type: "Accuracy"
  bottom: "ip3"
  bottom: "label"
  top: "accuracy"
  include {
    phase: TEST
  }
}
layer {
  name: "loss"
  type: "SoftmaxWithLoss"
  bottom: "ip3"
  bottom: "label"
  top: "loss"
}
I0504 09:12:02.586748 23155 layer_factory.hpp:77] Creating layer cifar
I0504 09:12:02.586796 23155 db_lmdb.cpp:35] Opened lmdb examples/cifar10/cifar10_test_lmdb
I0504 09:12:02.586809 23155 net.cpp:86] Creating Layer cifar
I0504 09:12:02.586815 23155 net.cpp:382] cifar -> data
I0504 09:12:02.586822 23155 net.cpp:382] cifar -> label
I0504 09:12:02.586829 23155 data_transformer.cpp:25] Loading mean file from: examples/cifar10/mean.binaryproto
I0504 09:12:02.586978 23155 data_layer.cpp:45] output data size: 1000,3,32,32
I0504 09:12:02.609237 23155 net.cpp:124] Setting up cifar
I0504 09:12:02.609266 23155 net.cpp:131] Top shape: 1000 3 32 32 (3072000)
I0504 09:12:02.609272 23155 net.cpp:131] Top shape: 1000 (1000)
I0504 09:12:02.609274 23155 net.cpp:139] Memory required for data: 12292000
I0504 09:12:02.609279 23155 layer_factory.hpp:77] Creating layer label_cifar_1_split
I0504 09:12:02.609295 23155 net.cpp:86] Creating Layer label_cifar_1_split
I0504 09:12:02.609298 23155 net.cpp:408] label_cifar_1_split <- label
I0504 09:12:02.609305 23155 net.cpp:382] label_cifar_1_split -> label_cifar_1_split_0
I0504 09:12:02.609314 23155 net.cpp:382] label_cifar_1_split -> label_cifar_1_split_1
I0504 09:12:02.609416 23155 net.cpp:124] Setting up label_cifar_1_split
I0504 09:12:02.609426 23155 net.cpp:131] Top shape: 1000 (1000)
I0504 09:12:02.609429 23155 net.cpp:131] Top shape: 1000 (1000)
I0504 09:12:02.609432 23155 net.cpp:139] Memory required for data: 12300000
I0504 09:12:02.609436 23155 layer_factory.hpp:77] Creating layer conv0
I0504 09:12:02.609449 23155 net.cpp:86] Creating Layer conv0
I0504 09:12:02.609454 23155 net.cpp:408] conv0 <- data
I0504 09:12:02.609460 23155 net.cpp:382] conv0 -> conv0
I0504 09:12:02.611137 23155 net.cpp:124] Setting up conv0
I0504 09:12:02.611152 23155 net.cpp:131] Top shape: 1000 24 34 34 (27744000)
I0504 09:12:02.611156 23155 net.cpp:139] Memory required for data: 123276000
I0504 09:12:02.611166 23155 layer_factory.hpp:77] Creating layer Sigmoid0
I0504 09:12:02.611171 23155 net.cpp:86] Creating Layer Sigmoid0
I0504 09:12:02.611174 23155 net.cpp:408] Sigmoid0 <- conv0
I0504 09:12:02.611181 23155 net.cpp:382] Sigmoid0 -> Sigmoid0
I0504 09:12:02.611378 23155 net.cpp:124] Setting up Sigmoid0
I0504 09:12:02.611400 23155 net.cpp:131] Top shape: 1000 24 34 34 (27744000)
I0504 09:12:02.611404 23155 net.cpp:139] Memory required for data: 234252000
I0504 09:12:02.611407 23155 layer_factory.hpp:77] Creating layer pool0
I0504 09:12:02.611416 23155 net.cpp:86] Creating Layer pool0
I0504 09:12:02.611423 23155 net.cpp:408] pool0 <- Sigmoid0
I0504 09:12:02.611428 23155 net.cpp:382] pool0 -> pool0
I0504 09:12:02.611603 23155 net.cpp:124] Setting up pool0
I0504 09:12:02.611613 23155 net.cpp:131] Top shape: 1000 24 17 17 (6936000)
I0504 09:12:02.611616 23155 net.cpp:139] Memory required for data: 261996000
I0504 09:12:02.611619 23155 layer_factory.hpp:77] Creating layer conv1
I0504 09:12:02.611630 23155 net.cpp:86] Creating Layer conv1
I0504 09:12:02.611637 23155 net.cpp:408] conv1 <- pool0
I0504 09:12:02.611644 23155 net.cpp:382] conv1 -> conv1
I0504 09:12:02.614069 23155 net.cpp:124] Setting up conv1
I0504 09:12:02.614084 23155 net.cpp:131] Top shape: 1000 72 19 19 (25992000)
I0504 09:12:02.614087 23155 net.cpp:139] Memory required for data: 365964000
I0504 09:12:02.614097 23155 layer_factory.hpp:77] Creating layer Sigmoid1
I0504 09:12:02.614105 23155 net.cpp:86] Creating Layer Sigmoid1
I0504 09:12:02.614109 23155 net.cpp:408] Sigmoid1 <- conv1
I0504 09:12:02.614114 23155 net.cpp:382] Sigmoid1 -> Sigmoid1
I0504 09:12:02.614305 23155 net.cpp:124] Setting up Sigmoid1
I0504 09:12:02.614315 23155 net.cpp:131] Top shape: 1000 72 19 19 (25992000)
I0504 09:12:02.614320 23155 net.cpp:139] Memory required for data: 469932000
I0504 09:12:02.614323 23155 layer_factory.hpp:77] Creating layer pool1
I0504 09:12:02.614329 23155 net.cpp:86] Creating Layer pool1
I0504 09:12:02.614332 23155 net.cpp:408] pool1 <- Sigmoid1
I0504 09:12:02.614337 23155 net.cpp:382] pool1 -> pool1
I0504 09:12:02.615090 23155 net.cpp:124] Setting up pool1
I0504 09:12:02.615103 23155 net.cpp:131] Top shape: 1000 72 9 9 (5832000)
I0504 09:12:02.615106 23155 net.cpp:139] Memory required for data: 493260000
I0504 09:12:02.615109 23155 layer_factory.hpp:77] Creating layer ip1
I0504 09:12:02.615118 23155 net.cpp:86] Creating Layer ip1
I0504 09:12:02.615121 23155 net.cpp:408] ip1 <- pool1
I0504 09:12:02.615128 23155 net.cpp:382] ip1 -> ip1
I0504 09:12:02.625286 23155 net.cpp:124] Setting up ip1
I0504 09:12:02.625300 23155 net.cpp:131] Top shape: 1000 60 (60000)
I0504 09:12:02.625303 23155 net.cpp:139] Memory required for data: 493500000
I0504 09:12:02.625313 23155 layer_factory.hpp:77] Creating layer relu1
I0504 09:12:02.625319 23155 net.cpp:86] Creating Layer relu1
I0504 09:12:02.625321 23155 net.cpp:408] relu1 <- ip1
I0504 09:12:02.625327 23155 net.cpp:369] relu1 -> ip1 (in-place)
I0504 09:12:02.625516 23155 net.cpp:124] Setting up relu1
I0504 09:12:02.625525 23155 net.cpp:131] Top shape: 1000 60 (60000)
I0504 09:12:02.625529 23155 net.cpp:139] Memory required for data: 493740000
I0504 09:12:02.625532 23155 layer_factory.hpp:77] Creating layer ip2
I0504 09:12:02.625540 23155 net.cpp:86] Creating Layer ip2
I0504 09:12:02.625543 23155 net.cpp:408] ip2 <- ip1
I0504 09:12:02.625548 23155 net.cpp:382] ip2 -> ip2
I0504 09:12:02.625761 23155 net.cpp:124] Setting up ip2
I0504 09:12:02.625769 23155 net.cpp:131] Top shape: 1000 60 (60000)
I0504 09:12:02.625772 23155 net.cpp:139] Memory required for data: 493980000
I0504 09:12:02.625777 23155 layer_factory.hpp:77] Creating layer relu2
I0504 09:12:02.625784 23155 net.cpp:86] Creating Layer relu2
I0504 09:12:02.625789 23155 net.cpp:408] relu2 <- ip2
I0504 09:12:02.625810 23155 net.cpp:369] relu2 -> ip2 (in-place)
I0504 09:12:02.625995 23155 net.cpp:124] Setting up relu2
I0504 09:12:02.626005 23155 net.cpp:131] Top shape: 1000 60 (60000)
I0504 09:12:02.626008 23155 net.cpp:139] Memory required for data: 494220000
I0504 09:12:02.626013 23155 layer_factory.hpp:77] Creating layer ip3
I0504 09:12:02.626019 23155 net.cpp:86] Creating Layer ip3
I0504 09:12:02.626024 23155 net.cpp:408] ip3 <- ip2
I0504 09:12:02.626029 23155 net.cpp:382] ip3 -> ip3
I0504 09:12:02.626179 23155 net.cpp:124] Setting up ip3
I0504 09:12:02.626188 23155 net.cpp:131] Top shape: 1000 10 (10000)
I0504 09:12:02.626201 23155 net.cpp:139] Memory required for data: 494260000
I0504 09:12:02.626210 23155 layer_factory.hpp:77] Creating layer ip3_ip3_0_split
I0504 09:12:02.626216 23155 net.cpp:86] Creating Layer ip3_ip3_0_split
I0504 09:12:02.626222 23155 net.cpp:408] ip3_ip3_0_split <- ip3
I0504 09:12:02.626227 23155 net.cpp:382] ip3_ip3_0_split -> ip3_ip3_0_split_0
I0504 09:12:02.626233 23155 net.cpp:382] ip3_ip3_0_split -> ip3_ip3_0_split_1
I0504 09:12:02.626269 23155 net.cpp:124] Setting up ip3_ip3_0_split
I0504 09:12:02.626276 23155 net.cpp:131] Top shape: 1000 10 (10000)
I0504 09:12:02.626281 23155 net.cpp:131] Top shape: 1000 10 (10000)
I0504 09:12:02.626284 23155 net.cpp:139] Memory required for data: 494340000
I0504 09:12:02.626287 23155 layer_factory.hpp:77] Creating layer accuracy
I0504 09:12:02.626294 23155 net.cpp:86] Creating Layer accuracy
I0504 09:12:02.626298 23155 net.cpp:408] accuracy <- ip3_ip3_0_split_0
I0504 09:12:02.626302 23155 net.cpp:408] accuracy <- label_cifar_1_split_0
I0504 09:12:02.626307 23155 net.cpp:382] accuracy -> accuracy
…
