…
I0504 12:07:04.186667 28473 net.cpp:296] The NetState phase (0) differed from the phase (1) specified by a rule in layer cifar
I0504 12:07:04.186686 28473 net.cpp:296] The NetState phase (0) differed from the phase (1) specified by a rule in layer accuracy
I0504 12:07:04.186792 28473 net.cpp:53] Initializing net from parameters: 
name: "CIFAR"
state {
  phase: TRAIN
  level: 0
  stage: ""
}
layer {
  name: "cifar"
  type: "Data"
  top: "data"
  top: "label"
  include {
    phase: TRAIN
  }
  transform_param {
    mean_file: "examples/cifar10/mean.binaryproto"
  }
  data_param {
    source: "examples/cifar10/cifar10_train_lmdb"
    batch_size: 111
    backend: LMDB
  }
}
layer {
  name: "conv0"
  type: "Convolution"
  bottom: "data"
  top: "conv0"
  param {
    lr_mult: 1
  }
  param {
    lr_mult: 2
  }
  convolution_param {
    num_output: 24
    pad: 2
    kernel_size: 3
    stride: 1
    weight_filler {
      type: "gaussian"
      std: 0.01
    }
    bias_filler {
      type: "constant"
    }
  }
}
layer {
  name: "Sigmoid0"
  type: "Sigmoid"
  bottom: "conv0"
  top: "Sigmoid0"
}
layer {
  name: "pool0"
  type: "Pooling"
  bottom: "Sigmoid0"
  top: "pool0"
  pooling_param {
    pool: AVE
    kernel_size: 3
    stride: 2
  }
}
layer {
  name: "conv1"
  type: "Convolution"
  bottom: "pool0"
  top: "conv1"
  param {
    lr_mult: 1
  }
  param {
    lr_mult: 2
  }
  convolution_param {
    num_output: 216
    pad: 2
    kernel_size: 3
    stride: 1
    weight_filler {
      type: "gaussian"
      std: 0.01
    }
    bias_filler {
      type: "constant"
    }
  }
}
layer {
  name: "Sigmoid1"
  type: "Sigmoid"
  bottom: "conv1"
  top: "Sigmoid1"
}
layer {
  name: "pool1"
  type: "Pooling"
  bottom: "Sigmoid1"
  top: "pool1"
  pooling_param {
    pool: AVE
    kernel_size: 3
    stride: 2
  }
}
layer {
  name: "ip1"
  type: "InnerProduct"
  bottom: "pool1"
  top: "ip1"
  param {
    lr_mult: 1
  }
  param {
    lr_mult: 2
  }
  inner_product_param {
    num_output: 60
    weight_filler {
      type: "gaussian"
      std: 0.01
    }
    bias_filler {
      type: "constant"
    }
  }
}
layer {
  name: "relu1"
  type: "ReLU"
  bottom: "ip1"
  top: "ip1"
}
layer {
  name: "ip2"
  type: "InnerProduct"
  bottom: "ip1"
  top: "ip2"
  param {
    lr_mult: 1
  }
  param {
    lr_mult: 2
  }
  inner_product_param {
    num_output: 180
    weight_filler {
      type: "gaussian"
      std: 0.01
    }
    bias_filler {
      type: "constant"
    }
  }
}
layer {
  name: "relu2"
  type: "ReLU"
  bottom: "ip2"
  top: "ip2"
}
layer {
  name: "ip3"
  type: "InnerProduct"
  bottom: "ip2"
  top: "ip3"
  param {
    lr_mult: 1
  }
  param {
    lr_mult: 2
  }
  inner_product_param {
    num_output: 10
    weight_filler {
      type: "gaussian"
      std: 0.01
    }
    bias_filler {
      type: "constant"
    }
  }
}
layer {
  name: "loss"
  type: "SoftmaxWithLoss"
  bottom: "ip3"
  bottom: "label"
  top: "loss"
}
I0504 12:07:04.186869 28473 layer_factory.hpp:77] Creating layer cifar
I0504 12:07:04.186969 28473 db_lmdb.cpp:35] Opened lmdb examples/cifar10/cifar10_train_lmdb
I0504 12:07:04.186996 28473 net.cpp:86] Creating Layer cifar
I0504 12:07:04.187005 28473 net.cpp:382] cifar -> data
I0504 12:07:04.187026 28473 net.cpp:382] cifar -> label
I0504 12:07:04.187039 28473 data_transformer.cpp:25] Loading mean file from: examples/cifar10/mean.binaryproto
I0504 12:07:04.189215 28473 data_layer.cpp:45] output data size: 111,3,32,32
I0504 12:07:04.197213 28473 net.cpp:124] Setting up cifar
I0504 12:07:04.197232 28473 net.cpp:131] Top shape: 111 3 32 32 (340992)
I0504 12:07:04.197239 28473 net.cpp:131] Top shape: 111 (111)
I0504 12:07:04.197243 28473 net.cpp:139] Memory required for data: 1364412
I0504 12:07:04.197252 28473 layer_factory.hpp:77] Creating layer conv0
I0504 12:07:04.197269 28473 net.cpp:86] Creating Layer conv0
I0504 12:07:04.197275 28473 net.cpp:408] conv0 <- data
I0504 12:07:04.197288 28473 net.cpp:382] conv0 -> conv0
I0504 12:07:04.473914 28473 net.cpp:124] Setting up conv0
I0504 12:07:04.473940 28473 net.cpp:131] Top shape: 111 24 34 34 (3079584)
I0504 12:07:04.473944 28473 net.cpp:139] Memory required for data: 13682748
I0504 12:07:04.473958 28473 layer_factory.hpp:77] Creating layer Sigmoid0
I0504 12:07:04.473969 28473 net.cpp:86] Creating Layer Sigmoid0
I0504 12:07:04.473989 28473 net.cpp:408] Sigmoid0 <- conv0
I0504 12:07:04.473994 28473 net.cpp:382] Sigmoid0 -> Sigmoid0
I0504 12:07:04.474169 28473 net.cpp:124] Setting up Sigmoid0
I0504 12:07:04.474179 28473 net.cpp:131] Top shape: 111 24 34 34 (3079584)
I0504 12:07:04.474181 28473 net.cpp:139] Memory required for data: 26001084
I0504 12:07:04.474185 28473 layer_factory.hpp:77] Creating layer pool0
I0504 12:07:04.474191 28473 net.cpp:86] Creating Layer pool0
I0504 12:07:04.474195 28473 net.cpp:408] pool0 <- Sigmoid0
I0504 12:07:04.474200 28473 net.cpp:382] pool0 -> pool0
I0504 12:07:04.474957 28473 net.cpp:124] Setting up pool0
I0504 12:07:04.474970 28473 net.cpp:131] Top shape: 111 24 17 17 (769896)
I0504 12:07:04.474989 28473 net.cpp:139] Memory required for data: 29080668
I0504 12:07:04.474992 28473 layer_factory.hpp:77] Creating layer conv1
I0504 12:07:04.475019 28473 net.cpp:86] Creating Layer conv1
I0504 12:07:04.475023 28473 net.cpp:408] conv1 <- pool0
I0504 12:07:04.475028 28473 net.cpp:382] conv1 -> conv1
I0504 12:07:04.478827 28473 net.cpp:124] Setting up conv1
I0504 12:07:04.478840 28473 net.cpp:131] Top shape: 111 216 19 19 (8655336)
I0504 12:07:04.478843 28473 net.cpp:139] Memory required for data: 63702012
I0504 12:07:04.478852 28473 layer_factory.hpp:77] Creating layer Sigmoid1
I0504 12:07:04.478857 28473 net.cpp:86] Creating Layer Sigmoid1
I0504 12:07:04.478860 28473 net.cpp:408] Sigmoid1 <- conv1
I0504 12:07:04.478865 28473 net.cpp:382] Sigmoid1 -> Sigmoid1
I0504 12:07:04.479065 28473 net.cpp:124] Setting up Sigmoid1
I0504 12:07:04.479074 28473 net.cpp:131] Top shape: 111 216 19 19 (8655336)
I0504 12:07:04.479079 28473 net.cpp:139] Memory required for data: 98323356
I0504 12:07:04.479081 28473 layer_factory.hpp:77] Creating layer pool1
I0504 12:07:04.479086 28473 net.cpp:86] Creating Layer pool1
I0504 12:07:04.479090 28473 net.cpp:408] pool1 <- Sigmoid1
I0504 12:07:04.479094 28473 net.cpp:382] pool1 -> pool1
I0504 12:07:04.479250 28473 net.cpp:124] Setting up pool1
I0504 12:07:04.479259 28473 net.cpp:131] Top shape: 111 216 9 9 (1942056)
I0504 12:07:04.479262 28473 net.cpp:139] Memory required for data: 106091580
I0504 12:07:04.479265 28473 layer_factory.hpp:77] Creating layer ip1
I0504 12:07:04.479272 28473 net.cpp:86] Creating Layer ip1
I0504 12:07:04.479275 28473 net.cpp:408] ip1 <- pool1
I0504 12:07:04.479280 28473 net.cpp:382] ip1 -> ip1
I0504 12:07:04.507452 28473 net.cpp:124] Setting up ip1
I0504 12:07:04.507463 28473 net.cpp:131] Top shape: 111 60 (6660)
I0504 12:07:04.507483 28473 net.cpp:139] Memory required for data: 106118220
I0504 12:07:04.507489 28473 layer_factory.hpp:77] Creating layer relu1
I0504 12:07:04.507513 28473 net.cpp:86] Creating Layer relu1
I0504 12:07:04.507515 28473 net.cpp:408] relu1 <- ip1
I0504 12:07:04.507520 28473 net.cpp:369] relu1 -> ip1 (in-place)
I0504 12:07:04.507695 28473 net.cpp:124] Setting up relu1
I0504 12:07:04.507704 28473 net.cpp:131] Top shape: 111 60 (6660)
I0504 12:07:04.507707 28473 net.cpp:139] Memory required for data: 106144860
I0504 12:07:04.507710 28473 layer_factory.hpp:77] Creating layer ip2
I0504 12:07:04.507716 28473 net.cpp:86] Creating Layer ip2
I0504 12:07:04.507720 28473 net.cpp:408] ip2 <- ip1
I0504 12:07:04.507740 28473 net.cpp:382] ip2 -> ip2
I0504 12:07:04.509068 28473 net.cpp:124] Setting up ip2
I0504 12:07:04.509079 28473 net.cpp:131] Top shape: 111 180 (19980)
I0504 12:07:04.509099 28473 net.cpp:139] Memory required for data: 106224780
I0504 12:07:04.509105 28473 layer_factory.hpp:77] Creating layer relu2
I0504 12:07:04.509110 28473 net.cpp:86] Creating Layer relu2
I0504 12:07:04.509114 28473 net.cpp:408] relu2 <- ip2
I0504 12:07:04.509119 28473 net.cpp:369] relu2 -> ip2 (in-place)
I0504 12:07:04.509891 28473 net.cpp:124] Setting up relu2
I0504 12:07:04.509902 28473 net.cpp:131] Top shape: 111 180 (19980)
I0504 12:07:04.509920 28473 net.cpp:139] Memory required for data: 106304700
I0504 12:07:04.509924 28473 layer_factory.hpp:77] Creating layer ip3
I0504 12:07:04.509932 28473 net.cpp:86] Creating Layer ip3
I0504 12:07:04.509934 28473 net.cpp:408] ip3 <- ip2
I0504 12:07:04.509939 28473 net.cpp:382] ip3 -> ip3
I0504 12:07:04.510116 28473 net.cpp:124] Setting up ip3
I0504 12:07:04.510124 28473 net.cpp:131] Top shape: 111 10 (1110)
I0504 12:07:04.510128 28473 net.cpp:139] Memory required for data: 106309140
I0504 12:07:04.510135 28473 layer_factory.hpp:77] Creating layer loss
I0504 12:07:04.510140 28473 net.cpp:86] Creating Layer loss
I0504 12:07:04.510143 28473 net.cpp:408] loss <- ip3
I0504 12:07:04.510148 28473 net.cpp:408] loss <- label
I0504 12:07:04.510152 28473 net.cpp:382] loss -> loss
I0504 12:07:04.510169 28473 layer_factory.hpp:77] Creating layer loss
…
I0504 12:07:04.510823 28473 solver.cpp:173] Creating test net (#0) specified by net file: ECE595/cifar/train_test/var_everything_tiny/cifar_train_test_152.prototxt
I0504 12:07:04.510880 28473 net.cpp:296] The NetState phase (1) differed from the phase (0) specified by a rule in layer cifar
I0504 12:07:04.510990 28473 net.cpp:53] Initializing net from parameters: 
name: "CIFAR"
state {
  phase: TEST
}
layer {
  name: "cifar"
  type: "Data"
  top: "data"
  top: "label"
  include {
    phase: TEST
  }
  transform_param {
    mean_file: "examples/cifar10/mean.binaryproto"
  }
  data_param {
    source: "examples/cifar10/cifar10_test_lmdb"
    batch_size: 1000
    backend: LMDB
  }
}
layer {
  name: "conv0"
  type: "Convolution"
  bottom: "data"
  top: "conv0"
  param {
    lr_mult: 1
  }
  param {
    lr_mult: 2
  }
  convolution_param {
    num_output: 24
    pad: 2
    kernel_size: 3
    stride: 1
    weight_filler {
      type: "gaussian"
      std: 0.01
    }
    bias_filler {
      type: "constant"
    }
  }
}
layer {
  name: "Sigmoid0"
  type: "Sigmoid"
  bottom: "conv0"
  top: "Sigmoid0"
}
layer {
  name: "pool0"
  type: "Pooling"
  bottom: "Sigmoid0"
  top: "pool0"
  pooling_param {
    pool: AVE
    kernel_size: 3
    stride: 2
  }
}
layer {
  name: "conv1"
  type: "Convolution"
  bottom: "pool0"
  top: "conv1"
  param {
    lr_mult: 1
  }
  param {
    lr_mult: 2
  }
  convolution_param {
    num_output: 216
    pad: 2
    kernel_size: 3
    stride: 1
    weight_filler {
      type: "gaussian"
      std: 0.01
    }
    bias_filler {
      type: "constant"
    }
  }
}
layer {
  name: "Sigmoid1"
  type: "Sigmoid"
  bottom: "conv1"
  top: "Sigmoid1"
}
layer {
  name: "pool1"
  type: "Pooling"
  bottom: "Sigmoid1"
  top: "pool1"
  pooling_param {
    pool: AVE
    kernel_size: 3
    stride: 2
  }
}
layer {
  name: "ip1"
  type: "InnerProduct"
  bottom: "pool1"
  top: "ip1"
  param {
    lr_mult: 1
  }
  param {
    lr_mult: 2
  }
  inner_product_param {
    num_output: 60
    weight_filler {
      type: "gaussian"
      std: 0.01
    }
    bias_filler {
      type: "constant"
    }
  }
}
layer {
  name: "relu1"
  type: "ReLU"
  bottom: "ip1"
  top: "ip1"
}
layer {
  name: "ip2"
  type: "InnerProduct"
  bottom: "ip1"
  top: "ip2"
  param {
    lr_mult: 1
  }
  param {
    lr_mult: 2
  }
  inner_product_param {
    num_output: 180
    weight_filler {
      type: "gaussian"
      std: 0.01
    }
    bias_filler {
      type: "constant"
    }
  }
}
layer {
  name: "relu2"
  type: "ReLU"
  bottom: "ip2"
  top: "ip2"
}
layer {
  name: "ip3"
  type: "InnerProduct"
  bottom: "ip2"
  top: "ip3"
  param {
    lr_mult: 1
  }
  param {
    lr_mult: 2
  }
  inner_product_param {
    num_output: 10
    weight_filler {
      type: "gaussian"
      std: 0.01
    }
    bias_filler {
      type: "constant"
    }
  }
}
layer {
  name: "accuracy"
  type: "Accuracy"
  bottom: "ip3"
  bottom: "label"
  top: "accuracy"
  include {
    phase: TEST
  }
}
layer {
  name: "loss"
  type: "SoftmaxWithLoss"
  bottom: "ip3"
  bottom: "label"
  top: "loss"
}
I0504 12:07:04.511071 28473 layer_factory.hpp:77] Creating layer cifar
I0504 12:07:04.511129 28473 db_lmdb.cpp:35] Opened lmdb examples/cifar10/cifar10_test_lmdb
I0504 12:07:04.511142 28473 net.cpp:86] Creating Layer cifar
I0504 12:07:04.511147 28473 net.cpp:382] cifar -> data
I0504 12:07:04.511153 28473 net.cpp:382] cifar -> label
I0504 12:07:04.511159 28473 data_transformer.cpp:25] Loading mean file from: examples/cifar10/mean.binaryproto
I0504 12:07:04.511296 28473 data_layer.cpp:45] output data size: 1000,3,32,32
I0504 12:07:04.533635 28473 net.cpp:124] Setting up cifar
I0504 12:07:04.533663 28473 net.cpp:131] Top shape: 1000 3 32 32 (3072000)
I0504 12:07:04.533668 28473 net.cpp:131] Top shape: 1000 (1000)
I0504 12:07:04.533671 28473 net.cpp:139] Memory required for data: 12292000
I0504 12:07:04.533677 28473 layer_factory.hpp:77] Creating layer label_cifar_1_split
I0504 12:07:04.533692 28473 net.cpp:86] Creating Layer label_cifar_1_split
I0504 12:07:04.533697 28473 net.cpp:408] label_cifar_1_split <- label
I0504 12:07:04.533704 28473 net.cpp:382] label_cifar_1_split -> label_cifar_1_split_0
I0504 12:07:04.533730 28473 net.cpp:382] label_cifar_1_split -> label_cifar_1_split_1
I0504 12:07:04.533833 28473 net.cpp:124] Setting up label_cifar_1_split
I0504 12:07:04.533841 28473 net.cpp:131] Top shape: 1000 (1000)
I0504 12:07:04.533845 28473 net.cpp:131] Top shape: 1000 (1000)
I0504 12:07:04.533849 28473 net.cpp:139] Memory required for data: 12300000
I0504 12:07:04.533852 28473 layer_factory.hpp:77] Creating layer conv0
I0504 12:07:04.533864 28473 net.cpp:86] Creating Layer conv0
I0504 12:07:04.533869 28473 net.cpp:408] conv0 <- data
I0504 12:07:04.533874 28473 net.cpp:382] conv0 -> conv0
I0504 12:07:04.535521 28473 net.cpp:124] Setting up conv0
I0504 12:07:04.535548 28473 net.cpp:131] Top shape: 1000 24 34 34 (27744000)
I0504 12:07:04.535552 28473 net.cpp:139] Memory required for data: 123276000
I0504 12:07:04.535562 28473 layer_factory.hpp:77] Creating layer Sigmoid0
I0504 12:07:04.535568 28473 net.cpp:86] Creating Layer Sigmoid0
I0504 12:07:04.535573 28473 net.cpp:408] Sigmoid0 <- conv0
I0504 12:07:04.535576 28473 net.cpp:382] Sigmoid0 -> Sigmoid0
I0504 12:07:04.535765 28473 net.cpp:124] Setting up Sigmoid0
I0504 12:07:04.535787 28473 net.cpp:131] Top shape: 1000 24 34 34 (27744000)
I0504 12:07:04.535790 28473 net.cpp:139] Memory required for data: 234252000
I0504 12:07:04.535794 28473 layer_factory.hpp:77] Creating layer pool0
I0504 12:07:04.535801 28473 net.cpp:86] Creating Layer pool0
I0504 12:07:04.535805 28473 net.cpp:408] pool0 <- Sigmoid0
I0504 12:07:04.535810 28473 net.cpp:382] pool0 -> pool0
I0504 12:07:04.535974 28473 net.cpp:124] Setting up pool0
I0504 12:07:04.535981 28473 net.cpp:131] Top shape: 1000 24 17 17 (6936000)
I0504 12:07:04.535984 28473 net.cpp:139] Memory required for data: 261996000
I0504 12:07:04.535987 28473 layer_factory.hpp:77] Creating layer conv1
I0504 12:07:04.535996 28473 net.cpp:86] Creating Layer conv1
I0504 12:07:04.536000 28473 net.cpp:408] conv1 <- pool0
I0504 12:07:04.536005 28473 net.cpp:382] conv1 -> conv1
I0504 12:07:04.538614 28473 net.cpp:124] Setting up conv1
I0504 12:07:04.538645 28473 net.cpp:131] Top shape: 1000 216 19 19 (77976000)
I0504 12:07:04.538648 28473 net.cpp:139] Memory required for data: 573900000
I0504 12:07:04.538656 28473 layer_factory.hpp:77] Creating layer Sigmoid1
I0504 12:07:04.538666 28473 net.cpp:86] Creating Layer Sigmoid1
I0504 12:07:04.538669 28473 net.cpp:408] Sigmoid1 <- conv1
I0504 12:07:04.538674 28473 net.cpp:382] Sigmoid1 -> Sigmoid1
I0504 12:07:04.538857 28473 net.cpp:124] Setting up Sigmoid1
I0504 12:07:04.538866 28473 net.cpp:131] Top shape: 1000 216 19 19 (77976000)
I0504 12:07:04.538869 28473 net.cpp:139] Memory required for data: 885804000
I0504 12:07:04.538873 28473 layer_factory.hpp:77] Creating layer pool1
I0504 12:07:04.538879 28473 net.cpp:86] Creating Layer pool1
I0504 12:07:04.538883 28473 net.cpp:408] pool1 <- Sigmoid1
I0504 12:07:04.538887 28473 net.cpp:382] pool1 -> pool1
I0504 12:07:04.539638 28473 net.cpp:124] Setting up pool1
I0504 12:07:04.539650 28473 net.cpp:131] Top shape: 1000 216 9 9 (17496000)
I0504 12:07:04.539669 28473 net.cpp:139] Memory required for data: 955788000
I0504 12:07:04.539674 28473 layer_factory.hpp:77] Creating layer ip1
I0504 12:07:04.539682 28473 net.cpp:86] Creating Layer ip1
I0504 12:07:04.539686 28473 net.cpp:408] ip1 <- pool1
I0504 12:07:04.539691 28473 net.cpp:382] ip1 -> ip1
I0504 12:07:04.569231 28473 net.cpp:124] Setting up ip1
I0504 12:07:04.569248 28473 net.cpp:131] Top shape: 1000 60 (60000)
I0504 12:07:04.569252 28473 net.cpp:139] Memory required for data: 956028000
I0504 12:07:04.569277 28473 layer_factory.hpp:77] Creating layer relu1
I0504 12:07:04.569284 28473 net.cpp:86] Creating Layer relu1
I0504 12:07:04.569288 28473 net.cpp:408] relu1 <- ip1
I0504 12:07:04.569293 28473 net.cpp:369] relu1 -> ip1 (in-place)
I0504 12:07:04.569483 28473 net.cpp:124] Setting up relu1
I0504 12:07:04.569492 28473 net.cpp:131] Top shape: 1000 60 (60000)
I0504 12:07:04.569495 28473 net.cpp:139] Memory required for data: 956268000
I0504 12:07:04.569499 28473 layer_factory.hpp:77] Creating layer ip2
I0504 12:07:04.569506 28473 net.cpp:86] Creating Layer ip2
I0504 12:07:04.569509 28473 net.cpp:408] ip2 <- ip1
I0504 12:07:04.569514 28473 net.cpp:382] ip2 -> ip2
I0504 12:07:04.569927 28473 net.cpp:124] Setting up ip2
I0504 12:07:04.569936 28473 net.cpp:131] Top shape: 1000 180 (180000)
I0504 12:07:04.569938 28473 net.cpp:139] Memory required for data: 956988000
I0504 12:07:04.569944 28473 layer_factory.hpp:77] Creating layer relu2
I0504 12:07:04.569964 28473 net.cpp:86] Creating Layer relu2
I0504 12:07:04.569967 28473 net.cpp:408] relu2 <- ip2
I0504 12:07:04.569972 28473 net.cpp:369] relu2 -> ip2 (in-place)
I0504 12:07:04.570123 28473 net.cpp:124] Setting up relu2
I0504 12:07:04.570132 28473 net.cpp:131] Top shape: 1000 180 (180000)
I0504 12:07:04.570135 28473 net.cpp:139] Memory required for data: 957708000
I0504 12:07:04.570138 28473 layer_factory.hpp:77] Creating layer ip3
I0504 12:07:04.570144 28473 net.cpp:86] Creating Layer ip3
I0504 12:07:04.570147 28473 net.cpp:408] ip3 <- ip2
I0504 12:07:04.570152 28473 net.cpp:382] ip3 -> ip3
I0504 12:07:04.570308 28473 net.cpp:124] Setting up ip3
I0504 12:07:04.570327 28473 net.cpp:131] Top shape: 1000 10 (10000)
I0504 12:07:04.570330 28473 net.cpp:139] Memory required for data: 957748000
I0504 12:07:04.570338 28473 layer_factory.hpp:77] Creating layer ip3_ip3_0_split
I0504 12:07:04.570344 28473 net.cpp:86] Creating Layer ip3_ip3_0_split
I0504 12:07:04.570348 28473 net.cpp:408] ip3_ip3_0_split <- ip3
I0504 12:07:04.570353 28473 net.cpp:382] ip3_ip3_0_split -> ip3_ip3_0_split_0
I0504 12:07:04.570358 28473 net.cpp:382] ip3_ip3_0_split -> ip3_ip3_0_split_1
I0504 12:07:04.570390 28473 net.cpp:124] Setting up ip3_ip3_0_split
I0504 12:07:04.570396 28473 net.cpp:131] Top shape: 1000 10 (10000)
I0504 12:07:04.570400 28473 net.cpp:131] Top shape: 1000 10 (10000)
I0504 12:07:04.570402 28473 net.cpp:139] Memory required for data: 957828000
I0504 12:07:04.570405 28473 layer_factory.hpp:77] Creating layer accuracy
I0504 12:07:04.570411 28473 net.cpp:86] Creating Layer accuracy
I0504 12:07:04.570415 28473 net.cpp:408] accuracy <- ip3_ip3_0_split_0
I0504 12:07:04.570420 28473 net.cpp:408] accuracy <- label_cifar_1_split_0
I0504 12:07:04.570423 28473 net.cpp:382] accuracy -> accuracy
…
