…
I0504 08:06:47.959741 21096 net.cpp:296] The NetState phase (0) differed from the phase (1) specified by a rule in layer cifar
I0504 08:06:47.959755 21096 net.cpp:296] The NetState phase (0) differed from the phase (1) specified by a rule in layer accuracy
I0504 08:06:47.959869 21096 net.cpp:53] Initializing net from parameters: 
name: "CIFAR"
state {
  phase: TRAIN
  level: 0
  stage: ""
}
layer {
  name: "cifar"
  type: "Data"
  top: "data"
  top: "label"
  include {
    phase: TRAIN
  }
  transform_param {
    mean_file: "examples/cifar10/mean.binaryproto"
  }
  data_param {
    source: "examples/cifar10/cifar10_train_lmdb"
    batch_size: 111
    backend: LMDB
  }
}
layer {
  name: "conv0"
  type: "Convolution"
  bottom: "data"
  top: "conv0"
  param {
    lr_mult: 1
  }
  param {
    lr_mult: 2
  }
  convolution_param {
    num_output: 24
    pad: 2
    kernel_size: 5
    stride: 1
    weight_filler {
      type: "gaussian"
      std: 0.01
    }
    bias_filler {
      type: "constant"
    }
  }
}
layer {
  name: "Sigmoid0"
  type: "Sigmoid"
  bottom: "conv0"
  top: "Sigmoid0"
}
layer {
  name: "pool0"
  type: "Pooling"
  bottom: "Sigmoid0"
  top: "pool0"
  pooling_param {
    pool: AVE
    kernel_size: 3
    stride: 2
  }
}
layer {
  name: "conv1"
  type: "Convolution"
  bottom: "pool0"
  top: "conv1"
  param {
    lr_mult: 1
  }
  param {
    lr_mult: 2
  }
  convolution_param {
    num_output: 24
    pad: 2
    kernel_size: 3
    stride: 1
    weight_filler {
      type: "gaussian"
      std: 0.01
    }
    bias_filler {
      type: "constant"
    }
  }
}
layer {
  name: "Sigmoid1"
  type: "Sigmoid"
  bottom: "conv1"
  top: "Sigmoid1"
}
layer {
  name: "pool1"
  type: "Pooling"
  bottom: "Sigmoid1"
  top: "pool1"
  pooling_param {
    pool: AVE
    kernel_size: 3
    stride: 2
  }
}
layer {
  name: "ip1"
  type: "InnerProduct"
  bottom: "pool1"
  top: "ip1"
  param {
    lr_mult: 1
  }
  param {
    lr_mult: 2
  }
  inner_product_param {
    num_output: 180
    weight_filler {
      type: "gaussian"
      std: 0.01
    }
    bias_filler {
      type: "constant"
    }
  }
}
layer {
  name: "relu1"
  type: "ReLU"
  bottom: "ip1"
  top: "ip1"
}
layer {
  name: "ip2"
  type: "InnerProduct"
  bottom: "ip1"
  top: "ip2"
  param {
    lr_mult: 1
  }
  param {
    lr_mult: 2
  }
  inner_product_param {
    num_output: 60
    weight_filler {
      type: "gaussian"
      std: 0.01
    }
    bias_filler {
      type: "constant"
    }
  }
}
layer {
  name: "relu2"
  type: "ReLU"
  bottom: "ip2"
  top: "ip2"
}
layer {
  name: "ip3"
  type: "InnerProduct"
  bottom: "ip2"
  top: "ip3"
  param {
    lr_mult: 1
  }
  param {
    lr_mult: 2
  }
  inner_product_param {
    num_output: 10
    weight_filler {
      type: "gaussian"
      std: 0.01
    }
    bias_filler {
      type: "constant"
    }
  }
}
layer {
  name: "loss"
  type: "SoftmaxWithLoss"
  bottom: "ip3"
  bottom: "label"
  top: "loss"
}
I0504 08:06:47.959930 21096 layer_factory.hpp:77] Creating layer cifar
I0504 08:06:47.960013 21096 db_lmdb.cpp:35] Opened lmdb examples/cifar10/cifar10_train_lmdb
I0504 08:06:47.960036 21096 net.cpp:86] Creating Layer cifar
I0504 08:06:47.960041 21096 net.cpp:382] cifar -> data
I0504 08:06:47.960060 21096 net.cpp:382] cifar -> label
I0504 08:06:47.960069 21096 data_transformer.cpp:25] Loading mean file from: examples/cifar10/mean.binaryproto
I0504 08:06:47.961843 21096 data_layer.cpp:45] output data size: 111,3,32,32
I0504 08:06:47.968343 21096 net.cpp:124] Setting up cifar
I0504 08:06:47.968358 21096 net.cpp:131] Top shape: 111 3 32 32 (340992)
I0504 08:06:47.968363 21096 net.cpp:131] Top shape: 111 (111)
I0504 08:06:47.968364 21096 net.cpp:139] Memory required for data: 1364412
I0504 08:06:47.968370 21096 layer_factory.hpp:77] Creating layer conv0
I0504 08:06:47.968400 21096 net.cpp:86] Creating Layer conv0
I0504 08:06:47.968405 21096 net.cpp:408] conv0 <- data
I0504 08:06:47.968413 21096 net.cpp:382] conv0 -> conv0
I0504 08:06:48.195619 21096 net.cpp:124] Setting up conv0
I0504 08:06:48.195662 21096 net.cpp:131] Top shape: 111 24 32 32 (2727936)
I0504 08:06:48.195667 21096 net.cpp:139] Memory required for data: 12276156
I0504 08:06:48.195683 21096 layer_factory.hpp:77] Creating layer Sigmoid0
I0504 08:06:48.195695 21096 net.cpp:86] Creating Layer Sigmoid0
I0504 08:06:48.195698 21096 net.cpp:408] Sigmoid0 <- conv0
I0504 08:06:48.195704 21096 net.cpp:382] Sigmoid0 -> Sigmoid0
I0504 08:06:48.195884 21096 net.cpp:124] Setting up Sigmoid0
I0504 08:06:48.195894 21096 net.cpp:131] Top shape: 111 24 32 32 (2727936)
I0504 08:06:48.195896 21096 net.cpp:139] Memory required for data: 23187900
I0504 08:06:48.195899 21096 layer_factory.hpp:77] Creating layer pool0
I0504 08:06:48.195906 21096 net.cpp:86] Creating Layer pool0
I0504 08:06:48.195909 21096 net.cpp:408] pool0 <- Sigmoid0
I0504 08:06:48.195914 21096 net.cpp:382] pool0 -> pool0
I0504 08:06:48.196620 21096 net.cpp:124] Setting up pool0
I0504 08:06:48.196632 21096 net.cpp:131] Top shape: 111 24 16 16 (681984)
I0504 08:06:48.196635 21096 net.cpp:139] Memory required for data: 25915836
I0504 08:06:48.196638 21096 layer_factory.hpp:77] Creating layer conv1
I0504 08:06:48.196666 21096 net.cpp:86] Creating Layer conv1
I0504 08:06:48.196669 21096 net.cpp:408] conv1 <- pool0
I0504 08:06:48.196676 21096 net.cpp:382] conv1 -> conv1
I0504 08:06:48.199512 21096 net.cpp:124] Setting up conv1
I0504 08:06:48.199542 21096 net.cpp:131] Top shape: 111 24 18 18 (863136)
I0504 08:06:48.199545 21096 net.cpp:139] Memory required for data: 29368380
I0504 08:06:48.199553 21096 layer_factory.hpp:77] Creating layer Sigmoid1
I0504 08:06:48.199559 21096 net.cpp:86] Creating Layer Sigmoid1
I0504 08:06:48.199563 21096 net.cpp:408] Sigmoid1 <- conv1
I0504 08:06:48.199582 21096 net.cpp:382] Sigmoid1 -> Sigmoid1
I0504 08:06:48.199753 21096 net.cpp:124] Setting up Sigmoid1
I0504 08:06:48.199762 21096 net.cpp:131] Top shape: 111 24 18 18 (863136)
I0504 08:06:48.199779 21096 net.cpp:139] Memory required for data: 32820924
I0504 08:06:48.199782 21096 layer_factory.hpp:77] Creating layer pool1
I0504 08:06:48.199789 21096 net.cpp:86] Creating Layer pool1
I0504 08:06:48.199791 21096 net.cpp:408] pool1 <- Sigmoid1
I0504 08:06:48.199810 21096 net.cpp:382] pool1 -> pool1
I0504 08:06:48.200006 21096 net.cpp:124] Setting up pool1
I0504 08:06:48.200016 21096 net.cpp:131] Top shape: 111 24 9 9 (215784)
I0504 08:06:48.200018 21096 net.cpp:139] Memory required for data: 33684060
I0504 08:06:48.200022 21096 layer_factory.hpp:77] Creating layer ip1
I0504 08:06:48.200029 21096 net.cpp:86] Creating Layer ip1
I0504 08:06:48.200032 21096 net.cpp:408] ip1 <- pool1
I0504 08:06:48.200037 21096 net.cpp:382] ip1 -> ip1
I0504 08:06:48.209506 21096 net.cpp:124] Setting up ip1
I0504 08:06:48.209517 21096 net.cpp:131] Top shape: 111 180 (19980)
I0504 08:06:48.209520 21096 net.cpp:139] Memory required for data: 33763980
I0504 08:06:48.209528 21096 layer_factory.hpp:77] Creating layer relu1
I0504 08:06:48.209535 21096 net.cpp:86] Creating Layer relu1
I0504 08:06:48.209538 21096 net.cpp:408] relu1 <- ip1
I0504 08:06:48.209543 21096 net.cpp:369] relu1 -> ip1 (in-place)
I0504 08:06:48.209707 21096 net.cpp:124] Setting up relu1
I0504 08:06:48.209717 21096 net.cpp:131] Top shape: 111 180 (19980)
I0504 08:06:48.209718 21096 net.cpp:139] Memory required for data: 33843900
I0504 08:06:48.209722 21096 layer_factory.hpp:77] Creating layer ip2
I0504 08:06:48.209743 21096 net.cpp:86] Creating Layer ip2
I0504 08:06:48.209746 21096 net.cpp:408] ip2 <- ip1
I0504 08:06:48.209769 21096 net.cpp:382] ip2 -> ip2
I0504 08:06:48.210172 21096 net.cpp:124] Setting up ip2
I0504 08:06:48.210180 21096 net.cpp:131] Top shape: 111 60 (6660)
I0504 08:06:48.210181 21096 net.cpp:139] Memory required for data: 33870540
I0504 08:06:48.210187 21096 layer_factory.hpp:77] Creating layer relu2
I0504 08:06:48.210191 21096 net.cpp:86] Creating Layer relu2
I0504 08:06:48.210194 21096 net.cpp:408] relu2 <- ip2
I0504 08:06:48.210197 21096 net.cpp:369] relu2 -> ip2 (in-place)
I0504 08:06:48.210902 21096 net.cpp:124] Setting up relu2
I0504 08:06:48.210913 21096 net.cpp:131] Top shape: 111 60 (6660)
I0504 08:06:48.210933 21096 net.cpp:139] Memory required for data: 33897180
I0504 08:06:48.210937 21096 layer_factory.hpp:77] Creating layer ip3
I0504 08:06:48.210942 21096 net.cpp:86] Creating Layer ip3
I0504 08:06:48.210945 21096 net.cpp:408] ip3 <- ip2
I0504 08:06:48.210950 21096 net.cpp:382] ip3 -> ip3
I0504 08:06:48.211078 21096 net.cpp:124] Setting up ip3
I0504 08:06:48.211086 21096 net.cpp:131] Top shape: 111 10 (1110)
I0504 08:06:48.211088 21096 net.cpp:139] Memory required for data: 33901620
I0504 08:06:48.211096 21096 layer_factory.hpp:77] Creating layer loss
I0504 08:06:48.211105 21096 net.cpp:86] Creating Layer loss
I0504 08:06:48.211112 21096 net.cpp:408] loss <- ip3
I0504 08:06:48.211114 21096 net.cpp:408] loss <- label
I0504 08:06:48.211119 21096 net.cpp:382] loss -> loss
I0504 08:06:48.211148 21096 layer_factory.hpp:77] Creating layer loss
…
I0504 08:06:48.211794 21096 solver.cpp:173] Creating test net (#0) specified by net file: ECE595/cifar/train_test/var_everything_tiny/cifar_train_test_94.prototxt
I0504 08:06:48.211851 21096 net.cpp:296] The NetState phase (1) differed from the phase (0) specified by a rule in layer cifar
I0504 08:06:48.211982 21096 net.cpp:53] Initializing net from parameters: 
name: "CIFAR"
state {
  phase: TEST
}
layer {
  name: "cifar"
  type: "Data"
  top: "data"
  top: "label"
  include {
    phase: TEST
  }
  transform_param {
    mean_file: "examples/cifar10/mean.binaryproto"
  }
  data_param {
    source: "examples/cifar10/cifar10_test_lmdb"
    batch_size: 1000
    backend: LMDB
  }
}
layer {
  name: "conv0"
  type: "Convolution"
  bottom: "data"
  top: "conv0"
  param {
    lr_mult: 1
  }
  param {
    lr_mult: 2
  }
  convolution_param {
    num_output: 24
    pad: 2
    kernel_size: 5
    stride: 1
    weight_filler {
      type: "gaussian"
      std: 0.01
    }
    bias_filler {
      type: "constant"
    }
  }
}
layer {
  name: "Sigmoid0"
  type: "Sigmoid"
  bottom: "conv0"
  top: "Sigmoid0"
}
layer {
  name: "pool0"
  type: "Pooling"
  bottom: "Sigmoid0"
  top: "pool0"
  pooling_param {
    pool: AVE
    kernel_size: 3
    stride: 2
  }
}
layer {
  name: "conv1"
  type: "Convolution"
  bottom: "pool0"
  top: "conv1"
  param {
    lr_mult: 1
  }
  param {
    lr_mult: 2
  }
  convolution_param {
    num_output: 24
    pad: 2
    kernel_size: 3
    stride: 1
    weight_filler {
      type: "gaussian"
      std: 0.01
    }
    bias_filler {
      type: "constant"
    }
  }
}
layer {
  name: "Sigmoid1"
  type: "Sigmoid"
  bottom: "conv1"
  top: "Sigmoid1"
}
layer {
  name: "pool1"
  type: "Pooling"
  bottom: "Sigmoid1"
  top: "pool1"
  pooling_param {
    pool: AVE
    kernel_size: 3
    stride: 2
  }
}
layer {
  name: "ip1"
  type: "InnerProduct"
  bottom: "pool1"
  top: "ip1"
  param {
    lr_mult: 1
  }
  param {
    lr_mult: 2
  }
  inner_product_param {
    num_output: 180
    weight_filler {
      type: "gaussian"
      std: 0.01
    }
    bias_filler {
      type: "constant"
    }
  }
}
layer {
  name: "relu1"
  type: "ReLU"
  bottom: "ip1"
  top: "ip1"
}
layer {
  name: "ip2"
  type: "InnerProduct"
  bottom: "ip1"
  top: "ip2"
  param {
    lr_mult: 1
  }
  param {
    lr_mult: 2
  }
  inner_product_param {
    num_output: 60
    weight_filler {
      type: "gaussian"
      std: 0.01
    }
    bias_filler {
      type: "constant"
    }
  }
}
layer {
  name: "relu2"
  type: "ReLU"
  bottom: "ip2"
  top: "ip2"
}
layer {
  name: "ip3"
  type: "InnerProduct"
  bottom: "ip2"
  top: "ip3"
  param {
    lr_mult: 1
  }
  param {
    lr_mult: 2
  }
  inner_product_param {
    num_output: 10
    weight_filler {
      type: "gaussian"
      std: 0.01
    }
    bias_filler {
      type: "constant"
    }
  }
}
layer {
  name: "accuracy"
  type: "Accuracy"
  bottom: "ip3"
  bottom: "label"
  top: "accuracy"
  include {
    phase: TEST
  }
}
layer {
  name: "loss"
  type: "SoftmaxWithLoss"
  bottom: "ip3"
  bottom: "label"
  top: "loss"
}
I0504 08:06:48.212064 21096 layer_factory.hpp:77] Creating layer cifar
I0504 08:06:48.212108 21096 db_lmdb.cpp:35] Opened lmdb examples/cifar10/cifar10_test_lmdb
I0504 08:06:48.212119 21096 net.cpp:86] Creating Layer cifar
I0504 08:06:48.212124 21096 net.cpp:382] cifar -> data
I0504 08:06:48.212131 21096 net.cpp:382] cifar -> label
I0504 08:06:48.212137 21096 data_transformer.cpp:25] Loading mean file from: examples/cifar10/mean.binaryproto
I0504 08:06:48.212294 21096 data_layer.cpp:45] output data size: 1000,3,32,32
I0504 08:06:48.233494 21096 net.cpp:124] Setting up cifar
I0504 08:06:48.233520 21096 net.cpp:131] Top shape: 1000 3 32 32 (3072000)
I0504 08:06:48.233525 21096 net.cpp:131] Top shape: 1000 (1000)
I0504 08:06:48.233527 21096 net.cpp:139] Memory required for data: 12292000
I0504 08:06:48.233532 21096 layer_factory.hpp:77] Creating layer label_cifar_1_split
I0504 08:06:48.233559 21096 net.cpp:86] Creating Layer label_cifar_1_split
I0504 08:06:48.233562 21096 net.cpp:408] label_cifar_1_split <- label
I0504 08:06:48.233569 21096 net.cpp:382] label_cifar_1_split -> label_cifar_1_split_0
I0504 08:06:48.233578 21096 net.cpp:382] label_cifar_1_split -> label_cifar_1_split_1
I0504 08:06:48.233675 21096 net.cpp:124] Setting up label_cifar_1_split
I0504 08:06:48.233681 21096 net.cpp:131] Top shape: 1000 (1000)
I0504 08:06:48.233685 21096 net.cpp:131] Top shape: 1000 (1000)
I0504 08:06:48.233687 21096 net.cpp:139] Memory required for data: 12300000
I0504 08:06:48.233690 21096 layer_factory.hpp:77] Creating layer conv0
I0504 08:06:48.233701 21096 net.cpp:86] Creating Layer conv0
I0504 08:06:48.233705 21096 net.cpp:408] conv0 <- data
I0504 08:06:48.233711 21096 net.cpp:382] conv0 -> conv0
I0504 08:06:48.236321 21096 net.cpp:124] Setting up conv0
I0504 08:06:48.236335 21096 net.cpp:131] Top shape: 1000 24 32 32 (24576000)
I0504 08:06:48.236338 21096 net.cpp:139] Memory required for data: 110604000
I0504 08:06:48.236364 21096 layer_factory.hpp:77] Creating layer Sigmoid0
I0504 08:06:48.236371 21096 net.cpp:86] Creating Layer Sigmoid0
I0504 08:06:48.236374 21096 net.cpp:408] Sigmoid0 <- conv0
I0504 08:06:48.236379 21096 net.cpp:382] Sigmoid0 -> Sigmoid0
I0504 08:06:48.236553 21096 net.cpp:124] Setting up Sigmoid0
I0504 08:06:48.236577 21096 net.cpp:131] Top shape: 1000 24 32 32 (24576000)
I0504 08:06:48.236582 21096 net.cpp:139] Memory required for data: 208908000
I0504 08:06:48.236584 21096 layer_factory.hpp:77] Creating layer pool0
I0504 08:06:48.236591 21096 net.cpp:86] Creating Layer pool0
I0504 08:06:48.236594 21096 net.cpp:408] pool0 <- Sigmoid0
I0504 08:06:48.236598 21096 net.cpp:382] pool0 -> pool0
I0504 08:06:48.236763 21096 net.cpp:124] Setting up pool0
I0504 08:06:48.236771 21096 net.cpp:131] Top shape: 1000 24 16 16 (6144000)
I0504 08:06:48.236773 21096 net.cpp:139] Memory required for data: 233484000
I0504 08:06:48.236776 21096 layer_factory.hpp:77] Creating layer conv1
I0504 08:06:48.236786 21096 net.cpp:86] Creating Layer conv1
I0504 08:06:48.236789 21096 net.cpp:408] conv1 <- pool0
I0504 08:06:48.236794 21096 net.cpp:382] conv1 -> conv1
I0504 08:06:48.238289 21096 net.cpp:124] Setting up conv1
I0504 08:06:48.238302 21096 net.cpp:131] Top shape: 1000 24 18 18 (7776000)
I0504 08:06:48.238306 21096 net.cpp:139] Memory required for data: 264588000
I0504 08:06:48.238315 21096 layer_factory.hpp:77] Creating layer Sigmoid1
I0504 08:06:48.238335 21096 net.cpp:86] Creating Layer Sigmoid1
I0504 08:06:48.238339 21096 net.cpp:408] Sigmoid1 <- conv1
I0504 08:06:48.238344 21096 net.cpp:382] Sigmoid1 -> Sigmoid1
I0504 08:06:48.238526 21096 net.cpp:124] Setting up Sigmoid1
I0504 08:06:48.238536 21096 net.cpp:131] Top shape: 1000 24 18 18 (7776000)
I0504 08:06:48.238538 21096 net.cpp:139] Memory required for data: 295692000
I0504 08:06:48.238541 21096 layer_factory.hpp:77] Creating layer pool1
I0504 08:06:48.238548 21096 net.cpp:86] Creating Layer pool1
I0504 08:06:48.238551 21096 net.cpp:408] pool1 <- Sigmoid1
I0504 08:06:48.238555 21096 net.cpp:382] pool1 -> pool1
I0504 08:06:48.239305 21096 net.cpp:124] Setting up pool1
I0504 08:06:48.239316 21096 net.cpp:131] Top shape: 1000 24 9 9 (1944000)
I0504 08:06:48.239320 21096 net.cpp:139] Memory required for data: 303468000
I0504 08:06:48.239322 21096 layer_factory.hpp:77] Creating layer ip1
I0504 08:06:48.239348 21096 net.cpp:86] Creating Layer ip1
I0504 08:06:48.239352 21096 net.cpp:408] ip1 <- pool1
I0504 08:06:48.239358 21096 net.cpp:382] ip1 -> ip1
I0504 08:06:48.249250 21096 net.cpp:124] Setting up ip1
I0504 08:06:48.249277 21096 net.cpp:131] Top shape: 1000 180 (180000)
I0504 08:06:48.249281 21096 net.cpp:139] Memory required for data: 304188000
I0504 08:06:48.249290 21096 layer_factory.hpp:77] Creating layer relu1
I0504 08:06:48.249312 21096 net.cpp:86] Creating Layer relu1
I0504 08:06:48.249315 21096 net.cpp:408] relu1 <- ip1
I0504 08:06:48.249321 21096 net.cpp:369] relu1 -> ip1 (in-place)
I0504 08:06:48.249521 21096 net.cpp:124] Setting up relu1
I0504 08:06:48.249529 21096 net.cpp:131] Top shape: 1000 180 (180000)
I0504 08:06:48.249532 21096 net.cpp:139] Memory required for data: 304908000
I0504 08:06:48.249536 21096 layer_factory.hpp:77] Creating layer ip2
I0504 08:06:48.249542 21096 net.cpp:86] Creating Layer ip2
I0504 08:06:48.249546 21096 net.cpp:408] ip2 <- ip1
I0504 08:06:48.249550 21096 net.cpp:382] ip2 -> ip2
I0504 08:06:48.249953 21096 net.cpp:124] Setting up ip2
I0504 08:06:48.249960 21096 net.cpp:131] Top shape: 1000 60 (60000)
I0504 08:06:48.249963 21096 net.cpp:139] Memory required for data: 305148000
I0504 08:06:48.249969 21096 layer_factory.hpp:77] Creating layer relu2
I0504 08:06:48.249974 21096 net.cpp:86] Creating Layer relu2
I0504 08:06:48.249991 21096 net.cpp:408] relu2 <- ip2
I0504 08:06:48.249996 21096 net.cpp:369] relu2 -> ip2 (in-place)
I0504 08:06:48.250145 21096 net.cpp:124] Setting up relu2
I0504 08:06:48.250154 21096 net.cpp:131] Top shape: 1000 60 (60000)
I0504 08:06:48.250156 21096 net.cpp:139] Memory required for data: 305388000
I0504 08:06:48.250159 21096 layer_factory.hpp:77] Creating layer ip3
I0504 08:06:48.250165 21096 net.cpp:86] Creating Layer ip3
I0504 08:06:48.250169 21096 net.cpp:408] ip3 <- ip2
I0504 08:06:48.250172 21096 net.cpp:382] ip3 -> ip3
I0504 08:06:48.250309 21096 net.cpp:124] Setting up ip3
I0504 08:06:48.250316 21096 net.cpp:131] Top shape: 1000 10 (10000)
I0504 08:06:48.250329 21096 net.cpp:139] Memory required for data: 305428000
I0504 08:06:48.250337 21096 layer_factory.hpp:77] Creating layer ip3_ip3_0_split
I0504 08:06:48.250342 21096 net.cpp:86] Creating Layer ip3_ip3_0_split
I0504 08:06:48.250345 21096 net.cpp:408] ip3_ip3_0_split <- ip3
I0504 08:06:48.250349 21096 net.cpp:382] ip3_ip3_0_split -> ip3_ip3_0_split_0
I0504 08:06:48.250355 21096 net.cpp:382] ip3_ip3_0_split -> ip3_ip3_0_split_1
I0504 08:06:48.250388 21096 net.cpp:124] Setting up ip3_ip3_0_split
I0504 08:06:48.250393 21096 net.cpp:131] Top shape: 1000 10 (10000)
I0504 08:06:48.250406 21096 net.cpp:131] Top shape: 1000 10 (10000)
I0504 08:06:48.250409 21096 net.cpp:139] Memory required for data: 305508000
I0504 08:06:48.250412 21096 layer_factory.hpp:77] Creating layer accuracy
I0504 08:06:48.250417 21096 net.cpp:86] Creating Layer accuracy
I0504 08:06:48.250421 21096 net.cpp:408] accuracy <- ip3_ip3_0_split_0
I0504 08:06:48.250424 21096 net.cpp:408] accuracy <- label_cifar_1_split_0
I0504 08:06:48.250429 21096 net.cpp:382] accuracy -> accuracy
…
