…
I0504 09:32:30.154028 23749 net.cpp:296] The NetState phase (0) differed from the phase (1) specified by a rule in layer cifar
I0504 09:32:30.154047 23749 net.cpp:296] The NetState phase (0) differed from the phase (1) specified by a rule in layer accuracy
I0504 09:32:30.154151 23749 net.cpp:53] Initializing net from parameters: 
name: "CIFAR"
state {
  phase: TRAIN
  level: 0
  stage: ""
}
layer {
  name: "cifar"
  type: "Data"
  top: "data"
  top: "label"
  include {
    phase: TRAIN
  }
  transform_param {
    mean_file: "examples/cifar10/mean.binaryproto"
  }
  data_param {
    source: "examples/cifar10/cifar10_train_lmdb"
    batch_size: 111
    backend: LMDB
  }
}
layer {
  name: "conv0"
  type: "Convolution"
  bottom: "data"
  top: "conv0"
  param {
    lr_mult: 1
  }
  param {
    lr_mult: 2
  }
  convolution_param {
    num_output: 24
    pad: 2
    kernel_size: 5
    stride: 1
    weight_filler {
      type: "gaussian"
      std: 0.01
    }
    bias_filler {
      type: "constant"
    }
  }
}
layer {
  name: "Sigmoid0"
  type: "Sigmoid"
  bottom: "conv0"
  top: "Sigmoid0"
}
layer {
  name: "pool0"
  type: "Pooling"
  bottom: "Sigmoid0"
  top: "pool0"
  pooling_param {
    pool: AVE
    kernel_size: 3
    stride: 2
  }
}
layer {
  name: "conv1"
  type: "Convolution"
  bottom: "pool0"
  top: "conv1"
  param {
    lr_mult: 1
  }
  param {
    lr_mult: 2
  }
  convolution_param {
    num_output: 72
    pad: 2
    kernel_size: 3
    stride: 1
    weight_filler {
      type: "gaussian"
      std: 0.01
    }
    bias_filler {
      type: "constant"
    }
  }
}
layer {
  name: "Sigmoid1"
  type: "Sigmoid"
  bottom: "conv1"
  top: "Sigmoid1"
}
layer {
  name: "pool1"
  type: "Pooling"
  bottom: "Sigmoid1"
  top: "pool1"
  pooling_param {
    pool: AVE
    kernel_size: 3
    stride: 2
  }
}
layer {
  name: "ip1"
  type: "InnerProduct"
  bottom: "pool1"
  top: "ip1"
  param {
    lr_mult: 1
  }
  param {
    lr_mult: 2
  }
  inner_product_param {
    num_output: 10
    weight_filler {
      type: "gaussian"
      std: 0.01
    }
    bias_filler {
      type: "constant"
    }
  }
}
layer {
  name: "relu1"
  type: "ReLU"
  bottom: "ip1"
  top: "ip1"
}
layer {
  name: "ip2"
  type: "InnerProduct"
  bottom: "ip1"
  top: "ip2"
  param {
    lr_mult: 1
  }
  param {
    lr_mult: 2
  }
  inner_product_param {
    num_output: 10
    weight_filler {
      type: "gaussian"
      std: 0.01
    }
    bias_filler {
      type: "constant"
    }
  }
}
layer {
  name: "loss"
  type: "SoftmaxWithLoss"
  bottom: "ip2"
  bottom: "label"
  top: "loss"
}
I0504 09:32:30.154230 23749 layer_factory.hpp:77] Creating layer cifar
I0504 09:32:30.154331 23749 db_lmdb.cpp:35] Opened lmdb examples/cifar10/cifar10_train_lmdb
I0504 09:32:30.154358 23749 net.cpp:86] Creating Layer cifar
I0504 09:32:30.154368 23749 net.cpp:382] cifar -> data
I0504 09:32:30.154391 23749 net.cpp:382] cifar -> label
I0504 09:32:30.154402 23749 data_transformer.cpp:25] Loading mean file from: examples/cifar10/mean.binaryproto
I0504 09:32:30.156507 23749 data_layer.cpp:45] output data size: 111,3,32,32
I0504 09:32:30.164371 23749 net.cpp:124] Setting up cifar
I0504 09:32:30.164391 23749 net.cpp:131] Top shape: 111 3 32 32 (340992)
I0504 09:32:30.164397 23749 net.cpp:131] Top shape: 111 (111)
I0504 09:32:30.164402 23749 net.cpp:139] Memory required for data: 1364412
I0504 09:32:30.164409 23749 layer_factory.hpp:77] Creating layer conv0
I0504 09:32:30.164428 23749 net.cpp:86] Creating Layer conv0
I0504 09:32:30.164450 23749 net.cpp:408] conv0 <- data
I0504 09:32:30.164464 23749 net.cpp:382] conv0 -> conv0
I0504 09:32:30.422950 23749 net.cpp:124] Setting up conv0
I0504 09:32:30.422992 23749 net.cpp:131] Top shape: 111 24 32 32 (2727936)
I0504 09:32:30.422996 23749 net.cpp:139] Memory required for data: 12276156
I0504 09:32:30.423010 23749 layer_factory.hpp:77] Creating layer Sigmoid0
I0504 09:32:30.423023 23749 net.cpp:86] Creating Layer Sigmoid0
I0504 09:32:30.423027 23749 net.cpp:408] Sigmoid0 <- conv0
I0504 09:32:30.423048 23749 net.cpp:382] Sigmoid0 -> Sigmoid0
I0504 09:32:30.423247 23749 net.cpp:124] Setting up Sigmoid0
I0504 09:32:30.423255 23749 net.cpp:131] Top shape: 111 24 32 32 (2727936)
I0504 09:32:30.423259 23749 net.cpp:139] Memory required for data: 23187900
I0504 09:32:30.423261 23749 layer_factory.hpp:77] Creating layer pool0
I0504 09:32:30.423269 23749 net.cpp:86] Creating Layer pool0
I0504 09:32:30.423271 23749 net.cpp:408] pool0 <- Sigmoid0
I0504 09:32:30.423277 23749 net.cpp:382] pool0 -> pool0
I0504 09:32:30.424072 23749 net.cpp:124] Setting up pool0
I0504 09:32:30.424085 23749 net.cpp:131] Top shape: 111 24 16 16 (681984)
I0504 09:32:30.424088 23749 net.cpp:139] Memory required for data: 25915836
I0504 09:32:30.424091 23749 layer_factory.hpp:77] Creating layer conv1
I0504 09:32:30.424103 23749 net.cpp:86] Creating Layer conv1
I0504 09:32:30.424109 23749 net.cpp:408] conv1 <- pool0
I0504 09:32:30.424131 23749 net.cpp:382] conv1 -> conv1
I0504 09:32:30.427145 23749 net.cpp:124] Setting up conv1
I0504 09:32:30.427173 23749 net.cpp:131] Top shape: 111 72 18 18 (2589408)
I0504 09:32:30.427177 23749 net.cpp:139] Memory required for data: 36273468
I0504 09:32:30.427186 23749 layer_factory.hpp:77] Creating layer Sigmoid1
I0504 09:32:30.427191 23749 net.cpp:86] Creating Layer Sigmoid1
I0504 09:32:30.427194 23749 net.cpp:408] Sigmoid1 <- conv1
I0504 09:32:30.427199 23749 net.cpp:382] Sigmoid1 -> Sigmoid1
I0504 09:32:30.427376 23749 net.cpp:124] Setting up Sigmoid1
I0504 09:32:30.427386 23749 net.cpp:131] Top shape: 111 72 18 18 (2589408)
I0504 09:32:30.427388 23749 net.cpp:139] Memory required for data: 46631100
I0504 09:32:30.427392 23749 layer_factory.hpp:77] Creating layer pool1
I0504 09:32:30.427397 23749 net.cpp:86] Creating Layer pool1
I0504 09:32:30.427402 23749 net.cpp:408] pool1 <- Sigmoid1
I0504 09:32:30.427405 23749 net.cpp:382] pool1 -> pool1
I0504 09:32:30.427577 23749 net.cpp:124] Setting up pool1
I0504 09:32:30.427585 23749 net.cpp:131] Top shape: 111 72 9 9 (647352)
I0504 09:32:30.427588 23749 net.cpp:139] Memory required for data: 49220508
I0504 09:32:30.427592 23749 layer_factory.hpp:77] Creating layer ip1
I0504 09:32:30.427599 23749 net.cpp:86] Creating Layer ip1
I0504 09:32:30.427603 23749 net.cpp:408] ip1 <- pool1
I0504 09:32:30.427608 23749 net.cpp:382] ip1 -> ip1
I0504 09:32:30.430105 23749 net.cpp:124] Setting up ip1
I0504 09:32:30.430116 23749 net.cpp:131] Top shape: 111 10 (1110)
I0504 09:32:30.430135 23749 net.cpp:139] Memory required for data: 49224948
I0504 09:32:30.430143 23749 layer_factory.hpp:77] Creating layer relu1
I0504 09:32:30.430150 23749 net.cpp:86] Creating Layer relu1
I0504 09:32:30.430155 23749 net.cpp:408] relu1 <- ip1
I0504 09:32:30.430158 23749 net.cpp:369] relu1 -> ip1 (in-place)
I0504 09:32:30.430323 23749 net.cpp:124] Setting up relu1
I0504 09:32:30.430332 23749 net.cpp:131] Top shape: 111 10 (1110)
I0504 09:32:30.430335 23749 net.cpp:139] Memory required for data: 49229388
I0504 09:32:30.430338 23749 layer_factory.hpp:77] Creating layer ip2
I0504 09:32:30.430344 23749 net.cpp:86] Creating Layer ip2
I0504 09:32:30.430347 23749 net.cpp:408] ip2 <- ip1
I0504 09:32:30.430352 23749 net.cpp:382] ip2 -> ip2
I0504 09:32:30.430449 23749 net.cpp:124] Setting up ip2
I0504 09:32:30.430455 23749 net.cpp:131] Top shape: 111 10 (1110)
I0504 09:32:30.430459 23749 net.cpp:139] Memory required for data: 49233828
I0504 09:32:30.430464 23749 layer_factory.hpp:77] Creating layer loss
I0504 09:32:30.430469 23749 net.cpp:86] Creating Layer loss
I0504 09:32:30.430487 23749 net.cpp:408] loss <- ip2
I0504 09:32:30.430507 23749 net.cpp:408] loss <- label
I0504 09:32:30.430513 23749 net.cpp:382] loss -> loss
I0504 09:32:30.430526 23749 layer_factory.hpp:77] Creating layer loss
…
I0504 09:32:30.431767 23749 solver.cpp:173] Creating test net (#0) specified by net file: ECE595/cifar/train_test/var_everything_tiny/cifar_train_test_120.prototxt
I0504 09:32:30.431792 23749 net.cpp:296] The NetState phase (1) differed from the phase (0) specified by a rule in layer cifar
I0504 09:32:30.431896 23749 net.cpp:53] Initializing net from parameters: 
name: "CIFAR"
state {
  phase: TEST
}
layer {
  name: "cifar"
  type: "Data"
  top: "data"
  top: "label"
  include {
    phase: TEST
  }
  transform_param {
    mean_file: "examples/cifar10/mean.binaryproto"
  }
  data_param {
    source: "examples/cifar10/cifar10_test_lmdb"
    batch_size: 1000
    backend: LMDB
  }
}
layer {
  name: "conv0"
  type: "Convolution"
  bottom: "data"
  top: "conv0"
  param {
    lr_mult: 1
  }
  param {
    lr_mult: 2
  }
  convolution_param {
    num_output: 24
    pad: 2
    kernel_size: 5
    stride: 1
    weight_filler {
      type: "gaussian"
      std: 0.01
    }
    bias_filler {
      type: "constant"
    }
  }
}
layer {
  name: "Sigmoid0"
  type: "Sigmoid"
  bottom: "conv0"
  top: "Sigmoid0"
}
layer {
  name: "pool0"
  type: "Pooling"
  bottom: "Sigmoid0"
  top: "pool0"
  pooling_param {
    pool: AVE
    kernel_size: 3
    stride: 2
  }
}
layer {
  name: "conv1"
  type: "Convolution"
  bottom: "pool0"
  top: "conv1"
  param {
    lr_mult: 1
  }
  param {
    lr_mult: 2
  }
  convolution_param {
    num_output: 72
    pad: 2
    kernel_size: 3
    stride: 1
    weight_filler {
      type: "gaussian"
      std: 0.01
    }
    bias_filler {
      type: "constant"
    }
  }
}
layer {
  name: "Sigmoid1"
  type: "Sigmoid"
  bottom: "conv1"
  top: "Sigmoid1"
}
layer {
  name: "pool1"
  type: "Pooling"
  bottom: "Sigmoid1"
  top: "pool1"
  pooling_param {
    pool: AVE
    kernel_size: 3
    stride: 2
  }
}
layer {
  name: "ip1"
  type: "InnerProduct"
  bottom: "pool1"
  top: "ip1"
  param {
    lr_mult: 1
  }
  param {
    lr_mult: 2
  }
  inner_product_param {
    num_output: 10
    weight_filler {
      type: "gaussian"
      std: 0.01
    }
    bias_filler {
      type: "constant"
    }
  }
}
layer {
  name: "relu1"
  type: "ReLU"
  bottom: "ip1"
  top: "ip1"
}
layer {
  name: "ip2"
  type: "InnerProduct"
  bottom: "ip1"
  top: "ip2"
  param {
    lr_mult: 1
  }
  param {
    lr_mult: 2
  }
  inner_product_param {
    num_output: 10
    weight_filler {
      type: "gaussian"
      std: 0.01
    }
    bias_filler {
      type: "constant"
    }
  }
}
layer {
  name: "accuracy"
  type: "Accuracy"
  bottom: "ip2"
  bottom: "label"
  top: "accuracy"
  include {
    phase: TEST
  }
}
layer {
  name: "loss"
  type: "SoftmaxWithLoss"
  bottom: "ip2"
  bottom: "label"
  top: "loss"
}
I0504 09:32:30.431974 23749 layer_factory.hpp:77] Creating layer cifar
I0504 09:32:30.432021 23749 db_lmdb.cpp:35] Opened lmdb examples/cifar10/cifar10_test_lmdb
I0504 09:32:30.432034 23749 net.cpp:86] Creating Layer cifar
I0504 09:32:30.432039 23749 net.cpp:382] cifar -> data
I0504 09:32:30.432047 23749 net.cpp:382] cifar -> label
I0504 09:32:30.432054 23749 data_transformer.cpp:25] Loading mean file from: examples/cifar10/mean.binaryproto
I0504 09:32:30.432207 23749 data_layer.cpp:45] output data size: 1000,3,32,32
I0504 09:32:30.454870 23749 net.cpp:124] Setting up cifar
I0504 09:32:30.454911 23749 net.cpp:131] Top shape: 1000 3 32 32 (3072000)
I0504 09:32:30.454917 23749 net.cpp:131] Top shape: 1000 (1000)
I0504 09:32:30.454921 23749 net.cpp:139] Memory required for data: 12292000
I0504 09:32:30.454929 23749 layer_factory.hpp:77] Creating layer label_cifar_1_split
I0504 09:32:30.454941 23749 net.cpp:86] Creating Layer label_cifar_1_split
I0504 09:32:30.454946 23749 net.cpp:408] label_cifar_1_split <- label
I0504 09:32:30.454952 23749 net.cpp:382] label_cifar_1_split -> label_cifar_1_split_0
I0504 09:32:30.454960 23749 net.cpp:382] label_cifar_1_split -> label_cifar_1_split_1
I0504 09:32:30.455052 23749 net.cpp:124] Setting up label_cifar_1_split
I0504 09:32:30.455060 23749 net.cpp:131] Top shape: 1000 (1000)
I0504 09:32:30.455063 23749 net.cpp:131] Top shape: 1000 (1000)
I0504 09:32:30.455066 23749 net.cpp:139] Memory required for data: 12300000
I0504 09:32:30.455070 23749 layer_factory.hpp:77] Creating layer conv0
I0504 09:32:30.455081 23749 net.cpp:86] Creating Layer conv0
I0504 09:32:30.455085 23749 net.cpp:408] conv0 <- data
I0504 09:32:30.455090 23749 net.cpp:382] conv0 -> conv0
I0504 09:32:30.455973 23749 net.cpp:124] Setting up conv0
I0504 09:32:30.456001 23749 net.cpp:131] Top shape: 1000 24 32 32 (24576000)
I0504 09:32:30.456004 23749 net.cpp:139] Memory required for data: 110604000
I0504 09:32:30.456030 23749 layer_factory.hpp:77] Creating layer Sigmoid0
I0504 09:32:30.456037 23749 net.cpp:86] Creating Layer Sigmoid0
I0504 09:32:30.456040 23749 net.cpp:408] Sigmoid0 <- conv0
I0504 09:32:30.456045 23749 net.cpp:382] Sigmoid0 -> Sigmoid0
I0504 09:32:30.456990 23749 net.cpp:124] Setting up Sigmoid0
I0504 09:32:30.457003 23749 net.cpp:131] Top shape: 1000 24 32 32 (24576000)
I0504 09:32:30.457008 23749 net.cpp:139] Memory required for data: 208908000
I0504 09:32:30.457012 23749 layer_factory.hpp:77] Creating layer pool0
I0504 09:32:30.457021 23749 net.cpp:86] Creating Layer pool0
I0504 09:32:30.457025 23749 net.cpp:408] pool0 <- Sigmoid0
I0504 09:32:30.457031 23749 net.cpp:382] pool0 -> pool0
I0504 09:32:30.458189 23749 net.cpp:124] Setting up pool0
I0504 09:32:30.458199 23749 net.cpp:131] Top shape: 1000 24 16 16 (6144000)
I0504 09:32:30.458217 23749 net.cpp:139] Memory required for data: 233484000
I0504 09:32:30.458221 23749 layer_factory.hpp:77] Creating layer conv1
I0504 09:32:30.458230 23749 net.cpp:86] Creating Layer conv1
I0504 09:32:30.458235 23749 net.cpp:408] conv1 <- pool0
I0504 09:32:30.458240 23749 net.cpp:382] conv1 -> conv1
I0504 09:32:30.459900 23749 net.cpp:124] Setting up conv1
I0504 09:32:30.459913 23749 net.cpp:131] Top shape: 1000 72 18 18 (23328000)
I0504 09:32:30.459933 23749 net.cpp:139] Memory required for data: 326796000
I0504 09:32:30.459941 23749 layer_factory.hpp:77] Creating layer Sigmoid1
I0504 09:32:30.459947 23749 net.cpp:86] Creating Layer Sigmoid1
I0504 09:32:30.459951 23749 net.cpp:408] Sigmoid1 <- conv1
I0504 09:32:30.459955 23749 net.cpp:382] Sigmoid1 -> Sigmoid1
I0504 09:32:30.460131 23749 net.cpp:124] Setting up Sigmoid1
I0504 09:32:30.460141 23749 net.cpp:131] Top shape: 1000 72 18 18 (23328000)
I0504 09:32:30.460144 23749 net.cpp:139] Memory required for data: 420108000
I0504 09:32:30.460147 23749 layer_factory.hpp:77] Creating layer pool1
I0504 09:32:30.460153 23749 net.cpp:86] Creating Layer pool1
I0504 09:32:30.460165 23749 net.cpp:408] pool1 <- Sigmoid1
I0504 09:32:30.460186 23749 net.cpp:382] pool1 -> pool1
I0504 09:32:30.460366 23749 net.cpp:124] Setting up pool1
I0504 09:32:30.460374 23749 net.cpp:131] Top shape: 1000 72 9 9 (5832000)
I0504 09:32:30.460378 23749 net.cpp:139] Memory required for data: 443436000
I0504 09:32:30.460381 23749 layer_factory.hpp:77] Creating layer ip1
I0504 09:32:30.460405 23749 net.cpp:86] Creating Layer ip1
I0504 09:32:30.460408 23749 net.cpp:408] ip1 <- pool1
I0504 09:32:30.460414 23749 net.cpp:382] ip1 -> ip1
I0504 09:32:30.462132 23749 net.cpp:124] Setting up ip1
I0504 09:32:30.462152 23749 net.cpp:131] Top shape: 1000 10 (10000)
I0504 09:32:30.462155 23749 net.cpp:139] Memory required for data: 443476000
I0504 09:32:30.462177 23749 layer_factory.hpp:77] Creating layer relu1
I0504 09:32:30.462183 23749 net.cpp:86] Creating Layer relu1
I0504 09:32:30.462186 23749 net.cpp:408] relu1 <- ip1
I0504 09:32:30.462190 23749 net.cpp:369] relu1 -> ip1 (in-place)
I0504 09:32:30.462930 23749 net.cpp:124] Setting up relu1
I0504 09:32:30.462941 23749 net.cpp:131] Top shape: 1000 10 (10000)
I0504 09:32:30.462960 23749 net.cpp:139] Memory required for data: 443516000
I0504 09:32:30.462963 23749 layer_factory.hpp:77] Creating layer ip2
I0504 09:32:30.462970 23749 net.cpp:86] Creating Layer ip2
I0504 09:32:30.462973 23749 net.cpp:408] ip2 <- ip1
I0504 09:32:30.462978 23749 net.cpp:382] ip2 -> ip2
I0504 09:32:30.463080 23749 net.cpp:124] Setting up ip2
I0504 09:32:30.463088 23749 net.cpp:131] Top shape: 1000 10 (10000)
I0504 09:32:30.463090 23749 net.cpp:139] Memory required for data: 443556000
I0504 09:32:30.463095 23749 layer_factory.hpp:77] Creating layer ip2_ip2_0_split
I0504 09:32:30.463101 23749 net.cpp:86] Creating Layer ip2_ip2_0_split
I0504 09:32:30.463104 23749 net.cpp:408] ip2_ip2_0_split <- ip2
I0504 09:32:30.463109 23749 net.cpp:382] ip2_ip2_0_split -> ip2_ip2_0_split_0
I0504 09:32:30.463114 23749 net.cpp:382] ip2_ip2_0_split -> ip2_ip2_0_split_1
I0504 09:32:30.463143 23749 net.cpp:124] Setting up ip2_ip2_0_split
I0504 09:32:30.463148 23749 net.cpp:131] Top shape: 1000 10 (10000)
I0504 09:32:30.463151 23749 net.cpp:131] Top shape: 1000 10 (10000)
I0504 09:32:30.463155 23749 net.cpp:139] Memory required for data: 443636000
I0504 09:32:30.463158 23749 layer_factory.hpp:77] Creating layer accuracy
I0504 09:32:30.463163 23749 net.cpp:86] Creating Layer accuracy
I0504 09:32:30.463166 23749 net.cpp:408] accuracy <- ip2_ip2_0_split_0
I0504 09:32:30.463171 23749 net.cpp:408] accuracy <- label_cifar_1_split_0
I0504 09:32:30.463176 23749 net.cpp:382] accuracy -> accuracy
…
