…
I0504 14:03:34.688987  2125 net.cpp:296] The NetState phase (0) differed from the phase (1) specified by a rule in layer cifar
I0504 14:03:34.689007  2125 net.cpp:296] The NetState phase (0) differed from the phase (1) specified by a rule in layer accuracy
I0504 14:03:34.689110  2125 net.cpp:53] Initializing net from parameters: 
name: "CIFAR"
state {
  phase: TRAIN
  level: 0
  stage: ""
}
layer {
  name: "cifar"
  type: "Data"
  top: "data"
  top: "label"
  include {
    phase: TRAIN
  }
  transform_param {
    mean_file: "examples/cifar10/mean.binaryproto"
  }
  data_param {
    source: "examples/cifar10/cifar10_train_lmdb"
    batch_size: 111
    backend: LMDB
  }
}
layer {
  name: "conv0"
  type: "Convolution"
  bottom: "data"
  top: "conv0"
  param {
    lr_mult: 1
  }
  param {
    lr_mult: 2
  }
  convolution_param {
    num_output: 24
    pad: 2
    kernel_size: 5
    stride: 1
    weight_filler {
      type: "gaussian"
      std: 0.01
    }
    bias_filler {
      type: "constant"
    }
  }
}
layer {
  name: "Sigmoid0"
  type: "Sigmoid"
  bottom: "conv0"
  top: "Sigmoid0"
}
layer {
  name: "pool0"
  type: "Pooling"
  bottom: "Sigmoid0"
  top: "pool0"
  pooling_param {
    pool: AVE
    kernel_size: 3
    stride: 2
  }
}
layer {
  name: "conv1"
  type: "Convolution"
  bottom: "pool0"
  top: "conv1"
  param {
    lr_mult: 1
  }
  param {
    lr_mult: 2
  }
  convolution_param {
    num_output: 216
    pad: 2
    kernel_size: 5
    stride: 1
    weight_filler {
      type: "gaussian"
      std: 0.01
    }
    bias_filler {
      type: "constant"
    }
  }
}
layer {
  name: "Sigmoid1"
  type: "Sigmoid"
  bottom: "conv1"
  top: "Sigmoid1"
}
layer {
  name: "pool1"
  type: "Pooling"
  bottom: "Sigmoid1"
  top: "pool1"
  pooling_param {
    pool: AVE
    kernel_size: 3
    stride: 2
  }
}
layer {
  name: "ip1"
  type: "InnerProduct"
  bottom: "pool1"
  top: "ip1"
  param {
    lr_mult: 1
  }
  param {
    lr_mult: 2
  }
  inner_product_param {
    num_output: 60
    weight_filler {
      type: "gaussian"
      std: 0.01
    }
    bias_filler {
      type: "constant"
    }
  }
}
layer {
  name: "relu1"
  type: "ReLU"
  bottom: "ip1"
  top: "ip1"
}
layer {
  name: "ip2"
  type: "InnerProduct"
  bottom: "ip1"
  top: "ip2"
  param {
    lr_mult: 1
  }
  param {
    lr_mult: 2
  }
  inner_product_param {
    num_output: 10
    weight_filler {
      type: "gaussian"
      std: 0.01
    }
    bias_filler {
      type: "constant"
    }
  }
}
layer {
  name: "loss"
  type: "SoftmaxWithLoss"
  bottom: "ip2"
  bottom: "label"
  top: "loss"
}
I0504 14:03:34.689190  2125 layer_factory.hpp:77] Creating layer cifar
I0504 14:03:34.689292  2125 db_lmdb.cpp:35] Opened lmdb examples/cifar10/cifar10_train_lmdb
I0504 14:03:34.689318  2125 net.cpp:86] Creating Layer cifar
I0504 14:03:34.689329  2125 net.cpp:382] cifar -> data
I0504 14:03:34.689352  2125 net.cpp:382] cifar -> label
I0504 14:03:34.689368  2125 data_transformer.cpp:25] Loading mean file from: examples/cifar10/mean.binaryproto
I0504 14:03:34.691529  2125 data_layer.cpp:45] output data size: 111,3,32,32
I0504 14:03:34.699556  2125 net.cpp:124] Setting up cifar
I0504 14:03:34.699574  2125 net.cpp:131] Top shape: 111 3 32 32 (340992)
I0504 14:03:34.699580  2125 net.cpp:131] Top shape: 111 (111)
I0504 14:03:34.699584  2125 net.cpp:139] Memory required for data: 1364412
I0504 14:03:34.699591  2125 layer_factory.hpp:77] Creating layer conv0
I0504 14:03:34.699622  2125 net.cpp:86] Creating Layer conv0
I0504 14:03:34.699645  2125 net.cpp:408] conv0 <- data
I0504 14:03:34.699661  2125 net.cpp:382] conv0 -> conv0
I0504 14:03:34.992347  2125 net.cpp:124] Setting up conv0
I0504 14:03:34.992380  2125 net.cpp:131] Top shape: 111 24 32 32 (2727936)
I0504 14:03:34.992385  2125 net.cpp:139] Memory required for data: 12276156
I0504 14:03:34.992403  2125 layer_factory.hpp:77] Creating layer Sigmoid0
I0504 14:03:34.992416  2125 net.cpp:86] Creating Layer Sigmoid0
I0504 14:03:34.992421  2125 net.cpp:408] Sigmoid0 <- conv0
I0504 14:03:34.992436  2125 net.cpp:382] Sigmoid0 -> Sigmoid0
I0504 14:03:34.992653  2125 net.cpp:124] Setting up Sigmoid0
I0504 14:03:34.992666  2125 net.cpp:131] Top shape: 111 24 32 32 (2727936)
I0504 14:03:34.992669  2125 net.cpp:139] Memory required for data: 23187900
I0504 14:03:34.992673  2125 layer_factory.hpp:77] Creating layer pool0
I0504 14:03:34.992681  2125 net.cpp:86] Creating Layer pool0
I0504 14:03:34.992689  2125 net.cpp:408] pool0 <- Sigmoid0
I0504 14:03:34.992696  2125 net.cpp:382] pool0 -> pool0
I0504 14:03:34.993592  2125 net.cpp:124] Setting up pool0
I0504 14:03:34.993610  2125 net.cpp:131] Top shape: 111 24 16 16 (681984)
I0504 14:03:34.993614  2125 net.cpp:139] Memory required for data: 25915836
I0504 14:03:34.993618  2125 layer_factory.hpp:77] Creating layer conv1
I0504 14:03:34.993633  2125 net.cpp:86] Creating Layer conv1
I0504 14:03:34.993638  2125 net.cpp:408] conv1 <- pool0
I0504 14:03:34.993644  2125 net.cpp:382] conv1 -> conv1
I0504 14:03:35.000062  2125 net.cpp:124] Setting up conv1
I0504 14:03:35.000079  2125 net.cpp:131] Top shape: 111 216 16 16 (6137856)
I0504 14:03:35.000083  2125 net.cpp:139] Memory required for data: 50467260
I0504 14:03:35.000093  2125 layer_factory.hpp:77] Creating layer Sigmoid1
I0504 14:03:35.000102  2125 net.cpp:86] Creating Layer Sigmoid1
I0504 14:03:35.000105  2125 net.cpp:408] Sigmoid1 <- conv1
I0504 14:03:35.000111  2125 net.cpp:382] Sigmoid1 -> Sigmoid1
I0504 14:03:35.000318  2125 net.cpp:124] Setting up Sigmoid1
I0504 14:03:35.000329  2125 net.cpp:131] Top shape: 111 216 16 16 (6137856)
I0504 14:03:35.000334  2125 net.cpp:139] Memory required for data: 75018684
I0504 14:03:35.000337  2125 layer_factory.hpp:77] Creating layer pool1
I0504 14:03:35.000344  2125 net.cpp:86] Creating Layer pool1
I0504 14:03:35.000347  2125 net.cpp:408] pool1 <- Sigmoid1
I0504 14:03:35.000354  2125 net.cpp:382] pool1 -> pool1
I0504 14:03:35.000550  2125 net.cpp:124] Setting up pool1
I0504 14:03:35.000561  2125 net.cpp:131] Top shape: 111 216 8 8 (1534464)
I0504 14:03:35.000564  2125 net.cpp:139] Memory required for data: 81156540
I0504 14:03:35.000568  2125 layer_factory.hpp:77] Creating layer ip1
I0504 14:03:35.000578  2125 net.cpp:86] Creating Layer ip1
I0504 14:03:35.000584  2125 net.cpp:408] ip1 <- pool1
I0504 14:03:35.000591  2125 net.cpp:382] ip1 -> ip1
I0504 14:03:35.029039  2125 net.cpp:124] Setting up ip1
I0504 14:03:35.029055  2125 net.cpp:131] Top shape: 111 60 (6660)
I0504 14:03:35.029060  2125 net.cpp:139] Memory required for data: 81183180
I0504 14:03:35.029069  2125 layer_factory.hpp:77] Creating layer relu1
I0504 14:03:35.029078  2125 net.cpp:86] Creating Layer relu1
I0504 14:03:35.029083  2125 net.cpp:408] relu1 <- ip1
I0504 14:03:35.029088  2125 net.cpp:369] relu1 -> ip1 (in-place)
I0504 14:03:35.029280  2125 net.cpp:124] Setting up relu1
I0504 14:03:35.029290  2125 net.cpp:131] Top shape: 111 60 (6660)
I0504 14:03:35.029294  2125 net.cpp:139] Memory required for data: 81209820
I0504 14:03:35.029299  2125 layer_factory.hpp:77] Creating layer ip2
I0504 14:03:35.029305  2125 net.cpp:86] Creating Layer ip2
I0504 14:03:35.029312  2125 net.cpp:408] ip2 <- ip1
I0504 14:03:35.029319  2125 net.cpp:382] ip2 -> ip2
I0504 14:03:35.029448  2125 net.cpp:124] Setting up ip2
I0504 14:03:35.029456  2125 net.cpp:131] Top shape: 111 10 (1110)
I0504 14:03:35.029459  2125 net.cpp:139] Memory required for data: 81214260
I0504 14:03:35.029466  2125 layer_factory.hpp:77] Creating layer loss
I0504 14:03:35.029472  2125 net.cpp:86] Creating Layer loss
I0504 14:03:35.029492  2125 net.cpp:408] loss <- ip2
I0504 14:03:35.029497  2125 net.cpp:408] loss <- label
I0504 14:03:35.029505  2125 net.cpp:382] loss -> loss
I0504 14:03:35.029520  2125 layer_factory.hpp:77] Creating layer loss
…
I0504 14:03:35.030908  2125 solver.cpp:173] Creating test net (#0) specified by net file: ECE595/cifar/train_test/var_everything_tiny/cifar_train_test_169.prototxt
I0504 14:03:35.030938  2125 net.cpp:296] The NetState phase (1) differed from the phase (0) specified by a rule in layer cifar
I0504 14:03:35.031041  2125 net.cpp:53] Initializing net from parameters: 
name: "CIFAR"
state {
  phase: TEST
}
layer {
  name: "cifar"
  type: "Data"
  top: "data"
  top: "label"
  include {
    phase: TEST
  }
  transform_param {
    mean_file: "examples/cifar10/mean.binaryproto"
  }
  data_param {
    source: "examples/cifar10/cifar10_test_lmdb"
    batch_size: 1000
    backend: LMDB
  }
}
layer {
  name: "conv0"
  type: "Convolution"
  bottom: "data"
  top: "conv0"
  param {
    lr_mult: 1
  }
  param {
    lr_mult: 2
  }
  convolution_param {
    num_output: 24
    pad: 2
    kernel_size: 5
    stride: 1
    weight_filler {
      type: "gaussian"
      std: 0.01
    }
    bias_filler {
      type: "constant"
    }
  }
}
layer {
  name: "Sigmoid0"
  type: "Sigmoid"
  bottom: "conv0"
  top: "Sigmoid0"
}
layer {
  name: "pool0"
  type: "Pooling"
  bottom: "Sigmoid0"
  top: "pool0"
  pooling_param {
    pool: AVE
    kernel_size: 3
    stride: 2
  }
}
layer {
  name: "conv1"
  type: "Convolution"
  bottom: "pool0"
  top: "conv1"
  param {
    lr_mult: 1
  }
  param {
    lr_mult: 2
  }
  convolution_param {
    num_output: 216
    pad: 2
    kernel_size: 5
    stride: 1
    weight_filler {
      type: "gaussian"
      std: 0.01
    }
    bias_filler {
      type: "constant"
    }
  }
}
layer {
  name: "Sigmoid1"
  type: "Sigmoid"
  bottom: "conv1"
  top: "Sigmoid1"
}
layer {
  name: "pool1"
  type: "Pooling"
  bottom: "Sigmoid1"
  top: "pool1"
  pooling_param {
    pool: AVE
    kernel_size: 3
    stride: 2
  }
}
layer {
  name: "ip1"
  type: "InnerProduct"
  bottom: "pool1"
  top: "ip1"
  param {
    lr_mult: 1
  }
  param {
    lr_mult: 2
  }
  inner_product_param {
    num_output: 60
    weight_filler {
      type: "gaussian"
      std: 0.01
    }
    bias_filler {
      type: "constant"
    }
  }
}
layer {
  name: "relu1"
  type: "ReLU"
  bottom: "ip1"
  top: "ip1"
}
layer {
  name: "ip2"
  type: "InnerProduct"
  bottom: "ip1"
  top: "ip2"
  param {
    lr_mult: 1
  }
  param {
    lr_mult: 2
  }
  inner_product_param {
    num_output: 10
    weight_filler {
      type: "gaussian"
      std: 0.01
    }
    bias_filler {
      type: "constant"
    }
  }
}
layer {
  name: "accuracy"
  type: "Accuracy"
  bottom: "ip2"
  bottom: "label"
  top: "accuracy"
  include {
    phase: TEST
  }
}
layer {
  name: "loss"
  type: "SoftmaxWithLoss"
  bottom: "ip2"
  bottom: "label"
  top: "loss"
}
I0504 14:03:35.031131  2125 layer_factory.hpp:77] Creating layer cifar
I0504 14:03:35.031189  2125 db_lmdb.cpp:35] Opened lmdb examples/cifar10/cifar10_test_lmdb
I0504 14:03:35.031203  2125 net.cpp:86] Creating Layer cifar
I0504 14:03:35.031209  2125 net.cpp:382] cifar -> data
I0504 14:03:35.031219  2125 net.cpp:382] cifar -> label
I0504 14:03:35.031226  2125 data_transformer.cpp:25] Loading mean file from: examples/cifar10/mean.binaryproto
I0504 14:03:35.031390  2125 data_layer.cpp:45] output data size: 1000,3,32,32
I0504 14:03:35.056231  2125 net.cpp:124] Setting up cifar
I0504 14:03:35.056259  2125 net.cpp:131] Top shape: 1000 3 32 32 (3072000)
I0504 14:03:35.056265  2125 net.cpp:131] Top shape: 1000 (1000)
I0504 14:03:35.056269  2125 net.cpp:139] Memory required for data: 12292000
I0504 14:03:35.056275  2125 layer_factory.hpp:77] Creating layer label_cifar_1_split
I0504 14:03:35.056288  2125 net.cpp:86] Creating Layer label_cifar_1_split
I0504 14:03:35.056293  2125 net.cpp:408] label_cifar_1_split <- label
I0504 14:03:35.056299  2125 net.cpp:382] label_cifar_1_split -> label_cifar_1_split_0
I0504 14:03:35.056309  2125 net.cpp:382] label_cifar_1_split -> label_cifar_1_split_1
I0504 14:03:35.056416  2125 net.cpp:124] Setting up label_cifar_1_split
I0504 14:03:35.056424  2125 net.cpp:131] Top shape: 1000 (1000)
I0504 14:03:35.056428  2125 net.cpp:131] Top shape: 1000 (1000)
I0504 14:03:35.056432  2125 net.cpp:139] Memory required for data: 12300000
I0504 14:03:35.056435  2125 layer_factory.hpp:77] Creating layer conv0
I0504 14:03:35.056449  2125 net.cpp:86] Creating Layer conv0
I0504 14:03:35.056454  2125 net.cpp:408] conv0 <- data
I0504 14:03:35.056459  2125 net.cpp:382] conv0 -> conv0
I0504 14:03:35.057413  2125 net.cpp:124] Setting up conv0
I0504 14:03:35.057426  2125 net.cpp:131] Top shape: 1000 24 32 32 (24576000)
I0504 14:03:35.057430  2125 net.cpp:139] Memory required for data: 110604000
I0504 14:03:35.057440  2125 layer_factory.hpp:77] Creating layer Sigmoid0
I0504 14:03:35.057447  2125 net.cpp:86] Creating Layer Sigmoid0
I0504 14:03:35.057451  2125 net.cpp:408] Sigmoid0 <- conv0
I0504 14:03:35.057456  2125 net.cpp:382] Sigmoid0 -> Sigmoid0
I0504 14:03:35.059368  2125 net.cpp:124] Setting up Sigmoid0
I0504 14:03:35.059386  2125 net.cpp:131] Top shape: 1000 24 32 32 (24576000)
I0504 14:03:35.059389  2125 net.cpp:139] Memory required for data: 208908000
I0504 14:03:35.059394  2125 layer_factory.hpp:77] Creating layer pool0
I0504 14:03:35.059403  2125 net.cpp:86] Creating Layer pool0
I0504 14:03:35.059408  2125 net.cpp:408] pool0 <- Sigmoid0
I0504 14:03:35.059414  2125 net.cpp:382] pool0 -> pool0
I0504 14:03:35.059617  2125 net.cpp:124] Setting up pool0
I0504 14:03:35.059626  2125 net.cpp:131] Top shape: 1000 24 16 16 (6144000)
I0504 14:03:35.059630  2125 net.cpp:139] Memory required for data: 233484000
I0504 14:03:35.059634  2125 layer_factory.hpp:77] Creating layer conv1
I0504 14:03:35.059644  2125 net.cpp:86] Creating Layer conv1
I0504 14:03:35.059650  2125 net.cpp:408] conv1 <- pool0
I0504 14:03:35.059656  2125 net.cpp:382] conv1 -> conv1
I0504 14:03:35.064960  2125 net.cpp:124] Setting up conv1
I0504 14:03:35.064975  2125 net.cpp:131] Top shape: 1000 216 16 16 (55296000)
I0504 14:03:35.064978  2125 net.cpp:139] Memory required for data: 454668000
I0504 14:03:35.064987  2125 layer_factory.hpp:77] Creating layer Sigmoid1
I0504 14:03:35.064995  2125 net.cpp:86] Creating Layer Sigmoid1
I0504 14:03:35.064998  2125 net.cpp:408] Sigmoid1 <- conv1
I0504 14:03:35.065003  2125 net.cpp:382] Sigmoid1 -> Sigmoid1
I0504 14:03:35.065181  2125 net.cpp:124] Setting up Sigmoid1
I0504 14:03:35.065191  2125 net.cpp:131] Top shape: 1000 216 16 16 (55296000)
I0504 14:03:35.065193  2125 net.cpp:139] Memory required for data: 675852000
I0504 14:03:35.065197  2125 layer_factory.hpp:77] Creating layer pool1
I0504 14:03:35.065204  2125 net.cpp:86] Creating Layer pool1
I0504 14:03:35.065208  2125 net.cpp:408] pool1 <- Sigmoid1
I0504 14:03:35.065228  2125 net.cpp:382] pool1 -> pool1
I0504 14:03:35.065400  2125 net.cpp:124] Setting up pool1
I0504 14:03:35.065410  2125 net.cpp:131] Top shape: 1000 216 8 8 (13824000)
I0504 14:03:35.065413  2125 net.cpp:139] Memory required for data: 731148000
I0504 14:03:35.065418  2125 layer_factory.hpp:77] Creating layer ip1
I0504 14:03:35.065426  2125 net.cpp:86] Creating Layer ip1
I0504 14:03:35.065431  2125 net.cpp:408] ip1 <- pool1
I0504 14:03:35.065436  2125 net.cpp:382] ip1 -> ip1
I0504 14:03:35.090010  2125 net.cpp:124] Setting up ip1
I0504 14:03:35.090028  2125 net.cpp:131] Top shape: 1000 60 (60000)
I0504 14:03:35.090031  2125 net.cpp:139] Memory required for data: 731388000
I0504 14:03:35.090040  2125 layer_factory.hpp:77] Creating layer relu1
I0504 14:03:35.090049  2125 net.cpp:86] Creating Layer relu1
I0504 14:03:35.090052  2125 net.cpp:408] relu1 <- ip1
I0504 14:03:35.090057  2125 net.cpp:369] relu1 -> ip1 (in-place)
I0504 14:03:35.090857  2125 net.cpp:124] Setting up relu1
I0504 14:03:35.090868  2125 net.cpp:131] Top shape: 1000 60 (60000)
I0504 14:03:35.090873  2125 net.cpp:139] Memory required for data: 731628000
I0504 14:03:35.090876  2125 layer_factory.hpp:77] Creating layer ip2
I0504 14:03:35.090884  2125 net.cpp:86] Creating Layer ip2
I0504 14:03:35.090888  2125 net.cpp:408] ip2 <- ip1
I0504 14:03:35.090894  2125 net.cpp:382] ip2 -> ip2
I0504 14:03:35.091027  2125 net.cpp:124] Setting up ip2
I0504 14:03:35.091035  2125 net.cpp:131] Top shape: 1000 10 (10000)
I0504 14:03:35.091038  2125 net.cpp:139] Memory required for data: 731668000
I0504 14:03:35.091044  2125 layer_factory.hpp:77] Creating layer ip2_ip2_0_split
I0504 14:03:35.091050  2125 net.cpp:86] Creating Layer ip2_ip2_0_split
I0504 14:03:35.091053  2125 net.cpp:408] ip2_ip2_0_split <- ip2
I0504 14:03:35.091058  2125 net.cpp:382] ip2_ip2_0_split -> ip2_ip2_0_split_0
I0504 14:03:35.091064  2125 net.cpp:382] ip2_ip2_0_split -> ip2_ip2_0_split_1
I0504 14:03:35.091099  2125 net.cpp:124] Setting up ip2_ip2_0_split
I0504 14:03:35.091104  2125 net.cpp:131] Top shape: 1000 10 (10000)
I0504 14:03:35.091109  2125 net.cpp:131] Top shape: 1000 10 (10000)
I0504 14:03:35.091112  2125 net.cpp:139] Memory required for data: 731748000
I0504 14:03:35.091115  2125 layer_factory.hpp:77] Creating layer accuracy
I0504 14:03:35.091121  2125 net.cpp:86] Creating Layer accuracy
I0504 14:03:35.091125  2125 net.cpp:408] accuracy <- ip2_ip2_0_split_0
I0504 14:03:35.091128  2125 net.cpp:408] accuracy <- label_cifar_1_split_0
I0504 14:03:35.091133  2125 net.cpp:382] accuracy -> accuracy
…
