…
I0504 02:07:23.308398  8633 net.cpp:296] The NetState phase (0) differed from the phase (1) specified by a rule in layer cifar
I0504 02:07:23.308420  8633 net.cpp:296] The NetState phase (0) differed from the phase (1) specified by a rule in layer accuracy
I0504 02:07:23.308522  8633 net.cpp:53] Initializing net from parameters: 
name: "CIFAR"
state {
  phase: TRAIN
  level: 0
  stage: ""
}
layer {
  name: "cifar"
  type: "Data"
  top: "data"
  top: "label"
  include {
    phase: TRAIN
  }
  transform_param {
    mean_file: "examples/cifar10/mean.binaryproto"
  }
  data_param {
    source: "examples/cifar10/cifar10_train_lmdb"
    batch_size: 111
    backend: LMDB
  }
}
layer {
  name: "conv0"
  type: "Convolution"
  bottom: "data"
  top: "conv0"
  param {
    lr_mult: 1
  }
  param {
    lr_mult: 2
  }
  convolution_param {
    num_output: 72
    pad: 2
    kernel_size: 5
    stride: 1
    weight_filler {
      type: "gaussian"
      std: 0.01
    }
    bias_filler {
      type: "constant"
    }
  }
}
layer {
  name: "Sigmoid0"
  type: "Sigmoid"
  bottom: "conv0"
  top: "Sigmoid0"
}
layer {
  name: "pool0"
  type: "Pooling"
  bottom: "Sigmoid0"
  top: "pool0"
  pooling_param {
    pool: AVE
    kernel_size: 3
    stride: 2
  }
}
layer {
  name: "ip1"
  type: "InnerProduct"
  bottom: "pool0"
  top: "ip1"
  param {
    lr_mult: 1
  }
  param {
    lr_mult: 2
  }
  inner_product_param {
    num_output: 60
    weight_filler {
      type: "gaussian"
      std: 0.01
    }
    bias_filler {
      type: "constant"
    }
  }
}
layer {
  name: "relu1"
  type: "ReLU"
  bottom: "ip1"
  top: "ip1"
}
layer {
  name: "ip2"
  type: "InnerProduct"
  bottom: "ip1"
  top: "ip2"
  param {
    lr_mult: 1
  }
  param {
    lr_mult: 2
  }
  inner_product_param {
    num_output: 60
    weight_filler {
      type: "gaussian"
      std: 0.01
    }
    bias_filler {
      type: "constant"
    }
  }
}
layer {
  name: "relu2"
  type: "ReLU"
  bottom: "ip2"
  top: "ip2"
}
layer {
  name: "ip3"
  type: "InnerProduct"
  bottom: "ip2"
  top: "ip3"
  param {
    lr_mult: 1
  }
  param {
    lr_mult: 2
  }
  inner_product_param {
    num_output: 10
    weight_filler {
      type: "gaussian"
      std: 0.01
    }
    bias_filler {
      type: "constant"
    }
  }
}
layer {
  name: "loss"
  type: "SoftmaxWithLoss"
  bottom: "ip3"
  bottom: "label"
  top: "loss"
}
I0504 02:07:23.308630  8633 layer_factory.hpp:77] Creating layer cifar
I0504 02:07:23.308761  8633 db_lmdb.cpp:35] Opened lmdb examples/cifar10/cifar10_train_lmdb
I0504 02:07:23.308799  8633 net.cpp:86] Creating Layer cifar
I0504 02:07:23.308817  8633 net.cpp:382] cifar -> data
I0504 02:07:23.308851  8633 net.cpp:382] cifar -> label
I0504 02:07:23.308869  8633 data_transformer.cpp:25] Loading mean file from: examples/cifar10/mean.binaryproto
I0504 02:07:23.311169  8633 data_layer.cpp:45] output data size: 111,3,32,32
I0504 02:07:23.319288  8633 net.cpp:124] Setting up cifar
I0504 02:07:23.319314  8633 net.cpp:131] Top shape: 111 3 32 32 (340992)
I0504 02:07:23.319324  8633 net.cpp:131] Top shape: 111 (111)
I0504 02:07:23.319330  8633 net.cpp:139] Memory required for data: 1364412
I0504 02:07:23.319342  8633 layer_factory.hpp:77] Creating layer conv0
I0504 02:07:23.319370  8633 net.cpp:86] Creating Layer conv0
I0504 02:07:23.319380  8633 net.cpp:408] conv0 <- data
I0504 02:07:23.319399  8633 net.cpp:382] conv0 -> conv0
I0504 02:07:23.609050  8633 net.cpp:124] Setting up conv0
I0504 02:07:23.609102  8633 net.cpp:131] Top shape: 111 72 32 32 (8183808)
I0504 02:07:23.609108  8633 net.cpp:139] Memory required for data: 34099644
I0504 02:07:23.609130  8633 layer_factory.hpp:77] Creating layer Sigmoid0
I0504 02:07:23.609158  8633 net.cpp:86] Creating Layer Sigmoid0
I0504 02:07:23.609169  8633 net.cpp:408] Sigmoid0 <- conv0
I0504 02:07:23.609179  8633 net.cpp:382] Sigmoid0 -> Sigmoid0
I0504 02:07:23.609375  8633 net.cpp:124] Setting up Sigmoid0
I0504 02:07:23.609385  8633 net.cpp:131] Top shape: 111 72 32 32 (8183808)
I0504 02:07:23.609391  8633 net.cpp:139] Memory required for data: 66834876
I0504 02:07:23.609396  8633 layer_factory.hpp:77] Creating layer pool0
I0504 02:07:23.609407  8633 net.cpp:86] Creating Layer pool0
I0504 02:07:23.609412  8633 net.cpp:408] pool0 <- Sigmoid0
I0504 02:07:23.609421  8633 net.cpp:382] pool0 -> pool0
I0504 02:07:23.610201  8633 net.cpp:124] Setting up pool0
I0504 02:07:23.610218  8633 net.cpp:131] Top shape: 111 72 16 16 (2045952)
I0504 02:07:23.610224  8633 net.cpp:139] Memory required for data: 75018684
I0504 02:07:23.610229  8633 layer_factory.hpp:77] Creating layer ip1
I0504 02:07:23.610244  8633 net.cpp:86] Creating Layer ip1
I0504 02:07:23.610249  8633 net.cpp:408] ip1 <- pool0
I0504 02:07:23.610260  8633 net.cpp:382] ip1 -> ip1
I0504 02:07:23.641856  8633 net.cpp:124] Setting up ip1
I0504 02:07:23.641871  8633 net.cpp:131] Top shape: 111 60 (6660)
I0504 02:07:23.641877  8633 net.cpp:139] Memory required for data: 75045324
I0504 02:07:23.641891  8633 layer_factory.hpp:77] Creating layer relu1
I0504 02:07:23.641899  8633 net.cpp:86] Creating Layer relu1
I0504 02:07:23.641906  8633 net.cpp:408] relu1 <- ip1
I0504 02:07:23.641913  8633 net.cpp:369] relu1 -> ip1 (in-place)
I0504 02:07:23.642072  8633 net.cpp:124] Setting up relu1
I0504 02:07:23.642083  8633 net.cpp:131] Top shape: 111 60 (6660)
I0504 02:07:23.642087  8633 net.cpp:139] Memory required for data: 75071964
I0504 02:07:23.642093  8633 layer_factory.hpp:77] Creating layer ip2
I0504 02:07:23.642103  8633 net.cpp:86] Creating Layer ip2
I0504 02:07:23.642108  8633 net.cpp:408] ip2 <- ip1
I0504 02:07:23.642117  8633 net.cpp:382] ip2 -> ip2
I0504 02:07:23.642315  8633 net.cpp:124] Setting up ip2
I0504 02:07:23.642324  8633 net.cpp:131] Top shape: 111 60 (6660)
I0504 02:07:23.642329  8633 net.cpp:139] Memory required for data: 75098604
I0504 02:07:23.642341  8633 layer_factory.hpp:77] Creating layer relu2
I0504 02:07:23.642349  8633 net.cpp:86] Creating Layer relu2
I0504 02:07:23.642355  8633 net.cpp:408] relu2 <- ip2
I0504 02:07:23.642362  8633 net.cpp:369] relu2 -> ip2 (in-place)
I0504 02:07:23.642521  8633 net.cpp:124] Setting up relu2
I0504 02:07:23.642530  8633 net.cpp:131] Top shape: 111 60 (6660)
I0504 02:07:23.642535  8633 net.cpp:139] Memory required for data: 75125244
I0504 02:07:23.642540  8633 layer_factory.hpp:77] Creating layer ip3
I0504 02:07:23.642551  8633 net.cpp:86] Creating Layer ip3
I0504 02:07:23.642556  8633 net.cpp:408] ip3 <- ip2
I0504 02:07:23.642565  8633 net.cpp:382] ip3 -> ip3
I0504 02:07:23.642675  8633 net.cpp:124] Setting up ip3
I0504 02:07:23.642683  8633 net.cpp:131] Top shape: 111 10 (1110)
I0504 02:07:23.642688  8633 net.cpp:139] Memory required for data: 75129684
I0504 02:07:23.642698  8633 layer_factory.hpp:77] Creating layer loss
I0504 02:07:23.642705  8633 net.cpp:86] Creating Layer loss
I0504 02:07:23.642711  8633 net.cpp:408] loss <- ip3
I0504 02:07:23.642717  8633 net.cpp:408] loss <- label
I0504 02:07:23.642725  8633 net.cpp:382] loss -> loss
I0504 02:07:23.642746  8633 layer_factory.hpp:77] Creating layer loss
…
I0504 02:07:23.643394  8633 solver.cpp:173] Creating test net (#0) specified by net file: ECE595/cifar/train_test/var_everything_tiny/cifar_train_test_43.prototxt
I0504 02:07:23.643426  8633 net.cpp:296] The NetState phase (1) differed from the phase (0) specified by a rule in layer cifar
I0504 02:07:23.643518  8633 net.cpp:53] Initializing net from parameters: 
name: "CIFAR"
state {
  phase: TEST
}
layer {
  name: "cifar"
  type: "Data"
  top: "data"
  top: "label"
  include {
    phase: TEST
  }
  transform_param {
    mean_file: "examples/cifar10/mean.binaryproto"
  }
  data_param {
    source: "examples/cifar10/cifar10_test_lmdb"
    batch_size: 1000
    backend: LMDB
  }
}
layer {
  name: "conv0"
  type: "Convolution"
  bottom: "data"
  top: "conv0"
  param {
    lr_mult: 1
  }
  param {
    lr_mult: 2
  }
  convolution_param {
    num_output: 72
    pad: 2
    kernel_size: 5
    stride: 1
    weight_filler {
      type: "gaussian"
      std: 0.01
    }
    bias_filler {
      type: "constant"
    }
  }
}
layer {
  name: "Sigmoid0"
  type: "Sigmoid"
  bottom: "conv0"
  top: "Sigmoid0"
}
layer {
  name: "pool0"
  type: "Pooling"
  bottom: "Sigmoid0"
  top: "pool0"
  pooling_param {
    pool: AVE
    kernel_size: 3
    stride: 2
  }
}
layer {
  name: "ip1"
  type: "InnerProduct"
  bottom: "pool0"
  top: "ip1"
  param {
    lr_mult: 1
  }
  param {
    lr_mult: 2
  }
  inner_product_param {
    num_output: 60
    weight_filler {
      type: "gaussian"
      std: 0.01
    }
    bias_filler {
      type: "constant"
    }
  }
}
layer {
  name: "relu1"
  type: "ReLU"
  bottom: "ip1"
  top: "ip1"
}
layer {
  name: "ip2"
  type: "InnerProduct"
  bottom: "ip1"
  top: "ip2"
  param {
    lr_mult: 1
  }
  param {
    lr_mult: 2
  }
  inner_product_param {
    num_output: 60
    weight_filler {
      type: "gaussian"
      std: 0.01
    }
    bias_filler {
      type: "constant"
    }
  }
}
layer {
  name: "relu2"
  type: "ReLU"
  bottom: "ip2"
  top: "ip2"
}
layer {
  name: "ip3"
  type: "InnerProduct"
  bottom: "ip2"
  top: "ip3"
  param {
    lr_mult: 1
  }
  param {
    lr_mult: 2
  }
  inner_product_param {
    num_output: 10
    weight_filler {
      type: "gaussian"
      std: 0.01
    }
    bias_filler {
      type: "constant"
    }
  }
}
layer {
  name: "accuracy"
  type: "Accuracy"
  bottom: "ip3"
  bottom: "label"
  top: "accuracy"
  include {
    phase: TEST
  }
}
layer {
  name: "loss"
  type: "SoftmaxWithLoss"
  bottom: "ip3"
  bottom: "label"
  top: "loss"
}
I0504 02:07:23.643613  8633 layer_factory.hpp:77] Creating layer cifar
I0504 02:07:23.643673  8633 db_lmdb.cpp:35] Opened lmdb examples/cifar10/cifar10_test_lmdb
I0504 02:07:23.643689  8633 net.cpp:86] Creating Layer cifar
I0504 02:07:23.643697  8633 net.cpp:382] cifar -> data
I0504 02:07:23.643708  8633 net.cpp:382] cifar -> label
I0504 02:07:23.643718  8633 data_transformer.cpp:25] Loading mean file from: examples/cifar10/mean.binaryproto
I0504 02:07:23.643914  8633 data_layer.cpp:45] output data size: 1000,3,32,32
I0504 02:07:23.665609  8633 net.cpp:124] Setting up cifar
I0504 02:07:23.665637  8633 net.cpp:131] Top shape: 1000 3 32 32 (3072000)
I0504 02:07:23.665645  8633 net.cpp:131] Top shape: 1000 (1000)
I0504 02:07:23.665649  8633 net.cpp:139] Memory required for data: 12292000
I0504 02:07:23.665657  8633 layer_factory.hpp:77] Creating layer label_cifar_1_split
I0504 02:07:23.665673  8633 net.cpp:86] Creating Layer label_cifar_1_split
I0504 02:07:23.665702  8633 net.cpp:408] label_cifar_1_split <- label
I0504 02:07:23.665712  8633 net.cpp:382] label_cifar_1_split -> label_cifar_1_split_0
I0504 02:07:23.665727  8633 net.cpp:382] label_cifar_1_split -> label_cifar_1_split_1
I0504 02:07:23.665792  8633 net.cpp:124] Setting up label_cifar_1_split
I0504 02:07:23.665802  8633 net.cpp:131] Top shape: 1000 (1000)
I0504 02:07:23.665807  8633 net.cpp:131] Top shape: 1000 (1000)
I0504 02:07:23.665812  8633 net.cpp:139] Memory required for data: 12300000
I0504 02:07:23.665817  8633 layer_factory.hpp:77] Creating layer conv0
I0504 02:07:23.665833  8633 net.cpp:86] Creating Layer conv0
I0504 02:07:23.665840  8633 net.cpp:408] conv0 <- data
I0504 02:07:23.665848  8633 net.cpp:382] conv0 -> conv0
I0504 02:07:23.667363  8633 net.cpp:124] Setting up conv0
I0504 02:07:23.667377  8633 net.cpp:131] Top shape: 1000 72 32 32 (73728000)
I0504 02:07:23.667383  8633 net.cpp:139] Memory required for data: 307212000
I0504 02:07:23.667413  8633 layer_factory.hpp:77] Creating layer Sigmoid0
I0504 02:07:23.667423  8633 net.cpp:86] Creating Layer Sigmoid0
I0504 02:07:23.667435  8633 net.cpp:408] Sigmoid0 <- conv0
I0504 02:07:23.667443  8633 net.cpp:382] Sigmoid0 -> Sigmoid0
I0504 02:07:23.668256  8633 net.cpp:124] Setting up Sigmoid0
I0504 02:07:23.668269  8633 net.cpp:131] Top shape: 1000 72 32 32 (73728000)
I0504 02:07:23.668274  8633 net.cpp:139] Memory required for data: 602124000
I0504 02:07:23.668280  8633 layer_factory.hpp:77] Creating layer pool0
I0504 02:07:23.668308  8633 net.cpp:86] Creating Layer pool0
I0504 02:07:23.668313  8633 net.cpp:408] pool0 <- Sigmoid0
I0504 02:07:23.668321  8633 net.cpp:382] pool0 -> pool0
I0504 02:07:23.669440  8633 net.cpp:124] Setting up pool0
I0504 02:07:23.669452  8633 net.cpp:131] Top shape: 1000 72 16 16 (18432000)
I0504 02:07:23.669457  8633 net.cpp:139] Memory required for data: 675852000
I0504 02:07:23.669477  8633 layer_factory.hpp:77] Creating layer ip1
I0504 02:07:23.669489  8633 net.cpp:86] Creating Layer ip1
I0504 02:07:23.669494  8633 net.cpp:408] ip1 <- pool0
I0504 02:07:23.669504  8633 net.cpp:382] ip1 -> ip1
I0504 02:07:23.699129  8633 net.cpp:124] Setting up ip1
I0504 02:07:23.699151  8633 net.cpp:131] Top shape: 1000 60 (60000)
I0504 02:07:23.699156  8633 net.cpp:139] Memory required for data: 676092000
I0504 02:07:23.699190  8633 layer_factory.hpp:77] Creating layer relu1
I0504 02:07:23.699201  8633 net.cpp:86] Creating Layer relu1
I0504 02:07:23.699221  8633 net.cpp:408] relu1 <- ip1
I0504 02:07:23.699229  8633 net.cpp:369] relu1 -> ip1 (in-place)
I0504 02:07:23.699404  8633 net.cpp:124] Setting up relu1
I0504 02:07:23.699414  8633 net.cpp:131] Top shape: 1000 60 (60000)
I0504 02:07:23.699419  8633 net.cpp:139] Memory required for data: 676332000
I0504 02:07:23.699424  8633 layer_factory.hpp:77] Creating layer ip2
I0504 02:07:23.699434  8633 net.cpp:86] Creating Layer ip2
I0504 02:07:23.699440  8633 net.cpp:408] ip2 <- ip1
I0504 02:07:23.699448  8633 net.cpp:382] ip2 -> ip2
I0504 02:07:23.699658  8633 net.cpp:124] Setting up ip2
I0504 02:07:23.699667  8633 net.cpp:131] Top shape: 1000 60 (60000)
I0504 02:07:23.699672  8633 net.cpp:139] Memory required for data: 676572000
I0504 02:07:23.699683  8633 layer_factory.hpp:77] Creating layer relu2
I0504 02:07:23.699692  8633 net.cpp:86] Creating Layer relu2
I0504 02:07:23.699697  8633 net.cpp:408] relu2 <- ip2
I0504 02:07:23.699704  8633 net.cpp:369] relu2 -> ip2 (in-place)
I0504 02:07:23.699856  8633 net.cpp:124] Setting up relu2
I0504 02:07:23.699864  8633 net.cpp:131] Top shape: 1000 60 (60000)
I0504 02:07:23.699868  8633 net.cpp:139] Memory required for data: 676812000
I0504 02:07:23.699873  8633 layer_factory.hpp:77] Creating layer ip3
I0504 02:07:23.699882  8633 net.cpp:86] Creating Layer ip3
I0504 02:07:23.699887  8633 net.cpp:408] ip3 <- ip2
I0504 02:07:23.699894  8633 net.cpp:382] ip3 -> ip3
I0504 02:07:23.700031  8633 net.cpp:124] Setting up ip3
I0504 02:07:23.700039  8633 net.cpp:131] Top shape: 1000 10 (10000)
I0504 02:07:23.700063  8633 net.cpp:139] Memory required for data: 676852000
I0504 02:07:23.700073  8633 layer_factory.hpp:77] Creating layer ip3_ip3_0_split
I0504 02:07:23.700080  8633 net.cpp:86] Creating Layer ip3_ip3_0_split
I0504 02:07:23.700085  8633 net.cpp:408] ip3_ip3_0_split <- ip3
I0504 02:07:23.700093  8633 net.cpp:382] ip3_ip3_0_split -> ip3_ip3_0_split_0
I0504 02:07:23.700101  8633 net.cpp:382] ip3_ip3_0_split -> ip3_ip3_0_split_1
I0504 02:07:23.700139  8633 net.cpp:124] Setting up ip3_ip3_0_split
I0504 02:07:23.700146  8633 net.cpp:131] Top shape: 1000 10 (10000)
I0504 02:07:23.700153  8633 net.cpp:131] Top shape: 1000 10 (10000)
I0504 02:07:23.700157  8633 net.cpp:139] Memory required for data: 676932000
I0504 02:07:23.700162  8633 layer_factory.hpp:77] Creating layer accuracy
I0504 02:07:23.700170  8633 net.cpp:86] Creating Layer accuracy
I0504 02:07:23.700176  8633 net.cpp:408] accuracy <- ip3_ip3_0_split_0
I0504 02:07:23.700182  8633 net.cpp:408] accuracy <- label_cifar_1_split_0
I0504 02:07:23.700189  8633 net.cpp:382] accuracy -> accuracy
…
