…
I0504 15:28:59.094017  6672 net.cpp:296] The NetState phase (0) differed from the phase (1) specified by a rule in layer cifar
I0504 15:28:59.094034  6672 net.cpp:296] The NetState phase (0) differed from the phase (1) specified by a rule in layer accuracy
I0504 15:28:59.094131  6672 net.cpp:53] Initializing net from parameters: 
name: "CIFAR"
state {
  phase: TRAIN
  level: 0
  stage: ""
}
layer {
  name: "cifar"
  type: "Data"
  top: "data"
  top: "label"
  include {
    phase: TRAIN
  }
  transform_param {
    mean_file: "examples/cifar10/mean.binaryproto"
  }
  data_param {
    source: "examples/cifar10/cifar10_train_lmdb"
    batch_size: 111
    backend: LMDB
  }
}
layer {
  name: "conv0"
  type: "Convolution"
  bottom: "data"
  top: "conv0"
  param {
    lr_mult: 1
  }
  param {
    lr_mult: 2
  }
  convolution_param {
    num_output: 72
    pad: 2
    kernel_size: 3
    stride: 1
    weight_filler {
      type: "gaussian"
      std: 0.01
    }
    bias_filler {
      type: "constant"
    }
  }
}
layer {
  name: "Sigmoid0"
  type: "Sigmoid"
  bottom: "conv0"
  top: "Sigmoid0"
}
layer {
  name: "pool0"
  type: "Pooling"
  bottom: "Sigmoid0"
  top: "pool0"
  pooling_param {
    pool: AVE
    kernel_size: 3
    stride: 2
  }
}
layer {
  name: "conv1"
  type: "Convolution"
  bottom: "pool0"
  top: "conv1"
  param {
    lr_mult: 1
  }
  param {
    lr_mult: 2
  }
  convolution_param {
    num_output: 72
    pad: 2
    kernel_size: 3
    stride: 1
    weight_filler {
      type: "gaussian"
      std: 0.01
    }
    bias_filler {
      type: "constant"
    }
  }
}
layer {
  name: "Sigmoid1"
  type: "Sigmoid"
  bottom: "conv1"
  top: "Sigmoid1"
}
layer {
  name: "pool1"
  type: "Pooling"
  bottom: "Sigmoid1"
  top: "pool1"
  pooling_param {
    pool: AVE
    kernel_size: 3
    stride: 2
  }
}
layer {
  name: "ip1"
  type: "InnerProduct"
  bottom: "pool1"
  top: "ip1"
  param {
    lr_mult: 1
  }
  param {
    lr_mult: 2
  }
  inner_product_param {
    num_output: 10
    weight_filler {
      type: "gaussian"
      std: 0.01
    }
    bias_filler {
      type: "constant"
    }
  }
}
layer {
  name: "relu1"
  type: "ReLU"
  bottom: "ip1"
  top: "ip1"
}
layer {
  name: "ip2"
  type: "InnerProduct"
  bottom: "ip1"
  top: "ip2"
  param {
    lr_mult: 1
  }
  param {
    lr_mult: 2
  }
  inner_product_param {
    num_output: 10
    weight_filler {
      type: "gaussian"
      std: 0.01
    }
    bias_filler {
      type: "constant"
    }
  }
}
layer {
  name: "loss"
  type: "SoftmaxWithLoss"
  bottom: "ip2"
  bottom: "label"
  top: "loss"
}
I0504 15:28:59.094203  6672 layer_factory.hpp:77] Creating layer cifar
I0504 15:28:59.094305  6672 db_lmdb.cpp:35] Opened lmdb examples/cifar10/cifar10_train_lmdb
I0504 15:28:59.094332  6672 net.cpp:86] Creating Layer cifar
I0504 15:28:59.094341  6672 net.cpp:382] cifar -> data
I0504 15:28:59.094364  6672 net.cpp:382] cifar -> label
I0504 15:28:59.094377  6672 data_transformer.cpp:25] Loading mean file from: examples/cifar10/mean.binaryproto
I0504 15:28:59.096545  6672 data_layer.cpp:45] output data size: 111,3,32,32
I0504 15:28:59.104735  6672 net.cpp:124] Setting up cifar
I0504 15:28:59.104755  6672 net.cpp:131] Top shape: 111 3 32 32 (340992)
I0504 15:28:59.104763  6672 net.cpp:131] Top shape: 111 (111)
I0504 15:28:59.104766  6672 net.cpp:139] Memory required for data: 1364412
I0504 15:28:59.104775  6672 layer_factory.hpp:77] Creating layer conv0
I0504 15:28:59.104794  6672 net.cpp:86] Creating Layer conv0
I0504 15:28:59.104822  6672 net.cpp:408] conv0 <- data
I0504 15:28:59.104836  6672 net.cpp:382] conv0 -> conv0
I0504 15:28:59.394403  6672 net.cpp:124] Setting up conv0
I0504 15:28:59.394433  6672 net.cpp:131] Top shape: 111 72 34 34 (9238752)
I0504 15:28:59.394438  6672 net.cpp:139] Memory required for data: 38319420
I0504 15:28:59.394454  6672 layer_factory.hpp:77] Creating layer Sigmoid0
I0504 15:28:59.394467  6672 net.cpp:86] Creating Layer Sigmoid0
I0504 15:28:59.394472  6672 net.cpp:408] Sigmoid0 <- conv0
I0504 15:28:59.394479  6672 net.cpp:382] Sigmoid0 -> Sigmoid0
I0504 15:28:59.394666  6672 net.cpp:124] Setting up Sigmoid0
I0504 15:28:59.394677  6672 net.cpp:131] Top shape: 111 72 34 34 (9238752)
I0504 15:28:59.394681  6672 net.cpp:139] Memory required for data: 75274428
I0504 15:28:59.394685  6672 layer_factory.hpp:77] Creating layer pool0
I0504 15:28:59.394691  6672 net.cpp:86] Creating Layer pool0
I0504 15:28:59.394695  6672 net.cpp:408] pool0 <- Sigmoid0
I0504 15:28:59.394701  6672 net.cpp:382] pool0 -> pool0
I0504 15:28:59.395485  6672 net.cpp:124] Setting up pool0
I0504 15:28:59.395500  6672 net.cpp:131] Top shape: 111 72 17 17 (2309688)
I0504 15:28:59.395504  6672 net.cpp:139] Memory required for data: 84513180
I0504 15:28:59.395509  6672 layer_factory.hpp:77] Creating layer conv1
I0504 15:28:59.395521  6672 net.cpp:86] Creating Layer conv1
I0504 15:28:59.395525  6672 net.cpp:408] conv1 <- pool0
I0504 15:28:59.395531  6672 net.cpp:382] conv1 -> conv1
I0504 15:28:59.400413  6672 net.cpp:124] Setting up conv1
I0504 15:28:59.400427  6672 net.cpp:131] Top shape: 111 72 19 19 (2885112)
I0504 15:28:59.400431  6672 net.cpp:139] Memory required for data: 96053628
I0504 15:28:59.400440  6672 layer_factory.hpp:77] Creating layer Sigmoid1
I0504 15:28:59.400447  6672 net.cpp:86] Creating Layer Sigmoid1
I0504 15:28:59.400450  6672 net.cpp:408] Sigmoid1 <- conv1
I0504 15:28:59.400456  6672 net.cpp:382] Sigmoid1 -> Sigmoid1
I0504 15:28:59.400640  6672 net.cpp:124] Setting up Sigmoid1
I0504 15:28:59.400650  6672 net.cpp:131] Top shape: 111 72 19 19 (2885112)
I0504 15:28:59.400655  6672 net.cpp:139] Memory required for data: 107594076
I0504 15:28:59.400657  6672 layer_factory.hpp:77] Creating layer pool1
I0504 15:28:59.400663  6672 net.cpp:86] Creating Layer pool1
I0504 15:28:59.400667  6672 net.cpp:408] pool1 <- Sigmoid1
I0504 15:28:59.400672  6672 net.cpp:382] pool1 -> pool1
I0504 15:28:59.400849  6672 net.cpp:124] Setting up pool1
I0504 15:28:59.400859  6672 net.cpp:131] Top shape: 111 72 9 9 (647352)
I0504 15:28:59.400862  6672 net.cpp:139] Memory required for data: 110183484
I0504 15:28:59.400866  6672 layer_factory.hpp:77] Creating layer ip1
I0504 15:28:59.400889  6672 net.cpp:86] Creating Layer ip1
I0504 15:28:59.400892  6672 net.cpp:408] ip1 <- pool1
I0504 15:28:59.400898  6672 net.cpp:382] ip1 -> ip1
I0504 15:28:59.402634  6672 net.cpp:124] Setting up ip1
I0504 15:28:59.402642  6672 net.cpp:131] Top shape: 111 10 (1110)
I0504 15:28:59.402647  6672 net.cpp:139] Memory required for data: 110187924
I0504 15:28:59.402653  6672 layer_factory.hpp:77] Creating layer relu1
I0504 15:28:59.402660  6672 net.cpp:86] Creating Layer relu1
I0504 15:28:59.402664  6672 net.cpp:408] relu1 <- ip1
I0504 15:28:59.402668  6672 net.cpp:369] relu1 -> ip1 (in-place)
I0504 15:28:59.402827  6672 net.cpp:124] Setting up relu1
I0504 15:28:59.402835  6672 net.cpp:131] Top shape: 111 10 (1110)
I0504 15:28:59.402838  6672 net.cpp:139] Memory required for data: 110192364
I0504 15:28:59.402842  6672 layer_factory.hpp:77] Creating layer ip2
I0504 15:28:59.402848  6672 net.cpp:86] Creating Layer ip2
I0504 15:28:59.402851  6672 net.cpp:408] ip2 <- ip1
I0504 15:28:59.402856  6672 net.cpp:382] ip2 -> ip2
I0504 15:28:59.402956  6672 net.cpp:124] Setting up ip2
I0504 15:28:59.402962  6672 net.cpp:131] Top shape: 111 10 (1110)
I0504 15:28:59.402966  6672 net.cpp:139] Memory required for data: 110196804
I0504 15:28:59.402972  6672 layer_factory.hpp:77] Creating layer loss
I0504 15:28:59.402977  6672 net.cpp:86] Creating Layer loss
I0504 15:28:59.402995  6672 net.cpp:408] loss <- ip2
I0504 15:28:59.402999  6672 net.cpp:408] loss <- label
I0504 15:28:59.403005  6672 net.cpp:382] loss -> loss
I0504 15:28:59.403023  6672 layer_factory.hpp:77] Creating layer loss
…
I0504 15:28:59.404247  6672 solver.cpp:173] Creating test net (#0) specified by net file: ECE595/cifar/train_test/var_everything_tiny/cifar_train_test_180.prototxt
I0504 15:28:59.404275  6672 net.cpp:296] The NetState phase (1) differed from the phase (0) specified by a rule in layer cifar
I0504 15:28:59.404366  6672 net.cpp:53] Initializing net from parameters: 
name: "CIFAR"
state {
  phase: TEST
}
layer {
  name: "cifar"
  type: "Data"
  top: "data"
  top: "label"
  include {
    phase: TEST
  }
  transform_param {
    mean_file: "examples/cifar10/mean.binaryproto"
  }
  data_param {
    source: "examples/cifar10/cifar10_test_lmdb"
    batch_size: 1000
    backend: LMDB
  }
}
layer {
  name: "conv0"
  type: "Convolution"
  bottom: "data"
  top: "conv0"
  param {
    lr_mult: 1
  }
  param {
    lr_mult: 2
  }
  convolution_param {
    num_output: 72
    pad: 2
    kernel_size: 3
    stride: 1
    weight_filler {
      type: "gaussian"
      std: 0.01
    }
    bias_filler {
      type: "constant"
    }
  }
}
layer {
  name: "Sigmoid0"
  type: "Sigmoid"
  bottom: "conv0"
  top: "Sigmoid0"
}
layer {
  name: "pool0"
  type: "Pooling"
  bottom: "Sigmoid0"
  top: "pool0"
  pooling_param {
    pool: AVE
    kernel_size: 3
    stride: 2
  }
}
layer {
  name: "conv1"
  type: "Convolution"
  bottom: "pool0"
  top: "conv1"
  param {
    lr_mult: 1
  }
  param {
    lr_mult: 2
  }
  convolution_param {
    num_output: 72
    pad: 2
    kernel_size: 3
    stride: 1
    weight_filler {
      type: "gaussian"
      std: 0.01
    }
    bias_filler {
      type: "constant"
    }
  }
}
layer {
  name: "Sigmoid1"
  type: "Sigmoid"
  bottom: "conv1"
  top: "Sigmoid1"
}
layer {
  name: "pool1"
  type: "Pooling"
  bottom: "Sigmoid1"
  top: "pool1"
  pooling_param {
    pool: AVE
    kernel_size: 3
    stride: 2
  }
}
layer {
  name: "ip1"
  type: "InnerProduct"
  bottom: "pool1"
  top: "ip1"
  param {
    lr_mult: 1
  }
  param {
    lr_mult: 2
  }
  inner_product_param {
    num_output: 10
    weight_filler {
      type: "gaussian"
      std: 0.01
    }
    bias_filler {
      type: "constant"
    }
  }
}
layer {
  name: "relu1"
  type: "ReLU"
  bottom: "ip1"
  top: "ip1"
}
layer {
  name: "ip2"
  type: "InnerProduct"
  bottom: "ip1"
  top: "ip2"
  param {
    lr_mult: 1
  }
  param {
    lr_mult: 2
  }
  inner_product_param {
    num_output: 10
    weight_filler {
      type: "gaussian"
      std: 0.01
    }
    bias_filler {
      type: "constant"
    }
  }
}
layer {
  name: "accuracy"
  type: "Accuracy"
  bottom: "ip2"
  bottom: "label"
  top: "accuracy"
  include {
    phase: TEST
  }
}
layer {
  name: "loss"
  type: "SoftmaxWithLoss"
  bottom: "ip2"
  bottom: "label"
  top: "loss"
}
I0504 15:28:59.404453  6672 layer_factory.hpp:77] Creating layer cifar
I0504 15:28:59.404500  6672 db_lmdb.cpp:35] Opened lmdb examples/cifar10/cifar10_test_lmdb
I0504 15:28:59.404513  6672 net.cpp:86] Creating Layer cifar
I0504 15:28:59.404518  6672 net.cpp:382] cifar -> data
I0504 15:28:59.404526  6672 net.cpp:382] cifar -> label
I0504 15:28:59.404533  6672 data_transformer.cpp:25] Loading mean file from: examples/cifar10/mean.binaryproto
I0504 15:28:59.404675  6672 data_layer.cpp:45] output data size: 1000,3,32,32
I0504 15:28:59.426879  6672 net.cpp:124] Setting up cifar
I0504 15:28:59.426906  6672 net.cpp:131] Top shape: 1000 3 32 32 (3072000)
I0504 15:28:59.426913  6672 net.cpp:131] Top shape: 1000 (1000)
I0504 15:28:59.426915  6672 net.cpp:139] Memory required for data: 12292000
I0504 15:28:59.426921  6672 layer_factory.hpp:77] Creating layer label_cifar_1_split
I0504 15:28:59.426939  6672 net.cpp:86] Creating Layer label_cifar_1_split
I0504 15:28:59.426942  6672 net.cpp:408] label_cifar_1_split <- label
I0504 15:28:59.426949  6672 net.cpp:382] label_cifar_1_split -> label_cifar_1_split_0
I0504 15:28:59.426959  6672 net.cpp:382] label_cifar_1_split -> label_cifar_1_split_1
I0504 15:28:59.427090  6672 net.cpp:124] Setting up label_cifar_1_split
I0504 15:28:59.427098  6672 net.cpp:131] Top shape: 1000 (1000)
I0504 15:28:59.427101  6672 net.cpp:131] Top shape: 1000 (1000)
I0504 15:28:59.427104  6672 net.cpp:139] Memory required for data: 12300000
I0504 15:28:59.427108  6672 layer_factory.hpp:77] Creating layer conv0
I0504 15:28:59.427120  6672 net.cpp:86] Creating Layer conv0
I0504 15:28:59.427124  6672 net.cpp:408] conv0 <- data
I0504 15:28:59.427129  6672 net.cpp:382] conv0 -> conv0
I0504 15:28:59.427953  6672 net.cpp:124] Setting up conv0
I0504 15:28:59.427963  6672 net.cpp:131] Top shape: 1000 72 34 34 (83232000)
I0504 15:28:59.427968  6672 net.cpp:139] Memory required for data: 345228000
I0504 15:28:59.427976  6672 layer_factory.hpp:77] Creating layer Sigmoid0
I0504 15:28:59.427983  6672 net.cpp:86] Creating Layer Sigmoid0
I0504 15:28:59.427986  6672 net.cpp:408] Sigmoid0 <- conv0
I0504 15:28:59.427991  6672 net.cpp:382] Sigmoid0 -> Sigmoid0
I0504 15:28:59.428778  6672 net.cpp:124] Setting up Sigmoid0
I0504 15:28:59.428791  6672 net.cpp:131] Top shape: 1000 72 34 34 (83232000)
I0504 15:28:59.428795  6672 net.cpp:139] Memory required for data: 678156000
I0504 15:28:59.428799  6672 layer_factory.hpp:77] Creating layer pool0
I0504 15:28:59.428807  6672 net.cpp:86] Creating Layer pool0
I0504 15:28:59.428833  6672 net.cpp:408] pool0 <- Sigmoid0
I0504 15:28:59.428838  6672 net.cpp:382] pool0 -> pool0
I0504 15:28:59.429091  6672 net.cpp:124] Setting up pool0
I0504 15:28:59.429101  6672 net.cpp:131] Top shape: 1000 72 17 17 (20808000)
I0504 15:28:59.429105  6672 net.cpp:139] Memory required for data: 761388000
I0504 15:28:59.429107  6672 layer_factory.hpp:77] Creating layer conv1
I0504 15:28:59.429116  6672 net.cpp:86] Creating Layer conv1
I0504 15:28:59.429121  6672 net.cpp:408] conv1 <- pool0
I0504 15:28:59.429141  6672 net.cpp:382] conv1 -> conv1
I0504 15:28:59.432757  6672 net.cpp:124] Setting up conv1
I0504 15:28:59.432771  6672 net.cpp:131] Top shape: 1000 72 19 19 (25992000)
I0504 15:28:59.432775  6672 net.cpp:139] Memory required for data: 865356000
I0504 15:28:59.432785  6672 layer_factory.hpp:77] Creating layer Sigmoid1
I0504 15:28:59.432790  6672 net.cpp:86] Creating Layer Sigmoid1
I0504 15:28:59.432795  6672 net.cpp:408] Sigmoid1 <- conv1
I0504 15:28:59.432799  6672 net.cpp:382] Sigmoid1 -> Sigmoid1
I0504 15:28:59.432986  6672 net.cpp:124] Setting up Sigmoid1
I0504 15:28:59.432996  6672 net.cpp:131] Top shape: 1000 72 19 19 (25992000)
I0504 15:28:59.433001  6672 net.cpp:139] Memory required for data: 969324000
I0504 15:28:59.433003  6672 layer_factory.hpp:77] Creating layer pool1
I0504 15:28:59.433009  6672 net.cpp:86] Creating Layer pool1
I0504 15:28:59.433013  6672 net.cpp:408] pool1 <- Sigmoid1
I0504 15:28:59.433032  6672 net.cpp:382] pool1 -> pool1
I0504 15:28:59.433203  6672 net.cpp:124] Setting up pool1
I0504 15:28:59.433212  6672 net.cpp:131] Top shape: 1000 72 9 9 (5832000)
I0504 15:28:59.433215  6672 net.cpp:139] Memory required for data: 992652000
I0504 15:28:59.433219  6672 layer_factory.hpp:77] Creating layer ip1
I0504 15:28:59.433228  6672 net.cpp:86] Creating Layer ip1
I0504 15:28:59.433230  6672 net.cpp:408] ip1 <- pool1
I0504 15:28:59.433236  6672 net.cpp:382] ip1 -> ip1
I0504 15:28:59.435015  6672 net.cpp:124] Setting up ip1
I0504 15:28:59.435024  6672 net.cpp:131] Top shape: 1000 10 (10000)
I0504 15:28:59.435027  6672 net.cpp:139] Memory required for data: 992692000
I0504 15:28:59.435035  6672 layer_factory.hpp:77] Creating layer relu1
I0504 15:28:59.435041  6672 net.cpp:86] Creating Layer relu1
I0504 15:28:59.435045  6672 net.cpp:408] relu1 <- ip1
I0504 15:28:59.435048  6672 net.cpp:369] relu1 -> ip1 (in-place)
I0504 15:28:59.435791  6672 net.cpp:124] Setting up relu1
I0504 15:28:59.435804  6672 net.cpp:131] Top shape: 1000 10 (10000)
I0504 15:28:59.435808  6672 net.cpp:139] Memory required for data: 992732000
I0504 15:28:59.435811  6672 layer_factory.hpp:77] Creating layer ip2
I0504 15:28:59.435820  6672 net.cpp:86] Creating Layer ip2
I0504 15:28:59.435823  6672 net.cpp:408] ip2 <- ip1
I0504 15:28:59.435829  6672 net.cpp:382] ip2 -> ip2
I0504 15:28:59.435935  6672 net.cpp:124] Setting up ip2
I0504 15:28:59.435943  6672 net.cpp:131] Top shape: 1000 10 (10000)
I0504 15:28:59.435946  6672 net.cpp:139] Memory required for data: 992772000
I0504 15:28:59.435952  6672 layer_factory.hpp:77] Creating layer ip2_ip2_0_split
I0504 15:28:59.435957  6672 net.cpp:86] Creating Layer ip2_ip2_0_split
I0504 15:28:59.435961  6672 net.cpp:408] ip2_ip2_0_split <- ip2
I0504 15:28:59.435966  6672 net.cpp:382] ip2_ip2_0_split -> ip2_ip2_0_split_0
I0504 15:28:59.435971  6672 net.cpp:382] ip2_ip2_0_split -> ip2_ip2_0_split_1
I0504 15:28:59.436015  6672 net.cpp:124] Setting up ip2_ip2_0_split
I0504 15:28:59.436019  6672 net.cpp:131] Top shape: 1000 10 (10000)
I0504 15:28:59.436023  6672 net.cpp:131] Top shape: 1000 10 (10000)
I0504 15:28:59.436025  6672 net.cpp:139] Memory required for data: 992852000
I0504 15:28:59.436028  6672 layer_factory.hpp:77] Creating layer accuracy
I0504 15:28:59.436043  6672 net.cpp:86] Creating Layer accuracy
I0504 15:28:59.436046  6672 net.cpp:408] accuracy <- ip2_ip2_0_split_0
I0504 15:28:59.436050  6672 net.cpp:408] accuracy <- label_cifar_1_split_0
I0504 15:28:59.436054  6672 net.cpp:382] accuracy -> accuracy
…
