…
I0504 12:55:21.484297 30787 net.cpp:296] The NetState phase (0) differed from the phase (1) specified by a rule in layer cifar
I0504 12:55:21.484318 30787 net.cpp:296] The NetState phase (0) differed from the phase (1) specified by a rule in layer accuracy
I0504 12:55:21.484447 30787 net.cpp:53] Initializing net from parameters: 
name: "CIFAR"
state {
  phase: TRAIN
  level: 0
  stage: ""
}
layer {
  name: "cifar"
  type: "Data"
  top: "data"
  top: "label"
  include {
    phase: TRAIN
  }
  transform_param {
    mean_file: "examples/cifar10/mean.binaryproto"
  }
  data_param {
    source: "examples/cifar10/cifar10_train_lmdb"
    batch_size: 111
    backend: LMDB
  }
}
layer {
  name: "conv0"
  type: "Convolution"
  bottom: "data"
  top: "conv0"
  param {
    lr_mult: 1
  }
  param {
    lr_mult: 2
  }
  convolution_param {
    num_output: 24
    pad: 2
    kernel_size: 5
    stride: 1
    weight_filler {
      type: "gaussian"
      std: 0.01
    }
    bias_filler {
      type: "constant"
    }
  }
}
layer {
  name: "Sigmoid0"
  type: "Sigmoid"
  bottom: "conv0"
  top: "Sigmoid0"
}
layer {
  name: "pool0"
  type: "Pooling"
  bottom: "Sigmoid0"
  top: "pool0"
  pooling_param {
    pool: AVE
    kernel_size: 3
    stride: 2
  }
}
layer {
  name: "conv1"
  type: "Convolution"
  bottom: "pool0"
  top: "conv1"
  param {
    lr_mult: 1
  }
  param {
    lr_mult: 2
  }
  convolution_param {
    num_output: 216
    pad: 2
    kernel_size: 3
    stride: 1
    weight_filler {
      type: "gaussian"
      std: 0.01
    }
    bias_filler {
      type: "constant"
    }
  }
}
layer {
  name: "Sigmoid1"
  type: "Sigmoid"
  bottom: "conv1"
  top: "Sigmoid1"
}
layer {
  name: "pool1"
  type: "Pooling"
  bottom: "Sigmoid1"
  top: "pool1"
  pooling_param {
    pool: AVE
    kernel_size: 3
    stride: 2
  }
}
layer {
  name: "ip1"
  type: "InnerProduct"
  bottom: "pool1"
  top: "ip1"
  param {
    lr_mult: 1
  }
  param {
    lr_mult: 2
  }
  inner_product_param {
    num_output: 10
    weight_filler {
      type: "gaussian"
      std: 0.01
    }
    bias_filler {
      type: "constant"
    }
  }
}
layer {
  name: "relu1"
  type: "ReLU"
  bottom: "ip1"
  top: "ip1"
}
layer {
  name: "ip2"
  type: "InnerProduct"
  bottom: "ip1"
  top: "ip2"
  param {
    lr_mult: 1
  }
  param {
    lr_mult: 2
  }
  inner_product_param {
    num_output: 10
    weight_filler {
      type: "gaussian"
      std: 0.01
    }
    bias_filler {
      type: "constant"
    }
  }
}
layer {
  name: "relu2"
  type: "ReLU"
  bottom: "ip2"
  top: "ip2"
}
layer {
  name: "ip3"
  type: "InnerProduct"
  bottom: "ip2"
  top: "ip3"
  param {
    lr_mult: 1
  }
  param {
    lr_mult: 2
  }
  inner_product_param {
    num_output: 10
    weight_filler {
      type: "gaussian"
      std: 0.01
    }
    bias_filler {
      type: "constant"
    }
  }
}
layer {
  name: "loss"
  type: "SoftmaxWithLoss"
  bottom: "ip3"
  bottom: "label"
  top: "loss"
}
I0504 12:55:21.484571 30787 layer_factory.hpp:77] Creating layer cifar
I0504 12:55:21.484699 30787 db_lmdb.cpp:35] Opened lmdb examples/cifar10/cifar10_train_lmdb
I0504 12:55:21.484733 30787 net.cpp:86] Creating Layer cifar
I0504 12:55:21.484748 30787 net.cpp:382] cifar -> data
I0504 12:55:21.484778 30787 net.cpp:382] cifar -> label
I0504 12:55:21.484800 30787 data_transformer.cpp:25] Loading mean file from: examples/cifar10/mean.binaryproto
I0504 12:55:21.487143 30787 data_layer.cpp:45] output data size: 111,3,32,32
I0504 12:55:21.495204 30787 net.cpp:124] Setting up cifar
I0504 12:55:21.495224 30787 net.cpp:131] Top shape: 111 3 32 32 (340992)
I0504 12:55:21.495231 30787 net.cpp:131] Top shape: 111 (111)
I0504 12:55:21.495234 30787 net.cpp:139] Memory required for data: 1364412
I0504 12:55:21.495241 30787 layer_factory.hpp:77] Creating layer conv0
I0504 12:55:21.495271 30787 net.cpp:86] Creating Layer conv0
I0504 12:55:21.495280 30787 net.cpp:408] conv0 <- data
I0504 12:55:21.495299 30787 net.cpp:382] conv0 -> conv0
I0504 12:55:21.777212 30787 net.cpp:124] Setting up conv0
I0504 12:55:21.777240 30787 net.cpp:131] Top shape: 111 24 32 32 (2727936)
I0504 12:55:21.777245 30787 net.cpp:139] Memory required for data: 12276156
I0504 12:55:21.777259 30787 layer_factory.hpp:77] Creating layer Sigmoid0
I0504 12:55:21.777271 30787 net.cpp:86] Creating Layer Sigmoid0
I0504 12:55:21.777274 30787 net.cpp:408] Sigmoid0 <- conv0
I0504 12:55:21.777279 30787 net.cpp:382] Sigmoid0 -> Sigmoid0
I0504 12:55:21.777470 30787 net.cpp:124] Setting up Sigmoid0
I0504 12:55:21.777482 30787 net.cpp:131] Top shape: 111 24 32 32 (2727936)
I0504 12:55:21.777484 30787 net.cpp:139] Memory required for data: 23187900
I0504 12:55:21.777488 30787 layer_factory.hpp:77] Creating layer pool0
I0504 12:55:21.777498 30787 net.cpp:86] Creating Layer pool0
I0504 12:55:21.777503 30787 net.cpp:408] pool0 <- Sigmoid0
I0504 12:55:21.777510 30787 net.cpp:382] pool0 -> pool0
I0504 12:55:21.778240 30787 net.cpp:124] Setting up pool0
I0504 12:55:21.778254 30787 net.cpp:131] Top shape: 111 24 16 16 (681984)
I0504 12:55:21.778257 30787 net.cpp:139] Memory required for data: 25915836
I0504 12:55:21.778260 30787 layer_factory.hpp:77] Creating layer conv1
I0504 12:55:21.778272 30787 net.cpp:86] Creating Layer conv1
I0504 12:55:21.778276 30787 net.cpp:408] conv1 <- pool0
I0504 12:55:21.778281 30787 net.cpp:382] conv1 -> conv1
I0504 12:55:21.782003 30787 net.cpp:124] Setting up conv1
I0504 12:55:21.782017 30787 net.cpp:131] Top shape: 111 216 18 18 (7768224)
I0504 12:55:21.782021 30787 net.cpp:139] Memory required for data: 56988732
I0504 12:55:21.782029 30787 layer_factory.hpp:77] Creating layer Sigmoid1
I0504 12:55:21.782035 30787 net.cpp:86] Creating Layer Sigmoid1
I0504 12:55:21.782038 30787 net.cpp:408] Sigmoid1 <- conv1
I0504 12:55:21.782042 30787 net.cpp:382] Sigmoid1 -> Sigmoid1
I0504 12:55:21.782224 30787 net.cpp:124] Setting up Sigmoid1
I0504 12:55:21.782234 30787 net.cpp:131] Top shape: 111 216 18 18 (7768224)
I0504 12:55:21.782238 30787 net.cpp:139] Memory required for data: 88061628
I0504 12:55:21.782241 30787 layer_factory.hpp:77] Creating layer pool1
I0504 12:55:21.782249 30787 net.cpp:86] Creating Layer pool1
I0504 12:55:21.782254 30787 net.cpp:408] pool1 <- Sigmoid1
I0504 12:55:21.782261 30787 net.cpp:382] pool1 -> pool1
I0504 12:55:21.782423 30787 net.cpp:124] Setting up pool1
I0504 12:55:21.782433 30787 net.cpp:131] Top shape: 111 216 9 9 (1942056)
I0504 12:55:21.782435 30787 net.cpp:139] Memory required for data: 95829852
I0504 12:55:21.782439 30787 layer_factory.hpp:77] Creating layer ip1
I0504 12:55:21.782449 30787 net.cpp:86] Creating Layer ip1
I0504 12:55:21.782454 30787 net.cpp:408] ip1 <- pool1
I0504 12:55:21.782460 30787 net.cpp:382] ip1 -> ip1
I0504 12:55:21.786988 30787 net.cpp:124] Setting up ip1
I0504 12:55:21.786995 30787 net.cpp:131] Top shape: 111 10 (1110)
I0504 12:55:21.786998 30787 net.cpp:139] Memory required for data: 95834292
I0504 12:55:21.787006 30787 layer_factory.hpp:77] Creating layer relu1
I0504 12:55:21.787012 30787 net.cpp:86] Creating Layer relu1
I0504 12:55:21.787015 30787 net.cpp:408] relu1 <- ip1
I0504 12:55:21.787019 30787 net.cpp:369] relu1 -> ip1 (in-place)
I0504 12:55:21.787180 30787 net.cpp:124] Setting up relu1
I0504 12:55:21.787189 30787 net.cpp:131] Top shape: 111 10 (1110)
I0504 12:55:21.787192 30787 net.cpp:139] Memory required for data: 95838732
I0504 12:55:21.787195 30787 layer_factory.hpp:77] Creating layer ip2
I0504 12:55:21.787204 30787 net.cpp:86] Creating Layer ip2
I0504 12:55:21.787209 30787 net.cpp:408] ip2 <- ip1
I0504 12:55:21.787233 30787 net.cpp:382] ip2 -> ip2
I0504 12:55:21.787338 30787 net.cpp:124] Setting up ip2
I0504 12:55:21.787344 30787 net.cpp:131] Top shape: 111 10 (1110)
I0504 12:55:21.787348 30787 net.cpp:139] Memory required for data: 95843172
I0504 12:55:21.787355 30787 layer_factory.hpp:77] Creating layer relu2
I0504 12:55:21.787362 30787 net.cpp:86] Creating Layer relu2
I0504 12:55:21.787367 30787 net.cpp:408] relu2 <- ip2
I0504 12:55:21.787374 30787 net.cpp:369] relu2 -> ip2 (in-place)
I0504 12:55:21.788061 30787 net.cpp:124] Setting up relu2
I0504 12:55:21.788074 30787 net.cpp:131] Top shape: 111 10 (1110)
I0504 12:55:21.788076 30787 net.cpp:139] Memory required for data: 95847612
I0504 12:55:21.788079 30787 layer_factory.hpp:77] Creating layer ip3
I0504 12:55:21.788086 30787 net.cpp:86] Creating Layer ip3
I0504 12:55:21.788089 30787 net.cpp:408] ip3 <- ip2
I0504 12:55:21.788094 30787 net.cpp:382] ip3 -> ip3
I0504 12:55:21.788275 30787 net.cpp:124] Setting up ip3
I0504 12:55:21.788285 30787 net.cpp:131] Top shape: 111 10 (1110)
I0504 12:55:21.788288 30787 net.cpp:139] Memory required for data: 95852052
I0504 12:55:21.788301 30787 layer_factory.hpp:77] Creating layer loss
I0504 12:55:21.788311 30787 net.cpp:86] Creating Layer loss
I0504 12:55:21.788316 30787 net.cpp:408] loss <- ip3
I0504 12:55:21.788323 30787 net.cpp:408] loss <- label
I0504 12:55:21.788332 30787 net.cpp:382] loss -> loss
I0504 12:55:21.788353 30787 layer_factory.hpp:77] Creating layer loss
…
I0504 12:55:21.789108 30787 solver.cpp:173] Creating test net (#0) specified by net file: ECE595/cifar/train_test/var_everything_tiny/cifar_train_test_159.prototxt
I0504 12:55:21.789139 30787 net.cpp:296] The NetState phase (1) differed from the phase (0) specified by a rule in layer cifar
I0504 12:55:21.789252 30787 net.cpp:53] Initializing net from parameters: 
name: "CIFAR"
state {
  phase: TEST
}
layer {
  name: "cifar"
  type: "Data"
  top: "data"
  top: "label"
  include {
    phase: TEST
  }
  transform_param {
    mean_file: "examples/cifar10/mean.binaryproto"
  }
  data_param {
    source: "examples/cifar10/cifar10_test_lmdb"
    batch_size: 1000
    backend: LMDB
  }
}
layer {
  name: "conv0"
  type: "Convolution"
  bottom: "data"
  top: "conv0"
  param {
    lr_mult: 1
  }
  param {
    lr_mult: 2
  }
  convolution_param {
    num_output: 24
    pad: 2
    kernel_size: 5
    stride: 1
    weight_filler {
      type: "gaussian"
      std: 0.01
    }
    bias_filler {
      type: "constant"
    }
  }
}
layer {
  name: "Sigmoid0"
  type: "Sigmoid"
  bottom: "conv0"
  top: "Sigmoid0"
}
layer {
  name: "pool0"
  type: "Pooling"
  bottom: "Sigmoid0"
  top: "pool0"
  pooling_param {
    pool: AVE
    kernel_size: 3
    stride: 2
  }
}
layer {
  name: "conv1"
  type: "Convolution"
  bottom: "pool0"
  top: "conv1"
  param {
    lr_mult: 1
  }
  param {
    lr_mult: 2
  }
  convolution_param {
    num_output: 216
    pad: 2
    kernel_size: 3
    stride: 1
    weight_filler {
      type: "gaussian"
      std: 0.01
    }
    bias_filler {
      type: "constant"
    }
  }
}
layer {
  name: "Sigmoid1"
  type: "Sigmoid"
  bottom: "conv1"
  top: "Sigmoid1"
}
layer {
  name: "pool1"
  type: "Pooling"
  bottom: "Sigmoid1"
  top: "pool1"
  pooling_param {
    pool: AVE
    kernel_size: 3
    stride: 2
  }
}
layer {
  name: "ip1"
  type: "InnerProduct"
  bottom: "pool1"
  top: "ip1"
  param {
    lr_mult: 1
  }
  param {
    lr_mult: 2
  }
  inner_product_param {
    num_output: 10
    weight_filler {
      type: "gaussian"
      std: 0.01
    }
    bias_filler {
      type: "constant"
    }
  }
}
layer {
  name: "relu1"
  type: "ReLU"
  bottom: "ip1"
  top: "ip1"
}
layer {
  name: "ip2"
  type: "InnerProduct"
  bottom: "ip1"
  top: "ip2"
  param {
    lr_mult: 1
  }
  param {
    lr_mult: 2
  }
  inner_product_param {
    num_output: 10
    weight_filler {
      type: "gaussian"
      std: 0.01
    }
    bias_filler {
      type: "constant"
    }
  }
}
layer {
  name: "relu2"
  type: "ReLU"
  bottom: "ip2"
  top: "ip2"
}
layer {
  name: "ip3"
  type: "InnerProduct"
  bottom: "ip2"
  top: "ip3"
  param {
    lr_mult: 1
  }
  param {
    lr_mult: 2
  }
  inner_product_param {
    num_output: 10
    weight_filler {
      type: "gaussian"
      std: 0.01
    }
    bias_filler {
      type: "constant"
    }
  }
}
layer {
  name: "accuracy"
  type: "Accuracy"
  bottom: "ip3"
  bottom: "label"
  top: "accuracy"
  include {
    phase: TEST
  }
}
layer {
  name: "loss"
  type: "SoftmaxWithLoss"
  bottom: "ip3"
  bottom: "label"
  top: "loss"
}
I0504 12:55:21.789372 30787 layer_factory.hpp:77] Creating layer cifar
I0504 12:55:21.789446 30787 db_lmdb.cpp:35] Opened lmdb examples/cifar10/cifar10_test_lmdb
I0504 12:55:21.789464 30787 net.cpp:86] Creating Layer cifar
I0504 12:55:21.789472 30787 net.cpp:382] cifar -> data
I0504 12:55:21.789484 30787 net.cpp:382] cifar -> label
I0504 12:55:21.789494 30787 data_transformer.cpp:25] Loading mean file from: examples/cifar10/mean.binaryproto
I0504 12:55:21.789726 30787 data_layer.cpp:45] output data size: 1000,3,32,32
I0504 12:55:21.811739 30787 net.cpp:124] Setting up cifar
I0504 12:55:21.811766 30787 net.cpp:131] Top shape: 1000 3 32 32 (3072000)
I0504 12:55:21.811772 30787 net.cpp:131] Top shape: 1000 (1000)
I0504 12:55:21.811774 30787 net.cpp:139] Memory required for data: 12292000
I0504 12:55:21.811780 30787 layer_factory.hpp:77] Creating layer label_cifar_1_split
I0504 12:55:21.811792 30787 net.cpp:86] Creating Layer label_cifar_1_split
I0504 12:55:21.811795 30787 net.cpp:408] label_cifar_1_split <- label
I0504 12:55:21.811801 30787 net.cpp:382] label_cifar_1_split -> label_cifar_1_split_0
I0504 12:55:21.811810 30787 net.cpp:382] label_cifar_1_split -> label_cifar_1_split_1
I0504 12:55:21.811954 30787 net.cpp:124] Setting up label_cifar_1_split
I0504 12:55:21.811962 30787 net.cpp:131] Top shape: 1000 (1000)
I0504 12:55:21.811966 30787 net.cpp:131] Top shape: 1000 (1000)
I0504 12:55:21.811969 30787 net.cpp:139] Memory required for data: 12300000
I0504 12:55:21.811975 30787 layer_factory.hpp:77] Creating layer conv0
I0504 12:55:21.812006 30787 net.cpp:86] Creating Layer conv0
I0504 12:55:21.812013 30787 net.cpp:408] conv0 <- data
I0504 12:55:21.812022 30787 net.cpp:382] conv0 -> conv0
I0504 12:55:21.813617 30787 net.cpp:124] Setting up conv0
I0504 12:55:21.813630 30787 net.cpp:131] Top shape: 1000 24 32 32 (24576000)
I0504 12:55:21.813633 30787 net.cpp:139] Memory required for data: 110604000
I0504 12:55:21.813643 30787 layer_factory.hpp:77] Creating layer Sigmoid0
I0504 12:55:21.813650 30787 net.cpp:86] Creating Layer Sigmoid0
I0504 12:55:21.813654 30787 net.cpp:408] Sigmoid0 <- conv0
I0504 12:55:21.813658 30787 net.cpp:382] Sigmoid0 -> Sigmoid0
I0504 12:55:21.814776 30787 net.cpp:124] Setting up Sigmoid0
I0504 12:55:21.814798 30787 net.cpp:131] Top shape: 1000 24 32 32 (24576000)
I0504 12:55:21.814801 30787 net.cpp:139] Memory required for data: 208908000
I0504 12:55:21.814805 30787 layer_factory.hpp:77] Creating layer pool0
I0504 12:55:21.814812 30787 net.cpp:86] Creating Layer pool0
I0504 12:55:21.814815 30787 net.cpp:408] pool0 <- Sigmoid0
I0504 12:55:21.814821 30787 net.cpp:382] pool0 -> pool0
I0504 12:55:21.815007 30787 net.cpp:124] Setting up pool0
I0504 12:55:21.815016 30787 net.cpp:131] Top shape: 1000 24 16 16 (6144000)
I0504 12:55:21.815019 30787 net.cpp:139] Memory required for data: 233484000
I0504 12:55:21.815022 30787 layer_factory.hpp:77] Creating layer conv1
I0504 12:55:21.815035 30787 net.cpp:86] Creating Layer conv1
I0504 12:55:21.815042 30787 net.cpp:408] conv1 <- pool0
I0504 12:55:21.815052 30787 net.cpp:382] conv1 -> conv1
I0504 12:55:21.817517 30787 net.cpp:124] Setting up conv1
I0504 12:55:21.817530 30787 net.cpp:131] Top shape: 1000 216 18 18 (69984000)
I0504 12:55:21.817533 30787 net.cpp:139] Memory required for data: 513420000
I0504 12:55:21.817541 30787 layer_factory.hpp:77] Creating layer Sigmoid1
I0504 12:55:21.817548 30787 net.cpp:86] Creating Layer Sigmoid1
I0504 12:55:21.817550 30787 net.cpp:408] Sigmoid1 <- conv1
I0504 12:55:21.817555 30787 net.cpp:382] Sigmoid1 -> Sigmoid1
I0504 12:55:21.817771 30787 net.cpp:124] Setting up Sigmoid1
I0504 12:55:21.817782 30787 net.cpp:131] Top shape: 1000 216 18 18 (69984000)
I0504 12:55:21.817785 30787 net.cpp:139] Memory required for data: 793356000
I0504 12:55:21.817790 30787 layer_factory.hpp:77] Creating layer pool1
I0504 12:55:21.817800 30787 net.cpp:86] Creating Layer pool1
I0504 12:55:21.817806 30787 net.cpp:408] pool1 <- Sigmoid1
I0504 12:55:21.817812 30787 net.cpp:382] pool1 -> pool1
I0504 12:55:21.818552 30787 net.cpp:124] Setting up pool1
I0504 12:55:21.818563 30787 net.cpp:131] Top shape: 1000 216 9 9 (17496000)
I0504 12:55:21.818567 30787 net.cpp:139] Memory required for data: 863340000
I0504 12:55:21.818569 30787 layer_factory.hpp:77] Creating layer ip1
I0504 12:55:21.818579 30787 net.cpp:86] Creating Layer ip1
I0504 12:55:21.818583 30787 net.cpp:408] ip1 <- pool1
I0504 12:55:21.818588 30787 net.cpp:382] ip1 -> ip1
I0504 12:55:21.823225 30787 net.cpp:124] Setting up ip1
I0504 12:55:21.823233 30787 net.cpp:131] Top shape: 1000 10 (10000)
I0504 12:55:21.823252 30787 net.cpp:139] Memory required for data: 863380000
I0504 12:55:21.823261 30787 layer_factory.hpp:77] Creating layer relu1
I0504 12:55:21.823268 30787 net.cpp:86] Creating Layer relu1
I0504 12:55:21.823271 30787 net.cpp:408] relu1 <- ip1
I0504 12:55:21.823276 30787 net.cpp:369] relu1 -> ip1 (in-place)
I0504 12:55:21.823479 30787 net.cpp:124] Setting up relu1
I0504 12:55:21.823489 30787 net.cpp:131] Top shape: 1000 10 (10000)
I0504 12:55:21.823493 30787 net.cpp:139] Memory required for data: 863420000
I0504 12:55:21.823495 30787 layer_factory.hpp:77] Creating layer ip2
I0504 12:55:21.823505 30787 net.cpp:86] Creating Layer ip2
I0504 12:55:21.823525 30787 net.cpp:408] ip2 <- ip1
I0504 12:55:21.823534 30787 net.cpp:382] ip2 -> ip2
I0504 12:55:21.823647 30787 net.cpp:124] Setting up ip2
I0504 12:55:21.823654 30787 net.cpp:131] Top shape: 1000 10 (10000)
I0504 12:55:21.823657 30787 net.cpp:139] Memory required for data: 863460000
I0504 12:55:21.823664 30787 layer_factory.hpp:77] Creating layer relu2
I0504 12:55:21.823673 30787 net.cpp:86] Creating Layer relu2
I0504 12:55:21.823676 30787 net.cpp:408] relu2 <- ip2
I0504 12:55:21.823683 30787 net.cpp:369] relu2 -> ip2 (in-place)
I0504 12:55:21.823846 30787 net.cpp:124] Setting up relu2
I0504 12:55:21.823855 30787 net.cpp:131] Top shape: 1000 10 (10000)
I0504 12:55:21.823858 30787 net.cpp:139] Memory required for data: 863500000
I0504 12:55:21.823863 30787 layer_factory.hpp:77] Creating layer ip3
I0504 12:55:21.823870 30787 net.cpp:86] Creating Layer ip3
I0504 12:55:21.823875 30787 net.cpp:408] ip3 <- ip2
I0504 12:55:21.823884 30787 net.cpp:382] ip3 -> ip3
I0504 12:55:21.823993 30787 net.cpp:124] Setting up ip3
I0504 12:55:21.824000 30787 net.cpp:131] Top shape: 1000 10 (10000)
I0504 12:55:21.824015 30787 net.cpp:139] Memory required for data: 863540000
I0504 12:55:21.824028 30787 layer_factory.hpp:77] Creating layer ip3_ip3_0_split
I0504 12:55:21.824038 30787 net.cpp:86] Creating Layer ip3_ip3_0_split
I0504 12:55:21.824043 30787 net.cpp:408] ip3_ip3_0_split <- ip3
I0504 12:55:21.824051 30787 net.cpp:382] ip3_ip3_0_split -> ip3_ip3_0_split_0
I0504 12:55:21.824074 30787 net.cpp:382] ip3_ip3_0_split -> ip3_ip3_0_split_1
I0504 12:55:21.824117 30787 net.cpp:124] Setting up ip3_ip3_0_split
I0504 12:55:21.824126 30787 net.cpp:131] Top shape: 1000 10 (10000)
I0504 12:55:21.824128 30787 net.cpp:131] Top shape: 1000 10 (10000)
I0504 12:55:21.824132 30787 net.cpp:139] Memory required for data: 863620000
I0504 12:55:21.824137 30787 layer_factory.hpp:77] Creating layer accuracy
I0504 12:55:21.824147 30787 net.cpp:86] Creating Layer accuracy
I0504 12:55:21.824152 30787 net.cpp:408] accuracy <- ip3_ip3_0_split_0
I0504 12:55:21.824158 30787 net.cpp:408] accuracy <- label_cifar_1_split_0
I0504 12:55:21.824165 30787 net.cpp:382] accuracy -> accuracy
…
