…
I0504 11:59:39.560015 28278 net.cpp:296] The NetState phase (0) differed from the phase (1) specified by a rule in layer cifar
I0504 11:59:39.560029 28278 net.cpp:296] The NetState phase (0) differed from the phase (1) specified by a rule in layer accuracy
I0504 11:59:39.560132 28278 net.cpp:53] Initializing net from parameters: 
name: "CIFAR"
state {
  phase: TRAIN
  level: 0
  stage: ""
}
layer {
  name: "cifar"
  type: "Data"
  top: "data"
  top: "label"
  include {
    phase: TRAIN
  }
  transform_param {
    mean_file: "examples/cifar10/mean.binaryproto"
  }
  data_param {
    source: "examples/cifar10/cifar10_train_lmdb"
    batch_size: 111
    backend: LMDB
  }
}
layer {
  name: "conv0"
  type: "Convolution"
  bottom: "data"
  top: "conv0"
  param {
    lr_mult: 1
  }
  param {
    lr_mult: 2
  }
  convolution_param {
    num_output: 24
    pad: 2
    kernel_size: 3
    stride: 1
    weight_filler {
      type: "gaussian"
      std: 0.01
    }
    bias_filler {
      type: "constant"
    }
  }
}
layer {
  name: "Sigmoid0"
  type: "Sigmoid"
  bottom: "conv0"
  top: "Sigmoid0"
}
layer {
  name: "pool0"
  type: "Pooling"
  bottom: "Sigmoid0"
  top: "pool0"
  pooling_param {
    pool: AVE
    kernel_size: 3
    stride: 2
  }
}
layer {
  name: "conv1"
  type: "Convolution"
  bottom: "pool0"
  top: "conv1"
  param {
    lr_mult: 1
  }
  param {
    lr_mult: 2
  }
  convolution_param {
    num_output: 216
    pad: 2
    kernel_size: 3
    stride: 1
    weight_filler {
      type: "gaussian"
      std: 0.01
    }
    bias_filler {
      type: "constant"
    }
  }
}
layer {
  name: "Sigmoid1"
  type: "Sigmoid"
  bottom: "conv1"
  top: "Sigmoid1"
}
layer {
  name: "pool1"
  type: "Pooling"
  bottom: "Sigmoid1"
  top: "pool1"
  pooling_param {
    pool: AVE
    kernel_size: 3
    stride: 2
  }
}
layer {
  name: "ip1"
  type: "InnerProduct"
  bottom: "pool1"
  top: "ip1"
  param {
    lr_mult: 1
  }
  param {
    lr_mult: 2
  }
  inner_product_param {
    num_output: 60
    weight_filler {
      type: "gaussian"
      std: 0.01
    }
    bias_filler {
      type: "constant"
    }
  }
}
layer {
  name: "relu1"
  type: "ReLU"
  bottom: "ip1"
  top: "ip1"
}
layer {
  name: "ip2"
  type: "InnerProduct"
  bottom: "ip1"
  top: "ip2"
  param {
    lr_mult: 1
  }
  param {
    lr_mult: 2
  }
  inner_product_param {
    num_output: 60
    weight_filler {
      type: "gaussian"
      std: 0.01
    }
    bias_filler {
      type: "constant"
    }
  }
}
layer {
  name: "relu2"
  type: "ReLU"
  bottom: "ip2"
  top: "ip2"
}
layer {
  name: "ip3"
  type: "InnerProduct"
  bottom: "ip2"
  top: "ip3"
  param {
    lr_mult: 1
  }
  param {
    lr_mult: 2
  }
  inner_product_param {
    num_output: 10
    weight_filler {
      type: "gaussian"
      std: 0.01
    }
    bias_filler {
      type: "constant"
    }
  }
}
layer {
  name: "loss"
  type: "SoftmaxWithLoss"
  bottom: "ip3"
  bottom: "label"
  top: "loss"
}
I0504 11:59:39.560196 28278 layer_factory.hpp:77] Creating layer cifar
I0504 11:59:39.560279 28278 db_lmdb.cpp:35] Opened lmdb examples/cifar10/cifar10_train_lmdb
I0504 11:59:39.560303 28278 net.cpp:86] Creating Layer cifar
I0504 11:59:39.560312 28278 net.cpp:382] cifar -> data
I0504 11:59:39.560348 28278 net.cpp:382] cifar -> label
I0504 11:59:39.560358 28278 data_transformer.cpp:25] Loading mean file from: examples/cifar10/mean.binaryproto
I0504 11:59:39.562126 28278 data_layer.cpp:45] output data size: 111,3,32,32
I0504 11:59:39.568702 28278 net.cpp:124] Setting up cifar
I0504 11:59:39.568716 28278 net.cpp:131] Top shape: 111 3 32 32 (340992)
I0504 11:59:39.568722 28278 net.cpp:131] Top shape: 111 (111)
I0504 11:59:39.568724 28278 net.cpp:139] Memory required for data: 1364412
I0504 11:59:39.568729 28278 layer_factory.hpp:77] Creating layer conv0
I0504 11:59:39.568742 28278 net.cpp:86] Creating Layer conv0
I0504 11:59:39.568747 28278 net.cpp:408] conv0 <- data
I0504 11:59:39.568755 28278 net.cpp:382] conv0 -> conv0
I0504 11:59:39.798945 28278 net.cpp:124] Setting up conv0
I0504 11:59:39.798972 28278 net.cpp:131] Top shape: 111 24 34 34 (3079584)
I0504 11:59:39.798975 28278 net.cpp:139] Memory required for data: 13682748
I0504 11:59:39.798990 28278 layer_factory.hpp:77] Creating layer Sigmoid0
I0504 11:59:39.799001 28278 net.cpp:86] Creating Layer Sigmoid0
I0504 11:59:39.799005 28278 net.cpp:408] Sigmoid0 <- conv0
I0504 11:59:39.799010 28278 net.cpp:382] Sigmoid0 -> Sigmoid0
I0504 11:59:39.799187 28278 net.cpp:124] Setting up Sigmoid0
I0504 11:59:39.799197 28278 net.cpp:131] Top shape: 111 24 34 34 (3079584)
I0504 11:59:39.799201 28278 net.cpp:139] Memory required for data: 26001084
I0504 11:59:39.799203 28278 layer_factory.hpp:77] Creating layer pool0
I0504 11:59:39.799211 28278 net.cpp:86] Creating Layer pool0
I0504 11:59:39.799213 28278 net.cpp:408] pool0 <- Sigmoid0
I0504 11:59:39.799217 28278 net.cpp:382] pool0 -> pool0
I0504 11:59:39.799914 28278 net.cpp:124] Setting up pool0
I0504 11:59:39.799926 28278 net.cpp:131] Top shape: 111 24 17 17 (769896)
I0504 11:59:39.799945 28278 net.cpp:139] Memory required for data: 29080668
I0504 11:59:39.799949 28278 layer_factory.hpp:77] Creating layer conv1
I0504 11:59:39.799962 28278 net.cpp:86] Creating Layer conv1
I0504 11:59:39.799964 28278 net.cpp:408] conv1 <- pool0
I0504 11:59:39.799969 28278 net.cpp:382] conv1 -> conv1
I0504 11:59:39.803598 28278 net.cpp:124] Setting up conv1
I0504 11:59:39.803611 28278 net.cpp:131] Top shape: 111 216 19 19 (8655336)
I0504 11:59:39.803616 28278 net.cpp:139] Memory required for data: 63702012
I0504 11:59:39.803623 28278 layer_factory.hpp:77] Creating layer Sigmoid1
I0504 11:59:39.803629 28278 net.cpp:86] Creating Layer Sigmoid1
I0504 11:59:39.803632 28278 net.cpp:408] Sigmoid1 <- conv1
I0504 11:59:39.803637 28278 net.cpp:382] Sigmoid1 -> Sigmoid1
I0504 11:59:39.803812 28278 net.cpp:124] Setting up Sigmoid1
I0504 11:59:39.803822 28278 net.cpp:131] Top shape: 111 216 19 19 (8655336)
I0504 11:59:39.803825 28278 net.cpp:139] Memory required for data: 98323356
I0504 11:59:39.803828 28278 layer_factory.hpp:77] Creating layer pool1
I0504 11:59:39.803833 28278 net.cpp:86] Creating Layer pool1
I0504 11:59:39.803836 28278 net.cpp:408] pool1 <- Sigmoid1
I0504 11:59:39.803841 28278 net.cpp:382] pool1 -> pool1
I0504 11:59:39.803990 28278 net.cpp:124] Setting up pool1
I0504 11:59:39.803997 28278 net.cpp:131] Top shape: 111 216 9 9 (1942056)
I0504 11:59:39.804000 28278 net.cpp:139] Memory required for data: 106091580
I0504 11:59:39.804003 28278 layer_factory.hpp:77] Creating layer ip1
I0504 11:59:39.804010 28278 net.cpp:86] Creating Layer ip1
I0504 11:59:39.804013 28278 net.cpp:408] ip1 <- pool1
I0504 11:59:39.804018 28278 net.cpp:382] ip1 -> ip1
I0504 11:59:39.832487 28278 net.cpp:124] Setting up ip1
I0504 11:59:39.832499 28278 net.cpp:131] Top shape: 111 60 (6660)
I0504 11:59:39.832502 28278 net.cpp:139] Memory required for data: 106118220
I0504 11:59:39.832509 28278 layer_factory.hpp:77] Creating layer relu1
I0504 11:59:39.832516 28278 net.cpp:86] Creating Layer relu1
I0504 11:59:39.832520 28278 net.cpp:408] relu1 <- ip1
I0504 11:59:39.832525 28278 net.cpp:369] relu1 -> ip1 (in-place)
I0504 11:59:39.832708 28278 net.cpp:124] Setting up relu1
I0504 11:59:39.832717 28278 net.cpp:131] Top shape: 111 60 (6660)
I0504 11:59:39.832720 28278 net.cpp:139] Memory required for data: 106144860
I0504 11:59:39.832723 28278 layer_factory.hpp:77] Creating layer ip2
I0504 11:59:39.832729 28278 net.cpp:86] Creating Layer ip2
I0504 11:59:39.832733 28278 net.cpp:408] ip2 <- ip1
I0504 11:59:39.832752 28278 net.cpp:382] ip2 -> ip2
I0504 11:59:39.832965 28278 net.cpp:124] Setting up ip2
I0504 11:59:39.832973 28278 net.cpp:131] Top shape: 111 60 (6660)
I0504 11:59:39.832976 28278 net.cpp:139] Memory required for data: 106171500
I0504 11:59:39.832981 28278 layer_factory.hpp:77] Creating layer relu2
I0504 11:59:39.832985 28278 net.cpp:86] Creating Layer relu2
I0504 11:59:39.832988 28278 net.cpp:408] relu2 <- ip2
I0504 11:59:39.832993 28278 net.cpp:369] relu2 -> ip2 (in-place)
I0504 11:59:39.833716 28278 net.cpp:124] Setting up relu2
I0504 11:59:39.833727 28278 net.cpp:131] Top shape: 111 60 (6660)
I0504 11:59:39.833746 28278 net.cpp:139] Memory required for data: 106198140
I0504 11:59:39.833750 28278 layer_factory.hpp:77] Creating layer ip3
I0504 11:59:39.833755 28278 net.cpp:86] Creating Layer ip3
I0504 11:59:39.833758 28278 net.cpp:408] ip3 <- ip2
I0504 11:59:39.833763 28278 net.cpp:382] ip3 -> ip3
I0504 11:59:39.833890 28278 net.cpp:124] Setting up ip3
I0504 11:59:39.833897 28278 net.cpp:131] Top shape: 111 10 (1110)
I0504 11:59:39.833900 28278 net.cpp:139] Memory required for data: 106202580
I0504 11:59:39.833907 28278 layer_factory.hpp:77] Creating layer loss
I0504 11:59:39.833912 28278 net.cpp:86] Creating Layer loss
I0504 11:59:39.833915 28278 net.cpp:408] loss <- ip3
I0504 11:59:39.833920 28278 net.cpp:408] loss <- label
I0504 11:59:39.833925 28278 net.cpp:382] loss -> loss
I0504 11:59:39.833940 28278 layer_factory.hpp:77] Creating layer loss
…
I0504 11:59:39.834556 28278 solver.cpp:173] Creating test net (#0) specified by net file: ECE595/cifar/train_test/var_everything_tiny/cifar_train_test_151.prototxt
I0504 11:59:39.834583 28278 net.cpp:296] The NetState phase (1) differed from the phase (0) specified by a rule in layer cifar
I0504 11:59:39.834681 28278 net.cpp:53] Initializing net from parameters: 
name: "CIFAR"
state {
  phase: TEST
}
layer {
  name: "cifar"
  type: "Data"
  top: "data"
  top: "label"
  include {
    phase: TEST
  }
  transform_param {
    mean_file: "examples/cifar10/mean.binaryproto"
  }
  data_param {
    source: "examples/cifar10/cifar10_test_lmdb"
    batch_size: 1000
    backend: LMDB
  }
}
layer {
  name: "conv0"
  type: "Convolution"
  bottom: "data"
  top: "conv0"
  param {
    lr_mult: 1
  }
  param {
    lr_mult: 2
  }
  convolution_param {
    num_output: 24
    pad: 2
    kernel_size: 3
    stride: 1
    weight_filler {
      type: "gaussian"
      std: 0.01
    }
    bias_filler {
      type: "constant"
    }
  }
}
layer {
  name: "Sigmoid0"
  type: "Sigmoid"
  bottom: "conv0"
  top: "Sigmoid0"
}
layer {
  name: "pool0"
  type: "Pooling"
  bottom: "Sigmoid0"
  top: "pool0"
  pooling_param {
    pool: AVE
    kernel_size: 3
    stride: 2
  }
}
layer {
  name: "conv1"
  type: "Convolution"
  bottom: "pool0"
  top: "conv1"
  param {
    lr_mult: 1
  }
  param {
    lr_mult: 2
  }
  convolution_param {
    num_output: 216
    pad: 2
    kernel_size: 3
    stride: 1
    weight_filler {
      type: "gaussian"
      std: 0.01
    }
    bias_filler {
      type: "constant"
    }
  }
}
layer {
  name: "Sigmoid1"
  type: "Sigmoid"
  bottom: "conv1"
  top: "Sigmoid1"
}
layer {
  name: "pool1"
  type: "Pooling"
  bottom: "Sigmoid1"
  top: "pool1"
  pooling_param {
    pool: AVE
    kernel_size: 3
    stride: 2
  }
}
layer {
  name: "ip1"
  type: "InnerProduct"
  bottom: "pool1"
  top: "ip1"
  param {
    lr_mult: 1
  }
  param {
    lr_mult: 2
  }
  inner_product_param {
    num_output: 60
    weight_filler {
      type: "gaussian"
      std: 0.01
    }
    bias_filler {
      type: "constant"
    }
  }
}
layer {
  name: "relu1"
  type: "ReLU"
  bottom: "ip1"
  top: "ip1"
}
layer {
  name: "ip2"
  type: "InnerProduct"
  bottom: "ip1"
  top: "ip2"
  param {
    lr_mult: 1
  }
  param {
    lr_mult: 2
  }
  inner_product_param {
    num_output: 60
    weight_filler {
      type: "gaussian"
      std: 0.01
    }
    bias_filler {
      type: "constant"
    }
  }
}
layer {
  name: "relu2"
  type: "ReLU"
  bottom: "ip2"
  top: "ip2"
}
layer {
  name: "ip3"
  type: "InnerProduct"
  bottom: "ip2"
  top: "ip3"
  param {
    lr_mult: 1
  }
  param {
    lr_mult: 2
  }
  inner_product_param {
    num_output: 10
    weight_filler {
      type: "gaussian"
      std: 0.01
    }
    bias_filler {
      type: "constant"
    }
  }
}
layer {
  name: "accuracy"
  type: "Accuracy"
  bottom: "ip3"
  bottom: "label"
  top: "accuracy"
  include {
    phase: TEST
  }
}
layer {
  name: "loss"
  type: "SoftmaxWithLoss"
  bottom: "ip3"
  bottom: "label"
  top: "loss"
}
I0504 11:59:39.834758 28278 layer_factory.hpp:77] Creating layer cifar
I0504 11:59:39.834816 28278 db_lmdb.cpp:35] Opened lmdb examples/cifar10/cifar10_test_lmdb
I0504 11:59:39.834828 28278 net.cpp:86] Creating Layer cifar
I0504 11:59:39.834833 28278 net.cpp:382] cifar -> data
I0504 11:59:39.834839 28278 net.cpp:382] cifar -> label
I0504 11:59:39.834846 28278 data_transformer.cpp:25] Loading mean file from: examples/cifar10/mean.binaryproto
I0504 11:59:39.834981 28278 data_layer.cpp:45] output data size: 1000,3,32,32
I0504 11:59:39.856153 28278 net.cpp:124] Setting up cifar
I0504 11:59:39.856178 28278 net.cpp:131] Top shape: 1000 3 32 32 (3072000)
I0504 11:59:39.856182 28278 net.cpp:131] Top shape: 1000 (1000)
I0504 11:59:39.856185 28278 net.cpp:139] Memory required for data: 12292000
I0504 11:59:39.856190 28278 layer_factory.hpp:77] Creating layer label_cifar_1_split
I0504 11:59:39.856202 28278 net.cpp:86] Creating Layer label_cifar_1_split
I0504 11:59:39.856205 28278 net.cpp:408] label_cifar_1_split <- label
I0504 11:59:39.856211 28278 net.cpp:382] label_cifar_1_split -> label_cifar_1_split_0
I0504 11:59:39.856235 28278 net.cpp:382] label_cifar_1_split -> label_cifar_1_split_1
I0504 11:59:39.856289 28278 net.cpp:124] Setting up label_cifar_1_split
I0504 11:59:39.856294 28278 net.cpp:131] Top shape: 1000 (1000)
I0504 11:59:39.856297 28278 net.cpp:131] Top shape: 1000 (1000)
I0504 11:59:39.856300 28278 net.cpp:139] Memory required for data: 12300000
I0504 11:59:39.856302 28278 layer_factory.hpp:77] Creating layer conv0
I0504 11:59:39.856313 28278 net.cpp:86] Creating Layer conv0
I0504 11:59:39.856317 28278 net.cpp:408] conv0 <- data
I0504 11:59:39.856322 28278 net.cpp:382] conv0 -> conv0
I0504 11:59:39.858137 28278 net.cpp:124] Setting up conv0
I0504 11:59:39.858150 28278 net.cpp:131] Top shape: 1000 24 34 34 (27744000)
I0504 11:59:39.858155 28278 net.cpp:139] Memory required for data: 123276000
I0504 11:59:39.858163 28278 layer_factory.hpp:77] Creating layer Sigmoid0
I0504 11:59:39.858170 28278 net.cpp:86] Creating Layer Sigmoid0
I0504 11:59:39.858188 28278 net.cpp:408] Sigmoid0 <- conv0
I0504 11:59:39.858193 28278 net.cpp:382] Sigmoid0 -> Sigmoid0
I0504 11:59:39.858356 28278 net.cpp:124] Setting up Sigmoid0
I0504 11:59:39.858377 28278 net.cpp:131] Top shape: 1000 24 34 34 (27744000)
I0504 11:59:39.858381 28278 net.cpp:139] Memory required for data: 234252000
I0504 11:59:39.858383 28278 layer_factory.hpp:77] Creating layer pool0
I0504 11:59:39.858391 28278 net.cpp:86] Creating Layer pool0
I0504 11:59:39.858393 28278 net.cpp:408] pool0 <- Sigmoid0
I0504 11:59:39.858397 28278 net.cpp:382] pool0 -> pool0
I0504 11:59:39.858551 28278 net.cpp:124] Setting up pool0
I0504 11:59:39.858559 28278 net.cpp:131] Top shape: 1000 24 17 17 (6936000)
I0504 11:59:39.858562 28278 net.cpp:139] Memory required for data: 261996000
I0504 11:59:39.858566 28278 layer_factory.hpp:77] Creating layer conv1
I0504 11:59:39.858572 28278 net.cpp:86] Creating Layer conv1
I0504 11:59:39.858575 28278 net.cpp:408] conv1 <- pool0
I0504 11:59:39.858580 28278 net.cpp:382] conv1 -> conv1
I0504 11:59:39.861112 28278 net.cpp:124] Setting up conv1
I0504 11:59:39.861127 28278 net.cpp:131] Top shape: 1000 216 19 19 (77976000)
I0504 11:59:39.861145 28278 net.cpp:139] Memory required for data: 573900000
I0504 11:59:39.861155 28278 layer_factory.hpp:77] Creating layer Sigmoid1
I0504 11:59:39.861184 28278 net.cpp:86] Creating Layer Sigmoid1
I0504 11:59:39.861188 28278 net.cpp:408] Sigmoid1 <- conv1
I0504 11:59:39.861192 28278 net.cpp:382] Sigmoid1 -> Sigmoid1
I0504 11:59:39.861371 28278 net.cpp:124] Setting up Sigmoid1
I0504 11:59:39.861380 28278 net.cpp:131] Top shape: 1000 216 19 19 (77976000)
I0504 11:59:39.861383 28278 net.cpp:139] Memory required for data: 885804000
I0504 11:59:39.861387 28278 layer_factory.hpp:77] Creating layer pool1
I0504 11:59:39.861392 28278 net.cpp:86] Creating Layer pool1
I0504 11:59:39.861400 28278 net.cpp:408] pool1 <- Sigmoid1
I0504 11:59:39.861405 28278 net.cpp:382] pool1 -> pool1
I0504 11:59:39.862110 28278 net.cpp:124] Setting up pool1
I0504 11:59:39.862121 28278 net.cpp:131] Top shape: 1000 216 9 9 (17496000)
I0504 11:59:39.862125 28278 net.cpp:139] Memory required for data: 955788000
I0504 11:59:39.862128 28278 layer_factory.hpp:77] Creating layer ip1
I0504 11:59:39.862169 28278 net.cpp:86] Creating Layer ip1
I0504 11:59:39.862172 28278 net.cpp:408] ip1 <- pool1
I0504 11:59:39.862177 28278 net.cpp:382] ip1 -> ip1
I0504 11:59:39.890420 28278 net.cpp:124] Setting up ip1
I0504 11:59:39.890437 28278 net.cpp:131] Top shape: 1000 60 (60000)
I0504 11:59:39.890441 28278 net.cpp:139] Memory required for data: 956028000
I0504 11:59:39.890450 28278 layer_factory.hpp:77] Creating layer relu1
I0504 11:59:39.890457 28278 net.cpp:86] Creating Layer relu1
I0504 11:59:39.890476 28278 net.cpp:408] relu1 <- ip1
I0504 11:59:39.890480 28278 net.cpp:369] relu1 -> ip1 (in-place)
I0504 11:59:39.890681 28278 net.cpp:124] Setting up relu1
I0504 11:59:39.890689 28278 net.cpp:131] Top shape: 1000 60 (60000)
I0504 11:59:39.890693 28278 net.cpp:139] Memory required for data: 956268000
I0504 11:59:39.890697 28278 layer_factory.hpp:77] Creating layer ip2
I0504 11:59:39.890702 28278 net.cpp:86] Creating Layer ip2
I0504 11:59:39.890705 28278 net.cpp:408] ip2 <- ip1
I0504 11:59:39.890712 28278 net.cpp:382] ip2 -> ip2
I0504 11:59:39.890928 28278 net.cpp:124] Setting up ip2
I0504 11:59:39.890935 28278 net.cpp:131] Top shape: 1000 60 (60000)
I0504 11:59:39.890938 28278 net.cpp:139] Memory required for data: 956508000
I0504 11:59:39.890944 28278 layer_factory.hpp:77] Creating layer relu2
I0504 11:59:39.890949 28278 net.cpp:86] Creating Layer relu2
I0504 11:59:39.890951 28278 net.cpp:408] relu2 <- ip2
I0504 11:59:39.890955 28278 net.cpp:369] relu2 -> ip2 (in-place)
I0504 11:59:39.891101 28278 net.cpp:124] Setting up relu2
I0504 11:59:39.891109 28278 net.cpp:131] Top shape: 1000 60 (60000)
I0504 11:59:39.891113 28278 net.cpp:139] Memory required for data: 956748000
I0504 11:59:39.891115 28278 layer_factory.hpp:77] Creating layer ip3
I0504 11:59:39.891121 28278 net.cpp:86] Creating Layer ip3
I0504 11:59:39.891124 28278 net.cpp:408] ip3 <- ip2
I0504 11:59:39.891129 28278 net.cpp:382] ip3 -> ip3
I0504 11:59:39.891247 28278 net.cpp:124] Setting up ip3
I0504 11:59:39.891265 28278 net.cpp:131] Top shape: 1000 10 (10000)
I0504 11:59:39.891268 28278 net.cpp:139] Memory required for data: 956788000
I0504 11:59:39.891276 28278 layer_factory.hpp:77] Creating layer ip3_ip3_0_split
I0504 11:59:39.891281 28278 net.cpp:86] Creating Layer ip3_ip3_0_split
I0504 11:59:39.891283 28278 net.cpp:408] ip3_ip3_0_split <- ip3
I0504 11:59:39.891288 28278 net.cpp:382] ip3_ip3_0_split -> ip3_ip3_0_split_0
I0504 11:59:39.891294 28278 net.cpp:382] ip3_ip3_0_split -> ip3_ip3_0_split_1
I0504 11:59:39.891325 28278 net.cpp:124] Setting up ip3_ip3_0_split
I0504 11:59:39.891330 28278 net.cpp:131] Top shape: 1000 10 (10000)
I0504 11:59:39.891333 28278 net.cpp:131] Top shape: 1000 10 (10000)
I0504 11:59:39.891335 28278 net.cpp:139] Memory required for data: 956868000
I0504 11:59:39.891338 28278 layer_factory.hpp:77] Creating layer accuracy
I0504 11:59:39.891343 28278 net.cpp:86] Creating Layer accuracy
I0504 11:59:39.891346 28278 net.cpp:408] accuracy <- ip3_ip3_0_split_0
I0504 11:59:39.891350 28278 net.cpp:408] accuracy <- label_cifar_1_split_0
I0504 11:59:39.891355 28278 net.cpp:382] accuracy -> accuracy
…
