…
I0504 03:56:47.583212 11535 net.cpp:296] The NetState phase (0) differed from the phase (1) specified by a rule in layer cifar
I0504 03:56:47.583230 11535 net.cpp:296] The NetState phase (0) differed from the phase (1) specified by a rule in layer accuracy
I0504 03:56:47.583353 11535 net.cpp:53] Initializing net from parameters: 
name: "CIFAR"
state {
  phase: TRAIN
  level: 0
  stage: ""
}
layer {
  name: "cifar"
  type: "Data"
  top: "data"
  top: "label"
  include {
    phase: TRAIN
  }
  transform_param {
    mean_file: "examples/cifar10/mean.binaryproto"
  }
  data_param {
    source: "examples/cifar10/cifar10_train_lmdb"
    batch_size: 111
    backend: LMDB
  }
}
layer {
  name: "conv0"
  type: "Convolution"
  bottom: "data"
  top: "conv0"
  param {
    lr_mult: 1
  }
  param {
    lr_mult: 2
  }
  convolution_param {
    num_output: 216
    pad: 2
    kernel_size: 3
    stride: 1
    weight_filler {
      type: "gaussian"
      std: 0.01
    }
    bias_filler {
      type: "constant"
    }
  }
}
layer {
  name: "Sigmoid0"
  type: "Sigmoid"
  bottom: "conv0"
  top: "Sigmoid0"
}
layer {
  name: "pool0"
  type: "Pooling"
  bottom: "Sigmoid0"
  top: "pool0"
  pooling_param {
    pool: AVE
    kernel_size: 3
    stride: 2
  }
}
layer {
  name: "ip1"
  type: "InnerProduct"
  bottom: "pool0"
  top: "ip1"
  param {
    lr_mult: 1
  }
  param {
    lr_mult: 2
  }
  inner_product_param {
    num_output: 60
    weight_filler {
      type: "gaussian"
      std: 0.01
    }
    bias_filler {
      type: "constant"
    }
  }
}
layer {
  name: "relu1"
  type: "ReLU"
  bottom: "ip1"
  top: "ip1"
}
layer {
  name: "ip2"
  type: "InnerProduct"
  bottom: "ip1"
  top: "ip2"
  param {
    lr_mult: 1
  }
  param {
    lr_mult: 2
  }
  inner_product_param {
    num_output: 60
    weight_filler {
      type: "gaussian"
      std: 0.01
    }
    bias_filler {
      type: "constant"
    }
  }
}
layer {
  name: "relu2"
  type: "ReLU"
  bottom: "ip2"
  top: "ip2"
}
layer {
  name: "ip3"
  type: "InnerProduct"
  bottom: "ip2"
  top: "ip3"
  param {
    lr_mult: 1
  }
  param {
    lr_mult: 2
  }
  inner_product_param {
    num_output: 10
    weight_filler {
      type: "gaussian"
      std: 0.01
    }
    bias_filler {
      type: "constant"
    }
  }
}
layer {
  name: "loss"
  type: "SoftmaxWithLoss"
  bottom: "ip3"
  bottom: "label"
  top: "loss"
}
I0504 03:56:47.583433 11535 layer_factory.hpp:77] Creating layer cifar
I0504 03:56:47.583565 11535 db_lmdb.cpp:35] Opened lmdb examples/cifar10/cifar10_train_lmdb
I0504 03:56:47.583606 11535 net.cpp:86] Creating Layer cifar
I0504 03:56:47.583621 11535 net.cpp:382] cifar -> data
I0504 03:56:47.583652 11535 net.cpp:382] cifar -> label
I0504 03:56:47.583673 11535 data_transformer.cpp:25] Loading mean file from: examples/cifar10/mean.binaryproto
I0504 03:56:47.585839 11535 data_layer.cpp:45] output data size: 111,3,32,32
I0504 03:56:47.593747 11535 net.cpp:124] Setting up cifar
I0504 03:56:47.593766 11535 net.cpp:131] Top shape: 111 3 32 32 (340992)
I0504 03:56:47.593775 11535 net.cpp:131] Top shape: 111 (111)
I0504 03:56:47.593777 11535 net.cpp:139] Memory required for data: 1364412
I0504 03:56:47.593786 11535 layer_factory.hpp:77] Creating layer conv0
I0504 03:56:47.593802 11535 net.cpp:86] Creating Layer conv0
I0504 03:56:47.593808 11535 net.cpp:408] conv0 <- data
I0504 03:56:47.593822 11535 net.cpp:382] conv0 -> conv0
I0504 03:56:47.838557 11535 net.cpp:124] Setting up conv0
I0504 03:56:47.838616 11535 net.cpp:131] Top shape: 111 216 34 34 (27716256)
I0504 03:56:47.838620 11535 net.cpp:139] Memory required for data: 112229436
I0504 03:56:47.838635 11535 layer_factory.hpp:77] Creating layer Sigmoid0
I0504 03:56:47.838649 11535 net.cpp:86] Creating Layer Sigmoid0
I0504 03:56:47.838651 11535 net.cpp:408] Sigmoid0 <- conv0
I0504 03:56:47.838656 11535 net.cpp:382] Sigmoid0 -> Sigmoid0
I0504 03:56:47.838855 11535 net.cpp:124] Setting up Sigmoid0
I0504 03:56:47.838865 11535 net.cpp:131] Top shape: 111 216 34 34 (27716256)
I0504 03:56:47.838867 11535 net.cpp:139] Memory required for data: 223094460
I0504 03:56:47.838871 11535 layer_factory.hpp:77] Creating layer pool0
I0504 03:56:47.838876 11535 net.cpp:86] Creating Layer pool0
I0504 03:56:47.838879 11535 net.cpp:408] pool0 <- Sigmoid0
I0504 03:56:47.838886 11535 net.cpp:382] pool0 -> pool0
I0504 03:56:47.839689 11535 net.cpp:124] Setting up pool0
I0504 03:56:47.839700 11535 net.cpp:131] Top shape: 111 216 17 17 (6929064)
I0504 03:56:47.839720 11535 net.cpp:139] Memory required for data: 250810716
I0504 03:56:47.839722 11535 layer_factory.hpp:77] Creating layer ip1
I0504 03:56:47.839731 11535 net.cpp:86] Creating Layer ip1
I0504 03:56:47.839735 11535 net.cpp:408] ip1 <- pool0
I0504 03:56:47.839740 11535 net.cpp:382] ip1 -> ip1
I0504 03:56:47.939378 11535 net.cpp:124] Setting up ip1
I0504 03:56:47.939409 11535 net.cpp:131] Top shape: 111 60 (6660)
I0504 03:56:47.939412 11535 net.cpp:139] Memory required for data: 250837356
I0504 03:56:47.939421 11535 layer_factory.hpp:77] Creating layer relu1
I0504 03:56:47.939427 11535 net.cpp:86] Creating Layer relu1
I0504 03:56:47.939430 11535 net.cpp:408] relu1 <- ip1
I0504 03:56:47.939436 11535 net.cpp:369] relu1 -> ip1 (in-place)
I0504 03:56:47.939622 11535 net.cpp:124] Setting up relu1
I0504 03:56:47.939632 11535 net.cpp:131] Top shape: 111 60 (6660)
I0504 03:56:47.939635 11535 net.cpp:139] Memory required for data: 250863996
I0504 03:56:47.939638 11535 layer_factory.hpp:77] Creating layer ip2
I0504 03:56:47.939646 11535 net.cpp:86] Creating Layer ip2
I0504 03:56:47.939648 11535 net.cpp:408] ip2 <- ip1
I0504 03:56:47.939654 11535 net.cpp:382] ip2 -> ip2
I0504 03:56:47.939855 11535 net.cpp:124] Setting up ip2
I0504 03:56:47.939863 11535 net.cpp:131] Top shape: 111 60 (6660)
I0504 03:56:47.939867 11535 net.cpp:139] Memory required for data: 250890636
I0504 03:56:47.939873 11535 layer_factory.hpp:77] Creating layer relu2
I0504 03:56:47.939882 11535 net.cpp:86] Creating Layer relu2
I0504 03:56:47.939903 11535 net.cpp:408] relu2 <- ip2
I0504 03:56:47.939924 11535 net.cpp:369] relu2 -> ip2 (in-place)
I0504 03:56:47.940132 11535 net.cpp:124] Setting up relu2
I0504 03:56:47.940142 11535 net.cpp:131] Top shape: 111 60 (6660)
I0504 03:56:47.940145 11535 net.cpp:139] Memory required for data: 250917276
I0504 03:56:47.940148 11535 layer_factory.hpp:77] Creating layer ip3
I0504 03:56:47.940173 11535 net.cpp:86] Creating Layer ip3
I0504 03:56:47.940181 11535 net.cpp:408] ip3 <- ip2
I0504 03:56:47.940191 11535 net.cpp:382] ip3 -> ip3
I0504 03:56:47.941293 11535 net.cpp:124] Setting up ip3
I0504 03:56:47.941303 11535 net.cpp:131] Top shape: 111 10 (1110)
I0504 03:56:47.941323 11535 net.cpp:139] Memory required for data: 250921716
I0504 03:56:47.941329 11535 layer_factory.hpp:77] Creating layer loss
I0504 03:56:47.941351 11535 net.cpp:86] Creating Layer loss
I0504 03:56:47.941355 11535 net.cpp:408] loss <- ip3
I0504 03:56:47.941359 11535 net.cpp:408] loss <- label
I0504 03:56:47.941365 11535 net.cpp:382] loss -> loss
I0504 03:56:47.941380 11535 layer_factory.hpp:77] Creating layer loss
…
I0504 03:56:47.942128 11535 solver.cpp:173] Creating test net (#0) specified by net file: ECE595/cifar/train_test/var_everything_tiny/cifar_train_test_55.prototxt
I0504 03:56:47.942169 11535 net.cpp:296] The NetState phase (1) differed from the phase (0) specified by a rule in layer cifar
I0504 03:56:47.942268 11535 net.cpp:53] Initializing net from parameters: 
name: "CIFAR"
state {
  phase: TEST
}
layer {
  name: "cifar"
  type: "Data"
  top: "data"
  top: "label"
  include {
    phase: TEST
  }
  transform_param {
    mean_file: "examples/cifar10/mean.binaryproto"
  }
  data_param {
    source: "examples/cifar10/cifar10_test_lmdb"
    batch_size: 1000
    backend: LMDB
  }
}
layer {
  name: "conv0"
  type: "Convolution"
  bottom: "data"
  top: "conv0"
  param {
    lr_mult: 1
  }
  param {
    lr_mult: 2
  }
  convolution_param {
    num_output: 216
    pad: 2
    kernel_size: 3
    stride: 1
    weight_filler {
      type: "gaussian"
      std: 0.01
    }
    bias_filler {
      type: "constant"
    }
  }
}
layer {
  name: "Sigmoid0"
  type: "Sigmoid"
  bottom: "conv0"
  top: "Sigmoid0"
}
layer {
  name: "pool0"
  type: "Pooling"
  bottom: "Sigmoid0"
  top: "pool0"
  pooling_param {
    pool: AVE
    kernel_size: 3
    stride: 2
  }
}
layer {
  name: "ip1"
  type: "InnerProduct"
  bottom: "pool0"
  top: "ip1"
  param {
    lr_mult: 1
  }
  param {
    lr_mult: 2
  }
  inner_product_param {
    num_output: 60
    weight_filler {
      type: "gaussian"
      std: 0.01
    }
    bias_filler {
      type: "constant"
    }
  }
}
layer {
  name: "relu1"
  type: "ReLU"
  bottom: "ip1"
  top: "ip1"
}
layer {
  name: "ip2"
  type: "InnerProduct"
  bottom: "ip1"
  top: "ip2"
  param {
    lr_mult: 1
  }
  param {
    lr_mult: 2
  }
  inner_product_param {
    num_output: 60
    weight_filler {
      type: "gaussian"
      std: 0.01
    }
    bias_filler {
      type: "constant"
    }
  }
}
layer {
  name: "relu2"
  type: "ReLU"
  bottom: "ip2"
  top: "ip2"
}
layer {
  name: "ip3"
  type: "InnerProduct"
  bottom: "ip2"
  top: "ip3"
  param {
    lr_mult: 1
  }
  param {
    lr_mult: 2
  }
  inner_product_param {
    num_output: 10
    weight_filler {
      type: "gaussian"
      std: 0.01
    }
    bias_filler {
      type: "constant"
    }
  }
}
layer {
  name: "accuracy"
  type: "Accuracy"
  bottom: "ip3"
  bottom: "label"
  top: "accuracy"
  include {
    phase: TEST
  }
}
layer {
  name: "loss"
  type: "SoftmaxWithLoss"
  bottom: "ip3"
  bottom: "label"
  top: "loss"
}
I0504 03:56:47.942337 11535 layer_factory.hpp:77] Creating layer cifar
I0504 03:56:47.942389 11535 db_lmdb.cpp:35] Opened lmdb examples/cifar10/cifar10_test_lmdb
I0504 03:56:47.942410 11535 net.cpp:86] Creating Layer cifar
I0504 03:56:47.942420 11535 net.cpp:382] cifar -> data
I0504 03:56:47.942430 11535 net.cpp:382] cifar -> label
I0504 03:56:47.942456 11535 data_transformer.cpp:25] Loading mean file from: examples/cifar10/mean.binaryproto
I0504 03:56:47.942652 11535 data_layer.cpp:45] output data size: 1000,3,32,32
I0504 03:56:47.965111 11535 net.cpp:124] Setting up cifar
I0504 03:56:47.965154 11535 net.cpp:131] Top shape: 1000 3 32 32 (3072000)
I0504 03:56:47.965160 11535 net.cpp:131] Top shape: 1000 (1000)
I0504 03:56:47.965163 11535 net.cpp:139] Memory required for data: 12292000
I0504 03:56:47.965170 11535 layer_factory.hpp:77] Creating layer label_cifar_1_split
I0504 03:56:47.965229 11535 net.cpp:86] Creating Layer label_cifar_1_split
I0504 03:56:47.965234 11535 net.cpp:408] label_cifar_1_split <- label
I0504 03:56:47.965242 11535 net.cpp:382] label_cifar_1_split -> label_cifar_1_split_0
I0504 03:56:47.965256 11535 net.cpp:382] label_cifar_1_split -> label_cifar_1_split_1
I0504 03:56:47.965358 11535 net.cpp:124] Setting up label_cifar_1_split
I0504 03:56:47.965381 11535 net.cpp:131] Top shape: 1000 (1000)
I0504 03:56:47.965385 11535 net.cpp:131] Top shape: 1000 (1000)
I0504 03:56:47.965389 11535 net.cpp:139] Memory required for data: 12300000
I0504 03:56:47.965391 11535 layer_factory.hpp:77] Creating layer conv0
I0504 03:56:47.965405 11535 net.cpp:86] Creating Layer conv0
I0504 03:56:47.965412 11535 net.cpp:408] conv0 <- data
I0504 03:56:47.965421 11535 net.cpp:382] conv0 -> conv0
I0504 03:56:47.967842 11535 net.cpp:124] Setting up conv0
I0504 03:56:47.967854 11535 net.cpp:131] Top shape: 1000 216 34 34 (249696000)
I0504 03:56:47.967875 11535 net.cpp:139] Memory required for data: 1011084000
I0504 03:56:47.967885 11535 layer_factory.hpp:77] Creating layer Sigmoid0
I0504 03:56:47.967893 11535 net.cpp:86] Creating Layer Sigmoid0
I0504 03:56:47.967896 11535 net.cpp:408] Sigmoid0 <- conv0
I0504 03:56:47.967900 11535 net.cpp:382] Sigmoid0 -> Sigmoid0
I0504 03:56:47.969744 11535 net.cpp:124] Setting up Sigmoid0
I0504 03:56:47.969772 11535 net.cpp:131] Top shape: 1000 216 34 34 (249696000)
I0504 03:56:47.969775 11535 net.cpp:139] Memory required for data: 2009868000
I0504 03:56:47.969794 11535 layer_factory.hpp:77] Creating layer pool0
I0504 03:56:47.969806 11535 net.cpp:86] Creating Layer pool0
I0504 03:56:47.969810 11535 net.cpp:408] pool0 <- Sigmoid0
I0504 03:56:47.969815 11535 net.cpp:382] pool0 -> pool0
I0504 03:56:47.970011 11535 net.cpp:124] Setting up pool0
I0504 03:56:47.970021 11535 net.cpp:131] Top shape: 1000 216 17 17 (62424000)
I0504 03:56:47.970024 11535 net.cpp:139] Memory required for data: 2259564000
I0504 03:56:47.970027 11535 layer_factory.hpp:77] Creating layer ip1
I0504 03:56:47.970036 11535 net.cpp:86] Creating Layer ip1
I0504 03:56:47.970038 11535 net.cpp:408] ip1 <- pool0
I0504 03:56:47.970044 11535 net.cpp:382] ip1 -> ip1
I0504 03:56:48.072803 11535 net.cpp:124] Setting up ip1
I0504 03:56:48.072844 11535 net.cpp:131] Top shape: 1000 60 (60000)
I0504 03:56:48.072849 11535 net.cpp:139] Memory required for data: 2259804000
I0504 03:56:48.072860 11535 layer_factory.hpp:77] Creating layer relu1
I0504 03:56:48.072868 11535 net.cpp:86] Creating Layer relu1
I0504 03:56:48.072872 11535 net.cpp:408] relu1 <- ip1
I0504 03:56:48.072877 11535 net.cpp:369] relu1 -> ip1 (in-place)
I0504 03:56:48.073101 11535 net.cpp:124] Setting up relu1
I0504 03:56:48.073110 11535 net.cpp:131] Top shape: 1000 60 (60000)
I0504 03:56:48.073113 11535 net.cpp:139] Memory required for data: 2260044000
I0504 03:56:48.073117 11535 layer_factory.hpp:77] Creating layer ip2
I0504 03:56:48.073123 11535 net.cpp:86] Creating Layer ip2
I0504 03:56:48.073129 11535 net.cpp:408] ip2 <- ip1
I0504 03:56:48.073154 11535 net.cpp:382] ip2 -> ip2
I0504 03:56:48.073385 11535 net.cpp:124] Setting up ip2
I0504 03:56:48.073395 11535 net.cpp:131] Top shape: 1000 60 (60000)
I0504 03:56:48.073412 11535 net.cpp:139] Memory required for data: 2260284000
I0504 03:56:48.073420 11535 layer_factory.hpp:77] Creating layer relu2
I0504 03:56:48.073427 11535 net.cpp:86] Creating Layer relu2
I0504 03:56:48.073433 11535 net.cpp:408] relu2 <- ip2
I0504 03:56:48.073441 11535 net.cpp:369] relu2 -> ip2 (in-place)
I0504 03:56:48.073640 11535 net.cpp:124] Setting up relu2
I0504 03:56:48.073650 11535 net.cpp:131] Top shape: 1000 60 (60000)
I0504 03:56:48.073653 11535 net.cpp:139] Memory required for data: 2260524000
I0504 03:56:48.073657 11535 layer_factory.hpp:77] Creating layer ip3
I0504 03:56:48.073664 11535 net.cpp:86] Creating Layer ip3
I0504 03:56:48.073668 11535 net.cpp:408] ip3 <- ip2
I0504 03:56:48.073673 11535 net.cpp:382] ip3 -> ip3
I0504 03:56:48.073843 11535 net.cpp:124] Setting up ip3
I0504 03:56:48.073850 11535 net.cpp:131] Top shape: 1000 10 (10000)
I0504 03:56:48.073865 11535 net.cpp:139] Memory required for data: 2260564000
I0504 03:56:48.073871 11535 layer_factory.hpp:77] Creating layer ip3_ip3_0_split
I0504 03:56:48.073879 11535 net.cpp:86] Creating Layer ip3_ip3_0_split
I0504 03:56:48.073881 11535 net.cpp:408] ip3_ip3_0_split <- ip3
I0504 03:56:48.073885 11535 net.cpp:382] ip3_ip3_0_split -> ip3_ip3_0_split_0
I0504 03:56:48.073890 11535 net.cpp:382] ip3_ip3_0_split -> ip3_ip3_0_split_1
I0504 03:56:48.073930 11535 net.cpp:124] Setting up ip3_ip3_0_split
I0504 03:56:48.073940 11535 net.cpp:131] Top shape: 1000 10 (10000)
I0504 03:56:48.073946 11535 net.cpp:131] Top shape: 1000 10 (10000)
I0504 03:56:48.073951 11535 net.cpp:139] Memory required for data: 2260644000
I0504 03:56:48.073956 11535 layer_factory.hpp:77] Creating layer accuracy
I0504 03:56:48.073963 11535 net.cpp:86] Creating Layer accuracy
I0504 03:56:48.073971 11535 net.cpp:408] accuracy <- ip3_ip3_0_split_0
I0504 03:56:48.073992 11535 net.cpp:408] accuracy <- label_cifar_1_split_0
I0504 03:56:48.074000 11535 net.cpp:382] accuracy -> accuracy
…
