…
I0504 08:59:40.268410 22839 net.cpp:296] The NetState phase (0) differed from the phase (1) specified by a rule in layer cifar
I0504 08:59:40.268436 22839 net.cpp:296] The NetState phase (0) differed from the phase (1) specified by a rule in layer accuracy
I0504 08:59:40.268558 22839 net.cpp:53] Initializing net from parameters: 
name: "CIFAR"
state {
  phase: TRAIN
  level: 0
  stage: ""
}
layer {
  name: "cifar"
  type: "Data"
  top: "data"
  top: "label"
  include {
    phase: TRAIN
  }
  transform_param {
    mean_file: "examples/cifar10/mean.binaryproto"
  }
  data_param {
    source: "examples/cifar10/cifar10_train_lmdb"
    batch_size: 111
    backend: LMDB
  }
}
layer {
  name: "conv0"
  type: "Convolution"
  bottom: "data"
  top: "conv0"
  param {
    lr_mult: 1
  }
  param {
    lr_mult: 2
  }
  convolution_param {
    num_output: 24
    pad: 2
    kernel_size: 3
    stride: 1
    weight_filler {
      type: "gaussian"
      std: 0.01
    }
    bias_filler {
      type: "constant"
    }
  }
}
layer {
  name: "Sigmoid0"
  type: "Sigmoid"
  bottom: "conv0"
  top: "Sigmoid0"
}
layer {
  name: "pool0"
  type: "Pooling"
  bottom: "Sigmoid0"
  top: "pool0"
  pooling_param {
    pool: AVE
    kernel_size: 3
    stride: 2
  }
}
layer {
  name: "conv1"
  type: "Convolution"
  bottom: "pool0"
  top: "conv1"
  param {
    lr_mult: 1
  }
  param {
    lr_mult: 2
  }
  convolution_param {
    num_output: 72
    pad: 2
    kernel_size: 3
    stride: 1
    weight_filler {
      type: "gaussian"
      std: 0.01
    }
    bias_filler {
      type: "constant"
    }
  }
}
layer {
  name: "Sigmoid1"
  type: "Sigmoid"
  bottom: "conv1"
  top: "Sigmoid1"
}
layer {
  name: "pool1"
  type: "Pooling"
  bottom: "Sigmoid1"
  top: "pool1"
  pooling_param {
    pool: AVE
    kernel_size: 3
    stride: 2
  }
}
layer {
  name: "ip1"
  type: "InnerProduct"
  bottom: "pool1"
  top: "ip1"
  param {
    lr_mult: 1
  }
  param {
    lr_mult: 2
  }
  inner_product_param {
    num_output: 10
    weight_filler {
      type: "gaussian"
      std: 0.01
    }
    bias_filler {
      type: "constant"
    }
  }
}
layer {
  name: "relu1"
  type: "ReLU"
  bottom: "ip1"
  top: "ip1"
}
layer {
  name: "ip2"
  type: "InnerProduct"
  bottom: "ip1"
  top: "ip2"
  param {
    lr_mult: 1
  }
  param {
    lr_mult: 2
  }
  inner_product_param {
    num_output: 60
    weight_filler {
      type: "gaussian"
      std: 0.01
    }
    bias_filler {
      type: "constant"
    }
  }
}
layer {
  name: "relu2"
  type: "ReLU"
  bottom: "ip2"
  top: "ip2"
}
layer {
  name: "ip3"
  type: "InnerProduct"
  bottom: "ip2"
  top: "ip3"
  param {
    lr_mult: 1
  }
  param {
    lr_mult: 2
  }
  inner_product_param {
    num_output: 10
    weight_filler {
      type: "gaussian"
      std: 0.01
    }
    bias_filler {
      type: "constant"
    }
  }
}
layer {
  name: "loss"
  type: "SoftmaxWithLoss"
  bottom: "ip3"
  bottom: "label"
  top: "loss"
}
I0504 08:59:40.268676 22839 layer_factory.hpp:77] Creating layer cifar
I0504 08:59:40.268807 22839 db_lmdb.cpp:35] Opened lmdb examples/cifar10/cifar10_train_lmdb
I0504 08:59:40.268856 22839 net.cpp:86] Creating Layer cifar
I0504 08:59:40.268872 22839 net.cpp:382] cifar -> data
I0504 08:59:40.268903 22839 net.cpp:382] cifar -> label
I0504 08:59:40.268920 22839 data_transformer.cpp:25] Loading mean file from: examples/cifar10/mean.binaryproto
I0504 08:59:40.271308 22839 data_layer.cpp:45] output data size: 111,3,32,32
I0504 08:59:40.279444 22839 net.cpp:124] Setting up cifar
I0504 08:59:40.279465 22839 net.cpp:131] Top shape: 111 3 32 32 (340992)
I0504 08:59:40.279476 22839 net.cpp:131] Top shape: 111 (111)
I0504 08:59:40.279482 22839 net.cpp:139] Memory required for data: 1364412
I0504 08:59:40.279494 22839 layer_factory.hpp:77] Creating layer conv0
I0504 08:59:40.279521 22839 net.cpp:86] Creating Layer conv0
I0504 08:59:40.279531 22839 net.cpp:408] conv0 <- data
I0504 08:59:40.279551 22839 net.cpp:382] conv0 -> conv0
I0504 08:59:40.572100 22839 net.cpp:124] Setting up conv0
I0504 08:59:40.572135 22839 net.cpp:131] Top shape: 111 24 34 34 (3079584)
I0504 08:59:40.572144 22839 net.cpp:139] Memory required for data: 13682748
I0504 08:59:40.572168 22839 layer_factory.hpp:77] Creating layer Sigmoid0
I0504 08:59:40.572188 22839 net.cpp:86] Creating Layer Sigmoid0
I0504 08:59:40.572196 22839 net.cpp:408] Sigmoid0 <- conv0
I0504 08:59:40.572207 22839 net.cpp:382] Sigmoid0 -> Sigmoid0
I0504 08:59:40.572443 22839 net.cpp:124] Setting up Sigmoid0
I0504 08:59:40.572456 22839 net.cpp:131] Top shape: 111 24 34 34 (3079584)
I0504 08:59:40.572463 22839 net.cpp:139] Memory required for data: 26001084
I0504 08:59:40.572469 22839 layer_factory.hpp:77] Creating layer pool0
I0504 08:59:40.572481 22839 net.cpp:86] Creating Layer pool0
I0504 08:59:40.572489 22839 net.cpp:408] pool0 <- Sigmoid0
I0504 08:59:40.572499 22839 net.cpp:382] pool0 -> pool0
I0504 08:59:40.573406 22839 net.cpp:124] Setting up pool0
I0504 08:59:40.573426 22839 net.cpp:131] Top shape: 111 24 17 17 (769896)
I0504 08:59:40.573432 22839 net.cpp:139] Memory required for data: 29080668
I0504 08:59:40.573441 22839 layer_factory.hpp:77] Creating layer conv1
I0504 08:59:40.573462 22839 net.cpp:86] Creating Layer conv1
I0504 08:59:40.573473 22839 net.cpp:408] conv1 <- pool0
I0504 08:59:40.573485 22839 net.cpp:382] conv1 -> conv1
I0504 08:59:40.577167 22839 net.cpp:124] Setting up conv1
I0504 08:59:40.577193 22839 net.cpp:131] Top shape: 111 72 19 19 (2885112)
I0504 08:59:40.577199 22839 net.cpp:139] Memory required for data: 40621116
I0504 08:59:40.577216 22839 layer_factory.hpp:77] Creating layer Sigmoid1
I0504 08:59:40.577227 22839 net.cpp:86] Creating Layer Sigmoid1
I0504 08:59:40.577234 22839 net.cpp:408] Sigmoid1 <- conv1
I0504 08:59:40.577244 22839 net.cpp:382] Sigmoid1 -> Sigmoid1
I0504 08:59:40.577476 22839 net.cpp:124] Setting up Sigmoid1
I0504 08:59:40.577488 22839 net.cpp:131] Top shape: 111 72 19 19 (2885112)
I0504 08:59:40.577495 22839 net.cpp:139] Memory required for data: 52161564
I0504 08:59:40.577502 22839 layer_factory.hpp:77] Creating layer pool1
I0504 08:59:40.577512 22839 net.cpp:86] Creating Layer pool1
I0504 08:59:40.577519 22839 net.cpp:408] pool1 <- Sigmoid1
I0504 08:59:40.577529 22839 net.cpp:382] pool1 -> pool1
I0504 08:59:40.577742 22839 net.cpp:124] Setting up pool1
I0504 08:59:40.577755 22839 net.cpp:131] Top shape: 111 72 9 9 (647352)
I0504 08:59:40.577761 22839 net.cpp:139] Memory required for data: 54750972
I0504 08:59:40.577769 22839 layer_factory.hpp:77] Creating layer ip1
I0504 08:59:40.577781 22839 net.cpp:86] Creating Layer ip1
I0504 08:59:40.577788 22839 net.cpp:408] ip1 <- pool1
I0504 08:59:40.577800 22839 net.cpp:382] ip1 -> ip1
I0504 08:59:40.580826 22839 net.cpp:124] Setting up ip1
I0504 08:59:40.580844 22839 net.cpp:131] Top shape: 111 10 (1110)
I0504 08:59:40.580852 22839 net.cpp:139] Memory required for data: 54755412
I0504 08:59:40.580868 22839 layer_factory.hpp:77] Creating layer relu1
I0504 08:59:40.580881 22839 net.cpp:86] Creating Layer relu1
I0504 08:59:40.580888 22839 net.cpp:408] relu1 <- ip1
I0504 08:59:40.580898 22839 net.cpp:369] relu1 -> ip1 (in-place)
I0504 08:59:40.581115 22839 net.cpp:124] Setting up relu1
I0504 08:59:40.581130 22839 net.cpp:131] Top shape: 111 10 (1110)
I0504 08:59:40.581136 22839 net.cpp:139] Memory required for data: 54759852
I0504 08:59:40.581143 22839 layer_factory.hpp:77] Creating layer ip2
I0504 08:59:40.581156 22839 net.cpp:86] Creating Layer ip2
I0504 08:59:40.581161 22839 net.cpp:408] ip2 <- ip1
I0504 08:59:40.581202 22839 net.cpp:382] ip2 -> ip2
I0504 08:59:40.581375 22839 net.cpp:124] Setting up ip2
I0504 08:59:40.581387 22839 net.cpp:131] Top shape: 111 60 (6660)
I0504 08:59:40.581393 22839 net.cpp:139] Memory required for data: 54786492
I0504 08:59:40.581404 22839 layer_factory.hpp:77] Creating layer relu2
I0504 08:59:40.581414 22839 net.cpp:86] Creating Layer relu2
I0504 08:59:40.581420 22839 net.cpp:408] relu2 <- ip2
I0504 08:59:40.581429 22839 net.cpp:369] relu2 -> ip2 (in-place)
I0504 08:59:40.582321 22839 net.cpp:124] Setting up relu2
I0504 08:59:40.582339 22839 net.cpp:131] Top shape: 111 60 (6660)
I0504 08:59:40.582345 22839 net.cpp:139] Memory required for data: 54813132
I0504 08:59:40.582352 22839 layer_factory.hpp:77] Creating layer ip3
I0504 08:59:40.582365 22839 net.cpp:86] Creating Layer ip3
I0504 08:59:40.582371 22839 net.cpp:408] ip3 <- ip2
I0504 08:59:40.582386 22839 net.cpp:382] ip3 -> ip3
I0504 08:59:40.582552 22839 net.cpp:124] Setting up ip3
I0504 08:59:40.582564 22839 net.cpp:131] Top shape: 111 10 (1110)
I0504 08:59:40.582569 22839 net.cpp:139] Memory required for data: 54817572
I0504 08:59:40.582586 22839 layer_factory.hpp:77] Creating layer loss
I0504 08:59:40.582597 22839 net.cpp:86] Creating Layer loss
I0504 08:59:40.582602 22839 net.cpp:408] loss <- ip3
I0504 08:59:40.582610 22839 net.cpp:408] loss <- label
I0504 08:59:40.582623 22839 net.cpp:382] loss -> loss
I0504 08:59:40.582650 22839 layer_factory.hpp:77] Creating layer loss
…
I0504 08:59:40.583535 22839 solver.cpp:173] Creating test net (#0) specified by net file: ECE595/cifar/train_test/var_everything_tiny/cifar_train_test_112.prototxt
I0504 08:59:40.583580 22839 net.cpp:296] The NetState phase (1) differed from the phase (0) specified by a rule in layer cifar
I0504 08:59:40.583714 22839 net.cpp:53] Initializing net from parameters: 
name: "CIFAR"
state {
  phase: TEST
}
layer {
  name: "cifar"
  type: "Data"
  top: "data"
  top: "label"
  include {
    phase: TEST
  }
  transform_param {
    mean_file: "examples/cifar10/mean.binaryproto"
  }
  data_param {
    source: "examples/cifar10/cifar10_test_lmdb"
    batch_size: 1000
    backend: LMDB
  }
}
layer {
  name: "conv0"
  type: "Convolution"
  bottom: "data"
  top: "conv0"
  param {
    lr_mult: 1
  }
  param {
    lr_mult: 2
  }
  convolution_param {
    num_output: 24
    pad: 2
    kernel_size: 3
    stride: 1
    weight_filler {
      type: "gaussian"
      std: 0.01
    }
    bias_filler {
      type: "constant"
    }
  }
}
layer {
  name: "Sigmoid0"
  type: "Sigmoid"
  bottom: "conv0"
  top: "Sigmoid0"
}
layer {
  name: "pool0"
  type: "Pooling"
  bottom: "Sigmoid0"
  top: "pool0"
  pooling_param {
    pool: AVE
    kernel_size: 3
    stride: 2
  }
}
layer {
  name: "conv1"
  type: "Convolution"
  bottom: "pool0"
  top: "conv1"
  param {
    lr_mult: 1
  }
  param {
    lr_mult: 2
  }
  convolution_param {
    num_output: 72
    pad: 2
    kernel_size: 3
    stride: 1
    weight_filler {
      type: "gaussian"
      std: 0.01
    }
    bias_filler {
      type: "constant"
    }
  }
}
layer {
  name: "Sigmoid1"
  type: "Sigmoid"
  bottom: "conv1"
  top: "Sigmoid1"
}
layer {
  name: "pool1"
  type: "Pooling"
  bottom: "Sigmoid1"
  top: "pool1"
  pooling_param {
    pool: AVE
    kernel_size: 3
    stride: 2
  }
}
layer {
  name: "ip1"
  type: "InnerProduct"
  bottom: "pool1"
  top: "ip1"
  param {
    lr_mult: 1
  }
  param {
    lr_mult: 2
  }
  inner_product_param {
    num_output: 10
    weight_filler {
      type: "gaussian"
      std: 0.01
    }
    bias_filler {
      type: "constant"
    }
  }
}
layer {
  name: "relu1"
  type: "ReLU"
  bottom: "ip1"
  top: "ip1"
}
layer {
  name: "ip2"
  type: "InnerProduct"
  bottom: "ip1"
  top: "ip2"
  param {
    lr_mult: 1
  }
  param {
    lr_mult: 2
  }
  inner_product_param {
    num_output: 60
    weight_filler {
      type: "gaussian"
      std: 0.01
    }
    bias_filler {
      type: "constant"
    }
  }
}
layer {
  name: "relu2"
  type: "ReLU"
  bottom: "ip2"
  top: "ip2"
}
layer {
  name: "ip3"
  type: "InnerProduct"
  bottom: "ip2"
  top: "ip3"
  param {
    lr_mult: 1
  }
  param {
    lr_mult: 2
  }
  inner_product_param {
    num_output: 10
    weight_filler {
      type: "gaussian"
      std: 0.01
    }
    bias_filler {
      type: "constant"
    }
  }
}
layer {
  name: "accuracy"
  type: "Accuracy"
  bottom: "ip3"
  bottom: "label"
  top: "accuracy"
  include {
    phase: TEST
  }
}
layer {
  name: "loss"
  type: "SoftmaxWithLoss"
  bottom: "ip3"
  bottom: "label"
  top: "loss"
}
I0504 08:59:40.583861 22839 layer_factory.hpp:77] Creating layer cifar
I0504 08:59:40.583935 22839 db_lmdb.cpp:35] Opened lmdb examples/cifar10/cifar10_test_lmdb
I0504 08:59:40.583961 22839 net.cpp:86] Creating Layer cifar
I0504 08:59:40.583973 22839 net.cpp:382] cifar -> data
I0504 08:59:40.583987 22839 net.cpp:382] cifar -> label
I0504 08:59:40.584000 22839 data_transformer.cpp:25] Loading mean file from: examples/cifar10/mean.binaryproto
I0504 08:59:40.584261 22839 data_layer.cpp:45] output data size: 1000,3,32,32
I0504 08:59:40.610541 22839 net.cpp:124] Setting up cifar
I0504 08:59:40.610574 22839 net.cpp:131] Top shape: 1000 3 32 32 (3072000)
I0504 08:59:40.610607 22839 net.cpp:131] Top shape: 1000 (1000)
I0504 08:59:40.610615 22839 net.cpp:139] Memory required for data: 12292000
I0504 08:59:40.610625 22839 layer_factory.hpp:77] Creating layer label_cifar_1_split
I0504 08:59:40.610648 22839 net.cpp:86] Creating Layer label_cifar_1_split
I0504 08:59:40.610659 22839 net.cpp:408] label_cifar_1_split <- label
I0504 08:59:40.610671 22839 net.cpp:382] label_cifar_1_split -> label_cifar_1_split_0
I0504 08:59:40.610685 22839 net.cpp:382] label_cifar_1_split -> label_cifar_1_split_1
I0504 08:59:40.610796 22839 net.cpp:124] Setting up label_cifar_1_split
I0504 08:59:40.610807 22839 net.cpp:131] Top shape: 1000 (1000)
I0504 08:59:40.610816 22839 net.cpp:131] Top shape: 1000 (1000)
I0504 08:59:40.610821 22839 net.cpp:139] Memory required for data: 12300000
I0504 08:59:40.610826 22839 layer_factory.hpp:77] Creating layer conv0
I0504 08:59:40.610848 22839 net.cpp:86] Creating Layer conv0
I0504 08:59:40.610855 22839 net.cpp:408] conv0 <- data
I0504 08:59:40.610868 22839 net.cpp:382] conv0 -> conv0
I0504 08:59:40.613610 22839 net.cpp:124] Setting up conv0
I0504 08:59:40.613628 22839 net.cpp:131] Top shape: 1000 24 34 34 (27744000)
I0504 08:59:40.613636 22839 net.cpp:139] Memory required for data: 123276000
I0504 08:59:40.613652 22839 layer_factory.hpp:77] Creating layer Sigmoid0
I0504 08:59:40.613667 22839 net.cpp:86] Creating Layer Sigmoid0
I0504 08:59:40.613675 22839 net.cpp:408] Sigmoid0 <- conv0
I0504 08:59:40.613684 22839 net.cpp:382] Sigmoid0 -> Sigmoid0
I0504 08:59:40.613929 22839 net.cpp:124] Setting up Sigmoid0
I0504 08:59:40.613952 22839 net.cpp:131] Top shape: 1000 24 34 34 (27744000)
I0504 08:59:40.613960 22839 net.cpp:139] Memory required for data: 234252000
I0504 08:59:40.613965 22839 layer_factory.hpp:77] Creating layer pool0
I0504 08:59:40.613979 22839 net.cpp:86] Creating Layer pool0
I0504 08:59:40.613986 22839 net.cpp:408] pool0 <- Sigmoid0
I0504 08:59:40.613997 22839 net.cpp:382] pool0 -> pool0
I0504 08:59:40.614215 22839 net.cpp:124] Setting up pool0
I0504 08:59:40.614228 22839 net.cpp:131] Top shape: 1000 24 17 17 (6936000)
I0504 08:59:40.614234 22839 net.cpp:139] Memory required for data: 261996000
I0504 08:59:40.614240 22839 layer_factory.hpp:77] Creating layer conv1
I0504 08:59:40.614258 22839 net.cpp:86] Creating Layer conv1
I0504 08:59:40.614264 22839 net.cpp:408] conv1 <- pool0
I0504 08:59:40.614277 22839 net.cpp:382] conv1 -> conv1
I0504 08:59:40.616344 22839 net.cpp:124] Setting up conv1
I0504 08:59:40.616363 22839 net.cpp:131] Top shape: 1000 72 19 19 (25992000)
I0504 08:59:40.616369 22839 net.cpp:139] Memory required for data: 365964000
I0504 08:59:40.616384 22839 layer_factory.hpp:77] Creating layer Sigmoid1
I0504 08:59:40.616395 22839 net.cpp:86] Creating Layer Sigmoid1
I0504 08:59:40.616403 22839 net.cpp:408] Sigmoid1 <- conv1
I0504 08:59:40.616412 22839 net.cpp:382] Sigmoid1 -> Sigmoid1
I0504 08:59:40.616642 22839 net.cpp:124] Setting up Sigmoid1
I0504 08:59:40.616657 22839 net.cpp:131] Top shape: 1000 72 19 19 (25992000)
I0504 08:59:40.616663 22839 net.cpp:139] Memory required for data: 469932000
I0504 08:59:40.616669 22839 layer_factory.hpp:77] Creating layer pool1
I0504 08:59:40.616681 22839 net.cpp:86] Creating Layer pool1
I0504 08:59:40.616688 22839 net.cpp:408] pool1 <- Sigmoid1
I0504 08:59:40.616698 22839 net.cpp:382] pool1 -> pool1
I0504 08:59:40.617585 22839 net.cpp:124] Setting up pool1
I0504 08:59:40.617604 22839 net.cpp:131] Top shape: 1000 72 9 9 (5832000)
I0504 08:59:40.617609 22839 net.cpp:139] Memory required for data: 493260000
I0504 08:59:40.617615 22839 layer_factory.hpp:77] Creating layer ip1
I0504 08:59:40.617635 22839 net.cpp:86] Creating Layer ip1
I0504 08:59:40.617641 22839 net.cpp:408] ip1 <- pool1
I0504 08:59:40.617652 22839 net.cpp:382] ip1 -> ip1
I0504 08:59:40.619652 22839 net.cpp:124] Setting up ip1
I0504 08:59:40.619664 22839 net.cpp:131] Top shape: 1000 10 (10000)
I0504 08:59:40.619670 22839 net.cpp:139] Memory required for data: 493300000
I0504 08:59:40.619685 22839 layer_factory.hpp:77] Creating layer relu1
I0504 08:59:40.619699 22839 net.cpp:86] Creating Layer relu1
I0504 08:59:40.619711 22839 net.cpp:408] relu1 <- ip1
I0504 08:59:40.619720 22839 net.cpp:369] relu1 -> ip1 (in-place)
I0504 08:59:40.619925 22839 net.cpp:124] Setting up relu1
I0504 08:59:40.619936 22839 net.cpp:131] Top shape: 1000 10 (10000)
I0504 08:59:40.619943 22839 net.cpp:139] Memory required for data: 493340000
I0504 08:59:40.619949 22839 layer_factory.hpp:77] Creating layer ip2
I0504 08:59:40.619963 22839 net.cpp:86] Creating Layer ip2
I0504 08:59:40.619969 22839 net.cpp:408] ip2 <- ip1
I0504 08:59:40.619982 22839 net.cpp:382] ip2 -> ip2
I0504 08:59:40.620154 22839 net.cpp:124] Setting up ip2
I0504 08:59:40.620165 22839 net.cpp:131] Top shape: 1000 60 (60000)
I0504 08:59:40.620172 22839 net.cpp:139] Memory required for data: 493580000
I0504 08:59:40.620182 22839 layer_factory.hpp:77] Creating layer relu2
I0504 08:59:40.620192 22839 net.cpp:86] Creating Layer relu2
I0504 08:59:40.620198 22839 net.cpp:408] relu2 <- ip2
I0504 08:59:40.620205 22839 net.cpp:369] relu2 -> ip2 (in-place)
I0504 08:59:40.620410 22839 net.cpp:124] Setting up relu2
I0504 08:59:40.620422 22839 net.cpp:131] Top shape: 1000 60 (60000)
I0504 08:59:40.620429 22839 net.cpp:139] Memory required for data: 493820000
I0504 08:59:40.620434 22839 layer_factory.hpp:77] Creating layer ip3
I0504 08:59:40.620445 22839 net.cpp:86] Creating Layer ip3
I0504 08:59:40.620451 22839 net.cpp:408] ip3 <- ip2
I0504 08:59:40.620463 22839 net.cpp:382] ip3 -> ip3
I0504 08:59:40.620625 22839 net.cpp:124] Setting up ip3
I0504 08:59:40.620635 22839 net.cpp:131] Top shape: 1000 10 (10000)
I0504 08:59:40.620656 22839 net.cpp:139] Memory required for data: 493860000
I0504 08:59:40.620671 22839 layer_factory.hpp:77] Creating layer ip3_ip3_0_split
I0504 08:59:40.620681 22839 net.cpp:86] Creating Layer ip3_ip3_0_split
I0504 08:59:40.620687 22839 net.cpp:408] ip3_ip3_0_split <- ip3
I0504 08:59:40.620698 22839 net.cpp:382] ip3_ip3_0_split -> ip3_ip3_0_split_0
I0504 08:59:40.620708 22839 net.cpp:382] ip3_ip3_0_split -> ip3_ip3_0_split_1
I0504 08:59:40.620760 22839 net.cpp:124] Setting up ip3_ip3_0_split
I0504 08:59:40.620772 22839 net.cpp:131] Top shape: 1000 10 (10000)
I0504 08:59:40.620779 22839 net.cpp:131] Top shape: 1000 10 (10000)
I0504 08:59:40.620785 22839 net.cpp:139] Memory required for data: 493940000
I0504 08:59:40.620791 22839 layer_factory.hpp:77] Creating layer accuracy
I0504 08:59:40.620801 22839 net.cpp:86] Creating Layer accuracy
I0504 08:59:40.620808 22839 net.cpp:408] accuracy <- ip3_ip3_0_split_0
I0504 08:59:40.620827 22839 net.cpp:408] accuracy <- label_cifar_1_split_0
I0504 08:59:40.620836 22839 net.cpp:382] accuracy -> accuracy
…
