…
I0504 08:04:13.796169 20977 net.cpp:296] The NetState phase (0) differed from the phase (1) specified by a rule in layer cifar
I0504 08:04:13.796188 20977 net.cpp:296] The NetState phase (0) differed from the phase (1) specified by a rule in layer accuracy
I0504 08:04:13.796300 20977 net.cpp:53] Initializing net from parameters: 
name: "CIFAR"
state {
  phase: TRAIN
  level: 0
  stage: ""
}
layer {
  name: "cifar"
  type: "Data"
  top: "data"
  top: "label"
  include {
    phase: TRAIN
  }
  transform_param {
    mean_file: "examples/cifar10/mean.binaryproto"
  }
  data_param {
    source: "examples/cifar10/cifar10_train_lmdb"
    batch_size: 111
    backend: LMDB
  }
}
layer {
  name: "conv0"
  type: "Convolution"
  bottom: "data"
  top: "conv0"
  param {
    lr_mult: 1
  }
  param {
    lr_mult: 2
  }
  convolution_param {
    num_output: 24
    pad: 2
    kernel_size: 5
    stride: 1
    weight_filler {
      type: "gaussian"
      std: 0.01
    }
    bias_filler {
      type: "constant"
    }
  }
}
layer {
  name: "Sigmoid0"
  type: "Sigmoid"
  bottom: "conv0"
  top: "Sigmoid0"
}
layer {
  name: "pool0"
  type: "Pooling"
  bottom: "Sigmoid0"
  top: "pool0"
  pooling_param {
    pool: AVE
    kernel_size: 3
    stride: 2
  }
}
layer {
  name: "conv1"
  type: "Convolution"
  bottom: "pool0"
  top: "conv1"
  param {
    lr_mult: 1
  }
  param {
    lr_mult: 2
  }
  convolution_param {
    num_output: 24
    pad: 2
    kernel_size: 3
    stride: 1
    weight_filler {
      type: "gaussian"
      std: 0.01
    }
    bias_filler {
      type: "constant"
    }
  }
}
layer {
  name: "Sigmoid1"
  type: "Sigmoid"
  bottom: "conv1"
  top: "Sigmoid1"
}
layer {
  name: "pool1"
  type: "Pooling"
  bottom: "Sigmoid1"
  top: "pool1"
  pooling_param {
    pool: AVE
    kernel_size: 3
    stride: 2
  }
}
layer {
  name: "ip1"
  type: "InnerProduct"
  bottom: "pool1"
  top: "ip1"
  param {
    lr_mult: 1
  }
  param {
    lr_mult: 2
  }
  inner_product_param {
    num_output: 180
    weight_filler {
      type: "gaussian"
      std: 0.01
    }
    bias_filler {
      type: "constant"
    }
  }
}
layer {
  name: "relu1"
  type: "ReLU"
  bottom: "ip1"
  top: "ip1"
}
layer {
  name: "ip2"
  type: "InnerProduct"
  bottom: "ip1"
  top: "ip2"
  param {
    lr_mult: 1
  }
  param {
    lr_mult: 2
  }
  inner_product_param {
    num_output: 10
    weight_filler {
      type: "gaussian"
      std: 0.01
    }
    bias_filler {
      type: "constant"
    }
  }
}
layer {
  name: "relu2"
  type: "ReLU"
  bottom: "ip2"
  top: "ip2"
}
layer {
  name: "ip3"
  type: "InnerProduct"
  bottom: "ip2"
  top: "ip3"
  param {
    lr_mult: 1
  }
  param {
    lr_mult: 2
  }
  inner_product_param {
    num_output: 10
    weight_filler {
      type: "gaussian"
      std: 0.01
    }
    bias_filler {
      type: "constant"
    }
  }
}
layer {
  name: "loss"
  type: "SoftmaxWithLoss"
  bottom: "ip3"
  bottom: "label"
  top: "loss"
}
I0504 08:04:13.796386 20977 layer_factory.hpp:77] Creating layer cifar
I0504 08:04:13.796484 20977 db_lmdb.cpp:35] Opened lmdb examples/cifar10/cifar10_train_lmdb
I0504 08:04:13.796511 20977 net.cpp:86] Creating Layer cifar
I0504 08:04:13.796519 20977 net.cpp:382] cifar -> data
I0504 08:04:13.796540 20977 net.cpp:382] cifar -> label
I0504 08:04:13.796553 20977 data_transformer.cpp:25] Loading mean file from: examples/cifar10/mean.binaryproto
I0504 08:04:13.798725 20977 data_layer.cpp:45] output data size: 111,3,32,32
I0504 08:04:13.806707 20977 net.cpp:124] Setting up cifar
I0504 08:04:13.806726 20977 net.cpp:131] Top shape: 111 3 32 32 (340992)
I0504 08:04:13.806732 20977 net.cpp:131] Top shape: 111 (111)
I0504 08:04:13.806736 20977 net.cpp:139] Memory required for data: 1364412
I0504 08:04:13.806743 20977 layer_factory.hpp:77] Creating layer conv0
I0504 08:04:13.806761 20977 net.cpp:86] Creating Layer conv0
I0504 08:04:13.806766 20977 net.cpp:408] conv0 <- data
I0504 08:04:13.806779 20977 net.cpp:382] conv0 -> conv0
I0504 08:04:14.093762 20977 net.cpp:124] Setting up conv0
I0504 08:04:14.093791 20977 net.cpp:131] Top shape: 111 24 32 32 (2727936)
I0504 08:04:14.093794 20977 net.cpp:139] Memory required for data: 12276156
I0504 08:04:14.093808 20977 layer_factory.hpp:77] Creating layer Sigmoid0
I0504 08:04:14.093821 20977 net.cpp:86] Creating Layer Sigmoid0
I0504 08:04:14.093824 20977 net.cpp:408] Sigmoid0 <- conv0
I0504 08:04:14.093833 20977 net.cpp:382] Sigmoid0 -> Sigmoid0
I0504 08:04:14.094018 20977 net.cpp:124] Setting up Sigmoid0
I0504 08:04:14.094028 20977 net.cpp:131] Top shape: 111 24 32 32 (2727936)
I0504 08:04:14.094032 20977 net.cpp:139] Memory required for data: 23187900
I0504 08:04:14.094035 20977 layer_factory.hpp:77] Creating layer pool0
I0504 08:04:14.094043 20977 net.cpp:86] Creating Layer pool0
I0504 08:04:14.094046 20977 net.cpp:408] pool0 <- Sigmoid0
I0504 08:04:14.094050 20977 net.cpp:382] pool0 -> pool0
I0504 08:04:14.094795 20977 net.cpp:124] Setting up pool0
I0504 08:04:14.094808 20977 net.cpp:131] Top shape: 111 24 16 16 (681984)
I0504 08:04:14.094812 20977 net.cpp:139] Memory required for data: 25915836
I0504 08:04:14.094815 20977 layer_factory.hpp:77] Creating layer conv1
I0504 08:04:14.094827 20977 net.cpp:86] Creating Layer conv1
I0504 08:04:14.094830 20977 net.cpp:408] conv1 <- pool0
I0504 08:04:14.094837 20977 net.cpp:382] conv1 -> conv1
I0504 08:04:14.097579 20977 net.cpp:124] Setting up conv1
I0504 08:04:14.097591 20977 net.cpp:131] Top shape: 111 24 18 18 (863136)
I0504 08:04:14.097595 20977 net.cpp:139] Memory required for data: 29368380
I0504 08:04:14.097604 20977 layer_factory.hpp:77] Creating layer Sigmoid1
I0504 08:04:14.097610 20977 net.cpp:86] Creating Layer Sigmoid1
I0504 08:04:14.097614 20977 net.cpp:408] Sigmoid1 <- conv1
I0504 08:04:14.097618 20977 net.cpp:382] Sigmoid1 -> Sigmoid1
I0504 08:04:14.097790 20977 net.cpp:124] Setting up Sigmoid1
I0504 08:04:14.097800 20977 net.cpp:131] Top shape: 111 24 18 18 (863136)
I0504 08:04:14.097802 20977 net.cpp:139] Memory required for data: 32820924
I0504 08:04:14.097805 20977 layer_factory.hpp:77] Creating layer pool1
I0504 08:04:14.097811 20977 net.cpp:86] Creating Layer pool1
I0504 08:04:14.097815 20977 net.cpp:408] pool1 <- Sigmoid1
I0504 08:04:14.097820 20977 net.cpp:382] pool1 -> pool1
I0504 08:04:14.097980 20977 net.cpp:124] Setting up pool1
I0504 08:04:14.097988 20977 net.cpp:131] Top shape: 111 24 9 9 (215784)
I0504 08:04:14.097991 20977 net.cpp:139] Memory required for data: 33684060
I0504 08:04:14.097995 20977 layer_factory.hpp:77] Creating layer ip1
I0504 08:04:14.098001 20977 net.cpp:86] Creating Layer ip1
I0504 08:04:14.098006 20977 net.cpp:408] ip1 <- pool1
I0504 08:04:14.098009 20977 net.cpp:382] ip1 -> ip1
I0504 08:04:14.108028 20977 net.cpp:124] Setting up ip1
I0504 08:04:14.108042 20977 net.cpp:131] Top shape: 111 180 (19980)
I0504 08:04:14.108044 20977 net.cpp:139] Memory required for data: 33763980
I0504 08:04:14.108052 20977 layer_factory.hpp:77] Creating layer relu1
I0504 08:04:14.108058 20977 net.cpp:86] Creating Layer relu1
I0504 08:04:14.108062 20977 net.cpp:408] relu1 <- ip1
I0504 08:04:14.108067 20977 net.cpp:369] relu1 -> ip1 (in-place)
I0504 08:04:14.108223 20977 net.cpp:124] Setting up relu1
I0504 08:04:14.108232 20977 net.cpp:131] Top shape: 111 180 (19980)
I0504 08:04:14.108234 20977 net.cpp:139] Memory required for data: 33843900
I0504 08:04:14.108237 20977 layer_factory.hpp:77] Creating layer ip2
I0504 08:04:14.108244 20977 net.cpp:86] Creating Layer ip2
I0504 08:04:14.108247 20977 net.cpp:408] ip2 <- ip1
I0504 08:04:14.108265 20977 net.cpp:382] ip2 -> ip2
I0504 08:04:14.108408 20977 net.cpp:124] Setting up ip2
I0504 08:04:14.108415 20977 net.cpp:131] Top shape: 111 10 (1110)
I0504 08:04:14.108418 20977 net.cpp:139] Memory required for data: 33848340
I0504 08:04:14.108423 20977 layer_factory.hpp:77] Creating layer relu2
I0504 08:04:14.108428 20977 net.cpp:86] Creating Layer relu2
I0504 08:04:14.108431 20977 net.cpp:408] relu2 <- ip2
I0504 08:04:14.108435 20977 net.cpp:369] relu2 -> ip2 (in-place)
I0504 08:04:14.109135 20977 net.cpp:124] Setting up relu2
I0504 08:04:14.109148 20977 net.cpp:131] Top shape: 111 10 (1110)
I0504 08:04:14.109150 20977 net.cpp:139] Memory required for data: 33852780
I0504 08:04:14.109154 20977 layer_factory.hpp:77] Creating layer ip3
I0504 08:04:14.109160 20977 net.cpp:86] Creating Layer ip3
I0504 08:04:14.109163 20977 net.cpp:408] ip3 <- ip2
I0504 08:04:14.109169 20977 net.cpp:382] ip3 -> ip3
I0504 08:04:14.109267 20977 net.cpp:124] Setting up ip3
I0504 08:04:14.109274 20977 net.cpp:131] Top shape: 111 10 (1110)
I0504 08:04:14.109277 20977 net.cpp:139] Memory required for data: 33857220
I0504 08:04:14.109284 20977 layer_factory.hpp:77] Creating layer loss
I0504 08:04:14.109289 20977 net.cpp:86] Creating Layer loss
I0504 08:04:14.109292 20977 net.cpp:408] loss <- ip3
I0504 08:04:14.109297 20977 net.cpp:408] loss <- label
I0504 08:04:14.109302 20977 net.cpp:382] loss -> loss
I0504 08:04:14.109318 20977 layer_factory.hpp:77] Creating layer loss
…
I0504 08:04:14.110142 20977 solver.cpp:173] Creating test net (#0) specified by net file: ECE595/cifar/train_test/var_everything_tiny/cifar_train_test_93.prototxt
I0504 08:04:14.110188 20977 net.cpp:296] The NetState phase (1) differed from the phase (0) specified by a rule in layer cifar
I0504 08:04:14.110338 20977 net.cpp:53] Initializing net from parameters: 
name: "CIFAR"
state {
  phase: TEST
}
layer {
  name: "cifar"
  type: "Data"
  top: "data"
  top: "label"
  include {
    phase: TEST
  }
  transform_param {
    mean_file: "examples/cifar10/mean.binaryproto"
  }
  data_param {
    source: "examples/cifar10/cifar10_test_lmdb"
    batch_size: 1000
    backend: LMDB
  }
}
layer {
  name: "conv0"
  type: "Convolution"
  bottom: "data"
  top: "conv0"
  param {
    lr_mult: 1
  }
  param {
    lr_mult: 2
  }
  convolution_param {
    num_output: 24
    pad: 2
    kernel_size: 5
    stride: 1
    weight_filler {
      type: "gaussian"
      std: 0.01
    }
    bias_filler {
      type: "constant"
    }
  }
}
layer {
  name: "Sigmoid0"
  type: "Sigmoid"
  bottom: "conv0"
  top: "Sigmoid0"
}
layer {
  name: "pool0"
  type: "Pooling"
  bottom: "Sigmoid0"
  top: "pool0"
  pooling_param {
    pool: AVE
    kernel_size: 3
    stride: 2
  }
}
layer {
  name: "conv1"
  type: "Convolution"
  bottom: "pool0"
  top: "conv1"
  param {
    lr_mult: 1
  }
  param {
    lr_mult: 2
  }
  convolution_param {
    num_output: 24
    pad: 2
    kernel_size: 3
    stride: 1
    weight_filler {
      type: "gaussian"
      std: 0.01
    }
    bias_filler {
      type: "constant"
    }
  }
}
layer {
  name: "Sigmoid1"
  type: "Sigmoid"
  bottom: "conv1"
  top: "Sigmoid1"
}
layer {
  name: "pool1"
  type: "Pooling"
  bottom: "Sigmoid1"
  top: "pool1"
  pooling_param {
    pool: AVE
    kernel_size: 3
    stride: 2
  }
}
layer {
  name: "ip1"
  type: "InnerProduct"
  bottom: "pool1"
  top: "ip1"
  param {
    lr_mult: 1
  }
  param {
    lr_mult: 2
  }
  inner_product_param {
    num_output: 180
    weight_filler {
      type: "gaussian"
      std: 0.01
    }
    bias_filler {
      type: "constant"
    }
  }
}
layer {
  name: "relu1"
  type: "ReLU"
  bottom: "ip1"
  top: "ip1"
}
layer {
  name: "ip2"
  type: "InnerProduct"
  bottom: "ip1"
  top: "ip2"
  param {
    lr_mult: 1
  }
  param {
    lr_mult: 2
  }
  inner_product_param {
    num_output: 10
    weight_filler {
      type: "gaussian"
      std: 0.01
    }
    bias_filler {
      type: "constant"
    }
  }
}
layer {
  name: "relu2"
  type: "ReLU"
  bottom: "ip2"
  top: "ip2"
}
layer {
  name: "ip3"
  type: "InnerProduct"
  bottom: "ip2"
  top: "ip3"
  param {
    lr_mult: 1
  }
  param {
    lr_mult: 2
  }
  inner_product_param {
    num_output: 10
    weight_filler {
      type: "gaussian"
      std: 0.01
    }
    bias_filler {
      type: "constant"
    }
  }
}
layer {
  name: "accuracy"
  type: "Accuracy"
  bottom: "ip3"
  bottom: "label"
  top: "accuracy"
  include {
    phase: TEST
  }
}
layer {
  name: "loss"
  type: "SoftmaxWithLoss"
  bottom: "ip3"
  bottom: "label"
  top: "loss"
}
I0504 08:04:14.110417 20977 layer_factory.hpp:77] Creating layer cifar
I0504 08:04:14.110463 20977 db_lmdb.cpp:35] Opened lmdb examples/cifar10/cifar10_test_lmdb
I0504 08:04:14.110474 20977 net.cpp:86] Creating Layer cifar
I0504 08:04:14.110478 20977 net.cpp:382] cifar -> data
I0504 08:04:14.110486 20977 net.cpp:382] cifar -> label
I0504 08:04:14.110492 20977 data_transformer.cpp:25] Loading mean file from: examples/cifar10/mean.binaryproto
I0504 08:04:14.110631 20977 data_layer.cpp:45] output data size: 1000,3,32,32
I0504 08:04:14.132248 20977 net.cpp:124] Setting up cifar
I0504 08:04:14.132290 20977 net.cpp:131] Top shape: 1000 3 32 32 (3072000)
I0504 08:04:14.132295 20977 net.cpp:131] Top shape: 1000 (1000)
I0504 08:04:14.132299 20977 net.cpp:139] Memory required for data: 12292000
I0504 08:04:14.132304 20977 layer_factory.hpp:77] Creating layer label_cifar_1_split
I0504 08:04:14.132321 20977 net.cpp:86] Creating Layer label_cifar_1_split
I0504 08:04:14.132325 20977 net.cpp:408] label_cifar_1_split <- label
I0504 08:04:14.132331 20977 net.cpp:382] label_cifar_1_split -> label_cifar_1_split_0
I0504 08:04:14.132364 20977 net.cpp:382] label_cifar_1_split -> label_cifar_1_split_1
I0504 08:04:14.132496 20977 net.cpp:124] Setting up label_cifar_1_split
I0504 08:04:14.132503 20977 net.cpp:131] Top shape: 1000 (1000)
I0504 08:04:14.132508 20977 net.cpp:131] Top shape: 1000 (1000)
I0504 08:04:14.132509 20977 net.cpp:139] Memory required for data: 12300000
I0504 08:04:14.132513 20977 layer_factory.hpp:77] Creating layer conv0
I0504 08:04:14.132524 20977 net.cpp:86] Creating Layer conv0
I0504 08:04:14.132527 20977 net.cpp:408] conv0 <- data
I0504 08:04:14.132532 20977 net.cpp:382] conv0 -> conv0
I0504 08:04:14.134174 20977 net.cpp:124] Setting up conv0
I0504 08:04:14.134187 20977 net.cpp:131] Top shape: 1000 24 32 32 (24576000)
I0504 08:04:14.134191 20977 net.cpp:139] Memory required for data: 110604000
I0504 08:04:14.134201 20977 layer_factory.hpp:77] Creating layer Sigmoid0
I0504 08:04:14.134207 20977 net.cpp:86] Creating Layer Sigmoid0
I0504 08:04:14.134209 20977 net.cpp:408] Sigmoid0 <- conv0
I0504 08:04:14.134213 20977 net.cpp:382] Sigmoid0 -> Sigmoid0
I0504 08:04:14.134413 20977 net.cpp:124] Setting up Sigmoid0
I0504 08:04:14.134434 20977 net.cpp:131] Top shape: 1000 24 32 32 (24576000)
I0504 08:04:14.134438 20977 net.cpp:139] Memory required for data: 208908000
I0504 08:04:14.134440 20977 layer_factory.hpp:77] Creating layer pool0
I0504 08:04:14.134449 20977 net.cpp:86] Creating Layer pool0
I0504 08:04:14.134451 20977 net.cpp:408] pool0 <- Sigmoid0
I0504 08:04:14.134456 20977 net.cpp:382] pool0 -> pool0
I0504 08:04:14.134726 20977 net.cpp:124] Setting up pool0
I0504 08:04:14.134734 20977 net.cpp:131] Top shape: 1000 24 16 16 (6144000)
I0504 08:04:14.134737 20977 net.cpp:139] Memory required for data: 233484000
I0504 08:04:14.134740 20977 layer_factory.hpp:77] Creating layer conv1
I0504 08:04:14.134748 20977 net.cpp:86] Creating Layer conv1
I0504 08:04:14.134752 20977 net.cpp:408] conv1 <- pool0
I0504 08:04:14.134757 20977 net.cpp:382] conv1 -> conv1
I0504 08:04:14.137107 20977 net.cpp:124] Setting up conv1
I0504 08:04:14.137121 20977 net.cpp:131] Top shape: 1000 24 18 18 (7776000)
I0504 08:04:14.137125 20977 net.cpp:139] Memory required for data: 264588000
I0504 08:04:14.137133 20977 layer_factory.hpp:77] Creating layer Sigmoid1
I0504 08:04:14.137140 20977 net.cpp:86] Creating Layer Sigmoid1
I0504 08:04:14.137142 20977 net.cpp:408] Sigmoid1 <- conv1
I0504 08:04:14.137147 20977 net.cpp:382] Sigmoid1 -> Sigmoid1
I0504 08:04:14.137323 20977 net.cpp:124] Setting up Sigmoid1
I0504 08:04:14.137333 20977 net.cpp:131] Top shape: 1000 24 18 18 (7776000)
I0504 08:04:14.137336 20977 net.cpp:139] Memory required for data: 295692000
I0504 08:04:14.137339 20977 layer_factory.hpp:77] Creating layer pool1
I0504 08:04:14.137346 20977 net.cpp:86] Creating Layer pool1
I0504 08:04:14.137348 20977 net.cpp:408] pool1 <- Sigmoid1
I0504 08:04:14.137352 20977 net.cpp:382] pool1 -> pool1
I0504 08:04:14.138103 20977 net.cpp:124] Setting up pool1
I0504 08:04:14.138115 20977 net.cpp:131] Top shape: 1000 24 9 9 (1944000)
I0504 08:04:14.138119 20977 net.cpp:139] Memory required for data: 303468000
I0504 08:04:14.138123 20977 layer_factory.hpp:77] Creating layer ip1
I0504 08:04:14.138130 20977 net.cpp:86] Creating Layer ip1
I0504 08:04:14.138134 20977 net.cpp:408] ip1 <- pool1
I0504 08:04:14.138139 20977 net.cpp:382] ip1 -> ip1
I0504 08:04:14.148089 20977 net.cpp:124] Setting up ip1
I0504 08:04:14.148102 20977 net.cpp:131] Top shape: 1000 180 (180000)
I0504 08:04:14.148104 20977 net.cpp:139] Memory required for data: 304188000
I0504 08:04:14.148113 20977 layer_factory.hpp:77] Creating layer relu1
I0504 08:04:14.148118 20977 net.cpp:86] Creating Layer relu1
I0504 08:04:14.148121 20977 net.cpp:408] relu1 <- ip1
I0504 08:04:14.148125 20977 net.cpp:369] relu1 -> ip1 (in-place)
I0504 08:04:14.148299 20977 net.cpp:124] Setting up relu1
I0504 08:04:14.148308 20977 net.cpp:131] Top shape: 1000 180 (180000)
I0504 08:04:14.148310 20977 net.cpp:139] Memory required for data: 304908000
I0504 08:04:14.148313 20977 layer_factory.hpp:77] Creating layer ip2
I0504 08:04:14.148320 20977 net.cpp:86] Creating Layer ip2
I0504 08:04:14.148324 20977 net.cpp:408] ip2 <- ip1
I0504 08:04:14.148329 20977 net.cpp:382] ip2 -> ip2
I0504 08:04:14.148476 20977 net.cpp:124] Setting up ip2
I0504 08:04:14.148483 20977 net.cpp:131] Top shape: 1000 10 (10000)
I0504 08:04:14.148485 20977 net.cpp:139] Memory required for data: 304948000
I0504 08:04:14.148491 20977 layer_factory.hpp:77] Creating layer relu2
I0504 08:04:14.148496 20977 net.cpp:86] Creating Layer relu2
I0504 08:04:14.148499 20977 net.cpp:408] relu2 <- ip2
I0504 08:04:14.148504 20977 net.cpp:369] relu2 -> ip2 (in-place)
I0504 08:04:14.148710 20977 net.cpp:124] Setting up relu2
I0504 08:04:14.148720 20977 net.cpp:131] Top shape: 1000 10 (10000)
I0504 08:04:14.148723 20977 net.cpp:139] Memory required for data: 304988000
I0504 08:04:14.148727 20977 layer_factory.hpp:77] Creating layer ip3
I0504 08:04:14.148735 20977 net.cpp:86] Creating Layer ip3
I0504 08:04:14.148737 20977 net.cpp:408] ip3 <- ip2
I0504 08:04:14.148742 20977 net.cpp:382] ip3 -> ip3
I0504 08:04:14.148877 20977 net.cpp:124] Setting up ip3
I0504 08:04:14.148885 20977 net.cpp:131] Top shape: 1000 10 (10000)
I0504 08:04:14.148900 20977 net.cpp:139] Memory required for data: 305028000
I0504 08:04:14.148910 20977 layer_factory.hpp:77] Creating layer ip3_ip3_0_split
I0504 08:04:14.148916 20977 net.cpp:86] Creating Layer ip3_ip3_0_split
I0504 08:04:14.148919 20977 net.cpp:408] ip3_ip3_0_split <- ip3
I0504 08:04:14.148924 20977 net.cpp:382] ip3_ip3_0_split -> ip3_ip3_0_split_0
I0504 08:04:14.148931 20977 net.cpp:382] ip3_ip3_0_split -> ip3_ip3_0_split_1
I0504 08:04:14.148964 20977 net.cpp:124] Setting up ip3_ip3_0_split
I0504 08:04:14.148972 20977 net.cpp:131] Top shape: 1000 10 (10000)
I0504 08:04:14.148977 20977 net.cpp:131] Top shape: 1000 10 (10000)
I0504 08:04:14.148980 20977 net.cpp:139] Memory required for data: 305108000
I0504 08:04:14.148983 20977 layer_factory.hpp:77] Creating layer accuracy
I0504 08:04:14.148989 20977 net.cpp:86] Creating Layer accuracy
I0504 08:04:14.148993 20977 net.cpp:408] accuracy <- ip3_ip3_0_split_0
I0504 08:04:14.148996 20977 net.cpp:408] accuracy <- label_cifar_1_split_0
I0504 08:04:14.149001 20977 net.cpp:382] accuracy -> accuracy
…
