…
I0504 10:34:49.474392 25605 net.cpp:296] The NetState phase (0) differed from the phase (1) specified by a rule in layer cifar
I0504 10:34:49.474411 25605 net.cpp:296] The NetState phase (0) differed from the phase (1) specified by a rule in layer accuracy
I0504 10:34:49.474522 25605 net.cpp:53] Initializing net from parameters: 
name: "CIFAR"
state {
  phase: TRAIN
  level: 0
  stage: ""
}
layer {
  name: "cifar"
  type: "Data"
  top: "data"
  top: "label"
  include {
    phase: TRAIN
  }
  transform_param {
    mean_file: "examples/cifar10/mean.binaryproto"
  }
  data_param {
    source: "examples/cifar10/cifar10_train_lmdb"
    batch_size: 111
    backend: LMDB
  }
}
layer {
  name: "conv0"
  type: "Convolution"
  bottom: "data"
  top: "conv0"
  param {
    lr_mult: 1
  }
  param {
    lr_mult: 2
  }
  convolution_param {
    num_output: 24
    pad: 2
    kernel_size: 5
    stride: 1
    weight_filler {
      type: "gaussian"
      std: 0.01
    }
    bias_filler {
      type: "constant"
    }
  }
}
layer {
  name: "Sigmoid0"
  type: "Sigmoid"
  bottom: "conv0"
  top: "Sigmoid0"
}
layer {
  name: "pool0"
  type: "Pooling"
  bottom: "Sigmoid0"
  top: "pool0"
  pooling_param {
    pool: AVE
    kernel_size: 3
    stride: 2
  }
}
layer {
  name: "conv1"
  type: "Convolution"
  bottom: "pool0"
  top: "conv1"
  param {
    lr_mult: 1
  }
  param {
    lr_mult: 2
  }
  convolution_param {
    num_output: 72
    pad: 2
    kernel_size: 5
    stride: 1
    weight_filler {
      type: "gaussian"
      std: 0.01
    }
    bias_filler {
      type: "constant"
    }
  }
}
layer {
  name: "Sigmoid1"
  type: "Sigmoid"
  bottom: "conv1"
  top: "Sigmoid1"
}
layer {
  name: "pool1"
  type: "Pooling"
  bottom: "Sigmoid1"
  top: "pool1"
  pooling_param {
    pool: AVE
    kernel_size: 3
    stride: 2
  }
}
layer {
  name: "ip1"
  type: "InnerProduct"
  bottom: "pool1"
  top: "ip1"
  param {
    lr_mult: 1
  }
  param {
    lr_mult: 2
  }
  inner_product_param {
    num_output: 10
    weight_filler {
      type: "gaussian"
      std: 0.01
    }
    bias_filler {
      type: "constant"
    }
  }
}
layer {
  name: "relu1"
  type: "ReLU"
  bottom: "ip1"
  top: "ip1"
}
layer {
  name: "ip2"
  type: "InnerProduct"
  bottom: "ip1"
  top: "ip2"
  param {
    lr_mult: 1
  }
  param {
    lr_mult: 2
  }
  inner_product_param {
    num_output: 60
    weight_filler {
      type: "gaussian"
      std: 0.01
    }
    bias_filler {
      type: "constant"
    }
  }
}
layer {
  name: "relu2"
  type: "ReLU"
  bottom: "ip2"
  top: "ip2"
}
layer {
  name: "ip3"
  type: "InnerProduct"
  bottom: "ip2"
  top: "ip3"
  param {
    lr_mult: 1
  }
  param {
    lr_mult: 2
  }
  inner_product_param {
    num_output: 10
    weight_filler {
      type: "gaussian"
      std: 0.01
    }
    bias_filler {
      type: "constant"
    }
  }
}
layer {
  name: "loss"
  type: "SoftmaxWithLoss"
  bottom: "ip3"
  bottom: "label"
  top: "loss"
}
I0504 10:34:49.474606 25605 layer_factory.hpp:77] Creating layer cifar
I0504 10:34:49.474702 25605 db_lmdb.cpp:35] Opened lmdb examples/cifar10/cifar10_train_lmdb
I0504 10:34:49.474727 25605 net.cpp:86] Creating Layer cifar
I0504 10:34:49.474736 25605 net.cpp:382] cifar -> data
I0504 10:34:49.474758 25605 net.cpp:382] cifar -> label
I0504 10:34:49.474771 25605 data_transformer.cpp:25] Loading mean file from: examples/cifar10/mean.binaryproto
I0504 10:34:49.476928 25605 data_layer.cpp:45] output data size: 111,3,32,32
I0504 10:34:49.484926 25605 net.cpp:124] Setting up cifar
I0504 10:34:49.484959 25605 net.cpp:131] Top shape: 111 3 32 32 (340992)
I0504 10:34:49.484966 25605 net.cpp:131] Top shape: 111 (111)
I0504 10:34:49.484968 25605 net.cpp:139] Memory required for data: 1364412
I0504 10:34:49.484977 25605 layer_factory.hpp:77] Creating layer conv0
I0504 10:34:49.484997 25605 net.cpp:86] Creating Layer conv0
I0504 10:34:49.485002 25605 net.cpp:408] conv0 <- data
I0504 10:34:49.485024 25605 net.cpp:382] conv0 -> conv0
I0504 10:34:49.773056 25605 net.cpp:124] Setting up conv0
I0504 10:34:49.773085 25605 net.cpp:131] Top shape: 111 24 32 32 (2727936)
I0504 10:34:49.773089 25605 net.cpp:139] Memory required for data: 12276156
I0504 10:34:49.773105 25605 layer_factory.hpp:77] Creating layer Sigmoid0
I0504 10:34:49.773120 25605 net.cpp:86] Creating Layer Sigmoid0
I0504 10:34:49.773124 25605 net.cpp:408] Sigmoid0 <- conv0
I0504 10:34:49.773130 25605 net.cpp:382] Sigmoid0 -> Sigmoid0
I0504 10:34:49.773324 25605 net.cpp:124] Setting up Sigmoid0
I0504 10:34:49.773334 25605 net.cpp:131] Top shape: 111 24 32 32 (2727936)
I0504 10:34:49.773337 25605 net.cpp:139] Memory required for data: 23187900
I0504 10:34:49.773341 25605 layer_factory.hpp:77] Creating layer pool0
I0504 10:34:49.773349 25605 net.cpp:86] Creating Layer pool0
I0504 10:34:49.773352 25605 net.cpp:408] pool0 <- Sigmoid0
I0504 10:34:49.773356 25605 net.cpp:382] pool0 -> pool0
I0504 10:34:49.774154 25605 net.cpp:124] Setting up pool0
I0504 10:34:49.774168 25605 net.cpp:131] Top shape: 111 24 16 16 (681984)
I0504 10:34:49.774173 25605 net.cpp:139] Memory required for data: 25915836
I0504 10:34:49.774176 25605 layer_factory.hpp:77] Creating layer conv1
I0504 10:34:49.774190 25605 net.cpp:86] Creating Layer conv1
I0504 10:34:49.774194 25605 net.cpp:408] conv1 <- pool0
I0504 10:34:49.774199 25605 net.cpp:382] conv1 -> conv1
I0504 10:34:49.778251 25605 net.cpp:124] Setting up conv1
I0504 10:34:49.778266 25605 net.cpp:131] Top shape: 111 72 16 16 (2045952)
I0504 10:34:49.778270 25605 net.cpp:139] Memory required for data: 34099644
I0504 10:34:49.778280 25605 layer_factory.hpp:77] Creating layer Sigmoid1
I0504 10:34:49.778286 25605 net.cpp:86] Creating Layer Sigmoid1
I0504 10:34:49.778290 25605 net.cpp:408] Sigmoid1 <- conv1
I0504 10:34:49.778295 25605 net.cpp:382] Sigmoid1 -> Sigmoid1
I0504 10:34:49.778481 25605 net.cpp:124] Setting up Sigmoid1
I0504 10:34:49.778492 25605 net.cpp:131] Top shape: 111 72 16 16 (2045952)
I0504 10:34:49.778496 25605 net.cpp:139] Memory required for data: 42283452
I0504 10:34:49.778499 25605 layer_factory.hpp:77] Creating layer pool1
I0504 10:34:49.778506 25605 net.cpp:86] Creating Layer pool1
I0504 10:34:49.778508 25605 net.cpp:408] pool1 <- Sigmoid1
I0504 10:34:49.778514 25605 net.cpp:382] pool1 -> pool1
I0504 10:34:49.778693 25605 net.cpp:124] Setting up pool1
I0504 10:34:49.778704 25605 net.cpp:131] Top shape: 111 72 8 8 (511488)
I0504 10:34:49.778707 25605 net.cpp:139] Memory required for data: 44329404
I0504 10:34:49.778710 25605 layer_factory.hpp:77] Creating layer ip1
I0504 10:34:49.778718 25605 net.cpp:86] Creating Layer ip1
I0504 10:34:49.778722 25605 net.cpp:408] ip1 <- pool1
I0504 10:34:49.778728 25605 net.cpp:382] ip1 -> ip1
I0504 10:34:49.780135 25605 net.cpp:124] Setting up ip1
I0504 10:34:49.780143 25605 net.cpp:131] Top shape: 111 10 (1110)
I0504 10:34:49.780146 25605 net.cpp:139] Memory required for data: 44333844
I0504 10:34:49.780154 25605 layer_factory.hpp:77] Creating layer relu1
I0504 10:34:49.780163 25605 net.cpp:86] Creating Layer relu1
I0504 10:34:49.780165 25605 net.cpp:408] relu1 <- ip1
I0504 10:34:49.780170 25605 net.cpp:369] relu1 -> ip1 (in-place)
I0504 10:34:49.780333 25605 net.cpp:124] Setting up relu1
I0504 10:34:49.780341 25605 net.cpp:131] Top shape: 111 10 (1110)
I0504 10:34:49.780344 25605 net.cpp:139] Memory required for data: 44338284
I0504 10:34:49.780347 25605 layer_factory.hpp:77] Creating layer ip2
I0504 10:34:49.780354 25605 net.cpp:86] Creating Layer ip2
I0504 10:34:49.780359 25605 net.cpp:408] ip2 <- ip1
I0504 10:34:49.780377 25605 net.cpp:382] ip2 -> ip2
I0504 10:34:49.780505 25605 net.cpp:124] Setting up ip2
I0504 10:34:49.780514 25605 net.cpp:131] Top shape: 111 60 (6660)
I0504 10:34:49.780516 25605 net.cpp:139] Memory required for data: 44364924
I0504 10:34:49.780522 25605 layer_factory.hpp:77] Creating layer relu2
I0504 10:34:49.780527 25605 net.cpp:86] Creating Layer relu2
I0504 10:34:49.780530 25605 net.cpp:408] relu2 <- ip2
I0504 10:34:49.780534 25605 net.cpp:369] relu2 -> ip2 (in-place)
I0504 10:34:49.781307 25605 net.cpp:124] Setting up relu2
I0504 10:34:49.781321 25605 net.cpp:131] Top shape: 111 60 (6660)
I0504 10:34:49.781324 25605 net.cpp:139] Memory required for data: 44391564
I0504 10:34:49.781327 25605 layer_factory.hpp:77] Creating layer ip3
I0504 10:34:49.781335 25605 net.cpp:86] Creating Layer ip3
I0504 10:34:49.781339 25605 net.cpp:408] ip3 <- ip2
I0504 10:34:49.781347 25605 net.cpp:382] ip3 -> ip3
I0504 10:34:49.781477 25605 net.cpp:124] Setting up ip3
I0504 10:34:49.781486 25605 net.cpp:131] Top shape: 111 10 (1110)
I0504 10:34:49.781488 25605 net.cpp:139] Memory required for data: 44396004
I0504 10:34:49.781497 25605 layer_factory.hpp:77] Creating layer loss
I0504 10:34:49.781502 25605 net.cpp:86] Creating Layer loss
I0504 10:34:49.781505 25605 net.cpp:408] loss <- ip3
I0504 10:34:49.781509 25605 net.cpp:408] loss <- label
I0504 10:34:49.781515 25605 net.cpp:382] loss -> loss
I0504 10:34:49.781532 25605 layer_factory.hpp:77] Creating layer loss
…
I0504 10:34:49.782208 25605 solver.cpp:173] Creating test net (#0) specified by net file: ECE595/cifar/train_test/var_everything_tiny/cifar_train_test_136.prototxt
I0504 10:34:49.782235 25605 net.cpp:296] The NetState phase (1) differed from the phase (0) specified by a rule in layer cifar
I0504 10:34:49.782340 25605 net.cpp:53] Initializing net from parameters: 
name: "CIFAR"
state {
  phase: TEST
}
layer {
  name: "cifar"
  type: "Data"
  top: "data"
  top: "label"
  include {
    phase: TEST
  }
  transform_param {
    mean_file: "examples/cifar10/mean.binaryproto"
  }
  data_param {
    source: "examples/cifar10/cifar10_test_lmdb"
    batch_size: 1000
    backend: LMDB
  }
}
layer {
  name: "conv0"
  type: "Convolution"
  bottom: "data"
  top: "conv0"
  param {
    lr_mult: 1
  }
  param {
    lr_mult: 2
  }
  convolution_param {
    num_output: 24
    pad: 2
    kernel_size: 5
    stride: 1
    weight_filler {
      type: "gaussian"
      std: 0.01
    }
    bias_filler {
      type: "constant"
    }
  }
}
layer {
  name: "Sigmoid0"
  type: "Sigmoid"
  bottom: "conv0"
  top: "Sigmoid0"
}
layer {
  name: "pool0"
  type: "Pooling"
  bottom: "Sigmoid0"
  top: "pool0"
  pooling_param {
    pool: AVE
    kernel_size: 3
    stride: 2
  }
}
layer {
  name: "conv1"
  type: "Convolution"
  bottom: "pool0"
  top: "conv1"
  param {
    lr_mult: 1
  }
  param {
    lr_mult: 2
  }
  convolution_param {
    num_output: 72
    pad: 2
    kernel_size: 5
    stride: 1
    weight_filler {
      type: "gaussian"
      std: 0.01
    }
    bias_filler {
      type: "constant"
    }
  }
}
layer {
  name: "Sigmoid1"
  type: "Sigmoid"
  bottom: "conv1"
  top: "Sigmoid1"
}
layer {
  name: "pool1"
  type: "Pooling"
  bottom: "Sigmoid1"
  top: "pool1"
  pooling_param {
    pool: AVE
    kernel_size: 3
    stride: 2
  }
}
layer {
  name: "ip1"
  type: "InnerProduct"
  bottom: "pool1"
  top: "ip1"
  param {
    lr_mult: 1
  }
  param {
    lr_mult: 2
  }
  inner_product_param {
    num_output: 10
    weight_filler {
      type: "gaussian"
      std: 0.01
    }
    bias_filler {
      type: "constant"
    }
  }
}
layer {
  name: "relu1"
  type: "ReLU"
  bottom: "ip1"
  top: "ip1"
}
layer {
  name: "ip2"
  type: "InnerProduct"
  bottom: "ip1"
  top: "ip2"
  param {
    lr_mult: 1
  }
  param {
    lr_mult: 2
  }
  inner_product_param {
    num_output: 60
    weight_filler {
      type: "gaussian"
      std: 0.01
    }
    bias_filler {
      type: "constant"
    }
  }
}
layer {
  name: "relu2"
  type: "ReLU"
  bottom: "ip2"
  top: "ip2"
}
layer {
  name: "ip3"
  type: "InnerProduct"
  bottom: "ip2"
  top: "ip3"
  param {
    lr_mult: 1
  }
  param {
    lr_mult: 2
  }
  inner_product_param {
    num_output: 10
    weight_filler {
      type: "gaussian"
      std: 0.01
    }
    bias_filler {
      type: "constant"
    }
  }
}
layer {
  name: "accuracy"
  type: "Accuracy"
  bottom: "ip3"
  bottom: "label"
  top: "accuracy"
  include {
    phase: TEST
  }
}
layer {
  name: "loss"
  type: "SoftmaxWithLoss"
  bottom: "ip3"
  bottom: "label"
  top: "loss"
}
I0504 10:34:49.782428 25605 layer_factory.hpp:77] Creating layer cifar
I0504 10:34:49.782474 25605 db_lmdb.cpp:35] Opened lmdb examples/cifar10/cifar10_test_lmdb
I0504 10:34:49.782486 25605 net.cpp:86] Creating Layer cifar
I0504 10:34:49.782490 25605 net.cpp:382] cifar -> data
I0504 10:34:49.782500 25605 net.cpp:382] cifar -> label
I0504 10:34:49.782507 25605 data_transformer.cpp:25] Loading mean file from: examples/cifar10/mean.binaryproto
I0504 10:34:49.782660 25605 data_layer.cpp:45] output data size: 1000,3,32,32
I0504 10:34:49.804940 25605 net.cpp:124] Setting up cifar
I0504 10:34:49.804985 25605 net.cpp:131] Top shape: 1000 3 32 32 (3072000)
I0504 10:34:49.804991 25605 net.cpp:131] Top shape: 1000 (1000)
I0504 10:34:49.804993 25605 net.cpp:139] Memory required for data: 12292000
I0504 10:34:49.804999 25605 layer_factory.hpp:77] Creating layer label_cifar_1_split
I0504 10:34:49.805032 25605 net.cpp:86] Creating Layer label_cifar_1_split
I0504 10:34:49.805037 25605 net.cpp:408] label_cifar_1_split <- label
I0504 10:34:49.805043 25605 net.cpp:382] label_cifar_1_split -> label_cifar_1_split_0
I0504 10:34:49.805052 25605 net.cpp:382] label_cifar_1_split -> label_cifar_1_split_1
I0504 10:34:49.805155 25605 net.cpp:124] Setting up label_cifar_1_split
I0504 10:34:49.805163 25605 net.cpp:131] Top shape: 1000 (1000)
I0504 10:34:49.805166 25605 net.cpp:131] Top shape: 1000 (1000)
I0504 10:34:49.805169 25605 net.cpp:139] Memory required for data: 12300000
I0504 10:34:49.805172 25605 layer_factory.hpp:77] Creating layer conv0
I0504 10:34:49.805186 25605 net.cpp:86] Creating Layer conv0
I0504 10:34:49.805189 25605 net.cpp:408] conv0 <- data
I0504 10:34:49.805196 25605 net.cpp:382] conv0 -> conv0
I0504 10:34:49.807664 25605 net.cpp:124] Setting up conv0
I0504 10:34:49.807679 25605 net.cpp:131] Top shape: 1000 24 32 32 (24576000)
I0504 10:34:49.807694 25605 net.cpp:139] Memory required for data: 110604000
I0504 10:34:49.807705 25605 layer_factory.hpp:77] Creating layer Sigmoid0
I0504 10:34:49.807713 25605 net.cpp:86] Creating Layer Sigmoid0
I0504 10:34:49.807715 25605 net.cpp:408] Sigmoid0 <- conv0
I0504 10:34:49.807720 25605 net.cpp:382] Sigmoid0 -> Sigmoid0
I0504 10:34:49.807934 25605 net.cpp:124] Setting up Sigmoid0
I0504 10:34:49.807957 25605 net.cpp:131] Top shape: 1000 24 32 32 (24576000)
I0504 10:34:49.807960 25605 net.cpp:139] Memory required for data: 208908000
I0504 10:34:49.807963 25605 layer_factory.hpp:77] Creating layer pool0
I0504 10:34:49.807972 25605 net.cpp:86] Creating Layer pool0
I0504 10:34:49.807976 25605 net.cpp:408] pool0 <- Sigmoid0
I0504 10:34:49.807981 25605 net.cpp:382] pool0 -> pool0
I0504 10:34:49.808151 25605 net.cpp:124] Setting up pool0
I0504 10:34:49.808159 25605 net.cpp:131] Top shape: 1000 24 16 16 (6144000)
I0504 10:34:49.808162 25605 net.cpp:139] Memory required for data: 233484000
I0504 10:34:49.808166 25605 layer_factory.hpp:77] Creating layer conv1
I0504 10:34:49.808174 25605 net.cpp:86] Creating Layer conv1
I0504 10:34:49.808178 25605 net.cpp:408] conv1 <- pool0
I0504 10:34:49.808184 25605 net.cpp:382] conv1 -> conv1
I0504 10:34:49.810672 25605 net.cpp:124] Setting up conv1
I0504 10:34:49.810686 25605 net.cpp:131] Top shape: 1000 72 16 16 (18432000)
I0504 10:34:49.810704 25605 net.cpp:139] Memory required for data: 307212000
I0504 10:34:49.810714 25605 layer_factory.hpp:77] Creating layer Sigmoid1
I0504 10:34:49.810721 25605 net.cpp:86] Creating Layer Sigmoid1
I0504 10:34:49.810725 25605 net.cpp:408] Sigmoid1 <- conv1
I0504 10:34:49.810729 25605 net.cpp:382] Sigmoid1 -> Sigmoid1
I0504 10:34:49.810937 25605 net.cpp:124] Setting up Sigmoid1
I0504 10:34:49.810948 25605 net.cpp:131] Top shape: 1000 72 16 16 (18432000)
I0504 10:34:49.810952 25605 net.cpp:139] Memory required for data: 380940000
I0504 10:34:49.810956 25605 layer_factory.hpp:77] Creating layer pool1
I0504 10:34:49.810961 25605 net.cpp:86] Creating Layer pool1
I0504 10:34:49.810963 25605 net.cpp:408] pool1 <- Sigmoid1
I0504 10:34:49.810967 25605 net.cpp:382] pool1 -> pool1
I0504 10:34:49.811691 25605 net.cpp:124] Setting up pool1
I0504 10:34:49.811703 25605 net.cpp:131] Top shape: 1000 72 8 8 (4608000)
I0504 10:34:49.811707 25605 net.cpp:139] Memory required for data: 399372000
I0504 10:34:49.811709 25605 layer_factory.hpp:77] Creating layer ip1
I0504 10:34:49.811718 25605 net.cpp:86] Creating Layer ip1
I0504 10:34:49.811722 25605 net.cpp:408] ip1 <- pool1
I0504 10:34:49.811728 25605 net.cpp:382] ip1 -> ip1
I0504 10:34:49.813194 25605 net.cpp:124] Setting up ip1
I0504 10:34:49.813204 25605 net.cpp:131] Top shape: 1000 10 (10000)
I0504 10:34:49.813222 25605 net.cpp:139] Memory required for data: 399412000
I0504 10:34:49.813230 25605 layer_factory.hpp:77] Creating layer relu1
I0504 10:34:49.813252 25605 net.cpp:86] Creating Layer relu1
I0504 10:34:49.813256 25605 net.cpp:408] relu1 <- ip1
I0504 10:34:49.813261 25605 net.cpp:369] relu1 -> ip1 (in-place)
I0504 10:34:49.813447 25605 net.cpp:124] Setting up relu1
I0504 10:34:49.813457 25605 net.cpp:131] Top shape: 1000 10 (10000)
I0504 10:34:49.813459 25605 net.cpp:139] Memory required for data: 399452000
I0504 10:34:49.813462 25605 layer_factory.hpp:77] Creating layer ip2
I0504 10:34:49.813469 25605 net.cpp:86] Creating Layer ip2
I0504 10:34:49.813472 25605 net.cpp:408] ip2 <- ip1
I0504 10:34:49.813477 25605 net.cpp:382] ip2 -> ip2
I0504 10:34:49.813603 25605 net.cpp:124] Setting up ip2
I0504 10:34:49.813611 25605 net.cpp:131] Top shape: 1000 60 (60000)
I0504 10:34:49.813614 25605 net.cpp:139] Memory required for data: 399692000
I0504 10:34:49.813619 25605 layer_factory.hpp:77] Creating layer relu2
I0504 10:34:49.813629 25605 net.cpp:86] Creating Layer relu2
I0504 10:34:49.813632 25605 net.cpp:408] relu2 <- ip2
I0504 10:34:49.813635 25605 net.cpp:369] relu2 -> ip2 (in-place)
I0504 10:34:49.813802 25605 net.cpp:124] Setting up relu2
I0504 10:34:49.813810 25605 net.cpp:131] Top shape: 1000 60 (60000)
I0504 10:34:49.813813 25605 net.cpp:139] Memory required for data: 399932000
I0504 10:34:49.813817 25605 layer_factory.hpp:77] Creating layer ip3
I0504 10:34:49.813823 25605 net.cpp:86] Creating Layer ip3
I0504 10:34:49.813827 25605 net.cpp:408] ip3 <- ip2
I0504 10:34:49.813833 25605 net.cpp:382] ip3 -> ip3
I0504 10:34:49.813951 25605 net.cpp:124] Setting up ip3
I0504 10:34:49.813958 25605 net.cpp:131] Top shape: 1000 10 (10000)
I0504 10:34:49.813971 25605 net.cpp:139] Memory required for data: 399972000
I0504 10:34:49.813979 25605 layer_factory.hpp:77] Creating layer ip3_ip3_0_split
I0504 10:34:49.813985 25605 net.cpp:86] Creating Layer ip3_ip3_0_split
I0504 10:34:49.813989 25605 net.cpp:408] ip3_ip3_0_split <- ip3
I0504 10:34:49.813993 25605 net.cpp:382] ip3_ip3_0_split -> ip3_ip3_0_split_0
I0504 10:34:49.813998 25605 net.cpp:382] ip3_ip3_0_split -> ip3_ip3_0_split_1
I0504 10:34:49.814049 25605 net.cpp:124] Setting up ip3_ip3_0_split
I0504 10:34:49.814055 25605 net.cpp:131] Top shape: 1000 10 (10000)
I0504 10:34:49.814059 25605 net.cpp:131] Top shape: 1000 10 (10000)
I0504 10:34:49.814062 25605 net.cpp:139] Memory required for data: 400052000
I0504 10:34:49.814064 25605 layer_factory.hpp:77] Creating layer accuracy
I0504 10:34:49.814069 25605 net.cpp:86] Creating Layer accuracy
I0504 10:34:49.814072 25605 net.cpp:408] accuracy <- ip3_ip3_0_split_0
I0504 10:34:49.814076 25605 net.cpp:408] accuracy <- label_cifar_1_split_0
I0504 10:34:49.814081 25605 net.cpp:382] accuracy -> accuracy
…
