…
I0504 00:23:26.095726  5273 net.cpp:296] The NetState phase (0) differed from the phase (1) specified by a rule in layer cifar
I0504 00:23:26.095741  5273 net.cpp:296] The NetState phase (0) differed from the phase (1) specified by a rule in layer accuracy
I0504 00:23:26.095834  5273 net.cpp:53] Initializing net from parameters: 
name: "CIFAR"
state {
  phase: TRAIN
  level: 0
  stage: ""
}
layer {
  name: "cifar"
  type: "Data"
  top: "data"
  top: "label"
  include {
    phase: TRAIN
  }
  transform_param {
    mean_file: "examples/cifar10/mean.binaryproto"
  }
  data_param {
    source: "examples/cifar10/cifar10_train_lmdb"
    batch_size: 111
    backend: LMDB
  }
}
layer {
  name: "conv0"
  type: "Convolution"
  bottom: "data"
  top: "conv0"
  param {
    lr_mult: 1
  }
  param {
    lr_mult: 2
  }
  convolution_param {
    num_output: 24
    pad: 2
    kernel_size: 5
    stride: 1
    weight_filler {
      type: "gaussian"
      std: 0.01
    }
    bias_filler {
      type: "constant"
    }
  }
}
layer {
  name: "Sigmoid0"
  type: "Sigmoid"
  bottom: "conv0"
  top: "Sigmoid0"
}
layer {
  name: "pool0"
  type: "Pooling"
  bottom: "Sigmoid0"
  top: "pool0"
  pooling_param {
    pool: AVE
    kernel_size: 3
    stride: 2
  }
}
layer {
  name: "ip1"
  type: "InnerProduct"
  bottom: "pool0"
  top: "ip1"
  param {
    lr_mult: 1
  }
  param {
    lr_mult: 2
  }
  inner_product_param {
    num_output: 10
    weight_filler {
      type: "gaussian"
      std: 0.01
    }
    bias_filler {
      type: "constant"
    }
  }
}
layer {
  name: "relu1"
  type: "ReLU"
  bottom: "ip1"
  top: "ip1"
}
layer {
  name: "ip2"
  type: "InnerProduct"
  bottom: "ip1"
  top: "ip2"
  param {
    lr_mult: 1
  }
  param {
    lr_mult: 2
  }
  inner_product_param {
    num_output: 180
    weight_filler {
      type: "gaussian"
      std: 0.01
    }
    bias_filler {
      type: "constant"
    }
  }
}
layer {
  name: "relu2"
  type: "ReLU"
  bottom: "ip2"
  top: "ip2"
}
layer {
  name: "ip3"
  type: "InnerProduct"
  bottom: "ip2"
  top: "ip3"
  param {
    lr_mult: 1
  }
  param {
    lr_mult: 2
  }
  inner_product_param {
    num_output: 10
    weight_filler {
      type: "gaussian"
      std: 0.01
    }
    bias_filler {
      type: "constant"
    }
  }
}
layer {
  name: "loss"
  type: "SoftmaxWithLoss"
  bottom: "ip3"
  bottom: "label"
  top: "loss"
}
I0504 00:23:26.095914  5273 layer_factory.hpp:77] Creating layer cifar
I0504 00:23:26.096019  5273 db_lmdb.cpp:35] Opened lmdb examples/cifar10/cifar10_train_lmdb
I0504 00:23:26.096050  5273 net.cpp:86] Creating Layer cifar
I0504 00:23:26.096058  5273 net.cpp:382] cifar -> data
I0504 00:23:26.096081  5273 net.cpp:382] cifar -> label
I0504 00:23:26.096094  5273 data_transformer.cpp:25] Loading mean file from: examples/cifar10/mean.binaryproto
I0504 00:23:26.098206  5273 data_layer.cpp:45] output data size: 111,3,32,32
I0504 00:23:26.106068  5273 net.cpp:124] Setting up cifar
I0504 00:23:26.106087  5273 net.cpp:131] Top shape: 111 3 32 32 (340992)
I0504 00:23:26.106096  5273 net.cpp:131] Top shape: 111 (111)
I0504 00:23:26.106099  5273 net.cpp:139] Memory required for data: 1364412
I0504 00:23:26.106106  5273 layer_factory.hpp:77] Creating layer conv0
I0504 00:23:26.106123  5273 net.cpp:86] Creating Layer conv0
I0504 00:23:26.106129  5273 net.cpp:408] conv0 <- data
I0504 00:23:26.106143  5273 net.cpp:382] conv0 -> conv0
I0504 00:23:26.390856  5273 net.cpp:124] Setting up conv0
I0504 00:23:26.390902  5273 net.cpp:131] Top shape: 111 24 32 32 (2727936)
I0504 00:23:26.390908  5273 net.cpp:139] Memory required for data: 12276156
I0504 00:23:26.390921  5273 layer_factory.hpp:77] Creating layer Sigmoid0
I0504 00:23:26.390933  5273 net.cpp:86] Creating Layer Sigmoid0
I0504 00:23:26.390936  5273 net.cpp:408] Sigmoid0 <- conv0
I0504 00:23:26.390941  5273 net.cpp:382] Sigmoid0 -> Sigmoid0
I0504 00:23:26.391116  5273 net.cpp:124] Setting up Sigmoid0
I0504 00:23:26.391126  5273 net.cpp:131] Top shape: 111 24 32 32 (2727936)
I0504 00:23:26.391130  5273 net.cpp:139] Memory required for data: 23187900
I0504 00:23:26.391134  5273 layer_factory.hpp:77] Creating layer pool0
I0504 00:23:26.391140  5273 net.cpp:86] Creating Layer pool0
I0504 00:23:26.391144  5273 net.cpp:408] pool0 <- Sigmoid0
I0504 00:23:26.391149  5273 net.cpp:382] pool0 -> pool0
I0504 00:23:26.391880  5273 net.cpp:124] Setting up pool0
I0504 00:23:26.391893  5273 net.cpp:131] Top shape: 111 24 16 16 (681984)
I0504 00:23:26.391897  5273 net.cpp:139] Memory required for data: 25915836
I0504 00:23:26.391901  5273 layer_factory.hpp:77] Creating layer ip1
I0504 00:23:26.391911  5273 net.cpp:86] Creating Layer ip1
I0504 00:23:26.391913  5273 net.cpp:408] ip1 <- pool0
I0504 00:23:26.391918  5273 net.cpp:382] ip1 -> ip1
I0504 00:23:26.394439  5273 net.cpp:124] Setting up ip1
I0504 00:23:26.394453  5273 net.cpp:131] Top shape: 111 10 (1110)
I0504 00:23:26.394455  5273 net.cpp:139] Memory required for data: 25920276
I0504 00:23:26.394464  5273 layer_factory.hpp:77] Creating layer relu1
I0504 00:23:26.394469  5273 net.cpp:86] Creating Layer relu1
I0504 00:23:26.394472  5273 net.cpp:408] relu1 <- ip1
I0504 00:23:26.394476  5273 net.cpp:369] relu1 -> ip1 (in-place)
I0504 00:23:26.394620  5273 net.cpp:124] Setting up relu1
I0504 00:23:26.394629  5273 net.cpp:131] Top shape: 111 10 (1110)
I0504 00:23:26.394649  5273 net.cpp:139] Memory required for data: 25924716
I0504 00:23:26.394651  5273 layer_factory.hpp:77] Creating layer ip2
I0504 00:23:26.394659  5273 net.cpp:86] Creating Layer ip2
I0504 00:23:26.394661  5273 net.cpp:408] ip2 <- ip1
I0504 00:23:26.394667  5273 net.cpp:382] ip2 -> ip2
I0504 00:23:26.394806  5273 net.cpp:124] Setting up ip2
I0504 00:23:26.394814  5273 net.cpp:131] Top shape: 111 180 (19980)
I0504 00:23:26.394816  5273 net.cpp:139] Memory required for data: 26004636
I0504 00:23:26.394824  5273 layer_factory.hpp:77] Creating layer relu2
I0504 00:23:26.394831  5273 net.cpp:86] Creating Layer relu2
I0504 00:23:26.394850  5273 net.cpp:408] relu2 <- ip2
I0504 00:23:26.394855  5273 net.cpp:369] relu2 -> ip2 (in-place)
I0504 00:23:26.395030  5273 net.cpp:124] Setting up relu2
I0504 00:23:26.395037  5273 net.cpp:131] Top shape: 111 180 (19980)
I0504 00:23:26.395040  5273 net.cpp:139] Memory required for data: 26084556
I0504 00:23:26.395043  5273 layer_factory.hpp:77] Creating layer ip3
I0504 00:23:26.395051  5273 net.cpp:86] Creating Layer ip3
I0504 00:23:26.395054  5273 net.cpp:408] ip3 <- ip2
I0504 00:23:26.395059  5273 net.cpp:382] ip3 -> ip3
I0504 00:23:26.395191  5273 net.cpp:124] Setting up ip3
I0504 00:23:26.395198  5273 net.cpp:131] Top shape: 111 10 (1110)
I0504 00:23:26.395201  5273 net.cpp:139] Memory required for data: 26088996
I0504 00:23:26.395206  5273 layer_factory.hpp:77] Creating layer loss
I0504 00:23:26.395211  5273 net.cpp:86] Creating Layer loss
I0504 00:23:26.395215  5273 net.cpp:408] loss <- ip3
I0504 00:23:26.395218  5273 net.cpp:408] loss <- label
I0504 00:23:26.395223  5273 net.cpp:382] loss -> loss
I0504 00:23:26.395237  5273 layer_factory.hpp:77] Creating layer loss
…
I0504 00:23:26.395839  5273 solver.cpp:173] Creating test net (#0) specified by net file: ECE595/cifar/train_test/var_everything_tiny/cifar_train_test_17.prototxt
I0504 00:23:26.395864  5273 net.cpp:296] The NetState phase (1) differed from the phase (0) specified by a rule in layer cifar
I0504 00:23:26.395946  5273 net.cpp:53] Initializing net from parameters: 
name: "CIFAR"
state {
  phase: TEST
}
layer {
  name: "cifar"
  type: "Data"
  top: "data"
  top: "label"
  include {
    phase: TEST
  }
  transform_param {
    mean_file: "examples/cifar10/mean.binaryproto"
  }
  data_param {
    source: "examples/cifar10/cifar10_test_lmdb"
    batch_size: 1000
    backend: LMDB
  }
}
layer {
  name: "conv0"
  type: "Convolution"
  bottom: "data"
  top: "conv0"
  param {
    lr_mult: 1
  }
  param {
    lr_mult: 2
  }
  convolution_param {
    num_output: 24
    pad: 2
    kernel_size: 5
    stride: 1
    weight_filler {
      type: "gaussian"
      std: 0.01
    }
    bias_filler {
      type: "constant"
    }
  }
}
layer {
  name: "Sigmoid0"
  type: "Sigmoid"
  bottom: "conv0"
  top: "Sigmoid0"
}
layer {
  name: "pool0"
  type: "Pooling"
  bottom: "Sigmoid0"
  top: "pool0"
  pooling_param {
    pool: AVE
    kernel_size: 3
    stride: 2
  }
}
layer {
  name: "ip1"
  type: "InnerProduct"
  bottom: "pool0"
  top: "ip1"
  param {
    lr_mult: 1
  }
  param {
    lr_mult: 2
  }
  inner_product_param {
    num_output: 10
    weight_filler {
      type: "gaussian"
      std: 0.01
    }
    bias_filler {
      type: "constant"
    }
  }
}
layer {
  name: "relu1"
  type: "ReLU"
  bottom: "ip1"
  top: "ip1"
}
layer {
  name: "ip2"
  type: "InnerProduct"
  bottom: "ip1"
  top: "ip2"
  param {
    lr_mult: 1
  }
  param {
    lr_mult: 2
  }
  inner_product_param {
    num_output: 180
    weight_filler {
      type: "gaussian"
      std: 0.01
    }
    bias_filler {
      type: "constant"
    }
  }
}
layer {
  name: "relu2"
  type: "ReLU"
  bottom: "ip2"
  top: "ip2"
}
layer {
  name: "ip3"
  type: "InnerProduct"
  bottom: "ip2"
  top: "ip3"
  param {
    lr_mult: 1
  }
  param {
    lr_mult: 2
  }
  inner_product_param {
    num_output: 10
    weight_filler {
      type: "gaussian"
      std: 0.01
    }
    bias_filler {
      type: "constant"
    }
  }
}
layer {
  name: "accuracy"
  type: "Accuracy"
  bottom: "ip3"
  bottom: "label"
  top: "accuracy"
  include {
    phase: TEST
  }
}
layer {
  name: "loss"
  type: "SoftmaxWithLoss"
  bottom: "ip3"
  bottom: "label"
  top: "loss"
}
I0504 00:23:26.396006  5273 layer_factory.hpp:77] Creating layer cifar
I0504 00:23:26.396050  5273 db_lmdb.cpp:35] Opened lmdb examples/cifar10/cifar10_test_lmdb
I0504 00:23:26.396064  5273 net.cpp:86] Creating Layer cifar
I0504 00:23:26.396070  5273 net.cpp:382] cifar -> data
I0504 00:23:26.396077  5273 net.cpp:382] cifar -> label
I0504 00:23:26.396083  5273 data_transformer.cpp:25] Loading mean file from: examples/cifar10/mean.binaryproto
I0504 00:23:26.396217  5273 data_layer.cpp:45] output data size: 1000,3,32,32
I0504 00:23:26.418092  5273 net.cpp:124] Setting up cifar
I0504 00:23:26.418117  5273 net.cpp:131] Top shape: 1000 3 32 32 (3072000)
I0504 00:23:26.418121  5273 net.cpp:131] Top shape: 1000 (1000)
I0504 00:23:26.418124  5273 net.cpp:139] Memory required for data: 12292000
I0504 00:23:26.418130  5273 layer_factory.hpp:77] Creating layer label_cifar_1_split
I0504 00:23:26.418159  5273 net.cpp:86] Creating Layer label_cifar_1_split
I0504 00:23:26.418164  5273 net.cpp:408] label_cifar_1_split <- label
I0504 00:23:26.418169  5273 net.cpp:382] label_cifar_1_split -> label_cifar_1_split_0
I0504 00:23:26.418177  5273 net.cpp:382] label_cifar_1_split -> label_cifar_1_split_1
I0504 00:23:26.418278  5273 net.cpp:124] Setting up label_cifar_1_split
I0504 00:23:26.418287  5273 net.cpp:131] Top shape: 1000 (1000)
I0504 00:23:26.418289  5273 net.cpp:131] Top shape: 1000 (1000)
I0504 00:23:26.418292  5273 net.cpp:139] Memory required for data: 12300000
I0504 00:23:26.418295  5273 layer_factory.hpp:77] Creating layer conv0
I0504 00:23:26.418308  5273 net.cpp:86] Creating Layer conv0
I0504 00:23:26.418313  5273 net.cpp:408] conv0 <- data
I0504 00:23:26.418334  5273 net.cpp:382] conv0 -> conv0
I0504 00:23:26.419927  5273 net.cpp:124] Setting up conv0
I0504 00:23:26.419941  5273 net.cpp:131] Top shape: 1000 24 32 32 (24576000)
I0504 00:23:26.419945  5273 net.cpp:139] Memory required for data: 110604000
I0504 00:23:26.419955  5273 layer_factory.hpp:77] Creating layer Sigmoid0
I0504 00:23:26.419962  5273 net.cpp:86] Creating Layer Sigmoid0
I0504 00:23:26.419965  5273 net.cpp:408] Sigmoid0 <- conv0
I0504 00:23:26.419970  5273 net.cpp:382] Sigmoid0 -> Sigmoid0
I0504 00:23:26.420897  5273 net.cpp:124] Setting up Sigmoid0
I0504 00:23:26.420927  5273 net.cpp:131] Top shape: 1000 24 32 32 (24576000)
I0504 00:23:26.420929  5273 net.cpp:139] Memory required for data: 208908000
I0504 00:23:26.420933  5273 layer_factory.hpp:77] Creating layer pool0
I0504 00:23:26.420943  5273 net.cpp:86] Creating Layer pool0
I0504 00:23:26.420945  5273 net.cpp:408] pool0 <- Sigmoid0
I0504 00:23:26.420951  5273 net.cpp:382] pool0 -> pool0
I0504 00:23:26.422130  5273 net.cpp:124] Setting up pool0
I0504 00:23:26.422142  5273 net.cpp:131] Top shape: 1000 24 16 16 (6144000)
I0504 00:23:26.422159  5273 net.cpp:139] Memory required for data: 233484000
I0504 00:23:26.422163  5273 layer_factory.hpp:77] Creating layer ip1
I0504 00:23:26.422170  5273 net.cpp:86] Creating Layer ip1
I0504 00:23:26.422173  5273 net.cpp:408] ip1 <- pool0
I0504 00:23:26.422179  5273 net.cpp:382] ip1 -> ip1
I0504 00:23:26.423885  5273 net.cpp:124] Setting up ip1
I0504 00:23:26.423892  5273 net.cpp:131] Top shape: 1000 10 (10000)
I0504 00:23:26.423895  5273 net.cpp:139] Memory required for data: 233524000
I0504 00:23:26.423920  5273 layer_factory.hpp:77] Creating layer relu1
I0504 00:23:26.423928  5273 net.cpp:86] Creating Layer relu1
I0504 00:23:26.423930  5273 net.cpp:408] relu1 <- ip1
I0504 00:23:26.423933  5273 net.cpp:369] relu1 -> ip1 (in-place)
I0504 00:23:26.424098  5273 net.cpp:124] Setting up relu1
I0504 00:23:26.424106  5273 net.cpp:131] Top shape: 1000 10 (10000)
I0504 00:23:26.424109  5273 net.cpp:139] Memory required for data: 233564000
I0504 00:23:26.424113  5273 layer_factory.hpp:77] Creating layer ip2
I0504 00:23:26.424121  5273 net.cpp:86] Creating Layer ip2
I0504 00:23:26.424126  5273 net.cpp:408] ip2 <- ip1
I0504 00:23:26.424149  5273 net.cpp:382] ip2 -> ip2
I0504 00:23:26.424326  5273 net.cpp:124] Setting up ip2
I0504 00:23:26.424335  5273 net.cpp:131] Top shape: 1000 180 (180000)
I0504 00:23:26.424337  5273 net.cpp:139] Memory required for data: 234284000
I0504 00:23:26.424345  5273 layer_factory.hpp:77] Creating layer relu2
I0504 00:23:26.424351  5273 net.cpp:86] Creating Layer relu2
I0504 00:23:26.424355  5273 net.cpp:408] relu2 <- ip2
I0504 00:23:26.424360  5273 net.cpp:369] relu2 -> ip2 (in-place)
I0504 00:23:26.424547  5273 net.cpp:124] Setting up relu2
I0504 00:23:26.424556  5273 net.cpp:131] Top shape: 1000 180 (180000)
I0504 00:23:26.424558  5273 net.cpp:139] Memory required for data: 235004000
I0504 00:23:26.424561  5273 layer_factory.hpp:77] Creating layer ip3
I0504 00:23:26.424567  5273 net.cpp:86] Creating Layer ip3
I0504 00:23:26.424571  5273 net.cpp:408] ip3 <- ip2
I0504 00:23:26.424576  5273 net.cpp:382] ip3 -> ip3
I0504 00:23:26.424743  5273 net.cpp:124] Setting up ip3
I0504 00:23:26.424751  5273 net.cpp:131] Top shape: 1000 10 (10000)
I0504 00:23:26.424763  5273 net.cpp:139] Memory required for data: 235044000
I0504 00:23:26.424768  5273 layer_factory.hpp:77] Creating layer ip3_ip3_0_split
I0504 00:23:26.424774  5273 net.cpp:86] Creating Layer ip3_ip3_0_split
I0504 00:23:26.424778  5273 net.cpp:408] ip3_ip3_0_split <- ip3
I0504 00:23:26.424784  5273 net.cpp:382] ip3_ip3_0_split -> ip3_ip3_0_split_0
I0504 00:23:26.424789  5273 net.cpp:382] ip3_ip3_0_split -> ip3_ip3_0_split_1
I0504 00:23:26.424845  5273 net.cpp:124] Setting up ip3_ip3_0_split
I0504 00:23:26.424854  5273 net.cpp:131] Top shape: 1000 10 (10000)
I0504 00:23:26.424859  5273 net.cpp:131] Top shape: 1000 10 (10000)
I0504 00:23:26.424861  5273 net.cpp:139] Memory required for data: 235124000
I0504 00:23:26.424865  5273 layer_factory.hpp:77] Creating layer accuracy
I0504 00:23:26.424885  5273 net.cpp:86] Creating Layer accuracy
I0504 00:23:26.424890  5273 net.cpp:408] accuracy <- ip3_ip3_0_split_0
I0504 00:23:26.424893  5273 net.cpp:408] accuracy <- label_cifar_1_split_0
I0504 00:23:26.424913  5273 net.cpp:382] accuracy -> accuracy
…
