…
I0504 17:25:43.621227 11726 net.cpp:296] The NetState phase (0) differed from the phase (1) specified by a rule in layer cifar
I0504 17:25:43.621253 11726 net.cpp:296] The NetState phase (0) differed from the phase (1) specified by a rule in layer accuracy
I0504 17:25:43.621366 11726 net.cpp:53] Initializing net from parameters: 
name: "CIFAR"
state {
  phase: TRAIN
  level: 0
  stage: ""
}
layer {
  name: "cifar"
  type: "Data"
  top: "data"
  top: "label"
  include {
    phase: TRAIN
  }
  transform_param {
    mean_file: "examples/cifar10/mean.binaryproto"
  }
  data_param {
    source: "examples/cifar10/cifar10_train_lmdb"
    batch_size: 111
    backend: LMDB
  }
}
layer {
  name: "conv0"
  type: "Convolution"
  bottom: "data"
  top: "conv0"
  param {
    lr_mult: 1
  }
  param {
    lr_mult: 2
  }
  convolution_param {
    num_output: 72
    pad: 2
    kernel_size: 5
    stride: 1
    weight_filler {
      type: "gaussian"
      std: 0.01
    }
    bias_filler {
      type: "constant"
    }
  }
}
layer {
  name: "Sigmoid0"
  type: "Sigmoid"
  bottom: "conv0"
  top: "Sigmoid0"
}
layer {
  name: "pool0"
  type: "Pooling"
  bottom: "Sigmoid0"
  top: "pool0"
  pooling_param {
    pool: AVE
    kernel_size: 3
    stride: 2
  }
}
layer {
  name: "conv1"
  type: "Convolution"
  bottom: "pool0"
  top: "conv1"
  param {
    lr_mult: 1
  }
  param {
    lr_mult: 2
  }
  convolution_param {
    num_output: 72
    pad: 2
    kernel_size: 3
    stride: 1
    weight_filler {
      type: "gaussian"
      std: 0.01
    }
    bias_filler {
      type: "constant"
    }
  }
}
layer {
  name: "Sigmoid1"
  type: "Sigmoid"
  bottom: "conv1"
  top: "Sigmoid1"
}
layer {
  name: "pool1"
  type: "Pooling"
  bottom: "Sigmoid1"
  top: "pool1"
  pooling_param {
    pool: AVE
    kernel_size: 3
    stride: 2
  }
}
layer {
  name: "ip1"
  type: "InnerProduct"
  bottom: "pool1"
  top: "ip1"
  param {
    lr_mult: 1
  }
  param {
    lr_mult: 2
  }
  inner_product_param {
    num_output: 10
    weight_filler {
      type: "gaussian"
      std: 0.01
    }
    bias_filler {
      type: "constant"
    }
  }
}
layer {
  name: "relu1"
  type: "ReLU"
  bottom: "ip1"
  top: "ip1"
}
layer {
  name: "ip2"
  type: "InnerProduct"
  bottom: "ip1"
  top: "ip2"
  param {
    lr_mult: 1
  }
  param {
    lr_mult: 2
  }
  inner_product_param {
    num_output: 180
    weight_filler {
      type: "gaussian"
      std: 0.01
    }
    bias_filler {
      type: "constant"
    }
  }
}
layer {
  name: "relu2"
  type: "ReLU"
  bottom: "ip2"
  top: "ip2"
}
layer {
  name: "ip3"
  type: "InnerProduct"
  bottom: "ip2"
  top: "ip3"
  param {
    lr_mult: 1
  }
  param {
    lr_mult: 2
  }
  inner_product_param {
    num_output: 10
    weight_filler {
      type: "gaussian"
      std: 0.01
    }
    bias_filler {
      type: "constant"
    }
  }
}
layer {
  name: "loss"
  type: "SoftmaxWithLoss"
  bottom: "ip3"
  bottom: "label"
  top: "loss"
}
I0504 17:25:43.621449 11726 layer_factory.hpp:77] Creating layer cifar
I0504 17:25:43.621548 11726 db_lmdb.cpp:35] Opened lmdb examples/cifar10/cifar10_train_lmdb
I0504 17:25:43.621575 11726 net.cpp:86] Creating Layer cifar
I0504 17:25:43.621584 11726 net.cpp:382] cifar -> data
I0504 17:25:43.621608 11726 net.cpp:382] cifar -> label
I0504 17:25:43.621623 11726 data_transformer.cpp:25] Loading mean file from: examples/cifar10/mean.binaryproto
I0504 17:25:43.623813 11726 data_layer.cpp:45] output data size: 111,3,32,32
I0504 17:25:43.631916 11726 net.cpp:124] Setting up cifar
I0504 17:25:43.631937 11726 net.cpp:131] Top shape: 111 3 32 32 (340992)
I0504 17:25:43.631943 11726 net.cpp:131] Top shape: 111 (111)
I0504 17:25:43.631947 11726 net.cpp:139] Memory required for data: 1364412
I0504 17:25:43.631954 11726 layer_factory.hpp:77] Creating layer conv0
I0504 17:25:43.631974 11726 net.cpp:86] Creating Layer conv0
I0504 17:25:43.631980 11726 net.cpp:408] conv0 <- data
I0504 17:25:43.631994 11726 net.cpp:382] conv0 -> conv0
I0504 17:25:43.902853 11726 net.cpp:124] Setting up conv0
I0504 17:25:43.902879 11726 net.cpp:131] Top shape: 111 72 32 32 (8183808)
I0504 17:25:43.902884 11726 net.cpp:139] Memory required for data: 34099644
I0504 17:25:43.902897 11726 layer_factory.hpp:77] Creating layer Sigmoid0
I0504 17:25:43.902909 11726 net.cpp:86] Creating Layer Sigmoid0
I0504 17:25:43.902912 11726 net.cpp:408] Sigmoid0 <- conv0
I0504 17:25:43.902917 11726 net.cpp:382] Sigmoid0 -> Sigmoid0
I0504 17:25:43.903100 11726 net.cpp:124] Setting up Sigmoid0
I0504 17:25:43.903110 11726 net.cpp:131] Top shape: 111 72 32 32 (8183808)
I0504 17:25:43.903112 11726 net.cpp:139] Memory required for data: 66834876
I0504 17:25:43.903115 11726 layer_factory.hpp:77] Creating layer pool0
I0504 17:25:43.903136 11726 net.cpp:86] Creating Layer pool0
I0504 17:25:43.903139 11726 net.cpp:408] pool0 <- Sigmoid0
I0504 17:25:43.903159 11726 net.cpp:382] pool0 -> pool0
I0504 17:25:43.903991 11726 net.cpp:124] Setting up pool0
I0504 17:25:43.904021 11726 net.cpp:131] Top shape: 111 72 16 16 (2045952)
I0504 17:25:43.904024 11726 net.cpp:139] Memory required for data: 75018684
I0504 17:25:43.904027 11726 layer_factory.hpp:77] Creating layer conv1
I0504 17:25:43.904039 11726 net.cpp:86] Creating Layer conv1
I0504 17:25:43.904042 11726 net.cpp:408] conv1 <- pool0
I0504 17:25:43.904047 11726 net.cpp:382] conv1 -> conv1
I0504 17:25:43.908020 11726 net.cpp:124] Setting up conv1
I0504 17:25:43.908033 11726 net.cpp:131] Top shape: 111 72 18 18 (2589408)
I0504 17:25:43.908036 11726 net.cpp:139] Memory required for data: 85376316
I0504 17:25:43.908044 11726 layer_factory.hpp:77] Creating layer Sigmoid1
I0504 17:25:43.908049 11726 net.cpp:86] Creating Layer Sigmoid1
I0504 17:25:43.908053 11726 net.cpp:408] Sigmoid1 <- conv1
I0504 17:25:43.908057 11726 net.cpp:382] Sigmoid1 -> Sigmoid1
I0504 17:25:43.908234 11726 net.cpp:124] Setting up Sigmoid1
I0504 17:25:43.908243 11726 net.cpp:131] Top shape: 111 72 18 18 (2589408)
I0504 17:25:43.908246 11726 net.cpp:139] Memory required for data: 95733948
I0504 17:25:43.908249 11726 layer_factory.hpp:77] Creating layer pool1
I0504 17:25:43.908270 11726 net.cpp:86] Creating Layer pool1
I0504 17:25:43.908273 11726 net.cpp:408] pool1 <- Sigmoid1
I0504 17:25:43.908277 11726 net.cpp:382] pool1 -> pool1
I0504 17:25:43.908437 11726 net.cpp:124] Setting up pool1
I0504 17:25:43.908445 11726 net.cpp:131] Top shape: 111 72 9 9 (647352)
I0504 17:25:43.908448 11726 net.cpp:139] Memory required for data: 98323356
I0504 17:25:43.908452 11726 layer_factory.hpp:77] Creating layer ip1
I0504 17:25:43.908459 11726 net.cpp:86] Creating Layer ip1
I0504 17:25:43.908463 11726 net.cpp:408] ip1 <- pool1
I0504 17:25:43.908468 11726 net.cpp:382] ip1 -> ip1
I0504 17:25:43.910266 11726 net.cpp:124] Setting up ip1
I0504 17:25:43.910276 11726 net.cpp:131] Top shape: 111 10 (1110)
I0504 17:25:43.910295 11726 net.cpp:139] Memory required for data: 98327796
I0504 17:25:43.910303 11726 layer_factory.hpp:77] Creating layer relu1
I0504 17:25:43.910310 11726 net.cpp:86] Creating Layer relu1
I0504 17:25:43.910313 11726 net.cpp:408] relu1 <- ip1
I0504 17:25:43.910332 11726 net.cpp:369] relu1 -> ip1 (in-place)
I0504 17:25:43.910533 11726 net.cpp:124] Setting up relu1
I0504 17:25:43.910542 11726 net.cpp:131] Top shape: 111 10 (1110)
I0504 17:25:43.910545 11726 net.cpp:139] Memory required for data: 98332236
I0504 17:25:43.910548 11726 layer_factory.hpp:77] Creating layer ip2
I0504 17:25:43.910554 11726 net.cpp:86] Creating Layer ip2
I0504 17:25:43.910557 11726 net.cpp:408] ip2 <- ip1
I0504 17:25:43.910579 11726 net.cpp:382] ip2 -> ip2
I0504 17:25:43.910725 11726 net.cpp:124] Setting up ip2
I0504 17:25:43.910733 11726 net.cpp:131] Top shape: 111 180 (19980)
I0504 17:25:43.910737 11726 net.cpp:139] Memory required for data: 98412156
I0504 17:25:43.910742 11726 layer_factory.hpp:77] Creating layer relu2
I0504 17:25:43.910748 11726 net.cpp:86] Creating Layer relu2
I0504 17:25:43.910751 11726 net.cpp:408] relu2 <- ip2
I0504 17:25:43.910756 11726 net.cpp:369] relu2 -> ip2 (in-place)
I0504 17:25:43.911540 11726 net.cpp:124] Setting up relu2
I0504 17:25:43.911568 11726 net.cpp:131] Top shape: 111 180 (19980)
I0504 17:25:43.911572 11726 net.cpp:139] Memory required for data: 98492076
I0504 17:25:43.911576 11726 layer_factory.hpp:77] Creating layer ip3
I0504 17:25:43.911582 11726 net.cpp:86] Creating Layer ip3
I0504 17:25:43.911586 11726 net.cpp:408] ip3 <- ip2
I0504 17:25:43.911592 11726 net.cpp:382] ip3 -> ip3
I0504 17:25:43.911759 11726 net.cpp:124] Setting up ip3
I0504 17:25:43.911767 11726 net.cpp:131] Top shape: 111 10 (1110)
I0504 17:25:43.911772 11726 net.cpp:139] Memory required for data: 98496516
I0504 17:25:43.911780 11726 layer_factory.hpp:77] Creating layer loss
I0504 17:25:43.911787 11726 net.cpp:86] Creating Layer loss
I0504 17:25:43.911789 11726 net.cpp:408] loss <- ip3
I0504 17:25:43.911793 11726 net.cpp:408] loss <- label
I0504 17:25:43.911800 11726 net.cpp:382] loss -> loss
I0504 17:25:43.911818 11726 layer_factory.hpp:77] Creating layer loss
…
I0504 17:25:43.912542 11726 solver.cpp:173] Creating test net (#0) specified by net file: ECE595/cifar/train_test/var_everything_tiny/cifar_train_test_197.prototxt
I0504 17:25:43.912585 11726 net.cpp:296] The NetState phase (1) differed from the phase (0) specified by a rule in layer cifar
I0504 17:25:43.912715 11726 net.cpp:53] Initializing net from parameters: 
name: "CIFAR"
state {
  phase: TEST
}
layer {
  name: "cifar"
  type: "Data"
  top: "data"
  top: "label"
  include {
    phase: TEST
  }
  transform_param {
    mean_file: "examples/cifar10/mean.binaryproto"
  }
  data_param {
    source: "examples/cifar10/cifar10_test_lmdb"
    batch_size: 1000
    backend: LMDB
  }
}
layer {
  name: "conv0"
  type: "Convolution"
  bottom: "data"
  top: "conv0"
  param {
    lr_mult: 1
  }
  param {
    lr_mult: 2
  }
  convolution_param {
    num_output: 72
    pad: 2
    kernel_size: 5
    stride: 1
    weight_filler {
      type: "gaussian"
      std: 0.01
    }
    bias_filler {
      type: "constant"
    }
  }
}
layer {
  name: "Sigmoid0"
  type: "Sigmoid"
  bottom: "conv0"
  top: "Sigmoid0"
}
layer {
  name: "pool0"
  type: "Pooling"
  bottom: "Sigmoid0"
  top: "pool0"
  pooling_param {
    pool: AVE
    kernel_size: 3
    stride: 2
  }
}
layer {
  name: "conv1"
  type: "Convolution"
  bottom: "pool0"
  top: "conv1"
  param {
    lr_mult: 1
  }
  param {
    lr_mult: 2
  }
  convolution_param {
    num_output: 72
    pad: 2
    kernel_size: 3
    stride: 1
    weight_filler {
      type: "gaussian"
      std: 0.01
    }
    bias_filler {
      type: "constant"
    }
  }
}
layer {
  name: "Sigmoid1"
  type: "Sigmoid"
  bottom: "conv1"
  top: "Sigmoid1"
}
layer {
  name: "pool1"
  type: "Pooling"
  bottom: "Sigmoid1"
  top: "pool1"
  pooling_param {
    pool: AVE
    kernel_size: 3
    stride: 2
  }
}
layer {
  name: "ip1"
  type: "InnerProduct"
  bottom: "pool1"
  top: "ip1"
  param {
    lr_mult: 1
  }
  param {
    lr_mult: 2
  }
  inner_product_param {
    num_output: 10
    weight_filler {
      type: "gaussian"
      std: 0.01
    }
    bias_filler {
      type: "constant"
    }
  }
}
layer {
  name: "relu1"
  type: "ReLU"
  bottom: "ip1"
  top: "ip1"
}
layer {
  name: "ip2"
  type: "InnerProduct"
  bottom: "ip1"
  top: "ip2"
  param {
    lr_mult: 1
  }
  param {
    lr_mult: 2
  }
  inner_product_param {
    num_output: 180
    weight_filler {
      type: "gaussian"
      std: 0.01
    }
    bias_filler {
      type: "constant"
    }
  }
}
layer {
  name: "relu2"
  type: "ReLU"
  bottom: "ip2"
  top: "ip2"
}
layer {
  name: "ip3"
  type: "InnerProduct"
  bottom: "ip2"
  top: "ip3"
  param {
    lr_mult: 1
  }
  param {
    lr_mult: 2
  }
  inner_product_param {
    num_output: 10
    weight_filler {
      type: "gaussian"
      std: 0.01
    }
    bias_filler {
      type: "constant"
    }
  }
}
layer {
  name: "accuracy"
  type: "Accuracy"
  bottom: "ip3"
  bottom: "label"
  top: "accuracy"
  include {
    phase: TEST
  }
}
layer {
  name: "loss"
  type: "SoftmaxWithLoss"
  bottom: "ip3"
  bottom: "label"
  top: "loss"
}
I0504 17:25:43.912842 11726 layer_factory.hpp:77] Creating layer cifar
I0504 17:25:43.912894 11726 db_lmdb.cpp:35] Opened lmdb examples/cifar10/cifar10_test_lmdb
I0504 17:25:43.912909 11726 net.cpp:86] Creating Layer cifar
I0504 17:25:43.912914 11726 net.cpp:382] cifar -> data
I0504 17:25:43.912937 11726 net.cpp:382] cifar -> label
I0504 17:25:43.912946 11726 data_transformer.cpp:25] Loading mean file from: examples/cifar10/mean.binaryproto
I0504 17:25:43.913118 11726 data_layer.cpp:45] output data size: 1000,3,32,32
I0504 17:25:43.935544 11726 net.cpp:124] Setting up cifar
I0504 17:25:43.935585 11726 net.cpp:131] Top shape: 1000 3 32 32 (3072000)
I0504 17:25:43.935590 11726 net.cpp:131] Top shape: 1000 (1000)
I0504 17:25:43.935593 11726 net.cpp:139] Memory required for data: 12292000
I0504 17:25:43.935600 11726 layer_factory.hpp:77] Creating layer label_cifar_1_split
I0504 17:25:43.935611 11726 net.cpp:86] Creating Layer label_cifar_1_split
I0504 17:25:43.935616 11726 net.cpp:408] label_cifar_1_split <- label
I0504 17:25:43.935637 11726 net.cpp:382] label_cifar_1_split -> label_cifar_1_split_0
I0504 17:25:43.935647 11726 net.cpp:382] label_cifar_1_split -> label_cifar_1_split_1
I0504 17:25:43.935744 11726 net.cpp:124] Setting up label_cifar_1_split
I0504 17:25:43.935751 11726 net.cpp:131] Top shape: 1000 (1000)
I0504 17:25:43.935755 11726 net.cpp:131] Top shape: 1000 (1000)
I0504 17:25:43.935757 11726 net.cpp:139] Memory required for data: 12300000
I0504 17:25:43.935761 11726 layer_factory.hpp:77] Creating layer conv0
I0504 17:25:43.935775 11726 net.cpp:86] Creating Layer conv0
I0504 17:25:43.935777 11726 net.cpp:408] conv0 <- data
I0504 17:25:43.935786 11726 net.cpp:382] conv0 -> conv0
I0504 17:25:43.938756 11726 net.cpp:124] Setting up conv0
I0504 17:25:43.938787 11726 net.cpp:131] Top shape: 1000 72 32 32 (73728000)
I0504 17:25:43.938791 11726 net.cpp:139] Memory required for data: 307212000
I0504 17:25:43.938801 11726 layer_factory.hpp:77] Creating layer Sigmoid0
I0504 17:25:43.938807 11726 net.cpp:86] Creating Layer Sigmoid0
I0504 17:25:43.938812 11726 net.cpp:408] Sigmoid0 <- conv0
I0504 17:25:43.938815 11726 net.cpp:382] Sigmoid0 -> Sigmoid0
I0504 17:25:43.939041 11726 net.cpp:124] Setting up Sigmoid0
I0504 17:25:43.939064 11726 net.cpp:131] Top shape: 1000 72 32 32 (73728000)
I0504 17:25:43.939069 11726 net.cpp:139] Memory required for data: 602124000
I0504 17:25:43.939072 11726 layer_factory.hpp:77] Creating layer pool0
I0504 17:25:43.939080 11726 net.cpp:86] Creating Layer pool0
I0504 17:25:43.939085 11726 net.cpp:408] pool0 <- Sigmoid0
I0504 17:25:43.939088 11726 net.cpp:382] pool0 -> pool0
I0504 17:25:43.939309 11726 net.cpp:124] Setting up pool0
I0504 17:25:43.939327 11726 net.cpp:131] Top shape: 1000 72 16 16 (18432000)
I0504 17:25:43.939330 11726 net.cpp:139] Memory required for data: 675852000
I0504 17:25:43.939334 11726 layer_factory.hpp:77] Creating layer conv1
I0504 17:25:43.939343 11726 net.cpp:86] Creating Layer conv1
I0504 17:25:43.939347 11726 net.cpp:408] conv1 <- pool0
I0504 17:25:43.939353 11726 net.cpp:382] conv1 -> conv1
I0504 17:25:43.942225 11726 net.cpp:124] Setting up conv1
I0504 17:25:43.942255 11726 net.cpp:131] Top shape: 1000 72 18 18 (23328000)
I0504 17:25:43.942257 11726 net.cpp:139] Memory required for data: 769164000
I0504 17:25:43.942265 11726 layer_factory.hpp:77] Creating layer Sigmoid1
I0504 17:25:43.942271 11726 net.cpp:86] Creating Layer Sigmoid1
I0504 17:25:43.942276 11726 net.cpp:408] Sigmoid1 <- conv1
I0504 17:25:43.942279 11726 net.cpp:382] Sigmoid1 -> Sigmoid1
I0504 17:25:43.942457 11726 net.cpp:124] Setting up Sigmoid1
I0504 17:25:43.942482 11726 net.cpp:131] Top shape: 1000 72 18 18 (23328000)
I0504 17:25:43.942487 11726 net.cpp:139] Memory required for data: 862476000
I0504 17:25:43.942489 11726 layer_factory.hpp:77] Creating layer pool1
I0504 17:25:43.942495 11726 net.cpp:86] Creating Layer pool1
I0504 17:25:43.942498 11726 net.cpp:408] pool1 <- Sigmoid1
I0504 17:25:43.942503 11726 net.cpp:382] pool1 -> pool1
I0504 17:25:43.943296 11726 net.cpp:124] Setting up pool1
I0504 17:25:43.943308 11726 net.cpp:131] Top shape: 1000 72 9 9 (5832000)
I0504 17:25:43.943327 11726 net.cpp:139] Memory required for data: 885804000
I0504 17:25:43.943331 11726 layer_factory.hpp:77] Creating layer ip1
I0504 17:25:43.943341 11726 net.cpp:86] Creating Layer ip1
I0504 17:25:43.943344 11726 net.cpp:408] ip1 <- pool1
I0504 17:25:43.943349 11726 net.cpp:382] ip1 -> ip1
I0504 17:25:43.945384 11726 net.cpp:124] Setting up ip1
I0504 17:25:43.945392 11726 net.cpp:131] Top shape: 1000 10 (10000)
I0504 17:25:43.945411 11726 net.cpp:139] Memory required for data: 885844000
I0504 17:25:43.945418 11726 layer_factory.hpp:77] Creating layer relu1
I0504 17:25:43.945425 11726 net.cpp:86] Creating Layer relu1
I0504 17:25:43.945427 11726 net.cpp:408] relu1 <- ip1
I0504 17:25:43.945432 11726 net.cpp:369] relu1 -> ip1 (in-place)
I0504 17:25:43.945627 11726 net.cpp:124] Setting up relu1
I0504 17:25:43.945652 11726 net.cpp:131] Top shape: 1000 10 (10000)
I0504 17:25:43.945655 11726 net.cpp:139] Memory required for data: 885884000
I0504 17:25:43.945659 11726 layer_factory.hpp:77] Creating layer ip2
I0504 17:25:43.945665 11726 net.cpp:86] Creating Layer ip2
I0504 17:25:43.945669 11726 net.cpp:408] ip2 <- ip1
I0504 17:25:43.945674 11726 net.cpp:382] ip2 -> ip2
I0504 17:25:43.945828 11726 net.cpp:124] Setting up ip2
I0504 17:25:43.945835 11726 net.cpp:131] Top shape: 1000 180 (180000)
I0504 17:25:43.945838 11726 net.cpp:139] Memory required for data: 886604000
I0504 17:25:43.945860 11726 layer_factory.hpp:77] Creating layer relu2
I0504 17:25:43.945865 11726 net.cpp:86] Creating Layer relu2
I0504 17:25:43.945869 11726 net.cpp:408] relu2 <- ip2
I0504 17:25:43.945873 11726 net.cpp:369] relu2 -> ip2 (in-place)
I0504 17:25:43.946033 11726 net.cpp:124] Setting up relu2
I0504 17:25:43.946043 11726 net.cpp:131] Top shape: 1000 180 (180000)
I0504 17:25:43.946046 11726 net.cpp:139] Memory required for data: 887324000
I0504 17:25:43.946064 11726 layer_factory.hpp:77] Creating layer ip3
I0504 17:25:43.946072 11726 net.cpp:86] Creating Layer ip3
I0504 17:25:43.946075 11726 net.cpp:408] ip3 <- ip2
I0504 17:25:43.946080 11726 net.cpp:382] ip3 -> ip3
I0504 17:25:43.946244 11726 net.cpp:124] Setting up ip3
I0504 17:25:43.946262 11726 net.cpp:131] Top shape: 1000 10 (10000)
I0504 17:25:43.946265 11726 net.cpp:139] Memory required for data: 887364000
I0504 17:25:43.946274 11726 layer_factory.hpp:77] Creating layer ip3_ip3_0_split
I0504 17:25:43.946280 11726 net.cpp:86] Creating Layer ip3_ip3_0_split
I0504 17:25:43.946282 11726 net.cpp:408] ip3_ip3_0_split <- ip3
I0504 17:25:43.946286 11726 net.cpp:382] ip3_ip3_0_split -> ip3_ip3_0_split_0
I0504 17:25:43.946292 11726 net.cpp:382] ip3_ip3_0_split -> ip3_ip3_0_split_1
I0504 17:25:43.946326 11726 net.cpp:124] Setting up ip3_ip3_0_split
I0504 17:25:43.946334 11726 net.cpp:131] Top shape: 1000 10 (10000)
I0504 17:25:43.946338 11726 net.cpp:131] Top shape: 1000 10 (10000)
I0504 17:25:43.946341 11726 net.cpp:139] Memory required for data: 887444000
I0504 17:25:43.946343 11726 layer_factory.hpp:77] Creating layer accuracy
I0504 17:25:43.946354 11726 net.cpp:86] Creating Layer accuracy
I0504 17:25:43.946357 11726 net.cpp:408] accuracy <- ip3_ip3_0_split_0
I0504 17:25:43.946362 11726 net.cpp:408] accuracy <- label_cifar_1_split_0
I0504 17:25:43.946367 11726 net.cpp:382] accuracy -> accuracy
…
