…
I0504 05:50:37.823565 15122 net.cpp:296] The NetState phase (0) differed from the phase (1) specified by a rule in layer cifar
I0504 05:50:37.823582 15122 net.cpp:296] The NetState phase (0) differed from the phase (1) specified by a rule in layer accuracy
I0504 05:50:37.823674 15122 net.cpp:53] Initializing net from parameters: 
name: "CIFAR"
state {
  phase: TRAIN
  level: 0
  stage: ""
}
layer {
  name: "cifar"
  type: "Data"
  top: "data"
  top: "label"
  include {
    phase: TRAIN
  }
  transform_param {
    mean_file: "examples/cifar10/mean.binaryproto"
  }
  data_param {
    source: "examples/cifar10/cifar10_train_lmdb"
    batch_size: 111
    backend: LMDB
  }
}
layer {
  name: "conv0"
  type: "Convolution"
  bottom: "data"
  top: "conv0"
  param {
    lr_mult: 1
  }
  param {
    lr_mult: 2
  }
  convolution_param {
    num_output: 216
    pad: 2
    kernel_size: 5
    stride: 1
    weight_filler {
      type: "gaussian"
      std: 0.01
    }
    bias_filler {
      type: "constant"
    }
  }
}
layer {
  name: "Sigmoid0"
  type: "Sigmoid"
  bottom: "conv0"
  top: "Sigmoid0"
}
layer {
  name: "pool0"
  type: "Pooling"
  bottom: "Sigmoid0"
  top: "pool0"
  pooling_param {
    pool: AVE
    kernel_size: 3
    stride: 2
  }
}
layer {
  name: "ip1"
  type: "InnerProduct"
  bottom: "pool0"
  top: "ip1"
  param {
    lr_mult: 1
  }
  param {
    lr_mult: 2
  }
  inner_product_param {
    num_output: 10
    weight_filler {
      type: "gaussian"
      std: 0.01
    }
    bias_filler {
      type: "constant"
    }
  }
}
layer {
  name: "relu1"
  type: "ReLU"
  bottom: "ip1"
  top: "ip1"
}
layer {
  name: "ip2"
  type: "InnerProduct"
  bottom: "ip1"
  top: "ip2"
  param {
    lr_mult: 1
  }
  param {
    lr_mult: 2
  }
  inner_product_param {
    num_output: 180
    weight_filler {
      type: "gaussian"
      std: 0.01
    }
    bias_filler {
      type: "constant"
    }
  }
}
layer {
  name: "relu2"
  type: "ReLU"
  bottom: "ip2"
  top: "ip2"
}
layer {
  name: "ip3"
  type: "InnerProduct"
  bottom: "ip2"
  top: "ip3"
  param {
    lr_mult: 1
  }
  param {
    lr_mult: 2
  }
  inner_product_param {
    num_output: 10
    weight_filler {
      type: "gaussian"
      std: 0.01
    }
    bias_filler {
      type: "constant"
    }
  }
}
layer {
  name: "loss"
  type: "SoftmaxWithLoss"
  bottom: "ip3"
  bottom: "label"
  top: "loss"
}
I0504 05:50:37.823750 15122 layer_factory.hpp:77] Creating layer cifar
I0504 05:50:37.823850 15122 db_lmdb.cpp:35] Opened lmdb examples/cifar10/cifar10_train_lmdb
I0504 05:50:37.823879 15122 net.cpp:86] Creating Layer cifar
I0504 05:50:37.823886 15122 net.cpp:382] cifar -> data
I0504 05:50:37.823910 15122 net.cpp:382] cifar -> label
I0504 05:50:37.823922 15122 data_transformer.cpp:25] Loading mean file from: examples/cifar10/mean.binaryproto
I0504 05:50:37.827735 15122 data_layer.cpp:45] output data size: 111,3,32,32
I0504 05:50:37.835695 15122 net.cpp:124] Setting up cifar
I0504 05:50:37.835716 15122 net.cpp:131] Top shape: 111 3 32 32 (340992)
I0504 05:50:37.835722 15122 net.cpp:131] Top shape: 111 (111)
I0504 05:50:37.835726 15122 net.cpp:139] Memory required for data: 1364412
I0504 05:50:37.835733 15122 layer_factory.hpp:77] Creating layer conv0
I0504 05:50:37.835753 15122 net.cpp:86] Creating Layer conv0
I0504 05:50:37.835759 15122 net.cpp:408] conv0 <- data
I0504 05:50:37.835772 15122 net.cpp:382] conv0 -> conv0
I0504 05:50:38.110966 15122 net.cpp:124] Setting up conv0
I0504 05:50:38.111011 15122 net.cpp:131] Top shape: 111 216 32 32 (24551424)
I0504 05:50:38.111016 15122 net.cpp:139] Memory required for data: 99570108
I0504 05:50:38.111029 15122 layer_factory.hpp:77] Creating layer Sigmoid0
I0504 05:50:38.111042 15122 net.cpp:86] Creating Layer Sigmoid0
I0504 05:50:38.111045 15122 net.cpp:408] Sigmoid0 <- conv0
I0504 05:50:38.111050 15122 net.cpp:382] Sigmoid0 -> Sigmoid0
I0504 05:50:38.111261 15122 net.cpp:124] Setting up Sigmoid0
I0504 05:50:38.111270 15122 net.cpp:131] Top shape: 111 216 32 32 (24551424)
I0504 05:50:38.111274 15122 net.cpp:139] Memory required for data: 197775804
I0504 05:50:38.111277 15122 layer_factory.hpp:77] Creating layer pool0
I0504 05:50:38.111284 15122 net.cpp:86] Creating Layer pool0
I0504 05:50:38.111287 15122 net.cpp:408] pool0 <- Sigmoid0
I0504 05:50:38.111291 15122 net.cpp:382] pool0 -> pool0
I0504 05:50:38.112022 15122 net.cpp:124] Setting up pool0
I0504 05:50:38.112035 15122 net.cpp:131] Top shape: 111 216 16 16 (6137856)
I0504 05:50:38.112038 15122 net.cpp:139] Memory required for data: 222327228
I0504 05:50:38.112041 15122 layer_factory.hpp:77] Creating layer ip1
I0504 05:50:38.112049 15122 net.cpp:86] Creating Layer ip1
I0504 05:50:38.112052 15122 net.cpp:408] ip1 <- pool0
I0504 05:50:38.112057 15122 net.cpp:382] ip1 -> ip1
I0504 05:50:38.126857 15122 net.cpp:124] Setting up ip1
I0504 05:50:38.126868 15122 net.cpp:131] Top shape: 111 10 (1110)
I0504 05:50:38.126870 15122 net.cpp:139] Memory required for data: 222331668
I0504 05:50:38.126878 15122 layer_factory.hpp:77] Creating layer relu1
I0504 05:50:38.126883 15122 net.cpp:86] Creating Layer relu1
I0504 05:50:38.126886 15122 net.cpp:408] relu1 <- ip1
I0504 05:50:38.126890 15122 net.cpp:369] relu1 -> ip1 (in-place)
I0504 05:50:38.127051 15122 net.cpp:124] Setting up relu1
I0504 05:50:38.127059 15122 net.cpp:131] Top shape: 111 10 (1110)
I0504 05:50:38.127063 15122 net.cpp:139] Memory required for data: 222336108
I0504 05:50:38.127065 15122 layer_factory.hpp:77] Creating layer ip2
I0504 05:50:38.127071 15122 net.cpp:86] Creating Layer ip2
I0504 05:50:38.127074 15122 net.cpp:408] ip2 <- ip1
I0504 05:50:38.127079 15122 net.cpp:382] ip2 -> ip2
I0504 05:50:38.127210 15122 net.cpp:124] Setting up ip2
I0504 05:50:38.127218 15122 net.cpp:131] Top shape: 111 180 (19980)
I0504 05:50:38.127219 15122 net.cpp:139] Memory required for data: 222416028
I0504 05:50:38.127226 15122 layer_factory.hpp:77] Creating layer relu2
I0504 05:50:38.127238 15122 net.cpp:86] Creating Layer relu2
I0504 05:50:38.127240 15122 net.cpp:408] relu2 <- ip2
I0504 05:50:38.127244 15122 net.cpp:369] relu2 -> ip2 (in-place)
I0504 05:50:38.127383 15122 net.cpp:124] Setting up relu2
I0504 05:50:38.127391 15122 net.cpp:131] Top shape: 111 180 (19980)
I0504 05:50:38.127394 15122 net.cpp:139] Memory required for data: 222495948
I0504 05:50:38.127398 15122 layer_factory.hpp:77] Creating layer ip3
I0504 05:50:38.127404 15122 net.cpp:86] Creating Layer ip3
I0504 05:50:38.127408 15122 net.cpp:408] ip3 <- ip2
I0504 05:50:38.127411 15122 net.cpp:382] ip3 -> ip3
I0504 05:50:38.127543 15122 net.cpp:124] Setting up ip3
I0504 05:50:38.127550 15122 net.cpp:131] Top shape: 111 10 (1110)
I0504 05:50:38.127553 15122 net.cpp:139] Memory required for data: 222500388
I0504 05:50:38.127557 15122 layer_factory.hpp:77] Creating layer loss
I0504 05:50:38.127562 15122 net.cpp:86] Creating Layer loss
I0504 05:50:38.127565 15122 net.cpp:408] loss <- ip3
I0504 05:50:38.127584 15122 net.cpp:408] loss <- label
I0504 05:50:38.127589 15122 net.cpp:382] loss -> loss
I0504 05:50:38.127604 15122 layer_factory.hpp:77] Creating layer loss
…
I0504 05:50:38.128197 15122 solver.cpp:173] Creating test net (#0) specified by net file: ECE595/cifar/train_test/var_everything_tiny/cifar_train_test_65.prototxt
I0504 05:50:38.128252 15122 net.cpp:296] The NetState phase (1) differed from the phase (0) specified by a rule in layer cifar
I0504 05:50:38.128363 15122 net.cpp:53] Initializing net from parameters: 
name: "CIFAR"
state {
  phase: TEST
}
layer {
  name: "cifar"
  type: "Data"
  top: "data"
  top: "label"
  include {
    phase: TEST
  }
  transform_param {
    mean_file: "examples/cifar10/mean.binaryproto"
  }
  data_param {
    source: "examples/cifar10/cifar10_test_lmdb"
    batch_size: 1000
    backend: LMDB
  }
}
layer {
  name: "conv0"
  type: "Convolution"
  bottom: "data"
  top: "conv0"
  param {
    lr_mult: 1
  }
  param {
    lr_mult: 2
  }
  convolution_param {
    num_output: 216
    pad: 2
    kernel_size: 5
    stride: 1
    weight_filler {
      type: "gaussian"
      std: 0.01
    }
    bias_filler {
      type: "constant"
    }
  }
}
layer {
  name: "Sigmoid0"
  type: "Sigmoid"
  bottom: "conv0"
  top: "Sigmoid0"
}
layer {
  name: "pool0"
  type: "Pooling"
  bottom: "Sigmoid0"
  top: "pool0"
  pooling_param {
    pool: AVE
    kernel_size: 3
    stride: 2
  }
}
layer {
  name: "ip1"
  type: "InnerProduct"
  bottom: "pool0"
  top: "ip1"
  param {
    lr_mult: 1
  }
  param {
    lr_mult: 2
  }
  inner_product_param {
    num_output: 10
    weight_filler {
      type: "gaussian"
      std: 0.01
    }
    bias_filler {
      type: "constant"
    }
  }
}
layer {
  name: "relu1"
  type: "ReLU"
  bottom: "ip1"
  top: "ip1"
}
layer {
  name: "ip2"
  type: "InnerProduct"
  bottom: "ip1"
  top: "ip2"
  param {
    lr_mult: 1
  }
  param {
    lr_mult: 2
  }
  inner_product_param {
    num_output: 180
    weight_filler {
      type: "gaussian"
      std: 0.01
    }
    bias_filler {
      type: "constant"
    }
  }
}
layer {
  name: "relu2"
  type: "ReLU"
  bottom: "ip2"
  top: "ip2"
}
layer {
  name: "ip3"
  type: "InnerProduct"
  bottom: "ip2"
  top: "ip3"
  param {
    lr_mult: 1
  }
  param {
    lr_mult: 2
  }
  inner_product_param {
    num_output: 10
    weight_filler {
      type: "gaussian"
      std: 0.01
    }
    bias_filler {
      type: "constant"
    }
  }
}
layer {
  name: "accuracy"
  type: "Accuracy"
  bottom: "ip3"
  bottom: "label"
  top: "accuracy"
  include {
    phase: TEST
  }
}
layer {
  name: "loss"
  type: "SoftmaxWithLoss"
  bottom: "ip3"
  bottom: "label"
  top: "loss"
}
I0504 05:50:38.128425 15122 layer_factory.hpp:77] Creating layer cifar
I0504 05:50:38.128470 15122 db_lmdb.cpp:35] Opened lmdb examples/cifar10/cifar10_test_lmdb
I0504 05:50:38.128481 15122 net.cpp:86] Creating Layer cifar
I0504 05:50:38.128486 15122 net.cpp:382] cifar -> data
I0504 05:50:38.128494 15122 net.cpp:382] cifar -> label
I0504 05:50:38.128499 15122 data_transformer.cpp:25] Loading mean file from: examples/cifar10/mean.binaryproto
I0504 05:50:38.128650 15122 data_layer.cpp:45] output data size: 1000,3,32,32
I0504 05:50:38.150121 15122 net.cpp:124] Setting up cifar
I0504 05:50:38.150161 15122 net.cpp:131] Top shape: 1000 3 32 32 (3072000)
I0504 05:50:38.150166 15122 net.cpp:131] Top shape: 1000 (1000)
I0504 05:50:38.150169 15122 net.cpp:139] Memory required for data: 12292000
I0504 05:50:38.150174 15122 layer_factory.hpp:77] Creating layer label_cifar_1_split
I0504 05:50:38.150218 15122 net.cpp:86] Creating Layer label_cifar_1_split
I0504 05:50:38.150223 15122 net.cpp:408] label_cifar_1_split <- label
I0504 05:50:38.150229 15122 net.cpp:382] label_cifar_1_split -> label_cifar_1_split_0
I0504 05:50:38.150238 15122 net.cpp:382] label_cifar_1_split -> label_cifar_1_split_1
I0504 05:50:38.150331 15122 net.cpp:124] Setting up label_cifar_1_split
I0504 05:50:38.150338 15122 net.cpp:131] Top shape: 1000 (1000)
I0504 05:50:38.150341 15122 net.cpp:131] Top shape: 1000 (1000)
I0504 05:50:38.150344 15122 net.cpp:139] Memory required for data: 12300000
I0504 05:50:38.150347 15122 layer_factory.hpp:77] Creating layer conv0
I0504 05:50:38.150359 15122 net.cpp:86] Creating Layer conv0
I0504 05:50:38.150362 15122 net.cpp:408] conv0 <- data
I0504 05:50:38.150368 15122 net.cpp:382] conv0 -> conv0
I0504 05:50:38.153378 15122 net.cpp:124] Setting up conv0
I0504 05:50:38.153409 15122 net.cpp:131] Top shape: 1000 216 32 32 (221184000)
I0504 05:50:38.153411 15122 net.cpp:139] Memory required for data: 897036000
I0504 05:50:38.153421 15122 layer_factory.hpp:77] Creating layer Sigmoid0
I0504 05:50:38.153429 15122 net.cpp:86] Creating Layer Sigmoid0
I0504 05:50:38.153431 15122 net.cpp:408] Sigmoid0 <- conv0
I0504 05:50:38.153435 15122 net.cpp:382] Sigmoid0 -> Sigmoid0
I0504 05:50:38.154237 15122 net.cpp:124] Setting up Sigmoid0
I0504 05:50:38.154263 15122 net.cpp:131] Top shape: 1000 216 32 32 (221184000)
I0504 05:50:38.154266 15122 net.cpp:139] Memory required for data: 1781772000
I0504 05:50:38.154270 15122 layer_factory.hpp:77] Creating layer pool0
I0504 05:50:38.154278 15122 net.cpp:86] Creating Layer pool0
I0504 05:50:38.154281 15122 net.cpp:408] pool0 <- Sigmoid0
I0504 05:50:38.154286 15122 net.cpp:382] pool0 -> pool0
I0504 05:50:38.154482 15122 net.cpp:124] Setting up pool0
I0504 05:50:38.154491 15122 net.cpp:131] Top shape: 1000 216 16 16 (55296000)
I0504 05:50:38.154495 15122 net.cpp:139] Memory required for data: 2002956000
I0504 05:50:38.154500 15122 layer_factory.hpp:77] Creating layer ip1
I0504 05:50:38.154506 15122 net.cpp:86] Creating Layer ip1
I0504 05:50:38.154510 15122 net.cpp:408] ip1 <- pool0
I0504 05:50:38.154515 15122 net.cpp:382] ip1 -> ip1
I0504 05:50:38.169872 15122 net.cpp:124] Setting up ip1
I0504 05:50:38.169900 15122 net.cpp:131] Top shape: 1000 10 (10000)
I0504 05:50:38.169904 15122 net.cpp:139] Memory required for data: 2002996000
I0504 05:50:38.169912 15122 layer_factory.hpp:77] Creating layer relu1
I0504 05:50:38.169919 15122 net.cpp:86] Creating Layer relu1
I0504 05:50:38.169922 15122 net.cpp:408] relu1 <- ip1
I0504 05:50:38.169927 15122 net.cpp:369] relu1 -> ip1 (in-place)
I0504 05:50:38.170123 15122 net.cpp:124] Setting up relu1
I0504 05:50:38.170131 15122 net.cpp:131] Top shape: 1000 10 (10000)
I0504 05:50:38.170135 15122 net.cpp:139] Memory required for data: 2003036000
I0504 05:50:38.170138 15122 layer_factory.hpp:77] Creating layer ip2
I0504 05:50:38.170145 15122 net.cpp:86] Creating Layer ip2
I0504 05:50:38.170148 15122 net.cpp:408] ip2 <- ip1
I0504 05:50:38.170153 15122 net.cpp:382] ip2 -> ip2
I0504 05:50:38.170303 15122 net.cpp:124] Setting up ip2
I0504 05:50:38.170310 15122 net.cpp:131] Top shape: 1000 180 (180000)
I0504 05:50:38.170313 15122 net.cpp:139] Memory required for data: 2003756000
I0504 05:50:38.170321 15122 layer_factory.hpp:77] Creating layer relu2
I0504 05:50:38.170326 15122 net.cpp:86] Creating Layer relu2
I0504 05:50:38.170330 15122 net.cpp:408] relu2 <- ip2
I0504 05:50:38.170334 15122 net.cpp:369] relu2 -> ip2 (in-place)
I0504 05:50:38.170500 15122 net.cpp:124] Setting up relu2
I0504 05:50:38.170507 15122 net.cpp:131] Top shape: 1000 180 (180000)
I0504 05:50:38.170511 15122 net.cpp:139] Memory required for data: 2004476000
I0504 05:50:38.170521 15122 layer_factory.hpp:77] Creating layer ip3
I0504 05:50:38.170527 15122 net.cpp:86] Creating Layer ip3
I0504 05:50:38.170529 15122 net.cpp:408] ip3 <- ip2
I0504 05:50:38.170534 15122 net.cpp:382] ip3 -> ip3
I0504 05:50:38.170677 15122 net.cpp:124] Setting up ip3
I0504 05:50:38.170684 15122 net.cpp:131] Top shape: 1000 10 (10000)
I0504 05:50:38.170699 15122 net.cpp:139] Memory required for data: 2004516000
I0504 05:50:38.170706 15122 layer_factory.hpp:77] Creating layer ip3_ip3_0_split
I0504 05:50:38.170711 15122 net.cpp:86] Creating Layer ip3_ip3_0_split
I0504 05:50:38.170713 15122 net.cpp:408] ip3_ip3_0_split <- ip3
I0504 05:50:38.170718 15122 net.cpp:382] ip3_ip3_0_split -> ip3_ip3_0_split_0
I0504 05:50:38.170723 15122 net.cpp:382] ip3_ip3_0_split -> ip3_ip3_0_split_1
I0504 05:50:38.170754 15122 net.cpp:124] Setting up ip3_ip3_0_split
I0504 05:50:38.170759 15122 net.cpp:131] Top shape: 1000 10 (10000)
I0504 05:50:38.170763 15122 net.cpp:131] Top shape: 1000 10 (10000)
I0504 05:50:38.170765 15122 net.cpp:139] Memory required for data: 2004596000
I0504 05:50:38.170768 15122 layer_factory.hpp:77] Creating layer accuracy
I0504 05:50:38.170773 15122 net.cpp:86] Creating Layer accuracy
I0504 05:50:38.170776 15122 net.cpp:408] accuracy <- ip3_ip3_0_split_0
I0504 05:50:38.170780 15122 net.cpp:408] accuracy <- label_cifar_1_split_0
I0504 05:50:38.170784 15122 net.cpp:382] accuracy -> accuracy
…
