…
I0504 13:36:23.354109   828 net.cpp:296] The NetState phase (0) differed from the phase (1) specified by a rule in layer cifar
I0504 13:36:23.354128   828 net.cpp:296] The NetState phase (0) differed from the phase (1) specified by a rule in layer accuracy
I0504 13:36:23.354239   828 net.cpp:53] Initializing net from parameters: 
name: "CIFAR"
state {
  phase: TRAIN
  level: 0
  stage: ""
}
layer {
  name: "cifar"
  type: "Data"
  top: "data"
  top: "label"
  include {
    phase: TRAIN
  }
  transform_param {
    mean_file: "examples/cifar10/mean.binaryproto"
  }
  data_param {
    source: "examples/cifar10/cifar10_train_lmdb"
    batch_size: 111
    backend: LMDB
  }
}
layer {
  name: "conv0"
  type: "Convolution"
  bottom: "data"
  top: "conv0"
  param {
    lr_mult: 1
  }
  param {
    lr_mult: 2
  }
  convolution_param {
    num_output: 24
    pad: 2
    kernel_size: 5
    stride: 1
    weight_filler {
      type: "gaussian"
      std: 0.01
    }
    bias_filler {
      type: "constant"
    }
  }
}
layer {
  name: "Sigmoid0"
  type: "Sigmoid"
  bottom: "conv0"
  top: "Sigmoid0"
}
layer {
  name: "pool0"
  type: "Pooling"
  bottom: "Sigmoid0"
  top: "pool0"
  pooling_param {
    pool: AVE
    kernel_size: 3
    stride: 2
  }
}
layer {
  name: "conv1"
  type: "Convolution"
  bottom: "pool0"
  top: "conv1"
  param {
    lr_mult: 1
  }
  param {
    lr_mult: 2
  }
  convolution_param {
    num_output: 216
    pad: 2
    kernel_size: 3
    stride: 1
    weight_filler {
      type: "gaussian"
      std: 0.01
    }
    bias_filler {
      type: "constant"
    }
  }
}
layer {
  name: "Sigmoid1"
  type: "Sigmoid"
  bottom: "conv1"
  top: "Sigmoid1"
}
layer {
  name: "pool1"
  type: "Pooling"
  bottom: "Sigmoid1"
  top: "pool1"
  pooling_param {
    pool: AVE
    kernel_size: 3
    stride: 2
  }
}
layer {
  name: "ip1"
  type: "InnerProduct"
  bottom: "pool1"
  top: "ip1"
  param {
    lr_mult: 1
  }
  param {
    lr_mult: 2
  }
  inner_product_param {
    num_output: 180
    weight_filler {
      type: "gaussian"
      std: 0.01
    }
    bias_filler {
      type: "constant"
    }
  }
}
layer {
  name: "relu1"
  type: "ReLU"
  bottom: "ip1"
  top: "ip1"
}
layer {
  name: "ip2"
  type: "InnerProduct"
  bottom: "ip1"
  top: "ip2"
  param {
    lr_mult: 1
  }
  param {
    lr_mult: 2
  }
  inner_product_param {
    num_output: 10
    weight_filler {
      type: "gaussian"
      std: 0.01
    }
    bias_filler {
      type: "constant"
    }
  }
}
layer {
  name: "relu2"
  type: "ReLU"
  bottom: "ip2"
  top: "ip2"
}
layer {
  name: "ip3"
  type: "InnerProduct"
  bottom: "ip2"
  top: "ip3"
  param {
    lr_mult: 1
  }
  param {
    lr_mult: 2
  }
  inner_product_param {
    num_output: 10
    weight_filler {
      type: "gaussian"
      std: 0.01
    }
    bias_filler {
      type: "constant"
    }
  }
}
layer {
  name: "loss"
  type: "SoftmaxWithLoss"
  bottom: "ip3"
  bottom: "label"
  top: "loss"
}
I0504 13:36:23.354321   828 layer_factory.hpp:77] Creating layer cifar
I0504 13:36:23.354423   828 db_lmdb.cpp:35] Opened lmdb examples/cifar10/cifar10_train_lmdb
I0504 13:36:23.354449   828 net.cpp:86] Creating Layer cifar
I0504 13:36:23.354459   828 net.cpp:382] cifar -> data
I0504 13:36:23.354481   828 net.cpp:382] cifar -> label
I0504 13:36:23.354493   828 data_transformer.cpp:25] Loading mean file from: examples/cifar10/mean.binaryproto
I0504 13:36:23.356686   828 data_layer.cpp:45] output data size: 111,3,32,32
I0504 13:36:23.365424   828 net.cpp:124] Setting up cifar
I0504 13:36:23.365444   828 net.cpp:131] Top shape: 111 3 32 32 (340992)
I0504 13:36:23.365452   828 net.cpp:131] Top shape: 111 (111)
I0504 13:36:23.365454   828 net.cpp:139] Memory required for data: 1364412
I0504 13:36:23.365463   828 layer_factory.hpp:77] Creating layer conv0
I0504 13:36:23.365483   828 net.cpp:86] Creating Layer conv0
I0504 13:36:23.365489   828 net.cpp:408] conv0 <- data
I0504 13:36:23.365502   828 net.cpp:382] conv0 -> conv0
I0504 13:36:23.638243   828 net.cpp:124] Setting up conv0
I0504 13:36:23.638270   828 net.cpp:131] Top shape: 111 24 32 32 (2727936)
I0504 13:36:23.638274   828 net.cpp:139] Memory required for data: 12276156
I0504 13:36:23.638289   828 layer_factory.hpp:77] Creating layer Sigmoid0
I0504 13:36:23.638300   828 net.cpp:86] Creating Layer Sigmoid0
I0504 13:36:23.638304   828 net.cpp:408] Sigmoid0 <- conv0
I0504 13:36:23.638309   828 net.cpp:382] Sigmoid0 -> Sigmoid0
I0504 13:36:23.638491   828 net.cpp:124] Setting up Sigmoid0
I0504 13:36:23.638501   828 net.cpp:131] Top shape: 111 24 32 32 (2727936)
I0504 13:36:23.638504   828 net.cpp:139] Memory required for data: 23187900
I0504 13:36:23.638507   828 layer_factory.hpp:77] Creating layer pool0
I0504 13:36:23.638514   828 net.cpp:86] Creating Layer pool0
I0504 13:36:23.638517   828 net.cpp:408] pool0 <- Sigmoid0
I0504 13:36:23.638521   828 net.cpp:382] pool0 -> pool0
I0504 13:36:23.639227   828 net.cpp:124] Setting up pool0
I0504 13:36:23.639240   828 net.cpp:131] Top shape: 111 24 16 16 (681984)
I0504 13:36:23.639243   828 net.cpp:139] Memory required for data: 25915836
I0504 13:36:23.639247   828 layer_factory.hpp:77] Creating layer conv1
I0504 13:36:23.639259   828 net.cpp:86] Creating Layer conv1
I0504 13:36:23.639262   828 net.cpp:408] conv1 <- pool0
I0504 13:36:23.639267   828 net.cpp:382] conv1 -> conv1
I0504 13:36:23.642994   828 net.cpp:124] Setting up conv1
I0504 13:36:23.643007   828 net.cpp:131] Top shape: 111 216 18 18 (7768224)
I0504 13:36:23.643012   828 net.cpp:139] Memory required for data: 56988732
I0504 13:36:23.643020   828 layer_factory.hpp:77] Creating layer Sigmoid1
I0504 13:36:23.643026   828 net.cpp:86] Creating Layer Sigmoid1
I0504 13:36:23.643029   828 net.cpp:408] Sigmoid1 <- conv1
I0504 13:36:23.643034   828 net.cpp:382] Sigmoid1 -> Sigmoid1
I0504 13:36:23.643213   828 net.cpp:124] Setting up Sigmoid1
I0504 13:36:23.643223   828 net.cpp:131] Top shape: 111 216 18 18 (7768224)
I0504 13:36:23.643225   828 net.cpp:139] Memory required for data: 88061628
I0504 13:36:23.643229   828 layer_factory.hpp:77] Creating layer pool1
I0504 13:36:23.643234   828 net.cpp:86] Creating Layer pool1
I0504 13:36:23.643239   828 net.cpp:408] pool1 <- Sigmoid1
I0504 13:36:23.643242   828 net.cpp:382] pool1 -> pool1
I0504 13:36:23.643395   828 net.cpp:124] Setting up pool1
I0504 13:36:23.643404   828 net.cpp:131] Top shape: 111 216 9 9 (1942056)
I0504 13:36:23.643407   828 net.cpp:139] Memory required for data: 95829852
I0504 13:36:23.643410   828 layer_factory.hpp:77] Creating layer ip1
I0504 13:36:23.643417   828 net.cpp:86] Creating Layer ip1
I0504 13:36:23.643424   828 net.cpp:408] ip1 <- pool1
I0504 13:36:23.643443   828 net.cpp:382] ip1 -> ip1
I0504 13:36:23.724537   828 net.cpp:124] Setting up ip1
I0504 13:36:23.724552   828 net.cpp:131] Top shape: 111 180 (19980)
I0504 13:36:23.724571   828 net.cpp:139] Memory required for data: 95909772
I0504 13:36:23.724580   828 layer_factory.hpp:77] Creating layer relu1
I0504 13:36:23.724586   828 net.cpp:86] Creating Layer relu1
I0504 13:36:23.724589   828 net.cpp:408] relu1 <- ip1
I0504 13:36:23.724594   828 net.cpp:369] relu1 -> ip1 (in-place)
I0504 13:36:23.724793   828 net.cpp:124] Setting up relu1
I0504 13:36:23.724802   828 net.cpp:131] Top shape: 111 180 (19980)
I0504 13:36:23.724805   828 net.cpp:139] Memory required for data: 95989692
I0504 13:36:23.724812   828 layer_factory.hpp:77] Creating layer ip2
I0504 13:36:23.724836   828 net.cpp:86] Creating Layer ip2
I0504 13:36:23.724839   828 net.cpp:408] ip2 <- ip1
I0504 13:36:23.724876   828 net.cpp:382] ip2 -> ip2
I0504 13:36:23.725064   828 net.cpp:124] Setting up ip2
I0504 13:36:23.725071   828 net.cpp:131] Top shape: 111 10 (1110)
I0504 13:36:23.725075   828 net.cpp:139] Memory required for data: 95994132
I0504 13:36:23.725080   828 layer_factory.hpp:77] Creating layer relu2
I0504 13:36:23.725085   828 net.cpp:86] Creating Layer relu2
I0504 13:36:23.725088   828 net.cpp:408] relu2 <- ip2
I0504 13:36:23.725092   828 net.cpp:369] relu2 -> ip2 (in-place)
I0504 13:36:23.725919   828 net.cpp:124] Setting up relu2
I0504 13:36:23.725932   828 net.cpp:131] Top shape: 111 10 (1110)
I0504 13:36:23.725952   828 net.cpp:139] Memory required for data: 95998572
I0504 13:36:23.725955   828 layer_factory.hpp:77] Creating layer ip3
I0504 13:36:23.725976   828 net.cpp:86] Creating Layer ip3
I0504 13:36:23.725980   828 net.cpp:408] ip3 <- ip2
I0504 13:36:23.725986   828 net.cpp:382] ip3 -> ip3
I0504 13:36:23.726094   828 net.cpp:124] Setting up ip3
I0504 13:36:23.726100   828 net.cpp:131] Top shape: 111 10 (1110)
I0504 13:36:23.726104   828 net.cpp:139] Memory required for data: 96003012
I0504 13:36:23.726110   828 layer_factory.hpp:77] Creating layer loss
I0504 13:36:23.726119   828 net.cpp:86] Creating Layer loss
I0504 13:36:23.726137   828 net.cpp:408] loss <- ip3
I0504 13:36:23.726141   828 net.cpp:408] loss <- label
I0504 13:36:23.726146   828 net.cpp:382] loss -> loss
I0504 13:36:23.726163   828 layer_factory.hpp:77] Creating layer loss
…
I0504 13:36:23.726869   828 solver.cpp:173] Creating test net (#0) specified by net file: ECE595/cifar/train_test/var_everything_tiny/cifar_train_test_165.prototxt
I0504 13:36:23.726912   828 net.cpp:296] The NetState phase (1) differed from the phase (0) specified by a rule in layer cifar
I0504 13:36:23.727006   828 net.cpp:53] Initializing net from parameters: 
name: "CIFAR"
state {
  phase: TEST
}
layer {
  name: "cifar"
  type: "Data"
  top: "data"
  top: "label"
  include {
    phase: TEST
  }
  transform_param {
    mean_file: "examples/cifar10/mean.binaryproto"
  }
  data_param {
    source: "examples/cifar10/cifar10_test_lmdb"
    batch_size: 1000
    backend: LMDB
  }
}
layer {
  name: "conv0"
  type: "Convolution"
  bottom: "data"
  top: "conv0"
  param {
    lr_mult: 1
  }
  param {
    lr_mult: 2
  }
  convolution_param {
    num_output: 24
    pad: 2
    kernel_size: 5
    stride: 1
    weight_filler {
      type: "gaussian"
      std: 0.01
    }
    bias_filler {
      type: "constant"
    }
  }
}
layer {
  name: "Sigmoid0"
  type: "Sigmoid"
  bottom: "conv0"
  top: "Sigmoid0"
}
layer {
  name: "pool0"
  type: "Pooling"
  bottom: "Sigmoid0"
  top: "pool0"
  pooling_param {
    pool: AVE
    kernel_size: 3
    stride: 2
  }
}
layer {
  name: "conv1"
  type: "Convolution"
  bottom: "pool0"
  top: "conv1"
  param {
    lr_mult: 1
  }
  param {
    lr_mult: 2
  }
  convolution_param {
    num_output: 216
    pad: 2
    kernel_size: 3
    stride: 1
    weight_filler {
      type: "gaussian"
      std: 0.01
    }
    bias_filler {
      type: "constant"
    }
  }
}
layer {
  name: "Sigmoid1"
  type: "Sigmoid"
  bottom: "conv1"
  top: "Sigmoid1"
}
layer {
  name: "pool1"
  type: "Pooling"
  bottom: "Sigmoid1"
  top: "pool1"
  pooling_param {
    pool: AVE
    kernel_size: 3
    stride: 2
  }
}
layer {
  name: "ip1"
  type: "InnerProduct"
  bottom: "pool1"
  top: "ip1"
  param {
    lr_mult: 1
  }
  param {
    lr_mult: 2
  }
  inner_product_param {
    num_output: 180
    weight_filler {
      type: "gaussian"
      std: 0.01
    }
    bias_filler {
      type: "constant"
    }
  }
}
layer {
  name: "relu1"
  type: "ReLU"
  bottom: "ip1"
  top: "ip1"
}
layer {
  name: "ip2"
  type: "InnerProduct"
  bottom: "ip1"
  top: "ip2"
  param {
    lr_mult: 1
  }
  param {
    lr_mult: 2
  }
  inner_product_param {
    num_output: 10
    weight_filler {
      type: "gaussian"
      std: 0.01
    }
    bias_filler {
      type: "constant"
    }
  }
}
layer {
  name: "relu2"
  type: "ReLU"
  bottom: "ip2"
  top: "ip2"
}
layer {
  name: "ip3"
  type: "InnerProduct"
  bottom: "ip2"
  top: "ip3"
  param {
    lr_mult: 1
  }
  param {
    lr_mult: 2
  }
  inner_product_param {
    num_output: 10
    weight_filler {
      type: "gaussian"
      std: 0.01
    }
    bias_filler {
      type: "constant"
    }
  }
}
layer {
  name: "accuracy"
  type: "Accuracy"
  bottom: "ip3"
  bottom: "label"
  top: "accuracy"
  include {
    phase: TEST
  }
}
layer {
  name: "loss"
  type: "SoftmaxWithLoss"
  bottom: "ip3"
  bottom: "label"
  top: "loss"
}
I0504 13:36:23.727098   828 layer_factory.hpp:77] Creating layer cifar
I0504 13:36:23.727141   828 db_lmdb.cpp:35] Opened lmdb examples/cifar10/cifar10_test_lmdb
I0504 13:36:23.727154   828 net.cpp:86] Creating Layer cifar
I0504 13:36:23.727160   828 net.cpp:382] cifar -> data
I0504 13:36:23.727183   828 net.cpp:382] cifar -> label
I0504 13:36:23.727190   828 data_transformer.cpp:25] Loading mean file from: examples/cifar10/mean.binaryproto
I0504 13:36:23.727327   828 data_layer.cpp:45] output data size: 1000,3,32,32
I0504 13:36:23.749584   828 net.cpp:124] Setting up cifar
I0504 13:36:23.749624   828 net.cpp:131] Top shape: 1000 3 32 32 (3072000)
I0504 13:36:23.749629   828 net.cpp:131] Top shape: 1000 (1000)
I0504 13:36:23.749632   828 net.cpp:139] Memory required for data: 12292000
I0504 13:36:23.749639   828 layer_factory.hpp:77] Creating layer label_cifar_1_split
I0504 13:36:23.749663   828 net.cpp:86] Creating Layer label_cifar_1_split
I0504 13:36:23.749668   828 net.cpp:408] label_cifar_1_split <- label
I0504 13:36:23.749691   828 net.cpp:382] label_cifar_1_split -> label_cifar_1_split_0
I0504 13:36:23.749718   828 net.cpp:382] label_cifar_1_split -> label_cifar_1_split_1
I0504 13:36:23.749851   828 net.cpp:124] Setting up label_cifar_1_split
I0504 13:36:23.749860   828 net.cpp:131] Top shape: 1000 (1000)
I0504 13:36:23.749863   828 net.cpp:131] Top shape: 1000 (1000)
I0504 13:36:23.749866   828 net.cpp:139] Memory required for data: 12300000
I0504 13:36:23.749869   828 layer_factory.hpp:77] Creating layer conv0
I0504 13:36:23.749882   828 net.cpp:86] Creating Layer conv0
I0504 13:36:23.749887   828 net.cpp:408] conv0 <- data
I0504 13:36:23.749893   828 net.cpp:382] conv0 -> conv0
I0504 13:36:23.751543   828 net.cpp:124] Setting up conv0
I0504 13:36:23.751556   828 net.cpp:131] Top shape: 1000 24 32 32 (24576000)
I0504 13:36:23.751576   828 net.cpp:139] Memory required for data: 110604000
I0504 13:36:23.751585   828 layer_factory.hpp:77] Creating layer Sigmoid0
I0504 13:36:23.751593   828 net.cpp:86] Creating Layer Sigmoid0
I0504 13:36:23.751596   828 net.cpp:408] Sigmoid0 <- conv0
I0504 13:36:23.751601   828 net.cpp:382] Sigmoid0 -> Sigmoid0
I0504 13:36:23.751791   828 net.cpp:124] Setting up Sigmoid0
I0504 13:36:23.751811   828 net.cpp:131] Top shape: 1000 24 32 32 (24576000)
I0504 13:36:23.751814   828 net.cpp:139] Memory required for data: 208908000
I0504 13:36:23.751817   828 layer_factory.hpp:77] Creating layer pool0
I0504 13:36:23.751826   828 net.cpp:86] Creating Layer pool0
I0504 13:36:23.751828   828 net.cpp:408] pool0 <- Sigmoid0
I0504 13:36:23.751835   828 net.cpp:382] pool0 -> pool0
I0504 13:36:23.752161   828 net.cpp:124] Setting up pool0
I0504 13:36:23.752171   828 net.cpp:131] Top shape: 1000 24 16 16 (6144000)
I0504 13:36:23.752189   828 net.cpp:139] Memory required for data: 233484000
I0504 13:36:23.752192   828 layer_factory.hpp:77] Creating layer conv1
I0504 13:36:23.752216   828 net.cpp:86] Creating Layer conv1
I0504 13:36:23.752234   828 net.cpp:408] conv1 <- pool0
I0504 13:36:23.752241   828 net.cpp:382] conv1 -> conv1
I0504 13:36:23.755800   828 net.cpp:124] Setting up conv1
I0504 13:36:23.755815   828 net.cpp:131] Top shape: 1000 216 18 18 (69984000)
I0504 13:36:23.755818   828 net.cpp:139] Memory required for data: 513420000
I0504 13:36:23.755828   828 layer_factory.hpp:77] Creating layer Sigmoid1
I0504 13:36:23.755834   828 net.cpp:86] Creating Layer Sigmoid1
I0504 13:36:23.755838   828 net.cpp:408] Sigmoid1 <- conv1
I0504 13:36:23.755843   828 net.cpp:382] Sigmoid1 -> Sigmoid1
I0504 13:36:23.756048   828 net.cpp:124] Setting up Sigmoid1
I0504 13:36:23.756057   828 net.cpp:131] Top shape: 1000 216 18 18 (69984000)
I0504 13:36:23.756060   828 net.cpp:139] Memory required for data: 793356000
I0504 13:36:23.756063   828 layer_factory.hpp:77] Creating layer pool1
I0504 13:36:23.756070   828 net.cpp:86] Creating Layer pool1
I0504 13:36:23.756073   828 net.cpp:408] pool1 <- Sigmoid1
I0504 13:36:23.756078   828 net.cpp:382] pool1 -> pool1
I0504 13:36:23.756922   828 net.cpp:124] Setting up pool1
I0504 13:36:23.756934   828 net.cpp:131] Top shape: 1000 216 9 9 (17496000)
I0504 13:36:23.756953   828 net.cpp:139] Memory required for data: 863340000
I0504 13:36:23.756958   828 layer_factory.hpp:77] Creating layer ip1
I0504 13:36:23.756968   828 net.cpp:86] Creating Layer ip1
I0504 13:36:23.756973   828 net.cpp:408] ip1 <- pool1
I0504 13:36:23.756978   828 net.cpp:382] ip1 -> ip1
I0504 13:36:23.845281   828 net.cpp:124] Setting up ip1
I0504 13:36:23.845336   828 net.cpp:131] Top shape: 1000 180 (180000)
I0504 13:36:23.845340   828 net.cpp:139] Memory required for data: 864060000
I0504 13:36:23.845352   828 layer_factory.hpp:77] Creating layer relu1
I0504 13:36:23.845363   828 net.cpp:86] Creating Layer relu1
I0504 13:36:23.845367   828 net.cpp:408] relu1 <- ip1
I0504 13:36:23.845373   828 net.cpp:369] relu1 -> ip1 (in-place)
I0504 13:36:23.845645   828 net.cpp:124] Setting up relu1
I0504 13:36:23.845654   828 net.cpp:131] Top shape: 1000 180 (180000)
I0504 13:36:23.845657   828 net.cpp:139] Memory required for data: 864780000
I0504 13:36:23.845661   828 layer_factory.hpp:77] Creating layer ip2
I0504 13:36:23.845671   828 net.cpp:86] Creating Layer ip2
I0504 13:36:23.845679   828 net.cpp:408] ip2 <- ip1
I0504 13:36:23.845684   828 net.cpp:382] ip2 -> ip2
I0504 13:36:23.845862   828 net.cpp:124] Setting up ip2
I0504 13:36:23.845870   828 net.cpp:131] Top shape: 1000 10 (10000)
I0504 13:36:23.845872   828 net.cpp:139] Memory required for data: 864820000
I0504 13:36:23.845878   828 layer_factory.hpp:77] Creating layer relu2
I0504 13:36:23.845885   828 net.cpp:86] Creating Layer relu2
I0504 13:36:23.845888   828 net.cpp:408] relu2 <- ip2
I0504 13:36:23.845892   828 net.cpp:369] relu2 -> ip2 (in-place)
I0504 13:36:23.846073   828 net.cpp:124] Setting up relu2
I0504 13:36:23.846082   828 net.cpp:131] Top shape: 1000 10 (10000)
I0504 13:36:23.846101   828 net.cpp:139] Memory required for data: 864860000
I0504 13:36:23.846104   828 layer_factory.hpp:77] Creating layer ip3
I0504 13:36:23.846112   828 net.cpp:86] Creating Layer ip3
I0504 13:36:23.846114   828 net.cpp:408] ip3 <- ip2
I0504 13:36:23.846122   828 net.cpp:382] ip3 -> ip3
I0504 13:36:23.846241   828 net.cpp:124] Setting up ip3
I0504 13:36:23.846262   828 net.cpp:131] Top shape: 1000 10 (10000)
I0504 13:36:23.846266   828 net.cpp:139] Memory required for data: 864900000
I0504 13:36:23.846274   828 layer_factory.hpp:77] Creating layer ip3_ip3_0_split
I0504 13:36:23.846279   828 net.cpp:86] Creating Layer ip3_ip3_0_split
I0504 13:36:23.846287   828 net.cpp:408] ip3_ip3_0_split <- ip3
I0504 13:36:23.846290   828 net.cpp:382] ip3_ip3_0_split -> ip3_ip3_0_split_0
I0504 13:36:23.846295   828 net.cpp:382] ip3_ip3_0_split -> ip3_ip3_0_split_1
I0504 13:36:23.846330   828 net.cpp:124] Setting up ip3_ip3_0_split
I0504 13:36:23.846338   828 net.cpp:131] Top shape: 1000 10 (10000)
I0504 13:36:23.846341   828 net.cpp:131] Top shape: 1000 10 (10000)
I0504 13:36:23.846344   828 net.cpp:139] Memory required for data: 864980000
I0504 13:36:23.846348   828 layer_factory.hpp:77] Creating layer accuracy
I0504 13:36:23.846354   828 net.cpp:86] Creating Layer accuracy
I0504 13:36:23.846357   828 net.cpp:408] accuracy <- ip3_ip3_0_split_0
I0504 13:36:23.846361   828 net.cpp:408] accuracy <- label_cifar_1_split_0
I0504 13:36:23.846366   828 net.cpp:382] accuracy -> accuracy
…
