…
I0504 12:42:05.963600 29734 net.cpp:296] The NetState phase (0) differed from the phase (1) specified by a rule in layer cifar
I0504 12:42:05.963618 29734 net.cpp:296] The NetState phase (0) differed from the phase (1) specified by a rule in layer accuracy
I0504 12:42:05.963722 29734 net.cpp:53] Initializing net from parameters: 
name: "CIFAR"
state {
  phase: TRAIN
  level: 0
  stage: ""
}
layer {
  name: "cifar"
  type: "Data"
  top: "data"
  top: "label"
  include {
    phase: TRAIN
  }
  transform_param {
    mean_file: "examples/cifar10/mean.binaryproto"
  }
  data_param {
    source: "examples/cifar10/cifar10_train_lmdb"
    batch_size: 111
    backend: LMDB
  }
}
layer {
  name: "conv0"
  type: "Convolution"
  bottom: "data"
  top: "conv0"
  param {
    lr_mult: 1
  }
  param {
    lr_mult: 2
  }
  convolution_param {
    num_output: 24
    pad: 2
    kernel_size: 5
    stride: 1
    weight_filler {
      type: "gaussian"
      std: 0.01
    }
    bias_filler {
      type: "constant"
    }
  }
}
layer {
  name: "Sigmoid0"
  type: "Sigmoid"
  bottom: "conv0"
  top: "Sigmoid0"
}
layer {
  name: "pool0"
  type: "Pooling"
  bottom: "Sigmoid0"
  top: "pool0"
  pooling_param {
    pool: AVE
    kernel_size: 3
    stride: 2
  }
}
layer {
  name: "conv1"
  type: "Convolution"
  bottom: "pool0"
  top: "conv1"
  param {
    lr_mult: 1
  }
  param {
    lr_mult: 2
  }
  convolution_param {
    num_output: 216
    pad: 2
    kernel_size: 3
    stride: 1
    weight_filler {
      type: "gaussian"
      std: 0.01
    }
    bias_filler {
      type: "constant"
    }
  }
}
layer {
  name: "Sigmoid1"
  type: "Sigmoid"
  bottom: "conv1"
  top: "Sigmoid1"
}
layer {
  name: "pool1"
  type: "Pooling"
  bottom: "Sigmoid1"
  top: "pool1"
  pooling_param {
    pool: AVE
    kernel_size: 3
    stride: 2
  }
}
layer {
  name: "ip1"
  type: "InnerProduct"
  bottom: "pool1"
  top: "ip1"
  param {
    lr_mult: 1
  }
  param {
    lr_mult: 2
  }
  inner_product_param {
    num_output: 60
    weight_filler {
      type: "gaussian"
      std: 0.01
    }
    bias_filler {
      type: "constant"
    }
  }
}
layer {
  name: "relu1"
  type: "ReLU"
  bottom: "ip1"
  top: "ip1"
}
layer {
  name: "ip2"
  type: "InnerProduct"
  bottom: "ip1"
  top: "ip2"
  param {
    lr_mult: 1
  }
  param {
    lr_mult: 2
  }
  inner_product_param {
    num_output: 10
    weight_filler {
      type: "gaussian"
      std: 0.01
    }
    bias_filler {
      type: "constant"
    }
  }
}
layer {
  name: "loss"
  type: "SoftmaxWithLoss"
  bottom: "ip2"
  bottom: "label"
  top: "loss"
}
I0504 12:42:05.963800 29734 layer_factory.hpp:77] Creating layer cifar
I0504 12:42:05.963896 29734 db_lmdb.cpp:35] Opened lmdb examples/cifar10/cifar10_train_lmdb
I0504 12:42:05.963922 29734 net.cpp:86] Creating Layer cifar
I0504 12:42:05.963932 29734 net.cpp:382] cifar -> data
I0504 12:42:05.963953 29734 net.cpp:382] cifar -> label
I0504 12:42:05.963965 29734 data_transformer.cpp:25] Loading mean file from: examples/cifar10/mean.binaryproto
I0504 12:42:05.966126 29734 data_layer.cpp:45] output data size: 111,3,32,32
I0504 12:42:05.974107 29734 net.cpp:124] Setting up cifar
I0504 12:42:05.974125 29734 net.cpp:131] Top shape: 111 3 32 32 (340992)
I0504 12:42:05.974133 29734 net.cpp:131] Top shape: 111 (111)
I0504 12:42:05.974135 29734 net.cpp:139] Memory required for data: 1364412
I0504 12:42:05.974143 29734 layer_factory.hpp:77] Creating layer conv0
I0504 12:42:05.974161 29734 net.cpp:86] Creating Layer conv0
I0504 12:42:05.974184 29734 net.cpp:408] conv0 <- data
I0504 12:42:05.974198 29734 net.cpp:382] conv0 -> conv0
I0504 12:42:06.239336 29734 net.cpp:124] Setting up conv0
I0504 12:42:06.239377 29734 net.cpp:131] Top shape: 111 24 32 32 (2727936)
I0504 12:42:06.239382 29734 net.cpp:139] Memory required for data: 12276156
I0504 12:42:06.239395 29734 layer_factory.hpp:77] Creating layer Sigmoid0
I0504 12:42:06.239406 29734 net.cpp:86] Creating Layer Sigmoid0
I0504 12:42:06.239410 29734 net.cpp:408] Sigmoid0 <- conv0
I0504 12:42:06.239415 29734 net.cpp:382] Sigmoid0 -> Sigmoid0
I0504 12:42:06.239610 29734 net.cpp:124] Setting up Sigmoid0
I0504 12:42:06.239619 29734 net.cpp:131] Top shape: 111 24 32 32 (2727936)
I0504 12:42:06.239622 29734 net.cpp:139] Memory required for data: 23187900
I0504 12:42:06.239625 29734 layer_factory.hpp:77] Creating layer pool0
I0504 12:42:06.239632 29734 net.cpp:86] Creating Layer pool0
I0504 12:42:06.239635 29734 net.cpp:408] pool0 <- Sigmoid0
I0504 12:42:06.239639 29734 net.cpp:382] pool0 -> pool0
I0504 12:42:06.240381 29734 net.cpp:124] Setting up pool0
I0504 12:42:06.240392 29734 net.cpp:131] Top shape: 111 24 16 16 (681984)
I0504 12:42:06.240411 29734 net.cpp:139] Memory required for data: 25915836
I0504 12:42:06.240416 29734 layer_factory.hpp:77] Creating layer conv1
I0504 12:42:06.240428 29734 net.cpp:86] Creating Layer conv1
I0504 12:42:06.240432 29734 net.cpp:408] conv1 <- pool0
I0504 12:42:06.240439 29734 net.cpp:382] conv1 -> conv1
I0504 12:42:06.244038 29734 net.cpp:124] Setting up conv1
I0504 12:42:06.244051 29734 net.cpp:131] Top shape: 111 216 18 18 (7768224)
I0504 12:42:06.244055 29734 net.cpp:139] Memory required for data: 56988732
I0504 12:42:06.244063 29734 layer_factory.hpp:77] Creating layer Sigmoid1
I0504 12:42:06.244069 29734 net.cpp:86] Creating Layer Sigmoid1
I0504 12:42:06.244071 29734 net.cpp:408] Sigmoid1 <- conv1
I0504 12:42:06.244076 29734 net.cpp:382] Sigmoid1 -> Sigmoid1
I0504 12:42:06.244258 29734 net.cpp:124] Setting up Sigmoid1
I0504 12:42:06.244267 29734 net.cpp:131] Top shape: 111 216 18 18 (7768224)
I0504 12:42:06.244271 29734 net.cpp:139] Memory required for data: 88061628
I0504 12:42:06.244273 29734 layer_factory.hpp:77] Creating layer pool1
I0504 12:42:06.244279 29734 net.cpp:86] Creating Layer pool1
I0504 12:42:06.244282 29734 net.cpp:408] pool1 <- Sigmoid1
I0504 12:42:06.244287 29734 net.cpp:382] pool1 -> pool1
I0504 12:42:06.244449 29734 net.cpp:124] Setting up pool1
I0504 12:42:06.244457 29734 net.cpp:131] Top shape: 111 216 9 9 (1942056)
I0504 12:42:06.244459 29734 net.cpp:139] Memory required for data: 95829852
I0504 12:42:06.244462 29734 layer_factory.hpp:77] Creating layer ip1
I0504 12:42:06.244470 29734 net.cpp:86] Creating Layer ip1
I0504 12:42:06.244473 29734 net.cpp:408] ip1 <- pool1
I0504 12:42:06.244478 29734 net.cpp:382] ip1 -> ip1
I0504 12:42:06.272289 29734 net.cpp:124] Setting up ip1
I0504 12:42:06.272301 29734 net.cpp:131] Top shape: 111 60 (6660)
I0504 12:42:06.272320 29734 net.cpp:139] Memory required for data: 95856492
I0504 12:42:06.272327 29734 layer_factory.hpp:77] Creating layer relu1
I0504 12:42:06.272336 29734 net.cpp:86] Creating Layer relu1
I0504 12:42:06.272338 29734 net.cpp:408] relu1 <- ip1
I0504 12:42:06.272343 29734 net.cpp:369] relu1 -> ip1 (in-place)
I0504 12:42:06.272523 29734 net.cpp:124] Setting up relu1
I0504 12:42:06.272532 29734 net.cpp:131] Top shape: 111 60 (6660)
I0504 12:42:06.272536 29734 net.cpp:139] Memory required for data: 95883132
I0504 12:42:06.272538 29734 layer_factory.hpp:77] Creating layer ip2
I0504 12:42:06.272545 29734 net.cpp:86] Creating Layer ip2
I0504 12:42:06.272548 29734 net.cpp:408] ip2 <- ip1
I0504 12:42:06.272554 29734 net.cpp:382] ip2 -> ip2
I0504 12:42:06.272689 29734 net.cpp:124] Setting up ip2
I0504 12:42:06.272696 29734 net.cpp:131] Top shape: 111 10 (1110)
I0504 12:42:06.272699 29734 net.cpp:139] Memory required for data: 95887572
I0504 12:42:06.272706 29734 layer_factory.hpp:77] Creating layer loss
I0504 12:42:06.272711 29734 net.cpp:86] Creating Layer loss
I0504 12:42:06.272728 29734 net.cpp:408] loss <- ip2
I0504 12:42:06.272732 29734 net.cpp:408] loss <- label
I0504 12:42:06.272737 29734 net.cpp:382] loss -> loss
I0504 12:42:06.272755 29734 layer_factory.hpp:77] Creating layer loss
…
I0504 12:42:06.274108 29734 solver.cpp:173] Creating test net (#0) specified by net file: ECE595/cifar/train_test/var_everything_tiny/cifar_train_test_157.prototxt
I0504 12:42:06.274154 29734 net.cpp:296] The NetState phase (1) differed from the phase (0) specified by a rule in layer cifar
I0504 12:42:06.274293 29734 net.cpp:53] Initializing net from parameters: 
name: "CIFAR"
state {
  phase: TEST
}
layer {
  name: "cifar"
  type: "Data"
  top: "data"
  top: "label"
  include {
    phase: TEST
  }
  transform_param {
    mean_file: "examples/cifar10/mean.binaryproto"
  }
  data_param {
    source: "examples/cifar10/cifar10_test_lmdb"
    batch_size: 1000
    backend: LMDB
  }
}
layer {
  name: "conv0"
  type: "Convolution"
  bottom: "data"
  top: "conv0"
  param {
    lr_mult: 1
  }
  param {
    lr_mult: 2
  }
  convolution_param {
    num_output: 24
    pad: 2
    kernel_size: 5
    stride: 1
    weight_filler {
      type: "gaussian"
      std: 0.01
    }
    bias_filler {
      type: "constant"
    }
  }
}
layer {
  name: "Sigmoid0"
  type: "Sigmoid"
  bottom: "conv0"
  top: "Sigmoid0"
}
layer {
  name: "pool0"
  type: "Pooling"
  bottom: "Sigmoid0"
  top: "pool0"
  pooling_param {
    pool: AVE
    kernel_size: 3
    stride: 2
  }
}
layer {
  name: "conv1"
  type: "Convolution"
  bottom: "pool0"
  top: "conv1"
  param {
    lr_mult: 1
  }
  param {
    lr_mult: 2
  }
  convolution_param {
    num_output: 216
    pad: 2
    kernel_size: 3
    stride: 1
    weight_filler {
      type: "gaussian"
      std: 0.01
    }
    bias_filler {
      type: "constant"
    }
  }
}
layer {
  name: "Sigmoid1"
  type: "Sigmoid"
  bottom: "conv1"
  top: "Sigmoid1"
}
layer {
  name: "pool1"
  type: "Pooling"
  bottom: "Sigmoid1"
  top: "pool1"
  pooling_param {
    pool: AVE
    kernel_size: 3
    stride: 2
  }
}
layer {
  name: "ip1"
  type: "InnerProduct"
  bottom: "pool1"
  top: "ip1"
  param {
    lr_mult: 1
  }
  param {
    lr_mult: 2
  }
  inner_product_param {
    num_output: 60
    weight_filler {
      type: "gaussian"
      std: 0.01
    }
    bias_filler {
      type: "constant"
    }
  }
}
layer {
  name: "relu1"
  type: "ReLU"
  bottom: "ip1"
  top: "ip1"
}
layer {
  name: "ip2"
  type: "InnerProduct"
  bottom: "ip1"
  top: "ip2"
  param {
    lr_mult: 1
  }
  param {
    lr_mult: 2
  }
  inner_product_param {
    num_output: 10
    weight_filler {
      type: "gaussian"
      std: 0.01
    }
    bias_filler {
      type: "constant"
    }
  }
}
layer {
  name: "accuracy"
  type: "Accuracy"
  bottom: "ip2"
  bottom: "label"
  top: "accuracy"
  include {
    phase: TEST
  }
}
layer {
  name: "loss"
  type: "SoftmaxWithLoss"
  bottom: "ip2"
  bottom: "label"
  top: "loss"
}
I0504 12:42:06.274391 29734 layer_factory.hpp:77] Creating layer cifar
I0504 12:42:06.274433 29734 db_lmdb.cpp:35] Opened lmdb examples/cifar10/cifar10_test_lmdb
I0504 12:42:06.274469 29734 net.cpp:86] Creating Layer cifar
I0504 12:42:06.274474 29734 net.cpp:382] cifar -> data
I0504 12:42:06.274483 29734 net.cpp:382] cifar -> label
I0504 12:42:06.274490 29734 data_transformer.cpp:25] Loading mean file from: examples/cifar10/mean.binaryproto
I0504 12:42:06.274641 29734 data_layer.cpp:45] output data size: 1000,3,32,32
I0504 12:42:06.297053 29734 net.cpp:124] Setting up cifar
I0504 12:42:06.297094 29734 net.cpp:131] Top shape: 1000 3 32 32 (3072000)
I0504 12:42:06.297101 29734 net.cpp:131] Top shape: 1000 (1000)
I0504 12:42:06.297103 29734 net.cpp:139] Memory required for data: 12292000
I0504 12:42:06.297111 29734 layer_factory.hpp:77] Creating layer label_cifar_1_split
I0504 12:42:06.297127 29734 net.cpp:86] Creating Layer label_cifar_1_split
I0504 12:42:06.297132 29734 net.cpp:408] label_cifar_1_split <- label
I0504 12:42:06.297137 29734 net.cpp:382] label_cifar_1_split -> label_cifar_1_split_0
I0504 12:42:06.297147 29734 net.cpp:382] label_cifar_1_split -> label_cifar_1_split_1
I0504 12:42:06.297260 29734 net.cpp:124] Setting up label_cifar_1_split
I0504 12:42:06.297267 29734 net.cpp:131] Top shape: 1000 (1000)
I0504 12:42:06.297271 29734 net.cpp:131] Top shape: 1000 (1000)
I0504 12:42:06.297274 29734 net.cpp:139] Memory required for data: 12300000
I0504 12:42:06.297277 29734 layer_factory.hpp:77] Creating layer conv0
I0504 12:42:06.297289 29734 net.cpp:86] Creating Layer conv0
I0504 12:42:06.297292 29734 net.cpp:408] conv0 <- data
I0504 12:42:06.297299 29734 net.cpp:382] conv0 -> conv0
I0504 12:42:06.298215 29734 net.cpp:124] Setting up conv0
I0504 12:42:06.298226 29734 net.cpp:131] Top shape: 1000 24 32 32 (24576000)
I0504 12:42:06.298245 29734 net.cpp:139] Memory required for data: 110604000
I0504 12:42:06.298256 29734 layer_factory.hpp:77] Creating layer Sigmoid0
I0504 12:42:06.298262 29734 net.cpp:86] Creating Layer Sigmoid0
I0504 12:42:06.298265 29734 net.cpp:408] Sigmoid0 <- conv0
I0504 12:42:06.298269 29734 net.cpp:382] Sigmoid0 -> Sigmoid0
I0504 12:42:06.300206 29734 net.cpp:124] Setting up Sigmoid0
I0504 12:42:06.300237 29734 net.cpp:131] Top shape: 1000 24 32 32 (24576000)
I0504 12:42:06.300241 29734 net.cpp:139] Memory required for data: 208908000
I0504 12:42:06.300246 29734 layer_factory.hpp:77] Creating layer pool0
I0504 12:42:06.300258 29734 net.cpp:86] Creating Layer pool0
I0504 12:42:06.300262 29734 net.cpp:408] pool0 <- Sigmoid0
I0504 12:42:06.300268 29734 net.cpp:382] pool0 -> pool0
I0504 12:42:06.300490 29734 net.cpp:124] Setting up pool0
I0504 12:42:06.300500 29734 net.cpp:131] Top shape: 1000 24 16 16 (6144000)
I0504 12:42:06.300503 29734 net.cpp:139] Memory required for data: 233484000
I0504 12:42:06.300506 29734 layer_factory.hpp:77] Creating layer conv1
I0504 12:42:06.300518 29734 net.cpp:86] Creating Layer conv1
I0504 12:42:06.300520 29734 net.cpp:408] conv1 <- pool0
I0504 12:42:06.300528 29734 net.cpp:382] conv1 -> conv1
I0504 12:42:06.303447 29734 net.cpp:124] Setting up conv1
I0504 12:42:06.303475 29734 net.cpp:131] Top shape: 1000 216 18 18 (69984000)
I0504 12:42:06.303479 29734 net.cpp:139] Memory required for data: 513420000
I0504 12:42:06.303488 29734 layer_factory.hpp:77] Creating layer Sigmoid1
I0504 12:42:06.303495 29734 net.cpp:86] Creating Layer Sigmoid1
I0504 12:42:06.303498 29734 net.cpp:408] Sigmoid1 <- conv1
I0504 12:42:06.303503 29734 net.cpp:382] Sigmoid1 -> Sigmoid1
I0504 12:42:06.303692 29734 net.cpp:124] Setting up Sigmoid1
I0504 12:42:06.303701 29734 net.cpp:131] Top shape: 1000 216 18 18 (69984000)
I0504 12:42:06.303705 29734 net.cpp:139] Memory required for data: 793356000
I0504 12:42:06.303709 29734 layer_factory.hpp:77] Creating layer pool1
I0504 12:42:06.303714 29734 net.cpp:86] Creating Layer pool1
I0504 12:42:06.303719 29734 net.cpp:408] pool1 <- Sigmoid1
I0504 12:42:06.303736 29734 net.cpp:382] pool1 -> pool1
I0504 12:42:06.303912 29734 net.cpp:124] Setting up pool1
I0504 12:42:06.303921 29734 net.cpp:131] Top shape: 1000 216 9 9 (17496000)
I0504 12:42:06.303925 29734 net.cpp:139] Memory required for data: 863340000
I0504 12:42:06.303927 29734 layer_factory.hpp:77] Creating layer ip1
I0504 12:42:06.303938 29734 net.cpp:86] Creating Layer ip1
I0504 12:42:06.303942 29734 net.cpp:408] ip1 <- pool1
I0504 12:42:06.303947 29734 net.cpp:382] ip1 -> ip1
I0504 12:42:06.332911 29734 net.cpp:124] Setting up ip1
I0504 12:42:06.332962 29734 net.cpp:131] Top shape: 1000 60 (60000)
I0504 12:42:06.332965 29734 net.cpp:139] Memory required for data: 863580000
I0504 12:42:06.332976 29734 layer_factory.hpp:77] Creating layer relu1
I0504 12:42:06.332986 29734 net.cpp:86] Creating Layer relu1
I0504 12:42:06.332990 29734 net.cpp:408] relu1 <- ip1
I0504 12:42:06.332996 29734 net.cpp:369] relu1 -> ip1 (in-place)
I0504 12:42:06.333873 29734 net.cpp:124] Setting up relu1
I0504 12:42:06.333884 29734 net.cpp:131] Top shape: 1000 60 (60000)
I0504 12:42:06.333904 29734 net.cpp:139] Memory required for data: 863820000
I0504 12:42:06.333906 29734 layer_factory.hpp:77] Creating layer ip2
I0504 12:42:06.333915 29734 net.cpp:86] Creating Layer ip2
I0504 12:42:06.333920 29734 net.cpp:408] ip2 <- ip1
I0504 12:42:06.333926 29734 net.cpp:382] ip2 -> ip2
I0504 12:42:06.334095 29734 net.cpp:124] Setting up ip2
I0504 12:42:06.334110 29734 net.cpp:131] Top shape: 1000 10 (10000)
I0504 12:42:06.334112 29734 net.cpp:139] Memory required for data: 863860000
I0504 12:42:06.334118 29734 layer_factory.hpp:77] Creating layer ip2_ip2_0_split
I0504 12:42:06.334123 29734 net.cpp:86] Creating Layer ip2_ip2_0_split
I0504 12:42:06.334126 29734 net.cpp:408] ip2_ip2_0_split <- ip2
I0504 12:42:06.334131 29734 net.cpp:382] ip2_ip2_0_split -> ip2_ip2_0_split_0
I0504 12:42:06.334136 29734 net.cpp:382] ip2_ip2_0_split -> ip2_ip2_0_split_1
I0504 12:42:06.334172 29734 net.cpp:124] Setting up ip2_ip2_0_split
I0504 12:42:06.334179 29734 net.cpp:131] Top shape: 1000 10 (10000)
I0504 12:42:06.334183 29734 net.cpp:131] Top shape: 1000 10 (10000)
I0504 12:42:06.334187 29734 net.cpp:139] Memory required for data: 863940000
I0504 12:42:06.334189 29734 layer_factory.hpp:77] Creating layer accuracy
I0504 12:42:06.334195 29734 net.cpp:86] Creating Layer accuracy
I0504 12:42:06.334198 29734 net.cpp:408] accuracy <- ip2_ip2_0_split_0
I0504 12:42:06.334203 29734 net.cpp:408] accuracy <- label_cifar_1_split_0
I0504 12:42:06.334208 29734 net.cpp:382] accuracy -> accuracy
…
