…
I0504 08:43:38.939144 22364 net.cpp:296] The NetState phase (0) differed from the phase (1) specified by a rule in layer cifar
I0504 08:43:38.939162 22364 net.cpp:296] The NetState phase (0) differed from the phase (1) specified by a rule in layer accuracy
I0504 08:43:38.939267 22364 net.cpp:53] Initializing net from parameters: 
name: "CIFAR"
state {
  phase: TRAIN
  level: 0
  stage: ""
}
layer {
  name: "cifar"
  type: "Data"
  top: "data"
  top: "label"
  include {
    phase: TRAIN
  }
  transform_param {
    mean_file: "examples/cifar10/mean.binaryproto"
  }
  data_param {
    source: "examples/cifar10/cifar10_train_lmdb"
    batch_size: 111
    backend: LMDB
  }
}
layer {
  name: "conv0"
  type: "Convolution"
  bottom: "data"
  top: "conv0"
  param {
    lr_mult: 1
  }
  param {
    lr_mult: 2
  }
  convolution_param {
    num_output: 24
    pad: 2
    kernel_size: 3
    stride: 1
    weight_filler {
      type: "gaussian"
      std: 0.01
    }
    bias_filler {
      type: "constant"
    }
  }
}
layer {
  name: "Sigmoid0"
  type: "Sigmoid"
  bottom: "conv0"
  top: "Sigmoid0"
}
layer {
  name: "pool0"
  type: "Pooling"
  bottom: "Sigmoid0"
  top: "pool0"
  pooling_param {
    pool: AVE
    kernel_size: 3
    stride: 2
  }
}
layer {
  name: "conv1"
  type: "Convolution"
  bottom: "pool0"
  top: "conv1"
  param {
    lr_mult: 1
  }
  param {
    lr_mult: 2
  }
  convolution_param {
    num_output: 72
    pad: 2
    kernel_size: 3
    stride: 1
    weight_filler {
      type: "gaussian"
      std: 0.01
    }
    bias_filler {
      type: "constant"
    }
  }
}
layer {
  name: "Sigmoid1"
  type: "Sigmoid"
  bottom: "conv1"
  top: "Sigmoid1"
}
layer {
  name: "pool1"
  type: "Pooling"
  bottom: "Sigmoid1"
  top: "pool1"
  pooling_param {
    pool: AVE
    kernel_size: 3
    stride: 2
  }
}
layer {
  name: "ip1"
  type: "InnerProduct"
  bottom: "pool1"
  top: "ip1"
  param {
    lr_mult: 1
  }
  param {
    lr_mult: 2
  }
  inner_product_param {
    num_output: 10
    weight_filler {
      type: "gaussian"
      std: 0.01
    }
    bias_filler {
      type: "constant"
    }
  }
}
layer {
  name: "relu1"
  type: "ReLU"
  bottom: "ip1"
  top: "ip1"
}
layer {
  name: "ip2"
  type: "InnerProduct"
  bottom: "ip1"
  top: "ip2"
  param {
    lr_mult: 1
  }
  param {
    lr_mult: 2
  }
  inner_product_param {
    num_output: 10
    weight_filler {
      type: "gaussian"
      std: 0.01
    }
    bias_filler {
      type: "constant"
    }
  }
}
layer {
  name: "loss"
  type: "SoftmaxWithLoss"
  bottom: "ip2"
  bottom: "label"
  top: "loss"
}
I0504 08:43:38.939347 22364 layer_factory.hpp:77] Creating layer cifar
I0504 08:43:38.939447 22364 db_lmdb.cpp:35] Opened lmdb examples/cifar10/cifar10_train_lmdb
I0504 08:43:38.939478 22364 net.cpp:86] Creating Layer cifar
I0504 08:43:38.939488 22364 net.cpp:382] cifar -> data
I0504 08:43:38.939512 22364 net.cpp:382] cifar -> label
I0504 08:43:38.939525 22364 data_transformer.cpp:25] Loading mean file from: examples/cifar10/mean.binaryproto
I0504 08:43:38.941721 22364 data_layer.cpp:45] output data size: 111,3,32,32
I0504 08:43:38.950731 22364 net.cpp:124] Setting up cifar
I0504 08:43:38.950753 22364 net.cpp:131] Top shape: 111 3 32 32 (340992)
I0504 08:43:38.950760 22364 net.cpp:131] Top shape: 111 (111)
I0504 08:43:38.950763 22364 net.cpp:139] Memory required for data: 1364412
I0504 08:43:38.950772 22364 layer_factory.hpp:77] Creating layer conv0
I0504 08:43:38.950793 22364 net.cpp:86] Creating Layer conv0
I0504 08:43:38.950814 22364 net.cpp:408] conv0 <- data
I0504 08:43:38.950827 22364 net.cpp:382] conv0 -> conv0
I0504 08:43:39.266674 22364 net.cpp:124] Setting up conv0
I0504 08:43:39.266707 22364 net.cpp:131] Top shape: 111 24 34 34 (3079584)
I0504 08:43:39.266713 22364 net.cpp:139] Memory required for data: 13682748
I0504 08:43:39.266732 22364 layer_factory.hpp:77] Creating layer Sigmoid0
I0504 08:43:39.266746 22364 net.cpp:86] Creating Layer Sigmoid0
I0504 08:43:39.266751 22364 net.cpp:408] Sigmoid0 <- conv0
I0504 08:43:39.266757 22364 net.cpp:382] Sigmoid0 -> Sigmoid0
I0504 08:43:39.266980 22364 net.cpp:124] Setting up Sigmoid0
I0504 08:43:39.266993 22364 net.cpp:131] Top shape: 111 24 34 34 (3079584)
I0504 08:43:39.266997 22364 net.cpp:139] Memory required for data: 26001084
I0504 08:43:39.267001 22364 layer_factory.hpp:77] Creating layer pool0
I0504 08:43:39.267009 22364 net.cpp:86] Creating Layer pool0
I0504 08:43:39.267014 22364 net.cpp:408] pool0 <- Sigmoid0
I0504 08:43:39.267019 22364 net.cpp:382] pool0 -> pool0
I0504 08:43:39.267923 22364 net.cpp:124] Setting up pool0
I0504 08:43:39.267940 22364 net.cpp:131] Top shape: 111 24 17 17 (769896)
I0504 08:43:39.267945 22364 net.cpp:139] Memory required for data: 29080668
I0504 08:43:39.267948 22364 layer_factory.hpp:77] Creating layer conv1
I0504 08:43:39.267966 22364 net.cpp:86] Creating Layer conv1
I0504 08:43:39.267971 22364 net.cpp:408] conv1 <- pool0
I0504 08:43:39.267979 22364 net.cpp:382] conv1 -> conv1
I0504 08:43:39.271713 22364 net.cpp:124] Setting up conv1
I0504 08:43:39.271730 22364 net.cpp:131] Top shape: 111 72 19 19 (2885112)
I0504 08:43:39.271735 22364 net.cpp:139] Memory required for data: 40621116
I0504 08:43:39.271747 22364 layer_factory.hpp:77] Creating layer Sigmoid1
I0504 08:43:39.271755 22364 net.cpp:86] Creating Layer Sigmoid1
I0504 08:43:39.271759 22364 net.cpp:408] Sigmoid1 <- conv1
I0504 08:43:39.271767 22364 net.cpp:382] Sigmoid1 -> Sigmoid1
I0504 08:43:39.271993 22364 net.cpp:124] Setting up Sigmoid1
I0504 08:43:39.272006 22364 net.cpp:131] Top shape: 111 72 19 19 (2885112)
I0504 08:43:39.272009 22364 net.cpp:139] Memory required for data: 52161564
I0504 08:43:39.272013 22364 layer_factory.hpp:77] Creating layer pool1
I0504 08:43:39.272020 22364 net.cpp:86] Creating Layer pool1
I0504 08:43:39.272024 22364 net.cpp:408] pool1 <- Sigmoid1
I0504 08:43:39.272030 22364 net.cpp:382] pool1 -> pool1
I0504 08:43:39.272241 22364 net.cpp:124] Setting up pool1
I0504 08:43:39.272253 22364 net.cpp:131] Top shape: 111 72 9 9 (647352)
I0504 08:43:39.272255 22364 net.cpp:139] Memory required for data: 54750972
I0504 08:43:39.272259 22364 layer_factory.hpp:77] Creating layer ip1
I0504 08:43:39.272269 22364 net.cpp:86] Creating Layer ip1
I0504 08:43:39.272274 22364 net.cpp:408] ip1 <- pool1
I0504 08:43:39.272279 22364 net.cpp:382] ip1 -> ip1
I0504 08:43:39.275315 22364 net.cpp:124] Setting up ip1
I0504 08:43:39.275331 22364 net.cpp:131] Top shape: 111 10 (1110)
I0504 08:43:39.275334 22364 net.cpp:139] Memory required for data: 54755412
I0504 08:43:39.275344 22364 layer_factory.hpp:77] Creating layer relu1
I0504 08:43:39.275355 22364 net.cpp:86] Creating Layer relu1
I0504 08:43:39.275362 22364 net.cpp:408] relu1 <- ip1
I0504 08:43:39.275367 22364 net.cpp:369] relu1 -> ip1 (in-place)
I0504 08:43:39.275578 22364 net.cpp:124] Setting up relu1
I0504 08:43:39.275589 22364 net.cpp:131] Top shape: 111 10 (1110)
I0504 08:43:39.275593 22364 net.cpp:139] Memory required for data: 54759852
I0504 08:43:39.275596 22364 layer_factory.hpp:77] Creating layer ip2
I0504 08:43:39.275604 22364 net.cpp:86] Creating Layer ip2
I0504 08:43:39.275609 22364 net.cpp:408] ip2 <- ip1
I0504 08:43:39.275615 22364 net.cpp:382] ip2 -> ip2
I0504 08:43:39.275745 22364 net.cpp:124] Setting up ip2
I0504 08:43:39.275754 22364 net.cpp:131] Top shape: 111 10 (1110)
I0504 08:43:39.275758 22364 net.cpp:139] Memory required for data: 54764292
I0504 08:43:39.275770 22364 layer_factory.hpp:77] Creating layer loss
I0504 08:43:39.275779 22364 net.cpp:86] Creating Layer loss
I0504 08:43:39.275797 22364 net.cpp:408] loss <- ip2
I0504 08:43:39.275802 22364 net.cpp:408] loss <- label
I0504 08:43:39.275809 22364 net.cpp:382] loss -> loss
I0504 08:43:39.275830 22364 layer_factory.hpp:77] Creating layer loss
…
I0504 08:43:39.277287 22364 solver.cpp:173] Creating test net (#0) specified by net file: ECE595/cifar/train_test/var_everything_tiny/cifar_train_test_108.prototxt
I0504 08:43:39.277318 22364 net.cpp:296] The NetState phase (1) differed from the phase (0) specified by a rule in layer cifar
I0504 08:43:39.277431 22364 net.cpp:53] Initializing net from parameters: 
name: "CIFAR"
state {
  phase: TEST
}
layer {
  name: "cifar"
  type: "Data"
  top: "data"
  top: "label"
  include {
    phase: TEST
  }
  transform_param {
    mean_file: "examples/cifar10/mean.binaryproto"
  }
  data_param {
    source: "examples/cifar10/cifar10_test_lmdb"
    batch_size: 1000
    backend: LMDB
  }
}
layer {
  name: "conv0"
  type: "Convolution"
  bottom: "data"
  top: "conv0"
  param {
    lr_mult: 1
  }
  param {
    lr_mult: 2
  }
  convolution_param {
    num_output: 24
    pad: 2
    kernel_size: 3
    stride: 1
    weight_filler {
      type: "gaussian"
      std: 0.01
    }
    bias_filler {
      type: "constant"
    }
  }
}
layer {
  name: "Sigmoid0"
  type: "Sigmoid"
  bottom: "conv0"
  top: "Sigmoid0"
}
layer {
  name: "pool0"
  type: "Pooling"
  bottom: "Sigmoid0"
  top: "pool0"
  pooling_param {
    pool: AVE
    kernel_size: 3
    stride: 2
  }
}
layer {
  name: "conv1"
  type: "Convolution"
  bottom: "pool0"
  top: "conv1"
  param {
    lr_mult: 1
  }
  param {
    lr_mult: 2
  }
  convolution_param {
    num_output: 72
    pad: 2
    kernel_size: 3
    stride: 1
    weight_filler {
      type: "gaussian"
      std: 0.01
    }
    bias_filler {
      type: "constant"
    }
  }
}
layer {
  name: "Sigmoid1"
  type: "Sigmoid"
  bottom: "conv1"
  top: "Sigmoid1"
}
layer {
  name: "pool1"
  type: "Pooling"
  bottom: "Sigmoid1"
  top: "pool1"
  pooling_param {
    pool: AVE
    kernel_size: 3
    stride: 2
  }
}
layer {
  name: "ip1"
  type: "InnerProduct"
  bottom: "pool1"
  top: "ip1"
  param {
    lr_mult: 1
  }
  param {
    lr_mult: 2
  }
  inner_product_param {
    num_output: 10
    weight_filler {
      type: "gaussian"
      std: 0.01
    }
    bias_filler {
      type: "constant"
    }
  }
}
layer {
  name: "relu1"
  type: "ReLU"
  bottom: "ip1"
  top: "ip1"
}
layer {
  name: "ip2"
  type: "InnerProduct"
  bottom: "ip1"
  top: "ip2"
  param {
    lr_mult: 1
  }
  param {
    lr_mult: 2
  }
  inner_product_param {
    num_output: 10
    weight_filler {
      type: "gaussian"
      std: 0.01
    }
    bias_filler {
      type: "constant"
    }
  }
}
layer {
  name: "accuracy"
  type: "Accuracy"
  bottom: "ip2"
  bottom: "label"
  top: "accuracy"
  include {
    phase: TEST
  }
}
layer {
  name: "loss"
  type: "SoftmaxWithLoss"
  bottom: "ip2"
  bottom: "label"
  top: "loss"
}
I0504 08:43:39.277530 22364 layer_factory.hpp:77] Creating layer cifar
I0504 08:43:39.277587 22364 db_lmdb.cpp:35] Opened lmdb examples/cifar10/cifar10_test_lmdb
I0504 08:43:39.277606 22364 net.cpp:86] Creating Layer cifar
I0504 08:43:39.277611 22364 net.cpp:382] cifar -> data
I0504 08:43:39.277622 22364 net.cpp:382] cifar -> label
I0504 08:43:39.277631 22364 data_transformer.cpp:25] Loading mean file from: examples/cifar10/mean.binaryproto
I0504 08:43:39.277817 22364 data_layer.cpp:45] output data size: 1000,3,32,32
I0504 08:43:39.304118 22364 net.cpp:124] Setting up cifar
I0504 08:43:39.304149 22364 net.cpp:131] Top shape: 1000 3 32 32 (3072000)
I0504 08:43:39.304159 22364 net.cpp:131] Top shape: 1000 (1000)
I0504 08:43:39.304162 22364 net.cpp:139] Memory required for data: 12292000
I0504 08:43:39.304169 22364 layer_factory.hpp:77] Creating layer label_cifar_1_split
I0504 08:43:39.304188 22364 net.cpp:86] Creating Layer label_cifar_1_split
I0504 08:43:39.304193 22364 net.cpp:408] label_cifar_1_split <- label
I0504 08:43:39.304200 22364 net.cpp:382] label_cifar_1_split -> label_cifar_1_split_0
I0504 08:43:39.304211 22364 net.cpp:382] label_cifar_1_split -> label_cifar_1_split_1
I0504 08:43:39.304347 22364 net.cpp:124] Setting up label_cifar_1_split
I0504 08:43:39.304358 22364 net.cpp:131] Top shape: 1000 (1000)
I0504 08:43:39.304363 22364 net.cpp:131] Top shape: 1000 (1000)
I0504 08:43:39.304365 22364 net.cpp:139] Memory required for data: 12300000
I0504 08:43:39.304369 22364 layer_factory.hpp:77] Creating layer conv0
I0504 08:43:39.304385 22364 net.cpp:86] Creating Layer conv0
I0504 08:43:39.304389 22364 net.cpp:408] conv0 <- data
I0504 08:43:39.304397 22364 net.cpp:382] conv0 -> conv0
I0504 08:43:39.305454 22364 net.cpp:124] Setting up conv0
I0504 08:43:39.305470 22364 net.cpp:131] Top shape: 1000 24 34 34 (27744000)
I0504 08:43:39.305474 22364 net.cpp:139] Memory required for data: 123276000
I0504 08:43:39.305486 22364 layer_factory.hpp:77] Creating layer Sigmoid0
I0504 08:43:39.305495 22364 net.cpp:86] Creating Layer Sigmoid0
I0504 08:43:39.305500 22364 net.cpp:408] Sigmoid0 <- conv0
I0504 08:43:39.305505 22364 net.cpp:382] Sigmoid0 -> Sigmoid0
I0504 08:43:39.306594 22364 net.cpp:124] Setting up Sigmoid0
I0504 08:43:39.306612 22364 net.cpp:131] Top shape: 1000 24 34 34 (27744000)
I0504 08:43:39.306617 22364 net.cpp:139] Memory required for data: 234252000
I0504 08:43:39.306622 22364 layer_factory.hpp:77] Creating layer pool0
I0504 08:43:39.306632 22364 net.cpp:86] Creating Layer pool0
I0504 08:43:39.306635 22364 net.cpp:408] pool0 <- Sigmoid0
I0504 08:43:39.306641 22364 net.cpp:382] pool0 -> pool0
I0504 08:43:39.306861 22364 net.cpp:124] Setting up pool0
I0504 08:43:39.306872 22364 net.cpp:131] Top shape: 1000 24 17 17 (6936000)
I0504 08:43:39.306876 22364 net.cpp:139] Memory required for data: 261996000
I0504 08:43:39.306885 22364 layer_factory.hpp:77] Creating layer conv1
I0504 08:43:39.306897 22364 net.cpp:86] Creating Layer conv1
I0504 08:43:39.306901 22364 net.cpp:408] conv1 <- pool0
I0504 08:43:39.306910 22364 net.cpp:382] conv1 -> conv1
I0504 08:43:39.310052 22364 net.cpp:124] Setting up conv1
I0504 08:43:39.310073 22364 net.cpp:131] Top shape: 1000 72 19 19 (25992000)
I0504 08:43:39.310078 22364 net.cpp:139] Memory required for data: 365964000
I0504 08:43:39.310091 22364 layer_factory.hpp:77] Creating layer Sigmoid1
I0504 08:43:39.310098 22364 net.cpp:86] Creating Layer Sigmoid1
I0504 08:43:39.310102 22364 net.cpp:408] Sigmoid1 <- conv1
I0504 08:43:39.310108 22364 net.cpp:382] Sigmoid1 -> Sigmoid1
I0504 08:43:39.310335 22364 net.cpp:124] Setting up Sigmoid1
I0504 08:43:39.310348 22364 net.cpp:131] Top shape: 1000 72 19 19 (25992000)
I0504 08:43:39.310351 22364 net.cpp:139] Memory required for data: 469932000
I0504 08:43:39.310355 22364 layer_factory.hpp:77] Creating layer pool1
I0504 08:43:39.310364 22364 net.cpp:86] Creating Layer pool1
I0504 08:43:39.310367 22364 net.cpp:408] pool1 <- Sigmoid1
I0504 08:43:39.310390 22364 net.cpp:382] pool1 -> pool1
I0504 08:43:39.310602 22364 net.cpp:124] Setting up pool1
I0504 08:43:39.310614 22364 net.cpp:131] Top shape: 1000 72 9 9 (5832000)
I0504 08:43:39.310618 22364 net.cpp:139] Memory required for data: 493260000
I0504 08:43:39.310623 22364 layer_factory.hpp:77] Creating layer ip1
I0504 08:43:39.310636 22364 net.cpp:86] Creating Layer ip1
I0504 08:43:39.310639 22364 net.cpp:408] ip1 <- pool1
I0504 08:43:39.310647 22364 net.cpp:382] ip1 -> ip1
I0504 08:43:39.312721 22364 net.cpp:124] Setting up ip1
I0504 08:43:39.312732 22364 net.cpp:131] Top shape: 1000 10 (10000)
I0504 08:43:39.312736 22364 net.cpp:139] Memory required for data: 493300000
I0504 08:43:39.312746 22364 layer_factory.hpp:77] Creating layer relu1
I0504 08:43:39.312752 22364 net.cpp:86] Creating Layer relu1
I0504 08:43:39.312757 22364 net.cpp:408] relu1 <- ip1
I0504 08:43:39.312762 22364 net.cpp:369] relu1 -> ip1 (in-place)
I0504 08:43:39.313660 22364 net.cpp:124] Setting up relu1
I0504 08:43:39.313678 22364 net.cpp:131] Top shape: 1000 10 (10000)
I0504 08:43:39.313681 22364 net.cpp:139] Memory required for data: 493340000
I0504 08:43:39.313685 22364 layer_factory.hpp:77] Creating layer ip2
I0504 08:43:39.313700 22364 net.cpp:86] Creating Layer ip2
I0504 08:43:39.313705 22364 net.cpp:408] ip2 <- ip1
I0504 08:43:39.313714 22364 net.cpp:382] ip2 -> ip2
I0504 08:43:39.313853 22364 net.cpp:124] Setting up ip2
I0504 08:43:39.313863 22364 net.cpp:131] Top shape: 1000 10 (10000)
I0504 08:43:39.313866 22364 net.cpp:139] Memory required for data: 493380000
I0504 08:43:39.313874 22364 layer_factory.hpp:77] Creating layer ip2_ip2_0_split
I0504 08:43:39.313879 22364 net.cpp:86] Creating Layer ip2_ip2_0_split
I0504 08:43:39.313884 22364 net.cpp:408] ip2_ip2_0_split <- ip2
I0504 08:43:39.313889 22364 net.cpp:382] ip2_ip2_0_split -> ip2_ip2_0_split_0
I0504 08:43:39.313895 22364 net.cpp:382] ip2_ip2_0_split -> ip2_ip2_0_split_1
I0504 08:43:39.313937 22364 net.cpp:124] Setting up ip2_ip2_0_split
I0504 08:43:39.313944 22364 net.cpp:131] Top shape: 1000 10 (10000)
I0504 08:43:39.313951 22364 net.cpp:131] Top shape: 1000 10 (10000)
I0504 08:43:39.313954 22364 net.cpp:139] Memory required for data: 493460000
I0504 08:43:39.313957 22364 layer_factory.hpp:77] Creating layer accuracy
I0504 08:43:39.313964 22364 net.cpp:86] Creating Layer accuracy
I0504 08:43:39.313967 22364 net.cpp:408] accuracy <- ip2_ip2_0_split_0
I0504 08:43:39.313972 22364 net.cpp:408] accuracy <- label_cifar_1_split_0
I0504 08:43:39.313979 22364 net.cpp:382] accuracy -> accuracy
…
