…
I0504 00:30:14.994787  5521 net.cpp:296] The NetState phase (0) differed from the phase (1) specified by a rule in layer cifar
I0504 00:30:14.994817  5521 net.cpp:296] The NetState phase (0) differed from the phase (1) specified by a rule in layer accuracy
I0504 00:30:14.994982  5521 net.cpp:53] Initializing net from parameters: 
name: "CIFAR"
state {
  phase: TRAIN
  level: 0
  stage: ""
}
layer {
  name: "cifar"
  type: "Data"
  top: "data"
  top: "label"
  include {
    phase: TRAIN
  }
  transform_param {
    mean_file: "examples/cifar10/mean.binaryproto"
  }
  data_param {
    source: "examples/cifar10/cifar10_train_lmdb"
    batch_size: 111
    backend: LMDB
  }
}
layer {
  name: "conv0"
  type: "Convolution"
  bottom: "data"
  top: "conv0"
  param {
    lr_mult: 1
  }
  param {
    lr_mult: 2
  }
  convolution_param {
    num_output: 24
    pad: 2
    kernel_size: 5
    stride: 1
    weight_filler {
      type: "gaussian"
      std: 0.01
    }
    bias_filler {
      type: "constant"
    }
  }
}
layer {
  name: "Sigmoid0"
  type: "Sigmoid"
  bottom: "conv0"
  top: "Sigmoid0"
}
layer {
  name: "pool0"
  type: "Pooling"
  bottom: "Sigmoid0"
  top: "pool0"
  pooling_param {
    pool: AVE
    kernel_size: 3
    stride: 2
  }
}
layer {
  name: "ip1"
  type: "InnerProduct"
  bottom: "pool0"
  top: "ip1"
  param {
    lr_mult: 1
  }
  param {
    lr_mult: 2
  }
  inner_product_param {
    num_output: 60
    weight_filler {
      type: "gaussian"
      std: 0.01
    }
    bias_filler {
      type: "constant"
    }
  }
}
layer {
  name: "relu1"
  type: "ReLU"
  bottom: "ip1"
  top: "ip1"
}
layer {
  name: "ip2"
  type: "InnerProduct"
  bottom: "ip1"
  top: "ip2"
  param {
    lr_mult: 1
  }
  param {
    lr_mult: 2
  }
  inner_product_param {
    num_output: 180
    weight_filler {
      type: "gaussian"
      std: 0.01
    }
    bias_filler {
      type: "constant"
    }
  }
}
layer {
  name: "relu2"
  type: "ReLU"
  bottom: "ip2"
  top: "ip2"
}
layer {
  name: "ip3"
  type: "InnerProduct"
  bottom: "ip2"
  top: "ip3"
  param {
    lr_mult: 1
  }
  param {
    lr_mult: 2
  }
  inner_product_param {
    num_output: 10
    weight_filler {
      type: "gaussian"
      std: 0.01
    }
    bias_filler {
      type: "constant"
    }
  }
}
layer {
  name: "loss"
  type: "SoftmaxWithLoss"
  bottom: "ip3"
  bottom: "label"
  top: "loss"
}
I0504 00:30:14.995106  5521 layer_factory.hpp:77] Creating layer cifar
I0504 00:30:14.995275  5521 db_lmdb.cpp:35] Opened lmdb examples/cifar10/cifar10_train_lmdb
I0504 00:30:14.995321  5521 net.cpp:86] Creating Layer cifar
I0504 00:30:14.995337  5521 net.cpp:382] cifar -> data
I0504 00:30:14.995376  5521 net.cpp:382] cifar -> label
I0504 00:30:14.995398  5521 data_transformer.cpp:25] Loading mean file from: examples/cifar10/mean.binaryproto
I0504 00:30:14.998750  5521 data_layer.cpp:45] output data size: 111,3,32,32
I0504 00:30:15.011461  5521 net.cpp:124] Setting up cifar
I0504 00:30:15.011490  5521 net.cpp:131] Top shape: 111 3 32 32 (340992)
I0504 00:30:15.011503  5521 net.cpp:131] Top shape: 111 (111)
I0504 00:30:15.011509  5521 net.cpp:139] Memory required for data: 1364412
I0504 00:30:15.011521  5521 layer_factory.hpp:77] Creating layer conv0
I0504 00:30:15.011549  5521 net.cpp:86] Creating Layer conv0
I0504 00:30:15.011561  5521 net.cpp:408] conv0 <- data
I0504 00:30:15.011586  5521 net.cpp:382] conv0 -> conv0
I0504 00:30:15.327350  5521 net.cpp:124] Setting up conv0
I0504 00:30:15.327406  5521 net.cpp:131] Top shape: 111 24 32 32 (2727936)
I0504 00:30:15.327412  5521 net.cpp:139] Memory required for data: 12276156
I0504 00:30:15.327431  5521 layer_factory.hpp:77] Creating layer Sigmoid0
I0504 00:30:15.327445  5521 net.cpp:86] Creating Layer Sigmoid0
I0504 00:30:15.327450  5521 net.cpp:408] Sigmoid0 <- conv0
I0504 00:30:15.327456  5521 net.cpp:382] Sigmoid0 -> Sigmoid0
I0504 00:30:15.327668  5521 net.cpp:124] Setting up Sigmoid0
I0504 00:30:15.327680  5521 net.cpp:131] Top shape: 111 24 32 32 (2727936)
I0504 00:30:15.327684  5521 net.cpp:139] Memory required for data: 23187900
I0504 00:30:15.327689  5521 layer_factory.hpp:77] Creating layer pool0
I0504 00:30:15.327698  5521 net.cpp:86] Creating Layer pool0
I0504 00:30:15.327702  5521 net.cpp:408] pool0 <- Sigmoid0
I0504 00:30:15.327708  5521 net.cpp:382] pool0 -> pool0
I0504 00:30:15.328583  5521 net.cpp:124] Setting up pool0
I0504 00:30:15.328598  5521 net.cpp:131] Top shape: 111 24 16 16 (681984)
I0504 00:30:15.328603  5521 net.cpp:139] Memory required for data: 25915836
I0504 00:30:15.328606  5521 layer_factory.hpp:77] Creating layer ip1
I0504 00:30:15.328619  5521 net.cpp:86] Creating Layer ip1
I0504 00:30:15.328622  5521 net.cpp:408] ip1 <- pool0
I0504 00:30:15.328629  5521 net.cpp:382] ip1 -> ip1
I0504 00:30:15.341825  5521 net.cpp:124] Setting up ip1
I0504 00:30:15.341840  5521 net.cpp:131] Top shape: 111 60 (6660)
I0504 00:30:15.341845  5521 net.cpp:139] Memory required for data: 25942476
I0504 00:30:15.341855  5521 layer_factory.hpp:77] Creating layer relu1
I0504 00:30:15.341861  5521 net.cpp:86] Creating Layer relu1
I0504 00:30:15.341866  5521 net.cpp:408] relu1 <- ip1
I0504 00:30:15.341871  5521 net.cpp:369] relu1 -> ip1 (in-place)
I0504 00:30:15.342056  5521 net.cpp:124] Setting up relu1
I0504 00:30:15.342067  5521 net.cpp:131] Top shape: 111 60 (6660)
I0504 00:30:15.342070  5521 net.cpp:139] Memory required for data: 25969116
I0504 00:30:15.342073  5521 layer_factory.hpp:77] Creating layer ip2
I0504 00:30:15.342082  5521 net.cpp:86] Creating Layer ip2
I0504 00:30:15.342085  5521 net.cpp:408] ip2 <- ip1
I0504 00:30:15.342092  5521 net.cpp:382] ip2 -> ip2
I0504 00:30:15.343533  5521 net.cpp:124] Setting up ip2
I0504 00:30:15.343547  5521 net.cpp:131] Top shape: 111 180 (19980)
I0504 00:30:15.343551  5521 net.cpp:139] Memory required for data: 26049036
I0504 00:30:15.343561  5521 layer_factory.hpp:77] Creating layer relu2
I0504 00:30:15.343567  5521 net.cpp:86] Creating Layer relu2
I0504 00:30:15.343571  5521 net.cpp:408] relu2 <- ip2
I0504 00:30:15.343577  5521 net.cpp:369] relu2 -> ip2 (in-place)
I0504 00:30:15.343801  5521 net.cpp:124] Setting up relu2
I0504 00:30:15.343812  5521 net.cpp:131] Top shape: 111 180 (19980)
I0504 00:30:15.343816  5521 net.cpp:139] Memory required for data: 26128956
I0504 00:30:15.343821  5521 layer_factory.hpp:77] Creating layer ip3
I0504 00:30:15.343832  5521 net.cpp:86] Creating Layer ip3
I0504 00:30:15.343835  5521 net.cpp:408] ip3 <- ip2
I0504 00:30:15.343842  5521 net.cpp:382] ip3 -> ip3
I0504 00:30:15.344029  5521 net.cpp:124] Setting up ip3
I0504 00:30:15.344039  5521 net.cpp:131] Top shape: 111 10 (1110)
I0504 00:30:15.344043  5521 net.cpp:139] Memory required for data: 26133396
I0504 00:30:15.344049  5521 layer_factory.hpp:77] Creating layer loss
I0504 00:30:15.344056  5521 net.cpp:86] Creating Layer loss
I0504 00:30:15.344060  5521 net.cpp:408] loss <- ip3
I0504 00:30:15.344064  5521 net.cpp:408] loss <- label
I0504 00:30:15.344071  5521 net.cpp:382] loss -> loss
I0504 00:30:15.344092  5521 layer_factory.hpp:77] Creating layer loss
…
I0504 00:30:15.344843  5521 solver.cpp:173] Creating test net (#0) specified by net file: ECE595/cifar/train_test/var_everything_tiny/cifar_train_test_20.prototxt
I0504 00:30:15.344876  5521 net.cpp:296] The NetState phase (1) differed from the phase (0) specified by a rule in layer cifar
I0504 00:30:15.344982  5521 net.cpp:53] Initializing net from parameters: 
name: "CIFAR"
state {
  phase: TEST
}
layer {
  name: "cifar"
  type: "Data"
  top: "data"
  top: "label"
  include {
    phase: TEST
  }
  transform_param {
    mean_file: "examples/cifar10/mean.binaryproto"
  }
  data_param {
    source: "examples/cifar10/cifar10_test_lmdb"
    batch_size: 1000
    backend: LMDB
  }
}
layer {
  name: "conv0"
  type: "Convolution"
  bottom: "data"
  top: "conv0"
  param {
    lr_mult: 1
  }
  param {
    lr_mult: 2
  }
  convolution_param {
    num_output: 24
    pad: 2
    kernel_size: 5
    stride: 1
    weight_filler {
      type: "gaussian"
      std: 0.01
    }
    bias_filler {
      type: "constant"
    }
  }
}
layer {
  name: "Sigmoid0"
  type: "Sigmoid"
  bottom: "conv0"
  top: "Sigmoid0"
}
layer {
  name: "pool0"
  type: "Pooling"
  bottom: "Sigmoid0"
  top: "pool0"
  pooling_param {
    pool: AVE
    kernel_size: 3
    stride: 2
  }
}
layer {
  name: "ip1"
  type: "InnerProduct"
  bottom: "pool0"
  top: "ip1"
  param {
    lr_mult: 1
  }
  param {
    lr_mult: 2
  }
  inner_product_param {
    num_output: 60
    weight_filler {
      type: "gaussian"
      std: 0.01
    }
    bias_filler {
      type: "constant"
    }
  }
}
layer {
  name: "relu1"
  type: "ReLU"
  bottom: "ip1"
  top: "ip1"
}
layer {
  name: "ip2"
  type: "InnerProduct"
  bottom: "ip1"
  top: "ip2"
  param {
    lr_mult: 1
  }
  param {
    lr_mult: 2
  }
  inner_product_param {
    num_output: 180
    weight_filler {
      type: "gaussian"
      std: 0.01
    }
    bias_filler {
      type: "constant"
    }
  }
}
layer {
  name: "relu2"
  type: "ReLU"
  bottom: "ip2"
  top: "ip2"
}
layer {
  name: "ip3"
  type: "InnerProduct"
  bottom: "ip2"
  top: "ip3"
  param {
    lr_mult: 1
  }
  param {
    lr_mult: 2
  }
  inner_product_param {
    num_output: 10
    weight_filler {
      type: "gaussian"
      std: 0.01
    }
    bias_filler {
      type: "constant"
    }
  }
}
layer {
  name: "accuracy"
  type: "Accuracy"
  bottom: "ip3"
  bottom: "label"
  top: "accuracy"
  include {
    phase: TEST
  }
}
layer {
  name: "loss"
  type: "SoftmaxWithLoss"
  bottom: "ip3"
  bottom: "label"
  top: "loss"
}
I0504 00:30:15.345060  5521 layer_factory.hpp:77] Creating layer cifar
I0504 00:30:15.345113  5521 db_lmdb.cpp:35] Opened lmdb examples/cifar10/cifar10_test_lmdb
I0504 00:30:15.345129  5521 net.cpp:86] Creating Layer cifar
I0504 00:30:15.345152  5521 net.cpp:382] cifar -> data
I0504 00:30:15.345162  5521 net.cpp:382] cifar -> label
I0504 00:30:15.345170  5521 data_transformer.cpp:25] Loading mean file from: examples/cifar10/mean.binaryproto
I0504 00:30:15.345351  5521 data_layer.cpp:45] output data size: 1000,3,32,32
I0504 00:30:15.371278  5521 net.cpp:124] Setting up cifar
I0504 00:30:15.371307  5521 net.cpp:131] Top shape: 1000 3 32 32 (3072000)
I0504 00:30:15.371315  5521 net.cpp:131] Top shape: 1000 (1000)
I0504 00:30:15.371318  5521 net.cpp:139] Memory required for data: 12292000
I0504 00:30:15.371325  5521 layer_factory.hpp:77] Creating layer label_cifar_1_split
I0504 00:30:15.371361  5521 net.cpp:86] Creating Layer label_cifar_1_split
I0504 00:30:15.371366  5521 net.cpp:408] label_cifar_1_split <- label
I0504 00:30:15.371373  5521 net.cpp:382] label_cifar_1_split -> label_cifar_1_split_0
I0504 00:30:15.371386  5521 net.cpp:382] label_cifar_1_split -> label_cifar_1_split_1
I0504 00:30:15.371484  5521 net.cpp:124] Setting up label_cifar_1_split
I0504 00:30:15.371493  5521 net.cpp:131] Top shape: 1000 (1000)
I0504 00:30:15.371498  5521 net.cpp:131] Top shape: 1000 (1000)
I0504 00:30:15.371502  5521 net.cpp:139] Memory required for data: 12300000
I0504 00:30:15.371505  5521 layer_factory.hpp:77] Creating layer conv0
I0504 00:30:15.371520  5521 net.cpp:86] Creating Layer conv0
I0504 00:30:15.371526  5521 net.cpp:408] conv0 <- data
I0504 00:30:15.371534  5521 net.cpp:382] conv0 -> conv0
I0504 00:30:15.373423  5521 net.cpp:124] Setting up conv0
I0504 00:30:15.373442  5521 net.cpp:131] Top shape: 1000 24 32 32 (24576000)
I0504 00:30:15.373446  5521 net.cpp:139] Memory required for data: 110604000
I0504 00:30:15.373458  5521 layer_factory.hpp:77] Creating layer Sigmoid0
I0504 00:30:15.373466  5521 net.cpp:86] Creating Layer Sigmoid0
I0504 00:30:15.373471  5521 net.cpp:408] Sigmoid0 <- conv0
I0504 00:30:15.373476  5521 net.cpp:382] Sigmoid0 -> Sigmoid0
I0504 00:30:15.374503  5521 net.cpp:124] Setting up Sigmoid0
I0504 00:30:15.374518  5521 net.cpp:131] Top shape: 1000 24 32 32 (24576000)
I0504 00:30:15.374522  5521 net.cpp:139] Memory required for data: 208908000
I0504 00:30:15.374526  5521 layer_factory.hpp:77] Creating layer pool0
I0504 00:30:15.374536  5521 net.cpp:86] Creating Layer pool0
I0504 00:30:15.374541  5521 net.cpp:408] pool0 <- Sigmoid0
I0504 00:30:15.374548  5521 net.cpp:382] pool0 -> pool0
I0504 00:30:15.375715  5521 net.cpp:124] Setting up pool0
I0504 00:30:15.375726  5521 net.cpp:131] Top shape: 1000 24 16 16 (6144000)
I0504 00:30:15.375730  5521 net.cpp:139] Memory required for data: 233484000
I0504 00:30:15.375735  5521 layer_factory.hpp:77] Creating layer ip1
I0504 00:30:15.375746  5521 net.cpp:86] Creating Layer ip1
I0504 00:30:15.375751  5521 net.cpp:408] ip1 <- pool0
I0504 00:30:15.375756  5521 net.cpp:382] ip1 -> ip1
I0504 00:30:15.388949  5521 net.cpp:124] Setting up ip1
I0504 00:30:15.388967  5521 net.cpp:131] Top shape: 1000 60 (60000)
I0504 00:30:15.388972  5521 net.cpp:139] Memory required for data: 233724000
I0504 00:30:15.388983  5521 layer_factory.hpp:77] Creating layer relu1
I0504 00:30:15.388991  5521 net.cpp:86] Creating Layer relu1
I0504 00:30:15.388996  5521 net.cpp:408] relu1 <- ip1
I0504 00:30:15.389003  5521 net.cpp:369] relu1 -> ip1 (in-place)
I0504 00:30:15.389215  5521 net.cpp:124] Setting up relu1
I0504 00:30:15.389226  5521 net.cpp:131] Top shape: 1000 60 (60000)
I0504 00:30:15.389230  5521 net.cpp:139] Memory required for data: 233964000
I0504 00:30:15.389233  5521 layer_factory.hpp:77] Creating layer ip2
I0504 00:30:15.389242  5521 net.cpp:86] Creating Layer ip2
I0504 00:30:15.389246  5521 net.cpp:408] ip2 <- ip1
I0504 00:30:15.389252  5521 net.cpp:382] ip2 -> ip2
I0504 00:30:15.389740  5521 net.cpp:124] Setting up ip2
I0504 00:30:15.389750  5521 net.cpp:131] Top shape: 1000 180 (180000)
I0504 00:30:15.389755  5521 net.cpp:139] Memory required for data: 234684000
I0504 00:30:15.389763  5521 layer_factory.hpp:77] Creating layer relu2
I0504 00:30:15.389772  5521 net.cpp:86] Creating Layer relu2
I0504 00:30:15.389776  5521 net.cpp:408] relu2 <- ip2
I0504 00:30:15.389781  5521 net.cpp:369] relu2 -> ip2 (in-place)
I0504 00:30:15.389986  5521 net.cpp:124] Setting up relu2
I0504 00:30:15.389995  5521 net.cpp:131] Top shape: 1000 180 (180000)
I0504 00:30:15.389999  5521 net.cpp:139] Memory required for data: 235404000
I0504 00:30:15.390003  5521 layer_factory.hpp:77] Creating layer ip3
I0504 00:30:15.390012  5521 net.cpp:86] Creating Layer ip3
I0504 00:30:15.390015  5521 net.cpp:408] ip3 <- ip2
I0504 00:30:15.390023  5521 net.cpp:382] ip3 -> ip3
I0504 00:30:15.390213  5521 net.cpp:124] Setting up ip3
I0504 00:30:15.390221  5521 net.cpp:131] Top shape: 1000 10 (10000)
I0504 00:30:15.390240  5521 net.cpp:139] Memory required for data: 235444000
I0504 00:30:15.390247  5521 layer_factory.hpp:77] Creating layer ip3_ip3_0_split
I0504 00:30:15.390254  5521 net.cpp:86] Creating Layer ip3_ip3_0_split
I0504 00:30:15.390257  5521 net.cpp:408] ip3_ip3_0_split <- ip3
I0504 00:30:15.390264  5521 net.cpp:382] ip3_ip3_0_split -> ip3_ip3_0_split_0
I0504 00:30:15.390270  5521 net.cpp:382] ip3_ip3_0_split -> ip3_ip3_0_split_1
I0504 00:30:15.390311  5521 net.cpp:124] Setting up ip3_ip3_0_split
I0504 00:30:15.390318  5521 net.cpp:131] Top shape: 1000 10 (10000)
I0504 00:30:15.390323  5521 net.cpp:131] Top shape: 1000 10 (10000)
I0504 00:30:15.390326  5521 net.cpp:139] Memory required for data: 235524000
I0504 00:30:15.390331  5521 layer_factory.hpp:77] Creating layer accuracy
I0504 00:30:15.390339  5521 net.cpp:86] Creating Layer accuracy
I0504 00:30:15.390342  5521 net.cpp:408] accuracy <- ip3_ip3_0_split_0
I0504 00:30:15.390347  5521 net.cpp:408] accuracy <- label_cifar_1_split_0
I0504 00:30:15.390353  5521 net.cpp:382] accuracy -> accuracy
…
