…
I0504 07:40:11.254775 19650 net.cpp:296] The NetState phase (0) differed from the phase (1) specified by a rule in layer cifar
I0504 07:40:11.254788 19650 net.cpp:296] The NetState phase (0) differed from the phase (1) specified by a rule in layer accuracy
I0504 07:40:11.254876 19650 net.cpp:53] Initializing net from parameters: 
name: "CIFAR"
state {
  phase: TRAIN
  level: 0
  stage: ""
}
layer {
  name: "cifar"
  type: "Data"
  top: "data"
  top: "label"
  include {
    phase: TRAIN
  }
  transform_param {
    mean_file: "examples/cifar10/mean.binaryproto"
  }
  data_param {
    source: "examples/cifar10/cifar10_train_lmdb"
    batch_size: 111
    backend: LMDB
  }
}
layer {
  name: "conv0"
  type: "Convolution"
  bottom: "data"
  top: "conv0"
  param {
    lr_mult: 1
  }
  param {
    lr_mult: 2
  }
  convolution_param {
    num_output: 24
    pad: 2
    kernel_size: 5
    stride: 1
    weight_filler {
      type: "gaussian"
      std: 0.01
    }
    bias_filler {
      type: "constant"
    }
  }
}
layer {
  name: "Sigmoid0"
  type: "Sigmoid"
  bottom: "conv0"
  top: "Sigmoid0"
}
layer {
  name: "pool0"
  type: "Pooling"
  bottom: "Sigmoid0"
  top: "pool0"
  pooling_param {
    pool: AVE
    kernel_size: 3
    stride: 2
  }
}
layer {
  name: "conv1"
  type: "Convolution"
  bottom: "pool0"
  top: "conv1"
  param {
    lr_mult: 1
  }
  param {
    lr_mult: 2
  }
  convolution_param {
    num_output: 24
    pad: 2
    kernel_size: 3
    stride: 1
    weight_filler {
      type: "gaussian"
      std: 0.01
    }
    bias_filler {
      type: "constant"
    }
  }
}
layer {
  name: "Sigmoid1"
  type: "Sigmoid"
  bottom: "conv1"
  top: "Sigmoid1"
}
layer {
  name: "pool1"
  type: "Pooling"
  bottom: "Sigmoid1"
  top: "pool1"
  pooling_param {
    pool: AVE
    kernel_size: 3
    stride: 2
  }
}
layer {
  name: "ip1"
  type: "InnerProduct"
  bottom: "pool1"
  top: "ip1"
  param {
    lr_mult: 1
  }
  param {
    lr_mult: 2
  }
  inner_product_param {
    num_output: 10
    weight_filler {
      type: "gaussian"
      std: 0.01
    }
    bias_filler {
      type: "constant"
    }
  }
}
layer {
  name: "relu1"
  type: "ReLU"
  bottom: "ip1"
  top: "ip1"
}
layer {
  name: "ip2"
  type: "InnerProduct"
  bottom: "ip1"
  top: "ip2"
  param {
    lr_mult: 1
  }
  param {
    lr_mult: 2
  }
  inner_product_param {
    num_output: 10
    weight_filler {
      type: "gaussian"
      std: 0.01
    }
    bias_filler {
      type: "constant"
    }
  }
}
layer {
  name: "loss"
  type: "SoftmaxWithLoss"
  bottom: "ip2"
  bottom: "label"
  top: "loss"
}
I0504 07:40:11.254933 19650 layer_factory.hpp:77] Creating layer cifar
I0504 07:40:11.255017 19650 db_lmdb.cpp:35] Opened lmdb examples/cifar10/cifar10_train_lmdb
I0504 07:40:11.255038 19650 net.cpp:86] Creating Layer cifar
I0504 07:40:11.255044 19650 net.cpp:382] cifar -> data
I0504 07:40:11.255062 19650 net.cpp:382] cifar -> label
I0504 07:40:11.255071 19650 data_transformer.cpp:25] Loading mean file from: examples/cifar10/mean.binaryproto
I0504 07:40:11.256858 19650 data_layer.cpp:45] output data size: 111,3,32,32
I0504 07:40:11.263384 19650 net.cpp:124] Setting up cifar
I0504 07:40:11.263429 19650 net.cpp:131] Top shape: 111 3 32 32 (340992)
I0504 07:40:11.263435 19650 net.cpp:131] Top shape: 111 (111)
I0504 07:40:11.263438 19650 net.cpp:139] Memory required for data: 1364412
I0504 07:40:11.263444 19650 layer_factory.hpp:77] Creating layer conv0
I0504 07:40:11.263458 19650 net.cpp:86] Creating Layer conv0
I0504 07:40:11.263475 19650 net.cpp:408] conv0 <- data
I0504 07:40:11.263485 19650 net.cpp:382] conv0 -> conv0
I0504 07:40:11.494001 19650 net.cpp:124] Setting up conv0
I0504 07:40:11.494043 19650 net.cpp:131] Top shape: 111 24 32 32 (2727936)
I0504 07:40:11.494047 19650 net.cpp:139] Memory required for data: 12276156
I0504 07:40:11.494060 19650 layer_factory.hpp:77] Creating layer Sigmoid0
I0504 07:40:11.494072 19650 net.cpp:86] Creating Layer Sigmoid0
I0504 07:40:11.494076 19650 net.cpp:408] Sigmoid0 <- conv0
I0504 07:40:11.494082 19650 net.cpp:382] Sigmoid0 -> Sigmoid0
I0504 07:40:11.494278 19650 net.cpp:124] Setting up Sigmoid0
I0504 07:40:11.494287 19650 net.cpp:131] Top shape: 111 24 32 32 (2727936)
I0504 07:40:11.494292 19650 net.cpp:139] Memory required for data: 23187900
I0504 07:40:11.494294 19650 layer_factory.hpp:77] Creating layer pool0
I0504 07:40:11.494300 19650 net.cpp:86] Creating Layer pool0
I0504 07:40:11.494303 19650 net.cpp:408] pool0 <- Sigmoid0
I0504 07:40:11.494308 19650 net.cpp:382] pool0 -> pool0
I0504 07:40:11.495002 19650 net.cpp:124] Setting up pool0
I0504 07:40:11.495030 19650 net.cpp:131] Top shape: 111 24 16 16 (681984)
I0504 07:40:11.495033 19650 net.cpp:139] Memory required for data: 25915836
I0504 07:40:11.495036 19650 layer_factory.hpp:77] Creating layer conv1
I0504 07:40:11.495048 19650 net.cpp:86] Creating Layer conv1
I0504 07:40:11.495051 19650 net.cpp:408] conv1 <- pool0
I0504 07:40:11.495056 19650 net.cpp:382] conv1 -> conv1
I0504 07:40:11.497678 19650 net.cpp:124] Setting up conv1
I0504 07:40:11.497690 19650 net.cpp:131] Top shape: 111 24 18 18 (863136)
I0504 07:40:11.497694 19650 net.cpp:139] Memory required for data: 29368380
I0504 07:40:11.497701 19650 layer_factory.hpp:77] Creating layer Sigmoid1
I0504 07:40:11.497707 19650 net.cpp:86] Creating Layer Sigmoid1
I0504 07:40:11.497710 19650 net.cpp:408] Sigmoid1 <- conv1
I0504 07:40:11.497714 19650 net.cpp:382] Sigmoid1 -> Sigmoid1
I0504 07:40:11.497889 19650 net.cpp:124] Setting up Sigmoid1
I0504 07:40:11.497897 19650 net.cpp:131] Top shape: 111 24 18 18 (863136)
I0504 07:40:11.497900 19650 net.cpp:139] Memory required for data: 32820924
I0504 07:40:11.497903 19650 layer_factory.hpp:77] Creating layer pool1
I0504 07:40:11.497908 19650 net.cpp:86] Creating Layer pool1
I0504 07:40:11.497911 19650 net.cpp:408] pool1 <- Sigmoid1
I0504 07:40:11.497915 19650 net.cpp:382] pool1 -> pool1
I0504 07:40:11.498065 19650 net.cpp:124] Setting up pool1
I0504 07:40:11.498073 19650 net.cpp:131] Top shape: 111 24 9 9 (215784)
I0504 07:40:11.498076 19650 net.cpp:139] Memory required for data: 33684060
I0504 07:40:11.498080 19650 layer_factory.hpp:77] Creating layer ip1
I0504 07:40:11.498086 19650 net.cpp:86] Creating Layer ip1
I0504 07:40:11.498090 19650 net.cpp:408] ip1 <- pool1
I0504 07:40:11.498093 19650 net.cpp:382] ip1 -> ip1
I0504 07:40:11.499465 19650 net.cpp:124] Setting up ip1
I0504 07:40:11.499476 19650 net.cpp:131] Top shape: 111 10 (1110)
I0504 07:40:11.499495 19650 net.cpp:139] Memory required for data: 33688500
I0504 07:40:11.499502 19650 layer_factory.hpp:77] Creating layer relu1
I0504 07:40:11.499510 19650 net.cpp:86] Creating Layer relu1
I0504 07:40:11.499512 19650 net.cpp:408] relu1 <- ip1
I0504 07:40:11.499517 19650 net.cpp:369] relu1 -> ip1 (in-place)
I0504 07:40:11.499701 19650 net.cpp:124] Setting up relu1
I0504 07:40:11.499708 19650 net.cpp:131] Top shape: 111 10 (1110)
I0504 07:40:11.499711 19650 net.cpp:139] Memory required for data: 33692940
I0504 07:40:11.499714 19650 layer_factory.hpp:77] Creating layer ip2
I0504 07:40:11.499721 19650 net.cpp:86] Creating Layer ip2
I0504 07:40:11.499723 19650 net.cpp:408] ip2 <- ip1
I0504 07:40:11.499727 19650 net.cpp:382] ip2 -> ip2
I0504 07:40:11.499819 19650 net.cpp:124] Setting up ip2
I0504 07:40:11.499825 19650 net.cpp:131] Top shape: 111 10 (1110)
I0504 07:40:11.499828 19650 net.cpp:139] Memory required for data: 33697380
I0504 07:40:11.499833 19650 layer_factory.hpp:77] Creating layer loss
I0504 07:40:11.499838 19650 net.cpp:86] Creating Layer loss
I0504 07:40:11.499861 19650 net.cpp:408] loss <- ip2
I0504 07:40:11.499864 19650 net.cpp:408] loss <- label
I0504 07:40:11.499869 19650 net.cpp:382] loss -> loss
I0504 07:40:11.499881 19650 layer_factory.hpp:77] Creating layer loss
…
I0504 07:40:11.501138 19650 solver.cpp:173] Creating test net (#0) specified by net file: ECE595/cifar/train_test/var_everything_tiny/cifar_train_test_84.prototxt
I0504 07:40:11.501165 19650 net.cpp:296] The NetState phase (1) differed from the phase (0) specified by a rule in layer cifar
I0504 07:40:11.501278 19650 net.cpp:53] Initializing net from parameters: 
name: "CIFAR"
state {
  phase: TEST
}
layer {
  name: "cifar"
  type: "Data"
  top: "data"
  top: "label"
  include {
    phase: TEST
  }
  transform_param {
    mean_file: "examples/cifar10/mean.binaryproto"
  }
  data_param {
    source: "examples/cifar10/cifar10_test_lmdb"
    batch_size: 1000
    backend: LMDB
  }
}
layer {
  name: "conv0"
  type: "Convolution"
  bottom: "data"
  top: "conv0"
  param {
    lr_mult: 1
  }
  param {
    lr_mult: 2
  }
  convolution_param {
    num_output: 24
    pad: 2
    kernel_size: 5
    stride: 1
    weight_filler {
      type: "gaussian"
      std: 0.01
    }
    bias_filler {
      type: "constant"
    }
  }
}
layer {
  name: "Sigmoid0"
  type: "Sigmoid"
  bottom: "conv0"
  top: "Sigmoid0"
}
layer {
  name: "pool0"
  type: "Pooling"
  bottom: "Sigmoid0"
  top: "pool0"
  pooling_param {
    pool: AVE
    kernel_size: 3
    stride: 2
  }
}
layer {
  name: "conv1"
  type: "Convolution"
  bottom: "pool0"
  top: "conv1"
  param {
    lr_mult: 1
  }
  param {
    lr_mult: 2
  }
  convolution_param {
    num_output: 24
    pad: 2
    kernel_size: 3
    stride: 1
    weight_filler {
      type: "gaussian"
      std: 0.01
    }
    bias_filler {
      type: "constant"
    }
  }
}
layer {
  name: "Sigmoid1"
  type: "Sigmoid"
  bottom: "conv1"
  top: "Sigmoid1"
}
layer {
  name: "pool1"
  type: "Pooling"
  bottom: "Sigmoid1"
  top: "pool1"
  pooling_param {
    pool: AVE
    kernel_size: 3
    stride: 2
  }
}
layer {
  name: "ip1"
  type: "InnerProduct"
  bottom: "pool1"
  top: "ip1"
  param {
    lr_mult: 1
  }
  param {
    lr_mult: 2
  }
  inner_product_param {
    num_output: 10
    weight_filler {
      type: "gaussian"
      std: 0.01
    }
    bias_filler {
      type: "constant"
    }
  }
}
layer {
  name: "relu1"
  type: "ReLU"
  bottom: "ip1"
  top: "ip1"
}
layer {
  name: "ip2"
  type: "InnerProduct"
  bottom: "ip1"
  top: "ip2"
  param {
    lr_mult: 1
  }
  param {
    lr_mult: 2
  }
  inner_product_param {
    num_output: 10
    weight_filler {
      type: "gaussian"
      std: 0.01
    }
    bias_filler {
      type: "constant"
    }
  }
}
layer {
  name: "accuracy"
  type: "Accuracy"
  bottom: "ip2"
  bottom: "label"
  top: "accuracy"
  include {
    phase: TEST
  }
}
layer {
  name: "loss"
  type: "SoftmaxWithLoss"
  bottom: "ip2"
  bottom: "label"
  top: "loss"
}
I0504 07:40:11.501351 19650 layer_factory.hpp:77] Creating layer cifar
I0504 07:40:11.501397 19650 db_lmdb.cpp:35] Opened lmdb examples/cifar10/cifar10_test_lmdb
I0504 07:40:11.501408 19650 net.cpp:86] Creating Layer cifar
I0504 07:40:11.501413 19650 net.cpp:382] cifar -> data
I0504 07:40:11.501420 19650 net.cpp:382] cifar -> label
I0504 07:40:11.501426 19650 data_transformer.cpp:25] Loading mean file from: examples/cifar10/mean.binaryproto
I0504 07:40:11.501575 19650 data_layer.cpp:45] output data size: 1000,3,32,32
I0504 07:40:11.522930 19650 net.cpp:124] Setting up cifar
I0504 07:40:11.522970 19650 net.cpp:131] Top shape: 1000 3 32 32 (3072000)
I0504 07:40:11.522976 19650 net.cpp:131] Top shape: 1000 (1000)
I0504 07:40:11.522979 19650 net.cpp:139] Memory required for data: 12292000
I0504 07:40:11.522985 19650 layer_factory.hpp:77] Creating layer label_cifar_1_split
I0504 07:40:11.522999 19650 net.cpp:86] Creating Layer label_cifar_1_split
I0504 07:40:11.523002 19650 net.cpp:408] label_cifar_1_split <- label
I0504 07:40:11.523008 19650 net.cpp:382] label_cifar_1_split -> label_cifar_1_split_0
I0504 07:40:11.523016 19650 net.cpp:382] label_cifar_1_split -> label_cifar_1_split_1
I0504 07:40:11.523139 19650 net.cpp:124] Setting up label_cifar_1_split
I0504 07:40:11.523146 19650 net.cpp:131] Top shape: 1000 (1000)
I0504 07:40:11.523150 19650 net.cpp:131] Top shape: 1000 (1000)
I0504 07:40:11.523152 19650 net.cpp:139] Memory required for data: 12300000
I0504 07:40:11.523155 19650 layer_factory.hpp:77] Creating layer conv0
I0504 07:40:11.523167 19650 net.cpp:86] Creating Layer conv0
I0504 07:40:11.523170 19650 net.cpp:408] conv0 <- data
I0504 07:40:11.523175 19650 net.cpp:382] conv0 -> conv0
I0504 07:40:11.523998 19650 net.cpp:124] Setting up conv0
I0504 07:40:11.524008 19650 net.cpp:131] Top shape: 1000 24 32 32 (24576000)
I0504 07:40:11.524026 19650 net.cpp:139] Memory required for data: 110604000
I0504 07:40:11.524035 19650 layer_factory.hpp:77] Creating layer Sigmoid0
I0504 07:40:11.524041 19650 net.cpp:86] Creating Layer Sigmoid0
I0504 07:40:11.524044 19650 net.cpp:408] Sigmoid0 <- conv0
I0504 07:40:11.524049 19650 net.cpp:382] Sigmoid0 -> Sigmoid0
I0504 07:40:11.525952 19650 net.cpp:124] Setting up Sigmoid0
I0504 07:40:11.525980 19650 net.cpp:131] Top shape: 1000 24 32 32 (24576000)
I0504 07:40:11.525985 19650 net.cpp:139] Memory required for data: 208908000
I0504 07:40:11.525990 19650 layer_factory.hpp:77] Creating layer pool0
I0504 07:40:11.526013 19650 net.cpp:86] Creating Layer pool0
I0504 07:40:11.526016 19650 net.cpp:408] pool0 <- Sigmoid0
I0504 07:40:11.526021 19650 net.cpp:382] pool0 -> pool0
I0504 07:40:11.526186 19650 net.cpp:124] Setting up pool0
I0504 07:40:11.526196 19650 net.cpp:131] Top shape: 1000 24 16 16 (6144000)
I0504 07:40:11.526198 19650 net.cpp:139] Memory required for data: 233484000
I0504 07:40:11.526201 19650 layer_factory.hpp:77] Creating layer conv1
I0504 07:40:11.526211 19650 net.cpp:86] Creating Layer conv1
I0504 07:40:11.526213 19650 net.cpp:408] conv1 <- pool0
I0504 07:40:11.526219 19650 net.cpp:382] conv1 -> conv1
I0504 07:40:11.527658 19650 net.cpp:124] Setting up conv1
I0504 07:40:11.527671 19650 net.cpp:131] Top shape: 1000 24 18 18 (7776000)
I0504 07:40:11.527693 19650 net.cpp:139] Memory required for data: 264588000
I0504 07:40:11.527701 19650 layer_factory.hpp:77] Creating layer Sigmoid1
I0504 07:40:11.527707 19650 net.cpp:86] Creating Layer Sigmoid1
I0504 07:40:11.527711 19650 net.cpp:408] Sigmoid1 <- conv1
I0504 07:40:11.527715 19650 net.cpp:382] Sigmoid1 -> Sigmoid1
I0504 07:40:11.527899 19650 net.cpp:124] Setting up Sigmoid1
I0504 07:40:11.527909 19650 net.cpp:131] Top shape: 1000 24 18 18 (7776000)
I0504 07:40:11.527912 19650 net.cpp:139] Memory required for data: 295692000
I0504 07:40:11.527915 19650 layer_factory.hpp:77] Creating layer pool1
I0504 07:40:11.527920 19650 net.cpp:86] Creating Layer pool1
I0504 07:40:11.527925 19650 net.cpp:408] pool1 <- Sigmoid1
I0504 07:40:11.527928 19650 net.cpp:382] pool1 -> pool1
I0504 07:40:11.528108 19650 net.cpp:124] Setting up pool1
I0504 07:40:11.528117 19650 net.cpp:131] Top shape: 1000 24 9 9 (1944000)
I0504 07:40:11.528120 19650 net.cpp:139] Memory required for data: 303468000
I0504 07:40:11.528123 19650 layer_factory.hpp:77] Creating layer ip1
I0504 07:40:11.528131 19650 net.cpp:86] Creating Layer ip1
I0504 07:40:11.528136 19650 net.cpp:408] ip1 <- pool1
I0504 07:40:11.528139 19650 net.cpp:382] ip1 -> ip1
I0504 07:40:11.528761 19650 net.cpp:124] Setting up ip1
I0504 07:40:11.528769 19650 net.cpp:131] Top shape: 1000 10 (10000)
I0504 07:40:11.528786 19650 net.cpp:139] Memory required for data: 303508000
I0504 07:40:11.528794 19650 layer_factory.hpp:77] Creating layer relu1
I0504 07:40:11.528800 19650 net.cpp:86] Creating Layer relu1
I0504 07:40:11.528803 19650 net.cpp:408] relu1 <- ip1
I0504 07:40:11.528807 19650 net.cpp:369] relu1 -> ip1 (in-place)
I0504 07:40:11.529644 19650 net.cpp:124] Setting up relu1
I0504 07:40:11.529656 19650 net.cpp:131] Top shape: 1000 10 (10000)
I0504 07:40:11.529676 19650 net.cpp:139] Memory required for data: 303548000
I0504 07:40:11.529680 19650 layer_factory.hpp:77] Creating layer ip2
I0504 07:40:11.529688 19650 net.cpp:86] Creating Layer ip2
I0504 07:40:11.529691 19650 net.cpp:408] ip2 <- ip1
I0504 07:40:11.529696 19650 net.cpp:382] ip2 -> ip2
I0504 07:40:11.529805 19650 net.cpp:124] Setting up ip2
I0504 07:40:11.529813 19650 net.cpp:131] Top shape: 1000 10 (10000)
I0504 07:40:11.529815 19650 net.cpp:139] Memory required for data: 303588000
I0504 07:40:11.529822 19650 layer_factory.hpp:77] Creating layer ip2_ip2_0_split
I0504 07:40:11.529827 19650 net.cpp:86] Creating Layer ip2_ip2_0_split
I0504 07:40:11.529830 19650 net.cpp:408] ip2_ip2_0_split <- ip2
I0504 07:40:11.529835 19650 net.cpp:382] ip2_ip2_0_split -> ip2_ip2_0_split_0
I0504 07:40:11.529839 19650 net.cpp:382] ip2_ip2_0_split -> ip2_ip2_0_split_1
I0504 07:40:11.529871 19650 net.cpp:124] Setting up ip2_ip2_0_split
I0504 07:40:11.529881 19650 net.cpp:131] Top shape: 1000 10 (10000)
I0504 07:40:11.529883 19650 net.cpp:131] Top shape: 1000 10 (10000)
I0504 07:40:11.529886 19650 net.cpp:139] Memory required for data: 303668000
I0504 07:40:11.529889 19650 layer_factory.hpp:77] Creating layer accuracy
I0504 07:40:11.529896 19650 net.cpp:86] Creating Layer accuracy
I0504 07:40:11.529904 19650 net.cpp:408] accuracy <- ip2_ip2_0_split_0
I0504 07:40:11.529908 19650 net.cpp:408] accuracy <- label_cifar_1_split_0
I0504 07:40:11.529914 19650 net.cpp:382] accuracy -> accuracy
…
