…
I0504 08:25:05.411144 21783 net.cpp:296] The NetState phase (0) differed from the phase (1) specified by a rule in layer cifar
I0504 08:25:05.411171 21783 net.cpp:296] The NetState phase (0) differed from the phase (1) specified by a rule in layer accuracy
I0504 08:25:05.411296 21783 net.cpp:53] Initializing net from parameters: 
name: "CIFAR"
state {
  phase: TRAIN
  level: 0
  stage: ""
}
layer {
  name: "cifar"
  type: "Data"
  top: "data"
  top: "label"
  include {
    phase: TRAIN
  }
  transform_param {
    mean_file: "examples/cifar10/mean.binaryproto"
  }
  data_param {
    source: "examples/cifar10/cifar10_train_lmdb"
    batch_size: 111
    backend: LMDB
  }
}
layer {
  name: "conv0"
  type: "Convolution"
  bottom: "data"
  top: "conv0"
  param {
    lr_mult: 1
  }
  param {
    lr_mult: 2
  }
  convolution_param {
    num_output: 24
    pad: 2
    kernel_size: 5
    stride: 1
    weight_filler {
      type: "gaussian"
      std: 0.01
    }
    bias_filler {
      type: "constant"
    }
  }
}
layer {
  name: "Sigmoid0"
  type: "Sigmoid"
  bottom: "conv0"
  top: "Sigmoid0"
}
layer {
  name: "pool0"
  type: "Pooling"
  bottom: "Sigmoid0"
  top: "pool0"
  pooling_param {
    pool: AVE
    kernel_size: 3
    stride: 2
  }
}
layer {
  name: "conv1"
  type: "Convolution"
  bottom: "pool0"
  top: "conv1"
  param {
    lr_mult: 1
  }
  param {
    lr_mult: 2
  }
  convolution_param {
    num_output: 24
    pad: 2
    kernel_size: 5
    stride: 1
    weight_filler {
      type: "gaussian"
      std: 0.01
    }
    bias_filler {
      type: "constant"
    }
  }
}
layer {
  name: "Sigmoid1"
  type: "Sigmoid"
  bottom: "conv1"
  top: "Sigmoid1"
}
layer {
  name: "pool1"
  type: "Pooling"
  bottom: "Sigmoid1"
  top: "pool1"
  pooling_param {
    pool: AVE
    kernel_size: 3
    stride: 2
  }
}
layer {
  name: "ip1"
  type: "InnerProduct"
  bottom: "pool1"
  top: "ip1"
  param {
    lr_mult: 1
  }
  param {
    lr_mult: 2
  }
  inner_product_param {
    num_output: 10
    weight_filler {
      type: "gaussian"
      std: 0.01
    }
    bias_filler {
      type: "constant"
    }
  }
}
layer {
  name: "relu1"
  type: "ReLU"
  bottom: "ip1"
  top: "ip1"
}
layer {
  name: "ip2"
  type: "InnerProduct"
  bottom: "ip1"
  top: "ip2"
  param {
    lr_mult: 1
  }
  param {
    lr_mult: 2
  }
  inner_product_param {
    num_output: 180
    weight_filler {
      type: "gaussian"
      std: 0.01
    }
    bias_filler {
      type: "constant"
    }
  }
}
layer {
  name: "relu2"
  type: "ReLU"
  bottom: "ip2"
  top: "ip2"
}
layer {
  name: "ip3"
  type: "InnerProduct"
  bottom: "ip2"
  top: "ip3"
  param {
    lr_mult: 1
  }
  param {
    lr_mult: 2
  }
  inner_product_param {
    num_output: 10
    weight_filler {
      type: "gaussian"
      std: 0.01
    }
    bias_filler {
      type: "constant"
    }
  }
}
layer {
  name: "loss"
  type: "SoftmaxWithLoss"
  bottom: "ip3"
  bottom: "label"
  top: "loss"
}
I0504 08:25:05.411419 21783 layer_factory.hpp:77] Creating layer cifar
I0504 08:25:05.411551 21783 db_lmdb.cpp:35] Opened lmdb examples/cifar10/cifar10_train_lmdb
I0504 08:25:05.411587 21783 net.cpp:86] Creating Layer cifar
I0504 08:25:05.411600 21783 net.cpp:382] cifar -> data
I0504 08:25:05.411630 21783 net.cpp:382] cifar -> label
I0504 08:25:05.411648 21783 data_transformer.cpp:25] Loading mean file from: examples/cifar10/mean.binaryproto
I0504 08:25:05.414057 21783 data_layer.cpp:45] output data size: 111,3,32,32
I0504 08:25:05.422106 21783 net.cpp:124] Setting up cifar
I0504 08:25:05.422127 21783 net.cpp:131] Top shape: 111 3 32 32 (340992)
I0504 08:25:05.422137 21783 net.cpp:131] Top shape: 111 (111)
I0504 08:25:05.422143 21783 net.cpp:139] Memory required for data: 1364412
I0504 08:25:05.422154 21783 layer_factory.hpp:77] Creating layer conv0
I0504 08:25:05.422183 21783 net.cpp:86] Creating Layer conv0
I0504 08:25:05.422194 21783 net.cpp:408] conv0 <- data
I0504 08:25:05.422215 21783 net.cpp:382] conv0 -> conv0
I0504 08:25:05.717355 21783 net.cpp:124] Setting up conv0
I0504 08:25:05.717386 21783 net.cpp:131] Top shape: 111 24 32 32 (2727936)
I0504 08:25:05.717394 21783 net.cpp:139] Memory required for data: 12276156
I0504 08:25:05.717418 21783 layer_factory.hpp:77] Creating layer Sigmoid0
I0504 08:25:05.717437 21783 net.cpp:86] Creating Layer Sigmoid0
I0504 08:25:05.717445 21783 net.cpp:408] Sigmoid0 <- conv0
I0504 08:25:05.717455 21783 net.cpp:382] Sigmoid0 -> Sigmoid0
I0504 08:25:05.717681 21783 net.cpp:124] Setting up Sigmoid0
I0504 08:25:05.717694 21783 net.cpp:131] Top shape: 111 24 32 32 (2727936)
I0504 08:25:05.717700 21783 net.cpp:139] Memory required for data: 23187900
I0504 08:25:05.717707 21783 layer_factory.hpp:77] Creating layer pool0
I0504 08:25:05.717718 21783 net.cpp:86] Creating Layer pool0
I0504 08:25:05.717725 21783 net.cpp:408] pool0 <- Sigmoid0
I0504 08:25:05.717734 21783 net.cpp:382] pool0 -> pool0
I0504 08:25:05.718590 21783 net.cpp:124] Setting up pool0
I0504 08:25:05.718608 21783 net.cpp:131] Top shape: 111 24 16 16 (681984)
I0504 08:25:05.718614 21783 net.cpp:139] Memory required for data: 25915836
I0504 08:25:05.718621 21783 layer_factory.hpp:77] Creating layer conv1
I0504 08:25:05.718641 21783 net.cpp:86] Creating Layer conv1
I0504 08:25:05.718653 21783 net.cpp:408] conv1 <- pool0
I0504 08:25:05.718664 21783 net.cpp:382] conv1 -> conv1
I0504 08:25:05.722120 21783 net.cpp:124] Setting up conv1
I0504 08:25:05.722137 21783 net.cpp:131] Top shape: 111 24 16 16 (681984)
I0504 08:25:05.722146 21783 net.cpp:139] Memory required for data: 28643772
I0504 08:25:05.722160 21783 layer_factory.hpp:77] Creating layer Sigmoid1
I0504 08:25:05.722172 21783 net.cpp:86] Creating Layer Sigmoid1
I0504 08:25:05.722178 21783 net.cpp:408] Sigmoid1 <- conv1
I0504 08:25:05.722187 21783 net.cpp:382] Sigmoid1 -> Sigmoid1
I0504 08:25:05.722388 21783 net.cpp:124] Setting up Sigmoid1
I0504 08:25:05.722401 21783 net.cpp:131] Top shape: 111 24 16 16 (681984)
I0504 08:25:05.722407 21783 net.cpp:139] Memory required for data: 31371708
I0504 08:25:05.722414 21783 layer_factory.hpp:77] Creating layer pool1
I0504 08:25:05.722424 21783 net.cpp:86] Creating Layer pool1
I0504 08:25:05.722430 21783 net.cpp:408] pool1 <- Sigmoid1
I0504 08:25:05.722440 21783 net.cpp:382] pool1 -> pool1
I0504 08:25:05.722633 21783 net.cpp:124] Setting up pool1
I0504 08:25:05.722645 21783 net.cpp:131] Top shape: 111 24 8 8 (170496)
I0504 08:25:05.722651 21783 net.cpp:139] Memory required for data: 32053692
I0504 08:25:05.722657 21783 layer_factory.hpp:77] Creating layer ip1
I0504 08:25:05.722669 21783 net.cpp:86] Creating Layer ip1
I0504 08:25:05.722676 21783 net.cpp:408] ip1 <- pool1
I0504 08:25:05.722684 21783 net.cpp:382] ip1 -> ip1
I0504 08:25:05.723292 21783 net.cpp:124] Setting up ip1
I0504 08:25:05.723304 21783 net.cpp:131] Top shape: 111 10 (1110)
I0504 08:25:05.723310 21783 net.cpp:139] Memory required for data: 32058132
I0504 08:25:05.723325 21783 layer_factory.hpp:77] Creating layer relu1
I0504 08:25:05.723341 21783 net.cpp:86] Creating Layer relu1
I0504 08:25:05.723351 21783 net.cpp:408] relu1 <- ip1
I0504 08:25:05.723359 21783 net.cpp:369] relu1 -> ip1 (in-place)
I0504 08:25:05.723541 21783 net.cpp:124] Setting up relu1
I0504 08:25:05.723551 21783 net.cpp:131] Top shape: 111 10 (1110)
I0504 08:25:05.723556 21783 net.cpp:139] Memory required for data: 32062572
I0504 08:25:05.723563 21783 layer_factory.hpp:77] Creating layer ip2
I0504 08:25:05.723574 21783 net.cpp:86] Creating Layer ip2
I0504 08:25:05.723580 21783 net.cpp:408] ip2 <- ip1
I0504 08:25:05.723613 21783 net.cpp:382] ip2 -> ip2
I0504 08:25:05.723793 21783 net.cpp:124] Setting up ip2
I0504 08:25:05.723803 21783 net.cpp:131] Top shape: 111 180 (19980)
I0504 08:25:05.723809 21783 net.cpp:139] Memory required for data: 32142492
I0504 08:25:05.723819 21783 layer_factory.hpp:77] Creating layer relu2
I0504 08:25:05.723827 21783 net.cpp:86] Creating Layer relu2
I0504 08:25:05.723834 21783 net.cpp:408] relu2 <- ip2
I0504 08:25:05.723842 21783 net.cpp:369] relu2 -> ip2 (in-place)
I0504 08:25:05.724664 21783 net.cpp:124] Setting up relu2
I0504 08:25:05.724680 21783 net.cpp:131] Top shape: 111 180 (19980)
I0504 08:25:05.724686 21783 net.cpp:139] Memory required for data: 32222412
I0504 08:25:05.724694 21783 layer_factory.hpp:77] Creating layer ip3
I0504 08:25:05.724704 21783 net.cpp:86] Creating Layer ip3
I0504 08:25:05.724711 21783 net.cpp:408] ip3 <- ip2
I0504 08:25:05.724721 21783 net.cpp:382] ip3 -> ip3
I0504 08:25:05.724912 21783 net.cpp:124] Setting up ip3
I0504 08:25:05.724925 21783 net.cpp:131] Top shape: 111 10 (1110)
I0504 08:25:05.724930 21783 net.cpp:139] Memory required for data: 32226852
I0504 08:25:05.724946 21783 layer_factory.hpp:77] Creating layer loss
I0504 08:25:05.724968 21783 net.cpp:86] Creating Layer loss
I0504 08:25:05.724975 21783 net.cpp:408] loss <- ip3
I0504 08:25:05.724982 21783 net.cpp:408] loss <- label
I0504 08:25:05.724992 21783 net.cpp:382] loss -> loss
I0504 08:25:05.725013 21783 layer_factory.hpp:77] Creating layer loss
…
I0504 08:25:05.725827 21783 solver.cpp:173] Creating test net (#0) specified by net file: ECE595/cifar/train_test/var_everything_tiny/cifar_train_test_101.prototxt
I0504 08:25:05.725869 21783 net.cpp:296] The NetState phase (1) differed from the phase (0) specified by a rule in layer cifar
I0504 08:25:05.725989 21783 net.cpp:53] Initializing net from parameters: 
name: "CIFAR"
state {
  phase: TEST
}
layer {
  name: "cifar"
  type: "Data"
  top: "data"
  top: "label"
  include {
    phase: TEST
  }
  transform_param {
    mean_file: "examples/cifar10/mean.binaryproto"
  }
  data_param {
    source: "examples/cifar10/cifar10_test_lmdb"
    batch_size: 1000
    backend: LMDB
  }
}
layer {
  name: "conv0"
  type: "Convolution"
  bottom: "data"
  top: "conv0"
  param {
    lr_mult: 1
  }
  param {
    lr_mult: 2
  }
  convolution_param {
    num_output: 24
    pad: 2
    kernel_size: 5
    stride: 1
    weight_filler {
      type: "gaussian"
      std: 0.01
    }
    bias_filler {
      type: "constant"
    }
  }
}
layer {
  name: "Sigmoid0"
  type: "Sigmoid"
  bottom: "conv0"
  top: "Sigmoid0"
}
layer {
  name: "pool0"
  type: "Pooling"
  bottom: "Sigmoid0"
  top: "pool0"
  pooling_param {
    pool: AVE
    kernel_size: 3
    stride: 2
  }
}
layer {
  name: "conv1"
  type: "Convolution"
  bottom: "pool0"
  top: "conv1"
  param {
    lr_mult: 1
  }
  param {
    lr_mult: 2
  }
  convolution_param {
    num_output: 24
    pad: 2
    kernel_size: 5
    stride: 1
    weight_filler {
      type: "gaussian"
      std: 0.01
    }
    bias_filler {
      type: "constant"
    }
  }
}
layer {
  name: "Sigmoid1"
  type: "Sigmoid"
  bottom: "conv1"
  top: "Sigmoid1"
}
layer {
  name: "pool1"
  type: "Pooling"
  bottom: "Sigmoid1"
  top: "pool1"
  pooling_param {
    pool: AVE
    kernel_size: 3
    stride: 2
  }
}
layer {
  name: "ip1"
  type: "InnerProduct"
  bottom: "pool1"
  top: "ip1"
  param {
    lr_mult: 1
  }
  param {
    lr_mult: 2
  }
  inner_product_param {
    num_output: 10
    weight_filler {
      type: "gaussian"
      std: 0.01
    }
    bias_filler {
      type: "constant"
    }
  }
}
layer {
  name: "relu1"
  type: "ReLU"
  bottom: "ip1"
  top: "ip1"
}
layer {
  name: "ip2"
  type: "InnerProduct"
  bottom: "ip1"
  top: "ip2"
  param {
    lr_mult: 1
  }
  param {
    lr_mult: 2
  }
  inner_product_param {
    num_output: 180
    weight_filler {
      type: "gaussian"
      std: 0.01
    }
    bias_filler {
      type: "constant"
    }
  }
}
layer {
  name: "relu2"
  type: "ReLU"
  bottom: "ip2"
  top: "ip2"
}
layer {
  name: "ip3"
  type: "InnerProduct"
  bottom: "ip2"
  top: "ip3"
  param {
    lr_mult: 1
  }
  param {
    lr_mult: 2
  }
  inner_product_param {
    num_output: 10
    weight_filler {
      type: "gaussian"
      std: 0.01
    }
    bias_filler {
      type: "constant"
    }
  }
}
layer {
  name: "accuracy"
  type: "Accuracy"
  bottom: "ip3"
  bottom: "label"
  top: "accuracy"
  include {
    phase: TEST
  }
}
layer {
  name: "loss"
  type: "SoftmaxWithLoss"
  bottom: "ip3"
  bottom: "label"
  top: "loss"
}
I0504 08:25:05.726125 21783 layer_factory.hpp:77] Creating layer cifar
I0504 08:25:05.726197 21783 db_lmdb.cpp:35] Opened lmdb examples/cifar10/cifar10_test_lmdb
I0504 08:25:05.726215 21783 net.cpp:86] Creating Layer cifar
I0504 08:25:05.726224 21783 net.cpp:382] cifar -> data
I0504 08:25:05.726238 21783 net.cpp:382] cifar -> label
I0504 08:25:05.726249 21783 data_transformer.cpp:25] Loading mean file from: examples/cifar10/mean.binaryproto
I0504 08:25:05.726480 21783 data_layer.cpp:45] output data size: 1000,3,32,32
I0504 08:25:05.750886 21783 net.cpp:124] Setting up cifar
I0504 08:25:05.750916 21783 net.cpp:131] Top shape: 1000 3 32 32 (3072000)
I0504 08:25:05.750924 21783 net.cpp:131] Top shape: 1000 (1000)
I0504 08:25:05.750931 21783 net.cpp:139] Memory required for data: 12292000
I0504 08:25:05.750938 21783 layer_factory.hpp:77] Creating layer label_cifar_1_split
I0504 08:25:05.750954 21783 net.cpp:86] Creating Layer label_cifar_1_split
I0504 08:25:05.750962 21783 net.cpp:408] label_cifar_1_split <- label
I0504 08:25:05.750972 21783 net.cpp:382] label_cifar_1_split -> label_cifar_1_split_0
I0504 08:25:05.750985 21783 net.cpp:382] label_cifar_1_split -> label_cifar_1_split_1
I0504 08:25:05.751062 21783 net.cpp:124] Setting up label_cifar_1_split
I0504 08:25:05.751071 21783 net.cpp:131] Top shape: 1000 (1000)
I0504 08:25:05.751077 21783 net.cpp:131] Top shape: 1000 (1000)
I0504 08:25:05.751083 21783 net.cpp:139] Memory required for data: 12300000
I0504 08:25:05.751090 21783 layer_factory.hpp:77] Creating layer conv0
I0504 08:25:05.751107 21783 net.cpp:86] Creating Layer conv0
I0504 08:25:05.751116 21783 net.cpp:408] conv0 <- data
I0504 08:25:05.751126 21783 net.cpp:382] conv0 -> conv0
I0504 08:25:05.753705 21783 net.cpp:124] Setting up conv0
I0504 08:25:05.753723 21783 net.cpp:131] Top shape: 1000 24 32 32 (24576000)
I0504 08:25:05.753729 21783 net.cpp:139] Memory required for data: 110604000
I0504 08:25:05.753747 21783 layer_factory.hpp:77] Creating layer Sigmoid0
I0504 08:25:05.753758 21783 net.cpp:86] Creating Layer Sigmoid0
I0504 08:25:05.753772 21783 net.cpp:408] Sigmoid0 <- conv0
I0504 08:25:05.753782 21783 net.cpp:382] Sigmoid0 -> Sigmoid0
I0504 08:25:05.753983 21783 net.cpp:124] Setting up Sigmoid0
I0504 08:25:05.754005 21783 net.cpp:131] Top shape: 1000 24 32 32 (24576000)
I0504 08:25:05.754012 21783 net.cpp:139] Memory required for data: 208908000
I0504 08:25:05.754019 21783 layer_factory.hpp:77] Creating layer pool0
I0504 08:25:05.754031 21783 net.cpp:86] Creating Layer pool0
I0504 08:25:05.754037 21783 net.cpp:408] pool0 <- Sigmoid0
I0504 08:25:05.754045 21783 net.cpp:382] pool0 -> pool0
I0504 08:25:05.754230 21783 net.cpp:124] Setting up pool0
I0504 08:25:05.754240 21783 net.cpp:131] Top shape: 1000 24 16 16 (6144000)
I0504 08:25:05.754245 21783 net.cpp:139] Memory required for data: 233484000
I0504 08:25:05.754251 21783 layer_factory.hpp:77] Creating layer conv1
I0504 08:25:05.754266 21783 net.cpp:86] Creating Layer conv1
I0504 08:25:05.754272 21783 net.cpp:408] conv1 <- pool0
I0504 08:25:05.754283 21783 net.cpp:382] conv1 -> conv1
I0504 08:25:05.756163 21783 net.cpp:124] Setting up conv1
I0504 08:25:05.756180 21783 net.cpp:131] Top shape: 1000 24 16 16 (6144000)
I0504 08:25:05.756186 21783 net.cpp:139] Memory required for data: 258060000
I0504 08:25:05.756201 21783 layer_factory.hpp:77] Creating layer Sigmoid1
I0504 08:25:05.756211 21783 net.cpp:86] Creating Layer Sigmoid1
I0504 08:25:05.756217 21783 net.cpp:408] Sigmoid1 <- conv1
I0504 08:25:05.756225 21783 net.cpp:382] Sigmoid1 -> Sigmoid1
I0504 08:25:05.756407 21783 net.cpp:124] Setting up Sigmoid1
I0504 08:25:05.756419 21783 net.cpp:131] Top shape: 1000 24 16 16 (6144000)
I0504 08:25:05.756425 21783 net.cpp:139] Memory required for data: 282636000
I0504 08:25:05.756430 21783 layer_factory.hpp:77] Creating layer pool1
I0504 08:25:05.756440 21783 net.cpp:86] Creating Layer pool1
I0504 08:25:05.756445 21783 net.cpp:408] pool1 <- Sigmoid1
I0504 08:25:05.756454 21783 net.cpp:382] pool1 -> pool1
I0504 08:25:05.757284 21783 net.cpp:124] Setting up pool1
I0504 08:25:05.757300 21783 net.cpp:131] Top shape: 1000 24 8 8 (1536000)
I0504 08:25:05.757306 21783 net.cpp:139] Memory required for data: 288780000
I0504 08:25:05.757313 21783 layer_factory.hpp:77] Creating layer ip1
I0504 08:25:05.757328 21783 net.cpp:86] Creating Layer ip1
I0504 08:25:05.757334 21783 net.cpp:408] ip1 <- pool1
I0504 08:25:05.757344 21783 net.cpp:382] ip1 -> ip1
I0504 08:25:05.757932 21783 net.cpp:124] Setting up ip1
I0504 08:25:05.757944 21783 net.cpp:131] Top shape: 1000 10 (10000)
I0504 08:25:05.757951 21783 net.cpp:139] Memory required for data: 288820000
I0504 08:25:05.757963 21783 layer_factory.hpp:77] Creating layer relu1
I0504 08:25:05.757973 21783 net.cpp:86] Creating Layer relu1
I0504 08:25:05.757985 21783 net.cpp:408] relu1 <- ip1
I0504 08:25:05.757994 21783 net.cpp:369] relu1 -> ip1 (in-place)
I0504 08:25:05.758173 21783 net.cpp:124] Setting up relu1
I0504 08:25:05.758184 21783 net.cpp:131] Top shape: 1000 10 (10000)
I0504 08:25:05.758191 21783 net.cpp:139] Memory required for data: 288860000
I0504 08:25:05.758198 21783 layer_factory.hpp:77] Creating layer ip2
I0504 08:25:05.758208 21783 net.cpp:86] Creating Layer ip2
I0504 08:25:05.758214 21783 net.cpp:408] ip2 <- ip1
I0504 08:25:05.758225 21783 net.cpp:382] ip2 -> ip2
I0504 08:25:05.758404 21783 net.cpp:124] Setting up ip2
I0504 08:25:05.758414 21783 net.cpp:131] Top shape: 1000 180 (180000)
I0504 08:25:05.758419 21783 net.cpp:139] Memory required for data: 289580000
I0504 08:25:05.758430 21783 layer_factory.hpp:77] Creating layer relu2
I0504 08:25:05.758438 21783 net.cpp:86] Creating Layer relu2
I0504 08:25:05.758445 21783 net.cpp:408] relu2 <- ip2
I0504 08:25:05.758453 21783 net.cpp:369] relu2 -> ip2 (in-place)
I0504 08:25:05.758630 21783 net.cpp:124] Setting up relu2
I0504 08:25:05.758641 21783 net.cpp:131] Top shape: 1000 180 (180000)
I0504 08:25:05.758646 21783 net.cpp:139] Memory required for data: 290300000
I0504 08:25:05.758651 21783 layer_factory.hpp:77] Creating layer ip3
I0504 08:25:05.758662 21783 net.cpp:86] Creating Layer ip3
I0504 08:25:05.758668 21783 net.cpp:408] ip3 <- ip2
I0504 08:25:05.758677 21783 net.cpp:382] ip3 -> ip3
I0504 08:25:05.758852 21783 net.cpp:124] Setting up ip3
I0504 08:25:05.758862 21783 net.cpp:131] Top shape: 1000 10 (10000)
I0504 08:25:05.758882 21783 net.cpp:139] Memory required for data: 290340000
I0504 08:25:05.758896 21783 layer_factory.hpp:77] Creating layer ip3_ip3_0_split
I0504 08:25:05.758908 21783 net.cpp:86] Creating Layer ip3_ip3_0_split
I0504 08:25:05.758914 21783 net.cpp:408] ip3_ip3_0_split <- ip3
I0504 08:25:05.758922 21783 net.cpp:382] ip3_ip3_0_split -> ip3_ip3_0_split_0
I0504 08:25:05.758932 21783 net.cpp:382] ip3_ip3_0_split -> ip3_ip3_0_split_1
I0504 08:25:05.758978 21783 net.cpp:124] Setting up ip3_ip3_0_split
I0504 08:25:05.758986 21783 net.cpp:131] Top shape: 1000 10 (10000)
I0504 08:25:05.758993 21783 net.cpp:131] Top shape: 1000 10 (10000)
I0504 08:25:05.758999 21783 net.cpp:139] Memory required for data: 290420000
I0504 08:25:05.759006 21783 layer_factory.hpp:77] Creating layer accuracy
I0504 08:25:05.759016 21783 net.cpp:86] Creating Layer accuracy
I0504 08:25:05.759022 21783 net.cpp:408] accuracy <- ip3_ip3_0_split_0
I0504 08:25:05.759030 21783 net.cpp:408] accuracy <- label_cifar_1_split_0
I0504 08:25:05.759039 21783 net.cpp:382] accuracy -> accuracy
…
