…
I0504 04:57:30.964884 13287 net.cpp:296] The NetState phase (0) differed from the phase (1) specified by a rule in layer cifar
I0504 04:57:30.964900 13287 net.cpp:296] The NetState phase (0) differed from the phase (1) specified by a rule in layer accuracy
I0504 04:57:30.964980 13287 net.cpp:53] Initializing net from parameters: 
name: "CIFAR"
state {
  phase: TRAIN
  level: 0
  stage: ""
}
layer {
  name: "cifar"
  type: "Data"
  top: "data"
  top: "label"
  include {
    phase: TRAIN
  }
  transform_param {
    mean_file: "examples/cifar10/mean.binaryproto"
  }
  data_param {
    source: "examples/cifar10/cifar10_train_lmdb"
    batch_size: 111
    backend: LMDB
  }
}
layer {
  name: "conv0"
  type: "Convolution"
  bottom: "data"
  top: "conv0"
  param {
    lr_mult: 1
  }
  param {
    lr_mult: 2
  }
  convolution_param {
    num_output: 216
    pad: 2
    kernel_size: 5
    stride: 1
    weight_filler {
      type: "gaussian"
      std: 0.01
    }
    bias_filler {
      type: "constant"
    }
  }
}
layer {
  name: "Sigmoid0"
  type: "Sigmoid"
  bottom: "conv0"
  top: "Sigmoid0"
}
layer {
  name: "pool0"
  type: "Pooling"
  bottom: "Sigmoid0"
  top: "pool0"
  pooling_param {
    pool: AVE
    kernel_size: 3
    stride: 2
  }
}
layer {
  name: "ip1"
  type: "InnerProduct"
  bottom: "pool0"
  top: "ip1"
  param {
    lr_mult: 1
  }
  param {
    lr_mult: 2
  }
  inner_product_param {
    num_output: 10
    weight_filler {
      type: "gaussian"
      std: 0.01
    }
    bias_filler {
      type: "constant"
    }
  }
}
layer {
  name: "relu1"
  type: "ReLU"
  bottom: "ip1"
  top: "ip1"
}
layer {
  name: "ip2"
  type: "InnerProduct"
  bottom: "ip1"
  top: "ip2"
  param {
    lr_mult: 1
  }
  param {
    lr_mult: 2
  }
  inner_product_param {
    num_output: 10
    weight_filler {
      type: "gaussian"
      std: 0.01
    }
    bias_filler {
      type: "constant"
    }
  }
}
layer {
  name: "loss"
  type: "SoftmaxWithLoss"
  bottom: "ip2"
  bottom: "label"
  top: "loss"
}
I0504 04:57:30.965044 13287 layer_factory.hpp:77] Creating layer cifar
I0504 04:57:30.965143 13287 db_lmdb.cpp:35] Opened lmdb examples/cifar10/cifar10_train_lmdb
I0504 04:57:30.965171 13287 net.cpp:86] Creating Layer cifar
I0504 04:57:30.965178 13287 net.cpp:382] cifar -> data
I0504 04:57:30.965201 13287 net.cpp:382] cifar -> label
I0504 04:57:30.965219 13287 data_transformer.cpp:25] Loading mean file from: examples/cifar10/mean.binaryproto
I0504 04:57:30.967308 13287 data_layer.cpp:45] output data size: 111,3,32,32
I0504 04:57:30.975411 13287 net.cpp:124] Setting up cifar
I0504 04:57:30.975431 13287 net.cpp:131] Top shape: 111 3 32 32 (340992)
I0504 04:57:30.975437 13287 net.cpp:131] Top shape: 111 (111)
I0504 04:57:30.975441 13287 net.cpp:139] Memory required for data: 1364412
I0504 04:57:30.975450 13287 layer_factory.hpp:77] Creating layer conv0
I0504 04:57:30.975468 13287 net.cpp:86] Creating Layer conv0
I0504 04:57:30.975474 13287 net.cpp:408] conv0 <- data
I0504 04:57:30.975486 13287 net.cpp:382] conv0 -> conv0
I0504 04:57:31.264609 13287 net.cpp:124] Setting up conv0
I0504 04:57:31.264637 13287 net.cpp:131] Top shape: 111 216 32 32 (24551424)
I0504 04:57:31.264642 13287 net.cpp:139] Memory required for data: 99570108
I0504 04:57:31.264657 13287 layer_factory.hpp:77] Creating layer Sigmoid0
I0504 04:57:31.264668 13287 net.cpp:86] Creating Layer Sigmoid0
I0504 04:57:31.264672 13287 net.cpp:408] Sigmoid0 <- conv0
I0504 04:57:31.264698 13287 net.cpp:382] Sigmoid0 -> Sigmoid0
I0504 04:57:31.264874 13287 net.cpp:124] Setting up Sigmoid0
I0504 04:57:31.264885 13287 net.cpp:131] Top shape: 111 216 32 32 (24551424)
I0504 04:57:31.264889 13287 net.cpp:139] Memory required for data: 197775804
I0504 04:57:31.264891 13287 layer_factory.hpp:77] Creating layer pool0
I0504 04:57:31.264899 13287 net.cpp:86] Creating Layer pool0
I0504 04:57:31.264901 13287 net.cpp:408] pool0 <- Sigmoid0
I0504 04:57:31.264906 13287 net.cpp:382] pool0 -> pool0
I0504 04:57:31.265655 13287 net.cpp:124] Setting up pool0
I0504 04:57:31.265668 13287 net.cpp:131] Top shape: 111 216 16 16 (6137856)
I0504 04:57:31.265671 13287 net.cpp:139] Memory required for data: 222327228
I0504 04:57:31.265674 13287 layer_factory.hpp:77] Creating layer ip1
I0504 04:57:31.265683 13287 net.cpp:86] Creating Layer ip1
I0504 04:57:31.265686 13287 net.cpp:408] ip1 <- pool0
I0504 04:57:31.265691 13287 net.cpp:382] ip1 -> ip1
I0504 04:57:31.280416 13287 net.cpp:124] Setting up ip1
I0504 04:57:31.280427 13287 net.cpp:131] Top shape: 111 10 (1110)
I0504 04:57:31.280431 13287 net.cpp:139] Memory required for data: 222331668
I0504 04:57:31.280438 13287 layer_factory.hpp:77] Creating layer relu1
I0504 04:57:31.280443 13287 net.cpp:86] Creating Layer relu1
I0504 04:57:31.280447 13287 net.cpp:408] relu1 <- ip1
I0504 04:57:31.280452 13287 net.cpp:369] relu1 -> ip1 (in-place)
I0504 04:57:31.280627 13287 net.cpp:124] Setting up relu1
I0504 04:57:31.280637 13287 net.cpp:131] Top shape: 111 10 (1110)
I0504 04:57:31.280639 13287 net.cpp:139] Memory required for data: 222336108
I0504 04:57:31.280642 13287 layer_factory.hpp:77] Creating layer ip2
I0504 04:57:31.280648 13287 net.cpp:86] Creating Layer ip2
I0504 04:57:31.280652 13287 net.cpp:408] ip2 <- ip1
I0504 04:57:31.280656 13287 net.cpp:382] ip2 -> ip2
I0504 04:57:31.280747 13287 net.cpp:124] Setting up ip2
I0504 04:57:31.280755 13287 net.cpp:131] Top shape: 111 10 (1110)
I0504 04:57:31.280756 13287 net.cpp:139] Memory required for data: 222340548
I0504 04:57:31.280763 13287 layer_factory.hpp:77] Creating layer loss
I0504 04:57:31.280768 13287 net.cpp:86] Creating Layer loss
I0504 04:57:31.280771 13287 net.cpp:408] loss <- ip2
I0504 04:57:31.280776 13287 net.cpp:408] loss <- label
I0504 04:57:31.280781 13287 net.cpp:382] loss -> loss
I0504 04:57:31.280793 13287 layer_factory.hpp:77] Creating layer loss
…
I0504 04:57:31.281357 13287 solver.cpp:173] Creating test net (#0) specified by net file: ECE595/cifar/train_test/var_everything_tiny/cifar_train_test_60.prototxt
I0504 04:57:31.281379 13287 net.cpp:296] The NetState phase (1) differed from the phase (0) specified by a rule in layer cifar
I0504 04:57:31.281451 13287 net.cpp:53] Initializing net from parameters: 
name: "CIFAR"
state {
  phase: TEST
}
layer {
  name: "cifar"
  type: "Data"
  top: "data"
  top: "label"
  include {
    phase: TEST
  }
  transform_param {
    mean_file: "examples/cifar10/mean.binaryproto"
  }
  data_param {
    source: "examples/cifar10/cifar10_test_lmdb"
    batch_size: 1000
    backend: LMDB
  }
}
layer {
  name: "conv0"
  type: "Convolution"
  bottom: "data"
  top: "conv0"
  param {
    lr_mult: 1
  }
  param {
    lr_mult: 2
  }
  convolution_param {
    num_output: 216
    pad: 2
    kernel_size: 5
    stride: 1
    weight_filler {
      type: "gaussian"
      std: 0.01
    }
    bias_filler {
      type: "constant"
    }
  }
}
layer {
  name: "Sigmoid0"
  type: "Sigmoid"
  bottom: "conv0"
  top: "Sigmoid0"
}
layer {
  name: "pool0"
  type: "Pooling"
  bottom: "Sigmoid0"
  top: "pool0"
  pooling_param {
    pool: AVE
    kernel_size: 3
    stride: 2
  }
}
layer {
  name: "ip1"
  type: "InnerProduct"
  bottom: "pool0"
  top: "ip1"
  param {
    lr_mult: 1
  }
  param {
    lr_mult: 2
  }
  inner_product_param {
    num_output: 10
    weight_filler {
      type: "gaussian"
      std: 0.01
    }
    bias_filler {
      type: "constant"
    }
  }
}
layer {
  name: "relu1"
  type: "ReLU"
  bottom: "ip1"
  top: "ip1"
}
layer {
  name: "ip2"
  type: "InnerProduct"
  bottom: "ip1"
  top: "ip2"
  param {
    lr_mult: 1
  }
  param {
    lr_mult: 2
  }
  inner_product_param {
    num_output: 10
    weight_filler {
      type: "gaussian"
      std: 0.01
    }
    bias_filler {
      type: "constant"
    }
  }
}
layer {
  name: "accuracy"
  type: "Accuracy"
  bottom: "ip2"
  bottom: "label"
  top: "accuracy"
  include {
    phase: TEST
  }
}
layer {
  name: "loss"
  type: "SoftmaxWithLoss"
  bottom: "ip2"
  bottom: "label"
  top: "loss"
}
I0504 04:57:31.281518 13287 layer_factory.hpp:77] Creating layer cifar
I0504 04:57:31.281563 13287 db_lmdb.cpp:35] Opened lmdb examples/cifar10/cifar10_test_lmdb
I0504 04:57:31.281574 13287 net.cpp:86] Creating Layer cifar
I0504 04:57:31.281579 13287 net.cpp:382] cifar -> data
I0504 04:57:31.281585 13287 net.cpp:382] cifar -> label
I0504 04:57:31.281591 13287 data_transformer.cpp:25] Loading mean file from: examples/cifar10/mean.binaryproto
I0504 04:57:31.281741 13287 data_layer.cpp:45] output data size: 1000,3,32,32
I0504 04:57:31.304203 13287 net.cpp:124] Setting up cifar
I0504 04:57:31.304229 13287 net.cpp:131] Top shape: 1000 3 32 32 (3072000)
I0504 04:57:31.304235 13287 net.cpp:131] Top shape: 1000 (1000)
I0504 04:57:31.304239 13287 net.cpp:139] Memory required for data: 12292000
I0504 04:57:31.304244 13287 layer_factory.hpp:77] Creating layer label_cifar_1_split
I0504 04:57:31.304256 13287 net.cpp:86] Creating Layer label_cifar_1_split
I0504 04:57:31.304260 13287 net.cpp:408] label_cifar_1_split <- label
I0504 04:57:31.304266 13287 net.cpp:382] label_cifar_1_split -> label_cifar_1_split_0
I0504 04:57:31.304276 13287 net.cpp:382] label_cifar_1_split -> label_cifar_1_split_1
I0504 04:57:31.304389 13287 net.cpp:124] Setting up label_cifar_1_split
I0504 04:57:31.304397 13287 net.cpp:131] Top shape: 1000 (1000)
I0504 04:57:31.304401 13287 net.cpp:131] Top shape: 1000 (1000)
I0504 04:57:31.304404 13287 net.cpp:139] Memory required for data: 12300000
I0504 04:57:31.304406 13287 layer_factory.hpp:77] Creating layer conv0
I0504 04:57:31.304419 13287 net.cpp:86] Creating Layer conv0
I0504 04:57:31.304425 13287 net.cpp:408] conv0 <- data
I0504 04:57:31.304448 13287 net.cpp:382] conv0 -> conv0
I0504 04:57:31.307597 13287 net.cpp:124] Setting up conv0
I0504 04:57:31.307628 13287 net.cpp:131] Top shape: 1000 216 32 32 (221184000)
I0504 04:57:31.307631 13287 net.cpp:139] Memory required for data: 897036000
I0504 04:57:31.307641 13287 layer_factory.hpp:77] Creating layer Sigmoid0
I0504 04:57:31.307648 13287 net.cpp:86] Creating Layer Sigmoid0
I0504 04:57:31.307651 13287 net.cpp:408] Sigmoid0 <- conv0
I0504 04:57:31.307657 13287 net.cpp:382] Sigmoid0 -> Sigmoid0
I0504 04:57:31.307831 13287 net.cpp:124] Setting up Sigmoid0
I0504 04:57:31.307839 13287 net.cpp:131] Top shape: 1000 216 32 32 (221184000)
I0504 04:57:31.307842 13287 net.cpp:139] Memory required for data: 1781772000
I0504 04:57:31.307860 13287 layer_factory.hpp:77] Creating layer pool0
I0504 04:57:31.307869 13287 net.cpp:86] Creating Layer pool0
I0504 04:57:31.307874 13287 net.cpp:408] pool0 <- Sigmoid0
I0504 04:57:31.307894 13287 net.cpp:382] pool0 -> pool0
I0504 04:57:31.308702 13287 net.cpp:124] Setting up pool0
I0504 04:57:31.308730 13287 net.cpp:131] Top shape: 1000 216 16 16 (55296000)
I0504 04:57:31.308733 13287 net.cpp:139] Memory required for data: 2002956000
I0504 04:57:31.308737 13287 layer_factory.hpp:77] Creating layer ip1
I0504 04:57:31.308744 13287 net.cpp:86] Creating Layer ip1
I0504 04:57:31.308748 13287 net.cpp:408] ip1 <- pool0
I0504 04:57:31.308755 13287 net.cpp:382] ip1 -> ip1
I0504 04:57:31.324782 13287 net.cpp:124] Setting up ip1
I0504 04:57:31.324796 13287 net.cpp:131] Top shape: 1000 10 (10000)
I0504 04:57:31.324818 13287 net.cpp:139] Memory required for data: 2002996000
I0504 04:57:31.324843 13287 layer_factory.hpp:77] Creating layer relu1
I0504 04:57:31.324851 13287 net.cpp:86] Creating Layer relu1
I0504 04:57:31.324856 13287 net.cpp:408] relu1 <- ip1
I0504 04:57:31.324861 13287 net.cpp:369] relu1 -> ip1 (in-place)
I0504 04:57:31.325048 13287 net.cpp:124] Setting up relu1
I0504 04:57:31.325057 13287 net.cpp:131] Top shape: 1000 10 (10000)
I0504 04:57:31.325060 13287 net.cpp:139] Memory required for data: 2003036000
I0504 04:57:31.325063 13287 layer_factory.hpp:77] Creating layer ip2
I0504 04:57:31.325072 13287 net.cpp:86] Creating Layer ip2
I0504 04:57:31.325074 13287 net.cpp:408] ip2 <- ip1
I0504 04:57:31.325079 13287 net.cpp:382] ip2 -> ip2
I0504 04:57:31.325202 13287 net.cpp:124] Setting up ip2
I0504 04:57:31.325209 13287 net.cpp:131] Top shape: 1000 10 (10000)
I0504 04:57:31.325212 13287 net.cpp:139] Memory required for data: 2003076000
I0504 04:57:31.325219 13287 layer_factory.hpp:77] Creating layer ip2_ip2_0_split
I0504 04:57:31.325227 13287 net.cpp:86] Creating Layer ip2_ip2_0_split
I0504 04:57:31.325232 13287 net.cpp:408] ip2_ip2_0_split <- ip2
I0504 04:57:31.325253 13287 net.cpp:382] ip2_ip2_0_split -> ip2_ip2_0_split_0
I0504 04:57:31.325258 13287 net.cpp:382] ip2_ip2_0_split -> ip2_ip2_0_split_1
I0504 04:57:31.325290 13287 net.cpp:124] Setting up ip2_ip2_0_split
I0504 04:57:31.325295 13287 net.cpp:131] Top shape: 1000 10 (10000)
I0504 04:57:31.325299 13287 net.cpp:131] Top shape: 1000 10 (10000)
I0504 04:57:31.325302 13287 net.cpp:139] Memory required for data: 2003156000
I0504 04:57:31.325304 13287 layer_factory.hpp:77] Creating layer accuracy
I0504 04:57:31.325311 13287 net.cpp:86] Creating Layer accuracy
I0504 04:57:31.325314 13287 net.cpp:408] accuracy <- ip2_ip2_0_split_0
I0504 04:57:31.325318 13287 net.cpp:408] accuracy <- label_cifar_1_split_0
I0504 04:57:31.325323 13287 net.cpp:382] accuracy -> accuracy
…
