…
I0504 08:22:27.154852 21666 net.cpp:296] The NetState phase (0) differed from the phase (1) specified by a rule in layer cifar
I0504 08:22:27.154878 21666 net.cpp:296] The NetState phase (0) differed from the phase (1) specified by a rule in layer accuracy
I0504 08:22:27.155004 21666 net.cpp:53] Initializing net from parameters: 
name: "CIFAR"
state {
  phase: TRAIN
  level: 0
  stage: ""
}
layer {
  name: "cifar"
  type: "Data"
  top: "data"
  top: "label"
  include {
    phase: TRAIN
  }
  transform_param {
    mean_file: "examples/cifar10/mean.binaryproto"
  }
  data_param {
    source: "examples/cifar10/cifar10_train_lmdb"
    batch_size: 111
    backend: LMDB
  }
}
layer {
  name: "conv0"
  type: "Convolution"
  bottom: "data"
  top: "conv0"
  param {
    lr_mult: 1
  }
  param {
    lr_mult: 2
  }
  convolution_param {
    num_output: 24
    pad: 2
    kernel_size: 5
    stride: 1
    weight_filler {
      type: "gaussian"
      std: 0.01
    }
    bias_filler {
      type: "constant"
    }
  }
}
layer {
  name: "Sigmoid0"
  type: "Sigmoid"
  bottom: "conv0"
  top: "Sigmoid0"
}
layer {
  name: "pool0"
  type: "Pooling"
  bottom: "Sigmoid0"
  top: "pool0"
  pooling_param {
    pool: AVE
    kernel_size: 3
    stride: 2
  }
}
layer {
  name: "conv1"
  type: "Convolution"
  bottom: "pool0"
  top: "conv1"
  param {
    lr_mult: 1
  }
  param {
    lr_mult: 2
  }
  convolution_param {
    num_output: 24
    pad: 2
    kernel_size: 5
    stride: 1
    weight_filler {
      type: "gaussian"
      std: 0.01
    }
    bias_filler {
      type: "constant"
    }
  }
}
layer {
  name: "Sigmoid1"
  type: "Sigmoid"
  bottom: "conv1"
  top: "Sigmoid1"
}
layer {
  name: "pool1"
  type: "Pooling"
  bottom: "Sigmoid1"
  top: "pool1"
  pooling_param {
    pool: AVE
    kernel_size: 3
    stride: 2
  }
}
layer {
  name: "ip1"
  type: "InnerProduct"
  bottom: "pool1"
  top: "ip1"
  param {
    lr_mult: 1
  }
  param {
    lr_mult: 2
  }
  inner_product_param {
    num_output: 10
    weight_filler {
      type: "gaussian"
      std: 0.01
    }
    bias_filler {
      type: "constant"
    }
  }
}
layer {
  name: "relu1"
  type: "ReLU"
  bottom: "ip1"
  top: "ip1"
}
layer {
  name: "ip2"
  type: "InnerProduct"
  bottom: "ip1"
  top: "ip2"
  param {
    lr_mult: 1
  }
  param {
    lr_mult: 2
  }
  inner_product_param {
    num_output: 60
    weight_filler {
      type: "gaussian"
      std: 0.01
    }
    bias_filler {
      type: "constant"
    }
  }
}
layer {
  name: "relu2"
  type: "ReLU"
  bottom: "ip2"
  top: "ip2"
}
layer {
  name: "ip3"
  type: "InnerProduct"
  bottom: "ip2"
  top: "ip3"
  param {
    lr_mult: 1
  }
  param {
    lr_mult: 2
  }
  inner_product_param {
    num_output: 10
    weight_filler {
      type: "gaussian"
      std: 0.01
    }
    bias_filler {
      type: "constant"
    }
  }
}
layer {
  name: "loss"
  type: "SoftmaxWithLoss"
  bottom: "ip3"
  bottom: "label"
  top: "loss"
}
I0504 08:22:27.155124 21666 layer_factory.hpp:77] Creating layer cifar
I0504 08:22:27.155254 21666 db_lmdb.cpp:35] Opened lmdb examples/cifar10/cifar10_train_lmdb
I0504 08:22:27.155292 21666 net.cpp:86] Creating Layer cifar
I0504 08:22:27.155306 21666 net.cpp:382] cifar -> data
I0504 08:22:27.155338 21666 net.cpp:382] cifar -> label
I0504 08:22:27.155355 21666 data_transformer.cpp:25] Loading mean file from: examples/cifar10/mean.binaryproto
I0504 08:22:27.157781 21666 data_layer.cpp:45] output data size: 111,3,32,32
I0504 08:22:27.165858 21666 net.cpp:124] Setting up cifar
I0504 08:22:27.165879 21666 net.cpp:131] Top shape: 111 3 32 32 (340992)
I0504 08:22:27.165889 21666 net.cpp:131] Top shape: 111 (111)
I0504 08:22:27.165896 21666 net.cpp:139] Memory required for data: 1364412
I0504 08:22:27.165907 21666 layer_factory.hpp:77] Creating layer conv0
I0504 08:22:27.165935 21666 net.cpp:86] Creating Layer conv0
I0504 08:22:27.165946 21666 net.cpp:408] conv0 <- data
I0504 08:22:27.165967 21666 net.cpp:382] conv0 -> conv0
I0504 08:22:27.458040 21666 net.cpp:124] Setting up conv0
I0504 08:22:27.458073 21666 net.cpp:131] Top shape: 111 24 32 32 (2727936)
I0504 08:22:27.458081 21666 net.cpp:139] Memory required for data: 12276156
I0504 08:22:27.458104 21666 layer_factory.hpp:77] Creating layer Sigmoid0
I0504 08:22:27.458122 21666 net.cpp:86] Creating Layer Sigmoid0
I0504 08:22:27.458130 21666 net.cpp:408] Sigmoid0 <- conv0
I0504 08:22:27.458143 21666 net.cpp:382] Sigmoid0 -> Sigmoid0
I0504 08:22:27.458398 21666 net.cpp:124] Setting up Sigmoid0
I0504 08:22:27.458411 21666 net.cpp:131] Top shape: 111 24 32 32 (2727936)
I0504 08:22:27.458417 21666 net.cpp:139] Memory required for data: 23187900
I0504 08:22:27.458425 21666 layer_factory.hpp:77] Creating layer pool0
I0504 08:22:27.458438 21666 net.cpp:86] Creating Layer pool0
I0504 08:22:27.458446 21666 net.cpp:408] pool0 <- Sigmoid0
I0504 08:22:27.458456 21666 net.cpp:382] pool0 -> pool0
I0504 08:22:27.459363 21666 net.cpp:124] Setting up pool0
I0504 08:22:27.459384 21666 net.cpp:131] Top shape: 111 24 16 16 (681984)
I0504 08:22:27.459391 21666 net.cpp:139] Memory required for data: 25915836
I0504 08:22:27.459398 21666 layer_factory.hpp:77] Creating layer conv1
I0504 08:22:27.459420 21666 net.cpp:86] Creating Layer conv1
I0504 08:22:27.459432 21666 net.cpp:408] conv1 <- pool0
I0504 08:22:27.459444 21666 net.cpp:382] conv1 -> conv1
I0504 08:22:27.463125 21666 net.cpp:124] Setting up conv1
I0504 08:22:27.463145 21666 net.cpp:131] Top shape: 111 24 16 16 (681984)
I0504 08:22:27.463151 21666 net.cpp:139] Memory required for data: 28643772
I0504 08:22:27.463167 21666 layer_factory.hpp:77] Creating layer Sigmoid1
I0504 08:22:27.463181 21666 net.cpp:86] Creating Layer Sigmoid1
I0504 08:22:27.463188 21666 net.cpp:408] Sigmoid1 <- conv1
I0504 08:22:27.463198 21666 net.cpp:382] Sigmoid1 -> Sigmoid1
I0504 08:22:27.463433 21666 net.cpp:124] Setting up Sigmoid1
I0504 08:22:27.463445 21666 net.cpp:131] Top shape: 111 24 16 16 (681984)
I0504 08:22:27.463451 21666 net.cpp:139] Memory required for data: 31371708
I0504 08:22:27.463459 21666 layer_factory.hpp:77] Creating layer pool1
I0504 08:22:27.463469 21666 net.cpp:86] Creating Layer pool1
I0504 08:22:27.463475 21666 net.cpp:408] pool1 <- Sigmoid1
I0504 08:22:27.463486 21666 net.cpp:382] pool1 -> pool1
I0504 08:22:27.463717 21666 net.cpp:124] Setting up pool1
I0504 08:22:27.463729 21666 net.cpp:131] Top shape: 111 24 8 8 (170496)
I0504 08:22:27.463735 21666 net.cpp:139] Memory required for data: 32053692
I0504 08:22:27.463742 21666 layer_factory.hpp:77] Creating layer ip1
I0504 08:22:27.463757 21666 net.cpp:86] Creating Layer ip1
I0504 08:22:27.463763 21666 net.cpp:408] ip1 <- pool1
I0504 08:22:27.463773 21666 net.cpp:382] ip1 -> ip1
I0504 08:22:27.464416 21666 net.cpp:124] Setting up ip1
I0504 08:22:27.464427 21666 net.cpp:131] Top shape: 111 10 (1110)
I0504 08:22:27.464433 21666 net.cpp:139] Memory required for data: 32058132
I0504 08:22:27.464448 21666 layer_factory.hpp:77] Creating layer relu1
I0504 08:22:27.464464 21666 net.cpp:86] Creating Layer relu1
I0504 08:22:27.464473 21666 net.cpp:408] relu1 <- ip1
I0504 08:22:27.464481 21666 net.cpp:369] relu1 -> ip1 (in-place)
I0504 08:22:27.464689 21666 net.cpp:124] Setting up relu1
I0504 08:22:27.464701 21666 net.cpp:131] Top shape: 111 10 (1110)
I0504 08:22:27.464707 21666 net.cpp:139] Memory required for data: 32062572
I0504 08:22:27.464715 21666 layer_factory.hpp:77] Creating layer ip2
I0504 08:22:27.464726 21666 net.cpp:86] Creating Layer ip2
I0504 08:22:27.464732 21666 net.cpp:408] ip2 <- ip1
I0504 08:22:27.464767 21666 net.cpp:382] ip2 -> ip2
I0504 08:22:27.464931 21666 net.cpp:124] Setting up ip2
I0504 08:22:27.464941 21666 net.cpp:131] Top shape: 111 60 (6660)
I0504 08:22:27.464947 21666 net.cpp:139] Memory required for data: 32089212
I0504 08:22:27.464958 21666 layer_factory.hpp:77] Creating layer relu2
I0504 08:22:27.464967 21666 net.cpp:86] Creating Layer relu2
I0504 08:22:27.464973 21666 net.cpp:408] relu2 <- ip2
I0504 08:22:27.464982 21666 net.cpp:369] relu2 -> ip2 (in-place)
I0504 08:22:27.465869 21666 net.cpp:124] Setting up relu2
I0504 08:22:27.465885 21666 net.cpp:131] Top shape: 111 60 (6660)
I0504 08:22:27.465893 21666 net.cpp:139] Memory required for data: 32115852
I0504 08:22:27.465899 21666 layer_factory.hpp:77] Creating layer ip3
I0504 08:22:27.465914 21666 net.cpp:86] Creating Layer ip3
I0504 08:22:27.465921 21666 net.cpp:408] ip3 <- ip2
I0504 08:22:27.465936 21666 net.cpp:382] ip3 -> ip3
I0504 08:22:27.466104 21666 net.cpp:124] Setting up ip3
I0504 08:22:27.466115 21666 net.cpp:131] Top shape: 111 10 (1110)
I0504 08:22:27.466121 21666 net.cpp:139] Memory required for data: 32120292
I0504 08:22:27.466136 21666 layer_factory.hpp:77] Creating layer loss
I0504 08:22:27.466146 21666 net.cpp:86] Creating Layer loss
I0504 08:22:27.466153 21666 net.cpp:408] loss <- ip3
I0504 08:22:27.466161 21666 net.cpp:408] loss <- label
I0504 08:22:27.466173 21666 net.cpp:382] loss -> loss
I0504 08:22:27.466194 21666 layer_factory.hpp:77] Creating layer loss
…
I0504 08:22:27.467072 21666 solver.cpp:173] Creating test net (#0) specified by net file: ECE595/cifar/train_test/var_everything_tiny/cifar_train_test_100.prototxt
I0504 08:22:27.467114 21666 net.cpp:296] The NetState phase (1) differed from the phase (0) specified by a rule in layer cifar
I0504 08:22:27.467247 21666 net.cpp:53] Initializing net from parameters: 
name: "CIFAR"
state {
  phase: TEST
}
layer {
  name: "cifar"
  type: "Data"
  top: "data"
  top: "label"
  include {
    phase: TEST
  }
  transform_param {
    mean_file: "examples/cifar10/mean.binaryproto"
  }
  data_param {
    source: "examples/cifar10/cifar10_test_lmdb"
    batch_size: 1000
    backend: LMDB
  }
}
layer {
  name: "conv0"
  type: "Convolution"
  bottom: "data"
  top: "conv0"
  param {
    lr_mult: 1
  }
  param {
    lr_mult: 2
  }
  convolution_param {
    num_output: 24
    pad: 2
    kernel_size: 5
    stride: 1
    weight_filler {
      type: "gaussian"
      std: 0.01
    }
    bias_filler {
      type: "constant"
    }
  }
}
layer {
  name: "Sigmoid0"
  type: "Sigmoid"
  bottom: "conv0"
  top: "Sigmoid0"
}
layer {
  name: "pool0"
  type: "Pooling"
  bottom: "Sigmoid0"
  top: "pool0"
  pooling_param {
    pool: AVE
    kernel_size: 3
    stride: 2
  }
}
layer {
  name: "conv1"
  type: "Convolution"
  bottom: "pool0"
  top: "conv1"
  param {
    lr_mult: 1
  }
  param {
    lr_mult: 2
  }
  convolution_param {
    num_output: 24
    pad: 2
    kernel_size: 5
    stride: 1
    weight_filler {
      type: "gaussian"
      std: 0.01
    }
    bias_filler {
      type: "constant"
    }
  }
}
layer {
  name: "Sigmoid1"
  type: "Sigmoid"
  bottom: "conv1"
  top: "Sigmoid1"
}
layer {
  name: "pool1"
  type: "Pooling"
  bottom: "Sigmoid1"
  top: "pool1"
  pooling_param {
    pool: AVE
    kernel_size: 3
    stride: 2
  }
}
layer {
  name: "ip1"
  type: "InnerProduct"
  bottom: "pool1"
  top: "ip1"
  param {
    lr_mult: 1
  }
  param {
    lr_mult: 2
  }
  inner_product_param {
    num_output: 10
    weight_filler {
      type: "gaussian"
      std: 0.01
    }
    bias_filler {
      type: "constant"
    }
  }
}
layer {
  name: "relu1"
  type: "ReLU"
  bottom: "ip1"
  top: "ip1"
}
layer {
  name: "ip2"
  type: "InnerProduct"
  bottom: "ip1"
  top: "ip2"
  param {
    lr_mult: 1
  }
  param {
    lr_mult: 2
  }
  inner_product_param {
    num_output: 60
    weight_filler {
      type: "gaussian"
      std: 0.01
    }
    bias_filler {
      type: "constant"
    }
  }
}
layer {
  name: "relu2"
  type: "ReLU"
  bottom: "ip2"
  top: "ip2"
}
layer {
  name: "ip3"
  type: "InnerProduct"
  bottom: "ip2"
  top: "ip3"
  param {
    lr_mult: 1
  }
  param {
    lr_mult: 2
  }
  inner_product_param {
    num_output: 10
    weight_filler {
      type: "gaussian"
      std: 0.01
    }
    bias_filler {
      type: "constant"
    }
  }
}
layer {
  name: "accuracy"
  type: "Accuracy"
  bottom: "ip3"
  bottom: "label"
  top: "accuracy"
  include {
    phase: TEST
  }
}
layer {
  name: "loss"
  type: "SoftmaxWithLoss"
  bottom: "ip3"
  bottom: "label"
  top: "loss"
}
I0504 08:22:27.467398 21666 layer_factory.hpp:77] Creating layer cifar
I0504 08:22:27.467470 21666 db_lmdb.cpp:35] Opened lmdb examples/cifar10/cifar10_test_lmdb
I0504 08:22:27.467490 21666 net.cpp:86] Creating Layer cifar
I0504 08:22:27.467499 21666 net.cpp:382] cifar -> data
I0504 08:22:27.467512 21666 net.cpp:382] cifar -> label
I0504 08:22:27.467525 21666 data_transformer.cpp:25] Loading mean file from: examples/cifar10/mean.binaryproto
I0504 08:22:27.467779 21666 data_layer.cpp:45] output data size: 1000,3,32,32
I0504 08:22:27.493870 21666 net.cpp:124] Setting up cifar
I0504 08:22:27.493903 21666 net.cpp:131] Top shape: 1000 3 32 32 (3072000)
I0504 08:22:27.493913 21666 net.cpp:131] Top shape: 1000 (1000)
I0504 08:22:27.493919 21666 net.cpp:139] Memory required for data: 12292000
I0504 08:22:27.493928 21666 layer_factory.hpp:77] Creating layer label_cifar_1_split
I0504 08:22:27.493947 21666 net.cpp:86] Creating Layer label_cifar_1_split
I0504 08:22:27.493960 21666 net.cpp:408] label_cifar_1_split <- label
I0504 08:22:27.493973 21666 net.cpp:382] label_cifar_1_split -> label_cifar_1_split_0
I0504 08:22:27.493989 21666 net.cpp:382] label_cifar_1_split -> label_cifar_1_split_1
I0504 08:22:27.494083 21666 net.cpp:124] Setting up label_cifar_1_split
I0504 08:22:27.494094 21666 net.cpp:131] Top shape: 1000 (1000)
I0504 08:22:27.494102 21666 net.cpp:131] Top shape: 1000 (1000)
I0504 08:22:27.494107 21666 net.cpp:139] Memory required for data: 12300000
I0504 08:22:27.494113 21666 layer_factory.hpp:77] Creating layer conv0
I0504 08:22:27.494135 21666 net.cpp:86] Creating Layer conv0
I0504 08:22:27.494143 21666 net.cpp:408] conv0 <- data
I0504 08:22:27.494158 21666 net.cpp:382] conv0 -> conv0
I0504 08:22:27.496999 21666 net.cpp:124] Setting up conv0
I0504 08:22:27.497020 21666 net.cpp:131] Top shape: 1000 24 32 32 (24576000)
I0504 08:22:27.497026 21666 net.cpp:139] Memory required for data: 110604000
I0504 08:22:27.497045 21666 layer_factory.hpp:77] Creating layer Sigmoid0
I0504 08:22:27.497061 21666 net.cpp:86] Creating Layer Sigmoid0
I0504 08:22:27.497076 21666 net.cpp:408] Sigmoid0 <- conv0
I0504 08:22:27.497086 21666 net.cpp:382] Sigmoid0 -> Sigmoid0
I0504 08:22:27.497330 21666 net.cpp:124] Setting up Sigmoid0
I0504 08:22:27.497357 21666 net.cpp:131] Top shape: 1000 24 32 32 (24576000)
I0504 08:22:27.497364 21666 net.cpp:139] Memory required for data: 208908000
I0504 08:22:27.497370 21666 layer_factory.hpp:77] Creating layer pool0
I0504 08:22:27.497386 21666 net.cpp:86] Creating Layer pool0
I0504 08:22:27.497393 21666 net.cpp:408] pool0 <- Sigmoid0
I0504 08:22:27.497404 21666 net.cpp:382] pool0 -> pool0
I0504 08:22:27.497638 21666 net.cpp:124] Setting up pool0
I0504 08:22:27.497651 21666 net.cpp:131] Top shape: 1000 24 16 16 (6144000)
I0504 08:22:27.497658 21666 net.cpp:139] Memory required for data: 233484000
I0504 08:22:27.497663 21666 layer_factory.hpp:77] Creating layer conv1
I0504 08:22:27.497680 21666 net.cpp:86] Creating Layer conv1
I0504 08:22:27.497689 21666 net.cpp:408] conv1 <- pool0
I0504 08:22:27.497701 21666 net.cpp:382] conv1 -> conv1
I0504 08:22:27.499776 21666 net.cpp:124] Setting up conv1
I0504 08:22:27.499794 21666 net.cpp:131] Top shape: 1000 24 16 16 (6144000)
I0504 08:22:27.499801 21666 net.cpp:139] Memory required for data: 258060000
I0504 08:22:27.499817 21666 layer_factory.hpp:77] Creating layer Sigmoid1
I0504 08:22:27.499830 21666 net.cpp:86] Creating Layer Sigmoid1
I0504 08:22:27.499838 21666 net.cpp:408] Sigmoid1 <- conv1
I0504 08:22:27.499847 21666 net.cpp:382] Sigmoid1 -> Sigmoid1
I0504 08:22:27.500068 21666 net.cpp:124] Setting up Sigmoid1
I0504 08:22:27.500082 21666 net.cpp:131] Top shape: 1000 24 16 16 (6144000)
I0504 08:22:27.500089 21666 net.cpp:139] Memory required for data: 282636000
I0504 08:22:27.500097 21666 layer_factory.hpp:77] Creating layer pool1
I0504 08:22:27.500109 21666 net.cpp:86] Creating Layer pool1
I0504 08:22:27.500115 21666 net.cpp:408] pool1 <- Sigmoid1
I0504 08:22:27.500125 21666 net.cpp:382] pool1 -> pool1
I0504 08:22:27.501037 21666 net.cpp:124] Setting up pool1
I0504 08:22:27.501056 21666 net.cpp:131] Top shape: 1000 24 8 8 (1536000)
I0504 08:22:27.501063 21666 net.cpp:139] Memory required for data: 288780000
I0504 08:22:27.501071 21666 layer_factory.hpp:77] Creating layer ip1
I0504 08:22:27.501088 21666 net.cpp:86] Creating Layer ip1
I0504 08:22:27.501096 21666 net.cpp:408] ip1 <- pool1
I0504 08:22:27.501108 21666 net.cpp:382] ip1 -> ip1
I0504 08:22:27.501770 21666 net.cpp:124] Setting up ip1
I0504 08:22:27.501782 21666 net.cpp:131] Top shape: 1000 10 (10000)
I0504 08:22:27.501788 21666 net.cpp:139] Memory required for data: 288820000
I0504 08:22:27.501804 21666 layer_factory.hpp:77] Creating layer relu1
I0504 08:22:27.501818 21666 net.cpp:86] Creating Layer relu1
I0504 08:22:27.501827 21666 net.cpp:408] relu1 <- ip1
I0504 08:22:27.501837 21666 net.cpp:369] relu1 -> ip1 (in-place)
I0504 08:22:27.502039 21666 net.cpp:124] Setting up relu1
I0504 08:22:27.502051 21666 net.cpp:131] Top shape: 1000 10 (10000)
I0504 08:22:27.502058 21666 net.cpp:139] Memory required for data: 288860000
I0504 08:22:27.502063 21666 layer_factory.hpp:77] Creating layer ip2
I0504 08:22:27.502079 21666 net.cpp:86] Creating Layer ip2
I0504 08:22:27.502084 21666 net.cpp:408] ip2 <- ip1
I0504 08:22:27.502096 21666 net.cpp:382] ip2 -> ip2
I0504 08:22:27.502269 21666 net.cpp:124] Setting up ip2
I0504 08:22:27.502280 21666 net.cpp:131] Top shape: 1000 60 (60000)
I0504 08:22:27.502286 21666 net.cpp:139] Memory required for data: 289100000
I0504 08:22:27.502296 21666 layer_factory.hpp:77] Creating layer relu2
I0504 08:22:27.502306 21666 net.cpp:86] Creating Layer relu2
I0504 08:22:27.502312 21666 net.cpp:408] relu2 <- ip2
I0504 08:22:27.502321 21666 net.cpp:369] relu2 -> ip2 (in-place)
I0504 08:22:27.502526 21666 net.cpp:124] Setting up relu2
I0504 08:22:27.502538 21666 net.cpp:131] Top shape: 1000 60 (60000)
I0504 08:22:27.502544 21666 net.cpp:139] Memory required for data: 289340000
I0504 08:22:27.502550 21666 layer_factory.hpp:77] Creating layer ip3
I0504 08:22:27.502562 21666 net.cpp:86] Creating Layer ip3
I0504 08:22:27.502568 21666 net.cpp:408] ip3 <- ip2
I0504 08:22:27.502581 21666 net.cpp:382] ip3 -> ip3
I0504 08:22:27.502738 21666 net.cpp:124] Setting up ip3
I0504 08:22:27.502749 21666 net.cpp:131] Top shape: 1000 10 (10000)
I0504 08:22:27.502768 21666 net.cpp:139] Memory required for data: 289380000
I0504 08:22:27.502784 21666 layer_factory.hpp:77] Creating layer ip3_ip3_0_split
I0504 08:22:27.502794 21666 net.cpp:86] Creating Layer ip3_ip3_0_split
I0504 08:22:27.502800 21666 net.cpp:408] ip3_ip3_0_split <- ip3
I0504 08:22:27.502811 21666 net.cpp:382] ip3_ip3_0_split -> ip3_ip3_0_split_0
I0504 08:22:27.502822 21666 net.cpp:382] ip3_ip3_0_split -> ip3_ip3_0_split_1
I0504 08:22:27.502876 21666 net.cpp:124] Setting up ip3_ip3_0_split
I0504 08:22:27.502885 21666 net.cpp:131] Top shape: 1000 10 (10000)
I0504 08:22:27.502893 21666 net.cpp:131] Top shape: 1000 10 (10000)
I0504 08:22:27.502899 21666 net.cpp:139] Memory required for data: 289460000
I0504 08:22:27.502907 21666 layer_factory.hpp:77] Creating layer accuracy
I0504 08:22:27.502917 21666 net.cpp:86] Creating Layer accuracy
I0504 08:22:27.502923 21666 net.cpp:408] accuracy <- ip3_ip3_0_split_0
I0504 08:22:27.502930 21666 net.cpp:408] accuracy <- label_cifar_1_split_0
I0504 08:22:27.502939 21666 net.cpp:382] accuracy -> accuracy
…
