…
I0504 07:53:23.917465 20152 net.cpp:296] The NetState phase (0) differed from the phase (1) specified by a rule in layer cifar
I0504 07:53:23.917485 20152 net.cpp:296] The NetState phase (0) differed from the phase (1) specified by a rule in layer accuracy
I0504 07:53:23.917618 20152 net.cpp:53] Initializing net from parameters: 
name: "CIFAR"
state {
  phase: TRAIN
  level: 0
  stage: ""
}
layer {
  name: "cifar"
  type: "Data"
  top: "data"
  top: "label"
  include {
    phase: TRAIN
  }
  transform_param {
    mean_file: "examples/cifar10/mean.binaryproto"
  }
  data_param {
    source: "examples/cifar10/cifar10_train_lmdb"
    batch_size: 111
    backend: LMDB
  }
}
layer {
  name: "conv0"
  type: "Convolution"
  bottom: "data"
  top: "conv0"
  param {
    lr_mult: 1
  }
  param {
    lr_mult: 2
  }
  convolution_param {
    num_output: 24
    pad: 2
    kernel_size: 5
    stride: 1
    weight_filler {
      type: "gaussian"
      std: 0.01
    }
    bias_filler {
      type: "constant"
    }
  }
}
layer {
  name: "Sigmoid0"
  type: "Sigmoid"
  bottom: "conv0"
  top: "Sigmoid0"
}
layer {
  name: "pool0"
  type: "Pooling"
  bottom: "Sigmoid0"
  top: "pool0"
  pooling_param {
    pool: AVE
    kernel_size: 3
    stride: 2
  }
}
layer {
  name: "conv1"
  type: "Convolution"
  bottom: "pool0"
  top: "conv1"
  param {
    lr_mult: 1
  }
  param {
    lr_mult: 2
  }
  convolution_param {
    num_output: 24
    pad: 2
    kernel_size: 3
    stride: 1
    weight_filler {
      type: "gaussian"
      std: 0.01
    }
    bias_filler {
      type: "constant"
    }
  }
}
layer {
  name: "Sigmoid1"
  type: "Sigmoid"
  bottom: "conv1"
  top: "Sigmoid1"
}
layer {
  name: "pool1"
  type: "Pooling"
  bottom: "Sigmoid1"
  top: "pool1"
  pooling_param {
    pool: AVE
    kernel_size: 3
    stride: 2
  }
}
layer {
  name: "ip1"
  type: "InnerProduct"
  bottom: "pool1"
  top: "ip1"
  param {
    lr_mult: 1
  }
  param {
    lr_mult: 2
  }
  inner_product_param {
    num_output: 10
    weight_filler {
      type: "gaussian"
      std: 0.01
    }
    bias_filler {
      type: "constant"
    }
  }
}
layer {
  name: "relu1"
  type: "ReLU"
  bottom: "ip1"
  top: "ip1"
}
layer {
  name: "ip2"
  type: "InnerProduct"
  bottom: "ip1"
  top: "ip2"
  param {
    lr_mult: 1
  }
  param {
    lr_mult: 2
  }
  inner_product_param {
    num_output: 180
    weight_filler {
      type: "gaussian"
      std: 0.01
    }
    bias_filler {
      type: "constant"
    }
  }
}
layer {
  name: "relu2"
  type: "ReLU"
  bottom: "ip2"
  top: "ip2"
}
layer {
  name: "ip3"
  type: "InnerProduct"
  bottom: "ip2"
  top: "ip3"
  param {
    lr_mult: 1
  }
  param {
    lr_mult: 2
  }
  inner_product_param {
    num_output: 10
    weight_filler {
      type: "gaussian"
      std: 0.01
    }
    bias_filler {
      type: "constant"
    }
  }
}
layer {
  name: "loss"
  type: "SoftmaxWithLoss"
  bottom: "ip3"
  bottom: "label"
  top: "loss"
}
I0504 07:53:23.917728 20152 layer_factory.hpp:77] Creating layer cifar
I0504 07:53:23.917868 20152 db_lmdb.cpp:35] Opened lmdb examples/cifar10/cifar10_train_lmdb
I0504 07:53:23.917907 20152 net.cpp:86] Creating Layer cifar
I0504 07:53:23.917923 20152 net.cpp:382] cifar -> data
I0504 07:53:23.917953 20152 net.cpp:382] cifar -> label
I0504 07:53:23.917970 20152 data_transformer.cpp:25] Loading mean file from: examples/cifar10/mean.binaryproto
I0504 07:53:23.920415 20152 data_layer.cpp:45] output data size: 111,3,32,32
I0504 07:53:23.928635 20152 net.cpp:124] Setting up cifar
I0504 07:53:23.928655 20152 net.cpp:131] Top shape: 111 3 32 32 (340992)
I0504 07:53:23.928661 20152 net.cpp:131] Top shape: 111 (111)
I0504 07:53:23.928665 20152 net.cpp:139] Memory required for data: 1364412
I0504 07:53:23.928673 20152 layer_factory.hpp:77] Creating layer conv0
I0504 07:53:23.928709 20152 net.cpp:86] Creating Layer conv0
I0504 07:53:23.928719 20152 net.cpp:408] conv0 <- data
I0504 07:53:23.928740 20152 net.cpp:382] conv0 -> conv0
I0504 07:53:24.209758 20152 net.cpp:124] Setting up conv0
I0504 07:53:24.209784 20152 net.cpp:131] Top shape: 111 24 32 32 (2727936)
I0504 07:53:24.209789 20152 net.cpp:139] Memory required for data: 12276156
I0504 07:53:24.209803 20152 layer_factory.hpp:77] Creating layer Sigmoid0
I0504 07:53:24.209815 20152 net.cpp:86] Creating Layer Sigmoid0
I0504 07:53:24.209818 20152 net.cpp:408] Sigmoid0 <- conv0
I0504 07:53:24.209825 20152 net.cpp:382] Sigmoid0 -> Sigmoid0
I0504 07:53:24.210011 20152 net.cpp:124] Setting up Sigmoid0
I0504 07:53:24.210021 20152 net.cpp:131] Top shape: 111 24 32 32 (2727936)
I0504 07:53:24.210026 20152 net.cpp:139] Memory required for data: 23187900
I0504 07:53:24.210028 20152 layer_factory.hpp:77] Creating layer pool0
I0504 07:53:24.210038 20152 net.cpp:86] Creating Layer pool0
I0504 07:53:24.210043 20152 net.cpp:408] pool0 <- Sigmoid0
I0504 07:53:24.210050 20152 net.cpp:382] pool0 -> pool0
I0504 07:53:24.210758 20152 net.cpp:124] Setting up pool0
I0504 07:53:24.210772 20152 net.cpp:131] Top shape: 111 24 16 16 (681984)
I0504 07:53:24.210774 20152 net.cpp:139] Memory required for data: 25915836
I0504 07:53:24.210778 20152 layer_factory.hpp:77] Creating layer conv1
I0504 07:53:24.210790 20152 net.cpp:86] Creating Layer conv1
I0504 07:53:24.210793 20152 net.cpp:408] conv1 <- pool0
I0504 07:53:24.210799 20152 net.cpp:382] conv1 -> conv1
I0504 07:53:24.213445 20152 net.cpp:124] Setting up conv1
I0504 07:53:24.213459 20152 net.cpp:131] Top shape: 111 24 18 18 (863136)
I0504 07:53:24.213462 20152 net.cpp:139] Memory required for data: 29368380
I0504 07:53:24.213471 20152 layer_factory.hpp:77] Creating layer Sigmoid1
I0504 07:53:24.213477 20152 net.cpp:86] Creating Layer Sigmoid1
I0504 07:53:24.213480 20152 net.cpp:408] Sigmoid1 <- conv1
I0504 07:53:24.213485 20152 net.cpp:382] Sigmoid1 -> Sigmoid1
I0504 07:53:24.213677 20152 net.cpp:124] Setting up Sigmoid1
I0504 07:53:24.213688 20152 net.cpp:131] Top shape: 111 24 18 18 (863136)
I0504 07:53:24.213691 20152 net.cpp:139] Memory required for data: 32820924
I0504 07:53:24.213696 20152 layer_factory.hpp:77] Creating layer pool1
I0504 07:53:24.213703 20152 net.cpp:86] Creating Layer pool1
I0504 07:53:24.213709 20152 net.cpp:408] pool1 <- Sigmoid1
I0504 07:53:24.213716 20152 net.cpp:382] pool1 -> pool1
I0504 07:53:24.213882 20152 net.cpp:124] Setting up pool1
I0504 07:53:24.213891 20152 net.cpp:131] Top shape: 111 24 9 9 (215784)
I0504 07:53:24.213894 20152 net.cpp:139] Memory required for data: 33684060
I0504 07:53:24.213898 20152 layer_factory.hpp:77] Creating layer ip1
I0504 07:53:24.213908 20152 net.cpp:86] Creating Layer ip1
I0504 07:53:24.213913 20152 net.cpp:408] ip1 <- pool1
I0504 07:53:24.213922 20152 net.cpp:382] ip1 -> ip1
I0504 07:53:24.215289 20152 net.cpp:124] Setting up ip1
I0504 07:53:24.215301 20152 net.cpp:131] Top shape: 111 10 (1110)
I0504 07:53:24.215304 20152 net.cpp:139] Memory required for data: 33688500
I0504 07:53:24.215313 20152 layer_factory.hpp:77] Creating layer relu1
I0504 07:53:24.215320 20152 net.cpp:86] Creating Layer relu1
I0504 07:53:24.215323 20152 net.cpp:408] relu1 <- ip1
I0504 07:53:24.215328 20152 net.cpp:369] relu1 -> ip1 (in-place)
I0504 07:53:24.215502 20152 net.cpp:124] Setting up relu1
I0504 07:53:24.215512 20152 net.cpp:131] Top shape: 111 10 (1110)
I0504 07:53:24.215514 20152 net.cpp:139] Memory required for data: 33692940
I0504 07:53:24.215518 20152 layer_factory.hpp:77] Creating layer ip2
I0504 07:53:24.215528 20152 net.cpp:86] Creating Layer ip2
I0504 07:53:24.215533 20152 net.cpp:408] ip2 <- ip1
I0504 07:53:24.215559 20152 net.cpp:382] ip2 -> ip2
I0504 07:53:24.215710 20152 net.cpp:124] Setting up ip2
I0504 07:53:24.215718 20152 net.cpp:131] Top shape: 111 180 (19980)
I0504 07:53:24.215721 20152 net.cpp:139] Memory required for data: 33772860
I0504 07:53:24.215728 20152 layer_factory.hpp:77] Creating layer relu2
I0504 07:53:24.215736 20152 net.cpp:86] Creating Layer relu2
I0504 07:53:24.215741 20152 net.cpp:408] relu2 <- ip2
I0504 07:53:24.215747 20152 net.cpp:369] relu2 -> ip2 (in-place)
I0504 07:53:24.216511 20152 net.cpp:124] Setting up relu2
I0504 07:53:24.216523 20152 net.cpp:131] Top shape: 111 180 (19980)
I0504 07:53:24.216526 20152 net.cpp:139] Memory required for data: 33852780
I0504 07:53:24.216529 20152 layer_factory.hpp:77] Creating layer ip3
I0504 07:53:24.216536 20152 net.cpp:86] Creating Layer ip3
I0504 07:53:24.216540 20152 net.cpp:408] ip3 <- ip2
I0504 07:53:24.216545 20152 net.cpp:382] ip3 -> ip3
I0504 07:53:24.216708 20152 net.cpp:124] Setting up ip3
I0504 07:53:24.216730 20152 net.cpp:131] Top shape: 111 10 (1110)
I0504 07:53:24.216734 20152 net.cpp:139] Memory required for data: 33857220
I0504 07:53:24.216747 20152 layer_factory.hpp:77] Creating layer loss
I0504 07:53:24.216754 20152 net.cpp:86] Creating Layer loss
I0504 07:53:24.216759 20152 net.cpp:408] loss <- ip3
I0504 07:53:24.216781 20152 net.cpp:408] loss <- label
I0504 07:53:24.216790 20152 net.cpp:382] loss -> loss
I0504 07:53:24.216835 20152 layer_factory.hpp:77] Creating layer loss
…
I0504 07:53:24.217995 20152 solver.cpp:173] Creating test net (#0) specified by net file: ECE595/cifar/train_test/var_everything_tiny/cifar_train_test_89.prototxt
I0504 07:53:24.218053 20152 net.cpp:296] The NetState phase (1) differed from the phase (0) specified by a rule in layer cifar
I0504 07:53:24.218232 20152 net.cpp:53] Initializing net from parameters: 
name: "CIFAR"
state {
  phase: TEST
}
layer {
  name: "cifar"
  type: "Data"
  top: "data"
  top: "label"
  include {
    phase: TEST
  }
  transform_param {
    mean_file: "examples/cifar10/mean.binaryproto"
  }
  data_param {
    source: "examples/cifar10/cifar10_test_lmdb"
    batch_size: 1000
    backend: LMDB
  }
}
layer {
  name: "conv0"
  type: "Convolution"
  bottom: "data"
  top: "conv0"
  param {
    lr_mult: 1
  }
  param {
    lr_mult: 2
  }
  convolution_param {
    num_output: 24
    pad: 2
    kernel_size: 5
    stride: 1
    weight_filler {
      type: "gaussian"
      std: 0.01
    }
    bias_filler {
      type: "constant"
    }
  }
}
layer {
  name: "Sigmoid0"
  type: "Sigmoid"
  bottom: "conv0"
  top: "Sigmoid0"
}
layer {
  name: "pool0"
  type: "Pooling"
  bottom: "Sigmoid0"
  top: "pool0"
  pooling_param {
    pool: AVE
    kernel_size: 3
    stride: 2
  }
}
layer {
  name: "conv1"
  type: "Convolution"
  bottom: "pool0"
  top: "conv1"
  param {
    lr_mult: 1
  }
  param {
    lr_mult: 2
  }
  convolution_param {
    num_output: 24
    pad: 2
    kernel_size: 3
    stride: 1
    weight_filler {
      type: "gaussian"
      std: 0.01
    }
    bias_filler {
      type: "constant"
    }
  }
}
layer {
  name: "Sigmoid1"
  type: "Sigmoid"
  bottom: "conv1"
  top: "Sigmoid1"
}
layer {
  name: "pool1"
  type: "Pooling"
  bottom: "Sigmoid1"
  top: "pool1"
  pooling_param {
    pool: AVE
    kernel_size: 3
    stride: 2
  }
}
layer {
  name: "ip1"
  type: "InnerProduct"
  bottom: "pool1"
  top: "ip1"
  param {
    lr_mult: 1
  }
  param {
    lr_mult: 2
  }
  inner_product_param {
    num_output: 10
    weight_filler {
      type: "gaussian"
      std: 0.01
    }
    bias_filler {
      type: "constant"
    }
  }
}
layer {
  name: "relu1"
  type: "ReLU"
  bottom: "ip1"
  top: "ip1"
}
layer {
  name: "ip2"
  type: "InnerProduct"
  bottom: "ip1"
  top: "ip2"
  param {
    lr_mult: 1
  }
  param {
    lr_mult: 2
  }
  inner_product_param {
    num_output: 180
    weight_filler {
      type: "gaussian"
      std: 0.01
    }
    bias_filler {
      type: "constant"
    }
  }
}
layer {
  name: "relu2"
  type: "ReLU"
  bottom: "ip2"
  top: "ip2"
}
layer {
  name: "ip3"
  type: "InnerProduct"
  bottom: "ip2"
  top: "ip3"
  param {
    lr_mult: 1
  }
  param {
    lr_mult: 2
  }
  inner_product_param {
    num_output: 10
    weight_filler {
      type: "gaussian"
      std: 0.01
    }
    bias_filler {
      type: "constant"
    }
  }
}
layer {
  name: "accuracy"
  type: "Accuracy"
  bottom: "ip3"
  bottom: "label"
  top: "accuracy"
  include {
    phase: TEST
  }
}
layer {
  name: "loss"
  type: "SoftmaxWithLoss"
  bottom: "ip3"
  bottom: "label"
  top: "loss"
}
I0504 07:53:24.218359 20152 layer_factory.hpp:77] Creating layer cifar
I0504 07:53:24.218420 20152 db_lmdb.cpp:35] Opened lmdb examples/cifar10/cifar10_test_lmdb
I0504 07:53:24.218437 20152 net.cpp:86] Creating Layer cifar
I0504 07:53:24.218446 20152 net.cpp:382] cifar -> data
I0504 07:53:24.218458 20152 net.cpp:382] cifar -> label
I0504 07:53:24.218468 20152 data_transformer.cpp:25] Loading mean file from: examples/cifar10/mean.binaryproto
I0504 07:53:24.218679 20152 data_layer.cpp:45] output data size: 1000,3,32,32
I0504 07:53:24.240494 20152 net.cpp:124] Setting up cifar
I0504 07:53:24.240520 20152 net.cpp:131] Top shape: 1000 3 32 32 (3072000)
I0504 07:53:24.240525 20152 net.cpp:131] Top shape: 1000 (1000)
I0504 07:53:24.240528 20152 net.cpp:139] Memory required for data: 12292000
I0504 07:53:24.240535 20152 layer_factory.hpp:77] Creating layer label_cifar_1_split
I0504 07:53:24.240546 20152 net.cpp:86] Creating Layer label_cifar_1_split
I0504 07:53:24.240550 20152 net.cpp:408] label_cifar_1_split <- label
I0504 07:53:24.240556 20152 net.cpp:382] label_cifar_1_split -> label_cifar_1_split_0
I0504 07:53:24.240564 20152 net.cpp:382] label_cifar_1_split -> label_cifar_1_split_1
I0504 07:53:24.240694 20152 net.cpp:124] Setting up label_cifar_1_split
I0504 07:53:24.240702 20152 net.cpp:131] Top shape: 1000 (1000)
I0504 07:53:24.240705 20152 net.cpp:131] Top shape: 1000 (1000)
I0504 07:53:24.240708 20152 net.cpp:139] Memory required for data: 12300000
I0504 07:53:24.240711 20152 layer_factory.hpp:77] Creating layer conv0
I0504 07:53:24.240723 20152 net.cpp:86] Creating Layer conv0
I0504 07:53:24.240726 20152 net.cpp:408] conv0 <- data
I0504 07:53:24.240732 20152 net.cpp:382] conv0 -> conv0
I0504 07:53:24.242305 20152 net.cpp:124] Setting up conv0
I0504 07:53:24.242318 20152 net.cpp:131] Top shape: 1000 24 32 32 (24576000)
I0504 07:53:24.242322 20152 net.cpp:139] Memory required for data: 110604000
I0504 07:53:24.242331 20152 layer_factory.hpp:77] Creating layer Sigmoid0
I0504 07:53:24.242338 20152 net.cpp:86] Creating Layer Sigmoid0
I0504 07:53:24.242342 20152 net.cpp:408] Sigmoid0 <- conv0
I0504 07:53:24.242347 20152 net.cpp:382] Sigmoid0 -> Sigmoid0
I0504 07:53:24.242619 20152 net.cpp:124] Setting up Sigmoid0
I0504 07:53:24.242640 20152 net.cpp:131] Top shape: 1000 24 32 32 (24576000)
I0504 07:53:24.242645 20152 net.cpp:139] Memory required for data: 208908000
I0504 07:53:24.242647 20152 layer_factory.hpp:77] Creating layer pool0
I0504 07:53:24.242656 20152 net.cpp:86] Creating Layer pool0
I0504 07:53:24.242660 20152 net.cpp:408] pool0 <- Sigmoid0
I0504 07:53:24.242666 20152 net.cpp:382] pool0 -> pool0
I0504 07:53:24.243801 20152 net.cpp:124] Setting up pool0
I0504 07:53:24.243810 20152 net.cpp:131] Top shape: 1000 24 16 16 (6144000)
I0504 07:53:24.243813 20152 net.cpp:139] Memory required for data: 233484000
I0504 07:53:24.243818 20152 layer_factory.hpp:77] Creating layer conv1
I0504 07:53:24.243826 20152 net.cpp:86] Creating Layer conv1
I0504 07:53:24.243830 20152 net.cpp:408] conv1 <- pool0
I0504 07:53:24.243835 20152 net.cpp:382] conv1 -> conv1
I0504 07:53:24.245283 20152 net.cpp:124] Setting up conv1
I0504 07:53:24.245296 20152 net.cpp:131] Top shape: 1000 24 18 18 (7776000)
I0504 07:53:24.245299 20152 net.cpp:139] Memory required for data: 264588000
I0504 07:53:24.245307 20152 layer_factory.hpp:77] Creating layer Sigmoid1
I0504 07:53:24.245314 20152 net.cpp:86] Creating Layer Sigmoid1
I0504 07:53:24.245318 20152 net.cpp:408] Sigmoid1 <- conv1
I0504 07:53:24.245322 20152 net.cpp:382] Sigmoid1 -> Sigmoid1
I0504 07:53:24.245508 20152 net.cpp:124] Setting up Sigmoid1
I0504 07:53:24.245518 20152 net.cpp:131] Top shape: 1000 24 18 18 (7776000)
I0504 07:53:24.245522 20152 net.cpp:139] Memory required for data: 295692000
I0504 07:53:24.245525 20152 layer_factory.hpp:77] Creating layer pool1
I0504 07:53:24.245530 20152 net.cpp:86] Creating Layer pool1
I0504 07:53:24.245534 20152 net.cpp:408] pool1 <- Sigmoid1
I0504 07:53:24.245538 20152 net.cpp:382] pool1 -> pool1
I0504 07:53:24.246316 20152 net.cpp:124] Setting up pool1
I0504 07:53:24.246328 20152 net.cpp:131] Top shape: 1000 24 9 9 (1944000)
I0504 07:53:24.246331 20152 net.cpp:139] Memory required for data: 303468000
I0504 07:53:24.246335 20152 layer_factory.hpp:77] Creating layer ip1
I0504 07:53:24.246343 20152 net.cpp:86] Creating Layer ip1
I0504 07:53:24.246346 20152 net.cpp:408] ip1 <- pool1
I0504 07:53:24.246353 20152 net.cpp:382] ip1 -> ip1
I0504 07:53:24.247028 20152 net.cpp:124] Setting up ip1
I0504 07:53:24.247035 20152 net.cpp:131] Top shape: 1000 10 (10000)
I0504 07:53:24.247054 20152 net.cpp:139] Memory required for data: 303508000
I0504 07:53:24.247062 20152 layer_factory.hpp:77] Creating layer relu1
I0504 07:53:24.247083 20152 net.cpp:86] Creating Layer relu1
I0504 07:53:24.247087 20152 net.cpp:408] relu1 <- ip1
I0504 07:53:24.247090 20152 net.cpp:369] relu1 -> ip1 (in-place)
I0504 07:53:24.247259 20152 net.cpp:124] Setting up relu1
I0504 07:53:24.247267 20152 net.cpp:131] Top shape: 1000 10 (10000)
I0504 07:53:24.247270 20152 net.cpp:139] Memory required for data: 303548000
I0504 07:53:24.247273 20152 layer_factory.hpp:77] Creating layer ip2
I0504 07:53:24.247280 20152 net.cpp:86] Creating Layer ip2
I0504 07:53:24.247283 20152 net.cpp:408] ip2 <- ip1
I0504 07:53:24.247288 20152 net.cpp:382] ip2 -> ip2
I0504 07:53:24.247436 20152 net.cpp:124] Setting up ip2
I0504 07:53:24.247442 20152 net.cpp:131] Top shape: 1000 180 (180000)
I0504 07:53:24.247445 20152 net.cpp:139] Memory required for data: 304268000
I0504 07:53:24.247452 20152 layer_factory.hpp:77] Creating layer relu2
I0504 07:53:24.247457 20152 net.cpp:86] Creating Layer relu2
I0504 07:53:24.247460 20152 net.cpp:408] relu2 <- ip2
I0504 07:53:24.247464 20152 net.cpp:369] relu2 -> ip2 (in-place)
I0504 07:53:24.247617 20152 net.cpp:124] Setting up relu2
I0504 07:53:24.247623 20152 net.cpp:131] Top shape: 1000 180 (180000)
I0504 07:53:24.247627 20152 net.cpp:139] Memory required for data: 304988000
I0504 07:53:24.247629 20152 layer_factory.hpp:77] Creating layer ip3
I0504 07:53:24.247638 20152 net.cpp:86] Creating Layer ip3
I0504 07:53:24.247642 20152 net.cpp:408] ip3 <- ip2
I0504 07:53:24.247648 20152 net.cpp:382] ip3 -> ip3
I0504 07:53:24.247792 20152 net.cpp:124] Setting up ip3
I0504 07:53:24.247799 20152 net.cpp:131] Top shape: 1000 10 (10000)
I0504 07:53:24.247812 20152 net.cpp:139] Memory required for data: 305028000
I0504 07:53:24.247819 20152 layer_factory.hpp:77] Creating layer ip3_ip3_0_split
I0504 07:53:24.247824 20152 net.cpp:86] Creating Layer ip3_ip3_0_split
I0504 07:53:24.247828 20152 net.cpp:408] ip3_ip3_0_split <- ip3
I0504 07:53:24.247833 20152 net.cpp:382] ip3_ip3_0_split -> ip3_ip3_0_split_0
I0504 07:53:24.247853 20152 net.cpp:382] ip3_ip3_0_split -> ip3_ip3_0_split_1
I0504 07:53:24.247889 20152 net.cpp:124] Setting up ip3_ip3_0_split
I0504 07:53:24.247894 20152 net.cpp:131] Top shape: 1000 10 (10000)
I0504 07:53:24.247897 20152 net.cpp:131] Top shape: 1000 10 (10000)
I0504 07:53:24.247916 20152 net.cpp:139] Memory required for data: 305108000
I0504 07:53:24.247920 20152 layer_factory.hpp:77] Creating layer accuracy
I0504 07:53:24.247925 20152 net.cpp:86] Creating Layer accuracy
I0504 07:53:24.247928 20152 net.cpp:408] accuracy <- ip3_ip3_0_split_0
I0504 07:53:24.247934 20152 net.cpp:408] accuracy <- label_cifar_1_split_0
I0504 07:53:24.247938 20152 net.cpp:382] accuracy -> accuracy
…
