…
I0504 00:18:58.869033  5134 net.cpp:296] The NetState phase (0) differed from the phase (1) specified by a rule in layer cifar
I0504 00:18:58.869052  5134 net.cpp:296] The NetState phase (0) differed from the phase (1) specified by a rule in layer accuracy
I0504 00:18:58.869166  5134 net.cpp:53] Initializing net from parameters: 
name: "CIFAR"
state {
  phase: TRAIN
  level: 0
  stage: ""
}
layer {
  name: "cifar"
  type: "Data"
  top: "data"
  top: "label"
  include {
    phase: TRAIN
  }
  transform_param {
    mean_file: "examples/cifar10/mean.binaryproto"
  }
  data_param {
    source: "examples/cifar10/cifar10_train_lmdb"
    batch_size: 111
    backend: LMDB
  }
}
layer {
  name: "conv0"
  type: "Convolution"
  bottom: "data"
  top: "conv0"
  param {
    lr_mult: 1
  }
  param {
    lr_mult: 2
  }
  convolution_param {
    num_output: 24
    pad: 2
    kernel_size: 5
    stride: 1
    weight_filler {
      type: "gaussian"
      std: 0.01
    }
    bias_filler {
      type: "constant"
    }
  }
}
layer {
  name: "Sigmoid0"
  type: "Sigmoid"
  bottom: "conv0"
  top: "Sigmoid0"
}
layer {
  name: "pool0"
  type: "Pooling"
  bottom: "Sigmoid0"
  top: "pool0"
  pooling_param {
    pool: AVE
    kernel_size: 3
    stride: 2
  }
}
layer {
  name: "ip1"
  type: "InnerProduct"
  bottom: "pool0"
  top: "ip1"
  param {
    lr_mult: 1
  }
  param {
    lr_mult: 2
  }
  inner_product_param {
    num_output: 10
    weight_filler {
      type: "gaussian"
      std: 0.01
    }
    bias_filler {
      type: "constant"
    }
  }
}
layer {
  name: "relu1"
  type: "ReLU"
  bottom: "ip1"
  top: "ip1"
}
layer {
  name: "ip2"
  type: "InnerProduct"
  bottom: "ip1"
  top: "ip2"
  param {
    lr_mult: 1
  }
  param {
    lr_mult: 2
  }
  inner_product_param {
    num_output: 10
    weight_filler {
      type: "gaussian"
      std: 0.01
    }
    bias_filler {
      type: "constant"
    }
  }
}
layer {
  name: "relu2"
  type: "ReLU"
  bottom: "ip2"
  top: "ip2"
}
layer {
  name: "ip3"
  type: "InnerProduct"
  bottom: "ip2"
  top: "ip3"
  param {
    lr_mult: 1
  }
  param {
    lr_mult: 2
  }
  inner_product_param {
    num_output: 10
    weight_filler {
      type: "gaussian"
      std: 0.01
    }
    bias_filler {
      type: "constant"
    }
  }
}
layer {
  name: "loss"
  type: "SoftmaxWithLoss"
  bottom: "ip3"
  bottom: "label"
  top: "loss"
}
I0504 00:18:58.869262  5134 layer_factory.hpp:77] Creating layer cifar
I0504 00:18:58.869401  5134 db_lmdb.cpp:35] Opened lmdb examples/cifar10/cifar10_train_lmdb
I0504 00:18:58.869438  5134 net.cpp:86] Creating Layer cifar
I0504 00:18:58.869452  5134 net.cpp:382] cifar -> data
I0504 00:18:58.869483  5134 net.cpp:382] cifar -> label
I0504 00:18:58.869499  5134 data_transformer.cpp:25] Loading mean file from: examples/cifar10/mean.binaryproto
I0504 00:18:58.871798  5134 data_layer.cpp:45] output data size: 111,3,32,32
I0504 00:18:58.879732  5134 net.cpp:124] Setting up cifar
I0504 00:18:58.879750  5134 net.cpp:131] Top shape: 111 3 32 32 (340992)
I0504 00:18:58.879756  5134 net.cpp:131] Top shape: 111 (111)
I0504 00:18:58.879760  5134 net.cpp:139] Memory required for data: 1364412
I0504 00:18:58.879767  5134 layer_factory.hpp:77] Creating layer conv0
I0504 00:18:58.879801  5134 net.cpp:86] Creating Layer conv0
I0504 00:18:58.879809  5134 net.cpp:408] conv0 <- data
I0504 00:18:58.879829  5134 net.cpp:382] conv0 -> conv0
I0504 00:18:59.167170  5134 net.cpp:124] Setting up conv0
I0504 00:18:59.167214  5134 net.cpp:131] Top shape: 111 24 32 32 (2727936)
I0504 00:18:59.167219  5134 net.cpp:139] Memory required for data: 12276156
I0504 00:18:59.167234  5134 layer_factory.hpp:77] Creating layer Sigmoid0
I0504 00:18:59.167246  5134 net.cpp:86] Creating Layer Sigmoid0
I0504 00:18:59.167250  5134 net.cpp:408] Sigmoid0 <- conv0
I0504 00:18:59.167256  5134 net.cpp:382] Sigmoid0 -> Sigmoid0
I0504 00:18:59.167456  5134 net.cpp:124] Setting up Sigmoid0
I0504 00:18:59.167466  5134 net.cpp:131] Top shape: 111 24 32 32 (2727936)
I0504 00:18:59.167469  5134 net.cpp:139] Memory required for data: 23187900
I0504 00:18:59.167474  5134 layer_factory.hpp:77] Creating layer pool0
I0504 00:18:59.167484  5134 net.cpp:86] Creating Layer pool0
I0504 00:18:59.167488  5134 net.cpp:408] pool0 <- Sigmoid0
I0504 00:18:59.167496  5134 net.cpp:382] pool0 -> pool0
I0504 00:18:59.168246  5134 net.cpp:124] Setting up pool0
I0504 00:18:59.168259  5134 net.cpp:131] Top shape: 111 24 16 16 (681984)
I0504 00:18:59.168262  5134 net.cpp:139] Memory required for data: 25915836
I0504 00:18:59.168267  5134 layer_factory.hpp:77] Creating layer ip1
I0504 00:18:59.168275  5134 net.cpp:86] Creating Layer ip1
I0504 00:18:59.168278  5134 net.cpp:408] ip1 <- pool0
I0504 00:18:59.168283  5134 net.cpp:382] ip1 -> ip1
I0504 00:18:59.170874  5134 net.cpp:124] Setting up ip1
I0504 00:18:59.170887  5134 net.cpp:131] Top shape: 111 10 (1110)
I0504 00:18:59.170892  5134 net.cpp:139] Memory required for data: 25920276
I0504 00:18:59.170899  5134 layer_factory.hpp:77] Creating layer relu1
I0504 00:18:59.170905  5134 net.cpp:86] Creating Layer relu1
I0504 00:18:59.170909  5134 net.cpp:408] relu1 <- ip1
I0504 00:18:59.170913  5134 net.cpp:369] relu1 -> ip1 (in-place)
I0504 00:18:59.171089  5134 net.cpp:124] Setting up relu1
I0504 00:18:59.171098  5134 net.cpp:131] Top shape: 111 10 (1110)
I0504 00:18:59.171102  5134 net.cpp:139] Memory required for data: 25924716
I0504 00:18:59.171105  5134 layer_factory.hpp:77] Creating layer ip2
I0504 00:18:59.171114  5134 net.cpp:86] Creating Layer ip2
I0504 00:18:59.171119  5134 net.cpp:408] ip2 <- ip1
I0504 00:18:59.171128  5134 net.cpp:382] ip2 -> ip2
I0504 00:18:59.171237  5134 net.cpp:124] Setting up ip2
I0504 00:18:59.171245  5134 net.cpp:131] Top shape: 111 10 (1110)
I0504 00:18:59.171247  5134 net.cpp:139] Memory required for data: 25929156
I0504 00:18:59.171258  5134 layer_factory.hpp:77] Creating layer relu2
I0504 00:18:59.171267  5134 net.cpp:86] Creating Layer relu2
I0504 00:18:59.171272  5134 net.cpp:408] relu2 <- ip2
I0504 00:18:59.171278  5134 net.cpp:369] relu2 -> ip2 (in-place)
I0504 00:18:59.171439  5134 net.cpp:124] Setting up relu2
I0504 00:18:59.171447  5134 net.cpp:131] Top shape: 111 10 (1110)
I0504 00:18:59.171450  5134 net.cpp:139] Memory required for data: 25933596
I0504 00:18:59.171454  5134 layer_factory.hpp:77] Creating layer ip3
I0504 00:18:59.171465  5134 net.cpp:86] Creating Layer ip3
I0504 00:18:59.171470  5134 net.cpp:408] ip3 <- ip2
I0504 00:18:59.171478  5134 net.cpp:382] ip3 -> ip3
I0504 00:18:59.171581  5134 net.cpp:124] Setting up ip3
I0504 00:18:59.171587  5134 net.cpp:131] Top shape: 111 10 (1110)
I0504 00:18:59.171591  5134 net.cpp:139] Memory required for data: 25938036
I0504 00:18:59.171598  5134 layer_factory.hpp:77] Creating layer loss
I0504 00:18:59.171607  5134 net.cpp:86] Creating Layer loss
I0504 00:18:59.171612  5134 net.cpp:408] loss <- ip3
I0504 00:18:59.171617  5134 net.cpp:408] loss <- label
I0504 00:18:59.171625  5134 net.cpp:382] loss -> loss
I0504 00:18:59.171649  5134 layer_factory.hpp:77] Creating layer loss
…
I0504 00:18:59.172304  5134 solver.cpp:173] Creating test net (#0) specified by net file: ECE595/cifar/train_test/var_everything_tiny/cifar_train_test_15.prototxt
I0504 00:18:59.172332  5134 net.cpp:296] The NetState phase (1) differed from the phase (0) specified by a rule in layer cifar
I0504 00:18:59.172432  5134 net.cpp:53] Initializing net from parameters: 
name: "CIFAR"
state {
  phase: TEST
}
layer {
  name: "cifar"
  type: "Data"
  top: "data"
  top: "label"
  include {
    phase: TEST
  }
  transform_param {
    mean_file: "examples/cifar10/mean.binaryproto"
  }
  data_param {
    source: "examples/cifar10/cifar10_test_lmdb"
    batch_size: 1000
    backend: LMDB
  }
}
layer {
  name: "conv0"
  type: "Convolution"
  bottom: "data"
  top: "conv0"
  param {
    lr_mult: 1
  }
  param {
    lr_mult: 2
  }
  convolution_param {
    num_output: 24
    pad: 2
    kernel_size: 5
    stride: 1
    weight_filler {
      type: "gaussian"
      std: 0.01
    }
    bias_filler {
      type: "constant"
    }
  }
}
layer {
  name: "Sigmoid0"
  type: "Sigmoid"
  bottom: "conv0"
  top: "Sigmoid0"
}
layer {
  name: "pool0"
  type: "Pooling"
  bottom: "Sigmoid0"
  top: "pool0"
  pooling_param {
    pool: AVE
    kernel_size: 3
    stride: 2
  }
}
layer {
  name: "ip1"
  type: "InnerProduct"
  bottom: "pool0"
  top: "ip1"
  param {
    lr_mult: 1
  }
  param {
    lr_mult: 2
  }
  inner_product_param {
    num_output: 10
    weight_filler {
      type: "gaussian"
      std: 0.01
    }
    bias_filler {
      type: "constant"
    }
  }
}
layer {
  name: "relu1"
  type: "ReLU"
  bottom: "ip1"
  top: "ip1"
}
layer {
  name: "ip2"
  type: "InnerProduct"
  bottom: "ip1"
  top: "ip2"
  param {
    lr_mult: 1
  }
  param {
    lr_mult: 2
  }
  inner_product_param {
    num_output: 10
    weight_filler {
      type: "gaussian"
      std: 0.01
    }
    bias_filler {
      type: "constant"
    }
  }
}
layer {
  name: "relu2"
  type: "ReLU"
  bottom: "ip2"
  top: "ip2"
}
layer {
  name: "ip3"
  type: "InnerProduct"
  bottom: "ip2"
  top: "ip3"
  param {
    lr_mult: 1
  }
  param {
    lr_mult: 2
  }
  inner_product_param {
    num_output: 10
    weight_filler {
      type: "gaussian"
      std: 0.01
    }
    bias_filler {
      type: "constant"
    }
  }
}
layer {
  name: "accuracy"
  type: "Accuracy"
  bottom: "ip3"
  bottom: "label"
  top: "accuracy"
  include {
    phase: TEST
  }
}
layer {
  name: "loss"
  type: "SoftmaxWithLoss"
  bottom: "ip3"
  bottom: "label"
  top: "loss"
}
I0504 00:18:59.172521  5134 layer_factory.hpp:77] Creating layer cifar
I0504 00:18:59.172581  5134 db_lmdb.cpp:35] Opened lmdb examples/cifar10/cifar10_test_lmdb
I0504 00:18:59.172600  5134 net.cpp:86] Creating Layer cifar
I0504 00:18:59.172607  5134 net.cpp:382] cifar -> data
I0504 00:18:59.172618  5134 net.cpp:382] cifar -> label
I0504 00:18:59.172627  5134 data_transformer.cpp:25] Loading mean file from: examples/cifar10/mean.binaryproto
I0504 00:18:59.172865  5134 data_layer.cpp:45] output data size: 1000,3,32,32
I0504 00:18:59.195228  5134 net.cpp:124] Setting up cifar
I0504 00:18:59.195269  5134 net.cpp:131] Top shape: 1000 3 32 32 (3072000)
I0504 00:18:59.195276  5134 net.cpp:131] Top shape: 1000 (1000)
I0504 00:18:59.195278  5134 net.cpp:139] Memory required for data: 12292000
I0504 00:18:59.195283  5134 layer_factory.hpp:77] Creating layer label_cifar_1_split
I0504 00:18:59.195317  5134 net.cpp:86] Creating Layer label_cifar_1_split
I0504 00:18:59.195336  5134 net.cpp:408] label_cifar_1_split <- label
I0504 00:18:59.195343  5134 net.cpp:382] label_cifar_1_split -> label_cifar_1_split_0
I0504 00:18:59.195353  5134 net.cpp:382] label_cifar_1_split -> label_cifar_1_split_1
I0504 00:18:59.195458  5134 net.cpp:124] Setting up label_cifar_1_split
I0504 00:18:59.195467  5134 net.cpp:131] Top shape: 1000 (1000)
I0504 00:18:59.195471  5134 net.cpp:131] Top shape: 1000 (1000)
I0504 00:18:59.195473  5134 net.cpp:139] Memory required for data: 12300000
I0504 00:18:59.195477  5134 layer_factory.hpp:77] Creating layer conv0
I0504 00:18:59.195489  5134 net.cpp:86] Creating Layer conv0
I0504 00:18:59.195492  5134 net.cpp:408] conv0 <- data
I0504 00:18:59.195497  5134 net.cpp:382] conv0 -> conv0
I0504 00:18:59.197275  5134 net.cpp:124] Setting up conv0
I0504 00:18:59.197304  5134 net.cpp:131] Top shape: 1000 24 32 32 (24576000)
I0504 00:18:59.197309  5134 net.cpp:139] Memory required for data: 110604000
I0504 00:18:59.197319  5134 layer_factory.hpp:77] Creating layer Sigmoid0
I0504 00:18:59.197325  5134 net.cpp:86] Creating Layer Sigmoid0
I0504 00:18:59.197329  5134 net.cpp:408] Sigmoid0 <- conv0
I0504 00:18:59.197335  5134 net.cpp:382] Sigmoid0 -> Sigmoid0
I0504 00:18:59.198205  5134 net.cpp:124] Setting up Sigmoid0
I0504 00:18:59.198216  5134 net.cpp:131] Top shape: 1000 24 32 32 (24576000)
I0504 00:18:59.198235  5134 net.cpp:139] Memory required for data: 208908000
I0504 00:18:59.198240  5134 layer_factory.hpp:77] Creating layer pool0
I0504 00:18:59.198248  5134 net.cpp:86] Creating Layer pool0
I0504 00:18:59.198251  5134 net.cpp:408] pool0 <- Sigmoid0
I0504 00:18:59.198256  5134 net.cpp:382] pool0 -> pool0
I0504 00:18:59.199434  5134 net.cpp:124] Setting up pool0
I0504 00:18:59.199443  5134 net.cpp:131] Top shape: 1000 24 16 16 (6144000)
I0504 00:18:59.199462  5134 net.cpp:139] Memory required for data: 233484000
I0504 00:18:59.199465  5134 layer_factory.hpp:77] Creating layer ip1
I0504 00:18:59.199475  5134 net.cpp:86] Creating Layer ip1
I0504 00:18:59.199478  5134 net.cpp:408] ip1 <- pool0
I0504 00:18:59.199484  5134 net.cpp:382] ip1 -> ip1
I0504 00:18:59.201279  5134 net.cpp:124] Setting up ip1
I0504 00:18:59.201287  5134 net.cpp:131] Top shape: 1000 10 (10000)
I0504 00:18:59.201305  5134 net.cpp:139] Memory required for data: 233524000
I0504 00:18:59.201313  5134 layer_factory.hpp:77] Creating layer relu1
I0504 00:18:59.201318  5134 net.cpp:86] Creating Layer relu1
I0504 00:18:59.201323  5134 net.cpp:408] relu1 <- ip1
I0504 00:18:59.201328  5134 net.cpp:369] relu1 -> ip1 (in-place)
I0504 00:18:59.201486  5134 net.cpp:124] Setting up relu1
I0504 00:18:59.201494  5134 net.cpp:131] Top shape: 1000 10 (10000)
I0504 00:18:59.201498  5134 net.cpp:139] Memory required for data: 233564000
I0504 00:18:59.201500  5134 layer_factory.hpp:77] Creating layer ip2
I0504 00:18:59.201508  5134 net.cpp:86] Creating Layer ip2
I0504 00:18:59.201510  5134 net.cpp:408] ip2 <- ip1
I0504 00:18:59.201514  5134 net.cpp:382] ip2 -> ip2
I0504 00:18:59.201617  5134 net.cpp:124] Setting up ip2
I0504 00:18:59.201624  5134 net.cpp:131] Top shape: 1000 10 (10000)
I0504 00:18:59.201627  5134 net.cpp:139] Memory required for data: 233604000
I0504 00:18:59.201633  5134 layer_factory.hpp:77] Creating layer relu2
I0504 00:18:59.201640  5134 net.cpp:86] Creating Layer relu2
I0504 00:18:59.201644  5134 net.cpp:408] relu2 <- ip2
I0504 00:18:59.201655  5134 net.cpp:369] relu2 -> ip2 (in-place)
I0504 00:18:59.201810  5134 net.cpp:124] Setting up relu2
I0504 00:18:59.201819  5134 net.cpp:131] Top shape: 1000 10 (10000)
I0504 00:18:59.201822  5134 net.cpp:139] Memory required for data: 233644000
I0504 00:18:59.201825  5134 layer_factory.hpp:77] Creating layer ip3
I0504 00:18:59.201833  5134 net.cpp:86] Creating Layer ip3
I0504 00:18:59.201835  5134 net.cpp:408] ip3 <- ip2
I0504 00:18:59.201840  5134 net.cpp:382] ip3 -> ip3
I0504 00:18:59.201956  5134 net.cpp:124] Setting up ip3
I0504 00:18:59.201964  5134 net.cpp:131] Top shape: 1000 10 (10000)
I0504 00:18:59.201977  5134 net.cpp:139] Memory required for data: 233684000
I0504 00:18:59.201982  5134 layer_factory.hpp:77] Creating layer ip3_ip3_0_split
I0504 00:18:59.201987  5134 net.cpp:86] Creating Layer ip3_ip3_0_split
I0504 00:18:59.201990  5134 net.cpp:408] ip3_ip3_0_split <- ip3
I0504 00:18:59.201995  5134 net.cpp:382] ip3_ip3_0_split -> ip3_ip3_0_split_0
I0504 00:18:59.202000  5134 net.cpp:382] ip3_ip3_0_split -> ip3_ip3_0_split_1
I0504 00:18:59.202033  5134 net.cpp:124] Setting up ip3_ip3_0_split
I0504 00:18:59.202041  5134 net.cpp:131] Top shape: 1000 10 (10000)
I0504 00:18:59.202044  5134 net.cpp:131] Top shape: 1000 10 (10000)
I0504 00:18:59.202047  5134 net.cpp:139] Memory required for data: 233764000
I0504 00:18:59.202050  5134 layer_factory.hpp:77] Creating layer accuracy
I0504 00:18:59.202055  5134 net.cpp:86] Creating Layer accuracy
I0504 00:18:59.202059  5134 net.cpp:408] accuracy <- ip3_ip3_0_split_0
I0504 00:18:59.202062  5134 net.cpp:408] accuracy <- label_cifar_1_split_0
I0504 00:18:59.202069  5134 net.cpp:382] accuracy -> accuracy
…
