…
I0504 10:02:46.139127 24677 net.cpp:296] The NetState phase (0) differed from the phase (1) specified by a rule in layer cifar
I0504 10:02:46.139147 24677 net.cpp:296] The NetState phase (0) differed from the phase (1) specified by a rule in layer accuracy
I0504 10:02:46.139261 24677 net.cpp:53] Initializing net from parameters: 
name: "CIFAR"
state {
  phase: TRAIN
  level: 0
  stage: ""
}
layer {
  name: "cifar"
  type: "Data"
  top: "data"
  top: "label"
  include {
    phase: TRAIN
  }
  transform_param {
    mean_file: "examples/cifar10/mean.binaryproto"
  }
  data_param {
    source: "examples/cifar10/cifar10_train_lmdb"
    batch_size: 111
    backend: LMDB
  }
}
layer {
  name: "conv0"
  type: "Convolution"
  bottom: "data"
  top: "conv0"
  param {
    lr_mult: 1
  }
  param {
    lr_mult: 2
  }
  convolution_param {
    num_output: 24
    pad: 2
    kernel_size: 5
    stride: 1
    weight_filler {
      type: "gaussian"
      std: 0.01
    }
    bias_filler {
      type: "constant"
    }
  }
}
layer {
  name: "Sigmoid0"
  type: "Sigmoid"
  bottom: "conv0"
  top: "Sigmoid0"
}
layer {
  name: "pool0"
  type: "Pooling"
  bottom: "Sigmoid0"
  top: "pool0"
  pooling_param {
    pool: AVE
    kernel_size: 3
    stride: 2
  }
}
layer {
  name: "conv1"
  type: "Convolution"
  bottom: "pool0"
  top: "conv1"
  param {
    lr_mult: 1
  }
  param {
    lr_mult: 2
  }
  convolution_param {
    num_output: 72
    pad: 2
    kernel_size: 3
    stride: 1
    weight_filler {
      type: "gaussian"
      std: 0.01
    }
    bias_filler {
      type: "constant"
    }
  }
}
layer {
  name: "Sigmoid1"
  type: "Sigmoid"
  bottom: "conv1"
  top: "Sigmoid1"
}
layer {
  name: "pool1"
  type: "Pooling"
  bottom: "Sigmoid1"
  top: "pool1"
  pooling_param {
    pool: AVE
    kernel_size: 3
    stride: 2
  }
}
layer {
  name: "ip1"
  type: "InnerProduct"
  bottom: "pool1"
  top: "ip1"
  param {
    lr_mult: 1
  }
  param {
    lr_mult: 2
  }
  inner_product_param {
    num_output: 60
    weight_filler {
      type: "gaussian"
      std: 0.01
    }
    bias_filler {
      type: "constant"
    }
  }
}
layer {
  name: "relu1"
  type: "ReLU"
  bottom: "ip1"
  top: "ip1"
}
layer {
  name: "ip2"
  type: "InnerProduct"
  bottom: "ip1"
  top: "ip2"
  param {
    lr_mult: 1
  }
  param {
    lr_mult: 2
  }
  inner_product_param {
    num_output: 180
    weight_filler {
      type: "gaussian"
      std: 0.01
    }
    bias_filler {
      type: "constant"
    }
  }
}
layer {
  name: "relu2"
  type: "ReLU"
  bottom: "ip2"
  top: "ip2"
}
layer {
  name: "ip3"
  type: "InnerProduct"
  bottom: "ip2"
  top: "ip3"
  param {
    lr_mult: 1
  }
  param {
    lr_mult: 2
  }
  inner_product_param {
    num_output: 10
    weight_filler {
      type: "gaussian"
      std: 0.01
    }
    bias_filler {
      type: "constant"
    }
  }
}
layer {
  name: "loss"
  type: "SoftmaxWithLoss"
  bottom: "ip3"
  bottom: "label"
  top: "loss"
}
I0504 10:02:46.139345 24677 layer_factory.hpp:77] Creating layer cifar
I0504 10:02:46.139448 24677 db_lmdb.cpp:35] Opened lmdb examples/cifar10/cifar10_train_lmdb
I0504 10:02:46.139475 24677 net.cpp:86] Creating Layer cifar
I0504 10:02:46.139482 24677 net.cpp:382] cifar -> data
I0504 10:02:46.139506 24677 net.cpp:382] cifar -> label
I0504 10:02:46.139519 24677 data_transformer.cpp:25] Loading mean file from: examples/cifar10/mean.binaryproto
I0504 10:02:46.141672 24677 data_layer.cpp:45] output data size: 111,3,32,32
I0504 10:02:46.149677 24677 net.cpp:124] Setting up cifar
I0504 10:02:46.149696 24677 net.cpp:131] Top shape: 111 3 32 32 (340992)
I0504 10:02:46.149703 24677 net.cpp:131] Top shape: 111 (111)
I0504 10:02:46.149705 24677 net.cpp:139] Memory required for data: 1364412
I0504 10:02:46.149713 24677 layer_factory.hpp:77] Creating layer conv0
I0504 10:02:46.149731 24677 net.cpp:86] Creating Layer conv0
I0504 10:02:46.149737 24677 net.cpp:408] conv0 <- data
I0504 10:02:46.149749 24677 net.cpp:382] conv0 -> conv0
I0504 10:02:46.403236 24677 net.cpp:124] Setting up conv0
I0504 10:02:46.403278 24677 net.cpp:131] Top shape: 111 24 32 32 (2727936)
I0504 10:02:46.403282 24677 net.cpp:139] Memory required for data: 12276156
I0504 10:02:46.403296 24677 layer_factory.hpp:77] Creating layer Sigmoid0
I0504 10:02:46.403308 24677 net.cpp:86] Creating Layer Sigmoid0
I0504 10:02:46.403311 24677 net.cpp:408] Sigmoid0 <- conv0
I0504 10:02:46.403316 24677 net.cpp:382] Sigmoid0 -> Sigmoid0
I0504 10:02:46.403515 24677 net.cpp:124] Setting up Sigmoid0
I0504 10:02:46.403524 24677 net.cpp:131] Top shape: 111 24 32 32 (2727936)
I0504 10:02:46.403528 24677 net.cpp:139] Memory required for data: 23187900
I0504 10:02:46.403532 24677 layer_factory.hpp:77] Creating layer pool0
I0504 10:02:46.403538 24677 net.cpp:86] Creating Layer pool0
I0504 10:02:46.403542 24677 net.cpp:408] pool0 <- Sigmoid0
I0504 10:02:46.403547 24677 net.cpp:382] pool0 -> pool0
I0504 10:02:46.404445 24677 net.cpp:124] Setting up pool0
I0504 10:02:46.404474 24677 net.cpp:131] Top shape: 111 24 16 16 (681984)
I0504 10:02:46.404477 24677 net.cpp:139] Memory required for data: 25915836
I0504 10:02:46.404480 24677 layer_factory.hpp:77] Creating layer conv1
I0504 10:02:46.404492 24677 net.cpp:86] Creating Layer conv1
I0504 10:02:46.404495 24677 net.cpp:408] conv1 <- pool0
I0504 10:02:46.404501 24677 net.cpp:382] conv1 -> conv1
I0504 10:02:46.407469 24677 net.cpp:124] Setting up conv1
I0504 10:02:46.407498 24677 net.cpp:131] Top shape: 111 72 18 18 (2589408)
I0504 10:02:46.407501 24677 net.cpp:139] Memory required for data: 36273468
I0504 10:02:46.407510 24677 layer_factory.hpp:77] Creating layer Sigmoid1
I0504 10:02:46.407516 24677 net.cpp:86] Creating Layer Sigmoid1
I0504 10:02:46.407519 24677 net.cpp:408] Sigmoid1 <- conv1
I0504 10:02:46.407523 24677 net.cpp:382] Sigmoid1 -> Sigmoid1
I0504 10:02:46.407706 24677 net.cpp:124] Setting up Sigmoid1
I0504 10:02:46.407714 24677 net.cpp:131] Top shape: 111 72 18 18 (2589408)
I0504 10:02:46.407717 24677 net.cpp:139] Memory required for data: 46631100
I0504 10:02:46.407721 24677 layer_factory.hpp:77] Creating layer pool1
I0504 10:02:46.407727 24677 net.cpp:86] Creating Layer pool1
I0504 10:02:46.407729 24677 net.cpp:408] pool1 <- Sigmoid1
I0504 10:02:46.407733 24677 net.cpp:382] pool1 -> pool1
I0504 10:02:46.407912 24677 net.cpp:124] Setting up pool1
I0504 10:02:46.407922 24677 net.cpp:131] Top shape: 111 72 9 9 (647352)
I0504 10:02:46.407924 24677 net.cpp:139] Memory required for data: 49220508
I0504 10:02:46.407928 24677 layer_factory.hpp:77] Creating layer ip1
I0504 10:02:46.407935 24677 net.cpp:86] Creating Layer ip1
I0504 10:02:46.407938 24677 net.cpp:408] ip1 <- pool1
I0504 10:02:46.407943 24677 net.cpp:382] ip1 -> ip1
I0504 10:02:46.417847 24677 net.cpp:124] Setting up ip1
I0504 10:02:46.417876 24677 net.cpp:131] Top shape: 111 60 (6660)
I0504 10:02:46.417879 24677 net.cpp:139] Memory required for data: 49247148
I0504 10:02:46.417887 24677 layer_factory.hpp:77] Creating layer relu1
I0504 10:02:46.417896 24677 net.cpp:86] Creating Layer relu1
I0504 10:02:46.417898 24677 net.cpp:408] relu1 <- ip1
I0504 10:02:46.417903 24677 net.cpp:369] relu1 -> ip1 (in-place)
I0504 10:02:46.418092 24677 net.cpp:124] Setting up relu1
I0504 10:02:46.418100 24677 net.cpp:131] Top shape: 111 60 (6660)
I0504 10:02:46.418104 24677 net.cpp:139] Memory required for data: 49273788
I0504 10:02:46.418107 24677 layer_factory.hpp:77] Creating layer ip2
I0504 10:02:46.418113 24677 net.cpp:86] Creating Layer ip2
I0504 10:02:46.418117 24677 net.cpp:408] ip2 <- ip1
I0504 10:02:46.418135 24677 net.cpp:382] ip2 -> ip2
I0504 10:02:46.418516 24677 net.cpp:124] Setting up ip2
I0504 10:02:46.418524 24677 net.cpp:131] Top shape: 111 180 (19980)
I0504 10:02:46.418541 24677 net.cpp:139] Memory required for data: 49353708
I0504 10:02:46.418547 24677 layer_factory.hpp:77] Creating layer relu2
I0504 10:02:46.418551 24677 net.cpp:86] Creating Layer relu2
I0504 10:02:46.418555 24677 net.cpp:408] relu2 <- ip2
I0504 10:02:46.418558 24677 net.cpp:369] relu2 -> ip2 (in-place)
I0504 10:02:46.419317 24677 net.cpp:124] Setting up relu2
I0504 10:02:46.419329 24677 net.cpp:131] Top shape: 111 180 (19980)
I0504 10:02:46.419348 24677 net.cpp:139] Memory required for data: 49433628
I0504 10:02:46.419351 24677 layer_factory.hpp:77] Creating layer ip3
I0504 10:02:46.419358 24677 net.cpp:86] Creating Layer ip3
I0504 10:02:46.419361 24677 net.cpp:408] ip3 <- ip2
I0504 10:02:46.419366 24677 net.cpp:382] ip3 -> ip3
I0504 10:02:46.419544 24677 net.cpp:124] Setting up ip3
I0504 10:02:46.419551 24677 net.cpp:131] Top shape: 111 10 (1110)
I0504 10:02:46.419554 24677 net.cpp:139] Memory required for data: 49438068
I0504 10:02:46.419564 24677 layer_factory.hpp:77] Creating layer loss
I0504 10:02:46.419569 24677 net.cpp:86] Creating Layer loss
I0504 10:02:46.419571 24677 net.cpp:408] loss <- ip3
I0504 10:02:46.419575 24677 net.cpp:408] loss <- label
I0504 10:02:46.419580 24677 net.cpp:382] loss -> loss
I0504 10:02:46.419595 24677 layer_factory.hpp:77] Creating layer loss
…
I0504 10:02:46.420287 24677 solver.cpp:173] Creating test net (#0) specified by net file: ECE595/cifar/train_test/var_everything_tiny/cifar_train_test_128.prototxt
I0504 10:02:46.420343 24677 net.cpp:296] The NetState phase (1) differed from the phase (0) specified by a rule in layer cifar
I0504 10:02:46.420450 24677 net.cpp:53] Initializing net from parameters: 
name: "CIFAR"
state {
  phase: TEST
}
layer {
  name: "cifar"
  type: "Data"
  top: "data"
  top: "label"
  include {
    phase: TEST
  }
  transform_param {
    mean_file: "examples/cifar10/mean.binaryproto"
  }
  data_param {
    source: "examples/cifar10/cifar10_test_lmdb"
    batch_size: 1000
    backend: LMDB
  }
}
layer {
  name: "conv0"
  type: "Convolution"
  bottom: "data"
  top: "conv0"
  param {
    lr_mult: 1
  }
  param {
    lr_mult: 2
  }
  convolution_param {
    num_output: 24
    pad: 2
    kernel_size: 5
    stride: 1
    weight_filler {
      type: "gaussian"
      std: 0.01
    }
    bias_filler {
      type: "constant"
    }
  }
}
layer {
  name: "Sigmoid0"
  type: "Sigmoid"
  bottom: "conv0"
  top: "Sigmoid0"
}
layer {
  name: "pool0"
  type: "Pooling"
  bottom: "Sigmoid0"
  top: "pool0"
  pooling_param {
    pool: AVE
    kernel_size: 3
    stride: 2
  }
}
layer {
  name: "conv1"
  type: "Convolution"
  bottom: "pool0"
  top: "conv1"
  param {
    lr_mult: 1
  }
  param {
    lr_mult: 2
  }
  convolution_param {
    num_output: 72
    pad: 2
    kernel_size: 3
    stride: 1
    weight_filler {
      type: "gaussian"
      std: 0.01
    }
    bias_filler {
      type: "constant"
    }
  }
}
layer {
  name: "Sigmoid1"
  type: "Sigmoid"
  bottom: "conv1"
  top: "Sigmoid1"
}
layer {
  name: "pool1"
  type: "Pooling"
  bottom: "Sigmoid1"
  top: "pool1"
  pooling_param {
    pool: AVE
    kernel_size: 3
    stride: 2
  }
}
layer {
  name: "ip1"
  type: "InnerProduct"
  bottom: "pool1"
  top: "ip1"
  param {
    lr_mult: 1
  }
  param {
    lr_mult: 2
  }
  inner_product_param {
    num_output: 60
    weight_filler {
      type: "gaussian"
      std: 0.01
    }
    bias_filler {
      type: "constant"
    }
  }
}
layer {
  name: "relu1"
  type: "ReLU"
  bottom: "ip1"
  top: "ip1"
}
layer {
  name: "ip2"
  type: "InnerProduct"
  bottom: "ip1"
  top: "ip2"
  param {
    lr_mult: 1
  }
  param {
    lr_mult: 2
  }
  inner_product_param {
    num_output: 180
    weight_filler {
      type: "gaussian"
      std: 0.01
    }
    bias_filler {
      type: "constant"
    }
  }
}
layer {
  name: "relu2"
  type: "ReLU"
  bottom: "ip2"
  top: "ip2"
}
layer {
  name: "ip3"
  type: "InnerProduct"
  bottom: "ip2"
  top: "ip3"
  param {
    lr_mult: 1
  }
  param {
    lr_mult: 2
  }
  inner_product_param {
    num_output: 10
    weight_filler {
      type: "gaussian"
      std: 0.01
    }
    bias_filler {
      type: "constant"
    }
  }
}
layer {
  name: "accuracy"
  type: "Accuracy"
  bottom: "ip3"
  bottom: "label"
  top: "accuracy"
  include {
    phase: TEST
  }
}
layer {
  name: "loss"
  type: "SoftmaxWithLoss"
  bottom: "ip3"
  bottom: "label"
  top: "loss"
}
I0504 10:02:46.420544 24677 layer_factory.hpp:77] Creating layer cifar
I0504 10:02:46.420589 24677 db_lmdb.cpp:35] Opened lmdb examples/cifar10/cifar10_test_lmdb
I0504 10:02:46.420601 24677 net.cpp:86] Creating Layer cifar
I0504 10:02:46.420605 24677 net.cpp:382] cifar -> data
I0504 10:02:46.420614 24677 net.cpp:382] cifar -> label
I0504 10:02:46.420619 24677 data_transformer.cpp:25] Loading mean file from: examples/cifar10/mean.binaryproto
I0504 10:02:46.420775 24677 data_layer.cpp:45] output data size: 1000,3,32,32
I0504 10:02:46.443627 24677 net.cpp:124] Setting up cifar
I0504 10:02:46.443667 24677 net.cpp:131] Top shape: 1000 3 32 32 (3072000)
I0504 10:02:46.443673 24677 net.cpp:131] Top shape: 1000 (1000)
I0504 10:02:46.443676 24677 net.cpp:139] Memory required for data: 12292000
I0504 10:02:46.443682 24677 layer_factory.hpp:77] Creating layer label_cifar_1_split
I0504 10:02:46.443694 24677 net.cpp:86] Creating Layer label_cifar_1_split
I0504 10:02:46.443698 24677 net.cpp:408] label_cifar_1_split <- label
I0504 10:02:46.443704 24677 net.cpp:382] label_cifar_1_split -> label_cifar_1_split_0
I0504 10:02:46.443728 24677 net.cpp:382] label_cifar_1_split -> label_cifar_1_split_1
I0504 10:02:46.443810 24677 net.cpp:124] Setting up label_cifar_1_split
I0504 10:02:46.443819 24677 net.cpp:131] Top shape: 1000 (1000)
I0504 10:02:46.443822 24677 net.cpp:131] Top shape: 1000 (1000)
I0504 10:02:46.443825 24677 net.cpp:139] Memory required for data: 12300000
I0504 10:02:46.443828 24677 layer_factory.hpp:77] Creating layer conv0
I0504 10:02:46.443841 24677 net.cpp:86] Creating Layer conv0
I0504 10:02:46.443845 24677 net.cpp:408] conv0 <- data
I0504 10:02:46.443850 24677 net.cpp:382] conv0 -> conv0
I0504 10:02:46.445592 24677 net.cpp:124] Setting up conv0
I0504 10:02:46.445607 24677 net.cpp:131] Top shape: 1000 24 32 32 (24576000)
I0504 10:02:46.445611 24677 net.cpp:139] Memory required for data: 110604000
I0504 10:02:46.445621 24677 layer_factory.hpp:77] Creating layer Sigmoid0
I0504 10:02:46.445627 24677 net.cpp:86] Creating Layer Sigmoid0
I0504 10:02:46.445631 24677 net.cpp:408] Sigmoid0 <- conv0
I0504 10:02:46.445650 24677 net.cpp:382] Sigmoid0 -> Sigmoid0
I0504 10:02:46.445822 24677 net.cpp:124] Setting up Sigmoid0
I0504 10:02:46.445842 24677 net.cpp:131] Top shape: 1000 24 32 32 (24576000)
I0504 10:02:46.445847 24677 net.cpp:139] Memory required for data: 208908000
I0504 10:02:46.445849 24677 layer_factory.hpp:77] Creating layer pool0
I0504 10:02:46.445858 24677 net.cpp:86] Creating Layer pool0
I0504 10:02:46.445861 24677 net.cpp:408] pool0 <- Sigmoid0
I0504 10:02:46.445865 24677 net.cpp:382] pool0 -> pool0
I0504 10:02:46.446048 24677 net.cpp:124] Setting up pool0
I0504 10:02:46.446058 24677 net.cpp:131] Top shape: 1000 24 16 16 (6144000)
I0504 10:02:46.446060 24677 net.cpp:139] Memory required for data: 233484000
I0504 10:02:46.446064 24677 layer_factory.hpp:77] Creating layer conv1
I0504 10:02:46.446072 24677 net.cpp:86] Creating Layer conv1
I0504 10:02:46.446076 24677 net.cpp:408] conv1 <- pool0
I0504 10:02:46.446082 24677 net.cpp:382] conv1 -> conv1
I0504 10:02:46.448529 24677 net.cpp:124] Setting up conv1
I0504 10:02:46.448544 24677 net.cpp:131] Top shape: 1000 72 18 18 (23328000)
I0504 10:02:46.448549 24677 net.cpp:139] Memory required for data: 326796000
I0504 10:02:46.448580 24677 layer_factory.hpp:77] Creating layer Sigmoid1
I0504 10:02:46.448587 24677 net.cpp:86] Creating Layer Sigmoid1
I0504 10:02:46.448591 24677 net.cpp:408] Sigmoid1 <- conv1
I0504 10:02:46.448596 24677 net.cpp:382] Sigmoid1 -> Sigmoid1
I0504 10:02:46.448763 24677 net.cpp:124] Setting up Sigmoid1
I0504 10:02:46.448773 24677 net.cpp:131] Top shape: 1000 72 18 18 (23328000)
I0504 10:02:46.448777 24677 net.cpp:139] Memory required for data: 420108000
I0504 10:02:46.448781 24677 layer_factory.hpp:77] Creating layer pool1
I0504 10:02:46.448786 24677 net.cpp:86] Creating Layer pool1
I0504 10:02:46.448791 24677 net.cpp:408] pool1 <- Sigmoid1
I0504 10:02:46.448796 24677 net.cpp:382] pool1 -> pool1
I0504 10:02:46.449648 24677 net.cpp:124] Setting up pool1
I0504 10:02:46.449661 24677 net.cpp:131] Top shape: 1000 72 9 9 (5832000)
I0504 10:02:46.449664 24677 net.cpp:139] Memory required for data: 443436000
I0504 10:02:46.449668 24677 layer_factory.hpp:77] Creating layer ip1
I0504 10:02:46.449692 24677 net.cpp:86] Creating Layer ip1
I0504 10:02:46.449697 24677 net.cpp:408] ip1 <- pool1
I0504 10:02:46.449702 24677 net.cpp:382] ip1 -> ip1
I0504 10:02:46.460243 24677 net.cpp:124] Setting up ip1
I0504 10:02:46.460258 24677 net.cpp:131] Top shape: 1000 60 (60000)
I0504 10:02:46.460261 24677 net.cpp:139] Memory required for data: 443676000
I0504 10:02:46.460285 24677 layer_factory.hpp:77] Creating layer relu1
I0504 10:02:46.460292 24677 net.cpp:86] Creating Layer relu1
I0504 10:02:46.460296 24677 net.cpp:408] relu1 <- ip1
I0504 10:02:46.460301 24677 net.cpp:369] relu1 -> ip1 (in-place)
I0504 10:02:46.460474 24677 net.cpp:124] Setting up relu1
I0504 10:02:46.460495 24677 net.cpp:131] Top shape: 1000 60 (60000)
I0504 10:02:46.460500 24677 net.cpp:139] Memory required for data: 443916000
I0504 10:02:46.460502 24677 layer_factory.hpp:77] Creating layer ip2
I0504 10:02:46.460510 24677 net.cpp:86] Creating Layer ip2
I0504 10:02:46.460513 24677 net.cpp:408] ip2 <- ip1
I0504 10:02:46.460518 24677 net.cpp:382] ip2 -> ip2
I0504 10:02:46.460949 24677 net.cpp:124] Setting up ip2
I0504 10:02:46.460958 24677 net.cpp:131] Top shape: 1000 180 (180000)
I0504 10:02:46.460961 24677 net.cpp:139] Memory required for data: 444636000
I0504 10:02:46.460968 24677 layer_factory.hpp:77] Creating layer relu2
I0504 10:02:46.460988 24677 net.cpp:86] Creating Layer relu2
I0504 10:02:46.460993 24677 net.cpp:408] relu2 <- ip2
I0504 10:02:46.460996 24677 net.cpp:369] relu2 -> ip2 (in-place)
I0504 10:02:46.461174 24677 net.cpp:124] Setting up relu2
I0504 10:02:46.461182 24677 net.cpp:131] Top shape: 1000 180 (180000)
I0504 10:02:46.461185 24677 net.cpp:139] Memory required for data: 445356000
I0504 10:02:46.461189 24677 layer_factory.hpp:77] Creating layer ip3
I0504 10:02:46.461195 24677 net.cpp:86] Creating Layer ip3
I0504 10:02:46.461199 24677 net.cpp:408] ip3 <- ip2
I0504 10:02:46.461203 24677 net.cpp:382] ip3 -> ip3
I0504 10:02:46.461374 24677 net.cpp:124] Setting up ip3
I0504 10:02:46.461380 24677 net.cpp:131] Top shape: 1000 10 (10000)
I0504 10:02:46.461395 24677 net.cpp:139] Memory required for data: 445396000
I0504 10:02:46.461405 24677 layer_factory.hpp:77] Creating layer ip3_ip3_0_split
I0504 10:02:46.461410 24677 net.cpp:86] Creating Layer ip3_ip3_0_split
I0504 10:02:46.461414 24677 net.cpp:408] ip3_ip3_0_split <- ip3
I0504 10:02:46.461419 24677 net.cpp:382] ip3_ip3_0_split -> ip3_ip3_0_split_0
I0504 10:02:46.461426 24677 net.cpp:382] ip3_ip3_0_split -> ip3_ip3_0_split_1
I0504 10:02:46.461459 24677 net.cpp:124] Setting up ip3_ip3_0_split
I0504 10:02:46.461464 24677 net.cpp:131] Top shape: 1000 10 (10000)
I0504 10:02:46.461468 24677 net.cpp:131] Top shape: 1000 10 (10000)
I0504 10:02:46.461472 24677 net.cpp:139] Memory required for data: 445476000
I0504 10:02:46.461474 24677 layer_factory.hpp:77] Creating layer accuracy
I0504 10:02:46.461480 24677 net.cpp:86] Creating Layer accuracy
I0504 10:02:46.461483 24677 net.cpp:408] accuracy <- ip3_ip3_0_split_0
I0504 10:02:46.461488 24677 net.cpp:408] accuracy <- label_cifar_1_split_0
I0504 10:02:46.461493 24677 net.cpp:382] accuracy -> accuracy
…
