…
I0503 23:49:03.162678  4096 net.cpp:296] The NetState phase (0) differed from the phase (1) specified by a rule in layer cifar
I0503 23:49:03.162693  4096 net.cpp:296] The NetState phase (0) differed from the phase (1) specified by a rule in layer accuracy
I0503 23:49:03.162783  4096 net.cpp:53] Initializing net from parameters: 
name: "CIFAR"
state {
  phase: TRAIN
  level: 0
  stage: ""
}
layer {
  name: "cifar"
  type: "Data"
  top: "data"
  top: "label"
  include {
    phase: TRAIN
  }
  transform_param {
    mean_file: "examples/cifar10/mean.binaryproto"
  }
  data_param {
    source: "examples/cifar10/cifar10_train_lmdb"
    batch_size: 111
    backend: LMDB
  }
}
layer {
  name: "conv0"
  type: "Convolution"
  bottom: "data"
  top: "conv0"
  param {
    lr_mult: 1
  }
  param {
    lr_mult: 2
  }
  convolution_param {
    num_output: 24
    pad: 2
    kernel_size: 3
    stride: 1
    weight_filler {
      type: "gaussian"
      std: 0.01
    }
    bias_filler {
      type: "constant"
    }
  }
}
layer {
  name: "Sigmoid0"
  type: "Sigmoid"
  bottom: "conv0"
  top: "Sigmoid0"
}
layer {
  name: "pool0"
  type: "Pooling"
  bottom: "Sigmoid0"
  top: "pool0"
  pooling_param {
    pool: AVE
    kernel_size: 3
    stride: 2
  }
}
layer {
  name: "ip1"
  type: "InnerProduct"
  bottom: "pool0"
  top: "ip1"
  param {
    lr_mult: 1
  }
  param {
    lr_mult: 2
  }
  inner_product_param {
    num_output: 180
    weight_filler {
      type: "gaussian"
      std: 0.01
    }
    bias_filler {
      type: "constant"
    }
  }
}
layer {
  name: "relu1"
  type: "ReLU"
  bottom: "ip1"
  top: "ip1"
}
layer {
  name: "ip2"
  type: "InnerProduct"
  bottom: "ip1"
  top: "ip2"
  param {
    lr_mult: 1
  }
  param {
    lr_mult: 2
  }
  inner_product_param {
    num_output: 10
    weight_filler {
      type: "gaussian"
      std: 0.01
    }
    bias_filler {
      type: "constant"
    }
  }
}
layer {
  name: "loss"
  type: "SoftmaxWithLoss"
  bottom: "ip2"
  bottom: "label"
  top: "loss"
}
I0503 23:49:03.162849  4096 layer_factory.hpp:77] Creating layer cifar
I0503 23:49:03.162961  4096 db_lmdb.cpp:35] Opened lmdb examples/cifar10/cifar10_train_lmdb
I0503 23:49:03.162989  4096 net.cpp:86] Creating Layer cifar
I0503 23:49:03.162999  4096 net.cpp:382] cifar -> data
I0503 23:49:03.163022  4096 net.cpp:382] cifar -> label
I0503 23:49:03.163044  4096 data_transformer.cpp:25] Loading mean file from: examples/cifar10/mean.binaryproto
I0503 23:49:03.165096  4096 data_layer.cpp:45] output data size: 111,3,32,32
I0503 23:49:03.172773  4096 net.cpp:124] Setting up cifar
I0503 23:49:03.172791  4096 net.cpp:131] Top shape: 111 3 32 32 (340992)
I0503 23:49:03.172797  4096 net.cpp:131] Top shape: 111 (111)
I0503 23:49:03.172801  4096 net.cpp:139] Memory required for data: 1364412
I0503 23:49:03.172808  4096 layer_factory.hpp:77] Creating layer conv0
I0503 23:49:03.172848  4096 net.cpp:86] Creating Layer conv0
I0503 23:49:03.172854  4096 net.cpp:408] conv0 <- data
I0503 23:49:03.172879  4096 net.cpp:382] conv0 -> conv0
I0503 23:49:03.458575  4096 net.cpp:124] Setting up conv0
I0503 23:49:03.458603  4096 net.cpp:131] Top shape: 111 24 34 34 (3079584)
I0503 23:49:03.458608  4096 net.cpp:139] Memory required for data: 13682748
I0503 23:49:03.458626  4096 layer_factory.hpp:77] Creating layer Sigmoid0
I0503 23:49:03.458639  4096 net.cpp:86] Creating Layer Sigmoid0
I0503 23:49:03.458643  4096 net.cpp:408] Sigmoid0 <- conv0
I0503 23:49:03.458649  4096 net.cpp:382] Sigmoid0 -> Sigmoid0
I0503 23:49:03.458895  4096 net.cpp:124] Setting up Sigmoid0
I0503 23:49:03.458919  4096 net.cpp:131] Top shape: 111 24 34 34 (3079584)
I0503 23:49:03.458922  4096 net.cpp:139] Memory required for data: 26001084
I0503 23:49:03.458926  4096 layer_factory.hpp:77] Creating layer pool0
I0503 23:49:03.458935  4096 net.cpp:86] Creating Layer pool0
I0503 23:49:03.458938  4096 net.cpp:408] pool0 <- Sigmoid0
I0503 23:49:03.458945  4096 net.cpp:382] pool0 -> pool0
I0503 23:49:03.459815  4096 net.cpp:124] Setting up pool0
I0503 23:49:03.459830  4096 net.cpp:131] Top shape: 111 24 17 17 (769896)
I0503 23:49:03.459834  4096 net.cpp:139] Memory required for data: 29080668
I0503 23:49:03.459838  4096 layer_factory.hpp:77] Creating layer ip1
I0503 23:49:03.459849  4096 net.cpp:86] Creating Layer ip1
I0503 23:49:03.459853  4096 net.cpp:408] ip1 <- pool0
I0503 23:49:03.459859  4096 net.cpp:382] ip1 -> ip1
I0503 23:49:03.499781  4096 net.cpp:124] Setting up ip1
I0503 23:49:03.499795  4096 net.cpp:131] Top shape: 111 180 (19980)
I0503 23:49:03.499799  4096 net.cpp:139] Memory required for data: 29160588
I0503 23:49:03.499809  4096 layer_factory.hpp:77] Creating layer relu1
I0503 23:49:03.499815  4096 net.cpp:86] Creating Layer relu1
I0503 23:49:03.499819  4096 net.cpp:408] relu1 <- ip1
I0503 23:49:03.499825  4096 net.cpp:369] relu1 -> ip1 (in-place)
I0503 23:49:03.499991  4096 net.cpp:124] Setting up relu1
I0503 23:49:03.500000  4096 net.cpp:131] Top shape: 111 180 (19980)
I0503 23:49:03.500003  4096 net.cpp:139] Memory required for data: 29240508
I0503 23:49:03.500006  4096 layer_factory.hpp:77] Creating layer ip2
I0503 23:49:03.500013  4096 net.cpp:86] Creating Layer ip2
I0503 23:49:03.500017  4096 net.cpp:408] ip2 <- ip1
I0503 23:49:03.500022  4096 net.cpp:382] ip2 -> ip2
I0503 23:49:03.500174  4096 net.cpp:124] Setting up ip2
I0503 23:49:03.500181  4096 net.cpp:131] Top shape: 111 10 (1110)
I0503 23:49:03.500185  4096 net.cpp:139] Memory required for data: 29244948
I0503 23:49:03.500192  4096 layer_factory.hpp:77] Creating layer loss
I0503 23:49:03.500198  4096 net.cpp:86] Creating Layer loss
I0503 23:49:03.500202  4096 net.cpp:408] loss <- ip2
I0503 23:49:03.500206  4096 net.cpp:408] loss <- label
I0503 23:49:03.500211  4096 net.cpp:382] loss -> loss
I0503 23:49:03.500231  4096 layer_factory.hpp:77] Creating layer loss
…
I0503 23:49:03.500838  4096 solver.cpp:173] Creating test net (#0) specified by net file: ECE595/cifar/train_test/var_everything_tiny/cifar_train_test_2.prototxt
I0503 23:49:03.500864  4096 net.cpp:296] The NetState phase (1) differed from the phase (0) specified by a rule in layer cifar
I0503 23:49:03.500960  4096 net.cpp:53] Initializing net from parameters: 
name: "CIFAR"
state {
  phase: TEST
}
layer {
  name: "cifar"
  type: "Data"
  top: "data"
  top: "label"
  include {
    phase: TEST
  }
  transform_param {
    mean_file: "examples/cifar10/mean.binaryproto"
  }
  data_param {
    source: "examples/cifar10/cifar10_test_lmdb"
    batch_size: 1000
    backend: LMDB
  }
}
layer {
  name: "conv0"
  type: "Convolution"
  bottom: "data"
  top: "conv0"
  param {
    lr_mult: 1
  }
  param {
    lr_mult: 2
  }
  convolution_param {
    num_output: 24
    pad: 2
    kernel_size: 3
    stride: 1
    weight_filler {
      type: "gaussian"
      std: 0.01
    }
    bias_filler {
      type: "constant"
    }
  }
}
layer {
  name: "Sigmoid0"
  type: "Sigmoid"
  bottom: "conv0"
  top: "Sigmoid0"
}
layer {
  name: "pool0"
  type: "Pooling"
  bottom: "Sigmoid0"
  top: "pool0"
  pooling_param {
    pool: AVE
    kernel_size: 3
    stride: 2
  }
}
layer {
  name: "ip1"
  type: "InnerProduct"
  bottom: "pool0"
  top: "ip1"
  param {
    lr_mult: 1
  }
  param {
    lr_mult: 2
  }
  inner_product_param {
    num_output: 180
    weight_filler {
      type: "gaussian"
      std: 0.01
    }
    bias_filler {
      type: "constant"
    }
  }
}
layer {
  name: "relu1"
  type: "ReLU"
  bottom: "ip1"
  top: "ip1"
}
layer {
  name: "ip2"
  type: "InnerProduct"
  bottom: "ip1"
  top: "ip2"
  param {
    lr_mult: 1
  }
  param {
    lr_mult: 2
  }
  inner_product_param {
    num_output: 10
    weight_filler {
      type: "gaussian"
      std: 0.01
    }
    bias_filler {
      type: "constant"
    }
  }
}
layer {
  name: "accuracy"
  type: "Accuracy"
  bottom: "ip2"
  bottom: "label"
  top: "accuracy"
  include {
    phase: TEST
  }
}
layer {
  name: "loss"
  type: "SoftmaxWithLoss"
  bottom: "ip2"
  bottom: "label"
  top: "loss"
}
I0503 23:49:03.501037  4096 layer_factory.hpp:77] Creating layer cifar
I0503 23:49:03.501106  4096 db_lmdb.cpp:35] Opened lmdb examples/cifar10/cifar10_test_lmdb
I0503 23:49:03.501119  4096 net.cpp:86] Creating Layer cifar
I0503 23:49:03.501124  4096 net.cpp:382] cifar -> data
I0503 23:49:03.501132  4096 net.cpp:382] cifar -> label
I0503 23:49:03.501139  4096 data_transformer.cpp:25] Loading mean file from: examples/cifar10/mean.binaryproto
I0503 23:49:03.501286  4096 data_layer.cpp:45] output data size: 1000,3,32,32
I0503 23:49:03.524535  4096 net.cpp:124] Setting up cifar
I0503 23:49:03.524561  4096 net.cpp:131] Top shape: 1000 3 32 32 (3072000)
I0503 23:49:03.524567  4096 net.cpp:131] Top shape: 1000 (1000)
I0503 23:49:03.524571  4096 net.cpp:139] Memory required for data: 12292000
I0503 23:49:03.524576  4096 layer_factory.hpp:77] Creating layer label_cifar_1_split
I0503 23:49:03.524591  4096 net.cpp:86] Creating Layer label_cifar_1_split
I0503 23:49:03.524595  4096 net.cpp:408] label_cifar_1_split <- label
I0503 23:49:03.524601  4096 net.cpp:382] label_cifar_1_split -> label_cifar_1_split_0
I0503 23:49:03.524610  4096 net.cpp:382] label_cifar_1_split -> label_cifar_1_split_1
I0503 23:49:03.524724  4096 net.cpp:124] Setting up label_cifar_1_split
I0503 23:49:03.524731  4096 net.cpp:131] Top shape: 1000 (1000)
I0503 23:49:03.524735  4096 net.cpp:131] Top shape: 1000 (1000)
I0503 23:49:03.524737  4096 net.cpp:139] Memory required for data: 12300000
I0503 23:49:03.524741  4096 layer_factory.hpp:77] Creating layer conv0
I0503 23:49:03.524754  4096 net.cpp:86] Creating Layer conv0
I0503 23:49:03.524757  4096 net.cpp:408] conv0 <- data
I0503 23:49:03.524762  4096 net.cpp:382] conv0 -> conv0
I0503 23:49:03.526432  4096 net.cpp:124] Setting up conv0
I0503 23:49:03.526456  4096 net.cpp:131] Top shape: 1000 24 34 34 (27744000)
I0503 23:49:03.526460  4096 net.cpp:139] Memory required for data: 123276000
I0503 23:49:03.526471  4096 layer_factory.hpp:77] Creating layer Sigmoid0
I0503 23:49:03.526494  4096 net.cpp:86] Creating Layer Sigmoid0
I0503 23:49:03.526499  4096 net.cpp:408] Sigmoid0 <- conv0
I0503 23:49:03.526504  4096 net.cpp:382] Sigmoid0 -> Sigmoid0
I0503 23:49:03.526695  4096 net.cpp:124] Setting up Sigmoid0
I0503 23:49:03.526705  4096 net.cpp:131] Top shape: 1000 24 34 34 (27744000)
I0503 23:49:03.526707  4096 net.cpp:139] Memory required for data: 234252000
I0503 23:49:03.526710  4096 layer_factory.hpp:77] Creating layer pool0
I0503 23:49:03.526720  4096 net.cpp:86] Creating Layer pool0
I0503 23:49:03.526722  4096 net.cpp:408] pool0 <- Sigmoid0
I0503 23:49:03.526727  4096 net.cpp:382] pool0 -> pool0
I0503 23:49:03.527604  4096 net.cpp:124] Setting up pool0
I0503 23:49:03.527617  4096 net.cpp:131] Top shape: 1000 24 17 17 (6936000)
I0503 23:49:03.527621  4096 net.cpp:139] Memory required for data: 261996000
I0503 23:49:03.527634  4096 layer_factory.hpp:77] Creating layer ip1
I0503 23:49:03.527643  4096 net.cpp:86] Creating Layer ip1
I0503 23:49:03.527647  4096 net.cpp:408] ip1 <- pool0
I0503 23:49:03.527652  4096 net.cpp:382] ip1 -> ip1
I0503 23:49:03.563164  4096 net.cpp:124] Setting up ip1
I0503 23:49:03.563182  4096 net.cpp:131] Top shape: 1000 180 (180000)
I0503 23:49:03.563186  4096 net.cpp:139] Memory required for data: 262716000
I0503 23:49:03.563196  4096 layer_factory.hpp:77] Creating layer relu1
I0503 23:49:03.563204  4096 net.cpp:86] Creating Layer relu1
I0503 23:49:03.563210  4096 net.cpp:408] relu1 <- ip1
I0503 23:49:03.563215  4096 net.cpp:369] relu1 -> ip1 (in-place)
I0503 23:49:03.563410  4096 net.cpp:124] Setting up relu1
I0503 23:49:03.563418  4096 net.cpp:131] Top shape: 1000 180 (180000)
I0503 23:49:03.563421  4096 net.cpp:139] Memory required for data: 263436000
I0503 23:49:03.563424  4096 layer_factory.hpp:77] Creating layer ip2
I0503 23:49:03.563432  4096 net.cpp:86] Creating Layer ip2
I0503 23:49:03.563436  4096 net.cpp:408] ip2 <- ip1
I0503 23:49:03.563441  4096 net.cpp:382] ip2 -> ip2
I0503 23:49:03.563616  4096 net.cpp:124] Setting up ip2
I0503 23:49:03.563624  4096 net.cpp:131] Top shape: 1000 10 (10000)
I0503 23:49:03.563627  4096 net.cpp:139] Memory required for data: 263476000
I0503 23:49:03.563635  4096 layer_factory.hpp:77] Creating layer ip2_ip2_0_split
I0503 23:49:03.563642  4096 net.cpp:86] Creating Layer ip2_ip2_0_split
I0503 23:49:03.563645  4096 net.cpp:408] ip2_ip2_0_split <- ip2
I0503 23:49:03.563659  4096 net.cpp:382] ip2_ip2_0_split -> ip2_ip2_0_split_0
I0503 23:49:03.563665  4096 net.cpp:382] ip2_ip2_0_split -> ip2_ip2_0_split_1
I0503 23:49:03.563697  4096 net.cpp:124] Setting up ip2_ip2_0_split
I0503 23:49:03.563704  4096 net.cpp:131] Top shape: 1000 10 (10000)
I0503 23:49:03.563709  4096 net.cpp:131] Top shape: 1000 10 (10000)
I0503 23:49:03.563711  4096 net.cpp:139] Memory required for data: 263556000
I0503 23:49:03.563714  4096 layer_factory.hpp:77] Creating layer accuracy
I0503 23:49:03.563720  4096 net.cpp:86] Creating Layer accuracy
I0503 23:49:03.563724  4096 net.cpp:408] accuracy <- ip2_ip2_0_split_0
I0503 23:49:03.563729  4096 net.cpp:408] accuracy <- label_cifar_1_split_0
I0503 23:49:03.563732  4096 net.cpp:382] accuracy -> accuracy
…
