…
I0504 01:27:42.794785  7400 net.cpp:296] The NetState phase (0) differed from the phase (1) specified by a rule in layer cifar
I0504 01:27:42.794802  7400 net.cpp:296] The NetState phase (0) differed from the phase (1) specified by a rule in layer accuracy
I0504 01:27:42.794894  7400 net.cpp:53] Initializing net from parameters: 
name: "CIFAR"
state {
  phase: TRAIN
  level: 0
  stage: ""
}
layer {
  name: "cifar"
  type: "Data"
  top: "data"
  top: "label"
  include {
    phase: TRAIN
  }
  transform_param {
    mean_file: "examples/cifar10/mean.binaryproto"
  }
  data_param {
    source: "examples/cifar10/cifar10_train_lmdb"
    batch_size: 111
    backend: LMDB
  }
}
layer {
  name: "conv0"
  type: "Convolution"
  bottom: "data"
  top: "conv0"
  param {
    lr_mult: 1
  }
  param {
    lr_mult: 2
  }
  convolution_param {
    num_output: 72
    pad: 2
    kernel_size: 3
    stride: 1
    weight_filler {
      type: "gaussian"
      std: 0.01
    }
    bias_filler {
      type: "constant"
    }
  }
}
layer {
  name: "Sigmoid0"
  type: "Sigmoid"
  bottom: "conv0"
  top: "Sigmoid0"
}
layer {
  name: "pool0"
  type: "Pooling"
  bottom: "Sigmoid0"
  top: "pool0"
  pooling_param {
    pool: AVE
    kernel_size: 3
    stride: 2
  }
}
layer {
  name: "ip1"
  type: "InnerProduct"
  bottom: "pool0"
  top: "ip1"
  param {
    lr_mult: 1
  }
  param {
    lr_mult: 2
  }
  inner_product_param {
    num_output: 180
    weight_filler {
      type: "gaussian"
      std: 0.01
    }
    bias_filler {
      type: "constant"
    }
  }
}
layer {
  name: "relu1"
  type: "ReLU"
  bottom: "ip1"
  top: "ip1"
}
layer {
  name: "ip2"
  type: "InnerProduct"
  bottom: "ip1"
  top: "ip2"
  param {
    lr_mult: 1
  }
  param {
    lr_mult: 2
  }
  inner_product_param {
    num_output: 60
    weight_filler {
      type: "gaussian"
      std: 0.01
    }
    bias_filler {
      type: "constant"
    }
  }
}
layer {
  name: "relu2"
  type: "ReLU"
  bottom: "ip2"
  top: "ip2"
}
layer {
  name: "ip3"
  type: "InnerProduct"
  bottom: "ip2"
  top: "ip3"
  param {
    lr_mult: 1
  }
  param {
    lr_mult: 2
  }
  inner_product_param {
    num_output: 10
    weight_filler {
      type: "gaussian"
      std: 0.01
    }
    bias_filler {
      type: "constant"
    }
  }
}
layer {
  name: "loss"
  type: "SoftmaxWithLoss"
  bottom: "ip3"
  bottom: "label"
  top: "loss"
}
I0504 01:27:42.794970  7400 layer_factory.hpp:77] Creating layer cifar
I0504 01:27:42.795071  7400 db_lmdb.cpp:35] Opened lmdb examples/cifar10/cifar10_train_lmdb
I0504 01:27:42.795100  7400 net.cpp:86] Creating Layer cifar
I0504 01:27:42.795107  7400 net.cpp:382] cifar -> data
I0504 01:27:42.795131  7400 net.cpp:382] cifar -> label
I0504 01:27:42.795143  7400 data_transformer.cpp:25] Loading mean file from: examples/cifar10/mean.binaryproto
I0504 01:27:42.797296  7400 data_layer.cpp:45] output data size: 111,3,32,32
I0504 01:27:42.805196  7400 net.cpp:124] Setting up cifar
I0504 01:27:42.805218  7400 net.cpp:131] Top shape: 111 3 32 32 (340992)
I0504 01:27:42.805224  7400 net.cpp:131] Top shape: 111 (111)
I0504 01:27:42.805227  7400 net.cpp:139] Memory required for data: 1364412
I0504 01:27:42.805235  7400 layer_factory.hpp:77] Creating layer conv0
I0504 01:27:42.805254  7400 net.cpp:86] Creating Layer conv0
I0504 01:27:42.805260  7400 net.cpp:408] conv0 <- data
I0504 01:27:42.805272  7400 net.cpp:382] conv0 -> conv0
I0504 01:27:43.086333  7400 net.cpp:124] Setting up conv0
I0504 01:27:43.086380  7400 net.cpp:131] Top shape: 111 72 34 34 (9238752)
I0504 01:27:43.086383  7400 net.cpp:139] Memory required for data: 38319420
I0504 01:27:43.086398  7400 layer_factory.hpp:77] Creating layer Sigmoid0
I0504 01:27:43.086410  7400 net.cpp:86] Creating Layer Sigmoid0
I0504 01:27:43.086414  7400 net.cpp:408] Sigmoid0 <- conv0
I0504 01:27:43.086419  7400 net.cpp:382] Sigmoid0 -> Sigmoid0
I0504 01:27:43.086601  7400 net.cpp:124] Setting up Sigmoid0
I0504 01:27:43.086611  7400 net.cpp:131] Top shape: 111 72 34 34 (9238752)
I0504 01:27:43.086613  7400 net.cpp:139] Memory required for data: 75274428
I0504 01:27:43.086616  7400 layer_factory.hpp:77] Creating layer pool0
I0504 01:27:43.086623  7400 net.cpp:86] Creating Layer pool0
I0504 01:27:43.086627  7400 net.cpp:408] pool0 <- Sigmoid0
I0504 01:27:43.086632  7400 net.cpp:382] pool0 -> pool0
I0504 01:27:43.087374  7400 net.cpp:124] Setting up pool0
I0504 01:27:43.087388  7400 net.cpp:131] Top shape: 111 72 17 17 (2309688)
I0504 01:27:43.087391  7400 net.cpp:139] Memory required for data: 84513180
I0504 01:27:43.087394  7400 layer_factory.hpp:77] Creating layer ip1
I0504 01:27:43.087404  7400 net.cpp:86] Creating Layer ip1
I0504 01:27:43.087407  7400 net.cpp:408] ip1 <- pool0
I0504 01:27:43.087412  7400 net.cpp:382] ip1 -> ip1
I0504 01:27:43.185421  7400 net.cpp:124] Setting up ip1
I0504 01:27:43.185453  7400 net.cpp:131] Top shape: 111 180 (19980)
I0504 01:27:43.185456  7400 net.cpp:139] Memory required for data: 84593100
I0504 01:27:43.185467  7400 layer_factory.hpp:77] Creating layer relu1
I0504 01:27:43.185474  7400 net.cpp:86] Creating Layer relu1
I0504 01:27:43.185477  7400 net.cpp:408] relu1 <- ip1
I0504 01:27:43.185482  7400 net.cpp:369] relu1 -> ip1 (in-place)
I0504 01:27:43.185681  7400 net.cpp:124] Setting up relu1
I0504 01:27:43.185690  7400 net.cpp:131] Top shape: 111 180 (19980)
I0504 01:27:43.185693  7400 net.cpp:139] Memory required for data: 84673020
I0504 01:27:43.185696  7400 layer_factory.hpp:77] Creating layer ip2
I0504 01:27:43.185704  7400 net.cpp:86] Creating Layer ip2
I0504 01:27:43.185708  7400 net.cpp:408] ip2 <- ip1
I0504 01:27:43.185714  7400 net.cpp:382] ip2 -> ip2
I0504 01:27:43.186944  7400 net.cpp:124] Setting up ip2
I0504 01:27:43.186955  7400 net.cpp:131] Top shape: 111 60 (6660)
I0504 01:27:43.186975  7400 net.cpp:139] Memory required for data: 84699660
I0504 01:27:43.186982  7400 layer_factory.hpp:77] Creating layer relu2
I0504 01:27:43.186988  7400 net.cpp:86] Creating Layer relu2
I0504 01:27:43.186991  7400 net.cpp:408] relu2 <- ip2
I0504 01:27:43.186995  7400 net.cpp:369] relu2 -> ip2 (in-place)
I0504 01:27:43.187193  7400 net.cpp:124] Setting up relu2
I0504 01:27:43.187202  7400 net.cpp:131] Top shape: 111 60 (6660)
I0504 01:27:43.187206  7400 net.cpp:139] Memory required for data: 84726300
I0504 01:27:43.187208  7400 layer_factory.hpp:77] Creating layer ip3
I0504 01:27:43.187216  7400 net.cpp:86] Creating Layer ip3
I0504 01:27:43.187218  7400 net.cpp:408] ip3 <- ip2
I0504 01:27:43.187223  7400 net.cpp:382] ip3 -> ip3
I0504 01:27:43.188125  7400 net.cpp:124] Setting up ip3
I0504 01:27:43.188138  7400 net.cpp:131] Top shape: 111 10 (1110)
I0504 01:27:43.188140  7400 net.cpp:139] Memory required for data: 84730740
I0504 01:27:43.188146  7400 layer_factory.hpp:77] Creating layer loss
I0504 01:27:43.188153  7400 net.cpp:86] Creating Layer loss
I0504 01:27:43.188155  7400 net.cpp:408] loss <- ip3
I0504 01:27:43.188159  7400 net.cpp:408] loss <- label
I0504 01:27:43.188164  7400 net.cpp:382] loss -> loss
I0504 01:27:43.188180  7400 layer_factory.hpp:77] Creating layer loss
…
I0504 01:27:43.188799  7400 solver.cpp:173] Creating test net (#0) specified by net file: ECE595/cifar/train_test/var_everything_tiny/cifar_train_test_34.prototxt
I0504 01:27:43.188846  7400 net.cpp:296] The NetState phase (1) differed from the phase (0) specified by a rule in layer cifar
I0504 01:27:43.188936  7400 net.cpp:53] Initializing net from parameters: 
name: "CIFAR"
state {
  phase: TEST
}
layer {
  name: "cifar"
  type: "Data"
  top: "data"
  top: "label"
  include {
    phase: TEST
  }
  transform_param {
    mean_file: "examples/cifar10/mean.binaryproto"
  }
  data_param {
    source: "examples/cifar10/cifar10_test_lmdb"
    batch_size: 1000
    backend: LMDB
  }
}
layer {
  name: "conv0"
  type: "Convolution"
  bottom: "data"
  top: "conv0"
  param {
    lr_mult: 1
  }
  param {
    lr_mult: 2
  }
  convolution_param {
    num_output: 72
    pad: 2
    kernel_size: 3
    stride: 1
    weight_filler {
      type: "gaussian"
      std: 0.01
    }
    bias_filler {
      type: "constant"
    }
  }
}
layer {
  name: "Sigmoid0"
  type: "Sigmoid"
  bottom: "conv0"
  top: "Sigmoid0"
}
layer {
  name: "pool0"
  type: "Pooling"
  bottom: "Sigmoid0"
  top: "pool0"
  pooling_param {
    pool: AVE
    kernel_size: 3
    stride: 2
  }
}
layer {
  name: "ip1"
  type: "InnerProduct"
  bottom: "pool0"
  top: "ip1"
  param {
    lr_mult: 1
  }
  param {
    lr_mult: 2
  }
  inner_product_param {
    num_output: 180
    weight_filler {
      type: "gaussian"
      std: 0.01
    }
    bias_filler {
      type: "constant"
    }
  }
}
layer {
  name: "relu1"
  type: "ReLU"
  bottom: "ip1"
  top: "ip1"
}
layer {
  name: "ip2"
  type: "InnerProduct"
  bottom: "ip1"
  top: "ip2"
  param {
    lr_mult: 1
  }
  param {
    lr_mult: 2
  }
  inner_product_param {
    num_output: 60
    weight_filler {
      type: "gaussian"
      std: 0.01
    }
    bias_filler {
      type: "constant"
    }
  }
}
layer {
  name: "relu2"
  type: "ReLU"
  bottom: "ip2"
  top: "ip2"
}
layer {
  name: "ip3"
  type: "InnerProduct"
  bottom: "ip2"
  top: "ip3"
  param {
    lr_mult: 1
  }
  param {
    lr_mult: 2
  }
  inner_product_param {
    num_output: 10
    weight_filler {
      type: "gaussian"
      std: 0.01
    }
    bias_filler {
      type: "constant"
    }
  }
}
layer {
  name: "accuracy"
  type: "Accuracy"
  bottom: "ip3"
  bottom: "label"
  top: "accuracy"
  include {
    phase: TEST
  }
}
layer {
  name: "loss"
  type: "SoftmaxWithLoss"
  bottom: "ip3"
  bottom: "label"
  top: "loss"
}
I0504 01:27:43.188999  7400 layer_factory.hpp:77] Creating layer cifar
I0504 01:27:43.189046  7400 db_lmdb.cpp:35] Opened lmdb examples/cifar10/cifar10_test_lmdb
I0504 01:27:43.189057  7400 net.cpp:86] Creating Layer cifar
I0504 01:27:43.189062  7400 net.cpp:382] cifar -> data
I0504 01:27:43.189070  7400 net.cpp:382] cifar -> label
I0504 01:27:43.189076  7400 data_transformer.cpp:25] Loading mean file from: examples/cifar10/mean.binaryproto
I0504 01:27:43.189235  7400 data_layer.cpp:45] output data size: 1000,3,32,32
I0504 01:27:43.210724  7400 net.cpp:124] Setting up cifar
I0504 01:27:43.210749  7400 net.cpp:131] Top shape: 1000 3 32 32 (3072000)
I0504 01:27:43.210755  7400 net.cpp:131] Top shape: 1000 (1000)
I0504 01:27:43.210758  7400 net.cpp:139] Memory required for data: 12292000
I0504 01:27:43.210765  7400 layer_factory.hpp:77] Creating layer label_cifar_1_split
I0504 01:27:43.210810  7400 net.cpp:86] Creating Layer label_cifar_1_split
I0504 01:27:43.210814  7400 net.cpp:408] label_cifar_1_split <- label
I0504 01:27:43.210821  7400 net.cpp:382] label_cifar_1_split -> label_cifar_1_split_0
I0504 01:27:43.210830  7400 net.cpp:382] label_cifar_1_split -> label_cifar_1_split_1
I0504 01:27:43.210909  7400 net.cpp:124] Setting up label_cifar_1_split
I0504 01:27:43.210937  7400 net.cpp:131] Top shape: 1000 (1000)
I0504 01:27:43.210940  7400 net.cpp:131] Top shape: 1000 (1000)
I0504 01:27:43.210942  7400 net.cpp:139] Memory required for data: 12300000
I0504 01:27:43.210945  7400 layer_factory.hpp:77] Creating layer conv0
I0504 01:27:43.210958  7400 net.cpp:86] Creating Layer conv0
I0504 01:27:43.210960  7400 net.cpp:408] conv0 <- data
I0504 01:27:43.210965  7400 net.cpp:382] conv0 -> conv0
I0504 01:27:43.212538  7400 net.cpp:124] Setting up conv0
I0504 01:27:43.212549  7400 net.cpp:131] Top shape: 1000 72 34 34 (83232000)
I0504 01:27:43.212553  7400 net.cpp:139] Memory required for data: 345228000
I0504 01:27:43.212563  7400 layer_factory.hpp:77] Creating layer Sigmoid0
I0504 01:27:43.212584  7400 net.cpp:86] Creating Layer Sigmoid0
I0504 01:27:43.212589  7400 net.cpp:408] Sigmoid0 <- conv0
I0504 01:27:43.212592  7400 net.cpp:382] Sigmoid0 -> Sigmoid0
I0504 01:27:43.213518  7400 net.cpp:124] Setting up Sigmoid0
I0504 01:27:43.213531  7400 net.cpp:131] Top shape: 1000 72 34 34 (83232000)
I0504 01:27:43.213533  7400 net.cpp:139] Memory required for data: 678156000
I0504 01:27:43.213536  7400 layer_factory.hpp:77] Creating layer pool0
I0504 01:27:43.213546  7400 net.cpp:86] Creating Layer pool0
I0504 01:27:43.213564  7400 net.cpp:408] pool0 <- Sigmoid0
I0504 01:27:43.213569  7400 net.cpp:382] pool0 -> pool0
I0504 01:27:43.214712  7400 net.cpp:124] Setting up pool0
I0504 01:27:43.214722  7400 net.cpp:131] Top shape: 1000 72 17 17 (20808000)
I0504 01:27:43.214726  7400 net.cpp:139] Memory required for data: 761388000
I0504 01:27:43.214730  7400 layer_factory.hpp:77] Creating layer ip1
I0504 01:27:43.214736  7400 net.cpp:86] Creating Layer ip1
I0504 01:27:43.214754  7400 net.cpp:408] ip1 <- pool0
I0504 01:27:43.214761  7400 net.cpp:382] ip1 -> ip1
I0504 01:27:43.315484  7400 net.cpp:124] Setting up ip1
I0504 01:27:43.315506  7400 net.cpp:131] Top shape: 1000 180 (180000)
I0504 01:27:43.315510  7400 net.cpp:139] Memory required for data: 762108000
I0504 01:27:43.315521  7400 layer_factory.hpp:77] Creating layer relu1
I0504 01:27:43.315546  7400 net.cpp:86] Creating Layer relu1
I0504 01:27:43.315551  7400 net.cpp:408] relu1 <- ip1
I0504 01:27:43.315557  7400 net.cpp:369] relu1 -> ip1 (in-place)
I0504 01:27:43.315773  7400 net.cpp:124] Setting up relu1
I0504 01:27:43.315783  7400 net.cpp:131] Top shape: 1000 180 (180000)
I0504 01:27:43.315785  7400 net.cpp:139] Memory required for data: 762828000
I0504 01:27:43.315789  7400 layer_factory.hpp:77] Creating layer ip2
I0504 01:27:43.315798  7400 net.cpp:86] Creating Layer ip2
I0504 01:27:43.315800  7400 net.cpp:408] ip2 <- ip1
I0504 01:27:43.315805  7400 net.cpp:382] ip2 -> ip2
I0504 01:27:43.316227  7400 net.cpp:124] Setting up ip2
I0504 01:27:43.316236  7400 net.cpp:131] Top shape: 1000 60 (60000)
I0504 01:27:43.316238  7400 net.cpp:139] Memory required for data: 763068000
I0504 01:27:43.316260  7400 layer_factory.hpp:77] Creating layer relu2
I0504 01:27:43.316268  7400 net.cpp:86] Creating Layer relu2
I0504 01:27:43.316272  7400 net.cpp:408] relu2 <- ip2
I0504 01:27:43.316275  7400 net.cpp:369] relu2 -> ip2 (in-place)
I0504 01:27:43.316429  7400 net.cpp:124] Setting up relu2
I0504 01:27:43.316437  7400 net.cpp:131] Top shape: 1000 60 (60000)
I0504 01:27:43.316440  7400 net.cpp:139] Memory required for data: 763308000
I0504 01:27:43.316443  7400 layer_factory.hpp:77] Creating layer ip3
I0504 01:27:43.316449  7400 net.cpp:86] Creating Layer ip3
I0504 01:27:43.316452  7400 net.cpp:408] ip3 <- ip2
I0504 01:27:43.316457  7400 net.cpp:382] ip3 -> ip3
I0504 01:27:43.316573  7400 net.cpp:124] Setting up ip3
I0504 01:27:43.316579  7400 net.cpp:131] Top shape: 1000 10 (10000)
I0504 01:27:43.316601  7400 net.cpp:139] Memory required for data: 763348000
I0504 01:27:43.316607  7400 layer_factory.hpp:77] Creating layer ip3_ip3_0_split
I0504 01:27:43.316613  7400 net.cpp:86] Creating Layer ip3_ip3_0_split
I0504 01:27:43.316617  7400 net.cpp:408] ip3_ip3_0_split <- ip3
I0504 01:27:43.316620  7400 net.cpp:382] ip3_ip3_0_split -> ip3_ip3_0_split_0
I0504 01:27:43.316625  7400 net.cpp:382] ip3_ip3_0_split -> ip3_ip3_0_split_1
I0504 01:27:43.316656  7400 net.cpp:124] Setting up ip3_ip3_0_split
I0504 01:27:43.316663  7400 net.cpp:131] Top shape: 1000 10 (10000)
I0504 01:27:43.316665  7400 net.cpp:131] Top shape: 1000 10 (10000)
I0504 01:27:43.316668  7400 net.cpp:139] Memory required for data: 763428000
I0504 01:27:43.316671  7400 layer_factory.hpp:77] Creating layer accuracy
I0504 01:27:43.316676  7400 net.cpp:86] Creating Layer accuracy
I0504 01:27:43.316679  7400 net.cpp:408] accuracy <- ip3_ip3_0_split_0
I0504 01:27:43.316684  7400 net.cpp:408] accuracy <- label_cifar_1_split_0
I0504 01:27:43.316687  7400 net.cpp:382] accuracy -> accuracy
…
