…
I0504 00:16:58.735615  5031 net.cpp:296] The NetState phase (0) differed from the phase (1) specified by a rule in layer cifar
I0504 00:16:58.735631  5031 net.cpp:296] The NetState phase (0) differed from the phase (1) specified by a rule in layer accuracy
I0504 00:16:58.735712  5031 net.cpp:53] Initializing net from parameters: 
name: "CIFAR"
state {
  phase: TRAIN
  level: 0
  stage: ""
}
layer {
  name: "cifar"
  type: "Data"
  top: "data"
  top: "label"
  include {
    phase: TRAIN
  }
  transform_param {
    mean_file: "examples/cifar10/mean.binaryproto"
  }
  data_param {
    source: "examples/cifar10/cifar10_train_lmdb"
    batch_size: 111
    backend: LMDB
  }
}
layer {
  name: "conv0"
  type: "Convolution"
  bottom: "data"
  top: "conv0"
  param {
    lr_mult: 1
  }
  param {
    lr_mult: 2
  }
  convolution_param {
    num_output: 24
    pad: 2
    kernel_size: 5
    stride: 1
    weight_filler {
      type: "gaussian"
      std: 0.01
    }
    bias_filler {
      type: "constant"
    }
  }
}
layer {
  name: "Sigmoid0"
  type: "Sigmoid"
  bottom: "conv0"
  top: "Sigmoid0"
}
layer {
  name: "pool0"
  type: "Pooling"
  bottom: "Sigmoid0"
  top: "pool0"
  pooling_param {
    pool: AVE
    kernel_size: 3
    stride: 2
  }
}
layer {
  name: "ip1"
  type: "InnerProduct"
  bottom: "pool0"
  top: "ip1"
  param {
    lr_mult: 1
  }
  param {
    lr_mult: 2
  }
  inner_product_param {
    num_output: 180
    weight_filler {
      type: "gaussian"
      std: 0.01
    }
    bias_filler {
      type: "constant"
    }
  }
}
layer {
  name: "relu1"
  type: "ReLU"
  bottom: "ip1"
  top: "ip1"
}
layer {
  name: "ip2"
  type: "InnerProduct"
  bottom: "ip1"
  top: "ip2"
  param {
    lr_mult: 1
  }
  param {
    lr_mult: 2
  }
  inner_product_param {
    num_output: 10
    weight_filler {
      type: "gaussian"
      std: 0.01
    }
    bias_filler {
      type: "constant"
    }
  }
}
layer {
  name: "loss"
  type: "SoftmaxWithLoss"
  bottom: "ip2"
  bottom: "label"
  top: "loss"
}
I0504 00:16:58.735782  5031 layer_factory.hpp:77] Creating layer cifar
I0504 00:16:58.735884  5031 db_lmdb.cpp:35] Opened lmdb examples/cifar10/cifar10_train_lmdb
I0504 00:16:58.735913  5031 net.cpp:86] Creating Layer cifar
I0504 00:16:58.735919  5031 net.cpp:382] cifar -> data
I0504 00:16:58.735942  5031 net.cpp:382] cifar -> label
I0504 00:16:58.735954  5031 data_transformer.cpp:25] Loading mean file from: examples/cifar10/mean.binaryproto
I0504 00:16:58.738085  5031 data_layer.cpp:45] output data size: 111,3,32,32
I0504 00:16:58.745932  5031 net.cpp:124] Setting up cifar
I0504 00:16:58.745952  5031 net.cpp:131] Top shape: 111 3 32 32 (340992)
I0504 00:16:58.745959  5031 net.cpp:131] Top shape: 111 (111)
I0504 00:16:58.745962  5031 net.cpp:139] Memory required for data: 1364412
I0504 00:16:58.745970  5031 layer_factory.hpp:77] Creating layer conv0
I0504 00:16:58.745990  5031 net.cpp:86] Creating Layer conv0
I0504 00:16:58.745995  5031 net.cpp:408] conv0 <- data
I0504 00:16:58.746006  5031 net.cpp:382] conv0 -> conv0
I0504 00:16:59.035990  5031 net.cpp:124] Setting up conv0
I0504 00:16:59.036020  5031 net.cpp:131] Top shape: 111 24 32 32 (2727936)
I0504 00:16:59.036025  5031 net.cpp:139] Memory required for data: 12276156
I0504 00:16:59.036041  5031 layer_factory.hpp:77] Creating layer Sigmoid0
I0504 00:16:59.036056  5031 net.cpp:86] Creating Layer Sigmoid0
I0504 00:16:59.036059  5031 net.cpp:408] Sigmoid0 <- conv0
I0504 00:16:59.036088  5031 net.cpp:382] Sigmoid0 -> Sigmoid0
I0504 00:16:59.036293  5031 net.cpp:124] Setting up Sigmoid0
I0504 00:16:59.036304  5031 net.cpp:131] Top shape: 111 24 32 32 (2727936)
I0504 00:16:59.036309  5031 net.cpp:139] Memory required for data: 23187900
I0504 00:16:59.036311  5031 layer_factory.hpp:77] Creating layer pool0
I0504 00:16:59.036319  5031 net.cpp:86] Creating Layer pool0
I0504 00:16:59.036324  5031 net.cpp:408] pool0 <- Sigmoid0
I0504 00:16:59.036329  5031 net.cpp:382] pool0 -> pool0
I0504 00:16:59.037183  5031 net.cpp:124] Setting up pool0
I0504 00:16:59.037199  5031 net.cpp:131] Top shape: 111 24 16 16 (681984)
I0504 00:16:59.037201  5031 net.cpp:139] Memory required for data: 25915836
I0504 00:16:59.037205  5031 layer_factory.hpp:77] Creating layer ip1
I0504 00:16:59.037216  5031 net.cpp:86] Creating Layer ip1
I0504 00:16:59.037220  5031 net.cpp:408] ip1 <- pool0
I0504 00:16:59.037225  5031 net.cpp:382] ip1 -> ip1
I0504 00:16:59.070822  5031 net.cpp:124] Setting up ip1
I0504 00:16:59.070834  5031 net.cpp:131] Top shape: 111 180 (19980)
I0504 00:16:59.070838  5031 net.cpp:139] Memory required for data: 25995756
I0504 00:16:59.070847  5031 layer_factory.hpp:77] Creating layer relu1
I0504 00:16:59.070853  5031 net.cpp:86] Creating Layer relu1
I0504 00:16:59.070857  5031 net.cpp:408] relu1 <- ip1
I0504 00:16:59.070861  5031 net.cpp:369] relu1 -> ip1 (in-place)
I0504 00:16:59.071022  5031 net.cpp:124] Setting up relu1
I0504 00:16:59.071030  5031 net.cpp:131] Top shape: 111 180 (19980)
I0504 00:16:59.071033  5031 net.cpp:139] Memory required for data: 26075676
I0504 00:16:59.071038  5031 layer_factory.hpp:77] Creating layer ip2
I0504 00:16:59.071043  5031 net.cpp:86] Creating Layer ip2
I0504 00:16:59.071048  5031 net.cpp:408] ip2 <- ip1
I0504 00:16:59.071053  5031 net.cpp:382] ip2 -> ip2
I0504 00:16:59.071202  5031 net.cpp:124] Setting up ip2
I0504 00:16:59.071209  5031 net.cpp:131] Top shape: 111 10 (1110)
I0504 00:16:59.071213  5031 net.cpp:139] Memory required for data: 26080116
I0504 00:16:59.071219  5031 layer_factory.hpp:77] Creating layer loss
I0504 00:16:59.071225  5031 net.cpp:86] Creating Layer loss
I0504 00:16:59.071228  5031 net.cpp:408] loss <- ip2
I0504 00:16:59.071233  5031 net.cpp:408] loss <- label
I0504 00:16:59.071238  5031 net.cpp:382] loss -> loss
I0504 00:16:59.071255  5031 layer_factory.hpp:77] Creating layer loss
…
I0504 00:16:59.071817  5031 solver.cpp:173] Creating test net (#0) specified by net file: ECE595/cifar/train_test/var_everything_tiny/cifar_train_test_14.prototxt
I0504 00:16:59.071841  5031 net.cpp:296] The NetState phase (1) differed from the phase (0) specified by a rule in layer cifar
I0504 00:16:59.071919  5031 net.cpp:53] Initializing net from parameters: 
name: "CIFAR"
state {
  phase: TEST
}
layer {
  name: "cifar"
  type: "Data"
  top: "data"
  top: "label"
  include {
    phase: TEST
  }
  transform_param {
    mean_file: "examples/cifar10/mean.binaryproto"
  }
  data_param {
    source: "examples/cifar10/cifar10_test_lmdb"
    batch_size: 1000
    backend: LMDB
  }
}
layer {
  name: "conv0"
  type: "Convolution"
  bottom: "data"
  top: "conv0"
  param {
    lr_mult: 1
  }
  param {
    lr_mult: 2
  }
  convolution_param {
    num_output: 24
    pad: 2
    kernel_size: 5
    stride: 1
    weight_filler {
      type: "gaussian"
      std: 0.01
    }
    bias_filler {
      type: "constant"
    }
  }
}
layer {
  name: "Sigmoid0"
  type: "Sigmoid"
  bottom: "conv0"
  top: "Sigmoid0"
}
layer {
  name: "pool0"
  type: "Pooling"
  bottom: "Sigmoid0"
  top: "pool0"
  pooling_param {
    pool: AVE
    kernel_size: 3
    stride: 2
  }
}
layer {
  name: "ip1"
  type: "InnerProduct"
  bottom: "pool0"
  top: "ip1"
  param {
    lr_mult: 1
  }
  param {
    lr_mult: 2
  }
  inner_product_param {
    num_output: 180
    weight_filler {
      type: "gaussian"
      std: 0.01
    }
    bias_filler {
      type: "constant"
    }
  }
}
layer {
  name: "relu1"
  type: "ReLU"
  bottom: "ip1"
  top: "ip1"
}
layer {
  name: "ip2"
  type: "InnerProduct"
  bottom: "ip1"
  top: "ip2"
  param {
    lr_mult: 1
  }
  param {
    lr_mult: 2
  }
  inner_product_param {
    num_output: 10
    weight_filler {
      type: "gaussian"
      std: 0.01
    }
    bias_filler {
      type: "constant"
    }
  }
}
layer {
  name: "accuracy"
  type: "Accuracy"
  bottom: "ip2"
  bottom: "label"
  top: "accuracy"
  include {
    phase: TEST
  }
}
layer {
  name: "loss"
  type: "SoftmaxWithLoss"
  bottom: "ip2"
  bottom: "label"
  top: "loss"
}
I0504 00:16:59.071991  5031 layer_factory.hpp:77] Creating layer cifar
I0504 00:16:59.072037  5031 db_lmdb.cpp:35] Opened lmdb examples/cifar10/cifar10_test_lmdb
I0504 00:16:59.072049  5031 net.cpp:86] Creating Layer cifar
I0504 00:16:59.072054  5031 net.cpp:382] cifar -> data
I0504 00:16:59.072062  5031 net.cpp:382] cifar -> label
I0504 00:16:59.072069  5031 data_transformer.cpp:25] Loading mean file from: examples/cifar10/mean.binaryproto
I0504 00:16:59.072211  5031 data_layer.cpp:45] output data size: 1000,3,32,32
I0504 00:16:59.094254  5031 net.cpp:124] Setting up cifar
I0504 00:16:59.094279  5031 net.cpp:131] Top shape: 1000 3 32 32 (3072000)
I0504 00:16:59.094285  5031 net.cpp:131] Top shape: 1000 (1000)
I0504 00:16:59.094287  5031 net.cpp:139] Memory required for data: 12292000
I0504 00:16:59.094293  5031 layer_factory.hpp:77] Creating layer label_cifar_1_split
I0504 00:16:59.094331  5031 net.cpp:86] Creating Layer label_cifar_1_split
I0504 00:16:59.094336  5031 net.cpp:408] label_cifar_1_split <- label
I0504 00:16:59.094341  5031 net.cpp:382] label_cifar_1_split -> label_cifar_1_split_0
I0504 00:16:59.094352  5031 net.cpp:382] label_cifar_1_split -> label_cifar_1_split_1
I0504 00:16:59.094399  5031 net.cpp:124] Setting up label_cifar_1_split
I0504 00:16:59.094405  5031 net.cpp:131] Top shape: 1000 (1000)
I0504 00:16:59.094408  5031 net.cpp:131] Top shape: 1000 (1000)
I0504 00:16:59.094411  5031 net.cpp:139] Memory required for data: 12300000
I0504 00:16:59.094414  5031 layer_factory.hpp:77] Creating layer conv0
I0504 00:16:59.094425  5031 net.cpp:86] Creating Layer conv0
I0504 00:16:59.094429  5031 net.cpp:408] conv0 <- data
I0504 00:16:59.094434  5031 net.cpp:382] conv0 -> conv0
I0504 00:16:59.096032  5031 net.cpp:124] Setting up conv0
I0504 00:16:59.096045  5031 net.cpp:131] Top shape: 1000 24 32 32 (24576000)
I0504 00:16:59.096050  5031 net.cpp:139] Memory required for data: 110604000
I0504 00:16:59.096060  5031 layer_factory.hpp:77] Creating layer Sigmoid0
I0504 00:16:59.096065  5031 net.cpp:86] Creating Layer Sigmoid0
I0504 00:16:59.096070  5031 net.cpp:408] Sigmoid0 <- conv0
I0504 00:16:59.096073  5031 net.cpp:382] Sigmoid0 -> Sigmoid0
I0504 00:16:59.096233  5031 net.cpp:124] Setting up Sigmoid0
I0504 00:16:59.096242  5031 net.cpp:131] Top shape: 1000 24 32 32 (24576000)
I0504 00:16:59.096246  5031 net.cpp:139] Memory required for data: 208908000
I0504 00:16:59.096248  5031 layer_factory.hpp:77] Creating layer pool0
I0504 00:16:59.096256  5031 net.cpp:86] Creating Layer pool0
I0504 00:16:59.096258  5031 net.cpp:408] pool0 <- Sigmoid0
I0504 00:16:59.096263  5031 net.cpp:382] pool0 -> pool0
I0504 00:16:59.097118  5031 net.cpp:124] Setting up pool0
I0504 00:16:59.097131  5031 net.cpp:131] Top shape: 1000 24 16 16 (6144000)
I0504 00:16:59.097133  5031 net.cpp:139] Memory required for data: 233484000
I0504 00:16:59.097137  5031 layer_factory.hpp:77] Creating layer ip1
I0504 00:16:59.097146  5031 net.cpp:86] Creating Layer ip1
I0504 00:16:59.097164  5031 net.cpp:408] ip1 <- pool0
I0504 00:16:59.097169  5031 net.cpp:382] ip1 -> ip1
I0504 00:16:59.128203  5031 net.cpp:124] Setting up ip1
I0504 00:16:59.128221  5031 net.cpp:131] Top shape: 1000 180 (180000)
I0504 00:16:59.128223  5031 net.cpp:139] Memory required for data: 234204000
I0504 00:16:59.128233  5031 layer_factory.hpp:77] Creating layer relu1
I0504 00:16:59.128240  5031 net.cpp:86] Creating Layer relu1
I0504 00:16:59.128258  5031 net.cpp:408] relu1 <- ip1
I0504 00:16:59.128263  5031 net.cpp:369] relu1 -> ip1 (in-place)
I0504 00:16:59.128444  5031 net.cpp:124] Setting up relu1
I0504 00:16:59.128453  5031 net.cpp:131] Top shape: 1000 180 (180000)
I0504 00:16:59.128455  5031 net.cpp:139] Memory required for data: 234924000
I0504 00:16:59.128458  5031 layer_factory.hpp:77] Creating layer ip2
I0504 00:16:59.128465  5031 net.cpp:86] Creating Layer ip2
I0504 00:16:59.128468  5031 net.cpp:408] ip2 <- ip1
I0504 00:16:59.128473  5031 net.cpp:382] ip2 -> ip2
I0504 00:16:59.128623  5031 net.cpp:124] Setting up ip2
I0504 00:16:59.128630  5031 net.cpp:131] Top shape: 1000 10 (10000)
I0504 00:16:59.128633  5031 net.cpp:139] Memory required for data: 234964000
I0504 00:16:59.128640  5031 layer_factory.hpp:77] Creating layer ip2_ip2_0_split
I0504 00:16:59.128646  5031 net.cpp:86] Creating Layer ip2_ip2_0_split
I0504 00:16:59.128649  5031 net.cpp:408] ip2_ip2_0_split <- ip2
I0504 00:16:59.128654  5031 net.cpp:382] ip2_ip2_0_split -> ip2_ip2_0_split_0
I0504 00:16:59.128659  5031 net.cpp:382] ip2_ip2_0_split -> ip2_ip2_0_split_1
I0504 00:16:59.128689  5031 net.cpp:124] Setting up ip2_ip2_0_split
I0504 00:16:59.128693  5031 net.cpp:131] Top shape: 1000 10 (10000)
I0504 00:16:59.128696  5031 net.cpp:131] Top shape: 1000 10 (10000)
I0504 00:16:59.128700  5031 net.cpp:139] Memory required for data: 235044000
I0504 00:16:59.128701  5031 layer_factory.hpp:77] Creating layer accuracy
I0504 00:16:59.128707  5031 net.cpp:86] Creating Layer accuracy
I0504 00:16:59.128724  5031 net.cpp:408] accuracy <- ip2_ip2_0_split_0
I0504 00:16:59.128728  5031 net.cpp:408] accuracy <- label_cifar_1_split_0
I0504 00:16:59.128732  5031 net.cpp:382] accuracy -> accuracy
…
