…
I0504 00:05:41.909049  4629 net.cpp:296] The NetState phase (0) differed from the phase (1) specified by a rule in layer cifar
I0504 00:05:41.909066  4629 net.cpp:296] The NetState phase (0) differed from the phase (1) specified by a rule in layer accuracy
I0504 00:05:41.909155  4629 net.cpp:53] Initializing net from parameters: 
name: "CIFAR"
state {
  phase: TRAIN
  level: 0
  stage: ""
}
layer {
  name: "cifar"
  type: "Data"
  top: "data"
  top: "label"
  include {
    phase: TRAIN
  }
  transform_param {
    mean_file: "examples/cifar10/mean.binaryproto"
  }
  data_param {
    source: "examples/cifar10/cifar10_train_lmdb"
    batch_size: 111
    backend: LMDB
  }
}
layer {
  name: "conv0"
  type: "Convolution"
  bottom: "data"
  top: "conv0"
  param {
    lr_mult: 1
  }
  param {
    lr_mult: 2
  }
  convolution_param {
    num_output: 24
    pad: 2
    kernel_size: 3
    stride: 1
    weight_filler {
      type: "gaussian"
      std: 0.01
    }
    bias_filler {
      type: "constant"
    }
  }
}
layer {
  name: "Sigmoid0"
  type: "Sigmoid"
  bottom: "conv0"
  top: "Sigmoid0"
}
layer {
  name: "pool0"
  type: "Pooling"
  bottom: "Sigmoid0"
  top: "pool0"
  pooling_param {
    pool: AVE
    kernel_size: 3
    stride: 2
  }
}
layer {
  name: "ip1"
  type: "InnerProduct"
  bottom: "pool0"
  top: "ip1"
  param {
    lr_mult: 1
  }
  param {
    lr_mult: 2
  }
  inner_product_param {
    num_output: 180
    weight_filler {
      type: "gaussian"
      std: 0.01
    }
    bias_filler {
      type: "constant"
    }
  }
}
layer {
  name: "relu1"
  type: "ReLU"
  bottom: "ip1"
  top: "ip1"
}
layer {
  name: "ip2"
  type: "InnerProduct"
  bottom: "ip1"
  top: "ip2"
  param {
    lr_mult: 1
  }
  param {
    lr_mult: 2
  }
  inner_product_param {
    num_output: 10
    weight_filler {
      type: "gaussian"
      std: 0.01
    }
    bias_filler {
      type: "constant"
    }
  }
}
layer {
  name: "relu2"
  type: "ReLU"
  bottom: "ip2"
  top: "ip2"
}
layer {
  name: "ip3"
  type: "InnerProduct"
  bottom: "ip2"
  top: "ip3"
  param {
    lr_mult: 1
  }
  param {
    lr_mult: 2
  }
  inner_product_param {
    num_output: 10
    weight_filler {
      type: "gaussian"
      std: 0.01
    }
    bias_filler {
      type: "constant"
    }
  }
}
layer {
  name: "loss"
  type: "SoftmaxWithLoss"
  bottom: "ip3"
  bottom: "label"
  top: "loss"
}
I0504 00:05:41.909230  4629 layer_factory.hpp:77] Creating layer cifar
I0504 00:05:41.909324  4629 db_lmdb.cpp:35] Opened lmdb examples/cifar10/cifar10_train_lmdb
I0504 00:05:41.909353  4629 net.cpp:86] Creating Layer cifar
I0504 00:05:41.909365  4629 net.cpp:382] cifar -> data
I0504 00:05:41.909389  4629 net.cpp:382] cifar -> label
I0504 00:05:41.909401  4629 data_transformer.cpp:25] Loading mean file from: examples/cifar10/mean.binaryproto
I0504 00:05:41.911432  4629 data_layer.cpp:45] output data size: 111,3,32,32
I0504 00:05:41.919091  4629 net.cpp:124] Setting up cifar
I0504 00:05:41.919114  4629 net.cpp:131] Top shape: 111 3 32 32 (340992)
I0504 00:05:41.919129  4629 net.cpp:131] Top shape: 111 (111)
I0504 00:05:41.919133  4629 net.cpp:139] Memory required for data: 1364412
I0504 00:05:41.919140  4629 layer_factory.hpp:77] Creating layer conv0
I0504 00:05:41.919173  4629 net.cpp:86] Creating Layer conv0
I0504 00:05:41.919181  4629 net.cpp:408] conv0 <- data
I0504 00:05:41.919193  4629 net.cpp:382] conv0 -> conv0
I0504 00:05:42.208325  4629 net.cpp:124] Setting up conv0
I0504 00:05:42.208376  4629 net.cpp:131] Top shape: 111 24 34 34 (3079584)
I0504 00:05:42.208381  4629 net.cpp:139] Memory required for data: 13682748
I0504 00:05:42.208400  4629 layer_factory.hpp:77] Creating layer Sigmoid0
I0504 00:05:42.208412  4629 net.cpp:86] Creating Layer Sigmoid0
I0504 00:05:42.208417  4629 net.cpp:408] Sigmoid0 <- conv0
I0504 00:05:42.208423  4629 net.cpp:382] Sigmoid0 -> Sigmoid0
I0504 00:05:42.208629  4629 net.cpp:124] Setting up Sigmoid0
I0504 00:05:42.208642  4629 net.cpp:131] Top shape: 111 24 34 34 (3079584)
I0504 00:05:42.208645  4629 net.cpp:139] Memory required for data: 26001084
I0504 00:05:42.208649  4629 layer_factory.hpp:77] Creating layer pool0
I0504 00:05:42.208657  4629 net.cpp:86] Creating Layer pool0
I0504 00:05:42.208662  4629 net.cpp:408] pool0 <- Sigmoid0
I0504 00:05:42.208667  4629 net.cpp:382] pool0 -> pool0
I0504 00:05:42.209528  4629 net.cpp:124] Setting up pool0
I0504 00:05:42.209545  4629 net.cpp:131] Top shape: 111 24 17 17 (769896)
I0504 00:05:42.209549  4629 net.cpp:139] Memory required for data: 29080668
I0504 00:05:42.209553  4629 layer_factory.hpp:77] Creating layer ip1
I0504 00:05:42.209563  4629 net.cpp:86] Creating Layer ip1
I0504 00:05:42.209568  4629 net.cpp:408] ip1 <- pool0
I0504 00:05:42.209573  4629 net.cpp:382] ip1 -> ip1
I0504 00:05:42.247668  4629 net.cpp:124] Setting up ip1
I0504 00:05:42.247680  4629 net.cpp:131] Top shape: 111 180 (19980)
I0504 00:05:42.247684  4629 net.cpp:139] Memory required for data: 29160588
I0504 00:05:42.247692  4629 layer_factory.hpp:77] Creating layer relu1
I0504 00:05:42.247699  4629 net.cpp:86] Creating Layer relu1
I0504 00:05:42.247704  4629 net.cpp:408] relu1 <- ip1
I0504 00:05:42.247707  4629 net.cpp:369] relu1 -> ip1 (in-place)
I0504 00:05:42.247870  4629 net.cpp:124] Setting up relu1
I0504 00:05:42.247879  4629 net.cpp:131] Top shape: 111 180 (19980)
I0504 00:05:42.247882  4629 net.cpp:139] Memory required for data: 29240508
I0504 00:05:42.247886  4629 layer_factory.hpp:77] Creating layer ip2
I0504 00:05:42.247894  4629 net.cpp:86] Creating Layer ip2
I0504 00:05:42.247896  4629 net.cpp:408] ip2 <- ip1
I0504 00:05:42.247901  4629 net.cpp:382] ip2 -> ip2
I0504 00:05:42.248049  4629 net.cpp:124] Setting up ip2
I0504 00:05:42.248056  4629 net.cpp:131] Top shape: 111 10 (1110)
I0504 00:05:42.248059  4629 net.cpp:139] Memory required for data: 29244948
I0504 00:05:42.248066  4629 layer_factory.hpp:77] Creating layer relu2
I0504 00:05:42.248072  4629 net.cpp:86] Creating Layer relu2
I0504 00:05:42.248075  4629 net.cpp:408] relu2 <- ip2
I0504 00:05:42.248080  4629 net.cpp:369] relu2 -> ip2 (in-place)
I0504 00:05:42.248239  4629 net.cpp:124] Setting up relu2
I0504 00:05:42.248246  4629 net.cpp:131] Top shape: 111 10 (1110)
I0504 00:05:42.248250  4629 net.cpp:139] Memory required for data: 29249388
I0504 00:05:42.248253  4629 layer_factory.hpp:77] Creating layer ip3
I0504 00:05:42.248260  4629 net.cpp:86] Creating Layer ip3
I0504 00:05:42.248263  4629 net.cpp:408] ip3 <- ip2
I0504 00:05:42.248268  4629 net.cpp:382] ip3 -> ip3
I0504 00:05:42.248363  4629 net.cpp:124] Setting up ip3
I0504 00:05:42.248370  4629 net.cpp:131] Top shape: 111 10 (1110)
I0504 00:05:42.248373  4629 net.cpp:139] Memory required for data: 29253828
I0504 00:05:42.248378  4629 layer_factory.hpp:77] Creating layer loss
I0504 00:05:42.248384  4629 net.cpp:86] Creating Layer loss
I0504 00:05:42.248387  4629 net.cpp:408] loss <- ip3
I0504 00:05:42.248391  4629 net.cpp:408] loss <- label
I0504 00:05:42.248396  4629 net.cpp:382] loss -> loss
I0504 00:05:42.248415  4629 layer_factory.hpp:77] Creating layer loss
…
I0504 00:05:42.249035  4629 solver.cpp:173] Creating test net (#0) specified by net file: ECE595/cifar/train_test/var_everything_tiny/cifar_train_test_9.prototxt
I0504 00:05:42.249063  4629 net.cpp:296] The NetState phase (1) differed from the phase (0) specified by a rule in layer cifar
I0504 00:05:42.249177  4629 net.cpp:53] Initializing net from parameters: 
name: "CIFAR"
state {
  phase: TEST
}
layer {
  name: "cifar"
  type: "Data"
  top: "data"
  top: "label"
  include {
    phase: TEST
  }
  transform_param {
    mean_file: "examples/cifar10/mean.binaryproto"
  }
  data_param {
    source: "examples/cifar10/cifar10_test_lmdb"
    batch_size: 1000
    backend: LMDB
  }
}
layer {
  name: "conv0"
  type: "Convolution"
  bottom: "data"
  top: "conv0"
  param {
    lr_mult: 1
  }
  param {
    lr_mult: 2
  }
  convolution_param {
    num_output: 24
    pad: 2
    kernel_size: 3
    stride: 1
    weight_filler {
      type: "gaussian"
      std: 0.01
    }
    bias_filler {
      type: "constant"
    }
  }
}
layer {
  name: "Sigmoid0"
  type: "Sigmoid"
  bottom: "conv0"
  top: "Sigmoid0"
}
layer {
  name: "pool0"
  type: "Pooling"
  bottom: "Sigmoid0"
  top: "pool0"
  pooling_param {
    pool: AVE
    kernel_size: 3
    stride: 2
  }
}
layer {
  name: "ip1"
  type: "InnerProduct"
  bottom: "pool0"
  top: "ip1"
  param {
    lr_mult: 1
  }
  param {
    lr_mult: 2
  }
  inner_product_param {
    num_output: 180
    weight_filler {
      type: "gaussian"
      std: 0.01
    }
    bias_filler {
      type: "constant"
    }
  }
}
layer {
  name: "relu1"
  type: "ReLU"
  bottom: "ip1"
  top: "ip1"
}
layer {
  name: "ip2"
  type: "InnerProduct"
  bottom: "ip1"
  top: "ip2"
  param {
    lr_mult: 1
  }
  param {
    lr_mult: 2
  }
  inner_product_param {
    num_output: 10
    weight_filler {
      type: "gaussian"
      std: 0.01
    }
    bias_filler {
      type: "constant"
    }
  }
}
layer {
  name: "relu2"
  type: "ReLU"
  bottom: "ip2"
  top: "ip2"
}
layer {
  name: "ip3"
  type: "InnerProduct"
  bottom: "ip2"
  top: "ip3"
  param {
    lr_mult: 1
  }
  param {
    lr_mult: 2
  }
  inner_product_param {
    num_output: 10
    weight_filler {
      type: "gaussian"
      std: 0.01
    }
    bias_filler {
      type: "constant"
    }
  }
}
layer {
  name: "accuracy"
  type: "Accuracy"
  bottom: "ip3"
  bottom: "label"
  top: "accuracy"
  include {
    phase: TEST
  }
}
layer {
  name: "loss"
  type: "SoftmaxWithLoss"
  bottom: "ip3"
  bottom: "label"
  top: "loss"
}
I0504 00:05:42.249256  4629 layer_factory.hpp:77] Creating layer cifar
I0504 00:05:42.249305  4629 db_lmdb.cpp:35] Opened lmdb examples/cifar10/cifar10_test_lmdb
I0504 00:05:42.249317  4629 net.cpp:86] Creating Layer cifar
I0504 00:05:42.249322  4629 net.cpp:382] cifar -> data
I0504 00:05:42.249330  4629 net.cpp:382] cifar -> label
I0504 00:05:42.249337  4629 data_transformer.cpp:25] Loading mean file from: examples/cifar10/mean.binaryproto
I0504 00:05:42.249492  4629 data_layer.cpp:45] output data size: 1000,3,32,32
I0504 00:05:42.274161  4629 net.cpp:124] Setting up cifar
I0504 00:05:42.274205  4629 net.cpp:131] Top shape: 1000 3 32 32 (3072000)
I0504 00:05:42.274224  4629 net.cpp:131] Top shape: 1000 (1000)
I0504 00:05:42.274246  4629 net.cpp:139] Memory required for data: 12292000
I0504 00:05:42.274260  4629 layer_factory.hpp:77] Creating layer label_cifar_1_split
I0504 00:05:42.274329  4629 net.cpp:86] Creating Layer label_cifar_1_split
I0504 00:05:42.274348  4629 net.cpp:408] label_cifar_1_split <- label
I0504 00:05:42.274365  4629 net.cpp:382] label_cifar_1_split -> label_cifar_1_split_0
I0504 00:05:42.274389  4629 net.cpp:382] label_cifar_1_split -> label_cifar_1_split_1
I0504 00:05:42.274488  4629 net.cpp:124] Setting up label_cifar_1_split
I0504 00:05:42.274507  4629 net.cpp:131] Top shape: 1000 (1000)
I0504 00:05:42.274520  4629 net.cpp:131] Top shape: 1000 (1000)
I0504 00:05:42.274531  4629 net.cpp:139] Memory required for data: 12300000
I0504 00:05:42.274541  4629 layer_factory.hpp:77] Creating layer conv0
I0504 00:05:42.274571  4629 net.cpp:86] Creating Layer conv0
I0504 00:05:42.274583  4629 net.cpp:408] conv0 <- data
I0504 00:05:42.274601  4629 net.cpp:382] conv0 -> conv0
I0504 00:05:42.278496  4629 net.cpp:124] Setting up conv0
I0504 00:05:42.278533  4629 net.cpp:131] Top shape: 1000 24 34 34 (27744000)
I0504 00:05:42.278548  4629 net.cpp:139] Memory required for data: 123276000
I0504 00:05:42.278590  4629 layer_factory.hpp:77] Creating layer Sigmoid0
I0504 00:05:42.278611  4629 net.cpp:86] Creating Layer Sigmoid0
I0504 00:05:42.278625  4629 net.cpp:408] Sigmoid0 <- conv0
I0504 00:05:42.278642  4629 net.cpp:382] Sigmoid0 -> Sigmoid0
I0504 00:05:42.280134  4629 net.cpp:124] Setting up Sigmoid0
I0504 00:05:42.280164  4629 net.cpp:131] Top shape: 1000 24 34 34 (27744000)
I0504 00:05:42.280176  4629 net.cpp:139] Memory required for data: 234252000
I0504 00:05:42.280199  4629 layer_factory.hpp:77] Creating layer pool0
I0504 00:05:42.280221  4629 net.cpp:86] Creating Layer pool0
I0504 00:05:42.280233  4629 net.cpp:408] pool0 <- Sigmoid0
I0504 00:05:42.280249  4629 net.cpp:382] pool0 -> pool0
I0504 00:05:42.280604  4629 net.cpp:124] Setting up pool0
I0504 00:05:42.280625  4629 net.cpp:131] Top shape: 1000 24 17 17 (6936000)
I0504 00:05:42.280637  4629 net.cpp:139] Memory required for data: 261996000
I0504 00:05:42.280697  4629 layer_factory.hpp:77] Creating layer ip1
I0504 00:05:42.280719  4629 net.cpp:86] Creating Layer ip1
I0504 00:05:42.280738  4629 net.cpp:408] ip1 <- pool0
I0504 00:05:42.280756  4629 net.cpp:382] ip1 -> ip1
I0504 00:05:42.339751  4629 net.cpp:124] Setting up ip1
I0504 00:05:42.339783  4629 net.cpp:131] Top shape: 1000 180 (180000)
I0504 00:05:42.339792  4629 net.cpp:139] Memory required for data: 262716000
I0504 00:05:42.339826  4629 layer_factory.hpp:77] Creating layer relu1
I0504 00:05:42.339843  4629 net.cpp:86] Creating Layer relu1
I0504 00:05:42.339851  4629 net.cpp:408] relu1 <- ip1
I0504 00:05:42.339864  4629 net.cpp:369] relu1 -> ip1 (in-place)
I0504 00:05:42.340157  4629 net.cpp:124] Setting up relu1
I0504 00:05:42.340171  4629 net.cpp:131] Top shape: 1000 180 (180000)
I0504 00:05:42.340179  4629 net.cpp:139] Memory required for data: 263436000
I0504 00:05:42.340188  4629 layer_factory.hpp:77] Creating layer ip2
I0504 00:05:42.340204  4629 net.cpp:86] Creating Layer ip2
I0504 00:05:42.340211  4629 net.cpp:408] ip2 <- ip1
I0504 00:05:42.340224  4629 net.cpp:382] ip2 -> ip2
I0504 00:05:42.340471  4629 net.cpp:124] Setting up ip2
I0504 00:05:42.340484  4629 net.cpp:131] Top shape: 1000 10 (10000)
I0504 00:05:42.340492  4629 net.cpp:139] Memory required for data: 263476000
I0504 00:05:42.340509  4629 layer_factory.hpp:77] Creating layer relu2
I0504 00:05:42.340523  4629 net.cpp:86] Creating Layer relu2
I0504 00:05:42.340531  4629 net.cpp:408] relu2 <- ip2
I0504 00:05:42.340543  4629 net.cpp:369] relu2 -> ip2 (in-place)
I0504 00:05:42.340786  4629 net.cpp:124] Setting up relu2
I0504 00:05:42.340801  4629 net.cpp:131] Top shape: 1000 10 (10000)
I0504 00:05:42.340816  4629 net.cpp:139] Memory required for data: 263516000
I0504 00:05:42.340836  4629 layer_factory.hpp:77] Creating layer ip3
I0504 00:05:42.340860  4629 net.cpp:86] Creating Layer ip3
I0504 00:05:42.340868  4629 net.cpp:408] ip3 <- ip2
I0504 00:05:42.340881  4629 net.cpp:382] ip3 -> ip3
I0504 00:05:42.341051  4629 net.cpp:124] Setting up ip3
I0504 00:05:42.341064  4629 net.cpp:131] Top shape: 1000 10 (10000)
I0504 00:05:42.341099  4629 net.cpp:139] Memory required for data: 263556000
I0504 00:05:42.341112  4629 layer_factory.hpp:77] Creating layer ip3_ip3_0_split
I0504 00:05:42.341125  4629 net.cpp:86] Creating Layer ip3_ip3_0_split
I0504 00:05:42.341132  4629 net.cpp:408] ip3_ip3_0_split <- ip3
I0504 00:05:42.341143  4629 net.cpp:382] ip3_ip3_0_split -> ip3_ip3_0_split_0
I0504 00:05:42.341163  4629 net.cpp:382] ip3_ip3_0_split -> ip3_ip3_0_split_1
I0504 00:05:42.341234  4629 net.cpp:124] Setting up ip3_ip3_0_split
I0504 00:05:42.341245  4629 net.cpp:131] Top shape: 1000 10 (10000)
I0504 00:05:42.341254  4629 net.cpp:131] Top shape: 1000 10 (10000)
I0504 00:05:42.341261  4629 net.cpp:139] Memory required for data: 263636000
I0504 00:05:42.341269  4629 layer_factory.hpp:77] Creating layer accuracy
I0504 00:05:42.341280  4629 net.cpp:86] Creating Layer accuracy
I0504 00:05:42.341289  4629 net.cpp:408] accuracy <- ip3_ip3_0_split_0
I0504 00:05:42.341298  4629 net.cpp:408] accuracy <- label_cifar_1_split_0
I0504 00:05:42.341310  4629 net.cpp:382] accuracy -> accuracy
…
