…
I0504 13:08:52.145077 31824 net.cpp:296] The NetState phase (0) differed from the phase (1) specified by a rule in layer cifar
I0504 13:08:52.145097 31824 net.cpp:296] The NetState phase (0) differed from the phase (1) specified by a rule in layer accuracy
I0504 13:08:52.145203 31824 net.cpp:53] Initializing net from parameters: 
name: "CIFAR"
state {
  phase: TRAIN
  level: 0
  stage: ""
}
layer {
  name: "cifar"
  type: "Data"
  top: "data"
  top: "label"
  include {
    phase: TRAIN
  }
  transform_param {
    mean_file: "examples/cifar10/mean.binaryproto"
  }
  data_param {
    source: "examples/cifar10/cifar10_train_lmdb"
    batch_size: 111
    backend: LMDB
  }
}
layer {
  name: "conv0"
  type: "Convolution"
  bottom: "data"
  top: "conv0"
  param {
    lr_mult: 1
  }
  param {
    lr_mult: 2
  }
  convolution_param {
    num_output: 24
    pad: 2
    kernel_size: 5
    stride: 1
    weight_filler {
      type: "gaussian"
      std: 0.01
    }
    bias_filler {
      type: "constant"
    }
  }
}
layer {
  name: "Sigmoid0"
  type: "Sigmoid"
  bottom: "conv0"
  top: "Sigmoid0"
}
layer {
  name: "pool0"
  type: "Pooling"
  bottom: "Sigmoid0"
  top: "pool0"
  pooling_param {
    pool: AVE
    kernel_size: 3
    stride: 2
  }
}
layer {
  name: "conv1"
  type: "Convolution"
  bottom: "pool0"
  top: "conv1"
  param {
    lr_mult: 1
  }
  param {
    lr_mult: 2
  }
  convolution_param {
    num_output: 216
    pad: 2
    kernel_size: 3
    stride: 1
    weight_filler {
      type: "gaussian"
      std: 0.01
    }
    bias_filler {
      type: "constant"
    }
  }
}
layer {
  name: "Sigmoid1"
  type: "Sigmoid"
  bottom: "conv1"
  top: "Sigmoid1"
}
layer {
  name: "pool1"
  type: "Pooling"
  bottom: "Sigmoid1"
  top: "pool1"
  pooling_param {
    pool: AVE
    kernel_size: 3
    stride: 2
  }
}
layer {
  name: "ip1"
  type: "InnerProduct"
  bottom: "pool1"
  top: "ip1"
  param {
    lr_mult: 1
  }
  param {
    lr_mult: 2
  }
  inner_product_param {
    num_output: 10
    weight_filler {
      type: "gaussian"
      std: 0.01
    }
    bias_filler {
      type: "constant"
    }
  }
}
layer {
  name: "relu1"
  type: "ReLU"
  bottom: "ip1"
  top: "ip1"
}
layer {
  name: "ip2"
  type: "InnerProduct"
  bottom: "ip1"
  top: "ip2"
  param {
    lr_mult: 1
  }
  param {
    lr_mult: 2
  }
  inner_product_param {
    num_output: 180
    weight_filler {
      type: "gaussian"
      std: 0.01
    }
    bias_filler {
      type: "constant"
    }
  }
}
layer {
  name: "relu2"
  type: "ReLU"
  bottom: "ip2"
  top: "ip2"
}
layer {
  name: "ip3"
  type: "InnerProduct"
  bottom: "ip2"
  top: "ip3"
  param {
    lr_mult: 1
  }
  param {
    lr_mult: 2
  }
  inner_product_param {
    num_output: 10
    weight_filler {
      type: "gaussian"
      std: 0.01
    }
    bias_filler {
      type: "constant"
    }
  }
}
layer {
  name: "loss"
  type: "SoftmaxWithLoss"
  bottom: "ip3"
  bottom: "label"
  top: "loss"
}
I0504 13:08:52.145297 31824 layer_factory.hpp:77] Creating layer cifar
I0504 13:08:52.145395 31824 db_lmdb.cpp:35] Opened lmdb examples/cifar10/cifar10_train_lmdb
I0504 13:08:52.145421 31824 net.cpp:86] Creating Layer cifar
I0504 13:08:52.145428 31824 net.cpp:382] cifar -> data
I0504 13:08:52.145452 31824 net.cpp:382] cifar -> label
I0504 13:08:52.145467 31824 data_transformer.cpp:25] Loading mean file from: examples/cifar10/mean.binaryproto
I0504 13:08:52.147627 31824 data_layer.cpp:45] output data size: 111,3,32,32
I0504 13:08:52.155763 31824 net.cpp:124] Setting up cifar
I0504 13:08:52.155782 31824 net.cpp:131] Top shape: 111 3 32 32 (340992)
I0504 13:08:52.155788 31824 net.cpp:131] Top shape: 111 (111)
I0504 13:08:52.155792 31824 net.cpp:139] Memory required for data: 1364412
I0504 13:08:52.155800 31824 layer_factory.hpp:77] Creating layer conv0
I0504 13:08:52.155817 31824 net.cpp:86] Creating Layer conv0
I0504 13:08:52.155825 31824 net.cpp:408] conv0 <- data
I0504 13:08:52.155845 31824 net.cpp:382] conv0 -> conv0
I0504 13:08:52.426969 31824 net.cpp:124] Setting up conv0
I0504 13:08:52.426992 31824 net.cpp:131] Top shape: 111 24 32 32 (2727936)
I0504 13:08:52.426995 31824 net.cpp:139] Memory required for data: 12276156
I0504 13:08:52.427011 31824 layer_factory.hpp:77] Creating layer Sigmoid0
I0504 13:08:52.427037 31824 net.cpp:86] Creating Layer Sigmoid0
I0504 13:08:52.427040 31824 net.cpp:408] Sigmoid0 <- conv0
I0504 13:08:52.427047 31824 net.cpp:382] Sigmoid0 -> Sigmoid0
I0504 13:08:52.427227 31824 net.cpp:124] Setting up Sigmoid0
I0504 13:08:52.427235 31824 net.cpp:131] Top shape: 111 24 32 32 (2727936)
I0504 13:08:52.427238 31824 net.cpp:139] Memory required for data: 23187900
I0504 13:08:52.427242 31824 layer_factory.hpp:77] Creating layer pool0
I0504 13:08:52.427248 31824 net.cpp:86] Creating Layer pool0
I0504 13:08:52.427253 31824 net.cpp:408] pool0 <- Sigmoid0
I0504 13:08:52.427256 31824 net.cpp:382] pool0 -> pool0
I0504 13:08:52.427999 31824 net.cpp:124] Setting up pool0
I0504 13:08:52.428012 31824 net.cpp:131] Top shape: 111 24 16 16 (681984)
I0504 13:08:52.428030 31824 net.cpp:139] Memory required for data: 25915836
I0504 13:08:52.428035 31824 layer_factory.hpp:77] Creating layer conv1
I0504 13:08:52.428046 31824 net.cpp:86] Creating Layer conv1
I0504 13:08:52.428050 31824 net.cpp:408] conv1 <- pool0
I0504 13:08:52.428055 31824 net.cpp:382] conv1 -> conv1
I0504 13:08:52.431963 31824 net.cpp:124] Setting up conv1
I0504 13:08:52.431993 31824 net.cpp:131] Top shape: 111 216 18 18 (7768224)
I0504 13:08:52.431995 31824 net.cpp:139] Memory required for data: 56988732
I0504 13:08:52.432004 31824 layer_factory.hpp:77] Creating layer Sigmoid1
I0504 13:08:52.432009 31824 net.cpp:86] Creating Layer Sigmoid1
I0504 13:08:52.432013 31824 net.cpp:408] Sigmoid1 <- conv1
I0504 13:08:52.432018 31824 net.cpp:382] Sigmoid1 -> Sigmoid1
I0504 13:08:52.432227 31824 net.cpp:124] Setting up Sigmoid1
I0504 13:08:52.432236 31824 net.cpp:131] Top shape: 111 216 18 18 (7768224)
I0504 13:08:52.432240 31824 net.cpp:139] Memory required for data: 88061628
I0504 13:08:52.432242 31824 layer_factory.hpp:77] Creating layer pool1
I0504 13:08:52.432247 31824 net.cpp:86] Creating Layer pool1
I0504 13:08:52.432251 31824 net.cpp:408] pool1 <- Sigmoid1
I0504 13:08:52.432255 31824 net.cpp:382] pool1 -> pool1
I0504 13:08:52.432420 31824 net.cpp:124] Setting up pool1
I0504 13:08:52.432428 31824 net.cpp:131] Top shape: 111 216 9 9 (1942056)
I0504 13:08:52.432430 31824 net.cpp:139] Memory required for data: 95829852
I0504 13:08:52.432433 31824 layer_factory.hpp:77] Creating layer ip1
I0504 13:08:52.432440 31824 net.cpp:86] Creating Layer ip1
I0504 13:08:52.432443 31824 net.cpp:408] ip1 <- pool1
I0504 13:08:52.432448 31824 net.cpp:382] ip1 -> ip1
I0504 13:08:52.436893 31824 net.cpp:124] Setting up ip1
I0504 13:08:52.436902 31824 net.cpp:131] Top shape: 111 10 (1110)
I0504 13:08:52.436919 31824 net.cpp:139] Memory required for data: 95834292
I0504 13:08:52.436928 31824 layer_factory.hpp:77] Creating layer relu1
I0504 13:08:52.436933 31824 net.cpp:86] Creating Layer relu1
I0504 13:08:52.436936 31824 net.cpp:408] relu1 <- ip1
I0504 13:08:52.436940 31824 net.cpp:369] relu1 -> ip1 (in-place)
I0504 13:08:52.437096 31824 net.cpp:124] Setting up relu1
I0504 13:08:52.437119 31824 net.cpp:131] Top shape: 111 10 (1110)
I0504 13:08:52.437122 31824 net.cpp:139] Memory required for data: 95838732
I0504 13:08:52.437124 31824 layer_factory.hpp:77] Creating layer ip2
I0504 13:08:52.437131 31824 net.cpp:86] Creating Layer ip2
I0504 13:08:52.437134 31824 net.cpp:408] ip2 <- ip1
I0504 13:08:52.437152 31824 net.cpp:382] ip2 -> ip2
I0504 13:08:52.437304 31824 net.cpp:124] Setting up ip2
I0504 13:08:52.437310 31824 net.cpp:131] Top shape: 111 180 (19980)
I0504 13:08:52.437314 31824 net.cpp:139] Memory required for data: 95918652
I0504 13:08:52.437319 31824 layer_factory.hpp:77] Creating layer relu2
I0504 13:08:52.437325 31824 net.cpp:86] Creating Layer relu2
I0504 13:08:52.437327 31824 net.cpp:408] relu2 <- ip2
I0504 13:08:52.437331 31824 net.cpp:369] relu2 -> ip2 (in-place)
I0504 13:08:52.438032 31824 net.cpp:124] Setting up relu2
I0504 13:08:52.438043 31824 net.cpp:131] Top shape: 111 180 (19980)
I0504 13:08:52.438046 31824 net.cpp:139] Memory required for data: 95998572
I0504 13:08:52.438050 31824 layer_factory.hpp:77] Creating layer ip3
I0504 13:08:52.438055 31824 net.cpp:86] Creating Layer ip3
I0504 13:08:52.438058 31824 net.cpp:408] ip3 <- ip2
I0504 13:08:52.438063 31824 net.cpp:382] ip3 -> ip3
I0504 13:08:52.438213 31824 net.cpp:124] Setting up ip3
I0504 13:08:52.438220 31824 net.cpp:131] Top shape: 111 10 (1110)
I0504 13:08:52.438222 31824 net.cpp:139] Memory required for data: 96003012
I0504 13:08:52.438230 31824 layer_factory.hpp:77] Creating layer loss
I0504 13:08:52.438236 31824 net.cpp:86] Creating Layer loss
I0504 13:08:52.438240 31824 net.cpp:408] loss <- ip3
I0504 13:08:52.438242 31824 net.cpp:408] loss <- label
I0504 13:08:52.438247 31824 net.cpp:382] loss -> loss
I0504 13:08:52.438264 31824 layer_factory.hpp:77] Creating layer loss
…
I0504 13:08:52.438959 31824 solver.cpp:173] Creating test net (#0) specified by net file: ECE595/cifar/train_test/var_everything_tiny/cifar_train_test_161.prototxt
I0504 13:08:52.439002 31824 net.cpp:296] The NetState phase (1) differed from the phase (0) specified by a rule in layer cifar
I0504 13:08:52.439121 31824 net.cpp:53] Initializing net from parameters: 
name: "CIFAR"
state {
  phase: TEST
}
layer {
  name: "cifar"
  type: "Data"
  top: "data"
  top: "label"
  include {
    phase: TEST
  }
  transform_param {
    mean_file: "examples/cifar10/mean.binaryproto"
  }
  data_param {
    source: "examples/cifar10/cifar10_test_lmdb"
    batch_size: 1000
    backend: LMDB
  }
}
layer {
  name: "conv0"
  type: "Convolution"
  bottom: "data"
  top: "conv0"
  param {
    lr_mult: 1
  }
  param {
    lr_mult: 2
  }
  convolution_param {
    num_output: 24
    pad: 2
    kernel_size: 5
    stride: 1
    weight_filler {
      type: "gaussian"
      std: 0.01
    }
    bias_filler {
      type: "constant"
    }
  }
}
layer {
  name: "Sigmoid0"
  type: "Sigmoid"
  bottom: "conv0"
  top: "Sigmoid0"
}
layer {
  name: "pool0"
  type: "Pooling"
  bottom: "Sigmoid0"
  top: "pool0"
  pooling_param {
    pool: AVE
    kernel_size: 3
    stride: 2
  }
}
layer {
  name: "conv1"
  type: "Convolution"
  bottom: "pool0"
  top: "conv1"
  param {
    lr_mult: 1
  }
  param {
    lr_mult: 2
  }
  convolution_param {
    num_output: 216
    pad: 2
    kernel_size: 3
    stride: 1
    weight_filler {
      type: "gaussian"
      std: 0.01
    }
    bias_filler {
      type: "constant"
    }
  }
}
layer {
  name: "Sigmoid1"
  type: "Sigmoid"
  bottom: "conv1"
  top: "Sigmoid1"
}
layer {
  name: "pool1"
  type: "Pooling"
  bottom: "Sigmoid1"
  top: "pool1"
  pooling_param {
    pool: AVE
    kernel_size: 3
    stride: 2
  }
}
layer {
  name: "ip1"
  type: "InnerProduct"
  bottom: "pool1"
  top: "ip1"
  param {
    lr_mult: 1
  }
  param {
    lr_mult: 2
  }
  inner_product_param {
    num_output: 10
    weight_filler {
      type: "gaussian"
      std: 0.01
    }
    bias_filler {
      type: "constant"
    }
  }
}
layer {
  name: "relu1"
  type: "ReLU"
  bottom: "ip1"
  top: "ip1"
}
layer {
  name: "ip2"
  type: "InnerProduct"
  bottom: "ip1"
  top: "ip2"
  param {
    lr_mult: 1
  }
  param {
    lr_mult: 2
  }
  inner_product_param {
    num_output: 180
    weight_filler {
      type: "gaussian"
      std: 0.01
    }
    bias_filler {
      type: "constant"
    }
  }
}
layer {
  name: "relu2"
  type: "ReLU"
  bottom: "ip2"
  top: "ip2"
}
layer {
  name: "ip3"
  type: "InnerProduct"
  bottom: "ip2"
  top: "ip3"
  param {
    lr_mult: 1
  }
  param {
    lr_mult: 2
  }
  inner_product_param {
    num_output: 10
    weight_filler {
      type: "gaussian"
      std: 0.01
    }
    bias_filler {
      type: "constant"
    }
  }
}
layer {
  name: "accuracy"
  type: "Accuracy"
  bottom: "ip3"
  bottom: "label"
  top: "accuracy"
  include {
    phase: TEST
  }
}
layer {
  name: "loss"
  type: "SoftmaxWithLoss"
  bottom: "ip3"
  bottom: "label"
  top: "loss"
}
I0504 13:08:52.439196 31824 layer_factory.hpp:77] Creating layer cifar
I0504 13:08:52.439240 31824 db_lmdb.cpp:35] Opened lmdb examples/cifar10/cifar10_test_lmdb
I0504 13:08:52.439252 31824 net.cpp:86] Creating Layer cifar
I0504 13:08:52.439260 31824 net.cpp:382] cifar -> data
I0504 13:08:52.439283 31824 net.cpp:382] cifar -> label
I0504 13:08:52.439291 31824 data_transformer.cpp:25] Loading mean file from: examples/cifar10/mean.binaryproto
I0504 13:08:52.439422 31824 data_layer.cpp:45] output data size: 1000,3,32,32
I0504 13:08:52.460968 31824 net.cpp:124] Setting up cifar
I0504 13:08:52.461010 31824 net.cpp:131] Top shape: 1000 3 32 32 (3072000)
I0504 13:08:52.461016 31824 net.cpp:131] Top shape: 1000 (1000)
I0504 13:08:52.461019 31824 net.cpp:139] Memory required for data: 12292000
I0504 13:08:52.461025 31824 layer_factory.hpp:77] Creating layer label_cifar_1_split
I0504 13:08:52.461037 31824 net.cpp:86] Creating Layer label_cifar_1_split
I0504 13:08:52.461045 31824 net.cpp:408] label_cifar_1_split <- label
I0504 13:08:52.461066 31824 net.cpp:382] label_cifar_1_split -> label_cifar_1_split_0
I0504 13:08:52.461074 31824 net.cpp:382] label_cifar_1_split -> label_cifar_1_split_1
I0504 13:08:52.461148 31824 net.cpp:124] Setting up label_cifar_1_split
I0504 13:08:52.461155 31824 net.cpp:131] Top shape: 1000 (1000)
I0504 13:08:52.461159 31824 net.cpp:131] Top shape: 1000 (1000)
I0504 13:08:52.461163 31824 net.cpp:139] Memory required for data: 12300000
I0504 13:08:52.461165 31824 layer_factory.hpp:77] Creating layer conv0
I0504 13:08:52.461177 31824 net.cpp:86] Creating Layer conv0
I0504 13:08:52.461184 31824 net.cpp:408] conv0 <- data
I0504 13:08:52.461205 31824 net.cpp:382] conv0 -> conv0
I0504 13:08:52.462883 31824 net.cpp:124] Setting up conv0
I0504 13:08:52.462911 31824 net.cpp:131] Top shape: 1000 24 32 32 (24576000)
I0504 13:08:52.462914 31824 net.cpp:139] Memory required for data: 110604000
I0504 13:08:52.462924 31824 layer_factory.hpp:77] Creating layer Sigmoid0
I0504 13:08:52.462931 31824 net.cpp:86] Creating Layer Sigmoid0
I0504 13:08:52.462934 31824 net.cpp:408] Sigmoid0 <- conv0
I0504 13:08:52.462940 31824 net.cpp:382] Sigmoid0 -> Sigmoid0
I0504 13:08:52.463122 31824 net.cpp:124] Setting up Sigmoid0
I0504 13:08:52.463142 31824 net.cpp:131] Top shape: 1000 24 32 32 (24576000)
I0504 13:08:52.463145 31824 net.cpp:139] Memory required for data: 208908000
I0504 13:08:52.463150 31824 layer_factory.hpp:77] Creating layer pool0
I0504 13:08:52.463160 31824 net.cpp:86] Creating Layer pool0
I0504 13:08:52.463165 31824 net.cpp:408] pool0 <- Sigmoid0
I0504 13:08:52.463186 31824 net.cpp:382] pool0 -> pool0
I0504 13:08:52.463430 31824 net.cpp:124] Setting up pool0
I0504 13:08:52.463440 31824 net.cpp:131] Top shape: 1000 24 16 16 (6144000)
I0504 13:08:52.463443 31824 net.cpp:139] Memory required for data: 233484000
I0504 13:08:52.463446 31824 layer_factory.hpp:77] Creating layer conv1
I0504 13:08:52.463457 31824 net.cpp:86] Creating Layer conv1
I0504 13:08:52.463464 31824 net.cpp:408] conv1 <- pool0
I0504 13:08:52.463485 31824 net.cpp:382] conv1 -> conv1
I0504 13:08:52.467032 31824 net.cpp:124] Setting up conv1
I0504 13:08:52.467062 31824 net.cpp:131] Top shape: 1000 216 18 18 (69984000)
I0504 13:08:52.467067 31824 net.cpp:139] Memory required for data: 513420000
I0504 13:08:52.467075 31824 layer_factory.hpp:77] Creating layer Sigmoid1
I0504 13:08:52.467083 31824 net.cpp:86] Creating Layer Sigmoid1
I0504 13:08:52.467087 31824 net.cpp:408] Sigmoid1 <- conv1
I0504 13:08:52.467092 31824 net.cpp:382] Sigmoid1 -> Sigmoid1
I0504 13:08:52.467278 31824 net.cpp:124] Setting up Sigmoid1
I0504 13:08:52.467288 31824 net.cpp:131] Top shape: 1000 216 18 18 (69984000)
I0504 13:08:52.467291 31824 net.cpp:139] Memory required for data: 793356000
I0504 13:08:52.467294 31824 layer_factory.hpp:77] Creating layer pool1
I0504 13:08:52.467300 31824 net.cpp:86] Creating Layer pool1
I0504 13:08:52.467304 31824 net.cpp:408] pool1 <- Sigmoid1
I0504 13:08:52.467309 31824 net.cpp:382] pool1 -> pool1
I0504 13:08:52.468055 31824 net.cpp:124] Setting up pool1
I0504 13:08:52.468067 31824 net.cpp:131] Top shape: 1000 216 9 9 (17496000)
I0504 13:08:52.468086 31824 net.cpp:139] Memory required for data: 863340000
I0504 13:08:52.468088 31824 layer_factory.hpp:77] Creating layer ip1
I0504 13:08:52.468101 31824 net.cpp:86] Creating Layer ip1
I0504 13:08:52.468103 31824 net.cpp:408] ip1 <- pool1
I0504 13:08:52.468109 31824 net.cpp:382] ip1 -> ip1
I0504 13:08:52.473044 31824 net.cpp:124] Setting up ip1
I0504 13:08:52.473053 31824 net.cpp:131] Top shape: 1000 10 (10000)
I0504 13:08:52.473071 31824 net.cpp:139] Memory required for data: 863380000
I0504 13:08:52.473081 31824 layer_factory.hpp:77] Creating layer relu1
I0504 13:08:52.473088 31824 net.cpp:86] Creating Layer relu1
I0504 13:08:52.473091 31824 net.cpp:408] relu1 <- ip1
I0504 13:08:52.473096 31824 net.cpp:369] relu1 -> ip1 (in-place)
I0504 13:08:52.473295 31824 net.cpp:124] Setting up relu1
I0504 13:08:52.473304 31824 net.cpp:131] Top shape: 1000 10 (10000)
I0504 13:08:52.473307 31824 net.cpp:139] Memory required for data: 863420000
I0504 13:08:52.473310 31824 layer_factory.hpp:77] Creating layer ip2
I0504 13:08:52.473317 31824 net.cpp:86] Creating Layer ip2
I0504 13:08:52.473320 31824 net.cpp:408] ip2 <- ip1
I0504 13:08:52.473328 31824 net.cpp:382] ip2 -> ip2
I0504 13:08:52.473505 31824 net.cpp:124] Setting up ip2
I0504 13:08:52.473511 31824 net.cpp:131] Top shape: 1000 180 (180000)
I0504 13:08:52.473515 31824 net.cpp:139] Memory required for data: 864140000
I0504 13:08:52.473520 31824 layer_factory.hpp:77] Creating layer relu2
I0504 13:08:52.473526 31824 net.cpp:86] Creating Layer relu2
I0504 13:08:52.473532 31824 net.cpp:408] relu2 <- ip2
I0504 13:08:52.473552 31824 net.cpp:369] relu2 -> ip2 (in-place)
I0504 13:08:52.473739 31824 net.cpp:124] Setting up relu2
I0504 13:08:52.473748 31824 net.cpp:131] Top shape: 1000 180 (180000)
I0504 13:08:52.473752 31824 net.cpp:139] Memory required for data: 864860000
I0504 13:08:52.473757 31824 layer_factory.hpp:77] Creating layer ip3
I0504 13:08:52.473763 31824 net.cpp:86] Creating Layer ip3
I0504 13:08:52.473767 31824 net.cpp:408] ip3 <- ip2
I0504 13:08:52.473773 31824 net.cpp:382] ip3 -> ip3
I0504 13:08:52.473942 31824 net.cpp:124] Setting up ip3
I0504 13:08:52.473960 31824 net.cpp:131] Top shape: 1000 10 (10000)
I0504 13:08:52.473964 31824 net.cpp:139] Memory required for data: 864900000
I0504 13:08:52.473973 31824 layer_factory.hpp:77] Creating layer ip3_ip3_0_split
I0504 13:08:52.473981 31824 net.cpp:86] Creating Layer ip3_ip3_0_split
I0504 13:08:52.473984 31824 net.cpp:408] ip3_ip3_0_split <- ip3
I0504 13:08:52.473990 31824 net.cpp:382] ip3_ip3_0_split -> ip3_ip3_0_split_0
I0504 13:08:52.473997 31824 net.cpp:382] ip3_ip3_0_split -> ip3_ip3_0_split_1
I0504 13:08:52.474032 31824 net.cpp:124] Setting up ip3_ip3_0_split
I0504 13:08:52.474038 31824 net.cpp:131] Top shape: 1000 10 (10000)
I0504 13:08:52.474042 31824 net.cpp:131] Top shape: 1000 10 (10000)
I0504 13:08:52.474046 31824 net.cpp:139] Memory required for data: 864980000
I0504 13:08:52.474050 31824 layer_factory.hpp:77] Creating layer accuracy
I0504 13:08:52.474063 31824 net.cpp:86] Creating Layer accuracy
I0504 13:08:52.474067 31824 net.cpp:408] accuracy <- ip3_ip3_0_split_0
I0504 13:08:52.474082 31824 net.cpp:408] accuracy <- label_cifar_1_split_0
I0504 13:08:52.474089 31824 net.cpp:382] accuracy -> accuracy
…
