…
I0504 00:07:58.536579  4722 net.cpp:296] The NetState phase (0) differed from the phase (1) specified by a rule in layer cifar
I0504 00:07:58.536597  4722 net.cpp:296] The NetState phase (0) differed from the phase (1) specified by a rule in layer accuracy
I0504 00:07:58.536691  4722 net.cpp:53] Initializing net from parameters: 
name: "CIFAR"
state {
  phase: TRAIN
  level: 0
  stage: ""
}
layer {
  name: "cifar"
  type: "Data"
  top: "data"
  top: "label"
  include {
    phase: TRAIN
  }
  transform_param {
    mean_file: "examples/cifar10/mean.binaryproto"
  }
  data_param {
    source: "examples/cifar10/cifar10_train_lmdb"
    batch_size: 111
    backend: LMDB
  }
}
layer {
  name: "conv0"
  type: "Convolution"
  bottom: "data"
  top: "conv0"
  param {
    lr_mult: 1
  }
  param {
    lr_mult: 2
  }
  convolution_param {
    num_output: 24
    pad: 2
    kernel_size: 3
    stride: 1
    weight_filler {
      type: "gaussian"
      std: 0.01
    }
    bias_filler {
      type: "constant"
    }
  }
}
layer {
  name: "Sigmoid0"
  type: "Sigmoid"
  bottom: "conv0"
  top: "Sigmoid0"
}
layer {
  name: "pool0"
  type: "Pooling"
  bottom: "Sigmoid0"
  top: "pool0"
  pooling_param {
    pool: AVE
    kernel_size: 3
    stride: 2
  }
}
layer {
  name: "ip1"
  type: "InnerProduct"
  bottom: "pool0"
  top: "ip1"
  param {
    lr_mult: 1
  }
  param {
    lr_mult: 2
  }
  inner_product_param {
    num_output: 180
    weight_filler {
      type: "gaussian"
      std: 0.01
    }
    bias_filler {
      type: "constant"
    }
  }
}
layer {
  name: "relu1"
  type: "ReLU"
  bottom: "ip1"
  top: "ip1"
}
layer {
  name: "ip2"
  type: "InnerProduct"
  bottom: "ip1"
  top: "ip2"
  param {
    lr_mult: 1
  }
  param {
    lr_mult: 2
  }
  inner_product_param {
    num_output: 60
    weight_filler {
      type: "gaussian"
      std: 0.01
    }
    bias_filler {
      type: "constant"
    }
  }
}
layer {
  name: "relu2"
  type: "ReLU"
  bottom: "ip2"
  top: "ip2"
}
layer {
  name: "ip3"
  type: "InnerProduct"
  bottom: "ip2"
  top: "ip3"
  param {
    lr_mult: 1
  }
  param {
    lr_mult: 2
  }
  inner_product_param {
    num_output: 10
    weight_filler {
      type: "gaussian"
      std: 0.01
    }
    bias_filler {
      type: "constant"
    }
  }
}
layer {
  name: "loss"
  type: "SoftmaxWithLoss"
  bottom: "ip3"
  bottom: "label"
  top: "loss"
}
I0504 00:07:58.536767  4722 layer_factory.hpp:77] Creating layer cifar
I0504 00:07:58.536875  4722 db_lmdb.cpp:35] Opened lmdb examples/cifar10/cifar10_train_lmdb
I0504 00:07:58.536905  4722 net.cpp:86] Creating Layer cifar
I0504 00:07:58.536916  4722 net.cpp:382] cifar -> data
I0504 00:07:58.536941  4722 net.cpp:382] cifar -> label
I0504 00:07:58.536954  4722 data_transformer.cpp:25] Loading mean file from: examples/cifar10/mean.binaryproto
I0504 00:07:58.539075  4722 data_layer.cpp:45] output data size: 111,3,32,32
I0504 00:07:58.547161  4722 net.cpp:124] Setting up cifar
I0504 00:07:58.547181  4722 net.cpp:131] Top shape: 111 3 32 32 (340992)
I0504 00:07:58.547188  4722 net.cpp:131] Top shape: 111 (111)
I0504 00:07:58.547191  4722 net.cpp:139] Memory required for data: 1364412
I0504 00:07:58.547199  4722 layer_factory.hpp:77] Creating layer conv0
I0504 00:07:58.547224  4722 net.cpp:86] Creating Layer conv0
I0504 00:07:58.547230  4722 net.cpp:408] conv0 <- data
I0504 00:07:58.547243  4722 net.cpp:382] conv0 -> conv0
I0504 00:07:58.839548  4722 net.cpp:124] Setting up conv0
I0504 00:07:58.839602  4722 net.cpp:131] Top shape: 111 24 34 34 (3079584)
I0504 00:07:58.839608  4722 net.cpp:139] Memory required for data: 13682748
I0504 00:07:58.839627  4722 layer_factory.hpp:77] Creating layer Sigmoid0
I0504 00:07:58.839639  4722 net.cpp:86] Creating Layer Sigmoid0
I0504 00:07:58.839644  4722 net.cpp:408] Sigmoid0 <- conv0
I0504 00:07:58.839650  4722 net.cpp:382] Sigmoid0 -> Sigmoid0
I0504 00:07:58.839870  4722 net.cpp:124] Setting up Sigmoid0
I0504 00:07:58.839882  4722 net.cpp:131] Top shape: 111 24 34 34 (3079584)
I0504 00:07:58.839886  4722 net.cpp:139] Memory required for data: 26001084
I0504 00:07:58.839890  4722 layer_factory.hpp:77] Creating layer pool0
I0504 00:07:58.839897  4722 net.cpp:86] Creating Layer pool0
I0504 00:07:58.839901  4722 net.cpp:408] pool0 <- Sigmoid0
I0504 00:07:58.839907  4722 net.cpp:382] pool0 -> pool0
I0504 00:07:58.840776  4722 net.cpp:124] Setting up pool0
I0504 00:07:58.840792  4722 net.cpp:131] Top shape: 111 24 17 17 (769896)
I0504 00:07:58.840796  4722 net.cpp:139] Memory required for data: 29080668
I0504 00:07:58.840801  4722 layer_factory.hpp:77] Creating layer ip1
I0504 00:07:58.840821  4722 net.cpp:86] Creating Layer ip1
I0504 00:07:58.840826  4722 net.cpp:408] ip1 <- pool0
I0504 00:07:58.840832  4722 net.cpp:382] ip1 -> ip1
I0504 00:07:58.880008  4722 net.cpp:124] Setting up ip1
I0504 00:07:58.880022  4722 net.cpp:131] Top shape: 111 180 (19980)
I0504 00:07:58.880025  4722 net.cpp:139] Memory required for data: 29160588
I0504 00:07:58.880034  4722 layer_factory.hpp:77] Creating layer relu1
I0504 00:07:58.880041  4722 net.cpp:86] Creating Layer relu1
I0504 00:07:58.880044  4722 net.cpp:408] relu1 <- ip1
I0504 00:07:58.880049  4722 net.cpp:369] relu1 -> ip1 (in-place)
I0504 00:07:58.880211  4722 net.cpp:124] Setting up relu1
I0504 00:07:58.880220  4722 net.cpp:131] Top shape: 111 180 (19980)
I0504 00:07:58.880223  4722 net.cpp:139] Memory required for data: 29240508
I0504 00:07:58.880228  4722 layer_factory.hpp:77] Creating layer ip2
I0504 00:07:58.880234  4722 net.cpp:86] Creating Layer ip2
I0504 00:07:58.880236  4722 net.cpp:408] ip2 <- ip1
I0504 00:07:58.880242  4722 net.cpp:382] ip2 -> ip2
I0504 00:07:58.881495  4722 net.cpp:124] Setting up ip2
I0504 00:07:58.881508  4722 net.cpp:131] Top shape: 111 60 (6660)
I0504 00:07:58.881511  4722 net.cpp:139] Memory required for data: 29267148
I0504 00:07:58.881520  4722 layer_factory.hpp:77] Creating layer relu2
I0504 00:07:58.881526  4722 net.cpp:86] Creating Layer relu2
I0504 00:07:58.881530  4722 net.cpp:408] relu2 <- ip2
I0504 00:07:58.881534  4722 net.cpp:369] relu2 -> ip2 (in-place)
I0504 00:07:58.881703  4722 net.cpp:124] Setting up relu2
I0504 00:07:58.881711  4722 net.cpp:131] Top shape: 111 60 (6660)
I0504 00:07:58.881716  4722 net.cpp:139] Memory required for data: 29293788
I0504 00:07:58.881718  4722 layer_factory.hpp:77] Creating layer ip3
I0504 00:07:58.881726  4722 net.cpp:86] Creating Layer ip3
I0504 00:07:58.881729  4722 net.cpp:408] ip3 <- ip2
I0504 00:07:58.881734  4722 net.cpp:382] ip3 -> ip3
I0504 00:07:58.881851  4722 net.cpp:124] Setting up ip3
I0504 00:07:58.881860  4722 net.cpp:131] Top shape: 111 10 (1110)
I0504 00:07:58.881862  4722 net.cpp:139] Memory required for data: 29298228
I0504 00:07:58.881868  4722 layer_factory.hpp:77] Creating layer loss
I0504 00:07:58.881878  4722 net.cpp:86] Creating Layer loss
I0504 00:07:58.881881  4722 net.cpp:408] loss <- ip3
I0504 00:07:58.881886  4722 net.cpp:408] loss <- label
I0504 00:07:58.881891  4722 net.cpp:382] loss -> loss
I0504 00:07:58.881904  4722 layer_factory.hpp:77] Creating layer loss
…
I0504 00:07:58.882529  4722 solver.cpp:173] Creating test net (#0) specified by net file: ECE595/cifar/train_test/var_everything_tiny/cifar_train_test_10.prototxt
I0504 00:07:58.882556  4722 net.cpp:296] The NetState phase (1) differed from the phase (0) specified by a rule in layer cifar
I0504 00:07:58.882648  4722 net.cpp:53] Initializing net from parameters: 
name: "CIFAR"
state {
  phase: TEST
}
layer {
  name: "cifar"
  type: "Data"
  top: "data"
  top: "label"
  include {
    phase: TEST
  }
  transform_param {
    mean_file: "examples/cifar10/mean.binaryproto"
  }
  data_param {
    source: "examples/cifar10/cifar10_test_lmdb"
    batch_size: 1000
    backend: LMDB
  }
}
layer {
  name: "conv0"
  type: "Convolution"
  bottom: "data"
  top: "conv0"
  param {
    lr_mult: 1
  }
  param {
    lr_mult: 2
  }
  convolution_param {
    num_output: 24
    pad: 2
    kernel_size: 3
    stride: 1
    weight_filler {
      type: "gaussian"
      std: 0.01
    }
    bias_filler {
      type: "constant"
    }
  }
}
layer {
  name: "Sigmoid0"
  type: "Sigmoid"
  bottom: "conv0"
  top: "Sigmoid0"
}
layer {
  name: "pool0"
  type: "Pooling"
  bottom: "Sigmoid0"
  top: "pool0"
  pooling_param {
    pool: AVE
    kernel_size: 3
    stride: 2
  }
}
layer {
  name: "ip1"
  type: "InnerProduct"
  bottom: "pool0"
  top: "ip1"
  param {
    lr_mult: 1
  }
  param {
    lr_mult: 2
  }
  inner_product_param {
    num_output: 180
    weight_filler {
      type: "gaussian"
      std: 0.01
    }
    bias_filler {
      type: "constant"
    }
  }
}
layer {
  name: "relu1"
  type: "ReLU"
  bottom: "ip1"
  top: "ip1"
}
layer {
  name: "ip2"
  type: "InnerProduct"
  bottom: "ip1"
  top: "ip2"
  param {
    lr_mult: 1
  }
  param {
    lr_mult: 2
  }
  inner_product_param {
    num_output: 60
    weight_filler {
      type: "gaussian"
      std: 0.01
    }
    bias_filler {
      type: "constant"
    }
  }
}
layer {
  name: "relu2"
  type: "ReLU"
  bottom: "ip2"
  top: "ip2"
}
layer {
  name: "ip3"
  type: "InnerProduct"
  bottom: "ip2"
  top: "ip3"
  param {
    lr_mult: 1
  }
  param {
    lr_mult: 2
  }
  inner_product_param {
    num_output: 10
    weight_filler {
      type: "gaussian"
      std: 0.01
    }
    bias_filler {
      type: "constant"
    }
  }
}
layer {
  name: "accuracy"
  type: "Accuracy"
  bottom: "ip3"
  bottom: "label"
  top: "accuracy"
  include {
    phase: TEST
  }
}
layer {
  name: "loss"
  type: "SoftmaxWithLoss"
  bottom: "ip3"
  bottom: "label"
  top: "loss"
}
I0504 00:07:58.882719  4722 layer_factory.hpp:77] Creating layer cifar
I0504 00:07:58.882764  4722 db_lmdb.cpp:35] Opened lmdb examples/cifar10/cifar10_test_lmdb
I0504 00:07:58.882776  4722 net.cpp:86] Creating Layer cifar
I0504 00:07:58.882782  4722 net.cpp:382] cifar -> data
I0504 00:07:58.882791  4722 net.cpp:382] cifar -> label
I0504 00:07:58.882797  4722 data_transformer.cpp:25] Loading mean file from: examples/cifar10/mean.binaryproto
I0504 00:07:58.882956  4722 data_layer.cpp:45] output data size: 1000,3,32,32
I0504 00:07:58.905593  4722 net.cpp:124] Setting up cifar
I0504 00:07:58.905622  4722 net.cpp:131] Top shape: 1000 3 32 32 (3072000)
I0504 00:07:58.905627  4722 net.cpp:131] Top shape: 1000 (1000)
I0504 00:07:58.905629  4722 net.cpp:139] Memory required for data: 12292000
I0504 00:07:58.905635  4722 layer_factory.hpp:77] Creating layer label_cifar_1_split
I0504 00:07:58.905668  4722 net.cpp:86] Creating Layer label_cifar_1_split
I0504 00:07:58.905671  4722 net.cpp:408] label_cifar_1_split <- label
I0504 00:07:58.905678  4722 net.cpp:382] label_cifar_1_split -> label_cifar_1_split_0
I0504 00:07:58.905689  4722 net.cpp:382] label_cifar_1_split -> label_cifar_1_split_1
I0504 00:07:58.905761  4722 net.cpp:124] Setting up label_cifar_1_split
I0504 00:07:58.905771  4722 net.cpp:131] Top shape: 1000 (1000)
I0504 00:07:58.905774  4722 net.cpp:131] Top shape: 1000 (1000)
I0504 00:07:58.905777  4722 net.cpp:139] Memory required for data: 12300000
I0504 00:07:58.905781  4722 layer_factory.hpp:77] Creating layer conv0
I0504 00:07:58.905799  4722 net.cpp:86] Creating Layer conv0
I0504 00:07:58.905802  4722 net.cpp:408] conv0 <- data
I0504 00:07:58.905807  4722 net.cpp:382] conv0 -> conv0
I0504 00:07:58.907469  4722 net.cpp:124] Setting up conv0
I0504 00:07:58.907482  4722 net.cpp:131] Top shape: 1000 24 34 34 (27744000)
I0504 00:07:58.907485  4722 net.cpp:139] Memory required for data: 123276000
I0504 00:07:58.907495  4722 layer_factory.hpp:77] Creating layer Sigmoid0
I0504 00:07:58.907502  4722 net.cpp:86] Creating Layer Sigmoid0
I0504 00:07:58.907505  4722 net.cpp:408] Sigmoid0 <- conv0
I0504 00:07:58.907511  4722 net.cpp:382] Sigmoid0 -> Sigmoid0
I0504 00:07:58.909327  4722 net.cpp:124] Setting up Sigmoid0
I0504 00:07:58.909339  4722 net.cpp:131] Top shape: 1000 24 34 34 (27744000)
I0504 00:07:58.909348  4722 net.cpp:139] Memory required for data: 234252000
I0504 00:07:58.909353  4722 layer_factory.hpp:77] Creating layer pool0
I0504 00:07:58.909361  4722 net.cpp:86] Creating Layer pool0
I0504 00:07:58.909365  4722 net.cpp:408] pool0 <- Sigmoid0
I0504 00:07:58.909370  4722 net.cpp:382] pool0 -> pool0
I0504 00:07:58.909554  4722 net.cpp:124] Setting up pool0
I0504 00:07:58.909564  4722 net.cpp:131] Top shape: 1000 24 17 17 (6936000)
I0504 00:07:58.909567  4722 net.cpp:139] Memory required for data: 261996000
I0504 00:07:58.909571  4722 layer_factory.hpp:77] Creating layer ip1
I0504 00:07:58.909577  4722 net.cpp:86] Creating Layer ip1
I0504 00:07:58.909581  4722 net.cpp:408] ip1 <- pool0
I0504 00:07:58.909587  4722 net.cpp:382] ip1 -> ip1
I0504 00:07:58.943117  4722 net.cpp:124] Setting up ip1
I0504 00:07:58.943153  4722 net.cpp:131] Top shape: 1000 180 (180000)
I0504 00:07:58.943157  4722 net.cpp:139] Memory required for data: 262716000
I0504 00:07:58.943168  4722 layer_factory.hpp:77] Creating layer relu1
I0504 00:07:58.943176  4722 net.cpp:86] Creating Layer relu1
I0504 00:07:58.943181  4722 net.cpp:408] relu1 <- ip1
I0504 00:07:58.943184  4722 net.cpp:369] relu1 -> ip1 (in-place)
I0504 00:07:58.943408  4722 net.cpp:124] Setting up relu1
I0504 00:07:58.943416  4722 net.cpp:131] Top shape: 1000 180 (180000)
I0504 00:07:58.943419  4722 net.cpp:139] Memory required for data: 263436000
I0504 00:07:58.943423  4722 layer_factory.hpp:77] Creating layer ip2
I0504 00:07:58.943430  4722 net.cpp:86] Creating Layer ip2
I0504 00:07:58.943434  4722 net.cpp:408] ip2 <- ip1
I0504 00:07:58.943439  4722 net.cpp:382] ip2 -> ip2
I0504 00:07:58.943848  4722 net.cpp:124] Setting up ip2
I0504 00:07:58.943856  4722 net.cpp:131] Top shape: 1000 60 (60000)
I0504 00:07:58.943858  4722 net.cpp:139] Memory required for data: 263676000
I0504 00:07:58.943866  4722 layer_factory.hpp:77] Creating layer relu2
I0504 00:07:58.943872  4722 net.cpp:86] Creating Layer relu2
I0504 00:07:58.943876  4722 net.cpp:408] relu2 <- ip2
I0504 00:07:58.943879  4722 net.cpp:369] relu2 -> ip2 (in-place)
I0504 00:07:58.944056  4722 net.cpp:124] Setting up relu2
I0504 00:07:58.944063  4722 net.cpp:131] Top shape: 1000 60 (60000)
I0504 00:07:58.944067  4722 net.cpp:139] Memory required for data: 263916000
I0504 00:07:58.944069  4722 layer_factory.hpp:77] Creating layer ip3
I0504 00:07:58.944077  4722 net.cpp:86] Creating Layer ip3
I0504 00:07:58.944080  4722 net.cpp:408] ip3 <- ip2
I0504 00:07:58.944084  4722 net.cpp:382] ip3 -> ip3
I0504 00:07:58.944226  4722 net.cpp:124] Setting up ip3
I0504 00:07:58.944233  4722 net.cpp:131] Top shape: 1000 10 (10000)
I0504 00:07:58.944250  4722 net.cpp:139] Memory required for data: 263956000
I0504 00:07:58.944257  4722 layer_factory.hpp:77] Creating layer ip3_ip3_0_split
I0504 00:07:58.944262  4722 net.cpp:86] Creating Layer ip3_ip3_0_split
I0504 00:07:58.944264  4722 net.cpp:408] ip3_ip3_0_split <- ip3
I0504 00:07:58.944270  4722 net.cpp:382] ip3_ip3_0_split -> ip3_ip3_0_split_0
I0504 00:07:58.944275  4722 net.cpp:382] ip3_ip3_0_split -> ip3_ip3_0_split_1
I0504 00:07:58.944310  4722 net.cpp:124] Setting up ip3_ip3_0_split
I0504 00:07:58.944320  4722 net.cpp:131] Top shape: 1000 10 (10000)
I0504 00:07:58.944324  4722 net.cpp:131] Top shape: 1000 10 (10000)
I0504 00:07:58.944327  4722 net.cpp:139] Memory required for data: 264036000
I0504 00:07:58.944330  4722 layer_factory.hpp:77] Creating layer accuracy
I0504 00:07:58.944336  4722 net.cpp:86] Creating Layer accuracy
I0504 00:07:58.944339  4722 net.cpp:408] accuracy <- ip3_ip3_0_split_0
I0504 00:07:58.944344  4722 net.cpp:408] accuracy <- label_cifar_1_split_0
I0504 00:07:58.944349  4722 net.cpp:382] accuracy -> accuracy
…
