…
I0504 13:22:32.958024 32695 net.cpp:296] The NetState phase (0) differed from the phase (1) specified by a rule in layer cifar
I0504 13:22:32.958041 32695 net.cpp:296] The NetState phase (0) differed from the phase (1) specified by a rule in layer accuracy
I0504 13:22:32.958137 32695 net.cpp:53] Initializing net from parameters: 
name: "CIFAR"
state {
  phase: TRAIN
  level: 0
  stage: ""
}
layer {
  name: "cifar"
  type: "Data"
  top: "data"
  top: "label"
  include {
    phase: TRAIN
  }
  transform_param {
    mean_file: "examples/cifar10/mean.binaryproto"
  }
  data_param {
    source: "examples/cifar10/cifar10_train_lmdb"
    batch_size: 111
    backend: LMDB
  }
}
layer {
  name: "conv0"
  type: "Convolution"
  bottom: "data"
  top: "conv0"
  param {
    lr_mult: 1
  }
  param {
    lr_mult: 2
  }
  convolution_param {
    num_output: 24
    pad: 2
    kernel_size: 5
    stride: 1
    weight_filler {
      type: "gaussian"
      std: 0.01
    }
    bias_filler {
      type: "constant"
    }
  }
}
layer {
  name: "Sigmoid0"
  type: "Sigmoid"
  bottom: "conv0"
  top: "Sigmoid0"
}
layer {
  name: "pool0"
  type: "Pooling"
  bottom: "Sigmoid0"
  top: "pool0"
  pooling_param {
    pool: AVE
    kernel_size: 3
    stride: 2
  }
}
layer {
  name: "conv1"
  type: "Convolution"
  bottom: "pool0"
  top: "conv1"
  param {
    lr_mult: 1
  }
  param {
    lr_mult: 2
  }
  convolution_param {
    num_output: 216
    pad: 2
    kernel_size: 3
    stride: 1
    weight_filler {
      type: "gaussian"
      std: 0.01
    }
    bias_filler {
      type: "constant"
    }
  }
}
layer {
  name: "Sigmoid1"
  type: "Sigmoid"
  bottom: "conv1"
  top: "Sigmoid1"
}
layer {
  name: "pool1"
  type: "Pooling"
  bottom: "Sigmoid1"
  top: "pool1"
  pooling_param {
    pool: AVE
    kernel_size: 3
    stride: 2
  }
}
layer {
  name: "ip1"
  type: "InnerProduct"
  bottom: "pool1"
  top: "ip1"
  param {
    lr_mult: 1
  }
  param {
    lr_mult: 2
  }
  inner_product_param {
    num_output: 60
    weight_filler {
      type: "gaussian"
      std: 0.01
    }
    bias_filler {
      type: "constant"
    }
  }
}
layer {
  name: "relu1"
  type: "ReLU"
  bottom: "ip1"
  top: "ip1"
}
layer {
  name: "ip2"
  type: "InnerProduct"
  bottom: "ip1"
  top: "ip2"
  param {
    lr_mult: 1
  }
  param {
    lr_mult: 2
  }
  inner_product_param {
    num_output: 60
    weight_filler {
      type: "gaussian"
      std: 0.01
    }
    bias_filler {
      type: "constant"
    }
  }
}
layer {
  name: "relu2"
  type: "ReLU"
  bottom: "ip2"
  top: "ip2"
}
layer {
  name: "ip3"
  type: "InnerProduct"
  bottom: "ip2"
  top: "ip3"
  param {
    lr_mult: 1
  }
  param {
    lr_mult: 2
  }
  inner_product_param {
    num_output: 10
    weight_filler {
      type: "gaussian"
      std: 0.01
    }
    bias_filler {
      type: "constant"
    }
  }
}
layer {
  name: "loss"
  type: "SoftmaxWithLoss"
  bottom: "ip3"
  bottom: "label"
  top: "loss"
}
I0504 13:22:32.958205 32695 layer_factory.hpp:77] Creating layer cifar
I0504 13:22:32.958295 32695 db_lmdb.cpp:35] Opened lmdb examples/cifar10/cifar10_train_lmdb
I0504 13:22:32.958319 32695 net.cpp:86] Creating Layer cifar
I0504 13:22:32.958326 32695 net.cpp:382] cifar -> data
I0504 13:22:32.958348 32695 net.cpp:382] cifar -> label
I0504 13:22:32.958359 32695 data_transformer.cpp:25] Loading mean file from: examples/cifar10/mean.binaryproto
I0504 13:22:32.960351 32695 data_layer.cpp:45] output data size: 111,3,32,32
I0504 13:22:32.970015 32695 net.cpp:124] Setting up cifar
I0504 13:22:32.970046 32695 net.cpp:131] Top shape: 111 3 32 32 (340992)
I0504 13:22:32.970059 32695 net.cpp:131] Top shape: 111 (111)
I0504 13:22:32.970067 32695 net.cpp:139] Memory required for data: 1364412
I0504 13:22:32.970079 32695 layer_factory.hpp:77] Creating layer conv0
I0504 13:22:32.970108 32695 net.cpp:86] Creating Layer conv0
I0504 13:22:32.970120 32695 net.cpp:408] conv0 <- data
I0504 13:22:32.970144 32695 net.cpp:382] conv0 -> conv0
I0504 13:22:33.288823 32695 net.cpp:124] Setting up conv0
I0504 13:22:33.288856 32695 net.cpp:131] Top shape: 111 24 32 32 (2727936)
I0504 13:22:33.288861 32695 net.cpp:139] Memory required for data: 12276156
I0504 13:22:33.288882 32695 layer_factory.hpp:77] Creating layer Sigmoid0
I0504 13:22:33.288895 32695 net.cpp:86] Creating Layer Sigmoid0
I0504 13:22:33.288900 32695 net.cpp:408] Sigmoid0 <- conv0
I0504 13:22:33.288908 32695 net.cpp:382] Sigmoid0 -> Sigmoid0
I0504 13:22:33.289126 32695 net.cpp:124] Setting up Sigmoid0
I0504 13:22:33.289139 32695 net.cpp:131] Top shape: 111 24 32 32 (2727936)
I0504 13:22:33.289142 32695 net.cpp:139] Memory required for data: 23187900
I0504 13:22:33.289146 32695 layer_factory.hpp:77] Creating layer pool0
I0504 13:22:33.289155 32695 net.cpp:86] Creating Layer pool0
I0504 13:22:33.289160 32695 net.cpp:408] pool0 <- Sigmoid0
I0504 13:22:33.289165 32695 net.cpp:382] pool0 -> pool0
I0504 13:22:33.290051 32695 net.cpp:124] Setting up pool0
I0504 13:22:33.290068 32695 net.cpp:131] Top shape: 111 24 16 16 (681984)
I0504 13:22:33.290072 32695 net.cpp:139] Memory required for data: 25915836
I0504 13:22:33.290077 32695 layer_factory.hpp:77] Creating layer conv1
I0504 13:22:33.290091 32695 net.cpp:86] Creating Layer conv1
I0504 13:22:33.290096 32695 net.cpp:408] conv1 <- pool0
I0504 13:22:33.290103 32695 net.cpp:382] conv1 -> conv1
I0504 13:22:33.294754 32695 net.cpp:124] Setting up conv1
I0504 13:22:33.294771 32695 net.cpp:131] Top shape: 111 216 18 18 (7768224)
I0504 13:22:33.294776 32695 net.cpp:139] Memory required for data: 56988732
I0504 13:22:33.294787 32695 layer_factory.hpp:77] Creating layer Sigmoid1
I0504 13:22:33.294795 32695 net.cpp:86] Creating Layer Sigmoid1
I0504 13:22:33.294800 32695 net.cpp:408] Sigmoid1 <- conv1
I0504 13:22:33.294806 32695 net.cpp:382] Sigmoid1 -> Sigmoid1
I0504 13:22:33.295018 32695 net.cpp:124] Setting up Sigmoid1
I0504 13:22:33.295030 32695 net.cpp:131] Top shape: 111 216 18 18 (7768224)
I0504 13:22:33.295034 32695 net.cpp:139] Memory required for data: 88061628
I0504 13:22:33.295038 32695 layer_factory.hpp:77] Creating layer pool1
I0504 13:22:33.295045 32695 net.cpp:86] Creating Layer pool1
I0504 13:22:33.295049 32695 net.cpp:408] pool1 <- Sigmoid1
I0504 13:22:33.295054 32695 net.cpp:382] pool1 -> pool1
I0504 13:22:33.295258 32695 net.cpp:124] Setting up pool1
I0504 13:22:33.295270 32695 net.cpp:131] Top shape: 111 216 9 9 (1942056)
I0504 13:22:33.295275 32695 net.cpp:139] Memory required for data: 95829852
I0504 13:22:33.295279 32695 layer_factory.hpp:77] Creating layer ip1
I0504 13:22:33.295289 32695 net.cpp:86] Creating Layer ip1
I0504 13:22:33.295291 32695 net.cpp:408] ip1 <- pool1
I0504 13:22:33.295297 32695 net.cpp:382] ip1 -> ip1
I0504 13:22:33.331399 32695 net.cpp:124] Setting up ip1
I0504 13:22:33.331414 32695 net.cpp:131] Top shape: 111 60 (6660)
I0504 13:22:33.331419 32695 net.cpp:139] Memory required for data: 95856492
I0504 13:22:33.331429 32695 layer_factory.hpp:77] Creating layer relu1
I0504 13:22:33.331437 32695 net.cpp:86] Creating Layer relu1
I0504 13:22:33.331441 32695 net.cpp:408] relu1 <- ip1
I0504 13:22:33.331447 32695 net.cpp:369] relu1 -> ip1 (in-place)
I0504 13:22:33.331660 32695 net.cpp:124] Setting up relu1
I0504 13:22:33.331671 32695 net.cpp:131] Top shape: 111 60 (6660)
I0504 13:22:33.331676 32695 net.cpp:139] Memory required for data: 95883132
I0504 13:22:33.331679 32695 layer_factory.hpp:77] Creating layer ip2
I0504 13:22:33.331687 32695 net.cpp:86] Creating Layer ip2
I0504 13:22:33.331691 32695 net.cpp:408] ip2 <- ip1
I0504 13:22:33.331717 32695 net.cpp:382] ip2 -> ip2
I0504 13:22:33.331969 32695 net.cpp:124] Setting up ip2
I0504 13:22:33.331979 32695 net.cpp:131] Top shape: 111 60 (6660)
I0504 13:22:33.331982 32695 net.cpp:139] Memory required for data: 95909772
I0504 13:22:33.331990 32695 layer_factory.hpp:77] Creating layer relu2
I0504 13:22:33.331995 32695 net.cpp:86] Creating Layer relu2
I0504 13:22:33.332000 32695 net.cpp:408] relu2 <- ip2
I0504 13:22:33.332005 32695 net.cpp:369] relu2 -> ip2 (in-place)
I0504 13:22:33.332890 32695 net.cpp:124] Setting up relu2
I0504 13:22:33.332904 32695 net.cpp:131] Top shape: 111 60 (6660)
I0504 13:22:33.332909 32695 net.cpp:139] Memory required for data: 95936412
I0504 13:22:33.332913 32695 layer_factory.hpp:77] Creating layer ip3
I0504 13:22:33.332921 32695 net.cpp:86] Creating Layer ip3
I0504 13:22:33.332926 32695 net.cpp:408] ip3 <- ip2
I0504 13:22:33.332933 32695 net.cpp:382] ip3 -> ip3
I0504 13:22:33.333086 32695 net.cpp:124] Setting up ip3
I0504 13:22:33.333096 32695 net.cpp:131] Top shape: 111 10 (1110)
I0504 13:22:33.333099 32695 net.cpp:139] Memory required for data: 95940852
I0504 13:22:33.333109 32695 layer_factory.hpp:77] Creating layer loss
I0504 13:22:33.333117 32695 net.cpp:86] Creating Layer loss
I0504 13:22:33.333122 32695 net.cpp:408] loss <- ip3
I0504 13:22:33.333125 32695 net.cpp:408] loss <- label
I0504 13:22:33.333132 32695 net.cpp:382] loss -> loss
I0504 13:22:33.333148 32695 layer_factory.hpp:77] Creating layer loss
…
I0504 13:22:33.333951 32695 solver.cpp:173] Creating test net (#0) specified by net file: ECE595/cifar/train_test/var_everything_tiny/cifar_train_test_163.prototxt
I0504 13:22:33.333986 32695 net.cpp:296] The NetState phase (1) differed from the phase (0) specified by a rule in layer cifar
I0504 13:22:33.334110 32695 net.cpp:53] Initializing net from parameters: 
name: "CIFAR"
state {
  phase: TEST
}
layer {
  name: "cifar"
  type: "Data"
  top: "data"
  top: "label"
  include {
    phase: TEST
  }
  transform_param {
    mean_file: "examples/cifar10/mean.binaryproto"
  }
  data_param {
    source: "examples/cifar10/cifar10_test_lmdb"
    batch_size: 1000
    backend: LMDB
  }
}
layer {
  name: "conv0"
  type: "Convolution"
  bottom: "data"
  top: "conv0"
  param {
    lr_mult: 1
  }
  param {
    lr_mult: 2
  }
  convolution_param {
    num_output: 24
    pad: 2
    kernel_size: 5
    stride: 1
    weight_filler {
      type: "gaussian"
      std: 0.01
    }
    bias_filler {
      type: "constant"
    }
  }
}
layer {
  name: "Sigmoid0"
  type: "Sigmoid"
  bottom: "conv0"
  top: "Sigmoid0"
}
layer {
  name: "pool0"
  type: "Pooling"
  bottom: "Sigmoid0"
  top: "pool0"
  pooling_param {
    pool: AVE
    kernel_size: 3
    stride: 2
  }
}
layer {
  name: "conv1"
  type: "Convolution"
  bottom: "pool0"
  top: "conv1"
  param {
    lr_mult: 1
  }
  param {
    lr_mult: 2
  }
  convolution_param {
    num_output: 216
    pad: 2
    kernel_size: 3
    stride: 1
    weight_filler {
      type: "gaussian"
      std: 0.01
    }
    bias_filler {
      type: "constant"
    }
  }
}
layer {
  name: "Sigmoid1"
  type: "Sigmoid"
  bottom: "conv1"
  top: "Sigmoid1"
}
layer {
  name: "pool1"
  type: "Pooling"
  bottom: "Sigmoid1"
  top: "pool1"
  pooling_param {
    pool: AVE
    kernel_size: 3
    stride: 2
  }
}
layer {
  name: "ip1"
  type: "InnerProduct"
  bottom: "pool1"
  top: "ip1"
  param {
    lr_mult: 1
  }
  param {
    lr_mult: 2
  }
  inner_product_param {
    num_output: 60
    weight_filler {
      type: "gaussian"
      std: 0.01
    }
    bias_filler {
      type: "constant"
    }
  }
}
layer {
  name: "relu1"
  type: "ReLU"
  bottom: "ip1"
  top: "ip1"
}
layer {
  name: "ip2"
  type: "InnerProduct"
  bottom: "ip1"
  top: "ip2"
  param {
    lr_mult: 1
  }
  param {
    lr_mult: 2
  }
  inner_product_param {
    num_output: 60
    weight_filler {
      type: "gaussian"
      std: 0.01
    }
    bias_filler {
      type: "constant"
    }
  }
}
layer {
  name: "relu2"
  type: "ReLU"
  bottom: "ip2"
  top: "ip2"
}
layer {
  name: "ip3"
  type: "InnerProduct"
  bottom: "ip2"
  top: "ip3"
  param {
    lr_mult: 1
  }
  param {
    lr_mult: 2
  }
  inner_product_param {
    num_output: 10
    weight_filler {
      type: "gaussian"
      std: 0.01
    }
    bias_filler {
      type: "constant"
    }
  }
}
layer {
  name: "accuracy"
  type: "Accuracy"
  bottom: "ip3"
  bottom: "label"
  top: "accuracy"
  include {
    phase: TEST
  }
}
layer {
  name: "loss"
  type: "SoftmaxWithLoss"
  bottom: "ip3"
  bottom: "label"
  top: "loss"
}
I0504 13:22:33.334216 32695 layer_factory.hpp:77] Creating layer cifar
I0504 13:22:33.334272 32695 db_lmdb.cpp:35] Opened lmdb examples/cifar10/cifar10_test_lmdb
I0504 13:22:33.334287 32695 net.cpp:86] Creating Layer cifar
I0504 13:22:33.334295 32695 net.cpp:382] cifar -> data
I0504 13:22:33.334303 32695 net.cpp:382] cifar -> label
I0504 13:22:33.334311 32695 data_transformer.cpp:25] Loading mean file from: examples/cifar10/mean.binaryproto
I0504 13:22:33.334497 32695 data_layer.cpp:45] output data size: 1000,3,32,32
I0504 13:22:33.360352 32695 net.cpp:124] Setting up cifar
I0504 13:22:33.360380 32695 net.cpp:131] Top shape: 1000 3 32 32 (3072000)
I0504 13:22:33.360388 32695 net.cpp:131] Top shape: 1000 (1000)
I0504 13:22:33.360391 32695 net.cpp:139] Memory required for data: 12292000
I0504 13:22:33.360397 32695 layer_factory.hpp:77] Creating layer label_cifar_1_split
I0504 13:22:33.360411 32695 net.cpp:86] Creating Layer label_cifar_1_split
I0504 13:22:33.360415 32695 net.cpp:408] label_cifar_1_split <- label
I0504 13:22:33.360422 32695 net.cpp:382] label_cifar_1_split -> label_cifar_1_split_0
I0504 13:22:33.360435 32695 net.cpp:382] label_cifar_1_split -> label_cifar_1_split_1
I0504 13:22:33.360548 32695 net.cpp:124] Setting up label_cifar_1_split
I0504 13:22:33.360558 32695 net.cpp:131] Top shape: 1000 (1000)
I0504 13:22:33.360563 32695 net.cpp:131] Top shape: 1000 (1000)
I0504 13:22:33.360565 32695 net.cpp:139] Memory required for data: 12300000
I0504 13:22:33.360569 32695 layer_factory.hpp:77] Creating layer conv0
I0504 13:22:33.360586 32695 net.cpp:86] Creating Layer conv0
I0504 13:22:33.360590 32695 net.cpp:408] conv0 <- data
I0504 13:22:33.360597 32695 net.cpp:382] conv0 -> conv0
I0504 13:22:33.363462 32695 net.cpp:124] Setting up conv0
I0504 13:22:33.363481 32695 net.cpp:131] Top shape: 1000 24 32 32 (24576000)
I0504 13:22:33.363486 32695 net.cpp:139] Memory required for data: 110604000
I0504 13:22:33.363498 32695 layer_factory.hpp:77] Creating layer Sigmoid0
I0504 13:22:33.363509 32695 net.cpp:86] Creating Layer Sigmoid0
I0504 13:22:33.363513 32695 net.cpp:408] Sigmoid0 <- conv0
I0504 13:22:33.363520 32695 net.cpp:382] Sigmoid0 -> Sigmoid0
I0504 13:22:33.363749 32695 net.cpp:124] Setting up Sigmoid0
I0504 13:22:33.363776 32695 net.cpp:131] Top shape: 1000 24 32 32 (24576000)
I0504 13:22:33.363780 32695 net.cpp:139] Memory required for data: 208908000
I0504 13:22:33.363785 32695 layer_factory.hpp:77] Creating layer pool0
I0504 13:22:33.363793 32695 net.cpp:86] Creating Layer pool0
I0504 13:22:33.363797 32695 net.cpp:408] pool0 <- Sigmoid0
I0504 13:22:33.363804 32695 net.cpp:382] pool0 -> pool0
I0504 13:22:33.364014 32695 net.cpp:124] Setting up pool0
I0504 13:22:33.364027 32695 net.cpp:131] Top shape: 1000 24 16 16 (6144000)
I0504 13:22:33.364032 32695 net.cpp:139] Memory required for data: 233484000
I0504 13:22:33.364035 32695 layer_factory.hpp:77] Creating layer conv1
I0504 13:22:33.364045 32695 net.cpp:86] Creating Layer conv1
I0504 13:22:33.364050 32695 net.cpp:408] conv1 <- pool0
I0504 13:22:33.364058 32695 net.cpp:382] conv1 -> conv1
I0504 13:22:33.367200 32695 net.cpp:124] Setting up conv1
I0504 13:22:33.367218 32695 net.cpp:131] Top shape: 1000 216 18 18 (69984000)
I0504 13:22:33.367223 32695 net.cpp:139] Memory required for data: 513420000
I0504 13:22:33.367233 32695 layer_factory.hpp:77] Creating layer Sigmoid1
I0504 13:22:33.367241 32695 net.cpp:86] Creating Layer Sigmoid1
I0504 13:22:33.367245 32695 net.cpp:408] Sigmoid1 <- conv1
I0504 13:22:33.367251 32695 net.cpp:382] Sigmoid1 -> Sigmoid1
I0504 13:22:33.367465 32695 net.cpp:124] Setting up Sigmoid1
I0504 13:22:33.367478 32695 net.cpp:131] Top shape: 1000 216 18 18 (69984000)
I0504 13:22:33.367481 32695 net.cpp:139] Memory required for data: 793356000
I0504 13:22:33.367486 32695 layer_factory.hpp:77] Creating layer pool1
I0504 13:22:33.367496 32695 net.cpp:86] Creating Layer pool1
I0504 13:22:33.367501 32695 net.cpp:408] pool1 <- Sigmoid1
I0504 13:22:33.367506 32695 net.cpp:382] pool1 -> pool1
I0504 13:22:33.368404 32695 net.cpp:124] Setting up pool1
I0504 13:22:33.368419 32695 net.cpp:131] Top shape: 1000 216 9 9 (17496000)
I0504 13:22:33.368423 32695 net.cpp:139] Memory required for data: 863340000
I0504 13:22:33.368428 32695 layer_factory.hpp:77] Creating layer ip1
I0504 13:22:33.368440 32695 net.cpp:86] Creating Layer ip1
I0504 13:22:33.368444 32695 net.cpp:408] ip1 <- pool1
I0504 13:22:33.368453 32695 net.cpp:382] ip1 -> ip1
I0504 13:22:33.404584 32695 net.cpp:124] Setting up ip1
I0504 13:22:33.404613 32695 net.cpp:131] Top shape: 1000 60 (60000)
I0504 13:22:33.404618 32695 net.cpp:139] Memory required for data: 863580000
I0504 13:22:33.404633 32695 layer_factory.hpp:77] Creating layer relu1
I0504 13:22:33.404644 32695 net.cpp:86] Creating Layer relu1
I0504 13:22:33.404649 32695 net.cpp:408] relu1 <- ip1
I0504 13:22:33.404655 32695 net.cpp:369] relu1 -> ip1 (in-place)
I0504 13:22:33.404916 32695 net.cpp:124] Setting up relu1
I0504 13:22:33.404927 32695 net.cpp:131] Top shape: 1000 60 (60000)
I0504 13:22:33.404930 32695 net.cpp:139] Memory required for data: 863820000
I0504 13:22:33.404934 32695 layer_factory.hpp:77] Creating layer ip2
I0504 13:22:33.404944 32695 net.cpp:86] Creating Layer ip2
I0504 13:22:33.404949 32695 net.cpp:408] ip2 <- ip1
I0504 13:22:33.404956 32695 net.cpp:382] ip2 -> ip2
I0504 13:22:33.405220 32695 net.cpp:124] Setting up ip2
I0504 13:22:33.405228 32695 net.cpp:131] Top shape: 1000 60 (60000)
I0504 13:22:33.405231 32695 net.cpp:139] Memory required for data: 864060000
I0504 13:22:33.405238 32695 layer_factory.hpp:77] Creating layer relu2
I0504 13:22:33.405246 32695 net.cpp:86] Creating Layer relu2
I0504 13:22:33.405248 32695 net.cpp:408] relu2 <- ip2
I0504 13:22:33.405253 32695 net.cpp:369] relu2 -> ip2 (in-place)
I0504 13:22:33.405447 32695 net.cpp:124] Setting up relu2
I0504 13:22:33.405457 32695 net.cpp:131] Top shape: 1000 60 (60000)
I0504 13:22:33.405462 32695 net.cpp:139] Memory required for data: 864300000
I0504 13:22:33.405465 32695 layer_factory.hpp:77] Creating layer ip3
I0504 13:22:33.405474 32695 net.cpp:86] Creating Layer ip3
I0504 13:22:33.405480 32695 net.cpp:408] ip3 <- ip2
I0504 13:22:33.405488 32695 net.cpp:382] ip3 -> ip3
I0504 13:22:33.405647 32695 net.cpp:124] Setting up ip3
I0504 13:22:33.405655 32695 net.cpp:131] Top shape: 1000 10 (10000)
I0504 13:22:33.405674 32695 net.cpp:139] Memory required for data: 864340000
I0504 13:22:33.405685 32695 layer_factory.hpp:77] Creating layer ip3_ip3_0_split
I0504 13:22:33.405694 32695 net.cpp:86] Creating Layer ip3_ip3_0_split
I0504 13:22:33.405699 32695 net.cpp:408] ip3_ip3_0_split <- ip3
I0504 13:22:33.405705 32695 net.cpp:382] ip3_ip3_0_split -> ip3_ip3_0_split_0
I0504 13:22:33.405715 32695 net.cpp:382] ip3_ip3_0_split -> ip3_ip3_0_split_1
I0504 13:22:33.405757 32695 net.cpp:124] Setting up ip3_ip3_0_split
I0504 13:22:33.405774 32695 net.cpp:131] Top shape: 1000 10 (10000)
I0504 13:22:33.405779 32695 net.cpp:131] Top shape: 1000 10 (10000)
I0504 13:22:33.405782 32695 net.cpp:139] Memory required for data: 864420000
I0504 13:22:33.405787 32695 layer_factory.hpp:77] Creating layer accuracy
I0504 13:22:33.405797 32695 net.cpp:86] Creating Layer accuracy
I0504 13:22:33.405800 32695 net.cpp:408] accuracy <- ip3_ip3_0_split_0
I0504 13:22:33.405805 32695 net.cpp:408] accuracy <- label_cifar_1_split_0
I0504 13:22:33.405815 32695 net.cpp:382] accuracy -> accuracy
…
