…
I0504 06:54:47.747169 17327 net.cpp:296] The NetState phase (0) differed from the phase (1) specified by a rule in layer cifar
I0504 06:54:47.747184 17327 net.cpp:296] The NetState phase (0) differed from the phase (1) specified by a rule in layer accuracy
I0504 06:54:47.747258 17327 net.cpp:53] Initializing net from parameters: 
name: "CIFAR"
state {
  phase: TRAIN
  level: 0
  stage: ""
}
layer {
  name: "cifar"
  type: "Data"
  top: "data"
  top: "label"
  include {
    phase: TRAIN
  }
  transform_param {
    mean_file: "examples/cifar10/mean.binaryproto"
  }
  data_param {
    source: "examples/cifar10/cifar10_train_lmdb"
    batch_size: 111
    backend: LMDB
  }
}
layer {
  name: "conv0"
  type: "Convolution"
  bottom: "data"
  top: "conv0"
  param {
    lr_mult: 1
  }
  param {
    lr_mult: 2
  }
  convolution_param {
    num_output: 216
    pad: 2
    kernel_size: 5
    stride: 1
    weight_filler {
      type: "gaussian"
      std: 0.01
    }
    bias_filler {
      type: "constant"
    }
  }
}
layer {
  name: "Sigmoid0"
  type: "Sigmoid"
  bottom: "conv0"
  top: "Sigmoid0"
}
layer {
  name: "pool0"
  type: "Pooling"
  bottom: "Sigmoid0"
  top: "pool0"
  pooling_param {
    pool: AVE
    kernel_size: 3
    stride: 2
  }
}
layer {
  name: "ip1"
  type: "InnerProduct"
  bottom: "pool0"
  top: "ip1"
  param {
    lr_mult: 1
  }
  param {
    lr_mult: 2
  }
  inner_product_param {
    num_output: 180
    weight_filler {
      type: "gaussian"
      std: 0.01
    }
    bias_filler {
      type: "constant"
    }
  }
}
layer {
  name: "relu1"
  type: "ReLU"
  bottom: "ip1"
  top: "ip1"
}
layer {
  name: "ip2"
  type: "InnerProduct"
  bottom: "ip1"
  top: "ip2"
  param {
    lr_mult: 1
  }
  param {
    lr_mult: 2
  }
  inner_product_param {
    num_output: 180
    weight_filler {
      type: "gaussian"
      std: 0.01
    }
    bias_filler {
      type: "constant"
    }
  }
}
layer {
  name: "relu2"
  type: "ReLU"
  bottom: "ip2"
  top: "ip2"
}
layer {
  name: "ip3"
  type: "InnerProduct"
  bottom: "ip2"
  top: "ip3"
  param {
    lr_mult: 1
  }
  param {
    lr_mult: 2
  }
  inner_product_param {
    num_output: 10
    weight_filler {
      type: "gaussian"
      std: 0.01
    }
    bias_filler {
      type: "constant"
    }
  }
}
layer {
  name: "loss"
  type: "SoftmaxWithLoss"
  bottom: "ip3"
  bottom: "label"
  top: "loss"
}
I0504 06:54:47.747323 17327 layer_factory.hpp:77] Creating layer cifar
I0504 06:54:47.747404 17327 db_lmdb.cpp:35] Opened lmdb examples/cifar10/cifar10_train_lmdb
I0504 06:54:47.747443 17327 net.cpp:86] Creating Layer cifar
I0504 06:54:47.747449 17327 net.cpp:382] cifar -> data
I0504 06:54:47.747467 17327 net.cpp:382] cifar -> label
I0504 06:54:47.747476 17327 data_transformer.cpp:25] Loading mean file from: examples/cifar10/mean.binaryproto
I0504 06:54:47.749217 17327 data_layer.cpp:45] output data size: 111,3,32,32
I0504 06:54:47.755565 17327 net.cpp:124] Setting up cifar
I0504 06:54:47.755610 17327 net.cpp:131] Top shape: 111 3 32 32 (340992)
I0504 06:54:47.755615 17327 net.cpp:131] Top shape: 111 (111)
I0504 06:54:47.755617 17327 net.cpp:139] Memory required for data: 1364412
I0504 06:54:47.755623 17327 layer_factory.hpp:77] Creating layer conv0
I0504 06:54:47.755687 17327 net.cpp:86] Creating Layer conv0
I0504 06:54:47.755693 17327 net.cpp:408] conv0 <- data
I0504 06:54:47.755703 17327 net.cpp:382] conv0 -> conv0
I0504 06:54:47.980139 17327 net.cpp:124] Setting up conv0
I0504 06:54:47.980182 17327 net.cpp:131] Top shape: 111 216 32 32 (24551424)
I0504 06:54:47.980186 17327 net.cpp:139] Memory required for data: 99570108
I0504 06:54:47.980201 17327 layer_factory.hpp:77] Creating layer Sigmoid0
I0504 06:54:47.980211 17327 net.cpp:86] Creating Layer Sigmoid0
I0504 06:54:47.980214 17327 net.cpp:408] Sigmoid0 <- conv0
I0504 06:54:47.980219 17327 net.cpp:382] Sigmoid0 -> Sigmoid0
I0504 06:54:47.980402 17327 net.cpp:124] Setting up Sigmoid0
I0504 06:54:47.980412 17327 net.cpp:131] Top shape: 111 216 32 32 (24551424)
I0504 06:54:47.980415 17327 net.cpp:139] Memory required for data: 197775804
I0504 06:54:47.980418 17327 layer_factory.hpp:77] Creating layer pool0
I0504 06:54:47.980424 17327 net.cpp:86] Creating Layer pool0
I0504 06:54:47.980427 17327 net.cpp:408] pool0 <- Sigmoid0
I0504 06:54:47.980432 17327 net.cpp:382] pool0 -> pool0
I0504 06:54:47.981164 17327 net.cpp:124] Setting up pool0
I0504 06:54:47.981176 17327 net.cpp:131] Top shape: 111 216 16 16 (6137856)
I0504 06:54:47.981195 17327 net.cpp:139] Memory required for data: 222327228
I0504 06:54:47.981199 17327 layer_factory.hpp:77] Creating layer ip1
I0504 06:54:47.981207 17327 net.cpp:86] Creating Layer ip1
I0504 06:54:47.981210 17327 net.cpp:408] ip1 <- pool0
I0504 06:54:47.981215 17327 net.cpp:382] ip1 -> ip1
I0504 06:54:48.231257 17327 net.cpp:124] Setting up ip1
I0504 06:54:48.231281 17327 net.cpp:131] Top shape: 111 180 (19980)
I0504 06:54:48.231286 17327 net.cpp:139] Memory required for data: 222407148
I0504 06:54:48.231297 17327 layer_factory.hpp:77] Creating layer relu1
I0504 06:54:48.231305 17327 net.cpp:86] Creating Layer relu1
I0504 06:54:48.231309 17327 net.cpp:408] relu1 <- ip1
I0504 06:54:48.231314 17327 net.cpp:369] relu1 -> ip1 (in-place)
I0504 06:54:48.231518 17327 net.cpp:124] Setting up relu1
I0504 06:54:48.231525 17327 net.cpp:131] Top shape: 111 180 (19980)
I0504 06:54:48.231528 17327 net.cpp:139] Memory required for data: 222487068
I0504 06:54:48.231531 17327 layer_factory.hpp:77] Creating layer ip2
I0504 06:54:48.231539 17327 net.cpp:86] Creating Layer ip2
I0504 06:54:48.231541 17327 net.cpp:408] ip2 <- ip1
I0504 06:54:48.231546 17327 net.cpp:382] ip2 -> ip2
I0504 06:54:48.233474 17327 net.cpp:124] Setting up ip2
I0504 06:54:48.233484 17327 net.cpp:131] Top shape: 111 180 (19980)
I0504 06:54:48.233487 17327 net.cpp:139] Memory required for data: 222566988
I0504 06:54:48.233495 17327 layer_factory.hpp:77] Creating layer relu2
I0504 06:54:48.233500 17327 net.cpp:86] Creating Layer relu2
I0504 06:54:48.233503 17327 net.cpp:408] relu2 <- ip2
I0504 06:54:48.233507 17327 net.cpp:369] relu2 -> ip2 (in-place)
I0504 06:54:48.233675 17327 net.cpp:124] Setting up relu2
I0504 06:54:48.233682 17327 net.cpp:131] Top shape: 111 180 (19980)
I0504 06:54:48.233685 17327 net.cpp:139] Memory required for data: 222646908
I0504 06:54:48.233688 17327 layer_factory.hpp:77] Creating layer ip3
I0504 06:54:48.233696 17327 net.cpp:86] Creating Layer ip3
I0504 06:54:48.233700 17327 net.cpp:408] ip3 <- ip2
I0504 06:54:48.233705 17327 net.cpp:382] ip3 -> ip3
I0504 06:54:48.233839 17327 net.cpp:124] Setting up ip3
I0504 06:54:48.233846 17327 net.cpp:131] Top shape: 111 10 (1110)
I0504 06:54:48.233850 17327 net.cpp:139] Memory required for data: 222651348
I0504 06:54:48.233853 17327 layer_factory.hpp:77] Creating layer loss
I0504 06:54:48.233860 17327 net.cpp:86] Creating Layer loss
I0504 06:54:48.233862 17327 net.cpp:408] loss <- ip3
I0504 06:54:48.233865 17327 net.cpp:408] loss <- label
I0504 06:54:48.233870 17327 net.cpp:382] loss -> loss
I0504 06:54:48.233886 17327 layer_factory.hpp:77] Creating layer loss
…
I0504 06:54:48.234479 17327 solver.cpp:173] Creating test net (#0) specified by net file: ECE595/cifar/train_test/var_everything_tiny/cifar_train_test_71.prototxt
I0504 06:54:48.234519 17327 net.cpp:296] The NetState phase (1) differed from the phase (0) specified by a rule in layer cifar
I0504 06:54:48.234597 17327 net.cpp:53] Initializing net from parameters: 
name: "CIFAR"
state {
  phase: TEST
}
layer {
  name: "cifar"
  type: "Data"
  top: "data"
  top: "label"
  include {
    phase: TEST
  }
  transform_param {
    mean_file: "examples/cifar10/mean.binaryproto"
  }
  data_param {
    source: "examples/cifar10/cifar10_test_lmdb"
    batch_size: 1000
    backend: LMDB
  }
}
layer {
  name: "conv0"
  type: "Convolution"
  bottom: "data"
  top: "conv0"
  param {
    lr_mult: 1
  }
  param {
    lr_mult: 2
  }
  convolution_param {
    num_output: 216
    pad: 2
    kernel_size: 5
    stride: 1
    weight_filler {
      type: "gaussian"
      std: 0.01
    }
    bias_filler {
      type: "constant"
    }
  }
}
layer {
  name: "Sigmoid0"
  type: "Sigmoid"
  bottom: "conv0"
  top: "Sigmoid0"
}
layer {
  name: "pool0"
  type: "Pooling"
  bottom: "Sigmoid0"
  top: "pool0"
  pooling_param {
    pool: AVE
    kernel_size: 3
    stride: 2
  }
}
layer {
  name: "ip1"
  type: "InnerProduct"
  bottom: "pool0"
  top: "ip1"
  param {
    lr_mult: 1
  }
  param {
    lr_mult: 2
  }
  inner_product_param {
    num_output: 180
    weight_filler {
      type: "gaussian"
      std: 0.01
    }
    bias_filler {
      type: "constant"
    }
  }
}
layer {
  name: "relu1"
  type: "ReLU"
  bottom: "ip1"
  top: "ip1"
}
layer {
  name: "ip2"
  type: "InnerProduct"
  bottom: "ip1"
  top: "ip2"
  param {
    lr_mult: 1
  }
  param {
    lr_mult: 2
  }
  inner_product_param {
    num_output: 180
    weight_filler {
      type: "gaussian"
      std: 0.01
    }
    bias_filler {
      type: "constant"
    }
  }
}
layer {
  name: "relu2"
  type: "ReLU"
  bottom: "ip2"
  top: "ip2"
}
layer {
  name: "ip3"
  type: "InnerProduct"
  bottom: "ip2"
  top: "ip3"
  param {
    lr_mult: 1
  }
  param {
    lr_mult: 2
  }
  inner_product_param {
    num_output: 10
    weight_filler {
      type: "gaussian"
      std: 0.01
    }
    bias_filler {
      type: "constant"
    }
  }
}
layer {
  name: "accuracy"
  type: "Accuracy"
  bottom: "ip3"
  bottom: "label"
  top: "accuracy"
  include {
    phase: TEST
  }
}
layer {
  name: "loss"
  type: "SoftmaxWithLoss"
  bottom: "ip3"
  bottom: "label"
  top: "loss"
}
I0504 06:54:48.234657 17327 layer_factory.hpp:77] Creating layer cifar
I0504 06:54:48.234701 17327 db_lmdb.cpp:35] Opened lmdb examples/cifar10/cifar10_test_lmdb
I0504 06:54:48.234714 17327 net.cpp:86] Creating Layer cifar
I0504 06:54:48.234717 17327 net.cpp:382] cifar -> data
I0504 06:54:48.234724 17327 net.cpp:382] cifar -> label
I0504 06:54:48.234730 17327 data_transformer.cpp:25] Loading mean file from: examples/cifar10/mean.binaryproto
I0504 06:54:48.234869 17327 data_layer.cpp:45] output data size: 1000,3,32,32
I0504 06:54:48.255748 17327 net.cpp:124] Setting up cifar
I0504 06:54:48.255789 17327 net.cpp:131] Top shape: 1000 3 32 32 (3072000)
I0504 06:54:48.255794 17327 net.cpp:131] Top shape: 1000 (1000)
I0504 06:54:48.255796 17327 net.cpp:139] Memory required for data: 12292000
I0504 06:54:48.255802 17327 layer_factory.hpp:77] Creating layer label_cifar_1_split
I0504 06:54:48.255846 17327 net.cpp:86] Creating Layer label_cifar_1_split
I0504 06:54:48.255851 17327 net.cpp:408] label_cifar_1_split <- label
I0504 06:54:48.255857 17327 net.cpp:382] label_cifar_1_split -> label_cifar_1_split_0
I0504 06:54:48.255867 17327 net.cpp:382] label_cifar_1_split -> label_cifar_1_split_1
I0504 06:54:48.255941 17327 net.cpp:124] Setting up label_cifar_1_split
I0504 06:54:48.255949 17327 net.cpp:131] Top shape: 1000 (1000)
I0504 06:54:48.255954 17327 net.cpp:131] Top shape: 1000 (1000)
I0504 06:54:48.255956 17327 net.cpp:139] Memory required for data: 12300000
I0504 06:54:48.255959 17327 layer_factory.hpp:77] Creating layer conv0
I0504 06:54:48.255973 17327 net.cpp:86] Creating Layer conv0
I0504 06:54:48.255976 17327 net.cpp:408] conv0 <- data
I0504 06:54:48.255981 17327 net.cpp:382] conv0 -> conv0
I0504 06:54:48.258064 17327 net.cpp:124] Setting up conv0
I0504 06:54:48.258093 17327 net.cpp:131] Top shape: 1000 216 32 32 (221184000)
I0504 06:54:48.258097 17327 net.cpp:139] Memory required for data: 897036000
I0504 06:54:48.258106 17327 layer_factory.hpp:77] Creating layer Sigmoid0
I0504 06:54:48.258116 17327 net.cpp:86] Creating Layer Sigmoid0
I0504 06:54:48.258118 17327 net.cpp:408] Sigmoid0 <- conv0
I0504 06:54:48.258122 17327 net.cpp:382] Sigmoid0 -> Sigmoid0
I0504 06:54:48.259979 17327 net.cpp:124] Setting up Sigmoid0
I0504 06:54:48.260005 17327 net.cpp:131] Top shape: 1000 216 32 32 (221184000)
I0504 06:54:48.260010 17327 net.cpp:139] Memory required for data: 1781772000
I0504 06:54:48.260012 17327 layer_factory.hpp:77] Creating layer pool0
I0504 06:54:48.260022 17327 net.cpp:86] Creating Layer pool0
I0504 06:54:48.260025 17327 net.cpp:408] pool0 <- Sigmoid0
I0504 06:54:48.260030 17327 net.cpp:382] pool0 -> pool0
I0504 06:54:48.260227 17327 net.cpp:124] Setting up pool0
I0504 06:54:48.260236 17327 net.cpp:131] Top shape: 1000 216 16 16 (55296000)
I0504 06:54:48.260239 17327 net.cpp:139] Memory required for data: 2002956000
I0504 06:54:48.260242 17327 layer_factory.hpp:77] Creating layer ip1
I0504 06:54:48.260251 17327 net.cpp:86] Creating Layer ip1
I0504 06:54:48.260253 17327 net.cpp:408] ip1 <- pool0
I0504 06:54:48.260259 17327 net.cpp:382] ip1 -> ip1
I0504 06:54:48.525393 17327 net.cpp:124] Setting up ip1
I0504 06:54:48.525432 17327 net.cpp:131] Top shape: 1000 180 (180000)
I0504 06:54:48.525436 17327 net.cpp:139] Memory required for data: 2003676000
I0504 06:54:48.525451 17327 layer_factory.hpp:77] Creating layer relu1
I0504 06:54:48.525462 17327 net.cpp:86] Creating Layer relu1
I0504 06:54:48.525466 17327 net.cpp:408] relu1 <- ip1
I0504 06:54:48.525472 17327 net.cpp:369] relu1 -> ip1 (in-place)
I0504 06:54:48.525717 17327 net.cpp:124] Setting up relu1
I0504 06:54:48.525725 17327 net.cpp:131] Top shape: 1000 180 (180000)
I0504 06:54:48.525728 17327 net.cpp:139] Memory required for data: 2004396000
I0504 06:54:48.525732 17327 layer_factory.hpp:77] Creating layer ip2
I0504 06:54:48.525739 17327 net.cpp:86] Creating Layer ip2
I0504 06:54:48.525743 17327 net.cpp:408] ip2 <- ip1
I0504 06:54:48.525748 17327 net.cpp:382] ip2 -> ip2
I0504 06:54:48.526804 17327 net.cpp:124] Setting up ip2
I0504 06:54:48.526811 17327 net.cpp:131] Top shape: 1000 180 (180000)
I0504 06:54:48.526829 17327 net.cpp:139] Memory required for data: 2005116000
I0504 06:54:48.526836 17327 layer_factory.hpp:77] Creating layer relu2
I0504 06:54:48.526842 17327 net.cpp:86] Creating Layer relu2
I0504 06:54:48.526846 17327 net.cpp:408] relu2 <- ip2
I0504 06:54:48.526850 17327 net.cpp:369] relu2 -> ip2 (in-place)
I0504 06:54:48.527030 17327 net.cpp:124] Setting up relu2
I0504 06:54:48.527039 17327 net.cpp:131] Top shape: 1000 180 (180000)
I0504 06:54:48.527041 17327 net.cpp:139] Memory required for data: 2005836000
I0504 06:54:48.527045 17327 layer_factory.hpp:77] Creating layer ip3
I0504 06:54:48.527050 17327 net.cpp:86] Creating Layer ip3
I0504 06:54:48.527053 17327 net.cpp:408] ip3 <- ip2
I0504 06:54:48.527058 17327 net.cpp:382] ip3 -> ip3
I0504 06:54:48.527209 17327 net.cpp:124] Setting up ip3
I0504 06:54:48.527216 17327 net.cpp:131] Top shape: 1000 10 (10000)
I0504 06:54:48.527236 17327 net.cpp:139] Memory required for data: 2005876000
I0504 06:54:48.527241 17327 layer_factory.hpp:77] Creating layer ip3_ip3_0_split
I0504 06:54:48.527247 17327 net.cpp:86] Creating Layer ip3_ip3_0_split
I0504 06:54:48.527251 17327 net.cpp:408] ip3_ip3_0_split <- ip3
I0504 06:54:48.527254 17327 net.cpp:382] ip3_ip3_0_split -> ip3_ip3_0_split_0
I0504 06:54:48.527261 17327 net.cpp:382] ip3_ip3_0_split -> ip3_ip3_0_split_1
I0504 06:54:48.527294 17327 net.cpp:124] Setting up ip3_ip3_0_split
I0504 06:54:48.527299 17327 net.cpp:131] Top shape: 1000 10 (10000)
I0504 06:54:48.527303 17327 net.cpp:131] Top shape: 1000 10 (10000)
I0504 06:54:48.527305 17327 net.cpp:139] Memory required for data: 2005956000
I0504 06:54:48.527308 17327 layer_factory.hpp:77] Creating layer accuracy
I0504 06:54:48.527314 17327 net.cpp:86] Creating Layer accuracy
I0504 06:54:48.527318 17327 net.cpp:408] accuracy <- ip3_ip3_0_split_0
I0504 06:54:48.527321 17327 net.cpp:408] accuracy <- label_cifar_1_split_0
I0504 06:54:48.527325 17327 net.cpp:382] accuracy -> accuracy
…
