…
I0504 07:42:47.492275 19717 net.cpp:296] The NetState phase (0) differed from the phase (1) specified by a rule in layer cifar
I0504 07:42:47.492295 19717 net.cpp:296] The NetState phase (0) differed from the phase (1) specified by a rule in layer accuracy
I0504 07:42:47.492416 19717 net.cpp:53] Initializing net from parameters: 
name: "CIFAR"
state {
  phase: TRAIN
  level: 0
  stage: ""
}
layer {
  name: "cifar"
  type: "Data"
  top: "data"
  top: "label"
  include {
    phase: TRAIN
  }
  transform_param {
    mean_file: "examples/cifar10/mean.binaryproto"
  }
  data_param {
    source: "examples/cifar10/cifar10_train_lmdb"
    batch_size: 111
    backend: LMDB
  }
}
layer {
  name: "conv0"
  type: "Convolution"
  bottom: "data"
  top: "conv0"
  param {
    lr_mult: 1
  }
  param {
    lr_mult: 2
  }
  convolution_param {
    num_output: 24
    pad: 2
    kernel_size: 5
    stride: 1
    weight_filler {
      type: "gaussian"
      std: 0.01
    }
    bias_filler {
      type: "constant"
    }
  }
}
layer {
  name: "Sigmoid0"
  type: "Sigmoid"
  bottom: "conv0"
  top: "Sigmoid0"
}
layer {
  name: "pool0"
  type: "Pooling"
  bottom: "Sigmoid0"
  top: "pool0"
  pooling_param {
    pool: AVE
    kernel_size: 3
    stride: 2
  }
}
layer {
  name: "conv1"
  type: "Convolution"
  bottom: "pool0"
  top: "conv1"
  param {
    lr_mult: 1
  }
  param {
    lr_mult: 2
  }
  convolution_param {
    num_output: 24
    pad: 2
    kernel_size: 3
    stride: 1
    weight_filler {
      type: "gaussian"
      std: 0.01
    }
    bias_filler {
      type: "constant"
    }
  }
}
layer {
  name: "Sigmoid1"
  type: "Sigmoid"
  bottom: "conv1"
  top: "Sigmoid1"
}
layer {
  name: "pool1"
  type: "Pooling"
  bottom: "Sigmoid1"
  top: "pool1"
  pooling_param {
    pool: AVE
    kernel_size: 3
    stride: 2
  }
}
layer {
  name: "ip1"
  type: "InnerProduct"
  bottom: "pool1"
  top: "ip1"
  param {
    lr_mult: 1
  }
  param {
    lr_mult: 2
  }
  inner_product_param {
    num_output: 60
    weight_filler {
      type: "gaussian"
      std: 0.01
    }
    bias_filler {
      type: "constant"
    }
  }
}
layer {
  name: "relu1"
  type: "ReLU"
  bottom: "ip1"
  top: "ip1"
}
layer {
  name: "ip2"
  type: "InnerProduct"
  bottom: "ip1"
  top: "ip2"
  param {
    lr_mult: 1
  }
  param {
    lr_mult: 2
  }
  inner_product_param {
    num_output: 10
    weight_filler {
      type: "gaussian"
      std: 0.01
    }
    bias_filler {
      type: "constant"
    }
  }
}
layer {
  name: "loss"
  type: "SoftmaxWithLoss"
  bottom: "ip2"
  bottom: "label"
  top: "loss"
}
I0504 07:42:47.492521 19717 layer_factory.hpp:77] Creating layer cifar
I0504 07:42:47.492650 19717 db_lmdb.cpp:35] Opened lmdb examples/cifar10/cifar10_train_lmdb
I0504 07:42:47.492694 19717 net.cpp:86] Creating Layer cifar
I0504 07:42:47.492707 19717 net.cpp:382] cifar -> data
I0504 07:42:47.492738 19717 net.cpp:382] cifar -> label
I0504 07:42:47.492754 19717 data_transformer.cpp:25] Loading mean file from: examples/cifar10/mean.binaryproto
I0504 07:42:47.494972 19717 data_layer.cpp:45] output data size: 111,3,32,32
I0504 07:42:47.502933 19717 net.cpp:124] Setting up cifar
I0504 07:42:47.502952 19717 net.cpp:131] Top shape: 111 3 32 32 (340992)
I0504 07:42:47.502959 19717 net.cpp:131] Top shape: 111 (111)
I0504 07:42:47.502964 19717 net.cpp:139] Memory required for data: 1364412
I0504 07:42:47.502971 19717 layer_factory.hpp:77] Creating layer conv0
I0504 07:42:47.502991 19717 net.cpp:86] Creating Layer conv0
I0504 07:42:47.503012 19717 net.cpp:408] conv0 <- data
I0504 07:42:47.503026 19717 net.cpp:382] conv0 -> conv0
I0504 07:42:47.798651 19717 net.cpp:124] Setting up conv0
I0504 07:42:47.798682 19717 net.cpp:131] Top shape: 111 24 32 32 (2727936)
I0504 07:42:47.798687 19717 net.cpp:139] Memory required for data: 12276156
I0504 07:42:47.798705 19717 layer_factory.hpp:77] Creating layer Sigmoid0
I0504 07:42:47.798718 19717 net.cpp:86] Creating Layer Sigmoid0
I0504 07:42:47.798723 19717 net.cpp:408] Sigmoid0 <- conv0
I0504 07:42:47.798730 19717 net.cpp:382] Sigmoid0 -> Sigmoid0
I0504 07:42:47.798944 19717 net.cpp:124] Setting up Sigmoid0
I0504 07:42:47.798955 19717 net.cpp:131] Top shape: 111 24 32 32 (2727936)
I0504 07:42:47.798959 19717 net.cpp:139] Memory required for data: 23187900
I0504 07:42:47.798964 19717 layer_factory.hpp:77] Creating layer pool0
I0504 07:42:47.798971 19717 net.cpp:86] Creating Layer pool0
I0504 07:42:47.798975 19717 net.cpp:408] pool0 <- Sigmoid0
I0504 07:42:47.798980 19717 net.cpp:382] pool0 -> pool0
I0504 07:42:47.799860 19717 net.cpp:124] Setting up pool0
I0504 07:42:47.799876 19717 net.cpp:131] Top shape: 111 24 16 16 (681984)
I0504 07:42:47.799880 19717 net.cpp:139] Memory required for data: 25915836
I0504 07:42:47.799885 19717 layer_factory.hpp:77] Creating layer conv1
I0504 07:42:47.799899 19717 net.cpp:86] Creating Layer conv1
I0504 07:42:47.799903 19717 net.cpp:408] conv1 <- pool0
I0504 07:42:47.799911 19717 net.cpp:382] conv1 -> conv1
I0504 07:42:47.803234 19717 net.cpp:124] Setting up conv1
I0504 07:42:47.803251 19717 net.cpp:131] Top shape: 111 24 18 18 (863136)
I0504 07:42:47.803256 19717 net.cpp:139] Memory required for data: 29368380
I0504 07:42:47.803269 19717 layer_factory.hpp:77] Creating layer Sigmoid1
I0504 07:42:47.803277 19717 net.cpp:86] Creating Layer Sigmoid1
I0504 07:42:47.803282 19717 net.cpp:408] Sigmoid1 <- conv1
I0504 07:42:47.803288 19717 net.cpp:382] Sigmoid1 -> Sigmoid1
I0504 07:42:47.803514 19717 net.cpp:124] Setting up Sigmoid1
I0504 07:42:47.803524 19717 net.cpp:131] Top shape: 111 24 18 18 (863136)
I0504 07:42:47.803529 19717 net.cpp:139] Memory required for data: 32820924
I0504 07:42:47.803532 19717 layer_factory.hpp:77] Creating layer pool1
I0504 07:42:47.803539 19717 net.cpp:86] Creating Layer pool1
I0504 07:42:47.803542 19717 net.cpp:408] pool1 <- Sigmoid1
I0504 07:42:47.803550 19717 net.cpp:382] pool1 -> pool1
I0504 07:42:47.803758 19717 net.cpp:124] Setting up pool1
I0504 07:42:47.803767 19717 net.cpp:131] Top shape: 111 24 9 9 (215784)
I0504 07:42:47.803771 19717 net.cpp:139] Memory required for data: 33684060
I0504 07:42:47.803774 19717 layer_factory.hpp:77] Creating layer ip1
I0504 07:42:47.803783 19717 net.cpp:86] Creating Layer ip1
I0504 07:42:47.803787 19717 net.cpp:408] ip1 <- pool1
I0504 07:42:47.803793 19717 net.cpp:382] ip1 -> ip1
I0504 07:42:47.807776 19717 net.cpp:124] Setting up ip1
I0504 07:42:47.807785 19717 net.cpp:131] Top shape: 111 60 (6660)
I0504 07:42:47.807790 19717 net.cpp:139] Memory required for data: 33710700
I0504 07:42:47.807798 19717 layer_factory.hpp:77] Creating layer relu1
I0504 07:42:47.807806 19717 net.cpp:86] Creating Layer relu1
I0504 07:42:47.807811 19717 net.cpp:408] relu1 <- ip1
I0504 07:42:47.807816 19717 net.cpp:369] relu1 -> ip1 (in-place)
I0504 07:42:47.808012 19717 net.cpp:124] Setting up relu1
I0504 07:42:47.808020 19717 net.cpp:131] Top shape: 111 60 (6660)
I0504 07:42:47.808024 19717 net.cpp:139] Memory required for data: 33737340
I0504 07:42:47.808027 19717 layer_factory.hpp:77] Creating layer ip2
I0504 07:42:47.808035 19717 net.cpp:86] Creating Layer ip2
I0504 07:42:47.808039 19717 net.cpp:408] ip2 <- ip1
I0504 07:42:47.808046 19717 net.cpp:382] ip2 -> ip2
I0504 07:42:47.808197 19717 net.cpp:124] Setting up ip2
I0504 07:42:47.808205 19717 net.cpp:131] Top shape: 111 10 (1110)
I0504 07:42:47.808209 19717 net.cpp:139] Memory required for data: 33741780
I0504 07:42:47.808215 19717 layer_factory.hpp:77] Creating layer loss
I0504 07:42:47.808221 19717 net.cpp:86] Creating Layer loss
I0504 07:42:47.808241 19717 net.cpp:408] loss <- ip2
I0504 07:42:47.808246 19717 net.cpp:408] loss <- label
I0504 07:42:47.808253 19717 net.cpp:382] loss -> loss
I0504 07:42:47.808271 19717 layer_factory.hpp:77] Creating layer loss
…
I0504 07:42:47.809733 19717 solver.cpp:173] Creating test net (#0) specified by net file: ECE595/cifar/train_test/var_everything_tiny/cifar_train_test_85.prototxt
I0504 07:42:47.809763 19717 net.cpp:296] The NetState phase (1) differed from the phase (0) specified by a rule in layer cifar
I0504 07:42:47.809875 19717 net.cpp:53] Initializing net from parameters: 
name: "CIFAR"
state {
  phase: TEST
}
layer {
  name: "cifar"
  type: "Data"
  top: "data"
  top: "label"
  include {
    phase: TEST
  }
  transform_param {
    mean_file: "examples/cifar10/mean.binaryproto"
  }
  data_param {
    source: "examples/cifar10/cifar10_test_lmdb"
    batch_size: 1000
    backend: LMDB
  }
}
layer {
  name: "conv0"
  type: "Convolution"
  bottom: "data"
  top: "conv0"
  param {
    lr_mult: 1
  }
  param {
    lr_mult: 2
  }
  convolution_param {
    num_output: 24
    pad: 2
    kernel_size: 5
    stride: 1
    weight_filler {
      type: "gaussian"
      std: 0.01
    }
    bias_filler {
      type: "constant"
    }
  }
}
layer {
  name: "Sigmoid0"
  type: "Sigmoid"
  bottom: "conv0"
  top: "Sigmoid0"
}
layer {
  name: "pool0"
  type: "Pooling"
  bottom: "Sigmoid0"
  top: "pool0"
  pooling_param {
    pool: AVE
    kernel_size: 3
    stride: 2
  }
}
layer {
  name: "conv1"
  type: "Convolution"
  bottom: "pool0"
  top: "conv1"
  param {
    lr_mult: 1
  }
  param {
    lr_mult: 2
  }
  convolution_param {
    num_output: 24
    pad: 2
    kernel_size: 3
    stride: 1
    weight_filler {
      type: "gaussian"
      std: 0.01
    }
    bias_filler {
      type: "constant"
    }
  }
}
layer {
  name: "Sigmoid1"
  type: "Sigmoid"
  bottom: "conv1"
  top: "Sigmoid1"
}
layer {
  name: "pool1"
  type: "Pooling"
  bottom: "Sigmoid1"
  top: "pool1"
  pooling_param {
    pool: AVE
    kernel_size: 3
    stride: 2
  }
}
layer {
  name: "ip1"
  type: "InnerProduct"
  bottom: "pool1"
  top: "ip1"
  param {
    lr_mult: 1
  }
  param {
    lr_mult: 2
  }
  inner_product_param {
    num_output: 60
    weight_filler {
      type: "gaussian"
      std: 0.01
    }
    bias_filler {
      type: "constant"
    }
  }
}
layer {
  name: "relu1"
  type: "ReLU"
  bottom: "ip1"
  top: "ip1"
}
layer {
  name: "ip2"
  type: "InnerProduct"
  bottom: "ip1"
  top: "ip2"
  param {
    lr_mult: 1
  }
  param {
    lr_mult: 2
  }
  inner_product_param {
    num_output: 10
    weight_filler {
      type: "gaussian"
      std: 0.01
    }
    bias_filler {
      type: "constant"
    }
  }
}
layer {
  name: "accuracy"
  type: "Accuracy"
  bottom: "ip2"
  bottom: "label"
  top: "accuracy"
  include {
    phase: TEST
  }
}
layer {
  name: "loss"
  type: "SoftmaxWithLoss"
  bottom: "ip2"
  bottom: "label"
  top: "loss"
}
I0504 07:42:47.809974 19717 layer_factory.hpp:77] Creating layer cifar
I0504 07:42:47.810029 19717 db_lmdb.cpp:35] Opened lmdb examples/cifar10/cifar10_test_lmdb
I0504 07:42:47.810045 19717 net.cpp:86] Creating Layer cifar
I0504 07:42:47.810050 19717 net.cpp:382] cifar -> data
I0504 07:42:47.810060 19717 net.cpp:382] cifar -> label
I0504 07:42:47.810067 19717 data_transformer.cpp:25] Loading mean file from: examples/cifar10/mean.binaryproto
I0504 07:42:47.810250 19717 data_layer.cpp:45] output data size: 1000,3,32,32
I0504 07:42:47.836100 19717 net.cpp:124] Setting up cifar
I0504 07:42:47.836132 19717 net.cpp:131] Top shape: 1000 3 32 32 (3072000)
I0504 07:42:47.836138 19717 net.cpp:131] Top shape: 1000 (1000)
I0504 07:42:47.836141 19717 net.cpp:139] Memory required for data: 12292000
I0504 07:42:47.836148 19717 layer_factory.hpp:77] Creating layer label_cifar_1_split
I0504 07:42:47.836165 19717 net.cpp:86] Creating Layer label_cifar_1_split
I0504 07:42:47.836170 19717 net.cpp:408] label_cifar_1_split <- label
I0504 07:42:47.836179 19717 net.cpp:382] label_cifar_1_split -> label_cifar_1_split_0
I0504 07:42:47.836190 19717 net.cpp:382] label_cifar_1_split -> label_cifar_1_split_1
I0504 07:42:47.836298 19717 net.cpp:124] Setting up label_cifar_1_split
I0504 07:42:47.836308 19717 net.cpp:131] Top shape: 1000 (1000)
I0504 07:42:47.836313 19717 net.cpp:131] Top shape: 1000 (1000)
I0504 07:42:47.836315 19717 net.cpp:139] Memory required for data: 12300000
I0504 07:42:47.836318 19717 layer_factory.hpp:77] Creating layer conv0
I0504 07:42:47.836335 19717 net.cpp:86] Creating Layer conv0
I0504 07:42:47.836339 19717 net.cpp:408] conv0 <- data
I0504 07:42:47.836345 19717 net.cpp:382] conv0 -> conv0
I0504 07:42:47.837471 19717 net.cpp:124] Setting up conv0
I0504 07:42:47.837486 19717 net.cpp:131] Top shape: 1000 24 32 32 (24576000)
I0504 07:42:47.837491 19717 net.cpp:139] Memory required for data: 110604000
I0504 07:42:47.837502 19717 layer_factory.hpp:77] Creating layer Sigmoid0
I0504 07:42:47.837509 19717 net.cpp:86] Creating Layer Sigmoid0
I0504 07:42:47.837513 19717 net.cpp:408] Sigmoid0 <- conv0
I0504 07:42:47.837520 19717 net.cpp:382] Sigmoid0 -> Sigmoid0
I0504 07:42:47.839521 19717 net.cpp:124] Setting up Sigmoid0
I0504 07:42:47.839537 19717 net.cpp:131] Top shape: 1000 24 32 32 (24576000)
I0504 07:42:47.839541 19717 net.cpp:139] Memory required for data: 208908000
I0504 07:42:47.839546 19717 layer_factory.hpp:77] Creating layer pool0
I0504 07:42:47.839558 19717 net.cpp:86] Creating Layer pool0
I0504 07:42:47.839563 19717 net.cpp:408] pool0 <- Sigmoid0
I0504 07:42:47.839570 19717 net.cpp:382] pool0 -> pool0
I0504 07:42:47.839805 19717 net.cpp:124] Setting up pool0
I0504 07:42:47.839818 19717 net.cpp:131] Top shape: 1000 24 16 16 (6144000)
I0504 07:42:47.839823 19717 net.cpp:139] Memory required for data: 233484000
I0504 07:42:47.839826 19717 layer_factory.hpp:77] Creating layer conv1
I0504 07:42:47.839836 19717 net.cpp:86] Creating Layer conv1
I0504 07:42:47.839841 19717 net.cpp:408] conv1 <- pool0
I0504 07:42:47.839849 19717 net.cpp:382] conv1 -> conv1
I0504 07:42:47.841635 19717 net.cpp:124] Setting up conv1
I0504 07:42:47.841651 19717 net.cpp:131] Top shape: 1000 24 18 18 (7776000)
I0504 07:42:47.841656 19717 net.cpp:139] Memory required for data: 264588000
I0504 07:42:47.841666 19717 layer_factory.hpp:77] Creating layer Sigmoid1
I0504 07:42:47.841673 19717 net.cpp:86] Creating Layer Sigmoid1
I0504 07:42:47.841678 19717 net.cpp:408] Sigmoid1 <- conv1
I0504 07:42:47.841686 19717 net.cpp:382] Sigmoid1 -> Sigmoid1
I0504 07:42:47.841903 19717 net.cpp:124] Setting up Sigmoid1
I0504 07:42:47.841919 19717 net.cpp:131] Top shape: 1000 24 18 18 (7776000)
I0504 07:42:47.841923 19717 net.cpp:139] Memory required for data: 295692000
I0504 07:42:47.841928 19717 layer_factory.hpp:77] Creating layer pool1
I0504 07:42:47.841935 19717 net.cpp:86] Creating Layer pool1
I0504 07:42:47.841939 19717 net.cpp:408] pool1 <- Sigmoid1
I0504 07:42:47.841944 19717 net.cpp:382] pool1 -> pool1
I0504 07:42:47.842173 19717 net.cpp:124] Setting up pool1
I0504 07:42:47.842183 19717 net.cpp:131] Top shape: 1000 24 9 9 (1944000)
I0504 07:42:47.842187 19717 net.cpp:139] Memory required for data: 303468000
I0504 07:42:47.842190 19717 layer_factory.hpp:77] Creating layer ip1
I0504 07:42:47.842202 19717 net.cpp:86] Creating Layer ip1
I0504 07:42:47.842206 19717 net.cpp:408] ip1 <- pool1
I0504 07:42:47.842214 19717 net.cpp:382] ip1 -> ip1
I0504 07:42:47.846213 19717 net.cpp:124] Setting up ip1
I0504 07:42:47.846223 19717 net.cpp:131] Top shape: 1000 60 (60000)
I0504 07:42:47.846227 19717 net.cpp:139] Memory required for data: 303708000
I0504 07:42:47.846236 19717 layer_factory.hpp:77] Creating layer relu1
I0504 07:42:47.846243 19717 net.cpp:86] Creating Layer relu1
I0504 07:42:47.846247 19717 net.cpp:408] relu1 <- ip1
I0504 07:42:47.846252 19717 net.cpp:369] relu1 -> ip1 (in-place)
I0504 07:42:47.847137 19717 net.cpp:124] Setting up relu1
I0504 07:42:47.847151 19717 net.cpp:131] Top shape: 1000 60 (60000)
I0504 07:42:47.847156 19717 net.cpp:139] Memory required for data: 303948000
I0504 07:42:47.847160 19717 layer_factory.hpp:77] Creating layer ip2
I0504 07:42:47.847170 19717 net.cpp:86] Creating Layer ip2
I0504 07:42:47.847174 19717 net.cpp:408] ip2 <- ip1
I0504 07:42:47.847182 19717 net.cpp:382] ip2 -> ip2
I0504 07:42:47.847342 19717 net.cpp:124] Setting up ip2
I0504 07:42:47.847352 19717 net.cpp:131] Top shape: 1000 10 (10000)
I0504 07:42:47.847354 19717 net.cpp:139] Memory required for data: 303988000
I0504 07:42:47.847362 19717 layer_factory.hpp:77] Creating layer ip2_ip2_0_split
I0504 07:42:47.847368 19717 net.cpp:86] Creating Layer ip2_ip2_0_split
I0504 07:42:47.847371 19717 net.cpp:408] ip2_ip2_0_split <- ip2
I0504 07:42:47.847376 19717 net.cpp:382] ip2_ip2_0_split -> ip2_ip2_0_split_0
I0504 07:42:47.847383 19717 net.cpp:382] ip2_ip2_0_split -> ip2_ip2_0_split_1
I0504 07:42:47.847424 19717 net.cpp:124] Setting up ip2_ip2_0_split
I0504 07:42:47.847430 19717 net.cpp:131] Top shape: 1000 10 (10000)
I0504 07:42:47.847435 19717 net.cpp:131] Top shape: 1000 10 (10000)
I0504 07:42:47.847439 19717 net.cpp:139] Memory required for data: 304068000
I0504 07:42:47.847441 19717 layer_factory.hpp:77] Creating layer accuracy
I0504 07:42:47.847450 19717 net.cpp:86] Creating Layer accuracy
I0504 07:42:47.847453 19717 net.cpp:408] accuracy <- ip2_ip2_0_split_0
I0504 07:42:47.847457 19717 net.cpp:408] accuracy <- label_cifar_1_split_0
I0504 07:42:47.847462 19717 net.cpp:382] accuracy -> accuracy
…
