…
I0504 10:06:40.398965 24755 net.cpp:296] The NetState phase (0) differed from the phase (1) specified by a rule in layer cifar
I0504 10:06:40.398994 24755 net.cpp:296] The NetState phase (0) differed from the phase (1) specified by a rule in layer accuracy
I0504 10:06:40.399094 24755 net.cpp:53] Initializing net from parameters: 
name: "CIFAR"
state {
  phase: TRAIN
  level: 0
  stage: ""
}
layer {
  name: "cifar"
  type: "Data"
  top: "data"
  top: "label"
  include {
    phase: TRAIN
  }
  transform_param {
    mean_file: "examples/cifar10/mean.binaryproto"
  }
  data_param {
    source: "examples/cifar10/cifar10_train_lmdb"
    batch_size: 111
    backend: LMDB
  }
}
layer {
  name: "conv0"
  type: "Convolution"
  bottom: "data"
  top: "conv0"
  param {
    lr_mult: 1
  }
  param {
    lr_mult: 2
  }
  convolution_param {
    num_output: 24
    pad: 2
    kernel_size: 5
    stride: 1
    weight_filler {
      type: "gaussian"
      std: 0.01
    }
    bias_filler {
      type: "constant"
    }
  }
}
layer {
  name: "Sigmoid0"
  type: "Sigmoid"
  bottom: "conv0"
  top: "Sigmoid0"
}
layer {
  name: "pool0"
  type: "Pooling"
  bottom: "Sigmoid0"
  top: "pool0"
  pooling_param {
    pool: AVE
    kernel_size: 3
    stride: 2
  }
}
layer {
  name: "conv1"
  type: "Convolution"
  bottom: "pool0"
  top: "conv1"
  param {
    lr_mult: 1
  }
  param {
    lr_mult: 2
  }
  convolution_param {
    num_output: 72
    pad: 2
    kernel_size: 3
    stride: 1
    weight_filler {
      type: "gaussian"
      std: 0.01
    }
    bias_filler {
      type: "constant"
    }
  }
}
layer {
  name: "Sigmoid1"
  type: "Sigmoid"
  bottom: "conv1"
  top: "Sigmoid1"
}
layer {
  name: "pool1"
  type: "Pooling"
  bottom: "Sigmoid1"
  top: "pool1"
  pooling_param {
    pool: AVE
    kernel_size: 3
    stride: 2
  }
}
layer {
  name: "ip1"
  type: "InnerProduct"
  bottom: "pool1"
  top: "ip1"
  param {
    lr_mult: 1
  }
  param {
    lr_mult: 2
  }
  inner_product_param {
    num_output: 180
    weight_filler {
      type: "gaussian"
      std: 0.01
    }
    bias_filler {
      type: "constant"
    }
  }
}
layer {
  name: "relu1"
  type: "ReLU"
  bottom: "ip1"
  top: "ip1"
}
layer {
  name: "ip2"
  type: "InnerProduct"
  bottom: "ip1"
  top: "ip2"
  param {
    lr_mult: 1
  }
  param {
    lr_mult: 2
  }
  inner_product_param {
    num_output: 10
    weight_filler {
      type: "gaussian"
      std: 0.01
    }
    bias_filler {
      type: "constant"
    }
  }
}
layer {
  name: "relu2"
  type: "ReLU"
  bottom: "ip2"
  top: "ip2"
}
layer {
  name: "ip3"
  type: "InnerProduct"
  bottom: "ip2"
  top: "ip3"
  param {
    lr_mult: 1
  }
  param {
    lr_mult: 2
  }
  inner_product_param {
    num_output: 10
    weight_filler {
      type: "gaussian"
      std: 0.01
    }
    bias_filler {
      type: "constant"
    }
  }
}
layer {
  name: "loss"
  type: "SoftmaxWithLoss"
  bottom: "ip3"
  bottom: "label"
  top: "loss"
}
I0504 10:06:40.399159 24755 layer_factory.hpp:77] Creating layer cifar
I0504 10:06:40.399242 24755 db_lmdb.cpp:35] Opened lmdb examples/cifar10/cifar10_train_lmdb
I0504 10:06:40.399265 24755 net.cpp:86] Creating Layer cifar
I0504 10:06:40.399271 24755 net.cpp:382] cifar -> data
I0504 10:06:40.399288 24755 net.cpp:382] cifar -> label
I0504 10:06:40.399297 24755 data_transformer.cpp:25] Loading mean file from: examples/cifar10/mean.binaryproto
I0504 10:06:40.401167 24755 data_layer.cpp:45] output data size: 111,3,32,32
I0504 10:06:40.407668 24755 net.cpp:124] Setting up cifar
I0504 10:06:40.407713 24755 net.cpp:131] Top shape: 111 3 32 32 (340992)
I0504 10:06:40.407718 24755 net.cpp:131] Top shape: 111 (111)
I0504 10:06:40.407721 24755 net.cpp:139] Memory required for data: 1364412
I0504 10:06:40.407727 24755 layer_factory.hpp:77] Creating layer conv0
I0504 10:06:40.407759 24755 net.cpp:86] Creating Layer conv0
I0504 10:06:40.407764 24755 net.cpp:408] conv0 <- data
I0504 10:06:40.407775 24755 net.cpp:382] conv0 -> conv0
I0504 10:06:40.635716 24755 net.cpp:124] Setting up conv0
I0504 10:06:40.635771 24755 net.cpp:131] Top shape: 111 24 32 32 (2727936)
I0504 10:06:40.635776 24755 net.cpp:139] Memory required for data: 12276156
I0504 10:06:40.635790 24755 layer_factory.hpp:77] Creating layer Sigmoid0
I0504 10:06:40.635802 24755 net.cpp:86] Creating Layer Sigmoid0
I0504 10:06:40.635807 24755 net.cpp:408] Sigmoid0 <- conv0
I0504 10:06:40.635812 24755 net.cpp:382] Sigmoid0 -> Sigmoid0
I0504 10:06:40.635998 24755 net.cpp:124] Setting up Sigmoid0
I0504 10:06:40.636005 24755 net.cpp:131] Top shape: 111 24 32 32 (2727936)
I0504 10:06:40.636008 24755 net.cpp:139] Memory required for data: 23187900
I0504 10:06:40.636013 24755 layer_factory.hpp:77] Creating layer pool0
I0504 10:06:40.636018 24755 net.cpp:86] Creating Layer pool0
I0504 10:06:40.636021 24755 net.cpp:408] pool0 <- Sigmoid0
I0504 10:06:40.636026 24755 net.cpp:382] pool0 -> pool0
I0504 10:06:40.636871 24755 net.cpp:124] Setting up pool0
I0504 10:06:40.636885 24755 net.cpp:131] Top shape: 111 24 16 16 (681984)
I0504 10:06:40.636889 24755 net.cpp:139] Memory required for data: 25915836
I0504 10:06:40.636893 24755 layer_factory.hpp:77] Creating layer conv1
I0504 10:06:40.636920 24755 net.cpp:86] Creating Layer conv1
I0504 10:06:40.636924 24755 net.cpp:408] conv1 <- pool0
I0504 10:06:40.636929 24755 net.cpp:382] conv1 -> conv1
I0504 10:06:40.639899 24755 net.cpp:124] Setting up conv1
I0504 10:06:40.639911 24755 net.cpp:131] Top shape: 111 72 18 18 (2589408)
I0504 10:06:40.639930 24755 net.cpp:139] Memory required for data: 36273468
I0504 10:06:40.639940 24755 layer_factory.hpp:77] Creating layer Sigmoid1
I0504 10:06:40.639945 24755 net.cpp:86] Creating Layer Sigmoid1
I0504 10:06:40.639948 24755 net.cpp:408] Sigmoid1 <- conv1
I0504 10:06:40.639953 24755 net.cpp:382] Sigmoid1 -> Sigmoid1
I0504 10:06:40.640136 24755 net.cpp:124] Setting up Sigmoid1
I0504 10:06:40.640144 24755 net.cpp:131] Top shape: 111 72 18 18 (2589408)
I0504 10:06:40.640147 24755 net.cpp:139] Memory required for data: 46631100
I0504 10:06:40.640151 24755 layer_factory.hpp:77] Creating layer pool1
I0504 10:06:40.640157 24755 net.cpp:86] Creating Layer pool1
I0504 10:06:40.640161 24755 net.cpp:408] pool1 <- Sigmoid1
I0504 10:06:40.640166 24755 net.cpp:382] pool1 -> pool1
I0504 10:06:40.640326 24755 net.cpp:124] Setting up pool1
I0504 10:06:40.640334 24755 net.cpp:131] Top shape: 111 72 9 9 (647352)
I0504 10:06:40.640337 24755 net.cpp:139] Memory required for data: 49220508
I0504 10:06:40.640341 24755 layer_factory.hpp:77] Creating layer ip1
I0504 10:06:40.640348 24755 net.cpp:86] Creating Layer ip1
I0504 10:06:40.640352 24755 net.cpp:408] ip1 <- pool1
I0504 10:06:40.640357 24755 net.cpp:382] ip1 -> ip1
I0504 10:06:40.668656 24755 net.cpp:124] Setting up ip1
I0504 10:06:40.668668 24755 net.cpp:131] Top shape: 111 180 (19980)
I0504 10:06:40.668673 24755 net.cpp:139] Memory required for data: 49300428
I0504 10:06:40.668679 24755 layer_factory.hpp:77] Creating layer relu1
I0504 10:06:40.668686 24755 net.cpp:86] Creating Layer relu1
I0504 10:06:40.668689 24755 net.cpp:408] relu1 <- ip1
I0504 10:06:40.668694 24755 net.cpp:369] relu1 -> ip1 (in-place)
I0504 10:06:40.668910 24755 net.cpp:124] Setting up relu1
I0504 10:06:40.668918 24755 net.cpp:131] Top shape: 111 180 (19980)
I0504 10:06:40.668922 24755 net.cpp:139] Memory required for data: 49380348
I0504 10:06:40.668926 24755 layer_factory.hpp:77] Creating layer ip2
I0504 10:06:40.668933 24755 net.cpp:86] Creating Layer ip2
I0504 10:06:40.668936 24755 net.cpp:408] ip2 <- ip1
I0504 10:06:40.668956 24755 net.cpp:382] ip2 -> ip2
I0504 10:06:40.669147 24755 net.cpp:124] Setting up ip2
I0504 10:06:40.669154 24755 net.cpp:131] Top shape: 111 10 (1110)
I0504 10:06:40.669157 24755 net.cpp:139] Memory required for data: 49384788
I0504 10:06:40.669163 24755 layer_factory.hpp:77] Creating layer relu2
I0504 10:06:40.669168 24755 net.cpp:86] Creating Layer relu2
I0504 10:06:40.669186 24755 net.cpp:408] relu2 <- ip2
I0504 10:06:40.669190 24755 net.cpp:369] relu2 -> ip2 (in-place)
I0504 10:06:40.669935 24755 net.cpp:124] Setting up relu2
I0504 10:06:40.669948 24755 net.cpp:131] Top shape: 111 10 (1110)
I0504 10:06:40.669966 24755 net.cpp:139] Memory required for data: 49389228
I0504 10:06:40.669970 24755 layer_factory.hpp:77] Creating layer ip3
I0504 10:06:40.669976 24755 net.cpp:86] Creating Layer ip3
I0504 10:06:40.669982 24755 net.cpp:408] ip3 <- ip2
I0504 10:06:40.669987 24755 net.cpp:382] ip3 -> ip3
I0504 10:06:40.670106 24755 net.cpp:124] Setting up ip3
I0504 10:06:40.670114 24755 net.cpp:131] Top shape: 111 10 (1110)
I0504 10:06:40.670117 24755 net.cpp:139] Memory required for data: 49393668
I0504 10:06:40.670125 24755 layer_factory.hpp:77] Creating layer loss
I0504 10:06:40.670131 24755 net.cpp:86] Creating Layer loss
I0504 10:06:40.670135 24755 net.cpp:408] loss <- ip3
I0504 10:06:40.670137 24755 net.cpp:408] loss <- label
I0504 10:06:40.670161 24755 net.cpp:382] loss -> loss
I0504 10:06:40.670174 24755 layer_factory.hpp:77] Creating layer loss
…
I0504 10:06:40.670930 24755 solver.cpp:173] Creating test net (#0) specified by net file: ECE595/cifar/train_test/var_everything_tiny/cifar_train_test_129.prototxt
I0504 10:06:40.670986 24755 net.cpp:296] The NetState phase (1) differed from the phase (0) specified by a rule in layer cifar
I0504 10:06:40.671109 24755 net.cpp:53] Initializing net from parameters: 
name: "CIFAR"
state {
  phase: TEST
}
layer {
  name: "cifar"
  type: "Data"
  top: "data"
  top: "label"
  include {
    phase: TEST
  }
  transform_param {
    mean_file: "examples/cifar10/mean.binaryproto"
  }
  data_param {
    source: "examples/cifar10/cifar10_test_lmdb"
    batch_size: 1000
    backend: LMDB
  }
}
layer {
  name: "conv0"
  type: "Convolution"
  bottom: "data"
  top: "conv0"
  param {
    lr_mult: 1
  }
  param {
    lr_mult: 2
  }
  convolution_param {
    num_output: 24
    pad: 2
    kernel_size: 5
    stride: 1
    weight_filler {
      type: "gaussian"
      std: 0.01
    }
    bias_filler {
      type: "constant"
    }
  }
}
layer {
  name: "Sigmoid0"
  type: "Sigmoid"
  bottom: "conv0"
  top: "Sigmoid0"
}
layer {
  name: "pool0"
  type: "Pooling"
  bottom: "Sigmoid0"
  top: "pool0"
  pooling_param {
    pool: AVE
    kernel_size: 3
    stride: 2
  }
}
layer {
  name: "conv1"
  type: "Convolution"
  bottom: "pool0"
  top: "conv1"
  param {
    lr_mult: 1
  }
  param {
    lr_mult: 2
  }
  convolution_param {
    num_output: 72
    pad: 2
    kernel_size: 3
    stride: 1
    weight_filler {
      type: "gaussian"
      std: 0.01
    }
    bias_filler {
      type: "constant"
    }
  }
}
layer {
  name: "Sigmoid1"
  type: "Sigmoid"
  bottom: "conv1"
  top: "Sigmoid1"
}
layer {
  name: "pool1"
  type: "Pooling"
  bottom: "Sigmoid1"
  top: "pool1"
  pooling_param {
    pool: AVE
    kernel_size: 3
    stride: 2
  }
}
layer {
  name: "ip1"
  type: "InnerProduct"
  bottom: "pool1"
  top: "ip1"
  param {
    lr_mult: 1
  }
  param {
    lr_mult: 2
  }
  inner_product_param {
    num_output: 180
    weight_filler {
      type: "gaussian"
      std: 0.01
    }
    bias_filler {
      type: "constant"
    }
  }
}
layer {
  name: "relu1"
  type: "ReLU"
  bottom: "ip1"
  top: "ip1"
}
layer {
  name: "ip2"
  type: "InnerProduct"
  bottom: "ip1"
  top: "ip2"
  param {
    lr_mult: 1
  }
  param {
    lr_mult: 2
  }
  inner_product_param {
    num_output: 10
    weight_filler {
      type: "gaussian"
      std: 0.01
    }
    bias_filler {
      type: "constant"
    }
  }
}
layer {
  name: "relu2"
  type: "ReLU"
  bottom: "ip2"
  top: "ip2"
}
layer {
  name: "ip3"
  type: "InnerProduct"
  bottom: "ip2"
  top: "ip3"
  param {
    lr_mult: 1
  }
  param {
    lr_mult: 2
  }
  inner_product_param {
    num_output: 10
    weight_filler {
      type: "gaussian"
      std: 0.01
    }
    bias_filler {
      type: "constant"
    }
  }
}
layer {
  name: "accuracy"
  type: "Accuracy"
  bottom: "ip3"
  bottom: "label"
  top: "accuracy"
  include {
    phase: TEST
  }
}
layer {
  name: "loss"
  type: "SoftmaxWithLoss"
  bottom: "ip3"
  bottom: "label"
  top: "loss"
}
I0504 10:06:40.671191 24755 layer_factory.hpp:77] Creating layer cifar
I0504 10:06:40.671252 24755 db_lmdb.cpp:35] Opened lmdb examples/cifar10/cifar10_test_lmdb
I0504 10:06:40.671278 24755 net.cpp:86] Creating Layer cifar
I0504 10:06:40.671284 24755 net.cpp:382] cifar -> data
I0504 10:06:40.671293 24755 net.cpp:382] cifar -> label
I0504 10:06:40.671299 24755 data_transformer.cpp:25] Loading mean file from: examples/cifar10/mean.binaryproto
I0504 10:06:40.671466 24755 data_layer.cpp:45] output data size: 1000,3,32,32
I0504 10:06:40.692822 24755 net.cpp:124] Setting up cifar
I0504 10:06:40.692879 24755 net.cpp:131] Top shape: 1000 3 32 32 (3072000)
I0504 10:06:40.692884 24755 net.cpp:131] Top shape: 1000 (1000)
I0504 10:06:40.692888 24755 net.cpp:139] Memory required for data: 12292000
I0504 10:06:40.692909 24755 layer_factory.hpp:77] Creating layer label_cifar_1_split
I0504 10:06:40.692922 24755 net.cpp:86] Creating Layer label_cifar_1_split
I0504 10:06:40.692927 24755 net.cpp:408] label_cifar_1_split <- label
I0504 10:06:40.692932 24755 net.cpp:382] label_cifar_1_split -> label_cifar_1_split_0
I0504 10:06:40.692956 24755 net.cpp:382] label_cifar_1_split -> label_cifar_1_split_1
I0504 10:06:40.693068 24755 net.cpp:124] Setting up label_cifar_1_split
I0504 10:06:40.693076 24755 net.cpp:131] Top shape: 1000 (1000)
I0504 10:06:40.693080 24755 net.cpp:131] Top shape: 1000 (1000)
I0504 10:06:40.693084 24755 net.cpp:139] Memory required for data: 12300000
I0504 10:06:40.693087 24755 layer_factory.hpp:77] Creating layer conv0
I0504 10:06:40.693102 24755 net.cpp:86] Creating Layer conv0
I0504 10:06:40.693106 24755 net.cpp:408] conv0 <- data
I0504 10:06:40.693114 24755 net.cpp:382] conv0 -> conv0
I0504 10:06:40.694814 24755 net.cpp:124] Setting up conv0
I0504 10:06:40.694828 24755 net.cpp:131] Top shape: 1000 24 32 32 (24576000)
I0504 10:06:40.694833 24755 net.cpp:139] Memory required for data: 110604000
I0504 10:06:40.694841 24755 layer_factory.hpp:77] Creating layer Sigmoid0
I0504 10:06:40.694864 24755 net.cpp:86] Creating Layer Sigmoid0
I0504 10:06:40.694866 24755 net.cpp:408] Sigmoid0 <- conv0
I0504 10:06:40.694871 24755 net.cpp:382] Sigmoid0 -> Sigmoid0
I0504 10:06:40.695051 24755 net.cpp:124] Setting up Sigmoid0
I0504 10:06:40.695073 24755 net.cpp:131] Top shape: 1000 24 32 32 (24576000)
I0504 10:06:40.695076 24755 net.cpp:139] Memory required for data: 208908000
I0504 10:06:40.695080 24755 layer_factory.hpp:77] Creating layer pool0
I0504 10:06:40.695087 24755 net.cpp:86] Creating Layer pool0
I0504 10:06:40.695092 24755 net.cpp:408] pool0 <- Sigmoid0
I0504 10:06:40.695098 24755 net.cpp:382] pool0 -> pool0
I0504 10:06:40.696368 24755 net.cpp:124] Setting up pool0
I0504 10:06:40.696379 24755 net.cpp:131] Top shape: 1000 24 16 16 (6144000)
I0504 10:06:40.696398 24755 net.cpp:139] Memory required for data: 233484000
I0504 10:06:40.696400 24755 layer_factory.hpp:77] Creating layer conv1
I0504 10:06:40.696410 24755 net.cpp:86] Creating Layer conv1
I0504 10:06:40.696414 24755 net.cpp:408] conv1 <- pool0
I0504 10:06:40.696420 24755 net.cpp:382] conv1 -> conv1
I0504 10:06:40.698202 24755 net.cpp:124] Setting up conv1
I0504 10:06:40.698231 24755 net.cpp:131] Top shape: 1000 72 18 18 (23328000)
I0504 10:06:40.698235 24755 net.cpp:139] Memory required for data: 326796000
I0504 10:06:40.698246 24755 layer_factory.hpp:77] Creating layer Sigmoid1
I0504 10:06:40.698252 24755 net.cpp:86] Creating Layer Sigmoid1
I0504 10:06:40.698256 24755 net.cpp:408] Sigmoid1 <- conv1
I0504 10:06:40.698261 24755 net.cpp:382] Sigmoid1 -> Sigmoid1
I0504 10:06:40.698447 24755 net.cpp:124] Setting up Sigmoid1
I0504 10:06:40.698457 24755 net.cpp:131] Top shape: 1000 72 18 18 (23328000)
I0504 10:06:40.698460 24755 net.cpp:139] Memory required for data: 420108000
I0504 10:06:40.698463 24755 layer_factory.hpp:77] Creating layer pool1
I0504 10:06:40.698469 24755 net.cpp:86] Creating Layer pool1
I0504 10:06:40.698473 24755 net.cpp:408] pool1 <- Sigmoid1
I0504 10:06:40.698478 24755 net.cpp:382] pool1 -> pool1
I0504 10:06:40.699254 24755 net.cpp:124] Setting up pool1
I0504 10:06:40.699280 24755 net.cpp:131] Top shape: 1000 72 9 9 (5832000)
I0504 10:06:40.699283 24755 net.cpp:139] Memory required for data: 443436000
I0504 10:06:40.699287 24755 layer_factory.hpp:77] Creating layer ip1
I0504 10:06:40.699297 24755 net.cpp:86] Creating Layer ip1
I0504 10:06:40.699301 24755 net.cpp:408] ip1 <- pool1
I0504 10:06:40.699306 24755 net.cpp:382] ip1 -> ip1
I0504 10:06:40.728050 24755 net.cpp:124] Setting up ip1
I0504 10:06:40.728099 24755 net.cpp:131] Top shape: 1000 180 (180000)
I0504 10:06:40.728103 24755 net.cpp:139] Memory required for data: 444156000
I0504 10:06:40.728114 24755 layer_factory.hpp:77] Creating layer relu1
I0504 10:06:40.728123 24755 net.cpp:86] Creating Layer relu1
I0504 10:06:40.728127 24755 net.cpp:408] relu1 <- ip1
I0504 10:06:40.728133 24755 net.cpp:369] relu1 -> ip1 (in-place)
I0504 10:06:40.728340 24755 net.cpp:124] Setting up relu1
I0504 10:06:40.728349 24755 net.cpp:131] Top shape: 1000 180 (180000)
I0504 10:06:40.728354 24755 net.cpp:139] Memory required for data: 444876000
I0504 10:06:40.728358 24755 layer_factory.hpp:77] Creating layer ip2
I0504 10:06:40.728366 24755 net.cpp:86] Creating Layer ip2
I0504 10:06:40.728369 24755 net.cpp:408] ip2 <- ip1
I0504 10:06:40.728375 24755 net.cpp:382] ip2 -> ip2
I0504 10:06:40.728560 24755 net.cpp:124] Setting up ip2
I0504 10:06:40.728569 24755 net.cpp:131] Top shape: 1000 10 (10000)
I0504 10:06:40.728571 24755 net.cpp:139] Memory required for data: 444916000
I0504 10:06:40.728576 24755 layer_factory.hpp:77] Creating layer relu2
I0504 10:06:40.728588 24755 net.cpp:86] Creating Layer relu2
I0504 10:06:40.728591 24755 net.cpp:408] relu2 <- ip2
I0504 10:06:40.728595 24755 net.cpp:369] relu2 -> ip2 (in-place)
I0504 10:06:40.728752 24755 net.cpp:124] Setting up relu2
I0504 10:06:40.728761 24755 net.cpp:131] Top shape: 1000 10 (10000)
I0504 10:06:40.728765 24755 net.cpp:139] Memory required for data: 444956000
I0504 10:06:40.728767 24755 layer_factory.hpp:77] Creating layer ip3
I0504 10:06:40.728775 24755 net.cpp:86] Creating Layer ip3
I0504 10:06:40.728777 24755 net.cpp:408] ip3 <- ip2
I0504 10:06:40.728783 24755 net.cpp:382] ip3 -> ip3
I0504 10:06:40.728917 24755 net.cpp:124] Setting up ip3
I0504 10:06:40.728925 24755 net.cpp:131] Top shape: 1000 10 (10000)
I0504 10:06:40.728940 24755 net.cpp:139] Memory required for data: 444996000
I0504 10:06:40.728950 24755 layer_factory.hpp:77] Creating layer ip3_ip3_0_split
I0504 10:06:40.728956 24755 net.cpp:86] Creating Layer ip3_ip3_0_split
I0504 10:06:40.728960 24755 net.cpp:408] ip3_ip3_0_split <- ip3
I0504 10:06:40.728965 24755 net.cpp:382] ip3_ip3_0_split -> ip3_ip3_0_split_0
I0504 10:06:40.728971 24755 net.cpp:382] ip3_ip3_0_split -> ip3_ip3_0_split_1
I0504 10:06:40.729004 24755 net.cpp:124] Setting up ip3_ip3_0_split
I0504 10:06:40.729012 24755 net.cpp:131] Top shape: 1000 10 (10000)
I0504 10:06:40.729017 24755 net.cpp:131] Top shape: 1000 10 (10000)
I0504 10:06:40.729019 24755 net.cpp:139] Memory required for data: 445076000
I0504 10:06:40.729022 24755 layer_factory.hpp:77] Creating layer accuracy
I0504 10:06:40.729030 24755 net.cpp:86] Creating Layer accuracy
I0504 10:06:40.729033 24755 net.cpp:408] accuracy <- ip3_ip3_0_split_0
I0504 10:06:40.729038 24755 net.cpp:408] accuracy <- label_cifar_1_split_0
I0504 10:06:40.729041 24755 net.cpp:382] accuracy -> accuracy
…
