…
I0504 08:12:05.357673 21355 net.cpp:296] The NetState phase (0) differed from the phase (1) specified by a rule in layer cifar
I0504 08:12:05.357697 21355 net.cpp:296] The NetState phase (0) differed from the phase (1) specified by a rule in layer accuracy
I0504 08:12:05.357805 21355 net.cpp:53] Initializing net from parameters: 
name: "CIFAR"
state {
  phase: TRAIN
  level: 0
  stage: ""
}
layer {
  name: "cifar"
  type: "Data"
  top: "data"
  top: "label"
  include {
    phase: TRAIN
  }
  transform_param {
    mean_file: "examples/cifar10/mean.binaryproto"
  }
  data_param {
    source: "examples/cifar10/cifar10_train_lmdb"
    batch_size: 111
    backend: LMDB
  }
}
layer {
  name: "conv0"
  type: "Convolution"
  bottom: "data"
  top: "conv0"
  param {
    lr_mult: 1
  }
  param {
    lr_mult: 2
  }
  convolution_param {
    num_output: 24
    pad: 2
    kernel_size: 5
    stride: 1
    weight_filler {
      type: "gaussian"
      std: 0.01
    }
    bias_filler {
      type: "constant"
    }
  }
}
layer {
  name: "Sigmoid0"
  type: "Sigmoid"
  bottom: "conv0"
  top: "Sigmoid0"
}
layer {
  name: "pool0"
  type: "Pooling"
  bottom: "Sigmoid0"
  top: "pool0"
  pooling_param {
    pool: AVE
    kernel_size: 3
    stride: 2
  }
}
layer {
  name: "conv1"
  type: "Convolution"
  bottom: "pool0"
  top: "conv1"
  param {
    lr_mult: 1
  }
  param {
    lr_mult: 2
  }
  convolution_param {
    num_output: 24
    pad: 2
    kernel_size: 5
    stride: 1
    weight_filler {
      type: "gaussian"
      std: 0.01
    }
    bias_filler {
      type: "constant"
    }
  }
}
layer {
  name: "Sigmoid1"
  type: "Sigmoid"
  bottom: "conv1"
  top: "Sigmoid1"
}
layer {
  name: "pool1"
  type: "Pooling"
  bottom: "Sigmoid1"
  top: "pool1"
  pooling_param {
    pool: AVE
    kernel_size: 3
    stride: 2
  }
}
layer {
  name: "ip1"
  type: "InnerProduct"
  bottom: "pool1"
  top: "ip1"
  param {
    lr_mult: 1
  }
  param {
    lr_mult: 2
  }
  inner_product_param {
    num_output: 10
    weight_filler {
      type: "gaussian"
      std: 0.01
    }
    bias_filler {
      type: "constant"
    }
  }
}
layer {
  name: "relu1"
  type: "ReLU"
  bottom: "ip1"
  top: "ip1"
}
layer {
  name: "ip2"
  type: "InnerProduct"
  bottom: "ip1"
  top: "ip2"
  param {
    lr_mult: 1
  }
  param {
    lr_mult: 2
  }
  inner_product_param {
    num_output: 10
    weight_filler {
      type: "gaussian"
      std: 0.01
    }
    bias_filler {
      type: "constant"
    }
  }
}
layer {
  name: "loss"
  type: "SoftmaxWithLoss"
  bottom: "ip2"
  bottom: "label"
  top: "loss"
}
I0504 08:12:05.357884 21355 layer_factory.hpp:77] Creating layer cifar
I0504 08:12:05.357985 21355 db_lmdb.cpp:35] Opened lmdb examples/cifar10/cifar10_train_lmdb
I0504 08:12:05.358014 21355 net.cpp:86] Creating Layer cifar
I0504 08:12:05.358023 21355 net.cpp:382] cifar -> data
I0504 08:12:05.358047 21355 net.cpp:382] cifar -> label
I0504 08:12:05.358060 21355 data_transformer.cpp:25] Loading mean file from: examples/cifar10/mean.binaryproto
I0504 08:12:05.360237 21355 data_layer.cpp:45] output data size: 111,3,32,32
I0504 08:12:05.368233 21355 net.cpp:124] Setting up cifar
I0504 08:12:05.368253 21355 net.cpp:131] Top shape: 111 3 32 32 (340992)
I0504 08:12:05.368259 21355 net.cpp:131] Top shape: 111 (111)
I0504 08:12:05.368263 21355 net.cpp:139] Memory required for data: 1364412
I0504 08:12:05.368270 21355 layer_factory.hpp:77] Creating layer conv0
I0504 08:12:05.368289 21355 net.cpp:86] Creating Layer conv0
I0504 08:12:05.368309 21355 net.cpp:408] conv0 <- data
I0504 08:12:05.368322 21355 net.cpp:382] conv0 -> conv0
I0504 08:12:05.648069 21355 net.cpp:124] Setting up conv0
I0504 08:12:05.648110 21355 net.cpp:131] Top shape: 111 24 32 32 (2727936)
I0504 08:12:05.648114 21355 net.cpp:139] Memory required for data: 12276156
I0504 08:12:05.648129 21355 layer_factory.hpp:77] Creating layer Sigmoid0
I0504 08:12:05.648140 21355 net.cpp:86] Creating Layer Sigmoid0
I0504 08:12:05.648144 21355 net.cpp:408] Sigmoid0 <- conv0
I0504 08:12:05.648149 21355 net.cpp:382] Sigmoid0 -> Sigmoid0
I0504 08:12:05.648345 21355 net.cpp:124] Setting up Sigmoid0
I0504 08:12:05.648355 21355 net.cpp:131] Top shape: 111 24 32 32 (2727936)
I0504 08:12:05.648357 21355 net.cpp:139] Memory required for data: 23187900
I0504 08:12:05.648360 21355 layer_factory.hpp:77] Creating layer pool0
I0504 08:12:05.648367 21355 net.cpp:86] Creating Layer pool0
I0504 08:12:05.648370 21355 net.cpp:408] pool0 <- Sigmoid0
I0504 08:12:05.648375 21355 net.cpp:382] pool0 -> pool0
I0504 08:12:05.649089 21355 net.cpp:124] Setting up pool0
I0504 08:12:05.649117 21355 net.cpp:131] Top shape: 111 24 16 16 (681984)
I0504 08:12:05.649121 21355 net.cpp:139] Memory required for data: 25915836
I0504 08:12:05.649124 21355 layer_factory.hpp:77] Creating layer conv1
I0504 08:12:05.649150 21355 net.cpp:86] Creating Layer conv1
I0504 08:12:05.649154 21355 net.cpp:408] conv1 <- pool0
I0504 08:12:05.649159 21355 net.cpp:382] conv1 -> conv1
I0504 08:12:05.651960 21355 net.cpp:124] Setting up conv1
I0504 08:12:05.651973 21355 net.cpp:131] Top shape: 111 24 16 16 (681984)
I0504 08:12:05.651976 21355 net.cpp:139] Memory required for data: 28643772
I0504 08:12:05.651984 21355 layer_factory.hpp:77] Creating layer Sigmoid1
I0504 08:12:05.651990 21355 net.cpp:86] Creating Layer Sigmoid1
I0504 08:12:05.651993 21355 net.cpp:408] Sigmoid1 <- conv1
I0504 08:12:05.651998 21355 net.cpp:382] Sigmoid1 -> Sigmoid1
I0504 08:12:05.652168 21355 net.cpp:124] Setting up Sigmoid1
I0504 08:12:05.652175 21355 net.cpp:131] Top shape: 111 24 16 16 (681984)
I0504 08:12:05.652179 21355 net.cpp:139] Memory required for data: 31371708
I0504 08:12:05.652181 21355 layer_factory.hpp:77] Creating layer pool1
I0504 08:12:05.652187 21355 net.cpp:86] Creating Layer pool1
I0504 08:12:05.652189 21355 net.cpp:408] pool1 <- Sigmoid1
I0504 08:12:05.652194 21355 net.cpp:382] pool1 -> pool1
I0504 08:12:05.652359 21355 net.cpp:124] Setting up pool1
I0504 08:12:05.652367 21355 net.cpp:131] Top shape: 111 24 8 8 (170496)
I0504 08:12:05.652370 21355 net.cpp:139] Memory required for data: 32053692
I0504 08:12:05.652372 21355 layer_factory.hpp:77] Creating layer ip1
I0504 08:12:05.652379 21355 net.cpp:86] Creating Layer ip1
I0504 08:12:05.652382 21355 net.cpp:408] ip1 <- pool1
I0504 08:12:05.652387 21355 net.cpp:382] ip1 -> ip1
I0504 08:12:05.652914 21355 net.cpp:124] Setting up ip1
I0504 08:12:05.652920 21355 net.cpp:131] Top shape: 111 10 (1110)
I0504 08:12:05.652935 21355 net.cpp:139] Memory required for data: 32058132
I0504 08:12:05.652941 21355 layer_factory.hpp:77] Creating layer relu1
I0504 08:12:05.652948 21355 net.cpp:86] Creating Layer relu1
I0504 08:12:05.652951 21355 net.cpp:408] relu1 <- ip1
I0504 08:12:05.652956 21355 net.cpp:369] relu1 -> ip1 (in-place)
I0504 08:12:05.653118 21355 net.cpp:124] Setting up relu1
I0504 08:12:05.653126 21355 net.cpp:131] Top shape: 111 10 (1110)
I0504 08:12:05.653129 21355 net.cpp:139] Memory required for data: 32062572
I0504 08:12:05.653147 21355 layer_factory.hpp:77] Creating layer ip2
I0504 08:12:05.653153 21355 net.cpp:86] Creating Layer ip2
I0504 08:12:05.653156 21355 net.cpp:408] ip2 <- ip1
I0504 08:12:05.653162 21355 net.cpp:382] ip2 -> ip2
I0504 08:12:05.653252 21355 net.cpp:124] Setting up ip2
I0504 08:12:05.653259 21355 net.cpp:131] Top shape: 111 10 (1110)
I0504 08:12:05.653262 21355 net.cpp:139] Memory required for data: 32067012
I0504 08:12:05.653267 21355 layer_factory.hpp:77] Creating layer loss
I0504 08:12:05.653271 21355 net.cpp:86] Creating Layer loss
I0504 08:12:05.653288 21355 net.cpp:408] loss <- ip2
I0504 08:12:05.653292 21355 net.cpp:408] loss <- label
I0504 08:12:05.653296 21355 net.cpp:382] loss -> loss
I0504 08:12:05.653312 21355 layer_factory.hpp:77] Creating layer loss
…
I0504 08:12:05.654516 21355 solver.cpp:173] Creating test net (#0) specified by net file: ECE595/cifar/train_test/var_everything_tiny/cifar_train_test_96.prototxt
I0504 08:12:05.654541 21355 net.cpp:296] The NetState phase (1) differed from the phase (0) specified by a rule in layer cifar
I0504 08:12:05.654628 21355 net.cpp:53] Initializing net from parameters: 
name: "CIFAR"
state {
  phase: TEST
}
layer {
  name: "cifar"
  type: "Data"
  top: "data"
  top: "label"
  include {
    phase: TEST
  }
  transform_param {
    mean_file: "examples/cifar10/mean.binaryproto"
  }
  data_param {
    source: "examples/cifar10/cifar10_test_lmdb"
    batch_size: 1000
    backend: LMDB
  }
}
layer {
  name: "conv0"
  type: "Convolution"
  bottom: "data"
  top: "conv0"
  param {
    lr_mult: 1
  }
  param {
    lr_mult: 2
  }
  convolution_param {
    num_output: 24
    pad: 2
    kernel_size: 5
    stride: 1
    weight_filler {
      type: "gaussian"
      std: 0.01
    }
    bias_filler {
      type: "constant"
    }
  }
}
layer {
  name: "Sigmoid0"
  type: "Sigmoid"
  bottom: "conv0"
  top: "Sigmoid0"
}
layer {
  name: "pool0"
  type: "Pooling"
  bottom: "Sigmoid0"
  top: "pool0"
  pooling_param {
    pool: AVE
    kernel_size: 3
    stride: 2
  }
}
layer {
  name: "conv1"
  type: "Convolution"
  bottom: "pool0"
  top: "conv1"
  param {
    lr_mult: 1
  }
  param {
    lr_mult: 2
  }
  convolution_param {
    num_output: 24
    pad: 2
    kernel_size: 5
    stride: 1
    weight_filler {
      type: "gaussian"
      std: 0.01
    }
    bias_filler {
      type: "constant"
    }
  }
}
layer {
  name: "Sigmoid1"
  type: "Sigmoid"
  bottom: "conv1"
  top: "Sigmoid1"
}
layer {
  name: "pool1"
  type: "Pooling"
  bottom: "Sigmoid1"
  top: "pool1"
  pooling_param {
    pool: AVE
    kernel_size: 3
    stride: 2
  }
}
layer {
  name: "ip1"
  type: "InnerProduct"
  bottom: "pool1"
  top: "ip1"
  param {
    lr_mult: 1
  }
  param {
    lr_mult: 2
  }
  inner_product_param {
    num_output: 10
    weight_filler {
      type: "gaussian"
      std: 0.01
    }
    bias_filler {
      type: "constant"
    }
  }
}
layer {
  name: "relu1"
  type: "ReLU"
  bottom: "ip1"
  top: "ip1"
}
layer {
  name: "ip2"
  type: "InnerProduct"
  bottom: "ip1"
  top: "ip2"
  param {
    lr_mult: 1
  }
  param {
    lr_mult: 2
  }
  inner_product_param {
    num_output: 10
    weight_filler {
      type: "gaussian"
      std: 0.01
    }
    bias_filler {
      type: "constant"
    }
  }
}
layer {
  name: "accuracy"
  type: "Accuracy"
  bottom: "ip2"
  bottom: "label"
  top: "accuracy"
  include {
    phase: TEST
  }
}
layer {
  name: "loss"
  type: "SoftmaxWithLoss"
  bottom: "ip2"
  bottom: "label"
  top: "loss"
}
I0504 08:12:05.654701 21355 layer_factory.hpp:77] Creating layer cifar
I0504 08:12:05.654744 21355 db_lmdb.cpp:35] Opened lmdb examples/cifar10/cifar10_test_lmdb
I0504 08:12:05.654757 21355 net.cpp:86] Creating Layer cifar
I0504 08:12:05.654760 21355 net.cpp:382] cifar -> data
I0504 08:12:05.654768 21355 net.cpp:382] cifar -> label
I0504 08:12:05.654774 21355 data_transformer.cpp:25] Loading mean file from: examples/cifar10/mean.binaryproto
I0504 08:12:05.654922 21355 data_layer.cpp:45] output data size: 1000,3,32,32
I0504 08:12:05.676249 21355 net.cpp:124] Setting up cifar
I0504 08:12:05.676287 21355 net.cpp:131] Top shape: 1000 3 32 32 (3072000)
I0504 08:12:05.676293 21355 net.cpp:131] Top shape: 1000 (1000)
I0504 08:12:05.676296 21355 net.cpp:139] Memory required for data: 12292000
I0504 08:12:05.676302 21355 layer_factory.hpp:77] Creating layer label_cifar_1_split
I0504 08:12:05.676318 21355 net.cpp:86] Creating Layer label_cifar_1_split
I0504 08:12:05.676322 21355 net.cpp:408] label_cifar_1_split <- label
I0504 08:12:05.676328 21355 net.cpp:382] label_cifar_1_split -> label_cifar_1_split_0
I0504 08:12:05.676352 21355 net.cpp:382] label_cifar_1_split -> label_cifar_1_split_1
I0504 08:12:05.676465 21355 net.cpp:124] Setting up label_cifar_1_split
I0504 08:12:05.676473 21355 net.cpp:131] Top shape: 1000 (1000)
I0504 08:12:05.676476 21355 net.cpp:131] Top shape: 1000 (1000)
I0504 08:12:05.676479 21355 net.cpp:139] Memory required for data: 12300000
I0504 08:12:05.676482 21355 layer_factory.hpp:77] Creating layer conv0
I0504 08:12:05.676494 21355 net.cpp:86] Creating Layer conv0
I0504 08:12:05.676497 21355 net.cpp:408] conv0 <- data
I0504 08:12:05.676503 21355 net.cpp:382] conv0 -> conv0
I0504 08:12:05.677433 21355 net.cpp:124] Setting up conv0
I0504 08:12:05.677461 21355 net.cpp:131] Top shape: 1000 24 32 32 (24576000)
I0504 08:12:05.677464 21355 net.cpp:139] Memory required for data: 110604000
I0504 08:12:05.677474 21355 layer_factory.hpp:77] Creating layer Sigmoid0
I0504 08:12:05.677480 21355 net.cpp:86] Creating Layer Sigmoid0
I0504 08:12:05.677484 21355 net.cpp:408] Sigmoid0 <- conv0
I0504 08:12:05.677489 21355 net.cpp:382] Sigmoid0 -> Sigmoid0
I0504 08:12:05.678395 21355 net.cpp:124] Setting up Sigmoid0
I0504 08:12:05.678406 21355 net.cpp:131] Top shape: 1000 24 32 32 (24576000)
I0504 08:12:05.678426 21355 net.cpp:139] Memory required for data: 208908000
I0504 08:12:05.678428 21355 layer_factory.hpp:77] Creating layer pool0
I0504 08:12:05.678437 21355 net.cpp:86] Creating Layer pool0
I0504 08:12:05.678441 21355 net.cpp:408] pool0 <- Sigmoid0
I0504 08:12:05.678445 21355 net.cpp:382] pool0 -> pool0
I0504 08:12:05.679603 21355 net.cpp:124] Setting up pool0
I0504 08:12:05.679612 21355 net.cpp:131] Top shape: 1000 24 16 16 (6144000)
I0504 08:12:05.679630 21355 net.cpp:139] Memory required for data: 233484000
I0504 08:12:05.679633 21355 layer_factory.hpp:77] Creating layer conv1
I0504 08:12:05.679643 21355 net.cpp:86] Creating Layer conv1
I0504 08:12:05.679647 21355 net.cpp:408] conv1 <- pool0
I0504 08:12:05.679653 21355 net.cpp:382] conv1 -> conv1
I0504 08:12:05.681313 21355 net.cpp:124] Setting up conv1
I0504 08:12:05.681325 21355 net.cpp:131] Top shape: 1000 24 16 16 (6144000)
I0504 08:12:05.681345 21355 net.cpp:139] Memory required for data: 258060000
I0504 08:12:05.681354 21355 layer_factory.hpp:77] Creating layer Sigmoid1
I0504 08:12:05.681360 21355 net.cpp:86] Creating Layer Sigmoid1
I0504 08:12:05.681362 21355 net.cpp:408] Sigmoid1 <- conv1
I0504 08:12:05.681367 21355 net.cpp:382] Sigmoid1 -> Sigmoid1
I0504 08:12:05.681532 21355 net.cpp:124] Setting up Sigmoid1
I0504 08:12:05.681542 21355 net.cpp:131] Top shape: 1000 24 16 16 (6144000)
I0504 08:12:05.681545 21355 net.cpp:139] Memory required for data: 282636000
I0504 08:12:05.681548 21355 layer_factory.hpp:77] Creating layer pool1
I0504 08:12:05.681555 21355 net.cpp:86] Creating Layer pool1
I0504 08:12:05.681558 21355 net.cpp:408] pool1 <- Sigmoid1
I0504 08:12:05.681562 21355 net.cpp:382] pool1 -> pool1
I0504 08:12:05.681746 21355 net.cpp:124] Setting up pool1
I0504 08:12:05.681754 21355 net.cpp:131] Top shape: 1000 24 8 8 (1536000)
I0504 08:12:05.681757 21355 net.cpp:139] Memory required for data: 288780000
I0504 08:12:05.681761 21355 layer_factory.hpp:77] Creating layer ip1
I0504 08:12:05.681769 21355 net.cpp:86] Creating Layer ip1
I0504 08:12:05.681772 21355 net.cpp:408] ip1 <- pool1
I0504 08:12:05.681778 21355 net.cpp:382] ip1 -> ip1
I0504 08:12:05.682304 21355 net.cpp:124] Setting up ip1
I0504 08:12:05.682312 21355 net.cpp:131] Top shape: 1000 10 (10000)
I0504 08:12:05.682328 21355 net.cpp:139] Memory required for data: 288820000
I0504 08:12:05.682335 21355 layer_factory.hpp:77] Creating layer relu1
I0504 08:12:05.682340 21355 net.cpp:86] Creating Layer relu1
I0504 08:12:05.682343 21355 net.cpp:408] relu1 <- ip1
I0504 08:12:05.682348 21355 net.cpp:369] relu1 -> ip1 (in-place)
I0504 08:12:05.683102 21355 net.cpp:124] Setting up relu1
I0504 08:12:05.683115 21355 net.cpp:131] Top shape: 1000 10 (10000)
I0504 08:12:05.683132 21355 net.cpp:139] Memory required for data: 288860000
I0504 08:12:05.683136 21355 layer_factory.hpp:77] Creating layer ip2
I0504 08:12:05.683142 21355 net.cpp:86] Creating Layer ip2
I0504 08:12:05.683146 21355 net.cpp:408] ip2 <- ip1
I0504 08:12:05.683151 21355 net.cpp:382] ip2 -> ip2
I0504 08:12:05.683266 21355 net.cpp:124] Setting up ip2
I0504 08:12:05.683274 21355 net.cpp:131] Top shape: 1000 10 (10000)
I0504 08:12:05.683276 21355 net.cpp:139] Memory required for data: 288900000
I0504 08:12:05.683282 21355 layer_factory.hpp:77] Creating layer ip2_ip2_0_split
I0504 08:12:05.683287 21355 net.cpp:86] Creating Layer ip2_ip2_0_split
I0504 08:12:05.683290 21355 net.cpp:408] ip2_ip2_0_split <- ip2
I0504 08:12:05.683295 21355 net.cpp:382] ip2_ip2_0_split -> ip2_ip2_0_split_0
I0504 08:12:05.683300 21355 net.cpp:382] ip2_ip2_0_split -> ip2_ip2_0_split_1
I0504 08:12:05.683331 21355 net.cpp:124] Setting up ip2_ip2_0_split
I0504 08:12:05.683334 21355 net.cpp:131] Top shape: 1000 10 (10000)
I0504 08:12:05.683338 21355 net.cpp:131] Top shape: 1000 10 (10000)
I0504 08:12:05.683341 21355 net.cpp:139] Memory required for data: 288980000
I0504 08:12:05.683343 21355 layer_factory.hpp:77] Creating layer accuracy
I0504 08:12:05.683349 21355 net.cpp:86] Creating Layer accuracy
I0504 08:12:05.683352 21355 net.cpp:408] accuracy <- ip2_ip2_0_split_0
I0504 08:12:05.683357 21355 net.cpp:408] accuracy <- label_cifar_1_split_0
I0504 08:12:05.683360 21355 net.cpp:382] accuracy -> accuracy
…
