…
I0504 01:32:20.350327  7551 net.cpp:296] The NetState phase (0) differed from the phase (1) specified by a rule in layer cifar
I0504 01:32:20.350342  7551 net.cpp:296] The NetState phase (0) differed from the phase (1) specified by a rule in layer accuracy
I0504 01:32:20.350433  7551 net.cpp:53] Initializing net from parameters: 
name: "CIFAR"
state {
  phase: TRAIN
  level: 0
  stage: ""
}
layer {
  name: "cifar"
  type: "Data"
  top: "data"
  top: "label"
  include {
    phase: TRAIN
  }
  transform_param {
    mean_file: "examples/cifar10/mean.binaryproto"
  }
  data_param {
    source: "examples/cifar10/cifar10_train_lmdb"
    batch_size: 111
    backend: LMDB
  }
}
layer {
  name: "conv0"
  type: "Convolution"
  bottom: "data"
  top: "conv0"
  param {
    lr_mult: 1
  }
  param {
    lr_mult: 2
  }
  convolution_param {
    num_output: 72
    pad: 2
    kernel_size: 3
    stride: 1
    weight_filler {
      type: "gaussian"
      std: 0.01
    }
    bias_filler {
      type: "constant"
    }
  }
}
layer {
  name: "Sigmoid0"
  type: "Sigmoid"
  bottom: "conv0"
  top: "Sigmoid0"
}
layer {
  name: "pool0"
  type: "Pooling"
  bottom: "Sigmoid0"
  top: "pool0"
  pooling_param {
    pool: AVE
    kernel_size: 3
    stride: 2
  }
}
layer {
  name: "ip1"
  type: "InnerProduct"
  bottom: "pool0"
  top: "ip1"
  param {
    lr_mult: 1
  }
  param {
    lr_mult: 2
  }
  inner_product_param {
    num_output: 180
    weight_filler {
      type: "gaussian"
      std: 0.01
    }
    bias_filler {
      type: "constant"
    }
  }
}
layer {
  name: "relu1"
  type: "ReLU"
  bottom: "ip1"
  top: "ip1"
}
layer {
  name: "ip2"
  type: "InnerProduct"
  bottom: "ip1"
  top: "ip2"
  param {
    lr_mult: 1
  }
  param {
    lr_mult: 2
  }
  inner_product_param {
    num_output: 180
    weight_filler {
      type: "gaussian"
      std: 0.01
    }
    bias_filler {
      type: "constant"
    }
  }
}
layer {
  name: "relu2"
  type: "ReLU"
  bottom: "ip2"
  top: "ip2"
}
layer {
  name: "ip3"
  type: "InnerProduct"
  bottom: "ip2"
  top: "ip3"
  param {
    lr_mult: 1
  }
  param {
    lr_mult: 2
  }
  inner_product_param {
    num_output: 10
    weight_filler {
      type: "gaussian"
      std: 0.01
    }
    bias_filler {
      type: "constant"
    }
  }
}
layer {
  name: "loss"
  type: "SoftmaxWithLoss"
  bottom: "ip3"
  bottom: "label"
  top: "loss"
}
I0504 01:32:20.350507  7551 layer_factory.hpp:77] Creating layer cifar
I0504 01:32:20.350607  7551 db_lmdb.cpp:35] Opened lmdb examples/cifar10/cifar10_train_lmdb
I0504 01:32:20.350636  7551 net.cpp:86] Creating Layer cifar
I0504 01:32:20.350646  7551 net.cpp:382] cifar -> data
I0504 01:32:20.350668  7551 net.cpp:382] cifar -> label
I0504 01:32:20.350680  7551 data_transformer.cpp:25] Loading mean file from: examples/cifar10/mean.binaryproto
I0504 01:32:20.352792  7551 data_layer.cpp:45] output data size: 111,3,32,32
I0504 01:32:20.360723  7551 net.cpp:124] Setting up cifar
I0504 01:32:20.360756  7551 net.cpp:131] Top shape: 111 3 32 32 (340992)
I0504 01:32:20.360764  7551 net.cpp:131] Top shape: 111 (111)
I0504 01:32:20.360767  7551 net.cpp:139] Memory required for data: 1364412
I0504 01:32:20.360775  7551 layer_factory.hpp:77] Creating layer conv0
I0504 01:32:20.360795  7551 net.cpp:86] Creating Layer conv0
I0504 01:32:20.360800  7551 net.cpp:408] conv0 <- data
I0504 01:32:20.360821  7551 net.cpp:382] conv0 -> conv0
I0504 01:32:20.650357  7551 net.cpp:124] Setting up conv0
I0504 01:32:20.650411  7551 net.cpp:131] Top shape: 111 72 34 34 (9238752)
I0504 01:32:20.650416  7551 net.cpp:139] Memory required for data: 38319420
I0504 01:32:20.650435  7551 layer_factory.hpp:77] Creating layer Sigmoid0
I0504 01:32:20.650449  7551 net.cpp:86] Creating Layer Sigmoid0
I0504 01:32:20.650454  7551 net.cpp:408] Sigmoid0 <- conv0
I0504 01:32:20.650460  7551 net.cpp:382] Sigmoid0 -> Sigmoid0
I0504 01:32:20.650676  7551 net.cpp:124] Setting up Sigmoid0
I0504 01:32:20.650686  7551 net.cpp:131] Top shape: 111 72 34 34 (9238752)
I0504 01:32:20.650691  7551 net.cpp:139] Memory required for data: 75274428
I0504 01:32:20.650694  7551 layer_factory.hpp:77] Creating layer pool0
I0504 01:32:20.650702  7551 net.cpp:86] Creating Layer pool0
I0504 01:32:20.650707  7551 net.cpp:408] pool0 <- Sigmoid0
I0504 01:32:20.650712  7551 net.cpp:382] pool0 -> pool0
I0504 01:32:20.651589  7551 net.cpp:124] Setting up pool0
I0504 01:32:20.651605  7551 net.cpp:131] Top shape: 111 72 17 17 (2309688)
I0504 01:32:20.651609  7551 net.cpp:139] Memory required for data: 84513180
I0504 01:32:20.651614  7551 layer_factory.hpp:77] Creating layer ip1
I0504 01:32:20.651625  7551 net.cpp:86] Creating Layer ip1
I0504 01:32:20.651629  7551 net.cpp:408] ip1 <- pool0
I0504 01:32:20.651636  7551 net.cpp:382] ip1 -> ip1
I0504 01:32:20.760131  7551 net.cpp:124] Setting up ip1
I0504 01:32:20.760149  7551 net.cpp:131] Top shape: 111 180 (19980)
I0504 01:32:20.760152  7551 net.cpp:139] Memory required for data: 84593100
I0504 01:32:20.760162  7551 layer_factory.hpp:77] Creating layer relu1
I0504 01:32:20.760169  7551 net.cpp:86] Creating Layer relu1
I0504 01:32:20.760172  7551 net.cpp:408] relu1 <- ip1
I0504 01:32:20.760177  7551 net.cpp:369] relu1 -> ip1 (in-place)
I0504 01:32:20.760346  7551 net.cpp:124] Setting up relu1
I0504 01:32:20.760354  7551 net.cpp:131] Top shape: 111 180 (19980)
I0504 01:32:20.760356  7551 net.cpp:139] Memory required for data: 84673020
I0504 01:32:20.760360  7551 layer_factory.hpp:77] Creating layer ip2
I0504 01:32:20.760366  7551 net.cpp:86] Creating Layer ip2
I0504 01:32:20.760370  7551 net.cpp:408] ip2 <- ip1
I0504 01:32:20.760375  7551 net.cpp:382] ip2 -> ip2
I0504 01:32:20.762136  7551 net.cpp:124] Setting up ip2
I0504 01:32:20.762148  7551 net.cpp:131] Top shape: 111 180 (19980)
I0504 01:32:20.762166  7551 net.cpp:139] Memory required for data: 84752940
I0504 01:32:20.762174  7551 layer_factory.hpp:77] Creating layer relu2
I0504 01:32:20.762181  7551 net.cpp:86] Creating Layer relu2
I0504 01:32:20.762183  7551 net.cpp:408] relu2 <- ip2
I0504 01:32:20.762187  7551 net.cpp:369] relu2 -> ip2 (in-place)
I0504 01:32:20.762359  7551 net.cpp:124] Setting up relu2
I0504 01:32:20.762367  7551 net.cpp:131] Top shape: 111 180 (19980)
I0504 01:32:20.762370  7551 net.cpp:139] Memory required for data: 84832860
I0504 01:32:20.762373  7551 layer_factory.hpp:77] Creating layer ip3
I0504 01:32:20.762380  7551 net.cpp:86] Creating Layer ip3
I0504 01:32:20.762383  7551 net.cpp:408] ip3 <- ip2
I0504 01:32:20.762388  7551 net.cpp:382] ip3 -> ip3
I0504 01:32:20.762539  7551 net.cpp:124] Setting up ip3
I0504 01:32:20.762547  7551 net.cpp:131] Top shape: 111 10 (1110)
I0504 01:32:20.762549  7551 net.cpp:139] Memory required for data: 84837300
I0504 01:32:20.762554  7551 layer_factory.hpp:77] Creating layer loss
I0504 01:32:20.762559  7551 net.cpp:86] Creating Layer loss
I0504 01:32:20.762562  7551 net.cpp:408] loss <- ip3
I0504 01:32:20.762567  7551 net.cpp:408] loss <- label
I0504 01:32:20.762572  7551 net.cpp:382] loss -> loss
I0504 01:32:20.762588  7551 layer_factory.hpp:77] Creating layer loss
…
I0504 01:32:20.763172  7551 solver.cpp:173] Creating test net (#0) specified by net file: ECE595/cifar/train_test/var_everything_tiny/cifar_train_test_35.prototxt
I0504 01:32:20.763196  7551 net.cpp:296] The NetState phase (1) differed from the phase (0) specified by a rule in layer cifar
I0504 01:32:20.763279  7551 net.cpp:53] Initializing net from parameters: 
name: "CIFAR"
state {
  phase: TEST
}
layer {
  name: "cifar"
  type: "Data"
  top: "data"
  top: "label"
  include {
    phase: TEST
  }
  transform_param {
    mean_file: "examples/cifar10/mean.binaryproto"
  }
  data_param {
    source: "examples/cifar10/cifar10_test_lmdb"
    batch_size: 1000
    backend: LMDB
  }
}
layer {
  name: "conv0"
  type: "Convolution"
  bottom: "data"
  top: "conv0"
  param {
    lr_mult: 1
  }
  param {
    lr_mult: 2
  }
  convolution_param {
    num_output: 72
    pad: 2
    kernel_size: 3
    stride: 1
    weight_filler {
      type: "gaussian"
      std: 0.01
    }
    bias_filler {
      type: "constant"
    }
  }
}
layer {
  name: "Sigmoid0"
  type: "Sigmoid"
  bottom: "conv0"
  top: "Sigmoid0"
}
layer {
  name: "pool0"
  type: "Pooling"
  bottom: "Sigmoid0"
  top: "pool0"
  pooling_param {
    pool: AVE
    kernel_size: 3
    stride: 2
  }
}
layer {
  name: "ip1"
  type: "InnerProduct"
  bottom: "pool0"
  top: "ip1"
  param {
    lr_mult: 1
  }
  param {
    lr_mult: 2
  }
  inner_product_param {
    num_output: 180
    weight_filler {
      type: "gaussian"
      std: 0.01
    }
    bias_filler {
      type: "constant"
    }
  }
}
layer {
  name: "relu1"
  type: "ReLU"
  bottom: "ip1"
  top: "ip1"
}
layer {
  name: "ip2"
  type: "InnerProduct"
  bottom: "ip1"
  top: "ip2"
  param {
    lr_mult: 1
  }
  param {
    lr_mult: 2
  }
  inner_product_param {
    num_output: 180
    weight_filler {
      type: "gaussian"
      std: 0.01
    }
    bias_filler {
      type: "constant"
    }
  }
}
layer {
  name: "relu2"
  type: "ReLU"
  bottom: "ip2"
  top: "ip2"
}
layer {
  name: "ip3"
  type: "InnerProduct"
  bottom: "ip2"
  top: "ip3"
  param {
    lr_mult: 1
  }
  param {
    lr_mult: 2
  }
  inner_product_param {
    num_output: 10
    weight_filler {
      type: "gaussian"
      std: 0.01
    }
    bias_filler {
      type: "constant"
    }
  }
}
layer {
  name: "accuracy"
  type: "Accuracy"
  bottom: "ip3"
  bottom: "label"
  top: "accuracy"
  include {
    phase: TEST
  }
}
layer {
  name: "loss"
  type: "SoftmaxWithLoss"
  bottom: "ip3"
  bottom: "label"
  top: "loss"
}
I0504 01:32:20.763339  7551 layer_factory.hpp:77] Creating layer cifar
I0504 01:32:20.763384  7551 db_lmdb.cpp:35] Opened lmdb examples/cifar10/cifar10_test_lmdb
I0504 01:32:20.763396  7551 net.cpp:86] Creating Layer cifar
I0504 01:32:20.763401  7551 net.cpp:382] cifar -> data
I0504 01:32:20.763407  7551 net.cpp:382] cifar -> label
I0504 01:32:20.763413  7551 data_transformer.cpp:25] Loading mean file from: examples/cifar10/mean.binaryproto
I0504 01:32:20.763557  7551 data_layer.cpp:45] output data size: 1000,3,32,32
I0504 01:32:20.786554  7551 net.cpp:124] Setting up cifar
I0504 01:32:20.786581  7551 net.cpp:131] Top shape: 1000 3 32 32 (3072000)
I0504 01:32:20.786586  7551 net.cpp:131] Top shape: 1000 (1000)
I0504 01:32:20.786588  7551 net.cpp:139] Memory required for data: 12292000
I0504 01:32:20.786594  7551 layer_factory.hpp:77] Creating layer label_cifar_1_split
I0504 01:32:20.786619  7551 net.cpp:86] Creating Layer label_cifar_1_split
I0504 01:32:20.786624  7551 net.cpp:408] label_cifar_1_split <- label
I0504 01:32:20.786629  7551 net.cpp:382] label_cifar_1_split -> label_cifar_1_split_0
I0504 01:32:20.786638  7551 net.cpp:382] label_cifar_1_split -> label_cifar_1_split_1
I0504 01:32:20.786736  7551 net.cpp:124] Setting up label_cifar_1_split
I0504 01:32:20.786744  7551 net.cpp:131] Top shape: 1000 (1000)
I0504 01:32:20.786748  7551 net.cpp:131] Top shape: 1000 (1000)
I0504 01:32:20.786751  7551 net.cpp:139] Memory required for data: 12300000
I0504 01:32:20.786753  7551 layer_factory.hpp:77] Creating layer conv0
I0504 01:32:20.786764  7551 net.cpp:86] Creating Layer conv0
I0504 01:32:20.786767  7551 net.cpp:408] conv0 <- data
I0504 01:32:20.786772  7551 net.cpp:382] conv0 -> conv0
I0504 01:32:20.788343  7551 net.cpp:124] Setting up conv0
I0504 01:32:20.788357  7551 net.cpp:131] Top shape: 1000 72 34 34 (83232000)
I0504 01:32:20.788362  7551 net.cpp:139] Memory required for data: 345228000
I0504 01:32:20.788370  7551 layer_factory.hpp:77] Creating layer Sigmoid0
I0504 01:32:20.788378  7551 net.cpp:86] Creating Layer Sigmoid0
I0504 01:32:20.788380  7551 net.cpp:408] Sigmoid0 <- conv0
I0504 01:32:20.788384  7551 net.cpp:382] Sigmoid0 -> Sigmoid0
I0504 01:32:20.789239  7551 net.cpp:124] Setting up Sigmoid0
I0504 01:32:20.789252  7551 net.cpp:131] Top shape: 1000 72 34 34 (83232000)
I0504 01:32:20.789254  7551 net.cpp:139] Memory required for data: 678156000
I0504 01:32:20.789258  7551 layer_factory.hpp:77] Creating layer pool0
I0504 01:32:20.789266  7551 net.cpp:86] Creating Layer pool0
I0504 01:32:20.789270  7551 net.cpp:408] pool0 <- Sigmoid0
I0504 01:32:20.789274  7551 net.cpp:382] pool0 -> pool0
I0504 01:32:20.790434  7551 net.cpp:124] Setting up pool0
I0504 01:32:20.790464  7551 net.cpp:131] Top shape: 1000 72 17 17 (20808000)
I0504 01:32:20.790468  7551 net.cpp:139] Memory required for data: 761388000
I0504 01:32:20.790472  7551 layer_factory.hpp:77] Creating layer ip1
I0504 01:32:20.790480  7551 net.cpp:86] Creating Layer ip1
I0504 01:32:20.790483  7551 net.cpp:408] ip1 <- pool0
I0504 01:32:20.790490  7551 net.cpp:382] ip1 -> ip1
I0504 01:32:20.891175  7551 net.cpp:124] Setting up ip1
I0504 01:32:20.891228  7551 net.cpp:131] Top shape: 1000 180 (180000)
I0504 01:32:20.891232  7551 net.cpp:139] Memory required for data: 762108000
I0504 01:32:20.891244  7551 layer_factory.hpp:77] Creating layer relu1
I0504 01:32:20.891253  7551 net.cpp:86] Creating Layer relu1
I0504 01:32:20.891258  7551 net.cpp:408] relu1 <- ip1
I0504 01:32:20.891263  7551 net.cpp:369] relu1 -> ip1 (in-place)
I0504 01:32:20.891456  7551 net.cpp:124] Setting up relu1
I0504 01:32:20.891465  7551 net.cpp:131] Top shape: 1000 180 (180000)
I0504 01:32:20.891469  7551 net.cpp:139] Memory required for data: 762828000
I0504 01:32:20.891471  7551 layer_factory.hpp:77] Creating layer ip2
I0504 01:32:20.891479  7551 net.cpp:86] Creating Layer ip2
I0504 01:32:20.891482  7551 net.cpp:408] ip2 <- ip1
I0504 01:32:20.891487  7551 net.cpp:382] ip2 -> ip2
I0504 01:32:20.892431  7551 net.cpp:124] Setting up ip2
I0504 01:32:20.892438  7551 net.cpp:131] Top shape: 1000 180 (180000)
I0504 01:32:20.892457  7551 net.cpp:139] Memory required for data: 763548000
I0504 01:32:20.892463  7551 layer_factory.hpp:77] Creating layer relu2
I0504 01:32:20.892469  7551 net.cpp:86] Creating Layer relu2
I0504 01:32:20.892472  7551 net.cpp:408] relu2 <- ip2
I0504 01:32:20.892477  7551 net.cpp:369] relu2 -> ip2 (in-place)
I0504 01:32:20.892640  7551 net.cpp:124] Setting up relu2
I0504 01:32:20.892648  7551 net.cpp:131] Top shape: 1000 180 (180000)
I0504 01:32:20.892652  7551 net.cpp:139] Memory required for data: 764268000
I0504 01:32:20.892654  7551 layer_factory.hpp:77] Creating layer ip3
I0504 01:32:20.892664  7551 net.cpp:86] Creating Layer ip3
I0504 01:32:20.892668  7551 net.cpp:408] ip3 <- ip2
I0504 01:32:20.892673  7551 net.cpp:382] ip3 -> ip3
I0504 01:32:20.892822  7551 net.cpp:124] Setting up ip3
I0504 01:32:20.892829  7551 net.cpp:131] Top shape: 1000 10 (10000)
I0504 01:32:20.892848  7551 net.cpp:139] Memory required for data: 764308000
I0504 01:32:20.892853  7551 layer_factory.hpp:77] Creating layer ip3_ip3_0_split
I0504 01:32:20.892858  7551 net.cpp:86] Creating Layer ip3_ip3_0_split
I0504 01:32:20.892861  7551 net.cpp:408] ip3_ip3_0_split <- ip3
I0504 01:32:20.892865  7551 net.cpp:382] ip3_ip3_0_split -> ip3_ip3_0_split_0
I0504 01:32:20.892886  7551 net.cpp:382] ip3_ip3_0_split -> ip3_ip3_0_split_1
I0504 01:32:20.892920  7551 net.cpp:124] Setting up ip3_ip3_0_split
I0504 01:32:20.892940  7551 net.cpp:131] Top shape: 1000 10 (10000)
I0504 01:32:20.892943  7551 net.cpp:131] Top shape: 1000 10 (10000)
I0504 01:32:20.892946  7551 net.cpp:139] Memory required for data: 764388000
I0504 01:32:20.892948  7551 layer_factory.hpp:77] Creating layer accuracy
I0504 01:32:20.892954  7551 net.cpp:86] Creating Layer accuracy
I0504 01:32:20.892957  7551 net.cpp:408] accuracy <- ip3_ip3_0_split_0
I0504 01:32:20.892961  7551 net.cpp:408] accuracy <- label_cifar_1_split_0
I0504 01:32:20.892966  7551 net.cpp:382] accuracy -> accuracy
…
