…
I0504 02:20:30.298907  9011 net.cpp:296] The NetState phase (0) differed from the phase (1) specified by a rule in layer cifar
I0504 02:20:30.298921  9011 net.cpp:296] The NetState phase (0) differed from the phase (1) specified by a rule in layer accuracy
I0504 02:20:30.299010  9011 net.cpp:53] Initializing net from parameters: 
name: "CIFAR"
state {
  phase: TRAIN
  level: 0
  stage: ""
}
layer {
  name: "cifar"
  type: "Data"
  top: "data"
  top: "label"
  include {
    phase: TRAIN
  }
  transform_param {
    mean_file: "examples/cifar10/mean.binaryproto"
  }
  data_param {
    source: "examples/cifar10/cifar10_train_lmdb"
    batch_size: 111
    backend: LMDB
  }
}
layer {
  name: "conv0"
  type: "Convolution"
  bottom: "data"
  top: "conv0"
  param {
    lr_mult: 1
  }
  param {
    lr_mult: 2
  }
  convolution_param {
    num_output: 72
    pad: 2
    kernel_size: 5
    stride: 1
    weight_filler {
      type: "gaussian"
      std: 0.01
    }
    bias_filler {
      type: "constant"
    }
  }
}
layer {
  name: "Sigmoid0"
  type: "Sigmoid"
  bottom: "conv0"
  top: "Sigmoid0"
}
layer {
  name: "pool0"
  type: "Pooling"
  bottom: "Sigmoid0"
  top: "pool0"
  pooling_param {
    pool: AVE
    kernel_size: 3
    stride: 2
  }
}
layer {
  name: "ip1"
  type: "InnerProduct"
  bottom: "pool0"
  top: "ip1"
  param {
    lr_mult: 1
  }
  param {
    lr_mult: 2
  }
  inner_product_param {
    num_output: 180
    weight_filler {
      type: "gaussian"
      std: 0.01
    }
    bias_filler {
      type: "constant"
    }
  }
}
layer {
  name: "relu1"
  type: "ReLU"
  bottom: "ip1"
  top: "ip1"
}
layer {
  name: "ip2"
  type: "InnerProduct"
  bottom: "ip1"
  top: "ip2"
  param {
    lr_mult: 1
  }
  param {
    lr_mult: 2
  }
  inner_product_param {
    num_output: 60
    weight_filler {
      type: "gaussian"
      std: 0.01
    }
    bias_filler {
      type: "constant"
    }
  }
}
layer {
  name: "relu2"
  type: "ReLU"
  bottom: "ip2"
  top: "ip2"
}
layer {
  name: "ip3"
  type: "InnerProduct"
  bottom: "ip2"
  top: "ip3"
  param {
    lr_mult: 1
  }
  param {
    lr_mult: 2
  }
  inner_product_param {
    num_output: 10
    weight_filler {
      type: "gaussian"
      std: 0.01
    }
    bias_filler {
      type: "constant"
    }
  }
}
layer {
  name: "loss"
  type: "SoftmaxWithLoss"
  bottom: "ip3"
  bottom: "label"
  top: "loss"
}
I0504 02:20:30.299077  9011 layer_factory.hpp:77] Creating layer cifar
I0504 02:20:30.299178  9011 db_lmdb.cpp:35] Opened lmdb examples/cifar10/cifar10_train_lmdb
I0504 02:20:30.299211  9011 net.cpp:86] Creating Layer cifar
I0504 02:20:30.299221  9011 net.cpp:382] cifar -> data
I0504 02:20:30.299243  9011 net.cpp:382] cifar -> label
I0504 02:20:30.299257  9011 data_transformer.cpp:25] Loading mean file from: examples/cifar10/mean.binaryproto
I0504 02:20:30.301367  9011 data_layer.cpp:45] output data size: 111,3,32,32
I0504 02:20:30.309237  9011 net.cpp:124] Setting up cifar
I0504 02:20:30.309255  9011 net.cpp:131] Top shape: 111 3 32 32 (340992)
I0504 02:20:30.309262  9011 net.cpp:131] Top shape: 111 (111)
I0504 02:20:30.309267  9011 net.cpp:139] Memory required for data: 1364412
I0504 02:20:30.309274  9011 layer_factory.hpp:77] Creating layer conv0
I0504 02:20:30.309291  9011 net.cpp:86] Creating Layer conv0
I0504 02:20:30.309298  9011 net.cpp:408] conv0 <- data
I0504 02:20:30.309309  9011 net.cpp:382] conv0 -> conv0
I0504 02:20:30.601383  9011 net.cpp:124] Setting up conv0
I0504 02:20:30.601434  9011 net.cpp:131] Top shape: 111 72 32 32 (8183808)
I0504 02:20:30.601440  9011 net.cpp:139] Memory required for data: 34099644
I0504 02:20:30.601459  9011 layer_factory.hpp:77] Creating layer Sigmoid0
I0504 02:20:30.601471  9011 net.cpp:86] Creating Layer Sigmoid0
I0504 02:20:30.601476  9011 net.cpp:408] Sigmoid0 <- conv0
I0504 02:20:30.601482  9011 net.cpp:382] Sigmoid0 -> Sigmoid0
I0504 02:20:30.601696  9011 net.cpp:124] Setting up Sigmoid0
I0504 02:20:30.601708  9011 net.cpp:131] Top shape: 111 72 32 32 (8183808)
I0504 02:20:30.601712  9011 net.cpp:139] Memory required for data: 66834876
I0504 02:20:30.601716  9011 layer_factory.hpp:77] Creating layer pool0
I0504 02:20:30.601725  9011 net.cpp:86] Creating Layer pool0
I0504 02:20:30.601729  9011 net.cpp:408] pool0 <- Sigmoid0
I0504 02:20:30.601735  9011 net.cpp:382] pool0 -> pool0
I0504 02:20:30.602618  9011 net.cpp:124] Setting up pool0
I0504 02:20:30.602635  9011 net.cpp:131] Top shape: 111 72 16 16 (2045952)
I0504 02:20:30.602639  9011 net.cpp:139] Memory required for data: 75018684
I0504 02:20:30.602643  9011 layer_factory.hpp:77] Creating layer ip1
I0504 02:20:30.602654  9011 net.cpp:86] Creating Layer ip1
I0504 02:20:30.602659  9011 net.cpp:408] ip1 <- pool0
I0504 02:20:30.602668  9011 net.cpp:382] ip1 -> ip1
I0504 02:20:30.714180  9011 net.cpp:124] Setting up ip1
I0504 02:20:30.714198  9011 net.cpp:131] Top shape: 111 180 (19980)
I0504 02:20:30.714202  9011 net.cpp:139] Memory required for data: 75098604
I0504 02:20:30.714212  9011 layer_factory.hpp:77] Creating layer relu1
I0504 02:20:30.714220  9011 net.cpp:86] Creating Layer relu1
I0504 02:20:30.714223  9011 net.cpp:408] relu1 <- ip1
I0504 02:20:30.714229  9011 net.cpp:369] relu1 -> ip1 (in-place)
I0504 02:20:30.714408  9011 net.cpp:124] Setting up relu1
I0504 02:20:30.714417  9011 net.cpp:131] Top shape: 111 180 (19980)
I0504 02:20:30.714421  9011 net.cpp:139] Memory required for data: 75178524
I0504 02:20:30.714426  9011 layer_factory.hpp:77] Creating layer ip2
I0504 02:20:30.714432  9011 net.cpp:86] Creating Layer ip2
I0504 02:20:30.714439  9011 net.cpp:408] ip2 <- ip1
I0504 02:20:30.714444  9011 net.cpp:382] ip2 -> ip2
I0504 02:20:30.714881  9011 net.cpp:124] Setting up ip2
I0504 02:20:30.714890  9011 net.cpp:131] Top shape: 111 60 (6660)
I0504 02:20:30.714892  9011 net.cpp:139] Memory required for data: 75205164
I0504 02:20:30.714900  9011 layer_factory.hpp:77] Creating layer relu2
I0504 02:20:30.714905  9011 net.cpp:86] Creating Layer relu2
I0504 02:20:30.714910  9011 net.cpp:408] relu2 <- ip2
I0504 02:20:30.714913  9011 net.cpp:369] relu2 -> ip2 (in-place)
I0504 02:20:30.715083  9011 net.cpp:124] Setting up relu2
I0504 02:20:30.715092  9011 net.cpp:131] Top shape: 111 60 (6660)
I0504 02:20:30.715095  9011 net.cpp:139] Memory required for data: 75231804
I0504 02:20:30.715100  9011 layer_factory.hpp:77] Creating layer ip3
I0504 02:20:30.715107  9011 net.cpp:86] Creating Layer ip3
I0504 02:20:30.715112  9011 net.cpp:408] ip3 <- ip2
I0504 02:20:30.715117  9011 net.cpp:382] ip3 -> ip3
I0504 02:20:30.715234  9011 net.cpp:124] Setting up ip3
I0504 02:20:30.715241  9011 net.cpp:131] Top shape: 111 10 (1110)
I0504 02:20:30.715245  9011 net.cpp:139] Memory required for data: 75236244
I0504 02:20:30.715250  9011 layer_factory.hpp:77] Creating layer loss
I0504 02:20:30.715256  9011 net.cpp:86] Creating Layer loss
I0504 02:20:30.715260  9011 net.cpp:408] loss <- ip3
I0504 02:20:30.715265  9011 net.cpp:408] loss <- label
I0504 02:20:30.715270  9011 net.cpp:382] loss -> loss
I0504 02:20:30.715289  9011 layer_factory.hpp:77] Creating layer loss
…
I0504 02:20:30.715950  9011 solver.cpp:173] Creating test net (#0) specified by net file: ECE595/cifar/train_test/var_everything_tiny/cifar_train_test_46.prototxt
I0504 02:20:30.715977  9011 net.cpp:296] The NetState phase (1) differed from the phase (0) specified by a rule in layer cifar
I0504 02:20:30.716071  9011 net.cpp:53] Initializing net from parameters: 
name: "CIFAR"
state {
  phase: TEST
}
layer {
  name: "cifar"
  type: "Data"
  top: "data"
  top: "label"
  include {
    phase: TEST
  }
  transform_param {
    mean_file: "examples/cifar10/mean.binaryproto"
  }
  data_param {
    source: "examples/cifar10/cifar10_test_lmdb"
    batch_size: 1000
    backend: LMDB
  }
}
layer {
  name: "conv0"
  type: "Convolution"
  bottom: "data"
  top: "conv0"
  param {
    lr_mult: 1
  }
  param {
    lr_mult: 2
  }
  convolution_param {
    num_output: 72
    pad: 2
    kernel_size: 5
    stride: 1
    weight_filler {
      type: "gaussian"
      std: 0.01
    }
    bias_filler {
      type: "constant"
    }
  }
}
layer {
  name: "Sigmoid0"
  type: "Sigmoid"
  bottom: "conv0"
  top: "Sigmoid0"
}
layer {
  name: "pool0"
  type: "Pooling"
  bottom: "Sigmoid0"
  top: "pool0"
  pooling_param {
    pool: AVE
    kernel_size: 3
    stride: 2
  }
}
layer {
  name: "ip1"
  type: "InnerProduct"
  bottom: "pool0"
  top: "ip1"
  param {
    lr_mult: 1
  }
  param {
    lr_mult: 2
  }
  inner_product_param {
    num_output: 180
    weight_filler {
      type: "gaussian"
      std: 0.01
    }
    bias_filler {
      type: "constant"
    }
  }
}
layer {
  name: "relu1"
  type: "ReLU"
  bottom: "ip1"
  top: "ip1"
}
layer {
  name: "ip2"
  type: "InnerProduct"
  bottom: "ip1"
  top: "ip2"
  param {
    lr_mult: 1
  }
  param {
    lr_mult: 2
  }
  inner_product_param {
    num_output: 60
    weight_filler {
      type: "gaussian"
      std: 0.01
    }
    bias_filler {
      type: "constant"
    }
  }
}
layer {
  name: "relu2"
  type: "ReLU"
  bottom: "ip2"
  top: "ip2"
}
layer {
  name: "ip3"
  type: "InnerProduct"
  bottom: "ip2"
  top: "ip3"
  param {
    lr_mult: 1
  }
  param {
    lr_mult: 2
  }
  inner_product_param {
    num_output: 10
    weight_filler {
      type: "gaussian"
      std: 0.01
    }
    bias_filler {
      type: "constant"
    }
  }
}
layer {
  name: "accuracy"
  type: "Accuracy"
  bottom: "ip3"
  bottom: "label"
  top: "accuracy"
  include {
    phase: TEST
  }
}
layer {
  name: "loss"
  type: "SoftmaxWithLoss"
  bottom: "ip3"
  bottom: "label"
  top: "loss"
}
I0504 02:20:30.716141  9011 layer_factory.hpp:77] Creating layer cifar
I0504 02:20:30.716192  9011 db_lmdb.cpp:35] Opened lmdb examples/cifar10/cifar10_test_lmdb
I0504 02:20:30.716207  9011 net.cpp:86] Creating Layer cifar
I0504 02:20:30.716213  9011 net.cpp:382] cifar -> data
I0504 02:20:30.716223  9011 net.cpp:382] cifar -> label
I0504 02:20:30.716231  9011 data_transformer.cpp:25] Loading mean file from: examples/cifar10/mean.binaryproto
I0504 02:20:30.716392  9011 data_layer.cpp:45] output data size: 1000,3,32,32
I0504 02:20:30.739416  9011 net.cpp:124] Setting up cifar
I0504 02:20:30.739442  9011 net.cpp:131] Top shape: 1000 3 32 32 (3072000)
I0504 02:20:30.739450  9011 net.cpp:131] Top shape: 1000 (1000)
I0504 02:20:30.739454  9011 net.cpp:139] Memory required for data: 12292000
I0504 02:20:30.739459  9011 layer_factory.hpp:77] Creating layer label_cifar_1_split
I0504 02:20:30.739493  9011 net.cpp:86] Creating Layer label_cifar_1_split
I0504 02:20:30.739498  9011 net.cpp:408] label_cifar_1_split <- label
I0504 02:20:30.739504  9011 net.cpp:382] label_cifar_1_split -> label_cifar_1_split_0
I0504 02:20:30.739513  9011 net.cpp:382] label_cifar_1_split -> label_cifar_1_split_1
I0504 02:20:30.739639  9011 net.cpp:124] Setting up label_cifar_1_split
I0504 02:20:30.739645  9011 net.cpp:131] Top shape: 1000 (1000)
I0504 02:20:30.739650  9011 net.cpp:131] Top shape: 1000 (1000)
I0504 02:20:30.739652  9011 net.cpp:139] Memory required for data: 12300000
I0504 02:20:30.739655  9011 layer_factory.hpp:77] Creating layer conv0
I0504 02:20:30.739668  9011 net.cpp:86] Creating Layer conv0
I0504 02:20:30.739675  9011 net.cpp:408] conv0 <- data
I0504 02:20:30.739681  9011 net.cpp:382] conv0 -> conv0
I0504 02:20:30.741454  9011 net.cpp:124] Setting up conv0
I0504 02:20:30.741469  9011 net.cpp:131] Top shape: 1000 72 32 32 (73728000)
I0504 02:20:30.741472  9011 net.cpp:139] Memory required for data: 307212000
I0504 02:20:30.741482  9011 layer_factory.hpp:77] Creating layer Sigmoid0
I0504 02:20:30.741492  9011 net.cpp:86] Creating Layer Sigmoid0
I0504 02:20:30.741494  9011 net.cpp:408] Sigmoid0 <- conv0
I0504 02:20:30.741503  9011 net.cpp:382] Sigmoid0 -> Sigmoid0
I0504 02:20:30.742377  9011 net.cpp:124] Setting up Sigmoid0
I0504 02:20:30.742390  9011 net.cpp:131] Top shape: 1000 72 32 32 (73728000)
I0504 02:20:30.742394  9011 net.cpp:139] Memory required for data: 602124000
I0504 02:20:30.742398  9011 layer_factory.hpp:77] Creating layer pool0
I0504 02:20:30.742408  9011 net.cpp:86] Creating Layer pool0
I0504 02:20:30.742411  9011 net.cpp:408] pool0 <- Sigmoid0
I0504 02:20:30.742416  9011 net.cpp:382] pool0 -> pool0
I0504 02:20:30.743556  9011 net.cpp:124] Setting up pool0
I0504 02:20:30.743567  9011 net.cpp:131] Top shape: 1000 72 16 16 (18432000)
I0504 02:20:30.743571  9011 net.cpp:139] Memory required for data: 675852000
I0504 02:20:30.743573  9011 layer_factory.hpp:77] Creating layer ip1
I0504 02:20:30.743583  9011 net.cpp:86] Creating Layer ip1
I0504 02:20:30.743587  9011 net.cpp:408] ip1 <- pool0
I0504 02:20:30.743594  9011 net.cpp:382] ip1 -> ip1
I0504 02:20:30.833503  9011 net.cpp:124] Setting up ip1
I0504 02:20:30.833542  9011 net.cpp:131] Top shape: 1000 180 (180000)
I0504 02:20:30.833546  9011 net.cpp:139] Memory required for data: 676572000
I0504 02:20:30.833557  9011 layer_factory.hpp:77] Creating layer relu1
I0504 02:20:30.833567  9011 net.cpp:86] Creating Layer relu1
I0504 02:20:30.833571  9011 net.cpp:408] relu1 <- ip1
I0504 02:20:30.833585  9011 net.cpp:369] relu1 -> ip1 (in-place)
I0504 02:20:30.833806  9011 net.cpp:124] Setting up relu1
I0504 02:20:30.833814  9011 net.cpp:131] Top shape: 1000 180 (180000)
I0504 02:20:30.833817  9011 net.cpp:139] Memory required for data: 677292000
I0504 02:20:30.833820  9011 layer_factory.hpp:77] Creating layer ip2
I0504 02:20:30.833829  9011 net.cpp:86] Creating Layer ip2
I0504 02:20:30.833834  9011 net.cpp:408] ip2 <- ip1
I0504 02:20:30.833855  9011 net.cpp:382] ip2 -> ip2
I0504 02:20:30.834317  9011 net.cpp:124] Setting up ip2
I0504 02:20:30.834326  9011 net.cpp:131] Top shape: 1000 60 (60000)
I0504 02:20:30.834344  9011 net.cpp:139] Memory required for data: 677532000
I0504 02:20:30.834352  9011 layer_factory.hpp:77] Creating layer relu2
I0504 02:20:30.834358  9011 net.cpp:86] Creating Layer relu2
I0504 02:20:30.834362  9011 net.cpp:408] relu2 <- ip2
I0504 02:20:30.834365  9011 net.cpp:369] relu2 -> ip2 (in-place)
I0504 02:20:30.834545  9011 net.cpp:124] Setting up relu2
I0504 02:20:30.834554  9011 net.cpp:131] Top shape: 1000 60 (60000)
I0504 02:20:30.834558  9011 net.cpp:139] Memory required for data: 677772000
I0504 02:20:30.834560  9011 layer_factory.hpp:77] Creating layer ip3
I0504 02:20:30.834568  9011 net.cpp:86] Creating Layer ip3
I0504 02:20:30.834571  9011 net.cpp:408] ip3 <- ip2
I0504 02:20:30.834594  9011 net.cpp:382] ip3 -> ip3
I0504 02:20:30.834723  9011 net.cpp:124] Setting up ip3
I0504 02:20:30.834731  9011 net.cpp:131] Top shape: 1000 10 (10000)
I0504 02:20:30.834748  9011 net.cpp:139] Memory required for data: 677812000
I0504 02:20:30.834755  9011 layer_factory.hpp:77] Creating layer ip3_ip3_0_split
I0504 02:20:30.834764  9011 net.cpp:86] Creating Layer ip3_ip3_0_split
I0504 02:20:30.834766  9011 net.cpp:408] ip3_ip3_0_split <- ip3
I0504 02:20:30.834771  9011 net.cpp:382] ip3_ip3_0_split -> ip3_ip3_0_split_0
I0504 02:20:30.834779  9011 net.cpp:382] ip3_ip3_0_split -> ip3_ip3_0_split_1
I0504 02:20:30.834813  9011 net.cpp:124] Setting up ip3_ip3_0_split
I0504 02:20:30.834820  9011 net.cpp:131] Top shape: 1000 10 (10000)
I0504 02:20:30.834825  9011 net.cpp:131] Top shape: 1000 10 (10000)
I0504 02:20:30.834827  9011 net.cpp:139] Memory required for data: 677892000
I0504 02:20:30.834830  9011 layer_factory.hpp:77] Creating layer accuracy
I0504 02:20:30.834837  9011 net.cpp:86] Creating Layer accuracy
I0504 02:20:30.834841  9011 net.cpp:408] accuracy <- ip3_ip3_0_split_0
I0504 02:20:30.834844  9011 net.cpp:408] accuracy <- label_cifar_1_split_0
I0504 02:20:30.834849  9011 net.cpp:382] accuracy -> accuracy
…
