…
I0504 07:25:19.524853 18884 net.cpp:296] The NetState phase (0) differed from the phase (1) specified by a rule in layer cifar
I0504 07:25:19.524874 18884 net.cpp:296] The NetState phase (0) differed from the phase (1) specified by a rule in layer accuracy
I0504 07:25:19.524986 18884 net.cpp:53] Initializing net from parameters: 
name: "CIFAR"
state {
  phase: TRAIN
  level: 0
  stage: ""
}
layer {
  name: "cifar"
  type: "Data"
  top: "data"
  top: "label"
  include {
    phase: TRAIN
  }
  transform_param {
    mean_file: "examples/cifar10/mean.binaryproto"
  }
  data_param {
    source: "examples/cifar10/cifar10_train_lmdb"
    batch_size: 111
    backend: LMDB
  }
}
layer {
  name: "conv0"
  type: "Convolution"
  bottom: "data"
  top: "conv0"
  param {
    lr_mult: 1
  }
  param {
    lr_mult: 2
  }
  convolution_param {
    num_output: 24
    pad: 2
    kernel_size: 3
    stride: 1
    weight_filler {
      type: "gaussian"
      std: 0.01
    }
    bias_filler {
      type: "constant"
    }
  }
}
layer {
  name: "Sigmoid0"
  type: "Sigmoid"
  bottom: "conv0"
  top: "Sigmoid0"
}
layer {
  name: "pool0"
  type: "Pooling"
  bottom: "Sigmoid0"
  top: "pool0"
  pooling_param {
    pool: AVE
    kernel_size: 3
    stride: 2
  }
}
layer {
  name: "conv1"
  type: "Convolution"
  bottom: "pool0"
  top: "conv1"
  param {
    lr_mult: 1
  }
  param {
    lr_mult: 2
  }
  convolution_param {
    num_output: 24
    pad: 2
    kernel_size: 3
    stride: 1
    weight_filler {
      type: "gaussian"
      std: 0.01
    }
    bias_filler {
      type: "constant"
    }
  }
}
layer {
  name: "Sigmoid1"
  type: "Sigmoid"
  bottom: "conv1"
  top: "Sigmoid1"
}
layer {
  name: "pool1"
  type: "Pooling"
  bottom: "Sigmoid1"
  top: "pool1"
  pooling_param {
    pool: AVE
    kernel_size: 3
    stride: 2
  }
}
layer {
  name: "ip1"
  type: "InnerProduct"
  bottom: "pool1"
  top: "ip1"
  param {
    lr_mult: 1
  }
  param {
    lr_mult: 2
  }
  inner_product_param {
    num_output: 60
    weight_filler {
      type: "gaussian"
      std: 0.01
    }
    bias_filler {
      type: "constant"
    }
  }
}
layer {
  name: "relu1"
  type: "ReLU"
  bottom: "ip1"
  top: "ip1"
}
layer {
  name: "ip2"
  type: "InnerProduct"
  bottom: "ip1"
  top: "ip2"
  param {
    lr_mult: 1
  }
  param {
    lr_mult: 2
  }
  inner_product_param {
    num_output: 60
    weight_filler {
      type: "gaussian"
      std: 0.01
    }
    bias_filler {
      type: "constant"
    }
  }
}
layer {
  name: "relu2"
  type: "ReLU"
  bottom: "ip2"
  top: "ip2"
}
layer {
  name: "ip3"
  type: "InnerProduct"
  bottom: "ip2"
  top: "ip3"
  param {
    lr_mult: 1
  }
  param {
    lr_mult: 2
  }
  inner_product_param {
    num_output: 10
    weight_filler {
      type: "gaussian"
      std: 0.01
    }
    bias_filler {
      type: "constant"
    }
  }
}
layer {
  name: "loss"
  type: "SoftmaxWithLoss"
  bottom: "ip3"
  bottom: "label"
  top: "loss"
}
I0504 07:25:19.525071 18884 layer_factory.hpp:77] Creating layer cifar
I0504 07:25:19.525169 18884 db_lmdb.cpp:35] Opened lmdb examples/cifar10/cifar10_train_lmdb
I0504 07:25:19.525197 18884 net.cpp:86] Creating Layer cifar
I0504 07:25:19.525205 18884 net.cpp:382] cifar -> data
I0504 07:25:19.525228 18884 net.cpp:382] cifar -> label
I0504 07:25:19.525239 18884 data_transformer.cpp:25] Loading mean file from: examples/cifar10/mean.binaryproto
I0504 07:25:19.527390 18884 data_layer.cpp:45] output data size: 111,3,32,32
I0504 07:25:19.535383 18884 net.cpp:124] Setting up cifar
I0504 07:25:19.535403 18884 net.cpp:131] Top shape: 111 3 32 32 (340992)
I0504 07:25:19.535409 18884 net.cpp:131] Top shape: 111 (111)
I0504 07:25:19.535413 18884 net.cpp:139] Memory required for data: 1364412
I0504 07:25:19.535420 18884 layer_factory.hpp:77] Creating layer conv0
I0504 07:25:19.535440 18884 net.cpp:86] Creating Layer conv0
I0504 07:25:19.535446 18884 net.cpp:408] conv0 <- data
I0504 07:25:19.535459 18884 net.cpp:382] conv0 -> conv0
I0504 07:25:19.826714 18884 net.cpp:124] Setting up conv0
I0504 07:25:19.826741 18884 net.cpp:131] Top shape: 111 24 34 34 (3079584)
I0504 07:25:19.826745 18884 net.cpp:139] Memory required for data: 13682748
I0504 07:25:19.826761 18884 layer_factory.hpp:77] Creating layer Sigmoid0
I0504 07:25:19.826773 18884 net.cpp:86] Creating Layer Sigmoid0
I0504 07:25:19.826777 18884 net.cpp:408] Sigmoid0 <- conv0
I0504 07:25:19.826783 18884 net.cpp:382] Sigmoid0 -> Sigmoid0
I0504 07:25:19.826961 18884 net.cpp:124] Setting up Sigmoid0
I0504 07:25:19.826970 18884 net.cpp:131] Top shape: 111 24 34 34 (3079584)
I0504 07:25:19.826973 18884 net.cpp:139] Memory required for data: 26001084
I0504 07:25:19.826977 18884 layer_factory.hpp:77] Creating layer pool0
I0504 07:25:19.826984 18884 net.cpp:86] Creating Layer pool0
I0504 07:25:19.826987 18884 net.cpp:408] pool0 <- Sigmoid0
I0504 07:25:19.826992 18884 net.cpp:382] pool0 -> pool0
I0504 07:25:19.827752 18884 net.cpp:124] Setting up pool0
I0504 07:25:19.827766 18884 net.cpp:131] Top shape: 111 24 17 17 (769896)
I0504 07:25:19.827769 18884 net.cpp:139] Memory required for data: 29080668
I0504 07:25:19.827774 18884 layer_factory.hpp:77] Creating layer conv1
I0504 07:25:19.827786 18884 net.cpp:86] Creating Layer conv1
I0504 07:25:19.827790 18884 net.cpp:408] conv1 <- pool0
I0504 07:25:19.827795 18884 net.cpp:382] conv1 -> conv1
I0504 07:25:19.830623 18884 net.cpp:124] Setting up conv1
I0504 07:25:19.830638 18884 net.cpp:131] Top shape: 111 24 19 19 (961704)
I0504 07:25:19.830642 18884 net.cpp:139] Memory required for data: 32927484
I0504 07:25:19.830651 18884 layer_factory.hpp:77] Creating layer Sigmoid1
I0504 07:25:19.830657 18884 net.cpp:86] Creating Layer Sigmoid1
I0504 07:25:19.830662 18884 net.cpp:408] Sigmoid1 <- conv1
I0504 07:25:19.830667 18884 net.cpp:382] Sigmoid1 -> Sigmoid1
I0504 07:25:19.830837 18884 net.cpp:124] Setting up Sigmoid1
I0504 07:25:19.830847 18884 net.cpp:131] Top shape: 111 24 19 19 (961704)
I0504 07:25:19.830850 18884 net.cpp:139] Memory required for data: 36774300
I0504 07:25:19.830853 18884 layer_factory.hpp:77] Creating layer pool1
I0504 07:25:19.830859 18884 net.cpp:86] Creating Layer pool1
I0504 07:25:19.830862 18884 net.cpp:408] pool1 <- Sigmoid1
I0504 07:25:19.830868 18884 net.cpp:382] pool1 -> pool1
I0504 07:25:19.831027 18884 net.cpp:124] Setting up pool1
I0504 07:25:19.831035 18884 net.cpp:131] Top shape: 111 24 9 9 (215784)
I0504 07:25:19.831039 18884 net.cpp:139] Memory required for data: 37637436
I0504 07:25:19.831043 18884 layer_factory.hpp:77] Creating layer ip1
I0504 07:25:19.831049 18884 net.cpp:86] Creating Layer ip1
I0504 07:25:19.831053 18884 net.cpp:408] ip1 <- pool1
I0504 07:25:19.831058 18884 net.cpp:382] ip1 -> ip1
I0504 07:25:19.834445 18884 net.cpp:124] Setting up ip1
I0504 07:25:19.834456 18884 net.cpp:131] Top shape: 111 60 (6660)
I0504 07:25:19.834460 18884 net.cpp:139] Memory required for data: 37664076
I0504 07:25:19.834467 18884 layer_factory.hpp:77] Creating layer relu1
I0504 07:25:19.834475 18884 net.cpp:86] Creating Layer relu1
I0504 07:25:19.834477 18884 net.cpp:408] relu1 <- ip1
I0504 07:25:19.834482 18884 net.cpp:369] relu1 -> ip1 (in-place)
I0504 07:25:19.834636 18884 net.cpp:124] Setting up relu1
I0504 07:25:19.834645 18884 net.cpp:131] Top shape: 111 60 (6660)
I0504 07:25:19.834648 18884 net.cpp:139] Memory required for data: 37690716
I0504 07:25:19.834651 18884 layer_factory.hpp:77] Creating layer ip2
I0504 07:25:19.834657 18884 net.cpp:86] Creating Layer ip2
I0504 07:25:19.834661 18884 net.cpp:408] ip2 <- ip1
I0504 07:25:19.834692 18884 net.cpp:382] ip2 -> ip2
I0504 07:25:19.834897 18884 net.cpp:124] Setting up ip2
I0504 07:25:19.834903 18884 net.cpp:131] Top shape: 111 60 (6660)
I0504 07:25:19.834906 18884 net.cpp:139] Memory required for data: 37717356
I0504 07:25:19.834913 18884 layer_factory.hpp:77] Creating layer relu2
I0504 07:25:19.834918 18884 net.cpp:86] Creating Layer relu2
I0504 07:25:19.834920 18884 net.cpp:408] relu2 <- ip2
I0504 07:25:19.834924 18884 net.cpp:369] relu2 -> ip2 (in-place)
I0504 07:25:19.835656 18884 net.cpp:124] Setting up relu2
I0504 07:25:19.835669 18884 net.cpp:131] Top shape: 111 60 (6660)
I0504 07:25:19.835672 18884 net.cpp:139] Memory required for data: 37743996
I0504 07:25:19.835675 18884 layer_factory.hpp:77] Creating layer ip3
I0504 07:25:19.835682 18884 net.cpp:86] Creating Layer ip3
I0504 07:25:19.835686 18884 net.cpp:408] ip3 <- ip2
I0504 07:25:19.835691 18884 net.cpp:382] ip3 -> ip3
I0504 07:25:19.835806 18884 net.cpp:124] Setting up ip3
I0504 07:25:19.835834 18884 net.cpp:131] Top shape: 111 10 (1110)
I0504 07:25:19.835839 18884 net.cpp:139] Memory required for data: 37748436
I0504 07:25:19.835846 18884 layer_factory.hpp:77] Creating layer loss
I0504 07:25:19.835851 18884 net.cpp:86] Creating Layer loss
I0504 07:25:19.835855 18884 net.cpp:408] loss <- ip3
I0504 07:25:19.835858 18884 net.cpp:408] loss <- label
I0504 07:25:19.835865 18884 net.cpp:382] loss -> loss
I0504 07:25:19.835880 18884 layer_factory.hpp:77] Creating layer loss
…
I0504 07:25:19.836534 18884 solver.cpp:173] Creating test net (#0) specified by net file: ECE595/cifar/train_test/var_everything_tiny/cifar_train_test_79.prototxt
I0504 07:25:19.836562 18884 net.cpp:296] The NetState phase (1) differed from the phase (0) specified by a rule in layer cifar
I0504 07:25:19.836661 18884 net.cpp:53] Initializing net from parameters: 
name: "CIFAR"
state {
  phase: TEST
}
layer {
  name: "cifar"
  type: "Data"
  top: "data"
  top: "label"
  include {
    phase: TEST
  }
  transform_param {
    mean_file: "examples/cifar10/mean.binaryproto"
  }
  data_param {
    source: "examples/cifar10/cifar10_test_lmdb"
    batch_size: 1000
    backend: LMDB
  }
}
layer {
  name: "conv0"
  type: "Convolution"
  bottom: "data"
  top: "conv0"
  param {
    lr_mult: 1
  }
  param {
    lr_mult: 2
  }
  convolution_param {
    num_output: 24
    pad: 2
    kernel_size: 3
    stride: 1
    weight_filler {
      type: "gaussian"
      std: 0.01
    }
    bias_filler {
      type: "constant"
    }
  }
}
layer {
  name: "Sigmoid0"
  type: "Sigmoid"
  bottom: "conv0"
  top: "Sigmoid0"
}
layer {
  name: "pool0"
  type: "Pooling"
  bottom: "Sigmoid0"
  top: "pool0"
  pooling_param {
    pool: AVE
    kernel_size: 3
    stride: 2
  }
}
layer {
  name: "conv1"
  type: "Convolution"
  bottom: "pool0"
  top: "conv1"
  param {
    lr_mult: 1
  }
  param {
    lr_mult: 2
  }
  convolution_param {
    num_output: 24
    pad: 2
    kernel_size: 3
    stride: 1
    weight_filler {
      type: "gaussian"
      std: 0.01
    }
    bias_filler {
      type: "constant"
    }
  }
}
layer {
  name: "Sigmoid1"
  type: "Sigmoid"
  bottom: "conv1"
  top: "Sigmoid1"
}
layer {
  name: "pool1"
  type: "Pooling"
  bottom: "Sigmoid1"
  top: "pool1"
  pooling_param {
    pool: AVE
    kernel_size: 3
    stride: 2
  }
}
layer {
  name: "ip1"
  type: "InnerProduct"
  bottom: "pool1"
  top: "ip1"
  param {
    lr_mult: 1
  }
  param {
    lr_mult: 2
  }
  inner_product_param {
    num_output: 60
    weight_filler {
      type: "gaussian"
      std: 0.01
    }
    bias_filler {
      type: "constant"
    }
  }
}
layer {
  name: "relu1"
  type: "ReLU"
  bottom: "ip1"
  top: "ip1"
}
layer {
  name: "ip2"
  type: "InnerProduct"
  bottom: "ip1"
  top: "ip2"
  param {
    lr_mult: 1
  }
  param {
    lr_mult: 2
  }
  inner_product_param {
    num_output: 60
    weight_filler {
      type: "gaussian"
      std: 0.01
    }
    bias_filler {
      type: "constant"
    }
  }
}
layer {
  name: "relu2"
  type: "ReLU"
  bottom: "ip2"
  top: "ip2"
}
layer {
  name: "ip3"
  type: "InnerProduct"
  bottom: "ip2"
  top: "ip3"
  param {
    lr_mult: 1
  }
  param {
    lr_mult: 2
  }
  inner_product_param {
    num_output: 10
    weight_filler {
      type: "gaussian"
      std: 0.01
    }
    bias_filler {
      type: "constant"
    }
  }
}
layer {
  name: "accuracy"
  type: "Accuracy"
  bottom: "ip3"
  bottom: "label"
  top: "accuracy"
  include {
    phase: TEST
  }
}
layer {
  name: "loss"
  type: "SoftmaxWithLoss"
  bottom: "ip3"
  bottom: "label"
  top: "loss"
}
I0504 07:25:19.836745 18884 layer_factory.hpp:77] Creating layer cifar
I0504 07:25:19.836793 18884 db_lmdb.cpp:35] Opened lmdb examples/cifar10/cifar10_test_lmdb
I0504 07:25:19.836805 18884 net.cpp:86] Creating Layer cifar
I0504 07:25:19.836820 18884 net.cpp:382] cifar -> data
I0504 07:25:19.836829 18884 net.cpp:382] cifar -> label
I0504 07:25:19.836836 18884 data_transformer.cpp:25] Loading mean file from: examples/cifar10/mean.binaryproto
I0504 07:25:19.836998 18884 data_layer.cpp:45] output data size: 1000,3,32,32
I0504 07:25:19.859218 18884 net.cpp:124] Setting up cifar
I0504 07:25:19.859246 18884 net.cpp:131] Top shape: 1000 3 32 32 (3072000)
I0504 07:25:19.859251 18884 net.cpp:131] Top shape: 1000 (1000)
I0504 07:25:19.859254 18884 net.cpp:139] Memory required for data: 12292000
I0504 07:25:19.859261 18884 layer_factory.hpp:77] Creating layer label_cifar_1_split
I0504 07:25:19.859277 18884 net.cpp:86] Creating Layer label_cifar_1_split
I0504 07:25:19.859280 18884 net.cpp:408] label_cifar_1_split <- label
I0504 07:25:19.859287 18884 net.cpp:382] label_cifar_1_split -> label_cifar_1_split_0
I0504 07:25:19.859295 18884 net.cpp:382] label_cifar_1_split -> label_cifar_1_split_1
I0504 07:25:19.859369 18884 net.cpp:124] Setting up label_cifar_1_split
I0504 07:25:19.859386 18884 net.cpp:131] Top shape: 1000 (1000)
I0504 07:25:19.859390 18884 net.cpp:131] Top shape: 1000 (1000)
I0504 07:25:19.859392 18884 net.cpp:139] Memory required for data: 12300000
I0504 07:25:19.859395 18884 layer_factory.hpp:77] Creating layer conv0
I0504 07:25:19.859408 18884 net.cpp:86] Creating Layer conv0
I0504 07:25:19.859411 18884 net.cpp:408] conv0 <- data
I0504 07:25:19.859416 18884 net.cpp:382] conv0 -> conv0
I0504 07:25:19.860909 18884 net.cpp:124] Setting up conv0
I0504 07:25:19.860939 18884 net.cpp:131] Top shape: 1000 24 34 34 (27744000)
I0504 07:25:19.860942 18884 net.cpp:139] Memory required for data: 123276000
I0504 07:25:19.860954 18884 layer_factory.hpp:77] Creating layer Sigmoid0
I0504 07:25:19.860960 18884 net.cpp:86] Creating Layer Sigmoid0
I0504 07:25:19.860963 18884 net.cpp:408] Sigmoid0 <- conv0
I0504 07:25:19.860968 18884 net.cpp:382] Sigmoid0 -> Sigmoid0
I0504 07:25:19.862128 18884 net.cpp:124] Setting up Sigmoid0
I0504 07:25:19.862151 18884 net.cpp:131] Top shape: 1000 24 34 34 (27744000)
I0504 07:25:19.862154 18884 net.cpp:139] Memory required for data: 234252000
I0504 07:25:19.862159 18884 layer_factory.hpp:77] Creating layer pool0
I0504 07:25:19.862165 18884 net.cpp:86] Creating Layer pool0
I0504 07:25:19.862169 18884 net.cpp:408] pool0 <- Sigmoid0
I0504 07:25:19.862174 18884 net.cpp:382] pool0 -> pool0
I0504 07:25:19.862375 18884 net.cpp:124] Setting up pool0
I0504 07:25:19.862383 18884 net.cpp:131] Top shape: 1000 24 17 17 (6936000)
I0504 07:25:19.862386 18884 net.cpp:139] Memory required for data: 261996000
I0504 07:25:19.862390 18884 layer_factory.hpp:77] Creating layer conv1
I0504 07:25:19.862399 18884 net.cpp:86] Creating Layer conv1
I0504 07:25:19.862403 18884 net.cpp:408] conv1 <- pool0
I0504 07:25:19.862409 18884 net.cpp:382] conv1 -> conv1
I0504 07:25:19.863849 18884 net.cpp:124] Setting up conv1
I0504 07:25:19.863862 18884 net.cpp:131] Top shape: 1000 24 19 19 (8664000)
I0504 07:25:19.863865 18884 net.cpp:139] Memory required for data: 296652000
I0504 07:25:19.863873 18884 layer_factory.hpp:77] Creating layer Sigmoid1
I0504 07:25:19.863879 18884 net.cpp:86] Creating Layer Sigmoid1
I0504 07:25:19.863883 18884 net.cpp:408] Sigmoid1 <- conv1
I0504 07:25:19.863888 18884 net.cpp:382] Sigmoid1 -> Sigmoid1
I0504 07:25:19.864073 18884 net.cpp:124] Setting up Sigmoid1
I0504 07:25:19.864082 18884 net.cpp:131] Top shape: 1000 24 19 19 (8664000)
I0504 07:25:19.864085 18884 net.cpp:139] Memory required for data: 331308000
I0504 07:25:19.864089 18884 layer_factory.hpp:77] Creating layer pool1
I0504 07:25:19.864095 18884 net.cpp:86] Creating Layer pool1
I0504 07:25:19.864099 18884 net.cpp:408] pool1 <- Sigmoid1
I0504 07:25:19.864102 18884 net.cpp:382] pool1 -> pool1
I0504 07:25:19.864897 18884 net.cpp:124] Setting up pool1
I0504 07:25:19.864925 18884 net.cpp:131] Top shape: 1000 24 9 9 (1944000)
I0504 07:25:19.864929 18884 net.cpp:139] Memory required for data: 339084000
I0504 07:25:19.864933 18884 layer_factory.hpp:77] Creating layer ip1
I0504 07:25:19.864943 18884 net.cpp:86] Creating Layer ip1
I0504 07:25:19.864945 18884 net.cpp:408] ip1 <- pool1
I0504 07:25:19.864951 18884 net.cpp:382] ip1 -> ip1
I0504 07:25:19.868206 18884 net.cpp:124] Setting up ip1
I0504 07:25:19.868213 18884 net.cpp:131] Top shape: 1000 60 (60000)
I0504 07:25:19.868216 18884 net.cpp:139] Memory required for data: 339324000
I0504 07:25:19.868223 18884 layer_factory.hpp:77] Creating layer relu1
I0504 07:25:19.868230 18884 net.cpp:86] Creating Layer relu1
I0504 07:25:19.868234 18884 net.cpp:408] relu1 <- ip1
I0504 07:25:19.868238 18884 net.cpp:369] relu1 -> ip1 (in-place)
I0504 07:25:19.868412 18884 net.cpp:124] Setting up relu1
I0504 07:25:19.868420 18884 net.cpp:131] Top shape: 1000 60 (60000)
I0504 07:25:19.868423 18884 net.cpp:139] Memory required for data: 339564000
I0504 07:25:19.868427 18884 layer_factory.hpp:77] Creating layer ip2
I0504 07:25:19.868433 18884 net.cpp:86] Creating Layer ip2
I0504 07:25:19.868438 18884 net.cpp:408] ip2 <- ip1
I0504 07:25:19.868443 18884 net.cpp:382] ip2 -> ip2
I0504 07:25:19.868643 18884 net.cpp:124] Setting up ip2
I0504 07:25:19.868652 18884 net.cpp:131] Top shape: 1000 60 (60000)
I0504 07:25:19.868655 18884 net.cpp:139] Memory required for data: 339804000
I0504 07:25:19.868660 18884 layer_factory.hpp:77] Creating layer relu2
I0504 07:25:19.868665 18884 net.cpp:86] Creating Layer relu2
I0504 07:25:19.868669 18884 net.cpp:408] relu2 <- ip2
I0504 07:25:19.868672 18884 net.cpp:369] relu2 -> ip2 (in-place)
I0504 07:25:19.868882 18884 net.cpp:124] Setting up relu2
I0504 07:25:19.868892 18884 net.cpp:131] Top shape: 1000 60 (60000)
I0504 07:25:19.868896 18884 net.cpp:139] Memory required for data: 340044000
I0504 07:25:19.868899 18884 layer_factory.hpp:77] Creating layer ip3
I0504 07:25:19.868906 18884 net.cpp:86] Creating Layer ip3
I0504 07:25:19.868909 18884 net.cpp:408] ip3 <- ip2
I0504 07:25:19.868916 18884 net.cpp:382] ip3 -> ip3
I0504 07:25:19.869055 18884 net.cpp:124] Setting up ip3
I0504 07:25:19.869062 18884 net.cpp:131] Top shape: 1000 10 (10000)
I0504 07:25:19.869076 18884 net.cpp:139] Memory required for data: 340084000
I0504 07:25:19.869086 18884 layer_factory.hpp:77] Creating layer ip3_ip3_0_split
I0504 07:25:19.869091 18884 net.cpp:86] Creating Layer ip3_ip3_0_split
I0504 07:25:19.869094 18884 net.cpp:408] ip3_ip3_0_split <- ip3
I0504 07:25:19.869102 18884 net.cpp:382] ip3_ip3_0_split -> ip3_ip3_0_split_0
I0504 07:25:19.869122 18884 net.cpp:382] ip3_ip3_0_split -> ip3_ip3_0_split_1
I0504 07:25:19.869169 18884 net.cpp:124] Setting up ip3_ip3_0_split
I0504 07:25:19.869176 18884 net.cpp:131] Top shape: 1000 10 (10000)
I0504 07:25:19.869179 18884 net.cpp:131] Top shape: 1000 10 (10000)
I0504 07:25:19.869196 18884 net.cpp:139] Memory required for data: 340164000
I0504 07:25:19.869199 18884 layer_factory.hpp:77] Creating layer accuracy
I0504 07:25:19.869205 18884 net.cpp:86] Creating Layer accuracy
I0504 07:25:19.869210 18884 net.cpp:408] accuracy <- ip3_ip3_0_split_0
I0504 07:25:19.869212 18884 net.cpp:408] accuracy <- label_cifar_1_split_0
I0504 07:25:19.869217 18884 net.cpp:382] accuracy -> accuracy
…
