…
I0504 08:19:46.036604 21634 net.cpp:296] The NetState phase (0) differed from the phase (1) specified by a rule in layer cifar
I0504 08:19:46.036631 21634 net.cpp:296] The NetState phase (0) differed from the phase (1) specified by a rule in layer accuracy
I0504 08:19:46.036754 21634 net.cpp:53] Initializing net from parameters: 
name: "CIFAR"
state {
  phase: TRAIN
  level: 0
  stage: ""
}
layer {
  name: "cifar"
  type: "Data"
  top: "data"
  top: "label"
  include {
    phase: TRAIN
  }
  transform_param {
    mean_file: "examples/cifar10/mean.binaryproto"
  }
  data_param {
    source: "examples/cifar10/cifar10_train_lmdb"
    batch_size: 111
    backend: LMDB
  }
}
layer {
  name: "conv0"
  type: "Convolution"
  bottom: "data"
  top: "conv0"
  param {
    lr_mult: 1
  }
  param {
    lr_mult: 2
  }
  convolution_param {
    num_output: 24
    pad: 2
    kernel_size: 5
    stride: 1
    weight_filler {
      type: "gaussian"
      std: 0.01
    }
    bias_filler {
      type: "constant"
    }
  }
}
layer {
  name: "Sigmoid0"
  type: "Sigmoid"
  bottom: "conv0"
  top: "Sigmoid0"
}
layer {
  name: "pool0"
  type: "Pooling"
  bottom: "Sigmoid0"
  top: "pool0"
  pooling_param {
    pool: AVE
    kernel_size: 3
    stride: 2
  }
}
layer {
  name: "conv1"
  type: "Convolution"
  bottom: "pool0"
  top: "conv1"
  param {
    lr_mult: 1
  }
  param {
    lr_mult: 2
  }
  convolution_param {
    num_output: 24
    pad: 2
    kernel_size: 5
    stride: 1
    weight_filler {
      type: "gaussian"
      std: 0.01
    }
    bias_filler {
      type: "constant"
    }
  }
}
layer {
  name: "Sigmoid1"
  type: "Sigmoid"
  bottom: "conv1"
  top: "Sigmoid1"
}
layer {
  name: "pool1"
  type: "Pooling"
  bottom: "Sigmoid1"
  top: "pool1"
  pooling_param {
    pool: AVE
    kernel_size: 3
    stride: 2
  }
}
layer {
  name: "ip1"
  type: "InnerProduct"
  bottom: "pool1"
  top: "ip1"
  param {
    lr_mult: 1
  }
  param {
    lr_mult: 2
  }
  inner_product_param {
    num_output: 10
    weight_filler {
      type: "gaussian"
      std: 0.01
    }
    bias_filler {
      type: "constant"
    }
  }
}
layer {
  name: "relu1"
  type: "ReLU"
  bottom: "ip1"
  top: "ip1"
}
layer {
  name: "ip2"
  type: "InnerProduct"
  bottom: "ip1"
  top: "ip2"
  param {
    lr_mult: 1
  }
  param {
    lr_mult: 2
  }
  inner_product_param {
    num_output: 10
    weight_filler {
      type: "gaussian"
      std: 0.01
    }
    bias_filler {
      type: "constant"
    }
  }
}
layer {
  name: "relu2"
  type: "ReLU"
  bottom: "ip2"
  top: "ip2"
}
layer {
  name: "ip3"
  type: "InnerProduct"
  bottom: "ip2"
  top: "ip3"
  param {
    lr_mult: 1
  }
  param {
    lr_mult: 2
  }
  inner_product_param {
    num_output: 10
    weight_filler {
      type: "gaussian"
      std: 0.01
    }
    bias_filler {
      type: "constant"
    }
  }
}
layer {
  name: "loss"
  type: "SoftmaxWithLoss"
  bottom: "ip3"
  bottom: "label"
  top: "loss"
}
I0504 08:19:46.036885 21634 layer_factory.hpp:77] Creating layer cifar
I0504 08:19:46.037024 21634 db_lmdb.cpp:35] Opened lmdb examples/cifar10/cifar10_train_lmdb
I0504 08:19:46.037060 21634 net.cpp:86] Creating Layer cifar
I0504 08:19:46.037072 21634 net.cpp:382] cifar -> data
I0504 08:19:46.037106 21634 net.cpp:382] cifar -> label
I0504 08:19:46.037124 21634 data_transformer.cpp:25] Loading mean file from: examples/cifar10/mean.binaryproto
I0504 08:19:46.039548 21634 data_layer.cpp:45] output data size: 111,3,32,32
I0504 08:19:46.047533 21634 net.cpp:124] Setting up cifar
I0504 08:19:46.047555 21634 net.cpp:131] Top shape: 111 3 32 32 (340992)
I0504 08:19:46.047566 21634 net.cpp:131] Top shape: 111 (111)
I0504 08:19:46.047572 21634 net.cpp:139] Memory required for data: 1364412
I0504 08:19:46.047585 21634 layer_factory.hpp:77] Creating layer conv0
I0504 08:19:46.047615 21634 net.cpp:86] Creating Layer conv0
I0504 08:19:46.047626 21634 net.cpp:408] conv0 <- data
I0504 08:19:46.047644 21634 net.cpp:382] conv0 -> conv0
I0504 08:19:46.339831 21634 net.cpp:124] Setting up conv0
I0504 08:19:46.339862 21634 net.cpp:131] Top shape: 111 24 32 32 (2727936)
I0504 08:19:46.339869 21634 net.cpp:139] Memory required for data: 12276156
I0504 08:19:46.339893 21634 layer_factory.hpp:77] Creating layer Sigmoid0
I0504 08:19:46.339911 21634 net.cpp:86] Creating Layer Sigmoid0
I0504 08:19:46.339920 21634 net.cpp:408] Sigmoid0 <- conv0
I0504 08:19:46.339929 21634 net.cpp:382] Sigmoid0 -> Sigmoid0
I0504 08:19:46.340139 21634 net.cpp:124] Setting up Sigmoid0
I0504 08:19:46.340153 21634 net.cpp:131] Top shape: 111 24 32 32 (2727936)
I0504 08:19:46.340159 21634 net.cpp:139] Memory required for data: 23187900
I0504 08:19:46.340165 21634 layer_factory.hpp:77] Creating layer pool0
I0504 08:19:46.340178 21634 net.cpp:86] Creating Layer pool0
I0504 08:19:46.340183 21634 net.cpp:408] pool0 <- Sigmoid0
I0504 08:19:46.340193 21634 net.cpp:382] pool0 -> pool0
I0504 08:19:46.341058 21634 net.cpp:124] Setting up pool0
I0504 08:19:46.341075 21634 net.cpp:131] Top shape: 111 24 16 16 (681984)
I0504 08:19:46.341083 21634 net.cpp:139] Memory required for data: 25915836
I0504 08:19:46.341089 21634 layer_factory.hpp:77] Creating layer conv1
I0504 08:19:46.341109 21634 net.cpp:86] Creating Layer conv1
I0504 08:19:46.341122 21634 net.cpp:408] conv1 <- pool0
I0504 08:19:46.341135 21634 net.cpp:382] conv1 -> conv1
I0504 08:19:46.344578 21634 net.cpp:124] Setting up conv1
I0504 08:19:46.344595 21634 net.cpp:131] Top shape: 111 24 16 16 (681984)
I0504 08:19:46.344602 21634 net.cpp:139] Memory required for data: 28643772
I0504 08:19:46.344619 21634 layer_factory.hpp:77] Creating layer Sigmoid1
I0504 08:19:46.344630 21634 net.cpp:86] Creating Layer Sigmoid1
I0504 08:19:46.344636 21634 net.cpp:408] Sigmoid1 <- conv1
I0504 08:19:46.344645 21634 net.cpp:382] Sigmoid1 -> Sigmoid1
I0504 08:19:46.344853 21634 net.cpp:124] Setting up Sigmoid1
I0504 08:19:46.344866 21634 net.cpp:131] Top shape: 111 24 16 16 (681984)
I0504 08:19:46.344872 21634 net.cpp:139] Memory required for data: 31371708
I0504 08:19:46.344879 21634 layer_factory.hpp:77] Creating layer pool1
I0504 08:19:46.344889 21634 net.cpp:86] Creating Layer pool1
I0504 08:19:46.344895 21634 net.cpp:408] pool1 <- Sigmoid1
I0504 08:19:46.344904 21634 net.cpp:382] pool1 -> pool1
I0504 08:19:46.345101 21634 net.cpp:124] Setting up pool1
I0504 08:19:46.345114 21634 net.cpp:131] Top shape: 111 24 8 8 (170496)
I0504 08:19:46.345120 21634 net.cpp:139] Memory required for data: 32053692
I0504 08:19:46.345126 21634 layer_factory.hpp:77] Creating layer ip1
I0504 08:19:46.345139 21634 net.cpp:86] Creating Layer ip1
I0504 08:19:46.345145 21634 net.cpp:408] ip1 <- pool1
I0504 08:19:46.345155 21634 net.cpp:382] ip1 -> ip1
I0504 08:19:46.345762 21634 net.cpp:124] Setting up ip1
I0504 08:19:46.345773 21634 net.cpp:131] Top shape: 111 10 (1110)
I0504 08:19:46.345779 21634 net.cpp:139] Memory required for data: 32058132
I0504 08:19:46.345793 21634 layer_factory.hpp:77] Creating layer relu1
I0504 08:19:46.345805 21634 net.cpp:86] Creating Layer relu1
I0504 08:19:46.345814 21634 net.cpp:408] relu1 <- ip1
I0504 08:19:46.345824 21634 net.cpp:369] relu1 -> ip1 (in-place)
I0504 08:19:46.346001 21634 net.cpp:124] Setting up relu1
I0504 08:19:46.346012 21634 net.cpp:131] Top shape: 111 10 (1110)
I0504 08:19:46.346019 21634 net.cpp:139] Memory required for data: 32062572
I0504 08:19:46.346024 21634 layer_factory.hpp:77] Creating layer ip2
I0504 08:19:46.346035 21634 net.cpp:86] Creating Layer ip2
I0504 08:19:46.346041 21634 net.cpp:408] ip2 <- ip1
I0504 08:19:46.346074 21634 net.cpp:382] ip2 -> ip2
I0504 08:19:46.346200 21634 net.cpp:124] Setting up ip2
I0504 08:19:46.346212 21634 net.cpp:131] Top shape: 111 10 (1110)
I0504 08:19:46.346217 21634 net.cpp:139] Memory required for data: 32067012
I0504 08:19:46.346227 21634 layer_factory.hpp:77] Creating layer relu2
I0504 08:19:46.346236 21634 net.cpp:86] Creating Layer relu2
I0504 08:19:46.346242 21634 net.cpp:408] relu2 <- ip2
I0504 08:19:46.346251 21634 net.cpp:369] relu2 -> ip2 (in-place)
I0504 08:19:46.347075 21634 net.cpp:124] Setting up relu2
I0504 08:19:46.347091 21634 net.cpp:131] Top shape: 111 10 (1110)
I0504 08:19:46.347097 21634 net.cpp:139] Memory required for data: 32071452
I0504 08:19:46.347105 21634 layer_factory.hpp:77] Creating layer ip3
I0504 08:19:46.347115 21634 net.cpp:86] Creating Layer ip3
I0504 08:19:46.347122 21634 net.cpp:408] ip3 <- ip2
I0504 08:19:46.347133 21634 net.cpp:382] ip3 -> ip3
I0504 08:19:46.347259 21634 net.cpp:124] Setting up ip3
I0504 08:19:46.347270 21634 net.cpp:131] Top shape: 111 10 (1110)
I0504 08:19:46.347275 21634 net.cpp:139] Memory required for data: 32075892
I0504 08:19:46.347290 21634 layer_factory.hpp:77] Creating layer loss
I0504 08:19:46.347301 21634 net.cpp:86] Creating Layer loss
I0504 08:19:46.347309 21634 net.cpp:408] loss <- ip3
I0504 08:19:46.347317 21634 net.cpp:408] loss <- label
I0504 08:19:46.347327 21634 net.cpp:382] loss -> loss
I0504 08:19:46.347352 21634 layer_factory.hpp:77] Creating layer loss
…
I0504 08:19:46.348162 21634 solver.cpp:173] Creating test net (#0) specified by net file: ECE595/cifar/train_test/var_everything_tiny/cifar_train_test_99.prototxt
I0504 08:19:46.348204 21634 net.cpp:296] The NetState phase (1) differed from the phase (0) specified by a rule in layer cifar
I0504 08:19:46.348326 21634 net.cpp:53] Initializing net from parameters: 
name: "CIFAR"
state {
  phase: TEST
}
layer {
  name: "cifar"
  type: "Data"
  top: "data"
  top: "label"
  include {
    phase: TEST
  }
  transform_param {
    mean_file: "examples/cifar10/mean.binaryproto"
  }
  data_param {
    source: "examples/cifar10/cifar10_test_lmdb"
    batch_size: 1000
    backend: LMDB
  }
}
layer {
  name: "conv0"
  type: "Convolution"
  bottom: "data"
  top: "conv0"
  param {
    lr_mult: 1
  }
  param {
    lr_mult: 2
  }
  convolution_param {
    num_output: 24
    pad: 2
    kernel_size: 5
    stride: 1
    weight_filler {
      type: "gaussian"
      std: 0.01
    }
    bias_filler {
      type: "constant"
    }
  }
}
layer {
  name: "Sigmoid0"
  type: "Sigmoid"
  bottom: "conv0"
  top: "Sigmoid0"
}
layer {
  name: "pool0"
  type: "Pooling"
  bottom: "Sigmoid0"
  top: "pool0"
  pooling_param {
    pool: AVE
    kernel_size: 3
    stride: 2
  }
}
layer {
  name: "conv1"
  type: "Convolution"
  bottom: "pool0"
  top: "conv1"
  param {
    lr_mult: 1
  }
  param {
    lr_mult: 2
  }
  convolution_param {
    num_output: 24
    pad: 2
    kernel_size: 5
    stride: 1
    weight_filler {
      type: "gaussian"
      std: 0.01
    }
    bias_filler {
      type: "constant"
    }
  }
}
layer {
  name: "Sigmoid1"
  type: "Sigmoid"
  bottom: "conv1"
  top: "Sigmoid1"
}
layer {
  name: "pool1"
  type: "Pooling"
  bottom: "Sigmoid1"
  top: "pool1"
  pooling_param {
    pool: AVE
    kernel_size: 3
    stride: 2
  }
}
layer {
  name: "ip1"
  type: "InnerProduct"
  bottom: "pool1"
  top: "ip1"
  param {
    lr_mult: 1
  }
  param {
    lr_mult: 2
  }
  inner_product_param {
    num_output: 10
    weight_filler {
      type: "gaussian"
      std: 0.01
    }
    bias_filler {
      type: "constant"
    }
  }
}
layer {
  name: "relu1"
  type: "ReLU"
  bottom: "ip1"
  top: "ip1"
}
layer {
  name: "ip2"
  type: "InnerProduct"
  bottom: "ip1"
  top: "ip2"
  param {
    lr_mult: 1
  }
  param {
    lr_mult: 2
  }
  inner_product_param {
    num_output: 10
    weight_filler {
      type: "gaussian"
      std: 0.01
    }
    bias_filler {
      type: "constant"
    }
  }
}
layer {
  name: "relu2"
  type: "ReLU"
  bottom: "ip2"
  top: "ip2"
}
layer {
  name: "ip3"
  type: "InnerProduct"
  bottom: "ip2"
  top: "ip3"
  param {
    lr_mult: 1
  }
  param {
    lr_mult: 2
  }
  inner_product_param {
    num_output: 10
    weight_filler {
      type: "gaussian"
      std: 0.01
    }
    bias_filler {
      type: "constant"
    }
  }
}
layer {
  name: "accuracy"
  type: "Accuracy"
  bottom: "ip3"
  bottom: "label"
  top: "accuracy"
  include {
    phase: TEST
  }
}
layer {
  name: "loss"
  type: "SoftmaxWithLoss"
  bottom: "ip3"
  bottom: "label"
  top: "loss"
}
I0504 08:19:46.348464 21634 layer_factory.hpp:77] Creating layer cifar
I0504 08:19:46.348534 21634 db_lmdb.cpp:35] Opened lmdb examples/cifar10/cifar10_test_lmdb
I0504 08:19:46.348553 21634 net.cpp:86] Creating Layer cifar
I0504 08:19:46.348562 21634 net.cpp:382] cifar -> data
I0504 08:19:46.348575 21634 net.cpp:382] cifar -> label
I0504 08:19:46.348587 21634 data_transformer.cpp:25] Loading mean file from: examples/cifar10/mean.binaryproto
I0504 08:19:46.348824 21634 data_layer.cpp:45] output data size: 1000,3,32,32
I0504 08:19:46.373168 21634 net.cpp:124] Setting up cifar
I0504 08:19:46.373198 21634 net.cpp:131] Top shape: 1000 3 32 32 (3072000)
I0504 08:19:46.373208 21634 net.cpp:131] Top shape: 1000 (1000)
I0504 08:19:46.373212 21634 net.cpp:139] Memory required for data: 12292000
I0504 08:19:46.373220 21634 layer_factory.hpp:77] Creating layer label_cifar_1_split
I0504 08:19:46.373242 21634 net.cpp:86] Creating Layer label_cifar_1_split
I0504 08:19:46.373250 21634 net.cpp:408] label_cifar_1_split <- label
I0504 08:19:46.373260 21634 net.cpp:382] label_cifar_1_split -> label_cifar_1_split_0
I0504 08:19:46.373275 21634 net.cpp:382] label_cifar_1_split -> label_cifar_1_split_1
I0504 08:19:46.373354 21634 net.cpp:124] Setting up label_cifar_1_split
I0504 08:19:46.373364 21634 net.cpp:131] Top shape: 1000 (1000)
I0504 08:19:46.373371 21634 net.cpp:131] Top shape: 1000 (1000)
I0504 08:19:46.373376 21634 net.cpp:139] Memory required for data: 12300000
I0504 08:19:46.373383 21634 layer_factory.hpp:77] Creating layer conv0
I0504 08:19:46.373399 21634 net.cpp:86] Creating Layer conv0
I0504 08:19:46.373407 21634 net.cpp:408] conv0 <- data
I0504 08:19:46.373416 21634 net.cpp:382] conv0 -> conv0
I0504 08:19:46.375105 21634 net.cpp:124] Setting up conv0
I0504 08:19:46.375123 21634 net.cpp:131] Top shape: 1000 24 32 32 (24576000)
I0504 08:19:46.375128 21634 net.cpp:139] Memory required for data: 110604000
I0504 08:19:46.375144 21634 layer_factory.hpp:77] Creating layer Sigmoid0
I0504 08:19:46.375155 21634 net.cpp:86] Creating Layer Sigmoid0
I0504 08:19:46.375169 21634 net.cpp:408] Sigmoid0 <- conv0
I0504 08:19:46.375178 21634 net.cpp:382] Sigmoid0 -> Sigmoid0
I0504 08:19:46.375449 21634 net.cpp:124] Setting up Sigmoid0
I0504 08:19:46.375473 21634 net.cpp:131] Top shape: 1000 24 32 32 (24576000)
I0504 08:19:46.375480 21634 net.cpp:139] Memory required for data: 208908000
I0504 08:19:46.375486 21634 layer_factory.hpp:77] Creating layer pool0
I0504 08:19:46.375500 21634 net.cpp:86] Creating Layer pool0
I0504 08:19:46.375512 21634 net.cpp:408] pool0 <- Sigmoid0
I0504 08:19:46.375521 21634 net.cpp:382] pool0 -> pool0
I0504 08:19:46.376623 21634 net.cpp:124] Setting up pool0
I0504 08:19:46.376636 21634 net.cpp:131] Top shape: 1000 24 16 16 (6144000)
I0504 08:19:46.376642 21634 net.cpp:139] Memory required for data: 233484000
I0504 08:19:46.376647 21634 layer_factory.hpp:77] Creating layer conv1
I0504 08:19:46.376663 21634 net.cpp:86] Creating Layer conv1
I0504 08:19:46.376670 21634 net.cpp:408] conv1 <- pool0
I0504 08:19:46.376682 21634 net.cpp:382] conv1 -> conv1
I0504 08:19:46.378515 21634 net.cpp:124] Setting up conv1
I0504 08:19:46.378531 21634 net.cpp:131] Top shape: 1000 24 16 16 (6144000)
I0504 08:19:46.378537 21634 net.cpp:139] Memory required for data: 258060000
I0504 08:19:46.378551 21634 layer_factory.hpp:77] Creating layer Sigmoid1
I0504 08:19:46.378561 21634 net.cpp:86] Creating Layer Sigmoid1
I0504 08:19:46.378566 21634 net.cpp:408] Sigmoid1 <- conv1
I0504 08:19:46.378576 21634 net.cpp:382] Sigmoid1 -> Sigmoid1
I0504 08:19:46.378763 21634 net.cpp:124] Setting up Sigmoid1
I0504 08:19:46.378777 21634 net.cpp:131] Top shape: 1000 24 16 16 (6144000)
I0504 08:19:46.378782 21634 net.cpp:139] Memory required for data: 282636000
I0504 08:19:46.378788 21634 layer_factory.hpp:77] Creating layer pool1
I0504 08:19:46.378799 21634 net.cpp:86] Creating Layer pool1
I0504 08:19:46.378805 21634 net.cpp:408] pool1 <- Sigmoid1
I0504 08:19:46.378813 21634 net.cpp:382] pool1 -> pool1
I0504 08:19:46.379593 21634 net.cpp:124] Setting up pool1
I0504 08:19:46.379608 21634 net.cpp:131] Top shape: 1000 24 8 8 (1536000)
I0504 08:19:46.379616 21634 net.cpp:139] Memory required for data: 288780000
I0504 08:19:46.379621 21634 layer_factory.hpp:77] Creating layer ip1
I0504 08:19:46.379636 21634 net.cpp:86] Creating Layer ip1
I0504 08:19:46.379642 21634 net.cpp:408] ip1 <- pool1
I0504 08:19:46.379652 21634 net.cpp:382] ip1 -> ip1
I0504 08:19:46.380203 21634 net.cpp:124] Setting up ip1
I0504 08:19:46.380213 21634 net.cpp:131] Top shape: 1000 10 (10000)
I0504 08:19:46.380219 21634 net.cpp:139] Memory required for data: 288820000
I0504 08:19:46.380233 21634 layer_factory.hpp:77] Creating layer relu1
I0504 08:19:46.380244 21634 net.cpp:86] Creating Layer relu1
I0504 08:19:46.380252 21634 net.cpp:408] relu1 <- ip1
I0504 08:19:46.380260 21634 net.cpp:369] relu1 -> ip1 (in-place)
I0504 08:19:46.380435 21634 net.cpp:124] Setting up relu1
I0504 08:19:46.380446 21634 net.cpp:131] Top shape: 1000 10 (10000)
I0504 08:19:46.380451 21634 net.cpp:139] Memory required for data: 288860000
I0504 08:19:46.380456 21634 layer_factory.hpp:77] Creating layer ip2
I0504 08:19:46.380468 21634 net.cpp:86] Creating Layer ip2
I0504 08:19:46.380475 21634 net.cpp:408] ip2 <- ip1
I0504 08:19:46.380484 21634 net.cpp:382] ip2 -> ip2
I0504 08:19:46.380604 21634 net.cpp:124] Setting up ip2
I0504 08:19:46.380614 21634 net.cpp:131] Top shape: 1000 10 (10000)
I0504 08:19:46.380619 21634 net.cpp:139] Memory required for data: 288900000
I0504 08:19:46.380627 21634 layer_factory.hpp:77] Creating layer relu2
I0504 08:19:46.380636 21634 net.cpp:86] Creating Layer relu2
I0504 08:19:46.380642 21634 net.cpp:408] relu2 <- ip2
I0504 08:19:46.380650 21634 net.cpp:369] relu2 -> ip2 (in-place)
I0504 08:19:46.380825 21634 net.cpp:124] Setting up relu2
I0504 08:19:46.380838 21634 net.cpp:131] Top shape: 1000 10 (10000)
I0504 08:19:46.380844 21634 net.cpp:139] Memory required for data: 288940000
I0504 08:19:46.380851 21634 layer_factory.hpp:77] Creating layer ip3
I0504 08:19:46.380861 21634 net.cpp:86] Creating Layer ip3
I0504 08:19:46.380866 21634 net.cpp:408] ip3 <- ip2
I0504 08:19:46.380875 21634 net.cpp:382] ip3 -> ip3
I0504 08:19:46.380991 21634 net.cpp:124] Setting up ip3
I0504 08:19:46.381001 21634 net.cpp:131] Top shape: 1000 10 (10000)
I0504 08:19:46.381019 21634 net.cpp:139] Memory required for data: 288980000
I0504 08:19:46.381034 21634 layer_factory.hpp:77] Creating layer ip3_ip3_0_split
I0504 08:19:46.381043 21634 net.cpp:86] Creating Layer ip3_ip3_0_split
I0504 08:19:46.381049 21634 net.cpp:408] ip3_ip3_0_split <- ip3
I0504 08:19:46.381060 21634 net.cpp:382] ip3_ip3_0_split -> ip3_ip3_0_split_0
I0504 08:19:46.381072 21634 net.cpp:382] ip3_ip3_0_split -> ip3_ip3_0_split_1
I0504 08:19:46.381114 21634 net.cpp:124] Setting up ip3_ip3_0_split
I0504 08:19:46.381122 21634 net.cpp:131] Top shape: 1000 10 (10000)
I0504 08:19:46.381130 21634 net.cpp:131] Top shape: 1000 10 (10000)
I0504 08:19:46.381135 21634 net.cpp:139] Memory required for data: 289060000
I0504 08:19:46.381140 21634 layer_factory.hpp:77] Creating layer accuracy
I0504 08:19:46.381150 21634 net.cpp:86] Creating Layer accuracy
I0504 08:19:46.381155 21634 net.cpp:408] accuracy <- ip3_ip3_0_split_0
I0504 08:19:46.381161 21634 net.cpp:408] accuracy <- label_cifar_1_split_0
I0504 08:19:46.381170 21634 net.cpp:382] accuracy -> accuracy
…
