…
I0504 17:32:07.532013 11942 net.cpp:296] The NetState phase (0) differed from the phase (1) specified by a rule in layer cifar
I0504 17:32:07.532033 11942 net.cpp:296] The NetState phase (0) differed from the phase (1) specified by a rule in layer accuracy
I0504 17:32:07.532145 11942 net.cpp:53] Initializing net from parameters: 
name: "CIFAR"
state {
  phase: TRAIN
  level: 0
  stage: ""
}
layer {
  name: "cifar"
  type: "Data"
  top: "data"
  top: "label"
  include {
    phase: TRAIN
  }
  transform_param {
    mean_file: "examples/cifar10/mean.binaryproto"
  }
  data_param {
    source: "examples/cifar10/cifar10_train_lmdb"
    batch_size: 111
    backend: LMDB
  }
}
layer {
  name: "conv0"
  type: "Convolution"
  bottom: "data"
  top: "conv0"
  param {
    lr_mult: 1
  }
  param {
    lr_mult: 2
  }
  convolution_param {
    num_output: 72
    pad: 2
    kernel_size: 5
    stride: 1
    weight_filler {
      type: "gaussian"
      std: 0.01
    }
    bias_filler {
      type: "constant"
    }
  }
}
layer {
  name: "Sigmoid0"
  type: "Sigmoid"
  bottom: "conv0"
  top: "Sigmoid0"
}
layer {
  name: "pool0"
  type: "Pooling"
  bottom: "Sigmoid0"
  top: "pool0"
  pooling_param {
    pool: AVE
    kernel_size: 3
    stride: 2
  }
}
layer {
  name: "conv1"
  type: "Convolution"
  bottom: "pool0"
  top: "conv1"
  param {
    lr_mult: 1
  }
  param {
    lr_mult: 2
  }
  convolution_param {
    num_output: 72
    pad: 2
    kernel_size: 3
    stride: 1
    weight_filler {
      type: "gaussian"
      std: 0.01
    }
    bias_filler {
      type: "constant"
    }
  }
}
layer {
  name: "Sigmoid1"
  type: "Sigmoid"
  bottom: "conv1"
  top: "Sigmoid1"
}
layer {
  name: "pool1"
  type: "Pooling"
  bottom: "Sigmoid1"
  top: "pool1"
  pooling_param {
    pool: AVE
    kernel_size: 3
    stride: 2
  }
}
layer {
  name: "ip1"
  type: "InnerProduct"
  bottom: "pool1"
  top: "ip1"
  param {
    lr_mult: 1
  }
  param {
    lr_mult: 2
  }
  inner_product_param {
    num_output: 60
    weight_filler {
      type: "gaussian"
      std: 0.01
    }
    bias_filler {
      type: "constant"
    }
  }
}
layer {
  name: "relu1"
  type: "ReLU"
  bottom: "ip1"
  top: "ip1"
}
layer {
  name: "ip2"
  type: "InnerProduct"
  bottom: "ip1"
  top: "ip2"
  param {
    lr_mult: 1
  }
  param {
    lr_mult: 2
  }
  inner_product_param {
    num_output: 10
    weight_filler {
      type: "gaussian"
      std: 0.01
    }
    bias_filler {
      type: "constant"
    }
  }
}
layer {
  name: "relu2"
  type: "ReLU"
  bottom: "ip2"
  top: "ip2"
}
layer {
  name: "ip3"
  type: "InnerProduct"
  bottom: "ip2"
  top: "ip3"
  param {
    lr_mult: 1
  }
  param {
    lr_mult: 2
  }
  inner_product_param {
    num_output: 10
    weight_filler {
      type: "gaussian"
      std: 0.01
    }
    bias_filler {
      type: "constant"
    }
  }
}
layer {
  name: "loss"
  type: "SoftmaxWithLoss"
  bottom: "ip3"
  bottom: "label"
  top: "loss"
}
I0504 17:32:07.532228 11942 layer_factory.hpp:77] Creating layer cifar
I0504 17:32:07.532330 11942 db_lmdb.cpp:35] Opened lmdb examples/cifar10/cifar10_train_lmdb
I0504 17:32:07.532358 11942 net.cpp:86] Creating Layer cifar
I0504 17:32:07.532369 11942 net.cpp:382] cifar -> data
I0504 17:32:07.532394 11942 net.cpp:382] cifar -> label
I0504 17:32:07.532408 11942 data_transformer.cpp:25] Loading mean file from: examples/cifar10/mean.binaryproto
I0504 17:32:07.534593 11942 data_layer.cpp:45] output data size: 111,3,32,32
I0504 17:32:07.542629 11942 net.cpp:124] Setting up cifar
I0504 17:32:07.542649 11942 net.cpp:131] Top shape: 111 3 32 32 (340992)
I0504 17:32:07.542655 11942 net.cpp:131] Top shape: 111 (111)
I0504 17:32:07.542659 11942 net.cpp:139] Memory required for data: 1364412
I0504 17:32:07.542666 11942 layer_factory.hpp:77] Creating layer conv0
I0504 17:32:07.542685 11942 net.cpp:86] Creating Layer conv0
I0504 17:32:07.542691 11942 net.cpp:408] conv0 <- data
I0504 17:32:07.542708 11942 net.cpp:382] conv0 -> conv0
I0504 17:32:07.868345 11942 net.cpp:124] Setting up conv0
I0504 17:32:07.868374 11942 net.cpp:131] Top shape: 111 72 32 32 (8183808)
I0504 17:32:07.868381 11942 net.cpp:139] Memory required for data: 34099644
I0504 17:32:07.868398 11942 layer_factory.hpp:77] Creating layer Sigmoid0
I0504 17:32:07.868412 11942 net.cpp:86] Creating Layer Sigmoid0
I0504 17:32:07.868417 11942 net.cpp:408] Sigmoid0 <- conv0
I0504 17:32:07.868423 11942 net.cpp:382] Sigmoid0 -> Sigmoid0
I0504 17:32:07.868638 11942 net.cpp:124] Setting up Sigmoid0
I0504 17:32:07.868649 11942 net.cpp:131] Top shape: 111 72 32 32 (8183808)
I0504 17:32:07.868654 11942 net.cpp:139] Memory required for data: 66834876
I0504 17:32:07.868659 11942 layer_factory.hpp:77] Creating layer pool0
I0504 17:32:07.868666 11942 net.cpp:86] Creating Layer pool0
I0504 17:32:07.868669 11942 net.cpp:408] pool0 <- Sigmoid0
I0504 17:32:07.868675 11942 net.cpp:382] pool0 -> pool0
I0504 17:32:07.869563 11942 net.cpp:124] Setting up pool0
I0504 17:32:07.869580 11942 net.cpp:131] Top shape: 111 72 16 16 (2045952)
I0504 17:32:07.869583 11942 net.cpp:139] Memory required for data: 75018684
I0504 17:32:07.869587 11942 layer_factory.hpp:77] Creating layer conv1
I0504 17:32:07.869602 11942 net.cpp:86] Creating Layer conv1
I0504 17:32:07.869606 11942 net.cpp:408] conv1 <- pool0
I0504 17:32:07.869613 11942 net.cpp:382] conv1 -> conv1
I0504 17:32:07.874289 11942 net.cpp:124] Setting up conv1
I0504 17:32:07.874307 11942 net.cpp:131] Top shape: 111 72 18 18 (2589408)
I0504 17:32:07.874311 11942 net.cpp:139] Memory required for data: 85376316
I0504 17:32:07.874322 11942 layer_factory.hpp:77] Creating layer Sigmoid1
I0504 17:32:07.874330 11942 net.cpp:86] Creating Layer Sigmoid1
I0504 17:32:07.874335 11942 net.cpp:408] Sigmoid1 <- conv1
I0504 17:32:07.874341 11942 net.cpp:382] Sigmoid1 -> Sigmoid1
I0504 17:32:07.874555 11942 net.cpp:124] Setting up Sigmoid1
I0504 17:32:07.874567 11942 net.cpp:131] Top shape: 111 72 18 18 (2589408)
I0504 17:32:07.874572 11942 net.cpp:139] Memory required for data: 95733948
I0504 17:32:07.874575 11942 layer_factory.hpp:77] Creating layer pool1
I0504 17:32:07.874583 11942 net.cpp:86] Creating Layer pool1
I0504 17:32:07.874586 11942 net.cpp:408] pool1 <- Sigmoid1
I0504 17:32:07.874591 11942 net.cpp:382] pool1 -> pool1
I0504 17:32:07.874789 11942 net.cpp:124] Setting up pool1
I0504 17:32:07.874800 11942 net.cpp:131] Top shape: 111 72 9 9 (647352)
I0504 17:32:07.874804 11942 net.cpp:139] Memory required for data: 98323356
I0504 17:32:07.874809 11942 layer_factory.hpp:77] Creating layer ip1
I0504 17:32:07.874817 11942 net.cpp:86] Creating Layer ip1
I0504 17:32:07.874820 11942 net.cpp:408] ip1 <- pool1
I0504 17:32:07.874826 11942 net.cpp:382] ip1 -> ip1
I0504 17:32:07.887423 11942 net.cpp:124] Setting up ip1
I0504 17:32:07.887440 11942 net.cpp:131] Top shape: 111 60 (6660)
I0504 17:32:07.887444 11942 net.cpp:139] Memory required for data: 98349996
I0504 17:32:07.887455 11942 layer_factory.hpp:77] Creating layer relu1
I0504 17:32:07.887465 11942 net.cpp:86] Creating Layer relu1
I0504 17:32:07.887470 11942 net.cpp:408] relu1 <- ip1
I0504 17:32:07.887475 11942 net.cpp:369] relu1 -> ip1 (in-place)
I0504 17:32:07.887673 11942 net.cpp:124] Setting up relu1
I0504 17:32:07.887684 11942 net.cpp:131] Top shape: 111 60 (6660)
I0504 17:32:07.887688 11942 net.cpp:139] Memory required for data: 98376636
I0504 17:32:07.887692 11942 layer_factory.hpp:77] Creating layer ip2
I0504 17:32:07.887699 11942 net.cpp:86] Creating Layer ip2
I0504 17:32:07.887703 11942 net.cpp:408] ip2 <- ip1
I0504 17:32:07.887729 11942 net.cpp:382] ip2 -> ip2
I0504 17:32:07.887876 11942 net.cpp:124] Setting up ip2
I0504 17:32:07.887886 11942 net.cpp:131] Top shape: 111 10 (1110)
I0504 17:32:07.887889 11942 net.cpp:139] Memory required for data: 98381076
I0504 17:32:07.887897 11942 layer_factory.hpp:77] Creating layer relu2
I0504 17:32:07.887902 11942 net.cpp:86] Creating Layer relu2
I0504 17:32:07.887907 11942 net.cpp:408] relu2 <- ip2
I0504 17:32:07.887910 11942 net.cpp:369] relu2 -> ip2 (in-place)
I0504 17:32:07.888785 11942 net.cpp:124] Setting up relu2
I0504 17:32:07.888800 11942 net.cpp:131] Top shape: 111 10 (1110)
I0504 17:32:07.888804 11942 net.cpp:139] Memory required for data: 98385516
I0504 17:32:07.888814 11942 layer_factory.hpp:77] Creating layer ip3
I0504 17:32:07.888828 11942 net.cpp:86] Creating Layer ip3
I0504 17:32:07.888834 11942 net.cpp:408] ip3 <- ip2
I0504 17:32:07.888844 11942 net.cpp:382] ip3 -> ip3
I0504 17:32:07.888980 11942 net.cpp:124] Setting up ip3
I0504 17:32:07.888990 11942 net.cpp:131] Top shape: 111 10 (1110)
I0504 17:32:07.888994 11942 net.cpp:139] Memory required for data: 98389956
I0504 17:32:07.889004 11942 layer_factory.hpp:77] Creating layer loss
I0504 17:32:07.889011 11942 net.cpp:86] Creating Layer loss
I0504 17:32:07.889015 11942 net.cpp:408] loss <- ip3
I0504 17:32:07.889019 11942 net.cpp:408] loss <- label
I0504 17:32:07.889026 11942 net.cpp:382] loss -> loss
I0504 17:32:07.889046 11942 layer_factory.hpp:77] Creating layer loss
…
I0504 17:32:07.889830 11942 solver.cpp:173] Creating test net (#0) specified by net file: ECE595/cifar/train_test/var_everything_tiny/cifar_train_test_198.prototxt
I0504 17:32:07.889864 11942 net.cpp:296] The NetState phase (1) differed from the phase (0) specified by a rule in layer cifar
I0504 17:32:07.889981 11942 net.cpp:53] Initializing net from parameters: 
name: "CIFAR"
state {
  phase: TEST
}
layer {
  name: "cifar"
  type: "Data"
  top: "data"
  top: "label"
  include {
    phase: TEST
  }
  transform_param {
    mean_file: "examples/cifar10/mean.binaryproto"
  }
  data_param {
    source: "examples/cifar10/cifar10_test_lmdb"
    batch_size: 1000
    backend: LMDB
  }
}
layer {
  name: "conv0"
  type: "Convolution"
  bottom: "data"
  top: "conv0"
  param {
    lr_mult: 1
  }
  param {
    lr_mult: 2
  }
  convolution_param {
    num_output: 72
    pad: 2
    kernel_size: 5
    stride: 1
    weight_filler {
      type: "gaussian"
      std: 0.01
    }
    bias_filler {
      type: "constant"
    }
  }
}
layer {
  name: "Sigmoid0"
  type: "Sigmoid"
  bottom: "conv0"
  top: "Sigmoid0"
}
layer {
  name: "pool0"
  type: "Pooling"
  bottom: "Sigmoid0"
  top: "pool0"
  pooling_param {
    pool: AVE
    kernel_size: 3
    stride: 2
  }
}
layer {
  name: "conv1"
  type: "Convolution"
  bottom: "pool0"
  top: "conv1"
  param {
    lr_mult: 1
  }
  param {
    lr_mult: 2
  }
  convolution_param {
    num_output: 72
    pad: 2
    kernel_size: 3
    stride: 1
    weight_filler {
      type: "gaussian"
      std: 0.01
    }
    bias_filler {
      type: "constant"
    }
  }
}
layer {
  name: "Sigmoid1"
  type: "Sigmoid"
  bottom: "conv1"
  top: "Sigmoid1"
}
layer {
  name: "pool1"
  type: "Pooling"
  bottom: "Sigmoid1"
  top: "pool1"
  pooling_param {
    pool: AVE
    kernel_size: 3
    stride: 2
  }
}
layer {
  name: "ip1"
  type: "InnerProduct"
  bottom: "pool1"
  top: "ip1"
  param {
    lr_mult: 1
  }
  param {
    lr_mult: 2
  }
  inner_product_param {
    num_output: 60
    weight_filler {
      type: "gaussian"
      std: 0.01
    }
    bias_filler {
      type: "constant"
    }
  }
}
layer {
  name: "relu1"
  type: "ReLU"
  bottom: "ip1"
  top: "ip1"
}
layer {
  name: "ip2"
  type: "InnerProduct"
  bottom: "ip1"
  top: "ip2"
  param {
    lr_mult: 1
  }
  param {
    lr_mult: 2
  }
  inner_product_param {
    num_output: 10
    weight_filler {
      type: "gaussian"
      std: 0.01
    }
    bias_filler {
      type: "constant"
    }
  }
}
layer {
  name: "relu2"
  type: "ReLU"
  bottom: "ip2"
  top: "ip2"
}
layer {
  name: "ip3"
  type: "InnerProduct"
  bottom: "ip2"
  top: "ip3"
  param {
    lr_mult: 1
  }
  param {
    lr_mult: 2
  }
  inner_product_param {
    num_output: 10
    weight_filler {
      type: "gaussian"
      std: 0.01
    }
    bias_filler {
      type: "constant"
    }
  }
}
layer {
  name: "accuracy"
  type: "Accuracy"
  bottom: "ip3"
  bottom: "label"
  top: "accuracy"
  include {
    phase: TEST
  }
}
layer {
  name: "loss"
  type: "SoftmaxWithLoss"
  bottom: "ip3"
  bottom: "label"
  top: "loss"
}
I0504 17:32:07.890080 11942 layer_factory.hpp:77] Creating layer cifar
I0504 17:32:07.890135 11942 db_lmdb.cpp:35] Opened lmdb examples/cifar10/cifar10_test_lmdb
I0504 17:32:07.890148 11942 net.cpp:86] Creating Layer cifar
I0504 17:32:07.890154 11942 net.cpp:382] cifar -> data
I0504 17:32:07.890163 11942 net.cpp:382] cifar -> label
I0504 17:32:07.890172 11942 data_transformer.cpp:25] Loading mean file from: examples/cifar10/mean.binaryproto
I0504 17:32:07.890347 11942 data_layer.cpp:45] output data size: 1000,3,32,32
I0504 17:32:07.916429 11942 net.cpp:124] Setting up cifar
I0504 17:32:07.916460 11942 net.cpp:131] Top shape: 1000 3 32 32 (3072000)
I0504 17:32:07.916466 11942 net.cpp:131] Top shape: 1000 (1000)
I0504 17:32:07.916471 11942 net.cpp:139] Memory required for data: 12292000
I0504 17:32:07.916477 11942 layer_factory.hpp:77] Creating layer label_cifar_1_split
I0504 17:32:07.916509 11942 net.cpp:86] Creating Layer label_cifar_1_split
I0504 17:32:07.916514 11942 net.cpp:408] label_cifar_1_split <- label
I0504 17:32:07.916522 11942 net.cpp:382] label_cifar_1_split -> label_cifar_1_split_0
I0504 17:32:07.916532 11942 net.cpp:382] label_cifar_1_split -> label_cifar_1_split_1
I0504 17:32:07.916667 11942 net.cpp:124] Setting up label_cifar_1_split
I0504 17:32:07.916677 11942 net.cpp:131] Top shape: 1000 (1000)
I0504 17:32:07.916682 11942 net.cpp:131] Top shape: 1000 (1000)
I0504 17:32:07.916685 11942 net.cpp:139] Memory required for data: 12300000
I0504 17:32:07.916689 11942 layer_factory.hpp:77] Creating layer conv0
I0504 17:32:07.916703 11942 net.cpp:86] Creating Layer conv0
I0504 17:32:07.916707 11942 net.cpp:408] conv0 <- data
I0504 17:32:07.916713 11942 net.cpp:382] conv0 -> conv0
I0504 17:32:07.919723 11942 net.cpp:124] Setting up conv0
I0504 17:32:07.919744 11942 net.cpp:131] Top shape: 1000 72 32 32 (73728000)
I0504 17:32:07.919749 11942 net.cpp:139] Memory required for data: 307212000
I0504 17:32:07.919761 11942 layer_factory.hpp:77] Creating layer Sigmoid0
I0504 17:32:07.919770 11942 net.cpp:86] Creating Layer Sigmoid0
I0504 17:32:07.919773 11942 net.cpp:408] Sigmoid0 <- conv0
I0504 17:32:07.919780 11942 net.cpp:382] Sigmoid0 -> Sigmoid0
I0504 17:32:07.920016 11942 net.cpp:124] Setting up Sigmoid0
I0504 17:32:07.920042 11942 net.cpp:131] Top shape: 1000 72 32 32 (73728000)
I0504 17:32:07.920047 11942 net.cpp:139] Memory required for data: 602124000
I0504 17:32:07.920052 11942 layer_factory.hpp:77] Creating layer pool0
I0504 17:32:07.920060 11942 net.cpp:86] Creating Layer pool0
I0504 17:32:07.920064 11942 net.cpp:408] pool0 <- Sigmoid0
I0504 17:32:07.920073 11942 net.cpp:382] pool0 -> pool0
I0504 17:32:07.920277 11942 net.cpp:124] Setting up pool0
I0504 17:32:07.920289 11942 net.cpp:131] Top shape: 1000 72 16 16 (18432000)
I0504 17:32:07.920292 11942 net.cpp:139] Memory required for data: 675852000
I0504 17:32:07.920295 11942 layer_factory.hpp:77] Creating layer conv1
I0504 17:32:07.920307 11942 net.cpp:86] Creating Layer conv1
I0504 17:32:07.920311 11942 net.cpp:408] conv1 <- pool0
I0504 17:32:07.920317 11942 net.cpp:382] conv1 -> conv1
I0504 17:32:07.923465 11942 net.cpp:124] Setting up conv1
I0504 17:32:07.923483 11942 net.cpp:131] Top shape: 1000 72 18 18 (23328000)
I0504 17:32:07.923487 11942 net.cpp:139] Memory required for data: 769164000
I0504 17:32:07.923498 11942 layer_factory.hpp:77] Creating layer Sigmoid1
I0504 17:32:07.923506 11942 net.cpp:86] Creating Layer Sigmoid1
I0504 17:32:07.923509 11942 net.cpp:408] Sigmoid1 <- conv1
I0504 17:32:07.923516 11942 net.cpp:382] Sigmoid1 -> Sigmoid1
I0504 17:32:07.923727 11942 net.cpp:124] Setting up Sigmoid1
I0504 17:32:07.923739 11942 net.cpp:131] Top shape: 1000 72 18 18 (23328000)
I0504 17:32:07.923743 11942 net.cpp:139] Memory required for data: 862476000
I0504 17:32:07.923748 11942 layer_factory.hpp:77] Creating layer pool1
I0504 17:32:07.923754 11942 net.cpp:86] Creating Layer pool1
I0504 17:32:07.923758 11942 net.cpp:408] pool1 <- Sigmoid1
I0504 17:32:07.923764 11942 net.cpp:382] pool1 -> pool1
I0504 17:32:07.924655 11942 net.cpp:124] Setting up pool1
I0504 17:32:07.924671 11942 net.cpp:131] Top shape: 1000 72 9 9 (5832000)
I0504 17:32:07.924675 11942 net.cpp:139] Memory required for data: 885804000
I0504 17:32:07.924679 11942 layer_factory.hpp:77] Creating layer ip1
I0504 17:32:07.924691 11942 net.cpp:86] Creating Layer ip1
I0504 17:32:07.924695 11942 net.cpp:408] ip1 <- pool1
I0504 17:32:07.924702 11942 net.cpp:382] ip1 -> ip1
I0504 17:32:07.937268 11942 net.cpp:124] Setting up ip1
I0504 17:32:07.937285 11942 net.cpp:131] Top shape: 1000 60 (60000)
I0504 17:32:07.937290 11942 net.cpp:139] Memory required for data: 886044000
I0504 17:32:07.937300 11942 layer_factory.hpp:77] Creating layer relu1
I0504 17:32:07.937309 11942 net.cpp:86] Creating Layer relu1
I0504 17:32:07.937314 11942 net.cpp:408] relu1 <- ip1
I0504 17:32:07.937319 11942 net.cpp:369] relu1 -> ip1 (in-place)
I0504 17:32:07.937530 11942 net.cpp:124] Setting up relu1
I0504 17:32:07.937542 11942 net.cpp:131] Top shape: 1000 60 (60000)
I0504 17:32:07.937546 11942 net.cpp:139] Memory required for data: 886284000
I0504 17:32:07.937551 11942 layer_factory.hpp:77] Creating layer ip2
I0504 17:32:07.937558 11942 net.cpp:86] Creating Layer ip2
I0504 17:32:07.937563 11942 net.cpp:408] ip2 <- ip1
I0504 17:32:07.937569 11942 net.cpp:382] ip2 -> ip2
I0504 17:32:07.937721 11942 net.cpp:124] Setting up ip2
I0504 17:32:07.937729 11942 net.cpp:131] Top shape: 1000 10 (10000)
I0504 17:32:07.937733 11942 net.cpp:139] Memory required for data: 886324000
I0504 17:32:07.937741 11942 layer_factory.hpp:77] Creating layer relu2
I0504 17:32:07.937747 11942 net.cpp:86] Creating Layer relu2
I0504 17:32:07.937750 11942 net.cpp:408] relu2 <- ip2
I0504 17:32:07.937755 11942 net.cpp:369] relu2 -> ip2 (in-place)
I0504 17:32:07.937942 11942 net.cpp:124] Setting up relu2
I0504 17:32:07.937952 11942 net.cpp:131] Top shape: 1000 10 (10000)
I0504 17:32:07.937955 11942 net.cpp:139] Memory required for data: 886364000
I0504 17:32:07.937959 11942 layer_factory.hpp:77] Creating layer ip3
I0504 17:32:07.937966 11942 net.cpp:86] Creating Layer ip3
I0504 17:32:07.937970 11942 net.cpp:408] ip3 <- ip2
I0504 17:32:07.937976 11942 net.cpp:382] ip3 -> ip3
I0504 17:32:07.938103 11942 net.cpp:124] Setting up ip3
I0504 17:32:07.938112 11942 net.cpp:131] Top shape: 1000 10 (10000)
I0504 17:32:07.938128 11942 net.cpp:139] Memory required for data: 886404000
I0504 17:32:07.938139 11942 layer_factory.hpp:77] Creating layer ip3_ip3_0_split
I0504 17:32:07.938145 11942 net.cpp:86] Creating Layer ip3_ip3_0_split
I0504 17:32:07.938149 11942 net.cpp:408] ip3_ip3_0_split <- ip3
I0504 17:32:07.938156 11942 net.cpp:382] ip3_ip3_0_split -> ip3_ip3_0_split_0
I0504 17:32:07.938163 11942 net.cpp:382] ip3_ip3_0_split -> ip3_ip3_0_split_1
I0504 17:32:07.938202 11942 net.cpp:124] Setting up ip3_ip3_0_split
I0504 17:32:07.938210 11942 net.cpp:131] Top shape: 1000 10 (10000)
I0504 17:32:07.938215 11942 net.cpp:131] Top shape: 1000 10 (10000)
I0504 17:32:07.938218 11942 net.cpp:139] Memory required for data: 886484000
I0504 17:32:07.938222 11942 layer_factory.hpp:77] Creating layer accuracy
I0504 17:32:07.938230 11942 net.cpp:86] Creating Layer accuracy
I0504 17:32:07.938235 11942 net.cpp:408] accuracy <- ip3_ip3_0_split_0
I0504 17:32:07.938238 11942 net.cpp:408] accuracy <- label_cifar_1_split_0
I0504 17:32:07.938244 11942 net.cpp:382] accuracy -> accuracy
…
