…
I0504 14:19:00.894870  3026 net.cpp:296] The NetState phase (0) differed from the phase (1) specified by a rule in layer cifar
I0504 14:19:00.894891  3026 net.cpp:296] The NetState phase (0) differed from the phase (1) specified by a rule in layer accuracy
I0504 14:19:00.895004  3026 net.cpp:53] Initializing net from parameters: 
name: "CIFAR"
state {
  phase: TRAIN
  level: 0
  stage: ""
}
layer {
  name: "cifar"
  type: "Data"
  top: "data"
  top: "label"
  include {
    phase: TRAIN
  }
  transform_param {
    mean_file: "examples/cifar10/mean.binaryproto"
  }
  data_param {
    source: "examples/cifar10/cifar10_train_lmdb"
    batch_size: 111
    backend: LMDB
  }
}
layer {
  name: "conv0"
  type: "Convolution"
  bottom: "data"
  top: "conv0"
  param {
    lr_mult: 1
  }
  param {
    lr_mult: 2
  }
  convolution_param {
    num_output: 24
    pad: 2
    kernel_size: 5
    stride: 1
    weight_filler {
      type: "gaussian"
      std: 0.01
    }
    bias_filler {
      type: "constant"
    }
  }
}
layer {
  name: "Sigmoid0"
  type: "Sigmoid"
  bottom: "conv0"
  top: "Sigmoid0"
}
layer {
  name: "pool0"
  type: "Pooling"
  bottom: "Sigmoid0"
  top: "pool0"
  pooling_param {
    pool: AVE
    kernel_size: 3
    stride: 2
  }
}
layer {
  name: "conv1"
  type: "Convolution"
  bottom: "pool0"
  top: "conv1"
  param {
    lr_mult: 1
  }
  param {
    lr_mult: 2
  }
  convolution_param {
    num_output: 216
    pad: 2
    kernel_size: 5
    stride: 1
    weight_filler {
      type: "gaussian"
      std: 0.01
    }
    bias_filler {
      type: "constant"
    }
  }
}
layer {
  name: "Sigmoid1"
  type: "Sigmoid"
  bottom: "conv1"
  top: "Sigmoid1"
}
layer {
  name: "pool1"
  type: "Pooling"
  bottom: "Sigmoid1"
  top: "pool1"
  pooling_param {
    pool: AVE
    kernel_size: 3
    stride: 2
  }
}
layer {
  name: "ip1"
  type: "InnerProduct"
  bottom: "pool1"
  top: "ip1"
  param {
    lr_mult: 1
  }
  param {
    lr_mult: 2
  }
  inner_product_param {
    num_output: 10
    weight_filler {
      type: "gaussian"
      std: 0.01
    }
    bias_filler {
      type: "constant"
    }
  }
}
layer {
  name: "relu1"
  type: "ReLU"
  bottom: "ip1"
  top: "ip1"
}
layer {
  name: "ip2"
  type: "InnerProduct"
  bottom: "ip1"
  top: "ip2"
  param {
    lr_mult: 1
  }
  param {
    lr_mult: 2
  }
  inner_product_param {
    num_output: 10
    weight_filler {
      type: "gaussian"
      std: 0.01
    }
    bias_filler {
      type: "constant"
    }
  }
}
layer {
  name: "relu2"
  type: "ReLU"
  bottom: "ip2"
  top: "ip2"
}
layer {
  name: "ip3"
  type: "InnerProduct"
  bottom: "ip2"
  top: "ip3"
  param {
    lr_mult: 1
  }
  param {
    lr_mult: 2
  }
  inner_product_param {
    num_output: 10
    weight_filler {
      type: "gaussian"
      std: 0.01
    }
    bias_filler {
      type: "constant"
    }
  }
}
layer {
  name: "loss"
  type: "SoftmaxWithLoss"
  bottom: "ip3"
  bottom: "label"
  top: "loss"
}
I0504 14:19:00.895087  3026 layer_factory.hpp:77] Creating layer cifar
I0504 14:19:00.895182  3026 db_lmdb.cpp:35] Opened lmdb examples/cifar10/cifar10_train_lmdb
I0504 14:19:00.895210  3026 net.cpp:86] Creating Layer cifar
I0504 14:19:00.895221  3026 net.cpp:382] cifar -> data
I0504 14:19:00.895246  3026 net.cpp:382] cifar -> label
I0504 14:19:00.895258  3026 data_transformer.cpp:25] Loading mean file from: examples/cifar10/mean.binaryproto
I0504 14:19:00.897426  3026 data_layer.cpp:45] output data size: 111,3,32,32
I0504 14:19:00.905597  3026 net.cpp:124] Setting up cifar
I0504 14:19:00.905616  3026 net.cpp:131] Top shape: 111 3 32 32 (340992)
I0504 14:19:00.905630  3026 net.cpp:131] Top shape: 111 (111)
I0504 14:19:00.905633  3026 net.cpp:139] Memory required for data: 1364412
I0504 14:19:00.905642  3026 layer_factory.hpp:77] Creating layer conv0
I0504 14:19:00.905692  3026 net.cpp:86] Creating Layer conv0
I0504 14:19:00.905700  3026 net.cpp:408] conv0 <- data
I0504 14:19:00.905714  3026 net.cpp:382] conv0 -> conv0
I0504 14:19:01.197012  3026 net.cpp:124] Setting up conv0
I0504 14:19:01.197042  3026 net.cpp:131] Top shape: 111 24 32 32 (2727936)
I0504 14:19:01.197048  3026 net.cpp:139] Memory required for data: 12276156
I0504 14:19:01.197067  3026 layer_factory.hpp:77] Creating layer Sigmoid0
I0504 14:19:01.197079  3026 net.cpp:86] Creating Layer Sigmoid0
I0504 14:19:01.197088  3026 net.cpp:408] Sigmoid0 <- conv0
I0504 14:19:01.197094  3026 net.cpp:382] Sigmoid0 -> Sigmoid0
I0504 14:19:01.197314  3026 net.cpp:124] Setting up Sigmoid0
I0504 14:19:01.197325  3026 net.cpp:131] Top shape: 111 24 32 32 (2727936)
I0504 14:19:01.197329  3026 net.cpp:139] Memory required for data: 23187900
I0504 14:19:01.197334  3026 layer_factory.hpp:77] Creating layer pool0
I0504 14:19:01.197340  3026 net.cpp:86] Creating Layer pool0
I0504 14:19:01.197345  3026 net.cpp:408] pool0 <- Sigmoid0
I0504 14:19:01.197350  3026 net.cpp:382] pool0 -> pool0
I0504 14:19:01.198231  3026 net.cpp:124] Setting up pool0
I0504 14:19:01.198247  3026 net.cpp:131] Top shape: 111 24 16 16 (681984)
I0504 14:19:01.198252  3026 net.cpp:139] Memory required for data: 25915836
I0504 14:19:01.198256  3026 layer_factory.hpp:77] Creating layer conv1
I0504 14:19:01.198271  3026 net.cpp:86] Creating Layer conv1
I0504 14:19:01.198276  3026 net.cpp:408] conv1 <- pool0
I0504 14:19:01.198283  3026 net.cpp:382] conv1 -> conv1
I0504 14:19:01.204792  3026 net.cpp:124] Setting up conv1
I0504 14:19:01.204814  3026 net.cpp:131] Top shape: 111 216 16 16 (6137856)
I0504 14:19:01.204820  3026 net.cpp:139] Memory required for data: 50467260
I0504 14:19:01.204830  3026 layer_factory.hpp:77] Creating layer Sigmoid1
I0504 14:19:01.204838  3026 net.cpp:86] Creating Layer Sigmoid1
I0504 14:19:01.204843  3026 net.cpp:408] Sigmoid1 <- conv1
I0504 14:19:01.204849  3026 net.cpp:382] Sigmoid1 -> Sigmoid1
I0504 14:19:01.205055  3026 net.cpp:124] Setting up Sigmoid1
I0504 14:19:01.205066  3026 net.cpp:131] Top shape: 111 216 16 16 (6137856)
I0504 14:19:01.205070  3026 net.cpp:139] Memory required for data: 75018684
I0504 14:19:01.205075  3026 layer_factory.hpp:77] Creating layer pool1
I0504 14:19:01.205081  3026 net.cpp:86] Creating Layer pool1
I0504 14:19:01.205085  3026 net.cpp:408] pool1 <- Sigmoid1
I0504 14:19:01.205090  3026 net.cpp:382] pool1 -> pool1
I0504 14:19:01.205286  3026 net.cpp:124] Setting up pool1
I0504 14:19:01.205296  3026 net.cpp:131] Top shape: 111 216 8 8 (1534464)
I0504 14:19:01.205301  3026 net.cpp:139] Memory required for data: 81156540
I0504 14:19:01.205303  3026 layer_factory.hpp:77] Creating layer ip1
I0504 14:19:01.205312  3026 net.cpp:86] Creating Layer ip1
I0504 14:19:01.205318  3026 net.cpp:408] ip1 <- pool1
I0504 14:19:01.205324  3026 net.cpp:382] ip1 -> ip1
I0504 14:19:01.210007  3026 net.cpp:124] Setting up ip1
I0504 14:19:01.210018  3026 net.cpp:131] Top shape: 111 10 (1110)
I0504 14:19:01.210021  3026 net.cpp:139] Memory required for data: 81160980
I0504 14:19:01.210031  3026 layer_factory.hpp:77] Creating layer relu1
I0504 14:19:01.210038  3026 net.cpp:86] Creating Layer relu1
I0504 14:19:01.210042  3026 net.cpp:408] relu1 <- ip1
I0504 14:19:01.210047  3026 net.cpp:369] relu1 -> ip1 (in-place)
I0504 14:19:01.210232  3026 net.cpp:124] Setting up relu1
I0504 14:19:01.210242  3026 net.cpp:131] Top shape: 111 10 (1110)
I0504 14:19:01.210245  3026 net.cpp:139] Memory required for data: 81165420
I0504 14:19:01.210248  3026 layer_factory.hpp:77] Creating layer ip2
I0504 14:19:01.210255  3026 net.cpp:86] Creating Layer ip2
I0504 14:19:01.210259  3026 net.cpp:408] ip2 <- ip1
I0504 14:19:01.210280  3026 net.cpp:382] ip2 -> ip2
I0504 14:19:01.210403  3026 net.cpp:124] Setting up ip2
I0504 14:19:01.210412  3026 net.cpp:131] Top shape: 111 10 (1110)
I0504 14:19:01.210415  3026 net.cpp:139] Memory required for data: 81169860
I0504 14:19:01.210422  3026 layer_factory.hpp:77] Creating layer relu2
I0504 14:19:01.210428  3026 net.cpp:86] Creating Layer relu2
I0504 14:19:01.210433  3026 net.cpp:408] relu2 <- ip2
I0504 14:19:01.210438  3026 net.cpp:369] relu2 -> ip2 (in-place)
I0504 14:19:01.211290  3026 net.cpp:124] Setting up relu2
I0504 14:19:01.211305  3026 net.cpp:131] Top shape: 111 10 (1110)
I0504 14:19:01.211309  3026 net.cpp:139] Memory required for data: 81174300
I0504 14:19:01.211313  3026 layer_factory.hpp:77] Creating layer ip3
I0504 14:19:01.211323  3026 net.cpp:86] Creating Layer ip3
I0504 14:19:01.211326  3026 net.cpp:408] ip3 <- ip2
I0504 14:19:01.211333  3026 net.cpp:382] ip3 -> ip3
I0504 14:19:01.211453  3026 net.cpp:124] Setting up ip3
I0504 14:19:01.211462  3026 net.cpp:131] Top shape: 111 10 (1110)
I0504 14:19:01.211465  3026 net.cpp:139] Memory required for data: 81178740
I0504 14:19:01.211475  3026 layer_factory.hpp:77] Creating layer loss
I0504 14:19:01.211484  3026 net.cpp:86] Creating Layer loss
I0504 14:19:01.211488  3026 net.cpp:408] loss <- ip3
I0504 14:19:01.211493  3026 net.cpp:408] loss <- label
I0504 14:19:01.211499  3026 net.cpp:382] loss -> loss
I0504 14:19:01.211519  3026 layer_factory.hpp:77] Creating layer loss
…
I0504 14:19:01.212304  3026 solver.cpp:173] Creating test net (#0) specified by net file: ECE595/cifar/train_test/var_everything_tiny/cifar_train_test_171.prototxt
I0504 14:19:01.212337  3026 net.cpp:296] The NetState phase (1) differed from the phase (0) specified by a rule in layer cifar
I0504 14:19:01.212452  3026 net.cpp:53] Initializing net from parameters: 
name: "CIFAR"
state {
  phase: TEST
}
layer {
  name: "cifar"
  type: "Data"
  top: "data"
  top: "label"
  include {
    phase: TEST
  }
  transform_param {
    mean_file: "examples/cifar10/mean.binaryproto"
  }
  data_param {
    source: "examples/cifar10/cifar10_test_lmdb"
    batch_size: 1000
    backend: LMDB
  }
}
layer {
  name: "conv0"
  type: "Convolution"
  bottom: "data"
  top: "conv0"
  param {
    lr_mult: 1
  }
  param {
    lr_mult: 2
  }
  convolution_param {
    num_output: 24
    pad: 2
    kernel_size: 5
    stride: 1
    weight_filler {
      type: "gaussian"
      std: 0.01
    }
    bias_filler {
      type: "constant"
    }
  }
}
layer {
  name: "Sigmoid0"
  type: "Sigmoid"
  bottom: "conv0"
  top: "Sigmoid0"
}
layer {
  name: "pool0"
  type: "Pooling"
  bottom: "Sigmoid0"
  top: "pool0"
  pooling_param {
    pool: AVE
    kernel_size: 3
    stride: 2
  }
}
layer {
  name: "conv1"
  type: "Convolution"
  bottom: "pool0"
  top: "conv1"
  param {
    lr_mult: 1
  }
  param {
    lr_mult: 2
  }
  convolution_param {
    num_output: 216
    pad: 2
    kernel_size: 5
    stride: 1
    weight_filler {
      type: "gaussian"
      std: 0.01
    }
    bias_filler {
      type: "constant"
    }
  }
}
layer {
  name: "Sigmoid1"
  type: "Sigmoid"
  bottom: "conv1"
  top: "Sigmoid1"
}
layer {
  name: "pool1"
  type: "Pooling"
  bottom: "Sigmoid1"
  top: "pool1"
  pooling_param {
    pool: AVE
    kernel_size: 3
    stride: 2
  }
}
layer {
  name: "ip1"
  type: "InnerProduct"
  bottom: "pool1"
  top: "ip1"
  param {
    lr_mult: 1
  }
  param {
    lr_mult: 2
  }
  inner_product_param {
    num_output: 10
    weight_filler {
      type: "gaussian"
      std: 0.01
    }
    bias_filler {
      type: "constant"
    }
  }
}
layer {
  name: "relu1"
  type: "ReLU"
  bottom: "ip1"
  top: "ip1"
}
layer {
  name: "ip2"
  type: "InnerProduct"
  bottom: "ip1"
  top: "ip2"
  param {
    lr_mult: 1
  }
  param {
    lr_mult: 2
  }
  inner_product_param {
    num_output: 10
    weight_filler {
      type: "gaussian"
      std: 0.01
    }
    bias_filler {
      type: "constant"
    }
  }
}
layer {
  name: "relu2"
  type: "ReLU"
  bottom: "ip2"
  top: "ip2"
}
layer {
  name: "ip3"
  type: "InnerProduct"
  bottom: "ip2"
  top: "ip3"
  param {
    lr_mult: 1
  }
  param {
    lr_mult: 2
  }
  inner_product_param {
    num_output: 10
    weight_filler {
      type: "gaussian"
      std: 0.01
    }
    bias_filler {
      type: "constant"
    }
  }
}
layer {
  name: "accuracy"
  type: "Accuracy"
  bottom: "ip3"
  bottom: "label"
  top: "accuracy"
  include {
    phase: TEST
  }
}
layer {
  name: "loss"
  type: "SoftmaxWithLoss"
  bottom: "ip3"
  bottom: "label"
  top: "loss"
}
I0504 14:19:01.212551  3026 layer_factory.hpp:77] Creating layer cifar
I0504 14:19:01.212605  3026 db_lmdb.cpp:35] Opened lmdb examples/cifar10/cifar10_test_lmdb
I0504 14:19:01.212621  3026 net.cpp:86] Creating Layer cifar
I0504 14:19:01.212630  3026 net.cpp:382] cifar -> data
I0504 14:19:01.212641  3026 net.cpp:382] cifar -> label
I0504 14:19:01.212648  3026 data_transformer.cpp:25] Loading mean file from: examples/cifar10/mean.binaryproto
I0504 14:19:01.212826  3026 data_layer.cpp:45] output data size: 1000,3,32,32
I0504 14:19:01.238687  3026 net.cpp:124] Setting up cifar
I0504 14:19:01.238716  3026 net.cpp:131] Top shape: 1000 3 32 32 (3072000)
I0504 14:19:01.238723  3026 net.cpp:131] Top shape: 1000 (1000)
I0504 14:19:01.238728  3026 net.cpp:139] Memory required for data: 12292000
I0504 14:19:01.238734  3026 layer_factory.hpp:77] Creating layer label_cifar_1_split
I0504 14:19:01.238749  3026 net.cpp:86] Creating Layer label_cifar_1_split
I0504 14:19:01.238756  3026 net.cpp:408] label_cifar_1_split <- label
I0504 14:19:01.238764  3026 net.cpp:382] label_cifar_1_split -> label_cifar_1_split_0
I0504 14:19:01.238773  3026 net.cpp:382] label_cifar_1_split -> label_cifar_1_split_1
I0504 14:19:01.238890  3026 net.cpp:124] Setting up label_cifar_1_split
I0504 14:19:01.238899  3026 net.cpp:131] Top shape: 1000 (1000)
I0504 14:19:01.238904  3026 net.cpp:131] Top shape: 1000 (1000)
I0504 14:19:01.238907  3026 net.cpp:139] Memory required for data: 12300000
I0504 14:19:01.238911  3026 layer_factory.hpp:77] Creating layer conv0
I0504 14:19:01.238926  3026 net.cpp:86] Creating Layer conv0
I0504 14:19:01.238932  3026 net.cpp:408] conv0 <- data
I0504 14:19:01.238939  3026 net.cpp:382] conv0 -> conv0
I0504 14:19:01.241768  3026 net.cpp:124] Setting up conv0
I0504 14:19:01.241786  3026 net.cpp:131] Top shape: 1000 24 32 32 (24576000)
I0504 14:19:01.241789  3026 net.cpp:139] Memory required for data: 110604000
I0504 14:19:01.241801  3026 layer_factory.hpp:77] Creating layer Sigmoid0
I0504 14:19:01.241811  3026 net.cpp:86] Creating Layer Sigmoid0
I0504 14:19:01.241816  3026 net.cpp:408] Sigmoid0 <- conv0
I0504 14:19:01.241822  3026 net.cpp:382] Sigmoid0 -> Sigmoid0
I0504 14:19:01.242053  3026 net.cpp:124] Setting up Sigmoid0
I0504 14:19:01.242079  3026 net.cpp:131] Top shape: 1000 24 32 32 (24576000)
I0504 14:19:01.242084  3026 net.cpp:139] Memory required for data: 208908000
I0504 14:19:01.242089  3026 layer_factory.hpp:77] Creating layer pool0
I0504 14:19:01.242099  3026 net.cpp:86] Creating Layer pool0
I0504 14:19:01.242105  3026 net.cpp:408] pool0 <- Sigmoid0
I0504 14:19:01.242111  3026 net.cpp:382] pool0 -> pool0
I0504 14:19:01.242324  3026 net.cpp:124] Setting up pool0
I0504 14:19:01.242334  3026 net.cpp:131] Top shape: 1000 24 16 16 (6144000)
I0504 14:19:01.242338  3026 net.cpp:139] Memory required for data: 233484000
I0504 14:19:01.242342  3026 layer_factory.hpp:77] Creating layer conv1
I0504 14:19:01.242353  3026 net.cpp:86] Creating Layer conv1
I0504 14:19:01.242360  3026 net.cpp:408] conv1 <- pool0
I0504 14:19:01.242368  3026 net.cpp:382] conv1 -> conv1
I0504 14:19:01.248255  3026 net.cpp:124] Setting up conv1
I0504 14:19:01.248271  3026 net.cpp:131] Top shape: 1000 216 16 16 (55296000)
I0504 14:19:01.248275  3026 net.cpp:139] Memory required for data: 454668000
I0504 14:19:01.248288  3026 layer_factory.hpp:77] Creating layer Sigmoid1
I0504 14:19:01.248298  3026 net.cpp:86] Creating Layer Sigmoid1
I0504 14:19:01.248302  3026 net.cpp:408] Sigmoid1 <- conv1
I0504 14:19:01.248308  3026 net.cpp:382] Sigmoid1 -> Sigmoid1
I0504 14:19:01.248522  3026 net.cpp:124] Setting up Sigmoid1
I0504 14:19:01.248536  3026 net.cpp:131] Top shape: 1000 216 16 16 (55296000)
I0504 14:19:01.248540  3026 net.cpp:139] Memory required for data: 675852000
I0504 14:19:01.248544  3026 layer_factory.hpp:77] Creating layer pool1
I0504 14:19:01.248553  3026 net.cpp:86] Creating Layer pool1
I0504 14:19:01.248559  3026 net.cpp:408] pool1 <- Sigmoid1
I0504 14:19:01.248566  3026 net.cpp:382] pool1 -> pool1
I0504 14:19:01.250010  3026 net.cpp:124] Setting up pool1
I0504 14:19:01.250043  3026 net.cpp:131] Top shape: 1000 216 8 8 (13824000)
I0504 14:19:01.250051  3026 net.cpp:139] Memory required for data: 731148000
I0504 14:19:01.250059  3026 layer_factory.hpp:77] Creating layer ip1
I0504 14:19:01.250082  3026 net.cpp:86] Creating Layer ip1
I0504 14:19:01.250089  3026 net.cpp:408] ip1 <- pool1
I0504 14:19:01.250104  3026 net.cpp:382] ip1 -> ip1
I0504 14:19:01.258344  3026 net.cpp:124] Setting up ip1
I0504 14:19:01.258364  3026 net.cpp:131] Top shape: 1000 10 (10000)
I0504 14:19:01.258371  3026 net.cpp:139] Memory required for data: 731188000
I0504 14:19:01.258389  3026 layer_factory.hpp:77] Creating layer relu1
I0504 14:19:01.258400  3026 net.cpp:86] Creating Layer relu1
I0504 14:19:01.258407  3026 net.cpp:408] relu1 <- ip1
I0504 14:19:01.258417  3026 net.cpp:369] relu1 -> ip1 (in-place)
I0504 14:19:01.258790  3026 net.cpp:124] Setting up relu1
I0504 14:19:01.258806  3026 net.cpp:131] Top shape: 1000 10 (10000)
I0504 14:19:01.258812  3026 net.cpp:139] Memory required for data: 731228000
I0504 14:19:01.258819  3026 layer_factory.hpp:77] Creating layer ip2
I0504 14:19:01.258831  3026 net.cpp:86] Creating Layer ip2
I0504 14:19:01.258836  3026 net.cpp:408] ip2 <- ip1
I0504 14:19:01.258848  3026 net.cpp:382] ip2 -> ip2
I0504 14:19:01.259100  3026 net.cpp:124] Setting up ip2
I0504 14:19:01.259115  3026 net.cpp:131] Top shape: 1000 10 (10000)
I0504 14:19:01.259122  3026 net.cpp:139] Memory required for data: 731268000
I0504 14:19:01.259141  3026 layer_factory.hpp:77] Creating layer relu2
I0504 14:19:01.259156  3026 net.cpp:86] Creating Layer relu2
I0504 14:19:01.259168  3026 net.cpp:408] relu2 <- ip2
I0504 14:19:01.259182  3026 net.cpp:369] relu2 -> ip2 (in-place)
I0504 14:19:01.259531  3026 net.cpp:124] Setting up relu2
I0504 14:19:01.259547  3026 net.cpp:131] Top shape: 1000 10 (10000)
I0504 14:19:01.259553  3026 net.cpp:139] Memory required for data: 731308000
I0504 14:19:01.259559  3026 layer_factory.hpp:77] Creating layer ip3
I0504 14:19:01.259572  3026 net.cpp:86] Creating Layer ip3
I0504 14:19:01.259578  3026 net.cpp:408] ip3 <- ip2
I0504 14:19:01.259589  3026 net.cpp:382] ip3 -> ip3
I0504 14:19:01.259835  3026 net.cpp:124] Setting up ip3
I0504 14:19:01.259850  3026 net.cpp:131] Top shape: 1000 10 (10000)
I0504 14:19:01.259877  3026 net.cpp:139] Memory required for data: 731348000
I0504 14:19:01.259893  3026 layer_factory.hpp:77] Creating layer ip3_ip3_0_split
I0504 14:19:01.259912  3026 net.cpp:86] Creating Layer ip3_ip3_0_split
I0504 14:19:01.259922  3026 net.cpp:408] ip3_ip3_0_split <- ip3
I0504 14:19:01.259940  3026 net.cpp:382] ip3_ip3_0_split -> ip3_ip3_0_split_0
I0504 14:19:01.259958  3026 net.cpp:382] ip3_ip3_0_split -> ip3_ip3_0_split_1
I0504 14:19:01.260047  3026 net.cpp:124] Setting up ip3_ip3_0_split
I0504 14:19:01.260067  3026 net.cpp:131] Top shape: 1000 10 (10000)
I0504 14:19:01.260082  3026 net.cpp:131] Top shape: 1000 10 (10000)
I0504 14:19:01.260097  3026 net.cpp:139] Memory required for data: 731428000
I0504 14:19:01.260107  3026 layer_factory.hpp:77] Creating layer accuracy
I0504 14:19:01.260133  3026 net.cpp:86] Creating Layer accuracy
I0504 14:19:01.260146  3026 net.cpp:408] accuracy <- ip3_ip3_0_split_0
I0504 14:19:01.260162  3026 net.cpp:408] accuracy <- label_cifar_1_split_0
I0504 14:19:01.260186  3026 net.cpp:382] accuracy -> accuracy
…
