…
I0504 07:04:36.857182 17632 net.cpp:296] The NetState phase (0) differed from the phase (1) specified by a rule in layer cifar
I0504 07:04:36.857201 17632 net.cpp:296] The NetState phase (0) differed from the phase (1) specified by a rule in layer accuracy
I0504 07:04:36.857302 17632 net.cpp:53] Initializing net from parameters: 
name: "CIFAR"
state {
  phase: TRAIN
  level: 0
  stage: ""
}
layer {
  name: "cifar"
  type: "Data"
  top: "data"
  top: "label"
  include {
    phase: TRAIN
  }
  transform_param {
    mean_file: "examples/cifar10/mean.binaryproto"
  }
  data_param {
    source: "examples/cifar10/cifar10_train_lmdb"
    batch_size: 111
    backend: LMDB
  }
}
layer {
  name: "conv0"
  type: "Convolution"
  bottom: "data"
  top: "conv0"
  param {
    lr_mult: 1
  }
  param {
    lr_mult: 2
  }
  convolution_param {
    num_output: 24
    pad: 2
    kernel_size: 3
    stride: 1
    weight_filler {
      type: "gaussian"
      std: 0.01
    }
    bias_filler {
      type: "constant"
    }
  }
}
layer {
  name: "Sigmoid0"
  type: "Sigmoid"
  bottom: "conv0"
  top: "Sigmoid0"
}
layer {
  name: "pool0"
  type: "Pooling"
  bottom: "Sigmoid0"
  top: "pool0"
  pooling_param {
    pool: AVE
    kernel_size: 3
    stride: 2
  }
}
layer {
  name: "conv1"
  type: "Convolution"
  bottom: "pool0"
  top: "conv1"
  param {
    lr_mult: 1
  }
  param {
    lr_mult: 2
  }
  convolution_param {
    num_output: 24
    pad: 2
    kernel_size: 3
    stride: 1
    weight_filler {
      type: "gaussian"
      std: 0.01
    }
    bias_filler {
      type: "constant"
    }
  }
}
layer {
  name: "Sigmoid1"
  type: "Sigmoid"
  bottom: "conv1"
  top: "Sigmoid1"
}
layer {
  name: "pool1"
  type: "Pooling"
  bottom: "Sigmoid1"
  top: "pool1"
  pooling_param {
    pool: AVE
    kernel_size: 3
    stride: 2
  }
}
layer {
  name: "ip1"
  type: "InnerProduct"
  bottom: "pool1"
  top: "ip1"
  param {
    lr_mult: 1
  }
  param {
    lr_mult: 2
  }
  inner_product_param {
    num_output: 10
    weight_filler {
      type: "gaussian"
      std: 0.01
    }
    bias_filler {
      type: "constant"
    }
  }
}
layer {
  name: "relu1"
  type: "ReLU"
  bottom: "ip1"
  top: "ip1"
}
layer {
  name: "ip2"
  type: "InnerProduct"
  bottom: "ip1"
  top: "ip2"
  param {
    lr_mult: 1
  }
  param {
    lr_mult: 2
  }
  inner_product_param {
    num_output: 10
    weight_filler {
      type: "gaussian"
      std: 0.01
    }
    bias_filler {
      type: "constant"
    }
  }
}
layer {
  name: "loss"
  type: "SoftmaxWithLoss"
  bottom: "ip2"
  bottom: "label"
  top: "loss"
}
I0504 07:04:36.857379 17632 layer_factory.hpp:77] Creating layer cifar
I0504 07:04:36.857475 17632 db_lmdb.cpp:35] Opened lmdb examples/cifar10/cifar10_train_lmdb
I0504 07:04:36.857503 17632 net.cpp:86] Creating Layer cifar
I0504 07:04:36.857511 17632 net.cpp:382] cifar -> data
I0504 07:04:36.857533 17632 net.cpp:382] cifar -> label
I0504 07:04:36.857547 17632 data_transformer.cpp:25] Loading mean file from: examples/cifar10/mean.binaryproto
I0504 07:04:36.859685 17632 data_layer.cpp:45] output data size: 111,3,32,32
I0504 07:04:36.867599 17632 net.cpp:124] Setting up cifar
I0504 07:04:36.867616 17632 net.cpp:131] Top shape: 111 3 32 32 (340992)
I0504 07:04:36.867624 17632 net.cpp:131] Top shape: 111 (111)
I0504 07:04:36.867627 17632 net.cpp:139] Memory required for data: 1364412
I0504 07:04:36.867635 17632 layer_factory.hpp:77] Creating layer conv0
I0504 07:04:36.867650 17632 net.cpp:86] Creating Layer conv0
I0504 07:04:36.867672 17632 net.cpp:408] conv0 <- data
I0504 07:04:36.867686 17632 net.cpp:382] conv0 -> conv0
I0504 07:04:37.158262 17632 net.cpp:124] Setting up conv0
I0504 07:04:37.158293 17632 net.cpp:131] Top shape: 111 24 34 34 (3079584)
I0504 07:04:37.158298 17632 net.cpp:139] Memory required for data: 13682748
I0504 07:04:37.158316 17632 layer_factory.hpp:77] Creating layer Sigmoid0
I0504 07:04:37.158330 17632 net.cpp:86] Creating Layer Sigmoid0
I0504 07:04:37.158335 17632 net.cpp:408] Sigmoid0 <- conv0
I0504 07:04:37.158342 17632 net.cpp:382] Sigmoid0 -> Sigmoid0
I0504 07:04:37.158560 17632 net.cpp:124] Setting up Sigmoid0
I0504 07:04:37.158571 17632 net.cpp:131] Top shape: 111 24 34 34 (3079584)
I0504 07:04:37.158576 17632 net.cpp:139] Memory required for data: 26001084
I0504 07:04:37.158579 17632 layer_factory.hpp:77] Creating layer pool0
I0504 07:04:37.158587 17632 net.cpp:86] Creating Layer pool0
I0504 07:04:37.158591 17632 net.cpp:408] pool0 <- Sigmoid0
I0504 07:04:37.158596 17632 net.cpp:382] pool0 -> pool0
I0504 07:04:37.159473 17632 net.cpp:124] Setting up pool0
I0504 07:04:37.159489 17632 net.cpp:131] Top shape: 111 24 17 17 (769896)
I0504 07:04:37.159494 17632 net.cpp:139] Memory required for data: 29080668
I0504 07:04:37.159498 17632 layer_factory.hpp:77] Creating layer conv1
I0504 07:04:37.159512 17632 net.cpp:86] Creating Layer conv1
I0504 07:04:37.159518 17632 net.cpp:408] conv1 <- pool0
I0504 07:04:37.159523 17632 net.cpp:382] conv1 -> conv1
I0504 07:04:37.162824 17632 net.cpp:124] Setting up conv1
I0504 07:04:37.162842 17632 net.cpp:131] Top shape: 111 24 19 19 (961704)
I0504 07:04:37.162847 17632 net.cpp:139] Memory required for data: 32927484
I0504 07:04:37.162856 17632 layer_factory.hpp:77] Creating layer Sigmoid1
I0504 07:04:37.162864 17632 net.cpp:86] Creating Layer Sigmoid1
I0504 07:04:37.162868 17632 net.cpp:408] Sigmoid1 <- conv1
I0504 07:04:37.162881 17632 net.cpp:382] Sigmoid1 -> Sigmoid1
I0504 07:04:37.163089 17632 net.cpp:124] Setting up Sigmoid1
I0504 07:04:37.163100 17632 net.cpp:131] Top shape: 111 24 19 19 (961704)
I0504 07:04:37.163103 17632 net.cpp:139] Memory required for data: 36774300
I0504 07:04:37.163107 17632 layer_factory.hpp:77] Creating layer pool1
I0504 07:04:37.163113 17632 net.cpp:86] Creating Layer pool1
I0504 07:04:37.163117 17632 net.cpp:408] pool1 <- Sigmoid1
I0504 07:04:37.163123 17632 net.cpp:382] pool1 -> pool1
I0504 07:04:37.163316 17632 net.cpp:124] Setting up pool1
I0504 07:04:37.163326 17632 net.cpp:131] Top shape: 111 24 9 9 (215784)
I0504 07:04:37.163329 17632 net.cpp:139] Memory required for data: 37637436
I0504 07:04:37.163333 17632 layer_factory.hpp:77] Creating layer ip1
I0504 07:04:37.163342 17632 net.cpp:86] Creating Layer ip1
I0504 07:04:37.163345 17632 net.cpp:408] ip1 <- pool1
I0504 07:04:37.163352 17632 net.cpp:382] ip1 -> ip1
I0504 07:04:37.165088 17632 net.cpp:124] Setting up ip1
I0504 07:04:37.165103 17632 net.cpp:131] Top shape: 111 10 (1110)
I0504 07:04:37.165107 17632 net.cpp:139] Memory required for data: 37641876
I0504 07:04:37.165124 17632 layer_factory.hpp:77] Creating layer relu1
I0504 07:04:37.165133 17632 net.cpp:86] Creating Layer relu1
I0504 07:04:37.165138 17632 net.cpp:408] relu1 <- ip1
I0504 07:04:37.165143 17632 net.cpp:369] relu1 -> ip1 (in-place)
I0504 07:04:37.165343 17632 net.cpp:124] Setting up relu1
I0504 07:04:37.165354 17632 net.cpp:131] Top shape: 111 10 (1110)
I0504 07:04:37.165357 17632 net.cpp:139] Memory required for data: 37646316
I0504 07:04:37.165361 17632 layer_factory.hpp:77] Creating layer ip2
I0504 07:04:37.165369 17632 net.cpp:86] Creating Layer ip2
I0504 07:04:37.165372 17632 net.cpp:408] ip2 <- ip1
I0504 07:04:37.165379 17632 net.cpp:382] ip2 -> ip2
I0504 07:04:37.165506 17632 net.cpp:124] Setting up ip2
I0504 07:04:37.165514 17632 net.cpp:131] Top shape: 111 10 (1110)
I0504 07:04:37.165518 17632 net.cpp:139] Memory required for data: 37650756
I0504 07:04:37.165524 17632 layer_factory.hpp:77] Creating layer loss
I0504 07:04:37.165531 17632 net.cpp:86] Creating Layer loss
I0504 07:04:37.165551 17632 net.cpp:408] loss <- ip2
I0504 07:04:37.165556 17632 net.cpp:408] loss <- label
I0504 07:04:37.165565 17632 net.cpp:382] loss -> loss
I0504 07:04:37.165580 17632 layer_factory.hpp:77] Creating layer loss
…
I0504 07:04:37.167018 17632 solver.cpp:173] Creating test net (#0) specified by net file: ECE595/cifar/train_test/var_everything_tiny/cifar_train_test_72.prototxt
I0504 07:04:37.167048 17632 net.cpp:296] The NetState phase (1) differed from the phase (0) specified by a rule in layer cifar
I0504 07:04:37.167160 17632 net.cpp:53] Initializing net from parameters: 
name: "CIFAR"
state {
  phase: TEST
}
layer {
  name: "cifar"
  type: "Data"
  top: "data"
  top: "label"
  include {
    phase: TEST
  }
  transform_param {
    mean_file: "examples/cifar10/mean.binaryproto"
  }
  data_param {
    source: "examples/cifar10/cifar10_test_lmdb"
    batch_size: 1000
    backend: LMDB
  }
}
layer {
  name: "conv0"
  type: "Convolution"
  bottom: "data"
  top: "conv0"
  param {
    lr_mult: 1
  }
  param {
    lr_mult: 2
  }
  convolution_param {
    num_output: 24
    pad: 2
    kernel_size: 3
    stride: 1
    weight_filler {
      type: "gaussian"
      std: 0.01
    }
    bias_filler {
      type: "constant"
    }
  }
}
layer {
  name: "Sigmoid0"
  type: "Sigmoid"
  bottom: "conv0"
  top: "Sigmoid0"
}
layer {
  name: "pool0"
  type: "Pooling"
  bottom: "Sigmoid0"
  top: "pool0"
  pooling_param {
    pool: AVE
    kernel_size: 3
    stride: 2
  }
}
layer {
  name: "conv1"
  type: "Convolution"
  bottom: "pool0"
  top: "conv1"
  param {
    lr_mult: 1
  }
  param {
    lr_mult: 2
  }
  convolution_param {
    num_output: 24
    pad: 2
    kernel_size: 3
    stride: 1
    weight_filler {
      type: "gaussian"
      std: 0.01
    }
    bias_filler {
      type: "constant"
    }
  }
}
layer {
  name: "Sigmoid1"
  type: "Sigmoid"
  bottom: "conv1"
  top: "Sigmoid1"
}
layer {
  name: "pool1"
  type: "Pooling"
  bottom: "Sigmoid1"
  top: "pool1"
  pooling_param {
    pool: AVE
    kernel_size: 3
    stride: 2
  }
}
layer {
  name: "ip1"
  type: "InnerProduct"
  bottom: "pool1"
  top: "ip1"
  param {
    lr_mult: 1
  }
  param {
    lr_mult: 2
  }
  inner_product_param {
    num_output: 10
    weight_filler {
      type: "gaussian"
      std: 0.01
    }
    bias_filler {
      type: "constant"
    }
  }
}
layer {
  name: "relu1"
  type: "ReLU"
  bottom: "ip1"
  top: "ip1"
}
layer {
  name: "ip2"
  type: "InnerProduct"
  bottom: "ip1"
  top: "ip2"
  param {
    lr_mult: 1
  }
  param {
    lr_mult: 2
  }
  inner_product_param {
    num_output: 10
    weight_filler {
      type: "gaussian"
      std: 0.01
    }
    bias_filler {
      type: "constant"
    }
  }
}
layer {
  name: "accuracy"
  type: "Accuracy"
  bottom: "ip2"
  bottom: "label"
  top: "accuracy"
  include {
    phase: TEST
  }
}
layer {
  name: "loss"
  type: "SoftmaxWithLoss"
  bottom: "ip2"
  bottom: "label"
  top: "loss"
}
I0504 07:04:37.167263 17632 layer_factory.hpp:77] Creating layer cifar
I0504 07:04:37.167317 17632 db_lmdb.cpp:35] Opened lmdb examples/cifar10/cifar10_test_lmdb
I0504 07:04:37.167331 17632 net.cpp:86] Creating Layer cifar
I0504 07:04:37.167338 17632 net.cpp:382] cifar -> data
I0504 07:04:37.167347 17632 net.cpp:382] cifar -> label
I0504 07:04:37.167354 17632 data_transformer.cpp:25] Loading mean file from: examples/cifar10/mean.binaryproto
I0504 07:04:37.167531 17632 data_layer.cpp:45] output data size: 1000,3,32,32
I0504 07:04:37.193403 17632 net.cpp:124] Setting up cifar
I0504 07:04:37.193441 17632 net.cpp:131] Top shape: 1000 3 32 32 (3072000)
I0504 07:04:37.193449 17632 net.cpp:131] Top shape: 1000 (1000)
I0504 07:04:37.193451 17632 net.cpp:139] Memory required for data: 12292000
I0504 07:04:37.193459 17632 layer_factory.hpp:77] Creating layer label_cifar_1_split
I0504 07:04:37.193473 17632 net.cpp:86] Creating Layer label_cifar_1_split
I0504 07:04:37.193477 17632 net.cpp:408] label_cifar_1_split <- label
I0504 07:04:37.193485 17632 net.cpp:382] label_cifar_1_split -> label_cifar_1_split_0
I0504 07:04:37.193495 17632 net.cpp:382] label_cifar_1_split -> label_cifar_1_split_1
I0504 07:04:37.193620 17632 net.cpp:124] Setting up label_cifar_1_split
I0504 07:04:37.193637 17632 net.cpp:131] Top shape: 1000 (1000)
I0504 07:04:37.193641 17632 net.cpp:131] Top shape: 1000 (1000)
I0504 07:04:37.193645 17632 net.cpp:139] Memory required for data: 12300000
I0504 07:04:37.193648 17632 layer_factory.hpp:77] Creating layer conv0
I0504 07:04:37.193665 17632 net.cpp:86] Creating Layer conv0
I0504 07:04:37.193668 17632 net.cpp:408] conv0 <- data
I0504 07:04:37.193676 17632 net.cpp:382] conv0 -> conv0
I0504 07:04:37.194737 17632 net.cpp:124] Setting up conv0
I0504 07:04:37.194752 17632 net.cpp:131] Top shape: 1000 24 34 34 (27744000)
I0504 07:04:37.194758 17632 net.cpp:139] Memory required for data: 123276000
I0504 07:04:37.194771 17632 layer_factory.hpp:77] Creating layer Sigmoid0
I0504 07:04:37.194777 17632 net.cpp:86] Creating Layer Sigmoid0
I0504 07:04:37.194782 17632 net.cpp:408] Sigmoid0 <- conv0
I0504 07:04:37.194787 17632 net.cpp:382] Sigmoid0 -> Sigmoid0
I0504 07:04:37.195821 17632 net.cpp:124] Setting up Sigmoid0
I0504 07:04:37.195835 17632 net.cpp:131] Top shape: 1000 24 34 34 (27744000)
I0504 07:04:37.195839 17632 net.cpp:139] Memory required for data: 234252000
I0504 07:04:37.195843 17632 layer_factory.hpp:77] Creating layer pool0
I0504 07:04:37.195853 17632 net.cpp:86] Creating Layer pool0
I0504 07:04:37.195858 17632 net.cpp:408] pool0 <- Sigmoid0
I0504 07:04:37.195865 17632 net.cpp:382] pool0 -> pool0
I0504 07:04:37.197047 17632 net.cpp:124] Setting up pool0
I0504 07:04:37.197060 17632 net.cpp:131] Top shape: 1000 24 17 17 (6936000)
I0504 07:04:37.197063 17632 net.cpp:139] Memory required for data: 261996000
I0504 07:04:37.197067 17632 layer_factory.hpp:77] Creating layer conv1
I0504 07:04:37.197079 17632 net.cpp:86] Creating Layer conv1
I0504 07:04:37.197083 17632 net.cpp:408] conv1 <- pool0
I0504 07:04:37.197093 17632 net.cpp:382] conv1 -> conv1
I0504 07:04:37.198863 17632 net.cpp:124] Setting up conv1
I0504 07:04:37.198879 17632 net.cpp:131] Top shape: 1000 24 19 19 (8664000)
I0504 07:04:37.198884 17632 net.cpp:139] Memory required for data: 296652000
I0504 07:04:37.198895 17632 layer_factory.hpp:77] Creating layer Sigmoid1
I0504 07:04:37.198902 17632 net.cpp:86] Creating Layer Sigmoid1
I0504 07:04:37.198907 17632 net.cpp:408] Sigmoid1 <- conv1
I0504 07:04:37.198915 17632 net.cpp:382] Sigmoid1 -> Sigmoid1
I0504 07:04:37.199131 17632 net.cpp:124] Setting up Sigmoid1
I0504 07:04:37.199142 17632 net.cpp:131] Top shape: 1000 24 19 19 (8664000)
I0504 07:04:37.199146 17632 net.cpp:139] Memory required for data: 331308000
I0504 07:04:37.199151 17632 layer_factory.hpp:77] Creating layer pool1
I0504 07:04:37.199159 17632 net.cpp:86] Creating Layer pool1
I0504 07:04:37.199163 17632 net.cpp:408] pool1 <- Sigmoid1
I0504 07:04:37.199168 17632 net.cpp:382] pool1 -> pool1
I0504 07:04:37.199393 17632 net.cpp:124] Setting up pool1
I0504 07:04:37.199404 17632 net.cpp:131] Top shape: 1000 24 9 9 (1944000)
I0504 07:04:37.199409 17632 net.cpp:139] Memory required for data: 339084000
I0504 07:04:37.199412 17632 layer_factory.hpp:77] Creating layer ip1
I0504 07:04:37.199424 17632 net.cpp:86] Creating Layer ip1
I0504 07:04:37.199429 17632 net.cpp:408] ip1 <- pool1
I0504 07:04:37.199436 17632 net.cpp:382] ip1 -> ip1
I0504 07:04:37.200213 17632 net.cpp:124] Setting up ip1
I0504 07:04:37.200222 17632 net.cpp:131] Top shape: 1000 10 (10000)
I0504 07:04:37.200225 17632 net.cpp:139] Memory required for data: 339124000
I0504 07:04:37.200234 17632 layer_factory.hpp:77] Creating layer relu1
I0504 07:04:37.200240 17632 net.cpp:86] Creating Layer relu1
I0504 07:04:37.200244 17632 net.cpp:408] relu1 <- ip1
I0504 07:04:37.200249 17632 net.cpp:369] relu1 -> ip1 (in-place)
I0504 07:04:37.201138 17632 net.cpp:124] Setting up relu1
I0504 07:04:37.201153 17632 net.cpp:131] Top shape: 1000 10 (10000)
I0504 07:04:37.201158 17632 net.cpp:139] Memory required for data: 339164000
I0504 07:04:37.201161 17632 layer_factory.hpp:77] Creating layer ip2
I0504 07:04:37.201170 17632 net.cpp:86] Creating Layer ip2
I0504 07:04:37.201174 17632 net.cpp:408] ip2 <- ip1
I0504 07:04:37.201182 17632 net.cpp:382] ip2 -> ip2
I0504 07:04:37.201319 17632 net.cpp:124] Setting up ip2
I0504 07:04:37.201328 17632 net.cpp:131] Top shape: 1000 10 (10000)
I0504 07:04:37.201331 17632 net.cpp:139] Memory required for data: 339204000
I0504 07:04:37.201339 17632 layer_factory.hpp:77] Creating layer ip2_ip2_0_split
I0504 07:04:37.201344 17632 net.cpp:86] Creating Layer ip2_ip2_0_split
I0504 07:04:37.201349 17632 net.cpp:408] ip2_ip2_0_split <- ip2
I0504 07:04:37.201354 17632 net.cpp:382] ip2_ip2_0_split -> ip2_ip2_0_split_0
I0504 07:04:37.201361 17632 net.cpp:382] ip2_ip2_0_split -> ip2_ip2_0_split_1
I0504 07:04:37.201400 17632 net.cpp:124] Setting up ip2_ip2_0_split
I0504 07:04:37.201408 17632 net.cpp:131] Top shape: 1000 10 (10000)
I0504 07:04:37.201412 17632 net.cpp:131] Top shape: 1000 10 (10000)
I0504 07:04:37.201416 17632 net.cpp:139] Memory required for data: 339284000
I0504 07:04:37.201419 17632 layer_factory.hpp:77] Creating layer accuracy
I0504 07:04:37.201427 17632 net.cpp:86] Creating Layer accuracy
I0504 07:04:37.201431 17632 net.cpp:408] accuracy <- ip2_ip2_0_split_0
I0504 07:04:37.201436 17632 net.cpp:408] accuracy <- label_cifar_1_split_0
I0504 07:04:37.201441 17632 net.cpp:382] accuracy -> accuracy
…
