…
I0504 05:08:14.026754 13881 net.cpp:296] The NetState phase (0) differed from the phase (1) specified by a rule in layer cifar
I0504 05:08:14.026769 13881 net.cpp:296] The NetState phase (0) differed from the phase (1) specified by a rule in layer accuracy
I0504 05:08:14.026850 13881 net.cpp:53] Initializing net from parameters: 
name: "CIFAR"
state {
  phase: TRAIN
  level: 0
  stage: ""
}
layer {
  name: "cifar"
  type: "Data"
  top: "data"
  top: "label"
  include {
    phase: TRAIN
  }
  transform_param {
    mean_file: "examples/cifar10/mean.binaryproto"
  }
  data_param {
    source: "examples/cifar10/cifar10_train_lmdb"
    batch_size: 111
    backend: LMDB
  }
}
layer {
  name: "conv0"
  type: "Convolution"
  bottom: "data"
  top: "conv0"
  param {
    lr_mult: 1
  }
  param {
    lr_mult: 2
  }
  convolution_param {
    num_output: 216
    pad: 2
    kernel_size: 5
    stride: 1
    weight_filler {
      type: "gaussian"
      std: 0.01
    }
    bias_filler {
      type: "constant"
    }
  }
}
layer {
  name: "Sigmoid0"
  type: "Sigmoid"
  bottom: "conv0"
  top: "Sigmoid0"
}
layer {
  name: "pool0"
  type: "Pooling"
  bottom: "Sigmoid0"
  top: "pool0"
  pooling_param {
    pool: AVE
    kernel_size: 3
    stride: 2
  }
}
layer {
  name: "ip1"
  type: "InnerProduct"
  bottom: "pool0"
  top: "ip1"
  param {
    lr_mult: 1
  }
  param {
    lr_mult: 2
  }
  inner_product_param {
    num_output: 60
    weight_filler {
      type: "gaussian"
      std: 0.01
    }
    bias_filler {
      type: "constant"
    }
  }
}
layer {
  name: "relu1"
  type: "ReLU"
  bottom: "ip1"
  top: "ip1"
}
layer {
  name: "ip2"
  type: "InnerProduct"
  bottom: "ip1"
  top: "ip2"
  param {
    lr_mult: 1
  }
  param {
    lr_mult: 2
  }
  inner_product_param {
    num_output: 10
    weight_filler {
      type: "gaussian"
      std: 0.01
    }
    bias_filler {
      type: "constant"
    }
  }
}
layer {
  name: "loss"
  type: "SoftmaxWithLoss"
  bottom: "ip2"
  bottom: "label"
  top: "loss"
}
I0504 05:08:14.026913 13881 layer_factory.hpp:77] Creating layer cifar
I0504 05:08:14.027012 13881 db_lmdb.cpp:35] Opened lmdb examples/cifar10/cifar10_train_lmdb
I0504 05:08:14.027039 13881 net.cpp:86] Creating Layer cifar
I0504 05:08:14.027046 13881 net.cpp:382] cifar -> data
I0504 05:08:14.027070 13881 net.cpp:382] cifar -> label
I0504 05:08:14.027081 13881 data_transformer.cpp:25] Loading mean file from: examples/cifar10/mean.binaryproto
I0504 05:08:14.029191 13881 data_layer.cpp:45] output data size: 111,3,32,32
I0504 05:08:14.037112 13881 net.cpp:124] Setting up cifar
I0504 05:08:14.037132 13881 net.cpp:131] Top shape: 111 3 32 32 (340992)
I0504 05:08:14.037137 13881 net.cpp:131] Top shape: 111 (111)
I0504 05:08:14.037142 13881 net.cpp:139] Memory required for data: 1364412
I0504 05:08:14.037148 13881 layer_factory.hpp:77] Creating layer conv0
I0504 05:08:14.037168 13881 net.cpp:86] Creating Layer conv0
I0504 05:08:14.037173 13881 net.cpp:408] conv0 <- data
I0504 05:08:14.037185 13881 net.cpp:382] conv0 -> conv0
I0504 05:08:14.321887 13881 net.cpp:124] Setting up conv0
I0504 05:08:14.321914 13881 net.cpp:131] Top shape: 111 216 32 32 (24551424)
I0504 05:08:14.321918 13881 net.cpp:139] Memory required for data: 99570108
I0504 05:08:14.321933 13881 layer_factory.hpp:77] Creating layer Sigmoid0
I0504 05:08:14.321944 13881 net.cpp:86] Creating Layer Sigmoid0
I0504 05:08:14.321949 13881 net.cpp:408] Sigmoid0 <- conv0
I0504 05:08:14.321972 13881 net.cpp:382] Sigmoid0 -> Sigmoid0
I0504 05:08:14.322152 13881 net.cpp:124] Setting up Sigmoid0
I0504 05:08:14.322161 13881 net.cpp:131] Top shape: 111 216 32 32 (24551424)
I0504 05:08:14.322165 13881 net.cpp:139] Memory required for data: 197775804
I0504 05:08:14.322168 13881 layer_factory.hpp:77] Creating layer pool0
I0504 05:08:14.322175 13881 net.cpp:86] Creating Layer pool0
I0504 05:08:14.322178 13881 net.cpp:408] pool0 <- Sigmoid0
I0504 05:08:14.322182 13881 net.cpp:382] pool0 -> pool0
I0504 05:08:14.322926 13881 net.cpp:124] Setting up pool0
I0504 05:08:14.322939 13881 net.cpp:131] Top shape: 111 216 16 16 (6137856)
I0504 05:08:14.322942 13881 net.cpp:139] Memory required for data: 222327228
I0504 05:08:14.322947 13881 layer_factory.hpp:77] Creating layer ip1
I0504 05:08:14.322955 13881 net.cpp:86] Creating Layer ip1
I0504 05:08:14.322958 13881 net.cpp:408] ip1 <- pool0
I0504 05:08:14.322964 13881 net.cpp:382] ip1 -> ip1
I0504 05:08:14.411710 13881 net.cpp:124] Setting up ip1
I0504 05:08:14.411746 13881 net.cpp:131] Top shape: 111 60 (6660)
I0504 05:08:14.411751 13881 net.cpp:139] Memory required for data: 222353868
I0504 05:08:14.411761 13881 layer_factory.hpp:77] Creating layer relu1
I0504 05:08:14.411770 13881 net.cpp:86] Creating Layer relu1
I0504 05:08:14.411774 13881 net.cpp:408] relu1 <- ip1
I0504 05:08:14.411779 13881 net.cpp:369] relu1 -> ip1 (in-place)
I0504 05:08:14.411995 13881 net.cpp:124] Setting up relu1
I0504 05:08:14.412003 13881 net.cpp:131] Top shape: 111 60 (6660)
I0504 05:08:14.412006 13881 net.cpp:139] Memory required for data: 222380508
I0504 05:08:14.412009 13881 layer_factory.hpp:77] Creating layer ip2
I0504 05:08:14.412017 13881 net.cpp:86] Creating Layer ip2
I0504 05:08:14.412020 13881 net.cpp:408] ip2 <- ip1
I0504 05:08:14.412025 13881 net.cpp:382] ip2 -> ip2
I0504 05:08:14.412140 13881 net.cpp:124] Setting up ip2
I0504 05:08:14.412147 13881 net.cpp:131] Top shape: 111 10 (1110)
I0504 05:08:14.412149 13881 net.cpp:139] Memory required for data: 222384948
I0504 05:08:14.412156 13881 layer_factory.hpp:77] Creating layer loss
I0504 05:08:14.412163 13881 net.cpp:86] Creating Layer loss
I0504 05:08:14.412164 13881 net.cpp:408] loss <- ip2
I0504 05:08:14.412168 13881 net.cpp:408] loss <- label
I0504 05:08:14.412174 13881 net.cpp:382] loss -> loss
I0504 05:08:14.412194 13881 layer_factory.hpp:77] Creating layer loss
…
I0504 05:08:14.412768 13881 solver.cpp:173] Creating test net (#0) specified by net file: ECE595/cifar/train_test/var_everything_tiny/cifar_train_test_61.prototxt
I0504 05:08:14.412843 13881 net.cpp:296] The NetState phase (1) differed from the phase (0) specified by a rule in layer cifar
I0504 05:08:14.412967 13881 net.cpp:53] Initializing net from parameters: 
name: "CIFAR"
state {
  phase: TEST
}
layer {
  name: "cifar"
  type: "Data"
  top: "data"
  top: "label"
  include {
    phase: TEST
  }
  transform_param {
    mean_file: "examples/cifar10/mean.binaryproto"
  }
  data_param {
    source: "examples/cifar10/cifar10_test_lmdb"
    batch_size: 1000
    backend: LMDB
  }
}
layer {
  name: "conv0"
  type: "Convolution"
  bottom: "data"
  top: "conv0"
  param {
    lr_mult: 1
  }
  param {
    lr_mult: 2
  }
  convolution_param {
    num_output: 216
    pad: 2
    kernel_size: 5
    stride: 1
    weight_filler {
      type: "gaussian"
      std: 0.01
    }
    bias_filler {
      type: "constant"
    }
  }
}
layer {
  name: "Sigmoid0"
  type: "Sigmoid"
  bottom: "conv0"
  top: "Sigmoid0"
}
layer {
  name: "pool0"
  type: "Pooling"
  bottom: "Sigmoid0"
  top: "pool0"
  pooling_param {
    pool: AVE
    kernel_size: 3
    stride: 2
  }
}
layer {
  name: "ip1"
  type: "InnerProduct"
  bottom: "pool0"
  top: "ip1"
  param {
    lr_mult: 1
  }
  param {
    lr_mult: 2
  }
  inner_product_param {
    num_output: 60
    weight_filler {
      type: "gaussian"
      std: 0.01
    }
    bias_filler {
      type: "constant"
    }
  }
}
layer {
  name: "relu1"
  type: "ReLU"
  bottom: "ip1"
  top: "ip1"
}
layer {
  name: "ip2"
  type: "InnerProduct"
  bottom: "ip1"
  top: "ip2"
  param {
    lr_mult: 1
  }
  param {
    lr_mult: 2
  }
  inner_product_param {
    num_output: 10
    weight_filler {
      type: "gaussian"
      std: 0.01
    }
    bias_filler {
      type: "constant"
    }
  }
}
layer {
  name: "accuracy"
  type: "Accuracy"
  bottom: "ip2"
  bottom: "label"
  top: "accuracy"
  include {
    phase: TEST
  }
}
layer {
  name: "loss"
  type: "SoftmaxWithLoss"
  bottom: "ip2"
  bottom: "label"
  top: "loss"
}
I0504 05:08:14.413045 13881 layer_factory.hpp:77] Creating layer cifar
I0504 05:08:14.413111 13881 db_lmdb.cpp:35] Opened lmdb examples/cifar10/cifar10_test_lmdb
I0504 05:08:14.413123 13881 net.cpp:86] Creating Layer cifar
I0504 05:08:14.413127 13881 net.cpp:382] cifar -> data
I0504 05:08:14.413136 13881 net.cpp:382] cifar -> label
I0504 05:08:14.413142 13881 data_transformer.cpp:25] Loading mean file from: examples/cifar10/mean.binaryproto
I0504 05:08:14.413301 13881 data_layer.cpp:45] output data size: 1000,3,32,32
I0504 05:08:14.435643 13881 net.cpp:124] Setting up cifar
I0504 05:08:14.435693 13881 net.cpp:131] Top shape: 1000 3 32 32 (3072000)
I0504 05:08:14.435698 13881 net.cpp:131] Top shape: 1000 (1000)
I0504 05:08:14.435701 13881 net.cpp:139] Memory required for data: 12292000
I0504 05:08:14.435708 13881 layer_factory.hpp:77] Creating layer label_cifar_1_split
I0504 05:08:14.435724 13881 net.cpp:86] Creating Layer label_cifar_1_split
I0504 05:08:14.435744 13881 net.cpp:408] label_cifar_1_split <- label
I0504 05:08:14.435750 13881 net.cpp:382] label_cifar_1_split -> label_cifar_1_split_0
I0504 05:08:14.435758 13881 net.cpp:382] label_cifar_1_split -> label_cifar_1_split_1
I0504 05:08:14.435858 13881 net.cpp:124] Setting up label_cifar_1_split
I0504 05:08:14.435864 13881 net.cpp:131] Top shape: 1000 (1000)
I0504 05:08:14.435868 13881 net.cpp:131] Top shape: 1000 (1000)
I0504 05:08:14.435871 13881 net.cpp:139] Memory required for data: 12300000
I0504 05:08:14.435874 13881 layer_factory.hpp:77] Creating layer conv0
I0504 05:08:14.435886 13881 net.cpp:86] Creating Layer conv0
I0504 05:08:14.435889 13881 net.cpp:408] conv0 <- data
I0504 05:08:14.435894 13881 net.cpp:382] conv0 -> conv0
I0504 05:08:14.438868 13881 net.cpp:124] Setting up conv0
I0504 05:08:14.438884 13881 net.cpp:131] Top shape: 1000 216 32 32 (221184000)
I0504 05:08:14.438886 13881 net.cpp:139] Memory required for data: 897036000
I0504 05:08:14.438912 13881 layer_factory.hpp:77] Creating layer Sigmoid0
I0504 05:08:14.438920 13881 net.cpp:86] Creating Layer Sigmoid0
I0504 05:08:14.438923 13881 net.cpp:408] Sigmoid0 <- conv0
I0504 05:08:14.438928 13881 net.cpp:382] Sigmoid0 -> Sigmoid0
I0504 05:08:14.439121 13881 net.cpp:124] Setting up Sigmoid0
I0504 05:08:14.439131 13881 net.cpp:131] Top shape: 1000 216 32 32 (221184000)
I0504 05:08:14.439133 13881 net.cpp:139] Memory required for data: 1781772000
I0504 05:08:14.439136 13881 layer_factory.hpp:77] Creating layer pool0
I0504 05:08:14.439144 13881 net.cpp:86] Creating Layer pool0
I0504 05:08:14.439147 13881 net.cpp:408] pool0 <- Sigmoid0
I0504 05:08:14.439153 13881 net.cpp:382] pool0 -> pool0
I0504 05:08:14.439935 13881 net.cpp:124] Setting up pool0
I0504 05:08:14.439949 13881 net.cpp:131] Top shape: 1000 216 16 16 (55296000)
I0504 05:08:14.439951 13881 net.cpp:139] Memory required for data: 2002956000
I0504 05:08:14.439954 13881 layer_factory.hpp:77] Creating layer ip1
I0504 05:08:14.439977 13881 net.cpp:86] Creating Layer ip1
I0504 05:08:14.439980 13881 net.cpp:408] ip1 <- pool0
I0504 05:08:14.439986 13881 net.cpp:382] ip1 -> ip1
I0504 05:08:14.535698 13881 net.cpp:124] Setting up ip1
I0504 05:08:14.535722 13881 net.cpp:131] Top shape: 1000 60 (60000)
I0504 05:08:14.535724 13881 net.cpp:139] Memory required for data: 2003196000
I0504 05:08:14.535737 13881 layer_factory.hpp:77] Creating layer relu1
I0504 05:08:14.535745 13881 net.cpp:86] Creating Layer relu1
I0504 05:08:14.535748 13881 net.cpp:408] relu1 <- ip1
I0504 05:08:14.535753 13881 net.cpp:369] relu1 -> ip1 (in-place)
I0504 05:08:14.535965 13881 net.cpp:124] Setting up relu1
I0504 05:08:14.535974 13881 net.cpp:131] Top shape: 1000 60 (60000)
I0504 05:08:14.535977 13881 net.cpp:139] Memory required for data: 2003436000
I0504 05:08:14.535980 13881 layer_factory.hpp:77] Creating layer ip2
I0504 05:08:14.535989 13881 net.cpp:86] Creating Layer ip2
I0504 05:08:14.535990 13881 net.cpp:408] ip2 <- ip1
I0504 05:08:14.535996 13881 net.cpp:382] ip2 -> ip2
I0504 05:08:14.536134 13881 net.cpp:124] Setting up ip2
I0504 05:08:14.536141 13881 net.cpp:131] Top shape: 1000 10 (10000)
I0504 05:08:14.536144 13881 net.cpp:139] Memory required for data: 2003476000
I0504 05:08:14.536151 13881 layer_factory.hpp:77] Creating layer ip2_ip2_0_split
I0504 05:08:14.536159 13881 net.cpp:86] Creating Layer ip2_ip2_0_split
I0504 05:08:14.536162 13881 net.cpp:408] ip2_ip2_0_split <- ip2
I0504 05:08:14.536166 13881 net.cpp:382] ip2_ip2_0_split -> ip2_ip2_0_split_0
I0504 05:08:14.536171 13881 net.cpp:382] ip2_ip2_0_split -> ip2_ip2_0_split_1
I0504 05:08:14.536203 13881 net.cpp:124] Setting up ip2_ip2_0_split
I0504 05:08:14.536209 13881 net.cpp:131] Top shape: 1000 10 (10000)
I0504 05:08:14.536213 13881 net.cpp:131] Top shape: 1000 10 (10000)
I0504 05:08:14.536216 13881 net.cpp:139] Memory required for data: 2003556000
I0504 05:08:14.536218 13881 layer_factory.hpp:77] Creating layer accuracy
I0504 05:08:14.536224 13881 net.cpp:86] Creating Layer accuracy
I0504 05:08:14.536227 13881 net.cpp:408] accuracy <- ip2_ip2_0_split_0
I0504 05:08:14.536231 13881 net.cpp:408] accuracy <- label_cifar_1_split_0
I0504 05:08:14.536237 13881 net.cpp:382] accuracy -> accuracy
…
