…
I0504 09:36:12.495744 23843 net.cpp:296] The NetState phase (0) differed from the phase (1) specified by a rule in layer cifar
I0504 09:36:12.495762 23843 net.cpp:296] The NetState phase (0) differed from the phase (1) specified by a rule in layer accuracy
I0504 09:36:12.495857 23843 net.cpp:53] Initializing net from parameters: 
name: "CIFAR"
state {
  phase: TRAIN
  level: 0
  stage: ""
}
layer {
  name: "cifar"
  type: "Data"
  top: "data"
  top: "label"
  include {
    phase: TRAIN
  }
  transform_param {
    mean_file: "examples/cifar10/mean.binaryproto"
  }
  data_param {
    source: "examples/cifar10/cifar10_train_lmdb"
    batch_size: 111
    backend: LMDB
  }
}
layer {
  name: "conv0"
  type: "Convolution"
  bottom: "data"
  top: "conv0"
  param {
    lr_mult: 1
  }
  param {
    lr_mult: 2
  }
  convolution_param {
    num_output: 24
    pad: 2
    kernel_size: 5
    stride: 1
    weight_filler {
      type: "gaussian"
      std: 0.01
    }
    bias_filler {
      type: "constant"
    }
  }
}
layer {
  name: "Sigmoid0"
  type: "Sigmoid"
  bottom: "conv0"
  top: "Sigmoid0"
}
layer {
  name: "pool0"
  type: "Pooling"
  bottom: "Sigmoid0"
  top: "pool0"
  pooling_param {
    pool: AVE
    kernel_size: 3
    stride: 2
  }
}
layer {
  name: "conv1"
  type: "Convolution"
  bottom: "pool0"
  top: "conv1"
  param {
    lr_mult: 1
  }
  param {
    lr_mult: 2
  }
  convolution_param {
    num_output: 72
    pad: 2
    kernel_size: 3
    stride: 1
    weight_filler {
      type: "gaussian"
      std: 0.01
    }
    bias_filler {
      type: "constant"
    }
  }
}
layer {
  name: "Sigmoid1"
  type: "Sigmoid"
  bottom: "conv1"
  top: "Sigmoid1"
}
layer {
  name: "pool1"
  type: "Pooling"
  bottom: "Sigmoid1"
  top: "pool1"
  pooling_param {
    pool: AVE
    kernel_size: 3
    stride: 2
  }
}
layer {
  name: "ip1"
  type: "InnerProduct"
  bottom: "pool1"
  top: "ip1"
  param {
    lr_mult: 1
  }
  param {
    lr_mult: 2
  }
  inner_product_param {
    num_output: 60
    weight_filler {
      type: "gaussian"
      std: 0.01
    }
    bias_filler {
      type: "constant"
    }
  }
}
layer {
  name: "relu1"
  type: "ReLU"
  bottom: "ip1"
  top: "ip1"
}
layer {
  name: "ip2"
  type: "InnerProduct"
  bottom: "ip1"
  top: "ip2"
  param {
    lr_mult: 1
  }
  param {
    lr_mult: 2
  }
  inner_product_param {
    num_output: 10
    weight_filler {
      type: "gaussian"
      std: 0.01
    }
    bias_filler {
      type: "constant"
    }
  }
}
layer {
  name: "loss"
  type: "SoftmaxWithLoss"
  bottom: "ip2"
  bottom: "label"
  top: "loss"
}
I0504 09:36:12.495929 23843 layer_factory.hpp:77] Creating layer cifar
I0504 09:36:12.496031 23843 db_lmdb.cpp:35] Opened lmdb examples/cifar10/cifar10_train_lmdb
I0504 09:36:12.496057 23843 net.cpp:86] Creating Layer cifar
I0504 09:36:12.496065 23843 net.cpp:382] cifar -> data
I0504 09:36:12.496088 23843 net.cpp:382] cifar -> label
I0504 09:36:12.496100 23843 data_transformer.cpp:25] Loading mean file from: examples/cifar10/mean.binaryproto
I0504 09:36:12.498247 23843 data_layer.cpp:45] output data size: 111,3,32,32
I0504 09:36:12.506290 23843 net.cpp:124] Setting up cifar
I0504 09:36:12.506310 23843 net.cpp:131] Top shape: 111 3 32 32 (340992)
I0504 09:36:12.506316 23843 net.cpp:131] Top shape: 111 (111)
I0504 09:36:12.506320 23843 net.cpp:139] Memory required for data: 1364412
I0504 09:36:12.506327 23843 layer_factory.hpp:77] Creating layer conv0
I0504 09:36:12.506345 23843 net.cpp:86] Creating Layer conv0
I0504 09:36:12.506366 23843 net.cpp:408] conv0 <- data
I0504 09:36:12.506377 23843 net.cpp:382] conv0 -> conv0
I0504 09:36:12.764991 23843 net.cpp:124] Setting up conv0
I0504 09:36:12.765030 23843 net.cpp:131] Top shape: 111 24 32 32 (2727936)
I0504 09:36:12.765035 23843 net.cpp:139] Memory required for data: 12276156
I0504 09:36:12.765049 23843 layer_factory.hpp:77] Creating layer Sigmoid0
I0504 09:36:12.765061 23843 net.cpp:86] Creating Layer Sigmoid0
I0504 09:36:12.765065 23843 net.cpp:408] Sigmoid0 <- conv0
I0504 09:36:12.765071 23843 net.cpp:382] Sigmoid0 -> Sigmoid0
I0504 09:36:12.765254 23843 net.cpp:124] Setting up Sigmoid0
I0504 09:36:12.765264 23843 net.cpp:131] Top shape: 111 24 32 32 (2727936)
I0504 09:36:12.765266 23843 net.cpp:139] Memory required for data: 23187900
I0504 09:36:12.765269 23843 layer_factory.hpp:77] Creating layer pool0
I0504 09:36:12.765275 23843 net.cpp:86] Creating Layer pool0
I0504 09:36:12.765278 23843 net.cpp:408] pool0 <- Sigmoid0
I0504 09:36:12.765283 23843 net.cpp:382] pool0 -> pool0
I0504 09:36:12.765985 23843 net.cpp:124] Setting up pool0
I0504 09:36:12.765997 23843 net.cpp:131] Top shape: 111 24 16 16 (681984)
I0504 09:36:12.766016 23843 net.cpp:139] Memory required for data: 25915836
I0504 09:36:12.766019 23843 layer_factory.hpp:77] Creating layer conv1
I0504 09:36:12.766031 23843 net.cpp:86] Creating Layer conv1
I0504 09:36:12.766033 23843 net.cpp:408] conv1 <- pool0
I0504 09:36:12.766038 23843 net.cpp:382] conv1 -> conv1
I0504 09:36:12.768913 23843 net.cpp:124] Setting up conv1
I0504 09:36:12.768924 23843 net.cpp:131] Top shape: 111 72 18 18 (2589408)
I0504 09:36:12.768944 23843 net.cpp:139] Memory required for data: 36273468
I0504 09:36:12.768952 23843 layer_factory.hpp:77] Creating layer Sigmoid1
I0504 09:36:12.768957 23843 net.cpp:86] Creating Layer Sigmoid1
I0504 09:36:12.768961 23843 net.cpp:408] Sigmoid1 <- conv1
I0504 09:36:12.768966 23843 net.cpp:382] Sigmoid1 -> Sigmoid1
I0504 09:36:12.769171 23843 net.cpp:124] Setting up Sigmoid1
I0504 09:36:12.769181 23843 net.cpp:131] Top shape: 111 72 18 18 (2589408)
I0504 09:36:12.769183 23843 net.cpp:139] Memory required for data: 46631100
I0504 09:36:12.769186 23843 layer_factory.hpp:77] Creating layer pool1
I0504 09:36:12.769192 23843 net.cpp:86] Creating Layer pool1
I0504 09:36:12.769196 23843 net.cpp:408] pool1 <- Sigmoid1
I0504 09:36:12.769201 23843 net.cpp:382] pool1 -> pool1
I0504 09:36:12.769362 23843 net.cpp:124] Setting up pool1
I0504 09:36:12.769371 23843 net.cpp:131] Top shape: 111 72 9 9 (647352)
I0504 09:36:12.769373 23843 net.cpp:139] Memory required for data: 49220508
I0504 09:36:12.769376 23843 layer_factory.hpp:77] Creating layer ip1
I0504 09:36:12.769384 23843 net.cpp:86] Creating Layer ip1
I0504 09:36:12.769387 23843 net.cpp:408] ip1 <- pool1
I0504 09:36:12.769392 23843 net.cpp:382] ip1 -> ip1
I0504 09:36:12.778919 23843 net.cpp:124] Setting up ip1
I0504 09:36:12.778930 23843 net.cpp:131] Top shape: 111 60 (6660)
I0504 09:36:12.778934 23843 net.cpp:139] Memory required for data: 49247148
I0504 09:36:12.778940 23843 layer_factory.hpp:77] Creating layer relu1
I0504 09:36:12.778947 23843 net.cpp:86] Creating Layer relu1
I0504 09:36:12.778952 23843 net.cpp:408] relu1 <- ip1
I0504 09:36:12.778956 23843 net.cpp:369] relu1 -> ip1 (in-place)
I0504 09:36:12.779132 23843 net.cpp:124] Setting up relu1
I0504 09:36:12.779140 23843 net.cpp:131] Top shape: 111 60 (6660)
I0504 09:36:12.779144 23843 net.cpp:139] Memory required for data: 49273788
I0504 09:36:12.779145 23843 layer_factory.hpp:77] Creating layer ip2
I0504 09:36:12.779152 23843 net.cpp:86] Creating Layer ip2
I0504 09:36:12.779155 23843 net.cpp:408] ip2 <- ip1
I0504 09:36:12.779160 23843 net.cpp:382] ip2 -> ip2
I0504 09:36:12.779274 23843 net.cpp:124] Setting up ip2
I0504 09:36:12.779281 23843 net.cpp:131] Top shape: 111 10 (1110)
I0504 09:36:12.779284 23843 net.cpp:139] Memory required for data: 49278228
I0504 09:36:12.779289 23843 layer_factory.hpp:77] Creating layer loss
I0504 09:36:12.779294 23843 net.cpp:86] Creating Layer loss
I0504 09:36:12.779310 23843 net.cpp:408] loss <- ip2
I0504 09:36:12.779314 23843 net.cpp:408] loss <- label
I0504 09:36:12.779320 23843 net.cpp:382] loss -> loss
I0504 09:36:12.779335 23843 layer_factory.hpp:77] Creating layer loss
…
I0504 09:36:12.780488 23843 solver.cpp:173] Creating test net (#0) specified by net file: ECE595/cifar/train_test/var_everything_tiny/cifar_train_test_121.prototxt
I0504 09:36:12.780513 23843 net.cpp:296] The NetState phase (1) differed from the phase (0) specified by a rule in layer cifar
I0504 09:36:12.780601 23843 net.cpp:53] Initializing net from parameters: 
name: "CIFAR"
state {
  phase: TEST
}
layer {
  name: "cifar"
  type: "Data"
  top: "data"
  top: "label"
  include {
    phase: TEST
  }
  transform_param {
    mean_file: "examples/cifar10/mean.binaryproto"
  }
  data_param {
    source: "examples/cifar10/cifar10_test_lmdb"
    batch_size: 1000
    backend: LMDB
  }
}
layer {
  name: "conv0"
  type: "Convolution"
  bottom: "data"
  top: "conv0"
  param {
    lr_mult: 1
  }
  param {
    lr_mult: 2
  }
  convolution_param {
    num_output: 24
    pad: 2
    kernel_size: 5
    stride: 1
    weight_filler {
      type: "gaussian"
      std: 0.01
    }
    bias_filler {
      type: "constant"
    }
  }
}
layer {
  name: "Sigmoid0"
  type: "Sigmoid"
  bottom: "conv0"
  top: "Sigmoid0"
}
layer {
  name: "pool0"
  type: "Pooling"
  bottom: "Sigmoid0"
  top: "pool0"
  pooling_param {
    pool: AVE
    kernel_size: 3
    stride: 2
  }
}
layer {
  name: "conv1"
  type: "Convolution"
  bottom: "pool0"
  top: "conv1"
  param {
    lr_mult: 1
  }
  param {
    lr_mult: 2
  }
  convolution_param {
    num_output: 72
    pad: 2
    kernel_size: 3
    stride: 1
    weight_filler {
      type: "gaussian"
      std: 0.01
    }
    bias_filler {
      type: "constant"
    }
  }
}
layer {
  name: "Sigmoid1"
  type: "Sigmoid"
  bottom: "conv1"
  top: "Sigmoid1"
}
layer {
  name: "pool1"
  type: "Pooling"
  bottom: "Sigmoid1"
  top: "pool1"
  pooling_param {
    pool: AVE
    kernel_size: 3
    stride: 2
  }
}
layer {
  name: "ip1"
  type: "InnerProduct"
  bottom: "pool1"
  top: "ip1"
  param {
    lr_mult: 1
  }
  param {
    lr_mult: 2
  }
  inner_product_param {
    num_output: 60
    weight_filler {
      type: "gaussian"
      std: 0.01
    }
    bias_filler {
      type: "constant"
    }
  }
}
layer {
  name: "relu1"
  type: "ReLU"
  bottom: "ip1"
  top: "ip1"
}
layer {
  name: "ip2"
  type: "InnerProduct"
  bottom: "ip1"
  top: "ip2"
  param {
    lr_mult: 1
  }
  param {
    lr_mult: 2
  }
  inner_product_param {
    num_output: 10
    weight_filler {
      type: "gaussian"
      std: 0.01
    }
    bias_filler {
      type: "constant"
    }
  }
}
layer {
  name: "accuracy"
  type: "Accuracy"
  bottom: "ip2"
  bottom: "label"
  top: "accuracy"
  include {
    phase: TEST
  }
}
layer {
  name: "loss"
  type: "SoftmaxWithLoss"
  bottom: "ip2"
  bottom: "label"
  top: "loss"
}
I0504 09:36:12.780676 23843 layer_factory.hpp:77] Creating layer cifar
I0504 09:36:12.780719 23843 db_lmdb.cpp:35] Opened lmdb examples/cifar10/cifar10_test_lmdb
I0504 09:36:12.780730 23843 net.cpp:86] Creating Layer cifar
I0504 09:36:12.780736 23843 net.cpp:382] cifar -> data
I0504 09:36:12.780743 23843 net.cpp:382] cifar -> label
I0504 09:36:12.780750 23843 data_transformer.cpp:25] Loading mean file from: examples/cifar10/mean.binaryproto
I0504 09:36:12.780944 23843 data_layer.cpp:45] output data size: 1000,3,32,32
I0504 09:36:12.802387 23843 net.cpp:124] Setting up cifar
I0504 09:36:12.802428 23843 net.cpp:131] Top shape: 1000 3 32 32 (3072000)
I0504 09:36:12.802434 23843 net.cpp:131] Top shape: 1000 (1000)
I0504 09:36:12.802436 23843 net.cpp:139] Memory required for data: 12292000
I0504 09:36:12.802443 23843 layer_factory.hpp:77] Creating layer label_cifar_1_split
I0504 09:36:12.802455 23843 net.cpp:86] Creating Layer label_cifar_1_split
I0504 09:36:12.802460 23843 net.cpp:408] label_cifar_1_split <- label
I0504 09:36:12.802466 23843 net.cpp:382] label_cifar_1_split -> label_cifar_1_split_0
I0504 09:36:12.802490 23843 net.cpp:382] label_cifar_1_split -> label_cifar_1_split_1
I0504 09:36:12.802618 23843 net.cpp:124] Setting up label_cifar_1_split
I0504 09:36:12.802625 23843 net.cpp:131] Top shape: 1000 (1000)
I0504 09:36:12.802629 23843 net.cpp:131] Top shape: 1000 (1000)
I0504 09:36:12.802633 23843 net.cpp:139] Memory required for data: 12300000
I0504 09:36:12.802635 23843 layer_factory.hpp:77] Creating layer conv0
I0504 09:36:12.802647 23843 net.cpp:86] Creating Layer conv0
I0504 09:36:12.802651 23843 net.cpp:408] conv0 <- data
I0504 09:36:12.802656 23843 net.cpp:382] conv0 -> conv0
I0504 09:36:12.803580 23843 net.cpp:124] Setting up conv0
I0504 09:36:12.803591 23843 net.cpp:131] Top shape: 1000 24 32 32 (24576000)
I0504 09:36:12.803609 23843 net.cpp:139] Memory required for data: 110604000
I0504 09:36:12.803620 23843 layer_factory.hpp:77] Creating layer Sigmoid0
I0504 09:36:12.803627 23843 net.cpp:86] Creating Layer Sigmoid0
I0504 09:36:12.803629 23843 net.cpp:408] Sigmoid0 <- conv0
I0504 09:36:12.803634 23843 net.cpp:382] Sigmoid0 -> Sigmoid0
I0504 09:36:12.804538 23843 net.cpp:124] Setting up Sigmoid0
I0504 09:36:12.804548 23843 net.cpp:131] Top shape: 1000 24 32 32 (24576000)
I0504 09:36:12.804567 23843 net.cpp:139] Memory required for data: 208908000
I0504 09:36:12.804570 23843 layer_factory.hpp:77] Creating layer pool0
I0504 09:36:12.804580 23843 net.cpp:86] Creating Layer pool0
I0504 09:36:12.804584 23843 net.cpp:408] pool0 <- Sigmoid0
I0504 09:36:12.804589 23843 net.cpp:382] pool0 -> pool0
I0504 09:36:12.805793 23843 net.cpp:124] Setting up pool0
I0504 09:36:12.805802 23843 net.cpp:131] Top shape: 1000 24 16 16 (6144000)
I0504 09:36:12.805820 23843 net.cpp:139] Memory required for data: 233484000
I0504 09:36:12.805824 23843 layer_factory.hpp:77] Creating layer conv1
I0504 09:36:12.805835 23843 net.cpp:86] Creating Layer conv1
I0504 09:36:12.805837 23843 net.cpp:408] conv1 <- pool0
I0504 09:36:12.805842 23843 net.cpp:382] conv1 -> conv1
I0504 09:36:12.807562 23843 net.cpp:124] Setting up conv1
I0504 09:36:12.807575 23843 net.cpp:131] Top shape: 1000 72 18 18 (23328000)
I0504 09:36:12.807595 23843 net.cpp:139] Memory required for data: 326796000
I0504 09:36:12.807602 23843 layer_factory.hpp:77] Creating layer Sigmoid1
I0504 09:36:12.807608 23843 net.cpp:86] Creating Layer Sigmoid1
I0504 09:36:12.807611 23843 net.cpp:408] Sigmoid1 <- conv1
I0504 09:36:12.807617 23843 net.cpp:382] Sigmoid1 -> Sigmoid1
I0504 09:36:12.807790 23843 net.cpp:124] Setting up Sigmoid1
I0504 09:36:12.807799 23843 net.cpp:131] Top shape: 1000 72 18 18 (23328000)
I0504 09:36:12.807802 23843 net.cpp:139] Memory required for data: 420108000
I0504 09:36:12.807806 23843 layer_factory.hpp:77] Creating layer pool1
I0504 09:36:12.807812 23843 net.cpp:86] Creating Layer pool1
I0504 09:36:12.807816 23843 net.cpp:408] pool1 <- Sigmoid1
I0504 09:36:12.807833 23843 net.cpp:382] pool1 -> pool1
I0504 09:36:12.808002 23843 net.cpp:124] Setting up pool1
I0504 09:36:12.808012 23843 net.cpp:131] Top shape: 1000 72 9 9 (5832000)
I0504 09:36:12.808017 23843 net.cpp:139] Memory required for data: 443436000
I0504 09:36:12.808019 23843 layer_factory.hpp:77] Creating layer ip1
I0504 09:36:12.808027 23843 net.cpp:86] Creating Layer ip1
I0504 09:36:12.808030 23843 net.cpp:408] ip1 <- pool1
I0504 09:36:12.808037 23843 net.cpp:382] ip1 -> ip1
I0504 09:36:12.818045 23843 net.cpp:124] Setting up ip1
I0504 09:36:12.818058 23843 net.cpp:131] Top shape: 1000 60 (60000)
I0504 09:36:12.818080 23843 net.cpp:139] Memory required for data: 443676000
I0504 09:36:12.818089 23843 layer_factory.hpp:77] Creating layer relu1
I0504 09:36:12.818094 23843 net.cpp:86] Creating Layer relu1
I0504 09:36:12.818099 23843 net.cpp:408] relu1 <- ip1
I0504 09:36:12.818102 23843 net.cpp:369] relu1 -> ip1 (in-place)
I0504 09:36:12.818938 23843 net.cpp:124] Setting up relu1
I0504 09:36:12.818950 23843 net.cpp:131] Top shape: 1000 60 (60000)
I0504 09:36:12.818969 23843 net.cpp:139] Memory required for data: 443916000
I0504 09:36:12.818972 23843 layer_factory.hpp:77] Creating layer ip2
I0504 09:36:12.818981 23843 net.cpp:86] Creating Layer ip2
I0504 09:36:12.818985 23843 net.cpp:408] ip2 <- ip1
I0504 09:36:12.818991 23843 net.cpp:382] ip2 -> ip2
I0504 09:36:12.819134 23843 net.cpp:124] Setting up ip2
I0504 09:36:12.819141 23843 net.cpp:131] Top shape: 1000 10 (10000)
I0504 09:36:12.819144 23843 net.cpp:139] Memory required for data: 443956000
I0504 09:36:12.819150 23843 layer_factory.hpp:77] Creating layer ip2_ip2_0_split
I0504 09:36:12.819155 23843 net.cpp:86] Creating Layer ip2_ip2_0_split
I0504 09:36:12.819159 23843 net.cpp:408] ip2_ip2_0_split <- ip2
I0504 09:36:12.819162 23843 net.cpp:382] ip2_ip2_0_split -> ip2_ip2_0_split_0
I0504 09:36:12.819169 23843 net.cpp:382] ip2_ip2_0_split -> ip2_ip2_0_split_1
I0504 09:36:12.819200 23843 net.cpp:124] Setting up ip2_ip2_0_split
I0504 09:36:12.819211 23843 net.cpp:131] Top shape: 1000 10 (10000)
I0504 09:36:12.819214 23843 net.cpp:131] Top shape: 1000 10 (10000)
I0504 09:36:12.819217 23843 net.cpp:139] Memory required for data: 444036000
I0504 09:36:12.819221 23843 layer_factory.hpp:77] Creating layer accuracy
I0504 09:36:12.819226 23843 net.cpp:86] Creating Layer accuracy
I0504 09:36:12.819229 23843 net.cpp:408] accuracy <- ip2_ip2_0_split_0
I0504 09:36:12.819233 23843 net.cpp:408] accuracy <- label_cifar_1_split_0
I0504 09:36:12.819238 23843 net.cpp:382] accuracy -> accuracy
…
