…
I0504 00:57:45.866220  6445 net.cpp:296] The NetState phase (0) differed from the phase (1) specified by a rule in layer cifar
I0504 00:57:45.866248  6445 net.cpp:296] The NetState phase (0) differed from the phase (1) specified by a rule in layer accuracy
I0504 00:57:45.866349  6445 net.cpp:53] Initializing net from parameters: 
name: "CIFAR"
state {
  phase: TRAIN
  level: 0
  stage: ""
}
layer {
  name: "cifar"
  type: "Data"
  top: "data"
  top: "label"
  include {
    phase: TRAIN
  }
  transform_param {
    mean_file: "examples/cifar10/mean.binaryproto"
  }
  data_param {
    source: "examples/cifar10/cifar10_train_lmdb"
    batch_size: 111
    backend: LMDB
  }
}
layer {
  name: "conv0"
  type: "Convolution"
  bottom: "data"
  top: "conv0"
  param {
    lr_mult: 1
  }
  param {
    lr_mult: 2
  }
  convolution_param {
    num_output: 72
    pad: 2
    kernel_size: 3
    stride: 1
    weight_filler {
      type: "gaussian"
      std: 0.01
    }
    bias_filler {
      type: "constant"
    }
  }
}
layer {
  name: "Sigmoid0"
  type: "Sigmoid"
  bottom: "conv0"
  top: "Sigmoid0"
}
layer {
  name: "pool0"
  type: "Pooling"
  bottom: "Sigmoid0"
  top: "pool0"
  pooling_param {
    pool: AVE
    kernel_size: 3
    stride: 2
  }
}
layer {
  name: "ip1"
  type: "InnerProduct"
  bottom: "pool0"
  top: "ip1"
  param {
    lr_mult: 1
  }
  param {
    lr_mult: 2
  }
  inner_product_param {
    num_output: 10
    weight_filler {
      type: "gaussian"
      std: 0.01
    }
    bias_filler {
      type: "constant"
    }
  }
}
layer {
  name: "relu1"
  type: "ReLU"
  bottom: "ip1"
  top: "ip1"
}
layer {
  name: "ip2"
  type: "InnerProduct"
  bottom: "ip1"
  top: "ip2"
  param {
    lr_mult: 1
  }
  param {
    lr_mult: 2
  }
  inner_product_param {
    num_output: 60
    weight_filler {
      type: "gaussian"
      std: 0.01
    }
    bias_filler {
      type: "constant"
    }
  }
}
layer {
  name: "relu2"
  type: "ReLU"
  bottom: "ip2"
  top: "ip2"
}
layer {
  name: "ip3"
  type: "InnerProduct"
  bottom: "ip2"
  top: "ip3"
  param {
    lr_mult: 1
  }
  param {
    lr_mult: 2
  }
  inner_product_param {
    num_output: 10
    weight_filler {
      type: "gaussian"
      std: 0.01
    }
    bias_filler {
      type: "constant"
    }
  }
}
layer {
  name: "loss"
  type: "SoftmaxWithLoss"
  bottom: "ip3"
  bottom: "label"
  top: "loss"
}
I0504 00:57:45.866410  6445 layer_factory.hpp:77] Creating layer cifar
I0504 00:57:45.866488  6445 db_lmdb.cpp:35] Opened lmdb examples/cifar10/cifar10_train_lmdb
I0504 00:57:45.866513  6445 net.cpp:86] Creating Layer cifar
I0504 00:57:45.866520  6445 net.cpp:382] cifar -> data
I0504 00:57:45.866539  6445 net.cpp:382] cifar -> label
I0504 00:57:45.866554  6445 data_transformer.cpp:25] Loading mean file from: examples/cifar10/mean.binaryproto
I0504 00:57:45.868268  6445 data_layer.cpp:45] output data size: 111,3,32,32
I0504 00:57:45.874825  6445 net.cpp:124] Setting up cifar
I0504 00:57:45.874841  6445 net.cpp:131] Top shape: 111 3 32 32 (340992)
I0504 00:57:45.874846  6445 net.cpp:131] Top shape: 111 (111)
I0504 00:57:45.874848  6445 net.cpp:139] Memory required for data: 1364412
I0504 00:57:45.874855  6445 layer_factory.hpp:77] Creating layer conv0
I0504 00:57:45.874871  6445 net.cpp:86] Creating Layer conv0
I0504 00:57:45.874877  6445 net.cpp:408] conv0 <- data
I0504 00:57:45.874903  6445 net.cpp:382] conv0 -> conv0
I0504 00:57:46.103854  6445 net.cpp:124] Setting up conv0
I0504 00:57:46.103915  6445 net.cpp:131] Top shape: 111 72 34 34 (9238752)
I0504 00:57:46.103921  6445 net.cpp:139] Memory required for data: 38319420
I0504 00:57:46.103936  6445 layer_factory.hpp:77] Creating layer Sigmoid0
I0504 00:57:46.103947  6445 net.cpp:86] Creating Layer Sigmoid0
I0504 00:57:46.103950  6445 net.cpp:408] Sigmoid0 <- conv0
I0504 00:57:46.103955  6445 net.cpp:382] Sigmoid0 -> Sigmoid0
I0504 00:57:46.104120  6445 net.cpp:124] Setting up Sigmoid0
I0504 00:57:46.104128  6445 net.cpp:131] Top shape: 111 72 34 34 (9238752)
I0504 00:57:46.104131  6445 net.cpp:139] Memory required for data: 75274428
I0504 00:57:46.104135  6445 layer_factory.hpp:77] Creating layer pool0
I0504 00:57:46.104140  6445 net.cpp:86] Creating Layer pool0
I0504 00:57:46.104143  6445 net.cpp:408] pool0 <- Sigmoid0
I0504 00:57:46.104148  6445 net.cpp:382] pool0 -> pool0
I0504 00:57:46.104854  6445 net.cpp:124] Setting up pool0
I0504 00:57:46.104882  6445 net.cpp:131] Top shape: 111 72 17 17 (2309688)
I0504 00:57:46.104900  6445 net.cpp:139] Memory required for data: 84513180
I0504 00:57:46.104903  6445 layer_factory.hpp:77] Creating layer ip1
I0504 00:57:46.104929  6445 net.cpp:86] Creating Layer ip1
I0504 00:57:46.104949  6445 net.cpp:408] ip1 <- pool0
I0504 00:57:46.104954  6445 net.cpp:382] ip1 -> ip1
I0504 00:57:46.111012  6445 net.cpp:124] Setting up ip1
I0504 00:57:46.111026  6445 net.cpp:131] Top shape: 111 10 (1110)
I0504 00:57:46.111028  6445 net.cpp:139] Memory required for data: 84517620
I0504 00:57:46.111035  6445 layer_factory.hpp:77] Creating layer relu1
I0504 00:57:46.111040  6445 net.cpp:86] Creating Layer relu1
I0504 00:57:46.111043  6445 net.cpp:408] relu1 <- ip1
I0504 00:57:46.111048  6445 net.cpp:369] relu1 -> ip1 (in-place)
I0504 00:57:46.111208  6445 net.cpp:124] Setting up relu1
I0504 00:57:46.111217  6445 net.cpp:131] Top shape: 111 10 (1110)
I0504 00:57:46.111220  6445 net.cpp:139] Memory required for data: 84522060
I0504 00:57:46.111223  6445 layer_factory.hpp:77] Creating layer ip2
I0504 00:57:46.111229  6445 net.cpp:86] Creating Layer ip2
I0504 00:57:46.111232  6445 net.cpp:408] ip2 <- ip1
I0504 00:57:46.111238  6445 net.cpp:382] ip2 -> ip2
I0504 00:57:46.112123  6445 net.cpp:124] Setting up ip2
I0504 00:57:46.112134  6445 net.cpp:131] Top shape: 111 60 (6660)
I0504 00:57:46.112138  6445 net.cpp:139] Memory required for data: 84548700
I0504 00:57:46.112162  6445 layer_factory.hpp:77] Creating layer relu2
I0504 00:57:46.112167  6445 net.cpp:86] Creating Layer relu2
I0504 00:57:46.112170  6445 net.cpp:408] relu2 <- ip2
I0504 00:57:46.112174  6445 net.cpp:369] relu2 -> ip2 (in-place)
I0504 00:57:46.112344  6445 net.cpp:124] Setting up relu2
I0504 00:57:46.112354  6445 net.cpp:131] Top shape: 111 60 (6660)
I0504 00:57:46.112356  6445 net.cpp:139] Memory required for data: 84575340
I0504 00:57:46.112360  6445 layer_factory.hpp:77] Creating layer ip3
I0504 00:57:46.112366  6445 net.cpp:86] Creating Layer ip3
I0504 00:57:46.112370  6445 net.cpp:408] ip3 <- ip2
I0504 00:57:46.112375  6445 net.cpp:382] ip3 -> ip3
I0504 00:57:46.112496  6445 net.cpp:124] Setting up ip3
I0504 00:57:46.112517  6445 net.cpp:131] Top shape: 111 10 (1110)
I0504 00:57:46.112520  6445 net.cpp:139] Memory required for data: 84579780
I0504 00:57:46.112541  6445 layer_factory.hpp:77] Creating layer loss
I0504 00:57:46.112547  6445 net.cpp:86] Creating Layer loss
I0504 00:57:46.112550  6445 net.cpp:408] loss <- ip3
I0504 00:57:46.112555  6445 net.cpp:408] loss <- label
I0504 00:57:46.112560  6445 net.cpp:382] loss -> loss
I0504 00:57:46.112573  6445 layer_factory.hpp:77] Creating layer loss
…
I0504 00:57:46.113255  6445 solver.cpp:173] Creating test net (#0) specified by net file: ECE595/cifar/train_test/var_everything_tiny/cifar_train_test_28.prototxt
I0504 00:57:46.113277  6445 net.cpp:296] The NetState phase (1) differed from the phase (0) specified by a rule in layer cifar
I0504 00:57:46.113370  6445 net.cpp:53] Initializing net from parameters: 
name: "CIFAR"
state {
  phase: TEST
}
layer {
  name: "cifar"
  type: "Data"
  top: "data"
  top: "label"
  include {
    phase: TEST
  }
  transform_param {
    mean_file: "examples/cifar10/mean.binaryproto"
  }
  data_param {
    source: "examples/cifar10/cifar10_test_lmdb"
    batch_size: 1000
    backend: LMDB
  }
}
layer {
  name: "conv0"
  type: "Convolution"
  bottom: "data"
  top: "conv0"
  param {
    lr_mult: 1
  }
  param {
    lr_mult: 2
  }
  convolution_param {
    num_output: 72
    pad: 2
    kernel_size: 3
    stride: 1
    weight_filler {
      type: "gaussian"
      std: 0.01
    }
    bias_filler {
      type: "constant"
    }
  }
}
layer {
  name: "Sigmoid0"
  type: "Sigmoid"
  bottom: "conv0"
  top: "Sigmoid0"
}
layer {
  name: "pool0"
  type: "Pooling"
  bottom: "Sigmoid0"
  top: "pool0"
  pooling_param {
    pool: AVE
    kernel_size: 3
    stride: 2
  }
}
layer {
  name: "ip1"
  type: "InnerProduct"
  bottom: "pool0"
  top: "ip1"
  param {
    lr_mult: 1
  }
  param {
    lr_mult: 2
  }
  inner_product_param {
    num_output: 10
    weight_filler {
      type: "gaussian"
      std: 0.01
    }
    bias_filler {
      type: "constant"
    }
  }
}
layer {
  name: "relu1"
  type: "ReLU"
  bottom: "ip1"
  top: "ip1"
}
layer {
  name: "ip2"
  type: "InnerProduct"
  bottom: "ip1"
  top: "ip2"
  param {
    lr_mult: 1
  }
  param {
    lr_mult: 2
  }
  inner_product_param {
    num_output: 60
    weight_filler {
      type: "gaussian"
      std: 0.01
    }
    bias_filler {
      type: "constant"
    }
  }
}
layer {
  name: "relu2"
  type: "ReLU"
  bottom: "ip2"
  top: "ip2"
}
layer {
  name: "ip3"
  type: "InnerProduct"
  bottom: "ip2"
  top: "ip3"
  param {
    lr_mult: 1
  }
  param {
    lr_mult: 2
  }
  inner_product_param {
    num_output: 10
    weight_filler {
      type: "gaussian"
      std: 0.01
    }
    bias_filler {
      type: "constant"
    }
  }
}
layer {
  name: "accuracy"
  type: "Accuracy"
  bottom: "ip3"
  bottom: "label"
  top: "accuracy"
  include {
    phase: TEST
  }
}
layer {
  name: "loss"
  type: "SoftmaxWithLoss"
  bottom: "ip3"
  bottom: "label"
  top: "loss"
}
I0504 00:57:46.113430  6445 layer_factory.hpp:77] Creating layer cifar
I0504 00:57:46.113471  6445 db_lmdb.cpp:35] Opened lmdb examples/cifar10/cifar10_test_lmdb
I0504 00:57:46.113483  6445 net.cpp:86] Creating Layer cifar
I0504 00:57:46.113488  6445 net.cpp:382] cifar -> data
I0504 00:57:46.113495  6445 net.cpp:382] cifar -> label
I0504 00:57:46.113502  6445 data_transformer.cpp:25] Loading mean file from: examples/cifar10/mean.binaryproto
I0504 00:57:46.113633  6445 data_layer.cpp:45] output data size: 1000,3,32,32
I0504 00:57:46.134802  6445 net.cpp:124] Setting up cifar
I0504 00:57:46.134845  6445 net.cpp:131] Top shape: 1000 3 32 32 (3072000)
I0504 00:57:46.134850  6445 net.cpp:131] Top shape: 1000 (1000)
I0504 00:57:46.134853  6445 net.cpp:139] Memory required for data: 12292000
I0504 00:57:46.134858  6445 layer_factory.hpp:77] Creating layer label_cifar_1_split
I0504 00:57:46.134886  6445 net.cpp:86] Creating Layer label_cifar_1_split
I0504 00:57:46.134903  6445 net.cpp:408] label_cifar_1_split <- label
I0504 00:57:46.134909  6445 net.cpp:382] label_cifar_1_split -> label_cifar_1_split_0
I0504 00:57:46.134918  6445 net.cpp:382] label_cifar_1_split -> label_cifar_1_split_1
I0504 00:57:46.134995  6445 net.cpp:124] Setting up label_cifar_1_split
I0504 00:57:46.135002  6445 net.cpp:131] Top shape: 1000 (1000)
I0504 00:57:46.135006  6445 net.cpp:131] Top shape: 1000 (1000)
I0504 00:57:46.135010  6445 net.cpp:139] Memory required for data: 12300000
I0504 00:57:46.135012  6445 layer_factory.hpp:77] Creating layer conv0
I0504 00:57:46.135025  6445 net.cpp:86] Creating Layer conv0
I0504 00:57:46.135030  6445 net.cpp:408] conv0 <- data
I0504 00:57:46.135035  6445 net.cpp:382] conv0 -> conv0
I0504 00:57:46.136606  6445 net.cpp:124] Setting up conv0
I0504 00:57:46.136620  6445 net.cpp:131] Top shape: 1000 72 34 34 (83232000)
I0504 00:57:46.136623  6445 net.cpp:139] Memory required for data: 345228000
I0504 00:57:46.136648  6445 layer_factory.hpp:77] Creating layer Sigmoid0
I0504 00:57:46.136656  6445 net.cpp:86] Creating Layer Sigmoid0
I0504 00:57:46.136663  6445 net.cpp:408] Sigmoid0 <- conv0
I0504 00:57:46.136667  6445 net.cpp:382] Sigmoid0 -> Sigmoid0
I0504 00:57:46.137701  6445 net.cpp:124] Setting up Sigmoid0
I0504 00:57:46.137713  6445 net.cpp:131] Top shape: 1000 72 34 34 (83232000)
I0504 00:57:46.137717  6445 net.cpp:139] Memory required for data: 678156000
I0504 00:57:46.137720  6445 layer_factory.hpp:77] Creating layer pool0
I0504 00:57:46.137744  6445 net.cpp:86] Creating Layer pool0
I0504 00:57:46.137749  6445 net.cpp:408] pool0 <- Sigmoid0
I0504 00:57:46.137755  6445 net.cpp:382] pool0 -> pool0
I0504 00:57:46.138936  6445 net.cpp:124] Setting up pool0
I0504 00:57:46.138947  6445 net.cpp:131] Top shape: 1000 72 17 17 (20808000)
I0504 00:57:46.138967  6445 net.cpp:139] Memory required for data: 761388000
I0504 00:57:46.138970  6445 layer_factory.hpp:77] Creating layer ip1
I0504 00:57:46.138979  6445 net.cpp:86] Creating Layer ip1
I0504 00:57:46.138981  6445 net.cpp:408] ip1 <- pool0
I0504 00:57:46.139003  6445 net.cpp:382] ip1 -> ip1
I0504 00:57:46.144445  6445 net.cpp:124] Setting up ip1
I0504 00:57:46.144454  6445 net.cpp:131] Top shape: 1000 10 (10000)
I0504 00:57:46.144472  6445 net.cpp:139] Memory required for data: 761428000
I0504 00:57:46.144481  6445 layer_factory.hpp:77] Creating layer relu1
I0504 00:57:46.144487  6445 net.cpp:86] Creating Layer relu1
I0504 00:57:46.144490  6445 net.cpp:408] relu1 <- ip1
I0504 00:57:46.144510  6445 net.cpp:369] relu1 -> ip1 (in-place)
I0504 00:57:46.144655  6445 net.cpp:124] Setting up relu1
I0504 00:57:46.144665  6445 net.cpp:131] Top shape: 1000 10 (10000)
I0504 00:57:46.144667  6445 net.cpp:139] Memory required for data: 761468000
I0504 00:57:46.144670  6445 layer_factory.hpp:77] Creating layer ip2
I0504 00:57:46.144676  6445 net.cpp:86] Creating Layer ip2
I0504 00:57:46.144680  6445 net.cpp:408] ip2 <- ip1
I0504 00:57:46.144685  6445 net.cpp:382] ip2 -> ip2
I0504 00:57:46.144806  6445 net.cpp:124] Setting up ip2
I0504 00:57:46.144834  6445 net.cpp:131] Top shape: 1000 60 (60000)
I0504 00:57:46.144837  6445 net.cpp:139] Memory required for data: 761708000
I0504 00:57:46.144845  6445 layer_factory.hpp:77] Creating layer relu2
I0504 00:57:46.144850  6445 net.cpp:86] Creating Layer relu2
I0504 00:57:46.144853  6445 net.cpp:408] relu2 <- ip2
I0504 00:57:46.144857  6445 net.cpp:369] relu2 -> ip2 (in-place)
I0504 00:57:46.145051  6445 net.cpp:124] Setting up relu2
I0504 00:57:46.145061  6445 net.cpp:131] Top shape: 1000 60 (60000)
I0504 00:57:46.145063  6445 net.cpp:139] Memory required for data: 761948000
I0504 00:57:46.145067  6445 layer_factory.hpp:77] Creating layer ip3
I0504 00:57:46.145073  6445 net.cpp:86] Creating Layer ip3
I0504 00:57:46.145076  6445 net.cpp:408] ip3 <- ip2
I0504 00:57:46.145082  6445 net.cpp:382] ip3 -> ip3
I0504 00:57:46.145246  6445 net.cpp:124] Setting up ip3
I0504 00:57:46.145253  6445 net.cpp:131] Top shape: 1000 10 (10000)
I0504 00:57:46.145267  6445 net.cpp:139] Memory required for data: 761988000
I0504 00:57:46.145273  6445 layer_factory.hpp:77] Creating layer ip3_ip3_0_split
I0504 00:57:46.145278  6445 net.cpp:86] Creating Layer ip3_ip3_0_split
I0504 00:57:46.145282  6445 net.cpp:408] ip3_ip3_0_split <- ip3
I0504 00:57:46.145287  6445 net.cpp:382] ip3_ip3_0_split -> ip3_ip3_0_split_0
I0504 00:57:46.145292  6445 net.cpp:382] ip3_ip3_0_split -> ip3_ip3_0_split_1
I0504 00:57:46.145323  6445 net.cpp:124] Setting up ip3_ip3_0_split
I0504 00:57:46.145329  6445 net.cpp:131] Top shape: 1000 10 (10000)
I0504 00:57:46.145332  6445 net.cpp:131] Top shape: 1000 10 (10000)
I0504 00:57:46.145335  6445 net.cpp:139] Memory required for data: 762068000
I0504 00:57:46.145339  6445 layer_factory.hpp:77] Creating layer accuracy
I0504 00:57:46.145344  6445 net.cpp:86] Creating Layer accuracy
I0504 00:57:46.145347  6445 net.cpp:408] accuracy <- ip3_ip3_0_split_0
I0504 00:57:46.145351  6445 net.cpp:408] accuracy <- label_cifar_1_split_0
I0504 00:57:46.145356  6445 net.cpp:382] accuracy -> accuracy
…
