…
I0504 15:43:00.776593  7233 net.cpp:296] The NetState phase (0) differed from the phase (1) specified by a rule in layer cifar
I0504 15:43:00.776612  7233 net.cpp:296] The NetState phase (0) differed from the phase (1) specified by a rule in layer accuracy
I0504 15:43:00.776715  7233 net.cpp:53] Initializing net from parameters: 
name: "CIFAR"
state {
  phase: TRAIN
  level: 0
  stage: ""
}
layer {
  name: "cifar"
  type: "Data"
  top: "data"
  top: "label"
  include {
    phase: TRAIN
  }
  transform_param {
    mean_file: "examples/cifar10/mean.binaryproto"
  }
  data_param {
    source: "examples/cifar10/cifar10_train_lmdb"
    batch_size: 111
    backend: LMDB
  }
}
layer {
  name: "conv0"
  type: "Convolution"
  bottom: "data"
  top: "conv0"
  param {
    lr_mult: 1
  }
  param {
    lr_mult: 2
  }
  convolution_param {
    num_output: 72
    pad: 2
    kernel_size: 3
    stride: 1
    weight_filler {
      type: "gaussian"
      std: 0.01
    }
    bias_filler {
      type: "constant"
    }
  }
}
layer {
  name: "Sigmoid0"
  type: "Sigmoid"
  bottom: "conv0"
  top: "Sigmoid0"
}
layer {
  name: "pool0"
  type: "Pooling"
  bottom: "Sigmoid0"
  top: "pool0"
  pooling_param {
    pool: AVE
    kernel_size: 3
    stride: 2
  }
}
layer {
  name: "conv1"
  type: "Convolution"
  bottom: "pool0"
  top: "conv1"
  param {
    lr_mult: 1
  }
  param {
    lr_mult: 2
  }
  convolution_param {
    num_output: 72
    pad: 2
    kernel_size: 3
    stride: 1
    weight_filler {
      type: "gaussian"
      std: 0.01
    }
    bias_filler {
      type: "constant"
    }
  }
}
layer {
  name: "Sigmoid1"
  type: "Sigmoid"
  bottom: "conv1"
  top: "Sigmoid1"
}
layer {
  name: "pool1"
  type: "Pooling"
  bottom: "Sigmoid1"
  top: "pool1"
  pooling_param {
    pool: AVE
    kernel_size: 3
    stride: 2
  }
}
layer {
  name: "ip1"
  type: "InnerProduct"
  bottom: "pool1"
  top: "ip1"
  param {
    lr_mult: 1
  }
  param {
    lr_mult: 2
  }
  inner_product_param {
    num_output: 180
    weight_filler {
      type: "gaussian"
      std: 0.01
    }
    bias_filler {
      type: "constant"
    }
  }
}
layer {
  name: "relu1"
  type: "ReLU"
  bottom: "ip1"
  top: "ip1"
}
layer {
  name: "ip2"
  type: "InnerProduct"
  bottom: "ip1"
  top: "ip2"
  param {
    lr_mult: 1
  }
  param {
    lr_mult: 2
  }
  inner_product_param {
    num_output: 10
    weight_filler {
      type: "gaussian"
      std: 0.01
    }
    bias_filler {
      type: "constant"
    }
  }
}
layer {
  name: "loss"
  type: "SoftmaxWithLoss"
  bottom: "ip2"
  bottom: "label"
  top: "loss"
}
I0504 15:43:00.776793  7233 layer_factory.hpp:77] Creating layer cifar
I0504 15:43:00.776906  7233 db_lmdb.cpp:35] Opened lmdb examples/cifar10/cifar10_train_lmdb
I0504 15:43:00.776934  7233 net.cpp:86] Creating Layer cifar
I0504 15:43:00.776942  7233 net.cpp:382] cifar -> data
I0504 15:43:00.776965  7233 net.cpp:382] cifar -> label
I0504 15:43:00.776978  7233 data_transformer.cpp:25] Loading mean file from: examples/cifar10/mean.binaryproto
I0504 15:43:00.779147  7233 data_layer.cpp:45] output data size: 111,3,32,32
I0504 15:43:00.787122  7233 net.cpp:124] Setting up cifar
I0504 15:43:00.787142  7233 net.cpp:131] Top shape: 111 3 32 32 (340992)
I0504 15:43:00.787148  7233 net.cpp:131] Top shape: 111 (111)
I0504 15:43:00.787153  7233 net.cpp:139] Memory required for data: 1364412
I0504 15:43:00.787161  7233 layer_factory.hpp:77] Creating layer conv0
I0504 15:43:00.787178  7233 net.cpp:86] Creating Layer conv0
I0504 15:43:00.787199  7233 net.cpp:408] conv0 <- data
I0504 15:43:00.787214  7233 net.cpp:382] conv0 -> conv0
I0504 15:43:01.044183  7233 net.cpp:124] Setting up conv0
I0504 15:43:01.044237  7233 net.cpp:131] Top shape: 111 72 34 34 (9238752)
I0504 15:43:01.044241  7233 net.cpp:139] Memory required for data: 38319420
I0504 15:43:01.044256  7233 layer_factory.hpp:77] Creating layer Sigmoid0
I0504 15:43:01.044267  7233 net.cpp:86] Creating Layer Sigmoid0
I0504 15:43:01.044271  7233 net.cpp:408] Sigmoid0 <- conv0
I0504 15:43:01.044276  7233 net.cpp:382] Sigmoid0 -> Sigmoid0
I0504 15:43:01.044459  7233 net.cpp:124] Setting up Sigmoid0
I0504 15:43:01.044468  7233 net.cpp:131] Top shape: 111 72 34 34 (9238752)
I0504 15:43:01.044471  7233 net.cpp:139] Memory required for data: 75274428
I0504 15:43:01.044490  7233 layer_factory.hpp:77] Creating layer pool0
I0504 15:43:01.044497  7233 net.cpp:86] Creating Layer pool0
I0504 15:43:01.044500  7233 net.cpp:408] pool0 <- Sigmoid0
I0504 15:43:01.044504  7233 net.cpp:382] pool0 -> pool0
I0504 15:43:01.045330  7233 net.cpp:124] Setting up pool0
I0504 15:43:01.045357  7233 net.cpp:131] Top shape: 111 72 17 17 (2309688)
I0504 15:43:01.045361  7233 net.cpp:139] Memory required for data: 84513180
I0504 15:43:01.045364  7233 layer_factory.hpp:77] Creating layer conv1
I0504 15:43:01.045377  7233 net.cpp:86] Creating Layer conv1
I0504 15:43:01.045379  7233 net.cpp:408] conv1 <- pool0
I0504 15:43:01.045385  7233 net.cpp:382] conv1 -> conv1
I0504 15:43:01.050118  7233 net.cpp:124] Setting up conv1
I0504 15:43:01.050132  7233 net.cpp:131] Top shape: 111 72 19 19 (2885112)
I0504 15:43:01.050135  7233 net.cpp:139] Memory required for data: 96053628
I0504 15:43:01.050143  7233 layer_factory.hpp:77] Creating layer Sigmoid1
I0504 15:43:01.050149  7233 net.cpp:86] Creating Layer Sigmoid1
I0504 15:43:01.050153  7233 net.cpp:408] Sigmoid1 <- conv1
I0504 15:43:01.050156  7233 net.cpp:382] Sigmoid1 -> Sigmoid1
I0504 15:43:01.050333  7233 net.cpp:124] Setting up Sigmoid1
I0504 15:43:01.050343  7233 net.cpp:131] Top shape: 111 72 19 19 (2885112)
I0504 15:43:01.050346  7233 net.cpp:139] Memory required for data: 107594076
I0504 15:43:01.050349  7233 layer_factory.hpp:77] Creating layer pool1
I0504 15:43:01.050369  7233 net.cpp:86] Creating Layer pool1
I0504 15:43:01.050372  7233 net.cpp:408] pool1 <- Sigmoid1
I0504 15:43:01.050377  7233 net.cpp:382] pool1 -> pool1
I0504 15:43:01.050549  7233 net.cpp:124] Setting up pool1
I0504 15:43:01.050557  7233 net.cpp:131] Top shape: 111 72 9 9 (647352)
I0504 15:43:01.050560  7233 net.cpp:139] Memory required for data: 110183484
I0504 15:43:01.050564  7233 layer_factory.hpp:77] Creating layer ip1
I0504 15:43:01.050571  7233 net.cpp:86] Creating Layer ip1
I0504 15:43:01.050575  7233 net.cpp:408] ip1 <- pool1
I0504 15:43:01.050578  7233 net.cpp:382] ip1 -> ip1
I0504 15:43:01.079313  7233 net.cpp:124] Setting up ip1
I0504 15:43:01.079325  7233 net.cpp:131] Top shape: 111 180 (19980)
I0504 15:43:01.079329  7233 net.cpp:139] Memory required for data: 110263404
I0504 15:43:01.079336  7233 layer_factory.hpp:77] Creating layer relu1
I0504 15:43:01.079344  7233 net.cpp:86] Creating Layer relu1
I0504 15:43:01.079346  7233 net.cpp:408] relu1 <- ip1
I0504 15:43:01.079350  7233 net.cpp:369] relu1 -> ip1 (in-place)
I0504 15:43:01.079512  7233 net.cpp:124] Setting up relu1
I0504 15:43:01.079521  7233 net.cpp:131] Top shape: 111 180 (19980)
I0504 15:43:01.079524  7233 net.cpp:139] Memory required for data: 110343324
I0504 15:43:01.079527  7233 layer_factory.hpp:77] Creating layer ip2
I0504 15:43:01.079533  7233 net.cpp:86] Creating Layer ip2
I0504 15:43:01.079536  7233 net.cpp:408] ip2 <- ip1
I0504 15:43:01.079541  7233 net.cpp:382] ip2 -> ip2
I0504 15:43:01.079768  7233 net.cpp:124] Setting up ip2
I0504 15:43:01.079777  7233 net.cpp:131] Top shape: 111 10 (1110)
I0504 15:43:01.079779  7233 net.cpp:139] Memory required for data: 110347764
I0504 15:43:01.079785  7233 layer_factory.hpp:77] Creating layer loss
I0504 15:43:01.079792  7233 net.cpp:86] Creating Layer loss
I0504 15:43:01.079809  7233 net.cpp:408] loss <- ip2
I0504 15:43:01.079813  7233 net.cpp:408] loss <- label
I0504 15:43:01.079819  7233 net.cpp:382] loss -> loss
I0504 15:43:01.079838  7233 layer_factory.hpp:77] Creating layer loss
…
I0504 15:43:01.081192  7233 solver.cpp:173] Creating test net (#0) specified by net file: ECE595/cifar/train_test/var_everything_tiny/cifar_train_test_182.prototxt
I0504 15:43:01.081218  7233 net.cpp:296] The NetState phase (1) differed from the phase (0) specified by a rule in layer cifar
I0504 15:43:01.081303  7233 net.cpp:53] Initializing net from parameters: 
name: "CIFAR"
state {
  phase: TEST
}
layer {
  name: "cifar"
  type: "Data"
  top: "data"
  top: "label"
  include {
    phase: TEST
  }
  transform_param {
    mean_file: "examples/cifar10/mean.binaryproto"
  }
  data_param {
    source: "examples/cifar10/cifar10_test_lmdb"
    batch_size: 1000
    backend: LMDB
  }
}
layer {
  name: "conv0"
  type: "Convolution"
  bottom: "data"
  top: "conv0"
  param {
    lr_mult: 1
  }
  param {
    lr_mult: 2
  }
  convolution_param {
    num_output: 72
    pad: 2
    kernel_size: 3
    stride: 1
    weight_filler {
      type: "gaussian"
      std: 0.01
    }
    bias_filler {
      type: "constant"
    }
  }
}
layer {
  name: "Sigmoid0"
  type: "Sigmoid"
  bottom: "conv0"
  top: "Sigmoid0"
}
layer {
  name: "pool0"
  type: "Pooling"
  bottom: "Sigmoid0"
  top: "pool0"
  pooling_param {
    pool: AVE
    kernel_size: 3
    stride: 2
  }
}
layer {
  name: "conv1"
  type: "Convolution"
  bottom: "pool0"
  top: "conv1"
  param {
    lr_mult: 1
  }
  param {
    lr_mult: 2
  }
  convolution_param {
    num_output: 72
    pad: 2
    kernel_size: 3
    stride: 1
    weight_filler {
      type: "gaussian"
      std: 0.01
    }
    bias_filler {
      type: "constant"
    }
  }
}
layer {
  name: "Sigmoid1"
  type: "Sigmoid"
  bottom: "conv1"
  top: "Sigmoid1"
}
layer {
  name: "pool1"
  type: "Pooling"
  bottom: "Sigmoid1"
  top: "pool1"
  pooling_param {
    pool: AVE
    kernel_size: 3
    stride: 2
  }
}
layer {
  name: "ip1"
  type: "InnerProduct"
  bottom: "pool1"
  top: "ip1"
  param {
    lr_mult: 1
  }
  param {
    lr_mult: 2
  }
  inner_product_param {
    num_output: 180
    weight_filler {
      type: "gaussian"
      std: 0.01
    }
    bias_filler {
      type: "constant"
    }
  }
}
layer {
  name: "relu1"
  type: "ReLU"
  bottom: "ip1"
  top: "ip1"
}
layer {
  name: "ip2"
  type: "InnerProduct"
  bottom: "ip1"
  top: "ip2"
  param {
    lr_mult: 1
  }
  param {
    lr_mult: 2
  }
  inner_product_param {
    num_output: 10
    weight_filler {
      type: "gaussian"
      std: 0.01
    }
    bias_filler {
      type: "constant"
    }
  }
}
layer {
  name: "accuracy"
  type: "Accuracy"
  bottom: "ip2"
  bottom: "label"
  top: "accuracy"
  include {
    phase: TEST
  }
}
layer {
  name: "loss"
  type: "SoftmaxWithLoss"
  bottom: "ip2"
  bottom: "label"
  top: "loss"
}
I0504 15:43:01.081394  7233 layer_factory.hpp:77] Creating layer cifar
I0504 15:43:01.081436  7233 db_lmdb.cpp:35] Opened lmdb examples/cifar10/cifar10_test_lmdb
I0504 15:43:01.081449  7233 net.cpp:86] Creating Layer cifar
I0504 15:43:01.081454  7233 net.cpp:382] cifar -> data
I0504 15:43:01.081460  7233 net.cpp:382] cifar -> label
I0504 15:43:01.081466  7233 data_transformer.cpp:25] Loading mean file from: examples/cifar10/mean.binaryproto
I0504 15:43:01.081604  7233 data_layer.cpp:45] output data size: 1000,3,32,32
I0504 15:43:01.103343  7233 net.cpp:124] Setting up cifar
I0504 15:43:01.103385  7233 net.cpp:131] Top shape: 1000 3 32 32 (3072000)
I0504 15:43:01.103390  7233 net.cpp:131] Top shape: 1000 (1000)
I0504 15:43:01.103394  7233 net.cpp:139] Memory required for data: 12292000
I0504 15:43:01.103400  7233 layer_factory.hpp:77] Creating layer label_cifar_1_split
I0504 15:43:01.103416  7233 net.cpp:86] Creating Layer label_cifar_1_split
I0504 15:43:01.103420  7233 net.cpp:408] label_cifar_1_split <- label
I0504 15:43:01.103425  7233 net.cpp:382] label_cifar_1_split -> label_cifar_1_split_0
I0504 15:43:01.103435  7233 net.cpp:382] label_cifar_1_split -> label_cifar_1_split_1
I0504 15:43:01.103539  7233 net.cpp:124] Setting up label_cifar_1_split
I0504 15:43:01.103548  7233 net.cpp:131] Top shape: 1000 (1000)
I0504 15:43:01.103550  7233 net.cpp:131] Top shape: 1000 (1000)
I0504 15:43:01.103554  7233 net.cpp:139] Memory required for data: 12300000
I0504 15:43:01.103556  7233 layer_factory.hpp:77] Creating layer conv0
I0504 15:43:01.103569  7233 net.cpp:86] Creating Layer conv0
I0504 15:43:01.103574  7233 net.cpp:408] conv0 <- data
I0504 15:43:01.103595  7233 net.cpp:382] conv0 -> conv0
I0504 15:43:01.104537  7233 net.cpp:124] Setting up conv0
I0504 15:43:01.104564  7233 net.cpp:131] Top shape: 1000 72 34 34 (83232000)
I0504 15:43:01.104568  7233 net.cpp:139] Memory required for data: 345228000
I0504 15:43:01.104576  7233 layer_factory.hpp:77] Creating layer Sigmoid0
I0504 15:43:01.104583  7233 net.cpp:86] Creating Layer Sigmoid0
I0504 15:43:01.104585  7233 net.cpp:408] Sigmoid0 <- conv0
I0504 15:43:01.104589  7233 net.cpp:382] Sigmoid0 -> Sigmoid0
I0504 15:43:01.105579  7233 net.cpp:124] Setting up Sigmoid0
I0504 15:43:01.105607  7233 net.cpp:131] Top shape: 1000 72 34 34 (83232000)
I0504 15:43:01.105610  7233 net.cpp:139] Memory required for data: 678156000
I0504 15:43:01.105614  7233 layer_factory.hpp:77] Creating layer pool0
I0504 15:43:01.105623  7233 net.cpp:86] Creating Layer pool0
I0504 15:43:01.105626  7233 net.cpp:408] pool0 <- Sigmoid0
I0504 15:43:01.105633  7233 net.cpp:382] pool0 -> pool0
I0504 15:43:01.105938  7233 net.cpp:124] Setting up pool0
I0504 15:43:01.105947  7233 net.cpp:131] Top shape: 1000 72 17 17 (20808000)
I0504 15:43:01.105967  7233 net.cpp:139] Memory required for data: 761388000
I0504 15:43:01.105970  7233 layer_factory.hpp:77] Creating layer conv1
I0504 15:43:01.105980  7233 net.cpp:86] Creating Layer conv1
I0504 15:43:01.105983  7233 net.cpp:408] conv1 <- pool0
I0504 15:43:01.106015  7233 net.cpp:382] conv1 -> conv1
I0504 15:43:01.109869  7233 net.cpp:124] Setting up conv1
I0504 15:43:01.109899  7233 net.cpp:131] Top shape: 1000 72 19 19 (25992000)
I0504 15:43:01.109902  7233 net.cpp:139] Memory required for data: 865356000
I0504 15:43:01.109910  7233 layer_factory.hpp:77] Creating layer Sigmoid1
I0504 15:43:01.109916  7233 net.cpp:86] Creating Layer Sigmoid1
I0504 15:43:01.109920  7233 net.cpp:408] Sigmoid1 <- conv1
I0504 15:43:01.109925  7233 net.cpp:382] Sigmoid1 -> Sigmoid1
I0504 15:43:01.110106  7233 net.cpp:124] Setting up Sigmoid1
I0504 15:43:01.110116  7233 net.cpp:131] Top shape: 1000 72 19 19 (25992000)
I0504 15:43:01.110118  7233 net.cpp:139] Memory required for data: 969324000
I0504 15:43:01.110121  7233 layer_factory.hpp:77] Creating layer pool1
I0504 15:43:01.110128  7233 net.cpp:86] Creating Layer pool1
I0504 15:43:01.110131  7233 net.cpp:408] pool1 <- Sigmoid1
I0504 15:43:01.110149  7233 net.cpp:382] pool1 -> pool1
I0504 15:43:01.110354  7233 net.cpp:124] Setting up pool1
I0504 15:43:01.110363  7233 net.cpp:131] Top shape: 1000 72 9 9 (5832000)
I0504 15:43:01.110368  7233 net.cpp:139] Memory required for data: 992652000
I0504 15:43:01.110370  7233 layer_factory.hpp:77] Creating layer ip1
I0504 15:43:01.110379  7233 net.cpp:86] Creating Layer ip1
I0504 15:43:01.110383  7233 net.cpp:408] ip1 <- pool1
I0504 15:43:01.110389  7233 net.cpp:382] ip1 -> ip1
I0504 15:43:01.139503  7233 net.cpp:124] Setting up ip1
I0504 15:43:01.139534  7233 net.cpp:131] Top shape: 1000 180 (180000)
I0504 15:43:01.139538  7233 net.cpp:139] Memory required for data: 993372000
I0504 15:43:01.139547  7233 layer_factory.hpp:77] Creating layer relu1
I0504 15:43:01.139556  7233 net.cpp:86] Creating Layer relu1
I0504 15:43:01.139560  7233 net.cpp:408] relu1 <- ip1
I0504 15:43:01.139564  7233 net.cpp:369] relu1 -> ip1 (in-place)
I0504 15:43:01.140434  7233 net.cpp:124] Setting up relu1
I0504 15:43:01.140446  7233 net.cpp:131] Top shape: 1000 180 (180000)
I0504 15:43:01.140465  7233 net.cpp:139] Memory required for data: 994092000
I0504 15:43:01.140468  7233 layer_factory.hpp:77] Creating layer ip2
I0504 15:43:01.140475  7233 net.cpp:86] Creating Layer ip2
I0504 15:43:01.140478  7233 net.cpp:408] ip2 <- ip1
I0504 15:43:01.140485  7233 net.cpp:382] ip2 -> ip2
I0504 15:43:01.140662  7233 net.cpp:124] Setting up ip2
I0504 15:43:01.140669  7233 net.cpp:131] Top shape: 1000 10 (10000)
I0504 15:43:01.140672  7233 net.cpp:139] Memory required for data: 994132000
I0504 15:43:01.140677  7233 layer_factory.hpp:77] Creating layer ip2_ip2_0_split
I0504 15:43:01.140682  7233 net.cpp:86] Creating Layer ip2_ip2_0_split
I0504 15:43:01.140686  7233 net.cpp:408] ip2_ip2_0_split <- ip2
I0504 15:43:01.140691  7233 net.cpp:382] ip2_ip2_0_split -> ip2_ip2_0_split_0
I0504 15:43:01.140697  7233 net.cpp:382] ip2_ip2_0_split -> ip2_ip2_0_split_1
I0504 15:43:01.140727  7233 net.cpp:124] Setting up ip2_ip2_0_split
I0504 15:43:01.140733  7233 net.cpp:131] Top shape: 1000 10 (10000)
I0504 15:43:01.140735  7233 net.cpp:131] Top shape: 1000 10 (10000)
I0504 15:43:01.140738  7233 net.cpp:139] Memory required for data: 994212000
I0504 15:43:01.140740  7233 layer_factory.hpp:77] Creating layer accuracy
I0504 15:43:01.140746  7233 net.cpp:86] Creating Layer accuracy
I0504 15:43:01.140750  7233 net.cpp:408] accuracy <- ip2_ip2_0_split_0
I0504 15:43:01.140754  7233 net.cpp:408] accuracy <- label_cifar_1_split_0
I0504 15:43:01.140758  7233 net.cpp:382] accuracy -> accuracy
…
