…
I0504 07:47:53.992656 19886 net.cpp:296] The NetState phase (0) differed from the phase (1) specified by a rule in layer cifar
I0504 07:47:53.992676 19886 net.cpp:296] The NetState phase (0) differed from the phase (1) specified by a rule in layer accuracy
I0504 07:47:53.992781 19886 net.cpp:53] Initializing net from parameters: 
name: "CIFAR"
state {
  phase: TRAIN
  level: 0
  stage: ""
}
layer {
  name: "cifar"
  type: "Data"
  top: "data"
  top: "label"
  include {
    phase: TRAIN
  }
  transform_param {
    mean_file: "examples/cifar10/mean.binaryproto"
  }
  data_param {
    source: "examples/cifar10/cifar10_train_lmdb"
    batch_size: 111
    backend: LMDB
  }
}
layer {
  name: "conv0"
  type: "Convolution"
  bottom: "data"
  top: "conv0"
  param {
    lr_mult: 1
  }
  param {
    lr_mult: 2
  }
  convolution_param {
    num_output: 24
    pad: 2
    kernel_size: 5
    stride: 1
    weight_filler {
      type: "gaussian"
      std: 0.01
    }
    bias_filler {
      type: "constant"
    }
  }
}
layer {
  name: "Sigmoid0"
  type: "Sigmoid"
  bottom: "conv0"
  top: "Sigmoid0"
}
layer {
  name: "pool0"
  type: "Pooling"
  bottom: "Sigmoid0"
  top: "pool0"
  pooling_param {
    pool: AVE
    kernel_size: 3
    stride: 2
  }
}
layer {
  name: "conv1"
  type: "Convolution"
  bottom: "pool0"
  top: "conv1"
  param {
    lr_mult: 1
  }
  param {
    lr_mult: 2
  }
  convolution_param {
    num_output: 24
    pad: 2
    kernel_size: 3
    stride: 1
    weight_filler {
      type: "gaussian"
      std: 0.01
    }
    bias_filler {
      type: "constant"
    }
  }
}
layer {
  name: "Sigmoid1"
  type: "Sigmoid"
  bottom: "conv1"
  top: "Sigmoid1"
}
layer {
  name: "pool1"
  type: "Pooling"
  bottom: "Sigmoid1"
  top: "pool1"
  pooling_param {
    pool: AVE
    kernel_size: 3
    stride: 2
  }
}
layer {
  name: "ip1"
  type: "InnerProduct"
  bottom: "pool1"
  top: "ip1"
  param {
    lr_mult: 1
  }
  param {
    lr_mult: 2
  }
  inner_product_param {
    num_output: 10
    weight_filler {
      type: "gaussian"
      std: 0.01
    }
    bias_filler {
      type: "constant"
    }
  }
}
layer {
  name: "relu1"
  type: "ReLU"
  bottom: "ip1"
  top: "ip1"
}
layer {
  name: "ip2"
  type: "InnerProduct"
  bottom: "ip1"
  top: "ip2"
  param {
    lr_mult: 1
  }
  param {
    lr_mult: 2
  }
  inner_product_param {
    num_output: 10
    weight_filler {
      type: "gaussian"
      std: 0.01
    }
    bias_filler {
      type: "constant"
    }
  }
}
layer {
  name: "relu2"
  type: "ReLU"
  bottom: "ip2"
  top: "ip2"
}
layer {
  name: "ip3"
  type: "InnerProduct"
  bottom: "ip2"
  top: "ip3"
  param {
    lr_mult: 1
  }
  param {
    lr_mult: 2
  }
  inner_product_param {
    num_output: 10
    weight_filler {
      type: "gaussian"
      std: 0.01
    }
    bias_filler {
      type: "constant"
    }
  }
}
layer {
  name: "loss"
  type: "SoftmaxWithLoss"
  bottom: "ip3"
  bottom: "label"
  top: "loss"
}
I0504 07:47:53.992867 19886 layer_factory.hpp:77] Creating layer cifar
I0504 07:47:53.992967 19886 db_lmdb.cpp:35] Opened lmdb examples/cifar10/cifar10_train_lmdb
I0504 07:47:53.992996 19886 net.cpp:86] Creating Layer cifar
I0504 07:47:53.993005 19886 net.cpp:382] cifar -> data
I0504 07:47:53.993029 19886 net.cpp:382] cifar -> label
I0504 07:47:53.993043 19886 data_transformer.cpp:25] Loading mean file from: examples/cifar10/mean.binaryproto
I0504 07:47:53.995204 19886 data_layer.cpp:45] output data size: 111,3,32,32
I0504 07:47:54.003267 19886 net.cpp:124] Setting up cifar
I0504 07:47:54.003285 19886 net.cpp:131] Top shape: 111 3 32 32 (340992)
I0504 07:47:54.003291 19886 net.cpp:131] Top shape: 111 (111)
I0504 07:47:54.003295 19886 net.cpp:139] Memory required for data: 1364412
I0504 07:47:54.003304 19886 layer_factory.hpp:77] Creating layer conv0
I0504 07:47:54.003319 19886 net.cpp:86] Creating Layer conv0
I0504 07:47:54.003329 19886 net.cpp:408] conv0 <- data
I0504 07:47:54.003340 19886 net.cpp:382] conv0 -> conv0
I0504 07:47:54.278535 19886 net.cpp:124] Setting up conv0
I0504 07:47:54.278578 19886 net.cpp:131] Top shape: 111 24 32 32 (2727936)
I0504 07:47:54.278584 19886 net.cpp:139] Memory required for data: 12276156
I0504 07:47:54.278599 19886 layer_factory.hpp:77] Creating layer Sigmoid0
I0504 07:47:54.278610 19886 net.cpp:86] Creating Layer Sigmoid0
I0504 07:47:54.278614 19886 net.cpp:408] Sigmoid0 <- conv0
I0504 07:47:54.278620 19886 net.cpp:382] Sigmoid0 -> Sigmoid0
I0504 07:47:54.278794 19886 net.cpp:124] Setting up Sigmoid0
I0504 07:47:54.278803 19886 net.cpp:131] Top shape: 111 24 32 32 (2727936)
I0504 07:47:54.278806 19886 net.cpp:139] Memory required for data: 23187900
I0504 07:47:54.278810 19886 layer_factory.hpp:77] Creating layer pool0
I0504 07:47:54.278816 19886 net.cpp:86] Creating Layer pool0
I0504 07:47:54.278820 19886 net.cpp:408] pool0 <- Sigmoid0
I0504 07:47:54.278825 19886 net.cpp:382] pool0 -> pool0
I0504 07:47:54.279551 19886 net.cpp:124] Setting up pool0
I0504 07:47:54.279562 19886 net.cpp:131] Top shape: 111 24 16 16 (681984)
I0504 07:47:54.279582 19886 net.cpp:139] Memory required for data: 25915836
I0504 07:47:54.279585 19886 layer_factory.hpp:77] Creating layer conv1
I0504 07:47:54.279598 19886 net.cpp:86] Creating Layer conv1
I0504 07:47:54.279603 19886 net.cpp:408] conv1 <- pool0
I0504 07:47:54.279608 19886 net.cpp:382] conv1 -> conv1
I0504 07:47:54.282376 19886 net.cpp:124] Setting up conv1
I0504 07:47:54.282404 19886 net.cpp:131] Top shape: 111 24 18 18 (863136)
I0504 07:47:54.282407 19886 net.cpp:139] Memory required for data: 29368380
I0504 07:47:54.282416 19886 layer_factory.hpp:77] Creating layer Sigmoid1
I0504 07:47:54.282423 19886 net.cpp:86] Creating Layer Sigmoid1
I0504 07:47:54.282425 19886 net.cpp:408] Sigmoid1 <- conv1
I0504 07:47:54.282431 19886 net.cpp:382] Sigmoid1 -> Sigmoid1
I0504 07:47:54.282608 19886 net.cpp:124] Setting up Sigmoid1
I0504 07:47:54.282618 19886 net.cpp:131] Top shape: 111 24 18 18 (863136)
I0504 07:47:54.282620 19886 net.cpp:139] Memory required for data: 32820924
I0504 07:47:54.282624 19886 layer_factory.hpp:77] Creating layer pool1
I0504 07:47:54.282630 19886 net.cpp:86] Creating Layer pool1
I0504 07:47:54.282634 19886 net.cpp:408] pool1 <- Sigmoid1
I0504 07:47:54.282637 19886 net.cpp:382] pool1 -> pool1
I0504 07:47:54.282807 19886 net.cpp:124] Setting up pool1
I0504 07:47:54.282815 19886 net.cpp:131] Top shape: 111 24 9 9 (215784)
I0504 07:47:54.282819 19886 net.cpp:139] Memory required for data: 33684060
I0504 07:47:54.282821 19886 layer_factory.hpp:77] Creating layer ip1
I0504 07:47:54.282829 19886 net.cpp:86] Creating Layer ip1
I0504 07:47:54.282835 19886 net.cpp:408] ip1 <- pool1
I0504 07:47:54.282856 19886 net.cpp:382] ip1 -> ip1
I0504 07:47:54.284307 19886 net.cpp:124] Setting up ip1
I0504 07:47:54.284319 19886 net.cpp:131] Top shape: 111 10 (1110)
I0504 07:47:54.284338 19886 net.cpp:139] Memory required for data: 33688500
I0504 07:47:54.284346 19886 layer_factory.hpp:77] Creating layer relu1
I0504 07:47:54.284355 19886 net.cpp:86] Creating Layer relu1
I0504 07:47:54.284359 19886 net.cpp:408] relu1 <- ip1
I0504 07:47:54.284364 19886 net.cpp:369] relu1 -> ip1 (in-place)
I0504 07:47:54.284574 19886 net.cpp:124] Setting up relu1
I0504 07:47:54.284584 19886 net.cpp:131] Top shape: 111 10 (1110)
I0504 07:47:54.284587 19886 net.cpp:139] Memory required for data: 33692940
I0504 07:47:54.284590 19886 layer_factory.hpp:77] Creating layer ip2
I0504 07:47:54.284597 19886 net.cpp:86] Creating Layer ip2
I0504 07:47:54.284600 19886 net.cpp:408] ip2 <- ip1
I0504 07:47:54.284618 19886 net.cpp:382] ip2 -> ip2
I0504 07:47:54.284723 19886 net.cpp:124] Setting up ip2
I0504 07:47:54.284730 19886 net.cpp:131] Top shape: 111 10 (1110)
I0504 07:47:54.284734 19886 net.cpp:139] Memory required for data: 33697380
I0504 07:47:54.284739 19886 layer_factory.hpp:77] Creating layer relu2
I0504 07:47:54.284744 19886 net.cpp:86] Creating Layer relu2
I0504 07:47:54.284746 19886 net.cpp:408] relu2 <- ip2
I0504 07:47:54.284751 19886 net.cpp:369] relu2 -> ip2 (in-place)
I0504 07:47:54.285553 19886 net.cpp:124] Setting up relu2
I0504 07:47:54.285581 19886 net.cpp:131] Top shape: 111 10 (1110)
I0504 07:47:54.285584 19886 net.cpp:139] Memory required for data: 33701820
I0504 07:47:54.285588 19886 layer_factory.hpp:77] Creating layer ip3
I0504 07:47:54.285595 19886 net.cpp:86] Creating Layer ip3
I0504 07:47:54.285599 19886 net.cpp:408] ip3 <- ip2
I0504 07:47:54.285605 19886 net.cpp:382] ip3 -> ip3
I0504 07:47:54.285707 19886 net.cpp:124] Setting up ip3
I0504 07:47:54.285715 19886 net.cpp:131] Top shape: 111 10 (1110)
I0504 07:47:54.285717 19886 net.cpp:139] Memory required for data: 33706260
I0504 07:47:54.285725 19886 layer_factory.hpp:77] Creating layer loss
I0504 07:47:54.285732 19886 net.cpp:86] Creating Layer loss
I0504 07:47:54.285737 19886 net.cpp:408] loss <- ip3
I0504 07:47:54.285742 19886 net.cpp:408] loss <- label
I0504 07:47:54.285747 19886 net.cpp:382] loss -> loss
I0504 07:47:54.285759 19886 layer_factory.hpp:77] Creating layer loss
…
I0504 07:47:54.286492 19886 solver.cpp:173] Creating test net (#0) specified by net file: ECE595/cifar/train_test/var_everything_tiny/cifar_train_test_87.prototxt
I0504 07:47:54.286535 19886 net.cpp:296] The NetState phase (1) differed from the phase (0) specified by a rule in layer cifar
I0504 07:47:54.286638 19886 net.cpp:53] Initializing net from parameters: 
name: "CIFAR"
state {
  phase: TEST
}
layer {
  name: "cifar"
  type: "Data"
  top: "data"
  top: "label"
  include {
    phase: TEST
  }
  transform_param {
    mean_file: "examples/cifar10/mean.binaryproto"
  }
  data_param {
    source: "examples/cifar10/cifar10_test_lmdb"
    batch_size: 1000
    backend: LMDB
  }
}
layer {
  name: "conv0"
  type: "Convolution"
  bottom: "data"
  top: "conv0"
  param {
    lr_mult: 1
  }
  param {
    lr_mult: 2
  }
  convolution_param {
    num_output: 24
    pad: 2
    kernel_size: 5
    stride: 1
    weight_filler {
      type: "gaussian"
      std: 0.01
    }
    bias_filler {
      type: "constant"
    }
  }
}
layer {
  name: "Sigmoid0"
  type: "Sigmoid"
  bottom: "conv0"
  top: "Sigmoid0"
}
layer {
  name: "pool0"
  type: "Pooling"
  bottom: "Sigmoid0"
  top: "pool0"
  pooling_param {
    pool: AVE
    kernel_size: 3
    stride: 2
  }
}
layer {
  name: "conv1"
  type: "Convolution"
  bottom: "pool0"
  top: "conv1"
  param {
    lr_mult: 1
  }
  param {
    lr_mult: 2
  }
  convolution_param {
    num_output: 24
    pad: 2
    kernel_size: 3
    stride: 1
    weight_filler {
      type: "gaussian"
      std: 0.01
    }
    bias_filler {
      type: "constant"
    }
  }
}
layer {
  name: "Sigmoid1"
  type: "Sigmoid"
  bottom: "conv1"
  top: "Sigmoid1"
}
layer {
  name: "pool1"
  type: "Pooling"
  bottom: "Sigmoid1"
  top: "pool1"
  pooling_param {
    pool: AVE
    kernel_size: 3
    stride: 2
  }
}
layer {
  name: "ip1"
  type: "InnerProduct"
  bottom: "pool1"
  top: "ip1"
  param {
    lr_mult: 1
  }
  param {
    lr_mult: 2
  }
  inner_product_param {
    num_output: 10
    weight_filler {
      type: "gaussian"
      std: 0.01
    }
    bias_filler {
      type: "constant"
    }
  }
}
layer {
  name: "relu1"
  type: "ReLU"
  bottom: "ip1"
  top: "ip1"
}
layer {
  name: "ip2"
  type: "InnerProduct"
  bottom: "ip1"
  top: "ip2"
  param {
    lr_mult: 1
  }
  param {
    lr_mult: 2
  }
  inner_product_param {
    num_output: 10
    weight_filler {
      type: "gaussian"
      std: 0.01
    }
    bias_filler {
      type: "constant"
    }
  }
}
layer {
  name: "relu2"
  type: "ReLU"
  bottom: "ip2"
  top: "ip2"
}
layer {
  name: "ip3"
  type: "InnerProduct"
  bottom: "ip2"
  top: "ip3"
  param {
    lr_mult: 1
  }
  param {
    lr_mult: 2
  }
  inner_product_param {
    num_output: 10
    weight_filler {
      type: "gaussian"
      std: 0.01
    }
    bias_filler {
      type: "constant"
    }
  }
}
layer {
  name: "accuracy"
  type: "Accuracy"
  bottom: "ip3"
  bottom: "label"
  top: "accuracy"
  include {
    phase: TEST
  }
}
layer {
  name: "loss"
  type: "SoftmaxWithLoss"
  bottom: "ip3"
  bottom: "label"
  top: "loss"
}
I0504 07:47:54.286722 19886 layer_factory.hpp:77] Creating layer cifar
I0504 07:47:54.286768 19886 db_lmdb.cpp:35] Opened lmdb examples/cifar10/cifar10_test_lmdb
I0504 07:47:54.286782 19886 net.cpp:86] Creating Layer cifar
I0504 07:47:54.286789 19886 net.cpp:382] cifar -> data
I0504 07:47:54.286814 19886 net.cpp:382] cifar -> label
I0504 07:47:54.286820 19886 data_transformer.cpp:25] Loading mean file from: examples/cifar10/mean.binaryproto
I0504 07:47:54.286972 19886 data_layer.cpp:45] output data size: 1000,3,32,32
I0504 07:47:54.308997 19886 net.cpp:124] Setting up cifar
I0504 07:47:54.309039 19886 net.cpp:131] Top shape: 1000 3 32 32 (3072000)
I0504 07:47:54.309044 19886 net.cpp:131] Top shape: 1000 (1000)
I0504 07:47:54.309047 19886 net.cpp:139] Memory required for data: 12292000
I0504 07:47:54.309053 19886 layer_factory.hpp:77] Creating layer label_cifar_1_split
I0504 07:47:54.309067 19886 net.cpp:86] Creating Layer label_cifar_1_split
I0504 07:47:54.309070 19886 net.cpp:408] label_cifar_1_split <- label
I0504 07:47:54.309077 19886 net.cpp:382] label_cifar_1_split -> label_cifar_1_split_0
I0504 07:47:54.309087 19886 net.cpp:382] label_cifar_1_split -> label_cifar_1_split_1
I0504 07:47:54.309180 19886 net.cpp:124] Setting up label_cifar_1_split
I0504 07:47:54.309187 19886 net.cpp:131] Top shape: 1000 (1000)
I0504 07:47:54.309191 19886 net.cpp:131] Top shape: 1000 (1000)
I0504 07:47:54.309195 19886 net.cpp:139] Memory required for data: 12300000
I0504 07:47:54.309197 19886 layer_factory.hpp:77] Creating layer conv0
I0504 07:47:54.309211 19886 net.cpp:86] Creating Layer conv0
I0504 07:47:54.309216 19886 net.cpp:408] conv0 <- data
I0504 07:47:54.309224 19886 net.cpp:382] conv0 -> conv0
I0504 07:47:54.311756 19886 net.cpp:124] Setting up conv0
I0504 07:47:54.311772 19886 net.cpp:131] Top shape: 1000 24 32 32 (24576000)
I0504 07:47:54.311776 19886 net.cpp:139] Memory required for data: 110604000
I0504 07:47:54.311786 19886 layer_factory.hpp:77] Creating layer Sigmoid0
I0504 07:47:54.311811 19886 net.cpp:86] Creating Layer Sigmoid0
I0504 07:47:54.311815 19886 net.cpp:408] Sigmoid0 <- conv0
I0504 07:47:54.311820 19886 net.cpp:382] Sigmoid0 -> Sigmoid0
I0504 07:47:54.312018 19886 net.cpp:124] Setting up Sigmoid0
I0504 07:47:54.312041 19886 net.cpp:131] Top shape: 1000 24 32 32 (24576000)
I0504 07:47:54.312043 19886 net.cpp:139] Memory required for data: 208908000
I0504 07:47:54.312047 19886 layer_factory.hpp:77] Creating layer pool0
I0504 07:47:54.312057 19886 net.cpp:86] Creating Layer pool0
I0504 07:47:54.312059 19886 net.cpp:408] pool0 <- Sigmoid0
I0504 07:47:54.312078 19886 net.cpp:382] pool0 -> pool0
I0504 07:47:54.312257 19886 net.cpp:124] Setting up pool0
I0504 07:47:54.312265 19886 net.cpp:131] Top shape: 1000 24 16 16 (6144000)
I0504 07:47:54.312268 19886 net.cpp:139] Memory required for data: 233484000
I0504 07:47:54.312271 19886 layer_factory.hpp:77] Creating layer conv1
I0504 07:47:54.312283 19886 net.cpp:86] Creating Layer conv1
I0504 07:47:54.312286 19886 net.cpp:408] conv1 <- pool0
I0504 07:47:54.312292 19886 net.cpp:382] conv1 -> conv1
I0504 07:47:54.313846 19886 net.cpp:124] Setting up conv1
I0504 07:47:54.313861 19886 net.cpp:131] Top shape: 1000 24 18 18 (7776000)
I0504 07:47:54.313866 19886 net.cpp:139] Memory required for data: 264588000
I0504 07:47:54.313891 19886 layer_factory.hpp:77] Creating layer Sigmoid1
I0504 07:47:54.313897 19886 net.cpp:86] Creating Layer Sigmoid1
I0504 07:47:54.313900 19886 net.cpp:408] Sigmoid1 <- conv1
I0504 07:47:54.313907 19886 net.cpp:382] Sigmoid1 -> Sigmoid1
I0504 07:47:54.314091 19886 net.cpp:124] Setting up Sigmoid1
I0504 07:47:54.314101 19886 net.cpp:131] Top shape: 1000 24 18 18 (7776000)
I0504 07:47:54.314105 19886 net.cpp:139] Memory required for data: 295692000
I0504 07:47:54.314108 19886 layer_factory.hpp:77] Creating layer pool1
I0504 07:47:54.314115 19886 net.cpp:86] Creating Layer pool1
I0504 07:47:54.314117 19886 net.cpp:408] pool1 <- Sigmoid1
I0504 07:47:54.314122 19886 net.cpp:382] pool1 -> pool1
I0504 07:47:54.314869 19886 net.cpp:124] Setting up pool1
I0504 07:47:54.314882 19886 net.cpp:131] Top shape: 1000 24 9 9 (1944000)
I0504 07:47:54.314901 19886 net.cpp:139] Memory required for data: 303468000
I0504 07:47:54.314904 19886 layer_factory.hpp:77] Creating layer ip1
I0504 07:47:54.314915 19886 net.cpp:86] Creating Layer ip1
I0504 07:47:54.314918 19886 net.cpp:408] ip1 <- pool1
I0504 07:47:54.314924 19886 net.cpp:382] ip1 -> ip1
I0504 07:47:54.315577 19886 net.cpp:124] Setting up ip1
I0504 07:47:54.315587 19886 net.cpp:131] Top shape: 1000 10 (10000)
I0504 07:47:54.315606 19886 net.cpp:139] Memory required for data: 303508000
I0504 07:47:54.315614 19886 layer_factory.hpp:77] Creating layer relu1
I0504 07:47:54.315620 19886 net.cpp:86] Creating Layer relu1
I0504 07:47:54.315623 19886 net.cpp:408] relu1 <- ip1
I0504 07:47:54.315629 19886 net.cpp:369] relu1 -> ip1 (in-place)
I0504 07:47:54.315789 19886 net.cpp:124] Setting up relu1
I0504 07:47:54.315798 19886 net.cpp:131] Top shape: 1000 10 (10000)
I0504 07:47:54.315800 19886 net.cpp:139] Memory required for data: 303548000
I0504 07:47:54.315804 19886 layer_factory.hpp:77] Creating layer ip2
I0504 07:47:54.315810 19886 net.cpp:86] Creating Layer ip2
I0504 07:47:54.315814 19886 net.cpp:408] ip2 <- ip1
I0504 07:47:54.315819 19886 net.cpp:382] ip2 -> ip2
I0504 07:47:54.315923 19886 net.cpp:124] Setting up ip2
I0504 07:47:54.315930 19886 net.cpp:131] Top shape: 1000 10 (10000)
I0504 07:47:54.315933 19886 net.cpp:139] Memory required for data: 303588000
I0504 07:47:54.315938 19886 layer_factory.hpp:77] Creating layer relu2
I0504 07:47:54.315943 19886 net.cpp:86] Creating Layer relu2
I0504 07:47:54.315946 19886 net.cpp:408] relu2 <- ip2
I0504 07:47:54.315950 19886 net.cpp:369] relu2 -> ip2 (in-place)
I0504 07:47:54.316135 19886 net.cpp:124] Setting up relu2
I0504 07:47:54.316145 19886 net.cpp:131] Top shape: 1000 10 (10000)
I0504 07:47:54.316148 19886 net.cpp:139] Memory required for data: 303628000
I0504 07:47:54.316154 19886 layer_factory.hpp:77] Creating layer ip3
I0504 07:47:54.316161 19886 net.cpp:86] Creating Layer ip3
I0504 07:47:54.316169 19886 net.cpp:408] ip3 <- ip2
I0504 07:47:54.316191 19886 net.cpp:382] ip3 -> ip3
I0504 07:47:54.316315 19886 net.cpp:124] Setting up ip3
I0504 07:47:54.316323 19886 net.cpp:131] Top shape: 1000 10 (10000)
I0504 07:47:54.316335 19886 net.cpp:139] Memory required for data: 303668000
I0504 07:47:54.316344 19886 layer_factory.hpp:77] Creating layer ip3_ip3_0_split
I0504 07:47:54.316349 19886 net.cpp:86] Creating Layer ip3_ip3_0_split
I0504 07:47:54.316352 19886 net.cpp:408] ip3_ip3_0_split <- ip3
I0504 07:47:54.316357 19886 net.cpp:382] ip3_ip3_0_split -> ip3_ip3_0_split_0
I0504 07:47:54.316364 19886 net.cpp:382] ip3_ip3_0_split -> ip3_ip3_0_split_1
I0504 07:47:54.316395 19886 net.cpp:124] Setting up ip3_ip3_0_split
I0504 07:47:54.316401 19886 net.cpp:131] Top shape: 1000 10 (10000)
I0504 07:47:54.316404 19886 net.cpp:131] Top shape: 1000 10 (10000)
I0504 07:47:54.316407 19886 net.cpp:139] Memory required for data: 303748000
I0504 07:47:54.316411 19886 layer_factory.hpp:77] Creating layer accuracy
I0504 07:47:54.316418 19886 net.cpp:86] Creating Layer accuracy
I0504 07:47:54.316421 19886 net.cpp:408] accuracy <- ip3_ip3_0_split_0
I0504 07:47:54.316426 19886 net.cpp:408] accuracy <- label_cifar_1_split_0
I0504 07:47:54.316431 19886 net.cpp:382] accuracy -> accuracy
…
