…
I0504 15:21:20.368429  6353 net.cpp:296] The NetState phase (0) differed from the phase (1) specified by a rule in layer cifar
I0504 15:21:20.368464  6353 net.cpp:296] The NetState phase (0) differed from the phase (1) specified by a rule in layer accuracy
I0504 15:21:20.368599  6353 net.cpp:53] Initializing net from parameters: 
name: "CIFAR"
state {
  phase: TRAIN
  level: 0
  stage: ""
}
layer {
  name: "cifar"
  type: "Data"
  top: "data"
  top: "label"
  include {
    phase: TRAIN
  }
  transform_param {
    mean_file: "examples/cifar10/mean.binaryproto"
  }
  data_param {
    source: "examples/cifar10/cifar10_train_lmdb"
    batch_size: 111
    backend: LMDB
  }
}
layer {
  name: "conv0"
  type: "Convolution"
  bottom: "data"
  top: "conv0"
  param {
    lr_mult: 1
  }
  param {
    lr_mult: 2
  }
  convolution_param {
    num_output: 24
    pad: 2
    kernel_size: 5
    stride: 1
    weight_filler {
      type: "gaussian"
      std: 0.01
    }
    bias_filler {
      type: "constant"
    }
  }
}
layer {
  name: "Sigmoid0"
  type: "Sigmoid"
  bottom: "conv0"
  top: "Sigmoid0"
}
layer {
  name: "pool0"
  type: "Pooling"
  bottom: "Sigmoid0"
  top: "pool0"
  pooling_param {
    pool: AVE
    kernel_size: 3
    stride: 2
  }
}
layer {
  name: "conv1"
  type: "Convolution"
  bottom: "pool0"
  top: "conv1"
  param {
    lr_mult: 1
  }
  param {
    lr_mult: 2
  }
  convolution_param {
    num_output: 216
    pad: 2
    kernel_size: 5
    stride: 1
    weight_filler {
      type: "gaussian"
      std: 0.01
    }
    bias_filler {
      type: "constant"
    }
  }
}
layer {
  name: "Sigmoid1"
  type: "Sigmoid"
  bottom: "conv1"
  top: "Sigmoid1"
}
layer {
  name: "pool1"
  type: "Pooling"
  bottom: "Sigmoid1"
  top: "pool1"
  pooling_param {
    pool: AVE
    kernel_size: 3
    stride: 2
  }
}
layer {
  name: "ip1"
  type: "InnerProduct"
  bottom: "pool1"
  top: "ip1"
  param {
    lr_mult: 1
  }
  param {
    lr_mult: 2
  }
  inner_product_param {
    num_output: 180
    weight_filler {
      type: "gaussian"
      std: 0.01
    }
    bias_filler {
      type: "constant"
    }
  }
}
layer {
  name: "relu1"
  type: "ReLU"
  bottom: "ip1"
  top: "ip1"
}
layer {
  name: "ip2"
  type: "InnerProduct"
  bottom: "ip1"
  top: "ip2"
  param {
    lr_mult: 1
  }
  param {
    lr_mult: 2
  }
  inner_product_param {
    num_output: 180
    weight_filler {
      type: "gaussian"
      std: 0.01
    }
    bias_filler {
      type: "constant"
    }
  }
}
layer {
  name: "relu2"
  type: "ReLU"
  bottom: "ip2"
  top: "ip2"
}
layer {
  name: "ip3"
  type: "InnerProduct"
  bottom: "ip2"
  top: "ip3"
  param {
    lr_mult: 1
  }
  param {
    lr_mult: 2
  }
  inner_product_param {
    num_output: 10
    weight_filler {
      type: "gaussian"
      std: 0.01
    }
    bias_filler {
      type: "constant"
    }
  }
}
layer {
  name: "loss"
  type: "SoftmaxWithLoss"
  bottom: "ip3"
  bottom: "label"
  top: "loss"
}
I0504 15:21:20.368677  6353 layer_factory.hpp:77] Creating layer cifar
I0504 15:21:20.368760  6353 db_lmdb.cpp:35] Opened lmdb examples/cifar10/cifar10_train_lmdb
I0504 15:21:20.368782  6353 net.cpp:86] Creating Layer cifar
I0504 15:21:20.368793  6353 net.cpp:382] cifar -> data
I0504 15:21:20.368850  6353 net.cpp:382] cifar -> label
I0504 15:21:20.368861  6353 data_transformer.cpp:25] Loading mean file from: examples/cifar10/mean.binaryproto
I0504 15:21:20.370796  6353 data_layer.cpp:45] output data size: 111,3,32,32
I0504 15:21:20.377503  6353 net.cpp:124] Setting up cifar
I0504 15:21:20.377517  6353 net.cpp:131] Top shape: 111 3 32 32 (340992)
I0504 15:21:20.377538  6353 net.cpp:131] Top shape: 111 (111)
I0504 15:21:20.377542  6353 net.cpp:139] Memory required for data: 1364412
I0504 15:21:20.377547  6353 layer_factory.hpp:77] Creating layer conv0
I0504 15:21:20.377562  6353 net.cpp:86] Creating Layer conv0
I0504 15:21:20.377566  6353 net.cpp:408] conv0 <- data
I0504 15:21:20.377593  6353 net.cpp:382] conv0 -> conv0
I0504 15:21:20.603441  6353 net.cpp:124] Setting up conv0
I0504 15:21:20.603482  6353 net.cpp:131] Top shape: 111 24 32 32 (2727936)
I0504 15:21:20.603487  6353 net.cpp:139] Memory required for data: 12276156
I0504 15:21:20.603502  6353 layer_factory.hpp:77] Creating layer Sigmoid0
I0504 15:21:20.603513  6353 net.cpp:86] Creating Layer Sigmoid0
I0504 15:21:20.603518  6353 net.cpp:408] Sigmoid0 <- conv0
I0504 15:21:20.603523  6353 net.cpp:382] Sigmoid0 -> Sigmoid0
I0504 15:21:20.603721  6353 net.cpp:124] Setting up Sigmoid0
I0504 15:21:20.603754  6353 net.cpp:131] Top shape: 111 24 32 32 (2727936)
I0504 15:21:20.603757  6353 net.cpp:139] Memory required for data: 23187900
I0504 15:21:20.603776  6353 layer_factory.hpp:77] Creating layer pool0
I0504 15:21:20.603783  6353 net.cpp:86] Creating Layer pool0
I0504 15:21:20.603786  6353 net.cpp:408] pool0 <- Sigmoid0
I0504 15:21:20.603791  6353 net.cpp:382] pool0 -> pool0
I0504 15:21:20.604545  6353 net.cpp:124] Setting up pool0
I0504 15:21:20.604573  6353 net.cpp:131] Top shape: 111 24 16 16 (681984)
I0504 15:21:20.604578  6353 net.cpp:139] Memory required for data: 25915836
I0504 15:21:20.604580  6353 layer_factory.hpp:77] Creating layer conv1
I0504 15:21:20.604593  6353 net.cpp:86] Creating Layer conv1
I0504 15:21:20.604596  6353 net.cpp:408] conv1 <- pool0
I0504 15:21:20.604602  6353 net.cpp:382] conv1 -> conv1
I0504 15:21:20.609752  6353 net.cpp:124] Setting up conv1
I0504 15:21:20.609766  6353 net.cpp:131] Top shape: 111 216 16 16 (6137856)
I0504 15:21:20.609768  6353 net.cpp:139] Memory required for data: 50467260
I0504 15:21:20.609776  6353 layer_factory.hpp:77] Creating layer Sigmoid1
I0504 15:21:20.609781  6353 net.cpp:86] Creating Layer Sigmoid1
I0504 15:21:20.609784  6353 net.cpp:408] Sigmoid1 <- conv1
I0504 15:21:20.609788  6353 net.cpp:382] Sigmoid1 -> Sigmoid1
I0504 15:21:20.609993  6353 net.cpp:124] Setting up Sigmoid1
I0504 15:21:20.610002  6353 net.cpp:131] Top shape: 111 216 16 16 (6137856)
I0504 15:21:20.610007  6353 net.cpp:139] Memory required for data: 75018684
I0504 15:21:20.610009  6353 layer_factory.hpp:77] Creating layer pool1
I0504 15:21:20.610015  6353 net.cpp:86] Creating Layer pool1
I0504 15:21:20.610018  6353 net.cpp:408] pool1 <- Sigmoid1
I0504 15:21:20.610023  6353 net.cpp:382] pool1 -> pool1
I0504 15:21:20.610182  6353 net.cpp:124] Setting up pool1
I0504 15:21:20.610189  6353 net.cpp:131] Top shape: 111 216 8 8 (1534464)
I0504 15:21:20.610193  6353 net.cpp:139] Memory required for data: 81156540
I0504 15:21:20.610195  6353 layer_factory.hpp:77] Creating layer ip1
I0504 15:21:20.610203  6353 net.cpp:86] Creating Layer ip1
I0504 15:21:20.610206  6353 net.cpp:408] ip1 <- pool1
I0504 15:21:20.610210  6353 net.cpp:382] ip1 -> ip1
I0504 15:21:20.672374  6353 net.cpp:124] Setting up ip1
I0504 15:21:20.672385  6353 net.cpp:131] Top shape: 111 180 (19980)
I0504 15:21:20.672405  6353 net.cpp:139] Memory required for data: 81236460
I0504 15:21:20.672413  6353 layer_factory.hpp:77] Creating layer relu1
I0504 15:21:20.672420  6353 net.cpp:86] Creating Layer relu1
I0504 15:21:20.672425  6353 net.cpp:408] relu1 <- ip1
I0504 15:21:20.672428  6353 net.cpp:369] relu1 -> ip1 (in-place)
I0504 15:21:20.672605  6353 net.cpp:124] Setting up relu1
I0504 15:21:20.672613  6353 net.cpp:131] Top shape: 111 180 (19980)
I0504 15:21:20.672616  6353 net.cpp:139] Memory required for data: 81316380
I0504 15:21:20.672619  6353 layer_factory.hpp:77] Creating layer ip2
I0504 15:21:20.672626  6353 net.cpp:86] Creating Layer ip2
I0504 15:21:20.672629  6353 net.cpp:408] ip2 <- ip1
I0504 15:21:20.672647  6353 net.cpp:382] ip2 -> ip2
I0504 15:21:20.674656  6353 net.cpp:124] Setting up ip2
I0504 15:21:20.674685  6353 net.cpp:131] Top shape: 111 180 (19980)
I0504 15:21:20.674688  6353 net.cpp:139] Memory required for data: 81396300
I0504 15:21:20.674695  6353 layer_factory.hpp:77] Creating layer relu2
I0504 15:21:20.674701  6353 net.cpp:86] Creating Layer relu2
I0504 15:21:20.674705  6353 net.cpp:408] relu2 <- ip2
I0504 15:21:20.674710  6353 net.cpp:369] relu2 -> ip2 (in-place)
I0504 15:21:20.675523  6353 net.cpp:124] Setting up relu2
I0504 15:21:20.675535  6353 net.cpp:131] Top shape: 111 180 (19980)
I0504 15:21:20.675554  6353 net.cpp:139] Memory required for data: 81476220
I0504 15:21:20.675557  6353 layer_factory.hpp:77] Creating layer ip3
I0504 15:21:20.675565  6353 net.cpp:86] Creating Layer ip3
I0504 15:21:20.675567  6353 net.cpp:408] ip3 <- ip2
I0504 15:21:20.675572  6353 net.cpp:382] ip3 -> ip3
I0504 15:21:20.675758  6353 net.cpp:124] Setting up ip3
I0504 15:21:20.675765  6353 net.cpp:131] Top shape: 111 10 (1110)
I0504 15:21:20.675770  6353 net.cpp:139] Memory required for data: 81480660
I0504 15:21:20.675777  6353 layer_factory.hpp:77] Creating layer loss
I0504 15:21:20.675782  6353 net.cpp:86] Creating Layer loss
I0504 15:21:20.675801  6353 net.cpp:408] loss <- ip3
I0504 15:21:20.675806  6353 net.cpp:408] loss <- label
I0504 15:21:20.675812  6353 net.cpp:382] loss -> loss
I0504 15:21:20.675825  6353 layer_factory.hpp:77] Creating layer loss
…
I0504 15:21:20.676574  6353 solver.cpp:173] Creating test net (#0) specified by net file: ECE595/cifar/train_test/var_everything_tiny/cifar_train_test_179.prototxt
I0504 15:21:20.676618  6353 net.cpp:296] The NetState phase (1) differed from the phase (0) specified by a rule in layer cifar
I0504 15:21:20.676714  6353 net.cpp:53] Initializing net from parameters: 
name: "CIFAR"
state {
  phase: TEST
}
layer {
  name: "cifar"
  type: "Data"
  top: "data"
  top: "label"
  include {
    phase: TEST
  }
  transform_param {
    mean_file: "examples/cifar10/mean.binaryproto"
  }
  data_param {
    source: "examples/cifar10/cifar10_test_lmdb"
    batch_size: 1000
    backend: LMDB
  }
}
layer {
  name: "conv0"
  type: "Convolution"
  bottom: "data"
  top: "conv0"
  param {
    lr_mult: 1
  }
  param {
    lr_mult: 2
  }
  convolution_param {
    num_output: 24
    pad: 2
    kernel_size: 5
    stride: 1
    weight_filler {
      type: "gaussian"
      std: 0.01
    }
    bias_filler {
      type: "constant"
    }
  }
}
layer {
  name: "Sigmoid0"
  type: "Sigmoid"
  bottom: "conv0"
  top: "Sigmoid0"
}
layer {
  name: "pool0"
  type: "Pooling"
  bottom: "Sigmoid0"
  top: "pool0"
  pooling_param {
    pool: AVE
    kernel_size: 3
    stride: 2
  }
}
layer {
  name: "conv1"
  type: "Convolution"
  bottom: "pool0"
  top: "conv1"
  param {
    lr_mult: 1
  }
  param {
    lr_mult: 2
  }
  convolution_param {
    num_output: 216
    pad: 2
    kernel_size: 5
    stride: 1
    weight_filler {
      type: "gaussian"
      std: 0.01
    }
    bias_filler {
      type: "constant"
    }
  }
}
layer {
  name: "Sigmoid1"
  type: "Sigmoid"
  bottom: "conv1"
  top: "Sigmoid1"
}
layer {
  name: "pool1"
  type: "Pooling"
  bottom: "Sigmoid1"
  top: "pool1"
  pooling_param {
    pool: AVE
    kernel_size: 3
    stride: 2
  }
}
layer {
  name: "ip1"
  type: "InnerProduct"
  bottom: "pool1"
  top: "ip1"
  param {
    lr_mult: 1
  }
  param {
    lr_mult: 2
  }
  inner_product_param {
    num_output: 180
    weight_filler {
      type: "gaussian"
      std: 0.01
    }
    bias_filler {
      type: "constant"
    }
  }
}
layer {
  name: "relu1"
  type: "ReLU"
  bottom: "ip1"
  top: "ip1"
}
layer {
  name: "ip2"
  type: "InnerProduct"
  bottom: "ip1"
  top: "ip2"
  param {
    lr_mult: 1
  }
  param {
    lr_mult: 2
  }
  inner_product_param {
    num_output: 180
    weight_filler {
      type: "gaussian"
      std: 0.01
    }
    bias_filler {
      type: "constant"
    }
  }
}
layer {
  name: "relu2"
  type: "ReLU"
  bottom: "ip2"
  top: "ip2"
}
layer {
  name: "ip3"
  type: "InnerProduct"
  bottom: "ip2"
  top: "ip3"
  param {
    lr_mult: 1
  }
  param {
    lr_mult: 2
  }
  inner_product_param {
    num_output: 10
    weight_filler {
      type: "gaussian"
      std: 0.01
    }
    bias_filler {
      type: "constant"
    }
  }
}
layer {
  name: "accuracy"
  type: "Accuracy"
  bottom: "ip3"
  bottom: "label"
  top: "accuracy"
  include {
    phase: TEST
  }
}
layer {
  name: "loss"
  type: "SoftmaxWithLoss"
  bottom: "ip3"
  bottom: "label"
  top: "loss"
}
I0504 15:21:20.676796  6353 layer_factory.hpp:77] Creating layer cifar
I0504 15:21:20.676857  6353 db_lmdb.cpp:35] Opened lmdb examples/cifar10/cifar10_test_lmdb
I0504 15:21:20.676870  6353 net.cpp:86] Creating Layer cifar
I0504 15:21:20.676875  6353 net.cpp:382] cifar -> data
I0504 15:21:20.676883  6353 net.cpp:382] cifar -> label
I0504 15:21:20.676890  6353 data_transformer.cpp:25] Loading mean file from: examples/cifar10/mean.binaryproto
I0504 15:21:20.677067  6353 data_layer.cpp:45] output data size: 1000,3,32,32
I0504 15:21:20.698663  6353 net.cpp:124] Setting up cifar
I0504 15:21:20.698704  6353 net.cpp:131] Top shape: 1000 3 32 32 (3072000)
I0504 15:21:20.698710  6353 net.cpp:131] Top shape: 1000 (1000)
I0504 15:21:20.698714  6353 net.cpp:139] Memory required for data: 12292000
I0504 15:21:20.698719  6353 layer_factory.hpp:77] Creating layer label_cifar_1_split
I0504 15:21:20.698731  6353 net.cpp:86] Creating Layer label_cifar_1_split
I0504 15:21:20.698735  6353 net.cpp:408] label_cifar_1_split <- label
I0504 15:21:20.698741  6353 net.cpp:382] label_cifar_1_split -> label_cifar_1_split_0
I0504 15:21:20.698766  6353 net.cpp:382] label_cifar_1_split -> label_cifar_1_split_1
I0504 15:21:20.698879  6353 net.cpp:124] Setting up label_cifar_1_split
I0504 15:21:20.698886  6353 net.cpp:131] Top shape: 1000 (1000)
I0504 15:21:20.698890  6353 net.cpp:131] Top shape: 1000 (1000)
I0504 15:21:20.698894  6353 net.cpp:139] Memory required for data: 12300000
I0504 15:21:20.698896  6353 layer_factory.hpp:77] Creating layer conv0
I0504 15:21:20.698909  6353 net.cpp:86] Creating Layer conv0
I0504 15:21:20.698912  6353 net.cpp:408] conv0 <- data
I0504 15:21:20.698917  6353 net.cpp:382] conv0 -> conv0
I0504 15:21:20.700548  6353 net.cpp:124] Setting up conv0
I0504 15:21:20.700562  6353 net.cpp:131] Top shape: 1000 24 32 32 (24576000)
I0504 15:21:20.700565  6353 net.cpp:139] Memory required for data: 110604000
I0504 15:21:20.700592  6353 layer_factory.hpp:77] Creating layer Sigmoid0
I0504 15:21:20.700598  6353 net.cpp:86] Creating Layer Sigmoid0
I0504 15:21:20.700601  6353 net.cpp:408] Sigmoid0 <- conv0
I0504 15:21:20.700606  6353 net.cpp:382] Sigmoid0 -> Sigmoid0
I0504 15:21:20.700911  6353 net.cpp:124] Setting up Sigmoid0
I0504 15:21:20.700933  6353 net.cpp:131] Top shape: 1000 24 32 32 (24576000)
I0504 15:21:20.700937  6353 net.cpp:139] Memory required for data: 208908000
I0504 15:21:20.700940  6353 layer_factory.hpp:77] Creating layer pool0
I0504 15:21:20.700948  6353 net.cpp:86] Creating Layer pool0
I0504 15:21:20.700953  6353 net.cpp:408] pool0 <- Sigmoid0
I0504 15:21:20.700958  6353 net.cpp:382] pool0 -> pool0
I0504 15:21:20.702128  6353 net.cpp:124] Setting up pool0
I0504 15:21:20.702138  6353 net.cpp:131] Top shape: 1000 24 16 16 (6144000)
I0504 15:21:20.702157  6353 net.cpp:139] Memory required for data: 233484000
I0504 15:21:20.702160  6353 layer_factory.hpp:77] Creating layer conv1
I0504 15:21:20.702169  6353 net.cpp:86] Creating Layer conv1
I0504 15:21:20.702174  6353 net.cpp:408] conv1 <- pool0
I0504 15:21:20.702179  6353 net.cpp:382] conv1 -> conv1
I0504 15:21:20.707260  6353 net.cpp:124] Setting up conv1
I0504 15:21:20.707273  6353 net.cpp:131] Top shape: 1000 216 16 16 (55296000)
I0504 15:21:20.707293  6353 net.cpp:139] Memory required for data: 454668000
I0504 15:21:20.707303  6353 layer_factory.hpp:77] Creating layer Sigmoid1
I0504 15:21:20.707309  6353 net.cpp:86] Creating Layer Sigmoid1
I0504 15:21:20.707311  6353 net.cpp:408] Sigmoid1 <- conv1
I0504 15:21:20.707316  6353 net.cpp:382] Sigmoid1 -> Sigmoid1
I0504 15:21:20.707522  6353 net.cpp:124] Setting up Sigmoid1
I0504 15:21:20.707532  6353 net.cpp:131] Top shape: 1000 216 16 16 (55296000)
I0504 15:21:20.707536  6353 net.cpp:139] Memory required for data: 675852000
I0504 15:21:20.707540  6353 layer_factory.hpp:77] Creating layer pool1
I0504 15:21:20.707545  6353 net.cpp:86] Creating Layer pool1
I0504 15:21:20.707548  6353 net.cpp:408] pool1 <- Sigmoid1
I0504 15:21:20.707553  6353 net.cpp:382] pool1 -> pool1
I0504 15:21:20.708348  6353 net.cpp:124] Setting up pool1
I0504 15:21:20.708359  6353 net.cpp:131] Top shape: 1000 216 8 8 (13824000)
I0504 15:21:20.708377  6353 net.cpp:139] Memory required for data: 731148000
I0504 15:21:20.708381  6353 layer_factory.hpp:77] Creating layer ip1
I0504 15:21:20.708391  6353 net.cpp:86] Creating Layer ip1
I0504 15:21:20.708395  6353 net.cpp:408] ip1 <- pool1
I0504 15:21:20.708400  6353 net.cpp:382] ip1 -> ip1
I0504 15:21:20.775548  6353 net.cpp:124] Setting up ip1
I0504 15:21:20.775588  6353 net.cpp:131] Top shape: 1000 180 (180000)
I0504 15:21:20.775591  6353 net.cpp:139] Memory required for data: 731868000
I0504 15:21:20.775604  6353 layer_factory.hpp:77] Creating layer relu1
I0504 15:21:20.775611  6353 net.cpp:86] Creating Layer relu1
I0504 15:21:20.775615  6353 net.cpp:408] relu1 <- ip1
I0504 15:21:20.775620  6353 net.cpp:369] relu1 -> ip1 (in-place)
I0504 15:21:20.775857  6353 net.cpp:124] Setting up relu1
I0504 15:21:20.775867  6353 net.cpp:131] Top shape: 1000 180 (180000)
I0504 15:21:20.775871  6353 net.cpp:139] Memory required for data: 732588000
I0504 15:21:20.775874  6353 layer_factory.hpp:77] Creating layer ip2
I0504 15:21:20.775882  6353 net.cpp:86] Creating Layer ip2
I0504 15:21:20.775885  6353 net.cpp:408] ip2 <- ip1
I0504 15:21:20.775890  6353 net.cpp:382] ip2 -> ip2
I0504 15:21:20.776916  6353 net.cpp:124] Setting up ip2
I0504 15:21:20.776926  6353 net.cpp:131] Top shape: 1000 180 (180000)
I0504 15:21:20.776928  6353 net.cpp:139] Memory required for data: 733308000
I0504 15:21:20.776934  6353 layer_factory.hpp:77] Creating layer relu2
I0504 15:21:20.776939  6353 net.cpp:86] Creating Layer relu2
I0504 15:21:20.776942  6353 net.cpp:408] relu2 <- ip2
I0504 15:21:20.776947  6353 net.cpp:369] relu2 -> ip2 (in-place)
I0504 15:21:20.777129  6353 net.cpp:124] Setting up relu2
I0504 15:21:20.777138  6353 net.cpp:131] Top shape: 1000 180 (180000)
I0504 15:21:20.777156  6353 net.cpp:139] Memory required for data: 734028000
I0504 15:21:20.777159  6353 layer_factory.hpp:77] Creating layer ip3
I0504 15:21:20.777165  6353 net.cpp:86] Creating Layer ip3
I0504 15:21:20.777168  6353 net.cpp:408] ip3 <- ip2
I0504 15:21:20.777173  6353 net.cpp:382] ip3 -> ip3
I0504 15:21:20.777370  6353 net.cpp:124] Setting up ip3
I0504 15:21:20.777390  6353 net.cpp:131] Top shape: 1000 10 (10000)
I0504 15:21:20.777393  6353 net.cpp:139] Memory required for data: 734068000
I0504 15:21:20.777402  6353 layer_factory.hpp:77] Creating layer ip3_ip3_0_split
I0504 15:21:20.777408  6353 net.cpp:86] Creating Layer ip3_ip3_0_split
I0504 15:21:20.777411  6353 net.cpp:408] ip3_ip3_0_split <- ip3
I0504 15:21:20.777415  6353 net.cpp:382] ip3_ip3_0_split -> ip3_ip3_0_split_0
I0504 15:21:20.777421  6353 net.cpp:382] ip3_ip3_0_split -> ip3_ip3_0_split_1
I0504 15:21:20.777469  6353 net.cpp:124] Setting up ip3_ip3_0_split
I0504 15:21:20.777475  6353 net.cpp:131] Top shape: 1000 10 (10000)
I0504 15:21:20.777479  6353 net.cpp:131] Top shape: 1000 10 (10000)
I0504 15:21:20.777482  6353 net.cpp:139] Memory required for data: 734148000
I0504 15:21:20.777485  6353 layer_factory.hpp:77] Creating layer accuracy
I0504 15:21:20.777492  6353 net.cpp:86] Creating Layer accuracy
I0504 15:21:20.777494  6353 net.cpp:408] accuracy <- ip3_ip3_0_split_0
I0504 15:21:20.777498  6353 net.cpp:408] accuracy <- label_cifar_1_split_0
I0504 15:21:20.777503  6353 net.cpp:382] accuracy -> accuracy
…
