…
I0504 13:29:27.630817   587 net.cpp:296] The NetState phase (0) differed from the phase (1) specified by a rule in layer cifar
I0504 13:29:27.630838   587 net.cpp:296] The NetState phase (0) differed from the phase (1) specified by a rule in layer accuracy
I0504 13:29:27.630949   587 net.cpp:53] Initializing net from parameters: 
name: "CIFAR"
state {
  phase: TRAIN
  level: 0
  stage: ""
}
layer {
  name: "cifar"
  type: "Data"
  top: "data"
  top: "label"
  include {
    phase: TRAIN
  }
  transform_param {
    mean_file: "examples/cifar10/mean.binaryproto"
  }
  data_param {
    source: "examples/cifar10/cifar10_train_lmdb"
    batch_size: 111
    backend: LMDB
  }
}
layer {
  name: "conv0"
  type: "Convolution"
  bottom: "data"
  top: "conv0"
  param {
    lr_mult: 1
  }
  param {
    lr_mult: 2
  }
  convolution_param {
    num_output: 24
    pad: 2
    kernel_size: 5
    stride: 1
    weight_filler {
      type: "gaussian"
      std: 0.01
    }
    bias_filler {
      type: "constant"
    }
  }
}
layer {
  name: "Sigmoid0"
  type: "Sigmoid"
  bottom: "conv0"
  top: "Sigmoid0"
}
layer {
  name: "pool0"
  type: "Pooling"
  bottom: "Sigmoid0"
  top: "pool0"
  pooling_param {
    pool: AVE
    kernel_size: 3
    stride: 2
  }
}
layer {
  name: "conv1"
  type: "Convolution"
  bottom: "pool0"
  top: "conv1"
  param {
    lr_mult: 1
  }
  param {
    lr_mult: 2
  }
  convolution_param {
    num_output: 216
    pad: 2
    kernel_size: 3
    stride: 1
    weight_filler {
      type: "gaussian"
      std: 0.01
    }
    bias_filler {
      type: "constant"
    }
  }
}
layer {
  name: "Sigmoid1"
  type: "Sigmoid"
  bottom: "conv1"
  top: "Sigmoid1"
}
layer {
  name: "pool1"
  type: "Pooling"
  bottom: "Sigmoid1"
  top: "pool1"
  pooling_param {
    pool: AVE
    kernel_size: 3
    stride: 2
  }
}
layer {
  name: "ip1"
  type: "InnerProduct"
  bottom: "pool1"
  top: "ip1"
  param {
    lr_mult: 1
  }
  param {
    lr_mult: 2
  }
  inner_product_param {
    num_output: 60
    weight_filler {
      type: "gaussian"
      std: 0.01
    }
    bias_filler {
      type: "constant"
    }
  }
}
layer {
  name: "relu1"
  type: "ReLU"
  bottom: "ip1"
  top: "ip1"
}
layer {
  name: "ip2"
  type: "InnerProduct"
  bottom: "ip1"
  top: "ip2"
  param {
    lr_mult: 1
  }
  param {
    lr_mult: 2
  }
  inner_product_param {
    num_output: 180
    weight_filler {
      type: "gaussian"
      std: 0.01
    }
    bias_filler {
      type: "constant"
    }
  }
}
layer {
  name: "relu2"
  type: "ReLU"
  bottom: "ip2"
  top: "ip2"
}
layer {
  name: "ip3"
  type: "InnerProduct"
  bottom: "ip2"
  top: "ip3"
  param {
    lr_mult: 1
  }
  param {
    lr_mult: 2
  }
  inner_product_param {
    num_output: 10
    weight_filler {
      type: "gaussian"
      std: 0.01
    }
    bias_filler {
      type: "constant"
    }
  }
}
layer {
  name: "loss"
  type: "SoftmaxWithLoss"
  bottom: "ip3"
  bottom: "label"
  top: "loss"
}
I0504 13:29:27.631032   587 layer_factory.hpp:77] Creating layer cifar
I0504 13:29:27.631129   587 db_lmdb.cpp:35] Opened lmdb examples/cifar10/cifar10_train_lmdb
I0504 13:29:27.631155   587 net.cpp:86] Creating Layer cifar
I0504 13:29:27.631165   587 net.cpp:382] cifar -> data
I0504 13:29:27.631188   587 net.cpp:382] cifar -> label
I0504 13:29:27.631201   587 data_transformer.cpp:25] Loading mean file from: examples/cifar10/mean.binaryproto
I0504 13:29:27.633355   587 data_layer.cpp:45] output data size: 111,3,32,32
I0504 13:29:27.641347   587 net.cpp:124] Setting up cifar
I0504 13:29:27.641367   587 net.cpp:131] Top shape: 111 3 32 32 (340992)
I0504 13:29:27.641373   587 net.cpp:131] Top shape: 111 (111)
I0504 13:29:27.641377   587 net.cpp:139] Memory required for data: 1364412
I0504 13:29:27.641386   587 layer_factory.hpp:77] Creating layer conv0
I0504 13:29:27.641415   587 net.cpp:86] Creating Layer conv0
I0504 13:29:27.641424   587 net.cpp:408] conv0 <- data
I0504 13:29:27.641438   587 net.cpp:382] conv0 -> conv0
I0504 13:29:27.922401   587 net.cpp:124] Setting up conv0
I0504 13:29:27.922428   587 net.cpp:131] Top shape: 111 24 32 32 (2727936)
I0504 13:29:27.922433   587 net.cpp:139] Memory required for data: 12276156
I0504 13:29:27.922448   587 layer_factory.hpp:77] Creating layer Sigmoid0
I0504 13:29:27.922475   587 net.cpp:86] Creating Layer Sigmoid0
I0504 13:29:27.922479   587 net.cpp:408] Sigmoid0 <- conv0
I0504 13:29:27.922485   587 net.cpp:382] Sigmoid0 -> Sigmoid0
I0504 13:29:27.922683   587 net.cpp:124] Setting up Sigmoid0
I0504 13:29:27.922691   587 net.cpp:131] Top shape: 111 24 32 32 (2727936)
I0504 13:29:27.922694   587 net.cpp:139] Memory required for data: 23187900
I0504 13:29:27.922698   587 layer_factory.hpp:77] Creating layer pool0
I0504 13:29:27.922704   587 net.cpp:86] Creating Layer pool0
I0504 13:29:27.922708   587 net.cpp:408] pool0 <- Sigmoid0
I0504 13:29:27.922711   587 net.cpp:382] pool0 -> pool0
I0504 13:29:27.923439   587 net.cpp:124] Setting up pool0
I0504 13:29:27.923451   587 net.cpp:131] Top shape: 111 24 16 16 (681984)
I0504 13:29:27.923455   587 net.cpp:139] Memory required for data: 25915836
I0504 13:29:27.923458   587 layer_factory.hpp:77] Creating layer conv1
I0504 13:29:27.923470   587 net.cpp:86] Creating Layer conv1
I0504 13:29:27.923473   587 net.cpp:408] conv1 <- pool0
I0504 13:29:27.923478   587 net.cpp:382] conv1 -> conv1
I0504 13:29:27.927201   587 net.cpp:124] Setting up conv1
I0504 13:29:27.927215   587 net.cpp:131] Top shape: 111 216 18 18 (7768224)
I0504 13:29:27.927218   587 net.cpp:139] Memory required for data: 56988732
I0504 13:29:27.927227   587 layer_factory.hpp:77] Creating layer Sigmoid1
I0504 13:29:27.927235   587 net.cpp:86] Creating Layer Sigmoid1
I0504 13:29:27.927238   587 net.cpp:408] Sigmoid1 <- conv1
I0504 13:29:27.927243   587 net.cpp:382] Sigmoid1 -> Sigmoid1
I0504 13:29:27.927448   587 net.cpp:124] Setting up Sigmoid1
I0504 13:29:27.927459   587 net.cpp:131] Top shape: 111 216 18 18 (7768224)
I0504 13:29:27.927461   587 net.cpp:139] Memory required for data: 88061628
I0504 13:29:27.927464   587 layer_factory.hpp:77] Creating layer pool1
I0504 13:29:27.927469   587 net.cpp:86] Creating Layer pool1
I0504 13:29:27.927472   587 net.cpp:408] pool1 <- Sigmoid1
I0504 13:29:27.927479   587 net.cpp:382] pool1 -> pool1
I0504 13:29:27.927649   587 net.cpp:124] Setting up pool1
I0504 13:29:27.927664   587 net.cpp:131] Top shape: 111 216 9 9 (1942056)
I0504 13:29:27.927666   587 net.cpp:139] Memory required for data: 95829852
I0504 13:29:27.927670   587 layer_factory.hpp:77] Creating layer ip1
I0504 13:29:27.927678   587 net.cpp:86] Creating Layer ip1
I0504 13:29:27.927681   587 net.cpp:408] ip1 <- pool1
I0504 13:29:27.927686   587 net.cpp:382] ip1 -> ip1
I0504 13:29:27.955312   587 net.cpp:124] Setting up ip1
I0504 13:29:27.955323   587 net.cpp:131] Top shape: 111 60 (6660)
I0504 13:29:27.955327   587 net.cpp:139] Memory required for data: 95856492
I0504 13:29:27.955334   587 layer_factory.hpp:77] Creating layer relu1
I0504 13:29:27.955343   587 net.cpp:86] Creating Layer relu1
I0504 13:29:27.955345   587 net.cpp:408] relu1 <- ip1
I0504 13:29:27.955350   587 net.cpp:369] relu1 -> ip1 (in-place)
I0504 13:29:27.955528   587 net.cpp:124] Setting up relu1
I0504 13:29:27.955538   587 net.cpp:131] Top shape: 111 60 (6660)
I0504 13:29:27.955540   587 net.cpp:139] Memory required for data: 95883132
I0504 13:29:27.955543   587 layer_factory.hpp:77] Creating layer ip2
I0504 13:29:27.955549   587 net.cpp:86] Creating Layer ip2
I0504 13:29:27.955552   587 net.cpp:408] ip2 <- ip1
I0504 13:29:27.955571   587 net.cpp:382] ip2 -> ip2
I0504 13:29:27.956825   587 net.cpp:124] Setting up ip2
I0504 13:29:27.956853   587 net.cpp:131] Top shape: 111 180 (19980)
I0504 13:29:27.956856   587 net.cpp:139] Memory required for data: 95963052
I0504 13:29:27.956862   587 layer_factory.hpp:77] Creating layer relu2
I0504 13:29:27.956867   587 net.cpp:86] Creating Layer relu2
I0504 13:29:27.956871   587 net.cpp:408] relu2 <- ip2
I0504 13:29:27.956890   587 net.cpp:369] relu2 -> ip2 (in-place)
I0504 13:29:27.957742   587 net.cpp:124] Setting up relu2
I0504 13:29:27.957756   587 net.cpp:131] Top shape: 111 180 (19980)
I0504 13:29:27.957761   587 net.cpp:139] Memory required for data: 96042972
I0504 13:29:27.957764   587 layer_factory.hpp:77] Creating layer ip3
I0504 13:29:27.957773   587 net.cpp:86] Creating Layer ip3
I0504 13:29:27.957792   587 net.cpp:408] ip3 <- ip2
I0504 13:29:27.957814   587 net.cpp:382] ip3 -> ip3
I0504 13:29:27.958053   587 net.cpp:124] Setting up ip3
I0504 13:29:27.958062   587 net.cpp:131] Top shape: 111 10 (1110)
I0504 13:29:27.958065   587 net.cpp:139] Memory required for data: 96047412
I0504 13:29:27.958073   587 layer_factory.hpp:77] Creating layer loss
I0504 13:29:27.958079   587 net.cpp:86] Creating Layer loss
I0504 13:29:27.958082   587 net.cpp:408] loss <- ip3
I0504 13:29:27.958086   587 net.cpp:408] loss <- label
I0504 13:29:27.958092   587 net.cpp:382] loss -> loss
I0504 13:29:27.958109   587 layer_factory.hpp:77] Creating layer loss
…
I0504 13:29:27.958937   587 solver.cpp:173] Creating test net (#0) specified by net file: ECE595/cifar/train_test/var_everything_tiny/cifar_train_test_164.prototxt
I0504 13:29:27.958983   587 net.cpp:296] The NetState phase (1) differed from the phase (0) specified by a rule in layer cifar
I0504 13:29:27.959122   587 net.cpp:53] Initializing net from parameters: 
name: "CIFAR"
state {
  phase: TEST
}
layer {
  name: "cifar"
  type: "Data"
  top: "data"
  top: "label"
  include {
    phase: TEST
  }
  transform_param {
    mean_file: "examples/cifar10/mean.binaryproto"
  }
  data_param {
    source: "examples/cifar10/cifar10_test_lmdb"
    batch_size: 1000
    backend: LMDB
  }
}
layer {
  name: "conv0"
  type: "Convolution"
  bottom: "data"
  top: "conv0"
  param {
    lr_mult: 1
  }
  param {
    lr_mult: 2
  }
  convolution_param {
    num_output: 24
    pad: 2
    kernel_size: 5
    stride: 1
    weight_filler {
      type: "gaussian"
      std: 0.01
    }
    bias_filler {
      type: "constant"
    }
  }
}
layer {
  name: "Sigmoid0"
  type: "Sigmoid"
  bottom: "conv0"
  top: "Sigmoid0"
}
layer {
  name: "pool0"
  type: "Pooling"
  bottom: "Sigmoid0"
  top: "pool0"
  pooling_param {
    pool: AVE
    kernel_size: 3
    stride: 2
  }
}
layer {
  name: "conv1"
  type: "Convolution"
  bottom: "pool0"
  top: "conv1"
  param {
    lr_mult: 1
  }
  param {
    lr_mult: 2
  }
  convolution_param {
    num_output: 216
    pad: 2
    kernel_size: 3
    stride: 1
    weight_filler {
      type: "gaussian"
      std: 0.01
    }
    bias_filler {
      type: "constant"
    }
  }
}
layer {
  name: "Sigmoid1"
  type: "Sigmoid"
  bottom: "conv1"
  top: "Sigmoid1"
}
layer {
  name: "pool1"
  type: "Pooling"
  bottom: "Sigmoid1"
  top: "pool1"
  pooling_param {
    pool: AVE
    kernel_size: 3
    stride: 2
  }
}
layer {
  name: "ip1"
  type: "InnerProduct"
  bottom: "pool1"
  top: "ip1"
  param {
    lr_mult: 1
  }
  param {
    lr_mult: 2
  }
  inner_product_param {
    num_output: 60
    weight_filler {
      type: "gaussian"
      std: 0.01
    }
    bias_filler {
      type: "constant"
    }
  }
}
layer {
  name: "relu1"
  type: "ReLU"
  bottom: "ip1"
  top: "ip1"
}
layer {
  name: "ip2"
  type: "InnerProduct"
  bottom: "ip1"
  top: "ip2"
  param {
    lr_mult: 1
  }
  param {
    lr_mult: 2
  }
  inner_product_param {
    num_output: 180
    weight_filler {
      type: "gaussian"
      std: 0.01
    }
    bias_filler {
      type: "constant"
    }
  }
}
layer {
  name: "relu2"
  type: "ReLU"
  bottom: "ip2"
  top: "ip2"
}
layer {
  name: "ip3"
  type: "InnerProduct"
  bottom: "ip2"
  top: "ip3"
  param {
    lr_mult: 1
  }
  param {
    lr_mult: 2
  }
  inner_product_param {
    num_output: 10
    weight_filler {
      type: "gaussian"
      std: 0.01
    }
    bias_filler {
      type: "constant"
    }
  }
}
layer {
  name: "accuracy"
  type: "Accuracy"
  bottom: "ip3"
  bottom: "label"
  top: "accuracy"
  include {
    phase: TEST
  }
}
layer {
  name: "loss"
  type: "SoftmaxWithLoss"
  bottom: "ip3"
  bottom: "label"
  top: "loss"
}
I0504 13:29:27.959249   587 layer_factory.hpp:77] Creating layer cifar
I0504 13:29:27.959292   587 db_lmdb.cpp:35] Opened lmdb examples/cifar10/cifar10_test_lmdb
I0504 13:29:27.959303   587 net.cpp:86] Creating Layer cifar
I0504 13:29:27.959308   587 net.cpp:382] cifar -> data
I0504 13:29:27.959316   587 net.cpp:382] cifar -> label
I0504 13:29:27.959322   587 data_transformer.cpp:25] Loading mean file from: examples/cifar10/mean.binaryproto
I0504 13:29:27.959461   587 data_layer.cpp:45] output data size: 1000,3,32,32
I0504 13:29:27.980723   587 net.cpp:124] Setting up cifar
I0504 13:29:27.980765   587 net.cpp:131] Top shape: 1000 3 32 32 (3072000)
I0504 13:29:27.980770   587 net.cpp:131] Top shape: 1000 (1000)
I0504 13:29:27.980773   587 net.cpp:139] Memory required for data: 12292000
I0504 13:29:27.980778   587 layer_factory.hpp:77] Creating layer label_cifar_1_split
I0504 13:29:27.980796   587 net.cpp:86] Creating Layer label_cifar_1_split
I0504 13:29:27.980801   587 net.cpp:408] label_cifar_1_split <- label
I0504 13:29:27.980806   587 net.cpp:382] label_cifar_1_split -> label_cifar_1_split_0
I0504 13:29:27.980854   587 net.cpp:382] label_cifar_1_split -> label_cifar_1_split_1
I0504 13:29:27.980983   587 net.cpp:124] Setting up label_cifar_1_split
I0504 13:29:27.980991   587 net.cpp:131] Top shape: 1000 (1000)
I0504 13:29:27.980995   587 net.cpp:131] Top shape: 1000 (1000)
I0504 13:29:27.980998   587 net.cpp:139] Memory required for data: 12300000
I0504 13:29:27.981001   587 layer_factory.hpp:77] Creating layer conv0
I0504 13:29:27.981014   587 net.cpp:86] Creating Layer conv0
I0504 13:29:27.981019   587 net.cpp:408] conv0 <- data
I0504 13:29:27.981027   587 net.cpp:382] conv0 -> conv0
I0504 13:29:27.982692   587 net.cpp:124] Setting up conv0
I0504 13:29:27.982720   587 net.cpp:131] Top shape: 1000 24 32 32 (24576000)
I0504 13:29:27.982723   587 net.cpp:139] Memory required for data: 110604000
I0504 13:29:27.982734   587 layer_factory.hpp:77] Creating layer Sigmoid0
I0504 13:29:27.982740   587 net.cpp:86] Creating Layer Sigmoid0
I0504 13:29:27.982743   587 net.cpp:408] Sigmoid0 <- conv0
I0504 13:29:27.982748   587 net.cpp:382] Sigmoid0 -> Sigmoid0
I0504 13:29:27.982957   587 net.cpp:124] Setting up Sigmoid0
I0504 13:29:27.982978   587 net.cpp:131] Top shape: 1000 24 32 32 (24576000)
I0504 13:29:27.982982   587 net.cpp:139] Memory required for data: 208908000
I0504 13:29:27.982985   587 layer_factory.hpp:77] Creating layer pool0
I0504 13:29:27.982995   587 net.cpp:86] Creating Layer pool0
I0504 13:29:27.982998   587 net.cpp:408] pool0 <- Sigmoid0
I0504 13:29:27.983014   587 net.cpp:382] pool0 -> pool0
I0504 13:29:27.983304   587 net.cpp:124] Setting up pool0
I0504 13:29:27.983314   587 net.cpp:131] Top shape: 1000 24 16 16 (6144000)
I0504 13:29:27.983330   587 net.cpp:139] Memory required for data: 233484000
I0504 13:29:27.983333   587 layer_factory.hpp:77] Creating layer conv1
I0504 13:29:27.983343   587 net.cpp:86] Creating Layer conv1
I0504 13:29:27.983346   587 net.cpp:408] conv1 <- pool0
I0504 13:29:27.983352   587 net.cpp:382] conv1 -> conv1
I0504 13:29:27.986871   587 net.cpp:124] Setting up conv1
I0504 13:29:27.986901   587 net.cpp:131] Top shape: 1000 216 18 18 (69984000)
I0504 13:29:27.986905   587 net.cpp:139] Memory required for data: 513420000
I0504 13:29:27.986913   587 layer_factory.hpp:77] Creating layer Sigmoid1
I0504 13:29:27.986920   587 net.cpp:86] Creating Layer Sigmoid1
I0504 13:29:27.986924   587 net.cpp:408] Sigmoid1 <- conv1
I0504 13:29:27.986929   587 net.cpp:382] Sigmoid1 -> Sigmoid1
I0504 13:29:27.987114   587 net.cpp:124] Setting up Sigmoid1
I0504 13:29:27.987123   587 net.cpp:131] Top shape: 1000 216 18 18 (69984000)
I0504 13:29:27.987126   587 net.cpp:139] Memory required for data: 793356000
I0504 13:29:27.987130   587 layer_factory.hpp:77] Creating layer pool1
I0504 13:29:27.987136   587 net.cpp:86] Creating Layer pool1
I0504 13:29:27.987139   587 net.cpp:408] pool1 <- Sigmoid1
I0504 13:29:27.987143   587 net.cpp:382] pool1 -> pool1
I0504 13:29:27.987880   587 net.cpp:124] Setting up pool1
I0504 13:29:27.987892   587 net.cpp:131] Top shape: 1000 216 9 9 (17496000)
I0504 13:29:27.987911   587 net.cpp:139] Memory required for data: 863340000
I0504 13:29:27.987915   587 layer_factory.hpp:77] Creating layer ip1
I0504 13:29:27.987924   587 net.cpp:86] Creating Layer ip1
I0504 13:29:27.987928   587 net.cpp:408] ip1 <- pool1
I0504 13:29:27.987933   587 net.cpp:382] ip1 -> ip1
I0504 13:29:28.017052   587 net.cpp:124] Setting up ip1
I0504 13:29:28.017084   587 net.cpp:131] Top shape: 1000 60 (60000)
I0504 13:29:28.017088   587 net.cpp:139] Memory required for data: 863580000
I0504 13:29:28.017097   587 layer_factory.hpp:77] Creating layer relu1
I0504 13:29:28.017104   587 net.cpp:86] Creating Layer relu1
I0504 13:29:28.017108   587 net.cpp:408] relu1 <- ip1
I0504 13:29:28.017114   587 net.cpp:369] relu1 -> ip1 (in-place)
I0504 13:29:28.017316   587 net.cpp:124] Setting up relu1
I0504 13:29:28.017325   587 net.cpp:131] Top shape: 1000 60 (60000)
I0504 13:29:28.017328   587 net.cpp:139] Memory required for data: 863820000
I0504 13:29:28.017331   587 layer_factory.hpp:77] Creating layer ip2
I0504 13:29:28.017339   587 net.cpp:86] Creating Layer ip2
I0504 13:29:28.017343   587 net.cpp:408] ip2 <- ip1
I0504 13:29:28.017349   587 net.cpp:382] ip2 -> ip2
I0504 13:29:28.017793   587 net.cpp:124] Setting up ip2
I0504 13:29:28.017802   587 net.cpp:131] Top shape: 1000 180 (180000)
I0504 13:29:28.017822   587 net.cpp:139] Memory required for data: 864540000
I0504 13:29:28.017827   587 layer_factory.hpp:77] Creating layer relu2
I0504 13:29:28.017832   587 net.cpp:86] Creating Layer relu2
I0504 13:29:28.017835   587 net.cpp:408] relu2 <- ip2
I0504 13:29:28.017839   587 net.cpp:369] relu2 -> ip2 (in-place)
I0504 13:29:28.018033   587 net.cpp:124] Setting up relu2
I0504 13:29:28.018041   587 net.cpp:131] Top shape: 1000 180 (180000)
I0504 13:29:28.018044   587 net.cpp:139] Memory required for data: 865260000
I0504 13:29:28.018048   587 layer_factory.hpp:77] Creating layer ip3
I0504 13:29:28.018057   587 net.cpp:86] Creating Layer ip3
I0504 13:29:28.018060   587 net.cpp:408] ip3 <- ip2
I0504 13:29:28.018065   587 net.cpp:382] ip3 -> ip3
I0504 13:29:28.018227   587 net.cpp:124] Setting up ip3
I0504 13:29:28.018247   587 net.cpp:131] Top shape: 1000 10 (10000)
I0504 13:29:28.018251   587 net.cpp:139] Memory required for data: 865300000
I0504 13:29:28.018260   587 layer_factory.hpp:77] Creating layer ip3_ip3_0_split
I0504 13:29:28.018267   587 net.cpp:86] Creating Layer ip3_ip3_0_split
I0504 13:29:28.018270   587 net.cpp:408] ip3_ip3_0_split <- ip3
I0504 13:29:28.018275   587 net.cpp:382] ip3_ip3_0_split -> ip3_ip3_0_split_0
I0504 13:29:28.018281   587 net.cpp:382] ip3_ip3_0_split -> ip3_ip3_0_split_1
I0504 13:29:28.018316   587 net.cpp:124] Setting up ip3_ip3_0_split
I0504 13:29:28.018323   587 net.cpp:131] Top shape: 1000 10 (10000)
I0504 13:29:28.018327   587 net.cpp:131] Top shape: 1000 10 (10000)
I0504 13:29:28.018331   587 net.cpp:139] Memory required for data: 865380000
I0504 13:29:28.018333   587 layer_factory.hpp:77] Creating layer accuracy
I0504 13:29:28.018340   587 net.cpp:86] Creating Layer accuracy
I0504 13:29:28.018343   587 net.cpp:408] accuracy <- ip3_ip3_0_split_0
I0504 13:29:28.018347   587 net.cpp:408] accuracy <- label_cifar_1_split_0
I0504 13:29:28.018362   587 net.cpp:382] accuracy -> accuracy
…
