…
I0504 09:16:11.037921 23304 net.cpp:296] The NetState phase (0) differed from the phase (1) specified by a rule in layer cifar
I0504 09:16:11.037941 23304 net.cpp:296] The NetState phase (0) differed from the phase (1) specified by a rule in layer accuracy
I0504 09:16:11.038053 23304 net.cpp:53] Initializing net from parameters: 
name: "CIFAR"
state {
  phase: TRAIN
  level: 0
  stage: ""
}
layer {
  name: "cifar"
  type: "Data"
  top: "data"
  top: "label"
  include {
    phase: TRAIN
  }
  transform_param {
    mean_file: "examples/cifar10/mean.binaryproto"
  }
  data_param {
    source: "examples/cifar10/cifar10_train_lmdb"
    batch_size: 111
    backend: LMDB
  }
}
layer {
  name: "conv0"
  type: "Convolution"
  bottom: "data"
  top: "conv0"
  param {
    lr_mult: 1
  }
  param {
    lr_mult: 2
  }
  convolution_param {
    num_output: 24
    pad: 2
    kernel_size: 3
    stride: 1
    weight_filler {
      type: "gaussian"
      std: 0.01
    }
    bias_filler {
      type: "constant"
    }
  }
}
layer {
  name: "Sigmoid0"
  type: "Sigmoid"
  bottom: "conv0"
  top: "Sigmoid0"
}
layer {
  name: "pool0"
  type: "Pooling"
  bottom: "Sigmoid0"
  top: "pool0"
  pooling_param {
    pool: AVE
    kernel_size: 3
    stride: 2
  }
}
layer {
  name: "conv1"
  type: "Convolution"
  bottom: "pool0"
  top: "conv1"
  param {
    lr_mult: 1
  }
  param {
    lr_mult: 2
  }
  convolution_param {
    num_output: 72
    pad: 2
    kernel_size: 3
    stride: 1
    weight_filler {
      type: "gaussian"
      std: 0.01
    }
    bias_filler {
      type: "constant"
    }
  }
}
layer {
  name: "Sigmoid1"
  type: "Sigmoid"
  bottom: "conv1"
  top: "Sigmoid1"
}
layer {
  name: "pool1"
  type: "Pooling"
  bottom: "Sigmoid1"
  top: "pool1"
  pooling_param {
    pool: AVE
    kernel_size: 3
    stride: 2
  }
}
layer {
  name: "ip1"
  type: "InnerProduct"
  bottom: "pool1"
  top: "ip1"
  param {
    lr_mult: 1
  }
  param {
    lr_mult: 2
  }
  inner_product_param {
    num_output: 60
    weight_filler {
      type: "gaussian"
      std: 0.01
    }
    bias_filler {
      type: "constant"
    }
  }
}
layer {
  name: "relu1"
  type: "ReLU"
  bottom: "ip1"
  top: "ip1"
}
layer {
  name: "ip2"
  type: "InnerProduct"
  bottom: "ip1"
  top: "ip2"
  param {
    lr_mult: 1
  }
  param {
    lr_mult: 2
  }
  inner_product_param {
    num_output: 180
    weight_filler {
      type: "gaussian"
      std: 0.01
    }
    bias_filler {
      type: "constant"
    }
  }
}
layer {
  name: "relu2"
  type: "ReLU"
  bottom: "ip2"
  top: "ip2"
}
layer {
  name: "ip3"
  type: "InnerProduct"
  bottom: "ip2"
  top: "ip3"
  param {
    lr_mult: 1
  }
  param {
    lr_mult: 2
  }
  inner_product_param {
    num_output: 10
    weight_filler {
      type: "gaussian"
      std: 0.01
    }
    bias_filler {
      type: "constant"
    }
  }
}
layer {
  name: "loss"
  type: "SoftmaxWithLoss"
  bottom: "ip3"
  bottom: "label"
  top: "loss"
}
I0504 09:16:11.038136 23304 layer_factory.hpp:77] Creating layer cifar
I0504 09:16:11.038235 23304 db_lmdb.cpp:35] Opened lmdb examples/cifar10/cifar10_train_lmdb
I0504 09:16:11.038264 23304 net.cpp:86] Creating Layer cifar
I0504 09:16:11.038274 23304 net.cpp:382] cifar -> data
I0504 09:16:11.038297 23304 net.cpp:382] cifar -> label
I0504 09:16:11.038314 23304 data_transformer.cpp:25] Loading mean file from: examples/cifar10/mean.binaryproto
I0504 09:16:11.040426 23304 data_layer.cpp:45] output data size: 111,3,32,32
I0504 09:16:11.048306 23304 net.cpp:124] Setting up cifar
I0504 09:16:11.048326 23304 net.cpp:131] Top shape: 111 3 32 32 (340992)
I0504 09:16:11.048332 23304 net.cpp:131] Top shape: 111 (111)
I0504 09:16:11.048336 23304 net.cpp:139] Memory required for data: 1364412
I0504 09:16:11.048343 23304 layer_factory.hpp:77] Creating layer conv0
I0504 09:16:11.048369 23304 net.cpp:86] Creating Layer conv0
I0504 09:16:11.048375 23304 net.cpp:408] conv0 <- data
I0504 09:16:11.048388 23304 net.cpp:382] conv0 -> conv0
I0504 09:16:11.335999 23304 net.cpp:124] Setting up conv0
I0504 09:16:11.336026 23304 net.cpp:131] Top shape: 111 24 34 34 (3079584)
I0504 09:16:11.336030 23304 net.cpp:139] Memory required for data: 13682748
I0504 09:16:11.336045 23304 layer_factory.hpp:77] Creating layer Sigmoid0
I0504 09:16:11.336056 23304 net.cpp:86] Creating Layer Sigmoid0
I0504 09:16:11.336061 23304 net.cpp:408] Sigmoid0 <- conv0
I0504 09:16:11.336066 23304 net.cpp:382] Sigmoid0 -> Sigmoid0
I0504 09:16:11.336246 23304 net.cpp:124] Setting up Sigmoid0
I0504 09:16:11.336256 23304 net.cpp:131] Top shape: 111 24 34 34 (3079584)
I0504 09:16:11.336258 23304 net.cpp:139] Memory required for data: 26001084
I0504 09:16:11.336261 23304 layer_factory.hpp:77] Creating layer pool0
I0504 09:16:11.336268 23304 net.cpp:86] Creating Layer pool0
I0504 09:16:11.336272 23304 net.cpp:408] pool0 <- Sigmoid0
I0504 09:16:11.336277 23304 net.cpp:382] pool0 -> pool0
I0504 09:16:11.337018 23304 net.cpp:124] Setting up pool0
I0504 09:16:11.337030 23304 net.cpp:131] Top shape: 111 24 17 17 (769896)
I0504 09:16:11.337034 23304 net.cpp:139] Memory required for data: 29080668
I0504 09:16:11.337038 23304 layer_factory.hpp:77] Creating layer conv1
I0504 09:16:11.337050 23304 net.cpp:86] Creating Layer conv1
I0504 09:16:11.337054 23304 net.cpp:408] conv1 <- pool0
I0504 09:16:11.337059 23304 net.cpp:382] conv1 -> conv1
I0504 09:16:11.340137 23304 net.cpp:124] Setting up conv1
I0504 09:16:11.340150 23304 net.cpp:131] Top shape: 111 72 19 19 (2885112)
I0504 09:16:11.340153 23304 net.cpp:139] Memory required for data: 40621116
I0504 09:16:11.340162 23304 layer_factory.hpp:77] Creating layer Sigmoid1
I0504 09:16:11.340168 23304 net.cpp:86] Creating Layer Sigmoid1
I0504 09:16:11.340171 23304 net.cpp:408] Sigmoid1 <- conv1
I0504 09:16:11.340178 23304 net.cpp:382] Sigmoid1 -> Sigmoid1
I0504 09:16:11.340368 23304 net.cpp:124] Setting up Sigmoid1
I0504 09:16:11.340378 23304 net.cpp:131] Top shape: 111 72 19 19 (2885112)
I0504 09:16:11.340380 23304 net.cpp:139] Memory required for data: 52161564
I0504 09:16:11.340384 23304 layer_factory.hpp:77] Creating layer pool1
I0504 09:16:11.340390 23304 net.cpp:86] Creating Layer pool1
I0504 09:16:11.340394 23304 net.cpp:408] pool1 <- Sigmoid1
I0504 09:16:11.340399 23304 net.cpp:382] pool1 -> pool1
I0504 09:16:11.340579 23304 net.cpp:124] Setting up pool1
I0504 09:16:11.340587 23304 net.cpp:131] Top shape: 111 72 9 9 (647352)
I0504 09:16:11.340590 23304 net.cpp:139] Memory required for data: 54750972
I0504 09:16:11.340595 23304 layer_factory.hpp:77] Creating layer ip1
I0504 09:16:11.340602 23304 net.cpp:86] Creating Layer ip1
I0504 09:16:11.340608 23304 net.cpp:408] ip1 <- pool1
I0504 09:16:11.340615 23304 net.cpp:382] ip1 -> ip1
I0504 09:16:11.350713 23304 net.cpp:124] Setting up ip1
I0504 09:16:11.350725 23304 net.cpp:131] Top shape: 111 60 (6660)
I0504 09:16:11.350728 23304 net.cpp:139] Memory required for data: 54777612
I0504 09:16:11.350738 23304 layer_factory.hpp:77] Creating layer relu1
I0504 09:16:11.350744 23304 net.cpp:86] Creating Layer relu1
I0504 09:16:11.350747 23304 net.cpp:408] relu1 <- ip1
I0504 09:16:11.350754 23304 net.cpp:369] relu1 -> ip1 (in-place)
I0504 09:16:11.350922 23304 net.cpp:124] Setting up relu1
I0504 09:16:11.350931 23304 net.cpp:131] Top shape: 111 60 (6660)
I0504 09:16:11.350934 23304 net.cpp:139] Memory required for data: 54804252
I0504 09:16:11.350937 23304 layer_factory.hpp:77] Creating layer ip2
I0504 09:16:11.350945 23304 net.cpp:86] Creating Layer ip2
I0504 09:16:11.350949 23304 net.cpp:408] ip2 <- ip1
I0504 09:16:11.350967 23304 net.cpp:382] ip2 -> ip2
I0504 09:16:11.351351 23304 net.cpp:124] Setting up ip2
I0504 09:16:11.351358 23304 net.cpp:131] Top shape: 111 180 (19980)
I0504 09:16:11.351361 23304 net.cpp:139] Memory required for data: 54884172
I0504 09:16:11.351366 23304 layer_factory.hpp:77] Creating layer relu2
I0504 09:16:11.351372 23304 net.cpp:86] Creating Layer relu2
I0504 09:16:11.351374 23304 net.cpp:408] relu2 <- ip2
I0504 09:16:11.351379 23304 net.cpp:369] relu2 -> ip2 (in-place)
I0504 09:16:11.352087 23304 net.cpp:124] Setting up relu2
I0504 09:16:11.352098 23304 net.cpp:131] Top shape: 111 180 (19980)
I0504 09:16:11.352102 23304 net.cpp:139] Memory required for data: 54964092
I0504 09:16:11.352105 23304 layer_factory.hpp:77] Creating layer ip3
I0504 09:16:11.352113 23304 net.cpp:86] Creating Layer ip3
I0504 09:16:11.352116 23304 net.cpp:408] ip3 <- ip2
I0504 09:16:11.352121 23304 net.cpp:382] ip3 -> ip3
I0504 09:16:11.352270 23304 net.cpp:124] Setting up ip3
I0504 09:16:11.352277 23304 net.cpp:131] Top shape: 111 10 (1110)
I0504 09:16:11.352280 23304 net.cpp:139] Memory required for data: 54968532
I0504 09:16:11.352288 23304 layer_factory.hpp:77] Creating layer loss
I0504 09:16:11.352295 23304 net.cpp:86] Creating Layer loss
I0504 09:16:11.352298 23304 net.cpp:408] loss <- ip3
I0504 09:16:11.352301 23304 net.cpp:408] loss <- label
I0504 09:16:11.352306 23304 net.cpp:382] loss -> loss
I0504 09:16:11.352324 23304 layer_factory.hpp:77] Creating layer loss
…
I0504 09:16:11.353049 23304 solver.cpp:173] Creating test net (#0) specified by net file: ECE595/cifar/train_test/var_everything_tiny/cifar_train_test_116.prototxt
I0504 09:16:11.353077 23304 net.cpp:296] The NetState phase (1) differed from the phase (0) specified by a rule in layer cifar
I0504 09:16:11.353209 23304 net.cpp:53] Initializing net from parameters: 
name: "CIFAR"
state {
  phase: TEST
}
layer {
  name: "cifar"
  type: "Data"
  top: "data"
  top: "label"
  include {
    phase: TEST
  }
  transform_param {
    mean_file: "examples/cifar10/mean.binaryproto"
  }
  data_param {
    source: "examples/cifar10/cifar10_test_lmdb"
    batch_size: 1000
    backend: LMDB
  }
}
layer {
  name: "conv0"
  type: "Convolution"
  bottom: "data"
  top: "conv0"
  param {
    lr_mult: 1
  }
  param {
    lr_mult: 2
  }
  convolution_param {
    num_output: 24
    pad: 2
    kernel_size: 3
    stride: 1
    weight_filler {
      type: "gaussian"
      std: 0.01
    }
    bias_filler {
      type: "constant"
    }
  }
}
layer {
  name: "Sigmoid0"
  type: "Sigmoid"
  bottom: "conv0"
  top: "Sigmoid0"
}
layer {
  name: "pool0"
  type: "Pooling"
  bottom: "Sigmoid0"
  top: "pool0"
  pooling_param {
    pool: AVE
    kernel_size: 3
    stride: 2
  }
}
layer {
  name: "conv1"
  type: "Convolution"
  bottom: "pool0"
  top: "conv1"
  param {
    lr_mult: 1
  }
  param {
    lr_mult: 2
  }
  convolution_param {
    num_output: 72
    pad: 2
    kernel_size: 3
    stride: 1
    weight_filler {
      type: "gaussian"
      std: 0.01
    }
    bias_filler {
      type: "constant"
    }
  }
}
layer {
  name: "Sigmoid1"
  type: "Sigmoid"
  bottom: "conv1"
  top: "Sigmoid1"
}
layer {
  name: "pool1"
  type: "Pooling"
  bottom: "Sigmoid1"
  top: "pool1"
  pooling_param {
    pool: AVE
    kernel_size: 3
    stride: 2
  }
}
layer {
  name: "ip1"
  type: "InnerProduct"
  bottom: "pool1"
  top: "ip1"
  param {
    lr_mult: 1
  }
  param {
    lr_mult: 2
  }
  inner_product_param {
    num_output: 60
    weight_filler {
      type: "gaussian"
      std: 0.01
    }
    bias_filler {
      type: "constant"
    }
  }
}
layer {
  name: "relu1"
  type: "ReLU"
  bottom: "ip1"
  top: "ip1"
}
layer {
  name: "ip2"
  type: "InnerProduct"
  bottom: "ip1"
  top: "ip2"
  param {
    lr_mult: 1
  }
  param {
    lr_mult: 2
  }
  inner_product_param {
    num_output: 180
    weight_filler {
      type: "gaussian"
      std: 0.01
    }
    bias_filler {
      type: "constant"
    }
  }
}
layer {
  name: "relu2"
  type: "ReLU"
  bottom: "ip2"
  top: "ip2"
}
layer {
  name: "ip3"
  type: "InnerProduct"
  bottom: "ip2"
  top: "ip3"
  param {
    lr_mult: 1
  }
  param {
    lr_mult: 2
  }
  inner_product_param {
    num_output: 10
    weight_filler {
      type: "gaussian"
      std: 0.01
    }
    bias_filler {
      type: "constant"
    }
  }
}
layer {
  name: "accuracy"
  type: "Accuracy"
  bottom: "ip3"
  bottom: "label"
  top: "accuracy"
  include {
    phase: TEST
  }
}
layer {
  name: "loss"
  type: "SoftmaxWithLoss"
  bottom: "ip3"
  bottom: "label"
  top: "loss"
}
I0504 09:16:11.353293 23304 layer_factory.hpp:77] Creating layer cifar
I0504 09:16:11.353338 23304 db_lmdb.cpp:35] Opened lmdb examples/cifar10/cifar10_test_lmdb
I0504 09:16:11.353349 23304 net.cpp:86] Creating Layer cifar
I0504 09:16:11.353355 23304 net.cpp:382] cifar -> data
I0504 09:16:11.353363 23304 net.cpp:382] cifar -> label
I0504 09:16:11.353368 23304 data_transformer.cpp:25] Loading mean file from: examples/cifar10/mean.binaryproto
I0504 09:16:11.353516 23304 data_layer.cpp:45] output data size: 1000,3,32,32
I0504 09:16:11.375589 23304 net.cpp:124] Setting up cifar
I0504 09:16:11.375617 23304 net.cpp:131] Top shape: 1000 3 32 32 (3072000)
I0504 09:16:11.375622 23304 net.cpp:131] Top shape: 1000 (1000)
I0504 09:16:11.375624 23304 net.cpp:139] Memory required for data: 12292000
I0504 09:16:11.375630 23304 layer_factory.hpp:77] Creating layer label_cifar_1_split
I0504 09:16:11.375644 23304 net.cpp:86] Creating Layer label_cifar_1_split
I0504 09:16:11.375648 23304 net.cpp:408] label_cifar_1_split <- label
I0504 09:16:11.375655 23304 net.cpp:382] label_cifar_1_split -> label_cifar_1_split_0
I0504 09:16:11.375663 23304 net.cpp:382] label_cifar_1_split -> label_cifar_1_split_1
I0504 09:16:11.375766 23304 net.cpp:124] Setting up label_cifar_1_split
I0504 09:16:11.375774 23304 net.cpp:131] Top shape: 1000 (1000)
I0504 09:16:11.375778 23304 net.cpp:131] Top shape: 1000 (1000)
I0504 09:16:11.375780 23304 net.cpp:139] Memory required for data: 12300000
I0504 09:16:11.375783 23304 layer_factory.hpp:77] Creating layer conv0
I0504 09:16:11.375797 23304 net.cpp:86] Creating Layer conv0
I0504 09:16:11.375800 23304 net.cpp:408] conv0 <- data
I0504 09:16:11.375807 23304 net.cpp:382] conv0 -> conv0
I0504 09:16:11.378325 23304 net.cpp:124] Setting up conv0
I0504 09:16:11.378340 23304 net.cpp:131] Top shape: 1000 24 34 34 (27744000)
I0504 09:16:11.378345 23304 net.cpp:139] Memory required for data: 123276000
I0504 09:16:11.378355 23304 layer_factory.hpp:77] Creating layer Sigmoid0
I0504 09:16:11.378360 23304 net.cpp:86] Creating Layer Sigmoid0
I0504 09:16:11.378363 23304 net.cpp:408] Sigmoid0 <- conv0
I0504 09:16:11.378367 23304 net.cpp:382] Sigmoid0 -> Sigmoid0
I0504 09:16:11.378551 23304 net.cpp:124] Setting up Sigmoid0
I0504 09:16:11.378571 23304 net.cpp:131] Top shape: 1000 24 34 34 (27744000)
I0504 09:16:11.378574 23304 net.cpp:139] Memory required for data: 234252000
I0504 09:16:11.378577 23304 layer_factory.hpp:77] Creating layer pool0
I0504 09:16:11.378585 23304 net.cpp:86] Creating Layer pool0
I0504 09:16:11.378588 23304 net.cpp:408] pool0 <- Sigmoid0
I0504 09:16:11.378592 23304 net.cpp:382] pool0 -> pool0
I0504 09:16:11.378760 23304 net.cpp:124] Setting up pool0
I0504 09:16:11.378768 23304 net.cpp:131] Top shape: 1000 24 17 17 (6936000)
I0504 09:16:11.378772 23304 net.cpp:139] Memory required for data: 261996000
I0504 09:16:11.378775 23304 layer_factory.hpp:77] Creating layer conv1
I0504 09:16:11.378800 23304 net.cpp:86] Creating Layer conv1
I0504 09:16:11.378804 23304 net.cpp:408] conv1 <- pool0
I0504 09:16:11.378809 23304 net.cpp:382] conv1 -> conv1
I0504 09:16:11.380573 23304 net.cpp:124] Setting up conv1
I0504 09:16:11.380586 23304 net.cpp:131] Top shape: 1000 72 19 19 (25992000)
I0504 09:16:11.380589 23304 net.cpp:139] Memory required for data: 365964000
I0504 09:16:11.380597 23304 layer_factory.hpp:77] Creating layer Sigmoid1
I0504 09:16:11.380604 23304 net.cpp:86] Creating Layer Sigmoid1
I0504 09:16:11.380607 23304 net.cpp:408] Sigmoid1 <- conv1
I0504 09:16:11.380612 23304 net.cpp:382] Sigmoid1 -> Sigmoid1
I0504 09:16:11.380784 23304 net.cpp:124] Setting up Sigmoid1
I0504 09:16:11.380792 23304 net.cpp:131] Top shape: 1000 72 19 19 (25992000)
I0504 09:16:11.380795 23304 net.cpp:139] Memory required for data: 469932000
I0504 09:16:11.380798 23304 layer_factory.hpp:77] Creating layer pool1
I0504 09:16:11.380805 23304 net.cpp:86] Creating Layer pool1
I0504 09:16:11.380831 23304 net.cpp:408] pool1 <- Sigmoid1
I0504 09:16:11.380836 23304 net.cpp:382] pool1 -> pool1
I0504 09:16:11.381696 23304 net.cpp:124] Setting up pool1
I0504 09:16:11.381711 23304 net.cpp:131] Top shape: 1000 72 9 9 (5832000)
I0504 09:16:11.381714 23304 net.cpp:139] Memory required for data: 493260000
I0504 09:16:11.381717 23304 layer_factory.hpp:77] Creating layer ip1
I0504 09:16:11.381728 23304 net.cpp:86] Creating Layer ip1
I0504 09:16:11.381731 23304 net.cpp:408] ip1 <- pool1
I0504 09:16:11.381738 23304 net.cpp:382] ip1 -> ip1
I0504 09:16:11.392005 23304 net.cpp:124] Setting up ip1
I0504 09:16:11.392019 23304 net.cpp:131] Top shape: 1000 60 (60000)
I0504 09:16:11.392022 23304 net.cpp:139] Memory required for data: 493500000
I0504 09:16:11.392032 23304 layer_factory.hpp:77] Creating layer relu1
I0504 09:16:11.392038 23304 net.cpp:86] Creating Layer relu1
I0504 09:16:11.392041 23304 net.cpp:408] relu1 <- ip1
I0504 09:16:11.392047 23304 net.cpp:369] relu1 -> ip1 (in-place)
I0504 09:16:11.392226 23304 net.cpp:124] Setting up relu1
I0504 09:16:11.392235 23304 net.cpp:131] Top shape: 1000 60 (60000)
I0504 09:16:11.392237 23304 net.cpp:139] Memory required for data: 493740000
I0504 09:16:11.392241 23304 layer_factory.hpp:77] Creating layer ip2
I0504 09:16:11.392247 23304 net.cpp:86] Creating Layer ip2
I0504 09:16:11.392251 23304 net.cpp:408] ip2 <- ip1
I0504 09:16:11.392256 23304 net.cpp:382] ip2 -> ip2
I0504 09:16:11.392632 23304 net.cpp:124] Setting up ip2
I0504 09:16:11.392639 23304 net.cpp:131] Top shape: 1000 180 (180000)
I0504 09:16:11.392642 23304 net.cpp:139] Memory required for data: 494460000
I0504 09:16:11.392648 23304 layer_factory.hpp:77] Creating layer relu2
I0504 09:16:11.392653 23304 net.cpp:86] Creating Layer relu2
I0504 09:16:11.392657 23304 net.cpp:408] relu2 <- ip2
I0504 09:16:11.392670 23304 net.cpp:369] relu2 -> ip2 (in-place)
I0504 09:16:11.392850 23304 net.cpp:124] Setting up relu2
I0504 09:16:11.392859 23304 net.cpp:131] Top shape: 1000 180 (180000)
I0504 09:16:11.392877 23304 net.cpp:139] Memory required for data: 495180000
I0504 09:16:11.392881 23304 layer_factory.hpp:77] Creating layer ip3
I0504 09:16:11.392889 23304 net.cpp:86] Creating Layer ip3
I0504 09:16:11.392892 23304 net.cpp:408] ip3 <- ip2
I0504 09:16:11.392896 23304 net.cpp:382] ip3 -> ip3
I0504 09:16:11.393105 23304 net.cpp:124] Setting up ip3
I0504 09:16:11.393112 23304 net.cpp:131] Top shape: 1000 10 (10000)
I0504 09:16:11.393126 23304 net.cpp:139] Memory required for data: 495220000
I0504 09:16:11.393136 23304 layer_factory.hpp:77] Creating layer ip3_ip3_0_split
I0504 09:16:11.393142 23304 net.cpp:86] Creating Layer ip3_ip3_0_split
I0504 09:16:11.393146 23304 net.cpp:408] ip3_ip3_0_split <- ip3
I0504 09:16:11.393151 23304 net.cpp:382] ip3_ip3_0_split -> ip3_ip3_0_split_0
I0504 09:16:11.393157 23304 net.cpp:382] ip3_ip3_0_split -> ip3_ip3_0_split_1
I0504 09:16:11.393223 23304 net.cpp:124] Setting up ip3_ip3_0_split
I0504 09:16:11.393227 23304 net.cpp:131] Top shape: 1000 10 (10000)
I0504 09:16:11.393246 23304 net.cpp:131] Top shape: 1000 10 (10000)
I0504 09:16:11.393249 23304 net.cpp:139] Memory required for data: 495300000
I0504 09:16:11.393251 23304 layer_factory.hpp:77] Creating layer accuracy
I0504 09:16:11.393282 23304 net.cpp:86] Creating Layer accuracy
I0504 09:16:11.393285 23304 net.cpp:408] accuracy <- ip3_ip3_0_split_0
I0504 09:16:11.393290 23304 net.cpp:408] accuracy <- label_cifar_1_split_0
I0504 09:16:11.393295 23304 net.cpp:382] accuracy -> accuracy
…
