…
I0504 00:43:37.282918  5980 net.cpp:296] The NetState phase (0) differed from the phase (1) specified by a rule in layer cifar
I0504 00:43:37.282934  5980 net.cpp:296] The NetState phase (0) differed from the phase (1) specified by a rule in layer accuracy
I0504 00:43:37.283016  5980 net.cpp:53] Initializing net from parameters: 
name: "CIFAR"
state {
  phase: TRAIN
  level: 0
  stage: ""
}
layer {
  name: "cifar"
  type: "Data"
  top: "data"
  top: "label"
  include {
    phase: TRAIN
  }
  transform_param {
    mean_file: "examples/cifar10/mean.binaryproto"
  }
  data_param {
    source: "examples/cifar10/cifar10_train_lmdb"
    batch_size: 111
    backend: LMDB
  }
}
layer {
  name: "conv0"
  type: "Convolution"
  bottom: "data"
  top: "conv0"
  param {
    lr_mult: 1
  }
  param {
    lr_mult: 2
  }
  convolution_param {
    num_output: 72
    pad: 2
    kernel_size: 3
    stride: 1
    weight_filler {
      type: "gaussian"
      std: 0.01
    }
    bias_filler {
      type: "constant"
    }
  }
}
layer {
  name: "Sigmoid0"
  type: "Sigmoid"
  bottom: "conv0"
  top: "Sigmoid0"
}
layer {
  name: "pool0"
  type: "Pooling"
  bottom: "Sigmoid0"
  top: "pool0"
  pooling_param {
    pool: AVE
    kernel_size: 3
    stride: 2
  }
}
layer {
  name: "ip1"
  type: "InnerProduct"
  bottom: "pool0"
  top: "ip1"
  param {
    lr_mult: 1
  }
  param {
    lr_mult: 2
  }
  inner_product_param {
    num_output: 60
    weight_filler {
      type: "gaussian"
      std: 0.01
    }
    bias_filler {
      type: "constant"
    }
  }
}
layer {
  name: "relu1"
  type: "ReLU"
  bottom: "ip1"
  top: "ip1"
}
layer {
  name: "ip2"
  type: "InnerProduct"
  bottom: "ip1"
  top: "ip2"
  param {
    lr_mult: 1
  }
  param {
    lr_mult: 2
  }
  inner_product_param {
    num_output: 10
    weight_filler {
      type: "gaussian"
      std: 0.01
    }
    bias_filler {
      type: "constant"
    }
  }
}
layer {
  name: "loss"
  type: "SoftmaxWithLoss"
  bottom: "ip2"
  bottom: "label"
  top: "loss"
}
I0504 00:43:37.283087  5980 layer_factory.hpp:77] Creating layer cifar
I0504 00:43:37.283185  5980 db_lmdb.cpp:35] Opened lmdb examples/cifar10/cifar10_train_lmdb
I0504 00:43:37.283212  5980 net.cpp:86] Creating Layer cifar
I0504 00:43:37.283221  5980 net.cpp:382] cifar -> data
I0504 00:43:37.283242  5980 net.cpp:382] cifar -> label
I0504 00:43:37.283257  5980 data_transformer.cpp:25] Loading mean file from: examples/cifar10/mean.binaryproto
I0504 00:43:37.285359  5980 data_layer.cpp:45] output data size: 111,3,32,32
I0504 00:43:37.293221  5980 net.cpp:124] Setting up cifar
I0504 00:43:37.293239  5980 net.cpp:131] Top shape: 111 3 32 32 (340992)
I0504 00:43:37.293247  5980 net.cpp:131] Top shape: 111 (111)
I0504 00:43:37.293252  5980 net.cpp:139] Memory required for data: 1364412
I0504 00:43:37.293259  5980 layer_factory.hpp:77] Creating layer conv0
I0504 00:43:37.293277  5980 net.cpp:86] Creating Layer conv0
I0504 00:43:37.293282  5980 net.cpp:408] conv0 <- data
I0504 00:43:37.293296  5980 net.cpp:382] conv0 -> conv0
I0504 00:43:37.583154  5980 net.cpp:124] Setting up conv0
I0504 00:43:37.583185  5980 net.cpp:131] Top shape: 111 72 34 34 (9238752)
I0504 00:43:37.583190  5980 net.cpp:139] Memory required for data: 38319420
I0504 00:43:37.583207  5980 layer_factory.hpp:77] Creating layer Sigmoid0
I0504 00:43:37.583220  5980 net.cpp:86] Creating Layer Sigmoid0
I0504 00:43:37.583225  5980 net.cpp:408] Sigmoid0 <- conv0
I0504 00:43:37.583231  5980 net.cpp:382] Sigmoid0 -> Sigmoid0
I0504 00:43:37.583458  5980 net.cpp:124] Setting up Sigmoid0
I0504 00:43:37.583470  5980 net.cpp:131] Top shape: 111 72 34 34 (9238752)
I0504 00:43:37.583474  5980 net.cpp:139] Memory required for data: 75274428
I0504 00:43:37.583478  5980 layer_factory.hpp:77] Creating layer pool0
I0504 00:43:37.583487  5980 net.cpp:86] Creating Layer pool0
I0504 00:43:37.583490  5980 net.cpp:408] pool0 <- Sigmoid0
I0504 00:43:37.583495  5980 net.cpp:382] pool0 -> pool0
I0504 00:43:37.584341  5980 net.cpp:124] Setting up pool0
I0504 00:43:37.584357  5980 net.cpp:131] Top shape: 111 72 17 17 (2309688)
I0504 00:43:37.584360  5980 net.cpp:139] Memory required for data: 84513180
I0504 00:43:37.584364  5980 layer_factory.hpp:77] Creating layer ip1
I0504 00:43:37.584380  5980 net.cpp:86] Creating Layer ip1
I0504 00:43:37.584384  5980 net.cpp:408] ip1 <- pool0
I0504 00:43:37.584390  5980 net.cpp:382] ip1 -> ip1
I0504 00:43:37.624006  5980 net.cpp:124] Setting up ip1
I0504 00:43:37.624020  5980 net.cpp:131] Top shape: 111 60 (6660)
I0504 00:43:37.624024  5980 net.cpp:139] Memory required for data: 84539820
I0504 00:43:37.624033  5980 layer_factory.hpp:77] Creating layer relu1
I0504 00:43:37.624039  5980 net.cpp:86] Creating Layer relu1
I0504 00:43:37.624043  5980 net.cpp:408] relu1 <- ip1
I0504 00:43:37.624048  5980 net.cpp:369] relu1 -> ip1 (in-place)
I0504 00:43:37.624214  5980 net.cpp:124] Setting up relu1
I0504 00:43:37.624224  5980 net.cpp:131] Top shape: 111 60 (6660)
I0504 00:43:37.624228  5980 net.cpp:139] Memory required for data: 84566460
I0504 00:43:37.624231  5980 layer_factory.hpp:77] Creating layer ip2
I0504 00:43:37.624238  5980 net.cpp:86] Creating Layer ip2
I0504 00:43:37.624243  5980 net.cpp:408] ip2 <- ip1
I0504 00:43:37.624248  5980 net.cpp:382] ip2 -> ip2
I0504 00:43:37.625247  5980 net.cpp:124] Setting up ip2
I0504 00:43:37.625260  5980 net.cpp:131] Top shape: 111 10 (1110)
I0504 00:43:37.625264  5980 net.cpp:139] Memory required for data: 84570900
I0504 00:43:37.625272  5980 layer_factory.hpp:77] Creating layer loss
I0504 00:43:37.625279  5980 net.cpp:86] Creating Layer loss
I0504 00:43:37.625283  5980 net.cpp:408] loss <- ip2
I0504 00:43:37.625286  5980 net.cpp:408] loss <- label
I0504 00:43:37.625293  5980 net.cpp:382] loss -> loss
I0504 00:43:37.625310  5980 layer_factory.hpp:77] Creating layer loss
…
I0504 00:43:37.625886  5980 solver.cpp:173] Creating test net (#0) specified by net file: ECE595/cifar/train_test/var_everything_tiny/cifar_train_test_25.prototxt
I0504 00:43:37.625911  5980 net.cpp:296] The NetState phase (1) differed from the phase (0) specified by a rule in layer cifar
I0504 00:43:37.625989  5980 net.cpp:53] Initializing net from parameters: 
name: "CIFAR"
state {
  phase: TEST
}
layer {
  name: "cifar"
  type: "Data"
  top: "data"
  top: "label"
  include {
    phase: TEST
  }
  transform_param {
    mean_file: "examples/cifar10/mean.binaryproto"
  }
  data_param {
    source: "examples/cifar10/cifar10_test_lmdb"
    batch_size: 1000
    backend: LMDB
  }
}
layer {
  name: "conv0"
  type: "Convolution"
  bottom: "data"
  top: "conv0"
  param {
    lr_mult: 1
  }
  param {
    lr_mult: 2
  }
  convolution_param {
    num_output: 72
    pad: 2
    kernel_size: 3
    stride: 1
    weight_filler {
      type: "gaussian"
      std: 0.01
    }
    bias_filler {
      type: "constant"
    }
  }
}
layer {
  name: "Sigmoid0"
  type: "Sigmoid"
  bottom: "conv0"
  top: "Sigmoid0"
}
layer {
  name: "pool0"
  type: "Pooling"
  bottom: "Sigmoid0"
  top: "pool0"
  pooling_param {
    pool: AVE
    kernel_size: 3
    stride: 2
  }
}
layer {
  name: "ip1"
  type: "InnerProduct"
  bottom: "pool0"
  top: "ip1"
  param {
    lr_mult: 1
  }
  param {
    lr_mult: 2
  }
  inner_product_param {
    num_output: 60
    weight_filler {
      type: "gaussian"
      std: 0.01
    }
    bias_filler {
      type: "constant"
    }
  }
}
layer {
  name: "relu1"
  type: "ReLU"
  bottom: "ip1"
  top: "ip1"
}
layer {
  name: "ip2"
  type: "InnerProduct"
  bottom: "ip1"
  top: "ip2"
  param {
    lr_mult: 1
  }
  param {
    lr_mult: 2
  }
  inner_product_param {
    num_output: 10
    weight_filler {
      type: "gaussian"
      std: 0.01
    }
    bias_filler {
      type: "constant"
    }
  }
}
layer {
  name: "accuracy"
  type: "Accuracy"
  bottom: "ip2"
  bottom: "label"
  top: "accuracy"
  include {
    phase: TEST
  }
}
layer {
  name: "loss"
  type: "SoftmaxWithLoss"
  bottom: "ip2"
  bottom: "label"
  top: "loss"
}
I0504 00:43:37.626061  5980 layer_factory.hpp:77] Creating layer cifar
I0504 00:43:37.626108  5980 db_lmdb.cpp:35] Opened lmdb examples/cifar10/cifar10_test_lmdb
I0504 00:43:37.626119  5980 net.cpp:86] Creating Layer cifar
I0504 00:43:37.626124  5980 net.cpp:382] cifar -> data
I0504 00:43:37.626132  5980 net.cpp:382] cifar -> label
I0504 00:43:37.626138  5980 data_transformer.cpp:25] Loading mean file from: examples/cifar10/mean.binaryproto
I0504 00:43:37.626281  5980 data_layer.cpp:45] output data size: 1000,3,32,32
I0504 00:43:37.648794  5980 net.cpp:124] Setting up cifar
I0504 00:43:37.648825  5980 net.cpp:131] Top shape: 1000 3 32 32 (3072000)
I0504 00:43:37.648831  5980 net.cpp:131] Top shape: 1000 (1000)
I0504 00:43:37.648835  5980 net.cpp:139] Memory required for data: 12292000
I0504 00:43:37.648840  5980 layer_factory.hpp:77] Creating layer label_cifar_1_split
I0504 00:43:37.648866  5980 net.cpp:86] Creating Layer label_cifar_1_split
I0504 00:43:37.648870  5980 net.cpp:408] label_cifar_1_split <- label
I0504 00:43:37.648876  5980 net.cpp:382] label_cifar_1_split -> label_cifar_1_split_0
I0504 00:43:37.648886  5980 net.cpp:382] label_cifar_1_split -> label_cifar_1_split_1
I0504 00:43:37.648982  5980 net.cpp:124] Setting up label_cifar_1_split
I0504 00:43:37.648988  5980 net.cpp:131] Top shape: 1000 (1000)
I0504 00:43:37.648993  5980 net.cpp:131] Top shape: 1000 (1000)
I0504 00:43:37.648995  5980 net.cpp:139] Memory required for data: 12300000
I0504 00:43:37.648998  5980 layer_factory.hpp:77] Creating layer conv0
I0504 00:43:37.649009  5980 net.cpp:86] Creating Layer conv0
I0504 00:43:37.649013  5980 net.cpp:408] conv0 <- data
I0504 00:43:37.649019  5980 net.cpp:382] conv0 -> conv0
I0504 00:43:37.650609  5980 net.cpp:124] Setting up conv0
I0504 00:43:37.650624  5980 net.cpp:131] Top shape: 1000 72 34 34 (83232000)
I0504 00:43:37.650626  5980 net.cpp:139] Memory required for data: 345228000
I0504 00:43:37.650636  5980 layer_factory.hpp:77] Creating layer Sigmoid0
I0504 00:43:37.650643  5980 net.cpp:86] Creating Layer Sigmoid0
I0504 00:43:37.650646  5980 net.cpp:408] Sigmoid0 <- conv0
I0504 00:43:37.650651  5980 net.cpp:382] Sigmoid0 -> Sigmoid0
I0504 00:43:37.650817  5980 net.cpp:124] Setting up Sigmoid0
I0504 00:43:37.650826  5980 net.cpp:131] Top shape: 1000 72 34 34 (83232000)
I0504 00:43:37.650830  5980 net.cpp:139] Memory required for data: 678156000
I0504 00:43:37.650832  5980 layer_factory.hpp:77] Creating layer pool0
I0504 00:43:37.650840  5980 net.cpp:86] Creating Layer pool0
I0504 00:43:37.650843  5980 net.cpp:408] pool0 <- Sigmoid0
I0504 00:43:37.650848  5980 net.cpp:382] pool0 -> pool0
I0504 00:43:37.651690  5980 net.cpp:124] Setting up pool0
I0504 00:43:37.651702  5980 net.cpp:131] Top shape: 1000 72 17 17 (20808000)
I0504 00:43:37.651705  5980 net.cpp:139] Memory required for data: 761388000
I0504 00:43:37.651710  5980 layer_factory.hpp:77] Creating layer ip1
I0504 00:43:37.651718  5980 net.cpp:86] Creating Layer ip1
I0504 00:43:37.651721  5980 net.cpp:408] ip1 <- pool0
I0504 00:43:37.651726  5980 net.cpp:382] ip1 -> ip1
I0504 00:43:37.687269  5980 net.cpp:124] Setting up ip1
I0504 00:43:37.687288  5980 net.cpp:131] Top shape: 1000 60 (60000)
I0504 00:43:37.687291  5980 net.cpp:139] Memory required for data: 761628000
I0504 00:43:37.687300  5980 layer_factory.hpp:77] Creating layer relu1
I0504 00:43:37.687307  5980 net.cpp:86] Creating Layer relu1
I0504 00:43:37.687326  5980 net.cpp:408] relu1 <- ip1
I0504 00:43:37.687331  5980 net.cpp:369] relu1 -> ip1 (in-place)
I0504 00:43:37.687500  5980 net.cpp:124] Setting up relu1
I0504 00:43:37.687507  5980 net.cpp:131] Top shape: 1000 60 (60000)
I0504 00:43:37.687510  5980 net.cpp:139] Memory required for data: 761868000
I0504 00:43:37.687513  5980 layer_factory.hpp:77] Creating layer ip2
I0504 00:43:37.687521  5980 net.cpp:86] Creating Layer ip2
I0504 00:43:37.687523  5980 net.cpp:408] ip2 <- ip1
I0504 00:43:37.687528  5980 net.cpp:382] ip2 -> ip2
I0504 00:43:37.687645  5980 net.cpp:124] Setting up ip2
I0504 00:43:37.687654  5980 net.cpp:131] Top shape: 1000 10 (10000)
I0504 00:43:37.687656  5980 net.cpp:139] Memory required for data: 761908000
I0504 00:43:37.687664  5980 layer_factory.hpp:77] Creating layer ip2_ip2_0_split
I0504 00:43:37.687669  5980 net.cpp:86] Creating Layer ip2_ip2_0_split
I0504 00:43:37.687672  5980 net.cpp:408] ip2_ip2_0_split <- ip2
I0504 00:43:37.687676  5980 net.cpp:382] ip2_ip2_0_split -> ip2_ip2_0_split_0
I0504 00:43:37.687681  5980 net.cpp:382] ip2_ip2_0_split -> ip2_ip2_0_split_1
I0504 00:43:37.687711  5980 net.cpp:124] Setting up ip2_ip2_0_split
I0504 00:43:37.687716  5980 net.cpp:131] Top shape: 1000 10 (10000)
I0504 00:43:37.687719  5980 net.cpp:131] Top shape: 1000 10 (10000)
I0504 00:43:37.687722  5980 net.cpp:139] Memory required for data: 761988000
I0504 00:43:37.687724  5980 layer_factory.hpp:77] Creating layer accuracy
I0504 00:43:37.687731  5980 net.cpp:86] Creating Layer accuracy
I0504 00:43:37.687733  5980 net.cpp:408] accuracy <- ip2_ip2_0_split_0
I0504 00:43:37.687736  5980 net.cpp:408] accuracy <- label_cifar_1_split_0
I0504 00:43:37.687742  5980 net.cpp:382] accuracy -> accuracy
…
