…
I0504 01:17:56.291175  7124 net.cpp:296] The NetState phase (0) differed from the phase (1) specified by a rule in layer cifar
I0504 01:17:56.291193  7124 net.cpp:296] The NetState phase (0) differed from the phase (1) specified by a rule in layer accuracy
I0504 01:17:56.291285  7124 net.cpp:53] Initializing net from parameters: 
name: "CIFAR"
state {
  phase: TRAIN
  level: 0
  stage: ""
}
layer {
  name: "cifar"
  type: "Data"
  top: "data"
  top: "label"
  include {
    phase: TRAIN
  }
  transform_param {
    mean_file: "examples/cifar10/mean.binaryproto"
  }
  data_param {
    source: "examples/cifar10/cifar10_train_lmdb"
    batch_size: 111
    backend: LMDB
  }
}
layer {
  name: "conv0"
  type: "Convolution"
  bottom: "data"
  top: "conv0"
  param {
    lr_mult: 1
  }
  param {
    lr_mult: 2
  }
  convolution_param {
    num_output: 72
    pad: 2
    kernel_size: 3
    stride: 1
    weight_filler {
      type: "gaussian"
      std: 0.01
    }
    bias_filler {
      type: "constant"
    }
  }
}
layer {
  name: "Sigmoid0"
  type: "Sigmoid"
  bottom: "conv0"
  top: "Sigmoid0"
}
layer {
  name: "pool0"
  type: "Pooling"
  bottom: "Sigmoid0"
  top: "pool0"
  pooling_param {
    pool: AVE
    kernel_size: 3
    stride: 2
  }
}
layer {
  name: "ip1"
  type: "InnerProduct"
  bottom: "pool0"
  top: "ip1"
  param {
    lr_mult: 1
  }
  param {
    lr_mult: 2
  }
  inner_product_param {
    num_output: 60
    weight_filler {
      type: "gaussian"
      std: 0.01
    }
    bias_filler {
      type: "constant"
    }
  }
}
layer {
  name: "relu1"
  type: "ReLU"
  bottom: "ip1"
  top: "ip1"
}
layer {
  name: "ip2"
  type: "InnerProduct"
  bottom: "ip1"
  top: "ip2"
  param {
    lr_mult: 1
  }
  param {
    lr_mult: 2
  }
  inner_product_param {
    num_output: 180
    weight_filler {
      type: "gaussian"
      std: 0.01
    }
    bias_filler {
      type: "constant"
    }
  }
}
layer {
  name: "relu2"
  type: "ReLU"
  bottom: "ip2"
  top: "ip2"
}
layer {
  name: "ip3"
  type: "InnerProduct"
  bottom: "ip2"
  top: "ip3"
  param {
    lr_mult: 1
  }
  param {
    lr_mult: 2
  }
  inner_product_param {
    num_output: 10
    weight_filler {
      type: "gaussian"
      std: 0.01
    }
    bias_filler {
      type: "constant"
    }
  }
}
layer {
  name: "loss"
  type: "SoftmaxWithLoss"
  bottom: "ip3"
  bottom: "label"
  top: "loss"
}
I0504 01:17:56.291362  7124 layer_factory.hpp:77] Creating layer cifar
I0504 01:17:56.291460  7124 db_lmdb.cpp:35] Opened lmdb examples/cifar10/cifar10_train_lmdb
I0504 01:17:56.291488  7124 net.cpp:86] Creating Layer cifar
I0504 01:17:56.291497  7124 net.cpp:382] cifar -> data
I0504 01:17:56.291520  7124 net.cpp:382] cifar -> label
I0504 01:17:56.291538  7124 data_transformer.cpp:25] Loading mean file from: examples/cifar10/mean.binaryproto
I0504 01:17:56.293650  7124 data_layer.cpp:45] output data size: 111,3,32,32
I0504 01:17:56.301522  7124 net.cpp:124] Setting up cifar
I0504 01:17:56.301539  7124 net.cpp:131] Top shape: 111 3 32 32 (340992)
I0504 01:17:56.301547  7124 net.cpp:131] Top shape: 111 (111)
I0504 01:17:56.301550  7124 net.cpp:139] Memory required for data: 1364412
I0504 01:17:56.301558  7124 layer_factory.hpp:77] Creating layer conv0
I0504 01:17:56.301575  7124 net.cpp:86] Creating Layer conv0
I0504 01:17:56.301581  7124 net.cpp:408] conv0 <- data
I0504 01:17:56.301595  7124 net.cpp:382] conv0 -> conv0
I0504 01:17:56.593538  7124 net.cpp:124] Setting up conv0
I0504 01:17:56.593592  7124 net.cpp:131] Top shape: 111 72 34 34 (9238752)
I0504 01:17:56.593597  7124 net.cpp:139] Memory required for data: 38319420
I0504 01:17:56.593616  7124 layer_factory.hpp:77] Creating layer Sigmoid0
I0504 01:17:56.593629  7124 net.cpp:86] Creating Layer Sigmoid0
I0504 01:17:56.593634  7124 net.cpp:408] Sigmoid0 <- conv0
I0504 01:17:56.593641  7124 net.cpp:382] Sigmoid0 -> Sigmoid0
I0504 01:17:56.593858  7124 net.cpp:124] Setting up Sigmoid0
I0504 01:17:56.593870  7124 net.cpp:131] Top shape: 111 72 34 34 (9238752)
I0504 01:17:56.593873  7124 net.cpp:139] Memory required for data: 75274428
I0504 01:17:56.593878  7124 layer_factory.hpp:77] Creating layer pool0
I0504 01:17:56.593885  7124 net.cpp:86] Creating Layer pool0
I0504 01:17:56.593893  7124 net.cpp:408] pool0 <- Sigmoid0
I0504 01:17:56.593899  7124 net.cpp:382] pool0 -> pool0
I0504 01:17:56.594777  7124 net.cpp:124] Setting up pool0
I0504 01:17:56.594794  7124 net.cpp:131] Top shape: 111 72 17 17 (2309688)
I0504 01:17:56.594797  7124 net.cpp:139] Memory required for data: 84513180
I0504 01:17:56.594801  7124 layer_factory.hpp:77] Creating layer ip1
I0504 01:17:56.594812  7124 net.cpp:86] Creating Layer ip1
I0504 01:17:56.594816  7124 net.cpp:408] ip1 <- pool0
I0504 01:17:56.594823  7124 net.cpp:382] ip1 -> ip1
I0504 01:17:56.637661  7124 net.cpp:124] Setting up ip1
I0504 01:17:56.637677  7124 net.cpp:131] Top shape: 111 60 (6660)
I0504 01:17:56.637682  7124 net.cpp:139] Memory required for data: 84539820
I0504 01:17:56.637692  7124 layer_factory.hpp:77] Creating layer relu1
I0504 01:17:56.637701  7124 net.cpp:86] Creating Layer relu1
I0504 01:17:56.637704  7124 net.cpp:408] relu1 <- ip1
I0504 01:17:56.637711  7124 net.cpp:369] relu1 -> ip1 (in-place)
I0504 01:17:56.637897  7124 net.cpp:124] Setting up relu1
I0504 01:17:56.637907  7124 net.cpp:131] Top shape: 111 60 (6660)
I0504 01:17:56.637910  7124 net.cpp:139] Memory required for data: 84566460
I0504 01:17:56.637914  7124 layer_factory.hpp:77] Creating layer ip2
I0504 01:17:56.637923  7124 net.cpp:86] Creating Layer ip2
I0504 01:17:56.637929  7124 net.cpp:408] ip2 <- ip1
I0504 01:17:56.637935  7124 net.cpp:382] ip2 -> ip2
I0504 01:17:56.639389  7124 net.cpp:124] Setting up ip2
I0504 01:17:56.639403  7124 net.cpp:131] Top shape: 111 180 (19980)
I0504 01:17:56.639407  7124 net.cpp:139] Memory required for data: 84646380
I0504 01:17:56.639417  7124 layer_factory.hpp:77] Creating layer relu2
I0504 01:17:56.639425  7124 net.cpp:86] Creating Layer relu2
I0504 01:17:56.639428  7124 net.cpp:408] relu2 <- ip2
I0504 01:17:56.639434  7124 net.cpp:369] relu2 -> ip2 (in-place)
I0504 01:17:56.639631  7124 net.cpp:124] Setting up relu2
I0504 01:17:56.639641  7124 net.cpp:131] Top shape: 111 180 (19980)
I0504 01:17:56.639644  7124 net.cpp:139] Memory required for data: 84726300
I0504 01:17:56.639648  7124 layer_factory.hpp:77] Creating layer ip3
I0504 01:17:56.639657  7124 net.cpp:86] Creating Layer ip3
I0504 01:17:56.639663  7124 net.cpp:408] ip3 <- ip2
I0504 01:17:56.639669  7124 net.cpp:382] ip3 -> ip3
I0504 01:17:56.639842  7124 net.cpp:124] Setting up ip3
I0504 01:17:56.639849  7124 net.cpp:131] Top shape: 111 10 (1110)
I0504 01:17:56.639853  7124 net.cpp:139] Memory required for data: 84730740
I0504 01:17:56.639859  7124 layer_factory.hpp:77] Creating layer loss
I0504 01:17:56.639876  7124 net.cpp:86] Creating Layer loss
I0504 01:17:56.639879  7124 net.cpp:408] loss <- ip3
I0504 01:17:56.639884  7124 net.cpp:408] loss <- label
I0504 01:17:56.639890  7124 net.cpp:382] loss -> loss
I0504 01:17:56.639914  7124 layer_factory.hpp:77] Creating layer loss
…
I0504 01:17:56.640640  7124 solver.cpp:173] Creating test net (#0) specified by net file: ECE595/cifar/train_test/var_everything_tiny/cifar_train_test_32.prototxt
I0504 01:17:56.640671  7124 net.cpp:296] The NetState phase (1) differed from the phase (0) specified by a rule in layer cifar
I0504 01:17:56.640774  7124 net.cpp:53] Initializing net from parameters: 
name: "CIFAR"
state {
  phase: TEST
}
layer {
  name: "cifar"
  type: "Data"
  top: "data"
  top: "label"
  include {
    phase: TEST
  }
  transform_param {
    mean_file: "examples/cifar10/mean.binaryproto"
  }
  data_param {
    source: "examples/cifar10/cifar10_test_lmdb"
    batch_size: 1000
    backend: LMDB
  }
}
layer {
  name: "conv0"
  type: "Convolution"
  bottom: "data"
  top: "conv0"
  param {
    lr_mult: 1
  }
  param {
    lr_mult: 2
  }
  convolution_param {
    num_output: 72
    pad: 2
    kernel_size: 3
    stride: 1
    weight_filler {
      type: "gaussian"
      std: 0.01
    }
    bias_filler {
      type: "constant"
    }
  }
}
layer {
  name: "Sigmoid0"
  type: "Sigmoid"
  bottom: "conv0"
  top: "Sigmoid0"
}
layer {
  name: "pool0"
  type: "Pooling"
  bottom: "Sigmoid0"
  top: "pool0"
  pooling_param {
    pool: AVE
    kernel_size: 3
    stride: 2
  }
}
layer {
  name: "ip1"
  type: "InnerProduct"
  bottom: "pool0"
  top: "ip1"
  param {
    lr_mult: 1
  }
  param {
    lr_mult: 2
  }
  inner_product_param {
    num_output: 60
    weight_filler {
      type: "gaussian"
      std: 0.01
    }
    bias_filler {
      type: "constant"
    }
  }
}
layer {
  name: "relu1"
  type: "ReLU"
  bottom: "ip1"
  top: "ip1"
}
layer {
  name: "ip2"
  type: "InnerProduct"
  bottom: "ip1"
  top: "ip2"
  param {
    lr_mult: 1
  }
  param {
    lr_mult: 2
  }
  inner_product_param {
    num_output: 180
    weight_filler {
      type: "gaussian"
      std: 0.01
    }
    bias_filler {
      type: "constant"
    }
  }
}
layer {
  name: "relu2"
  type: "ReLU"
  bottom: "ip2"
  top: "ip2"
}
layer {
  name: "ip3"
  type: "InnerProduct"
  bottom: "ip2"
  top: "ip3"
  param {
    lr_mult: 1
  }
  param {
    lr_mult: 2
  }
  inner_product_param {
    num_output: 10
    weight_filler {
      type: "gaussian"
      std: 0.01
    }
    bias_filler {
      type: "constant"
    }
  }
}
layer {
  name: "accuracy"
  type: "Accuracy"
  bottom: "ip3"
  bottom: "label"
  top: "accuracy"
  include {
    phase: TEST
  }
}
layer {
  name: "loss"
  type: "SoftmaxWithLoss"
  bottom: "ip3"
  bottom: "label"
  top: "loss"
}
I0504 01:17:56.640859  7124 layer_factory.hpp:77] Creating layer cifar
I0504 01:17:56.640915  7124 db_lmdb.cpp:35] Opened lmdb examples/cifar10/cifar10_test_lmdb
I0504 01:17:56.640933  7124 net.cpp:86] Creating Layer cifar
I0504 01:17:56.640939  7124 net.cpp:382] cifar -> data
I0504 01:17:56.640949  7124 net.cpp:382] cifar -> label
I0504 01:17:56.640959  7124 data_transformer.cpp:25] Loading mean file from: examples/cifar10/mean.binaryproto
I0504 01:17:56.641131  7124 data_layer.cpp:45] output data size: 1000,3,32,32
I0504 01:17:56.667902  7124 net.cpp:124] Setting up cifar
I0504 01:17:56.667932  7124 net.cpp:131] Top shape: 1000 3 32 32 (3072000)
I0504 01:17:56.667939  7124 net.cpp:131] Top shape: 1000 (1000)
I0504 01:17:56.667943  7124 net.cpp:139] Memory required for data: 12292000
I0504 01:17:56.667949  7124 layer_factory.hpp:77] Creating layer label_cifar_1_split
I0504 01:17:56.667984  7124 net.cpp:86] Creating Layer label_cifar_1_split
I0504 01:17:56.667989  7124 net.cpp:408] label_cifar_1_split <- label
I0504 01:17:56.667995  7124 net.cpp:382] label_cifar_1_split -> label_cifar_1_split_0
I0504 01:17:56.668006  7124 net.cpp:382] label_cifar_1_split -> label_cifar_1_split_1
I0504 01:17:56.668118  7124 net.cpp:124] Setting up label_cifar_1_split
I0504 01:17:56.668128  7124 net.cpp:131] Top shape: 1000 (1000)
I0504 01:17:56.668133  7124 net.cpp:131] Top shape: 1000 (1000)
I0504 01:17:56.668135  7124 net.cpp:139] Memory required for data: 12300000
I0504 01:17:56.668139  7124 layer_factory.hpp:77] Creating layer conv0
I0504 01:17:56.668154  7124 net.cpp:86] Creating Layer conv0
I0504 01:17:56.668160  7124 net.cpp:408] conv0 <- data
I0504 01:17:56.668166  7124 net.cpp:382] conv0 -> conv0
I0504 01:17:56.670012  7124 net.cpp:124] Setting up conv0
I0504 01:17:56.670028  7124 net.cpp:131] Top shape: 1000 72 34 34 (83232000)
I0504 01:17:56.670033  7124 net.cpp:139] Memory required for data: 345228000
I0504 01:17:56.670044  7124 layer_factory.hpp:77] Creating layer Sigmoid0
I0504 01:17:56.670053  7124 net.cpp:86] Creating Layer Sigmoid0
I0504 01:17:56.670058  7124 net.cpp:408] Sigmoid0 <- conv0
I0504 01:17:56.670063  7124 net.cpp:382] Sigmoid0 -> Sigmoid0
I0504 01:17:56.672031  7124 net.cpp:124] Setting up Sigmoid0
I0504 01:17:56.672047  7124 net.cpp:131] Top shape: 1000 72 34 34 (83232000)
I0504 01:17:56.672052  7124 net.cpp:139] Memory required for data: 678156000
I0504 01:17:56.672056  7124 layer_factory.hpp:77] Creating layer pool0
I0504 01:17:56.672067  7124 net.cpp:86] Creating Layer pool0
I0504 01:17:56.672070  7124 net.cpp:408] pool0 <- Sigmoid0
I0504 01:17:56.672078  7124 net.cpp:382] pool0 -> pool0
I0504 01:17:56.672282  7124 net.cpp:124] Setting up pool0
I0504 01:17:56.672292  7124 net.cpp:131] Top shape: 1000 72 17 17 (20808000)
I0504 01:17:56.672297  7124 net.cpp:139] Memory required for data: 761388000
I0504 01:17:56.672302  7124 layer_factory.hpp:77] Creating layer ip1
I0504 01:17:56.672310  7124 net.cpp:86] Creating Layer ip1
I0504 01:17:56.672318  7124 net.cpp:408] ip1 <- pool0
I0504 01:17:56.672325  7124 net.cpp:382] ip1 -> ip1
I0504 01:17:56.715189  7124 net.cpp:124] Setting up ip1
I0504 01:17:56.715214  7124 net.cpp:131] Top shape: 1000 60 (60000)
I0504 01:17:56.715219  7124 net.cpp:139] Memory required for data: 761628000
I0504 01:17:56.715232  7124 layer_factory.hpp:77] Creating layer relu1
I0504 01:17:56.715241  7124 net.cpp:86] Creating Layer relu1
I0504 01:17:56.715246  7124 net.cpp:408] relu1 <- ip1
I0504 01:17:56.715253  7124 net.cpp:369] relu1 -> ip1 (in-place)
I0504 01:17:56.715481  7124 net.cpp:124] Setting up relu1
I0504 01:17:56.715490  7124 net.cpp:131] Top shape: 1000 60 (60000)
I0504 01:17:56.715494  7124 net.cpp:139] Memory required for data: 761868000
I0504 01:17:56.715498  7124 layer_factory.hpp:77] Creating layer ip2
I0504 01:17:56.715507  7124 net.cpp:86] Creating Layer ip2
I0504 01:17:56.715514  7124 net.cpp:408] ip2 <- ip1
I0504 01:17:56.715520  7124 net.cpp:382] ip2 -> ip2
I0504 01:17:56.716001  7124 net.cpp:124] Setting up ip2
I0504 01:17:56.716011  7124 net.cpp:131] Top shape: 1000 180 (180000)
I0504 01:17:56.716013  7124 net.cpp:139] Memory required for data: 762588000
I0504 01:17:56.716022  7124 layer_factory.hpp:77] Creating layer relu2
I0504 01:17:56.716030  7124 net.cpp:86] Creating Layer relu2
I0504 01:17:56.716034  7124 net.cpp:408] relu2 <- ip2
I0504 01:17:56.716038  7124 net.cpp:369] relu2 -> ip2 (in-place)
I0504 01:17:56.716228  7124 net.cpp:124] Setting up relu2
I0504 01:17:56.716236  7124 net.cpp:131] Top shape: 1000 180 (180000)
I0504 01:17:56.716240  7124 net.cpp:139] Memory required for data: 763308000
I0504 01:17:56.716243  7124 layer_factory.hpp:77] Creating layer ip3
I0504 01:17:56.716251  7124 net.cpp:86] Creating Layer ip3
I0504 01:17:56.716258  7124 net.cpp:408] ip3 <- ip2
I0504 01:17:56.716262  7124 net.cpp:382] ip3 -> ip3
I0504 01:17:56.716449  7124 net.cpp:124] Setting up ip3
I0504 01:17:56.716457  7124 net.cpp:131] Top shape: 1000 10 (10000)
I0504 01:17:56.716477  7124 net.cpp:139] Memory required for data: 763348000
I0504 01:17:56.716485  7124 layer_factory.hpp:77] Creating layer ip3_ip3_0_split
I0504 01:17:56.716493  7124 net.cpp:86] Creating Layer ip3_ip3_0_split
I0504 01:17:56.716497  7124 net.cpp:408] ip3_ip3_0_split <- ip3
I0504 01:17:56.716502  7124 net.cpp:382] ip3_ip3_0_split -> ip3_ip3_0_split_0
I0504 01:17:56.716509  7124 net.cpp:382] ip3_ip3_0_split -> ip3_ip3_0_split_1
I0504 01:17:56.716548  7124 net.cpp:124] Setting up ip3_ip3_0_split
I0504 01:17:56.716558  7124 net.cpp:131] Top shape: 1000 10 (10000)
I0504 01:17:56.716564  7124 net.cpp:131] Top shape: 1000 10 (10000)
I0504 01:17:56.716568  7124 net.cpp:139] Memory required for data: 763428000
I0504 01:17:56.716572  7124 layer_factory.hpp:77] Creating layer accuracy
I0504 01:17:56.716585  7124 net.cpp:86] Creating Layer accuracy
I0504 01:17:56.716590  7124 net.cpp:408] accuracy <- ip3_ip3_0_split_0
I0504 01:17:56.716595  7124 net.cpp:408] accuracy <- label_cifar_1_split_0
I0504 01:17:56.716601  7124 net.cpp:382] accuracy -> accuracy
…
