…
I0504 10:17:57.737478 25078 net.cpp:296] The NetState phase (0) differed from the phase (1) specified by a rule in layer cifar
I0504 10:17:57.737496 25078 net.cpp:296] The NetState phase (0) differed from the phase (1) specified by a rule in layer accuracy
I0504 10:17:57.737597 25078 net.cpp:53] Initializing net from parameters: 
name: "CIFAR"
state {
  phase: TRAIN
  level: 0
  stage: ""
}
layer {
  name: "cifar"
  type: "Data"
  top: "data"
  top: "label"
  include {
    phase: TRAIN
  }
  transform_param {
    mean_file: "examples/cifar10/mean.binaryproto"
  }
  data_param {
    source: "examples/cifar10/cifar10_train_lmdb"
    batch_size: 111
    backend: LMDB
  }
}
layer {
  name: "conv0"
  type: "Convolution"
  bottom: "data"
  top: "conv0"
  param {
    lr_mult: 1
  }
  param {
    lr_mult: 2
  }
  convolution_param {
    num_output: 24
    pad: 2
    kernel_size: 5
    stride: 1
    weight_filler {
      type: "gaussian"
      std: 0.01
    }
    bias_filler {
      type: "constant"
    }
  }
}
layer {
  name: "Sigmoid0"
  type: "Sigmoid"
  bottom: "conv0"
  top: "Sigmoid0"
}
layer {
  name: "pool0"
  type: "Pooling"
  bottom: "Sigmoid0"
  top: "pool0"
  pooling_param {
    pool: AVE
    kernel_size: 3
    stride: 2
  }
}
layer {
  name: "conv1"
  type: "Convolution"
  bottom: "pool0"
  top: "conv1"
  param {
    lr_mult: 1
  }
  param {
    lr_mult: 2
  }
  convolution_param {
    num_output: 72
    pad: 2
    kernel_size: 5
    stride: 1
    weight_filler {
      type: "gaussian"
      std: 0.01
    }
    bias_filler {
      type: "constant"
    }
  }
}
layer {
  name: "Sigmoid1"
  type: "Sigmoid"
  bottom: "conv1"
  top: "Sigmoid1"
}
layer {
  name: "pool1"
  type: "Pooling"
  bottom: "Sigmoid1"
  top: "pool1"
  pooling_param {
    pool: AVE
    kernel_size: 3
    stride: 2
  }
}
layer {
  name: "ip1"
  type: "InnerProduct"
  bottom: "pool1"
  top: "ip1"
  param {
    lr_mult: 1
  }
  param {
    lr_mult: 2
  }
  inner_product_param {
    num_output: 10
    weight_filler {
      type: "gaussian"
      std: 0.01
    }
    bias_filler {
      type: "constant"
    }
  }
}
layer {
  name: "relu1"
  type: "ReLU"
  bottom: "ip1"
  top: "ip1"
}
layer {
  name: "ip2"
  type: "InnerProduct"
  bottom: "ip1"
  top: "ip2"
  param {
    lr_mult: 1
  }
  param {
    lr_mult: 2
  }
  inner_product_param {
    num_output: 10
    weight_filler {
      type: "gaussian"
      std: 0.01
    }
    bias_filler {
      type: "constant"
    }
  }
}
layer {
  name: "loss"
  type: "SoftmaxWithLoss"
  bottom: "ip2"
  bottom: "label"
  top: "loss"
}
I0504 10:17:57.737673 25078 layer_factory.hpp:77] Creating layer cifar
I0504 10:17:57.737771 25078 db_lmdb.cpp:35] Opened lmdb examples/cifar10/cifar10_train_lmdb
I0504 10:17:57.737798 25078 net.cpp:86] Creating Layer cifar
I0504 10:17:57.737807 25078 net.cpp:382] cifar -> data
I0504 10:17:57.737830 25078 net.cpp:382] cifar -> label
I0504 10:17:57.737843 25078 data_transformer.cpp:25] Loading mean file from: examples/cifar10/mean.binaryproto
I0504 10:17:57.739997 25078 data_layer.cpp:45] output data size: 111,3,32,32
I0504 10:17:57.748001 25078 net.cpp:124] Setting up cifar
I0504 10:17:57.748019 25078 net.cpp:131] Top shape: 111 3 32 32 (340992)
I0504 10:17:57.748028 25078 net.cpp:131] Top shape: 111 (111)
I0504 10:17:57.748030 25078 net.cpp:139] Memory required for data: 1364412
I0504 10:17:57.748039 25078 layer_factory.hpp:77] Creating layer conv0
I0504 10:17:57.748054 25078 net.cpp:86] Creating Layer conv0
I0504 10:17:57.748075 25078 net.cpp:408] conv0 <- data
I0504 10:17:57.748090 25078 net.cpp:382] conv0 -> conv0
I0504 10:17:58.043051 25078 net.cpp:124] Setting up conv0
I0504 10:17:58.043081 25078 net.cpp:131] Top shape: 111 24 32 32 (2727936)
I0504 10:17:58.043087 25078 net.cpp:139] Memory required for data: 12276156
I0504 10:17:58.043104 25078 layer_factory.hpp:77] Creating layer Sigmoid0
I0504 10:17:58.043118 25078 net.cpp:86] Creating Layer Sigmoid0
I0504 10:17:58.043123 25078 net.cpp:408] Sigmoid0 <- conv0
I0504 10:17:58.043129 25078 net.cpp:382] Sigmoid0 -> Sigmoid0
I0504 10:17:58.043346 25078 net.cpp:124] Setting up Sigmoid0
I0504 10:17:58.043359 25078 net.cpp:131] Top shape: 111 24 32 32 (2727936)
I0504 10:17:58.043362 25078 net.cpp:139] Memory required for data: 23187900
I0504 10:17:58.043366 25078 layer_factory.hpp:77] Creating layer pool0
I0504 10:17:58.043375 25078 net.cpp:86] Creating Layer pool0
I0504 10:17:58.043380 25078 net.cpp:408] pool0 <- Sigmoid0
I0504 10:17:58.043385 25078 net.cpp:382] pool0 -> pool0
I0504 10:17:58.044272 25078 net.cpp:124] Setting up pool0
I0504 10:17:58.044287 25078 net.cpp:131] Top shape: 111 24 16 16 (681984)
I0504 10:17:58.044292 25078 net.cpp:139] Memory required for data: 25915836
I0504 10:17:58.044296 25078 layer_factory.hpp:77] Creating layer conv1
I0504 10:17:58.044311 25078 net.cpp:86] Creating Layer conv1
I0504 10:17:58.044315 25078 net.cpp:408] conv1 <- pool0
I0504 10:17:58.044322 25078 net.cpp:382] conv1 -> conv1
I0504 10:17:58.048925 25078 net.cpp:124] Setting up conv1
I0504 10:17:58.048943 25078 net.cpp:131] Top shape: 111 72 16 16 (2045952)
I0504 10:17:58.048948 25078 net.cpp:139] Memory required for data: 34099644
I0504 10:17:58.048957 25078 layer_factory.hpp:77] Creating layer Sigmoid1
I0504 10:17:58.048964 25078 net.cpp:86] Creating Layer Sigmoid1
I0504 10:17:58.048969 25078 net.cpp:408] Sigmoid1 <- conv1
I0504 10:17:58.048980 25078 net.cpp:382] Sigmoid1 -> Sigmoid1
I0504 10:17:58.049191 25078 net.cpp:124] Setting up Sigmoid1
I0504 10:17:58.049202 25078 net.cpp:131] Top shape: 111 72 16 16 (2045952)
I0504 10:17:58.049206 25078 net.cpp:139] Memory required for data: 42283452
I0504 10:17:58.049211 25078 layer_factory.hpp:77] Creating layer pool1
I0504 10:17:58.049217 25078 net.cpp:86] Creating Layer pool1
I0504 10:17:58.049221 25078 net.cpp:408] pool1 <- Sigmoid1
I0504 10:17:58.049227 25078 net.cpp:382] pool1 -> pool1
I0504 10:17:58.049425 25078 net.cpp:124] Setting up pool1
I0504 10:17:58.049435 25078 net.cpp:131] Top shape: 111 72 8 8 (511488)
I0504 10:17:58.049439 25078 net.cpp:139] Memory required for data: 44329404
I0504 10:17:58.049443 25078 layer_factory.hpp:77] Creating layer ip1
I0504 10:17:58.049451 25078 net.cpp:86] Creating Layer ip1
I0504 10:17:58.049455 25078 net.cpp:408] ip1 <- pool1
I0504 10:17:58.049461 25078 net.cpp:382] ip1 -> ip1
I0504 10:17:58.051090 25078 net.cpp:124] Setting up ip1
I0504 10:17:58.051100 25078 net.cpp:131] Top shape: 111 10 (1110)
I0504 10:17:58.051102 25078 net.cpp:139] Memory required for data: 44333844
I0504 10:17:58.051111 25078 layer_factory.hpp:77] Creating layer relu1
I0504 10:17:58.051118 25078 net.cpp:86] Creating Layer relu1
I0504 10:17:58.051122 25078 net.cpp:408] relu1 <- ip1
I0504 10:17:58.051127 25078 net.cpp:369] relu1 -> ip1 (in-place)
I0504 10:17:58.051314 25078 net.cpp:124] Setting up relu1
I0504 10:17:58.051323 25078 net.cpp:131] Top shape: 111 10 (1110)
I0504 10:17:58.051327 25078 net.cpp:139] Memory required for data: 44338284
I0504 10:17:58.051331 25078 layer_factory.hpp:77] Creating layer ip2
I0504 10:17:58.051338 25078 net.cpp:86] Creating Layer ip2
I0504 10:17:58.051342 25078 net.cpp:408] ip2 <- ip1
I0504 10:17:58.051348 25078 net.cpp:382] ip2 -> ip2
I0504 10:17:58.051471 25078 net.cpp:124] Setting up ip2
I0504 10:17:58.051479 25078 net.cpp:131] Top shape: 111 10 (1110)
I0504 10:17:58.051482 25078 net.cpp:139] Memory required for data: 44342724
I0504 10:17:58.051489 25078 layer_factory.hpp:77] Creating layer loss
I0504 10:17:58.051496 25078 net.cpp:86] Creating Layer loss
I0504 10:17:58.051517 25078 net.cpp:408] loss <- ip2
I0504 10:17:58.051522 25078 net.cpp:408] loss <- label
I0504 10:17:58.051527 25078 net.cpp:382] loss -> loss
I0504 10:17:58.051548 25078 layer_factory.hpp:77] Creating layer loss
…
I0504 10:17:58.052979 25078 solver.cpp:173] Creating test net (#0) specified by net file: ECE595/cifar/train_test/var_everything_tiny/cifar_train_test_132.prototxt
I0504 10:17:58.053009 25078 net.cpp:296] The NetState phase (1) differed from the phase (0) specified by a rule in layer cifar
I0504 10:17:58.053117 25078 net.cpp:53] Initializing net from parameters: 
name: "CIFAR"
state {
  phase: TEST
}
layer {
  name: "cifar"
  type: "Data"
  top: "data"
  top: "label"
  include {
    phase: TEST
  }
  transform_param {
    mean_file: "examples/cifar10/mean.binaryproto"
  }
  data_param {
    source: "examples/cifar10/cifar10_test_lmdb"
    batch_size: 1000
    backend: LMDB
  }
}
layer {
  name: "conv0"
  type: "Convolution"
  bottom: "data"
  top: "conv0"
  param {
    lr_mult: 1
  }
  param {
    lr_mult: 2
  }
  convolution_param {
    num_output: 24
    pad: 2
    kernel_size: 5
    stride: 1
    weight_filler {
      type: "gaussian"
      std: 0.01
    }
    bias_filler {
      type: "constant"
    }
  }
}
layer {
  name: "Sigmoid0"
  type: "Sigmoid"
  bottom: "conv0"
  top: "Sigmoid0"
}
layer {
  name: "pool0"
  type: "Pooling"
  bottom: "Sigmoid0"
  top: "pool0"
  pooling_param {
    pool: AVE
    kernel_size: 3
    stride: 2
  }
}
layer {
  name: "conv1"
  type: "Convolution"
  bottom: "pool0"
  top: "conv1"
  param {
    lr_mult: 1
  }
  param {
    lr_mult: 2
  }
  convolution_param {
    num_output: 72
    pad: 2
    kernel_size: 5
    stride: 1
    weight_filler {
      type: "gaussian"
      std: 0.01
    }
    bias_filler {
      type: "constant"
    }
  }
}
layer {
  name: "Sigmoid1"
  type: "Sigmoid"
  bottom: "conv1"
  top: "Sigmoid1"
}
layer {
  name: "pool1"
  type: "Pooling"
  bottom: "Sigmoid1"
  top: "pool1"
  pooling_param {
    pool: AVE
    kernel_size: 3
    stride: 2
  }
}
layer {
  name: "ip1"
  type: "InnerProduct"
  bottom: "pool1"
  top: "ip1"
  param {
    lr_mult: 1
  }
  param {
    lr_mult: 2
  }
  inner_product_param {
    num_output: 10
    weight_filler {
      type: "gaussian"
      std: 0.01
    }
    bias_filler {
      type: "constant"
    }
  }
}
layer {
  name: "relu1"
  type: "ReLU"
  bottom: "ip1"
  top: "ip1"
}
layer {
  name: "ip2"
  type: "InnerProduct"
  bottom: "ip1"
  top: "ip2"
  param {
    lr_mult: 1
  }
  param {
    lr_mult: 2
  }
  inner_product_param {
    num_output: 10
    weight_filler {
      type: "gaussian"
      std: 0.01
    }
    bias_filler {
      type: "constant"
    }
  }
}
layer {
  name: "accuracy"
  type: "Accuracy"
  bottom: "ip2"
  bottom: "label"
  top: "accuracy"
  include {
    phase: TEST
  }
}
layer {
  name: "loss"
  type: "SoftmaxWithLoss"
  bottom: "ip2"
  bottom: "label"
  top: "loss"
}
I0504 10:17:58.053210 25078 layer_factory.hpp:77] Creating layer cifar
I0504 10:17:58.053262 25078 db_lmdb.cpp:35] Opened lmdb examples/cifar10/cifar10_test_lmdb
I0504 10:17:58.053277 25078 net.cpp:86] Creating Layer cifar
I0504 10:17:58.053282 25078 net.cpp:382] cifar -> data
I0504 10:17:58.053292 25078 net.cpp:382] cifar -> label
I0504 10:17:58.053298 25078 data_transformer.cpp:25] Loading mean file from: examples/cifar10/mean.binaryproto
I0504 10:17:58.053473 25078 data_layer.cpp:45] output data size: 1000,3,32,32
I0504 10:17:58.079200 25078 net.cpp:124] Setting up cifar
I0504 10:17:58.079231 25078 net.cpp:131] Top shape: 1000 3 32 32 (3072000)
I0504 10:17:58.079237 25078 net.cpp:131] Top shape: 1000 (1000)
I0504 10:17:58.079241 25078 net.cpp:139] Memory required for data: 12292000
I0504 10:17:58.079248 25078 layer_factory.hpp:77] Creating layer label_cifar_1_split
I0504 10:17:58.079267 25078 net.cpp:86] Creating Layer label_cifar_1_split
I0504 10:17:58.079272 25078 net.cpp:408] label_cifar_1_split <- label
I0504 10:17:58.079279 25078 net.cpp:382] label_cifar_1_split -> label_cifar_1_split_0
I0504 10:17:58.079289 25078 net.cpp:382] label_cifar_1_split -> label_cifar_1_split_1
I0504 10:17:58.079368 25078 net.cpp:124] Setting up label_cifar_1_split
I0504 10:17:58.079376 25078 net.cpp:131] Top shape: 1000 (1000)
I0504 10:17:58.079380 25078 net.cpp:131] Top shape: 1000 (1000)
I0504 10:17:58.079385 25078 net.cpp:139] Memory required for data: 12300000
I0504 10:17:58.079387 25078 layer_factory.hpp:77] Creating layer conv0
I0504 10:17:58.079402 25078 net.cpp:86] Creating Layer conv0
I0504 10:17:58.079406 25078 net.cpp:408] conv0 <- data
I0504 10:17:58.079412 25078 net.cpp:382] conv0 -> conv0
I0504 10:17:58.080482 25078 net.cpp:124] Setting up conv0
I0504 10:17:58.080497 25078 net.cpp:131] Top shape: 1000 24 32 32 (24576000)
I0504 10:17:58.080500 25078 net.cpp:139] Memory required for data: 110604000
I0504 10:17:58.080513 25078 layer_factory.hpp:77] Creating layer Sigmoid0
I0504 10:17:58.080521 25078 net.cpp:86] Creating Layer Sigmoid0
I0504 10:17:58.080526 25078 net.cpp:408] Sigmoid0 <- conv0
I0504 10:17:58.080533 25078 net.cpp:382] Sigmoid0 -> Sigmoid0
I0504 10:17:58.081478 25078 net.cpp:124] Setting up Sigmoid0
I0504 10:17:58.081495 25078 net.cpp:131] Top shape: 1000 24 32 32 (24576000)
I0504 10:17:58.081499 25078 net.cpp:139] Memory required for data: 208908000
I0504 10:17:58.081503 25078 layer_factory.hpp:77] Creating layer pool0
I0504 10:17:58.081534 25078 net.cpp:86] Creating Layer pool0
I0504 10:17:58.081540 25078 net.cpp:408] pool0 <- Sigmoid0
I0504 10:17:58.081547 25078 net.cpp:382] pool0 -> pool0
I0504 10:17:58.081872 25078 net.cpp:124] Setting up pool0
I0504 10:17:58.081883 25078 net.cpp:131] Top shape: 1000 24 16 16 (6144000)
I0504 10:17:58.081887 25078 net.cpp:139] Memory required for data: 233484000
I0504 10:17:58.081890 25078 layer_factory.hpp:77] Creating layer conv1
I0504 10:17:58.081902 25078 net.cpp:86] Creating Layer conv1
I0504 10:17:58.081907 25078 net.cpp:408] conv1 <- pool0
I0504 10:17:58.081915 25078 net.cpp:382] conv1 -> conv1
I0504 10:17:58.085930 25078 net.cpp:124] Setting up conv1
I0504 10:17:58.085949 25078 net.cpp:131] Top shape: 1000 72 16 16 (18432000)
I0504 10:17:58.085953 25078 net.cpp:139] Memory required for data: 307212000
I0504 10:17:58.085964 25078 layer_factory.hpp:77] Creating layer Sigmoid1
I0504 10:17:58.085973 25078 net.cpp:86] Creating Layer Sigmoid1
I0504 10:17:58.085979 25078 net.cpp:408] Sigmoid1 <- conv1
I0504 10:17:58.085986 25078 net.cpp:382] Sigmoid1 -> Sigmoid1
I0504 10:17:58.086199 25078 net.cpp:124] Setting up Sigmoid1
I0504 10:17:58.086222 25078 net.cpp:131] Top shape: 1000 72 16 16 (18432000)
I0504 10:17:58.086227 25078 net.cpp:139] Memory required for data: 380940000
I0504 10:17:58.086231 25078 layer_factory.hpp:77] Creating layer pool1
I0504 10:17:58.086238 25078 net.cpp:86] Creating Layer pool1
I0504 10:17:58.086243 25078 net.cpp:408] pool1 <- Sigmoid1
I0504 10:17:58.086266 25078 net.cpp:382] pool1 -> pool1
I0504 10:17:58.086478 25078 net.cpp:124] Setting up pool1
I0504 10:17:58.086489 25078 net.cpp:131] Top shape: 1000 72 8 8 (4608000)
I0504 10:17:58.086493 25078 net.cpp:139] Memory required for data: 399372000
I0504 10:17:58.086498 25078 layer_factory.hpp:77] Creating layer ip1
I0504 10:17:58.086508 25078 net.cpp:86] Creating Layer ip1
I0504 10:17:58.086513 25078 net.cpp:408] ip1 <- pool1
I0504 10:17:58.086520 25078 net.cpp:382] ip1 -> ip1
I0504 10:17:58.088171 25078 net.cpp:124] Setting up ip1
I0504 10:17:58.088179 25078 net.cpp:131] Top shape: 1000 10 (10000)
I0504 10:17:58.088182 25078 net.cpp:139] Memory required for data: 399412000
I0504 10:17:58.088192 25078 layer_factory.hpp:77] Creating layer relu1
I0504 10:17:58.088207 25078 net.cpp:86] Creating Layer relu1
I0504 10:17:58.088212 25078 net.cpp:408] relu1 <- ip1
I0504 10:17:58.088217 25078 net.cpp:369] relu1 -> ip1 (in-place)
I0504 10:17:58.089117 25078 net.cpp:124] Setting up relu1
I0504 10:17:58.089133 25078 net.cpp:131] Top shape: 1000 10 (10000)
I0504 10:17:58.089136 25078 net.cpp:139] Memory required for data: 399452000
I0504 10:17:58.089148 25078 layer_factory.hpp:77] Creating layer ip2
I0504 10:17:58.089159 25078 net.cpp:86] Creating Layer ip2
I0504 10:17:58.089162 25078 net.cpp:408] ip2 <- ip1
I0504 10:17:58.089169 25078 net.cpp:382] ip2 -> ip2
I0504 10:17:58.089306 25078 net.cpp:124] Setting up ip2
I0504 10:17:58.089315 25078 net.cpp:131] Top shape: 1000 10 (10000)
I0504 10:17:58.089318 25078 net.cpp:139] Memory required for data: 399492000
I0504 10:17:58.089325 25078 layer_factory.hpp:77] Creating layer ip2_ip2_0_split
I0504 10:17:58.089331 25078 net.cpp:86] Creating Layer ip2_ip2_0_split
I0504 10:17:58.089335 25078 net.cpp:408] ip2_ip2_0_split <- ip2
I0504 10:17:58.089340 25078 net.cpp:382] ip2_ip2_0_split -> ip2_ip2_0_split_0
I0504 10:17:58.089349 25078 net.cpp:382] ip2_ip2_0_split -> ip2_ip2_0_split_1
I0504 10:17:58.089388 25078 net.cpp:124] Setting up ip2_ip2_0_split
I0504 10:17:58.089396 25078 net.cpp:131] Top shape: 1000 10 (10000)
I0504 10:17:58.089401 25078 net.cpp:131] Top shape: 1000 10 (10000)
I0504 10:17:58.089404 25078 net.cpp:139] Memory required for data: 399572000
I0504 10:17:58.089407 25078 layer_factory.hpp:77] Creating layer accuracy
I0504 10:17:58.089416 25078 net.cpp:86] Creating Layer accuracy
I0504 10:17:58.089419 25078 net.cpp:408] accuracy <- ip2_ip2_0_split_0
I0504 10:17:58.089423 25078 net.cpp:408] accuracy <- label_cifar_1_split_0
I0504 10:17:58.089429 25078 net.cpp:382] accuracy -> accuracy
…
