…
I0504 08:14:40.188432 21455 net.cpp:296] The NetState phase (0) differed from the phase (1) specified by a rule in layer cifar
I0504 08:14:40.188452 21455 net.cpp:296] The NetState phase (0) differed from the phase (1) specified by a rule in layer accuracy
I0504 08:14:40.188537 21455 net.cpp:53] Initializing net from parameters: 
name: "CIFAR"
state {
  phase: TRAIN
  level: 0
  stage: ""
}
layer {
  name: "cifar"
  type: "Data"
  top: "data"
  top: "label"
  include {
    phase: TRAIN
  }
  transform_param {
    mean_file: "examples/cifar10/mean.binaryproto"
  }
  data_param {
    source: "examples/cifar10/cifar10_train_lmdb"
    batch_size: 111
    backend: LMDB
  }
}
layer {
  name: "conv0"
  type: "Convolution"
  bottom: "data"
  top: "conv0"
  param {
    lr_mult: 1
  }
  param {
    lr_mult: 2
  }
  convolution_param {
    num_output: 24
    pad: 2
    kernel_size: 5
    stride: 1
    weight_filler {
      type: "gaussian"
      std: 0.01
    }
    bias_filler {
      type: "constant"
    }
  }
}
layer {
  name: "Sigmoid0"
  type: "Sigmoid"
  bottom: "conv0"
  top: "Sigmoid0"
}
layer {
  name: "pool0"
  type: "Pooling"
  bottom: "Sigmoid0"
  top: "pool0"
  pooling_param {
    pool: AVE
    kernel_size: 3
    stride: 2
  }
}
layer {
  name: "conv1"
  type: "Convolution"
  bottom: "pool0"
  top: "conv1"
  param {
    lr_mult: 1
  }
  param {
    lr_mult: 2
  }
  convolution_param {
    num_output: 24
    pad: 2
    kernel_size: 5
    stride: 1
    weight_filler {
      type: "gaussian"
      std: 0.01
    }
    bias_filler {
      type: "constant"
    }
  }
}
layer {
  name: "Sigmoid1"
  type: "Sigmoid"
  bottom: "conv1"
  top: "Sigmoid1"
}
layer {
  name: "pool1"
  type: "Pooling"
  bottom: "Sigmoid1"
  top: "pool1"
  pooling_param {
    pool: AVE
    kernel_size: 3
    stride: 2
  }
}
layer {
  name: "ip1"
  type: "InnerProduct"
  bottom: "pool1"
  top: "ip1"
  param {
    lr_mult: 1
  }
  param {
    lr_mult: 2
  }
  inner_product_param {
    num_output: 60
    weight_filler {
      type: "gaussian"
      std: 0.01
    }
    bias_filler {
      type: "constant"
    }
  }
}
layer {
  name: "relu1"
  type: "ReLU"
  bottom: "ip1"
  top: "ip1"
}
layer {
  name: "ip2"
  type: "InnerProduct"
  bottom: "ip1"
  top: "ip2"
  param {
    lr_mult: 1
  }
  param {
    lr_mult: 2
  }
  inner_product_param {
    num_output: 10
    weight_filler {
      type: "gaussian"
      std: 0.01
    }
    bias_filler {
      type: "constant"
    }
  }
}
layer {
  name: "loss"
  type: "SoftmaxWithLoss"
  bottom: "ip2"
  bottom: "label"
  top: "loss"
}
I0504 08:14:40.188621 21455 layer_factory.hpp:77] Creating layer cifar
I0504 08:14:40.188730 21455 db_lmdb.cpp:35] Opened lmdb examples/cifar10/cifar10_train_lmdb
I0504 08:14:40.188762 21455 net.cpp:86] Creating Layer cifar
I0504 08:14:40.188772 21455 net.cpp:382] cifar -> data
I0504 08:14:40.188798 21455 net.cpp:382] cifar -> label
I0504 08:14:40.188832 21455 data_transformer.cpp:25] Loading mean file from: examples/cifar10/mean.binaryproto
I0504 08:14:40.190796 21455 data_layer.cpp:45] output data size: 111,3,32,32
I0504 08:14:40.197334 21455 net.cpp:124] Setting up cifar
I0504 08:14:40.197350 21455 net.cpp:131] Top shape: 111 3 32 32 (340992)
I0504 08:14:40.197360 21455 net.cpp:131] Top shape: 111 (111)
I0504 08:14:40.197365 21455 net.cpp:139] Memory required for data: 1364412
I0504 08:14:40.197373 21455 layer_factory.hpp:77] Creating layer conv0
I0504 08:14:40.197392 21455 net.cpp:86] Creating Layer conv0
I0504 08:14:40.197413 21455 net.cpp:408] conv0 <- data
I0504 08:14:40.197430 21455 net.cpp:382] conv0 -> conv0
I0504 08:14:40.426055 21455 net.cpp:124] Setting up conv0
I0504 08:14:40.426084 21455 net.cpp:131] Top shape: 111 24 32 32 (2727936)
I0504 08:14:40.426089 21455 net.cpp:139] Memory required for data: 12276156
I0504 08:14:40.426123 21455 layer_factory.hpp:77] Creating layer Sigmoid0
I0504 08:14:40.426138 21455 net.cpp:86] Creating Layer Sigmoid0
I0504 08:14:40.426144 21455 net.cpp:408] Sigmoid0 <- conv0
I0504 08:14:40.426152 21455 net.cpp:382] Sigmoid0 -> Sigmoid0
I0504 08:14:40.426331 21455 net.cpp:124] Setting up Sigmoid0
I0504 08:14:40.426342 21455 net.cpp:131] Top shape: 111 24 32 32 (2727936)
I0504 08:14:40.426347 21455 net.cpp:139] Memory required for data: 23187900
I0504 08:14:40.426365 21455 layer_factory.hpp:77] Creating layer pool0
I0504 08:14:40.426374 21455 net.cpp:86] Creating Layer pool0
I0504 08:14:40.426379 21455 net.cpp:408] pool0 <- Sigmoid0
I0504 08:14:40.426386 21455 net.cpp:382] pool0 -> pool0
I0504 08:14:40.427073 21455 net.cpp:124] Setting up pool0
I0504 08:14:40.427086 21455 net.cpp:131] Top shape: 111 24 16 16 (681984)
I0504 08:14:40.427091 21455 net.cpp:139] Memory required for data: 25915836
I0504 08:14:40.427112 21455 layer_factory.hpp:77] Creating layer conv1
I0504 08:14:40.427129 21455 net.cpp:86] Creating Layer conv1
I0504 08:14:40.427153 21455 net.cpp:408] conv1 <- pool0
I0504 08:14:40.427162 21455 net.cpp:382] conv1 -> conv1
I0504 08:14:40.429950 21455 net.cpp:124] Setting up conv1
I0504 08:14:40.429965 21455 net.cpp:131] Top shape: 111 24 16 16 (681984)
I0504 08:14:40.429970 21455 net.cpp:139] Memory required for data: 28643772
I0504 08:14:40.429982 21455 layer_factory.hpp:77] Creating layer Sigmoid1
I0504 08:14:40.429991 21455 net.cpp:86] Creating Layer Sigmoid1
I0504 08:14:40.429996 21455 net.cpp:408] Sigmoid1 <- conv1
I0504 08:14:40.430002 21455 net.cpp:382] Sigmoid1 -> Sigmoid1
I0504 08:14:40.430162 21455 net.cpp:124] Setting up Sigmoid1
I0504 08:14:40.430172 21455 net.cpp:131] Top shape: 111 24 16 16 (681984)
I0504 08:14:40.430176 21455 net.cpp:139] Memory required for data: 31371708
I0504 08:14:40.430197 21455 layer_factory.hpp:77] Creating layer pool1
I0504 08:14:40.430205 21455 net.cpp:86] Creating Layer pool1
I0504 08:14:40.430210 21455 net.cpp:408] pool1 <- Sigmoid1
I0504 08:14:40.430217 21455 net.cpp:382] pool1 -> pool1
I0504 08:14:40.430378 21455 net.cpp:124] Setting up pool1
I0504 08:14:40.430388 21455 net.cpp:131] Top shape: 111 24 8 8 (170496)
I0504 08:14:40.430392 21455 net.cpp:139] Memory required for data: 32053692
I0504 08:14:40.430397 21455 layer_factory.hpp:77] Creating layer ip1
I0504 08:14:40.430407 21455 net.cpp:86] Creating Layer ip1
I0504 08:14:40.430428 21455 net.cpp:408] ip1 <- pool1
I0504 08:14:40.430435 21455 net.cpp:382] ip1 -> ip1
I0504 08:14:40.432978 21455 net.cpp:124] Setting up ip1
I0504 08:14:40.432989 21455 net.cpp:131] Top shape: 111 60 (6660)
I0504 08:14:40.432993 21455 net.cpp:139] Memory required for data: 32080332
I0504 08:14:40.433006 21455 layer_factory.hpp:77] Creating layer relu1
I0504 08:14:40.433015 21455 net.cpp:86] Creating Layer relu1
I0504 08:14:40.433020 21455 net.cpp:408] relu1 <- ip1
I0504 08:14:40.433027 21455 net.cpp:369] relu1 -> ip1 (in-place)
I0504 08:14:40.433208 21455 net.cpp:124] Setting up relu1
I0504 08:14:40.433218 21455 net.cpp:131] Top shape: 111 60 (6660)
I0504 08:14:40.433223 21455 net.cpp:139] Memory required for data: 32106972
I0504 08:14:40.433226 21455 layer_factory.hpp:77] Creating layer ip2
I0504 08:14:40.433235 21455 net.cpp:86] Creating Layer ip2
I0504 08:14:40.433240 21455 net.cpp:408] ip2 <- ip1
I0504 08:14:40.433248 21455 net.cpp:382] ip2 -> ip2
I0504 08:14:40.433353 21455 net.cpp:124] Setting up ip2
I0504 08:14:40.433362 21455 net.cpp:131] Top shape: 111 10 (1110)
I0504 08:14:40.433365 21455 net.cpp:139] Memory required for data: 32111412
I0504 08:14:40.433373 21455 layer_factory.hpp:77] Creating layer loss
I0504 08:14:40.433382 21455 net.cpp:86] Creating Layer loss
I0504 08:14:40.433403 21455 net.cpp:408] loss <- ip2
I0504 08:14:40.433410 21455 net.cpp:408] loss <- label
I0504 08:14:40.433418 21455 net.cpp:382] loss -> loss
I0504 08:14:40.433439 21455 layer_factory.hpp:77] Creating layer loss
…
I0504 08:14:40.434613 21455 solver.cpp:173] Creating test net (#0) specified by net file: ECE595/cifar/train_test/var_everything_tiny/cifar_train_test_97.prototxt
I0504 08:14:40.434645 21455 net.cpp:296] The NetState phase (1) differed from the phase (0) specified by a rule in layer cifar
I0504 08:14:40.434733 21455 net.cpp:53] Initializing net from parameters: 
name: "CIFAR"
state {
  phase: TEST
}
layer {
  name: "cifar"
  type: "Data"
  top: "data"
  top: "label"
  include {
    phase: TEST
  }
  transform_param {
    mean_file: "examples/cifar10/mean.binaryproto"
  }
  data_param {
    source: "examples/cifar10/cifar10_test_lmdb"
    batch_size: 1000
    backend: LMDB
  }
}
layer {
  name: "conv0"
  type: "Convolution"
  bottom: "data"
  top: "conv0"
  param {
    lr_mult: 1
  }
  param {
    lr_mult: 2
  }
  convolution_param {
    num_output: 24
    pad: 2
    kernel_size: 5
    stride: 1
    weight_filler {
      type: "gaussian"
      std: 0.01
    }
    bias_filler {
      type: "constant"
    }
  }
}
layer {
  name: "Sigmoid0"
  type: "Sigmoid"
  bottom: "conv0"
  top: "Sigmoid0"
}
layer {
  name: "pool0"
  type: "Pooling"
  bottom: "Sigmoid0"
  top: "pool0"
  pooling_param {
    pool: AVE
    kernel_size: 3
    stride: 2
  }
}
layer {
  name: "conv1"
  type: "Convolution"
  bottom: "pool0"
  top: "conv1"
  param {
    lr_mult: 1
  }
  param {
    lr_mult: 2
  }
  convolution_param {
    num_output: 24
    pad: 2
    kernel_size: 5
    stride: 1
    weight_filler {
      type: "gaussian"
      std: 0.01
    }
    bias_filler {
      type: "constant"
    }
  }
}
layer {
  name: "Sigmoid1"
  type: "Sigmoid"
  bottom: "conv1"
  top: "Sigmoid1"
}
layer {
  name: "pool1"
  type: "Pooling"
  bottom: "Sigmoid1"
  top: "pool1"
  pooling_param {
    pool: AVE
    kernel_size: 3
    stride: 2
  }
}
layer {
  name: "ip1"
  type: "InnerProduct"
  bottom: "pool1"
  top: "ip1"
  param {
    lr_mult: 1
  }
  param {
    lr_mult: 2
  }
  inner_product_param {
    num_output: 60
    weight_filler {
      type: "gaussian"
      std: 0.01
    }
    bias_filler {
      type: "constant"
    }
  }
}
layer {
  name: "relu1"
  type: "ReLU"
  bottom: "ip1"
  top: "ip1"
}
layer {
  name: "ip2"
  type: "InnerProduct"
  bottom: "ip1"
  top: "ip2"
  param {
    lr_mult: 1
  }
  param {
    lr_mult: 2
  }
  inner_product_param {
    num_output: 10
    weight_filler {
      type: "gaussian"
      std: 0.01
    }
    bias_filler {
      type: "constant"
    }
  }
}
layer {
  name: "accuracy"
  type: "Accuracy"
  bottom: "ip2"
  bottom: "label"
  top: "accuracy"
  include {
    phase: TEST
  }
}
layer {
  name: "loss"
  type: "SoftmaxWithLoss"
  bottom: "ip2"
  bottom: "label"
  top: "loss"
}
I0504 08:14:40.434849 21455 layer_factory.hpp:77] Creating layer cifar
I0504 08:14:40.434904 21455 db_lmdb.cpp:35] Opened lmdb examples/cifar10/cifar10_test_lmdb
I0504 08:14:40.434921 21455 net.cpp:86] Creating Layer cifar
I0504 08:14:40.434927 21455 net.cpp:382] cifar -> data
I0504 08:14:40.434938 21455 net.cpp:382] cifar -> label
I0504 08:14:40.434947 21455 data_transformer.cpp:25] Loading mean file from: examples/cifar10/mean.binaryproto
I0504 08:14:40.435149 21455 data_layer.cpp:45] output data size: 1000,3,32,32
I0504 08:14:40.456749 21455 net.cpp:124] Setting up cifar
I0504 08:14:40.456776 21455 net.cpp:131] Top shape: 1000 3 32 32 (3072000)
I0504 08:14:40.456784 21455 net.cpp:131] Top shape: 1000 (1000)
I0504 08:14:40.456789 21455 net.cpp:139] Memory required for data: 12292000
I0504 08:14:40.456817 21455 layer_factory.hpp:77] Creating layer label_cifar_1_split
I0504 08:14:40.456864 21455 net.cpp:86] Creating Layer label_cifar_1_split
I0504 08:14:40.456871 21455 net.cpp:408] label_cifar_1_split <- label
I0504 08:14:40.456897 21455 net.cpp:382] label_cifar_1_split -> label_cifar_1_split_0
I0504 08:14:40.456910 21455 net.cpp:382] label_cifar_1_split -> label_cifar_1_split_1
I0504 08:14:40.457034 21455 net.cpp:124] Setting up label_cifar_1_split
I0504 08:14:40.457044 21455 net.cpp:131] Top shape: 1000 (1000)
I0504 08:14:40.457051 21455 net.cpp:131] Top shape: 1000 (1000)
I0504 08:14:40.457056 21455 net.cpp:139] Memory required for data: 12300000
I0504 08:14:40.457062 21455 layer_factory.hpp:77] Creating layer conv0
I0504 08:14:40.457079 21455 net.cpp:86] Creating Layer conv0
I0504 08:14:40.457087 21455 net.cpp:408] conv0 <- data
I0504 08:14:40.457096 21455 net.cpp:382] conv0 -> conv0
I0504 08:14:40.457950 21455 net.cpp:124] Setting up conv0
I0504 08:14:40.457964 21455 net.cpp:131] Top shape: 1000 24 32 32 (24576000)
I0504 08:14:40.457969 21455 net.cpp:139] Memory required for data: 110604000
I0504 08:14:40.457998 21455 layer_factory.hpp:77] Creating layer Sigmoid0
I0504 08:14:40.458008 21455 net.cpp:86] Creating Layer Sigmoid0
I0504 08:14:40.458019 21455 net.cpp:408] Sigmoid0 <- conv0
I0504 08:14:40.458025 21455 net.cpp:382] Sigmoid0 -> Sigmoid0
I0504 08:14:40.458884 21455 net.cpp:124] Setting up Sigmoid0
I0504 08:14:40.458896 21455 net.cpp:131] Top shape: 1000 24 32 32 (24576000)
I0504 08:14:40.458901 21455 net.cpp:139] Memory required for data: 208908000
I0504 08:14:40.458922 21455 layer_factory.hpp:77] Creating layer pool0
I0504 08:14:40.458935 21455 net.cpp:86] Creating Layer pool0
I0504 08:14:40.458940 21455 net.cpp:408] pool0 <- Sigmoid0
I0504 08:14:40.458948 21455 net.cpp:382] pool0 -> pool0
I0504 08:14:40.460078 21455 net.cpp:124] Setting up pool0
I0504 08:14:40.460089 21455 net.cpp:131] Top shape: 1000 24 16 16 (6144000)
I0504 08:14:40.460093 21455 net.cpp:139] Memory required for data: 233484000
I0504 08:14:40.460114 21455 layer_factory.hpp:77] Creating layer conv1
I0504 08:14:40.460126 21455 net.cpp:86] Creating Layer conv1
I0504 08:14:40.460132 21455 net.cpp:408] conv1 <- pool0
I0504 08:14:40.460141 21455 net.cpp:382] conv1 -> conv1
I0504 08:14:40.461805 21455 net.cpp:124] Setting up conv1
I0504 08:14:40.461819 21455 net.cpp:131] Top shape: 1000 24 16 16 (6144000)
I0504 08:14:40.461824 21455 net.cpp:139] Memory required for data: 258060000
I0504 08:14:40.461851 21455 layer_factory.hpp:77] Creating layer Sigmoid1
I0504 08:14:40.461861 21455 net.cpp:86] Creating Layer Sigmoid1
I0504 08:14:40.461866 21455 net.cpp:408] Sigmoid1 <- conv1
I0504 08:14:40.461874 21455 net.cpp:382] Sigmoid1 -> Sigmoid1
I0504 08:14:40.462038 21455 net.cpp:124] Setting up Sigmoid1
I0504 08:14:40.462049 21455 net.cpp:131] Top shape: 1000 24 16 16 (6144000)
I0504 08:14:40.462054 21455 net.cpp:139] Memory required for data: 282636000
I0504 08:14:40.462059 21455 layer_factory.hpp:77] Creating layer pool1
I0504 08:14:40.462067 21455 net.cpp:86] Creating Layer pool1
I0504 08:14:40.462072 21455 net.cpp:408] pool1 <- Sigmoid1
I0504 08:14:40.462095 21455 net.cpp:382] pool1 -> pool1
I0504 08:14:40.462281 21455 net.cpp:124] Setting up pool1
I0504 08:14:40.462291 21455 net.cpp:131] Top shape: 1000 24 8 8 (1536000)
I0504 08:14:40.462296 21455 net.cpp:139] Memory required for data: 288780000
I0504 08:14:40.462301 21455 layer_factory.hpp:77] Creating layer ip1
I0504 08:14:40.462313 21455 net.cpp:86] Creating Layer ip1
I0504 08:14:40.462319 21455 net.cpp:408] ip1 <- pool1
I0504 08:14:40.462327 21455 net.cpp:382] ip1 -> ip1
I0504 08:14:40.464853 21455 net.cpp:124] Setting up ip1
I0504 08:14:40.464877 21455 net.cpp:131] Top shape: 1000 60 (60000)
I0504 08:14:40.464882 21455 net.cpp:139] Memory required for data: 289020000
I0504 08:14:40.464910 21455 layer_factory.hpp:77] Creating layer relu1
I0504 08:14:40.464942 21455 net.cpp:86] Creating Layer relu1
I0504 08:14:40.464952 21455 net.cpp:408] relu1 <- ip1
I0504 08:14:40.464960 21455 net.cpp:369] relu1 -> ip1 (in-place)
I0504 08:14:40.465759 21455 net.cpp:124] Setting up relu1
I0504 08:14:40.465772 21455 net.cpp:131] Top shape: 1000 60 (60000)
I0504 08:14:40.465777 21455 net.cpp:139] Memory required for data: 289260000
I0504 08:14:40.465782 21455 layer_factory.hpp:77] Creating layer ip2
I0504 08:14:40.465807 21455 net.cpp:86] Creating Layer ip2
I0504 08:14:40.465812 21455 net.cpp:408] ip2 <- ip1
I0504 08:14:40.465821 21455 net.cpp:382] ip2 -> ip2
I0504 08:14:40.465950 21455 net.cpp:124] Setting up ip2
I0504 08:14:40.465958 21455 net.cpp:131] Top shape: 1000 10 (10000)
I0504 08:14:40.465962 21455 net.cpp:139] Memory required for data: 289300000
I0504 08:14:40.465971 21455 layer_factory.hpp:77] Creating layer ip2_ip2_0_split
I0504 08:14:40.465981 21455 net.cpp:86] Creating Layer ip2_ip2_0_split
I0504 08:14:40.465986 21455 net.cpp:408] ip2_ip2_0_split <- ip2
I0504 08:14:40.465992 21455 net.cpp:382] ip2_ip2_0_split -> ip2_ip2_0_split_0
I0504 08:14:40.466002 21455 net.cpp:382] ip2_ip2_0_split -> ip2_ip2_0_split_1
I0504 08:14:40.466039 21455 net.cpp:124] Setting up ip2_ip2_0_split
I0504 08:14:40.466047 21455 net.cpp:131] Top shape: 1000 10 (10000)
I0504 08:14:40.466051 21455 net.cpp:131] Top shape: 1000 10 (10000)
I0504 08:14:40.466056 21455 net.cpp:139] Memory required for data: 289380000
I0504 08:14:40.466061 21455 layer_factory.hpp:77] Creating layer accuracy
I0504 08:14:40.466069 21455 net.cpp:86] Creating Layer accuracy
I0504 08:14:40.466074 21455 net.cpp:408] accuracy <- ip2_ip2_0_split_0
I0504 08:14:40.466081 21455 net.cpp:408] accuracy <- label_cifar_1_split_0
I0504 08:14:40.466089 21455 net.cpp:382] accuracy -> accuracy
…
