…
I0504 07:22:19.422204 18613 net.cpp:296] The NetState phase (0) differed from the phase (1) specified by a rule in layer cifar
I0504 07:22:19.422245 18613 net.cpp:296] The NetState phase (0) differed from the phase (1) specified by a rule in layer accuracy
I0504 07:22:19.422371 18613 net.cpp:53] Initializing net from parameters: 
name: "CIFAR"
state {
  phase: TRAIN
  level: 0
  stage: ""
}
layer {
  name: "cifar"
  type: "Data"
  top: "data"
  top: "label"
  include {
    phase: TRAIN
  }
  transform_param {
    mean_file: "examples/cifar10/mean.binaryproto"
  }
  data_param {
    source: "examples/cifar10/cifar10_train_lmdb"
    batch_size: 111
    backend: LMDB
  }
}
layer {
  name: "conv0"
  type: "Convolution"
  bottom: "data"
  top: "conv0"
  param {
    lr_mult: 1
  }
  param {
    lr_mult: 2
  }
  convolution_param {
    num_output: 24
    pad: 2
    kernel_size: 3
    stride: 1
    weight_filler {
      type: "gaussian"
      std: 0.01
    }
    bias_filler {
      type: "constant"
    }
  }
}
layer {
  name: "Sigmoid0"
  type: "Sigmoid"
  bottom: "conv0"
  top: "Sigmoid0"
}
layer {
  name: "pool0"
  type: "Pooling"
  bottom: "Sigmoid0"
  top: "pool0"
  pooling_param {
    pool: AVE
    kernel_size: 3
    stride: 2
  }
}
layer {
  name: "conv1"
  type: "Convolution"
  bottom: "pool0"
  top: "conv1"
  param {
    lr_mult: 1
  }
  param {
    lr_mult: 2
  }
  convolution_param {
    num_output: 24
    pad: 2
    kernel_size: 3
    stride: 1
    weight_filler {
      type: "gaussian"
      std: 0.01
    }
    bias_filler {
      type: "constant"
    }
  }
}
layer {
  name: "Sigmoid1"
  type: "Sigmoid"
  bottom: "conv1"
  top: "Sigmoid1"
}
layer {
  name: "pool1"
  type: "Pooling"
  bottom: "Sigmoid1"
  top: "pool1"
  pooling_param {
    pool: AVE
    kernel_size: 3
    stride: 2
  }
}
layer {
  name: "ip1"
  type: "InnerProduct"
  bottom: "pool1"
  top: "ip1"
  param {
    lr_mult: 1
  }
  param {
    lr_mult: 2
  }
  inner_product_param {
    num_output: 60
    weight_filler {
      type: "gaussian"
      std: 0.01
    }
    bias_filler {
      type: "constant"
    }
  }
}
layer {
  name: "relu1"
  type: "ReLU"
  bottom: "ip1"
  top: "ip1"
}
layer {
  name: "ip2"
  type: "InnerProduct"
  bottom: "ip1"
  top: "ip2"
  param {
    lr_mult: 1
  }
  param {
    lr_mult: 2
  }
  inner_product_param {
    num_output: 10
    weight_filler {
      type: "gaussian"
      std: 0.01
    }
    bias_filler {
      type: "constant"
    }
  }
}
layer {
  name: "relu2"
  type: "ReLU"
  bottom: "ip2"
  top: "ip2"
}
layer {
  name: "ip3"
  type: "InnerProduct"
  bottom: "ip2"
  top: "ip3"
  param {
    lr_mult: 1
  }
  param {
    lr_mult: 2
  }
  inner_product_param {
    num_output: 10
    weight_filler {
      type: "gaussian"
      std: 0.01
    }
    bias_filler {
      type: "constant"
    }
  }
}
layer {
  name: "loss"
  type: "SoftmaxWithLoss"
  bottom: "ip3"
  bottom: "label"
  top: "loss"
}
I0504 07:22:19.422437 18613 layer_factory.hpp:77] Creating layer cifar
I0504 07:22:19.422533 18613 db_lmdb.cpp:35] Opened lmdb examples/cifar10/cifar10_train_lmdb
I0504 07:22:19.422555 18613 net.cpp:86] Creating Layer cifar
I0504 07:22:19.422564 18613 net.cpp:382] cifar -> data
I0504 07:22:19.422582 18613 net.cpp:382] cifar -> label
I0504 07:22:19.422591 18613 data_transformer.cpp:25] Loading mean file from: examples/cifar10/mean.binaryproto
I0504 07:22:19.424443 18613 data_layer.cpp:45] output data size: 111,3,32,32
I0504 07:22:19.431161 18613 net.cpp:124] Setting up cifar
I0504 07:22:19.431192 18613 net.cpp:131] Top shape: 111 3 32 32 (340992)
I0504 07:22:19.431197 18613 net.cpp:131] Top shape: 111 (111)
I0504 07:22:19.431200 18613 net.cpp:139] Memory required for data: 1364412
I0504 07:22:19.431206 18613 layer_factory.hpp:77] Creating layer conv0
I0504 07:22:19.431242 18613 net.cpp:86] Creating Layer conv0
I0504 07:22:19.431247 18613 net.cpp:408] conv0 <- data
I0504 07:22:19.431257 18613 net.cpp:382] conv0 -> conv0
I0504 07:22:19.658180 18613 net.cpp:124] Setting up conv0
I0504 07:22:19.658207 18613 net.cpp:131] Top shape: 111 24 34 34 (3079584)
I0504 07:22:19.658211 18613 net.cpp:139] Memory required for data: 13682748
I0504 07:22:19.658226 18613 layer_factory.hpp:77] Creating layer Sigmoid0
I0504 07:22:19.658252 18613 net.cpp:86] Creating Layer Sigmoid0
I0504 07:22:19.658260 18613 net.cpp:408] Sigmoid0 <- conv0
I0504 07:22:19.658265 18613 net.cpp:382] Sigmoid0 -> Sigmoid0
I0504 07:22:19.658448 18613 net.cpp:124] Setting up Sigmoid0
I0504 07:22:19.658455 18613 net.cpp:131] Top shape: 111 24 34 34 (3079584)
I0504 07:22:19.658458 18613 net.cpp:139] Memory required for data: 26001084
I0504 07:22:19.658462 18613 layer_factory.hpp:77] Creating layer pool0
I0504 07:22:19.658468 18613 net.cpp:86] Creating Layer pool0
I0504 07:22:19.658471 18613 net.cpp:408] pool0 <- Sigmoid0
I0504 07:22:19.658475 18613 net.cpp:382] pool0 -> pool0
I0504 07:22:19.659286 18613 net.cpp:124] Setting up pool0
I0504 07:22:19.659301 18613 net.cpp:131] Top shape: 111 24 17 17 (769896)
I0504 07:22:19.659303 18613 net.cpp:139] Memory required for data: 29080668
I0504 07:22:19.659307 18613 layer_factory.hpp:77] Creating layer conv1
I0504 07:22:19.659333 18613 net.cpp:86] Creating Layer conv1
I0504 07:22:19.659337 18613 net.cpp:408] conv1 <- pool0
I0504 07:22:19.659343 18613 net.cpp:382] conv1 -> conv1
I0504 07:22:19.661959 18613 net.cpp:124] Setting up conv1
I0504 07:22:19.661972 18613 net.cpp:131] Top shape: 111 24 19 19 (961704)
I0504 07:22:19.661976 18613 net.cpp:139] Memory required for data: 32927484
I0504 07:22:19.661984 18613 layer_factory.hpp:77] Creating layer Sigmoid1
I0504 07:22:19.661989 18613 net.cpp:86] Creating Layer Sigmoid1
I0504 07:22:19.661993 18613 net.cpp:408] Sigmoid1 <- conv1
I0504 07:22:19.661998 18613 net.cpp:382] Sigmoid1 -> Sigmoid1
I0504 07:22:19.662173 18613 net.cpp:124] Setting up Sigmoid1
I0504 07:22:19.662183 18613 net.cpp:131] Top shape: 111 24 19 19 (961704)
I0504 07:22:19.662185 18613 net.cpp:139] Memory required for data: 36774300
I0504 07:22:19.662189 18613 layer_factory.hpp:77] Creating layer pool1
I0504 07:22:19.662201 18613 net.cpp:86] Creating Layer pool1
I0504 07:22:19.662204 18613 net.cpp:408] pool1 <- Sigmoid1
I0504 07:22:19.662209 18613 net.cpp:382] pool1 -> pool1
I0504 07:22:19.662358 18613 net.cpp:124] Setting up pool1
I0504 07:22:19.662365 18613 net.cpp:131] Top shape: 111 24 9 9 (215784)
I0504 07:22:19.662369 18613 net.cpp:139] Memory required for data: 37637436
I0504 07:22:19.662371 18613 layer_factory.hpp:77] Creating layer ip1
I0504 07:22:19.662379 18613 net.cpp:86] Creating Layer ip1
I0504 07:22:19.662381 18613 net.cpp:408] ip1 <- pool1
I0504 07:22:19.662386 18613 net.cpp:382] ip1 -> ip1
I0504 07:22:19.665518 18613 net.cpp:124] Setting up ip1
I0504 07:22:19.665525 18613 net.cpp:131] Top shape: 111 60 (6660)
I0504 07:22:19.665529 18613 net.cpp:139] Memory required for data: 37664076
I0504 07:22:19.665535 18613 layer_factory.hpp:77] Creating layer relu1
I0504 07:22:19.665541 18613 net.cpp:86] Creating Layer relu1
I0504 07:22:19.665544 18613 net.cpp:408] relu1 <- ip1
I0504 07:22:19.665547 18613 net.cpp:369] relu1 -> ip1 (in-place)
I0504 07:22:19.665724 18613 net.cpp:124] Setting up relu1
I0504 07:22:19.665731 18613 net.cpp:131] Top shape: 111 60 (6660)
I0504 07:22:19.665735 18613 net.cpp:139] Memory required for data: 37690716
I0504 07:22:19.665737 18613 layer_factory.hpp:77] Creating layer ip2
I0504 07:22:19.665743 18613 net.cpp:86] Creating Layer ip2
I0504 07:22:19.665746 18613 net.cpp:408] ip2 <- ip1
I0504 07:22:19.665766 18613 net.cpp:382] ip2 -> ip2
I0504 07:22:19.665876 18613 net.cpp:124] Setting up ip2
I0504 07:22:19.665884 18613 net.cpp:131] Top shape: 111 10 (1110)
I0504 07:22:19.665886 18613 net.cpp:139] Memory required for data: 37695156
I0504 07:22:19.665891 18613 layer_factory.hpp:77] Creating layer relu2
I0504 07:22:19.665910 18613 net.cpp:86] Creating Layer relu2
I0504 07:22:19.665913 18613 net.cpp:408] relu2 <- ip2
I0504 07:22:19.665917 18613 net.cpp:369] relu2 -> ip2 (in-place)
I0504 07:22:19.666625 18613 net.cpp:124] Setting up relu2
I0504 07:22:19.666636 18613 net.cpp:131] Top shape: 111 10 (1110)
I0504 07:22:19.666640 18613 net.cpp:139] Memory required for data: 37699596
I0504 07:22:19.666642 18613 layer_factory.hpp:77] Creating layer ip3
I0504 07:22:19.666649 18613 net.cpp:86] Creating Layer ip3
I0504 07:22:19.666651 18613 net.cpp:408] ip3 <- ip2
I0504 07:22:19.666671 18613 net.cpp:382] ip3 -> ip3
I0504 07:22:19.666800 18613 net.cpp:124] Setting up ip3
I0504 07:22:19.666806 18613 net.cpp:131] Top shape: 111 10 (1110)
I0504 07:22:19.666810 18613 net.cpp:139] Memory required for data: 37704036
I0504 07:22:19.666817 18613 layer_factory.hpp:77] Creating layer loss
I0504 07:22:19.666823 18613 net.cpp:86] Creating Layer loss
I0504 07:22:19.666826 18613 net.cpp:408] loss <- ip3
I0504 07:22:19.666831 18613 net.cpp:408] loss <- label
I0504 07:22:19.666836 18613 net.cpp:382] loss -> loss
I0504 07:22:19.666852 18613 layer_factory.hpp:77] Creating layer loss
…
I0504 07:22:19.667496 18613 solver.cpp:173] Creating test net (#0) specified by net file: ECE595/cifar/train_test/var_everything_tiny/cifar_train_test_78.prototxt
I0504 07:22:19.667522 18613 net.cpp:296] The NetState phase (1) differed from the phase (0) specified by a rule in layer cifar
I0504 07:22:19.667613 18613 net.cpp:53] Initializing net from parameters: 
name: "CIFAR"
state {
  phase: TEST
}
layer {
  name: "cifar"
  type: "Data"
  top: "data"
  top: "label"
  include {
    phase: TEST
  }
  transform_param {
    mean_file: "examples/cifar10/mean.binaryproto"
  }
  data_param {
    source: "examples/cifar10/cifar10_test_lmdb"
    batch_size: 1000
    backend: LMDB
  }
}
layer {
  name: "conv0"
  type: "Convolution"
  bottom: "data"
  top: "conv0"
  param {
    lr_mult: 1
  }
  param {
    lr_mult: 2
  }
  convolution_param {
    num_output: 24
    pad: 2
    kernel_size: 3
    stride: 1
    weight_filler {
      type: "gaussian"
      std: 0.01
    }
    bias_filler {
      type: "constant"
    }
  }
}
layer {
  name: "Sigmoid0"
  type: "Sigmoid"
  bottom: "conv0"
  top: "Sigmoid0"
}
layer {
  name: "pool0"
  type: "Pooling"
  bottom: "Sigmoid0"
  top: "pool0"
  pooling_param {
    pool: AVE
    kernel_size: 3
    stride: 2
  }
}
layer {
  name: "conv1"
  type: "Convolution"
  bottom: "pool0"
  top: "conv1"
  param {
    lr_mult: 1
  }
  param {
    lr_mult: 2
  }
  convolution_param {
    num_output: 24
    pad: 2
    kernel_size: 3
    stride: 1
    weight_filler {
      type: "gaussian"
      std: 0.01
    }
    bias_filler {
      type: "constant"
    }
  }
}
layer {
  name: "Sigmoid1"
  type: "Sigmoid"
  bottom: "conv1"
  top: "Sigmoid1"
}
layer {
  name: "pool1"
  type: "Pooling"
  bottom: "Sigmoid1"
  top: "pool1"
  pooling_param {
    pool: AVE
    kernel_size: 3
    stride: 2
  }
}
layer {
  name: "ip1"
  type: "InnerProduct"
  bottom: "pool1"
  top: "ip1"
  param {
    lr_mult: 1
  }
  param {
    lr_mult: 2
  }
  inner_product_param {
    num_output: 60
    weight_filler {
      type: "gaussian"
      std: 0.01
    }
    bias_filler {
      type: "constant"
    }
  }
}
layer {
  name: "relu1"
  type: "ReLU"
  bottom: "ip1"
  top: "ip1"
}
layer {
  name: "ip2"
  type: "InnerProduct"
  bottom: "ip1"
  top: "ip2"
  param {
    lr_mult: 1
  }
  param {
    lr_mult: 2
  }
  inner_product_param {
    num_output: 10
    weight_filler {
      type: "gaussian"
      std: 0.01
    }
    bias_filler {
      type: "constant"
    }
  }
}
layer {
  name: "relu2"
  type: "ReLU"
  bottom: "ip2"
  top: "ip2"
}
layer {
  name: "ip3"
  type: "InnerProduct"
  bottom: "ip2"
  top: "ip3"
  param {
    lr_mult: 1
  }
  param {
    lr_mult: 2
  }
  inner_product_param {
    num_output: 10
    weight_filler {
      type: "gaussian"
      std: 0.01
    }
    bias_filler {
      type: "constant"
    }
  }
}
layer {
  name: "accuracy"
  type: "Accuracy"
  bottom: "ip3"
  bottom: "label"
  top: "accuracy"
  include {
    phase: TEST
  }
}
layer {
  name: "loss"
  type: "SoftmaxWithLoss"
  bottom: "ip3"
  bottom: "label"
  top: "loss"
}
I0504 07:22:19.667691 18613 layer_factory.hpp:77] Creating layer cifar
I0504 07:22:19.667735 18613 db_lmdb.cpp:35] Opened lmdb examples/cifar10/cifar10_test_lmdb
I0504 07:22:19.667747 18613 net.cpp:86] Creating Layer cifar
I0504 07:22:19.667767 18613 net.cpp:382] cifar -> data
I0504 07:22:19.667773 18613 net.cpp:382] cifar -> label
I0504 07:22:19.667779 18613 data_transformer.cpp:25] Loading mean file from: examples/cifar10/mean.binaryproto
I0504 07:22:19.667914 18613 data_layer.cpp:45] output data size: 1000,3,32,32
I0504 07:22:19.689347 18613 net.cpp:124] Setting up cifar
I0504 07:22:19.689373 18613 net.cpp:131] Top shape: 1000 3 32 32 (3072000)
I0504 07:22:19.689379 18613 net.cpp:131] Top shape: 1000 (1000)
I0504 07:22:19.689383 18613 net.cpp:139] Memory required for data: 12292000
I0504 07:22:19.689388 18613 layer_factory.hpp:77] Creating layer label_cifar_1_split
I0504 07:22:19.689404 18613 net.cpp:86] Creating Layer label_cifar_1_split
I0504 07:22:19.689409 18613 net.cpp:408] label_cifar_1_split <- label
I0504 07:22:19.689414 18613 net.cpp:382] label_cifar_1_split -> label_cifar_1_split_0
I0504 07:22:19.689424 18613 net.cpp:382] label_cifar_1_split -> label_cifar_1_split_1
I0504 07:22:19.689510 18613 net.cpp:124] Setting up label_cifar_1_split
I0504 07:22:19.689517 18613 net.cpp:131] Top shape: 1000 (1000)
I0504 07:22:19.689522 18613 net.cpp:131] Top shape: 1000 (1000)
I0504 07:22:19.689524 18613 net.cpp:139] Memory required for data: 12300000
I0504 07:22:19.689527 18613 layer_factory.hpp:77] Creating layer conv0
I0504 07:22:19.689538 18613 net.cpp:86] Creating Layer conv0
I0504 07:22:19.689543 18613 net.cpp:408] conv0 <- data
I0504 07:22:19.689564 18613 net.cpp:382] conv0 -> conv0
I0504 07:22:19.691200 18613 net.cpp:124] Setting up conv0
I0504 07:22:19.691212 18613 net.cpp:131] Top shape: 1000 24 34 34 (27744000)
I0504 07:22:19.691231 18613 net.cpp:139] Memory required for data: 123276000
I0504 07:22:19.691241 18613 layer_factory.hpp:77] Creating layer Sigmoid0
I0504 07:22:19.691247 18613 net.cpp:86] Creating Layer Sigmoid0
I0504 07:22:19.691251 18613 net.cpp:408] Sigmoid0 <- conv0
I0504 07:22:19.691256 18613 net.cpp:382] Sigmoid0 -> Sigmoid0
I0504 07:22:19.691442 18613 net.cpp:124] Setting up Sigmoid0
I0504 07:22:19.691462 18613 net.cpp:131] Top shape: 1000 24 34 34 (27744000)
I0504 07:22:19.691465 18613 net.cpp:139] Memory required for data: 234252000
I0504 07:22:19.691468 18613 layer_factory.hpp:77] Creating layer pool0
I0504 07:22:19.691476 18613 net.cpp:86] Creating Layer pool0
I0504 07:22:19.691480 18613 net.cpp:408] pool0 <- Sigmoid0
I0504 07:22:19.691485 18613 net.cpp:382] pool0 -> pool0
I0504 07:22:19.691663 18613 net.cpp:124] Setting up pool0
I0504 07:22:19.691671 18613 net.cpp:131] Top shape: 1000 24 17 17 (6936000)
I0504 07:22:19.691675 18613 net.cpp:139] Memory required for data: 261996000
I0504 07:22:19.691679 18613 layer_factory.hpp:77] Creating layer conv1
I0504 07:22:19.691686 18613 net.cpp:86] Creating Layer conv1
I0504 07:22:19.691690 18613 net.cpp:408] conv1 <- pool0
I0504 07:22:19.691695 18613 net.cpp:382] conv1 -> conv1
I0504 07:22:19.694183 18613 net.cpp:124] Setting up conv1
I0504 07:22:19.694200 18613 net.cpp:131] Top shape: 1000 24 19 19 (8664000)
I0504 07:22:19.694203 18613 net.cpp:139] Memory required for data: 296652000
I0504 07:22:19.694213 18613 layer_factory.hpp:77] Creating layer Sigmoid1
I0504 07:22:19.694221 18613 net.cpp:86] Creating Layer Sigmoid1
I0504 07:22:19.694224 18613 net.cpp:408] Sigmoid1 <- conv1
I0504 07:22:19.694231 18613 net.cpp:382] Sigmoid1 -> Sigmoid1
I0504 07:22:19.694416 18613 net.cpp:124] Setting up Sigmoid1
I0504 07:22:19.694427 18613 net.cpp:131] Top shape: 1000 24 19 19 (8664000)
I0504 07:22:19.694430 18613 net.cpp:139] Memory required for data: 331308000
I0504 07:22:19.694434 18613 layer_factory.hpp:77] Creating layer pool1
I0504 07:22:19.694440 18613 net.cpp:86] Creating Layer pool1
I0504 07:22:19.694444 18613 net.cpp:408] pool1 <- Sigmoid1
I0504 07:22:19.694449 18613 net.cpp:382] pool1 -> pool1
I0504 07:22:19.695255 18613 net.cpp:124] Setting up pool1
I0504 07:22:19.695267 18613 net.cpp:131] Top shape: 1000 24 9 9 (1944000)
I0504 07:22:19.695288 18613 net.cpp:139] Memory required for data: 339084000
I0504 07:22:19.695292 18613 layer_factory.hpp:77] Creating layer ip1
I0504 07:22:19.695314 18613 net.cpp:86] Creating Layer ip1
I0504 07:22:19.695317 18613 net.cpp:408] ip1 <- pool1
I0504 07:22:19.695323 18613 net.cpp:382] ip1 -> ip1
I0504 07:22:19.698595 18613 net.cpp:124] Setting up ip1
I0504 07:22:19.698616 18613 net.cpp:131] Top shape: 1000 60 (60000)
I0504 07:22:19.698634 18613 net.cpp:139] Memory required for data: 339324000
I0504 07:22:19.698642 18613 layer_factory.hpp:77] Creating layer relu1
I0504 07:22:19.698647 18613 net.cpp:86] Creating Layer relu1
I0504 07:22:19.698650 18613 net.cpp:408] relu1 <- ip1
I0504 07:22:19.698654 18613 net.cpp:369] relu1 -> ip1 (in-place)
I0504 07:22:19.698823 18613 net.cpp:124] Setting up relu1
I0504 07:22:19.698832 18613 net.cpp:131] Top shape: 1000 60 (60000)
I0504 07:22:19.698834 18613 net.cpp:139] Memory required for data: 339564000
I0504 07:22:19.698837 18613 layer_factory.hpp:77] Creating layer ip2
I0504 07:22:19.698845 18613 net.cpp:86] Creating Layer ip2
I0504 07:22:19.698848 18613 net.cpp:408] ip2 <- ip1
I0504 07:22:19.698853 18613 net.cpp:382] ip2 -> ip2
I0504 07:22:19.698974 18613 net.cpp:124] Setting up ip2
I0504 07:22:19.698982 18613 net.cpp:131] Top shape: 1000 10 (10000)
I0504 07:22:19.698983 18613 net.cpp:139] Memory required for data: 339604000
I0504 07:22:19.698988 18613 layer_factory.hpp:77] Creating layer relu2
I0504 07:22:19.698993 18613 net.cpp:86] Creating Layer relu2
I0504 07:22:19.698997 18613 net.cpp:408] relu2 <- ip2
I0504 07:22:19.699002 18613 net.cpp:369] relu2 -> ip2 (in-place)
I0504 07:22:19.699153 18613 net.cpp:124] Setting up relu2
I0504 07:22:19.699162 18613 net.cpp:131] Top shape: 1000 10 (10000)
I0504 07:22:19.699164 18613 net.cpp:139] Memory required for data: 339644000
I0504 07:22:19.699167 18613 layer_factory.hpp:77] Creating layer ip3
I0504 07:22:19.699173 18613 net.cpp:86] Creating Layer ip3
I0504 07:22:19.699177 18613 net.cpp:408] ip3 <- ip2
I0504 07:22:19.699182 18613 net.cpp:382] ip3 -> ip3
I0504 07:22:19.699285 18613 net.cpp:124] Setting up ip3
I0504 07:22:19.699291 18613 net.cpp:131] Top shape: 1000 10 (10000)
I0504 07:22:19.699304 18613 net.cpp:139] Memory required for data: 339684000
I0504 07:22:19.699311 18613 layer_factory.hpp:77] Creating layer ip3_ip3_0_split
I0504 07:22:19.699318 18613 net.cpp:86] Creating Layer ip3_ip3_0_split
I0504 07:22:19.699321 18613 net.cpp:408] ip3_ip3_0_split <- ip3
I0504 07:22:19.699326 18613 net.cpp:382] ip3_ip3_0_split -> ip3_ip3_0_split_0
I0504 07:22:19.699332 18613 net.cpp:382] ip3_ip3_0_split -> ip3_ip3_0_split_1
I0504 07:22:19.699365 18613 net.cpp:124] Setting up ip3_ip3_0_split
I0504 07:22:19.699373 18613 net.cpp:131] Top shape: 1000 10 (10000)
I0504 07:22:19.699393 18613 net.cpp:131] Top shape: 1000 10 (10000)
I0504 07:22:19.699396 18613 net.cpp:139] Memory required for data: 339764000
I0504 07:22:19.699399 18613 layer_factory.hpp:77] Creating layer accuracy
I0504 07:22:19.699421 18613 net.cpp:86] Creating Layer accuracy
I0504 07:22:19.699424 18613 net.cpp:408] accuracy <- ip3_ip3_0_split_0
I0504 07:22:19.699429 18613 net.cpp:408] accuracy <- label_cifar_1_split_0
I0504 07:22:19.699432 18613 net.cpp:382] accuracy -> accuracy
…
