…
I0504 11:37:44.663522 27413 net.cpp:296] The NetState phase (0) differed from the phase (1) specified by a rule in layer cifar
I0504 11:37:44.663552 27413 net.cpp:296] The NetState phase (0) differed from the phase (1) specified by a rule in layer accuracy
I0504 11:37:44.663676 27413 net.cpp:53] Initializing net from parameters: 
name: "CIFAR"
state {
  phase: TRAIN
  level: 0
  stage: ""
}
layer {
  name: "cifar"
  type: "Data"
  top: "data"
  top: "label"
  include {
    phase: TRAIN
  }
  transform_param {
    mean_file: "examples/cifar10/mean.binaryproto"
  }
  data_param {
    source: "examples/cifar10/cifar10_train_lmdb"
    batch_size: 111
    backend: LMDB
  }
}
layer {
  name: "conv0"
  type: "Convolution"
  bottom: "data"
  top: "conv0"
  param {
    lr_mult: 1
  }
  param {
    lr_mult: 2
  }
  convolution_param {
    num_output: 24
    pad: 2
    kernel_size: 3
    stride: 1
    weight_filler {
      type: "gaussian"
      std: 0.01
    }
    bias_filler {
      type: "constant"
    }
  }
}
layer {
  name: "Sigmoid0"
  type: "Sigmoid"
  bottom: "conv0"
  top: "Sigmoid0"
}
layer {
  name: "pool0"
  type: "Pooling"
  bottom: "Sigmoid0"
  top: "pool0"
  pooling_param {
    pool: AVE
    kernel_size: 3
    stride: 2
  }
}
layer {
  name: "conv1"
  type: "Convolution"
  bottom: "pool0"
  top: "conv1"
  param {
    lr_mult: 1
  }
  param {
    lr_mult: 2
  }
  convolution_param {
    num_output: 216
    pad: 2
    kernel_size: 3
    stride: 1
    weight_filler {
      type: "gaussian"
      std: 0.01
    }
    bias_filler {
      type: "constant"
    }
  }
}
layer {
  name: "Sigmoid1"
  type: "Sigmoid"
  bottom: "conv1"
  top: "Sigmoid1"
}
layer {
  name: "pool1"
  type: "Pooling"
  bottom: "Sigmoid1"
  top: "pool1"
  pooling_param {
    pool: AVE
    kernel_size: 3
    stride: 2
  }
}
layer {
  name: "ip1"
  type: "InnerProduct"
  bottom: "pool1"
  top: "ip1"
  param {
    lr_mult: 1
  }
  param {
    lr_mult: 2
  }
  inner_product_param {
    num_output: 10
    weight_filler {
      type: "gaussian"
      std: 0.01
    }
    bias_filler {
      type: "constant"
    }
  }
}
layer {
  name: "relu1"
  type: "ReLU"
  bottom: "ip1"
  top: "ip1"
}
layer {
  name: "ip2"
  type: "InnerProduct"
  bottom: "ip1"
  top: "ip2"
  param {
    lr_mult: 1
  }
  param {
    lr_mult: 2
  }
  inner_product_param {
    num_output: 60
    weight_filler {
      type: "gaussian"
      std: 0.01
    }
    bias_filler {
      type: "constant"
    }
  }
}
layer {
  name: "relu2"
  type: "ReLU"
  bottom: "ip2"
  top: "ip2"
}
layer {
  name: "ip3"
  type: "InnerProduct"
  bottom: "ip2"
  top: "ip3"
  param {
    lr_mult: 1
  }
  param {
    lr_mult: 2
  }
  inner_product_param {
    num_output: 10
    weight_filler {
      type: "gaussian"
      std: 0.01
    }
    bias_filler {
      type: "constant"
    }
  }
}
layer {
  name: "loss"
  type: "SoftmaxWithLoss"
  bottom: "ip3"
  bottom: "label"
  top: "loss"
}
I0504 11:37:44.663767 27413 layer_factory.hpp:77] Creating layer cifar
I0504 11:37:44.663879 27413 db_lmdb.cpp:35] Opened lmdb examples/cifar10/cifar10_train_lmdb
I0504 11:37:44.663913 27413 net.cpp:86] Creating Layer cifar
I0504 11:37:44.663923 27413 net.cpp:382] cifar -> data
I0504 11:37:44.663949 27413 net.cpp:382] cifar -> label
I0504 11:37:44.663961 27413 data_transformer.cpp:25] Loading mean file from: examples/cifar10/mean.binaryproto
I0504 11:37:44.666362 27413 data_layer.cpp:45] output data size: 111,3,32,32
I0504 11:37:44.673724 27413 net.cpp:124] Setting up cifar
I0504 11:37:44.673743 27413 net.cpp:131] Top shape: 111 3 32 32 (340992)
I0504 11:37:44.673750 27413 net.cpp:131] Top shape: 111 (111)
I0504 11:37:44.673753 27413 net.cpp:139] Memory required for data: 1364412
I0504 11:37:44.673761 27413 layer_factory.hpp:77] Creating layer conv0
I0504 11:37:44.673795 27413 net.cpp:86] Creating Layer conv0
I0504 11:37:44.673801 27413 net.cpp:408] conv0 <- data
I0504 11:37:44.673815 27413 net.cpp:382] conv0 -> conv0
I0504 11:37:44.929867 27413 net.cpp:124] Setting up conv0
I0504 11:37:44.929891 27413 net.cpp:131] Top shape: 111 24 34 34 (3079584)
I0504 11:37:44.929896 27413 net.cpp:139] Memory required for data: 13682748
I0504 11:37:44.929911 27413 layer_factory.hpp:77] Creating layer Sigmoid0
I0504 11:37:44.929939 27413 net.cpp:86] Creating Layer Sigmoid0
I0504 11:37:44.929942 27413 net.cpp:408] Sigmoid0 <- conv0
I0504 11:37:44.929947 27413 net.cpp:382] Sigmoid0 -> Sigmoid0
I0504 11:37:44.930131 27413 net.cpp:124] Setting up Sigmoid0
I0504 11:37:44.930141 27413 net.cpp:131] Top shape: 111 24 34 34 (3079584)
I0504 11:37:44.930145 27413 net.cpp:139] Memory required for data: 26001084
I0504 11:37:44.930148 27413 layer_factory.hpp:77] Creating layer pool0
I0504 11:37:44.930155 27413 net.cpp:86] Creating Layer pool0
I0504 11:37:44.930158 27413 net.cpp:408] pool0 <- Sigmoid0
I0504 11:37:44.930163 27413 net.cpp:382] pool0 -> pool0
I0504 11:37:44.930972 27413 net.cpp:124] Setting up pool0
I0504 11:37:44.930986 27413 net.cpp:131] Top shape: 111 24 17 17 (769896)
I0504 11:37:44.930990 27413 net.cpp:139] Memory required for data: 29080668
I0504 11:37:44.931010 27413 layer_factory.hpp:77] Creating layer conv1
I0504 11:37:44.931023 27413 net.cpp:86] Creating Layer conv1
I0504 11:37:44.931027 27413 net.cpp:408] conv1 <- pool0
I0504 11:37:44.931033 27413 net.cpp:382] conv1 -> conv1
I0504 11:37:44.935108 27413 net.cpp:124] Setting up conv1
I0504 11:37:44.935123 27413 net.cpp:131] Top shape: 111 216 19 19 (8655336)
I0504 11:37:44.935127 27413 net.cpp:139] Memory required for data: 63702012
I0504 11:37:44.935153 27413 layer_factory.hpp:77] Creating layer Sigmoid1
I0504 11:37:44.935159 27413 net.cpp:86] Creating Layer Sigmoid1
I0504 11:37:44.935163 27413 net.cpp:408] Sigmoid1 <- conv1
I0504 11:37:44.935168 27413 net.cpp:382] Sigmoid1 -> Sigmoid1
I0504 11:37:44.935381 27413 net.cpp:124] Setting up Sigmoid1
I0504 11:37:44.935392 27413 net.cpp:131] Top shape: 111 216 19 19 (8655336)
I0504 11:37:44.935395 27413 net.cpp:139] Memory required for data: 98323356
I0504 11:37:44.935400 27413 layer_factory.hpp:77] Creating layer pool1
I0504 11:37:44.935405 27413 net.cpp:86] Creating Layer pool1
I0504 11:37:44.935410 27413 net.cpp:408] pool1 <- Sigmoid1
I0504 11:37:44.935415 27413 net.cpp:382] pool1 -> pool1
I0504 11:37:44.935588 27413 net.cpp:124] Setting up pool1
I0504 11:37:44.935597 27413 net.cpp:131] Top shape: 111 216 9 9 (1942056)
I0504 11:37:44.935600 27413 net.cpp:139] Memory required for data: 106091580
I0504 11:37:44.935605 27413 layer_factory.hpp:77] Creating layer ip1
I0504 11:37:44.935612 27413 net.cpp:86] Creating Layer ip1
I0504 11:37:44.935616 27413 net.cpp:408] ip1 <- pool1
I0504 11:37:44.935621 27413 net.cpp:382] ip1 -> ip1
I0504 11:37:44.940714 27413 net.cpp:124] Setting up ip1
I0504 11:37:44.940722 27413 net.cpp:131] Top shape: 111 10 (1110)
I0504 11:37:44.940742 27413 net.cpp:139] Memory required for data: 106096020
I0504 11:37:44.940749 27413 layer_factory.hpp:77] Creating layer relu1
I0504 11:37:44.940755 27413 net.cpp:86] Creating Layer relu1
I0504 11:37:44.940759 27413 net.cpp:408] relu1 <- ip1
I0504 11:37:44.940763 27413 net.cpp:369] relu1 -> ip1 (in-place)
I0504 11:37:44.940958 27413 net.cpp:124] Setting up relu1
I0504 11:37:44.940968 27413 net.cpp:131] Top shape: 111 10 (1110)
I0504 11:37:44.940971 27413 net.cpp:139] Memory required for data: 106100460
I0504 11:37:44.940974 27413 layer_factory.hpp:77] Creating layer ip2
I0504 11:37:44.940981 27413 net.cpp:86] Creating Layer ip2
I0504 11:37:44.940984 27413 net.cpp:408] ip2 <- ip1
I0504 11:37:44.941011 27413 net.cpp:382] ip2 -> ip2
I0504 11:37:44.941169 27413 net.cpp:124] Setting up ip2
I0504 11:37:44.941176 27413 net.cpp:131] Top shape: 111 60 (6660)
I0504 11:37:44.941179 27413 net.cpp:139] Memory required for data: 106127100
I0504 11:37:44.941184 27413 layer_factory.hpp:77] Creating layer relu2
I0504 11:37:44.941190 27413 net.cpp:86] Creating Layer relu2
I0504 11:37:44.941192 27413 net.cpp:408] relu2 <- ip2
I0504 11:37:44.941196 27413 net.cpp:369] relu2 -> ip2 (in-place)
I0504 11:37:44.941944 27413 net.cpp:124] Setting up relu2
I0504 11:37:44.941956 27413 net.cpp:131] Top shape: 111 60 (6660)
I0504 11:37:44.941959 27413 net.cpp:139] Memory required for data: 106153740
I0504 11:37:44.941963 27413 layer_factory.hpp:77] Creating layer ip3
I0504 11:37:44.941970 27413 net.cpp:86] Creating Layer ip3
I0504 11:37:44.941973 27413 net.cpp:408] ip3 <- ip2
I0504 11:37:44.941978 27413 net.cpp:382] ip3 -> ip3
I0504 11:37:44.942109 27413 net.cpp:124] Setting up ip3
I0504 11:37:44.942116 27413 net.cpp:131] Top shape: 111 10 (1110)
I0504 11:37:44.942121 27413 net.cpp:139] Memory required for data: 106158180
I0504 11:37:44.942128 27413 layer_factory.hpp:77] Creating layer loss
I0504 11:37:44.942133 27413 net.cpp:86] Creating Layer loss
I0504 11:37:44.942137 27413 net.cpp:408] loss <- ip3
I0504 11:37:44.942142 27413 net.cpp:408] loss <- label
I0504 11:37:44.942147 27413 net.cpp:382] loss -> loss
I0504 11:37:44.942163 27413 layer_factory.hpp:77] Creating layer loss
…
I0504 11:37:44.942899 27413 solver.cpp:173] Creating test net (#0) specified by net file: ECE595/cifar/train_test/var_everything_tiny/cifar_train_test_148.prototxt
I0504 11:37:44.942942 27413 net.cpp:296] The NetState phase (1) differed from the phase (0) specified by a rule in layer cifar
I0504 11:37:44.943058 27413 net.cpp:53] Initializing net from parameters: 
name: "CIFAR"
state {
  phase: TEST
}
layer {
  name: "cifar"
  type: "Data"
  top: "data"
  top: "label"
  include {
    phase: TEST
  }
  transform_param {
    mean_file: "examples/cifar10/mean.binaryproto"
  }
  data_param {
    source: "examples/cifar10/cifar10_test_lmdb"
    batch_size: 1000
    backend: LMDB
  }
}
layer {
  name: "conv0"
  type: "Convolution"
  bottom: "data"
  top: "conv0"
  param {
    lr_mult: 1
  }
  param {
    lr_mult: 2
  }
  convolution_param {
    num_output: 24
    pad: 2
    kernel_size: 3
    stride: 1
    weight_filler {
      type: "gaussian"
      std: 0.01
    }
    bias_filler {
      type: "constant"
    }
  }
}
layer {
  name: "Sigmoid0"
  type: "Sigmoid"
  bottom: "conv0"
  top: "Sigmoid0"
}
layer {
  name: "pool0"
  type: "Pooling"
  bottom: "Sigmoid0"
  top: "pool0"
  pooling_param {
    pool: AVE
    kernel_size: 3
    stride: 2
  }
}
layer {
  name: "conv1"
  type: "Convolution"
  bottom: "pool0"
  top: "conv1"
  param {
    lr_mult: 1
  }
  param {
    lr_mult: 2
  }
  convolution_param {
    num_output: 216
    pad: 2
    kernel_size: 3
    stride: 1
    weight_filler {
      type: "gaussian"
      std: 0.01
    }
    bias_filler {
      type: "constant"
    }
  }
}
layer {
  name: "Sigmoid1"
  type: "Sigmoid"
  bottom: "conv1"
  top: "Sigmoid1"
}
layer {
  name: "pool1"
  type: "Pooling"
  bottom: "Sigmoid1"
  top: "pool1"
  pooling_param {
    pool: AVE
    kernel_size: 3
    stride: 2
  }
}
layer {
  name: "ip1"
  type: "InnerProduct"
  bottom: "pool1"
  top: "ip1"
  param {
    lr_mult: 1
  }
  param {
    lr_mult: 2
  }
  inner_product_param {
    num_output: 10
    weight_filler {
      type: "gaussian"
      std: 0.01
    }
    bias_filler {
      type: "constant"
    }
  }
}
layer {
  name: "relu1"
  type: "ReLU"
  bottom: "ip1"
  top: "ip1"
}
layer {
  name: "ip2"
  type: "InnerProduct"
  bottom: "ip1"
  top: "ip2"
  param {
    lr_mult: 1
  }
  param {
    lr_mult: 2
  }
  inner_product_param {
    num_output: 60
    weight_filler {
      type: "gaussian"
      std: 0.01
    }
    bias_filler {
      type: "constant"
    }
  }
}
layer {
  name: "relu2"
  type: "ReLU"
  bottom: "ip2"
  top: "ip2"
}
layer {
  name: "ip3"
  type: "InnerProduct"
  bottom: "ip2"
  top: "ip3"
  param {
    lr_mult: 1
  }
  param {
    lr_mult: 2
  }
  inner_product_param {
    num_output: 10
    weight_filler {
      type: "gaussian"
      std: 0.01
    }
    bias_filler {
      type: "constant"
    }
  }
}
layer {
  name: "accuracy"
  type: "Accuracy"
  bottom: "ip3"
  bottom: "label"
  top: "accuracy"
  include {
    phase: TEST
  }
}
layer {
  name: "loss"
  type: "SoftmaxWithLoss"
  bottom: "ip3"
  bottom: "label"
  top: "loss"
}
I0504 11:37:44.943145 27413 layer_factory.hpp:77] Creating layer cifar
I0504 11:37:44.943191 27413 db_lmdb.cpp:35] Opened lmdb examples/cifar10/cifar10_test_lmdb
I0504 11:37:44.943203 27413 net.cpp:86] Creating Layer cifar
I0504 11:37:44.943208 27413 net.cpp:382] cifar -> data
I0504 11:37:44.943217 27413 net.cpp:382] cifar -> label
I0504 11:37:44.943223 27413 data_transformer.cpp:25] Loading mean file from: examples/cifar10/mean.binaryproto
I0504 11:37:44.943387 27413 data_layer.cpp:45] output data size: 1000,3,32,32
I0504 11:37:44.966181 27413 net.cpp:124] Setting up cifar
I0504 11:37:44.966223 27413 net.cpp:131] Top shape: 1000 3 32 32 (3072000)
I0504 11:37:44.966228 27413 net.cpp:131] Top shape: 1000 (1000)
I0504 11:37:44.966231 27413 net.cpp:139] Memory required for data: 12292000
I0504 11:37:44.966238 27413 layer_factory.hpp:77] Creating layer label_cifar_1_split
I0504 11:37:44.966251 27413 net.cpp:86] Creating Layer label_cifar_1_split
I0504 11:37:44.966255 27413 net.cpp:408] label_cifar_1_split <- label
I0504 11:37:44.966261 27413 net.cpp:382] label_cifar_1_split -> label_cifar_1_split_0
I0504 11:37:44.966269 27413 net.cpp:382] label_cifar_1_split -> label_cifar_1_split_1
I0504 11:37:44.966410 27413 net.cpp:124] Setting up label_cifar_1_split
I0504 11:37:44.966419 27413 net.cpp:131] Top shape: 1000 (1000)
I0504 11:37:44.966423 27413 net.cpp:131] Top shape: 1000 (1000)
I0504 11:37:44.966426 27413 net.cpp:139] Memory required for data: 12300000
I0504 11:37:44.966430 27413 layer_factory.hpp:77] Creating layer conv0
I0504 11:37:44.966442 27413 net.cpp:86] Creating Layer conv0
I0504 11:37:44.966449 27413 net.cpp:408] conv0 <- data
I0504 11:37:44.966454 27413 net.cpp:382] conv0 -> conv0
I0504 11:37:44.968125 27413 net.cpp:124] Setting up conv0
I0504 11:37:44.968138 27413 net.cpp:131] Top shape: 1000 24 34 34 (27744000)
I0504 11:37:44.968144 27413 net.cpp:139] Memory required for data: 123276000
I0504 11:37:44.968169 27413 layer_factory.hpp:77] Creating layer Sigmoid0
I0504 11:37:44.968194 27413 net.cpp:86] Creating Layer Sigmoid0
I0504 11:37:44.968197 27413 net.cpp:408] Sigmoid0 <- conv0
I0504 11:37:44.968201 27413 net.cpp:382] Sigmoid0 -> Sigmoid0
I0504 11:37:44.968395 27413 net.cpp:124] Setting up Sigmoid0
I0504 11:37:44.968416 27413 net.cpp:131] Top shape: 1000 24 34 34 (27744000)
I0504 11:37:44.968437 27413 net.cpp:139] Memory required for data: 234252000
I0504 11:37:44.968441 27413 layer_factory.hpp:77] Creating layer pool0
I0504 11:37:44.968449 27413 net.cpp:86] Creating Layer pool0
I0504 11:37:44.968456 27413 net.cpp:408] pool0 <- Sigmoid0
I0504 11:37:44.968478 27413 net.cpp:382] pool0 -> pool0
I0504 11:37:44.969766 27413 net.cpp:124] Setting up pool0
I0504 11:37:44.969777 27413 net.cpp:131] Top shape: 1000 24 17 17 (6936000)
I0504 11:37:44.969799 27413 net.cpp:139] Memory required for data: 261996000
I0504 11:37:44.969804 27413 layer_factory.hpp:77] Creating layer conv1
I0504 11:37:44.969813 27413 net.cpp:86] Creating Layer conv1
I0504 11:37:44.969817 27413 net.cpp:408] conv1 <- pool0
I0504 11:37:44.969825 27413 net.cpp:382] conv1 -> conv1
I0504 11:37:44.972546 27413 net.cpp:124] Setting up conv1
I0504 11:37:44.972559 27413 net.cpp:131] Top shape: 1000 216 19 19 (77976000)
I0504 11:37:44.972579 27413 net.cpp:139] Memory required for data: 573900000
I0504 11:37:44.972586 27413 layer_factory.hpp:77] Creating layer Sigmoid1
I0504 11:37:44.972592 27413 net.cpp:86] Creating Layer Sigmoid1
I0504 11:37:44.972596 27413 net.cpp:408] Sigmoid1 <- conv1
I0504 11:37:44.972602 27413 net.cpp:382] Sigmoid1 -> Sigmoid1
I0504 11:37:44.972805 27413 net.cpp:124] Setting up Sigmoid1
I0504 11:37:44.972822 27413 net.cpp:131] Top shape: 1000 216 19 19 (77976000)
I0504 11:37:44.972841 27413 net.cpp:139] Memory required for data: 885804000
I0504 11:37:44.972846 27413 layer_factory.hpp:77] Creating layer pool1
I0504 11:37:44.972870 27413 net.cpp:86] Creating Layer pool1
I0504 11:37:44.972874 27413 net.cpp:408] pool1 <- Sigmoid1
I0504 11:37:44.972879 27413 net.cpp:382] pool1 -> pool1
I0504 11:37:44.973704 27413 net.cpp:124] Setting up pool1
I0504 11:37:44.973717 27413 net.cpp:131] Top shape: 1000 216 9 9 (17496000)
I0504 11:37:44.973737 27413 net.cpp:139] Memory required for data: 955788000
I0504 11:37:44.973740 27413 layer_factory.hpp:77] Creating layer ip1
I0504 11:37:44.973749 27413 net.cpp:86] Creating Layer ip1
I0504 11:37:44.973753 27413 net.cpp:408] ip1 <- pool1
I0504 11:37:44.973759 27413 net.cpp:382] ip1 -> ip1
I0504 11:37:44.978927 27413 net.cpp:124] Setting up ip1
I0504 11:37:44.978936 27413 net.cpp:131] Top shape: 1000 10 (10000)
I0504 11:37:44.978955 27413 net.cpp:139] Memory required for data: 955828000
I0504 11:37:44.978962 27413 layer_factory.hpp:77] Creating layer relu1
I0504 11:37:44.978970 27413 net.cpp:86] Creating Layer relu1
I0504 11:37:44.978973 27413 net.cpp:408] relu1 <- ip1
I0504 11:37:44.978977 27413 net.cpp:369] relu1 -> ip1 (in-place)
I0504 11:37:44.979158 27413 net.cpp:124] Setting up relu1
I0504 11:37:44.979166 27413 net.cpp:131] Top shape: 1000 10 (10000)
I0504 11:37:44.979171 27413 net.cpp:139] Memory required for data: 955868000
I0504 11:37:44.979173 27413 layer_factory.hpp:77] Creating layer ip2
I0504 11:37:44.979183 27413 net.cpp:86] Creating Layer ip2
I0504 11:37:44.979189 27413 net.cpp:408] ip2 <- ip1
I0504 11:37:44.979195 27413 net.cpp:382] ip2 -> ip2
I0504 11:37:44.979331 27413 net.cpp:124] Setting up ip2
I0504 11:37:44.979338 27413 net.cpp:131] Top shape: 1000 60 (60000)
I0504 11:37:44.979341 27413 net.cpp:139] Memory required for data: 956108000
I0504 11:37:44.979348 27413 layer_factory.hpp:77] Creating layer relu2
I0504 11:37:44.979354 27413 net.cpp:86] Creating Layer relu2
I0504 11:37:44.979357 27413 net.cpp:408] relu2 <- ip2
I0504 11:37:44.979362 27413 net.cpp:369] relu2 -> ip2 (in-place)
I0504 11:37:44.979562 27413 net.cpp:124] Setting up relu2
I0504 11:37:44.979569 27413 net.cpp:131] Top shape: 1000 60 (60000)
I0504 11:37:44.979573 27413 net.cpp:139] Memory required for data: 956348000
I0504 11:37:44.979575 27413 layer_factory.hpp:77] Creating layer ip3
I0504 11:37:44.979581 27413 net.cpp:86] Creating Layer ip3
I0504 11:37:44.979584 27413 net.cpp:408] ip3 <- ip2
I0504 11:37:44.979591 27413 net.cpp:382] ip3 -> ip3
I0504 11:37:44.979717 27413 net.cpp:124] Setting up ip3
I0504 11:37:44.979755 27413 net.cpp:131] Top shape: 1000 10 (10000)
I0504 11:37:44.979758 27413 net.cpp:139] Memory required for data: 956388000
I0504 11:37:44.979766 27413 layer_factory.hpp:77] Creating layer ip3_ip3_0_split
I0504 11:37:44.979774 27413 net.cpp:86] Creating Layer ip3_ip3_0_split
I0504 11:37:44.979794 27413 net.cpp:408] ip3_ip3_0_split <- ip3
I0504 11:37:44.979799 27413 net.cpp:382] ip3_ip3_0_split -> ip3_ip3_0_split_0
I0504 11:37:44.979805 27413 net.cpp:382] ip3_ip3_0_split -> ip3_ip3_0_split_1
I0504 11:37:44.979840 27413 net.cpp:124] Setting up ip3_ip3_0_split
I0504 11:37:44.979848 27413 net.cpp:131] Top shape: 1000 10 (10000)
I0504 11:37:44.979852 27413 net.cpp:131] Top shape: 1000 10 (10000)
I0504 11:37:44.979856 27413 net.cpp:139] Memory required for data: 956468000
I0504 11:37:44.979858 27413 layer_factory.hpp:77] Creating layer accuracy
I0504 11:37:44.979864 27413 net.cpp:86] Creating Layer accuracy
I0504 11:37:44.979867 27413 net.cpp:408] accuracy <- ip3_ip3_0_split_0
I0504 11:37:44.979871 27413 net.cpp:408] accuracy <- label_cifar_1_split_0
I0504 11:37:44.979876 27413 net.cpp:382] accuracy -> accuracy
…
