…
I0504 00:12:36.277293  4860 net.cpp:296] The NetState phase (0) differed from the phase (1) specified by a rule in layer cifar
I0504 00:12:36.277310  4860 net.cpp:296] The NetState phase (0) differed from the phase (1) specified by a rule in layer accuracy
I0504 00:12:36.277395  4860 net.cpp:53] Initializing net from parameters: 
name: "CIFAR"
state {
  phase: TRAIN
  level: 0
  stage: ""
}
layer {
  name: "cifar"
  type: "Data"
  top: "data"
  top: "label"
  include {
    phase: TRAIN
  }
  transform_param {
    mean_file: "examples/cifar10/mean.binaryproto"
  }
  data_param {
    source: "examples/cifar10/cifar10_train_lmdb"
    batch_size: 111
    backend: LMDB
  }
}
layer {
  name: "conv0"
  type: "Convolution"
  bottom: "data"
  top: "conv0"
  param {
    lr_mult: 1
  }
  param {
    lr_mult: 2
  }
  convolution_param {
    num_output: 24
    pad: 2
    kernel_size: 5
    stride: 1
    weight_filler {
      type: "gaussian"
      std: 0.01
    }
    bias_filler {
      type: "constant"
    }
  }
}
layer {
  name: "Sigmoid0"
  type: "Sigmoid"
  bottom: "conv0"
  top: "Sigmoid0"
}
layer {
  name: "pool0"
  type: "Pooling"
  bottom: "Sigmoid0"
  top: "pool0"
  pooling_param {
    pool: AVE
    kernel_size: 3
    stride: 2
  }
}
layer {
  name: "ip1"
  type: "InnerProduct"
  bottom: "pool0"
  top: "ip1"
  param {
    lr_mult: 1
  }
  param {
    lr_mult: 2
  }
  inner_product_param {
    num_output: 10
    weight_filler {
      type: "gaussian"
      std: 0.01
    }
    bias_filler {
      type: "constant"
    }
  }
}
layer {
  name: "relu1"
  type: "ReLU"
  bottom: "ip1"
  top: "ip1"
}
layer {
  name: "ip2"
  type: "InnerProduct"
  bottom: "ip1"
  top: "ip2"
  param {
    lr_mult: 1
  }
  param {
    lr_mult: 2
  }
  inner_product_param {
    num_output: 10
    weight_filler {
      type: "gaussian"
      std: 0.01
    }
    bias_filler {
      type: "constant"
    }
  }
}
layer {
  name: "loss"
  type: "SoftmaxWithLoss"
  bottom: "ip2"
  bottom: "label"
  top: "loss"
}
I0504 00:12:36.277464  4860 layer_factory.hpp:77] Creating layer cifar
I0504 00:12:36.277568  4860 db_lmdb.cpp:35] Opened lmdb examples/cifar10/cifar10_train_lmdb
I0504 00:12:36.277600  4860 net.cpp:86] Creating Layer cifar
I0504 00:12:36.277608  4860 net.cpp:382] cifar -> data
I0504 00:12:36.277632  4860 net.cpp:382] cifar -> label
I0504 00:12:36.277647  4860 data_transformer.cpp:25] Loading mean file from: examples/cifar10/mean.binaryproto
I0504 00:12:36.279752  4860 data_layer.cpp:45] output data size: 111,3,32,32
I0504 00:12:36.287611  4860 net.cpp:124] Setting up cifar
I0504 00:12:36.287632  4860 net.cpp:131] Top shape: 111 3 32 32 (340992)
I0504 00:12:36.287639  4860 net.cpp:131] Top shape: 111 (111)
I0504 00:12:36.287642  4860 net.cpp:139] Memory required for data: 1364412
I0504 00:12:36.287650  4860 layer_factory.hpp:77] Creating layer conv0
I0504 00:12:36.287670  4860 net.cpp:86] Creating Layer conv0
I0504 00:12:36.287677  4860 net.cpp:408] conv0 <- data
I0504 00:12:36.287688  4860 net.cpp:382] conv0 -> conv0
I0504 00:12:36.579831  4860 net.cpp:124] Setting up conv0
I0504 00:12:36.579860  4860 net.cpp:131] Top shape: 111 24 32 32 (2727936)
I0504 00:12:36.579864  4860 net.cpp:139] Memory required for data: 12276156
I0504 00:12:36.579883  4860 layer_factory.hpp:77] Creating layer Sigmoid0
I0504 00:12:36.579895  4860 net.cpp:86] Creating Layer Sigmoid0
I0504 00:12:36.579900  4860 net.cpp:408] Sigmoid0 <- conv0
I0504 00:12:36.579907  4860 net.cpp:382] Sigmoid0 -> Sigmoid0
I0504 00:12:36.580132  4860 net.cpp:124] Setting up Sigmoid0
I0504 00:12:36.580144  4860 net.cpp:131] Top shape: 111 24 32 32 (2727936)
I0504 00:12:36.580148  4860 net.cpp:139] Memory required for data: 23187900
I0504 00:12:36.580152  4860 layer_factory.hpp:77] Creating layer pool0
I0504 00:12:36.580160  4860 net.cpp:86] Creating Layer pool0
I0504 00:12:36.580164  4860 net.cpp:408] pool0 <- Sigmoid0
I0504 00:12:36.580169  4860 net.cpp:382] pool0 -> pool0
I0504 00:12:36.581022  4860 net.cpp:124] Setting up pool0
I0504 00:12:36.581037  4860 net.cpp:131] Top shape: 111 24 16 16 (681984)
I0504 00:12:36.581042  4860 net.cpp:139] Memory required for data: 25915836
I0504 00:12:36.581045  4860 layer_factory.hpp:77] Creating layer ip1
I0504 00:12:36.581056  4860 net.cpp:86] Creating Layer ip1
I0504 00:12:36.581060  4860 net.cpp:408] ip1 <- pool0
I0504 00:12:36.581066  4860 net.cpp:382] ip1 -> ip1
I0504 00:12:36.584059  4860 net.cpp:124] Setting up ip1
I0504 00:12:36.584074  4860 net.cpp:131] Top shape: 111 10 (1110)
I0504 00:12:36.584077  4860 net.cpp:139] Memory required for data: 25920276
I0504 00:12:36.584087  4860 layer_factory.hpp:77] Creating layer relu1
I0504 00:12:36.584095  4860 net.cpp:86] Creating Layer relu1
I0504 00:12:36.584098  4860 net.cpp:408] relu1 <- ip1
I0504 00:12:36.584103  4860 net.cpp:369] relu1 -> ip1 (in-place)
I0504 00:12:36.584285  4860 net.cpp:124] Setting up relu1
I0504 00:12:36.584295  4860 net.cpp:131] Top shape: 111 10 (1110)
I0504 00:12:36.584298  4860 net.cpp:139] Memory required for data: 25924716
I0504 00:12:36.584303  4860 layer_factory.hpp:77] Creating layer ip2
I0504 00:12:36.584311  4860 net.cpp:86] Creating Layer ip2
I0504 00:12:36.584316  4860 net.cpp:408] ip2 <- ip1
I0504 00:12:36.584321  4860 net.cpp:382] ip2 -> ip2
I0504 00:12:36.584434  4860 net.cpp:124] Setting up ip2
I0504 00:12:36.584440  4860 net.cpp:131] Top shape: 111 10 (1110)
I0504 00:12:36.584444  4860 net.cpp:139] Memory required for data: 25929156
I0504 00:12:36.584452  4860 layer_factory.hpp:77] Creating layer loss
I0504 00:12:36.584458  4860 net.cpp:86] Creating Layer loss
I0504 00:12:36.584462  4860 net.cpp:408] loss <- ip2
I0504 00:12:36.584466  4860 net.cpp:408] loss <- label
I0504 00:12:36.584472  4860 net.cpp:382] loss -> loss
I0504 00:12:36.584486  4860 layer_factory.hpp:77] Creating layer loss
…
I0504 00:12:36.585134  4860 solver.cpp:173] Creating test net (#0) specified by net file: ECE595/cifar/train_test/var_everything_tiny/cifar_train_test_12.prototxt
I0504 00:12:36.585161  4860 net.cpp:296] The NetState phase (1) differed from the phase (0) specified by a rule in layer cifar
I0504 00:12:36.585248  4860 net.cpp:53] Initializing net from parameters: 
name: "CIFAR"
state {
  phase: TEST
}
layer {
  name: "cifar"
  type: "Data"
  top: "data"
  top: "label"
  include {
    phase: TEST
  }
  transform_param {
    mean_file: "examples/cifar10/mean.binaryproto"
  }
  data_param {
    source: "examples/cifar10/cifar10_test_lmdb"
    batch_size: 1000
    backend: LMDB
  }
}
layer {
  name: "conv0"
  type: "Convolution"
  bottom: "data"
  top: "conv0"
  param {
    lr_mult: 1
  }
  param {
    lr_mult: 2
  }
  convolution_param {
    num_output: 24
    pad: 2
    kernel_size: 5
    stride: 1
    weight_filler {
      type: "gaussian"
      std: 0.01
    }
    bias_filler {
      type: "constant"
    }
  }
}
layer {
  name: "Sigmoid0"
  type: "Sigmoid"
  bottom: "conv0"
  top: "Sigmoid0"
}
layer {
  name: "pool0"
  type: "Pooling"
  bottom: "Sigmoid0"
  top: "pool0"
  pooling_param {
    pool: AVE
    kernel_size: 3
    stride: 2
  }
}
layer {
  name: "ip1"
  type: "InnerProduct"
  bottom: "pool0"
  top: "ip1"
  param {
    lr_mult: 1
  }
  param {
    lr_mult: 2
  }
  inner_product_param {
    num_output: 10
    weight_filler {
      type: "gaussian"
      std: 0.01
    }
    bias_filler {
      type: "constant"
    }
  }
}
layer {
  name: "relu1"
  type: "ReLU"
  bottom: "ip1"
  top: "ip1"
}
layer {
  name: "ip2"
  type: "InnerProduct"
  bottom: "ip1"
  top: "ip2"
  param {
    lr_mult: 1
  }
  param {
    lr_mult: 2
  }
  inner_product_param {
    num_output: 10
    weight_filler {
      type: "gaussian"
      std: 0.01
    }
    bias_filler {
      type: "constant"
    }
  }
}
layer {
  name: "accuracy"
  type: "Accuracy"
  bottom: "ip2"
  bottom: "label"
  top: "accuracy"
  include {
    phase: TEST
  }
}
layer {
  name: "loss"
  type: "SoftmaxWithLoss"
  bottom: "ip2"
  bottom: "label"
  top: "loss"
}
I0504 00:12:36.585325  4860 layer_factory.hpp:77] Creating layer cifar
I0504 00:12:36.585374  4860 db_lmdb.cpp:35] Opened lmdb examples/cifar10/cifar10_test_lmdb
I0504 00:12:36.585387  4860 net.cpp:86] Creating Layer cifar
I0504 00:12:36.585392  4860 net.cpp:382] cifar -> data
I0504 00:12:36.585402  4860 net.cpp:382] cifar -> label
I0504 00:12:36.585409  4860 data_transformer.cpp:25] Loading mean file from: examples/cifar10/mean.binaryproto
I0504 00:12:36.585564  4860 data_layer.cpp:45] output data size: 1000,3,32,32
I0504 00:12:36.609447  4860 net.cpp:124] Setting up cifar
I0504 00:12:36.609473  4860 net.cpp:131] Top shape: 1000 3 32 32 (3072000)
I0504 00:12:36.609479  4860 net.cpp:131] Top shape: 1000 (1000)
I0504 00:12:36.609483  4860 net.cpp:139] Memory required for data: 12292000
I0504 00:12:36.609488  4860 layer_factory.hpp:77] Creating layer label_cifar_1_split
I0504 00:12:36.609501  4860 net.cpp:86] Creating Layer label_cifar_1_split
I0504 00:12:36.609505  4860 net.cpp:408] label_cifar_1_split <- label
I0504 00:12:36.609513  4860 net.cpp:382] label_cifar_1_split -> label_cifar_1_split_0
I0504 00:12:36.609521  4860 net.cpp:382] label_cifar_1_split -> label_cifar_1_split_1
I0504 00:12:36.609629  4860 net.cpp:124] Setting up label_cifar_1_split
I0504 00:12:36.609637  4860 net.cpp:131] Top shape: 1000 (1000)
I0504 00:12:36.609642  4860 net.cpp:131] Top shape: 1000 (1000)
I0504 00:12:36.609644  4860 net.cpp:139] Memory required for data: 12300000
I0504 00:12:36.609647  4860 layer_factory.hpp:77] Creating layer conv0
I0504 00:12:36.609660  4860 net.cpp:86] Creating Layer conv0
I0504 00:12:36.609663  4860 net.cpp:408] conv0 <- data
I0504 00:12:36.609669  4860 net.cpp:382] conv0 -> conv0
I0504 00:12:36.611282  4860 net.cpp:124] Setting up conv0
I0504 00:12:36.611299  4860 net.cpp:131] Top shape: 1000 24 32 32 (24576000)
I0504 00:12:36.611302  4860 net.cpp:139] Memory required for data: 110604000
I0504 00:12:36.611312  4860 layer_factory.hpp:77] Creating layer Sigmoid0
I0504 00:12:36.611320  4860 net.cpp:86] Creating Layer Sigmoid0
I0504 00:12:36.611322  4860 net.cpp:408] Sigmoid0 <- conv0
I0504 00:12:36.611328  4860 net.cpp:382] Sigmoid0 -> Sigmoid0
I0504 00:12:36.611507  4860 net.cpp:124] Setting up Sigmoid0
I0504 00:12:36.611517  4860 net.cpp:131] Top shape: 1000 24 32 32 (24576000)
I0504 00:12:36.611521  4860 net.cpp:139] Memory required for data: 208908000
I0504 00:12:36.611526  4860 layer_factory.hpp:77] Creating layer pool0
I0504 00:12:36.611534  4860 net.cpp:86] Creating Layer pool0
I0504 00:12:36.611541  4860 net.cpp:408] pool0 <- Sigmoid0
I0504 00:12:36.611546  4860 net.cpp:382] pool0 -> pool0
I0504 00:12:36.613360  4860 net.cpp:124] Setting up pool0
I0504 00:12:36.613375  4860 net.cpp:131] Top shape: 1000 24 16 16 (6144000)
I0504 00:12:36.613379  4860 net.cpp:139] Memory required for data: 233484000
I0504 00:12:36.613382  4860 layer_factory.hpp:77] Creating layer ip1
I0504 00:12:36.613391  4860 net.cpp:86] Creating Layer ip1
I0504 00:12:36.613394  4860 net.cpp:408] ip1 <- pool0
I0504 00:12:36.613400  4860 net.cpp:382] ip1 -> ip1
I0504 00:12:36.615226  4860 net.cpp:124] Setting up ip1
I0504 00:12:36.615234  4860 net.cpp:131] Top shape: 1000 10 (10000)
I0504 00:12:36.615237  4860 net.cpp:139] Memory required for data: 233524000
I0504 00:12:36.615245  4860 layer_factory.hpp:77] Creating layer relu1
I0504 00:12:36.615252  4860 net.cpp:86] Creating Layer relu1
I0504 00:12:36.615254  4860 net.cpp:408] relu1 <- ip1
I0504 00:12:36.615259  4860 net.cpp:369] relu1 -> ip1 (in-place)
I0504 00:12:36.615417  4860 net.cpp:124] Setting up relu1
I0504 00:12:36.615427  4860 net.cpp:131] Top shape: 1000 10 (10000)
I0504 00:12:36.615429  4860 net.cpp:139] Memory required for data: 233564000
I0504 00:12:36.615433  4860 layer_factory.hpp:77] Creating layer ip2
I0504 00:12:36.615439  4860 net.cpp:86] Creating Layer ip2
I0504 00:12:36.615442  4860 net.cpp:408] ip2 <- ip1
I0504 00:12:36.615448  4860 net.cpp:382] ip2 -> ip2
I0504 00:12:36.615553  4860 net.cpp:124] Setting up ip2
I0504 00:12:36.615561  4860 net.cpp:131] Top shape: 1000 10 (10000)
I0504 00:12:36.615566  4860 net.cpp:139] Memory required for data: 233604000
I0504 00:12:36.615572  4860 layer_factory.hpp:77] Creating layer ip2_ip2_0_split
I0504 00:12:36.615581  4860 net.cpp:86] Creating Layer ip2_ip2_0_split
I0504 00:12:36.615584  4860 net.cpp:408] ip2_ip2_0_split <- ip2
I0504 00:12:36.615589  4860 net.cpp:382] ip2_ip2_0_split -> ip2_ip2_0_split_0
I0504 00:12:36.615595  4860 net.cpp:382] ip2_ip2_0_split -> ip2_ip2_0_split_1
I0504 00:12:36.615625  4860 net.cpp:124] Setting up ip2_ip2_0_split
I0504 00:12:36.615630  4860 net.cpp:131] Top shape: 1000 10 (10000)
I0504 00:12:36.615650  4860 net.cpp:131] Top shape: 1000 10 (10000)
I0504 00:12:36.615653  4860 net.cpp:139] Memory required for data: 233684000
I0504 00:12:36.615656  4860 layer_factory.hpp:77] Creating layer accuracy
I0504 00:12:36.615663  4860 net.cpp:86] Creating Layer accuracy
I0504 00:12:36.615665  4860 net.cpp:408] accuracy <- ip2_ip2_0_split_0
I0504 00:12:36.615669  4860 net.cpp:408] accuracy <- label_cifar_1_split_0
I0504 00:12:36.615674  4860 net.cpp:382] accuracy -> accuracy
…
