…
I0504 10:10:24.075947 24868 net.cpp:296] The NetState phase (0) differed from the phase (1) specified by a rule in layer cifar
I0504 10:10:24.075966 24868 net.cpp:296] The NetState phase (0) differed from the phase (1) specified by a rule in layer accuracy
I0504 10:10:24.076072 24868 net.cpp:53] Initializing net from parameters: 
name: "CIFAR"
state {
  phase: TRAIN
  level: 0
  stage: ""
}
layer {
  name: "cifar"
  type: "Data"
  top: "data"
  top: "label"
  include {
    phase: TRAIN
  }
  transform_param {
    mean_file: "examples/cifar10/mean.binaryproto"
  }
  data_param {
    source: "examples/cifar10/cifar10_train_lmdb"
    batch_size: 111
    backend: LMDB
  }
}
layer {
  name: "conv0"
  type: "Convolution"
  bottom: "data"
  top: "conv0"
  param {
    lr_mult: 1
  }
  param {
    lr_mult: 2
  }
  convolution_param {
    num_output: 24
    pad: 2
    kernel_size: 5
    stride: 1
    weight_filler {
      type: "gaussian"
      std: 0.01
    }
    bias_filler {
      type: "constant"
    }
  }
}
layer {
  name: "Sigmoid0"
  type: "Sigmoid"
  bottom: "conv0"
  top: "Sigmoid0"
}
layer {
  name: "pool0"
  type: "Pooling"
  bottom: "Sigmoid0"
  top: "pool0"
  pooling_param {
    pool: AVE
    kernel_size: 3
    stride: 2
  }
}
layer {
  name: "conv1"
  type: "Convolution"
  bottom: "pool0"
  top: "conv1"
  param {
    lr_mult: 1
  }
  param {
    lr_mult: 2
  }
  convolution_param {
    num_output: 72
    pad: 2
    kernel_size: 3
    stride: 1
    weight_filler {
      type: "gaussian"
      std: 0.01
    }
    bias_filler {
      type: "constant"
    }
  }
}
layer {
  name: "Sigmoid1"
  type: "Sigmoid"
  bottom: "conv1"
  top: "Sigmoid1"
}
layer {
  name: "pool1"
  type: "Pooling"
  bottom: "Sigmoid1"
  top: "pool1"
  pooling_param {
    pool: AVE
    kernel_size: 3
    stride: 2
  }
}
layer {
  name: "ip1"
  type: "InnerProduct"
  bottom: "pool1"
  top: "ip1"
  param {
    lr_mult: 1
  }
  param {
    lr_mult: 2
  }
  inner_product_param {
    num_output: 180
    weight_filler {
      type: "gaussian"
      std: 0.01
    }
    bias_filler {
      type: "constant"
    }
  }
}
layer {
  name: "relu1"
  type: "ReLU"
  bottom: "ip1"
  top: "ip1"
}
layer {
  name: "ip2"
  type: "InnerProduct"
  bottom: "ip1"
  top: "ip2"
  param {
    lr_mult: 1
  }
  param {
    lr_mult: 2
  }
  inner_product_param {
    num_output: 60
    weight_filler {
      type: "gaussian"
      std: 0.01
    }
    bias_filler {
      type: "constant"
    }
  }
}
layer {
  name: "relu2"
  type: "ReLU"
  bottom: "ip2"
  top: "ip2"
}
layer {
  name: "ip3"
  type: "InnerProduct"
  bottom: "ip2"
  top: "ip3"
  param {
    lr_mult: 1
  }
  param {
    lr_mult: 2
  }
  inner_product_param {
    num_output: 10
    weight_filler {
      type: "gaussian"
      std: 0.01
    }
    bias_filler {
      type: "constant"
    }
  }
}
layer {
  name: "loss"
  type: "SoftmaxWithLoss"
  bottom: "ip3"
  bottom: "label"
  top: "loss"
}
I0504 10:10:24.076148 24868 layer_factory.hpp:77] Creating layer cifar
I0504 10:10:24.076251 24868 db_lmdb.cpp:35] Opened lmdb examples/cifar10/cifar10_train_lmdb
I0504 10:10:24.076279 24868 net.cpp:86] Creating Layer cifar
I0504 10:10:24.076287 24868 net.cpp:382] cifar -> data
I0504 10:10:24.076310 24868 net.cpp:382] cifar -> label
I0504 10:10:24.076323 24868 data_transformer.cpp:25] Loading mean file from: examples/cifar10/mean.binaryproto
I0504 10:10:24.078493 24868 data_layer.cpp:45] output data size: 111,3,32,32
I0504 10:10:24.086519 24868 net.cpp:124] Setting up cifar
I0504 10:10:24.086539 24868 net.cpp:131] Top shape: 111 3 32 32 (340992)
I0504 10:10:24.086544 24868 net.cpp:131] Top shape: 111 (111)
I0504 10:10:24.086549 24868 net.cpp:139] Memory required for data: 1364412
I0504 10:10:24.086557 24868 layer_factory.hpp:77] Creating layer conv0
I0504 10:10:24.086575 24868 net.cpp:86] Creating Layer conv0
I0504 10:10:24.086580 24868 net.cpp:408] conv0 <- data
I0504 10:10:24.086592 24868 net.cpp:382] conv0 -> conv0
I0504 10:10:24.368692 24868 net.cpp:124] Setting up conv0
I0504 10:10:24.368718 24868 net.cpp:131] Top shape: 111 24 32 32 (2727936)
I0504 10:10:24.368722 24868 net.cpp:139] Memory required for data: 12276156
I0504 10:10:24.368736 24868 layer_factory.hpp:77] Creating layer Sigmoid0
I0504 10:10:24.368747 24868 net.cpp:86] Creating Layer Sigmoid0
I0504 10:10:24.368752 24868 net.cpp:408] Sigmoid0 <- conv0
I0504 10:10:24.368757 24868 net.cpp:382] Sigmoid0 -> Sigmoid0
I0504 10:10:24.368947 24868 net.cpp:124] Setting up Sigmoid0
I0504 10:10:24.368957 24868 net.cpp:131] Top shape: 111 24 32 32 (2727936)
I0504 10:10:24.368962 24868 net.cpp:139] Memory required for data: 23187900
I0504 10:10:24.368964 24868 layer_factory.hpp:77] Creating layer pool0
I0504 10:10:24.368971 24868 net.cpp:86] Creating Layer pool0
I0504 10:10:24.368974 24868 net.cpp:408] pool0 <- Sigmoid0
I0504 10:10:24.368978 24868 net.cpp:382] pool0 -> pool0
I0504 10:10:24.369735 24868 net.cpp:124] Setting up pool0
I0504 10:10:24.369747 24868 net.cpp:131] Top shape: 111 24 16 16 (681984)
I0504 10:10:24.369750 24868 net.cpp:139] Memory required for data: 25915836
I0504 10:10:24.369753 24868 layer_factory.hpp:77] Creating layer conv1
I0504 10:10:24.369765 24868 net.cpp:86] Creating Layer conv1
I0504 10:10:24.369770 24868 net.cpp:408] conv1 <- pool0
I0504 10:10:24.369774 24868 net.cpp:382] conv1 -> conv1
I0504 10:10:24.372653 24868 net.cpp:124] Setting up conv1
I0504 10:10:24.372665 24868 net.cpp:131] Top shape: 111 72 18 18 (2589408)
I0504 10:10:24.372669 24868 net.cpp:139] Memory required for data: 36273468
I0504 10:10:24.372678 24868 layer_factory.hpp:77] Creating layer Sigmoid1
I0504 10:10:24.372684 24868 net.cpp:86] Creating Layer Sigmoid1
I0504 10:10:24.372686 24868 net.cpp:408] Sigmoid1 <- conv1
I0504 10:10:24.372690 24868 net.cpp:382] Sigmoid1 -> Sigmoid1
I0504 10:10:24.372891 24868 net.cpp:124] Setting up Sigmoid1
I0504 10:10:24.372902 24868 net.cpp:131] Top shape: 111 72 18 18 (2589408)
I0504 10:10:24.372905 24868 net.cpp:139] Memory required for data: 46631100
I0504 10:10:24.372908 24868 layer_factory.hpp:77] Creating layer pool1
I0504 10:10:24.372915 24868 net.cpp:86] Creating Layer pool1
I0504 10:10:24.372917 24868 net.cpp:408] pool1 <- Sigmoid1
I0504 10:10:24.372922 24868 net.cpp:382] pool1 -> pool1
I0504 10:10:24.373100 24868 net.cpp:124] Setting up pool1
I0504 10:10:24.373109 24868 net.cpp:131] Top shape: 111 72 9 9 (647352)
I0504 10:10:24.373127 24868 net.cpp:139] Memory required for data: 49220508
I0504 10:10:24.373131 24868 layer_factory.hpp:77] Creating layer ip1
I0504 10:10:24.373138 24868 net.cpp:86] Creating Layer ip1
I0504 10:10:24.373142 24868 net.cpp:408] ip1 <- pool1
I0504 10:10:24.373147 24868 net.cpp:382] ip1 -> ip1
I0504 10:10:24.401042 24868 net.cpp:124] Setting up ip1
I0504 10:10:24.401069 24868 net.cpp:131] Top shape: 111 180 (19980)
I0504 10:10:24.401073 24868 net.cpp:139] Memory required for data: 49300428
I0504 10:10:24.401082 24868 layer_factory.hpp:77] Creating layer relu1
I0504 10:10:24.401088 24868 net.cpp:86] Creating Layer relu1
I0504 10:10:24.401091 24868 net.cpp:408] relu1 <- ip1
I0504 10:10:24.401095 24868 net.cpp:369] relu1 -> ip1 (in-place)
I0504 10:10:24.401286 24868 net.cpp:124] Setting up relu1
I0504 10:10:24.401295 24868 net.cpp:131] Top shape: 111 180 (19980)
I0504 10:10:24.401298 24868 net.cpp:139] Memory required for data: 49380348
I0504 10:10:24.401301 24868 layer_factory.hpp:77] Creating layer ip2
I0504 10:10:24.401309 24868 net.cpp:86] Creating Layer ip2
I0504 10:10:24.401311 24868 net.cpp:408] ip2 <- ip1
I0504 10:10:24.401329 24868 net.cpp:382] ip2 -> ip2
I0504 10:10:24.401757 24868 net.cpp:124] Setting up ip2
I0504 10:10:24.401764 24868 net.cpp:131] Top shape: 111 60 (6660)
I0504 10:10:24.401783 24868 net.cpp:139] Memory required for data: 49406988
I0504 10:10:24.401788 24868 layer_factory.hpp:77] Creating layer relu2
I0504 10:10:24.401793 24868 net.cpp:86] Creating Layer relu2
I0504 10:10:24.401796 24868 net.cpp:408] relu2 <- ip2
I0504 10:10:24.401801 24868 net.cpp:369] relu2 -> ip2 (in-place)
I0504 10:10:24.402581 24868 net.cpp:124] Setting up relu2
I0504 10:10:24.402593 24868 net.cpp:131] Top shape: 111 60 (6660)
I0504 10:10:24.402612 24868 net.cpp:139] Memory required for data: 49433628
I0504 10:10:24.402616 24868 layer_factory.hpp:77] Creating layer ip3
I0504 10:10:24.402623 24868 net.cpp:86] Creating Layer ip3
I0504 10:10:24.402626 24868 net.cpp:408] ip3 <- ip2
I0504 10:10:24.402632 24868 net.cpp:382] ip3 -> ip3
I0504 10:10:24.402797 24868 net.cpp:124] Setting up ip3
I0504 10:10:24.402804 24868 net.cpp:131] Top shape: 111 10 (1110)
I0504 10:10:24.402807 24868 net.cpp:139] Memory required for data: 49438068
I0504 10:10:24.402815 24868 layer_factory.hpp:77] Creating layer loss
I0504 10:10:24.402822 24868 net.cpp:86] Creating Layer loss
I0504 10:10:24.402824 24868 net.cpp:408] loss <- ip3
I0504 10:10:24.402828 24868 net.cpp:408] loss <- label
I0504 10:10:24.402833 24868 net.cpp:382] loss -> loss
I0504 10:10:24.402849 24868 layer_factory.hpp:77] Creating layer loss
…
I0504 10:10:24.403554 24868 solver.cpp:173] Creating test net (#0) specified by net file: ECE595/cifar/train_test/var_everything_tiny/cifar_train_test_130.prototxt
I0504 10:10:24.403611 24868 net.cpp:296] The NetState phase (1) differed from the phase (0) specified by a rule in layer cifar
I0504 10:10:24.403734 24868 net.cpp:53] Initializing net from parameters: 
name: "CIFAR"
state {
  phase: TEST
}
layer {
  name: "cifar"
  type: "Data"
  top: "data"
  top: "label"
  include {
    phase: TEST
  }
  transform_param {
    mean_file: "examples/cifar10/mean.binaryproto"
  }
  data_param {
    source: "examples/cifar10/cifar10_test_lmdb"
    batch_size: 1000
    backend: LMDB
  }
}
layer {
  name: "conv0"
  type: "Convolution"
  bottom: "data"
  top: "conv0"
  param {
    lr_mult: 1
  }
  param {
    lr_mult: 2
  }
  convolution_param {
    num_output: 24
    pad: 2
    kernel_size: 5
    stride: 1
    weight_filler {
      type: "gaussian"
      std: 0.01
    }
    bias_filler {
      type: "constant"
    }
  }
}
layer {
  name: "Sigmoid0"
  type: "Sigmoid"
  bottom: "conv0"
  top: "Sigmoid0"
}
layer {
  name: "pool0"
  type: "Pooling"
  bottom: "Sigmoid0"
  top: "pool0"
  pooling_param {
    pool: AVE
    kernel_size: 3
    stride: 2
  }
}
layer {
  name: "conv1"
  type: "Convolution"
  bottom: "pool0"
  top: "conv1"
  param {
    lr_mult: 1
  }
  param {
    lr_mult: 2
  }
  convolution_param {
    num_output: 72
    pad: 2
    kernel_size: 3
    stride: 1
    weight_filler {
      type: "gaussian"
      std: 0.01
    }
    bias_filler {
      type: "constant"
    }
  }
}
layer {
  name: "Sigmoid1"
  type: "Sigmoid"
  bottom: "conv1"
  top: "Sigmoid1"
}
layer {
  name: "pool1"
  type: "Pooling"
  bottom: "Sigmoid1"
  top: "pool1"
  pooling_param {
    pool: AVE
    kernel_size: 3
    stride: 2
  }
}
layer {
  name: "ip1"
  type: "InnerProduct"
  bottom: "pool1"
  top: "ip1"
  param {
    lr_mult: 1
  }
  param {
    lr_mult: 2
  }
  inner_product_param {
    num_output: 180
    weight_filler {
      type: "gaussian"
      std: 0.01
    }
    bias_filler {
      type: "constant"
    }
  }
}
layer {
  name: "relu1"
  type: "ReLU"
  bottom: "ip1"
  top: "ip1"
}
layer {
  name: "ip2"
  type: "InnerProduct"
  bottom: "ip1"
  top: "ip2"
  param {
    lr_mult: 1
  }
  param {
    lr_mult: 2
  }
  inner_product_param {
    num_output: 60
    weight_filler {
      type: "gaussian"
      std: 0.01
    }
    bias_filler {
      type: "constant"
    }
  }
}
layer {
  name: "relu2"
  type: "ReLU"
  bottom: "ip2"
  top: "ip2"
}
layer {
  name: "ip3"
  type: "InnerProduct"
  bottom: "ip2"
  top: "ip3"
  param {
    lr_mult: 1
  }
  param {
    lr_mult: 2
  }
  inner_product_param {
    num_output: 10
    weight_filler {
      type: "gaussian"
      std: 0.01
    }
    bias_filler {
      type: "constant"
    }
  }
}
layer {
  name: "accuracy"
  type: "Accuracy"
  bottom: "ip3"
  bottom: "label"
  top: "accuracy"
  include {
    phase: TEST
  }
}
layer {
  name: "loss"
  type: "SoftmaxWithLoss"
  bottom: "ip3"
  bottom: "label"
  top: "loss"
}
I0504 10:10:24.403813 24868 layer_factory.hpp:77] Creating layer cifar
I0504 10:10:24.403858 24868 db_lmdb.cpp:35] Opened lmdb examples/cifar10/cifar10_test_lmdb
I0504 10:10:24.403888 24868 net.cpp:86] Creating Layer cifar
I0504 10:10:24.403893 24868 net.cpp:382] cifar -> data
I0504 10:10:24.403900 24868 net.cpp:382] cifar -> label
I0504 10:10:24.403908 24868 data_transformer.cpp:25] Loading mean file from: examples/cifar10/mean.binaryproto
I0504 10:10:24.404050 24868 data_layer.cpp:45] output data size: 1000,3,32,32
I0504 10:10:24.426266 24868 net.cpp:124] Setting up cifar
I0504 10:10:24.426307 24868 net.cpp:131] Top shape: 1000 3 32 32 (3072000)
I0504 10:10:24.426313 24868 net.cpp:131] Top shape: 1000 (1000)
I0504 10:10:24.426316 24868 net.cpp:139] Memory required for data: 12292000
I0504 10:10:24.426321 24868 layer_factory.hpp:77] Creating layer label_cifar_1_split
I0504 10:10:24.426338 24868 net.cpp:86] Creating Layer label_cifar_1_split
I0504 10:10:24.426343 24868 net.cpp:408] label_cifar_1_split <- label
I0504 10:10:24.426349 24868 net.cpp:382] label_cifar_1_split -> label_cifar_1_split_0
I0504 10:10:24.426357 24868 net.cpp:382] label_cifar_1_split -> label_cifar_1_split_1
I0504 10:10:24.426458 24868 net.cpp:124] Setting up label_cifar_1_split
I0504 10:10:24.426466 24868 net.cpp:131] Top shape: 1000 (1000)
I0504 10:10:24.426470 24868 net.cpp:131] Top shape: 1000 (1000)
I0504 10:10:24.426473 24868 net.cpp:139] Memory required for data: 12300000
I0504 10:10:24.426476 24868 layer_factory.hpp:77] Creating layer conv0
I0504 10:10:24.426488 24868 net.cpp:86] Creating Layer conv0
I0504 10:10:24.426493 24868 net.cpp:408] conv0 <- data
I0504 10:10:24.426515 24868 net.cpp:382] conv0 -> conv0
I0504 10:10:24.428143 24868 net.cpp:124] Setting up conv0
I0504 10:10:24.428158 24868 net.cpp:131] Top shape: 1000 24 32 32 (24576000)
I0504 10:10:24.428176 24868 net.cpp:139] Memory required for data: 110604000
I0504 10:10:24.428186 24868 layer_factory.hpp:77] Creating layer Sigmoid0
I0504 10:10:24.428194 24868 net.cpp:86] Creating Layer Sigmoid0
I0504 10:10:24.428197 24868 net.cpp:408] Sigmoid0 <- conv0
I0504 10:10:24.428201 24868 net.cpp:382] Sigmoid0 -> Sigmoid0
I0504 10:10:24.428386 24868 net.cpp:124] Setting up Sigmoid0
I0504 10:10:24.428408 24868 net.cpp:131] Top shape: 1000 24 32 32 (24576000)
I0504 10:10:24.428411 24868 net.cpp:139] Memory required for data: 208908000
I0504 10:10:24.428416 24868 layer_factory.hpp:77] Creating layer pool0
I0504 10:10:24.428423 24868 net.cpp:86] Creating Layer pool0
I0504 10:10:24.428426 24868 net.cpp:408] pool0 <- Sigmoid0
I0504 10:10:24.428431 24868 net.cpp:382] pool0 -> pool0
I0504 10:10:24.428712 24868 net.cpp:124] Setting up pool0
I0504 10:10:24.428735 24868 net.cpp:131] Top shape: 1000 24 16 16 (6144000)
I0504 10:10:24.428738 24868 net.cpp:139] Memory required for data: 233484000
I0504 10:10:24.428757 24868 layer_factory.hpp:77] Creating layer conv1
I0504 10:10:24.428767 24868 net.cpp:86] Creating Layer conv1
I0504 10:10:24.428771 24868 net.cpp:408] conv1 <- pool0
I0504 10:10:24.428777 24868 net.cpp:382] conv1 -> conv1
I0504 10:10:24.431426 24868 net.cpp:124] Setting up conv1
I0504 10:10:24.431457 24868 net.cpp:131] Top shape: 1000 72 18 18 (23328000)
I0504 10:10:24.431462 24868 net.cpp:139] Memory required for data: 326796000
I0504 10:10:24.431470 24868 layer_factory.hpp:77] Creating layer Sigmoid1
I0504 10:10:24.431476 24868 net.cpp:86] Creating Layer Sigmoid1
I0504 10:10:24.431480 24868 net.cpp:408] Sigmoid1 <- conv1
I0504 10:10:24.431484 24868 net.cpp:382] Sigmoid1 -> Sigmoid1
I0504 10:10:24.431665 24868 net.cpp:124] Setting up Sigmoid1
I0504 10:10:24.431675 24868 net.cpp:131] Top shape: 1000 72 18 18 (23328000)
I0504 10:10:24.431679 24868 net.cpp:139] Memory required for data: 420108000
I0504 10:10:24.431681 24868 layer_factory.hpp:77] Creating layer pool1
I0504 10:10:24.431687 24868 net.cpp:86] Creating Layer pool1
I0504 10:10:24.431691 24868 net.cpp:408] pool1 <- Sigmoid1
I0504 10:10:24.431696 24868 net.cpp:382] pool1 -> pool1
I0504 10:10:24.432441 24868 net.cpp:124] Setting up pool1
I0504 10:10:24.432453 24868 net.cpp:131] Top shape: 1000 72 9 9 (5832000)
I0504 10:10:24.432472 24868 net.cpp:139] Memory required for data: 443436000
I0504 10:10:24.432476 24868 layer_factory.hpp:77] Creating layer ip1
I0504 10:10:24.432487 24868 net.cpp:86] Creating Layer ip1
I0504 10:10:24.432490 24868 net.cpp:408] ip1 <- pool1
I0504 10:10:24.432495 24868 net.cpp:382] ip1 -> ip1
I0504 10:10:24.460471 24868 net.cpp:124] Setting up ip1
I0504 10:10:24.460505 24868 net.cpp:131] Top shape: 1000 180 (180000)
I0504 10:10:24.460507 24868 net.cpp:139] Memory required for data: 444156000
I0504 10:10:24.460517 24868 layer_factory.hpp:77] Creating layer relu1
I0504 10:10:24.460526 24868 net.cpp:86] Creating Layer relu1
I0504 10:10:24.460530 24868 net.cpp:408] relu1 <- ip1
I0504 10:10:24.460535 24868 net.cpp:369] relu1 -> ip1 (in-place)
I0504 10:10:24.460722 24868 net.cpp:124] Setting up relu1
I0504 10:10:24.460731 24868 net.cpp:131] Top shape: 1000 180 (180000)
I0504 10:10:24.460736 24868 net.cpp:139] Memory required for data: 444876000
I0504 10:10:24.460738 24868 layer_factory.hpp:77] Creating layer ip2
I0504 10:10:24.460746 24868 net.cpp:86] Creating Layer ip2
I0504 10:10:24.460749 24868 net.cpp:408] ip2 <- ip1
I0504 10:10:24.460754 24868 net.cpp:382] ip2 -> ip2
I0504 10:10:24.461315 24868 net.cpp:124] Setting up ip2
I0504 10:10:24.461323 24868 net.cpp:131] Top shape: 1000 60 (60000)
I0504 10:10:24.461343 24868 net.cpp:139] Memory required for data: 445116000
I0504 10:10:24.461347 24868 layer_factory.hpp:77] Creating layer relu2
I0504 10:10:24.461352 24868 net.cpp:86] Creating Layer relu2
I0504 10:10:24.461355 24868 net.cpp:408] relu2 <- ip2
I0504 10:10:24.461359 24868 net.cpp:369] relu2 -> ip2 (in-place)
I0504 10:10:24.461522 24868 net.cpp:124] Setting up relu2
I0504 10:10:24.461530 24868 net.cpp:131] Top shape: 1000 60 (60000)
I0504 10:10:24.461534 24868 net.cpp:139] Memory required for data: 445356000
I0504 10:10:24.461536 24868 layer_factory.hpp:77] Creating layer ip3
I0504 10:10:24.461544 24868 net.cpp:86] Creating Layer ip3
I0504 10:10:24.461546 24868 net.cpp:408] ip3 <- ip2
I0504 10:10:24.461551 24868 net.cpp:382] ip3 -> ip3
I0504 10:10:24.461669 24868 net.cpp:124] Setting up ip3
I0504 10:10:24.461676 24868 net.cpp:131] Top shape: 1000 10 (10000)
I0504 10:10:24.461693 24868 net.cpp:139] Memory required for data: 445396000
I0504 10:10:24.461700 24868 layer_factory.hpp:77] Creating layer ip3_ip3_0_split
I0504 10:10:24.461706 24868 net.cpp:86] Creating Layer ip3_ip3_0_split
I0504 10:10:24.461709 24868 net.cpp:408] ip3_ip3_0_split <- ip3
I0504 10:10:24.461714 24868 net.cpp:382] ip3_ip3_0_split -> ip3_ip3_0_split_0
I0504 10:10:24.461719 24868 net.cpp:382] ip3_ip3_0_split -> ip3_ip3_0_split_1
I0504 10:10:24.461751 24868 net.cpp:124] Setting up ip3_ip3_0_split
I0504 10:10:24.461757 24868 net.cpp:131] Top shape: 1000 10 (10000)
I0504 10:10:24.461761 24868 net.cpp:131] Top shape: 1000 10 (10000)
I0504 10:10:24.461763 24868 net.cpp:139] Memory required for data: 445476000
I0504 10:10:24.461766 24868 layer_factory.hpp:77] Creating layer accuracy
I0504 10:10:24.461771 24868 net.cpp:86] Creating Layer accuracy
I0504 10:10:24.461776 24868 net.cpp:408] accuracy <- ip3_ip3_0_split_0
I0504 10:10:24.461781 24868 net.cpp:408] accuracy <- label_cifar_1_split_0
I0504 10:10:24.461784 24868 net.cpp:382] accuracy -> accuracy
…
