…
I0504 01:49:43.160472  8100 net.cpp:296] The NetState phase (0) differed from the phase (1) specified by a rule in layer cifar
I0504 01:49:43.160488  8100 net.cpp:296] The NetState phase (0) differed from the phase (1) specified by a rule in layer accuracy
I0504 01:49:43.160580  8100 net.cpp:53] Initializing net from parameters: 
name: "CIFAR"
state {
  phase: TRAIN
  level: 0
  stage: ""
}
layer {
  name: "cifar"
  type: "Data"
  top: "data"
  top: "label"
  include {
    phase: TRAIN
  }
  transform_param {
    mean_file: "examples/cifar10/mean.binaryproto"
  }
  data_param {
    source: "examples/cifar10/cifar10_train_lmdb"
    batch_size: 111
    backend: LMDB
  }
}
layer {
  name: "conv0"
  type: "Convolution"
  bottom: "data"
  top: "conv0"
  param {
    lr_mult: 1
  }
  param {
    lr_mult: 2
  }
  convolution_param {
    num_output: 72
    pad: 2
    kernel_size: 5
    stride: 1
    weight_filler {
      type: "gaussian"
      std: 0.01
    }
    bias_filler {
      type: "constant"
    }
  }
}
layer {
  name: "Sigmoid0"
  type: "Sigmoid"
  bottom: "conv0"
  top: "Sigmoid0"
}
layer {
  name: "pool0"
  type: "Pooling"
  bottom: "Sigmoid0"
  top: "pool0"
  pooling_param {
    pool: AVE
    kernel_size: 3
    stride: 2
  }
}
layer {
  name: "ip1"
  type: "InnerProduct"
  bottom: "pool0"
  top: "ip1"
  param {
    lr_mult: 1
  }
  param {
    lr_mult: 2
  }
  inner_product_param {
    num_output: 10
    weight_filler {
      type: "gaussian"
      std: 0.01
    }
    bias_filler {
      type: "constant"
    }
  }
}
layer {
  name: "relu1"
  type: "ReLU"
  bottom: "ip1"
  top: "ip1"
}
layer {
  name: "ip2"
  type: "InnerProduct"
  bottom: "ip1"
  top: "ip2"
  param {
    lr_mult: 1
  }
  param {
    lr_mult: 2
  }
  inner_product_param {
    num_output: 10
    weight_filler {
      type: "gaussian"
      std: 0.01
    }
    bias_filler {
      type: "constant"
    }
  }
}
layer {
  name: "relu2"
  type: "ReLU"
  bottom: "ip2"
  top: "ip2"
}
layer {
  name: "ip3"
  type: "InnerProduct"
  bottom: "ip2"
  top: "ip3"
  param {
    lr_mult: 1
  }
  param {
    lr_mult: 2
  }
  inner_product_param {
    num_output: 10
    weight_filler {
      type: "gaussian"
      std: 0.01
    }
    bias_filler {
      type: "constant"
    }
  }
}
layer {
  name: "loss"
  type: "SoftmaxWithLoss"
  bottom: "ip3"
  bottom: "label"
  top: "loss"
}
I0504 01:49:43.160653  8100 layer_factory.hpp:77] Creating layer cifar
I0504 01:49:43.160750  8100 db_lmdb.cpp:35] Opened lmdb examples/cifar10/cifar10_train_lmdb
I0504 01:49:43.160780  8100 net.cpp:86] Creating Layer cifar
I0504 01:49:43.160790  8100 net.cpp:382] cifar -> data
I0504 01:49:43.160818  8100 net.cpp:382] cifar -> label
I0504 01:49:43.160832  8100 data_transformer.cpp:25] Loading mean file from: examples/cifar10/mean.binaryproto
I0504 01:49:43.162963  8100 data_layer.cpp:45] output data size: 111,3,32,32
I0504 01:49:43.170824  8100 net.cpp:124] Setting up cifar
I0504 01:49:43.170843  8100 net.cpp:131] Top shape: 111 3 32 32 (340992)
I0504 01:49:43.170850  8100 net.cpp:131] Top shape: 111 (111)
I0504 01:49:43.170852  8100 net.cpp:139] Memory required for data: 1364412
I0504 01:49:43.170861  8100 layer_factory.hpp:77] Creating layer conv0
I0504 01:49:43.170879  8100 net.cpp:86] Creating Layer conv0
I0504 01:49:43.170888  8100 net.cpp:408] conv0 <- data
I0504 01:49:43.170900  8100 net.cpp:382] conv0 -> conv0
I0504 01:49:43.458868  8100 net.cpp:124] Setting up conv0
I0504 01:49:43.458915  8100 net.cpp:131] Top shape: 111 72 32 32 (8183808)
I0504 01:49:43.458920  8100 net.cpp:139] Memory required for data: 34099644
I0504 01:49:43.458935  8100 layer_factory.hpp:77] Creating layer Sigmoid0
I0504 01:49:43.458946  8100 net.cpp:86] Creating Layer Sigmoid0
I0504 01:49:43.458950  8100 net.cpp:408] Sigmoid0 <- conv0
I0504 01:49:43.458956  8100 net.cpp:382] Sigmoid0 -> Sigmoid0
I0504 01:49:43.459141  8100 net.cpp:124] Setting up Sigmoid0
I0504 01:49:43.459151  8100 net.cpp:131] Top shape: 111 72 32 32 (8183808)
I0504 01:49:43.459154  8100 net.cpp:139] Memory required for data: 66834876
I0504 01:49:43.459157  8100 layer_factory.hpp:77] Creating layer pool0
I0504 01:49:43.459166  8100 net.cpp:86] Creating Layer pool0
I0504 01:49:43.459168  8100 net.cpp:408] pool0 <- Sigmoid0
I0504 01:49:43.459173  8100 net.cpp:382] pool0 -> pool0
I0504 01:49:43.459930  8100 net.cpp:124] Setting up pool0
I0504 01:49:43.459944  8100 net.cpp:131] Top shape: 111 72 16 16 (2045952)
I0504 01:49:43.459947  8100 net.cpp:139] Memory required for data: 75018684
I0504 01:49:43.459950  8100 layer_factory.hpp:77] Creating layer ip1
I0504 01:49:43.459960  8100 net.cpp:86] Creating Layer ip1
I0504 01:49:43.459964  8100 net.cpp:408] ip1 <- pool0
I0504 01:49:43.459969  8100 net.cpp:382] ip1 -> ip1
I0504 01:49:43.466023  8100 net.cpp:124] Setting up ip1
I0504 01:49:43.466035  8100 net.cpp:131] Top shape: 111 10 (1110)
I0504 01:49:43.466039  8100 net.cpp:139] Memory required for data: 75023124
I0504 01:49:43.466048  8100 layer_factory.hpp:77] Creating layer relu1
I0504 01:49:43.466053  8100 net.cpp:86] Creating Layer relu1
I0504 01:49:43.466056  8100 net.cpp:408] relu1 <- ip1
I0504 01:49:43.466060  8100 net.cpp:369] relu1 -> ip1 (in-place)
I0504 01:49:43.466218  8100 net.cpp:124] Setting up relu1
I0504 01:49:43.466228  8100 net.cpp:131] Top shape: 111 10 (1110)
I0504 01:49:43.466230  8100 net.cpp:139] Memory required for data: 75027564
I0504 01:49:43.466234  8100 layer_factory.hpp:77] Creating layer ip2
I0504 01:49:43.466240  8100 net.cpp:86] Creating Layer ip2
I0504 01:49:43.466244  8100 net.cpp:408] ip2 <- ip1
I0504 01:49:43.466249  8100 net.cpp:382] ip2 -> ip2
I0504 01:49:43.466346  8100 net.cpp:124] Setting up ip2
I0504 01:49:43.466352  8100 net.cpp:131] Top shape: 111 10 (1110)
I0504 01:49:43.466354  8100 net.cpp:139] Memory required for data: 75032004
I0504 01:49:43.466362  8100 layer_factory.hpp:77] Creating layer relu2
I0504 01:49:43.466367  8100 net.cpp:86] Creating Layer relu2
I0504 01:49:43.466369  8100 net.cpp:408] relu2 <- ip2
I0504 01:49:43.466374  8100 net.cpp:369] relu2 -> ip2 (in-place)
I0504 01:49:43.466526  8100 net.cpp:124] Setting up relu2
I0504 01:49:43.466533  8100 net.cpp:131] Top shape: 111 10 (1110)
I0504 01:49:43.466536  8100 net.cpp:139] Memory required for data: 75036444
I0504 01:49:43.466539  8100 layer_factory.hpp:77] Creating layer ip3
I0504 01:49:43.466547  8100 net.cpp:86] Creating Layer ip3
I0504 01:49:43.466550  8100 net.cpp:408] ip3 <- ip2
I0504 01:49:43.466555  8100 net.cpp:382] ip3 -> ip3
I0504 01:49:43.466645  8100 net.cpp:124] Setting up ip3
I0504 01:49:43.466651  8100 net.cpp:131] Top shape: 111 10 (1110)
I0504 01:49:43.466655  8100 net.cpp:139] Memory required for data: 75040884
I0504 01:49:43.466660  8100 layer_factory.hpp:77] Creating layer loss
I0504 01:49:43.466665  8100 net.cpp:86] Creating Layer loss
I0504 01:49:43.466668  8100 net.cpp:408] loss <- ip3
I0504 01:49:43.466672  8100 net.cpp:408] loss <- label
I0504 01:49:43.466677  8100 net.cpp:382] loss -> loss
I0504 01:49:43.466692  8100 layer_factory.hpp:77] Creating layer loss
…
I0504 01:49:43.467288  8100 solver.cpp:173] Creating test net (#0) specified by net file: ECE595/cifar/train_test/var_everything_tiny/cifar_train_test_39.prototxt
I0504 01:49:43.467314  8100 net.cpp:296] The NetState phase (1) differed from the phase (0) specified by a rule in layer cifar
I0504 01:49:43.467399  8100 net.cpp:53] Initializing net from parameters: 
name: "CIFAR"
state {
  phase: TEST
}
layer {
  name: "cifar"
  type: "Data"
  top: "data"
  top: "label"
  include {
    phase: TEST
  }
  transform_param {
    mean_file: "examples/cifar10/mean.binaryproto"
  }
  data_param {
    source: "examples/cifar10/cifar10_test_lmdb"
    batch_size: 1000
    backend: LMDB
  }
}
layer {
  name: "conv0"
  type: "Convolution"
  bottom: "data"
  top: "conv0"
  param {
    lr_mult: 1
  }
  param {
    lr_mult: 2
  }
  convolution_param {
    num_output: 72
    pad: 2
    kernel_size: 5
    stride: 1
    weight_filler {
      type: "gaussian"
      std: 0.01
    }
    bias_filler {
      type: "constant"
    }
  }
}
layer {
  name: "Sigmoid0"
  type: "Sigmoid"
  bottom: "conv0"
  top: "Sigmoid0"
}
layer {
  name: "pool0"
  type: "Pooling"
  bottom: "Sigmoid0"
  top: "pool0"
  pooling_param {
    pool: AVE
    kernel_size: 3
    stride: 2
  }
}
layer {
  name: "ip1"
  type: "InnerProduct"
  bottom: "pool0"
  top: "ip1"
  param {
    lr_mult: 1
  }
  param {
    lr_mult: 2
  }
  inner_product_param {
    num_output: 10
    weight_filler {
      type: "gaussian"
      std: 0.01
    }
    bias_filler {
      type: "constant"
    }
  }
}
layer {
  name: "relu1"
  type: "ReLU"
  bottom: "ip1"
  top: "ip1"
}
layer {
  name: "ip2"
  type: "InnerProduct"
  bottom: "ip1"
  top: "ip2"
  param {
    lr_mult: 1
  }
  param {
    lr_mult: 2
  }
  inner_product_param {
    num_output: 10
    weight_filler {
      type: "gaussian"
      std: 0.01
    }
    bias_filler {
      type: "constant"
    }
  }
}
layer {
  name: "relu2"
  type: "ReLU"
  bottom: "ip2"
  top: "ip2"
}
layer {
  name: "ip3"
  type: "InnerProduct"
  bottom: "ip2"
  top: "ip3"
  param {
    lr_mult: 1
  }
  param {
    lr_mult: 2
  }
  inner_product_param {
    num_output: 10
    weight_filler {
      type: "gaussian"
      std: 0.01
    }
    bias_filler {
      type: "constant"
    }
  }
}
layer {
  name: "accuracy"
  type: "Accuracy"
  bottom: "ip3"
  bottom: "label"
  top: "accuracy"
  include {
    phase: TEST
  }
}
layer {
  name: "loss"
  type: "SoftmaxWithLoss"
  bottom: "ip3"
  bottom: "label"
  top: "loss"
}
I0504 01:49:43.467463  8100 layer_factory.hpp:77] Creating layer cifar
I0504 01:49:43.467510  8100 db_lmdb.cpp:35] Opened lmdb examples/cifar10/cifar10_test_lmdb
I0504 01:49:43.467525  8100 net.cpp:86] Creating Layer cifar
I0504 01:49:43.467531  8100 net.cpp:382] cifar -> data
I0504 01:49:43.467540  8100 net.cpp:382] cifar -> label
I0504 01:49:43.467546  8100 data_transformer.cpp:25] Loading mean file from: examples/cifar10/mean.binaryproto
I0504 01:49:43.467690  8100 data_layer.cpp:45] output data size: 1000,3,32,32
I0504 01:49:43.490255  8100 net.cpp:124] Setting up cifar
I0504 01:49:43.490296  8100 net.cpp:131] Top shape: 1000 3 32 32 (3072000)
I0504 01:49:43.490303  8100 net.cpp:131] Top shape: 1000 (1000)
I0504 01:49:43.490306  8100 net.cpp:139] Memory required for data: 12292000
I0504 01:49:43.490312  8100 layer_factory.hpp:77] Creating layer label_cifar_1_split
I0504 01:49:43.490324  8100 net.cpp:86] Creating Layer label_cifar_1_split
I0504 01:49:43.490345  8100 net.cpp:408] label_cifar_1_split <- label
I0504 01:49:43.490367  8100 net.cpp:382] label_cifar_1_split -> label_cifar_1_split_0
I0504 01:49:43.490377  8100 net.cpp:382] label_cifar_1_split -> label_cifar_1_split_1
I0504 01:49:43.490478  8100 net.cpp:124] Setting up label_cifar_1_split
I0504 01:49:43.490485  8100 net.cpp:131] Top shape: 1000 (1000)
I0504 01:49:43.490489  8100 net.cpp:131] Top shape: 1000 (1000)
I0504 01:49:43.490492  8100 net.cpp:139] Memory required for data: 12300000
I0504 01:49:43.490496  8100 layer_factory.hpp:77] Creating layer conv0
I0504 01:49:43.490509  8100 net.cpp:86] Creating Layer conv0
I0504 01:49:43.490515  8100 net.cpp:408] conv0 <- data
I0504 01:49:43.490536  8100 net.cpp:382] conv0 -> conv0
I0504 01:49:43.492265  8100 net.cpp:124] Setting up conv0
I0504 01:49:43.492295  8100 net.cpp:131] Top shape: 1000 72 32 32 (73728000)
I0504 01:49:43.492300  8100 net.cpp:139] Memory required for data: 307212000
I0504 01:49:43.492310  8100 layer_factory.hpp:77] Creating layer Sigmoid0
I0504 01:49:43.492316  8100 net.cpp:86] Creating Layer Sigmoid0
I0504 01:49:43.492319  8100 net.cpp:408] Sigmoid0 <- conv0
I0504 01:49:43.492323  8100 net.cpp:382] Sigmoid0 -> Sigmoid0
I0504 01:49:43.493309  8100 net.cpp:124] Setting up Sigmoid0
I0504 01:49:43.493337  8100 net.cpp:131] Top shape: 1000 72 32 32 (73728000)
I0504 01:49:43.493341  8100 net.cpp:139] Memory required for data: 602124000
I0504 01:49:43.493345  8100 layer_factory.hpp:77] Creating layer pool0
I0504 01:49:43.493353  8100 net.cpp:86] Creating Layer pool0
I0504 01:49:43.493357  8100 net.cpp:408] pool0 <- Sigmoid0
I0504 01:49:43.493362  8100 net.cpp:382] pool0 -> pool0
I0504 01:49:43.494505  8100 net.cpp:124] Setting up pool0
I0504 01:49:43.494516  8100 net.cpp:131] Top shape: 1000 72 16 16 (18432000)
I0504 01:49:43.494535  8100 net.cpp:139] Memory required for data: 675852000
I0504 01:49:43.494540  8100 layer_factory.hpp:77] Creating layer ip1
I0504 01:49:43.494549  8100 net.cpp:86] Creating Layer ip1
I0504 01:49:43.494552  8100 net.cpp:408] ip1 <- pool0
I0504 01:49:43.494557  8100 net.cpp:382] ip1 -> ip1
I0504 01:49:43.499927  8100 net.cpp:124] Setting up ip1
I0504 01:49:43.499935  8100 net.cpp:131] Top shape: 1000 10 (10000)
I0504 01:49:43.499955  8100 net.cpp:139] Memory required for data: 675892000
I0504 01:49:43.499963  8100 layer_factory.hpp:77] Creating layer relu1
I0504 01:49:43.499970  8100 net.cpp:86] Creating Layer relu1
I0504 01:49:43.499974  8100 net.cpp:408] relu1 <- ip1
I0504 01:49:43.499977  8100 net.cpp:369] relu1 -> ip1 (in-place)
I0504 01:49:43.500133  8100 net.cpp:124] Setting up relu1
I0504 01:49:43.500143  8100 net.cpp:131] Top shape: 1000 10 (10000)
I0504 01:49:43.500145  8100 net.cpp:139] Memory required for data: 675932000
I0504 01:49:43.500149  8100 layer_factory.hpp:77] Creating layer ip2
I0504 01:49:43.500154  8100 net.cpp:86] Creating Layer ip2
I0504 01:49:43.500159  8100 net.cpp:408] ip2 <- ip1
I0504 01:49:43.500162  8100 net.cpp:382] ip2 -> ip2
I0504 01:49:43.500263  8100 net.cpp:124] Setting up ip2
I0504 01:49:43.500270  8100 net.cpp:131] Top shape: 1000 10 (10000)
I0504 01:49:43.500273  8100 net.cpp:139] Memory required for data: 675972000
I0504 01:49:43.500282  8100 layer_factory.hpp:77] Creating layer relu2
I0504 01:49:43.500288  8100 net.cpp:86] Creating Layer relu2
I0504 01:49:43.500290  8100 net.cpp:408] relu2 <- ip2
I0504 01:49:43.500294  8100 net.cpp:369] relu2 -> ip2 (in-place)
I0504 01:49:43.500468  8100 net.cpp:124] Setting up relu2
I0504 01:49:43.500475  8100 net.cpp:131] Top shape: 1000 10 (10000)
I0504 01:49:43.500479  8100 net.cpp:139] Memory required for data: 676012000
I0504 01:49:43.500483  8100 layer_factory.hpp:77] Creating layer ip3
I0504 01:49:43.500488  8100 net.cpp:86] Creating Layer ip3
I0504 01:49:43.500494  8100 net.cpp:408] ip3 <- ip2
I0504 01:49:43.500499  8100 net.cpp:382] ip3 -> ip3
I0504 01:49:43.500600  8100 net.cpp:124] Setting up ip3
I0504 01:49:43.500607  8100 net.cpp:131] Top shape: 1000 10 (10000)
I0504 01:49:43.500622  8100 net.cpp:139] Memory required for data: 676052000
I0504 01:49:43.500628  8100 layer_factory.hpp:77] Creating layer ip3_ip3_0_split
I0504 01:49:43.500633  8100 net.cpp:86] Creating Layer ip3_ip3_0_split
I0504 01:49:43.500638  8100 net.cpp:408] ip3_ip3_0_split <- ip3
I0504 01:49:43.500656  8100 net.cpp:382] ip3_ip3_0_split -> ip3_ip3_0_split_0
I0504 01:49:43.500663  8100 net.cpp:382] ip3_ip3_0_split -> ip3_ip3_0_split_1
I0504 01:49:43.500694  8100 net.cpp:124] Setting up ip3_ip3_0_split
I0504 01:49:43.500700  8100 net.cpp:131] Top shape: 1000 10 (10000)
I0504 01:49:43.500705  8100 net.cpp:131] Top shape: 1000 10 (10000)
I0504 01:49:43.500707  8100 net.cpp:139] Memory required for data: 676132000
I0504 01:49:43.500710  8100 layer_factory.hpp:77] Creating layer accuracy
I0504 01:49:43.500716  8100 net.cpp:86] Creating Layer accuracy
I0504 01:49:43.500720  8100 net.cpp:408] accuracy <- ip3_ip3_0_split_0
I0504 01:49:43.500725  8100 net.cpp:408] accuracy <- label_cifar_1_split_0
I0504 01:49:43.500728  8100 net.cpp:382] accuracy -> accuracy
…
