…
I0504 02:54:21.661702 10004 net.cpp:296] The NetState phase (0) differed from the phase (1) specified by a rule in layer cifar
I0504 02:54:21.661716 10004 net.cpp:296] The NetState phase (0) differed from the phase (1) specified by a rule in layer accuracy
I0504 02:54:21.661798 10004 net.cpp:53] Initializing net from parameters: 
name: "CIFAR"
state {
  phase: TRAIN
  level: 0
  stage: ""
}
layer {
  name: "cifar"
  type: "Data"
  top: "data"
  top: "label"
  include {
    phase: TRAIN
  }
  transform_param {
    mean_file: "examples/cifar10/mean.binaryproto"
  }
  data_param {
    source: "examples/cifar10/cifar10_train_lmdb"
    batch_size: 111
    backend: LMDB
  }
}
layer {
  name: "conv0"
  type: "Convolution"
  bottom: "data"
  top: "conv0"
  param {
    lr_mult: 1
  }
  param {
    lr_mult: 2
  }
  convolution_param {
    num_output: 216
    pad: 2
    kernel_size: 3
    stride: 1
    weight_filler {
      type: "gaussian"
      std: 0.01
    }
    bias_filler {
      type: "constant"
    }
  }
}
layer {
  name: "Sigmoid0"
  type: "Sigmoid"
  bottom: "conv0"
  top: "Sigmoid0"
}
layer {
  name: "pool0"
  type: "Pooling"
  bottom: "Sigmoid0"
  top: "pool0"
  pooling_param {
    pool: AVE
    kernel_size: 3
    stride: 2
  }
}
layer {
  name: "ip1"
  type: "InnerProduct"
  bottom: "pool0"
  top: "ip1"
  param {
    lr_mult: 1
  }
  param {
    lr_mult: 2
  }
  inner_product_param {
    num_output: 180
    weight_filler {
      type: "gaussian"
      std: 0.01
    }
    bias_filler {
      type: "constant"
    }
  }
}
layer {
  name: "relu1"
  type: "ReLU"
  bottom: "ip1"
  top: "ip1"
}
layer {
  name: "ip2"
  type: "InnerProduct"
  bottom: "ip1"
  top: "ip2"
  param {
    lr_mult: 1
  }
  param {
    lr_mult: 2
  }
  inner_product_param {
    num_output: 10
    weight_filler {
      type: "gaussian"
      std: 0.01
    }
    bias_filler {
      type: "constant"
    }
  }
}
layer {
  name: "loss"
  type: "SoftmaxWithLoss"
  bottom: "ip2"
  bottom: "label"
  top: "loss"
}
I0504 02:54:21.661871 10004 layer_factory.hpp:77] Creating layer cifar
I0504 02:54:21.661981 10004 db_lmdb.cpp:35] Opened lmdb examples/cifar10/cifar10_train_lmdb
I0504 02:54:21.662014 10004 net.cpp:86] Creating Layer cifar
I0504 02:54:21.662024 10004 net.cpp:382] cifar -> data
I0504 02:54:21.662050 10004 net.cpp:382] cifar -> label
I0504 02:54:21.662063 10004 data_transformer.cpp:25] Loading mean file from: examples/cifar10/mean.binaryproto
I0504 02:54:21.664011 10004 data_layer.cpp:45] output data size: 111,3,32,32
I0504 02:54:21.670894 10004 net.cpp:124] Setting up cifar
I0504 02:54:21.670912 10004 net.cpp:131] Top shape: 111 3 32 32 (340992)
I0504 02:54:21.670917 10004 net.cpp:131] Top shape: 111 (111)
I0504 02:54:21.670922 10004 net.cpp:139] Memory required for data: 1364412
I0504 02:54:21.670928 10004 layer_factory.hpp:77] Creating layer conv0
I0504 02:54:21.670946 10004 net.cpp:86] Creating Layer conv0
I0504 02:54:21.670954 10004 net.cpp:408] conv0 <- data
I0504 02:54:21.670969 10004 net.cpp:382] conv0 -> conv0
I0504 02:54:21.906877 10004 net.cpp:124] Setting up conv0
I0504 02:54:21.906920 10004 net.cpp:131] Top shape: 111 216 34 34 (27716256)
I0504 02:54:21.906924 10004 net.cpp:139] Memory required for data: 112229436
I0504 02:54:21.906939 10004 layer_factory.hpp:77] Creating layer Sigmoid0
I0504 02:54:21.906951 10004 net.cpp:86] Creating Layer Sigmoid0
I0504 02:54:21.906956 10004 net.cpp:408] Sigmoid0 <- conv0
I0504 02:54:21.906988 10004 net.cpp:382] Sigmoid0 -> Sigmoid0
I0504 02:54:21.907179 10004 net.cpp:124] Setting up Sigmoid0
I0504 02:54:21.907189 10004 net.cpp:131] Top shape: 111 216 34 34 (27716256)
I0504 02:54:21.907192 10004 net.cpp:139] Memory required for data: 223094460
I0504 02:54:21.907196 10004 layer_factory.hpp:77] Creating layer pool0
I0504 02:54:21.907205 10004 net.cpp:86] Creating Layer pool0
I0504 02:54:21.907210 10004 net.cpp:408] pool0 <- Sigmoid0
I0504 02:54:21.907217 10004 net.cpp:382] pool0 -> pool0
I0504 02:54:21.907907 10004 net.cpp:124] Setting up pool0
I0504 02:54:21.907920 10004 net.cpp:131] Top shape: 111 216 17 17 (6929064)
I0504 02:54:21.907923 10004 net.cpp:139] Memory required for data: 250810716
I0504 02:54:21.907927 10004 layer_factory.hpp:77] Creating layer ip1
I0504 02:54:21.907935 10004 net.cpp:86] Creating Layer ip1
I0504 02:54:21.907938 10004 net.cpp:408] ip1 <- pool0
I0504 02:54:21.907943 10004 net.cpp:382] ip1 -> ip1
I0504 02:54:22.215562 10004 net.cpp:124] Setting up ip1
I0504 02:54:22.215602 10004 net.cpp:131] Top shape: 111 180 (19980)
I0504 02:54:22.215606 10004 net.cpp:139] Memory required for data: 250890636
I0504 02:54:22.215641 10004 layer_factory.hpp:77] Creating layer relu1
I0504 02:54:22.215651 10004 net.cpp:86] Creating Layer relu1
I0504 02:54:22.215656 10004 net.cpp:408] relu1 <- ip1
I0504 02:54:22.215662 10004 net.cpp:369] relu1 -> ip1 (in-place)
I0504 02:54:22.215901 10004 net.cpp:124] Setting up relu1
I0504 02:54:22.215910 10004 net.cpp:131] Top shape: 111 180 (19980)
I0504 02:54:22.215914 10004 net.cpp:139] Memory required for data: 250970556
I0504 02:54:22.215919 10004 layer_factory.hpp:77] Creating layer ip2
I0504 02:54:22.215930 10004 net.cpp:86] Creating Layer ip2
I0504 02:54:22.215935 10004 net.cpp:408] ip2 <- ip1
I0504 02:54:22.215945 10004 net.cpp:382] ip2 -> ip2
I0504 02:54:22.216130 10004 net.cpp:124] Setting up ip2
I0504 02:54:22.216137 10004 net.cpp:131] Top shape: 111 10 (1110)
I0504 02:54:22.216140 10004 net.cpp:139] Memory required for data: 250974996
I0504 02:54:22.216150 10004 layer_factory.hpp:77] Creating layer loss
I0504 02:54:22.216168 10004 net.cpp:86] Creating Layer loss
I0504 02:54:22.216176 10004 net.cpp:408] loss <- ip2
I0504 02:54:22.216182 10004 net.cpp:408] loss <- label
I0504 02:54:22.216190 10004 net.cpp:382] loss -> loss
I0504 02:54:22.216209 10004 layer_factory.hpp:77] Creating layer loss
…
I0504 02:54:22.216845 10004 solver.cpp:173] Creating test net (#0) specified by net file: ECE595/cifar/train_test/var_everything_tiny/cifar_train_test_50.prototxt
I0504 02:54:22.216879 10004 net.cpp:296] The NetState phase (1) differed from the phase (0) specified by a rule in layer cifar
I0504 02:54:22.216967 10004 net.cpp:53] Initializing net from parameters: 
name: "CIFAR"
state {
  phase: TEST
}
layer {
  name: "cifar"
  type: "Data"
  top: "data"
  top: "label"
  include {
    phase: TEST
  }
  transform_param {
    mean_file: "examples/cifar10/mean.binaryproto"
  }
  data_param {
    source: "examples/cifar10/cifar10_test_lmdb"
    batch_size: 1000
    backend: LMDB
  }
}
layer {
  name: "conv0"
  type: "Convolution"
  bottom: "data"
  top: "conv0"
  param {
    lr_mult: 1
  }
  param {
    lr_mult: 2
  }
  convolution_param {
    num_output: 216
    pad: 2
    kernel_size: 3
    stride: 1
    weight_filler {
      type: "gaussian"
      std: 0.01
    }
    bias_filler {
      type: "constant"
    }
  }
}
layer {
  name: "Sigmoid0"
  type: "Sigmoid"
  bottom: "conv0"
  top: "Sigmoid0"
}
layer {
  name: "pool0"
  type: "Pooling"
  bottom: "Sigmoid0"
  top: "pool0"
  pooling_param {
    pool: AVE
    kernel_size: 3
    stride: 2
  }
}
layer {
  name: "ip1"
  type: "InnerProduct"
  bottom: "pool0"
  top: "ip1"
  param {
    lr_mult: 1
  }
  param {
    lr_mult: 2
  }
  inner_product_param {
    num_output: 180
    weight_filler {
      type: "gaussian"
      std: 0.01
    }
    bias_filler {
      type: "constant"
    }
  }
}
layer {
  name: "relu1"
  type: "ReLU"
  bottom: "ip1"
  top: "ip1"
}
layer {
  name: "ip2"
  type: "InnerProduct"
  bottom: "ip1"
  top: "ip2"
  param {
    lr_mult: 1
  }
  param {
    lr_mult: 2
  }
  inner_product_param {
    num_output: 10
    weight_filler {
      type: "gaussian"
      std: 0.01
    }
    bias_filler {
      type: "constant"
    }
  }
}
layer {
  name: "accuracy"
  type: "Accuracy"
  bottom: "ip2"
  bottom: "label"
  top: "accuracy"
  include {
    phase: TEST
  }
}
layer {
  name: "loss"
  type: "SoftmaxWithLoss"
  bottom: "ip2"
  bottom: "label"
  top: "loss"
}
I0504 02:54:22.217070 10004 layer_factory.hpp:77] Creating layer cifar
I0504 02:54:22.217139 10004 db_lmdb.cpp:35] Opened lmdb examples/cifar10/cifar10_test_lmdb
I0504 02:54:22.217185 10004 net.cpp:86] Creating Layer cifar
I0504 02:54:22.217191 10004 net.cpp:382] cifar -> data
I0504 02:54:22.217202 10004 net.cpp:382] cifar -> label
I0504 02:54:22.217211 10004 data_transformer.cpp:25] Loading mean file from: examples/cifar10/mean.binaryproto
I0504 02:54:22.217402 10004 data_layer.cpp:45] output data size: 1000,3,32,32
I0504 02:54:22.241065 10004 net.cpp:124] Setting up cifar
I0504 02:54:22.241091 10004 net.cpp:131] Top shape: 1000 3 32 32 (3072000)
I0504 02:54:22.241112 10004 net.cpp:131] Top shape: 1000 (1000)
I0504 02:54:22.241116 10004 net.cpp:139] Memory required for data: 12292000
I0504 02:54:22.241122 10004 layer_factory.hpp:77] Creating layer label_cifar_1_split
I0504 02:54:22.241137 10004 net.cpp:86] Creating Layer label_cifar_1_split
I0504 02:54:22.241142 10004 net.cpp:408] label_cifar_1_split <- label
I0504 02:54:22.241152 10004 net.cpp:382] label_cifar_1_split -> label_cifar_1_split_0
I0504 02:54:22.241163 10004 net.cpp:382] label_cifar_1_split -> label_cifar_1_split_1
I0504 02:54:22.241231 10004 net.cpp:124] Setting up label_cifar_1_split
I0504 02:54:22.241241 10004 net.cpp:131] Top shape: 1000 (1000)
I0504 02:54:22.241245 10004 net.cpp:131] Top shape: 1000 (1000)
I0504 02:54:22.241248 10004 net.cpp:139] Memory required for data: 12300000
I0504 02:54:22.241253 10004 layer_factory.hpp:77] Creating layer conv0
I0504 02:54:22.241269 10004 net.cpp:86] Creating Layer conv0
I0504 02:54:22.241276 10004 net.cpp:408] conv0 <- data
I0504 02:54:22.241283 10004 net.cpp:382] conv0 -> conv0
I0504 02:54:22.243707 10004 net.cpp:124] Setting up conv0
I0504 02:54:22.243721 10004 net.cpp:131] Top shape: 1000 216 34 34 (249696000)
I0504 02:54:22.243724 10004 net.cpp:139] Memory required for data: 1011084000
I0504 02:54:22.243736 10004 layer_factory.hpp:77] Creating layer Sigmoid0
I0504 02:54:22.243746 10004 net.cpp:86] Creating Layer Sigmoid0
I0504 02:54:22.243752 10004 net.cpp:408] Sigmoid0 <- conv0
I0504 02:54:22.243758 10004 net.cpp:382] Sigmoid0 -> Sigmoid0
I0504 02:54:22.244978 10004 net.cpp:124] Setting up Sigmoid0
I0504 02:54:22.244992 10004 net.cpp:131] Top shape: 1000 216 34 34 (249696000)
I0504 02:54:22.244995 10004 net.cpp:139] Memory required for data: 2009868000
I0504 02:54:22.244999 10004 layer_factory.hpp:77] Creating layer pool0
I0504 02:54:22.245009 10004 net.cpp:86] Creating Layer pool0
I0504 02:54:22.245015 10004 net.cpp:408] pool0 <- Sigmoid0
I0504 02:54:22.245023 10004 net.cpp:382] pool0 -> pool0
I0504 02:54:22.245848 10004 net.cpp:124] Setting up pool0
I0504 02:54:22.245862 10004 net.cpp:131] Top shape: 1000 216 17 17 (62424000)
I0504 02:54:22.245865 10004 net.cpp:139] Memory required for data: 2259564000
I0504 02:54:22.245868 10004 layer_factory.hpp:77] Creating layer ip1
I0504 02:54:22.245879 10004 net.cpp:86] Creating Layer ip1
I0504 02:54:22.245885 10004 net.cpp:408] ip1 <- pool0
I0504 02:54:22.245896 10004 net.cpp:382] ip1 -> ip1
I0504 02:54:22.557236 10004 net.cpp:124] Setting up ip1
I0504 02:54:22.557261 10004 net.cpp:131] Top shape: 1000 180 (180000)
I0504 02:54:22.557265 10004 net.cpp:139] Memory required for data: 2260284000
I0504 02:54:22.557278 10004 layer_factory.hpp:77] Creating layer relu1
I0504 02:54:22.557291 10004 net.cpp:86] Creating Layer relu1
I0504 02:54:22.557297 10004 net.cpp:408] relu1 <- ip1
I0504 02:54:22.557306 10004 net.cpp:369] relu1 -> ip1 (in-place)
I0504 02:54:22.557541 10004 net.cpp:124] Setting up relu1
I0504 02:54:22.557550 10004 net.cpp:131] Top shape: 1000 180 (180000)
I0504 02:54:22.557554 10004 net.cpp:139] Memory required for data: 2261004000
I0504 02:54:22.557559 10004 layer_factory.hpp:77] Creating layer ip2
I0504 02:54:22.557570 10004 net.cpp:86] Creating Layer ip2
I0504 02:54:22.557576 10004 net.cpp:408] ip2 <- ip1
I0504 02:54:22.557586 10004 net.cpp:382] ip2 -> ip2
I0504 02:54:22.557772 10004 net.cpp:124] Setting up ip2
I0504 02:54:22.557780 10004 net.cpp:131] Top shape: 1000 10 (10000)
I0504 02:54:22.557783 10004 net.cpp:139] Memory required for data: 2261044000
I0504 02:54:22.557793 10004 layer_factory.hpp:77] Creating layer ip2_ip2_0_split
I0504 02:54:22.557806 10004 net.cpp:86] Creating Layer ip2_ip2_0_split
I0504 02:54:22.557811 10004 net.cpp:408] ip2_ip2_0_split <- ip2
I0504 02:54:22.557818 10004 net.cpp:382] ip2_ip2_0_split -> ip2_ip2_0_split_0
I0504 02:54:22.557826 10004 net.cpp:382] ip2_ip2_0_split -> ip2_ip2_0_split_1
I0504 02:54:22.557873 10004 net.cpp:124] Setting up ip2_ip2_0_split
I0504 02:54:22.557879 10004 net.cpp:131] Top shape: 1000 10 (10000)
I0504 02:54:22.557883 10004 net.cpp:131] Top shape: 1000 10 (10000)
I0504 02:54:22.557888 10004 net.cpp:139] Memory required for data: 2261124000
I0504 02:54:22.557893 10004 layer_factory.hpp:77] Creating layer accuracy
I0504 02:54:22.557900 10004 net.cpp:86] Creating Layer accuracy
I0504 02:54:22.557904 10004 net.cpp:408] accuracy <- ip2_ip2_0_split_0
I0504 02:54:22.557911 10004 net.cpp:408] accuracy <- label_cifar_1_split_0
I0504 02:54:22.557919 10004 net.cpp:382] accuracy -> accuracy
…
