…
I0504 04:23:15.768600 12208 net.cpp:296] The NetState phase (0) differed from the phase (1) specified by a rule in layer cifar
I0504 04:23:15.768617 12208 net.cpp:296] The NetState phase (0) differed from the phase (1) specified by a rule in layer accuracy
I0504 04:23:15.768710 12208 net.cpp:53] Initializing net from parameters: 
name: "CIFAR"
state {
  phase: TRAIN
  level: 0
  stage: ""
}
layer {
  name: "cifar"
  type: "Data"
  top: "data"
  top: "label"
  include {
    phase: TRAIN
  }
  transform_param {
    mean_file: "examples/cifar10/mean.binaryproto"
  }
  data_param {
    source: "examples/cifar10/cifar10_train_lmdb"
    batch_size: 111
    backend: LMDB
  }
}
layer {
  name: "conv0"
  type: "Convolution"
  bottom: "data"
  top: "conv0"
  param {
    lr_mult: 1
  }
  param {
    lr_mult: 2
  }
  convolution_param {
    num_output: 216
    pad: 2
    kernel_size: 3
    stride: 1
    weight_filler {
      type: "gaussian"
      std: 0.01
    }
    bias_filler {
      type: "constant"
    }
  }
}
layer {
  name: "Sigmoid0"
  type: "Sigmoid"
  bottom: "conv0"
  top: "Sigmoid0"
}
layer {
  name: "pool0"
  type: "Pooling"
  bottom: "Sigmoid0"
  top: "pool0"
  pooling_param {
    pool: AVE
    kernel_size: 3
    stride: 2
  }
}
layer {
  name: "ip1"
  type: "InnerProduct"
  bottom: "pool0"
  top: "ip1"
  param {
    lr_mult: 1
  }
  param {
    lr_mult: 2
  }
  inner_product_param {
    num_output: 180
    weight_filler {
      type: "gaussian"
      std: 0.01
    }
    bias_filler {
      type: "constant"
    }
  }
}
layer {
  name: "relu1"
  type: "ReLU"
  bottom: "ip1"
  top: "ip1"
}
layer {
  name: "ip2"
  type: "InnerProduct"
  bottom: "ip1"
  top: "ip2"
  param {
    lr_mult: 1
  }
  param {
    lr_mult: 2
  }
  inner_product_param {
    num_output: 10
    weight_filler {
      type: "gaussian"
      std: 0.01
    }
    bias_filler {
      type: "constant"
    }
  }
}
layer {
  name: "relu2"
  type: "ReLU"
  bottom: "ip2"
  top: "ip2"
}
layer {
  name: "ip3"
  type: "InnerProduct"
  bottom: "ip2"
  top: "ip3"
  param {
    lr_mult: 1
  }
  param {
    lr_mult: 2
  }
  inner_product_param {
    num_output: 10
    weight_filler {
      type: "gaussian"
      std: 0.01
    }
    bias_filler {
      type: "constant"
    }
  }
}
layer {
  name: "loss"
  type: "SoftmaxWithLoss"
  bottom: "ip3"
  bottom: "label"
  top: "loss"
}
I0504 04:23:15.768784 12208 layer_factory.hpp:77] Creating layer cifar
I0504 04:23:15.768894 12208 db_lmdb.cpp:35] Opened lmdb examples/cifar10/cifar10_train_lmdb
I0504 04:23:15.768923 12208 net.cpp:86] Creating Layer cifar
I0504 04:23:15.768931 12208 net.cpp:382] cifar -> data
I0504 04:23:15.768954 12208 net.cpp:382] cifar -> label
I0504 04:23:15.768965 12208 data_transformer.cpp:25] Loading mean file from: examples/cifar10/mean.binaryproto
I0504 04:23:15.771072 12208 data_layer.cpp:45] output data size: 111,3,32,32
I0504 04:23:15.779160 12208 net.cpp:124] Setting up cifar
I0504 04:23:15.779178 12208 net.cpp:131] Top shape: 111 3 32 32 (340992)
I0504 04:23:15.779184 12208 net.cpp:131] Top shape: 111 (111)
I0504 04:23:15.779187 12208 net.cpp:139] Memory required for data: 1364412
I0504 04:23:15.779196 12208 layer_factory.hpp:77] Creating layer conv0
I0504 04:23:15.779213 12208 net.cpp:86] Creating Layer conv0
I0504 04:23:15.779219 12208 net.cpp:408] conv0 <- data
I0504 04:23:15.779232 12208 net.cpp:382] conv0 -> conv0
I0504 04:23:16.060516 12208 net.cpp:124] Setting up conv0
I0504 04:23:16.060559 12208 net.cpp:131] Top shape: 111 216 34 34 (27716256)
I0504 04:23:16.060564 12208 net.cpp:139] Memory required for data: 112229436
I0504 04:23:16.060580 12208 layer_factory.hpp:77] Creating layer Sigmoid0
I0504 04:23:16.060590 12208 net.cpp:86] Creating Layer Sigmoid0
I0504 04:23:16.060595 12208 net.cpp:408] Sigmoid0 <- conv0
I0504 04:23:16.060600 12208 net.cpp:382] Sigmoid0 -> Sigmoid0
I0504 04:23:16.060782 12208 net.cpp:124] Setting up Sigmoid0
I0504 04:23:16.060793 12208 net.cpp:131] Top shape: 111 216 34 34 (27716256)
I0504 04:23:16.060796 12208 net.cpp:139] Memory required for data: 223094460
I0504 04:23:16.060799 12208 layer_factory.hpp:77] Creating layer pool0
I0504 04:23:16.060806 12208 net.cpp:86] Creating Layer pool0
I0504 04:23:16.060817 12208 net.cpp:408] pool0 <- Sigmoid0
I0504 04:23:16.060837 12208 net.cpp:382] pool0 -> pool0
I0504 04:23:16.061606 12208 net.cpp:124] Setting up pool0
I0504 04:23:16.061619 12208 net.cpp:131] Top shape: 111 216 17 17 (6929064)
I0504 04:23:16.061622 12208 net.cpp:139] Memory required for data: 250810716
I0504 04:23:16.061625 12208 layer_factory.hpp:77] Creating layer ip1
I0504 04:23:16.061635 12208 net.cpp:86] Creating Layer ip1
I0504 04:23:16.061638 12208 net.cpp:408] ip1 <- pool0
I0504 04:23:16.061643 12208 net.cpp:382] ip1 -> ip1
I0504 04:23:16.350661 12208 net.cpp:124] Setting up ip1
I0504 04:23:16.350700 12208 net.cpp:131] Top shape: 111 180 (19980)
I0504 04:23:16.350704 12208 net.cpp:139] Memory required for data: 250890636
I0504 04:23:16.350716 12208 layer_factory.hpp:77] Creating layer relu1
I0504 04:23:16.350726 12208 net.cpp:86] Creating Layer relu1
I0504 04:23:16.350729 12208 net.cpp:408] relu1 <- ip1
I0504 04:23:16.350735 12208 net.cpp:369] relu1 -> ip1 (in-place)
I0504 04:23:16.350955 12208 net.cpp:124] Setting up relu1
I0504 04:23:16.350965 12208 net.cpp:131] Top shape: 111 180 (19980)
I0504 04:23:16.350967 12208 net.cpp:139] Memory required for data: 250970556
I0504 04:23:16.350970 12208 layer_factory.hpp:77] Creating layer ip2
I0504 04:23:16.350978 12208 net.cpp:86] Creating Layer ip2
I0504 04:23:16.350981 12208 net.cpp:408] ip2 <- ip1
I0504 04:23:16.350986 12208 net.cpp:382] ip2 -> ip2
I0504 04:23:16.351126 12208 net.cpp:124] Setting up ip2
I0504 04:23:16.351133 12208 net.cpp:131] Top shape: 111 10 (1110)
I0504 04:23:16.351136 12208 net.cpp:139] Memory required for data: 250974996
I0504 04:23:16.351143 12208 layer_factory.hpp:77] Creating layer relu2
I0504 04:23:16.351148 12208 net.cpp:86] Creating Layer relu2
I0504 04:23:16.351150 12208 net.cpp:408] relu2 <- ip2
I0504 04:23:16.351155 12208 net.cpp:369] relu2 -> ip2 (in-place)
I0504 04:23:16.351295 12208 net.cpp:124] Setting up relu2
I0504 04:23:16.351303 12208 net.cpp:131] Top shape: 111 10 (1110)
I0504 04:23:16.351306 12208 net.cpp:139] Memory required for data: 250979436
I0504 04:23:16.351310 12208 layer_factory.hpp:77] Creating layer ip3
I0504 04:23:16.351316 12208 net.cpp:86] Creating Layer ip3
I0504 04:23:16.351320 12208 net.cpp:408] ip3 <- ip2
I0504 04:23:16.351325 12208 net.cpp:382] ip3 -> ip3
I0504 04:23:16.351409 12208 net.cpp:124] Setting up ip3
I0504 04:23:16.351415 12208 net.cpp:131] Top shape: 111 10 (1110)
I0504 04:23:16.351418 12208 net.cpp:139] Memory required for data: 250983876
I0504 04:23:16.351424 12208 layer_factory.hpp:77] Creating layer loss
I0504 04:23:16.351429 12208 net.cpp:86] Creating Layer loss
I0504 04:23:16.351433 12208 net.cpp:408] loss <- ip3
I0504 04:23:16.351435 12208 net.cpp:408] loss <- label
I0504 04:23:16.351440 12208 net.cpp:382] loss -> loss
I0504 04:23:16.351462 12208 layer_factory.hpp:77] Creating layer loss
…
I0504 04:23:16.352078 12208 solver.cpp:173] Creating test net (#0) specified by net file: ECE595/cifar/train_test/var_everything_tiny/cifar_train_test_57.prototxt
I0504 04:23:16.352133 12208 net.cpp:296] The NetState phase (1) differed from the phase (0) specified by a rule in layer cifar
I0504 04:23:16.352232 12208 net.cpp:53] Initializing net from parameters: 
name: "CIFAR"
state {
  phase: TEST
}
layer {
  name: "cifar"
  type: "Data"
  top: "data"
  top: "label"
  include {
    phase: TEST
  }
  transform_param {
    mean_file: "examples/cifar10/mean.binaryproto"
  }
  data_param {
    source: "examples/cifar10/cifar10_test_lmdb"
    batch_size: 1000
    backend: LMDB
  }
}
layer {
  name: "conv0"
  type: "Convolution"
  bottom: "data"
  top: "conv0"
  param {
    lr_mult: 1
  }
  param {
    lr_mult: 2
  }
  convolution_param {
    num_output: 216
    pad: 2
    kernel_size: 3
    stride: 1
    weight_filler {
      type: "gaussian"
      std: 0.01
    }
    bias_filler {
      type: "constant"
    }
  }
}
layer {
  name: "Sigmoid0"
  type: "Sigmoid"
  bottom: "conv0"
  top: "Sigmoid0"
}
layer {
  name: "pool0"
  type: "Pooling"
  bottom: "Sigmoid0"
  top: "pool0"
  pooling_param {
    pool: AVE
    kernel_size: 3
    stride: 2
  }
}
layer {
  name: "ip1"
  type: "InnerProduct"
  bottom: "pool0"
  top: "ip1"
  param {
    lr_mult: 1
  }
  param {
    lr_mult: 2
  }
  inner_product_param {
    num_output: 180
    weight_filler {
      type: "gaussian"
      std: 0.01
    }
    bias_filler {
      type: "constant"
    }
  }
}
layer {
  name: "relu1"
  type: "ReLU"
  bottom: "ip1"
  top: "ip1"
}
layer {
  name: "ip2"
  type: "InnerProduct"
  bottom: "ip1"
  top: "ip2"
  param {
    lr_mult: 1
  }
  param {
    lr_mult: 2
  }
  inner_product_param {
    num_output: 10
    weight_filler {
      type: "gaussian"
      std: 0.01
    }
    bias_filler {
      type: "constant"
    }
  }
}
layer {
  name: "relu2"
  type: "ReLU"
  bottom: "ip2"
  top: "ip2"
}
layer {
  name: "ip3"
  type: "InnerProduct"
  bottom: "ip2"
  top: "ip3"
  param {
    lr_mult: 1
  }
  param {
    lr_mult: 2
  }
  inner_product_param {
    num_output: 10
    weight_filler {
      type: "gaussian"
      std: 0.01
    }
    bias_filler {
      type: "constant"
    }
  }
}
layer {
  name: "accuracy"
  type: "Accuracy"
  bottom: "ip3"
  bottom: "label"
  top: "accuracy"
  include {
    phase: TEST
  }
}
layer {
  name: "loss"
  type: "SoftmaxWithLoss"
  bottom: "ip3"
  bottom: "label"
  top: "loss"
}
I0504 04:23:16.352294 12208 layer_factory.hpp:77] Creating layer cifar
I0504 04:23:16.352347 12208 db_lmdb.cpp:35] Opened lmdb examples/cifar10/cifar10_test_lmdb
I0504 04:23:16.352360 12208 net.cpp:86] Creating Layer cifar
I0504 04:23:16.352363 12208 net.cpp:382] cifar -> data
I0504 04:23:16.352371 12208 net.cpp:382] cifar -> label
I0504 04:23:16.352378 12208 data_transformer.cpp:25] Loading mean file from: examples/cifar10/mean.binaryproto
I0504 04:23:16.352530 12208 data_layer.cpp:45] output data size: 1000,3,32,32
I0504 04:23:16.374176 12208 net.cpp:124] Setting up cifar
I0504 04:23:16.374217 12208 net.cpp:131] Top shape: 1000 3 32 32 (3072000)
I0504 04:23:16.374228 12208 net.cpp:131] Top shape: 1000 (1000)
I0504 04:23:16.374231 12208 net.cpp:139] Memory required for data: 12292000
I0504 04:23:16.374238 12208 layer_factory.hpp:77] Creating layer label_cifar_1_split
I0504 04:23:16.374286 12208 net.cpp:86] Creating Layer label_cifar_1_split
I0504 04:23:16.374294 12208 net.cpp:408] label_cifar_1_split <- label
I0504 04:23:16.374316 12208 net.cpp:382] label_cifar_1_split -> label_cifar_1_split_0
I0504 04:23:16.374341 12208 net.cpp:382] label_cifar_1_split -> label_cifar_1_split_1
I0504 04:23:16.374450 12208 net.cpp:124] Setting up label_cifar_1_split
I0504 04:23:16.374475 12208 net.cpp:131] Top shape: 1000 (1000)
I0504 04:23:16.374480 12208 net.cpp:131] Top shape: 1000 (1000)
I0504 04:23:16.374482 12208 net.cpp:139] Memory required for data: 12300000
I0504 04:23:16.374486 12208 layer_factory.hpp:77] Creating layer conv0
I0504 04:23:16.374500 12208 net.cpp:86] Creating Layer conv0
I0504 04:23:16.374505 12208 net.cpp:408] conv0 <- data
I0504 04:23:16.374526 12208 net.cpp:382] conv0 -> conv0
I0504 04:23:16.376898 12208 net.cpp:124] Setting up conv0
I0504 04:23:16.376942 12208 net.cpp:131] Top shape: 1000 216 34 34 (249696000)
I0504 04:23:16.376946 12208 net.cpp:139] Memory required for data: 1011084000
I0504 04:23:16.376957 12208 layer_factory.hpp:77] Creating layer Sigmoid0
I0504 04:23:16.376965 12208 net.cpp:86] Creating Layer Sigmoid0
I0504 04:23:16.376968 12208 net.cpp:408] Sigmoid0 <- conv0
I0504 04:23:16.376974 12208 net.cpp:382] Sigmoid0 -> Sigmoid0
I0504 04:23:16.378792 12208 net.cpp:124] Setting up Sigmoid0
I0504 04:23:16.378819 12208 net.cpp:131] Top shape: 1000 216 34 34 (249696000)
I0504 04:23:16.378823 12208 net.cpp:139] Memory required for data: 2009868000
I0504 04:23:16.378828 12208 layer_factory.hpp:77] Creating layer pool0
I0504 04:23:16.378835 12208 net.cpp:86] Creating Layer pool0
I0504 04:23:16.378839 12208 net.cpp:408] pool0 <- Sigmoid0
I0504 04:23:16.378844 12208 net.cpp:382] pool0 -> pool0
I0504 04:23:16.379058 12208 net.cpp:124] Setting up pool0
I0504 04:23:16.379068 12208 net.cpp:131] Top shape: 1000 216 17 17 (62424000)
I0504 04:23:16.379071 12208 net.cpp:139] Memory required for data: 2259564000
I0504 04:23:16.379075 12208 layer_factory.hpp:77] Creating layer ip1
I0504 04:23:16.379082 12208 net.cpp:86] Creating Layer ip1
I0504 04:23:16.379086 12208 net.cpp:408] ip1 <- pool0
I0504 04:23:16.379091 12208 net.cpp:382] ip1 -> ip1
I0504 04:23:16.663589 12208 net.cpp:124] Setting up ip1
I0504 04:23:16.663611 12208 net.cpp:131] Top shape: 1000 180 (180000)
I0504 04:23:16.663615 12208 net.cpp:139] Memory required for data: 2260284000
I0504 04:23:16.663626 12208 layer_factory.hpp:77] Creating layer relu1
I0504 04:23:16.663635 12208 net.cpp:86] Creating Layer relu1
I0504 04:23:16.663640 12208 net.cpp:408] relu1 <- ip1
I0504 04:23:16.663645 12208 net.cpp:369] relu1 -> ip1 (in-place)
I0504 04:23:16.663873 12208 net.cpp:124] Setting up relu1
I0504 04:23:16.663882 12208 net.cpp:131] Top shape: 1000 180 (180000)
I0504 04:23:16.663885 12208 net.cpp:139] Memory required for data: 2261004000
I0504 04:23:16.663888 12208 layer_factory.hpp:77] Creating layer ip2
I0504 04:23:16.663897 12208 net.cpp:86] Creating Layer ip2
I0504 04:23:16.663899 12208 net.cpp:408] ip2 <- ip1
I0504 04:23:16.663904 12208 net.cpp:382] ip2 -> ip2
I0504 04:23:16.664059 12208 net.cpp:124] Setting up ip2
I0504 04:23:16.664067 12208 net.cpp:131] Top shape: 1000 10 (10000)
I0504 04:23:16.664070 12208 net.cpp:139] Memory required for data: 2261044000
I0504 04:23:16.664077 12208 layer_factory.hpp:77] Creating layer relu2
I0504 04:23:16.664083 12208 net.cpp:86] Creating Layer relu2
I0504 04:23:16.664086 12208 net.cpp:408] relu2 <- ip2
I0504 04:23:16.664090 12208 net.cpp:369] relu2 -> ip2 (in-place)
I0504 04:23:16.664273 12208 net.cpp:124] Setting up relu2
I0504 04:23:16.664280 12208 net.cpp:131] Top shape: 1000 10 (10000)
I0504 04:23:16.664283 12208 net.cpp:139] Memory required for data: 2261084000
I0504 04:23:16.664286 12208 layer_factory.hpp:77] Creating layer ip3
I0504 04:23:16.664293 12208 net.cpp:86] Creating Layer ip3
I0504 04:23:16.664295 12208 net.cpp:408] ip3 <- ip2
I0504 04:23:16.664300 12208 net.cpp:382] ip3 -> ip3
I0504 04:23:16.664399 12208 net.cpp:124] Setting up ip3
I0504 04:23:16.664405 12208 net.cpp:131] Top shape: 1000 10 (10000)
I0504 04:23:16.664423 12208 net.cpp:139] Memory required for data: 2261124000
I0504 04:23:16.664444 12208 layer_factory.hpp:77] Creating layer ip3_ip3_0_split
I0504 04:23:16.664449 12208 net.cpp:86] Creating Layer ip3_ip3_0_split
I0504 04:23:16.664453 12208 net.cpp:408] ip3_ip3_0_split <- ip3
I0504 04:23:16.664456 12208 net.cpp:382] ip3_ip3_0_split -> ip3_ip3_0_split_0
I0504 04:23:16.664463 12208 net.cpp:382] ip3_ip3_0_split -> ip3_ip3_0_split_1
I0504 04:23:16.664491 12208 net.cpp:124] Setting up ip3_ip3_0_split
I0504 04:23:16.664497 12208 net.cpp:131] Top shape: 1000 10 (10000)
I0504 04:23:16.664501 12208 net.cpp:131] Top shape: 1000 10 (10000)
I0504 04:23:16.664504 12208 net.cpp:139] Memory required for data: 2261204000
I0504 04:23:16.664506 12208 layer_factory.hpp:77] Creating layer accuracy
I0504 04:23:16.664512 12208 net.cpp:86] Creating Layer accuracy
I0504 04:23:16.664515 12208 net.cpp:408] accuracy <- ip3_ip3_0_split_0
I0504 04:23:16.664520 12208 net.cpp:408] accuracy <- label_cifar_1_split_0
I0504 04:23:16.664523 12208 net.cpp:382] accuracy -> accuracy
…
