…
I0504 09:39:56.922562 23962 net.cpp:296] The NetState phase (0) differed from the phase (1) specified by a rule in layer cifar
I0504 09:39:56.922580 23962 net.cpp:296] The NetState phase (0) differed from the phase (1) specified by a rule in layer accuracy
I0504 09:39:56.922682 23962 net.cpp:53] Initializing net from parameters: 
name: "CIFAR"
state {
  phase: TRAIN
  level: 0
  stage: ""
}
layer {
  name: "cifar"
  type: "Data"
  top: "data"
  top: "label"
  include {
    phase: TRAIN
  }
  transform_param {
    mean_file: "examples/cifar10/mean.binaryproto"
  }
  data_param {
    source: "examples/cifar10/cifar10_train_lmdb"
    batch_size: 111
    backend: LMDB
  }
}
layer {
  name: "conv0"
  type: "Convolution"
  bottom: "data"
  top: "conv0"
  param {
    lr_mult: 1
  }
  param {
    lr_mult: 2
  }
  convolution_param {
    num_output: 24
    pad: 2
    kernel_size: 5
    stride: 1
    weight_filler {
      type: "gaussian"
      std: 0.01
    }
    bias_filler {
      type: "constant"
    }
  }
}
layer {
  name: "Sigmoid0"
  type: "Sigmoid"
  bottom: "conv0"
  top: "Sigmoid0"
}
layer {
  name: "pool0"
  type: "Pooling"
  bottom: "Sigmoid0"
  top: "pool0"
  pooling_param {
    pool: AVE
    kernel_size: 3
    stride: 2
  }
}
layer {
  name: "conv1"
  type: "Convolution"
  bottom: "pool0"
  top: "conv1"
  param {
    lr_mult: 1
  }
  param {
    lr_mult: 2
  }
  convolution_param {
    num_output: 72
    pad: 2
    kernel_size: 3
    stride: 1
    weight_filler {
      type: "gaussian"
      std: 0.01
    }
    bias_filler {
      type: "constant"
    }
  }
}
layer {
  name: "Sigmoid1"
  type: "Sigmoid"
  bottom: "conv1"
  top: "Sigmoid1"
}
layer {
  name: "pool1"
  type: "Pooling"
  bottom: "Sigmoid1"
  top: "pool1"
  pooling_param {
    pool: AVE
    kernel_size: 3
    stride: 2
  }
}
layer {
  name: "ip1"
  type: "InnerProduct"
  bottom: "pool1"
  top: "ip1"
  param {
    lr_mult: 1
  }
  param {
    lr_mult: 2
  }
  inner_product_param {
    num_output: 180
    weight_filler {
      type: "gaussian"
      std: 0.01
    }
    bias_filler {
      type: "constant"
    }
  }
}
layer {
  name: "relu1"
  type: "ReLU"
  bottom: "ip1"
  top: "ip1"
}
layer {
  name: "ip2"
  type: "InnerProduct"
  bottom: "ip1"
  top: "ip2"
  param {
    lr_mult: 1
  }
  param {
    lr_mult: 2
  }
  inner_product_param {
    num_output: 10
    weight_filler {
      type: "gaussian"
      std: 0.01
    }
    bias_filler {
      type: "constant"
    }
  }
}
layer {
  name: "loss"
  type: "SoftmaxWithLoss"
  bottom: "ip2"
  bottom: "label"
  top: "loss"
}
I0504 09:39:56.922756 23962 layer_factory.hpp:77] Creating layer cifar
I0504 09:39:56.922854 23962 db_lmdb.cpp:35] Opened lmdb examples/cifar10/cifar10_train_lmdb
I0504 09:39:56.922883 23962 net.cpp:86] Creating Layer cifar
I0504 09:39:56.922895 23962 net.cpp:382] cifar -> data
I0504 09:39:56.922920 23962 net.cpp:382] cifar -> label
I0504 09:39:56.922936 23962 data_transformer.cpp:25] Loading mean file from: examples/cifar10/mean.binaryproto
I0504 09:39:56.925137 23962 data_layer.cpp:45] output data size: 111,3,32,32
I0504 09:39:56.933212 23962 net.cpp:124] Setting up cifar
I0504 09:39:56.933233 23962 net.cpp:131] Top shape: 111 3 32 32 (340992)
I0504 09:39:56.933238 23962 net.cpp:131] Top shape: 111 (111)
I0504 09:39:56.933241 23962 net.cpp:139] Memory required for data: 1364412
I0504 09:39:56.933249 23962 layer_factory.hpp:77] Creating layer conv0
I0504 09:39:56.933270 23962 net.cpp:86] Creating Layer conv0
I0504 09:39:56.933305 23962 net.cpp:408] conv0 <- data
I0504 09:39:56.933331 23962 net.cpp:382] conv0 -> conv0
I0504 09:39:57.194041 23962 net.cpp:124] Setting up conv0
I0504 09:39:57.194066 23962 net.cpp:131] Top shape: 111 24 32 32 (2727936)
I0504 09:39:57.194069 23962 net.cpp:139] Memory required for data: 12276156
I0504 09:39:57.194083 23962 layer_factory.hpp:77] Creating layer Sigmoid0
I0504 09:39:57.194095 23962 net.cpp:86] Creating Layer Sigmoid0
I0504 09:39:57.194099 23962 net.cpp:408] Sigmoid0 <- conv0
I0504 09:39:57.194104 23962 net.cpp:382] Sigmoid0 -> Sigmoid0
I0504 09:39:57.194283 23962 net.cpp:124] Setting up Sigmoid0
I0504 09:39:57.194291 23962 net.cpp:131] Top shape: 111 24 32 32 (2727936)
I0504 09:39:57.194295 23962 net.cpp:139] Memory required for data: 23187900
I0504 09:39:57.194298 23962 layer_factory.hpp:77] Creating layer pool0
I0504 09:39:57.194304 23962 net.cpp:86] Creating Layer pool0
I0504 09:39:57.194308 23962 net.cpp:408] pool0 <- Sigmoid0
I0504 09:39:57.194313 23962 net.cpp:382] pool0 -> pool0
I0504 09:39:57.195008 23962 net.cpp:124] Setting up pool0
I0504 09:39:57.195019 23962 net.cpp:131] Top shape: 111 24 16 16 (681984)
I0504 09:39:57.195022 23962 net.cpp:139] Memory required for data: 25915836
I0504 09:39:57.195026 23962 layer_factory.hpp:77] Creating layer conv1
I0504 09:39:57.195037 23962 net.cpp:86] Creating Layer conv1
I0504 09:39:57.195040 23962 net.cpp:408] conv1 <- pool0
I0504 09:39:57.195045 23962 net.cpp:382] conv1 -> conv1
I0504 09:39:57.197989 23962 net.cpp:124] Setting up conv1
I0504 09:39:57.198019 23962 net.cpp:131] Top shape: 111 72 18 18 (2589408)
I0504 09:39:57.198022 23962 net.cpp:139] Memory required for data: 36273468
I0504 09:39:57.198030 23962 layer_factory.hpp:77] Creating layer Sigmoid1
I0504 09:39:57.198036 23962 net.cpp:86] Creating Layer Sigmoid1
I0504 09:39:57.198040 23962 net.cpp:408] Sigmoid1 <- conv1
I0504 09:39:57.198045 23962 net.cpp:382] Sigmoid1 -> Sigmoid1
I0504 09:39:57.198222 23962 net.cpp:124] Setting up Sigmoid1
I0504 09:39:57.198232 23962 net.cpp:131] Top shape: 111 72 18 18 (2589408)
I0504 09:39:57.198235 23962 net.cpp:139] Memory required for data: 46631100
I0504 09:39:57.198238 23962 layer_factory.hpp:77] Creating layer pool1
I0504 09:39:57.198245 23962 net.cpp:86] Creating Layer pool1
I0504 09:39:57.198247 23962 net.cpp:408] pool1 <- Sigmoid1
I0504 09:39:57.198251 23962 net.cpp:382] pool1 -> pool1
I0504 09:39:57.198415 23962 net.cpp:124] Setting up pool1
I0504 09:39:57.198423 23962 net.cpp:131] Top shape: 111 72 9 9 (647352)
I0504 09:39:57.198426 23962 net.cpp:139] Memory required for data: 49220508
I0504 09:39:57.198428 23962 layer_factory.hpp:77] Creating layer ip1
I0504 09:39:57.198436 23962 net.cpp:86] Creating Layer ip1
I0504 09:39:57.198438 23962 net.cpp:408] ip1 <- pool1
I0504 09:39:57.198442 23962 net.cpp:382] ip1 -> ip1
I0504 09:39:57.225335 23962 net.cpp:124] Setting up ip1
I0504 09:39:57.225347 23962 net.cpp:131] Top shape: 111 180 (19980)
I0504 09:39:57.225368 23962 net.cpp:139] Memory required for data: 49300428
I0504 09:39:57.225374 23962 layer_factory.hpp:77] Creating layer relu1
I0504 09:39:57.225381 23962 net.cpp:86] Creating Layer relu1
I0504 09:39:57.225384 23962 net.cpp:408] relu1 <- ip1
I0504 09:39:57.225389 23962 net.cpp:369] relu1 -> ip1 (in-place)
I0504 09:39:57.225577 23962 net.cpp:124] Setting up relu1
I0504 09:39:57.225600 23962 net.cpp:131] Top shape: 111 180 (19980)
I0504 09:39:57.225605 23962 net.cpp:139] Memory required for data: 49380348
I0504 09:39:57.225606 23962 layer_factory.hpp:77] Creating layer ip2
I0504 09:39:57.225613 23962 net.cpp:86] Creating Layer ip2
I0504 09:39:57.225616 23962 net.cpp:408] ip2 <- ip1
I0504 09:39:57.225620 23962 net.cpp:382] ip2 -> ip2
I0504 09:39:57.225764 23962 net.cpp:124] Setting up ip2
I0504 09:39:57.225771 23962 net.cpp:131] Top shape: 111 10 (1110)
I0504 09:39:57.225775 23962 net.cpp:139] Memory required for data: 49384788
I0504 09:39:57.225780 23962 layer_factory.hpp:77] Creating layer loss
I0504 09:39:57.225785 23962 net.cpp:86] Creating Layer loss
I0504 09:39:57.225801 23962 net.cpp:408] loss <- ip2
I0504 09:39:57.225805 23962 net.cpp:408] loss <- label
I0504 09:39:57.225826 23962 net.cpp:382] loss -> loss
I0504 09:39:57.225841 23962 layer_factory.hpp:77] Creating layer loss
…
I0504 09:39:57.227044 23962 solver.cpp:173] Creating test net (#0) specified by net file: ECE595/cifar/train_test/var_everything_tiny/cifar_train_test_122.prototxt
I0504 09:39:57.227069 23962 net.cpp:296] The NetState phase (1) differed from the phase (0) specified by a rule in layer cifar
I0504 09:39:57.227154 23962 net.cpp:53] Initializing net from parameters: 
name: "CIFAR"
state {
  phase: TEST
}
layer {
  name: "cifar"
  type: "Data"
  top: "data"
  top: "label"
  include {
    phase: TEST
  }
  transform_param {
    mean_file: "examples/cifar10/mean.binaryproto"
  }
  data_param {
    source: "examples/cifar10/cifar10_test_lmdb"
    batch_size: 1000
    backend: LMDB
  }
}
layer {
  name: "conv0"
  type: "Convolution"
  bottom: "data"
  top: "conv0"
  param {
    lr_mult: 1
  }
  param {
    lr_mult: 2
  }
  convolution_param {
    num_output: 24
    pad: 2
    kernel_size: 5
    stride: 1
    weight_filler {
      type: "gaussian"
      std: 0.01
    }
    bias_filler {
      type: "constant"
    }
  }
}
layer {
  name: "Sigmoid0"
  type: "Sigmoid"
  bottom: "conv0"
  top: "Sigmoid0"
}
layer {
  name: "pool0"
  type: "Pooling"
  bottom: "Sigmoid0"
  top: "pool0"
  pooling_param {
    pool: AVE
    kernel_size: 3
    stride: 2
  }
}
layer {
  name: "conv1"
  type: "Convolution"
  bottom: "pool0"
  top: "conv1"
  param {
    lr_mult: 1
  }
  param {
    lr_mult: 2
  }
  convolution_param {
    num_output: 72
    pad: 2
    kernel_size: 3
    stride: 1
    weight_filler {
      type: "gaussian"
      std: 0.01
    }
    bias_filler {
      type: "constant"
    }
  }
}
layer {
  name: "Sigmoid1"
  type: "Sigmoid"
  bottom: "conv1"
  top: "Sigmoid1"
}
layer {
  name: "pool1"
  type: "Pooling"
  bottom: "Sigmoid1"
  top: "pool1"
  pooling_param {
    pool: AVE
    kernel_size: 3
    stride: 2
  }
}
layer {
  name: "ip1"
  type: "InnerProduct"
  bottom: "pool1"
  top: "ip1"
  param {
    lr_mult: 1
  }
  param {
    lr_mult: 2
  }
  inner_product_param {
    num_output: 180
    weight_filler {
      type: "gaussian"
      std: 0.01
    }
    bias_filler {
      type: "constant"
    }
  }
}
layer {
  name: "relu1"
  type: "ReLU"
  bottom: "ip1"
  top: "ip1"
}
layer {
  name: "ip2"
  type: "InnerProduct"
  bottom: "ip1"
  top: "ip2"
  param {
    lr_mult: 1
  }
  param {
    lr_mult: 2
  }
  inner_product_param {
    num_output: 10
    weight_filler {
      type: "gaussian"
      std: 0.01
    }
    bias_filler {
      type: "constant"
    }
  }
}
layer {
  name: "accuracy"
  type: "Accuracy"
  bottom: "ip2"
  bottom: "label"
  top: "accuracy"
  include {
    phase: TEST
  }
}
layer {
  name: "loss"
  type: "SoftmaxWithLoss"
  bottom: "ip2"
  bottom: "label"
  top: "loss"
}
I0504 09:39:57.227224 23962 layer_factory.hpp:77] Creating layer cifar
I0504 09:39:57.227267 23962 db_lmdb.cpp:35] Opened lmdb examples/cifar10/cifar10_test_lmdb
I0504 09:39:57.227278 23962 net.cpp:86] Creating Layer cifar
I0504 09:39:57.227283 23962 net.cpp:382] cifar -> data
I0504 09:39:57.227289 23962 net.cpp:382] cifar -> label
I0504 09:39:57.227296 23962 data_transformer.cpp:25] Loading mean file from: examples/cifar10/mean.binaryproto
I0504 09:39:57.227449 23962 data_layer.cpp:45] output data size: 1000,3,32,32
I0504 09:39:57.248649 23962 net.cpp:124] Setting up cifar
I0504 09:39:57.248674 23962 net.cpp:131] Top shape: 1000 3 32 32 (3072000)
I0504 09:39:57.248680 23962 net.cpp:131] Top shape: 1000 (1000)
I0504 09:39:57.248684 23962 net.cpp:139] Memory required for data: 12292000
I0504 09:39:57.248689 23962 layer_factory.hpp:77] Creating layer label_cifar_1_split
I0504 09:39:57.248700 23962 net.cpp:86] Creating Layer label_cifar_1_split
I0504 09:39:57.248704 23962 net.cpp:408] label_cifar_1_split <- label
I0504 09:39:57.248725 23962 net.cpp:382] label_cifar_1_split -> label_cifar_1_split_0
I0504 09:39:57.248734 23962 net.cpp:382] label_cifar_1_split -> label_cifar_1_split_1
I0504 09:39:57.248878 23962 net.cpp:124] Setting up label_cifar_1_split
I0504 09:39:57.248903 23962 net.cpp:131] Top shape: 1000 (1000)
I0504 09:39:57.248906 23962 net.cpp:131] Top shape: 1000 (1000)
I0504 09:39:57.248919 23962 net.cpp:139] Memory required for data: 12300000
I0504 09:39:57.248922 23962 layer_factory.hpp:77] Creating layer conv0
I0504 09:39:57.248935 23962 net.cpp:86] Creating Layer conv0
I0504 09:39:57.248939 23962 net.cpp:408] conv0 <- data
I0504 09:39:57.248944 23962 net.cpp:382] conv0 -> conv0
I0504 09:39:57.249897 23962 net.cpp:124] Setting up conv0
I0504 09:39:57.249908 23962 net.cpp:131] Top shape: 1000 24 32 32 (24576000)
I0504 09:39:57.249912 23962 net.cpp:139] Memory required for data: 110604000
I0504 09:39:57.249922 23962 layer_factory.hpp:77] Creating layer Sigmoid0
I0504 09:39:57.249943 23962 net.cpp:86] Creating Layer Sigmoid0
I0504 09:39:57.249945 23962 net.cpp:408] Sigmoid0 <- conv0
I0504 09:39:57.249951 23962 net.cpp:382] Sigmoid0 -> Sigmoid0
I0504 09:39:57.250797 23962 net.cpp:124] Setting up Sigmoid0
I0504 09:39:57.250808 23962 net.cpp:131] Top shape: 1000 24 32 32 (24576000)
I0504 09:39:57.250811 23962 net.cpp:139] Memory required for data: 208908000
I0504 09:39:57.250814 23962 layer_factory.hpp:77] Creating layer pool0
I0504 09:39:57.250823 23962 net.cpp:86] Creating Layer pool0
I0504 09:39:57.250841 23962 net.cpp:408] pool0 <- Sigmoid0
I0504 09:39:57.250846 23962 net.cpp:382] pool0 -> pool0
I0504 09:39:57.252046 23962 net.cpp:124] Setting up pool0
I0504 09:39:57.252058 23962 net.cpp:131] Top shape: 1000 24 16 16 (6144000)
I0504 09:39:57.252060 23962 net.cpp:139] Memory required for data: 233484000
I0504 09:39:57.252063 23962 layer_factory.hpp:77] Creating layer conv1
I0504 09:39:57.252074 23962 net.cpp:86] Creating Layer conv1
I0504 09:39:57.252076 23962 net.cpp:408] conv1 <- pool0
I0504 09:39:57.252089 23962 net.cpp:382] conv1 -> conv1
I0504 09:39:57.253795 23962 net.cpp:124] Setting up conv1
I0504 09:39:57.253808 23962 net.cpp:131] Top shape: 1000 72 18 18 (23328000)
I0504 09:39:57.253811 23962 net.cpp:139] Memory required for data: 326796000
I0504 09:39:57.253820 23962 layer_factory.hpp:77] Creating layer Sigmoid1
I0504 09:39:57.253841 23962 net.cpp:86] Creating Layer Sigmoid1
I0504 09:39:57.253845 23962 net.cpp:408] Sigmoid1 <- conv1
I0504 09:39:57.253851 23962 net.cpp:382] Sigmoid1 -> Sigmoid1
I0504 09:39:57.254022 23962 net.cpp:124] Setting up Sigmoid1
I0504 09:39:57.254046 23962 net.cpp:131] Top shape: 1000 72 18 18 (23328000)
I0504 09:39:57.254050 23962 net.cpp:139] Memory required for data: 420108000
I0504 09:39:57.254053 23962 layer_factory.hpp:77] Creating layer pool1
I0504 09:39:57.254058 23962 net.cpp:86] Creating Layer pool1
I0504 09:39:57.254061 23962 net.cpp:408] pool1 <- Sigmoid1
I0504 09:39:57.254078 23962 net.cpp:382] pool1 -> pool1
I0504 09:39:57.254242 23962 net.cpp:124] Setting up pool1
I0504 09:39:57.254251 23962 net.cpp:131] Top shape: 1000 72 9 9 (5832000)
I0504 09:39:57.254254 23962 net.cpp:139] Memory required for data: 443436000
I0504 09:39:57.254257 23962 layer_factory.hpp:77] Creating layer ip1
I0504 09:39:57.254266 23962 net.cpp:86] Creating Layer ip1
I0504 09:39:57.254268 23962 net.cpp:408] ip1 <- pool1
I0504 09:39:57.254276 23962 net.cpp:382] ip1 -> ip1
I0504 09:39:57.282634 23962 net.cpp:124] Setting up ip1
I0504 09:39:57.282650 23962 net.cpp:131] Top shape: 1000 180 (180000)
I0504 09:39:57.282655 23962 net.cpp:139] Memory required for data: 444156000
I0504 09:39:57.282662 23962 layer_factory.hpp:77] Creating layer relu1
I0504 09:39:57.282670 23962 net.cpp:86] Creating Layer relu1
I0504 09:39:57.282673 23962 net.cpp:408] relu1 <- ip1
I0504 09:39:57.282694 23962 net.cpp:369] relu1 -> ip1 (in-place)
I0504 09:39:57.283517 23962 net.cpp:124] Setting up relu1
I0504 09:39:57.283529 23962 net.cpp:131] Top shape: 1000 180 (180000)
I0504 09:39:57.283532 23962 net.cpp:139] Memory required for data: 444876000
I0504 09:39:57.283535 23962 layer_factory.hpp:77] Creating layer ip2
I0504 09:39:57.283566 23962 net.cpp:86] Creating Layer ip2
I0504 09:39:57.283570 23962 net.cpp:408] ip2 <- ip1
I0504 09:39:57.283576 23962 net.cpp:382] ip2 -> ip2
I0504 09:39:57.283731 23962 net.cpp:124] Setting up ip2
I0504 09:39:57.283740 23962 net.cpp:131] Top shape: 1000 10 (10000)
I0504 09:39:57.283741 23962 net.cpp:139] Memory required for data: 444916000
I0504 09:39:57.283747 23962 layer_factory.hpp:77] Creating layer ip2_ip2_0_split
I0504 09:39:57.283752 23962 net.cpp:86] Creating Layer ip2_ip2_0_split
I0504 09:39:57.283756 23962 net.cpp:408] ip2_ip2_0_split <- ip2
I0504 09:39:57.283762 23962 net.cpp:382] ip2_ip2_0_split -> ip2_ip2_0_split_0
I0504 09:39:57.283767 23962 net.cpp:382] ip2_ip2_0_split -> ip2_ip2_0_split_1
I0504 09:39:57.283798 23962 net.cpp:124] Setting up ip2_ip2_0_split
I0504 09:39:57.283803 23962 net.cpp:131] Top shape: 1000 10 (10000)
I0504 09:39:57.283807 23962 net.cpp:131] Top shape: 1000 10 (10000)
I0504 09:39:57.283809 23962 net.cpp:139] Memory required for data: 444996000
I0504 09:39:57.283812 23962 layer_factory.hpp:77] Creating layer accuracy
I0504 09:39:57.283821 23962 net.cpp:86] Creating Layer accuracy
I0504 09:39:57.283824 23962 net.cpp:408] accuracy <- ip2_ip2_0_split_0
I0504 09:39:57.283828 23962 net.cpp:408] accuracy <- label_cifar_1_split_0
I0504 09:39:57.283833 23962 net.cpp:382] accuracy -> accuracy
…
