…
I0504 10:39:06.554570 25710 net.cpp:296] The NetState phase (0) differed from the phase (1) specified by a rule in layer cifar
I0504 10:39:06.554584 25710 net.cpp:296] The NetState phase (0) differed from the phase (1) specified by a rule in layer accuracy
I0504 10:39:06.554694 25710 net.cpp:53] Initializing net from parameters: 
name: "CIFAR"
state {
  phase: TRAIN
  level: 0
  stage: ""
}
layer {
  name: "cifar"
  type: "Data"
  top: "data"
  top: "label"
  include {
    phase: TRAIN
  }
  transform_param {
    mean_file: "examples/cifar10/mean.binaryproto"
  }
  data_param {
    source: "examples/cifar10/cifar10_train_lmdb"
    batch_size: 111
    backend: LMDB
  }
}
layer {
  name: "conv0"
  type: "Convolution"
  bottom: "data"
  top: "conv0"
  param {
    lr_mult: 1
  }
  param {
    lr_mult: 2
  }
  convolution_param {
    num_output: 24
    pad: 2
    kernel_size: 5
    stride: 1
    weight_filler {
      type: "gaussian"
      std: 0.01
    }
    bias_filler {
      type: "constant"
    }
  }
}
layer {
  name: "Sigmoid0"
  type: "Sigmoid"
  bottom: "conv0"
  top: "Sigmoid0"
}
layer {
  name: "pool0"
  type: "Pooling"
  bottom: "Sigmoid0"
  top: "pool0"
  pooling_param {
    pool: AVE
    kernel_size: 3
    stride: 2
  }
}
layer {
  name: "conv1"
  type: "Convolution"
  bottom: "pool0"
  top: "conv1"
  param {
    lr_mult: 1
  }
  param {
    lr_mult: 2
  }
  convolution_param {
    num_output: 72
    pad: 2
    kernel_size: 5
    stride: 1
    weight_filler {
      type: "gaussian"
      std: 0.01
    }
    bias_filler {
      type: "constant"
    }
  }
}
layer {
  name: "Sigmoid1"
  type: "Sigmoid"
  bottom: "conv1"
  top: "Sigmoid1"
}
layer {
  name: "pool1"
  type: "Pooling"
  bottom: "Sigmoid1"
  top: "pool1"
  pooling_param {
    pool: AVE
    kernel_size: 3
    stride: 2
  }
}
layer {
  name: "ip1"
  type: "InnerProduct"
  bottom: "pool1"
  top: "ip1"
  param {
    lr_mult: 1
  }
  param {
    lr_mult: 2
  }
  inner_product_param {
    num_output: 10
    weight_filler {
      type: "gaussian"
      std: 0.01
    }
    bias_filler {
      type: "constant"
    }
  }
}
layer {
  name: "relu1"
  type: "ReLU"
  bottom: "ip1"
  top: "ip1"
}
layer {
  name: "ip2"
  type: "InnerProduct"
  bottom: "ip1"
  top: "ip2"
  param {
    lr_mult: 1
  }
  param {
    lr_mult: 2
  }
  inner_product_param {
    num_output: 180
    weight_filler {
      type: "gaussian"
      std: 0.01
    }
    bias_filler {
      type: "constant"
    }
  }
}
layer {
  name: "relu2"
  type: "ReLU"
  bottom: "ip2"
  top: "ip2"
}
layer {
  name: "ip3"
  type: "InnerProduct"
  bottom: "ip2"
  top: "ip3"
  param {
    lr_mult: 1
  }
  param {
    lr_mult: 2
  }
  inner_product_param {
    num_output: 10
    weight_filler {
      type: "gaussian"
      std: 0.01
    }
    bias_filler {
      type: "constant"
    }
  }
}
layer {
  name: "loss"
  type: "SoftmaxWithLoss"
  bottom: "ip3"
  bottom: "label"
  top: "loss"
}
I0504 10:39:06.554754 25710 layer_factory.hpp:77] Creating layer cifar
I0504 10:39:06.554832 25710 db_lmdb.cpp:35] Opened lmdb examples/cifar10/cifar10_train_lmdb
I0504 10:39:06.554853 25710 net.cpp:86] Creating Layer cifar
I0504 10:39:06.554859 25710 net.cpp:382] cifar -> data
I0504 10:39:06.554877 25710 net.cpp:382] cifar -> label
I0504 10:39:06.554886 25710 data_transformer.cpp:25] Loading mean file from: examples/cifar10/mean.binaryproto
I0504 10:39:06.556746 25710 data_layer.cpp:45] output data size: 111,3,32,32
I0504 10:39:06.563205 25710 net.cpp:124] Setting up cifar
I0504 10:39:06.563220 25710 net.cpp:131] Top shape: 111 3 32 32 (340992)
I0504 10:39:06.563241 25710 net.cpp:131] Top shape: 111 (111)
I0504 10:39:06.563243 25710 net.cpp:139] Memory required for data: 1364412
I0504 10:39:06.563248 25710 layer_factory.hpp:77] Creating layer conv0
I0504 10:39:06.563261 25710 net.cpp:86] Creating Layer conv0
I0504 10:39:06.563266 25710 net.cpp:408] conv0 <- data
I0504 10:39:06.563274 25710 net.cpp:382] conv0 -> conv0
I0504 10:39:06.800340 25710 net.cpp:124] Setting up conv0
I0504 10:39:06.800397 25710 net.cpp:131] Top shape: 111 24 32 32 (2727936)
I0504 10:39:06.800401 25710 net.cpp:139] Memory required for data: 12276156
I0504 10:39:06.800416 25710 layer_factory.hpp:77] Creating layer Sigmoid0
I0504 10:39:06.800434 25710 net.cpp:86] Creating Layer Sigmoid0
I0504 10:39:06.800438 25710 net.cpp:408] Sigmoid0 <- conv0
I0504 10:39:06.800459 25710 net.cpp:382] Sigmoid0 -> Sigmoid0
I0504 10:39:06.800644 25710 net.cpp:124] Setting up Sigmoid0
I0504 10:39:06.800653 25710 net.cpp:131] Top shape: 111 24 32 32 (2727936)
I0504 10:39:06.800657 25710 net.cpp:139] Memory required for data: 23187900
I0504 10:39:06.800659 25710 layer_factory.hpp:77] Creating layer pool0
I0504 10:39:06.800667 25710 net.cpp:86] Creating Layer pool0
I0504 10:39:06.800669 25710 net.cpp:408] pool0 <- Sigmoid0
I0504 10:39:06.800688 25710 net.cpp:382] pool0 -> pool0
I0504 10:39:06.801429 25710 net.cpp:124] Setting up pool0
I0504 10:39:06.801440 25710 net.cpp:131] Top shape: 111 24 16 16 (681984)
I0504 10:39:06.801445 25710 net.cpp:139] Memory required for data: 25915836
I0504 10:39:06.801447 25710 layer_factory.hpp:77] Creating layer conv1
I0504 10:39:06.801473 25710 net.cpp:86] Creating Layer conv1
I0504 10:39:06.801476 25710 net.cpp:408] conv1 <- pool0
I0504 10:39:06.801483 25710 net.cpp:382] conv1 -> conv1
I0504 10:39:06.805095 25710 net.cpp:124] Setting up conv1
I0504 10:39:06.805109 25710 net.cpp:131] Top shape: 111 72 16 16 (2045952)
I0504 10:39:06.805112 25710 net.cpp:139] Memory required for data: 34099644
I0504 10:39:06.805120 25710 layer_factory.hpp:77] Creating layer Sigmoid1
I0504 10:39:06.805126 25710 net.cpp:86] Creating Layer Sigmoid1
I0504 10:39:06.805145 25710 net.cpp:408] Sigmoid1 <- conv1
I0504 10:39:06.805150 25710 net.cpp:382] Sigmoid1 -> Sigmoid1
I0504 10:39:06.805342 25710 net.cpp:124] Setting up Sigmoid1
I0504 10:39:06.805369 25710 net.cpp:131] Top shape: 111 72 16 16 (2045952)
I0504 10:39:06.805373 25710 net.cpp:139] Memory required for data: 42283452
I0504 10:39:06.805377 25710 layer_factory.hpp:77] Creating layer pool1
I0504 10:39:06.805383 25710 net.cpp:86] Creating Layer pool1
I0504 10:39:06.805387 25710 net.cpp:408] pool1 <- Sigmoid1
I0504 10:39:06.805390 25710 net.cpp:382] pool1 -> pool1
I0504 10:39:06.805591 25710 net.cpp:124] Setting up pool1
I0504 10:39:06.805603 25710 net.cpp:131] Top shape: 111 72 8 8 (511488)
I0504 10:39:06.805605 25710 net.cpp:139] Memory required for data: 44329404
I0504 10:39:06.805608 25710 layer_factory.hpp:77] Creating layer ip1
I0504 10:39:06.805615 25710 net.cpp:86] Creating Layer ip1
I0504 10:39:06.805619 25710 net.cpp:408] ip1 <- pool1
I0504 10:39:06.805624 25710 net.cpp:382] ip1 -> ip1
I0504 10:39:06.806973 25710 net.cpp:124] Setting up ip1
I0504 10:39:06.806982 25710 net.cpp:131] Top shape: 111 10 (1110)
I0504 10:39:06.806999 25710 net.cpp:139] Memory required for data: 44333844
I0504 10:39:06.807006 25710 layer_factory.hpp:77] Creating layer relu1
I0504 10:39:06.807013 25710 net.cpp:86] Creating Layer relu1
I0504 10:39:06.807015 25710 net.cpp:408] relu1 <- ip1
I0504 10:39:06.807020 25710 net.cpp:369] relu1 -> ip1 (in-place)
I0504 10:39:06.807186 25710 net.cpp:124] Setting up relu1
I0504 10:39:06.807194 25710 net.cpp:131] Top shape: 111 10 (1110)
I0504 10:39:06.807198 25710 net.cpp:139] Memory required for data: 44338284
I0504 10:39:06.807200 25710 layer_factory.hpp:77] Creating layer ip2
I0504 10:39:06.807206 25710 net.cpp:86] Creating Layer ip2
I0504 10:39:06.807209 25710 net.cpp:408] ip2 <- ip1
I0504 10:39:06.807229 25710 net.cpp:382] ip2 -> ip2
I0504 10:39:06.807386 25710 net.cpp:124] Setting up ip2
I0504 10:39:06.807394 25710 net.cpp:131] Top shape: 111 180 (19980)
I0504 10:39:06.807396 25710 net.cpp:139] Memory required for data: 44418204
I0504 10:39:06.807401 25710 layer_factory.hpp:77] Creating layer relu2
I0504 10:39:06.807406 25710 net.cpp:86] Creating Layer relu2
I0504 10:39:06.807409 25710 net.cpp:408] relu2 <- ip2
I0504 10:39:06.807413 25710 net.cpp:369] relu2 -> ip2 (in-place)
I0504 10:39:06.808099 25710 net.cpp:124] Setting up relu2
I0504 10:39:06.808110 25710 net.cpp:131] Top shape: 111 180 (19980)
I0504 10:39:06.808130 25710 net.cpp:139] Memory required for data: 44498124
I0504 10:39:06.808132 25710 layer_factory.hpp:77] Creating layer ip3
I0504 10:39:06.808140 25710 net.cpp:86] Creating Layer ip3
I0504 10:39:06.808143 25710 net.cpp:408] ip3 <- ip2
I0504 10:39:06.808148 25710 net.cpp:382] ip3 -> ip3
I0504 10:39:06.808312 25710 net.cpp:124] Setting up ip3
I0504 10:39:06.808320 25710 net.cpp:131] Top shape: 111 10 (1110)
I0504 10:39:06.808322 25710 net.cpp:139] Memory required for data: 44502564
I0504 10:39:06.808331 25710 layer_factory.hpp:77] Creating layer loss
I0504 10:39:06.808336 25710 net.cpp:86] Creating Layer loss
I0504 10:39:06.808339 25710 net.cpp:408] loss <- ip3
I0504 10:39:06.808357 25710 net.cpp:408] loss <- label
I0504 10:39:06.808362 25710 net.cpp:382] loss -> loss
I0504 10:39:06.808377 25710 layer_factory.hpp:77] Creating layer loss
…
I0504 10:39:06.809062 25710 solver.cpp:173] Creating test net (#0) specified by net file: ECE595/cifar/train_test/var_everything_tiny/cifar_train_test_137.prototxt
I0504 10:39:06.809106 25710 net.cpp:296] The NetState phase (1) differed from the phase (0) specified by a rule in layer cifar
I0504 10:39:06.809249 25710 net.cpp:53] Initializing net from parameters: 
name: "CIFAR"
state {
  phase: TEST
}
layer {
  name: "cifar"
  type: "Data"
  top: "data"
  top: "label"
  include {
    phase: TEST
  }
  transform_param {
    mean_file: "examples/cifar10/mean.binaryproto"
  }
  data_param {
    source: "examples/cifar10/cifar10_test_lmdb"
    batch_size: 1000
    backend: LMDB
  }
}
layer {
  name: "conv0"
  type: "Convolution"
  bottom: "data"
  top: "conv0"
  param {
    lr_mult: 1
  }
  param {
    lr_mult: 2
  }
  convolution_param {
    num_output: 24
    pad: 2
    kernel_size: 5
    stride: 1
    weight_filler {
      type: "gaussian"
      std: 0.01
    }
    bias_filler {
      type: "constant"
    }
  }
}
layer {
  name: "Sigmoid0"
  type: "Sigmoid"
  bottom: "conv0"
  top: "Sigmoid0"
}
layer {
  name: "pool0"
  type: "Pooling"
  bottom: "Sigmoid0"
  top: "pool0"
  pooling_param {
    pool: AVE
    kernel_size: 3
    stride: 2
  }
}
layer {
  name: "conv1"
  type: "Convolution"
  bottom: "pool0"
  top: "conv1"
  param {
    lr_mult: 1
  }
  param {
    lr_mult: 2
  }
  convolution_param {
    num_output: 72
    pad: 2
    kernel_size: 5
    stride: 1
    weight_filler {
      type: "gaussian"
      std: 0.01
    }
    bias_filler {
      type: "constant"
    }
  }
}
layer {
  name: "Sigmoid1"
  type: "Sigmoid"
  bottom: "conv1"
  top: "Sigmoid1"
}
layer {
  name: "pool1"
  type: "Pooling"
  bottom: "Sigmoid1"
  top: "pool1"
  pooling_param {
    pool: AVE
    kernel_size: 3
    stride: 2
  }
}
layer {
  name: "ip1"
  type: "InnerProduct"
  bottom: "pool1"
  top: "ip1"
  param {
    lr_mult: 1
  }
  param {
    lr_mult: 2
  }
  inner_product_param {
    num_output: 10
    weight_filler {
      type: "gaussian"
      std: 0.01
    }
    bias_filler {
      type: "constant"
    }
  }
}
layer {
  name: "relu1"
  type: "ReLU"
  bottom: "ip1"
  top: "ip1"
}
layer {
  name: "ip2"
  type: "InnerProduct"
  bottom: "ip1"
  top: "ip2"
  param {
    lr_mult: 1
  }
  param {
    lr_mult: 2
  }
  inner_product_param {
    num_output: 180
    weight_filler {
      type: "gaussian"
      std: 0.01
    }
    bias_filler {
      type: "constant"
    }
  }
}
layer {
  name: "relu2"
  type: "ReLU"
  bottom: "ip2"
  top: "ip2"
}
layer {
  name: "ip3"
  type: "InnerProduct"
  bottom: "ip2"
  top: "ip3"
  param {
    lr_mult: 1
  }
  param {
    lr_mult: 2
  }
  inner_product_param {
    num_output: 10
    weight_filler {
      type: "gaussian"
      std: 0.01
    }
    bias_filler {
      type: "constant"
    }
  }
}
layer {
  name: "accuracy"
  type: "Accuracy"
  bottom: "ip3"
  bottom: "label"
  top: "accuracy"
  include {
    phase: TEST
  }
}
layer {
  name: "loss"
  type: "SoftmaxWithLoss"
  bottom: "ip3"
  bottom: "label"
  top: "loss"
}
I0504 10:39:06.809332 25710 layer_factory.hpp:77] Creating layer cifar
I0504 10:39:06.809377 25710 db_lmdb.cpp:35] Opened lmdb examples/cifar10/cifar10_test_lmdb
I0504 10:39:06.809391 25710 net.cpp:86] Creating Layer cifar
I0504 10:39:06.809394 25710 net.cpp:382] cifar -> data
I0504 10:39:06.809401 25710 net.cpp:382] cifar -> label
I0504 10:39:06.809408 25710 data_transformer.cpp:25] Loading mean file from: examples/cifar10/mean.binaryproto
I0504 10:39:06.809562 25710 data_layer.cpp:45] output data size: 1000,3,32,32
I0504 10:39:06.831431 25710 net.cpp:124] Setting up cifar
I0504 10:39:06.831472 25710 net.cpp:131] Top shape: 1000 3 32 32 (3072000)
I0504 10:39:06.831478 25710 net.cpp:131] Top shape: 1000 (1000)
I0504 10:39:06.831480 25710 net.cpp:139] Memory required for data: 12292000
I0504 10:39:06.831486 25710 layer_factory.hpp:77] Creating layer label_cifar_1_split
I0504 10:39:06.831503 25710 net.cpp:86] Creating Layer label_cifar_1_split
I0504 10:39:06.831507 25710 net.cpp:408] label_cifar_1_split <- label
I0504 10:39:06.831512 25710 net.cpp:382] label_cifar_1_split -> label_cifar_1_split_0
I0504 10:39:06.831522 25710 net.cpp:382] label_cifar_1_split -> label_cifar_1_split_1
I0504 10:39:06.831625 25710 net.cpp:124] Setting up label_cifar_1_split
I0504 10:39:06.831632 25710 net.cpp:131] Top shape: 1000 (1000)
I0504 10:39:06.831636 25710 net.cpp:131] Top shape: 1000 (1000)
I0504 10:39:06.831640 25710 net.cpp:139] Memory required for data: 12300000
I0504 10:39:06.831642 25710 layer_factory.hpp:77] Creating layer conv0
I0504 10:39:06.831655 25710 net.cpp:86] Creating Layer conv0
I0504 10:39:06.831657 25710 net.cpp:408] conv0 <- data
I0504 10:39:06.831663 25710 net.cpp:382] conv0 -> conv0
I0504 10:39:06.833366 25710 net.cpp:124] Setting up conv0
I0504 10:39:06.833396 25710 net.cpp:131] Top shape: 1000 24 32 32 (24576000)
I0504 10:39:06.833400 25710 net.cpp:139] Memory required for data: 110604000
I0504 10:39:06.833410 25710 layer_factory.hpp:77] Creating layer Sigmoid0
I0504 10:39:06.833417 25710 net.cpp:86] Creating Layer Sigmoid0
I0504 10:39:06.833420 25710 net.cpp:408] Sigmoid0 <- conv0
I0504 10:39:06.833425 25710 net.cpp:382] Sigmoid0 -> Sigmoid0
I0504 10:39:06.833726 25710 net.cpp:124] Setting up Sigmoid0
I0504 10:39:06.833747 25710 net.cpp:131] Top shape: 1000 24 32 32 (24576000)
I0504 10:39:06.833750 25710 net.cpp:139] Memory required for data: 208908000
I0504 10:39:06.833755 25710 layer_factory.hpp:77] Creating layer pool0
I0504 10:39:06.833763 25710 net.cpp:86] Creating Layer pool0
I0504 10:39:06.833766 25710 net.cpp:408] pool0 <- Sigmoid0
I0504 10:39:06.833771 25710 net.cpp:382] pool0 -> pool0
I0504 10:39:06.834956 25710 net.cpp:124] Setting up pool0
I0504 10:39:06.834966 25710 net.cpp:131] Top shape: 1000 24 16 16 (6144000)
I0504 10:39:06.834985 25710 net.cpp:139] Memory required for data: 233484000
I0504 10:39:06.834988 25710 layer_factory.hpp:77] Creating layer conv1
I0504 10:39:06.835000 25710 net.cpp:86] Creating Layer conv1
I0504 10:39:06.835002 25710 net.cpp:408] conv1 <- pool0
I0504 10:39:06.835007 25710 net.cpp:382] conv1 -> conv1
I0504 10:39:06.837460 25710 net.cpp:124] Setting up conv1
I0504 10:39:06.837487 25710 net.cpp:131] Top shape: 1000 72 16 16 (18432000)
I0504 10:39:06.837491 25710 net.cpp:139] Memory required for data: 307212000
I0504 10:39:06.837501 25710 layer_factory.hpp:77] Creating layer Sigmoid1
I0504 10:39:06.837507 25710 net.cpp:86] Creating Layer Sigmoid1
I0504 10:39:06.837509 25710 net.cpp:408] Sigmoid1 <- conv1
I0504 10:39:06.837515 25710 net.cpp:382] Sigmoid1 -> Sigmoid1
I0504 10:39:06.837713 25710 net.cpp:124] Setting up Sigmoid1
I0504 10:39:06.837723 25710 net.cpp:131] Top shape: 1000 72 16 16 (18432000)
I0504 10:39:06.837725 25710 net.cpp:139] Memory required for data: 380940000
I0504 10:39:06.837728 25710 layer_factory.hpp:77] Creating layer pool1
I0504 10:39:06.837733 25710 net.cpp:86] Creating Layer pool1
I0504 10:39:06.837736 25710 net.cpp:408] pool1 <- Sigmoid1
I0504 10:39:06.837741 25710 net.cpp:382] pool1 -> pool1
I0504 10:39:06.838495 25710 net.cpp:124] Setting up pool1
I0504 10:39:06.838505 25710 net.cpp:131] Top shape: 1000 72 8 8 (4608000)
I0504 10:39:06.838524 25710 net.cpp:139] Memory required for data: 399372000
I0504 10:39:06.838527 25710 layer_factory.hpp:77] Creating layer ip1
I0504 10:39:06.838537 25710 net.cpp:86] Creating Layer ip1
I0504 10:39:06.838541 25710 net.cpp:408] ip1 <- pool1
I0504 10:39:06.838546 25710 net.cpp:382] ip1 -> ip1
I0504 10:39:06.839885 25710 net.cpp:124] Setting up ip1
I0504 10:39:06.839892 25710 net.cpp:131] Top shape: 1000 10 (10000)
I0504 10:39:06.839910 25710 net.cpp:139] Memory required for data: 399412000
I0504 10:39:06.839918 25710 layer_factory.hpp:77] Creating layer relu1
I0504 10:39:06.839923 25710 net.cpp:86] Creating Layer relu1
I0504 10:39:06.839927 25710 net.cpp:408] relu1 <- ip1
I0504 10:39:06.839932 25710 net.cpp:369] relu1 -> ip1 (in-place)
I0504 10:39:06.840121 25710 net.cpp:124] Setting up relu1
I0504 10:39:06.840138 25710 net.cpp:131] Top shape: 1000 10 (10000)
I0504 10:39:06.840142 25710 net.cpp:139] Memory required for data: 399452000
I0504 10:39:06.840144 25710 layer_factory.hpp:77] Creating layer ip2
I0504 10:39:06.840152 25710 net.cpp:86] Creating Layer ip2
I0504 10:39:06.840154 25710 net.cpp:408] ip2 <- ip1
I0504 10:39:06.840158 25710 net.cpp:382] ip2 -> ip2
I0504 10:39:06.840303 25710 net.cpp:124] Setting up ip2
I0504 10:39:06.840311 25710 net.cpp:131] Top shape: 1000 180 (180000)
I0504 10:39:06.840313 25710 net.cpp:139] Memory required for data: 400172000
I0504 10:39:06.840318 25710 layer_factory.hpp:77] Creating layer relu2
I0504 10:39:06.840323 25710 net.cpp:86] Creating Layer relu2
I0504 10:39:06.840327 25710 net.cpp:408] relu2 <- ip2
I0504 10:39:06.840332 25710 net.cpp:369] relu2 -> ip2 (in-place)
I0504 10:39:06.840486 25710 net.cpp:124] Setting up relu2
I0504 10:39:06.840493 25710 net.cpp:131] Top shape: 1000 180 (180000)
I0504 10:39:06.840497 25710 net.cpp:139] Memory required for data: 400892000
I0504 10:39:06.840499 25710 layer_factory.hpp:77] Creating layer ip3
I0504 10:39:06.840515 25710 net.cpp:86] Creating Layer ip3
I0504 10:39:06.840518 25710 net.cpp:408] ip3 <- ip2
I0504 10:39:06.840523 25710 net.cpp:382] ip3 -> ip3
I0504 10:39:06.840669 25710 net.cpp:124] Setting up ip3
I0504 10:39:06.840682 25710 net.cpp:131] Top shape: 1000 10 (10000)
I0504 10:39:06.840695 25710 net.cpp:139] Memory required for data: 400932000
I0504 10:39:06.840704 25710 layer_factory.hpp:77] Creating layer ip3_ip3_0_split
I0504 10:39:06.840709 25710 net.cpp:86] Creating Layer ip3_ip3_0_split
I0504 10:39:06.840713 25710 net.cpp:408] ip3_ip3_0_split <- ip3
I0504 10:39:06.840716 25710 net.cpp:382] ip3_ip3_0_split -> ip3_ip3_0_split_0
I0504 10:39:06.840721 25710 net.cpp:382] ip3_ip3_0_split -> ip3_ip3_0_split_1
I0504 10:39:06.840756 25710 net.cpp:124] Setting up ip3_ip3_0_split
I0504 10:39:06.840762 25710 net.cpp:131] Top shape: 1000 10 (10000)
I0504 10:39:06.840766 25710 net.cpp:131] Top shape: 1000 10 (10000)
I0504 10:39:06.840768 25710 net.cpp:139] Memory required for data: 401012000
I0504 10:39:06.840771 25710 layer_factory.hpp:77] Creating layer accuracy
I0504 10:39:06.840776 25710 net.cpp:86] Creating Layer accuracy
I0504 10:39:06.840780 25710 net.cpp:408] accuracy <- ip3_ip3_0_split_0
I0504 10:39:06.840783 25710 net.cpp:408] accuracy <- label_cifar_1_split_0
I0504 10:39:06.840788 25710 net.cpp:382] accuracy -> accuracy
…
