…
I0504 14:50:20.560469  4775 net.cpp:296] The NetState phase (0) differed from the phase (1) specified by a rule in layer cifar
I0504 14:50:20.560488  4775 net.cpp:296] The NetState phase (0) differed from the phase (1) specified by a rule in layer accuracy
I0504 14:50:20.560592  4775 net.cpp:53] Initializing net from parameters: 
name: "CIFAR"
state {
  phase: TRAIN
  level: 0
  stage: ""
}
layer {
  name: "cifar"
  type: "Data"
  top: "data"
  top: "label"
  include {
    phase: TRAIN
  }
  transform_param {
    mean_file: "examples/cifar10/mean.binaryproto"
  }
  data_param {
    source: "examples/cifar10/cifar10_train_lmdb"
    batch_size: 111
    backend: LMDB
  }
}
layer {
  name: "conv0"
  type: "Convolution"
  bottom: "data"
  top: "conv0"
  param {
    lr_mult: 1
  }
  param {
    lr_mult: 2
  }
  convolution_param {
    num_output: 24
    pad: 2
    kernel_size: 5
    stride: 1
    weight_filler {
      type: "gaussian"
      std: 0.01
    }
    bias_filler {
      type: "constant"
    }
  }
}
layer {
  name: "Sigmoid0"
  type: "Sigmoid"
  bottom: "conv0"
  top: "Sigmoid0"
}
layer {
  name: "pool0"
  type: "Pooling"
  bottom: "Sigmoid0"
  top: "pool0"
  pooling_param {
    pool: AVE
    kernel_size: 3
    stride: 2
  }
}
layer {
  name: "conv1"
  type: "Convolution"
  bottom: "pool0"
  top: "conv1"
  param {
    lr_mult: 1
  }
  param {
    lr_mult: 2
  }
  convolution_param {
    num_output: 216
    pad: 2
    kernel_size: 5
    stride: 1
    weight_filler {
      type: "gaussian"
      std: 0.01
    }
    bias_filler {
      type: "constant"
    }
  }
}
layer {
  name: "Sigmoid1"
  type: "Sigmoid"
  bottom: "conv1"
  top: "Sigmoid1"
}
layer {
  name: "pool1"
  type: "Pooling"
  bottom: "Sigmoid1"
  top: "pool1"
  pooling_param {
    pool: AVE
    kernel_size: 3
    stride: 2
  }
}
layer {
  name: "ip1"
  type: "InnerProduct"
  bottom: "pool1"
  top: "ip1"
  param {
    lr_mult: 1
  }
  param {
    lr_mult: 2
  }
  inner_product_param {
    num_output: 60
    weight_filler {
      type: "gaussian"
      std: 0.01
    }
    bias_filler {
      type: "constant"
    }
  }
}
layer {
  name: "relu1"
  type: "ReLU"
  bottom: "ip1"
  top: "ip1"
}
layer {
  name: "ip2"
  type: "InnerProduct"
  bottom: "ip1"
  top: "ip2"
  param {
    lr_mult: 1
  }
  param {
    lr_mult: 2
  }
  inner_product_param {
    num_output: 60
    weight_filler {
      type: "gaussian"
      std: 0.01
    }
    bias_filler {
      type: "constant"
    }
  }
}
layer {
  name: "relu2"
  type: "ReLU"
  bottom: "ip2"
  top: "ip2"
}
layer {
  name: "ip3"
  type: "InnerProduct"
  bottom: "ip2"
  top: "ip3"
  param {
    lr_mult: 1
  }
  param {
    lr_mult: 2
  }
  inner_product_param {
    num_output: 10
    weight_filler {
      type: "gaussian"
      std: 0.01
    }
    bias_filler {
      type: "constant"
    }
  }
}
layer {
  name: "loss"
  type: "SoftmaxWithLoss"
  bottom: "ip3"
  bottom: "label"
  top: "loss"
}
I0504 14:50:20.560670  4775 layer_factory.hpp:77] Creating layer cifar
I0504 14:50:20.560771  4775 db_lmdb.cpp:35] Opened lmdb examples/cifar10/cifar10_train_lmdb
I0504 14:50:20.560798  4775 net.cpp:86] Creating Layer cifar
I0504 14:50:20.560806  4775 net.cpp:382] cifar -> data
I0504 14:50:20.560837  4775 net.cpp:382] cifar -> label
I0504 14:50:20.560850  4775 data_transformer.cpp:25] Loading mean file from: examples/cifar10/mean.binaryproto
I0504 14:50:20.563006  4775 data_layer.cpp:45] output data size: 111,3,32,32
I0504 14:50:20.571033  4775 net.cpp:124] Setting up cifar
I0504 14:50:20.571053  4775 net.cpp:131] Top shape: 111 3 32 32 (340992)
I0504 14:50:20.571063  4775 net.cpp:131] Top shape: 111 (111)
I0504 14:50:20.571070  4775 net.cpp:139] Memory required for data: 1364412
I0504 14:50:20.571081  4775 layer_factory.hpp:77] Creating layer conv0
I0504 14:50:20.571099  4775 net.cpp:86] Creating Layer conv0
I0504 14:50:20.571105  4775 net.cpp:408] conv0 <- data
I0504 14:50:20.571117  4775 net.cpp:382] conv0 -> conv0
I0504 14:50:20.858892  4775 net.cpp:124] Setting up conv0
I0504 14:50:20.858921  4775 net.cpp:131] Top shape: 111 24 32 32 (2727936)
I0504 14:50:20.858925  4775 net.cpp:139] Memory required for data: 12276156
I0504 14:50:20.858942  4775 layer_factory.hpp:77] Creating layer Sigmoid0
I0504 14:50:20.858954  4775 net.cpp:86] Creating Layer Sigmoid0
I0504 14:50:20.858958  4775 net.cpp:408] Sigmoid0 <- conv0
I0504 14:50:20.858965  4775 net.cpp:382] Sigmoid0 -> Sigmoid0
I0504 14:50:20.859149  4775 net.cpp:124] Setting up Sigmoid0
I0504 14:50:20.859175  4775 net.cpp:131] Top shape: 111 24 32 32 (2727936)
I0504 14:50:20.859179  4775 net.cpp:139] Memory required for data: 23187900
I0504 14:50:20.859182  4775 layer_factory.hpp:77] Creating layer pool0
I0504 14:50:20.859190  4775 net.cpp:86] Creating Layer pool0
I0504 14:50:20.859194  4775 net.cpp:408] pool0 <- Sigmoid0
I0504 14:50:20.859199  4775 net.cpp:382] pool0 -> pool0
I0504 14:50:20.859999  4775 net.cpp:124] Setting up pool0
I0504 14:50:20.860013  4775 net.cpp:131] Top shape: 111 24 16 16 (681984)
I0504 14:50:20.860015  4775 net.cpp:139] Memory required for data: 25915836
I0504 14:50:20.860019  4775 layer_factory.hpp:77] Creating layer conv1
I0504 14:50:20.860033  4775 net.cpp:86] Creating Layer conv1
I0504 14:50:20.860035  4775 net.cpp:408] conv1 <- pool0
I0504 14:50:20.860041  4775 net.cpp:382] conv1 -> conv1
I0504 14:50:20.865485  4775 net.cpp:124] Setting up conv1
I0504 14:50:20.865499  4775 net.cpp:131] Top shape: 111 216 16 16 (6137856)
I0504 14:50:20.865504  4775 net.cpp:139] Memory required for data: 50467260
I0504 14:50:20.865512  4775 layer_factory.hpp:77] Creating layer Sigmoid1
I0504 14:50:20.865519  4775 net.cpp:86] Creating Layer Sigmoid1
I0504 14:50:20.865522  4775 net.cpp:408] Sigmoid1 <- conv1
I0504 14:50:20.865527  4775 net.cpp:382] Sigmoid1 -> Sigmoid1
I0504 14:50:20.865691  4775 net.cpp:124] Setting up Sigmoid1
I0504 14:50:20.865701  4775 net.cpp:131] Top shape: 111 216 16 16 (6137856)
I0504 14:50:20.865705  4775 net.cpp:139] Memory required for data: 75018684
I0504 14:50:20.865708  4775 layer_factory.hpp:77] Creating layer pool1
I0504 14:50:20.865715  4775 net.cpp:86] Creating Layer pool1
I0504 14:50:20.865717  4775 net.cpp:408] pool1 <- Sigmoid1
I0504 14:50:20.865737  4775 net.cpp:382] pool1 -> pool1
I0504 14:50:20.865917  4775 net.cpp:124] Setting up pool1
I0504 14:50:20.865926  4775 net.cpp:131] Top shape: 111 216 8 8 (1534464)
I0504 14:50:20.865931  4775 net.cpp:139] Memory required for data: 81156540
I0504 14:50:20.865933  4775 layer_factory.hpp:77] Creating layer ip1
I0504 14:50:20.865942  4775 net.cpp:86] Creating Layer ip1
I0504 14:50:20.865945  4775 net.cpp:408] ip1 <- pool1
I0504 14:50:20.865950  4775 net.cpp:382] ip1 -> ip1
I0504 14:50:20.889472  4775 net.cpp:124] Setting up ip1
I0504 14:50:20.889485  4775 net.cpp:131] Top shape: 111 60 (6660)
I0504 14:50:20.889488  4775 net.cpp:139] Memory required for data: 81183180
I0504 14:50:20.889497  4775 layer_factory.hpp:77] Creating layer relu1
I0504 14:50:20.889503  4775 net.cpp:86] Creating Layer relu1
I0504 14:50:20.889508  4775 net.cpp:408] relu1 <- ip1
I0504 14:50:20.889513  4775 net.cpp:369] relu1 -> ip1 (in-place)
I0504 14:50:20.889688  4775 net.cpp:124] Setting up relu1
I0504 14:50:20.889696  4775 net.cpp:131] Top shape: 111 60 (6660)
I0504 14:50:20.889700  4775 net.cpp:139] Memory required for data: 81209820
I0504 14:50:20.889703  4775 layer_factory.hpp:77] Creating layer ip2
I0504 14:50:20.889725  4775 net.cpp:86] Creating Layer ip2
I0504 14:50:20.889729  4775 net.cpp:408] ip2 <- ip1
I0504 14:50:20.889766  4775 net.cpp:382] ip2 -> ip2
I0504 14:50:20.890012  4775 net.cpp:124] Setting up ip2
I0504 14:50:20.890022  4775 net.cpp:131] Top shape: 111 60 (6660)
I0504 14:50:20.890024  4775 net.cpp:139] Memory required for data: 81236460
I0504 14:50:20.890030  4775 layer_factory.hpp:77] Creating layer relu2
I0504 14:50:20.890036  4775 net.cpp:86] Creating Layer relu2
I0504 14:50:20.890039  4775 net.cpp:408] relu2 <- ip2
I0504 14:50:20.890044  4775 net.cpp:369] relu2 -> ip2 (in-place)
I0504 14:50:20.890851  4775 net.cpp:124] Setting up relu2
I0504 14:50:20.890863  4775 net.cpp:131] Top shape: 111 60 (6660)
I0504 14:50:20.890882  4775 net.cpp:139] Memory required for data: 81263100
I0504 14:50:20.890887  4775 layer_factory.hpp:77] Creating layer ip3
I0504 14:50:20.890893  4775 net.cpp:86] Creating Layer ip3
I0504 14:50:20.890897  4775 net.cpp:408] ip3 <- ip2
I0504 14:50:20.890902  4775 net.cpp:382] ip3 -> ip3
I0504 14:50:20.891013  4775 net.cpp:124] Setting up ip3
I0504 14:50:20.891021  4775 net.cpp:131] Top shape: 111 10 (1110)
I0504 14:50:20.891023  4775 net.cpp:139] Memory required for data: 81267540
I0504 14:50:20.891032  4775 layer_factory.hpp:77] Creating layer loss
I0504 14:50:20.891037  4775 net.cpp:86] Creating Layer loss
I0504 14:50:20.891057  4775 net.cpp:408] loss <- ip3
I0504 14:50:20.891060  4775 net.cpp:408] loss <- label
I0504 14:50:20.891065  4775 net.cpp:382] loss -> loss
I0504 14:50:20.891083  4775 layer_factory.hpp:77] Creating layer loss
…
I0504 14:50:20.891767  4775 solver.cpp:173] Creating test net (#0) specified by net file: ECE595/cifar/train_test/var_everything_tiny/cifar_train_test_175.prototxt
I0504 14:50:20.891811  4775 net.cpp:296] The NetState phase (1) differed from the phase (0) specified by a rule in layer cifar
I0504 14:50:20.891906  4775 net.cpp:53] Initializing net from parameters: 
name: "CIFAR"
state {
  phase: TEST
}
layer {
  name: "cifar"
  type: "Data"
  top: "data"
  top: "label"
  include {
    phase: TEST
  }
  transform_param {
    mean_file: "examples/cifar10/mean.binaryproto"
  }
  data_param {
    source: "examples/cifar10/cifar10_test_lmdb"
    batch_size: 1000
    backend: LMDB
  }
}
layer {
  name: "conv0"
  type: "Convolution"
  bottom: "data"
  top: "conv0"
  param {
    lr_mult: 1
  }
  param {
    lr_mult: 2
  }
  convolution_param {
    num_output: 24
    pad: 2
    kernel_size: 5
    stride: 1
    weight_filler {
      type: "gaussian"
      std: 0.01
    }
    bias_filler {
      type: "constant"
    }
  }
}
layer {
  name: "Sigmoid0"
  type: "Sigmoid"
  bottom: "conv0"
  top: "Sigmoid0"
}
layer {
  name: "pool0"
  type: "Pooling"
  bottom: "Sigmoid0"
  top: "pool0"
  pooling_param {
    pool: AVE
    kernel_size: 3
    stride: 2
  }
}
layer {
  name: "conv1"
  type: "Convolution"
  bottom: "pool0"
  top: "conv1"
  param {
    lr_mult: 1
  }
  param {
    lr_mult: 2
  }
  convolution_param {
    num_output: 216
    pad: 2
    kernel_size: 5
    stride: 1
    weight_filler {
      type: "gaussian"
      std: 0.01
    }
    bias_filler {
      type: "constant"
    }
  }
}
layer {
  name: "Sigmoid1"
  type: "Sigmoid"
  bottom: "conv1"
  top: "Sigmoid1"
}
layer {
  name: "pool1"
  type: "Pooling"
  bottom: "Sigmoid1"
  top: "pool1"
  pooling_param {
    pool: AVE
    kernel_size: 3
    stride: 2
  }
}
layer {
  name: "ip1"
  type: "InnerProduct"
  bottom: "pool1"
  top: "ip1"
  param {
    lr_mult: 1
  }
  param {
    lr_mult: 2
  }
  inner_product_param {
    num_output: 60
    weight_filler {
      type: "gaussian"
      std: 0.01
    }
    bias_filler {
      type: "constant"
    }
  }
}
layer {
  name: "relu1"
  type: "ReLU"
  bottom: "ip1"
  top: "ip1"
}
layer {
  name: "ip2"
  type: "InnerProduct"
  bottom: "ip1"
  top: "ip2"
  param {
    lr_mult: 1
  }
  param {
    lr_mult: 2
  }
  inner_product_param {
    num_output: 60
    weight_filler {
      type: "gaussian"
      std: 0.01
    }
    bias_filler {
      type: "constant"
    }
  }
}
layer {
  name: "relu2"
  type: "ReLU"
  bottom: "ip2"
  top: "ip2"
}
layer {
  name: "ip3"
  type: "InnerProduct"
  bottom: "ip2"
  top: "ip3"
  param {
    lr_mult: 1
  }
  param {
    lr_mult: 2
  }
  inner_product_param {
    num_output: 10
    weight_filler {
      type: "gaussian"
      std: 0.01
    }
    bias_filler {
      type: "constant"
    }
  }
}
layer {
  name: "accuracy"
  type: "Accuracy"
  bottom: "ip3"
  bottom: "label"
  top: "accuracy"
  include {
    phase: TEST
  }
}
layer {
  name: "loss"
  type: "SoftmaxWithLoss"
  bottom: "ip3"
  bottom: "label"
  top: "loss"
}
I0504 14:50:20.891988  4775 layer_factory.hpp:77] Creating layer cifar
I0504 14:50:20.892032  4775 db_lmdb.cpp:35] Opened lmdb examples/cifar10/cifar10_test_lmdb
I0504 14:50:20.892045  4775 net.cpp:86] Creating Layer cifar
I0504 14:50:20.892050  4775 net.cpp:382] cifar -> data
I0504 14:50:20.892057  4775 net.cpp:382] cifar -> label
I0504 14:50:20.892063  4775 data_transformer.cpp:25] Loading mean file from: examples/cifar10/mean.binaryproto
I0504 14:50:20.892221  4775 data_layer.cpp:45] output data size: 1000,3,32,32
I0504 14:50:20.915139  4775 net.cpp:124] Setting up cifar
I0504 14:50:20.915165  4775 net.cpp:131] Top shape: 1000 3 32 32 (3072000)
I0504 14:50:20.915171  4775 net.cpp:131] Top shape: 1000 (1000)
I0504 14:50:20.915175  4775 net.cpp:139] Memory required for data: 12292000
I0504 14:50:20.915196  4775 layer_factory.hpp:77] Creating layer label_cifar_1_split
I0504 14:50:20.915213  4775 net.cpp:86] Creating Layer label_cifar_1_split
I0504 14:50:20.915220  4775 net.cpp:408] label_cifar_1_split <- label
I0504 14:50:20.915225  4775 net.cpp:382] label_cifar_1_split -> label_cifar_1_split_0
I0504 14:50:20.915235  4775 net.cpp:382] label_cifar_1_split -> label_cifar_1_split_1
I0504 14:50:20.915326  4775 net.cpp:124] Setting up label_cifar_1_split
I0504 14:50:20.915334  4775 net.cpp:131] Top shape: 1000 (1000)
I0504 14:50:20.915338  4775 net.cpp:131] Top shape: 1000 (1000)
I0504 14:50:20.915341  4775 net.cpp:139] Memory required for data: 12300000
I0504 14:50:20.915344  4775 layer_factory.hpp:77] Creating layer conv0
I0504 14:50:20.915359  4775 net.cpp:86] Creating Layer conv0
I0504 14:50:20.915361  4775 net.cpp:408] conv0 <- data
I0504 14:50:20.915367  4775 net.cpp:382] conv0 -> conv0
I0504 14:50:20.917132  4775 net.cpp:124] Setting up conv0
I0504 14:50:20.917162  4775 net.cpp:131] Top shape: 1000 24 32 32 (24576000)
I0504 14:50:20.917167  4775 net.cpp:139] Memory required for data: 110604000
I0504 14:50:20.917197  4775 layer_factory.hpp:77] Creating layer Sigmoid0
I0504 14:50:20.917206  4775 net.cpp:86] Creating Layer Sigmoid0
I0504 14:50:20.917209  4775 net.cpp:408] Sigmoid0 <- conv0
I0504 14:50:20.917214  4775 net.cpp:382] Sigmoid0 -> Sigmoid0
I0504 14:50:20.917420  4775 net.cpp:124] Setting up Sigmoid0
I0504 14:50:20.917444  4775 net.cpp:131] Top shape: 1000 24 32 32 (24576000)
I0504 14:50:20.917448  4775 net.cpp:139] Memory required for data: 208908000
I0504 14:50:20.917453  4775 layer_factory.hpp:77] Creating layer pool0
I0504 14:50:20.917460  4775 net.cpp:86] Creating Layer pool0
I0504 14:50:20.917464  4775 net.cpp:408] pool0 <- Sigmoid0
I0504 14:50:20.917469  4775 net.cpp:382] pool0 -> pool0
I0504 14:50:20.917745  4775 net.cpp:124] Setting up pool0
I0504 14:50:20.917754  4775 net.cpp:131] Top shape: 1000 24 16 16 (6144000)
I0504 14:50:20.917757  4775 net.cpp:139] Memory required for data: 233484000
I0504 14:50:20.917762  4775 layer_factory.hpp:77] Creating layer conv1
I0504 14:50:20.917771  4775 net.cpp:86] Creating Layer conv1
I0504 14:50:20.917774  4775 net.cpp:408] conv1 <- pool0
I0504 14:50:20.917780  4775 net.cpp:382] conv1 -> conv1
I0504 14:50:20.923719  4775 net.cpp:124] Setting up conv1
I0504 14:50:20.923734  4775 net.cpp:131] Top shape: 1000 216 16 16 (55296000)
I0504 14:50:20.923738  4775 net.cpp:139] Memory required for data: 454668000
I0504 14:50:20.923746  4775 layer_factory.hpp:77] Creating layer Sigmoid1
I0504 14:50:20.923753  4775 net.cpp:86] Creating Layer Sigmoid1
I0504 14:50:20.923773  4775 net.cpp:408] Sigmoid1 <- conv1
I0504 14:50:20.923777  4775 net.cpp:382] Sigmoid1 -> Sigmoid1
I0504 14:50:20.923977  4775 net.cpp:124] Setting up Sigmoid1
I0504 14:50:20.923990  4775 net.cpp:131] Top shape: 1000 216 16 16 (55296000)
I0504 14:50:20.923993  4775 net.cpp:139] Memory required for data: 675852000
I0504 14:50:20.923996  4775 layer_factory.hpp:77] Creating layer pool1
I0504 14:50:20.924003  4775 net.cpp:86] Creating Layer pool1
I0504 14:50:20.924006  4775 net.cpp:408] pool1 <- Sigmoid1
I0504 14:50:20.924012  4775 net.cpp:382] pool1 -> pool1
I0504 14:50:20.924795  4775 net.cpp:124] Setting up pool1
I0504 14:50:20.924808  4775 net.cpp:131] Top shape: 1000 216 8 8 (13824000)
I0504 14:50:20.924834  4775 net.cpp:139] Memory required for data: 731148000
I0504 14:50:20.924837  4775 layer_factory.hpp:77] Creating layer ip1
I0504 14:50:20.924847  4775 net.cpp:86] Creating Layer ip1
I0504 14:50:20.924867  4775 net.cpp:408] ip1 <- pool1
I0504 14:50:20.924873  4775 net.cpp:382] ip1 -> ip1
I0504 14:50:20.949268  4775 net.cpp:124] Setting up ip1
I0504 14:50:20.949286  4775 net.cpp:131] Top shape: 1000 60 (60000)
I0504 14:50:20.949290  4775 net.cpp:139] Memory required for data: 731388000
I0504 14:50:20.949300  4775 layer_factory.hpp:77] Creating layer relu1
I0504 14:50:20.949322  4775 net.cpp:86] Creating Layer relu1
I0504 14:50:20.949326  4775 net.cpp:408] relu1 <- ip1
I0504 14:50:20.949331  4775 net.cpp:369] relu1 -> ip1 (in-place)
I0504 14:50:20.949542  4775 net.cpp:124] Setting up relu1
I0504 14:50:20.949550  4775 net.cpp:131] Top shape: 1000 60 (60000)
I0504 14:50:20.949554  4775 net.cpp:139] Memory required for data: 731628000
I0504 14:50:20.949558  4775 layer_factory.hpp:77] Creating layer ip2
I0504 14:50:20.949565  4775 net.cpp:86] Creating Layer ip2
I0504 14:50:20.949568  4775 net.cpp:408] ip2 <- ip1
I0504 14:50:20.949574  4775 net.cpp:382] ip2 -> ip2
I0504 14:50:20.949786  4775 net.cpp:124] Setting up ip2
I0504 14:50:20.949793  4775 net.cpp:131] Top shape: 1000 60 (60000)
I0504 14:50:20.949797  4775 net.cpp:139] Memory required for data: 731868000
I0504 14:50:20.949803  4775 layer_factory.hpp:77] Creating layer relu2
I0504 14:50:20.949810  4775 net.cpp:86] Creating Layer relu2
I0504 14:50:20.949812  4775 net.cpp:408] relu2 <- ip2
I0504 14:50:20.949817  4775 net.cpp:369] relu2 -> ip2 (in-place)
I0504 14:50:20.949976  4775 net.cpp:124] Setting up relu2
I0504 14:50:20.949985  4775 net.cpp:131] Top shape: 1000 60 (60000)
I0504 14:50:20.949988  4775 net.cpp:139] Memory required for data: 732108000
I0504 14:50:20.949991  4775 layer_factory.hpp:77] Creating layer ip3
I0504 14:50:20.949998  4775 net.cpp:86] Creating Layer ip3
I0504 14:50:20.950001  4775 net.cpp:408] ip3 <- ip2
I0504 14:50:20.950006  4775 net.cpp:382] ip3 -> ip3
I0504 14:50:20.950131  4775 net.cpp:124] Setting up ip3
I0504 14:50:20.950139  4775 net.cpp:131] Top shape: 1000 10 (10000)
I0504 14:50:20.950156  4775 net.cpp:139] Memory required for data: 732148000
I0504 14:50:20.950165  4775 layer_factory.hpp:77] Creating layer ip3_ip3_0_split
I0504 14:50:20.950170  4775 net.cpp:86] Creating Layer ip3_ip3_0_split
I0504 14:50:20.950175  4775 net.cpp:408] ip3_ip3_0_split <- ip3
I0504 14:50:20.950194  4775 net.cpp:382] ip3_ip3_0_split -> ip3_ip3_0_split_0
I0504 14:50:20.950201  4775 net.cpp:382] ip3_ip3_0_split -> ip3_ip3_0_split_1
I0504 14:50:20.950244  4775 net.cpp:124] Setting up ip3_ip3_0_split
I0504 14:50:20.950258  4775 net.cpp:131] Top shape: 1000 10 (10000)
I0504 14:50:20.950261  4775 net.cpp:131] Top shape: 1000 10 (10000)
I0504 14:50:20.950264  4775 net.cpp:139] Memory required for data: 732228000
I0504 14:50:20.950268  4775 layer_factory.hpp:77] Creating layer accuracy
I0504 14:50:20.950274  4775 net.cpp:86] Creating Layer accuracy
I0504 14:50:20.950278  4775 net.cpp:408] accuracy <- ip3_ip3_0_split_0
I0504 14:50:20.950284  4775 net.cpp:408] accuracy <- label_cifar_1_split_0
I0504 14:50:20.950289  4775 net.cpp:382] accuracy -> accuracy
…
