…
I0504 07:10:24.225575 17928 net.cpp:296] The NetState phase (0) differed from the phase (1) specified by a rule in layer cifar
I0504 07:10:24.225606 17928 net.cpp:296] The NetState phase (0) differed from the phase (1) specified by a rule in layer accuracy
I0504 07:10:24.225697 17928 net.cpp:53] Initializing net from parameters: 
name: "CIFAR"
state {
  phase: TRAIN
  level: 0
  stage: ""
}
layer {
  name: "cifar"
  type: "Data"
  top: "data"
  top: "label"
  include {
    phase: TRAIN
  }
  transform_param {
    mean_file: "examples/cifar10/mean.binaryproto"
  }
  data_param {
    source: "examples/cifar10/cifar10_train_lmdb"
    batch_size: 111
    backend: LMDB
  }
}
layer {
  name: "conv0"
  type: "Convolution"
  bottom: "data"
  top: "conv0"
  param {
    lr_mult: 1
  }
  param {
    lr_mult: 2
  }
  convolution_param {
    num_output: 24
    pad: 2
    kernel_size: 3
    stride: 1
    weight_filler {
      type: "gaussian"
      std: 0.01
    }
    bias_filler {
      type: "constant"
    }
  }
}
layer {
  name: "Sigmoid0"
  type: "Sigmoid"
  bottom: "conv0"
  top: "Sigmoid0"
}
layer {
  name: "pool0"
  type: "Pooling"
  bottom: "Sigmoid0"
  top: "pool0"
  pooling_param {
    pool: AVE
    kernel_size: 3
    stride: 2
  }
}
layer {
  name: "conv1"
  type: "Convolution"
  bottom: "pool0"
  top: "conv1"
  param {
    lr_mult: 1
  }
  param {
    lr_mult: 2
  }
  convolution_param {
    num_output: 24
    pad: 2
    kernel_size: 3
    stride: 1
    weight_filler {
      type: "gaussian"
      std: 0.01
    }
    bias_filler {
      type: "constant"
    }
  }
}
layer {
  name: "Sigmoid1"
  type: "Sigmoid"
  bottom: "conv1"
  top: "Sigmoid1"
}
layer {
  name: "pool1"
  type: "Pooling"
  bottom: "Sigmoid1"
  top: "pool1"
  pooling_param {
    pool: AVE
    kernel_size: 3
    stride: 2
  }
}
layer {
  name: "ip1"
  type: "InnerProduct"
  bottom: "pool1"
  top: "ip1"
  param {
    lr_mult: 1
  }
  param {
    lr_mult: 2
  }
  inner_product_param {
    num_output: 180
    weight_filler {
      type: "gaussian"
      std: 0.01
    }
    bias_filler {
      type: "constant"
    }
  }
}
layer {
  name: "relu1"
  type: "ReLU"
  bottom: "ip1"
  top: "ip1"
}
layer {
  name: "ip2"
  type: "InnerProduct"
  bottom: "ip1"
  top: "ip2"
  param {
    lr_mult: 1
  }
  param {
    lr_mult: 2
  }
  inner_product_param {
    num_output: 10
    weight_filler {
      type: "gaussian"
      std: 0.01
    }
    bias_filler {
      type: "constant"
    }
  }
}
layer {
  name: "loss"
  type: "SoftmaxWithLoss"
  bottom: "ip2"
  bottom: "label"
  top: "loss"
}
I0504 07:10:24.225792 17928 layer_factory.hpp:77] Creating layer cifar
I0504 07:10:24.225881 17928 db_lmdb.cpp:35] Opened lmdb examples/cifar10/cifar10_train_lmdb
I0504 07:10:24.225904 17928 net.cpp:86] Creating Layer cifar
I0504 07:10:24.225911 17928 net.cpp:382] cifar -> data
I0504 07:10:24.225931 17928 net.cpp:382] cifar -> label
I0504 07:10:24.225940 17928 data_transformer.cpp:25] Loading mean file from: examples/cifar10/mean.binaryproto
I0504 07:10:24.227741 17928 data_layer.cpp:45] output data size: 111,3,32,32
I0504 07:10:24.234304 17928 net.cpp:124] Setting up cifar
I0504 07:10:24.234336 17928 net.cpp:131] Top shape: 111 3 32 32 (340992)
I0504 07:10:24.234341 17928 net.cpp:131] Top shape: 111 (111)
I0504 07:10:24.234344 17928 net.cpp:139] Memory required for data: 1364412
I0504 07:10:24.234352 17928 layer_factory.hpp:77] Creating layer conv0
I0504 07:10:24.234393 17928 net.cpp:86] Creating Layer conv0
I0504 07:10:24.234412 17928 net.cpp:408] conv0 <- data
I0504 07:10:24.234423 17928 net.cpp:382] conv0 -> conv0
I0504 07:10:24.463616 17928 net.cpp:124] Setting up conv0
I0504 07:10:24.463659 17928 net.cpp:131] Top shape: 111 24 34 34 (3079584)
I0504 07:10:24.463662 17928 net.cpp:139] Memory required for data: 13682748
I0504 07:10:24.463677 17928 layer_factory.hpp:77] Creating layer Sigmoid0
I0504 07:10:24.463688 17928 net.cpp:86] Creating Layer Sigmoid0
I0504 07:10:24.463692 17928 net.cpp:408] Sigmoid0 <- conv0
I0504 07:10:24.463697 17928 net.cpp:382] Sigmoid0 -> Sigmoid0
I0504 07:10:24.463881 17928 net.cpp:124] Setting up Sigmoid0
I0504 07:10:24.463889 17928 net.cpp:131] Top shape: 111 24 34 34 (3079584)
I0504 07:10:24.463893 17928 net.cpp:139] Memory required for data: 26001084
I0504 07:10:24.463896 17928 layer_factory.hpp:77] Creating layer pool0
I0504 07:10:24.463902 17928 net.cpp:86] Creating Layer pool0
I0504 07:10:24.463906 17928 net.cpp:408] pool0 <- Sigmoid0
I0504 07:10:24.463910 17928 net.cpp:382] pool0 -> pool0
I0504 07:10:24.464661 17928 net.cpp:124] Setting up pool0
I0504 07:10:24.464689 17928 net.cpp:131] Top shape: 111 24 17 17 (769896)
I0504 07:10:24.464694 17928 net.cpp:139] Memory required for data: 29080668
I0504 07:10:24.464696 17928 layer_factory.hpp:77] Creating layer conv1
I0504 07:10:24.464709 17928 net.cpp:86] Creating Layer conv1
I0504 07:10:24.464711 17928 net.cpp:408] conv1 <- pool0
I0504 07:10:24.464716 17928 net.cpp:382] conv1 -> conv1
I0504 07:10:24.467479 17928 net.cpp:124] Setting up conv1
I0504 07:10:24.467492 17928 net.cpp:131] Top shape: 111 24 19 19 (961704)
I0504 07:10:24.467496 17928 net.cpp:139] Memory required for data: 32927484
I0504 07:10:24.467504 17928 layer_factory.hpp:77] Creating layer Sigmoid1
I0504 07:10:24.467510 17928 net.cpp:86] Creating Layer Sigmoid1
I0504 07:10:24.467527 17928 net.cpp:408] Sigmoid1 <- conv1
I0504 07:10:24.467532 17928 net.cpp:382] Sigmoid1 -> Sigmoid1
I0504 07:10:24.467686 17928 net.cpp:124] Setting up Sigmoid1
I0504 07:10:24.467695 17928 net.cpp:131] Top shape: 111 24 19 19 (961704)
I0504 07:10:24.467699 17928 net.cpp:139] Memory required for data: 36774300
I0504 07:10:24.467701 17928 layer_factory.hpp:77] Creating layer pool1
I0504 07:10:24.467706 17928 net.cpp:86] Creating Layer pool1
I0504 07:10:24.467710 17928 net.cpp:408] pool1 <- Sigmoid1
I0504 07:10:24.467713 17928 net.cpp:382] pool1 -> pool1
I0504 07:10:24.467875 17928 net.cpp:124] Setting up pool1
I0504 07:10:24.467885 17928 net.cpp:131] Top shape: 111 24 9 9 (215784)
I0504 07:10:24.467887 17928 net.cpp:139] Memory required for data: 37637436
I0504 07:10:24.467890 17928 layer_factory.hpp:77] Creating layer ip1
I0504 07:10:24.467896 17928 net.cpp:86] Creating Layer ip1
I0504 07:10:24.467900 17928 net.cpp:408] ip1 <- pool1
I0504 07:10:24.467905 17928 net.cpp:382] ip1 -> ip1
I0504 07:10:24.477599 17928 net.cpp:124] Setting up ip1
I0504 07:10:24.477612 17928 net.cpp:131] Top shape: 111 180 (19980)
I0504 07:10:24.477614 17928 net.cpp:139] Memory required for data: 37717356
I0504 07:10:24.477622 17928 layer_factory.hpp:77] Creating layer relu1
I0504 07:10:24.477628 17928 net.cpp:86] Creating Layer relu1
I0504 07:10:24.477632 17928 net.cpp:408] relu1 <- ip1
I0504 07:10:24.477636 17928 net.cpp:369] relu1 -> ip1 (in-place)
I0504 07:10:24.477797 17928 net.cpp:124] Setting up relu1
I0504 07:10:24.477804 17928 net.cpp:131] Top shape: 111 180 (19980)
I0504 07:10:24.477807 17928 net.cpp:139] Memory required for data: 37797276
I0504 07:10:24.477810 17928 layer_factory.hpp:77] Creating layer ip2
I0504 07:10:24.477816 17928 net.cpp:86] Creating Layer ip2
I0504 07:10:24.477819 17928 net.cpp:408] ip2 <- ip1
I0504 07:10:24.477823 17928 net.cpp:382] ip2 -> ip2
I0504 07:10:24.477960 17928 net.cpp:124] Setting up ip2
I0504 07:10:24.477967 17928 net.cpp:131] Top shape: 111 10 (1110)
I0504 07:10:24.477970 17928 net.cpp:139] Memory required for data: 37801716
I0504 07:10:24.477975 17928 layer_factory.hpp:77] Creating layer loss
I0504 07:10:24.477980 17928 net.cpp:86] Creating Layer loss
I0504 07:10:24.477998 17928 net.cpp:408] loss <- ip2
I0504 07:10:24.478001 17928 net.cpp:408] loss <- label
I0504 07:10:24.478006 17928 net.cpp:382] loss -> loss
I0504 07:10:24.478022 17928 layer_factory.hpp:77] Creating layer loss
…
I0504 07:10:24.479189 17928 solver.cpp:173] Creating test net (#0) specified by net file: ECE595/cifar/train_test/var_everything_tiny/cifar_train_test_74.prototxt
I0504 07:10:24.479230 17928 net.cpp:296] The NetState phase (1) differed from the phase (0) specified by a rule in layer cifar
I0504 07:10:24.479316 17928 net.cpp:53] Initializing net from parameters: 
name: "CIFAR"
state {
  phase: TEST
}
layer {
  name: "cifar"
  type: "Data"
  top: "data"
  top: "label"
  include {
    phase: TEST
  }
  transform_param {
    mean_file: "examples/cifar10/mean.binaryproto"
  }
  data_param {
    source: "examples/cifar10/cifar10_test_lmdb"
    batch_size: 1000
    backend: LMDB
  }
}
layer {
  name: "conv0"
  type: "Convolution"
  bottom: "data"
  top: "conv0"
  param {
    lr_mult: 1
  }
  param {
    lr_mult: 2
  }
  convolution_param {
    num_output: 24
    pad: 2
    kernel_size: 3
    stride: 1
    weight_filler {
      type: "gaussian"
      std: 0.01
    }
    bias_filler {
      type: "constant"
    }
  }
}
layer {
  name: "Sigmoid0"
  type: "Sigmoid"
  bottom: "conv0"
  top: "Sigmoid0"
}
layer {
  name: "pool0"
  type: "Pooling"
  bottom: "Sigmoid0"
  top: "pool0"
  pooling_param {
    pool: AVE
    kernel_size: 3
    stride: 2
  }
}
layer {
  name: "conv1"
  type: "Convolution"
  bottom: "pool0"
  top: "conv1"
  param {
    lr_mult: 1
  }
  param {
    lr_mult: 2
  }
  convolution_param {
    num_output: 24
    pad: 2
    kernel_size: 3
    stride: 1
    weight_filler {
      type: "gaussian"
      std: 0.01
    }
    bias_filler {
      type: "constant"
    }
  }
}
layer {
  name: "Sigmoid1"
  type: "Sigmoid"
  bottom: "conv1"
  top: "Sigmoid1"
}
layer {
  name: "pool1"
  type: "Pooling"
  bottom: "Sigmoid1"
  top: "pool1"
  pooling_param {
    pool: AVE
    kernel_size: 3
    stride: 2
  }
}
layer {
  name: "ip1"
  type: "InnerProduct"
  bottom: "pool1"
  top: "ip1"
  param {
    lr_mult: 1
  }
  param {
    lr_mult: 2
  }
  inner_product_param {
    num_output: 180
    weight_filler {
      type: "gaussian"
      std: 0.01
    }
    bias_filler {
      type: "constant"
    }
  }
}
layer {
  name: "relu1"
  type: "ReLU"
  bottom: "ip1"
  top: "ip1"
}
layer {
  name: "ip2"
  type: "InnerProduct"
  bottom: "ip1"
  top: "ip2"
  param {
    lr_mult: 1
  }
  param {
    lr_mult: 2
  }
  inner_product_param {
    num_output: 10
    weight_filler {
      type: "gaussian"
      std: 0.01
    }
    bias_filler {
      type: "constant"
    }
  }
}
layer {
  name: "accuracy"
  type: "Accuracy"
  bottom: "ip2"
  bottom: "label"
  top: "accuracy"
  include {
    phase: TEST
  }
}
layer {
  name: "loss"
  type: "SoftmaxWithLoss"
  bottom: "ip2"
  bottom: "label"
  top: "loss"
}
I0504 07:10:24.479389 17928 layer_factory.hpp:77] Creating layer cifar
I0504 07:10:24.479435 17928 db_lmdb.cpp:35] Opened lmdb examples/cifar10/cifar10_test_lmdb
I0504 07:10:24.479465 17928 net.cpp:86] Creating Layer cifar
I0504 07:10:24.479470 17928 net.cpp:382] cifar -> data
I0504 07:10:24.479478 17928 net.cpp:382] cifar -> label
I0504 07:10:24.479501 17928 data_transformer.cpp:25] Loading mean file from: examples/cifar10/mean.binaryproto
I0504 07:10:24.479635 17928 data_layer.cpp:45] output data size: 1000,3,32,32
I0504 07:10:24.501368 17928 net.cpp:124] Setting up cifar
I0504 07:10:24.501408 17928 net.cpp:131] Top shape: 1000 3 32 32 (3072000)
I0504 07:10:24.501415 17928 net.cpp:131] Top shape: 1000 (1000)
I0504 07:10:24.501417 17928 net.cpp:139] Memory required for data: 12292000
I0504 07:10:24.501422 17928 layer_factory.hpp:77] Creating layer label_cifar_1_split
I0504 07:10:24.501435 17928 net.cpp:86] Creating Layer label_cifar_1_split
I0504 07:10:24.501438 17928 net.cpp:408] label_cifar_1_split <- label
I0504 07:10:24.501444 17928 net.cpp:382] label_cifar_1_split -> label_cifar_1_split_0
I0504 07:10:24.501452 17928 net.cpp:382] label_cifar_1_split -> label_cifar_1_split_1
I0504 07:10:24.501555 17928 net.cpp:124] Setting up label_cifar_1_split
I0504 07:10:24.501564 17928 net.cpp:131] Top shape: 1000 (1000)
I0504 07:10:24.501566 17928 net.cpp:131] Top shape: 1000 (1000)
I0504 07:10:24.501569 17928 net.cpp:139] Memory required for data: 12300000
I0504 07:10:24.501574 17928 layer_factory.hpp:77] Creating layer conv0
I0504 07:10:24.501585 17928 net.cpp:86] Creating Layer conv0
I0504 07:10:24.501590 17928 net.cpp:408] conv0 <- data
I0504 07:10:24.501595 17928 net.cpp:382] conv0 -> conv0
I0504 07:10:24.502532 17928 net.cpp:124] Setting up conv0
I0504 07:10:24.502543 17928 net.cpp:131] Top shape: 1000 24 34 34 (27744000)
I0504 07:10:24.502562 17928 net.cpp:139] Memory required for data: 123276000
I0504 07:10:24.502586 17928 layer_factory.hpp:77] Creating layer Sigmoid0
I0504 07:10:24.502593 17928 net.cpp:86] Creating Layer Sigmoid0
I0504 07:10:24.502595 17928 net.cpp:408] Sigmoid0 <- conv0
I0504 07:10:24.502600 17928 net.cpp:382] Sigmoid0 -> Sigmoid0
I0504 07:10:24.503489 17928 net.cpp:124] Setting up Sigmoid0
I0504 07:10:24.503516 17928 net.cpp:131] Top shape: 1000 24 34 34 (27744000)
I0504 07:10:24.503520 17928 net.cpp:139] Memory required for data: 234252000
I0504 07:10:24.503522 17928 layer_factory.hpp:77] Creating layer pool0
I0504 07:10:24.503532 17928 net.cpp:86] Creating Layer pool0
I0504 07:10:24.503535 17928 net.cpp:408] pool0 <- Sigmoid0
I0504 07:10:24.503540 17928 net.cpp:382] pool0 -> pool0
I0504 07:10:24.504691 17928 net.cpp:124] Setting up pool0
I0504 07:10:24.504700 17928 net.cpp:131] Top shape: 1000 24 17 17 (6936000)
I0504 07:10:24.504719 17928 net.cpp:139] Memory required for data: 261996000
I0504 07:10:24.504722 17928 layer_factory.hpp:77] Creating layer conv1
I0504 07:10:24.504734 17928 net.cpp:86] Creating Layer conv1
I0504 07:10:24.504736 17928 net.cpp:408] conv1 <- pool0
I0504 07:10:24.504741 17928 net.cpp:382] conv1 -> conv1
I0504 07:10:24.506281 17928 net.cpp:124] Setting up conv1
I0504 07:10:24.506310 17928 net.cpp:131] Top shape: 1000 24 19 19 (8664000)
I0504 07:10:24.506314 17928 net.cpp:139] Memory required for data: 296652000
I0504 07:10:24.506322 17928 layer_factory.hpp:77] Creating layer Sigmoid1
I0504 07:10:24.506328 17928 net.cpp:86] Creating Layer Sigmoid1
I0504 07:10:24.506331 17928 net.cpp:408] Sigmoid1 <- conv1
I0504 07:10:24.506335 17928 net.cpp:382] Sigmoid1 -> Sigmoid1
I0504 07:10:24.506539 17928 net.cpp:124] Setting up Sigmoid1
I0504 07:10:24.506549 17928 net.cpp:131] Top shape: 1000 24 19 19 (8664000)
I0504 07:10:24.506552 17928 net.cpp:139] Memory required for data: 331308000
I0504 07:10:24.506556 17928 layer_factory.hpp:77] Creating layer pool1
I0504 07:10:24.506563 17928 net.cpp:86] Creating Layer pool1
I0504 07:10:24.506567 17928 net.cpp:408] pool1 <- Sigmoid1
I0504 07:10:24.506572 17928 net.cpp:382] pool1 -> pool1
I0504 07:10:24.506757 17928 net.cpp:124] Setting up pool1
I0504 07:10:24.506780 17928 net.cpp:131] Top shape: 1000 24 9 9 (1944000)
I0504 07:10:24.506783 17928 net.cpp:139] Memory required for data: 339084000
I0504 07:10:24.506786 17928 layer_factory.hpp:77] Creating layer ip1
I0504 07:10:24.506795 17928 net.cpp:86] Creating Layer ip1
I0504 07:10:24.506798 17928 net.cpp:408] ip1 <- pool1
I0504 07:10:24.506803 17928 net.cpp:382] ip1 -> ip1
I0504 07:10:24.517232 17928 net.cpp:124] Setting up ip1
I0504 07:10:24.517259 17928 net.cpp:131] Top shape: 1000 180 (180000)
I0504 07:10:24.517262 17928 net.cpp:139] Memory required for data: 339804000
I0504 07:10:24.517287 17928 layer_factory.hpp:77] Creating layer relu1
I0504 07:10:24.517293 17928 net.cpp:86] Creating Layer relu1
I0504 07:10:24.517298 17928 net.cpp:408] relu1 <- ip1
I0504 07:10:24.517302 17928 net.cpp:369] relu1 -> ip1 (in-place)
I0504 07:10:24.518095 17928 net.cpp:124] Setting up relu1
I0504 07:10:24.518106 17928 net.cpp:131] Top shape: 1000 180 (180000)
I0504 07:10:24.518124 17928 net.cpp:139] Memory required for data: 340524000
I0504 07:10:24.518128 17928 layer_factory.hpp:77] Creating layer ip2
I0504 07:10:24.518137 17928 net.cpp:86] Creating Layer ip2
I0504 07:10:24.518141 17928 net.cpp:408] ip2 <- ip1
I0504 07:10:24.518146 17928 net.cpp:382] ip2 -> ip2
I0504 07:10:24.518322 17928 net.cpp:124] Setting up ip2
I0504 07:10:24.518331 17928 net.cpp:131] Top shape: 1000 10 (10000)
I0504 07:10:24.518333 17928 net.cpp:139] Memory required for data: 340564000
I0504 07:10:24.518338 17928 layer_factory.hpp:77] Creating layer ip2_ip2_0_split
I0504 07:10:24.518344 17928 net.cpp:86] Creating Layer ip2_ip2_0_split
I0504 07:10:24.518348 17928 net.cpp:408] ip2_ip2_0_split <- ip2
I0504 07:10:24.518352 17928 net.cpp:382] ip2_ip2_0_split -> ip2_ip2_0_split_0
I0504 07:10:24.518357 17928 net.cpp:382] ip2_ip2_0_split -> ip2_ip2_0_split_1
I0504 07:10:24.518390 17928 net.cpp:124] Setting up ip2_ip2_0_split
I0504 07:10:24.518401 17928 net.cpp:131] Top shape: 1000 10 (10000)
I0504 07:10:24.518405 17928 net.cpp:131] Top shape: 1000 10 (10000)
I0504 07:10:24.518407 17928 net.cpp:139] Memory required for data: 340644000
I0504 07:10:24.518410 17928 layer_factory.hpp:77] Creating layer accuracy
I0504 07:10:24.518416 17928 net.cpp:86] Creating Layer accuracy
I0504 07:10:24.518419 17928 net.cpp:408] accuracy <- ip2_ip2_0_split_0
I0504 07:10:24.518422 17928 net.cpp:408] accuracy <- label_cifar_1_split_0
I0504 07:10:24.518429 17928 net.cpp:382] accuracy -> accuracy
…
