…
I0504 01:23:06.792650  7283 net.cpp:296] The NetState phase (0) differed from the phase (1) specified by a rule in layer cifar
I0504 01:23:06.792666  7283 net.cpp:296] The NetState phase (0) differed from the phase (1) specified by a rule in layer accuracy
I0504 01:23:06.792778  7283 net.cpp:53] Initializing net from parameters: 
name: "CIFAR"
state {
  phase: TRAIN
  level: 0
  stage: ""
}
layer {
  name: "cifar"
  type: "Data"
  top: "data"
  top: "label"
  include {
    phase: TRAIN
  }
  transform_param {
    mean_file: "examples/cifar10/mean.binaryproto"
  }
  data_param {
    source: "examples/cifar10/cifar10_train_lmdb"
    batch_size: 111
    backend: LMDB
  }
}
layer {
  name: "conv0"
  type: "Convolution"
  bottom: "data"
  top: "conv0"
  param {
    lr_mult: 1
  }
  param {
    lr_mult: 2
  }
  convolution_param {
    num_output: 72
    pad: 2
    kernel_size: 3
    stride: 1
    weight_filler {
      type: "gaussian"
      std: 0.01
    }
    bias_filler {
      type: "constant"
    }
  }
}
layer {
  name: "Sigmoid0"
  type: "Sigmoid"
  bottom: "conv0"
  top: "Sigmoid0"
}
layer {
  name: "pool0"
  type: "Pooling"
  bottom: "Sigmoid0"
  top: "pool0"
  pooling_param {
    pool: AVE
    kernel_size: 3
    stride: 2
  }
}
layer {
  name: "ip1"
  type: "InnerProduct"
  bottom: "pool0"
  top: "ip1"
  param {
    lr_mult: 1
  }
  param {
    lr_mult: 2
  }
  inner_product_param {
    num_output: 180
    weight_filler {
      type: "gaussian"
      std: 0.01
    }
    bias_filler {
      type: "constant"
    }
  }
}
layer {
  name: "relu1"
  type: "ReLU"
  bottom: "ip1"
  top: "ip1"
}
layer {
  name: "ip2"
  type: "InnerProduct"
  bottom: "ip1"
  top: "ip2"
  param {
    lr_mult: 1
  }
  param {
    lr_mult: 2
  }
  inner_product_param {
    num_output: 10
    weight_filler {
      type: "gaussian"
      std: 0.01
    }
    bias_filler {
      type: "constant"
    }
  }
}
layer {
  name: "relu2"
  type: "ReLU"
  bottom: "ip2"
  top: "ip2"
}
layer {
  name: "ip3"
  type: "InnerProduct"
  bottom: "ip2"
  top: "ip3"
  param {
    lr_mult: 1
  }
  param {
    lr_mult: 2
  }
  inner_product_param {
    num_output: 10
    weight_filler {
      type: "gaussian"
      std: 0.01
    }
    bias_filler {
      type: "constant"
    }
  }
}
layer {
  name: "loss"
  type: "SoftmaxWithLoss"
  bottom: "ip3"
  bottom: "label"
  top: "loss"
}
I0504 01:23:06.792924  7283 layer_factory.hpp:77] Creating layer cifar
I0504 01:23:06.793077  7283 db_lmdb.cpp:35] Opened lmdb examples/cifar10/cifar10_train_lmdb
I0504 01:23:06.793110  7283 net.cpp:86] Creating Layer cifar
I0504 01:23:06.793123  7283 net.cpp:382] cifar -> data
I0504 01:23:06.793148  7283 net.cpp:382] cifar -> label
I0504 01:23:06.793162  7283 data_transformer.cpp:25] Loading mean file from: examples/cifar10/mean.binaryproto
I0504 01:23:06.795089  7283 data_layer.cpp:45] output data size: 111,3,32,32
I0504 01:23:06.801486  7283 net.cpp:124] Setting up cifar
I0504 01:23:06.801518  7283 net.cpp:131] Top shape: 111 3 32 32 (340992)
I0504 01:23:06.801527  7283 net.cpp:131] Top shape: 111 (111)
I0504 01:23:06.801548  7283 net.cpp:139] Memory required for data: 1364412
I0504 01:23:06.801558  7283 layer_factory.hpp:77] Creating layer conv0
I0504 01:23:06.801581  7283 net.cpp:86] Creating Layer conv0
I0504 01:23:06.801589  7283 net.cpp:408] conv0 <- data
I0504 01:23:06.801605  7283 net.cpp:382] conv0 -> conv0
I0504 01:23:07.032126  7283 net.cpp:124] Setting up conv0
I0504 01:23:07.032172  7283 net.cpp:131] Top shape: 111 72 34 34 (9238752)
I0504 01:23:07.032178  7283 net.cpp:139] Memory required for data: 38319420
I0504 01:23:07.032213  7283 layer_factory.hpp:77] Creating layer Sigmoid0
I0504 01:23:07.032230  7283 net.cpp:86] Creating Layer Sigmoid0
I0504 01:23:07.032243  7283 net.cpp:408] Sigmoid0 <- conv0
I0504 01:23:07.032251  7283 net.cpp:382] Sigmoid0 -> Sigmoid0
I0504 01:23:07.032446  7283 net.cpp:124] Setting up Sigmoid0
I0504 01:23:07.032457  7283 net.cpp:131] Top shape: 111 72 34 34 (9238752)
I0504 01:23:07.032462  7283 net.cpp:139] Memory required for data: 75274428
I0504 01:23:07.032467  7283 layer_factory.hpp:77] Creating layer pool0
I0504 01:23:07.032477  7283 net.cpp:86] Creating Layer pool0
I0504 01:23:07.032483  7283 net.cpp:408] pool0 <- Sigmoid0
I0504 01:23:07.032505  7283 net.cpp:382] pool0 -> pool0
I0504 01:23:07.033212  7283 net.cpp:124] Setting up pool0
I0504 01:23:07.033226  7283 net.cpp:131] Top shape: 111 72 17 17 (2309688)
I0504 01:23:07.033231  7283 net.cpp:139] Memory required for data: 84513180
I0504 01:23:07.033236  7283 layer_factory.hpp:77] Creating layer ip1
I0504 01:23:07.033249  7283 net.cpp:86] Creating Layer ip1
I0504 01:23:07.033255  7283 net.cpp:408] ip1 <- pool0
I0504 01:23:07.033263  7283 net.cpp:382] ip1 -> ip1
I0504 01:23:07.132843  7283 net.cpp:124] Setting up ip1
I0504 01:23:07.132863  7283 net.cpp:131] Top shape: 111 180 (19980)
I0504 01:23:07.132868  7283 net.cpp:139] Memory required for data: 84593100
I0504 01:23:07.132896  7283 layer_factory.hpp:77] Creating layer relu1
I0504 01:23:07.132907  7283 net.cpp:86] Creating Layer relu1
I0504 01:23:07.132913  7283 net.cpp:408] relu1 <- ip1
I0504 01:23:07.132921  7283 net.cpp:369] relu1 -> ip1 (in-place)
I0504 01:23:07.133108  7283 net.cpp:124] Setting up relu1
I0504 01:23:07.133118  7283 net.cpp:131] Top shape: 111 180 (19980)
I0504 01:23:07.133123  7283 net.cpp:139] Memory required for data: 84673020
I0504 01:23:07.133128  7283 layer_factory.hpp:77] Creating layer ip2
I0504 01:23:07.133139  7283 net.cpp:86] Creating Layer ip2
I0504 01:23:07.133144  7283 net.cpp:408] ip2 <- ip1
I0504 01:23:07.133152  7283 net.cpp:382] ip2 -> ip2
I0504 01:23:07.133303  7283 net.cpp:124] Setting up ip2
I0504 01:23:07.133311  7283 net.cpp:131] Top shape: 111 10 (1110)
I0504 01:23:07.133316  7283 net.cpp:139] Memory required for data: 84677460
I0504 01:23:07.133328  7283 layer_factory.hpp:77] Creating layer relu2
I0504 01:23:07.133335  7283 net.cpp:86] Creating Layer relu2
I0504 01:23:07.133342  7283 net.cpp:408] relu2 <- ip2
I0504 01:23:07.133347  7283 net.cpp:369] relu2 -> ip2 (in-place)
I0504 01:23:07.133524  7283 net.cpp:124] Setting up relu2
I0504 01:23:07.133534  7283 net.cpp:131] Top shape: 111 10 (1110)
I0504 01:23:07.133538  7283 net.cpp:139] Memory required for data: 84681900
I0504 01:23:07.133543  7283 layer_factory.hpp:77] Creating layer ip3
I0504 01:23:07.133554  7283 net.cpp:86] Creating Layer ip3
I0504 01:23:07.133559  7283 net.cpp:408] ip3 <- ip2
I0504 01:23:07.133568  7283 net.cpp:382] ip3 -> ip3
I0504 01:23:07.133664  7283 net.cpp:124] Setting up ip3
I0504 01:23:07.133672  7283 net.cpp:131] Top shape: 111 10 (1110)
I0504 01:23:07.133677  7283 net.cpp:139] Memory required for data: 84686340
I0504 01:23:07.133685  7283 layer_factory.hpp:77] Creating layer loss
I0504 01:23:07.133693  7283 net.cpp:86] Creating Layer loss
I0504 01:23:07.133698  7283 net.cpp:408] loss <- ip3
I0504 01:23:07.133704  7283 net.cpp:408] loss <- label
I0504 01:23:07.133713  7283 net.cpp:382] loss -> loss
I0504 01:23:07.133738  7283 layer_factory.hpp:77] Creating layer loss
…
I0504 01:23:07.134407  7283 solver.cpp:173] Creating test net (#0) specified by net file: ECE595/cifar/train_test/var_everything_tiny/cifar_train_test_33.prototxt
I0504 01:23:07.134501  7283 net.cpp:296] The NetState phase (1) differed from the phase (0) specified by a rule in layer cifar
I0504 01:23:07.134606  7283 net.cpp:53] Initializing net from parameters: 
name: "CIFAR"
state {
  phase: TEST
}
layer {
  name: "cifar"
  type: "Data"
  top: "data"
  top: "label"
  include {
    phase: TEST
  }
  transform_param {
    mean_file: "examples/cifar10/mean.binaryproto"
  }
  data_param {
    source: "examples/cifar10/cifar10_test_lmdb"
    batch_size: 1000
    backend: LMDB
  }
}
layer {
  name: "conv0"
  type: "Convolution"
  bottom: "data"
  top: "conv0"
  param {
    lr_mult: 1
  }
  param {
    lr_mult: 2
  }
  convolution_param {
    num_output: 72
    pad: 2
    kernel_size: 3
    stride: 1
    weight_filler {
      type: "gaussian"
      std: 0.01
    }
    bias_filler {
      type: "constant"
    }
  }
}
layer {
  name: "Sigmoid0"
  type: "Sigmoid"
  bottom: "conv0"
  top: "Sigmoid0"
}
layer {
  name: "pool0"
  type: "Pooling"
  bottom: "Sigmoid0"
  top: "pool0"
  pooling_param {
    pool: AVE
    kernel_size: 3
    stride: 2
  }
}
layer {
  name: "ip1"
  type: "InnerProduct"
  bottom: "pool0"
  top: "ip1"
  param {
    lr_mult: 1
  }
  param {
    lr_mult: 2
  }
  inner_product_param {
    num_output: 180
    weight_filler {
      type: "gaussian"
      std: 0.01
    }
    bias_filler {
      type: "constant"
    }
  }
}
layer {
  name: "relu1"
  type: "ReLU"
  bottom: "ip1"
  top: "ip1"
}
layer {
  name: "ip2"
  type: "InnerProduct"
  bottom: "ip1"
  top: "ip2"
  param {
    lr_mult: 1
  }
  param {
    lr_mult: 2
  }
  inner_product_param {
    num_output: 10
    weight_filler {
      type: "gaussian"
      std: 0.01
    }
    bias_filler {
      type: "constant"
    }
  }
}
layer {
  name: "relu2"
  type: "ReLU"
  bottom: "ip2"
  top: "ip2"
}
layer {
  name: "ip3"
  type: "InnerProduct"
  bottom: "ip2"
  top: "ip3"
  param {
    lr_mult: 1
  }
  param {
    lr_mult: 2
  }
  inner_product_param {
    num_output: 10
    weight_filler {
      type: "gaussian"
      std: 0.01
    }
    bias_filler {
      type: "constant"
    }
  }
}
layer {
  name: "accuracy"
  type: "Accuracy"
  bottom: "ip3"
  bottom: "label"
  top: "accuracy"
  include {
    phase: TEST
  }
}
layer {
  name: "loss"
  type: "SoftmaxWithLoss"
  bottom: "ip3"
  bottom: "label"
  top: "loss"
}
I0504 01:23:07.134718  7283 layer_factory.hpp:77] Creating layer cifar
I0504 01:23:07.134794  7283 db_lmdb.cpp:35] Opened lmdb examples/cifar10/cifar10_test_lmdb
I0504 01:23:07.134810  7283 net.cpp:86] Creating Layer cifar
I0504 01:23:07.134817  7283 net.cpp:382] cifar -> data
I0504 01:23:07.134829  7283 net.cpp:382] cifar -> label
I0504 01:23:07.134838  7283 data_transformer.cpp:25] Loading mean file from: examples/cifar10/mean.binaryproto
I0504 01:23:07.135056  7283 data_layer.cpp:45] output data size: 1000,3,32,32
I0504 01:23:07.158082  7283 net.cpp:124] Setting up cifar
I0504 01:23:07.158112  7283 net.cpp:131] Top shape: 1000 3 32 32 (3072000)
I0504 01:23:07.158118  7283 net.cpp:131] Top shape: 1000 (1000)
I0504 01:23:07.158123  7283 net.cpp:139] Memory required for data: 12292000
I0504 01:23:07.158131  7283 layer_factory.hpp:77] Creating layer label_cifar_1_split
I0504 01:23:07.158167  7283 net.cpp:86] Creating Layer label_cifar_1_split
I0504 01:23:07.158179  7283 net.cpp:408] label_cifar_1_split <- label
I0504 01:23:07.158188  7283 net.cpp:382] label_cifar_1_split -> label_cifar_1_split_0
I0504 01:23:07.158202  7283 net.cpp:382] label_cifar_1_split -> label_cifar_1_split_1
I0504 01:23:07.158262  7283 net.cpp:124] Setting up label_cifar_1_split
I0504 01:23:07.158270  7283 net.cpp:131] Top shape: 1000 (1000)
I0504 01:23:07.158277  7283 net.cpp:131] Top shape: 1000 (1000)
I0504 01:23:07.158282  7283 net.cpp:139] Memory required for data: 12300000
I0504 01:23:07.158301  7283 layer_factory.hpp:77] Creating layer conv0
I0504 01:23:07.158318  7283 net.cpp:86] Creating Layer conv0
I0504 01:23:07.158329  7283 net.cpp:408] conv0 <- data
I0504 01:23:07.158337  7283 net.cpp:382] conv0 -> conv0
I0504 01:23:07.159860  7283 net.cpp:124] Setting up conv0
I0504 01:23:07.159875  7283 net.cpp:131] Top shape: 1000 72 34 34 (83232000)
I0504 01:23:07.159883  7283 net.cpp:139] Memory required for data: 345228000
I0504 01:23:07.159898  7283 layer_factory.hpp:77] Creating layer Sigmoid0
I0504 01:23:07.159906  7283 net.cpp:86] Creating Layer Sigmoid0
I0504 01:23:07.159911  7283 net.cpp:408] Sigmoid0 <- conv0
I0504 01:23:07.159919  7283 net.cpp:382] Sigmoid0 -> Sigmoid0
I0504 01:23:07.161722  7283 net.cpp:124] Setting up Sigmoid0
I0504 01:23:07.161738  7283 net.cpp:131] Top shape: 1000 72 34 34 (83232000)
I0504 01:23:07.161744  7283 net.cpp:139] Memory required for data: 678156000
I0504 01:23:07.161749  7283 layer_factory.hpp:77] Creating layer pool0
I0504 01:23:07.161761  7283 net.cpp:86] Creating Layer pool0
I0504 01:23:07.161767  7283 net.cpp:408] pool0 <- Sigmoid0
I0504 01:23:07.161775  7283 net.cpp:382] pool0 -> pool0
I0504 01:23:07.161969  7283 net.cpp:124] Setting up pool0
I0504 01:23:07.161979  7283 net.cpp:131] Top shape: 1000 72 17 17 (20808000)
I0504 01:23:07.161984  7283 net.cpp:139] Memory required for data: 761388000
I0504 01:23:07.161989  7283 layer_factory.hpp:77] Creating layer ip1
I0504 01:23:07.162000  7283 net.cpp:86] Creating Layer ip1
I0504 01:23:07.162005  7283 net.cpp:408] ip1 <- pool0
I0504 01:23:07.162014  7283 net.cpp:382] ip1 -> ip1
I0504 01:23:07.266239  7283 net.cpp:124] Setting up ip1
I0504 01:23:07.266263  7283 net.cpp:131] Top shape: 1000 180 (180000)
I0504 01:23:07.266268  7283 net.cpp:139] Memory required for data: 762108000
I0504 01:23:07.266300  7283 layer_factory.hpp:77] Creating layer relu1
I0504 01:23:07.266312  7283 net.cpp:86] Creating Layer relu1
I0504 01:23:07.266319  7283 net.cpp:408] relu1 <- ip1
I0504 01:23:07.266327  7283 net.cpp:369] relu1 -> ip1 (in-place)
I0504 01:23:07.266525  7283 net.cpp:124] Setting up relu1
I0504 01:23:07.266535  7283 net.cpp:131] Top shape: 1000 180 (180000)
I0504 01:23:07.266540  7283 net.cpp:139] Memory required for data: 762828000
I0504 01:23:07.266544  7283 layer_factory.hpp:77] Creating layer ip2
I0504 01:23:07.266554  7283 net.cpp:86] Creating Layer ip2
I0504 01:23:07.266559  7283 net.cpp:408] ip2 <- ip1
I0504 01:23:07.266567  7283 net.cpp:382] ip2 -> ip2
I0504 01:23:07.266731  7283 net.cpp:124] Setting up ip2
I0504 01:23:07.266741  7283 net.cpp:131] Top shape: 1000 10 (10000)
I0504 01:23:07.266746  7283 net.cpp:139] Memory required for data: 762868000
I0504 01:23:07.266757  7283 layer_factory.hpp:77] Creating layer relu2
I0504 01:23:07.266767  7283 net.cpp:86] Creating Layer relu2
I0504 01:23:07.266772  7283 net.cpp:408] relu2 <- ip2
I0504 01:23:07.266779  7283 net.cpp:369] relu2 -> ip2 (in-place)
I0504 01:23:07.266960  7283 net.cpp:124] Setting up relu2
I0504 01:23:07.266969  7283 net.cpp:131] Top shape: 1000 10 (10000)
I0504 01:23:07.266974  7283 net.cpp:139] Memory required for data: 762908000
I0504 01:23:07.266980  7283 layer_factory.hpp:77] Creating layer ip3
I0504 01:23:07.266989  7283 net.cpp:86] Creating Layer ip3
I0504 01:23:07.266995  7283 net.cpp:408] ip3 <- ip2
I0504 01:23:07.267004  7283 net.cpp:382] ip3 -> ip3
I0504 01:23:07.267117  7283 net.cpp:124] Setting up ip3
I0504 01:23:07.267125  7283 net.cpp:131] Top shape: 1000 10 (10000)
I0504 01:23:07.267164  7283 net.cpp:139] Memory required for data: 762948000
I0504 01:23:07.267174  7283 layer_factory.hpp:77] Creating layer ip3_ip3_0_split
I0504 01:23:07.267182  7283 net.cpp:86] Creating Layer ip3_ip3_0_split
I0504 01:23:07.267187  7283 net.cpp:408] ip3_ip3_0_split <- ip3
I0504 01:23:07.267195  7283 net.cpp:382] ip3_ip3_0_split -> ip3_ip3_0_split_0
I0504 01:23:07.267204  7283 net.cpp:382] ip3_ip3_0_split -> ip3_ip3_0_split_1
I0504 01:23:07.267243  7283 net.cpp:124] Setting up ip3_ip3_0_split
I0504 01:23:07.267251  7283 net.cpp:131] Top shape: 1000 10 (10000)
I0504 01:23:07.267257  7283 net.cpp:131] Top shape: 1000 10 (10000)
I0504 01:23:07.267261  7283 net.cpp:139] Memory required for data: 763028000
I0504 01:23:07.267266  7283 layer_factory.hpp:77] Creating layer accuracy
I0504 01:23:07.267276  7283 net.cpp:86] Creating Layer accuracy
I0504 01:23:07.267280  7283 net.cpp:408] accuracy <- ip3_ip3_0_split_0
I0504 01:23:07.267287  7283 net.cpp:408] accuracy <- label_cifar_1_split_0
I0504 01:23:07.267295  7283 net.cpp:382] accuracy -> accuracy
…
