…
I0504 06:01:26.425017 15393 net.cpp:296] The NetState phase (0) differed from the phase (1) specified by a rule in layer cifar
I0504 06:01:26.425034 15393 net.cpp:296] The NetState phase (0) differed from the phase (1) specified by a rule in layer accuracy
I0504 06:01:26.425122 15393 net.cpp:53] Initializing net from parameters: 
name: "CIFAR"
state {
  phase: TRAIN
  level: 0
  stage: ""
}
layer {
  name: "cifar"
  type: "Data"
  top: "data"
  top: "label"
  include {
    phase: TRAIN
  }
  transform_param {
    mean_file: "examples/cifar10/mean.binaryproto"
  }
  data_param {
    source: "examples/cifar10/cifar10_train_lmdb"
    batch_size: 111
    backend: LMDB
  }
}
layer {
  name: "conv0"
  type: "Convolution"
  bottom: "data"
  top: "conv0"
  param {
    lr_mult: 1
  }
  param {
    lr_mult: 2
  }
  convolution_param {
    num_output: 216
    pad: 2
    kernel_size: 5
    stride: 1
    weight_filler {
      type: "gaussian"
      std: 0.01
    }
    bias_filler {
      type: "constant"
    }
  }
}
layer {
  name: "Sigmoid0"
  type: "Sigmoid"
  bottom: "conv0"
  top: "Sigmoid0"
}
layer {
  name: "pool0"
  type: "Pooling"
  bottom: "Sigmoid0"
  top: "pool0"
  pooling_param {
    pool: AVE
    kernel_size: 3
    stride: 2
  }
}
layer {
  name: "ip1"
  type: "InnerProduct"
  bottom: "pool0"
  top: "ip1"
  param {
    lr_mult: 1
  }
  param {
    lr_mult: 2
  }
  inner_product_param {
    num_output: 60
    weight_filler {
      type: "gaussian"
      std: 0.01
    }
    bias_filler {
      type: "constant"
    }
  }
}
layer {
  name: "relu1"
  type: "ReLU"
  bottom: "ip1"
  top: "ip1"
}
layer {
  name: "ip2"
  type: "InnerProduct"
  bottom: "ip1"
  top: "ip2"
  param {
    lr_mult: 1
  }
  param {
    lr_mult: 2
  }
  inner_product_param {
    num_output: 10
    weight_filler {
      type: "gaussian"
      std: 0.01
    }
    bias_filler {
      type: "constant"
    }
  }
}
layer {
  name: "relu2"
  type: "ReLU"
  bottom: "ip2"
  top: "ip2"
}
layer {
  name: "ip3"
  type: "InnerProduct"
  bottom: "ip2"
  top: "ip3"
  param {
    lr_mult: 1
  }
  param {
    lr_mult: 2
  }
  inner_product_param {
    num_output: 10
    weight_filler {
      type: "gaussian"
      std: 0.01
    }
    bias_filler {
      type: "constant"
    }
  }
}
layer {
  name: "loss"
  type: "SoftmaxWithLoss"
  bottom: "ip3"
  bottom: "label"
  top: "loss"
}
I0504 06:01:26.425190 15393 layer_factory.hpp:77] Creating layer cifar
I0504 06:01:26.425293 15393 db_lmdb.cpp:35] Opened lmdb examples/cifar10/cifar10_train_lmdb
I0504 06:01:26.425321 15393 net.cpp:86] Creating Layer cifar
I0504 06:01:26.425329 15393 net.cpp:382] cifar -> data
I0504 06:01:26.425353 15393 net.cpp:382] cifar -> label
I0504 06:01:26.425364 15393 data_transformer.cpp:25] Loading mean file from: examples/cifar10/mean.binaryproto
I0504 06:01:26.427467 15393 data_layer.cpp:45] output data size: 111,3,32,32
I0504 06:01:26.435319 15393 net.cpp:124] Setting up cifar
I0504 06:01:26.435338 15393 net.cpp:131] Top shape: 111 3 32 32 (340992)
I0504 06:01:26.435345 15393 net.cpp:131] Top shape: 111 (111)
I0504 06:01:26.435349 15393 net.cpp:139] Memory required for data: 1364412
I0504 06:01:26.435358 15393 layer_factory.hpp:77] Creating layer conv0
I0504 06:01:26.435375 15393 net.cpp:86] Creating Layer conv0
I0504 06:01:26.435381 15393 net.cpp:408] conv0 <- data
I0504 06:01:26.435394 15393 net.cpp:382] conv0 -> conv0
I0504 06:01:26.695938 15393 net.cpp:124] Setting up conv0
I0504 06:01:26.695997 15393 net.cpp:131] Top shape: 111 216 32 32 (24551424)
I0504 06:01:26.696002 15393 net.cpp:139] Memory required for data: 99570108
I0504 06:01:26.696017 15393 layer_factory.hpp:77] Creating layer Sigmoid0
I0504 06:01:26.696028 15393 net.cpp:86] Creating Layer Sigmoid0
I0504 06:01:26.696033 15393 net.cpp:408] Sigmoid0 <- conv0
I0504 06:01:26.696038 15393 net.cpp:382] Sigmoid0 -> Sigmoid0
I0504 06:01:26.696199 15393 net.cpp:124] Setting up Sigmoid0
I0504 06:01:26.696209 15393 net.cpp:131] Top shape: 111 216 32 32 (24551424)
I0504 06:01:26.696213 15393 net.cpp:139] Memory required for data: 197775804
I0504 06:01:26.696215 15393 layer_factory.hpp:77] Creating layer pool0
I0504 06:01:26.696223 15393 net.cpp:86] Creating Layer pool0
I0504 06:01:26.696225 15393 net.cpp:408] pool0 <- Sigmoid0
I0504 06:01:26.696229 15393 net.cpp:382] pool0 -> pool0
I0504 06:01:26.696924 15393 net.cpp:124] Setting up pool0
I0504 06:01:26.696951 15393 net.cpp:131] Top shape: 111 216 16 16 (6137856)
I0504 06:01:26.696955 15393 net.cpp:139] Memory required for data: 222327228
I0504 06:01:26.696959 15393 layer_factory.hpp:77] Creating layer ip1
I0504 06:01:26.696979 15393 net.cpp:86] Creating Layer ip1
I0504 06:01:26.696982 15393 net.cpp:408] ip1 <- pool0
I0504 06:01:26.696987 15393 net.cpp:382] ip1 -> ip1
I0504 06:01:26.783207 15393 net.cpp:124] Setting up ip1
I0504 06:01:26.783237 15393 net.cpp:131] Top shape: 111 60 (6660)
I0504 06:01:26.783241 15393 net.cpp:139] Memory required for data: 222353868
I0504 06:01:26.783265 15393 layer_factory.hpp:77] Creating layer relu1
I0504 06:01:26.783272 15393 net.cpp:86] Creating Layer relu1
I0504 06:01:26.783275 15393 net.cpp:408] relu1 <- ip1
I0504 06:01:26.783279 15393 net.cpp:369] relu1 -> ip1 (in-place)
I0504 06:01:26.783432 15393 net.cpp:124] Setting up relu1
I0504 06:01:26.783442 15393 net.cpp:131] Top shape: 111 60 (6660)
I0504 06:01:26.783444 15393 net.cpp:139] Memory required for data: 222380508
I0504 06:01:26.783448 15393 layer_factory.hpp:77] Creating layer ip2
I0504 06:01:26.783455 15393 net.cpp:86] Creating Layer ip2
I0504 06:01:26.783458 15393 net.cpp:408] ip2 <- ip1
I0504 06:01:26.783464 15393 net.cpp:382] ip2 -> ip2
I0504 06:01:26.783563 15393 net.cpp:124] Setting up ip2
I0504 06:01:26.783571 15393 net.cpp:131] Top shape: 111 10 (1110)
I0504 06:01:26.783573 15393 net.cpp:139] Memory required for data: 222384948
I0504 06:01:26.783581 15393 layer_factory.hpp:77] Creating layer relu2
I0504 06:01:26.783584 15393 net.cpp:86] Creating Layer relu2
I0504 06:01:26.783587 15393 net.cpp:408] relu2 <- ip2
I0504 06:01:26.783607 15393 net.cpp:369] relu2 -> ip2 (in-place)
I0504 06:01:26.783767 15393 net.cpp:124] Setting up relu2
I0504 06:01:26.783776 15393 net.cpp:131] Top shape: 111 10 (1110)
I0504 06:01:26.783778 15393 net.cpp:139] Memory required for data: 222389388
I0504 06:01:26.783782 15393 layer_factory.hpp:77] Creating layer ip3
I0504 06:01:26.783789 15393 net.cpp:86] Creating Layer ip3
I0504 06:01:26.783792 15393 net.cpp:408] ip3 <- ip2
I0504 06:01:26.783797 15393 net.cpp:382] ip3 -> ip3
I0504 06:01:26.783900 15393 net.cpp:124] Setting up ip3
I0504 06:01:26.783906 15393 net.cpp:131] Top shape: 111 10 (1110)
I0504 06:01:26.783908 15393 net.cpp:139] Memory required for data: 222393828
I0504 06:01:26.783913 15393 layer_factory.hpp:77] Creating layer loss
I0504 06:01:26.783918 15393 net.cpp:86] Creating Layer loss
I0504 06:01:26.783921 15393 net.cpp:408] loss <- ip3
I0504 06:01:26.783926 15393 net.cpp:408] loss <- label
I0504 06:01:26.783931 15393 net.cpp:382] loss -> loss
I0504 06:01:26.783947 15393 layer_factory.hpp:77] Creating layer loss
…
I0504 06:01:26.784538 15393 solver.cpp:173] Creating test net (#0) specified by net file: ECE595/cifar/train_test/var_everything_tiny/cifar_train_test_66.prototxt
I0504 06:01:26.784579 15393 net.cpp:296] The NetState phase (1) differed from the phase (0) specified by a rule in layer cifar
I0504 06:01:26.784667 15393 net.cpp:53] Initializing net from parameters: 
name: "CIFAR"
state {
  phase: TEST
}
layer {
  name: "cifar"
  type: "Data"
  top: "data"
  top: "label"
  include {
    phase: TEST
  }
  transform_param {
    mean_file: "examples/cifar10/mean.binaryproto"
  }
  data_param {
    source: "examples/cifar10/cifar10_test_lmdb"
    batch_size: 1000
    backend: LMDB
  }
}
layer {
  name: "conv0"
  type: "Convolution"
  bottom: "data"
  top: "conv0"
  param {
    lr_mult: 1
  }
  param {
    lr_mult: 2
  }
  convolution_param {
    num_output: 216
    pad: 2
    kernel_size: 5
    stride: 1
    weight_filler {
      type: "gaussian"
      std: 0.01
    }
    bias_filler {
      type: "constant"
    }
  }
}
layer {
  name: "Sigmoid0"
  type: "Sigmoid"
  bottom: "conv0"
  top: "Sigmoid0"
}
layer {
  name: "pool0"
  type: "Pooling"
  bottom: "Sigmoid0"
  top: "pool0"
  pooling_param {
    pool: AVE
    kernel_size: 3
    stride: 2
  }
}
layer {
  name: "ip1"
  type: "InnerProduct"
  bottom: "pool0"
  top: "ip1"
  param {
    lr_mult: 1
  }
  param {
    lr_mult: 2
  }
  inner_product_param {
    num_output: 60
    weight_filler {
      type: "gaussian"
      std: 0.01
    }
    bias_filler {
      type: "constant"
    }
  }
}
layer {
  name: "relu1"
  type: "ReLU"
  bottom: "ip1"
  top: "ip1"
}
layer {
  name: "ip2"
  type: "InnerProduct"
  bottom: "ip1"
  top: "ip2"
  param {
    lr_mult: 1
  }
  param {
    lr_mult: 2
  }
  inner_product_param {
    num_output: 10
    weight_filler {
      type: "gaussian"
      std: 0.01
    }
    bias_filler {
      type: "constant"
    }
  }
}
layer {
  name: "relu2"
  type: "ReLU"
  bottom: "ip2"
  top: "ip2"
}
layer {
  name: "ip3"
  type: "InnerProduct"
  bottom: "ip2"
  top: "ip3"
  param {
    lr_mult: 1
  }
  param {
    lr_mult: 2
  }
  inner_product_param {
    num_output: 10
    weight_filler {
      type: "gaussian"
      std: 0.01
    }
    bias_filler {
      type: "constant"
    }
  }
}
layer {
  name: "accuracy"
  type: "Accuracy"
  bottom: "ip3"
  bottom: "label"
  top: "accuracy"
  include {
    phase: TEST
  }
}
layer {
  name: "loss"
  type: "SoftmaxWithLoss"
  bottom: "ip3"
  bottom: "label"
  top: "loss"
}
I0504 06:01:26.784732 15393 layer_factory.hpp:77] Creating layer cifar
I0504 06:01:26.784793 15393 db_lmdb.cpp:35] Opened lmdb examples/cifar10/cifar10_test_lmdb
I0504 06:01:26.784806 15393 net.cpp:86] Creating Layer cifar
I0504 06:01:26.784816 15393 net.cpp:382] cifar -> data
I0504 06:01:26.784823 15393 net.cpp:382] cifar -> label
I0504 06:01:26.784829 15393 data_transformer.cpp:25] Loading mean file from: examples/cifar10/mean.binaryproto
I0504 06:01:26.784989 15393 data_layer.cpp:45] output data size: 1000,3,32,32
I0504 06:01:26.806512 15393 net.cpp:124] Setting up cifar
I0504 06:01:26.806552 15393 net.cpp:131] Top shape: 1000 3 32 32 (3072000)
I0504 06:01:26.806558 15393 net.cpp:131] Top shape: 1000 (1000)
I0504 06:01:26.806561 15393 net.cpp:139] Memory required for data: 12292000
I0504 06:01:26.806567 15393 layer_factory.hpp:77] Creating layer label_cifar_1_split
I0504 06:01:26.806601 15393 net.cpp:86] Creating Layer label_cifar_1_split
I0504 06:01:26.806604 15393 net.cpp:408] label_cifar_1_split <- label
I0504 06:01:26.806610 15393 net.cpp:382] label_cifar_1_split -> label_cifar_1_split_0
I0504 06:01:26.806619 15393 net.cpp:382] label_cifar_1_split -> label_cifar_1_split_1
I0504 06:01:26.806694 15393 net.cpp:124] Setting up label_cifar_1_split
I0504 06:01:26.806701 15393 net.cpp:131] Top shape: 1000 (1000)
I0504 06:01:26.806704 15393 net.cpp:131] Top shape: 1000 (1000)
I0504 06:01:26.806707 15393 net.cpp:139] Memory required for data: 12300000
I0504 06:01:26.806710 15393 layer_factory.hpp:77] Creating layer conv0
I0504 06:01:26.806722 15393 net.cpp:86] Creating Layer conv0
I0504 06:01:26.806725 15393 net.cpp:408] conv0 <- data
I0504 06:01:26.806730 15393 net.cpp:382] conv0 -> conv0
I0504 06:01:26.808645 15393 net.cpp:124] Setting up conv0
I0504 06:01:26.808672 15393 net.cpp:131] Top shape: 1000 216 32 32 (221184000)
I0504 06:01:26.808676 15393 net.cpp:139] Memory required for data: 897036000
I0504 06:01:26.808686 15393 layer_factory.hpp:77] Creating layer Sigmoid0
I0504 06:01:26.808693 15393 net.cpp:86] Creating Layer Sigmoid0
I0504 06:01:26.808696 15393 net.cpp:408] Sigmoid0 <- conv0
I0504 06:01:26.808701 15393 net.cpp:382] Sigmoid0 -> Sigmoid0
I0504 06:01:26.810489 15393 net.cpp:124] Setting up Sigmoid0
I0504 06:01:26.810503 15393 net.cpp:131] Top shape: 1000 216 32 32 (221184000)
I0504 06:01:26.810505 15393 net.cpp:139] Memory required for data: 1781772000
I0504 06:01:26.810524 15393 layer_factory.hpp:77] Creating layer pool0
I0504 06:01:26.810534 15393 net.cpp:86] Creating Layer pool0
I0504 06:01:26.810536 15393 net.cpp:408] pool0 <- Sigmoid0
I0504 06:01:26.810541 15393 net.cpp:382] pool0 -> pool0
I0504 06:01:26.810703 15393 net.cpp:124] Setting up pool0
I0504 06:01:26.810710 15393 net.cpp:131] Top shape: 1000 216 16 16 (55296000)
I0504 06:01:26.810714 15393 net.cpp:139] Memory required for data: 2002956000
I0504 06:01:26.810717 15393 layer_factory.hpp:77] Creating layer ip1
I0504 06:01:26.810724 15393 net.cpp:86] Creating Layer ip1
I0504 06:01:26.810727 15393 net.cpp:408] ip1 <- pool0
I0504 06:01:26.810732 15393 net.cpp:382] ip1 -> ip1
I0504 06:01:26.900218 15393 net.cpp:124] Setting up ip1
I0504 06:01:26.900243 15393 net.cpp:131] Top shape: 1000 60 (60000)
I0504 06:01:26.900246 15393 net.cpp:139] Memory required for data: 2003196000
I0504 06:01:26.900259 15393 layer_factory.hpp:77] Creating layer relu1
I0504 06:01:26.900267 15393 net.cpp:86] Creating Layer relu1
I0504 06:01:26.900271 15393 net.cpp:408] relu1 <- ip1
I0504 06:01:26.900276 15393 net.cpp:369] relu1 -> ip1 (in-place)
I0504 06:01:26.900485 15393 net.cpp:124] Setting up relu1
I0504 06:01:26.900492 15393 net.cpp:131] Top shape: 1000 60 (60000)
I0504 06:01:26.900496 15393 net.cpp:139] Memory required for data: 2003436000
I0504 06:01:26.900498 15393 layer_factory.hpp:77] Creating layer ip2
I0504 06:01:26.900506 15393 net.cpp:86] Creating Layer ip2
I0504 06:01:26.900509 15393 net.cpp:408] ip2 <- ip1
I0504 06:01:26.900513 15393 net.cpp:382] ip2 -> ip2
I0504 06:01:26.900632 15393 net.cpp:124] Setting up ip2
I0504 06:01:26.900640 15393 net.cpp:131] Top shape: 1000 10 (10000)
I0504 06:01:26.900642 15393 net.cpp:139] Memory required for data: 2003476000
I0504 06:01:26.900648 15393 layer_factory.hpp:77] Creating layer relu2
I0504 06:01:26.900655 15393 net.cpp:86] Creating Layer relu2
I0504 06:01:26.900657 15393 net.cpp:408] relu2 <- ip2
I0504 06:01:26.900661 15393 net.cpp:369] relu2 -> ip2 (in-place)
I0504 06:01:26.900807 15393 net.cpp:124] Setting up relu2
I0504 06:01:26.900820 15393 net.cpp:131] Top shape: 1000 10 (10000)
I0504 06:01:26.900825 15393 net.cpp:139] Memory required for data: 2003516000
I0504 06:01:26.900827 15393 layer_factory.hpp:77] Creating layer ip3
I0504 06:01:26.900833 15393 net.cpp:86] Creating Layer ip3
I0504 06:01:26.900835 15393 net.cpp:408] ip3 <- ip2
I0504 06:01:26.900840 15393 net.cpp:382] ip3 -> ip3
I0504 06:01:26.900935 15393 net.cpp:124] Setting up ip3
I0504 06:01:26.900943 15393 net.cpp:131] Top shape: 1000 10 (10000)
I0504 06:01:26.900959 15393 net.cpp:139] Memory required for data: 2003556000
I0504 06:01:26.900965 15393 layer_factory.hpp:77] Creating layer ip3_ip3_0_split
I0504 06:01:26.900970 15393 net.cpp:86] Creating Layer ip3_ip3_0_split
I0504 06:01:26.900974 15393 net.cpp:408] ip3_ip3_0_split <- ip3
I0504 06:01:26.900977 15393 net.cpp:382] ip3_ip3_0_split -> ip3_ip3_0_split_0
I0504 06:01:26.900984 15393 net.cpp:382] ip3_ip3_0_split -> ip3_ip3_0_split_1
I0504 06:01:26.901012 15393 net.cpp:124] Setting up ip3_ip3_0_split
I0504 06:01:26.901017 15393 net.cpp:131] Top shape: 1000 10 (10000)
I0504 06:01:26.901021 15393 net.cpp:131] Top shape: 1000 10 (10000)
I0504 06:01:26.901022 15393 net.cpp:139] Memory required for data: 2003636000
I0504 06:01:26.901026 15393 layer_factory.hpp:77] Creating layer accuracy
I0504 06:01:26.901031 15393 net.cpp:86] Creating Layer accuracy
I0504 06:01:26.901033 15393 net.cpp:408] accuracy <- ip3_ip3_0_split_0
I0504 06:01:26.901037 15393 net.cpp:408] accuracy <- label_cifar_1_split_0
I0504 06:01:26.901041 15393 net.cpp:382] accuracy -> accuracy
…
