…
I0504 04:46:02.711463 12832 net.cpp:296] The NetState phase (0) differed from the phase (1) specified by a rule in layer cifar
I0504 04:46:02.711480 12832 net.cpp:296] The NetState phase (0) differed from the phase (1) specified by a rule in layer accuracy
I0504 04:46:02.711572 12832 net.cpp:53] Initializing net from parameters: 
name: "CIFAR"
state {
  phase: TRAIN
  level: 0
  stage: ""
}
layer {
  name: "cifar"
  type: "Data"
  top: "data"
  top: "label"
  include {
    phase: TRAIN
  }
  transform_param {
    mean_file: "examples/cifar10/mean.binaryproto"
  }
  data_param {
    source: "examples/cifar10/cifar10_train_lmdb"
    batch_size: 111
    backend: LMDB
  }
}
layer {
  name: "conv0"
  type: "Convolution"
  bottom: "data"
  top: "conv0"
  param {
    lr_mult: 1
  }
  param {
    lr_mult: 2
  }
  convolution_param {
    num_output: 216
    pad: 2
    kernel_size: 3
    stride: 1
    weight_filler {
      type: "gaussian"
      std: 0.01
    }
    bias_filler {
      type: "constant"
    }
  }
}
layer {
  name: "Sigmoid0"
  type: "Sigmoid"
  bottom: "conv0"
  top: "Sigmoid0"
}
layer {
  name: "pool0"
  type: "Pooling"
  bottom: "Sigmoid0"
  top: "pool0"
  pooling_param {
    pool: AVE
    kernel_size: 3
    stride: 2
  }
}
layer {
  name: "ip1"
  type: "InnerProduct"
  bottom: "pool0"
  top: "ip1"
  param {
    lr_mult: 1
  }
  param {
    lr_mult: 2
  }
  inner_product_param {
    num_output: 180
    weight_filler {
      type: "gaussian"
      std: 0.01
    }
    bias_filler {
      type: "constant"
    }
  }
}
layer {
  name: "relu1"
  type: "ReLU"
  bottom: "ip1"
  top: "ip1"
}
layer {
  name: "ip2"
  type: "InnerProduct"
  bottom: "ip1"
  top: "ip2"
  param {
    lr_mult: 1
  }
  param {
    lr_mult: 2
  }
  inner_product_param {
    num_output: 180
    weight_filler {
      type: "gaussian"
      std: 0.01
    }
    bias_filler {
      type: "constant"
    }
  }
}
layer {
  name: "relu2"
  type: "ReLU"
  bottom: "ip2"
  top: "ip2"
}
layer {
  name: "ip3"
  type: "InnerProduct"
  bottom: "ip2"
  top: "ip3"
  param {
    lr_mult: 1
  }
  param {
    lr_mult: 2
  }
  inner_product_param {
    num_output: 10
    weight_filler {
      type: "gaussian"
      std: 0.01
    }
    bias_filler {
      type: "constant"
    }
  }
}
layer {
  name: "loss"
  type: "SoftmaxWithLoss"
  bottom: "ip3"
  bottom: "label"
  top: "loss"
}
I0504 04:46:02.711647 12832 layer_factory.hpp:77] Creating layer cifar
I0504 04:46:02.711747 12832 db_lmdb.cpp:35] Opened lmdb examples/cifar10/cifar10_train_lmdb
I0504 04:46:02.711773 12832 net.cpp:86] Creating Layer cifar
I0504 04:46:02.711782 12832 net.cpp:382] cifar -> data
I0504 04:46:02.711804 12832 net.cpp:382] cifar -> label
I0504 04:46:02.711817 12832 data_transformer.cpp:25] Loading mean file from: examples/cifar10/mean.binaryproto
I0504 04:46:02.715270 12832 data_layer.cpp:45] output data size: 111,3,32,32
I0504 04:46:02.723193 12832 net.cpp:124] Setting up cifar
I0504 04:46:02.723213 12832 net.cpp:131] Top shape: 111 3 32 32 (340992)
I0504 04:46:02.723219 12832 net.cpp:131] Top shape: 111 (111)
I0504 04:46:02.723223 12832 net.cpp:139] Memory required for data: 1364412
I0504 04:46:02.723230 12832 layer_factory.hpp:77] Creating layer conv0
I0504 04:46:02.723250 12832 net.cpp:86] Creating Layer conv0
I0504 04:46:02.723256 12832 net.cpp:408] conv0 <- data
I0504 04:46:02.723270 12832 net.cpp:382] conv0 -> conv0
I0504 04:46:03.007930 12832 net.cpp:124] Setting up conv0
I0504 04:46:03.007977 12832 net.cpp:131] Top shape: 111 216 34 34 (27716256)
I0504 04:46:03.007982 12832 net.cpp:139] Memory required for data: 112229436
I0504 04:46:03.007997 12832 layer_factory.hpp:77] Creating layer Sigmoid0
I0504 04:46:03.008008 12832 net.cpp:86] Creating Layer Sigmoid0
I0504 04:46:03.008013 12832 net.cpp:408] Sigmoid0 <- conv0
I0504 04:46:03.008018 12832 net.cpp:382] Sigmoid0 -> Sigmoid0
I0504 04:46:03.008193 12832 net.cpp:124] Setting up Sigmoid0
I0504 04:46:03.008203 12832 net.cpp:131] Top shape: 111 216 34 34 (27716256)
I0504 04:46:03.008206 12832 net.cpp:139] Memory required for data: 223094460
I0504 04:46:03.008209 12832 layer_factory.hpp:77] Creating layer pool0
I0504 04:46:03.008216 12832 net.cpp:86] Creating Layer pool0
I0504 04:46:03.008219 12832 net.cpp:408] pool0 <- Sigmoid0
I0504 04:46:03.008224 12832 net.cpp:382] pool0 -> pool0
I0504 04:46:03.008936 12832 net.cpp:124] Setting up pool0
I0504 04:46:03.008950 12832 net.cpp:131] Top shape: 111 216 17 17 (6929064)
I0504 04:46:03.008954 12832 net.cpp:139] Memory required for data: 250810716
I0504 04:46:03.008957 12832 layer_factory.hpp:77] Creating layer ip1
I0504 04:46:03.008965 12832 net.cpp:86] Creating Layer ip1
I0504 04:46:03.008970 12832 net.cpp:408] ip1 <- pool0
I0504 04:46:03.008975 12832 net.cpp:382] ip1 -> ip1
I0504 04:46:03.290690 12832 net.cpp:124] Setting up ip1
I0504 04:46:03.290714 12832 net.cpp:131] Top shape: 111 180 (19980)
I0504 04:46:03.290717 12832 net.cpp:139] Memory required for data: 250890636
I0504 04:46:03.290729 12832 layer_factory.hpp:77] Creating layer relu1
I0504 04:46:03.290737 12832 net.cpp:86] Creating Layer relu1
I0504 04:46:03.290741 12832 net.cpp:408] relu1 <- ip1
I0504 04:46:03.290746 12832 net.cpp:369] relu1 -> ip1 (in-place)
I0504 04:46:03.290947 12832 net.cpp:124] Setting up relu1
I0504 04:46:03.290956 12832 net.cpp:131] Top shape: 111 180 (19980)
I0504 04:46:03.290959 12832 net.cpp:139] Memory required for data: 250970556
I0504 04:46:03.290962 12832 layer_factory.hpp:77] Creating layer ip2
I0504 04:46:03.290969 12832 net.cpp:86] Creating Layer ip2
I0504 04:46:03.290972 12832 net.cpp:408] ip2 <- ip1
I0504 04:46:03.290992 12832 net.cpp:382] ip2 -> ip2
I0504 04:46:03.292794 12832 net.cpp:124] Setting up ip2
I0504 04:46:03.292806 12832 net.cpp:131] Top shape: 111 180 (19980)
I0504 04:46:03.292830 12832 net.cpp:139] Memory required for data: 251050476
I0504 04:46:03.292855 12832 layer_factory.hpp:77] Creating layer relu2
I0504 04:46:03.292860 12832 net.cpp:86] Creating Layer relu2
I0504 04:46:03.292863 12832 net.cpp:408] relu2 <- ip2
I0504 04:46:03.292867 12832 net.cpp:369] relu2 -> ip2 (in-place)
I0504 04:46:03.293052 12832 net.cpp:124] Setting up relu2
I0504 04:46:03.293061 12832 net.cpp:131] Top shape: 111 180 (19980)
I0504 04:46:03.293064 12832 net.cpp:139] Memory required for data: 251130396
I0504 04:46:03.293067 12832 layer_factory.hpp:77] Creating layer ip3
I0504 04:46:03.293076 12832 net.cpp:86] Creating Layer ip3
I0504 04:46:03.293078 12832 net.cpp:408] ip3 <- ip2
I0504 04:46:03.293083 12832 net.cpp:382] ip3 -> ip3
I0504 04:46:03.293253 12832 net.cpp:124] Setting up ip3
I0504 04:46:03.293261 12832 net.cpp:131] Top shape: 111 10 (1110)
I0504 04:46:03.293263 12832 net.cpp:139] Memory required for data: 251134836
I0504 04:46:03.293268 12832 layer_factory.hpp:77] Creating layer loss
I0504 04:46:03.293274 12832 net.cpp:86] Creating Layer loss
I0504 04:46:03.293277 12832 net.cpp:408] loss <- ip3
I0504 04:46:03.293280 12832 net.cpp:408] loss <- label
I0504 04:46:03.293287 12832 net.cpp:382] loss -> loss
I0504 04:46:03.293305 12832 layer_factory.hpp:77] Creating layer loss
…
I0504 04:46:03.293890 12832 solver.cpp:173] Creating test net (#0) specified by net file: ECE595/cifar/train_test/var_everything_tiny/cifar_train_test_59.prototxt
I0504 04:46:03.293915 12832 net.cpp:296] The NetState phase (1) differed from the phase (0) specified by a rule in layer cifar
I0504 04:46:03.293998 12832 net.cpp:53] Initializing net from parameters: 
name: "CIFAR"
state {
  phase: TEST
}
layer {
  name: "cifar"
  type: "Data"
  top: "data"
  top: "label"
  include {
    phase: TEST
  }
  transform_param {
    mean_file: "examples/cifar10/mean.binaryproto"
  }
  data_param {
    source: "examples/cifar10/cifar10_test_lmdb"
    batch_size: 1000
    backend: LMDB
  }
}
layer {
  name: "conv0"
  type: "Convolution"
  bottom: "data"
  top: "conv0"
  param {
    lr_mult: 1
  }
  param {
    lr_mult: 2
  }
  convolution_param {
    num_output: 216
    pad: 2
    kernel_size: 3
    stride: 1
    weight_filler {
      type: "gaussian"
      std: 0.01
    }
    bias_filler {
      type: "constant"
    }
  }
}
layer {
  name: "Sigmoid0"
  type: "Sigmoid"
  bottom: "conv0"
  top: "Sigmoid0"
}
layer {
  name: "pool0"
  type: "Pooling"
  bottom: "Sigmoid0"
  top: "pool0"
  pooling_param {
    pool: AVE
    kernel_size: 3
    stride: 2
  }
}
layer {
  name: "ip1"
  type: "InnerProduct"
  bottom: "pool0"
  top: "ip1"
  param {
    lr_mult: 1
  }
  param {
    lr_mult: 2
  }
  inner_product_param {
    num_output: 180
    weight_filler {
      type: "gaussian"
      std: 0.01
    }
    bias_filler {
      type: "constant"
    }
  }
}
layer {
  name: "relu1"
  type: "ReLU"
  bottom: "ip1"
  top: "ip1"
}
layer {
  name: "ip2"
  type: "InnerProduct"
  bottom: "ip1"
  top: "ip2"
  param {
    lr_mult: 1
  }
  param {
    lr_mult: 2
  }
  inner_product_param {
    num_output: 180
    weight_filler {
      type: "gaussian"
      std: 0.01
    }
    bias_filler {
      type: "constant"
    }
  }
}
layer {
  name: "relu2"
  type: "ReLU"
  bottom: "ip2"
  top: "ip2"
}
layer {
  name: "ip3"
  type: "InnerProduct"
  bottom: "ip2"
  top: "ip3"
  param {
    lr_mult: 1
  }
  param {
    lr_mult: 2
  }
  inner_product_param {
    num_output: 10
    weight_filler {
      type: "gaussian"
      std: 0.01
    }
    bias_filler {
      type: "constant"
    }
  }
}
layer {
  name: "accuracy"
  type: "Accuracy"
  bottom: "ip3"
  bottom: "label"
  top: "accuracy"
  include {
    phase: TEST
  }
}
layer {
  name: "loss"
  type: "SoftmaxWithLoss"
  bottom: "ip3"
  bottom: "label"
  top: "loss"
}
I0504 04:46:03.294057 12832 layer_factory.hpp:77] Creating layer cifar
I0504 04:46:03.294104 12832 db_lmdb.cpp:35] Opened lmdb examples/cifar10/cifar10_test_lmdb
I0504 04:46:03.294116 12832 net.cpp:86] Creating Layer cifar
I0504 04:46:03.294121 12832 net.cpp:382] cifar -> data
I0504 04:46:03.294127 12832 net.cpp:382] cifar -> label
I0504 04:46:03.294134 12832 data_transformer.cpp:25] Loading mean file from: examples/cifar10/mean.binaryproto
I0504 04:46:03.294301 12832 data_layer.cpp:45] output data size: 1000,3,32,32
I0504 04:46:03.315940 12832 net.cpp:124] Setting up cifar
I0504 04:46:03.315981 12832 net.cpp:131] Top shape: 1000 3 32 32 (3072000)
I0504 04:46:03.315987 12832 net.cpp:131] Top shape: 1000 (1000)
I0504 04:46:03.315991 12832 net.cpp:139] Memory required for data: 12292000
I0504 04:46:03.315997 12832 layer_factory.hpp:77] Creating layer label_cifar_1_split
I0504 04:46:03.316028 12832 net.cpp:86] Creating Layer label_cifar_1_split
I0504 04:46:03.316033 12832 net.cpp:408] label_cifar_1_split <- label
I0504 04:46:03.316040 12832 net.cpp:382] label_cifar_1_split -> label_cifar_1_split_0
I0504 04:46:03.316049 12832 net.cpp:382] label_cifar_1_split -> label_cifar_1_split_1
I0504 04:46:03.316103 12832 net.cpp:124] Setting up label_cifar_1_split
I0504 04:46:03.316110 12832 net.cpp:131] Top shape: 1000 (1000)
I0504 04:46:03.316114 12832 net.cpp:131] Top shape: 1000 (1000)
I0504 04:46:03.316118 12832 net.cpp:139] Memory required for data: 12300000
I0504 04:46:03.316120 12832 layer_factory.hpp:77] Creating layer conv0
I0504 04:46:03.316133 12832 net.cpp:86] Creating Layer conv0
I0504 04:46:03.316138 12832 net.cpp:408] conv0 <- data
I0504 04:46:03.316159 12832 net.cpp:382] conv0 -> conv0
I0504 04:46:03.318647 12832 net.cpp:124] Setting up conv0
I0504 04:46:03.318677 12832 net.cpp:131] Top shape: 1000 216 34 34 (249696000)
I0504 04:46:03.318681 12832 net.cpp:139] Memory required for data: 1011084000
I0504 04:46:03.318692 12832 layer_factory.hpp:77] Creating layer Sigmoid0
I0504 04:46:03.318699 12832 net.cpp:86] Creating Layer Sigmoid0
I0504 04:46:03.318702 12832 net.cpp:408] Sigmoid0 <- conv0
I0504 04:46:03.318707 12832 net.cpp:382] Sigmoid0 -> Sigmoid0
I0504 04:46:03.320562 12832 net.cpp:124] Setting up Sigmoid0
I0504 04:46:03.320592 12832 net.cpp:131] Top shape: 1000 216 34 34 (249696000)
I0504 04:46:03.320596 12832 net.cpp:139] Memory required for data: 2009868000
I0504 04:46:03.320600 12832 layer_factory.hpp:77] Creating layer pool0
I0504 04:46:03.320610 12832 net.cpp:86] Creating Layer pool0
I0504 04:46:03.320613 12832 net.cpp:408] pool0 <- Sigmoid0
I0504 04:46:03.320619 12832 net.cpp:382] pool0 -> pool0
I0504 04:46:03.320825 12832 net.cpp:124] Setting up pool0
I0504 04:46:03.320835 12832 net.cpp:131] Top shape: 1000 216 17 17 (62424000)
I0504 04:46:03.320839 12832 net.cpp:139] Memory required for data: 2259564000
I0504 04:46:03.320842 12832 layer_factory.hpp:77] Creating layer ip1
I0504 04:46:03.320852 12832 net.cpp:86] Creating Layer ip1
I0504 04:46:03.320858 12832 net.cpp:408] ip1 <- pool0
I0504 04:46:03.320863 12832 net.cpp:382] ip1 -> ip1
I0504 04:46:03.638872 12832 net.cpp:124] Setting up ip1
I0504 04:46:03.638897 12832 net.cpp:131] Top shape: 1000 180 (180000)
I0504 04:46:03.638900 12832 net.cpp:139] Memory required for data: 2260284000
I0504 04:46:03.638912 12832 layer_factory.hpp:77] Creating layer relu1
I0504 04:46:03.638922 12832 net.cpp:86] Creating Layer relu1
I0504 04:46:03.638926 12832 net.cpp:408] relu1 <- ip1
I0504 04:46:03.638947 12832 net.cpp:369] relu1 -> ip1 (in-place)
I0504 04:46:03.639150 12832 net.cpp:124] Setting up relu1
I0504 04:46:03.639159 12832 net.cpp:131] Top shape: 1000 180 (180000)
I0504 04:46:03.639163 12832 net.cpp:139] Memory required for data: 2261004000
I0504 04:46:03.639165 12832 layer_factory.hpp:77] Creating layer ip2
I0504 04:46:03.639174 12832 net.cpp:86] Creating Layer ip2
I0504 04:46:03.639178 12832 net.cpp:408] ip2 <- ip1
I0504 04:46:03.639183 12832 net.cpp:382] ip2 -> ip2
I0504 04:46:03.640161 12832 net.cpp:124] Setting up ip2
I0504 04:46:03.640171 12832 net.cpp:131] Top shape: 1000 180 (180000)
I0504 04:46:03.640173 12832 net.cpp:139] Memory required for data: 2261724000
I0504 04:46:03.640180 12832 layer_factory.hpp:77] Creating layer relu2
I0504 04:46:03.640189 12832 net.cpp:86] Creating Layer relu2
I0504 04:46:03.640193 12832 net.cpp:408] relu2 <- ip2
I0504 04:46:03.640197 12832 net.cpp:369] relu2 -> ip2 (in-place)
I0504 04:46:03.640348 12832 net.cpp:124] Setting up relu2
I0504 04:46:03.640357 12832 net.cpp:131] Top shape: 1000 180 (180000)
I0504 04:46:03.640359 12832 net.cpp:139] Memory required for data: 2262444000
I0504 04:46:03.640362 12832 layer_factory.hpp:77] Creating layer ip3
I0504 04:46:03.640368 12832 net.cpp:86] Creating Layer ip3
I0504 04:46:03.640372 12832 net.cpp:408] ip3 <- ip2
I0504 04:46:03.640377 12832 net.cpp:382] ip3 -> ip3
I0504 04:46:03.640527 12832 net.cpp:124] Setting up ip3
I0504 04:46:03.640534 12832 net.cpp:131] Top shape: 1000 10 (10000)
I0504 04:46:03.640552 12832 net.cpp:139] Memory required for data: 2262484000
I0504 04:46:03.640558 12832 layer_factory.hpp:77] Creating layer ip3_ip3_0_split
I0504 04:46:03.640563 12832 net.cpp:86] Creating Layer ip3_ip3_0_split
I0504 04:46:03.640566 12832 net.cpp:408] ip3_ip3_0_split <- ip3
I0504 04:46:03.640571 12832 net.cpp:382] ip3_ip3_0_split -> ip3_ip3_0_split_0
I0504 04:46:03.640578 12832 net.cpp:382] ip3_ip3_0_split -> ip3_ip3_0_split_1
I0504 04:46:03.640607 12832 net.cpp:124] Setting up ip3_ip3_0_split
I0504 04:46:03.640615 12832 net.cpp:131] Top shape: 1000 10 (10000)
I0504 04:46:03.640619 12832 net.cpp:131] Top shape: 1000 10 (10000)
I0504 04:46:03.640622 12832 net.cpp:139] Memory required for data: 2262564000
I0504 04:46:03.640625 12832 layer_factory.hpp:77] Creating layer accuracy
I0504 04:46:03.640630 12832 net.cpp:86] Creating Layer accuracy
I0504 04:46:03.640635 12832 net.cpp:408] accuracy <- ip3_ip3_0_split_0
I0504 04:46:03.640637 12832 net.cpp:408] accuracy <- label_cifar_1_split_0
I0504 04:46:03.640642 12832 net.cpp:382] accuracy -> accuracy
…
