…
I0504 13:55:47.963402  1720 net.cpp:296] The NetState phase (0) differed from the phase (1) specified by a rule in layer cifar
I0504 13:55:47.963416  1720 net.cpp:296] The NetState phase (0) differed from the phase (1) specified by a rule in layer accuracy
I0504 13:55:47.963510  1720 net.cpp:53] Initializing net from parameters: 
name: "CIFAR"
state {
  phase: TRAIN
  level: 0
  stage: ""
}
layer {
  name: "cifar"
  type: "Data"
  top: "data"
  top: "label"
  include {
    phase: TRAIN
  }
  transform_param {
    mean_file: "examples/cifar10/mean.binaryproto"
  }
  data_param {
    source: "examples/cifar10/cifar10_train_lmdb"
    batch_size: 111
    backend: LMDB
  }
}
layer {
  name: "conv0"
  type: "Convolution"
  bottom: "data"
  top: "conv0"
  param {
    lr_mult: 1
  }
  param {
    lr_mult: 2
  }
  convolution_param {
    num_output: 24
    pad: 2
    kernel_size: 5
    stride: 1
    weight_filler {
      type: "gaussian"
      std: 0.01
    }
    bias_filler {
      type: "constant"
    }
  }
}
layer {
  name: "Sigmoid0"
  type: "Sigmoid"
  bottom: "conv0"
  top: "Sigmoid0"
}
layer {
  name: "pool0"
  type: "Pooling"
  bottom: "Sigmoid0"
  top: "pool0"
  pooling_param {
    pool: AVE
    kernel_size: 3
    stride: 2
  }
}
layer {
  name: "conv1"
  type: "Convolution"
  bottom: "pool0"
  top: "conv1"
  param {
    lr_mult: 1
  }
  param {
    lr_mult: 2
  }
  convolution_param {
    num_output: 216
    pad: 2
    kernel_size: 5
    stride: 1
    weight_filler {
      type: "gaussian"
      std: 0.01
    }
    bias_filler {
      type: "constant"
    }
  }
}
layer {
  name: "Sigmoid1"
  type: "Sigmoid"
  bottom: "conv1"
  top: "Sigmoid1"
}
layer {
  name: "pool1"
  type: "Pooling"
  bottom: "Sigmoid1"
  top: "pool1"
  pooling_param {
    pool: AVE
    kernel_size: 3
    stride: 2
  }
}
layer {
  name: "ip1"
  type: "InnerProduct"
  bottom: "pool1"
  top: "ip1"
  param {
    lr_mult: 1
  }
  param {
    lr_mult: 2
  }
  inner_product_param {
    num_output: 10
    weight_filler {
      type: "gaussian"
      std: 0.01
    }
    bias_filler {
      type: "constant"
    }
  }
}
layer {
  name: "relu1"
  type: "ReLU"
  bottom: "ip1"
  top: "ip1"
}
layer {
  name: "ip2"
  type: "InnerProduct"
  bottom: "ip1"
  top: "ip2"
  param {
    lr_mult: 1
  }
  param {
    lr_mult: 2
  }
  inner_product_param {
    num_output: 10
    weight_filler {
      type: "gaussian"
      std: 0.01
    }
    bias_filler {
      type: "constant"
    }
  }
}
layer {
  name: "loss"
  type: "SoftmaxWithLoss"
  bottom: "ip2"
  bottom: "label"
  top: "loss"
}
I0504 13:55:47.963568  1720 layer_factory.hpp:77] Creating layer cifar
I0504 13:55:47.963647  1720 db_lmdb.cpp:35] Opened lmdb examples/cifar10/cifar10_train_lmdb
I0504 13:55:47.963670  1720 net.cpp:86] Creating Layer cifar
I0504 13:55:47.963677  1720 net.cpp:382] cifar -> data
I0504 13:55:47.963696  1720 net.cpp:382] cifar -> label
I0504 13:55:47.963706  1720 data_transformer.cpp:25] Loading mean file from: examples/cifar10/mean.binaryproto
I0504 13:55:47.965528  1720 data_layer.cpp:45] output data size: 111,3,32,32
I0504 13:55:47.971846  1720 net.cpp:124] Setting up cifar
I0504 13:55:47.971860  1720 net.cpp:131] Top shape: 111 3 32 32 (340992)
I0504 13:55:47.971865  1720 net.cpp:131] Top shape: 111 (111)
I0504 13:55:47.971868  1720 net.cpp:139] Memory required for data: 1364412
I0504 13:55:47.971873  1720 layer_factory.hpp:77] Creating layer conv0
I0504 13:55:47.971918  1720 net.cpp:86] Creating Layer conv0
I0504 13:55:47.971949  1720 net.cpp:408] conv0 <- data
I0504 13:55:47.971961  1720 net.cpp:382] conv0 -> conv0
I0504 13:55:48.201555  1720 net.cpp:124] Setting up conv0
I0504 13:55:48.201581  1720 net.cpp:131] Top shape: 111 24 32 32 (2727936)
I0504 13:55:48.201586  1720 net.cpp:139] Memory required for data: 12276156
I0504 13:55:48.201599  1720 layer_factory.hpp:77] Creating layer Sigmoid0
I0504 13:55:48.201625  1720 net.cpp:86] Creating Layer Sigmoid0
I0504 13:55:48.201630  1720 net.cpp:408] Sigmoid0 <- conv0
I0504 13:55:48.201635  1720 net.cpp:382] Sigmoid0 -> Sigmoid0
I0504 13:55:48.201797  1720 net.cpp:124] Setting up Sigmoid0
I0504 13:55:48.201805  1720 net.cpp:131] Top shape: 111 24 32 32 (2727936)
I0504 13:55:48.201808  1720 net.cpp:139] Memory required for data: 23187900
I0504 13:55:48.201812  1720 layer_factory.hpp:77] Creating layer pool0
I0504 13:55:48.201818  1720 net.cpp:86] Creating Layer pool0
I0504 13:55:48.201822  1720 net.cpp:408] pool0 <- Sigmoid0
I0504 13:55:48.201825  1720 net.cpp:382] pool0 -> pool0
I0504 13:55:48.202527  1720 net.cpp:124] Setting up pool0
I0504 13:55:48.202539  1720 net.cpp:131] Top shape: 111 24 16 16 (681984)
I0504 13:55:48.202543  1720 net.cpp:139] Memory required for data: 25915836
I0504 13:55:48.202546  1720 layer_factory.hpp:77] Creating layer conv1
I0504 13:55:48.202558  1720 net.cpp:86] Creating Layer conv1
I0504 13:55:48.202577  1720 net.cpp:408] conv1 <- pool0
I0504 13:55:48.202582  1720 net.cpp:382] conv1 -> conv1
I0504 13:55:48.207453  1720 net.cpp:124] Setting up conv1
I0504 13:55:48.207465  1720 net.cpp:131] Top shape: 111 216 16 16 (6137856)
I0504 13:55:48.207468  1720 net.cpp:139] Memory required for data: 50467260
I0504 13:55:48.207476  1720 layer_factory.hpp:77] Creating layer Sigmoid1
I0504 13:55:48.207482  1720 net.cpp:86] Creating Layer Sigmoid1
I0504 13:55:48.207485  1720 net.cpp:408] Sigmoid1 <- conv1
I0504 13:55:48.207489  1720 net.cpp:382] Sigmoid1 -> Sigmoid1
I0504 13:55:48.207660  1720 net.cpp:124] Setting up Sigmoid1
I0504 13:55:48.207669  1720 net.cpp:131] Top shape: 111 216 16 16 (6137856)
I0504 13:55:48.207672  1720 net.cpp:139] Memory required for data: 75018684
I0504 13:55:48.207676  1720 layer_factory.hpp:77] Creating layer pool1
I0504 13:55:48.207681  1720 net.cpp:86] Creating Layer pool1
I0504 13:55:48.207684  1720 net.cpp:408] pool1 <- Sigmoid1
I0504 13:55:48.207689  1720 net.cpp:382] pool1 -> pool1
I0504 13:55:48.207836  1720 net.cpp:124] Setting up pool1
I0504 13:55:48.207844  1720 net.cpp:131] Top shape: 111 216 8 8 (1534464)
I0504 13:55:48.207847  1720 net.cpp:139] Memory required for data: 81156540
I0504 13:55:48.207850  1720 layer_factory.hpp:77] Creating layer ip1
I0504 13:55:48.207856  1720 net.cpp:86] Creating Layer ip1
I0504 13:55:48.207859  1720 net.cpp:408] ip1 <- pool1
I0504 13:55:48.207864  1720 net.cpp:382] ip1 -> ip1
I0504 13:55:48.211455  1720 net.cpp:124] Setting up ip1
I0504 13:55:48.211463  1720 net.cpp:131] Top shape: 111 10 (1110)
I0504 13:55:48.211467  1720 net.cpp:139] Memory required for data: 81160980
I0504 13:55:48.211473  1720 layer_factory.hpp:77] Creating layer relu1
I0504 13:55:48.211479  1720 net.cpp:86] Creating Layer relu1
I0504 13:55:48.211483  1720 net.cpp:408] relu1 <- ip1
I0504 13:55:48.211486  1720 net.cpp:369] relu1 -> ip1 (in-place)
I0504 13:55:48.211647  1720 net.cpp:124] Setting up relu1
I0504 13:55:48.211654  1720 net.cpp:131] Top shape: 111 10 (1110)
I0504 13:55:48.211658  1720 net.cpp:139] Memory required for data: 81165420
I0504 13:55:48.211660  1720 layer_factory.hpp:77] Creating layer ip2
I0504 13:55:48.211666  1720 net.cpp:86] Creating Layer ip2
I0504 13:55:48.211669  1720 net.cpp:408] ip2 <- ip1
I0504 13:55:48.211673  1720 net.cpp:382] ip2 -> ip2
I0504 13:55:48.211768  1720 net.cpp:124] Setting up ip2
I0504 13:55:48.211776  1720 net.cpp:131] Top shape: 111 10 (1110)
I0504 13:55:48.211778  1720 net.cpp:139] Memory required for data: 81169860
I0504 13:55:48.211783  1720 layer_factory.hpp:77] Creating layer loss
I0504 13:55:48.211788  1720 net.cpp:86] Creating Layer loss
I0504 13:55:48.211804  1720 net.cpp:408] loss <- ip2
I0504 13:55:48.211823  1720 net.cpp:408] loss <- label
I0504 13:55:48.211827  1720 net.cpp:382] loss -> loss
I0504 13:55:48.211859  1720 layer_factory.hpp:77] Creating layer loss
…
I0504 13:55:48.213093  1720 solver.cpp:173] Creating test net (#0) specified by net file: ECE595/cifar/train_test/var_everything_tiny/cifar_train_test_168.prototxt
I0504 13:55:48.213136  1720 net.cpp:296] The NetState phase (1) differed from the phase (0) specified by a rule in layer cifar
I0504 13:55:48.213268  1720 net.cpp:53] Initializing net from parameters: 
name: "CIFAR"
state {
  phase: TEST
}
layer {
  name: "cifar"
  type: "Data"
  top: "data"
  top: "label"
  include {
    phase: TEST
  }
  transform_param {
    mean_file: "examples/cifar10/mean.binaryproto"
  }
  data_param {
    source: "examples/cifar10/cifar10_test_lmdb"
    batch_size: 1000
    backend: LMDB
  }
}
layer {
  name: "conv0"
  type: "Convolution"
  bottom: "data"
  top: "conv0"
  param {
    lr_mult: 1
  }
  param {
    lr_mult: 2
  }
  convolution_param {
    num_output: 24
    pad: 2
    kernel_size: 5
    stride: 1
    weight_filler {
      type: "gaussian"
      std: 0.01
    }
    bias_filler {
      type: "constant"
    }
  }
}
layer {
  name: "Sigmoid0"
  type: "Sigmoid"
  bottom: "conv0"
  top: "Sigmoid0"
}
layer {
  name: "pool0"
  type: "Pooling"
  bottom: "Sigmoid0"
  top: "pool0"
  pooling_param {
    pool: AVE
    kernel_size: 3
    stride: 2
  }
}
layer {
  name: "conv1"
  type: "Convolution"
  bottom: "pool0"
  top: "conv1"
  param {
    lr_mult: 1
  }
  param {
    lr_mult: 2
  }
  convolution_param {
    num_output: 216
    pad: 2
    kernel_size: 5
    stride: 1
    weight_filler {
      type: "gaussian"
      std: 0.01
    }
    bias_filler {
      type: "constant"
    }
  }
}
layer {
  name: "Sigmoid1"
  type: "Sigmoid"
  bottom: "conv1"
  top: "Sigmoid1"
}
layer {
  name: "pool1"
  type: "Pooling"
  bottom: "Sigmoid1"
  top: "pool1"
  pooling_param {
    pool: AVE
    kernel_size: 3
    stride: 2
  }
}
layer {
  name: "ip1"
  type: "InnerProduct"
  bottom: "pool1"
  top: "ip1"
  param {
    lr_mult: 1
  }
  param {
    lr_mult: 2
  }
  inner_product_param {
    num_output: 10
    weight_filler {
      type: "gaussian"
      std: 0.01
    }
    bias_filler {
      type: "constant"
    }
  }
}
layer {
  name: "relu1"
  type: "ReLU"
  bottom: "ip1"
  top: "ip1"
}
layer {
  name: "ip2"
  type: "InnerProduct"
  bottom: "ip1"
  top: "ip2"
  param {
    lr_mult: 1
  }
  param {
    lr_mult: 2
  }
  inner_product_param {
    num_output: 10
    weight_filler {
      type: "gaussian"
      std: 0.01
    }
    bias_filler {
      type: "constant"
    }
  }
}
layer {
  name: "accuracy"
  type: "Accuracy"
  bottom: "ip2"
  bottom: "label"
  top: "accuracy"
  include {
    phase: TEST
  }
}
layer {
  name: "loss"
  type: "SoftmaxWithLoss"
  bottom: "ip2"
  bottom: "label"
  top: "loss"
}
I0504 13:55:48.213340  1720 layer_factory.hpp:77] Creating layer cifar
I0504 13:55:48.213384  1720 db_lmdb.cpp:35] Opened lmdb examples/cifar10/cifar10_test_lmdb
I0504 13:55:48.213395  1720 net.cpp:86] Creating Layer cifar
I0504 13:55:48.213400  1720 net.cpp:382] cifar -> data
I0504 13:55:48.213407  1720 net.cpp:382] cifar -> label
I0504 13:55:48.213413  1720 data_transformer.cpp:25] Loading mean file from: examples/cifar10/mean.binaryproto
I0504 13:55:48.213573  1720 data_layer.cpp:45] output data size: 1000,3,32,32
I0504 13:55:48.235061  1720 net.cpp:124] Setting up cifar
I0504 13:55:48.235105  1720 net.cpp:131] Top shape: 1000 3 32 32 (3072000)
I0504 13:55:48.235110  1720 net.cpp:131] Top shape: 1000 (1000)
I0504 13:55:48.235113  1720 net.cpp:139] Memory required for data: 12292000
I0504 13:55:48.235121  1720 layer_factory.hpp:77] Creating layer label_cifar_1_split
I0504 13:55:48.235139  1720 net.cpp:86] Creating Layer label_cifar_1_split
I0504 13:55:48.235143  1720 net.cpp:408] label_cifar_1_split <- label
I0504 13:55:48.235164  1720 net.cpp:382] label_cifar_1_split -> label_cifar_1_split_0
I0504 13:55:48.235172  1720 net.cpp:382] label_cifar_1_split -> label_cifar_1_split_1
I0504 13:55:48.235270  1720 net.cpp:124] Setting up label_cifar_1_split
I0504 13:55:48.235277  1720 net.cpp:131] Top shape: 1000 (1000)
I0504 13:55:48.235281  1720 net.cpp:131] Top shape: 1000 (1000)
I0504 13:55:48.235285  1720 net.cpp:139] Memory required for data: 12300000
I0504 13:55:48.235287  1720 layer_factory.hpp:77] Creating layer conv0
I0504 13:55:48.235299  1720 net.cpp:86] Creating Layer conv0
I0504 13:55:48.235302  1720 net.cpp:408] conv0 <- data
I0504 13:55:48.235308  1720 net.cpp:382] conv0 -> conv0
I0504 13:55:48.236150  1720 net.cpp:124] Setting up conv0
I0504 13:55:48.236161  1720 net.cpp:131] Top shape: 1000 24 32 32 (24576000)
I0504 13:55:48.236179  1720 net.cpp:139] Memory required for data: 110604000
I0504 13:55:48.236188  1720 layer_factory.hpp:77] Creating layer Sigmoid0
I0504 13:55:48.236194  1720 net.cpp:86] Creating Layer Sigmoid0
I0504 13:55:48.236197  1720 net.cpp:408] Sigmoid0 <- conv0
I0504 13:55:48.236202  1720 net.cpp:382] Sigmoid0 -> Sigmoid0
I0504 13:55:48.237121  1720 net.cpp:124] Setting up Sigmoid0
I0504 13:55:48.237149  1720 net.cpp:131] Top shape: 1000 24 32 32 (24576000)
I0504 13:55:48.237152  1720 net.cpp:139] Memory required for data: 208908000
I0504 13:55:48.237155  1720 layer_factory.hpp:77] Creating layer pool0
I0504 13:55:48.237164  1720 net.cpp:86] Creating Layer pool0
I0504 13:55:48.237182  1720 net.cpp:408] pool0 <- Sigmoid0
I0504 13:55:48.237188  1720 net.cpp:382] pool0 -> pool0
I0504 13:55:48.238346  1720 net.cpp:124] Setting up pool0
I0504 13:55:48.238355  1720 net.cpp:131] Top shape: 1000 24 16 16 (6144000)
I0504 13:55:48.238374  1720 net.cpp:139] Memory required for data: 233484000
I0504 13:55:48.238378  1720 layer_factory.hpp:77] Creating layer conv1
I0504 13:55:48.238386  1720 net.cpp:86] Creating Layer conv1
I0504 13:55:48.238389  1720 net.cpp:408] conv1 <- pool0
I0504 13:55:48.238395  1720 net.cpp:382] conv1 -> conv1
I0504 13:55:48.242827  1720 net.cpp:124] Setting up conv1
I0504 13:55:48.242856  1720 net.cpp:131] Top shape: 1000 216 16 16 (55296000)
I0504 13:55:48.242859  1720 net.cpp:139] Memory required for data: 454668000
I0504 13:55:48.242868  1720 layer_factory.hpp:77] Creating layer Sigmoid1
I0504 13:55:48.242873  1720 net.cpp:86] Creating Layer Sigmoid1
I0504 13:55:48.242877  1720 net.cpp:408] Sigmoid1 <- conv1
I0504 13:55:48.242882  1720 net.cpp:382] Sigmoid1 -> Sigmoid1
I0504 13:55:48.243057  1720 net.cpp:124] Setting up Sigmoid1
I0504 13:55:48.243065  1720 net.cpp:131] Top shape: 1000 216 16 16 (55296000)
I0504 13:55:48.243069  1720 net.cpp:139] Memory required for data: 675852000
I0504 13:55:48.243072  1720 layer_factory.hpp:77] Creating layer pool1
I0504 13:55:48.243077  1720 net.cpp:86] Creating Layer pool1
I0504 13:55:48.243082  1720 net.cpp:408] pool1 <- Sigmoid1
I0504 13:55:48.243099  1720 net.cpp:382] pool1 -> pool1
I0504 13:55:48.243257  1720 net.cpp:124] Setting up pool1
I0504 13:55:48.243264  1720 net.cpp:131] Top shape: 1000 216 8 8 (13824000)
I0504 13:55:48.243268  1720 net.cpp:139] Memory required for data: 731148000
I0504 13:55:48.243270  1720 layer_factory.hpp:77] Creating layer ip1
I0504 13:55:48.243279  1720 net.cpp:86] Creating Layer ip1
I0504 13:55:48.243283  1720 net.cpp:408] ip1 <- pool1
I0504 13:55:48.243289  1720 net.cpp:382] ip1 -> ip1
I0504 13:55:48.246948  1720 net.cpp:124] Setting up ip1
I0504 13:55:48.246956  1720 net.cpp:131] Top shape: 1000 10 (10000)
I0504 13:55:48.246975  1720 net.cpp:139] Memory required for data: 731188000
I0504 13:55:48.246983  1720 layer_factory.hpp:77] Creating layer relu1
I0504 13:55:48.246987  1720 net.cpp:86] Creating Layer relu1
I0504 13:55:48.246991  1720 net.cpp:408] relu1 <- ip1
I0504 13:55:48.246995  1720 net.cpp:369] relu1 -> ip1 (in-place)
I0504 13:55:48.247735  1720 net.cpp:124] Setting up relu1
I0504 13:55:48.247746  1720 net.cpp:131] Top shape: 1000 10 (10000)
I0504 13:55:48.247764  1720 net.cpp:139] Memory required for data: 731228000
I0504 13:55:48.247768  1720 layer_factory.hpp:77] Creating layer ip2
I0504 13:55:48.247776  1720 net.cpp:86] Creating Layer ip2
I0504 13:55:48.247778  1720 net.cpp:408] ip2 <- ip1
I0504 13:55:48.247783  1720 net.cpp:382] ip2 -> ip2
I0504 13:55:48.247903  1720 net.cpp:124] Setting up ip2
I0504 13:55:48.247910  1720 net.cpp:131] Top shape: 1000 10 (10000)
I0504 13:55:48.247913  1720 net.cpp:139] Memory required for data: 731268000
I0504 13:55:48.247920  1720 layer_factory.hpp:77] Creating layer ip2_ip2_0_split
I0504 13:55:48.247925  1720 net.cpp:86] Creating Layer ip2_ip2_0_split
I0504 13:55:48.247927  1720 net.cpp:408] ip2_ip2_0_split <- ip2
I0504 13:55:48.247932  1720 net.cpp:382] ip2_ip2_0_split -> ip2_ip2_0_split_0
I0504 13:55:48.247937  1720 net.cpp:382] ip2_ip2_0_split -> ip2_ip2_0_split_1
I0504 13:55:48.247967  1720 net.cpp:124] Setting up ip2_ip2_0_split
I0504 13:55:48.247972  1720 net.cpp:131] Top shape: 1000 10 (10000)
I0504 13:55:48.247975  1720 net.cpp:131] Top shape: 1000 10 (10000)
I0504 13:55:48.247978  1720 net.cpp:139] Memory required for data: 731348000
I0504 13:55:48.247982  1720 layer_factory.hpp:77] Creating layer accuracy
I0504 13:55:48.247987  1720 net.cpp:86] Creating Layer accuracy
I0504 13:55:48.247989  1720 net.cpp:408] accuracy <- ip2_ip2_0_split_0
I0504 13:55:48.247993  1720 net.cpp:408] accuracy <- label_cifar_1_split_0
I0504 13:55:48.247998  1720 net.cpp:382] accuracy -> accuracy
…
