…
I0504 17:06:42.904405 10921 net.cpp:296] The NetState phase (0) differed from the phase (1) specified by a rule in layer cifar
I0504 17:06:42.904423 10921 net.cpp:296] The NetState phase (0) differed from the phase (1) specified by a rule in layer accuracy
I0504 17:06:42.904528 10921 net.cpp:53] Initializing net from parameters: 
name: "CIFAR"
state {
  phase: TRAIN
  level: 0
  stage: ""
}
layer {
  name: "cifar"
  type: "Data"
  top: "data"
  top: "label"
  include {
    phase: TRAIN
  }
  transform_param {
    mean_file: "examples/cifar10/mean.binaryproto"
  }
  data_param {
    source: "examples/cifar10/cifar10_train_lmdb"
    batch_size: 111
    backend: LMDB
  }
}
layer {
  name: "conv0"
  type: "Convolution"
  bottom: "data"
  top: "conv0"
  param {
    lr_mult: 1
  }
  param {
    lr_mult: 2
  }
  convolution_param {
    num_output: 72
    pad: 2
    kernel_size: 5
    stride: 1
    weight_filler {
      type: "gaussian"
      std: 0.01
    }
    bias_filler {
      type: "constant"
    }
  }
}
layer {
  name: "Sigmoid0"
  type: "Sigmoid"
  bottom: "conv0"
  top: "Sigmoid0"
}
layer {
  name: "pool0"
  type: "Pooling"
  bottom: "Sigmoid0"
  top: "pool0"
  pooling_param {
    pool: AVE
    kernel_size: 3
    stride: 2
  }
}
layer {
  name: "conv1"
  type: "Convolution"
  bottom: "pool0"
  top: "conv1"
  param {
    lr_mult: 1
  }
  param {
    lr_mult: 2
  }
  convolution_param {
    num_output: 72
    pad: 2
    kernel_size: 3
    stride: 1
    weight_filler {
      type: "gaussian"
      std: 0.01
    }
    bias_filler {
      type: "constant"
    }
  }
}
layer {
  name: "Sigmoid1"
  type: "Sigmoid"
  bottom: "conv1"
  top: "Sigmoid1"
}
layer {
  name: "pool1"
  type: "Pooling"
  bottom: "Sigmoid1"
  top: "pool1"
  pooling_param {
    pool: AVE
    kernel_size: 3
    stride: 2
  }
}
layer {
  name: "ip1"
  type: "InnerProduct"
  bottom: "pool1"
  top: "ip1"
  param {
    lr_mult: 1
  }
  param {
    lr_mult: 2
  }
  inner_product_param {
    num_output: 180
    weight_filler {
      type: "gaussian"
      std: 0.01
    }
    bias_filler {
      type: "constant"
    }
  }
}
layer {
  name: "relu1"
  type: "ReLU"
  bottom: "ip1"
  top: "ip1"
}
layer {
  name: "ip2"
  type: "InnerProduct"
  bottom: "ip1"
  top: "ip2"
  param {
    lr_mult: 1
  }
  param {
    lr_mult: 2
  }
  inner_product_param {
    num_output: 10
    weight_filler {
      type: "gaussian"
      std: 0.01
    }
    bias_filler {
      type: "constant"
    }
  }
}
layer {
  name: "loss"
  type: "SoftmaxWithLoss"
  bottom: "ip2"
  bottom: "label"
  top: "loss"
}
I0504 17:06:42.904608 10921 layer_factory.hpp:77] Creating layer cifar
I0504 17:06:42.904711 10921 db_lmdb.cpp:35] Opened lmdb examples/cifar10/cifar10_train_lmdb
I0504 17:06:42.904737 10921 net.cpp:86] Creating Layer cifar
I0504 17:06:42.904747 10921 net.cpp:382] cifar -> data
I0504 17:06:42.904770 10921 net.cpp:382] cifar -> label
I0504 17:06:42.904783 10921 data_transformer.cpp:25] Loading mean file from: examples/cifar10/mean.binaryproto
I0504 17:06:42.906970 10921 data_layer.cpp:45] output data size: 111,3,32,32
I0504 17:06:42.915894 10921 net.cpp:124] Setting up cifar
I0504 17:06:42.915915 10921 net.cpp:131] Top shape: 111 3 32 32 (340992)
I0504 17:06:42.915921 10921 net.cpp:131] Top shape: 111 (111)
I0504 17:06:42.915925 10921 net.cpp:139] Memory required for data: 1364412
I0504 17:06:42.915932 10921 layer_factory.hpp:77] Creating layer conv0
I0504 17:06:42.915953 10921 net.cpp:86] Creating Layer conv0
I0504 17:06:42.915976 10921 net.cpp:408] conv0 <- data
I0504 17:06:42.915990 10921 net.cpp:382] conv0 -> conv0
I0504 17:06:43.213804 10921 net.cpp:124] Setting up conv0
I0504 17:06:43.213837 10921 net.cpp:131] Top shape: 111 72 32 32 (8183808)
I0504 17:06:43.213842 10921 net.cpp:139] Memory required for data: 34099644
I0504 17:06:43.213861 10921 layer_factory.hpp:77] Creating layer Sigmoid0
I0504 17:06:43.213876 10921 net.cpp:86] Creating Layer Sigmoid0
I0504 17:06:43.213881 10921 net.cpp:408] Sigmoid0 <- conv0
I0504 17:06:43.213888 10921 net.cpp:382] Sigmoid0 -> Sigmoid0
I0504 17:06:43.214108 10921 net.cpp:124] Setting up Sigmoid0
I0504 17:06:43.214120 10921 net.cpp:131] Top shape: 111 72 32 32 (8183808)
I0504 17:06:43.214125 10921 net.cpp:139] Memory required for data: 66834876
I0504 17:06:43.214129 10921 layer_factory.hpp:77] Creating layer pool0
I0504 17:06:43.214138 10921 net.cpp:86] Creating Layer pool0
I0504 17:06:43.214141 10921 net.cpp:408] pool0 <- Sigmoid0
I0504 17:06:43.214148 10921 net.cpp:382] pool0 -> pool0
I0504 17:06:43.215029 10921 net.cpp:124] Setting up pool0
I0504 17:06:43.215045 10921 net.cpp:131] Top shape: 111 72 16 16 (2045952)
I0504 17:06:43.215049 10921 net.cpp:139] Memory required for data: 75018684
I0504 17:06:43.215054 10921 layer_factory.hpp:77] Creating layer conv1
I0504 17:06:43.215068 10921 net.cpp:86] Creating Layer conv1
I0504 17:06:43.215072 10921 net.cpp:408] conv1 <- pool0
I0504 17:06:43.215080 10921 net.cpp:382] conv1 -> conv1
I0504 17:06:43.219733 10921 net.cpp:124] Setting up conv1
I0504 17:06:43.219750 10921 net.cpp:131] Top shape: 111 72 18 18 (2589408)
I0504 17:06:43.219755 10921 net.cpp:139] Memory required for data: 85376316
I0504 17:06:43.219766 10921 layer_factory.hpp:77] Creating layer Sigmoid1
I0504 17:06:43.219774 10921 net.cpp:86] Creating Layer Sigmoid1
I0504 17:06:43.219777 10921 net.cpp:408] Sigmoid1 <- conv1
I0504 17:06:43.219784 10921 net.cpp:382] Sigmoid1 -> Sigmoid1
I0504 17:06:43.219996 10921 net.cpp:124] Setting up Sigmoid1
I0504 17:06:43.220007 10921 net.cpp:131] Top shape: 111 72 18 18 (2589408)
I0504 17:06:43.220011 10921 net.cpp:139] Memory required for data: 95733948
I0504 17:06:43.220016 10921 layer_factory.hpp:77] Creating layer pool1
I0504 17:06:43.220023 10921 net.cpp:86] Creating Layer pool1
I0504 17:06:43.220027 10921 net.cpp:408] pool1 <- Sigmoid1
I0504 17:06:43.220032 10921 net.cpp:382] pool1 -> pool1
I0504 17:06:43.220230 10921 net.cpp:124] Setting up pool1
I0504 17:06:43.220240 10921 net.cpp:131] Top shape: 111 72 9 9 (647352)
I0504 17:06:43.220244 10921 net.cpp:139] Memory required for data: 98323356
I0504 17:06:43.220248 10921 layer_factory.hpp:77] Creating layer ip1
I0504 17:06:43.220257 10921 net.cpp:86] Creating Layer ip1
I0504 17:06:43.220262 10921 net.cpp:408] ip1 <- pool1
I0504 17:06:43.220268 10921 net.cpp:382] ip1 -> ip1
I0504 17:06:43.256386 10921 net.cpp:124] Setting up ip1
I0504 17:06:43.256402 10921 net.cpp:131] Top shape: 111 180 (19980)
I0504 17:06:43.256407 10921 net.cpp:139] Memory required for data: 98403276
I0504 17:06:43.256417 10921 layer_factory.hpp:77] Creating layer relu1
I0504 17:06:43.256425 10921 net.cpp:86] Creating Layer relu1
I0504 17:06:43.256430 10921 net.cpp:408] relu1 <- ip1
I0504 17:06:43.256436 10921 net.cpp:369] relu1 -> ip1 (in-place)
I0504 17:06:43.256634 10921 net.cpp:124] Setting up relu1
I0504 17:06:43.256645 10921 net.cpp:131] Top shape: 111 180 (19980)
I0504 17:06:43.256649 10921 net.cpp:139] Memory required for data: 98483196
I0504 17:06:43.256652 10921 layer_factory.hpp:77] Creating layer ip2
I0504 17:06:43.256660 10921 net.cpp:86] Creating Layer ip2
I0504 17:06:43.256664 10921 net.cpp:408] ip2 <- ip1
I0504 17:06:43.256670 10921 net.cpp:382] ip2 -> ip2
I0504 17:06:43.256855 10921 net.cpp:124] Setting up ip2
I0504 17:06:43.256863 10921 net.cpp:131] Top shape: 111 10 (1110)
I0504 17:06:43.256867 10921 net.cpp:139] Memory required for data: 98487636
I0504 17:06:43.256875 10921 layer_factory.hpp:77] Creating layer loss
I0504 17:06:43.256880 10921 net.cpp:86] Creating Layer loss
I0504 17:06:43.256901 10921 net.cpp:408] loss <- ip2
I0504 17:06:43.256906 10921 net.cpp:408] loss <- label
I0504 17:06:43.256912 10921 net.cpp:382] loss -> loss
I0504 17:06:43.256933 10921 layer_factory.hpp:77] Creating layer loss
…
I0504 17:06:43.258393 10921 solver.cpp:173] Creating test net (#0) specified by net file: ECE595/cifar/train_test/var_everything_tiny/cifar_train_test_194.prototxt
I0504 17:06:43.258424 10921 net.cpp:296] The NetState phase (1) differed from the phase (0) specified by a rule in layer cifar
I0504 17:06:43.258530 10921 net.cpp:53] Initializing net from parameters: 
name: "CIFAR"
state {
  phase: TEST
}
layer {
  name: "cifar"
  type: "Data"
  top: "data"
  top: "label"
  include {
    phase: TEST
  }
  transform_param {
    mean_file: "examples/cifar10/mean.binaryproto"
  }
  data_param {
    source: "examples/cifar10/cifar10_test_lmdb"
    batch_size: 1000
    backend: LMDB
  }
}
layer {
  name: "conv0"
  type: "Convolution"
  bottom: "data"
  top: "conv0"
  param {
    lr_mult: 1
  }
  param {
    lr_mult: 2
  }
  convolution_param {
    num_output: 72
    pad: 2
    kernel_size: 5
    stride: 1
    weight_filler {
      type: "gaussian"
      std: 0.01
    }
    bias_filler {
      type: "constant"
    }
  }
}
layer {
  name: "Sigmoid0"
  type: "Sigmoid"
  bottom: "conv0"
  top: "Sigmoid0"
}
layer {
  name: "pool0"
  type: "Pooling"
  bottom: "Sigmoid0"
  top: "pool0"
  pooling_param {
    pool: AVE
    kernel_size: 3
    stride: 2
  }
}
layer {
  name: "conv1"
  type: "Convolution"
  bottom: "pool0"
  top: "conv1"
  param {
    lr_mult: 1
  }
  param {
    lr_mult: 2
  }
  convolution_param {
    num_output: 72
    pad: 2
    kernel_size: 3
    stride: 1
    weight_filler {
      type: "gaussian"
      std: 0.01
    }
    bias_filler {
      type: "constant"
    }
  }
}
layer {
  name: "Sigmoid1"
  type: "Sigmoid"
  bottom: "conv1"
  top: "Sigmoid1"
}
layer {
  name: "pool1"
  type: "Pooling"
  bottom: "Sigmoid1"
  top: "pool1"
  pooling_param {
    pool: AVE
    kernel_size: 3
    stride: 2
  }
}
layer {
  name: "ip1"
  type: "InnerProduct"
  bottom: "pool1"
  top: "ip1"
  param {
    lr_mult: 1
  }
  param {
    lr_mult: 2
  }
  inner_product_param {
    num_output: 180
    weight_filler {
      type: "gaussian"
      std: 0.01
    }
    bias_filler {
      type: "constant"
    }
  }
}
layer {
  name: "relu1"
  type: "ReLU"
  bottom: "ip1"
  top: "ip1"
}
layer {
  name: "ip2"
  type: "InnerProduct"
  bottom: "ip1"
  top: "ip2"
  param {
    lr_mult: 1
  }
  param {
    lr_mult: 2
  }
  inner_product_param {
    num_output: 10
    weight_filler {
      type: "gaussian"
      std: 0.01
    }
    bias_filler {
      type: "constant"
    }
  }
}
layer {
  name: "accuracy"
  type: "Accuracy"
  bottom: "ip2"
  bottom: "label"
  top: "accuracy"
  include {
    phase: TEST
  }
}
layer {
  name: "loss"
  type: "SoftmaxWithLoss"
  bottom: "ip2"
  bottom: "label"
  top: "loss"
}
I0504 17:06:43.258627 10921 layer_factory.hpp:77] Creating layer cifar
I0504 17:06:43.258682 10921 db_lmdb.cpp:35] Opened lmdb examples/cifar10/cifar10_test_lmdb
I0504 17:06:43.258702 10921 net.cpp:86] Creating Layer cifar
I0504 17:06:43.258708 10921 net.cpp:382] cifar -> data
I0504 17:06:43.258716 10921 net.cpp:382] cifar -> label
I0504 17:06:43.258724 10921 data_transformer.cpp:25] Loading mean file from: examples/cifar10/mean.binaryproto
I0504 17:06:43.258899 10921 data_layer.cpp:45] output data size: 1000,3,32,32
I0504 17:06:43.284986 10921 net.cpp:124] Setting up cifar
I0504 17:06:43.285015 10921 net.cpp:131] Top shape: 1000 3 32 32 (3072000)
I0504 17:06:43.285022 10921 net.cpp:131] Top shape: 1000 (1000)
I0504 17:06:43.285027 10921 net.cpp:139] Memory required for data: 12292000
I0504 17:06:43.285033 10921 layer_factory.hpp:77] Creating layer label_cifar_1_split
I0504 17:06:43.285048 10921 net.cpp:86] Creating Layer label_cifar_1_split
I0504 17:06:43.285053 10921 net.cpp:408] label_cifar_1_split <- label
I0504 17:06:43.285060 10921 net.cpp:382] label_cifar_1_split -> label_cifar_1_split_0
I0504 17:06:43.285071 10921 net.cpp:382] label_cifar_1_split -> label_cifar_1_split_1
I0504 17:06:43.285195 10921 net.cpp:124] Setting up label_cifar_1_split
I0504 17:06:43.285204 10921 net.cpp:131] Top shape: 1000 (1000)
I0504 17:06:43.285209 10921 net.cpp:131] Top shape: 1000 (1000)
I0504 17:06:43.285212 10921 net.cpp:139] Memory required for data: 12300000
I0504 17:06:43.285217 10921 layer_factory.hpp:77] Creating layer conv0
I0504 17:06:43.285230 10921 net.cpp:86] Creating Layer conv0
I0504 17:06:43.285234 10921 net.cpp:408] conv0 <- data
I0504 17:06:43.285243 10921 net.cpp:382] conv0 -> conv0
I0504 17:06:43.286417 10921 net.cpp:124] Setting up conv0
I0504 17:06:43.286430 10921 net.cpp:131] Top shape: 1000 72 32 32 (73728000)
I0504 17:06:43.286435 10921 net.cpp:139] Memory required for data: 307212000
I0504 17:06:43.286447 10921 layer_factory.hpp:77] Creating layer Sigmoid0
I0504 17:06:43.286463 10921 net.cpp:86] Creating Layer Sigmoid0
I0504 17:06:43.286466 10921 net.cpp:408] Sigmoid0 <- conv0
I0504 17:06:43.286473 10921 net.cpp:382] Sigmoid0 -> Sigmoid0
I0504 17:06:43.288592 10921 net.cpp:124] Setting up Sigmoid0
I0504 17:06:43.288609 10921 net.cpp:131] Top shape: 1000 72 32 32 (73728000)
I0504 17:06:43.288614 10921 net.cpp:139] Memory required for data: 602124000
I0504 17:06:43.288619 10921 layer_factory.hpp:77] Creating layer pool0
I0504 17:06:43.288630 10921 net.cpp:86] Creating Layer pool0
I0504 17:06:43.288633 10921 net.cpp:408] pool0 <- Sigmoid0
I0504 17:06:43.288640 10921 net.cpp:382] pool0 -> pool0
I0504 17:06:43.289119 10921 net.cpp:124] Setting up pool0
I0504 17:06:43.289134 10921 net.cpp:131] Top shape: 1000 72 16 16 (18432000)
I0504 17:06:43.289137 10921 net.cpp:139] Memory required for data: 675852000
I0504 17:06:43.289141 10921 layer_factory.hpp:77] Creating layer conv1
I0504 17:06:43.289153 10921 net.cpp:86] Creating Layer conv1
I0504 17:06:43.289157 10921 net.cpp:408] conv1 <- pool0
I0504 17:06:43.289165 10921 net.cpp:382] conv1 -> conv1
I0504 17:06:43.292269 10921 net.cpp:124] Setting up conv1
I0504 17:06:43.292285 10921 net.cpp:131] Top shape: 1000 72 18 18 (23328000)
I0504 17:06:43.292290 10921 net.cpp:139] Memory required for data: 769164000
I0504 17:06:43.292300 10921 layer_factory.hpp:77] Creating layer Sigmoid1
I0504 17:06:43.292309 10921 net.cpp:86] Creating Layer Sigmoid1
I0504 17:06:43.292315 10921 net.cpp:408] Sigmoid1 <- conv1
I0504 17:06:43.292320 10921 net.cpp:382] Sigmoid1 -> Sigmoid1
I0504 17:06:43.292522 10921 net.cpp:124] Setting up Sigmoid1
I0504 17:06:43.292533 10921 net.cpp:131] Top shape: 1000 72 18 18 (23328000)
I0504 17:06:43.292537 10921 net.cpp:139] Memory required for data: 862476000
I0504 17:06:43.292541 10921 layer_factory.hpp:77] Creating layer pool1
I0504 17:06:43.292548 10921 net.cpp:86] Creating Layer pool1
I0504 17:06:43.292552 10921 net.cpp:408] pool1 <- Sigmoid1
I0504 17:06:43.292574 10921 net.cpp:382] pool1 -> pool1
I0504 17:06:43.292768 10921 net.cpp:124] Setting up pool1
I0504 17:06:43.292779 10921 net.cpp:131] Top shape: 1000 72 9 9 (5832000)
I0504 17:06:43.292784 10921 net.cpp:139] Memory required for data: 885804000
I0504 17:06:43.292788 10921 layer_factory.hpp:77] Creating layer ip1
I0504 17:06:43.292798 10921 net.cpp:86] Creating Layer ip1
I0504 17:06:43.292803 10921 net.cpp:408] ip1 <- pool1
I0504 17:06:43.292816 10921 net.cpp:382] ip1 -> ip1
I0504 17:06:43.328974 10921 net.cpp:124] Setting up ip1
I0504 17:06:43.328997 10921 net.cpp:131] Top shape: 1000 180 (180000)
I0504 17:06:43.329002 10921 net.cpp:139] Memory required for data: 886524000
I0504 17:06:43.329015 10921 layer_factory.hpp:77] Creating layer relu1
I0504 17:06:43.329025 10921 net.cpp:86] Creating Layer relu1
I0504 17:06:43.329030 10921 net.cpp:408] relu1 <- ip1
I0504 17:06:43.329037 10921 net.cpp:369] relu1 -> ip1 (in-place)
I0504 17:06:43.330018 10921 net.cpp:124] Setting up relu1
I0504 17:06:43.330034 10921 net.cpp:131] Top shape: 1000 180 (180000)
I0504 17:06:43.330039 10921 net.cpp:139] Memory required for data: 887244000
I0504 17:06:43.330042 10921 layer_factory.hpp:77] Creating layer ip2
I0504 17:06:43.330052 10921 net.cpp:86] Creating Layer ip2
I0504 17:06:43.330056 10921 net.cpp:408] ip2 <- ip1
I0504 17:06:43.330063 10921 net.cpp:382] ip2 -> ip2
I0504 17:06:43.330258 10921 net.cpp:124] Setting up ip2
I0504 17:06:43.330267 10921 net.cpp:131] Top shape: 1000 10 (10000)
I0504 17:06:43.330271 10921 net.cpp:139] Memory required for data: 887284000
I0504 17:06:43.330278 10921 layer_factory.hpp:77] Creating layer ip2_ip2_0_split
I0504 17:06:43.330286 10921 net.cpp:86] Creating Layer ip2_ip2_0_split
I0504 17:06:43.330289 10921 net.cpp:408] ip2_ip2_0_split <- ip2
I0504 17:06:43.330294 10921 net.cpp:382] ip2_ip2_0_split -> ip2_ip2_0_split_0
I0504 17:06:43.330302 10921 net.cpp:382] ip2_ip2_0_split -> ip2_ip2_0_split_1
I0504 17:06:43.330339 10921 net.cpp:124] Setting up ip2_ip2_0_split
I0504 17:06:43.330348 10921 net.cpp:131] Top shape: 1000 10 (10000)
I0504 17:06:43.330353 10921 net.cpp:131] Top shape: 1000 10 (10000)
I0504 17:06:43.330355 10921 net.cpp:139] Memory required for data: 887364000
I0504 17:06:43.330359 10921 layer_factory.hpp:77] Creating layer accuracy
I0504 17:06:43.330365 10921 net.cpp:86] Creating Layer accuracy
I0504 17:06:43.330369 10921 net.cpp:408] accuracy <- ip2_ip2_0_split_0
I0504 17:06:43.330374 10921 net.cpp:408] accuracy <- label_cifar_1_split_0
I0504 17:06:43.330380 10921 net.cpp:382] accuracy -> accuracy
…
