…
I0504 15:35:56.964474  6947 net.cpp:296] The NetState phase (0) differed from the phase (1) specified by a rule in layer cifar
I0504 15:35:56.964493  6947 net.cpp:296] The NetState phase (0) differed from the phase (1) specified by a rule in layer accuracy
I0504 15:35:56.964601  6947 net.cpp:53] Initializing net from parameters: 
name: "CIFAR"
state {
  phase: TRAIN
  level: 0
  stage: ""
}
layer {
  name: "cifar"
  type: "Data"
  top: "data"
  top: "label"
  include {
    phase: TRAIN
  }
  transform_param {
    mean_file: "examples/cifar10/mean.binaryproto"
  }
  data_param {
    source: "examples/cifar10/cifar10_train_lmdb"
    batch_size: 111
    backend: LMDB
  }
}
layer {
  name: "conv0"
  type: "Convolution"
  bottom: "data"
  top: "conv0"
  param {
    lr_mult: 1
  }
  param {
    lr_mult: 2
  }
  convolution_param {
    num_output: 72
    pad: 2
    kernel_size: 3
    stride: 1
    weight_filler {
      type: "gaussian"
      std: 0.01
    }
    bias_filler {
      type: "constant"
    }
  }
}
layer {
  name: "Sigmoid0"
  type: "Sigmoid"
  bottom: "conv0"
  top: "Sigmoid0"
}
layer {
  name: "pool0"
  type: "Pooling"
  bottom: "Sigmoid0"
  top: "pool0"
  pooling_param {
    pool: AVE
    kernel_size: 3
    stride: 2
  }
}
layer {
  name: "conv1"
  type: "Convolution"
  bottom: "pool0"
  top: "conv1"
  param {
    lr_mult: 1
  }
  param {
    lr_mult: 2
  }
  convolution_param {
    num_output: 72
    pad: 2
    kernel_size: 3
    stride: 1
    weight_filler {
      type: "gaussian"
      std: 0.01
    }
    bias_filler {
      type: "constant"
    }
  }
}
layer {
  name: "Sigmoid1"
  type: "Sigmoid"
  bottom: "conv1"
  top: "Sigmoid1"
}
layer {
  name: "pool1"
  type: "Pooling"
  bottom: "Sigmoid1"
  top: "pool1"
  pooling_param {
    pool: AVE
    kernel_size: 3
    stride: 2
  }
}
layer {
  name: "ip1"
  type: "InnerProduct"
  bottom: "pool1"
  top: "ip1"
  param {
    lr_mult: 1
  }
  param {
    lr_mult: 2
  }
  inner_product_param {
    num_output: 60
    weight_filler {
      type: "gaussian"
      std: 0.01
    }
    bias_filler {
      type: "constant"
    }
  }
}
layer {
  name: "relu1"
  type: "ReLU"
  bottom: "ip1"
  top: "ip1"
}
layer {
  name: "ip2"
  type: "InnerProduct"
  bottom: "ip1"
  top: "ip2"
  param {
    lr_mult: 1
  }
  param {
    lr_mult: 2
  }
  inner_product_param {
    num_output: 10
    weight_filler {
      type: "gaussian"
      std: 0.01
    }
    bias_filler {
      type: "constant"
    }
  }
}
layer {
  name: "loss"
  type: "SoftmaxWithLoss"
  bottom: "ip2"
  bottom: "label"
  top: "loss"
}
I0504 15:35:56.964676  6947 layer_factory.hpp:77] Creating layer cifar
I0504 15:35:56.964776  6947 db_lmdb.cpp:35] Opened lmdb examples/cifar10/cifar10_train_lmdb
I0504 15:35:56.964802  6947 net.cpp:86] Creating Layer cifar
I0504 15:35:56.964818  6947 net.cpp:382] cifar -> data
I0504 15:35:56.964843  6947 net.cpp:382] cifar -> label
I0504 15:35:56.964854  6947 data_transformer.cpp:25] Loading mean file from: examples/cifar10/mean.binaryproto
I0504 15:35:56.967006  6947 data_layer.cpp:45] output data size: 111,3,32,32
I0504 15:35:56.975222  6947 net.cpp:124] Setting up cifar
I0504 15:35:56.975255  6947 net.cpp:131] Top shape: 111 3 32 32 (340992)
I0504 15:35:56.975262  6947 net.cpp:131] Top shape: 111 (111)
I0504 15:35:56.975266  6947 net.cpp:139] Memory required for data: 1364412
I0504 15:35:56.975275  6947 layer_factory.hpp:77] Creating layer conv0
I0504 15:35:56.975294  6947 net.cpp:86] Creating Layer conv0
I0504 15:35:56.975316  6947 net.cpp:408] conv0 <- data
I0504 15:35:56.975328  6947 net.cpp:382] conv0 -> conv0
I0504 15:35:57.256456  6947 net.cpp:124] Setting up conv0
I0504 15:35:57.256482  6947 net.cpp:131] Top shape: 111 72 34 34 (9238752)
I0504 15:35:57.256486  6947 net.cpp:139] Memory required for data: 38319420
I0504 15:35:57.256501  6947 layer_factory.hpp:77] Creating layer Sigmoid0
I0504 15:35:57.256512  6947 net.cpp:86] Creating Layer Sigmoid0
I0504 15:35:57.256516  6947 net.cpp:408] Sigmoid0 <- conv0
I0504 15:35:57.256521  6947 net.cpp:382] Sigmoid0 -> Sigmoid0
I0504 15:35:57.256691  6947 net.cpp:124] Setting up Sigmoid0
I0504 15:35:57.256701  6947 net.cpp:131] Top shape: 111 72 34 34 (9238752)
I0504 15:35:57.256705  6947 net.cpp:139] Memory required for data: 75274428
I0504 15:35:57.256708  6947 layer_factory.hpp:77] Creating layer pool0
I0504 15:35:57.256714  6947 net.cpp:86] Creating Layer pool0
I0504 15:35:57.256718  6947 net.cpp:408] pool0 <- Sigmoid0
I0504 15:35:57.256722  6947 net.cpp:382] pool0 -> pool0
I0504 15:35:57.257606  6947 net.cpp:124] Setting up pool0
I0504 15:35:57.257635  6947 net.cpp:131] Top shape: 111 72 17 17 (2309688)
I0504 15:35:57.257639  6947 net.cpp:139] Memory required for data: 84513180
I0504 15:35:57.257642  6947 layer_factory.hpp:77] Creating layer conv1
I0504 15:35:57.257654  6947 net.cpp:86] Creating Layer conv1
I0504 15:35:57.257658  6947 net.cpp:408] conv1 <- pool0
I0504 15:35:57.257663  6947 net.cpp:382] conv1 -> conv1
I0504 15:35:57.262356  6947 net.cpp:124] Setting up conv1
I0504 15:35:57.262368  6947 net.cpp:131] Top shape: 111 72 19 19 (2885112)
I0504 15:35:57.262372  6947 net.cpp:139] Memory required for data: 96053628
I0504 15:35:57.262395  6947 layer_factory.hpp:77] Creating layer Sigmoid1
I0504 15:35:57.262401  6947 net.cpp:86] Creating Layer Sigmoid1
I0504 15:35:57.262405  6947 net.cpp:408] Sigmoid1 <- conv1
I0504 15:35:57.262410  6947 net.cpp:382] Sigmoid1 -> Sigmoid1
I0504 15:35:57.262603  6947 net.cpp:124] Setting up Sigmoid1
I0504 15:35:57.262629  6947 net.cpp:131] Top shape: 111 72 19 19 (2885112)
I0504 15:35:57.262631  6947 net.cpp:139] Memory required for data: 107594076
I0504 15:35:57.262635  6947 layer_factory.hpp:77] Creating layer pool1
I0504 15:35:57.262656  6947 net.cpp:86] Creating Layer pool1
I0504 15:35:57.262660  6947 net.cpp:408] pool1 <- Sigmoid1
I0504 15:35:57.262665  6947 net.cpp:382] pool1 -> pool1
I0504 15:35:57.262846  6947 net.cpp:124] Setting up pool1
I0504 15:35:57.262856  6947 net.cpp:131] Top shape: 111 72 9 9 (647352)
I0504 15:35:57.262858  6947 net.cpp:139] Memory required for data: 110183484
I0504 15:35:57.262861  6947 layer_factory.hpp:77] Creating layer ip1
I0504 15:35:57.262869  6947 net.cpp:86] Creating Layer ip1
I0504 15:35:57.262872  6947 net.cpp:408] ip1 <- pool1
I0504 15:35:57.262877  6947 net.cpp:382] ip1 -> ip1
I0504 15:35:57.272972  6947 net.cpp:124] Setting up ip1
I0504 15:35:57.272984  6947 net.cpp:131] Top shape: 111 60 (6660)
I0504 15:35:57.272987  6947 net.cpp:139] Memory required for data: 110210124
I0504 15:35:57.272995  6947 layer_factory.hpp:77] Creating layer relu1
I0504 15:35:57.273003  6947 net.cpp:86] Creating Layer relu1
I0504 15:35:57.273006  6947 net.cpp:408] relu1 <- ip1
I0504 15:35:57.273010  6947 net.cpp:369] relu1 -> ip1 (in-place)
I0504 15:35:57.273183  6947 net.cpp:124] Setting up relu1
I0504 15:35:57.273192  6947 net.cpp:131] Top shape: 111 60 (6660)
I0504 15:35:57.273195  6947 net.cpp:139] Memory required for data: 110236764
I0504 15:35:57.273198  6947 layer_factory.hpp:77] Creating layer ip2
I0504 15:35:57.273205  6947 net.cpp:86] Creating Layer ip2
I0504 15:35:57.273208  6947 net.cpp:408] ip2 <- ip1
I0504 15:35:57.273213  6947 net.cpp:382] ip2 -> ip2
I0504 15:35:57.273346  6947 net.cpp:124] Setting up ip2
I0504 15:35:57.273353  6947 net.cpp:131] Top shape: 111 10 (1110)
I0504 15:35:57.273357  6947 net.cpp:139] Memory required for data: 110241204
I0504 15:35:57.273362  6947 layer_factory.hpp:77] Creating layer loss
I0504 15:35:57.273368  6947 net.cpp:86] Creating Layer loss
I0504 15:35:57.273386  6947 net.cpp:408] loss <- ip2
I0504 15:35:57.273391  6947 net.cpp:408] loss <- label
I0504 15:35:57.273396  6947 net.cpp:382] loss -> loss
I0504 15:35:57.273414  6947 layer_factory.hpp:77] Creating layer loss
…
I0504 15:35:57.274785  6947 solver.cpp:173] Creating test net (#0) specified by net file: ECE595/cifar/train_test/var_everything_tiny/cifar_train_test_181.prototxt
I0504 15:35:57.274812  6947 net.cpp:296] The NetState phase (1) differed from the phase (0) specified by a rule in layer cifar
I0504 15:35:57.274905  6947 net.cpp:53] Initializing net from parameters: 
name: "CIFAR"
state {
  phase: TEST
}
layer {
  name: "cifar"
  type: "Data"
  top: "data"
  top: "label"
  include {
    phase: TEST
  }
  transform_param {
    mean_file: "examples/cifar10/mean.binaryproto"
  }
  data_param {
    source: "examples/cifar10/cifar10_test_lmdb"
    batch_size: 1000
    backend: LMDB
  }
}
layer {
  name: "conv0"
  type: "Convolution"
  bottom: "data"
  top: "conv0"
  param {
    lr_mult: 1
  }
  param {
    lr_mult: 2
  }
  convolution_param {
    num_output: 72
    pad: 2
    kernel_size: 3
    stride: 1
    weight_filler {
      type: "gaussian"
      std: 0.01
    }
    bias_filler {
      type: "constant"
    }
  }
}
layer {
  name: "Sigmoid0"
  type: "Sigmoid"
  bottom: "conv0"
  top: "Sigmoid0"
}
layer {
  name: "pool0"
  type: "Pooling"
  bottom: "Sigmoid0"
  top: "pool0"
  pooling_param {
    pool: AVE
    kernel_size: 3
    stride: 2
  }
}
layer {
  name: "conv1"
  type: "Convolution"
  bottom: "pool0"
  top: "conv1"
  param {
    lr_mult: 1
  }
  param {
    lr_mult: 2
  }
  convolution_param {
    num_output: 72
    pad: 2
    kernel_size: 3
    stride: 1
    weight_filler {
      type: "gaussian"
      std: 0.01
    }
    bias_filler {
      type: "constant"
    }
  }
}
layer {
  name: "Sigmoid1"
  type: "Sigmoid"
  bottom: "conv1"
  top: "Sigmoid1"
}
layer {
  name: "pool1"
  type: "Pooling"
  bottom: "Sigmoid1"
  top: "pool1"
  pooling_param {
    pool: AVE
    kernel_size: 3
    stride: 2
  }
}
layer {
  name: "ip1"
  type: "InnerProduct"
  bottom: "pool1"
  top: "ip1"
  param {
    lr_mult: 1
  }
  param {
    lr_mult: 2
  }
  inner_product_param {
    num_output: 60
    weight_filler {
      type: "gaussian"
      std: 0.01
    }
    bias_filler {
      type: "constant"
    }
  }
}
layer {
  name: "relu1"
  type: "ReLU"
  bottom: "ip1"
  top: "ip1"
}
layer {
  name: "ip2"
  type: "InnerProduct"
  bottom: "ip1"
  top: "ip2"
  param {
    lr_mult: 1
  }
  param {
    lr_mult: 2
  }
  inner_product_param {
    num_output: 10
    weight_filler {
      type: "gaussian"
      std: 0.01
    }
    bias_filler {
      type: "constant"
    }
  }
}
layer {
  name: "accuracy"
  type: "Accuracy"
  bottom: "ip2"
  bottom: "label"
  top: "accuracy"
  include {
    phase: TEST
  }
}
layer {
  name: "loss"
  type: "SoftmaxWithLoss"
  bottom: "ip2"
  bottom: "label"
  top: "loss"
}
I0504 15:35:57.274997  6947 layer_factory.hpp:77] Creating layer cifar
I0504 15:35:57.275043  6947 db_lmdb.cpp:35] Opened lmdb examples/cifar10/cifar10_test_lmdb
I0504 15:35:57.275054  6947 net.cpp:86] Creating Layer cifar
I0504 15:35:57.275059  6947 net.cpp:382] cifar -> data
I0504 15:35:57.275068  6947 net.cpp:382] cifar -> label
I0504 15:35:57.275074  6947 data_transformer.cpp:25] Loading mean file from: examples/cifar10/mean.binaryproto
I0504 15:35:57.275218  6947 data_layer.cpp:45] output data size: 1000,3,32,32
I0504 15:35:57.297229  6947 net.cpp:124] Setting up cifar
I0504 15:35:57.297268  6947 net.cpp:131] Top shape: 1000 3 32 32 (3072000)
I0504 15:35:57.297276  6947 net.cpp:131] Top shape: 1000 (1000)
I0504 15:35:57.297278  6947 net.cpp:139] Memory required for data: 12292000
I0504 15:35:57.297284  6947 layer_factory.hpp:77] Creating layer label_cifar_1_split
I0504 15:35:57.297309  6947 net.cpp:86] Creating Layer label_cifar_1_split
I0504 15:35:57.297329  6947 net.cpp:408] label_cifar_1_split <- label
I0504 15:35:57.297335  6947 net.cpp:382] label_cifar_1_split -> label_cifar_1_split_0
I0504 15:35:57.297360  6947 net.cpp:382] label_cifar_1_split -> label_cifar_1_split_1
I0504 15:35:57.297472  6947 net.cpp:124] Setting up label_cifar_1_split
I0504 15:35:57.297480  6947 net.cpp:131] Top shape: 1000 (1000)
I0504 15:35:57.297484  6947 net.cpp:131] Top shape: 1000 (1000)
I0504 15:35:57.297487  6947 net.cpp:139] Memory required for data: 12300000
I0504 15:35:57.297490  6947 layer_factory.hpp:77] Creating layer conv0
I0504 15:35:57.297502  6947 net.cpp:86] Creating Layer conv0
I0504 15:35:57.297505  6947 net.cpp:408] conv0 <- data
I0504 15:35:57.297511  6947 net.cpp:382] conv0 -> conv0
I0504 15:35:57.298451  6947 net.cpp:124] Setting up conv0
I0504 15:35:57.298463  6947 net.cpp:131] Top shape: 1000 72 34 34 (83232000)
I0504 15:35:57.298482  6947 net.cpp:139] Memory required for data: 345228000
I0504 15:35:57.298492  6947 layer_factory.hpp:77] Creating layer Sigmoid0
I0504 15:35:57.298499  6947 net.cpp:86] Creating Layer Sigmoid0
I0504 15:35:57.298503  6947 net.cpp:408] Sigmoid0 <- conv0
I0504 15:35:57.298508  6947 net.cpp:382] Sigmoid0 -> Sigmoid0
I0504 15:35:57.299502  6947 net.cpp:124] Setting up Sigmoid0
I0504 15:35:57.299515  6947 net.cpp:131] Top shape: 1000 72 34 34 (83232000)
I0504 15:35:57.299520  6947 net.cpp:139] Memory required for data: 678156000
I0504 15:35:57.299523  6947 layer_factory.hpp:77] Creating layer pool0
I0504 15:35:57.299532  6947 net.cpp:86] Creating Layer pool0
I0504 15:35:57.299535  6947 net.cpp:408] pool0 <- Sigmoid0
I0504 15:35:57.299556  6947 net.cpp:382] pool0 -> pool0
I0504 15:35:57.300796  6947 net.cpp:124] Setting up pool0
I0504 15:35:57.300806  6947 net.cpp:131] Top shape: 1000 72 17 17 (20808000)
I0504 15:35:57.300815  6947 net.cpp:139] Memory required for data: 761388000
I0504 15:35:57.300835  6947 layer_factory.hpp:77] Creating layer conv1
I0504 15:35:57.300848  6947 net.cpp:86] Creating Layer conv1
I0504 15:35:57.300851  6947 net.cpp:408] conv1 <- pool0
I0504 15:35:57.300858  6947 net.cpp:382] conv1 -> conv1
I0504 15:35:57.303670  6947 net.cpp:124] Setting up conv1
I0504 15:35:57.303683  6947 net.cpp:131] Top shape: 1000 72 19 19 (25992000)
I0504 15:35:57.303702  6947 net.cpp:139] Memory required for data: 865356000
I0504 15:35:57.303711  6947 layer_factory.hpp:77] Creating layer Sigmoid1
I0504 15:35:57.303717  6947 net.cpp:86] Creating Layer Sigmoid1
I0504 15:35:57.303721  6947 net.cpp:408] Sigmoid1 <- conv1
I0504 15:35:57.303726  6947 net.cpp:382] Sigmoid1 -> Sigmoid1
I0504 15:35:57.303922  6947 net.cpp:124] Setting up Sigmoid1
I0504 15:35:57.303947  6947 net.cpp:131] Top shape: 1000 72 19 19 (25992000)
I0504 15:35:57.303951  6947 net.cpp:139] Memory required for data: 969324000
I0504 15:35:57.303956  6947 layer_factory.hpp:77] Creating layer pool1
I0504 15:35:57.303961  6947 net.cpp:86] Creating Layer pool1
I0504 15:35:57.303964  6947 net.cpp:408] pool1 <- Sigmoid1
I0504 15:35:57.303985  6947 net.cpp:382] pool1 -> pool1
I0504 15:35:57.304157  6947 net.cpp:124] Setting up pool1
I0504 15:35:57.304168  6947 net.cpp:131] Top shape: 1000 72 9 9 (5832000)
I0504 15:35:57.304172  6947 net.cpp:139] Memory required for data: 992652000
I0504 15:35:57.304175  6947 layer_factory.hpp:77] Creating layer ip1
I0504 15:35:57.304184  6947 net.cpp:86] Creating Layer ip1
I0504 15:35:57.304188  6947 net.cpp:408] ip1 <- pool1
I0504 15:35:57.304193  6947 net.cpp:382] ip1 -> ip1
I0504 15:35:57.314733  6947 net.cpp:124] Setting up ip1
I0504 15:35:57.314761  6947 net.cpp:131] Top shape: 1000 60 (60000)
I0504 15:35:57.314765  6947 net.cpp:139] Memory required for data: 992892000
I0504 15:35:57.314774  6947 layer_factory.hpp:77] Creating layer relu1
I0504 15:35:57.314781  6947 net.cpp:86] Creating Layer relu1
I0504 15:35:57.314785  6947 net.cpp:408] relu1 <- ip1
I0504 15:35:57.314790  6947 net.cpp:369] relu1 -> ip1 (in-place)
I0504 15:35:57.315627  6947 net.cpp:124] Setting up relu1
I0504 15:35:57.315639  6947 net.cpp:131] Top shape: 1000 60 (60000)
I0504 15:35:57.315657  6947 net.cpp:139] Memory required for data: 993132000
I0504 15:35:57.315661  6947 layer_factory.hpp:77] Creating layer ip2
I0504 15:35:57.315670  6947 net.cpp:86] Creating Layer ip2
I0504 15:35:57.315672  6947 net.cpp:408] ip2 <- ip1
I0504 15:35:57.315678  6947 net.cpp:382] ip2 -> ip2
I0504 15:35:57.315825  6947 net.cpp:124] Setting up ip2
I0504 15:35:57.315832  6947 net.cpp:131] Top shape: 1000 10 (10000)
I0504 15:35:57.315836  6947 net.cpp:139] Memory required for data: 993172000
I0504 15:35:57.315843  6947 layer_factory.hpp:77] Creating layer ip2_ip2_0_split
I0504 15:35:57.315848  6947 net.cpp:86] Creating Layer ip2_ip2_0_split
I0504 15:35:57.315851  6947 net.cpp:408] ip2_ip2_0_split <- ip2
I0504 15:35:57.315856  6947 net.cpp:382] ip2_ip2_0_split -> ip2_ip2_0_split_0
I0504 15:35:57.315862  6947 net.cpp:382] ip2_ip2_0_split -> ip2_ip2_0_split_1
I0504 15:35:57.315893  6947 net.cpp:124] Setting up ip2_ip2_0_split
I0504 15:35:57.315898  6947 net.cpp:131] Top shape: 1000 10 (10000)
I0504 15:35:57.315902  6947 net.cpp:131] Top shape: 1000 10 (10000)
I0504 15:35:57.315906  6947 net.cpp:139] Memory required for data: 993252000
I0504 15:35:57.315923  6947 layer_factory.hpp:77] Creating layer accuracy
I0504 15:35:57.315929  6947 net.cpp:86] Creating Layer accuracy
I0504 15:35:57.315932  6947 net.cpp:408] accuracy <- ip2_ip2_0_split_0
I0504 15:35:57.315937  6947 net.cpp:408] accuracy <- label_cifar_1_split_0
I0504 15:35:57.315946  6947 net.cpp:382] accuracy -> accuracy
…
