…
I0504 09:24:22.887660 23534 net.cpp:296] The NetState phase (0) differed from the phase (1) specified by a rule in layer cifar
I0504 09:24:22.887679 23534 net.cpp:296] The NetState phase (0) differed from the phase (1) specified by a rule in layer accuracy
I0504 09:24:22.887789 23534 net.cpp:53] Initializing net from parameters: 
name: "CIFAR"
state {
  phase: TRAIN
  level: 0
  stage: ""
}
layer {
  name: "cifar"
  type: "Data"
  top: "data"
  top: "label"
  include {
    phase: TRAIN
  }
  transform_param {
    mean_file: "examples/cifar10/mean.binaryproto"
  }
  data_param {
    source: "examples/cifar10/cifar10_train_lmdb"
    batch_size: 111
    backend: LMDB
  }
}
layer {
  name: "conv0"
  type: "Convolution"
  bottom: "data"
  top: "conv0"
  param {
    lr_mult: 1
  }
  param {
    lr_mult: 2
  }
  convolution_param {
    num_output: 24
    pad: 2
    kernel_size: 3
    stride: 1
    weight_filler {
      type: "gaussian"
      std: 0.01
    }
    bias_filler {
      type: "constant"
    }
  }
}
layer {
  name: "Sigmoid0"
  type: "Sigmoid"
  bottom: "conv0"
  top: "Sigmoid0"
}
layer {
  name: "pool0"
  type: "Pooling"
  bottom: "Sigmoid0"
  top: "pool0"
  pooling_param {
    pool: AVE
    kernel_size: 3
    stride: 2
  }
}
layer {
  name: "conv1"
  type: "Convolution"
  bottom: "pool0"
  top: "conv1"
  param {
    lr_mult: 1
  }
  param {
    lr_mult: 2
  }
  convolution_param {
    num_output: 72
    pad: 2
    kernel_size: 3
    stride: 1
    weight_filler {
      type: "gaussian"
      std: 0.01
    }
    bias_filler {
      type: "constant"
    }
  }
}
layer {
  name: "Sigmoid1"
  type: "Sigmoid"
  bottom: "conv1"
  top: "Sigmoid1"
}
layer {
  name: "pool1"
  type: "Pooling"
  bottom: "Sigmoid1"
  top: "pool1"
  pooling_param {
    pool: AVE
    kernel_size: 3
    stride: 2
  }
}
layer {
  name: "ip1"
  type: "InnerProduct"
  bottom: "pool1"
  top: "ip1"
  param {
    lr_mult: 1
  }
  param {
    lr_mult: 2
  }
  inner_product_param {
    num_output: 180
    weight_filler {
      type: "gaussian"
      std: 0.01
    }
    bias_filler {
      type: "constant"
    }
  }
}
layer {
  name: "relu1"
  type: "ReLU"
  bottom: "ip1"
  top: "ip1"
}
layer {
  name: "ip2"
  type: "InnerProduct"
  bottom: "ip1"
  top: "ip2"
  param {
    lr_mult: 1
  }
  param {
    lr_mult: 2
  }
  inner_product_param {
    num_output: 60
    weight_filler {
      type: "gaussian"
      std: 0.01
    }
    bias_filler {
      type: "constant"
    }
  }
}
layer {
  name: "relu2"
  type: "ReLU"
  bottom: "ip2"
  top: "ip2"
}
layer {
  name: "ip3"
  type: "InnerProduct"
  bottom: "ip2"
  top: "ip3"
  param {
    lr_mult: 1
  }
  param {
    lr_mult: 2
  }
  inner_product_param {
    num_output: 10
    weight_filler {
      type: "gaussian"
      std: 0.01
    }
    bias_filler {
      type: "constant"
    }
  }
}
layer {
  name: "loss"
  type: "SoftmaxWithLoss"
  bottom: "ip3"
  bottom: "label"
  top: "loss"
}
I0504 09:24:22.887873 23534 layer_factory.hpp:77] Creating layer cifar
I0504 09:24:22.887972 23534 db_lmdb.cpp:35] Opened lmdb examples/cifar10/cifar10_train_lmdb
I0504 09:24:22.888000 23534 net.cpp:86] Creating Layer cifar
I0504 09:24:22.888010 23534 net.cpp:382] cifar -> data
I0504 09:24:22.888032 23534 net.cpp:382] cifar -> label
I0504 09:24:22.888046 23534 data_transformer.cpp:25] Loading mean file from: examples/cifar10/mean.binaryproto
I0504 09:24:22.890161 23534 data_layer.cpp:45] output data size: 111,3,32,32
I0504 09:24:22.898026 23534 net.cpp:124] Setting up cifar
I0504 09:24:22.898046 23534 net.cpp:131] Top shape: 111 3 32 32 (340992)
I0504 09:24:22.898052 23534 net.cpp:131] Top shape: 111 (111)
I0504 09:24:22.898056 23534 net.cpp:139] Memory required for data: 1364412
I0504 09:24:22.898064 23534 layer_factory.hpp:77] Creating layer conv0
I0504 09:24:22.898082 23534 net.cpp:86] Creating Layer conv0
I0504 09:24:22.898088 23534 net.cpp:408] conv0 <- data
I0504 09:24:22.898105 23534 net.cpp:382] conv0 -> conv0
I0504 09:24:23.151250 23534 net.cpp:124] Setting up conv0
I0504 09:24:23.151275 23534 net.cpp:131] Top shape: 111 24 34 34 (3079584)
I0504 09:24:23.151279 23534 net.cpp:139] Memory required for data: 13682748
I0504 09:24:23.151293 23534 layer_factory.hpp:77] Creating layer Sigmoid0
I0504 09:24:23.151304 23534 net.cpp:86] Creating Layer Sigmoid0
I0504 09:24:23.151309 23534 net.cpp:408] Sigmoid0 <- conv0
I0504 09:24:23.151314 23534 net.cpp:382] Sigmoid0 -> Sigmoid0
I0504 09:24:23.151474 23534 net.cpp:124] Setting up Sigmoid0
I0504 09:24:23.151484 23534 net.cpp:131] Top shape: 111 24 34 34 (3079584)
I0504 09:24:23.151486 23534 net.cpp:139] Memory required for data: 26001084
I0504 09:24:23.151489 23534 layer_factory.hpp:77] Creating layer pool0
I0504 09:24:23.151496 23534 net.cpp:86] Creating Layer pool0
I0504 09:24:23.151499 23534 net.cpp:408] pool0 <- Sigmoid0
I0504 09:24:23.151504 23534 net.cpp:382] pool0 -> pool0
I0504 09:24:23.152197 23534 net.cpp:124] Setting up pool0
I0504 09:24:23.152210 23534 net.cpp:131] Top shape: 111 24 17 17 (769896)
I0504 09:24:23.152214 23534 net.cpp:139] Memory required for data: 29080668
I0504 09:24:23.152216 23534 layer_factory.hpp:77] Creating layer conv1
I0504 09:24:23.152227 23534 net.cpp:86] Creating Layer conv1
I0504 09:24:23.152230 23534 net.cpp:408] conv1 <- pool0
I0504 09:24:23.152236 23534 net.cpp:382] conv1 -> conv1
I0504 09:24:23.155216 23534 net.cpp:124] Setting up conv1
I0504 09:24:23.155230 23534 net.cpp:131] Top shape: 111 72 19 19 (2885112)
I0504 09:24:23.155233 23534 net.cpp:139] Memory required for data: 40621116
I0504 09:24:23.155241 23534 layer_factory.hpp:77] Creating layer Sigmoid1
I0504 09:24:23.155247 23534 net.cpp:86] Creating Layer Sigmoid1
I0504 09:24:23.155251 23534 net.cpp:408] Sigmoid1 <- conv1
I0504 09:24:23.155254 23534 net.cpp:382] Sigmoid1 -> Sigmoid1
I0504 09:24:23.155433 23534 net.cpp:124] Setting up Sigmoid1
I0504 09:24:23.155443 23534 net.cpp:131] Top shape: 111 72 19 19 (2885112)
I0504 09:24:23.155447 23534 net.cpp:139] Memory required for data: 52161564
I0504 09:24:23.155449 23534 layer_factory.hpp:77] Creating layer pool1
I0504 09:24:23.155468 23534 net.cpp:86] Creating Layer pool1
I0504 09:24:23.155474 23534 net.cpp:408] pool1 <- Sigmoid1
I0504 09:24:23.155494 23534 net.cpp:382] pool1 -> pool1
I0504 09:24:23.155647 23534 net.cpp:124] Setting up pool1
I0504 09:24:23.155655 23534 net.cpp:131] Top shape: 111 72 9 9 (647352)
I0504 09:24:23.155658 23534 net.cpp:139] Memory required for data: 54750972
I0504 09:24:23.155661 23534 layer_factory.hpp:77] Creating layer ip1
I0504 09:24:23.155668 23534 net.cpp:86] Creating Layer ip1
I0504 09:24:23.155671 23534 net.cpp:408] ip1 <- pool1
I0504 09:24:23.155676 23534 net.cpp:382] ip1 -> ip1
I0504 09:24:23.183907 23534 net.cpp:124] Setting up ip1
I0504 09:24:23.183919 23534 net.cpp:131] Top shape: 111 180 (19980)
I0504 09:24:23.183923 23534 net.cpp:139] Memory required for data: 54830892
I0504 09:24:23.183930 23534 layer_factory.hpp:77] Creating layer relu1
I0504 09:24:23.183953 23534 net.cpp:86] Creating Layer relu1
I0504 09:24:23.183955 23534 net.cpp:408] relu1 <- ip1
I0504 09:24:23.183959 23534 net.cpp:369] relu1 -> ip1 (in-place)
I0504 09:24:23.184108 23534 net.cpp:124] Setting up relu1
I0504 09:24:23.184116 23534 net.cpp:131] Top shape: 111 180 (19980)
I0504 09:24:23.184119 23534 net.cpp:139] Memory required for data: 54910812
I0504 09:24:23.184123 23534 layer_factory.hpp:77] Creating layer ip2
I0504 09:24:23.184128 23534 net.cpp:86] Creating Layer ip2
I0504 09:24:23.184131 23534 net.cpp:408] ip2 <- ip1
I0504 09:24:23.184149 23534 net.cpp:382] ip2 -> ip2
I0504 09:24:23.184525 23534 net.cpp:124] Setting up ip2
I0504 09:24:23.184530 23534 net.cpp:131] Top shape: 111 60 (6660)
I0504 09:24:23.184533 23534 net.cpp:139] Memory required for data: 54937452
I0504 09:24:23.184538 23534 layer_factory.hpp:77] Creating layer relu2
I0504 09:24:23.184543 23534 net.cpp:86] Creating Layer relu2
I0504 09:24:23.184545 23534 net.cpp:408] relu2 <- ip2
I0504 09:24:23.184550 23534 net.cpp:369] relu2 -> ip2 (in-place)
I0504 09:24:23.185364 23534 net.cpp:124] Setting up relu2
I0504 09:24:23.185375 23534 net.cpp:131] Top shape: 111 60 (6660)
I0504 09:24:23.185379 23534 net.cpp:139] Memory required for data: 54964092
I0504 09:24:23.185382 23534 layer_factory.hpp:77] Creating layer ip3
I0504 09:24:23.185389 23534 net.cpp:86] Creating Layer ip3
I0504 09:24:23.185391 23534 net.cpp:408] ip3 <- ip2
I0504 09:24:23.185396 23534 net.cpp:382] ip3 -> ip3
I0504 09:24:23.185518 23534 net.cpp:124] Setting up ip3
I0504 09:24:23.185525 23534 net.cpp:131] Top shape: 111 10 (1110)
I0504 09:24:23.185528 23534 net.cpp:139] Memory required for data: 54968532
I0504 09:24:23.185536 23534 layer_factory.hpp:77] Creating layer loss
I0504 09:24:23.185541 23534 net.cpp:86] Creating Layer loss
I0504 09:24:23.185544 23534 net.cpp:408] loss <- ip3
I0504 09:24:23.185547 23534 net.cpp:408] loss <- label
I0504 09:24:23.185552 23534 net.cpp:382] loss -> loss
I0504 09:24:23.185569 23534 layer_factory.hpp:77] Creating layer loss
…
I0504 09:24:23.186224 23534 solver.cpp:173] Creating test net (#0) specified by net file: ECE595/cifar/train_test/var_everything_tiny/cifar_train_test_118.prototxt
I0504 09:24:23.186278 23534 net.cpp:296] The NetState phase (1) differed from the phase (0) specified by a rule in layer cifar
I0504 09:24:23.186383 23534 net.cpp:53] Initializing net from parameters: 
name: "CIFAR"
state {
  phase: TEST
}
layer {
  name: "cifar"
  type: "Data"
  top: "data"
  top: "label"
  include {
    phase: TEST
  }
  transform_param {
    mean_file: "examples/cifar10/mean.binaryproto"
  }
  data_param {
    source: "examples/cifar10/cifar10_test_lmdb"
    batch_size: 1000
    backend: LMDB
  }
}
layer {
  name: "conv0"
  type: "Convolution"
  bottom: "data"
  top: "conv0"
  param {
    lr_mult: 1
  }
  param {
    lr_mult: 2
  }
  convolution_param {
    num_output: 24
    pad: 2
    kernel_size: 3
    stride: 1
    weight_filler {
      type: "gaussian"
      std: 0.01
    }
    bias_filler {
      type: "constant"
    }
  }
}
layer {
  name: "Sigmoid0"
  type: "Sigmoid"
  bottom: "conv0"
  top: "Sigmoid0"
}
layer {
  name: "pool0"
  type: "Pooling"
  bottom: "Sigmoid0"
  top: "pool0"
  pooling_param {
    pool: AVE
    kernel_size: 3
    stride: 2
  }
}
layer {
  name: "conv1"
  type: "Convolution"
  bottom: "pool0"
  top: "conv1"
  param {
    lr_mult: 1
  }
  param {
    lr_mult: 2
  }
  convolution_param {
    num_output: 72
    pad: 2
    kernel_size: 3
    stride: 1
    weight_filler {
      type: "gaussian"
      std: 0.01
    }
    bias_filler {
      type: "constant"
    }
  }
}
layer {
  name: "Sigmoid1"
  type: "Sigmoid"
  bottom: "conv1"
  top: "Sigmoid1"
}
layer {
  name: "pool1"
  type: "Pooling"
  bottom: "Sigmoid1"
  top: "pool1"
  pooling_param {
    pool: AVE
    kernel_size: 3
    stride: 2
  }
}
layer {
  name: "ip1"
  type: "InnerProduct"
  bottom: "pool1"
  top: "ip1"
  param {
    lr_mult: 1
  }
  param {
    lr_mult: 2
  }
  inner_product_param {
    num_output: 180
    weight_filler {
      type: "gaussian"
      std: 0.01
    }
    bias_filler {
      type: "constant"
    }
  }
}
layer {
  name: "relu1"
  type: "ReLU"
  bottom: "ip1"
  top: "ip1"
}
layer {
  name: "ip2"
  type: "InnerProduct"
  bottom: "ip1"
  top: "ip2"
  param {
    lr_mult: 1
  }
  param {
    lr_mult: 2
  }
  inner_product_param {
    num_output: 60
    weight_filler {
      type: "gaussian"
      std: 0.01
    }
    bias_filler {
      type: "constant"
    }
  }
}
layer {
  name: "relu2"
  type: "ReLU"
  bottom: "ip2"
  top: "ip2"
}
layer {
  name: "ip3"
  type: "InnerProduct"
  bottom: "ip2"
  top: "ip3"
  param {
    lr_mult: 1
  }
  param {
    lr_mult: 2
  }
  inner_product_param {
    num_output: 10
    weight_filler {
      type: "gaussian"
      std: 0.01
    }
    bias_filler {
      type: "constant"
    }
  }
}
layer {
  name: "accuracy"
  type: "Accuracy"
  bottom: "ip3"
  bottom: "label"
  top: "accuracy"
  include {
    phase: TEST
  }
}
layer {
  name: "loss"
  type: "SoftmaxWithLoss"
  bottom: "ip3"
  bottom: "label"
  top: "loss"
}
I0504 09:24:23.186461 23534 layer_factory.hpp:77] Creating layer cifar
I0504 09:24:23.186504 23534 db_lmdb.cpp:35] Opened lmdb examples/cifar10/cifar10_test_lmdb
I0504 09:24:23.186516 23534 net.cpp:86] Creating Layer cifar
I0504 09:24:23.186519 23534 net.cpp:382] cifar -> data
I0504 09:24:23.186527 23534 net.cpp:382] cifar -> label
I0504 09:24:23.186532 23534 data_transformer.cpp:25] Loading mean file from: examples/cifar10/mean.binaryproto
I0504 09:24:23.186662 23534 data_layer.cpp:45] output data size: 1000,3,32,32
I0504 09:24:23.207926 23534 net.cpp:124] Setting up cifar
I0504 09:24:23.207967 23534 net.cpp:131] Top shape: 1000 3 32 32 (3072000)
I0504 09:24:23.207972 23534 net.cpp:131] Top shape: 1000 (1000)
I0504 09:24:23.207974 23534 net.cpp:139] Memory required for data: 12292000
I0504 09:24:23.207979 23534 layer_factory.hpp:77] Creating layer label_cifar_1_split
I0504 09:24:23.208005 23534 net.cpp:86] Creating Layer label_cifar_1_split
I0504 09:24:23.208025 23534 net.cpp:408] label_cifar_1_split <- label
I0504 09:24:23.208031 23534 net.cpp:382] label_cifar_1_split -> label_cifar_1_split_0
I0504 09:24:23.208040 23534 net.cpp:382] label_cifar_1_split -> label_cifar_1_split_1
I0504 09:24:23.208118 23534 net.cpp:124] Setting up label_cifar_1_split
I0504 09:24:23.208125 23534 net.cpp:131] Top shape: 1000 (1000)
I0504 09:24:23.208129 23534 net.cpp:131] Top shape: 1000 (1000)
I0504 09:24:23.208132 23534 net.cpp:139] Memory required for data: 12300000
I0504 09:24:23.208134 23534 layer_factory.hpp:77] Creating layer conv0
I0504 09:24:23.208147 23534 net.cpp:86] Creating Layer conv0
I0504 09:24:23.208149 23534 net.cpp:408] conv0 <- data
I0504 09:24:23.208154 23534 net.cpp:382] conv0 -> conv0
I0504 09:24:23.209875 23534 net.cpp:124] Setting up conv0
I0504 09:24:23.209904 23534 net.cpp:131] Top shape: 1000 24 34 34 (27744000)
I0504 09:24:23.209908 23534 net.cpp:139] Memory required for data: 123276000
I0504 09:24:23.209933 23534 layer_factory.hpp:77] Creating layer Sigmoid0
I0504 09:24:23.209940 23534 net.cpp:86] Creating Layer Sigmoid0
I0504 09:24:23.209944 23534 net.cpp:408] Sigmoid0 <- conv0
I0504 09:24:23.209947 23534 net.cpp:382] Sigmoid0 -> Sigmoid0
I0504 09:24:23.210160 23534 net.cpp:124] Setting up Sigmoid0
I0504 09:24:23.210181 23534 net.cpp:131] Top shape: 1000 24 34 34 (27744000)
I0504 09:24:23.210185 23534 net.cpp:139] Memory required for data: 234252000
I0504 09:24:23.210188 23534 layer_factory.hpp:77] Creating layer pool0
I0504 09:24:23.210196 23534 net.cpp:86] Creating Layer pool0
I0504 09:24:23.210199 23534 net.cpp:408] pool0 <- Sigmoid0
I0504 09:24:23.210204 23534 net.cpp:382] pool0 -> pool0
I0504 09:24:23.210470 23534 net.cpp:124] Setting up pool0
I0504 09:24:23.210480 23534 net.cpp:131] Top shape: 1000 24 17 17 (6936000)
I0504 09:24:23.210484 23534 net.cpp:139] Memory required for data: 261996000
I0504 09:24:23.210486 23534 layer_factory.hpp:77] Creating layer conv1
I0504 09:24:23.210496 23534 net.cpp:86] Creating Layer conv1
I0504 09:24:23.210500 23534 net.cpp:408] conv1 <- pool0
I0504 09:24:23.210506 23534 net.cpp:382] conv1 -> conv1
I0504 09:24:23.213317 23534 net.cpp:124] Setting up conv1
I0504 09:24:23.213330 23534 net.cpp:131] Top shape: 1000 72 19 19 (25992000)
I0504 09:24:23.213349 23534 net.cpp:139] Memory required for data: 365964000
I0504 09:24:23.213359 23534 layer_factory.hpp:77] Creating layer Sigmoid1
I0504 09:24:23.213366 23534 net.cpp:86] Creating Layer Sigmoid1
I0504 09:24:23.213368 23534 net.cpp:408] Sigmoid1 <- conv1
I0504 09:24:23.213374 23534 net.cpp:382] Sigmoid1 -> Sigmoid1
I0504 09:24:23.213556 23534 net.cpp:124] Setting up Sigmoid1
I0504 09:24:23.213564 23534 net.cpp:131] Top shape: 1000 72 19 19 (25992000)
I0504 09:24:23.213568 23534 net.cpp:139] Memory required for data: 469932000
I0504 09:24:23.213572 23534 layer_factory.hpp:77] Creating layer pool1
I0504 09:24:23.213577 23534 net.cpp:86] Creating Layer pool1
I0504 09:24:23.213580 23534 net.cpp:408] pool1 <- Sigmoid1
I0504 09:24:23.213585 23534 net.cpp:382] pool1 -> pool1
I0504 09:24:23.214336 23534 net.cpp:124] Setting up pool1
I0504 09:24:23.214349 23534 net.cpp:131] Top shape: 1000 72 9 9 (5832000)
I0504 09:24:23.214368 23534 net.cpp:139] Memory required for data: 493260000
I0504 09:24:23.214371 23534 layer_factory.hpp:77] Creating layer ip1
I0504 09:24:23.214381 23534 net.cpp:86] Creating Layer ip1
I0504 09:24:23.214385 23534 net.cpp:408] ip1 <- pool1
I0504 09:24:23.214390 23534 net.cpp:382] ip1 -> ip1
I0504 09:24:23.242825 23534 net.cpp:124] Setting up ip1
I0504 09:24:23.242858 23534 net.cpp:131] Top shape: 1000 180 (180000)
I0504 09:24:23.242861 23534 net.cpp:139] Memory required for data: 493980000
I0504 09:24:23.242885 23534 layer_factory.hpp:77] Creating layer relu1
I0504 09:24:23.242894 23534 net.cpp:86] Creating Layer relu1
I0504 09:24:23.242898 23534 net.cpp:408] relu1 <- ip1
I0504 09:24:23.242903 23534 net.cpp:369] relu1 -> ip1 (in-place)
I0504 09:24:23.243119 23534 net.cpp:124] Setting up relu1
I0504 09:24:23.243127 23534 net.cpp:131] Top shape: 1000 180 (180000)
I0504 09:24:23.243130 23534 net.cpp:139] Memory required for data: 494700000
I0504 09:24:23.243135 23534 layer_factory.hpp:77] Creating layer ip2
I0504 09:24:23.243144 23534 net.cpp:86] Creating Layer ip2
I0504 09:24:23.243147 23534 net.cpp:408] ip2 <- ip1
I0504 09:24:23.243152 23534 net.cpp:382] ip2 -> ip2
I0504 09:24:23.243572 23534 net.cpp:124] Setting up ip2
I0504 09:24:23.243583 23534 net.cpp:131] Top shape: 1000 60 (60000)
I0504 09:24:23.243587 23534 net.cpp:139] Memory required for data: 494940000
I0504 09:24:23.243592 23534 layer_factory.hpp:77] Creating layer relu2
I0504 09:24:23.243597 23534 net.cpp:86] Creating Layer relu2
I0504 09:24:23.243600 23534 net.cpp:408] relu2 <- ip2
I0504 09:24:23.243604 23534 net.cpp:369] relu2 -> ip2 (in-place)
I0504 09:24:23.243789 23534 net.cpp:124] Setting up relu2
I0504 09:24:23.243798 23534 net.cpp:131] Top shape: 1000 60 (60000)
I0504 09:24:23.243800 23534 net.cpp:139] Memory required for data: 495180000
I0504 09:24:23.243803 23534 layer_factory.hpp:77] Creating layer ip3
I0504 09:24:23.243810 23534 net.cpp:86] Creating Layer ip3
I0504 09:24:23.243813 23534 net.cpp:408] ip3 <- ip2
I0504 09:24:23.243820 23534 net.cpp:382] ip3 -> ip3
I0504 09:24:23.243948 23534 net.cpp:124] Setting up ip3
I0504 09:24:23.243969 23534 net.cpp:131] Top shape: 1000 10 (10000)
I0504 09:24:23.243984 23534 net.cpp:139] Memory required for data: 495220000
I0504 09:24:23.243993 23534 layer_factory.hpp:77] Creating layer ip3_ip3_0_split
I0504 09:24:23.244002 23534 net.cpp:86] Creating Layer ip3_ip3_0_split
I0504 09:24:23.244020 23534 net.cpp:408] ip3_ip3_0_split <- ip3
I0504 09:24:23.244025 23534 net.cpp:382] ip3_ip3_0_split -> ip3_ip3_0_split_0
I0504 09:24:23.244031 23534 net.cpp:382] ip3_ip3_0_split -> ip3_ip3_0_split_1
I0504 09:24:23.244065 23534 net.cpp:124] Setting up ip3_ip3_0_split
I0504 09:24:23.244072 23534 net.cpp:131] Top shape: 1000 10 (10000)
I0504 09:24:23.244091 23534 net.cpp:131] Top shape: 1000 10 (10000)
I0504 09:24:23.244094 23534 net.cpp:139] Memory required for data: 495300000
I0504 09:24:23.244097 23534 layer_factory.hpp:77] Creating layer accuracy
I0504 09:24:23.244103 23534 net.cpp:86] Creating Layer accuracy
I0504 09:24:23.244107 23534 net.cpp:408] accuracy <- ip3_ip3_0_split_0
I0504 09:24:23.244110 23534 net.cpp:408] accuracy <- label_cifar_1_split_0
I0504 09:24:23.244115 23534 net.cpp:382] accuracy -> accuracy
…
