…
I0504 09:43:34.877538 24045 net.cpp:296] The NetState phase (0) differed from the phase (1) specified by a rule in layer cifar
I0504 09:43:34.877554 24045 net.cpp:296] The NetState phase (0) differed from the phase (1) specified by a rule in layer accuracy
I0504 09:43:34.877657 24045 net.cpp:53] Initializing net from parameters: 
name: "CIFAR"
state {
  phase: TRAIN
  level: 0
  stage: ""
}
layer {
  name: "cifar"
  type: "Data"
  top: "data"
  top: "label"
  include {
    phase: TRAIN
  }
  transform_param {
    mean_file: "examples/cifar10/mean.binaryproto"
  }
  data_param {
    source: "examples/cifar10/cifar10_train_lmdb"
    batch_size: 111
    backend: LMDB
  }
}
layer {
  name: "conv0"
  type: "Convolution"
  bottom: "data"
  top: "conv0"
  param {
    lr_mult: 1
  }
  param {
    lr_mult: 2
  }
  convolution_param {
    num_output: 24
    pad: 2
    kernel_size: 5
    stride: 1
    weight_filler {
      type: "gaussian"
      std: 0.01
    }
    bias_filler {
      type: "constant"
    }
  }
}
layer {
  name: "Sigmoid0"
  type: "Sigmoid"
  bottom: "conv0"
  top: "Sigmoid0"
}
layer {
  name: "pool0"
  type: "Pooling"
  bottom: "Sigmoid0"
  top: "pool0"
  pooling_param {
    pool: AVE
    kernel_size: 3
    stride: 2
  }
}
layer {
  name: "conv1"
  type: "Convolution"
  bottom: "pool0"
  top: "conv1"
  param {
    lr_mult: 1
  }
  param {
    lr_mult: 2
  }
  convolution_param {
    num_output: 72
    pad: 2
    kernel_size: 3
    stride: 1
    weight_filler {
      type: "gaussian"
      std: 0.01
    }
    bias_filler {
      type: "constant"
    }
  }
}
layer {
  name: "Sigmoid1"
  type: "Sigmoid"
  bottom: "conv1"
  top: "Sigmoid1"
}
layer {
  name: "pool1"
  type: "Pooling"
  bottom: "Sigmoid1"
  top: "pool1"
  pooling_param {
    pool: AVE
    kernel_size: 3
    stride: 2
  }
}
layer {
  name: "ip1"
  type: "InnerProduct"
  bottom: "pool1"
  top: "ip1"
  param {
    lr_mult: 1
  }
  param {
    lr_mult: 2
  }
  inner_product_param {
    num_output: 10
    weight_filler {
      type: "gaussian"
      std: 0.01
    }
    bias_filler {
      type: "constant"
    }
  }
}
layer {
  name: "relu1"
  type: "ReLU"
  bottom: "ip1"
  top: "ip1"
}
layer {
  name: "ip2"
  type: "InnerProduct"
  bottom: "ip1"
  top: "ip2"
  param {
    lr_mult: 1
  }
  param {
    lr_mult: 2
  }
  inner_product_param {
    num_output: 10
    weight_filler {
      type: "gaussian"
      std: 0.01
    }
    bias_filler {
      type: "constant"
    }
  }
}
layer {
  name: "relu2"
  type: "ReLU"
  bottom: "ip2"
  top: "ip2"
}
layer {
  name: "ip3"
  type: "InnerProduct"
  bottom: "ip2"
  top: "ip3"
  param {
    lr_mult: 1
  }
  param {
    lr_mult: 2
  }
  inner_product_param {
    num_output: 10
    weight_filler {
      type: "gaussian"
      std: 0.01
    }
    bias_filler {
      type: "constant"
    }
  }
}
layer {
  name: "loss"
  type: "SoftmaxWithLoss"
  bottom: "ip3"
  bottom: "label"
  top: "loss"
}
I0504 09:43:34.877724 24045 layer_factory.hpp:77] Creating layer cifar
I0504 09:43:34.877807 24045 db_lmdb.cpp:35] Opened lmdb examples/cifar10/cifar10_train_lmdb
I0504 09:43:34.877828 24045 net.cpp:86] Creating Layer cifar
I0504 09:43:34.877836 24045 net.cpp:382] cifar -> data
I0504 09:43:34.877854 24045 net.cpp:382] cifar -> label
I0504 09:43:34.877864 24045 data_transformer.cpp:25] Loading mean file from: examples/cifar10/mean.binaryproto
I0504 09:43:34.879672 24045 data_layer.cpp:45] output data size: 111,3,32,32
I0504 09:43:34.886416 24045 net.cpp:124] Setting up cifar
I0504 09:43:34.886430 24045 net.cpp:131] Top shape: 111 3 32 32 (340992)
I0504 09:43:34.886435 24045 net.cpp:131] Top shape: 111 (111)
I0504 09:43:34.886438 24045 net.cpp:139] Memory required for data: 1364412
I0504 09:43:34.886445 24045 layer_factory.hpp:77] Creating layer conv0
I0504 09:43:34.886459 24045 net.cpp:86] Creating Layer conv0
I0504 09:43:34.886463 24045 net.cpp:408] conv0 <- data
I0504 09:43:34.886488 24045 net.cpp:382] conv0 -> conv0
I0504 09:43:35.119288 24045 net.cpp:124] Setting up conv0
I0504 09:43:35.119314 24045 net.cpp:131] Top shape: 111 24 32 32 (2727936)
I0504 09:43:35.119318 24045 net.cpp:139] Memory required for data: 12276156
I0504 09:43:35.119333 24045 layer_factory.hpp:77] Creating layer Sigmoid0
I0504 09:43:35.119343 24045 net.cpp:86] Creating Layer Sigmoid0
I0504 09:43:35.119348 24045 net.cpp:408] Sigmoid0 <- conv0
I0504 09:43:35.119352 24045 net.cpp:382] Sigmoid0 -> Sigmoid0
I0504 09:43:35.119527 24045 net.cpp:124] Setting up Sigmoid0
I0504 09:43:35.119536 24045 net.cpp:131] Top shape: 111 24 32 32 (2727936)
I0504 09:43:35.119539 24045 net.cpp:139] Memory required for data: 23187900
I0504 09:43:35.119542 24045 layer_factory.hpp:77] Creating layer pool0
I0504 09:43:35.119549 24045 net.cpp:86] Creating Layer pool0
I0504 09:43:35.119552 24045 net.cpp:408] pool0 <- Sigmoid0
I0504 09:43:35.119556 24045 net.cpp:382] pool0 -> pool0
I0504 09:43:35.120280 24045 net.cpp:124] Setting up pool0
I0504 09:43:35.120292 24045 net.cpp:131] Top shape: 111 24 16 16 (681984)
I0504 09:43:35.120296 24045 net.cpp:139] Memory required for data: 25915836
I0504 09:43:35.120299 24045 layer_factory.hpp:77] Creating layer conv1
I0504 09:43:35.120311 24045 net.cpp:86] Creating Layer conv1
I0504 09:43:35.120313 24045 net.cpp:408] conv1 <- pool0
I0504 09:43:35.120318 24045 net.cpp:382] conv1 -> conv1
I0504 09:43:35.123152 24045 net.cpp:124] Setting up conv1
I0504 09:43:35.123164 24045 net.cpp:131] Top shape: 111 72 18 18 (2589408)
I0504 09:43:35.123184 24045 net.cpp:139] Memory required for data: 36273468
I0504 09:43:35.123193 24045 layer_factory.hpp:77] Creating layer Sigmoid1
I0504 09:43:35.123198 24045 net.cpp:86] Creating Layer Sigmoid1
I0504 09:43:35.123201 24045 net.cpp:408] Sigmoid1 <- conv1
I0504 09:43:35.123206 24045 net.cpp:382] Sigmoid1 -> Sigmoid1
I0504 09:43:35.123384 24045 net.cpp:124] Setting up Sigmoid1
I0504 09:43:35.123394 24045 net.cpp:131] Top shape: 111 72 18 18 (2589408)
I0504 09:43:35.123396 24045 net.cpp:139] Memory required for data: 46631100
I0504 09:43:35.123399 24045 layer_factory.hpp:77] Creating layer pool1
I0504 09:43:35.123405 24045 net.cpp:86] Creating Layer pool1
I0504 09:43:35.123409 24045 net.cpp:408] pool1 <- Sigmoid1
I0504 09:43:35.123427 24045 net.cpp:382] pool1 -> pool1
I0504 09:43:35.123574 24045 net.cpp:124] Setting up pool1
I0504 09:43:35.123582 24045 net.cpp:131] Top shape: 111 72 9 9 (647352)
I0504 09:43:35.123585 24045 net.cpp:139] Memory required for data: 49220508
I0504 09:43:35.123589 24045 layer_factory.hpp:77] Creating layer ip1
I0504 09:43:35.123595 24045 net.cpp:86] Creating Layer ip1
I0504 09:43:35.123598 24045 net.cpp:408] ip1 <- pool1
I0504 09:43:35.123603 24045 net.cpp:382] ip1 -> ip1
I0504 09:43:35.125959 24045 net.cpp:124] Setting up ip1
I0504 09:43:35.125972 24045 net.cpp:131] Top shape: 111 10 (1110)
I0504 09:43:35.125974 24045 net.cpp:139] Memory required for data: 49224948
I0504 09:43:35.125982 24045 layer_factory.hpp:77] Creating layer relu1
I0504 09:43:35.125988 24045 net.cpp:86] Creating Layer relu1
I0504 09:43:35.125991 24045 net.cpp:408] relu1 <- ip1
I0504 09:43:35.125995 24045 net.cpp:369] relu1 -> ip1 (in-place)
I0504 09:43:35.126158 24045 net.cpp:124] Setting up relu1
I0504 09:43:35.126168 24045 net.cpp:131] Top shape: 111 10 (1110)
I0504 09:43:35.126170 24045 net.cpp:139] Memory required for data: 49229388
I0504 09:43:35.126173 24045 layer_factory.hpp:77] Creating layer ip2
I0504 09:43:35.126179 24045 net.cpp:86] Creating Layer ip2
I0504 09:43:35.126183 24045 net.cpp:408] ip2 <- ip1
I0504 09:43:35.126202 24045 net.cpp:382] ip2 -> ip2
I0504 09:43:35.126298 24045 net.cpp:124] Setting up ip2
I0504 09:43:35.126305 24045 net.cpp:131] Top shape: 111 10 (1110)
I0504 09:43:35.126308 24045 net.cpp:139] Memory required for data: 49233828
I0504 09:43:35.126314 24045 layer_factory.hpp:77] Creating layer relu2
I0504 09:43:35.126318 24045 net.cpp:86] Creating Layer relu2
I0504 09:43:35.126322 24045 net.cpp:408] relu2 <- ip2
I0504 09:43:35.126325 24045 net.cpp:369] relu2 -> ip2 (in-place)
I0504 09:43:35.127034 24045 net.cpp:124] Setting up relu2
I0504 09:43:35.127045 24045 net.cpp:131] Top shape: 111 10 (1110)
I0504 09:43:35.127048 24045 net.cpp:139] Memory required for data: 49238268
I0504 09:43:35.127051 24045 layer_factory.hpp:77] Creating layer ip3
I0504 09:43:35.127058 24045 net.cpp:86] Creating Layer ip3
I0504 09:43:35.127060 24045 net.cpp:408] ip3 <- ip2
I0504 09:43:35.127065 24045 net.cpp:382] ip3 -> ip3
I0504 09:43:35.127174 24045 net.cpp:124] Setting up ip3
I0504 09:43:35.127182 24045 net.cpp:131] Top shape: 111 10 (1110)
I0504 09:43:35.127184 24045 net.cpp:139] Memory required for data: 49242708
I0504 09:43:35.127192 24045 layer_factory.hpp:77] Creating layer loss
I0504 09:43:35.127198 24045 net.cpp:86] Creating Layer loss
I0504 09:43:35.127202 24045 net.cpp:408] loss <- ip3
I0504 09:43:35.127204 24045 net.cpp:408] loss <- label
I0504 09:43:35.127209 24045 net.cpp:382] loss -> loss
I0504 09:43:35.127223 24045 layer_factory.hpp:77] Creating layer loss
…
I0504 09:43:35.127881 24045 solver.cpp:173] Creating test net (#0) specified by net file: ECE595/cifar/train_test/var_everything_tiny/cifar_train_test_123.prototxt
I0504 09:43:35.127931 24045 net.cpp:296] The NetState phase (1) differed from the phase (0) specified by a rule in layer cifar
I0504 09:43:35.128041 24045 net.cpp:53] Initializing net from parameters: 
name: "CIFAR"
state {
  phase: TEST
}
layer {
  name: "cifar"
  type: "Data"
  top: "data"
  top: "label"
  include {
    phase: TEST
  }
  transform_param {
    mean_file: "examples/cifar10/mean.binaryproto"
  }
  data_param {
    source: "examples/cifar10/cifar10_test_lmdb"
    batch_size: 1000
    backend: LMDB
  }
}
layer {
  name: "conv0"
  type: "Convolution"
  bottom: "data"
  top: "conv0"
  param {
    lr_mult: 1
  }
  param {
    lr_mult: 2
  }
  convolution_param {
    num_output: 24
    pad: 2
    kernel_size: 5
    stride: 1
    weight_filler {
      type: "gaussian"
      std: 0.01
    }
    bias_filler {
      type: "constant"
    }
  }
}
layer {
  name: "Sigmoid0"
  type: "Sigmoid"
  bottom: "conv0"
  top: "Sigmoid0"
}
layer {
  name: "pool0"
  type: "Pooling"
  bottom: "Sigmoid0"
  top: "pool0"
  pooling_param {
    pool: AVE
    kernel_size: 3
    stride: 2
  }
}
layer {
  name: "conv1"
  type: "Convolution"
  bottom: "pool0"
  top: "conv1"
  param {
    lr_mult: 1
  }
  param {
    lr_mult: 2
  }
  convolution_param {
    num_output: 72
    pad: 2
    kernel_size: 3
    stride: 1
    weight_filler {
      type: "gaussian"
      std: 0.01
    }
    bias_filler {
      type: "constant"
    }
  }
}
layer {
  name: "Sigmoid1"
  type: "Sigmoid"
  bottom: "conv1"
  top: "Sigmoid1"
}
layer {
  name: "pool1"
  type: "Pooling"
  bottom: "Sigmoid1"
  top: "pool1"
  pooling_param {
    pool: AVE
    kernel_size: 3
    stride: 2
  }
}
layer {
  name: "ip1"
  type: "InnerProduct"
  bottom: "pool1"
  top: "ip1"
  param {
    lr_mult: 1
  }
  param {
    lr_mult: 2
  }
  inner_product_param {
    num_output: 10
    weight_filler {
      type: "gaussian"
      std: 0.01
    }
    bias_filler {
      type: "constant"
    }
  }
}
layer {
  name: "relu1"
  type: "ReLU"
  bottom: "ip1"
  top: "ip1"
}
layer {
  name: "ip2"
  type: "InnerProduct"
  bottom: "ip1"
  top: "ip2"
  param {
    lr_mult: 1
  }
  param {
    lr_mult: 2
  }
  inner_product_param {
    num_output: 10
    weight_filler {
      type: "gaussian"
      std: 0.01
    }
    bias_filler {
      type: "constant"
    }
  }
}
layer {
  name: "relu2"
  type: "ReLU"
  bottom: "ip2"
  top: "ip2"
}
layer {
  name: "ip3"
  type: "InnerProduct"
  bottom: "ip2"
  top: "ip3"
  param {
    lr_mult: 1
  }
  param {
    lr_mult: 2
  }
  inner_product_param {
    num_output: 10
    weight_filler {
      type: "gaussian"
      std: 0.01
    }
    bias_filler {
      type: "constant"
    }
  }
}
layer {
  name: "accuracy"
  type: "Accuracy"
  bottom: "ip3"
  bottom: "label"
  top: "accuracy"
  include {
    phase: TEST
  }
}
layer {
  name: "loss"
  type: "SoftmaxWithLoss"
  bottom: "ip3"
  bottom: "label"
  top: "loss"
}
I0504 09:43:35.128118 24045 layer_factory.hpp:77] Creating layer cifar
I0504 09:43:35.128161 24045 db_lmdb.cpp:35] Opened lmdb examples/cifar10/cifar10_test_lmdb
I0504 09:43:35.128172 24045 net.cpp:86] Creating Layer cifar
I0504 09:43:35.128177 24045 net.cpp:382] cifar -> data
I0504 09:43:35.128185 24045 net.cpp:382] cifar -> label
I0504 09:43:35.128190 24045 data_transformer.cpp:25] Loading mean file from: examples/cifar10/mean.binaryproto
I0504 09:43:35.128325 24045 data_layer.cpp:45] output data size: 1000,3,32,32
I0504 09:43:35.149796 24045 net.cpp:124] Setting up cifar
I0504 09:43:35.149821 24045 net.cpp:131] Top shape: 1000 3 32 32 (3072000)
I0504 09:43:35.149827 24045 net.cpp:131] Top shape: 1000 (1000)
I0504 09:43:35.149830 24045 net.cpp:139] Memory required for data: 12292000
I0504 09:43:35.149835 24045 layer_factory.hpp:77] Creating layer label_cifar_1_split
I0504 09:43:35.149847 24045 net.cpp:86] Creating Layer label_cifar_1_split
I0504 09:43:35.149850 24045 net.cpp:408] label_cifar_1_split <- label
I0504 09:43:35.149873 24045 net.cpp:382] label_cifar_1_split -> label_cifar_1_split_0
I0504 09:43:35.149881 24045 net.cpp:382] label_cifar_1_split -> label_cifar_1_split_1
I0504 09:43:35.149993 24045 net.cpp:124] Setting up label_cifar_1_split
I0504 09:43:35.150002 24045 net.cpp:131] Top shape: 1000 (1000)
I0504 09:43:35.150005 24045 net.cpp:131] Top shape: 1000 (1000)
I0504 09:43:35.150007 24045 net.cpp:139] Memory required for data: 12300000
I0504 09:43:35.150010 24045 layer_factory.hpp:77] Creating layer conv0
I0504 09:43:35.150022 24045 net.cpp:86] Creating Layer conv0
I0504 09:43:35.150025 24045 net.cpp:408] conv0 <- data
I0504 09:43:35.150030 24045 net.cpp:382] conv0 -> conv0
I0504 09:43:35.151657 24045 net.cpp:124] Setting up conv0
I0504 09:43:35.151671 24045 net.cpp:131] Top shape: 1000 24 32 32 (24576000)
I0504 09:43:35.151674 24045 net.cpp:139] Memory required for data: 110604000
I0504 09:43:35.151684 24045 layer_factory.hpp:77] Creating layer Sigmoid0
I0504 09:43:35.151706 24045 net.cpp:86] Creating Layer Sigmoid0
I0504 09:43:35.151710 24045 net.cpp:408] Sigmoid0 <- conv0
I0504 09:43:35.151715 24045 net.cpp:382] Sigmoid0 -> Sigmoid0
I0504 09:43:35.151902 24045 net.cpp:124] Setting up Sigmoid0
I0504 09:43:35.151922 24045 net.cpp:131] Top shape: 1000 24 32 32 (24576000)
I0504 09:43:35.151926 24045 net.cpp:139] Memory required for data: 208908000
I0504 09:43:35.151929 24045 layer_factory.hpp:77] Creating layer pool0
I0504 09:43:35.151938 24045 net.cpp:86] Creating Layer pool0
I0504 09:43:35.151940 24045 net.cpp:408] pool0 <- Sigmoid0
I0504 09:43:35.151947 24045 net.cpp:382] pool0 -> pool0
I0504 09:43:35.152222 24045 net.cpp:124] Setting up pool0
I0504 09:43:35.152230 24045 net.cpp:131] Top shape: 1000 24 16 16 (6144000)
I0504 09:43:35.152233 24045 net.cpp:139] Memory required for data: 233484000
I0504 09:43:35.152236 24045 layer_factory.hpp:77] Creating layer conv1
I0504 09:43:35.152246 24045 net.cpp:86] Creating Layer conv1
I0504 09:43:35.152250 24045 net.cpp:408] conv1 <- pool0
I0504 09:43:35.152256 24045 net.cpp:382] conv1 -> conv1
I0504 09:43:35.154964 24045 net.cpp:124] Setting up conv1
I0504 09:43:35.154978 24045 net.cpp:131] Top shape: 1000 72 18 18 (23328000)
I0504 09:43:35.154983 24045 net.cpp:139] Memory required for data: 326796000
I0504 09:43:35.154991 24045 layer_factory.hpp:77] Creating layer Sigmoid1
I0504 09:43:35.155014 24045 net.cpp:86] Creating Layer Sigmoid1
I0504 09:43:35.155017 24045 net.cpp:408] Sigmoid1 <- conv1
I0504 09:43:35.155021 24045 net.cpp:382] Sigmoid1 -> Sigmoid1
I0504 09:43:35.155202 24045 net.cpp:124] Setting up Sigmoid1
I0504 09:43:35.155211 24045 net.cpp:131] Top shape: 1000 72 18 18 (23328000)
I0504 09:43:35.155215 24045 net.cpp:139] Memory required for data: 420108000
I0504 09:43:35.155217 24045 layer_factory.hpp:77] Creating layer pool1
I0504 09:43:35.155223 24045 net.cpp:86] Creating Layer pool1
I0504 09:43:35.155226 24045 net.cpp:408] pool1 <- Sigmoid1
I0504 09:43:35.155231 24045 net.cpp:382] pool1 -> pool1
I0504 09:43:35.155962 24045 net.cpp:124] Setting up pool1
I0504 09:43:35.155973 24045 net.cpp:131] Top shape: 1000 72 9 9 (5832000)
I0504 09:43:35.155978 24045 net.cpp:139] Memory required for data: 443436000
I0504 09:43:35.155982 24045 layer_factory.hpp:77] Creating layer ip1
I0504 09:43:35.156008 24045 net.cpp:86] Creating Layer ip1
I0504 09:43:35.156010 24045 net.cpp:408] ip1 <- pool1
I0504 09:43:35.156015 24045 net.cpp:382] ip1 -> ip1
I0504 09:43:35.157714 24045 net.cpp:124] Setting up ip1
I0504 09:43:35.157723 24045 net.cpp:131] Top shape: 1000 10 (10000)
I0504 09:43:35.157727 24045 net.cpp:139] Memory required for data: 443476000
I0504 09:43:35.157734 24045 layer_factory.hpp:77] Creating layer relu1
I0504 09:43:35.157757 24045 net.cpp:86] Creating Layer relu1
I0504 09:43:35.157762 24045 net.cpp:408] relu1 <- ip1
I0504 09:43:35.157765 24045 net.cpp:369] relu1 -> ip1 (in-place)
I0504 09:43:35.157919 24045 net.cpp:124] Setting up relu1
I0504 09:43:35.157927 24045 net.cpp:131] Top shape: 1000 10 (10000)
I0504 09:43:35.157930 24045 net.cpp:139] Memory required for data: 443516000
I0504 09:43:35.157934 24045 layer_factory.hpp:77] Creating layer ip2
I0504 09:43:35.157940 24045 net.cpp:86] Creating Layer ip2
I0504 09:43:35.157943 24045 net.cpp:408] ip2 <- ip1
I0504 09:43:35.157948 24045 net.cpp:382] ip2 -> ip2
I0504 09:43:35.158063 24045 net.cpp:124] Setting up ip2
I0504 09:43:35.158071 24045 net.cpp:131] Top shape: 1000 10 (10000)
I0504 09:43:35.158074 24045 net.cpp:139] Memory required for data: 443556000
I0504 09:43:35.158079 24045 layer_factory.hpp:77] Creating layer relu2
I0504 09:43:35.158085 24045 net.cpp:86] Creating Layer relu2
I0504 09:43:35.158087 24045 net.cpp:408] relu2 <- ip2
I0504 09:43:35.158092 24045 net.cpp:369] relu2 -> ip2 (in-place)
I0504 09:43:35.158243 24045 net.cpp:124] Setting up relu2
I0504 09:43:35.158252 24045 net.cpp:131] Top shape: 1000 10 (10000)
I0504 09:43:35.158254 24045 net.cpp:139] Memory required for data: 443596000
I0504 09:43:35.158257 24045 layer_factory.hpp:77] Creating layer ip3
I0504 09:43:35.158263 24045 net.cpp:86] Creating Layer ip3
I0504 09:43:35.158267 24045 net.cpp:408] ip3 <- ip2
I0504 09:43:35.158272 24045 net.cpp:382] ip3 -> ip3
I0504 09:43:35.158392 24045 net.cpp:124] Setting up ip3
I0504 09:43:35.158398 24045 net.cpp:131] Top shape: 1000 10 (10000)
I0504 09:43:35.158411 24045 net.cpp:139] Memory required for data: 443636000
I0504 09:43:35.158421 24045 layer_factory.hpp:77] Creating layer ip3_ip3_0_split
I0504 09:43:35.158424 24045 net.cpp:86] Creating Layer ip3_ip3_0_split
I0504 09:43:35.158427 24045 net.cpp:408] ip3_ip3_0_split <- ip3
I0504 09:43:35.158432 24045 net.cpp:382] ip3_ip3_0_split -> ip3_ip3_0_split_0
I0504 09:43:35.158437 24045 net.cpp:382] ip3_ip3_0_split -> ip3_ip3_0_split_1
I0504 09:43:35.158469 24045 net.cpp:124] Setting up ip3_ip3_0_split
I0504 09:43:35.158474 24045 net.cpp:131] Top shape: 1000 10 (10000)
I0504 09:43:35.158478 24045 net.cpp:131] Top shape: 1000 10 (10000)
I0504 09:43:35.158480 24045 net.cpp:139] Memory required for data: 443716000
I0504 09:43:35.158483 24045 layer_factory.hpp:77] Creating layer accuracy
I0504 09:43:35.158488 24045 net.cpp:86] Creating Layer accuracy
I0504 09:43:35.158491 24045 net.cpp:408] accuracy <- ip3_ip3_0_split_0
I0504 09:43:35.158495 24045 net.cpp:408] accuracy <- label_cifar_1_split_0
I0504 09:43:35.158499 24045 net.cpp:382] accuracy -> accuracy
…
