…
I0504 06:23:56.933166 16131 net.cpp:296] The NetState phase (0) differed from the phase (1) specified by a rule in layer cifar
I0504 06:23:56.933183 16131 net.cpp:296] The NetState phase (0) differed from the phase (1) specified by a rule in layer accuracy
I0504 06:23:56.933272 16131 net.cpp:53] Initializing net from parameters: 
name: "CIFAR"
state {
  phase: TRAIN
  level: 0
  stage: ""
}
layer {
  name: "cifar"
  type: "Data"
  top: "data"
  top: "label"
  include {
    phase: TRAIN
  }
  transform_param {
    mean_file: "examples/cifar10/mean.binaryproto"
  }
  data_param {
    source: "examples/cifar10/cifar10_train_lmdb"
    batch_size: 111
    backend: LMDB
  }
}
layer {
  name: "conv0"
  type: "Convolution"
  bottom: "data"
  top: "conv0"
  param {
    lr_mult: 1
  }
  param {
    lr_mult: 2
  }
  convolution_param {
    num_output: 216
    pad: 2
    kernel_size: 5
    stride: 1
    weight_filler {
      type: "gaussian"
      std: 0.01
    }
    bias_filler {
      type: "constant"
    }
  }
}
layer {
  name: "Sigmoid0"
  type: "Sigmoid"
  bottom: "conv0"
  top: "Sigmoid0"
}
layer {
  name: "pool0"
  type: "Pooling"
  bottom: "Sigmoid0"
  top: "pool0"
  pooling_param {
    pool: AVE
    kernel_size: 3
    stride: 2
  }
}
layer {
  name: "ip1"
  type: "InnerProduct"
  bottom: "pool0"
  top: "ip1"
  param {
    lr_mult: 1
  }
  param {
    lr_mult: 2
  }
  inner_product_param {
    num_output: 60
    weight_filler {
      type: "gaussian"
      std: 0.01
    }
    bias_filler {
      type: "constant"
    }
  }
}
layer {
  name: "relu1"
  type: "ReLU"
  bottom: "ip1"
  top: "ip1"
}
layer {
  name: "ip2"
  type: "InnerProduct"
  bottom: "ip1"
  top: "ip2"
  param {
    lr_mult: 1
  }
  param {
    lr_mult: 2
  }
  inner_product_param {
    num_output: 180
    weight_filler {
      type: "gaussian"
      std: 0.01
    }
    bias_filler {
      type: "constant"
    }
  }
}
layer {
  name: "relu2"
  type: "ReLU"
  bottom: "ip2"
  top: "ip2"
}
layer {
  name: "ip3"
  type: "InnerProduct"
  bottom: "ip2"
  top: "ip3"
  param {
    lr_mult: 1
  }
  param {
    lr_mult: 2
  }
  inner_product_param {
    num_output: 10
    weight_filler {
      type: "gaussian"
      std: 0.01
    }
    bias_filler {
      type: "constant"
    }
  }
}
layer {
  name: "loss"
  type: "SoftmaxWithLoss"
  bottom: "ip3"
  bottom: "label"
  top: "loss"
}
I0504 06:23:56.933341 16131 layer_factory.hpp:77] Creating layer cifar
I0504 06:23:56.933440 16131 db_lmdb.cpp:35] Opened lmdb examples/cifar10/cifar10_train_lmdb
I0504 06:23:56.933470 16131 net.cpp:86] Creating Layer cifar
I0504 06:23:56.933480 16131 net.cpp:382] cifar -> data
I0504 06:23:56.933503 16131 net.cpp:382] cifar -> label
I0504 06:23:56.933517 16131 data_transformer.cpp:25] Loading mean file from: examples/cifar10/mean.binaryproto
I0504 06:23:56.935694 16131 data_layer.cpp:45] output data size: 111,3,32,32
I0504 06:23:56.943902 16131 net.cpp:124] Setting up cifar
I0504 06:23:56.943922 16131 net.cpp:131] Top shape: 111 3 32 32 (340992)
I0504 06:23:56.943928 16131 net.cpp:131] Top shape: 111 (111)
I0504 06:23:56.943931 16131 net.cpp:139] Memory required for data: 1364412
I0504 06:23:56.943939 16131 layer_factory.hpp:77] Creating layer conv0
I0504 06:23:56.943956 16131 net.cpp:86] Creating Layer conv0
I0504 06:23:56.943965 16131 net.cpp:408] conv0 <- data
I0504 06:23:56.943976 16131 net.cpp:382] conv0 -> conv0
I0504 06:23:57.226749 16131 net.cpp:124] Setting up conv0
I0504 06:23:57.226795 16131 net.cpp:131] Top shape: 111 216 32 32 (24551424)
I0504 06:23:57.226800 16131 net.cpp:139] Memory required for data: 99570108
I0504 06:23:57.226814 16131 layer_factory.hpp:77] Creating layer Sigmoid0
I0504 06:23:57.226825 16131 net.cpp:86] Creating Layer Sigmoid0
I0504 06:23:57.226830 16131 net.cpp:408] Sigmoid0 <- conv0
I0504 06:23:57.226835 16131 net.cpp:382] Sigmoid0 -> Sigmoid0
I0504 06:23:57.227007 16131 net.cpp:124] Setting up Sigmoid0
I0504 06:23:57.227017 16131 net.cpp:131] Top shape: 111 216 32 32 (24551424)
I0504 06:23:57.227020 16131 net.cpp:139] Memory required for data: 197775804
I0504 06:23:57.227023 16131 layer_factory.hpp:77] Creating layer pool0
I0504 06:23:57.227030 16131 net.cpp:86] Creating Layer pool0
I0504 06:23:57.227035 16131 net.cpp:408] pool0 <- Sigmoid0
I0504 06:23:57.227038 16131 net.cpp:382] pool0 -> pool0
I0504 06:23:57.227753 16131 net.cpp:124] Setting up pool0
I0504 06:23:57.227766 16131 net.cpp:131] Top shape: 111 216 16 16 (6137856)
I0504 06:23:57.227769 16131 net.cpp:139] Memory required for data: 222327228
I0504 06:23:57.227772 16131 layer_factory.hpp:77] Creating layer ip1
I0504 06:23:57.227782 16131 net.cpp:86] Creating Layer ip1
I0504 06:23:57.227785 16131 net.cpp:408] ip1 <- pool0
I0504 06:23:57.227790 16131 net.cpp:382] ip1 -> ip1
I0504 06:23:57.319907 16131 net.cpp:124] Setting up ip1
I0504 06:23:57.319942 16131 net.cpp:131] Top shape: 111 60 (6660)
I0504 06:23:57.319947 16131 net.cpp:139] Memory required for data: 222353868
I0504 06:23:57.319957 16131 layer_factory.hpp:77] Creating layer relu1
I0504 06:23:57.319965 16131 net.cpp:86] Creating Layer relu1
I0504 06:23:57.319969 16131 net.cpp:408] relu1 <- ip1
I0504 06:23:57.319973 16131 net.cpp:369] relu1 -> ip1 (in-place)
I0504 06:23:57.320179 16131 net.cpp:124] Setting up relu1
I0504 06:23:57.320188 16131 net.cpp:131] Top shape: 111 60 (6660)
I0504 06:23:57.320190 16131 net.cpp:139] Memory required for data: 222380508
I0504 06:23:57.320194 16131 layer_factory.hpp:77] Creating layer ip2
I0504 06:23:57.320200 16131 net.cpp:86] Creating Layer ip2
I0504 06:23:57.320204 16131 net.cpp:408] ip2 <- ip1
I0504 06:23:57.320207 16131 net.cpp:382] ip2 -> ip2
I0504 06:23:57.320592 16131 net.cpp:124] Setting up ip2
I0504 06:23:57.320598 16131 net.cpp:131] Top shape: 111 180 (19980)
I0504 06:23:57.320601 16131 net.cpp:139] Memory required for data: 222460428
I0504 06:23:57.320607 16131 layer_factory.hpp:77] Creating layer relu2
I0504 06:23:57.320612 16131 net.cpp:86] Creating Layer relu2
I0504 06:23:57.320614 16131 net.cpp:408] relu2 <- ip2
I0504 06:23:57.320618 16131 net.cpp:369] relu2 -> ip2 (in-place)
I0504 06:23:57.320773 16131 net.cpp:124] Setting up relu2
I0504 06:23:57.320781 16131 net.cpp:131] Top shape: 111 180 (19980)
I0504 06:23:57.320785 16131 net.cpp:139] Memory required for data: 222540348
I0504 06:23:57.320787 16131 layer_factory.hpp:77] Creating layer ip3
I0504 06:23:57.320796 16131 net.cpp:86] Creating Layer ip3
I0504 06:23:57.320799 16131 net.cpp:408] ip3 <- ip2
I0504 06:23:57.320803 16131 net.cpp:382] ip3 -> ip3
I0504 06:23:57.320968 16131 net.cpp:124] Setting up ip3
I0504 06:23:57.320976 16131 net.cpp:131] Top shape: 111 10 (1110)
I0504 06:23:57.320979 16131 net.cpp:139] Memory required for data: 222544788
I0504 06:23:57.320984 16131 layer_factory.hpp:77] Creating layer loss
I0504 06:23:57.320989 16131 net.cpp:86] Creating Layer loss
I0504 06:23:57.320992 16131 net.cpp:408] loss <- ip3
I0504 06:23:57.320996 16131 net.cpp:408] loss <- label
I0504 06:23:57.321002 16131 net.cpp:382] loss -> loss
I0504 06:23:57.321022 16131 layer_factory.hpp:77] Creating layer loss
…
I0504 06:23:57.321607 16131 solver.cpp:173] Creating test net (#0) specified by net file: ECE595/cifar/train_test/var_everything_tiny/cifar_train_test_68.prototxt
I0504 06:23:57.321647 16131 net.cpp:296] The NetState phase (1) differed from the phase (0) specified by a rule in layer cifar
I0504 06:23:57.321732 16131 net.cpp:53] Initializing net from parameters: 
name: "CIFAR"
state {
  phase: TEST
}
layer {
  name: "cifar"
  type: "Data"
  top: "data"
  top: "label"
  include {
    phase: TEST
  }
  transform_param {
    mean_file: "examples/cifar10/mean.binaryproto"
  }
  data_param {
    source: "examples/cifar10/cifar10_test_lmdb"
    batch_size: 1000
    backend: LMDB
  }
}
layer {
  name: "conv0"
  type: "Convolution"
  bottom: "data"
  top: "conv0"
  param {
    lr_mult: 1
  }
  param {
    lr_mult: 2
  }
  convolution_param {
    num_output: 216
    pad: 2
    kernel_size: 5
    stride: 1
    weight_filler {
      type: "gaussian"
      std: 0.01
    }
    bias_filler {
      type: "constant"
    }
  }
}
layer {
  name: "Sigmoid0"
  type: "Sigmoid"
  bottom: "conv0"
  top: "Sigmoid0"
}
layer {
  name: "pool0"
  type: "Pooling"
  bottom: "Sigmoid0"
  top: "pool0"
  pooling_param {
    pool: AVE
    kernel_size: 3
    stride: 2
  }
}
layer {
  name: "ip1"
  type: "InnerProduct"
  bottom: "pool0"
  top: "ip1"
  param {
    lr_mult: 1
  }
  param {
    lr_mult: 2
  }
  inner_product_param {
    num_output: 60
    weight_filler {
      type: "gaussian"
      std: 0.01
    }
    bias_filler {
      type: "constant"
    }
  }
}
layer {
  name: "relu1"
  type: "ReLU"
  bottom: "ip1"
  top: "ip1"
}
layer {
  name: "ip2"
  type: "InnerProduct"
  bottom: "ip1"
  top: "ip2"
  param {
    lr_mult: 1
  }
  param {
    lr_mult: 2
  }
  inner_product_param {
    num_output: 180
    weight_filler {
      type: "gaussian"
      std: 0.01
    }
    bias_filler {
      type: "constant"
    }
  }
}
layer {
  name: "relu2"
  type: "ReLU"
  bottom: "ip2"
  top: "ip2"
}
layer {
  name: "ip3"
  type: "InnerProduct"
  bottom: "ip2"
  top: "ip3"
  param {
    lr_mult: 1
  }
  param {
    lr_mult: 2
  }
  inner_product_param {
    num_output: 10
    weight_filler {
      type: "gaussian"
      std: 0.01
    }
    bias_filler {
      type: "constant"
    }
  }
}
layer {
  name: "accuracy"
  type: "Accuracy"
  bottom: "ip3"
  bottom: "label"
  top: "accuracy"
  include {
    phase: TEST
  }
}
layer {
  name: "loss"
  type: "SoftmaxWithLoss"
  bottom: "ip3"
  bottom: "label"
  top: "loss"
}
I0504 06:23:57.321794 16131 layer_factory.hpp:77] Creating layer cifar
I0504 06:23:57.321846 16131 db_lmdb.cpp:35] Opened lmdb examples/cifar10/cifar10_test_lmdb
I0504 06:23:57.321857 16131 net.cpp:86] Creating Layer cifar
I0504 06:23:57.321862 16131 net.cpp:382] cifar -> data
I0504 06:23:57.321869 16131 net.cpp:382] cifar -> label
I0504 06:23:57.321876 16131 data_transformer.cpp:25] Loading mean file from: examples/cifar10/mean.binaryproto
I0504 06:23:57.322016 16131 data_layer.cpp:45] output data size: 1000,3,32,32
I0504 06:23:57.343394 16131 net.cpp:124] Setting up cifar
I0504 06:23:57.343436 16131 net.cpp:131] Top shape: 1000 3 32 32 (3072000)
I0504 06:23:57.343441 16131 net.cpp:131] Top shape: 1000 (1000)
I0504 06:23:57.343443 16131 net.cpp:139] Memory required for data: 12292000
I0504 06:23:57.343448 16131 layer_factory.hpp:77] Creating layer label_cifar_1_split
I0504 06:23:57.343494 16131 net.cpp:86] Creating Layer label_cifar_1_split
I0504 06:23:57.343498 16131 net.cpp:408] label_cifar_1_split <- label
I0504 06:23:57.343504 16131 net.cpp:382] label_cifar_1_split -> label_cifar_1_split_0
I0504 06:23:57.343513 16131 net.cpp:382] label_cifar_1_split -> label_cifar_1_split_1
I0504 06:23:57.343595 16131 net.cpp:124] Setting up label_cifar_1_split
I0504 06:23:57.343605 16131 net.cpp:131] Top shape: 1000 (1000)
I0504 06:23:57.343607 16131 net.cpp:131] Top shape: 1000 (1000)
I0504 06:23:57.343611 16131 net.cpp:139] Memory required for data: 12300000
I0504 06:23:57.343613 16131 layer_factory.hpp:77] Creating layer conv0
I0504 06:23:57.343624 16131 net.cpp:86] Creating Layer conv0
I0504 06:23:57.343627 16131 net.cpp:408] conv0 <- data
I0504 06:23:57.343632 16131 net.cpp:382] conv0 -> conv0
I0504 06:23:57.346608 16131 net.cpp:124] Setting up conv0
I0504 06:23:57.346638 16131 net.cpp:131] Top shape: 1000 216 32 32 (221184000)
I0504 06:23:57.346642 16131 net.cpp:139] Memory required for data: 897036000
I0504 06:23:57.346652 16131 layer_factory.hpp:77] Creating layer Sigmoid0
I0504 06:23:57.346657 16131 net.cpp:86] Creating Layer Sigmoid0
I0504 06:23:57.346660 16131 net.cpp:408] Sigmoid0 <- conv0
I0504 06:23:57.346665 16131 net.cpp:382] Sigmoid0 -> Sigmoid0
I0504 06:23:57.347436 16131 net.cpp:124] Setting up Sigmoid0
I0504 06:23:57.347448 16131 net.cpp:131] Top shape: 1000 216 32 32 (221184000)
I0504 06:23:57.347468 16131 net.cpp:139] Memory required for data: 1781772000
I0504 06:23:57.347471 16131 layer_factory.hpp:77] Creating layer pool0
I0504 06:23:57.347481 16131 net.cpp:86] Creating Layer pool0
I0504 06:23:57.347484 16131 net.cpp:408] pool0 <- Sigmoid0
I0504 06:23:57.347488 16131 net.cpp:382] pool0 -> pool0
I0504 06:23:57.347671 16131 net.cpp:124] Setting up pool0
I0504 06:23:57.347681 16131 net.cpp:131] Top shape: 1000 216 16 16 (55296000)
I0504 06:23:57.347683 16131 net.cpp:139] Memory required for data: 2002956000
I0504 06:23:57.347687 16131 layer_factory.hpp:77] Creating layer ip1
I0504 06:23:57.347697 16131 net.cpp:86] Creating Layer ip1
I0504 06:23:57.347699 16131 net.cpp:408] ip1 <- pool0
I0504 06:23:57.347705 16131 net.cpp:382] ip1 -> ip1
I0504 06:23:57.435822 16131 net.cpp:124] Setting up ip1
I0504 06:23:57.435860 16131 net.cpp:131] Top shape: 1000 60 (60000)
I0504 06:23:57.435863 16131 net.cpp:139] Memory required for data: 2003196000
I0504 06:23:57.435875 16131 layer_factory.hpp:77] Creating layer relu1
I0504 06:23:57.435884 16131 net.cpp:86] Creating Layer relu1
I0504 06:23:57.435887 16131 net.cpp:408] relu1 <- ip1
I0504 06:23:57.435894 16131 net.cpp:369] relu1 -> ip1 (in-place)
I0504 06:23:57.436111 16131 net.cpp:124] Setting up relu1
I0504 06:23:57.436121 16131 net.cpp:131] Top shape: 1000 60 (60000)
I0504 06:23:57.436125 16131 net.cpp:139] Memory required for data: 2003436000
I0504 06:23:57.436127 16131 layer_factory.hpp:77] Creating layer ip2
I0504 06:23:57.436136 16131 net.cpp:86] Creating Layer ip2
I0504 06:23:57.436139 16131 net.cpp:408] ip2 <- ip1
I0504 06:23:57.436146 16131 net.cpp:382] ip2 -> ip2
I0504 06:23:57.436549 16131 net.cpp:124] Setting up ip2
I0504 06:23:57.436558 16131 net.cpp:131] Top shape: 1000 180 (180000)
I0504 06:23:57.436561 16131 net.cpp:139] Memory required for data: 2004156000
I0504 06:23:57.436568 16131 layer_factory.hpp:77] Creating layer relu2
I0504 06:23:57.436589 16131 net.cpp:86] Creating Layer relu2
I0504 06:23:57.436592 16131 net.cpp:408] relu2 <- ip2
I0504 06:23:57.436595 16131 net.cpp:369] relu2 -> ip2 (in-place)
I0504 06:23:57.436761 16131 net.cpp:124] Setting up relu2
I0504 06:23:57.436769 16131 net.cpp:131] Top shape: 1000 180 (180000)
I0504 06:23:57.436774 16131 net.cpp:139] Memory required for data: 2004876000
I0504 06:23:57.436776 16131 layer_factory.hpp:77] Creating layer ip3
I0504 06:23:57.436782 16131 net.cpp:86] Creating Layer ip3
I0504 06:23:57.436785 16131 net.cpp:408] ip3 <- ip2
I0504 06:23:57.436790 16131 net.cpp:382] ip3 -> ip3
I0504 06:23:57.436942 16131 net.cpp:124] Setting up ip3
I0504 06:23:57.436950 16131 net.cpp:131] Top shape: 1000 10 (10000)
I0504 06:23:57.436967 16131 net.cpp:139] Memory required for data: 2004916000
I0504 06:23:57.436975 16131 layer_factory.hpp:77] Creating layer ip3_ip3_0_split
I0504 06:23:57.436980 16131 net.cpp:86] Creating Layer ip3_ip3_0_split
I0504 06:23:57.436983 16131 net.cpp:408] ip3_ip3_0_split <- ip3
I0504 06:23:57.436987 16131 net.cpp:382] ip3_ip3_0_split -> ip3_ip3_0_split_0
I0504 06:23:57.436993 16131 net.cpp:382] ip3_ip3_0_split -> ip3_ip3_0_split_1
I0504 06:23:57.437026 16131 net.cpp:124] Setting up ip3_ip3_0_split
I0504 06:23:57.437031 16131 net.cpp:131] Top shape: 1000 10 (10000)
I0504 06:23:57.437036 16131 net.cpp:131] Top shape: 1000 10 (10000)
I0504 06:23:57.437037 16131 net.cpp:139] Memory required for data: 2004996000
I0504 06:23:57.437041 16131 layer_factory.hpp:77] Creating layer accuracy
I0504 06:23:57.437047 16131 net.cpp:86] Creating Layer accuracy
I0504 06:23:57.437050 16131 net.cpp:408] accuracy <- ip3_ip3_0_split_0
I0504 06:23:57.437053 16131 net.cpp:408] accuracy <- label_cifar_1_split_0
I0504 06:23:57.437058 16131 net.cpp:382] accuracy -> accuracy
…
