…
I0504 14:42:26.454450  4370 net.cpp:296] The NetState phase (0) differed from the phase (1) specified by a rule in layer cifar
I0504 14:42:26.454468  4370 net.cpp:296] The NetState phase (0) differed from the phase (1) specified by a rule in layer accuracy
I0504 14:42:26.454581  4370 net.cpp:53] Initializing net from parameters: 
name: "CIFAR"
state {
  phase: TRAIN
  level: 0
  stage: ""
}
layer {
  name: "cifar"
  type: "Data"
  top: "data"
  top: "label"
  include {
    phase: TRAIN
  }
  transform_param {
    mean_file: "examples/cifar10/mean.binaryproto"
  }
  data_param {
    source: "examples/cifar10/cifar10_train_lmdb"
    batch_size: 111
    backend: LMDB
  }
}
layer {
  name: "conv0"
  type: "Convolution"
  bottom: "data"
  top: "conv0"
  param {
    lr_mult: 1
  }
  param {
    lr_mult: 2
  }
  convolution_param {
    num_output: 24
    pad: 2
    kernel_size: 5
    stride: 1
    weight_filler {
      type: "gaussian"
      std: 0.01
    }
    bias_filler {
      type: "constant"
    }
  }
}
layer {
  name: "Sigmoid0"
  type: "Sigmoid"
  bottom: "conv0"
  top: "Sigmoid0"
}
layer {
  name: "pool0"
  type: "Pooling"
  bottom: "Sigmoid0"
  top: "pool0"
  pooling_param {
    pool: AVE
    kernel_size: 3
    stride: 2
  }
}
layer {
  name: "conv1"
  type: "Convolution"
  bottom: "pool0"
  top: "conv1"
  param {
    lr_mult: 1
  }
  param {
    lr_mult: 2
  }
  convolution_param {
    num_output: 216
    pad: 2
    kernel_size: 5
    stride: 1
    weight_filler {
      type: "gaussian"
      std: 0.01
    }
    bias_filler {
      type: "constant"
    }
  }
}
layer {
  name: "Sigmoid1"
  type: "Sigmoid"
  bottom: "conv1"
  top: "Sigmoid1"
}
layer {
  name: "pool1"
  type: "Pooling"
  bottom: "Sigmoid1"
  top: "pool1"
  pooling_param {
    pool: AVE
    kernel_size: 3
    stride: 2
  }
}
layer {
  name: "ip1"
  type: "InnerProduct"
  bottom: "pool1"
  top: "ip1"
  param {
    lr_mult: 1
  }
  param {
    lr_mult: 2
  }
  inner_product_param {
    num_output: 60
    weight_filler {
      type: "gaussian"
      std: 0.01
    }
    bias_filler {
      type: "constant"
    }
  }
}
layer {
  name: "relu1"
  type: "ReLU"
  bottom: "ip1"
  top: "ip1"
}
layer {
  name: "ip2"
  type: "InnerProduct"
  bottom: "ip1"
  top: "ip2"
  param {
    lr_mult: 1
  }
  param {
    lr_mult: 2
  }
  inner_product_param {
    num_output: 10
    weight_filler {
      type: "gaussian"
      std: 0.01
    }
    bias_filler {
      type: "constant"
    }
  }
}
layer {
  name: "relu2"
  type: "ReLU"
  bottom: "ip2"
  top: "ip2"
}
layer {
  name: "ip3"
  type: "InnerProduct"
  bottom: "ip2"
  top: "ip3"
  param {
    lr_mult: 1
  }
  param {
    lr_mult: 2
  }
  inner_product_param {
    num_output: 10
    weight_filler {
      type: "gaussian"
      std: 0.01
    }
    bias_filler {
      type: "constant"
    }
  }
}
layer {
  name: "loss"
  type: "SoftmaxWithLoss"
  bottom: "ip3"
  bottom: "label"
  top: "loss"
}
I0504 14:42:26.454663  4370 layer_factory.hpp:77] Creating layer cifar
I0504 14:42:26.454763  4370 db_lmdb.cpp:35] Opened lmdb examples/cifar10/cifar10_train_lmdb
I0504 14:42:26.454792  4370 net.cpp:86] Creating Layer cifar
I0504 14:42:26.454800  4370 net.cpp:382] cifar -> data
I0504 14:42:26.454823  4370 net.cpp:382] cifar -> label
I0504 14:42:26.454834  4370 data_transformer.cpp:25] Loading mean file from: examples/cifar10/mean.binaryproto
I0504 14:42:26.457006  4370 data_layer.cpp:45] output data size: 111,3,32,32
I0504 14:42:26.465241  4370 net.cpp:124] Setting up cifar
I0504 14:42:26.465261  4370 net.cpp:131] Top shape: 111 3 32 32 (340992)
I0504 14:42:26.465270  4370 net.cpp:131] Top shape: 111 (111)
I0504 14:42:26.465272  4370 net.cpp:139] Memory required for data: 1364412
I0504 14:42:26.465281  4370 layer_factory.hpp:77] Creating layer conv0
I0504 14:42:26.465299  4370 net.cpp:86] Creating Layer conv0
I0504 14:42:26.465306  4370 net.cpp:408] conv0 <- data
I0504 14:42:26.465319  4370 net.cpp:382] conv0 -> conv0
I0504 14:42:26.759096  4370 net.cpp:124] Setting up conv0
I0504 14:42:26.759130  4370 net.cpp:131] Top shape: 111 24 32 32 (2727936)
I0504 14:42:26.759135  4370 net.cpp:139] Memory required for data: 12276156
I0504 14:42:26.759152  4370 layer_factory.hpp:77] Creating layer Sigmoid0
I0504 14:42:26.759166  4370 net.cpp:86] Creating Layer Sigmoid0
I0504 14:42:26.759171  4370 net.cpp:408] Sigmoid0 <- conv0
I0504 14:42:26.759176  4370 net.cpp:382] Sigmoid0 -> Sigmoid0
I0504 14:42:26.759374  4370 net.cpp:124] Setting up Sigmoid0
I0504 14:42:26.759385  4370 net.cpp:131] Top shape: 111 24 32 32 (2727936)
I0504 14:42:26.759389  4370 net.cpp:139] Memory required for data: 23187900
I0504 14:42:26.759393  4370 layer_factory.hpp:77] Creating layer pool0
I0504 14:42:26.759402  4370 net.cpp:86] Creating Layer pool0
I0504 14:42:26.759405  4370 net.cpp:408] pool0 <- Sigmoid0
I0504 14:42:26.759410  4370 net.cpp:382] pool0 -> pool0
I0504 14:42:26.760269  4370 net.cpp:124] Setting up pool0
I0504 14:42:26.760284  4370 net.cpp:131] Top shape: 111 24 16 16 (681984)
I0504 14:42:26.760288  4370 net.cpp:139] Memory required for data: 25915836
I0504 14:42:26.760293  4370 layer_factory.hpp:77] Creating layer conv1
I0504 14:42:26.760306  4370 net.cpp:86] Creating Layer conv1
I0504 14:42:26.760310  4370 net.cpp:408] conv1 <- pool0
I0504 14:42:26.760318  4370 net.cpp:382] conv1 -> conv1
I0504 14:42:26.766422  4370 net.cpp:124] Setting up conv1
I0504 14:42:26.766438  4370 net.cpp:131] Top shape: 111 216 16 16 (6137856)
I0504 14:42:26.766443  4370 net.cpp:139] Memory required for data: 50467260
I0504 14:42:26.766453  4370 layer_factory.hpp:77] Creating layer Sigmoid1
I0504 14:42:26.766459  4370 net.cpp:86] Creating Layer Sigmoid1
I0504 14:42:26.766463  4370 net.cpp:408] Sigmoid1 <- conv1
I0504 14:42:26.766469  4370 net.cpp:382] Sigmoid1 -> Sigmoid1
I0504 14:42:26.766656  4370 net.cpp:124] Setting up Sigmoid1
I0504 14:42:26.766666  4370 net.cpp:131] Top shape: 111 216 16 16 (6137856)
I0504 14:42:26.766670  4370 net.cpp:139] Memory required for data: 75018684
I0504 14:42:26.766674  4370 layer_factory.hpp:77] Creating layer pool1
I0504 14:42:26.766681  4370 net.cpp:86] Creating Layer pool1
I0504 14:42:26.766685  4370 net.cpp:408] pool1 <- Sigmoid1
I0504 14:42:26.766690  4370 net.cpp:382] pool1 -> pool1
I0504 14:42:26.766870  4370 net.cpp:124] Setting up pool1
I0504 14:42:26.766880  4370 net.cpp:131] Top shape: 111 216 8 8 (1534464)
I0504 14:42:26.766883  4370 net.cpp:139] Memory required for data: 81156540
I0504 14:42:26.766886  4370 layer_factory.hpp:77] Creating layer ip1
I0504 14:42:26.766896  4370 net.cpp:86] Creating Layer ip1
I0504 14:42:26.766898  4370 net.cpp:408] ip1 <- pool1
I0504 14:42:26.766904  4370 net.cpp:382] ip1 -> ip1
I0504 14:42:26.792822  4370 net.cpp:124] Setting up ip1
I0504 14:42:26.792835  4370 net.cpp:131] Top shape: 111 60 (6660)
I0504 14:42:26.792840  4370 net.cpp:139] Memory required for data: 81183180
I0504 14:42:26.792848  4370 layer_factory.hpp:77] Creating layer relu1
I0504 14:42:26.792856  4370 net.cpp:86] Creating Layer relu1
I0504 14:42:26.792860  4370 net.cpp:408] relu1 <- ip1
I0504 14:42:26.792865  4370 net.cpp:369] relu1 -> ip1 (in-place)
I0504 14:42:26.793038  4370 net.cpp:124] Setting up relu1
I0504 14:42:26.793047  4370 net.cpp:131] Top shape: 111 60 (6660)
I0504 14:42:26.793051  4370 net.cpp:139] Memory required for data: 81209820
I0504 14:42:26.793053  4370 layer_factory.hpp:77] Creating layer ip2
I0504 14:42:26.793061  4370 net.cpp:86] Creating Layer ip2
I0504 14:42:26.793063  4370 net.cpp:408] ip2 <- ip1
I0504 14:42:26.793083  4370 net.cpp:382] ip2 -> ip2
I0504 14:42:26.793196  4370 net.cpp:124] Setting up ip2
I0504 14:42:26.793203  4370 net.cpp:131] Top shape: 111 10 (1110)
I0504 14:42:26.793206  4370 net.cpp:139] Memory required for data: 81214260
I0504 14:42:26.793212  4370 layer_factory.hpp:77] Creating layer relu2
I0504 14:42:26.793218  4370 net.cpp:86] Creating Layer relu2
I0504 14:42:26.793221  4370 net.cpp:408] relu2 <- ip2
I0504 14:42:26.793226  4370 net.cpp:369] relu2 -> ip2 (in-place)
I0504 14:42:26.793963  4370 net.cpp:124] Setting up relu2
I0504 14:42:26.793977  4370 net.cpp:131] Top shape: 111 10 (1110)
I0504 14:42:26.793980  4370 net.cpp:139] Memory required for data: 81218700
I0504 14:42:26.793983  4370 layer_factory.hpp:77] Creating layer ip3
I0504 14:42:26.793990  4370 net.cpp:86] Creating Layer ip3
I0504 14:42:26.793994  4370 net.cpp:408] ip3 <- ip2
I0504 14:42:26.793999  4370 net.cpp:382] ip3 -> ip3
I0504 14:42:26.794101  4370 net.cpp:124] Setting up ip3
I0504 14:42:26.794109  4370 net.cpp:131] Top shape: 111 10 (1110)
I0504 14:42:26.794112  4370 net.cpp:139] Memory required for data: 81223140
I0504 14:42:26.794121  4370 layer_factory.hpp:77] Creating layer loss
I0504 14:42:26.794126  4370 net.cpp:86] Creating Layer loss
I0504 14:42:26.794129  4370 net.cpp:408] loss <- ip3
I0504 14:42:26.794133  4370 net.cpp:408] loss <- label
I0504 14:42:26.794138  4370 net.cpp:382] loss -> loss
I0504 14:42:26.794157  4370 layer_factory.hpp:77] Creating layer loss
…
I0504 14:42:26.794814  4370 solver.cpp:173] Creating test net (#0) specified by net file: ECE595/cifar/train_test/var_everything_tiny/cifar_train_test_174.prototxt
I0504 14:42:26.794842  4370 net.cpp:296] The NetState phase (1) differed from the phase (0) specified by a rule in layer cifar
I0504 14:42:26.794941  4370 net.cpp:53] Initializing net from parameters: 
name: "CIFAR"
state {
  phase: TEST
}
layer {
  name: "cifar"
  type: "Data"
  top: "data"
  top: "label"
  include {
    phase: TEST
  }
  transform_param {
    mean_file: "examples/cifar10/mean.binaryproto"
  }
  data_param {
    source: "examples/cifar10/cifar10_test_lmdb"
    batch_size: 1000
    backend: LMDB
  }
}
layer {
  name: "conv0"
  type: "Convolution"
  bottom: "data"
  top: "conv0"
  param {
    lr_mult: 1
  }
  param {
    lr_mult: 2
  }
  convolution_param {
    num_output: 24
    pad: 2
    kernel_size: 5
    stride: 1
    weight_filler {
      type: "gaussian"
      std: 0.01
    }
    bias_filler {
      type: "constant"
    }
  }
}
layer {
  name: "Sigmoid0"
  type: "Sigmoid"
  bottom: "conv0"
  top: "Sigmoid0"
}
layer {
  name: "pool0"
  type: "Pooling"
  bottom: "Sigmoid0"
  top: "pool0"
  pooling_param {
    pool: AVE
    kernel_size: 3
    stride: 2
  }
}
layer {
  name: "conv1"
  type: "Convolution"
  bottom: "pool0"
  top: "conv1"
  param {
    lr_mult: 1
  }
  param {
    lr_mult: 2
  }
  convolution_param {
    num_output: 216
    pad: 2
    kernel_size: 5
    stride: 1
    weight_filler {
      type: "gaussian"
      std: 0.01
    }
    bias_filler {
      type: "constant"
    }
  }
}
layer {
  name: "Sigmoid1"
  type: "Sigmoid"
  bottom: "conv1"
  top: "Sigmoid1"
}
layer {
  name: "pool1"
  type: "Pooling"
  bottom: "Sigmoid1"
  top: "pool1"
  pooling_param {
    pool: AVE
    kernel_size: 3
    stride: 2
  }
}
layer {
  name: "ip1"
  type: "InnerProduct"
  bottom: "pool1"
  top: "ip1"
  param {
    lr_mult: 1
  }
  param {
    lr_mult: 2
  }
  inner_product_param {
    num_output: 60
    weight_filler {
      type: "gaussian"
      std: 0.01
    }
    bias_filler {
      type: "constant"
    }
  }
}
layer {
  name: "relu1"
  type: "ReLU"
  bottom: "ip1"
  top: "ip1"
}
layer {
  name: "ip2"
  type: "InnerProduct"
  bottom: "ip1"
  top: "ip2"
  param {
    lr_mult: 1
  }
  param {
    lr_mult: 2
  }
  inner_product_param {
    num_output: 10
    weight_filler {
      type: "gaussian"
      std: 0.01
    }
    bias_filler {
      type: "constant"
    }
  }
}
layer {
  name: "relu2"
  type: "ReLU"
  bottom: "ip2"
  top: "ip2"
}
layer {
  name: "ip3"
  type: "InnerProduct"
  bottom: "ip2"
  top: "ip3"
  param {
    lr_mult: 1
  }
  param {
    lr_mult: 2
  }
  inner_product_param {
    num_output: 10
    weight_filler {
      type: "gaussian"
      std: 0.01
    }
    bias_filler {
      type: "constant"
    }
  }
}
layer {
  name: "accuracy"
  type: "Accuracy"
  bottom: "ip3"
  bottom: "label"
  top: "accuracy"
  include {
    phase: TEST
  }
}
layer {
  name: "loss"
  type: "SoftmaxWithLoss"
  bottom: "ip3"
  bottom: "label"
  top: "loss"
}
I0504 14:42:26.795024  4370 layer_factory.hpp:77] Creating layer cifar
I0504 14:42:26.795071  4370 db_lmdb.cpp:35] Opened lmdb examples/cifar10/cifar10_test_lmdb
I0504 14:42:26.795083  4370 net.cpp:86] Creating Layer cifar
I0504 14:42:26.795089  4370 net.cpp:382] cifar -> data
I0504 14:42:26.795096  4370 net.cpp:382] cifar -> label
I0504 14:42:26.795104  4370 data_transformer.cpp:25] Loading mean file from: examples/cifar10/mean.binaryproto
I0504 14:42:26.795245  4370 data_layer.cpp:45] output data size: 1000,3,32,32
I0504 14:42:26.817682  4370 net.cpp:124] Setting up cifar
I0504 14:42:26.817708  4370 net.cpp:131] Top shape: 1000 3 32 32 (3072000)
I0504 14:42:26.817715  4370 net.cpp:131] Top shape: 1000 (1000)
I0504 14:42:26.817718  4370 net.cpp:139] Memory required for data: 12292000
I0504 14:42:26.817724  4370 layer_factory.hpp:77] Creating layer label_cifar_1_split
I0504 14:42:26.817749  4370 net.cpp:86] Creating Layer label_cifar_1_split
I0504 14:42:26.817754  4370 net.cpp:408] label_cifar_1_split <- label
I0504 14:42:26.817759  4370 net.cpp:382] label_cifar_1_split -> label_cifar_1_split_0
I0504 14:42:26.817783  4370 net.cpp:382] label_cifar_1_split -> label_cifar_1_split_1
I0504 14:42:26.817900  4370 net.cpp:124] Setting up label_cifar_1_split
I0504 14:42:26.817908  4370 net.cpp:131] Top shape: 1000 (1000)
I0504 14:42:26.817911  4370 net.cpp:131] Top shape: 1000 (1000)
I0504 14:42:26.817914  4370 net.cpp:139] Memory required for data: 12300000
I0504 14:42:26.817917  4370 layer_factory.hpp:77] Creating layer conv0
I0504 14:42:26.817929  4370 net.cpp:86] Creating Layer conv0
I0504 14:42:26.817932  4370 net.cpp:408] conv0 <- data
I0504 14:42:26.817937  4370 net.cpp:382] conv0 -> conv0
I0504 14:42:26.819584  4370 net.cpp:124] Setting up conv0
I0504 14:42:26.819597  4370 net.cpp:131] Top shape: 1000 24 32 32 (24576000)
I0504 14:42:26.819602  4370 net.cpp:139] Memory required for data: 110604000
I0504 14:42:26.819612  4370 layer_factory.hpp:77] Creating layer Sigmoid0
I0504 14:42:26.819617  4370 net.cpp:86] Creating Layer Sigmoid0
I0504 14:42:26.819622  4370 net.cpp:408] Sigmoid0 <- conv0
I0504 14:42:26.819625  4370 net.cpp:382] Sigmoid0 -> Sigmoid0
I0504 14:42:26.819802  4370 net.cpp:124] Setting up Sigmoid0
I0504 14:42:26.819823  4370 net.cpp:131] Top shape: 1000 24 32 32 (24576000)
I0504 14:42:26.819825  4370 net.cpp:139] Memory required for data: 208908000
I0504 14:42:26.819829  4370 layer_factory.hpp:77] Creating layer pool0
I0504 14:42:26.819852  4370 net.cpp:86] Creating Layer pool0
I0504 14:42:26.819856  4370 net.cpp:408] pool0 <- Sigmoid0
I0504 14:42:26.819876  4370 net.cpp:382] pool0 -> pool0
I0504 14:42:26.820164  4370 net.cpp:124] Setting up pool0
I0504 14:42:26.820174  4370 net.cpp:131] Top shape: 1000 24 16 16 (6144000)
I0504 14:42:26.820178  4370 net.cpp:139] Memory required for data: 233484000
I0504 14:42:26.820195  4370 layer_factory.hpp:77] Creating layer conv1
I0504 14:42:26.820204  4370 net.cpp:86] Creating Layer conv1
I0504 14:42:26.820207  4370 net.cpp:408] conv1 <- pool0
I0504 14:42:26.820214  4370 net.cpp:382] conv1 -> conv1
I0504 14:42:26.825935  4370 net.cpp:124] Setting up conv1
I0504 14:42:26.825949  4370 net.cpp:131] Top shape: 1000 216 16 16 (55296000)
I0504 14:42:26.825953  4370 net.cpp:139] Memory required for data: 454668000
I0504 14:42:26.825963  4370 layer_factory.hpp:77] Creating layer Sigmoid1
I0504 14:42:26.825968  4370 net.cpp:86] Creating Layer Sigmoid1
I0504 14:42:26.825971  4370 net.cpp:408] Sigmoid1 <- conv1
I0504 14:42:26.825978  4370 net.cpp:382] Sigmoid1 -> Sigmoid1
I0504 14:42:26.826128  4370 net.cpp:124] Setting up Sigmoid1
I0504 14:42:26.826138  4370 net.cpp:131] Top shape: 1000 216 16 16 (55296000)
I0504 14:42:26.826141  4370 net.cpp:139] Memory required for data: 675852000
I0504 14:42:26.826145  4370 layer_factory.hpp:77] Creating layer pool1
I0504 14:42:26.826150  4370 net.cpp:86] Creating Layer pool1
I0504 14:42:26.826153  4370 net.cpp:408] pool1 <- Sigmoid1
I0504 14:42:26.826158  4370 net.cpp:382] pool1 -> pool1
I0504 14:42:26.826933  4370 net.cpp:124] Setting up pool1
I0504 14:42:26.826946  4370 net.cpp:131] Top shape: 1000 216 8 8 (13824000)
I0504 14:42:26.826948  4370 net.cpp:139] Memory required for data: 731148000
I0504 14:42:26.826952  4370 layer_factory.hpp:77] Creating layer ip1
I0504 14:42:26.826961  4370 net.cpp:86] Creating Layer ip1
I0504 14:42:26.826964  4370 net.cpp:408] ip1 <- pool1
I0504 14:42:26.826969  4370 net.cpp:382] ip1 -> ip1
I0504 14:42:26.849658  4370 net.cpp:124] Setting up ip1
I0504 14:42:26.849689  4370 net.cpp:131] Top shape: 1000 60 (60000)
I0504 14:42:26.849691  4370 net.cpp:139] Memory required for data: 731388000
I0504 14:42:26.849700  4370 layer_factory.hpp:77] Creating layer relu1
I0504 14:42:26.849707  4370 net.cpp:86] Creating Layer relu1
I0504 14:42:26.849710  4370 net.cpp:408] relu1 <- ip1
I0504 14:42:26.849715  4370 net.cpp:369] relu1 -> ip1 (in-place)
I0504 14:42:26.849890  4370 net.cpp:124] Setting up relu1
I0504 14:42:26.849900  4370 net.cpp:131] Top shape: 1000 60 (60000)
I0504 14:42:26.849902  4370 net.cpp:139] Memory required for data: 731628000
I0504 14:42:26.849905  4370 layer_factory.hpp:77] Creating layer ip2
I0504 14:42:26.849913  4370 net.cpp:86] Creating Layer ip2
I0504 14:42:26.849917  4370 net.cpp:408] ip2 <- ip1
I0504 14:42:26.849922  4370 net.cpp:382] ip2 -> ip2
I0504 14:42:26.850041  4370 net.cpp:124] Setting up ip2
I0504 14:42:26.850049  4370 net.cpp:131] Top shape: 1000 10 (10000)
I0504 14:42:26.850052  4370 net.cpp:139] Memory required for data: 731668000
I0504 14:42:26.850057  4370 layer_factory.hpp:77] Creating layer relu2
I0504 14:42:26.850062  4370 net.cpp:86] Creating Layer relu2
I0504 14:42:26.850065  4370 net.cpp:408] relu2 <- ip2
I0504 14:42:26.850069  4370 net.cpp:369] relu2 -> ip2 (in-place)
I0504 14:42:26.850214  4370 net.cpp:124] Setting up relu2
I0504 14:42:26.850222  4370 net.cpp:131] Top shape: 1000 10 (10000)
I0504 14:42:26.850225  4370 net.cpp:139] Memory required for data: 731708000
I0504 14:42:26.850229  4370 layer_factory.hpp:77] Creating layer ip3
I0504 14:42:26.850234  4370 net.cpp:86] Creating Layer ip3
I0504 14:42:26.850237  4370 net.cpp:408] ip3 <- ip2
I0504 14:42:26.850242  4370 net.cpp:382] ip3 -> ip3
I0504 14:42:26.850342  4370 net.cpp:124] Setting up ip3
I0504 14:42:26.850348  4370 net.cpp:131] Top shape: 1000 10 (10000)
I0504 14:42:26.850380  4370 net.cpp:139] Memory required for data: 731748000
I0504 14:42:26.850389  4370 layer_factory.hpp:77] Creating layer ip3_ip3_0_split
I0504 14:42:26.850411  4370 net.cpp:86] Creating Layer ip3_ip3_0_split
I0504 14:42:26.850414  4370 net.cpp:408] ip3_ip3_0_split <- ip3
I0504 14:42:26.850425  4370 net.cpp:382] ip3_ip3_0_split -> ip3_ip3_0_split_0
I0504 14:42:26.850431  4370 net.cpp:382] ip3_ip3_0_split -> ip3_ip3_0_split_1
I0504 14:42:26.850481  4370 net.cpp:124] Setting up ip3_ip3_0_split
I0504 14:42:26.850487  4370 net.cpp:131] Top shape: 1000 10 (10000)
I0504 14:42:26.850492  4370 net.cpp:131] Top shape: 1000 10 (10000)
I0504 14:42:26.850494  4370 net.cpp:139] Memory required for data: 731828000
I0504 14:42:26.850498  4370 layer_factory.hpp:77] Creating layer accuracy
I0504 14:42:26.850504  4370 net.cpp:86] Creating Layer accuracy
I0504 14:42:26.850507  4370 net.cpp:408] accuracy <- ip3_ip3_0_split_0
I0504 14:42:26.850512  4370 net.cpp:408] accuracy <- label_cifar_1_split_0
I0504 14:42:26.850517  4370 net.cpp:382] accuracy -> accuracy
…
