…
I0504 11:16:16.850734 26739 net.cpp:296] The NetState phase (0) differed from the phase (1) specified by a rule in layer cifar
I0504 11:16:16.850750 26739 net.cpp:296] The NetState phase (0) differed from the phase (1) specified by a rule in layer accuracy
I0504 11:16:16.850832 26739 net.cpp:53] Initializing net from parameters: 
name: "CIFAR"
state {
  phase: TRAIN
  level: 0
  stage: ""
}
layer {
  name: "cifar"
  type: "Data"
  top: "data"
  top: "label"
  include {
    phase: TRAIN
  }
  transform_param {
    mean_file: "examples/cifar10/mean.binaryproto"
  }
  data_param {
    source: "examples/cifar10/cifar10_train_lmdb"
    batch_size: 111
    backend: LMDB
  }
}
layer {
  name: "conv0"
  type: "Convolution"
  bottom: "data"
  top: "conv0"
  param {
    lr_mult: 1
  }
  param {
    lr_mult: 2
  }
  convolution_param {
    num_output: 24
    pad: 2
    kernel_size: 3
    stride: 1
    weight_filler {
      type: "gaussian"
      std: 0.01
    }
    bias_filler {
      type: "constant"
    }
  }
}
layer {
  name: "Sigmoid0"
  type: "Sigmoid"
  bottom: "conv0"
  top: "Sigmoid0"
}
layer {
  name: "pool0"
  type: "Pooling"
  bottom: "Sigmoid0"
  top: "pool0"
  pooling_param {
    pool: AVE
    kernel_size: 3
    stride: 2
  }
}
layer {
  name: "conv1"
  type: "Convolution"
  bottom: "pool0"
  top: "conv1"
  param {
    lr_mult: 1
  }
  param {
    lr_mult: 2
  }
  convolution_param {
    num_output: 216
    pad: 2
    kernel_size: 3
    stride: 1
    weight_filler {
      type: "gaussian"
      std: 0.01
    }
    bias_filler {
      type: "constant"
    }
  }
}
layer {
  name: "Sigmoid1"
  type: "Sigmoid"
  bottom: "conv1"
  top: "Sigmoid1"
}
layer {
  name: "pool1"
  type: "Pooling"
  bottom: "Sigmoid1"
  top: "pool1"
  pooling_param {
    pool: AVE
    kernel_size: 3
    stride: 2
  }
}
layer {
  name: "ip1"
  type: "InnerProduct"
  bottom: "pool1"
  top: "ip1"
  param {
    lr_mult: 1
  }
  param {
    lr_mult: 2
  }
  inner_product_param {
    num_output: 60
    weight_filler {
      type: "gaussian"
      std: 0.01
    }
    bias_filler {
      type: "constant"
    }
  }
}
layer {
  name: "relu1"
  type: "ReLU"
  bottom: "ip1"
  top: "ip1"
}
layer {
  name: "ip2"
  type: "InnerProduct"
  bottom: "ip1"
  top: "ip2"
  param {
    lr_mult: 1
  }
  param {
    lr_mult: 2
  }
  inner_product_param {
    num_output: 10
    weight_filler {
      type: "gaussian"
      std: 0.01
    }
    bias_filler {
      type: "constant"
    }
  }
}
layer {
  name: "loss"
  type: "SoftmaxWithLoss"
  bottom: "ip2"
  bottom: "label"
  top: "loss"
}
I0504 11:16:16.850895 26739 layer_factory.hpp:77] Creating layer cifar
I0504 11:16:16.850988 26739 db_lmdb.cpp:35] Opened lmdb examples/cifar10/cifar10_train_lmdb
I0504 11:16:16.851011 26739 net.cpp:86] Creating Layer cifar
I0504 11:16:16.851016 26739 net.cpp:382] cifar -> data
I0504 11:16:16.851034 26739 net.cpp:382] cifar -> label
I0504 11:16:16.851047 26739 data_transformer.cpp:25] Loading mean file from: examples/cifar10/mean.binaryproto
I0504 11:16:16.852993 26739 data_layer.cpp:45] output data size: 111,3,32,32
I0504 11:16:16.859405 26739 net.cpp:124] Setting up cifar
I0504 11:16:16.859450 26739 net.cpp:131] Top shape: 111 3 32 32 (340992)
I0504 11:16:16.859457 26739 net.cpp:131] Top shape: 111 (111)
I0504 11:16:16.859459 26739 net.cpp:139] Memory required for data: 1364412
I0504 11:16:16.859467 26739 layer_factory.hpp:77] Creating layer conv0
I0504 11:16:16.859483 26739 net.cpp:86] Creating Layer conv0
I0504 11:16:16.859515 26739 net.cpp:408] conv0 <- data
I0504 11:16:16.859527 26739 net.cpp:382] conv0 -> conv0
I0504 11:16:17.092129 26739 net.cpp:124] Setting up conv0
I0504 11:16:17.092170 26739 net.cpp:131] Top shape: 111 24 34 34 (3079584)
I0504 11:16:17.092175 26739 net.cpp:139] Memory required for data: 13682748
I0504 11:16:17.092190 26739 layer_factory.hpp:77] Creating layer Sigmoid0
I0504 11:16:17.092202 26739 net.cpp:86] Creating Layer Sigmoid0
I0504 11:16:17.092206 26739 net.cpp:408] Sigmoid0 <- conv0
I0504 11:16:17.092227 26739 net.cpp:382] Sigmoid0 -> Sigmoid0
I0504 11:16:17.092411 26739 net.cpp:124] Setting up Sigmoid0
I0504 11:16:17.092422 26739 net.cpp:131] Top shape: 111 24 34 34 (3079584)
I0504 11:16:17.092424 26739 net.cpp:139] Memory required for data: 26001084
I0504 11:16:17.092427 26739 layer_factory.hpp:77] Creating layer pool0
I0504 11:16:17.092433 26739 net.cpp:86] Creating Layer pool0
I0504 11:16:17.092437 26739 net.cpp:408] pool0 <- Sigmoid0
I0504 11:16:17.092442 26739 net.cpp:382] pool0 -> pool0
I0504 11:16:17.093180 26739 net.cpp:124] Setting up pool0
I0504 11:16:17.093209 26739 net.cpp:131] Top shape: 111 24 17 17 (769896)
I0504 11:16:17.093212 26739 net.cpp:139] Memory required for data: 29080668
I0504 11:16:17.093215 26739 layer_factory.hpp:77] Creating layer conv1
I0504 11:16:17.093228 26739 net.cpp:86] Creating Layer conv1
I0504 11:16:17.093231 26739 net.cpp:408] conv1 <- pool0
I0504 11:16:17.093236 26739 net.cpp:382] conv1 -> conv1
I0504 11:16:17.096879 26739 net.cpp:124] Setting up conv1
I0504 11:16:17.096891 26739 net.cpp:131] Top shape: 111 216 19 19 (8655336)
I0504 11:16:17.096910 26739 net.cpp:139] Memory required for data: 63702012
I0504 11:16:17.096920 26739 layer_factory.hpp:77] Creating layer Sigmoid1
I0504 11:16:17.096926 26739 net.cpp:86] Creating Layer Sigmoid1
I0504 11:16:17.096930 26739 net.cpp:408] Sigmoid1 <- conv1
I0504 11:16:17.096935 26739 net.cpp:382] Sigmoid1 -> Sigmoid1
I0504 11:16:17.097121 26739 net.cpp:124] Setting up Sigmoid1
I0504 11:16:17.097144 26739 net.cpp:131] Top shape: 111 216 19 19 (8655336)
I0504 11:16:17.097163 26739 net.cpp:139] Memory required for data: 98323356
I0504 11:16:17.097167 26739 layer_factory.hpp:77] Creating layer pool1
I0504 11:16:17.097172 26739 net.cpp:86] Creating Layer pool1
I0504 11:16:17.097175 26739 net.cpp:408] pool1 <- Sigmoid1
I0504 11:16:17.097180 26739 net.cpp:382] pool1 -> pool1
I0504 11:16:17.097333 26739 net.cpp:124] Setting up pool1
I0504 11:16:17.097342 26739 net.cpp:131] Top shape: 111 216 9 9 (1942056)
I0504 11:16:17.097345 26739 net.cpp:139] Memory required for data: 106091580
I0504 11:16:17.097348 26739 layer_factory.hpp:77] Creating layer ip1
I0504 11:16:17.097355 26739 net.cpp:86] Creating Layer ip1
I0504 11:16:17.097358 26739 net.cpp:408] ip1 <- pool1
I0504 11:16:17.097363 26739 net.cpp:382] ip1 -> ip1
I0504 11:16:17.124527 26739 net.cpp:124] Setting up ip1
I0504 11:16:17.124539 26739 net.cpp:131] Top shape: 111 60 (6660)
I0504 11:16:17.124542 26739 net.cpp:139] Memory required for data: 106118220
I0504 11:16:17.124552 26739 layer_factory.hpp:77] Creating layer relu1
I0504 11:16:17.124557 26739 net.cpp:86] Creating Layer relu1
I0504 11:16:17.124560 26739 net.cpp:408] relu1 <- ip1
I0504 11:16:17.124565 26739 net.cpp:369] relu1 -> ip1 (in-place)
I0504 11:16:17.124732 26739 net.cpp:124] Setting up relu1
I0504 11:16:17.124739 26739 net.cpp:131] Top shape: 111 60 (6660)
I0504 11:16:17.124742 26739 net.cpp:139] Memory required for data: 106144860
I0504 11:16:17.124745 26739 layer_factory.hpp:77] Creating layer ip2
I0504 11:16:17.124752 26739 net.cpp:86] Creating Layer ip2
I0504 11:16:17.124754 26739 net.cpp:408] ip2 <- ip1
I0504 11:16:17.124759 26739 net.cpp:382] ip2 -> ip2
I0504 11:16:17.124948 26739 net.cpp:124] Setting up ip2
I0504 11:16:17.124955 26739 net.cpp:131] Top shape: 111 10 (1110)
I0504 11:16:17.124959 26739 net.cpp:139] Memory required for data: 106149300
I0504 11:16:17.124965 26739 layer_factory.hpp:77] Creating layer loss
I0504 11:16:17.124971 26739 net.cpp:86] Creating Layer loss
I0504 11:16:17.124989 26739 net.cpp:408] loss <- ip2
I0504 11:16:17.124994 26739 net.cpp:408] loss <- label
I0504 11:16:17.125000 26739 net.cpp:382] loss -> loss
I0504 11:16:17.125018 26739 layer_factory.hpp:77] Creating layer loss
…
I0504 11:16:17.126413 26739 solver.cpp:173] Creating test net (#0) specified by net file: ECE595/cifar/train_test/var_everything_tiny/cifar_train_test_145.prototxt
I0504 11:16:17.126438 26739 net.cpp:296] The NetState phase (1) differed from the phase (0) specified by a rule in layer cifar
I0504 11:16:17.126523 26739 net.cpp:53] Initializing net from parameters: 
name: "CIFAR"
state {
  phase: TEST
}
layer {
  name: "cifar"
  type: "Data"
  top: "data"
  top: "label"
  include {
    phase: TEST
  }
  transform_param {
    mean_file: "examples/cifar10/mean.binaryproto"
  }
  data_param {
    source: "examples/cifar10/cifar10_test_lmdb"
    batch_size: 1000
    backend: LMDB
  }
}
layer {
  name: "conv0"
  type: "Convolution"
  bottom: "data"
  top: "conv0"
  param {
    lr_mult: 1
  }
  param {
    lr_mult: 2
  }
  convolution_param {
    num_output: 24
    pad: 2
    kernel_size: 3
    stride: 1
    weight_filler {
      type: "gaussian"
      std: 0.01
    }
    bias_filler {
      type: "constant"
    }
  }
}
layer {
  name: "Sigmoid0"
  type: "Sigmoid"
  bottom: "conv0"
  top: "Sigmoid0"
}
layer {
  name: "pool0"
  type: "Pooling"
  bottom: "Sigmoid0"
  top: "pool0"
  pooling_param {
    pool: AVE
    kernel_size: 3
    stride: 2
  }
}
layer {
  name: "conv1"
  type: "Convolution"
  bottom: "pool0"
  top: "conv1"
  param {
    lr_mult: 1
  }
  param {
    lr_mult: 2
  }
  convolution_param {
    num_output: 216
    pad: 2
    kernel_size: 3
    stride: 1
    weight_filler {
      type: "gaussian"
      std: 0.01
    }
    bias_filler {
      type: "constant"
    }
  }
}
layer {
  name: "Sigmoid1"
  type: "Sigmoid"
  bottom: "conv1"
  top: "Sigmoid1"
}
layer {
  name: "pool1"
  type: "Pooling"
  bottom: "Sigmoid1"
  top: "pool1"
  pooling_param {
    pool: AVE
    kernel_size: 3
    stride: 2
  }
}
layer {
  name: "ip1"
  type: "InnerProduct"
  bottom: "pool1"
  top: "ip1"
  param {
    lr_mult: 1
  }
  param {
    lr_mult: 2
  }
  inner_product_param {
    num_output: 60
    weight_filler {
      type: "gaussian"
      std: 0.01
    }
    bias_filler {
      type: "constant"
    }
  }
}
layer {
  name: "relu1"
  type: "ReLU"
  bottom: "ip1"
  top: "ip1"
}
layer {
  name: "ip2"
  type: "InnerProduct"
  bottom: "ip1"
  top: "ip2"
  param {
    lr_mult: 1
  }
  param {
    lr_mult: 2
  }
  inner_product_param {
    num_output: 10
    weight_filler {
      type: "gaussian"
      std: 0.01
    }
    bias_filler {
      type: "constant"
    }
  }
}
layer {
  name: "accuracy"
  type: "Accuracy"
  bottom: "ip2"
  bottom: "label"
  top: "accuracy"
  include {
    phase: TEST
  }
}
layer {
  name: "loss"
  type: "SoftmaxWithLoss"
  bottom: "ip2"
  bottom: "label"
  top: "loss"
}
I0504 11:16:17.126595 26739 layer_factory.hpp:77] Creating layer cifar
I0504 11:16:17.126637 26739 db_lmdb.cpp:35] Opened lmdb examples/cifar10/cifar10_test_lmdb
I0504 11:16:17.126649 26739 net.cpp:86] Creating Layer cifar
I0504 11:16:17.126653 26739 net.cpp:382] cifar -> data
I0504 11:16:17.126660 26739 net.cpp:382] cifar -> label
I0504 11:16:17.126667 26739 data_transformer.cpp:25] Loading mean file from: examples/cifar10/mean.binaryproto
I0504 11:16:17.126799 26739 data_layer.cpp:45] output data size: 1000,3,32,32
I0504 11:16:17.149225 26739 net.cpp:124] Setting up cifar
I0504 11:16:17.149281 26739 net.cpp:131] Top shape: 1000 3 32 32 (3072000)
I0504 11:16:17.149286 26739 net.cpp:131] Top shape: 1000 (1000)
I0504 11:16:17.149291 26739 net.cpp:139] Memory required for data: 12292000
I0504 11:16:17.149310 26739 layer_factory.hpp:77] Creating layer label_cifar_1_split
I0504 11:16:17.149324 26739 net.cpp:86] Creating Layer label_cifar_1_split
I0504 11:16:17.149328 26739 net.cpp:408] label_cifar_1_split <- label
I0504 11:16:17.149334 26739 net.cpp:382] label_cifar_1_split -> label_cifar_1_split_0
I0504 11:16:17.149343 26739 net.cpp:382] label_cifar_1_split -> label_cifar_1_split_1
I0504 11:16:17.149421 26739 net.cpp:124] Setting up label_cifar_1_split
I0504 11:16:17.149430 26739 net.cpp:131] Top shape: 1000 (1000)
I0504 11:16:17.149433 26739 net.cpp:131] Top shape: 1000 (1000)
I0504 11:16:17.149436 26739 net.cpp:139] Memory required for data: 12300000
I0504 11:16:17.149440 26739 layer_factory.hpp:77] Creating layer conv0
I0504 11:16:17.149451 26739 net.cpp:86] Creating Layer conv0
I0504 11:16:17.149454 26739 net.cpp:408] conv0 <- data
I0504 11:16:17.149459 26739 net.cpp:382] conv0 -> conv0
I0504 11:16:17.150346 26739 net.cpp:124] Setting up conv0
I0504 11:16:17.150357 26739 net.cpp:131] Top shape: 1000 24 34 34 (27744000)
I0504 11:16:17.150377 26739 net.cpp:139] Memory required for data: 123276000
I0504 11:16:17.150387 26739 layer_factory.hpp:77] Creating layer Sigmoid0
I0504 11:16:17.150394 26739 net.cpp:86] Creating Layer Sigmoid0
I0504 11:16:17.150398 26739 net.cpp:408] Sigmoid0 <- conv0
I0504 11:16:17.150401 26739 net.cpp:382] Sigmoid0 -> Sigmoid0
I0504 11:16:17.151249 26739 net.cpp:124] Setting up Sigmoid0
I0504 11:16:17.151262 26739 net.cpp:131] Top shape: 1000 24 34 34 (27744000)
I0504 11:16:17.151265 26739 net.cpp:139] Memory required for data: 234252000
I0504 11:16:17.151269 26739 layer_factory.hpp:77] Creating layer pool0
I0504 11:16:17.151278 26739 net.cpp:86] Creating Layer pool0
I0504 11:16:17.151280 26739 net.cpp:408] pool0 <- Sigmoid0
I0504 11:16:17.151300 26739 net.cpp:382] pool0 -> pool0
I0504 11:16:17.151522 26739 net.cpp:124] Setting up pool0
I0504 11:16:17.151531 26739 net.cpp:131] Top shape: 1000 24 17 17 (6936000)
I0504 11:16:17.151535 26739 net.cpp:139] Memory required for data: 261996000
I0504 11:16:17.151537 26739 layer_factory.hpp:77] Creating layer conv1
I0504 11:16:17.151546 26739 net.cpp:86] Creating Layer conv1
I0504 11:16:17.151551 26739 net.cpp:408] conv1 <- pool0
I0504 11:16:17.151556 26739 net.cpp:382] conv1 -> conv1
I0504 11:16:17.154984 26739 net.cpp:124] Setting up conv1
I0504 11:16:17.155014 26739 net.cpp:131] Top shape: 1000 216 19 19 (77976000)
I0504 11:16:17.155019 26739 net.cpp:139] Memory required for data: 573900000
I0504 11:16:17.155026 26739 layer_factory.hpp:77] Creating layer Sigmoid1
I0504 11:16:17.155033 26739 net.cpp:86] Creating Layer Sigmoid1
I0504 11:16:17.155036 26739 net.cpp:408] Sigmoid1 <- conv1
I0504 11:16:17.155041 26739 net.cpp:382] Sigmoid1 -> Sigmoid1
I0504 11:16:17.155215 26739 net.cpp:124] Setting up Sigmoid1
I0504 11:16:17.155225 26739 net.cpp:131] Top shape: 1000 216 19 19 (77976000)
I0504 11:16:17.155227 26739 net.cpp:139] Memory required for data: 885804000
I0504 11:16:17.155230 26739 layer_factory.hpp:77] Creating layer pool1
I0504 11:16:17.155236 26739 net.cpp:86] Creating Layer pool1
I0504 11:16:17.155239 26739 net.cpp:408] pool1 <- Sigmoid1
I0504 11:16:17.155259 26739 net.cpp:382] pool1 -> pool1
I0504 11:16:17.155416 26739 net.cpp:124] Setting up pool1
I0504 11:16:17.155424 26739 net.cpp:131] Top shape: 1000 216 9 9 (17496000)
I0504 11:16:17.155427 26739 net.cpp:139] Memory required for data: 955788000
I0504 11:16:17.155431 26739 layer_factory.hpp:77] Creating layer ip1
I0504 11:16:17.155439 26739 net.cpp:86] Creating Layer ip1
I0504 11:16:17.155442 26739 net.cpp:408] ip1 <- pool1
I0504 11:16:17.155447 26739 net.cpp:382] ip1 -> ip1
I0504 11:16:17.184123 26739 net.cpp:124] Setting up ip1
I0504 11:16:17.184154 26739 net.cpp:131] Top shape: 1000 60 (60000)
I0504 11:16:17.184159 26739 net.cpp:139] Memory required for data: 956028000
I0504 11:16:17.184168 26739 layer_factory.hpp:77] Creating layer relu1
I0504 11:16:17.184176 26739 net.cpp:86] Creating Layer relu1
I0504 11:16:17.184180 26739 net.cpp:408] relu1 <- ip1
I0504 11:16:17.184185 26739 net.cpp:369] relu1 -> ip1 (in-place)
I0504 11:16:17.185057 26739 net.cpp:124] Setting up relu1
I0504 11:16:17.185086 26739 net.cpp:131] Top shape: 1000 60 (60000)
I0504 11:16:17.185088 26739 net.cpp:139] Memory required for data: 956268000
I0504 11:16:17.185093 26739 layer_factory.hpp:77] Creating layer ip2
I0504 11:16:17.185102 26739 net.cpp:86] Creating Layer ip2
I0504 11:16:17.185106 26739 net.cpp:408] ip2 <- ip1
I0504 11:16:17.185111 26739 net.cpp:382] ip2 -> ip2
I0504 11:16:17.185271 26739 net.cpp:124] Setting up ip2
I0504 11:16:17.185279 26739 net.cpp:131] Top shape: 1000 10 (10000)
I0504 11:16:17.185282 26739 net.cpp:139] Memory required for data: 956308000
I0504 11:16:17.185288 26739 layer_factory.hpp:77] Creating layer ip2_ip2_0_split
I0504 11:16:17.185293 26739 net.cpp:86] Creating Layer ip2_ip2_0_split
I0504 11:16:17.185297 26739 net.cpp:408] ip2_ip2_0_split <- ip2
I0504 11:16:17.185302 26739 net.cpp:382] ip2_ip2_0_split -> ip2_ip2_0_split_0
I0504 11:16:17.185307 26739 net.cpp:382] ip2_ip2_0_split -> ip2_ip2_0_split_1
I0504 11:16:17.185340 26739 net.cpp:124] Setting up ip2_ip2_0_split
I0504 11:16:17.185349 26739 net.cpp:131] Top shape: 1000 10 (10000)
I0504 11:16:17.185354 26739 net.cpp:131] Top shape: 1000 10 (10000)
I0504 11:16:17.185356 26739 net.cpp:139] Memory required for data: 956388000
I0504 11:16:17.185374 26739 layer_factory.hpp:77] Creating layer accuracy
I0504 11:16:17.185384 26739 net.cpp:86] Creating Layer accuracy
I0504 11:16:17.185387 26739 net.cpp:408] accuracy <- ip2_ip2_0_split_0
I0504 11:16:17.185391 26739 net.cpp:408] accuracy <- label_cifar_1_split_0
I0504 11:16:17.185396 26739 net.cpp:382] accuracy -> accuracy
…
