…
I0504 08:40:58.156186 22278 net.cpp:296] The NetState phase (0) differed from the phase (1) specified by a rule in layer cifar
I0504 08:40:58.156216 22278 net.cpp:296] The NetState phase (0) differed from the phase (1) specified by a rule in layer accuracy
I0504 08:40:58.156332 22278 net.cpp:53] Initializing net from parameters: 
name: "CIFAR"
state {
  phase: TRAIN
  level: 0
  stage: ""
}
layer {
  name: "cifar"
  type: "Data"
  top: "data"
  top: "label"
  include {
    phase: TRAIN
  }
  transform_param {
    mean_file: "examples/cifar10/mean.binaryproto"
  }
  data_param {
    source: "examples/cifar10/cifar10_train_lmdb"
    batch_size: 111
    backend: LMDB
  }
}
layer {
  name: "conv0"
  type: "Convolution"
  bottom: "data"
  top: "conv0"
  param {
    lr_mult: 1
  }
  param {
    lr_mult: 2
  }
  convolution_param {
    num_output: 24
    pad: 2
    kernel_size: 5
    stride: 1
    weight_filler {
      type: "gaussian"
      std: 0.01
    }
    bias_filler {
      type: "constant"
    }
  }
}
layer {
  name: "Sigmoid0"
  type: "Sigmoid"
  bottom: "conv0"
  top: "Sigmoid0"
}
layer {
  name: "pool0"
  type: "Pooling"
  bottom: "Sigmoid0"
  top: "pool0"
  pooling_param {
    pool: AVE
    kernel_size: 3
    stride: 2
  }
}
layer {
  name: "conv1"
  type: "Convolution"
  bottom: "pool0"
  top: "conv1"
  param {
    lr_mult: 1
  }
  param {
    lr_mult: 2
  }
  convolution_param {
    num_output: 24
    pad: 2
    kernel_size: 5
    stride: 1
    weight_filler {
      type: "gaussian"
      std: 0.01
    }
    bias_filler {
      type: "constant"
    }
  }
}
layer {
  name: "Sigmoid1"
  type: "Sigmoid"
  bottom: "conv1"
  top: "Sigmoid1"
}
layer {
  name: "pool1"
  type: "Pooling"
  bottom: "Sigmoid1"
  top: "pool1"
  pooling_param {
    pool: AVE
    kernel_size: 3
    stride: 2
  }
}
layer {
  name: "ip1"
  type: "InnerProduct"
  bottom: "pool1"
  top: "ip1"
  param {
    lr_mult: 1
  }
  param {
    lr_mult: 2
  }
  inner_product_param {
    num_output: 180
    weight_filler {
      type: "gaussian"
      std: 0.01
    }
    bias_filler {
      type: "constant"
    }
  }
}
layer {
  name: "relu1"
  type: "ReLU"
  bottom: "ip1"
  top: "ip1"
}
layer {
  name: "ip2"
  type: "InnerProduct"
  bottom: "ip1"
  top: "ip2"
  param {
    lr_mult: 1
  }
  param {
    lr_mult: 2
  }
  inner_product_param {
    num_output: 180
    weight_filler {
      type: "gaussian"
      std: 0.01
    }
    bias_filler {
      type: "constant"
    }
  }
}
layer {
  name: "relu2"
  type: "ReLU"
  bottom: "ip2"
  top: "ip2"
}
layer {
  name: "ip3"
  type: "InnerProduct"
  bottom: "ip2"
  top: "ip3"
  param {
    lr_mult: 1
  }
  param {
    lr_mult: 2
  }
  inner_product_param {
    num_output: 10
    weight_filler {
      type: "gaussian"
      std: 0.01
    }
    bias_filler {
      type: "constant"
    }
  }
}
layer {
  name: "loss"
  type: "SoftmaxWithLoss"
  bottom: "ip3"
  bottom: "label"
  top: "loss"
}
I0504 08:40:58.156409 22278 layer_factory.hpp:77] Creating layer cifar
I0504 08:40:58.156497 22278 db_lmdb.cpp:35] Opened lmdb examples/cifar10/cifar10_train_lmdb
I0504 08:40:58.156535 22278 net.cpp:86] Creating Layer cifar
I0504 08:40:58.156543 22278 net.cpp:382] cifar -> data
I0504 08:40:58.156589 22278 net.cpp:382] cifar -> label
I0504 08:40:58.156597 22278 data_transformer.cpp:25] Loading mean file from: examples/cifar10/mean.binaryproto
I0504 08:40:58.158385 22278 data_layer.cpp:45] output data size: 111,3,32,32
I0504 08:40:58.164849 22278 net.cpp:124] Setting up cifar
I0504 08:40:58.164880 22278 net.cpp:131] Top shape: 111 3 32 32 (340992)
I0504 08:40:58.164886 22278 net.cpp:131] Top shape: 111 (111)
I0504 08:40:58.164888 22278 net.cpp:139] Memory required for data: 1364412
I0504 08:40:58.164894 22278 layer_factory.hpp:77] Creating layer conv0
I0504 08:40:58.164928 22278 net.cpp:86] Creating Layer conv0
I0504 08:40:58.164933 22278 net.cpp:408] conv0 <- data
I0504 08:40:58.164943 22278 net.cpp:382] conv0 -> conv0
I0504 08:40:58.394711 22278 net.cpp:124] Setting up conv0
I0504 08:40:58.394754 22278 net.cpp:131] Top shape: 111 24 32 32 (2727936)
I0504 08:40:58.394757 22278 net.cpp:139] Memory required for data: 12276156
I0504 08:40:58.394773 22278 layer_factory.hpp:77] Creating layer Sigmoid0
I0504 08:40:58.394783 22278 net.cpp:86] Creating Layer Sigmoid0
I0504 08:40:58.394788 22278 net.cpp:408] Sigmoid0 <- conv0
I0504 08:40:58.394793 22278 net.cpp:382] Sigmoid0 -> Sigmoid0
I0504 08:40:58.394978 22278 net.cpp:124] Setting up Sigmoid0
I0504 08:40:58.394986 22278 net.cpp:131] Top shape: 111 24 32 32 (2727936)
I0504 08:40:58.394989 22278 net.cpp:139] Memory required for data: 23187900
I0504 08:40:58.394992 22278 layer_factory.hpp:77] Creating layer pool0
I0504 08:40:58.395000 22278 net.cpp:86] Creating Layer pool0
I0504 08:40:58.395004 22278 net.cpp:408] pool0 <- Sigmoid0
I0504 08:40:58.395007 22278 net.cpp:382] pool0 -> pool0
I0504 08:40:58.395766 22278 net.cpp:124] Setting up pool0
I0504 08:40:58.395778 22278 net.cpp:131] Top shape: 111 24 16 16 (681984)
I0504 08:40:58.395797 22278 net.cpp:139] Memory required for data: 25915836
I0504 08:40:58.395800 22278 layer_factory.hpp:77] Creating layer conv1
I0504 08:40:58.395812 22278 net.cpp:86] Creating Layer conv1
I0504 08:40:58.395817 22278 net.cpp:408] conv1 <- pool0
I0504 08:40:58.395822 22278 net.cpp:382] conv1 -> conv1
I0504 08:40:58.398885 22278 net.cpp:124] Setting up conv1
I0504 08:40:58.398911 22278 net.cpp:131] Top shape: 111 24 16 16 (681984)
I0504 08:40:58.398931 22278 net.cpp:139] Memory required for data: 28643772
I0504 08:40:58.398938 22278 layer_factory.hpp:77] Creating layer Sigmoid1
I0504 08:40:58.398944 22278 net.cpp:86] Creating Layer Sigmoid1
I0504 08:40:58.398947 22278 net.cpp:408] Sigmoid1 <- conv1
I0504 08:40:58.398952 22278 net.cpp:382] Sigmoid1 -> Sigmoid1
I0504 08:40:58.399128 22278 net.cpp:124] Setting up Sigmoid1
I0504 08:40:58.399137 22278 net.cpp:131] Top shape: 111 24 16 16 (681984)
I0504 08:40:58.399140 22278 net.cpp:139] Memory required for data: 31371708
I0504 08:40:58.399143 22278 layer_factory.hpp:77] Creating layer pool1
I0504 08:40:58.399149 22278 net.cpp:86] Creating Layer pool1
I0504 08:40:58.399152 22278 net.cpp:408] pool1 <- Sigmoid1
I0504 08:40:58.399157 22278 net.cpp:382] pool1 -> pool1
I0504 08:40:58.399310 22278 net.cpp:124] Setting up pool1
I0504 08:40:58.399318 22278 net.cpp:131] Top shape: 111 24 8 8 (170496)
I0504 08:40:58.399322 22278 net.cpp:139] Memory required for data: 32053692
I0504 08:40:58.399324 22278 layer_factory.hpp:77] Creating layer ip1
I0504 08:40:58.399332 22278 net.cpp:86] Creating Layer ip1
I0504 08:40:58.399334 22278 net.cpp:408] ip1 <- pool1
I0504 08:40:58.399338 22278 net.cpp:382] ip1 -> ip1
I0504 08:40:58.408035 22278 net.cpp:124] Setting up ip1
I0504 08:40:58.408047 22278 net.cpp:131] Top shape: 111 180 (19980)
I0504 08:40:58.408066 22278 net.cpp:139] Memory required for data: 32133612
I0504 08:40:58.408076 22278 layer_factory.hpp:77] Creating layer relu1
I0504 08:40:58.408082 22278 net.cpp:86] Creating Layer relu1
I0504 08:40:58.408087 22278 net.cpp:408] relu1 <- ip1
I0504 08:40:58.408092 22278 net.cpp:369] relu1 -> ip1 (in-place)
I0504 08:40:58.408272 22278 net.cpp:124] Setting up relu1
I0504 08:40:58.408282 22278 net.cpp:131] Top shape: 111 180 (19980)
I0504 08:40:58.408284 22278 net.cpp:139] Memory required for data: 32213532
I0504 08:40:58.408288 22278 layer_factory.hpp:77] Creating layer ip2
I0504 08:40:58.408293 22278 net.cpp:86] Creating Layer ip2
I0504 08:40:58.408298 22278 net.cpp:408] ip2 <- ip1
I0504 08:40:58.408316 22278 net.cpp:382] ip2 -> ip2
I0504 08:40:58.410097 22278 net.cpp:124] Setting up ip2
I0504 08:40:58.410109 22278 net.cpp:131] Top shape: 111 180 (19980)
I0504 08:40:58.410112 22278 net.cpp:139] Memory required for data: 32293452
I0504 08:40:58.410118 22278 layer_factory.hpp:77] Creating layer relu2
I0504 08:40:58.410123 22278 net.cpp:86] Creating Layer relu2
I0504 08:40:58.410126 22278 net.cpp:408] relu2 <- ip2
I0504 08:40:58.410130 22278 net.cpp:369] relu2 -> ip2 (in-place)
I0504 08:40:58.410842 22278 net.cpp:124] Setting up relu2
I0504 08:40:58.410853 22278 net.cpp:131] Top shape: 111 180 (19980)
I0504 08:40:58.410856 22278 net.cpp:139] Memory required for data: 32373372
I0504 08:40:58.410861 22278 layer_factory.hpp:77] Creating layer ip3
I0504 08:40:58.410866 22278 net.cpp:86] Creating Layer ip3
I0504 08:40:58.410871 22278 net.cpp:408] ip3 <- ip2
I0504 08:40:58.410876 22278 net.cpp:382] ip3 -> ip3
I0504 08:40:58.411033 22278 net.cpp:124] Setting up ip3
I0504 08:40:58.411041 22278 net.cpp:131] Top shape: 111 10 (1110)
I0504 08:40:58.411044 22278 net.cpp:139] Memory required for data: 32377812
I0504 08:40:58.411051 22278 layer_factory.hpp:77] Creating layer loss
I0504 08:40:58.411057 22278 net.cpp:86] Creating Layer loss
I0504 08:40:58.411059 22278 net.cpp:408] loss <- ip3
I0504 08:40:58.411078 22278 net.cpp:408] loss <- label
I0504 08:40:58.411083 22278 net.cpp:382] loss -> loss
I0504 08:40:58.411101 22278 layer_factory.hpp:77] Creating layer loss
…
I0504 08:40:58.411710 22278 solver.cpp:173] Creating test net (#0) specified by net file: ECE595/cifar/train_test/var_everything_tiny/cifar_train_test_107.prototxt
I0504 08:40:58.411736 22278 net.cpp:296] The NetState phase (1) differed from the phase (0) specified by a rule in layer cifar
I0504 08:40:58.411828 22278 net.cpp:53] Initializing net from parameters: 
name: "CIFAR"
state {
  phase: TEST
}
layer {
  name: "cifar"
  type: "Data"
  top: "data"
  top: "label"
  include {
    phase: TEST
  }
  transform_param {
    mean_file: "examples/cifar10/mean.binaryproto"
  }
  data_param {
    source: "examples/cifar10/cifar10_test_lmdb"
    batch_size: 1000
    backend: LMDB
  }
}
layer {
  name: "conv0"
  type: "Convolution"
  bottom: "data"
  top: "conv0"
  param {
    lr_mult: 1
  }
  param {
    lr_mult: 2
  }
  convolution_param {
    num_output: 24
    pad: 2
    kernel_size: 5
    stride: 1
    weight_filler {
      type: "gaussian"
      std: 0.01
    }
    bias_filler {
      type: "constant"
    }
  }
}
layer {
  name: "Sigmoid0"
  type: "Sigmoid"
  bottom: "conv0"
  top: "Sigmoid0"
}
layer {
  name: "pool0"
  type: "Pooling"
  bottom: "Sigmoid0"
  top: "pool0"
  pooling_param {
    pool: AVE
    kernel_size: 3
    stride: 2
  }
}
layer {
  name: "conv1"
  type: "Convolution"
  bottom: "pool0"
  top: "conv1"
  param {
    lr_mult: 1
  }
  param {
    lr_mult: 2
  }
  convolution_param {
    num_output: 24
    pad: 2
    kernel_size: 5
    stride: 1
    weight_filler {
      type: "gaussian"
      std: 0.01
    }
    bias_filler {
      type: "constant"
    }
  }
}
layer {
  name: "Sigmoid1"
  type: "Sigmoid"
  bottom: "conv1"
  top: "Sigmoid1"
}
layer {
  name: "pool1"
  type: "Pooling"
  bottom: "Sigmoid1"
  top: "pool1"
  pooling_param {
    pool: AVE
    kernel_size: 3
    stride: 2
  }
}
layer {
  name: "ip1"
  type: "InnerProduct"
  bottom: "pool1"
  top: "ip1"
  param {
    lr_mult: 1
  }
  param {
    lr_mult: 2
  }
  inner_product_param {
    num_output: 180
    weight_filler {
      type: "gaussian"
      std: 0.01
    }
    bias_filler {
      type: "constant"
    }
  }
}
layer {
  name: "relu1"
  type: "ReLU"
  bottom: "ip1"
  top: "ip1"
}
layer {
  name: "ip2"
  type: "InnerProduct"
  bottom: "ip1"
  top: "ip2"
  param {
    lr_mult: 1
  }
  param {
    lr_mult: 2
  }
  inner_product_param {
    num_output: 180
    weight_filler {
      type: "gaussian"
      std: 0.01
    }
    bias_filler {
      type: "constant"
    }
  }
}
layer {
  name: "relu2"
  type: "ReLU"
  bottom: "ip2"
  top: "ip2"
}
layer {
  name: "ip3"
  type: "InnerProduct"
  bottom: "ip2"
  top: "ip3"
  param {
    lr_mult: 1
  }
  param {
    lr_mult: 2
  }
  inner_product_param {
    num_output: 10
    weight_filler {
      type: "gaussian"
      std: 0.01
    }
    bias_filler {
      type: "constant"
    }
  }
}
layer {
  name: "accuracy"
  type: "Accuracy"
  bottom: "ip3"
  bottom: "label"
  top: "accuracy"
  include {
    phase: TEST
  }
}
layer {
  name: "loss"
  type: "SoftmaxWithLoss"
  bottom: "ip3"
  bottom: "label"
  top: "loss"
}
I0504 08:40:58.411906 22278 layer_factory.hpp:77] Creating layer cifar
I0504 08:40:58.411948 22278 db_lmdb.cpp:35] Opened lmdb examples/cifar10/cifar10_test_lmdb
I0504 08:40:58.411959 22278 net.cpp:86] Creating Layer cifar
I0504 08:40:58.411964 22278 net.cpp:382] cifar -> data
I0504 08:40:58.411972 22278 net.cpp:382] cifar -> label
I0504 08:40:58.411978 22278 data_transformer.cpp:25] Loading mean file from: examples/cifar10/mean.binaryproto
I0504 08:40:58.412112 22278 data_layer.cpp:45] output data size: 1000,3,32,32
I0504 08:40:58.433442 22278 net.cpp:124] Setting up cifar
I0504 08:40:58.433482 22278 net.cpp:131] Top shape: 1000 3 32 32 (3072000)
I0504 08:40:58.433488 22278 net.cpp:131] Top shape: 1000 (1000)
I0504 08:40:58.433492 22278 net.cpp:139] Memory required for data: 12292000
I0504 08:40:58.433497 22278 layer_factory.hpp:77] Creating layer label_cifar_1_split
I0504 08:40:58.433509 22278 net.cpp:86] Creating Layer label_cifar_1_split
I0504 08:40:58.433513 22278 net.cpp:408] label_cifar_1_split <- label
I0504 08:40:58.433519 22278 net.cpp:382] label_cifar_1_split -> label_cifar_1_split_0
I0504 08:40:58.433527 22278 net.cpp:382] label_cifar_1_split -> label_cifar_1_split_1
I0504 08:40:58.433627 22278 net.cpp:124] Setting up label_cifar_1_split
I0504 08:40:58.433634 22278 net.cpp:131] Top shape: 1000 (1000)
I0504 08:40:58.433639 22278 net.cpp:131] Top shape: 1000 (1000)
I0504 08:40:58.433640 22278 net.cpp:139] Memory required for data: 12300000
I0504 08:40:58.433643 22278 layer_factory.hpp:77] Creating layer conv0
I0504 08:40:58.433655 22278 net.cpp:86] Creating Layer conv0
I0504 08:40:58.433658 22278 net.cpp:408] conv0 <- data
I0504 08:40:58.433663 22278 net.cpp:382] conv0 -> conv0
I0504 08:40:58.435343 22278 net.cpp:124] Setting up conv0
I0504 08:40:58.435356 22278 net.cpp:131] Top shape: 1000 24 32 32 (24576000)
I0504 08:40:58.435375 22278 net.cpp:139] Memory required for data: 110604000
I0504 08:40:58.435384 22278 layer_factory.hpp:77] Creating layer Sigmoid0
I0504 08:40:58.435391 22278 net.cpp:86] Creating Layer Sigmoid0
I0504 08:40:58.435395 22278 net.cpp:408] Sigmoid0 <- conv0
I0504 08:40:58.435400 22278 net.cpp:382] Sigmoid0 -> Sigmoid0
I0504 08:40:58.435569 22278 net.cpp:124] Setting up Sigmoid0
I0504 08:40:58.435588 22278 net.cpp:131] Top shape: 1000 24 32 32 (24576000)
I0504 08:40:58.435591 22278 net.cpp:139] Memory required for data: 208908000
I0504 08:40:58.435595 22278 layer_factory.hpp:77] Creating layer pool0
I0504 08:40:58.435603 22278 net.cpp:86] Creating Layer pool0
I0504 08:40:58.435606 22278 net.cpp:408] pool0 <- Sigmoid0
I0504 08:40:58.435611 22278 net.cpp:382] pool0 -> pool0
I0504 08:40:58.435775 22278 net.cpp:124] Setting up pool0
I0504 08:40:58.435783 22278 net.cpp:131] Top shape: 1000 24 16 16 (6144000)
I0504 08:40:58.435786 22278 net.cpp:139] Memory required for data: 233484000
I0504 08:40:58.435789 22278 layer_factory.hpp:77] Creating layer conv1
I0504 08:40:58.435798 22278 net.cpp:86] Creating Layer conv1
I0504 08:40:58.435802 22278 net.cpp:408] conv1 <- pool0
I0504 08:40:58.435808 22278 net.cpp:382] conv1 -> conv1
I0504 08:40:58.438208 22278 net.cpp:124] Setting up conv1
I0504 08:40:58.438237 22278 net.cpp:131] Top shape: 1000 24 16 16 (6144000)
I0504 08:40:58.438241 22278 net.cpp:139] Memory required for data: 258060000
I0504 08:40:58.438251 22278 layer_factory.hpp:77] Creating layer Sigmoid1
I0504 08:40:58.438256 22278 net.cpp:86] Creating Layer Sigmoid1
I0504 08:40:58.438259 22278 net.cpp:408] Sigmoid1 <- conv1
I0504 08:40:58.438264 22278 net.cpp:382] Sigmoid1 -> Sigmoid1
I0504 08:40:58.438426 22278 net.cpp:124] Setting up Sigmoid1
I0504 08:40:58.438437 22278 net.cpp:131] Top shape: 1000 24 16 16 (6144000)
I0504 08:40:58.438441 22278 net.cpp:139] Memory required for data: 282636000
I0504 08:40:58.438443 22278 layer_factory.hpp:77] Creating layer pool1
I0504 08:40:58.438448 22278 net.cpp:86] Creating Layer pool1
I0504 08:40:58.438452 22278 net.cpp:408] pool1 <- Sigmoid1
I0504 08:40:58.438457 22278 net.cpp:382] pool1 -> pool1
I0504 08:40:58.439185 22278 net.cpp:124] Setting up pool1
I0504 08:40:58.439208 22278 net.cpp:131] Top shape: 1000 24 8 8 (1536000)
I0504 08:40:58.439211 22278 net.cpp:139] Memory required for data: 288780000
I0504 08:40:58.439225 22278 layer_factory.hpp:77] Creating layer ip1
I0504 08:40:58.439234 22278 net.cpp:86] Creating Layer ip1
I0504 08:40:58.439239 22278 net.cpp:408] ip1 <- pool1
I0504 08:40:58.439244 22278 net.cpp:382] ip1 -> ip1
I0504 08:40:58.447409 22278 net.cpp:124] Setting up ip1
I0504 08:40:58.447438 22278 net.cpp:131] Top shape: 1000 180 (180000)
I0504 08:40:58.447441 22278 net.cpp:139] Memory required for data: 289500000
I0504 08:40:58.447448 22278 layer_factory.hpp:77] Creating layer relu1
I0504 08:40:58.447454 22278 net.cpp:86] Creating Layer relu1
I0504 08:40:58.447458 22278 net.cpp:408] relu1 <- ip1
I0504 08:40:58.447463 22278 net.cpp:369] relu1 -> ip1 (in-place)
I0504 08:40:58.447628 22278 net.cpp:124] Setting up relu1
I0504 08:40:58.447636 22278 net.cpp:131] Top shape: 1000 180 (180000)
I0504 08:40:58.447639 22278 net.cpp:139] Memory required for data: 290220000
I0504 08:40:58.447643 22278 layer_factory.hpp:77] Creating layer ip2
I0504 08:40:58.447649 22278 net.cpp:86] Creating Layer ip2
I0504 08:40:58.447651 22278 net.cpp:408] ip2 <- ip1
I0504 08:40:58.447657 22278 net.cpp:382] ip2 -> ip2
I0504 08:40:58.448566 22278 net.cpp:124] Setting up ip2
I0504 08:40:58.448573 22278 net.cpp:131] Top shape: 1000 180 (180000)
I0504 08:40:58.448576 22278 net.cpp:139] Memory required for data: 290940000
I0504 08:40:58.448597 22278 layer_factory.hpp:77] Creating layer relu2
I0504 08:40:58.448601 22278 net.cpp:86] Creating Layer relu2
I0504 08:40:58.448604 22278 net.cpp:408] relu2 <- ip2
I0504 08:40:58.448609 22278 net.cpp:369] relu2 -> ip2 (in-place)
I0504 08:40:58.448761 22278 net.cpp:124] Setting up relu2
I0504 08:40:58.448770 22278 net.cpp:131] Top shape: 1000 180 (180000)
I0504 08:40:58.448772 22278 net.cpp:139] Memory required for data: 291660000
I0504 08:40:58.448774 22278 layer_factory.hpp:77] Creating layer ip3
I0504 08:40:58.448781 22278 net.cpp:86] Creating Layer ip3
I0504 08:40:58.448784 22278 net.cpp:408] ip3 <- ip2
I0504 08:40:58.448789 22278 net.cpp:382] ip3 -> ip3
I0504 08:40:58.449002 22278 net.cpp:124] Setting up ip3
I0504 08:40:58.449020 22278 net.cpp:131] Top shape: 1000 10 (10000)
I0504 08:40:58.449023 22278 net.cpp:139] Memory required for data: 291700000
I0504 08:40:58.449031 22278 layer_factory.hpp:77] Creating layer ip3_ip3_0_split
I0504 08:40:58.449038 22278 net.cpp:86] Creating Layer ip3_ip3_0_split
I0504 08:40:58.449040 22278 net.cpp:408] ip3_ip3_0_split <- ip3
I0504 08:40:58.449045 22278 net.cpp:382] ip3_ip3_0_split -> ip3_ip3_0_split_0
I0504 08:40:58.449051 22278 net.cpp:382] ip3_ip3_0_split -> ip3_ip3_0_split_1
I0504 08:40:58.449086 22278 net.cpp:124] Setting up ip3_ip3_0_split
I0504 08:40:58.449093 22278 net.cpp:131] Top shape: 1000 10 (10000)
I0504 08:40:58.449097 22278 net.cpp:131] Top shape: 1000 10 (10000)
I0504 08:40:58.449100 22278 net.cpp:139] Memory required for data: 291780000
I0504 08:40:58.449103 22278 layer_factory.hpp:77] Creating layer accuracy
I0504 08:40:58.449115 22278 net.cpp:86] Creating Layer accuracy
I0504 08:40:58.449142 22278 net.cpp:408] accuracy <- ip3_ip3_0_split_0
I0504 08:40:58.449146 22278 net.cpp:408] accuracy <- label_cifar_1_split_0
I0504 08:40:58.449151 22278 net.cpp:382] accuracy -> accuracy
…
