…
I0504 15:06:10.780705  5695 net.cpp:296] The NetState phase (0) differed from the phase (1) specified by a rule in layer cifar
I0504 15:06:10.780735  5695 net.cpp:296] The NetState phase (0) differed from the phase (1) specified by a rule in layer accuracy
I0504 15:06:10.780850  5695 net.cpp:53] Initializing net from parameters: 
name: "CIFAR"
state {
  phase: TRAIN
  level: 0
  stage: ""
}
layer {
  name: "cifar"
  type: "Data"
  top: "data"
  top: "label"
  include {
    phase: TRAIN
  }
  transform_param {
    mean_file: "examples/cifar10/mean.binaryproto"
  }
  data_param {
    source: "examples/cifar10/cifar10_train_lmdb"
    batch_size: 111
    backend: LMDB
  }
}
layer {
  name: "conv0"
  type: "Convolution"
  bottom: "data"
  top: "conv0"
  param {
    lr_mult: 1
  }
  param {
    lr_mult: 2
  }
  convolution_param {
    num_output: 24
    pad: 2
    kernel_size: 5
    stride: 1
    weight_filler {
      type: "gaussian"
      std: 0.01
    }
    bias_filler {
      type: "constant"
    }
  }
}
layer {
  name: "Sigmoid0"
  type: "Sigmoid"
  bottom: "conv0"
  top: "Sigmoid0"
}
layer {
  name: "pool0"
  type: "Pooling"
  bottom: "Sigmoid0"
  top: "pool0"
  pooling_param {
    pool: AVE
    kernel_size: 3
    stride: 2
  }
}
layer {
  name: "conv1"
  type: "Convolution"
  bottom: "pool0"
  top: "conv1"
  param {
    lr_mult: 1
  }
  param {
    lr_mult: 2
  }
  convolution_param {
    num_output: 216
    pad: 2
    kernel_size: 5
    stride: 1
    weight_filler {
      type: "gaussian"
      std: 0.01
    }
    bias_filler {
      type: "constant"
    }
  }
}
layer {
  name: "Sigmoid1"
  type: "Sigmoid"
  bottom: "conv1"
  top: "Sigmoid1"
}
layer {
  name: "pool1"
  type: "Pooling"
  bottom: "Sigmoid1"
  top: "pool1"
  pooling_param {
    pool: AVE
    kernel_size: 3
    stride: 2
  }
}
layer {
  name: "ip1"
  type: "InnerProduct"
  bottom: "pool1"
  top: "ip1"
  param {
    lr_mult: 1
  }
  param {
    lr_mult: 2
  }
  inner_product_param {
    num_output: 180
    weight_filler {
      type: "gaussian"
      std: 0.01
    }
    bias_filler {
      type: "constant"
    }
  }
}
layer {
  name: "relu1"
  type: "ReLU"
  bottom: "ip1"
  top: "ip1"
}
layer {
  name: "ip2"
  type: "InnerProduct"
  bottom: "ip1"
  top: "ip2"
  param {
    lr_mult: 1
  }
  param {
    lr_mult: 2
  }
  inner_product_param {
    num_output: 10
    weight_filler {
      type: "gaussian"
      std: 0.01
    }
    bias_filler {
      type: "constant"
    }
  }
}
layer {
  name: "relu2"
  type: "ReLU"
  bottom: "ip2"
  top: "ip2"
}
layer {
  name: "ip3"
  type: "InnerProduct"
  bottom: "ip2"
  top: "ip3"
  param {
    lr_mult: 1
  }
  param {
    lr_mult: 2
  }
  inner_product_param {
    num_output: 10
    weight_filler {
      type: "gaussian"
      std: 0.01
    }
    bias_filler {
      type: "constant"
    }
  }
}
layer {
  name: "loss"
  type: "SoftmaxWithLoss"
  bottom: "ip3"
  bottom: "label"
  top: "loss"
}
I0504 15:06:10.780918  5695 layer_factory.hpp:77] Creating layer cifar
I0504 15:06:10.781004  5695 db_lmdb.cpp:35] Opened lmdb examples/cifar10/cifar10_train_lmdb
I0504 15:06:10.781029  5695 net.cpp:86] Creating Layer cifar
I0504 15:06:10.781038  5695 net.cpp:382] cifar -> data
I0504 15:06:10.781057  5695 net.cpp:382] cifar -> label
I0504 15:06:10.781069  5695 data_transformer.cpp:25] Loading mean file from: examples/cifar10/mean.binaryproto
I0504 15:06:10.783016  5695 data_layer.cpp:45] output data size: 111,3,32,32
I0504 15:06:10.789811  5695 net.cpp:124] Setting up cifar
I0504 15:06:10.789826  5695 net.cpp:131] Top shape: 111 3 32 32 (340992)
I0504 15:06:10.789846  5695 net.cpp:131] Top shape: 111 (111)
I0504 15:06:10.789849  5695 net.cpp:139] Memory required for data: 1364412
I0504 15:06:10.789855  5695 layer_factory.hpp:77] Creating layer conv0
I0504 15:06:10.789870  5695 net.cpp:86] Creating Layer conv0
I0504 15:06:10.789875  5695 net.cpp:408] conv0 <- data
I0504 15:06:10.789885  5695 net.cpp:382] conv0 -> conv0
I0504 15:06:11.019815  5695 net.cpp:124] Setting up conv0
I0504 15:06:11.019843  5695 net.cpp:131] Top shape: 111 24 32 32 (2727936)
I0504 15:06:11.019847  5695 net.cpp:139] Memory required for data: 12276156
I0504 15:06:11.019861  5695 layer_factory.hpp:77] Creating layer Sigmoid0
I0504 15:06:11.019872  5695 net.cpp:86] Creating Layer Sigmoid0
I0504 15:06:11.019876  5695 net.cpp:408] Sigmoid0 <- conv0
I0504 15:06:11.019882  5695 net.cpp:382] Sigmoid0 -> Sigmoid0
I0504 15:06:11.020063  5695 net.cpp:124] Setting up Sigmoid0
I0504 15:06:11.020073  5695 net.cpp:131] Top shape: 111 24 32 32 (2727936)
I0504 15:06:11.020076  5695 net.cpp:139] Memory required for data: 23187900
I0504 15:06:11.020079  5695 layer_factory.hpp:77] Creating layer pool0
I0504 15:06:11.020087  5695 net.cpp:86] Creating Layer pool0
I0504 15:06:11.020089  5695 net.cpp:408] pool0 <- Sigmoid0
I0504 15:06:11.020093  5695 net.cpp:382] pool0 -> pool0
I0504 15:06:11.020850  5695 net.cpp:124] Setting up pool0
I0504 15:06:11.020879  5695 net.cpp:131] Top shape: 111 24 16 16 (681984)
I0504 15:06:11.020882  5695 net.cpp:139] Memory required for data: 25915836
I0504 15:06:11.020886  5695 layer_factory.hpp:77] Creating layer conv1
I0504 15:06:11.020898  5695 net.cpp:86] Creating Layer conv1
I0504 15:06:11.020901  5695 net.cpp:408] conv1 <- pool0
I0504 15:06:11.020906  5695 net.cpp:382] conv1 -> conv1
I0504 15:06:11.025897  5695 net.cpp:124] Setting up conv1
I0504 15:06:11.025923  5695 net.cpp:131] Top shape: 111 216 16 16 (6137856)
I0504 15:06:11.025928  5695 net.cpp:139] Memory required for data: 50467260
I0504 15:06:11.025934  5695 layer_factory.hpp:77] Creating layer Sigmoid1
I0504 15:06:11.025940  5695 net.cpp:86] Creating Layer Sigmoid1
I0504 15:06:11.025943  5695 net.cpp:408] Sigmoid1 <- conv1
I0504 15:06:11.025948  5695 net.cpp:382] Sigmoid1 -> Sigmoid1
I0504 15:06:11.026116  5695 net.cpp:124] Setting up Sigmoid1
I0504 15:06:11.026126  5695 net.cpp:131] Top shape: 111 216 16 16 (6137856)
I0504 15:06:11.026129  5695 net.cpp:139] Memory required for data: 75018684
I0504 15:06:11.026132  5695 layer_factory.hpp:77] Creating layer pool1
I0504 15:06:11.026139  5695 net.cpp:86] Creating Layer pool1
I0504 15:06:11.026141  5695 net.cpp:408] pool1 <- Sigmoid1
I0504 15:06:11.026145  5695 net.cpp:382] pool1 -> pool1
I0504 15:06:11.026316  5695 net.cpp:124] Setting up pool1
I0504 15:06:11.026325  5695 net.cpp:131] Top shape: 111 216 8 8 (1534464)
I0504 15:06:11.026329  5695 net.cpp:139] Memory required for data: 81156540
I0504 15:06:11.026331  5695 layer_factory.hpp:77] Creating layer ip1
I0504 15:06:11.026338  5695 net.cpp:86] Creating Layer ip1
I0504 15:06:11.026341  5695 net.cpp:408] ip1 <- pool1
I0504 15:06:11.026346  5695 net.cpp:382] ip1 -> ip1
I0504 15:06:11.098047  5695 net.cpp:124] Setting up ip1
I0504 15:06:11.098076  5695 net.cpp:131] Top shape: 111 180 (19980)
I0504 15:06:11.098080  5695 net.cpp:139] Memory required for data: 81236460
I0504 15:06:11.098088  5695 layer_factory.hpp:77] Creating layer relu1
I0504 15:06:11.098096  5695 net.cpp:86] Creating Layer relu1
I0504 15:06:11.098100  5695 net.cpp:408] relu1 <- ip1
I0504 15:06:11.098104  5695 net.cpp:369] relu1 -> ip1 (in-place)
I0504 15:06:11.098320  5695 net.cpp:124] Setting up relu1
I0504 15:06:11.098330  5695 net.cpp:131] Top shape: 111 180 (19980)
I0504 15:06:11.098348  5695 net.cpp:139] Memory required for data: 81316380
I0504 15:06:11.098351  5695 layer_factory.hpp:77] Creating layer ip2
I0504 15:06:11.098359  5695 net.cpp:86] Creating Layer ip2
I0504 15:06:11.098362  5695 net.cpp:408] ip2 <- ip1
I0504 15:06:11.098382  5695 net.cpp:382] ip2 -> ip2
I0504 15:06:11.098569  5695 net.cpp:124] Setting up ip2
I0504 15:06:11.098578  5695 net.cpp:131] Top shape: 111 10 (1110)
I0504 15:06:11.098582  5695 net.cpp:139] Memory required for data: 81320820
I0504 15:06:11.098588  5695 layer_factory.hpp:77] Creating layer relu2
I0504 15:06:11.098593  5695 net.cpp:86] Creating Layer relu2
I0504 15:06:11.098598  5695 net.cpp:408] relu2 <- ip2
I0504 15:06:11.098601  5695 net.cpp:369] relu2 -> ip2 (in-place)
I0504 15:06:11.099483  5695 net.cpp:124] Setting up relu2
I0504 15:06:11.099511  5695 net.cpp:131] Top shape: 111 10 (1110)
I0504 15:06:11.099515  5695 net.cpp:139] Memory required for data: 81325260
I0504 15:06:11.099519  5695 layer_factory.hpp:77] Creating layer ip3
I0504 15:06:11.099526  5695 net.cpp:86] Creating Layer ip3
I0504 15:06:11.099530  5695 net.cpp:408] ip3 <- ip2
I0504 15:06:11.099535  5695 net.cpp:382] ip3 -> ip3
I0504 15:06:11.099664  5695 net.cpp:124] Setting up ip3
I0504 15:06:11.099673  5695 net.cpp:131] Top shape: 111 10 (1110)
I0504 15:06:11.099676  5695 net.cpp:139] Memory required for data: 81329700
I0504 15:06:11.099685  5695 layer_factory.hpp:77] Creating layer loss
I0504 15:06:11.099691  5695 net.cpp:86] Creating Layer loss
I0504 15:06:11.099694  5695 net.cpp:408] loss <- ip3
I0504 15:06:11.099699  5695 net.cpp:408] loss <- label
I0504 15:06:11.099704  5695 net.cpp:382] loss -> loss
I0504 15:06:11.099722  5695 layer_factory.hpp:77] Creating layer loss
…
I0504 15:06:11.100456  5695 solver.cpp:173] Creating test net (#0) specified by net file: ECE595/cifar/train_test/var_everything_tiny/cifar_train_test_177.prototxt
I0504 15:06:11.100500  5695 net.cpp:296] The NetState phase (1) differed from the phase (0) specified by a rule in layer cifar
I0504 15:06:11.100611  5695 net.cpp:53] Initializing net from parameters: 
name: "CIFAR"
state {
  phase: TEST
}
layer {
  name: "cifar"
  type: "Data"
  top: "data"
  top: "label"
  include {
    phase: TEST
  }
  transform_param {
    mean_file: "examples/cifar10/mean.binaryproto"
  }
  data_param {
    source: "examples/cifar10/cifar10_test_lmdb"
    batch_size: 1000
    backend: LMDB
  }
}
layer {
  name: "conv0"
  type: "Convolution"
  bottom: "data"
  top: "conv0"
  param {
    lr_mult: 1
  }
  param {
    lr_mult: 2
  }
  convolution_param {
    num_output: 24
    pad: 2
    kernel_size: 5
    stride: 1
    weight_filler {
      type: "gaussian"
      std: 0.01
    }
    bias_filler {
      type: "constant"
    }
  }
}
layer {
  name: "Sigmoid0"
  type: "Sigmoid"
  bottom: "conv0"
  top: "Sigmoid0"
}
layer {
  name: "pool0"
  type: "Pooling"
  bottom: "Sigmoid0"
  top: "pool0"
  pooling_param {
    pool: AVE
    kernel_size: 3
    stride: 2
  }
}
layer {
  name: "conv1"
  type: "Convolution"
  bottom: "pool0"
  top: "conv1"
  param {
    lr_mult: 1
  }
  param {
    lr_mult: 2
  }
  convolution_param {
    num_output: 216
    pad: 2
    kernel_size: 5
    stride: 1
    weight_filler {
      type: "gaussian"
      std: 0.01
    }
    bias_filler {
      type: "constant"
    }
  }
}
layer {
  name: "Sigmoid1"
  type: "Sigmoid"
  bottom: "conv1"
  top: "Sigmoid1"
}
layer {
  name: "pool1"
  type: "Pooling"
  bottom: "Sigmoid1"
  top: "pool1"
  pooling_param {
    pool: AVE
    kernel_size: 3
    stride: 2
  }
}
layer {
  name: "ip1"
  type: "InnerProduct"
  bottom: "pool1"
  top: "ip1"
  param {
    lr_mult: 1
  }
  param {
    lr_mult: 2
  }
  inner_product_param {
    num_output: 180
    weight_filler {
      type: "gaussian"
      std: 0.01
    }
    bias_filler {
      type: "constant"
    }
  }
}
layer {
  name: "relu1"
  type: "ReLU"
  bottom: "ip1"
  top: "ip1"
}
layer {
  name: "ip2"
  type: "InnerProduct"
  bottom: "ip1"
  top: "ip2"
  param {
    lr_mult: 1
  }
  param {
    lr_mult: 2
  }
  inner_product_param {
    num_output: 10
    weight_filler {
      type: "gaussian"
      std: 0.01
    }
    bias_filler {
      type: "constant"
    }
  }
}
layer {
  name: "relu2"
  type: "ReLU"
  bottom: "ip2"
  top: "ip2"
}
layer {
  name: "ip3"
  type: "InnerProduct"
  bottom: "ip2"
  top: "ip3"
  param {
    lr_mult: 1
  }
  param {
    lr_mult: 2
  }
  inner_product_param {
    num_output: 10
    weight_filler {
      type: "gaussian"
      std: 0.01
    }
    bias_filler {
      type: "constant"
    }
  }
}
layer {
  name: "accuracy"
  type: "Accuracy"
  bottom: "ip3"
  bottom: "label"
  top: "accuracy"
  include {
    phase: TEST
  }
}
layer {
  name: "loss"
  type: "SoftmaxWithLoss"
  bottom: "ip3"
  bottom: "label"
  top: "loss"
}
I0504 15:06:11.100703  5695 layer_factory.hpp:77] Creating layer cifar
I0504 15:06:11.100751  5695 db_lmdb.cpp:35] Opened lmdb examples/cifar10/cifar10_test_lmdb
I0504 15:06:11.100764  5695 net.cpp:86] Creating Layer cifar
I0504 15:06:11.100770  5695 net.cpp:382] cifar -> data
I0504 15:06:11.100778  5695 net.cpp:382] cifar -> label
I0504 15:06:11.100785  5695 data_transformer.cpp:25] Loading mean file from: examples/cifar10/mean.binaryproto
I0504 15:06:11.100977  5695 data_layer.cpp:45] output data size: 1000,3,32,32
I0504 15:06:11.122987  5695 net.cpp:124] Setting up cifar
I0504 15:06:11.123013  5695 net.cpp:131] Top shape: 1000 3 32 32 (3072000)
I0504 15:06:11.123035  5695 net.cpp:131] Top shape: 1000 (1000)
I0504 15:06:11.123041  5695 net.cpp:139] Memory required for data: 12292000
I0504 15:06:11.123046  5695 layer_factory.hpp:77] Creating layer label_cifar_1_split
I0504 15:06:11.123059  5695 net.cpp:86] Creating Layer label_cifar_1_split
I0504 15:06:11.123062  5695 net.cpp:408] label_cifar_1_split <- label
I0504 15:06:11.123069  5695 net.cpp:382] label_cifar_1_split -> label_cifar_1_split_0
I0504 15:06:11.123091  5695 net.cpp:382] label_cifar_1_split -> label_cifar_1_split_1
I0504 15:06:11.123177  5695 net.cpp:124] Setting up label_cifar_1_split
I0504 15:06:11.123184  5695 net.cpp:131] Top shape: 1000 (1000)
I0504 15:06:11.123188  5695 net.cpp:131] Top shape: 1000 (1000)
I0504 15:06:11.123190  5695 net.cpp:139] Memory required for data: 12300000
I0504 15:06:11.123193  5695 layer_factory.hpp:77] Creating layer conv0
I0504 15:06:11.123205  5695 net.cpp:86] Creating Layer conv0
I0504 15:06:11.123208  5695 net.cpp:408] conv0 <- data
I0504 15:06:11.123214  5695 net.cpp:382] conv0 -> conv0
I0504 15:06:11.124897  5695 net.cpp:124] Setting up conv0
I0504 15:06:11.124927  5695 net.cpp:131] Top shape: 1000 24 32 32 (24576000)
I0504 15:06:11.124930  5695 net.cpp:139] Memory required for data: 110604000
I0504 15:06:11.124939  5695 layer_factory.hpp:77] Creating layer Sigmoid0
I0504 15:06:11.124948  5695 net.cpp:86] Creating Layer Sigmoid0
I0504 15:06:11.124953  5695 net.cpp:408] Sigmoid0 <- conv0
I0504 15:06:11.124956  5695 net.cpp:382] Sigmoid0 -> Sigmoid0
I0504 15:06:11.125331  5695 net.cpp:124] Setting up Sigmoid0
I0504 15:06:11.125375  5695 net.cpp:131] Top shape: 1000 24 32 32 (24576000)
I0504 15:06:11.125380  5695 net.cpp:139] Memory required for data: 208908000
I0504 15:06:11.125383  5695 layer_factory.hpp:77] Creating layer pool0
I0504 15:06:11.125391  5695 net.cpp:86] Creating Layer pool0
I0504 15:06:11.125396  5695 net.cpp:408] pool0 <- Sigmoid0
I0504 15:06:11.125401  5695 net.cpp:382] pool0 -> pool0
I0504 15:06:11.126579  5695 net.cpp:124] Setting up pool0
I0504 15:06:11.126590  5695 net.cpp:131] Top shape: 1000 24 16 16 (6144000)
I0504 15:06:11.126612  5695 net.cpp:139] Memory required for data: 233484000
I0504 15:06:11.126616  5695 layer_factory.hpp:77] Creating layer conv1
I0504 15:06:11.126626  5695 net.cpp:86] Creating Layer conv1
I0504 15:06:11.126631  5695 net.cpp:408] conv1 <- pool0
I0504 15:06:11.126636  5695 net.cpp:382] conv1 -> conv1
I0504 15:06:11.131451  5695 net.cpp:124] Setting up conv1
I0504 15:06:11.131465  5695 net.cpp:131] Top shape: 1000 216 16 16 (55296000)
I0504 15:06:11.131485  5695 net.cpp:139] Memory required for data: 454668000
I0504 15:06:11.131494  5695 layer_factory.hpp:77] Creating layer Sigmoid1
I0504 15:06:11.131501  5695 net.cpp:86] Creating Layer Sigmoid1
I0504 15:06:11.131505  5695 net.cpp:408] Sigmoid1 <- conv1
I0504 15:06:11.131510  5695 net.cpp:382] Sigmoid1 -> Sigmoid1
I0504 15:06:11.131719  5695 net.cpp:124] Setting up Sigmoid1
I0504 15:06:11.131729  5695 net.cpp:131] Top shape: 1000 216 16 16 (55296000)
I0504 15:06:11.131732  5695 net.cpp:139] Memory required for data: 675852000
I0504 15:06:11.131736  5695 layer_factory.hpp:77] Creating layer pool1
I0504 15:06:11.131742  5695 net.cpp:86] Creating Layer pool1
I0504 15:06:11.131747  5695 net.cpp:408] pool1 <- Sigmoid1
I0504 15:06:11.131750  5695 net.cpp:382] pool1 -> pool1
I0504 15:06:11.132503  5695 net.cpp:124] Setting up pool1
I0504 15:06:11.132515  5695 net.cpp:131] Top shape: 1000 216 8 8 (13824000)
I0504 15:06:11.132534  5695 net.cpp:139] Memory required for data: 731148000
I0504 15:06:11.132537  5695 layer_factory.hpp:77] Creating layer ip1
I0504 15:06:11.132562  5695 net.cpp:86] Creating Layer ip1
I0504 15:06:11.132566  5695 net.cpp:408] ip1 <- pool1
I0504 15:06:11.132572  5695 net.cpp:382] ip1 -> ip1
I0504 15:06:11.198576  5695 net.cpp:124] Setting up ip1
I0504 15:06:11.198614  5695 net.cpp:131] Top shape: 1000 180 (180000)
I0504 15:06:11.198618  5695 net.cpp:139] Memory required for data: 731868000
I0504 15:06:11.198629  5695 layer_factory.hpp:77] Creating layer relu1
I0504 15:06:11.198642  5695 net.cpp:86] Creating Layer relu1
I0504 15:06:11.198645  5695 net.cpp:408] relu1 <- ip1
I0504 15:06:11.198650  5695 net.cpp:369] relu1 -> ip1 (in-place)
I0504 15:06:11.198906  5695 net.cpp:124] Setting up relu1
I0504 15:06:11.198916  5695 net.cpp:131] Top shape: 1000 180 (180000)
I0504 15:06:11.198920  5695 net.cpp:139] Memory required for data: 732588000
I0504 15:06:11.198922  5695 layer_factory.hpp:77] Creating layer ip2
I0504 15:06:11.198932  5695 net.cpp:86] Creating Layer ip2
I0504 15:06:11.198935  5695 net.cpp:408] ip2 <- ip1
I0504 15:06:11.198941  5695 net.cpp:382] ip2 -> ip2
I0504 15:06:11.199110  5695 net.cpp:124] Setting up ip2
I0504 15:06:11.199117  5695 net.cpp:131] Top shape: 1000 10 (10000)
I0504 15:06:11.199120  5695 net.cpp:139] Memory required for data: 732628000
I0504 15:06:11.199126  5695 layer_factory.hpp:77] Creating layer relu2
I0504 15:06:11.199131  5695 net.cpp:86] Creating Layer relu2
I0504 15:06:11.199134  5695 net.cpp:408] relu2 <- ip2
I0504 15:06:11.199138  5695 net.cpp:369] relu2 -> ip2 (in-place)
I0504 15:06:11.199300  5695 net.cpp:124] Setting up relu2
I0504 15:06:11.199309  5695 net.cpp:131] Top shape: 1000 10 (10000)
I0504 15:06:11.199312  5695 net.cpp:139] Memory required for data: 732668000
I0504 15:06:11.199316  5695 layer_factory.hpp:77] Creating layer ip3
I0504 15:06:11.199321  5695 net.cpp:86] Creating Layer ip3
I0504 15:06:11.199324  5695 net.cpp:408] ip3 <- ip2
I0504 15:06:11.199331  5695 net.cpp:382] ip3 -> ip3
I0504 15:06:11.199441  5695 net.cpp:124] Setting up ip3
I0504 15:06:11.199461  5695 net.cpp:131] Top shape: 1000 10 (10000)
I0504 15:06:11.199465  5695 net.cpp:139] Memory required for data: 732708000
I0504 15:06:11.199472  5695 layer_factory.hpp:77] Creating layer ip3_ip3_0_split
I0504 15:06:11.199478  5695 net.cpp:86] Creating Layer ip3_ip3_0_split
I0504 15:06:11.199481  5695 net.cpp:408] ip3_ip3_0_split <- ip3
I0504 15:06:11.199486  5695 net.cpp:382] ip3_ip3_0_split -> ip3_ip3_0_split_0
I0504 15:06:11.199492  5695 net.cpp:382] ip3_ip3_0_split -> ip3_ip3_0_split_1
I0504 15:06:11.199527  5695 net.cpp:124] Setting up ip3_ip3_0_split
I0504 15:06:11.199534  5695 net.cpp:131] Top shape: 1000 10 (10000)
I0504 15:06:11.199537  5695 net.cpp:131] Top shape: 1000 10 (10000)
I0504 15:06:11.199540  5695 net.cpp:139] Memory required for data: 732788000
I0504 15:06:11.199543  5695 layer_factory.hpp:77] Creating layer accuracy
I0504 15:06:11.199549  5695 net.cpp:86] Creating Layer accuracy
I0504 15:06:11.199553  5695 net.cpp:408] accuracy <- ip3_ip3_0_split_0
I0504 15:06:11.199556  5695 net.cpp:408] accuracy <- label_cifar_1_split_0
I0504 15:06:11.199560  5695 net.cpp:382] accuracy -> accuracy
…
