…
I0504 08:35:40.361459 22120 net.cpp:296] The NetState phase (0) differed from the phase (1) specified by a rule in layer cifar
I0504 08:35:40.361477 22120 net.cpp:296] The NetState phase (0) differed from the phase (1) specified by a rule in layer accuracy
I0504 08:35:40.361588 22120 net.cpp:53] Initializing net from parameters: 
name: "CIFAR"
state {
  phase: TRAIN
  level: 0
  stage: ""
}
layer {
  name: "cifar"
  type: "Data"
  top: "data"
  top: "label"
  include {
    phase: TRAIN
  }
  transform_param {
    mean_file: "examples/cifar10/mean.binaryproto"
  }
  data_param {
    source: "examples/cifar10/cifar10_train_lmdb"
    batch_size: 111
    backend: LMDB
  }
}
layer {
  name: "conv0"
  type: "Convolution"
  bottom: "data"
  top: "conv0"
  param {
    lr_mult: 1
  }
  param {
    lr_mult: 2
  }
  convolution_param {
    num_output: 24
    pad: 2
    kernel_size: 5
    stride: 1
    weight_filler {
      type: "gaussian"
      std: 0.01
    }
    bias_filler {
      type: "constant"
    }
  }
}
layer {
  name: "Sigmoid0"
  type: "Sigmoid"
  bottom: "conv0"
  top: "Sigmoid0"
}
layer {
  name: "pool0"
  type: "Pooling"
  bottom: "Sigmoid0"
  top: "pool0"
  pooling_param {
    pool: AVE
    kernel_size: 3
    stride: 2
  }
}
layer {
  name: "conv1"
  type: "Convolution"
  bottom: "pool0"
  top: "conv1"
  param {
    lr_mult: 1
  }
  param {
    lr_mult: 2
  }
  convolution_param {
    num_output: 24
    pad: 2
    kernel_size: 5
    stride: 1
    weight_filler {
      type: "gaussian"
      std: 0.01
    }
    bias_filler {
      type: "constant"
    }
  }
}
layer {
  name: "Sigmoid1"
  type: "Sigmoid"
  bottom: "conv1"
  top: "Sigmoid1"
}
layer {
  name: "pool1"
  type: "Pooling"
  bottom: "Sigmoid1"
  top: "pool1"
  pooling_param {
    pool: AVE
    kernel_size: 3
    stride: 2
  }
}
layer {
  name: "ip1"
  type: "InnerProduct"
  bottom: "pool1"
  top: "ip1"
  param {
    lr_mult: 1
  }
  param {
    lr_mult: 2
  }
  inner_product_param {
    num_output: 180
    weight_filler {
      type: "gaussian"
      std: 0.01
    }
    bias_filler {
      type: "constant"
    }
  }
}
layer {
  name: "relu1"
  type: "ReLU"
  bottom: "ip1"
  top: "ip1"
}
layer {
  name: "ip2"
  type: "InnerProduct"
  bottom: "ip1"
  top: "ip2"
  param {
    lr_mult: 1
  }
  param {
    lr_mult: 2
  }
  inner_product_param {
    num_output: 10
    weight_filler {
      type: "gaussian"
      std: 0.01
    }
    bias_filler {
      type: "constant"
    }
  }
}
layer {
  name: "relu2"
  type: "ReLU"
  bottom: "ip2"
  top: "ip2"
}
layer {
  name: "ip3"
  type: "InnerProduct"
  bottom: "ip2"
  top: "ip3"
  param {
    lr_mult: 1
  }
  param {
    lr_mult: 2
  }
  inner_product_param {
    num_output: 10
    weight_filler {
      type: "gaussian"
      std: 0.01
    }
    bias_filler {
      type: "constant"
    }
  }
}
layer {
  name: "loss"
  type: "SoftmaxWithLoss"
  bottom: "ip3"
  bottom: "label"
  top: "loss"
}
I0504 08:35:40.361671 22120 layer_factory.hpp:77] Creating layer cifar
I0504 08:35:40.361769 22120 db_lmdb.cpp:35] Opened lmdb examples/cifar10/cifar10_train_lmdb
I0504 08:35:40.361802 22120 net.cpp:86] Creating Layer cifar
I0504 08:35:40.361812 22120 net.cpp:382] cifar -> data
I0504 08:35:40.361835 22120 net.cpp:382] cifar -> label
I0504 08:35:40.361848 22120 data_transformer.cpp:25] Loading mean file from: examples/cifar10/mean.binaryproto
I0504 08:35:40.364009 22120 data_layer.cpp:45] output data size: 111,3,32,32
I0504 08:35:40.371997 22120 net.cpp:124] Setting up cifar
I0504 08:35:40.372015 22120 net.cpp:131] Top shape: 111 3 32 32 (340992)
I0504 08:35:40.372023 22120 net.cpp:131] Top shape: 111 (111)
I0504 08:35:40.372027 22120 net.cpp:139] Memory required for data: 1364412
I0504 08:35:40.372035 22120 layer_factory.hpp:77] Creating layer conv0
I0504 08:35:40.372051 22120 net.cpp:86] Creating Layer conv0
I0504 08:35:40.372056 22120 net.cpp:408] conv0 <- data
I0504 08:35:40.372069 22120 net.cpp:382] conv0 -> conv0
I0504 08:35:40.656946 22120 net.cpp:124] Setting up conv0
I0504 08:35:40.656975 22120 net.cpp:131] Top shape: 111 24 32 32 (2727936)
I0504 08:35:40.656980 22120 net.cpp:139] Memory required for data: 12276156
I0504 08:35:40.656993 22120 layer_factory.hpp:77] Creating layer Sigmoid0
I0504 08:35:40.657006 22120 net.cpp:86] Creating Layer Sigmoid0
I0504 08:35:40.657009 22120 net.cpp:408] Sigmoid0 <- conv0
I0504 08:35:40.657016 22120 net.cpp:382] Sigmoid0 -> Sigmoid0
I0504 08:35:40.657253 22120 net.cpp:124] Setting up Sigmoid0
I0504 08:35:40.657263 22120 net.cpp:131] Top shape: 111 24 32 32 (2727936)
I0504 08:35:40.657265 22120 net.cpp:139] Memory required for data: 23187900
I0504 08:35:40.657269 22120 layer_factory.hpp:77] Creating layer pool0
I0504 08:35:40.657276 22120 net.cpp:86] Creating Layer pool0
I0504 08:35:40.657279 22120 net.cpp:408] pool0 <- Sigmoid0
I0504 08:35:40.657284 22120 net.cpp:382] pool0 -> pool0
I0504 08:35:40.658022 22120 net.cpp:124] Setting up pool0
I0504 08:35:40.658035 22120 net.cpp:131] Top shape: 111 24 16 16 (681984)
I0504 08:35:40.658038 22120 net.cpp:139] Memory required for data: 25915836
I0504 08:35:40.658042 22120 layer_factory.hpp:77] Creating layer conv1
I0504 08:35:40.658054 22120 net.cpp:86] Creating Layer conv1
I0504 08:35:40.658057 22120 net.cpp:408] conv1 <- pool0
I0504 08:35:40.658063 22120 net.cpp:382] conv1 -> conv1
I0504 08:35:40.661044 22120 net.cpp:124] Setting up conv1
I0504 08:35:40.661058 22120 net.cpp:131] Top shape: 111 24 16 16 (681984)
I0504 08:35:40.661062 22120 net.cpp:139] Memory required for data: 28643772
I0504 08:35:40.661070 22120 layer_factory.hpp:77] Creating layer Sigmoid1
I0504 08:35:40.661077 22120 net.cpp:86] Creating Layer Sigmoid1
I0504 08:35:40.661082 22120 net.cpp:408] Sigmoid1 <- conv1
I0504 08:35:40.661087 22120 net.cpp:382] Sigmoid1 -> Sigmoid1
I0504 08:35:40.661254 22120 net.cpp:124] Setting up Sigmoid1
I0504 08:35:40.661263 22120 net.cpp:131] Top shape: 111 24 16 16 (681984)
I0504 08:35:40.661267 22120 net.cpp:139] Memory required for data: 31371708
I0504 08:35:40.661269 22120 layer_factory.hpp:77] Creating layer pool1
I0504 08:35:40.661275 22120 net.cpp:86] Creating Layer pool1
I0504 08:35:40.661279 22120 net.cpp:408] pool1 <- Sigmoid1
I0504 08:35:40.661283 22120 net.cpp:382] pool1 -> pool1
I0504 08:35:40.661444 22120 net.cpp:124] Setting up pool1
I0504 08:35:40.661453 22120 net.cpp:131] Top shape: 111 24 8 8 (170496)
I0504 08:35:40.661456 22120 net.cpp:139] Memory required for data: 32053692
I0504 08:35:40.661459 22120 layer_factory.hpp:77] Creating layer ip1
I0504 08:35:40.661468 22120 net.cpp:86] Creating Layer ip1
I0504 08:35:40.661470 22120 net.cpp:408] ip1 <- pool1
I0504 08:35:40.661475 22120 net.cpp:382] ip1 -> ip1
I0504 08:35:40.669615 22120 net.cpp:124] Setting up ip1
I0504 08:35:40.669627 22120 net.cpp:131] Top shape: 111 180 (19980)
I0504 08:35:40.669631 22120 net.cpp:139] Memory required for data: 32133612
I0504 08:35:40.669638 22120 layer_factory.hpp:77] Creating layer relu1
I0504 08:35:40.669646 22120 net.cpp:86] Creating Layer relu1
I0504 08:35:40.669649 22120 net.cpp:408] relu1 <- ip1
I0504 08:35:40.669653 22120 net.cpp:369] relu1 -> ip1 (in-place)
I0504 08:35:40.669817 22120 net.cpp:124] Setting up relu1
I0504 08:35:40.669826 22120 net.cpp:131] Top shape: 111 180 (19980)
I0504 08:35:40.669828 22120 net.cpp:139] Memory required for data: 32213532
I0504 08:35:40.669831 22120 layer_factory.hpp:77] Creating layer ip2
I0504 08:35:40.669839 22120 net.cpp:86] Creating Layer ip2
I0504 08:35:40.669842 22120 net.cpp:408] ip2 <- ip1
I0504 08:35:40.669862 22120 net.cpp:382] ip2 -> ip2
I0504 08:35:40.670007 22120 net.cpp:124] Setting up ip2
I0504 08:35:40.670014 22120 net.cpp:131] Top shape: 111 10 (1110)
I0504 08:35:40.670017 22120 net.cpp:139] Memory required for data: 32217972
I0504 08:35:40.670022 22120 layer_factory.hpp:77] Creating layer relu2
I0504 08:35:40.670028 22120 net.cpp:86] Creating Layer relu2
I0504 08:35:40.670032 22120 net.cpp:408] relu2 <- ip2
I0504 08:35:40.670035 22120 net.cpp:369] relu2 -> ip2 (in-place)
I0504 08:35:40.670743 22120 net.cpp:124] Setting up relu2
I0504 08:35:40.670755 22120 net.cpp:131] Top shape: 111 10 (1110)
I0504 08:35:40.670759 22120 net.cpp:139] Memory required for data: 32222412
I0504 08:35:40.670763 22120 layer_factory.hpp:77] Creating layer ip3
I0504 08:35:40.670769 22120 net.cpp:86] Creating Layer ip3
I0504 08:35:40.670773 22120 net.cpp:408] ip3 <- ip2
I0504 08:35:40.670778 22120 net.cpp:382] ip3 -> ip3
I0504 08:35:40.670882 22120 net.cpp:124] Setting up ip3
I0504 08:35:40.670889 22120 net.cpp:131] Top shape: 111 10 (1110)
I0504 08:35:40.670892 22120 net.cpp:139] Memory required for data: 32226852
I0504 08:35:40.670899 22120 layer_factory.hpp:77] Creating layer loss
I0504 08:35:40.670907 22120 net.cpp:86] Creating Layer loss
I0504 08:35:40.670909 22120 net.cpp:408] loss <- ip3
I0504 08:35:40.670912 22120 net.cpp:408] loss <- label
I0504 08:35:40.670919 22120 net.cpp:382] loss -> loss
I0504 08:35:40.670935 22120 layer_factory.hpp:77] Creating layer loss
…
I0504 08:35:40.671583 22120 solver.cpp:173] Creating test net (#0) specified by net file: ECE595/cifar/train_test/var_everything_tiny/cifar_train_test_105.prototxt
I0504 08:35:40.671608 22120 net.cpp:296] The NetState phase (1) differed from the phase (0) specified by a rule in layer cifar
I0504 08:35:40.671705 22120 net.cpp:53] Initializing net from parameters: 
name: "CIFAR"
state {
  phase: TEST
}
layer {
  name: "cifar"
  type: "Data"
  top: "data"
  top: "label"
  include {
    phase: TEST
  }
  transform_param {
    mean_file: "examples/cifar10/mean.binaryproto"
  }
  data_param {
    source: "examples/cifar10/cifar10_test_lmdb"
    batch_size: 1000
    backend: LMDB
  }
}
layer {
  name: "conv0"
  type: "Convolution"
  bottom: "data"
  top: "conv0"
  param {
    lr_mult: 1
  }
  param {
    lr_mult: 2
  }
  convolution_param {
    num_output: 24
    pad: 2
    kernel_size: 5
    stride: 1
    weight_filler {
      type: "gaussian"
      std: 0.01
    }
    bias_filler {
      type: "constant"
    }
  }
}
layer {
  name: "Sigmoid0"
  type: "Sigmoid"
  bottom: "conv0"
  top: "Sigmoid0"
}
layer {
  name: "pool0"
  type: "Pooling"
  bottom: "Sigmoid0"
  top: "pool0"
  pooling_param {
    pool: AVE
    kernel_size: 3
    stride: 2
  }
}
layer {
  name: "conv1"
  type: "Convolution"
  bottom: "pool0"
  top: "conv1"
  param {
    lr_mult: 1
  }
  param {
    lr_mult: 2
  }
  convolution_param {
    num_output: 24
    pad: 2
    kernel_size: 5
    stride: 1
    weight_filler {
      type: "gaussian"
      std: 0.01
    }
    bias_filler {
      type: "constant"
    }
  }
}
layer {
  name: "Sigmoid1"
  type: "Sigmoid"
  bottom: "conv1"
  top: "Sigmoid1"
}
layer {
  name: "pool1"
  type: "Pooling"
  bottom: "Sigmoid1"
  top: "pool1"
  pooling_param {
    pool: AVE
    kernel_size: 3
    stride: 2
  }
}
layer {
  name: "ip1"
  type: "InnerProduct"
  bottom: "pool1"
  top: "ip1"
  param {
    lr_mult: 1
  }
  param {
    lr_mult: 2
  }
  inner_product_param {
    num_output: 180
    weight_filler {
      type: "gaussian"
      std: 0.01
    }
    bias_filler {
      type: "constant"
    }
  }
}
layer {
  name: "relu1"
  type: "ReLU"
  bottom: "ip1"
  top: "ip1"
}
layer {
  name: "ip2"
  type: "InnerProduct"
  bottom: "ip1"
  top: "ip2"
  param {
    lr_mult: 1
  }
  param {
    lr_mult: 2
  }
  inner_product_param {
    num_output: 10
    weight_filler {
      type: "gaussian"
      std: 0.01
    }
    bias_filler {
      type: "constant"
    }
  }
}
layer {
  name: "relu2"
  type: "ReLU"
  bottom: "ip2"
  top: "ip2"
}
layer {
  name: "ip3"
  type: "InnerProduct"
  bottom: "ip2"
  top: "ip3"
  param {
    lr_mult: 1
  }
  param {
    lr_mult: 2
  }
  inner_product_param {
    num_output: 10
    weight_filler {
      type: "gaussian"
      std: 0.01
    }
    bias_filler {
      type: "constant"
    }
  }
}
layer {
  name: "accuracy"
  type: "Accuracy"
  bottom: "ip3"
  bottom: "label"
  top: "accuracy"
  include {
    phase: TEST
  }
}
layer {
  name: "loss"
  type: "SoftmaxWithLoss"
  bottom: "ip3"
  bottom: "label"
  top: "loss"
}
I0504 08:35:40.671788 22120 layer_factory.hpp:77] Creating layer cifar
I0504 08:35:40.671833 22120 db_lmdb.cpp:35] Opened lmdb examples/cifar10/cifar10_test_lmdb
I0504 08:35:40.671844 22120 net.cpp:86] Creating Layer cifar
I0504 08:35:40.671850 22120 net.cpp:382] cifar -> data
I0504 08:35:40.671857 22120 net.cpp:382] cifar -> label
I0504 08:35:40.671864 22120 data_transformer.cpp:25] Loading mean file from: examples/cifar10/mean.binaryproto
I0504 08:35:40.672006 22120 data_layer.cpp:45] output data size: 1000,3,32,32
I0504 08:35:40.693626 22120 net.cpp:124] Setting up cifar
I0504 08:35:40.693668 22120 net.cpp:131] Top shape: 1000 3 32 32 (3072000)
I0504 08:35:40.693675 22120 net.cpp:131] Top shape: 1000 (1000)
I0504 08:35:40.693677 22120 net.cpp:139] Memory required for data: 12292000
I0504 08:35:40.693683 22120 layer_factory.hpp:77] Creating layer label_cifar_1_split
I0504 08:35:40.693714 22120 net.cpp:86] Creating Layer label_cifar_1_split
I0504 08:35:40.693718 22120 net.cpp:408] label_cifar_1_split <- label
I0504 08:35:40.693725 22120 net.cpp:382] label_cifar_1_split -> label_cifar_1_split_0
I0504 08:35:40.693733 22120 net.cpp:382] label_cifar_1_split -> label_cifar_1_split_1
I0504 08:35:40.693833 22120 net.cpp:124] Setting up label_cifar_1_split
I0504 08:35:40.693840 22120 net.cpp:131] Top shape: 1000 (1000)
I0504 08:35:40.693845 22120 net.cpp:131] Top shape: 1000 (1000)
I0504 08:35:40.693846 22120 net.cpp:139] Memory required for data: 12300000
I0504 08:35:40.693850 22120 layer_factory.hpp:77] Creating layer conv0
I0504 08:35:40.693862 22120 net.cpp:86] Creating Layer conv0
I0504 08:35:40.693866 22120 net.cpp:408] conv0 <- data
I0504 08:35:40.693871 22120 net.cpp:382] conv0 -> conv0
I0504 08:35:40.695473 22120 net.cpp:124] Setting up conv0
I0504 08:35:40.695487 22120 net.cpp:131] Top shape: 1000 24 32 32 (24576000)
I0504 08:35:40.695507 22120 net.cpp:139] Memory required for data: 110604000
I0504 08:35:40.695515 22120 layer_factory.hpp:77] Creating layer Sigmoid0
I0504 08:35:40.695521 22120 net.cpp:86] Creating Layer Sigmoid0
I0504 08:35:40.695525 22120 net.cpp:408] Sigmoid0 <- conv0
I0504 08:35:40.695545 22120 net.cpp:382] Sigmoid0 -> Sigmoid0
I0504 08:35:40.696712 22120 net.cpp:124] Setting up Sigmoid0
I0504 08:35:40.696735 22120 net.cpp:131] Top shape: 1000 24 32 32 (24576000)
I0504 08:35:40.696755 22120 net.cpp:139] Memory required for data: 208908000
I0504 08:35:40.696759 22120 layer_factory.hpp:77] Creating layer pool0
I0504 08:35:40.696769 22120 net.cpp:86] Creating Layer pool0
I0504 08:35:40.696787 22120 net.cpp:408] pool0 <- Sigmoid0
I0504 08:35:40.696791 22120 net.cpp:382] pool0 -> pool0
I0504 08:35:40.697021 22120 net.cpp:124] Setting up pool0
I0504 08:35:40.697031 22120 net.cpp:131] Top shape: 1000 24 16 16 (6144000)
I0504 08:35:40.697033 22120 net.cpp:139] Memory required for data: 233484000
I0504 08:35:40.697036 22120 layer_factory.hpp:77] Creating layer conv1
I0504 08:35:40.697048 22120 net.cpp:86] Creating Layer conv1
I0504 08:35:40.697052 22120 net.cpp:408] conv1 <- pool0
I0504 08:35:40.697057 22120 net.cpp:382] conv1 -> conv1
I0504 08:35:40.698738 22120 net.cpp:124] Setting up conv1
I0504 08:35:40.698751 22120 net.cpp:131] Top shape: 1000 24 16 16 (6144000)
I0504 08:35:40.698771 22120 net.cpp:139] Memory required for data: 258060000
I0504 08:35:40.698781 22120 layer_factory.hpp:77] Creating layer Sigmoid1
I0504 08:35:40.698787 22120 net.cpp:86] Creating Layer Sigmoid1
I0504 08:35:40.698791 22120 net.cpp:408] Sigmoid1 <- conv1
I0504 08:35:40.698810 22120 net.cpp:382] Sigmoid1 -> Sigmoid1
I0504 08:35:40.698997 22120 net.cpp:124] Setting up Sigmoid1
I0504 08:35:40.699005 22120 net.cpp:131] Top shape: 1000 24 16 16 (6144000)
I0504 08:35:40.699008 22120 net.cpp:139] Memory required for data: 282636000
I0504 08:35:40.699012 22120 layer_factory.hpp:77] Creating layer pool1
I0504 08:35:40.699018 22120 net.cpp:86] Creating Layer pool1
I0504 08:35:40.699020 22120 net.cpp:408] pool1 <- Sigmoid1
I0504 08:35:40.699026 22120 net.cpp:382] pool1 -> pool1
I0504 08:35:40.699776 22120 net.cpp:124] Setting up pool1
I0504 08:35:40.699787 22120 net.cpp:131] Top shape: 1000 24 8 8 (1536000)
I0504 08:35:40.699807 22120 net.cpp:139] Memory required for data: 288780000
I0504 08:35:40.699810 22120 layer_factory.hpp:77] Creating layer ip1
I0504 08:35:40.699821 22120 net.cpp:86] Creating Layer ip1
I0504 08:35:40.699826 22120 net.cpp:408] ip1 <- pool1
I0504 08:35:40.699847 22120 net.cpp:382] ip1 -> ip1
I0504 08:35:40.708261 22120 net.cpp:124] Setting up ip1
I0504 08:35:40.708274 22120 net.cpp:131] Top shape: 1000 180 (180000)
I0504 08:35:40.708294 22120 net.cpp:139] Memory required for data: 289500000
I0504 08:35:40.708302 22120 layer_factory.hpp:77] Creating layer relu1
I0504 08:35:40.708310 22120 net.cpp:86] Creating Layer relu1
I0504 08:35:40.708314 22120 net.cpp:408] relu1 <- ip1
I0504 08:35:40.708335 22120 net.cpp:369] relu1 -> ip1 (in-place)
I0504 08:35:40.708514 22120 net.cpp:124] Setting up relu1
I0504 08:35:40.708523 22120 net.cpp:131] Top shape: 1000 180 (180000)
I0504 08:35:40.708526 22120 net.cpp:139] Memory required for data: 290220000
I0504 08:35:40.708529 22120 layer_factory.hpp:77] Creating layer ip2
I0504 08:35:40.708537 22120 net.cpp:86] Creating Layer ip2
I0504 08:35:40.708541 22120 net.cpp:408] ip2 <- ip1
I0504 08:35:40.708546 22120 net.cpp:382] ip2 -> ip2
I0504 08:35:40.708729 22120 net.cpp:124] Setting up ip2
I0504 08:35:40.708737 22120 net.cpp:131] Top shape: 1000 10 (10000)
I0504 08:35:40.708740 22120 net.cpp:139] Memory required for data: 290260000
I0504 08:35:40.708745 22120 layer_factory.hpp:77] Creating layer relu2
I0504 08:35:40.708751 22120 net.cpp:86] Creating Layer relu2
I0504 08:35:40.708755 22120 net.cpp:408] relu2 <- ip2
I0504 08:35:40.708760 22120 net.cpp:369] relu2 -> ip2 (in-place)
I0504 08:35:40.708938 22120 net.cpp:124] Setting up relu2
I0504 08:35:40.708956 22120 net.cpp:131] Top shape: 1000 10 (10000)
I0504 08:35:40.708959 22120 net.cpp:139] Memory required for data: 290300000
I0504 08:35:40.708962 22120 layer_factory.hpp:77] Creating layer ip3
I0504 08:35:40.708971 22120 net.cpp:86] Creating Layer ip3
I0504 08:35:40.708973 22120 net.cpp:408] ip3 <- ip2
I0504 08:35:40.708981 22120 net.cpp:382] ip3 -> ip3
I0504 08:35:40.709110 22120 net.cpp:124] Setting up ip3
I0504 08:35:40.709117 22120 net.cpp:131] Top shape: 1000 10 (10000)
I0504 08:35:40.709130 22120 net.cpp:139] Memory required for data: 290340000
I0504 08:35:40.709138 22120 layer_factory.hpp:77] Creating layer ip3_ip3_0_split
I0504 08:35:40.709144 22120 net.cpp:86] Creating Layer ip3_ip3_0_split
I0504 08:35:40.709147 22120 net.cpp:408] ip3_ip3_0_split <- ip3
I0504 08:35:40.709153 22120 net.cpp:382] ip3_ip3_0_split -> ip3_ip3_0_split_0
I0504 08:35:40.709159 22120 net.cpp:382] ip3_ip3_0_split -> ip3_ip3_0_split_1
I0504 08:35:40.709193 22120 net.cpp:124] Setting up ip3_ip3_0_split
I0504 08:35:40.709199 22120 net.cpp:131] Top shape: 1000 10 (10000)
I0504 08:35:40.709203 22120 net.cpp:131] Top shape: 1000 10 (10000)
I0504 08:35:40.709206 22120 net.cpp:139] Memory required for data: 290420000
I0504 08:35:40.709209 22120 layer_factory.hpp:77] Creating layer accuracy
I0504 08:35:40.709215 22120 net.cpp:86] Creating Layer accuracy
I0504 08:35:40.709219 22120 net.cpp:408] accuracy <- ip3_ip3_0_split_0
I0504 08:35:40.709223 22120 net.cpp:408] accuracy <- label_cifar_1_split_0
I0504 08:35:40.709228 22120 net.cpp:382] accuracy -> accuracy
…
