…
I0504 00:25:41.626766  5329 net.cpp:296] The NetState phase (0) differed from the phase (1) specified by a rule in layer cifar
I0504 00:25:41.626782  5329 net.cpp:296] The NetState phase (0) differed from the phase (1) specified by a rule in layer accuracy
I0504 00:25:41.626863  5329 net.cpp:53] Initializing net from parameters: 
name: "CIFAR"
state {
  phase: TRAIN
  level: 0
  stage: ""
}
layer {
  name: "cifar"
  type: "Data"
  top: "data"
  top: "label"
  include {
    phase: TRAIN
  }
  transform_param {
    mean_file: "examples/cifar10/mean.binaryproto"
  }
  data_param {
    source: "examples/cifar10/cifar10_train_lmdb"
    batch_size: 111
    backend: LMDB
  }
}
layer {
  name: "conv0"
  type: "Convolution"
  bottom: "data"
  top: "conv0"
  param {
    lr_mult: 1
  }
  param {
    lr_mult: 2
  }
  convolution_param {
    num_output: 24
    pad: 2
    kernel_size: 5
    stride: 1
    weight_filler {
      type: "gaussian"
      std: 0.01
    }
    bias_filler {
      type: "constant"
    }
  }
}
layer {
  name: "Sigmoid0"
  type: "Sigmoid"
  bottom: "conv0"
  top: "Sigmoid0"
}
layer {
  name: "pool0"
  type: "Pooling"
  bottom: "Sigmoid0"
  top: "pool0"
  pooling_param {
    pool: AVE
    kernel_size: 3
    stride: 2
  }
}
layer {
  name: "ip1"
  type: "InnerProduct"
  bottom: "pool0"
  top: "ip1"
  param {
    lr_mult: 1
  }
  param {
    lr_mult: 2
  }
  inner_product_param {
    num_output: 60
    weight_filler {
      type: "gaussian"
      std: 0.01
    }
    bias_filler {
      type: "constant"
    }
  }
}
layer {
  name: "relu1"
  type: "ReLU"
  bottom: "ip1"
  top: "ip1"
}
layer {
  name: "ip2"
  type: "InnerProduct"
  bottom: "ip1"
  top: "ip2"
  param {
    lr_mult: 1
  }
  param {
    lr_mult: 2
  }
  inner_product_param {
    num_output: 10
    weight_filler {
      type: "gaussian"
      std: 0.01
    }
    bias_filler {
      type: "constant"
    }
  }
}
layer {
  name: "relu2"
  type: "ReLU"
  bottom: "ip2"
  top: "ip2"
}
layer {
  name: "ip3"
  type: "InnerProduct"
  bottom: "ip2"
  top: "ip3"
  param {
    lr_mult: 1
  }
  param {
    lr_mult: 2
  }
  inner_product_param {
    num_output: 10
    weight_filler {
      type: "gaussian"
      std: 0.01
    }
    bias_filler {
      type: "constant"
    }
  }
}
layer {
  name: "loss"
  type: "SoftmaxWithLoss"
  bottom: "ip3"
  bottom: "label"
  top: "loss"
}
I0504 00:25:41.626929  5329 layer_factory.hpp:77] Creating layer cifar
I0504 00:25:41.627020  5329 db_lmdb.cpp:35] Opened lmdb examples/cifar10/cifar10_train_lmdb
I0504 00:25:41.627044  5329 net.cpp:86] Creating Layer cifar
I0504 00:25:41.627050  5329 net.cpp:382] cifar -> data
I0504 00:25:41.627071  5329 net.cpp:382] cifar -> label
I0504 00:25:41.627081  5329 data_transformer.cpp:25] Loading mean file from: examples/cifar10/mean.binaryproto
I0504 00:25:41.628980  5329 data_layer.cpp:45] output data size: 111,3,32,32
I0504 00:25:41.635874  5329 net.cpp:124] Setting up cifar
I0504 00:25:41.635890  5329 net.cpp:131] Top shape: 111 3 32 32 (340992)
I0504 00:25:41.635895  5329 net.cpp:131] Top shape: 111 (111)
I0504 00:25:41.635898  5329 net.cpp:139] Memory required for data: 1364412
I0504 00:25:41.635905  5329 layer_factory.hpp:77] Creating layer conv0
I0504 00:25:41.635922  5329 net.cpp:86] Creating Layer conv0
I0504 00:25:41.635927  5329 net.cpp:408] conv0 <- data
I0504 00:25:41.635937  5329 net.cpp:382] conv0 -> conv0
I0504 00:25:41.871628  5329 net.cpp:124] Setting up conv0
I0504 00:25:41.871687  5329 net.cpp:131] Top shape: 111 24 32 32 (2727936)
I0504 00:25:41.871691  5329 net.cpp:139] Memory required for data: 12276156
I0504 00:25:41.871706  5329 layer_factory.hpp:77] Creating layer Sigmoid0
I0504 00:25:41.871717  5329 net.cpp:86] Creating Layer Sigmoid0
I0504 00:25:41.871721  5329 net.cpp:408] Sigmoid0 <- conv0
I0504 00:25:41.871742  5329 net.cpp:382] Sigmoid0 -> Sigmoid0
I0504 00:25:41.871909  5329 net.cpp:124] Setting up Sigmoid0
I0504 00:25:41.871919  5329 net.cpp:131] Top shape: 111 24 32 32 (2727936)
I0504 00:25:41.871922  5329 net.cpp:139] Memory required for data: 23187900
I0504 00:25:41.871925  5329 layer_factory.hpp:77] Creating layer pool0
I0504 00:25:41.871932  5329 net.cpp:86] Creating Layer pool0
I0504 00:25:41.871934  5329 net.cpp:408] pool0 <- Sigmoid0
I0504 00:25:41.871939  5329 net.cpp:382] pool0 -> pool0
I0504 00:25:41.872719  5329 net.cpp:124] Setting up pool0
I0504 00:25:41.872746  5329 net.cpp:131] Top shape: 111 24 16 16 (681984)
I0504 00:25:41.872750  5329 net.cpp:139] Memory required for data: 25915836
I0504 00:25:41.872753  5329 layer_factory.hpp:77] Creating layer ip1
I0504 00:25:41.872761  5329 net.cpp:86] Creating Layer ip1
I0504 00:25:41.872766  5329 net.cpp:408] ip1 <- pool0
I0504 00:25:41.872771  5329 net.cpp:382] ip1 -> ip1
I0504 00:25:41.883312  5329 net.cpp:124] Setting up ip1
I0504 00:25:41.883340  5329 net.cpp:131] Top shape: 111 60 (6660)
I0504 00:25:41.883359  5329 net.cpp:139] Memory required for data: 25942476
I0504 00:25:41.883368  5329 layer_factory.hpp:77] Creating layer relu1
I0504 00:25:41.883388  5329 net.cpp:86] Creating Layer relu1
I0504 00:25:41.883393  5329 net.cpp:408] relu1 <- ip1
I0504 00:25:41.883396  5329 net.cpp:369] relu1 -> ip1 (in-place)
I0504 00:25:41.883548  5329 net.cpp:124] Setting up relu1
I0504 00:25:41.883556  5329 net.cpp:131] Top shape: 111 60 (6660)
I0504 00:25:41.883559  5329 net.cpp:139] Memory required for data: 25969116
I0504 00:25:41.883563  5329 layer_factory.hpp:77] Creating layer ip2
I0504 00:25:41.883569  5329 net.cpp:86] Creating Layer ip2
I0504 00:25:41.883571  5329 net.cpp:408] ip2 <- ip1
I0504 00:25:41.883576  5329 net.cpp:382] ip2 -> ip2
I0504 00:25:41.883693  5329 net.cpp:124] Setting up ip2
I0504 00:25:41.883700  5329 net.cpp:131] Top shape: 111 10 (1110)
I0504 00:25:41.883702  5329 net.cpp:139] Memory required for data: 25973556
I0504 00:25:41.883709  5329 layer_factory.hpp:77] Creating layer relu2
I0504 00:25:41.883714  5329 net.cpp:86] Creating Layer relu2
I0504 00:25:41.883718  5329 net.cpp:408] relu2 <- ip2
I0504 00:25:41.883721  5329 net.cpp:369] relu2 -> ip2 (in-place)
I0504 00:25:41.883863  5329 net.cpp:124] Setting up relu2
I0504 00:25:41.883872  5329 net.cpp:131] Top shape: 111 10 (1110)
I0504 00:25:41.883873  5329 net.cpp:139] Memory required for data: 25977996
I0504 00:25:41.883877  5329 layer_factory.hpp:77] Creating layer ip3
I0504 00:25:41.883883  5329 net.cpp:86] Creating Layer ip3
I0504 00:25:41.883886  5329 net.cpp:408] ip3 <- ip2
I0504 00:25:41.883891  5329 net.cpp:382] ip3 -> ip3
I0504 00:25:41.883978  5329 net.cpp:124] Setting up ip3
I0504 00:25:41.883985  5329 net.cpp:131] Top shape: 111 10 (1110)
I0504 00:25:41.883987  5329 net.cpp:139] Memory required for data: 25982436
I0504 00:25:41.883992  5329 layer_factory.hpp:77] Creating layer loss
I0504 00:25:41.883996  5329 net.cpp:86] Creating Layer loss
I0504 00:25:41.883999  5329 net.cpp:408] loss <- ip3
I0504 00:25:41.884003  5329 net.cpp:408] loss <- label
I0504 00:25:41.884008  5329 net.cpp:382] loss -> loss
I0504 00:25:41.884026  5329 layer_factory.hpp:77] Creating layer loss
…
I0504 00:25:41.884630  5329 solver.cpp:173] Creating test net (#0) specified by net file: ECE595/cifar/train_test/var_everything_tiny/cifar_train_test_18.prototxt
I0504 00:25:41.884655  5329 net.cpp:296] The NetState phase (1) differed from the phase (0) specified by a rule in layer cifar
I0504 00:25:41.884737  5329 net.cpp:53] Initializing net from parameters: 
name: "CIFAR"
state {
  phase: TEST
}
layer {
  name: "cifar"
  type: "Data"
  top: "data"
  top: "label"
  include {
    phase: TEST
  }
  transform_param {
    mean_file: "examples/cifar10/mean.binaryproto"
  }
  data_param {
    source: "examples/cifar10/cifar10_test_lmdb"
    batch_size: 1000
    backend: LMDB
  }
}
layer {
  name: "conv0"
  type: "Convolution"
  bottom: "data"
  top: "conv0"
  param {
    lr_mult: 1
  }
  param {
    lr_mult: 2
  }
  convolution_param {
    num_output: 24
    pad: 2
    kernel_size: 5
    stride: 1
    weight_filler {
      type: "gaussian"
      std: 0.01
    }
    bias_filler {
      type: "constant"
    }
  }
}
layer {
  name: "Sigmoid0"
  type: "Sigmoid"
  bottom: "conv0"
  top: "Sigmoid0"
}
layer {
  name: "pool0"
  type: "Pooling"
  bottom: "Sigmoid0"
  top: "pool0"
  pooling_param {
    pool: AVE
    kernel_size: 3
    stride: 2
  }
}
layer {
  name: "ip1"
  type: "InnerProduct"
  bottom: "pool0"
  top: "ip1"
  param {
    lr_mult: 1
  }
  param {
    lr_mult: 2
  }
  inner_product_param {
    num_output: 60
    weight_filler {
      type: "gaussian"
      std: 0.01
    }
    bias_filler {
      type: "constant"
    }
  }
}
layer {
  name: "relu1"
  type: "ReLU"
  bottom: "ip1"
  top: "ip1"
}
layer {
  name: "ip2"
  type: "InnerProduct"
  bottom: "ip1"
  top: "ip2"
  param {
    lr_mult: 1
  }
  param {
    lr_mult: 2
  }
  inner_product_param {
    num_output: 10
    weight_filler {
      type: "gaussian"
      std: 0.01
    }
    bias_filler {
      type: "constant"
    }
  }
}
layer {
  name: "relu2"
  type: "ReLU"
  bottom: "ip2"
  top: "ip2"
}
layer {
  name: "ip3"
  type: "InnerProduct"
  bottom: "ip2"
  top: "ip3"
  param {
    lr_mult: 1
  }
  param {
    lr_mult: 2
  }
  inner_product_param {
    num_output: 10
    weight_filler {
      type: "gaussian"
      std: 0.01
    }
    bias_filler {
      type: "constant"
    }
  }
}
layer {
  name: "accuracy"
  type: "Accuracy"
  bottom: "ip3"
  bottom: "label"
  top: "accuracy"
  include {
    phase: TEST
  }
}
layer {
  name: "loss"
  type: "SoftmaxWithLoss"
  bottom: "ip3"
  bottom: "label"
  top: "loss"
}
I0504 00:25:41.884798  5329 layer_factory.hpp:77] Creating layer cifar
I0504 00:25:41.884879  5329 db_lmdb.cpp:35] Opened lmdb examples/cifar10/cifar10_test_lmdb
I0504 00:25:41.884892  5329 net.cpp:86] Creating Layer cifar
I0504 00:25:41.884897  5329 net.cpp:382] cifar -> data
I0504 00:25:41.884920  5329 net.cpp:382] cifar -> label
I0504 00:25:41.884927  5329 data_transformer.cpp:25] Loading mean file from: examples/cifar10/mean.binaryproto
I0504 00:25:41.885078  5329 data_layer.cpp:45] output data size: 1000,3,32,32
I0504 00:25:41.907058  5329 net.cpp:124] Setting up cifar
I0504 00:25:41.907083  5329 net.cpp:131] Top shape: 1000 3 32 32 (3072000)
I0504 00:25:41.907104  5329 net.cpp:131] Top shape: 1000 (1000)
I0504 00:25:41.907106  5329 net.cpp:139] Memory required for data: 12292000
I0504 00:25:41.907112  5329 layer_factory.hpp:77] Creating layer label_cifar_1_split
I0504 00:25:41.907124  5329 net.cpp:86] Creating Layer label_cifar_1_split
I0504 00:25:41.907177  5329 net.cpp:408] label_cifar_1_split <- label
I0504 00:25:41.907183  5329 net.cpp:382] label_cifar_1_split -> label_cifar_1_split_0
I0504 00:25:41.907192  5329 net.cpp:382] label_cifar_1_split -> label_cifar_1_split_1
I0504 00:25:41.907261  5329 net.cpp:124] Setting up label_cifar_1_split
I0504 00:25:41.907270  5329 net.cpp:131] Top shape: 1000 (1000)
I0504 00:25:41.907274  5329 net.cpp:131] Top shape: 1000 (1000)
I0504 00:25:41.907277  5329 net.cpp:139] Memory required for data: 12300000
I0504 00:25:41.907280  5329 layer_factory.hpp:77] Creating layer conv0
I0504 00:25:41.907308  5329 net.cpp:86] Creating Layer conv0
I0504 00:25:41.907312  5329 net.cpp:408] conv0 <- data
I0504 00:25:41.907317  5329 net.cpp:382] conv0 -> conv0
I0504 00:25:41.908980  5329 net.cpp:124] Setting up conv0
I0504 00:25:41.908994  5329 net.cpp:131] Top shape: 1000 24 32 32 (24576000)
I0504 00:25:41.908998  5329 net.cpp:139] Memory required for data: 110604000
I0504 00:25:41.909008  5329 layer_factory.hpp:77] Creating layer Sigmoid0
I0504 00:25:41.909031  5329 net.cpp:86] Creating Layer Sigmoid0
I0504 00:25:41.909035  5329 net.cpp:408] Sigmoid0 <- conv0
I0504 00:25:41.909039  5329 net.cpp:382] Sigmoid0 -> Sigmoid0
I0504 00:25:41.909930  5329 net.cpp:124] Setting up Sigmoid0
I0504 00:25:41.909942  5329 net.cpp:131] Top shape: 1000 24 32 32 (24576000)
I0504 00:25:41.909945  5329 net.cpp:139] Memory required for data: 208908000
I0504 00:25:41.909948  5329 layer_factory.hpp:77] Creating layer pool0
I0504 00:25:41.909956  5329 net.cpp:86] Creating Layer pool0
I0504 00:25:41.909976  5329 net.cpp:408] pool0 <- Sigmoid0
I0504 00:25:41.909981  5329 net.cpp:382] pool0 -> pool0
I0504 00:25:41.911119  5329 net.cpp:124] Setting up pool0
I0504 00:25:41.911130  5329 net.cpp:131] Top shape: 1000 24 16 16 (6144000)
I0504 00:25:41.911134  5329 net.cpp:139] Memory required for data: 233484000
I0504 00:25:41.911137  5329 layer_factory.hpp:77] Creating layer ip1
I0504 00:25:41.911160  5329 net.cpp:86] Creating Layer ip1
I0504 00:25:41.911164  5329 net.cpp:408] ip1 <- pool0
I0504 00:25:41.911170  5329 net.cpp:382] ip1 -> ip1
I0504 00:25:41.921908  5329 net.cpp:124] Setting up ip1
I0504 00:25:41.921922  5329 net.cpp:131] Top shape: 1000 60 (60000)
I0504 00:25:41.921926  5329 net.cpp:139] Memory required for data: 233724000
I0504 00:25:41.921933  5329 layer_factory.hpp:77] Creating layer relu1
I0504 00:25:41.921954  5329 net.cpp:86] Creating Layer relu1
I0504 00:25:41.921957  5329 net.cpp:408] relu1 <- ip1
I0504 00:25:41.921962  5329 net.cpp:369] relu1 -> ip1 (in-place)
I0504 00:25:41.922119  5329 net.cpp:124] Setting up relu1
I0504 00:25:41.922127  5329 net.cpp:131] Top shape: 1000 60 (60000)
I0504 00:25:41.922130  5329 net.cpp:139] Memory required for data: 233964000
I0504 00:25:41.922133  5329 layer_factory.hpp:77] Creating layer ip2
I0504 00:25:41.922139  5329 net.cpp:86] Creating Layer ip2
I0504 00:25:41.922142  5329 net.cpp:408] ip2 <- ip1
I0504 00:25:41.922147  5329 net.cpp:382] ip2 -> ip2
I0504 00:25:41.922264  5329 net.cpp:124] Setting up ip2
I0504 00:25:41.922271  5329 net.cpp:131] Top shape: 1000 10 (10000)
I0504 00:25:41.922274  5329 net.cpp:139] Memory required for data: 234004000
I0504 00:25:41.922282  5329 layer_factory.hpp:77] Creating layer relu2
I0504 00:25:41.922287  5329 net.cpp:86] Creating Layer relu2
I0504 00:25:41.922291  5329 net.cpp:408] relu2 <- ip2
I0504 00:25:41.922294  5329 net.cpp:369] relu2 -> ip2 (in-place)
I0504 00:25:41.922480  5329 net.cpp:124] Setting up relu2
I0504 00:25:41.922488  5329 net.cpp:131] Top shape: 1000 10 (10000)
I0504 00:25:41.922492  5329 net.cpp:139] Memory required for data: 234044000
I0504 00:25:41.922494  5329 layer_factory.hpp:77] Creating layer ip3
I0504 00:25:41.922502  5329 net.cpp:86] Creating Layer ip3
I0504 00:25:41.922504  5329 net.cpp:408] ip3 <- ip2
I0504 00:25:41.922509  5329 net.cpp:382] ip3 -> ip3
I0504 00:25:41.922610  5329 net.cpp:124] Setting up ip3
I0504 00:25:41.922616  5329 net.cpp:131] Top shape: 1000 10 (10000)
I0504 00:25:41.922631  5329 net.cpp:139] Memory required for data: 234084000
I0504 00:25:41.922637  5329 layer_factory.hpp:77] Creating layer ip3_ip3_0_split
I0504 00:25:41.922642  5329 net.cpp:86] Creating Layer ip3_ip3_0_split
I0504 00:25:41.922646  5329 net.cpp:408] ip3_ip3_0_split <- ip3
I0504 00:25:41.922650  5329 net.cpp:382] ip3_ip3_0_split -> ip3_ip3_0_split_0
I0504 00:25:41.922657  5329 net.cpp:382] ip3_ip3_0_split -> ip3_ip3_0_split_1
I0504 00:25:41.922688  5329 net.cpp:124] Setting up ip3_ip3_0_split
I0504 00:25:41.922693  5329 net.cpp:131] Top shape: 1000 10 (10000)
I0504 00:25:41.922695  5329 net.cpp:131] Top shape: 1000 10 (10000)
I0504 00:25:41.922698  5329 net.cpp:139] Memory required for data: 234164000
I0504 00:25:41.922701  5329 layer_factory.hpp:77] Creating layer accuracy
I0504 00:25:41.922706  5329 net.cpp:86] Creating Layer accuracy
I0504 00:25:41.922709  5329 net.cpp:408] accuracy <- ip3_ip3_0_split_0
I0504 00:25:41.922729  5329 net.cpp:408] accuracy <- label_cifar_1_split_0
I0504 00:25:41.922732  5329 net.cpp:382] accuracy -> accuracy
…
