…
I0504 10:30:31.995211 25447 net.cpp:296] The NetState phase (0) differed from the phase (1) specified by a rule in layer cifar
I0504 10:30:31.995241 25447 net.cpp:296] The NetState phase (0) differed from the phase (1) specified by a rule in layer accuracy
I0504 10:30:31.995326 25447 net.cpp:53] Initializing net from parameters: 
name: "CIFAR"
state {
  phase: TRAIN
  level: 0
  stage: ""
}
layer {
  name: "cifar"
  type: "Data"
  top: "data"
  top: "label"
  include {
    phase: TRAIN
  }
  transform_param {
    mean_file: "examples/cifar10/mean.binaryproto"
  }
  data_param {
    source: "examples/cifar10/cifar10_train_lmdb"
    batch_size: 111
    backend: LMDB
  }
}
layer {
  name: "conv0"
  type: "Convolution"
  bottom: "data"
  top: "conv0"
  param {
    lr_mult: 1
  }
  param {
    lr_mult: 2
  }
  convolution_param {
    num_output: 24
    pad: 2
    kernel_size: 5
    stride: 1
    weight_filler {
      type: "gaussian"
      std: 0.01
    }
    bias_filler {
      type: "constant"
    }
  }
}
layer {
  name: "Sigmoid0"
  type: "Sigmoid"
  bottom: "conv0"
  top: "Sigmoid0"
}
layer {
  name: "pool0"
  type: "Pooling"
  bottom: "Sigmoid0"
  top: "pool0"
  pooling_param {
    pool: AVE
    kernel_size: 3
    stride: 2
  }
}
layer {
  name: "conv1"
  type: "Convolution"
  bottom: "pool0"
  top: "conv1"
  param {
    lr_mult: 1
  }
  param {
    lr_mult: 2
  }
  convolution_param {
    num_output: 72
    pad: 2
    kernel_size: 5
    stride: 1
    weight_filler {
      type: "gaussian"
      std: 0.01
    }
    bias_filler {
      type: "constant"
    }
  }
}
layer {
  name: "Sigmoid1"
  type: "Sigmoid"
  bottom: "conv1"
  top: "Sigmoid1"
}
layer {
  name: "pool1"
  type: "Pooling"
  bottom: "Sigmoid1"
  top: "pool1"
  pooling_param {
    pool: AVE
    kernel_size: 3
    stride: 2
  }
}
layer {
  name: "ip1"
  type: "InnerProduct"
  bottom: "pool1"
  top: "ip1"
  param {
    lr_mult: 1
  }
  param {
    lr_mult: 2
  }
  inner_product_param {
    num_output: 10
    weight_filler {
      type: "gaussian"
      std: 0.01
    }
    bias_filler {
      type: "constant"
    }
  }
}
layer {
  name: "relu1"
  type: "ReLU"
  bottom: "ip1"
  top: "ip1"
}
layer {
  name: "ip2"
  type: "InnerProduct"
  bottom: "ip1"
  top: "ip2"
  param {
    lr_mult: 1
  }
  param {
    lr_mult: 2
  }
  inner_product_param {
    num_output: 10
    weight_filler {
      type: "gaussian"
      std: 0.01
    }
    bias_filler {
      type: "constant"
    }
  }
}
layer {
  name: "relu2"
  type: "ReLU"
  bottom: "ip2"
  top: "ip2"
}
layer {
  name: "ip3"
  type: "InnerProduct"
  bottom: "ip2"
  top: "ip3"
  param {
    lr_mult: 1
  }
  param {
    lr_mult: 2
  }
  inner_product_param {
    num_output: 10
    weight_filler {
      type: "gaussian"
      std: 0.01
    }
    bias_filler {
      type: "constant"
    }
  }
}
layer {
  name: "loss"
  type: "SoftmaxWithLoss"
  bottom: "ip3"
  bottom: "label"
  top: "loss"
}
I0504 10:30:31.995388 25447 layer_factory.hpp:77] Creating layer cifar
I0504 10:30:31.995468 25447 db_lmdb.cpp:35] Opened lmdb examples/cifar10/cifar10_train_lmdb
I0504 10:30:31.995491 25447 net.cpp:86] Creating Layer cifar
I0504 10:30:31.995496 25447 net.cpp:382] cifar -> data
I0504 10:30:31.995515 25447 net.cpp:382] cifar -> label
I0504 10:30:31.995528 25447 data_transformer.cpp:25] Loading mean file from: examples/cifar10/mean.binaryproto
I0504 10:30:31.997350 25447 data_layer.cpp:45] output data size: 111,3,32,32
I0504 10:30:32.004129 25447 net.cpp:124] Setting up cifar
I0504 10:30:32.004175 25447 net.cpp:131] Top shape: 111 3 32 32 (340992)
I0504 10:30:32.004181 25447 net.cpp:131] Top shape: 111 (111)
I0504 10:30:32.004184 25447 net.cpp:139] Memory required for data: 1364412
I0504 10:30:32.004190 25447 layer_factory.hpp:77] Creating layer conv0
I0504 10:30:32.004206 25447 net.cpp:86] Creating Layer conv0
I0504 10:30:32.004211 25447 net.cpp:408] conv0 <- data
I0504 10:30:32.004220 25447 net.cpp:382] conv0 -> conv0
I0504 10:30:32.232882 25447 net.cpp:124] Setting up conv0
I0504 10:30:32.232923 25447 net.cpp:131] Top shape: 111 24 32 32 (2727936)
I0504 10:30:32.232928 25447 net.cpp:139] Memory required for data: 12276156
I0504 10:30:32.232942 25447 layer_factory.hpp:77] Creating layer Sigmoid0
I0504 10:30:32.232954 25447 net.cpp:86] Creating Layer Sigmoid0
I0504 10:30:32.232959 25447 net.cpp:408] Sigmoid0 <- conv0
I0504 10:30:32.232964 25447 net.cpp:382] Sigmoid0 -> Sigmoid0
I0504 10:30:32.233160 25447 net.cpp:124] Setting up Sigmoid0
I0504 10:30:32.233170 25447 net.cpp:131] Top shape: 111 24 32 32 (2727936)
I0504 10:30:32.233172 25447 net.cpp:139] Memory required for data: 23187900
I0504 10:30:32.233175 25447 layer_factory.hpp:77] Creating layer pool0
I0504 10:30:32.233182 25447 net.cpp:86] Creating Layer pool0
I0504 10:30:32.233186 25447 net.cpp:408] pool0 <- Sigmoid0
I0504 10:30:32.233191 25447 net.cpp:382] pool0 -> pool0
I0504 10:30:32.233923 25447 net.cpp:124] Setting up pool0
I0504 10:30:32.233934 25447 net.cpp:131] Top shape: 111 24 16 16 (681984)
I0504 10:30:32.233938 25447 net.cpp:139] Memory required for data: 25915836
I0504 10:30:32.233942 25447 layer_factory.hpp:77] Creating layer conv1
I0504 10:30:32.233952 25447 net.cpp:86] Creating Layer conv1
I0504 10:30:32.233955 25447 net.cpp:408] conv1 <- pool0
I0504 10:30:32.233960 25447 net.cpp:382] conv1 -> conv1
I0504 10:30:32.237540 25447 net.cpp:124] Setting up conv1
I0504 10:30:32.237567 25447 net.cpp:131] Top shape: 111 72 16 16 (2045952)
I0504 10:30:32.237571 25447 net.cpp:139] Memory required for data: 34099644
I0504 10:30:32.237579 25447 layer_factory.hpp:77] Creating layer Sigmoid1
I0504 10:30:32.237586 25447 net.cpp:86] Creating Layer Sigmoid1
I0504 10:30:32.237588 25447 net.cpp:408] Sigmoid1 <- conv1
I0504 10:30:32.237593 25447 net.cpp:382] Sigmoid1 -> Sigmoid1
I0504 10:30:32.237800 25447 net.cpp:124] Setting up Sigmoid1
I0504 10:30:32.237809 25447 net.cpp:131] Top shape: 111 72 16 16 (2045952)
I0504 10:30:32.237812 25447 net.cpp:139] Memory required for data: 42283452
I0504 10:30:32.237815 25447 layer_factory.hpp:77] Creating layer pool1
I0504 10:30:32.237820 25447 net.cpp:86] Creating Layer pool1
I0504 10:30:32.237824 25447 net.cpp:408] pool1 <- Sigmoid1
I0504 10:30:32.237828 25447 net.cpp:382] pool1 -> pool1
I0504 10:30:32.237993 25447 net.cpp:124] Setting up pool1
I0504 10:30:32.238000 25447 net.cpp:131] Top shape: 111 72 8 8 (511488)
I0504 10:30:32.238003 25447 net.cpp:139] Memory required for data: 44329404
I0504 10:30:32.238006 25447 layer_factory.hpp:77] Creating layer ip1
I0504 10:30:32.238013 25447 net.cpp:86] Creating Layer ip1
I0504 10:30:32.238016 25447 net.cpp:408] ip1 <- pool1
I0504 10:30:32.238020 25447 net.cpp:382] ip1 -> ip1
I0504 10:30:32.239274 25447 net.cpp:124] Setting up ip1
I0504 10:30:32.239282 25447 net.cpp:131] Top shape: 111 10 (1110)
I0504 10:30:32.239284 25447 net.cpp:139] Memory required for data: 44333844
I0504 10:30:32.239291 25447 layer_factory.hpp:77] Creating layer relu1
I0504 10:30:32.239296 25447 net.cpp:86] Creating Layer relu1
I0504 10:30:32.239300 25447 net.cpp:408] relu1 <- ip1
I0504 10:30:32.239303 25447 net.cpp:369] relu1 -> ip1 (in-place)
I0504 10:30:32.239452 25447 net.cpp:124] Setting up relu1
I0504 10:30:32.239460 25447 net.cpp:131] Top shape: 111 10 (1110)
I0504 10:30:32.239464 25447 net.cpp:139] Memory required for data: 44338284
I0504 10:30:32.239465 25447 layer_factory.hpp:77] Creating layer ip2
I0504 10:30:32.239471 25447 net.cpp:86] Creating Layer ip2
I0504 10:30:32.239475 25447 net.cpp:408] ip2 <- ip1
I0504 10:30:32.239492 25447 net.cpp:382] ip2 -> ip2
I0504 10:30:32.239584 25447 net.cpp:124] Setting up ip2
I0504 10:30:32.239591 25447 net.cpp:131] Top shape: 111 10 (1110)
I0504 10:30:32.239594 25447 net.cpp:139] Memory required for data: 44342724
I0504 10:30:32.239599 25447 layer_factory.hpp:77] Creating layer relu2
I0504 10:30:32.239603 25447 net.cpp:86] Creating Layer relu2
I0504 10:30:32.239606 25447 net.cpp:408] relu2 <- ip2
I0504 10:30:32.239610 25447 net.cpp:369] relu2 -> ip2 (in-place)
I0504 10:30:32.240347 25447 net.cpp:124] Setting up relu2
I0504 10:30:32.240358 25447 net.cpp:131] Top shape: 111 10 (1110)
I0504 10:30:32.240361 25447 net.cpp:139] Memory required for data: 44347164
I0504 10:30:32.240365 25447 layer_factory.hpp:77] Creating layer ip3
I0504 10:30:32.240370 25447 net.cpp:86] Creating Layer ip3
I0504 10:30:32.240373 25447 net.cpp:408] ip3 <- ip2
I0504 10:30:32.240378 25447 net.cpp:382] ip3 -> ip3
I0504 10:30:32.240483 25447 net.cpp:124] Setting up ip3
I0504 10:30:32.240490 25447 net.cpp:131] Top shape: 111 10 (1110)
I0504 10:30:32.240494 25447 net.cpp:139] Memory required for data: 44351604
I0504 10:30:32.240501 25447 layer_factory.hpp:77] Creating layer loss
I0504 10:30:32.240506 25447 net.cpp:86] Creating Layer loss
I0504 10:30:32.240509 25447 net.cpp:408] loss <- ip3
I0504 10:30:32.240514 25447 net.cpp:408] loss <- label
I0504 10:30:32.240519 25447 net.cpp:382] loss -> loss
I0504 10:30:32.240535 25447 layer_factory.hpp:77] Creating layer loss
…
I0504 10:30:32.241216 25447 solver.cpp:173] Creating test net (#0) specified by net file: ECE595/cifar/train_test/var_everything_tiny/cifar_train_test_135.prototxt
I0504 10:30:32.241271 25447 net.cpp:296] The NetState phase (1) differed from the phase (0) specified by a rule in layer cifar
I0504 10:30:32.241375 25447 net.cpp:53] Initializing net from parameters: 
name: "CIFAR"
state {
  phase: TEST
}
layer {
  name: "cifar"
  type: "Data"
  top: "data"
  top: "label"
  include {
    phase: TEST
  }
  transform_param {
    mean_file: "examples/cifar10/mean.binaryproto"
  }
  data_param {
    source: "examples/cifar10/cifar10_test_lmdb"
    batch_size: 1000
    backend: LMDB
  }
}
layer {
  name: "conv0"
  type: "Convolution"
  bottom: "data"
  top: "conv0"
  param {
    lr_mult: 1
  }
  param {
    lr_mult: 2
  }
  convolution_param {
    num_output: 24
    pad: 2
    kernel_size: 5
    stride: 1
    weight_filler {
      type: "gaussian"
      std: 0.01
    }
    bias_filler {
      type: "constant"
    }
  }
}
layer {
  name: "Sigmoid0"
  type: "Sigmoid"
  bottom: "conv0"
  top: "Sigmoid0"
}
layer {
  name: "pool0"
  type: "Pooling"
  bottom: "Sigmoid0"
  top: "pool0"
  pooling_param {
    pool: AVE
    kernel_size: 3
    stride: 2
  }
}
layer {
  name: "conv1"
  type: "Convolution"
  bottom: "pool0"
  top: "conv1"
  param {
    lr_mult: 1
  }
  param {
    lr_mult: 2
  }
  convolution_param {
    num_output: 72
    pad: 2
    kernel_size: 5
    stride: 1
    weight_filler {
      type: "gaussian"
      std: 0.01
    }
    bias_filler {
      type: "constant"
    }
  }
}
layer {
  name: "Sigmoid1"
  type: "Sigmoid"
  bottom: "conv1"
  top: "Sigmoid1"
}
layer {
  name: "pool1"
  type: "Pooling"
  bottom: "Sigmoid1"
  top: "pool1"
  pooling_param {
    pool: AVE
    kernel_size: 3
    stride: 2
  }
}
layer {
  name: "ip1"
  type: "InnerProduct"
  bottom: "pool1"
  top: "ip1"
  param {
    lr_mult: 1
  }
  param {
    lr_mult: 2
  }
  inner_product_param {
    num_output: 10
    weight_filler {
      type: "gaussian"
      std: 0.01
    }
    bias_filler {
      type: "constant"
    }
  }
}
layer {
  name: "relu1"
  type: "ReLU"
  bottom: "ip1"
  top: "ip1"
}
layer {
  name: "ip2"
  type: "InnerProduct"
  bottom: "ip1"
  top: "ip2"
  param {
    lr_mult: 1
  }
  param {
    lr_mult: 2
  }
  inner_product_param {
    num_output: 10
    weight_filler {
      type: "gaussian"
      std: 0.01
    }
    bias_filler {
      type: "constant"
    }
  }
}
layer {
  name: "relu2"
  type: "ReLU"
  bottom: "ip2"
  top: "ip2"
}
layer {
  name: "ip3"
  type: "InnerProduct"
  bottom: "ip2"
  top: "ip3"
  param {
    lr_mult: 1
  }
  param {
    lr_mult: 2
  }
  inner_product_param {
    num_output: 10
    weight_filler {
      type: "gaussian"
      std: 0.01
    }
    bias_filler {
      type: "constant"
    }
  }
}
layer {
  name: "accuracy"
  type: "Accuracy"
  bottom: "ip3"
  bottom: "label"
  top: "accuracy"
  include {
    phase: TEST
  }
}
layer {
  name: "loss"
  type: "SoftmaxWithLoss"
  bottom: "ip3"
  bottom: "label"
  top: "loss"
}
I0504 10:30:32.241452 25447 layer_factory.hpp:77] Creating layer cifar
I0504 10:30:32.241497 25447 db_lmdb.cpp:35] Opened lmdb examples/cifar10/cifar10_test_lmdb
I0504 10:30:32.241508 25447 net.cpp:86] Creating Layer cifar
I0504 10:30:32.241513 25447 net.cpp:382] cifar -> data
I0504 10:30:32.241520 25447 net.cpp:382] cifar -> label
I0504 10:30:32.241526 25447 data_transformer.cpp:25] Loading mean file from: examples/cifar10/mean.binaryproto
I0504 10:30:32.241657 25447 data_layer.cpp:45] output data size: 1000,3,32,32
I0504 10:30:32.262974 25447 net.cpp:124] Setting up cifar
I0504 10:30:32.263016 25447 net.cpp:131] Top shape: 1000 3 32 32 (3072000)
I0504 10:30:32.263022 25447 net.cpp:131] Top shape: 1000 (1000)
I0504 10:30:32.263025 25447 net.cpp:139] Memory required for data: 12292000
I0504 10:30:32.263031 25447 layer_factory.hpp:77] Creating layer label_cifar_1_split
I0504 10:30:32.263043 25447 net.cpp:86] Creating Layer label_cifar_1_split
I0504 10:30:32.263047 25447 net.cpp:408] label_cifar_1_split <- label
I0504 10:30:32.263052 25447 net.cpp:382] label_cifar_1_split -> label_cifar_1_split_0
I0504 10:30:32.263077 25447 net.cpp:382] label_cifar_1_split -> label_cifar_1_split_1
I0504 10:30:32.263193 25447 net.cpp:124] Setting up label_cifar_1_split
I0504 10:30:32.263201 25447 net.cpp:131] Top shape: 1000 (1000)
I0504 10:30:32.263206 25447 net.cpp:131] Top shape: 1000 (1000)
I0504 10:30:32.263208 25447 net.cpp:139] Memory required for data: 12300000
I0504 10:30:32.263211 25447 layer_factory.hpp:77] Creating layer conv0
I0504 10:30:32.263223 25447 net.cpp:86] Creating Layer conv0
I0504 10:30:32.263226 25447 net.cpp:408] conv0 <- data
I0504 10:30:32.263231 25447 net.cpp:382] conv0 -> conv0
I0504 10:30:32.264760 25447 net.cpp:124] Setting up conv0
I0504 10:30:32.264786 25447 net.cpp:131] Top shape: 1000 24 32 32 (24576000)
I0504 10:30:32.264791 25447 net.cpp:139] Memory required for data: 110604000
I0504 10:30:32.264801 25447 layer_factory.hpp:77] Creating layer Sigmoid0
I0504 10:30:32.264814 25447 net.cpp:86] Creating Layer Sigmoid0
I0504 10:30:32.264835 25447 net.cpp:408] Sigmoid0 <- conv0
I0504 10:30:32.264839 25447 net.cpp:382] Sigmoid0 -> Sigmoid0
I0504 10:30:32.265990 25447 net.cpp:124] Setting up Sigmoid0
I0504 10:30:32.266010 25447 net.cpp:131] Top shape: 1000 24 32 32 (24576000)
I0504 10:30:32.266029 25447 net.cpp:139] Memory required for data: 208908000
I0504 10:30:32.266032 25447 layer_factory.hpp:77] Creating layer pool0
I0504 10:30:32.266041 25447 net.cpp:86] Creating Layer pool0
I0504 10:30:32.266047 25447 net.cpp:408] pool0 <- Sigmoid0
I0504 10:30:32.266050 25447 net.cpp:382] pool0 -> pool0
I0504 10:30:32.266242 25447 net.cpp:124] Setting up pool0
I0504 10:30:32.266249 25447 net.cpp:131] Top shape: 1000 24 16 16 (6144000)
I0504 10:30:32.266253 25447 net.cpp:139] Memory required for data: 233484000
I0504 10:30:32.266257 25447 layer_factory.hpp:77] Creating layer conv1
I0504 10:30:32.266265 25447 net.cpp:86] Creating Layer conv1
I0504 10:30:32.266268 25447 net.cpp:408] conv1 <- pool0
I0504 10:30:32.266273 25447 net.cpp:382] conv1 -> conv1
I0504 10:30:32.268666 25447 net.cpp:124] Setting up conv1
I0504 10:30:32.268679 25447 net.cpp:131] Top shape: 1000 72 16 16 (18432000)
I0504 10:30:32.268697 25447 net.cpp:139] Memory required for data: 307212000
I0504 10:30:32.268705 25447 layer_factory.hpp:77] Creating layer Sigmoid1
I0504 10:30:32.268712 25447 net.cpp:86] Creating Layer Sigmoid1
I0504 10:30:32.268715 25447 net.cpp:408] Sigmoid1 <- conv1
I0504 10:30:32.268719 25447 net.cpp:382] Sigmoid1 -> Sigmoid1
I0504 10:30:32.268916 25447 net.cpp:124] Setting up Sigmoid1
I0504 10:30:32.268926 25447 net.cpp:131] Top shape: 1000 72 16 16 (18432000)
I0504 10:30:32.268929 25447 net.cpp:139] Memory required for data: 380940000
I0504 10:30:32.268934 25447 layer_factory.hpp:77] Creating layer pool1
I0504 10:30:32.268939 25447 net.cpp:86] Creating Layer pool1
I0504 10:30:32.268942 25447 net.cpp:408] pool1 <- Sigmoid1
I0504 10:30:32.268947 25447 net.cpp:382] pool1 -> pool1
I0504 10:30:32.269707 25447 net.cpp:124] Setting up pool1
I0504 10:30:32.269719 25447 net.cpp:131] Top shape: 1000 72 8 8 (4608000)
I0504 10:30:32.269737 25447 net.cpp:139] Memory required for data: 399372000
I0504 10:30:32.269742 25447 layer_factory.hpp:77] Creating layer ip1
I0504 10:30:32.269764 25447 net.cpp:86] Creating Layer ip1
I0504 10:30:32.269767 25447 net.cpp:408] ip1 <- pool1
I0504 10:30:32.269773 25447 net.cpp:382] ip1 -> ip1
I0504 10:30:32.271194 25447 net.cpp:124] Setting up ip1
I0504 10:30:32.271203 25447 net.cpp:131] Top shape: 1000 10 (10000)
I0504 10:30:32.271220 25447 net.cpp:139] Memory required for data: 399412000
I0504 10:30:32.271227 25447 layer_factory.hpp:77] Creating layer relu1
I0504 10:30:32.271232 25447 net.cpp:86] Creating Layer relu1
I0504 10:30:32.271235 25447 net.cpp:408] relu1 <- ip1
I0504 10:30:32.271240 25447 net.cpp:369] relu1 -> ip1 (in-place)
I0504 10:30:32.271400 25447 net.cpp:124] Setting up relu1
I0504 10:30:32.271409 25447 net.cpp:131] Top shape: 1000 10 (10000)
I0504 10:30:32.271412 25447 net.cpp:139] Memory required for data: 399452000
I0504 10:30:32.271415 25447 layer_factory.hpp:77] Creating layer ip2
I0504 10:30:32.271421 25447 net.cpp:86] Creating Layer ip2
I0504 10:30:32.271425 25447 net.cpp:408] ip2 <- ip1
I0504 10:30:32.271430 25447 net.cpp:382] ip2 -> ip2
I0504 10:30:32.271524 25447 net.cpp:124] Setting up ip2
I0504 10:30:32.271531 25447 net.cpp:131] Top shape: 1000 10 (10000)
I0504 10:30:32.271534 25447 net.cpp:139] Memory required for data: 399492000
I0504 10:30:32.271540 25447 layer_factory.hpp:77] Creating layer relu2
I0504 10:30:32.271545 25447 net.cpp:86] Creating Layer relu2
I0504 10:30:32.271548 25447 net.cpp:408] relu2 <- ip2
I0504 10:30:32.271553 25447 net.cpp:369] relu2 -> ip2 (in-place)
I0504 10:30:32.271713 25447 net.cpp:124] Setting up relu2
I0504 10:30:32.271723 25447 net.cpp:131] Top shape: 1000 10 (10000)
I0504 10:30:32.271725 25447 net.cpp:139] Memory required for data: 399532000
I0504 10:30:32.271728 25447 layer_factory.hpp:77] Creating layer ip3
I0504 10:30:32.271734 25447 net.cpp:86] Creating Layer ip3
I0504 10:30:32.271737 25447 net.cpp:408] ip3 <- ip2
I0504 10:30:32.271742 25447 net.cpp:382] ip3 -> ip3
I0504 10:30:32.271838 25447 net.cpp:124] Setting up ip3
I0504 10:30:32.271845 25447 net.cpp:131] Top shape: 1000 10 (10000)
I0504 10:30:32.271858 25447 net.cpp:139] Memory required for data: 399572000
I0504 10:30:32.271867 25447 layer_factory.hpp:77] Creating layer ip3_ip3_0_split
I0504 10:30:32.271872 25447 net.cpp:86] Creating Layer ip3_ip3_0_split
I0504 10:30:32.271875 25447 net.cpp:408] ip3_ip3_0_split <- ip3
I0504 10:30:32.271879 25447 net.cpp:382] ip3_ip3_0_split -> ip3_ip3_0_split_0
I0504 10:30:32.271885 25447 net.cpp:382] ip3_ip3_0_split -> ip3_ip3_0_split_1
I0504 10:30:32.271931 25447 net.cpp:124] Setting up ip3_ip3_0_split
I0504 10:30:32.271939 25447 net.cpp:131] Top shape: 1000 10 (10000)
I0504 10:30:32.271941 25447 net.cpp:131] Top shape: 1000 10 (10000)
I0504 10:30:32.271944 25447 net.cpp:139] Memory required for data: 399652000
I0504 10:30:32.271947 25447 layer_factory.hpp:77] Creating layer accuracy
I0504 10:30:32.271956 25447 net.cpp:86] Creating Layer accuracy
I0504 10:30:32.271960 25447 net.cpp:408] accuracy <- ip3_ip3_0_split_0
I0504 10:30:32.271965 25447 net.cpp:408] accuracy <- label_cifar_1_split_0
I0504 10:30:32.271968 25447 net.cpp:382] accuracy -> accuracy
…
