…
I0504 08:30:24.445284 21936 net.cpp:296] The NetState phase (0) differed from the phase (1) specified by a rule in layer cifar
I0504 08:30:24.445302 21936 net.cpp:296] The NetState phase (0) differed from the phase (1) specified by a rule in layer accuracy
I0504 08:30:24.445407 21936 net.cpp:53] Initializing net from parameters: 
name: "CIFAR"
state {
  phase: TRAIN
  level: 0
  stage: ""
}
layer {
  name: "cifar"
  type: "Data"
  top: "data"
  top: "label"
  include {
    phase: TRAIN
  }
  transform_param {
    mean_file: "examples/cifar10/mean.binaryproto"
  }
  data_param {
    source: "examples/cifar10/cifar10_train_lmdb"
    batch_size: 111
    backend: LMDB
  }
}
layer {
  name: "conv0"
  type: "Convolution"
  bottom: "data"
  top: "conv0"
  param {
    lr_mult: 1
  }
  param {
    lr_mult: 2
  }
  convolution_param {
    num_output: 24
    pad: 2
    kernel_size: 5
    stride: 1
    weight_filler {
      type: "gaussian"
      std: 0.01
    }
    bias_filler {
      type: "constant"
    }
  }
}
layer {
  name: "Sigmoid0"
  type: "Sigmoid"
  bottom: "conv0"
  top: "Sigmoid0"
}
layer {
  name: "pool0"
  type: "Pooling"
  bottom: "Sigmoid0"
  top: "pool0"
  pooling_param {
    pool: AVE
    kernel_size: 3
    stride: 2
  }
}
layer {
  name: "conv1"
  type: "Convolution"
  bottom: "pool0"
  top: "conv1"
  param {
    lr_mult: 1
  }
  param {
    lr_mult: 2
  }
  convolution_param {
    num_output: 24
    pad: 2
    kernel_size: 5
    stride: 1
    weight_filler {
      type: "gaussian"
      std: 0.01
    }
    bias_filler {
      type: "constant"
    }
  }
}
layer {
  name: "Sigmoid1"
  type: "Sigmoid"
  bottom: "conv1"
  top: "Sigmoid1"
}
layer {
  name: "pool1"
  type: "Pooling"
  bottom: "Sigmoid1"
  top: "pool1"
  pooling_param {
    pool: AVE
    kernel_size: 3
    stride: 2
  }
}
layer {
  name: "ip1"
  type: "InnerProduct"
  bottom: "pool1"
  top: "ip1"
  param {
    lr_mult: 1
  }
  param {
    lr_mult: 2
  }
  inner_product_param {
    num_output: 60
    weight_filler {
      type: "gaussian"
      std: 0.01
    }
    bias_filler {
      type: "constant"
    }
  }
}
layer {
  name: "relu1"
  type: "ReLU"
  bottom: "ip1"
  top: "ip1"
}
layer {
  name: "ip2"
  type: "InnerProduct"
  bottom: "ip1"
  top: "ip2"
  param {
    lr_mult: 1
  }
  param {
    lr_mult: 2
  }
  inner_product_param {
    num_output: 60
    weight_filler {
      type: "gaussian"
      std: 0.01
    }
    bias_filler {
      type: "constant"
    }
  }
}
layer {
  name: "relu2"
  type: "ReLU"
  bottom: "ip2"
  top: "ip2"
}
layer {
  name: "ip3"
  type: "InnerProduct"
  bottom: "ip2"
  top: "ip3"
  param {
    lr_mult: 1
  }
  param {
    lr_mult: 2
  }
  inner_product_param {
    num_output: 10
    weight_filler {
      type: "gaussian"
      std: 0.01
    }
    bias_filler {
      type: "constant"
    }
  }
}
layer {
  name: "loss"
  type: "SoftmaxWithLoss"
  bottom: "ip3"
  bottom: "label"
  top: "loss"
}
I0504 08:30:24.445484 21936 layer_factory.hpp:77] Creating layer cifar
I0504 08:30:24.445585 21936 db_lmdb.cpp:35] Opened lmdb examples/cifar10/cifar10_train_lmdb
I0504 08:30:24.445613 21936 net.cpp:86] Creating Layer cifar
I0504 08:30:24.445623 21936 net.cpp:382] cifar -> data
I0504 08:30:24.445647 21936 net.cpp:382] cifar -> label
I0504 08:30:24.445660 21936 data_transformer.cpp:25] Loading mean file from: examples/cifar10/mean.binaryproto
I0504 08:30:24.447811 21936 data_layer.cpp:45] output data size: 111,3,32,32
I0504 08:30:24.455796 21936 net.cpp:124] Setting up cifar
I0504 08:30:24.455816 21936 net.cpp:131] Top shape: 111 3 32 32 (340992)
I0504 08:30:24.455822 21936 net.cpp:131] Top shape: 111 (111)
I0504 08:30:24.455826 21936 net.cpp:139] Memory required for data: 1364412
I0504 08:30:24.455834 21936 layer_factory.hpp:77] Creating layer conv0
I0504 08:30:24.455852 21936 net.cpp:86] Creating Layer conv0
I0504 08:30:24.455857 21936 net.cpp:408] conv0 <- data
I0504 08:30:24.455869 21936 net.cpp:382] conv0 -> conv0
I0504 08:30:24.744112 21936 net.cpp:124] Setting up conv0
I0504 08:30:24.744140 21936 net.cpp:131] Top shape: 111 24 32 32 (2727936)
I0504 08:30:24.744144 21936 net.cpp:139] Memory required for data: 12276156
I0504 08:30:24.744161 21936 layer_factory.hpp:77] Creating layer Sigmoid0
I0504 08:30:24.744174 21936 net.cpp:86] Creating Layer Sigmoid0
I0504 08:30:24.744179 21936 net.cpp:408] Sigmoid0 <- conv0
I0504 08:30:24.744184 21936 net.cpp:382] Sigmoid0 -> Sigmoid0
I0504 08:30:24.744369 21936 net.cpp:124] Setting up Sigmoid0
I0504 08:30:24.744379 21936 net.cpp:131] Top shape: 111 24 32 32 (2727936)
I0504 08:30:24.744382 21936 net.cpp:139] Memory required for data: 23187900
I0504 08:30:24.744385 21936 layer_factory.hpp:77] Creating layer pool0
I0504 08:30:24.744393 21936 net.cpp:86] Creating Layer pool0
I0504 08:30:24.744396 21936 net.cpp:408] pool0 <- Sigmoid0
I0504 08:30:24.744401 21936 net.cpp:382] pool0 -> pool0
I0504 08:30:24.745218 21936 net.cpp:124] Setting up pool0
I0504 08:30:24.745230 21936 net.cpp:131] Top shape: 111 24 16 16 (681984)
I0504 08:30:24.745234 21936 net.cpp:139] Memory required for data: 25915836
I0504 08:30:24.745239 21936 layer_factory.hpp:77] Creating layer conv1
I0504 08:30:24.745250 21936 net.cpp:86] Creating Layer conv1
I0504 08:30:24.745254 21936 net.cpp:408] conv1 <- pool0
I0504 08:30:24.745260 21936 net.cpp:382] conv1 -> conv1
I0504 08:30:24.748303 21936 net.cpp:124] Setting up conv1
I0504 08:30:24.748317 21936 net.cpp:131] Top shape: 111 24 16 16 (681984)
I0504 08:30:24.748322 21936 net.cpp:139] Memory required for data: 28643772
I0504 08:30:24.748330 21936 layer_factory.hpp:77] Creating layer Sigmoid1
I0504 08:30:24.748337 21936 net.cpp:86] Creating Layer Sigmoid1
I0504 08:30:24.748340 21936 net.cpp:408] Sigmoid1 <- conv1
I0504 08:30:24.748345 21936 net.cpp:382] Sigmoid1 -> Sigmoid1
I0504 08:30:24.748512 21936 net.cpp:124] Setting up Sigmoid1
I0504 08:30:24.748522 21936 net.cpp:131] Top shape: 111 24 16 16 (681984)
I0504 08:30:24.748525 21936 net.cpp:139] Memory required for data: 31371708
I0504 08:30:24.748528 21936 layer_factory.hpp:77] Creating layer pool1
I0504 08:30:24.748534 21936 net.cpp:86] Creating Layer pool1
I0504 08:30:24.748538 21936 net.cpp:408] pool1 <- Sigmoid1
I0504 08:30:24.748543 21936 net.cpp:382] pool1 -> pool1
I0504 08:30:24.748703 21936 net.cpp:124] Setting up pool1
I0504 08:30:24.748711 21936 net.cpp:131] Top shape: 111 24 8 8 (170496)
I0504 08:30:24.748714 21936 net.cpp:139] Memory required for data: 32053692
I0504 08:30:24.748718 21936 layer_factory.hpp:77] Creating layer ip1
I0504 08:30:24.748725 21936 net.cpp:86] Creating Layer ip1
I0504 08:30:24.748731 21936 net.cpp:408] ip1 <- pool1
I0504 08:30:24.748736 21936 net.cpp:382] ip1 -> ip1
I0504 08:30:24.751422 21936 net.cpp:124] Setting up ip1
I0504 08:30:24.751431 21936 net.cpp:131] Top shape: 111 60 (6660)
I0504 08:30:24.751435 21936 net.cpp:139] Memory required for data: 32080332
I0504 08:30:24.751443 21936 layer_factory.hpp:77] Creating layer relu1
I0504 08:30:24.751449 21936 net.cpp:86] Creating Layer relu1
I0504 08:30:24.751452 21936 net.cpp:408] relu1 <- ip1
I0504 08:30:24.751457 21936 net.cpp:369] relu1 -> ip1 (in-place)
I0504 08:30:24.751605 21936 net.cpp:124] Setting up relu1
I0504 08:30:24.751613 21936 net.cpp:131] Top shape: 111 60 (6660)
I0504 08:30:24.751617 21936 net.cpp:139] Memory required for data: 32106972
I0504 08:30:24.751621 21936 layer_factory.hpp:77] Creating layer ip2
I0504 08:30:24.751627 21936 net.cpp:86] Creating Layer ip2
I0504 08:30:24.751631 21936 net.cpp:408] ip2 <- ip1
I0504 08:30:24.751649 21936 net.cpp:382] ip2 -> ip2
I0504 08:30:24.751852 21936 net.cpp:124] Setting up ip2
I0504 08:30:24.751860 21936 net.cpp:131] Top shape: 111 60 (6660)
I0504 08:30:24.751863 21936 net.cpp:139] Memory required for data: 32133612
I0504 08:30:24.751869 21936 layer_factory.hpp:77] Creating layer relu2
I0504 08:30:24.751874 21936 net.cpp:86] Creating Layer relu2
I0504 08:30:24.751878 21936 net.cpp:408] relu2 <- ip2
I0504 08:30:24.751883 21936 net.cpp:369] relu2 -> ip2 (in-place)
I0504 08:30:24.752609 21936 net.cpp:124] Setting up relu2
I0504 08:30:24.752622 21936 net.cpp:131] Top shape: 111 60 (6660)
I0504 08:30:24.752625 21936 net.cpp:139] Memory required for data: 32160252
I0504 08:30:24.752629 21936 layer_factory.hpp:77] Creating layer ip3
I0504 08:30:24.752636 21936 net.cpp:86] Creating Layer ip3
I0504 08:30:24.752640 21936 net.cpp:408] ip3 <- ip2
I0504 08:30:24.752645 21936 net.cpp:382] ip3 -> ip3
I0504 08:30:24.752756 21936 net.cpp:124] Setting up ip3
I0504 08:30:24.752764 21936 net.cpp:131] Top shape: 111 10 (1110)
I0504 08:30:24.752768 21936 net.cpp:139] Memory required for data: 32164692
I0504 08:30:24.752776 21936 layer_factory.hpp:77] Creating layer loss
I0504 08:30:24.752784 21936 net.cpp:86] Creating Layer loss
I0504 08:30:24.752787 21936 net.cpp:408] loss <- ip3
I0504 08:30:24.752791 21936 net.cpp:408] loss <- label
I0504 08:30:24.752796 21936 net.cpp:382] loss -> loss
I0504 08:30:24.752820 21936 layer_factory.hpp:77] Creating layer loss
…
I0504 08:30:24.753485 21936 solver.cpp:173] Creating test net (#0) specified by net file: ECE595/cifar/train_test/var_everything_tiny/cifar_train_test_103.prototxt
I0504 08:30:24.753515 21936 net.cpp:296] The NetState phase (1) differed from the phase (0) specified by a rule in layer cifar
I0504 08:30:24.753613 21936 net.cpp:53] Initializing net from parameters: 
name: "CIFAR"
state {
  phase: TEST
}
layer {
  name: "cifar"
  type: "Data"
  top: "data"
  top: "label"
  include {
    phase: TEST
  }
  transform_param {
    mean_file: "examples/cifar10/mean.binaryproto"
  }
  data_param {
    source: "examples/cifar10/cifar10_test_lmdb"
    batch_size: 1000
    backend: LMDB
  }
}
layer {
  name: "conv0"
  type: "Convolution"
  bottom: "data"
  top: "conv0"
  param {
    lr_mult: 1
  }
  param {
    lr_mult: 2
  }
  convolution_param {
    num_output: 24
    pad: 2
    kernel_size: 5
    stride: 1
    weight_filler {
      type: "gaussian"
      std: 0.01
    }
    bias_filler {
      type: "constant"
    }
  }
}
layer {
  name: "Sigmoid0"
  type: "Sigmoid"
  bottom: "conv0"
  top: "Sigmoid0"
}
layer {
  name: "pool0"
  type: "Pooling"
  bottom: "Sigmoid0"
  top: "pool0"
  pooling_param {
    pool: AVE
    kernel_size: 3
    stride: 2
  }
}
layer {
  name: "conv1"
  type: "Convolution"
  bottom: "pool0"
  top: "conv1"
  param {
    lr_mult: 1
  }
  param {
    lr_mult: 2
  }
  convolution_param {
    num_output: 24
    pad: 2
    kernel_size: 5
    stride: 1
    weight_filler {
      type: "gaussian"
      std: 0.01
    }
    bias_filler {
      type: "constant"
    }
  }
}
layer {
  name: "Sigmoid1"
  type: "Sigmoid"
  bottom: "conv1"
  top: "Sigmoid1"
}
layer {
  name: "pool1"
  type: "Pooling"
  bottom: "Sigmoid1"
  top: "pool1"
  pooling_param {
    pool: AVE
    kernel_size: 3
    stride: 2
  }
}
layer {
  name: "ip1"
  type: "InnerProduct"
  bottom: "pool1"
  top: "ip1"
  param {
    lr_mult: 1
  }
  param {
    lr_mult: 2
  }
  inner_product_param {
    num_output: 60
    weight_filler {
      type: "gaussian"
      std: 0.01
    }
    bias_filler {
      type: "constant"
    }
  }
}
layer {
  name: "relu1"
  type: "ReLU"
  bottom: "ip1"
  top: "ip1"
}
layer {
  name: "ip2"
  type: "InnerProduct"
  bottom: "ip1"
  top: "ip2"
  param {
    lr_mult: 1
  }
  param {
    lr_mult: 2
  }
  inner_product_param {
    num_output: 60
    weight_filler {
      type: "gaussian"
      std: 0.01
    }
    bias_filler {
      type: "constant"
    }
  }
}
layer {
  name: "relu2"
  type: "ReLU"
  bottom: "ip2"
  top: "ip2"
}
layer {
  name: "ip3"
  type: "InnerProduct"
  bottom: "ip2"
  top: "ip3"
  param {
    lr_mult: 1
  }
  param {
    lr_mult: 2
  }
  inner_product_param {
    num_output: 10
    weight_filler {
      type: "gaussian"
      std: 0.01
    }
    bias_filler {
      type: "constant"
    }
  }
}
layer {
  name: "accuracy"
  type: "Accuracy"
  bottom: "ip3"
  bottom: "label"
  top: "accuracy"
  include {
    phase: TEST
  }
}
layer {
  name: "loss"
  type: "SoftmaxWithLoss"
  bottom: "ip3"
  bottom: "label"
  top: "loss"
}
I0504 08:30:24.753697 21936 layer_factory.hpp:77] Creating layer cifar
I0504 08:30:24.753744 21936 db_lmdb.cpp:35] Opened lmdb examples/cifar10/cifar10_test_lmdb
I0504 08:30:24.753760 21936 net.cpp:86] Creating Layer cifar
I0504 08:30:24.753765 21936 net.cpp:382] cifar -> data
I0504 08:30:24.753773 21936 net.cpp:382] cifar -> label
I0504 08:30:24.753780 21936 data_transformer.cpp:25] Loading mean file from: examples/cifar10/mean.binaryproto
I0504 08:30:24.753922 21936 data_layer.cpp:45] output data size: 1000,3,32,32
I0504 08:30:24.776173 21936 net.cpp:124] Setting up cifar
I0504 08:30:24.776199 21936 net.cpp:131] Top shape: 1000 3 32 32 (3072000)
I0504 08:30:24.776206 21936 net.cpp:131] Top shape: 1000 (1000)
I0504 08:30:24.776208 21936 net.cpp:139] Memory required for data: 12292000
I0504 08:30:24.776214 21936 layer_factory.hpp:77] Creating layer label_cifar_1_split
I0504 08:30:24.776232 21936 net.cpp:86] Creating Layer label_cifar_1_split
I0504 08:30:24.776237 21936 net.cpp:408] label_cifar_1_split <- label
I0504 08:30:24.776243 21936 net.cpp:382] label_cifar_1_split -> label_cifar_1_split_0
I0504 08:30:24.776252 21936 net.cpp:382] label_cifar_1_split -> label_cifar_1_split_1
I0504 08:30:24.776376 21936 net.cpp:124] Setting up label_cifar_1_split
I0504 08:30:24.776384 21936 net.cpp:131] Top shape: 1000 (1000)
I0504 08:30:24.776388 21936 net.cpp:131] Top shape: 1000 (1000)
I0504 08:30:24.776391 21936 net.cpp:139] Memory required for data: 12300000
I0504 08:30:24.776394 21936 layer_factory.hpp:77] Creating layer conv0
I0504 08:30:24.776406 21936 net.cpp:86] Creating Layer conv0
I0504 08:30:24.776412 21936 net.cpp:408] conv0 <- data
I0504 08:30:24.776432 21936 net.cpp:382] conv0 -> conv0
I0504 08:30:24.778057 21936 net.cpp:124] Setting up conv0
I0504 08:30:24.778071 21936 net.cpp:131] Top shape: 1000 24 32 32 (24576000)
I0504 08:30:24.778075 21936 net.cpp:139] Memory required for data: 110604000
I0504 08:30:24.778085 21936 layer_factory.hpp:77] Creating layer Sigmoid0
I0504 08:30:24.778091 21936 net.cpp:86] Creating Layer Sigmoid0
I0504 08:30:24.778095 21936 net.cpp:408] Sigmoid0 <- conv0
I0504 08:30:24.778100 21936 net.cpp:382] Sigmoid0 -> Sigmoid0
I0504 08:30:24.778298 21936 net.cpp:124] Setting up Sigmoid0
I0504 08:30:24.778321 21936 net.cpp:131] Top shape: 1000 24 32 32 (24576000)
I0504 08:30:24.778324 21936 net.cpp:139] Memory required for data: 208908000
I0504 08:30:24.778327 21936 layer_factory.hpp:77] Creating layer pool0
I0504 08:30:24.778336 21936 net.cpp:86] Creating Layer pool0
I0504 08:30:24.778339 21936 net.cpp:408] pool0 <- Sigmoid0
I0504 08:30:24.778344 21936 net.cpp:382] pool0 -> pool0
I0504 08:30:24.779518 21936 net.cpp:124] Setting up pool0
I0504 08:30:24.779528 21936 net.cpp:131] Top shape: 1000 24 16 16 (6144000)
I0504 08:30:24.779531 21936 net.cpp:139] Memory required for data: 233484000
I0504 08:30:24.779534 21936 layer_factory.hpp:77] Creating layer conv1
I0504 08:30:24.779546 21936 net.cpp:86] Creating Layer conv1
I0504 08:30:24.779548 21936 net.cpp:408] conv1 <- pool0
I0504 08:30:24.779553 21936 net.cpp:382] conv1 -> conv1
I0504 08:30:24.781150 21936 net.cpp:124] Setting up conv1
I0504 08:30:24.781163 21936 net.cpp:131] Top shape: 1000 24 16 16 (6144000)
I0504 08:30:24.781167 21936 net.cpp:139] Memory required for data: 258060000
I0504 08:30:24.781175 21936 layer_factory.hpp:77] Creating layer Sigmoid1
I0504 08:30:24.781182 21936 net.cpp:86] Creating Layer Sigmoid1
I0504 08:30:24.781184 21936 net.cpp:408] Sigmoid1 <- conv1
I0504 08:30:24.781189 21936 net.cpp:382] Sigmoid1 -> Sigmoid1
I0504 08:30:24.781339 21936 net.cpp:124] Setting up Sigmoid1
I0504 08:30:24.781348 21936 net.cpp:131] Top shape: 1000 24 16 16 (6144000)
I0504 08:30:24.781352 21936 net.cpp:139] Memory required for data: 282636000
I0504 08:30:24.781354 21936 layer_factory.hpp:77] Creating layer pool1
I0504 08:30:24.781361 21936 net.cpp:86] Creating Layer pool1
I0504 08:30:24.781365 21936 net.cpp:408] pool1 <- Sigmoid1
I0504 08:30:24.781369 21936 net.cpp:382] pool1 -> pool1
I0504 08:30:24.782078 21936 net.cpp:124] Setting up pool1
I0504 08:30:24.782089 21936 net.cpp:131] Top shape: 1000 24 8 8 (1536000)
I0504 08:30:24.782093 21936 net.cpp:139] Memory required for data: 288780000
I0504 08:30:24.782096 21936 layer_factory.hpp:77] Creating layer ip1
I0504 08:30:24.782104 21936 net.cpp:86] Creating Layer ip1
I0504 08:30:24.782109 21936 net.cpp:408] ip1 <- pool1
I0504 08:30:24.782114 21936 net.cpp:382] ip1 -> ip1
I0504 08:30:24.784601 21936 net.cpp:124] Setting up ip1
I0504 08:30:24.784610 21936 net.cpp:131] Top shape: 1000 60 (60000)
I0504 08:30:24.784612 21936 net.cpp:139] Memory required for data: 289020000
I0504 08:30:24.784621 21936 layer_factory.hpp:77] Creating layer relu1
I0504 08:30:24.784626 21936 net.cpp:86] Creating Layer relu1
I0504 08:30:24.784631 21936 net.cpp:408] relu1 <- ip1
I0504 08:30:24.784636 21936 net.cpp:369] relu1 -> ip1 (in-place)
I0504 08:30:24.784775 21936 net.cpp:124] Setting up relu1
I0504 08:30:24.784782 21936 net.cpp:131] Top shape: 1000 60 (60000)
I0504 08:30:24.784785 21936 net.cpp:139] Memory required for data: 289260000
I0504 08:30:24.784788 21936 layer_factory.hpp:77] Creating layer ip2
I0504 08:30:24.784795 21936 net.cpp:86] Creating Layer ip2
I0504 08:30:24.784798 21936 net.cpp:408] ip2 <- ip1
I0504 08:30:24.784803 21936 net.cpp:382] ip2 -> ip2
I0504 08:30:24.785064 21936 net.cpp:124] Setting up ip2
I0504 08:30:24.785073 21936 net.cpp:131] Top shape: 1000 60 (60000)
I0504 08:30:24.785078 21936 net.cpp:139] Memory required for data: 289500000
I0504 08:30:24.785084 21936 layer_factory.hpp:77] Creating layer relu2
I0504 08:30:24.785089 21936 net.cpp:86] Creating Layer relu2
I0504 08:30:24.785091 21936 net.cpp:408] relu2 <- ip2
I0504 08:30:24.785096 21936 net.cpp:369] relu2 -> ip2 (in-place)
I0504 08:30:24.785274 21936 net.cpp:124] Setting up relu2
I0504 08:30:24.785296 21936 net.cpp:131] Top shape: 1000 60 (60000)
I0504 08:30:24.785300 21936 net.cpp:139] Memory required for data: 289740000
I0504 08:30:24.785302 21936 layer_factory.hpp:77] Creating layer ip3
I0504 08:30:24.785308 21936 net.cpp:86] Creating Layer ip3
I0504 08:30:24.785311 21936 net.cpp:408] ip3 <- ip2
I0504 08:30:24.785316 21936 net.cpp:382] ip3 -> ip3
I0504 08:30:24.785426 21936 net.cpp:124] Setting up ip3
I0504 08:30:24.785434 21936 net.cpp:131] Top shape: 1000 10 (10000)
I0504 08:30:24.785447 21936 net.cpp:139] Memory required for data: 289780000
I0504 08:30:24.785455 21936 layer_factory.hpp:77] Creating layer ip3_ip3_0_split
I0504 08:30:24.785460 21936 net.cpp:86] Creating Layer ip3_ip3_0_split
I0504 08:30:24.785465 21936 net.cpp:408] ip3_ip3_0_split <- ip3
I0504 08:30:24.785470 21936 net.cpp:382] ip3_ip3_0_split -> ip3_ip3_0_split_0
I0504 08:30:24.785475 21936 net.cpp:382] ip3_ip3_0_split -> ip3_ip3_0_split_1
I0504 08:30:24.785506 21936 net.cpp:124] Setting up ip3_ip3_0_split
I0504 08:30:24.785511 21936 net.cpp:131] Top shape: 1000 10 (10000)
I0504 08:30:24.785513 21936 net.cpp:131] Top shape: 1000 10 (10000)
I0504 08:30:24.785516 21936 net.cpp:139] Memory required for data: 289860000
I0504 08:30:24.785521 21936 layer_factory.hpp:77] Creating layer accuracy
I0504 08:30:24.785526 21936 net.cpp:86] Creating Layer accuracy
I0504 08:30:24.785528 21936 net.cpp:408] accuracy <- ip3_ip3_0_split_0
I0504 08:30:24.785532 21936 net.cpp:408] accuracy <- label_cifar_1_split_0
I0504 08:30:24.785537 21936 net.cpp:382] accuracy -> accuracy
…
