…
I0504 12:35:24.893002 29412 net.cpp:296] The NetState phase (0) differed from the phase (1) specified by a rule in layer cifar
I0504 12:35:24.893033 29412 net.cpp:296] The NetState phase (0) differed from the phase (1) specified by a rule in layer accuracy
I0504 12:35:24.893151 29412 net.cpp:53] Initializing net from parameters: 
name: "CIFAR"
state {
  phase: TRAIN
  level: 0
  stage: ""
}
layer {
  name: "cifar"
  type: "Data"
  top: "data"
  top: "label"
  include {
    phase: TRAIN
  }
  transform_param {
    mean_file: "examples/cifar10/mean.binaryproto"
  }
  data_param {
    source: "examples/cifar10/cifar10_train_lmdb"
    batch_size: 111
    backend: LMDB
  }
}
layer {
  name: "conv0"
  type: "Convolution"
  bottom: "data"
  top: "conv0"
  param {
    lr_mult: 1
  }
  param {
    lr_mult: 2
  }
  convolution_param {
    num_output: 24
    pad: 2
    kernel_size: 5
    stride: 1
    weight_filler {
      type: "gaussian"
      std: 0.01
    }
    bias_filler {
      type: "constant"
    }
  }
}
layer {
  name: "Sigmoid0"
  type: "Sigmoid"
  bottom: "conv0"
  top: "Sigmoid0"
}
layer {
  name: "pool0"
  type: "Pooling"
  bottom: "Sigmoid0"
  top: "pool0"
  pooling_param {
    pool: AVE
    kernel_size: 3
    stride: 2
  }
}
layer {
  name: "conv1"
  type: "Convolution"
  bottom: "pool0"
  top: "conv1"
  param {
    lr_mult: 1
  }
  param {
    lr_mult: 2
  }
  convolution_param {
    num_output: 216
    pad: 2
    kernel_size: 3
    stride: 1
    weight_filler {
      type: "gaussian"
      std: 0.01
    }
    bias_filler {
      type: "constant"
    }
  }
}
layer {
  name: "Sigmoid1"
  type: "Sigmoid"
  bottom: "conv1"
  top: "Sigmoid1"
}
layer {
  name: "pool1"
  type: "Pooling"
  bottom: "Sigmoid1"
  top: "pool1"
  pooling_param {
    pool: AVE
    kernel_size: 3
    stride: 2
  }
}
layer {
  name: "ip1"
  type: "InnerProduct"
  bottom: "pool1"
  top: "ip1"
  param {
    lr_mult: 1
  }
  param {
    lr_mult: 2
  }
  inner_product_param {
    num_output: 10
    weight_filler {
      type: "gaussian"
      std: 0.01
    }
    bias_filler {
      type: "constant"
    }
  }
}
layer {
  name: "relu1"
  type: "ReLU"
  bottom: "ip1"
  top: "ip1"
}
layer {
  name: "ip2"
  type: "InnerProduct"
  bottom: "ip1"
  top: "ip2"
  param {
    lr_mult: 1
  }
  param {
    lr_mult: 2
  }
  inner_product_param {
    num_output: 10
    weight_filler {
      type: "gaussian"
      std: 0.01
    }
    bias_filler {
      type: "constant"
    }
  }
}
layer {
  name: "loss"
  type: "SoftmaxWithLoss"
  bottom: "ip2"
  bottom: "label"
  top: "loss"
}
I0504 12:35:24.893229 29412 layer_factory.hpp:77] Creating layer cifar
I0504 12:35:24.893308 29412 db_lmdb.cpp:35] Opened lmdb examples/cifar10/cifar10_train_lmdb
I0504 12:35:24.893333 29412 net.cpp:86] Creating Layer cifar
I0504 12:35:24.893342 29412 net.cpp:382] cifar -> data
I0504 12:35:24.893360 29412 net.cpp:382] cifar -> label
I0504 12:35:24.893373 29412 data_transformer.cpp:25] Loading mean file from: examples/cifar10/mean.binaryproto
I0504 12:35:24.895231 29412 data_layer.cpp:45] output data size: 111,3,32,32
I0504 12:35:24.902345 29412 net.cpp:124] Setting up cifar
I0504 12:35:24.902393 29412 net.cpp:131] Top shape: 111 3 32 32 (340992)
I0504 12:35:24.902400 29412 net.cpp:131] Top shape: 111 (111)
I0504 12:35:24.902401 29412 net.cpp:139] Memory required for data: 1364412
I0504 12:35:24.902408 29412 layer_factory.hpp:77] Creating layer conv0
I0504 12:35:24.902423 29412 net.cpp:86] Creating Layer conv0
I0504 12:35:24.902439 29412 net.cpp:408] conv0 <- data
I0504 12:35:24.902470 29412 net.cpp:382] conv0 -> conv0
I0504 12:35:25.135481 29412 net.cpp:124] Setting up conv0
I0504 12:35:25.135506 29412 net.cpp:131] Top shape: 111 24 32 32 (2727936)
I0504 12:35:25.135510 29412 net.cpp:139] Memory required for data: 12276156
I0504 12:35:25.135524 29412 layer_factory.hpp:77] Creating layer Sigmoid0
I0504 12:35:25.135535 29412 net.cpp:86] Creating Layer Sigmoid0
I0504 12:35:25.135540 29412 net.cpp:408] Sigmoid0 <- conv0
I0504 12:35:25.135545 29412 net.cpp:382] Sigmoid0 -> Sigmoid0
I0504 12:35:25.135725 29412 net.cpp:124] Setting up Sigmoid0
I0504 12:35:25.135735 29412 net.cpp:131] Top shape: 111 24 32 32 (2727936)
I0504 12:35:25.135737 29412 net.cpp:139] Memory required for data: 23187900
I0504 12:35:25.135740 29412 layer_factory.hpp:77] Creating layer pool0
I0504 12:35:25.135746 29412 net.cpp:86] Creating Layer pool0
I0504 12:35:25.135749 29412 net.cpp:408] pool0 <- Sigmoid0
I0504 12:35:25.135754 29412 net.cpp:382] pool0 -> pool0
I0504 12:35:25.136520 29412 net.cpp:124] Setting up pool0
I0504 12:35:25.136533 29412 net.cpp:131] Top shape: 111 24 16 16 (681984)
I0504 12:35:25.136535 29412 net.cpp:139] Memory required for data: 25915836
I0504 12:35:25.136539 29412 layer_factory.hpp:77] Creating layer conv1
I0504 12:35:25.136550 29412 net.cpp:86] Creating Layer conv1
I0504 12:35:25.136569 29412 net.cpp:408] conv1 <- pool0
I0504 12:35:25.136574 29412 net.cpp:382] conv1 -> conv1
I0504 12:35:25.140427 29412 net.cpp:124] Setting up conv1
I0504 12:35:25.140440 29412 net.cpp:131] Top shape: 111 216 18 18 (7768224)
I0504 12:35:25.140458 29412 net.cpp:139] Memory required for data: 56988732
I0504 12:35:25.140467 29412 layer_factory.hpp:77] Creating layer Sigmoid1
I0504 12:35:25.140475 29412 net.cpp:86] Creating Layer Sigmoid1
I0504 12:35:25.140480 29412 net.cpp:408] Sigmoid1 <- conv1
I0504 12:35:25.140485 29412 net.cpp:382] Sigmoid1 -> Sigmoid1
I0504 12:35:25.140689 29412 net.cpp:124] Setting up Sigmoid1
I0504 12:35:25.140698 29412 net.cpp:131] Top shape: 111 216 18 18 (7768224)
I0504 12:35:25.140702 29412 net.cpp:139] Memory required for data: 88061628
I0504 12:35:25.140704 29412 layer_factory.hpp:77] Creating layer pool1
I0504 12:35:25.140710 29412 net.cpp:86] Creating Layer pool1
I0504 12:35:25.140713 29412 net.cpp:408] pool1 <- Sigmoid1
I0504 12:35:25.140718 29412 net.cpp:382] pool1 -> pool1
I0504 12:35:25.140921 29412 net.cpp:124] Setting up pool1
I0504 12:35:25.140930 29412 net.cpp:131] Top shape: 111 216 9 9 (1942056)
I0504 12:35:25.140933 29412 net.cpp:139] Memory required for data: 95829852
I0504 12:35:25.140936 29412 layer_factory.hpp:77] Creating layer ip1
I0504 12:35:25.140945 29412 net.cpp:86] Creating Layer ip1
I0504 12:35:25.140949 29412 net.cpp:408] ip1 <- pool1
I0504 12:35:25.140954 29412 net.cpp:382] ip1 -> ip1
I0504 12:35:25.145596 29412 net.cpp:124] Setting up ip1
I0504 12:35:25.145603 29412 net.cpp:131] Top shape: 111 10 (1110)
I0504 12:35:25.145622 29412 net.cpp:139] Memory required for data: 95834292
I0504 12:35:25.145628 29412 layer_factory.hpp:77] Creating layer relu1
I0504 12:35:25.145637 29412 net.cpp:86] Creating Layer relu1
I0504 12:35:25.145639 29412 net.cpp:408] relu1 <- ip1
I0504 12:35:25.145643 29412 net.cpp:369] relu1 -> ip1 (in-place)
I0504 12:35:25.145836 29412 net.cpp:124] Setting up relu1
I0504 12:35:25.145844 29412 net.cpp:131] Top shape: 111 10 (1110)
I0504 12:35:25.145848 29412 net.cpp:139] Memory required for data: 95838732
I0504 12:35:25.145850 29412 layer_factory.hpp:77] Creating layer ip2
I0504 12:35:25.145859 29412 net.cpp:86] Creating Layer ip2
I0504 12:35:25.145861 29412 net.cpp:408] ip2 <- ip1
I0504 12:35:25.145866 29412 net.cpp:382] ip2 -> ip2
I0504 12:35:25.145969 29412 net.cpp:124] Setting up ip2
I0504 12:35:25.145977 29412 net.cpp:131] Top shape: 111 10 (1110)
I0504 12:35:25.145980 29412 net.cpp:139] Memory required for data: 95843172
I0504 12:35:25.145987 29412 layer_factory.hpp:77] Creating layer loss
I0504 12:35:25.145992 29412 net.cpp:86] Creating Layer loss
I0504 12:35:25.146023 29412 net.cpp:408] loss <- ip2
I0504 12:35:25.146028 29412 net.cpp:408] loss <- label
I0504 12:35:25.146033 29412 net.cpp:382] loss -> loss
I0504 12:35:25.146049 29412 layer_factory.hpp:77] Creating layer loss
…
I0504 12:35:25.147320 29412 solver.cpp:173] Creating test net (#0) specified by net file: ECE595/cifar/train_test/var_everything_tiny/cifar_train_test_156.prototxt
I0504 12:35:25.147344 29412 net.cpp:296] The NetState phase (1) differed from the phase (0) specified by a rule in layer cifar
I0504 12:35:25.147435 29412 net.cpp:53] Initializing net from parameters: 
name: "CIFAR"
state {
  phase: TEST
}
layer {
  name: "cifar"
  type: "Data"
  top: "data"
  top: "label"
  include {
    phase: TEST
  }
  transform_param {
    mean_file: "examples/cifar10/mean.binaryproto"
  }
  data_param {
    source: "examples/cifar10/cifar10_test_lmdb"
    batch_size: 1000
    backend: LMDB
  }
}
layer {
  name: "conv0"
  type: "Convolution"
  bottom: "data"
  top: "conv0"
  param {
    lr_mult: 1
  }
  param {
    lr_mult: 2
  }
  convolution_param {
    num_output: 24
    pad: 2
    kernel_size: 5
    stride: 1
    weight_filler {
      type: "gaussian"
      std: 0.01
    }
    bias_filler {
      type: "constant"
    }
  }
}
layer {
  name: "Sigmoid0"
  type: "Sigmoid"
  bottom: "conv0"
  top: "Sigmoid0"
}
layer {
  name: "pool0"
  type: "Pooling"
  bottom: "Sigmoid0"
  top: "pool0"
  pooling_param {
    pool: AVE
    kernel_size: 3
    stride: 2
  }
}
layer {
  name: "conv1"
  type: "Convolution"
  bottom: "pool0"
  top: "conv1"
  param {
    lr_mult: 1
  }
  param {
    lr_mult: 2
  }
  convolution_param {
    num_output: 216
    pad: 2
    kernel_size: 3
    stride: 1
    weight_filler {
      type: "gaussian"
      std: 0.01
    }
    bias_filler {
      type: "constant"
    }
  }
}
layer {
  name: "Sigmoid1"
  type: "Sigmoid"
  bottom: "conv1"
  top: "Sigmoid1"
}
layer {
  name: "pool1"
  type: "Pooling"
  bottom: "Sigmoid1"
  top: "pool1"
  pooling_param {
    pool: AVE
    kernel_size: 3
    stride: 2
  }
}
layer {
  name: "ip1"
  type: "InnerProduct"
  bottom: "pool1"
  top: "ip1"
  param {
    lr_mult: 1
  }
  param {
    lr_mult: 2
  }
  inner_product_param {
    num_output: 10
    weight_filler {
      type: "gaussian"
      std: 0.01
    }
    bias_filler {
      type: "constant"
    }
  }
}
layer {
  name: "relu1"
  type: "ReLU"
  bottom: "ip1"
  top: "ip1"
}
layer {
  name: "ip2"
  type: "InnerProduct"
  bottom: "ip1"
  top: "ip2"
  param {
    lr_mult: 1
  }
  param {
    lr_mult: 2
  }
  inner_product_param {
    num_output: 10
    weight_filler {
      type: "gaussian"
      std: 0.01
    }
    bias_filler {
      type: "constant"
    }
  }
}
layer {
  name: "accuracy"
  type: "Accuracy"
  bottom: "ip2"
  bottom: "label"
  top: "accuracy"
  include {
    phase: TEST
  }
}
layer {
  name: "loss"
  type: "SoftmaxWithLoss"
  bottom: "ip2"
  bottom: "label"
  top: "loss"
}
I0504 12:35:25.147516 29412 layer_factory.hpp:77] Creating layer cifar
I0504 12:35:25.147560 29412 db_lmdb.cpp:35] Opened lmdb examples/cifar10/cifar10_test_lmdb
I0504 12:35:25.147572 29412 net.cpp:86] Creating Layer cifar
I0504 12:35:25.147577 29412 net.cpp:382] cifar -> data
I0504 12:35:25.147583 29412 net.cpp:382] cifar -> label
I0504 12:35:25.147590 29412 data_transformer.cpp:25] Loading mean file from: examples/cifar10/mean.binaryproto
I0504 12:35:25.147735 29412 data_layer.cpp:45] output data size: 1000,3,32,32
I0504 12:35:25.169399 29412 net.cpp:124] Setting up cifar
I0504 12:35:25.169440 29412 net.cpp:131] Top shape: 1000 3 32 32 (3072000)
I0504 12:35:25.169445 29412 net.cpp:131] Top shape: 1000 (1000)
I0504 12:35:25.169447 29412 net.cpp:139] Memory required for data: 12292000
I0504 12:35:25.169452 29412 layer_factory.hpp:77] Creating layer label_cifar_1_split
I0504 12:35:25.169466 29412 net.cpp:86] Creating Layer label_cifar_1_split
I0504 12:35:25.169469 29412 net.cpp:408] label_cifar_1_split <- label
I0504 12:35:25.169476 29412 net.cpp:382] label_cifar_1_split -> label_cifar_1_split_0
I0504 12:35:25.169500 29412 net.cpp:382] label_cifar_1_split -> label_cifar_1_split_1
I0504 12:35:25.169610 29412 net.cpp:124] Setting up label_cifar_1_split
I0504 12:35:25.169617 29412 net.cpp:131] Top shape: 1000 (1000)
I0504 12:35:25.169620 29412 net.cpp:131] Top shape: 1000 (1000)
I0504 12:35:25.169623 29412 net.cpp:139] Memory required for data: 12300000
I0504 12:35:25.169626 29412 layer_factory.hpp:77] Creating layer conv0
I0504 12:35:25.169639 29412 net.cpp:86] Creating Layer conv0
I0504 12:35:25.169643 29412 net.cpp:408] conv0 <- data
I0504 12:35:25.169648 29412 net.cpp:382] conv0 -> conv0
I0504 12:35:25.170588 29412 net.cpp:124] Setting up conv0
I0504 12:35:25.170600 29412 net.cpp:131] Top shape: 1000 24 32 32 (24576000)
I0504 12:35:25.170619 29412 net.cpp:139] Memory required for data: 110604000
I0504 12:35:25.170629 29412 layer_factory.hpp:77] Creating layer Sigmoid0
I0504 12:35:25.170634 29412 net.cpp:86] Creating Layer Sigmoid0
I0504 12:35:25.170637 29412 net.cpp:408] Sigmoid0 <- conv0
I0504 12:35:25.170642 29412 net.cpp:382] Sigmoid0 -> Sigmoid0
I0504 12:35:25.171525 29412 net.cpp:124] Setting up Sigmoid0
I0504 12:35:25.171536 29412 net.cpp:131] Top shape: 1000 24 32 32 (24576000)
I0504 12:35:25.171555 29412 net.cpp:139] Memory required for data: 208908000
I0504 12:35:25.171557 29412 layer_factory.hpp:77] Creating layer pool0
I0504 12:35:25.171568 29412 net.cpp:86] Creating Layer pool0
I0504 12:35:25.171571 29412 net.cpp:408] pool0 <- Sigmoid0
I0504 12:35:25.171576 29412 net.cpp:382] pool0 -> pool0
I0504 12:35:25.172710 29412 net.cpp:124] Setting up pool0
I0504 12:35:25.172722 29412 net.cpp:131] Top shape: 1000 24 16 16 (6144000)
I0504 12:35:25.172740 29412 net.cpp:139] Memory required for data: 233484000
I0504 12:35:25.172744 29412 layer_factory.hpp:77] Creating layer conv1
I0504 12:35:25.172754 29412 net.cpp:86] Creating Layer conv1
I0504 12:35:25.172758 29412 net.cpp:408] conv1 <- pool0
I0504 12:35:25.172765 29412 net.cpp:382] conv1 -> conv1
I0504 12:35:25.175269 29412 net.cpp:124] Setting up conv1
I0504 12:35:25.175299 29412 net.cpp:131] Top shape: 1000 216 18 18 (69984000)
I0504 12:35:25.175303 29412 net.cpp:139] Memory required for data: 513420000
I0504 12:35:25.175312 29412 layer_factory.hpp:77] Creating layer Sigmoid1
I0504 12:35:25.175318 29412 net.cpp:86] Creating Layer Sigmoid1
I0504 12:35:25.175320 29412 net.cpp:408] Sigmoid1 <- conv1
I0504 12:35:25.175326 29412 net.cpp:382] Sigmoid1 -> Sigmoid1
I0504 12:35:25.175513 29412 net.cpp:124] Setting up Sigmoid1
I0504 12:35:25.175523 29412 net.cpp:131] Top shape: 1000 216 18 18 (69984000)
I0504 12:35:25.175526 29412 net.cpp:139] Memory required for data: 793356000
I0504 12:35:25.175529 29412 layer_factory.hpp:77] Creating layer pool1
I0504 12:35:25.175534 29412 net.cpp:86] Creating Layer pool1
I0504 12:35:25.175539 29412 net.cpp:408] pool1 <- Sigmoid1
I0504 12:35:25.175557 29412 net.cpp:382] pool1 -> pool1
I0504 12:35:25.175745 29412 net.cpp:124] Setting up pool1
I0504 12:35:25.175755 29412 net.cpp:131] Top shape: 1000 216 9 9 (17496000)
I0504 12:35:25.175758 29412 net.cpp:139] Memory required for data: 863340000
I0504 12:35:25.175761 29412 layer_factory.hpp:77] Creating layer ip1
I0504 12:35:25.175773 29412 net.cpp:86] Creating Layer ip1
I0504 12:35:25.175777 29412 net.cpp:408] ip1 <- pool1
I0504 12:35:25.175782 29412 net.cpp:382] ip1 -> ip1
I0504 12:35:25.180397 29412 net.cpp:124] Setting up ip1
I0504 12:35:25.180405 29412 net.cpp:131] Top shape: 1000 10 (10000)
I0504 12:35:25.180423 29412 net.cpp:139] Memory required for data: 863380000
I0504 12:35:25.180430 29412 layer_factory.hpp:77] Creating layer relu1
I0504 12:35:25.180435 29412 net.cpp:86] Creating Layer relu1
I0504 12:35:25.180440 29412 net.cpp:408] relu1 <- ip1
I0504 12:35:25.180445 29412 net.cpp:369] relu1 -> ip1 (in-place)
I0504 12:35:25.181247 29412 net.cpp:124] Setting up relu1
I0504 12:35:25.181258 29412 net.cpp:131] Top shape: 1000 10 (10000)
I0504 12:35:25.181277 29412 net.cpp:139] Memory required for data: 863420000
I0504 12:35:25.181279 29412 layer_factory.hpp:77] Creating layer ip2
I0504 12:35:25.181288 29412 net.cpp:86] Creating Layer ip2
I0504 12:35:25.181291 29412 net.cpp:408] ip2 <- ip1
I0504 12:35:25.181298 29412 net.cpp:382] ip2 -> ip2
I0504 12:35:25.181421 29412 net.cpp:124] Setting up ip2
I0504 12:35:25.181428 29412 net.cpp:131] Top shape: 1000 10 (10000)
I0504 12:35:25.181432 29412 net.cpp:139] Memory required for data: 863460000
I0504 12:35:25.181437 29412 layer_factory.hpp:77] Creating layer ip2_ip2_0_split
I0504 12:35:25.181442 29412 net.cpp:86] Creating Layer ip2_ip2_0_split
I0504 12:35:25.181445 29412 net.cpp:408] ip2_ip2_0_split <- ip2
I0504 12:35:25.181449 29412 net.cpp:382] ip2_ip2_0_split -> ip2_ip2_0_split_0
I0504 12:35:25.181457 29412 net.cpp:382] ip2_ip2_0_split -> ip2_ip2_0_split_1
I0504 12:35:25.181489 29412 net.cpp:124] Setting up ip2_ip2_0_split
I0504 12:35:25.181500 29412 net.cpp:131] Top shape: 1000 10 (10000)
I0504 12:35:25.181504 29412 net.cpp:131] Top shape: 1000 10 (10000)
I0504 12:35:25.181506 29412 net.cpp:139] Memory required for data: 863540000
I0504 12:35:25.181509 29412 layer_factory.hpp:77] Creating layer accuracy
I0504 12:35:25.181520 29412 net.cpp:86] Creating Layer accuracy
I0504 12:35:25.181524 29412 net.cpp:408] accuracy <- ip2_ip2_0_split_0
I0504 12:35:25.181529 29412 net.cpp:408] accuracy <- label_cifar_1_split_0
I0504 12:35:25.181532 29412 net.cpp:382] accuracy -> accuracy
…
