…
I0504 10:26:23.474030 25334 net.cpp:296] The NetState phase (0) differed from the phase (1) specified by a rule in layer cifar
I0504 10:26:23.474050 25334 net.cpp:296] The NetState phase (0) differed from the phase (1) specified by a rule in layer accuracy
I0504 10:26:23.474156 25334 net.cpp:53] Initializing net from parameters: 
name: "CIFAR"
state {
  phase: TRAIN
  level: 0
  stage: ""
}
layer {
  name: "cifar"
  type: "Data"
  top: "data"
  top: "label"
  include {
    phase: TRAIN
  }
  transform_param {
    mean_file: "examples/cifar10/mean.binaryproto"
  }
  data_param {
    source: "examples/cifar10/cifar10_train_lmdb"
    batch_size: 111
    backend: LMDB
  }
}
layer {
  name: "conv0"
  type: "Convolution"
  bottom: "data"
  top: "conv0"
  param {
    lr_mult: 1
  }
  param {
    lr_mult: 2
  }
  convolution_param {
    num_output: 24
    pad: 2
    kernel_size: 5
    stride: 1
    weight_filler {
      type: "gaussian"
      std: 0.01
    }
    bias_filler {
      type: "constant"
    }
  }
}
layer {
  name: "Sigmoid0"
  type: "Sigmoid"
  bottom: "conv0"
  top: "Sigmoid0"
}
layer {
  name: "pool0"
  type: "Pooling"
  bottom: "Sigmoid0"
  top: "pool0"
  pooling_param {
    pool: AVE
    kernel_size: 3
    stride: 2
  }
}
layer {
  name: "conv1"
  type: "Convolution"
  bottom: "pool0"
  top: "conv1"
  param {
    lr_mult: 1
  }
  param {
    lr_mult: 2
  }
  convolution_param {
    num_output: 72
    pad: 2
    kernel_size: 5
    stride: 1
    weight_filler {
      type: "gaussian"
      std: 0.01
    }
    bias_filler {
      type: "constant"
    }
  }
}
layer {
  name: "Sigmoid1"
  type: "Sigmoid"
  bottom: "conv1"
  top: "Sigmoid1"
}
layer {
  name: "pool1"
  type: "Pooling"
  bottom: "Sigmoid1"
  top: "pool1"
  pooling_param {
    pool: AVE
    kernel_size: 3
    stride: 2
  }
}
layer {
  name: "ip1"
  type: "InnerProduct"
  bottom: "pool1"
  top: "ip1"
  param {
    lr_mult: 1
  }
  param {
    lr_mult: 2
  }
  inner_product_param {
    num_output: 180
    weight_filler {
      type: "gaussian"
      std: 0.01
    }
    bias_filler {
      type: "constant"
    }
  }
}
layer {
  name: "relu1"
  type: "ReLU"
  bottom: "ip1"
  top: "ip1"
}
layer {
  name: "ip2"
  type: "InnerProduct"
  bottom: "ip1"
  top: "ip2"
  param {
    lr_mult: 1
  }
  param {
    lr_mult: 2
  }
  inner_product_param {
    num_output: 10
    weight_filler {
      type: "gaussian"
      std: 0.01
    }
    bias_filler {
      type: "constant"
    }
  }
}
layer {
  name: "loss"
  type: "SoftmaxWithLoss"
  bottom: "ip2"
  bottom: "label"
  top: "loss"
}
I0504 10:26:23.474234 25334 layer_factory.hpp:77] Creating layer cifar
I0504 10:26:23.474337 25334 db_lmdb.cpp:35] Opened lmdb examples/cifar10/cifar10_train_lmdb
I0504 10:26:23.474364 25334 net.cpp:86] Creating Layer cifar
I0504 10:26:23.474371 25334 net.cpp:382] cifar -> data
I0504 10:26:23.474395 25334 net.cpp:382] cifar -> label
I0504 10:26:23.474406 25334 data_transformer.cpp:25] Loading mean file from: examples/cifar10/mean.binaryproto
I0504 10:26:23.476574 25334 data_layer.cpp:45] output data size: 111,3,32,32
I0504 10:26:23.484565 25334 net.cpp:124] Setting up cifar
I0504 10:26:23.484585 25334 net.cpp:131] Top shape: 111 3 32 32 (340992)
I0504 10:26:23.484591 25334 net.cpp:131] Top shape: 111 (111)
I0504 10:26:23.484594 25334 net.cpp:139] Memory required for data: 1364412
I0504 10:26:23.484601 25334 layer_factory.hpp:77] Creating layer conv0
I0504 10:26:23.484619 25334 net.cpp:86] Creating Layer conv0
I0504 10:26:23.484642 25334 net.cpp:408] conv0 <- data
I0504 10:26:23.484653 25334 net.cpp:382] conv0 -> conv0
I0504 10:26:23.775180 25334 net.cpp:124] Setting up conv0
I0504 10:26:23.775213 25334 net.cpp:131] Top shape: 111 24 32 32 (2727936)
I0504 10:26:23.775218 25334 net.cpp:139] Memory required for data: 12276156
I0504 10:26:23.775236 25334 layer_factory.hpp:77] Creating layer Sigmoid0
I0504 10:26:23.775250 25334 net.cpp:86] Creating Layer Sigmoid0
I0504 10:26:23.775256 25334 net.cpp:408] Sigmoid0 <- conv0
I0504 10:26:23.775262 25334 net.cpp:382] Sigmoid0 -> Sigmoid0
I0504 10:26:23.775478 25334 net.cpp:124] Setting up Sigmoid0
I0504 10:26:23.775491 25334 net.cpp:131] Top shape: 111 24 32 32 (2727936)
I0504 10:26:23.775496 25334 net.cpp:139] Memory required for data: 23187900
I0504 10:26:23.775499 25334 layer_factory.hpp:77] Creating layer pool0
I0504 10:26:23.775508 25334 net.cpp:86] Creating Layer pool0
I0504 10:26:23.775512 25334 net.cpp:408] pool0 <- Sigmoid0
I0504 10:26:23.775518 25334 net.cpp:382] pool0 -> pool0
I0504 10:26:23.776401 25334 net.cpp:124] Setting up pool0
I0504 10:26:23.776418 25334 net.cpp:131] Top shape: 111 24 16 16 (681984)
I0504 10:26:23.776422 25334 net.cpp:139] Memory required for data: 25915836
I0504 10:26:23.776427 25334 layer_factory.hpp:77] Creating layer conv1
I0504 10:26:23.776442 25334 net.cpp:86] Creating Layer conv1
I0504 10:26:23.776446 25334 net.cpp:408] conv1 <- pool0
I0504 10:26:23.776453 25334 net.cpp:382] conv1 -> conv1
I0504 10:26:23.781052 25334 net.cpp:124] Setting up conv1
I0504 10:26:23.781070 25334 net.cpp:131] Top shape: 111 72 16 16 (2045952)
I0504 10:26:23.781075 25334 net.cpp:139] Memory required for data: 34099644
I0504 10:26:23.781085 25334 layer_factory.hpp:77] Creating layer Sigmoid1
I0504 10:26:23.781093 25334 net.cpp:86] Creating Layer Sigmoid1
I0504 10:26:23.781097 25334 net.cpp:408] Sigmoid1 <- conv1
I0504 10:26:23.781103 25334 net.cpp:382] Sigmoid1 -> Sigmoid1
I0504 10:26:23.781314 25334 net.cpp:124] Setting up Sigmoid1
I0504 10:26:23.781327 25334 net.cpp:131] Top shape: 111 72 16 16 (2045952)
I0504 10:26:23.781330 25334 net.cpp:139] Memory required for data: 42283452
I0504 10:26:23.781334 25334 layer_factory.hpp:77] Creating layer pool1
I0504 10:26:23.781342 25334 net.cpp:86] Creating Layer pool1
I0504 10:26:23.781345 25334 net.cpp:408] pool1 <- Sigmoid1
I0504 10:26:23.781352 25334 net.cpp:382] pool1 -> pool1
I0504 10:26:23.781550 25334 net.cpp:124] Setting up pool1
I0504 10:26:23.781561 25334 net.cpp:131] Top shape: 111 72 8 8 (511488)
I0504 10:26:23.781565 25334 net.cpp:139] Memory required for data: 44329404
I0504 10:26:23.781569 25334 layer_factory.hpp:77] Creating layer ip1
I0504 10:26:23.781577 25334 net.cpp:86] Creating Layer ip1
I0504 10:26:23.781581 25334 net.cpp:408] ip1 <- pool1
I0504 10:26:23.781587 25334 net.cpp:382] ip1 -> ip1
I0504 10:26:23.810207 25334 net.cpp:124] Setting up ip1
I0504 10:26:23.810223 25334 net.cpp:131] Top shape: 111 180 (19980)
I0504 10:26:23.810227 25334 net.cpp:139] Memory required for data: 44409324
I0504 10:26:23.810237 25334 layer_factory.hpp:77] Creating layer relu1
I0504 10:26:23.810246 25334 net.cpp:86] Creating Layer relu1
I0504 10:26:23.810250 25334 net.cpp:408] relu1 <- ip1
I0504 10:26:23.810256 25334 net.cpp:369] relu1 -> ip1 (in-place)
I0504 10:26:23.810458 25334 net.cpp:124] Setting up relu1
I0504 10:26:23.810469 25334 net.cpp:131] Top shape: 111 180 (19980)
I0504 10:26:23.810473 25334 net.cpp:139] Memory required for data: 44489244
I0504 10:26:23.810477 25334 layer_factory.hpp:77] Creating layer ip2
I0504 10:26:23.810485 25334 net.cpp:86] Creating Layer ip2
I0504 10:26:23.810490 25334 net.cpp:408] ip2 <- ip1
I0504 10:26:23.810497 25334 net.cpp:382] ip2 -> ip2
I0504 10:26:23.810678 25334 net.cpp:124] Setting up ip2
I0504 10:26:23.810688 25334 net.cpp:131] Top shape: 111 10 (1110)
I0504 10:26:23.810691 25334 net.cpp:139] Memory required for data: 44493684
I0504 10:26:23.810698 25334 layer_factory.hpp:77] Creating layer loss
I0504 10:26:23.810705 25334 net.cpp:86] Creating Layer loss
I0504 10:26:23.810726 25334 net.cpp:408] loss <- ip2
I0504 10:26:23.810731 25334 net.cpp:408] loss <- label
I0504 10:26:23.810737 25334 net.cpp:382] loss -> loss
I0504 10:26:23.810755 25334 layer_factory.hpp:77] Creating layer loss
…
I0504 10:26:23.812188 25334 solver.cpp:173] Creating test net (#0) specified by net file: ECE595/cifar/train_test/var_everything_tiny/cifar_train_test_134.prototxt
I0504 10:26:23.812221 25334 net.cpp:296] The NetState phase (1) differed from the phase (0) specified by a rule in layer cifar
I0504 10:26:23.812328 25334 net.cpp:53] Initializing net from parameters: 
name: "CIFAR"
state {
  phase: TEST
}
layer {
  name: "cifar"
  type: "Data"
  top: "data"
  top: "label"
  include {
    phase: TEST
  }
  transform_param {
    mean_file: "examples/cifar10/mean.binaryproto"
  }
  data_param {
    source: "examples/cifar10/cifar10_test_lmdb"
    batch_size: 1000
    backend: LMDB
  }
}
layer {
  name: "conv0"
  type: "Convolution"
  bottom: "data"
  top: "conv0"
  param {
    lr_mult: 1
  }
  param {
    lr_mult: 2
  }
  convolution_param {
    num_output: 24
    pad: 2
    kernel_size: 5
    stride: 1
    weight_filler {
      type: "gaussian"
      std: 0.01
    }
    bias_filler {
      type: "constant"
    }
  }
}
layer {
  name: "Sigmoid0"
  type: "Sigmoid"
  bottom: "conv0"
  top: "Sigmoid0"
}
layer {
  name: "pool0"
  type: "Pooling"
  bottom: "Sigmoid0"
  top: "pool0"
  pooling_param {
    pool: AVE
    kernel_size: 3
    stride: 2
  }
}
layer {
  name: "conv1"
  type: "Convolution"
  bottom: "pool0"
  top: "conv1"
  param {
    lr_mult: 1
  }
  param {
    lr_mult: 2
  }
  convolution_param {
    num_output: 72
    pad: 2
    kernel_size: 5
    stride: 1
    weight_filler {
      type: "gaussian"
      std: 0.01
    }
    bias_filler {
      type: "constant"
    }
  }
}
layer {
  name: "Sigmoid1"
  type: "Sigmoid"
  bottom: "conv1"
  top: "Sigmoid1"
}
layer {
  name: "pool1"
  type: "Pooling"
  bottom: "Sigmoid1"
  top: "pool1"
  pooling_param {
    pool: AVE
    kernel_size: 3
    stride: 2
  }
}
layer {
  name: "ip1"
  type: "InnerProduct"
  bottom: "pool1"
  top: "ip1"
  param {
    lr_mult: 1
  }
  param {
    lr_mult: 2
  }
  inner_product_param {
    num_output: 180
    weight_filler {
      type: "gaussian"
      std: 0.01
    }
    bias_filler {
      type: "constant"
    }
  }
}
layer {
  name: "relu1"
  type: "ReLU"
  bottom: "ip1"
  top: "ip1"
}
layer {
  name: "ip2"
  type: "InnerProduct"
  bottom: "ip1"
  top: "ip2"
  param {
    lr_mult: 1
  }
  param {
    lr_mult: 2
  }
  inner_product_param {
    num_output: 10
    weight_filler {
      type: "gaussian"
      std: 0.01
    }
    bias_filler {
      type: "constant"
    }
  }
}
layer {
  name: "accuracy"
  type: "Accuracy"
  bottom: "ip2"
  bottom: "label"
  top: "accuracy"
  include {
    phase: TEST
  }
}
layer {
  name: "loss"
  type: "SoftmaxWithLoss"
  bottom: "ip2"
  bottom: "label"
  top: "loss"
}
I0504 10:26:23.812420 25334 layer_factory.hpp:77] Creating layer cifar
I0504 10:26:23.812471 25334 db_lmdb.cpp:35] Opened lmdb examples/cifar10/cifar10_test_lmdb
I0504 10:26:23.812485 25334 net.cpp:86] Creating Layer cifar
I0504 10:26:23.812491 25334 net.cpp:382] cifar -> data
I0504 10:26:23.812500 25334 net.cpp:382] cifar -> label
I0504 10:26:23.812508 25334 data_transformer.cpp:25] Loading mean file from: examples/cifar10/mean.binaryproto
I0504 10:26:23.812681 25334 data_layer.cpp:45] output data size: 1000,3,32,32
I0504 10:26:23.838469 25334 net.cpp:124] Setting up cifar
I0504 10:26:23.838501 25334 net.cpp:131] Top shape: 1000 3 32 32 (3072000)
I0504 10:26:23.838508 25334 net.cpp:131] Top shape: 1000 (1000)
I0504 10:26:23.838512 25334 net.cpp:139] Memory required for data: 12292000
I0504 10:26:23.838518 25334 layer_factory.hpp:77] Creating layer label_cifar_1_split
I0504 10:26:23.838533 25334 net.cpp:86] Creating Layer label_cifar_1_split
I0504 10:26:23.838538 25334 net.cpp:408] label_cifar_1_split <- label
I0504 10:26:23.838546 25334 net.cpp:382] label_cifar_1_split -> label_cifar_1_split_0
I0504 10:26:23.838557 25334 net.cpp:382] label_cifar_1_split -> label_cifar_1_split_1
I0504 10:26:23.838680 25334 net.cpp:124] Setting up label_cifar_1_split
I0504 10:26:23.838690 25334 net.cpp:131] Top shape: 1000 (1000)
I0504 10:26:23.838696 25334 net.cpp:131] Top shape: 1000 (1000)
I0504 10:26:23.838699 25334 net.cpp:139] Memory required for data: 12300000
I0504 10:26:23.838703 25334 layer_factory.hpp:77] Creating layer conv0
I0504 10:26:23.838719 25334 net.cpp:86] Creating Layer conv0
I0504 10:26:23.838723 25334 net.cpp:408] conv0 <- data
I0504 10:26:23.838729 25334 net.cpp:382] conv0 -> conv0
I0504 10:26:23.839781 25334 net.cpp:124] Setting up conv0
I0504 10:26:23.839795 25334 net.cpp:131] Top shape: 1000 24 32 32 (24576000)
I0504 10:26:23.839800 25334 net.cpp:139] Memory required for data: 110604000
I0504 10:26:23.839813 25334 layer_factory.hpp:77] Creating layer Sigmoid0
I0504 10:26:23.839820 25334 net.cpp:86] Creating Layer Sigmoid0
I0504 10:26:23.839826 25334 net.cpp:408] Sigmoid0 <- conv0
I0504 10:26:23.839833 25334 net.cpp:382] Sigmoid0 -> Sigmoid0
I0504 10:26:23.841840 25334 net.cpp:124] Setting up Sigmoid0
I0504 10:26:23.841857 25334 net.cpp:131] Top shape: 1000 24 32 32 (24576000)
I0504 10:26:23.841862 25334 net.cpp:139] Memory required for data: 208908000
I0504 10:26:23.841867 25334 layer_factory.hpp:77] Creating layer pool0
I0504 10:26:23.841881 25334 net.cpp:86] Creating Layer pool0
I0504 10:26:23.841886 25334 net.cpp:408] pool0 <- Sigmoid0
I0504 10:26:23.841893 25334 net.cpp:382] pool0 -> pool0
I0504 10:26:23.842131 25334 net.cpp:124] Setting up pool0
I0504 10:26:23.842144 25334 net.cpp:131] Top shape: 1000 24 16 16 (6144000)
I0504 10:26:23.842147 25334 net.cpp:139] Memory required for data: 233484000
I0504 10:26:23.842150 25334 layer_factory.hpp:77] Creating layer conv1
I0504 10:26:23.842164 25334 net.cpp:86] Creating Layer conv1
I0504 10:26:23.842167 25334 net.cpp:408] conv1 <- pool0
I0504 10:26:23.842175 25334 net.cpp:382] conv1 -> conv1
I0504 10:26:23.845270 25334 net.cpp:124] Setting up conv1
I0504 10:26:23.845288 25334 net.cpp:131] Top shape: 1000 72 16 16 (18432000)
I0504 10:26:23.845293 25334 net.cpp:139] Memory required for data: 307212000
I0504 10:26:23.845305 25334 layer_factory.hpp:77] Creating layer Sigmoid1
I0504 10:26:23.845314 25334 net.cpp:86] Creating Layer Sigmoid1
I0504 10:26:23.845317 25334 net.cpp:408] Sigmoid1 <- conv1
I0504 10:26:23.845324 25334 net.cpp:382] Sigmoid1 -> Sigmoid1
I0504 10:26:23.845535 25334 net.cpp:124] Setting up Sigmoid1
I0504 10:26:23.845547 25334 net.cpp:131] Top shape: 1000 72 16 16 (18432000)
I0504 10:26:23.845551 25334 net.cpp:139] Memory required for data: 380940000
I0504 10:26:23.845556 25334 layer_factory.hpp:77] Creating layer pool1
I0504 10:26:23.845566 25334 net.cpp:86] Creating Layer pool1
I0504 10:26:23.845571 25334 net.cpp:408] pool1 <- Sigmoid1
I0504 10:26:23.845590 25334 net.cpp:382] pool1 -> pool1
I0504 10:26:23.845801 25334 net.cpp:124] Setting up pool1
I0504 10:26:23.845814 25334 net.cpp:131] Top shape: 1000 72 8 8 (4608000)
I0504 10:26:23.845818 25334 net.cpp:139] Memory required for data: 399372000
I0504 10:26:23.845824 25334 layer_factory.hpp:77] Creating layer ip1
I0504 10:26:23.845834 25334 net.cpp:86] Creating Layer ip1
I0504 10:26:23.845839 25334 net.cpp:408] ip1 <- pool1
I0504 10:26:23.845846 25334 net.cpp:382] ip1 -> ip1
I0504 10:26:23.874617 25334 net.cpp:124] Setting up ip1
I0504 10:26:23.874639 25334 net.cpp:131] Top shape: 1000 180 (180000)
I0504 10:26:23.874644 25334 net.cpp:139] Memory required for data: 400092000
I0504 10:26:23.874655 25334 layer_factory.hpp:77] Creating layer relu1
I0504 10:26:23.874665 25334 net.cpp:86] Creating Layer relu1
I0504 10:26:23.874670 25334 net.cpp:408] relu1 <- ip1
I0504 10:26:23.874676 25334 net.cpp:369] relu1 -> ip1 (in-place)
I0504 10:26:23.875618 25334 net.cpp:124] Setting up relu1
I0504 10:26:23.875635 25334 net.cpp:131] Top shape: 1000 180 (180000)
I0504 10:26:23.875640 25334 net.cpp:139] Memory required for data: 400812000
I0504 10:26:23.875645 25334 layer_factory.hpp:77] Creating layer ip2
I0504 10:26:23.875656 25334 net.cpp:86] Creating Layer ip2
I0504 10:26:23.875660 25334 net.cpp:408] ip2 <- ip1
I0504 10:26:23.875669 25334 net.cpp:382] ip2 -> ip2
I0504 10:26:23.875876 25334 net.cpp:124] Setting up ip2
I0504 10:26:23.875886 25334 net.cpp:131] Top shape: 1000 10 (10000)
I0504 10:26:23.875890 25334 net.cpp:139] Memory required for data: 400852000
I0504 10:26:23.875897 25334 layer_factory.hpp:77] Creating layer ip2_ip2_0_split
I0504 10:26:23.875905 25334 net.cpp:86] Creating Layer ip2_ip2_0_split
I0504 10:26:23.875908 25334 net.cpp:408] ip2_ip2_0_split <- ip2
I0504 10:26:23.875915 25334 net.cpp:382] ip2_ip2_0_split -> ip2_ip2_0_split_0
I0504 10:26:23.875921 25334 net.cpp:382] ip2_ip2_0_split -> ip2_ip2_0_split_1
I0504 10:26:23.875963 25334 net.cpp:124] Setting up ip2_ip2_0_split
I0504 10:26:23.875972 25334 net.cpp:131] Top shape: 1000 10 (10000)
I0504 10:26:23.875977 25334 net.cpp:131] Top shape: 1000 10 (10000)
I0504 10:26:23.875979 25334 net.cpp:139] Memory required for data: 400932000
I0504 10:26:23.875983 25334 layer_factory.hpp:77] Creating layer accuracy
I0504 10:26:23.875990 25334 net.cpp:86] Creating Layer accuracy
I0504 10:26:23.875995 25334 net.cpp:408] accuracy <- ip2_ip2_0_split_0
I0504 10:26:23.875999 25334 net.cpp:408] accuracy <- label_cifar_1_split_0
I0504 10:26:23.876006 25334 net.cpp:382] accuracy -> accuracy
…
