…
I0504 12:21:27.289170 28889 net.cpp:296] The NetState phase (0) differed from the phase (1) specified by a rule in layer cifar
I0504 12:21:27.289187 28889 net.cpp:296] The NetState phase (0) differed from the phase (1) specified by a rule in layer accuracy
I0504 12:21:27.289297 28889 net.cpp:53] Initializing net from parameters: 
name: "CIFAR"
state {
  phase: TRAIN
  level: 0
  stage: ""
}
layer {
  name: "cifar"
  type: "Data"
  top: "data"
  top: "label"
  include {
    phase: TRAIN
  }
  transform_param {
    mean_file: "examples/cifar10/mean.binaryproto"
  }
  data_param {
    source: "examples/cifar10/cifar10_train_lmdb"
    batch_size: 111
    backend: LMDB
  }
}
layer {
  name: "conv0"
  type: "Convolution"
  bottom: "data"
  top: "conv0"
  param {
    lr_mult: 1
  }
  param {
    lr_mult: 2
  }
  convolution_param {
    num_output: 24
    pad: 2
    kernel_size: 3
    stride: 1
    weight_filler {
      type: "gaussian"
      std: 0.01
    }
    bias_filler {
      type: "constant"
    }
  }
}
layer {
  name: "Sigmoid0"
  type: "Sigmoid"
  bottom: "conv0"
  top: "Sigmoid0"
}
layer {
  name: "pool0"
  type: "Pooling"
  bottom: "Sigmoid0"
  top: "pool0"
  pooling_param {
    pool: AVE
    kernel_size: 3
    stride: 2
  }
}
layer {
  name: "conv1"
  type: "Convolution"
  bottom: "pool0"
  top: "conv1"
  param {
    lr_mult: 1
  }
  param {
    lr_mult: 2
  }
  convolution_param {
    num_output: 216
    pad: 2
    kernel_size: 3
    stride: 1
    weight_filler {
      type: "gaussian"
      std: 0.01
    }
    bias_filler {
      type: "constant"
    }
  }
}
layer {
  name: "Sigmoid1"
  type: "Sigmoid"
  bottom: "conv1"
  top: "Sigmoid1"
}
layer {
  name: "pool1"
  type: "Pooling"
  bottom: "Sigmoid1"
  top: "pool1"
  pooling_param {
    pool: AVE
    kernel_size: 3
    stride: 2
  }
}
layer {
  name: "ip1"
  type: "InnerProduct"
  bottom: "pool1"
  top: "ip1"
  param {
    lr_mult: 1
  }
  param {
    lr_mult: 2
  }
  inner_product_param {
    num_output: 180
    weight_filler {
      type: "gaussian"
      std: 0.01
    }
    bias_filler {
      type: "constant"
    }
  }
}
layer {
  name: "relu1"
  type: "ReLU"
  bottom: "ip1"
  top: "ip1"
}
layer {
  name: "ip2"
  type: "InnerProduct"
  bottom: "ip1"
  top: "ip2"
  param {
    lr_mult: 1
  }
  param {
    lr_mult: 2
  }
  inner_product_param {
    num_output: 60
    weight_filler {
      type: "gaussian"
      std: 0.01
    }
    bias_filler {
      type: "constant"
    }
  }
}
layer {
  name: "relu2"
  type: "ReLU"
  bottom: "ip2"
  top: "ip2"
}
layer {
  name: "ip3"
  type: "InnerProduct"
  bottom: "ip2"
  top: "ip3"
  param {
    lr_mult: 1
  }
  param {
    lr_mult: 2
  }
  inner_product_param {
    num_output: 10
    weight_filler {
      type: "gaussian"
      std: 0.01
    }
    bias_filler {
      type: "constant"
    }
  }
}
layer {
  name: "loss"
  type: "SoftmaxWithLoss"
  bottom: "ip3"
  bottom: "label"
  top: "loss"
}
I0504 12:21:27.289382 28889 layer_factory.hpp:77] Creating layer cifar
I0504 12:21:27.289481 28889 db_lmdb.cpp:35] Opened lmdb examples/cifar10/cifar10_train_lmdb
I0504 12:21:27.289510 28889 net.cpp:86] Creating Layer cifar
I0504 12:21:27.289517 28889 net.cpp:382] cifar -> data
I0504 12:21:27.289539 28889 net.cpp:382] cifar -> label
I0504 12:21:27.289551 28889 data_transformer.cpp:25] Loading mean file from: examples/cifar10/mean.binaryproto
I0504 12:21:27.291725 28889 data_layer.cpp:45] output data size: 111,3,32,32
I0504 12:21:27.299932 28889 net.cpp:124] Setting up cifar
I0504 12:21:27.299949 28889 net.cpp:131] Top shape: 111 3 32 32 (340992)
I0504 12:21:27.299957 28889 net.cpp:131] Top shape: 111 (111)
I0504 12:21:27.299962 28889 net.cpp:139] Memory required for data: 1364412
I0504 12:21:27.299973 28889 layer_factory.hpp:77] Creating layer conv0
I0504 12:21:27.299995 28889 net.cpp:86] Creating Layer conv0
I0504 12:21:27.300004 28889 net.cpp:408] conv0 <- data
I0504 12:21:27.300021 28889 net.cpp:382] conv0 -> conv0
I0504 12:21:27.587035 28889 net.cpp:124] Setting up conv0
I0504 12:21:27.587059 28889 net.cpp:131] Top shape: 111 24 34 34 (3079584)
I0504 12:21:27.587064 28889 net.cpp:139] Memory required for data: 13682748
I0504 12:21:27.587080 28889 layer_factory.hpp:77] Creating layer Sigmoid0
I0504 12:21:27.587091 28889 net.cpp:86] Creating Layer Sigmoid0
I0504 12:21:27.587095 28889 net.cpp:408] Sigmoid0 <- conv0
I0504 12:21:27.587101 28889 net.cpp:382] Sigmoid0 -> Sigmoid0
I0504 12:21:27.587277 28889 net.cpp:124] Setting up Sigmoid0
I0504 12:21:27.587286 28889 net.cpp:131] Top shape: 111 24 34 34 (3079584)
I0504 12:21:27.587291 28889 net.cpp:139] Memory required for data: 26001084
I0504 12:21:27.587293 28889 layer_factory.hpp:77] Creating layer pool0
I0504 12:21:27.587299 28889 net.cpp:86] Creating Layer pool0
I0504 12:21:27.587302 28889 net.cpp:408] pool0 <- Sigmoid0
I0504 12:21:27.587307 28889 net.cpp:382] pool0 -> pool0
I0504 12:21:27.588045 28889 net.cpp:124] Setting up pool0
I0504 12:21:27.588058 28889 net.cpp:131] Top shape: 111 24 17 17 (769896)
I0504 12:21:27.588063 28889 net.cpp:139] Memory required for data: 29080668
I0504 12:21:27.588065 28889 layer_factory.hpp:77] Creating layer conv1
I0504 12:21:27.588078 28889 net.cpp:86] Creating Layer conv1
I0504 12:21:27.588081 28889 net.cpp:408] conv1 <- pool0
I0504 12:21:27.588086 28889 net.cpp:382] conv1 -> conv1
I0504 12:21:27.591933 28889 net.cpp:124] Setting up conv1
I0504 12:21:27.591946 28889 net.cpp:131] Top shape: 111 216 19 19 (8655336)
I0504 12:21:27.591950 28889 net.cpp:139] Memory required for data: 63702012
I0504 12:21:27.591958 28889 layer_factory.hpp:77] Creating layer Sigmoid1
I0504 12:21:27.591965 28889 net.cpp:86] Creating Layer Sigmoid1
I0504 12:21:27.591969 28889 net.cpp:408] Sigmoid1 <- conv1
I0504 12:21:27.591974 28889 net.cpp:382] Sigmoid1 -> Sigmoid1
I0504 12:21:27.592150 28889 net.cpp:124] Setting up Sigmoid1
I0504 12:21:27.592160 28889 net.cpp:131] Top shape: 111 216 19 19 (8655336)
I0504 12:21:27.592164 28889 net.cpp:139] Memory required for data: 98323356
I0504 12:21:27.592166 28889 layer_factory.hpp:77] Creating layer pool1
I0504 12:21:27.592172 28889 net.cpp:86] Creating Layer pool1
I0504 12:21:27.592176 28889 net.cpp:408] pool1 <- Sigmoid1
I0504 12:21:27.592180 28889 net.cpp:382] pool1 -> pool1
I0504 12:21:27.592339 28889 net.cpp:124] Setting up pool1
I0504 12:21:27.592347 28889 net.cpp:131] Top shape: 111 216 9 9 (1942056)
I0504 12:21:27.592350 28889 net.cpp:139] Memory required for data: 106091580
I0504 12:21:27.592353 28889 layer_factory.hpp:77] Creating layer ip1
I0504 12:21:27.592360 28889 net.cpp:86] Creating Layer ip1
I0504 12:21:27.592365 28889 net.cpp:408] ip1 <- pool1
I0504 12:21:27.592368 28889 net.cpp:382] ip1 -> ip1
I0504 12:21:27.673352 28889 net.cpp:124] Setting up ip1
I0504 12:21:27.673383 28889 net.cpp:131] Top shape: 111 180 (19980)
I0504 12:21:27.673388 28889 net.cpp:139] Memory required for data: 106171500
I0504 12:21:27.673395 28889 layer_factory.hpp:77] Creating layer relu1
I0504 12:21:27.673403 28889 net.cpp:86] Creating Layer relu1
I0504 12:21:27.673408 28889 net.cpp:408] relu1 <- ip1
I0504 12:21:27.673413 28889 net.cpp:369] relu1 -> ip1 (in-place)
I0504 12:21:27.673607 28889 net.cpp:124] Setting up relu1
I0504 12:21:27.673616 28889 net.cpp:131] Top shape: 111 180 (19980)
I0504 12:21:27.673619 28889 net.cpp:139] Memory required for data: 106251420
I0504 12:21:27.673622 28889 layer_factory.hpp:77] Creating layer ip2
I0504 12:21:27.673629 28889 net.cpp:86] Creating Layer ip2
I0504 12:21:27.673632 28889 net.cpp:408] ip2 <- ip1
I0504 12:21:27.673651 28889 net.cpp:382] ip2 -> ip2
I0504 12:21:27.674815 28889 net.cpp:124] Setting up ip2
I0504 12:21:27.674826 28889 net.cpp:131] Top shape: 111 60 (6660)
I0504 12:21:27.674829 28889 net.cpp:139] Memory required for data: 106278060
I0504 12:21:27.674834 28889 layer_factory.hpp:77] Creating layer relu2
I0504 12:21:27.674840 28889 net.cpp:86] Creating Layer relu2
I0504 12:21:27.674844 28889 net.cpp:408] relu2 <- ip2
I0504 12:21:27.674847 28889 net.cpp:369] relu2 -> ip2 (in-place)
I0504 12:21:27.675578 28889 net.cpp:124] Setting up relu2
I0504 12:21:27.675590 28889 net.cpp:131] Top shape: 111 60 (6660)
I0504 12:21:27.675592 28889 net.cpp:139] Memory required for data: 106304700
I0504 12:21:27.675595 28889 layer_factory.hpp:77] Creating layer ip3
I0504 12:21:27.675601 28889 net.cpp:86] Creating Layer ip3
I0504 12:21:27.675604 28889 net.cpp:408] ip3 <- ip2
I0504 12:21:27.675609 28889 net.cpp:382] ip3 -> ip3
I0504 12:21:27.675736 28889 net.cpp:124] Setting up ip3
I0504 12:21:27.675743 28889 net.cpp:131] Top shape: 111 10 (1110)
I0504 12:21:27.675746 28889 net.cpp:139] Memory required for data: 106309140
I0504 12:21:27.675755 28889 layer_factory.hpp:77] Creating layer loss
I0504 12:21:27.675760 28889 net.cpp:86] Creating Layer loss
I0504 12:21:27.675762 28889 net.cpp:408] loss <- ip3
I0504 12:21:27.675765 28889 net.cpp:408] loss <- label
I0504 12:21:27.675771 28889 net.cpp:382] loss -> loss
I0504 12:21:27.675787 28889 layer_factory.hpp:77] Creating layer loss
…
I0504 12:21:27.676481 28889 solver.cpp:173] Creating test net (#0) specified by net file: ECE595/cifar/train_test/var_everything_tiny/cifar_train_test_154.prototxt
I0504 12:21:27.676504 28889 net.cpp:296] The NetState phase (1) differed from the phase (0) specified by a rule in layer cifar
I0504 12:21:27.676609 28889 net.cpp:53] Initializing net from parameters: 
name: "CIFAR"
state {
  phase: TEST
}
layer {
  name: "cifar"
  type: "Data"
  top: "data"
  top: "label"
  include {
    phase: TEST
  }
  transform_param {
    mean_file: "examples/cifar10/mean.binaryproto"
  }
  data_param {
    source: "examples/cifar10/cifar10_test_lmdb"
    batch_size: 1000
    backend: LMDB
  }
}
layer {
  name: "conv0"
  type: "Convolution"
  bottom: "data"
  top: "conv0"
  param {
    lr_mult: 1
  }
  param {
    lr_mult: 2
  }
  convolution_param {
    num_output: 24
    pad: 2
    kernel_size: 3
    stride: 1
    weight_filler {
      type: "gaussian"
      std: 0.01
    }
    bias_filler {
      type: "constant"
    }
  }
}
layer {
  name: "Sigmoid0"
  type: "Sigmoid"
  bottom: "conv0"
  top: "Sigmoid0"
}
layer {
  name: "pool0"
  type: "Pooling"
  bottom: "Sigmoid0"
  top: "pool0"
  pooling_param {
    pool: AVE
    kernel_size: 3
    stride: 2
  }
}
layer {
  name: "conv1"
  type: "Convolution"
  bottom: "pool0"
  top: "conv1"
  param {
    lr_mult: 1
  }
  param {
    lr_mult: 2
  }
  convolution_param {
    num_output: 216
    pad: 2
    kernel_size: 3
    stride: 1
    weight_filler {
      type: "gaussian"
      std: 0.01
    }
    bias_filler {
      type: "constant"
    }
  }
}
layer {
  name: "Sigmoid1"
  type: "Sigmoid"
  bottom: "conv1"
  top: "Sigmoid1"
}
layer {
  name: "pool1"
  type: "Pooling"
  bottom: "Sigmoid1"
  top: "pool1"
  pooling_param {
    pool: AVE
    kernel_size: 3
    stride: 2
  }
}
layer {
  name: "ip1"
  type: "InnerProduct"
  bottom: "pool1"
  top: "ip1"
  param {
    lr_mult: 1
  }
  param {
    lr_mult: 2
  }
  inner_product_param {
    num_output: 180
    weight_filler {
      type: "gaussian"
      std: 0.01
    }
    bias_filler {
      type: "constant"
    }
  }
}
layer {
  name: "relu1"
  type: "ReLU"
  bottom: "ip1"
  top: "ip1"
}
layer {
  name: "ip2"
  type: "InnerProduct"
  bottom: "ip1"
  top: "ip2"
  param {
    lr_mult: 1
  }
  param {
    lr_mult: 2
  }
  inner_product_param {
    num_output: 60
    weight_filler {
      type: "gaussian"
      std: 0.01
    }
    bias_filler {
      type: "constant"
    }
  }
}
layer {
  name: "relu2"
  type: "ReLU"
  bottom: "ip2"
  top: "ip2"
}
layer {
  name: "ip3"
  type: "InnerProduct"
  bottom: "ip2"
  top: "ip3"
  param {
    lr_mult: 1
  }
  param {
    lr_mult: 2
  }
  inner_product_param {
    num_output: 10
    weight_filler {
      type: "gaussian"
      std: 0.01
    }
    bias_filler {
      type: "constant"
    }
  }
}
layer {
  name: "accuracy"
  type: "Accuracy"
  bottom: "ip3"
  bottom: "label"
  top: "accuracy"
  include {
    phase: TEST
  }
}
layer {
  name: "loss"
  type: "SoftmaxWithLoss"
  bottom: "ip3"
  bottom: "label"
  top: "loss"
}
I0504 12:21:27.676686 28889 layer_factory.hpp:77] Creating layer cifar
I0504 12:21:27.676730 28889 db_lmdb.cpp:35] Opened lmdb examples/cifar10/cifar10_test_lmdb
I0504 12:21:27.676741 28889 net.cpp:86] Creating Layer cifar
I0504 12:21:27.676746 28889 net.cpp:382] cifar -> data
I0504 12:21:27.676753 28889 net.cpp:382] cifar -> label
I0504 12:21:27.676759 28889 data_transformer.cpp:25] Loading mean file from: examples/cifar10/mean.binaryproto
I0504 12:21:27.676941 28889 data_layer.cpp:45] output data size: 1000,3,32,32
I0504 12:21:27.697996 28889 net.cpp:124] Setting up cifar
I0504 12:21:27.698051 28889 net.cpp:131] Top shape: 1000 3 32 32 (3072000)
I0504 12:21:27.698057 28889 net.cpp:131] Top shape: 1000 (1000)
I0504 12:21:27.698061 28889 net.cpp:139] Memory required for data: 12292000
I0504 12:21:27.698066 28889 layer_factory.hpp:77] Creating layer label_cifar_1_split
I0504 12:21:27.698083 28889 net.cpp:86] Creating Layer label_cifar_1_split
I0504 12:21:27.698087 28889 net.cpp:408] label_cifar_1_split <- label
I0504 12:21:27.698093 28889 net.cpp:382] label_cifar_1_split -> label_cifar_1_split_0
I0504 12:21:27.698117 28889 net.cpp:382] label_cifar_1_split -> label_cifar_1_split_1
I0504 12:21:27.698243 28889 net.cpp:124] Setting up label_cifar_1_split
I0504 12:21:27.698251 28889 net.cpp:131] Top shape: 1000 (1000)
I0504 12:21:27.698256 28889 net.cpp:131] Top shape: 1000 (1000)
I0504 12:21:27.698258 28889 net.cpp:139] Memory required for data: 12300000
I0504 12:21:27.698261 28889 layer_factory.hpp:77] Creating layer conv0
I0504 12:21:27.698272 28889 net.cpp:86] Creating Layer conv0
I0504 12:21:27.698276 28889 net.cpp:408] conv0 <- data
I0504 12:21:27.698282 28889 net.cpp:382] conv0 -> conv0
I0504 12:21:27.699870 28889 net.cpp:124] Setting up conv0
I0504 12:21:27.699898 28889 net.cpp:131] Top shape: 1000 24 34 34 (27744000)
I0504 12:21:27.699901 28889 net.cpp:139] Memory required for data: 123276000
I0504 12:21:27.699910 28889 layer_factory.hpp:77] Creating layer Sigmoid0
I0504 12:21:27.699916 28889 net.cpp:86] Creating Layer Sigmoid0
I0504 12:21:27.699919 28889 net.cpp:408] Sigmoid0 <- conv0
I0504 12:21:27.699924 28889 net.cpp:382] Sigmoid0 -> Sigmoid0
I0504 12:21:27.700106 28889 net.cpp:124] Setting up Sigmoid0
I0504 12:21:27.700127 28889 net.cpp:131] Top shape: 1000 24 34 34 (27744000)
I0504 12:21:27.700131 28889 net.cpp:139] Memory required for data: 234252000
I0504 12:21:27.700134 28889 layer_factory.hpp:77] Creating layer pool0
I0504 12:21:27.700142 28889 net.cpp:86] Creating Layer pool0
I0504 12:21:27.700145 28889 net.cpp:408] pool0 <- Sigmoid0
I0504 12:21:27.700150 28889 net.cpp:382] pool0 -> pool0
I0504 12:21:27.700328 28889 net.cpp:124] Setting up pool0
I0504 12:21:27.700336 28889 net.cpp:131] Top shape: 1000 24 17 17 (6936000)
I0504 12:21:27.700340 28889 net.cpp:139] Memory required for data: 261996000
I0504 12:21:27.700342 28889 layer_factory.hpp:77] Creating layer conv1
I0504 12:21:27.700351 28889 net.cpp:86] Creating Layer conv1
I0504 12:21:27.700356 28889 net.cpp:408] conv1 <- pool0
I0504 12:21:27.700361 28889 net.cpp:382] conv1 -> conv1
I0504 12:21:27.702952 28889 net.cpp:124] Setting up conv1
I0504 12:21:27.702965 28889 net.cpp:131] Top shape: 1000 216 19 19 (77976000)
I0504 12:21:27.702983 28889 net.cpp:139] Memory required for data: 573900000
I0504 12:21:27.702992 28889 layer_factory.hpp:77] Creating layer Sigmoid1
I0504 12:21:27.702998 28889 net.cpp:86] Creating Layer Sigmoid1
I0504 12:21:27.703001 28889 net.cpp:408] Sigmoid1 <- conv1
I0504 12:21:27.703006 28889 net.cpp:382] Sigmoid1 -> Sigmoid1
I0504 12:21:27.703181 28889 net.cpp:124] Setting up Sigmoid1
I0504 12:21:27.703191 28889 net.cpp:131] Top shape: 1000 216 19 19 (77976000)
I0504 12:21:27.703194 28889 net.cpp:139] Memory required for data: 885804000
I0504 12:21:27.703197 28889 layer_factory.hpp:77] Creating layer pool1
I0504 12:21:27.703202 28889 net.cpp:86] Creating Layer pool1
I0504 12:21:27.703207 28889 net.cpp:408] pool1 <- Sigmoid1
I0504 12:21:27.703210 28889 net.cpp:382] pool1 -> pool1
I0504 12:21:27.703965 28889 net.cpp:124] Setting up pool1
I0504 12:21:27.703976 28889 net.cpp:131] Top shape: 1000 216 9 9 (17496000)
I0504 12:21:27.703994 28889 net.cpp:139] Memory required for data: 955788000
I0504 12:21:27.703999 28889 layer_factory.hpp:77] Creating layer ip1
I0504 12:21:27.704007 28889 net.cpp:86] Creating Layer ip1
I0504 12:21:27.704010 28889 net.cpp:408] ip1 <- pool1
I0504 12:21:27.704015 28889 net.cpp:382] ip1 -> ip1
I0504 12:21:27.787145 28889 net.cpp:124] Setting up ip1
I0504 12:21:27.787183 28889 net.cpp:131] Top shape: 1000 180 (180000)
I0504 12:21:27.787186 28889 net.cpp:139] Memory required for data: 956508000
I0504 12:21:27.787197 28889 layer_factory.hpp:77] Creating layer relu1
I0504 12:21:27.787206 28889 net.cpp:86] Creating Layer relu1
I0504 12:21:27.787210 28889 net.cpp:408] relu1 <- ip1
I0504 12:21:27.787215 28889 net.cpp:369] relu1 -> ip1 (in-place)
I0504 12:21:27.787428 28889 net.cpp:124] Setting up relu1
I0504 12:21:27.787437 28889 net.cpp:131] Top shape: 1000 180 (180000)
I0504 12:21:27.787441 28889 net.cpp:139] Memory required for data: 957228000
I0504 12:21:27.787443 28889 layer_factory.hpp:77] Creating layer ip2
I0504 12:21:27.787451 28889 net.cpp:86] Creating Layer ip2
I0504 12:21:27.787454 28889 net.cpp:408] ip2 <- ip1
I0504 12:21:27.787459 28889 net.cpp:382] ip2 -> ip2
I0504 12:21:27.787900 28889 net.cpp:124] Setting up ip2
I0504 12:21:27.787907 28889 net.cpp:131] Top shape: 1000 60 (60000)
I0504 12:21:27.787925 28889 net.cpp:139] Memory required for data: 957468000
I0504 12:21:27.787930 28889 layer_factory.hpp:77] Creating layer relu2
I0504 12:21:27.787935 28889 net.cpp:86] Creating Layer relu2
I0504 12:21:27.787938 28889 net.cpp:408] relu2 <- ip2
I0504 12:21:27.787943 28889 net.cpp:369] relu2 -> ip2 (in-place)
I0504 12:21:27.788110 28889 net.cpp:124] Setting up relu2
I0504 12:21:27.788117 28889 net.cpp:131] Top shape: 1000 60 (60000)
I0504 12:21:27.788120 28889 net.cpp:139] Memory required for data: 957708000
I0504 12:21:27.788123 28889 layer_factory.hpp:77] Creating layer ip3
I0504 12:21:27.788130 28889 net.cpp:86] Creating Layer ip3
I0504 12:21:27.788132 28889 net.cpp:408] ip3 <- ip2
I0504 12:21:27.788137 28889 net.cpp:382] ip3 -> ip3
I0504 12:21:27.788276 28889 net.cpp:124] Setting up ip3
I0504 12:21:27.788296 28889 net.cpp:131] Top shape: 1000 10 (10000)
I0504 12:21:27.788300 28889 net.cpp:139] Memory required for data: 957748000
I0504 12:21:27.788307 28889 layer_factory.hpp:77] Creating layer ip3_ip3_0_split
I0504 12:21:27.788312 28889 net.cpp:86] Creating Layer ip3_ip3_0_split
I0504 12:21:27.788316 28889 net.cpp:408] ip3_ip3_0_split <- ip3
I0504 12:21:27.788319 28889 net.cpp:382] ip3_ip3_0_split -> ip3_ip3_0_split_0
I0504 12:21:27.788326 28889 net.cpp:382] ip3_ip3_0_split -> ip3_ip3_0_split_1
I0504 12:21:27.788357 28889 net.cpp:124] Setting up ip3_ip3_0_split
I0504 12:21:27.788365 28889 net.cpp:131] Top shape: 1000 10 (10000)
I0504 12:21:27.788368 28889 net.cpp:131] Top shape: 1000 10 (10000)
I0504 12:21:27.788372 28889 net.cpp:139] Memory required for data: 957828000
I0504 12:21:27.788374 28889 layer_factory.hpp:77] Creating layer accuracy
I0504 12:21:27.788379 28889 net.cpp:86] Creating Layer accuracy
I0504 12:21:27.788383 28889 net.cpp:408] accuracy <- ip3_ip3_0_split_0
I0504 12:21:27.788388 28889 net.cpp:408] accuracy <- label_cifar_1_split_0
I0504 12:21:27.788393 28889 net.cpp:382] accuracy -> accuracy
…
