…
I0503 23:58:26.780472  4381 net.cpp:296] The NetState phase (0) differed from the phase (1) specified by a rule in layer cifar
I0503 23:58:26.780489  4381 net.cpp:296] The NetState phase (0) differed from the phase (1) specified by a rule in layer accuracy
I0503 23:58:26.780582  4381 net.cpp:53] Initializing net from parameters: 
name: "CIFAR"
state {
  phase: TRAIN
  level: 0
  stage: ""
}
layer {
  name: "cifar"
  type: "Data"
  top: "data"
  top: "label"
  include {
    phase: TRAIN
  }
  transform_param {
    mean_file: "examples/cifar10/mean.binaryproto"
  }
  data_param {
    source: "examples/cifar10/cifar10_train_lmdb"
    batch_size: 111
    backend: LMDB
  }
}
layer {
  name: "conv0"
  type: "Convolution"
  bottom: "data"
  top: "conv0"
  param {
    lr_mult: 1
  }
  param {
    lr_mult: 2
  }
  convolution_param {
    num_output: 24
    pad: 2
    kernel_size: 3
    stride: 1
    weight_filler {
      type: "gaussian"
      std: 0.01
    }
    bias_filler {
      type: "constant"
    }
  }
}
layer {
  name: "Sigmoid0"
  type: "Sigmoid"
  bottom: "conv0"
  top: "Sigmoid0"
}
layer {
  name: "pool0"
  type: "Pooling"
  bottom: "Sigmoid0"
  top: "pool0"
  pooling_param {
    pool: AVE
    kernel_size: 3
    stride: 2
  }
}
layer {
  name: "ip1"
  type: "InnerProduct"
  bottom: "pool0"
  top: "ip1"
  param {
    lr_mult: 1
  }
  param {
    lr_mult: 2
  }
  inner_product_param {
    num_output: 60
    weight_filler {
      type: "gaussian"
      std: 0.01
    }
    bias_filler {
      type: "constant"
    }
  }
}
layer {
  name: "relu1"
  type: "ReLU"
  bottom: "ip1"
  top: "ip1"
}
layer {
  name: "ip2"
  type: "InnerProduct"
  bottom: "ip1"
  top: "ip2"
  param {
    lr_mult: 1
  }
  param {
    lr_mult: 2
  }
  inner_product_param {
    num_output: 10
    weight_filler {
      type: "gaussian"
      std: 0.01
    }
    bias_filler {
      type: "constant"
    }
  }
}
layer {
  name: "relu2"
  type: "ReLU"
  bottom: "ip2"
  top: "ip2"
}
layer {
  name: "ip3"
  type: "InnerProduct"
  bottom: "ip2"
  top: "ip3"
  param {
    lr_mult: 1
  }
  param {
    lr_mult: 2
  }
  inner_product_param {
    num_output: 10
    weight_filler {
      type: "gaussian"
      std: 0.01
    }
    bias_filler {
      type: "constant"
    }
  }
}
layer {
  name: "loss"
  type: "SoftmaxWithLoss"
  bottom: "ip3"
  bottom: "label"
  top: "loss"
}
I0503 23:58:26.780659  4381 layer_factory.hpp:77] Creating layer cifar
I0503 23:58:26.780760  4381 db_lmdb.cpp:35] Opened lmdb examples/cifar10/cifar10_train_lmdb
I0503 23:58:26.780787  4381 net.cpp:86] Creating Layer cifar
I0503 23:58:26.780796  4381 net.cpp:382] cifar -> data
I0503 23:58:26.780827  4381 net.cpp:382] cifar -> label
I0503 23:58:26.780840  4381 data_transformer.cpp:25] Loading mean file from: examples/cifar10/mean.binaryproto
I0503 23:58:26.782963  4381 data_layer.cpp:45] output data size: 111,3,32,32
I0503 23:58:26.790853  4381 net.cpp:124] Setting up cifar
I0503 23:58:26.790873  4381 net.cpp:131] Top shape: 111 3 32 32 (340992)
I0503 23:58:26.790880  4381 net.cpp:131] Top shape: 111 (111)
I0503 23:58:26.790884  4381 net.cpp:139] Memory required for data: 1364412
I0503 23:58:26.790892  4381 layer_factory.hpp:77] Creating layer conv0
I0503 23:58:26.790910  4381 net.cpp:86] Creating Layer conv0
I0503 23:58:26.790915  4381 net.cpp:408] conv0 <- data
I0503 23:58:26.790930  4381 net.cpp:382] conv0 -> conv0
I0503 23:58:27.078435  4381 net.cpp:124] Setting up conv0
I0503 23:58:27.078481  4381 net.cpp:131] Top shape: 111 24 34 34 (3079584)
I0503 23:58:27.078486  4381 net.cpp:139] Memory required for data: 13682748
I0503 23:58:27.078502  4381 layer_factory.hpp:77] Creating layer Sigmoid0
I0503 23:58:27.078513  4381 net.cpp:86] Creating Layer Sigmoid0
I0503 23:58:27.078518  4381 net.cpp:408] Sigmoid0 <- conv0
I0503 23:58:27.078524  4381 net.cpp:382] Sigmoid0 -> Sigmoid0
I0503 23:58:27.078707  4381 net.cpp:124] Setting up Sigmoid0
I0503 23:58:27.078717  4381 net.cpp:131] Top shape: 111 24 34 34 (3079584)
I0503 23:58:27.078722  4381 net.cpp:139] Memory required for data: 26001084
I0503 23:58:27.078724  4381 layer_factory.hpp:77] Creating layer pool0
I0503 23:58:27.078732  4381 net.cpp:86] Creating Layer pool0
I0503 23:58:27.078735  4381 net.cpp:408] pool0 <- Sigmoid0
I0503 23:58:27.078739  4381 net.cpp:382] pool0 -> pool0
I0503 23:58:27.079495  4381 net.cpp:124] Setting up pool0
I0503 23:58:27.079509  4381 net.cpp:131] Top shape: 111 24 17 17 (769896)
I0503 23:58:27.079514  4381 net.cpp:139] Memory required for data: 29080668
I0503 23:58:27.079517  4381 layer_factory.hpp:77] Creating layer ip1
I0503 23:58:27.079526  4381 net.cpp:86] Creating Layer ip1
I0503 23:58:27.079530  4381 net.cpp:408] ip1 <- pool0
I0503 23:58:27.079535  4381 net.cpp:382] ip1 -> ip1
I0503 23:58:27.091644  4381 net.cpp:124] Setting up ip1
I0503 23:58:27.091656  4381 net.cpp:131] Top shape: 111 60 (6660)
I0503 23:58:27.091660  4381 net.cpp:139] Memory required for data: 29107308
I0503 23:58:27.091668  4381 layer_factory.hpp:77] Creating layer relu1
I0503 23:58:27.091675  4381 net.cpp:86] Creating Layer relu1
I0503 23:58:27.091678  4381 net.cpp:408] relu1 <- ip1
I0503 23:58:27.091682  4381 net.cpp:369] relu1 -> ip1 (in-place)
I0503 23:58:27.091857  4381 net.cpp:124] Setting up relu1
I0503 23:58:27.091867  4381 net.cpp:131] Top shape: 111 60 (6660)
I0503 23:58:27.091871  4381 net.cpp:139] Memory required for data: 29133948
I0503 23:58:27.091874  4381 layer_factory.hpp:77] Creating layer ip2
I0503 23:58:27.091881  4381 net.cpp:86] Creating Layer ip2
I0503 23:58:27.091884  4381 net.cpp:408] ip2 <- ip1
I0503 23:58:27.091889  4381 net.cpp:382] ip2 -> ip2
I0503 23:58:27.092000  4381 net.cpp:124] Setting up ip2
I0503 23:58:27.092006  4381 net.cpp:131] Top shape: 111 10 (1110)
I0503 23:58:27.092010  4381 net.cpp:139] Memory required for data: 29138388
I0503 23:58:27.092017  4381 layer_factory.hpp:77] Creating layer relu2
I0503 23:58:27.092023  4381 net.cpp:86] Creating Layer relu2
I0503 23:58:27.092026  4381 net.cpp:408] relu2 <- ip2
I0503 23:58:27.092031  4381 net.cpp:369] relu2 -> ip2 (in-place)
I0503 23:58:27.092193  4381 net.cpp:124] Setting up relu2
I0503 23:58:27.092201  4381 net.cpp:131] Top shape: 111 10 (1110)
I0503 23:58:27.092205  4381 net.cpp:139] Memory required for data: 29142828
I0503 23:58:27.092208  4381 layer_factory.hpp:77] Creating layer ip3
I0503 23:58:27.092216  4381 net.cpp:86] Creating Layer ip3
I0503 23:58:27.092218  4381 net.cpp:408] ip3 <- ip2
I0503 23:58:27.092223  4381 net.cpp:382] ip3 -> ip3
I0503 23:58:27.092315  4381 net.cpp:124] Setting up ip3
I0503 23:58:27.092322  4381 net.cpp:131] Top shape: 111 10 (1110)
I0503 23:58:27.092325  4381 net.cpp:139] Memory required for data: 29147268
I0503 23:58:27.092330  4381 layer_factory.hpp:77] Creating layer loss
I0503 23:58:27.092336  4381 net.cpp:86] Creating Layer loss
I0503 23:58:27.092339  4381 net.cpp:408] loss <- ip3
I0503 23:58:27.092344  4381 net.cpp:408] loss <- label
I0503 23:58:27.092348  4381 net.cpp:382] loss -> loss
I0503 23:58:27.092366  4381 layer_factory.hpp:77] Creating layer loss
…
I0503 23:58:27.092984  4381 solver.cpp:173] Creating test net (#0) specified by net file: ECE595/cifar/train_test/var_everything_tiny/cifar_train_test_6.prototxt
I0503 23:58:27.093011  4381 net.cpp:296] The NetState phase (1) differed from the phase (0) specified by a rule in layer cifar
I0503 23:58:27.093098  4381 net.cpp:53] Initializing net from parameters: 
name: "CIFAR"
state {
  phase: TEST
}
layer {
  name: "cifar"
  type: "Data"
  top: "data"
  top: "label"
  include {
    phase: TEST
  }
  transform_param {
    mean_file: "examples/cifar10/mean.binaryproto"
  }
  data_param {
    source: "examples/cifar10/cifar10_test_lmdb"
    batch_size: 1000
    backend: LMDB
  }
}
layer {
  name: "conv0"
  type: "Convolution"
  bottom: "data"
  top: "conv0"
  param {
    lr_mult: 1
  }
  param {
    lr_mult: 2
  }
  convolution_param {
    num_output: 24
    pad: 2
    kernel_size: 3
    stride: 1
    weight_filler {
      type: "gaussian"
      std: 0.01
    }
    bias_filler {
      type: "constant"
    }
  }
}
layer {
  name: "Sigmoid0"
  type: "Sigmoid"
  bottom: "conv0"
  top: "Sigmoid0"
}
layer {
  name: "pool0"
  type: "Pooling"
  bottom: "Sigmoid0"
  top: "pool0"
  pooling_param {
    pool: AVE
    kernel_size: 3
    stride: 2
  }
}
layer {
  name: "ip1"
  type: "InnerProduct"
  bottom: "pool0"
  top: "ip1"
  param {
    lr_mult: 1
  }
  param {
    lr_mult: 2
  }
  inner_product_param {
    num_output: 60
    weight_filler {
      type: "gaussian"
      std: 0.01
    }
    bias_filler {
      type: "constant"
    }
  }
}
layer {
  name: "relu1"
  type: "ReLU"
  bottom: "ip1"
  top: "ip1"
}
layer {
  name: "ip2"
  type: "InnerProduct"
  bottom: "ip1"
  top: "ip2"
  param {
    lr_mult: 1
  }
  param {
    lr_mult: 2
  }
  inner_product_param {
    num_output: 10
    weight_filler {
      type: "gaussian"
      std: 0.01
    }
    bias_filler {
      type: "constant"
    }
  }
}
layer {
  name: "relu2"
  type: "ReLU"
  bottom: "ip2"
  top: "ip2"
}
layer {
  name: "ip3"
  type: "InnerProduct"
  bottom: "ip2"
  top: "ip3"
  param {
    lr_mult: 1
  }
  param {
    lr_mult: 2
  }
  inner_product_param {
    num_output: 10
    weight_filler {
      type: "gaussian"
      std: 0.01
    }
    bias_filler {
      type: "constant"
    }
  }
}
layer {
  name: "accuracy"
  type: "Accuracy"
  bottom: "ip3"
  bottom: "label"
  top: "accuracy"
  include {
    phase: TEST
  }
}
layer {
  name: "loss"
  type: "SoftmaxWithLoss"
  bottom: "ip3"
  bottom: "label"
  top: "loss"
}
I0503 23:58:27.093178  4381 layer_factory.hpp:77] Creating layer cifar
I0503 23:58:27.093222  4381 db_lmdb.cpp:35] Opened lmdb examples/cifar10/cifar10_test_lmdb
I0503 23:58:27.093233  4381 net.cpp:86] Creating Layer cifar
I0503 23:58:27.093238  4381 net.cpp:382] cifar -> data
I0503 23:58:27.093246  4381 net.cpp:382] cifar -> label
I0503 23:58:27.093252  4381 data_transformer.cpp:25] Loading mean file from: examples/cifar10/mean.binaryproto
I0503 23:58:27.093400  4381 data_layer.cpp:45] output data size: 1000,3,32,32
I0503 23:58:27.115165  4381 net.cpp:124] Setting up cifar
I0503 23:58:27.115208  4381 net.cpp:131] Top shape: 1000 3 32 32 (3072000)
I0503 23:58:27.115214  4381 net.cpp:131] Top shape: 1000 (1000)
I0503 23:58:27.115217  4381 net.cpp:139] Memory required for data: 12292000
I0503 23:58:27.115226  4381 layer_factory.hpp:77] Creating layer label_cifar_1_split
I0503 23:58:27.115243  4381 net.cpp:86] Creating Layer label_cifar_1_split
I0503 23:58:27.115280  4381 net.cpp:408] label_cifar_1_split <- label
I0503 23:58:27.115288  4381 net.cpp:382] label_cifar_1_split -> label_cifar_1_split_0
I0503 23:58:27.115296  4381 net.cpp:382] label_cifar_1_split -> label_cifar_1_split_1
I0503 23:58:27.115348  4381 net.cpp:124] Setting up label_cifar_1_split
I0503 23:58:27.115360  4381 net.cpp:131] Top shape: 1000 (1000)
I0503 23:58:27.115363  4381 net.cpp:131] Top shape: 1000 (1000)
I0503 23:58:27.115365  4381 net.cpp:139] Memory required for data: 12300000
I0503 23:58:27.115368  4381 layer_factory.hpp:77] Creating layer conv0
I0503 23:58:27.115381  4381 net.cpp:86] Creating Layer conv0
I0503 23:58:27.115384  4381 net.cpp:408] conv0 <- data
I0503 23:58:27.115391  4381 net.cpp:382] conv0 -> conv0
I0503 23:58:27.117080  4381 net.cpp:124] Setting up conv0
I0503 23:58:27.117110  4381 net.cpp:131] Top shape: 1000 24 34 34 (27744000)
I0503 23:58:27.117115  4381 net.cpp:139] Memory required for data: 123276000
I0503 23:58:27.117139  4381 layer_factory.hpp:77] Creating layer Sigmoid0
I0503 23:58:27.117147  4381 net.cpp:86] Creating Layer Sigmoid0
I0503 23:58:27.117151  4381 net.cpp:408] Sigmoid0 <- conv0
I0503 23:58:27.117156  4381 net.cpp:382] Sigmoid0 -> Sigmoid0
I0503 23:58:27.119022  4381 net.cpp:124] Setting up Sigmoid0
I0503 23:58:27.119051  4381 net.cpp:131] Top shape: 1000 24 34 34 (27744000)
I0503 23:58:27.119055  4381 net.cpp:139] Memory required for data: 234252000
I0503 23:58:27.119060  4381 layer_factory.hpp:77] Creating layer pool0
I0503 23:58:27.119067  4381 net.cpp:86] Creating Layer pool0
I0503 23:58:27.119071  4381 net.cpp:408] pool0 <- Sigmoid0
I0503 23:58:27.119091  4381 net.cpp:382] pool0 -> pool0
I0503 23:58:27.119292  4381 net.cpp:124] Setting up pool0
I0503 23:58:27.119302  4381 net.cpp:131] Top shape: 1000 24 17 17 (6936000)
I0503 23:58:27.119305  4381 net.cpp:139] Memory required for data: 261996000
I0503 23:58:27.119310  4381 layer_factory.hpp:77] Creating layer ip1
I0503 23:58:27.119318  4381 net.cpp:86] Creating Layer ip1
I0503 23:58:27.119323  4381 net.cpp:408] ip1 <- pool0
I0503 23:58:27.119328  4381 net.cpp:382] ip1 -> ip1
I0503 23:58:27.131383  4381 net.cpp:124] Setting up ip1
I0503 23:58:27.131412  4381 net.cpp:131] Top shape: 1000 60 (60000)
I0503 23:58:27.131417  4381 net.cpp:139] Memory required for data: 262236000
I0503 23:58:27.131428  4381 layer_factory.hpp:77] Creating layer relu1
I0503 23:58:27.131435  4381 net.cpp:86] Creating Layer relu1
I0503 23:58:27.131439  4381 net.cpp:408] relu1 <- ip1
I0503 23:58:27.131443  4381 net.cpp:369] relu1 -> ip1 (in-place)
I0503 23:58:27.131647  4381 net.cpp:124] Setting up relu1
I0503 23:58:27.131656  4381 net.cpp:131] Top shape: 1000 60 (60000)
I0503 23:58:27.131660  4381 net.cpp:139] Memory required for data: 262476000
I0503 23:58:27.131664  4381 layer_factory.hpp:77] Creating layer ip2
I0503 23:58:27.131672  4381 net.cpp:86] Creating Layer ip2
I0503 23:58:27.131675  4381 net.cpp:408] ip2 <- ip1
I0503 23:58:27.131680  4381 net.cpp:382] ip2 -> ip2
I0503 23:58:27.131809  4381 net.cpp:124] Setting up ip2
I0503 23:58:27.131816  4381 net.cpp:131] Top shape: 1000 10 (10000)
I0503 23:58:27.131819  4381 net.cpp:139] Memory required for data: 262516000
I0503 23:58:27.131827  4381 layer_factory.hpp:77] Creating layer relu2
I0503 23:58:27.131835  4381 net.cpp:86] Creating Layer relu2
I0503 23:58:27.131839  4381 net.cpp:408] relu2 <- ip2
I0503 23:58:27.131844  4381 net.cpp:369] relu2 -> ip2 (in-place)
I0503 23:58:27.132010  4381 net.cpp:124] Setting up relu2
I0503 23:58:27.132019  4381 net.cpp:131] Top shape: 1000 10 (10000)
I0503 23:58:27.132021  4381 net.cpp:139] Memory required for data: 262556000
I0503 23:58:27.132025  4381 layer_factory.hpp:77] Creating layer ip3
I0503 23:58:27.132031  4381 net.cpp:86] Creating Layer ip3
I0503 23:58:27.132036  4381 net.cpp:408] ip3 <- ip2
I0503 23:58:27.132041  4381 net.cpp:382] ip3 -> ip3
I0503 23:58:27.132148  4381 net.cpp:124] Setting up ip3
I0503 23:58:27.132154  4381 net.cpp:131] Top shape: 1000 10 (10000)
I0503 23:58:27.132169  4381 net.cpp:139] Memory required for data: 262596000
I0503 23:58:27.132174  4381 layer_factory.hpp:77] Creating layer ip3_ip3_0_split
I0503 23:58:27.132179  4381 net.cpp:86] Creating Layer ip3_ip3_0_split
I0503 23:58:27.132182  4381 net.cpp:408] ip3_ip3_0_split <- ip3
I0503 23:58:27.132190  4381 net.cpp:382] ip3_ip3_0_split -> ip3_ip3_0_split_0
I0503 23:58:27.132196  4381 net.cpp:382] ip3_ip3_0_split -> ip3_ip3_0_split_1
I0503 23:58:27.132227  4381 net.cpp:124] Setting up ip3_ip3_0_split
I0503 23:58:27.132232  4381 net.cpp:131] Top shape: 1000 10 (10000)
I0503 23:58:27.132252  4381 net.cpp:131] Top shape: 1000 10 (10000)
I0503 23:58:27.132256  4381 net.cpp:139] Memory required for data: 262676000
I0503 23:58:27.132258  4381 layer_factory.hpp:77] Creating layer accuracy
I0503 23:58:27.132266  4381 net.cpp:86] Creating Layer accuracy
I0503 23:58:27.132269  4381 net.cpp:408] accuracy <- ip3_ip3_0_split_0
I0503 23:58:27.132273  4381 net.cpp:408] accuracy <- label_cifar_1_split_0
I0503 23:58:27.132277  4381 net.cpp:382] accuracy -> accuracy
…
