…
I0504 08:38:19.108341 22188 net.cpp:296] The NetState phase (0) differed from the phase (1) specified by a rule in layer cifar
I0504 08:38:19.108361 22188 net.cpp:296] The NetState phase (0) differed from the phase (1) specified by a rule in layer accuracy
I0504 08:38:19.108475 22188 net.cpp:53] Initializing net from parameters: 
name: "CIFAR"
state {
  phase: TRAIN
  level: 0
  stage: ""
}
layer {
  name: "cifar"
  type: "Data"
  top: "data"
  top: "label"
  include {
    phase: TRAIN
  }
  transform_param {
    mean_file: "examples/cifar10/mean.binaryproto"
  }
  data_param {
    source: "examples/cifar10/cifar10_train_lmdb"
    batch_size: 111
    backend: LMDB
  }
}
layer {
  name: "conv0"
  type: "Convolution"
  bottom: "data"
  top: "conv0"
  param {
    lr_mult: 1
  }
  param {
    lr_mult: 2
  }
  convolution_param {
    num_output: 24
    pad: 2
    kernel_size: 5
    stride: 1
    weight_filler {
      type: "gaussian"
      std: 0.01
    }
    bias_filler {
      type: "constant"
    }
  }
}
layer {
  name: "Sigmoid0"
  type: "Sigmoid"
  bottom: "conv0"
  top: "Sigmoid0"
}
layer {
  name: "pool0"
  type: "Pooling"
  bottom: "Sigmoid0"
  top: "pool0"
  pooling_param {
    pool: AVE
    kernel_size: 3
    stride: 2
  }
}
layer {
  name: "conv1"
  type: "Convolution"
  bottom: "pool0"
  top: "conv1"
  param {
    lr_mult: 1
  }
  param {
    lr_mult: 2
  }
  convolution_param {
    num_output: 24
    pad: 2
    kernel_size: 5
    stride: 1
    weight_filler {
      type: "gaussian"
      std: 0.01
    }
    bias_filler {
      type: "constant"
    }
  }
}
layer {
  name: "Sigmoid1"
  type: "Sigmoid"
  bottom: "conv1"
  top: "Sigmoid1"
}
layer {
  name: "pool1"
  type: "Pooling"
  bottom: "Sigmoid1"
  top: "pool1"
  pooling_param {
    pool: AVE
    kernel_size: 3
    stride: 2
  }
}
layer {
  name: "ip1"
  type: "InnerProduct"
  bottom: "pool1"
  top: "ip1"
  param {
    lr_mult: 1
  }
  param {
    lr_mult: 2
  }
  inner_product_param {
    num_output: 180
    weight_filler {
      type: "gaussian"
      std: 0.01
    }
    bias_filler {
      type: "constant"
    }
  }
}
layer {
  name: "relu1"
  type: "ReLU"
  bottom: "ip1"
  top: "ip1"
}
layer {
  name: "ip2"
  type: "InnerProduct"
  bottom: "ip1"
  top: "ip2"
  param {
    lr_mult: 1
  }
  param {
    lr_mult: 2
  }
  inner_product_param {
    num_output: 60
    weight_filler {
      type: "gaussian"
      std: 0.01
    }
    bias_filler {
      type: "constant"
    }
  }
}
layer {
  name: "relu2"
  type: "ReLU"
  bottom: "ip2"
  top: "ip2"
}
layer {
  name: "ip3"
  type: "InnerProduct"
  bottom: "ip2"
  top: "ip3"
  param {
    lr_mult: 1
  }
  param {
    lr_mult: 2
  }
  inner_product_param {
    num_output: 10
    weight_filler {
      type: "gaussian"
      std: 0.01
    }
    bias_filler {
      type: "constant"
    }
  }
}
layer {
  name: "loss"
  type: "SoftmaxWithLoss"
  bottom: "ip3"
  bottom: "label"
  top: "loss"
}
I0504 08:38:19.108557 22188 layer_factory.hpp:77] Creating layer cifar
I0504 08:38:19.108654 22188 db_lmdb.cpp:35] Opened lmdb examples/cifar10/cifar10_train_lmdb
I0504 08:38:19.108681 22188 net.cpp:86] Creating Layer cifar
I0504 08:38:19.108690 22188 net.cpp:382] cifar -> data
I0504 08:38:19.108713 22188 net.cpp:382] cifar -> label
I0504 08:38:19.108726 22188 data_transformer.cpp:25] Loading mean file from: examples/cifar10/mean.binaryproto
I0504 08:38:19.110893 22188 data_layer.cpp:45] output data size: 111,3,32,32
I0504 08:38:19.118880 22188 net.cpp:124] Setting up cifar
I0504 08:38:19.118899 22188 net.cpp:131] Top shape: 111 3 32 32 (340992)
I0504 08:38:19.118906 22188 net.cpp:131] Top shape: 111 (111)
I0504 08:38:19.118909 22188 net.cpp:139] Memory required for data: 1364412
I0504 08:38:19.118916 22188 layer_factory.hpp:77] Creating layer conv0
I0504 08:38:19.118935 22188 net.cpp:86] Creating Layer conv0
I0504 08:38:19.118940 22188 net.cpp:408] conv0 <- data
I0504 08:38:19.118953 22188 net.cpp:382] conv0 -> conv0
I0504 08:38:19.411244 22188 net.cpp:124] Setting up conv0
I0504 08:38:19.411274 22188 net.cpp:131] Top shape: 111 24 32 32 (2727936)
I0504 08:38:19.411279 22188 net.cpp:139] Memory required for data: 12276156
I0504 08:38:19.411298 22188 layer_factory.hpp:77] Creating layer Sigmoid0
I0504 08:38:19.411309 22188 net.cpp:86] Creating Layer Sigmoid0
I0504 08:38:19.411314 22188 net.cpp:408] Sigmoid0 <- conv0
I0504 08:38:19.411320 22188 net.cpp:382] Sigmoid0 -> Sigmoid0
I0504 08:38:19.411517 22188 net.cpp:124] Setting up Sigmoid0
I0504 08:38:19.411528 22188 net.cpp:131] Top shape: 111 24 32 32 (2727936)
I0504 08:38:19.411537 22188 net.cpp:139] Memory required for data: 23187900
I0504 08:38:19.411541 22188 layer_factory.hpp:77] Creating layer pool0
I0504 08:38:19.411548 22188 net.cpp:86] Creating Layer pool0
I0504 08:38:19.411552 22188 net.cpp:408] pool0 <- Sigmoid0
I0504 08:38:19.411557 22188 net.cpp:382] pool0 -> pool0
I0504 08:38:19.412377 22188 net.cpp:124] Setting up pool0
I0504 08:38:19.412392 22188 net.cpp:131] Top shape: 111 24 16 16 (681984)
I0504 08:38:19.412395 22188 net.cpp:139] Memory required for data: 25915836
I0504 08:38:19.412400 22188 layer_factory.hpp:77] Creating layer conv1
I0504 08:38:19.412413 22188 net.cpp:86] Creating Layer conv1
I0504 08:38:19.412417 22188 net.cpp:408] conv1 <- pool0
I0504 08:38:19.412423 22188 net.cpp:382] conv1 -> conv1
I0504 08:38:19.415676 22188 net.cpp:124] Setting up conv1
I0504 08:38:19.415691 22188 net.cpp:131] Top shape: 111 24 16 16 (681984)
I0504 08:38:19.415695 22188 net.cpp:139] Memory required for data: 28643772
I0504 08:38:19.415705 22188 layer_factory.hpp:77] Creating layer Sigmoid1
I0504 08:38:19.415712 22188 net.cpp:86] Creating Layer Sigmoid1
I0504 08:38:19.415715 22188 net.cpp:408] Sigmoid1 <- conv1
I0504 08:38:19.415722 22188 net.cpp:382] Sigmoid1 -> Sigmoid1
I0504 08:38:19.415901 22188 net.cpp:124] Setting up Sigmoid1
I0504 08:38:19.415911 22188 net.cpp:131] Top shape: 111 24 16 16 (681984)
I0504 08:38:19.415915 22188 net.cpp:139] Memory required for data: 31371708
I0504 08:38:19.415918 22188 layer_factory.hpp:77] Creating layer pool1
I0504 08:38:19.415925 22188 net.cpp:86] Creating Layer pool1
I0504 08:38:19.415928 22188 net.cpp:408] pool1 <- Sigmoid1
I0504 08:38:19.415933 22188 net.cpp:382] pool1 -> pool1
I0504 08:38:19.416111 22188 net.cpp:124] Setting up pool1
I0504 08:38:19.416121 22188 net.cpp:131] Top shape: 111 24 8 8 (170496)
I0504 08:38:19.416124 22188 net.cpp:139] Memory required for data: 32053692
I0504 08:38:19.416127 22188 layer_factory.hpp:77] Creating layer ip1
I0504 08:38:19.416136 22188 net.cpp:86] Creating Layer ip1
I0504 08:38:19.416138 22188 net.cpp:408] ip1 <- pool1
I0504 08:38:19.416143 22188 net.cpp:382] ip1 -> ip1
I0504 08:38:19.425140 22188 net.cpp:124] Setting up ip1
I0504 08:38:19.425153 22188 net.cpp:131] Top shape: 111 180 (19980)
I0504 08:38:19.425158 22188 net.cpp:139] Memory required for data: 32133612
I0504 08:38:19.425166 22188 layer_factory.hpp:77] Creating layer relu1
I0504 08:38:19.425174 22188 net.cpp:86] Creating Layer relu1
I0504 08:38:19.425178 22188 net.cpp:408] relu1 <- ip1
I0504 08:38:19.425184 22188 net.cpp:369] relu1 -> ip1 (in-place)
I0504 08:38:19.425364 22188 net.cpp:124] Setting up relu1
I0504 08:38:19.425372 22188 net.cpp:131] Top shape: 111 180 (19980)
I0504 08:38:19.425375 22188 net.cpp:139] Memory required for data: 32213532
I0504 08:38:19.425379 22188 layer_factory.hpp:77] Creating layer ip2
I0504 08:38:19.425385 22188 net.cpp:86] Creating Layer ip2
I0504 08:38:19.425390 22188 net.cpp:408] ip2 <- ip1
I0504 08:38:19.425410 22188 net.cpp:382] ip2 -> ip2
I0504 08:38:19.425817 22188 net.cpp:124] Setting up ip2
I0504 08:38:19.425824 22188 net.cpp:131] Top shape: 111 60 (6660)
I0504 08:38:19.425827 22188 net.cpp:139] Memory required for data: 32240172
I0504 08:38:19.425833 22188 layer_factory.hpp:77] Creating layer relu2
I0504 08:38:19.425838 22188 net.cpp:86] Creating Layer relu2
I0504 08:38:19.425842 22188 net.cpp:408] relu2 <- ip2
I0504 08:38:19.425845 22188 net.cpp:369] relu2 -> ip2 (in-place)
I0504 08:38:19.426587 22188 net.cpp:124] Setting up relu2
I0504 08:38:19.426600 22188 net.cpp:131] Top shape: 111 60 (6660)
I0504 08:38:19.426604 22188 net.cpp:139] Memory required for data: 32266812
I0504 08:38:19.426607 22188 layer_factory.hpp:77] Creating layer ip3
I0504 08:38:19.426614 22188 net.cpp:86] Creating Layer ip3
I0504 08:38:19.426617 22188 net.cpp:408] ip3 <- ip2
I0504 08:38:19.426623 22188 net.cpp:382] ip3 -> ip3
I0504 08:38:19.426738 22188 net.cpp:124] Setting up ip3
I0504 08:38:19.426745 22188 net.cpp:131] Top shape: 111 10 (1110)
I0504 08:38:19.426749 22188 net.cpp:139] Memory required for data: 32271252
I0504 08:38:19.426758 22188 layer_factory.hpp:77] Creating layer loss
I0504 08:38:19.426764 22188 net.cpp:86] Creating Layer loss
I0504 08:38:19.426766 22188 net.cpp:408] loss <- ip3
I0504 08:38:19.426770 22188 net.cpp:408] loss <- label
I0504 08:38:19.426776 22188 net.cpp:382] loss -> loss
I0504 08:38:19.426793 22188 layer_factory.hpp:77] Creating layer loss
…
I0504 08:38:19.427461 22188 solver.cpp:173] Creating test net (#0) specified by net file: ECE595/cifar/train_test/var_everything_tiny/cifar_train_test_106.prototxt
I0504 08:38:19.427489 22188 net.cpp:296] The NetState phase (1) differed from the phase (0) specified by a rule in layer cifar
I0504 08:38:19.427588 22188 net.cpp:53] Initializing net from parameters: 
name: "CIFAR"
state {
  phase: TEST
}
layer {
  name: "cifar"
  type: "Data"
  top: "data"
  top: "label"
  include {
    phase: TEST
  }
  transform_param {
    mean_file: "examples/cifar10/mean.binaryproto"
  }
  data_param {
    source: "examples/cifar10/cifar10_test_lmdb"
    batch_size: 1000
    backend: LMDB
  }
}
layer {
  name: "conv0"
  type: "Convolution"
  bottom: "data"
  top: "conv0"
  param {
    lr_mult: 1
  }
  param {
    lr_mult: 2
  }
  convolution_param {
    num_output: 24
    pad: 2
    kernel_size: 5
    stride: 1
    weight_filler {
      type: "gaussian"
      std: 0.01
    }
    bias_filler {
      type: "constant"
    }
  }
}
layer {
  name: "Sigmoid0"
  type: "Sigmoid"
  bottom: "conv0"
  top: "Sigmoid0"
}
layer {
  name: "pool0"
  type: "Pooling"
  bottom: "Sigmoid0"
  top: "pool0"
  pooling_param {
    pool: AVE
    kernel_size: 3
    stride: 2
  }
}
layer {
  name: "conv1"
  type: "Convolution"
  bottom: "pool0"
  top: "conv1"
  param {
    lr_mult: 1
  }
  param {
    lr_mult: 2
  }
  convolution_param {
    num_output: 24
    pad: 2
    kernel_size: 5
    stride: 1
    weight_filler {
      type: "gaussian"
      std: 0.01
    }
    bias_filler {
      type: "constant"
    }
  }
}
layer {
  name: "Sigmoid1"
  type: "Sigmoid"
  bottom: "conv1"
  top: "Sigmoid1"
}
layer {
  name: "pool1"
  type: "Pooling"
  bottom: "Sigmoid1"
  top: "pool1"
  pooling_param {
    pool: AVE
    kernel_size: 3
    stride: 2
  }
}
layer {
  name: "ip1"
  type: "InnerProduct"
  bottom: "pool1"
  top: "ip1"
  param {
    lr_mult: 1
  }
  param {
    lr_mult: 2
  }
  inner_product_param {
    num_output: 180
    weight_filler {
      type: "gaussian"
      std: 0.01
    }
    bias_filler {
      type: "constant"
    }
  }
}
layer {
  name: "relu1"
  type: "ReLU"
  bottom: "ip1"
  top: "ip1"
}
layer {
  name: "ip2"
  type: "InnerProduct"
  bottom: "ip1"
  top: "ip2"
  param {
    lr_mult: 1
  }
  param {
    lr_mult: 2
  }
  inner_product_param {
    num_output: 60
    weight_filler {
      type: "gaussian"
      std: 0.01
    }
    bias_filler {
      type: "constant"
    }
  }
}
layer {
  name: "relu2"
  type: "ReLU"
  bottom: "ip2"
  top: "ip2"
}
layer {
  name: "ip3"
  type: "InnerProduct"
  bottom: "ip2"
  top: "ip3"
  param {
    lr_mult: 1
  }
  param {
    lr_mult: 2
  }
  inner_product_param {
    num_output: 10
    weight_filler {
      type: "gaussian"
      std: 0.01
    }
    bias_filler {
      type: "constant"
    }
  }
}
layer {
  name: "accuracy"
  type: "Accuracy"
  bottom: "ip3"
  bottom: "label"
  top: "accuracy"
  include {
    phase: TEST
  }
}
layer {
  name: "loss"
  type: "SoftmaxWithLoss"
  bottom: "ip3"
  bottom: "label"
  top: "loss"
}
I0504 08:38:19.427672 22188 layer_factory.hpp:77] Creating layer cifar
I0504 08:38:19.427721 22188 db_lmdb.cpp:35] Opened lmdb examples/cifar10/cifar10_test_lmdb
I0504 08:38:19.427732 22188 net.cpp:86] Creating Layer cifar
I0504 08:38:19.427737 22188 net.cpp:382] cifar -> data
I0504 08:38:19.427745 22188 net.cpp:382] cifar -> label
I0504 08:38:19.427752 22188 data_transformer.cpp:25] Loading mean file from: examples/cifar10/mean.binaryproto
I0504 08:38:19.427898 22188 data_layer.cpp:45] output data size: 1000,3,32,32
I0504 08:38:19.450563 22188 net.cpp:124] Setting up cifar
I0504 08:38:19.450590 22188 net.cpp:131] Top shape: 1000 3 32 32 (3072000)
I0504 08:38:19.450597 22188 net.cpp:131] Top shape: 1000 (1000)
I0504 08:38:19.450600 22188 net.cpp:139] Memory required for data: 12292000
I0504 08:38:19.450605 22188 layer_factory.hpp:77] Creating layer label_cifar_1_split
I0504 08:38:19.450623 22188 net.cpp:86] Creating Layer label_cifar_1_split
I0504 08:38:19.450626 22188 net.cpp:408] label_cifar_1_split <- label
I0504 08:38:19.450633 22188 net.cpp:382] label_cifar_1_split -> label_cifar_1_split_0
I0504 08:38:19.450641 22188 net.cpp:382] label_cifar_1_split -> label_cifar_1_split_1
I0504 08:38:19.450726 22188 net.cpp:124] Setting up label_cifar_1_split
I0504 08:38:19.450733 22188 net.cpp:131] Top shape: 1000 (1000)
I0504 08:38:19.450737 22188 net.cpp:131] Top shape: 1000 (1000)
I0504 08:38:19.450740 22188 net.cpp:139] Memory required for data: 12300000
I0504 08:38:19.450743 22188 layer_factory.hpp:77] Creating layer conv0
I0504 08:38:19.450757 22188 net.cpp:86] Creating Layer conv0
I0504 08:38:19.450760 22188 net.cpp:408] conv0 <- data
I0504 08:38:19.450765 22188 net.cpp:382] conv0 -> conv0
I0504 08:38:19.452356 22188 net.cpp:124] Setting up conv0
I0504 08:38:19.452370 22188 net.cpp:131] Top shape: 1000 24 32 32 (24576000)
I0504 08:38:19.452373 22188 net.cpp:139] Memory required for data: 110604000
I0504 08:38:19.452383 22188 layer_factory.hpp:77] Creating layer Sigmoid0
I0504 08:38:19.452390 22188 net.cpp:86] Creating Layer Sigmoid0
I0504 08:38:19.452394 22188 net.cpp:408] Sigmoid0 <- conv0
I0504 08:38:19.452399 22188 net.cpp:382] Sigmoid0 -> Sigmoid0
I0504 08:38:19.452617 22188 net.cpp:124] Setting up Sigmoid0
I0504 08:38:19.452639 22188 net.cpp:131] Top shape: 1000 24 32 32 (24576000)
I0504 08:38:19.452643 22188 net.cpp:139] Memory required for data: 208908000
I0504 08:38:19.452646 22188 layer_factory.hpp:77] Creating layer pool0
I0504 08:38:19.452654 22188 net.cpp:86] Creating Layer pool0
I0504 08:38:19.452658 22188 net.cpp:408] pool0 <- Sigmoid0
I0504 08:38:19.452663 22188 net.cpp:382] pool0 -> pool0
I0504 08:38:19.453876 22188 net.cpp:124] Setting up pool0
I0504 08:38:19.453887 22188 net.cpp:131] Top shape: 1000 24 16 16 (6144000)
I0504 08:38:19.453891 22188 net.cpp:139] Memory required for data: 233484000
I0504 08:38:19.453893 22188 layer_factory.hpp:77] Creating layer conv1
I0504 08:38:19.453903 22188 net.cpp:86] Creating Layer conv1
I0504 08:38:19.453907 22188 net.cpp:408] conv1 <- pool0
I0504 08:38:19.453913 22188 net.cpp:382] conv1 -> conv1
I0504 08:38:19.455665 22188 net.cpp:124] Setting up conv1
I0504 08:38:19.455679 22188 net.cpp:131] Top shape: 1000 24 16 16 (6144000)
I0504 08:38:19.455682 22188 net.cpp:139] Memory required for data: 258060000
I0504 08:38:19.455691 22188 layer_factory.hpp:77] Creating layer Sigmoid1
I0504 08:38:19.455698 22188 net.cpp:86] Creating Layer Sigmoid1
I0504 08:38:19.455703 22188 net.cpp:408] Sigmoid1 <- conv1
I0504 08:38:19.455708 22188 net.cpp:382] Sigmoid1 -> Sigmoid1
I0504 08:38:19.455879 22188 net.cpp:124] Setting up Sigmoid1
I0504 08:38:19.455890 22188 net.cpp:131] Top shape: 1000 24 16 16 (6144000)
I0504 08:38:19.455893 22188 net.cpp:139] Memory required for data: 282636000
I0504 08:38:19.455896 22188 layer_factory.hpp:77] Creating layer pool1
I0504 08:38:19.455902 22188 net.cpp:86] Creating Layer pool1
I0504 08:38:19.455905 22188 net.cpp:408] pool1 <- Sigmoid1
I0504 08:38:19.455909 22188 net.cpp:382] pool1 -> pool1
I0504 08:38:19.456660 22188 net.cpp:124] Setting up pool1
I0504 08:38:19.456671 22188 net.cpp:131] Top shape: 1000 24 8 8 (1536000)
I0504 08:38:19.456676 22188 net.cpp:139] Memory required for data: 288780000
I0504 08:38:19.456679 22188 layer_factory.hpp:77] Creating layer ip1
I0504 08:38:19.456687 22188 net.cpp:86] Creating Layer ip1
I0504 08:38:19.456691 22188 net.cpp:408] ip1 <- pool1
I0504 08:38:19.456697 22188 net.cpp:382] ip1 -> ip1
I0504 08:38:19.465106 22188 net.cpp:124] Setting up ip1
I0504 08:38:19.465119 22188 net.cpp:131] Top shape: 1000 180 (180000)
I0504 08:38:19.465122 22188 net.cpp:139] Memory required for data: 289500000
I0504 08:38:19.465131 22188 layer_factory.hpp:77] Creating layer relu1
I0504 08:38:19.465137 22188 net.cpp:86] Creating Layer relu1
I0504 08:38:19.465142 22188 net.cpp:408] relu1 <- ip1
I0504 08:38:19.465147 22188 net.cpp:369] relu1 -> ip1 (in-place)
I0504 08:38:19.465317 22188 net.cpp:124] Setting up relu1
I0504 08:38:19.465327 22188 net.cpp:131] Top shape: 1000 180 (180000)
I0504 08:38:19.465329 22188 net.cpp:139] Memory required for data: 290220000
I0504 08:38:19.465332 22188 layer_factory.hpp:77] Creating layer ip2
I0504 08:38:19.465339 22188 net.cpp:86] Creating Layer ip2
I0504 08:38:19.465343 22188 net.cpp:408] ip2 <- ip1
I0504 08:38:19.465348 22188 net.cpp:382] ip2 -> ip2
I0504 08:38:19.465754 22188 net.cpp:124] Setting up ip2
I0504 08:38:19.465760 22188 net.cpp:131] Top shape: 1000 60 (60000)
I0504 08:38:19.465764 22188 net.cpp:139] Memory required for data: 290460000
I0504 08:38:19.465768 22188 layer_factory.hpp:77] Creating layer relu2
I0504 08:38:19.465775 22188 net.cpp:86] Creating Layer relu2
I0504 08:38:19.465777 22188 net.cpp:408] relu2 <- ip2
I0504 08:38:19.465782 22188 net.cpp:369] relu2 -> ip2 (in-place)
I0504 08:38:19.465947 22188 net.cpp:124] Setting up relu2
I0504 08:38:19.465955 22188 net.cpp:131] Top shape: 1000 60 (60000)
I0504 08:38:19.465958 22188 net.cpp:139] Memory required for data: 290700000
I0504 08:38:19.465961 22188 layer_factory.hpp:77] Creating layer ip3
I0504 08:38:19.465968 22188 net.cpp:86] Creating Layer ip3
I0504 08:38:19.465973 22188 net.cpp:408] ip3 <- ip2
I0504 08:38:19.465977 22188 net.cpp:382] ip3 -> ip3
I0504 08:38:19.466105 22188 net.cpp:124] Setting up ip3
I0504 08:38:19.466112 22188 net.cpp:131] Top shape: 1000 10 (10000)
I0504 08:38:19.466126 22188 net.cpp:139] Memory required for data: 290740000
I0504 08:38:19.466135 22188 layer_factory.hpp:77] Creating layer ip3_ip3_0_split
I0504 08:38:19.466140 22188 net.cpp:86] Creating Layer ip3_ip3_0_split
I0504 08:38:19.466142 22188 net.cpp:408] ip3_ip3_0_split <- ip3
I0504 08:38:19.466147 22188 net.cpp:382] ip3_ip3_0_split -> ip3_ip3_0_split_0
I0504 08:38:19.466153 22188 net.cpp:382] ip3_ip3_0_split -> ip3_ip3_0_split_1
I0504 08:38:19.466186 22188 net.cpp:124] Setting up ip3_ip3_0_split
I0504 08:38:19.466192 22188 net.cpp:131] Top shape: 1000 10 (10000)
I0504 08:38:19.466197 22188 net.cpp:131] Top shape: 1000 10 (10000)
I0504 08:38:19.466198 22188 net.cpp:139] Memory required for data: 290820000
I0504 08:38:19.466202 22188 layer_factory.hpp:77] Creating layer accuracy
I0504 08:38:19.466208 22188 net.cpp:86] Creating Layer accuracy
I0504 08:38:19.466212 22188 net.cpp:408] accuracy <- ip3_ip3_0_split_0
I0504 08:38:19.466215 22188 net.cpp:408] accuracy <- label_cifar_1_split_0
I0504 08:38:19.466220 22188 net.cpp:382] accuracy -> accuracy
…
