…
I0504 07:37:11.834029 19548 net.cpp:296] The NetState phase (0) differed from the phase (1) specified by a rule in layer cifar
I0504 07:37:11.834050 19548 net.cpp:296] The NetState phase (0) differed from the phase (1) specified by a rule in layer accuracy
I0504 07:37:11.834162 19548 net.cpp:53] Initializing net from parameters: 
name: "CIFAR"
state {
  phase: TRAIN
  level: 0
  stage: ""
}
layer {
  name: "cifar"
  type: "Data"
  top: "data"
  top: "label"
  include {
    phase: TRAIN
  }
  transform_param {
    mean_file: "examples/cifar10/mean.binaryproto"
  }
  data_param {
    source: "examples/cifar10/cifar10_train_lmdb"
    batch_size: 111
    backend: LMDB
  }
}
layer {
  name: "conv0"
  type: "Convolution"
  bottom: "data"
  top: "conv0"
  param {
    lr_mult: 1
  }
  param {
    lr_mult: 2
  }
  convolution_param {
    num_output: 24
    pad: 2
    kernel_size: 3
    stride: 1
    weight_filler {
      type: "gaussian"
      std: 0.01
    }
    bias_filler {
      type: "constant"
    }
  }
}
layer {
  name: "Sigmoid0"
  type: "Sigmoid"
  bottom: "conv0"
  top: "Sigmoid0"
}
layer {
  name: "pool0"
  type: "Pooling"
  bottom: "Sigmoid0"
  top: "pool0"
  pooling_param {
    pool: AVE
    kernel_size: 3
    stride: 2
  }
}
layer {
  name: "conv1"
  type: "Convolution"
  bottom: "pool0"
  top: "conv1"
  param {
    lr_mult: 1
  }
  param {
    lr_mult: 2
  }
  convolution_param {
    num_output: 24
    pad: 2
    kernel_size: 3
    stride: 1
    weight_filler {
      type: "gaussian"
      std: 0.01
    }
    bias_filler {
      type: "constant"
    }
  }
}
layer {
  name: "Sigmoid1"
  type: "Sigmoid"
  bottom: "conv1"
  top: "Sigmoid1"
}
layer {
  name: "pool1"
  type: "Pooling"
  bottom: "Sigmoid1"
  top: "pool1"
  pooling_param {
    pool: AVE
    kernel_size: 3
    stride: 2
  }
}
layer {
  name: "ip1"
  type: "InnerProduct"
  bottom: "pool1"
  top: "ip1"
  param {
    lr_mult: 1
  }
  param {
    lr_mult: 2
  }
  inner_product_param {
    num_output: 180
    weight_filler {
      type: "gaussian"
      std: 0.01
    }
    bias_filler {
      type: "constant"
    }
  }
}
layer {
  name: "relu1"
  type: "ReLU"
  bottom: "ip1"
  top: "ip1"
}
layer {
  name: "ip2"
  type: "InnerProduct"
  bottom: "ip1"
  top: "ip2"
  param {
    lr_mult: 1
  }
  param {
    lr_mult: 2
  }
  inner_product_param {
    num_output: 180
    weight_filler {
      type: "gaussian"
      std: 0.01
    }
    bias_filler {
      type: "constant"
    }
  }
}
layer {
  name: "relu2"
  type: "ReLU"
  bottom: "ip2"
  top: "ip2"
}
layer {
  name: "ip3"
  type: "InnerProduct"
  bottom: "ip2"
  top: "ip3"
  param {
    lr_mult: 1
  }
  param {
    lr_mult: 2
  }
  inner_product_param {
    num_output: 10
    weight_filler {
      type: "gaussian"
      std: 0.01
    }
    bias_filler {
      type: "constant"
    }
  }
}
layer {
  name: "loss"
  type: "SoftmaxWithLoss"
  bottom: "ip3"
  bottom: "label"
  top: "loss"
}
I0504 07:37:11.834244 19548 layer_factory.hpp:77] Creating layer cifar
I0504 07:37:11.834343 19548 db_lmdb.cpp:35] Opened lmdb examples/cifar10/cifar10_train_lmdb
I0504 07:37:11.834370 19548 net.cpp:86] Creating Layer cifar
I0504 07:37:11.834378 19548 net.cpp:382] cifar -> data
I0504 07:37:11.834400 19548 net.cpp:382] cifar -> label
I0504 07:37:11.834411 19548 data_transformer.cpp:25] Loading mean file from: examples/cifar10/mean.binaryproto
I0504 07:37:11.836549 19548 data_layer.cpp:45] output data size: 111,3,32,32
I0504 07:37:11.844552 19548 net.cpp:124] Setting up cifar
I0504 07:37:11.844571 19548 net.cpp:131] Top shape: 111 3 32 32 (340992)
I0504 07:37:11.844589 19548 net.cpp:131] Top shape: 111 (111)
I0504 07:37:11.844593 19548 net.cpp:139] Memory required for data: 1364412
I0504 07:37:11.844600 19548 layer_factory.hpp:77] Creating layer conv0
I0504 07:37:11.844619 19548 net.cpp:86] Creating Layer conv0
I0504 07:37:11.844625 19548 net.cpp:408] conv0 <- data
I0504 07:37:11.844640 19548 net.cpp:382] conv0 -> conv0
I0504 07:37:12.120303 19548 net.cpp:124] Setting up conv0
I0504 07:37:12.120329 19548 net.cpp:131] Top shape: 111 24 34 34 (3079584)
I0504 07:37:12.120333 19548 net.cpp:139] Memory required for data: 13682748
I0504 07:37:12.120347 19548 layer_factory.hpp:77] Creating layer Sigmoid0
I0504 07:37:12.120373 19548 net.cpp:86] Creating Layer Sigmoid0
I0504 07:37:12.120376 19548 net.cpp:408] Sigmoid0 <- conv0
I0504 07:37:12.120381 19548 net.cpp:382] Sigmoid0 -> Sigmoid0
I0504 07:37:12.120545 19548 net.cpp:124] Setting up Sigmoid0
I0504 07:37:12.120554 19548 net.cpp:131] Top shape: 111 24 34 34 (3079584)
I0504 07:37:12.120558 19548 net.cpp:139] Memory required for data: 26001084
I0504 07:37:12.120560 19548 layer_factory.hpp:77] Creating layer pool0
I0504 07:37:12.120566 19548 net.cpp:86] Creating Layer pool0
I0504 07:37:12.120570 19548 net.cpp:408] pool0 <- Sigmoid0
I0504 07:37:12.120574 19548 net.cpp:382] pool0 -> pool0
I0504 07:37:12.121376 19548 net.cpp:124] Setting up pool0
I0504 07:37:12.121402 19548 net.cpp:131] Top shape: 111 24 17 17 (769896)
I0504 07:37:12.121407 19548 net.cpp:139] Memory required for data: 29080668
I0504 07:37:12.121409 19548 layer_factory.hpp:77] Creating layer conv1
I0504 07:37:12.121420 19548 net.cpp:86] Creating Layer conv1
I0504 07:37:12.121424 19548 net.cpp:408] conv1 <- pool0
I0504 07:37:12.121429 19548 net.cpp:382] conv1 -> conv1
I0504 07:37:12.124047 19548 net.cpp:124] Setting up conv1
I0504 07:37:12.124058 19548 net.cpp:131] Top shape: 111 24 19 19 (961704)
I0504 07:37:12.124078 19548 net.cpp:139] Memory required for data: 32927484
I0504 07:37:12.124086 19548 layer_factory.hpp:77] Creating layer Sigmoid1
I0504 07:37:12.124091 19548 net.cpp:86] Creating Layer Sigmoid1
I0504 07:37:12.124094 19548 net.cpp:408] Sigmoid1 <- conv1
I0504 07:37:12.124099 19548 net.cpp:382] Sigmoid1 -> Sigmoid1
I0504 07:37:12.124291 19548 net.cpp:124] Setting up Sigmoid1
I0504 07:37:12.124300 19548 net.cpp:131] Top shape: 111 24 19 19 (961704)
I0504 07:37:12.124303 19548 net.cpp:139] Memory required for data: 36774300
I0504 07:37:12.124306 19548 layer_factory.hpp:77] Creating layer pool1
I0504 07:37:12.124311 19548 net.cpp:86] Creating Layer pool1
I0504 07:37:12.124315 19548 net.cpp:408] pool1 <- Sigmoid1
I0504 07:37:12.124320 19548 net.cpp:382] pool1 -> pool1
I0504 07:37:12.124467 19548 net.cpp:124] Setting up pool1
I0504 07:37:12.124475 19548 net.cpp:131] Top shape: 111 24 9 9 (215784)
I0504 07:37:12.124477 19548 net.cpp:139] Memory required for data: 37637436
I0504 07:37:12.124480 19548 layer_factory.hpp:77] Creating layer ip1
I0504 07:37:12.124487 19548 net.cpp:86] Creating Layer ip1
I0504 07:37:12.124490 19548 net.cpp:408] ip1 <- pool1
I0504 07:37:12.124495 19548 net.cpp:382] ip1 -> ip1
I0504 07:37:12.134107 19548 net.cpp:124] Setting up ip1
I0504 07:37:12.134119 19548 net.cpp:131] Top shape: 111 180 (19980)
I0504 07:37:12.134122 19548 net.cpp:139] Memory required for data: 37717356
I0504 07:37:12.134130 19548 layer_factory.hpp:77] Creating layer relu1
I0504 07:37:12.134136 19548 net.cpp:86] Creating Layer relu1
I0504 07:37:12.134140 19548 net.cpp:408] relu1 <- ip1
I0504 07:37:12.134143 19548 net.cpp:369] relu1 -> ip1 (in-place)
I0504 07:37:12.134308 19548 net.cpp:124] Setting up relu1
I0504 07:37:12.134316 19548 net.cpp:131] Top shape: 111 180 (19980)
I0504 07:37:12.134320 19548 net.cpp:139] Memory required for data: 37797276
I0504 07:37:12.134322 19548 layer_factory.hpp:77] Creating layer ip2
I0504 07:37:12.134330 19548 net.cpp:86] Creating Layer ip2
I0504 07:37:12.134331 19548 net.cpp:408] ip2 <- ip1
I0504 07:37:12.134351 19548 net.cpp:382] ip2 -> ip2
I0504 07:37:12.136005 19548 net.cpp:124] Setting up ip2
I0504 07:37:12.136016 19548 net.cpp:131] Top shape: 111 180 (19980)
I0504 07:37:12.136035 19548 net.cpp:139] Memory required for data: 37877196
I0504 07:37:12.136041 19548 layer_factory.hpp:77] Creating layer relu2
I0504 07:37:12.136046 19548 net.cpp:86] Creating Layer relu2
I0504 07:37:12.136050 19548 net.cpp:408] relu2 <- ip2
I0504 07:37:12.136055 19548 net.cpp:369] relu2 -> ip2 (in-place)
I0504 07:37:12.136803 19548 net.cpp:124] Setting up relu2
I0504 07:37:12.136834 19548 net.cpp:131] Top shape: 111 180 (19980)
I0504 07:37:12.136838 19548 net.cpp:139] Memory required for data: 37957116
I0504 07:37:12.136842 19548 layer_factory.hpp:77] Creating layer ip3
I0504 07:37:12.136850 19548 net.cpp:86] Creating Layer ip3
I0504 07:37:12.136853 19548 net.cpp:408] ip3 <- ip2
I0504 07:37:12.136858 19548 net.cpp:382] ip3 -> ip3
I0504 07:37:12.137002 19548 net.cpp:124] Setting up ip3
I0504 07:37:12.137009 19548 net.cpp:131] Top shape: 111 10 (1110)
I0504 07:37:12.137012 19548 net.cpp:139] Memory required for data: 37961556
I0504 07:37:12.137020 19548 layer_factory.hpp:77] Creating layer loss
I0504 07:37:12.137042 19548 net.cpp:86] Creating Layer loss
I0504 07:37:12.137046 19548 net.cpp:408] loss <- ip3
I0504 07:37:12.137049 19548 net.cpp:408] loss <- label
I0504 07:37:12.137054 19548 net.cpp:382] loss -> loss
I0504 07:37:12.137071 19548 layer_factory.hpp:77] Creating layer loss
…
I0504 07:37:12.137723 19548 solver.cpp:173] Creating test net (#0) specified by net file: ECE595/cifar/train_test/var_everything_tiny/cifar_train_test_83.prototxt
I0504 07:37:12.137749 19548 net.cpp:296] The NetState phase (1) differed from the phase (0) specified by a rule in layer cifar
I0504 07:37:12.137847 19548 net.cpp:53] Initializing net from parameters: 
name: "CIFAR"
state {
  phase: TEST
}
layer {
  name: "cifar"
  type: "Data"
  top: "data"
  top: "label"
  include {
    phase: TEST
  }
  transform_param {
    mean_file: "examples/cifar10/mean.binaryproto"
  }
  data_param {
    source: "examples/cifar10/cifar10_test_lmdb"
    batch_size: 1000
    backend: LMDB
  }
}
layer {
  name: "conv0"
  type: "Convolution"
  bottom: "data"
  top: "conv0"
  param {
    lr_mult: 1
  }
  param {
    lr_mult: 2
  }
  convolution_param {
    num_output: 24
    pad: 2
    kernel_size: 3
    stride: 1
    weight_filler {
      type: "gaussian"
      std: 0.01
    }
    bias_filler {
      type: "constant"
    }
  }
}
layer {
  name: "Sigmoid0"
  type: "Sigmoid"
  bottom: "conv0"
  top: "Sigmoid0"
}
layer {
  name: "pool0"
  type: "Pooling"
  bottom: "Sigmoid0"
  top: "pool0"
  pooling_param {
    pool: AVE
    kernel_size: 3
    stride: 2
  }
}
layer {
  name: "conv1"
  type: "Convolution"
  bottom: "pool0"
  top: "conv1"
  param {
    lr_mult: 1
  }
  param {
    lr_mult: 2
  }
  convolution_param {
    num_output: 24
    pad: 2
    kernel_size: 3
    stride: 1
    weight_filler {
      type: "gaussian"
      std: 0.01
    }
    bias_filler {
      type: "constant"
    }
  }
}
layer {
  name: "Sigmoid1"
  type: "Sigmoid"
  bottom: "conv1"
  top: "Sigmoid1"
}
layer {
  name: "pool1"
  type: "Pooling"
  bottom: "Sigmoid1"
  top: "pool1"
  pooling_param {
    pool: AVE
    kernel_size: 3
    stride: 2
  }
}
layer {
  name: "ip1"
  type: "InnerProduct"
  bottom: "pool1"
  top: "ip1"
  param {
    lr_mult: 1
  }
  param {
    lr_mult: 2
  }
  inner_product_param {
    num_output: 180
    weight_filler {
      type: "gaussian"
      std: 0.01
    }
    bias_filler {
      type: "constant"
    }
  }
}
layer {
  name: "relu1"
  type: "ReLU"
  bottom: "ip1"
  top: "ip1"
}
layer {
  name: "ip2"
  type: "InnerProduct"
  bottom: "ip1"
  top: "ip2"
  param {
    lr_mult: 1
  }
  param {
    lr_mult: 2
  }
  inner_product_param {
    num_output: 180
    weight_filler {
      type: "gaussian"
      std: 0.01
    }
    bias_filler {
      type: "constant"
    }
  }
}
layer {
  name: "relu2"
  type: "ReLU"
  bottom: "ip2"
  top: "ip2"
}
layer {
  name: "ip3"
  type: "InnerProduct"
  bottom: "ip2"
  top: "ip3"
  param {
    lr_mult: 1
  }
  param {
    lr_mult: 2
  }
  inner_product_param {
    num_output: 10
    weight_filler {
      type: "gaussian"
      std: 0.01
    }
    bias_filler {
      type: "constant"
    }
  }
}
layer {
  name: "accuracy"
  type: "Accuracy"
  bottom: "ip3"
  bottom: "label"
  top: "accuracy"
  include {
    phase: TEST
  }
}
layer {
  name: "loss"
  type: "SoftmaxWithLoss"
  bottom: "ip3"
  bottom: "label"
  top: "loss"
}
I0504 07:37:12.137925 19548 layer_factory.hpp:77] Creating layer cifar
I0504 07:37:12.137967 19548 db_lmdb.cpp:35] Opened lmdb examples/cifar10/cifar10_test_lmdb
I0504 07:37:12.137979 19548 net.cpp:86] Creating Layer cifar
I0504 07:37:12.137984 19548 net.cpp:382] cifar -> data
I0504 07:37:12.137990 19548 net.cpp:382] cifar -> label
I0504 07:37:12.137996 19548 data_transformer.cpp:25] Loading mean file from: examples/cifar10/mean.binaryproto
I0504 07:37:12.138159 19548 data_layer.cpp:45] output data size: 1000,3,32,32
I0504 07:37:12.159394 19548 net.cpp:124] Setting up cifar
I0504 07:37:12.159432 19548 net.cpp:131] Top shape: 1000 3 32 32 (3072000)
I0504 07:37:12.159438 19548 net.cpp:131] Top shape: 1000 (1000)
I0504 07:37:12.159441 19548 net.cpp:139] Memory required for data: 12292000
I0504 07:37:12.159446 19548 layer_factory.hpp:77] Creating layer label_cifar_1_split
I0504 07:37:12.159471 19548 net.cpp:86] Creating Layer label_cifar_1_split
I0504 07:37:12.159492 19548 net.cpp:408] label_cifar_1_split <- label
I0504 07:37:12.159497 19548 net.cpp:382] label_cifar_1_split -> label_cifar_1_split_0
I0504 07:37:12.159507 19548 net.cpp:382] label_cifar_1_split -> label_cifar_1_split_1
I0504 07:37:12.159596 19548 net.cpp:124] Setting up label_cifar_1_split
I0504 07:37:12.159605 19548 net.cpp:131] Top shape: 1000 (1000)
I0504 07:37:12.159608 19548 net.cpp:131] Top shape: 1000 (1000)
I0504 07:37:12.159610 19548 net.cpp:139] Memory required for data: 12300000
I0504 07:37:12.159613 19548 layer_factory.hpp:77] Creating layer conv0
I0504 07:37:12.159626 19548 net.cpp:86] Creating Layer conv0
I0504 07:37:12.159629 19548 net.cpp:408] conv0 <- data
I0504 07:37:12.159634 19548 net.cpp:382] conv0 -> conv0
I0504 07:37:12.161397 19548 net.cpp:124] Setting up conv0
I0504 07:37:12.161425 19548 net.cpp:131] Top shape: 1000 24 34 34 (27744000)
I0504 07:37:12.161428 19548 net.cpp:139] Memory required for data: 123276000
I0504 07:37:12.161437 19548 layer_factory.hpp:77] Creating layer Sigmoid0
I0504 07:37:12.161445 19548 net.cpp:86] Creating Layer Sigmoid0
I0504 07:37:12.161448 19548 net.cpp:408] Sigmoid0 <- conv0
I0504 07:37:12.161453 19548 net.cpp:382] Sigmoid0 -> Sigmoid0
I0504 07:37:12.161646 19548 net.cpp:124] Setting up Sigmoid0
I0504 07:37:12.161669 19548 net.cpp:131] Top shape: 1000 24 34 34 (27744000)
I0504 07:37:12.161671 19548 net.cpp:139] Memory required for data: 234252000
I0504 07:37:12.161674 19548 layer_factory.hpp:77] Creating layer pool0
I0504 07:37:12.161681 19548 net.cpp:86] Creating Layer pool0
I0504 07:37:12.161685 19548 net.cpp:408] pool0 <- Sigmoid0
I0504 07:37:12.161690 19548 net.cpp:382] pool0 -> pool0
I0504 07:37:12.161947 19548 net.cpp:124] Setting up pool0
I0504 07:37:12.161957 19548 net.cpp:131] Top shape: 1000 24 17 17 (6936000)
I0504 07:37:12.161960 19548 net.cpp:139] Memory required for data: 261996000
I0504 07:37:12.161963 19548 layer_factory.hpp:77] Creating layer conv1
I0504 07:37:12.161972 19548 net.cpp:86] Creating Layer conv1
I0504 07:37:12.161975 19548 net.cpp:408] conv1 <- pool0
I0504 07:37:12.161981 19548 net.cpp:382] conv1 -> conv1
I0504 07:37:12.164424 19548 net.cpp:124] Setting up conv1
I0504 07:37:12.164454 19548 net.cpp:131] Top shape: 1000 24 19 19 (8664000)
I0504 07:37:12.164458 19548 net.cpp:139] Memory required for data: 296652000
I0504 07:37:12.164468 19548 layer_factory.hpp:77] Creating layer Sigmoid1
I0504 07:37:12.164475 19548 net.cpp:86] Creating Layer Sigmoid1
I0504 07:37:12.164479 19548 net.cpp:408] Sigmoid1 <- conv1
I0504 07:37:12.164485 19548 net.cpp:382] Sigmoid1 -> Sigmoid1
I0504 07:37:12.164727 19548 net.cpp:124] Setting up Sigmoid1
I0504 07:37:12.164738 19548 net.cpp:131] Top shape: 1000 24 19 19 (8664000)
I0504 07:37:12.164742 19548 net.cpp:139] Memory required for data: 331308000
I0504 07:37:12.164746 19548 layer_factory.hpp:77] Creating layer pool1
I0504 07:37:12.164753 19548 net.cpp:86] Creating Layer pool1
I0504 07:37:12.164757 19548 net.cpp:408] pool1 <- Sigmoid1
I0504 07:37:12.164762 19548 net.cpp:382] pool1 -> pool1
I0504 07:37:12.165647 19548 net.cpp:124] Setting up pool1
I0504 07:37:12.165662 19548 net.cpp:131] Top shape: 1000 24 9 9 (1944000)
I0504 07:37:12.165665 19548 net.cpp:139] Memory required for data: 339084000
I0504 07:37:12.165668 19548 layer_factory.hpp:77] Creating layer ip1
I0504 07:37:12.165678 19548 net.cpp:86] Creating Layer ip1
I0504 07:37:12.165696 19548 net.cpp:408] ip1 <- pool1
I0504 07:37:12.165702 19548 net.cpp:382] ip1 -> ip1
I0504 07:37:12.176409 19548 net.cpp:124] Setting up ip1
I0504 07:37:12.176440 19548 net.cpp:131] Top shape: 1000 180 (180000)
I0504 07:37:12.176442 19548 net.cpp:139] Memory required for data: 339804000
I0504 07:37:12.176467 19548 layer_factory.hpp:77] Creating layer relu1
I0504 07:37:12.176475 19548 net.cpp:86] Creating Layer relu1
I0504 07:37:12.176478 19548 net.cpp:408] relu1 <- ip1
I0504 07:37:12.176483 19548 net.cpp:369] relu1 -> ip1 (in-place)
I0504 07:37:12.176702 19548 net.cpp:124] Setting up relu1
I0504 07:37:12.176712 19548 net.cpp:131] Top shape: 1000 180 (180000)
I0504 07:37:12.176715 19548 net.cpp:139] Memory required for data: 340524000
I0504 07:37:12.176719 19548 layer_factory.hpp:77] Creating layer ip2
I0504 07:37:12.176725 19548 net.cpp:86] Creating Layer ip2
I0504 07:37:12.176728 19548 net.cpp:408] ip2 <- ip1
I0504 07:37:12.176735 19548 net.cpp:382] ip2 -> ip2
I0504 07:37:12.177840 19548 net.cpp:124] Setting up ip2
I0504 07:37:12.177848 19548 net.cpp:131] Top shape: 1000 180 (180000)
I0504 07:37:12.177865 19548 net.cpp:139] Memory required for data: 341244000
I0504 07:37:12.177871 19548 layer_factory.hpp:77] Creating layer relu2
I0504 07:37:12.177876 19548 net.cpp:86] Creating Layer relu2
I0504 07:37:12.177880 19548 net.cpp:408] relu2 <- ip2
I0504 07:37:12.177886 19548 net.cpp:369] relu2 -> ip2 (in-place)
I0504 07:37:12.178062 19548 net.cpp:124] Setting up relu2
I0504 07:37:12.178071 19548 net.cpp:131] Top shape: 1000 180 (180000)
I0504 07:37:12.178074 19548 net.cpp:139] Memory required for data: 341964000
I0504 07:37:12.178077 19548 layer_factory.hpp:77] Creating layer ip3
I0504 07:37:12.178086 19548 net.cpp:86] Creating Layer ip3
I0504 07:37:12.178088 19548 net.cpp:408] ip3 <- ip2
I0504 07:37:12.178092 19548 net.cpp:382] ip3 -> ip3
I0504 07:37:12.178251 19548 net.cpp:124] Setting up ip3
I0504 07:37:12.178268 19548 net.cpp:131] Top shape: 1000 10 (10000)
I0504 07:37:12.178272 19548 net.cpp:139] Memory required for data: 342004000
I0504 07:37:12.178280 19548 layer_factory.hpp:77] Creating layer ip3_ip3_0_split
I0504 07:37:12.178287 19548 net.cpp:86] Creating Layer ip3_ip3_0_split
I0504 07:37:12.178289 19548 net.cpp:408] ip3_ip3_0_split <- ip3
I0504 07:37:12.178294 19548 net.cpp:382] ip3_ip3_0_split -> ip3_ip3_0_split_0
I0504 07:37:12.178299 19548 net.cpp:382] ip3_ip3_0_split -> ip3_ip3_0_split_1
I0504 07:37:12.178338 19548 net.cpp:124] Setting up ip3_ip3_0_split
I0504 07:37:12.178342 19548 net.cpp:131] Top shape: 1000 10 (10000)
I0504 07:37:12.178345 19548 net.cpp:131] Top shape: 1000 10 (10000)
I0504 07:37:12.178349 19548 net.cpp:139] Memory required for data: 342084000
I0504 07:37:12.178351 19548 layer_factory.hpp:77] Creating layer accuracy
I0504 07:37:12.178356 19548 net.cpp:86] Creating Layer accuracy
I0504 07:37:12.178359 19548 net.cpp:408] accuracy <- ip3_ip3_0_split_0
I0504 07:37:12.178364 19548 net.cpp:408] accuracy <- label_cifar_1_split_0
I0504 07:37:12.178369 19548 net.cpp:382] accuracy -> accuracy
…
