…
I0504 14:58:14.968997  5121 net.cpp:296] The NetState phase (0) differed from the phase (1) specified by a rule in layer cifar
I0504 14:58:14.969017  5121 net.cpp:296] The NetState phase (0) differed from the phase (1) specified by a rule in layer accuracy
I0504 14:58:14.969128  5121 net.cpp:53] Initializing net from parameters: 
name: "CIFAR"
state {
  phase: TRAIN
  level: 0
  stage: ""
}
layer {
  name: "cifar"
  type: "Data"
  top: "data"
  top: "label"
  include {
    phase: TRAIN
  }
  transform_param {
    mean_file: "examples/cifar10/mean.binaryproto"
  }
  data_param {
    source: "examples/cifar10/cifar10_train_lmdb"
    batch_size: 111
    backend: LMDB
  }
}
layer {
  name: "conv0"
  type: "Convolution"
  bottom: "data"
  top: "conv0"
  param {
    lr_mult: 1
  }
  param {
    lr_mult: 2
  }
  convolution_param {
    num_output: 24
    pad: 2
    kernel_size: 5
    stride: 1
    weight_filler {
      type: "gaussian"
      std: 0.01
    }
    bias_filler {
      type: "constant"
    }
  }
}
layer {
  name: "Sigmoid0"
  type: "Sigmoid"
  bottom: "conv0"
  top: "Sigmoid0"
}
layer {
  name: "pool0"
  type: "Pooling"
  bottom: "Sigmoid0"
  top: "pool0"
  pooling_param {
    pool: AVE
    kernel_size: 3
    stride: 2
  }
}
layer {
  name: "conv1"
  type: "Convolution"
  bottom: "pool0"
  top: "conv1"
  param {
    lr_mult: 1
  }
  param {
    lr_mult: 2
  }
  convolution_param {
    num_output: 216
    pad: 2
    kernel_size: 5
    stride: 1
    weight_filler {
      type: "gaussian"
      std: 0.01
    }
    bias_filler {
      type: "constant"
    }
  }
}
layer {
  name: "Sigmoid1"
  type: "Sigmoid"
  bottom: "conv1"
  top: "Sigmoid1"
}
layer {
  name: "pool1"
  type: "Pooling"
  bottom: "Sigmoid1"
  top: "pool1"
  pooling_param {
    pool: AVE
    kernel_size: 3
    stride: 2
  }
}
layer {
  name: "ip1"
  type: "InnerProduct"
  bottom: "pool1"
  top: "ip1"
  param {
    lr_mult: 1
  }
  param {
    lr_mult: 2
  }
  inner_product_param {
    num_output: 60
    weight_filler {
      type: "gaussian"
      std: 0.01
    }
    bias_filler {
      type: "constant"
    }
  }
}
layer {
  name: "relu1"
  type: "ReLU"
  bottom: "ip1"
  top: "ip1"
}
layer {
  name: "ip2"
  type: "InnerProduct"
  bottom: "ip1"
  top: "ip2"
  param {
    lr_mult: 1
  }
  param {
    lr_mult: 2
  }
  inner_product_param {
    num_output: 180
    weight_filler {
      type: "gaussian"
      std: 0.01
    }
    bias_filler {
      type: "constant"
    }
  }
}
layer {
  name: "relu2"
  type: "ReLU"
  bottom: "ip2"
  top: "ip2"
}
layer {
  name: "ip3"
  type: "InnerProduct"
  bottom: "ip2"
  top: "ip3"
  param {
    lr_mult: 1
  }
  param {
    lr_mult: 2
  }
  inner_product_param {
    num_output: 10
    weight_filler {
      type: "gaussian"
      std: 0.01
    }
    bias_filler {
      type: "constant"
    }
  }
}
layer {
  name: "loss"
  type: "SoftmaxWithLoss"
  bottom: "ip3"
  bottom: "label"
  top: "loss"
}
I0504 14:58:14.969210  5121 layer_factory.hpp:77] Creating layer cifar
I0504 14:58:14.969310  5121 db_lmdb.cpp:35] Opened lmdb examples/cifar10/cifar10_train_lmdb
I0504 14:58:14.969336  5121 net.cpp:86] Creating Layer cifar
I0504 14:58:14.969346  5121 net.cpp:382] cifar -> data
I0504 14:58:14.969367  5121 net.cpp:382] cifar -> label
I0504 14:58:14.969379  5121 data_transformer.cpp:25] Loading mean file from: examples/cifar10/mean.binaryproto
I0504 14:58:14.971621  5121 data_layer.cpp:45] output data size: 111,3,32,32
I0504 14:58:14.979671  5121 net.cpp:124] Setting up cifar
I0504 14:58:14.979692  5121 net.cpp:131] Top shape: 111 3 32 32 (340992)
I0504 14:58:14.979698  5121 net.cpp:131] Top shape: 111 (111)
I0504 14:58:14.979702  5121 net.cpp:139] Memory required for data: 1364412
I0504 14:58:14.979710  5121 layer_factory.hpp:77] Creating layer conv0
I0504 14:58:14.979729  5121 net.cpp:86] Creating Layer conv0
I0504 14:58:14.979735  5121 net.cpp:408] conv0 <- data
I0504 14:58:14.979748  5121 net.cpp:382] conv0 -> conv0
I0504 14:58:15.263203  5121 net.cpp:124] Setting up conv0
I0504 14:58:15.263231  5121 net.cpp:131] Top shape: 111 24 32 32 (2727936)
I0504 14:58:15.263234  5121 net.cpp:139] Memory required for data: 12276156
I0504 14:58:15.263249  5121 layer_factory.hpp:77] Creating layer Sigmoid0
I0504 14:58:15.263260  5121 net.cpp:86] Creating Layer Sigmoid0
I0504 14:58:15.263265  5121 net.cpp:408] Sigmoid0 <- conv0
I0504 14:58:15.263270  5121 net.cpp:382] Sigmoid0 -> Sigmoid0
I0504 14:58:15.263473  5121 net.cpp:124] Setting up Sigmoid0
I0504 14:58:15.263481  5121 net.cpp:131] Top shape: 111 24 32 32 (2727936)
I0504 14:58:15.263484  5121 net.cpp:139] Memory required for data: 23187900
I0504 14:58:15.263489  5121 layer_factory.hpp:77] Creating layer pool0
I0504 14:58:15.263495  5121 net.cpp:86] Creating Layer pool0
I0504 14:58:15.263499  5121 net.cpp:408] pool0 <- Sigmoid0
I0504 14:58:15.263502  5121 net.cpp:382] pool0 -> pool0
I0504 14:58:15.264292  5121 net.cpp:124] Setting up pool0
I0504 14:58:15.264322  5121 net.cpp:131] Top shape: 111 24 16 16 (681984)
I0504 14:58:15.264327  5121 net.cpp:139] Memory required for data: 25915836
I0504 14:58:15.264329  5121 layer_factory.hpp:77] Creating layer conv1
I0504 14:58:15.264343  5121 net.cpp:86] Creating Layer conv1
I0504 14:58:15.264345  5121 net.cpp:408] conv1 <- pool0
I0504 14:58:15.264351  5121 net.cpp:382] conv1 -> conv1
I0504 14:58:15.269686  5121 net.cpp:124] Setting up conv1
I0504 14:58:15.269716  5121 net.cpp:131] Top shape: 111 216 16 16 (6137856)
I0504 14:58:15.269719  5121 net.cpp:139] Memory required for data: 50467260
I0504 14:58:15.269727  5121 layer_factory.hpp:77] Creating layer Sigmoid1
I0504 14:58:15.269733  5121 net.cpp:86] Creating Layer Sigmoid1
I0504 14:58:15.269737  5121 net.cpp:408] Sigmoid1 <- conv1
I0504 14:58:15.269742  5121 net.cpp:382] Sigmoid1 -> Sigmoid1
I0504 14:58:15.269942  5121 net.cpp:124] Setting up Sigmoid1
I0504 14:58:15.269953  5121 net.cpp:131] Top shape: 111 216 16 16 (6137856)
I0504 14:58:15.269955  5121 net.cpp:139] Memory required for data: 75018684
I0504 14:58:15.269974  5121 layer_factory.hpp:77] Creating layer pool1
I0504 14:58:15.269981  5121 net.cpp:86] Creating Layer pool1
I0504 14:58:15.269984  5121 net.cpp:408] pool1 <- Sigmoid1
I0504 14:58:15.269989  5121 net.cpp:382] pool1 -> pool1
I0504 14:58:15.270171  5121 net.cpp:124] Setting up pool1
I0504 14:58:15.270180  5121 net.cpp:131] Top shape: 111 216 8 8 (1534464)
I0504 14:58:15.270184  5121 net.cpp:139] Memory required for data: 81156540
I0504 14:58:15.270187  5121 layer_factory.hpp:77] Creating layer ip1
I0504 14:58:15.270195  5121 net.cpp:86] Creating Layer ip1
I0504 14:58:15.270201  5121 net.cpp:408] ip1 <- pool1
I0504 14:58:15.270207  5121 net.cpp:382] ip1 -> ip1
I0504 14:58:15.292737  5121 net.cpp:124] Setting up ip1
I0504 14:58:15.292750  5121 net.cpp:131] Top shape: 111 60 (6660)
I0504 14:58:15.292754  5121 net.cpp:139] Memory required for data: 81183180
I0504 14:58:15.292762  5121 layer_factory.hpp:77] Creating layer relu1
I0504 14:58:15.292768  5121 net.cpp:86] Creating Layer relu1
I0504 14:58:15.292773  5121 net.cpp:408] relu1 <- ip1
I0504 14:58:15.292776  5121 net.cpp:369] relu1 -> ip1 (in-place)
I0504 14:58:15.292949  5121 net.cpp:124] Setting up relu1
I0504 14:58:15.292960  5121 net.cpp:131] Top shape: 111 60 (6660)
I0504 14:58:15.292963  5121 net.cpp:139] Memory required for data: 81209820
I0504 14:58:15.292966  5121 layer_factory.hpp:77] Creating layer ip2
I0504 14:58:15.292989  5121 net.cpp:86] Creating Layer ip2
I0504 14:58:15.292992  5121 net.cpp:408] ip2 <- ip1
I0504 14:58:15.293030  5121 net.cpp:382] ip2 -> ip2
I0504 14:58:15.294270  5121 net.cpp:124] Setting up ip2
I0504 14:58:15.294281  5121 net.cpp:131] Top shape: 111 180 (19980)
I0504 14:58:15.294301  5121 net.cpp:139] Memory required for data: 81289740
I0504 14:58:15.294307  5121 layer_factory.hpp:77] Creating layer relu2
I0504 14:58:15.294312  5121 net.cpp:86] Creating Layer relu2
I0504 14:58:15.294317  5121 net.cpp:408] relu2 <- ip2
I0504 14:58:15.294322  5121 net.cpp:369] relu2 -> ip2 (in-place)
I0504 14:58:15.295110  5121 net.cpp:124] Setting up relu2
I0504 14:58:15.295122  5121 net.cpp:131] Top shape: 111 180 (19980)
I0504 14:58:15.295141  5121 net.cpp:139] Memory required for data: 81369660
I0504 14:58:15.295145  5121 layer_factory.hpp:77] Creating layer ip3
I0504 14:58:15.295152  5121 net.cpp:86] Creating Layer ip3
I0504 14:58:15.295156  5121 net.cpp:408] ip3 <- ip2
I0504 14:58:15.295161  5121 net.cpp:382] ip3 -> ip3
I0504 14:58:15.295356  5121 net.cpp:124] Setting up ip3
I0504 14:58:15.295364  5121 net.cpp:131] Top shape: 111 10 (1110)
I0504 14:58:15.295367  5121 net.cpp:139] Memory required for data: 81374100
I0504 14:58:15.295375  5121 layer_factory.hpp:77] Creating layer loss
I0504 14:58:15.295380  5121 net.cpp:86] Creating Layer loss
I0504 14:58:15.295384  5121 net.cpp:408] loss <- ip3
I0504 14:58:15.295387  5121 net.cpp:408] loss <- label
I0504 14:58:15.295392  5121 net.cpp:382] loss -> loss
I0504 14:58:15.295405  5121 layer_factory.hpp:77] Creating layer loss
…
I0504 14:58:15.296118  5121 solver.cpp:173] Creating test net (#0) specified by net file: ECE595/cifar/train_test/var_everything_tiny/cifar_train_test_176.prototxt
I0504 14:58:15.296160  5121 net.cpp:296] The NetState phase (1) differed from the phase (0) specified by a rule in layer cifar
I0504 14:58:15.296254  5121 net.cpp:53] Initializing net from parameters: 
name: "CIFAR"
state {
  phase: TEST
}
layer {
  name: "cifar"
  type: "Data"
  top: "data"
  top: "label"
  include {
    phase: TEST
  }
  transform_param {
    mean_file: "examples/cifar10/mean.binaryproto"
  }
  data_param {
    source: "examples/cifar10/cifar10_test_lmdb"
    batch_size: 1000
    backend: LMDB
  }
}
layer {
  name: "conv0"
  type: "Convolution"
  bottom: "data"
  top: "conv0"
  param {
    lr_mult: 1
  }
  param {
    lr_mult: 2
  }
  convolution_param {
    num_output: 24
    pad: 2
    kernel_size: 5
    stride: 1
    weight_filler {
      type: "gaussian"
      std: 0.01
    }
    bias_filler {
      type: "constant"
    }
  }
}
layer {
  name: "Sigmoid0"
  type: "Sigmoid"
  bottom: "conv0"
  top: "Sigmoid0"
}
layer {
  name: "pool0"
  type: "Pooling"
  bottom: "Sigmoid0"
  top: "pool0"
  pooling_param {
    pool: AVE
    kernel_size: 3
    stride: 2
  }
}
layer {
  name: "conv1"
  type: "Convolution"
  bottom: "pool0"
  top: "conv1"
  param {
    lr_mult: 1
  }
  param {
    lr_mult: 2
  }
  convolution_param {
    num_output: 216
    pad: 2
    kernel_size: 5
    stride: 1
    weight_filler {
      type: "gaussian"
      std: 0.01
    }
    bias_filler {
      type: "constant"
    }
  }
}
layer {
  name: "Sigmoid1"
  type: "Sigmoid"
  bottom: "conv1"
  top: "Sigmoid1"
}
layer {
  name: "pool1"
  type: "Pooling"
  bottom: "Sigmoid1"
  top: "pool1"
  pooling_param {
    pool: AVE
    kernel_size: 3
    stride: 2
  }
}
layer {
  name: "ip1"
  type: "InnerProduct"
  bottom: "pool1"
  top: "ip1"
  param {
    lr_mult: 1
  }
  param {
    lr_mult: 2
  }
  inner_product_param {
    num_output: 60
    weight_filler {
      type: "gaussian"
      std: 0.01
    }
    bias_filler {
      type: "constant"
    }
  }
}
layer {
  name: "relu1"
  type: "ReLU"
  bottom: "ip1"
  top: "ip1"
}
layer {
  name: "ip2"
  type: "InnerProduct"
  bottom: "ip1"
  top: "ip2"
  param {
    lr_mult: 1
  }
  param {
    lr_mult: 2
  }
  inner_product_param {
    num_output: 180
    weight_filler {
      type: "gaussian"
      std: 0.01
    }
    bias_filler {
      type: "constant"
    }
  }
}
layer {
  name: "relu2"
  type: "ReLU"
  bottom: "ip2"
  top: "ip2"
}
layer {
  name: "ip3"
  type: "InnerProduct"
  bottom: "ip2"
  top: "ip3"
  param {
    lr_mult: 1
  }
  param {
    lr_mult: 2
  }
  inner_product_param {
    num_output: 10
    weight_filler {
      type: "gaussian"
      std: 0.01
    }
    bias_filler {
      type: "constant"
    }
  }
}
layer {
  name: "accuracy"
  type: "Accuracy"
  bottom: "ip3"
  bottom: "label"
  top: "accuracy"
  include {
    phase: TEST
  }
}
layer {
  name: "loss"
  type: "SoftmaxWithLoss"
  bottom: "ip3"
  bottom: "label"
  top: "loss"
}
I0504 14:58:15.296332  5121 layer_factory.hpp:77] Creating layer cifar
I0504 14:58:15.296378  5121 db_lmdb.cpp:35] Opened lmdb examples/cifar10/cifar10_test_lmdb
I0504 14:58:15.296389  5121 net.cpp:86] Creating Layer cifar
I0504 14:58:15.296393  5121 net.cpp:382] cifar -> data
I0504 14:58:15.296401  5121 net.cpp:382] cifar -> label
I0504 14:58:15.296407  5121 data_transformer.cpp:25] Loading mean file from: examples/cifar10/mean.binaryproto
I0504 14:58:15.296560  5121 data_layer.cpp:45] output data size: 1000,3,32,32
I0504 14:58:15.318450  5121 net.cpp:124] Setting up cifar
I0504 14:58:15.318476  5121 net.cpp:131] Top shape: 1000 3 32 32 (3072000)
I0504 14:58:15.318481  5121 net.cpp:131] Top shape: 1000 (1000)
I0504 14:58:15.318485  5121 net.cpp:139] Memory required for data: 12292000
I0504 14:58:15.318490  5121 layer_factory.hpp:77] Creating layer label_cifar_1_split
I0504 14:58:15.318501  5121 net.cpp:86] Creating Layer label_cifar_1_split
I0504 14:58:15.318506  5121 net.cpp:408] label_cifar_1_split <- label
I0504 14:58:15.318511  5121 net.cpp:382] label_cifar_1_split -> label_cifar_1_split_0
I0504 14:58:15.318521  5121 net.cpp:382] label_cifar_1_split -> label_cifar_1_split_1
I0504 14:58:15.318648  5121 net.cpp:124] Setting up label_cifar_1_split
I0504 14:58:15.318656  5121 net.cpp:131] Top shape: 1000 (1000)
I0504 14:58:15.318660  5121 net.cpp:131] Top shape: 1000 (1000)
I0504 14:58:15.318662  5121 net.cpp:139] Memory required for data: 12300000
I0504 14:58:15.318666  5121 layer_factory.hpp:77] Creating layer conv0
I0504 14:58:15.318678  5121 net.cpp:86] Creating Layer conv0
I0504 14:58:15.318684  5121 net.cpp:408] conv0 <- data
I0504 14:58:15.318691  5121 net.cpp:382] conv0 -> conv0
I0504 14:58:15.320467  5121 net.cpp:124] Setting up conv0
I0504 14:58:15.320497  5121 net.cpp:131] Top shape: 1000 24 32 32 (24576000)
I0504 14:58:15.320500  5121 net.cpp:139] Memory required for data: 110604000
I0504 14:58:15.320521  5121 layer_factory.hpp:77] Creating layer Sigmoid0
I0504 14:58:15.320528  5121 net.cpp:86] Creating Layer Sigmoid0
I0504 14:58:15.320530  5121 net.cpp:408] Sigmoid0 <- conv0
I0504 14:58:15.320536  5121 net.cpp:382] Sigmoid0 -> Sigmoid0
I0504 14:58:15.320770  5121 net.cpp:124] Setting up Sigmoid0
I0504 14:58:15.320792  5121 net.cpp:131] Top shape: 1000 24 32 32 (24576000)
I0504 14:58:15.320796  5121 net.cpp:139] Memory required for data: 208908000
I0504 14:58:15.320799  5121 layer_factory.hpp:77] Creating layer pool0
I0504 14:58:15.320827  5121 net.cpp:86] Creating Layer pool0
I0504 14:58:15.320834  5121 net.cpp:408] pool0 <- Sigmoid0
I0504 14:58:15.320854  5121 net.cpp:382] pool0 -> pool0
I0504 14:58:15.322175  5121 net.cpp:124] Setting up pool0
I0504 14:58:15.322202  5121 net.cpp:131] Top shape: 1000 24 16 16 (6144000)
I0504 14:58:15.322206  5121 net.cpp:139] Memory required for data: 233484000
I0504 14:58:15.322209  5121 layer_factory.hpp:77] Creating layer conv1
I0504 14:58:15.322221  5121 net.cpp:86] Creating Layer conv1
I0504 14:58:15.322224  5121 net.cpp:408] conv1 <- pool0
I0504 14:58:15.322230  5121 net.cpp:382] conv1 -> conv1
I0504 14:58:15.327062  5121 net.cpp:124] Setting up conv1
I0504 14:58:15.327077  5121 net.cpp:131] Top shape: 1000 216 16 16 (55296000)
I0504 14:58:15.327080  5121 net.cpp:139] Memory required for data: 454668000
I0504 14:58:15.327090  5121 layer_factory.hpp:77] Creating layer Sigmoid1
I0504 14:58:15.327095  5121 net.cpp:86] Creating Layer Sigmoid1
I0504 14:58:15.327098  5121 net.cpp:408] Sigmoid1 <- conv1
I0504 14:58:15.327103  5121 net.cpp:382] Sigmoid1 -> Sigmoid1
I0504 14:58:15.327283  5121 net.cpp:124] Setting up Sigmoid1
I0504 14:58:15.327308  5121 net.cpp:131] Top shape: 1000 216 16 16 (55296000)
I0504 14:58:15.327312  5121 net.cpp:139] Memory required for data: 675852000
I0504 14:58:15.327332  5121 layer_factory.hpp:77] Creating layer pool1
I0504 14:58:15.327337  5121 net.cpp:86] Creating Layer pool1
I0504 14:58:15.327340  5121 net.cpp:408] pool1 <- Sigmoid1
I0504 14:58:15.327347  5121 net.cpp:382] pool1 -> pool1
I0504 14:58:15.328125  5121 net.cpp:124] Setting up pool1
I0504 14:58:15.328136  5121 net.cpp:131] Top shape: 1000 216 8 8 (13824000)
I0504 14:58:15.328155  5121 net.cpp:139] Memory required for data: 731148000
I0504 14:58:15.328158  5121 layer_factory.hpp:77] Creating layer ip1
I0504 14:58:15.328169  5121 net.cpp:86] Creating Layer ip1
I0504 14:58:15.328173  5121 net.cpp:408] ip1 <- pool1
I0504 14:58:15.328178  5121 net.cpp:382] ip1 -> ip1
I0504 14:58:15.350787  5121 net.cpp:124] Setting up ip1
I0504 14:58:15.350803  5121 net.cpp:131] Top shape: 1000 60 (60000)
I0504 14:58:15.350806  5121 net.cpp:139] Memory required for data: 731388000
I0504 14:58:15.350816  5121 layer_factory.hpp:77] Creating layer relu1
I0504 14:58:15.350823  5121 net.cpp:86] Creating Layer relu1
I0504 14:58:15.350827  5121 net.cpp:408] relu1 <- ip1
I0504 14:58:15.350833  5121 net.cpp:369] relu1 -> ip1 (in-place)
I0504 14:58:15.351056  5121 net.cpp:124] Setting up relu1
I0504 14:58:15.351065  5121 net.cpp:131] Top shape: 1000 60 (60000)
I0504 14:58:15.351068  5121 net.cpp:139] Memory required for data: 731628000
I0504 14:58:15.351073  5121 layer_factory.hpp:77] Creating layer ip2
I0504 14:58:15.351080  5121 net.cpp:86] Creating Layer ip2
I0504 14:58:15.351085  5121 net.cpp:408] ip2 <- ip1
I0504 14:58:15.351090  5121 net.cpp:382] ip2 -> ip2
I0504 14:58:15.351531  5121 net.cpp:124] Setting up ip2
I0504 14:58:15.351537  5121 net.cpp:131] Top shape: 1000 180 (180000)
I0504 14:58:15.351557  5121 net.cpp:139] Memory required for data: 732348000
I0504 14:58:15.351562  5121 layer_factory.hpp:77] Creating layer relu2
I0504 14:58:15.351567  5121 net.cpp:86] Creating Layer relu2
I0504 14:58:15.351570  5121 net.cpp:408] relu2 <- ip2
I0504 14:58:15.351577  5121 net.cpp:369] relu2 -> ip2 (in-place)
I0504 14:58:15.351739  5121 net.cpp:124] Setting up relu2
I0504 14:58:15.351747  5121 net.cpp:131] Top shape: 1000 180 (180000)
I0504 14:58:15.351750  5121 net.cpp:139] Memory required for data: 733068000
I0504 14:58:15.351753  5121 layer_factory.hpp:77] Creating layer ip3
I0504 14:58:15.351760  5121 net.cpp:86] Creating Layer ip3
I0504 14:58:15.351763  5121 net.cpp:408] ip3 <- ip2
I0504 14:58:15.351768  5121 net.cpp:382] ip3 -> ip3
I0504 14:58:15.351925  5121 net.cpp:124] Setting up ip3
I0504 14:58:15.351943  5121 net.cpp:131] Top shape: 1000 10 (10000)
I0504 14:58:15.351948  5121 net.cpp:139] Memory required for data: 733108000
I0504 14:58:15.351958  5121 layer_factory.hpp:77] Creating layer ip3_ip3_0_split
I0504 14:58:15.351963  5121 net.cpp:86] Creating Layer ip3_ip3_0_split
I0504 14:58:15.351966  5121 net.cpp:408] ip3_ip3_0_split <- ip3
I0504 14:58:15.351970  5121 net.cpp:382] ip3_ip3_0_split -> ip3_ip3_0_split_0
I0504 14:58:15.351975  5121 net.cpp:382] ip3_ip3_0_split -> ip3_ip3_0_split_1
I0504 14:58:15.352010  5121 net.cpp:124] Setting up ip3_ip3_0_split
I0504 14:58:15.352016  5121 net.cpp:131] Top shape: 1000 10 (10000)
I0504 14:58:15.352020  5121 net.cpp:131] Top shape: 1000 10 (10000)
I0504 14:58:15.352022  5121 net.cpp:139] Memory required for data: 733188000
I0504 14:58:15.352025  5121 layer_factory.hpp:77] Creating layer accuracy
I0504 14:58:15.352031  5121 net.cpp:86] Creating Layer accuracy
I0504 14:58:15.352035  5121 net.cpp:408] accuracy <- ip3_ip3_0_split_0
I0504 14:58:15.352039  5121 net.cpp:408] accuracy <- label_cifar_1_split_0
I0504 14:58:15.352044  5121 net.cpp:382] accuracy -> accuracy
…
