…
I0504 10:56:23.458546 26191 net.cpp:296] The NetState phase (0) differed from the phase (1) specified by a rule in layer cifar
I0504 10:56:23.458567 26191 net.cpp:296] The NetState phase (0) differed from the phase (1) specified by a rule in layer accuracy
I0504 10:56:23.458698 26191 net.cpp:53] Initializing net from parameters: 
name: "CIFAR"
state {
  phase: TRAIN
  level: 0
  stage: ""
}
layer {
  name: "cifar"
  type: "Data"
  top: "data"
  top: "label"
  include {
    phase: TRAIN
  }
  transform_param {
    mean_file: "examples/cifar10/mean.binaryproto"
  }
  data_param {
    source: "examples/cifar10/cifar10_train_lmdb"
    batch_size: 111
    backend: LMDB
  }
}
layer {
  name: "conv0"
  type: "Convolution"
  bottom: "data"
  top: "conv0"
  param {
    lr_mult: 1
  }
  param {
    lr_mult: 2
  }
  convolution_param {
    num_output: 24
    pad: 2
    kernel_size: 5
    stride: 1
    weight_filler {
      type: "gaussian"
      std: 0.01
    }
    bias_filler {
      type: "constant"
    }
  }
}
layer {
  name: "Sigmoid0"
  type: "Sigmoid"
  bottom: "conv0"
  top: "Sigmoid0"
}
layer {
  name: "pool0"
  type: "Pooling"
  bottom: "Sigmoid0"
  top: "pool0"
  pooling_param {
    pool: AVE
    kernel_size: 3
    stride: 2
  }
}
layer {
  name: "conv1"
  type: "Convolution"
  bottom: "pool0"
  top: "conv1"
  param {
    lr_mult: 1
  }
  param {
    lr_mult: 2
  }
  convolution_param {
    num_output: 72
    pad: 2
    kernel_size: 5
    stride: 1
    weight_filler {
      type: "gaussian"
      std: 0.01
    }
    bias_filler {
      type: "constant"
    }
  }
}
layer {
  name: "Sigmoid1"
  type: "Sigmoid"
  bottom: "conv1"
  top: "Sigmoid1"
}
layer {
  name: "pool1"
  type: "Pooling"
  bottom: "Sigmoid1"
  top: "pool1"
  pooling_param {
    pool: AVE
    kernel_size: 3
    stride: 2
  }
}
layer {
  name: "ip1"
  type: "InnerProduct"
  bottom: "pool1"
  top: "ip1"
  param {
    lr_mult: 1
  }
  param {
    lr_mult: 2
  }
  inner_product_param {
    num_output: 180
    weight_filler {
      type: "gaussian"
      std: 0.01
    }
    bias_filler {
      type: "constant"
    }
  }
}
layer {
  name: "relu1"
  type: "ReLU"
  bottom: "ip1"
  top: "ip1"
}
layer {
  name: "ip2"
  type: "InnerProduct"
  bottom: "ip1"
  top: "ip2"
  param {
    lr_mult: 1
  }
  param {
    lr_mult: 2
  }
  inner_product_param {
    num_output: 10
    weight_filler {
      type: "gaussian"
      std: 0.01
    }
    bias_filler {
      type: "constant"
    }
  }
}
layer {
  name: "relu2"
  type: "ReLU"
  bottom: "ip2"
  top: "ip2"
}
layer {
  name: "ip3"
  type: "InnerProduct"
  bottom: "ip2"
  top: "ip3"
  param {
    lr_mult: 1
  }
  param {
    lr_mult: 2
  }
  inner_product_param {
    num_output: 10
    weight_filler {
      type: "gaussian"
      std: 0.01
    }
    bias_filler {
      type: "constant"
    }
  }
}
layer {
  name: "loss"
  type: "SoftmaxWithLoss"
  bottom: "ip3"
  bottom: "label"
  top: "loss"
}
I0504 10:56:23.458803 26191 layer_factory.hpp:77] Creating layer cifar
I0504 10:56:23.458904 26191 db_lmdb.cpp:35] Opened lmdb examples/cifar10/cifar10_train_lmdb
I0504 10:56:23.458931 26191 net.cpp:86] Creating Layer cifar
I0504 10:56:23.458941 26191 net.cpp:382] cifar -> data
I0504 10:56:23.458963 26191 net.cpp:382] cifar -> label
I0504 10:56:23.458976 26191 data_transformer.cpp:25] Loading mean file from: examples/cifar10/mean.binaryproto
I0504 10:56:23.461135 26191 data_layer.cpp:45] output data size: 111,3,32,32
I0504 10:56:23.469115 26191 net.cpp:124] Setting up cifar
I0504 10:56:23.469133 26191 net.cpp:131] Top shape: 111 3 32 32 (340992)
I0504 10:56:23.469139 26191 net.cpp:131] Top shape: 111 (111)
I0504 10:56:23.469143 26191 net.cpp:139] Memory required for data: 1364412
I0504 10:56:23.469151 26191 layer_factory.hpp:77] Creating layer conv0
I0504 10:56:23.469169 26191 net.cpp:86] Creating Layer conv0
I0504 10:56:23.469183 26191 net.cpp:408] conv0 <- data
I0504 10:56:23.469194 26191 net.cpp:382] conv0 -> conv0
I0504 10:56:23.749724 26191 net.cpp:124] Setting up conv0
I0504 10:56:23.749750 26191 net.cpp:131] Top shape: 111 24 32 32 (2727936)
I0504 10:56:23.749754 26191 net.cpp:139] Memory required for data: 12276156
I0504 10:56:23.749768 26191 layer_factory.hpp:77] Creating layer Sigmoid0
I0504 10:56:23.749779 26191 net.cpp:86] Creating Layer Sigmoid0
I0504 10:56:23.749783 26191 net.cpp:408] Sigmoid0 <- conv0
I0504 10:56:23.749789 26191 net.cpp:382] Sigmoid0 -> Sigmoid0
I0504 10:56:23.749955 26191 net.cpp:124] Setting up Sigmoid0
I0504 10:56:23.749964 26191 net.cpp:131] Top shape: 111 24 32 32 (2727936)
I0504 10:56:23.749967 26191 net.cpp:139] Memory required for data: 23187900
I0504 10:56:23.749970 26191 layer_factory.hpp:77] Creating layer pool0
I0504 10:56:23.749977 26191 net.cpp:86] Creating Layer pool0
I0504 10:56:23.749980 26191 net.cpp:408] pool0 <- Sigmoid0
I0504 10:56:23.749985 26191 net.cpp:382] pool0 -> pool0
I0504 10:56:23.750710 26191 net.cpp:124] Setting up pool0
I0504 10:56:23.750730 26191 net.cpp:131] Top shape: 111 24 16 16 (681984)
I0504 10:56:23.750733 26191 net.cpp:139] Memory required for data: 25915836
I0504 10:56:23.750736 26191 layer_factory.hpp:77] Creating layer conv1
I0504 10:56:23.750748 26191 net.cpp:86] Creating Layer conv1
I0504 10:56:23.750752 26191 net.cpp:408] conv1 <- pool0
I0504 10:56:23.750757 26191 net.cpp:382] conv1 -> conv1
I0504 10:56:23.754390 26191 net.cpp:124] Setting up conv1
I0504 10:56:23.754402 26191 net.cpp:131] Top shape: 111 72 16 16 (2045952)
I0504 10:56:23.754406 26191 net.cpp:139] Memory required for data: 34099644
I0504 10:56:23.754415 26191 layer_factory.hpp:77] Creating layer Sigmoid1
I0504 10:56:23.754420 26191 net.cpp:86] Creating Layer Sigmoid1
I0504 10:56:23.754423 26191 net.cpp:408] Sigmoid1 <- conv1
I0504 10:56:23.754427 26191 net.cpp:382] Sigmoid1 -> Sigmoid1
I0504 10:56:23.754585 26191 net.cpp:124] Setting up Sigmoid1
I0504 10:56:23.754595 26191 net.cpp:131] Top shape: 111 72 16 16 (2045952)
I0504 10:56:23.754597 26191 net.cpp:139] Memory required for data: 42283452
I0504 10:56:23.754601 26191 layer_factory.hpp:77] Creating layer pool1
I0504 10:56:23.754606 26191 net.cpp:86] Creating Layer pool1
I0504 10:56:23.754609 26191 net.cpp:408] pool1 <- Sigmoid1
I0504 10:56:23.754614 26191 net.cpp:382] pool1 -> pool1
I0504 10:56:23.754786 26191 net.cpp:124] Setting up pool1
I0504 10:56:23.754793 26191 net.cpp:131] Top shape: 111 72 8 8 (511488)
I0504 10:56:23.754796 26191 net.cpp:139] Memory required for data: 44329404
I0504 10:56:23.754799 26191 layer_factory.hpp:77] Creating layer ip1
I0504 10:56:23.754806 26191 net.cpp:86] Creating Layer ip1
I0504 10:56:23.754809 26191 net.cpp:408] ip1 <- pool1
I0504 10:56:23.754814 26191 net.cpp:382] ip1 -> ip1
I0504 10:56:23.776700 26191 net.cpp:124] Setting up ip1
I0504 10:56:23.776728 26191 net.cpp:131] Top shape: 111 180 (19980)
I0504 10:56:23.776732 26191 net.cpp:139] Memory required for data: 44409324
I0504 10:56:23.776741 26191 layer_factory.hpp:77] Creating layer relu1
I0504 10:56:23.776747 26191 net.cpp:86] Creating Layer relu1
I0504 10:56:23.776751 26191 net.cpp:408] relu1 <- ip1
I0504 10:56:23.776756 26191 net.cpp:369] relu1 -> ip1 (in-place)
I0504 10:56:23.776985 26191 net.cpp:124] Setting up relu1
I0504 10:56:23.776995 26191 net.cpp:131] Top shape: 111 180 (19980)
I0504 10:56:23.776998 26191 net.cpp:139] Memory required for data: 44489244
I0504 10:56:23.777001 26191 layer_factory.hpp:77] Creating layer ip2
I0504 10:56:23.777009 26191 net.cpp:86] Creating Layer ip2
I0504 10:56:23.777011 26191 net.cpp:408] ip2 <- ip1
I0504 10:56:23.777030 26191 net.cpp:382] ip2 -> ip2
I0504 10:56:23.777209 26191 net.cpp:124] Setting up ip2
I0504 10:56:23.777215 26191 net.cpp:131] Top shape: 111 10 (1110)
I0504 10:56:23.777218 26191 net.cpp:139] Memory required for data: 44493684
I0504 10:56:23.777223 26191 layer_factory.hpp:77] Creating layer relu2
I0504 10:56:23.777227 26191 net.cpp:86] Creating Layer relu2
I0504 10:56:23.777230 26191 net.cpp:408] relu2 <- ip2
I0504 10:56:23.777235 26191 net.cpp:369] relu2 -> ip2 (in-place)
I0504 10:56:23.777974 26191 net.cpp:124] Setting up relu2
I0504 10:56:23.777987 26191 net.cpp:131] Top shape: 111 10 (1110)
I0504 10:56:23.777989 26191 net.cpp:139] Memory required for data: 44498124
I0504 10:56:23.777992 26191 layer_factory.hpp:77] Creating layer ip3
I0504 10:56:23.777998 26191 net.cpp:86] Creating Layer ip3
I0504 10:56:23.778002 26191 net.cpp:408] ip3 <- ip2
I0504 10:56:23.778007 26191 net.cpp:382] ip3 -> ip3
I0504 10:56:23.778115 26191 net.cpp:124] Setting up ip3
I0504 10:56:23.778122 26191 net.cpp:131] Top shape: 111 10 (1110)
I0504 10:56:23.778126 26191 net.cpp:139] Memory required for data: 44502564
I0504 10:56:23.778133 26191 layer_factory.hpp:77] Creating layer loss
I0504 10:56:23.778138 26191 net.cpp:86] Creating Layer loss
I0504 10:56:23.778141 26191 net.cpp:408] loss <- ip3
I0504 10:56:23.778144 26191 net.cpp:408] loss <- label
I0504 10:56:23.778149 26191 net.cpp:382] loss -> loss
I0504 10:56:23.778165 26191 layer_factory.hpp:77] Creating layer loss
…
I0504 10:56:23.778806 26191 solver.cpp:173] Creating test net (#0) specified by net file: ECE595/cifar/train_test/var_everything_tiny/cifar_train_test_141.prototxt
I0504 10:56:23.778861 26191 net.cpp:296] The NetState phase (1) differed from the phase (0) specified by a rule in layer cifar
I0504 10:56:23.778981 26191 net.cpp:53] Initializing net from parameters: 
name: "CIFAR"
state {
  phase: TEST
}
layer {
  name: "cifar"
  type: "Data"
  top: "data"
  top: "label"
  include {
    phase: TEST
  }
  transform_param {
    mean_file: "examples/cifar10/mean.binaryproto"
  }
  data_param {
    source: "examples/cifar10/cifar10_test_lmdb"
    batch_size: 1000
    backend: LMDB
  }
}
layer {
  name: "conv0"
  type: "Convolution"
  bottom: "data"
  top: "conv0"
  param {
    lr_mult: 1
  }
  param {
    lr_mult: 2
  }
  convolution_param {
    num_output: 24
    pad: 2
    kernel_size: 5
    stride: 1
    weight_filler {
      type: "gaussian"
      std: 0.01
    }
    bias_filler {
      type: "constant"
    }
  }
}
layer {
  name: "Sigmoid0"
  type: "Sigmoid"
  bottom: "conv0"
  top: "Sigmoid0"
}
layer {
  name: "pool0"
  type: "Pooling"
  bottom: "Sigmoid0"
  top: "pool0"
  pooling_param {
    pool: AVE
    kernel_size: 3
    stride: 2
  }
}
layer {
  name: "conv1"
  type: "Convolution"
  bottom: "pool0"
  top: "conv1"
  param {
    lr_mult: 1
  }
  param {
    lr_mult: 2
  }
  convolution_param {
    num_output: 72
    pad: 2
    kernel_size: 5
    stride: 1
    weight_filler {
      type: "gaussian"
      std: 0.01
    }
    bias_filler {
      type: "constant"
    }
  }
}
layer {
  name: "Sigmoid1"
  type: "Sigmoid"
  bottom: "conv1"
  top: "Sigmoid1"
}
layer {
  name: "pool1"
  type: "Pooling"
  bottom: "Sigmoid1"
  top: "pool1"
  pooling_param {
    pool: AVE
    kernel_size: 3
    stride: 2
  }
}
layer {
  name: "ip1"
  type: "InnerProduct"
  bottom: "pool1"
  top: "ip1"
  param {
    lr_mult: 1
  }
  param {
    lr_mult: 2
  }
  inner_product_param {
    num_output: 180
    weight_filler {
      type: "gaussian"
      std: 0.01
    }
    bias_filler {
      type: "constant"
    }
  }
}
layer {
  name: "relu1"
  type: "ReLU"
  bottom: "ip1"
  top: "ip1"
}
layer {
  name: "ip2"
  type: "InnerProduct"
  bottom: "ip1"
  top: "ip2"
  param {
    lr_mult: 1
  }
  param {
    lr_mult: 2
  }
  inner_product_param {
    num_output: 10
    weight_filler {
      type: "gaussian"
      std: 0.01
    }
    bias_filler {
      type: "constant"
    }
  }
}
layer {
  name: "relu2"
  type: "ReLU"
  bottom: "ip2"
  top: "ip2"
}
layer {
  name: "ip3"
  type: "InnerProduct"
  bottom: "ip2"
  top: "ip3"
  param {
    lr_mult: 1
  }
  param {
    lr_mult: 2
  }
  inner_product_param {
    num_output: 10
    weight_filler {
      type: "gaussian"
      std: 0.01
    }
    bias_filler {
      type: "constant"
    }
  }
}
layer {
  name: "accuracy"
  type: "Accuracy"
  bottom: "ip3"
  bottom: "label"
  top: "accuracy"
  include {
    phase: TEST
  }
}
layer {
  name: "loss"
  type: "SoftmaxWithLoss"
  bottom: "ip3"
  bottom: "label"
  top: "loss"
}
I0504 10:56:23.779057 26191 layer_factory.hpp:77] Creating layer cifar
I0504 10:56:23.779101 26191 db_lmdb.cpp:35] Opened lmdb examples/cifar10/cifar10_test_lmdb
I0504 10:56:23.779114 26191 net.cpp:86] Creating Layer cifar
I0504 10:56:23.779117 26191 net.cpp:382] cifar -> data
I0504 10:56:23.779124 26191 net.cpp:382] cifar -> label
I0504 10:56:23.779130 26191 data_transformer.cpp:25] Loading mean file from: examples/cifar10/mean.binaryproto
I0504 10:56:23.779263 26191 data_layer.cpp:45] output data size: 1000,3,32,32
I0504 10:56:23.800513 26191 net.cpp:124] Setting up cifar
I0504 10:56:23.800570 26191 net.cpp:131] Top shape: 1000 3 32 32 (3072000)
I0504 10:56:23.800576 26191 net.cpp:131] Top shape: 1000 (1000)
I0504 10:56:23.800580 26191 net.cpp:139] Memory required for data: 12292000
I0504 10:56:23.800585 26191 layer_factory.hpp:77] Creating layer label_cifar_1_split
I0504 10:56:23.800601 26191 net.cpp:86] Creating Layer label_cifar_1_split
I0504 10:56:23.800606 26191 net.cpp:408] label_cifar_1_split <- label
I0504 10:56:23.800612 26191 net.cpp:382] label_cifar_1_split -> label_cifar_1_split_0
I0504 10:56:23.800621 26191 net.cpp:382] label_cifar_1_split -> label_cifar_1_split_1
I0504 10:56:23.800727 26191 net.cpp:124] Setting up label_cifar_1_split
I0504 10:56:23.800735 26191 net.cpp:131] Top shape: 1000 (1000)
I0504 10:56:23.800739 26191 net.cpp:131] Top shape: 1000 (1000)
I0504 10:56:23.800741 26191 net.cpp:139] Memory required for data: 12300000
I0504 10:56:23.800745 26191 layer_factory.hpp:77] Creating layer conv0
I0504 10:56:23.800757 26191 net.cpp:86] Creating Layer conv0
I0504 10:56:23.800763 26191 net.cpp:408] conv0 <- data
I0504 10:56:23.800783 26191 net.cpp:382] conv0 -> conv0
I0504 10:56:23.803325 26191 net.cpp:124] Setting up conv0
I0504 10:56:23.803354 26191 net.cpp:131] Top shape: 1000 24 32 32 (24576000)
I0504 10:56:23.803359 26191 net.cpp:139] Memory required for data: 110604000
I0504 10:56:23.803367 26191 layer_factory.hpp:77] Creating layer Sigmoid0
I0504 10:56:23.803376 26191 net.cpp:86] Creating Layer Sigmoid0
I0504 10:56:23.803380 26191 net.cpp:408] Sigmoid0 <- conv0
I0504 10:56:23.803385 26191 net.cpp:382] Sigmoid0 -> Sigmoid0
I0504 10:56:23.803571 26191 net.cpp:124] Setting up Sigmoid0
I0504 10:56:23.803592 26191 net.cpp:131] Top shape: 1000 24 32 32 (24576000)
I0504 10:56:23.803596 26191 net.cpp:139] Memory required for data: 208908000
I0504 10:56:23.803599 26191 layer_factory.hpp:77] Creating layer pool0
I0504 10:56:23.803606 26191 net.cpp:86] Creating Layer pool0
I0504 10:56:23.803611 26191 net.cpp:408] pool0 <- Sigmoid0
I0504 10:56:23.803614 26191 net.cpp:382] pool0 -> pool0
I0504 10:56:23.803771 26191 net.cpp:124] Setting up pool0
I0504 10:56:23.803779 26191 net.cpp:131] Top shape: 1000 24 16 16 (6144000)
I0504 10:56:23.803783 26191 net.cpp:139] Memory required for data: 233484000
I0504 10:56:23.803786 26191 layer_factory.hpp:77] Creating layer conv1
I0504 10:56:23.803794 26191 net.cpp:86] Creating Layer conv1
I0504 10:56:23.803798 26191 net.cpp:408] conv1 <- pool0
I0504 10:56:23.803818 26191 net.cpp:382] conv1 -> conv1
I0504 10:56:23.806257 26191 net.cpp:124] Setting up conv1
I0504 10:56:23.806270 26191 net.cpp:131] Top shape: 1000 72 16 16 (18432000)
I0504 10:56:23.806289 26191 net.cpp:139] Memory required for data: 307212000
I0504 10:56:23.806299 26191 layer_factory.hpp:77] Creating layer Sigmoid1
I0504 10:56:23.806318 26191 net.cpp:86] Creating Layer Sigmoid1
I0504 10:56:23.806323 26191 net.cpp:408] Sigmoid1 <- conv1
I0504 10:56:23.806326 26191 net.cpp:382] Sigmoid1 -> Sigmoid1
I0504 10:56:23.806502 26191 net.cpp:124] Setting up Sigmoid1
I0504 10:56:23.806511 26191 net.cpp:131] Top shape: 1000 72 16 16 (18432000)
I0504 10:56:23.806515 26191 net.cpp:139] Memory required for data: 380940000
I0504 10:56:23.806517 26191 layer_factory.hpp:77] Creating layer pool1
I0504 10:56:23.806524 26191 net.cpp:86] Creating Layer pool1
I0504 10:56:23.806526 26191 net.cpp:408] pool1 <- Sigmoid1
I0504 10:56:23.806531 26191 net.cpp:382] pool1 -> pool1
I0504 10:56:23.807271 26191 net.cpp:124] Setting up pool1
I0504 10:56:23.807283 26191 net.cpp:131] Top shape: 1000 72 8 8 (4608000)
I0504 10:56:23.807302 26191 net.cpp:139] Memory required for data: 399372000
I0504 10:56:23.807306 26191 layer_factory.hpp:77] Creating layer ip1
I0504 10:56:23.807314 26191 net.cpp:86] Creating Layer ip1
I0504 10:56:23.807318 26191 net.cpp:408] ip1 <- pool1
I0504 10:56:23.807323 26191 net.cpp:382] ip1 -> ip1
I0504 10:56:23.830062 26191 net.cpp:124] Setting up ip1
I0504 10:56:23.830093 26191 net.cpp:131] Top shape: 1000 180 (180000)
I0504 10:56:23.830097 26191 net.cpp:139] Memory required for data: 400092000
I0504 10:56:23.830106 26191 layer_factory.hpp:77] Creating layer relu1
I0504 10:56:23.830112 26191 net.cpp:86] Creating Layer relu1
I0504 10:56:23.830116 26191 net.cpp:408] relu1 <- ip1
I0504 10:56:23.830121 26191 net.cpp:369] relu1 -> ip1 (in-place)
I0504 10:56:23.830320 26191 net.cpp:124] Setting up relu1
I0504 10:56:23.830329 26191 net.cpp:131] Top shape: 1000 180 (180000)
I0504 10:56:23.830332 26191 net.cpp:139] Memory required for data: 400812000
I0504 10:56:23.830335 26191 layer_factory.hpp:77] Creating layer ip2
I0504 10:56:23.830343 26191 net.cpp:86] Creating Layer ip2
I0504 10:56:23.830346 26191 net.cpp:408] ip2 <- ip1
I0504 10:56:23.830351 26191 net.cpp:382] ip2 -> ip2
I0504 10:56:23.830504 26191 net.cpp:124] Setting up ip2
I0504 10:56:23.830512 26191 net.cpp:131] Top shape: 1000 10 (10000)
I0504 10:56:23.830514 26191 net.cpp:139] Memory required for data: 400852000
I0504 10:56:23.830519 26191 layer_factory.hpp:77] Creating layer relu2
I0504 10:56:23.830523 26191 net.cpp:86] Creating Layer relu2
I0504 10:56:23.830528 26191 net.cpp:408] relu2 <- ip2
I0504 10:56:23.830530 26191 net.cpp:369] relu2 -> ip2 (in-place)
I0504 10:56:23.830680 26191 net.cpp:124] Setting up relu2
I0504 10:56:23.830688 26191 net.cpp:131] Top shape: 1000 10 (10000)
I0504 10:56:23.830691 26191 net.cpp:139] Memory required for data: 400892000
I0504 10:56:23.830694 26191 layer_factory.hpp:77] Creating layer ip3
I0504 10:56:23.830701 26191 net.cpp:86] Creating Layer ip3
I0504 10:56:23.830704 26191 net.cpp:408] ip3 <- ip2
I0504 10:56:23.830709 26191 net.cpp:382] ip3 -> ip3
I0504 10:56:23.830808 26191 net.cpp:124] Setting up ip3
I0504 10:56:23.830816 26191 net.cpp:131] Top shape: 1000 10 (10000)
I0504 10:56:23.830829 26191 net.cpp:139] Memory required for data: 400932000
I0504 10:56:23.830837 26191 layer_factory.hpp:77] Creating layer ip3_ip3_0_split
I0504 10:56:23.830842 26191 net.cpp:86] Creating Layer ip3_ip3_0_split
I0504 10:56:23.830845 26191 net.cpp:408] ip3_ip3_0_split <- ip3
I0504 10:56:23.830849 26191 net.cpp:382] ip3_ip3_0_split -> ip3_ip3_0_split_0
I0504 10:56:23.830854 26191 net.cpp:382] ip3_ip3_0_split -> ip3_ip3_0_split_1
I0504 10:56:23.830886 26191 net.cpp:124] Setting up ip3_ip3_0_split
I0504 10:56:23.830893 26191 net.cpp:131] Top shape: 1000 10 (10000)
I0504 10:56:23.830895 26191 net.cpp:131] Top shape: 1000 10 (10000)
I0504 10:56:23.830899 26191 net.cpp:139] Memory required for data: 401012000
I0504 10:56:23.830901 26191 layer_factory.hpp:77] Creating layer accuracy
I0504 10:56:23.830906 26191 net.cpp:86] Creating Layer accuracy
I0504 10:56:23.830909 26191 net.cpp:408] accuracy <- ip3_ip3_0_split_0
I0504 10:56:23.830914 26191 net.cpp:408] accuracy <- label_cifar_1_split_0
I0504 10:56:23.830919 26191 net.cpp:382] accuracy -> accuracy
…
