…
I0503 23:46:42.561687  3987 net.cpp:296] The NetState phase (0) differed from the phase (1) specified by a rule in layer cifar
I0503 23:46:42.561702  3987 net.cpp:296] The NetState phase (0) differed from the phase (1) specified by a rule in layer accuracy
I0503 23:46:42.561784  3987 net.cpp:53] Initializing net from parameters: 
name: "CIFAR"
state {
  phase: TRAIN
  level: 0
  stage: ""
}
layer {
  name: "cifar"
  type: "Data"
  top: "data"
  top: "label"
  include {
    phase: TRAIN
  }
  transform_param {
    mean_file: "examples/cifar10/mean.binaryproto"
  }
  data_param {
    source: "examples/cifar10/cifar10_train_lmdb"
    batch_size: 111
    backend: LMDB
  }
}
layer {
  name: "conv0"
  type: "Convolution"
  bottom: "data"
  top: "conv0"
  param {
    lr_mult: 1
  }
  param {
    lr_mult: 2
  }
  convolution_param {
    num_output: 24
    pad: 2
    kernel_size: 3
    stride: 1
    weight_filler {
      type: "gaussian"
      std: 0.01
    }
    bias_filler {
      type: "constant"
    }
  }
}
layer {
  name: "Sigmoid0"
  type: "Sigmoid"
  bottom: "conv0"
  top: "Sigmoid0"
}
layer {
  name: "pool0"
  type: "Pooling"
  bottom: "Sigmoid0"
  top: "pool0"
  pooling_param {
    pool: AVE
    kernel_size: 3
    stride: 2
  }
}
layer {
  name: "ip1"
  type: "InnerProduct"
  bottom: "pool0"
  top: "ip1"
  param {
    lr_mult: 1
  }
  param {
    lr_mult: 2
  }
  inner_product_param {
    num_output: 60
    weight_filler {
      type: "gaussian"
      std: 0.01
    }
    bias_filler {
      type: "constant"
    }
  }
}
layer {
  name: "relu1"
  type: "ReLU"
  bottom: "ip1"
  top: "ip1"
}
layer {
  name: "ip2"
  type: "InnerProduct"
  bottom: "ip1"
  top: "ip2"
  param {
    lr_mult: 1
  }
  param {
    lr_mult: 2
  }
  inner_product_param {
    num_output: 10
    weight_filler {
      type: "gaussian"
      std: 0.01
    }
    bias_filler {
      type: "constant"
    }
  }
}
layer {
  name: "loss"
  type: "SoftmaxWithLoss"
  bottom: "ip2"
  bottom: "label"
  top: "loss"
}
I0503 23:46:42.561856  3987 layer_factory.hpp:77] Creating layer cifar
I0503 23:46:42.561957  3987 db_lmdb.cpp:35] Opened lmdb examples/cifar10/cifar10_train_lmdb
I0503 23:46:42.561985  3987 net.cpp:86] Creating Layer cifar
I0503 23:46:42.561993  3987 net.cpp:382] cifar -> data
I0503 23:46:42.562016  3987 net.cpp:382] cifar -> label
I0503 23:46:42.562028  3987 data_transformer.cpp:25] Loading mean file from: examples/cifar10/mean.binaryproto
I0503 23:46:42.564136  3987 data_layer.cpp:45] output data size: 111,3,32,32
I0503 23:46:42.572278  3987 net.cpp:124] Setting up cifar
I0503 23:46:42.572298  3987 net.cpp:131] Top shape: 111 3 32 32 (340992)
I0503 23:46:42.572304  3987 net.cpp:131] Top shape: 111 (111)
I0503 23:46:42.572307  3987 net.cpp:139] Memory required for data: 1364412
I0503 23:46:42.572315  3987 layer_factory.hpp:77] Creating layer conv0
I0503 23:46:42.572335  3987 net.cpp:86] Creating Layer conv0
I0503 23:46:42.572340  3987 net.cpp:408] conv0 <- data
I0503 23:46:42.572355  3987 net.cpp:382] conv0 -> conv0
I0503 23:46:42.887569  3987 net.cpp:124] Setting up conv0
I0503 23:46:42.887601  3987 net.cpp:131] Top shape: 111 24 34 34 (3079584)
I0503 23:46:42.887609  3987 net.cpp:139] Memory required for data: 13682748
I0503 23:46:42.887634  3987 layer_factory.hpp:77] Creating layer Sigmoid0
I0503 23:46:42.887651  3987 net.cpp:86] Creating Layer Sigmoid0
I0503 23:46:42.887660  3987 net.cpp:408] Sigmoid0 <- conv0
I0503 23:46:42.887670  3987 net.cpp:382] Sigmoid0 -> Sigmoid0
I0503 23:46:42.887925  3987 net.cpp:124] Setting up Sigmoid0
I0503 23:46:42.887939  3987 net.cpp:131] Top shape: 111 24 34 34 (3079584)
I0503 23:46:42.887946  3987 net.cpp:139] Memory required for data: 26001084
I0503 23:46:42.887953  3987 layer_factory.hpp:77] Creating layer pool0
I0503 23:46:42.887964  3987 net.cpp:86] Creating Layer pool0
I0503 23:46:42.887970  3987 net.cpp:408] pool0 <- Sigmoid0
I0503 23:46:42.887980  3987 net.cpp:382] pool0 -> pool0
I0503 23:46:42.888903  3987 net.cpp:124] Setting up pool0
I0503 23:46:42.888922  3987 net.cpp:131] Top shape: 111 24 17 17 (769896)
I0503 23:46:42.888929  3987 net.cpp:139] Memory required for data: 29080668
I0503 23:46:42.888936  3987 layer_factory.hpp:77] Creating layer ip1
I0503 23:46:42.888955  3987 net.cpp:86] Creating Layer ip1
I0503 23:46:42.888962  3987 net.cpp:408] ip1 <- pool0
I0503 23:46:42.888975  3987 net.cpp:382] ip1 -> ip1
I0503 23:46:42.903698  3987 net.cpp:124] Setting up ip1
I0503 23:46:42.903715  3987 net.cpp:131] Top shape: 111 60 (6660)
I0503 23:46:42.903723  3987 net.cpp:139] Memory required for data: 29107308
I0503 23:46:42.903738  3987 layer_factory.hpp:77] Creating layer relu1
I0503 23:46:42.903749  3987 net.cpp:86] Creating Layer relu1
I0503 23:46:42.903756  3987 net.cpp:408] relu1 <- ip1
I0503 23:46:42.903765  3987 net.cpp:369] relu1 -> ip1 (in-place)
I0503 23:46:42.903980  3987 net.cpp:124] Setting up relu1
I0503 23:46:42.903992  3987 net.cpp:131] Top shape: 111 60 (6660)
I0503 23:46:42.903998  3987 net.cpp:139] Memory required for data: 29133948
I0503 23:46:42.904006  3987 layer_factory.hpp:77] Creating layer ip2
I0503 23:46:42.904016  3987 net.cpp:86] Creating Layer ip2
I0503 23:46:42.904023  3987 net.cpp:408] ip2 <- ip1
I0503 23:46:42.904036  3987 net.cpp:382] ip2 -> ip2
I0503 23:46:42.904187  3987 net.cpp:124] Setting up ip2
I0503 23:46:42.904198  3987 net.cpp:131] Top shape: 111 10 (1110)
I0503 23:46:42.904203  3987 net.cpp:139] Memory required for data: 29138388
I0503 23:46:42.904218  3987 layer_factory.hpp:77] Creating layer loss
I0503 23:46:42.904232  3987 net.cpp:86] Creating Layer loss
I0503 23:46:42.904244  3987 net.cpp:408] loss <- ip2
I0503 23:46:42.904253  3987 net.cpp:408] loss <- label
I0503 23:46:42.904263  3987 net.cpp:382] loss -> loss
I0503 23:46:42.904289  3987 layer_factory.hpp:77] Creating layer loss
…
I0503 23:46:42.905038  3987 solver.cpp:173] Creating test net (#0) specified by net file: ECE595/cifar/train_test/var_everything_tiny/cifar_train_test_1.prototxt
I0503 23:46:42.905078  3987 net.cpp:296] The NetState phase (1) differed from the phase (0) specified by a rule in layer cifar
I0503 23:46:42.905175  3987 net.cpp:53] Initializing net from parameters: 
name: "CIFAR"
state {
  phase: TEST
}
layer {
  name: "cifar"
  type: "Data"
  top: "data"
  top: "label"
  include {
    phase: TEST
  }
  transform_param {
    mean_file: "examples/cifar10/mean.binaryproto"
  }
  data_param {
    source: "examples/cifar10/cifar10_test_lmdb"
    batch_size: 1000
    backend: LMDB
  }
}
layer {
  name: "conv0"
  type: "Convolution"
  bottom: "data"
  top: "conv0"
  param {
    lr_mult: 1
  }
  param {
    lr_mult: 2
  }
  convolution_param {
    num_output: 24
    pad: 2
    kernel_size: 3
    stride: 1
    weight_filler {
      type: "gaussian"
      std: 0.01
    }
    bias_filler {
      type: "constant"
    }
  }
}
layer {
  name: "Sigmoid0"
  type: "Sigmoid"
  bottom: "conv0"
  top: "Sigmoid0"
}
layer {
  name: "pool0"
  type: "Pooling"
  bottom: "Sigmoid0"
  top: "pool0"
  pooling_param {
    pool: AVE
    kernel_size: 3
    stride: 2
  }
}
layer {
  name: "ip1"
  type: "InnerProduct"
  bottom: "pool0"
  top: "ip1"
  param {
    lr_mult: 1
  }
  param {
    lr_mult: 2
  }
  inner_product_param {
    num_output: 60
    weight_filler {
      type: "gaussian"
      std: 0.01
    }
    bias_filler {
      type: "constant"
    }
  }
}
layer {
  name: "relu1"
  type: "ReLU"
  bottom: "ip1"
  top: "ip1"
}
layer {
  name: "ip2"
  type: "InnerProduct"
  bottom: "ip1"
  top: "ip2"
  param {
    lr_mult: 1
  }
  param {
    lr_mult: 2
  }
  inner_product_param {
    num_output: 10
    weight_filler {
      type: "gaussian"
      std: 0.01
    }
    bias_filler {
      type: "constant"
    }
  }
}
layer {
  name: "accuracy"
  type: "Accuracy"
  bottom: "ip2"
  bottom: "label"
  top: "accuracy"
  include {
    phase: TEST
  }
}
layer {
  name: "loss"
  type: "SoftmaxWithLoss"
  bottom: "ip2"
  bottom: "label"
  top: "loss"
}
I0503 23:46:42.905299  3987 layer_factory.hpp:77] Creating layer cifar
I0503 23:46:42.905369  3987 db_lmdb.cpp:35] Opened lmdb examples/cifar10/cifar10_test_lmdb
I0503 23:46:42.905391  3987 net.cpp:86] Creating Layer cifar
I0503 23:46:42.905405  3987 net.cpp:382] cifar -> data
I0503 23:46:42.905418  3987 net.cpp:382] cifar -> label
I0503 23:46:42.905431  3987 data_transformer.cpp:25] Loading mean file from: examples/cifar10/mean.binaryproto
I0503 23:46:42.905689  3987 data_layer.cpp:45] output data size: 1000,3,32,32
I0503 23:46:42.931143  3987 net.cpp:124] Setting up cifar
I0503 23:46:42.931172  3987 net.cpp:131] Top shape: 1000 3 32 32 (3072000)
I0503 23:46:42.931182  3987 net.cpp:131] Top shape: 1000 (1000)
I0503 23:46:42.931187  3987 net.cpp:139] Memory required for data: 12292000
I0503 23:46:42.931196  3987 layer_factory.hpp:77] Creating layer label_cifar_1_split
I0503 23:46:42.931222  3987 net.cpp:86] Creating Layer label_cifar_1_split
I0503 23:46:42.931239  3987 net.cpp:408] label_cifar_1_split <- label
I0503 23:46:42.931251  3987 net.cpp:382] label_cifar_1_split -> label_cifar_1_split_0
I0503 23:46:42.931272  3987 net.cpp:382] label_cifar_1_split -> label_cifar_1_split_1
I0503 23:46:42.931360  3987 net.cpp:124] Setting up label_cifar_1_split
I0503 23:46:42.931371  3987 net.cpp:131] Top shape: 1000 (1000)
I0503 23:46:42.931378  3987 net.cpp:131] Top shape: 1000 (1000)
I0503 23:46:42.931385  3987 net.cpp:139] Memory required for data: 12300000
I0503 23:46:42.931391  3987 layer_factory.hpp:77] Creating layer conv0
I0503 23:46:42.931412  3987 net.cpp:86] Creating Layer conv0
I0503 23:46:42.931421  3987 net.cpp:408] conv0 <- data
I0503 23:46:42.931434  3987 net.cpp:382] conv0 -> conv0
I0503 23:46:42.933290  3987 net.cpp:124] Setting up conv0
I0503 23:46:42.933311  3987 net.cpp:131] Top shape: 1000 24 34 34 (27744000)
I0503 23:46:42.933320  3987 net.cpp:139] Memory required for data: 123276000
I0503 23:46:42.933338  3987 layer_factory.hpp:77] Creating layer Sigmoid0
I0503 23:46:42.933351  3987 net.cpp:86] Creating Layer Sigmoid0
I0503 23:46:42.933363  3987 net.cpp:408] Sigmoid0 <- conv0
I0503 23:46:42.933372  3987 net.cpp:382] Sigmoid0 -> Sigmoid0
I0503 23:46:42.934659  3987 net.cpp:124] Setting up Sigmoid0
I0503 23:46:42.934680  3987 net.cpp:131] Top shape: 1000 24 34 34 (27744000)
I0503 23:46:42.934687  3987 net.cpp:139] Memory required for data: 234252000
I0503 23:46:42.934695  3987 layer_factory.hpp:77] Creating layer pool0
I0503 23:46:42.934711  3987 net.cpp:86] Creating Layer pool0
I0503 23:46:42.934720  3987 net.cpp:408] pool0 <- Sigmoid0
I0503 23:46:42.934729  3987 net.cpp:382] pool0 -> pool0
I0503 23:46:42.935693  3987 net.cpp:124] Setting up pool0
I0503 23:46:42.935711  3987 net.cpp:131] Top shape: 1000 24 17 17 (6936000)
I0503 23:46:42.935719  3987 net.cpp:139] Memory required for data: 261996000
I0503 23:46:42.935724  3987 layer_factory.hpp:77] Creating layer ip1
I0503 23:46:42.935740  3987 net.cpp:86] Creating Layer ip1
I0503 23:46:42.935750  3987 net.cpp:408] ip1 <- pool0
I0503 23:46:42.935760  3987 net.cpp:382] ip1 -> ip1
I0503 23:46:42.950515  3987 net.cpp:124] Setting up ip1
I0503 23:46:42.950534  3987 net.cpp:131] Top shape: 1000 60 (60000)
I0503 23:46:42.950541  3987 net.cpp:139] Memory required for data: 262236000
I0503 23:46:42.950559  3987 layer_factory.hpp:77] Creating layer relu1
I0503 23:46:42.950572  3987 net.cpp:86] Creating Layer relu1
I0503 23:46:42.950587  3987 net.cpp:408] relu1 <- ip1
I0503 23:46:42.950598  3987 net.cpp:369] relu1 -> ip1 (in-place)
I0503 23:46:42.950822  3987 net.cpp:124] Setting up relu1
I0503 23:46:42.950839  3987 net.cpp:131] Top shape: 1000 60 (60000)
I0503 23:46:42.950845  3987 net.cpp:139] Memory required for data: 262476000
I0503 23:46:42.950851  3987 layer_factory.hpp:77] Creating layer ip2
I0503 23:46:42.950865  3987 net.cpp:86] Creating Layer ip2
I0503 23:46:42.950871  3987 net.cpp:408] ip2 <- ip1
I0503 23:46:42.950884  3987 net.cpp:382] ip2 -> ip2
I0503 23:46:42.951052  3987 net.cpp:124] Setting up ip2
I0503 23:46:42.951064  3987 net.cpp:131] Top shape: 1000 10 (10000)
I0503 23:46:42.951069  3987 net.cpp:139] Memory required for data: 262516000
I0503 23:46:42.951084  3987 layer_factory.hpp:77] Creating layer ip2_ip2_0_split
I0503 23:46:42.951095  3987 net.cpp:86] Creating Layer ip2_ip2_0_split
I0503 23:46:42.951102  3987 net.cpp:408] ip2_ip2_0_split <- ip2
I0503 23:46:42.951113  3987 net.cpp:382] ip2_ip2_0_split -> ip2_ip2_0_split_0
I0503 23:46:42.951124  3987 net.cpp:382] ip2_ip2_0_split -> ip2_ip2_0_split_1
I0503 23:46:42.951174  3987 net.cpp:124] Setting up ip2_ip2_0_split
I0503 23:46:42.951186  3987 net.cpp:131] Top shape: 1000 10 (10000)
I0503 23:46:42.951195  3987 net.cpp:131] Top shape: 1000 10 (10000)
I0503 23:46:42.951200  3987 net.cpp:139] Memory required for data: 262596000
I0503 23:46:42.951205  3987 layer_factory.hpp:77] Creating layer accuracy
I0503 23:46:42.951217  3987 net.cpp:86] Creating Layer accuracy
I0503 23:46:42.951223  3987 net.cpp:408] accuracy <- ip2_ip2_0_split_0
I0503 23:46:42.951231  3987 net.cpp:408] accuracy <- label_cifar_1_split_0
I0503 23:46:42.951241  3987 net.cpp:382] accuracy -> accuracy
…
