…
I0504 08:09:26.081645 21285 net.cpp:296] The NetState phase (0) differed from the phase (1) specified by a rule in layer cifar
I0504 08:09:26.081665 21285 net.cpp:296] The NetState phase (0) differed from the phase (1) specified by a rule in layer accuracy
I0504 08:09:26.081778 21285 net.cpp:53] Initializing net from parameters: 
name: "CIFAR"
state {
  phase: TRAIN
  level: 0
  stage: ""
}
layer {
  name: "cifar"
  type: "Data"
  top: "data"
  top: "label"
  include {
    phase: TRAIN
  }
  transform_param {
    mean_file: "examples/cifar10/mean.binaryproto"
  }
  data_param {
    source: "examples/cifar10/cifar10_train_lmdb"
    batch_size: 111
    backend: LMDB
  }
}
layer {
  name: "conv0"
  type: "Convolution"
  bottom: "data"
  top: "conv0"
  param {
    lr_mult: 1
  }
  param {
    lr_mult: 2
  }
  convolution_param {
    num_output: 24
    pad: 2
    kernel_size: 5
    stride: 1
    weight_filler {
      type: "gaussian"
      std: 0.01
    }
    bias_filler {
      type: "constant"
    }
  }
}
layer {
  name: "Sigmoid0"
  type: "Sigmoid"
  bottom: "conv0"
  top: "Sigmoid0"
}
layer {
  name: "pool0"
  type: "Pooling"
  bottom: "Sigmoid0"
  top: "pool0"
  pooling_param {
    pool: AVE
    kernel_size: 3
    stride: 2
  }
}
layer {
  name: "conv1"
  type: "Convolution"
  bottom: "pool0"
  top: "conv1"
  param {
    lr_mult: 1
  }
  param {
    lr_mult: 2
  }
  convolution_param {
    num_output: 24
    pad: 2
    kernel_size: 3
    stride: 1
    weight_filler {
      type: "gaussian"
      std: 0.01
    }
    bias_filler {
      type: "constant"
    }
  }
}
layer {
  name: "Sigmoid1"
  type: "Sigmoid"
  bottom: "conv1"
  top: "Sigmoid1"
}
layer {
  name: "pool1"
  type: "Pooling"
  bottom: "Sigmoid1"
  top: "pool1"
  pooling_param {
    pool: AVE
    kernel_size: 3
    stride: 2
  }
}
layer {
  name: "ip1"
  type: "InnerProduct"
  bottom: "pool1"
  top: "ip1"
  param {
    lr_mult: 1
  }
  param {
    lr_mult: 2
  }
  inner_product_param {
    num_output: 180
    weight_filler {
      type: "gaussian"
      std: 0.01
    }
    bias_filler {
      type: "constant"
    }
  }
}
layer {
  name: "relu1"
  type: "ReLU"
  bottom: "ip1"
  top: "ip1"
}
layer {
  name: "ip2"
  type: "InnerProduct"
  bottom: "ip1"
  top: "ip2"
  param {
    lr_mult: 1
  }
  param {
    lr_mult: 2
  }
  inner_product_param {
    num_output: 180
    weight_filler {
      type: "gaussian"
      std: 0.01
    }
    bias_filler {
      type: "constant"
    }
  }
}
layer {
  name: "relu2"
  type: "ReLU"
  bottom: "ip2"
  top: "ip2"
}
layer {
  name: "ip3"
  type: "InnerProduct"
  bottom: "ip2"
  top: "ip3"
  param {
    lr_mult: 1
  }
  param {
    lr_mult: 2
  }
  inner_product_param {
    num_output: 10
    weight_filler {
      type: "gaussian"
      std: 0.01
    }
    bias_filler {
      type: "constant"
    }
  }
}
layer {
  name: "loss"
  type: "SoftmaxWithLoss"
  bottom: "ip3"
  bottom: "label"
  top: "loss"
}
I0504 08:09:26.081861 21285 layer_factory.hpp:77] Creating layer cifar
I0504 08:09:26.081957 21285 db_lmdb.cpp:35] Opened lmdb examples/cifar10/cifar10_train_lmdb
I0504 08:09:26.081984 21285 net.cpp:86] Creating Layer cifar
I0504 08:09:26.081993 21285 net.cpp:382] cifar -> data
I0504 08:09:26.082015 21285 net.cpp:382] cifar -> label
I0504 08:09:26.082027 21285 data_transformer.cpp:25] Loading mean file from: examples/cifar10/mean.binaryproto
I0504 08:09:26.084164 21285 data_layer.cpp:45] output data size: 111,3,32,32
I0504 08:09:26.092159 21285 net.cpp:124] Setting up cifar
I0504 08:09:26.092178 21285 net.cpp:131] Top shape: 111 3 32 32 (340992)
I0504 08:09:26.092185 21285 net.cpp:131] Top shape: 111 (111)
I0504 08:09:26.092187 21285 net.cpp:139] Memory required for data: 1364412
I0504 08:09:26.092195 21285 layer_factory.hpp:77] Creating layer conv0
I0504 08:09:26.092213 21285 net.cpp:86] Creating Layer conv0
I0504 08:09:26.092221 21285 net.cpp:408] conv0 <- data
I0504 08:09:26.092234 21285 net.cpp:382] conv0 -> conv0
I0504 08:09:26.381788 21285 net.cpp:124] Setting up conv0
I0504 08:09:26.381817 21285 net.cpp:131] Top shape: 111 24 32 32 (2727936)
I0504 08:09:26.381821 21285 net.cpp:139] Memory required for data: 12276156
I0504 08:09:26.381837 21285 layer_factory.hpp:77] Creating layer Sigmoid0
I0504 08:09:26.381852 21285 net.cpp:86] Creating Layer Sigmoid0
I0504 08:09:26.381857 21285 net.cpp:408] Sigmoid0 <- conv0
I0504 08:09:26.381863 21285 net.cpp:382] Sigmoid0 -> Sigmoid0
I0504 08:09:26.382061 21285 net.cpp:124] Setting up Sigmoid0
I0504 08:09:26.382071 21285 net.cpp:131] Top shape: 111 24 32 32 (2727936)
I0504 08:09:26.382074 21285 net.cpp:139] Memory required for data: 23187900
I0504 08:09:26.382078 21285 layer_factory.hpp:77] Creating layer pool0
I0504 08:09:26.382087 21285 net.cpp:86] Creating Layer pool0
I0504 08:09:26.382091 21285 net.cpp:408] pool0 <- Sigmoid0
I0504 08:09:26.382097 21285 net.cpp:382] pool0 -> pool0
I0504 08:09:26.382913 21285 net.cpp:124] Setting up pool0
I0504 08:09:26.382928 21285 net.cpp:131] Top shape: 111 24 16 16 (681984)
I0504 08:09:26.382932 21285 net.cpp:139] Memory required for data: 25915836
I0504 08:09:26.382936 21285 layer_factory.hpp:77] Creating layer conv1
I0504 08:09:26.382951 21285 net.cpp:86] Creating Layer conv1
I0504 08:09:26.382954 21285 net.cpp:408] conv1 <- pool0
I0504 08:09:26.382961 21285 net.cpp:382] conv1 -> conv1
I0504 08:09:26.386039 21285 net.cpp:124] Setting up conv1
I0504 08:09:26.386055 21285 net.cpp:131] Top shape: 111 24 18 18 (863136)
I0504 08:09:26.386059 21285 net.cpp:139] Memory required for data: 29368380
I0504 08:09:26.386068 21285 layer_factory.hpp:77] Creating layer Sigmoid1
I0504 08:09:26.386075 21285 net.cpp:86] Creating Layer Sigmoid1
I0504 08:09:26.386080 21285 net.cpp:408] Sigmoid1 <- conv1
I0504 08:09:26.386085 21285 net.cpp:382] Sigmoid1 -> Sigmoid1
I0504 08:09:26.386281 21285 net.cpp:124] Setting up Sigmoid1
I0504 08:09:26.386291 21285 net.cpp:131] Top shape: 111 24 18 18 (863136)
I0504 08:09:26.386294 21285 net.cpp:139] Memory required for data: 32820924
I0504 08:09:26.386298 21285 layer_factory.hpp:77] Creating layer pool1
I0504 08:09:26.386307 21285 net.cpp:86] Creating Layer pool1
I0504 08:09:26.386312 21285 net.cpp:408] pool1 <- Sigmoid1
I0504 08:09:26.386317 21285 net.cpp:382] pool1 -> pool1
I0504 08:09:26.386503 21285 net.cpp:124] Setting up pool1
I0504 08:09:26.386514 21285 net.cpp:131] Top shape: 111 24 9 9 (215784)
I0504 08:09:26.386518 21285 net.cpp:139] Memory required for data: 33684060
I0504 08:09:26.386521 21285 layer_factory.hpp:77] Creating layer ip1
I0504 08:09:26.386529 21285 net.cpp:86] Creating Layer ip1
I0504 08:09:26.386533 21285 net.cpp:408] ip1 <- pool1
I0504 08:09:26.386540 21285 net.cpp:382] ip1 -> ip1
I0504 08:09:26.397624 21285 net.cpp:124] Setting up ip1
I0504 08:09:26.397636 21285 net.cpp:131] Top shape: 111 180 (19980)
I0504 08:09:26.397640 21285 net.cpp:139] Memory required for data: 33763980
I0504 08:09:26.397649 21285 layer_factory.hpp:77] Creating layer relu1
I0504 08:09:26.397655 21285 net.cpp:86] Creating Layer relu1
I0504 08:09:26.397660 21285 net.cpp:408] relu1 <- ip1
I0504 08:09:26.397665 21285 net.cpp:369] relu1 -> ip1 (in-place)
I0504 08:09:26.397842 21285 net.cpp:124] Setting up relu1
I0504 08:09:26.397852 21285 net.cpp:131] Top shape: 111 180 (19980)
I0504 08:09:26.397855 21285 net.cpp:139] Memory required for data: 33843900
I0504 08:09:26.397858 21285 layer_factory.hpp:77] Creating layer ip2
I0504 08:09:26.397866 21285 net.cpp:86] Creating Layer ip2
I0504 08:09:26.397869 21285 net.cpp:408] ip2 <- ip1
I0504 08:09:26.397889 21285 net.cpp:382] ip2 -> ip2
I0504 08:09:26.399737 21285 net.cpp:124] Setting up ip2
I0504 08:09:26.399750 21285 net.cpp:131] Top shape: 111 180 (19980)
I0504 08:09:26.399754 21285 net.cpp:139] Memory required for data: 33923820
I0504 08:09:26.399760 21285 layer_factory.hpp:77] Creating layer relu2
I0504 08:09:26.399765 21285 net.cpp:86] Creating Layer relu2
I0504 08:09:26.399768 21285 net.cpp:408] relu2 <- ip2
I0504 08:09:26.399775 21285 net.cpp:369] relu2 -> ip2 (in-place)
I0504 08:09:26.400523 21285 net.cpp:124] Setting up relu2
I0504 08:09:26.400537 21285 net.cpp:131] Top shape: 111 180 (19980)
I0504 08:09:26.400540 21285 net.cpp:139] Memory required for data: 34003740
I0504 08:09:26.400543 21285 layer_factory.hpp:77] Creating layer ip3
I0504 08:09:26.400553 21285 net.cpp:86] Creating Layer ip3
I0504 08:09:26.400557 21285 net.cpp:408] ip3 <- ip2
I0504 08:09:26.400563 21285 net.cpp:382] ip3 -> ip3
I0504 08:09:26.400724 21285 net.cpp:124] Setting up ip3
I0504 08:09:26.400732 21285 net.cpp:131] Top shape: 111 10 (1110)
I0504 08:09:26.400734 21285 net.cpp:139] Memory required for data: 34008180
I0504 08:09:26.400743 21285 layer_factory.hpp:77] Creating layer loss
I0504 08:09:26.400751 21285 net.cpp:86] Creating Layer loss
I0504 08:09:26.400755 21285 net.cpp:408] loss <- ip3
I0504 08:09:26.400759 21285 net.cpp:408] loss <- label
I0504 08:09:26.400764 21285 net.cpp:382] loss -> loss
I0504 08:09:26.400777 21285 layer_factory.hpp:77] Creating layer loss
…
I0504 08:09:26.401466 21285 solver.cpp:173] Creating test net (#0) specified by net file: ECE595/cifar/train_test/var_everything_tiny/cifar_train_test_95.prototxt
I0504 08:09:26.401494 21285 net.cpp:296] The NetState phase (1) differed from the phase (0) specified by a rule in layer cifar
I0504 08:09:26.401598 21285 net.cpp:53] Initializing net from parameters: 
name: "CIFAR"
state {
  phase: TEST
}
layer {
  name: "cifar"
  type: "Data"
  top: "data"
  top: "label"
  include {
    phase: TEST
  }
  transform_param {
    mean_file: "examples/cifar10/mean.binaryproto"
  }
  data_param {
    source: "examples/cifar10/cifar10_test_lmdb"
    batch_size: 1000
    backend: LMDB
  }
}
layer {
  name: "conv0"
  type: "Convolution"
  bottom: "data"
  top: "conv0"
  param {
    lr_mult: 1
  }
  param {
    lr_mult: 2
  }
  convolution_param {
    num_output: 24
    pad: 2
    kernel_size: 5
    stride: 1
    weight_filler {
      type: "gaussian"
      std: 0.01
    }
    bias_filler {
      type: "constant"
    }
  }
}
layer {
  name: "Sigmoid0"
  type: "Sigmoid"
  bottom: "conv0"
  top: "Sigmoid0"
}
layer {
  name: "pool0"
  type: "Pooling"
  bottom: "Sigmoid0"
  top: "pool0"
  pooling_param {
    pool: AVE
    kernel_size: 3
    stride: 2
  }
}
layer {
  name: "conv1"
  type: "Convolution"
  bottom: "pool0"
  top: "conv1"
  param {
    lr_mult: 1
  }
  param {
    lr_mult: 2
  }
  convolution_param {
    num_output: 24
    pad: 2
    kernel_size: 3
    stride: 1
    weight_filler {
      type: "gaussian"
      std: 0.01
    }
    bias_filler {
      type: "constant"
    }
  }
}
layer {
  name: "Sigmoid1"
  type: "Sigmoid"
  bottom: "conv1"
  top: "Sigmoid1"
}
layer {
  name: "pool1"
  type: "Pooling"
  bottom: "Sigmoid1"
  top: "pool1"
  pooling_param {
    pool: AVE
    kernel_size: 3
    stride: 2
  }
}
layer {
  name: "ip1"
  type: "InnerProduct"
  bottom: "pool1"
  top: "ip1"
  param {
    lr_mult: 1
  }
  param {
    lr_mult: 2
  }
  inner_product_param {
    num_output: 180
    weight_filler {
      type: "gaussian"
      std: 0.01
    }
    bias_filler {
      type: "constant"
    }
  }
}
layer {
  name: "relu1"
  type: "ReLU"
  bottom: "ip1"
  top: "ip1"
}
layer {
  name: "ip2"
  type: "InnerProduct"
  bottom: "ip1"
  top: "ip2"
  param {
    lr_mult: 1
  }
  param {
    lr_mult: 2
  }
  inner_product_param {
    num_output: 180
    weight_filler {
      type: "gaussian"
      std: 0.01
    }
    bias_filler {
      type: "constant"
    }
  }
}
layer {
  name: "relu2"
  type: "ReLU"
  bottom: "ip2"
  top: "ip2"
}
layer {
  name: "ip3"
  type: "InnerProduct"
  bottom: "ip2"
  top: "ip3"
  param {
    lr_mult: 1
  }
  param {
    lr_mult: 2
  }
  inner_product_param {
    num_output: 10
    weight_filler {
      type: "gaussian"
      std: 0.01
    }
    bias_filler {
      type: "constant"
    }
  }
}
layer {
  name: "accuracy"
  type: "Accuracy"
  bottom: "ip3"
  bottom: "label"
  top: "accuracy"
  include {
    phase: TEST
  }
}
layer {
  name: "loss"
  type: "SoftmaxWithLoss"
  bottom: "ip3"
  bottom: "label"
  top: "loss"
}
I0504 08:09:26.401688 21285 layer_factory.hpp:77] Creating layer cifar
I0504 08:09:26.401737 21285 db_lmdb.cpp:35] Opened lmdb examples/cifar10/cifar10_test_lmdb
I0504 08:09:26.401751 21285 net.cpp:86] Creating Layer cifar
I0504 08:09:26.401758 21285 net.cpp:382] cifar -> data
I0504 08:09:26.401767 21285 net.cpp:382] cifar -> label
I0504 08:09:26.401775 21285 data_transformer.cpp:25] Loading mean file from: examples/cifar10/mean.binaryproto
I0504 08:09:26.401932 21285 data_layer.cpp:45] output data size: 1000,3,32,32
I0504 08:09:26.424207 21285 net.cpp:124] Setting up cifar
I0504 08:09:26.424234 21285 net.cpp:131] Top shape: 1000 3 32 32 (3072000)
I0504 08:09:26.424239 21285 net.cpp:131] Top shape: 1000 (1000)
I0504 08:09:26.424242 21285 net.cpp:139] Memory required for data: 12292000
I0504 08:09:26.424247 21285 layer_factory.hpp:77] Creating layer label_cifar_1_split
I0504 08:09:26.424262 21285 net.cpp:86] Creating Layer label_cifar_1_split
I0504 08:09:26.424265 21285 net.cpp:408] label_cifar_1_split <- label
I0504 08:09:26.424273 21285 net.cpp:382] label_cifar_1_split -> label_cifar_1_split_0
I0504 08:09:26.424280 21285 net.cpp:382] label_cifar_1_split -> label_cifar_1_split_1
I0504 08:09:26.424371 21285 net.cpp:124] Setting up label_cifar_1_split
I0504 08:09:26.424379 21285 net.cpp:131] Top shape: 1000 (1000)
I0504 08:09:26.424382 21285 net.cpp:131] Top shape: 1000 (1000)
I0504 08:09:26.424386 21285 net.cpp:139] Memory required for data: 12300000
I0504 08:09:26.424389 21285 layer_factory.hpp:77] Creating layer conv0
I0504 08:09:26.424401 21285 net.cpp:86] Creating Layer conv0
I0504 08:09:26.424407 21285 net.cpp:408] conv0 <- data
I0504 08:09:26.424432 21285 net.cpp:382] conv0 -> conv0
I0504 08:09:26.427029 21285 net.cpp:124] Setting up conv0
I0504 08:09:26.427047 21285 net.cpp:131] Top shape: 1000 24 32 32 (24576000)
I0504 08:09:26.427050 21285 net.cpp:139] Memory required for data: 110604000
I0504 08:09:26.427060 21285 layer_factory.hpp:77] Creating layer Sigmoid0
I0504 08:09:26.427067 21285 net.cpp:86] Creating Layer Sigmoid0
I0504 08:09:26.427070 21285 net.cpp:408] Sigmoid0 <- conv0
I0504 08:09:26.427075 21285 net.cpp:382] Sigmoid0 -> Sigmoid0
I0504 08:09:26.427274 21285 net.cpp:124] Setting up Sigmoid0
I0504 08:09:26.427295 21285 net.cpp:131] Top shape: 1000 24 32 32 (24576000)
I0504 08:09:26.427299 21285 net.cpp:139] Memory required for data: 208908000
I0504 08:09:26.427302 21285 layer_factory.hpp:77] Creating layer pool0
I0504 08:09:26.427311 21285 net.cpp:86] Creating Layer pool0
I0504 08:09:26.427319 21285 net.cpp:408] pool0 <- Sigmoid0
I0504 08:09:26.427338 21285 net.cpp:382] pool0 -> pool0
I0504 08:09:26.427515 21285 net.cpp:124] Setting up pool0
I0504 08:09:26.427525 21285 net.cpp:131] Top shape: 1000 24 16 16 (6144000)
I0504 08:09:26.427527 21285 net.cpp:139] Memory required for data: 233484000
I0504 08:09:26.427531 21285 layer_factory.hpp:77] Creating layer conv1
I0504 08:09:26.427541 21285 net.cpp:86] Creating Layer conv1
I0504 08:09:26.427548 21285 net.cpp:408] conv1 <- pool0
I0504 08:09:26.427554 21285 net.cpp:382] conv1 -> conv1
I0504 08:09:26.429061 21285 net.cpp:124] Setting up conv1
I0504 08:09:26.429075 21285 net.cpp:131] Top shape: 1000 24 18 18 (7776000)
I0504 08:09:26.429078 21285 net.cpp:139] Memory required for data: 264588000
I0504 08:09:26.429087 21285 layer_factory.hpp:77] Creating layer Sigmoid1
I0504 08:09:26.429093 21285 net.cpp:86] Creating Layer Sigmoid1
I0504 08:09:26.429096 21285 net.cpp:408] Sigmoid1 <- conv1
I0504 08:09:26.429102 21285 net.cpp:382] Sigmoid1 -> Sigmoid1
I0504 08:09:26.429306 21285 net.cpp:124] Setting up Sigmoid1
I0504 08:09:26.429316 21285 net.cpp:131] Top shape: 1000 24 18 18 (7776000)
I0504 08:09:26.429319 21285 net.cpp:139] Memory required for data: 295692000
I0504 08:09:26.429322 21285 layer_factory.hpp:77] Creating layer pool1
I0504 08:09:26.429329 21285 net.cpp:86] Creating Layer pool1
I0504 08:09:26.429333 21285 net.cpp:408] pool1 <- Sigmoid1
I0504 08:09:26.429338 21285 net.cpp:382] pool1 -> pool1
I0504 08:09:26.430089 21285 net.cpp:124] Setting up pool1
I0504 08:09:26.430102 21285 net.cpp:131] Top shape: 1000 24 9 9 (1944000)
I0504 08:09:26.430121 21285 net.cpp:139] Memory required for data: 303468000
I0504 08:09:26.430124 21285 layer_factory.hpp:77] Creating layer ip1
I0504 08:09:26.430135 21285 net.cpp:86] Creating Layer ip1
I0504 08:09:26.430140 21285 net.cpp:408] ip1 <- pool1
I0504 08:09:26.430145 21285 net.cpp:382] ip1 -> ip1
I0504 08:09:26.440304 21285 net.cpp:124] Setting up ip1
I0504 08:09:26.440316 21285 net.cpp:131] Top shape: 1000 180 (180000)
I0504 08:09:26.440320 21285 net.cpp:139] Memory required for data: 304188000
I0504 08:09:26.440328 21285 layer_factory.hpp:77] Creating layer relu1
I0504 08:09:26.440336 21285 net.cpp:86] Creating Layer relu1
I0504 08:09:26.440340 21285 net.cpp:408] relu1 <- ip1
I0504 08:09:26.440345 21285 net.cpp:369] relu1 -> ip1 (in-place)
I0504 08:09:26.440531 21285 net.cpp:124] Setting up relu1
I0504 08:09:26.440539 21285 net.cpp:131] Top shape: 1000 180 (180000)
I0504 08:09:26.440543 21285 net.cpp:139] Memory required for data: 304908000
I0504 08:09:26.440546 21285 layer_factory.hpp:77] Creating layer ip2
I0504 08:09:26.440553 21285 net.cpp:86] Creating Layer ip2
I0504 08:09:26.440557 21285 net.cpp:408] ip2 <- ip1
I0504 08:09:26.440562 21285 net.cpp:382] ip2 -> ip2
I0504 08:09:26.441664 21285 net.cpp:124] Setting up ip2
I0504 08:09:26.441673 21285 net.cpp:131] Top shape: 1000 180 (180000)
I0504 08:09:26.441675 21285 net.cpp:139] Memory required for data: 305628000
I0504 08:09:26.441680 21285 layer_factory.hpp:77] Creating layer relu2
I0504 08:09:26.441685 21285 net.cpp:86] Creating Layer relu2
I0504 08:09:26.441687 21285 net.cpp:408] relu2 <- ip2
I0504 08:09:26.441691 21285 net.cpp:369] relu2 -> ip2 (in-place)
I0504 08:09:26.441866 21285 net.cpp:124] Setting up relu2
I0504 08:09:26.441875 21285 net.cpp:131] Top shape: 1000 180 (180000)
I0504 08:09:26.441879 21285 net.cpp:139] Memory required for data: 306348000
I0504 08:09:26.441881 21285 layer_factory.hpp:77] Creating layer ip3
I0504 08:09:26.441887 21285 net.cpp:86] Creating Layer ip3
I0504 08:09:26.441890 21285 net.cpp:408] ip3 <- ip2
I0504 08:09:26.441912 21285 net.cpp:382] ip3 -> ip3
I0504 08:09:26.442075 21285 net.cpp:124] Setting up ip3
I0504 08:09:26.442093 21285 net.cpp:131] Top shape: 1000 10 (10000)
I0504 08:09:26.442097 21285 net.cpp:139] Memory required for data: 306388000
I0504 08:09:26.442106 21285 layer_factory.hpp:77] Creating layer ip3_ip3_0_split
I0504 08:09:26.442113 21285 net.cpp:86] Creating Layer ip3_ip3_0_split
I0504 08:09:26.442131 21285 net.cpp:408] ip3_ip3_0_split <- ip3
I0504 08:09:26.442138 21285 net.cpp:382] ip3_ip3_0_split -> ip3_ip3_0_split_0
I0504 08:09:26.442144 21285 net.cpp:382] ip3_ip3_0_split -> ip3_ip3_0_split_1
I0504 08:09:26.442179 21285 net.cpp:124] Setting up ip3_ip3_0_split
I0504 08:09:26.442203 21285 net.cpp:131] Top shape: 1000 10 (10000)
I0504 08:09:26.442207 21285 net.cpp:131] Top shape: 1000 10 (10000)
I0504 08:09:26.442210 21285 net.cpp:139] Memory required for data: 306468000
I0504 08:09:26.442214 21285 layer_factory.hpp:77] Creating layer accuracy
I0504 08:09:26.442219 21285 net.cpp:86] Creating Layer accuracy
I0504 08:09:26.442237 21285 net.cpp:408] accuracy <- ip3_ip3_0_split_0
I0504 08:09:26.442243 21285 net.cpp:408] accuracy <- label_cifar_1_split_0
I0504 08:09:26.442248 21285 net.cpp:382] accuracy -> accuracy
…
