…
I0504 12:28:24.276075 29118 net.cpp:296] The NetState phase (0) differed from the phase (1) specified by a rule in layer cifar
I0504 12:28:24.276106 29118 net.cpp:296] The NetState phase (0) differed from the phase (1) specified by a rule in layer accuracy
I0504 12:28:24.276211 29118 net.cpp:53] Initializing net from parameters: 
name: "CIFAR"
state {
  phase: TRAIN
  level: 0
  stage: ""
}
layer {
  name: "cifar"
  type: "Data"
  top: "data"
  top: "label"
  include {
    phase: TRAIN
  }
  transform_param {
    mean_file: "examples/cifar10/mean.binaryproto"
  }
  data_param {
    source: "examples/cifar10/cifar10_train_lmdb"
    batch_size: 111
    backend: LMDB
  }
}
layer {
  name: "conv0"
  type: "Convolution"
  bottom: "data"
  top: "conv0"
  param {
    lr_mult: 1
  }
  param {
    lr_mult: 2
  }
  convolution_param {
    num_output: 24
    pad: 2
    kernel_size: 3
    stride: 1
    weight_filler {
      type: "gaussian"
      std: 0.01
    }
    bias_filler {
      type: "constant"
    }
  }
}
layer {
  name: "Sigmoid0"
  type: "Sigmoid"
  bottom: "conv0"
  top: "Sigmoid0"
}
layer {
  name: "pool0"
  type: "Pooling"
  bottom: "Sigmoid0"
  top: "pool0"
  pooling_param {
    pool: AVE
    kernel_size: 3
    stride: 2
  }
}
layer {
  name: "conv1"
  type: "Convolution"
  bottom: "pool0"
  top: "conv1"
  param {
    lr_mult: 1
  }
  param {
    lr_mult: 2
  }
  convolution_param {
    num_output: 216
    pad: 2
    kernel_size: 3
    stride: 1
    weight_filler {
      type: "gaussian"
      std: 0.01
    }
    bias_filler {
      type: "constant"
    }
  }
}
layer {
  name: "Sigmoid1"
  type: "Sigmoid"
  bottom: "conv1"
  top: "Sigmoid1"
}
layer {
  name: "pool1"
  type: "Pooling"
  bottom: "Sigmoid1"
  top: "pool1"
  pooling_param {
    pool: AVE
    kernel_size: 3
    stride: 2
  }
}
layer {
  name: "ip1"
  type: "InnerProduct"
  bottom: "pool1"
  top: "ip1"
  param {
    lr_mult: 1
  }
  param {
    lr_mult: 2
  }
  inner_product_param {
    num_output: 180
    weight_filler {
      type: "gaussian"
      std: 0.01
    }
    bias_filler {
      type: "constant"
    }
  }
}
layer {
  name: "relu1"
  type: "ReLU"
  bottom: "ip1"
  top: "ip1"
}
layer {
  name: "ip2"
  type: "InnerProduct"
  bottom: "ip1"
  top: "ip2"
  param {
    lr_mult: 1
  }
  param {
    lr_mult: 2
  }
  inner_product_param {
    num_output: 180
    weight_filler {
      type: "gaussian"
      std: 0.01
    }
    bias_filler {
      type: "constant"
    }
  }
}
layer {
  name: "relu2"
  type: "ReLU"
  bottom: "ip2"
  top: "ip2"
}
layer {
  name: "ip3"
  type: "InnerProduct"
  bottom: "ip2"
  top: "ip3"
  param {
    lr_mult: 1
  }
  param {
    lr_mult: 2
  }
  inner_product_param {
    num_output: 10
    weight_filler {
      type: "gaussian"
      std: 0.01
    }
    bias_filler {
      type: "constant"
    }
  }
}
layer {
  name: "loss"
  type: "SoftmaxWithLoss"
  bottom: "ip3"
  bottom: "label"
  top: "loss"
}
I0504 12:28:24.276279 29118 layer_factory.hpp:77] Creating layer cifar
I0504 12:28:24.276363 29118 db_lmdb.cpp:35] Opened lmdb examples/cifar10/cifar10_train_lmdb
I0504 12:28:24.276386 29118 net.cpp:86] Creating Layer cifar
I0504 12:28:24.276392 29118 net.cpp:382] cifar -> data
I0504 12:28:24.276412 29118 net.cpp:382] cifar -> label
I0504 12:28:24.276425 29118 data_transformer.cpp:25] Loading mean file from: examples/cifar10/mean.binaryproto
I0504 12:28:24.278307 29118 data_layer.cpp:45] output data size: 111,3,32,32
I0504 12:28:24.285065 29118 net.cpp:124] Setting up cifar
I0504 12:28:24.285081 29118 net.cpp:131] Top shape: 111 3 32 32 (340992)
I0504 12:28:24.285086 29118 net.cpp:131] Top shape: 111 (111)
I0504 12:28:24.285089 29118 net.cpp:139] Memory required for data: 1364412
I0504 12:28:24.285096 29118 layer_factory.hpp:77] Creating layer conv0
I0504 12:28:24.285152 29118 net.cpp:86] Creating Layer conv0
I0504 12:28:24.285157 29118 net.cpp:408] conv0 <- data
I0504 12:28:24.285168 29118 net.cpp:382] conv0 -> conv0
I0504 12:28:24.509136 29118 net.cpp:124] Setting up conv0
I0504 12:28:24.509191 29118 net.cpp:131] Top shape: 111 24 34 34 (3079584)
I0504 12:28:24.509209 29118 net.cpp:139] Memory required for data: 13682748
I0504 12:28:24.509239 29118 layer_factory.hpp:77] Creating layer Sigmoid0
I0504 12:28:24.509253 29118 net.cpp:86] Creating Layer Sigmoid0
I0504 12:28:24.509272 29118 net.cpp:408] Sigmoid0 <- conv0
I0504 12:28:24.509287 29118 net.cpp:382] Sigmoid0 -> Sigmoid0
I0504 12:28:24.509455 29118 net.cpp:124] Setting up Sigmoid0
I0504 12:28:24.509465 29118 net.cpp:131] Top shape: 111 24 34 34 (3079584)
I0504 12:28:24.509469 29118 net.cpp:139] Memory required for data: 26001084
I0504 12:28:24.509471 29118 layer_factory.hpp:77] Creating layer pool0
I0504 12:28:24.509479 29118 net.cpp:86] Creating Layer pool0
I0504 12:28:24.509481 29118 net.cpp:408] pool0 <- Sigmoid0
I0504 12:28:24.509486 29118 net.cpp:382] pool0 -> pool0
I0504 12:28:24.510179 29118 net.cpp:124] Setting up pool0
I0504 12:28:24.510190 29118 net.cpp:131] Top shape: 111 24 17 17 (769896)
I0504 12:28:24.510193 29118 net.cpp:139] Memory required for data: 29080668
I0504 12:28:24.510196 29118 layer_factory.hpp:77] Creating layer conv1
I0504 12:28:24.510208 29118 net.cpp:86] Creating Layer conv1
I0504 12:28:24.510211 29118 net.cpp:408] conv1 <- pool0
I0504 12:28:24.510216 29118 net.cpp:382] conv1 -> conv1
I0504 12:28:24.513743 29118 net.cpp:124] Setting up conv1
I0504 12:28:24.513756 29118 net.cpp:131] Top shape: 111 216 19 19 (8655336)
I0504 12:28:24.513759 29118 net.cpp:139] Memory required for data: 63702012
I0504 12:28:24.513767 29118 layer_factory.hpp:77] Creating layer Sigmoid1
I0504 12:28:24.513773 29118 net.cpp:86] Creating Layer Sigmoid1
I0504 12:28:24.513777 29118 net.cpp:408] Sigmoid1 <- conv1
I0504 12:28:24.513780 29118 net.cpp:382] Sigmoid1 -> Sigmoid1
I0504 12:28:24.513957 29118 net.cpp:124] Setting up Sigmoid1
I0504 12:28:24.513967 29118 net.cpp:131] Top shape: 111 216 19 19 (8655336)
I0504 12:28:24.513970 29118 net.cpp:139] Memory required for data: 98323356
I0504 12:28:24.513973 29118 layer_factory.hpp:77] Creating layer pool1
I0504 12:28:24.513978 29118 net.cpp:86] Creating Layer pool1
I0504 12:28:24.513983 29118 net.cpp:408] pool1 <- Sigmoid1
I0504 12:28:24.513986 29118 net.cpp:382] pool1 -> pool1
I0504 12:28:24.514135 29118 net.cpp:124] Setting up pool1
I0504 12:28:24.514145 29118 net.cpp:131] Top shape: 111 216 9 9 (1942056)
I0504 12:28:24.514163 29118 net.cpp:139] Memory required for data: 106091580
I0504 12:28:24.514166 29118 layer_factory.hpp:77] Creating layer ip1
I0504 12:28:24.514173 29118 net.cpp:86] Creating Layer ip1
I0504 12:28:24.514176 29118 net.cpp:408] ip1 <- pool1
I0504 12:28:24.514180 29118 net.cpp:382] ip1 -> ip1
I0504 12:28:24.592090 29118 net.cpp:124] Setting up ip1
I0504 12:28:24.592104 29118 net.cpp:131] Top shape: 111 180 (19980)
I0504 12:28:24.592108 29118 net.cpp:139] Memory required for data: 106171500
I0504 12:28:24.592115 29118 layer_factory.hpp:77] Creating layer relu1
I0504 12:28:24.592123 29118 net.cpp:86] Creating Layer relu1
I0504 12:28:24.592125 29118 net.cpp:408] relu1 <- ip1
I0504 12:28:24.592129 29118 net.cpp:369] relu1 -> ip1 (in-place)
I0504 12:28:24.592303 29118 net.cpp:124] Setting up relu1
I0504 12:28:24.592311 29118 net.cpp:131] Top shape: 111 180 (19980)
I0504 12:28:24.592314 29118 net.cpp:139] Memory required for data: 106251420
I0504 12:28:24.592317 29118 layer_factory.hpp:77] Creating layer ip2
I0504 12:28:24.592324 29118 net.cpp:86] Creating Layer ip2
I0504 12:28:24.592326 29118 net.cpp:408] ip2 <- ip1
I0504 12:28:24.592345 29118 net.cpp:382] ip2 -> ip2
I0504 12:28:24.593276 29118 net.cpp:124] Setting up ip2
I0504 12:28:24.593284 29118 net.cpp:131] Top shape: 111 180 (19980)
I0504 12:28:24.593287 29118 net.cpp:139] Memory required for data: 106331340
I0504 12:28:24.593292 29118 layer_factory.hpp:77] Creating layer relu2
I0504 12:28:24.593297 29118 net.cpp:86] Creating Layer relu2
I0504 12:28:24.593299 29118 net.cpp:408] relu2 <- ip2
I0504 12:28:24.593303 29118 net.cpp:369] relu2 -> ip2 (in-place)
I0504 12:28:24.594050 29118 net.cpp:124] Setting up relu2
I0504 12:28:24.594063 29118 net.cpp:131] Top shape: 111 180 (19980)
I0504 12:28:24.594065 29118 net.cpp:139] Memory required for data: 106411260
I0504 12:28:24.594069 29118 layer_factory.hpp:77] Creating layer ip3
I0504 12:28:24.594074 29118 net.cpp:86] Creating Layer ip3
I0504 12:28:24.594077 29118 net.cpp:408] ip3 <- ip2
I0504 12:28:24.594081 29118 net.cpp:382] ip3 -> ip3
I0504 12:28:24.594238 29118 net.cpp:124] Setting up ip3
I0504 12:28:24.594244 29118 net.cpp:131] Top shape: 111 10 (1110)
I0504 12:28:24.594247 29118 net.cpp:139] Memory required for data: 106415700
I0504 12:28:24.594255 29118 layer_factory.hpp:77] Creating layer loss
I0504 12:28:24.594260 29118 net.cpp:86] Creating Layer loss
I0504 12:28:24.594264 29118 net.cpp:408] loss <- ip3
I0504 12:28:24.594267 29118 net.cpp:408] loss <- label
I0504 12:28:24.594272 29118 net.cpp:382] loss -> loss
I0504 12:28:24.594288 29118 layer_factory.hpp:77] Creating layer loss
…
I0504 12:28:24.594909 29118 solver.cpp:173] Creating test net (#0) specified by net file: ECE595/cifar/train_test/var_everything_tiny/cifar_train_test_155.prototxt
I0504 12:28:24.594936 29118 net.cpp:296] The NetState phase (1) differed from the phase (0) specified by a rule in layer cifar
I0504 12:28:24.595028 29118 net.cpp:53] Initializing net from parameters: 
name: "CIFAR"
state {
  phase: TEST
}
layer {
  name: "cifar"
  type: "Data"
  top: "data"
  top: "label"
  include {
    phase: TEST
  }
  transform_param {
    mean_file: "examples/cifar10/mean.binaryproto"
  }
  data_param {
    source: "examples/cifar10/cifar10_test_lmdb"
    batch_size: 1000
    backend: LMDB
  }
}
layer {
  name: "conv0"
  type: "Convolution"
  bottom: "data"
  top: "conv0"
  param {
    lr_mult: 1
  }
  param {
    lr_mult: 2
  }
  convolution_param {
    num_output: 24
    pad: 2
    kernel_size: 3
    stride: 1
    weight_filler {
      type: "gaussian"
      std: 0.01
    }
    bias_filler {
      type: "constant"
    }
  }
}
layer {
  name: "Sigmoid0"
  type: "Sigmoid"
  bottom: "conv0"
  top: "Sigmoid0"
}
layer {
  name: "pool0"
  type: "Pooling"
  bottom: "Sigmoid0"
  top: "pool0"
  pooling_param {
    pool: AVE
    kernel_size: 3
    stride: 2
  }
}
layer {
  name: "conv1"
  type: "Convolution"
  bottom: "pool0"
  top: "conv1"
  param {
    lr_mult: 1
  }
  param {
    lr_mult: 2
  }
  convolution_param {
    num_output: 216
    pad: 2
    kernel_size: 3
    stride: 1
    weight_filler {
      type: "gaussian"
      std: 0.01
    }
    bias_filler {
      type: "constant"
    }
  }
}
layer {
  name: "Sigmoid1"
  type: "Sigmoid"
  bottom: "conv1"
  top: "Sigmoid1"
}
layer {
  name: "pool1"
  type: "Pooling"
  bottom: "Sigmoid1"
  top: "pool1"
  pooling_param {
    pool: AVE
    kernel_size: 3
    stride: 2
  }
}
layer {
  name: "ip1"
  type: "InnerProduct"
  bottom: "pool1"
  top: "ip1"
  param {
    lr_mult: 1
  }
  param {
    lr_mult: 2
  }
  inner_product_param {
    num_output: 180
    weight_filler {
      type: "gaussian"
      std: 0.01
    }
    bias_filler {
      type: "constant"
    }
  }
}
layer {
  name: "relu1"
  type: "ReLU"
  bottom: "ip1"
  top: "ip1"
}
layer {
  name: "ip2"
  type: "InnerProduct"
  bottom: "ip1"
  top: "ip2"
  param {
    lr_mult: 1
  }
  param {
    lr_mult: 2
  }
  inner_product_param {
    num_output: 180
    weight_filler {
      type: "gaussian"
      std: 0.01
    }
    bias_filler {
      type: "constant"
    }
  }
}
layer {
  name: "relu2"
  type: "ReLU"
  bottom: "ip2"
  top: "ip2"
}
layer {
  name: "ip3"
  type: "InnerProduct"
  bottom: "ip2"
  top: "ip3"
  param {
    lr_mult: 1
  }
  param {
    lr_mult: 2
  }
  inner_product_param {
    num_output: 10
    weight_filler {
      type: "gaussian"
      std: 0.01
    }
    bias_filler {
      type: "constant"
    }
  }
}
layer {
  name: "accuracy"
  type: "Accuracy"
  bottom: "ip3"
  bottom: "label"
  top: "accuracy"
  include {
    phase: TEST
  }
}
layer {
  name: "loss"
  type: "SoftmaxWithLoss"
  bottom: "ip3"
  bottom: "label"
  top: "loss"
}
I0504 12:28:24.595105 29118 layer_factory.hpp:77] Creating layer cifar
I0504 12:28:24.595149 29118 db_lmdb.cpp:35] Opened lmdb examples/cifar10/cifar10_test_lmdb
I0504 12:28:24.595160 29118 net.cpp:86] Creating Layer cifar
I0504 12:28:24.595165 29118 net.cpp:382] cifar -> data
I0504 12:28:24.595171 29118 net.cpp:382] cifar -> label
I0504 12:28:24.595177 29118 data_transformer.cpp:25] Loading mean file from: examples/cifar10/mean.binaryproto
I0504 12:28:24.595316 29118 data_layer.cpp:45] output data size: 1000,3,32,32
I0504 12:28:24.616274 29118 net.cpp:124] Setting up cifar
I0504 12:28:24.616300 29118 net.cpp:131] Top shape: 1000 3 32 32 (3072000)
I0504 12:28:24.616307 29118 net.cpp:131] Top shape: 1000 (1000)
I0504 12:28:24.616309 29118 net.cpp:139] Memory required for data: 12292000
I0504 12:28:24.616315 29118 layer_factory.hpp:77] Creating layer label_cifar_1_split
I0504 12:28:24.616328 29118 net.cpp:86] Creating Layer label_cifar_1_split
I0504 12:28:24.616331 29118 net.cpp:408] label_cifar_1_split <- label
I0504 12:28:24.616338 29118 net.cpp:382] label_cifar_1_split -> label_cifar_1_split_0
I0504 12:28:24.616346 29118 net.cpp:382] label_cifar_1_split -> label_cifar_1_split_1
I0504 12:28:24.616443 29118 net.cpp:124] Setting up label_cifar_1_split
I0504 12:28:24.616451 29118 net.cpp:131] Top shape: 1000 (1000)
I0504 12:28:24.616456 29118 net.cpp:131] Top shape: 1000 (1000)
I0504 12:28:24.616457 29118 net.cpp:139] Memory required for data: 12300000
I0504 12:28:24.616461 29118 layer_factory.hpp:77] Creating layer conv0
I0504 12:28:24.616472 29118 net.cpp:86] Creating Layer conv0
I0504 12:28:24.616475 29118 net.cpp:408] conv0 <- data
I0504 12:28:24.616480 29118 net.cpp:382] conv0 -> conv0
I0504 12:28:24.618155 29118 net.cpp:124] Setting up conv0
I0504 12:28:24.618170 29118 net.cpp:131] Top shape: 1000 24 34 34 (27744000)
I0504 12:28:24.618173 29118 net.cpp:139] Memory required for data: 123276000
I0504 12:28:24.618182 29118 layer_factory.hpp:77] Creating layer Sigmoid0
I0504 12:28:24.618188 29118 net.cpp:86] Creating Layer Sigmoid0
I0504 12:28:24.618191 29118 net.cpp:408] Sigmoid0 <- conv0
I0504 12:28:24.618196 29118 net.cpp:382] Sigmoid0 -> Sigmoid0
I0504 12:28:24.618366 29118 net.cpp:124] Setting up Sigmoid0
I0504 12:28:24.618387 29118 net.cpp:131] Top shape: 1000 24 34 34 (27744000)
I0504 12:28:24.618391 29118 net.cpp:139] Memory required for data: 234252000
I0504 12:28:24.618394 29118 layer_factory.hpp:77] Creating layer pool0
I0504 12:28:24.618402 29118 net.cpp:86] Creating Layer pool0
I0504 12:28:24.618404 29118 net.cpp:408] pool0 <- Sigmoid0
I0504 12:28:24.618409 29118 net.cpp:382] pool0 -> pool0
I0504 12:28:24.618572 29118 net.cpp:124] Setting up pool0
I0504 12:28:24.618582 29118 net.cpp:131] Top shape: 1000 24 17 17 (6936000)
I0504 12:28:24.618584 29118 net.cpp:139] Memory required for data: 261996000
I0504 12:28:24.618587 29118 layer_factory.hpp:77] Creating layer conv1
I0504 12:28:24.618597 29118 net.cpp:86] Creating Layer conv1
I0504 12:28:24.618600 29118 net.cpp:408] conv1 <- pool0
I0504 12:28:24.618607 29118 net.cpp:382] conv1 -> conv1
I0504 12:28:24.620990 29118 net.cpp:124] Setting up conv1
I0504 12:28:24.621006 29118 net.cpp:131] Top shape: 1000 216 19 19 (77976000)
I0504 12:28:24.621011 29118 net.cpp:139] Memory required for data: 573900000
I0504 12:28:24.621021 29118 layer_factory.hpp:77] Creating layer Sigmoid1
I0504 12:28:24.621050 29118 net.cpp:86] Creating Layer Sigmoid1
I0504 12:28:24.621054 29118 net.cpp:408] Sigmoid1 <- conv1
I0504 12:28:24.621062 29118 net.cpp:382] Sigmoid1 -> Sigmoid1
I0504 12:28:24.621270 29118 net.cpp:124] Setting up Sigmoid1
I0504 12:28:24.621280 29118 net.cpp:131] Top shape: 1000 216 19 19 (77976000)
I0504 12:28:24.621284 29118 net.cpp:139] Memory required for data: 885804000
I0504 12:28:24.621287 29118 layer_factory.hpp:77] Creating layer pool1
I0504 12:28:24.621294 29118 net.cpp:86] Creating Layer pool1
I0504 12:28:24.621297 29118 net.cpp:408] pool1 <- Sigmoid1
I0504 12:28:24.621301 29118 net.cpp:382] pool1 -> pool1
I0504 12:28:24.622066 29118 net.cpp:124] Setting up pool1
I0504 12:28:24.622079 29118 net.cpp:131] Top shape: 1000 216 9 9 (17496000)
I0504 12:28:24.622083 29118 net.cpp:139] Memory required for data: 955788000
I0504 12:28:24.622087 29118 layer_factory.hpp:77] Creating layer ip1
I0504 12:28:24.622097 29118 net.cpp:86] Creating Layer ip1
I0504 12:28:24.622115 29118 net.cpp:408] ip1 <- pool1
I0504 12:28:24.622129 29118 net.cpp:382] ip1 -> ip1
I0504 12:28:24.701920 29118 net.cpp:124] Setting up ip1
I0504 12:28:24.701941 29118 net.cpp:131] Top shape: 1000 180 (180000)
I0504 12:28:24.701944 29118 net.cpp:139] Memory required for data: 956508000
I0504 12:28:24.701957 29118 layer_factory.hpp:77] Creating layer relu1
I0504 12:28:24.701968 29118 net.cpp:86] Creating Layer relu1
I0504 12:28:24.701972 29118 net.cpp:408] relu1 <- ip1
I0504 12:28:24.701977 29118 net.cpp:369] relu1 -> ip1 (in-place)
I0504 12:28:24.702183 29118 net.cpp:124] Setting up relu1
I0504 12:28:24.702193 29118 net.cpp:131] Top shape: 1000 180 (180000)
I0504 12:28:24.702195 29118 net.cpp:139] Memory required for data: 957228000
I0504 12:28:24.702198 29118 layer_factory.hpp:77] Creating layer ip2
I0504 12:28:24.702208 29118 net.cpp:86] Creating Layer ip2
I0504 12:28:24.702210 29118 net.cpp:408] ip2 <- ip1
I0504 12:28:24.702216 29118 net.cpp:382] ip2 -> ip2
I0504 12:28:24.703125 29118 net.cpp:124] Setting up ip2
I0504 12:28:24.703132 29118 net.cpp:131] Top shape: 1000 180 (180000)
I0504 12:28:24.703135 29118 net.cpp:139] Memory required for data: 957948000
I0504 12:28:24.703140 29118 layer_factory.hpp:77] Creating layer relu2
I0504 12:28:24.703161 29118 net.cpp:86] Creating Layer relu2
I0504 12:28:24.703163 29118 net.cpp:408] relu2 <- ip2
I0504 12:28:24.703167 29118 net.cpp:369] relu2 -> ip2 (in-place)
I0504 12:28:24.703333 29118 net.cpp:124] Setting up relu2
I0504 12:28:24.703342 29118 net.cpp:131] Top shape: 1000 180 (180000)
I0504 12:28:24.703346 29118 net.cpp:139] Memory required for data: 958668000
I0504 12:28:24.703348 29118 layer_factory.hpp:77] Creating layer ip3
I0504 12:28:24.703354 29118 net.cpp:86] Creating Layer ip3
I0504 12:28:24.703356 29118 net.cpp:408] ip3 <- ip2
I0504 12:28:24.703362 29118 net.cpp:382] ip3 -> ip3
I0504 12:28:24.703517 29118 net.cpp:124] Setting up ip3
I0504 12:28:24.703536 29118 net.cpp:131] Top shape: 1000 10 (10000)
I0504 12:28:24.703539 29118 net.cpp:139] Memory required for data: 958708000
I0504 12:28:24.703547 29118 layer_factory.hpp:77] Creating layer ip3_ip3_0_split
I0504 12:28:24.703552 29118 net.cpp:86] Creating Layer ip3_ip3_0_split
I0504 12:28:24.703557 29118 net.cpp:408] ip3_ip3_0_split <- ip3
I0504 12:28:24.703562 29118 net.cpp:382] ip3_ip3_0_split -> ip3_ip3_0_split_0
I0504 12:28:24.703567 29118 net.cpp:382] ip3_ip3_0_split -> ip3_ip3_0_split_1
I0504 12:28:24.703600 29118 net.cpp:124] Setting up ip3_ip3_0_split
I0504 12:28:24.703610 29118 net.cpp:131] Top shape: 1000 10 (10000)
I0504 12:28:24.703614 29118 net.cpp:131] Top shape: 1000 10 (10000)
I0504 12:28:24.703616 29118 net.cpp:139] Memory required for data: 958788000
I0504 12:28:24.703619 29118 layer_factory.hpp:77] Creating layer accuracy
I0504 12:28:24.703629 29118 net.cpp:86] Creating Layer accuracy
I0504 12:28:24.703631 29118 net.cpp:408] accuracy <- ip3_ip3_0_split_0
I0504 12:28:24.703635 29118 net.cpp:408] accuracy <- label_cifar_1_split_0
I0504 12:28:24.703639 29118 net.cpp:382] accuracy -> accuracy
…
