…
I0504 02:11:54.324313  8745 net.cpp:296] The NetState phase (0) differed from the phase (1) specified by a rule in layer cifar
I0504 02:11:54.324334  8745 net.cpp:296] The NetState phase (0) differed from the phase (1) specified by a rule in layer accuracy
I0504 02:11:54.324431  8745 net.cpp:53] Initializing net from parameters: 
name: "CIFAR"
state {
  phase: TRAIN
  level: 0
  stage: ""
}
layer {
  name: "cifar"
  type: "Data"
  top: "data"
  top: "label"
  include {
    phase: TRAIN
  }
  transform_param {
    mean_file: "examples/cifar10/mean.binaryproto"
  }
  data_param {
    source: "examples/cifar10/cifar10_train_lmdb"
    batch_size: 111
    backend: LMDB
  }
}
layer {
  name: "conv0"
  type: "Convolution"
  bottom: "data"
  top: "conv0"
  param {
    lr_mult: 1
  }
  param {
    lr_mult: 2
  }
  convolution_param {
    num_output: 72
    pad: 2
    kernel_size: 5
    stride: 1
    weight_filler {
      type: "gaussian"
      std: 0.01
    }
    bias_filler {
      type: "constant"
    }
  }
}
layer {
  name: "Sigmoid0"
  type: "Sigmoid"
  bottom: "conv0"
  top: "Sigmoid0"
}
layer {
  name: "pool0"
  type: "Pooling"
  bottom: "Sigmoid0"
  top: "pool0"
  pooling_param {
    pool: AVE
    kernel_size: 3
    stride: 2
  }
}
layer {
  name: "ip1"
  type: "InnerProduct"
  bottom: "pool0"
  top: "ip1"
  param {
    lr_mult: 1
  }
  param {
    lr_mult: 2
  }
  inner_product_param {
    num_output: 60
    weight_filler {
      type: "gaussian"
      std: 0.01
    }
    bias_filler {
      type: "constant"
    }
  }
}
layer {
  name: "relu1"
  type: "ReLU"
  bottom: "ip1"
  top: "ip1"
}
layer {
  name: "ip2"
  type: "InnerProduct"
  bottom: "ip1"
  top: "ip2"
  param {
    lr_mult: 1
  }
  param {
    lr_mult: 2
  }
  inner_product_param {
    num_output: 180
    weight_filler {
      type: "gaussian"
      std: 0.01
    }
    bias_filler {
      type: "constant"
    }
  }
}
layer {
  name: "relu2"
  type: "ReLU"
  bottom: "ip2"
  top: "ip2"
}
layer {
  name: "ip3"
  type: "InnerProduct"
  bottom: "ip2"
  top: "ip3"
  param {
    lr_mult: 1
  }
  param {
    lr_mult: 2
  }
  inner_product_param {
    num_output: 10
    weight_filler {
      type: "gaussian"
      std: 0.01
    }
    bias_filler {
      type: "constant"
    }
  }
}
layer {
  name: "loss"
  type: "SoftmaxWithLoss"
  bottom: "ip3"
  bottom: "label"
  top: "loss"
}
I0504 02:11:54.324524  8745 layer_factory.hpp:77] Creating layer cifar
I0504 02:11:54.324656  8745 db_lmdb.cpp:35] Opened lmdb examples/cifar10/cifar10_train_lmdb
I0504 02:11:54.324692  8745 net.cpp:86] Creating Layer cifar
I0504 02:11:54.324703  8745 net.cpp:382] cifar -> data
I0504 02:11:54.324733  8745 net.cpp:382] cifar -> label
I0504 02:11:54.324749  8745 data_transformer.cpp:25] Loading mean file from: examples/cifar10/mean.binaryproto
I0504 02:11:54.326966  8745 data_layer.cpp:45] output data size: 111,3,32,32
I0504 02:11:54.334875  8745 net.cpp:124] Setting up cifar
I0504 02:11:54.334897  8745 net.cpp:131] Top shape: 111 3 32 32 (340992)
I0504 02:11:54.334908  8745 net.cpp:131] Top shape: 111 (111)
I0504 02:11:54.334914  8745 net.cpp:139] Memory required for data: 1364412
I0504 02:11:54.334928  8745 layer_factory.hpp:77] Creating layer conv0
I0504 02:11:54.334954  8745 net.cpp:86] Creating Layer conv0
I0504 02:11:54.334964  8745 net.cpp:408] conv0 <- data
I0504 02:11:54.334982  8745 net.cpp:382] conv0 -> conv0
I0504 02:11:54.627034  8745 net.cpp:124] Setting up conv0
I0504 02:11:54.627089  8745 net.cpp:131] Top shape: 111 72 32 32 (8183808)
I0504 02:11:54.627096  8745 net.cpp:139] Memory required for data: 34099644
I0504 02:11:54.627120  8745 layer_factory.hpp:77] Creating layer Sigmoid0
I0504 02:11:54.627140  8745 net.cpp:86] Creating Layer Sigmoid0
I0504 02:11:54.627154  8745 net.cpp:408] Sigmoid0 <- conv0
I0504 02:11:54.627164  8745 net.cpp:382] Sigmoid0 -> Sigmoid0
I0504 02:11:54.627378  8745 net.cpp:124] Setting up Sigmoid0
I0504 02:11:54.627391  8745 net.cpp:131] Top shape: 111 72 32 32 (8183808)
I0504 02:11:54.627398  8745 net.cpp:139] Memory required for data: 66834876
I0504 02:11:54.627404  8745 layer_factory.hpp:77] Creating layer pool0
I0504 02:11:54.627416  8745 net.cpp:86] Creating Layer pool0
I0504 02:11:54.627424  8745 net.cpp:408] pool0 <- Sigmoid0
I0504 02:11:54.627434  8745 net.cpp:382] pool0 -> pool0
I0504 02:11:54.628295  8745 net.cpp:124] Setting up pool0
I0504 02:11:54.628314  8745 net.cpp:131] Top shape: 111 72 16 16 (2045952)
I0504 02:11:54.628321  8745 net.cpp:139] Memory required for data: 75018684
I0504 02:11:54.628327  8745 layer_factory.hpp:77] Creating layer ip1
I0504 02:11:54.628343  8745 net.cpp:86] Creating Layer ip1
I0504 02:11:54.628351  8745 net.cpp:408] ip1 <- pool0
I0504 02:11:54.628361  8745 net.cpp:382] ip1 -> ip1
I0504 02:11:54.663393  8745 net.cpp:124] Setting up ip1
I0504 02:11:54.663409  8745 net.cpp:131] Top shape: 111 60 (6660)
I0504 02:11:54.663415  8745 net.cpp:139] Memory required for data: 75045324
I0504 02:11:54.663430  8745 layer_factory.hpp:77] Creating layer relu1
I0504 02:11:54.663440  8745 net.cpp:86] Creating Layer relu1
I0504 02:11:54.663447  8745 net.cpp:408] relu1 <- ip1
I0504 02:11:54.663455  8745 net.cpp:369] relu1 -> ip1 (in-place)
I0504 02:11:54.663630  8745 net.cpp:124] Setting up relu1
I0504 02:11:54.663640  8745 net.cpp:131] Top shape: 111 60 (6660)
I0504 02:11:54.663646  8745 net.cpp:139] Memory required for data: 75071964
I0504 02:11:54.663652  8745 layer_factory.hpp:77] Creating layer ip2
I0504 02:11:54.663663  8745 net.cpp:86] Creating Layer ip2
I0504 02:11:54.663671  8745 net.cpp:408] ip2 <- ip1
I0504 02:11:54.663684  8745 net.cpp:382] ip2 -> ip2
I0504 02:11:54.664110  8745 net.cpp:124] Setting up ip2
I0504 02:11:54.664121  8745 net.cpp:131] Top shape: 111 180 (19980)
I0504 02:11:54.664126  8745 net.cpp:139] Memory required for data: 75151884
I0504 02:11:54.664140  8745 layer_factory.hpp:77] Creating layer relu2
I0504 02:11:54.664149  8745 net.cpp:86] Creating Layer relu2
I0504 02:11:54.664160  8745 net.cpp:408] relu2 <- ip2
I0504 02:11:54.664167  8745 net.cpp:369] relu2 -> ip2 (in-place)
I0504 02:11:54.664340  8745 net.cpp:124] Setting up relu2
I0504 02:11:54.664351  8745 net.cpp:131] Top shape: 111 180 (19980)
I0504 02:11:54.664356  8745 net.cpp:139] Memory required for data: 75231804
I0504 02:11:54.664362  8745 layer_factory.hpp:77] Creating layer ip3
I0504 02:11:54.664374  8745 net.cpp:86] Creating Layer ip3
I0504 02:11:54.664381  8745 net.cpp:408] ip3 <- ip2
I0504 02:11:54.664389  8745 net.cpp:382] ip3 -> ip3
I0504 02:11:54.664549  8745 net.cpp:124] Setting up ip3
I0504 02:11:54.664559  8745 net.cpp:131] Top shape: 111 10 (1110)
I0504 02:11:54.664564  8745 net.cpp:139] Memory required for data: 75236244
I0504 02:11:54.664574  8745 layer_factory.hpp:77] Creating layer loss
I0504 02:11:54.664584  8745 net.cpp:86] Creating Layer loss
I0504 02:11:54.664589  8745 net.cpp:408] loss <- ip3
I0504 02:11:54.664597  8745 net.cpp:408] loss <- label
I0504 02:11:54.664605  8745 net.cpp:382] loss -> loss
I0504 02:11:54.664628  8745 layer_factory.hpp:77] Creating layer loss
…
I0504 02:11:54.665398  8745 solver.cpp:173] Creating test net (#0) specified by net file: ECE595/cifar/train_test/var_everything_tiny/cifar_train_test_44.prototxt
I0504 02:11:54.665437  8745 net.cpp:296] The NetState phase (1) differed from the phase (0) specified by a rule in layer cifar
I0504 02:11:54.665539  8745 net.cpp:53] Initializing net from parameters: 
name: "CIFAR"
state {
  phase: TEST
}
layer {
  name: "cifar"
  type: "Data"
  top: "data"
  top: "label"
  include {
    phase: TEST
  }
  transform_param {
    mean_file: "examples/cifar10/mean.binaryproto"
  }
  data_param {
    source: "examples/cifar10/cifar10_test_lmdb"
    batch_size: 1000
    backend: LMDB
  }
}
layer {
  name: "conv0"
  type: "Convolution"
  bottom: "data"
  top: "conv0"
  param {
    lr_mult: 1
  }
  param {
    lr_mult: 2
  }
  convolution_param {
    num_output: 72
    pad: 2
    kernel_size: 5
    stride: 1
    weight_filler {
      type: "gaussian"
      std: 0.01
    }
    bias_filler {
      type: "constant"
    }
  }
}
layer {
  name: "Sigmoid0"
  type: "Sigmoid"
  bottom: "conv0"
  top: "Sigmoid0"
}
layer {
  name: "pool0"
  type: "Pooling"
  bottom: "Sigmoid0"
  top: "pool0"
  pooling_param {
    pool: AVE
    kernel_size: 3
    stride: 2
  }
}
layer {
  name: "ip1"
  type: "InnerProduct"
  bottom: "pool0"
  top: "ip1"
  param {
    lr_mult: 1
  }
  param {
    lr_mult: 2
  }
  inner_product_param {
    num_output: 60
    weight_filler {
      type: "gaussian"
      std: 0.01
    }
    bias_filler {
      type: "constant"
    }
  }
}
layer {
  name: "relu1"
  type: "ReLU"
  bottom: "ip1"
  top: "ip1"
}
layer {
  name: "ip2"
  type: "InnerProduct"
  bottom: "ip1"
  top: "ip2"
  param {
    lr_mult: 1
  }
  param {
    lr_mult: 2
  }
  inner_product_param {
    num_output: 180
    weight_filler {
      type: "gaussian"
      std: 0.01
    }
    bias_filler {
      type: "constant"
    }
  }
}
layer {
  name: "relu2"
  type: "ReLU"
  bottom: "ip2"
  top: "ip2"
}
layer {
  name: "ip3"
  type: "InnerProduct"
  bottom: "ip2"
  top: "ip3"
  param {
    lr_mult: 1
  }
  param {
    lr_mult: 2
  }
  inner_product_param {
    num_output: 10
    weight_filler {
      type: "gaussian"
      std: 0.01
    }
    bias_filler {
      type: "constant"
    }
  }
}
layer {
  name: "accuracy"
  type: "Accuracy"
  bottom: "ip3"
  bottom: "label"
  top: "accuracy"
  include {
    phase: TEST
  }
}
layer {
  name: "loss"
  type: "SoftmaxWithLoss"
  bottom: "ip3"
  bottom: "label"
  top: "loss"
}
I0504 02:11:54.665644  8745 layer_factory.hpp:77] Creating layer cifar
I0504 02:11:54.665726  8745 db_lmdb.cpp:35] Opened lmdb examples/cifar10/cifar10_test_lmdb
I0504 02:11:54.665745  8745 net.cpp:86] Creating Layer cifar
I0504 02:11:54.665767  8745 net.cpp:382] cifar -> data
I0504 02:11:54.665779  8745 net.cpp:382] cifar -> label
I0504 02:11:54.665791  8745 data_transformer.cpp:25] Loading mean file from: examples/cifar10/mean.binaryproto
I0504 02:11:54.666000  8745 data_layer.cpp:45] output data size: 1000,3,32,32
I0504 02:11:54.688658  8745 net.cpp:124] Setting up cifar
I0504 02:11:54.688688  8745 net.cpp:131] Top shape: 1000 3 32 32 (3072000)
I0504 02:11:54.688695  8745 net.cpp:131] Top shape: 1000 (1000)
I0504 02:11:54.688701  8745 net.cpp:139] Memory required for data: 12292000
I0504 02:11:54.688709  8745 layer_factory.hpp:77] Creating layer label_cifar_1_split
I0504 02:11:54.688742  8745 net.cpp:86] Creating Layer label_cifar_1_split
I0504 02:11:54.688757  8745 net.cpp:408] label_cifar_1_split <- label
I0504 02:11:54.688767  8745 net.cpp:382] label_cifar_1_split -> label_cifar_1_split_0
I0504 02:11:54.688781  8745 net.cpp:382] label_cifar_1_split -> label_cifar_1_split_1
I0504 02:11:54.688915  8745 net.cpp:124] Setting up label_cifar_1_split
I0504 02:11:54.688925  8745 net.cpp:131] Top shape: 1000 (1000)
I0504 02:11:54.688931  8745 net.cpp:131] Top shape: 1000 (1000)
I0504 02:11:54.688936  8745 net.cpp:139] Memory required for data: 12300000
I0504 02:11:54.688942  8745 layer_factory.hpp:77] Creating layer conv0
I0504 02:11:54.688961  8745 net.cpp:86] Creating Layer conv0
I0504 02:11:54.688968  8745 net.cpp:408] conv0 <- data
I0504 02:11:54.688978  8745 net.cpp:382] conv0 -> conv0
I0504 02:11:54.690677  8745 net.cpp:124] Setting up conv0
I0504 02:11:54.690693  8745 net.cpp:131] Top shape: 1000 72 32 32 (73728000)
I0504 02:11:54.690699  8745 net.cpp:139] Memory required for data: 307212000
I0504 02:11:54.690716  8745 layer_factory.hpp:77] Creating layer Sigmoid0
I0504 02:11:54.690728  8745 net.cpp:86] Creating Layer Sigmoid0
I0504 02:11:54.690738  8745 net.cpp:408] Sigmoid0 <- conv0
I0504 02:11:54.690747  8745 net.cpp:382] Sigmoid0 -> Sigmoid0
I0504 02:11:54.691650  8745 net.cpp:124] Setting up Sigmoid0
I0504 02:11:54.691666  8745 net.cpp:131] Top shape: 1000 72 32 32 (73728000)
I0504 02:11:54.691673  8745 net.cpp:139] Memory required for data: 602124000
I0504 02:11:54.691679  8745 layer_factory.hpp:77] Creating layer pool0
I0504 02:11:54.691691  8745 net.cpp:86] Creating Layer pool0
I0504 02:11:54.691699  8745 net.cpp:408] pool0 <- Sigmoid0
I0504 02:11:54.691706  8745 net.cpp:382] pool0 -> pool0
I0504 02:11:54.692838  8745 net.cpp:124] Setting up pool0
I0504 02:11:54.692852  8745 net.cpp:131] Top shape: 1000 72 16 16 (18432000)
I0504 02:11:54.692857  8745 net.cpp:139] Memory required for data: 675852000
I0504 02:11:54.692863  8745 layer_factory.hpp:77] Creating layer ip1
I0504 02:11:54.692875  8745 net.cpp:86] Creating Layer ip1
I0504 02:11:54.692884  8745 net.cpp:408] ip1 <- pool0
I0504 02:11:54.692893  8745 net.cpp:382] ip1 -> ip1
I0504 02:11:54.723448  8745 net.cpp:124] Setting up ip1
I0504 02:11:54.723467  8745 net.cpp:131] Top shape: 1000 60 (60000)
I0504 02:11:54.723472  8745 net.cpp:139] Memory required for data: 676092000
I0504 02:11:54.723487  8745 layer_factory.hpp:77] Creating layer relu1
I0504 02:11:54.723500  8745 net.cpp:86] Creating Layer relu1
I0504 02:11:54.723507  8745 net.cpp:408] relu1 <- ip1
I0504 02:11:54.723515  8745 net.cpp:369] relu1 -> ip1 (in-place)
I0504 02:11:54.723704  8745 net.cpp:124] Setting up relu1
I0504 02:11:54.723714  8745 net.cpp:131] Top shape: 1000 60 (60000)
I0504 02:11:54.723719  8745 net.cpp:139] Memory required for data: 676332000
I0504 02:11:54.723724  8745 layer_factory.hpp:77] Creating layer ip2
I0504 02:11:54.723737  8745 net.cpp:86] Creating Layer ip2
I0504 02:11:54.723743  8745 net.cpp:408] ip2 <- ip1
I0504 02:11:54.723754  8745 net.cpp:382] ip2 -> ip2
I0504 02:11:54.724151  8745 net.cpp:124] Setting up ip2
I0504 02:11:54.724162  8745 net.cpp:131] Top shape: 1000 180 (180000)
I0504 02:11:54.724167  8745 net.cpp:139] Memory required for data: 677052000
I0504 02:11:54.724179  8745 layer_factory.hpp:77] Creating layer relu2
I0504 02:11:54.724189  8745 net.cpp:86] Creating Layer relu2
I0504 02:11:54.724197  8745 net.cpp:408] relu2 <- ip2
I0504 02:11:54.724205  8745 net.cpp:369] relu2 -> ip2 (in-place)
I0504 02:11:54.724372  8745 net.cpp:124] Setting up relu2
I0504 02:11:54.724390  8745 net.cpp:131] Top shape: 1000 180 (180000)
I0504 02:11:54.724395  8745 net.cpp:139] Memory required for data: 677772000
I0504 02:11:54.724400  8745 layer_factory.hpp:77] Creating layer ip3
I0504 02:11:54.724411  8745 net.cpp:86] Creating Layer ip3
I0504 02:11:54.724416  8745 net.cpp:408] ip3 <- ip2
I0504 02:11:54.724424  8745 net.cpp:382] ip3 -> ip3
I0504 02:11:54.724586  8745 net.cpp:124] Setting up ip3
I0504 02:11:54.724594  8745 net.cpp:131] Top shape: 1000 10 (10000)
I0504 02:11:54.724617  8745 net.cpp:139] Memory required for data: 677812000
I0504 02:11:54.724627  8745 layer_factory.hpp:77] Creating layer ip3_ip3_0_split
I0504 02:11:54.724637  8745 net.cpp:86] Creating Layer ip3_ip3_0_split
I0504 02:11:54.724642  8745 net.cpp:408] ip3_ip3_0_split <- ip3
I0504 02:11:54.724650  8745 net.cpp:382] ip3_ip3_0_split -> ip3_ip3_0_split_0
I0504 02:11:54.724659  8745 net.cpp:382] ip3_ip3_0_split -> ip3_ip3_0_split_1
I0504 02:11:54.724700  8745 net.cpp:124] Setting up ip3_ip3_0_split
I0504 02:11:54.724709  8745 net.cpp:131] Top shape: 1000 10 (10000)
I0504 02:11:54.724719  8745 net.cpp:131] Top shape: 1000 10 (10000)
I0504 02:11:54.724723  8745 net.cpp:139] Memory required for data: 677892000
I0504 02:11:54.724728  8745 layer_factory.hpp:77] Creating layer accuracy
I0504 02:11:54.724736  8745 net.cpp:86] Creating Layer accuracy
I0504 02:11:54.724742  8745 net.cpp:408] accuracy <- ip3_ip3_0_split_0
I0504 02:11:54.724748  8745 net.cpp:408] accuracy <- label_cifar_1_split_0
I0504 02:11:54.724756  8745 net.cpp:382] accuracy -> accuracy
…
