…
I0504 08:47:38.092404 22457 net.cpp:296] The NetState phase (0) differed from the phase (1) specified by a rule in layer cifar
I0504 08:47:38.092434 22457 net.cpp:296] The NetState phase (0) differed from the phase (1) specified by a rule in layer accuracy
I0504 08:47:38.092543 22457 net.cpp:53] Initializing net from parameters: 
name: "CIFAR"
state {
  phase: TRAIN
  level: 0
  stage: ""
}
layer {
  name: "cifar"
  type: "Data"
  top: "data"
  top: "label"
  include {
    phase: TRAIN
  }
  transform_param {
    mean_file: "examples/cifar10/mean.binaryproto"
  }
  data_param {
    source: "examples/cifar10/cifar10_train_lmdb"
    batch_size: 111
    backend: LMDB
  }
}
layer {
  name: "conv0"
  type: "Convolution"
  bottom: "data"
  top: "conv0"
  param {
    lr_mult: 1
  }
  param {
    lr_mult: 2
  }
  convolution_param {
    num_output: 24
    pad: 2
    kernel_size: 3
    stride: 1
    weight_filler {
      type: "gaussian"
      std: 0.01
    }
    bias_filler {
      type: "constant"
    }
  }
}
layer {
  name: "Sigmoid0"
  type: "Sigmoid"
  bottom: "conv0"
  top: "Sigmoid0"
}
layer {
  name: "pool0"
  type: "Pooling"
  bottom: "Sigmoid0"
  top: "pool0"
  pooling_param {
    pool: AVE
    kernel_size: 3
    stride: 2
  }
}
layer {
  name: "conv1"
  type: "Convolution"
  bottom: "pool0"
  top: "conv1"
  param {
    lr_mult: 1
  }
  param {
    lr_mult: 2
  }
  convolution_param {
    num_output: 72
    pad: 2
    kernel_size: 3
    stride: 1
    weight_filler {
      type: "gaussian"
      std: 0.01
    }
    bias_filler {
      type: "constant"
    }
  }
}
layer {
  name: "Sigmoid1"
  type: "Sigmoid"
  bottom: "conv1"
  top: "Sigmoid1"
}
layer {
  name: "pool1"
  type: "Pooling"
  bottom: "Sigmoid1"
  top: "pool1"
  pooling_param {
    pool: AVE
    kernel_size: 3
    stride: 2
  }
}
layer {
  name: "ip1"
  type: "InnerProduct"
  bottom: "pool1"
  top: "ip1"
  param {
    lr_mult: 1
  }
  param {
    lr_mult: 2
  }
  inner_product_param {
    num_output: 60
    weight_filler {
      type: "gaussian"
      std: 0.01
    }
    bias_filler {
      type: "constant"
    }
  }
}
layer {
  name: "relu1"
  type: "ReLU"
  bottom: "ip1"
  top: "ip1"
}
layer {
  name: "ip2"
  type: "InnerProduct"
  bottom: "ip1"
  top: "ip2"
  param {
    lr_mult: 1
  }
  param {
    lr_mult: 2
  }
  inner_product_param {
    num_output: 10
    weight_filler {
      type: "gaussian"
      std: 0.01
    }
    bias_filler {
      type: "constant"
    }
  }
}
layer {
  name: "loss"
  type: "SoftmaxWithLoss"
  bottom: "ip2"
  bottom: "label"
  top: "loss"
}
I0504 08:47:38.092604 22457 layer_factory.hpp:77] Creating layer cifar
I0504 08:47:38.092689 22457 db_lmdb.cpp:35] Opened lmdb examples/cifar10/cifar10_train_lmdb
I0504 08:47:38.092711 22457 net.cpp:86] Creating Layer cifar
I0504 08:47:38.092718 22457 net.cpp:382] cifar -> data
I0504 08:47:38.092739 22457 net.cpp:382] cifar -> label
I0504 08:47:38.092751 22457 data_transformer.cpp:25] Loading mean file from: examples/cifar10/mean.binaryproto
I0504 08:47:38.094686 22457 data_layer.cpp:45] output data size: 111,3,32,32
I0504 08:47:38.101269 22457 net.cpp:124] Setting up cifar
I0504 08:47:38.101316 22457 net.cpp:131] Top shape: 111 3 32 32 (340992)
I0504 08:47:38.101321 22457 net.cpp:131] Top shape: 111 (111)
I0504 08:47:38.101325 22457 net.cpp:139] Memory required for data: 1364412
I0504 08:47:38.101331 22457 layer_factory.hpp:77] Creating layer conv0
I0504 08:47:38.101363 22457 net.cpp:86] Creating Layer conv0
I0504 08:47:38.101380 22457 net.cpp:408] conv0 <- data
I0504 08:47:38.101392 22457 net.cpp:382] conv0 -> conv0
I0504 08:47:38.331935 22457 net.cpp:124] Setting up conv0
I0504 08:47:38.331977 22457 net.cpp:131] Top shape: 111 24 34 34 (3079584)
I0504 08:47:38.331981 22457 net.cpp:139] Memory required for data: 13682748
I0504 08:47:38.331997 22457 layer_factory.hpp:77] Creating layer Sigmoid0
I0504 08:47:38.332008 22457 net.cpp:86] Creating Layer Sigmoid0
I0504 08:47:38.332015 22457 net.cpp:408] Sigmoid0 <- conv0
I0504 08:47:38.332036 22457 net.cpp:382] Sigmoid0 -> Sigmoid0
I0504 08:47:38.332253 22457 net.cpp:124] Setting up Sigmoid0
I0504 08:47:38.332262 22457 net.cpp:131] Top shape: 111 24 34 34 (3079584)
I0504 08:47:38.332265 22457 net.cpp:139] Memory required for data: 26001084
I0504 08:47:38.332268 22457 layer_factory.hpp:77] Creating layer pool0
I0504 08:47:38.332275 22457 net.cpp:86] Creating Layer pool0
I0504 08:47:38.332278 22457 net.cpp:408] pool0 <- Sigmoid0
I0504 08:47:38.332283 22457 net.cpp:382] pool0 -> pool0
I0504 08:47:38.333027 22457 net.cpp:124] Setting up pool0
I0504 08:47:38.333040 22457 net.cpp:131] Top shape: 111 24 17 17 (769896)
I0504 08:47:38.333060 22457 net.cpp:139] Memory required for data: 29080668
I0504 08:47:38.333063 22457 layer_factory.hpp:77] Creating layer conv1
I0504 08:47:38.333076 22457 net.cpp:86] Creating Layer conv1
I0504 08:47:38.333079 22457 net.cpp:408] conv1 <- pool0
I0504 08:47:38.333086 22457 net.cpp:382] conv1 -> conv1
I0504 08:47:38.336047 22457 net.cpp:124] Setting up conv1
I0504 08:47:38.336060 22457 net.cpp:131] Top shape: 111 72 19 19 (2885112)
I0504 08:47:38.336063 22457 net.cpp:139] Memory required for data: 40621116
I0504 08:47:38.336071 22457 layer_factory.hpp:77] Creating layer Sigmoid1
I0504 08:47:38.336076 22457 net.cpp:86] Creating Layer Sigmoid1
I0504 08:47:38.336079 22457 net.cpp:408] Sigmoid1 <- conv1
I0504 08:47:38.336084 22457 net.cpp:382] Sigmoid1 -> Sigmoid1
I0504 08:47:38.336293 22457 net.cpp:124] Setting up Sigmoid1
I0504 08:47:38.336302 22457 net.cpp:131] Top shape: 111 72 19 19 (2885112)
I0504 08:47:38.336307 22457 net.cpp:139] Memory required for data: 52161564
I0504 08:47:38.336309 22457 layer_factory.hpp:77] Creating layer pool1
I0504 08:47:38.336314 22457 net.cpp:86] Creating Layer pool1
I0504 08:47:38.336318 22457 net.cpp:408] pool1 <- Sigmoid1
I0504 08:47:38.336323 22457 net.cpp:382] pool1 -> pool1
I0504 08:47:38.336491 22457 net.cpp:124] Setting up pool1
I0504 08:47:38.336499 22457 net.cpp:131] Top shape: 111 72 9 9 (647352)
I0504 08:47:38.336503 22457 net.cpp:139] Memory required for data: 54750972
I0504 08:47:38.336505 22457 layer_factory.hpp:77] Creating layer ip1
I0504 08:47:38.336514 22457 net.cpp:86] Creating Layer ip1
I0504 08:47:38.336518 22457 net.cpp:408] ip1 <- pool1
I0504 08:47:38.336521 22457 net.cpp:382] ip1 -> ip1
I0504 08:47:38.345880 22457 net.cpp:124] Setting up ip1
I0504 08:47:38.345891 22457 net.cpp:131] Top shape: 111 60 (6660)
I0504 08:47:38.345894 22457 net.cpp:139] Memory required for data: 54777612
I0504 08:47:38.345902 22457 layer_factory.hpp:77] Creating layer relu1
I0504 08:47:38.345909 22457 net.cpp:86] Creating Layer relu1
I0504 08:47:38.345912 22457 net.cpp:408] relu1 <- ip1
I0504 08:47:38.345916 22457 net.cpp:369] relu1 -> ip1 (in-place)
I0504 08:47:38.346109 22457 net.cpp:124] Setting up relu1
I0504 08:47:38.346117 22457 net.cpp:131] Top shape: 111 60 (6660)
I0504 08:47:38.346122 22457 net.cpp:139] Memory required for data: 54804252
I0504 08:47:38.346124 22457 layer_factory.hpp:77] Creating layer ip2
I0504 08:47:38.346129 22457 net.cpp:86] Creating Layer ip2
I0504 08:47:38.346132 22457 net.cpp:408] ip2 <- ip1
I0504 08:47:38.346138 22457 net.cpp:382] ip2 -> ip2
I0504 08:47:38.346256 22457 net.cpp:124] Setting up ip2
I0504 08:47:38.346263 22457 net.cpp:131] Top shape: 111 10 (1110)
I0504 08:47:38.346266 22457 net.cpp:139] Memory required for data: 54808692
I0504 08:47:38.346271 22457 layer_factory.hpp:77] Creating layer loss
I0504 08:47:38.346276 22457 net.cpp:86] Creating Layer loss
I0504 08:47:38.346292 22457 net.cpp:408] loss <- ip2
I0504 08:47:38.346297 22457 net.cpp:408] loss <- label
I0504 08:47:38.346303 22457 net.cpp:382] loss -> loss
I0504 08:47:38.346318 22457 layer_factory.hpp:77] Creating layer loss
…
I0504 08:47:38.347502 22457 solver.cpp:173] Creating test net (#0) specified by net file: ECE595/cifar/train_test/var_everything_tiny/cifar_train_test_109.prototxt
I0504 08:47:38.347542 22457 net.cpp:296] The NetState phase (1) differed from the phase (0) specified by a rule in layer cifar
I0504 08:47:38.347633 22457 net.cpp:53] Initializing net from parameters: 
name: "CIFAR"
state {
  phase: TEST
}
layer {
  name: "cifar"
  type: "Data"
  top: "data"
  top: "label"
  include {
    phase: TEST
  }
  transform_param {
    mean_file: "examples/cifar10/mean.binaryproto"
  }
  data_param {
    source: "examples/cifar10/cifar10_test_lmdb"
    batch_size: 1000
    backend: LMDB
  }
}
layer {
  name: "conv0"
  type: "Convolution"
  bottom: "data"
  top: "conv0"
  param {
    lr_mult: 1
  }
  param {
    lr_mult: 2
  }
  convolution_param {
    num_output: 24
    pad: 2
    kernel_size: 3
    stride: 1
    weight_filler {
      type: "gaussian"
      std: 0.01
    }
    bias_filler {
      type: "constant"
    }
  }
}
layer {
  name: "Sigmoid0"
  type: "Sigmoid"
  bottom: "conv0"
  top: "Sigmoid0"
}
layer {
  name: "pool0"
  type: "Pooling"
  bottom: "Sigmoid0"
  top: "pool0"
  pooling_param {
    pool: AVE
    kernel_size: 3
    stride: 2
  }
}
layer {
  name: "conv1"
  type: "Convolution"
  bottom: "pool0"
  top: "conv1"
  param {
    lr_mult: 1
  }
  param {
    lr_mult: 2
  }
  convolution_param {
    num_output: 72
    pad: 2
    kernel_size: 3
    stride: 1
    weight_filler {
      type: "gaussian"
      std: 0.01
    }
    bias_filler {
      type: "constant"
    }
  }
}
layer {
  name: "Sigmoid1"
  type: "Sigmoid"
  bottom: "conv1"
  top: "Sigmoid1"
}
layer {
  name: "pool1"
  type: "Pooling"
  bottom: "Sigmoid1"
  top: "pool1"
  pooling_param {
    pool: AVE
    kernel_size: 3
    stride: 2
  }
}
layer {
  name: "ip1"
  type: "InnerProduct"
  bottom: "pool1"
  top: "ip1"
  param {
    lr_mult: 1
  }
  param {
    lr_mult: 2
  }
  inner_product_param {
    num_output: 60
    weight_filler {
      type: "gaussian"
      std: 0.01
    }
    bias_filler {
      type: "constant"
    }
  }
}
layer {
  name: "relu1"
  type: "ReLU"
  bottom: "ip1"
  top: "ip1"
}
layer {
  name: "ip2"
  type: "InnerProduct"
  bottom: "ip1"
  top: "ip2"
  param {
    lr_mult: 1
  }
  param {
    lr_mult: 2
  }
  inner_product_param {
    num_output: 10
    weight_filler {
      type: "gaussian"
      std: 0.01
    }
    bias_filler {
      type: "constant"
    }
  }
}
layer {
  name: "accuracy"
  type: "Accuracy"
  bottom: "ip2"
  bottom: "label"
  top: "accuracy"
  include {
    phase: TEST
  }
}
layer {
  name: "loss"
  type: "SoftmaxWithLoss"
  bottom: "ip2"
  bottom: "label"
  top: "loss"
}
I0504 08:47:38.347710 22457 layer_factory.hpp:77] Creating layer cifar
I0504 08:47:38.347755 22457 db_lmdb.cpp:35] Opened lmdb examples/cifar10/cifar10_test_lmdb
I0504 08:47:38.347767 22457 net.cpp:86] Creating Layer cifar
I0504 08:47:38.347772 22457 net.cpp:382] cifar -> data
I0504 08:47:38.347779 22457 net.cpp:382] cifar -> label
I0504 08:47:38.347785 22457 data_transformer.cpp:25] Loading mean file from: examples/cifar10/mean.binaryproto
I0504 08:47:38.347924 22457 data_layer.cpp:45] output data size: 1000,3,32,32
I0504 08:47:38.369209 22457 net.cpp:124] Setting up cifar
I0504 08:47:38.369264 22457 net.cpp:131] Top shape: 1000 3 32 32 (3072000)
I0504 08:47:38.369277 22457 net.cpp:131] Top shape: 1000 (1000)
I0504 08:47:38.369279 22457 net.cpp:139] Memory required for data: 12292000
I0504 08:47:38.369284 22457 layer_factory.hpp:77] Creating layer label_cifar_1_split
I0504 08:47:38.369297 22457 net.cpp:86] Creating Layer label_cifar_1_split
I0504 08:47:38.369300 22457 net.cpp:408] label_cifar_1_split <- label
I0504 08:47:38.369307 22457 net.cpp:382] label_cifar_1_split -> label_cifar_1_split_0
I0504 08:47:38.369316 22457 net.cpp:382] label_cifar_1_split -> label_cifar_1_split_1
I0504 08:47:38.369460 22457 net.cpp:124] Setting up label_cifar_1_split
I0504 08:47:38.369468 22457 net.cpp:131] Top shape: 1000 (1000)
I0504 08:47:38.369472 22457 net.cpp:131] Top shape: 1000 (1000)
I0504 08:47:38.369474 22457 net.cpp:139] Memory required for data: 12300000
I0504 08:47:38.369477 22457 layer_factory.hpp:77] Creating layer conv0
I0504 08:47:38.369489 22457 net.cpp:86] Creating Layer conv0
I0504 08:47:38.369493 22457 net.cpp:408] conv0 <- data
I0504 08:47:38.369498 22457 net.cpp:382] conv0 -> conv0
I0504 08:47:38.370398 22457 net.cpp:124] Setting up conv0
I0504 08:47:38.370425 22457 net.cpp:131] Top shape: 1000 24 34 34 (27744000)
I0504 08:47:38.370429 22457 net.cpp:139] Memory required for data: 123276000
I0504 08:47:38.370440 22457 layer_factory.hpp:77] Creating layer Sigmoid0
I0504 08:47:38.370446 22457 net.cpp:86] Creating Layer Sigmoid0
I0504 08:47:38.370450 22457 net.cpp:408] Sigmoid0 <- conv0
I0504 08:47:38.370453 22457 net.cpp:382] Sigmoid0 -> Sigmoid0
I0504 08:47:38.371378 22457 net.cpp:124] Setting up Sigmoid0
I0504 08:47:38.371407 22457 net.cpp:131] Top shape: 1000 24 34 34 (27744000)
I0504 08:47:38.371410 22457 net.cpp:139] Memory required for data: 234252000
I0504 08:47:38.371413 22457 layer_factory.hpp:77] Creating layer pool0
I0504 08:47:38.371421 22457 net.cpp:86] Creating Layer pool0
I0504 08:47:38.371424 22457 net.cpp:408] pool0 <- Sigmoid0
I0504 08:47:38.371433 22457 net.cpp:382] pool0 -> pool0
I0504 08:47:38.371616 22457 net.cpp:124] Setting up pool0
I0504 08:47:38.371625 22457 net.cpp:131] Top shape: 1000 24 17 17 (6936000)
I0504 08:47:38.371628 22457 net.cpp:139] Memory required for data: 261996000
I0504 08:47:38.371631 22457 layer_factory.hpp:77] Creating layer conv1
I0504 08:47:38.371639 22457 net.cpp:86] Creating Layer conv1
I0504 08:47:38.371644 22457 net.cpp:408] conv1 <- pool0
I0504 08:47:38.371649 22457 net.cpp:382] conv1 -> conv1
I0504 08:47:38.374091 22457 net.cpp:124] Setting up conv1
I0504 08:47:38.374121 22457 net.cpp:131] Top shape: 1000 72 19 19 (25992000)
I0504 08:47:38.374125 22457 net.cpp:139] Memory required for data: 365964000
I0504 08:47:38.374132 22457 layer_factory.hpp:77] Creating layer Sigmoid1
I0504 08:47:38.374140 22457 net.cpp:86] Creating Layer Sigmoid1
I0504 08:47:38.374142 22457 net.cpp:408] Sigmoid1 <- conv1
I0504 08:47:38.374148 22457 net.cpp:382] Sigmoid1 -> Sigmoid1
I0504 08:47:38.374325 22457 net.cpp:124] Setting up Sigmoid1
I0504 08:47:38.374333 22457 net.cpp:131] Top shape: 1000 72 19 19 (25992000)
I0504 08:47:38.374336 22457 net.cpp:139] Memory required for data: 469932000
I0504 08:47:38.374339 22457 layer_factory.hpp:77] Creating layer pool1
I0504 08:47:38.374346 22457 net.cpp:86] Creating Layer pool1
I0504 08:47:38.374349 22457 net.cpp:408] pool1 <- Sigmoid1
I0504 08:47:38.374370 22457 net.cpp:382] pool1 -> pool1
I0504 08:47:38.374533 22457 net.cpp:124] Setting up pool1
I0504 08:47:38.374541 22457 net.cpp:131] Top shape: 1000 72 9 9 (5832000)
I0504 08:47:38.374544 22457 net.cpp:139] Memory required for data: 493260000
I0504 08:47:38.374547 22457 layer_factory.hpp:77] Creating layer ip1
I0504 08:47:38.374558 22457 net.cpp:86] Creating Layer ip1
I0504 08:47:38.374562 22457 net.cpp:408] ip1 <- pool1
I0504 08:47:38.374567 22457 net.cpp:382] ip1 -> ip1
I0504 08:47:38.384222 22457 net.cpp:124] Setting up ip1
I0504 08:47:38.384233 22457 net.cpp:131] Top shape: 1000 60 (60000)
I0504 08:47:38.384253 22457 net.cpp:139] Memory required for data: 493500000
I0504 08:47:38.384260 22457 layer_factory.hpp:77] Creating layer relu1
I0504 08:47:38.384268 22457 net.cpp:86] Creating Layer relu1
I0504 08:47:38.384271 22457 net.cpp:408] relu1 <- ip1
I0504 08:47:38.384275 22457 net.cpp:369] relu1 -> ip1 (in-place)
I0504 08:47:38.385169 22457 net.cpp:124] Setting up relu1
I0504 08:47:38.385181 22457 net.cpp:131] Top shape: 1000 60 (60000)
I0504 08:47:38.385185 22457 net.cpp:139] Memory required for data: 493740000
I0504 08:47:38.385188 22457 layer_factory.hpp:77] Creating layer ip2
I0504 08:47:38.385195 22457 net.cpp:86] Creating Layer ip2
I0504 08:47:38.385200 22457 net.cpp:408] ip2 <- ip1
I0504 08:47:38.385205 22457 net.cpp:382] ip2 -> ip2
I0504 08:47:38.385365 22457 net.cpp:124] Setting up ip2
I0504 08:47:38.385371 22457 net.cpp:131] Top shape: 1000 10 (10000)
I0504 08:47:38.385375 22457 net.cpp:139] Memory required for data: 493780000
I0504 08:47:38.385381 22457 layer_factory.hpp:77] Creating layer ip2_ip2_0_split
I0504 08:47:38.385385 22457 net.cpp:86] Creating Layer ip2_ip2_0_split
I0504 08:47:38.385388 22457 net.cpp:408] ip2_ip2_0_split <- ip2
I0504 08:47:38.385392 22457 net.cpp:382] ip2_ip2_0_split -> ip2_ip2_0_split_0
I0504 08:47:38.385398 22457 net.cpp:382] ip2_ip2_0_split -> ip2_ip2_0_split_1
I0504 08:47:38.385428 22457 net.cpp:124] Setting up ip2_ip2_0_split
I0504 08:47:38.385434 22457 net.cpp:131] Top shape: 1000 10 (10000)
I0504 08:47:38.385437 22457 net.cpp:131] Top shape: 1000 10 (10000)
I0504 08:47:38.385440 22457 net.cpp:139] Memory required for data: 493860000
I0504 08:47:38.385443 22457 layer_factory.hpp:77] Creating layer accuracy
I0504 08:47:38.385450 22457 net.cpp:86] Creating Layer accuracy
I0504 08:47:38.385453 22457 net.cpp:408] accuracy <- ip2_ip2_0_split_0
I0504 08:47:38.385457 22457 net.cpp:408] accuracy <- label_cifar_1_split_0
I0504 08:47:38.385460 22457 net.cpp:382] accuracy -> accuracy
…
